…
Java HotSpot(TM) 64-Bit Server VM warning: You have loaded library /home/peifeng/work/run/storm102/data/workers/86005230-fc8a-407b-b735-0e28fc4fab21/tmp/cvld4158300340962570526/libopencv_java310.xine1.so which might have disabled stack guard. The VM will try to fix the stack guard now.
It's highly recommended that you fix the library with 'execstack -c <libfile>', or link it with '-z noexecstack'.
WARNING: Logging before InitGoogleLogging() is written to STDERR
I0924 01:10:55.641234  1430 net.cpp:49] Initializing net from parameters: 
name: "GoogleNet"
state {
  phase: TEST
}
layer {
  name: "data"
  type: "Input"
  top: "data"
  input_param {
    shape {
      dim: 10
      dim: 3
      dim: 224
      dim: 224
    }
  }
}
layer {
  name: "conv1/7x7_s2"
  type: "Convolution"
  bottom: "data"
  top: "conv1/7x7_s2"
  param {
    lr_mult: 1
    decay_mult: 1
  }
  param {
    lr_mult: 2
    decay_mult: 0
  }
  convolution_param {
    num_output: 64
    pad: 3
    kernel_size: 7
    stride: 2
    weight_filler {
      type: "xavier"
      std: 0.1
    }
    bias_filler {
      type: "constant"
      value: 0.2
    }
  }
}
layer {
  name: "conv1/relu_7x7"
  type: "ReLU"
  bottom: "conv1/7x7_s2"
  top: "conv1/7x7_s2"
}
layer {
  name: "pool1/3x3_s2"
  type: "Pooling"
  bottom: "conv1/7x7_s2"
  top: "pool1/3x3_s2"
  pooling_param {
    pool: MAX
    kernel_size: 3
    stride: 2
  }
}
layer {
  name: "pool1/norm1"
  type: "LRN"
  bottom: "pool1/3x3_s2"
  top: "pool1/norm1"
  lrn_param {
    local_size: 5
    alpha: 0.0001
    beta: 0.75
  }
}
layer {
  name: "conv2/3x3_reduce"
  type: "Convolution"
  bottom: "pool1/norm1"
  top: "conv2/3x3_reduce"
  param {
    lr_mult: 1
    decay_mult: 1
  }
  param {
    lr_mult: 2
    decay_mult: 0
  }
  convolution_param {
    num_output: 64
    kernel_size: 1
    weight_filler {
      type: "xavier"
      std: 0.1
    }
    bias_filler {
      type: "constant"
      value: 0.2
    }
  }
}
layer {
  name: "conv2/relu_3x3_reduce"
  type: "ReLU"
  bottom: "conv2/3x3_reduce"
  top: "conv2/3x3_reduce"
}
layer {
  name: "conv2/3x3"
  type: "Convolution"
  bottom: "conv2/3x3_reduce"
  top: "conv2/3x3"
  param {
    lr_mult: 1
    decay_mult: 1
  }
  param {
    lr_mult: 2
    decay_mult: 0
  }
  convolution_param {
    num_output: 192
    pad: 1
    kernel_size: 3
    weight_filler {
      type: "xavier"
      std: 0.03
    }
    bias_filler {
      type: "constant"
      value: 0.2
    }
  }
}
layer {
  name: "conv2/relu_3x3"
  type: "ReLU"
  bottom: "conv2/3x3"
  top: "conv2/3x3"
}
layer {
  name: "conv2/norm2"
  type: "LRN"
  bottom: "conv2/3x3"
  top: "conv2/norm2"
  lrn_param {
    local_size: 5
    alpha: 0.0001
    beta: 0.75
  }
}
layer {
  name: "pool2/3x3_s2"
  type: "Pooling"
  bottom: "conv2/norm2"
  top: "pool2/3x3_s2"
  pooling_param {
    pool: MAX
    kernel_size: 3
    stride: 2
  }
}
layer {
  name: "inception_3a/1x1"
  type: "Convolution"
  bottom: "pool2/3x3_s2"
  top: "inception_3a/1x1"
  param {
    lr_mult: 1
    decay_mult: 1
  }
  param {
    lr_mult: 2
    decay_mult: 0
  }
  convolution_param {
    num_output: 64
    kernel_size: 1
    weight_filler {
      type: "xavier"
      std: 0.03
    }
    bias_filler {
      type: "constant"
      value: 0.2
    }
  }
}
layer {
  name: "inception_3a/relu_1x1"
  type: "ReLU"
  bottom: "inception_3a/1x1"
  top: "inception_3a/1x1"
}
layer {
  name: "inception_3a/3x3_reduce"
  type: "Convolution"
  bottom: "pool2/3x3_s2"
  top: "inception_3a/3x3_reduce"
  param {
    lr_mult: 1
    decay_mult: 1
  }
  param {
    lr_mult: 2
    decay_mult: 0
  }
  convolution_param {
    num_output: 96
    kernel_size: 1
    weight_filler {
      type: "xavier"
      std: 0.09
    }
    bias_filler {
      type: "constant"
      value: 0.2
    }
  }
}
layer {
  name: "inception_3a/relu_3x3_reduce"
  type: "ReLU"
  bottom: "inception_3a/3x3_reduce"
  top: "inception_3a/3x3_reduce"
}
layer {
  name: "inception_3a/3x3"
  type: "Convolution"
  bottom: "inception_3a/3x3_reduce"
  top: "inception_3a/3x3"
  param {
    lr_mult: 1
    decay_mult: 1
  }
  param {
    lr_mult: 2
    decay_mult: 0
  }
  convolution_param {
    num_output: 128
    pad: 1
    kernel_size: 3
    weight_filler {
      type: "xavier"
      std: 0.03
    }
    bias_filler {
      type: "constant"
      value: 0.2
    }
  }
}
layer {
  name: "inception_3a/relu_3x3"
  type: "ReLU"
  bottom: "inception_3a/3x3"
  top: "inception_3a/3x3"
}
layer {
  name: "inception_3a/5x5_reduce"
  type: "Convolution"
  bottom: "pool2/3x3_s2"
  top: "inception_3a/5x5_reduce"
  param {
    lr_mult: 1
    decay_mult: 1
  }
  param {
    lr_mult: 2
    decay_mult: 0
  }
  convolution_param {
    num_output: 16
    kernel_size: 1
    weight_filler {
      type: "xavier"
      std: 0.2
    }
    bias_filler {
      type: "constant"
      value: 0.2
    }
  }
}
layer {
  name: "inception_3a/relu_5x5_reduce"
  type: "ReLU"
  bottom: "inception_3a/5x5_reduce"
  top: "inception_3a/5x5_reduce"
}
layer {
  name: "inception_3a/5x5"
  type: "Convolution"
  bottom: "inception_3a/5x5_reduce"
  top: "inception_3a/5x5"
  param {
    lr_mult: 1
    decay_mult: 1
  }
  param {
    lr_mult: 2
    decay_mult: 0
  }
  convolution_param {
    num_output: 32
    pad: 2
    kernel_size: 5
    weight_filler {
      type: "xavier"
      std: 0.03
    }
    bias_filler {
      type: "constant"
      value: 0.2
    }
  }
}
layer {
  name: "inception_3a/relu_5x5"
  type: "ReLU"
  bottom: "inception_3a/5x5"
  top: "inception_3a/5x5"
}
layer {
  name: "inception_3a/pool"
  type: "Pooling"
  bottom: "pool2/3x3_s2"
  top: "inception_3a/pool"
  pooling_param {
    pool: MAX
    kernel_size: 3
    stride: 1
    pad: 1
  }
}
layer {
  name: "inception_3a/pool_proj"
  type: "Convolution"
  bottom: "inception_3a/pool"
  top: "inception_3a/pool_proj"
  param {
    lr_mult: 1
    decay_mult: 1
  }
  param {
    lr_mult: 2
    decay_mult: 0
  }
  convolution_param {
    num_output: 32
    kernel_size: 1
    weight_filler {
      type: "xavier"
      std: 0.1
    }
    bias_filler {
      type: "constant"
      value: 0.2
    }
  }
}
layer {
  name: "inception_3a/relu_pool_proj"
  type: "ReLU"
  bottom: "inception_3a/pool_proj"
  top: "inception_3a/pool_proj"
}
layer {
  name: "inception_3a/output"
  type: "Concat"
  bottom: "inception_3a/1x1"
  bottom: "inception_3a/3x3"
  bottom: "inception_3a/5x5"
  bottom: "inception_3a/pool_proj"
  top: "inception_3a/output"
}
layer {
  name: "inception_3b/1x1"
  type: "Convolution"
  bottom: "inception_3a/output"
  top: "inception_3b/1x1"
  param {
    lr_mult: 1
    decay_mult: 1
  }
  param {
    lr_mult: 2
    decay_mult: 0
  }
  convolution_param {
    num_output: 128
    kernel_size: 1
    weight_filler {
      type: "xavier"
      std: 0.03
    }
    bias_filler {
      type: "constant"
      value: 0.2
    }
  }
}
layer {
  name: "inception_3b/relu_1x1"
  type: "ReLU"
  bottom: "inception_3b/1x1"
  top: "inception_3b/1x1"
}
layer {
  name: "inception_3b/3x3_reduce"
  type: "Convolution"
  bottom: "inception_3a/output"
  top: "inception_3b/3x3_reduce"
  param {
    lr_mult: 1
    decay_mult: 1
  }
  param {
    lr_mult: 2
    decay_mult: 0
  }
  convolution_param {
    num_output: 128
    kernel_size: 1
    weight_filler {
      type: "xavier"
      std: 0.09
    }
    bias_filler {
      type: "constant"
      value: 0.2
    }
  }
}
layer {
  name: "inception_3b/relu_3x3_reduce"
  type: "ReLU"
  bottom: "inception_3b/3x3_reduce"
  top: "inception_3b/3x3_reduce"
}
layer {
  name: "inception_3b/3x3"
  type: "Convolution"
  bottom: "inception_3b/3x3_reduce"
  top: "inception_3b/3x3"
  param {
    lr_mult: 1
    decay_mult: 1
  }
  param {
    lr_mult: 2
    decay_mult: 0
  }
  convolution_param {
    num_output: 192
    pad: 1
    kernel_size: 3
    weight_filler {
      type: "xavier"
      std: 0.03
    }
    bias_filler {
      type: "constant"
      value: 0.2
    }
  }
}
layer {
  name: "inception_3b/relu_3x3"
  type: "ReLU"
  bottom: "inception_3b/3x3"
  top: "inception_3b/3x3"
}
layer {
  name: "inception_3b/5x5_reduce"
  type: "Convolution"
  bottom: "inception_3a/output"
  top: "inception_3b/5x5_reduce"
  param {
    lr_mult: 1
    decay_mult: 1
  }
  param {
    lr_mult: 2
    decay_mult: 0
  }
  convolution_param {
    num_output: 32
    kernel_size: 1
    weight_filler {
      type: "xavier"
      std: 0.2
    }
    bias_filler {
      type: "constant"
      value: 0.2
    }
  }
}
layer {
  name: "inception_3b/relu_5x5_reduce"
  type: "ReLU"
  bottom: "inception_3b/5x5_reduce"
  top: "inception_3b/5x5_reduce"
}
layer {
  name: "inception_3b/5x5"
  type: "Convolution"
  bottom: "inception_3b/5x5_reduce"
  top: "inception_3b/5x5"
  param {
    lr_mult: 1
    decay_mult: 1
  }
  param {
    lr_mult: 2
    decay_mult: 0
  }
  convolution_param {
    num_output: 96
    pad: 2
    kernel_size: 5
    weight_filler {
      type: "xavier"
      std: 0.03
    }
    bias_filler {
      type: "constant"
      value: 0.2
    }
  }
}
layer {
  name: "inception_3b/relu_5x5"
  type: "ReLU"
  bottom: "inception_3b/5x5"
  top: "inception_3b/5x5"
}
layer {
  name: "inception_3b/pool"
  type: "Pooling"
  bottom: "inception_3a/output"
  top: "inception_3b/pool"
  pooling_param {
    pool: MAX
    kernel_size: 3
    stride: 1
    pad: 1
  }
}
layer {
  name: "inception_3b/pool_proj"
  type: "Convolution"
  bottom: "inception_3b/pool"
  top: "inception_3b/pool_proj"
  param {
    lr_mult: 1
    decay_mult: 1
  }
  param {
    lr_mult: 2
    decay_mult: 0
  }
  convolution_param {
    num_output: 64
    kernel_size: 1
    weight_filler {
      type: "xavier"
      std: 0.1
    }
    bias_filler {
      type: "constant"
      value: 0.2
    }
  }
}
layer {
  name: "inception_3b/relu_pool_proj"
  type: "ReLU"
  bottom: "inception_3b/pool_proj"
  top: "inception_3b/pool_proj"
}
layer {
  name: "inception_3b/output"
  type: "Concat"
  bottom: "inception_3b/1x1"
  bottom: "inception_3b/3x3"
  bottom: "inception_3b/5x5"
  bottom: "inception_3b/pool_proj"
  top: "inception_3b/output"
}
layer {
  name: "pool3/3x3_s2"
  type: "Pooling"
  bottom: "inception_3b/output"
  top: "pool3/3x3_s2"
  pooling_param {
    pool: MAX
    kernel_size: 3
    stride: 2
  }
}
layer {
  name: "inception_4a/1x1"
  type: "Convolution"
  bottom: "pool3/3x3_s2"
  top: "inception_4a/1x1"
  param {
    lr_mult: 1
    decay_mult: 1
  }
  param {
    lr_mult: 2
    decay_mult: 0
  }
  convolution_param {
    num_output: 192
    kernel_size: 1
    weight_filler {
      type: "xavier"
      std: 0.03
    }
    bias_filler {
      type: "constant"
      value: 0.2
    }
  }
}
layer {
  name: "inception_4a/relu_1x1"
  type: "ReLU"
  bottom: "inception_4a/1x1"
  top: "inception_4a/1x1"
}
layer {
  name: "inception_4a/3x3_reduce"
  type: "Convolution"
  bottom: "pool3/3x3_s2"
  top: "inception_4a/3x3_reduce"
  param {
    lr_mult: 1
    decay_mult: 1
  }
  param {
    lr_mult: 2
    decay_mult: 0
  }
  convolution_param {
    num_output: 96
    kernel_size: 1
    weight_filler {
      type: "xavier"
      std: 0.09
    }
    bias_filler {
      type: "constant"
      value: 0.2
    }
  }
}
layer {
  name: "inception_4a/relu_3x3_reduce"
  type: "ReLU"
  bottom: "inception_4a/3x3_reduce"
  top: "inception_4a/3x3_reduce"
}
layer {
  name: "inception_4a/3x3"
  type: "Convolution"
  bottom: "inception_4a/3x3_reduce"
  top: "inception_4a/3x3"
  param {
    lr_mult: 1
    decay_mult: 1
  }
  param {
    lr_mult: 2
    decay_mult: 0
  }
  convolution_param {
    num_output: 208
    pad: 1
    kernel_size: 3
    weight_filler {
      type: "xavier"
      std: 0.03
    }
    bias_filler {
      type: "constant"
      value: 0.2
    }
  }
}
layer {
  name: "inception_4a/relu_3x3"
  type: "ReLU"
  bottom: "inception_4a/3x3"
  top: "inception_4a/3x3"
}
layer {
  name: "inception_4a/5x5_reduce"
  type: "Convolution"
  bottom: "pool3/3x3_s2"
  top: "inception_4a/5x5_reduce"
  param {
    lr_mult: 1
    decay_mult: 1
  }
  param {
    lr_mult: 2
    decay_mult: 0
  }
  convolution_param {
    num_output: 16
    kernel_size: 1
    weight_filler {
      type: "xavier"
      std: 0.2
    }
    bias_filler {
      type: "constant"
      value: 0.2
    }
  }
}
layer {
  name: "inception_4a/relu_5x5_reduce"
  type: "ReLU"
  bottom: "inception_4a/5x5_reduce"
  top: "inception_4a/5x5_reduce"
}
layer {
  name: "inception_4a/5x5"
  type: "Convolution"
  bottom: "inception_4a/5x5_reduce"
  top: "inception_4a/5x5"
  param {
    lr_mult: 1
    decay_mult: 1
  }
  param {
    lr_mult: 2
    decay_mult: 0
  }
  convolution_param {
    num_output: 48
    pad: 2
    kernel_size: 5
    weight_filler {
      type: "xavier"
      std: 0.03
    }
    bias_filler {
      type: "constant"
      value: 0.2
    }
  }
}
layer {
  name: "inception_4a/relu_5x5"
  type: "ReLU"
  bottom: "inception_4a/5x5"
  top: "inception_4a/5x5"
}
layer {
  name: "inception_4a/pool"
  type: "Pooling"
  bottom: "pool3/3x3_s2"
  top: "inception_4a/pool"
  pooling_param {
    pool: MAX
    kernel_size: 3
    stride: 1
    pad: 1
  }
}
layer {
  name: "inception_4a/pool_proj"
  type: "Convolution"
  bottom: "inception_4a/pool"
  top: "inception_4a/pool_proj"
  param {
    lr_mult: 1
    decay_mult: 1
  }
  param {
    lr_mult: 2
    decay_mult: 0
  }
  convolution_param {
    num_output: 64
    kernel_size: 1
    weight_filler {
      type: "xavier"
      std: 0.1
    }
    bias_filler {
      type: "constant"
      value: 0.2
    }
  }
}
layer {
  name: "inception_4a/relu_pool_proj"
  type: "ReLU"
  bottom: "inception_4a/pool_proj"
  top: "inception_4a/pool_proj"
}
layer {
  name: "inception_4a/output"
  type: "Concat"
  bottom: "inception_4a/1x1"
  bottom: "inception_4a/3x3"
  bottom: "inception_4a/5x5"
  bottom: "inception_4a/pool_proj"
  top: "inception_4a/output"
}
layer {
  name: "inception_4b/1x1"
  type: "Convolution"
  bottom: "inception_4a/output"
  top: "inception_4b/1x1"
  param {
    lr_mult: 1
    decay_mult: 1
  }
  param {
    lr_mult: 2
    decay_mult: 0
  }
  convolution_param {
    num_output: 160
    kernel_size: 1
    weight_filler {
      type: "xavier"
      std: 0.03
    }
    bias_filler {
      type: "constant"
      value: 0.2
    }
  }
}
layer {
  name: "inception_4b/relu_1x1"
  type: "ReLU"
  bottom: "inception_4b/1x1"
  top: "inception_4b/1x1"
}
layer {
  name: "inception_4b/3x3_reduce"
  type: "Convolution"
  bottom: "inception_4a/output"
  top: "inception_4b/3x3_reduce"
  param {
    lr_mult: 1
    decay_mult: 1
  }
  param {
    lr_mult: 2
    decay_mult: 0
  }
  convolution_param {
    num_output: 112
    kernel_size: 1
    weight_filler {
      type: "xavier"
      std: 0.09
    }
    bias_filler {
      type: "constant"
      value: 0.2
    }
  }
}
layer {
  name: "inception_4b/relu_3x3_reduce"
  type: "ReLU"
  bottom: "inception_4b/3x3_reduce"
  top: "inception_4b/3x3_reduce"
}
layer {
  name: "inception_4b/3x3"
  type: "Convolution"
  bottom: "inception_4b/3x3_reduce"
  top: "inception_4b/3x3"
  param {
    lr_mult: 1
    decay_mult: 1
  }
  param {
    lr_mult: 2
    decay_mult: 0
  }
  convolution_param {
    num_output: 224
    pad: 1
    kernel_size: 3
    weight_filler {
      type: "xavier"
      std: 0.03
    }
    bias_filler {
      type: "constant"
      value: 0.2
    }
  }
}
layer {
  name: "inception_4b/relu_3x3"
  type: "ReLU"
  bottom: "inception_4b/3x3"
  top: "inception_4b/3x3"
}
layer {
  name: "inception_4b/5x5_reduce"
  type: "Convolution"
  bottom: "inception_4a/output"
  top: "inception_4b/5x5_reduce"
  param {
    lr_mult: 1
    decay_mult: 1
  }
  param {
    lr_mult: 2
    decay_mult: 0
  }
  convolution_param {
    num_output: 24
    kernel_size: 1
    weight_filler {
      type: "xavier"
      std: 0.2
    }
    bias_filler {
      type: "constant"
      value: 0.2
    }
  }
}
layer {
  name: "inception_4b/relu_5x5_reduce"
  type: "ReLU"
  bottom: "inception_4b/5x5_reduce"
  top: "inception_4b/5x5_reduce"
}
layer {
  name: "inception_4b/5x5"
  type: "Convolution"
  bottom: "inception_4b/5x5_reduce"
  top: "inception_4b/5x5"
  param {
    lr_mult: 1
    decay_mult: 1
  }
  param {
    lr_mult: 2
    decay_mult: 0
  }
  convolution_param {
    num_output: 64
    pad: 2
    kernel_size: 5
    weight_filler {
      type: "xavier"
      std: 0.03
    }
    bias_filler {
      type: "constant"
      value: 0.2
    }
  }
}
layer {
  name: "inception_4b/relu_5x5"
  type: "ReLU"
  bottom: "inception_4b/5x5"
  top: "inception_4b/5x5"
}
layer {
  name: "inception_4b/pool"
  type: "Pooling"
  bottom: "inception_4a/output"
  top: "inception_4b/pool"
  pooling_param {
    pool: MAX
    kernel_size: 3
    stride: 1
    pad: 1
  }
}
layer {
  name: "inception_4b/pool_proj"
  type: "Convolution"
  bottom: "inception_4b/pool"
  top: "inception_4b/pool_proj"
  param {
    lr_mult: 1
    decay_mult: 1
  }
  param {
    lr_mult: 2
    decay_mult: 0
  }
  convolution_param {
    num_output: 64
    kernel_size: 1
    weight_filler {
      type: "xavier"
      std: 0.1
    }
    bias_filler {
      type: "constant"
      value: 0.2
    }
  }
}
layer {
  name: "inception_4b/relu_pool_proj"
  type: "ReLU"
  bottom: "inception_4b/pool_proj"
  top: "inception_4b/pool_proj"
}
layer {
  name: "inception_4b/output"
  type: "Concat"
  bottom: "inception_4b/1x1"
  bottom: "inception_4b/3x3"
  bottom: "inception_4b/5x5"
  bottom: "inception_4b/pool_proj"
  top: "inception_4b/output"
}
layer {
  name: "inception_4c/1x1"
  type: "Convolution"
  bottom: "inception_4b/output"
  top: "inception_4c/1x1"
  param {
    lr_mult: 1
    decay_mult: 1
  }
  param {
    lr_mult: 2
    decay_mult: 0
  }
  convolution_param {
    num_output: 128
    kernel_size: 1
    weight_filler {
      type: "xavier"
      std: 0.03
    }
    bias_filler {
      type: "constant"
      value: 0.2
    }
  }
}
layer {
  name: "inception_4c/relu_1x1"
  type: "ReLU"
  bottom: "inception_4c/1x1"
  top: "inception_4c/1x1"
}
layer {
  name: "inception_4c/3x3_reduce"
  type: "Convolution"
  bottom: "inception_4b/output"
  top: "inception_4c/3x3_reduce"
  param {
    lr_mult: 1
    decay_mult: 1
  }
  param {
    lr_mult: 2
    decay_mult: 0
  }
  convolution_param {
    num_output: 128
    kernel_size: 1
    weight_filler {
      type: "xavier"
      std: 0.09
    }
    bias_filler {
      type: "constant"
      value: 0.2
    }
  }
}
layer {
  name: "inception_4c/relu_3x3_reduce"
  type: "ReLU"
  bottom: "inception_4c/3x3_reduce"
  top: "inception_4c/3x3_reduce"
}
layer {
  name: "inception_4c/3x3"
  type: "Convolution"
  bottom: "inception_4c/3x3_reduce"
  top: "inception_4c/3x3"
  param {
    lr_mult: 1
    decay_mult: 1
  }
  param {
    lr_mult: 2
    decay_mult: 0
  }
  convolution_param {
    num_output: 256
    pad: 1
    kernel_size: 3
    weight_filler {
      type: "xavier"
      std: 0.03
    }
    bias_filler {
      type: "constant"
      value: 0.2
    }
  }
}
layer {
  name: "inception_4c/relu_3x3"
  type: "ReLU"
  bottom: "inception_4c/3x3"
  top: "inception_4c/3x3"
}
layer {
  name: "inception_4c/5x5_reduce"
  type: "Convolution"
  bottom: "inception_4b/output"
  top: "inception_4c/5x5_reduce"
  param {
    lr_mult: 1
    decay_mult: 1
  }
  param {
    lr_mult: 2
    decay_mult: 0
  }
  convolution_param {
    num_output: 24
    kernel_size: 1
    weight_filler {
      type: "xavier"
      std: 0.2
    }
    bias_filler {
      type: "constant"
      value: 0.2
    }
  }
}
layer {
  name: "inception_4c/relu_5x5_reduce"
  type: "ReLU"
  bottom: "inception_4c/5x5_reduce"
  top: "inception_4c/5x5_reduce"
}
layer {
  name: "inception_4c/5x5"
  type: "Convolution"
  bottom: "inception_4c/5x5_reduce"
  top: "inception_4c/5x5"
  param {
    lr_mult: 1
    decay_mult: 1
  }
  param {
    lr_mult: 2
    decay_mult: 0
  }
  convolution_param {
    num_output: 64
    pad: 2
    kernel_size: 5
    weight_filler {
      type: "xavier"
      std: 0.03
    }
    bias_filler {
      type: "constant"
      value: 0.2
    }
  }
}
layer {
  name: "inception_4c/relu_5x5"
  type: "ReLU"
  bottom: "inception_4c/5x5"
  top: "inception_4c/5x5"
}
layer {
  name: "inception_4c/pool"
  type: "Pooling"
  bottom: "inception_4b/output"
  top: "inception_4c/pool"
  pooling_param {
    pool: MAX
    kernel_size: 3
    stride: 1
    pad: 1
  }
}
layer {
  name: "inception_4c/pool_proj"
  type: "Convolution"
  bottom: "inception_4c/pool"
  top: "inception_4c/pool_proj"
  param {
    lr_mult: 1
    decay_mult: 1
  }
  param {
    lr_mult: 2
    decay_mult: 0
  }
  convolution_param {
    num_output: 64
    kernel_size: 1
    weight_filler {
      type: "xavier"
      std: 0.1
    }
    bias_filler {
      type: "constant"
      value: 0.2
    }
  }
}
layer {
  name: "inception_4c/relu_pool_proj"
  type: "ReLU"
  bottom: "inception_4c/pool_proj"
  top: "inception_4c/pool_proj"
}
layer {
  name: "inception_4c/output"
  type: "Concat"
  bottom: "inception_4c/1x1"
  bottom: "inception_4c/3x3"
  bottom: "inception_4c/5x5"
  bottom: "inception_4c/pool_proj"
  top: "inception_4c/output"
}
layer {
  name: "inception_4d/1x1"
  type: "Convolution"
  bottom: "inception_4c/output"
  top: "inception_4d/1x1"
  param {
    lr_mult: 1
    decay_mult: 1
  }
  param {
    lr_mult: 2
    decay_mult: 0
  }
  convolution_param {
    num_output: 112
    kernel_size: 1
    weight_filler {
      type: "xavier"
      std: 0.03
    }
    bias_filler {
      type: "constant"
      value: 0.2
    }
  }
}
layer {
  name: "inception_4d/relu_1x1"
  type: "ReLU"
  bottom: "inception_4d/1x1"
  top: "inception_4d/1x1"
}
layer {
  name: "inception_4d/3x3_reduce"
  type: "Convolution"
  bottom: "inception_4c/output"
  top: "inception_4d/3x3_reduce"
  param {
    lr_mult: 1
    decay_mult: 1
  }
  param {
    lr_mult: 2
    decay_mult: 0
  }
  convolution_param {
    num_output: 144
    kernel_size: 1
    weight_filler {
      type: "xavier"
      std: 0.09
    }
    bias_filler {
      type: "constant"
      value: 0.2
    }
  }
}
layer {
  name: "inception_4d/relu_3x3_reduce"
  type: "ReLU"
  bottom: "inception_4d/3x3_reduce"
  top: "inception_4d/3x3_reduce"
}
layer {
  name: "inception_4d/3x3"
  type: "Convolution"
  bottom: "inception_4d/3x3_reduce"
  top: "inception_4d/3x3"
  param {
    lr_mult: 1
    decay_mult: 1
  }
  param {
    lr_mult: 2
    decay_mult: 0
  }
  convolution_param {
    num_output: 288
    pad: 1
    kernel_size: 3
    weight_filler {
      type: "xavier"
      std: 0.03
    }
    bias_filler {
      type: "constant"
      value: 0.2
    }
  }
}
layer {
  name: "inception_4d/relu_3x3"
  type: "ReLU"
  bottom: "inception_4d/3x3"
  top: "inception_4d/3x3"
}
layer {
  name: "inception_4d/5x5_reduce"
  type: "Convolution"
  bottom: "inception_4c/output"
  top: "inception_4d/5x5_reduce"
  param {
    lr_mult: 1
    decay_mult: 1
  }
  param {
    lr_mult: 2
    decay_mult: 0
  }
  convolution_param {
    num_output: 32
    kernel_size: 1
    weight_filler {
      type: "xavier"
      std: 0.2
    }
    bias_filler {
      type: "constant"
      value: 0.2
    }
  }
}
layer {
  name: "inception_4d/relu_5x5_reduce"
  type: "ReLU"
  bottom: "inception_4d/5x5_reduce"
  top: "inception_4d/5x5_reduce"
}
layer {
  name: "inception_4d/5x5"
  type: "Convolution"
  bottom: "inception_4d/5x5_reduce"
  top: "inception_4d/5x5"
  param {
    lr_mult: 1
    decay_mult: 1
  }
  param {
    lr_mult: 2
    decay_mult: 0
  }
  convolution_param {
    num_output: 64
    pad: 2
    kernel_size: 5
    weight_filler {
      type: "xavier"
      std: 0.03
    }
    bias_filler {
      type: "constant"
      value: 0.2
    }
  }
}
layer {
  name: "inception_4d/relu_5x5"
  type: "ReLU"
  bottom: "inception_4d/5x5"
  top: "inception_4d/5x5"
}
layer {
  name: "inception_4d/pool"
  type: "Pooling"
  bottom: "inception_4c/output"
  top: "inception_4d/pool"
  pooling_param {
    pool: MAX
    kernel_size: 3
    stride: 1
    pad: 1
  }
}
layer {
  name: "inception_4d/pool_proj"
  type: "Convolution"
  bottom: "inception_4d/pool"
  top: "inception_4d/pool_proj"
  param {
    lr_mult: 1
    decay_mult: 1
  }
  param {
    lr_mult: 2
    decay_mult: 0
  }
  convolution_param {
    num_output: 64
    kernel_size: 1
    weight_filler {
      type: "xavier"
      std: 0.1
    }
    bias_filler {
      type: "constant"
      value: 0.2
    }
  }
}
layer {
  name: "inception_4d/relu_pool_proj"
  type: "ReLU"
  bottom: "inception_4d/pool_proj"
  top: "inception_4d/pool_proj"
}
layer {
  name: "inception_4d/output"
  type: "Concat"
  bottom: "inception_4d/1x1"
  bottom: "inception_4d/3x3"
  bottom: "inception_4d/5x5"
  bottom: "inception_4d/pool_proj"
  top: "inception_4d/output"
}
layer {
  name: "inception_4e/1x1"
  type: "Convolution"
  bottom: "inception_4d/output"
  top: "inception_4e/1x1"
  param {
    lr_mult: 1
    decay_mult: 1
  }
  param {
    lr_mult: 2
    decay_mult: 0
  }
  convolution_param {
    num_output: 256
    kernel_size: 1
    weight_filler {
      type: "xavier"
      std: 0.03
    }
    bias_filler {
      type: "constant"
      value: 0.2
    }
  }
}
layer {
  name: "inception_4e/relu_1x1"
  type: "ReLU"
  bottom: "inception_4e/1x1"
  top: "inception_4e/1x1"
}
layer {
  name: "inception_4e/3x3_reduce"
  type: "Convolution"
  bottom: "inception_4d/output"
  top: "inception_4e/3x3_reduce"
  param {
    lr_mult: 1
    decay_mult: 1
  }
  param {
    lr_mult: 2
    decay_mult: 0
  }
  convolution_param {
    num_output: 160
    kernel_size: 1
    weight_filler {
      type: "xavier"
      std: 0.09
    }
    bias_filler {
      type: "constant"
      value: 0.2
    }
  }
}
layer {
  name: "inception_4e/relu_3x3_reduce"
  type: "ReLU"
  bottom: "inception_4e/3x3_reduce"
  top: "inception_4e/3x3_reduce"
}
layer {
  name: "inception_4e/3x3"
  type: "Convolution"
  bottom: "inception_4e/3x3_reduce"
  top: "inception_4e/3x3"
  param {
    lr_mult: 1
    decay_mult: 1
  }
  param {
    lr_mult: 2
    decay_mult: 0
  }
  convolution_param {
    num_output: 320
    pad: 1
    kernel_size: 3
    weight_filler {
      type: "xavier"
      std: 0.03
    }
    bias_filler {
      type: "constant"
      value: 0.2
    }
  }
}
layer {
  name: "inception_4e/relu_3x3"
  type: "ReLU"
  bottom: "inception_4e/3x3"
  top: "inception_4e/3x3"
}
layer {
  name: "inception_4e/5x5_reduce"
  type: "Convolution"
  bottom: "inception_4d/output"
  top: "inception_4e/5x5_reduce"
  param {
    lr_mult: 1
    decay_mult: 1
  }
  param {
    lr_mult: 2
    decay_mult: 0
  }
  convolution_param {
    num_output: 32
    kernel_size: 1
    weight_filler {
      type: "xavier"
      std: 0.2
    }
    bias_filler {
      type: "constant"
      value: 0.2
    }
  }
}
layer {
  name: "inception_4e/relu_5x5_reduce"
  type: "ReLU"
  bottom: "inception_4e/5x5_reduce"
  top: "inception_4e/5x5_reduce"
}
layer {
  name: "inception_4e/5x5"
  type: "Convolution"
  bottom: "inception_4e/5x5_reduce"
  top: "inception_4e/5x5"
  param {
    lr_mult: 1
    decay_mult: 1
  }
  param {
    lr_mult: 2
    decay_mult: 0
  }
  convolution_param {
    num_output: 128
    pad: 2
    kernel_size: 5
    weight_filler {
      type: "xavier"
      std: 0.03
    }
    bias_filler {
      type: "constant"
      value: 0.2
    }
  }
}
layer {
  name: "inception_4e/relu_5x5"
  type: "ReLU"
  bottom: "inception_4e/5x5"
  top: "inception_4e/5x5"
}
layer {
  name: "inception_4e/pool"
  type: "Pooling"
  bottom: "inception_4d/output"
  top: "inception_4e/pool"
  pooling_param {
    pool: MAX
    kernel_size: 3
    stride: 1
    pad: 1
  }
}
layer {
  name: "inception_4e/pool_proj"
  type: "Convolution"
  bottom: "inception_4e/pool"
  top: "inception_4e/pool_proj"
  param {
    lr_mult: 1
    decay_mult: 1
  }
  param {
    lr_mult: 2
    decay_mult: 0
  }
  convolution_param {
    num_output: 128
    kernel_size: 1
    weight_filler {
      type: "xavier"
      std: 0.1
    }
    bias_filler {
      type: "constant"
      value: 0.2
    }
  }
}
layer {
  name: "inception_4e/relu_pool_proj"
  type: "ReLU"
  bottom: "inception_4e/pool_proj"
  top: "inception_4e/pool_proj"
}
layer {
  name: "inception_4e/output"
  type: "Concat"
  bottom: "inception_4e/1x1"
  bottom: "inception_4e/3x3"
  bottom: "inception_4e/5x5"
  bottom: "inception_4e/pool_proj"
  top: "inception_4e/output"
}
layer {
  name: "pool4/3x3_s2"
  type: "Pooling"
  bottom: "inception_4e/output"
  top: "pool4/3x3_s2"
  pooling_param {
    pool: MAX
    kernel_size: 3
    stride: 2
  }
}
layer {
  name: "inception_5a/1x1"
  type: "Convolution"
  bottom: "pool4/3x3_s2"
  top: "inception_5a/1x1"
  param {
    lr_mult: 1
    decay_mult: 1
  }
  param {
    lr_mult: 2
    decay_mult: 0
  }
  convolution_param {
    num_output: 256
    kernel_size: 1
    weight_filler {
      type: "xavier"
      std: 0.03
    }
    bias_filler {
      type: "constant"
      value: 0.2
    }
  }
}
layer {
  name: "inception_5a/relu_1x1"
  type: "ReLU"
  bottom: "inception_5a/1x1"
  top: "inception_5a/1x1"
}
layer {
  name: "inception_5a/3x3_reduce"
  type: "Convolution"
  bottom: "pool4/3x3_s2"
  top: "inception_5a/3x3_reduce"
  param {
    lr_mult: 1
    decay_mult: 1
  }
  param {
    lr_mult: 2
    decay_mult: 0
  }
  convolution_param {
    num_output: 160
    kernel_size: 1
    weight_filler {
      type: "xavier"
      std: 0.09
    }
    bias_filler {
      type: "constant"
      value: 0.2
    }
  }
}
layer {
  name: "inception_5a/relu_3x3_reduce"
  type: "ReLU"
  bottom: "inception_5a/3x3_reduce"
  top: "inception_5a/3x3_reduce"
}
layer {
  name: "inception_5a/3x3"
  type: "Convolution"
  bottom: "inception_5a/3x3_reduce"
  top: "inception_5a/3x3"
  param {
    lr_mult: 1
    decay_mult: 1
  }
  param {
    lr_mult: 2
    decay_mult: 0
  }
  convolution_param {
    num_output: 320
    pad: 1
    kernel_size: 3
    weight_filler {
      type: "xavier"
      std: 0.03
    }
    bias_filler {
      type: "constant"
      value: 0.2
    }
  }
}
layer {
  name: "inception_5a/relu_3x3"
  type: "ReLU"
  bottom: "inception_5a/3x3"
  top: "inception_5a/3x3"
}
layer {
  name: "inception_5a/5x5_reduce"
  type: "Convolution"
  bottom: "pool4/3x3_s2"
  top: "inception_5a/5x5_reduce"
  param {
    lr_mult: 1
    decay_mult: 1
  }
  param {
    lr_mult: 2
    decay_mult: 0
  }
  convolution_param {
    num_output: 32
    kernel_size: 1
    weight_filler {
      type: "xavier"
      std: 0.2
    }
    bias_filler {
      type: "constant"
      value: 0.2
    }
I0924 01:10:55.642127  1430 layer_factory.hpp:77] Creating layer data
I0924 01:10:55.642166  1430 net.cpp:91] Creating Layer data
I0924 01:10:55.642179  1430 net.cpp:399] data -> data
I0924 01:10:56.143266  1430 net.cpp:141] Setting up data
I0924 01:10:56.143358  1430 net.cpp:148] Top shape: 10 3 224 224 (1505280)
I0924 01:10:56.143367  1430 net.cpp:156] Memory required for data: 6021120
I0924 01:10:56.143391  1430 layer_factory.hpp:77] Creating layer conv1/7x7_s2
I0924 01:10:56.143436  1430 net.cpp:91] Creating Layer conv1/7x7_s2
I0924 01:10:56.143446  1430 net.cpp:425] conv1/7x7_s2 <- data
I0924 01:10:56.143462  1430 net.cpp:399] conv1/7x7_s2 -> conv1/7x7_s2
I0924 01:10:56.307920  1430 net.cpp:141] Setting up conv1/7x7_s2
I0924 01:10:56.307983  1430 net.cpp:148] Top shape: 10 64 112 112 (8028160)
I0924 01:10:56.307991  1430 net.cpp:156] Memory required for data: 38133760
I0924 01:10:56.308022  1430 layer_factory.hpp:77] Creating layer conv1/relu_7x7
I0924 01:10:56.308044  1430 net.cpp:91] Creating Layer conv1/relu_7x7
I0924 01:10:56.308051  1430 net.cpp:425] conv1/relu_7x7 <- conv1/7x7_s2
I0924 01:10:56.308060  1430 net.cpp:386] conv1/relu_7x7 -> conv1/7x7_s2 (in-place)
I0924 01:10:56.308425  1430 net.cpp:141] Setting up conv1/relu_7x7
I0924 01:10:56.308439  1430 net.cpp:148] Top shape: 10 64 112 112 (8028160)
I0924 01:10:56.308444  1430 net.cpp:156] Memory required for data: 70246400
I0924 01:10:56.308449  1430 layer_factory.hpp:77] Creating layer pool1/3x3_s2
I0924 01:10:56.308465  1430 net.cpp:91] Creating Layer pool1/3x3_s2
I0924 01:10:56.308470  1430 net.cpp:425] pool1/3x3_s2 <- conv1/7x7_s2
I0924 01:10:56.308478  1430 net.cpp:399] pool1/3x3_s2 -> pool1/3x3_s2
I0924 01:10:56.308552  1430 net.cpp:141] Setting up pool1/3x3_s2
I0924 01:10:56.308563  1430 net.cpp:148] Top shape: 10 64 56 56 (2007040)
I0924 01:10:56.308568  1430 net.cpp:156] Memory required for data: 78274560
I0924 01:10:56.308573  1430 layer_factory.hpp:77] Creating layer pool1/norm1
I0924 01:10:56.308593  1430 net.cpp:91] Creating Layer pool1/norm1
I0924 01:10:56.308599  1430 net.cpp:425] pool1/norm1 <- pool1/3x3_s2
I0924 01:10:56.308606  1430 net.cpp:399] pool1/norm1 -> pool1/norm1
I0924 01:10:56.308847  1430 net.cpp:141] Setting up pool1/norm1
I0924 01:10:56.308861  1430 net.cpp:148] Top shape: 10 64 56 56 (2007040)
I0924 01:10:56.308866  1430 net.cpp:156] Memory required for data: 86302720
I0924 01:10:56.308871  1430 layer_factory.hpp:77] Creating layer conv2/3x3_reduce
I0924 01:10:56.308892  1430 net.cpp:91] Creating Layer conv2/3x3_reduce
I0924 01:10:56.308897  1430 net.cpp:425] conv2/3x3_reduce <- pool1/norm1
I0924 01:10:56.308907  1430 net.cpp:399] conv2/3x3_reduce -> conv2/3x3_reduce
I0924 01:10:56.310860  1430 net.cpp:141] Setting up conv2/3x3_reduce
I0924 01:10:56.310892  1430 net.cpp:148] Top shape: 10 64 56 56 (2007040)
I0924 01:10:56.310899  1430 net.cpp:156] Memory required for data: 94330880
I0924 01:10:56.310911  1430 layer_factory.hpp:77] Creating layer conv2/relu_3x3_reduce
I0924 01:10:56.310920  1430 net.cpp:91] Creating Layer conv2/relu_3x3_reduce
I0924 01:10:56.310926  1430 net.cpp:425] conv2/relu_3x3_reduce <- conv2/3x3_reduce
I0924 01:10:56.310933  1430 net.cpp:386] conv2/relu_3x3_reduce -> conv2/3x3_reduce (in-place)
I0924 01:10:56.311297  1430 net.cpp:141] Setting up conv2/relu_3x3_reduce
I0924 01:10:56.311311  1430 net.cpp:148] Top shape: 10 64 56 56 (2007040)
I0924 01:10:56.311316  1430 net.cpp:156] Memory required for data: 102359040
I0924 01:10:56.311321  1430 layer_factory.hpp:77] Creating layer conv2/3x3
I0924 01:10:56.311336  1430 net.cpp:91] Creating Layer conv2/3x3
I0924 01:10:56.311341  1430 net.cpp:425] conv2/3x3 <- conv2/3x3_reduce
I0924 01:10:56.311349  1430 net.cpp:399] conv2/3x3 -> conv2/3x3
I0924 01:10:56.314095  1430 net.cpp:141] Setting up conv2/3x3
I0924 01:10:56.314126  1430 net.cpp:148] Top shape: 10 192 56 56 (6021120)
I0924 01:10:56.314131  1430 net.cpp:156] Memory required for data: 126443520
I0924 01:10:56.314143  1430 layer_factory.hpp:77] Creating layer conv2/relu_3x3
I0924 01:10:56.314154  1430 net.cpp:91] Creating Layer conv2/relu_3x3
I0924 01:10:56.314159  1430 net.cpp:425] conv2/relu_3x3 <- conv2/3x3
I0924 01:10:56.314172  1430 net.cpp:386] conv2/relu_3x3 -> conv2/3x3 (in-place)
I0924 01:10:56.314398  1430 net.cpp:141] Setting up conv2/relu_3x3
I0924 01:10:56.314411  1430 net.cpp:148] Top shape: 10 192 56 56 (6021120)
I0924 01:10:56.314416  1430 net.cpp:156] Memory required for data: 150528000
I0924 01:10:56.314421  1430 layer_factory.hpp:77] Creating layer conv2/norm2
I0924 01:10:56.314430  1430 net.cpp:91] Creating Layer conv2/norm2
I0924 01:10:56.314435  1430 net.cpp:425] conv2/norm2 <- conv2/3x3
I0924 01:10:56.314445  1430 net.cpp:399] conv2/norm2 -> conv2/norm2
I0924 01:10:56.314874  1430 net.cpp:141] Setting up conv2/norm2
I0924 01:10:56.314888  1430 net.cpp:148] Top shape: 10 192 56 56 (6021120)
I0924 01:10:56.314893  1430 net.cpp:156] Memory required for data: 174612480
I0924 01:10:56.314898  1430 layer_factory.hpp:77] Creating layer pool2/3x3_s2
I0924 01:10:56.314906  1430 net.cpp:91] Creating Layer pool2/3x3_s2
I0924 01:10:56.314913  1430 net.cpp:425] pool2/3x3_s2 <- conv2/norm2
I0924 01:10:56.314935  1430 net.cpp:399] pool2/3x3_s2 -> pool2/3x3_s2
I0924 01:10:56.314983  1430 net.cpp:141] Setting up pool2/3x3_s2
I0924 01:10:56.314992  1430 net.cpp:148] Top shape: 10 192 28 28 (1505280)
I0924 01:10:56.314996  1430 net.cpp:156] Memory required for data: 180633600
I0924 01:10:56.315001  1430 layer_factory.hpp:77] Creating layer pool2/3x3_s2_pool2/3x3_s2_0_split
I0924 01:10:56.315013  1430 net.cpp:91] Creating Layer pool2/3x3_s2_pool2/3x3_s2_0_split
I0924 01:10:56.315018  1430 net.cpp:425] pool2/3x3_s2_pool2/3x3_s2_0_split <- pool2/3x3_s2
I0924 01:10:56.315026  1430 net.cpp:399] pool2/3x3_s2_pool2/3x3_s2_0_split -> pool2/3x3_s2_pool2/3x3_s2_0_split_0
I0924 01:10:56.315037  1430 net.cpp:399] pool2/3x3_s2_pool2/3x3_s2_0_split -> pool2/3x3_s2_pool2/3x3_s2_0_split_1
I0924 01:10:56.315044  1430 net.cpp:399] pool2/3x3_s2_pool2/3x3_s2_0_split -> pool2/3x3_s2_pool2/3x3_s2_0_split_2
I0924 01:10:56.315052  1430 net.cpp:399] pool2/3x3_s2_pool2/3x3_s2_0_split -> pool2/3x3_s2_pool2/3x3_s2_0_split_3
I0924 01:10:56.315119  1430 net.cpp:141] Setting up pool2/3x3_s2_pool2/3x3_s2_0_split
I0924 01:10:56.315129  1430 net.cpp:148] Top shape: 10 192 28 28 (1505280)
I0924 01:10:56.315135  1430 net.cpp:148] Top shape: 10 192 28 28 (1505280)
I0924 01:10:56.315140  1430 net.cpp:148] Top shape: 10 192 28 28 (1505280)
I0924 01:10:56.315145  1430 net.cpp:148] Top shape: 10 192 28 28 (1505280)
I0924 01:10:56.315150  1430 net.cpp:156] Memory required for data: 204718080
I0924 01:10:56.315153  1430 layer_factory.hpp:77] Creating layer inception_3a/1x1
I0924 01:10:56.315167  1430 net.cpp:91] Creating Layer inception_3a/1x1
I0924 01:10:56.315172  1430 net.cpp:425] inception_3a/1x1 <- pool2/3x3_s2_pool2/3x3_s2_0_split_0
I0924 01:10:56.315201  1430 net.cpp:399] inception_3a/1x1 -> inception_3a/1x1
I0924 01:10:56.317039  1430 net.cpp:141] Setting up inception_3a/1x1
I0924 01:10:56.317057  1430 net.cpp:148] Top shape: 10 64 28 28 (501760)
I0924 01:10:56.317062  1430 net.cpp:156] Memory required for data: 206725120
I0924 01:10:56.317071  1430 layer_factory.hpp:77] Creating layer inception_3a/relu_1x1
I0924 01:10:56.317085  1430 net.cpp:91] Creating Layer inception_3a/relu_1x1
I0924 01:10:56.317090  1430 net.cpp:425] inception_3a/relu_1x1 <- inception_3a/1x1
I0924 01:10:56.317097  1430 net.cpp:386] inception_3a/relu_1x1 -> inception_3a/1x1 (in-place)
I0924 01:10:56.317459  1430 net.cpp:141] Setting up inception_3a/relu_1x1
I0924 01:10:56.317471  1430 net.cpp:148] Top shape: 10 64 28 28 (501760)
I0924 01:10:56.317476  1430 net.cpp:156] Memory required for data: 208732160
I0924 01:10:56.317481  1430 layer_factory.hpp:77] Creating layer inception_3a/3x3_reduce
I0924 01:10:56.317498  1430 net.cpp:91] Creating Layer inception_3a/3x3_reduce
I0924 01:10:56.317504  1430 net.cpp:425] inception_3a/3x3_reduce <- pool2/3x3_s2_pool2/3x3_s2_0_split_1
I0924 01:10:56.317512  1430 net.cpp:399] inception_3a/3x3_reduce -> inception_3a/3x3_reduce
I0924 01:10:56.319713  1430 net.cpp:141] Setting up inception_3a/3x3_reduce
I0924 01:10:56.319730  1430 net.cpp:148] Top shape: 10 96 28 28 (752640)
I0924 01:10:56.319736  1430 net.cpp:156] Memory required for data: 211742720
I0924 01:10:56.319761  1430 layer_factory.hpp:77] Creating layer inception_3a/relu_3x3_reduce
I0924 01:10:56.319773  1430 net.cpp:91] Creating Layer inception_3a/relu_3x3_reduce
I0924 01:10:56.319779  1430 net.cpp:425] inception_3a/relu_3x3_reduce <- inception_3a/3x3_reduce
I0924 01:10:56.319787  1430 net.cpp:386] inception_3a/relu_3x3_reduce -> inception_3a/3x3_reduce (in-place)
I0924 01:10:56.320010  1430 net.cpp:141] Setting up inception_3a/relu_3x3_reduce
I0924 01:10:56.320021  1430 net.cpp:148] Top shape: 10 96 28 28 (752640)
I0924 01:10:56.320026  1430 net.cpp:156] Memory required for data: 214753280
I0924 01:10:56.320031  1430 layer_factory.hpp:77] Creating layer inception_3a/3x3
I0924 01:10:56.320047  1430 net.cpp:91] Creating Layer inception_3a/3x3
I0924 01:10:56.320053  1430 net.cpp:425] inception_3a/3x3 <- inception_3a/3x3_reduce
I0924 01:10:56.320065  1430 net.cpp:399] inception_3a/3x3 -> inception_3a/3x3
I0924 01:10:56.322154  1430 net.cpp:141] Setting up inception_3a/3x3
I0924 01:10:56.322171  1430 net.cpp:148] Top shape: 10 128 28 28 (1003520)
I0924 01:10:56.322175  1430 net.cpp:156] Memory required for data: 218767360
I0924 01:10:56.322197  1430 layer_factory.hpp:77] Creating layer inception_3a/relu_3x3
I0924 01:10:56.322206  1430 net.cpp:91] Creating Layer inception_3a/relu_3x3
I0924 01:10:56.322211  1430 net.cpp:425] inception_3a/relu_3x3 <- inception_3a/3x3
I0924 01:10:56.322222  1430 net.cpp:386] inception_3a/relu_3x3 -> inception_3a/3x3 (in-place)
I0924 01:10:56.322589  1430 net.cpp:141] Setting up inception_3a/relu_3x3
I0924 01:10:56.322621  1430 net.cpp:148] Top shape: 10 128 28 28 (1003520)
I0924 01:10:56.322628  1430 net.cpp:156] Memory required for data: 222781440
I0924 01:10:56.322633  1430 layer_factory.hpp:77] Creating layer inception_3a/5x5_reduce
I0924 01:10:56.322649  1430 net.cpp:91] Creating Layer inception_3a/5x5_reduce
I0924 01:10:56.322655  1430 net.cpp:425] inception_3a/5x5_reduce <- pool2/3x3_s2_pool2/3x3_s2_0_split_2
I0924 01:10:56.322667  1430 net.cpp:399] inception_3a/5x5_reduce -> inception_3a/5x5_reduce
I0924 01:10:56.323863  1430 net.cpp:141] Setting up inception_3a/5x5_reduce
I0924 01:10:56.323894  1430 net.cpp:148] Top shape: 10 16 28 28 (125440)
I0924 01:10:56.323899  1430 net.cpp:156] Memory required for data: 223283200
I0924 01:10:56.323909  1430 layer_factory.hpp:77] Creating layer inception_3a/relu_5x5_reduce
I0924 01:10:56.323917  1430 net.cpp:91] Creating Layer inception_3a/relu_5x5_reduce
I0924 01:10:56.323923  1430 net.cpp:425] inception_3a/relu_5x5_reduce <- inception_3a/5x5_reduce
I0924 01:10:56.323930  1430 net.cpp:386] inception_3a/relu_5x5_reduce -> inception_3a/5x5_reduce (in-place)
I0924 01:10:56.324312  1430 net.cpp:141] Setting up inception_3a/relu_5x5_reduce
I0924 01:10:56.324326  1430 net.cpp:148] Top shape: 10 16 28 28 (125440)
I0924 01:10:56.324331  1430 net.cpp:156] Memory required for data: 223784960
I0924 01:10:56.324337  1430 layer_factory.hpp:77] Creating layer inception_3a/5x5
I0924 01:10:56.324352  1430 net.cpp:91] Creating Layer inception_3a/5x5
I0924 01:10:56.324358  1430 net.cpp:425] inception_3a/5x5 <- inception_3a/5x5_reduce
I0924 01:10:56.324367  1430 net.cpp:399] inception_3a/5x5 -> inception_3a/5x5
I0924 01:10:56.326035  1430 net.cpp:141] Setting up inception_3a/5x5
I0924 01:10:56.326050  1430 net.cpp:148] Top shape: 10 32 28 28 (250880)
I0924 01:10:56.326056  1430 net.cpp:156] Memory required for data: 224788480
I0924 01:10:56.326077  1430 layer_factory.hpp:77] Creating layer inception_3a/relu_5x5
I0924 01:10:56.326088  1430 net.cpp:91] Creating Layer inception_3a/relu_5x5
I0924 01:10:56.326094  1430 net.cpp:425] inception_3a/relu_5x5 <- inception_3a/5x5
I0924 01:10:56.326102  1430 net.cpp:386] inception_3a/relu_5x5 -> inception_3a/5x5 (in-place)
I0924 01:10:56.326319  1430 net.cpp:141] Setting up inception_3a/relu_5x5
I0924 01:10:56.326330  1430 net.cpp:148] Top shape: 10 32 28 28 (250880)
I0924 01:10:56.326334  1430 net.cpp:156] Memory required for data: 225792000
I0924 01:10:56.326340  1430 layer_factory.hpp:77] Creating layer inception_3a/pool
I0924 01:10:56.326352  1430 net.cpp:91] Creating Layer inception_3a/pool
I0924 01:10:56.326359  1430 net.cpp:425] inception_3a/pool <- pool2/3x3_s2_pool2/3x3_s2_0_split_3
I0924 01:10:56.326369  1430 net.cpp:399] inception_3a/pool -> inception_3a/pool
I0924 01:10:56.326421  1430 net.cpp:141] Setting up inception_3a/pool
I0924 01:10:56.326431  1430 net.cpp:148] Top shape: 10 192 28 28 (1505280)
I0924 01:10:56.326434  1430 net.cpp:156] Memory required for data: 231813120
I0924 01:10:56.326439  1430 layer_factory.hpp:77] Creating layer inception_3a/pool_proj
I0924 01:10:56.326453  1430 net.cpp:91] Creating Layer inception_3a/pool_proj
I0924 01:10:56.326458  1430 net.cpp:425] inception_3a/pool_proj <- inception_3a/pool
I0924 01:10:56.326470  1430 net.cpp:399] inception_3a/pool_proj -> inception_3a/pool_proj
I0924 01:10:56.327860  1430 net.cpp:141] Setting up inception_3a/pool_proj
I0924 01:10:56.327878  1430 net.cpp:148] Top shape: 10 32 28 28 (250880)
I0924 01:10:56.327884  1430 net.cpp:156] Memory required for data: 232816640
I0924 01:10:56.327899  1430 layer_factory.hpp:77] Creating layer inception_3a/relu_pool_proj
I0924 01:10:56.327909  1430 net.cpp:91] Creating Layer inception_3a/relu_pool_proj
I0924 01:10:56.327915  1430 net.cpp:425] inception_3a/relu_pool_proj <- inception_3a/pool_proj
I0924 01:10:56.327924  1430 net.cpp:386] inception_3a/relu_pool_proj -> inception_3a/pool_proj (in-place)
I0924 01:10:56.328310  1430 net.cpp:141] Setting up inception_3a/relu_pool_proj
I0924 01:10:56.328325  1430 net.cpp:148] Top shape: 10 32 28 28 (250880)
I0924 01:10:56.328328  1430 net.cpp:156] Memory required for data: 233820160
I0924 01:10:56.328335  1430 layer_factory.hpp:77] Creating layer inception_3a/output
I0924 01:10:56.328351  1430 net.cpp:91] Creating Layer inception_3a/output
I0924 01:10:56.328356  1430 net.cpp:425] inception_3a/output <- inception_3a/1x1
I0924 01:10:56.328362  1430 net.cpp:425] inception_3a/output <- inception_3a/3x3
I0924 01:10:56.328368  1430 net.cpp:425] inception_3a/output <- inception_3a/5x5
I0924 01:10:56.328373  1430 net.cpp:425] inception_3a/output <- inception_3a/pool_proj
I0924 01:10:56.328380  1430 net.cpp:399] inception_3a/output -> inception_3a/output
I0924 01:10:56.328421  1430 net.cpp:141] Setting up inception_3a/output
I0924 01:10:56.328430  1430 net.cpp:148] Top shape: 10 256 28 28 (2007040)
I0924 01:10:56.328435  1430 net.cpp:156] Memory required for data: 241848320
I0924 01:10:56.328440  1430 layer_factory.hpp:77] Creating layer inception_3a/output_inception_3a/output_0_split
I0924 01:10:56.328449  1430 net.cpp:91] Creating Layer inception_3a/output_inception_3a/output_0_split
I0924 01:10:56.328454  1430 net.cpp:425] inception_3a/output_inception_3a/output_0_split <- inception_3a/output
I0924 01:10:56.328461  1430 net.cpp:399] inception_3a/output_inception_3a/output_0_split -> inception_3a/output_inception_3a/output_0_split_0
I0924 01:10:56.328470  1430 net.cpp:399] inception_3a/output_inception_3a/output_0_split -> inception_3a/output_inception_3a/output_0_split_1
I0924 01:10:56.328477  1430 net.cpp:399] inception_3a/output_inception_3a/output_0_split -> inception_3a/output_inception_3a/output_0_split_2
I0924 01:10:56.328485  1430 net.cpp:399] inception_3a/output_inception_3a/output_0_split -> inception_3a/output_inception_3a/output_0_split_3
I0924 01:10:56.328560  1430 net.cpp:141] Setting up inception_3a/output_inception_3a/output_0_split
I0924 01:10:56.328568  1430 net.cpp:148] Top shape: 10 256 28 28 (2007040)
I0924 01:10:56.328574  1430 net.cpp:148] Top shape: 10 256 28 28 (2007040)
I0924 01:10:56.328579  1430 net.cpp:148] Top shape: 10 256 28 28 (2007040)
I0924 01:10:56.328585  1430 net.cpp:148] Top shape: 10 256 28 28 (2007040)
I0924 01:10:56.328589  1430 net.cpp:156] Memory required for data: 273960960
I0924 01:10:56.328593  1430 layer_factory.hpp:77] Creating layer inception_3b/1x1
I0924 01:10:56.328608  1430 net.cpp:91] Creating Layer inception_3b/1x1
I0924 01:10:56.328613  1430 net.cpp:425] inception_3b/1x1 <- inception_3a/output_inception_3a/output_0_split_0
I0924 01:10:56.328624  1430 net.cpp:399] inception_3b/1x1 -> inception_3b/1x1
I0924 01:10:56.330013  1430 net.cpp:141] Setting up inception_3b/1x1
I0924 01:10:56.330027  1430 net.cpp:148] Top shape: 10 128 28 28 (1003520)
I0924 01:10:56.330032  1430 net.cpp:156] Memory required for data: 277975040
I0924 01:10:56.330041  1430 layer_factory.hpp:77] Creating layer inception_3b/relu_1x1
I0924 01:10:56.330052  1430 net.cpp:91] Creating Layer inception_3b/relu_1x1
I0924 01:10:56.330060  1430 net.cpp:425] inception_3b/relu_1x1 <- inception_3b/1x1
I0924 01:10:56.330066  1430 net.cpp:386] inception_3b/relu_1x1 -> inception_3b/1x1 (in-place)
I0924 01:10:56.330436  1430 net.cpp:141] Setting up inception_3b/relu_1x1
I0924 01:10:56.330448  1430 net.cpp:148] Top shape: 10 128 28 28 (1003520)
I0924 01:10:56.330453  1430 net.cpp:156] Memory required for data: 281989120
I0924 01:10:56.330458  1430 layer_factory.hpp:77] Creating layer inception_3b/3x3_reduce
I0924 01:10:56.330472  1430 net.cpp:91] Creating Layer inception_3b/3x3_reduce
I0924 01:10:56.330478  1430 net.cpp:425] inception_3b/3x3_reduce <- inception_3a/output_inception_3a/output_0_split_1
I0924 01:10:56.330492  1430 net.cpp:399] inception_3b/3x3_reduce -> inception_3b/3x3_reduce
I0924 01:10:56.332048  1430 net.cpp:141] Setting up inception_3b/3x3_reduce
I0924 01:10:56.332065  1430 net.cpp:148] Top shape: 10 128 28 28 (1003520)
I0924 01:10:56.332070  1430 net.cpp:156] Memory required for data: 286003200
I0924 01:10:56.332092  1430 layer_factory.hpp:77] Creating layer inception_3b/relu_3x3_reduce
I0924 01:10:56.332100  1430 net.cpp:91] Creating Layer inception_3b/relu_3x3_reduce
I0924 01:10:56.332106  1430 net.cpp:425] inception_3b/relu_3x3_reduce <- inception_3b/3x3_reduce
I0924 01:10:56.332116  1430 net.cpp:386] inception_3b/relu_3x3_reduce -> inception_3b/3x3_reduce (in-place)
I0924 01:10:56.332355  1430 net.cpp:141] Setting up inception_3b/relu_3x3_reduce
I0924 01:10:56.332367  1430 net.cpp:148] Top shape: 10 128 28 28 (1003520)
I0924 01:10:56.332372  1430 net.cpp:156] Memory required for data: 290017280
I0924 01:10:56.332377  1430 layer_factory.hpp:77] Creating layer inception_3b/3x3
I0924 01:10:56.332396  1430 net.cpp:91] Creating Layer inception_3b/3x3
I0924 01:10:56.332402  1430 net.cpp:425] inception_3b/3x3 <- inception_3b/3x3_reduce
I0924 01:10:56.332412  1430 net.cpp:399] inception_3b/3x3 -> inception_3b/3x3
I0924 01:10:56.335872  1430 net.cpp:141] Setting up inception_3b/3x3
I0924 01:10:56.335889  1430 net.cpp:148] Top shape: 10 192 28 28 (1505280)
I0924 01:10:56.335894  1430 net.cpp:156] Memory required for data: 296038400
I0924 01:10:56.335916  1430 layer_factory.hpp:77] Creating layer inception_3b/relu_3x3
I0924 01:10:56.335935  1430 net.cpp:91] Creating Layer inception_3b/relu_3x3
I0924 01:10:56.335942  1430 net.cpp:425] inception_3b/relu_3x3 <- inception_3b/3x3
I0924 01:10:56.335948  1430 net.cpp:386] inception_3b/relu_3x3 -> inception_3b/3x3 (in-place)
I0924 01:10:56.336315  1430 net.cpp:141] Setting up inception_3b/relu_3x3
I0924 01:10:56.336329  1430 net.cpp:148] Top shape: 10 192 28 28 (1505280)
I0924 01:10:56.336334  1430 net.cpp:156] Memory required for data: 302059520
I0924 01:10:56.336339  1430 layer_factory.hpp:77] Creating layer inception_3b/5x5_reduce
I0924 01:10:56.336355  1430 net.cpp:91] Creating Layer inception_3b/5x5_reduce
I0924 01:10:56.336361  1430 net.cpp:425] inception_3b/5x5_reduce <- inception_3a/output_inception_3a/output_0_split_2
I0924 01:10:56.336370  1430 net.cpp:399] inception_3b/5x5_reduce -> inception_3b/5x5_reduce
I0924 01:10:56.337544  1430 net.cpp:141] Setting up inception_3b/5x5_reduce
I0924 01:10:56.337560  1430 net.cpp:148] Top shape: 10 32 28 28 (250880)
I0924 01:10:56.337565  1430 net.cpp:156] Memory required for data: 303063040
I0924 01:10:56.337587  1430 layer_factory.hpp:77] Creating layer inception_3b/relu_5x5_reduce
I0924 01:10:56.337596  1430 net.cpp:91] Creating Layer inception_3b/relu_5x5_reduce
I0924 01:10:56.337601  1430 net.cpp:425] inception_3b/relu_5x5_reduce <- inception_3b/5x5_reduce
I0924 01:10:56.337611  1430 net.cpp:386] inception_3b/relu_5x5_reduce -> inception_3b/5x5_reduce (in-place)
I0924 01:10:56.337977  1430 net.cpp:141] Setting up inception_3b/relu_5x5_reduce
I0924 01:10:56.337988  1430 net.cpp:148] Top shape: 10 32 28 28 (250880)
I0924 01:10:56.337993  1430 net.cpp:156] Memory required for data: 304066560
I0924 01:10:56.337998  1430 layer_factory.hpp:77] Creating layer inception_3b/5x5
I0924 01:10:56.338013  1430 net.cpp:91] Creating Layer inception_3b/5x5
I0924 01:10:56.338019  1430 net.cpp:425] inception_3b/5x5 <- inception_3b/5x5_reduce
I0924 01:10:56.338030  1430 net.cpp:399] inception_3b/5x5 -> inception_3b/5x5
I0924 01:10:56.340452  1430 net.cpp:141] Setting up inception_3b/5x5
I0924 01:10:56.340469  1430 net.cpp:148] Top shape: 10 96 28 28 (752640)
I0924 01:10:56.340474  1430 net.cpp:156] Memory required for data: 307077120
I0924 01:10:56.340497  1430 layer_factory.hpp:77] Creating layer inception_3b/relu_5x5
I0924 01:10:56.340505  1430 net.cpp:91] Creating Layer inception_3b/relu_5x5
I0924 01:10:56.340512  1430 net.cpp:425] inception_3b/relu_5x5 <- inception_3b/5x5
I0924 01:10:56.340524  1430 net.cpp:386] inception_3b/relu_5x5 -> inception_3b/5x5 (in-place)
I0924 01:10:56.340765  1430 net.cpp:141] Setting up inception_3b/relu_5x5
I0924 01:10:56.340777  1430 net.cpp:148] Top shape: 10 96 28 28 (752640)
I0924 01:10:56.340782  1430 net.cpp:156] Memory required for data: 310087680
I0924 01:10:56.340787  1430 layer_factory.hpp:77] Creating layer inception_3b/pool
I0924 01:10:56.340800  1430 net.cpp:91] Creating Layer inception_3b/pool
I0924 01:10:56.340806  1430 net.cpp:425] inception_3b/pool <- inception_3a/output_inception_3a/output_0_split_3
I0924 01:10:56.340813  1430 net.cpp:399] inception_3b/pool -> inception_3b/pool
I0924 01:10:56.340888  1430 net.cpp:141] Setting up inception_3b/pool
I0924 01:10:56.340898  1430 net.cpp:148] Top shape: 10 256 28 28 (2007040)
I0924 01:10:56.340903  1430 net.cpp:156] Memory required for data: 318115840
I0924 01:10:56.340909  1430 layer_factory.hpp:77] Creating layer inception_3b/pool_proj
I0924 01:10:56.340924  1430 net.cpp:91] Creating Layer inception_3b/pool_proj
I0924 01:10:56.340930  1430 net.cpp:425] inception_3b/pool_proj <- inception_3b/pool
I0924 01:10:56.340941  1430 net.cpp:399] inception_3b/pool_proj -> inception_3b/pool_proj
I0924 01:10:56.342402  1430 net.cpp:141] Setting up inception_3b/pool_proj
I0924 01:10:56.342434  1430 net.cpp:148] Top shape: 10 64 28 28 (501760)
I0924 01:10:56.342440  1430 net.cpp:156] Memory required for data: 320122880
I0924 01:10:56.342449  1430 layer_factory.hpp:77] Creating layer inception_3b/relu_pool_proj
I0924 01:10:56.342458  1430 net.cpp:91] Creating Layer inception_3b/relu_pool_proj
I0924 01:10:56.342464  1430 net.cpp:425] inception_3b/relu_pool_proj <- inception_3b/pool_proj
I0924 01:10:56.342471  1430 net.cpp:386] inception_3b/relu_pool_proj -> inception_3b/pool_proj (in-place)
I0924 01:10:56.342869  1430 net.cpp:141] Setting up inception_3b/relu_pool_proj
I0924 01:10:56.342885  1430 net.cpp:148] Top shape: 10 64 28 28 (501760)
I0924 01:10:56.342890  1430 net.cpp:156] Memory required for data: 322129920
I0924 01:10:56.342895  1430 layer_factory.hpp:77] Creating layer inception_3b/output
I0924 01:10:56.342903  1430 net.cpp:91] Creating Layer inception_3b/output
I0924 01:10:56.342910  1430 net.cpp:425] inception_3b/output <- inception_3b/1x1
I0924 01:10:56.342916  1430 net.cpp:425] inception_3b/output <- inception_3b/3x3
I0924 01:10:56.342921  1430 net.cpp:425] inception_3b/output <- inception_3b/5x5
I0924 01:10:56.342926  1430 net.cpp:425] inception_3b/output <- inception_3b/pool_proj
I0924 01:10:56.342933  1430 net.cpp:399] inception_3b/output -> inception_3b/output
I0924 01:10:56.342975  1430 net.cpp:141] Setting up inception_3b/output
I0924 01:10:56.342984  1430 net.cpp:148] Top shape: 10 480 28 28 (3763200)
I0924 01:10:56.342989  1430 net.cpp:156] Memory required for data: 337182720
I0924 01:10:56.342994  1430 layer_factory.hpp:77] Creating layer pool3/3x3_s2
I0924 01:10:56.343004  1430 net.cpp:91] Creating Layer pool3/3x3_s2
I0924 01:10:56.343010  1430 net.cpp:425] pool3/3x3_s2 <- inception_3b/output
I0924 01:10:56.343017  1430 net.cpp:399] pool3/3x3_s2 -> pool3/3x3_s2
I0924 01:10:56.343076  1430 net.cpp:141] Setting up pool3/3x3_s2
I0924 01:10:56.343086  1430 net.cpp:148] Top shape: 10 480 14 14 (940800)
I0924 01:10:56.343091  1430 net.cpp:156] Memory required for data: 340945920
I0924 01:10:56.343096  1430 layer_factory.hpp:77] Creating layer pool3/3x3_s2_pool3/3x3_s2_0_split
I0924 01:10:56.343103  1430 net.cpp:91] Creating Layer pool3/3x3_s2_pool3/3x3_s2_0_split
I0924 01:10:56.343108  1430 net.cpp:425] pool3/3x3_s2_pool3/3x3_s2_0_split <- pool3/3x3_s2
I0924 01:10:56.343119  1430 net.cpp:399] pool3/3x3_s2_pool3/3x3_s2_0_split -> pool3/3x3_s2_pool3/3x3_s2_0_split_0
I0924 01:10:56.343128  1430 net.cpp:399] pool3/3x3_s2_pool3/3x3_s2_0_split -> pool3/3x3_s2_pool3/3x3_s2_0_split_1
I0924 01:10:56.343137  1430 net.cpp:399] pool3/3x3_s2_pool3/3x3_s2_0_split -> pool3/3x3_s2_pool3/3x3_s2_0_split_2
I0924 01:10:56.343144  1430 net.cpp:399] pool3/3x3_s2_pool3/3x3_s2_0_split -> pool3/3x3_s2_pool3/3x3_s2_0_split_3
I0924 01:10:56.343224  1430 net.cpp:141] Setting up pool3/3x3_s2_pool3/3x3_s2_0_split
I0924 01:10:56.343232  1430 net.cpp:148] Top shape: 10 480 14 14 (940800)
I0924 01:10:56.343238  1430 net.cpp:148] Top shape: 10 480 14 14 (940800)
I0924 01:10:56.343245  1430 net.cpp:148] Top shape: 10 480 14 14 (940800)
I0924 01:10:56.343250  1430 net.cpp:148] Top shape: 10 480 14 14 (940800)
I0924 01:10:56.343255  1430 net.cpp:156] Memory required for data: 355998720
I0924 01:10:56.343260  1430 layer_factory.hpp:77] Creating layer inception_4a/1x1
I0924 01:10:56.343273  1430 net.cpp:91] Creating Layer inception_4a/1x1
I0924 01:10:56.343279  1430 net.cpp:425] inception_4a/1x1 <- pool3/3x3_s2_pool3/3x3_s2_0_split_0
I0924 01:10:56.343291  1430 net.cpp:399] inception_4a/1x1 -> inception_4a/1x1
I0924 01:10:56.345300  1430 net.cpp:141] Setting up inception_4a/1x1
I0924 01:10:56.345314  1430 net.cpp:148] Top shape: 10 192 14 14 (376320)
I0924 01:10:56.345319  1430 net.cpp:156] Memory required for data: 357504000
I0924 01:10:56.345327  1430 layer_factory.hpp:77] Creating layer inception_4a/relu_1x1
I0924 01:10:56.345338  1430 net.cpp:91] Creating Layer inception_4a/relu_1x1
I0924 01:10:56.345345  1430 net.cpp:425] inception_4a/relu_1x1 <- inception_4a/1x1
I0924 01:10:56.345352  1430 net.cpp:386] inception_4a/relu_1x1 -> inception_4a/1x1 (in-place)
I0924 01:10:56.345726  1430 net.cpp:141] Setting up inception_4a/relu_1x1
I0924 01:10:56.345739  1430 net.cpp:148] Top shape: 10 192 14 14 (376320)
I0924 01:10:56.345744  1430 net.cpp:156] Memory required for data: 359009280
I0924 01:10:56.345749  1430 layer_factory.hpp:77] Creating layer inception_4a/3x3_reduce
I0924 01:10:56.345764  1430 net.cpp:91] Creating Layer inception_4a/3x3_reduce
I0924 01:10:56.345770  1430 net.cpp:425] inception_4a/3x3_reduce <- pool3/3x3_s2_pool3/3x3_s2_0_split_1
I0924 01:10:56.345783  1430 net.cpp:399] inception_4a/3x3_reduce -> inception_4a/3x3_reduce
I0924 01:10:56.347460  1430 net.cpp:141] Setting up inception_4a/3x3_reduce
I0924 01:10:56.347472  1430 net.cpp:148] Top shape: 10 96 14 14 (188160)
I0924 01:10:56.347476  1430 net.cpp:156] Memory required for data: 359761920
I0924 01:10:56.347492  1430 layer_factory.hpp:77] Creating layer inception_4a/relu_3x3_reduce
I0924 01:10:56.347501  1430 net.cpp:91] Creating Layer inception_4a/relu_3x3_reduce
I0924 01:10:56.347506  1430 net.cpp:425] inception_4a/relu_3x3_reduce <- inception_4a/3x3_reduce
I0924 01:10:56.347513  1430 net.cpp:386] inception_4a/relu_3x3_reduce -> inception_4a/3x3_reduce (in-place)
I0924 01:10:56.347717  1430 net.cpp:141] Setting up inception_4a/relu_3x3_reduce
I0924 01:10:56.347726  1430 net.cpp:148] Top shape: 10 96 14 14 (188160)
I0924 01:10:56.347730  1430 net.cpp:156] Memory required for data: 360514560
I0924 01:10:56.347735  1430 layer_factory.hpp:77] Creating layer inception_4a/3x3
I0924 01:10:56.347751  1430 net.cpp:91] Creating Layer inception_4a/3x3
I0924 01:10:56.347756  1430 net.cpp:425] inception_4a/3x3 <- inception_4a/3x3_reduce
I0924 01:10:56.347769  1430 net.cpp:399] inception_4a/3x3 -> inception_4a/3x3
I0924 01:10:56.350837  1430 net.cpp:141] Setting up inception_4a/3x3
I0924 01:10:56.350850  1430 net.cpp:148] Top shape: 10 208 14 14 (407680)
I0924 01:10:56.350855  1430 net.cpp:156] Memory required for data: 362145280
I0924 01:10:56.350864  1430 layer_factory.hpp:77] Creating layer inception_4a/relu_3x3
I0924 01:10:56.350877  1430 net.cpp:91] Creating Layer inception_4a/relu_3x3
I0924 01:10:56.350883  1430 net.cpp:425] inception_4a/relu_3x3 <- inception_4a/3x3
I0924 01:10:56.350889  1430 net.cpp:386] inception_4a/relu_3x3 -> inception_4a/3x3 (in-place)
I0924 01:10:56.351265  1430 net.cpp:141] Setting up inception_4a/relu_3x3
I0924 01:10:56.351276  1430 net.cpp:148] Top shape: 10 208 14 14 (407680)
I0924 01:10:56.351281  1430 net.cpp:156] Memory required for data: 363776000
I0924 01:10:56.351286  1430 layer_factory.hpp:77] Creating layer inception_4a/5x5_reduce
I0924 01:10:56.351302  1430 net.cpp:91] Creating Layer inception_4a/5x5_reduce
I0924 01:10:56.351308  1430 net.cpp:425] inception_4a/5x5_reduce <- pool3/3x3_s2_pool3/3x3_s2_0_split_2
I0924 01:10:56.351317  1430 net.cpp:399] inception_4a/5x5_reduce -> inception_4a/5x5_reduce
I0924 01:10:56.352517  1430 net.cpp:141] Setting up inception_4a/5x5_reduce
I0924 01:10:56.352531  1430 net.cpp:148] Top shape: 10 16 14 14 (31360)
I0924 01:10:56.352536  1430 net.cpp:156] Memory required for data: 363901440
I0924 01:10:56.352545  1430 layer_factory.hpp:77] Creating layer inception_4a/relu_5x5_reduce
I0924 01:10:56.352555  1430 net.cpp:91] Creating Layer inception_4a/relu_5x5_reduce
I0924 01:10:56.352560  1430 net.cpp:425] inception_4a/relu_5x5_reduce <- inception_4a/5x5_reduce
I0924 01:10:56.352571  1430 net.cpp:386] inception_4a/relu_5x5_reduce -> inception_4a/5x5_reduce (in-place)
I0924 01:10:56.352952  1430 net.cpp:141] Setting up inception_4a/relu_5x5_reduce
I0924 01:10:56.352977  1430 net.cpp:148] Top shape: 10 16 14 14 (31360)
I0924 01:10:56.352982  1430 net.cpp:156] Memory required for data: 364026880
I0924 01:10:56.352988  1430 layer_factory.hpp:77] Creating layer inception_4a/5x5
I0924 01:10:56.353003  1430 net.cpp:91] Creating Layer inception_4a/5x5
I0924 01:10:56.353009  1430 net.cpp:425] inception_4a/5x5 <- inception_4a/5x5_reduce
I0924 01:10:56.353020  1430 net.cpp:399] inception_4a/5x5 -> inception_4a/5x5
I0924 01:10:56.354441  1430 net.cpp:141] Setting up inception_4a/5x5
I0924 01:10:56.354454  1430 net.cpp:148] Top shape: 10 48 14 14 (94080)
I0924 01:10:56.354460  1430 net.cpp:156] Memory required for data: 364403200
I0924 01:10:56.354467  1430 layer_factory.hpp:77] Creating layer inception_4a/relu_5x5
I0924 01:10:56.354478  1430 net.cpp:91] Creating Layer inception_4a/relu_5x5
I0924 01:10:56.354485  1430 net.cpp:425] inception_4a/relu_5x5 <- inception_4a/5x5
I0924 01:10:56.354491  1430 net.cpp:386] inception_4a/relu_5x5 -> inception_4a/5x5 (in-place)
I0924 01:10:56.354734  1430 net.cpp:141] Setting up inception_4a/relu_5x5
I0924 01:10:56.354746  1430 net.cpp:148] Top shape: 10 48 14 14 (94080)
I0924 01:10:56.354751  1430 net.cpp:156] Memory required for data: 364779520
I0924 01:10:56.354756  1430 layer_factory.hpp:77] Creating layer inception_4a/pool
I0924 01:10:56.354769  1430 net.cpp:91] Creating Layer inception_4a/pool
I0924 01:10:56.354776  1430 net.cpp:425] inception_4a/pool <- pool3/3x3_s2_pool3/3x3_s2_0_split_3
I0924 01:10:56.354786  1430 net.cpp:399] inception_4a/pool -> inception_4a/pool
I0924 01:10:56.354846  1430 net.cpp:141] Setting up inception_4a/pool
I0924 01:10:56.354856  1430 net.cpp:148] Top shape: 10 480 14 14 (940800)
I0924 01:10:56.354859  1430 net.cpp:156] Memory required for data: 368542720
I0924 01:10:56.354864  1430 layer_factory.hpp:77] Creating layer inception_4a/pool_proj
I0924 01:10:56.354878  1430 net.cpp:91] Creating Layer inception_4a/pool_proj
I0924 01:10:56.354884  1430 net.cpp:425] inception_4a/pool_proj <- inception_4a/pool
I0924 01:10:56.354897  1430 net.cpp:399] inception_4a/pool_proj -> inception_4a/pool_proj
I0924 01:10:56.356411  1430 net.cpp:141] Setting up inception_4a/pool_proj
I0924 01:10:56.356426  1430 net.cpp:148] Top shape: 10 64 14 14 (125440)
I0924 01:10:56.356432  1430 net.cpp:156] Memory required for data: 369044480
I0924 01:10:56.356441  1430 layer_factory.hpp:77] Creating layer inception_4a/relu_pool_proj
I0924 01:10:56.356448  1430 net.cpp:91] Creating Layer inception_4a/relu_pool_proj
I0924 01:10:56.356454  1430 net.cpp:425] inception_4a/relu_pool_proj <- inception_4a/pool_proj
I0924 01:10:56.356462  1430 net.cpp:386] inception_4a/relu_pool_proj -> inception_4a/pool_proj (in-place)
I0924 01:10:56.356829  1430 net.cpp:141] Setting up inception_4a/relu_pool_proj
I0924 01:10:56.356843  1430 net.cpp:148] Top shape: 10 64 14 14 (125440)
I0924 01:10:56.356848  1430 net.cpp:156] Memory required for data: 369546240
I0924 01:10:56.356853  1430 layer_factory.hpp:77] Creating layer inception_4a/output
I0924 01:10:56.356863  1430 net.cpp:91] Creating Layer inception_4a/output
I0924 01:10:56.356868  1430 net.cpp:425] inception_4a/output <- inception_4a/1x1
I0924 01:10:56.356874  1430 net.cpp:425] inception_4a/output <- inception_4a/3x3
I0924 01:10:56.356879  1430 net.cpp:425] inception_4a/output <- inception_4a/5x5
I0924 01:10:56.356885  1430 net.cpp:425] inception_4a/output <- inception_4a/pool_proj
I0924 01:10:56.356891  1430 net.cpp:399] inception_4a/output -> inception_4a/output
I0924 01:10:56.356933  1430 net.cpp:141] Setting up inception_4a/output
I0924 01:10:56.356941  1430 net.cpp:148] Top shape: 10 512 14 14 (1003520)
I0924 01:10:56.356946  1430 net.cpp:156] Memory required for data: 373560320
I0924 01:10:56.356951  1430 layer_factory.hpp:77] Creating layer inception_4a/output_inception_4a/output_0_split
I0924 01:10:56.356961  1430 net.cpp:91] Creating Layer inception_4a/output_inception_4a/output_0_split
I0924 01:10:56.356967  1430 net.cpp:425] inception_4a/output_inception_4a/output_0_split <- inception_4a/output
I0924 01:10:56.356973  1430 net.cpp:399] inception_4a/output_inception_4a/output_0_split -> inception_4a/output_inception_4a/output_0_split_0
I0924 01:10:56.356982  1430 net.cpp:399] inception_4a/output_inception_4a/output_0_split -> inception_4a/output_inception_4a/output_0_split_1
I0924 01:10:56.356990  1430 net.cpp:399] inception_4a/output_inception_4a/output_0_split -> inception_4a/output_inception_4a/output_0_split_2
I0924 01:10:56.356998  1430 net.cpp:399] inception_4a/output_inception_4a/output_0_split -> inception_4a/output_inception_4a/output_0_split_3
I0924 01:10:56.357079  1430 net.cpp:141] Setting up inception_4a/output_inception_4a/output_0_split
I0924 01:10:56.357089  1430 net.cpp:148] Top shape: 10 512 14 14 (1003520)
I0924 01:10:56.357095  1430 net.cpp:148] Top shape: 10 512 14 14 (1003520)
I0924 01:10:56.357100  1430 net.cpp:148] Top shape: 10 512 14 14 (1003520)
I0924 01:10:56.357105  1430 net.cpp:148] Top shape: 10 512 14 14 (1003520)
I0924 01:10:56.357108  1430 net.cpp:156] Memory required for data: 389616640
I0924 01:10:56.357113  1430 layer_factory.hpp:77] Creating layer inception_4b/1x1
I0924 01:10:56.357128  1430 net.cpp:91] Creating Layer inception_4b/1x1
I0924 01:10:56.357133  1430 net.cpp:425] inception_4b/1x1 <- inception_4a/output_inception_4a/output_0_split_0
I0924 01:10:56.357144  1430 net.cpp:399] inception_4b/1x1 -> inception_4b/1x1
I0924 01:10:56.358885  1430 net.cpp:141] Setting up inception_4b/1x1
I0924 01:10:56.358902  1430 net.cpp:148] Top shape: 10 160 14 14 (313600)
I0924 01:10:56.358909  1430 net.cpp:156] Memory required for data: 390871040
I0924 01:10:56.358918  1430 layer_factory.hpp:77] Creating layer inception_4b/relu_1x1
I0924 01:10:56.358927  1430 net.cpp:91] Creating Layer inception_4b/relu_1x1
I0924 01:10:56.358947  1430 net.cpp:425] inception_4b/relu_1x1 <- inception_4b/1x1
I0924 01:10:56.358954  1430 net.cpp:386] inception_4b/relu_1x1 -> inception_4b/1x1 (in-place)
I0924 01:10:56.359326  1430 net.cpp:141] Setting up inception_4b/relu_1x1
I0924 01:10:56.359340  1430 net.cpp:148] Top shape: 10 160 14 14 (313600)
I0924 01:10:56.359345  1430 net.cpp:156] Memory required for data: 392125440
I0924 01:10:56.359350  1430 layer_factory.hpp:77] Creating layer inception_4b/3x3_reduce
I0924 01:10:56.359362  1430 net.cpp:91] Creating Layer inception_4b/3x3_reduce
I0924 01:10:56.359369  1430 net.cpp:425] inception_4b/3x3_reduce <- inception_4a/output_inception_4a/output_0_split_1
I0924 01:10:56.359380  1430 net.cpp:399] inception_4b/3x3_reduce -> inception_4b/3x3_reduce
I0924 01:10:56.361073  1430 net.cpp:141] Setting up inception_4b/3x3_reduce
I0924 01:10:56.361089  1430 net.cpp:148] Top shape: 10 112 14 14 (219520)
I0924 01:10:56.361094  1430 net.cpp:156] Memory required for data: 393003520
I0924 01:10:56.361116  1430 layer_factory.hpp:77] Creating layer inception_4b/relu_3x3_reduce
I0924 01:10:56.361129  1430 net.cpp:91] Creating Layer inception_4b/relu_3x3_reduce
I0924 01:10:56.361135  1430 net.cpp:425] inception_4b/relu_3x3_reduce <- inception_4b/3x3_reduce
I0924 01:10:56.361142  1430 net.cpp:386] inception_4b/relu_3x3_reduce -> inception_4b/3x3_reduce (in-place)
I0924 01:10:56.361361  1430 net.cpp:141] Setting up inception_4b/relu_3x3_reduce
I0924 01:10:56.361371  1430 net.cpp:148] Top shape: 10 112 14 14 (219520)
I0924 01:10:56.361377  1430 net.cpp:156] Memory required for data: 393881600
I0924 01:10:56.361382  1430 layer_factory.hpp:77] Creating layer inception_4b/3x3
I0924 01:10:56.361398  1430 net.cpp:91] Creating Layer inception_4b/3x3
I0924 01:10:56.361404  1430 net.cpp:425] inception_4b/3x3 <- inception_4b/3x3_reduce
I0924 01:10:56.361413  1430 net.cpp:399] inception_4b/3x3 -> inception_4b/3x3
I0924 01:10:56.365074  1430 net.cpp:141] Setting up inception_4b/3x3
I0924 01:10:56.365092  1430 net.cpp:148] Top shape: 10 224 14 14 (439040)
I0924 01:10:56.365097  1430 net.cpp:156] Memory required for data: 395637760
I0924 01:10:56.365104  1430 layer_factory.hpp:77] Creating layer inception_4b/relu_3x3
I0924 01:10:56.365128  1430 net.cpp:91] Creating Layer inception_4b/relu_3x3
I0924 01:10:56.365134  1430 net.cpp:425] inception_4b/relu_3x3 <- inception_4b/3x3
I0924 01:10:56.365146  1430 net.cpp:386] inception_4b/relu_3x3 -> inception_4b/3x3 (in-place)
I0924 01:10:56.365536  1430 net.cpp:141] Setting up inception_4b/relu_3x3
I0924 01:10:56.365548  1430 net.cpp:148] Top shape: 10 224 14 14 (439040)
I0924 01:10:56.365552  1430 net.cpp:156] Memory required for data: 397393920
I0924 01:10:56.365558  1430 layer_factory.hpp:77] Creating layer inception_4b/5x5_reduce
I0924 01:10:56.365583  1430 net.cpp:91] Creating Layer inception_4b/5x5_reduce
I0924 01:10:56.365589  1430 net.cpp:425] inception_4b/5x5_reduce <- inception_4a/output_inception_4a/output_0_split_2
I0924 01:10:56.365598  1430 net.cpp:399] inception_4b/5x5_reduce -> inception_4b/5x5_reduce
I0924 01:10:56.366873  1430 net.cpp:141] Setting up inception_4b/5x5_reduce
I0924 01:10:56.366888  1430 net.cpp:148] Top shape: 10 24 14 14 (47040)
I0924 01:10:56.366894  1430 net.cpp:156] Memory required for data: 397582080
I0924 01:10:56.366915  1430 layer_factory.hpp:77] Creating layer inception_4b/relu_5x5_reduce
I0924 01:10:56.366927  1430 net.cpp:91] Creating Layer inception_4b/relu_5x5_reduce
I0924 01:10:56.366933  1430 net.cpp:425] inception_4b/relu_5x5_reduce <- inception_4b/5x5_reduce
I0924 01:10:56.366945  1430 net.cpp:386] inception_4b/relu_5x5_reduce -> inception_4b/5x5_reduce (in-place)
I0924 01:10:56.367323  1430 net.cpp:141] Setting up inception_4b/relu_5x5_reduce
I0924 01:10:56.367336  1430 net.cpp:148] Top shape: 10 24 14 14 (47040)
I0924 01:10:56.367341  1430 net.cpp:156] Memory required for data: 397770240
I0924 01:10:56.367346  1430 layer_factory.hpp:77] Creating layer inception_4b/5x5
I0924 01:10:56.367360  1430 net.cpp:91] Creating Layer inception_4b/5x5
I0924 01:10:56.367367  1430 net.cpp:425] inception_4b/5x5 <- inception_4b/5x5_reduce
I0924 01:10:56.367377  1430 net.cpp:399] inception_4b/5x5 -> inception_4b/5x5
I0924 01:10:56.369674  1430 net.cpp:141] Setting up inception_4b/5x5
I0924 01:10:56.369691  1430 net.cpp:148] Top shape: 10 64 14 14 (125440)
I0924 01:10:56.369710  1430 net.cpp:156] Memory required for data: 398272000
I0924 01:10:56.369719  1430 layer_factory.hpp:77] Creating layer inception_4b/relu_5x5
I0924 01:10:56.369732  1430 net.cpp:91] Creating Layer inception_4b/relu_5x5
I0924 01:10:56.369740  1430 net.cpp:425] inception_4b/relu_5x5 <- inception_4b/5x5
I0924 01:10:56.369746  1430 net.cpp:386] inception_4b/relu_5x5 -> inception_4b/5x5 (in-place)
I0924 01:10:56.369977  1430 net.cpp:141] Setting up inception_4b/relu_5x5
I0924 01:10:56.369988  1430 net.cpp:148] Top shape: 10 64 14 14 (125440)
I0924 01:10:56.369993  1430 net.cpp:156] Memory required for data: 398773760
I0924 01:10:56.369999  1430 layer_factory.hpp:77] Creating layer inception_4b/pool
I0924 01:10:56.370007  1430 net.cpp:91] Creating Layer inception_4b/pool
I0924 01:10:56.370013  1430 net.cpp:425] inception_4b/pool <- inception_4a/output_inception_4a/output_0_split_3
I0924 01:10:56.370024  1430 net.cpp:399] inception_4b/pool -> inception_4b/pool
I0924 01:10:56.370098  1430 net.cpp:141] Setting up inception_4b/pool
I0924 01:10:56.370108  1430 net.cpp:148] Top shape: 10 512 14 14 (1003520)
I0924 01:10:56.370112  1430 net.cpp:156] Memory required for data: 402787840
I0924 01:10:56.370117  1430 layer_factory.hpp:77] Creating layer inception_4b/pool_proj
I0924 01:10:56.370134  1430 net.cpp:91] Creating Layer inception_4b/pool_proj
I0924 01:10:56.370141  1430 net.cpp:425] inception_4b/pool_proj <- inception_4b/pool
I0924 01:10:56.370148  1430 net.cpp:399] inception_4b/pool_proj -> inception_4b/pool_proj
I0924 01:10:56.371745  1430 net.cpp:141] Setting up inception_4b/pool_proj
I0924 01:10:56.371762  1430 net.cpp:148] Top shape: 10 64 14 14 (125440)
I0924 01:10:56.371767  1430 net.cpp:156] Memory required for data: 403289600
I0924 01:10:56.371788  1430 layer_factory.hpp:77] Creating layer inception_4b/relu_pool_proj
I0924 01:10:56.371800  1430 net.cpp:91] Creating Layer inception_4b/relu_pool_proj
I0924 01:10:56.371806  1430 net.cpp:425] inception_4b/relu_pool_proj <- inception_4b/pool_proj
I0924 01:10:56.371814  1430 net.cpp:386] inception_4b/relu_pool_proj -> inception_4b/pool_proj (in-place)
I0924 01:10:56.372195  1430 net.cpp:141] Setting up inception_4b/relu_pool_proj
I0924 01:10:56.372206  1430 net.cpp:148] Top shape: 10 64 14 14 (125440)
I0924 01:10:56.372211  1430 net.cpp:156] Memory required for data: 403791360
I0924 01:10:56.372216  1430 layer_factory.hpp:77] Creating layer inception_4b/output
I0924 01:10:56.372228  1430 net.cpp:91] Creating Layer inception_4b/output
I0924 01:10:56.372234  1430 net.cpp:425] inception_4b/output <- inception_4b/1x1
I0924 01:10:56.372241  1430 net.cpp:425] inception_4b/output <- inception_4b/3x3
I0924 01:10:56.372246  1430 net.cpp:425] inception_4b/output <- inception_4b/5x5
I0924 01:10:56.372251  1430 net.cpp:425] inception_4b/output <- inception_4b/pool_proj
I0924 01:10:56.372258  1430 net.cpp:399] inception_4b/output -> inception_4b/output
I0924 01:10:56.372299  1430 net.cpp:141] Setting up inception_4b/output
I0924 01:10:56.372308  1430 net.cpp:148] Top shape: 10 512 14 14 (1003520)
I0924 01:10:56.372313  1430 net.cpp:156] Memory required for data: 407805440
I0924 01:10:56.372318  1430 layer_factory.hpp:77] Creating layer inception_4b/output_inception_4b/output_0_split
I0924 01:10:56.372324  1430 net.cpp:91] Creating Layer inception_4b/output_inception_4b/output_0_split
I0924 01:10:56.372329  1430 net.cpp:425] inception_4b/output_inception_4b/output_0_split <- inception_4b/output
I0924 01:10:56.372341  1430 net.cpp:399] inception_4b/output_inception_4b/output_0_split -> inception_4b/output_inception_4b/output_0_split_0
I0924 01:10:56.372351  1430 net.cpp:399] inception_4b/output_inception_4b/output_0_split -> inception_4b/output_inception_4b/output_0_split_1
I0924 01:10:56.372359  1430 net.cpp:399] inception_4b/output_inception_4b/output_0_split -> inception_4b/output_inception_4b/output_0_split_2
I0924 01:10:56.372370  1430 net.cpp:399] inception_4b/output_inception_4b/output_0_split -> inception_4b/output_inception_4b/output_0_split_3
I0924 01:10:56.372452  1430 net.cpp:141] Setting up inception_4b/output_inception_4b/output_0_split
I0924 01:10:56.372462  1430 net.cpp:148] Top shape: 10 512 14 14 (1003520)
I0924 01:10:56.372467  1430 net.cpp:148] Top shape: 10 512 14 14 (1003520)
I0924 01:10:56.372473  1430 net.cpp:148] Top shape: 10 512 14 14 (1003520)
I0924 01:10:56.372478  1430 net.cpp:148] Top shape: 10 512 14 14 (1003520)
I0924 01:10:56.372483  1430 net.cpp:156] Memory required for data: 423861760
I0924 01:10:56.372488  1430 layer_factory.hpp:77] Creating layer inception_4c/1x1
I0924 01:10:56.372500  1430 net.cpp:91] Creating Layer inception_4c/1x1
I0924 01:10:56.372506  1430 net.cpp:425] inception_4c/1x1 <- inception_4b/output_inception_4b/output_0_split_0
I0924 01:10:56.372517  1430 net.cpp:399] inception_4c/1x1 -> inception_4c/1x1
I0924 01:10:56.374205  1430 net.cpp:141] Setting up inception_4c/1x1
I0924 01:10:56.374222  1430 net.cpp:148] Top shape: 10 128 14 14 (250880)
I0924 01:10:56.374227  1430 net.cpp:156] Memory required for data: 424865280
I0924 01:10:56.374235  1430 layer_factory.hpp:77] Creating layer inception_4c/relu_1x1
I0924 01:10:56.374244  1430 net.cpp:91] Creating Layer inception_4c/relu_1x1
I0924 01:10:56.374250  1430 net.cpp:425] inception_4c/relu_1x1 <- inception_4c/1x1
I0924 01:10:56.374258  1430 net.cpp:386] inception_4c/relu_1x1 -> inception_4c/1x1 (in-place)
I0924 01:10:56.374682  1430 net.cpp:141] Setting up inception_4c/relu_1x1
I0924 01:10:56.374697  1430 net.cpp:148] Top shape: 10 128 14 14 (250880)
I0924 01:10:56.374702  1430 net.cpp:156] Memory required for data: 425868800
I0924 01:10:56.374707  1430 layer_factory.hpp:77] Creating layer inception_4c/3x3_reduce
I0924 01:10:56.374723  1430 net.cpp:91] Creating Layer inception_4c/3x3_reduce
I0924 01:10:56.374730  1430 net.cpp:425] inception_4c/3x3_reduce <- inception_4b/output_inception_4b/output_0_split_1
I0924 01:10:56.374739  1430 net.cpp:399] inception_4c/3x3_reduce -> inception_4c/3x3_reduce
I0924 01:10:56.376626  1430 net.cpp:141] Setting up inception_4c/3x3_reduce
I0924 01:10:56.376659  1430 net.cpp:148] Top shape: 10 128 14 14 (250880)
I0924 01:10:56.376665  1430 net.cpp:156] Memory required for data: 426872320
I0924 01:10:56.376674  1430 layer_factory.hpp:77] Creating layer inception_4c/relu_3x3_reduce
I0924 01:10:56.376683  1430 net.cpp:91] Creating Layer inception_4c/relu_3x3_reduce
I0924 01:10:56.376689  1430 net.cpp:425] inception_4c/relu_3x3_reduce <- inception_4c/3x3_reduce
I0924 01:10:56.376696  1430 net.cpp:386] inception_4c/relu_3x3_reduce -> inception_4c/3x3_reduce (in-place)
I0924 01:10:56.376931  1430 net.cpp:141] Setting up inception_4c/relu_3x3_reduce
I0924 01:10:56.376943  1430 net.cpp:148] Top shape: 10 128 14 14 (250880)
I0924 01:10:56.376947  1430 net.cpp:156] Memory required for data: 427875840
I0924 01:10:56.376953  1430 layer_factory.hpp:77] Creating layer inception_4c/3x3
I0924 01:10:56.376971  1430 net.cpp:91] Creating Layer inception_4c/3x3
I0924 01:10:56.376977  1430 net.cpp:425] inception_4c/3x3 <- inception_4c/3x3_reduce
I0924 01:10:56.376989  1430 net.cpp:399] inception_4c/3x3 -> inception_4c/3x3
I0924 01:10:56.381244  1430 net.cpp:141] Setting up inception_4c/3x3
I0924 01:10:56.381263  1430 net.cpp:148] Top shape: 10 256 14 14 (501760)
I0924 01:10:56.381270  1430 net.cpp:156] Memory required for data: 429882880
I0924 01:10:56.381279  1430 layer_factory.hpp:77] Creating layer inception_4c/relu_3x3
I0924 01:10:56.381289  1430 net.cpp:91] Creating Layer inception_4c/relu_3x3
I0924 01:10:56.381295  1430 net.cpp:425] inception_4c/relu_3x3 <- inception_4c/3x3
I0924 01:10:56.381304  1430 net.cpp:386] inception_4c/relu_3x3 -> inception_4c/3x3 (in-place)
I0924 01:10:56.381708  1430 net.cpp:141] Setting up inception_4c/relu_3x3
I0924 01:10:56.381721  1430 net.cpp:148] Top shape: 10 256 14 14 (501760)
I0924 01:10:56.381728  1430 net.cpp:156] Memory required for data: 431889920
I0924 01:10:56.381733  1430 layer_factory.hpp:77] Creating layer inception_4c/5x5_reduce
I0924 01:10:56.381747  1430 net.cpp:91] Creating Layer inception_4c/5x5_reduce
I0924 01:10:56.381752  1430 net.cpp:425] inception_4c/5x5_reduce <- inception_4b/output_inception_4b/output_0_split_2
I0924 01:10:56.381765  1430 net.cpp:399] inception_4c/5x5_reduce -> inception_4c/5x5_reduce
I0924 01:10:56.383139  1430 net.cpp:141] Setting up inception_4c/5x5_reduce
I0924 01:10:56.383157  1430 net.cpp:148] Top shape: 10 24 14 14 (47040)
I0924 01:10:56.383163  1430 net.cpp:156] Memory required for data: 432078080
I0924 01:10:56.383172  1430 layer_factory.hpp:77] Creating layer inception_4c/relu_5x5_reduce
I0924 01:10:56.383184  1430 net.cpp:91] Creating Layer inception_4c/relu_5x5_reduce
I0924 01:10:56.383190  1430 net.cpp:425] inception_4c/relu_5x5_reduce <- inception_4c/5x5_reduce
I0924 01:10:56.383198  1430 net.cpp:386] inception_4c/relu_5x5_reduce -> inception_4c/5x5_reduce (in-place)
I0924 01:10:56.383589  1430 net.cpp:141] Setting up inception_4c/relu_5x5_reduce
I0924 01:10:56.383601  1430 net.cpp:148] Top shape: 10 24 14 14 (47040)
I0924 01:10:56.383606  1430 net.cpp:156] Memory required for data: 432266240
I0924 01:10:56.383612  1430 layer_factory.hpp:77] Creating layer inception_4c/5x5
I0924 01:10:56.383627  1430 net.cpp:91] Creating Layer inception_4c/5x5
I0924 01:10:56.383633  1430 net.cpp:425] inception_4c/5x5 <- inception_4c/5x5_reduce
I0924 01:10:56.383646  1430 net.cpp:399] inception_4c/5x5 -> inception_4c/5x5
I0924 01:10:56.385531  1430 net.cpp:141] Setting up inception_4c/5x5
I0924 01:10:56.385551  1430 net.cpp:148] Top shape: 10 64 14 14 (125440)
I0924 01:10:56.385557  1430 net.cpp:156] Memory required for data: 432768000
I0924 01:10:56.385566  1430 layer_factory.hpp:77] Creating layer inception_4c/relu_5x5
I0924 01:10:56.385576  1430 net.cpp:91] Creating Layer inception_4c/relu_5x5
I0924 01:10:56.385582  1430 net.cpp:425] inception_4c/relu_5x5 <- inception_4c/5x5
I0924 01:10:56.385591  1430 net.cpp:386] inception_4c/relu_5x5 -> inception_4c/5x5 (in-place)
I0924 01:10:56.385824  1430 net.cpp:141] Setting up inception_4c/relu_5x5
I0924 01:10:56.385835  1430 net.cpp:148] Top shape: 10 64 14 14 (125440)
I0924 01:10:56.385840  1430 net.cpp:156] Memory required for data: 433269760
I0924 01:10:56.385845  1430 layer_factory.hpp:77] Creating layer inception_4c/pool
I0924 01:10:56.385854  1430 net.cpp:91] Creating Layer inception_4c/pool
I0924 01:10:56.385860  1430 net.cpp:425] inception_4c/pool <- inception_4b/output_inception_4b/output_0_split_3
I0924 01:10:56.385870  1430 net.cpp:399] inception_4c/pool -> inception_4c/pool
I0924 01:10:56.385936  1430 net.cpp:141] Setting up inception_4c/pool
I0924 01:10:56.385947  1430 net.cpp:148] Top shape: 10 512 14 14 (1003520)
I0924 01:10:56.385952  1430 net.cpp:156] Memory required for data: 437283840
I0924 01:10:56.385957  1430 layer_factory.hpp:77] Creating layer inception_4c/pool_proj
I0924 01:10:56.385977  1430 net.cpp:91] Creating Layer inception_4c/pool_proj
I0924 01:10:56.385982  1430 net.cpp:425] inception_4c/pool_proj <- inception_4c/pool
I0924 01:10:56.385992  1430 net.cpp:399] inception_4c/pool_proj -> inception_4c/pool_proj
I0924 01:10:56.388283  1430 net.cpp:141] Setting up inception_4c/pool_proj
I0924 01:10:56.388303  1430 net.cpp:148] Top shape: 10 64 14 14 (125440)
I0924 01:10:56.388309  1430 net.cpp:156] Memory required for data: 437785600
I0924 01:10:56.388334  1430 layer_factory.hpp:77] Creating layer inception_4c/relu_pool_proj
I0924 01:10:56.388345  1430 net.cpp:91] Creating Layer inception_4c/relu_pool_proj
I0924 01:10:56.388351  1430 net.cpp:425] inception_4c/relu_pool_proj <- inception_4c/pool_proj
I0924 01:10:56.388358  1430 net.cpp:386] inception_4c/relu_pool_proj -> inception_4c/pool_proj (in-place)
I0924 01:10:56.388756  1430 net.cpp:141] Setting up inception_4c/relu_pool_proj
I0924 01:10:56.388770  1430 net.cpp:148] Top shape: 10 64 14 14 (125440)
I0924 01:10:56.388777  1430 net.cpp:156] Memory required for data: 438287360
I0924 01:10:56.388782  1430 layer_factory.hpp:77] Creating layer inception_4c/output
I0924 01:10:56.388792  1430 net.cpp:91] Creating Layer inception_4c/output
I0924 01:10:56.388797  1430 net.cpp:425] inception_4c/output <- inception_4c/1x1
I0924 01:10:56.388803  1430 net.cpp:425] inception_4c/output <- inception_4c/3x3
I0924 01:10:56.388809  1430 net.cpp:425] inception_4c/output <- inception_4c/5x5
I0924 01:10:56.388814  1430 net.cpp:425] inception_4c/output <- inception_4c/pool_proj
I0924 01:10:56.388821  1430 net.cpp:399] inception_4c/output -> inception_4c/output
I0924 01:10:56.388869  1430 net.cpp:141] Setting up inception_4c/output
I0924 01:10:56.388877  1430 net.cpp:148] Top shape: 10 512 14 14 (1003520)
I0924 01:10:56.388882  1430 net.cpp:156] Memory required for data: 442301440
I0924 01:10:56.388887  1430 layer_factory.hpp:77] Creating layer inception_4c/output_inception_4c/output_0_split
I0924 01:10:56.388898  1430 net.cpp:91] Creating Layer inception_4c/output_inception_4c/output_0_split
I0924 01:10:56.388903  1430 net.cpp:425] inception_4c/output_inception_4c/output_0_split <- inception_4c/output
I0924 01:10:56.388911  1430 net.cpp:399] inception_4c/output_inception_4c/output_0_split -> inception_4c/output_inception_4c/output_0_split_0
I0924 01:10:56.388921  1430 net.cpp:399] inception_4c/output_inception_4c/output_0_split -> inception_4c/output_inception_4c/output_0_split_1
I0924 01:10:56.388928  1430 net.cpp:399] inception_4c/output_inception_4c/output_0_split -> inception_4c/output_inception_4c/output_0_split_2
I0924 01:10:56.388936  1430 net.cpp:399] inception_4c/output_inception_4c/output_0_split -> inception_4c/output_inception_4c/output_0_split_3
I0924 01:10:56.389029  1430 net.cpp:141] Setting up inception_4c/output_inception_4c/output_0_split
I0924 01:10:56.389037  1430 net.cpp:148] Top shape: 10 512 14 14 (1003520)
I0924 01:10:56.389044  1430 net.cpp:148] Top shape: 10 512 14 14 (1003520)
I0924 01:10:56.389050  1430 net.cpp:148] Top shape: 10 512 14 14 (1003520)
I0924 01:10:56.389055  1430 net.cpp:148] Top shape: 10 512 14 14 (1003520)
I0924 01:10:56.389060  1430 net.cpp:156] Memory required for data: 458357760
I0924 01:10:56.389063  1430 layer_factory.hpp:77] Creating layer inception_4d/1x1
I0924 01:10:56.389080  1430 net.cpp:91] Creating Layer inception_4d/1x1
I0924 01:10:56.389086  1430 net.cpp:425] inception_4d/1x1 <- inception_4c/output_inception_4c/output_0_split_0
I0924 01:10:56.389096  1430 net.cpp:399] inception_4d/1x1 -> inception_4d/1x1
I0924 01:10:56.390772  1430 net.cpp:141] Setting up inception_4d/1x1
I0924 01:10:56.390790  1430 net.cpp:148] Top shape: 10 112 14 14 (219520)
I0924 01:10:56.390796  1430 net.cpp:156] Memory required for data: 459235840
I0924 01:10:56.390805  1430 layer_factory.hpp:77] Creating layer inception_4d/relu_1x1
I0924 01:10:56.390816  1430 net.cpp:91] Creating Layer inception_4d/relu_1x1
I0924 01:10:56.390822  1430 net.cpp:425] inception_4d/relu_1x1 <- inception_4d/1x1
I0924 01:10:56.390830  1430 net.cpp:386] inception_4d/relu_1x1 -> inception_4d/1x1 (in-place)
I0924 01:10:56.391224  1430 net.cpp:141] Setting up inception_4d/relu_1x1
I0924 01:10:56.391237  1430 net.cpp:148] Top shape: 10 112 14 14 (219520)
I0924 01:10:56.391242  1430 net.cpp:156] Memory required for data: 460113920
I0924 01:10:56.391247  1430 layer_factory.hpp:77] Creating layer inception_4d/3x3_reduce
I0924 01:10:56.391263  1430 net.cpp:91] Creating Layer inception_4d/3x3_reduce
I0924 01:10:56.391268  1430 net.cpp:425] inception_4d/3x3_reduce <- inception_4c/output_inception_4c/output_0_split_1
I0924 01:10:56.391280  1430 net.cpp:399] inception_4d/3x3_reduce -> inception_4d/3x3_reduce
I0924 01:10:56.393266  1430 net.cpp:141] Setting up inception_4d/3x3_reduce
I0924 01:10:56.393283  1430 net.cpp:148] Top shape: 10 144 14 14 (282240)
I0924 01:10:56.393290  1430 net.cpp:156] Memory required for data: 461242880
I0924 01:10:56.393297  1430 layer_factory.hpp:77] Creating layer inception_4d/relu_3x3_reduce
I0924 01:10:56.393311  1430 net.cpp:91] Creating Layer inception_4d/relu_3x3_reduce
I0924 01:10:56.393317  1430 net.cpp:425] inception_4d/relu_3x3_reduce <- inception_4d/3x3_reduce
I0924 01:10:56.393326  1430 net.cpp:386] inception_4d/relu_3x3_reduce -> inception_4d/3x3_reduce (in-place)
I0924 01:10:56.393558  1430 net.cpp:141] Setting up inception_4d/relu_3x3_reduce
I0924 01:10:56.393568  1430 net.cpp:148] Top shape: 10 144 14 14 (282240)
I0924 01:10:56.393573  1430 net.cpp:156] Memory required for data: 462371840
I0924 01:10:56.393579  1430 layer_factory.hpp:77] Creating layer inception_4d/3x3
I0924 01:10:56.393596  1430 net.cpp:91] Creating Layer inception_4d/3x3
I0924 01:10:56.393604  1430 net.cpp:425] inception_4d/3x3 <- inception_4d/3x3_reduce
I0924 01:10:56.393611  1430 net.cpp:399] inception_4d/3x3 -> inception_4d/3x3
I0924 01:10:56.398473  1430 net.cpp:141] Setting up inception_4d/3x3
I0924 01:10:56.398504  1430 net.cpp:148] Top shape: 10 288 14 14 (564480)
I0924 01:10:56.398510  1430 net.cpp:156] Memory required for data: 464629760
I0924 01:10:56.398519  1430 layer_factory.hpp:77] Creating layer inception_4d/relu_3x3
I0924 01:10:56.398531  1430 net.cpp:91] Creating Layer inception_4d/relu_3x3
I0924 01:10:56.398538  1430 net.cpp:425] inception_4d/relu_3x3 <- inception_4d/3x3
I0924 01:10:56.398546  1430 net.cpp:386] inception_4d/relu_3x3 -> inception_4d/3x3 (in-place)
I0924 01:10:56.398960  1430 net.cpp:141] Setting up inception_4d/relu_3x3
I0924 01:10:56.398973  1430 net.cpp:148] Top shape: 10 288 14 14 (564480)
I0924 01:10:56.398978  1430 net.cpp:156] Memory required for data: 466887680
I0924 01:10:56.398984  1430 layer_factory.hpp:77] Creating layer inception_4d/5x5_reduce
I0924 01:10:56.398999  1430 net.cpp:91] Creating Layer inception_4d/5x5_reduce
I0924 01:10:56.399005  1430 net.cpp:425] inception_4d/5x5_reduce <- inception_4c/output_inception_4c/output_0_split_2
I0924 01:10:56.399019  1430 net.cpp:399] inception_4d/5x5_reduce -> inception_4d/5x5_reduce
I0924 01:10:56.400419  1430 net.cpp:141] Setting up inception_4d/5x5_reduce
I0924 01:10:56.400450  1430 net.cpp:148] Top shape: 10 32 14 14 (62720)
I0924 01:10:56.400455  1430 net.cpp:156] Memory required for data: 467138560
I0924 01:10:56.400465  1430 layer_factory.hpp:77] Creating layer inception_4d/relu_5x5_reduce
I0924 01:10:56.400475  1430 net.cpp:91] Creating Layer inception_4d/relu_5x5_reduce
I0924 01:10:56.400480  1430 net.cpp:425] inception_4d/relu_5x5_reduce <- inception_4d/5x5_reduce
I0924 01:10:56.400490  1430 net.cpp:386] inception_4d/relu_5x5_reduce -> inception_4d/5x5_reduce (in-place)
I0924 01:10:56.400888  1430 net.cpp:141] Setting up inception_4d/relu_5x5_reduce
I0924 01:10:56.400900  1430 net.cpp:148] Top shape: 10 32 14 14 (62720)
I0924 01:10:56.400905  1430 net.cpp:156] Memory required for data: 467389440
I0924 01:10:56.400910  1430 layer_factory.hpp:77] Creating layer inception_4d/5x5
I0924 01:10:56.400925  1430 net.cpp:91] Creating Layer inception_4d/5x5
I0924 01:10:56.400931  1430 net.cpp:425] inception_4d/5x5 <- inception_4d/5x5_reduce
I0924 01:10:56.400944  1430 net.cpp:399] inception_4d/5x5 -> inception_4d/5x5
I0924 01:10:56.402755  1430 net.cpp:141] Setting up inception_4d/5x5
I0924 01:10:56.402772  1430 net.cpp:148] Top shape: 10 64 14 14 (125440)
I0924 01:10:56.402777  1430 net.cpp:156] Memory required for data: 467891200
I0924 01:10:56.402786  1430 layer_factory.hpp:77] Creating layer inception_4d/relu_5x5
I0924 01:10:56.402799  1430 net.cpp:91] Creating Layer inception_4d/relu_5x5
I0924 01:10:56.402806  1430 net.cpp:425] inception_4d/relu_5x5 <- inception_4d/5x5
I0924 01:10:56.402813  1430 net.cpp:386] inception_4d/relu_5x5 -> inception_4d/5x5 (in-place)
I0924 01:10:56.403048  1430 net.cpp:141] Setting up inception_4d/relu_5x5
I0924 01:10:56.403059  1430 net.cpp:148] Top shape: 10 64 14 14 (125440)
I0924 01:10:56.403064  1430 net.cpp:156] Memory required for data: 468392960
I0924 01:10:56.403069  1430 layer_factory.hpp:77] Creating layer inception_4d/pool
I0924 01:10:56.403079  1430 net.cpp:91] Creating Layer inception_4d/pool
I0924 01:10:56.403084  1430 net.cpp:425] inception_4d/pool <- inception_4c/output_inception_4c/output_0_split_3
I0924 01:10:56.403095  1430 net.cpp:399] inception_4d/pool -> inception_4d/pool
I0924 01:10:56.403161  1430 net.cpp:141] Setting up inception_4d/pool
I0924 01:10:56.403170  1430 net.cpp:148] Top shape: 10 512 14 14 (1003520)
I0924 01:10:56.403174  1430 net.cpp:156] Memory required for data: 472407040
I0924 01:10:56.403179  1430 layer_factory.hpp:77] Creating layer inception_4d/pool_proj
I0924 01:10:56.403198  1430 net.cpp:91] Creating Layer inception_4d/pool_proj
I0924 01:10:56.403203  1430 net.cpp:425] inception_4d/pool_proj <- inception_4d/pool
I0924 01:10:56.403211  1430 net.cpp:399] inception_4d/pool_proj -> inception_4d/pool_proj
I0924 01:10:56.404886  1430 net.cpp:141] Setting up inception_4d/pool_proj
I0924 01:10:56.404916  1430 net.cpp:148] Top shape: 10 64 14 14 (125440)
I0924 01:10:56.404920  1430 net.cpp:156] Memory required for data: 472908800
I0924 01:10:56.404929  1430 layer_factory.hpp:77] Creating layer inception_4d/relu_pool_proj
I0924 01:10:56.404938  1430 net.cpp:91] Creating Layer inception_4d/relu_pool_proj
I0924 01:10:56.404944  1430 net.cpp:425] inception_4d/relu_pool_proj <- inception_4d/pool_proj
I0924 01:10:56.404955  1430 net.cpp:386] inception_4d/relu_pool_proj -> inception_4d/pool_proj (in-place)
I0924 01:10:56.405355  1430 net.cpp:141] Setting up inception_4d/relu_pool_proj
I0924 01:10:56.405369  1430 net.cpp:148] Top shape: 10 64 14 14 (125440)
I0924 01:10:56.405374  1430 net.cpp:156] Memory required for data: 473410560
I0924 01:10:56.405378  1430 layer_factory.hpp:77] Creating layer inception_4d/output
I0924 01:10:56.405387  1430 net.cpp:91] Creating Layer inception_4d/output
I0924 01:10:56.405393  1430 net.cpp:425] inception_4d/output <- inception_4d/1x1
I0924 01:10:56.405400  1430 net.cpp:425] inception_4d/output <- inception_4d/3x3
I0924 01:10:56.405406  1430 net.cpp:425] inception_4d/output <- inception_4d/5x5
I0924 01:10:56.405411  1430 net.cpp:425] inception_4d/output <- inception_4d/pool_proj
I0924 01:10:56.405422  1430 net.cpp:399] inception_4d/output -> inception_4d/output
I0924 01:10:56.405472  1430 net.cpp:141] Setting up inception_4d/output
I0924 01:10:56.405488  1430 net.cpp:148] Top shape: 10 528 14 14 (1034880)
I0924 01:10:56.405494  1430 net.cpp:156] Memory required for data: 477550080
I0924 01:10:56.405499  1430 layer_factory.hpp:77] Creating layer inception_4d/output_inception_4d/output_0_split
I0924 01:10:56.405508  1430 net.cpp:91] Creating Layer inception_4d/output_inception_4d/output_0_split
I0924 01:10:56.405514  1430 net.cpp:425] inception_4d/output_inception_4d/output_0_split <- inception_4d/output
I0924 01:10:56.405521  1430 net.cpp:399] inception_4d/output_inception_4d/output_0_split -> inception_4d/output_inception_4d/output_0_split_0
I0924 01:10:56.405535  1430 net.cpp:399] inception_4d/output_inception_4d/output_0_split -> inception_4d/output_inception_4d/output_0_split_1
I0924 01:10:56.405544  1430 net.cpp:399] inception_4d/output_inception_4d/output_0_split -> inception_4d/output_inception_4d/output_0_split_2
I0924 01:10:56.405553  1430 net.cpp:399] inception_4d/output_inception_4d/output_0_split -> inception_4d/output_inception_4d/output_0_split_3
I0924 01:10:56.405653  1430 net.cpp:141] Setting up inception_4d/output_inception_4d/output_0_split
I0924 01:10:56.405663  1430 net.cpp:148] Top shape: 10 528 14 14 (1034880)
I0924 01:10:56.405668  1430 net.cpp:148] Top shape: 10 528 14 14 (1034880)
I0924 01:10:56.405674  1430 net.cpp:148] Top shape: 10 528 14 14 (1034880)
I0924 01:10:56.405680  1430 net.cpp:148] Top shape: 10 528 14 14 (1034880)
I0924 01:10:56.405684  1430 net.cpp:156] Memory required for data: 494108160
I0924 01:10:56.405689  1430 layer_factory.hpp:77] Creating layer inception_4e/1x1
I0924 01:10:56.405706  1430 net.cpp:91] Creating Layer inception_4e/1x1
I0924 01:10:56.405712  1430 net.cpp:425] inception_4e/1x1 <- inception_4d/output_inception_4d/output_0_split_0
I0924 01:10:56.405721  1430 net.cpp:399] inception_4e/1x1 -> inception_4e/1x1
I0924 01:10:56.408808  1430 net.cpp:141] Setting up inception_4e/1x1
I0924 01:10:56.408828  1430 net.cpp:148] Top shape: 10 256 14 14 (501760)
I0924 01:10:56.408833  1430 net.cpp:156] Memory required for data: 496115200
I0924 01:10:56.408841  1430 layer_factory.hpp:77] Creating layer inception_4e/relu_1x1
I0924 01:10:56.408854  1430 net.cpp:91] Creating Layer inception_4e/relu_1x1
I0924 01:10:56.408860  1430 net.cpp:425] inception_4e/relu_1x1 <- inception_4e/1x1
I0924 01:10:56.408867  1430 net.cpp:386] inception_4e/relu_1x1 -> inception_4e/1x1 (in-place)
I0924 01:10:56.409274  1430 net.cpp:141] Setting up inception_4e/relu_1x1
I0924 01:10:56.409287  1430 net.cpp:148] Top shape: 10 256 14 14 (501760)
I0924 01:10:56.409292  1430 net.cpp:156] Memory required for data: 498122240
I0924 01:10:56.409297  1430 layer_factory.hpp:77] Creating layer inception_4e/3x3_reduce
I0924 01:10:56.409313  1430 net.cpp:91] Creating Layer inception_4e/3x3_reduce
I0924 01:10:56.409320  1430 net.cpp:425] inception_4e/3x3_reduce <- inception_4d/output_inception_4d/output_0_split_1
I0924 01:10:56.409332  1430 net.cpp:399] inception_4e/3x3_reduce -> inception_4e/3x3_reduce
I0924 01:10:56.411402  1430 net.cpp:141] Setting up inception_4e/3x3_reduce
I0924 01:10:56.411433  1430 net.cpp:148] Top shape: 10 160 14 14 (313600)
I0924 01:10:56.411439  1430 net.cpp:156] Memory required for data: 499376640
I0924 01:10:56.411448  1430 layer_factory.hpp:77] Creating layer inception_4e/relu_3x3_reduce
I0924 01:10:56.411458  1430 net.cpp:91] Creating Layer inception_4e/relu_3x3_reduce
I0924 01:10:56.411463  1430 net.cpp:425] inception_4e/relu_3x3_reduce <- inception_4e/3x3_reduce
I0924 01:10:56.411473  1430 net.cpp:386] inception_4e/relu_3x3_reduce -> inception_4e/3x3_reduce (in-place)
I0924 01:10:56.411710  1430 net.cpp:141] Setting up inception_4e/relu_3x3_reduce
I0924 01:10:56.411721  1430 net.cpp:148] Top shape: 10 160 14 14 (313600)
I0924 01:10:56.411726  1430 net.cpp:156] Memory required for data: 500631040
I0924 01:10:56.411731  1430 layer_factory.hpp:77] Creating layer inception_4e/3x3
I0924 01:10:56.411748  1430 net.cpp:91] Creating Layer inception_4e/3x3
I0924 01:10:56.411756  1430 net.cpp:425] inception_4e/3x3 <- inception_4e/3x3_reduce
I0924 01:10:56.411764  1430 net.cpp:399] inception_4e/3x3 -> inception_4e/3x3
I0924 01:10:56.417285  1430 net.cpp:141] Setting up inception_4e/3x3
I0924 01:10:56.417304  1430 net.cpp:148] Top shape: 10 320 14 14 (627200)
I0924 01:10:56.417309  1430 net.cpp:156] Memory required for data: 503139840
I0924 01:10:56.417330  1430 layer_factory.hpp:77] Creating layer inception_4e/relu_3x3
I0924 01:10:56.417340  1430 net.cpp:91] Creating Layer inception_4e/relu_3x3
I0924 01:10:56.417347  1430 net.cpp:425] inception_4e/relu_3x3 <- inception_4e/3x3
I0924 01:10:56.417354  1430 net.cpp:386] inception_4e/relu_3x3 -> inception_4e/3x3 (in-place)
I0924 01:10:56.417754  1430 net.cpp:141] Setting up inception_4e/relu_3x3
I0924 01:10:56.417768  1430 net.cpp:148] Top shape: 10 320 14 14 (627200)
I0924 01:10:56.417773  1430 net.cpp:156] Memory required for data: 505648640
I0924 01:10:56.417778  1430 layer_factory.hpp:77] Creating layer inception_4e/5x5_reduce
I0924 01:10:56.417790  1430 net.cpp:91] Creating Layer inception_4e/5x5_reduce
I0924 01:10:56.417796  1430 net.cpp:425] inception_4e/5x5_reduce <- inception_4d/output_inception_4d/output_0_split_2
I0924 01:10:56.417810  1430 net.cpp:399] inception_4e/5x5_reduce -> inception_4e/5x5_reduce
I0924 01:10:56.419293  1430 net.cpp:141] Setting up inception_4e/5x5_reduce
I0924 01:10:56.419309  1430 net.cpp:148] Top shape: 10 32 14 14 (62720)
I0924 01:10:56.419314  1430 net.cpp:156] Memory required for data: 505899520
I0924 01:10:56.419335  1430 layer_factory.hpp:77] Creating layer inception_4e/relu_5x5_reduce
I0924 01:10:56.419348  1430 net.cpp:91] Creating Layer inception_4e/relu_5x5_reduce
I0924 01:10:56.419353  1430 net.cpp:425] inception_4e/relu_5x5_reduce <- inception_4e/5x5_reduce
I0924 01:10:56.419360  1430 net.cpp:386] inception_4e/relu_5x5_reduce -> inception_4e/5x5_reduce (in-place)
I0924 01:10:56.419744  1430 net.cpp:141] Setting up inception_4e/relu_5x5_reduce
I0924 01:10:56.419756  1430 net.cpp:148] Top shape: 10 32 14 14 (62720)
I0924 01:10:56.419761  1430 net.cpp:156] Memory required for data: 506150400
I0924 01:10:56.419766  1430 layer_factory.hpp:77] Creating layer inception_4e/5x5
I0924 01:10:56.419780  1430 net.cpp:91] Creating Layer inception_4e/5x5
I0924 01:10:56.419786  1430 net.cpp:425] inception_4e/5x5 <- inception_4e/5x5_reduce
I0924 01:10:56.419798  1430 net.cpp:399] inception_4e/5x5 -> inception_4e/5x5
I0924 01:10:56.422518  1430 net.cpp:141] Setting up inception_4e/5x5
I0924 01:10:56.422533  1430 net.cpp:148] Top shape: 10 128 14 14 (250880)
I0924 01:10:56.422538  1430 net.cpp:156] Memory required for data: 507153920
I0924 01:10:56.422559  1430 layer_factory.hpp:77] Creating layer inception_4e/relu_5x5
I0924 01:10:56.422569  1430 net.cpp:91] Creating Layer inception_4e/relu_5x5
I0924 01:10:56.422574  1430 net.cpp:425] inception_4e/relu_5x5 <- inception_4e/5x5
I0924 01:10:56.422585  1430 net.cpp:386] inception_4e/relu_5x5 -> inception_4e/5x5 (in-place)
I0924 01:10:56.422861  1430 net.cpp:141] Setting up inception_4e/relu_5x5
I0924 01:10:56.422873  1430 net.cpp:148] Top shape: 10 128 14 14 (250880)
I0924 01:10:56.422878  1430 net.cpp:156] Memory required for data: 508157440
I0924 01:10:56.422883  1430 layer_factory.hpp:77] Creating layer inception_4e/pool
I0924 01:10:56.422896  1430 net.cpp:91] Creating Layer inception_4e/pool
I0924 01:10:56.422902  1430 net.cpp:425] inception_4e/pool <- inception_4d/output_inception_4d/output_0_split_3
I0924 01:10:56.422911  1430 net.cpp:399] inception_4e/pool -> inception_4e/pool
I0924 01:10:56.422982  1430 net.cpp:141] Setting up inception_4e/pool
I0924 01:10:56.422992  1430 net.cpp:148] Top shape: 10 528 14 14 (1034880)
I0924 01:10:56.422996  1430 net.cpp:156] Memory required for data: 512296960
I0924 01:10:56.423002  1430 layer_factory.hpp:77] Creating layer inception_4e/pool_proj
I0924 01:10:56.423015  1430 net.cpp:91] Creating Layer inception_4e/pool_proj
I0924 01:10:56.423022  1430 net.cpp:425] inception_4e/pool_proj <- inception_4e/pool
I0924 01:10:56.423033  1430 net.cpp:399] inception_4e/pool_proj -> inception_4e/pool_proj
I0924 01:10:56.425277  1430 net.cpp:141] Setting up inception_4e/pool_proj
I0924 01:10:56.425309  1430 net.cpp:148] Top shape: 10 128 14 14 (250880)
I0924 01:10:56.425315  1430 net.cpp:156] Memory required for data: 513300480
I0924 01:10:56.425325  1430 layer_factory.hpp:77] Creating layer inception_4e/relu_pool_proj
I0924 01:10:56.425334  1430 net.cpp:91] Creating Layer inception_4e/relu_pool_proj
I0924 01:10:56.425341  1430 net.cpp:425] inception_4e/relu_pool_proj <- inception_4e/pool_proj
I0924 01:10:56.425351  1430 net.cpp:386] inception_4e/relu_pool_proj -> inception_4e/pool_proj (in-place)
I0924 01:10:56.425830  1430 net.cpp:141] Setting up inception_4e/relu_pool_proj
I0924 01:10:56.425849  1430 net.cpp:148] Top shape: 10 128 14 14 (250880)
I0924 01:10:56.425859  1430 net.cpp:156] Memory required for data: 514304000
I0924 01:10:56.425868  1430 layer_factory.hpp:77] Creating layer inception_4e/output
I0924 01:10:56.425884  1430 net.cpp:91] Creating Layer inception_4e/output
I0924 01:10:56.425894  1430 net.cpp:425] inception_4e/output <- inception_4e/1x1
I0924 01:10:56.425905  1430 net.cpp:425] inception_4e/output <- inception_4e/3x3
I0924 01:10:56.425916  1430 net.cpp:425] inception_4e/output <- inception_4e/5x5
I0924 01:10:56.425927  1430 net.cpp:425] inception_4e/output <- inception_4e/pool_proj
I0924 01:10:56.425945  1430 net.cpp:399] inception_4e/output -> inception_4e/output
I0924 01:10:56.426014  1430 net.cpp:141] Setting up inception_4e/output
I0924 01:10:56.426031  1430 net.cpp:148] Top shape: 10 832 14 14 (1630720)
I0924 01:10:56.426041  1430 net.cpp:156] Memory required for data: 520826880
I0924 01:10:56.426050  1430 layer_factory.hpp:77] Creating layer pool4/3x3_s2
I0924 01:10:56.426071  1430 net.cpp:91] Creating Layer pool4/3x3_s2
I0924 01:10:56.426084  1430 net.cpp:425] pool4/3x3_s2 <- inception_4e/output
I0924 01:10:56.426097  1430 net.cpp:399] pool4/3x3_s2 -> pool4/3x3_s2
I0924 01:10:56.426213  1430 net.cpp:141] Setting up pool4/3x3_s2
I0924 01:10:56.426230  1430 net.cpp:148] Top shape: 10 832 7 7 (407680)
I0924 01:10:56.426239  1430 net.cpp:156] Memory required for data: 522457600
I0924 01:10:56.426247  1430 layer_factory.hpp:77] Creating layer pool4/3x3_s2_pool4/3x3_s2_0_split
I0924 01:10:56.426267  1430 net.cpp:91] Creating Layer pool4/3x3_s2_pool4/3x3_s2_0_split
I0924 01:10:56.426278  1430 net.cpp:425] pool4/3x3_s2_pool4/3x3_s2_0_split <- pool4/3x3_s2
I0924 01:10:56.426292  1430 net.cpp:399] pool4/3x3_s2_pool4/3x3_s2_0_split -> pool4/3x3_s2_pool4/3x3_s2_0_split_0
I0924 01:10:56.426309  1430 net.cpp:399] pool4/3x3_s2_pool4/3x3_s2_0_split -> pool4/3x3_s2_pool4/3x3_s2_0_split_1
I0924 01:10:56.426326  1430 net.cpp:399] pool4/3x3_s2_pool4/3x3_s2_0_split -> pool4/3x3_s2_pool4/3x3_s2_0_split_2
I0924 01:10:56.426340  1430 net.cpp:399] pool4/3x3_s2_pool4/3x3_s2_0_split -> pool4/3x3_s2_pool4/3x3_s2_0_split_3
I0924 01:10:56.426512  1430 net.cpp:141] Setting up pool4/3x3_s2_pool4/3x3_s2_0_split
I0924 01:10:56.426530  1430 net.cpp:148] Top shape: 10 832 7 7 (407680)
I0924 01:10:56.426542  1430 net.cpp:148] Top shape: 10 832 7 7 (407680)
I0924 01:10:56.426550  1430 net.cpp:148] Top shape: 10 832 7 7 (407680)
I0924 01:10:56.426561  1430 net.cpp:148] Top shape: 10 832 7 7 (407680)
I0924 01:10:56.426569  1430 net.cpp:156] Memory required for data: 528980480
I0924 01:10:56.426578  1430 layer_factory.hpp:77] Creating layer inception_5a/1x1
I0924 01:10:56.426614  1430 net.cpp:91] Creating Layer inception_5a/1x1
I0924 01:10:56.426625  1430 net.cpp:425] inception_5a/1x1 <- pool4/3x3_s2_pool4/3x3_s2_0_split_0
I0924 01:10:56.426645  1430 net.cpp:399] inception_5a/1x1 -> inception_5a/1x1
I0924 01:10:56.430420  1430 net.cpp:141] Setting up inception_5a/1x1
I0924 01:10:56.430443  1430 net.cpp:148] Top shape: 10 256 7 7 (125440)
I0924 01:10:56.430447  1430 net.cpp:156] Memory required for data: 529482240
I0924 01:10:56.430457  1430 layer_factory.hpp:77] Creating layer inception_5a/relu_1x1
I0924 01:10:56.430466  1430 net.cpp:91] Creating Layer inception_5a/relu_1x1
I0924 01:10:56.430472  1430 net.cpp:425] inception_5a/relu_1x1 <- inception_5a/1x1
I0924 01:10:56.430485  1430 net.cpp:386] inception_5a/relu_1x1 -> inception_5a/1x1 (in-place)
I0924 01:10:56.430905  1430 net.cpp:141] Setting up inception_5a/relu_1x1
I0924 01:10:56.430919  1430 net.cpp:148] Top shape: 10 256 7 7 (125440)
I0924 01:10:56.430924  1430 net.cpp:156] Memory required for data: 529984000
I0924 01:10:56.430929  1430 layer_factory.hpp:77] Creating layer inception_5a/3x3_reduce
I0924 01:10:56.430945  1430 net.cpp:91] Creating Layer inception_5a/3x3_reduce
I0924 01:10:56.430953  1430 net.cpp:425] inception_5a/3x3_reduce <- pool4/3x3_s2_pool4/3x3_s2_0_split_1
I0924 01:10:56.430964  1430 net.cpp:399] inception_5a/3x3_reduce -> inception_5a/3x3_reduce
I0924 01:10:56.434087  1430 net.cpp:141] Setting up inception_5a/3x3_reduce
I0924 01:10:56.434105  1430 net.cpp:148] Top shape: 10 160 7 7 (78400)
I0924 01:10:56.434110  1430 net.cpp:156] Memory required for data: 530297600
I0924 01:10:56.434120  1430 layer_factory.hpp:77] Creating layer inception_5a/relu_3x3_reduce
I0924 01:10:56.434129  1430 net.cpp:91] Creating Layer inception_5a/relu_3x3_reduce
I0924 01:10:56.434135  1430 net.cpp:425] inception_5a/relu_3x3_reduce <- inception_5a/3x3_reduce
I0924 01:10:56.434149  1430 net.cpp:386] inception_5a/relu_3x3_reduce -> inception_5a/3x3_reduce (in-place)
I0924 01:10:56.434399  1430 net.cpp:141] Setting up inception_5a/relu_3x3_reduce
I0924 01:10:56.434412  1430 net.cpp:148] Top shape: 10 160 7 7 (78400)
I0924 01:10:56.434417  1430 net.cpp:156] Memory required for data: 530611200
I0924 01:10:56.434422  1430 layer_factory.hpp:77] Creating layer inception_5a/3x3
I0924 01:10:56.434438  1430 net.cpp:91] Creating Layer inception_5a/3x3
I0924 01:10:56.434447  1430 net.cpp:425] inception_5a/3x3 <- inception_5a/3x3_reduce
I0924 01:10:56.434455  1430 net.cpp:399] inception_5a/3x3 -> inception_5a/3x3
I0924 01:10:56.440682  1430 net.cpp:141] Setting up inception_5a/3x3
I0924 01:10:56.440704  1430 net.cpp:148] Top shape: 10 320 7 7 (156800)
I0924 01:10:56.440711  1430 net.cpp:156] Memory required for data: 531238400
I0924 01:10:56.440721  1430 layer_factory.hpp:77] Creating layer inception_5a/relu_3x3
I0924 01:10:56.440731  1430 net.cpp:91] Creating Layer inception_5a/relu_3x3
I0924 01:10:56.440737  1430 net.cpp:425] inception_5a/relu_3x3 <- inception_5a/3x3
I0924 01:10:56.440748  1430 net.cpp:386] inception_5a/relu_3x3 -> inception_5a/3x3 (in-place)
I0924 01:10:56.441180  1430 net.cpp:141] Setting up inception_5a/relu_3x3
I0924 01:10:56.441193  1430 net.cpp:148] Top shape: 10 320 7 7 (156800)
I0924 01:10:56.441198  1430 net.cpp:156] Memory required for data: 531865600
I0924 01:10:56.441203  1430 layer_factory.hpp:77] Creating layer inception_5a/5x5_reduce
I0924 01:10:56.441220  1430 net.cpp:91] Creating Layer inception_5a/5x5_reduce
I0924 01:10:56.441226  1430 net.cpp:425] inception_5a/5x5_reduce <- pool4/3x3_s2_pool4/3x3_s2_0_split_2
I0924 01:10:56.441239  1430 net.cpp:399] inception_5a/5x5_reduce -> inception_5a/5x5_reduce
I0924 01:10:56.442792  1430 net.cpp:141] Setting up inception_5a/5x5_reduce
I0924 01:10:56.442809  1430 net.cpp:148] Top shape: 10 32 7 7 (15680)
I0924 01:10:56.442814  1430 net.cpp:156] Memory required for data: 531928320
I0924 01:10:56.442823  1430 layer_factory.hpp:77] Creating layer inception_5a/relu_5x5_reduce
I0924 01:10:56.442832  1430 net.cpp:91] Creating Layer inception_5a/relu_5x5_reduce
I0924 01:10:56.442839  1430 net.cpp:425] inception_5a/relu_5x5_reduce <- inception_5a/5x5_reduce
I0924 01:10:56.442850  1430 net.cpp:386] inception_5a/relu_5x5_reduce -> inception_5a/5x5_reduce (in-place)
I0924 01:10:56.443259  1430 net.cpp:141] Setting up inception_5a/relu_5x5_reduce
I0924 01:10:56.443271  1430 net.cpp:148] Top shape: 10 32 7 7 (15680)
I0924 01:10:56.443276  1430 net.cpp:156] Memory required for data: 531991040
I0924 01:10:56.443282  1430 layer_factory.hpp:77] Creating layer inception_5a/5x5
I0924 01:10:56.443297  1430 net.cpp:91] Creating Layer inception_5a/5x5
I0924 01:10:56.443305  1430 net.cpp:425] inception_5a/5x5 <- inception_5a/5x5_reduce
I0924 01:10:56.443315  1430 net.cpp:399] inception_5a/5x5 -> inception_5a/5x5
I0924 01:10:56.445547  1430 net.cpp:141] Setting up inception_5a/5x5
I0924 01:10:56.445569  1430 net.cpp:148] Top shape: 10 128 7 7 (62720)
I0924 01:10:56.445574  1430 net.cpp:156] Memory required for data: 532241920
I0924 01:10:56.445583  1430 layer_factory.hpp:77] Creating layer inception_5a/relu_5x5
I0924 01:10:56.445618  1430 net.cpp:91] Creating Layer inception_5a/relu_5x5
I0924 01:10:56.445626  1430 net.cpp:425] inception_5a/relu_5x5 <- inception_5a/5x5
I0924 01:10:56.445633  1430 net.cpp:386] inception_5a/relu_5x5 -> inception_5a/5x5 (in-place)
I0924 01:10:56.445879  1430 net.cpp:141] Setting up inception_5a/relu_5x5
I0924 01:10:56.445891  1430 net.cpp:148] Top shape: 10 128 7 7 (62720)
I0924 01:10:56.445895  1430 net.cpp:156] Memory required for data: 532492800
I0924 01:10:56.445901  1430 layer_factory.hpp:77] Creating layer inception_5a/pool
I0924 01:10:56.445916  1430 net.cpp:91] Creating Layer inception_5a/pool
I0924 01:10:56.445922  1430 net.cpp:425] inception_5a/pool <- pool4/3x3_s2_pool4/3x3_s2_0_split_3
I0924 01:10:56.445930  1430 net.cpp:399] inception_5a/pool -> inception_5a/pool
I0924 01:10:56.446007  1430 net.cpp:141] Setting up inception_5a/pool
I0924 01:10:56.446017  1430 net.cpp:148] Top shape: 10 832 7 7 (407680)
I0924 01:10:56.446022  1430 net.cpp:156] Memory required for data: 534123520
I0924 01:10:56.446027  1430 layer_factory.hpp:77] Creating layer inception_5a/pool_proj
I0924 01:10:56.446041  1430 net.cpp:91] Creating Layer inception_5a/pool_proj
I0924 01:10:56.446048  1430 net.cpp:425] inception_5a/pool_proj <- inception_5a/pool
I0924 01:10:56.446059  1430 net.cpp:399] inception_5a/pool_proj -> inception_5a/pool_proj
I0924 01:10:56.449015  1430 net.cpp:141] Setting up inception_5a/pool_proj
I0924 01:10:56.449038  1430 net.cpp:148] Top shape: 10 128 7 7 (62720)
I0924 01:10:56.449044  1430 net.cpp:156] Memory required for data: 534374400
I0924 01:10:56.449054  1430 layer_factory.hpp:77] Creating layer inception_5a/relu_pool_proj
I0924 01:10:56.449062  1430 net.cpp:91] Creating Layer inception_5a/relu_pool_proj
I0924 01:10:56.449069  1430 net.cpp:425] inception_5a/relu_pool_proj <- inception_5a/pool_proj
I0924 01:10:56.449080  1430 net.cpp:386] inception_5a/relu_pool_proj -> inception_5a/pool_proj (in-place)
I0924 01:10:56.449496  1430 net.cpp:141] Setting up inception_5a/relu_pool_proj
I0924 01:10:56.449508  1430 net.cpp:148] Top shape: 10 128 7 7 (62720)
I0924 01:10:56.449513  1430 net.cpp:156] Memory required for data: 534625280
I0924 01:10:56.449519  1430 layer_factory.hpp:77] Creating layer inception_5a/output
I0924 01:10:56.449529  1430 net.cpp:91] Creating Layer inception_5a/output
I0924 01:10:56.449535  1430 net.cpp:425] inception_5a/output <- inception_5a/1x1
I0924 01:10:56.449542  1430 net.cpp:425] inception_5a/output <- inception_5a/3x3
I0924 01:10:56.449548  1430 net.cpp:425] inception_5a/output <- inception_5a/5x5
I0924 01:10:56.449553  1430 net.cpp:425] inception_5a/output <- inception_5a/pool_proj
I0924 01:10:56.449565  1430 net.cpp:399] inception_5a/output -> inception_5a/output
I0924 01:10:56.449615  1430 net.cpp:141] Setting up inception_5a/output
I0924 01:10:56.449628  1430 net.cpp:148] Top shape: 10 832 7 7 (407680)
I0924 01:10:56.449633  1430 net.cpp:156] Memory required for data: 536256000
I0924 01:10:56.449638  1430 layer_factory.hpp:77] Creating layer inception_5a/output_inception_5a/output_0_split
I0924 01:10:56.449648  1430 net.cpp:91] Creating Layer inception_5a/output_inception_5a/output_0_split
I0924 01:10:56.449654  1430 net.cpp:425] inception_5a/output_inception_5a/output_0_split <- inception_5a/output
I0924 01:10:56.449661  1430 net.cpp:399] inception_5a/output_inception_5a/output_0_split -> inception_5a/output_inception_5a/output_0_split_0
I0924 01:10:56.449671  1430 net.cpp:399] inception_5a/output_inception_5a/output_0_split -> inception_5a/output_inception_5a/output_0_split_1
I0924 01:10:56.449683  1430 net.cpp:399] inception_5a/output_inception_5a/output_0_split -> inception_5a/output_inception_5a/output_0_split_2
I0924 01:10:56.449693  1430 net.cpp:399] inception_5a/output_inception_5a/output_0_split -> inception_5a/output_inception_5a/output_0_split_3
I0924 01:10:56.449797  1430 net.cpp:141] Setting up inception_5a/output_inception_5a/output_0_split
I0924 01:10:56.449807  1430 net.cpp:148] Top shape: 10 832 7 7 (407680)
I0924 01:10:56.449813  1430 net.cpp:148] Top shape: 10 832 7 7 (407680)
I0924 01:10:56.449820  1430 net.cpp:148] Top shape: 10 832 7 7 (407680)
I0924 01:10:56.449826  1430 net.cpp:148] Top shape: 10 832 7 7 (407680)
I0924 01:10:56.449829  1430 net.cpp:156] Memory required for data: 542778880
I0924 01:10:56.449834  1430 layer_factory.hpp:77] Creating layer inception_5b/1x1
I0924 01:10:56.449851  1430 net.cpp:91] Creating Layer inception_5b/1x1
I0924 01:10:56.449856  1430 net.cpp:425] inception_5b/1x1 <- inception_5a/output_inception_5a/output_0_split_0
I0924 01:10:56.449867  1430 net.cpp:399] inception_5b/1x1 -> inception_5b/1x1
I0924 01:10:56.454298  1430 net.cpp:141] Setting up inception_5b/1x1
I0924 01:10:56.454319  1430 net.cpp:148] Top shape: 10 384 7 7 (188160)
I0924 01:10:56.454324  1430 net.cpp:156] Memory required for data: 543531520
I0924 01:10:56.454334  1430 layer_factory.hpp:77] Creating layer inception_5b/relu_1x1
I0924 01:10:56.454346  1430 net.cpp:91] Creating Layer inception_5b/relu_1x1
I0924 01:10:56.454354  1430 net.cpp:425] inception_5b/relu_1x1 <- inception_5b/1x1
I0924 01:10:56.454361  1430 net.cpp:386] inception_5b/relu_1x1 -> inception_5b/1x1 (in-place)
I0924 01:10:56.454782  1430 net.cpp:141] Setting up inception_5b/relu_1x1
I0924 01:10:56.454794  1430 net.cpp:148] Top shape: 10 384 7 7 (188160)
I0924 01:10:56.454799  1430 net.cpp:156] Memory required for data: 544284160
I0924 01:10:56.454804  1430 layer_factory.hpp:77] Creating layer inception_5b/3x3_reduce
I0924 01:10:56.454821  1430 net.cpp:91] Creating Layer inception_5b/3x3_reduce
I0924 01:10:56.454831  1430 net.cpp:425] inception_5b/3x3_reduce <- inception_5a/output_inception_5a/output_0_split_1
I0924 01:10:56.454841  1430 net.cpp:399] inception_5b/3x3_reduce -> inception_5b/3x3_reduce
I0924 01:10:56.458176  1430 net.cpp:141] Setting up inception_5b/3x3_reduce
I0924 01:10:56.458199  1430 net.cpp:148] Top shape: 10 192 7 7 (94080)
I0924 01:10:56.458204  1430 net.cpp:156] Memory required for data: 544660480
I0924 01:10:56.458214  1430 layer_factory.hpp:77] Creating layer inception_5b/relu_3x3_reduce
I0924 01:10:56.458223  1430 net.cpp:91] Creating Layer inception_5b/relu_3x3_reduce
I0924 01:10:56.458230  1430 net.cpp:425] inception_5b/relu_3x3_reduce <- inception_5b/3x3_reduce
I0924 01:10:56.458237  1430 net.cpp:386] inception_5b/relu_3x3_reduce -> inception_5b/3x3_reduce (in-place)
I0924 01:10:56.458485  1430 net.cpp:141] Setting up inception_5b/relu_3x3_reduce
I0924 01:10:56.458498  1430 net.cpp:148] Top shape: 10 192 7 7 (94080)
I0924 01:10:56.458503  1430 net.cpp:156] Memory required for data: 545036800
I0924 01:10:56.458508  1430 layer_factory.hpp:77] Creating layer inception_5b/3x3
I0924 01:10:56.458523  1430 net.cpp:91] Creating Layer inception_5b/3x3
I0924 01:10:56.458528  1430 net.cpp:425] inception_5b/3x3 <- inception_5b/3x3_reduce
I0924 01:10:56.458541  1430 net.cpp:399] inception_5b/3x3 -> inception_5b/3x3
I0924 01:10:56.466240  1430 net.cpp:141] Setting up inception_5b/3x3
I0924 01:10:56.466264  1430 net.cpp:148] Top shape: 10 384 7 7 (188160)
I0924 01:10:56.466270  1430 net.cpp:156] Memory required for data: 545789440
I0924 01:10:56.466279  1430 layer_factory.hpp:77] Creating layer inception_5b/relu_3x3
I0924 01:10:56.466290  1430 net.cpp:91] Creating Layer inception_5b/relu_3x3
I0924 01:10:56.466297  1430 net.cpp:425] inception_5b/relu_3x3 <- inception_5b/3x3
I0924 01:10:56.466305  1430 net.cpp:386] inception_5b/relu_3x3 -> inception_5b/3x3 (in-place)
I0924 01:10:56.466742  1430 net.cpp:141] Setting up inception_5b/relu_3x3
I0924 01:10:56.466754  1430 net.cpp:148] Top shape: 10 384 7 7 (188160)
I0924 01:10:56.466759  1430 net.cpp:156] Memory required for data: 546542080
I0924 01:10:56.466765  1430 layer_factory.hpp:77] Creating layer inception_5b/5x5_reduce
I0924 01:10:56.466783  1430 net.cpp:91] Creating Layer inception_5b/5x5_reduce
I0924 01:10:56.466789  1430 net.cpp:425] inception_5b/5x5_reduce <- inception_5a/output_inception_5a/output_0_split_2
I0924 01:10:56.466800  1430 net.cpp:399] inception_5b/5x5_reduce -> inception_5b/5x5_reduce
I0924 01:10:56.468487  1430 net.cpp:141] Setting up inception_5b/5x5_reduce
I0924 01:10:56.468504  1430 net.cpp:148] Top shape: 10 48 7 7 (23520)
I0924 01:10:56.468509  1430 net.cpp:156] Memory required for data: 546636160
I0924 01:10:56.468518  1430 layer_factory.hpp:77] Creating layer inception_5b/relu_5x5_reduce
I0924 01:10:56.468528  1430 net.cpp:91] Creating Layer inception_5b/relu_5x5_reduce
I0924 01:10:56.468533  1430 net.cpp:425] inception_5b/relu_5x5_reduce <- inception_5b/5x5_reduce
I0924 01:10:56.468544  1430 net.cpp:386] inception_5b/relu_5x5_reduce -> inception_5b/5x5_reduce (in-place)
I0924 01:10:56.468951  1430 net.cpp:141] Setting up inception_5b/relu_5x5_reduce
I0924 01:10:56.468963  1430 net.cpp:148] Top shape: 10 48 7 7 (23520)
I0924 01:10:56.468968  1430 net.cpp:156] Memory required for data: 546730240
I0924 01:10:56.468974  1430 layer_factory.hpp:77] Creating layer inception_5b/5x5
I0924 01:10:56.468991  1430 net.cpp:91] Creating Layer inception_5b/5x5
I0924 01:10:56.468998  1430 net.cpp:425] inception_5b/5x5 <- inception_5b/5x5_reduce
I0924 01:10:56.469007  1430 net.cpp:399] inception_5b/5x5 -> inception_5b/5x5
I0924 01:10:56.471896  1430 net.cpp:141] Setting up inception_5b/5x5
I0924 01:10:56.471915  1430 net.cpp:148] Top shape: 10 128 7 7 (62720)
I0924 01:10:56.471921  1430 net.cpp:156] Memory required for data: 546981120
I0924 01:10:56.471930  1430 layer_factory.hpp:77] Creating layer inception_5b/relu_5x5
I0924 01:10:56.471940  1430 net.cpp:91] Creating Layer inception_5b/relu_5x5
I0924 01:10:56.471946  1430 net.cpp:425] inception_5b/relu_5x5 <- inception_5b/5x5
I0924 01:10:56.471956  1430 net.cpp:386] inception_5b/relu_5x5 -> inception_5b/5x5 (in-place)
I0924 01:10:56.472204  1430 net.cpp:141] Setting up inception_5b/relu_5x5
I0924 01:10:56.472215  1430 net.cpp:148] Top shape: 10 128 7 7 (62720)
I0924 01:10:56.472220  1430 net.cpp:156] Memory required for data: 547232000
I0924 01:10:56.472225  1430 layer_factory.hpp:77] Creating layer inception_5b/pool
I0924 01:10:56.472241  1430 net.cpp:91] Creating Layer inception_5b/pool
I0924 01:10:56.472247  1430 net.cpp:425] inception_5b/pool <- inception_5a/output_inception_5a/output_0_split_3
I0924 01:10:56.472255  1430 net.cpp:399] inception_5b/pool -> inception_5b/pool
I0924 01:10:56.472338  1430 net.cpp:141] Setting up inception_5b/pool
I0924 01:10:56.472348  1430 net.cpp:148] Top shape: 10 832 7 7 (407680)
I0924 01:10:56.472352  1430 net.cpp:156] Memory required for data: 548862720
I0924 01:10:56.472357  1430 layer_factory.hpp:77] Creating layer inception_5b/pool_proj
I0924 01:10:56.472373  1430 net.cpp:91] Creating Layer inception_5b/pool_proj
I0924 01:10:56.472378  1430 net.cpp:425] inception_5b/pool_proj <- inception_5b/pool
I0924 01:10:56.472390  1430 net.cpp:399] inception_5b/pool_proj -> inception_5b/pool_proj
I0924 01:10:56.475369  1430 net.cpp:141] Setting up inception_5b/pool_proj
I0924 01:10:56.475389  1430 net.cpp:148] Top shape: 10 128 7 7 (62720)
I0924 01:10:56.475394  1430 net.cpp:156] Memory required for data: 549113600
I0924 01:10:56.475402  1430 layer_factory.hpp:77] Creating layer inception_5b/relu_pool_proj
I0924 01:10:56.475414  1430 net.cpp:91] Creating Layer inception_5b/relu_pool_proj
I0924 01:10:56.475420  1430 net.cpp:425] inception_5b/relu_pool_proj <- inception_5b/pool_proj
I0924 01:10:56.475428  1430 net.cpp:386] inception_5b/relu_pool_proj -> inception_5b/pool_proj (in-place)
I0924 01:10:56.475852  1430 net.cpp:141] Setting up inception_5b/relu_pool_proj
I0924 01:10:56.475864  1430 net.cpp:148] Top shape: 10 128 7 7 (62720)
I0924 01:10:56.475869  1430 net.cpp:156] Memory required for data: 549364480
I0924 01:10:56.475875  1430 layer_factory.hpp:77] Creating layer inception_5b/output
I0924 01:10:56.475888  1430 net.cpp:91] Creating Layer inception_5b/output
I0924 01:10:56.475894  1430 net.cpp:425] inception_5b/output <- inception_5b/1x1
I0924 01:10:56.475901  1430 net.cpp:425] inception_5b/output <- inception_5b/3x3
I0924 01:10:56.475908  1430 net.cpp:425] inception_5b/output <- inception_5b/5x5
I0924 01:10:56.475914  1430 net.cpp:425] inception_5b/output <- inception_5b/pool_proj
I0924 01:10:56.475920  1430 net.cpp:399] inception_5b/output -> inception_5b/output
I0924 01:10:56.475975  1430 net.cpp:141] Setting up inception_5b/output
I0924 01:10:56.475983  1430 net.cpp:148] Top shape: 10 1024 7 7 (501760)
I0924 01:10:56.475988  1430 net.cpp:156] Memory required for data: 551371520
I0924 01:10:56.475993  1430 layer_factory.hpp:77] Creating layer pool5/7x7_s1
I0924 01:10:56.476002  1430 net.cpp:91] Creating Layer pool5/7x7_s1
I0924 01:10:56.476011  1430 net.cpp:425] pool5/7x7_s1 <- inception_5b/output
I0924 01:10:56.476017  1430 net.cpp:399] pool5/7x7_s1 -> pool5/7x7_s1
I0924 01:10:56.476325  1430 net.cpp:141] Setting up pool5/7x7_s1
I0924 01:10:56.476338  1430 net.cpp:148] Top shape: 10 1024 1 1 (10240)
I0924 01:10:56.476343  1430 net.cpp:156] Memory required for data: 551412480
I0924 01:10:56.476348  1430 layer_factory.hpp:77] Creating layer pool5/drop_7x7_s1
I0924 01:10:56.476364  1430 net.cpp:91] Creating Layer pool5/drop_7x7_s1
I0924 01:10:56.476371  1430 net.cpp:425] pool5/drop_7x7_s1 <- pool5/7x7_s1
I0924 01:10:56.476377  1430 net.cpp:386] pool5/drop_7x7_s1 -> pool5/7x7_s1 (in-place)
I0924 01:10:56.476431  1430 net.cpp:141] Setting up pool5/drop_7x7_s1
I0924 01:10:56.476441  1430 net.cpp:148] Top shape: 10 1024 1 1 (10240)
I0924 01:10:56.476445  1430 net.cpp:156] Memory required for data: 551453440
I0924 01:10:56.476450  1430 layer_factory.hpp:77] Creating layer loss3/classifier
I0924 01:10:56.476464  1430 net.cpp:91] Creating Layer loss3/classifier
I0924 01:10:56.476470  1430 net.cpp:425] loss3/classifier <- pool5/7x7_s1
I0924 01:10:56.476478  1430 net.cpp:399] loss3/classifier -> loss3/classifier
I0924 01:10:56.486183  1430 net.cpp:141] Setting up loss3/classifier
I0924 01:10:56.486218  1430 net.cpp:148] Top shape: 10 1000 (10000)
I0924 01:10:56.486224  1430 net.cpp:156] Memory required for data: 551493440
I0924 01:10:56.486237  1430 layer_factory.hpp:77] Creating layer prob
I0924 01:10:56.486253  1430 net.cpp:91] Creating Layer prob
I0924 01:10:56.486261  1430 net.cpp:425] prob <- loss3/classifier
I0924 01:10:56.486269  1430 net.cpp:399] prob -> prob
I0924 01:10:56.486929  1430 net.cpp:141] Setting up prob
I0924 01:10:56.486946  1430 net.cpp:148] Top shape: 10 1000 (10000)
I0924 01:10:56.486953  1430 net.cpp:156] Memory required for data: 551533440
I0924 01:10:56.486958  1430 net.cpp:219] prob does not need backward computation.
I0924 01:10:56.486963  1430 net.cpp:219] loss3/classifier does not need backward computation.
I0924 01:10:56.486968  1430 net.cpp:219] pool5/drop_7x7_s1 does not need backward computation.
I0924 01:10:56.486973  1430 net.cpp:219] pool5/7x7_s1 does not need backward computation.
…
