…
Java HotSpot(TM) 64-Bit Server VM warning: You have loaded library /tmp/cvld3739514352170356670/libopencv_java310.xine1.so which might have disabled stack guard. The VM will try to fix the stack guard now.
It's highly recommended that you fix the library with 'execstack -c <libfile>', or link it with '-z noexecstack'.
WARNING: Logging before InitGoogleLogging() is written to STDERR
I0720 12:08:37.786628 11583 net.cpp:49] Initializing net from parameters: 
name: "CaffeNet"
state {
  phase: TEST
}
layer {
  name: "data"
  type: "Input"
  top: "data"
  input_param {
    shape {
      dim: 10
      dim: 3
      dim: 227
      dim: 227
    }
  }
}
layer {
  name: "conv1"
  type: "Convolution"
  bottom: "data"
  top: "conv1"
  convolution_param {
    num_output: 96
    kernel_size: 11
    stride: 4
  }
}
layer {
  name: "relu1"
  type: "ReLU"
  bottom: "conv1"
  top: "conv1"
}
layer {
  name: "pool1"
  type: "Pooling"
  bottom: "conv1"
  top: "pool1"
  pooling_param {
    pool: MAX
    kernel_size: 3
    stride: 2
  }
}
layer {
  name: "norm1"
  type: "LRN"
  bottom: "pool1"
  top: "norm1"
  lrn_param {
    local_size: 5
    alpha: 0.0001
    beta: 0.75
  }
}
layer {
  name: "conv2"
  type: "Convolution"
  bottom: "norm1"
  top: "conv2"
  convolution_param {
    num_output: 256
    pad: 2
    kernel_size: 5
    group: 2
  }
}
layer {
  name: "relu2"
  type: "ReLU"
  bottom: "conv2"
  top: "conv2"
}
layer {
  name: "pool2"
  type: "Pooling"
  bottom: "conv2"
  top: "pool2"
  pooling_param {
    pool: MAX
    kernel_size: 3
    stride: 2
  }
}
layer {
  name: "norm2"
  type: "LRN"
  bottom: "pool2"
  top: "norm2"
  lrn_param {
    local_size: 5
    alpha: 0.0001
    beta: 0.75
  }
}
layer {
  name: "conv3"
  type: "Convolution"
  bottom: "norm2"
  top: "conv3"
  convolution_param {
    num_output: 384
    pad: 1
    kernel_size: 3
  }
}
layer {
  name: "relu3"
  type: "ReLU"
  bottom: "conv3"
  top: "conv3"
}
layer {
  name: "conv4"
  type: "Convolution"
  bottom: "conv3"
  top: "conv4"
  convolution_param {
    num_output: 384
    pad: 1
    kernel_size: 3
    group: 2
  }
}
layer {
  name: "relu4"
  type: "ReLU"
  bottom: "conv4"
  top: "conv4"
}
layer {
  name: "conv5"
  type: "Convolution"
  bottom: "conv4"
  top: "conv5"
  convolution_param {
    num_output: 256
    pad: 1
    kernel_size: 3
    group: 2
  }
}
layer {
  name: "relu5"
  type: "ReLU"
  bottom: "conv5"
  top: "conv5"
}
layer {
  name: "pool5"
  type: "Pooling"
  bottom: "conv5"
  top: "pool5"
  pooling_param {
    pool: MAX
    kernel_size: 3
    stride: 2
  }
}
layer {
  name: "fc6"
  type: "InnerProduct"
  bottom: "pool5"
  top: "fc6"
  inner_product_param {
    num_output: 4096
  }
}
layer {
  name: "relu6"
  type: "ReLU"
  bottom: "fc6"
  top: "fc6"
}
layer {
  name: "drop6"
  type: "Dropout"
  bottom: "fc6"
  top: "fc6"
  dropout_param {
    dropout_ratio: 0.5
  }
}
layer {
  name: "fc7"
  type: "InnerProduct"
  bottom: "fc6"
  top: "fc7"
  inner_product_param {
    num_output: 4096
  }
}
layer {
  name: "relu7"
  type: "ReLU"
  bottom: "fc7"
  top: "fc7"
}
layer {
  name: "drop7"
  type: "Dropout"
  bottom: "fc7"
  top: "fc7"
  dropout_param {
    dropout_ratio: 0.5
  }
}
layer {
  name: "fc8"
  type: "InnerProduct"
  bottom: "fc7"
  top: "fc8"
  inner_product_param {
    num_output: 1000
  }
}
layer {
  name: "prob"
  type: "Softmax"
  bottom: "fc8"
  top: "prob"
}
I0720 12:08:37.786859 11583 layer_factory.hpp:77] Creating layer data
I0720 12:08:37.786886 11583 net.cpp:91] Creating Layer data
I0720 12:08:37.786897 11583 net.cpp:399] data -> data
I0720 12:08:37.795642 11595 net.cpp:49] Initializing net from parameters: 
name: "CaffeNet"
state {
  phase: TEST
}
layer {
  name: "data"
  type: "Input"
  top: "data"
  input_param {
    shape {
      dim: 10
      dim: 3
      dim: 227
      dim: 227
    }
  }
}
layer {
  name: "conv1"
  type: "Convolution"
  bottom: "data"
  top: "conv1"
  convolution_param {
    num_output: 96
    kernel_size: 11
    stride: 4
  }
}
layer {
  name: "relu1"
  type: "ReLU"
  bottom: "conv1"
  top: "conv1"
}
layer {
  name: "pool1"
  type: "Pooling"
  bottom: "conv1"
  top: "pool1"
  pooling_param {
    pool: MAX
    kernel_size: 3
    stride: 2
  }
}
layer {
  name: "norm1"
  type: "LRN"
  bottom: "pool1"
  top: "norm1"
  lrn_param {
    local_size: 5
    alpha: 0.0001
    beta: 0.75
  }
}
layer {
  name: "conv2"
  type: "Convolution"
  bottom: "norm1"
  top: "conv2"
  convolution_param {
    num_output: 256
    pad: 2
    kernel_size: 5
    group: 2
  }
}
layer {
  name: "relu2"
  type: "ReLU"
  bottom: "conv2"
  top: "conv2"
}
layer {
  name: "pool2"
  type: "Pooling"
  bottom: "conv2"
  top: "pool2"
  pooling_param {
    pool: MAX
    kernel_size: 3
    stride: 2
  }
}
layer {
  name: "norm2"
  type: "LRN"
  bottom: "pool2"
  top: "norm2"
  lrn_param {
    local_size: 5
    alpha: 0.0001
    beta: 0.75
  }
}
layer {
  name: "conv3"
  type: "Convolution"
  bottom: "norm2"
  top: "conv3"
  convolution_param {
    num_output: 384
    pad: 1
    kernel_size: 3
  }
}
layer {
  name: "relu3"
  type: "ReLU"
  bottom: "conv3"
  top: "conv3"
}
layer {
  name: "conv4"
  type: "Convolution"
  bottom: "conv3"
  top: "conv4"
  convolution_param {
    num_output: 384
    pad: 1
    kernel_size: 3
    group: 2
  }
}
layer {
  name: "relu4"
  type: "ReLU"
  bottom: "conv4"
  top: "conv4"
}
layer {
  name: "conv5"
  type: "Convolution"
  bottom: "conv4"
  top: "conv5"
  convolution_param {
    num_output: 256
    pad: 1
    kernel_size: 3
    group: 2
  }
}
layer {
  name: "relu5"
  type: "ReLU"
  bottom: "conv5"
  top: "conv5"
}
layer {
  name: "pool5"
  type: "Pooling"
  bottom: "conv5"
  top: "pool5"
  pooling_param {
    pool: MAX
    kernel_size: 3
    stride: 2
  }
}
layer {
  name: "fc6"
  type: "InnerProduct"
  bottom: "pool5"
  top: "fc6"
  inner_product_param {
    num_output: 4096
  }
}
layer {
  name: "relu6"
  type: "ReLU"
  bottom: "fc6"
  top: "fc6"
}
layer {
  name: "drop6"
  type: "Dropout"
  bottom: "fc6"
  top: "fc6"
  dropout_param {
    dropout_ratio: 0.5
  }
}
layer {
  name: "fc7"
  type: "InnerProduct"
  bottom: "fc6"
  top: "fc7"
  inner_product_param {
    num_output: 4096
  }
}
layer {
  name: "relu7"
  type: "ReLU"
  bottom: "fc7"
  top: "fc7"
}
layer {
  name: "drop7"
  type: "Dropout"
  bottom: "fc7"
  top: "fc7"
  dropout_param {
    dropout_ratio: 0.5
  }
}
layer {
  name: "fc8"
  type: "InnerProduct"
  bottom: "fc7"
  top: "fc8"
  inner_product_param {
    num_output: 1000
  }
}
layer {
  name: "prob"
  type: "Softmax"
  bottom: "fc8"
  top: "prob"
}
I0720 12:08:37.795770 11595 layer_factory.hpp:77] Creating layer data
I0720 12:08:37.795788 11595 net.cpp:91] Creating Layer data
I0720 12:08:37.795795 11595 net.cpp:399] data -> data
I0720 12:08:38.159446 11589 upgrade_proto.cpp:66] Attempting to upgrade input file specified using deprecated input fields: /tmp/cvld3739514352170356670/s2vt.words_to_preds.prototxt
I0720 12:08:38.159507 11589 upgrade_proto.cpp:69] Successfully upgraded file specified using deprecated input fields.
W0720 12:08:38.159515 11589 upgrade_proto.cpp:71] Note that future Caffe releases will only support input layers and not input fields.
I0720 12:08:38.159780 11589 net.cpp:49] Initializing net from parameters: 
name: "s2vt:features_to_lstm"
state {
  phase: TEST
}
layer {
  name: "input"
  type: "Input"
  top: "frames_fc7"
  top: "cont_sentence"
  top: "input_sentence"
  top: "stage_indicator"
  input_param {
    shape {
      dim: 1
      dim: 4096
    }
    shape {
      dim: 1
      dim: 1
    }
    shape {
      dim: 1
      dim: 1
    }
    shape {
      dim: 1
      dim: 1
    }
  }
}
layer {
  name: "embed_encoder"
  type: "InnerProduct"
  bottom: "frames_fc7"
  top: "embedded_in_frames"
  param {
    lr_mult: 1
    decay_mult: 1
  }
  param {
    lr_mult: 2
    decay_mult: 0
  }
  inner_product_param {
    num_output: 500
    weight_filler {
      type: "xavier"
    }
    bias_filler {
      type: "constant"
      value: 0.2
    }
  }
}
layer {
  name: "reshape_frames"
  type: "Reshape"
  bottom: "embedded_in_frames"
  top: "embedded_input_frames"
  reshape_param {
    shape {
      dim: 1
      dim: 1
      dim: 500
    }
  }
}
layer {
  name: "reshape_stage_indicator"
  type: "Reshape"
  bottom: "stage_indicator"
  top: "reshaped_stage_indicator"
  reshape_param {
    shape {
      dim: 1
      dim: 1
      dim: 1
    }
  }
}
layer {
  name: "embedding"
  type: "Embed"
  bottom: "input_sentence"
  top: "embedded_input_sentence"
  param {
    lr_mult: 1
  }
  embed_param {
    num_output: 500
    input_dim: 46168
    bias_term: false
    weight_filler {
      type: "uniform"
      min: -0.08
      max: 0.08
    }
  }
}
layer {
  name: "lstm1"
  type: "LSTM"
  bottom: "embedded_input_frames"
  bottom: "cont_sentence"
  top: "lstm1"
  recurrent_param {
    num_output: 1000
    weight_filler {
      type: "uniform"
      min: -0.08
      max: 0.08
    }
    bias_filler {
      type: "constant"
      value: 0
    }
  }
}
layer {
  name: "concat"
  type: "Concat"
  bottom: "lstm1"
  bottom: "embedded_input_sentence"
  bottom: "reshaped_stage_indicator"
  top: "lstm1_video_sequence"
  concat_param {
    concat_dim: 2
  }
}
layer {
  name: "lstm2"
  type: "LSTM"
  bottom: "lstm1_video_sequence"
  bottom: "cont_sentence"
  top: "lstm2"
  recurrent_param {
    num_output: 1000
    weight_filler {
      type: "uniform"
      min: -0.08
      max: 0.08
    }
    bias_filler {
      type: "constant"
      value: 0
    }
  }
}
layer {
  name: "predict"
  type: "InnerProduct"
  bottom: "lstm2"
  top: "predict"
  param {
    lr_mult: 1
    decay_mult: 1
  }
  param {
    lr_mult: 2
    decay_mult: 0
  }
  inner_product_param {
    num_output: 46168
    weight_filler {
      type: "uniform"
      min: -0.08
      max: 0.08
    }
    bias_filler {
      type: "constant"
      value: 0
    }
    axis: 2
  }
}
layer {
  name: "probs"
  type: "Softmax"
  bottom: "predict"
  top: "probs"
  softmax_param {
    axis: 2
  }
}
I0720 12:08:38.159919 11589 layer_factory.hpp:77] Creating layer input
I0720 12:08:38.159936 11589 net.cpp:91] Creating Layer input
I0720 12:08:38.159945 11589 net.cpp:399] input -> frames_fc7
I0720 12:08:38.159965 11589 net.cpp:399] input -> cont_sentence
I0720 12:08:38.159979 11589 net.cpp:399] input -> input_sentence
I0720 12:08:38.159988 11589 net.cpp:399] input -> stage_indicator
I0720 12:08:38.162945 11585 upgrade_proto.cpp:66] Attempting to upgrade input file specified using deprecated input fields: /tmp/cvld3739514352170356670/s2vt.words_to_preds.prototxt
I0720 12:08:38.162964 11585 upgrade_proto.cpp:69] Successfully upgraded file specified using deprecated input fields.
W0720 12:08:38.162969 11585 upgrade_proto.cpp:71] Note that future Caffe releases will only support input layers and not input fields.
I0720 12:08:38.163149 11585 net.cpp:49] Initializing net from parameters: 
name: "s2vt:features_to_lstm"
state {
  phase: TEST
}
layer {
  name: "input"
  type: "Input"
  top: "frames_fc7"
  top: "cont_sentence"
  top: "input_sentence"
  top: "stage_indicator"
  input_param {
    shape {
      dim: 1
      dim: 4096
    }
    shape {
      dim: 1
      dim: 1
    }
    shape {
      dim: 1
      dim: 1
    }
    shape {
      dim: 1
      dim: 1
    }
  }
}
layer {
  name: "embed_encoder"
  type: "InnerProduct"
  bottom: "frames_fc7"
  top: "embedded_in_frames"
  param {
    lr_mult: 1
    decay_mult: 1
  }
  param {
    lr_mult: 2
    decay_mult: 0
  }
  inner_product_param {
    num_output: 500
    weight_filler {
      type: "xavier"
    }
    bias_filler {
      type: "constant"
      value: 0.2
    }
  }
}
layer {
  name: "reshape_frames"
  type: "Reshape"
  bottom: "embedded_in_frames"
  top: "embedded_input_frames"
  reshape_param {
    shape {
      dim: 1
      dim: 1
      dim: 500
    }
  }
}
layer {
  name: "reshape_stage_indicator"
  type: "Reshape"
  bottom: "stage_indicator"
  top: "reshaped_stage_indicator"
  reshape_param {
    shape {
      dim: 1
      dim: 1
      dim: 1
    }
  }
}
layer {
  name: "embedding"
  type: "Embed"
  bottom: "input_sentence"
  top: "embedded_input_sentence"
  param {
    lr_mult: 1
  }
  embed_param {
    num_output: 500
    input_dim: 46168
    bias_term: false
    weight_filler {
      type: "uniform"
      min: -0.08
      max: 0.08
    }
  }
}
layer {
  name: "lstm1"
  type: "LSTM"
  bottom: "embedded_input_frames"
  bottom: "cont_sentence"
  top: "lstm1"
  recurrent_param {
    num_output: 1000
    weight_filler {
      type: "uniform"
      min: -0.08
      max: 0.08
    }
    bias_filler {
      type: "constant"
      value: 0
    }
  }
}
layer {
  name: "concat"
  type: "Concat"
  bottom: "lstm1"
  bottom: "embedded_input_sentence"
  bottom: "reshaped_stage_indicator"
  top: "lstm1_video_sequence"
  concat_param {
    concat_dim: 2
  }
}
layer {
  name: "lstm2"
  type: "LSTM"
  bottom: "lstm1_video_sequence"
  bottom: "cont_sentence"
  top: "lstm2"
  recurrent_param {
    num_output: 1000
    weight_filler {
      type: "uniform"
      min: -0.08
      max: 0.08
    }
    bias_filler {
      type: "constant"
      value: 0
    }
  }
}
layer {
  name: "predict"
  type: "InnerProduct"
  bottom: "lstm2"
  top: "predict"
  param {
    lr_mult: 1
    decay_mult: 1
  }
  param {
    lr_mult: 2
    decay_mult: 0
  }
  inner_product_param {
    num_output: 46168
    weight_filler {
      type: "uniform"
      min: -0.08
      max: 0.08
    }
    bias_filler {
      type: "constant"
      value: 0
    }
    axis: 2
  }
}
layer {
  name: "probs"
  type: "Softmax"
  bottom: "predict"
  top: "probs"
  softmax_param {
    axis: 2
  }
}
I0720 12:08:38.163226 11585 layer_factory.hpp:77] Creating layer input
I0720 12:08:38.163239 11585 net.cpp:91] Creating Layer input
I0720 12:08:38.163245 11585 net.cpp:399] input -> frames_fc7
I0720 12:08:38.163257 11585 net.cpp:399] input -> cont_sentence
I0720 12:08:38.163267 11585 net.cpp:399] input -> input_sentence
I0720 12:08:38.163276 11585 net.cpp:399] input -> stage_indicator
I0720 12:08:38.737925 11583 net.cpp:141] Setting up data
I0720 12:08:38.738001 11583 net.cpp:148] Top shape: 10 3 227 227 (1545870)
I0720 12:08:38.738008 11583 net.cpp:156] Memory required for data: 6183480
I0720 12:08:38.738029 11583 layer_factory.hpp:77] Creating layer conv1
I0720 12:08:38.738059 11583 net.cpp:91] Creating Layer conv1
I0720 12:08:38.738067 11583 net.cpp:425] conv1 <- data
I0720 12:08:38.738082 11583 net.cpp:399] conv1 -> conv1
I0720 12:08:38.738178 11585 net.cpp:141] Setting up input
I0720 12:08:38.738215 11585 net.cpp:148] Top shape: 1 4096 (4096)
I0720 12:08:38.738222 11585 net.cpp:148] Top shape: 1 1 (1)
I0720 12:08:38.738227 11585 net.cpp:148] Top shape: 1 1 (1)
I0720 12:08:38.738234 11585 net.cpp:148] Top shape: 1 1 (1)
I0720 12:08:38.738237 11585 net.cpp:156] Memory required for data: 16396
I0720 12:08:38.738246 11585 layer_factory.hpp:77] Creating layer cont_sentence_input_1_split
I0720 12:08:38.738273 11585 net.cpp:91] Creating Layer cont_sentence_input_1_split
I0720 12:08:38.738279 11585 net.cpp:425] cont_sentence_input_1_split <- cont_sentence
I0720 12:08:38.738313 11585 net.cpp:399] cont_sentence_input_1_split -> cont_sentence_input_1_split_0
I0720 12:08:38.738329 11585 net.cpp:399] cont_sentence_input_1_split -> cont_sentence_input_1_split_1
I0720 12:08:38.738479 11585 net.cpp:141] Setting up cont_sentence_input_1_split
I0720 12:08:38.738490 11585 net.cpp:148] Top shape: 1 1 (1)
I0720 12:08:38.738497 11585 net.cpp:148] Top shape: 1 1 (1)
I0720 12:08:38.738500 11585 net.cpp:156] Memory required for data: 16404
I0720 12:08:38.738505 11585 layer_factory.hpp:77] Creating layer embed_encoder
I0720 12:08:38.738528 11585 net.cpp:91] Creating Layer embed_encoder
I0720 12:08:38.738533 11585 net.cpp:425] embed_encoder <- frames_fc7
I0720 12:08:38.738543 11585 net.cpp:399] embed_encoder -> embedded_in_frames
I0720 12:08:38.782796 11595 net.cpp:141] Setting up data
I0720 12:08:38.782918 11595 net.cpp:148] Top shape: 10 3 227 227 (1545870)
I0720 12:08:38.782927 11595 net.cpp:156] Memory required for data: 6183480
I0720 12:08:38.782938 11595 layer_factory.hpp:77] Creating layer conv1
I0720 12:08:38.782966 11595 net.cpp:91] Creating Layer conv1
I0720 12:08:38.782974 11595 net.cpp:425] conv1 <- data
I0720 12:08:38.782984 11595 net.cpp:399] conv1 -> conv1
I0720 12:08:38.784278 11589 net.cpp:141] Setting up input
I0720 12:08:38.784335 11589 net.cpp:148] Top shape: 1 4096 (4096)
I0720 12:08:38.784346 11589 net.cpp:148] Top shape: 1 1 (1)
I0720 12:08:38.784355 11589 net.cpp:148] Top shape: 1 1 (1)
I0720 12:08:38.784364 11589 net.cpp:148] Top shape: 1 1 (1)
I0720 12:08:38.784370 11589 net.cpp:156] Memory required for data: 16396
I0720 12:08:38.784380 11589 layer_factory.hpp:77] Creating layer cont_sentence_input_1_split
I0720 12:08:38.784400 11589 net.cpp:91] Creating Layer cont_sentence_input_1_split
I0720 12:08:38.784409 11589 net.cpp:425] cont_sentence_input_1_split <- cont_sentence
I0720 12:08:38.784425 11589 net.cpp:399] cont_sentence_input_1_split -> cont_sentence_input_1_split_0
I0720 12:08:38.784441 11589 net.cpp:399] cont_sentence_input_1_split -> cont_sentence_input_1_split_1
I0720 12:08:38.787118 11585 net.cpp:141] Setting up embed_encoder
I0720 12:08:38.787140 11585 net.cpp:148] Top shape: 1 500 (500)
I0720 12:08:38.787145 11585 net.cpp:156] Memory required for data: 18404
I0720 12:08:38.787170 11585 layer_factory.hpp:77] Creating layer reshape_frames
I0720 12:08:38.787197 11585 net.cpp:91] Creating Layer reshape_frames
I0720 12:08:38.787204 11585 net.cpp:425] reshape_frames <- embedded_in_frames
I0720 12:08:38.787212 11585 net.cpp:399] reshape_frames -> embedded_input_frames
I0720 12:08:38.787243 11589 net.cpp:141] Setting up cont_sentence_input_1_split
I0720 12:08:38.787262 11589 net.cpp:148] Top shape: 1 1 (1)
I0720 12:08:38.787272 11589 net.cpp:148] Top shape: 1 1 (1)
I0720 12:08:38.787278 11589 net.cpp:156] Memory required for data: 16404
I0720 12:08:38.787286 11589 layer_factory.hpp:77] Creating layer embed_encoder
I0720 12:08:38.787307 11589 net.cpp:91] Creating Layer embed_encoder
I0720 12:08:38.787315 11589 net.cpp:425] embed_encoder <- frames_fc7
I0720 12:08:38.787328 11589 net.cpp:399] embed_encoder -> embedded_in_frames
I0720 12:08:38.787374 11585 net.cpp:141] Setting up reshape_frames
I0720 12:08:38.787392 11585 net.cpp:148] Top shape: 1 1 500 (500)
I0720 12:08:38.787396 11585 net.cpp:156] Memory required for data: 20404
I0720 12:08:38.787401 11585 layer_factory.hpp:77] Creating layer reshape_stage_indicator
I0720 12:08:38.787415 11585 net.cpp:91] Creating Layer reshape_stage_indicator
I0720 12:08:38.787421 11585 net.cpp:425] reshape_stage_indicator <- stage_indicator
I0720 12:08:38.787430 11585 net.cpp:399] reshape_stage_indicator -> reshaped_stage_indicator
I0720 12:08:38.791941 11585 net.cpp:141] Setting up reshape_stage_indicator
I0720 12:08:38.791965 11585 net.cpp:148] Top shape: 1 1 1 (1)
I0720 12:08:38.791970 11585 net.cpp:156] Memory required for data: 20408
I0720 12:08:38.791976 11585 layer_factory.hpp:77] Creating layer embedding
I0720 12:08:38.791990 11585 net.cpp:91] Creating Layer embedding
I0720 12:08:38.791996 11585 net.cpp:425] embedding <- input_sentence
I0720 12:08:38.792008 11585 net.cpp:399] embedding -> embedded_input_sentence
I0720 12:08:38.867223 11589 net.cpp:141] Setting up embed_encoder
I0720 12:08:38.867274 11589 net.cpp:148] Top shape: 1 500 (500)
I0720 12:08:38.867282 11589 net.cpp:156] Memory required for data: 18404
I0720 12:08:38.867311 11589 layer_factory.hpp:77] Creating layer reshape_frames
I0720 12:08:38.867341 11589 net.cpp:91] Creating Layer reshape_frames
I0720 12:08:38.867352 11589 net.cpp:425] reshape_frames <- embedded_in_frames
I0720 12:08:38.867365 11589 net.cpp:399] reshape_frames -> embedded_input_frames
I0720 12:08:38.872179 11589 net.cpp:141] Setting up reshape_frames
I0720 12:08:38.872200 11589 net.cpp:148] Top shape: 1 1 500 (500)
I0720 12:08:38.872207 11589 net.cpp:156] Memory required for data: 20404
I0720 12:08:38.872215 11589 layer_factory.hpp:77] Creating layer reshape_stage_indicator
I0720 12:08:38.872236 11589 net.cpp:91] Creating Layer reshape_stage_indicator
I0720 12:08:38.872244 11589 net.cpp:425] reshape_stage_indicator <- stage_indicator
I0720 12:08:38.872257 11589 net.cpp:399] reshape_stage_indicator -> reshaped_stage_indicator
I0720 12:08:38.873968 11589 net.cpp:141] Setting up reshape_stage_indicator
I0720 12:08:38.873986 11589 net.cpp:148] Top shape: 1 1 1 (1)
I0720 12:08:38.873991 11589 net.cpp:156] Memory required for data: 20408
I0720 12:08:38.873998 11589 layer_factory.hpp:77] Creating layer embedding
I0720 12:08:38.874017 11589 net.cpp:91] Creating Layer embedding
I0720 12:08:38.874027 11589 net.cpp:425] embedding <- input_sentence
I0720 12:08:38.874037 11589 net.cpp:399] embedding -> embedded_input_sentence
I0720 12:08:39.054404 11585 net.cpp:141] Setting up embedding
I0720 12:08:39.054461 11585 net.cpp:148] Top shape: 1 1 500 (500)
I0720 12:08:39.054468 11585 net.cpp:156] Memory required for data: 22408
I0720 12:08:39.054486 11585 layer_factory.hpp:77] Creating layer lstm1
I0720 12:08:39.054509 11585 net.cpp:91] Creating Layer lstm1
I0720 12:08:39.054519 11585 net.cpp:425] lstm1 <- embedded_input_frames
I0720 12:08:39.054529 11585 net.cpp:425] lstm1 <- cont_sentence_input_1_split_0
I0720 12:08:39.054538 11585 net.cpp:399] lstm1 -> lstm1
I0720 12:08:39.054589 11585 recurrent_layer.cpp:20] Initializing recurrent layer: assuming input batch contains 1 timesteps of 1 independent streams.
I0720 12:08:39.054961 11585 net.cpp:49] Initializing net from parameters: 
layer {
  name: "lstm1_"
  type: "Input"
  top: "x"
  top: "cont"
  input_param {
    shape {
      dim: 1
      dim: 1
      dim: 500
    }
    shape {
      dim: 1
      dim: 1
    }
  }
}
layer {
  name: "lstm1_"
  type: "Input"
  top: "c_0"
  top: "h_0"
  input_param {
    shape {
      dim: 1
      dim: 1
      dim: 1000
    }
    shape {
      dim: 1
      dim: 1
      dim: 1000
    }
  }
}
layer {
  name: "lstm1_cont_slice"
  type: "Slice"
  bottom: "cont"
  top: "cont_1"
  slice_param {
    axis: 0
  }
}
layer {
  name: "lstm1_x_transform"
  type: "InnerProduct"
  bottom: "x"
  top: "W_xc_x"
  param {
    name: "W_xc"
  }
  param {
    name: "b_c"
  }
  propagate_down: true
  inner_product_param {
    num_output: 4000
    bias_term: true
    weight_filler {
      type: "uniform"
      min: -0.08
      max: 0.08
    }
    bias_filler {
      type: "constant"
      value: 0
    }
    axis: 2
  }
}
layer {
  name: "lstm1_W_xc_x_slice"
  type: "Slice"
  bottom: "W_xc_x"
  top: "W_xc_x_1"
  slice_param {
    axis: 0
  }
}
layer {
  name: "lstm1_h_conted_0"
  type: "Scale"
  bottom: "h_0"
  bottom: "cont_1"
  top: "h_conted_0"
  scale_param {
    axis: 0
  }
}
layer {
  name: "lstm1_transform_1"
  type: "InnerProduct"
  bottom: "h_conted_0"
  top: "W_hc_h_0"
  param {
    name: "W_hc"
  }
  inner_product_param {
    num_output: 4000
    bias_term: false
    weight_filler {
      type: "uniform"
      min: -0.08
      max: 0.08
    }
    axis: 2
  }
}
layer {
  name: "lstm1_gate_input_1"
  type: "Eltwise"
  bottom: "W_hc_h_0"
  bottom: "W_xc_x_1"
  top: "gate_input_1"
  eltwise_param {
    operation: SUM
  }
}
layer {
  name: "lstm1_unit_1"
  type: "LSTMUnit"
  bottom: "c_0"
  bottom: "gate_input_1"
  bottom: "cont_1"
  top: "c_1"
  top: "h_1"
}
layer {
  name: "lstm1_"
  type: "Split"
  bottom: "c_1"
  top: "c_T"
}
layer {
  name: "lstm1_h_concat"
  type: "Concat"
  bottom: "h_1"
  top: "h"
  concat_param {
    axis: 0
  }
}
layer {
  name: "h_pseudoloss"
  type: "Reduction"
  bottom: "h"
  top: "h_pseudoloss"
  loss_weight: 1
}
I0720 12:08:39.055060 11585 layer_factory.hpp:77] Creating layer lstm1_
I0720 12:08:39.055074 11585 net.cpp:91] Creating Layer lstm1_
I0720 12:08:39.055081 11585 net.cpp:399] lstm1_ -> x
I0720 12:08:39.055094 11585 net.cpp:399] lstm1_ -> cont
I0720 12:08:39.067736 11585 net.cpp:141] Setting up lstm1_
I0720 12:08:39.067771 11585 net.cpp:148] Top shape: 1 1 500 (500)
I0720 12:08:39.067780 11585 net.cpp:148] Top shape: 1 1 (1)
I0720 12:08:39.067785 11585 net.cpp:156] Memory required for data: 2004
I0720 12:08:39.067791 11585 layer_factory.hpp:77] Creating layer lstm1_
I0720 12:08:39.067808 11585 net.cpp:91] Creating Layer lstm1_
I0720 12:08:39.067818 11585 net.cpp:399] lstm1_ -> c_0
I0720 12:08:39.067833 11585 net.cpp:399] lstm1_ -> h_0
I0720 12:08:39.082792 11585 net.cpp:141] Setting up lstm1_
I0720 12:08:39.082828 11585 net.cpp:148] Top shape: 1 1 1000 (1000)
I0720 12:08:39.082836 11585 net.cpp:148] Top shape: 1 1 1000 (1000)
I0720 12:08:39.082840 11585 net.cpp:156] Memory required for data: 10004
I0720 12:08:39.082849 11585 layer_factory.hpp:77] Creating layer lstm1_cont_slice
I0720 12:08:39.082864 11585 net.cpp:91] Creating Layer lstm1_cont_slice
I0720 12:08:39.082870 11585 net.cpp:425] lstm1_cont_slice <- cont
I0720 12:08:39.082882 11585 net.cpp:399] lstm1_cont_slice -> cont_1
I0720 12:08:39.086632 11585 net.cpp:141] Setting up lstm1_cont_slice
I0720 12:08:39.086658 11585 net.cpp:148] Top shape: 1 1 (1)
I0720 12:08:39.086663 11585 net.cpp:156] Memory required for data: 10008
I0720 12:08:39.086669 11585 layer_factory.hpp:77] Creating layer cont_1_lstm1_cont_slice_0_split
I0720 12:08:39.086680 11585 net.cpp:91] Creating Layer cont_1_lstm1_cont_slice_0_split
I0720 12:08:39.086699 11585 net.cpp:425] cont_1_lstm1_cont_slice_0_split <- cont_1
I0720 12:08:39.086712 11585 net.cpp:399] cont_1_lstm1_cont_slice_0_split -> cont_1_lstm1_cont_slice_0_split_0
I0720 12:08:39.086724 11585 net.cpp:399] cont_1_lstm1_cont_slice_0_split -> cont_1_lstm1_cont_slice_0_split_1
I0720 12:08:39.101855 11585 net.cpp:141] Setting up cont_1_lstm1_cont_slice_0_split
I0720 12:08:39.101898 11585 net.cpp:148] Top shape: 1 1 (1)
I0720 12:08:39.101905 11585 net.cpp:148] Top shape: 1 1 (1)
I0720 12:08:39.101910 11585 net.cpp:156] Memory required for data: 10016
I0720 12:08:39.101919 11585 layer_factory.hpp:77] Creating layer lstm1_x_transform
I0720 12:08:39.101946 11585 net.cpp:91] Creating Layer lstm1_x_transform
I0720 12:08:39.101953 11585 net.cpp:425] lstm1_x_transform <- x
I0720 12:08:39.101965 11585 net.cpp:399] lstm1_x_transform -> W_xc_x
I0720 12:08:39.111026 11589 net.cpp:141] Setting up embedding
I0720 12:08:39.111079 11589 net.cpp:148] Top shape: 1 1 500 (500)
I0720 12:08:39.111085 11589 net.cpp:156] Memory required for data: 22408
I0720 12:08:39.111104 11589 layer_factory.hpp:77] Creating layer lstm1
I0720 12:08:39.111125 11589 net.cpp:91] Creating Layer lstm1
I0720 12:08:39.111132 11589 net.cpp:425] lstm1 <- embedded_input_frames
I0720 12:08:39.111141 11589 net.cpp:425] lstm1 <- cont_sentence_input_1_split_0
I0720 12:08:39.111152 11589 net.cpp:399] lstm1 -> lstm1
I0720 12:08:39.111171 11589 recurrent_layer.cpp:20] Initializing recurrent layer: assuming input batch contains 1 timesteps of 1 independent streams.
I0720 12:08:39.111466 11589 net.cpp:49] Initializing net from parameters: 
layer {
  name: "lstm1_"
  type: "Input"
  top: "x"
  top: "cont"
  input_param {
    shape {
      dim: 1
      dim: 1
      dim: 500
    }
    shape {
      dim: 1
      dim: 1
    }
  }
}
layer {
  name: "lstm1_"
  type: "Input"
  top: "c_0"
  top: "h_0"
  input_param {
    shape {
      dim: 1
      dim: 1
      dim: 1000
    }
    shape {
      dim: 1
      dim: 1
      dim: 1000
    }
  }
}
layer {
  name: "lstm1_cont_slice"
  type: "Slice"
  bottom: "cont"
  top: "cont_1"
  slice_param {
    axis: 0
  }
}
layer {
  name: "lstm1_x_transform"
  type: "InnerProduct"
  bottom: "x"
  top: "W_xc_x"
  param {
    name: "W_xc"
  }
  param {
    name: "b_c"
  }
  propagate_down: true
  inner_product_param {
    num_output: 4000
    bias_term: true
    weight_filler {
      type: "uniform"
      min: -0.08
      max: 0.08
    }
    bias_filler {
      type: "constant"
      value: 0
    }
    axis: 2
  }
}
layer {
  name: "lstm1_W_xc_x_slice"
  type: "Slice"
  bottom: "W_xc_x"
  top: "W_xc_x_1"
  slice_param {
    axis: 0
  }
}
layer {
  name: "lstm1_h_conted_0"
  type: "Scale"
  bottom: "h_0"
  bottom: "cont_1"
  top: "h_conted_0"
  scale_param {
    axis: 0
  }
}
layer {
  name: "lstm1_transform_1"
  type: "InnerProduct"
  bottom: "h_conted_0"
  top: "W_hc_h_0"
  param {
    name: "W_hc"
  }
  inner_product_param {
    num_output: 4000
    bias_term: false
    weight_filler {
      type: "uniform"
      min: -0.08
      max: 0.08
    }
    axis: 2
  }
}
layer {
  name: "lstm1_gate_input_1"
  type: "Eltwise"
  bottom: "W_hc_h_0"
  bottom: "W_xc_x_1"
  top: "gate_input_1"
  eltwise_param {
    operation: SUM
  }
}
layer {
  name: "lstm1_unit_1"
  type: "LSTMUnit"
  bottom: "c_0"
  bottom: "gate_input_1"
  bottom: "cont_1"
  top: "c_1"
  top: "h_1"
}
layer {
  name: "lstm1_"
  type: "Split"
  bottom: "c_1"
  top: "c_T"
}
layer {
  name: "lstm1_h_concat"
  type: "Concat"
  bottom: "h_1"
  top: "h"
  concat_param {
    axis: 0
  }
}
layer {
  name: "h_pseudoloss"
  type: "Reduction"
  bottom: "h"
  top: "h_pseudoloss"
  loss_weight: 1
}
I0720 12:08:39.111564 11589 layer_factory.hpp:77] Creating layer lstm1_
I0720 12:08:39.111577 11589 net.cpp:91] Creating Layer lstm1_
I0720 12:08:39.111583 11589 net.cpp:399] lstm1_ -> x
I0720 12:08:39.111594 11589 net.cpp:399] lstm1_ -> cont
I0720 12:08:39.128758 11589 net.cpp:141] Setting up lstm1_
I0720 12:08:39.128792 11589 net.cpp:148] Top shape: 1 1 500 (500)
I0720 12:08:39.128798 11589 net.cpp:148] Top shape: 1 1 (1)
I0720 12:08:39.128803 11589 net.cpp:156] Memory required for data: 2004
I0720 12:08:39.128808 11589 layer_factory.hpp:77] Creating layer lstm1_
I0720 12:08:39.128818 11589 net.cpp:91] Creating Layer lstm1_
I0720 12:08:39.128828 11589 net.cpp:399] lstm1_ -> c_0
I0720 12:08:39.128839 11589 net.cpp:399] lstm1_ -> h_0
I0720 12:08:39.145750 11589 net.cpp:141] Setting up lstm1_
I0720 12:08:39.145782 11589 net.cpp:148] Top shape: 1 1 1000 (1000)
I0720 12:08:39.145789 11589 net.cpp:148] Top shape: 1 1 1000 (1000)
I0720 12:08:39.145792 11589 net.cpp:156] Memory required for data: 10004
I0720 12:08:39.145797 11589 layer_factory.hpp:77] Creating layer lstm1_cont_slice
I0720 12:08:39.145808 11589 net.cpp:91] Creating Layer lstm1_cont_slice
I0720 12:08:39.145838 11589 net.cpp:425] lstm1_cont_slice <- cont
I0720 12:08:39.145845 11589 net.cpp:399] lstm1_cont_slice -> cont_1
I0720 12:08:39.154623 11589 net.cpp:141] Setting up lstm1_cont_slice
I0720 12:08:39.154656 11589 net.cpp:148] Top shape: 1 1 (1)
I0720 12:08:39.154662 11589 net.cpp:156] Memory required for data: 10008
I0720 12:08:39.154667 11589 layer_factory.hpp:77] Creating layer cont_1_lstm1_cont_slice_0_split
I0720 12:08:39.154676 11589 net.cpp:91] Creating Layer cont_1_lstm1_cont_slice_0_split
I0720 12:08:39.154681 11589 net.cpp:425] cont_1_lstm1_cont_slice_0_split <- cont_1
I0720 12:08:39.154698 11589 net.cpp:399] cont_1_lstm1_cont_slice_0_split -> cont_1_lstm1_cont_slice_0_split_0
I0720 12:08:39.154707 11589 net.cpp:399] cont_1_lstm1_cont_slice_0_split -> cont_1_lstm1_cont_slice_0_split_1
I0720 12:08:39.176810 11589 net.cpp:141] Setting up cont_1_lstm1_cont_slice_0_split
I0720 12:08:39.176842 11589 net.cpp:148] Top shape: 1 1 (1)
I0720 12:08:39.176848 11589 net.cpp:148] Top shape: 1 1 (1)
I0720 12:08:39.176852 11589 net.cpp:156] Memory required for data: 10016
I0720 12:08:39.176857 11589 layer_factory.hpp:77] Creating layer lstm1_x_transform
I0720 12:08:39.176872 11589 net.cpp:91] Creating Layer lstm1_x_transform
I0720 12:08:39.176877 11589 net.cpp:425] lstm1_x_transform <- x
I0720 12:08:39.176897 11589 net.cpp:399] lstm1_x_transform -> W_xc_x
I0720 12:08:39.180470 11585 net.cpp:141] Setting up lstm1_x_transform
I0720 12:08:39.180527 11585 net.cpp:148] Top shape: 1 1 4000 (4000)
I0720 12:08:39.180534 11585 net.cpp:156] Memory required for data: 26016
I0720 12:08:39.180557 11585 layer_factory.hpp:77] Creating layer lstm1_W_xc_x_slice
I0720 12:08:39.180578 11585 net.cpp:91] Creating Layer lstm1_W_xc_x_slice
I0720 12:08:39.180585 11585 net.cpp:425] lstm1_W_xc_x_slice <- W_xc_x
I0720 12:08:39.180596 11585 net.cpp:399] lstm1_W_xc_x_slice -> W_xc_x_1
I0720 12:08:39.189842 11585 net.cpp:141] Setting up lstm1_W_xc_x_slice
I0720 12:08:39.189884 11585 net.cpp:148] Top shape: 1 1 4000 (4000)
I0720 12:08:39.189890 11585 net.cpp:156] Memory required for data: 42016
I0720 12:08:39.189898 11585 layer_factory.hpp:77] Creating layer lstm1_h_conted_0
I0720 12:08:39.189921 11585 net.cpp:91] Creating Layer lstm1_h_conted_0
I0720 12:08:39.189929 11585 net.cpp:425] lstm1_h_conted_0 <- h_0
I0720 12:08:39.189937 11585 net.cpp:425] lstm1_h_conted_0 <- cont_1_lstm1_cont_slice_0_split_0
I0720 12:08:39.189947 11585 net.cpp:399] lstm1_h_conted_0 -> h_conted_0
I0720 12:08:39.242753 11585 net.cpp:141] Setting up lstm1_h_conted_0
I0720 12:08:39.242802 11585 net.cpp:148] Top shape: 1 1 1000 (1000)
I0720 12:08:39.242810 11585 net.cpp:156] Memory required for data: 46016
I0720 12:08:39.242818 11585 layer_factory.hpp:77] Creating layer lstm1_transform_1
I0720 12:08:39.242840 11585 net.cpp:91] Creating Layer lstm1_transform_1
I0720 12:08:39.242847 11585 net.cpp:425] lstm1_transform_1 <- h_conted_0
I0720 12:08:39.242863 11585 net.cpp:399] lstm1_transform_1 -> W_hc_h_0
I0720 12:08:39.272773 11589 net.cpp:141] Setting up lstm1_x_transform
I0720 12:08:39.272826 11589 net.cpp:148] Top shape: 1 1 4000 (4000)
I0720 12:08:39.272831 11589 net.cpp:156] Memory required for data: 26016
I0720 12:08:39.272858 11589 layer_factory.hpp:77] Creating layer lstm1_W_xc_x_slice
I0720 12:08:39.272877 11589 net.cpp:91] Creating Layer lstm1_W_xc_x_slice
I0720 12:08:39.272884 11589 net.cpp:425] lstm1_W_xc_x_slice <- W_xc_x
I0720 12:08:39.272894 11589 net.cpp:399] lstm1_W_xc_x_slice -> W_xc_x_1
I0720 12:08:39.273100 11589 net.cpp:141] Setting up lstm1_W_xc_x_slice
I0720 12:08:39.273113 11589 net.cpp:148] Top shape: 1 1 4000 (4000)
I0720 12:08:39.273116 11589 net.cpp:156] Memory required for data: 42016
I0720 12:08:39.273121 11589 layer_factory.hpp:77] Creating layer lstm1_h_conted_0
I0720 12:08:39.273131 11589 net.cpp:91] Creating Layer lstm1_h_conted_0
I0720 12:08:39.273136 11589 net.cpp:425] lstm1_h_conted_0 <- h_0
I0720 12:08:39.273141 11589 net.cpp:425] lstm1_h_conted_0 <- cont_1_lstm1_cont_slice_0_split_0
I0720 12:08:39.273151 11589 net.cpp:399] lstm1_h_conted_0 -> h_conted_0
I0720 12:08:39.276372 11589 net.cpp:141] Setting up lstm1_h_conted_0
I0720 12:08:39.276391 11589 net.cpp:148] Top shape: 1 1 1000 (1000)
I0720 12:08:39.276397 11589 net.cpp:156] Memory required for data: 46016
I0720 12:08:39.276402 11589 layer_factory.hpp:77] Creating layer lstm1_transform_1
I0720 12:08:39.276417 11589 net.cpp:91] Creating Layer lstm1_transform_1
I0720 12:08:39.276422 11589 net.cpp:425] lstm1_transform_1 <- h_conted_0
I0720 12:08:39.276432 11589 net.cpp:399] lstm1_transform_1 -> W_hc_h_0
I0720 12:08:39.291201 11583 net.cpp:141] Setting up conv1
I0720 12:08:39.291255 11583 net.cpp:148] Top shape: 10 96 55 55 (2904000)
I0720 12:08:39.291262 11583 net.cpp:156] Memory required for data: 17799480
I0720 12:08:39.291285 11583 layer_factory.hpp:77] Creating layer relu1
I0720 12:08:39.291304 11583 net.cpp:91] Creating Layer relu1
I0720 12:08:39.291311 11583 net.cpp:425] relu1 <- conv1
I0720 12:08:39.291321 11583 net.cpp:386] relu1 -> conv1 (in-place)
I0720 12:08:39.292163 11583 net.cpp:141] Setting up relu1
I0720 12:08:39.292179 11583 net.cpp:148] Top shape: 10 96 55 55 (2904000)
I0720 12:08:39.292186 11583 net.cpp:156] Memory required for data: 29415480
I0720 12:08:39.292191 11583 layer_factory.hpp:77] Creating layer pool1
I0720 12:08:39.292206 11583 net.cpp:91] Creating Layer pool1
I0720 12:08:39.292212 11583 net.cpp:425] pool1 <- conv1
I0720 12:08:39.292220 11583 net.cpp:399] pool1 -> pool1
I0720 12:08:39.293346 11583 net.cpp:141] Setting up pool1
I0720 12:08:39.293368 11583 net.cpp:148] Top shape: 10 96 27 27 (699840)
I0720 12:08:39.293375 11583 net.cpp:156] Memory required for data: 32214840
I0720 12:08:39.293381 11583 layer_factory.hpp:77] Creating layer norm1
I0720 12:08:39.293402 11583 net.cpp:91] Creating Layer norm1
I0720 12:08:39.293409 11583 net.cpp:425] norm1 <- pool1
I0720 12:08:39.293417 11583 net.cpp:399] norm1 -> norm1
I0720 12:08:39.304663 11583 net.cpp:141] Setting up norm1
I0720 12:08:39.304703 11583 net.cpp:148] Top shape: 10 96 27 27 (699840)
I0720 12:08:39.304710 11583 net.cpp:156] Memory required for data: 35014200
I0720 12:08:39.304718 11583 layer_factory.hpp:77] Creating layer conv2
I0720 12:08:39.304740 11583 net.cpp:91] Creating Layer conv2
I0720 12:08:39.304747 11583 net.cpp:425] conv2 <- norm1
I0720 12:08:39.304759 11583 net.cpp:399] conv2 -> conv2
I0720 12:08:39.304949 11585 net.cpp:141] Setting up lstm1_transform_1
I0720 12:08:39.304970 11585 net.cpp:148] Top shape: 1 1 4000 (4000)
I0720 12:08:39.304975 11585 net.cpp:156] Memory required for data: 62016
I0720 12:08:39.304988 11585 layer_factory.hpp:77] Creating layer lstm1_gate_input_1
I0720 12:08:39.305006 11585 net.cpp:91] Creating Layer lstm1_gate_input_1
I0720 12:08:39.305013 11585 net.cpp:425] lstm1_gate_input_1 <- W_hc_h_0
I0720 12:08:39.305022 11585 net.cpp:425] lstm1_gate_input_1 <- W_xc_x_1
I0720 12:08:39.305029 11585 net.cpp:399] lstm1_gate_input_1 -> gate_input_1
I0720 12:08:39.305793 11585 net.cpp:141] Setting up lstm1_gate_input_1
I0720 12:08:39.305811 11585 net.cpp:148] Top shape: 1 1 4000 (4000)
I0720 12:08:39.305816 11585 net.cpp:156] Memory required for data: 78016
I0720 12:08:39.305822 11585 layer_factory.hpp:77] Creating layer lstm1_unit_1
I0720 12:08:39.305832 11585 net.cpp:91] Creating Layer lstm1_unit_1
I0720 12:08:39.305838 11585 net.cpp:425] lstm1_unit_1 <- c_0
I0720 12:08:39.305845 11585 net.cpp:425] lstm1_unit_1 <- gate_input_1
I0720 12:08:39.305851 11585 net.cpp:425] lstm1_unit_1 <- cont_1_lstm1_cont_slice_0_split_1
I0720 12:08:39.305860 11585 net.cpp:399] lstm1_unit_1 -> c_1
I0720 12:08:39.305871 11585 net.cpp:399] lstm1_unit_1 -> h_1
I0720 12:08:39.315778 11585 net.cpp:141] Setting up lstm1_unit_1
I0720 12:08:39.315804 11585 net.cpp:148] Top shape: 1 1 1000 (1000)
I0720 12:08:39.315811 11585 net.cpp:148] Top shape: 1 1 1000 (1000)
I0720 12:08:39.315815 11585 net.cpp:156] Memory required for data: 86016
I0720 12:08:39.315822 11585 layer_factory.hpp:77] Creating layer lstm1_
I0720 12:08:39.315837 11585 net.cpp:91] Creating Layer lstm1_
I0720 12:08:39.315842 11585 net.cpp:425] lstm1_ <- c_1
I0720 12:08:39.315852 11585 net.cpp:399] lstm1_ -> c_T
I0720 12:08:39.320724 11585 net.cpp:141] Setting up lstm1_
I0720 12:08:39.320751 11585 net.cpp:148] Top shape: 1 1 1000 (1000)
I0720 12:08:39.320757 11585 net.cpp:156] Memory required for data: 90016
I0720 12:08:39.320765 11585 layer_factory.hpp:77] Creating layer lstm1_h_concat
I0720 12:08:39.320785 11585 net.cpp:91] Creating Layer lstm1_h_concat
I0720 12:08:39.320792 11585 net.cpp:425] lstm1_h_concat <- h_1
I0720 12:08:39.320801 11585 net.cpp:399] lstm1_h_concat -> h
I0720 12:08:39.320983 11585 net.cpp:141] Setting up lstm1_h_concat
I0720 12:08:39.320996 11585 net.cpp:148] Top shape: 1 1 1000 (1000)
I0720 12:08:39.321000 11585 net.cpp:156] Memory required for data: 94016
I0720 12:08:39.321007 11585 layer_factory.hpp:77] Creating layer h_pseudoloss
I0720 12:08:39.321022 11585 net.cpp:91] Creating Layer h_pseudoloss
I0720 12:08:39.321027 11585 net.cpp:425] h_pseudoloss <- h
I0720 12:08:39.321034 11585 net.cpp:399] h_pseudoloss -> h_pseudoloss
I0720 12:08:39.321998 11585 net.cpp:141] Setting up h_pseudoloss
…
I0720 12:08:39.322124 11585 net.cpp:219] lstm1_ does not need backward computation.
I0720 12:08:39.322127 11585 net.cpp:261] This network produces output c_T
I0720 12:08:39.322132 11585 net.cpp:261] This network produces output h_pseudoloss
I0720 12:08:39.322154 11585 net.cpp:274] Network initialization done.
I0720 12:08:39.322216 11585 recurrent_layer.cpp:150] Adding parameter 0: W_xc
I0720 12:08:39.322222 11585 recurrent_layer.cpp:150] Adding parameter 1: b_c
I0720 12:08:39.322227 11585 recurrent_layer.cpp:150] Adding parameter 2: W_hc
I0720 12:08:39.323257 11585 net.cpp:141] Setting up lstm1
I0720 12:08:39.323271 11585 net.cpp:148] Top shape: 1 1 1000 (1000)
I0720 12:08:39.323276 11585 net.cpp:156] Memory required for data: 26408
I0720 12:08:39.323292 11585 layer_factory.hpp:77] Creating layer concat
I0720 12:08:39.323302 11585 net.cpp:91] Creating Layer concat
I0720 12:08:39.323309 11585 net.cpp:425] concat <- lstm1
I0720 12:08:39.323317 11585 net.cpp:425] concat <- embedded_input_sentence
I0720 12:08:39.323323 11585 net.cpp:425] concat <- reshaped_stage_indicator
I0720 12:08:39.323329 11585 net.cpp:399] concat -> lstm1_video_sequence
I0720 12:08:39.323976 11585 net.cpp:141] Setting up concat
I0720 12:08:39.323988 11585 net.cpp:148] Top shape: 1 1 1501 (1501)
I0720 12:08:39.323993 11585 net.cpp:156] Memory required for data: 32412
I0720 12:08:39.323989 11595 net.cpp:141] Setting up conv1
I0720 12:08:39.323998 11585 layer_factory.hpp:77] Creating layer lstm2
I0720 12:08:39.324013 11595 net.cpp:148] Top shape: 10 96 55 55 (2904000)
I0720 12:08:39.324019 11595 net.cpp:156] Memory required for data: 17799480
I0720 12:08:39.324020 11585 net.cpp:91] Creating Layer lstm2
I0720 12:08:39.324028 11585 net.cpp:425] lstm2 <- lstm1_video_sequence
I0720 12:08:39.324034 11585 net.cpp:425] lstm2 <- cont_sentence_input_1_split_1
I0720 12:08:39.324035 11595 layer_factory.hpp:77] Creating layer relu1
I0720 12:08:39.324041 11585 net.cpp:399] lstm2 -> lstm2
I0720 12:08:39.324048 11595 net.cpp:91] Creating Layer relu1
I0720 12:08:39.324054 11595 net.cpp:425] relu1 <- conv1
I0720 12:08:39.324054 11585 recurrent_layer.cpp:20] Initializing recurrent layer: assuming input batch contains 1 timesteps of 1 independent streams.
I0720 12:08:39.324060 11595 net.cpp:386] relu1 -> conv1 (in-place)
I0720 12:08:39.324319 11585 net.cpp:49] Initializing net from parameters: 
layer {
  name: "lstm2_"
  type: "Input"
  top: "x"
  top: "cont"
  input_param {
    shape {
      dim: 1
      dim: 1
      dim: 1501
    }
    shape {
      dim: 1
      dim: 1
    }
  }
}
layer {
  name: "lstm2_"
  type: "Input"
  top: "c_0"
  top: "h_0"
  input_param {
    shape {
      dim: 1
      dim: 1
      dim: 1000
    }
    shape {
      dim: 1
      dim: 1
      dim: 1000
    }
  }
}
layer {
  name: "lstm2_cont_slice"
  type: "Slice"
  bottom: "cont"
  top: "cont_1"
  slice_param {
    axis: 0
  }
}
layer {
  name: "lstm2_x_transform"
  type: "InnerProduct"
  bottom: "x"
  top: "W_xc_x"
  param {
    name: "W_xc"
  }
  param {
    name: "b_c"
  }
  propagate_down: true
  inner_product_param {
    num_output: 4000
    bias_term: true
    weight_filler {
      type: "uniform"
      min: -0.08
      max: 0.08
    }
    bias_filler {
      type: "constant"
      value: 0
    }
    axis: 2
  }
}
layer {
  name: "lstm2_W_xc_x_slice"
  type: "Slice"
  bottom: "W_xc_x"
  top: "W_xc_x_1"
  slice_param {
    axis: 0
  }
}
layer {
  name: "lstm2_h_conted_0"
  type: "Scale"
  bottom: "h_0"
  bottom: "cont_1"
  top: "h_conted_0"
  scale_param {
    axis: 0
  }
}
layer {
  name: "lstm2_transform_1"
  type: "InnerProduct"
  bottom: "h_conted_0"
  top: "W_hc_h_0"
  param {
    name: "W_hc"
  }
  inner_product_param {
    num_output: 4000
    bias_term: false
    weight_filler {
      type: "uniform"
      min: -0.08
      max: 0.08
    }
    axis: 2
  }
}
layer {
  name: "lstm2_gate_input_1"
  type: "Eltwise"
  bottom: "W_hc_h_0"
  bottom: "W_xc_x_1"
  top: "gate_input_1"
  eltwise_param {
    operation: SUM
  }
}
layer {
  name: "lstm2_unit_1"
  type: "LSTMUnit"
  bottom: "c_0"
  bottom: "gate_input_1"
  bottom: "cont_1"
  top: "c_1"
  top: "h_1"
}
layer {
  name: "lstm2_"
  type: "Split"
  bottom: "c_1"
  top: "c_T"
}
layer {
  name: "lstm2_h_concat"
  type: "Concat"
  bottom: "h_1"
  top: "h"
  concat_param {
    axis: 0
  }
}
layer {
  name: "h_pseudoloss"
  type: "Reduction"
  bottom: "h"
  top: "h_pseudoloss"
  loss_weight: 1
}
I0720 12:08:39.324412 11585 layer_factory.hpp:77] Creating layer lstm2_
I0720 12:08:39.324426 11585 net.cpp:91] Creating Layer lstm2_
I0720 12:08:39.324434 11585 net.cpp:399] lstm2_ -> x
I0720 12:08:39.324445 11585 net.cpp:399] lstm2_ -> cont
I0720 12:08:39.325500 11589 net.cpp:141] Setting up lstm1_transform_1
I0720 12:08:39.325513 11585 net.cpp:141] Setting up lstm2_
I0720 12:08:39.325544 11589 net.cpp:148] Top shape: 1 1 4000 (4000)
I0720 12:08:39.325548 11585 net.cpp:148] Top shape: 1 1 1501 (1501)
I0720 12:08:39.325551 11589 net.cpp:156] Memory required for data: 62016
I0720 12:08:39.325557 11585 net.cpp:148] Top shape: 1 1 (1)
I0720 12:08:39.325562 11585 net.cpp:156] Memory required for data: 6008
I0720 12:08:39.325568 11585 layer_factory.hpp:77] Creating layer lstm2_
I0720 12:08:39.325570 11589 layer_factory.hpp:77] Creating layer lstm1_gate_input_1
I0720 12:08:39.325578 11585 net.cpp:91] Creating Layer lstm2_
I0720 12:08:39.325577 11595 net.cpp:141] Setting up relu1
I0720 12:08:39.325587 11585 net.cpp:399] lstm2_ -> c_0
I0720 12:08:39.325590 11589 net.cpp:91] Creating Layer lstm1_gate_input_1
I0720 12:08:39.325594 11595 net.cpp:148] Top shape: 10 96 55 55 (2904000)
I0720 12:08:39.325598 11589 net.cpp:425] lstm1_gate_input_1 <- W_hc_h_0
I0720 12:08:39.325601 11595 net.cpp:156] Memory required for data: 29415480
I0720 12:08:39.325608 11595 layer_factory.hpp:77] Creating layer pool1
I0720 12:08:39.325613 11589 net.cpp:425] lstm1_gate_input_1 <- W_xc_x_1
I0720 12:08:39.325599 11585 net.cpp:399] lstm2_ -> h_0
I0720 12:08:39.325623 11589 net.cpp:399] lstm1_gate_input_1 -> gate_input_1
I0720 12:08:39.325623 11595 net.cpp:91] Creating Layer pool1
I0720 12:08:39.325630 11595 net.cpp:425] pool1 <- conv1
I0720 12:08:39.325639 11595 net.cpp:399] pool1 -> pool1
I0720 12:08:39.326365 11589 net.cpp:141] Setting up lstm1_gate_input_1
I0720 12:08:39.326376 11589 net.cpp:148] Top shape: 1 1 4000 (4000)
I0720 12:08:39.326380 11589 net.cpp:156] Memory required for data: 78016
I0720 12:08:39.326385 11589 layer_factory.hpp:77] Creating layer lstm1_unit_1
I0720 12:08:39.326395 11589 net.cpp:91] Creating Layer lstm1_unit_1
I0720 12:08:39.326400 11589 net.cpp:425] lstm1_unit_1 <- c_0
I0720 12:08:39.326406 11589 net.cpp:425] lstm1_unit_1 <- gate_input_1
I0720 12:08:39.326411 11589 net.cpp:425] lstm1_unit_1 <- cont_1_lstm1_cont_slice_0_split_1
I0720 12:08:39.326419 11589 net.cpp:399] lstm1_unit_1 -> c_1
I0720 12:08:39.326427 11589 net.cpp:399] lstm1_unit_1 -> h_1
I0720 12:08:39.326510 11595 net.cpp:141] Setting up pool1
I0720 12:08:39.326524 11595 net.cpp:148] Top shape: 10 96 27 27 (699840)
I0720 12:08:39.326529 11595 net.cpp:156] Memory required for data: 32214840
I0720 12:08:39.326534 11595 layer_factory.hpp:77] Creating layer norm1
I0720 12:08:39.326546 11595 net.cpp:91] Creating Layer norm1
I0720 12:08:39.326552 11595 net.cpp:425] norm1 <- pool1
I0720 12:08:39.326560 11595 net.cpp:399] norm1 -> norm1
I0720 12:08:39.326632 11585 net.cpp:141] Setting up lstm2_
I0720 12:08:39.326643 11585 net.cpp:148] Top shape: 1 1 1000 (1000)
I0720 12:08:39.326649 11585 net.cpp:148] Top shape: 1 1 1000 (1000)
I0720 12:08:39.326654 11585 net.cpp:156] Memory required for data: 14008
I0720 12:08:39.326659 11585 layer_factory.hpp:77] Creating layer lstm2_cont_slice
I0720 12:08:39.326671 11585 net.cpp:91] Creating Layer lstm2_cont_slice
I0720 12:08:39.326676 11585 net.cpp:425] lstm2_cont_slice <- cont
I0720 12:08:39.326683 11585 net.cpp:399] lstm2_cont_slice -> cont_1
I0720 12:08:39.327428 11585 net.cpp:141] Setting up lstm2_cont_slice
I0720 12:08:39.327441 11585 net.cpp:148] Top shape: 1 1 (1)
I0720 12:08:39.327446 11585 net.cpp:156] Memory required for data: 14012
I0720 12:08:39.327451 11585 layer_factory.hpp:77] Creating layer cont_1_lstm2_cont_slice_0_split
I0720 12:08:39.327460 11585 net.cpp:91] Creating Layer cont_1_lstm2_cont_slice_0_split
I0720 12:08:39.327464 11585 net.cpp:425] cont_1_lstm2_cont_slice_0_split <- cont_1
I0720 12:08:39.327471 11585 net.cpp:399] cont_1_lstm2_cont_slice_0_split -> cont_1_lstm2_cont_slice_0_split_0
I0720 12:08:39.327481 11585 net.cpp:399] cont_1_lstm2_cont_slice_0_split -> cont_1_lstm2_cont_slice_0_split_1
I0720 12:08:39.327496 11589 net.cpp:141] Setting up lstm1_unit_1
I0720 12:08:39.327507 11589 net.cpp:148] Top shape: 1 1 1000 (1000)
I0720 12:08:39.327513 11589 net.cpp:148] Top shape: 1 1 1000 (1000)
I0720 12:08:39.327518 11589 net.cpp:156] Memory required for data: 86016
I0720 12:08:39.327523 11589 layer_factory.hpp:77] Creating layer lstm1_
I0720 12:08:39.327533 11589 net.cpp:91] Creating Layer lstm1_
I0720 12:08:39.327536 11589 net.cpp:425] lstm1_ <- c_1
I0720 12:08:39.327543 11589 net.cpp:399] lstm1_ -> c_T
I0720 12:08:39.327637 11585 net.cpp:141] Setting up cont_1_lstm2_cont_slice_0_split
I0720 12:08:39.327652 11585 net.cpp:148] Top shape: 1 1 (1)
I0720 12:08:39.327659 11585 net.cpp:148] Top shape: 1 1 (1)
I0720 12:08:39.327663 11585 net.cpp:156] Memory required for data: 14020
I0720 12:08:39.327668 11585 layer_factory.hpp:77] Creating layer lstm2_x_transform
I0720 12:08:39.327673 11589 net.cpp:141] Setting up lstm1_
I0720 12:08:39.327679 11585 net.cpp:91] Creating Layer lstm2_x_transform
I0720 12:08:39.327684 11589 net.cpp:148] Top shape: 1 1 1000 (1000)
I0720 12:08:39.327687 11585 net.cpp:425] lstm2_x_transform <- x
I0720 12:08:39.327690 11589 net.cpp:156] Memory required for data: 90016
I0720 12:08:39.327695 11589 layer_factory.hpp:77] Creating layer lstm1_h_concat
I0720 12:08:39.327699 11585 net.cpp:399] lstm2_x_transform -> W_xc_x
I0720 12:08:39.327705 11589 net.cpp:91] Creating Layer lstm1_h_concat
I0720 12:08:39.327710 11589 net.cpp:425] lstm1_h_concat <- h_1
I0720 12:08:39.327718 11589 net.cpp:399] lstm1_h_concat -> h
I0720 12:08:39.327940 11589 net.cpp:141] Setting up lstm1_h_concat
I0720 12:08:39.327950 11589 net.cpp:148] Top shape: 1 1 1000 (1000)
I0720 12:08:39.327955 11589 net.cpp:156] Memory required for data: 94016
I0720 12:08:39.327958 11589 layer_factory.hpp:77] Creating layer h_pseudoloss
I0720 12:08:39.327967 11589 net.cpp:91] Creating Layer h_pseudoloss
I0720 12:08:39.327971 11589 net.cpp:425] h_pseudoloss <- h
I0720 12:08:39.327981 11589 net.cpp:399] h_pseudoloss -> h_pseudoloss
I0720 12:08:39.340859 11595 net.cpp:141] Setting up norm1
I0720 12:08:39.340903 11595 net.cpp:148] Top shape: 10 96 27 27 (699840)
I0720 12:08:39.340910 11595 net.cpp:156] Memory required for data: 35014200
I0720 12:08:39.340919 11595 layer_factory.hpp:77] Creating layer conv2
I0720 12:08:39.340944 11595 net.cpp:91] Creating Layer conv2
I0720 12:08:39.340951 11595 net.cpp:425] conv2 <- norm1
I0720 12:08:39.340965 11595 net.cpp:399] conv2 -> conv2
I0720 12:08:39.342484 11589 net.cpp:141] Setting up h_pseudoloss
…
I0720 12:08:39.342599 11589 net.cpp:219] cont_1_lstm1_cont_slice_0_split does not need backward computation.
I0720 12:08:39.342603 11589 net.cpp:219] lstm1_cont_slice does not need backward computation.
I0720 12:08:39.342608 11589 net.cpp:219] lstm1_ does not need backward computation.
I0720 12:08:39.342612 11589 net.cpp:219] lstm1_ does not need backward computation.
I0720 12:08:39.342615 11589 net.cpp:261] This network produces output c_T
I0720 12:08:39.342620 11589 net.cpp:261] This network produces output h_pseudoloss
I0720 12:08:39.342638 11589 net.cpp:274] Network initialization done.
I0720 12:08:39.342659 11583 net.cpp:141] Setting up conv2
I0720 12:08:39.342697 11583 net.cpp:148] Top shape: 10 256 27 27 (1866240)
I0720 12:08:39.342705 11583 net.cpp:156] Memory required for data: 42479160
I0720 12:08:39.342705 11589 recurrent_layer.cpp:150] Adding parameter 0: W_xc
I0720 12:08:39.342715 11589 recurrent_layer.cpp:150] Adding parameter 1: b_c
I0720 12:08:39.342720 11589 recurrent_layer.cpp:150] Adding parameter 2: W_hc
I0720 12:08:39.342725 11583 layer_factory.hpp:77] Creating layer relu2
I0720 12:08:39.342739 11583 net.cpp:91] Creating Layer relu2
I0720 12:08:39.342746 11583 net.cpp:425] relu2 <- conv2
I0720 12:08:39.342754 11583 net.cpp:386] relu2 -> conv2 (in-place)
I0720 12:08:39.344306 11589 net.cpp:141] Setting up lstm1
I0720 12:08:39.344319 11589 net.cpp:148] Top shape: 1 1 1000 (1000)
I0720 12:08:39.344323 11589 net.cpp:156] Memory required for data: 26408
I0720 12:08:39.344339 11589 layer_factory.hpp:77] Creating layer concat
I0720 12:08:39.344354 11589 net.cpp:91] Creating Layer concat
I0720 12:08:39.344360 11589 net.cpp:425] concat <- lstm1
I0720 12:08:39.344367 11589 net.cpp:425] concat <- embedded_input_sentence
I0720 12:08:39.344372 11589 net.cpp:425] concat <- reshaped_stage_indicator
I0720 12:08:39.344380 11589 net.cpp:399] concat -> lstm1_video_sequence
I0720 12:08:39.344475 11583 net.cpp:141] Setting up relu2
I0720 12:08:39.344506 11583 net.cpp:148] Top shape: 10 256 27 27 (1866240)
I0720 12:08:39.344511 11583 net.cpp:156] Memory required for data: 49944120
I0720 12:08:39.344519 11583 layer_factory.hpp:77] Creating layer pool2
I0720 12:08:39.344535 11583 net.cpp:91] Creating Layer pool2
I0720 12:08:39.344542 11583 net.cpp:425] pool2 <- conv2
I0720 12:08:39.344553 11583 net.cpp:399] pool2 -> pool2
I0720 12:08:39.347069 11589 net.cpp:141] Setting up concat
I0720 12:08:39.347080 11589 net.cpp:148] Top shape: 1 1 1501 (1501)
I0720 12:08:39.347085 11589 net.cpp:156] Memory required for data: 32412
I0720 12:08:39.347090 11589 layer_factory.hpp:77] Creating layer lstm2
I0720 12:08:39.347105 11589 net.cpp:91] Creating Layer lstm2
I0720 12:08:39.347100 11583 net.cpp:141] Setting up pool2
I0720 12:08:39.347110 11589 net.cpp:425] lstm2 <- lstm1_video_sequence
I0720 12:08:39.347126 11583 net.cpp:148] Top shape: 10 256 13 13 (432640)
I0720 12:08:39.347127 11589 net.cpp:425] lstm2 <- cont_sentence_input_1_split_1
I0720 12:08:39.347136 11583 net.cpp:156] Memory required for data: 51674680
I0720 12:08:39.347142 11589 net.cpp:399] lstm2 -> lstm2
I0720 12:08:39.347143 11583 layer_factory.hpp:77] Creating layer norm2
I0720 12:08:39.347156 11589 recurrent_layer.cpp:20] Initializing recurrent layer: assuming input batch contains 1 timesteps of 1 independent streams.
I0720 12:08:39.347163 11583 net.cpp:91] Creating Layer norm2
I0720 12:08:39.347170 11583 net.cpp:425] norm2 <- pool2
I0720 12:08:39.347180 11583 net.cpp:399] norm2 -> norm2
I0720 12:08:39.347431 11589 net.cpp:49] Initializing net from parameters: 
layer {
  name: "lstm2_"
  type: "Input"
  top: "x"
  top: "cont"
  input_param {
    shape {
      dim: 1
      dim: 1
      dim: 1501
    }
    shape {
      dim: 1
      dim: 1
    }
  }
}
layer {
  name: "lstm2_"
  type: "Input"
  top: "c_0"
  top: "h_0"
  input_param {
    shape {
      dim: 1
      dim: 1
      dim: 1000
    }
    shape {
      dim: 1
      dim: 1
      dim: 1000
    }
  }
}
layer {
  name: "lstm2_cont_slice"
  type: "Slice"
  bottom: "cont"
  top: "cont_1"
  slice_param {
    axis: 0
  }
}
layer {
  name: "lstm2_x_transform"
  type: "InnerProduct"
  bottom: "x"
  top: "W_xc_x"
  param {
    name: "W_xc"
  }
  param {
    name: "b_c"
  }
  propagate_down: true
  inner_product_param {
    num_output: 4000
    bias_term: true
    weight_filler {
      type: "uniform"
      min: -0.08
      max: 0.08
    }
    bias_filler {
      type: "constant"
      value: 0
    }
    axis: 2
  }
}
layer {
  name: "lstm2_W_xc_x_slice"
  type: "Slice"
  bottom: "W_xc_x"
  top: "W_xc_x_1"
  slice_param {
    axis: 0
  }
}
layer {
  name: "lstm2_h_conted_0"
  type: "Scale"
  bottom: "h_0"
  bottom: "cont_1"
  top: "h_conted_0"
  scale_param {
    axis: 0
  }
}
layer {
  name: "lstm2_transform_1"
  type: "InnerProduct"
  bottom: "h_conted_0"
  top: "W_hc_h_0"
  param {
    name: "W_hc"
  }
  inner_product_param {
    num_output: 4000
    bias_term: false
    weight_filler {
      type: "uniform"
      min: -0.08
      max: 0.08
    }
    axis: 2
  }
}
layer {
  name: "lstm2_gate_input_1"
  type: "Eltwise"
  bottom: "W_hc_h_0"
  bottom: "W_xc_x_1"
  top: "gate_input_1"
  eltwise_param {
    operation: SUM
  }
}
layer {
  name: "lstm2_unit_1"
  type: "LSTMUnit"
  bottom: "c_0"
  bottom: "gate_input_1"
  bottom: "cont_1"
  top: "c_1"
  top: "h_1"
}
layer {
  name: "lstm2_"
  type: "Split"
  bottom: "c_1"
  top: "c_T"
}
layer {
  name: "lstm2_h_concat"
  type: "Concat"
  bottom: "h_1"
  top: "h"
  concat_param {
    axis: 0
  }
}
layer {
  name: "h_pseudoloss"
  type: "Reduction"
  bottom: "h"
  top: "h_pseudoloss"
  loss_weight: 1
}
I0720 12:08:39.347525 11589 layer_factory.hpp:77] Creating layer lstm2_
I0720 12:08:39.347537 11589 net.cpp:91] Creating Layer lstm2_
I0720 12:08:39.347543 11589 net.cpp:399] lstm2_ -> x
I0720 12:08:39.347553 11589 net.cpp:399] lstm2_ -> cont
I0720 12:08:39.347827 11583 net.cpp:141] Setting up norm2
I0720 12:08:39.347841 11583 net.cpp:148] Top shape: 10 256 13 13 (432640)
I0720 12:08:39.347847 11583 net.cpp:156] Memory required for data: 53405240
I0720 12:08:39.347853 11583 layer_factory.hpp:77] Creating layer conv3
I0720 12:08:39.347869 11583 net.cpp:91] Creating Layer conv3
I0720 12:08:39.347875 11583 net.cpp:425] conv3 <- norm2
I0720 12:08:39.347883 11583 net.cpp:399] conv3 -> conv3
I0720 12:08:39.347965 11589 net.cpp:141] Setting up lstm2_
I0720 12:08:39.347977 11589 net.cpp:148] Top shape: 1 1 1501 (1501)
I0720 12:08:39.347983 11589 net.cpp:148] Top shape: 1 1 (1)
I0720 12:08:39.347987 11589 net.cpp:156] Memory required for data: 6008
I0720 12:08:39.347992 11589 layer_factory.hpp:77] Creating layer lstm2_
I0720 12:08:39.348006 11589 net.cpp:91] Creating Layer lstm2_
I0720 12:08:39.348011 11589 net.cpp:399] lstm2_ -> c_0
I0720 12:08:39.348021 11589 net.cpp:399] lstm2_ -> h_0
I0720 12:08:39.349227 11589 net.cpp:141] Setting up lstm2_
I0720 12:08:39.349239 11589 net.cpp:148] Top shape: 1 1 1000 (1000)
I0720 12:08:39.349244 11589 net.cpp:148] Top shape: 1 1 1000 (1000)
I0720 12:08:39.349248 11589 net.cpp:156] Memory required for data: 14008
I0720 12:08:39.349253 11589 layer_factory.hpp:77] Creating layer lstm2_cont_slice
I0720 12:08:39.349266 11589 net.cpp:91] Creating Layer lstm2_cont_slice
I0720 12:08:39.349270 11589 net.cpp:425] lstm2_cont_slice <- cont
I0720 12:08:39.349277 11589 net.cpp:399] lstm2_cont_slice -> cont_1
I0720 12:08:39.349618 11589 net.cpp:141] Setting up lstm2_cont_slice
I0720 12:08:39.349629 11589 net.cpp:148] Top shape: 1 1 (1)
I0720 12:08:39.349633 11589 net.cpp:156] Memory required for data: 14012
I0720 12:08:39.349637 11589 layer_factory.hpp:77] Creating layer cont_1_lstm2_cont_slice_0_split
I0720 12:08:39.349645 11589 net.cpp:91] Creating Layer cont_1_lstm2_cont_slice_0_split
I0720 12:08:39.349650 11589 net.cpp:425] cont_1_lstm2_cont_slice_0_split <- cont_1
I0720 12:08:39.349656 11589 net.cpp:399] cont_1_lstm2_cont_slice_0_split -> cont_1_lstm2_cont_slice_0_split_0
I0720 12:08:39.349664 11589 net.cpp:399] cont_1_lstm2_cont_slice_0_split -> cont_1_lstm2_cont_slice_0_split_1
I0720 12:08:39.352277 11589 net.cpp:141] Setting up cont_1_lstm2_cont_slice_0_split
I0720 12:08:39.352288 11589 net.cpp:148] Top shape: 1 1 (1)
I0720 12:08:39.352293 11589 net.cpp:148] Top shape: 1 1 (1)
I0720 12:08:39.352298 11589 net.cpp:156] Memory required for data: 14020
I0720 12:08:39.352301 11589 layer_factory.hpp:77] Creating layer lstm2_x_transform
I0720 12:08:39.352314 11589 net.cpp:91] Creating Layer lstm2_x_transform
I0720 12:08:39.352319 11589 net.cpp:425] lstm2_x_transform <- x
I0720 12:08:39.352329 11589 net.cpp:399] lstm2_x_transform -> W_xc_x
I0720 12:08:39.367728 11595 net.cpp:141] Setting up conv2
I0720 12:08:39.367777 11595 net.cpp:148] Top shape: 10 256 27 27 (1866240)
I0720 12:08:39.367785 11595 net.cpp:156] Memory required for data: 42479160
I0720 12:08:39.367807 11595 layer_factory.hpp:77] Creating layer relu2
I0720 12:08:39.367823 11595 net.cpp:91] Creating Layer relu2
I0720 12:08:39.367831 11595 net.cpp:425] relu2 <- conv2
I0720 12:08:39.367841 11595 net.cpp:386] relu2 -> conv2 (in-place)
I0720 12:08:39.369403 11595 net.cpp:141] Setting up relu2
I0720 12:08:39.369423 11595 net.cpp:148] Top shape: 10 256 27 27 (1866240)
I0720 12:08:39.369429 11595 net.cpp:156] Memory required for data: 49944120
I0720 12:08:39.369436 11595 layer_factory.hpp:77] Creating layer pool2
I0720 12:08:39.369447 11595 net.cpp:91] Creating Layer pool2
I0720 12:08:39.369453 11595 net.cpp:425] pool2 <- conv2
I0720 12:08:39.369463 11595 net.cpp:399] pool2 -> pool2
I0720 12:08:39.369469 11583 net.cpp:141] Setting up conv3
I0720 12:08:39.369489 11583 net.cpp:148] Top shape: 10 384 13 13 (648960)
I0720 12:08:39.369495 11583 net.cpp:156] Memory required for data: 56001080
I0720 12:08:39.369514 11583 layer_factory.hpp:77] Creating layer relu3
I0720 12:08:39.369525 11583 net.cpp:91] Creating Layer relu3
I0720 12:08:39.369531 11583 net.cpp:425] relu3 <- conv3
I0720 12:08:39.369541 11583 net.cpp:386] relu3 -> conv3 (in-place)
I0720 12:08:39.369570 11595 net.cpp:141] Setting up pool2
I0720 12:08:39.369582 11595 net.cpp:148] Top shape: 10 256 13 13 (432640)
I0720 12:08:39.369587 11595 net.cpp:156] Memory required for data: 51674680
I0720 12:08:39.369592 11595 layer_factory.hpp:77] Creating layer norm2
I0720 12:08:39.369607 11595 net.cpp:91] Creating Layer norm2
I0720 12:08:39.369613 11595 net.cpp:425] norm2 <- pool2
I0720 12:08:39.369621 11595 net.cpp:399] norm2 -> norm2
I0720 12:08:39.370482 11595 net.cpp:141] Setting up norm2
I0720 12:08:39.370496 11595 net.cpp:148] Top shape: 10 256 13 13 (432640)
I0720 12:08:39.370502 11595 net.cpp:156] Memory required for data: 53405240
I0720 12:08:39.370507 11595 layer_factory.hpp:77] Creating layer conv3
I0720 12:08:39.370523 11595 net.cpp:91] Creating Layer conv3
I0720 12:08:39.370529 11595 net.cpp:425] conv3 <- norm2
I0720 12:08:39.370537 11595 net.cpp:399] conv3 -> conv3
I0720 12:08:39.370558 11583 net.cpp:141] Setting up relu3
I0720 12:08:39.370573 11583 net.cpp:148] Top shape: 10 384 13 13 (648960)
I0720 12:08:39.370579 11583 net.cpp:156] Memory required for data: 58596920
I0720 12:08:39.370584 11583 layer_factory.hpp:77] Creating layer conv4
I0720 12:08:39.370599 11583 net.cpp:91] Creating Layer conv4
I0720 12:08:39.370604 11583 net.cpp:425] conv4 <- conv3
I0720 12:08:39.370612 11583 net.cpp:399] conv4 -> conv4
I0720 12:08:39.380252 11595 net.cpp:141] Setting up conv3
I0720 12:08:39.380296 11595 net.cpp:148] Top shape: 10 384 13 13 (648960)
I0720 12:08:39.380303 11595 net.cpp:156] Memory required for data: 56001080
I0720 12:08:39.380324 11595 layer_factory.hpp:77] Creating layer relu3
I0720 12:08:39.380342 11595 net.cpp:91] Creating Layer relu3
I0720 12:08:39.380349 11595 net.cpp:425] relu3 <- conv3
I0720 12:08:39.380358 11595 net.cpp:386] relu3 -> conv3 (in-place)
I0720 12:08:39.381856 11595 net.cpp:141] Setting up relu3
I0720 12:08:39.381875 11595 net.cpp:148] Top shape: 10 384 13 13 (648960)
I0720 12:08:39.381880 11595 net.cpp:156] Memory required for data: 58596920
I0720 12:08:39.381886 11595 layer_factory.hpp:77] Creating layer conv4
I0720 12:08:39.381902 11595 net.cpp:91] Creating Layer conv4
I0720 12:08:39.381908 11595 net.cpp:425] conv4 <- conv3
I0720 12:08:39.381916 11595 net.cpp:399] conv4 -> conv4
I0720 12:08:39.386103 11583 net.cpp:141] Setting up conv4
I0720 12:08:39.386137 11583 net.cpp:148] Top shape: 10 384 13 13 (648960)
I0720 12:08:39.386144 11583 net.cpp:156] Memory required for data: 61192760
I0720 12:08:39.386157 11583 layer_factory.hpp:77] Creating layer relu4
I0720 12:08:39.386168 11583 net.cpp:91] Creating Layer relu4
I0720 12:08:39.386175 11583 net.cpp:425] relu4 <- conv4
I0720 12:08:39.386183 11583 net.cpp:386] relu4 -> conv4 (in-place)
I0720 12:08:39.387188 11583 net.cpp:141] Setting up relu4
I0720 12:08:39.387210 11583 net.cpp:148] Top shape: 10 384 13 13 (648960)
I0720 12:08:39.387217 11583 net.cpp:156] Memory required for data: 63788600
I0720 12:08:39.387223 11583 layer_factory.hpp:77] Creating layer conv5
I0720 12:08:39.387235 11583 net.cpp:91] Creating Layer conv5
I0720 12:08:39.387241 11583 net.cpp:425] conv5 <- conv4
I0720 12:08:39.387261 11583 net.cpp:399] conv5 -> conv5
I0720 12:08:39.394048 11595 net.cpp:141] Setting up conv4
I0720 12:08:39.394083 11595 net.cpp:148] Top shape: 10 384 13 13 (648960)
I0720 12:08:39.394090 11595 net.cpp:156] Memory required for data: 61192760
I0720 12:08:39.394104 11595 layer_factory.hpp:77] Creating layer relu4
I0720 12:08:39.394119 11595 net.cpp:91] Creating Layer relu4
I0720 12:08:39.394126 11595 net.cpp:425] relu4 <- conv4
I0720 12:08:39.394134 11595 net.cpp:386] relu4 -> conv4 (in-place)
I0720 12:08:39.395390 11595 net.cpp:141] Setting up relu4
I0720 12:08:39.395409 11595 net.cpp:148] Top shape: 10 384 13 13 (648960)
I0720 12:08:39.395414 11595 net.cpp:156] Memory required for data: 63788600
I0720 12:08:39.395421 11595 layer_factory.hpp:77] Creating layer conv5
I0720 12:08:39.395437 11595 net.cpp:91] Creating Layer conv5
I0720 12:08:39.395443 11595 net.cpp:425] conv5 <- conv4
I0720 12:08:39.395454 11595 net.cpp:399] conv5 -> conv5
I0720 12:08:39.397145 11585 net.cpp:141] Setting up lstm2_x_transform
I0720 12:08:39.397166 11585 net.cpp:148] Top shape: 1 1 4000 (4000)
I0720 12:08:39.397171 11585 net.cpp:156] Memory required for data: 30020
I0720 12:08:39.397186 11585 layer_factory.hpp:77] Creating layer lstm2_W_xc_x_slice
I0720 12:08:39.397197 11585 net.cpp:91] Creating Layer lstm2_W_xc_x_slice
I0720 12:08:39.397204 11585 net.cpp:425] lstm2_W_xc_x_slice <- W_xc_x
I0720 12:08:39.397215 11585 net.cpp:399] lstm2_W_xc_x_slice -> W_xc_x_1
I0720 12:08:39.398823 11585 net.cpp:141] Setting up lstm2_W_xc_x_slice
I0720 12:08:39.398839 11585 net.cpp:148] Top shape: 1 1 4000 (4000)
I0720 12:08:39.398844 11585 net.cpp:156] Memory required for data: 46020
I0720 12:08:39.398850 11585 layer_factory.hpp:77] Creating layer lstm2_h_conted_0
I0720 12:08:39.398865 11585 net.cpp:91] Creating Layer lstm2_h_conted_0
I0720 12:08:39.398871 11585 net.cpp:425] lstm2_h_conted_0 <- h_0
I0720 12:08:39.398879 11585 net.cpp:425] lstm2_h_conted_0 <- cont_1_lstm2_cont_slice_0_split_0
I0720 12:08:39.398885 11585 net.cpp:399] lstm2_h_conted_0 -> h_conted_0
I0720 12:08:39.399762 11585 net.cpp:141] Setting up lstm2_h_conted_0
I0720 12:08:39.399777 11585 net.cpp:148] Top shape: 1 1 1000 (1000)
I0720 12:08:39.399782 11585 net.cpp:156] Memory required for data: 50020
I0720 12:08:39.399788 11585 layer_factory.hpp:77] Creating layer lstm2_transform_1
I0720 12:08:39.399801 11585 net.cpp:91] Creating Layer lstm2_transform_1
I0720 12:08:39.399806 11585 net.cpp:425] lstm2_transform_1 <- h_conted_0
I0720 12:08:39.399817 11585 net.cpp:399] lstm2_transform_1 -> W_hc_h_0
I0720 12:08:39.399832 11583 net.cpp:141] Setting up conv5
I0720 12:08:39.399853 11583 net.cpp:148] Top shape: 10 256 13 13 (432640)
I0720 12:08:39.399859 11583 net.cpp:156] Memory required for data: 65519160
I0720 12:08:39.399874 11583 layer_factory.hpp:77] Creating layer relu5
I0720 12:08:39.399885 11583 net.cpp:91] Creating Layer relu5
I0720 12:08:39.399891 11583 net.cpp:425] relu5 <- conv5
I0720 12:08:39.399899 11583 net.cpp:386] relu5 -> conv5 (in-place)
I0720 12:08:39.411070 11583 net.cpp:141] Setting up relu5
I0720 12:08:39.411119 11583 net.cpp:148] Top shape: 10 256 13 13 (432640)
I0720 12:08:39.411125 11583 net.cpp:156] Memory required for data: 67249720
I0720 12:08:39.411139 11583 layer_factory.hpp:77] Creating layer pool5
I0720 12:08:39.411157 11583 net.cpp:91] Creating Layer pool5
I0720 12:08:39.411164 11583 net.cpp:425] pool5 <- conv5
I0720 12:08:39.411180 11583 net.cpp:399] pool5 -> pool5
I0720 12:08:39.411483 11589 net.cpp:141] Setting up lstm2_x_transform
I0720 12:08:39.411516 11589 net.cpp:148] Top shape: 1 1 4000 (4000)
I0720 12:08:39.411521 11589 net.cpp:156] Memory required for data: 30020
I0720 12:08:39.411545 11589 layer_factory.hpp:77] Creating layer lstm2_W_xc_x_slice
I0720 12:08:39.411562 11589 net.cpp:91] Creating Layer lstm2_W_xc_x_slice
I0720 12:08:39.411568 11589 net.cpp:425] lstm2_W_xc_x_slice <- W_xc_x
I0720 12:08:39.411577 11589 net.cpp:399] lstm2_W_xc_x_slice -> W_xc_x_1
I0720 12:08:39.411679 11583 net.cpp:141] Setting up pool5
I0720 12:08:39.411695 11583 net.cpp:148] Top shape: 10 256 6 6 (92160)
I0720 12:08:39.411700 11583 net.cpp:156] Memory required for data: 67618360
I0720 12:08:39.411705 11583 layer_factory.hpp:77] Creating layer fc6
I0720 12:08:39.411720 11583 net.cpp:91] Creating Layer fc6
I0720 12:08:39.411725 11583 net.cpp:425] fc6 <- pool5
I0720 12:08:39.411737 11583 net.cpp:399] fc6 -> fc6
I0720 12:08:39.411742 11589 net.cpp:141] Setting up lstm2_W_xc_x_slice
I0720 12:08:39.411756 11589 net.cpp:148] Top shape: 1 1 4000 (4000)
I0720 12:08:39.411759 11589 net.cpp:156] Memory required for data: 46020
I0720 12:08:39.411763 11589 layer_factory.hpp:77] Creating layer lstm2_h_conted_0
I0720 12:08:39.411774 11589 net.cpp:91] Creating Layer lstm2_h_conted_0
I0720 12:08:39.411779 11589 net.cpp:425] lstm2_h_conted_0 <- h_0
I0720 12:08:39.411785 11589 net.cpp:425] lstm2_h_conted_0 <- cont_1_lstm2_cont_slice_0_split_0
I0720 12:08:39.411792 11589 net.cpp:399] lstm2_h_conted_0 -> h_conted_0
I0720 12:08:39.488931 11585 net.cpp:141] Setting up lstm2_transform_1
I0720 12:08:39.488986 11585 net.cpp:148] Top shape: 1 1 4000 (4000)
I0720 12:08:39.488991 11585 net.cpp:156] Memory required for data: 66020
I0720 12:08:39.489015 11585 layer_factory.hpp:77] Creating layer lstm2_gate_input_1
I0720 12:08:39.489037 11585 net.cpp:91] Creating Layer lstm2_gate_input_1
I0720 12:08:39.489044 11585 net.cpp:425] lstm2_gate_input_1 <- W_hc_h_0
I0720 12:08:39.489054 11585 net.cpp:425] lstm2_gate_input_1 <- W_xc_x_1
I0720 12:08:39.489063 11585 net.cpp:399] lstm2_gate_input_1 -> gate_input_1
I0720 12:08:39.489056 11589 net.cpp:141] Setting up lstm2_h_conted_0
I0720 12:08:39.489095 11589 net.cpp:148] Top shape: 1 1 1000 (1000)
I0720 12:08:39.489101 11589 net.cpp:156] Memory required for data: 50020
I0720 12:08:39.489109 11589 layer_factory.hpp:77] Creating layer lstm2_transform_1
I0720 12:08:39.489130 11589 net.cpp:91] Creating Layer lstm2_transform_1
I0720 12:08:39.489136 11589 net.cpp:425] lstm2_transform_1 <- h_conted_0
I0720 12:08:39.489147 11589 net.cpp:399] lstm2_transform_1 -> W_hc_h_0
I0720 12:08:39.489253 11585 net.cpp:141] Setting up lstm2_gate_input_1
I0720 12:08:39.489267 11585 net.cpp:148] Top shape: 1 1 4000 (4000)
I0720 12:08:39.489271 11585 net.cpp:156] Memory required for data: 82020
I0720 12:08:39.489277 11585 layer_factory.hpp:77] Creating layer lstm2_unit_1
I0720 12:08:39.489287 11585 net.cpp:91] Creating Layer lstm2_unit_1
I0720 12:08:39.489292 11585 net.cpp:425] lstm2_unit_1 <- c_0
I0720 12:08:39.489300 11585 net.cpp:425] lstm2_unit_1 <- gate_input_1
I0720 12:08:39.489305 11585 net.cpp:425] lstm2_unit_1 <- cont_1_lstm2_cont_slice_0_split_1
I0720 12:08:39.489315 11585 net.cpp:399] lstm2_unit_1 -> c_1
I0720 12:08:39.489326 11585 net.cpp:399] lstm2_unit_1 -> h_1
I0720 12:08:39.500437 11585 net.cpp:141] Setting up lstm2_unit_1
I0720 12:08:39.500494 11585 net.cpp:148] Top shape: 1 1 1000 (1000)
I0720 12:08:39.500501 11585 net.cpp:148] Top shape: 1 1 1000 (1000)
I0720 12:08:39.500507 11585 net.cpp:156] Memory required for data: 90020
I0720 12:08:39.500517 11585 layer_factory.hpp:77] Creating layer lstm2_
I0720 12:08:39.500533 11585 net.cpp:91] Creating Layer lstm2_
I0720 12:08:39.500540 11585 net.cpp:425] lstm2_ <- c_1
I0720 12:08:39.500553 11585 net.cpp:399] lstm2_ -> c_T
I0720 12:08:39.502529 11585 net.cpp:141] Setting up lstm2_
I0720 12:08:39.502575 11585 net.cpp:148] Top shape: 1 1 1000 (1000)
I0720 12:08:39.502583 11585 net.cpp:156] Memory required for data: 94020
I0720 12:08:39.502591 11585 layer_factory.hpp:77] Creating layer lstm2_h_concat
I0720 12:08:39.502609 11585 net.cpp:91] Creating Layer lstm2_h_concat
I0720 12:08:39.502616 11585 net.cpp:425] lstm2_h_concat <- h_1
I0720 12:08:39.502627 11585 net.cpp:399] lstm2_h_concat -> h
I0720 12:08:39.502955 11585 net.cpp:141] Setting up lstm2_h_concat
I0720 12:08:39.502969 11585 net.cpp:148] Top shape: 1 1 1000 (1000)
I0720 12:08:39.502974 11585 net.cpp:156] Memory required for data: 98020
I0720 12:08:39.502980 11585 layer_factory.hpp:77] Creating layer h_pseudoloss
I0720 12:08:39.502991 11585 net.cpp:91] Creating Layer h_pseudoloss
I0720 12:08:39.502996 11585 net.cpp:425] h_pseudoloss <- h
I0720 12:08:39.503007 11585 net.cpp:399] h_pseudoloss -> h_pseudoloss
I0720 12:08:39.503278 11585 net.cpp:141] Setting up h_pseudoloss
…
I0720 12:08:39.503386 11585 net.cpp:219] lstm2_ does not need backward computation.
I0720 12:08:39.503391 11585 net.cpp:261] This network produces output c_T
I0720 12:08:39.503396 11585 net.cpp:261] This network produces output h_pseudoloss
I0720 12:08:39.503414 11585 net.cpp:274] Network initialization done.
I0720 12:08:39.503476 11585 recurrent_layer.cpp:150] Adding parameter 0: W_xc
I0720 12:08:39.503484 11585 recurrent_layer.cpp:150] Adding parameter 1: b_c
I0720 12:08:39.503489 11585 recurrent_layer.cpp:150] Adding parameter 2: W_hc
I0720 12:08:39.503790 11585 net.cpp:141] Setting up lstm2
I0720 12:08:39.503804 11585 net.cpp:148] Top shape: 1 1 1000 (1000)
I0720 12:08:39.503809 11585 net.cpp:156] Memory required for data: 36412
I0720 12:08:39.503828 11585 layer_factory.hpp:77] Creating layer predict
I0720 12:08:39.503842 11585 net.cpp:91] Creating Layer predict
I0720 12:08:39.503850 11585 net.cpp:425] predict <- lstm2
I0720 12:08:39.503859 11585 net.cpp:399] predict -> predict
I0720 12:08:39.503909 11595 net.cpp:141] Setting up conv5
I0720 12:08:39.503933 11595 net.cpp:148] Top shape: 10 256 13 13 (432640)
I0720 12:08:39.503942 11595 net.cpp:156] Memory required for data: 65519160
I0720 12:08:39.503964 11595 layer_factory.hpp:77] Creating layer relu5
I0720 12:08:39.503990 11595 net.cpp:91] Creating Layer relu5
I0720 12:08:39.504001 11595 net.cpp:425] relu5 <- conv5
I0720 12:08:39.504014 11595 net.cpp:386] relu5 -> conv5 (in-place)
I0720 12:08:39.588987 11595 net.cpp:141] Setting up relu5
I0720 12:08:39.589049 11595 net.cpp:148] Top shape: 10 256 13 13 (432640)
I0720 12:08:39.589061 11595 net.cpp:156] Memory required for data: 67249720
I0720 12:08:39.589076 11595 layer_factory.hpp:77] Creating layer pool5
I0720 12:08:39.589099 11595 net.cpp:91] Creating Layer pool5
I0720 12:08:39.589112 11595 net.cpp:425] pool5 <- conv5
I0720 12:08:39.589131 11595 net.cpp:399] pool5 -> pool5
I0720 12:08:39.595506 11589 net.cpp:141] Setting up lstm2_transform_1
I0720 12:08:39.595566 11589 net.cpp:148] Top shape: 1 1 4000 (4000)
I0720 12:08:39.595571 11589 net.cpp:156] Memory required for data: 66020
I0720 12:08:39.595592 11589 layer_factory.hpp:77] Creating layer lstm2_gate_input_1
I0720 12:08:39.595626 11589 net.cpp:91] Creating Layer lstm2_gate_input_1
I0720 12:08:39.595633 11589 net.cpp:425] lstm2_gate_input_1 <- W_hc_h_0
I0720 12:08:39.595643 11589 net.cpp:425] lstm2_gate_input_1 <- W_xc_x_1
I0720 12:08:39.595654 11589 net.cpp:399] lstm2_gate_input_1 -> gate_input_1
I0720 12:08:39.600190 11595 net.cpp:141] Setting up pool5
I0720 12:08:39.600244 11595 net.cpp:148] Top shape: 10 256 6 6 (92160)
I0720 12:08:39.600253 11589 net.cpp:141] Setting up lstm2_gate_input_1
I0720 12:08:39.600256 11595 net.cpp:156] Memory required for data: 67618360
I0720 12:08:39.600275 11589 net.cpp:148] Top shape: 1 1 4000 (4000)
I0720 12:08:39.600291 11589 net.cpp:156] Memory required for data: 82020
I0720 12:08:39.600292 11595 layer_factory.hpp:77] Creating layer fc6
I0720 12:08:39.600297 11589 layer_factory.hpp:77] Creating layer lstm2_unit_1
I0720 12:08:39.600325 11589 net.cpp:91] Creating Layer lstm2_unit_1
I0720 12:08:39.600332 11589 net.cpp:425] lstm2_unit_1 <- c_0
I0720 12:08:39.600335 11595 net.cpp:91] Creating Layer fc6
I0720 12:08:39.600338 11589 net.cpp:425] lstm2_unit_1 <- gate_input_1
I0720 12:08:39.600353 11595 net.cpp:425] fc6 <- pool5
I0720 12:08:39.600358 11589 net.cpp:425] lstm2_unit_1 <- cont_1_lstm2_cont_slice_0_split_1
I0720 12:08:39.600368 11589 net.cpp:399] lstm2_unit_1 -> c_1
I0720 12:08:39.600376 11589 net.cpp:399] lstm2_unit_1 -> h_1
I0720 12:08:39.600376 11595 net.cpp:399] fc6 -> fc6
I0720 12:08:39.600670 11583 net.cpp:141] Setting up fc6
I0720 12:08:39.600692 11583 net.cpp:148] Top shape: 10 4096 (40960)
I0720 12:08:39.600697 11583 net.cpp:156] Memory required for data: 67782200
I0720 12:08:39.600710 11583 layer_factory.hpp:77] Creating layer relu6
I0720 12:08:39.600728 11583 net.cpp:91] Creating Layer relu6
I0720 12:08:39.600734 11583 net.cpp:425] relu6 <- fc6
I0720 12:08:39.600742 11583 net.cpp:386] relu6 -> fc6 (in-place)
I0720 12:08:39.667507 11583 net.cpp:141] Setting up relu6
I0720 12:08:39.667556 11583 net.cpp:148] Top shape: 10 4096 (40960)
I0720 12:08:39.667562 11583 net.cpp:156] Memory required for data: 67946040
I0720 12:08:39.667572 11583 layer_factory.hpp:77] Creating layer drop6
I0720 12:08:39.667601 11583 net.cpp:91] Creating Layer drop6
I0720 12:08:39.667608 11583 net.cpp:425] drop6 <- fc6
I0720 12:08:39.667623 11583 net.cpp:386] drop6 -> fc6 (in-place)
I0720 12:08:39.672478 11583 net.cpp:141] Setting up drop6
I0720 12:08:39.672503 11583 net.cpp:148] Top shape: 10 4096 (40960)
I0720 12:08:39.672509 11583 net.cpp:156] Memory required for data: 68109880
I0720 12:08:39.672516 11583 layer_factory.hpp:77] Creating layer fc7
I0720 12:08:39.672533 11583 net.cpp:91] Creating Layer fc7
I0720 12:08:39.672539 11583 net.cpp:425] fc7 <- fc6
I0720 12:08:39.672551 11583 net.cpp:399] fc7 -> fc7
I0720 12:08:39.676056 11589 net.cpp:141] Setting up lstm2_unit_1
I0720 12:08:39.676105 11589 net.cpp:148] Top shape: 1 1 1000 (1000)
I0720 12:08:39.676117 11589 net.cpp:148] Top shape: 1 1 1000 (1000)
I0720 12:08:39.676125 11589 net.cpp:156] Memory required for data: 90020
I0720 12:08:39.676136 11589 layer_factory.hpp:77] Creating layer lstm2_
I0720 12:08:39.676158 11589 net.cpp:91] Creating Layer lstm2_
I0720 12:08:39.676170 11589 net.cpp:425] lstm2_ <- c_1
I0720 12:08:39.676189 11589 net.cpp:399] lstm2_ -> c_T
I0720 12:08:39.710425 11589 net.cpp:141] Setting up lstm2_
I0720 12:08:39.710495 11589 net.cpp:148] Top shape: 1 1 1000 (1000)
I0720 12:08:39.710505 11589 net.cpp:156] Memory required for data: 94020
I0720 12:08:39.710520 11589 layer_factory.hpp:77] Creating layer lstm2_h_concat
I0720 12:08:39.710547 11589 net.cpp:91] Creating Layer lstm2_h_concat
I0720 12:08:39.710557 11589 net.cpp:425] lstm2_h_concat <- h_1
I0720 12:08:39.710585 11589 net.cpp:399] lstm2_h_concat -> h
I0720 12:08:39.713064 11589 net.cpp:141] Setting up lstm2_h_concat
I0720 12:08:39.713089 11589 net.cpp:148] Top shape: 1 1 1000 (1000)
I0720 12:08:39.713099 11589 net.cpp:156] Memory required for data: 98020
I0720 12:08:39.713106 11589 layer_factory.hpp:77] Creating layer h_pseudoloss
I0720 12:08:39.713124 11589 net.cpp:91] Creating Layer h_pseudoloss
I0720 12:08:39.713134 11589 net.cpp:425] h_pseudoloss <- h
I0720 12:08:39.713152 11589 net.cpp:399] h_pseudoloss -> h_pseudoloss
I0720 12:08:39.713420 11589 net.cpp:141] Setting up h_pseudoloss
…
I0720 12:08:39.713606 11589 net.cpp:219] lstm2_ does not need backward computation.
I0720 12:08:39.713613 11589 net.cpp:261] This network produces output c_T
I0720 12:08:39.713623 11589 net.cpp:261] This network produces output h_pseudoloss
I0720 12:08:39.713654 11589 net.cpp:274] Network initialization done.
I0720 12:08:39.713738 11589 recurrent_layer.cpp:150] Adding parameter 0: W_xc
I0720 12:08:39.713752 11589 recurrent_layer.cpp:150] Adding parameter 1: b_c
I0720 12:08:39.713762 11589 recurrent_layer.cpp:150] Adding parameter 2: W_hc
I0720 12:08:39.714016 11589 net.cpp:141] Setting up lstm2
I0720 12:08:39.714035 11589 net.cpp:148] Top shape: 1 1 1000 (1000)
I0720 12:08:39.714045 11589 net.cpp:156] Memory required for data: 36412
I0720 12:08:39.714072 11589 layer_factory.hpp:77] Creating layer predict
I0720 12:08:39.714097 11589 net.cpp:91] Creating Layer predict
I0720 12:08:39.714109 11589 net.cpp:425] predict <- lstm2
I0720 12:08:39.714125 11589 net.cpp:399] predict -> predict
I0720 12:08:39.796272 11583 net.cpp:141] Setting up fc7
I0720 12:08:39.796317 11583 net.cpp:148] Top shape: 10 4096 (40960)
I0720 12:08:39.796324 11583 net.cpp:156] Memory required for data: 68273720
I0720 12:08:39.796342 11583 layer_factory.hpp:77] Creating layer relu7
I0720 12:08:39.796342 11595 net.cpp:141] Setting up fc6
I0720 12:08:39.796360 11583 net.cpp:91] Creating Layer relu7
I0720 12:08:39.796367 11583 net.cpp:425] relu7 <- fc7
I0720 12:08:39.796368 11595 net.cpp:148] Top shape: 10 4096 (40960)
I0720 12:08:39.796375 11595 net.cpp:156] Memory required for data: 67782200
I0720 12:08:39.796377 11583 net.cpp:386] relu7 -> fc7 (in-place)
I0720 12:08:39.796387 11595 layer_factory.hpp:77] Creating layer relu6
I0720 12:08:39.796398 11595 net.cpp:91] Creating Layer relu6
I0720 12:08:39.796404 11595 net.cpp:425] relu6 <- fc6
I0720 12:08:39.796412 11595 net.cpp:386] relu6 -> fc6 (in-place)
I0720 12:08:39.796803 11595 net.cpp:141] Setting up relu6
I0720 12:08:39.796818 11595 net.cpp:148] Top shape: 10 4096 (40960)
I0720 12:08:39.796823 11595 net.cpp:156] Memory required for data: 67946040
I0720 12:08:39.796828 11595 layer_factory.hpp:77] Creating layer drop6
I0720 12:08:39.796839 11595 net.cpp:91] Creating Layer drop6
I0720 12:08:39.796844 11595 net.cpp:425] drop6 <- fc6
I0720 12:08:39.796854 11595 net.cpp:386] drop6 -> fc6 (in-place)
I0720 12:08:39.797785 11595 net.cpp:141] Setting up drop6
I0720 12:08:39.797796 11595 net.cpp:148] Top shape: 10 4096 (40960)
I0720 12:08:39.797801 11595 net.cpp:156] Memory required for data: 68109880
I0720 12:08:39.797806 11595 layer_factory.hpp:77] Creating layer fc7
I0720 12:08:39.797817 11595 net.cpp:91] Creating Layer fc7
I0720 12:08:39.797826 11595 net.cpp:425] fc7 <- fc6
I0720 12:08:39.797833 11595 net.cpp:399] fc7 -> fc7
I0720 12:08:39.797992 11583 net.cpp:141] Setting up relu7
I0720 12:08:39.798007 11583 net.cpp:148] Top shape: 10 4096 (40960)
I0720 12:08:39.798012 11583 net.cpp:156] Memory required for data: 68437560
I0720 12:08:39.798018 11583 layer_factory.hpp:77] Creating layer drop7
I0720 12:08:39.798028 11583 net.cpp:91] Creating Layer drop7
I0720 12:08:39.798033 11583 net.cpp:425] drop7 <- fc7
I0720 12:08:39.826967 11583 net.cpp:386] drop7 -> fc7 (in-place)
I0720 12:08:39.830071 11583 net.cpp:141] Setting up drop7
I0720 12:08:39.830091 11583 net.cpp:148] Top shape: 10 4096 (40960)
I0720 12:08:39.830097 11583 net.cpp:156] Memory required for data: 68601400
I0720 12:08:39.830106 11583 layer_factory.hpp:77] Creating layer fc8
I0720 12:08:39.830122 11583 net.cpp:91] Creating Layer fc8
I0720 12:08:39.830128 11583 net.cpp:425] fc8 <- fc7
I0720 12:08:39.830143 11583 net.cpp:399] fc8 -> fc8
I0720 12:08:39.848183 11583 net.cpp:141] Setting up fc8
I0720 12:08:39.848237 11583 net.cpp:148] Top shape: 10 1000 (10000)
I0720 12:08:39.848242 11583 net.cpp:156] Memory required for data: 68641400
I0720 12:08:39.848258 11583 layer_factory.hpp:77] Creating layer prob
I0720 12:08:39.848276 11583 net.cpp:91] Creating Layer prob
I0720 12:08:39.848284 11583 net.cpp:425] prob <- fc8
I0720 12:08:39.848299 11583 net.cpp:399] prob -> prob
I0720 12:08:39.848898 11583 net.cpp:141] Setting up prob
I0720 12:08:39.848912 11583 net.cpp:148] Top shape: 10 1000 (10000)
I0720 12:08:39.848917 11583 net.cpp:156] Memory required for data: 68681400
I0720 12:08:39.848923 11583 net.cpp:219] prob does not need backward computation.
I0720 12:08:39.848928 11583 net.cpp:219] fc8 does not need backward computation.
I0720 12:08:39.848933 11583 net.cpp:219] drop7 does not need backward computation.
I0720 12:08:39.848938 11583 net.cpp:219] relu7 does not need backward computation.
…
I0720 12:08:39.849010 11583 net.cpp:219] norm1 does not need backward computation.
I0720 12:08:39.849015 11583 net.cpp:219] pool1 does not need backward computation.
I0720 12:08:39.849020 11583 net.cpp:219] relu1 does not need backward computation.
I0720 12:08:39.849023 11583 net.cpp:219] conv1 does not need backward computation.
I0720 12:08:39.849028 11583 net.cpp:219] data does not need backward computation.
I0720 12:08:39.849032 11583 net.cpp:261] This network produces output prob
I0720 12:08:39.849053 11583 net.cpp:274] Network initialization done.
I0720 12:08:39.851806 11595 net.cpp:141] Setting up fc7
I0720 12:08:39.851848 11595 net.cpp:148] Top shape: 10 4096 (40960)
I0720 12:08:39.851855 11595 net.cpp:156] Memory required for data: 68273720
I0720 12:08:39.851868 11595 layer_factory.hpp:77] Creating layer relu7
I0720 12:08:39.851883 11595 net.cpp:91] Creating Layer relu7
I0720 12:08:39.851891 11595 net.cpp:425] relu7 <- fc7
I0720 12:08:39.851900 11595 net.cpp:386] relu7 -> fc7 (in-place)
I0720 12:08:39.853519 11595 net.cpp:141] Setting up relu7
I0720 12:08:39.853540 11595 net.cpp:148] Top shape: 10 4096 (40960)
I0720 12:08:39.853546 11595 net.cpp:156] Memory required for data: 68437560
I0720 12:08:39.853552 11595 layer_factory.hpp:77] Creating layer drop7
I0720 12:08:39.853567 11595 net.cpp:91] Creating Layer drop7
I0720 12:08:39.853574 11595 net.cpp:425] drop7 <- fc7
I0720 12:08:39.853580 11595 net.cpp:386] drop7 -> fc7 (in-place)
I0720 12:08:39.853660 11595 net.cpp:141] Setting up drop7
I0720 12:08:39.853672 11595 net.cpp:148] Top shape: 10 4096 (40960)
I0720 12:08:39.853678 11595 net.cpp:156] Memory required for data: 68601400
I0720 12:08:39.853683 11595 layer_factory.hpp:77] Creating layer fc8
I0720 12:08:39.853694 11595 net.cpp:91] Creating Layer fc8
I0720 12:08:39.853699 11595 net.cpp:425] fc8 <- fc7
I0720 12:08:39.853706 11595 net.cpp:399] fc8 -> fc8
I0720 12:08:39.868882 11595 net.cpp:141] Setting up fc8
I0720 12:08:39.868932 11595 net.cpp:148] Top shape: 10 1000 (10000)
I0720 12:08:39.868937 11595 net.cpp:156] Memory required for data: 68641400
I0720 12:08:39.868952 11595 layer_factory.hpp:77] Creating layer prob
I0720 12:08:39.868968 11595 net.cpp:91] Creating Layer prob
I0720 12:08:39.868975 11595 net.cpp:425] prob <- fc8
I0720 12:08:39.868984 11595 net.cpp:399] prob -> prob
I0720 12:08:39.870100 11595 net.cpp:141] Setting up prob
I0720 12:08:39.870122 11595 net.cpp:148] Top shape: 10 1000 (10000)
I0720 12:08:39.870128 11595 net.cpp:156] Memory required for data: 68681400
I0720 12:08:39.870134 11595 net.cpp:219] prob does not need backward computation.
I0720 12:08:39.870139 11595 net.cpp:219] fc8 does not need backward computation.
I0720 12:08:39.870144 11595 net.cpp:219] drop7 does not need backward computation.
I0720 12:08:39.870149 11595 net.cpp:219] relu7 does not need backward computation.
…
