…
W0925 22:59:47.161131 18353 upgrade_proto.cpp:71] Note that future Caffe releases will only support input layers and not input fields.
I0925 22:59:47.161404 18373 net.cpp:49] Initializing net from parameters: 
name: "s2vt:features_to_lstm"
state {
  phase: TEST
}
layer {
  name: "input"
  type: "Input"
  top: "frames_fc7"
  top: "cont_sentence"
  top: "input_sentence"
  top: "stage_indicator"
  input_param {
    shape {
      dim: 1
      dim: 4096
    }
    shape {
      dim: 1
      dim: 1
    }
    shape {
      dim: 1
      dim: 1
    }
    shape {
      dim: 1
      dim: 1
    }
  }
}
layer {
  name: "embed_encoder"
  type: "InnerProduct"
  bottom: "frames_fc7"
  top: "embedded_in_frames"
  param {
    lr_mult: 1
    decay_mult: 1
  }
  param {
    lr_mult: 2
    decay_mult: 0
  }
  inner_product_param {
    num_output: 500
    weight_filler {
      type: "xavier"
    }
    bias_filler {
      type: "constant"
      value: 0.2
    }
  }
}
layer {
  name: "reshape_frames"
  type: "Reshape"
  bottom: "embedded_in_frames"
  top: "embedded_input_frames"
  reshape_param {
    shape {
      dim: 1
      dim: 1
      dim: 500
    }
  }
}
layer {
  name: "reshape_stage_indicator"
  type: "Reshape"
  bottom: "stage_indicator"
  top: "reshaped_stage_indicator"
  reshape_param {
    shape {
      dim: 1
      dim: 1
      dim: 1
    }
  }
}
layer {
  name: "embedding"
  type: "Embed"
  bottom: "input_sentence"
  top: "embedded_input_sentence"
  param {
    lr_mult: 1
  }
  embed_param {
    num_output: 500
    input_dim: 46168
    bias_term: false
    weight_filler {
      type: "uniform"
      min: -0.08
      max: 0.08
    }
  }
}
layer {
  name: "lstm1"
  type: "LSTM"
  bottom: "embedded_input_frames"
  bottom: "cont_sentence"
  top: "lstm1"
  recurrent_param {
    num_output: 1000
    weight_filler {
      type: "uniform"
      min: -0.08
      max: 0.08
    }
    bias_filler {
      type: "constant"
      value: 0
    }
  }
}
layer {
  name: "concat"
  type: "Concat"
  bottom: "lstm1"
  bottom: "embedded_input_sentence"
  bottom: "reshaped_stage_indicator"
  top: "lstm1_video_sequence"
  concat_param {
    concat_dim: 2
  }
}
layer {
  name: "lstm2"
  type: "LSTM"
  bottom: "lstm1_video_sequence"
  bottom: "cont_sentence"
  top: "lstm2"
  recurrent_param {
    num_output: 1000
    weight_filler {
      type: "uniform"
      min: -0.08
      max: 0.08
    }
    bias_filler {
      type: "constant"
      value: 0
    }
  }
}
layer {
  name: "predict"
  type: "InnerProduct"
  bottom: "lstm2"
  top: "predict"
  param {
    lr_mult: 1
    decay_mult: 1
  }
  param {
    lr_mult: 2
    decay_mult: 0
  }
  inner_product_param {
    num_output: 46168
    weight_filler {
      type: "uniform"
      min: -0.08
      max: 0.08
    }
    bias_filler {
      type: "constant"
      value: 0
    }
    axis: 2
  }
}
layer {
  name: "probs"
  type: "Softmax"
  bottom: "predict"
  top: "probs"
  softmax_param {
    axis: 2
  }
}
I0925 22:59:47.161409 18349 net.cpp:49] Initializing net from parameters: 
name: "s2vt:features_to_lstm"
state {
  phase: TEST
}
layer {
  name: "input"
  type: "Input"
  top: "frames_fc7"
  top: "cont_sentence"
  top: "input_sentence"
  top: "stage_indicator"
  input_param {
    shape {
      dim: 1
      dim: 4096
    }
    shape {
      dim: 1
      dim: 1
    }
    shape {
      dim: 1
      dim: 1
    }
    shape {
      dim: 1
      dim: 1
    }
  }
}
layer {
  name: "embed_encoder"
  type: "InnerProduct"
  bottom: "frames_fc7"
  top: "embedded_in_frames"
  param {
    lr_mult: 1
    decay_mult: 1
  }
  param {
    lr_mult: 2
    decay_mult: 0
  }
  inner_product_param {
    num_output: 500
    weight_filler {
      type: "xavier"
    }
    bias_filler {
      type: "constant"
      value: 0.2
    }
  }
}
layer {
  name: "reshape_frames"
  type: "Reshape"
  bottom: "embedded_in_frames"
  top: "embedded_input_frames"
  reshape_param {
    shape {
      dim: 1
      dim: 1
      dim: 500
    }
  }
}
layer {
  name: "reshape_stage_indicator"
  type: "Reshape"
  bottom: "stage_indicator"
  top: "reshaped_stage_indicator"
  reshape_param {
    shape {
      dim: 1
      dim: 1
      dim: 1
    }
  }
}
layer {
  name: "embedding"
  type: "Embed"
  bottom: "input_sentence"
  top: "embedded_input_sentence"
  param {
    lr_mult: 1
  }
  embed_param {
    num_output: 500
    input_dim: 46168
    bias_term: false
    weight_filler {
      type: "uniform"
      min: -0.08
      max: 0.08
    }
  }
}
layer {
  name: "lstm1"
  type: "LSTM"
  bottom: "embedded_input_frames"
  bottom: "cont_sentence"
  top: "lstm1"
  recurrent_param {
    num_output: 1000
    weight_filler {
      type: "uniform"
      min: -0.08
      max: 0.08
    }
    bias_filler {
      type: "constant"
      value: 0
    }
  }
}
layer {
  name: "concat"
  type: "Concat"
  bottom: "lstm1"
  bottom: "embedded_input_sentence"
  bottom: "reshaped_stage_indicator"
  top: "lstm1_video_sequence"
  concat_param {
    concat_dim: 2
  }
}
layer {
  name: "lstm2"
  type: "LSTM"
  bottom: "lstm1_video_sequence"
  bottom: "cont_sentence"
  top: "lstm2"
  recurrent_param {
    num_output: 1000
    weight_filler {
      type: "uniform"
      min: -0.08
      max: 0.08
    }
    bias_filler {
      type: "constant"
      value: 0
    }
  }
}
layer {
  name: "predict"
  type: "InnerProduct"
  bottom: "lstm2"
  top: "predict"
  param {
    lr_mult: 1
    decay_mult: 1
  }
  param {
    lr_mult: 2
    decay_mult: 0
  }
  inner_product_param {
    num_output: 46168
    weight_filler {
      type: "uniform"
      min: -0.08
      max: 0.08
    }
    bias_filler {
      type: "constant"
      value: 0
    }
    axis: 2
  }
}
layer {
  name: "probs"
  type: "Softmax"
  bottom: "predict"
  top: "probs"
  softmax_param {
    axis: 2
  }
}
I0925 22:59:47.161411 18367 net.cpp:49] Initializing net from parameters: 
name: "s2vt:features_to_lstm"
state {
  phase: TEST
}
layer {
  name: "input"
  type: "Input"
  top: "frames_fc7"
  top: "cont_sentence"
  top: "input_sentence"
  top: "stage_indicator"
  input_param {
    shape {
      dim: 1
      dim: 4096
    }
    shape {
      dim: 1
      dim: 1
    }
    shape {
      dim: 1
      dim: 1
    }
    shape {
      dim: 1
      dim: 1
    }
  }
}
layer {
  name: "embed_encoder"
  type: "InnerProduct"
  bottom: "frames_fc7"
  top: "embedded_in_frames"
  param {
    lr_mult: 1
    decay_mult: 1
  }
  param {
    lr_mult: 2
    decay_mult: 0
  }
  inner_product_param {
    num_output: 500
    weight_filler {
      type: "xavier"
    }
    bias_filler {
      type: "constant"
      value: 0.2
    }
  }
}
layer {
  name: "reshape_frames"
  type: "Reshape"
  bottom: "embedded_in_frames"
  top: "embedded_input_frames"
  reshape_param {
    shape {
      dim: 1
      dim: 1
      dim: 500
    }
  }
}
layer {
  name: "reshape_stage_indicator"
  type: "Reshape"
  bottom: "stage_indicator"
  top: "reshaped_stage_indicator"
  reshape_param {
    shape {
      dim: 1
      dim: 1
      dim: 1
    }
  }
}
layer {
  name: "embedding"
  type: "Embed"
  bottom: "input_sentence"
  top: "embedded_input_sentence"
  param {
    lr_mult: 1
  }
  embed_param {
    num_output: 500
    input_dim: 46168
    bias_term: false
    weight_filler {
      type: "uniform"
      min: -0.08
      max: 0.08
    }
  }
}
layer {
  name: "lstm1"
  type: "LSTM"
  bottom: "embedded_input_frames"
  bottom: "cont_sentence"
  top: "lstm1"
  recurrent_param {
    num_output: 1000
    weight_filler {
      type: "uniform"
      min: -0.08
      max: 0.08
    }
    bias_filler {
      type: "constant"
      value: 0
    }
  }
}
layer {
  name: "concat"
  type: "Concat"
  bottom: "lstm1"
  bottom: "embedded_input_sentence"
  bottom: "reshaped_stage_indicator"
  top: "lstm1_video_sequence"
  concat_param {
    concat_dim: 2
  }
}
layer {
  name: "lstm2"
  type: "LSTM"
  bottom: "lstm1_video_sequence"
  bottom: "cont_sentence"
  top: "lstm2"
  recurrent_param {
    num_output: 1000
    weight_filler {
      type: "uniform"
      min: -0.08
      max: 0.08
    }
    bias_filler {
      type: "constant"
      value: 0
    }
  }
}
layer {
  name: "predict"
  type: "InnerProduct"
  bottom: "lstm2"
  top: "predict"
  param {
    lr_mult: 1
    decay_mult: 1
  }
  param {
    lr_mult: 2
    decay_mult: 0
  }
  inner_product_param {
    num_output: 46168
    weight_filler {
      type: "uniform"
      min: -0.08
      max: 0.08
    }
    bias_filler {
      type: "constant"
      value: 0
    }
    axis: 2
  }
}
layer {
  name: "probs"
  type: "Softmax"
  bottom: "predict"
  top: "probs"
  softmax_param {
    axis: 2
  }
}
I0925 22:59:47.161411 18355 net.cpp:49] Initializing net from parameters: 
name: "s2vt:features_to_lstm"
state {
  phase: TEST
}
layer {
  name: "input"
  type: "Input"
  top: "frames_fc7"
  top: "cont_sentence"
  top: "input_sentence"
  top: "stage_indicator"
  input_param {
    shape {
      dim: 1
      dim: 4096
    }
    shape {
      dim: 1
      dim: 1
    }
    shape {
      dim: 1
      dim: 1
    }
    shape {
      dim: 1
      dim: 1
    }
  }
}
layer {
  name: "embed_encoder"
  type: "InnerProduct"
  bottom: "frames_fc7"
  top: "embedded_in_frames"
  param {
    lr_mult: 1
    decay_mult: 1
  }
  param {
    lr_mult: 2
    decay_mult: 0
  }
  inner_product_param {
    num_output: 500
    weight_filler {
      type: "xavier"
    }
    bias_filler {
      type: "constant"
      value: 0.2
    }
  }
}
layer {
  name: "reshape_frames"
  type: "Reshape"
  bottom: "embedded_in_frames"
  top: "embedded_input_frames"
  reshape_param {
    shape {
      dim: 1
      dim: 1
      dim: 500
    }
  }
}
layer {
  name: "reshape_stage_indicator"
  type: "Reshape"
  bottom: "stage_indicator"
  top: "reshaped_stage_indicator"
  reshape_param {
    shape {
      dim: 1
      dim: 1
      dim: 1
    }
  }
}
layer {
  name: "embedding"
  type: "Embed"
  bottom: "input_sentence"
  top: "embedded_input_sentence"
  param {
    lr_mult: 1
  }
  embed_param {
    num_output: 500
    input_dim: 46168
    bias_term: false
    weight_filler {
      type: "uniform"
      min: -0.08
      max: 0.08
    }
  }
}
layer {
  name: "lstm1"
  type: "LSTM"
  bottom: "embedded_input_frames"
  bottom: "cont_sentence"
  top: "lstm1"
  recurrent_param {
    num_output: 1000
    weight_filler {
      type: "uniform"
      min: -0.08
      max: 0.08
    }
    bias_filler {
      type: "constant"
      value: 0
    }
  }
}
layer {
  name: "concat"
  type: "Concat"
  bottom: "lstm1"
  bottom: "embedded_input_sentence"
  bottom: "reshaped_stage_indicator"
  top: "lstm1_video_sequence"
  concat_param {
    concat_dim: 2
  }
}
layer {
  name: "lstm2"
  type: "LSTM"
  bottom: "lstm1_video_sequence"
  bottom: "cont_sentence"
  top: "lstm2"
  recurrent_param {
    num_output: 1000
    weight_filler {
      type: "uniform"
      min: -0.08
      max: 0.08
    }
    bias_filler {
      type: "constant"
      value: 0
    }
  }
}
layer {
  name: "predict"
  type: "InnerProduct"
  bottom: "lstm2"
  top: "predict"
  param {
    lr_mult: 1
    decay_mult: 1
  }
  param {
    lr_mult: 2
    decay_mult: 0
  }
  inner_product_param {
    num_output: 46168
    weight_filler {
      type: "uniform"
      min: -0.08
      max: 0.08
    }
    bias_filler {
      type: "constant"
      value: 0
    }
    axis: 2
  }
}
layer {
  name: "probs"
  type: "Softmax"
  bottom: "predict"
  top: "probs"
  softmax_param {
    axis: 2
  }
}
I0925 22:59:47.161409 18391 net.cpp:49] Initializing net from parameters: 
name: "s2vt:features_to_lstm"
state {
  phase: TEST
}
layer {
  name: "input"
  type: "Input"
  top: "frames_fc7"
  top: "cont_sentence"
  top: "input_sentence"
  top: "stage_indicator"
  input_param {
    shape {
      dim: 1
      dim: 4096
    }
    shape {
      dim: 1
      dim: 1
    }
    shape {
      dim: 1
      dim: 1
    }
    shape {
      dim: 1
      dim: 1
    }
  }
}
layer {
  name: "embed_encoder"
  type: "InnerProduct"
  bottom: "frames_fc7"
  top: "embedded_in_frames"
  param {
    lr_mult: 1
    decay_mult: 1
  }
  param {
    lr_mult: 2
    decay_mult: 0
  }
  inner_product_param {
    num_output: 500
    weight_filler {
      type: "xavier"
    }
    bias_filler {
      type: "constant"
      value: 0.2
    }
  }
}
layer {
  name: "reshape_frames"
  type: "Reshape"
  bottom: "embedded_in_frames"
  top: "embedded_input_frames"
  reshape_param {
    shape {
      dim: 1
      dim: 1
      dim: 500
    }
  }
}
layer {
  name: "reshape_stage_indicator"
  type: "Reshape"
  bottom: "stage_indicator"
  top: "reshaped_stage_indicator"
  reshape_param {
    shape {
      dim: 1
      dim: 1
      dim: 1
    }
  }
}
layer {
  name: "embedding"
  type: "Embed"
  bottom: "input_sentence"
  top: "embedded_input_sentence"
  param {
    lr_mult: 1
  }
  embed_param {
    num_output: 500
    input_dim: 46168
    bias_term: false
    weight_filler {
      type: "uniform"
      min: -0.08
      max: 0.08
    }
  }
}
layer {
  name: "lstm1"
  type: "LSTM"
  bottom: "embedded_input_frames"
  bottom: "cont_sentence"
  top: "lstm1"
  recurrent_param {
    num_output: 1000
    weight_filler {
      type: "uniform"
      min: -0.08
      max: 0.08
    }
    bias_filler {
      type: "constant"
      value: 0
    }
  }
}
layer {
  name: "concat"
  type: "Concat"
  bottom: "lstm1"
  bottom: "embedded_input_sentence"
  bottom: "reshaped_stage_indicator"
  top: "lstm1_video_sequence"
  concat_param {
    concat_dim: 2
  }
}
layer {
  name: "lstm2"
  type: "LSTM"
  bottom: "lstm1_video_sequence"
  bottom: "cont_sentence"
  top: "lstm2"
  recurrent_param {
    num_output: 1000
    weight_filler {
      type: "uniform"
      min: -0.08
      max: 0.08
    }
    bias_filler {
      type: "constant"
      value: 0
    }
  }
}
layer {
  name: "predict"
  type: "InnerProduct"
  bottom: "lstm2"
  top: "predict"
  param {
    lr_mult: 1
    decay_mult: 1
  }
  param {
    lr_mult: 2
    decay_mult: 0
  }
  inner_product_param {
    num_output: 46168
    weight_filler {
      type: "uniform"
      min: -0.08
      max: 0.08
    }
    bias_filler {
      type: "constant"
      value: 0
    }
    axis: 2
  }
}
layer {
  name: "probs"
  type: "Softmax"
  bottom: "predict"
  top: "probs"
  softmax_param {
    axis: 2
  }
}
I0925 22:59:47.161433 18359 net.cpp:49] Initializing net from parameters: 
name: "s2vt:features_to_lstm"
state {
  phase: TEST
}
layer {
  name: "input"
  type: "Input"
  top: "frames_fc7"
  top: "cont_sentence"
  top: "input_sentence"
  top: "stage_indicator"
  input_param {
    shape {
      dim: 1
      dim: 4096
    }
    shape {
      dim: 1
      dim: 1
    }
    shape {
      dim: 1
      dim: 1
    }
    shape {
      dim: 1
      dim: 1
    }
  }
}
layer {
  name: "embed_encoder"
  type: "InnerProduct"
  bottom: "frames_fc7"
  top: "embedded_in_frames"
  param {
    lr_mult: 1
    decay_mult: 1
  }
  param {
    lr_mult: 2
    decay_mult: 0
  }
  inner_product_param {
    num_output: 500
    weight_filler {
      type: "xavier"
    }
    bias_filler {
      type: "constant"
      value: 0.2
    }
  }
}
layer {
  name: "reshape_frames"
  type: "Reshape"
  bottom: "embedded_in_frames"
  top: "embedded_input_frames"
  reshape_param {
    shape {
      dim: 1
      dim: 1
      dim: 500
    }
  }
}
layer {
  name: "reshape_stage_indicator"
  type: "Reshape"
  bottom: "stage_indicator"
  top: "reshaped_stage_indicator"
  reshape_param {
    shape {
      dim: 1
      dim: 1
      dim: 1
    }
  }
}
layer {
  name: "embedding"
  type: "Embed"
  bottom: "input_sentence"
  top: "embedded_input_sentence"
  param {
    lr_mult: 1
  }
  embed_param {
    num_output: 500
    input_dim: 46168
    bias_term: false
    weight_filler {
      type: "uniform"
      min: -0.08
      max: 0.08
    }
  }
}
layer {
  name: "lstm1"
  type: "LSTM"
  bottom: "embedded_input_frames"
  bottom: "cont_sentence"
  top: "lstm1"
  recurrent_param {
    num_output: 1000
    weight_filler {
      type: "uniform"
      min: -0.08
      max: 0.08
    }
    bias_filler {
      type: "constant"
      value: 0
    }
  }
}
layer {
  name: "concat"
  type: "Concat"
  bottom: "lstm1"
  bottom: "embedded_input_sentence"
  bottom: "reshaped_stage_indicator"
  top: "lstm1_video_sequence"
  concat_param {
    concat_dim: 2
  }
}
layer {
  name: "lstm2"
  type: "LSTM"
  bottom: "lstm1_video_sequence"
  bottom: "cont_sentence"
  top: "lstm2"
  recurrent_param {
    num_output: 1000
    weight_filler {
      type: "uniform"
      min: -0.08
      max: 0.08
    }
    bias_filler {
      type: "constant"
      value: 0
    }
  }
}
layer {
  name: "predict"
  type: "InnerProduct"
  bottom: "lstm2"
  top: "predict"
  param {
    lr_mult: 1
    decay_mult: 1
  }
  param {
    lr_mult: 2
    decay_mult: 0
  }
  inner_product_param {
    num_output: 46168
    weight_filler {
      type: "uniform"
      min: -0.08
      max: 0.08
    }
    bias_filler {
      type: "constant"
      value: 0
    }
    axis: 2
  }
}
layer {
  name: "probs"
  type: "Softmax"
  bottom: "predict"
  top: "probs"
  softmax_param {
    axis: 2
  }
}
I0925 22:59:47.161500 18399 net.cpp:49] Initializing net from parameters: 
name: "s2vt:features_to_lstm"
state {
  phase: TEST
}
layer {
  name: "input"
  type: "Input"
  top: "frames_fc7"
  top: "cont_sentence"
  top: "input_sentence"
  top: "stage_indicator"
  input_param {
    shape {
      dim: 1
      dim: 4096
    }
    shape {
      dim: 1
      dim: 1
    }
    shape {
      dim: 1
      dim: 1
    }
    shape {
      dim: 1
      dim: 1
    }
  }
}
layer {
  name: "embed_encoder"
  type: "InnerProduct"
  bottom: "frames_fc7"
  top: "embedded_in_frames"
  param {
    lr_mult: 1
    decay_mult: 1
  }
  param {
    lr_mult: 2
    decay_mult: 0
  }
  inner_product_param {
    num_output: 500
    weight_filler {
      type: "xavier"
    }
    bias_filler {
      type: "constant"
      value: 0.2
    }
  }
}
layer {
  name: "reshape_frames"
  type: "Reshape"
  bottom: "embedded_in_frames"
  top: "embedded_input_frames"
  reshape_param {
    shape {
      dim: 1
      dim: 1
      dim: 500
    }
  }
}
layer {
  name: "reshape_stage_indicator"
  type: "Reshape"
  bottom: "stage_indicator"
  top: "reshaped_stage_indicator"
  reshape_param {
    shape {
      dim: 1
      dim: 1
      dim: 1
    }
  }
}
layer {
  name: "embedding"
  type: "Embed"
  bottom: "input_sentence"
  top: "embedded_input_sentence"
  param {
    lr_mult: 1
  }
  embed_param {
    num_output: 500
    input_dim: 46168
    bias_term: false
    weight_filler {
      type: "uniform"
      min: -0.08
      max: 0.08
    }
  }
}
layer {
  name: "lstm1"
  type: "LSTM"
  bottom: "embedded_input_frames"
  bottom: "cont_sentence"
  top: "lstm1"
  recurrent_param {
    num_output: 1000
    weight_filler {
      type: "uniform"
      min: -0.08
      max: 0.08
    }
    bias_filler {
      type: "constant"
      value: 0
    }
  }
}
layer {
  name: "concat"
  type: "Concat"
  bottom: "lstm1"
  bottom: "embedded_input_sentence"
  bottom: "reshaped_stage_indicator"
  top: "lstm1_video_sequence"
  concat_param {
    concat_dim: 2
  }
}
layer {
  name: "lstm2"
  type: "LSTM"
  bottom: "lstm1_video_sequence"
  bottom: "cont_sentence"
  top: "lstm2"
  recurrent_param {
    num_output: 1000
    weight_filler {
      type: "uniform"
      min: -0.08
      max: 0.08
    }
    bias_filler {
      type: "constant"
      value: 0
    }
  }
}
layer {
  name: "predict"
  type: "InnerProduct"
  bottom: "lstm2"
  top: "predict"
  param {
    lr_mult: 1
    decay_mult: 1
  }
  param {
    lr_mult: 2
    decay_mult: 0
  }
  inner_product_param {
    num_output: 46168
    weight_filler {
      type: "uniform"
      min: -0.08
      max: 0.08
    }
    bias_filler {
      type: "constant"
      value: 0
    }
    axis: 2
  }
}
layer {
  name: "probs"
  type: "Softmax"
  bottom: "predict"
  top: "probs"
  softmax_param {
    axis: 2
  }
}
I0925 22:59:47.161514 18353 net.cpp:49] Initializing net from parameters: 
name: "s2vt:features_to_lstm"
state {
  phase: TEST
}
layer {
  name: "input"
  type: "Input"
  top: "frames_fc7"
  top: "cont_sentence"
  top: "input_sentence"
  top: "stage_indicator"
  input_param {
    shape {
      dim: 1
      dim: 4096
    }
    shape {
      dim: 1
      dim: 1
    }
    shape {
      dim: 1
      dim: 1
    }
    shape {
      dim: 1
      dim: 1
    }
  }
}
layer {
  name: "embed_encoder"
  type: "InnerProduct"
  bottom: "frames_fc7"
  top: "embedded_in_frames"
  param {
    lr_mult: 1
    decay_mult: 1
  }
  param {
    lr_mult: 2
    decay_mult: 0
  }
  inner_product_param {
    num_output: 500
    weight_filler {
      type: "xavier"
    }
    bias_filler {
      type: "constant"
      value: 0.2
    }
  }
}
layer {
  name: "reshape_frames"
  type: "Reshape"
  bottom: "embedded_in_frames"
  top: "embedded_input_frames"
  reshape_param {
    shape {
      dim: 1
      dim: 1
      dim: 500
    }
  }
}
layer {
  name: "reshape_stage_indicator"
  type: "Reshape"
  bottom: "stage_indicator"
  top: "reshaped_stage_indicator"
  reshape_param {
    shape {
      dim: 1
      dim: 1
      dim: 1
    }
  }
}
layer {
  name: "embedding"
  type: "Embed"
  bottom: "input_sentence"
  top: "embedded_input_sentence"
  param {
    lr_mult: 1
  }
  embed_param {
    num_output: 500
    input_dim: 46168
    bias_term: false
    weight_filler {
      type: "uniform"
      min: -0.08
      max: 0.08
    }
  }
}
layer {
  name: "lstm1"
  type: "LSTM"
  bottom: "embedded_input_frames"
  bottom: "cont_sentence"
  top: "lstm1"
  recurrent_param {
    num_output: 1000
    weight_filler {
      type: "uniform"
      min: -0.08
      max: 0.08
    }
    bias_filler {
      type: "constant"
      value: 0
    }
  }
}
layer {
  name: "concat"
  type: "Concat"
  bottom: "lstm1"
  bottom: "embedded_input_sentence"
  bottom: "reshaped_stage_indicator"
  top: "lstm1_video_sequence"
  concat_param {
    concat_dim: 2
  }
}
layer {
  name: "lstm2"
  type: "LSTM"
  bottom: "lstm1_video_sequence"
  bottom: "cont_sentence"
  top: "lstm2"
  recurrent_param {
    num_output: 1000
    weight_filler {
      type: "uniform"
      min: -0.08
      max: 0.08
    }
    bias_filler {
      type: "constant"
      value: 0
    }
  }
}
layer {
  name: "predict"
  type: "InnerProduct"
  bottom: "lstm2"
  top: "predict"
  param {
    lr_mult: 1
    decay_mult: 1
  }
  param {
    lr_mult: 2
    decay_mult: 0
  }
  inner_product_param {
    num_output: 46168
    weight_filler {
      type: "uniform"
      min: -0.08
      max: 0.08
    }
    bias_filler {
      type: "constant"
      value: 0
    }
    axis: 2
  }
}
layer {
  name: "probs"
  type: "Softmax"
  bottom: "predict"
  top: "probs"
  softmax_param {
    axis: 2
  }
}
I0925 22:59:47.161545 18373 layer_factory.hpp:77] Creating layer input
I0925 22:59:47.161547 18391 layer_factory.hpp:77] Creating layer input
I0925 22:59:47.161547 18367 layer_factory.hpp:77] Creating layer input
I0925 22:59:47.161547 18349 layer_factory.hpp:77] Creating layer input
I0925 22:59:47.161547 18355 layer_factory.hpp:77] Creating layer input
…
W0925 22:59:47.228379 18403 upgrade_proto.cpp:71] Note that future Caffe releases will only support input layers and not input fields.
I0925 22:59:47.228729 18403 net.cpp:49] Initializing net from parameters: 
name: "s2vt:features_to_lstm"
state {
  phase: TEST
}
layer {
  name: "input"
  type: "Input"
  top: "frames_fc7"
  top: "cont_sentence"
  top: "input_sentence"
  top: "stage_indicator"
  input_param {
    shape {
      dim: 1
      dim: 4096
    }
    shape {
      dim: 1
      dim: 1
    }
    shape {
      dim: 1
      dim: 1
    }
    shape {
      dim: 1
      dim: 1
    }
  }
}
layer {
  name: "embed_encoder"
  type: "InnerProduct"
  bottom: "frames_fc7"
  top: "embedded_in_frames"
  param {
    lr_mult: 1
    decay_mult: 1
  }
  param {
    lr_mult: 2
    decay_mult: 0
  }
  inner_product_param {
    num_output: 500
    weight_filler {
      type: "xavier"
    }
    bias_filler {
      type: "constant"
      value: 0.2
    }
  }
}
layer {
  name: "reshape_frames"
  type: "Reshape"
  bottom: "embedded_in_frames"
  top: "embedded_input_frames"
  reshape_param {
    shape {
      dim: 1
      dim: 1
      dim: 500
    }
  }
}
layer {
  name: "reshape_stage_indicator"
  type: "Reshape"
  bottom: "stage_indicator"
  top: "reshaped_stage_indicator"
  reshape_param {
    shape {
      dim: 1
      dim: 1
      dim: 1
    }
  }
}
layer {
  name: "embedding"
  type: "Embed"
  bottom: "input_sentence"
  top: "embedded_input_sentence"
  param {
    lr_mult: 1
  }
  embed_param {
    num_output: 500
    input_dim: 46168
    bias_term: false
    weight_filler {
      type: "uniform"
      min: -0.08
      max: 0.08
    }
  }
}
layer {
  name: "lstm1"
  type: "LSTM"
  bottom: "embedded_input_frames"
  bottom: "cont_sentence"
  top: "lstm1"
  recurrent_param {
    num_output: 1000
    weight_filler {
      type: "uniform"
      min: -0.08
      max: 0.08
    }
    bias_filler {
      type: "constant"
      value: 0
    }
  }
}
layer {
  name: "concat"
  type: "Concat"
  bottom: "lstm1"
  bottom: "embedded_input_sentence"
  bottom: "reshaped_stage_indicator"
  top: "lstm1_video_sequence"
  concat_param {
    concat_dim: 2
  }
}
layer {
  name: "lstm2"
  type: "LSTM"
  bottom: "lstm1_video_sequence"
  bottom: "cont_sentence"
  top: "lstm2"
  recurrent_param {
    num_output: 1000
    weight_filler {
      type: "uniform"
      min: -0.08
      max: 0.08
    }
    bias_filler {
      type: "constant"
      value: 0
    }
  }
}
layer {
  name: "predict"
  type: "InnerProduct"
  bottom: "lstm2"
  top: "predict"
  param {
    lr_mult: 1
    decay_mult: 1
  }
  param {
    lr_mult: 2
    decay_mult: 0
  }
  inner_product_param {
    num_output: 46168
    weight_filler {
      type: "uniform"
      min: -0.08
      max: 0.08
    }
    bias_filler {
      type: "constant"
      value: 0
    }
    axis: 2
  }
}
layer {
  name: "probs"
  type: "Softmax"
  bottom: "predict"
  top: "probs"
  softmax_param {
    axis: 2
  }
}
I0925 22:59:47.228801 18375 net.cpp:49] Initializing net from parameters: 
name: "CaffeNet"
state {
  phase: TEST
}
layer {
  name: "data"
  type: "Input"
  top: "data"
  input_param {
    shape {
      dim: 10
      dim: 3
      dim: 227
      dim: 227
    }
  }
}
layer {
  name: "conv1"
  type: "Convolution"
  bottom: "data"
  top: "conv1"
  convolution_param {
    num_output: 96
    kernel_size: 11
    stride: 4
  }
}
layer {
  name: "relu1"
  type: "ReLU"
  bottom: "conv1"
  top: "conv1"
}
layer {
  name: "pool1"
  type: "Pooling"
  bottom: "conv1"
  top: "pool1"
  pooling_param {
    pool: MAX
    kernel_size: 3
    stride: 2
  }
}
layer {
  name: "norm1"
  type: "LRN"
  bottom: "pool1"
  top: "norm1"
  lrn_param {
    local_size: 5
    alpha: 0.0001
    beta: 0.75
  }
}
layer {
  name: "conv2"
  type: "Convolution"
  bottom: "norm1"
  top: "conv2"
  convolution_param {
    num_output: 256
    pad: 2
    kernel_size: 5
    group: 2
  }
}
layer {
  name: "relu2"
  type: "ReLU"
  bottom: "conv2"
  top: "conv2"
}
layer {
  name: "pool2"
  type: "Pooling"
  bottom: "conv2"
  top: "pool2"
  pooling_param {
    pool: MAX
    kernel_size: 3
    stride: 2
  }
}
layer {
  name: "norm2"
  type: "LRN"
  bottom: "pool2"
  top: "norm2"
  lrn_param {
    local_size: 5
    alpha: 0.0001
    beta: 0.75
  }
}
layer {
  name: "conv3"
  type: "Convolution"
  bottom: "norm2"
  top: "conv3"
  convolution_param {
    num_output: 384
    pad: 1
    kernel_size: 3
  }
}
layer {
  name: "relu3"
  type: "ReLU"
  bottom: "conv3"
  top: "conv3"
}
layer {
  name: "conv4"
  type: "Convolution"
  bottom: "conv3"
  top: "conv4"
  convolution_param {
    num_output: 384
    pad: 1
    kernel_size: 3
    group: 2
  }
}
layer {
  name: "relu4"
  type: "ReLU"
  bottom: "conv4"
  top: "conv4"
}
layer {
  name: "conv5"
  type: "Convolution"
  bottom: "conv4"
  top: "conv5"
  convolution_param {
    num_output: 256
    pad: 1
    kernel_size: 3
    group: 2
  }
}
layer {
  name: "relu5"
  type: "ReLU"
  bottom: "conv5"
  top: "conv5"
}
layer {
  name: "pool5"
  type: "Pooling"
  bottom: "conv5"
  top: "pool5"
  pooling_param {
    pool: MAX
    kernel_size: 3
    stride: 2
  }
}
layer {
  name: "fc6"
  type: "InnerProduct"
  bottom: "pool5"
  top: "fc6"
  inner_product_param {
    num_output: 4096
  }
}
layer {
  name: "relu6"
  type: "ReLU"
  bottom: "fc6"
  top: "fc6"
}
layer {
  name: "drop6"
  type: "Dropout"
  bottom: "fc6"
  top: "fc6"
  dropout_param {
    dropout_ratio: 0.5
  }
}
layer {
  name: "fc7"
  type: "InnerProduct"
  bottom: "fc6"
  top: "fc7"
  inner_product_param {
    num_output: 4096
  }
}
layer {
  name: "relu7"
  type: "ReLU"
  bottom: "fc7"
  top: "fc7"
}
layer {
  name: "drop7"
  type: "Dropout"
  bottom: "fc7"
  top: "fc7"
  dropout_param {
    dropout_ratio: 0.5
  }
}
layer {
  name: "fc8"
  type: "InnerProduct"
  bottom: "fc7"
  top: "fc8"
  inner_product_param {
    num_output: 1000
  }
}
layer {
  name: "prob"
  type: "Softmax"
  bottom: "fc8"
  top: "prob"
}
I0925 22:59:47.228868 18403 layer_factory.hpp:77] Creating layer input
I0925 22:59:47.228891 18403 net.cpp:91] Creating Layer input
I0925 22:59:47.228904 18403 net.cpp:399] input -> frames_fc7
I0925 22:59:47.228929 18403 net.cpp:399] input -> cont_sentence
I0925 22:59:47.228940 18375 layer_factory.hpp:77] Creating layer data
I0925 22:59:47.228947 18403 net.cpp:399] input -> input_sentence
I0925 22:59:47.228956 18375 net.cpp:91] Creating Layer data
I0925 22:59:47.228965 18403 net.cpp:399] input -> stage_indicator
I0925 22:59:47.228966 18375 net.cpp:399] data -> data
I0925 22:59:47.686300 18359 net.cpp:141] Setting up input
I0925 22:59:47.686380 18359 net.cpp:148] Top shape: 1 4096 (4096)
I0925 22:59:47.686388 18359 net.cpp:148] Top shape: 1 1 (1)
I0925 22:59:47.686395 18359 net.cpp:148] Top shape: 1 1 (1)
I0925 22:59:47.686400 18359 net.cpp:148] Top shape: 1 1 (1)
I0925 22:59:47.686405 18359 net.cpp:156] Memory required for data: 16396
I0925 22:59:47.686422 18359 layer_factory.hpp:77] Creating layer cont_sentence_input_1_split
I0925 22:59:47.686449 18359 net.cpp:91] Creating Layer cont_sentence_input_1_split
I0925 22:59:47.686458 18359 net.cpp:425] cont_sentence_input_1_split <- cont_sentence
I0925 22:59:47.686453 18367 net.cpp:141] Setting up input
I0925 22:59:47.686478 18359 net.cpp:399] cont_sentence_input_1_split -> cont_sentence_input_1_split_0
I0925 22:59:47.686489 18367 net.cpp:148] Top shape: 1 4096 (4096)
I0925 22:59:47.686493 18359 net.cpp:399] cont_sentence_input_1_split -> cont_sentence_input_1_split_1
I0925 22:59:47.686498 18367 net.cpp:148] Top shape: 1 1 (1)
I0925 22:59:47.686506 18367 net.cpp:148] Top shape: 1 1 (1)
I0925 22:59:47.686511 18367 net.cpp:148] Top shape: 1 1 (1)
I0925 22:59:47.686514 18367 net.cpp:156] Memory required for data: 16396
I0925 22:59:47.686523 18367 layer_factory.hpp:77] Creating layer cont_sentence_input_1_split
I0925 22:59:47.686540 18367 net.cpp:91] Creating Layer cont_sentence_input_1_split
I0925 22:59:47.686547 18367 net.cpp:425] cont_sentence_input_1_split <- cont_sentence
I0925 22:59:47.686558 18367 net.cpp:399] cont_sentence_input_1_split -> cont_sentence_input_1_split_0
I0925 22:59:47.686575 18367 net.cpp:399] cont_sentence_input_1_split -> cont_sentence_input_1_split_1
I0925 22:59:47.686668 18353 net.cpp:141] Setting up input
I0925 22:59:47.686689 18353 net.cpp:148] Top shape: 1 4096 (4096)
I0925 22:59:47.686697 18353 net.cpp:148] Top shape: 1 1 (1)
I0925 22:59:47.686697 18375 net.cpp:141] Setting up data
I0925 22:59:47.686702 18353 net.cpp:148] Top shape: 1 1 (1)
I0925 22:59:47.686709 18353 net.cpp:148] Top shape: 1 1 (1)
I0925 22:59:47.686709 18375 net.cpp:148] Top shape: 10 3 227 227 (1545870)
I0925 22:59:47.686713 18353 net.cpp:156] Memory required for data: 16396
I0925 22:59:47.686715 18375 net.cpp:156] Memory required for data: 6183480
I0925 22:59:47.686720 18353 layer_factory.hpp:77] Creating layer cont_sentence_input_1_split
I0925 22:59:47.686722 18375 layer_factory.hpp:77] Creating layer conv1
I0925 22:59:47.686733 18353 net.cpp:91] Creating Layer cont_sentence_input_1_split
I0925 22:59:47.686739 18353 net.cpp:425] cont_sentence_input_1_split <- cont_sentence
I0925 22:59:47.686748 18353 net.cpp:399] cont_sentence_input_1_split -> cont_sentence_input_1_split_0
I0925 22:59:47.686759 18353 net.cpp:399] cont_sentence_input_1_split -> cont_sentence_input_1_split_1
I0925 22:59:47.686802 18375 net.cpp:91] Creating Layer conv1
I0925 22:59:47.686813 18375 net.cpp:425] conv1 <- data
I0925 22:59:47.686823 18375 net.cpp:399] conv1 -> conv1
I0925 22:59:47.686913 18391 net.cpp:141] Setting up input
I0925 22:59:47.686924 18391 net.cpp:148] Top shape: 1 4096 (4096)
I0925 22:59:47.686930 18391 net.cpp:148] Top shape: 1 1 (1)
I0925 22:59:47.686936 18391 net.cpp:148] Top shape: 1 1 (1)
I0925 22:59:47.686941 18391 net.cpp:148] Top shape: 1 1 (1)
I0925 22:59:47.686945 18391 net.cpp:156] Memory required for data: 16396
I0925 22:59:47.686950 18391 layer_factory.hpp:77] Creating layer cont_sentence_input_1_split
I0925 22:59:47.686960 18391 net.cpp:91] Creating Layer cont_sentence_input_1_split
I0925 22:59:47.686966 18391 net.cpp:425] cont_sentence_input_1_split <- cont_sentence
I0925 22:59:47.686974 18391 net.cpp:399] cont_sentence_input_1_split -> cont_sentence_input_1_split_0
I0925 22:59:47.686982 18391 net.cpp:399] cont_sentence_input_1_split -> cont_sentence_input_1_split_1
I0925 22:59:47.687115 18367 net.cpp:141] Setting up cont_sentence_input_1_split
I0925 22:59:47.687135 18367 net.cpp:148] Top shape: 1 1 (1)
I0925 22:59:47.687141 18367 net.cpp:148] Top shape: 1 1 (1)
I0925 22:59:47.687145 18367 net.cpp:156] Memory required for data: 16404
I0925 22:59:47.687151 18367 layer_factory.hpp:77] Creating layer embed_encoder
I0925 22:59:47.687180 18367 net.cpp:91] Creating Layer embed_encoder
I0925 22:59:47.687186 18367 net.cpp:425] embed_encoder <- frames_fc7
I0925 22:59:47.687196 18367 net.cpp:399] embed_encoder -> embedded_in_frames
I0925 22:59:47.687288 18355 net.cpp:141] Setting up input
I0925 22:59:47.687309 18355 net.cpp:148] Top shape: 1 4096 (4096)
I0925 22:59:47.687315 18355 net.cpp:148] Top shape: 1 1 (1)
I0925 22:59:47.687325 18355 net.cpp:148] Top shape: 1 1 (1)
I0925 22:59:47.687330 18355 net.cpp:148] Top shape: 1 1 (1)
I0925 22:59:47.687335 18355 net.cpp:156] Memory required for data: 16396
I0925 22:59:47.687340 18355 layer_factory.hpp:77] Creating layer cont_sentence_input_1_split
I0925 22:59:47.687350 18355 net.cpp:91] Creating Layer cont_sentence_input_1_split
I0925 22:59:47.687366 18355 net.cpp:425] cont_sentence_input_1_split <- cont_sentence
I0925 22:59:47.687376 18355 net.cpp:399] cont_sentence_input_1_split -> cont_sentence_input_1_split_0
I0925 22:59:47.687379 18359 net.cpp:141] Setting up cont_sentence_input_1_split
I0925 22:59:47.687386 18355 net.cpp:399] cont_sentence_input_1_split -> cont_sentence_input_1_split_1
I0925 22:59:47.687404 18359 net.cpp:148] Top shape: 1 1 (1)
I0925 22:59:47.687412 18359 net.cpp:148] Top shape: 1 1 (1)
I0925 22:59:47.687417 18359 net.cpp:156] Memory required for data: 16404
I0925 22:59:47.687422 18359 layer_factory.hpp:77] Creating layer embed_encoder
I0925 22:59:47.687448 18359 net.cpp:91] Creating Layer embed_encoder
I0925 22:59:47.687453 18359 net.cpp:425] embed_encoder <- frames_fc7
I0925 22:59:47.687464 18359 net.cpp:399] embed_encoder -> embedded_in_frames
I0925 22:59:47.687687 18391 net.cpp:141] Setting up cont_sentence_input_1_split
I0925 22:59:47.687700 18391 net.cpp:148] Top shape: 1 1 (1)
I0925 22:59:47.687705 18391 net.cpp:148] Top shape: 1 1 (1)
I0925 22:59:47.687711 18391 net.cpp:156] Memory required for data: 16404
I0925 22:59:47.687722 18391 layer_factory.hpp:77] Creating layer embed_encoder
I0925 22:59:47.687734 18391 net.cpp:91] Creating Layer embed_encoder
I0925 22:59:47.687739 18391 net.cpp:425] embed_encoder <- frames_fc7
I0925 22:59:47.687741 18355 net.cpp:141] Setting up cont_sentence_input_1_split
I0925 22:59:47.687748 18391 net.cpp:399] embed_encoder -> embedded_in_frames
I0925 22:59:47.687752 18355 net.cpp:148] Top shape: 1 1 (1)
I0925 22:59:47.687758 18355 net.cpp:148] Top shape: 1 1 (1)
I0925 22:59:47.687762 18355 net.cpp:156] Memory required for data: 16404
I0925 22:59:47.687767 18355 layer_factory.hpp:77] Creating layer embed_encoder
I0925 22:59:47.687780 18355 net.cpp:91] Creating Layer embed_encoder
I0925 22:59:47.687786 18355 net.cpp:425] embed_encoder <- frames_fc7
I0925 22:59:47.687795 18355 net.cpp:399] embed_encoder -> embedded_in_frames
I0925 22:59:47.687877 18353 net.cpp:141] Setting up cont_sentence_input_1_split
I0925 22:59:47.687909 18353 net.cpp:148] Top shape: 1 1 (1)
I0925 22:59:47.687916 18353 net.cpp:148] Top shape: 1 1 (1)
I0925 22:59:47.687919 18353 net.cpp:156] Memory required for data: 16404
I0925 22:59:47.687924 18353 layer_factory.hpp:77] Creating layer embed_encoder
I0925 22:59:47.687944 18353 net.cpp:91] Creating Layer embed_encoder
I0925 22:59:47.687950 18353 net.cpp:425] embed_encoder <- frames_fc7
I0925 22:59:47.687958 18353 net.cpp:399] embed_encoder -> embedded_in_frames
I0925 22:59:47.692294 18373 net.cpp:141] Setting up input
I0925 22:59:47.692314 18373 net.cpp:148] Top shape: 1 4096 (4096)
I0925 22:59:47.692322 18373 net.cpp:148] Top shape: 1 1 (1)
I0925 22:59:47.692327 18373 net.cpp:148] Top shape: 1 1 (1)
I0925 22:59:47.692332 18373 net.cpp:148] Top shape: 1 1 (1)
I0925 22:59:47.692337 18373 net.cpp:156] Memory required for data: 16396
I0925 22:59:47.692343 18373 layer_factory.hpp:77] Creating layer cont_sentence_input_1_split
I0925 22:59:47.692353 18373 net.cpp:91] Creating Layer cont_sentence_input_1_split
I0925 22:59:47.692358 18373 net.cpp:425] cont_sentence_input_1_split <- cont_sentence
I0925 22:59:47.692368 18373 net.cpp:399] cont_sentence_input_1_split -> cont_sentence_input_1_split_0
I0925 22:59:47.692378 18373 net.cpp:399] cont_sentence_input_1_split -> cont_sentence_input_1_split_1
I0925 22:59:47.702123 18399 net.cpp:141] Setting up input
I0925 22:59:47.702164 18399 net.cpp:148] Top shape: 1 4096 (4096)
I0925 22:59:47.702178 18399 net.cpp:148] Top shape: 1 1 (1)
I0925 22:59:47.702188 18399 net.cpp:148] Top shape: 1 1 (1)
I0925 22:59:47.702198 18399 net.cpp:148] Top shape: 1 1 (1)
I0925 22:59:47.702206 18399 net.cpp:156] Memory required for data: 16396
I0925 22:59:47.702206 18403 net.cpp:141] Setting up input
I0925 22:59:47.702226 18399 layer_factory.hpp:77] Creating layer cont_sentence_input_1_split
I0925 22:59:47.702232 18403 net.cpp:148] Top shape: 1 4096 (4096)
I0925 22:59:47.702244 18403 net.cpp:148] Top shape: 1 1 (1)
I0925 22:59:47.702249 18399 net.cpp:91] Creating Layer cont_sentence_input_1_split
I0925 22:59:47.702252 18403 net.cpp:148] Top shape: 1 1 (1)
I0925 22:59:47.702258 18399 net.cpp:425] cont_sentence_input_1_split <- cont_sentence
I0925 22:59:47.702261 18403 net.cpp:148] Top shape: 1 1 (1)
I0925 22:59:47.702268 18403 net.cpp:156] Memory required for data: 16396
I0925 22:59:47.702273 18399 net.cpp:399] cont_sentence_input_1_split -> cont_sentence_input_1_split_0
I0925 22:59:47.702276 18403 layer_factory.hpp:77] Creating layer cont_sentence_input_1_split
I0925 22:59:47.702291 18403 net.cpp:91] Creating Layer cont_sentence_input_1_split
I0925 22:59:47.702292 18399 net.cpp:399] cont_sentence_input_1_split -> cont_sentence_input_1_split_1
I0925 22:59:47.702306 18403 net.cpp:425] cont_sentence_input_1_split <- cont_sentence
I0925 22:59:47.702319 18403 net.cpp:399] cont_sentence_input_1_split -> cont_sentence_input_1_split_0
I0925 22:59:47.702337 18403 net.cpp:399] cont_sentence_input_1_split -> cont_sentence_input_1_split_1
I0925 22:59:47.710346 18349 net.cpp:141] Setting up input
I0925 22:59:47.710383 18349 net.cpp:148] Top shape: 1 4096 (4096)
I0925 22:59:47.710391 18349 net.cpp:148] Top shape: 1 1 (1)
I0925 22:59:47.710397 18349 net.cpp:148] Top shape: 1 1 (1)
I0925 22:59:47.710402 18349 net.cpp:148] Top shape: 1 1 (1)
I0925 22:59:47.710407 18349 net.cpp:156] Memory required for data: 16396
I0925 22:59:47.710414 18349 layer_factory.hpp:77] Creating layer cont_sentence_input_1_split
I0925 22:59:47.710431 18349 net.cpp:91] Creating Layer cont_sentence_input_1_split
I0925 22:59:47.710438 18349 net.cpp:425] cont_sentence_input_1_split <- cont_sentence
I0925 22:59:47.710449 18349 net.cpp:399] cont_sentence_input_1_split -> cont_sentence_input_1_split_0
I0925 22:59:47.710463 18349 net.cpp:399] cont_sentence_input_1_split -> cont_sentence_input_1_split_1
I0925 22:59:47.710511 18399 net.cpp:141] Setting up cont_sentence_input_1_split
I0925 22:59:47.710520 18373 net.cpp:141] Setting up cont_sentence_input_1_split
I0925 22:59:47.710548 18399 net.cpp:148] Top shape: 1 1 (1)
I0925 22:59:47.710556 18399 net.cpp:148] Top shape: 1 1 (1)
I0925 22:59:47.710561 18399 net.cpp:156] Memory required for data: 16404
I0925 22:59:47.710558 18373 net.cpp:148] Top shape: 1 1 (1)
I0925 22:59:47.710568 18399 layer_factory.hpp:77] Creating layer embed_encoder
I0925 22:59:47.710572 18373 net.cpp:148] Top shape: 1 1 (1)
I0925 22:59:47.710582 18373 net.cpp:156] Memory required for data: 16404
I0925 22:59:47.710590 18399 net.cpp:91] Creating Layer embed_encoder
I0925 22:59:47.710592 18373 layer_factory.hpp:77] Creating layer embed_encoder
I0925 22:59:47.710614 18399 net.cpp:425] embed_encoder <- frames_fc7
I0925 22:59:47.710625 18399 net.cpp:399] embed_encoder -> embedded_in_frames
I0925 22:59:47.710625 18373 net.cpp:91] Creating Layer embed_encoder
I0925 22:59:47.710636 18373 net.cpp:425] embed_encoder <- frames_fc7
I0925 22:59:47.710652 18373 net.cpp:399] embed_encoder -> embedded_in_frames
I0925 22:59:47.710762 18403 net.cpp:141] Setting up cont_sentence_input_1_split
I0925 22:59:47.710786 18403 net.cpp:148] Top shape: 1 1 (1)
I0925 22:59:47.710796 18403 net.cpp:148] Top shape: 1 1 (1)
I0925 22:59:47.710804 18403 net.cpp:156] Memory required for data: 16404
I0925 22:59:47.710813 18403 layer_factory.hpp:77] Creating layer embed_encoder
I0925 22:59:47.710818 18349 net.cpp:141] Setting up cont_sentence_input_1_split
I0925 22:59:47.710830 18349 net.cpp:148] Top shape: 1 1 (1)
I0925 22:59:47.710831 18403 net.cpp:91] Creating Layer embed_encoder
I0925 22:59:47.710837 18349 net.cpp:148] Top shape: 1 1 (1)
I0925 22:59:47.710842 18349 net.cpp:156] Memory required for data: 16404
I0925 22:59:47.710857 18349 layer_factory.hpp:77] Creating layer embed_encoder
I0925 22:59:47.710844 18403 net.cpp:425] embed_encoder <- frames_fc7
I0925 22:59:47.710881 18403 net.cpp:399] embed_encoder -> embedded_in_frames
I0925 22:59:47.710893 18349 net.cpp:91] Creating Layer embed_encoder
I0925 22:59:47.710901 18349 net.cpp:425] embed_encoder <- frames_fc7
I0925 22:59:47.710909 18349 net.cpp:399] embed_encoder -> embedded_in_frames
I0925 22:59:47.725256 18359 net.cpp:141] Setting up embed_encoder
I0925 22:59:47.725296 18359 net.cpp:148] Top shape: 1 500 (500)
I0925 22:59:47.725301 18359 net.cpp:156] Memory required for data: 18404
I0925 22:59:47.725327 18359 layer_factory.hpp:77] Creating layer reshape_frames
I0925 22:59:47.725359 18359 net.cpp:91] Creating Layer reshape_frames
I0925 22:59:47.725368 18359 net.cpp:425] reshape_frames <- embedded_in_frames
I0925 22:59:47.725378 18359 net.cpp:399] reshape_frames -> embedded_input_frames
I0925 22:59:47.731122 18367 net.cpp:141] Setting up embed_encoder
I0925 22:59:47.731139 18367 net.cpp:148] Top shape: 1 500 (500)
I0925 22:59:47.731144 18367 net.cpp:156] Memory required for data: 18404
I0925 22:59:47.731158 18367 layer_factory.hpp:77] Creating layer reshape_frames
I0925 22:59:47.731171 18367 net.cpp:91] Creating Layer reshape_frames
I0925 22:59:47.731178 18367 net.cpp:425] reshape_frames <- embedded_in_frames
I0925 22:59:47.731186 18367 net.cpp:399] reshape_frames -> embedded_input_frames
I0925 22:59:47.731223 18359 net.cpp:141] Setting up reshape_frames
I0925 22:59:47.731241 18359 net.cpp:148] Top shape: 1 1 500 (500)
I0925 22:59:47.731247 18359 net.cpp:156] Memory required for data: 20404
I0925 22:59:47.731252 18359 layer_factory.hpp:77] Creating layer reshape_stage_indicator
I0925 22:59:47.731266 18359 net.cpp:91] Creating Layer reshape_stage_indicator
I0925 22:59:47.731271 18359 net.cpp:425] reshape_stage_indicator <- stage_indicator
I0925 22:59:47.731287 18359 net.cpp:399] reshape_stage_indicator -> reshaped_stage_indicator
I0925 22:59:47.731330 18391 net.cpp:141] Setting up embed_encoder
I0925 22:59:47.731369 18391 net.cpp:148] Top shape: 1 500 (500)
I0925 22:59:47.731374 18391 net.cpp:156] Memory required for data: 18404
I0925 22:59:47.731384 18367 net.cpp:141] Setting up reshape_frames
I0925 22:59:47.731395 18367 net.cpp:148] Top shape: 1 1 500 (500)
I0925 22:59:47.731405 18367 net.cpp:156] Memory required for data: 20404
I0925 22:59:47.731395 18391 layer_factory.hpp:77] Creating layer reshape_frames
I0925 22:59:47.731410 18367 layer_factory.hpp:77] Creating layer reshape_stage_indicator
I0925 22:59:47.731420 18367 net.cpp:91] Creating Layer reshape_stage_indicator
I0925 22:59:47.731426 18367 net.cpp:425] reshape_stage_indicator <- stage_indicator
I0925 22:59:47.731436 18391 net.cpp:91] Creating Layer reshape_frames
I0925 22:59:47.731437 18367 net.cpp:399] reshape_stage_indicator -> reshaped_stage_indicator
I0925 22:59:47.731449 18391 net.cpp:425] reshape_frames <- embedded_in_frames
I0925 22:59:47.731470 18391 net.cpp:399] reshape_frames -> embedded_input_frames
I0925 22:59:47.733739 18355 net.cpp:141] Setting up embed_encoder
I0925 22:59:47.733752 18355 net.cpp:148] Top shape: 1 500 (500)
I0925 22:59:47.733755 18355 net.cpp:156] Memory required for data: 18404
I0925 22:59:47.733769 18355 layer_factory.hpp:77] Creating layer reshape_frames
I0925 22:59:47.733780 18355 net.cpp:91] Creating Layer reshape_frames
I0925 22:59:47.733788 18355 net.cpp:425] reshape_frames <- embedded_in_frames
I0925 22:59:47.733795 18355 net.cpp:399] reshape_frames -> embedded_input_frames
I0925 22:59:47.733845 18355 net.cpp:141] Setting up reshape_frames
I0925 22:59:47.733855 18355 net.cpp:148] Top shape: 1 1 500 (500)
I0925 22:59:47.733858 18355 net.cpp:156] Memory required for data: 20404
I0925 22:59:47.733862 18355 layer_factory.hpp:77] Creating layer reshape_stage_indicator
I0925 22:59:47.733873 18355 net.cpp:91] Creating Layer reshape_stage_indicator
I0925 22:59:47.733878 18355 net.cpp:425] reshape_stage_indicator <- stage_indicator
I0925 22:59:47.733889 18355 net.cpp:399] reshape_stage_indicator -> reshaped_stage_indicator
I0925 22:59:47.733923 18391 net.cpp:141] Setting up reshape_frames
I0925 22:59:47.733942 18391 net.cpp:148] Top shape: 1 1 500 (500)
I0925 22:59:47.733947 18391 net.cpp:156] Memory required for data: 20404
I0925 22:59:47.733953 18391 layer_factory.hpp:77] Creating layer reshape_stage_indicator
I0925 22:59:47.733966 18391 net.cpp:91] Creating Layer reshape_stage_indicator
I0925 22:59:47.733973 18391 net.cpp:425] reshape_stage_indicator <- stage_indicator
I0925 22:59:47.733983 18359 net.cpp:141] Setting up reshape_stage_indicator
I0925 22:59:47.733997 18391 net.cpp:399] reshape_stage_indicator -> reshaped_stage_indicator
I0925 22:59:47.734004 18359 net.cpp:148] Top shape: 1 1 1 (1)
I0925 22:59:47.734010 18359 net.cpp:156] Memory required for data: 20408
I0925 22:59:47.734016 18359 layer_factory.hpp:77] Creating layer embedding
I0925 22:59:47.734030 18359 net.cpp:91] Creating Layer embedding
I0925 22:59:47.734036 18359 net.cpp:425] embedding <- input_sentence
I0925 22:59:47.734045 18359 net.cpp:399] embedding -> embedded_input_sentence
I0925 22:59:47.734048 18391 net.cpp:141] Setting up reshape_stage_indicator
I0925 22:59:47.734058 18391 net.cpp:148] Top shape: 1 1 1 (1)
I0925 22:59:47.734063 18391 net.cpp:156] Memory required for data: 20408
I0925 22:59:47.734068 18391 layer_factory.hpp:77] Creating layer embedding
I0925 22:59:47.734079 18391 net.cpp:91] Creating Layer embedding
I0925 22:59:47.734084 18391 net.cpp:425] embedding <- input_sentence
I0925 22:59:47.734088 18367 net.cpp:141] Setting up reshape_stage_indicator
I0925 22:59:47.734104 18391 net.cpp:399] embedding -> embedded_input_sentence
I0925 22:59:47.734108 18367 net.cpp:148] Top shape: 1 1 1 (1)
I0925 22:59:47.734113 18367 net.cpp:156] Memory required for data: 20408
I0925 22:59:47.734119 18367 layer_factory.hpp:77] Creating layer embedding
I0925 22:59:47.734133 18367 net.cpp:91] Creating Layer embedding
I0925 22:59:47.734138 18367 net.cpp:425] embedding <- input_sentence
I0925 22:59:47.734148 18367 net.cpp:399] embedding -> embedded_input_sentence
I0925 22:59:47.734181 18353 net.cpp:141] Setting up embed_encoder
I0925 22:59:47.734189 18355 net.cpp:141] Setting up reshape_stage_indicator
I0925 22:59:47.734194 18353 net.cpp:148] Top shape: 1 500 (500)
I0925 22:59:47.734200 18353 net.cpp:156] Memory required for data: 18404
I0925 22:59:47.734200 18355 net.cpp:148] Top shape: 1 1 1 (1)
I0925 22:59:47.734212 18355 net.cpp:156] Memory required for data: 20408
I0925 22:59:47.734217 18355 layer_factory.hpp:77] Creating layer embedding
I0925 22:59:47.734220 18353 layer_factory.hpp:77] Creating layer reshape_frames
I0925 22:59:47.734228 18355 net.cpp:91] Creating Layer embedding
I0925 22:59:47.734235 18353 net.cpp:91] Creating Layer reshape_frames
I0925 22:59:47.734235 18355 net.cpp:425] embedding <- input_sentence
I0925 22:59:47.734244 18353 net.cpp:425] reshape_frames <- embedded_in_frames
I0925 22:59:47.734252 18355 net.cpp:399] embedding -> embedded_input_sentence
I0925 22:59:47.734254 18353 net.cpp:399] reshape_frames -> embedded_input_frames
I0925 22:59:47.897452 18353 net.cpp:141] Setting up reshape_frames
I0925 22:59:47.897503 18353 net.cpp:148] Top shape: 1 1 500 (500)
I0925 22:59:47.897510 18353 net.cpp:156] Memory required for data: 20404
I0925 22:59:47.897518 18353 layer_factory.hpp:77] Creating layer reshape_stage_indicator
I0925 22:59:47.897543 18353 net.cpp:91] Creating Layer reshape_stage_indicator
I0925 22:59:47.897552 18353 net.cpp:425] reshape_stage_indicator <- stage_indicator
I0925 22:59:47.897549 18373 net.cpp:141] Setting up embed_encoder
I0925 22:59:47.897591 18353 net.cpp:399] reshape_stage_indicator -> reshaped_stage_indicator
I0925 22:59:47.897598 18373 net.cpp:148] Top shape: 1 500 (500)
I0925 22:59:47.897604 18373 net.cpp:156] Memory required for data: 18404
I0925 22:59:47.897624 18373 layer_factory.hpp:77] Creating layer reshape_frames
I0925 22:59:47.897644 18373 net.cpp:91] Creating Layer reshape_frames
I0925 22:59:47.897647 18399 net.cpp:141] Setting up embed_encoder
I0925 22:59:47.897730 18403 net.cpp:141] Setting up embed_encoder
I0925 22:59:47.897769 18353 net.cpp:141] Setting up reshape_stage_indicator
I0925 22:59:48.524883 18403 net.cpp:148] Top shape: 1 500 (500)
I0925 22:59:47.897858 18349 net.cpp:141] Setting up embed_encoder
I0925 22:59:47.957514 18367 net.cpp:141] Setting up embedding
I0925 22:59:48.524911 18403 net.cpp:156] Memory required for data: 18404
I0925 22:59:48.032426 18391 net.cpp:141] Setting up embedding
I0925 22:59:48.524941 18353 net.cpp:148] Top shape: 1 1 1 (1)
I0925 22:59:48.524863 18373 net.cpp:425] reshape_frames <- embedded_in_frames
I0925 22:59:48.524966 18391 net.cpp:148] Top shape: 1 1 500 (500)
I0925 22:59:48.524967 18353 net.cpp:156] Memory required for data: 20408
I0925 22:59:48.524874 18399 net.cpp:148] Top shape: 1 500 (500)
I0925 22:59:48.524976 18403 layer_factory.hpp:77] Creating layer reshape_frames
I0925 22:59:48.524945 18349 net.cpp:148] Top shape: 1 500 (500)
I0925 22:59:48.524991 18353 layer_factory.hpp:77] Creating layer embedding
I0925 22:59:48.070148 18375 net.cpp:141] Setting up conv1
I0925 22:59:48.525003 18349 net.cpp:156] Memory required for data: 18404
I0925 22:59:48.524992 18399 net.cpp:156] Memory required for data: 18404
I0925 22:59:48.525012 18403 net.cpp:91] Creating Layer reshape_frames
I0925 22:59:48.524948 18367 net.cpp:148] Top shape: 1 1 500 (500)
I0925 22:59:48.525027 18353 net.cpp:91] Creating Layer embedding
I0925 22:59:48.525030 18375 net.cpp:148] Top shape: 10 96 55 55 (2904000)
I0925 22:59:48.524981 18391 net.cpp:156] Memory required for data: 22408
I0925 22:59:48.525001 18373 net.cpp:399] reshape_frames -> embedded_input_frames
I0925 22:59:48.525041 18367 net.cpp:156] Memory required for data: 22408
I0925 22:59:48.525041 18375 net.cpp:156] Memory required for data: 17799480
I0925 22:59:48.525035 18403 net.cpp:425] reshape_frames <- embedded_in_frames
…
I0925 22:59:48.525123 18399 net.cpp:425] reshape_frames <- embedded_in_frames
I0925 22:59:48.525138 18349 net.cpp:399] reshape_frames -> embedded_input_frames
I0925 22:59:48.525136 18391 net.cpp:91] Creating Layer lstm1
I0925 22:59:48.525147 18375 net.cpp:91] Creating Layer relu1
I0925 22:59:47.991894 18355 net.cpp:141] Setting up embedding
I0925 22:59:48.525161 18391 net.cpp:425] lstm1 <- embedded_input_frames
I0925 22:59:48.525163 18375 net.cpp:425] relu1 <- conv1
I0925 22:59:48.525171 18391 net.cpp:425] lstm1 <- cont_sentence_input_1_split_0
I0925 22:59:48.525169 18399 net.cpp:399] reshape_frames -> embedded_input_frames
I0925 22:59:48.525176 18355 net.cpp:148] Top shape: 1 1 500 (500)
I0925 22:59:48.525174 18375 net.cpp:386] relu1 -> conv1 (in-place)
I0925 22:59:48.525187 18355 net.cpp:156] Memory required for data: 22408
I0925 22:59:48.525208 18355 layer_factory.hpp:77] Creating layer lstm1
I0925 22:59:48.525210 18373 net.cpp:141] Setting up reshape_frames
I0925 22:59:48.525228 18355 net.cpp:91] Creating Layer lstm1
I0925 22:59:48.525231 18373 net.cpp:148] Top shape: 1 1 500 (500)
I0925 22:59:48.525238 18355 net.cpp:425] lstm1 <- embedded_input_frames
I0925 22:59:48.525243 18373 net.cpp:156] Memory required for data: 20404
I0925 22:59:48.525252 18399 net.cpp:141] Setting up reshape_frames
I0925 22:59:48.525255 18373 layer_factory.hpp:77] Creating layer reshape_stage_indicator
I0925 22:59:48.525143 18367 net.cpp:425] lstm1 <- cont_sentence_input_1_split_0
I0925 22:59:48.525269 18399 net.cpp:148] Top shape: 1 1 500 (500)
I0925 22:59:48.525279 18399 net.cpp:156] Memory required for data: 20404
I0925 22:59:48.525286 18373 net.cpp:91] Creating Layer reshape_stage_indicator
I0925 22:59:48.525288 18399 layer_factory.hpp:77] Creating layer reshape_stage_indicator
I0925 22:59:48.525295 18367 net.cpp:399] lstm1 -> lstm1
I0925 22:59:48.525303 18399 net.cpp:91] Creating Layer reshape_stage_indicator
I0925 22:59:48.525297 18373 net.cpp:425] reshape_stage_indicator <- stage_indicator
I0925 22:59:48.525315 18399 net.cpp:425] reshape_stage_indicator <- stage_indicator
I0925 22:59:48.525329 18399 net.cpp:399] reshape_stage_indicator -> reshaped_stage_indicator
I0925 22:59:48.525329 18373 net.cpp:399] reshape_stage_indicator -> reshaped_stage_indicator
I0925 22:59:48.525341 18367 recurrent_layer.cpp:20] Initializing recurrent layer: assuming input batch contains 1 timesteps of 1 independent streams.
I0925 22:59:48.525416 18373 net.cpp:141] Setting up reshape_stage_indicator
I0925 22:59:48.525431 18373 net.cpp:148] Top shape: 1 1 1 (1)
I0925 22:59:48.525437 18373 net.cpp:156] Memory required for data: 20408
I0925 22:59:48.525444 18373 layer_factory.hpp:77] Creating layer embedding
I0925 22:59:48.525456 18373 net.cpp:91] Creating Layer embedding
I0925 22:59:48.525462 18373 net.cpp:425] embedding <- input_sentence
I0925 22:59:48.525461 18403 net.cpp:141] Setting up reshape_frames
I0925 22:59:48.525473 18373 net.cpp:399] embedding -> embedded_input_sentence
I0925 22:59:48.525476 18403 net.cpp:148] Top shape: 1 1 500 (500)
I0925 22:59:48.525482 18403 net.cpp:156] Memory required for data: 20404
I0925 22:59:48.525488 18403 layer_factory.hpp:77] Creating layer reshape_stage_indicator
I0925 22:59:48.525504 18403 net.cpp:91] Creating Layer reshape_stage_indicator
I0925 22:59:48.525511 18403 net.cpp:425] reshape_stage_indicator <- stage_indicator
I0925 22:59:48.525522 18403 net.cpp:399] reshape_stage_indicator -> reshaped_stage_indicator
I0925 22:59:48.076895 18359 net.cpp:141] Setting up embedding
I0925 22:59:48.525717 18359 net.cpp:148] Top shape: 1 1 500 (500)
I0925 22:59:48.525727 18359 net.cpp:156] Memory required for data: 22408
I0925 22:59:48.525741 18359 layer_factory.hpp:77] Creating layer lstm1
I0925 22:59:48.525755 18359 net.cpp:91] Creating Layer lstm1
I0925 22:59:48.525763 18359 net.cpp:425] lstm1 <- embedded_input_frames
I0925 22:59:48.525771 18359 net.cpp:425] lstm1 <- cont_sentence_input_1_split_0
I0925 22:59:48.525781 18359 net.cpp:399] lstm1 -> lstm1
I0925 22:59:48.525794 18359 recurrent_layer.cpp:20] Initializing recurrent layer: assuming input batch contains 1 timesteps of 1 independent streams.
I0925 22:59:48.525925 18367 net.cpp:49] Initializing net from parameters: 
layer {
  name: "lstm1_"
  type: "Input"
  top: "x"
  top: "cont"
  input_param {
    shape {
      dim: 1
      dim: 1
      dim: 500
    }
    shape {
      dim: 1
      dim: 1
    }
  }
}
layer {
  name: "lstm1_"
  type: "Input"
  top: "c_0"
  top: "h_0"
  input_param {
    shape {
      dim: 1
      dim: 1
      dim: 1000
    }
    shape {
      dim: 1
      dim: 1
      dim: 1000
    }
  }
}
layer {
  name: "lstm1_cont_slice"
  type: "Slice"
  bottom: "cont"
  top: "cont_1"
  slice_param {
    axis: 0
  }
}
layer {
  name: "lstm1_x_transform"
  type: "InnerProduct"
  bottom: "x"
  top: "W_xc_x"
  param {
    name: "W_xc"
  }
  param {
    name: "b_c"
  }
  propagate_down: true
  inner_product_param {
    num_output: 4000
    bias_term: true
    weight_filler {
      type: "uniform"
      min: -0.08
      max: 0.08
    }
    bias_filler {
      type: "constant"
      value: 0
    }
    axis: 2
  }
}
layer {
  name: "lstm1_W_xc_x_slice"
  type: "Slice"
  bottom: "W_xc_x"
  top: "W_xc_x_1"
  slice_param {
    axis: 0
  }
}
layer {
  name: "lstm1_h_conted_0"
  type: "Scale"
  bottom: "h_0"
  bottom: "cont_1"
  top: "h_conted_0"
  scale_param {
    axis: 0
  }
}
layer {
  name: "lstm1_transform_1"
  type: "InnerProduct"
  bottom: "h_conted_0"
  top: "W_hc_h_0"
  param {
    name: "W_hc"
  }
  inner_product_param {
    num_output: 4000
    bias_term: false
    weight_filler {
      type: "uniform"
      min: -0.08
      max: 0.08
    }
    axis: 2
  }
}
layer {
  name: "lstm1_gate_input_1"
  type: "Eltwise"
  bottom: "W_hc_h_0"
  bottom: "W_xc_x_1"
  top: "gate_input_1"
  eltwise_param {
    operation: SUM
  }
}
layer {
  name: "lstm1_unit_1"
  type: "LSTMUnit"
  bottom: "c_0"
  bottom: "gate_input_1"
  bottom: "cont_1"
  top: "c_1"
  top: "h_1"
}
layer {
  name: "lstm1_"
  type: "Split"
  bottom: "c_1"
  top: "c_T"
}
layer {
  name: "lstm1_h_concat"
  type: "Concat"
  bottom: "h_1"
  top: "h"
  concat_param {
    axis: 0
  }
}
layer {
  name: "h_pseudoloss"
  type: "Reduction"
  bottom: "h"
  top: "h_pseudoloss"
  loss_weight: 1
}
I0925 22:59:48.525259 18355 net.cpp:425] lstm1 <- cont_sentence_input_1_split_0
I0925 22:59:48.526223 18375 net.cpp:141] Setting up relu1
I0925 22:59:48.526399 18391 net.cpp:399] lstm1 -> lstm1
I0925 22:59:48.526413 18359 net.cpp:49] Initializing net from parameters: 
layer {
  name: "lstm1_"
  type: "Input"
  top: "x"
  top: "cont"
  input_param {
    shape {
      dim: 1
      dim: 1
      dim: 500
    }
    shape {
      dim: 1
      dim: 1
    }
  }
}
layer {
  name: "lstm1_"
  type: "Input"
  top: "c_0"
  top: "h_0"
  input_param {
    shape {
      dim: 1
      dim: 1
      dim: 1000
    }
    shape {
      dim: 1
      dim: 1
      dim: 1000
    }
  }
}
layer {
  name: "lstm1_cont_slice"
  type: "Slice"
  bottom: "cont"
  top: "cont_1"
  slice_param {
    axis: 0
  }
}
layer {
  name: "lstm1_x_transform"
  type: "InnerProduct"
  bottom: "x"
  top: "W_xc_x"
  param {
    name: "W_xc"
  }
  param {
    name: "b_c"
  }
  propagate_down: true
  inner_product_param {
    num_output: 4000
    bias_term: true
    weight_filler {
      type: "uniform"
      min: -0.08
      max: 0.08
    }
    bias_filler {
      type: "constant"
      value: 0
    }
    axis: 2
  }
}
layer {
  name: "lstm1_W_xc_x_slice"
  type: "Slice"
  bottom: "W_xc_x"
  top: "W_xc_x_1"
  slice_param {
    axis: 0
  }
}
layer {
  name: "lstm1_h_conted_0"
  type: "Scale"
  bottom: "h_0"
  bottom: "cont_1"
  top: "h_conted_0"
  scale_param {
    axis: 0
  }
}
layer {
  name: "lstm1_transform_1"
  type: "InnerProduct"
  bottom: "h_conted_0"
  top: "W_hc_h_0"
  param {
    name: "W_hc"
  }
  inner_product_param {
    num_output: 4000
    bias_term: false
    weight_filler {
      type: "uniform"
      min: -0.08
      max: 0.08
    }
    axis: 2
  }
}
layer {
  name: "lstm1_gate_input_1"
  type: "Eltwise"
  bottom: "W_hc_h_0"
  bottom: "W_xc_x_1"
  top: "gate_input_1"
  eltwise_param {
    operation: SUM
  }
}
layer {
  name: "lstm1_unit_1"
  type: "LSTMUnit"
  bottom: "c_0"
  bottom: "gate_input_1"
  bottom: "cont_1"
  top: "c_1"
  top: "h_1"
}
layer {
  name: "lstm1_"
  type: "Split"
  bottom: "c_1"
  top: "c_T"
}
layer {
  name: "lstm1_h_concat"
  type: "Concat"
  bottom: "h_1"
  top: "h"
  concat_param {
    axis: 0
  }
}
layer {
  name: "h_pseudoloss"
  type: "Reduction"
  bottom: "h"
  top: "h_pseudoloss"
  loss_weight: 1
}
I0925 22:59:48.619988 18355 net.cpp:399] lstm1 -> lstm1
I0925 22:59:48.619989 18375 net.cpp:148] Top shape: 10 96 55 55 (2904000)
I0925 22:59:48.620014 18391 recurrent_layer.cpp:20] Initializing recurrent layer: assuming input batch contains 1 timesteps of 1 independent streams.
I0925 22:59:48.620041 18375 net.cpp:156] Memory required for data: 29415480
I0925 22:59:48.620041 18355 recurrent_layer.cpp:20] Initializing recurrent layer: assuming input batch contains 1 timesteps of 1 independent streams.
I0925 22:59:48.620064 18375 layer_factory.hpp:77] Creating layer pool1
I0925 22:59:48.620074 18367 layer_factory.hpp:77] Creating layer lstm1_
I0925 22:59:48.620093 18367 net.cpp:91] Creating Layer lstm1_
I0925 22:59:48.620097 18375 net.cpp:91] Creating Layer pool1
I0925 22:59:48.620107 18367 net.cpp:399] lstm1_ -> x
I0925 22:59:48.620111 18375 net.cpp:425] pool1 <- conv1
I0925 22:59:48.620132 18375 net.cpp:399] pool1 -> pool1
I0925 22:59:48.620136 18367 net.cpp:399] lstm1_ -> cont
I0925 22:59:48.630766 18359 layer_factory.hpp:77] Creating layer lstm1_
I0925 22:59:48.630807 18391 net.cpp:49] Initializing net from parameters: 
layer {
  name: "lstm1_"
  type: "Input"
  top: "x"
  top: "cont"
  input_param {
    shape {
      dim: 1
      dim: 1
      dim: 500
    }
    shape {
      dim: 1
      dim: 1
    }
  }
}
layer {
  name: "lstm1_"
  type: "Input"
  top: "c_0"
  top: "h_0"
  input_param {
    shape {
      dim: 1
      dim: 1
      dim: 1000
    }
    shape {
      dim: 1
      dim: 1
      dim: 1000
    }
  }
}
layer {
  name: "lstm1_cont_slice"
  type: "Slice"
  bottom: "cont"
  top: "cont_1"
  slice_param {
    axis: 0
  }
}
layer {
  name: "lstm1_x_transform"
  type: "InnerProduct"
  bottom: "x"
  top: "W_xc_x"
  param {
    name: "W_xc"
  }
  param {
    name: "b_c"
  }
  propagate_down: true
  inner_product_param {
    num_output: 4000
    bias_term: true
    weight_filler {
      type: "uniform"
      min: -0.08
      max: 0.08
    }
    bias_filler {
      type: "constant"
      value: 0
    }
    axis: 2
  }
}
layer {
  name: "lstm1_W_xc_x_slice"
  type: "Slice"
  bottom: "W_xc_x"
  top: "W_xc_x_1"
  slice_param {
    axis: 0
  }
}
layer {
  name: "lstm1_h_conted_0"
  type: "Scale"
  bottom: "h_0"
  bottom: "cont_1"
  top: "h_conted_0"
  scale_param {
    axis: 0
  }
}
layer {
  name: "lstm1_transform_1"
  type: "InnerProduct"
  bottom: "h_conted_0"
  top: "W_hc_h_0"
  param {
    name: "W_hc"
  }
  inner_product_param {
    num_output: 4000
    bias_term: false
    weight_filler {
      type: "uniform"
      min: -0.08
      max: 0.08
    }
    axis: 2
  }
}
layer {
  name: "lstm1_gate_input_1"
  type: "Eltwise"
  bottom: "W_hc_h_0"
  bottom: "W_xc_x_1"
  top: "gate_input_1"
  eltwise_param {
    operation: SUM
  }
}
layer {
  name: "lstm1_unit_1"
  type: "LSTMUnit"
  bottom: "c_0"
  bottom: "gate_input_1"
  bottom: "cont_1"
  top: "c_1"
  top: "h_1"
}
layer {
  name: "lstm1_"
  type: "Split"
  bottom: "c_1"
  top: "c_T"
}
layer {
  name: "lstm1_h_concat"
  type: "Concat"
  bottom: "h_1"
  top: "h"
  concat_param {
    axis: 0
  }
}
layer {
  name: "h_pseudoloss"
  type: "Reduction"
  bottom: "h"
  top: "h_pseudoloss"
  loss_weight: 1
}
I0925 22:59:48.630825 18359 net.cpp:91] Creating Layer lstm1_
I0925 22:59:48.630807 18355 net.cpp:49] Initializing net from parameters: 
layer {
  name: "lstm1_"
  type: "Input"
  top: "x"
  top: "cont"
  input_param {
    shape {
      dim: 1
      dim: 1
      dim: 500
    }
    shape {
      dim: 1
      dim: 1
    }
  }
}
layer {
  name: "lstm1_"
  type: "Input"
  top: "c_0"
  top: "h_0"
  input_param {
    shape {
      dim: 1
      dim: 1
      dim: 1000
    }
    shape {
      dim: 1
      dim: 1
      dim: 1000
    }
  }
}
layer {
  name: "lstm1_cont_slice"
  type: "Slice"
  bottom: "cont"
  top: "cont_1"
  slice_param {
    axis: 0
  }
}
layer {
  name: "lstm1_x_transform"
  type: "InnerProduct"
  bottom: "x"
  top: "W_xc_x"
  param {
    name: "W_xc"
  }
  param {
    name: "b_c"
  }
  propagate_down: true
  inner_product_param {
    num_output: 4000
    bias_term: true
    weight_filler {
      type: "uniform"
      min: -0.08
      max: 0.08
    }
    bias_filler {
      type: "constant"
      value: 0
    }
    axis: 2
  }
}
layer {
  name: "lstm1_W_xc_x_slice"
  type: "Slice"
  bottom: "W_xc_x"
  top: "W_xc_x_1"
  slice_param {
    axis: 0
  }
}
layer {
  name: "lstm1_h_conted_0"
  type: "Scale"
  bottom: "h_0"
  bottom: "cont_1"
  top: "h_conted_0"
  scale_param {
    axis: 0
  }
}
layer {
  name: "lstm1_transform_1"
  type: "InnerProduct"
  bottom: "h_conted_0"
  top: "W_hc_h_0"
  param {
    name: "W_hc"
  }
  inner_product_param {
    num_output: 4000
    bias_term: false
    weight_filler {
      type: "uniform"
      min: -0.08
      max: 0.08
    }
    axis: 2
  }
}
layer {
  name: "lstm1_gate_input_1"
  type: "Eltwise"
  bottom: "W_hc_h_0"
  bottom: "W_xc_x_1"
  top: "gate_input_1"
  eltwise_param {
    operation: SUM
  }
}
layer {
  name: "lstm1_unit_1"
  type: "LSTMUnit"
  bottom: "c_0"
  bottom: "gate_input_1"
  bottom: "cont_1"
  top: "c_1"
  top: "h_1"
}
layer {
  name: "lstm1_"
  type: "Split"
  bottom: "c_1"
  top: "c_T"
}
layer {
  name: "lstm1_h_concat"
  type: "Concat"
  bottom: "h_1"
  top: "h"
  concat_param {
    axis: 0
  }
}
layer {
  name: "h_pseudoloss"
  type: "Reduction"
  bottom: "h"
  top: "h_pseudoloss"
  loss_weight: 1
}
I0925 22:59:48.630833 18359 net.cpp:399] lstm1_ -> x
I0925 22:59:48.630954 18391 layer_factory.hpp:77] Creating layer lstm1_
I0925 22:59:48.634713 18403 net.cpp:141] Setting up reshape_stage_indicator
I0925 22:59:48.634837 18349 net.cpp:141] Setting up reshape_frames
I0925 22:59:48.687119 18349 net.cpp:148] Top shape: 1 1 500 (500)
I0925 22:59:48.635018 18399 net.cpp:141] Setting up reshape_stage_indicator
I0925 22:59:48.635138 18375 net.cpp:141] Setting up pool1
I0925 22:59:48.687160 18399 net.cpp:148] Top shape: 1 1 1 (1)
I0925 22:59:48.687072 18391 net.cpp:91] Creating Layer lstm1_
I0925 22:59:48.687175 18399 net.cpp:156] Memory required for data: 20408
I0925 22:59:48.687131 18349 net.cpp:156] Memory required for data: 20404
I0925 22:59:48.687186 18399 layer_factory.hpp:77] Creating layer embedding
I0925 22:59:48.635109 18367 net.cpp:141] Setting up lstm1_
I0925 22:59:48.687199 18349 layer_factory.hpp:77] Creating layer reshape_stage_indicator
I0925 22:59:48.687113 18403 net.cpp:148] Top shape: 1 1 1 (1)
I0925 22:59:48.687214 18355 layer_factory.hpp:77] Creating layer lstm1_
I0925 22:59:48.687227 18367 net.cpp:148] Top shape: 1 1 500 (500)
I0925 22:59:48.687227 18349 net.cpp:91] Creating Layer reshape_stage_indicator
I0925 22:59:48.687209 18399 net.cpp:91] Creating Layer embedding
I0925 22:59:48.687191 18391 net.cpp:399] lstm1_ -> x
I0925 22:59:48.687255 18349 net.cpp:425] reshape_stage_indicator <- stage_indicator
I0925 22:59:48.687228 18403 net.cpp:156] Memory required for data: 20408
I0925 22:59:48.687263 18399 net.cpp:425] embedding <- input_sentence
I0925 22:59:48.687252 18367 net.cpp:148] Top shape: 1 1 (1)
I0925 22:59:48.687263 18355 net.cpp:91] Creating Layer lstm1_
I0925 22:59:48.687274 18367 net.cpp:156] Memory required for data: 2004
I0925 22:59:48.687275 18403 layer_factory.hpp:77] Creating layer embedding
I0925 22:59:48.687279 18399 net.cpp:399] embedding -> embedded_input_sentence
I0925 22:59:48.687278 18391 net.cpp:399] lstm1_ -> cont
I0925 22:59:48.687189 18375 net.cpp:148] Top shape: 10 96 27 27 (699840)
I0925 22:59:48.687294 18367 layer_factory.hpp:77] Creating layer lstm1_
I0925 22:59:48.687072 18359 net.cpp:399] lstm1_ -> cont
I0925 22:59:48.687309 18375 net.cpp:156] Memory required for data: 32214840
I0925 22:59:48.687296 18355 net.cpp:399] lstm1_ -> x
I0925 22:59:48.687283 18349 net.cpp:399] reshape_stage_indicator -> reshaped_stage_indicator
I0925 22:59:48.687331 18375 layer_factory.hpp:77] Creating layer norm1
I0925 22:59:48.687314 18367 net.cpp:91] Creating Layer lstm1_
I0925 22:59:48.687351 18403 net.cpp:91] Creating Layer embedding
I0925 22:59:48.687367 18355 net.cpp:399] lstm1_ -> cont
I0925 22:59:48.687361 18367 net.cpp:399] lstm1_ -> c_0
I0925 22:59:48.687383 18403 net.cpp:425] embedding <- input_sentence
I0925 22:59:48.687376 18375 net.cpp:91] Creating Layer norm1
I0925 22:59:48.687402 18367 net.cpp:399] lstm1_ -> h_0
I0925 22:59:48.687407 18375 net.cpp:425] norm1 <- pool1
I0925 22:59:48.687402 18403 net.cpp:399] embedding -> embedded_input_sentence
I0925 22:59:48.687429 18375 net.cpp:399] norm1 -> norm1
I0925 22:59:48.687616 18349 net.cpp:141] Setting up reshape_stage_indicator
I0925 22:59:48.687639 18349 net.cpp:148] Top shape: 1 1 1 (1)
I0925 22:59:48.687649 18349 net.cpp:156] Memory required for data: 20408
I0925 22:59:48.687659 18349 layer_factory.hpp:77] Creating layer embedding
I0925 22:59:48.687671 18355 net.cpp:141] Setting up lstm1_
I0925 22:59:48.687679 18349 net.cpp:91] Creating Layer embedding
I0925 22:59:48.687687 18355 net.cpp:148] Top shape: 1 1 500 (500)
I0925 22:59:48.687690 18349 net.cpp:425] embedding <- input_sentence
I0925 22:59:48.687695 18355 net.cpp:148] Top shape: 1 1 (1)
I0925 22:59:48.687700 18355 net.cpp:156] Memory required for data: 2004
I0925 22:59:48.687706 18355 layer_factory.hpp:77] Creating layer lstm1_
I0925 22:59:48.687714 18349 net.cpp:399] embedding -> embedded_input_sentence
I0925 22:59:48.687726 18355 net.cpp:91] Creating Layer lstm1_
I0925 22:59:48.687736 18355 net.cpp:399] lstm1_ -> c_0
I0925 22:59:48.687748 18355 net.cpp:399] lstm1_ -> h_0
I0925 22:59:48.735371 18391 net.cpp:141] Setting up lstm1_
I0925 22:59:48.735406 18359 net.cpp:141] Setting up lstm1_
I0925 22:59:48.735426 18391 net.cpp:148] Top shape: 1 1 500 (500)
I0925 22:59:48.735430 18359 net.cpp:148] Top shape: 1 1 500 (500)
I0925 22:59:48.735441 18391 net.cpp:148] Top shape: 1 1 (1)
I0925 22:59:48.735443 18359 net.cpp:148] Top shape: 1 1 (1)
I0925 22:59:48.735452 18359 net.cpp:156] Memory required for data: 2004
I0925 22:59:48.735452 18391 net.cpp:156] Memory required for data: 2004
I0925 22:59:48.735476 18359 layer_factory.hpp:77] Creating layer lstm1_
I0925 22:59:48.735476 18391 layer_factory.hpp:77] Creating layer lstm1_
I0925 22:59:48.735512 18391 net.cpp:91] Creating Layer lstm1_
I0925 22:59:48.735528 18359 net.cpp:91] Creating Layer lstm1_
I0925 22:59:48.735535 18391 net.cpp:399] lstm1_ -> c_0
I0925 22:59:48.735543 18359 net.cpp:399] lstm1_ -> c_0
I0925 22:59:48.735565 18391 net.cpp:399] lstm1_ -> h_0
I0925 22:59:48.735569 18359 net.cpp:399] lstm1_ -> h_0
I0925 22:59:48.802021 18367 net.cpp:141] Setting up lstm1_
I0925 22:59:48.802076 18367 net.cpp:148] Top shape: 1 1 1000 (1000)
I0925 22:59:48.802085 18367 net.cpp:148] Top shape: 1 1 1000 (1000)
I0925 22:59:48.802090 18367 net.cpp:156] Memory required for data: 10004
I0925 22:59:48.802099 18367 layer_factory.hpp:77] Creating layer lstm1_cont_slice
I0925 22:59:48.802134 18367 net.cpp:91] Creating Layer lstm1_cont_slice
I0925 22:59:48.802144 18367 net.cpp:425] lstm1_cont_slice <- cont
I0925 22:59:48.802157 18367 net.cpp:399] lstm1_cont_slice -> cont_1
I0925 22:59:48.802314 18359 net.cpp:141] Setting up lstm1_
I0925 22:59:48.802335 18359 net.cpp:148] Top shape: 1 1 1000 (1000)
I0925 22:59:48.802348 18359 net.cpp:148] Top shape: 1 1 1000 (1000)
I0925 22:59:48.802357 18359 net.cpp:156] Memory required for data: 10004
I0925 22:59:48.802368 18359 layer_factory.hpp:77] Creating layer lstm1_cont_slice
I0925 22:59:48.802391 18359 net.cpp:91] Creating Layer lstm1_cont_slice
I0925 22:59:48.802402 18359 net.cpp:425] lstm1_cont_slice <- cont
I0925 22:59:48.802417 18359 net.cpp:399] lstm1_cont_slice -> cont_1
I0925 22:59:48.806761 18353 net.cpp:141] Setting up embedding
I0925 22:59:48.806867 18353 net.cpp:148] Top shape: 1 1 500 (500)
I0925 22:59:48.806887 18353 net.cpp:156] Memory required for data: 22408
I0925 22:59:48.806937 18353 layer_factory.hpp:77] Creating layer lstm1
I0925 22:59:48.806990 18353 net.cpp:91] Creating Layer lstm1
I0925 22:59:48.807018 18353 net.cpp:425] lstm1 <- embedded_input_frames
I0925 22:59:48.807046 18353 net.cpp:425] lstm1 <- cont_sentence_input_1_split_0
I0925 22:59:48.807088 18353 net.cpp:399] lstm1 -> lstm1
I0925 22:59:48.807147 18353 recurrent_layer.cpp:20] Initializing recurrent layer: assuming input batch contains 1 timesteps of 1 independent streams.
I0925 22:59:48.808051 18353 net.cpp:49] Initializing net from parameters: 
layer {
  name: "lstm1_"
  type: "Input"
  top: "x"
  top: "cont"
  input_param {
    shape {
      dim: 1
      dim: 1
      dim: 500
    }
    shape {
      dim: 1
      dim: 1
    }
  }
}
layer {
  name: "lstm1_"
  type: "Input"
  top: "c_0"
  top: "h_0"
  input_param {
    shape {
      dim: 1
      dim: 1
      dim: 1000
    }
    shape {
      dim: 1
      dim: 1
      dim: 1000
    }
  }
}
layer {
  name: "lstm1_cont_slice"
  type: "Slice"
  bottom: "cont"
  top: "cont_1"
  slice_param {
    axis: 0
  }
}
layer {
  name: "lstm1_x_transform"
  type: "InnerProduct"
  bottom: "x"
  top: "W_xc_x"
  param {
    name: "W_xc"
  }
  param {
    name: "b_c"
  }
  propagate_down: true
  inner_product_param {
    num_output: 4000
    bias_term: true
    weight_filler {
      type: "uniform"
      min: -0.08
      max: 0.08
    }
    bias_filler {
      type: "constant"
      value: 0
    }
    axis: 2
  }
}
layer {
  name: "lstm1_W_xc_x_slice"
  type: "Slice"
  bottom: "W_xc_x"
  top: "W_xc_x_1"
  slice_param {
    axis: 0
  }
}
layer {
  name: "lstm1_h_conted_0"
  type: "Scale"
  bottom: "h_0"
  bottom: "cont_1"
  top: "h_conted_0"
  scale_param {
    axis: 0
  }
}
layer {
  name: "lstm1_transform_1"
  type: "InnerProduct"
  bottom: "h_conted_0"
  top: "W_hc_h_0"
  param {
    name: "W_hc"
  }
  inner_product_param {
    num_output: 4000
    bias_term: false
    weight_filler {
      type: "uniform"
      min: -0.08
      max: 0.08
    }
    axis: 2
  }
}
layer {
  name: "lstm1_gate_input_1"
  type: "Eltwise"
  bottom: "W_hc_h_0"
  bottom: "W_xc_x_1"
  top: "gate_input_1"
  eltwise_param {
    operation: SUM
  }
}
layer {
  name: "lstm1_unit_1"
  type: "LSTMUnit"
  bottom: "c_0"
  bottom: "gate_input_1"
  bottom: "cont_1"
  top: "c_1"
  top: "h_1"
}
layer {
  name: "lstm1_"
  type: "Split"
  bottom: "c_1"
  top: "c_T"
}
layer {
  name: "lstm1_h_concat"
  type: "Concat"
  bottom: "h_1"
  top: "h"
  concat_param {
    axis: 0
  }
}
layer {
  name: "h_pseudoloss"
  type: "Reduction"
  bottom: "h"
  top: "h_pseudoloss"
  loss_weight: 1
}
I0925 22:59:48.808357 18353 layer_factory.hpp:77] Creating layer lstm1_
I0925 22:59:48.808403 18353 net.cpp:91] Creating Layer lstm1_
I0925 22:59:48.808430 18353 net.cpp:399] lstm1_ -> x
I0925 22:59:48.808471 18353 net.cpp:399] lstm1_ -> cont
I0925 22:59:48.849335 18375 net.cpp:141] Setting up norm1
I0925 22:59:48.849391 18375 net.cpp:148] Top shape: 10 96 27 27 (699840)
I0925 22:59:48.849401 18375 net.cpp:156] Memory required for data: 35014200
I0925 22:59:48.849416 18375 layer_factory.hpp:77] Creating layer conv2
I0925 22:59:48.849453 18375 net.cpp:91] Creating Layer conv2
I0925 22:59:48.849465 18375 net.cpp:425] conv2 <- norm1
I0925 22:59:48.849485 18375 net.cpp:399] conv2 -> conv2
I0925 22:59:48.851336 18355 net.cpp:141] Setting up lstm1_
I0925 22:59:48.851389 18355 net.cpp:148] Top shape: 1 1 1000 (1000)
I0925 22:59:48.851402 18355 net.cpp:148] Top shape: 1 1 1000 (1000)
I0925 22:59:48.851410 18355 net.cpp:156] Memory required for data: 10004
I0925 22:59:48.851423 18355 layer_factory.hpp:77] Creating layer lstm1_cont_slice
I0925 22:59:48.851435 18359 net.cpp:141] Setting up lstm1_cont_slice
I0925 22:59:48.851452 18355 net.cpp:91] Creating Layer lstm1_cont_slice
I0925 22:59:48.851466 18355 net.cpp:425] lstm1_cont_slice <- cont
I0925 22:59:48.851478 18359 net.cpp:148] Top shape: 1 1 (1)
I0925 22:59:48.851488 18355 net.cpp:399] lstm1_cont_slice -> cont_1
I0925 22:59:48.851496 18359 net.cpp:156] Memory required for data: 10008
I0925 22:59:48.851501 18367 net.cpp:141] Setting up lstm1_cont_slice
I0925 22:59:48.851516 18359 layer_factory.hpp:77] Creating layer cont_1_lstm1_cont_slice_0_split
I0925 22:59:48.851522 18367 net.cpp:148] Top shape: 1 1 (1)
I0925 22:59:48.851531 18367 net.cpp:156] Memory required for data: 10008
I0925 22:59:48.851539 18367 layer_factory.hpp:77] Creating layer cont_1_lstm1_cont_slice_0_split
I0925 22:59:48.851541 18359 net.cpp:91] Creating Layer cont_1_lstm1_cont_slice_0_split
I0925 22:59:48.851554 18367 net.cpp:91] Creating Layer cont_1_lstm1_cont_slice_0_split
I0925 22:59:48.851562 18359 net.cpp:425] cont_1_lstm1_cont_slice_0_split <- cont_1
I0925 22:59:48.851563 18355 net.cpp:141] Setting up lstm1_cont_slice
I0925 22:59:48.851604 18355 net.cpp:148] Top shape: 1 1 (1)
I0925 22:59:48.851609 18359 net.cpp:399] cont_1_lstm1_cont_slice_0_split -> cont_1_lstm1_cont_slice_0_split_0
I0925 22:59:48.851613 18355 net.cpp:156] Memory required for data: 10008
I0925 22:59:48.851564 18367 net.cpp:425] cont_1_lstm1_cont_slice_0_split <- cont_1
I0925 22:59:48.851645 18355 layer_factory.hpp:77] Creating layer cont_1_lstm1_cont_slice_0_split
I0925 22:59:48.851656 18367 net.cpp:399] cont_1_lstm1_cont_slice_0_split -> cont_1_lstm1_cont_slice_0_split_0
I0925 22:59:48.851655 18359 net.cpp:399] cont_1_lstm1_cont_slice_0_split -> cont_1_lstm1_cont_slice_0_split_1
I0925 22:59:48.851665 18355 net.cpp:91] Creating Layer cont_1_lstm1_cont_slice_0_split
I0925 22:59:48.851675 18367 net.cpp:399] cont_1_lstm1_cont_slice_0_split -> cont_1_lstm1_cont_slice_0_split_1
I0925 22:59:48.851629 18391 net.cpp:141] Setting up lstm1_
I0925 22:59:48.851711 18391 net.cpp:148] Top shape: 1 1 1000 (1000)
I0925 22:59:48.851722 18391 net.cpp:148] Top shape: 1 1 1000 (1000)
I0925 22:59:48.851730 18391 net.cpp:156] Memory required for data: 10004
I0925 22:59:48.851739 18391 layer_factory.hpp:77] Creating layer lstm1_cont_slice
I0925 22:59:48.851754 18391 net.cpp:91] Creating Layer lstm1_cont_slice
I0925 22:59:48.851763 18391 net.cpp:425] lstm1_cont_slice <- cont
I0925 22:59:48.851780 18391 net.cpp:399] lstm1_cont_slice -> cont_1
I0925 22:59:48.851675 18355 net.cpp:425] cont_1_lstm1_cont_slice_0_split <- cont_1
I0925 22:59:48.851816 18355 net.cpp:399] cont_1_lstm1_cont_slice_0_split -> cont_1_lstm1_cont_slice_0_split_0
I0925 22:59:48.851835 18355 net.cpp:399] cont_1_lstm1_cont_slice_0_split -> cont_1_lstm1_cont_slice_0_split_1
I0925 22:59:48.851850 18359 net.cpp:141] Setting up cont_1_lstm1_cont_slice_0_split
I0925 22:59:48.851879 18359 net.cpp:148] Top shape: 1 1 (1)
I0925 22:59:48.851900 18359 net.cpp:148] Top shape: 1 1 (1)
I0925 22:59:48.851909 18355 net.cpp:141] Setting up cont_1_lstm1_cont_slice_0_split
I0925 22:59:48.851915 18359 net.cpp:156] Memory required for data: 10016
I0925 22:59:48.851923 18355 net.cpp:148] Top shape: 1 1 (1)
I0925 22:59:48.851934 18355 net.cpp:148] Top shape: 1 1 (1)
I0925 22:59:48.851933 18359 layer_factory.hpp:77] Creating layer lstm1_x_transform
I0925 22:59:48.851943 18355 net.cpp:156] Memory required for data: 10016
I0925 22:59:48.851953 18355 layer_factory.hpp:77] Creating layer lstm1_x_transform
I0925 22:59:48.851974 18355 net.cpp:91] Creating Layer lstm1_x_transform
I0925 22:59:48.851982 18355 net.cpp:425] lstm1_x_transform <- x
I0925 22:59:48.851979 18359 net.cpp:91] Creating Layer lstm1_x_transform
I0925 22:59:48.851997 18355 net.cpp:399] lstm1_x_transform -> W_xc_x
I0925 22:59:48.852000 18359 net.cpp:425] lstm1_x_transform <- x
I0925 22:59:48.852038 18359 net.cpp:399] lstm1_x_transform -> W_xc_x
I0925 22:59:48.858412 18367 net.cpp:141] Setting up cont_1_lstm1_cont_slice_0_split
I0925 22:59:48.858463 18367 net.cpp:148] Top shape: 1 1 (1)
I0925 22:59:48.858475 18367 net.cpp:148] Top shape: 1 1 (1)
I0925 22:59:48.858484 18367 net.cpp:156] Memory required for data: 10016
I0925 22:59:48.858496 18367 layer_factory.hpp:77] Creating layer lstm1_x_transform
I0925 22:59:48.858527 18367 net.cpp:91] Creating Layer lstm1_x_transform
I0925 22:59:48.858539 18367 net.cpp:425] lstm1_x_transform <- x
I0925 22:59:48.858558 18367 net.cpp:399] lstm1_x_transform -> W_xc_x
I0925 22:59:48.866744 18391 net.cpp:141] Setting up lstm1_cont_slice
I0925 22:59:48.866796 18391 net.cpp:148] Top shape: 1 1 (1)
I0925 22:59:48.866806 18391 net.cpp:156] Memory required for data: 10008
I0925 22:59:48.866818 18391 layer_factory.hpp:77] Creating layer cont_1_lstm1_cont_slice_0_split
I0925 22:59:48.866849 18391 net.cpp:91] Creating Layer cont_1_lstm1_cont_slice_0_split
I0925 22:59:48.866861 18391 net.cpp:425] cont_1_lstm1_cont_slice_0_split <- cont_1
I0925 22:59:48.866879 18391 net.cpp:399] cont_1_lstm1_cont_slice_0_split -> cont_1_lstm1_cont_slice_0_split_0
I0925 22:59:48.866899 18391 net.cpp:399] cont_1_lstm1_cont_slice_0_split -> cont_1_lstm1_cont_slice_0_split_1
I0925 22:59:48.866998 18391 net.cpp:141] Setting up cont_1_lstm1_cont_slice_0_split
I0925 22:59:48.867013 18391 net.cpp:148] Top shape: 1 1 (1)
I0925 22:59:48.867024 18391 net.cpp:148] Top shape: 1 1 (1)
I0925 22:59:48.867032 18391 net.cpp:156] Memory required for data: 10016
I0925 22:59:48.867039 18391 layer_factory.hpp:77] Creating layer lstm1_x_transform
I0925 22:59:48.867063 18391 net.cpp:91] Creating Layer lstm1_x_transform
I0925 22:59:48.867072 18391 net.cpp:425] lstm1_x_transform <- x
I0925 22:59:48.867086 18391 net.cpp:399] lstm1_x_transform -> W_xc_x
I0925 22:59:48.874843 18353 net.cpp:141] Setting up lstm1_
I0925 22:59:48.874907 18353 net.cpp:148] Top shape: 1 1 500 (500)
I0925 22:59:48.874927 18353 net.cpp:148] Top shape: 1 1 (1)
I0925 22:59:48.874938 18353 net.cpp:156] Memory required for data: 2004
I0925 22:59:48.874954 18353 layer_factory.hpp:77] Creating layer lstm1_
I0925 22:59:48.874992 18353 net.cpp:91] Creating Layer lstm1_
I0925 22:59:48.875025 18353 net.cpp:399] lstm1_ -> c_0
I0925 22:59:48.875061 18353 net.cpp:399] lstm1_ -> h_0
I0925 22:59:48.875197 18353 net.cpp:141] Setting up lstm1_
I0925 22:59:48.875218 18353 net.cpp:148] Top shape: 1 1 1000 (1000)
I0925 22:59:48.875231 18353 net.cpp:148] Top shape: 1 1 1000 (1000)
I0925 22:59:48.875238 18353 net.cpp:156] Memory required for data: 10004
I0925 22:59:48.875247 18353 layer_factory.hpp:77] Creating layer lstm1_cont_slice
I0925 22:59:48.875265 18353 net.cpp:91] Creating Layer lstm1_cont_slice
I0925 22:59:48.875277 18353 net.cpp:425] lstm1_cont_slice <- cont
I0925 22:59:48.875295 18353 net.cpp:399] lstm1_cont_slice -> cont_1
I0925 22:59:48.875365 18353 net.cpp:141] Setting up lstm1_cont_slice
I0925 22:59:48.875385 18353 net.cpp:148] Top shape: 1 1 (1)
I0925 22:59:48.875396 18353 net.cpp:156] Memory required for data: 10008
I0925 22:59:48.875406 18353 layer_factory.hpp:77] Creating layer cont_1_lstm1_cont_slice_0_split
I0925 22:59:48.875432 18353 net.cpp:91] Creating Layer cont_1_lstm1_cont_slice_0_split
I0925 22:59:48.875445 18353 net.cpp:425] cont_1_lstm1_cont_slice_0_split <- cont_1
I0925 22:59:48.875461 18353 net.cpp:399] cont_1_lstm1_cont_slice_0_split -> cont_1_lstm1_cont_slice_0_split_0
I0925 22:59:48.875481 18353 net.cpp:399] cont_1_lstm1_cont_slice_0_split -> cont_1_lstm1_cont_slice_0_split_1
I0925 22:59:48.875591 18353 net.cpp:141] Setting up cont_1_lstm1_cont_slice_0_split
I0925 22:59:48.875612 18353 net.cpp:148] Top shape: 1 1 (1)
I0925 22:59:48.875624 18353 net.cpp:148] Top shape: 1 1 (1)
I0925 22:59:48.875634 18353 net.cpp:156] Memory required for data: 10016
I0925 22:59:48.875644 18353 layer_factory.hpp:77] Creating layer lstm1_x_transform
I0925 22:59:48.875671 18353 net.cpp:91] Creating Layer lstm1_x_transform
I0925 22:59:48.875684 18353 net.cpp:425] lstm1_x_transform <- x
I0925 22:59:48.875715 18353 net.cpp:399] lstm1_x_transform -> W_xc_x
I0925 22:59:48.888007 18373 net.cpp:141] Setting up embedding
I0925 22:59:48.888063 18373 net.cpp:148] Top shape: 1 1 500 (500)
I0925 22:59:48.888074 18373 net.cpp:156] Memory required for data: 22408
I0925 22:59:48.888094 18373 layer_factory.hpp:77] Creating layer lstm1
I0925 22:59:48.888120 18373 net.cpp:91] Creating Layer lstm1
I0925 22:59:48.888134 18373 net.cpp:425] lstm1 <- embedded_input_frames
I0925 22:59:48.888144 18373 net.cpp:425] lstm1 <- cont_sentence_input_1_split_0
I0925 22:59:48.888155 18373 net.cpp:399] lstm1 -> lstm1
I0925 22:59:48.888177 18373 recurrent_layer.cpp:20] Initializing recurrent layer: assuming input batch contains 1 timesteps of 1 independent streams.
I0925 22:59:48.888564 18373 net.cpp:49] Initializing net from parameters: 
layer {
  name: "lstm1_"
  type: "Input"
  top: "x"
  top: "cont"
  input_param {
    shape {
      dim: 1
      dim: 1
      dim: 500
    }
    shape {
      dim: 1
      dim: 1
    }
  }
}
layer {
  name: "lstm1_"
  type: "Input"
  top: "c_0"
  top: "h_0"
  input_param {
    shape {
      dim: 1
      dim: 1
      dim: 1000
    }
    shape {
      dim: 1
      dim: 1
      dim: 1000
    }
  }
}
layer {
  name: "lstm1_cont_slice"
  type: "Slice"
  bottom: "cont"
  top: "cont_1"
  slice_param {
    axis: 0
  }
}
layer {
  name: "lstm1_x_transform"
  type: "InnerProduct"
  bottom: "x"
  top: "W_xc_x"
  param {
    name: "W_xc"
  }
  param {
    name: "b_c"
  }
  propagate_down: true
  inner_product_param {
    num_output: 4000
    bias_term: true
    weight_filler {
      type: "uniform"
      min: -0.08
      max: 0.08
    }
    bias_filler {
      type: "constant"
      value: 0
    }
    axis: 2
  }
}
layer {
  name: "lstm1_W_xc_x_slice"
  type: "Slice"
  bottom: "W_xc_x"
  top: "W_xc_x_1"
  slice_param {
    axis: 0
  }
}
layer {
  name: "lstm1_h_conted_0"
  type: "Scale"
  bottom: "h_0"
  bottom: "cont_1"
  top: "h_conted_0"
  scale_param {
    axis: 0
  }
}
layer {
  name: "lstm1_transform_1"
  type: "InnerProduct"
  bottom: "h_conted_0"
  top: "W_hc_h_0"
  param {
    name: "W_hc"
  }
  inner_product_param {
    num_output: 4000
    bias_term: false
    weight_filler {
      type: "uniform"
      min: -0.08
      max: 0.08
    }
    axis: 2
  }
}
layer {
  name: "lstm1_gate_input_1"
  type: "Eltwise"
  bottom: "W_hc_h_0"
  bottom: "W_xc_x_1"
  top: "gate_input_1"
  eltwise_param {
    operation: SUM
  }
}
layer {
  name: "lstm1_unit_1"
  type: "LSTMUnit"
  bottom: "c_0"
  bottom: "gate_input_1"
  bottom: "cont_1"
  top: "c_1"
  top: "h_1"
}
layer {
  name: "lstm1_"
  type: "Split"
  bottom: "c_1"
  top: "c_T"
}
layer {
  name: "lstm1_h_concat"
  type: "Concat"
  bottom: "h_1"
  top: "h"
  concat_param {
    axis: 0
  }
}
layer {
  name: "h_pseudoloss"
  type: "Reduction"
  bottom: "h"
  top: "h_pseudoloss"
  loss_weight: 1
}
I0925 22:59:48.888687 18373 layer_factory.hpp:77] Creating layer lstm1_
I0925 22:59:48.888708 18373 net.cpp:91] Creating Layer lstm1_
I0925 22:59:48.888720 18373 net.cpp:399] lstm1_ -> x
I0925 22:59:48.888733 18373 net.cpp:399] lstm1_ -> cont
I0925 22:59:48.888869 18373 net.cpp:141] Setting up lstm1_
I0925 22:59:48.888888 18373 net.cpp:148] Top shape: 1 1 500 (500)
I0925 22:59:48.888897 18373 net.cpp:148] Top shape: 1 1 (1)
I0925 22:59:48.888902 18373 net.cpp:156] Memory required for data: 2004
I0925 22:59:48.888908 18373 layer_factory.hpp:77] Creating layer lstm1_
I0925 22:59:48.888919 18373 net.cpp:91] Creating Layer lstm1_
I0925 22:59:48.888933 18373 net.cpp:399] lstm1_ -> c_0
I0925 22:59:48.888953 18373 net.cpp:399] lstm1_ -> h_0
I0925 22:59:48.889122 18373 net.cpp:141] Setting up lstm1_
I0925 22:59:48.889134 18373 net.cpp:148] Top shape: 1 1 1000 (1000)
I0925 22:59:48.889142 18373 net.cpp:148] Top shape: 1 1 1000 (1000)
I0925 22:59:48.889150 18373 net.cpp:156] Memory required for data: 10004
I0925 22:59:48.889159 18373 layer_factory.hpp:77] Creating layer lstm1_cont_slice
I0925 22:59:48.889183 18373 net.cpp:91] Creating Layer lstm1_cont_slice
I0925 22:59:48.889191 18373 net.cpp:425] lstm1_cont_slice <- cont
I0925 22:59:48.889202 18373 net.cpp:399] lstm1_cont_slice -> cont_1
I0925 22:59:48.889261 18373 net.cpp:141] Setting up lstm1_cont_slice
I0925 22:59:48.889273 18373 net.cpp:148] Top shape: 1 1 (1)
I0925 22:59:48.889279 18373 net.cpp:156] Memory required for data: 10008
I0925 22:59:48.889288 18373 layer_factory.hpp:77] Creating layer cont_1_lstm1_cont_slice_0_split
I0925 22:59:48.889307 18373 net.cpp:91] Creating Layer cont_1_lstm1_cont_slice_0_split
I0925 22:59:48.889314 18373 net.cpp:425] cont_1_lstm1_cont_slice_0_split <- cont_1
I0925 22:59:48.889322 18373 net.cpp:399] cont_1_lstm1_cont_slice_0_split -> cont_1_lstm1_cont_slice_0_split_0
I0925 22:59:48.889333 18373 net.cpp:399] cont_1_lstm1_cont_slice_0_split -> cont_1_lstm1_cont_slice_0_split_1
I0925 22:59:48.889884 18373 net.cpp:141] Setting up cont_1_lstm1_cont_slice_0_split
I0925 22:59:48.889897 18373 net.cpp:148] Top shape: 1 1 (1)
I0925 22:59:48.889907 18373 net.cpp:148] Top shape: 1 1 (1)
I0925 22:59:48.889916 18373 net.cpp:156] Memory required for data: 10016
I0925 22:59:48.889925 18373 layer_factory.hpp:77] Creating layer lstm1_x_transform
I0925 22:59:48.889940 18373 net.cpp:91] Creating Layer lstm1_x_transform
I0925 22:59:48.889945 18373 net.cpp:425] lstm1_x_transform <- x
I0925 22:59:48.889955 18373 net.cpp:399] lstm1_x_transform -> W_xc_x
I0925 22:59:48.897814 18375 net.cpp:141] Setting up conv2
I0925 22:59:48.897876 18375 net.cpp:148] Top shape: 10 256 27 27 (1866240)
I0925 22:59:48.897888 18375 net.cpp:156] Memory required for data: 42479160
I0925 22:59:48.897922 18375 layer_factory.hpp:77] Creating layer relu2
I0925 22:59:48.897948 18375 net.cpp:91] Creating Layer relu2
I0925 22:59:48.897961 18375 net.cpp:425] relu2 <- conv2
I0925 22:59:48.897981 18375 net.cpp:386] relu2 -> conv2 (in-place)
I0925 22:59:48.898694 18375 net.cpp:141] Setting up relu2
I0925 22:59:48.898716 18375 net.cpp:148] Top shape: 10 256 27 27 (1866240)
I0925 22:59:48.898726 18375 net.cpp:156] Memory required for data: 49944120
I0925 22:59:48.898736 18375 layer_factory.hpp:77] Creating layer pool2
I0925 22:59:48.898761 18375 net.cpp:91] Creating Layer pool2
I0925 22:59:48.898772 18375 net.cpp:425] pool2 <- conv2
I0925 22:59:48.898787 18375 net.cpp:399] pool2 -> pool2
I0925 22:59:48.898906 18375 net.cpp:141] Setting up pool2
I0925 22:59:48.898926 18375 net.cpp:148] Top shape: 10 256 13 13 (432640)
I0925 22:59:48.898936 18375 net.cpp:156] Memory required for data: 51674680
I0925 22:59:48.898946 18375 layer_factory.hpp:77] Creating layer norm2
I0925 22:59:48.898972 18375 net.cpp:91] Creating Layer norm2
I0925 22:59:48.898982 18375 net.cpp:425] norm2 <- pool2
I0925 22:59:48.898994 18375 net.cpp:399] norm2 -> norm2
I0925 22:59:48.899485 18375 net.cpp:141] Setting up norm2
I0925 22:59:48.899507 18375 net.cpp:148] Top shape: 10 256 13 13 (432640)
I0925 22:59:48.899516 18375 net.cpp:156] Memory required for data: 53405240
I0925 22:59:48.899526 18375 layer_factory.hpp:77] Creating layer conv3
I0925 22:59:48.899557 18375 net.cpp:91] Creating Layer conv3
I0925 22:59:48.899569 18375 net.cpp:425] conv3 <- norm2
I0925 22:59:48.899585 18375 net.cpp:399] conv3 -> conv3
I0925 22:59:48.900156 18391 net.cpp:141] Setting up lstm1_x_transform
I0925 22:59:48.900199 18391 net.cpp:148] Top shape: 1 1 4000 (4000)
I0925 22:59:48.900208 18391 net.cpp:156] Memory required for data: 26016
I0925 22:59:48.900234 18391 layer_factory.hpp:77] Creating layer lstm1_W_xc_x_slice
I0925 22:59:48.900256 18391 net.cpp:91] Creating Layer lstm1_W_xc_x_slice
I0925 22:59:48.900266 18391 net.cpp:425] lstm1_W_xc_x_slice <- W_xc_x
I0925 22:59:48.900280 18391 net.cpp:399] lstm1_W_xc_x_slice -> W_xc_x_1
I0925 22:59:48.903561 18391 net.cpp:141] Setting up lstm1_W_xc_x_slice
I0925 22:59:48.903587 18391 net.cpp:148] Top shape: 1 1 4000 (4000)
I0925 22:59:48.903595 18391 net.cpp:156] Memory required for data: 42016
I0925 22:59:48.903604 18391 layer_factory.hpp:77] Creating layer lstm1_h_conted_0
I0925 22:59:48.903623 18391 net.cpp:91] Creating Layer lstm1_h_conted_0
I0925 22:59:48.903632 18391 net.cpp:425] lstm1_h_conted_0 <- h_0
I0925 22:59:48.903643 18391 net.cpp:425] lstm1_h_conted_0 <- cont_1_lstm1_cont_slice_0_split_0
I0925 22:59:48.903656 18391 net.cpp:399] lstm1_h_conted_0 -> h_conted_0
I0925 22:59:48.903837 18391 net.cpp:141] Setting up lstm1_h_conted_0
I0925 22:59:48.903853 18391 net.cpp:148] Top shape: 1 1 1000 (1000)
I0925 22:59:48.903861 18391 net.cpp:156] Memory required for data: 46016
I0925 22:59:48.903869 18391 layer_factory.hpp:77] Creating layer lstm1_transform_1
I0925 22:59:48.903888 18391 net.cpp:91] Creating Layer lstm1_transform_1
I0925 22:59:48.903898 18391 net.cpp:425] lstm1_transform_1 <- h_conted_0
I0925 22:59:48.903910 18391 net.cpp:399] lstm1_transform_1 -> W_hc_h_0
I0925 22:59:48.916283 18353 net.cpp:141] Setting up lstm1_x_transform
I0925 22:59:48.916345 18353 net.cpp:148] Top shape: 1 1 4000 (4000)
I0925 22:59:48.916360 18353 net.cpp:156] Memory required for data: 26016
I0925 22:59:48.916396 18353 layer_factory.hpp:77] Creating layer lstm1_W_xc_x_slice
I0925 22:59:48.916426 18353 net.cpp:91] Creating Layer lstm1_W_xc_x_slice
I0925 22:59:48.916443 18353 net.cpp:425] lstm1_W_xc_x_slice <- W_xc_x
I0925 22:59:48.916465 18353 net.cpp:399] lstm1_W_xc_x_slice -> W_xc_x_1
I0925 22:59:48.916568 18353 net.cpp:141] Setting up lstm1_W_xc_x_slice
I0925 22:59:48.916590 18353 net.cpp:148] Top shape: 1 1 4000 (4000)
I0925 22:59:48.916601 18353 net.cpp:156] Memory required for data: 42016
I0925 22:59:48.916612 18353 layer_factory.hpp:77] Creating layer lstm1_h_conted_0
I0925 22:59:48.916632 18353 net.cpp:91] Creating Layer lstm1_h_conted_0
I0925 22:59:48.916646 18353 net.cpp:425] lstm1_h_conted_0 <- h_0
I0925 22:59:48.916659 18353 net.cpp:425] lstm1_h_conted_0 <- cont_1_lstm1_cont_slice_0_split_0
I0925 22:59:48.916676 18353 net.cpp:399] lstm1_h_conted_0 -> h_conted_0
I0925 22:59:48.917196 18353 net.cpp:141] Setting up lstm1_h_conted_0
I0925 22:59:48.917218 18353 net.cpp:148] Top shape: 1 1 1000 (1000)
I0925 22:59:48.917229 18353 net.cpp:156] Memory required for data: 46016
I0925 22:59:48.917239 18353 layer_factory.hpp:77] Creating layer lstm1_transform_1
I0925 22:59:48.917270 18353 net.cpp:91] Creating Layer lstm1_transform_1
I0925 22:59:48.917285 18353 net.cpp:425] lstm1_transform_1 <- h_conted_0
I0925 22:59:48.917304 18353 net.cpp:399] lstm1_transform_1 -> W_hc_h_0
I0925 22:59:48.928382 18375 net.cpp:141] Setting up conv3
I0925 22:59:48.928443 18375 net.cpp:148] Top shape: 10 384 13 13 (648960)
I0925 22:59:48.928455 18375 net.cpp:156] Memory required for data: 56001080
I0925 22:59:48.928491 18375 layer_factory.hpp:77] Creating layer relu3
I0925 22:59:48.928527 18375 net.cpp:91] Creating Layer relu3
I0925 22:59:48.928542 18375 net.cpp:425] relu3 <- conv3
I0925 22:59:48.928560 18375 net.cpp:386] relu3 -> conv3 (in-place)
I0925 22:59:48.929136 18375 net.cpp:141] Setting up relu3
I0925 22:59:48.929162 18375 net.cpp:148] Top shape: 10 384 13 13 (648960)
I0925 22:59:48.929173 18375 net.cpp:156] Memory required for data: 58596920
I0925 22:59:48.929185 18375 layer_factory.hpp:77] Creating layer conv4
I0925 22:59:48.929221 18375 net.cpp:91] Creating Layer conv4
I0925 22:59:48.929235 18375 net.cpp:425] conv4 <- conv3
I0925 22:59:48.929260 18375 net.cpp:399] conv4 -> conv4
I0925 22:59:48.935657 18355 net.cpp:141] Setting up lstm1_x_transform
I0925 22:59:48.935715 18355 net.cpp:148] Top shape: 1 1 4000 (4000)
I0925 22:59:48.935725 18355 net.cpp:156] Memory required for data: 26016
I0925 22:59:48.935751 18355 layer_factory.hpp:77] Creating layer lstm1_W_xc_x_slice
I0925 22:59:48.935771 18355 net.cpp:91] Creating Layer lstm1_W_xc_x_slice
I0925 22:59:48.935783 18355 net.cpp:425] lstm1_W_xc_x_slice <- W_xc_x
I0925 22:59:48.935797 18355 net.cpp:399] lstm1_W_xc_x_slice -> W_xc_x_1
I0925 22:59:48.935865 18355 net.cpp:141] Setting up lstm1_W_xc_x_slice
I0925 22:59:48.935880 18355 net.cpp:148] Top shape: 1 1 4000 (4000)
I0925 22:59:48.935889 18355 net.cpp:156] Memory required for data: 42016
I0925 22:59:48.935896 18355 layer_factory.hpp:77] Creating layer lstm1_h_conted_0
I0925 22:59:48.935911 18355 net.cpp:91] Creating Layer lstm1_h_conted_0
I0925 22:59:48.935921 18355 net.cpp:425] lstm1_h_conted_0 <- h_0
I0925 22:59:48.935931 18355 net.cpp:425] lstm1_h_conted_0 <- cont_1_lstm1_cont_slice_0_split_0
I0925 22:59:48.935943 18355 net.cpp:399] lstm1_h_conted_0 -> h_conted_0
I0925 22:59:48.936076 18355 net.cpp:141] Setting up lstm1_h_conted_0
I0925 22:59:48.936091 18355 net.cpp:148] Top shape: 1 1 1000 (1000)
I0925 22:59:48.936099 18355 net.cpp:156] Memory required for data: 46016
I0925 22:59:48.936107 18355 layer_factory.hpp:77] Creating layer lstm1_transform_1
I0925 22:59:48.936125 18355 net.cpp:91] Creating Layer lstm1_transform_1
I0925 22:59:48.936132 18355 net.cpp:425] lstm1_transform_1 <- h_conted_0
I0925 22:59:48.936146 18355 net.cpp:399] lstm1_transform_1 -> W_hc_h_0
I0925 22:59:48.949117 18375 net.cpp:141] Setting up conv4
I0925 22:59:48.949177 18375 net.cpp:148] Top shape: 10 384 13 13 (648960)
I0925 22:59:48.949187 18375 net.cpp:156] Memory required for data: 61192760
I0925 22:59:48.949209 18375 layer_factory.hpp:77] Creating layer relu4
I0925 22:59:48.949232 18375 net.cpp:91] Creating Layer relu4
I0925 22:59:48.949244 18375 net.cpp:425] relu4 <- conv4
I0925 22:59:48.949260 18375 net.cpp:386] relu4 -> conv4 (in-place)
I0925 22:59:48.949862 18375 net.cpp:141] Setting up relu4
I0925 22:59:48.949882 18375 net.cpp:148] Top shape: 10 384 13 13 (648960)
I0925 22:59:48.949889 18375 net.cpp:156] Memory required for data: 63788600
I0925 22:59:48.949898 18375 layer_factory.hpp:77] Creating layer conv5
I0925 22:59:48.949923 18375 net.cpp:91] Creating Layer conv5
I0925 22:59:48.949931 18375 net.cpp:425] conv5 <- conv4
I0925 22:59:48.949944 18375 net.cpp:399] conv5 -> conv5
I0925 22:59:48.977704 18367 net.cpp:141] Setting up lstm1_x_transform
I0925 22:59:48.977763 18367 net.cpp:148] Top shape: 1 1 4000 (4000)
I0925 22:59:48.977774 18367 net.cpp:156] Memory required for data: 26016
I0925 22:59:48.977804 18367 layer_factory.hpp:77] Creating layer lstm1_W_xc_x_slice
I0925 22:59:48.977828 18367 net.cpp:91] Creating Layer lstm1_W_xc_x_slice
I0925 22:59:48.977839 18367 net.cpp:425] lstm1_W_xc_x_slice <- W_xc_x
I0925 22:59:48.977855 18367 net.cpp:399] lstm1_W_xc_x_slice -> W_xc_x_1
I0925 22:59:48.977929 18367 net.cpp:141] Setting up lstm1_W_xc_x_slice
I0925 22:59:48.977947 18367 net.cpp:148] Top shape: 1 1 4000 (4000)
I0925 22:59:48.977955 18367 net.cpp:156] Memory required for data: 42016
I0925 22:59:48.977964 18367 layer_factory.hpp:77] Creating layer lstm1_h_conted_0
I0925 22:59:48.977988 18367 net.cpp:91] Creating Layer lstm1_h_conted_0
I0925 22:59:48.977998 18367 net.cpp:425] lstm1_h_conted_0 <- h_0
I0925 22:59:48.978010 18367 net.cpp:425] lstm1_h_conted_0 <- cont_1_lstm1_cont_slice_0_split_0
I0925 22:59:48.978024 18367 net.cpp:399] lstm1_h_conted_0 -> h_conted_0
I0925 22:59:48.978202 18367 net.cpp:141] Setting up lstm1_h_conted_0
I0925 22:59:48.978219 18367 net.cpp:148] Top shape: 1 1 1000 (1000)
I0925 22:59:48.978229 18367 net.cpp:156] Memory required for data: 46016
I0925 22:59:48.978237 18367 layer_factory.hpp:77] Creating layer lstm1_transform_1
I0925 22:59:48.978258 18367 net.cpp:91] Creating Layer lstm1_transform_1
I0925 22:59:48.978268 18367 net.cpp:425] lstm1_transform_1 <- h_conted_0
I0925 22:59:48.978282 18367 net.cpp:399] lstm1_transform_1 -> W_hc_h_0
I0925 22:59:48.993520 18391 net.cpp:141] Setting up lstm1_transform_1
I0925 22:59:48.993578 18391 net.cpp:148] Top shape: 1 1 4000 (4000)
I0925 22:59:48.993588 18391 net.cpp:156] Memory required for data: 62016
I0925 22:59:48.993618 18391 layer_factory.hpp:77] Creating layer lstm1_gate_input_1
I0925 22:59:48.993650 18391 net.cpp:91] Creating Layer lstm1_gate_input_1
I0925 22:59:48.993662 18391 net.cpp:425] lstm1_gate_input_1 <- W_hc_h_0
I0925 22:59:48.993674 18391 net.cpp:425] lstm1_gate_input_1 <- W_xc_x_1
I0925 22:59:48.993687 18391 net.cpp:399] lstm1_gate_input_1 -> gate_input_1
I0925 22:59:48.993791 18391 net.cpp:141] Setting up lstm1_gate_input_1
I0925 22:59:48.993806 18391 net.cpp:148] Top shape: 1 1 4000 (4000)
I0925 22:59:48.993814 18391 net.cpp:156] Memory required for data: 78016
I0925 22:59:48.993823 18391 layer_factory.hpp:77] Creating layer lstm1_unit_1
I0925 22:59:48.993837 18391 net.cpp:91] Creating Layer lstm1_unit_1
I0925 22:59:48.993845 18391 net.cpp:425] lstm1_unit_1 <- c_0
I0925 22:59:48.993856 18391 net.cpp:425] lstm1_unit_1 <- gate_input_1
I0925 22:59:48.993865 18391 net.cpp:425] lstm1_unit_1 <- cont_1_lstm1_cont_slice_0_split_1
I0925 22:59:48.993877 18391 net.cpp:399] lstm1_unit_1 -> c_1
I0925 22:59:48.993891 18391 net.cpp:399] lstm1_unit_1 -> h_1
I0925 22:59:48.994004 18391 net.cpp:141] Setting up lstm1_unit_1
I0925 22:59:48.994019 18391 net.cpp:148] Top shape: 1 1 1000 (1000)
I0925 22:59:48.994029 18391 net.cpp:148] Top shape: 1 1 1000 (1000)
I0925 22:59:48.994037 18391 net.cpp:156] Memory required for data: 86016
I0925 22:59:48.994045 18391 layer_factory.hpp:77] Creating layer lstm1_
I0925 22:59:48.994062 18391 net.cpp:91] Creating Layer lstm1_
I0925 22:59:48.994071 18391 net.cpp:425] lstm1_ <- c_1
I0925 22:59:48.994083 18391 net.cpp:399] lstm1_ -> c_T
I0925 22:59:48.994134 18391 net.cpp:141] Setting up lstm1_
I0925 22:59:48.994149 18391 net.cpp:148] Top shape: 1 1 1000 (1000)
I0925 22:59:48.994156 18391 net.cpp:156] Memory required for data: 90016
I0925 22:59:48.994164 18391 layer_factory.hpp:77] Creating layer lstm1_h_concat
I0925 22:59:48.994179 18391 net.cpp:91] Creating Layer lstm1_h_concat
I0925 22:59:48.994187 18391 net.cpp:425] lstm1_h_concat <- h_1
I0925 22:59:48.994204 18391 net.cpp:399] lstm1_h_concat -> h
I0925 22:59:48.994276 18391 net.cpp:141] Setting up lstm1_h_concat
I0925 22:59:48.994293 18391 net.cpp:148] Top shape: 1 1 1000 (1000)
I0925 22:59:48.994302 18391 net.cpp:156] Memory required for data: 94016
I0925 22:59:48.994309 18391 layer_factory.hpp:77] Creating layer h_pseudoloss
I0925 22:59:48.994330 18391 net.cpp:91] Creating Layer h_pseudoloss
I0925 22:59:48.994339 18391 net.cpp:425] h_pseudoloss <- h
I0925 22:59:48.994350 18391 net.cpp:399] h_pseudoloss -> h_pseudoloss
I0925 22:59:48.994498 18391 net.cpp:141] Setting up h_pseudoloss
…
I0925 22:59:48.994704 18391 net.cpp:219] lstm1_ does not need backward computation.
I0925 22:59:48.994719 18391 net.cpp:261] This network produces output c_T
I0925 22:59:48.994726 18391 net.cpp:261] This network produces output h_pseudoloss
I0925 22:59:48.994758 18391 net.cpp:274] Network initialization done.
I0925 22:59:48.994849 18391 recurrent_layer.cpp:150] Adding parameter 0: W_xc
I0925 22:59:48.994860 18391 recurrent_layer.cpp:150] Adding parameter 1: b_c
I0925 22:59:48.994868 18391 recurrent_layer.cpp:150] Adding parameter 2: W_hc
I0925 22:59:48.995055 18391 net.cpp:141] Setting up lstm1
I0925 22:59:48.995072 18391 net.cpp:148] Top shape: 1 1 1000 (1000)
I0925 22:59:48.995080 18391 net.cpp:156] Memory required for data: 26408
I0925 22:59:48.995102 18391 layer_factory.hpp:77] Creating layer concat
I0925 22:59:48.995116 18391 net.cpp:91] Creating Layer concat
I0925 22:59:48.995126 18391 net.cpp:425] concat <- lstm1
I0925 22:59:48.995137 18391 net.cpp:425] concat <- embedded_input_sentence
I0925 22:59:48.995146 18391 net.cpp:425] concat <- reshaped_stage_indicator
I0925 22:59:48.995157 18391 net.cpp:399] concat -> lstm1_video_sequence
I0925 22:59:48.995231 18391 net.cpp:141] Setting up concat
I0925 22:59:48.995246 18391 net.cpp:148] Top shape: 1 1 1501 (1501)
I0925 22:59:48.995254 18391 net.cpp:156] Memory required for data: 32412
I0925 22:59:48.995261 18391 layer_factory.hpp:77] Creating layer lstm2
I0925 22:59:48.995280 18391 net.cpp:91] Creating Layer lstm2
I0925 22:59:48.995290 18391 net.cpp:425] lstm2 <- lstm1_video_sequence
I0925 22:59:48.995299 18391 net.cpp:425] lstm2 <- cont_sentence_input_1_split_1
I0925 22:59:48.995312 18391 net.cpp:399] lstm2 -> lstm2
I0925 22:59:48.995328 18391 recurrent_layer.cpp:20] Initializing recurrent layer: assuming input batch contains 1 timesteps of 1 independent streams.
I0925 22:59:48.995561 18373 net.cpp:141] Setting up lstm1_x_transform
I0925 22:59:48.995606 18373 net.cpp:148] Top shape: 1 1 4000 (4000)
I0925 22:59:48.995616 18373 net.cpp:156] Memory required for data: 26016
I0925 22:59:48.995645 18373 layer_factory.hpp:77] Creating layer lstm1_W_xc_x_slice
I0925 22:59:48.995667 18373 net.cpp:91] Creating Layer lstm1_W_xc_x_slice
I0925 22:59:48.995679 18373 net.cpp:425] lstm1_W_xc_x_slice <- W_xc_x
I0925 22:59:48.995695 18373 net.cpp:399] lstm1_W_xc_x_slice -> W_xc_x_1
I0925 22:59:48.995756 18391 net.cpp:49] Initializing net from parameters: 
layer {
  name: "lstm2_"
  type: "Input"
  top: "x"
  top: "cont"
  input_param {
    shape {
      dim: 1
      dim: 1
      dim: 1501
    }
    shape {
      dim: 1
      dim: 1
    }
  }
}
layer {
  name: "lstm2_"
  type: "Input"
  top: "c_0"
  top: "h_0"
  input_param {
    shape {
      dim: 1
      dim: 1
      dim: 1000
    }
    shape {
      dim: 1
      dim: 1
      dim: 1000
    }
  }
}
layer {
  name: "lstm2_cont_slice"
  type: "Slice"
  bottom: "cont"
  top: "cont_1"
  slice_param {
    axis: 0
  }
}
layer {
  name: "lstm2_x_transform"
  type: "InnerProduct"
  bottom: "x"
  top: "W_xc_x"
  param {
    name: "W_xc"
  }
  param {
    name: "b_c"
  }
  propagate_down: true
  inner_product_param {
    num_output: 4000
    bias_term: true
    weight_filler {
      type: "uniform"
      min: -0.08
      max: 0.08
    }
    bias_filler {
      type: "constant"
      value: 0
    }
    axis: 2
  }
}
layer {
  name: "lstm2_W_xc_x_slice"
  type: "Slice"
  bottom: "W_xc_x"
  top: "W_xc_x_1"
  slice_param {
    axis: 0
  }
}
layer {
  name: "lstm2_h_conted_0"
  type: "Scale"
  bottom: "h_0"
  bottom: "cont_1"
  top: "h_conted_0"
  scale_param {
    axis: 0
  }
}
layer {
  name: "lstm2_transform_1"
  type: "InnerProduct"
  bottom: "h_conted_0"
  top: "W_hc_h_0"
  param {
    name: "W_hc"
  }
  inner_product_param {
    num_output: 4000
    bias_term: false
    weight_filler {
      type: "uniform"
      min: -0.08
      max: 0.08
    }
    axis: 2
  }
}
layer {
  name: "lstm2_gate_input_1"
  type: "Eltwise"
  bottom: "W_hc_h_0"
  bottom: "W_xc_x_1"
  top: "gate_input_1"
  eltwise_param {
    operation: SUM
  }
}
layer {
  name: "lstm2_unit_1"
  type: "LSTMUnit"
  bottom: "c_0"
  bottom: "gate_input_1"
  bottom: "cont_1"
  top: "c_1"
  top: "h_1"
}
layer {
  name: "lstm2_"
  type: "Split"
  bottom: "c_1"
  top: "c_T"
}
layer {
  name: "lstm2_h_concat"
  type: "Concat"
  bottom: "h_1"
  top: "h"
  concat_param {
    axis: 0
  }
}
layer {
  name: "h_pseudoloss"
  type: "Reduction"
  bottom: "h"
  top: "h_pseudoloss"
  loss_weight: 1
}
I0925 22:59:48.995898 18391 layer_factory.hpp:77] Creating layer lstm2_
I0925 22:59:48.995916 18391 net.cpp:91] Creating Layer lstm2_
I0925 22:59:48.995928 18391 net.cpp:399] lstm2_ -> x
I0925 22:59:48.995944 18391 net.cpp:399] lstm2_ -> cont
I0925 22:59:48.996487 18373 net.cpp:141] Setting up lstm1_W_xc_x_slice
I0925 22:59:48.996508 18373 net.cpp:148] Top shape: 1 1 4000 (4000)
I0925 22:59:48.996516 18373 net.cpp:156] Memory required for data: 42016
I0925 22:59:48.996526 18373 layer_factory.hpp:77] Creating layer lstm1_h_conted_0
I0925 22:59:48.996561 18373 net.cpp:91] Creating Layer lstm1_h_conted_0
I0925 22:59:48.996572 18373 net.cpp:425] lstm1_h_conted_0 <- h_0
I0925 22:59:48.996585 18373 net.cpp:425] lstm1_h_conted_0 <- cont_1_lstm1_cont_slice_0_split_0
I0925 22:59:48.996599 18373 net.cpp:399] lstm1_h_conted_0 -> h_conted_0
I0925 22:59:48.998761 18359 net.cpp:141] Setting up lstm1_x_transform
I0925 22:59:48.998790 18359 net.cpp:148] Top shape: 1 1 4000 (4000)
I0925 22:59:48.998800 18359 net.cpp:156] Memory required for data: 26016
I0925 22:59:48.998821 18359 layer_factory.hpp:77] Creating layer lstm1_W_xc_x_slice
I0925 22:59:48.998838 18359 net.cpp:91] Creating Layer lstm1_W_xc_x_slice
I0925 22:59:48.998849 18359 net.cpp:425] lstm1_W_xc_x_slice <- W_xc_x
I0925 22:59:48.998863 18359 net.cpp:399] lstm1_W_xc_x_slice -> W_xc_x_1
I0925 22:59:49.000430 18375 net.cpp:141] Setting up conv5
I0925 22:59:49.000453 18375 net.cpp:148] Top shape: 10 256 13 13 (432640)
I0925 22:59:49.000464 18375 net.cpp:156] Memory required for data: 65519160
I0925 22:59:49.000488 18375 layer_factory.hpp:77] Creating layer relu5
I0925 22:59:49.000509 18375 net.cpp:91] Creating Layer relu5
I0925 22:59:49.000521 18375 net.cpp:425] relu5 <- conv5
I0925 22:59:49.000533 18375 net.cpp:386] relu5 -> conv5 (in-place)
I0925 22:59:49.001137 18375 net.cpp:141] Setting up relu5
I0925 22:59:49.001157 18375 net.cpp:148] Top shape: 10 256 13 13 (432640)
I0925 22:59:49.001165 18375 net.cpp:156] Memory required for data: 67249720
I0925 22:59:49.001174 18375 layer_factory.hpp:77] Creating layer pool5
I0925 22:59:49.001194 18375 net.cpp:91] Creating Layer pool5
I0925 22:59:49.001202 18375 net.cpp:425] pool5 <- conv5
I0925 22:59:49.001214 18375 net.cpp:399] pool5 -> pool5
I0925 22:59:49.001319 18375 net.cpp:141] Setting up pool5
I0925 22:59:49.001334 18375 net.cpp:148] Top shape: 10 256 6 6 (92160)
I0925 22:59:49.001343 18375 net.cpp:156] Memory required for data: 67618360
I0925 22:59:49.001351 18375 layer_factory.hpp:77] Creating layer fc6
I0925 22:59:49.001371 18375 net.cpp:91] Creating Layer fc6
I0925 22:59:49.001381 18375 net.cpp:425] fc6 <- pool5
I0925 22:59:49.001399 18375 net.cpp:399] fc6 -> fc6
I0925 22:59:49.087934 18373 net.cpp:141] Setting up lstm1_h_conted_0
I0925 22:59:49.088003 18373 net.cpp:148] Top shape: 1 1 1000 (1000)
I0925 22:59:49.088016 18373 net.cpp:156] Memory required for data: 46016
I0925 22:59:49.088029 18373 layer_factory.hpp:77] Creating layer lstm1_transform_1
I0925 22:59:49.088058 18373 net.cpp:91] Creating Layer lstm1_transform_1
I0925 22:59:49.088070 18373 net.cpp:425] lstm1_transform_1 <- h_conted_0
I0925 22:59:49.088089 18373 net.cpp:399] lstm1_transform_1 -> W_hc_h_0
I0925 22:59:49.099843 18353 net.cpp:141] Setting up lstm1_transform_1
I0925 22:59:49.099912 18353 net.cpp:148] Top shape: 1 1 4000 (4000)
I0925 22:59:49.099923 18353 net.cpp:156] Memory required for data: 62016
I0925 22:59:49.099959 18353 layer_factory.hpp:77] Creating layer lstm1_gate_input_1
I0925 22:59:49.099998 18353 net.cpp:91] Creating Layer lstm1_gate_input_1
I0925 22:59:49.100036 18353 net.cpp:425] lstm1_gate_input_1 <- W_hc_h_0
I0925 22:59:49.100052 18353 net.cpp:425] lstm1_gate_input_1 <- W_xc_x_1
I0925 22:59:49.100069 18353 net.cpp:399] lstm1_gate_input_1 -> gate_input_1
I0925 22:59:49.100076 18391 net.cpp:141] Setting up lstm2_
I0925 22:59:49.099982 18355 net.cpp:141] Setting up lstm1_transform_1
I0925 22:59:49.100114 18391 net.cpp:148] Top shape: 1 1 1501 (1501)
I0925 22:59:49.100145 18391 net.cpp:148] Top shape: 1 1 (1)
I0925 22:59:49.100159 18391 net.cpp:156] Memory required for data: 6008
I0925 22:59:49.100143 18355 net.cpp:148] Top shape: 1 1 4000 (4000)
I0925 22:59:49.100165 18367 net.cpp:141] Setting up lstm1_transform_1
I0925 22:59:49.100172 18391 layer_factory.hpp:77] Creating layer lstm2_
I0925 22:59:49.100196 18367 net.cpp:148] Top shape: 1 1 4000 (4000)
I0925 22:59:49.100170 18355 net.cpp:156] Memory required for data: 62016
I0925 22:59:49.100208 18367 net.cpp:156] Memory required for data: 62016
I0925 22:59:49.100222 18355 layer_factory.hpp:77] Creating layer lstm1_gate_input_1
I0925 22:59:49.100226 18367 layer_factory.hpp:77] Creating layer lstm1_gate_input_1
I0925 22:59:49.100224 18391 net.cpp:91] Creating Layer lstm2_
I0925 22:59:49.100251 18367 net.cpp:91] Creating Layer lstm1_gate_input_1
I0925 22:59:49.100257 18355 net.cpp:91] Creating Layer lstm1_gate_input_1
I0925 22:59:49.100260 18391 net.cpp:399] lstm2_ -> c_0
I0925 22:59:49.100270 18355 net.cpp:425] lstm1_gate_input_1 <- W_hc_h_0
I0925 22:59:49.100284 18355 net.cpp:425] lstm1_gate_input_1 <- W_xc_x_1
I0925 22:59:49.100296 18391 net.cpp:399] lstm2_ -> h_0
I0925 22:59:49.100298 18355 net.cpp:399] lstm1_gate_input_1 -> gate_input_1
I0925 22:59:49.100350 18349 net.cpp:141] Setting up embedding
I0925 22:59:49.100370 18349 net.cpp:148] Top shape: 1 1 500 (500)
I0925 22:59:49.100379 18349 net.cpp:156] Memory required for data: 22408
I0925 22:59:49.100399 18349 layer_factory.hpp:77] Creating layer lstm1
I0925 22:59:49.100420 18349 net.cpp:91] Creating Layer lstm1
I0925 22:59:49.100430 18349 net.cpp:425] lstm1 <- embedded_input_frames
I0925 22:59:49.100430 18359 net.cpp:141] Setting up lstm1_W_xc_x_slice
I0925 22:59:49.100443 18349 net.cpp:425] lstm1 <- cont_sentence_input_1_split_0
I0925 22:59:49.100455 18359 net.cpp:148] Top shape: 1 1 4000 (4000)
I0925 22:59:49.100463 18349 net.cpp:399] lstm1 -> lstm1
I0925 22:59:49.100466 18359 net.cpp:156] Memory required for data: 42016
I0925 22:59:49.100476 18359 layer_factory.hpp:77] Creating layer lstm1_h_conted_0
I0925 22:59:49.100486 18349 recurrent_layer.cpp:20] Initializing recurrent layer: assuming input batch contains 1 timesteps of 1 independent streams.
I0925 22:59:49.100488 18399 net.cpp:141] Setting up embedding
I0925 22:59:49.100497 18359 net.cpp:91] Creating Layer lstm1_h_conted_0
I0925 22:59:49.100507 18399 net.cpp:148] Top shape: 1 1 500 (500)
I0925 22:59:49.100510 18359 net.cpp:425] lstm1_h_conted_0 <- h_0
I0925 22:59:49.100514 18399 net.cpp:156] Memory required for data: 22408
I0925 22:59:49.100525 18359 net.cpp:425] lstm1_h_conted_0 <- cont_1_lstm1_cont_slice_0_split_0
I0925 22:59:49.100531 18399 layer_factory.hpp:77] Creating layer lstm1
I0925 22:59:49.100540 18359 net.cpp:399] lstm1_h_conted_0 -> h_conted_0
I0925 22:59:49.100549 18353 net.cpp:141] Setting up lstm1_gate_input_1
I0925 22:59:49.100553 18399 net.cpp:91] Creating Layer lstm1
I0925 22:59:49.100581 18353 net.cpp:148] Top shape: 1 1 4000 (4000)
I0925 22:59:49.100592 18353 net.cpp:156] Memory required for data: 78016
I0925 22:59:49.100592 18399 net.cpp:425] lstm1 <- embedded_input_frames
I0925 22:59:49.100602 18353 layer_factory.hpp:77] Creating layer lstm1_unit_1
I0925 22:59:49.100610 18399 net.cpp:425] lstm1 <- cont_sentence_input_1_split_0
I0925 22:59:49.100630 18353 net.cpp:91] Creating Layer lstm1_unit_1
I0925 22:59:49.100642 18353 net.cpp:425] lstm1_unit_1 <- c_0
I0925 22:59:49.100651 18399 net.cpp:399] lstm1 -> lstm1
I0925 22:59:49.100658 18391 net.cpp:141] Setting up lstm2_
I0925 22:59:49.100677 18391 net.cpp:148] Top shape: 1 1 1000 (1000)
I0925 22:59:49.100684 18399 recurrent_layer.cpp:20] Initializing recurrent layer: assuming input batch contains 1 timesteps of 1 independent streams.
I0925 22:59:49.100689 18391 net.cpp:148] Top shape: 1 1 1000 (1000)
I0925 22:59:49.100697 18391 net.cpp:156] Memory required for data: 14008
I0925 22:59:49.100706 18391 layer_factory.hpp:77] Creating layer lstm2_cont_slice
I0925 22:59:49.100725 18391 net.cpp:91] Creating Layer lstm2_cont_slice
I0925 22:59:49.100736 18391 net.cpp:425] lstm2_cont_slice <- cont
I0925 22:59:49.100741 18355 net.cpp:141] Setting up lstm1_gate_input_1
I0925 22:59:49.100752 18391 net.cpp:399] lstm2_cont_slice -> cont_1
I0925 22:59:49.100760 18355 net.cpp:148] Top shape: 1 1 4000 (4000)
I0925 22:59:49.100770 18355 net.cpp:156] Memory required for data: 78016
I0925 22:59:49.100780 18355 layer_factory.hpp:77] Creating layer lstm1_unit_1
I0925 22:59:49.100793 18355 net.cpp:91] Creating Layer lstm1_unit_1
I0925 22:59:49.100807 18355 net.cpp:425] lstm1_unit_1 <- c_0
I0925 22:59:49.100818 18355 net.cpp:425] lstm1_unit_1 <- gate_input_1
I0925 22:59:49.100829 18355 net.cpp:425] lstm1_unit_1 <- cont_1_lstm1_cont_slice_0_split_1
I0925 22:59:49.100842 18355 net.cpp:399] lstm1_unit_1 -> c_1
I0925 22:59:49.100859 18355 net.cpp:399] lstm1_unit_1 -> h_1
I0925 22:59:49.100654 18353 net.cpp:425] lstm1_unit_1 <- gate_input_1
I0925 22:59:49.100894 18353 net.cpp:425] lstm1_unit_1 <- cont_1_lstm1_cont_slice_0_split_1
I0925 22:59:49.100909 18353 net.cpp:399] lstm1_unit_1 -> c_1
I0925 22:59:49.100925 18353 net.cpp:399] lstm1_unit_1 -> h_1
I0925 22:59:49.100262 18367 net.cpp:425] lstm1_gate_input_1 <- W_hc_h_0
I0925 22:59:49.100966 18349 net.cpp:49] Initializing net from parameters: 
layer {
  name: "lstm1_"
  type: "Input"
  top: "x"
  top: "cont"
  input_param {
    shape {
      dim: 1
      dim: 1
      dim: 500
    }
    shape {
      dim: 1
      dim: 1
    }
  }
}
layer {
  name: "lstm1_"
  type: "Input"
  top: "c_0"
  top: "h_0"
  input_param {
    shape {
      dim: 1
      dim: 1
      dim: 1000
    }
    shape {
      dim: 1
      dim: 1
      dim: 1000
    }
  }
}
layer {
  name: "lstm1_cont_slice"
  type: "Slice"
  bottom: "cont"
  top: "cont_1"
  slice_param {
    axis: 0
  }
}
layer {
  name: "lstm1_x_transform"
  type: "InnerProduct"
  bottom: "x"
  top: "W_xc_x"
  param {
    name: "W_xc"
  }
  param {
    name: "b_c"
  }
  propagate_down: true
  inner_product_param {
    num_output: 4000
    bias_term: true
    weight_filler {
      type: "uniform"
      min: -0.08
      max: 0.08
    }
    bias_filler {
      type: "constant"
      value: 0
    }
    axis: 2
  }
}
layer {
  name: "lstm1_W_xc_x_slice"
  type: "Slice"
  bottom: "W_xc_x"
  top: "W_xc_x_1"
  slice_param {
    axis: 0
  }
}
layer {
  name: "lstm1_h_conted_0"
  type: "Scale"
  bottom: "h_0"
  bottom: "cont_1"
  top: "h_conted_0"
  scale_param {
    axis: 0
  }
}
layer {
  name: "lstm1_transform_1"
  type: "InnerProduct"
  bottom: "h_conted_0"
  top: "W_hc_h_0"
  param {
    name: "W_hc"
  }
  inner_product_param {
    num_output: 4000
    bias_term: false
    weight_filler {
      type: "uniform"
      min: -0.08
      max: 0.08
    }
    axis: 2
  }
}
layer {
  name: "lstm1_gate_input_1"
  type: "Eltwise"
  bottom: "W_hc_h_0"
  bottom: "W_xc_x_1"
  top: "gate_input_1"
  eltwise_param {
    operation: SUM
  }
}
layer {
  name: "lstm1_unit_1"
  type: "LSTMUnit"
  bottom: "c_0"
  bottom: "gate_input_1"
  bottom: "cont_1"
  top: "c_1"
  top: "h_1"
}
layer {
  name: "lstm1_"
  type: "Split"
  bottom: "c_1"
  top: "c_T"
}
layer {
  name: "lstm1_h_concat"
  type: "Concat"
  bottom: "h_1"
  top: "h"
  concat_param {
    axis: 0
  }
}
layer {
  name: "h_pseudoloss"
  type: "Reduction"
  bottom: "h"
  top: "h_pseudoloss"
  loss_weight: 1
}
I0925 22:59:49.100993 18359 net.cpp:141] Setting up lstm1_h_conted_0
I0925 22:59:49.101021 18359 net.cpp:148] Top shape: 1 1 1000 (1000)
I0925 22:59:49.101029 18359 net.cpp:156] Memory required for data: 46016
I0925 22:59:49.101040 18359 layer_factory.hpp:77] Creating layer lstm1_transform_1
I0925 22:59:49.101058 18359 net.cpp:91] Creating Layer lstm1_transform_1
I0925 22:59:49.101068 18359 net.cpp:425] lstm1_transform_1 <- h_conted_0
I0925 22:59:49.101080 18399 net.cpp:49] Initializing net from parameters: 
layer {
  name: "lstm1_"
  type: "Input"
  top: "x"
  top: "cont"
  input_param {
    shape {
      dim: 1
      dim: 1
      dim: 500
    }
    shape {
      dim: 1
      dim: 1
    }
  }
}
layer {
  name: "lstm1_"
  type: "Input"
  top: "c_0"
  top: "h_0"
  input_param {
    shape {
      dim: 1
      dim: 1
      dim: 1000
    }
    shape {
      dim: 1
      dim: 1
      dim: 1000
    }
  }
}
layer {
  name: "lstm1_cont_slice"
  type: "Slice"
  bottom: "cont"
  top: "cont_1"
  slice_param {
    axis: 0
  }
}
layer {
  name: "lstm1_x_transform"
  type: "InnerProduct"
  bottom: "x"
  top: "W_xc_x"
  param {
    name: "W_xc"
  }
  param {
    name: "b_c"
  }
  propagate_down: true
  inner_product_param {
    num_output: 4000
    bias_term: true
    weight_filler {
      type: "uniform"
      min: -0.08
      max: 0.08
    }
    bias_filler {
      type: "constant"
      value: 0
    }
    axis: 2
  }
}
layer {
  name: "lstm1_W_xc_x_slice"
  type: "Slice"
  bottom: "W_xc_x"
  top: "W_xc_x_1"
  slice_param {
    axis: 0
  }
}
layer {
  name: "lstm1_h_conted_0"
  type: "Scale"
  bottom: "h_0"
  bottom: "cont_1"
  top: "h_conted_0"
  scale_param {
    axis: 0
  }
}
layer {
  name: "lstm1_transform_1"
  type: "InnerProduct"
  bottom: "h_conted_0"
  top: "W_hc_h_0"
  param {
    name: "W_hc"
  }
  inner_product_param {
    num_output: 4000
    bias_term: false
    weight_filler {
      type: "uniform"
      min: -0.08
      max: 0.08
    }
    axis: 2
  }
}
layer {
  name: "lstm1_gate_input_1"
  type: "Eltwise"
  bottom: "W_hc_h_0"
  bottom: "W_xc_x_1"
  top: "gate_input_1"
  eltwise_param {
    operation: SUM
  }
}
layer {
  name: "lstm1_unit_1"
  type: "LSTMUnit"
  bottom: "c_0"
  bottom: "gate_input_1"
  bottom: "cont_1"
  top: "c_1"
  top: "h_1"
}
layer {
  name: "lstm1_"
  type: "Split"
  bottom: "c_1"
  top: "c_T"
}
layer {
  name: "lstm1_h_concat"
  type: "Concat"
  bottom: "h_1"
  top: "h"
  concat_param {
    axis: 0
  }
}
layer {
  name: "h_pseudoloss"
  type: "Reduction"
  bottom: "h"
  top: "h_pseudoloss"
  loss_weight: 1
}
I0925 22:59:49.101084 18359 net.cpp:399] lstm1_transform_1 -> W_hc_h_0
I0925 22:59:49.101104 18355 net.cpp:141] Setting up lstm1_unit_1
I0925 22:59:49.101122 18355 net.cpp:148] Top shape: 1 1 1000 (1000)
I0925 22:59:49.101135 18355 net.cpp:148] Top shape: 1 1 1000 (1000)
I0925 22:59:49.101143 18355 net.cpp:156] Memory required for data: 86016
I0925 22:59:49.101150 18349 layer_factory.hpp:77] Creating layer lstm1_
I0925 22:59:49.101152 18355 layer_factory.hpp:77] Creating layer lstm1_
I0925 22:59:49.101178 18349 net.cpp:91] Creating Layer lstm1_
I0925 22:59:49.101187 18355 net.cpp:91] Creating Layer lstm1_
I0925 22:59:49.100993 18367 net.cpp:425] lstm1_gate_input_1 <- W_xc_x_1
I0925 22:59:49.101207 18355 net.cpp:425] lstm1_ <- c_1
I0925 22:59:49.101208 18399 layer_factory.hpp:77] Creating layer lstm1_
I0925 22:59:49.101215 18367 net.cpp:399] lstm1_gate_input_1 -> gate_input_1
I0925 22:59:49.101223 18355 net.cpp:399] lstm1_ -> c_T
I0925 22:59:49.101191 18349 net.cpp:399] lstm1_ -> x
I0925 22:59:49.101227 18399 net.cpp:91] Creating Layer lstm1_
I0925 22:59:49.101251 18399 net.cpp:399] lstm1_ -> x
I0925 22:59:49.101258 18349 net.cpp:399] lstm1_ -> cont
I0925 22:59:49.101265 18399 net.cpp:399] lstm1_ -> cont
I0925 22:59:49.112310 18391 net.cpp:141] Setting up lstm2_cont_slice
I0925 22:59:49.112375 18391 net.cpp:148] Top shape: 1 1 (1)
I0925 22:59:49.112386 18391 net.cpp:156] Memory required for data: 14012
I0925 22:59:49.112399 18391 layer_factory.hpp:77] Creating layer cont_1_lstm2_cont_slice_0_split
I0925 22:59:49.112422 18391 net.cpp:91] Creating Layer cont_1_lstm2_cont_slice_0_split
I0925 22:59:49.112439 18391 net.cpp:425] cont_1_lstm2_cont_slice_0_split <- cont_1
I0925 22:59:49.112457 18391 net.cpp:399] cont_1_lstm2_cont_slice_0_split -> cont_1_lstm2_cont_slice_0_split_0
I0925 22:59:49.112476 18391 net.cpp:399] cont_1_lstm2_cont_slice_0_split -> cont_1_lstm2_cont_slice_0_split_1
I0925 22:59:49.112593 18391 net.cpp:141] Setting up cont_1_lstm2_cont_slice_0_split
I0925 22:59:49.112609 18391 net.cpp:148] Top shape: 1 1 (1)
I0925 22:59:49.112619 18391 net.cpp:148] Top shape: 1 1 (1)
I0925 22:59:49.112627 18391 net.cpp:156] Memory required for data: 14020
I0925 22:59:49.112637 18391 layer_factory.hpp:77] Creating layer lstm2_x_transform
I0925 22:59:49.112661 18391 net.cpp:91] Creating Layer lstm2_x_transform
I0925 22:59:49.112670 18391 net.cpp:425] lstm2_x_transform <- x
I0925 22:59:49.112689 18391 net.cpp:399] lstm2_x_transform -> W_xc_x
I0925 22:59:49.129784 18355 net.cpp:141] Setting up lstm1_
I0925 22:59:49.129833 18355 net.cpp:148] Top shape: 1 1 1000 (1000)
I0925 22:59:49.129840 18355 net.cpp:156] Memory required for data: 90016
I0925 22:59:49.129851 18355 layer_factory.hpp:77] Creating layer lstm1_h_concat
I0925 22:59:49.129873 18355 net.cpp:91] Creating Layer lstm1_h_concat
I0925 22:59:49.129883 18355 net.cpp:425] lstm1_h_concat <- h_1
I0925 22:59:49.129906 18355 net.cpp:399] lstm1_h_concat -> h
I0925 22:59:49.130079 18353 net.cpp:141] Setting up lstm1_unit_1
I0925 22:59:49.130095 18353 net.cpp:148] Top shape: 1 1 1000 (1000)
I0925 22:59:49.130100 18353 net.cpp:148] Top shape: 1 1 1000 (1000)
I0925 22:59:49.130105 18353 net.cpp:156] Memory required for data: 86016
I0925 22:59:49.130110 18353 layer_factory.hpp:77] Creating layer lstm1_
I0925 22:59:49.130117 18349 net.cpp:141] Setting up lstm1_
I0925 22:59:49.130125 18353 net.cpp:91] Creating Layer lstm1_
I0925 22:59:49.130141 18349 net.cpp:148] Top shape: 1 1 500 (500)
I0925 22:59:49.130142 18353 net.cpp:425] lstm1_ <- c_1
I0925 22:59:49.130152 18349 net.cpp:148] Top shape: 1 1 (1)
I0925 22:59:49.130158 18353 net.cpp:399] lstm1_ -> c_T
I0925 22:59:49.130158 18349 net.cpp:156] Memory required for data: 2004
I0925 22:59:49.130174 18349 layer_factory.hpp:77] Creating layer lstm1_
I0925 22:59:49.130180 18355 net.cpp:141] Setting up lstm1_h_concat
I0925 22:59:49.130194 18349 net.cpp:91] Creating Layer lstm1_
I0925 22:59:49.130199 18355 net.cpp:148] Top shape: 1 1 1000 (1000)
I0925 22:59:49.130205 18355 net.cpp:156] Memory required for data: 94016
I0925 22:59:49.130208 18349 net.cpp:399] lstm1_ -> c_0
I0925 22:59:49.130213 18355 layer_factory.hpp:77] Creating layer h_pseudoloss
I0925 22:59:49.130225 18349 net.cpp:399] lstm1_ -> h_0
I0925 22:59:49.130214 18353 net.cpp:141] Setting up lstm1_
I0925 22:59:49.130244 18353 net.cpp:148] Top shape: 1 1 1000 (1000)
I0925 22:59:49.130244 18355 net.cpp:91] Creating Layer h_pseudoloss
I0925 22:59:49.130252 18353 net.cpp:156] Memory required for data: 90016
I0925 22:59:49.130259 18353 layer_factory.hpp:77] Creating layer lstm1_h_concat
I0925 22:59:49.130257 18355 net.cpp:425] h_pseudoloss <- h
I0925 22:59:49.130275 18353 net.cpp:91] Creating Layer lstm1_h_concat
I0925 22:59:49.130280 18353 net.cpp:425] lstm1_h_concat <- h_1
I0925 22:59:49.130285 18355 net.cpp:399] h_pseudoloss -> h_pseudoloss
I0925 22:59:49.130293 18353 net.cpp:399] lstm1_h_concat -> h
I0925 22:59:49.130285 18367 net.cpp:141] Setting up lstm1_gate_input_1
I0925 22:59:49.130321 18367 net.cpp:148] Top shape: 1 1 4000 (4000)
I0925 22:59:49.130331 18367 net.cpp:156] Memory required for data: 78016
I0925 22:59:49.130342 18367 layer_factory.hpp:77] Creating layer lstm1_unit_1
I0925 22:59:49.130345 18353 net.cpp:141] Setting up lstm1_h_concat
I0925 22:59:49.130355 18353 net.cpp:148] Top shape: 1 1 1000 (1000)
I0925 22:59:49.130357 18367 net.cpp:91] Creating Layer lstm1_unit_1
I0925 22:59:49.130360 18353 net.cpp:156] Memory required for data: 94016
I0925 22:59:49.130365 18367 net.cpp:425] lstm1_unit_1 <- c_0
I0925 22:59:49.130367 18353 layer_factory.hpp:77] Creating layer h_pseudoloss
I0925 22:59:49.130380 18367 net.cpp:425] lstm1_unit_1 <- gate_input_1
I0925 22:59:49.130385 18353 net.cpp:91] Creating Layer h_pseudoloss
I0925 22:59:49.130388 18367 net.cpp:425] lstm1_unit_1 <- cont_1_lstm1_cont_slice_0_split_1
I0925 22:59:49.130393 18353 net.cpp:425] h_pseudoloss <- h
I0925 22:59:49.130396 18367 net.cpp:399] lstm1_unit_1 -> c_1
I0925 22:59:49.130401 18353 net.cpp:399] h_pseudoloss -> h_pseudoloss
I0925 22:59:49.130406 18367 net.cpp:399] lstm1_unit_1 -> h_1
I0925 22:59:49.130419 18349 net.cpp:141] Setting up lstm1_
I0925 22:59:49.130431 18349 net.cpp:148] Top shape: 1 1 1000 (1000)
I0925 22:59:49.130439 18349 net.cpp:148] Top shape: 1 1 1000 (1000)
I0925 22:59:49.130442 18349 net.cpp:156] Memory required for data: 10004
I0925 22:59:49.130448 18349 layer_factory.hpp:77] Creating layer lstm1_cont_slice
I0925 22:59:49.130460 18349 net.cpp:91] Creating Layer lstm1_cont_slice
I0925 22:59:49.130465 18349 net.cpp:425] lstm1_cont_slice <- cont
I0925 22:59:49.130478 18349 net.cpp:399] lstm1_cont_slice -> cont_1
I0925 22:59:49.130677 18367 net.cpp:141] Setting up lstm1_unit_1
I0925 22:59:49.130698 18367 net.cpp:148] Top shape: 1 1 1000 (1000)
I0925 22:59:49.130710 18367 net.cpp:148] Top shape: 1 1 1000 (1000)
I0925 22:59:49.130719 18367 net.cpp:156] Memory required for data: 86016
I0925 22:59:49.130723 18355 net.cpp:141] Setting up h_pseudoloss
I0925 22:59:49.130728 18367 layer_factory.hpp:77] Creating layer lstm1_
I0925 22:59:49.130740 18355 net.cpp:148] Top shape: (1)
I0925 22:59:49.130745 18367 net.cpp:91] Creating Layer lstm1_
I0925 22:59:49.130754 18367 net.cpp:425] lstm1_ <- c_1
I0925 22:59:49.130748 18355 net.cpp:151]     with loss weight 1
…
I0925 22:59:49.131026 18355 net.cpp:274] Network initialization done.
I0925 22:59:49.131031 18353 net.cpp:274] Network initialization done.
I0925 22:59:49.131047 18399 net.cpp:141] Setting up lstm1_
I0925 22:59:49.131090 18353 recurrent_layer.cpp:150] Adding parameter 0: W_xc
I0925 22:59:49.131098 18353 recurrent_layer.cpp:150] Adding parameter 1: b_c
I0925 22:59:49.131109 18353 recurrent_layer.cpp:150] Adding parameter 2: W_hc
I0925 22:59:49.131111 18355 recurrent_layer.cpp:150] Adding parameter 0: W_xc
I0925 22:59:49.131094 18367 net.cpp:141] Setting up lstm1_h_concat
I0925 22:59:49.131120 18399 net.cpp:148] Top shape: 1 1 500 (500)
I0925 22:59:49.131136 18367 net.cpp:148] Top shape: 1 1 1000 (1000)
I0925 22:59:49.131147 18367 net.cpp:156] Memory required for data: 94016
I0925 22:59:49.131148 18349 net.cpp:141] Setting up lstm1_cont_slice
I0925 22:59:49.131157 18367 layer_factory.hpp:77] Creating layer h_pseudoloss
I0925 22:59:49.131129 18355 recurrent_layer.cpp:150] Adding parameter 1: b_c
I0925 22:59:49.131167 18399 net.cpp:148] Top shape: 1 1 (1)
I0925 22:59:49.131175 18349 net.cpp:148] Top shape: 1 1 (1)
I0925 22:59:49.131194 18399 net.cpp:156] Memory required for data: 2004
I0925 22:59:49.131203 18349 net.cpp:156] Memory required for data: 10008
I0925 22:59:49.131175 18367 net.cpp:91] Creating Layer h_pseudoloss
I0925 22:59:49.131176 18355 recurrent_layer.cpp:150] Adding parameter 2: W_hc
I0925 22:59:49.131227 18399 layer_factory.hpp:77] Creating layer lstm1_
I0925 22:59:49.131217 18349 layer_factory.hpp:77] Creating layer cont_1_lstm1_cont_slice_0_split
I0925 22:59:49.131234 18367 net.cpp:425] h_pseudoloss <- h
I0925 22:59:49.131258 18349 net.cpp:91] Creating Layer cont_1_lstm1_cont_slice_0_split
I0925 22:59:49.131260 18367 net.cpp:399] h_pseudoloss -> h_pseudoloss
I0925 22:59:49.131266 18349 net.cpp:425] cont_1_lstm1_cont_slice_0_split <- cont_1
I0925 22:59:49.131275 18349 net.cpp:399] cont_1_lstm1_cont_slice_0_split -> cont_1_lstm1_cont_slice_0_split_0
I0925 22:59:49.131278 18353 net.cpp:141] Setting up lstm1
I0925 22:59:49.131286 18349 net.cpp:399] cont_1_lstm1_cont_slice_0_split -> cont_1_lstm1_cont_slice_0_split_1
I0925 22:59:49.131304 18353 net.cpp:148] Top shape: 1 1 1000 (1000)
I0925 22:59:49.131275 18399 net.cpp:91] Creating Layer lstm1_
I0925 22:59:49.131309 18353 net.cpp:156] Memory required for data: 26408
I0925 22:59:49.131346 18353 layer_factory.hpp:77] Creating layer concat
I0925 22:59:49.131358 18353 net.cpp:91] Creating Layer concat
I0925 22:59:49.131366 18353 net.cpp:425] concat <- lstm1
I0925 22:59:49.131376 18353 net.cpp:425] concat <- embedded_input_sentence
I0925 22:59:49.131369 18399 net.cpp:399] lstm1_ -> c_0
I0925 22:59:49.131382 18353 net.cpp:425] concat <- reshaped_stage_indicator
I0925 22:59:49.131407 18353 net.cpp:399] concat -> lstm1_video_sequence
I0925 22:59:49.131428 18399 net.cpp:399] lstm1_ -> h_0
I0925 22:59:49.131680 18353 net.cpp:141] Setting up concat
I0925 22:59:49.131691 18353 net.cpp:148] Top shape: 1 1 1501 (1501)
I0925 22:59:49.131695 18353 net.cpp:156] Memory required for data: 32412
I0925 22:59:49.131701 18353 layer_factory.hpp:77] Creating layer lstm2
I0925 22:59:49.131717 18353 net.cpp:91] Creating Layer lstm2
I0925 22:59:49.131716 18349 net.cpp:141] Setting up cont_1_lstm1_cont_slice_0_split
I0925 22:59:49.131724 18353 net.cpp:425] lstm2 <- lstm1_video_sequence
I0925 22:59:49.131731 18349 net.cpp:148] Top shape: 1 1 (1)
I0925 22:59:49.131732 18353 net.cpp:425] lstm2 <- cont_sentence_input_1_split_1
I0925 22:59:49.131737 18349 net.cpp:148] Top shape: 1 1 (1)
I0925 22:59:49.131741 18353 net.cpp:399] lstm2 -> lstm2
I0925 22:59:49.131742 18349 net.cpp:156] Memory required for data: 10016
I0925 22:59:49.131748 18349 layer_factory.hpp:77] Creating layer lstm1_x_transform
I0925 22:59:49.131753 18353 recurrent_layer.cpp:20] Initializing recurrent layer: assuming input batch contains 1 timesteps of 1 independent streams.
I0925 22:59:49.131763 18349 net.cpp:91] Creating Layer lstm1_x_transform
I0925 22:59:49.131769 18349 net.cpp:425] lstm1_x_transform <- x
I0925 22:59:49.131767 18367 net.cpp:141] Setting up h_pseudoloss
I0925 22:59:49.131779 18349 net.cpp:399] lstm1_x_transform -> W_xc_x
I0925 22:59:49.131788 18367 net.cpp:148] Top shape: (1)
I0925 22:59:49.131798 18367 net.cpp:151]     with loss weight 1
I0925 22:59:49.131811 18367 net.cpp:156] Memory required for data: 94020
I0925 22:59:49.131811 18355 net.cpp:141] Setting up lstm1
I0925 22:59:49.131822 18367 net.cpp:217] h_pseudoloss needs backward computation.
I0925 22:59:49.131829 18355 net.cpp:148] Top shape: 1 1 1000 (1000)
I0925 22:59:49.131830 18367 net.cpp:217] lstm1_h_concat needs backward computation.
I0925 22:59:49.131844 18355 net.cpp:156] Memory required for data: 26408
I0925 22:59:49.131850 18367 net.cpp:219] lstm1_ does not need backward computation.
I0925 22:59:49.131860 18367 net.cpp:217] lstm1_unit_1 needs backward computation.
I0925 22:59:49.131870 18367 net.cpp:217] lstm1_gate_input_1 needs backward computation.
…
I0925 22:59:49.132050 18367 recurrent_layer.cpp:150] Adding parameter 2: W_hc
I0925 22:59:49.132056 18353 net.cpp:49] Initializing net from parameters: 
layer {
  name: "lstm2_"
  type: "Input"
  top: "x"
  top: "cont"
  input_param {
    shape {
      dim: 1
      dim: 1
      dim: 1501
    }
    shape {
      dim: 1
      dim: 1
    }
  }
}
layer {
  name: "lstm2_"
  type: "Input"
  top: "c_0"
  top: "h_0"
  input_param {
    shape {
      dim: 1
      dim: 1
      dim: 1000
    }
    shape {
      dim: 1
      dim: 1
      dim: 1000
    }
  }
}
layer {
  name: "lstm2_cont_slice"
  type: "Slice"
  bottom: "cont"
  top: "cont_1"
  slice_param {
    axis: 0
  }
}
layer {
  name: "lstm2_x_transform"
  type: "InnerProduct"
  bottom: "x"
  top: "W_xc_x"
  param {
    name: "W_xc"
  }
  param {
    name: "b_c"
  }
  propagate_down: true
  inner_product_param {
    num_output: 4000
    bias_term: true
    weight_filler {
      type: "uniform"
      min: -0.08
      max: 0.08
    }
    bias_filler {
      type: "constant"
      value: 0
    }
    axis: 2
  }
}
layer {
  name: "lstm2_W_xc_x_slice"
  type: "Slice"
  bottom: "W_xc_x"
  top: "W_xc_x_1"
  slice_param {
    axis: 0
  }
}
layer {
  name: "lstm2_h_conted_0"
  type: "Scale"
  bottom: "h_0"
  bottom: "cont_1"
  top: "h_conted_0"
  scale_param {
    axis: 0
  }
}
layer {
  name: "lstm2_transform_1"
  type: "InnerProduct"
  bottom: "h_conted_0"
  top: "W_hc_h_0"
  param {
    name: "W_hc"
  }
  inner_product_param {
    num_output: 4000
    bias_term: false
    weight_filler {
      type: "uniform"
      min: -0.08
      max: 0.08
    }
    axis: 2
  }
}
layer {
  name: "lstm2_gate_input_1"
  type: "Eltwise"
  bottom: "W_hc_h_0"
  bottom: "W_xc_x_1"
  top: "gate_input_1"
  eltwise_param {
    operation: SUM
  }
}
layer {
  name: "lstm2_unit_1"
  type: "LSTMUnit"
  bottom: "c_0"
  bottom: "gate_input_1"
  bottom: "cont_1"
  top: "c_1"
  top: "h_1"
}
layer {
  name: "lstm2_"
  type: "Split"
  bottom: "c_1"
  top: "c_T"
}
layer {
  name: "lstm2_h_concat"
  type: "Concat"
  bottom: "h_1"
  top: "h"
  concat_param {
    axis: 0
  }
}
layer {
  name: "h_pseudoloss"
  type: "Reduction"
  bottom: "h"
  top: "h_pseudoloss"
  loss_weight: 1
}
I0925 22:59:49.132159 18353 layer_factory.hpp:77] Creating layer lstm2_
I0925 22:59:49.132172 18353 net.cpp:91] Creating Layer lstm2_
I0925 22:59:49.132179 18353 net.cpp:399] lstm2_ -> x
I0925 22:59:49.132190 18353 net.cpp:399] lstm2_ -> cont
I0925 22:59:49.136391 18399 net.cpp:141] Setting up lstm1_
I0925 22:59:49.136448 18399 net.cpp:148] Top shape: 1 1 1000 (1000)
I0925 22:59:49.136456 18399 net.cpp:148] Top shape: 1 1 1000 (1000)
I0925 22:59:49.136461 18399 net.cpp:156] Memory required for data: 10004
I0925 22:59:49.136471 18399 layer_factory.hpp:77] Creating layer lstm1_cont_slice
I0925 22:59:49.136510 18399 net.cpp:91] Creating Layer lstm1_cont_slice
I0925 22:59:49.136518 18399 net.cpp:425] lstm1_cont_slice <- cont
I0925 22:59:49.136531 18399 net.cpp:399] lstm1_cont_slice -> cont_1
I0925 22:59:49.136519 18355 net.cpp:141] Setting up concat
I0925 22:59:49.136565 18355 net.cpp:148] Top shape: 1 1 1501 (1501)
I0925 22:59:49.136576 18355 net.cpp:156] Memory required for data: 32412
I0925 22:59:49.136589 18355 layer_factory.hpp:77] Creating layer lstm2
I0925 22:59:49.136617 18355 net.cpp:91] Creating Layer lstm2
I0925 22:59:49.136627 18355 net.cpp:425] lstm2 <- lstm1_video_sequence
I0925 22:59:49.136637 18355 net.cpp:425] lstm2 <- cont_sentence_input_1_split_1
I0925 22:59:49.136648 18355 net.cpp:399] lstm2 -> lstm2
I0925 22:59:49.136658 18353 net.cpp:141] Setting up lstm2_
I0925 22:59:49.136668 18355 recurrent_layer.cpp:20] Initializing recurrent layer: assuming input batch contains 1 timesteps of 1 independent streams.
I0925 22:59:49.136672 18353 net.cpp:148] Top shape: 1 1 1501 (1501)
I0925 22:59:49.136680 18353 net.cpp:148] Top shape: 1 1 (1)
I0925 22:59:49.136684 18353 net.cpp:156] Memory required for data: 6008
I0925 22:59:49.136690 18353 layer_factory.hpp:77] Creating layer lstm2_
I0925 22:59:49.136705 18353 net.cpp:91] Creating Layer lstm2_
I0925 22:59:49.136711 18399 net.cpp:141] Setting up lstm1_cont_slice
I0925 22:59:49.136718 18353 net.cpp:399] lstm2_ -> c_0
I0925 22:59:49.136724 18399 net.cpp:148] Top shape: 1 1 (1)
I0925 22:59:49.136730 18399 net.cpp:156] Memory required for data: 10008
I0925 22:59:49.136731 18353 net.cpp:399] lstm2_ -> h_0
I0925 22:59:49.136737 18399 layer_factory.hpp:77] Creating layer cont_1_lstm1_cont_slice_0_split
I0925 22:59:49.136747 18399 net.cpp:91] Creating Layer cont_1_lstm1_cont_slice_0_split
I0925 22:59:49.136754 18399 net.cpp:425] cont_1_lstm1_cont_slice_0_split <- cont_1
I0925 22:59:49.136768 18399 net.cpp:399] cont_1_lstm1_cont_slice_0_split -> cont_1_lstm1_cont_slice_0_split_0
I0925 22:59:49.136778 18399 net.cpp:399] cont_1_lstm1_cont_slice_0_split -> cont_1_lstm1_cont_slice_0_split_1
I0925 22:59:49.136914 18367 net.cpp:141] Setting up lstm1
I0925 22:59:49.136935 18367 net.cpp:148] Top shape: 1 1 1000 (1000)
I0925 22:59:49.136943 18367 net.cpp:156] Memory required for data: 26408
I0925 22:59:49.136970 18367 layer_factory.hpp:77] Creating layer concat
I0925 22:59:49.136987 18367 net.cpp:91] Creating Layer concat
I0925 22:59:49.136993 18399 net.cpp:141] Setting up cont_1_lstm1_cont_slice_0_split
I0925 22:59:49.136999 18367 net.cpp:425] concat <- lstm1
I0925 22:59:49.137011 18399 net.cpp:148] Top shape: 1 1 (1)
I0925 22:59:49.137013 18367 net.cpp:425] concat <- embedded_input_sentence
I0925 22:59:49.137019 18399 net.cpp:148] Top shape: 1 1 (1)
I0925 22:59:49.137024 18399 net.cpp:156] Memory required for data: 10016
I0925 22:59:49.137027 18367 net.cpp:425] concat <- reshaped_stage_indicator
I0925 22:59:49.137030 18399 layer_factory.hpp:77] Creating layer lstm1_x_transform
I0925 22:59:49.137043 18367 net.cpp:399] concat -> lstm1_video_sequence
I0925 22:59:49.137048 18399 net.cpp:91] Creating Layer lstm1_x_transform
I0925 22:59:49.137054 18399 net.cpp:425] lstm1_x_transform <- x
I0925 22:59:49.137064 18399 net.cpp:399] lstm1_x_transform -> W_xc_x
I0925 22:59:49.137132 18355 net.cpp:49] Initializing net from parameters: 
layer {
  name: "lstm2_"
  type: "Input"
  top: "x"
  top: "cont"
  input_param {
    shape {
      dim: 1
      dim: 1
      dim: 1501
    }
    shape {
      dim: 1
      dim: 1
    }
  }
}
layer {
  name: "lstm2_"
  type: "Input"
  top: "c_0"
  top: "h_0"
  input_param {
    shape {
      dim: 1
      dim: 1
      dim: 1000
    }
    shape {
      dim: 1
      dim: 1
      dim: 1000
    }
  }
}
layer {
  name: "lstm2_cont_slice"
  type: "Slice"
  bottom: "cont"
  top: "cont_1"
  slice_param {
    axis: 0
  }
}
layer {
  name: "lstm2_x_transform"
  type: "InnerProduct"
  bottom: "x"
  top: "W_xc_x"
  param {
    name: "W_xc"
  }
  param {
    name: "b_c"
  }
  propagate_down: true
  inner_product_param {
    num_output: 4000
    bias_term: true
    weight_filler {
      type: "uniform"
      min: -0.08
      max: 0.08
    }
    bias_filler {
      type: "constant"
      value: 0
    }
    axis: 2
  }
}
layer {
  name: "lstm2_W_xc_x_slice"
  type: "Slice"
  bottom: "W_xc_x"
  top: "W_xc_x_1"
  slice_param {
    axis: 0
  }
}
layer {
  name: "lstm2_h_conted_0"
  type: "Scale"
  bottom: "h_0"
  bottom: "cont_1"
  top: "h_conted_0"
  scale_param {
    axis: 0
  }
}
layer {
  name: "lstm2_transform_1"
  type: "InnerProduct"
  bottom: "h_conted_0"
  top: "W_hc_h_0"
  param {
    name: "W_hc"
  }
  inner_product_param {
    num_output: 4000
    bias_term: false
    weight_filler {
      type: "uniform"
      min: -0.08
      max: 0.08
    }
    axis: 2
  }
}
layer {
  name: "lstm2_gate_input_1"
  type: "Eltwise"
  bottom: "W_hc_h_0"
  bottom: "W_xc_x_1"
  top: "gate_input_1"
  eltwise_param {
    operation: SUM
  }
}
layer {
  name: "lstm2_unit_1"
  type: "LSTMUnit"
  bottom: "c_0"
  bottom: "gate_input_1"
  bottom: "cont_1"
  top: "c_1"
  top: "h_1"
}
layer {
  name: "lstm2_"
  type: "Split"
  bottom: "c_1"
  top: "c_T"
}
layer {
  name: "lstm2_h_concat"
  type: "Concat"
  bottom: "h_1"
  top: "h"
  concat_param {
    axis: 0
  }
}
layer {
  name: "h_pseudoloss"
  type: "Reduction"
  bottom: "h"
  top: "h_pseudoloss"
  loss_weight: 1
}
I0925 22:59:49.137140 18353 net.cpp:141] Setting up lstm2_
I0925 22:59:49.137164 18353 net.cpp:148] Top shape: 1 1 1000 (1000)
I0925 22:59:49.137171 18353 net.cpp:148] Top shape: 1 1 1000 (1000)
I0925 22:59:49.137176 18353 net.cpp:156] Memory required for data: 14008
I0925 22:59:49.137181 18353 layer_factory.hpp:77] Creating layer lstm2_cont_slice
I0925 22:59:49.137192 18353 net.cpp:91] Creating Layer lstm2_cont_slice
I0925 22:59:49.137198 18353 net.cpp:425] lstm2_cont_slice <- cont
I0925 22:59:49.137197 18367 net.cpp:141] Setting up concat
I0925 22:59:49.137207 18353 net.cpp:399] lstm2_cont_slice -> cont_1
I0925 22:59:49.137214 18367 net.cpp:148] Top shape: 1 1 1501 (1501)
I0925 22:59:49.137223 18367 net.cpp:156] Memory required for data: 32412
I0925 22:59:49.137233 18367 layer_factory.hpp:77] Creating layer lstm2
I0925 22:59:49.137251 18367 net.cpp:91] Creating Layer lstm2
I0925 22:59:49.137261 18367 net.cpp:425] lstm2 <- lstm1_video_sequence
I0925 22:59:49.137274 18367 net.cpp:425] lstm2 <- cont_sentence_input_1_split_1
I0925 22:59:49.137286 18367 net.cpp:399] lstm2 -> lstm2
I0925 22:59:49.137300 18355 layer_factory.hpp:77] Creating layer lstm2_
I0925 22:59:49.137305 18367 recurrent_layer.cpp:20] Initializing recurrent layer: assuming input batch contains 1 timesteps of 1 independent streams.
I0925 22:59:49.137327 18355 net.cpp:91] Creating Layer lstm2_
I0925 22:59:49.137341 18355 net.cpp:399] lstm2_ -> x
I0925 22:59:49.137361 18355 net.cpp:399] lstm2_ -> cont
I0925 22:59:49.137393 18375 net.cpp:141] Setting up fc6
I0925 22:59:49.137419 18375 net.cpp:148] Top shape: 10 4096 (40960)
I0925 22:59:49.137428 18375 net.cpp:156] Memory required for data: 67782200
I0925 22:59:49.137446 18375 layer_factory.hpp:77] Creating layer relu6
I0925 22:59:49.137462 18375 net.cpp:91] Creating Layer relu6
I0925 22:59:49.137472 18375 net.cpp:425] relu6 <- fc6
I0925 22:59:49.137485 18375 net.cpp:386] relu6 -> fc6 (in-place)
I0925 22:59:49.137589 18367 net.cpp:49] Initializing net from parameters: 
layer {
  name: "lstm2_"
  type: "Input"
  top: "x"
  top: "cont"
  input_param {
    shape {
      dim: 1
      dim: 1
      dim: 1501
    }
    shape {
      dim: 1
      dim: 1
    }
  }
}
layer {
  name: "lstm2_"
  type: "Input"
  top: "c_0"
  top: "h_0"
  input_param {
    shape {
      dim: 1
      dim: 1
      dim: 1000
    }
    shape {
      dim: 1
      dim: 1
      dim: 1000
    }
  }
}
layer {
  name: "lstm2_cont_slice"
  type: "Slice"
  bottom: "cont"
  top: "cont_1"
  slice_param {
    axis: 0
  }
}
layer {
  name: "lstm2_x_transform"
  type: "InnerProduct"
  bottom: "x"
  top: "W_xc_x"
  param {
    name: "W_xc"
  }
  param {
    name: "b_c"
  }
  propagate_down: true
  inner_product_param {
    num_output: 4000
    bias_term: true
    weight_filler {
      type: "uniform"
      min: -0.08
      max: 0.08
    }
    bias_filler {
      type: "constant"
      value: 0
    }
    axis: 2
  }
}
layer {
  name: "lstm2_W_xc_x_slice"
  type: "Slice"
  bottom: "W_xc_x"
  top: "W_xc_x_1"
  slice_param {
    axis: 0
  }
}
layer {
  name: "lstm2_h_conted_0"
  type: "Scale"
  bottom: "h_0"
  bottom: "cont_1"
  top: "h_conted_0"
  scale_param {
    axis: 0
  }
}
layer {
  name: "lstm2_transform_1"
  type: "InnerProduct"
  bottom: "h_conted_0"
  top: "W_hc_h_0"
  param {
    name: "W_hc"
  }
  inner_product_param {
    num_output: 4000
    bias_term: false
    weight_filler {
      type: "uniform"
      min: -0.08
      max: 0.08
    }
    axis: 2
  }
}
layer {
  name: "lstm2_gate_input_1"
  type: "Eltwise"
  bottom: "W_hc_h_0"
  bottom: "W_xc_x_1"
  top: "gate_input_1"
  eltwise_param {
    operation: SUM
  }
}
layer {
  name: "lstm2_unit_1"
  type: "LSTMUnit"
  bottom: "c_0"
  bottom: "gate_input_1"
  bottom: "cont_1"
  top: "c_1"
  top: "h_1"
}
layer {
  name: "lstm2_"
  type: "Split"
  bottom: "c_1"
  top: "c_T"
}
layer {
  name: "lstm2_h_concat"
  type: "Concat"
  bottom: "h_1"
  top: "h"
  concat_param {
    axis: 0
  }
}
layer {
  name: "h_pseudoloss"
  type: "Reduction"
  bottom: "h"
  top: "h_pseudoloss"
  loss_weight: 1
}
I0925 22:59:49.137681 18367 layer_factory.hpp:77] Creating layer lstm2_
I0925 22:59:49.137694 18367 net.cpp:91] Creating Layer lstm2_
I0925 22:59:49.137701 18367 net.cpp:399] lstm2_ -> x
I0925 22:59:49.137713 18367 net.cpp:399] lstm2_ -> cont
I0925 22:59:49.141965 18353 net.cpp:141] Setting up lstm2_cont_slice
I0925 22:59:49.141999 18353 net.cpp:148] Top shape: 1 1 (1)
I0925 22:59:49.142004 18353 net.cpp:156] Memory required for data: 14012
I0925 22:59:49.142012 18353 layer_factory.hpp:77] Creating layer cont_1_lstm2_cont_slice_0_split
I0925 22:59:49.142027 18353 net.cpp:91] Creating Layer cont_1_lstm2_cont_slice_0_split
I0925 22:59:49.142037 18353 net.cpp:425] cont_1_lstm2_cont_slice_0_split <- cont_1
I0925 22:59:49.142033 18355 net.cpp:141] Setting up lstm2_
I0925 22:59:49.142050 18353 net.cpp:399] cont_1_lstm2_cont_slice_0_split -> cont_1_lstm2_cont_slice_0_split_0
I0925 22:59:49.142055 18355 net.cpp:148] Top shape: 1 1 1501 (1501)
I0925 22:59:49.142062 18353 net.cpp:399] cont_1_lstm2_cont_slice_0_split -> cont_1_lstm2_cont_slice_0_split_1
I0925 22:59:49.142065 18355 net.cpp:148] Top shape: 1 1 (1)
I0925 22:59:49.142069 18355 net.cpp:156] Memory required for data: 6008
I0925 22:59:49.142076 18355 layer_factory.hpp:77] Creating layer lstm2_
I0925 22:59:49.142091 18355 net.cpp:91] Creating Layer lstm2_
I0925 22:59:49.142101 18355 net.cpp:399] lstm2_ -> c_0
I0925 22:59:49.142117 18355 net.cpp:399] lstm2_ -> h_0
I0925 22:59:49.142210 18355 net.cpp:141] Setting up lstm2_
I0925 22:59:49.142223 18355 net.cpp:148] Top shape: 1 1 1000 (1000)
I0925 22:59:49.142230 18355 net.cpp:148] Top shape: 1 1 1000 (1000)
I0925 22:59:49.142235 18355 net.cpp:156] Memory required for data: 14008
I0925 22:59:49.142241 18355 layer_factory.hpp:77] Creating layer lstm2_cont_slice
I0925 22:59:49.142253 18355 net.cpp:91] Creating Layer lstm2_cont_slice
I0925 22:59:49.142258 18355 net.cpp:425] lstm2_cont_slice <- cont
I0925 22:59:49.142267 18355 net.cpp:399] lstm2_cont_slice -> cont_1
I0925 22:59:49.142330 18403 net.cpp:141] Setting up embedding
I0925 22:59:49.142372 18373 net.cpp:141] Setting up lstm1_transform_1
I0925 22:59:49.142379 18403 net.cpp:148] Top shape: 1 1 500 (500)
I0925 22:59:49.142398 18403 net.cpp:156] Memory required for data: 22408
I0925 22:59:49.142398 18373 net.cpp:148] Top shape: 1 1 4000 (4000)
I0925 22:59:49.142415 18373 net.cpp:156] Memory required for data: 62016
I0925 22:59:49.142426 18403 layer_factory.hpp:77] Creating layer lstm1
I0925 22:59:49.142431 18373 layer_factory.hpp:77] Creating layer lstm1_gate_input_1
I0925 22:59:49.142449 18403 net.cpp:91] Creating Layer lstm1
I0925 22:59:49.142459 18403 net.cpp:425] lstm1 <- embedded_input_frames
I0925 22:59:49.142462 18373 net.cpp:91] Creating Layer lstm1_gate_input_1
I0925 22:59:49.142469 18403 net.cpp:425] lstm1 <- cont_sentence_input_1_split_0
I0925 22:59:49.142472 18373 net.cpp:425] lstm1_gate_input_1 <- W_hc_h_0
I0925 22:59:49.142479 18373 net.cpp:425] lstm1_gate_input_1 <- W_xc_x_1
I0925 22:59:49.142482 18403 net.cpp:399] lstm1 -> lstm1
I0925 22:59:49.142484 18353 net.cpp:141] Setting up cont_1_lstm2_cont_slice_0_split
I0925 22:59:49.142501 18403 recurrent_layer.cpp:20] Initializing recurrent layer: assuming input batch contains 1 timesteps of 1 independent streams.
I0925 22:59:49.142489 18373 net.cpp:399] lstm1_gate_input_1 -> gate_input_1
I0925 22:59:49.142509 18353 net.cpp:148] Top shape: 1 1 (1)
I0925 22:59:49.142532 18353 net.cpp:148] Top shape: 1 1 (1)
I0925 22:59:49.142537 18353 net.cpp:156] Memory required for data: 14020
I0925 22:59:49.142544 18353 layer_factory.hpp:77] Creating layer lstm2_x_transform
I0925 22:59:49.142560 18353 net.cpp:91] Creating Layer lstm2_x_transform
I0925 22:59:49.142561 18355 net.cpp:141] Setting up lstm2_cont_slice
…
I0925 22:59:49.493670 18373 net.cpp:399] lstm2_unit_1 -> h_1
I0925 22:59:49.493701 18403 net.cpp:141] Setting up lstm1
I0925 22:59:49.493724 18403 net.cpp:148] Top shape: 1 1 1000 (1000)
I0925 22:59:49.493733 18403 net.cpp:156] Memory required for data: 26408
I0925 22:59:49.493755 18403 layer_factory.hpp:77] Creating layer concat
I0925 22:59:49.493770 18403 net.cpp:91] Creating Layer concat
I0925 22:59:49.493779 18403 net.cpp:425] concat <- lstm1
I0925 22:59:49.493789 18403 net.cpp:425] concat <- embedded_input_sentence
I0925 22:59:49.493798 18403 net.cpp:425] concat <- reshaped_stage_indicator
I0925 22:59:49.493810 18403 net.cpp:399] concat -> lstm1_video_sequence
I0925 22:59:49.493829 18373 net.cpp:141] Setting up lstm2_unit_1
I0925 22:59:49.493845 18373 net.cpp:148] Top shape: 1 1 1000 (1000)
I0925 22:59:49.493852 18373 net.cpp:148] Top shape: 1 1 1000 (1000)
I0925 22:59:49.493856 18373 net.cpp:156] Memory required for data: 90020
I0925 22:59:49.493861 18373 layer_factory.hpp:77] Creating layer lstm2_
I0925 22:59:49.493871 18373 net.cpp:91] Creating Layer lstm2_
I0925 22:59:49.493876 18373 net.cpp:425] lstm2_ <- c_1
I0925 22:59:49.493883 18373 net.cpp:399] lstm2_ -> c_T
I0925 22:59:49.493927 18399 net.cpp:49] Initializing net from parameters: 
layer {
  name: "lstm2_"
  type: "Input"
  top: "x"
  top: "cont"
  input_param {
    shape {
      dim: 1
      dim: 1
      dim: 1501
    }
    shape {
      dim: 1
      dim: 1
    }
  }
}
layer {
  name: "lstm2_"
  type: "Input"
  top: "c_0"
  top: "h_0"
  input_param {
    shape {
      dim: 1
      dim: 1
      dim: 1000
    }
    shape {
      dim: 1
      dim: 1
      dim: 1000
    }
  }
}
layer {
  name: "lstm2_cont_slice"
  type: "Slice"
  bottom: "cont"
  top: "cont_1"
  slice_param {
    axis: 0
  }
}
layer {
  name: "lstm2_x_transform"
  type: "InnerProduct"
  bottom: "x"
  top: "W_xc_x"
  param {
    name: "W_xc"
  }
  param {
    name: "b_c"
  }
  propagate_down: true
  inner_product_param {
    num_output: 4000
    bias_term: true
    weight_filler {
      type: "uniform"
      min: -0.08
      max: 0.08
    }
    bias_filler {
      type: "constant"
      value: 0
    }
    axis: 2
  }
}
layer {
  name: "lstm2_W_xc_x_slice"
  type: "Slice"
  bottom: "W_xc_x"
  top: "W_xc_x_1"
  slice_param {
    axis: 0
  }
}
layer {
  name: "lstm2_h_conted_0"
  type: "Scale"
  bottom: "h_0"
  bottom: "cont_1"
  top: "h_conted_0"
  scale_param {
    axis: 0
  }
}
layer {
  name: "lstm2_transform_1"
  type: "InnerProduct"
  bottom: "h_conted_0"
  top: "W_hc_h_0"
  param {
    name: "W_hc"
  }
  inner_product_param {
    num_output: 4000
    bias_term: false
    weight_filler {
      type: "uniform"
      min: -0.08
      max: 0.08
    }
    axis: 2
  }
}
layer {
  name: "lstm2_gate_input_1"
  type: "Eltwise"
  bottom: "W_hc_h_0"
  bottom: "W_xc_x_1"
  top: "gate_input_1"
  eltwise_param {
    operation: SUM
  }
}
layer {
  name: "lstm2_unit_1"
  type: "LSTMUnit"
  bottom: "c_0"
  bottom: "gate_input_1"
  bottom: "cont_1"
  top: "c_1"
  top: "h_1"
}
layer {
  name: "lstm2_"
  type: "Split"
  bottom: "c_1"
  top: "c_T"
}
layer {
  name: "lstm2_h_concat"
  type: "Concat"
  bottom: "h_1"
  top: "h"
  concat_param {
    axis: 0
  }
}
layer {
  name: "h_pseudoloss"
  type: "Reduction"
  bottom: "h"
  top: "h_pseudoloss"
  loss_weight: 1
}
I0925 22:59:49.493932 18349 net.cpp:141] Setting up lstm2_x_transform
I0925 22:59:49.493968 18349 net.cpp:148] Top shape: 1 1 4000 (4000)
I0925 22:59:49.493980 18349 net.cpp:156] Memory required for data: 30020
I0925 22:59:49.493994 18391 net.cpp:141] Setting up h_pseudoloss
I0925 22:59:49.494002 18349 layer_factory.hpp:77] Creating layer lstm2_W_xc_x_slice
I0925 22:59:49.494017 18391 net.cpp:148] Top shape: (1)
I0925 22:59:49.494024 18349 net.cpp:91] Creating Layer lstm2_W_xc_x_slice
I0925 22:59:49.494036 18349 net.cpp:425] lstm2_W_xc_x_slice <- W_xc_x
…
I0925 22:59:49.494105 18391 net.cpp:217] lstm2_unit_1 needs backward computation.
I0925 22:59:49.494110 18399 net.cpp:399] lstm2_ -> x
I0925 22:59:49.494117 18391 net.cpp:217] lstm2_gate_input_1 needs backward computation.
I0925 22:59:49.494127 18391 net.cpp:217] lstm2_transform_1 needs backward computation.
I0925 22:59:49.494129 18399 net.cpp:399] lstm2_ -> cont
I0925 22:59:49.494135 18391 net.cpp:219] lstm2_h_conted_0 does not need backward computation.
I0925 22:59:49.494145 18391 net.cpp:217] lstm2_W_xc_x_slice needs backward computation.
I0925 22:59:49.494154 18391 net.cpp:217] lstm2_x_transform needs backward computation.
I0925 22:59:49.494160 18367 net.cpp:148] Top shape: 1 1 4000 (4000)
I0925 22:59:49.494163 18391 net.cpp:219] cont_1_lstm2_cont_slice_0_split does not need backward computation.
I0925 22:59:49.494176 18367 net.cpp:156] Memory required for data: 82020
I0925 22:59:49.494200 18391 net.cpp:219] lstm2_cont_slice does not need backward computation.
I0925 22:59:49.494215 18367 layer_factory.hpp:77] Creating layer lstm2_unit_1
I0925 22:59:49.494222 18391 net.cpp:219] lstm2_ does not need backward computation.
I0925 22:59:49.494230 18367 net.cpp:91] Creating Layer lstm2_unit_1
I0925 22:59:49.494231 18391 net.cpp:219] lstm2_ does not need backward computation.
I0925 22:59:49.494240 18391 net.cpp:261] This network produces output c_T
I0925 22:59:49.494241 18367 net.cpp:425] lstm2_unit_1 <- c_0
I0925 22:59:49.494249 18391 net.cpp:261] This network produces output h_pseudoloss
I0925 22:59:49.494253 18367 net.cpp:425] lstm2_unit_1 <- gate_input_1
I0925 22:59:49.494263 18367 net.cpp:425] lstm2_unit_1 <- cont_1_lstm2_cont_slice_0_split_1
I0925 22:59:49.494279 18391 net.cpp:274] Network initialization done.
I0925 22:59:49.494280 18367 net.cpp:399] lstm2_unit_1 -> c_1
I0925 22:59:49.494302 18367 net.cpp:399] lstm2_unit_1 -> h_1
I0925 22:59:49.494343 18403 net.cpp:141] Setting up concat
I0925 22:59:49.494356 18391 recurrent_layer.cpp:150] Adding parameter 0: W_xc
I0925 22:59:49.494375 18391 recurrent_layer.cpp:150] Adding parameter 1: b_c
I0925 22:59:49.494359 18403 net.cpp:148] Top shape: 1 1 1501 (1501)
I0925 22:59:49.494385 18391 recurrent_layer.cpp:150] Adding parameter 2: W_hc
I0925 22:59:49.494391 18403 net.cpp:156] Memory required for data: 32412
I0925 22:59:49.494401 18403 layer_factory.hpp:77] Creating layer lstm2
I0925 22:59:49.494400 18349 net.cpp:141] Setting up lstm2_W_xc_x_slice
I0925 22:59:49.494418 18403 net.cpp:91] Creating Layer lstm2
I0925 22:59:49.494421 18349 net.cpp:148] Top shape: 1 1 4000 (4000)
I0925 22:59:49.494427 18403 net.cpp:425] lstm2 <- lstm1_video_sequence
I0925 22:59:49.494431 18349 net.cpp:156] Memory required for data: 46020
I0925 22:59:49.494437 18403 net.cpp:425] lstm2 <- cont_sentence_input_1_split_1
I0925 22:59:49.494441 18349 layer_factory.hpp:77] Creating layer lstm2_h_conted_0
I0925 22:59:49.494451 18403 net.cpp:399] lstm2 -> lstm2
I0925 22:59:49.494458 18349 net.cpp:91] Creating Layer lstm2_h_conted_0
I0925 22:59:49.494465 18403 recurrent_layer.cpp:20] Initializing recurrent layer: assuming input batch contains 1 timesteps of 1 independent streams.
I0925 22:59:49.494469 18349 net.cpp:425] lstm2_h_conted_0 <- h_0
I0925 22:59:49.494482 18349 net.cpp:425] lstm2_h_conted_0 <- cont_1_lstm2_cont_slice_0_split_0
I0925 22:59:49.494496 18349 net.cpp:399] lstm2_h_conted_0 -> h_conted_0
I0925 22:59:49.494529 18373 net.cpp:141] Setting up lstm2_
I0925 22:59:49.494546 18373 net.cpp:148] Top shape: 1 1 1000 (1000)
I0925 22:59:49.494551 18373 net.cpp:156] Memory required for data: 94020
I0925 22:59:49.494556 18373 layer_factory.hpp:77] Creating layer lstm2_h_concat
I0925 22:59:49.494566 18373 net.cpp:91] Creating Layer lstm2_h_concat
I0925 22:59:49.494571 18373 net.cpp:425] lstm2_h_concat <- h_1
I0925 22:59:49.494581 18373 net.cpp:399] lstm2_h_concat -> h
I0925 22:59:49.494679 18399 net.cpp:141] Setting up lstm2_
I0925 22:59:49.494702 18399 net.cpp:148] Top shape: 1 1 1501 (1501)
I0925 22:59:49.494714 18399 net.cpp:148] Top shape: 1 1 (1)
I0925 22:59:49.494720 18399 net.cpp:156] Memory required for data: 6008
I0925 22:59:49.494729 18399 layer_factory.hpp:77] Creating layer lstm2_
I0925 22:59:49.494729 18353 net.cpp:141] Setting up lstm2_transform_1
I0925 22:59:49.494745 18399 net.cpp:91] Creating Layer lstm2_
I0925 22:59:49.494750 18353 net.cpp:148] Top shape: 1 1 4000 (4000)
I0925 22:59:49.494757 18353 net.cpp:156] Memory required for data: 66020
I0925 22:59:49.494760 18399 net.cpp:399] lstm2_ -> c_0
I0925 22:59:49.494776 18353 layer_factory.hpp:77] Creating layer lstm2_gate_input_1
I0925 22:59:49.494778 18399 net.cpp:399] lstm2_ -> h_0
I0925 22:59:49.494794 18353 net.cpp:91] Creating Layer lstm2_gate_input_1
I0925 22:59:49.494804 18353 net.cpp:425] lstm2_gate_input_1 <- W_hc_h_0
I0925 22:59:49.494807 18403 net.cpp:49] Initializing net from parameters: 
layer {
  name: "lstm2_"
  type: "Input"
  top: "x"
  top: "cont"
  input_param {
    shape {
      dim: 1
      dim: 1
      dim: 1501
    }
    shape {
      dim: 1
      dim: 1
    }
  }
}
layer {
  name: "lstm2_"
  type: "Input"
  top: "c_0"
  top: "h_0"
  input_param {
    shape {
      dim: 1
      dim: 1
      dim: 1000
    }
    shape {
      dim: 1
      dim: 1
      dim: 1000
    }
  }
}
layer {
  name: "lstm2_cont_slice"
  type: "Slice"
  bottom: "cont"
  top: "cont_1"
  slice_param {
    axis: 0
  }
}
layer {
  name: "lstm2_x_transform"
  type: "InnerProduct"
  bottom: "x"
  top: "W_xc_x"
  param {
    name: "W_xc"
  }
  param {
    name: "b_c"
  }
  propagate_down: true
  inner_product_param {
    num_output: 4000
    bias_term: true
    weight_filler {
      type: "uniform"
      min: -0.08
      max: 0.08
    }
    bias_filler {
      type: "constant"
      value: 0
    }
    axis: 2
  }
}
layer {
  name: "lstm2_W_xc_x_slice"
  type: "Slice"
  bottom: "W_xc_x"
  top: "W_xc_x_1"
  slice_param {
    axis: 0
  }
}
layer {
  name: "lstm2_h_conted_0"
  type: "Scale"
  bottom: "h_0"
  bottom: "cont_1"
  top: "h_conted_0"
  scale_param {
    axis: 0
  }
}
layer {
  name: "lstm2_transform_1"
  type: "InnerProduct"
  bottom: "h_conted_0"
  top: "W_hc_h_0"
  param {
    name: "W_hc"
  }
  inner_product_param {
    num_output: 4000
    bias_term: false
    weight_filler {
      type: "uniform"
      min: -0.08
      max: 0.08
    }
    axis: 2
  }
}
layer {
  name: "lstm2_gate_input_1"
  type: "Eltwise"
  bottom: "W_hc_h_0"
  bottom: "W_xc_x_1"
  top: "gate_input_1"
  eltwise_param {
    operation: SUM
  }
}
layer {
  name: "lstm2_unit_1"
  type: "LSTMUnit"
  bottom: "c_0"
  bottom: "gate_input_1"
  bottom: "cont_1"
  top: "c_1"
  top: "h_1"
}
layer {
  name: "lstm2_"
  type: "Split"
  bottom: "c_1"
  top: "c_T"
}
layer {
  name: "lstm2_h_concat"
  type: "Concat"
  bottom: "h_1"
  top: "h"
  concat_param {
    axis: 0
  }
}
layer {
  name: "h_pseudoloss"
  type: "Reduction"
  bottom: "h"
  top: "h_pseudoloss"
  loss_weight: 1
}
I0925 22:59:49.494817 18353 net.cpp:425] lstm2_gate_input_1 <- W_xc_x_1
I0925 22:59:49.494850 18353 net.cpp:399] lstm2_gate_input_1 -> gate_input_1
I0925 22:59:49.494940 18403 layer_factory.hpp:77] Creating layer lstm2_
I0925 22:59:49.494956 18403 net.cpp:91] Creating Layer lstm2_
I0925 22:59:49.494966 18403 net.cpp:399] lstm2_ -> x
I0925 22:59:49.494983 18403 net.cpp:399] lstm2_ -> cont
I0925 22:59:49.495234 18399 net.cpp:141] Setting up lstm2_
I0925 22:59:49.495251 18399 net.cpp:148] Top shape: 1 1 1000 (1000)
I0925 22:59:49.495261 18399 net.cpp:148] Top shape: 1 1 1000 (1000)
I0925 22:59:49.495268 18399 net.cpp:156] Memory required for data: 14008
I0925 22:59:49.495275 18399 layer_factory.hpp:77] Creating layer lstm2_cont_slice
I0925 22:59:49.495287 18399 net.cpp:91] Creating Layer lstm2_cont_slice
I0925 22:59:49.495296 18399 net.cpp:425] lstm2_cont_slice <- cont
I0925 22:59:49.495307 18399 net.cpp:399] lstm2_cont_slice -> cont_1
I0925 22:59:49.495465 18403 net.cpp:141] Setting up lstm2_
I0925 22:59:49.495481 18403 net.cpp:148] Top shape: 1 1 1501 (1501)
I0925 22:59:49.495491 18403 net.cpp:148] Top shape: 1 1 (1)
I0925 22:59:49.495498 18403 net.cpp:156] Memory required for data: 6008
I0925 22:59:49.495507 18403 layer_factory.hpp:77] Creating layer lstm2_
I0925 22:59:49.495520 18403 net.cpp:91] Creating Layer lstm2_
I0925 22:59:49.495535 18403 net.cpp:399] lstm2_ -> c_0
I0925 22:59:49.495551 18403 net.cpp:399] lstm2_ -> h_0
I0925 22:59:49.495550 18353 net.cpp:141] Setting up lstm2_gate_input_1
I0925 22:59:49.495604 18353 net.cpp:148] Top shape: 1 1 4000 (4000)
I0925 22:59:49.495614 18353 net.cpp:156] Memory required for data: 82020
I0925 22:59:49.495621 18353 layer_factory.hpp:77] Creating layer lstm2_unit_1
I0925 22:59:49.495635 18353 net.cpp:91] Creating Layer lstm2_unit_1
I0925 22:59:49.495645 18353 net.cpp:425] lstm2_unit_1 <- c_0
I0925 22:59:49.495656 18353 net.cpp:425] lstm2_unit_1 <- gate_input_1
I0925 22:59:49.495666 18353 net.cpp:425] lstm2_unit_1 <- cont_1_lstm2_cont_slice_0_split_1
I0925 22:59:49.495679 18353 net.cpp:399] lstm2_unit_1 -> c_1
I0925 22:59:49.495688 18349 net.cpp:141] Setting up lstm2_h_conted_0
I0925 22:59:49.495718 18349 net.cpp:148] Top shape: 1 1 1000 (1000)
I0925 22:59:49.495730 18349 net.cpp:156] Memory required for data: 50020
I0925 22:59:49.495695 18353 net.cpp:399] lstm2_unit_1 -> h_1
I0925 22:59:49.495741 18349 layer_factory.hpp:77] Creating layer lstm2_transform_1
I0925 22:59:49.495733 18367 net.cpp:141] Setting up lstm2_unit_1
I0925 22:59:49.495761 18349 net.cpp:91] Creating Layer lstm2_transform_1
I0925 22:59:49.495769 18367 net.cpp:148] Top shape: 1 1 1000 (1000)
I0925 22:59:49.495772 18349 net.cpp:425] lstm2_transform_1 <- h_conted_0
I0925 22:59:49.495779 18367 net.cpp:148] Top shape: 1 1 1000 (1000)
I0925 22:59:49.495787 18367 net.cpp:156] Memory required for data: 90020
I0925 22:59:49.495795 18367 layer_factory.hpp:77] Creating layer lstm2_
I0925 22:59:49.495808 18391 net.cpp:141] Setting up lstm2
I0925 22:59:49.495816 18367 net.cpp:91] Creating Layer lstm2_
I0925 22:59:49.495827 18367 net.cpp:425] lstm2_ <- c_1
I0925 22:59:49.495827 18391 net.cpp:148] Top shape: 1 1 1000 (1000)
I0925 22:59:49.495846 18367 net.cpp:399] lstm2_ -> c_T
I0925 22:59:49.495851 18391 net.cpp:156] Memory required for data: 36412
I0925 22:59:49.495877 18391 layer_factory.hpp:77] Creating layer predict
I0925 22:59:49.495887 18399 net.cpp:141] Setting up lstm2_cont_slice
I0925 22:59:49.495895 18391 net.cpp:91] Creating Layer predict
I0925 22:59:49.495905 18399 net.cpp:148] Top shape: 1 1 (1)
I0925 22:59:49.495906 18391 net.cpp:425] predict <- lstm2
I0925 22:59:49.495793 18349 net.cpp:399] lstm2_transform_1 -> W_hc_h_0
I0925 22:59:49.495945 18391 net.cpp:399] predict -> predict
I0925 22:59:49.495923 18399 net.cpp:156] Memory required for data: 14012
I0925 22:59:49.502658 18399 layer_factory.hpp:77] Creating layer cont_1_lstm2_cont_slice_0_split
I0925 22:59:49.502710 18399 net.cpp:91] Creating Layer cont_1_lstm2_cont_slice_0_split
I0925 22:59:49.502727 18399 net.cpp:425] cont_1_lstm2_cont_slice_0_split <- cont_1
I0925 22:59:49.502748 18399 net.cpp:399] cont_1_lstm2_cont_slice_0_split -> cont_1_lstm2_cont_slice_0_split_0
I0925 22:59:49.502769 18399 net.cpp:399] cont_1_lstm2_cont_slice_0_split -> cont_1_lstm2_cont_slice_0_split_1
I0925 22:59:49.507683 18375 net.cpp:141] Setting up prob
I0925 22:59:49.507738 18375 net.cpp:148] Top shape: 10 1000 (10000)
I0925 22:59:49.507747 18375 net.cpp:156] Memory required for data: 68681400
I0925 22:59:49.507761 18375 net.cpp:219] prob does not need backward computation.
I0925 22:59:49.507771 18375 net.cpp:219] fc8 does not need backward computation.
I0925 22:59:49.507781 18375 net.cpp:219] drop7 does not need backward computation.
I0925 22:59:49.507788 18375 net.cpp:219] relu7 does not need backward computation.
…
I0925 22:59:49.513973 18353 net.cpp:219] lstm2_ does not need backward computation.
I0925 22:59:49.513979 18353 net.cpp:261] This network produces output c_T
I0925 22:59:49.513986 18353 net.cpp:261] This network produces output h_pseudoloss
I0925 22:59:49.514013 18353 net.cpp:274] Network initialization done.
I0925 22:59:49.514083 18353 recurrent_layer.cpp:150] Adding parameter 0: W_xc
I0925 22:59:49.514092 18353 recurrent_layer.cpp:150] Adding parameter 1: b_c
I0925 22:59:49.514099 18353 recurrent_layer.cpp:150] Adding parameter 2: W_hc
I0925 22:59:49.514269 18353 net.cpp:141] Setting up lstm2
I0925 22:59:49.514286 18353 net.cpp:148] Top shape: 1 1 1000 (1000)
I0925 22:59:49.514292 18353 net.cpp:156] Memory required for data: 36412
I0925 22:59:49.514315 18353 layer_factory.hpp:77] Creating layer predict
I0925 22:59:49.514335 18353 net.cpp:91] Creating Layer predict
I0925 22:59:49.514345 18353 net.cpp:425] predict <- lstm2
I0925 22:59:49.514358 18353 net.cpp:399] predict -> predict
I0925 22:59:49.604667 18373 net.cpp:141] Setting up lstm2_h_concat
I0925 22:59:49.604718 18403 net.cpp:141] Setting up lstm2_
I0925 22:59:49.604744 18403 net.cpp:148] Top shape: 1 1 1000 (1000)
I0925 22:59:49.604745 18373 net.cpp:148] Top shape: 1 1 1000 (1000)
I0925 22:59:49.604789 18373 net.cpp:156] Memory required for data: 98020
I0925 22:59:49.604809 18373 layer_factory.hpp:77] Creating layer h_pseudoloss
I0925 22:59:49.604751 18403 net.cpp:148] Top shape: 1 1 1000 (1000)
I0925 22:59:49.604823 18367 net.cpp:141] Setting up lstm2_
I0925 22:59:49.604866 18373 net.cpp:91] Creating Layer h_pseudoloss
I0925 22:59:49.604872 18367 net.cpp:148] Top shape: 1 1 1000 (1000)
I0925 22:59:49.604882 18367 net.cpp:156] Memory required for data: 94020
I0925 22:59:49.604830 18403 net.cpp:156] Memory required for data: 14008
I0925 22:59:49.604893 18367 layer_factory.hpp:77] Creating layer lstm2_h_concat
I0925 22:59:49.604897 18373 net.cpp:425] h_pseudoloss <- h
I0925 22:59:49.604905 18403 layer_factory.hpp:77] Creating layer lstm2_cont_slice
I0925 22:59:49.604914 18367 net.cpp:91] Creating Layer lstm2_h_concat
I0925 22:59:49.604918 18373 net.cpp:399] h_pseudoloss -> h_pseudoloss
I0925 22:59:49.604926 18367 net.cpp:425] lstm2_h_concat <- h_1
I0925 22:59:49.604943 18403 net.cpp:91] Creating Layer lstm2_cont_slice
I0925 22:59:49.604944 18367 net.cpp:399] lstm2_h_concat -> h
I0925 22:59:49.604970 18403 net.cpp:425] lstm2_cont_slice <- cont
I0925 22:59:49.604984 18403 net.cpp:399] lstm2_cont_slice -> cont_1
I0925 22:59:49.605042 18367 net.cpp:141] Setting up lstm2_h_concat
I0925 22:59:49.605057 18367 net.cpp:148] Top shape: 1 1 1000 (1000)
I0925 22:59:49.605063 18367 net.cpp:156] Memory required for data: 98020
I0925 22:59:49.605072 18367 layer_factory.hpp:77] Creating layer h_pseudoloss
I0925 22:59:49.605088 18367 net.cpp:91] Creating Layer h_pseudoloss
I0925 22:59:49.605098 18367 net.cpp:425] h_pseudoloss <- h
I0925 22:59:49.605100 18349 net.cpp:141] Setting up lstm2_transform_1
I0925 22:59:49.605109 18367 net.cpp:399] h_pseudoloss -> h_pseudoloss
I0925 22:59:49.605121 18349 net.cpp:148] Top shape: 1 1 4000 (4000)
I0925 22:59:49.605129 18349 net.cpp:156] Memory required for data: 66020
I0925 22:59:49.605149 18349 layer_factory.hpp:77] Creating layer lstm2_gate_input_1
I0925 22:59:49.605176 18349 net.cpp:91] Creating Layer lstm2_gate_input_1
I0925 22:59:49.605188 18349 net.cpp:425] lstm2_gate_input_1 <- W_hc_h_0
I0925 22:59:49.605200 18349 net.cpp:425] lstm2_gate_input_1 <- W_xc_x_1
I0925 22:59:49.605211 18349 net.cpp:399] lstm2_gate_input_1 -> gate_input_1
I0925 22:59:49.682870 18403 net.cpp:141] Setting up lstm2_cont_slice
I0925 22:59:49.682925 18403 net.cpp:148] Top shape: 1 1 (1)
I0925 22:59:49.682935 18403 net.cpp:156] Memory required for data: 14012
I0925 22:59:49.682945 18403 layer_factory.hpp:77] Creating layer cont_1_lstm2_cont_slice_0_split
I0925 22:59:49.682962 18403 net.cpp:91] Creating Layer cont_1_lstm2_cont_slice_0_split
I0925 22:59:49.682971 18403 net.cpp:425] cont_1_lstm2_cont_slice_0_split <- cont_1
I0925 22:59:49.682973 18399 net.cpp:141] Setting up cont_1_lstm2_cont_slice_0_split
I0925 22:59:49.682994 18403 net.cpp:399] cont_1_lstm2_cont_slice_0_split -> cont_1_lstm2_cont_slice_0_split_0
I0925 22:59:49.682996 18399 net.cpp:148] Top shape: 1 1 (1)
I0925 22:59:49.683008 18399 net.cpp:148] Top shape: 1 1 (1)
I0925 22:59:49.683012 18403 net.cpp:399] cont_1_lstm2_cont_slice_0_split -> cont_1_lstm2_cont_slice_0_split_1
I0925 22:59:49.683017 18399 net.cpp:156] Memory required for data: 14020
I0925 22:59:49.683025 18399 layer_factory.hpp:77] Creating layer lstm2_x_transform
I0925 22:59:49.683048 18399 net.cpp:91] Creating Layer lstm2_x_transform
I0925 22:59:49.683058 18399 net.cpp:425] lstm2_x_transform <- x
…
I0925 22:59:49.697082 18373 recurrent_layer.cpp:150] Adding parameter 0: W_xc
I0925 22:59:49.697098 18373 recurrent_layer.cpp:150] Adding parameter 1: b_c
I0925 22:59:49.697104 18373 recurrent_layer.cpp:150] Adding parameter 2: W_hc
I0925 22:59:49.696979 18359 net.cpp:91] Creating Layer lstm2_gate_input_1
I0925 22:59:49.697378 18359 net.cpp:425] lstm2_gate_input_1 <- W_hc_h_0
I0925 22:59:49.697398 18359 net.cpp:425] lstm2_gate_input_1 <- W_xc_x_1
I0925 22:59:49.697425 18359 net.cpp:399] lstm2_gate_input_1 -> gate_input_1
I0925 22:59:49.699328 18373 net.cpp:141] Setting up lstm2
I0925 22:59:49.699389 18373 net.cpp:148] Top shape: 1 1 1000 (1000)
I0925 22:59:49.699400 18373 net.cpp:156] Memory required for data: 36412
I0925 22:59:49.699434 18373 layer_factory.hpp:77] Creating layer predict
I0925 22:59:49.699460 18373 net.cpp:91] Creating Layer predict
I0925 22:59:49.699472 18373 net.cpp:425] predict <- lstm2
I0925 22:59:49.699497 18373 net.cpp:399] predict -> predict
I0925 22:59:49.799165 18349 net.cpp:141] Setting up lstm2_unit_1
I0925 22:59:49.799224 18349 net.cpp:148] Top shape: 1 1 1000 (1000)
I0925 22:59:49.799235 18349 net.cpp:148] Top shape: 1 1 1000 (1000)
I0925 22:59:49.799242 18349 net.cpp:156] Memory required for data: 90020
I0925 22:59:49.799254 18349 layer_factory.hpp:77] Creating layer lstm2_
I0925 22:59:49.799274 18349 net.cpp:91] Creating Layer lstm2_
I0925 22:59:49.799284 18349 net.cpp:425] lstm2_ <- c_1
I0925 22:59:49.799299 18349 net.cpp:399] lstm2_ -> c_T
I0925 22:59:49.799878 18399 net.cpp:141] Setting up lstm2_x_transform
I0925 22:59:49.799993 18399 net.cpp:148] Top shape: 1 1 4000 (4000)
I0925 22:59:49.800004 18399 net.cpp:156] Memory required for data: 30020
I0925 22:59:49.800017 18359 net.cpp:141] Setting up lstm2_gate_input_1
I0925 22:59:49.800030 18399 layer_factory.hpp:77] Creating layer lstm2_W_xc_x_slice
I0925 22:59:49.800066 18359 net.cpp:148] Top shape: 1 1 4000 (4000)
I0925 22:59:49.800077 18359 net.cpp:156] Memory required for data: 82020
I0925 22:59:49.800078 18399 net.cpp:91] Creating Layer lstm2_W_xc_x_slice
I0925 22:59:49.800093 18349 net.cpp:141] Setting up lstm2_
I0925 22:59:49.800122 18399 net.cpp:425] lstm2_W_xc_x_slice <- W_xc_x
I0925 22:59:49.800127 18349 net.cpp:148] Top shape: 1 1 1000 (1000)
I0925 22:59:49.800134 18349 net.cpp:156] Memory required for data: 94020
I0925 22:59:49.800143 18349 layer_factory.hpp:77] Creating layer lstm2_h_concat
I0925 22:59:49.800146 18399 net.cpp:399] lstm2_W_xc_x_slice -> W_xc_x_1
I0925 22:59:49.800156 18349 net.cpp:91] Creating Layer lstm2_h_concat
I0925 22:59:49.800165 18349 net.cpp:425] lstm2_h_concat <- h_1
I0925 22:59:49.800179 18349 net.cpp:399] lstm2_h_concat -> h
I0925 22:59:49.800184 18367 net.cpp:141] Setting up lstm2
I0925 22:59:49.800207 18367 net.cpp:148] Top shape: 1 1 1000 (1000)
I0925 22:59:49.800218 18367 net.cpp:156] Memory required for data: 36412
I0925 22:59:49.800225 18399 net.cpp:141] Setting up lstm2_W_xc_x_slice
I0925 22:59:49.800241 18399 net.cpp:148] Top shape: 1 1 4000 (4000)
I0925 22:59:49.800248 18399 net.cpp:156] Memory required for data: 46020
I0925 22:59:49.800248 18367 layer_factory.hpp:77] Creating layer predict
I0925 22:59:49.800259 18399 layer_factory.hpp:77] Creating layer lstm2_h_conted_0
I0925 22:59:49.800271 18349 net.cpp:141] Setting up lstm2_h_concat
I0925 22:59:49.800276 18399 net.cpp:91] Creating Layer lstm2_h_conted_0
I0925 22:59:49.800277 18367 net.cpp:91] Creating Layer predict
I0925 22:59:49.800284 18349 net.cpp:148] Top shape: 1 1 1000 (1000)
I0925 22:59:49.800292 18367 net.cpp:425] predict <- lstm2
I0925 22:59:49.800285 18399 net.cpp:425] lstm2_h_conted_0 <- h_0
I0925 22:59:49.800305 18349 net.cpp:156] Memory required for data: 98020
I0925 22:59:49.800312 18367 net.cpp:399] predict -> predict
I0925 22:59:49.800318 18399 net.cpp:425] lstm2_h_conted_0 <- cont_1_lstm2_cont_slice_0_split_0
I0925 22:59:49.800314 18349 layer_factory.hpp:77] Creating layer h_pseudoloss
…
I0925 22:59:49.897898 18349 net.cpp:219] lstm2_ does not need backward computation.
I0925 22:59:49.897904 18349 net.cpp:261] This network produces output c_T
I0925 22:59:49.897914 18349 net.cpp:261] This network produces output h_pseudoloss
I0925 22:59:49.897943 18349 net.cpp:274] Network initialization done.
I0925 22:59:49.898023 18349 recurrent_layer.cpp:150] Adding parameter 0: W_xc
I0925 22:59:49.898033 18349 recurrent_layer.cpp:150] Adding parameter 1: b_c
I0925 22:59:49.898041 18349 recurrent_layer.cpp:150] Adding parameter 2: W_hc
I0925 22:59:49.898617 18399 net.cpp:141] Setting up lstm2_h_conted_0
I0925 22:59:49.898643 18399 net.cpp:148] Top shape: 1 1 1000 (1000)
I0925 22:59:49.898648 18399 net.cpp:156] Memory required for data: 50020
I0925 22:59:49.898654 18399 layer_factory.hpp:77] Creating layer lstm2_transform_1
I0925 22:59:49.898672 18399 net.cpp:91] Creating Layer lstm2_transform_1
I0925 22:59:49.898679 18399 net.cpp:425] lstm2_transform_1 <- h_conted_0
I0925 22:59:49.898768 18399 net.cpp:399] lstm2_transform_1 -> W_hc_h_0
I0925 22:59:49.898774 18359 net.cpp:141] Setting up lstm2_unit_1
I0925 22:59:49.898813 18359 net.cpp:148] Top shape: 1 1 1000 (1000)
I0925 22:59:49.898825 18359 net.cpp:148] Top shape: 1 1 1000 (1000)
I0925 22:59:49.898833 18359 net.cpp:156] Memory required for data: 90020
I0925 22:59:49.898844 18359 layer_factory.hpp:77] Creating layer lstm2_
I0925 22:59:49.898859 18359 net.cpp:91] Creating Layer lstm2_
I0925 22:59:49.898866 18359 net.cpp:425] lstm2_ <- c_1
I0925 22:59:49.898876 18359 net.cpp:399] lstm2_ -> c_T
I0925 22:59:49.908493 18355 net.cpp:141] Setting up predict
I0925 22:59:49.908548 18355 net.cpp:148] Top shape: 1 1 46168 (46168)
I0925 22:59:49.908556 18355 net.cpp:156] Memory required for data: 221084
I0925 22:59:49.908577 18355 layer_factory.hpp:77] Creating layer probs
I0925 22:59:49.908601 18355 net.cpp:91] Creating Layer probs
I0925 22:59:49.908609 18355 net.cpp:425] probs <- predict
I0925 22:59:49.908625 18355 net.cpp:399] probs -> probs
I0925 22:59:49.908645 18359 net.cpp:141] Setting up lstm2_
I0925 22:59:49.908663 18359 net.cpp:148] Top shape: 1 1 1000 (1000)
I0925 22:59:49.908670 18359 net.cpp:156] Memory required for data: 94020
I0925 22:59:49.908679 18359 layer_factory.hpp:77] Creating layer lstm2_h_concat
I0925 22:59:49.908694 18359 net.cpp:91] Creating Layer lstm2_h_concat
I0925 22:59:49.908702 18359 net.cpp:425] lstm2_h_concat <- h_1
I0925 22:59:49.908711 18359 net.cpp:399] lstm2_h_concat -> h
I0925 22:59:49.908728 18349 net.cpp:141] Setting up lstm2
I0925 22:59:49.908773 18349 net.cpp:148] Top shape: 1 1 1000 (1000)
I0925 22:59:49.908782 18349 net.cpp:156] Memory required for data: 36412
I0925 22:59:49.908809 18349 layer_factory.hpp:77] Creating layer predict
I0925 22:59:49.908833 18349 net.cpp:91] Creating Layer predict
I0925 22:59:49.908844 18349 net.cpp:425] predict <- lstm2
I0925 22:59:49.908839 18403 net.cpp:141] Setting up lstm2_x_transform
I0925 22:59:49.908857 18349 net.cpp:399] predict -> predict
I0925 22:59:49.908874 18403 net.cpp:148] Top shape: 1 1 4000 (4000)
I0925 22:59:49.908890 18403 net.cpp:156] Memory required for data: 30020
I0925 22:59:49.908920 18403 layer_factory.hpp:77] Creating layer lstm2_W_xc_x_slice
I0925 22:59:49.908954 18403 net.cpp:91] Creating Layer lstm2_W_xc_x_slice
I0925 22:59:49.908975 18403 net.cpp:425] lstm2_W_xc_x_slice <- W_xc_x
I0925 22:59:49.908998 18403 net.cpp:399] lstm2_W_xc_x_slice -> W_xc_x_1
I0925 22:59:49.909612 18359 net.cpp:141] Setting up lstm2_h_concat
I0925 22:59:49.909627 18359 net.cpp:148] Top shape: 1 1 1000 (1000)
I0925 22:59:49.909631 18359 net.cpp:156] Memory required for data: 98020
I0925 22:59:49.909636 18359 layer_factory.hpp:77] Creating layer h_pseudoloss
I0925 22:59:49.909646 18359 net.cpp:91] Creating Layer h_pseudoloss
I0925 22:59:49.909651 18359 net.cpp:425] h_pseudoloss <- h
I0925 22:59:49.909659 18359 net.cpp:399] h_pseudoloss -> h_pseudoloss
I0925 22:59:49.991646 18403 net.cpp:141] Setting up lstm2_W_xc_x_slice
I0925 22:59:49.991708 18403 net.cpp:148] Top shape: 1 1 4000 (4000)
I0925 22:59:49.991717 18403 net.cpp:156] Memory required for data: 46020
I0925 22:59:49.991730 18403 layer_factory.hpp:77] Creating layer lstm2_h_conted_0
I0925 22:59:49.991768 18403 net.cpp:91] Creating Layer lstm2_h_conted_0
I0925 22:59:49.991781 18403 net.cpp:425] lstm2_h_conted_0 <- h_0
I0925 22:59:49.991796 18403 net.cpp:425] lstm2_h_conted_0 <- cont_1_lstm2_cont_slice_0_split_0
I0925 22:59:49.991809 18403 net.cpp:399] lstm2_h_conted_0 -> h_conted_0
I0925 22:59:49.992128 18353 net.cpp:141] Setting up predict
I0925 22:59:49.992151 18353 net.cpp:148] Top shape: 1 1 46168 (46168)
I0925 22:59:49.992159 18353 net.cpp:156] Memory required for data: 221084
I0925 22:59:49.992177 18353 layer_factory.hpp:77] Creating layer probs
I0925 22:59:49.992195 18353 net.cpp:91] Creating Layer probs
I0925 22:59:49.992204 18353 net.cpp:425] probs <- predict
I0925 22:59:49.992218 18353 net.cpp:399] probs -> probs
I0925 22:59:49.992887 18353 net.cpp:141] Setting up probs
I0925 22:59:49.992903 18353 net.cpp:148] Top shape: 1 1 46168 (46168)
I0925 22:59:49.992910 18353 net.cpp:156] Memory required for data: 405756
I0925 22:59:49.992918 18353 net.cpp:219] probs does not need backward computation.
I0925 22:59:49.992928 18353 net.cpp:219] predict does not need backward computation.
I0925 22:59:49.992936 18353 net.cpp:219] lstm2 does not need backward computation.
I0925 22:59:49.992946 18353 net.cpp:219] concat does not need backward computation.
I0925 22:59:49.992955 18353 net.cpp:219] lstm1 does not need backward computation.
I0925 22:59:49.992965 18353 net.cpp:219] embedding does not need backward computation.
I0925 22:59:49.992974 18353 net.cpp:219] reshape_stage_indicator does not need backward computation.
I0925 22:59:49.992982 18353 net.cpp:219] reshape_frames does not need backward computation.
I0925 22:59:49.992990 18353 net.cpp:219] embed_encoder does not need backward computation.
I0925 22:59:49.992998 18353 net.cpp:219] cont_sentence_input_1_split does not need backward computation.
I0925 22:59:49.993007 18353 net.cpp:219] input does not need backward computation.
I0925 22:59:49.993015 18353 net.cpp:261] This network produces output probs
I0925 22:59:49.993037 18353 net.cpp:274] Network initialization done.
I0925 22:59:49.994348 18403 net.cpp:141] Setting up lstm2_h_conted_0
I0925 22:59:49.994348 18359 net.cpp:141] Setting up h_pseudoloss
I0925 22:59:49.994377 18403 net.cpp:148] Top shape: 1 1 1000 (1000)
I0925 22:59:49.994379 18359 net.cpp:148] Top shape: (1)
I0925 22:59:49.994390 18403 net.cpp:156] Memory required for data: 50020
I0925 22:59:49.994400 18403 layer_factory.hpp:77] Creating layer lstm2_transform_1
I0925 22:59:49.994393 18359 net.cpp:151]     with loss weight 1
I0925 22:59:49.994421 18403 net.cpp:91] Creating Layer lstm2_transform_1
I0925 22:59:49.994428 18359 net.cpp:156] Memory required for data: 98024
I0925 22:59:49.994431 18403 net.cpp:425] lstm2_transform_1 <- h_conted_0
I0925 22:59:49.994437 18359 net.cpp:217] h_pseudoloss needs backward computation.
I0925 22:59:49.994446 18403 net.cpp:399] lstm2_transform_1 -> W_hc_h_0
I0925 22:59:49.994446 18359 net.cpp:217] lstm2_h_concat needs backward computation.
I0925 22:59:49.994468 18359 net.cpp:219] lstm2_ does not need backward computation.
I0925 22:59:49.994478 18359 net.cpp:217] lstm2_unit_1 needs backward computation.
I0925 22:59:49.994489 18359 net.cpp:217] lstm2_gate_input_1 needs backward computation.
I0925 22:59:49.994499 18359 net.cpp:217] lstm2_transform_1 needs backward computation.
I0925 22:59:49.994514 18359 net.cpp:219] lstm2_h_conted_0 does not need backward computation.
I0925 22:59:49.994536 18355 net.cpp:141] Setting up probs
I0925 22:59:49.994556 18355 net.cpp:148] Top shape: 1 1 46168 (46168)
I0925 22:59:49.994565 18355 net.cpp:156] Memory required for data: 405756
I0925 22:59:49.994572 18355 net.cpp:219] probs does not need backward computation.
I0925 22:59:49.994581 18355 net.cpp:219] predict does not need backward computation.
I0925 22:59:49.994590 18355 net.cpp:219] lstm2 does not need backward computation.
I0925 22:59:49.994618 18355 net.cpp:219] concat does not need backward computation.
…
I0925 22:59:50.007071 18359 net.cpp:219] lstm2_ does not need backward computation.
I0925 22:59:50.007078 18359 net.cpp:261] This network produces output c_T
I0925 22:59:50.007091 18359 net.cpp:261] This network produces output h_pseudoloss
I0925 22:59:50.007122 18359 net.cpp:274] Network initialization done.
I0925 22:59:50.007230 18359 recurrent_layer.cpp:150] Adding parameter 0: W_xc
I0925 22:59:50.007246 18359 recurrent_layer.cpp:150] Adding parameter 1: b_c
I0925 22:59:50.007254 18359 recurrent_layer.cpp:150] Adding parameter 2: W_hc
I0925 22:59:50.016077 18399 net.cpp:141] Setting up lstm2_transform_1
I0925 22:59:50.016135 18399 net.cpp:148] Top shape: 1 1 4000 (4000)
I0925 22:59:50.016145 18399 net.cpp:156] Memory required for data: 66020
I0925 22:59:50.016173 18399 layer_factory.hpp:77] Creating layer lstm2_gate_input_1
I0925 22:59:50.016440 18399 net.cpp:91] Creating Layer lstm2_gate_input_1
I0925 22:59:50.016463 18399 net.cpp:425] lstm2_gate_input_1 <- W_hc_h_0
I0925 22:59:50.016477 18399 net.cpp:425] lstm2_gate_input_1 <- W_xc_x_1
I0925 22:59:50.016496 18399 net.cpp:399] lstm2_gate_input_1 -> gate_input_1
I0925 22:59:50.017104 18359 net.cpp:141] Setting up lstm2
I0925 22:59:50.017141 18359 net.cpp:148] Top shape: 1 1 1000 (1000)
I0925 22:59:50.017156 18359 net.cpp:156] Memory required for data: 36412
I0925 22:59:50.017199 18359 layer_factory.hpp:77] Creating layer predict
I0925 22:59:50.017233 18359 net.cpp:91] Creating Layer predict
I0925 22:59:50.017252 18359 net.cpp:425] predict <- lstm2
I0925 22:59:50.017277 18359 net.cpp:399] predict -> predict
I0925 22:59:50.101392 18399 net.cpp:141] Setting up lstm2_gate_input_1
I0925 22:59:50.101467 18399 net.cpp:148] Top shape: 1 1 4000 (4000)
I0925 22:59:50.101477 18399 net.cpp:156] Memory required for data: 82020
I0925 22:59:50.101490 18399 layer_factory.hpp:77] Creating layer lstm2_unit_1
I0925 22:59:50.101516 18399 net.cpp:91] Creating Layer lstm2_unit_1
I0925 22:59:50.101527 18399 net.cpp:425] lstm2_unit_1 <- c_0
I0925 22:59:50.101541 18399 net.cpp:425] lstm2_unit_1 <- gate_input_1
I0925 22:59:50.101552 18399 net.cpp:425] lstm2_unit_1 <- cont_1_lstm2_cont_slice_0_split_1
I0925 22:59:50.102360 18403 net.cpp:141] Setting up lstm2_transform_1
I0925 22:59:50.102416 18403 net.cpp:148] Top shape: 1 1 4000 (4000)
I0925 22:59:50.102423 18403 net.cpp:156] Memory required for data: 66020
I0925 22:59:50.102437 18399 net.cpp:399] lstm2_unit_1 -> c_1
I0925 22:59:50.102452 18403 layer_factory.hpp:77] Creating layer lstm2_gate_input_1
I0925 22:59:50.102480 18399 net.cpp:399] lstm2_unit_1 -> h_1
I0925 22:59:50.102486 18403 net.cpp:91] Creating Layer lstm2_gate_input_1
I0925 22:59:50.102497 18403 net.cpp:425] lstm2_gate_input_1 <- W_hc_h_0
I0925 22:59:50.102505 18403 net.cpp:425] lstm2_gate_input_1 <- W_xc_x_1
I0925 22:59:50.102514 18403 net.cpp:399] lstm2_gate_input_1 -> gate_input_1
I0925 22:59:50.104218 18399 net.cpp:141] Setting up lstm2_unit_1
I0925 22:59:50.104255 18399 net.cpp:148] Top shape: 1 1 1000 (1000)
I0925 22:59:50.104267 18399 net.cpp:148] Top shape: 1 1 1000 (1000)
I0925 22:59:50.104274 18399 net.cpp:156] Memory required for data: 90020
I0925 22:59:50.104282 18399 layer_factory.hpp:77] Creating layer lstm2_
I0925 22:59:50.104300 18399 net.cpp:91] Creating Layer lstm2_
I0925 22:59:50.104308 18399 net.cpp:425] lstm2_ <- c_1
I0925 22:59:50.104323 18399 net.cpp:399] lstm2_ -> c_T
I0925 22:59:50.104744 18399 net.cpp:141] Setting up lstm2_
I0925 22:59:50.104763 18399 net.cpp:148] Top shape: 1 1 1000 (1000)
I0925 22:59:50.104771 18399 net.cpp:156] Memory required for data: 94020
I0925 22:59:50.104780 18399 layer_factory.hpp:77] Creating layer lstm2_h_concat
I0925 22:59:50.104799 18399 net.cpp:91] Creating Layer lstm2_h_concat
I0925 22:59:50.104809 18399 net.cpp:425] lstm2_h_concat <- h_1
I0925 22:59:50.104830 18399 net.cpp:399] lstm2_h_concat -> h
I0925 22:59:50.104941 18399 net.cpp:141] Setting up lstm2_h_concat
I0925 22:59:50.104962 18399 net.cpp:148] Top shape: 1 1 1000 (1000)
I0925 22:59:50.104971 18399 net.cpp:156] Memory required for data: 98020
I0925 22:59:50.104982 18399 layer_factory.hpp:77] Creating layer h_pseudoloss
I0925 22:59:50.105034 18403 net.cpp:141] Setting up lstm2_gate_input_1
I0925 22:59:50.105062 18403 net.cpp:148] Top shape: 1 1 4000 (4000)
I0925 22:59:50.105072 18403 net.cpp:156] Memory required for data: 82020
I0925 22:59:50.105083 18403 layer_factory.hpp:77] Creating layer lstm2_unit_1
I0925 22:59:50.105281 18391 net.cpp:141] Setting up predict
I0925 22:59:50.105327 18391 net.cpp:148] Top shape: 1 1 46168 (46168)
I0925 22:59:50.105335 18391 net.cpp:156] Memory required for data: 221084
I0925 22:59:50.105345 18403 net.cpp:91] Creating Layer lstm2_unit_1
I0925 22:59:50.105361 18391 layer_factory.hpp:77] Creating layer probs
I0925 22:59:50.105345 18399 net.cpp:91] Creating Layer h_pseudoloss
I0925 22:59:50.105376 18403 net.cpp:425] lstm2_unit_1 <- c_0
I0925 22:59:50.105386 18399 net.cpp:425] h_pseudoloss <- h
I0925 22:59:50.105391 18391 net.cpp:91] Creating Layer probs
I0925 22:59:50.105406 18399 net.cpp:399] h_pseudoloss -> h_pseudoloss
I0925 22:59:50.105393 18403 net.cpp:425] lstm2_unit_1 <- gate_input_1
I0925 22:59:50.105420 18391 net.cpp:425] probs <- predict
I0925 22:59:50.105432 18403 net.cpp:425] lstm2_unit_1 <- cont_1_lstm2_cont_slice_0_split_1
I0925 22:59:50.105440 18391 net.cpp:399] probs -> probs
I0925 22:59:50.105448 18403 net.cpp:399] lstm2_unit_1 -> c_1
I0925 22:59:50.105466 18403 net.cpp:399] lstm2_unit_1 -> h_1
I0925 22:59:50.106685 18403 net.cpp:141] Setting up lstm2_unit_1
I0925 22:59:50.106734 18403 net.cpp:148] Top shape: 1 1 1000 (1000)
I0925 22:59:50.106750 18403 net.cpp:148] Top shape: 1 1 1000 (1000)
I0925 22:59:50.106760 18403 net.cpp:156] Memory required for data: 90020
I0925 22:59:50.106775 18403 layer_factory.hpp:77] Creating layer lstm2_
I0925 22:59:50.107249 18399 net.cpp:141] Setting up h_pseudoloss
I0925 22:59:50.107252 18403 net.cpp:91] Creating Layer lstm2_
I0925 22:59:50.107282 18403 net.cpp:425] lstm2_ <- c_1
I0925 22:59:50.107283 18399 net.cpp:148] Top shape: (1)
I0925 22:59:50.107311 18403 net.cpp:399] lstm2_ -> c_T
I0925 22:59:50.107309 18399 net.cpp:151]     with loss weight 1
I0925 22:59:50.107338 18399 net.cpp:156] Memory required for data: 98024
I0925 22:59:50.107332 18391 net.cpp:141] Setting up probs
I0925 22:59:50.107350 18399 net.cpp:217] h_pseudoloss needs backward computation.
I0925 22:59:50.107388 18391 net.cpp:148] Top shape: 1 1 46168 (46168)
I0925 22:59:50.107393 18399 net.cpp:217] lstm2_h_concat needs backward computation.
I0925 22:59:50.107399 18391 net.cpp:156] Memory required for data: 405756
I0925 22:59:50.107405 18399 net.cpp:219] lstm2_ does not need backward computation.
I0925 22:59:50.107406 18403 net.cpp:141] Setting up lstm2_
I0925 22:59:50.107412 18391 net.cpp:219] probs does not need backward computation.
I0925 22:59:50.107416 18399 net.cpp:217] lstm2_unit_1 needs backward computation.
I0925 22:59:50.107424 18403 net.cpp:148] Top shape: 1 1 1000 (1000)
I0925 22:59:50.107430 18399 net.cpp:217] lstm2_gate_input_1 needs backward computation.
I0925 22:59:50.107440 18403 net.cpp:156] Memory required for data: 94020
I0925 22:59:50.107441 18399 net.cpp:217] lstm2_transform_1 needs backward computation.
I0925 22:59:50.107457 18403 layer_factory.hpp:77] Creating layer lstm2_h_concat
I0925 22:59:50.107424 18391 net.cpp:219] predict does not need backward computation.
…
I0925 22:59:50.109760 18403 net.cpp:219] lstm2_ does not need backward computation.
I0925 22:59:50.109766 18403 net.cpp:261] This network produces output c_T
I0925 22:59:50.109774 18403 net.cpp:261] This network produces output h_pseudoloss
I0925 22:59:50.122663 18403 net.cpp:274] Network initialization done.
I0925 22:59:50.122792 18403 recurrent_layer.cpp:150] Adding parameter 0: W_xc
I0925 22:59:50.122805 18403 recurrent_layer.cpp:150] Adding parameter 1: b_c
I0925 22:59:50.122813 18403 recurrent_layer.cpp:150] Adding parameter 2: W_hc
I0925 22:59:50.193372 18373 net.cpp:141] Setting up predict
I0925 22:59:50.193434 18373 net.cpp:148] Top shape: 1 1 46168 (46168)
I0925 22:59:50.193444 18373 net.cpp:156] Memory required for data: 221084
I0925 22:59:50.193464 18373 layer_factory.hpp:77] Creating layer probs
I0925 22:59:50.193470 18403 net.cpp:141] Setting up lstm2
I0925 22:59:50.193522 18403 net.cpp:148] Top shape: 1 1 1000 (1000)
I0925 22:59:50.193533 18403 net.cpp:156] Memory required for data: 36412
I0925 22:59:50.193567 18403 layer_factory.hpp:77] Creating layer predict
I0925 22:59:50.193595 18403 net.cpp:91] Creating Layer predict
I0925 22:59:50.193609 18403 net.cpp:425] predict <- lstm2
I0925 22:59:50.193626 18403 net.cpp:399] predict -> predict
I0925 22:59:50.193486 18373 net.cpp:91] Creating Layer probs
I0925 22:59:50.194931 18373 net.cpp:425] probs <- predict
I0925 22:59:50.194972 18373 net.cpp:399] probs -> probs
I0925 22:59:50.278534 18375 upgrade_proto.cpp:43] Attempting to upgrade input file specified using deprecated transformation parameters: /home/peifeng/work/run/storm102/data/workers/50068e37-3ddc-48b9-9f3c-9bc50fa05399/tmp/cvld5149665953535479379/bvlc_reference_caffenet.caffemodel
I0925 22:59:50.278620 18375 upgrade_proto.cpp:46] Successfully upgraded file specified using deprecated data transformation parameters.
W0925 22:59:50.278627 18375 upgrade_proto.cpp:48] Note that future Caffe releases will only support transform_param messages for transformation fields.
I0925 22:59:50.278631 18375 upgrade_proto.cpp:52] Attempting to upgrade input file specified using deprecated V1LayerParameter: /home/peifeng/work/run/storm102/data/workers/50068e37-3ddc-48b9-9f3c-9bc50fa05399/tmp/cvld5149665953535479379/bvlc_reference_caffenet.caffemodel
I0925 22:59:50.290074 18367 net.cpp:141] Setting up predict
I0925 22:59:50.290140 18367 net.cpp:148] Top shape: 1 1 46168 (46168)
I0925 22:59:50.290149 18367 net.cpp:156] Memory required for data: 221084
I0925 22:59:50.290171 18367 layer_factory.hpp:77] Creating layer probs
I0925 22:59:50.290195 18367 net.cpp:91] Creating Layer probs
I0925 22:59:50.290207 18367 net.cpp:425] probs <- predict
I0925 22:59:50.290223 18367 net.cpp:399] probs -> probs
I0925 22:59:50.290623 18373 net.cpp:141] Setting up probs
I0925 22:59:50.290643 18373 net.cpp:148] Top shape: 1 1 46168 (46168)
I0925 22:59:50.290648 18373 net.cpp:156] Memory required for data: 405756
I0925 22:59:50.290655 18373 net.cpp:219] probs does not need backward computation.
I0925 22:59:50.290662 18373 net.cpp:219] predict does not need backward computation.
I0925 22:59:50.290666 18373 net.cpp:219] lstm2 does not need backward computation.
I0925 22:59:50.290673 18373 net.cpp:219] concat does not need backward computation.
I0925 22:59:50.290679 18373 net.cpp:219] lstm1 does not need backward computation.
I0925 22:59:50.290685 18373 net.cpp:219] embedding does not need backward computation.
I0925 22:59:50.290691 18373 net.cpp:219] reshape_stage_indicator does not need backward computation.
I0925 22:59:50.290696 18373 net.cpp:219] reshape_frames does not need backward computation.
I0925 22:59:50.290702 18373 net.cpp:219] embed_encoder does not need backward computation.
I0925 22:59:50.290707 18373 net.cpp:219] cont_sentence_input_1_split does not need backward computation.
I0925 22:59:50.290714 18373 net.cpp:219] input does not need backward computation.
I0925 22:59:50.290717 18373 net.cpp:261] This network produces output probs
I0925 22:59:50.290733 18373 net.cpp:274] Network initialization done.
I0925 22:59:50.292786 18367 net.cpp:141] Setting up probs
I0925 22:59:50.292846 18367 net.cpp:148] Top shape: 1 1 46168 (46168)
I0925 22:59:50.292857 18367 net.cpp:156] Memory required for data: 405756
I0925 22:59:50.292872 18367 net.cpp:219] probs does not need backward computation.
I0925 22:59:50.292884 18367 net.cpp:219] predict does not need backward computation.
I0925 22:59:50.292894 18367 net.cpp:219] lstm2 does not need backward computation.
I0925 22:59:50.292906 18367 net.cpp:219] concat does not need backward computation.
I0925 22:59:50.292917 18367 net.cpp:219] lstm1 does not need backward computation.
I0925 22:59:50.292927 18367 net.cpp:219] embedding does not need backward computation.
I0925 22:59:50.292938 18367 net.cpp:219] reshape_stage_indicator does not need backward computation.
I0925 22:59:50.292948 18367 net.cpp:219] reshape_frames does not need backward computation.
I0925 22:59:50.292958 18367 net.cpp:219] embed_encoder does not need backward computation.
I0925 22:59:50.292968 18367 net.cpp:219] cont_sentence_input_1_split does not need backward computation.
I0925 22:59:50.292979 18367 net.cpp:219] input does not need backward computation.
I0925 22:59:50.292987 18367 net.cpp:261] This network produces output probs
I0925 22:59:50.293021 18367 net.cpp:274] Network initialization done.
I0925 22:59:50.380769 18349 net.cpp:141] Setting up predict
I0925 22:59:50.380852 18349 net.cpp:148] Top shape: 1 1 46168 (46168)
I0925 22:59:50.380862 18349 net.cpp:156] Memory required for data: 221084
I0925 22:59:50.380889 18349 layer_factory.hpp:77] Creating layer probs
I0925 22:59:50.380923 18349 net.cpp:91] Creating Layer probs
I0925 22:59:50.380937 18349 net.cpp:425] probs <- predict
I0925 22:59:50.380959 18349 net.cpp:399] probs -> probs
I0925 22:59:50.382339 18349 net.cpp:141] Setting up probs
I0925 22:59:50.382405 18349 net.cpp:148] Top shape: 1 1 46168 (46168)
I0925 22:59:50.382416 18349 net.cpp:156] Memory required for data: 405756
I0925 22:59:50.382431 18349 net.cpp:219] probs does not need backward computation.
I0925 22:59:50.382447 18349 net.cpp:219] predict does not need backward computation.
I0925 22:59:50.382457 18349 net.cpp:219] lstm2 does not need backward computation.
I0925 22:59:50.382467 18349 net.cpp:219] concat does not need backward computation.
I0925 22:59:50.382478 18349 net.cpp:219] lstm1 does not need backward computation.
I0925 22:59:50.382491 18349 net.cpp:219] embedding does not need backward computation.
I0925 22:59:50.382500 18349 net.cpp:219] reshape_stage_indicator does not need backward computation.
I0925 22:59:50.382509 18349 net.cpp:219] reshape_frames does not need backward computation.
I0925 22:59:50.382519 18349 net.cpp:219] embed_encoder does not need backward computation.
I0925 22:59:50.382530 18349 net.cpp:219] cont_sentence_input_1_split does not need backward computation.
I0925 22:59:50.382541 18349 net.cpp:219] input does not need backward computation.
I0925 22:59:50.382550 18349 net.cpp:261] This network produces output probs
I0925 22:59:50.382582 18349 net.cpp:274] Network initialization done.
I0925 22:59:50.504320 18359 net.cpp:141] Setting up predict
I0925 22:59:50.504379 18359 net.cpp:148] Top shape: 1 1 46168 (46168)
I0925 22:59:50.504385 18359 net.cpp:156] Memory required for data: 221084
I0925 22:59:50.504400 18359 layer_factory.hpp:77] Creating layer probs
I0925 22:59:50.504418 18359 net.cpp:91] Creating Layer probs
I0925 22:59:50.504426 18359 net.cpp:425] probs <- predict
I0925 22:59:50.504437 18359 net.cpp:399] probs -> probs
I0925 22:59:50.505172 18359 net.cpp:141] Setting up probs
I0925 22:59:50.505200 18359 net.cpp:148] Top shape: 1 1 46168 (46168)
I0925 22:59:50.505205 18359 net.cpp:156] Memory required for data: 405756
I0925 22:59:50.505213 18359 net.cpp:219] probs does not need backward computation.
I0925 22:59:50.505219 18359 net.cpp:219] predict does not need backward computation.
I0925 22:59:50.505224 18359 net.cpp:219] lstm2 does not need backward computation.
I0925 22:59:50.505231 18359 net.cpp:219] concat does not need backward computation.
I0925 22:59:50.505239 18359 net.cpp:219] lstm1 does not need backward computation.
I0925 22:59:50.505245 18359 net.cpp:219] embedding does not need backward computation.
I0925 22:59:50.505250 18359 net.cpp:219] reshape_stage_indicator does not need backward computation.
I0925 22:59:50.505255 18359 net.cpp:219] reshape_frames does not need backward computation.
I0925 22:59:50.505260 18359 net.cpp:219] embed_encoder does not need backward computation.
I0925 22:59:50.505265 18359 net.cpp:219] cont_sentence_input_1_split does not need backward computation.
I0925 22:59:50.505271 18359 net.cpp:219] input does not need backward computation.
I0925 22:59:50.505275 18359 net.cpp:261] This network produces output probs
I0925 22:59:50.505292 18359 net.cpp:274] Network initialization done.
I0925 22:59:50.577713 18399 net.cpp:141] Setting up predict
I0925 22:59:50.577775 18399 net.cpp:148] Top shape: 1 1 46168 (46168)
I0925 22:59:50.577782 18399 net.cpp:156] Memory required for data: 221084
I0925 22:59:50.577797 18399 layer_factory.hpp:77] Creating layer probs
I0925 22:59:50.577817 18399 net.cpp:91] Creating Layer probs
I0925 22:59:50.577826 18399 net.cpp:425] probs <- predict
I0925 22:59:50.577836 18399 net.cpp:399] probs -> probs
I0925 22:59:50.579093 18399 net.cpp:141] Setting up probs
I0925 22:59:50.579149 18399 net.cpp:148] Top shape: 1 1 46168 (46168)
I0925 22:59:50.579155 18399 net.cpp:156] Memory required for data: 405756
I0925 22:59:50.579164 18399 net.cpp:219] probs does not need backward computation.
I0925 22:59:50.579171 18399 net.cpp:219] predict does not need backward computation.
I0925 22:59:50.579179 18399 net.cpp:219] lstm2 does not need backward computation.
I0925 22:59:50.579185 18399 net.cpp:219] concat does not need backward computation.
…
