…
Java HotSpot(TM) 64-Bit Server VM warning: You have loaded library /tmp/cvld8648638372622208726/libopencv_java310.xine1.so which might have disabled stack guard. The VM will try to fix the stack guard now.
It's highly recommended that you fix the library with 'execstack -c <libfile>', or link it with '-z noexecstack'.
WARNING: Logging before InitGoogleLogging() is written to STDERR
I0731 22:42:38.926363 13951 net.cpp:49] Initializing net from parameters: 
name: "CaffeNet"
state {
  phase: TEST
}
layer {
  name: "data"
  type: "Input"
  top: "data"
  input_param {
    shape {
      dim: 10
      dim: 3
      dim: 227
      dim: 227
    }
  }
}
layer {
  name: "conv1"
  type: "Convolution"
  bottom: "data"
  top: "conv1"
  convolution_param {
    num_output: 96
    kernel_size: 11
    stride: 4
  }
}
layer {
  name: "relu1"
  type: "ReLU"
  bottom: "conv1"
  top: "conv1"
}
layer {
  name: "pool1"
  type: "Pooling"
  bottom: "conv1"
  top: "pool1"
  pooling_param {
    pool: MAX
    kernel_size: 3
    stride: 2
  }
}
layer {
  name: "norm1"
  type: "LRN"
  bottom: "pool1"
  top: "norm1"
  lrn_param {
    local_size: 5
    alpha: 0.0001
    beta: 0.75
  }
}
layer {
  name: "conv2"
  type: "Convolution"
  bottom: "norm1"
  top: "conv2"
  convolution_param {
    num_output: 256
    pad: 2
    kernel_size: 5
    group: 2
  }
}
layer {
  name: "relu2"
  type: "ReLU"
  bottom: "conv2"
  top: "conv2"
}
layer {
  name: "pool2"
  type: "Pooling"
  bottom: "conv2"
  top: "pool2"
  pooling_param {
    pool: MAX
    kernel_size: 3
    stride: 2
  }
}
layer {
  name: "norm2"
  type: "LRN"
  bottom: "pool2"
  top: "norm2"
  lrn_param {
    local_size: 5
    alpha: 0.0001
    beta: 0.75
  }
}
layer {
  name: "conv3"
  type: "Convolution"
  bottom: "norm2"
  top: "conv3"
  convolution_param {
    num_output: 384
    pad: 1
    kernel_size: 3
  }
}
layer {
  name: "relu3"
  type: "ReLU"
  bottom: "conv3"
  top: "conv3"
}
layer {
  name: "conv4"
  type: "Convolution"
  bottom: "conv3"
  top: "conv4"
  convolution_param {
    num_output: 384
    pad: 1
    kernel_size: 3
    group: 2
  }
}
layer {
  name: "relu4"
  type: "ReLU"
  bottom: "conv4"
  top: "conv4"
}
layer {
  name: "conv5"
  type: "Convolution"
  bottom: "conv4"
  top: "conv5"
  convolution_param {
    num_output: 256
    pad: 1
    kernel_size: 3
    group: 2
  }
}
layer {
  name: "relu5"
  type: "ReLU"
  bottom: "conv5"
  top: "conv5"
}
layer {
  name: "pool5"
  type: "Pooling"
  bottom: "conv5"
  top: "pool5"
  pooling_param {
    pool: MAX
    kernel_size: 3
    stride: 2
  }
}
layer {
  name: "fc6"
  type: "InnerProduct"
  bottom: "pool5"
  top: "fc6"
  inner_product_param {
    num_output: 4096
  }
}
layer {
  name: "relu6"
  type: "ReLU"
  bottom: "fc6"
  top: "fc6"
}
layer {
  name: "drop6"
  type: "Dropout"
  bottom: "fc6"
  top: "fc6"
  dropout_param {
    dropout_ratio: 0.5
  }
}
layer {
  name: "fc7"
  type: "InnerProduct"
  bottom: "fc6"
  top: "fc7"
  inner_product_param {
    num_output: 4096
  }
}
layer {
  name: "relu7"
  type: "ReLU"
  bottom: "fc7"
  top: "fc7"
}
layer {
  name: "drop7"
  type: "Dropout"
  bottom: "fc7"
  top: "fc7"
  dropout_param {
    dropout_ratio: 0.5
  }
}
layer {
  name: "fc8"
  type: "InnerProduct"
  bottom: "fc7"
  top: "fc8"
  inner_product_param {
    num_output: 1000
  }
}
layer {
  name: "prob"
  type: "Softmax"
  bottom: "fc8"
  top: "prob"
}
I0731 22:42:38.926556 13951 layer_factory.hpp:77] Creating layer data
I0731 22:42:38.926580 13951 net.cpp:91] Creating Layer data
I0731 22:42:38.926590 13951 net.cpp:399] data -> data
I0731 22:42:39.442623 13951 net.cpp:141] Setting up data
I0731 22:42:39.442723 13951 net.cpp:148] Top shape: 10 3 227 227 (1545870)
I0731 22:42:39.442730 13951 net.cpp:156] Memory required for data: 6183480
I0731 22:42:39.442751 13951 layer_factory.hpp:77] Creating layer conv1
I0731 22:42:39.442783 13951 net.cpp:91] Creating Layer conv1
I0731 22:42:39.442792 13951 net.cpp:425] conv1 <- data
I0731 22:42:39.442807 13951 net.cpp:399] conv1 -> conv1
I0731 22:42:39.546324 13941 upgrade_proto.cpp:66] Attempting to upgrade input file specified using deprecated input fields: /tmp/cvld8648638372622208726/s2vt.words_to_preds.prototxt
I0731 22:42:39.546392 13941 upgrade_proto.cpp:69] Successfully upgraded file specified using deprecated input fields.
W0731 22:42:39.546401 13941 upgrade_proto.cpp:71] Note that future Caffe releases will only support input layers and not input fields.
I0731 22:42:39.546660 13941 net.cpp:49] Initializing net from parameters: 
name: "s2vt:features_to_lstm"
state {
  phase: TEST
}
layer {
  name: "input"
  type: "Input"
  top: "frames_fc7"
  top: "cont_sentence"
  top: "input_sentence"
  top: "stage_indicator"
  input_param {
    shape {
      dim: 1
      dim: 4096
    }
    shape {
      dim: 1
      dim: 1
    }
    shape {
      dim: 1
      dim: 1
    }
    shape {
      dim: 1
      dim: 1
    }
  }
}
layer {
  name: "embed_encoder"
  type: "InnerProduct"
  bottom: "frames_fc7"
  top: "embedded_in_frames"
  param {
    lr_mult: 1
    decay_mult: 1
  }
  param {
    lr_mult: 2
    decay_mult: 0
  }
  inner_product_param {
    num_output: 500
    weight_filler {
      type: "xavier"
    }
    bias_filler {
      type: "constant"
      value: 0.2
    }
  }
}
layer {
  name: "reshape_frames"
  type: "Reshape"
  bottom: "embedded_in_frames"
  top: "embedded_input_frames"
  reshape_param {
    shape {
      dim: 1
      dim: 1
      dim: 500
    }
  }
}
layer {
  name: "reshape_stage_indicator"
  type: "Reshape"
  bottom: "stage_indicator"
  top: "reshaped_stage_indicator"
  reshape_param {
    shape {
      dim: 1
      dim: 1
      dim: 1
    }
  }
}
layer {
  name: "embedding"
  type: "Embed"
  bottom: "input_sentence"
  top: "embedded_input_sentence"
  param {
    lr_mult: 1
  }
  embed_param {
    num_output: 500
    input_dim: 46168
    bias_term: false
    weight_filler {
      type: "uniform"
      min: -0.08
      max: 0.08
    }
  }
}
layer {
  name: "lstm1"
  type: "LSTM"
  bottom: "embedded_input_frames"
  bottom: "cont_sentence"
  top: "lstm1"
  recurrent_param {
    num_output: 1000
    weight_filler {
      type: "uniform"
      min: -0.08
      max: 0.08
    }
    bias_filler {
      type: "constant"
      value: 0
    }
  }
}
layer {
  name: "concat"
  type: "Concat"
  bottom: "lstm1"
  bottom: "embedded_input_sentence"
  bottom: "reshaped_stage_indicator"
  top: "lstm1_video_sequence"
  concat_param {
    concat_dim: 2
  }
}
layer {
  name: "lstm2"
  type: "LSTM"
  bottom: "lstm1_video_sequence"
  bottom: "cont_sentence"
  top: "lstm2"
  recurrent_param {
    num_output: 1000
    weight_filler {
      type: "uniform"
      min: -0.08
      max: 0.08
    }
    bias_filler {
      type: "constant"
      value: 0
    }
  }
}
layer {
  name: "predict"
  type: "InnerProduct"
  bottom: "lstm2"
  top: "predict"
  param {
    lr_mult: 1
    decay_mult: 1
  }
  param {
    lr_mult: 2
    decay_mult: 0
  }
  inner_product_param {
    num_output: 46168
    weight_filler {
      type: "uniform"
      min: -0.08
      max: 0.08
    }
    bias_filler {
      type: "constant"
      value: 0
    }
    axis: 2
  }
}
layer {
  name: "probs"
  type: "Softmax"
  bottom: "predict"
  top: "probs"
  softmax_param {
    axis: 2
  }
}
I0731 22:42:39.546761 13941 layer_factory.hpp:77] Creating layer input
I0731 22:42:39.546777 13941 net.cpp:91] Creating Layer input
I0731 22:42:39.546784 13941 net.cpp:399] input -> frames_fc7
I0731 22:42:39.546814 13941 net.cpp:399] input -> cont_sentence
I0731 22:42:39.546825 13941 net.cpp:399] input -> input_sentence
I0731 22:42:39.546835 13941 net.cpp:399] input -> stage_indicator
I0731 22:42:39.553432 13941 net.cpp:141] Setting up input
I0731 22:42:39.553452 13941 net.cpp:148] Top shape: 1 4096 (4096)
I0731 22:42:39.553458 13941 net.cpp:148] Top shape: 1 1 (1)
I0731 22:42:39.553463 13941 net.cpp:148] Top shape: 1 1 (1)
I0731 22:42:39.553469 13941 net.cpp:148] Top shape: 1 1 (1)
I0731 22:42:39.553473 13941 net.cpp:156] Memory required for data: 16396
I0731 22:42:39.553479 13941 layer_factory.hpp:77] Creating layer cont_sentence_input_1_split
I0731 22:42:39.553500 13941 net.cpp:91] Creating Layer cont_sentence_input_1_split
I0731 22:42:39.553509 13941 net.cpp:425] cont_sentence_input_1_split <- cont_sentence
I0731 22:42:39.553539 13941 net.cpp:399] cont_sentence_input_1_split -> cont_sentence_input_1_split_0
I0731 22:42:39.553553 13941 net.cpp:399] cont_sentence_input_1_split -> cont_sentence_input_1_split_1
I0731 22:42:39.553604 13941 net.cpp:141] Setting up cont_sentence_input_1_split
I0731 22:42:39.553613 13941 net.cpp:148] Top shape: 1 1 (1)
I0731 22:42:39.553619 13941 net.cpp:148] Top shape: 1 1 (1)
I0731 22:42:39.553623 13941 net.cpp:156] Memory required for data: 16404
I0731 22:42:39.553628 13941 layer_factory.hpp:77] Creating layer embed_encoder
I0731 22:42:39.553647 13941 net.cpp:91] Creating Layer embed_encoder
I0731 22:42:39.553652 13941 net.cpp:425] embed_encoder <- frames_fc7
I0731 22:42:39.553660 13941 net.cpp:399] embed_encoder -> embedded_in_frames
I0731 22:42:39.575363 13941 net.cpp:141] Setting up embed_encoder
I0731 22:42:39.575424 13941 net.cpp:148] Top shape: 1 500 (500)
I0731 22:42:39.575430 13941 net.cpp:156] Memory required for data: 18404
I0731 22:42:39.575461 13941 layer_factory.hpp:77] Creating layer reshape_frames
I0731 22:42:39.575492 13941 net.cpp:91] Creating Layer reshape_frames
I0731 22:42:39.575501 13941 net.cpp:425] reshape_frames <- embedded_in_frames
I0731 22:42:39.575515 13941 net.cpp:399] reshape_frames -> embedded_input_frames
I0731 22:42:39.578652 13941 net.cpp:141] Setting up reshape_frames
I0731 22:42:39.578685 13941 net.cpp:148] Top shape: 1 1 500 (500)
I0731 22:42:39.578691 13941 net.cpp:156] Memory required for data: 20404
I0731 22:42:39.578696 13941 layer_factory.hpp:77] Creating layer reshape_stage_indicator
I0731 22:42:39.578711 13941 net.cpp:91] Creating Layer reshape_stage_indicator
I0731 22:42:39.578717 13941 net.cpp:425] reshape_stage_indicator <- stage_indicator
I0731 22:42:39.578734 13941 net.cpp:399] reshape_stage_indicator -> reshaped_stage_indicator
I0731 22:42:39.579733 13941 net.cpp:141] Setting up reshape_stage_indicator
I0731 22:42:39.579753 13941 net.cpp:148] Top shape: 1 1 1 (1)
I0731 22:42:39.579758 13941 net.cpp:156] Memory required for data: 20408
I0731 22:42:39.579763 13941 layer_factory.hpp:77] Creating layer embedding
I0731 22:42:39.579778 13941 net.cpp:91] Creating Layer embedding
I0731 22:42:39.579783 13941 net.cpp:425] embedding <- input_sentence
I0731 22:42:39.579792 13941 net.cpp:399] embedding -> embedded_input_sentence
I0731 22:42:39.717255 13951 net.cpp:141] Setting up conv1
I0731 22:42:39.717310 13951 net.cpp:148] Top shape: 10 96 55 55 (2904000)
I0731 22:42:39.717317 13951 net.cpp:156] Memory required for data: 17799480
I0731 22:42:39.717344 13951 layer_factory.hpp:77] Creating layer relu1
I0731 22:42:39.717363 13951 net.cpp:91] Creating Layer relu1
I0731 22:42:39.717370 13951 net.cpp:425] relu1 <- conv1
I0731 22:42:39.717380 13951 net.cpp:386] relu1 -> conv1 (in-place)
I0731 22:42:39.717813 13951 net.cpp:141] Setting up relu1
I0731 22:42:39.717828 13951 net.cpp:148] Top shape: 10 96 55 55 (2904000)
I0731 22:42:39.717833 13951 net.cpp:156] Memory required for data: 29415480
I0731 22:42:39.717839 13951 layer_factory.hpp:77] Creating layer pool1
I0731 22:42:39.717851 13951 net.cpp:91] Creating Layer pool1
I0731 22:42:39.717856 13951 net.cpp:425] pool1 <- conv1
I0731 22:42:39.717864 13951 net.cpp:399] pool1 -> pool1
I0731 22:42:39.717932 13951 net.cpp:141] Setting up pool1
I0731 22:42:39.717942 13951 net.cpp:148] Top shape: 10 96 27 27 (699840)
I0731 22:42:39.717947 13951 net.cpp:156] Memory required for data: 32214840
I0731 22:42:39.717952 13951 layer_factory.hpp:77] Creating layer norm1
I0731 22:42:39.717969 13951 net.cpp:91] Creating Layer norm1
I0731 22:42:39.717975 13951 net.cpp:425] norm1 <- pool1
I0731 22:42:39.717983 13951 net.cpp:399] norm1 -> norm1
I0731 22:42:39.718456 13951 net.cpp:141] Setting up norm1
I0731 22:42:39.718471 13951 net.cpp:148] Top shape: 10 96 27 27 (699840)
I0731 22:42:39.718475 13951 net.cpp:156] Memory required for data: 35014200
I0731 22:42:39.718482 13951 layer_factory.hpp:77] Creating layer conv2
I0731 22:42:39.718497 13951 net.cpp:91] Creating Layer conv2
I0731 22:42:39.718503 13951 net.cpp:425] conv2 <- norm1
I0731 22:42:39.718510 13951 net.cpp:399] conv2 -> conv2
I0731 22:42:39.722609 13951 net.cpp:141] Setting up conv2
I0731 22:42:39.722654 13951 net.cpp:148] Top shape: 10 256 27 27 (1866240)
I0731 22:42:39.722662 13951 net.cpp:156] Memory required for data: 42479160
I0731 22:42:39.722684 13951 layer_factory.hpp:77] Creating layer relu2
I0731 22:42:39.722702 13951 net.cpp:91] Creating Layer relu2
I0731 22:42:39.722710 13951 net.cpp:425] relu2 <- conv2
I0731 22:42:39.722720 13951 net.cpp:386] relu2 -> conv2 (in-place)
I0731 22:42:39.723364 13951 net.cpp:141] Setting up relu2
I0731 22:42:39.723387 13951 net.cpp:148] Top shape: 10 256 27 27 (1866240)
I0731 22:42:39.723393 13951 net.cpp:156] Memory required for data: 49944120
I0731 22:42:39.723402 13951 layer_factory.hpp:77] Creating layer pool2
I0731 22:42:39.723415 13951 net.cpp:91] Creating Layer pool2
I0731 22:42:39.723423 13951 net.cpp:425] pool2 <- conv2
I0731 22:42:39.723433 13951 net.cpp:399] pool2 -> pool2
I0731 22:42:39.723516 13951 net.cpp:141] Setting up pool2
I0731 22:42:39.723529 13951 net.cpp:148] Top shape: 10 256 13 13 (432640)
I0731 22:42:39.723536 13951 net.cpp:156] Memory required for data: 51674680
I0731 22:42:39.723542 13951 layer_factory.hpp:77] Creating layer norm2
I0731 22:42:39.723563 13951 net.cpp:91] Creating Layer norm2
I0731 22:42:39.723570 13951 net.cpp:425] norm2 <- pool2
I0731 22:42:39.723580 13951 net.cpp:399] norm2 -> norm2
I0731 22:42:39.723945 13951 net.cpp:141] Setting up norm2
I0731 22:42:39.723963 13951 net.cpp:148] Top shape: 10 256 13 13 (432640)
I0731 22:42:39.723969 13951 net.cpp:156] Memory required for data: 53405240
I0731 22:42:39.723976 13951 layer_factory.hpp:77] Creating layer conv3
I0731 22:42:39.723999 13951 net.cpp:91] Creating Layer conv3
I0731 22:42:39.724023 13951 net.cpp:425] conv3 <- norm2
I0731 22:42:39.724051 13951 net.cpp:399] conv3 -> conv3
I0731 22:42:39.730278 13951 net.cpp:141] Setting up conv3
I0731 22:42:39.730319 13951 net.cpp:148] Top shape: 10 384 13 13 (648960)
I0731 22:42:39.730329 13951 net.cpp:156] Memory required for data: 56001080
I0731 22:42:39.730355 13951 layer_factory.hpp:77] Creating layer relu3
I0731 22:42:39.730371 13951 net.cpp:91] Creating Layer relu3
I0731 22:42:39.730387 13951 net.cpp:425] relu3 <- conv3
I0731 22:42:39.730401 13951 net.cpp:386] relu3 -> conv3 (in-place)
I0731 22:42:39.731017 13951 net.cpp:141] Setting up relu3
I0731 22:42:39.731032 13951 net.cpp:148] Top shape: 10 384 13 13 (648960)
I0731 22:42:39.731037 13951 net.cpp:156] Memory required for data: 58596920
I0731 22:42:39.731043 13951 layer_factory.hpp:77] Creating layer conv4
I0731 22:42:39.731058 13951 net.cpp:91] Creating Layer conv4
I0731 22:42:39.731065 13951 net.cpp:425] conv4 <- conv3
I0731 22:42:39.731073 13951 net.cpp:399] conv4 -> conv4
I0731 22:42:39.735936 13951 net.cpp:141] Setting up conv4
I0731 22:42:39.735970 13951 net.cpp:148] Top shape: 10 384 13 13 (648960)
I0731 22:42:39.735976 13951 net.cpp:156] Memory required for data: 61192760
I0731 22:42:39.735990 13951 layer_factory.hpp:77] Creating layer relu4
I0731 22:42:39.736027 13951 net.cpp:91] Creating Layer relu4
I0731 22:42:39.736034 13951 net.cpp:425] relu4 <- conv4
I0731 22:42:39.736042 13951 net.cpp:386] relu4 -> conv4 (in-place)
I0731 22:42:39.736513 13951 net.cpp:141] Setting up relu4
I0731 22:42:39.736526 13951 net.cpp:148] Top shape: 10 384 13 13 (648960)
I0731 22:42:39.736531 13951 net.cpp:156] Memory required for data: 63788600
I0731 22:42:39.736536 13951 layer_factory.hpp:77] Creating layer conv5
I0731 22:42:39.736552 13951 net.cpp:91] Creating Layer conv5
I0731 22:42:39.736558 13951 net.cpp:425] conv5 <- conv4
I0731 22:42:39.736568 13951 net.cpp:399] conv5 -> conv5
I0731 22:42:39.740586 13951 net.cpp:141] Setting up conv5
I0731 22:42:39.740605 13951 net.cpp:148] Top shape: 10 256 13 13 (432640)
I0731 22:42:39.740612 13951 net.cpp:156] Memory required for data: 65519160
I0731 22:42:39.740625 13951 layer_factory.hpp:77] Creating layer relu5
I0731 22:42:39.740638 13951 net.cpp:91] Creating Layer relu5
I0731 22:42:39.740643 13951 net.cpp:425] relu5 <- conv5
I0731 22:42:39.740649 13951 net.cpp:386] relu5 -> conv5 (in-place)
I0731 22:42:39.741109 13951 net.cpp:141] Setting up relu5
I0731 22:42:39.741122 13951 net.cpp:148] Top shape: 10 256 13 13 (432640)
I0731 22:42:39.741127 13951 net.cpp:156] Memory required for data: 67249720
I0731 22:42:39.741132 13951 layer_factory.hpp:77] Creating layer pool5
I0731 22:42:39.741145 13951 net.cpp:91] Creating Layer pool5
I0731 22:42:39.741152 13951 net.cpp:425] pool5 <- conv5
I0731 22:42:39.741160 13951 net.cpp:399] pool5 -> pool5
I0731 22:42:39.741240 13951 net.cpp:141] Setting up pool5
I0731 22:42:39.741251 13951 net.cpp:148] Top shape: 10 256 6 6 (92160)
I0731 22:42:39.741255 13951 net.cpp:156] Memory required for data: 67618360
I0731 22:42:39.741261 13951 layer_factory.hpp:77] Creating layer fc6
I0731 22:42:39.741276 13951 net.cpp:91] Creating Layer fc6
I0731 22:42:39.741281 13951 net.cpp:425] fc6 <- pool5
I0731 22:42:39.741288 13951 net.cpp:399] fc6 -> fc6
I0731 22:42:39.817147 13941 net.cpp:141] Setting up embedding
I0731 22:42:39.817209 13941 net.cpp:148] Top shape: 1 1 500 (500)
I0731 22:42:39.817219 13941 net.cpp:156] Memory required for data: 22408
I0731 22:42:39.817242 13941 layer_factory.hpp:77] Creating layer lstm1
I0731 22:42:39.817266 13941 net.cpp:91] Creating Layer lstm1
I0731 22:42:39.817277 13941 net.cpp:425] lstm1 <- embedded_input_frames
I0731 22:42:39.817291 13941 net.cpp:425] lstm1 <- cont_sentence_input_1_split_0
I0731 22:42:39.817309 13941 net.cpp:399] lstm1 -> lstm1
I0731 22:42:39.817359 13941 recurrent_layer.cpp:20] Initializing recurrent layer: assuming input batch contains 1 timesteps of 1 independent streams.
I0731 22:42:39.817808 13941 net.cpp:49] Initializing net from parameters: 
layer {
  name: "lstm1_"
  type: "Input"
  top: "x"
  top: "cont"
  input_param {
    shape {
      dim: 1
      dim: 1
      dim: 500
    }
    shape {
      dim: 1
      dim: 1
    }
  }
}
layer {
  name: "lstm1_"
  type: "Input"
  top: "c_0"
  top: "h_0"
  input_param {
    shape {
      dim: 1
      dim: 1
      dim: 1000
    }
    shape {
      dim: 1
      dim: 1
      dim: 1000
    }
  }
}
layer {
  name: "lstm1_cont_slice"
  type: "Slice"
  bottom: "cont"
  top: "cont_1"
  slice_param {
    axis: 0
  }
}
layer {
  name: "lstm1_x_transform"
  type: "InnerProduct"
  bottom: "x"
  top: "W_xc_x"
  param {
    name: "W_xc"
  }
  param {
    name: "b_c"
  }
  propagate_down: true
  inner_product_param {
    num_output: 4000
    bias_term: true
    weight_filler {
      type: "uniform"
      min: -0.08
      max: 0.08
    }
    bias_filler {
      type: "constant"
      value: 0
    }
    axis: 2
  }
}
layer {
  name: "lstm1_W_xc_x_slice"
  type: "Slice"
  bottom: "W_xc_x"
  top: "W_xc_x_1"
  slice_param {
    axis: 0
  }
}
layer {
  name: "lstm1_h_conted_0"
  type: "Scale"
  bottom: "h_0"
  bottom: "cont_1"
  top: "h_conted_0"
  scale_param {
    axis: 0
  }
}
layer {
  name: "lstm1_transform_1"
  type: "InnerProduct"
  bottom: "h_conted_0"
  top: "W_hc_h_0"
  param {
    name: "W_hc"
  }
  inner_product_param {
    num_output: 4000
    bias_term: false
    weight_filler {
      type: "uniform"
      min: -0.08
      max: 0.08
    }
    axis: 2
  }
}
layer {
  name: "lstm1_gate_input_1"
  type: "Eltwise"
  bottom: "W_hc_h_0"
  bottom: "W_xc_x_1"
  top: "gate_input_1"
  eltwise_param {
    operation: SUM
  }
}
layer {
  name: "lstm1_unit_1"
  type: "LSTMUnit"
  bottom: "c_0"
  bottom: "gate_input_1"
  bottom: "cont_1"
  top: "c_1"
  top: "h_1"
}
layer {
  name: "lstm1_"
  type: "Split"
  bottom: "c_1"
  top: "c_T"
}
layer {
  name: "lstm1_h_concat"
  type: "Concat"
  bottom: "h_1"
  top: "h"
  concat_param {
    axis: 0
  }
}
layer {
  name: "h_pseudoloss"
  type: "Reduction"
  bottom: "h"
  top: "h_pseudoloss"
  loss_weight: 1
}
I0731 22:42:39.817929 13941 layer_factory.hpp:77] Creating layer lstm1_
I0731 22:42:39.817950 13941 net.cpp:91] Creating Layer lstm1_
I0731 22:42:39.817961 13941 net.cpp:399] lstm1_ -> x
I0731 22:42:39.817981 13941 net.cpp:399] lstm1_ -> cont
I0731 22:42:39.818085 13941 net.cpp:141] Setting up lstm1_
I0731 22:42:39.818102 13941 net.cpp:148] Top shape: 1 1 500 (500)
I0731 22:42:39.818112 13941 net.cpp:148] Top shape: 1 1 (1)
I0731 22:42:39.818120 13941 net.cpp:156] Memory required for data: 2004
I0731 22:42:39.818128 13941 layer_factory.hpp:77] Creating layer lstm1_
I0731 22:42:39.818142 13941 net.cpp:91] Creating Layer lstm1_
I0731 22:42:39.818157 13941 net.cpp:399] lstm1_ -> c_0
I0731 22:42:39.818176 13941 net.cpp:399] lstm1_ -> h_0
I0731 22:42:39.818255 13941 net.cpp:141] Setting up lstm1_
I0731 22:42:39.818271 13941 net.cpp:148] Top shape: 1 1 1000 (1000)
I0731 22:42:39.818280 13941 net.cpp:148] Top shape: 1 1 1000 (1000)
I0731 22:42:39.818287 13941 net.cpp:156] Memory required for data: 10004
I0731 22:42:39.818295 13941 layer_factory.hpp:77] Creating layer lstm1_cont_slice
I0731 22:42:39.818313 13941 net.cpp:91] Creating Layer lstm1_cont_slice
I0731 22:42:39.818322 13941 net.cpp:425] lstm1_cont_slice <- cont
I0731 22:42:39.818337 13941 net.cpp:399] lstm1_cont_slice -> cont_1
I0731 22:42:39.818393 13941 net.cpp:141] Setting up lstm1_cont_slice
I0731 22:42:39.818408 13941 net.cpp:148] Top shape: 1 1 (1)
I0731 22:42:39.818416 13941 net.cpp:156] Memory required for data: 10008
I0731 22:42:39.818424 13941 layer_factory.hpp:77] Creating layer cont_1_lstm1_cont_slice_0_split
I0731 22:42:39.818436 13941 net.cpp:91] Creating Layer cont_1_lstm1_cont_slice_0_split
I0731 22:42:39.818444 13941 net.cpp:425] cont_1_lstm1_cont_slice_0_split <- cont_1
I0731 22:42:39.818459 13941 net.cpp:399] cont_1_lstm1_cont_slice_0_split -> cont_1_lstm1_cont_slice_0_split_0
I0731 22:42:39.818475 13941 net.cpp:399] cont_1_lstm1_cont_slice_0_split -> cont_1_lstm1_cont_slice_0_split_1
I0731 22:42:39.818557 13941 net.cpp:141] Setting up cont_1_lstm1_cont_slice_0_split
I0731 22:42:39.818572 13941 net.cpp:148] Top shape: 1 1 (1)
I0731 22:42:39.818580 13941 net.cpp:148] Top shape: 1 1 (1)
I0731 22:42:39.818588 13941 net.cpp:156] Memory required for data: 10016
I0731 22:42:39.818595 13941 layer_factory.hpp:77] Creating layer lstm1_x_transform
I0731 22:42:39.818611 13941 net.cpp:91] Creating Layer lstm1_x_transform
I0731 22:42:39.818619 13941 net.cpp:425] lstm1_x_transform <- x
I0731 22:42:39.818632 13941 net.cpp:399] lstm1_x_transform -> W_xc_x
I0731 22:42:39.841346 13941 net.cpp:141] Setting up lstm1_x_transform
I0731 22:42:39.841398 13941 net.cpp:148] Top shape: 1 1 4000 (4000)
I0731 22:42:39.841405 13941 net.cpp:156] Memory required for data: 26016
I0731 22:42:39.841430 13941 layer_factory.hpp:77] Creating layer lstm1_W_xc_x_slice
I0731 22:42:39.841451 13941 net.cpp:91] Creating Layer lstm1_W_xc_x_slice
I0731 22:42:39.841459 13941 net.cpp:425] lstm1_W_xc_x_slice <- W_xc_x
I0731 22:42:39.841470 13941 net.cpp:399] lstm1_W_xc_x_slice -> W_xc_x_1
I0731 22:42:39.841518 13941 net.cpp:141] Setting up lstm1_W_xc_x_slice
I0731 22:42:39.841528 13941 net.cpp:148] Top shape: 1 1 4000 (4000)
I0731 22:42:39.841532 13941 net.cpp:156] Memory required for data: 42016
I0731 22:42:39.841537 13941 layer_factory.hpp:77] Creating layer lstm1_h_conted_0
I0731 22:42:39.841552 13941 net.cpp:91] Creating Layer lstm1_h_conted_0
I0731 22:42:39.841558 13941 net.cpp:425] lstm1_h_conted_0 <- h_0
I0731 22:42:39.841564 13941 net.cpp:425] lstm1_h_conted_0 <- cont_1_lstm1_cont_slice_0_split_0
I0731 22:42:39.841572 13941 net.cpp:399] lstm1_h_conted_0 -> h_conted_0
I0731 22:42:39.841665 13941 net.cpp:141] Setting up lstm1_h_conted_0
I0731 22:42:39.841673 13941 net.cpp:148] Top shape: 1 1 1000 (1000)
I0731 22:42:39.841677 13941 net.cpp:156] Memory required for data: 46016
I0731 22:42:39.841682 13941 layer_factory.hpp:77] Creating layer lstm1_transform_1
I0731 22:42:39.841698 13941 net.cpp:91] Creating Layer lstm1_transform_1
I0731 22:42:39.841704 13941 net.cpp:425] lstm1_transform_1 <- h_conted_0
I0731 22:42:39.841713 13941 net.cpp:399] lstm1_transform_1 -> W_hc_h_0
I0731 22:42:39.849596 13951 net.cpp:141] Setting up fc6
I0731 22:42:39.849654 13951 net.cpp:148] Top shape: 10 4096 (40960)
I0731 22:42:39.849661 13951 net.cpp:156] Memory required for data: 67782200
I0731 22:42:39.849679 13951 layer_factory.hpp:77] Creating layer relu6
I0731 22:42:39.849696 13951 net.cpp:91] Creating Layer relu6
I0731 22:42:39.849704 13951 net.cpp:425] relu6 <- fc6
I0731 22:42:39.849717 13951 net.cpp:386] relu6 -> fc6 (in-place)
I0731 22:42:39.850109 13951 net.cpp:141] Setting up relu6
I0731 22:42:39.850122 13951 net.cpp:148] Top shape: 10 4096 (40960)
I0731 22:42:39.850127 13951 net.cpp:156] Memory required for data: 67946040
I0731 22:42:39.850133 13951 layer_factory.hpp:77] Creating layer drop6
I0731 22:42:39.850160 13951 net.cpp:91] Creating Layer drop6
I0731 22:42:39.850167 13951 net.cpp:425] drop6 <- fc6
I0731 22:42:39.850174 13951 net.cpp:386] drop6 -> fc6 (in-place)
I0731 22:42:39.850232 13951 net.cpp:141] Setting up drop6
I0731 22:42:39.850242 13951 net.cpp:148] Top shape: 10 4096 (40960)
I0731 22:42:39.850247 13951 net.cpp:156] Memory required for data: 68109880
I0731 22:42:39.850253 13951 layer_factory.hpp:77] Creating layer fc7
I0731 22:42:39.850265 13951 net.cpp:91] Creating Layer fc7
I0731 22:42:39.850270 13951 net.cpp:425] fc7 <- fc6
I0731 22:42:39.850282 13951 net.cpp:399] fc7 -> fc7
I0731 22:42:39.883332 13941 net.cpp:141] Setting up lstm1_transform_1
I0731 22:42:39.883388 13941 net.cpp:148] Top shape: 1 1 4000 (4000)
I0731 22:42:39.883394 13941 net.cpp:156] Memory required for data: 62016
I0731 22:42:39.883417 13941 layer_factory.hpp:77] Creating layer lstm1_gate_input_1
I0731 22:42:39.883440 13941 net.cpp:91] Creating Layer lstm1_gate_input_1
I0731 22:42:39.883447 13941 net.cpp:425] lstm1_gate_input_1 <- W_hc_h_0
I0731 22:42:39.883455 13941 net.cpp:425] lstm1_gate_input_1 <- W_xc_x_1
I0731 22:42:39.883466 13941 net.cpp:399] lstm1_gate_input_1 -> gate_input_1
I0731 22:42:39.883527 13941 net.cpp:141] Setting up lstm1_gate_input_1
I0731 22:42:39.883535 13941 net.cpp:148] Top shape: 1 1 4000 (4000)
I0731 22:42:39.883540 13941 net.cpp:156] Memory required for data: 78016
I0731 22:42:39.883545 13941 layer_factory.hpp:77] Creating layer lstm1_unit_1
I0731 22:42:39.883556 13941 net.cpp:91] Creating Layer lstm1_unit_1
I0731 22:42:39.883563 13941 net.cpp:425] lstm1_unit_1 <- c_0
I0731 22:42:39.883569 13941 net.cpp:425] lstm1_unit_1 <- gate_input_1
I0731 22:42:39.883574 13941 net.cpp:425] lstm1_unit_1 <- cont_1_lstm1_cont_slice_0_split_1
I0731 22:42:39.883581 13941 net.cpp:399] lstm1_unit_1 -> c_1
I0731 22:42:39.883590 13941 net.cpp:399] lstm1_unit_1 -> h_1
I0731 22:42:39.883656 13941 net.cpp:141] Setting up lstm1_unit_1
I0731 22:42:39.883666 13941 net.cpp:148] Top shape: 1 1 1000 (1000)
I0731 22:42:39.883671 13941 net.cpp:148] Top shape: 1 1 1000 (1000)
I0731 22:42:39.883674 13941 net.cpp:156] Memory required for data: 86016
I0731 22:42:39.883679 13941 layer_factory.hpp:77] Creating layer lstm1_
I0731 22:42:39.883687 13941 net.cpp:91] Creating Layer lstm1_
I0731 22:42:39.883692 13941 net.cpp:425] lstm1_ <- c_1
I0731 22:42:39.883702 13941 net.cpp:399] lstm1_ -> c_T
I0731 22:42:39.883731 13941 net.cpp:141] Setting up lstm1_
I0731 22:42:39.883739 13941 net.cpp:148] Top shape: 1 1 1000 (1000)
I0731 22:42:39.883744 13941 net.cpp:156] Memory required for data: 90016
I0731 22:42:39.883749 13941 layer_factory.hpp:77] Creating layer lstm1_h_concat
I0731 22:42:39.883760 13941 net.cpp:91] Creating Layer lstm1_h_concat
I0731 22:42:39.883769 13941 net.cpp:425] lstm1_h_concat <- h_1
I0731 22:42:39.883780 13941 net.cpp:399] lstm1_h_concat -> h
I0731 22:42:39.883841 13941 net.cpp:141] Setting up lstm1_h_concat
I0731 22:42:39.883851 13941 net.cpp:148] Top shape: 1 1 1000 (1000)
I0731 22:42:39.883854 13941 net.cpp:156] Memory required for data: 94016
I0731 22:42:39.883860 13941 layer_factory.hpp:77] Creating layer h_pseudoloss
I0731 22:42:39.883875 13941 net.cpp:91] Creating Layer h_pseudoloss
I0731 22:42:39.883882 13941 net.cpp:425] h_pseudoloss <- h
I0731 22:42:39.883888 13941 net.cpp:399] h_pseudoloss -> h_pseudoloss
I0731 22:42:39.883993 13941 net.cpp:141] Setting up h_pseudoloss
…
I0731 22:42:39.884127 13941 net.cpp:219] lstm1_ does not need backward computation.
I0731 22:42:39.884131 13941 net.cpp:261] This network produces output c_T
I0731 22:42:39.884136 13941 net.cpp:261] This network produces output h_pseudoloss
I0731 22:42:39.884152 13941 net.cpp:274] Network initialization done.
I0731 22:42:39.884219 13941 recurrent_layer.cpp:150] Adding parameter 0: W_xc
I0731 22:42:39.884227 13941 recurrent_layer.cpp:150] Adding parameter 1: b_c
I0731 22:42:39.884230 13941 recurrent_layer.cpp:150] Adding parameter 2: W_hc
I0731 22:42:39.884346 13941 net.cpp:141] Setting up lstm1
I0731 22:42:39.884358 13941 net.cpp:148] Top shape: 1 1 1000 (1000)
I0731 22:42:39.884362 13941 net.cpp:156] Memory required for data: 26408
I0731 22:42:39.884377 13941 layer_factory.hpp:77] Creating layer concat
I0731 22:42:39.884387 13941 net.cpp:91] Creating Layer concat
I0731 22:42:39.884394 13941 net.cpp:425] concat <- lstm1
I0731 22:42:39.884402 13941 net.cpp:425] concat <- embedded_input_sentence
I0731 22:42:39.884407 13941 net.cpp:425] concat <- reshaped_stage_indicator
I0731 22:42:39.884413 13941 net.cpp:399] concat -> lstm1_video_sequence
I0731 22:42:39.884448 13941 net.cpp:141] Setting up concat
I0731 22:42:39.884455 13941 net.cpp:148] Top shape: 1 1 1501 (1501)
I0731 22:42:39.884459 13941 net.cpp:156] Memory required for data: 32412
I0731 22:42:39.884465 13941 layer_factory.hpp:77] Creating layer lstm2
I0731 22:42:39.884479 13941 net.cpp:91] Creating Layer lstm2
I0731 22:42:39.884484 13941 net.cpp:425] lstm2 <- lstm1_video_sequence
I0731 22:42:39.884490 13941 net.cpp:425] lstm2 <- cont_sentence_input_1_split_1
I0731 22:42:39.884497 13941 net.cpp:399] lstm2 -> lstm2
I0731 22:42:39.884508 13941 recurrent_layer.cpp:20] Initializing recurrent layer: assuming input batch contains 1 timesteps of 1 independent streams.
I0731 22:42:39.884765 13941 net.cpp:49] Initializing net from parameters: 
layer {
  name: "lstm2_"
  type: "Input"
  top: "x"
  top: "cont"
  input_param {
    shape {
      dim: 1
      dim: 1
      dim: 1501
    }
    shape {
      dim: 1
      dim: 1
    }
  }
}
layer {
  name: "lstm2_"
  type: "Input"
  top: "c_0"
  top: "h_0"
  input_param {
    shape {
      dim: 1
      dim: 1
      dim: 1000
    }
    shape {
      dim: 1
      dim: 1
      dim: 1000
    }
  }
}
layer {
  name: "lstm2_cont_slice"
  type: "Slice"
  bottom: "cont"
  top: "cont_1"
  slice_param {
    axis: 0
  }
}
layer {
  name: "lstm2_x_transform"
  type: "InnerProduct"
  bottom: "x"
  top: "W_xc_x"
  param {
    name: "W_xc"
  }
  param {
    name: "b_c"
  }
  propagate_down: true
  inner_product_param {
    num_output: 4000
    bias_term: true
    weight_filler {
      type: "uniform"
      min: -0.08
      max: 0.08
    }
    bias_filler {
      type: "constant"
      value: 0
    }
    axis: 2
  }
}
layer {
  name: "lstm2_W_xc_x_slice"
  type: "Slice"
  bottom: "W_xc_x"
  top: "W_xc_x_1"
  slice_param {
    axis: 0
  }
}
layer {
  name: "lstm2_h_conted_0"
  type: "Scale"
  bottom: "h_0"
  bottom: "cont_1"
  top: "h_conted_0"
  scale_param {
    axis: 0
  }
}
layer {
  name: "lstm2_transform_1"
  type: "InnerProduct"
  bottom: "h_conted_0"
  top: "W_hc_h_0"
  param {
    name: "W_hc"
  }
  inner_product_param {
    num_output: 4000
    bias_term: false
    weight_filler {
      type: "uniform"
      min: -0.08
      max: 0.08
    }
    axis: 2
  }
}
layer {
  name: "lstm2_gate_input_1"
  type: "Eltwise"
  bottom: "W_hc_h_0"
  bottom: "W_xc_x_1"
  top: "gate_input_1"
  eltwise_param {
    operation: SUM
  }
}
layer {
  name: "lstm2_unit_1"
  type: "LSTMUnit"
  bottom: "c_0"
  bottom: "gate_input_1"
  bottom: "cont_1"
  top: "c_1"
  top: "h_1"
}
layer {
  name: "lstm2_"
  type: "Split"
  bottom: "c_1"
  top: "c_T"
}
layer {
  name: "lstm2_h_concat"
  type: "Concat"
  bottom: "h_1"
  top: "h"
  concat_param {
    axis: 0
  }
}
layer {
  name: "h_pseudoloss"
  type: "Reduction"
  bottom: "h"
  top: "h_pseudoloss"
  loss_weight: 1
}
I0731 22:42:39.884865 13941 layer_factory.hpp:77] Creating layer lstm2_
I0731 22:42:39.884882 13941 net.cpp:91] Creating Layer lstm2_
I0731 22:42:39.884889 13941 net.cpp:399] lstm2_ -> x
I0731 22:42:39.884901 13941 net.cpp:399] lstm2_ -> cont
I0731 22:42:39.884954 13941 net.cpp:141] Setting up lstm2_
I0731 22:42:39.884964 13941 net.cpp:148] Top shape: 1 1 1501 (1501)
I0731 22:42:39.884970 13941 net.cpp:148] Top shape: 1 1 (1)
I0731 22:42:39.884974 13941 net.cpp:156] Memory required for data: 6008
I0731 22:42:39.884979 13941 layer_factory.hpp:77] Creating layer lstm2_
I0731 22:42:39.884994 13941 net.cpp:91] Creating Layer lstm2_
I0731 22:42:39.884999 13941 net.cpp:399] lstm2_ -> c_0
I0731 22:42:39.885010 13941 net.cpp:399] lstm2_ -> h_0
I0731 22:42:39.885062 13941 net.cpp:141] Setting up lstm2_
I0731 22:42:39.885071 13941 net.cpp:148] Top shape: 1 1 1000 (1000)
I0731 22:42:39.885076 13941 net.cpp:148] Top shape: 1 1 1000 (1000)
I0731 22:42:39.885080 13941 net.cpp:156] Memory required for data: 14008
I0731 22:42:39.885085 13941 layer_factory.hpp:77] Creating layer lstm2_cont_slice
I0731 22:42:39.885094 13941 net.cpp:91] Creating Layer lstm2_cont_slice
I0731 22:42:39.885098 13941 net.cpp:425] lstm2_cont_slice <- cont
I0731 22:42:39.885105 13941 net.cpp:399] lstm2_cont_slice -> cont_1
I0731 22:42:39.885140 13941 net.cpp:141] Setting up lstm2_cont_slice
I0731 22:42:39.885149 13941 net.cpp:148] Top shape: 1 1 (1)
I0731 22:42:39.885154 13941 net.cpp:156] Memory required for data: 14012
I0731 22:42:39.885159 13941 layer_factory.hpp:77] Creating layer cont_1_lstm2_cont_slice_0_split
I0731 22:42:39.885164 13941 net.cpp:91] Creating Layer cont_1_lstm2_cont_slice_0_split
I0731 22:42:39.885169 13941 net.cpp:425] cont_1_lstm2_cont_slice_0_split <- cont_1
I0731 22:42:39.885179 13941 net.cpp:399] cont_1_lstm2_cont_slice_0_split -> cont_1_lstm2_cont_slice_0_split_0
I0731 22:42:39.885186 13941 net.cpp:399] cont_1_lstm2_cont_slice_0_split -> cont_1_lstm2_cont_slice_0_split_1
I0731 22:42:39.885231 13941 net.cpp:141] Setting up cont_1_lstm2_cont_slice_0_split
I0731 22:42:39.885242 13941 net.cpp:148] Top shape: 1 1 (1)
I0731 22:42:39.885247 13941 net.cpp:148] Top shape: 1 1 (1)
I0731 22:42:39.885251 13941 net.cpp:156] Memory required for data: 14020
I0731 22:42:39.885257 13941 layer_factory.hpp:77] Creating layer lstm2_x_transform
I0731 22:42:39.885265 13941 net.cpp:91] Creating Layer lstm2_x_transform
I0731 22:42:39.885270 13941 net.cpp:425] lstm2_x_transform <- x
I0731 22:42:39.885280 13941 net.cpp:399] lstm2_x_transform -> W_xc_x
I0731 22:42:39.896939 13951 net.cpp:141] Setting up fc7
I0731 22:42:39.896984 13951 net.cpp:148] Top shape: 10 4096 (40960)
I0731 22:42:39.896991 13951 net.cpp:156] Memory required for data: 68273720
I0731 22:42:39.897006 13951 layer_factory.hpp:77] Creating layer relu7
I0731 22:42:39.897028 13951 net.cpp:91] Creating Layer relu7
I0731 22:42:39.897035 13951 net.cpp:425] relu7 <- fc7
I0731 22:42:39.897045 13951 net.cpp:386] relu7 -> fc7 (in-place)
I0731 22:42:39.897675 13951 net.cpp:141] Setting up relu7
I0731 22:42:39.897689 13951 net.cpp:148] Top shape: 10 4096 (40960)
I0731 22:42:39.897696 13951 net.cpp:156] Memory required for data: 68437560
I0731 22:42:39.897702 13951 layer_factory.hpp:77] Creating layer drop7
I0731 22:42:39.897713 13951 net.cpp:91] Creating Layer drop7
I0731 22:42:39.897718 13951 net.cpp:425] drop7 <- fc7
I0731 22:42:39.897725 13951 net.cpp:386] drop7 -> fc7 (in-place)
I0731 22:42:39.897769 13951 net.cpp:141] Setting up drop7
I0731 22:42:39.897778 13951 net.cpp:148] Top shape: 10 4096 (40960)
I0731 22:42:39.897783 13951 net.cpp:156] Memory required for data: 68601400
I0731 22:42:39.897788 13951 layer_factory.hpp:77] Creating layer fc8
I0731 22:42:39.897799 13951 net.cpp:91] Creating Layer fc8
I0731 22:42:39.897804 13951 net.cpp:425] fc8 <- fc7
I0731 22:42:39.897812 13951 net.cpp:399] fc8 -> fc8
I0731 22:42:39.909567 13951 net.cpp:141] Setting up fc8
I0731 22:42:39.909616 13951 net.cpp:148] Top shape: 10 1000 (10000)
I0731 22:42:39.909622 13951 net.cpp:156] Memory required for data: 68641400
I0731 22:42:39.909637 13951 layer_factory.hpp:77] Creating layer prob
I0731 22:42:39.909663 13951 net.cpp:91] Creating Layer prob
I0731 22:42:39.909672 13951 net.cpp:425] prob <- fc8
I0731 22:42:39.909682 13951 net.cpp:399] prob -> prob
I0731 22:42:39.910094 13951 net.cpp:141] Setting up prob
I0731 22:42:39.910106 13951 net.cpp:148] Top shape: 10 1000 (10000)
I0731 22:42:39.910111 13951 net.cpp:156] Memory required for data: 68681400
I0731 22:42:39.910116 13951 net.cpp:219] prob does not need backward computation.
I0731 22:42:39.910122 13951 net.cpp:219] fc8 does not need backward computation.
I0731 22:42:39.910126 13951 net.cpp:219] drop7 does not need backward computation.
I0731 22:42:39.910131 13951 net.cpp:219] relu7 does not need backward computation.
…
I0731 22:42:39.910207 13951 net.cpp:219] norm1 does not need backward computation.
I0731 22:42:39.910212 13951 net.cpp:219] pool1 does not need backward computation.
I0731 22:42:39.910217 13951 net.cpp:219] relu1 does not need backward computation.
I0731 22:42:39.910220 13951 net.cpp:219] conv1 does not need backward computation.
I0731 22:42:39.910225 13951 net.cpp:219] data does not need backward computation.
I0731 22:42:39.910229 13951 net.cpp:261] This network produces output prob
I0731 22:42:39.910249 13951 net.cpp:274] Network initialization done.
I0731 22:42:39.943049 13941 net.cpp:141] Setting up lstm2_x_transform
I0731 22:42:39.943100 13941 net.cpp:148] Top shape: 1 1 4000 (4000)
I0731 22:42:39.943106 13941 net.cpp:156] Memory required for data: 30020
I0731 22:42:39.943131 13941 layer_factory.hpp:77] Creating layer lstm2_W_xc_x_slice
I0731 22:42:39.943148 13941 net.cpp:91] Creating Layer lstm2_W_xc_x_slice
I0731 22:42:39.943156 13941 net.cpp:425] lstm2_W_xc_x_slice <- W_xc_x
I0731 22:42:39.943166 13941 net.cpp:399] lstm2_W_xc_x_slice -> W_xc_x_1
I0731 22:42:39.943215 13941 net.cpp:141] Setting up lstm2_W_xc_x_slice
I0731 22:42:39.943225 13941 net.cpp:148] Top shape: 1 1 4000 (4000)
I0731 22:42:39.943230 13941 net.cpp:156] Memory required for data: 46020
I0731 22:42:39.943234 13941 layer_factory.hpp:77] Creating layer lstm2_h_conted_0
I0731 22:42:39.943245 13941 net.cpp:91] Creating Layer lstm2_h_conted_0
I0731 22:42:39.943250 13941 net.cpp:425] lstm2_h_conted_0 <- h_0
I0731 22:42:39.943256 13941 net.cpp:425] lstm2_h_conted_0 <- cont_1_lstm2_cont_slice_0_split_0
I0731 22:42:39.943264 13941 net.cpp:399] lstm2_h_conted_0 -> h_conted_0
I0731 22:42:39.943356 13941 net.cpp:141] Setting up lstm2_h_conted_0
I0731 22:42:39.943364 13941 net.cpp:148] Top shape: 1 1 1000 (1000)
I0731 22:42:39.943368 13941 net.cpp:156] Memory required for data: 50020
I0731 22:42:39.943373 13941 layer_factory.hpp:77] Creating layer lstm2_transform_1
I0731 22:42:39.943387 13941 net.cpp:91] Creating Layer lstm2_transform_1
I0731 22:42:39.943392 13941 net.cpp:425] lstm2_transform_1 <- h_conted_0
I0731 22:42:39.943399 13941 net.cpp:399] lstm2_transform_1 -> W_hc_h_0
I0731 22:42:39.982144 13941 net.cpp:141] Setting up lstm2_transform_1
I0731 22:42:39.982195 13941 net.cpp:148] Top shape: 1 1 4000 (4000)
I0731 22:42:39.982200 13941 net.cpp:156] Memory required for data: 66020
I0731 22:42:39.982223 13941 layer_factory.hpp:77] Creating layer lstm2_gate_input_1
I0731 22:42:39.982247 13941 net.cpp:91] Creating Layer lstm2_gate_input_1
I0731 22:42:39.982254 13941 net.cpp:425] lstm2_gate_input_1 <- W_hc_h_0
I0731 22:42:39.982264 13941 net.cpp:425] lstm2_gate_input_1 <- W_xc_x_1
I0731 22:42:39.982271 13941 net.cpp:399] lstm2_gate_input_1 -> gate_input_1
I0731 22:42:39.982324 13941 net.cpp:141] Setting up lstm2_gate_input_1
I0731 22:42:39.982333 13941 net.cpp:148] Top shape: 1 1 4000 (4000)
I0731 22:42:39.982337 13941 net.cpp:156] Memory required for data: 82020
I0731 22:42:39.982342 13941 layer_factory.hpp:77] Creating layer lstm2_unit_1
I0731 22:42:39.982350 13941 net.cpp:91] Creating Layer lstm2_unit_1
I0731 22:42:39.982358 13941 net.cpp:425] lstm2_unit_1 <- c_0
I0731 22:42:39.982364 13941 net.cpp:425] lstm2_unit_1 <- gate_input_1
I0731 22:42:39.982369 13941 net.cpp:425] lstm2_unit_1 <- cont_1_lstm2_cont_slice_0_split_1
I0731 22:42:39.982377 13941 net.cpp:399] lstm2_unit_1 -> c_1
I0731 22:42:39.982385 13941 net.cpp:399] lstm2_unit_1 -> h_1
I0731 22:42:39.982465 13941 net.cpp:141] Setting up lstm2_unit_1
I0731 22:42:39.982476 13941 net.cpp:148] Top shape: 1 1 1000 (1000)
I0731 22:42:39.982482 13941 net.cpp:148] Top shape: 1 1 1000 (1000)
I0731 22:42:39.982486 13941 net.cpp:156] Memory required for data: 90020
I0731 22:42:39.982491 13941 layer_factory.hpp:77] Creating layer lstm2_
I0731 22:42:39.982502 13941 net.cpp:91] Creating Layer lstm2_
I0731 22:42:39.982507 13941 net.cpp:425] lstm2_ <- c_1
I0731 22:42:39.982514 13941 net.cpp:399] lstm2_ -> c_T
I0731 22:42:39.982545 13941 net.cpp:141] Setting up lstm2_
I0731 22:42:39.982553 13941 net.cpp:148] Top shape: 1 1 1000 (1000)
I0731 22:42:39.982558 13941 net.cpp:156] Memory required for data: 94020
I0731 22:42:39.982563 13941 layer_factory.hpp:77] Creating layer lstm2_h_concat
I0731 22:42:39.982573 13941 net.cpp:91] Creating Layer lstm2_h_concat
I0731 22:42:39.982578 13941 net.cpp:425] lstm2_h_concat <- h_1
I0731 22:42:39.982586 13941 net.cpp:399] lstm2_h_concat -> h
I0731 22:42:39.982625 13941 net.cpp:141] Setting up lstm2_h_concat
I0731 22:42:39.982633 13941 net.cpp:148] Top shape: 1 1 1000 (1000)
I0731 22:42:39.982637 13941 net.cpp:156] Memory required for data: 98020
I0731 22:42:39.982642 13941 layer_factory.hpp:77] Creating layer h_pseudoloss
I0731 22:42:39.982651 13941 net.cpp:91] Creating Layer h_pseudoloss
I0731 22:42:39.982656 13941 net.cpp:425] h_pseudoloss <- h
I0731 22:42:39.982662 13941 net.cpp:399] h_pseudoloss -> h_pseudoloss
I0731 22:42:39.982749 13941 net.cpp:141] Setting up h_pseudoloss
…
