…
Java HotSpot(TM) 64-Bit Server VM warning: You have loaded library /tmp/cvld3708500495384571740/libopencv_java310.xine1.so which might have disabled stack guard. The VM will try to fix the stack guard now.
It's highly recommended that you fix the library with 'execstack -c <libfile>', or link it with '-z noexecstack'.
WARNING: Logging before InitGoogleLogging() is written to STDERR
I0727 20:23:42.965502 30634 net.cpp:49] Initializing net from parameters: 
name: "GoogleNet"
state {
  phase: TEST
}
layer {
  name: "data"
  type: "Input"
  top: "data"
  input_param {
    shape {
      dim: 10
      dim: 3
      dim: 224
      dim: 224
    }
  }
}
layer {
  name: "conv1/7x7_s2"
  type: "Convolution"
  bottom: "data"
  top: "conv1/7x7_s2"
  param {
    lr_mult: 1
    decay_mult: 1
  }
  param {
    lr_mult: 2
    decay_mult: 0
  }
  convolution_param {
    num_output: 64
    pad: 3
    kernel_size: 7
    stride: 2
    weight_filler {
      type: "xavier"
      std: 0.1
    }
    bias_filler {
      type: "constant"
      value: 0.2
    }
  }
}
layer {
  name: "conv1/relu_7x7"
  type: "ReLU"
  bottom: "conv1/7x7_s2"
  top: "conv1/7x7_s2"
}
layer {
  name: "pool1/3x3_s2"
  type: "Pooling"
  bottom: "conv1/7x7_s2"
  top: "pool1/3x3_s2"
  pooling_param {
    pool: MAX
    kernel_size: 3
    stride: 2
  }
}
layer {
  name: "pool1/norm1"
  type: "LRN"
  bottom: "pool1/3x3_s2"
  top: "pool1/norm1"
  lrn_param {
    local_size: 5
    alpha: 0.0001
    beta: 0.75
  }
}
layer {
  name: "conv2/3x3_reduce"
  type: "Convolution"
  bottom: "pool1/norm1"
  top: "conv2/3x3_reduce"
  param {
    lr_mult: 1
    decay_mult: 1
  }
  param {
    lr_mult: 2
    decay_mult: 0
  }
  convolution_param {
    num_output: 64
    kernel_size: 1
    weight_filler {
      type: "xavier"
      std: 0.1
    }
    bias_filler {
      type: "constant"
      value: 0.2
    }
  }
}
layer {
  name: "conv2/relu_3x3_reduce"
  type: "ReLU"
  bottom: "conv2/3x3_reduce"
  top: "conv2/3x3_reduce"
}
layer {
  name: "conv2/3x3"
  type: "Convolution"
  bottom: "conv2/3x3_reduce"
  top: "conv2/3x3"
  param {
    lr_mult: 1
    decay_mult: 1
  }
  param {
    lr_mult: 2
    decay_mult: 0
  }
  convolution_param {
    num_output: 192
    pad: 1
    kernel_size: 3
    weight_filler {
      type: "xavier"
      std: 0.03
    }
    bias_filler {
      type: "constant"
      value: 0.2
    }
  }
}
layer {
  name: "conv2/relu_3x3"
  type: "ReLU"
  bottom: "conv2/3x3"
  top: "conv2/3x3"
}
layer {
  name: "conv2/norm2"
  type: "LRN"
  bottom: "conv2/3x3"
  top: "conv2/norm2"
  lrn_param {
    local_size: 5
    alpha: 0.0001
    beta: 0.75
  }
}
layer {
  name: "pool2/3x3_s2"
  type: "Pooling"
  bottom: "conv2/norm2"
  top: "pool2/3x3_s2"
  pooling_param {
    pool: MAX
    kernel_size: 3
    stride: 2
  }
}
layer {
  name: "inception_3a/1x1"
  type: "Convolution"
  bottom: "pool2/3x3_s2"
  top: "inception_3a/1x1"
  param {
    lr_mult: 1
    decay_mult: 1
  }
  param {
    lr_mult: 2
    decay_mult: 0
  }
  convolution_param {
    num_output: 64
    kernel_size: 1
    weight_filler {
      type: "xavier"
      std: 0.03
    }
    bias_filler {
      type: "constant"
      value: 0.2
    }
  }
}
layer {
  name: "inception_3a/relu_1x1"
  type: "ReLU"
  bottom: "inception_3a/1x1"
  top: "inception_3a/1x1"
}
layer {
  name: "inception_3a/3x3_reduce"
  type: "Convolution"
  bottom: "pool2/3x3_s2"
  top: "inception_3a/3x3_reduce"
  param {
    lr_mult: 1
    decay_mult: 1
  }
  param {
    lr_mult: 2
    decay_mult: 0
  }
  convolution_param {
    num_output: 96
    kernel_size: 1
    weight_filler {
      type: "xavier"
      std: 0.09
    }
    bias_filler {
      type: "constant"
      value: 0.2
    }
  }
}
layer {
  name: "inception_3a/relu_3x3_reduce"
  type: "ReLU"
  bottom: "inception_3a/3x3_reduce"
  top: "inception_3a/3x3_reduce"
}
layer {
  name: "inception_3a/3x3"
  type: "Convolution"
  bottom: "inception_3a/3x3_reduce"
  top: "inception_3a/3x3"
  param {
    lr_mult: 1
    decay_mult: 1
  }
  param {
    lr_mult: 2
    decay_mult: 0
  }
  convolution_param {
    num_output: 128
    pad: 1
    kernel_size: 3
    weight_filler {
      type: "xavier"
      std: 0.03
    }
    bias_filler {
      type: "constant"
      value: 0.2
    }
  }
}
layer {
  name: "inception_3a/relu_3x3"
  type: "ReLU"
  bottom: "inception_3a/3x3"
  top: "inception_3a/3x3"
}
layer {
  name: "inception_3a/5x5_reduce"
  type: "Convolution"
  bottom: "pool2/3x3_s2"
  top: "inception_3a/5x5_reduce"
  param {
    lr_mult: 1
    decay_mult: 1
  }
  param {
    lr_mult: 2
    decay_mult: 0
  }
  convolution_param {
    num_output: 16
    kernel_size: 1
    weight_filler {
      type: "xavier"
      std: 0.2
    }
    bias_filler {
      type: "constant"
      value: 0.2
    }
  }
}
layer {
  name: "inception_3a/relu_5x5_reduce"
  type: "ReLU"
  bottom: "inception_3a/5x5_reduce"
  top: "inception_3a/5x5_reduce"
}
layer {
  name: "inception_3a/5x5"
  type: "Convolution"
  bottom: "inception_3a/5x5_reduce"
  top: "inception_3a/5x5"
  param {
    lr_mult: 1
    decay_mult: 1
  }
  param {
    lr_mult: 2
    decay_mult: 0
  }
  convolution_param {
    num_output: 32
    pad: 2
    kernel_size: 5
    weight_filler {
      type: "xavier"
      std: 0.03
    }
    bias_filler {
      type: "constant"
      value: 0.2
    }
  }
}
layer {
  name: "inception_3a/relu_5x5"
  type: "ReLU"
  bottom: "inception_3a/5x5"
  top: "inception_3a/5x5"
}
layer {
  name: "inception_3a/pool"
  type: "Pooling"
  bottom: "pool2/3x3_s2"
  top: "inception_3a/pool"
  pooling_param {
    pool: MAX
    kernel_size: 3
    stride: 1
    pad: 1
  }
}
layer {
  name: "inception_3a/pool_proj"
  type: "Convolution"
  bottom: "inception_3a/pool"
  top: "inception_3a/pool_proj"
  param {
    lr_mult: 1
    decay_mult: 1
  }
  param {
    lr_mult: 2
    decay_mult: 0
  }
  convolution_param {
    num_output: 32
    kernel_size: 1
    weight_filler {
      type: "xavier"
      std: 0.1
    }
    bias_filler {
      type: "constant"
      value: 0.2
    }
  }
}
layer {
  name: "inception_3a/relu_pool_proj"
  type: "ReLU"
  bottom: "inception_3a/pool_proj"
  top: "inception_3a/pool_proj"
}
layer {
  name: "inception_3a/output"
  type: "Concat"
  bottom: "inception_3a/1x1"
  bottom: "inception_3a/3x3"
  bottom: "inception_3a/5x5"
  bottom: "inception_3a/pool_proj"
  top: "inception_3a/output"
}
layer {
  name: "inception_3b/1x1"
  type: "Convolution"
  bottom: "inception_3a/output"
  top: "inception_3b/1x1"
  param {
    lr_mult: 1
    decay_mult: 1
  }
  param {
    lr_mult: 2
    decay_mult: 0
  }
  convolution_param {
    num_output: 128
    kernel_size: 1
    weight_filler {
      type: "xavier"
      std: 0.03
    }
    bias_filler {
      type: "constant"
      value: 0.2
    }
  }
}
layer {
  name: "inception_3b/relu_1x1"
  type: "ReLU"
  bottom: "inception_3b/1x1"
  top: "inception_3b/1x1"
}
layer {
  name: "inception_3b/3x3_reduce"
  type: "Convolution"
  bottom: "inception_3a/output"
  top: "inception_3b/3x3_reduce"
  param {
    lr_mult: 1
    decay_mult: 1
  }
  param {
    lr_mult: 2
    decay_mult: 0
  }
  convolution_param {
    num_output: 128
    kernel_size: 1
    weight_filler {
      type: "xavier"
      std: 0.09
    }
    bias_filler {
      type: "constant"
      value: 0.2
    }
  }
}
layer {
  name: "inception_3b/relu_3x3_reduce"
  type: "ReLU"
  bottom: "inception_3b/3x3_reduce"
  top: "inception_3b/3x3_reduce"
}
layer {
  name: "inception_3b/3x3"
  type: "Convolution"
  bottom: "inception_3b/3x3_reduce"
  top: "inception_3b/3x3"
  param {
    lr_mult: 1
    decay_mult: 1
  }
  param {
    lr_mult: 2
    decay_mult: 0
  }
  convolution_param {
    num_output: 192
    pad: 1
    kernel_size: 3
    weight_filler {
      type: "xavier"
      std: 0.03
    }
    bias_filler {
      type: "constant"
      value: 0.2
    }
  }
}
layer {
  name: "inception_3b/relu_3x3"
  type: "ReLU"
  bottom: "inception_3b/3x3"
  top: "inception_3b/3x3"
}
layer {
  name: "inception_3b/5x5_reduce"
  type: "Convolution"
  bottom: "inception_3a/output"
  top: "inception_3b/5x5_reduce"
  param {
    lr_mult: 1
    decay_mult: 1
  }
  param {
    lr_mult: 2
    decay_mult: 0
  }
  convolution_param {
    num_output: 32
    kernel_size: 1
    weight_filler {
      type: "xavier"
      std: 0.2
    }
    bias_filler {
      type: "constant"
      value: 0.2
    }
  }
}
layer {
  name: "inception_3b/relu_5x5_reduce"
  type: "ReLU"
  bottom: "inception_3b/5x5_reduce"
  top: "inception_3b/5x5_reduce"
}
layer {
  name: "inception_3b/5x5"
  type: "Convolution"
  bottom: "inception_3b/5x5_reduce"
  top: "inception_3b/5x5"
  param {
    lr_mult: 1
    decay_mult: 1
  }
  param {
    lr_mult: 2
    decay_mult: 0
  }
  convolution_param {
    num_output: 96
    pad: 2
    kernel_size: 5
    weight_filler {
      type: "xavier"
      std: 0.03
    }
    bias_filler {
      type: "constant"
      value: 0.2
    }
  }
}
layer {
  name: "inception_3b/relu_5x5"
  type: "ReLU"
  bottom: "inception_3b/5x5"
  top: "inception_3b/5x5"
}
layer {
  name: "inception_3b/pool"
  type: "Pooling"
  bottom: "inception_3a/output"
  top: "inception_3b/pool"
  pooling_param {
    pool: MAX
    kernel_size: 3
    stride: 1
    pad: 1
  }
}
layer {
  name: "inception_3b/pool_proj"
  type: "Convolution"
  bottom: "inception_3b/pool"
  top: "inception_3b/pool_proj"
  param {
    lr_mult: 1
    decay_mult: 1
  }
  param {
    lr_mult: 2
    decay_mult: 0
  }
  convolution_param {
    num_output: 64
    kernel_size: 1
    weight_filler {
      type: "xavier"
      std: 0.1
    }
    bias_filler {
      type: "constant"
      value: 0.2
    }
  }
}
layer {
  name: "inception_3b/relu_pool_proj"
  type: "ReLU"
  bottom: "inception_3b/pool_proj"
  top: "inception_3b/pool_proj"
}
layer {
  name: "inception_3b/output"
  type: "Concat"
  bottom: "inception_3b/1x1"
  bottom: "inception_3b/3x3"
  bottom: "inception_3b/5x5"
  bottom: "inception_3b/pool_proj"
  top: "inception_3b/output"
}
layer {
  name: "pool3/3x3_s2"
  type: "Pooling"
  bottom: "inception_3b/output"
  top: "pool3/3x3_s2"
  pooling_param {
    pool: MAX
    kernel_size: 3
    stride: 2
  }
}
layer {
  name: "inception_4a/1x1"
  type: "Convolution"
  bottom: "pool3/3x3_s2"
  top: "inception_4a/1x1"
  param {
    lr_mult: 1
    decay_mult: 1
  }
  param {
    lr_mult: 2
    decay_mult: 0
  }
  convolution_param {
    num_output: 192
    kernel_size: 1
    weight_filler {
      type: "xavier"
      std: 0.03
    }
    bias_filler {
      type: "constant"
      value: 0.2
    }
  }
}
layer {
  name: "inception_4a/relu_1x1"
  type: "ReLU"
  bottom: "inception_4a/1x1"
  top: "inception_4a/1x1"
}
layer {
  name: "inception_4a/3x3_reduce"
  type: "Convolution"
  bottom: "pool3/3x3_s2"
  top: "inception_4a/3x3_reduce"
  param {
    lr_mult: 1
    decay_mult: 1
  }
  param {
    lr_mult: 2
    decay_mult: 0
  }
  convolution_param {
    num_output: 96
    kernel_size: 1
    weight_filler {
      type: "xavier"
      std: 0.09
    }
    bias_filler {
      type: "constant"
      value: 0.2
    }
  }
}
layer {
  name: "inception_4a/relu_3x3_reduce"
  type: "ReLU"
  bottom: "inception_4a/3x3_reduce"
  top: "inception_4a/3x3_reduce"
}
layer {
  name: "inception_4a/3x3"
  type: "Convolution"
  bottom: "inception_4a/3x3_reduce"
  top: "inception_4a/3x3"
  param {
    lr_mult: 1
    decay_mult: 1
  }
  param {
    lr_mult: 2
    decay_mult: 0
  }
  convolution_param {
    num_output: 208
    pad: 1
    kernel_size: 3
    weight_filler {
      type: "xavier"
      std: 0.03
    }
    bias_filler {
      type: "constant"
      value: 0.2
    }
  }
}
layer {
  name: "inception_4a/relu_3x3"
  type: "ReLU"
  bottom: "inception_4a/3x3"
  top: "inception_4a/3x3"
}
layer {
  name: "inception_4a/5x5_reduce"
  type: "Convolution"
  bottom: "pool3/3x3_s2"
  top: "inception_4a/5x5_reduce"
  param {
    lr_mult: 1
    decay_mult: 1
  }
  param {
    lr_mult: 2
    decay_mult: 0
  }
  convolution_param {
    num_output: 16
    kernel_size: 1
    weight_filler {
      type: "xavier"
      std: 0.2
    }
    bias_filler {
      type: "constant"
      value: 0.2
    }
  }
}
layer {
  name: "inception_4a/relu_5x5_reduce"
  type: "ReLU"
  bottom: "inception_4a/5x5_reduce"
  top: "inception_4a/5x5_reduce"
}
layer {
  name: "inception_4a/5x5"
  type: "Convolution"
  bottom: "inception_4a/5x5_reduce"
  top: "inception_4a/5x5"
  param {
    lr_mult: 1
    decay_mult: 1
  }
  param {
    lr_mult: 2
    decay_mult: 0
  }
  convolution_param {
    num_output: 48
    pad: 2
    kernel_size: 5
    weight_filler {
      type: "xavier"
      std: 0.03
    }
    bias_filler {
      type: "constant"
      value: 0.2
    }
  }
}
layer {
  name: "inception_4a/relu_5x5"
  type: "ReLU"
  bottom: "inception_4a/5x5"
  top: "inception_4a/5x5"
}
layer {
  name: "inception_4a/pool"
  type: "Pooling"
  bottom: "pool3/3x3_s2"
  top: "inception_4a/pool"
  pooling_param {
    pool: MAX
    kernel_size: 3
    stride: 1
    pad: 1
  }
}
layer {
  name: "inception_4a/pool_proj"
  type: "Convolution"
  bottom: "inception_4a/pool"
  top: "inception_4a/pool_proj"
  param {
    lr_mult: 1
    decay_mult: 1
  }
  param {
    lr_mult: 2
    decay_mult: 0
  }
  convolution_param {
    num_output: 64
    kernel_size: 1
    weight_filler {
      type: "xavier"
      std: 0.1
    }
    bias_filler {
      type: "constant"
      value: 0.2
    }
  }
}
layer {
  name: "inception_4a/relu_pool_proj"
  type: "ReLU"
  bottom: "inception_4a/pool_proj"
  top: "inception_4a/pool_proj"
}
layer {
  name: "inception_4a/output"
  type: "Concat"
  bottom: "inception_4a/1x1"
  bottom: "inception_4a/3x3"
  bottom: "inception_4a/5x5"
  bottom: "inception_4a/pool_proj"
  top: "inception_4a/output"
}
layer {
  name: "inception_4b/1x1"
  type: "Convolution"
  bottom: "inception_4a/output"
  top: "inception_4b/1x1"
  param {
    lr_mult: 1
    decay_mult: 1
  }
  param {
    lr_mult: 2
    decay_mult: 0
  }
  convolution_param {
    num_output: 160
    kernel_size: 1
    weight_filler {
      type: "xavier"
      std: 0.03
    }
    bias_filler {
      type: "constant"
      value: 0.2
    }
  }
}
layer {
  name: "inception_4b/relu_1x1"
  type: "ReLU"
  bottom: "inception_4b/1x1"
  top: "inception_4b/1x1"
}
layer {
  name: "inception_4b/3x3_reduce"
  type: "Convolution"
  bottom: "inception_4a/output"
  top: "inception_4b/3x3_reduce"
  param {
    lr_mult: 1
    decay_mult: 1
  }
  param {
    lr_mult: 2
    decay_mult: 0
  }
  convolution_param {
    num_output: 112
    kernel_size: 1
    weight_filler {
      type: "xavier"
      std: 0.09
    }
    bias_filler {
      type: "constant"
      value: 0.2
    }
  }
}
layer {
  name: "inception_4b/relu_3x3_reduce"
  type: "ReLU"
  bottom: "inception_4b/3x3_reduce"
  top: "inception_4b/3x3_reduce"
}
layer {
  name: "inception_4b/3x3"
  type: "Convolution"
  bottom: "inception_4b/3x3_reduce"
  top: "inception_4b/3x3"
  param {
    lr_mult: 1
    decay_mult: 1
  }
  param {
    lr_mult: 2
    decay_mult: 0
  }
  convolution_param {
    num_output: 224
    pad: 1
    kernel_size: 3
    weight_filler {
      type: "xavier"
      std: 0.03
    }
    bias_filler {
      type: "constant"
      value: 0.2
    }
  }
}
layer {
  name: "inception_4b/relu_3x3"
  type: "ReLU"
  bottom: "inception_4b/3x3"
  top: "inception_4b/3x3"
}
layer {
  name: "inception_4b/5x5_reduce"
  type: "Convolution"
  bottom: "inception_4a/output"
  top: "inception_4b/5x5_reduce"
  param {
    lr_mult: 1
    decay_mult: 1
  }
  param {
    lr_mult: 2
    decay_mult: 0
  }
  convolution_param {
    num_output: 24
    kernel_size: 1
    weight_filler {
      type: "xavier"
      std: 0.2
    }
    bias_filler {
      type: "constant"
      value: 0.2
    }
  }
}
layer {
  name: "inception_4b/relu_5x5_reduce"
  type: "ReLU"
  bottom: "inception_4b/5x5_reduce"
  top: "inception_4b/5x5_reduce"
}
layer {
  name: "inception_4b/5x5"
  type: "Convolution"
  bottom: "inception_4b/5x5_reduce"
  top: "inception_4b/5x5"
  param {
    lr_mult: 1
    decay_mult: 1
  }
  param {
    lr_mult: 2
    decay_mult: 0
  }
  convolution_param {
    num_output: 64
    pad: 2
    kernel_size: 5
    weight_filler {
      type: "xavier"
      std: 0.03
    }
    bias_filler {
      type: "constant"
      value: 0.2
    }
  }
}
layer {
  name: "inception_4b/relu_5x5"
  type: "ReLU"
  bottom: "inception_4b/5x5"
  top: "inception_4b/5x5"
}
layer {
  name: "inception_4b/pool"
  type: "Pooling"
  bottom: "inception_4a/output"
  top: "inception_4b/pool"
  pooling_param {
    pool: MAX
    kernel_size: 3
    stride: 1
    pad: 1
  }
}
layer {
  name: "inception_4b/pool_proj"
  type: "Convolution"
  bottom: "inception_4b/pool"
  top: "inception_4b/pool_proj"
  param {
    lr_mult: 1
    decay_mult: 1
  }
  param {
    lr_mult: 2
    decay_mult: 0
  }
  convolution_param {
    num_output: 64
    kernel_size: 1
    weight_filler {
      type: "xavier"
      std: 0.1
    }
    bias_filler {
      type: "constant"
      value: 0.2
    }
  }
}
layer {
  name: "inception_4b/relu_pool_proj"
  type: "ReLU"
  bottom: "inception_4b/pool_proj"
  top: "inception_4b/pool_proj"
}
layer {
  name: "inception_4b/output"
  type: "Concat"
  bottom: "inception_4b/1x1"
  bottom: "inception_4b/3x3"
  bottom: "inception_4b/5x5"
  bottom: "inception_4b/pool_proj"
  top: "inception_4b/output"
}
layer {
  name: "inception_4c/1x1"
  type: "Convolution"
  bottom: "inception_4b/output"
  top: "inception_4c/1x1"
  param {
    lr_mult: 1
    decay_mult: 1
  }
  param {
    lr_mult: 2
    decay_mult: 0
  }
  convolution_param {
    num_output: 128
    kernel_size: 1
    weight_filler {
      type: "xavier"
      std: 0.03
    }
    bias_filler {
      type: "constant"
      value: 0.2
    }
  }
}
layer {
  name: "inception_4c/relu_1x1"
  type: "ReLU"
  bottom: "inception_4c/1x1"
  top: "inception_4c/1x1"
}
layer {
  name: "inception_4c/3x3_reduce"
  type: "Convolution"
  bottom: "inception_4b/output"
  top: "inception_4c/3x3_reduce"
  param {
    lr_mult: 1
    decay_mult: 1
  }
  param {
    lr_mult: 2
    decay_mult: 0
  }
  convolution_param {
    num_output: 128
    kernel_size: 1
    weight_filler {
      type: "xavier"
      std: 0.09
    }
    bias_filler {
      type: "constant"
      value: 0.2
    }
  }
}
layer {
  name: "inception_4c/relu_3x3_reduce"
  type: "ReLU"
  bottom: "inception_4c/3x3_reduce"
  top: "inception_4c/3x3_reduce"
}
layer {
  name: "inception_4c/3x3"
  type: "Convolution"
  bottom: "inception_4c/3x3_reduce"
  top: "inception_4c/3x3"
  param {
    lr_mult: 1
    decay_mult: 1
  }
  param {
    lr_mult: 2
    decay_mult: 0
  }
  convolution_param {
    num_output: 256
    pad: 1
    kernel_size: 3
    weight_filler {
      type: "xavier"
      std: 0.03
    }
    bias_filler {
      type: "constant"
      value: 0.2
    }
  }
}
layer {
  name: "inception_4c/relu_3x3"
  type: "ReLU"
  bottom: "inception_4c/3x3"
  top: "inception_4c/3x3"
}
layer {
  name: "inception_4c/5x5_reduce"
  type: "Convolution"
  bottom: "inception_4b/output"
  top: "inception_4c/5x5_reduce"
  param {
    lr_mult: 1
    decay_mult: 1
  }
  param {
    lr_mult: 2
    decay_mult: 0
  }
  convolution_param {
    num_output: 24
    kernel_size: 1
    weight_filler {
      type: "xavier"
      std: 0.2
    }
    bias_filler {
      type: "constant"
      value: 0.2
    }
  }
}
layer {
  name: "inception_4c/relu_5x5_reduce"
  type: "ReLU"
  bottom: "inception_4c/5x5_reduce"
  top: "inception_4c/5x5_reduce"
}
layer {
  name: "inception_4c/5x5"
  type: "Convolution"
  bottom: "inception_4c/5x5_reduce"
  top: "inception_4c/5x5"
  param {
    lr_mult: 1
    decay_mult: 1
  }
  param {
    lr_mult: 2
    decay_mult: 0
  }
  convolution_param {
    num_output: 64
    pad: 2
    kernel_size: 5
    weight_filler {
      type: "xavier"
      std: 0.03
    }
    bias_filler {
      type: "constant"
      value: 0.2
    }
  }
}
layer {
  name: "inception_4c/relu_5x5"
  type: "ReLU"
  bottom: "inception_4c/5x5"
  top: "inception_4c/5x5"
}
layer {
  name: "inception_4c/pool"
  type: "Pooling"
  bottom: "inception_4b/output"
  top: "inception_4c/pool"
  pooling_param {
    pool: MAX
    kernel_size: 3
    stride: 1
    pad: 1
  }
}
layer {
  name: "inception_4c/pool_proj"
  type: "Convolution"
  bottom: "inception_4c/pool"
  top: "inception_4c/pool_proj"
  param {
    lr_mult: 1
    decay_mult: 1
  }
  param {
    lr_mult: 2
    decay_mult: 0
  }
  convolution_param {
    num_output: 64
    kernel_size: 1
    weight_filler {
      type: "xavier"
      std: 0.1
    }
    bias_filler {
      type: "constant"
      value: 0.2
    }
  }
}
layer {
  name: "inception_4c/relu_pool_proj"
  type: "ReLU"
  bottom: "inception_4c/pool_proj"
  top: "inception_4c/pool_proj"
}
layer {
  name: "inception_4c/output"
  type: "Concat"
  bottom: "inception_4c/1x1"
  bottom: "inception_4c/3x3"
  bottom: "inception_4c/5x5"
  bottom: "inception_4c/pool_proj"
  top: "inception_4c/output"
}
layer {
  name: "inception_4d/1x1"
  type: "Convolution"
  bottom: "inception_4c/output"
  top: "inception_4d/1x1"
  param {
    lr_mult: 1
    decay_mult: 1
  }
  param {
    lr_mult: 2
    decay_mult: 0
  }
  convolution_param {
    num_output: 112
    kernel_size: 1
    weight_filler {
      type: "xavier"
      std: 0.03
    }
    bias_filler {
      type: "constant"
      value: 0.2
    }
  }
}
layer {
  name: "inception_4d/relu_1x1"
  type: "ReLU"
  bottom: "inception_4d/1x1"
  top: "inception_4d/1x1"
}
layer {
  name: "inception_4d/3x3_reduce"
  type: "Convolution"
  bottom: "inception_4c/output"
  top: "inception_4d/3x3_reduce"
  param {
    lr_mult: 1
    decay_mult: 1
  }
  param {
    lr_mult: 2
    decay_mult: 0
  }
  convolution_param {
    num_output: 144
    kernel_size: 1
    weight_filler {
      type: "xavier"
      std: 0.09
    }
    bias_filler {
      type: "constant"
      value: 0.2
    }
  }
}
layer {
  name: "inception_4d/relu_3x3_reduce"
  type: "ReLU"
  bottom: "inception_4d/3x3_reduce"
  top: "inception_4d/3x3_reduce"
}
layer {
  name: "inception_4d/3x3"
  type: "Convolution"
  bottom: "inception_4d/3x3_reduce"
  top: "inception_4d/3x3"
  param {
    lr_mult: 1
    decay_mult: 1
  }
  param {
    lr_mult: 2
    decay_mult: 0
  }
  convolution_param {
    num_output: 288
    pad: 1
    kernel_size: 3
    weight_filler {
      type: "xavier"
      std: 0.03
    }
    bias_filler {
      type: "constant"
      value: 0.2
    }
  }
}
layer {
  name: "inception_4d/relu_3x3"
  type: "ReLU"
  bottom: "inception_4d/3x3"
  top: "inception_4d/3x3"
}
layer {
  name: "inception_4d/5x5_reduce"
  type: "Convolution"
  bottom: "inception_4c/output"
  top: "inception_4d/5x5_reduce"
  param {
    lr_mult: 1
    decay_mult: 1
  }
  param {
    lr_mult: 2
    decay_mult: 0
  }
  convolution_param {
    num_output: 32
    kernel_size: 1
    weight_filler {
      type: "xavier"
      std: 0.2
    }
    bias_filler {
      type: "constant"
      value: 0.2
    }
  }
}
layer {
  name: "inception_4d/relu_5x5_reduce"
  type: "ReLU"
  bottom: "inception_4d/5x5_reduce"
  top: "inception_4d/5x5_reduce"
}
layer {
  name: "inception_4d/5x5"
  type: "Convolution"
  bottom: "inception_4d/5x5_reduce"
  top: "inception_4d/5x5"
  param {
    lr_mult: 1
    decay_mult: 1
  }
  param {
    lr_mult: 2
    decay_mult: 0
  }
  convolution_param {
    num_output: 64
    pad: 2
    kernel_size: 5
    weight_filler {
      type: "xavier"
      std: 0.03
    }
    bias_filler {
      type: "constant"
      value: 0.2
    }
  }
}
layer {
  name: "inception_4d/relu_5x5"
  type: "ReLU"
  bottom: "inception_4d/5x5"
  top: "inception_4d/5x5"
}
layer {
  name: "inception_4d/pool"
  type: "Pooling"
  bottom: "inception_4c/output"
  top: "inception_4d/pool"
  pooling_param {
    pool: MAX
    kernel_size: 3
    stride: 1
    pad: 1
  }
}
layer {
  name: "inception_4d/pool_proj"
  type: "Convolution"
  bottom: "inception_4d/pool"
  top: "inception_4d/pool_proj"
  param {
    lr_mult: 1
    decay_mult: 1
  }
  param {
    lr_mult: 2
    decay_mult: 0
  }
  convolution_param {
    num_output: 64
    kernel_size: 1
    weight_filler {
      type: "xavier"
      std: 0.1
    }
    bias_filler {
      type: "constant"
      value: 0.2
    }
  }
}
layer {
  name: "inception_4d/relu_pool_proj"
  type: "ReLU"
  bottom: "inception_4d/pool_proj"
  top: "inception_4d/pool_proj"
}
layer {
  name: "inception_4d/output"
  type: "Concat"
  bottom: "inception_4d/1x1"
  bottom: "inception_4d/3x3"
  bottom: "inception_4d/5x5"
  bottom: "inception_4d/pool_proj"
  top: "inception_4d/output"
}
layer {
  name: "inception_4e/1x1"
  type: "Convolution"
  bottom: "inception_4d/output"
  top: "inception_4e/1x1"
  param {
    lr_mult: 1
    decay_mult: 1
  }
  param {
    lr_mult: 2
    decay_mult: 0
  }
  convolution_param {
    num_output: 256
    kernel_size: 1
    weight_filler {
      type: "xavier"
      std: 0.03
    }
    bias_filler {
      type: "constant"
      value: 0.2
    }
  }
}
layer {
  name: "inception_4e/relu_1x1"
  type: "ReLU"
  bottom: "inception_4e/1x1"
  top: "inception_4e/1x1"
}
layer {
  name: "inception_4e/3x3_reduce"
  type: "Convolution"
  bottom: "inception_4d/output"
  top: "inception_4e/3x3_reduce"
  param {
    lr_mult: 1
    decay_mult: 1
  }
  param {
    lr_mult: 2
    decay_mult: 0
  }
  convolution_param {
    num_output: 160
    kernel_size: 1
    weight_filler {
      type: "xavier"
      std: 0.09
    }
    bias_filler {
      type: "constant"
      value: 0.2
    }
  }
}
layer {
  name: "inception_4e/relu_3x3_reduce"
  type: "ReLU"
  bottom: "inception_4e/3x3_reduce"
  top: "inception_4e/3x3_reduce"
}
layer {
  name: "inception_4e/3x3"
  type: "Convolution"
  bottom: "inception_4e/3x3_reduce"
  top: "inception_4e/3x3"
  param {
    lr_mult: 1
    decay_mult: 1
  }
  param {
    lr_mult: 2
    decay_mult: 0
  }
  convolution_param {
    num_output: 320
    pad: 1
    kernel_size: 3
    weight_filler {
      type: "xavier"
      std: 0.03
    }
    bias_filler {
      type: "constant"
      value: 0.2
    }
  }
}
layer {
  name: "inception_4e/relu_3x3"
  type: "ReLU"
  bottom: "inception_4e/3x3"
  top: "inception_4e/3x3"
}
layer {
  name: "inception_4e/5x5_reduce"
  type: "Convolution"
  bottom: "inception_4d/output"
  top: "inception_4e/5x5_reduce"
  param {
    lr_mult: 1
    decay_mult: 1
  }
  param {
    lr_mult: 2
    decay_mult: 0
  }
  convolution_param {
    num_output: 32
    kernel_size: 1
    weight_filler {
      type: "xavier"
      std: 0.2
    }
    bias_filler {
      type: "constant"
      value: 0.2
    }
  }
}
layer {
  name: "inception_4e/relu_5x5_reduce"
  type: "ReLU"
  bottom: "inception_4e/5x5_reduce"
  top: "inception_4e/5x5_reduce"
}
layer {
  name: "inception_4e/5x5"
  type: "Convolution"
  bottom: "inception_4e/5x5_reduce"
  top: "inception_4e/5x5"
  param {
    lr_mult: 1
    decay_mult: 1
  }
  param {
    lr_mult: 2
    decay_mult: 0
  }
  convolution_param {
    num_output: 128
    pad: 2
    kernel_size: 5
    weight_filler {
      type: "xavier"
      std: 0.03
    }
    bias_filler {
      type: "constant"
      value: 0.2
    }
  }
}
layer {
  name: "inception_4e/relu_5x5"
  type: "ReLU"
  bottom: "inception_4e/5x5"
  top: "inception_4e/5x5"
}
layer {
  name: "inception_4e/pool"
  type: "Pooling"
  bottom: "inception_4d/output"
  top: "inception_4e/pool"
  pooling_param {
    pool: MAX
    kernel_size: 3
    stride: 1
    pad: 1
  }
}
layer {
  name: "inception_4e/pool_proj"
  type: "Convolution"
  bottom: "inception_4e/pool"
  top: "inception_4e/pool_proj"
  param {
    lr_mult: 1
    decay_mult: 1
  }
  param {
    lr_mult: 2
    decay_mult: 0
  }
  convolution_param {
    num_output: 128
    kernel_size: 1
    weight_filler {
      type: "xavier"
      std: 0.1
    }
    bias_filler {
      type: "constant"
      value: 0.2
    }
  }
}
layer {
  name: "inception_4e/relu_pool_proj"
  type: "ReLU"
  bottom: "inception_4e/pool_proj"
  top: "inception_4e/pool_proj"
}
layer {
  name: "inception_4e/output"
  type: "Concat"
  bottom: "inception_4e/1x1"
  bottom: "inception_4e/3x3"
  bottom: "inception_4e/5x5"
  bottom: "inception_4e/pool_proj"
  top: "inception_4e/output"
}
layer {
  name: "pool4/3x3_s2"
  type: "Pooling"
  bottom: "inception_4e/output"
  top: "pool4/3x3_s2"
  pooling_param {
    pool: MAX
    kernel_size: 3
    stride: 2
  }
}
layer {
  name: "inception_5a/1x1"
  type: "Convolution"
  bottom: "pool4/3x3_s2"
  top: "inception_5a/1x1"
  param {
    lr_mult: 1
    decay_mult: 1
  }
  param {
    lr_mult: 2
    decay_mult: 0
  }
  convolution_param {
    num_output: 256
    kernel_size: 1
    weight_filler {
      type: "xavier"
      std: 0.03
    }
    bias_filler {
      type: "constant"
      value: 0.2
    }
  }
}
layer {
  name: "inception_5a/relu_1x1"
  type: "ReLU"
  bottom: "inception_5a/1x1"
  top: "inception_5a/1x1"
}
layer {
  name: "inception_5a/3x3_reduce"
  type: "Convolution"
  bottom: "pool4/3x3_s2"
  top: "inception_5a/3x3_reduce"
  param {
    lr_mult: 1
    decay_mult: 1
  }
  param {
    lr_mult: 2
    decay_mult: 0
  }
  convolution_param {
    num_output: 160
    kernel_size: 1
    weight_filler {
      type: "xavier"
      std: 0.09
    }
    bias_filler {
      type: "constant"
      value: 0.2
    }
  }
}
layer {
  name: "inception_5a/relu_3x3_reduce"
  type: "ReLU"
  bottom: "inception_5a/3x3_reduce"
  top: "inception_5a/3x3_reduce"
}
layer {
  name: "inception_5a/3x3"
  type: "Convolution"
  bottom: "inception_5a/3x3_reduce"
  top: "inception_5a/3x3"
  param {
    lr_mult: 1
    decay_mult: 1
  }
  param {
    lr_mult: 2
    decay_mult: 0
  }
  convolution_param {
    num_output: 320
    pad: 1
    kernel_size: 3
    weight_filler {
      type: "xavier"
      std: 0.03
    }
    bias_filler {
      type: "constant"
      value: 0.2
    }
  }
}
layer {
  name: "inception_5a/relu_3x3"
  type: "ReLU"
  bottom: "inception_5a/3x3"
  top: "inception_5a/3x3"
}
layer {
  name: "inception_5a/5x5_reduce"
  type: "Convolution"
  bottom: "pool4/3x3_s2"
  top: "inception_5a/5x5_reduce"
  param {
    lr_mult: 1
    decay_mult: 1
  }
  param {
    lr_mult: 2
    decay_mult: 0
  }
  convolution_param {
    num_output: 32
    kernel_size: 1
    weight_filler {
      type: "xavier"
      std: 0.2
    }
    bias_filler {
      type: "constant"
      value: 0.2
    }
I0727 20:23:42.966951 30634 layer_factory.hpp:77] Creating layer data
I0727 20:23:42.966994 30634 net.cpp:91] Creating Layer data
I0727 20:23:42.967015 30634 net.cpp:399] data -> data
I0727 20:23:42.972116 30638 net.cpp:49] Initializing net from parameters: 
name: "GoogleNet"
state {
  phase: TEST
}
layer {
  name: "data"
  type: "Input"
  top: "data"
  input_param {
    shape {
      dim: 10
      dim: 3
      dim: 224
      dim: 224
    }
  }
}
layer {
  name: "conv1/7x7_s2"
  type: "Convolution"
  bottom: "data"
  top: "conv1/7x7_s2"
  param {
    lr_mult: 1
    decay_mult: 1
  }
  param {
    lr_mult: 2
    decay_mult: 0
  }
  convolution_param {
    num_output: 64
    pad: 3
    kernel_size: 7
    stride: 2
    weight_filler {
      type: "xavier"
      std: 0.1
    }
    bias_filler {
      type: "constant"
      value: 0.2
    }
  }
}
layer {
  name: "conv1/relu_7x7"
  type: "ReLU"
  bottom: "conv1/7x7_s2"
  top: "conv1/7x7_s2"
}
layer {
  name: "pool1/3x3_s2"
  type: "Pooling"
  bottom: "conv1/7x7_s2"
  top: "pool1/3x3_s2"
  pooling_param {
    pool: MAX
    kernel_size: 3
    stride: 2
  }
}
layer {
  name: "pool1/norm1"
  type: "LRN"
  bottom: "pool1/3x3_s2"
  top: "pool1/norm1"
  lrn_param {
    local_size: 5
    alpha: 0.0001
    beta: 0.75
  }
}
layer {
  name: "conv2/3x3_reduce"
  type: "Convolution"
  bottom: "pool1/norm1"
  top: "conv2/3x3_reduce"
  param {
    lr_mult: 1
    decay_mult: 1
  }
  param {
    lr_mult: 2
    decay_mult: 0
  }
  convolution_param {
    num_output: 64
    kernel_size: 1
    weight_filler {
      type: "xavier"
      std: 0.1
    }
    bias_filler {
      type: "constant"
      value: 0.2
    }
  }
}
layer {
  name: "conv2/relu_3x3_reduce"
  type: "ReLU"
  bottom: "conv2/3x3_reduce"
  top: "conv2/3x3_reduce"
}
layer {
  name: "conv2/3x3"
  type: "Convolution"
  bottom: "conv2/3x3_reduce"
  top: "conv2/3x3"
  param {
    lr_mult: 1
    decay_mult: 1
  }
  param {
    lr_mult: 2
    decay_mult: 0
  }
  convolution_param {
    num_output: 192
    pad: 1
    kernel_size: 3
    weight_filler {
      type: "xavier"
      std: 0.03
    }
    bias_filler {
      type: "constant"
      value: 0.2
    }
  }
}
layer {
  name: "conv2/relu_3x3"
  type: "ReLU"
  bottom: "conv2/3x3"
  top: "conv2/3x3"
}
layer {
  name: "conv2/norm2"
  type: "LRN"
  bottom: "conv2/3x3"
  top: "conv2/norm2"
  lrn_param {
    local_size: 5
    alpha: 0.0001
    beta: 0.75
  }
}
layer {
  name: "pool2/3x3_s2"
  type: "Pooling"
  bottom: "conv2/norm2"
  top: "pool2/3x3_s2"
  pooling_param {
    pool: MAX
    kernel_size: 3
    stride: 2
  }
}
layer {
  name: "inception_3a/1x1"
  type: "Convolution"
  bottom: "pool2/3x3_s2"
  top: "inception_3a/1x1"
  param {
    lr_mult: 1
    decay_mult: 1
  }
  param {
    lr_mult: 2
    decay_mult: 0
  }
  convolution_param {
    num_output: 64
    kernel_size: 1
    weight_filler {
      type: "xavier"
      std: 0.03
    }
    bias_filler {
      type: "constant"
      value: 0.2
    }
  }
}
layer {
  name: "inception_3a/relu_1x1"
  type: "ReLU"
  bottom: "inception_3a/1x1"
  top: "inception_3a/1x1"
}
layer {
  name: "inception_3a/3x3_reduce"
  type: "Convolution"
  bottom: "pool2/3x3_s2"
  top: "inception_3a/3x3_reduce"
  param {
    lr_mult: 1
    decay_mult: 1
  }
  param {
    lr_mult: 2
    decay_mult: 0
  }
  convolution_param {
    num_output: 96
    kernel_size: 1
    weight_filler {
      type: "xavier"
      std: 0.09
    }
    bias_filler {
      type: "constant"
      value: 0.2
    }
  }
}
layer {
  name: "inception_3a/relu_3x3_reduce"
  type: "ReLU"
  bottom: "inception_3a/3x3_reduce"
  top: "inception_3a/3x3_reduce"
}
layer {
  name: "inception_3a/3x3"
  type: "Convolution"
  bottom: "inception_3a/3x3_reduce"
  top: "inception_3a/3x3"
  param {
    lr_mult: 1
    decay_mult: 1
  }
  param {
    lr_mult: 2
    decay_mult: 0
  }
  convolution_param {
    num_output: 128
    pad: 1
    kernel_size: 3
    weight_filler {
      type: "xavier"
      std: 0.03
    }
    bias_filler {
      type: "constant"
      value: 0.2
    }
  }
}
layer {
  name: "inception_3a/relu_3x3"
  type: "ReLU"
  bottom: "inception_3a/3x3"
  top: "inception_3a/3x3"
}
layer {
  name: "inception_3a/5x5_reduce"
  type: "Convolution"
  bottom: "pool2/3x3_s2"
  top: "inception_3a/5x5_reduce"
  param {
    lr_mult: 1
    decay_mult: 1
  }
  param {
    lr_mult: 2
    decay_mult: 0
  }
  convolution_param {
    num_output: 16
    kernel_size: 1
    weight_filler {
      type: "xavier"
      std: 0.2
    }
    bias_filler {
      type: "constant"
      value: 0.2
    }
  }
}
layer {
  name: "inception_3a/relu_5x5_reduce"
  type: "ReLU"
  bottom: "inception_3a/5x5_reduce"
  top: "inception_3a/5x5_reduce"
}
layer {
  name: "inception_3a/5x5"
  type: "Convolution"
  bottom: "inception_3a/5x5_reduce"
  top: "inception_3a/5x5"
  param {
    lr_mult: 1
    decay_mult: 1
  }
  param {
    lr_mult: 2
    decay_mult: 0
  }
  convolution_param {
    num_output: 32
    pad: 2
    kernel_size: 5
    weight_filler {
      type: "xavier"
      std: 0.03
    }
    bias_filler {
      type: "constant"
      value: 0.2
    }
  }
}
layer {
  name: "inception_3a/relu_5x5"
  type: "ReLU"
  bottom: "inception_3a/5x5"
  top: "inception_3a/5x5"
}
layer {
  name: "inception_3a/pool"
  type: "Pooling"
  bottom: "pool2/3x3_s2"
  top: "inception_3a/pool"
  pooling_param {
    pool: MAX
    kernel_size: 3
    stride: 1
    pad: 1
  }
}
layer {
  name: "inception_3a/pool_proj"
  type: "Convolution"
  bottom: "inception_3a/pool"
  top: "inception_3a/pool_proj"
  param {
    lr_mult: 1
    decay_mult: 1
  }
  param {
    lr_mult: 2
    decay_mult: 0
  }
  convolution_param {
    num_output: 32
    kernel_size: 1
    weight_filler {
      type: "xavier"
      std: 0.1
    }
    bias_filler {
      type: "constant"
      value: 0.2
    }
  }
}
layer {
  name: "inception_3a/relu_pool_proj"
  type: "ReLU"
  bottom: "inception_3a/pool_proj"
  top: "inception_3a/pool_proj"
}
layer {
  name: "inception_3a/output"
  type: "Concat"
  bottom: "inception_3a/1x1"
  bottom: "inception_3a/3x3"
  bottom: "inception_3a/5x5"
  bottom: "inception_3a/pool_proj"
  top: "inception_3a/output"
}
layer {
  name: "inception_3b/1x1"
  type: "Convolution"
  bottom: "inception_3a/output"
  top: "inception_3b/1x1"
  param {
    lr_mult: 1
    decay_mult: 1
  }
  param {
    lr_mult: 2
    decay_mult: 0
  }
  convolution_param {
    num_output: 128
    kernel_size: 1
    weight_filler {
      type: "xavier"
      std: 0.03
    }
    bias_filler {
      type: "constant"
      value: 0.2
    }
  }
}
layer {
  name: "inception_3b/relu_1x1"
  type: "ReLU"
  bottom: "inception_3b/1x1"
  top: "inception_3b/1x1"
}
layer {
  name: "inception_3b/3x3_reduce"
  type: "Convolution"
  bottom: "inception_3a/output"
  top: "inception_3b/3x3_reduce"
  param {
    lr_mult: 1
    decay_mult: 1
  }
  param {
    lr_mult: 2
    decay_mult: 0
  }
  convolution_param {
    num_output: 128
    kernel_size: 1
    weight_filler {
      type: "xavier"
      std: 0.09
    }
    bias_filler {
      type: "constant"
      value: 0.2
    }
  }
}
layer {
  name: "inception_3b/relu_3x3_reduce"
  type: "ReLU"
  bottom: "inception_3b/3x3_reduce"
  top: "inception_3b/3x3_reduce"
}
layer {
  name: "inception_3b/3x3"
  type: "Convolution"
  bottom: "inception_3b/3x3_reduce"
  top: "inception_3b/3x3"
  param {
    lr_mult: 1
    decay_mult: 1
  }
  param {
    lr_mult: 2
    decay_mult: 0
  }
  convolution_param {
    num_output: 192
    pad: 1
    kernel_size: 3
    weight_filler {
      type: "xavier"
      std: 0.03
    }
    bias_filler {
      type: "constant"
      value: 0.2
    }
  }
}
layer {
  name: "inception_3b/relu_3x3"
  type: "ReLU"
  bottom: "inception_3b/3x3"
  top: "inception_3b/3x3"
}
layer {
  name: "inception_3b/5x5_reduce"
  type: "Convolution"
  bottom: "inception_3a/output"
  top: "inception_3b/5x5_reduce"
  param {
    lr_mult: 1
    decay_mult: 1
  }
  param {
    lr_mult: 2
    decay_mult: 0
  }
  convolution_param {
    num_output: 32
    kernel_size: 1
    weight_filler {
      type: "xavier"
      std: 0.2
    }
    bias_filler {
      type: "constant"
      value: 0.2
    }
  }
}
layer {
  name: "inception_3b/relu_5x5_reduce"
  type: "ReLU"
  bottom: "inception_3b/5x5_reduce"
  top: "inception_3b/5x5_reduce"
}
layer {
  name: "inception_3b/5x5"
  type: "Convolution"
  bottom: "inception_3b/5x5_reduce"
  top: "inception_3b/5x5"
  param {
    lr_mult: 1
    decay_mult: 1
  }
  param {
    lr_mult: 2
    decay_mult: 0
  }
  convolution_param {
    num_output: 96
    pad: 2
    kernel_size: 5
    weight_filler {
      type: "xavier"
      std: 0.03
    }
    bias_filler {
      type: "constant"
      value: 0.2
    }
  }
}
layer {
  name: "inception_3b/relu_5x5"
  type: "ReLU"
  bottom: "inception_3b/5x5"
  top: "inception_3b/5x5"
}
layer {
  name: "inception_3b/pool"
  type: "Pooling"
  bottom: "inception_3a/output"
  top: "inception_3b/pool"
  pooling_param {
    pool: MAX
    kernel_size: 3
    stride: 1
    pad: 1
  }
}
layer {
  name: "inception_3b/pool_proj"
  type: "Convolution"
  bottom: "inception_3b/pool"
  top: "inception_3b/pool_proj"
  param {
    lr_mult: 1
    decay_mult: 1
  }
  param {
    lr_mult: 2
    decay_mult: 0
  }
  convolution_param {
    num_output: 64
    kernel_size: 1
    weight_filler {
      type: "xavier"
      std: 0.1
    }
    bias_filler {
      type: "constant"
      value: 0.2
    }
  }
}
layer {
  name: "inception_3b/relu_pool_proj"
  type: "ReLU"
  bottom: "inception_3b/pool_proj"
  top: "inception_3b/pool_proj"
}
layer {
  name: "inception_3b/output"
  type: "Concat"
  bottom: "inception_3b/1x1"
  bottom: "inception_3b/3x3"
  bottom: "inception_3b/5x5"
  bottom: "inception_3b/pool_proj"
  top: "inception_3b/output"
}
layer {
  name: "pool3/3x3_s2"
  type: "Pooling"
  bottom: "inception_3b/output"
  top: "pool3/3x3_s2"
  pooling_param {
    pool: MAX
    kernel_size: 3
    stride: 2
  }
}
layer {
  name: "inception_4a/1x1"
  type: "Convolution"
  bottom: "pool3/3x3_s2"
  top: "inception_4a/1x1"
  param {
    lr_mult: 1
    decay_mult: 1
  }
  param {
    lr_mult: 2
    decay_mult: 0
  }
  convolution_param {
    num_output: 192
    kernel_size: 1
    weight_filler {
      type: "xavier"
      std: 0.03
    }
    bias_filler {
      type: "constant"
      value: 0.2
    }
  }
}
layer {
  name: "inception_4a/relu_1x1"
  type: "ReLU"
  bottom: "inception_4a/1x1"
  top: "inception_4a/1x1"
}
layer {
  name: "inception_4a/3x3_reduce"
  type: "Convolution"
  bottom: "pool3/3x3_s2"
  top: "inception_4a/3x3_reduce"
  param {
    lr_mult: 1
    decay_mult: 1
  }
  param {
    lr_mult: 2
    decay_mult: 0
  }
  convolution_param {
    num_output: 96
    kernel_size: 1
    weight_filler {
      type: "xavier"
      std: 0.09
    }
    bias_filler {
      type: "constant"
      value: 0.2
    }
  }
}
layer {
  name: "inception_4a/relu_3x3_reduce"
  type: "ReLU"
  bottom: "inception_4a/3x3_reduce"
  top: "inception_4a/3x3_reduce"
}
layer {
  name: "inception_4a/3x3"
  type: "Convolution"
  bottom: "inception_4a/3x3_reduce"
  top: "inception_4a/3x3"
  param {
    lr_mult: 1
    decay_mult: 1
  }
  param {
    lr_mult: 2
    decay_mult: 0
  }
  convolution_param {
    num_output: 208
    pad: 1
    kernel_size: 3
    weight_filler {
      type: "xavier"
      std: 0.03
    }
    bias_filler {
      type: "constant"
      value: 0.2
    }
  }
}
layer {
  name: "inception_4a/relu_3x3"
  type: "ReLU"
  bottom: "inception_4a/3x3"
  top: "inception_4a/3x3"
}
layer {
  name: "inception_4a/5x5_reduce"
  type: "Convolution"
  bottom: "pool3/3x3_s2"
  top: "inception_4a/5x5_reduce"
  param {
    lr_mult: 1
    decay_mult: 1
  }
  param {
    lr_mult: 2
    decay_mult: 0
  }
  convolution_param {
    num_output: 16
    kernel_size: 1
    weight_filler {
      type: "xavier"
      std: 0.2
    }
    bias_filler {
      type: "constant"
      value: 0.2
    }
  }
}
layer {
  name: "inception_4a/relu_5x5_reduce"
  type: "ReLU"
  bottom: "inception_4a/5x5_reduce"
  top: "inception_4a/5x5_reduce"
}
layer {
  name: "inception_4a/5x5"
  type: "Convolution"
  bottom: "inception_4a/5x5_reduce"
  top: "inception_4a/5x5"
  param {
    lr_mult: 1
    decay_mult: 1
  }
  param {
    lr_mult: 2
    decay_mult: 0
  }
  convolution_param {
    num_output: 48
    pad: 2
    kernel_size: 5
    weight_filler {
      type: "xavier"
      std: 0.03
    }
    bias_filler {
      type: "constant"
      value: 0.2
    }
  }
}
layer {
  name: "inception_4a/relu_5x5"
  type: "ReLU"
  bottom: "inception_4a/5x5"
  top: "inception_4a/5x5"
}
layer {
  name: "inception_4a/pool"
  type: "Pooling"
  bottom: "pool3/3x3_s2"
  top: "inception_4a/pool"
  pooling_param {
    pool: MAX
    kernel_size: 3
    stride: 1
    pad: 1
  }
}
layer {
  name: "inception_4a/pool_proj"
  type: "Convolution"
  bottom: "inception_4a/pool"
  top: "inception_4a/pool_proj"
  param {
    lr_mult: 1
    decay_mult: 1
  }
  param {
    lr_mult: 2
    decay_mult: 0
  }
  convolution_param {
    num_output: 64
    kernel_size: 1
    weight_filler {
      type: "xavier"
      std: 0.1
    }
    bias_filler {
      type: "constant"
      value: 0.2
    }
  }
}
layer {
  name: "inception_4a/relu_pool_proj"
  type: "ReLU"
  bottom: "inception_4a/pool_proj"
  top: "inception_4a/pool_proj"
}
layer {
  name: "inception_4a/output"
  type: "Concat"
  bottom: "inception_4a/1x1"
  bottom: "inception_4a/3x3"
  bottom: "inception_4a/5x5"
  bottom: "inception_4a/pool_proj"
  top: "inception_4a/output"
}
layer {
  name: "inception_4b/1x1"
  type: "Convolution"
  bottom: "inception_4a/output"
  top: "inception_4b/1x1"
  param {
    lr_mult: 1
    decay_mult: 1
  }
  param {
    lr_mult: 2
    decay_mult: 0
  }
  convolution_param {
    num_output: 160
    kernel_size: 1
    weight_filler {
      type: "xavier"
      std: 0.03
    }
    bias_filler {
      type: "constant"
      value: 0.2
    }
  }
}
layer {
  name: "inception_4b/relu_1x1"
  type: "ReLU"
  bottom: "inception_4b/1x1"
  top: "inception_4b/1x1"
}
layer {
  name: "inception_4b/3x3_reduce"
  type: "Convolution"
  bottom: "inception_4a/output"
  top: "inception_4b/3x3_reduce"
  param {
    lr_mult: 1
    decay_mult: 1
  }
  param {
    lr_mult: 2
    decay_mult: 0
  }
  convolution_param {
    num_output: 112
    kernel_size: 1
    weight_filler {
      type: "xavier"
      std: 0.09
    }
    bias_filler {
      type: "constant"
      value: 0.2
    }
  }
}
layer {
  name: "inception_4b/relu_3x3_reduce"
  type: "ReLU"
  bottom: "inception_4b/3x3_reduce"
  top: "inception_4b/3x3_reduce"
}
layer {
  name: "inception_4b/3x3"
  type: "Convolution"
  bottom: "inception_4b/3x3_reduce"
  top: "inception_4b/3x3"
  param {
    lr_mult: 1
    decay_mult: 1
  }
  param {
    lr_mult: 2
    decay_mult: 0
  }
  convolution_param {
    num_output: 224
    pad: 1
    kernel_size: 3
    weight_filler {
      type: "xavier"
      std: 0.03
    }
    bias_filler {
      type: "constant"
      value: 0.2
    }
  }
}
layer {
  name: "inception_4b/relu_3x3"
  type: "ReLU"
  bottom: "inception_4b/3x3"
  top: "inception_4b/3x3"
}
layer {
  name: "inception_4b/5x5_reduce"
  type: "Convolution"
  bottom: "inception_4a/output"
  top: "inception_4b/5x5_reduce"
  param {
    lr_mult: 1
    decay_mult: 1
  }
  param {
    lr_mult: 2
    decay_mult: 0
  }
  convolution_param {
    num_output: 24
    kernel_size: 1
    weight_filler {
      type: "xavier"
      std: 0.2
    }
    bias_filler {
      type: "constant"
      value: 0.2
    }
  }
}
layer {
  name: "inception_4b/relu_5x5_reduce"
  type: "ReLU"
  bottom: "inception_4b/5x5_reduce"
  top: "inception_4b/5x5_reduce"
}
layer {
  name: "inception_4b/5x5"
  type: "Convolution"
  bottom: "inception_4b/5x5_reduce"
  top: "inception_4b/5x5"
  param {
    lr_mult: 1
    decay_mult: 1
  }
  param {
    lr_mult: 2
    decay_mult: 0
  }
  convolution_param {
    num_output: 64
    pad: 2
    kernel_size: 5
    weight_filler {
      type: "xavier"
      std: 0.03
    }
    bias_filler {
      type: "constant"
      value: 0.2
    }
  }
}
layer {
  name: "inception_4b/relu_5x5"
  type: "ReLU"
  bottom: "inception_4b/5x5"
  top: "inception_4b/5x5"
}
layer {
  name: "inception_4b/pool"
  type: "Pooling"
  bottom: "inception_4a/output"
  top: "inception_4b/pool"
  pooling_param {
    pool: MAX
    kernel_size: 3
    stride: 1
    pad: 1
  }
}
layer {
  name: "inception_4b/pool_proj"
  type: "Convolution"
  bottom: "inception_4b/pool"
  top: "inception_4b/pool_proj"
  param {
    lr_mult: 1
    decay_mult: 1
  }
  param {
    lr_mult: 2
    decay_mult: 0
  }
  convolution_param {
    num_output: 64
    kernel_size: 1
    weight_filler {
      type: "xavier"
      std: 0.1
    }
    bias_filler {
      type: "constant"
      value: 0.2
    }
  }
}
layer {
  name: "inception_4b/relu_pool_proj"
  type: "ReLU"
  bottom: "inception_4b/pool_proj"
  top: "inception_4b/pool_proj"
}
layer {
  name: "inception_4b/output"
  type: "Concat"
  bottom: "inception_4b/1x1"
  bottom: "inception_4b/3x3"
  bottom: "inception_4b/5x5"
  bottom: "inception_4b/pool_proj"
  top: "inception_4b/output"
}
layer {
  name: "inception_4c/1x1"
  type: "Convolution"
  bottom: "inception_4b/output"
  top: "inception_4c/1x1"
  param {
    lr_mult: 1
    decay_mult: 1
  }
  param {
    lr_mult: 2
    decay_mult: 0
  }
  convolution_param {
    num_output: 128
    kernel_size: 1
    weight_filler {
      type: "xavier"
      std: 0.03
    }
    bias_filler {
      type: "constant"
      value: 0.2
    }
  }
}
layer {
  name: "inception_4c/relu_1x1"
  type: "ReLU"
  bottom: "inception_4c/1x1"
  top: "inception_4c/1x1"
}
layer {
  name: "inception_4c/3x3_reduce"
  type: "Convolution"
  bottom: "inception_4b/output"
  top: "inception_4c/3x3_reduce"
  param {
    lr_mult: 1
    decay_mult: 1
  }
  param {
    lr_mult: 2
    decay_mult: 0
  }
  convolution_param {
    num_output: 128
    kernel_size: 1
    weight_filler {
      type: "xavier"
      std: 0.09
    }
    bias_filler {
      type: "constant"
      value: 0.2
    }
  }
}
layer {
  name: "inception_4c/relu_3x3_reduce"
  type: "ReLU"
  bottom: "inception_4c/3x3_reduce"
  top: "inception_4c/3x3_reduce"
}
layer {
  name: "inception_4c/3x3"
  type: "Convolution"
  bottom: "inception_4c/3x3_reduce"
  top: "inception_4c/3x3"
  param {
    lr_mult: 1
    decay_mult: 1
  }
  param {
    lr_mult: 2
    decay_mult: 0
  }
  convolution_param {
    num_output: 256
    pad: 1
    kernel_size: 3
    weight_filler {
      type: "xavier"
      std: 0.03
    }
    bias_filler {
      type: "constant"
      value: 0.2
    }
  }
}
layer {
  name: "inception_4c/relu_3x3"
  type: "ReLU"
  bottom: "inception_4c/3x3"
  top: "inception_4c/3x3"
}
layer {
  name: "inception_4c/5x5_reduce"
  type: "Convolution"
  bottom: "inception_4b/output"
  top: "inception_4c/5x5_reduce"
  param {
    lr_mult: 1
    decay_mult: 1
  }
  param {
    lr_mult: 2
    decay_mult: 0
  }
  convolution_param {
    num_output: 24
    kernel_size: 1
    weight_filler {
      type: "xavier"
      std: 0.2
    }
    bias_filler {
      type: "constant"
      value: 0.2
    }
  }
}
layer {
  name: "inception_4c/relu_5x5_reduce"
  type: "ReLU"
  bottom: "inception_4c/5x5_reduce"
  top: "inception_4c/5x5_reduce"
}
layer {
  name: "inception_4c/5x5"
  type: "Convolution"
  bottom: "inception_4c/5x5_reduce"
  top: "inception_4c/5x5"
  param {
    lr_mult: 1
    decay_mult: 1
  }
  param {
    lr_mult: 2
    decay_mult: 0
  }
  convolution_param {
    num_output: 64
    pad: 2
    kernel_size: 5
    weight_filler {
      type: "xavier"
      std: 0.03
    }
    bias_filler {
      type: "constant"
      value: 0.2
    }
  }
}
layer {
  name: "inception_4c/relu_5x5"
  type: "ReLU"
  bottom: "inception_4c/5x5"
  top: "inception_4c/5x5"
}
layer {
  name: "inception_4c/pool"
  type: "Pooling"
  bottom: "inception_4b/output"
  top: "inception_4c/pool"
  pooling_param {
    pool: MAX
    kernel_size: 3
    stride: 1
    pad: 1
  }
}
layer {
  name: "inception_4c/pool_proj"
  type: "Convolution"
  bottom: "inception_4c/pool"
  top: "inception_4c/pool_proj"
  param {
    lr_mult: 1
    decay_mult: 1
  }
  param {
    lr_mult: 2
    decay_mult: 0
  }
  convolution_param {
    num_output: 64
    kernel_size: 1
    weight_filler {
      type: "xavier"
      std: 0.1
    }
    bias_filler {
      type: "constant"
      value: 0.2
    }
  }
}
layer {
  name: "inception_4c/relu_pool_proj"
  type: "ReLU"
  bottom: "inception_4c/pool_proj"
  top: "inception_4c/pool_proj"
}
layer {
  name: "inception_4c/output"
  type: "Concat"
  bottom: "inception_4c/1x1"
  bottom: "inception_4c/3x3"
  bottom: "inception_4c/5x5"
  bottom: "inception_4c/pool_proj"
  top: "inception_4c/output"
}
layer {
  name: "inception_4d/1x1"
  type: "Convolution"
  bottom: "inception_4c/output"
  top: "inception_4d/1x1"
  param {
    lr_mult: 1
    decay_mult: 1
  }
  param {
    lr_mult: 2
    decay_mult: 0
  }
  convolution_param {
    num_output: 112
    kernel_size: 1
    weight_filler {
      type: "xavier"
      std: 0.03
    }
    bias_filler {
      type: "constant"
      value: 0.2
    }
  }
}
layer {
  name: "inception_4d/relu_1x1"
  type: "ReLU"
  bottom: "inception_4d/1x1"
  top: "inception_4d/1x1"
}
layer {
  name: "inception_4d/3x3_reduce"
  type: "Convolution"
  bottom: "inception_4c/output"
  top: "inception_4d/3x3_reduce"
  param {
    lr_mult: 1
    decay_mult: 1
  }
  param {
    lr_mult: 2
    decay_mult: 0
  }
  convolution_param {
    num_output: 144
    kernel_size: 1
    weight_filler {
      type: "xavier"
      std: 0.09
    }
    bias_filler {
      type: "constant"
      value: 0.2
    }
  }
}
layer {
  name: "inception_4d/relu_3x3_reduce"
  type: "ReLU"
  bottom: "inception_4d/3x3_reduce"
  top: "inception_4d/3x3_reduce"
}
layer {
  name: "inception_4d/3x3"
  type: "Convolution"
  bottom: "inception_4d/3x3_reduce"
  top: "inception_4d/3x3"
  param {
    lr_mult: 1
    decay_mult: 1
  }
  param {
    lr_mult: 2
    decay_mult: 0
  }
  convolution_param {
    num_output: 288
    pad: 1
    kernel_size: 3
    weight_filler {
      type: "xavier"
      std: 0.03
    }
    bias_filler {
      type: "constant"
      value: 0.2
    }
  }
}
layer {
  name: "inception_4d/relu_3x3"
  type: "ReLU"
  bottom: "inception_4d/3x3"
  top: "inception_4d/3x3"
}
layer {
  name: "inception_4d/5x5_reduce"
  type: "Convolution"
  bottom: "inception_4c/output"
  top: "inception_4d/5x5_reduce"
  param {
    lr_mult: 1
    decay_mult: 1
  }
  param {
    lr_mult: 2
    decay_mult: 0
  }
  convolution_param {
    num_output: 32
    kernel_size: 1
    weight_filler {
      type: "xavier"
      std: 0.2
    }
    bias_filler {
      type: "constant"
      value: 0.2
    }
  }
}
layer {
  name: "inception_4d/relu_5x5_reduce"
  type: "ReLU"
  bottom: "inception_4d/5x5_reduce"
  top: "inception_4d/5x5_reduce"
}
layer {
  name: "inception_4d/5x5"
  type: "Convolution"
  bottom: "inception_4d/5x5_reduce"
  top: "inception_4d/5x5"
  param {
    lr_mult: 1
    decay_mult: 1
  }
  param {
    lr_mult: 2
    decay_mult: 0
  }
  convolution_param {
    num_output: 64
    pad: 2
    kernel_size: 5
    weight_filler {
      type: "xavier"
      std: 0.03
    }
    bias_filler {
      type: "constant"
      value: 0.2
    }
  }
}
layer {
  name: "inception_4d/relu_5x5"
  type: "ReLU"
  bottom: "inception_4d/5x5"
  top: "inception_4d/5x5"
}
layer {
  name: "inception_4d/pool"
  type: "Pooling"
  bottom: "inception_4c/output"
  top: "inception_4d/pool"
  pooling_param {
    pool: MAX
    kernel_size: 3
    stride: 1
    pad: 1
  }
}
layer {
  name: "inception_4d/pool_proj"
  type: "Convolution"
  bottom: "inception_4d/pool"
  top: "inception_4d/pool_proj"
  param {
    lr_mult: 1
    decay_mult: 1
  }
  param {
    lr_mult: 2
    decay_mult: 0
  }
  convolution_param {
    num_output: 64
    kernel_size: 1
    weight_filler {
      type: "xavier"
      std: 0.1
    }
    bias_filler {
      type: "constant"
      value: 0.2
    }
  }
}
layer {
  name: "inception_4d/relu_pool_proj"
  type: "ReLU"
  bottom: "inception_4d/pool_proj"
  top: "inception_4d/pool_proj"
}
layer {
  name: "inception_4d/output"
  type: "Concat"
  bottom: "inception_4d/1x1"
  bottom: "inception_4d/3x3"
  bottom: "inception_4d/5x5"
  bottom: "inception_4d/pool_proj"
  top: "inception_4d/output"
}
layer {
  name: "inception_4e/1x1"
  type: "Convolution"
  bottom: "inception_4d/output"
  top: "inception_4e/1x1"
  param {
    lr_mult: 1
    decay_mult: 1
  }
  param {
    lr_mult: 2
    decay_mult: 0
  }
  convolution_param {
    num_output: 256
    kernel_size: 1
    weight_filler {
      type: "xavier"
      std: 0.03
    }
    bias_filler {
      type: "constant"
      value: 0.2
    }
  }
}
layer {
  name: "inception_4e/relu_1x1"
  type: "ReLU"
  bottom: "inception_4e/1x1"
  top: "inception_4e/1x1"
}
layer {
  name: "inception_4e/3x3_reduce"
  type: "Convolution"
  bottom: "inception_4d/output"
  top: "inception_4e/3x3_reduce"
  param {
    lr_mult: 1
    decay_mult: 1
  }
  param {
    lr_mult: 2
    decay_mult: 0
  }
  convolution_param {
    num_output: 160
    kernel_size: 1
    weight_filler {
      type: "xavier"
      std: 0.09
    }
    bias_filler {
      type: "constant"
      value: 0.2
    }
  }
}
layer {
  name: "inception_4e/relu_3x3_reduce"
  type: "ReLU"
  bottom: "inception_4e/3x3_reduce"
  top: "inception_4e/3x3_reduce"
}
layer {
  name: "inception_4e/3x3"
  type: "Convolution"
  bottom: "inception_4e/3x3_reduce"
  top: "inception_4e/3x3"
  param {
    lr_mult: 1
    decay_mult: 1
  }
  param {
    lr_mult: 2
    decay_mult: 0
  }
  convolution_param {
    num_output: 320
    pad: 1
    kernel_size: 3
    weight_filler {
      type: "xavier"
      std: 0.03
    }
    bias_filler {
      type: "constant"
      value: 0.2
    }
  }
}
layer {
  name: "inception_4e/relu_3x3"
  type: "ReLU"
  bottom: "inception_4e/3x3"
  top: "inception_4e/3x3"
}
layer {
  name: "inception_4e/5x5_reduce"
  type: "Convolution"
  bottom: "inception_4d/output"
  top: "inception_4e/5x5_reduce"
  param {
    lr_mult: 1
    decay_mult: 1
  }
  param {
    lr_mult: 2
    decay_mult: 0
  }
  convolution_param {
    num_output: 32
    kernel_size: 1
    weight_filler {
      type: "xavier"
      std: 0.2
    }
    bias_filler {
      type: "constant"
      value: 0.2
    }
  }
}
layer {
  name: "inception_4e/relu_5x5_reduce"
  type: "ReLU"
  bottom: "inception_4e/5x5_reduce"
  top: "inception_4e/5x5_reduce"
}
layer {
  name: "inception_4e/5x5"
  type: "Convolution"
  bottom: "inception_4e/5x5_reduce"
  top: "inception_4e/5x5"
  param {
    lr_mult: 1
    decay_mult: 1
  }
  param {
    lr_mult: 2
    decay_mult: 0
  }
  convolution_param {
    num_output: 128
    pad: 2
    kernel_size: 5
    weight_filler {
      type: "xavier"
      std: 0.03
    }
    bias_filler {
      type: "constant"
      value: 0.2
    }
  }
}
layer {
  name: "inception_4e/relu_5x5"
  type: "ReLU"
  bottom: "inception_4e/5x5"
  top: "inception_4e/5x5"
}
layer {
  name: "inception_4e/pool"
  type: "Pooling"
  bottom: "inception_4d/output"
  top: "inception_4e/pool"
  pooling_param {
    pool: MAX
    kernel_size: 3
    stride: 1
    pad: 1
  }
}
layer {
  name: "inception_4e/pool_proj"
  type: "Convolution"
  bottom: "inception_4e/pool"
  top: "inception_4e/pool_proj"
  param {
    lr_mult: 1
    decay_mult: 1
  }
  param {
    lr_mult: 2
    decay_mult: 0
  }
  convolution_param {
    num_output: 128
    kernel_size: 1
    weight_filler {
      type: "xavier"
      std: 0.1
    }
    bias_filler {
      type: "constant"
      value: 0.2
    }
  }
}
layer {
  name: "inception_4e/relu_pool_proj"
  type: "ReLU"
  bottom: "inception_4e/pool_proj"
  top: "inception_4e/pool_proj"
}
layer {
  name: "inception_4e/output"
  type: "Concat"
  bottom: "inception_4e/1x1"
  bottom: "inception_4e/3x3"
  bottom: "inception_4e/5x5"
  bottom: "inception_4e/pool_proj"
  top: "inception_4e/output"
}
layer {
  name: "pool4/3x3_s2"
  type: "Pooling"
  bottom: "inception_4e/output"
  top: "pool4/3x3_s2"
  pooling_param {
    pool: MAX
    kernel_size: 3
    stride: 2
  }
}
layer {
  name: "inception_5a/1x1"
  type: "Convolution"
  bottom: "pool4/3x3_s2"
  top: "inception_5a/1x1"
  param {
    lr_mult: 1
    decay_mult: 1
  }
  param {
    lr_mult: 2
    decay_mult: 0
  }
  convolution_param {
    num_output: 256
    kernel_size: 1
    weight_filler {
      type: "xavier"
      std: 0.03
    }
    bias_filler {
      type: "constant"
      value: 0.2
    }
  }
}
layer {
  name: "inception_5a/relu_1x1"
  type: "ReLU"
  bottom: "inception_5a/1x1"
  top: "inception_5a/1x1"
}
layer {
  name: "inception_5a/3x3_reduce"
  type: "Convolution"
  bottom: "pool4/3x3_s2"
  top: "inception_5a/3x3_reduce"
  param {
    lr_mult: 1
    decay_mult: 1
  }
  param {
    lr_mult: 2
    decay_mult: 0
  }
  convolution_param {
    num_output: 160
    kernel_size: 1
    weight_filler {
      type: "xavier"
      std: 0.09
    }
    bias_filler {
      type: "constant"
      value: 0.2
    }
  }
}
layer {
  name: "inception_5a/relu_3x3_reduce"
  type: "ReLU"
  bottom: "inception_5a/3x3_reduce"
  top: "inception_5a/3x3_reduce"
}
layer {
  name: "inception_5a/3x3"
  type: "Convolution"
  bottom: "inception_5a/3x3_reduce"
  top: "inception_5a/3x3"
  param {
    lr_mult: 1
    decay_mult: 1
  }
  param {
    lr_mult: 2
    decay_mult: 0
  }
  convolution_param {
    num_output: 320
    pad: 1
    kernel_size: 3
    weight_filler {
      type: "xavier"
      std: 0.03
    }
    bias_filler {
      type: "constant"
      value: 0.2
    }
  }
}
layer {
  name: "inception_5a/relu_3x3"
  type: "ReLU"
  bottom: "inception_5a/3x3"
  top: "inception_5a/3x3"
}
layer {
  name: "inception_5a/5x5_reduce"
  type: "Convolution"
  bottom: "pool4/3x3_s2"
  top: "inception_5a/5x5_reduce"
  param {
    lr_mult: 1
    decay_mult: 1
  }
  param {
    lr_mult: 2
    decay_mult: 0
  }
  convolution_param {
    num_output: 32
    kernel_size: 1
    weight_filler {
      type: "xavier"
      std: 0.2
    }
    bias_filler {
      type: "constant"
      value: 0.2
    }
I0727 20:23:42.972848 30638 layer_factory.hpp:77] Creating layer data
I0727 20:23:42.972868 30638 net.cpp:91] Creating Layer data
I0727 20:23:42.972874 30638 net.cpp:399] data -> data
I0727 20:23:44.054738 30634 net.cpp:141] Setting up data
I0727 20:23:44.054813 30634 net.cpp:148] Top shape: 10 3 224 224 (1505280)
I0727 20:23:44.054821 30634 net.cpp:156] Memory required for data: 6021120
I0727 20:23:44.054844 30634 layer_factory.hpp:77] Creating layer conv1/7x7_s2
I0727 20:23:44.054888 30634 net.cpp:91] Creating Layer conv1/7x7_s2
I0727 20:23:44.054898 30634 net.cpp:425] conv1/7x7_s2 <- data
I0727 20:23:44.054913 30634 net.cpp:399] conv1/7x7_s2 -> conv1/7x7_s2
I0727 20:23:44.056824 30638 net.cpp:141] Setting up data
I0727 20:23:44.056845 30638 net.cpp:148] Top shape: 10 3 224 224 (1505280)
I0727 20:23:44.056851 30638 net.cpp:156] Memory required for data: 6021120
I0727 20:23:44.056857 30638 layer_factory.hpp:77] Creating layer conv1/7x7_s2
I0727 20:23:44.056875 30638 net.cpp:91] Creating Layer conv1/7x7_s2
I0727 20:23:44.056881 30638 net.cpp:425] conv1/7x7_s2 <- data
I0727 20:23:44.056890 30638 net.cpp:399] conv1/7x7_s2 -> conv1/7x7_s2
I0727 20:23:44.499006 30634 net.cpp:141] Setting up conv1/7x7_s2
I0727 20:23:44.499060 30634 net.cpp:148] Top shape: 10 64 112 112 (8028160)
I0727 20:23:44.499068 30634 net.cpp:156] Memory required for data: 38133760
I0727 20:23:44.499101 30634 layer_factory.hpp:77] Creating layer conv1/relu_7x7
I0727 20:23:44.499125 30634 net.cpp:91] Creating Layer conv1/relu_7x7
I0727 20:23:44.499133 30634 net.cpp:425] conv1/relu_7x7 <- conv1/7x7_s2
I0727 20:23:44.499145 30634 net.cpp:386] conv1/relu_7x7 -> conv1/7x7_s2 (in-place)
I0727 20:23:44.500028 30634 net.cpp:141] Setting up conv1/relu_7x7
I0727 20:23:44.500048 30634 net.cpp:148] Top shape: 10 64 112 112 (8028160)
I0727 20:23:44.500054 30634 net.cpp:156] Memory required for data: 70246400
I0727 20:23:44.500061 30634 layer_factory.hpp:77] Creating layer pool1/3x3_s2
I0727 20:23:44.500079 30634 net.cpp:91] Creating Layer pool1/3x3_s2
I0727 20:23:44.500085 30634 net.cpp:425] pool1/3x3_s2 <- conv1/7x7_s2
I0727 20:23:44.500093 30634 net.cpp:399] pool1/3x3_s2 -> pool1/3x3_s2
I0727 20:23:44.500751 30634 net.cpp:141] Setting up pool1/3x3_s2
I0727 20:23:44.500772 30634 net.cpp:148] Top shape: 10 64 56 56 (2007040)
I0727 20:23:44.500778 30634 net.cpp:156] Memory required for data: 78274560
I0727 20:23:44.500785 30634 layer_factory.hpp:77] Creating layer pool1/norm1
I0727 20:23:44.500808 30634 net.cpp:91] Creating Layer pool1/norm1
I0727 20:23:44.500815 30634 net.cpp:425] pool1/norm1 <- pool1/3x3_s2
I0727 20:23:44.500826 30634 net.cpp:399] pool1/norm1 -> pool1/norm1
I0727 20:23:44.502472 30638 net.cpp:141] Setting up conv1/7x7_s2
I0727 20:23:44.502521 30634 net.cpp:141] Setting up pool1/norm1
I0727 20:23:44.502532 30638 net.cpp:148] Top shape: 10 64 112 112 (8028160)
I0727 20:23:44.502538 30634 net.cpp:148] Top shape: 10 64 56 56 (2007040)
I0727 20:23:44.502539 30638 net.cpp:156] Memory required for data: 38133760
I0727 20:23:44.502549 30634 net.cpp:156] Memory required for data: 86302720
I0727 20:23:44.502565 30634 layer_factory.hpp:77] Creating layer conv2/3x3_reduce
I0727 20:23:44.502576 30638 layer_factory.hpp:77] Creating layer conv1/relu_7x7
I0727 20:23:44.502595 30638 net.cpp:91] Creating Layer conv1/relu_7x7
I0727 20:23:44.502599 30634 net.cpp:91] Creating Layer conv2/3x3_reduce
I0727 20:23:44.502602 30638 net.cpp:425] conv1/relu_7x7 <- conv1/7x7_s2
I0727 20:23:44.502606 30634 net.cpp:425] conv2/3x3_reduce <- pool1/norm1
I0727 20:23:44.502616 30638 net.cpp:386] conv1/relu_7x7 -> conv1/7x7_s2 (in-place)
I0727 20:23:44.502620 30634 net.cpp:399] conv2/3x3_reduce -> conv2/3x3_reduce
I0727 20:23:44.503566 30638 net.cpp:141] Setting up conv1/relu_7x7
I0727 20:23:44.503587 30638 net.cpp:148] Top shape: 10 64 112 112 (8028160)
I0727 20:23:44.503592 30638 net.cpp:156] Memory required for data: 70246400
I0727 20:23:44.503598 30638 layer_factory.hpp:77] Creating layer pool1/3x3_s2
I0727 20:23:44.503609 30638 net.cpp:91] Creating Layer pool1/3x3_s2
I0727 20:23:44.503614 30638 net.cpp:425] pool1/3x3_s2 <- conv1/7x7_s2
I0727 20:23:44.503626 30638 net.cpp:399] pool1/3x3_s2 -> pool1/3x3_s2
I0727 20:23:44.504992 30638 net.cpp:141] Setting up pool1/3x3_s2
I0727 20:23:44.505012 30638 net.cpp:148] Top shape: 10 64 56 56 (2007040)
I0727 20:23:44.505017 30638 net.cpp:156] Memory required for data: 78274560
I0727 20:23:44.505023 30638 layer_factory.hpp:77] Creating layer pool1/norm1
I0727 20:23:44.505044 30638 net.cpp:91] Creating Layer pool1/norm1
I0727 20:23:44.505050 30638 net.cpp:425] pool1/norm1 <- pool1/3x3_s2
I0727 20:23:44.505059 30638 net.cpp:399] pool1/norm1 -> pool1/norm1
I0727 20:23:44.506799 30638 net.cpp:141] Setting up pool1/norm1
I0727 20:23:44.506816 30638 net.cpp:148] Top shape: 10 64 56 56 (2007040)
I0727 20:23:44.506822 30638 net.cpp:156] Memory required for data: 86302720
I0727 20:23:44.506827 30638 layer_factory.hpp:77] Creating layer conv2/3x3_reduce
I0727 20:23:44.506851 30638 net.cpp:91] Creating Layer conv2/3x3_reduce
I0727 20:23:44.506857 30638 net.cpp:425] conv2/3x3_reduce <- pool1/norm1
I0727 20:23:44.506870 30638 net.cpp:399] conv2/3x3_reduce -> conv2/3x3_reduce
I0727 20:23:44.510423 30634 net.cpp:141] Setting up conv2/3x3_reduce
I0727 20:23:44.510448 30634 net.cpp:148] Top shape: 10 64 56 56 (2007040)
I0727 20:23:44.510454 30634 net.cpp:156] Memory required for data: 94330880
I0727 20:23:44.510471 30634 layer_factory.hpp:77] Creating layer conv2/relu_3x3_reduce
I0727 20:23:44.510483 30634 net.cpp:91] Creating Layer conv2/relu_3x3_reduce
I0727 20:23:44.510488 30634 net.cpp:425] conv2/relu_3x3_reduce <- conv2/3x3_reduce
I0727 20:23:44.510499 30634 net.cpp:386] conv2/relu_3x3_reduce -> conv2/3x3_reduce (in-place)
I0727 20:23:44.511368 30634 net.cpp:141] Setting up conv2/relu_3x3_reduce
I0727 20:23:44.511387 30634 net.cpp:148] Top shape: 10 64 56 56 (2007040)
I0727 20:23:44.511394 30634 net.cpp:156] Memory required for data: 102359040
I0727 20:23:44.511399 30634 layer_factory.hpp:77] Creating layer conv2/3x3
I0727 20:23:44.511430 30634 net.cpp:91] Creating Layer conv2/3x3
I0727 20:23:44.511442 30634 net.cpp:425] conv2/3x3 <- conv2/3x3_reduce
I0727 20:23:44.511458 30634 net.cpp:399] conv2/3x3 -> conv2/3x3
I0727 20:23:44.514595 30638 net.cpp:141] Setting up conv2/3x3_reduce
I0727 20:23:44.514634 30638 net.cpp:148] Top shape: 10 64 56 56 (2007040)
I0727 20:23:44.514643 30638 net.cpp:156] Memory required for data: 94330880
I0727 20:23:44.514667 30638 layer_factory.hpp:77] Creating layer conv2/relu_3x3_reduce
I0727 20:23:44.514714 30638 net.cpp:91] Creating Layer conv2/relu_3x3_reduce
I0727 20:23:44.514727 30638 net.cpp:425] conv2/relu_3x3_reduce <- conv2/3x3_reduce
I0727 20:23:44.514750 30638 net.cpp:386] conv2/relu_3x3_reduce -> conv2/3x3_reduce (in-place)
I0727 20:23:44.516017 30638 net.cpp:141] Setting up conv2/relu_3x3_reduce
I0727 20:23:44.516047 30638 net.cpp:148] Top shape: 10 64 56 56 (2007040)
I0727 20:23:44.516053 30638 net.cpp:156] Memory required for data: 102359040
I0727 20:23:44.516058 30638 layer_factory.hpp:77] Creating layer conv2/3x3
I0727 20:23:44.516079 30638 net.cpp:91] Creating Layer conv2/3x3
I0727 20:23:44.516085 30638 net.cpp:425] conv2/3x3 <- conv2/3x3_reduce
I0727 20:23:44.516098 30638 net.cpp:399] conv2/3x3 -> conv2/3x3
I0727 20:23:44.528590 30634 net.cpp:141] Setting up conv2/3x3
I0727 20:23:44.528642 30634 net.cpp:148] Top shape: 10 192 56 56 (6021120)
I0727 20:23:44.528650 30634 net.cpp:156] Memory required for data: 126443520
I0727 20:23:44.528674 30634 layer_factory.hpp:77] Creating layer conv2/relu_3x3
I0727 20:23:44.528697 30634 net.cpp:91] Creating Layer conv2/relu_3x3
I0727 20:23:44.528707 30634 net.cpp:425] conv2/relu_3x3 <- conv2/3x3
I0727 20:23:44.528715 30634 net.cpp:386] conv2/relu_3x3 -> conv2/3x3 (in-place)
I0727 20:23:44.529274 30634 net.cpp:141] Setting up conv2/relu_3x3
I0727 20:23:44.529289 30634 net.cpp:148] Top shape: 10 192 56 56 (6021120)
I0727 20:23:44.529294 30634 net.cpp:156] Memory required for data: 150528000
I0727 20:23:44.529304 30634 layer_factory.hpp:77] Creating layer conv2/norm2
I0727 20:23:44.529322 30634 net.cpp:91] Creating Layer conv2/norm2
I0727 20:23:44.529328 30634 net.cpp:425] conv2/norm2 <- conv2/3x3
I0727 20:23:44.529340 30634 net.cpp:399] conv2/norm2 -> conv2/norm2
I0727 20:23:44.531736 30634 net.cpp:141] Setting up conv2/norm2
I0727 20:23:44.531756 30634 net.cpp:148] Top shape: 10 192 56 56 (6021120)
I0727 20:23:44.531762 30634 net.cpp:156] Memory required for data: 174612480
I0727 20:23:44.531769 30634 layer_factory.hpp:77] Creating layer pool2/3x3_s2
I0727 20:23:44.531785 30634 net.cpp:91] Creating Layer pool2/3x3_s2
I0727 20:23:44.531791 30634 net.cpp:425] pool2/3x3_s2 <- conv2/norm2
I0727 20:23:44.531800 30634 net.cpp:399] pool2/3x3_s2 -> pool2/3x3_s2
I0727 20:23:44.532129 30634 net.cpp:141] Setting up pool2/3x3_s2
I0727 20:23:44.532141 30634 net.cpp:148] Top shape: 10 192 28 28 (1505280)
I0727 20:23:44.532146 30634 net.cpp:156] Memory required for data: 180633600
I0727 20:23:44.532152 30634 layer_factory.hpp:77] Creating layer pool2/3x3_s2_pool2/3x3_s2_0_split
I0727 20:23:44.532176 30634 net.cpp:91] Creating Layer pool2/3x3_s2_pool2/3x3_s2_0_split
I0727 20:23:44.532181 30634 net.cpp:425] pool2/3x3_s2_pool2/3x3_s2_0_split <- pool2/3x3_s2
I0727 20:23:44.532194 30634 net.cpp:399] pool2/3x3_s2_pool2/3x3_s2_0_split -> pool2/3x3_s2_pool2/3x3_s2_0_split_0
I0727 20:23:44.532207 30634 net.cpp:399] pool2/3x3_s2_pool2/3x3_s2_0_split -> pool2/3x3_s2_pool2/3x3_s2_0_split_1
I0727 20:23:44.532217 30634 net.cpp:399] pool2/3x3_s2_pool2/3x3_s2_0_split -> pool2/3x3_s2_pool2/3x3_s2_0_split_2
I0727 20:23:44.532228 30634 net.cpp:399] pool2/3x3_s2_pool2/3x3_s2_0_split -> pool2/3x3_s2_pool2/3x3_s2_0_split_3
I0727 20:23:44.532840 30638 net.cpp:141] Setting up conv2/3x3
I0727 20:23:44.532896 30638 net.cpp:148] Top shape: 10 192 56 56 (6021120)
I0727 20:23:44.532902 30638 net.cpp:156] Memory required for data: 126443520
I0727 20:23:44.532922 30638 layer_factory.hpp:77] Creating layer conv2/relu_3x3
I0727 20:23:44.532927 30634 net.cpp:141] Setting up pool2/3x3_s2_pool2/3x3_s2_0_split
I0727 20:23:44.532941 30638 net.cpp:91] Creating Layer conv2/relu_3x3
I0727 20:23:44.532948 30634 net.cpp:148] Top shape: 10 192 28 28 (1505280)
I0727 20:23:44.532949 30638 net.cpp:425] conv2/relu_3x3 <- conv2/3x3
I0727 20:23:44.532956 30634 net.cpp:148] Top shape: 10 192 28 28 (1505280)
I0727 20:23:44.532961 30638 net.cpp:386] conv2/relu_3x3 -> conv2/3x3 (in-place)
I0727 20:23:44.532964 30634 net.cpp:148] Top shape: 10 192 28 28 (1505280)
I0727 20:23:44.532971 30634 net.cpp:148] Top shape: 10 192 28 28 (1505280)
I0727 20:23:44.532976 30634 net.cpp:156] Memory required for data: 204718080
I0727 20:23:44.532982 30634 layer_factory.hpp:77] Creating layer inception_3a/1x1
I0727 20:23:44.533011 30634 net.cpp:91] Creating Layer inception_3a/1x1
I0727 20:23:44.533018 30634 net.cpp:425] inception_3a/1x1 <- pool2/3x3_s2_pool2/3x3_s2_0_split_0
I0727 20:23:44.533056 30634 net.cpp:399] inception_3a/1x1 -> inception_3a/1x1
I0727 20:23:44.533392 30638 net.cpp:141] Setting up conv2/relu_3x3
I0727 20:23:44.533406 30638 net.cpp:148] Top shape: 10 192 56 56 (6021120)
I0727 20:23:44.533411 30638 net.cpp:156] Memory required for data: 150528000
I0727 20:23:44.533416 30638 layer_factory.hpp:77] Creating layer conv2/norm2
I0727 20:23:44.533429 30638 net.cpp:91] Creating Layer conv2/norm2
I0727 20:23:44.533435 30638 net.cpp:425] conv2/norm2 <- conv2/3x3
I0727 20:23:44.533445 30638 net.cpp:399] conv2/norm2 -> conv2/norm2
I0727 20:23:44.534705 30638 net.cpp:141] Setting up conv2/norm2
I0727 20:23:44.534730 30638 net.cpp:148] Top shape: 10 192 56 56 (6021120)
I0727 20:23:44.534740 30638 net.cpp:156] Memory required for data: 174612480
I0727 20:23:44.534750 30638 layer_factory.hpp:77] Creating layer pool2/3x3_s2
I0727 20:23:44.534773 30638 net.cpp:91] Creating Layer pool2/3x3_s2
I0727 20:23:44.534785 30638 net.cpp:425] pool2/3x3_s2 <- conv2/norm2
I0727 20:23:44.534802 30638 net.cpp:399] pool2/3x3_s2 -> pool2/3x3_s2
I0727 20:23:44.535218 30638 net.cpp:141] Setting up pool2/3x3_s2
I0727 20:23:44.535239 30638 net.cpp:148] Top shape: 10 192 28 28 (1505280)
I0727 20:23:44.535248 30638 net.cpp:156] Memory required for data: 180633600
I0727 20:23:44.535257 30638 layer_factory.hpp:77] Creating layer pool2/3x3_s2_pool2/3x3_s2_0_split
I0727 20:23:44.535287 30638 net.cpp:91] Creating Layer pool2/3x3_s2_pool2/3x3_s2_0_split
I0727 20:23:44.535300 30638 net.cpp:425] pool2/3x3_s2_pool2/3x3_s2_0_split <- pool2/3x3_s2
I0727 20:23:44.535313 30638 net.cpp:399] pool2/3x3_s2_pool2/3x3_s2_0_split -> pool2/3x3_s2_pool2/3x3_s2_0_split_0
I0727 20:23:44.535332 30638 net.cpp:399] pool2/3x3_s2_pool2/3x3_s2_0_split -> pool2/3x3_s2_pool2/3x3_s2_0_split_1
I0727 20:23:44.535349 30638 net.cpp:399] pool2/3x3_s2_pool2/3x3_s2_0_split -> pool2/3x3_s2_pool2/3x3_s2_0_split_2
I0727 20:23:44.535365 30638 net.cpp:399] pool2/3x3_s2_pool2/3x3_s2_0_split -> pool2/3x3_s2_pool2/3x3_s2_0_split_3
I0727 20:23:44.536425 30638 net.cpp:141] Setting up pool2/3x3_s2_pool2/3x3_s2_0_split
I0727 20:23:44.536451 30638 net.cpp:148] Top shape: 10 192 28 28 (1505280)
I0727 20:23:44.536463 30638 net.cpp:148] Top shape: 10 192 28 28 (1505280)
I0727 20:23:44.536474 30638 net.cpp:148] Top shape: 10 192 28 28 (1505280)
I0727 20:23:44.536484 30638 net.cpp:148] Top shape: 10 192 28 28 (1505280)
I0727 20:23:44.536491 30638 net.cpp:156] Memory required for data: 204718080
I0727 20:23:44.536500 30638 layer_factory.hpp:77] Creating layer inception_3a/1x1
I0727 20:23:44.536530 30638 net.cpp:91] Creating Layer inception_3a/1x1
I0727 20:23:44.536540 30638 net.cpp:425] inception_3a/1x1 <- pool2/3x3_s2_pool2/3x3_s2_0_split_0
I0727 20:23:44.536573 30638 net.cpp:399] inception_3a/1x1 -> inception_3a/1x1
I0727 20:23:44.540613 30634 net.cpp:141] Setting up inception_3a/1x1
I0727 20:23:44.540640 30634 net.cpp:148] Top shape: 10 64 28 28 (501760)
I0727 20:23:44.540647 30634 net.cpp:156] Memory required for data: 206725120
I0727 20:23:44.540664 30634 layer_factory.hpp:77] Creating layer inception_3a/relu_1x1
I0727 20:23:44.540678 30634 net.cpp:91] Creating Layer inception_3a/relu_1x1
I0727 20:23:44.540685 30634 net.cpp:425] inception_3a/relu_1x1 <- inception_3a/1x1
I0727 20:23:44.540695 30634 net.cpp:386] inception_3a/relu_1x1 -> inception_3a/1x1 (in-place)
I0727 20:23:44.541136 30634 net.cpp:141] Setting up inception_3a/relu_1x1
I0727 20:23:44.541149 30634 net.cpp:148] Top shape: 10 64 28 28 (501760)
I0727 20:23:44.541155 30634 net.cpp:156] Memory required for data: 208732160
I0727 20:23:44.541162 30634 layer_factory.hpp:77] Creating layer inception_3a/3x3_reduce
I0727 20:23:44.541183 30634 net.cpp:91] Creating Layer inception_3a/3x3_reduce
I0727 20:23:44.541190 30634 net.cpp:425] inception_3a/3x3_reduce <- pool2/3x3_s2_pool2/3x3_s2_0_split_1
I0727 20:23:44.541203 30634 net.cpp:399] inception_3a/3x3_reduce -> inception_3a/3x3_reduce
I0727 20:23:44.548874 30638 net.cpp:141] Setting up inception_3a/1x1
I0727 20:23:44.548909 30638 net.cpp:148] Top shape: 10 64 28 28 (501760)
I0727 20:23:44.548916 30638 net.cpp:156] Memory required for data: 206725120
I0727 20:23:44.548929 30638 layer_factory.hpp:77] Creating layer inception_3a/relu_1x1
I0727 20:23:44.548943 30638 net.cpp:91] Creating Layer inception_3a/relu_1x1
I0727 20:23:44.548949 30638 net.cpp:425] inception_3a/relu_1x1 <- inception_3a/1x1
I0727 20:23:44.548961 30638 net.cpp:386] inception_3a/relu_1x1 -> inception_3a/1x1 (in-place)
I0727 20:23:44.549221 30638 net.cpp:141] Setting up inception_3a/relu_1x1
I0727 20:23:44.549232 30638 net.cpp:148] Top shape: 10 64 28 28 (501760)
I0727 20:23:44.549237 30638 net.cpp:156] Memory required for data: 208732160
I0727 20:23:44.549245 30638 layer_factory.hpp:77] Creating layer inception_3a/3x3_reduce
I0727 20:23:44.549268 30638 net.cpp:91] Creating Layer inception_3a/3x3_reduce
I0727 20:23:44.549274 30638 net.cpp:425] inception_3a/3x3_reduce <- pool2/3x3_s2_pool2/3x3_s2_0_split_1
I0727 20:23:44.549284 30638 net.cpp:399] inception_3a/3x3_reduce -> inception_3a/3x3_reduce
I0727 20:23:44.551964 30634 net.cpp:141] Setting up inception_3a/3x3_reduce
I0727 20:23:44.551990 30634 net.cpp:148] Top shape: 10 96 28 28 (752640)
I0727 20:23:44.551995 30634 net.cpp:156] Memory required for data: 211742720
I0727 20:23:44.552017 30634 layer_factory.hpp:77] Creating layer inception_3a/relu_3x3_reduce
I0727 20:23:44.552033 30634 net.cpp:91] Creating Layer inception_3a/relu_3x3_reduce
I0727 20:23:44.552040 30634 net.cpp:425] inception_3a/relu_3x3_reduce <- inception_3a/3x3_reduce
I0727 20:23:44.552052 30634 net.cpp:386] inception_3a/relu_3x3_reduce -> inception_3a/3x3_reduce (in-place)
I0727 20:23:44.552479 30634 net.cpp:141] Setting up inception_3a/relu_3x3_reduce
I0727 20:23:44.552494 30634 net.cpp:148] Top shape: 10 96 28 28 (752640)
I0727 20:23:44.552500 30634 net.cpp:156] Memory required for data: 214753280
I0727 20:23:44.552505 30634 layer_factory.hpp:77] Creating layer inception_3a/3x3
I0727 20:23:44.552532 30634 net.cpp:91] Creating Layer inception_3a/3x3
I0727 20:23:44.552539 30634 net.cpp:425] inception_3a/3x3 <- inception_3a/3x3_reduce
I0727 20:23:44.552551 30634 net.cpp:399] inception_3a/3x3 -> inception_3a/3x3
I0727 20:23:44.554834 30638 net.cpp:141] Setting up inception_3a/3x3_reduce
I0727 20:23:44.554857 30638 net.cpp:148] Top shape: 10 96 28 28 (752640)
I0727 20:23:44.554862 30638 net.cpp:156] Memory required for data: 211742720
I0727 20:23:44.554877 30638 layer_factory.hpp:77] Creating layer inception_3a/relu_3x3_reduce
I0727 20:23:44.554891 30638 net.cpp:91] Creating Layer inception_3a/relu_3x3_reduce
I0727 20:23:44.554898 30638 net.cpp:425] inception_3a/relu_3x3_reduce <- inception_3a/3x3_reduce
I0727 20:23:44.554908 30638 net.cpp:386] inception_3a/relu_3x3_reduce -> inception_3a/3x3_reduce (in-place)
I0727 20:23:44.555150 30638 net.cpp:141] Setting up inception_3a/relu_3x3_reduce
I0727 20:23:44.555162 30638 net.cpp:148] Top shape: 10 96 28 28 (752640)
I0727 20:23:44.555167 30638 net.cpp:156] Memory required for data: 214753280
I0727 20:23:44.555172 30638 layer_factory.hpp:77] Creating layer inception_3a/3x3
I0727 20:23:44.555191 30638 net.cpp:91] Creating Layer inception_3a/3x3
I0727 20:23:44.555197 30638 net.cpp:425] inception_3a/3x3 <- inception_3a/3x3_reduce
I0727 20:23:44.555208 30638 net.cpp:399] inception_3a/3x3 -> inception_3a/3x3
I0727 20:23:44.558789 30634 net.cpp:141] Setting up inception_3a/3x3
I0727 20:23:44.558810 30634 net.cpp:148] Top shape: 10 128 28 28 (1003520)
I0727 20:23:44.558817 30634 net.cpp:156] Memory required for data: 218767360
I0727 20:23:44.558830 30634 layer_factory.hpp:77] Creating layer inception_3a/relu_3x3
I0727 20:23:44.558842 30634 net.cpp:91] Creating Layer inception_3a/relu_3x3
I0727 20:23:44.558850 30634 net.cpp:425] inception_3a/relu_3x3 <- inception_3a/3x3
I0727 20:23:44.558866 30634 net.cpp:386] inception_3a/relu_3x3 -> inception_3a/3x3 (in-place)
I0727 20:23:44.559859 30634 net.cpp:141] Setting up inception_3a/relu_3x3
I0727 20:23:44.559862 30638 net.cpp:141] Setting up inception_3a/3x3
I0727 20:23:44.559880 30634 net.cpp:148] Top shape: 10 128 28 28 (1003520)
I0727 20:23:44.559887 30634 net.cpp:156] Memory required for data: 222781440
I0727 20:23:44.559890 30638 net.cpp:148] Top shape: 10 128 28 28 (1003520)
I0727 20:23:44.559893 30634 layer_factory.hpp:77] Creating layer inception_3a/5x5_reduce
I0727 20:23:44.559896 30638 net.cpp:156] Memory required for data: 218767360
I0727 20:23:44.559916 30638 layer_factory.hpp:77] Creating layer inception_3a/relu_3x3
I0727 20:23:44.559921 30634 net.cpp:91] Creating Layer inception_3a/5x5_reduce
I0727 20:23:44.559928 30634 net.cpp:425] inception_3a/5x5_reduce <- pool2/3x3_s2_pool2/3x3_s2_0_split_2
I0727 20:23:44.559928 30638 net.cpp:91] Creating Layer inception_3a/relu_3x3
I0727 20:23:44.559942 30638 net.cpp:425] inception_3a/relu_3x3 <- inception_3a/3x3
I0727 20:23:44.559945 30634 net.cpp:399] inception_3a/5x5_reduce -> inception_3a/5x5_reduce
I0727 20:23:44.559952 30638 net.cpp:386] inception_3a/relu_3x3 -> inception_3a/3x3 (in-place)
I0727 20:23:44.560956 30638 net.cpp:141] Setting up inception_3a/relu_3x3
I0727 20:23:44.560972 30638 net.cpp:148] Top shape: 10 128 28 28 (1003520)
I0727 20:23:44.560977 30638 net.cpp:156] Memory required for data: 222781440
I0727 20:23:44.560984 30638 layer_factory.hpp:77] Creating layer inception_3a/5x5_reduce
I0727 20:23:44.561002 30638 net.cpp:91] Creating Layer inception_3a/5x5_reduce
I0727 20:23:44.561008 30638 net.cpp:425] inception_3a/5x5_reduce <- pool2/3x3_s2_pool2/3x3_s2_0_split_2
I0727 20:23:44.561019 30638 net.cpp:399] inception_3a/5x5_reduce -> inception_3a/5x5_reduce
I0727 20:23:44.565032 30634 net.cpp:141] Setting up inception_3a/5x5_reduce
I0727 20:23:44.565055 30634 net.cpp:148] Top shape: 10 16 28 28 (125440)
I0727 20:23:44.565062 30634 net.cpp:156] Memory required for data: 223283200
I0727 20:23:44.565076 30634 layer_factory.hpp:77] Creating layer inception_3a/relu_5x5_reduce
I0727 20:23:44.565093 30634 net.cpp:91] Creating Layer inception_3a/relu_5x5_reduce
I0727 20:23:44.565099 30634 net.cpp:425] inception_3a/relu_5x5_reduce <- inception_3a/5x5_reduce
I0727 20:23:44.565107 30634 net.cpp:386] inception_3a/relu_5x5_reduce -> inception_3a/5x5_reduce (in-place)
I0727 20:23:44.565131 30638 net.cpp:141] Setting up inception_3a/5x5_reduce
I0727 20:23:44.565147 30638 net.cpp:148] Top shape: 10 16 28 28 (125440)
I0727 20:23:44.565152 30638 net.cpp:156] Memory required for data: 223283200
I0727 20:23:44.565162 30638 layer_factory.hpp:77] Creating layer inception_3a/relu_5x5_reduce
I0727 20:23:44.565172 30638 net.cpp:91] Creating Layer inception_3a/relu_5x5_reduce
I0727 20:23:44.565178 30638 net.cpp:425] inception_3a/relu_5x5_reduce <- inception_3a/5x5_reduce
I0727 20:23:44.565198 30638 net.cpp:386] inception_3a/relu_5x5_reduce -> inception_3a/5x5_reduce (in-place)
I0727 20:23:44.565531 30634 net.cpp:141] Setting up inception_3a/relu_5x5_reduce
I0727 20:23:44.565546 30634 net.cpp:148] Top shape: 10 16 28 28 (125440)
I0727 20:23:44.565551 30634 net.cpp:156] Memory required for data: 223784960
I0727 20:23:44.565559 30634 layer_factory.hpp:77] Creating layer inception_3a/5x5
I0727 20:23:44.565578 30634 net.cpp:91] Creating Layer inception_3a/5x5
I0727 20:23:44.565585 30634 net.cpp:425] inception_3a/5x5 <- inception_3a/5x5_reduce
I0727 20:23:44.565598 30634 net.cpp:399] inception_3a/5x5 -> inception_3a/5x5
I0727 20:23:44.565605 30638 net.cpp:141] Setting up inception_3a/relu_5x5_reduce
I0727 20:23:44.565620 30638 net.cpp:148] Top shape: 10 16 28 28 (125440)
I0727 20:23:44.565624 30638 net.cpp:156] Memory required for data: 223784960
I0727 20:23:44.565629 30638 layer_factory.hpp:77] Creating layer inception_3a/5x5
I0727 20:23:44.565646 30638 net.cpp:91] Creating Layer inception_3a/5x5
I0727 20:23:44.565652 30638 net.cpp:425] inception_3a/5x5 <- inception_3a/5x5_reduce
I0727 20:23:44.565660 30638 net.cpp:399] inception_3a/5x5 -> inception_3a/5x5
I0727 20:23:44.571871 30634 net.cpp:141] Setting up inception_3a/5x5
I0727 20:23:44.571897 30634 net.cpp:148] Top shape: 10 32 28 28 (250880)
I0727 20:23:44.571904 30634 net.cpp:156] Memory required for data: 224788480
I0727 20:23:44.571915 30634 layer_factory.hpp:77] Creating layer inception_3a/relu_5x5
I0727 20:23:44.571929 30634 net.cpp:91] Creating Layer inception_3a/relu_5x5
I0727 20:23:44.571935 30634 net.cpp:425] inception_3a/relu_5x5 <- inception_3a/5x5
I0727 20:23:44.571943 30634 net.cpp:386] inception_3a/relu_5x5 -> inception_3a/5x5 (in-place)
I0727 20:23:44.572304 30634 net.cpp:141] Setting up inception_3a/relu_5x5
I0727 20:23:44.572319 30634 net.cpp:148] Top shape: 10 32 28 28 (250880)
I0727 20:23:44.572324 30634 net.cpp:156] Memory required for data: 225792000
I0727 20:23:44.572330 30634 layer_factory.hpp:77] Creating layer inception_3a/pool
I0727 20:23:44.572342 30634 net.cpp:91] Creating Layer inception_3a/pool
I0727 20:23:44.572350 30634 net.cpp:425] inception_3a/pool <- pool2/3x3_s2_pool2/3x3_s2_0_split_3
I0727 20:23:44.572360 30634 net.cpp:399] inception_3a/pool -> inception_3a/pool
I0727 20:23:44.573081 30638 net.cpp:141] Setting up inception_3a/5x5
I0727 20:23:44.573117 30638 net.cpp:148] Top shape: 10 32 28 28 (250880)
I0727 20:23:44.573122 30638 net.cpp:156] Memory required for data: 224788480
I0727 20:23:44.573127 30634 net.cpp:141] Setting up inception_3a/pool
I0727 20:23:44.573135 30638 layer_factory.hpp:77] Creating layer inception_3a/relu_5x5
I0727 20:23:44.573143 30634 net.cpp:148] Top shape: 10 192 28 28 (1505280)
I0727 20:23:44.573149 30634 net.cpp:156] Memory required for data: 231813120
I0727 20:23:44.573153 30638 net.cpp:91] Creating Layer inception_3a/relu_5x5
I0727 20:23:44.573156 30634 layer_factory.hpp:77] Creating layer inception_3a/pool_proj
I0727 20:23:44.573160 30638 net.cpp:425] inception_3a/relu_5x5 <- inception_3a/5x5
I0727 20:23:44.573170 30638 net.cpp:386] inception_3a/relu_5x5 -> inception_3a/5x5 (in-place)
I0727 20:23:44.573179 30634 net.cpp:91] Creating Layer inception_3a/pool_proj
I0727 20:23:44.573186 30634 net.cpp:425] inception_3a/pool_proj <- inception_3a/pool
I0727 20:23:44.573200 30634 net.cpp:399] inception_3a/pool_proj -> inception_3a/pool_proj
I0727 20:23:44.573657 30638 net.cpp:141] Setting up inception_3a/relu_5x5
I0727 20:23:44.573669 30638 net.cpp:148] Top shape: 10 32 28 28 (250880)
I0727 20:23:44.573674 30638 net.cpp:156] Memory required for data: 225792000
I0727 20:23:44.573683 30638 layer_factory.hpp:77] Creating layer inception_3a/pool
I0727 20:23:44.573696 30638 net.cpp:91] Creating Layer inception_3a/pool
I0727 20:23:44.573701 30638 net.cpp:425] inception_3a/pool <- pool2/3x3_s2_pool2/3x3_s2_0_split_3
I0727 20:23:44.573711 30638 net.cpp:399] inception_3a/pool -> inception_3a/pool
I0727 20:23:44.573952 30638 net.cpp:141] Setting up inception_3a/pool
I0727 20:23:44.573963 30638 net.cpp:148] Top shape: 10 192 28 28 (1505280)
I0727 20:23:44.573968 30638 net.cpp:156] Memory required for data: 231813120
I0727 20:23:44.573973 30638 layer_factory.hpp:77] Creating layer inception_3a/pool_proj
I0727 20:23:44.573997 30638 net.cpp:91] Creating Layer inception_3a/pool_proj
I0727 20:23:44.574002 30638 net.cpp:425] inception_3a/pool_proj <- inception_3a/pool
I0727 20:23:44.574012 30638 net.cpp:399] inception_3a/pool_proj -> inception_3a/pool_proj
I0727 20:23:44.578917 30634 net.cpp:141] Setting up inception_3a/pool_proj
I0727 20:23:44.578938 30634 net.cpp:148] Top shape: 10 32 28 28 (250880)
I0727 20:23:44.578945 30634 net.cpp:156] Memory required for data: 232816640
I0727 20:23:44.578971 30634 layer_factory.hpp:77] Creating layer inception_3a/relu_pool_proj
I0727 20:23:44.578986 30634 net.cpp:91] Creating Layer inception_3a/relu_pool_proj
I0727 20:23:44.578994 30634 net.cpp:425] inception_3a/relu_pool_proj <- inception_3a/pool_proj
I0727 20:23:44.579001 30634 net.cpp:386] inception_3a/relu_pool_proj -> inception_3a/pool_proj (in-place)
I0727 20:23:44.580090 30634 net.cpp:141] Setting up inception_3a/relu_pool_proj
I0727 20:23:44.580107 30634 net.cpp:148] Top shape: 10 32 28 28 (250880)
I0727 20:23:44.580113 30634 net.cpp:156] Memory required for data: 233820160
I0727 20:23:44.580119 30634 layer_factory.hpp:77] Creating layer inception_3a/output
I0727 20:23:44.580155 30634 net.cpp:91] Creating Layer inception_3a/output
I0727 20:23:44.580163 30634 net.cpp:425] inception_3a/output <- inception_3a/1x1
I0727 20:23:44.580170 30634 net.cpp:425] inception_3a/output <- inception_3a/3x3
I0727 20:23:44.580178 30634 net.cpp:425] inception_3a/output <- inception_3a/5x5
I0727 20:23:44.580183 30634 net.cpp:425] inception_3a/output <- inception_3a/pool_proj
I0727 20:23:44.580190 30634 net.cpp:399] inception_3a/output -> inception_3a/output
I0727 20:23:44.580235 30638 net.cpp:141] Setting up inception_3a/pool_proj
I0727 20:23:44.580253 30638 net.cpp:148] Top shape: 10 32 28 28 (250880)
I0727 20:23:44.580258 30638 net.cpp:156] Memory required for data: 232816640
I0727 20:23:44.580283 30638 layer_factory.hpp:77] Creating layer inception_3a/relu_pool_proj
I0727 20:23:44.580289 30634 net.cpp:141] Setting up inception_3a/output
I0727 20:23:44.580294 30638 net.cpp:91] Creating Layer inception_3a/relu_pool_proj
I0727 20:23:44.580302 30638 net.cpp:425] inception_3a/relu_pool_proj <- inception_3a/pool_proj
I0727 20:23:44.580303 30634 net.cpp:148] Top shape: 10 256 28 28 (2007040)
I0727 20:23:44.580312 30634 net.cpp:156] Memory required for data: 241848320
I0727 20:23:44.580312 30638 net.cpp:386] inception_3a/relu_pool_proj -> inception_3a/pool_proj (in-place)
I0727 20:23:44.580322 30634 layer_factory.hpp:77] Creating layer inception_3a/output_inception_3a/output_0_split
I0727 20:23:44.580341 30634 net.cpp:91] Creating Layer inception_3a/output_inception_3a/output_0_split
I0727 20:23:44.580348 30634 net.cpp:425] inception_3a/output_inception_3a/output_0_split <- inception_3a/output
I0727 20:23:44.580355 30634 net.cpp:399] inception_3a/output_inception_3a/output_0_split -> inception_3a/output_inception_3a/output_0_split_0
I0727 20:23:44.580366 30634 net.cpp:399] inception_3a/output_inception_3a/output_0_split -> inception_3a/output_inception_3a/output_0_split_1
I0727 20:23:44.580375 30634 net.cpp:399] inception_3a/output_inception_3a/output_0_split -> inception_3a/output_inception_3a/output_0_split_2
I0727 20:23:44.580390 30634 net.cpp:399] inception_3a/output_inception_3a/output_0_split -> inception_3a/output_inception_3a/output_0_split_3
I0727 20:23:44.581200 30638 net.cpp:141] Setting up inception_3a/relu_pool_proj
I0727 20:23:44.581214 30638 net.cpp:148] Top shape: 10 32 28 28 (250880)
I0727 20:23:44.581218 30638 net.cpp:156] Memory required for data: 233820160
I0727 20:23:44.581217 30634 net.cpp:141] Setting up inception_3a/output_inception_3a/output_0_split
I0727 20:23:44.581228 30638 layer_factory.hpp:77] Creating layer inception_3a/output
I0727 20:23:44.581243 30634 net.cpp:148] Top shape: 10 256 28 28 (2007040)
I0727 20:23:44.581250 30638 net.cpp:91] Creating Layer inception_3a/output
I0727 20:23:44.581250 30634 net.cpp:148] Top shape: 10 256 28 28 (2007040)
I0727 20:23:44.581259 30638 net.cpp:425] inception_3a/output <- inception_3a/1x1
I0727 20:23:44.581269 30634 net.cpp:148] Top shape: 10 256 28 28 (2007040)
I0727 20:23:44.581274 30638 net.cpp:425] inception_3a/output <- inception_3a/3x3
I0727 20:23:44.581276 30634 net.cpp:148] Top shape: 10 256 28 28 (2007040)
I0727 20:23:44.581279 30638 net.cpp:425] inception_3a/output <- inception_3a/5x5
I0727 20:23:44.581282 30634 net.cpp:156] Memory required for data: 273960960
I0727 20:23:44.581286 30638 net.cpp:425] inception_3a/output <- inception_3a/pool_proj
I0727 20:23:44.581290 30634 layer_factory.hpp:77] Creating layer inception_3b/1x1
I0727 20:23:44.581297 30638 net.cpp:399] inception_3a/output -> inception_3a/output
I0727 20:23:44.581313 30634 net.cpp:91] Creating Layer inception_3b/1x1
I0727 20:23:44.581321 30634 net.cpp:425] inception_3b/1x1 <- inception_3a/output_inception_3a/output_0_split_0
I0727 20:23:44.581331 30634 net.cpp:399] inception_3b/1x1 -> inception_3b/1x1
I0727 20:23:44.581416 30638 net.cpp:141] Setting up inception_3a/output
I0727 20:23:44.581429 30638 net.cpp:148] Top shape: 10 256 28 28 (2007040)
I0727 20:23:44.581432 30638 net.cpp:156] Memory required for data: 241848320
I0727 20:23:44.581437 30638 layer_factory.hpp:77] Creating layer inception_3a/output_inception_3a/output_0_split
I0727 20:23:44.581449 30638 net.cpp:91] Creating Layer inception_3a/output_inception_3a/output_0_split
I0727 20:23:44.581454 30638 net.cpp:425] inception_3a/output_inception_3a/output_0_split <- inception_3a/output
I0727 20:23:44.581461 30638 net.cpp:399] inception_3a/output_inception_3a/output_0_split -> inception_3a/output_inception_3a/output_0_split_0
I0727 20:23:44.581470 30638 net.cpp:399] inception_3a/output_inception_3a/output_0_split -> inception_3a/output_inception_3a/output_0_split_1
I0727 20:23:44.581480 30638 net.cpp:399] inception_3a/output_inception_3a/output_0_split -> inception_3a/output_inception_3a/output_0_split_2
I0727 20:23:44.581488 30638 net.cpp:399] inception_3a/output_inception_3a/output_0_split -> inception_3a/output_inception_3a/output_0_split_3
I0727 20:23:44.581979 30638 net.cpp:141] Setting up inception_3a/output_inception_3a/output_0_split
I0727 20:23:44.581990 30638 net.cpp:148] Top shape: 10 256 28 28 (2007040)
I0727 20:23:44.581995 30638 net.cpp:148] Top shape: 10 256 28 28 (2007040)
I0727 20:23:44.582000 30638 net.cpp:148] Top shape: 10 256 28 28 (2007040)
I0727 20:23:44.582006 30638 net.cpp:148] Top shape: 10 256 28 28 (2007040)
I0727 20:23:44.582010 30638 net.cpp:156] Memory required for data: 273960960
I0727 20:23:44.582015 30638 layer_factory.hpp:77] Creating layer inception_3b/1x1
I0727 20:23:44.582033 30638 net.cpp:91] Creating Layer inception_3b/1x1
I0727 20:23:44.582039 30638 net.cpp:425] inception_3b/1x1 <- inception_3a/output_inception_3a/output_0_split_0
I0727 20:23:44.582048 30638 net.cpp:399] inception_3b/1x1 -> inception_3b/1x1
I0727 20:23:44.585800 30634 net.cpp:141] Setting up inception_3b/1x1
I0727 20:23:44.585821 30634 net.cpp:148] Top shape: 10 128 28 28 (1003520)
I0727 20:23:44.585827 30634 net.cpp:156] Memory required for data: 277975040
I0727 20:23:44.585839 30634 layer_factory.hpp:77] Creating layer inception_3b/relu_1x1
I0727 20:23:44.585856 30634 net.cpp:91] Creating Layer inception_3b/relu_1x1
I0727 20:23:44.585863 30634 net.cpp:425] inception_3b/relu_1x1 <- inception_3b/1x1
I0727 20:23:44.585872 30634 net.cpp:386] inception_3b/relu_1x1 -> inception_3b/1x1 (in-place)
I0727 20:23:44.585883 30638 net.cpp:141] Setting up inception_3b/1x1
I0727 20:23:44.585901 30638 net.cpp:148] Top shape: 10 128 28 28 (1003520)
I0727 20:23:44.585906 30638 net.cpp:156] Memory required for data: 277975040
I0727 20:23:44.585914 30638 layer_factory.hpp:77] Creating layer inception_3b/relu_1x1
I0727 20:23:44.585923 30638 net.cpp:91] Creating Layer inception_3b/relu_1x1
I0727 20:23:44.585928 30638 net.cpp:425] inception_3b/relu_1x1 <- inception_3b/1x1
I0727 20:23:44.585939 30638 net.cpp:386] inception_3b/relu_1x1 -> inception_3b/1x1 (in-place)
I0727 20:23:44.586273 30634 net.cpp:141] Setting up inception_3b/relu_1x1
I0727 20:23:44.586287 30634 net.cpp:148] Top shape: 10 128 28 28 (1003520)
I0727 20:23:44.586292 30634 net.cpp:156] Memory required for data: 281989120
I0727 20:23:44.586298 30634 layer_factory.hpp:77] Creating layer inception_3b/3x3_reduce
I0727 20:23:44.586318 30634 net.cpp:91] Creating Layer inception_3b/3x3_reduce
I0727 20:23:44.586324 30634 net.cpp:425] inception_3b/3x3_reduce <- inception_3a/output_inception_3a/output_0_split_1
I0727 20:23:44.586326 30638 net.cpp:141] Setting up inception_3b/relu_1x1
I0727 20:23:44.586338 30634 net.cpp:399] inception_3b/3x3_reduce -> inception_3b/3x3_reduce
I0727 20:23:44.586343 30638 net.cpp:148] Top shape: 10 128 28 28 (1003520)
I0727 20:23:44.586349 30638 net.cpp:156] Memory required for data: 281989120
I0727 20:23:44.586355 30638 layer_factory.hpp:77] Creating layer inception_3b/3x3_reduce
I0727 20:23:44.586372 30638 net.cpp:91] Creating Layer inception_3b/3x3_reduce
I0727 20:23:44.586379 30638 net.cpp:425] inception_3b/3x3_reduce <- inception_3a/output_inception_3a/output_0_split_1
I0727 20:23:44.586387 30638 net.cpp:399] inception_3b/3x3_reduce -> inception_3b/3x3_reduce
I0727 20:23:44.592093 30638 net.cpp:141] Setting up inception_3b/3x3_reduce
I0727 20:23:44.592118 30638 net.cpp:148] Top shape: 10 128 28 28 (1003520)
I0727 20:23:44.592124 30638 net.cpp:156] Memory required for data: 286003200
I0727 20:23:44.592135 30638 layer_factory.hpp:77] Creating layer inception_3b/relu_3x3_reduce
I0727 20:23:44.592149 30638 net.cpp:91] Creating Layer inception_3b/relu_3x3_reduce
I0727 20:23:44.592155 30638 net.cpp:425] inception_3b/relu_3x3_reduce <- inception_3b/3x3_reduce
I0727 20:23:44.592166 30638 net.cpp:386] inception_3b/relu_3x3_reduce -> inception_3b/3x3_reduce (in-place)
I0727 20:23:44.592468 30634 net.cpp:141] Setting up inception_3b/3x3_reduce
I0727 20:23:44.592490 30634 net.cpp:148] Top shape: 10 128 28 28 (1003520)
I0727 20:23:44.592496 30634 net.cpp:156] Memory required for data: 286003200
I0727 20:23:44.592509 30634 layer_factory.hpp:77] Creating layer inception_3b/relu_3x3_reduce
I0727 20:23:44.592525 30634 net.cpp:91] Creating Layer inception_3b/relu_3x3_reduce
I0727 20:23:44.592528 30638 net.cpp:141] Setting up inception_3b/relu_3x3_reduce
I0727 20:23:44.592532 30634 net.cpp:425] inception_3b/relu_3x3_reduce <- inception_3b/3x3_reduce
I0727 20:23:44.592545 30638 net.cpp:148] Top shape: 10 128 28 28 (1003520)
I0727 20:23:44.592550 30638 net.cpp:156] Memory required for data: 290017280
I0727 20:23:44.592553 30634 net.cpp:386] inception_3b/relu_3x3_reduce -> inception_3b/3x3_reduce (in-place)
I0727 20:23:44.592556 30638 layer_factory.hpp:77] Creating layer inception_3b/3x3
I0727 20:23:44.592578 30638 net.cpp:91] Creating Layer inception_3b/3x3
I0727 20:23:44.592584 30638 net.cpp:425] inception_3b/3x3 <- inception_3b/3x3_reduce
I0727 20:23:44.592593 30638 net.cpp:399] inception_3b/3x3 -> inception_3b/3x3
I0727 20:23:44.593029 30634 net.cpp:141] Setting up inception_3b/relu_3x3_reduce
I0727 20:23:44.593044 30634 net.cpp:148] Top shape: 10 128 28 28 (1003520)
I0727 20:23:44.593050 30634 net.cpp:156] Memory required for data: 290017280
I0727 20:23:44.593055 30634 layer_factory.hpp:77] Creating layer inception_3b/3x3
I0727 20:23:44.593078 30634 net.cpp:91] Creating Layer inception_3b/3x3
I0727 20:23:44.593086 30634 net.cpp:425] inception_3b/3x3 <- inception_3b/3x3_reduce
I0727 20:23:44.593096 30634 net.cpp:399] inception_3b/3x3 -> inception_3b/3x3
I0727 20:23:44.601156 30638 net.cpp:141] Setting up inception_3b/3x3
I0727 20:23:44.601183 30638 net.cpp:148] Top shape: 10 192 28 28 (1505280)
I0727 20:23:44.601189 30638 net.cpp:156] Memory required for data: 296038400
I0727 20:23:44.601200 30638 layer_factory.hpp:77] Creating layer inception_3b/relu_3x3
I0727 20:23:44.601219 30638 net.cpp:91] Creating Layer inception_3b/relu_3x3
I0727 20:23:44.601227 30638 net.cpp:425] inception_3b/relu_3x3 <- inception_3b/3x3
I0727 20:23:44.601238 30638 net.cpp:386] inception_3b/relu_3x3 -> inception_3b/3x3 (in-place)
I0727 20:23:44.602296 30638 net.cpp:141] Setting up inception_3b/relu_3x3
I0727 20:23:44.602313 30638 net.cpp:148] Top shape: 10 192 28 28 (1505280)
I0727 20:23:44.602319 30638 net.cpp:156] Memory required for data: 302059520
I0727 20:23:44.602325 30638 layer_factory.hpp:77] Creating layer inception_3b/5x5_reduce
I0727 20:23:44.602349 30638 net.cpp:91] Creating Layer inception_3b/5x5_reduce
I0727 20:23:44.602355 30638 net.cpp:425] inception_3b/5x5_reduce <- inception_3a/output_inception_3a/output_0_split_2
I0727 20:23:44.602365 30638 net.cpp:399] inception_3b/5x5_reduce -> inception_3b/5x5_reduce
I0727 20:23:44.602573 30634 net.cpp:141] Setting up inception_3b/3x3
I0727 20:23:44.602593 30634 net.cpp:148] Top shape: 10 192 28 28 (1505280)
I0727 20:23:44.602599 30634 net.cpp:156] Memory required for data: 296038400
I0727 20:23:44.602610 30634 layer_factory.hpp:77] Creating layer inception_3b/relu_3x3
I0727 20:23:44.602635 30634 net.cpp:91] Creating Layer inception_3b/relu_3x3
I0727 20:23:44.602643 30634 net.cpp:425] inception_3b/relu_3x3 <- inception_3b/3x3
I0727 20:23:44.602655 30634 net.cpp:386] inception_3b/relu_3x3 -> inception_3b/3x3 (in-place)
I0727 20:23:44.603699 30634 net.cpp:141] Setting up inception_3b/relu_3x3
I0727 20:23:44.603718 30634 net.cpp:148] Top shape: 10 192 28 28 (1505280)
I0727 20:23:44.603724 30634 net.cpp:156] Memory required for data: 302059520
I0727 20:23:44.603730 30634 layer_factory.hpp:77] Creating layer inception_3b/5x5_reduce
I0727 20:23:44.603756 30634 net.cpp:91] Creating Layer inception_3b/5x5_reduce
I0727 20:23:44.603763 30634 net.cpp:425] inception_3b/5x5_reduce <- inception_3a/output_inception_3a/output_0_split_2
I0727 20:23:44.603775 30634 net.cpp:399] inception_3b/5x5_reduce -> inception_3b/5x5_reduce
I0727 20:23:44.607836 30638 net.cpp:141] Setting up inception_3b/5x5_reduce
I0727 20:23:44.607861 30638 net.cpp:148] Top shape: 10 32 28 28 (250880)
I0727 20:23:44.607867 30638 net.cpp:156] Memory required for data: 303063040
I0727 20:23:44.607877 30638 layer_factory.hpp:77] Creating layer inception_3b/relu_5x5_reduce
I0727 20:23:44.607890 30638 net.cpp:91] Creating Layer inception_3b/relu_5x5_reduce
I0727 20:23:44.607897 30638 net.cpp:425] inception_3b/relu_5x5_reduce <- inception_3b/5x5_reduce
I0727 20:23:44.607908 30638 net.cpp:386] inception_3b/relu_5x5_reduce -> inception_3b/5x5_reduce (in-place)
I0727 20:23:44.608286 30638 net.cpp:141] Setting up inception_3b/relu_5x5_reduce
I0727 20:23:44.608299 30638 net.cpp:148] Top shape: 10 32 28 28 (250880)
I0727 20:23:44.608304 30638 net.cpp:156] Memory required for data: 304066560
I0727 20:23:44.608309 30638 layer_factory.hpp:77] Creating layer inception_3b/5x5
I0727 20:23:44.608326 30638 net.cpp:91] Creating Layer inception_3b/5x5
I0727 20:23:44.608332 30638 net.cpp:425] inception_3b/5x5 <- inception_3b/5x5_reduce
I0727 20:23:44.608343 30638 net.cpp:399] inception_3b/5x5 -> inception_3b/5x5
I0727 20:23:44.611356 30634 net.cpp:141] Setting up inception_3b/5x5_reduce
I0727 20:23:44.611378 30634 net.cpp:148] Top shape: 10 32 28 28 (250880)
I0727 20:23:44.611385 30634 net.cpp:156] Memory required for data: 303063040
I0727 20:23:44.611397 30634 layer_factory.hpp:77] Creating layer inception_3b/relu_5x5_reduce
I0727 20:23:44.611410 30634 net.cpp:91] Creating Layer inception_3b/relu_5x5_reduce
I0727 20:23:44.611418 30634 net.cpp:425] inception_3b/relu_5x5_reduce <- inception_3b/5x5_reduce
I0727 20:23:44.611428 30634 net.cpp:386] inception_3b/relu_5x5_reduce -> inception_3b/5x5_reduce (in-place)
I0727 20:23:44.611780 30634 net.cpp:141] Setting up inception_3b/relu_5x5_reduce
I0727 20:23:44.611794 30634 net.cpp:148] Top shape: 10 32 28 28 (250880)
I0727 20:23:44.611799 30634 net.cpp:156] Memory required for data: 304066560
I0727 20:23:44.611806 30634 layer_factory.hpp:77] Creating layer inception_3b/5x5
I0727 20:23:44.611825 30634 net.cpp:91] Creating Layer inception_3b/5x5
I0727 20:23:44.611832 30634 net.cpp:425] inception_3b/5x5 <- inception_3b/5x5_reduce
I0727 20:23:44.611845 30634 net.cpp:399] inception_3b/5x5 -> inception_3b/5x5
I0727 20:23:44.616029 30638 net.cpp:141] Setting up inception_3b/5x5
I0727 20:23:44.616056 30638 net.cpp:148] Top shape: 10 96 28 28 (752640)
I0727 20:23:44.616061 30638 net.cpp:156] Memory required for data: 307077120
I0727 20:23:44.616071 30638 layer_factory.hpp:77] Creating layer inception_3b/relu_5x5
I0727 20:23:44.616087 30638 net.cpp:91] Creating Layer inception_3b/relu_5x5
I0727 20:23:44.616094 30638 net.cpp:425] inception_3b/relu_5x5 <- inception_3b/5x5
I0727 20:23:44.616102 30638 net.cpp:386] inception_3b/relu_5x5 -> inception_3b/5x5 (in-place)
I0727 20:23:44.616405 30638 net.cpp:141] Setting up inception_3b/relu_5x5
I0727 20:23:44.616416 30638 net.cpp:148] Top shape: 10 96 28 28 (752640)
I0727 20:23:44.616421 30638 net.cpp:156] Memory required for data: 310087680
I0727 20:23:44.616426 30638 layer_factory.hpp:77] Creating layer inception_3b/pool
I0727 20:23:44.616441 30638 net.cpp:91] Creating Layer inception_3b/pool
I0727 20:23:44.616446 30638 net.cpp:425] inception_3b/pool <- inception_3a/output_inception_3a/output_0_split_3
I0727 20:23:44.616457 30638 net.cpp:399] inception_3b/pool -> inception_3b/pool
I0727 20:23:44.617323 30638 net.cpp:141] Setting up inception_3b/pool
I0727 20:23:44.617337 30638 net.cpp:148] Top shape: 10 256 28 28 (2007040)
I0727 20:23:44.617342 30638 net.cpp:156] Memory required for data: 318115840
I0727 20:23:44.617347 30638 layer_factory.hpp:77] Creating layer inception_3b/pool_proj
I0727 20:23:44.617367 30638 net.cpp:91] Creating Layer inception_3b/pool_proj
I0727 20:23:44.617372 30638 net.cpp:425] inception_3b/pool_proj <- inception_3b/pool
I0727 20:23:44.617382 30638 net.cpp:399] inception_3b/pool_proj -> inception_3b/pool_proj
I0727 20:23:44.619524 30634 net.cpp:141] Setting up inception_3b/5x5
I0727 20:23:44.619547 30634 net.cpp:148] Top shape: 10 96 28 28 (752640)
I0727 20:23:44.619554 30634 net.cpp:156] Memory required for data: 307077120
I0727 20:23:44.619565 30634 layer_factory.hpp:77] Creating layer inception_3b/relu_5x5
I0727 20:23:44.619580 30634 net.cpp:91] Creating Layer inception_3b/relu_5x5
I0727 20:23:44.619586 30634 net.cpp:425] inception_3b/relu_5x5 <- inception_3b/5x5
I0727 20:23:44.619595 30634 net.cpp:386] inception_3b/relu_5x5 -> inception_3b/5x5 (in-place)
I0727 20:23:44.619948 30634 net.cpp:141] Setting up inception_3b/relu_5x5
I0727 20:23:44.619961 30634 net.cpp:148] Top shape: 10 96 28 28 (752640)
I0727 20:23:44.619966 30634 net.cpp:156] Memory required for data: 310087680
I0727 20:23:44.619972 30634 layer_factory.hpp:77] Creating layer inception_3b/pool
I0727 20:23:44.619987 30634 net.cpp:91] Creating Layer inception_3b/pool
I0727 20:23:44.619992 30634 net.cpp:425] inception_3b/pool <- inception_3a/output_inception_3a/output_0_split_3
I0727 20:23:44.620002 30634 net.cpp:399] inception_3b/pool -> inception_3b/pool
I0727 20:23:44.620461 30634 net.cpp:141] Setting up inception_3b/pool
I0727 20:23:44.620476 30634 net.cpp:148] Top shape: 10 256 28 28 (2007040)
I0727 20:23:44.620482 30634 net.cpp:156] Memory required for data: 318115840
I0727 20:23:44.620488 30634 layer_factory.hpp:77] Creating layer inception_3b/pool_proj
I0727 20:23:44.620507 30634 net.cpp:91] Creating Layer inception_3b/pool_proj
I0727 20:23:44.620513 30634 net.cpp:425] inception_3b/pool_proj <- inception_3b/pool
I0727 20:23:44.620532 30634 net.cpp:399] inception_3b/pool_proj -> inception_3b/pool_proj
I0727 20:23:44.622486 30638 net.cpp:141] Setting up inception_3b/pool_proj
I0727 20:23:44.622508 30638 net.cpp:148] Top shape: 10 64 28 28 (501760)
I0727 20:23:44.622514 30638 net.cpp:156] Memory required for data: 320122880
I0727 20:23:44.622524 30638 layer_factory.hpp:77] Creating layer inception_3b/relu_pool_proj
I0727 20:23:44.622537 30638 net.cpp:91] Creating Layer inception_3b/relu_pool_proj
I0727 20:23:44.622544 30638 net.cpp:425] inception_3b/relu_pool_proj <- inception_3b/pool_proj
I0727 20:23:44.622551 30638 net.cpp:386] inception_3b/relu_pool_proj -> inception_3b/pool_proj (in-place)
I0727 20:23:44.623855 30638 net.cpp:141] Setting up inception_3b/relu_pool_proj
I0727 20:23:44.623875 30638 net.cpp:148] Top shape: 10 64 28 28 (501760)
I0727 20:23:44.623880 30638 net.cpp:156] Memory required for data: 322129920
I0727 20:23:44.623886 30638 layer_factory.hpp:77] Creating layer inception_3b/output
I0727 20:23:44.623901 30638 net.cpp:91] Creating Layer inception_3b/output
I0727 20:23:44.623908 30638 net.cpp:425] inception_3b/output <- inception_3b/1x1
I0727 20:23:44.623915 30638 net.cpp:425] inception_3b/output <- inception_3b/3x3
I0727 20:23:44.623920 30638 net.cpp:425] inception_3b/output <- inception_3b/5x5
I0727 20:23:44.623926 30638 net.cpp:425] inception_3b/output <- inception_3b/pool_proj
I0727 20:23:44.623934 30638 net.cpp:399] inception_3b/output -> inception_3b/output
I0727 20:23:44.624264 30638 net.cpp:141] Setting up inception_3b/output
I0727 20:23:44.624284 30638 net.cpp:148] Top shape: 10 480 28 28 (3763200)
I0727 20:23:44.624292 30638 net.cpp:156] Memory required for data: 337182720
I0727 20:23:44.624301 30638 layer_factory.hpp:77] Creating layer pool3/3x3_s2
I0727 20:23:44.624325 30638 net.cpp:91] Creating Layer pool3/3x3_s2
I0727 20:23:44.624337 30638 net.cpp:425] pool3/3x3_s2 <- inception_3b/output
I0727 20:23:44.624356 30638 net.cpp:399] pool3/3x3_s2 -> pool3/3x3_s2
I0727 20:23:44.624866 30638 net.cpp:141] Setting up pool3/3x3_s2
I0727 20:23:44.624891 30638 net.cpp:148] Top shape: 10 480 14 14 (940800)
I0727 20:23:44.624899 30638 net.cpp:156] Memory required for data: 340945920
I0727 20:23:44.624908 30638 layer_factory.hpp:77] Creating layer pool3/3x3_s2_pool3/3x3_s2_0_split
I0727 20:23:44.624922 30638 net.cpp:91] Creating Layer pool3/3x3_s2_pool3/3x3_s2_0_split
I0727 20:23:44.624932 30638 net.cpp:425] pool3/3x3_s2_pool3/3x3_s2_0_split <- pool3/3x3_s2
I0727 20:23:44.624948 30638 net.cpp:399] pool3/3x3_s2_pool3/3x3_s2_0_split -> pool3/3x3_s2_pool3/3x3_s2_0_split_0
I0727 20:23:44.624963 30638 net.cpp:399] pool3/3x3_s2_pool3/3x3_s2_0_split -> pool3/3x3_s2_pool3/3x3_s2_0_split_1
I0727 20:23:44.624977 30638 net.cpp:399] pool3/3x3_s2_pool3/3x3_s2_0_split -> pool3/3x3_s2_pool3/3x3_s2_0_split_2
I0727 20:23:44.624991 30638 net.cpp:399] pool3/3x3_s2_pool3/3x3_s2_0_split -> pool3/3x3_s2_pool3/3x3_s2_0_split_3
I0727 20:23:44.625685 30638 net.cpp:141] Setting up pool3/3x3_s2_pool3/3x3_s2_0_split
I0727 20:23:44.625707 30638 net.cpp:148] Top shape: 10 480 14 14 (940800)
I0727 20:23:44.625713 30634 net.cpp:141] Setting up inception_3b/pool_proj
I0727 20:23:44.625718 30638 net.cpp:148] Top shape: 10 480 14 14 (940800)
I0727 20:23:44.625740 30634 net.cpp:148] Top shape: 10 64 28 28 (501760)
I0727 20:23:44.625747 30634 net.cpp:156] Memory required for data: 320122880
I0727 20:23:44.625747 30638 net.cpp:148] Top shape: 10 480 14 14 (940800)
I0727 20:23:44.625761 30638 net.cpp:148] Top shape: 10 480 14 14 (940800)
I0727 20:23:44.625764 30634 layer_factory.hpp:77] Creating layer inception_3b/relu_pool_proj
I0727 20:23:44.625768 30638 net.cpp:156] Memory required for data: 355998720
I0727 20:23:44.625778 30638 layer_factory.hpp:77] Creating layer inception_4a/1x1
I0727 20:23:44.625782 30634 net.cpp:91] Creating Layer inception_3b/relu_pool_proj
I0727 20:23:44.625789 30634 net.cpp:425] inception_3b/relu_pool_proj <- inception_3b/pool_proj
I0727 20:23:44.625798 30634 net.cpp:386] inception_3b/relu_pool_proj -> inception_3b/pool_proj (in-place)
I0727 20:23:44.625810 30638 net.cpp:91] Creating Layer inception_4a/1x1
I0727 20:23:44.625823 30638 net.cpp:425] inception_4a/1x1 <- pool3/3x3_s2_pool3/3x3_s2_0_split_0
I0727 20:23:44.625838 30638 net.cpp:399] inception_4a/1x1 -> inception_4a/1x1
I0727 20:23:44.627030 30634 net.cpp:141] Setting up inception_3b/relu_pool_proj
I0727 20:23:44.627051 30634 net.cpp:148] Top shape: 10 64 28 28 (501760)
I0727 20:23:44.627056 30634 net.cpp:156] Memory required for data: 322129920
I0727 20:23:44.627063 30634 layer_factory.hpp:77] Creating layer inception_3b/output
I0727 20:23:44.627080 30634 net.cpp:91] Creating Layer inception_3b/output
I0727 20:23:44.627089 30634 net.cpp:425] inception_3b/output <- inception_3b/1x1
I0727 20:23:44.627097 30634 net.cpp:425] inception_3b/output <- inception_3b/3x3
I0727 20:23:44.627104 30634 net.cpp:425] inception_3b/output <- inception_3b/5x5
I0727 20:23:44.627110 30634 net.cpp:425] inception_3b/output <- inception_3b/pool_proj
I0727 20:23:44.627117 30634 net.cpp:399] inception_3b/output -> inception_3b/output
I0727 20:23:44.627259 30634 net.cpp:141] Setting up inception_3b/output
I0727 20:23:44.627272 30634 net.cpp:148] Top shape: 10 480 28 28 (3763200)
I0727 20:23:44.627279 30634 net.cpp:156] Memory required for data: 337182720
I0727 20:23:44.627284 30634 layer_factory.hpp:77] Creating layer pool3/3x3_s2
I0727 20:23:44.627295 30634 net.cpp:91] Creating Layer pool3/3x3_s2
I0727 20:23:44.627300 30634 net.cpp:425] pool3/3x3_s2 <- inception_3b/output
I0727 20:23:44.627311 30634 net.cpp:399] pool3/3x3_s2 -> pool3/3x3_s2
I0727 20:23:44.627440 30634 net.cpp:141] Setting up pool3/3x3_s2
I0727 20:23:44.627454 30634 net.cpp:148] Top shape: 10 480 14 14 (940800)
I0727 20:23:44.627459 30634 net.cpp:156] Memory required for data: 340945920
I0727 20:23:44.627465 30634 layer_factory.hpp:77] Creating layer pool3/3x3_s2_pool3/3x3_s2_0_split
I0727 20:23:44.627477 30634 net.cpp:91] Creating Layer pool3/3x3_s2_pool3/3x3_s2_0_split
I0727 20:23:44.627483 30634 net.cpp:425] pool3/3x3_s2_pool3/3x3_s2_0_split <- pool3/3x3_s2
I0727 20:23:44.627491 30634 net.cpp:399] pool3/3x3_s2_pool3/3x3_s2_0_split -> pool3/3x3_s2_pool3/3x3_s2_0_split_0
I0727 20:23:44.627501 30634 net.cpp:399] pool3/3x3_s2_pool3/3x3_s2_0_split -> pool3/3x3_s2_pool3/3x3_s2_0_split_1
I0727 20:23:44.627511 30634 net.cpp:399] pool3/3x3_s2_pool3/3x3_s2_0_split -> pool3/3x3_s2_pool3/3x3_s2_0_split_2
I0727 20:23:44.627519 30634 net.cpp:399] pool3/3x3_s2_pool3/3x3_s2_0_split -> pool3/3x3_s2_pool3/3x3_s2_0_split_3
I0727 20:23:44.627681 30634 net.cpp:141] Setting up pool3/3x3_s2_pool3/3x3_s2_0_split
I0727 20:23:44.627692 30634 net.cpp:148] Top shape: 10 480 14 14 (940800)
I0727 20:23:44.627699 30634 net.cpp:148] Top shape: 10 480 14 14 (940800)
I0727 20:23:44.627706 30634 net.cpp:148] Top shape: 10 480 14 14 (940800)
I0727 20:23:44.627712 30634 net.cpp:148] Top shape: 10 480 14 14 (940800)
I0727 20:23:44.627717 30634 net.cpp:156] Memory required for data: 355998720
I0727 20:23:44.627724 30634 layer_factory.hpp:77] Creating layer inception_4a/1x1
I0727 20:23:44.627748 30634 net.cpp:91] Creating Layer inception_4a/1x1
I0727 20:23:44.627753 30634 net.cpp:425] inception_4a/1x1 <- pool3/3x3_s2_pool3/3x3_s2_0_split_0
I0727 20:23:44.627763 30634 net.cpp:399] inception_4a/1x1 -> inception_4a/1x1
I0727 20:23:44.633599 30638 net.cpp:141] Setting up inception_4a/1x1
I0727 20:23:44.633635 30638 net.cpp:148] Top shape: 10 192 14 14 (376320)
I0727 20:23:44.633641 30638 net.cpp:156] Memory required for data: 357504000
I0727 20:23:44.633656 30638 layer_factory.hpp:77] Creating layer inception_4a/relu_1x1
I0727 20:23:44.633669 30638 net.cpp:91] Creating Layer inception_4a/relu_1x1
I0727 20:23:44.633679 30638 net.cpp:425] inception_4a/relu_1x1 <- inception_4a/1x1
I0727 20:23:44.633688 30638 net.cpp:386] inception_4a/relu_1x1 -> inception_4a/1x1 (in-place)
I0727 20:23:44.634090 30634 net.cpp:141] Setting up inception_4a/1x1
I0727 20:23:44.634107 30638 net.cpp:141] Setting up inception_4a/relu_1x1
I0727 20:23:44.634112 30634 net.cpp:148] Top shape: 10 192 14 14 (376320)
I0727 20:23:44.634124 30638 net.cpp:148] Top shape: 10 192 14 14 (376320)
I0727 20:23:44.634129 30634 net.cpp:156] Memory required for data: 357504000
I0727 20:23:44.634130 30638 net.cpp:156] Memory required for data: 359009280
I0727 20:23:44.634145 30638 layer_factory.hpp:77] Creating layer inception_4a/3x3_reduce
I0727 20:23:44.634145 30634 layer_factory.hpp:77] Creating layer inception_4a/relu_1x1
I0727 20:23:44.634166 30634 net.cpp:91] Creating Layer inception_4a/relu_1x1
I0727 20:23:44.634172 30638 net.cpp:91] Creating Layer inception_4a/3x3_reduce
I0727 20:23:44.634174 30634 net.cpp:425] inception_4a/relu_1x1 <- inception_4a/1x1
I0727 20:23:44.634179 30638 net.cpp:425] inception_4a/3x3_reduce <- pool3/3x3_s2_pool3/3x3_s2_0_split_1
I0727 20:23:44.634184 30634 net.cpp:386] inception_4a/relu_1x1 -> inception_4a/1x1 (in-place)
I0727 20:23:44.634191 30638 net.cpp:399] inception_4a/3x3_reduce -> inception_4a/3x3_reduce
I0727 20:23:44.634744 30634 net.cpp:141] Setting up inception_4a/relu_1x1
I0727 20:23:44.634763 30634 net.cpp:148] Top shape: 10 192 14 14 (376320)
I0727 20:23:44.634769 30634 net.cpp:156] Memory required for data: 359009280
I0727 20:23:44.634775 30634 layer_factory.hpp:77] Creating layer inception_4a/3x3_reduce
I0727 20:23:44.634793 30634 net.cpp:91] Creating Layer inception_4a/3x3_reduce
I0727 20:23:44.634800 30634 net.cpp:425] inception_4a/3x3_reduce <- pool3/3x3_s2_pool3/3x3_s2_0_split_1
I0727 20:23:44.634811 30634 net.cpp:399] inception_4a/3x3_reduce -> inception_4a/3x3_reduce
I0727 20:23:44.639592 30638 net.cpp:141] Setting up inception_4a/3x3_reduce
I0727 20:23:44.639616 30638 net.cpp:148] Top shape: 10 96 14 14 (188160)
I0727 20:23:44.639621 30638 net.cpp:156] Memory required for data: 359761920
I0727 20:23:44.639644 30638 layer_factory.hpp:77] Creating layer inception_4a/relu_3x3_reduce
I0727 20:23:44.639657 30638 net.cpp:91] Creating Layer inception_4a/relu_3x3_reduce
I0727 20:23:44.639664 30638 net.cpp:425] inception_4a/relu_3x3_reduce <- inception_4a/3x3_reduce
I0727 20:23:44.639672 30638 net.cpp:386] inception_4a/relu_3x3_reduce -> inception_4a/3x3_reduce (in-place)
I0727 20:23:44.639991 30634 net.cpp:141] Setting up inception_4a/3x3_reduce
I0727 20:23:44.640008 30634 net.cpp:148] Top shape: 10 96 14 14 (188160)
I0727 20:23:44.640014 30634 net.cpp:156] Memory required for data: 359761920
I0727 20:23:44.640035 30638 net.cpp:141] Setting up inception_4a/relu_3x3_reduce
I0727 20:23:44.640040 30634 layer_factory.hpp:77] Creating layer inception_4a/relu_3x3_reduce
I0727 20:23:44.640048 30638 net.cpp:148] Top shape: 10 96 14 14 (188160)
I0727 20:23:44.640054 30638 net.cpp:156] Memory required for data: 360514560
I0727 20:23:44.640055 30634 net.cpp:91] Creating Layer inception_4a/relu_3x3_reduce
I0727 20:23:44.640059 30638 layer_factory.hpp:77] Creating layer inception_4a/3x3
I0727 20:23:44.640063 30634 net.cpp:425] inception_4a/relu_3x3_reduce <- inception_4a/3x3_reduce
I0727 20:23:44.640071 30634 net.cpp:386] inception_4a/relu_3x3_reduce -> inception_4a/3x3_reduce (in-place)
I0727 20:23:44.640079 30638 net.cpp:91] Creating Layer inception_4a/3x3
I0727 20:23:44.640085 30638 net.cpp:425] inception_4a/3x3 <- inception_4a/3x3_reduce
I0727 20:23:44.640095 30638 net.cpp:399] inception_4a/3x3 -> inception_4a/3x3
I0727 20:23:44.640579 30634 net.cpp:141] Setting up inception_4a/relu_3x3_reduce
I0727 20:23:44.640594 30634 net.cpp:148] Top shape: 10 96 14 14 (188160)
I0727 20:23:44.640599 30634 net.cpp:156] Memory required for data: 360514560
I0727 20:23:44.640605 30634 layer_factory.hpp:77] Creating layer inception_4a/3x3
I0727 20:23:44.640624 30634 net.cpp:91] Creating Layer inception_4a/3x3
I0727 20:23:44.640630 30634 net.cpp:425] inception_4a/3x3 <- inception_4a/3x3_reduce
I0727 20:23:44.640642 30634 net.cpp:399] inception_4a/3x3 -> inception_4a/3x3
I0727 20:23:44.648546 30638 net.cpp:141] Setting up inception_4a/3x3
I0727 20:23:44.648574 30638 net.cpp:148] Top shape: 10 208 14 14 (407680)
I0727 20:23:44.648581 30638 net.cpp:156] Memory required for data: 362145280
I0727 20:23:44.648593 30638 layer_factory.hpp:77] Creating layer inception_4a/relu_3x3
I0727 20:23:44.648609 30638 net.cpp:91] Creating Layer inception_4a/relu_3x3
I0727 20:23:44.648617 30638 net.cpp:425] inception_4a/relu_3x3 <- inception_4a/3x3
I0727 20:23:44.648624 30638 net.cpp:386] inception_4a/relu_3x3 -> inception_4a/3x3 (in-place)
I0727 20:23:44.649796 30638 net.cpp:141] Setting up inception_4a/relu_3x3
I0727 20:23:44.649814 30638 net.cpp:148] Top shape: 10 208 14 14 (407680)
I0727 20:23:44.649821 30638 net.cpp:156] Memory required for data: 363776000
I0727 20:23:44.649826 30638 layer_factory.hpp:77] Creating layer inception_4a/5x5_reduce
I0727 20:23:44.649848 30638 net.cpp:91] Creating Layer inception_4a/5x5_reduce
I0727 20:23:44.649855 30638 net.cpp:425] inception_4a/5x5_reduce <- pool3/3x3_s2_pool3/3x3_s2_0_split_2
I0727 20:23:44.649866 30638 net.cpp:399] inception_4a/5x5_reduce -> inception_4a/5x5_reduce
I0727 20:23:44.649952 30634 net.cpp:141] Setting up inception_4a/3x3
I0727 20:23:44.649971 30634 net.cpp:148] Top shape: 10 208 14 14 (407680)
I0727 20:23:44.649977 30634 net.cpp:156] Memory required for data: 362145280
I0727 20:23:44.649987 30634 layer_factory.hpp:77] Creating layer inception_4a/relu_3x3
I0727 20:23:44.650002 30634 net.cpp:91] Creating Layer inception_4a/relu_3x3
I0727 20:23:44.650009 30634 net.cpp:425] inception_4a/relu_3x3 <- inception_4a/3x3
I0727 20:23:44.650020 30634 net.cpp:386] inception_4a/relu_3x3 -> inception_4a/3x3 (in-place)
I0727 20:23:44.651064 30634 net.cpp:141] Setting up inception_4a/relu_3x3
I0727 20:23:44.651082 30634 net.cpp:148] Top shape: 10 208 14 14 (407680)
I0727 20:23:44.651088 30634 net.cpp:156] Memory required for data: 363776000
I0727 20:23:44.651093 30634 layer_factory.hpp:77] Creating layer inception_4a/5x5_reduce
I0727 20:23:44.651119 30634 net.cpp:91] Creating Layer inception_4a/5x5_reduce
I0727 20:23:44.651127 30634 net.cpp:425] inception_4a/5x5_reduce <- pool3/3x3_s2_pool3/3x3_s2_0_split_2
I0727 20:23:44.651142 30634 net.cpp:399] inception_4a/5x5_reduce -> inception_4a/5x5_reduce
I0727 20:23:44.655495 30638 net.cpp:141] Setting up inception_4a/5x5_reduce
I0727 20:23:44.655517 30638 net.cpp:148] Top shape: 10 16 14 14 (31360)
I0727 20:23:44.655522 30638 net.cpp:156] Memory required for data: 363901440
I0727 20:23:44.655534 30638 layer_factory.hpp:77] Creating layer inception_4a/relu_5x5_reduce
I0727 20:23:44.655546 30638 net.cpp:91] Creating Layer inception_4a/relu_5x5_reduce
I0727 20:23:44.655555 30638 net.cpp:425] inception_4a/relu_5x5_reduce <- inception_4a/5x5_reduce
I0727 20:23:44.655563 30638 net.cpp:386] inception_4a/relu_5x5_reduce -> inception_4a/5x5_reduce (in-place)
I0727 20:23:44.655887 30638 net.cpp:141] Setting up inception_4a/relu_5x5_reduce
I0727 20:23:44.655900 30638 net.cpp:148] Top shape: 10 16 14 14 (31360)
I0727 20:23:44.655905 30638 net.cpp:156] Memory required for data: 364026880
I0727 20:23:44.655910 30638 layer_factory.hpp:77] Creating layer inception_4a/5x5
I0727 20:23:44.655928 30638 net.cpp:91] Creating Layer inception_4a/5x5
I0727 20:23:44.655935 30638 net.cpp:425] inception_4a/5x5 <- inception_4a/5x5_reduce
I0727 20:23:44.655946 30638 net.cpp:399] inception_4a/5x5 -> inception_4a/5x5
I0727 20:23:44.657268 30634 net.cpp:141] Setting up inception_4a/5x5_reduce
I0727 20:23:44.657287 30634 net.cpp:148] Top shape: 10 16 14 14 (31360)
I0727 20:23:44.657294 30634 net.cpp:156] Memory required for data: 363901440
I0727 20:23:44.657307 30634 layer_factory.hpp:77] Creating layer inception_4a/relu_5x5_reduce
I0727 20:23:44.657318 30634 net.cpp:91] Creating Layer inception_4a/relu_5x5_reduce
I0727 20:23:44.657325 30634 net.cpp:425] inception_4a/relu_5x5_reduce <- inception_4a/5x5_reduce
I0727 20:23:44.657337 30634 net.cpp:386] inception_4a/relu_5x5_reduce -> inception_4a/5x5_reduce (in-place)
I0727 20:23:44.657745 30634 net.cpp:141] Setting up inception_4a/relu_5x5_reduce
I0727 20:23:44.657762 30634 net.cpp:148] Top shape: 10 16 14 14 (31360)
I0727 20:23:44.657768 30634 net.cpp:156] Memory required for data: 364026880
I0727 20:23:44.657773 30634 layer_factory.hpp:77] Creating layer inception_4a/5x5
I0727 20:23:44.657795 30634 net.cpp:91] Creating Layer inception_4a/5x5
I0727 20:23:44.657804 30634 net.cpp:425] inception_4a/5x5 <- inception_4a/5x5_reduce
I0727 20:23:44.657814 30634 net.cpp:399] inception_4a/5x5 -> inception_4a/5x5
I0727 20:23:44.660625 30638 net.cpp:141] Setting up inception_4a/5x5
I0727 20:23:44.660646 30638 net.cpp:148] Top shape: 10 48 14 14 (94080)
I0727 20:23:44.660651 30638 net.cpp:156] Memory required for data: 364403200
I0727 20:23:44.660661 30638 layer_factory.hpp:77] Creating layer inception_4a/relu_5x5
I0727 20:23:44.660673 30638 net.cpp:91] Creating Layer inception_4a/relu_5x5
I0727 20:23:44.660679 30638 net.cpp:425] inception_4a/relu_5x5 <- inception_4a/5x5
I0727 20:23:44.660687 30638 net.cpp:386] inception_4a/relu_5x5 -> inception_4a/5x5 (in-place)
I0727 20:23:44.660998 30638 net.cpp:141] Setting up inception_4a/relu_5x5
I0727 20:23:44.661010 30638 net.cpp:148] Top shape: 10 48 14 14 (94080)
I0727 20:23:44.661015 30638 net.cpp:156] Memory required for data: 364779520
I0727 20:23:44.661020 30638 layer_factory.hpp:77] Creating layer inception_4a/pool
I0727 20:23:44.661033 30638 net.cpp:91] Creating Layer inception_4a/pool
I0727 20:23:44.661039 30638 net.cpp:425] inception_4a/pool <- pool3/3x3_s2_pool3/3x3_s2_0_split_3
I0727 20:23:44.661048 30638 net.cpp:399] inception_4a/pool -> inception_4a/pool
I0727 20:23:44.661562 30638 net.cpp:141] Setting up inception_4a/pool
I0727 20:23:44.661576 30638 net.cpp:148] Top shape: 10 480 14 14 (940800)
I0727 20:23:44.661581 30638 net.cpp:156] Memory required for data: 368542720
I0727 20:23:44.661586 30638 layer_factory.hpp:77] Creating layer inception_4a/pool_proj
I0727 20:23:44.661607 30638 net.cpp:91] Creating Layer inception_4a/pool_proj
I0727 20:23:44.661612 30638 net.cpp:425] inception_4a/pool_proj <- inception_4a/pool
I0727 20:23:44.661622 30638 net.cpp:399] inception_4a/pool_proj -> inception_4a/pool_proj
I0727 20:23:44.663601 30634 net.cpp:141] Setting up inception_4a/5x5
I0727 20:23:44.663626 30634 net.cpp:148] Top shape: 10 48 14 14 (94080)
I0727 20:23:44.663632 30634 net.cpp:156] Memory required for data: 364403200
I0727 20:23:44.663643 30634 layer_factory.hpp:77] Creating layer inception_4a/relu_5x5
I0727 20:23:44.663656 30634 net.cpp:91] Creating Layer inception_4a/relu_5x5
I0727 20:23:44.663662 30634 net.cpp:425] inception_4a/relu_5x5 <- inception_4a/5x5
I0727 20:23:44.663671 30634 net.cpp:386] inception_4a/relu_5x5 -> inception_4a/5x5 (in-place)
I0727 20:23:44.664095 30634 net.cpp:141] Setting up inception_4a/relu_5x5
I0727 20:23:44.664108 30634 net.cpp:148] Top shape: 10 48 14 14 (94080)
I0727 20:23:44.664114 30634 net.cpp:156] Memory required for data: 364779520
I0727 20:23:44.664119 30634 layer_factory.hpp:77] Creating layer inception_4a/pool
I0727 20:23:44.664131 30634 net.cpp:91] Creating Layer inception_4a/pool
I0727 20:23:44.664140 30634 net.cpp:425] inception_4a/pool <- pool3/3x3_s2_pool3/3x3_s2_0_split_3
I0727 20:23:44.664149 30634 net.cpp:399] inception_4a/pool -> inception_4a/pool
I0727 20:23:44.664975 30634 net.cpp:141] Setting up inception_4a/pool
I0727 20:23:44.664990 30634 net.cpp:148] Top shape: 10 480 14 14 (940800)
I0727 20:23:44.664995 30634 net.cpp:156] Memory required for data: 368542720
I0727 20:23:44.665002 30634 layer_factory.hpp:77] Creating layer inception_4a/pool_proj
I0727 20:23:44.665021 30634 net.cpp:91] Creating Layer inception_4a/pool_proj
I0727 20:23:44.665029 30634 net.cpp:425] inception_4a/pool_proj <- inception_4a/pool
I0727 20:23:44.665045 30634 net.cpp:399] inception_4a/pool_proj -> inception_4a/pool_proj
I0727 20:23:44.666914 30638 net.cpp:141] Setting up inception_4a/pool_proj
I0727 20:23:44.666942 30638 net.cpp:148] Top shape: 10 64 14 14 (125440)
I0727 20:23:44.666949 30638 net.cpp:156] Memory required for data: 369044480
I0727 20:23:44.666962 30638 layer_factory.hpp:77] Creating layer inception_4a/relu_pool_proj
I0727 20:23:44.666975 30638 net.cpp:91] Creating Layer inception_4a/relu_pool_proj
I0727 20:23:44.666983 30638 net.cpp:425] inception_4a/relu_pool_proj <- inception_4a/pool_proj
I0727 20:23:44.666992 30638 net.cpp:386] inception_4a/relu_pool_proj -> inception_4a/pool_proj (in-place)
I0727 20:23:44.667903 30638 net.cpp:141] Setting up inception_4a/relu_pool_proj
I0727 20:23:44.667919 30638 net.cpp:148] Top shape: 10 64 14 14 (125440)
I0727 20:23:44.667924 30638 net.cpp:156] Memory required for data: 369546240
I0727 20:23:44.667929 30638 layer_factory.hpp:77] Creating layer inception_4a/output
I0727 20:23:44.667938 30638 net.cpp:91] Creating Layer inception_4a/output
I0727 20:23:44.667943 30638 net.cpp:425] inception_4a/output <- inception_4a/1x1
I0727 20:23:44.667950 30638 net.cpp:425] inception_4a/output <- inception_4a/3x3
I0727 20:23:44.667956 30638 net.cpp:425] inception_4a/output <- inception_4a/5x5
I0727 20:23:44.667961 30638 net.cpp:425] inception_4a/output <- inception_4a/pool_proj
I0727 20:23:44.667971 30638 net.cpp:399] inception_4a/output -> inception_4a/output
I0727 20:23:44.668648 30638 net.cpp:141] Setting up inception_4a/output
I0727 20:23:44.668663 30638 net.cpp:148] Top shape: 10 512 14 14 (1003520)
I0727 20:23:44.668668 30638 net.cpp:156] Memory required for data: 373560320
I0727 20:23:44.668673 30638 layer_factory.hpp:77] Creating layer inception_4a/output_inception_4a/output_0_split
I0727 20:23:44.668684 30638 net.cpp:91] Creating Layer inception_4a/output_inception_4a/output_0_split
I0727 20:23:44.668689 30638 net.cpp:425] inception_4a/output_inception_4a/output_0_split <- inception_4a/output
I0727 20:23:44.668696 30638 net.cpp:399] inception_4a/output_inception_4a/output_0_split -> inception_4a/output_inception_4a/output_0_split_0
I0727 20:23:44.668706 30638 net.cpp:399] inception_4a/output_inception_4a/output_0_split -> inception_4a/output_inception_4a/output_0_split_1
I0727 20:23:44.668715 30638 net.cpp:399] inception_4a/output_inception_4a/output_0_split -> inception_4a/output_inception_4a/output_0_split_2
I0727 20:23:44.668723 30638 net.cpp:399] inception_4a/output_inception_4a/output_0_split -> inception_4a/output_inception_4a/output_0_split_3
I0727 20:23:44.669798 30638 net.cpp:141] Setting up inception_4a/output_inception_4a/output_0_split
I0727 20:23:44.669816 30638 net.cpp:148] Top shape: 10 512 14 14 (1003520)
I0727 20:23:44.669821 30638 net.cpp:148] Top shape: 10 512 14 14 (1003520)
I0727 20:23:44.669827 30638 net.cpp:148] Top shape: 10 512 14 14 (1003520)
I0727 20:23:44.669832 30638 net.cpp:148] Top shape: 10 512 14 14 (1003520)
I0727 20:23:44.669837 30638 net.cpp:156] Memory required for data: 389616640
I0727 20:23:44.669842 30638 layer_factory.hpp:77] Creating layer inception_4b/1x1
I0727 20:23:44.669868 30638 net.cpp:91] Creating Layer inception_4b/1x1
I0727 20:23:44.669875 30638 net.cpp:425] inception_4b/1x1 <- inception_4a/output_inception_4a/output_0_split_0
I0727 20:23:44.669884 30638 net.cpp:399] inception_4b/1x1 -> inception_4b/1x1
I0727 20:23:44.671160 30634 net.cpp:141] Setting up inception_4a/pool_proj
I0727 20:23:44.671192 30634 net.cpp:148] Top shape: 10 64 14 14 (125440)
I0727 20:23:44.671200 30634 net.cpp:156] Memory required for data: 369044480
I0727 20:23:44.671212 30634 layer_factory.hpp:77] Creating layer inception_4a/relu_pool_proj
I0727 20:23:44.671228 30634 net.cpp:91] Creating Layer inception_4a/relu_pool_proj
I0727 20:23:44.671238 30634 net.cpp:425] inception_4a/relu_pool_proj <- inception_4a/pool_proj
I0727 20:23:44.671248 30634 net.cpp:386] inception_4a/relu_pool_proj -> inception_4a/pool_proj (in-place)
I0727 20:23:44.672425 30634 net.cpp:141] Setting up inception_4a/relu_pool_proj
I0727 20:23:44.672443 30634 net.cpp:148] Top shape: 10 64 14 14 (125440)
I0727 20:23:44.672449 30634 net.cpp:156] Memory required for data: 369546240
I0727 20:23:44.672456 30634 layer_factory.hpp:77] Creating layer inception_4a/output
I0727 20:23:44.672469 30634 net.cpp:91] Creating Layer inception_4a/output
I0727 20:23:44.672475 30634 net.cpp:425] inception_4a/output <- inception_4a/1x1
I0727 20:23:44.672483 30634 net.cpp:425] inception_4a/output <- inception_4a/3x3
I0727 20:23:44.672490 30634 net.cpp:425] inception_4a/output <- inception_4a/5x5
I0727 20:23:44.672497 30634 net.cpp:425] inception_4a/output <- inception_4a/pool_proj
I0727 20:23:44.672504 30634 net.cpp:399] inception_4a/output -> inception_4a/output
I0727 20:23:44.672626 30634 net.cpp:141] Setting up inception_4a/output
I0727 20:23:44.672639 30634 net.cpp:148] Top shape: 10 512 14 14 (1003520)
I0727 20:23:44.672646 30634 net.cpp:156] Memory required for data: 373560320
I0727 20:23:44.672652 30634 layer_factory.hpp:77] Creating layer inception_4a/output_inception_4a/output_0_split
I0727 20:23:44.672665 30634 net.cpp:91] Creating Layer inception_4a/output_inception_4a/output_0_split
I0727 20:23:44.672672 30634 net.cpp:425] inception_4a/output_inception_4a/output_0_split <- inception_4a/output
I0727 20:23:44.672679 30634 net.cpp:399] inception_4a/output_inception_4a/output_0_split -> inception_4a/output_inception_4a/output_0_split_0
I0727 20:23:44.672690 30634 net.cpp:399] inception_4a/output_inception_4a/output_0_split -> inception_4a/output_inception_4a/output_0_split_1
I0727 20:23:44.672701 30634 net.cpp:399] inception_4a/output_inception_4a/output_0_split -> inception_4a/output_inception_4a/output_0_split_2
I0727 20:23:44.672714 30634 net.cpp:399] inception_4a/output_inception_4a/output_0_split -> inception_4a/output_inception_4a/output_0_split_3
I0727 20:23:44.674300 30634 net.cpp:141] Setting up inception_4a/output_inception_4a/output_0_split
I0727 20:23:44.674316 30634 net.cpp:148] Top shape: 10 512 14 14 (1003520)
I0727 20:23:44.674324 30634 net.cpp:148] Top shape: 10 512 14 14 (1003520)
I0727 20:23:44.674330 30634 net.cpp:148] Top shape: 10 512 14 14 (1003520)
I0727 20:23:44.674336 30634 net.cpp:148] Top shape: 10 512 14 14 (1003520)
I0727 20:23:44.674341 30634 net.cpp:156] Memory required for data: 389616640
I0727 20:23:44.674347 30634 layer_factory.hpp:77] Creating layer inception_4b/1x1
I0727 20:23:44.674371 30634 net.cpp:91] Creating Layer inception_4b/1x1
I0727 20:23:44.674378 30634 net.cpp:425] inception_4b/1x1 <- inception_4a/output_inception_4a/output_0_split_0
I0727 20:23:44.674388 30634 net.cpp:399] inception_4b/1x1 -> inception_4b/1x1
I0727 20:23:44.676039 30638 net.cpp:141] Setting up inception_4b/1x1
I0727 20:23:44.676071 30638 net.cpp:148] Top shape: 10 160 14 14 (313600)
I0727 20:23:44.676077 30638 net.cpp:156] Memory required for data: 390871040
I0727 20:23:44.676090 30638 layer_factory.hpp:77] Creating layer inception_4b/relu_1x1
I0727 20:23:44.676105 30638 net.cpp:91] Creating Layer inception_4b/relu_1x1
I0727 20:23:44.676111 30638 net.cpp:425] inception_4b/relu_1x1 <- inception_4b/1x1
I0727 20:23:44.676120 30638 net.cpp:386] inception_4b/relu_1x1 -> inception_4b/1x1 (in-place)
I0727 20:23:44.676378 30638 net.cpp:141] Setting up inception_4b/relu_1x1
I0727 20:23:44.676389 30638 net.cpp:148] Top shape: 10 160 14 14 (313600)
I0727 20:23:44.676393 30638 net.cpp:156] Memory required for data: 392125440
I0727 20:23:44.676398 30638 layer_factory.hpp:77] Creating layer inception_4b/3x3_reduce
I0727 20:23:44.676416 30638 net.cpp:91] Creating Layer inception_4b/3x3_reduce
I0727 20:23:44.676424 30638 net.cpp:425] inception_4b/3x3_reduce <- inception_4a/output_inception_4a/output_0_split_1
I0727 20:23:44.676434 30638 net.cpp:399] inception_4b/3x3_reduce -> inception_4b/3x3_reduce
I0727 20:23:44.681130 30634 net.cpp:141] Setting up inception_4b/1x1
I0727 20:23:44.681155 30634 net.cpp:148] Top shape: 10 160 14 14 (313600)
I0727 20:23:44.681161 30634 net.cpp:156] Memory required for data: 390871040
I0727 20:23:44.681174 30634 layer_factory.hpp:77] Creating layer inception_4b/relu_1x1
I0727 20:23:44.681190 30634 net.cpp:91] Creating Layer inception_4b/relu_1x1
I0727 20:23:44.681198 30634 net.cpp:425] inception_4b/relu_1x1 <- inception_4b/1x1
I0727 20:23:44.681208 30634 net.cpp:386] inception_4b/relu_1x1 -> inception_4b/1x1 (in-place)
I0727 20:23:44.681552 30638 net.cpp:141] Setting up inception_4b/3x3_reduce
I0727 20:23:44.681572 30638 net.cpp:148] Top shape: 10 112 14 14 (219520)
I0727 20:23:44.681581 30638 net.cpp:156] Memory required for data: 393003520
I0727 20:23:44.681586 30634 net.cpp:141] Setting up inception_4b/relu_1x1
I0727 20:23:44.681593 30638 layer_factory.hpp:77] Creating layer inception_4b/relu_3x3_reduce
I0727 20:23:44.681599 30634 net.cpp:148] Top shape: 10 160 14 14 (313600)
I0727 20:23:44.681605 30634 net.cpp:156] Memory required for data: 392125440
I0727 20:23:44.681607 30638 net.cpp:91] Creating Layer inception_4b/relu_3x3_reduce
I0727 20:23:44.681612 30634 layer_factory.hpp:77] Creating layer inception_4b/3x3_reduce
I0727 20:23:44.681617 30638 net.cpp:425] inception_4b/relu_3x3_reduce <- inception_4b/3x3_reduce
I0727 20:23:44.681627 30638 net.cpp:386] inception_4b/relu_3x3_reduce -> inception_4b/3x3_reduce (in-place)
I0727 20:23:44.681632 30634 net.cpp:91] Creating Layer inception_4b/3x3_reduce
I0727 20:23:44.681638 30634 net.cpp:425] inception_4b/3x3_reduce <- inception_4a/output_inception_4a/output_0_split_1
I0727 20:23:44.681651 30634 net.cpp:399] inception_4b/3x3_reduce -> inception_4b/3x3_reduce
I0727 20:23:44.682075 30638 net.cpp:141] Setting up inception_4b/relu_3x3_reduce
I0727 20:23:44.682090 30638 net.cpp:148] Top shape: 10 112 14 14 (219520)
I0727 20:23:44.682095 30638 net.cpp:156] Memory required for data: 393881600
I0727 20:23:44.682101 30638 layer_factory.hpp:77] Creating layer inception_4b/3x3
I0727 20:23:44.682121 30638 net.cpp:91] Creating Layer inception_4b/3x3
I0727 20:23:44.682129 30638 net.cpp:425] inception_4b/3x3 <- inception_4b/3x3_reduce
I0727 20:23:44.682145 30638 net.cpp:399] inception_4b/3x3 -> inception_4b/3x3
I0727 20:23:44.696815 30634 net.cpp:141] Setting up inception_4b/3x3_reduce
I0727 20:23:44.696876 30634 net.cpp:148] Top shape: 10 112 14 14 (219520)
I0727 20:23:44.696884 30634 net.cpp:156] Memory required for data: 393003520
I0727 20:23:44.696915 30634 layer_factory.hpp:77] Creating layer inception_4b/relu_3x3_reduce
I0727 20:23:44.696938 30634 net.cpp:91] Creating Layer inception_4b/relu_3x3_reduce
I0727 20:23:44.696950 30634 net.cpp:425] inception_4b/relu_3x3_reduce <- inception_4b/3x3_reduce
I0727 20:23:44.696966 30634 net.cpp:386] inception_4b/relu_3x3_reduce -> inception_4b/3x3_reduce (in-place)
I0727 20:23:44.697484 30634 net.cpp:141] Setting up inception_4b/relu_3x3_reduce
I0727 20:23:44.697501 30634 net.cpp:148] Top shape: 10 112 14 14 (219520)
I0727 20:23:44.697509 30634 net.cpp:156] Memory required for data: 393881600
I0727 20:23:44.697517 30634 layer_factory.hpp:77] Creating layer inception_4b/3x3
I0727 20:23:44.697549 30634 net.cpp:91] Creating Layer inception_4b/3x3
I0727 20:23:44.697558 30634 net.cpp:425] inception_4b/3x3 <- inception_4b/3x3_reduce
I0727 20:23:44.697577 30634 net.cpp:399] inception_4b/3x3 -> inception_4b/3x3
I0727 20:23:44.701546 30638 net.cpp:141] Setting up inception_4b/3x3
I0727 20:23:44.701588 30638 net.cpp:148] Top shape: 10 224 14 14 (439040)
I0727 20:23:44.701596 30638 net.cpp:156] Memory required for data: 395637760
I0727 20:23:44.701608 30638 layer_factory.hpp:77] Creating layer inception_4b/relu_3x3
I0727 20:23:44.701627 30638 net.cpp:91] Creating Layer inception_4b/relu_3x3
I0727 20:23:44.701637 30638 net.cpp:425] inception_4b/relu_3x3 <- inception_4b/3x3
I0727 20:23:44.701647 30638 net.cpp:386] inception_4b/relu_3x3 -> inception_4b/3x3 (in-place)
I0727 20:23:44.702453 30638 net.cpp:141] Setting up inception_4b/relu_3x3
I0727 20:23:44.702473 30638 net.cpp:148] Top shape: 10 224 14 14 (439040)
I0727 20:23:44.702479 30638 net.cpp:156] Memory required for data: 397393920
I0727 20:23:44.702484 30638 layer_factory.hpp:77] Creating layer inception_4b/5x5_reduce
I0727 20:23:44.702517 30638 net.cpp:91] Creating Layer inception_4b/5x5_reduce
I0727 20:23:44.702524 30638 net.cpp:425] inception_4b/5x5_reduce <- inception_4a/output_inception_4a/output_0_split_2
I0727 20:23:44.702534 30638 net.cpp:399] inception_4b/5x5_reduce -> inception_4b/5x5_reduce
I0727 20:23:44.706614 30638 net.cpp:141] Setting up inception_4b/5x5_reduce
I0727 20:23:44.706635 30638 net.cpp:148] Top shape: 10 24 14 14 (47040)
I0727 20:23:44.706640 30638 net.cpp:156] Memory required for data: 397582080
I0727 20:23:44.706650 30638 layer_factory.hpp:77] Creating layer inception_4b/relu_5x5_reduce
I0727 20:23:44.706660 30638 net.cpp:91] Creating Layer inception_4b/relu_5x5_reduce
I0727 20:23:44.706665 30638 net.cpp:425] inception_4b/relu_5x5_reduce <- inception_4b/5x5_reduce
I0727 20:23:44.706676 30638 net.cpp:386] inception_4b/relu_5x5_reduce -> inception_4b/5x5_reduce (in-place)
I0727 20:23:44.707067 30638 net.cpp:141] Setting up inception_4b/relu_5x5_reduce
I0727 20:23:44.707079 30638 net.cpp:148] Top shape: 10 24 14 14 (47040)
I0727 20:23:44.707082 30634 net.cpp:141] Setting up inception_4b/3x3
I0727 20:23:44.707087 30638 net.cpp:156] Memory required for data: 397770240
I0727 20:23:44.707103 30634 net.cpp:148] Top shape: 10 224 14 14 (439040)
I0727 20:23:44.707104 30638 layer_factory.hpp:77] Creating layer inception_4b/5x5
I0727 20:23:44.707113 30634 net.cpp:156] Memory required for data: 395637760
I0727 20:23:44.707123 30634 layer_factory.hpp:77] Creating layer inception_4b/relu_3x3
I0727 20:23:44.707125 30638 net.cpp:91] Creating Layer inception_4b/5x5
I0727 20:23:44.707132 30638 net.cpp:425] inception_4b/5x5 <- inception_4b/5x5_reduce
I0727 20:23:44.707132 30634 net.cpp:91] Creating Layer inception_4b/relu_3x3
I0727 20:23:44.707149 30634 net.cpp:425] inception_4b/relu_3x3 <- inception_4b/3x3
I0727 20:23:44.707149 30638 net.cpp:399] inception_4b/5x5 -> inception_4b/5x5
I0727 20:23:44.707157 30634 net.cpp:386] inception_4b/relu_3x3 -> inception_4b/3x3 (in-place)
I0727 20:23:44.708164 30634 net.cpp:141] Setting up inception_4b/relu_3x3
I0727 20:23:44.708183 30634 net.cpp:148] Top shape: 10 224 14 14 (439040)
I0727 20:23:44.708187 30634 net.cpp:156] Memory required for data: 397393920
I0727 20:23:44.708192 30634 layer_factory.hpp:77] Creating layer inception_4b/5x5_reduce
I0727 20:23:44.708221 30634 net.cpp:91] Creating Layer inception_4b/5x5_reduce
I0727 20:23:44.708230 30634 net.cpp:425] inception_4b/5x5_reduce <- inception_4a/output_inception_4a/output_0_split_2
I0727 20:23:44.708240 30634 net.cpp:399] inception_4b/5x5_reduce -> inception_4b/5x5_reduce
I0727 20:23:44.712959 30638 net.cpp:141] Setting up inception_4b/5x5
I0727 20:23:44.712982 30638 net.cpp:148] Top shape: 10 64 14 14 (125440)
I0727 20:23:44.712987 30638 net.cpp:156] Memory required for data: 398272000
I0727 20:23:44.712997 30638 layer_factory.hpp:77] Creating layer inception_4b/relu_5x5
I0727 20:23:44.713011 30638 net.cpp:91] Creating Layer inception_4b/relu_5x5
I0727 20:23:44.713018 30638 net.cpp:425] inception_4b/relu_5x5 <- inception_4b/5x5
I0727 20:23:44.713028 30638 net.cpp:386] inception_4b/relu_5x5 -> inception_4b/5x5 (in-place)
I0727 20:23:44.713433 30638 net.cpp:141] Setting up inception_4b/relu_5x5
I0727 20:23:44.713445 30638 net.cpp:148] Top shape: 10 64 14 14 (125440)
I0727 20:23:44.713450 30638 net.cpp:156] Memory required for data: 398773760
I0727 20:23:44.713455 30638 layer_factory.hpp:77] Creating layer inception_4b/pool
I0727 20:23:44.713465 30638 net.cpp:91] Creating Layer inception_4b/pool
I0727 20:23:44.713471 30638 net.cpp:425] inception_4b/pool <- inception_4a/output_inception_4a/output_0_split_3
I0727 20:23:44.713484 30638 net.cpp:399] inception_4b/pool -> inception_4b/pool
I0727 20:23:44.713484 30634 net.cpp:141] Setting up inception_4b/5x5_reduce
I0727 20:23:44.713517 30634 net.cpp:148] Top shape: 10 24 14 14 (47040)
I0727 20:23:44.713524 30634 net.cpp:156] Memory required for data: 397582080
I0727 20:23:44.713543 30634 layer_factory.hpp:77] Creating layer inception_4b/relu_5x5_reduce
I0727 20:23:44.713560 30634 net.cpp:91] Creating Layer inception_4b/relu_5x5_reduce
I0727 20:23:44.713569 30634 net.cpp:425] inception_4b/relu_5x5_reduce <- inception_4b/5x5_reduce
I0727 20:23:44.713584 30634 net.cpp:386] inception_4b/relu_5x5_reduce -> inception_4b/5x5_reduce (in-place)
I0727 20:23:44.713608 30638 net.cpp:141] Setting up inception_4b/pool
I0727 20:23:44.713618 30638 net.cpp:148] Top shape: 10 512 14 14 (1003520)
I0727 20:23:44.713625 30638 net.cpp:156] Memory required for data: 402787840
I0727 20:23:44.713634 30638 layer_factory.hpp:77] Creating layer inception_4b/pool_proj
I0727 20:23:44.713660 30638 net.cpp:91] Creating Layer inception_4b/pool_proj
I0727 20:23:44.713666 30638 net.cpp:425] inception_4b/pool_proj <- inception_4b/pool
I0727 20:23:44.713677 30638 net.cpp:399] inception_4b/pool_proj -> inception_4b/pool_proj
I0727 20:23:44.714174 30634 net.cpp:141] Setting up inception_4b/relu_5x5_reduce
I0727 20:23:44.714190 30634 net.cpp:148] Top shape: 10 24 14 14 (47040)
I0727 20:23:44.714196 30634 net.cpp:156] Memory required for data: 397770240
I0727 20:23:44.714202 30634 layer_factory.hpp:77] Creating layer inception_4b/5x5
I0727 20:23:44.714226 30634 net.cpp:91] Creating Layer inception_4b/5x5
I0727 20:23:44.714233 30634 net.cpp:425] inception_4b/5x5 <- inception_4b/5x5_reduce
I0727 20:23:44.714243 30634 net.cpp:399] inception_4b/5x5 -> inception_4b/5x5
I0727 20:23:44.721606 30638 net.cpp:141] Setting up inception_4b/pool_proj
I0727 20:23:44.721632 30638 net.cpp:148] Top shape: 10 64 14 14 (125440)
I0727 20:23:44.721637 30638 net.cpp:156] Memory required for data: 403289600
I0727 20:23:44.721652 30638 layer_factory.hpp:77] Creating layer inception_4b/relu_pool_proj
I0727 20:23:44.721663 30638 net.cpp:91] Creating Layer inception_4b/relu_pool_proj
I0727 20:23:44.721669 30638 net.cpp:425] inception_4b/relu_pool_proj <- inception_4b/pool_proj
I0727 20:23:44.721681 30638 net.cpp:386] inception_4b/relu_pool_proj -> inception_4b/pool_proj (in-place)
I0727 20:23:44.722571 30634 net.cpp:141] Setting up inception_4b/5x5
I0727 20:23:44.722596 30634 net.cpp:148] Top shape: 10 64 14 14 (125440)
I0727 20:23:44.722604 30634 net.cpp:156] Memory required for data: 398272000
I0727 20:23:44.722617 30634 layer_factory.hpp:77] Creating layer inception_4b/relu_5x5
I0727 20:23:44.722622 30638 net.cpp:141] Setting up inception_4b/relu_pool_proj
I0727 20:23:44.722631 30634 net.cpp:91] Creating Layer inception_4b/relu_5x5
I0727 20:23:44.722637 30638 net.cpp:148] Top shape: 10 64 14 14 (125440)
I0727 20:23:44.722640 30634 net.cpp:425] inception_4b/relu_5x5 <- inception_4b/5x5
I0727 20:23:44.722643 30638 net.cpp:156] Memory required for data: 403791360
I0727 20:23:44.722648 30638 layer_factory.hpp:77] Creating layer inception_4b/output
I0727 20:23:44.722651 30634 net.cpp:386] inception_4b/relu_5x5 -> inception_4b/5x5 (in-place)
I0727 20:23:44.722657 30638 net.cpp:91] Creating Layer inception_4b/output
I0727 20:23:44.722664 30638 net.cpp:425] inception_4b/output <- inception_4b/1x1
I0727 20:23:44.722671 30638 net.cpp:425] inception_4b/output <- inception_4b/3x3
I0727 20:23:44.722676 30638 net.cpp:425] inception_4b/output <- inception_4b/5x5
I0727 20:23:44.722682 30638 net.cpp:425] inception_4b/output <- inception_4b/pool_proj
I0727 20:23:44.722704 30638 net.cpp:399] inception_4b/output -> inception_4b/output
I0727 20:23:44.722939 30638 net.cpp:141] Setting up inception_4b/output
I0727 20:23:44.722949 30638 net.cpp:148] Top shape: 10 512 14 14 (1003520)
I0727 20:23:44.722954 30638 net.cpp:156] Memory required for data: 407805440
I0727 20:23:44.722959 30638 layer_factory.hpp:77] Creating layer inception_4b/output_inception_4b/output_0_split
I0727 20:23:44.722971 30638 net.cpp:91] Creating Layer inception_4b/output_inception_4b/output_0_split
I0727 20:23:44.722977 30638 net.cpp:425] inception_4b/output_inception_4b/output_0_split <- inception_4b/output
I0727 20:23:44.722985 30638 net.cpp:399] inception_4b/output_inception_4b/output_0_split -> inception_4b/output_inception_4b/output_0_split_0
I0727 20:23:44.722995 30638 net.cpp:399] inception_4b/output_inception_4b/output_0_split -> inception_4b/output_inception_4b/output_0_split_1
I0727 20:23:44.723002 30638 net.cpp:399] inception_4b/output_inception_4b/output_0_split -> inception_4b/output_inception_4b/output_0_split_2
I0727 20:23:44.723013 30638 net.cpp:399] inception_4b/output_inception_4b/output_0_split -> inception_4b/output_inception_4b/output_0_split_3
I0727 20:23:44.723050 30634 net.cpp:141] Setting up inception_4b/relu_5x5
I0727 20:23:44.723064 30634 net.cpp:148] Top shape: 10 64 14 14 (125440)
I0727 20:23:44.723070 30634 net.cpp:156] Memory required for data: 398773760
I0727 20:23:44.723076 30634 layer_factory.hpp:77] Creating layer inception_4b/pool
I0727 20:23:44.723091 30634 net.cpp:91] Creating Layer inception_4b/pool
I0727 20:23:44.723099 30634 net.cpp:425] inception_4b/pool <- inception_4a/output_inception_4a/output_0_split_3
I0727 20:23:44.723109 30634 net.cpp:399] inception_4b/pool -> inception_4b/pool
I0727 20:23:44.723311 30638 net.cpp:141] Setting up inception_4b/output_inception_4b/output_0_split
I0727 20:23:44.723325 30638 net.cpp:148] Top shape: 10 512 14 14 (1003520)
I0727 20:23:44.723331 30638 net.cpp:148] Top shape: 10 512 14 14 (1003520)
I0727 20:23:44.723336 30638 net.cpp:148] Top shape: 10 512 14 14 (1003520)
I0727 20:23:44.723342 30638 net.cpp:148] Top shape: 10 512 14 14 (1003520)
I0727 20:23:44.723346 30638 net.cpp:156] Memory required for data: 423861760
I0727 20:23:44.723351 30638 layer_factory.hpp:77] Creating layer inception_4c/1x1
I0727 20:23:44.723371 30638 net.cpp:91] Creating Layer inception_4c/1x1
I0727 20:23:44.723376 30638 net.cpp:425] inception_4c/1x1 <- inception_4b/output_inception_4b/output_0_split_0
I0727 20:23:44.723381 30634 net.cpp:141] Setting up inception_4b/pool
I0727 20:23:44.723386 30638 net.cpp:399] inception_4c/1x1 -> inception_4c/1x1
I0727 20:23:44.723398 30634 net.cpp:148] Top shape: 10 512 14 14 (1003520)
I0727 20:23:44.723404 30634 net.cpp:156] Memory required for data: 402787840
I0727 20:23:44.723412 30634 layer_factory.hpp:77] Creating layer inception_4b/pool_proj
I0727 20:23:44.723433 30634 net.cpp:91] Creating Layer inception_4b/pool_proj
I0727 20:23:44.723439 30634 net.cpp:425] inception_4b/pool_proj <- inception_4b/pool
I0727 20:23:44.723451 30634 net.cpp:399] inception_4b/pool_proj -> inception_4b/pool_proj
I0727 20:23:44.729018 30634 net.cpp:141] Setting up inception_4b/pool_proj
I0727 20:23:44.729040 30634 net.cpp:148] Top shape: 10 64 14 14 (125440)
I0727 20:23:44.729046 30634 net.cpp:156] Memory required for data: 403289600
I0727 20:23:44.729058 30634 layer_factory.hpp:77] Creating layer inception_4b/relu_pool_proj
I0727 20:23:44.729070 30634 net.cpp:91] Creating Layer inception_4b/relu_pool_proj
I0727 20:23:44.729077 30634 net.cpp:425] inception_4b/relu_pool_proj <- inception_4b/pool_proj
I0727 20:23:44.729094 30634 net.cpp:386] inception_4b/relu_pool_proj -> inception_4b/pool_proj (in-place)
I0727 20:23:44.730173 30634 net.cpp:141] Setting up inception_4b/relu_pool_proj
I0727 20:23:44.730191 30634 net.cpp:148] Top shape: 10 64 14 14 (125440)
I0727 20:23:44.730197 30634 net.cpp:156] Memory required for data: 403791360
I0727 20:23:44.730195 30638 net.cpp:141] Setting up inception_4c/1x1
…
I0727 20:23:44.863528 30638 net.cpp:386] inception_4e/relu_5x5_reduce -> inception_4e/5x5_reduce (in-place)
I0727 20:23:44.863792 30638 net.cpp:141] Setting up inception_4e/relu_5x5_reduce
I0727 20:23:44.863803 30638 net.cpp:148] Top shape: 10 32 14 14 (62720)
I0727 20:23:44.863808 30638 net.cpp:156] Memory required for data: 506150400
I0727 20:23:44.863813 30638 layer_factory.hpp:77] Creating layer inception_4e/5x5
I0727 20:23:44.863831 30638 net.cpp:91] Creating Layer inception_4e/5x5
I0727 20:23:44.863837 30638 net.cpp:425] inception_4e/5x5 <- inception_4e/5x5_reduce
I0727 20:23:44.863849 30638 net.cpp:399] inception_4e/5x5 -> inception_4e/5x5
I0727 20:23:44.869923 30634 net.cpp:141] Setting up inception_4e/3x3
I0727 20:23:44.869951 30634 net.cpp:148] Top shape: 10 320 14 14 (627200)
I0727 20:23:44.869956 30634 net.cpp:156] Memory required for data: 503139840
I0727 20:23:44.869971 30634 layer_factory.hpp:77] Creating layer inception_4e/relu_3x3
I0727 20:23:44.869985 30634 net.cpp:91] Creating Layer inception_4e/relu_3x3
I0727 20:23:44.869993 30634 net.cpp:425] inception_4e/relu_3x3 <- inception_4e/3x3
I0727 20:23:44.870002 30634 net.cpp:386] inception_4e/relu_3x3 -> inception_4e/3x3 (in-place)
I0727 20:23:44.870856 30638 net.cpp:141] Setting up inception_4e/5x5
I0727 20:23:44.870883 30638 net.cpp:148] Top shape: 10 128 14 14 (250880)
I0727 20:23:44.870892 30638 net.cpp:156] Memory required for data: 507153920
I0727 20:23:44.870903 30638 layer_factory.hpp:77] Creating layer inception_4e/relu_5x5
I0727 20:23:44.870914 30638 net.cpp:91] Creating Layer inception_4e/relu_5x5
I0727 20:23:44.870923 30638 net.cpp:425] inception_4e/relu_5x5 <- inception_4e/5x5
I0727 20:23:44.870930 30638 net.cpp:386] inception_4e/relu_5x5 -> inception_4e/5x5 (in-place)
I0727 20:23:44.870970 30634 net.cpp:141] Setting up inception_4e/relu_3x3
I0727 20:23:44.870987 30634 net.cpp:148] Top shape: 10 320 14 14 (627200)
I0727 20:23:44.870993 30634 net.cpp:156] Memory required for data: 505648640
I0727 20:23:44.871000 30634 layer_factory.hpp:77] Creating layer inception_4e/5x5_reduce
I0727 20:23:44.871026 30634 net.cpp:91] Creating Layer inception_4e/5x5_reduce
I0727 20:23:44.871034 30634 net.cpp:425] inception_4e/5x5_reduce <- inception_4d/output_inception_4d/output_0_split_2
I0727 20:23:44.871045 30634 net.cpp:399] inception_4e/5x5_reduce -> inception_4e/5x5_reduce
I0727 20:23:44.871347 30638 net.cpp:141] Setting up inception_4e/relu_5x5
I0727 20:23:44.871359 30638 net.cpp:148] Top shape: 10 128 14 14 (250880)
I0727 20:23:44.871364 30638 net.cpp:156] Memory required for data: 508157440
I0727 20:23:44.871369 30638 layer_factory.hpp:77] Creating layer inception_4e/pool
I0727 20:23:44.871384 30638 net.cpp:91] Creating Layer inception_4e/pool
I0727 20:23:44.871390 30638 net.cpp:425] inception_4e/pool <- inception_4d/output_inception_4d/output_0_split_3
I0727 20:23:44.871402 30638 net.cpp:399] inception_4e/pool -> inception_4e/pool
I0727 20:23:44.871793 30638 net.cpp:141] Setting up inception_4e/pool
I0727 20:23:44.871805 30638 net.cpp:148] Top shape: 10 528 14 14 (1034880)
I0727 20:23:44.871809 30638 net.cpp:156] Memory required for data: 512296960
I0727 20:23:44.871814 30638 layer_factory.hpp:77] Creating layer inception_4e/pool_proj
I0727 20:23:44.871832 30638 net.cpp:91] Creating Layer inception_4e/pool_proj
I0727 20:23:44.871839 30638 net.cpp:425] inception_4e/pool_proj <- inception_4e/pool
I0727 20:23:44.871847 30638 net.cpp:399] inception_4e/pool_proj -> inception_4e/pool_proj
I0727 20:23:44.877598 30634 net.cpp:141] Setting up inception_4e/5x5_reduce
I0727 20:23:44.877635 30634 net.cpp:148] Top shape: 10 32 14 14 (62720)
I0727 20:23:44.877641 30634 net.cpp:156] Memory required for data: 505899520
I0727 20:23:44.877655 30634 layer_factory.hpp:77] Creating layer inception_4e/relu_5x5_reduce
I0727 20:23:44.877666 30634 net.cpp:91] Creating Layer inception_4e/relu_5x5_reduce
I0727 20:23:44.877676 30634 net.cpp:425] inception_4e/relu_5x5_reduce <- inception_4e/5x5_reduce
I0727 20:23:44.877684 30634 net.cpp:386] inception_4e/relu_5x5_reduce -> inception_4e/5x5_reduce (in-place)
I0727 20:23:44.878126 30634 net.cpp:141] Setting up inception_4e/relu_5x5_reduce
I0727 20:23:44.878139 30634 net.cpp:148] Top shape: 10 32 14 14 (62720)
I0727 20:23:44.878136 30638 net.cpp:141] Setting up inception_4e/pool_proj
I0727 20:23:44.878144 30634 net.cpp:156] Memory required for data: 506150400
I0727 20:23:44.878155 30638 net.cpp:148] Top shape: 10 128 14 14 (250880)
I0727 20:23:44.878155 30634 layer_factory.hpp:77] Creating layer inception_4e/5x5
I0727 20:23:44.878162 30638 net.cpp:156] Memory required for data: 513300480
I0727 20:23:44.878175 30638 layer_factory.hpp:77] Creating layer inception_4e/relu_pool_proj
I0727 20:23:44.878180 30634 net.cpp:91] Creating Layer inception_4e/5x5
I0727 20:23:44.878185 30634 net.cpp:425] inception_4e/5x5 <- inception_4e/5x5_reduce
I0727 20:23:44.878186 30638 net.cpp:91] Creating Layer inception_4e/relu_pool_proj
I0727 20:23:44.878195 30638 net.cpp:425] inception_4e/relu_pool_proj <- inception_4e/pool_proj
I0727 20:23:44.878198 30634 net.cpp:399] inception_4e/5x5 -> inception_4e/5x5
I0727 20:23:44.878201 30638 net.cpp:386] inception_4e/relu_pool_proj -> inception_4e/pool_proj (in-place)
I0727 20:23:44.879187 30638 net.cpp:141] Setting up inception_4e/relu_pool_proj
I0727 20:23:44.879202 30638 net.cpp:148] Top shape: 10 128 14 14 (250880)
I0727 20:23:44.879207 30638 net.cpp:156] Memory required for data: 514304000
I0727 20:23:44.879212 30638 layer_factory.hpp:77] Creating layer inception_4e/output
I0727 20:23:44.879227 30638 net.cpp:91] Creating Layer inception_4e/output
I0727 20:23:44.879233 30638 net.cpp:425] inception_4e/output <- inception_4e/1x1
I0727 20:23:44.879240 30638 net.cpp:425] inception_4e/output <- inception_4e/3x3
I0727 20:23:44.879246 30638 net.cpp:425] inception_4e/output <- inception_4e/5x5
I0727 20:23:44.879251 30638 net.cpp:425] inception_4e/output <- inception_4e/pool_proj
I0727 20:23:44.879258 30638 net.cpp:399] inception_4e/output -> inception_4e/output
I0727 20:23:44.879400 30638 net.cpp:141] Setting up inception_4e/output
I0727 20:23:44.879412 30638 net.cpp:148] Top shape: 10 832 14 14 (1630720)
I0727 20:23:44.879416 30638 net.cpp:156] Memory required for data: 520826880
I0727 20:23:44.879421 30638 layer_factory.hpp:77] Creating layer pool4/3x3_s2
I0727 20:23:44.879431 30638 net.cpp:91] Creating Layer pool4/3x3_s2
I0727 20:23:44.879436 30638 net.cpp:425] pool4/3x3_s2 <- inception_4e/output
I0727 20:23:44.879446 30638 net.cpp:399] pool4/3x3_s2 -> pool4/3x3_s2
I0727 20:23:44.880923 30638 net.cpp:141] Setting up pool4/3x3_s2
I0727 20:23:44.880941 30638 net.cpp:148] Top shape: 10 832 7 7 (407680)
I0727 20:23:44.880945 30638 net.cpp:156] Memory required for data: 522457600
I0727 20:23:44.880954 30638 layer_factory.hpp:77] Creating layer pool4/3x3_s2_pool4/3x3_s2_0_split
I0727 20:23:44.880993 30638 net.cpp:91] Creating Layer pool4/3x3_s2_pool4/3x3_s2_0_split
I0727 20:23:44.881002 30638 net.cpp:425] pool4/3x3_s2_pool4/3x3_s2_0_split <- pool4/3x3_s2
I0727 20:23:44.881011 30638 net.cpp:399] pool4/3x3_s2_pool4/3x3_s2_0_split -> pool4/3x3_s2_pool4/3x3_s2_0_split_0
I0727 20:23:44.881021 30638 net.cpp:399] pool4/3x3_s2_pool4/3x3_s2_0_split -> pool4/3x3_s2_pool4/3x3_s2_0_split_1
I0727 20:23:44.881029 30638 net.cpp:399] pool4/3x3_s2_pool4/3x3_s2_0_split -> pool4/3x3_s2_pool4/3x3_s2_0_split_2
I0727 20:23:44.881038 30638 net.cpp:399] pool4/3x3_s2_pool4/3x3_s2_0_split -> pool4/3x3_s2_pool4/3x3_s2_0_split_3
I0727 20:23:44.881739 30638 net.cpp:141] Setting up pool4/3x3_s2_pool4/3x3_s2_0_split
I0727 20:23:44.881754 30638 net.cpp:148] Top shape: 10 832 7 7 (407680)
I0727 20:23:44.881762 30638 net.cpp:148] Top shape: 10 832 7 7 (407680)
I0727 20:23:44.881769 30638 net.cpp:148] Top shape: 10 832 7 7 (407680)
I0727 20:23:44.881777 30638 net.cpp:148] Top shape: 10 832 7 7 (407680)
I0727 20:23:44.881780 30638 net.cpp:156] Memory required for data: 528980480
I0727 20:23:44.881788 30638 layer_factory.hpp:77] Creating layer inception_5a/1x1
I0727 20:23:44.881816 30638 net.cpp:91] Creating Layer inception_5a/1x1
I0727 20:23:44.881825 30638 net.cpp:425] inception_5a/1x1 <- pool4/3x3_s2_pool4/3x3_s2_0_split_0
I0727 20:23:44.881836 30638 net.cpp:399] inception_5a/1x1 -> inception_5a/1x1
I0727 20:23:44.888689 30634 net.cpp:141] Setting up inception_4e/5x5
I0727 20:23:44.888721 30634 net.cpp:148] Top shape: 10 128 14 14 (250880)
I0727 20:23:44.888727 30634 net.cpp:156] Memory required for data: 507153920
I0727 20:23:44.888739 30634 layer_factory.hpp:77] Creating layer inception_4e/relu_5x5
I0727 20:23:44.888756 30634 net.cpp:91] Creating Layer inception_4e/relu_5x5
I0727 20:23:44.888763 30634 net.cpp:425] inception_4e/relu_5x5 <- inception_4e/5x5
I0727 20:23:44.888772 30634 net.cpp:386] inception_4e/relu_5x5 -> inception_4e/5x5 (in-place)
I0727 20:23:44.889206 30634 net.cpp:141] Setting up inception_4e/relu_5x5
I0727 20:23:44.889219 30634 net.cpp:148] Top shape: 10 128 14 14 (250880)
I0727 20:23:44.889225 30634 net.cpp:156] Memory required for data: 508157440
I0727 20:23:44.889230 30634 layer_factory.hpp:77] Creating layer inception_4e/pool
I0727 20:23:44.889240 30634 net.cpp:91] Creating Layer inception_4e/pool
I0727 20:23:44.889250 30634 net.cpp:425] inception_4e/pool <- inception_4d/output_inception_4d/output_0_split_3
I0727 20:23:44.889258 30634 net.cpp:399] inception_4e/pool -> inception_4e/pool
I0727 20:23:44.890035 30634 net.cpp:141] Setting up inception_4e/pool
I0727 20:23:44.890059 30634 net.cpp:148] Top shape: 10 528 14 14 (1034880)
I0727 20:23:44.890069 30634 net.cpp:156] Memory required for data: 512296960
I0727 20:23:44.890079 30634 layer_factory.hpp:77] Creating layer inception_4e/pool_proj
I0727 20:23:44.890154 30634 net.cpp:91] Creating Layer inception_4e/pool_proj
I0727 20:23:44.890174 30634 net.cpp:425] inception_4e/pool_proj <- inception_4e/pool
I0727 20:23:44.890231 30634 net.cpp:399] inception_4e/pool_proj -> inception_4e/pool_proj
I0727 20:23:44.891006 30638 net.cpp:141] Setting up inception_5a/1x1
I0727 20:23:44.891028 30638 net.cpp:148] Top shape: 10 256 7 7 (125440)
I0727 20:23:44.891034 30638 net.cpp:156] Memory required for data: 529482240
I0727 20:23:44.891046 30638 layer_factory.hpp:77] Creating layer inception_5a/relu_1x1
I0727 20:23:44.891060 30638 net.cpp:91] Creating Layer inception_5a/relu_1x1
I0727 20:23:44.891068 30638 net.cpp:425] inception_5a/relu_1x1 <- inception_5a/1x1
I0727 20:23:44.891078 30638 net.cpp:386] inception_5a/relu_1x1 -> inception_5a/1x1 (in-place)
I0727 20:23:44.891626 30638 net.cpp:141] Setting up inception_5a/relu_1x1
I0727 20:23:44.891680 30638 net.cpp:148] Top shape: 10 256 7 7 (125440)
I0727 20:23:44.891696 30638 net.cpp:156] Memory required for data: 529984000
I0727 20:23:44.891708 30638 layer_factory.hpp:77] Creating layer inception_5a/3x3_reduce
I0727 20:23:44.891733 30638 net.cpp:91] Creating Layer inception_5a/3x3_reduce
I0727 20:23:44.891748 30638 net.cpp:425] inception_5a/3x3_reduce <- pool4/3x3_s2_pool4/3x3_s2_0_split_1
I0727 20:23:44.891765 30638 net.cpp:399] inception_5a/3x3_reduce -> inception_5a/3x3_reduce
I0727 20:23:44.897980 30634 net.cpp:141] Setting up inception_4e/pool_proj
I0727 20:23:44.898017 30634 net.cpp:148] Top shape: 10 128 14 14 (250880)
I0727 20:23:44.898027 30634 net.cpp:156] Memory required for data: 513300480
I0727 20:23:44.898047 30634 layer_factory.hpp:77] Creating layer inception_4e/relu_pool_proj
I0727 20:23:44.898077 30634 net.cpp:91] Creating Layer inception_4e/relu_pool_proj
I0727 20:23:44.898090 30634 net.cpp:425] inception_4e/relu_pool_proj <- inception_4e/pool_proj
I0727 20:23:44.898105 30634 net.cpp:386] inception_4e/relu_pool_proj -> inception_4e/pool_proj (in-place)
I0727 20:23:44.899370 30634 net.cpp:141] Setting up inception_4e/relu_pool_proj
I0727 20:23:44.899392 30634 net.cpp:148] Top shape: 10 128 14 14 (250880)
I0727 20:23:44.899402 30634 net.cpp:156] Memory required for data: 514304000
I0727 20:23:44.899412 30634 layer_factory.hpp:77] Creating layer inception_4e/output
I0727 20:23:44.899433 30634 net.cpp:91] Creating Layer inception_4e/output
I0727 20:23:44.899446 30634 net.cpp:425] inception_4e/output <- inception_4e/1x1
I0727 20:23:44.899461 30634 net.cpp:425] inception_4e/output <- inception_4e/3x3
I0727 20:23:44.899472 30634 net.cpp:425] inception_4e/output <- inception_4e/5x5
I0727 20:23:44.899483 30634 net.cpp:425] inception_4e/output <- inception_4e/pool_proj
I0727 20:23:44.899502 30634 net.cpp:399] inception_4e/output -> inception_4e/output
I0727 20:23:44.900539 30634 net.cpp:141] Setting up inception_4e/output
I0727 20:23:44.900558 30634 net.cpp:148] Top shape: 10 832 14 14 (1630720)
I0727 20:23:44.900568 30634 net.cpp:156] Memory required for data: 520826880
I0727 20:23:44.900580 30634 layer_factory.hpp:77] Creating layer pool4/3x3_s2
I0727 20:23:44.900598 30634 net.cpp:91] Creating Layer pool4/3x3_s2
I0727 20:23:44.900609 30634 net.cpp:425] pool4/3x3_s2 <- inception_4e/output
I0727 20:23:44.900629 30634 net.cpp:399] pool4/3x3_s2 -> pool4/3x3_s2
I0727 20:23:44.901167 30634 net.cpp:141] Setting up pool4/3x3_s2
I0727 20:23:44.901185 30634 net.cpp:148] Top shape: 10 832 7 7 (407680)
I0727 20:23:44.901195 30634 net.cpp:156] Memory required for data: 522457600
I0727 20:23:44.901203 30634 layer_factory.hpp:77] Creating layer pool4/3x3_s2_pool4/3x3_s2_0_split
I0727 20:23:44.901218 30634 net.cpp:91] Creating Layer pool4/3x3_s2_pool4/3x3_s2_0_split
I0727 20:23:44.901228 30634 net.cpp:425] pool4/3x3_s2_pool4/3x3_s2_0_split <- pool4/3x3_s2
I0727 20:23:44.901247 30634 net.cpp:399] pool4/3x3_s2_pool4/3x3_s2_0_split -> pool4/3x3_s2_pool4/3x3_s2_0_split_0
I0727 20:23:44.901267 30634 net.cpp:399] pool4/3x3_s2_pool4/3x3_s2_0_split -> pool4/3x3_s2_pool4/3x3_s2_0_split_1
I0727 20:23:44.901284 30634 net.cpp:399] pool4/3x3_s2_pool4/3x3_s2_0_split -> pool4/3x3_s2_pool4/3x3_s2_0_split_2
I0727 20:23:44.901302 30634 net.cpp:399] pool4/3x3_s2_pool4/3x3_s2_0_split -> pool4/3x3_s2_pool4/3x3_s2_0_split_3
I0727 20:23:44.902693 30634 net.cpp:141] Setting up pool4/3x3_s2_pool4/3x3_s2_0_split
I0727 20:23:44.902714 30634 net.cpp:148] Top shape: 10 832 7 7 (407680)
I0727 20:23:44.902726 30634 net.cpp:148] Top shape: 10 832 7 7 (407680)
I0727 20:23:44.902737 30634 net.cpp:148] Top shape: 10 832 7 7 (407680)
I0727 20:23:44.902748 30634 net.cpp:148] Top shape: 10 832 7 7 (407680)
I0727 20:23:44.902756 30634 net.cpp:156] Memory required for data: 528980480
I0727 20:23:44.902765 30634 layer_factory.hpp:77] Creating layer inception_5a/1x1
I0727 20:23:44.902803 30634 net.cpp:91] Creating Layer inception_5a/1x1
I0727 20:23:44.902818 30634 net.cpp:425] inception_5a/1x1 <- pool4/3x3_s2_pool4/3x3_s2_0_split_0
I0727 20:23:44.902837 30634 net.cpp:399] inception_5a/1x1 -> inception_5a/1x1
I0727 20:23:44.903628 30638 net.cpp:141] Setting up inception_5a/3x3_reduce
I0727 20:23:44.903652 30638 net.cpp:148] Top shape: 10 160 7 7 (78400)
I0727 20:23:44.903661 30638 net.cpp:156] Memory required for data: 530297600
I0727 20:23:44.903677 30638 layer_factory.hpp:77] Creating layer inception_5a/relu_3x3_reduce
I0727 20:23:44.903702 30638 net.cpp:91] Creating Layer inception_5a/relu_3x3_reduce
I0727 20:23:44.903715 30638 net.cpp:425] inception_5a/relu_3x3_reduce <- inception_5a/3x3_reduce
I0727 20:23:44.903728 30638 net.cpp:386] inception_5a/relu_3x3_reduce -> inception_5a/3x3_reduce (in-place)
I0727 20:23:44.904670 30638 net.cpp:141] Setting up inception_5a/relu_3x3_reduce
I0727 20:23:44.904693 30638 net.cpp:148] Top shape: 10 160 7 7 (78400)
I0727 20:23:44.904702 30638 net.cpp:156] Memory required for data: 530611200
I0727 20:23:44.904711 30638 layer_factory.hpp:77] Creating layer inception_5a/3x3
I0727 20:23:44.904739 30638 net.cpp:91] Creating Layer inception_5a/3x3
I0727 20:23:44.904753 30638 net.cpp:425] inception_5a/3x3 <- inception_5a/3x3_reduce
I0727 20:23:44.904774 30638 net.cpp:399] inception_5a/3x3 -> inception_5a/3x3
I0727 20:23:44.911078 30634 net.cpp:141] Setting up inception_5a/1x1
I0727 20:23:44.911108 30634 net.cpp:148] Top shape: 10 256 7 7 (125440)
I0727 20:23:44.911123 30634 net.cpp:156] Memory required for data: 529482240
I0727 20:23:44.911140 30634 layer_factory.hpp:77] Creating layer inception_5a/relu_1x1
I0727 20:23:44.911159 30634 net.cpp:91] Creating Layer inception_5a/relu_1x1
I0727 20:23:44.911171 30634 net.cpp:425] inception_5a/relu_1x1 <- inception_5a/1x1
I0727 20:23:44.911185 30634 net.cpp:386] inception_5a/relu_1x1 -> inception_5a/1x1 (in-place)
I0727 20:23:44.911631 30634 net.cpp:141] Setting up inception_5a/relu_1x1
I0727 20:23:44.911650 30634 net.cpp:148] Top shape: 10 256 7 7 (125440)
I0727 20:23:44.911659 30634 net.cpp:156] Memory required for data: 529984000
I0727 20:23:44.911669 30634 layer_factory.hpp:77] Creating layer inception_5a/3x3_reduce
I0727 20:23:44.911695 30634 net.cpp:91] Creating Layer inception_5a/3x3_reduce
I0727 20:23:44.911708 30634 net.cpp:425] inception_5a/3x3_reduce <- pool4/3x3_s2_pool4/3x3_s2_0_split_1
I0727 20:23:44.911731 30634 net.cpp:399] inception_5a/3x3_reduce -> inception_5a/3x3_reduce
I0727 20:23:44.918416 30638 net.cpp:141] Setting up inception_5a/3x3
I0727 20:23:44.918437 30638 net.cpp:148] Top shape: 10 320 7 7 (156800)
I0727 20:23:44.918443 30638 net.cpp:156] Memory required for data: 531238400
I0727 20:23:44.918454 30638 layer_factory.hpp:77] Creating layer inception_5a/relu_3x3
I0727 20:23:44.918464 30638 net.cpp:91] Creating Layer inception_5a/relu_3x3
I0727 20:23:44.918472 30638 net.cpp:425] inception_5a/relu_3x3 <- inception_5a/3x3
I0727 20:23:44.918481 30638 net.cpp:386] inception_5a/relu_3x3 -> inception_5a/3x3 (in-place)
I0727 20:23:44.919648 30638 net.cpp:141] Setting up inception_5a/relu_3x3
I0727 20:23:44.919664 30638 net.cpp:148] Top shape: 10 320 7 7 (156800)
I0727 20:23:44.919669 30638 net.cpp:156] Memory required for data: 531865600
I0727 20:23:44.919675 30638 layer_factory.hpp:77] Creating layer inception_5a/5x5_reduce
I0727 20:23:44.919692 30638 net.cpp:91] Creating Layer inception_5a/5x5_reduce
I0727 20:23:44.919699 30638 net.cpp:425] inception_5a/5x5_reduce <- pool4/3x3_s2_pool4/3x3_s2_0_split_2
I0727 20:23:44.919713 30638 net.cpp:399] inception_5a/5x5_reduce -> inception_5a/5x5_reduce
I0727 20:23:44.920150 30634 net.cpp:141] Setting up inception_5a/3x3_reduce
I0727 20:23:44.920174 30634 net.cpp:148] Top shape: 10 160 7 7 (78400)
I0727 20:23:44.920184 30634 net.cpp:156] Memory required for data: 530297600
I0727 20:23:44.920204 30634 layer_factory.hpp:77] Creating layer inception_5a/relu_3x3_reduce
I0727 20:23:44.920231 30634 net.cpp:91] Creating Layer inception_5a/relu_3x3_reduce
I0727 20:23:44.920246 30634 net.cpp:425] inception_5a/relu_3x3_reduce <- inception_5a/3x3_reduce
I0727 20:23:44.920261 30634 net.cpp:386] inception_5a/relu_3x3_reduce -> inception_5a/3x3_reduce (in-place)
I0727 20:23:44.920806 30634 net.cpp:141] Setting up inception_5a/relu_3x3_reduce
I0727 20:23:44.920826 30634 net.cpp:148] Top shape: 10 160 7 7 (78400)
I0727 20:23:44.920835 30634 net.cpp:156] Memory required for data: 530611200
I0727 20:23:44.920845 30634 layer_factory.hpp:77] Creating layer inception_5a/3x3
I0727 20:23:44.920873 30634 net.cpp:91] Creating Layer inception_5a/3x3
I0727 20:23:44.920887 30634 net.cpp:425] inception_5a/3x3 <- inception_5a/3x3_reduce
I0727 20:23:44.920909 30634 net.cpp:399] inception_5a/3x3 -> inception_5a/3x3
I0727 20:23:44.926141 30638 net.cpp:141] Setting up inception_5a/5x5_reduce
I0727 20:23:44.926172 30638 net.cpp:148] Top shape: 10 32 7 7 (15680)
I0727 20:23:44.926177 30638 net.cpp:156] Memory required for data: 531928320
I0727 20:23:44.926194 30638 layer_factory.hpp:77] Creating layer inception_5a/relu_5x5_reduce
I0727 20:23:44.926211 30638 net.cpp:91] Creating Layer inception_5a/relu_5x5_reduce
I0727 20:23:44.926219 30638 net.cpp:425] inception_5a/relu_5x5_reduce <- inception_5a/5x5_reduce
I0727 20:23:44.926231 30638 net.cpp:386] inception_5a/relu_5x5_reduce -> inception_5a/5x5_reduce (in-place)
I0727 20:23:44.926518 30638 net.cpp:141] Setting up inception_5a/relu_5x5_reduce
I0727 20:23:44.926529 30638 net.cpp:148] Top shape: 10 32 7 7 (15680)
I0727 20:23:44.926534 30638 net.cpp:156] Memory required for data: 531991040
I0727 20:23:44.926539 30638 layer_factory.hpp:77] Creating layer inception_5a/5x5
I0727 20:23:44.926559 30638 net.cpp:91] Creating Layer inception_5a/5x5
I0727 20:23:44.926565 30638 net.cpp:425] inception_5a/5x5 <- inception_5a/5x5_reduce
I0727 20:23:44.926576 30638 net.cpp:399] inception_5a/5x5 -> inception_5a/5x5
I0727 20:23:44.932262 30638 net.cpp:141] Setting up inception_5a/5x5
I0727 20:23:44.932286 30638 net.cpp:148] Top shape: 10 128 7 7 (62720)
I0727 20:23:44.932291 30638 net.cpp:156] Memory required for data: 532241920
I0727 20:23:44.932301 30638 layer_factory.hpp:77] Creating layer inception_5a/relu_5x5
I0727 20:23:44.932342 30638 net.cpp:91] Creating Layer inception_5a/relu_5x5
I0727 20:23:44.932348 30638 net.cpp:425] inception_5a/relu_5x5 <- inception_5a/5x5
I0727 20:23:44.932355 30638 net.cpp:386] inception_5a/relu_5x5 -> inception_5a/5x5 (in-place)
I0727 20:23:44.932718 30638 net.cpp:141] Setting up inception_5a/relu_5x5
I0727 20:23:44.932731 30638 net.cpp:148] Top shape: 10 128 7 7 (62720)
I0727 20:23:44.932736 30638 net.cpp:156] Memory required for data: 532492800
I0727 20:23:44.932742 30638 layer_factory.hpp:77] Creating layer inception_5a/pool
I0727 20:23:44.932756 30638 net.cpp:91] Creating Layer inception_5a/pool
I0727 20:23:44.932763 30638 net.cpp:425] inception_5a/pool <- pool4/3x3_s2_pool4/3x3_s2_0_split_3
I0727 20:23:44.932771 30638 net.cpp:399] inception_5a/pool -> inception_5a/pool
I0727 20:23:44.933033 30638 net.cpp:141] Setting up inception_5a/pool
I0727 20:23:44.933048 30638 net.cpp:148] Top shape: 10 832 7 7 (407680)
I0727 20:23:44.933051 30638 net.cpp:156] Memory required for data: 534123520
I0727 20:23:44.933058 30638 layer_factory.hpp:77] Creating layer inception_5a/pool_proj
I0727 20:23:44.933078 30638 net.cpp:91] Creating Layer inception_5a/pool_proj
I0727 20:23:44.933084 30638 net.cpp:425] inception_5a/pool_proj <- inception_5a/pool
I0727 20:23:44.933094 30638 net.cpp:399] inception_5a/pool_proj -> inception_5a/pool_proj
I0727 20:23:44.933961 30634 net.cpp:141] Setting up inception_5a/3x3
I0727 20:23:44.933981 30634 net.cpp:148] Top shape: 10 320 7 7 (156800)
I0727 20:23:44.933987 30634 net.cpp:156] Memory required for data: 531238400
I0727 20:23:44.934000 30634 layer_factory.hpp:77] Creating layer inception_5a/relu_3x3
I0727 20:23:44.934011 30634 net.cpp:91] Creating Layer inception_5a/relu_3x3
I0727 20:23:44.934020 30634 net.cpp:425] inception_5a/relu_3x3 <- inception_5a/3x3
I0727 20:23:44.934031 30634 net.cpp:386] inception_5a/relu_3x3 -> inception_5a/3x3 (in-place)
I0727 20:23:44.934962 30634 net.cpp:141] Setting up inception_5a/relu_3x3
I0727 20:23:44.934980 30634 net.cpp:148] Top shape: 10 320 7 7 (156800)
I0727 20:23:44.934985 30634 net.cpp:156] Memory required for data: 531865600
I0727 20:23:44.934990 30634 layer_factory.hpp:77] Creating layer inception_5a/5x5_reduce
I0727 20:23:44.935009 30634 net.cpp:91] Creating Layer inception_5a/5x5_reduce
I0727 20:23:44.935015 30634 net.cpp:425] inception_5a/5x5_reduce <- pool4/3x3_s2_pool4/3x3_s2_0_split_2
I0727 20:23:44.935035 30634 net.cpp:399] inception_5a/5x5_reduce -> inception_5a/5x5_reduce
I0727 20:23:44.940340 30638 net.cpp:141] Setting up inception_5a/pool_proj
I0727 20:23:44.940368 30638 net.cpp:148] Top shape: 10 128 7 7 (62720)
I0727 20:23:44.940373 30638 net.cpp:156] Memory required for data: 534374400
I0727 20:23:44.940384 30638 layer_factory.hpp:77] Creating layer inception_5a/relu_pool_proj
I0727 20:23:44.940394 30638 net.cpp:91] Creating Layer inception_5a/relu_pool_proj
I0727 20:23:44.940402 30638 net.cpp:425] inception_5a/relu_pool_proj <- inception_5a/pool_proj
I0727 20:23:44.940413 30638 net.cpp:386] inception_5a/relu_pool_proj -> inception_5a/pool_proj (in-place)
I0727 20:23:44.940500 30634 net.cpp:141] Setting up inception_5a/5x5_reduce
I0727 20:23:44.940516 30634 net.cpp:148] Top shape: 10 32 7 7 (15680)
I0727 20:23:44.940521 30634 net.cpp:156] Memory required for data: 531928320
I0727 20:23:44.940531 30634 layer_factory.hpp:77] Creating layer inception_5a/relu_5x5_reduce
I0727 20:23:44.940539 30634 net.cpp:91] Creating Layer inception_5a/relu_5x5_reduce
I0727 20:23:44.940546 30634 net.cpp:425] inception_5a/relu_5x5_reduce <- inception_5a/5x5_reduce
I0727 20:23:44.940556 30634 net.cpp:386] inception_5a/relu_5x5_reduce -> inception_5a/5x5_reduce (in-place)
I0727 20:23:44.940850 30634 net.cpp:141] Setting up inception_5a/relu_5x5_reduce
I0727 20:23:44.940863 30634 net.cpp:148] Top shape: 10 32 7 7 (15680)
I0727 20:23:44.940868 30634 net.cpp:156] Memory required for data: 531991040
I0727 20:23:44.940873 30634 layer_factory.hpp:77] Creating layer inception_5a/5x5
I0727 20:23:44.940894 30634 net.cpp:91] Creating Layer inception_5a/5x5
I0727 20:23:44.940901 30634 net.cpp:425] inception_5a/5x5 <- inception_5a/5x5_reduce
I0727 20:23:44.940909 30634 net.cpp:399] inception_5a/5x5 -> inception_5a/5x5
I0727 20:23:44.941439 30638 net.cpp:141] Setting up inception_5a/relu_pool_proj
I0727 20:23:44.941457 30638 net.cpp:148] Top shape: 10 128 7 7 (62720)
I0727 20:23:44.941462 30638 net.cpp:156] Memory required for data: 534625280
I0727 20:23:44.941468 30638 layer_factory.hpp:77] Creating layer inception_5a/output
I0727 20:23:44.941476 30638 net.cpp:91] Creating Layer inception_5a/output
I0727 20:23:44.941483 30638 net.cpp:425] inception_5a/output <- inception_5a/1x1
I0727 20:23:44.941489 30638 net.cpp:425] inception_5a/output <- inception_5a/3x3
I0727 20:23:44.941495 30638 net.cpp:425] inception_5a/output <- inception_5a/5x5
I0727 20:23:44.941501 30638 net.cpp:425] inception_5a/output <- inception_5a/pool_proj
I0727 20:23:44.941509 30638 net.cpp:399] inception_5a/output -> inception_5a/output
I0727 20:23:44.941635 30638 net.cpp:141] Setting up inception_5a/output
I0727 20:23:44.941648 30638 net.cpp:148] Top shape: 10 832 7 7 (407680)
I0727 20:23:44.941651 30638 net.cpp:156] Memory required for data: 536256000
I0727 20:23:44.941656 30638 layer_factory.hpp:77] Creating layer inception_5a/output_inception_5a/output_0_split
I0727 20:23:44.941668 30638 net.cpp:91] Creating Layer inception_5a/output_inception_5a/output_0_split
I0727 20:23:44.941673 30638 net.cpp:425] inception_5a/output_inception_5a/output_0_split <- inception_5a/output
I0727 20:23:44.941682 30638 net.cpp:399] inception_5a/output_inception_5a/output_0_split -> inception_5a/output_inception_5a/output_0_split_0
I0727 20:23:44.941692 30638 net.cpp:399] inception_5a/output_inception_5a/output_0_split -> inception_5a/output_inception_5a/output_0_split_1
I0727 20:23:44.941701 30638 net.cpp:399] inception_5a/output_inception_5a/output_0_split -> inception_5a/output_inception_5a/output_0_split_2
I0727 20:23:44.941709 30638 net.cpp:399] inception_5a/output_inception_5a/output_0_split -> inception_5a/output_inception_5a/output_0_split_3
I0727 20:23:44.942019 30638 net.cpp:141] Setting up inception_5a/output_inception_5a/output_0_split
I0727 20:23:44.942031 30638 net.cpp:148] Top shape: 10 832 7 7 (407680)
I0727 20:23:44.942037 30638 net.cpp:148] Top shape: 10 832 7 7 (407680)
I0727 20:23:44.942042 30638 net.cpp:148] Top shape: 10 832 7 7 (407680)
I0727 20:23:44.942049 30638 net.cpp:148] Top shape: 10 832 7 7 (407680)
I0727 20:23:44.942052 30638 net.cpp:156] Memory required for data: 542778880
I0727 20:23:44.942056 30638 layer_factory.hpp:77] Creating layer inception_5b/1x1
I0727 20:23:44.942073 30638 net.cpp:91] Creating Layer inception_5b/1x1
I0727 20:23:44.942080 30638 net.cpp:425] inception_5b/1x1 <- inception_5a/output_inception_5a/output_0_split_0
I0727 20:23:44.942091 30638 net.cpp:399] inception_5b/1x1 -> inception_5b/1x1
I0727 20:23:44.947019 30634 net.cpp:141] Setting up inception_5a/5x5
I0727 20:23:44.947048 30634 net.cpp:148] Top shape: 10 128 7 7 (62720)
I0727 20:23:44.947053 30634 net.cpp:156] Memory required for data: 532241920
I0727 20:23:44.947068 30634 layer_factory.hpp:77] Creating layer inception_5a/relu_5x5
I0727 20:23:44.947115 30634 net.cpp:91] Creating Layer inception_5a/relu_5x5
I0727 20:23:44.947124 30634 net.cpp:425] inception_5a/relu_5x5 <- inception_5a/5x5
I0727 20:23:44.947131 30634 net.cpp:386] inception_5a/relu_5x5 -> inception_5a/5x5 (in-place)
I0727 20:23:44.947501 30634 net.cpp:141] Setting up inception_5a/relu_5x5
I0727 20:23:44.947518 30634 net.cpp:148] Top shape: 10 128 7 7 (62720)
I0727 20:23:44.947523 30634 net.cpp:156] Memory required for data: 532492800
I0727 20:23:44.947530 30634 layer_factory.hpp:77] Creating layer inception_5a/pool
I0727 20:23:44.947545 30634 net.cpp:91] Creating Layer inception_5a/pool
I0727 20:23:44.947551 30634 net.cpp:425] inception_5a/pool <- pool4/3x3_s2_pool4/3x3_s2_0_split_3
I0727 20:23:44.947559 30634 net.cpp:399] inception_5a/pool -> inception_5a/pool
I0727 20:23:44.947779 30634 net.cpp:141] Setting up inception_5a/pool
I0727 20:23:44.947793 30634 net.cpp:148] Top shape: 10 832 7 7 (407680)
I0727 20:23:44.947798 30634 net.cpp:156] Memory required for data: 534123520
I0727 20:23:44.947803 30634 layer_factory.hpp:77] Creating layer inception_5a/pool_proj
I0727 20:23:44.947823 30634 net.cpp:91] Creating Layer inception_5a/pool_proj
I0727 20:23:44.947829 30634 net.cpp:425] inception_5a/pool_proj <- inception_5a/pool
I0727 20:23:44.947840 30634 net.cpp:399] inception_5a/pool_proj -> inception_5a/pool_proj
I0727 20:23:44.951792 30638 net.cpp:141] Setting up inception_5b/1x1
I0727 20:23:44.951814 30638 net.cpp:148] Top shape: 10 384 7 7 (188160)
I0727 20:23:44.951819 30638 net.cpp:156] Memory required for data: 543531520
I0727 20:23:44.951831 30638 layer_factory.hpp:77] Creating layer inception_5b/relu_1x1
I0727 20:23:44.951846 30638 net.cpp:91] Creating Layer inception_5b/relu_1x1
I0727 20:23:44.951854 30638 net.cpp:425] inception_5b/relu_1x1 <- inception_5b/1x1
I0727 20:23:44.951863 30638 net.cpp:386] inception_5b/relu_1x1 -> inception_5b/1x1 (in-place)
I0727 20:23:44.952143 30638 net.cpp:141] Setting up inception_5b/relu_1x1
I0727 20:23:44.952154 30638 net.cpp:148] Top shape: 10 384 7 7 (188160)
I0727 20:23:44.952159 30638 net.cpp:156] Memory required for data: 544284160
I0727 20:23:44.952164 30638 layer_factory.hpp:77] Creating layer inception_5b/3x3_reduce
I0727 20:23:44.952181 30638 net.cpp:91] Creating Layer inception_5b/3x3_reduce
I0727 20:23:44.952188 30638 net.cpp:425] inception_5b/3x3_reduce <- inception_5a/output_inception_5a/output_0_split_1
I0727 20:23:44.952199 30638 net.cpp:399] inception_5b/3x3_reduce -> inception_5b/3x3_reduce
I0727 20:23:44.956199 30634 net.cpp:141] Setting up inception_5a/pool_proj
I0727 20:23:44.956225 30634 net.cpp:148] Top shape: 10 128 7 7 (62720)
I0727 20:23:44.956230 30634 net.cpp:156] Memory required for data: 534374400
I0727 20:23:44.956241 30634 layer_factory.hpp:77] Creating layer inception_5a/relu_pool_proj
I0727 20:23:44.956254 30634 net.cpp:91] Creating Layer inception_5a/relu_pool_proj
I0727 20:23:44.956261 30634 net.cpp:425] inception_5a/relu_pool_proj <- inception_5a/pool_proj
I0727 20:23:44.956270 30634 net.cpp:386] inception_5a/relu_pool_proj -> inception_5a/pool_proj (in-place)
I0727 20:23:44.957056 30634 net.cpp:141] Setting up inception_5a/relu_pool_proj
I0727 20:23:44.957072 30634 net.cpp:148] Top shape: 10 128 7 7 (62720)
I0727 20:23:44.957077 30634 net.cpp:156] Memory required for data: 534625280
I0727 20:23:44.957085 30634 layer_factory.hpp:77] Creating layer inception_5a/output
I0727 20:23:44.957094 30634 net.cpp:91] Creating Layer inception_5a/output
I0727 20:23:44.957100 30634 net.cpp:425] inception_5a/output <- inception_5a/1x1
I0727 20:23:44.957108 30634 net.cpp:425] inception_5a/output <- inception_5a/3x3
I0727 20:23:44.957113 30634 net.cpp:425] inception_5a/output <- inception_5a/5x5
I0727 20:23:44.957118 30634 net.cpp:425] inception_5a/output <- inception_5a/pool_proj
I0727 20:23:44.957125 30634 net.cpp:399] inception_5a/output -> inception_5a/output
I0727 20:23:44.957254 30634 net.cpp:141] Setting up inception_5a/output
I0727 20:23:44.957265 30634 net.cpp:148] Top shape: 10 832 7 7 (407680)
I0727 20:23:44.957270 30634 net.cpp:156] Memory required for data: 536256000
I0727 20:23:44.957275 30634 layer_factory.hpp:77] Creating layer inception_5a/output_inception_5a/output_0_split
I0727 20:23:44.957283 30634 net.cpp:91] Creating Layer inception_5a/output_inception_5a/output_0_split
I0727 20:23:44.957288 30634 net.cpp:425] inception_5a/output_inception_5a/output_0_split <- inception_5a/output
I0727 20:23:44.957299 30634 net.cpp:399] inception_5a/output_inception_5a/output_0_split -> inception_5a/output_inception_5a/output_0_split_0
I0727 20:23:44.957309 30634 net.cpp:399] inception_5a/output_inception_5a/output_0_split -> inception_5a/output_inception_5a/output_0_split_1
I0727 20:23:44.957319 30634 net.cpp:399] inception_5a/output_inception_5a/output_0_split -> inception_5a/output_inception_5a/output_0_split_2
I0727 20:23:44.957326 30634 net.cpp:399] inception_5a/output_inception_5a/output_0_split -> inception_5a/output_inception_5a/output_0_split_3
I0727 20:23:44.958289 30634 net.cpp:141] Setting up inception_5a/output_inception_5a/output_0_split
I0727 20:23:44.958310 30634 net.cpp:148] Top shape: 10 832 7 7 (407680)
I0727 20:23:44.958317 30634 net.cpp:148] Top shape: 10 832 7 7 (407680)
I0727 20:23:44.958323 30634 net.cpp:148] Top shape: 10 832 7 7 (407680)
I0727 20:23:44.958328 30634 net.cpp:148] Top shape: 10 832 7 7 (407680)
I0727 20:23:44.958333 30634 net.cpp:156] Memory required for data: 542778880
I0727 20:23:44.958338 30634 layer_factory.hpp:77] Creating layer inception_5b/1x1
I0727 20:23:44.958359 30634 net.cpp:91] Creating Layer inception_5b/1x1
I0727 20:23:44.958366 30634 net.cpp:425] inception_5b/1x1 <- inception_5a/output_inception_5a/output_0_split_0
I0727 20:23:44.958379 30634 net.cpp:399] inception_5b/1x1 -> inception_5b/1x1
I0727 20:23:44.962116 30638 net.cpp:141] Setting up inception_5b/3x3_reduce
I0727 20:23:44.962144 30638 net.cpp:148] Top shape: 10 192 7 7 (94080)
I0727 20:23:44.962149 30638 net.cpp:156] Memory required for data: 544660480
I0727 20:23:44.962164 30638 layer_factory.hpp:77] Creating layer inception_5b/relu_3x3_reduce
I0727 20:23:44.962177 30638 net.cpp:91] Creating Layer inception_5b/relu_3x3_reduce
I0727 20:23:44.962183 30638 net.cpp:425] inception_5b/relu_3x3_reduce <- inception_5b/3x3_reduce
I0727 20:23:44.962191 30638 net.cpp:386] inception_5b/relu_3x3_reduce -> inception_5b/3x3_reduce (in-place)
I0727 20:23:44.962474 30638 net.cpp:141] Setting up inception_5b/relu_3x3_reduce
I0727 20:23:44.962486 30638 net.cpp:148] Top shape: 10 192 7 7 (94080)
I0727 20:23:44.962491 30638 net.cpp:156] Memory required for data: 545036800
I0727 20:23:44.962496 30638 layer_factory.hpp:77] Creating layer inception_5b/3x3
I0727 20:23:44.962514 30638 net.cpp:91] Creating Layer inception_5b/3x3
I0727 20:23:44.962522 30638 net.cpp:425] inception_5b/3x3 <- inception_5b/3x3_reduce
I0727 20:23:44.962533 30638 net.cpp:399] inception_5b/3x3 -> inception_5b/3x3
I0727 20:23:44.968343 30634 net.cpp:141] Setting up inception_5b/1x1
I0727 20:23:44.968380 30634 net.cpp:148] Top shape: 10 384 7 7 (188160)
I0727 20:23:44.968386 30634 net.cpp:156] Memory required for data: 543531520
I0727 20:23:44.968399 30634 layer_factory.hpp:77] Creating layer inception_5b/relu_1x1
I0727 20:23:44.968418 30634 net.cpp:91] Creating Layer inception_5b/relu_1x1
I0727 20:23:44.968426 30634 net.cpp:425] inception_5b/relu_1x1 <- inception_5b/1x1
I0727 20:23:44.968436 30634 net.cpp:386] inception_5b/relu_1x1 -> inception_5b/1x1 (in-place)
I0727 20:23:44.968711 30634 net.cpp:141] Setting up inception_5b/relu_1x1
I0727 20:23:44.968722 30634 net.cpp:148] Top shape: 10 384 7 7 (188160)
I0727 20:23:44.968727 30634 net.cpp:156] Memory required for data: 544284160
I0727 20:23:44.968734 30634 layer_factory.hpp:77] Creating layer inception_5b/3x3_reduce
I0727 20:23:44.968755 30634 net.cpp:91] Creating Layer inception_5b/3x3_reduce
I0727 20:23:44.968761 30634 net.cpp:425] inception_5b/3x3_reduce <- inception_5a/output_inception_5a/output_0_split_1
I0727 20:23:44.968772 30634 net.cpp:399] inception_5b/3x3_reduce -> inception_5b/3x3_reduce
I0727 20:23:44.974164 30638 net.cpp:141] Setting up inception_5b/3x3
I0727 20:23:44.974187 30638 net.cpp:148] Top shape: 10 384 7 7 (188160)
I0727 20:23:44.974194 30638 net.cpp:156] Memory required for data: 545789440
I0727 20:23:44.974203 30638 layer_factory.hpp:77] Creating layer inception_5b/relu_3x3
I0727 20:23:44.974218 30638 net.cpp:91] Creating Layer inception_5b/relu_3x3
I0727 20:23:44.974226 30638 net.cpp:425] inception_5b/relu_3x3 <- inception_5b/3x3
I0727 20:23:44.974234 30638 net.cpp:386] inception_5b/relu_3x3 -> inception_5b/3x3 (in-place)
I0727 20:23:44.975461 30638 net.cpp:141] Setting up inception_5b/relu_3x3
I0727 20:23:44.975477 30638 net.cpp:148] Top shape: 10 384 7 7 (188160)
I0727 20:23:44.975482 30638 net.cpp:156] Memory required for data: 546542080
I0727 20:23:44.975487 30638 layer_factory.hpp:77] Creating layer inception_5b/5x5_reduce
I0727 20:23:44.975507 30638 net.cpp:91] Creating Layer inception_5b/5x5_reduce
I0727 20:23:44.975514 30638 net.cpp:425] inception_5b/5x5_reduce <- inception_5a/output_inception_5a/output_0_split_2
I0727 20:23:44.975524 30638 net.cpp:399] inception_5b/5x5_reduce -> inception_5b/5x5_reduce
I0727 20:23:44.975811 30634 net.cpp:141] Setting up inception_5b/3x3_reduce
I0727 20:23:44.975826 30634 net.cpp:148] Top shape: 10 192 7 7 (94080)
I0727 20:23:44.975831 30634 net.cpp:156] Memory required for data: 544660480
I0727 20:23:44.975842 30634 layer_factory.hpp:77] Creating layer inception_5b/relu_3x3_reduce
I0727 20:23:44.975850 30634 net.cpp:91] Creating Layer inception_5b/relu_3x3_reduce
I0727 20:23:44.975857 30634 net.cpp:425] inception_5b/relu_3x3_reduce <- inception_5b/3x3_reduce
I0727 20:23:44.975865 30634 net.cpp:386] inception_5b/relu_3x3_reduce -> inception_5b/3x3_reduce (in-place)
I0727 20:23:44.976291 30634 net.cpp:141] Setting up inception_5b/relu_3x3_reduce
I0727 20:23:44.976306 30634 net.cpp:148] Top shape: 10 192 7 7 (94080)
I0727 20:23:44.976311 30634 net.cpp:156] Memory required for data: 545036800
I0727 20:23:44.976316 30634 layer_factory.hpp:77] Creating layer inception_5b/3x3
I0727 20:23:44.976336 30634 net.cpp:91] Creating Layer inception_5b/3x3
I0727 20:23:44.976342 30634 net.cpp:425] inception_5b/3x3 <- inception_5b/3x3_reduce
I0727 20:23:44.976354 30634 net.cpp:399] inception_5b/3x3 -> inception_5b/3x3
I0727 20:23:44.981362 30638 net.cpp:141] Setting up inception_5b/5x5_reduce
I0727 20:23:44.981391 30638 net.cpp:148] Top shape: 10 48 7 7 (23520)
I0727 20:23:44.981397 30638 net.cpp:156] Memory required for data: 546636160
I0727 20:23:44.981408 30638 layer_factory.hpp:77] Creating layer inception_5b/relu_5x5_reduce
I0727 20:23:44.981428 30638 net.cpp:91] Creating Layer inception_5b/relu_5x5_reduce
I0727 20:23:44.981436 30638 net.cpp:425] inception_5b/relu_5x5_reduce <- inception_5b/5x5_reduce
I0727 20:23:44.981446 30638 net.cpp:386] inception_5b/relu_5x5_reduce -> inception_5b/5x5_reduce (in-place)
I0727 20:23:44.981712 30638 net.cpp:141] Setting up inception_5b/relu_5x5_reduce
I0727 20:23:44.981725 30638 net.cpp:148] Top shape: 10 48 7 7 (23520)
I0727 20:23:44.981730 30638 net.cpp:156] Memory required for data: 546730240
I0727 20:23:44.981735 30638 layer_factory.hpp:77] Creating layer inception_5b/5x5
I0727 20:23:44.981755 30638 net.cpp:91] Creating Layer inception_5b/5x5
I0727 20:23:44.981760 30638 net.cpp:425] inception_5b/5x5 <- inception_5b/5x5_reduce
I0727 20:23:44.981770 30638 net.cpp:399] inception_5b/5x5 -> inception_5b/5x5
I0727 20:23:44.987689 30638 net.cpp:141] Setting up inception_5b/5x5
I0727 20:23:44.987727 30638 net.cpp:148] Top shape: 10 128 7 7 (62720)
I0727 20:23:44.987736 30638 net.cpp:156] Memory required for data: 546981120
I0727 20:23:44.987749 30638 layer_factory.hpp:77] Creating layer inception_5b/relu_5x5
I0727 20:23:44.987767 30638 net.cpp:91] Creating Layer inception_5b/relu_5x5
I0727 20:23:44.987779 30638 net.cpp:425] inception_5b/relu_5x5 <- inception_5b/5x5
I0727 20:23:44.987792 30638 net.cpp:386] inception_5b/relu_5x5 -> inception_5b/5x5 (in-place)
I0727 20:23:44.988247 30638 net.cpp:141] Setting up inception_5b/relu_5x5
I0727 20:23:44.988260 30638 net.cpp:148] Top shape: 10 128 7 7 (62720)
I0727 20:23:44.988265 30638 net.cpp:156] Memory required for data: 547232000
I0727 20:23:44.988270 30638 layer_factory.hpp:77] Creating layer inception_5b/pool
I0727 20:23:44.988281 30638 net.cpp:91] Creating Layer inception_5b/pool
I0727 20:23:44.988287 30638 net.cpp:425] inception_5b/pool <- inception_5a/output_inception_5a/output_0_split_3
I0727 20:23:44.988298 30638 net.cpp:399] inception_5b/pool -> inception_5b/pool
I0727 20:23:44.988590 30638 net.cpp:141] Setting up inception_5b/pool
I0727 20:23:44.988601 30638 net.cpp:148] Top shape: 10 832 7 7 (407680)
I0727 20:23:44.988597 30634 net.cpp:141] Setting up inception_5b/3x3
I0727 20:23:44.988608 30638 net.cpp:156] Memory required for data: 548862720
I0727 20:23:44.988623 30634 net.cpp:148] Top shape: 10 384 7 7 (188160)
I0727 20:23:44.988623 30638 layer_factory.hpp:77] Creating layer inception_5b/pool_proj
I0727 20:23:44.988631 30634 net.cpp:156] Memory required for data: 545789440
I0727 20:23:44.988643 30634 layer_factory.hpp:77] Creating layer inception_5b/relu_3x3
I0727 20:23:44.988651 30638 net.cpp:91] Creating Layer inception_5b/pool_proj
I0727 20:23:44.988657 30638 net.cpp:425] inception_5b/pool_proj <- inception_5b/pool
I0727 20:23:44.988661 30634 net.cpp:91] Creating Layer inception_5b/relu_3x3
I0727 20:23:44.988667 30638 net.cpp:399] inception_5b/pool_proj -> inception_5b/pool_proj
I0727 20:23:44.988669 30634 net.cpp:425] inception_5b/relu_3x3 <- inception_5b/3x3
I0727 20:23:44.988677 30634 net.cpp:386] inception_5b/relu_3x3 -> inception_5b/3x3 (in-place)
I0727 20:23:44.989907 30634 net.cpp:141] Setting up inception_5b/relu_3x3
I0727 20:23:44.989923 30634 net.cpp:148] Top shape: 10 384 7 7 (188160)
I0727 20:23:44.989928 30634 net.cpp:156] Memory required for data: 546542080
I0727 20:23:44.989933 30634 layer_factory.hpp:77] Creating layer inception_5b/5x5_reduce
I0727 20:23:44.989954 30634 net.cpp:91] Creating Layer inception_5b/5x5_reduce
I0727 20:23:44.989961 30634 net.cpp:425] inception_5b/5x5_reduce <- inception_5a/output_inception_5a/output_0_split_2
I0727 20:23:44.989971 30634 net.cpp:399] inception_5b/5x5_reduce -> inception_5b/5x5_reduce
I0727 20:23:44.995885 30638 net.cpp:141] Setting up inception_5b/pool_proj
I0727 20:23:44.995914 30638 net.cpp:148] Top shape: 10 128 7 7 (62720)
I0727 20:23:44.995919 30638 net.cpp:156] Memory required for data: 549113600
I0727 20:23:44.995931 30638 layer_factory.hpp:77] Creating layer inception_5b/relu_pool_proj
I0727 20:23:44.995954 30638 net.cpp:91] Creating Layer inception_5b/relu_pool_proj
I0727 20:23:44.995962 30638 net.cpp:425] inception_5b/relu_pool_proj <- inception_5b/pool_proj
I0727 20:23:44.995971 30638 net.cpp:386] inception_5b/relu_pool_proj -> inception_5b/pool_proj (in-place)
I0727 20:23:44.996923 30634 net.cpp:141] Setting up inception_5b/5x5_reduce
I0727 20:23:44.996953 30634 net.cpp:148] Top shape: 10 48 7 7 (23520)
I0727 20:23:44.996963 30634 net.cpp:156] Memory required for data: 546636160
I0727 20:23:44.996981 30634 layer_factory.hpp:77] Creating layer inception_5b/relu_5x5_reduce
I0727 20:23:44.997004 30634 net.cpp:91] Creating Layer inception_5b/relu_5x5_reduce
I0727 20:23:44.997017 30634 net.cpp:425] inception_5b/relu_5x5_reduce <- inception_5b/5x5_reduce
I0727 20:23:44.997017 30638 net.cpp:141] Setting up inception_5b/relu_pool_proj
I0727 20:23:44.997031 30638 net.cpp:148] Top shape: 10 128 7 7 (62720)
I0727 20:23:44.997031 30634 net.cpp:386] inception_5b/relu_5x5_reduce -> inception_5b/5x5_reduce (in-place)
I0727 20:23:44.997042 30638 net.cpp:156] Memory required for data: 549364480
I0727 20:23:44.997054 30638 layer_factory.hpp:77] Creating layer inception_5b/output
I0727 20:23:44.997064 30638 net.cpp:91] Creating Layer inception_5b/output
I0727 20:23:44.997071 30638 net.cpp:425] inception_5b/output <- inception_5b/1x1
I0727 20:23:44.997077 30638 net.cpp:425] inception_5b/output <- inception_5b/3x3
I0727 20:23:44.997083 30638 net.cpp:425] inception_5b/output <- inception_5b/5x5
I0727 20:23:44.997088 30638 net.cpp:425] inception_5b/output <- inception_5b/pool_proj
I0727 20:23:44.997095 30638 net.cpp:399] inception_5b/output -> inception_5b/output
I0727 20:23:44.997360 30638 net.cpp:141] Setting up inception_5b/output
I0727 20:23:44.997371 30638 net.cpp:148] Top shape: 10 1024 7 7 (501760)
I0727 20:23:44.997376 30638 net.cpp:156] Memory required for data: 551371520
I0727 20:23:44.997381 30638 layer_factory.hpp:77] Creating layer pool5/7x7_s1
I0727 20:23:44.997391 30638 net.cpp:91] Creating Layer pool5/7x7_s1
I0727 20:23:44.997396 30638 net.cpp:425] pool5/7x7_s1 <- inception_5b/output
I0727 20:23:44.997407 30638 net.cpp:399] pool5/7x7_s1 -> pool5/7x7_s1
I0727 20:23:44.997483 30634 net.cpp:141] Setting up inception_5b/relu_5x5_reduce
I0727 20:23:44.997498 30634 net.cpp:148] Top shape: 10 48 7 7 (23520)
I0727 20:23:44.997503 30634 net.cpp:156] Memory required for data: 546730240
I0727 20:23:44.997509 30634 layer_factory.hpp:77] Creating layer inception_5b/5x5
I0727 20:23:44.997534 30634 net.cpp:91] Creating Layer inception_5b/5x5
I0727 20:23:44.997540 30634 net.cpp:425] inception_5b/5x5 <- inception_5b/5x5_reduce
I0727 20:23:44.997550 30634 net.cpp:399] inception_5b/5x5 -> inception_5b/5x5
I0727 20:23:44.998020 30638 net.cpp:141] Setting up pool5/7x7_s1
I0727 20:23:44.998034 30638 net.cpp:148] Top shape: 10 1024 1 1 (10240)
I0727 20:23:44.998039 30638 net.cpp:156] Memory required for data: 551412480
I0727 20:23:44.998044 30638 layer_factory.hpp:77] Creating layer pool5/drop_7x7_s1
I0727 20:23:44.998055 30638 net.cpp:91] Creating Layer pool5/drop_7x7_s1
I0727 20:23:44.998060 30638 net.cpp:425] pool5/drop_7x7_s1 <- pool5/7x7_s1
I0727 20:23:44.998067 30638 net.cpp:386] pool5/drop_7x7_s1 -> pool5/7x7_s1 (in-place)
I0727 20:23:44.998232 30638 net.cpp:141] Setting up pool5/drop_7x7_s1
I0727 20:23:44.998246 30638 net.cpp:148] Top shape: 10 1024 1 1 (10240)
I0727 20:23:44.998250 30638 net.cpp:156] Memory required for data: 551453440
I0727 20:23:44.998256 30638 layer_factory.hpp:77] Creating layer loss3/classifier
I0727 20:23:44.998276 30638 net.cpp:91] Creating Layer loss3/classifier
I0727 20:23:44.998282 30638 net.cpp:425] loss3/classifier <- pool5/7x7_s1
I0727 20:23:44.998293 30638 net.cpp:399] loss3/classifier -> loss3/classifier
I0727 20:23:45.005534 30634 net.cpp:141] Setting up inception_5b/5x5
I0727 20:23:45.005583 30634 net.cpp:148] Top shape: 10 128 7 7 (62720)
I0727 20:23:45.005596 30634 net.cpp:156] Memory required for data: 546981120
I0727 20:23:45.005610 30634 layer_factory.hpp:77] Creating layer inception_5b/relu_5x5
I0727 20:23:45.005626 30634 net.cpp:91] Creating Layer inception_5b/relu_5x5
I0727 20:23:45.005635 30634 net.cpp:425] inception_5b/relu_5x5 <- inception_5b/5x5
I0727 20:23:45.005646 30634 net.cpp:386] inception_5b/relu_5x5 -> inception_5b/5x5 (in-place)
I0727 20:23:45.005929 30634 net.cpp:141] Setting up inception_5b/relu_5x5
I0727 20:23:45.005940 30634 net.cpp:148] Top shape: 10 128 7 7 (62720)
I0727 20:23:45.005945 30634 net.cpp:156] Memory required for data: 547232000
I0727 20:23:45.005950 30634 layer_factory.hpp:77] Creating layer inception_5b/pool
I0727 20:23:45.005961 30634 net.cpp:91] Creating Layer inception_5b/pool
I0727 20:23:45.005967 30634 net.cpp:425] inception_5b/pool <- inception_5a/output_inception_5a/output_0_split_3
I0727 20:23:45.005978 30634 net.cpp:399] inception_5b/pool -> inception_5b/pool
I0727 20:23:45.006201 30634 net.cpp:141] Setting up inception_5b/pool
I0727 20:23:45.006216 30634 net.cpp:148] Top shape: 10 832 7 7 (407680)
I0727 20:23:45.006222 30634 net.cpp:156] Memory required for data: 548862720
I0727 20:23:45.006228 30634 layer_factory.hpp:77] Creating layer inception_5b/pool_proj
I0727 20:23:45.006253 30634 net.cpp:91] Creating Layer inception_5b/pool_proj
I0727 20:23:45.006260 30634 net.cpp:425] inception_5b/pool_proj <- inception_5b/pool
I0727 20:23:45.006271 30634 net.cpp:399] inception_5b/pool_proj -> inception_5b/pool_proj
I0727 20:23:45.011596 30638 net.cpp:141] Setting up loss3/classifier
I0727 20:23:45.011620 30638 net.cpp:148] Top shape: 10 1000 (10000)
I0727 20:23:45.011625 30638 net.cpp:156] Memory required for data: 551493440
I0727 20:23:45.011636 30638 layer_factory.hpp:77] Creating layer prob
I0727 20:23:45.011647 30638 net.cpp:91] Creating Layer prob
I0727 20:23:45.011653 30638 net.cpp:425] prob <- loss3/classifier
I0727 20:23:45.011662 30638 net.cpp:399] prob -> prob
I0727 20:23:45.013442 30634 net.cpp:141] Setting up inception_5b/pool_proj
I0727 20:23:45.013484 30634 net.cpp:148] Top shape: 10 128 7 7 (62720)
I0727 20:23:45.013490 30634 net.cpp:156] Memory required for data: 549113600
I0727 20:23:45.013507 30634 layer_factory.hpp:77] Creating layer inception_5b/relu_pool_proj
I0727 20:23:45.013600 30634 net.cpp:91] Creating Layer inception_5b/relu_pool_proj
I0727 20:23:45.013612 30634 net.cpp:425] inception_5b/relu_pool_proj <- inception_5b/pool_proj
I0727 20:23:45.013620 30634 net.cpp:386] inception_5b/relu_pool_proj -> inception_5b/pool_proj (in-place)
I0727 20:23:45.014434 30638 net.cpp:141] Setting up prob
I0727 20:23:45.014452 30638 net.cpp:148] Top shape: 10 1000 (10000)
I0727 20:23:45.014457 30638 net.cpp:156] Memory required for data: 551533440
I0727 20:23:45.014463 30638 net.cpp:219] prob does not need backward computation.
I0727 20:23:45.014468 30638 net.cpp:219] loss3/classifier does not need backward computation.
I0727 20:23:45.014473 30638 net.cpp:219] pool5/drop_7x7_s1 does not need backward computation.
I0727 20:23:45.014477 30638 net.cpp:219] pool5/7x7_s1 does not need backward computation.
…
