…
Java HotSpot(TM) 64-Bit Server VM warning: You have loaded library /tmp/cvld4683250061448942960/libopencv_java310.xine1.so which might have disabled stack guard. The VM will try to fix the stack guard now.
It's highly recommended that you fix the library with 'execstack -c <libfile>', or link it with '-z noexecstack'.
WARNING: Logging before InitGoogleLogging() is written to STDERR
I0731 22:13:19.803382  6896 net.cpp:49] Initializing net from parameters: 
name: "CaffeNet"
state {
  phase: TEST
}
layer {
  name: "data"
  type: "Input"
  top: "data"
  input_param {
    shape {
      dim: 10
      dim: 3
      dim: 227
      dim: 227
    }
  }
}
layer {
  name: "conv1"
  type: "Convolution"
  bottom: "data"
  top: "conv1"
  convolution_param {
    num_output: 96
    kernel_size: 11
    stride: 4
  }
}
layer {
  name: "relu1"
  type: "ReLU"
  bottom: "conv1"
  top: "conv1"
}
layer {
  name: "pool1"
  type: "Pooling"
  bottom: "conv1"
  top: "pool1"
  pooling_param {
    pool: MAX
    kernel_size: 3
    stride: 2
  }
}
layer {
  name: "norm1"
  type: "LRN"
  bottom: "pool1"
  top: "norm1"
  lrn_param {
    local_size: 5
    alpha: 0.0001
    beta: 0.75
  }
}
layer {
  name: "conv2"
  type: "Convolution"
  bottom: "norm1"
  top: "conv2"
  convolution_param {
    num_output: 256
    pad: 2
    kernel_size: 5
    group: 2
  }
}
layer {
  name: "relu2"
  type: "ReLU"
  bottom: "conv2"
  top: "conv2"
}
layer {
  name: "pool2"
  type: "Pooling"
  bottom: "conv2"
  top: "pool2"
  pooling_param {
    pool: MAX
    kernel_size: 3
    stride: 2
  }
}
layer {
  name: "norm2"
  type: "LRN"
  bottom: "pool2"
  top: "norm2"
  lrn_param {
    local_size: 5
    alpha: 0.0001
    beta: 0.75
  }
}
layer {
  name: "conv3"
  type: "Convolution"
  bottom: "norm2"
  top: "conv3"
  convolution_param {
    num_output: 384
    pad: 1
    kernel_size: 3
  }
}
layer {
  name: "relu3"
  type: "ReLU"
  bottom: "conv3"
  top: "conv3"
}
layer {
  name: "conv4"
  type: "Convolution"
  bottom: "conv3"
  top: "conv4"
  convolution_param {
    num_output: 384
    pad: 1
    kernel_size: 3
    group: 2
  }
}
layer {
  name: "relu4"
  type: "ReLU"
  bottom: "conv4"
  top: "conv4"
}
layer {
  name: "conv5"
  type: "Convolution"
  bottom: "conv4"
  top: "conv5"
  convolution_param {
    num_output: 256
    pad: 1
    kernel_size: 3
    group: 2
  }
}
layer {
  name: "relu5"
  type: "ReLU"
  bottom: "conv5"
  top: "conv5"
}
layer {
  name: "pool5"
  type: "Pooling"
  bottom: "conv5"
  top: "pool5"
  pooling_param {
    pool: MAX
    kernel_size: 3
    stride: 2
  }
}
layer {
  name: "fc6"
  type: "InnerProduct"
  bottom: "pool5"
  top: "fc6"
  inner_product_param {
    num_output: 4096
  }
}
layer {
  name: "relu6"
  type: "ReLU"
  bottom: "fc6"
  top: "fc6"
}
layer {
  name: "drop6"
  type: "Dropout"
  bottom: "fc6"
  top: "fc6"
  dropout_param {
    dropout_ratio: 0.5
  }
}
layer {
  name: "fc7"
  type: "InnerProduct"
  bottom: "fc6"
  top: "fc7"
  inner_product_param {
    num_output: 4096
  }
}
layer {
  name: "relu7"
  type: "ReLU"
  bottom: "fc7"
  top: "fc7"
}
layer {
  name: "drop7"
  type: "Dropout"
  bottom: "fc7"
  top: "fc7"
  dropout_param {
    dropout_ratio: 0.5
  }
}
layer {
  name: "fc8"
  type: "InnerProduct"
  bottom: "fc7"
  top: "fc8"
  inner_product_param {
    num_output: 1000
  }
}
layer {
  name: "prob"
  type: "Softmax"
  bottom: "fc8"
  top: "prob"
}
I0731 22:13:19.803568  6896 layer_factory.hpp:77] Creating layer data
I0731 22:13:19.803596  6896 net.cpp:91] Creating Layer data
I0731 22:13:19.803606  6896 net.cpp:399] data -> data
I0731 22:13:20.295503  6896 net.cpp:141] Setting up data
I0731 22:13:20.295595  6896 net.cpp:148] Top shape: 10 3 227 227 (1545870)
I0731 22:13:20.295603  6896 net.cpp:156] Memory required for data: 6183480
I0731 22:13:20.295619  6896 layer_factory.hpp:77] Creating layer conv1
I0731 22:13:20.295645  6896 net.cpp:91] Creating Layer conv1
I0731 22:13:20.295655  6896 net.cpp:425] conv1 <- data
I0731 22:13:20.295666  6896 net.cpp:399] conv1 -> conv1
I0731 22:13:20.459447  6885 upgrade_proto.cpp:66] Attempting to upgrade input file specified using deprecated input fields: /tmp/cvld4683250061448942960/s2vt.words_to_preds.prototxt
I0731 22:13:20.459509  6885 upgrade_proto.cpp:69] Successfully upgraded file specified using deprecated input fields.
W0731 22:13:20.459517  6885 upgrade_proto.cpp:71] Note that future Caffe releases will only support input layers and not input fields.
I0731 22:13:20.459758  6885 net.cpp:49] Initializing net from parameters: 
name: "s2vt:features_to_lstm"
state {
  phase: TEST
}
layer {
  name: "input"
  type: "Input"
  top: "frames_fc7"
  top: "cont_sentence"
  top: "input_sentence"
  top: "stage_indicator"
  input_param {
    shape {
      dim: 1
      dim: 4096
    }
    shape {
      dim: 1
      dim: 1
    }
    shape {
      dim: 1
      dim: 1
    }
    shape {
      dim: 1
      dim: 1
    }
  }
}
layer {
  name: "embed_encoder"
  type: "InnerProduct"
  bottom: "frames_fc7"
  top: "embedded_in_frames"
  param {
    lr_mult: 1
    decay_mult: 1
  }
  param {
    lr_mult: 2
    decay_mult: 0
  }
  inner_product_param {
    num_output: 500
    weight_filler {
      type: "xavier"
    }
    bias_filler {
      type: "constant"
      value: 0.2
    }
  }
}
layer {
  name: "reshape_frames"
  type: "Reshape"
  bottom: "embedded_in_frames"
  top: "embedded_input_frames"
  reshape_param {
    shape {
      dim: 1
      dim: 1
      dim: 500
    }
  }
}
layer {
  name: "reshape_stage_indicator"
  type: "Reshape"
  bottom: "stage_indicator"
  top: "reshaped_stage_indicator"
  reshape_param {
    shape {
      dim: 1
      dim: 1
      dim: 1
    }
  }
}
layer {
  name: "embedding"
  type: "Embed"
  bottom: "input_sentence"
  top: "embedded_input_sentence"
  param {
    lr_mult: 1
  }
  embed_param {
    num_output: 500
    input_dim: 46168
    bias_term: false
    weight_filler {
      type: "uniform"
      min: -0.08
      max: 0.08
    }
  }
}
layer {
  name: "lstm1"
  type: "LSTM"
  bottom: "embedded_input_frames"
  bottom: "cont_sentence"
  top: "lstm1"
  recurrent_param {
    num_output: 1000
    weight_filler {
      type: "uniform"
      min: -0.08
      max: 0.08
    }
    bias_filler {
      type: "constant"
      value: 0
    }
  }
}
layer {
  name: "concat"
  type: "Concat"
  bottom: "lstm1"
  bottom: "embedded_input_sentence"
  bottom: "reshaped_stage_indicator"
  top: "lstm1_video_sequence"
  concat_param {
    concat_dim: 2
  }
}
layer {
  name: "lstm2"
  type: "LSTM"
  bottom: "lstm1_video_sequence"
  bottom: "cont_sentence"
  top: "lstm2"
  recurrent_param {
    num_output: 1000
    weight_filler {
      type: "uniform"
      min: -0.08
      max: 0.08
    }
    bias_filler {
      type: "constant"
      value: 0
    }
  }
}
layer {
  name: "predict"
  type: "InnerProduct"
  bottom: "lstm2"
  top: "predict"
  param {
    lr_mult: 1
    decay_mult: 1
  }
  param {
    lr_mult: 2
    decay_mult: 0
  }
  inner_product_param {
    num_output: 46168
    weight_filler {
      type: "uniform"
      min: -0.08
      max: 0.08
    }
    bias_filler {
      type: "constant"
      value: 0
    }
    axis: 2
  }
}
layer {
  name: "probs"
  type: "Softmax"
  bottom: "predict"
  top: "probs"
  softmax_param {
    axis: 2
  }
}
I0731 22:13:20.459856  6885 layer_factory.hpp:77] Creating layer input
I0731 22:13:20.459872  6885 net.cpp:91] Creating Layer input
I0731 22:13:20.459888  6885 net.cpp:399] input -> frames_fc7
I0731 22:13:20.459905  6885 net.cpp:399] input -> cont_sentence
I0731 22:13:20.459916  6885 net.cpp:399] input -> input_sentence
I0731 22:13:20.459926  6885 net.cpp:399] input -> stage_indicator
I0731 22:13:20.461272  6885 net.cpp:141] Setting up input
I0731 22:13:20.461290  6885 net.cpp:148] Top shape: 1 4096 (4096)
I0731 22:13:20.461297  6885 net.cpp:148] Top shape: 1 1 (1)
I0731 22:13:20.461302  6885 net.cpp:148] Top shape: 1 1 (1)
I0731 22:13:20.461308  6885 net.cpp:148] Top shape: 1 1 (1)
I0731 22:13:20.461311  6885 net.cpp:156] Memory required for data: 16396
I0731 22:13:20.461316  6885 layer_factory.hpp:77] Creating layer cont_sentence_input_1_split
I0731 22:13:20.461334  6885 net.cpp:91] Creating Layer cont_sentence_input_1_split
I0731 22:13:20.461340  6885 net.cpp:425] cont_sentence_input_1_split <- cont_sentence
I0731 22:13:20.461359  6885 net.cpp:399] cont_sentence_input_1_split -> cont_sentence_input_1_split_0
I0731 22:13:20.461370  6885 net.cpp:399] cont_sentence_input_1_split -> cont_sentence_input_1_split_1
I0731 22:13:20.461514  6885 net.cpp:141] Setting up cont_sentence_input_1_split
I0731 22:13:20.461525  6885 net.cpp:148] Top shape: 1 1 (1)
I0731 22:13:20.461531  6885 net.cpp:148] Top shape: 1 1 (1)
I0731 22:13:20.461535  6885 net.cpp:156] Memory required for data: 16404
I0731 22:13:20.461539  6885 layer_factory.hpp:77] Creating layer embed_encoder
I0731 22:13:20.461552  6885 net.cpp:91] Creating Layer embed_encoder
I0731 22:13:20.461557  6885 net.cpp:425] embed_encoder <- frames_fc7
I0731 22:13:20.461566  6885 net.cpp:399] embed_encoder -> embedded_in_frames
I0731 22:13:20.486884  6885 net.cpp:141] Setting up embed_encoder
I0731 22:13:20.486930  6885 net.cpp:148] Top shape: 1 500 (500)
I0731 22:13:20.486937  6885 net.cpp:156] Memory required for data: 18404
I0731 22:13:20.486959  6885 layer_factory.hpp:77] Creating layer reshape_frames
I0731 22:13:20.486980  6885 net.cpp:91] Creating Layer reshape_frames
I0731 22:13:20.486987  6885 net.cpp:425] reshape_frames <- embedded_in_frames
I0731 22:13:20.486999  6885 net.cpp:399] reshape_frames -> embedded_input_frames
I0731 22:13:20.487053  6885 net.cpp:141] Setting up reshape_frames
I0731 22:13:20.487062  6885 net.cpp:148] Top shape: 1 1 500 (500)
I0731 22:13:20.487066  6885 net.cpp:156] Memory required for data: 20404
I0731 22:13:20.487071  6885 layer_factory.hpp:77] Creating layer reshape_stage_indicator
I0731 22:13:20.487083  6885 net.cpp:91] Creating Layer reshape_stage_indicator
I0731 22:13:20.487089  6885 net.cpp:425] reshape_stage_indicator <- stage_indicator
I0731 22:13:20.487097  6885 net.cpp:399] reshape_stage_indicator -> reshaped_stage_indicator
I0731 22:13:20.487149  6885 net.cpp:141] Setting up reshape_stage_indicator
I0731 22:13:20.487159  6885 net.cpp:148] Top shape: 1 1 1 (1)
I0731 22:13:20.487162  6885 net.cpp:156] Memory required for data: 20408
I0731 22:13:20.487166  6885 layer_factory.hpp:77] Creating layer embedding
I0731 22:13:20.487180  6885 net.cpp:91] Creating Layer embedding
I0731 22:13:20.487185  6885 net.cpp:425] embedding <- input_sentence
I0731 22:13:20.487193  6885 net.cpp:399] embedding -> embedded_input_sentence
I0731 22:13:20.564129  6896 net.cpp:141] Setting up conv1
I0731 22:13:20.564187  6896 net.cpp:148] Top shape: 10 96 55 55 (2904000)
I0731 22:13:20.564194  6896 net.cpp:156] Memory required for data: 17799480
I0731 22:13:20.564220  6896 layer_factory.hpp:77] Creating layer relu1
I0731 22:13:20.564242  6896 net.cpp:91] Creating Layer relu1
I0731 22:13:20.564249  6896 net.cpp:425] relu1 <- conv1
I0731 22:13:20.564262  6896 net.cpp:386] relu1 -> conv1 (in-place)
I0731 22:13:20.564787  6896 net.cpp:141] Setting up relu1
I0731 22:13:20.564801  6896 net.cpp:148] Top shape: 10 96 55 55 (2904000)
I0731 22:13:20.564806  6896 net.cpp:156] Memory required for data: 29415480
I0731 22:13:20.564812  6896 layer_factory.hpp:77] Creating layer pool1
I0731 22:13:20.564829  6896 net.cpp:91] Creating Layer pool1
I0731 22:13:20.564836  6896 net.cpp:425] pool1 <- conv1
I0731 22:13:20.564844  6896 net.cpp:399] pool1 -> pool1
I0731 22:13:20.564924  6896 net.cpp:141] Setting up pool1
I0731 22:13:20.564935  6896 net.cpp:148] Top shape: 10 96 27 27 (699840)
I0731 22:13:20.564940  6896 net.cpp:156] Memory required for data: 32214840
I0731 22:13:20.564945  6896 layer_factory.hpp:77] Creating layer norm1
I0731 22:13:20.564965  6896 net.cpp:91] Creating Layer norm1
I0731 22:13:20.564971  6896 net.cpp:425] norm1 <- pool1
I0731 22:13:20.564978  6896 net.cpp:399] norm1 -> norm1
I0731 22:13:20.565521  6896 net.cpp:141] Setting up norm1
I0731 22:13:20.565536  6896 net.cpp:148] Top shape: 10 96 27 27 (699840)
I0731 22:13:20.565544  6896 net.cpp:156] Memory required for data: 35014200
I0731 22:13:20.565551  6896 layer_factory.hpp:77] Creating layer conv2
I0731 22:13:20.565567  6896 net.cpp:91] Creating Layer conv2
I0731 22:13:20.565573  6896 net.cpp:425] conv2 <- norm1
I0731 22:13:20.565585  6896 net.cpp:399] conv2 -> conv2
I0731 22:13:20.569248  6896 net.cpp:141] Setting up conv2
I0731 22:13:20.569269  6896 net.cpp:148] Top shape: 10 256 27 27 (1866240)
I0731 22:13:20.569275  6896 net.cpp:156] Memory required for data: 42479160
I0731 22:13:20.569288  6896 layer_factory.hpp:77] Creating layer relu2
I0731 22:13:20.569298  6896 net.cpp:91] Creating Layer relu2
I0731 22:13:20.569303  6896 net.cpp:425] relu2 <- conv2
I0731 22:13:20.569315  6896 net.cpp:386] relu2 -> conv2 (in-place)
I0731 22:13:20.569808  6896 net.cpp:141] Setting up relu2
I0731 22:13:20.569823  6896 net.cpp:148] Top shape: 10 256 27 27 (1866240)
I0731 22:13:20.569828  6896 net.cpp:156] Memory required for data: 49944120
I0731 22:13:20.569833  6896 layer_factory.hpp:77] Creating layer pool2
I0731 22:13:20.569846  6896 net.cpp:91] Creating Layer pool2
I0731 22:13:20.569852  6896 net.cpp:425] pool2 <- conv2
I0731 22:13:20.569862  6896 net.cpp:399] pool2 -> pool2
I0731 22:13:20.569926  6896 net.cpp:141] Setting up pool2
I0731 22:13:20.569936  6896 net.cpp:148] Top shape: 10 256 13 13 (432640)
I0731 22:13:20.569941  6896 net.cpp:156] Memory required for data: 51674680
I0731 22:13:20.569947  6896 layer_factory.hpp:77] Creating layer norm2
I0731 22:13:20.569959  6896 net.cpp:91] Creating Layer norm2
I0731 22:13:20.569964  6896 net.cpp:425] norm2 <- pool2
I0731 22:13:20.569972  6896 net.cpp:399] norm2 -> norm2
I0731 22:13:20.570260  6896 net.cpp:141] Setting up norm2
I0731 22:13:20.570272  6896 net.cpp:148] Top shape: 10 256 13 13 (432640)
I0731 22:13:20.570277  6896 net.cpp:156] Memory required for data: 53405240
I0731 22:13:20.570282  6896 layer_factory.hpp:77] Creating layer conv3
I0731 22:13:20.570297  6896 net.cpp:91] Creating Layer conv3
I0731 22:13:20.570302  6896 net.cpp:425] conv3 <- norm2
I0731 22:13:20.570310  6896 net.cpp:399] conv3 -> conv3
I0731 22:13:20.574434  6896 net.cpp:141] Setting up conv3
I0731 22:13:20.574455  6896 net.cpp:148] Top shape: 10 384 13 13 (648960)
I0731 22:13:20.574460  6896 net.cpp:156] Memory required for data: 56001080
I0731 22:13:20.574472  6896 layer_factory.hpp:77] Creating layer relu3
I0731 22:13:20.574482  6896 net.cpp:91] Creating Layer relu3
I0731 22:13:20.574488  6896 net.cpp:425] relu3 <- conv3
I0731 22:13:20.574501  6896 net.cpp:386] relu3 -> conv3 (in-place)
I0731 22:13:20.574990  6896 net.cpp:141] Setting up relu3
I0731 22:13:20.575004  6896 net.cpp:148] Top shape: 10 384 13 13 (648960)
I0731 22:13:20.575009  6896 net.cpp:156] Memory required for data: 58596920
I0731 22:13:20.575016  6896 layer_factory.hpp:77] Creating layer conv4
I0731 22:13:20.575031  6896 net.cpp:91] Creating Layer conv4
I0731 22:13:20.575037  6896 net.cpp:425] conv4 <- conv3
I0731 22:13:20.575047  6896 net.cpp:399] conv4 -> conv4
I0731 22:13:20.579601  6896 net.cpp:141] Setting up conv4
I0731 22:13:20.579625  6896 net.cpp:148] Top shape: 10 384 13 13 (648960)
I0731 22:13:20.579632  6896 net.cpp:156] Memory required for data: 61192760
I0731 22:13:20.579643  6896 layer_factory.hpp:77] Creating layer relu4
I0731 22:13:20.579653  6896 net.cpp:91] Creating Layer relu4
I0731 22:13:20.579658  6896 net.cpp:425] relu4 <- conv4
I0731 22:13:20.579666  6896 net.cpp:386] relu4 -> conv4 (in-place)
I0731 22:13:20.580195  6896 net.cpp:141] Setting up relu4
I0731 22:13:20.580214  6896 net.cpp:148] Top shape: 10 384 13 13 (648960)
I0731 22:13:20.580219  6896 net.cpp:156] Memory required for data: 63788600
I0731 22:13:20.580225  6896 layer_factory.hpp:77] Creating layer conv5
I0731 22:13:20.580237  6896 net.cpp:91] Creating Layer conv5
I0731 22:13:20.580242  6896 net.cpp:425] conv5 <- conv4
I0731 22:13:20.580255  6896 net.cpp:399] conv5 -> conv5
I0731 22:13:20.584615  6896 net.cpp:141] Setting up conv5
I0731 22:13:20.584638  6896 net.cpp:148] Top shape: 10 256 13 13 (432640)
I0731 22:13:20.584645  6896 net.cpp:156] Memory required for data: 65519160
I0731 22:13:20.584661  6896 layer_factory.hpp:77] Creating layer relu5
I0731 22:13:20.584672  6896 net.cpp:91] Creating Layer relu5
I0731 22:13:20.584678  6896 net.cpp:425] relu5 <- conv5
I0731 22:13:20.584686  6896 net.cpp:386] relu5 -> conv5 (in-place)
I0731 22:13:20.585196  6896 net.cpp:141] Setting up relu5
I0731 22:13:20.585209  6896 net.cpp:148] Top shape: 10 256 13 13 (432640)
I0731 22:13:20.585214  6896 net.cpp:156] Memory required for data: 67249720
I0731 22:13:20.585221  6896 layer_factory.hpp:77] Creating layer pool5
I0731 22:13:20.585232  6896 net.cpp:91] Creating Layer pool5
I0731 22:13:20.585237  6896 net.cpp:425] pool5 <- conv5
I0731 22:13:20.585248  6896 net.cpp:399] pool5 -> pool5
I0731 22:13:20.585312  6896 net.cpp:141] Setting up pool5
I0731 22:13:20.585324  6896 net.cpp:148] Top shape: 10 256 6 6 (92160)
I0731 22:13:20.585327  6896 net.cpp:156] Memory required for data: 67618360
I0731 22:13:20.585332  6896 layer_factory.hpp:77] Creating layer fc6
I0731 22:13:20.585351  6896 net.cpp:91] Creating Layer fc6
I0731 22:13:20.585356  6896 net.cpp:425] fc6 <- pool5
I0731 22:13:20.585363  6896 net.cpp:399] fc6 -> fc6
I0731 22:13:20.695235  6896 net.cpp:141] Setting up fc6
I0731 22:13:20.695294  6896 net.cpp:148] Top shape: 10 4096 (40960)
I0731 22:13:20.695300  6896 net.cpp:156] Memory required for data: 67782200
I0731 22:13:20.695317  6896 layer_factory.hpp:77] Creating layer relu6
I0731 22:13:20.695334  6896 net.cpp:91] Creating Layer relu6
I0731 22:13:20.695340  6896 net.cpp:425] relu6 <- fc6
I0731 22:13:20.695353  6896 net.cpp:386] relu6 -> fc6 (in-place)
I0731 22:13:20.695705  6896 net.cpp:141] Setting up relu6
I0731 22:13:20.695720  6896 net.cpp:148] Top shape: 10 4096 (40960)
I0731 22:13:20.695725  6896 net.cpp:156] Memory required for data: 67946040
I0731 22:13:20.695730  6896 layer_factory.hpp:77] Creating layer drop6
I0731 22:13:20.695739  6896 net.cpp:91] Creating Layer drop6
I0731 22:13:20.695744  6896 net.cpp:425] drop6 <- fc6
I0731 22:13:20.695750  6896 net.cpp:386] drop6 -> fc6 (in-place)
I0731 22:13:20.695811  6896 net.cpp:141] Setting up drop6
I0731 22:13:20.695821  6896 net.cpp:148] Top shape: 10 4096 (40960)
I0731 22:13:20.695825  6896 net.cpp:156] Memory required for data: 68109880
I0731 22:13:20.695829  6896 layer_factory.hpp:77] Creating layer fc7
I0731 22:13:20.695842  6896 net.cpp:91] Creating Layer fc7
I0731 22:13:20.695845  6896 net.cpp:425] fc7 <- fc6
I0731 22:13:20.695852  6896 net.cpp:399] fc7 -> fc7
I0731 22:13:20.728512  6885 net.cpp:141] Setting up embedding
I0731 22:13:20.728566  6885 net.cpp:148] Top shape: 1 1 500 (500)
I0731 22:13:20.728572  6885 net.cpp:156] Memory required for data: 22408
I0731 22:13:20.728591  6885 layer_factory.hpp:77] Creating layer lstm1
I0731 22:13:20.728615  6885 net.cpp:91] Creating Layer lstm1
I0731 22:13:20.728623  6885 net.cpp:425] lstm1 <- embedded_input_frames
I0731 22:13:20.728632  6885 net.cpp:425] lstm1 <- cont_sentence_input_1_split_0
I0731 22:13:20.728644  6885 net.cpp:399] lstm1 -> lstm1
I0731 22:13:20.728669  6885 recurrent_layer.cpp:20] Initializing recurrent layer: assuming input batch contains 1 timesteps of 1 independent streams.
I0731 22:13:20.729017  6885 net.cpp:49] Initializing net from parameters: 
layer {
  name: "lstm1_"
  type: "Input"
  top: "x"
  top: "cont"
  input_param {
    shape {
      dim: 1
      dim: 1
      dim: 500
    }
    shape {
      dim: 1
      dim: 1
    }
  }
}
layer {
  name: "lstm1_"
  type: "Input"
  top: "c_0"
  top: "h_0"
  input_param {
    shape {
      dim: 1
      dim: 1
      dim: 1000
    }
    shape {
      dim: 1
      dim: 1
      dim: 1000
    }
  }
}
layer {
  name: "lstm1_cont_slice"
  type: "Slice"
  bottom: "cont"
  top: "cont_1"
  slice_param {
    axis: 0
  }
}
layer {
  name: "lstm1_x_transform"
  type: "InnerProduct"
  bottom: "x"
  top: "W_xc_x"
  param {
    name: "W_xc"
  }
  param {
    name: "b_c"
  }
  propagate_down: true
  inner_product_param {
    num_output: 4000
    bias_term: true
    weight_filler {
      type: "uniform"
      min: -0.08
      max: 0.08
    }
    bias_filler {
      type: "constant"
      value: 0
    }
    axis: 2
  }
}
layer {
  name: "lstm1_W_xc_x_slice"
  type: "Slice"
  bottom: "W_xc_x"
  top: "W_xc_x_1"
  slice_param {
    axis: 0
  }
}
layer {
  name: "lstm1_h_conted_0"
  type: "Scale"
  bottom: "h_0"
  bottom: "cont_1"
  top: "h_conted_0"
  scale_param {
    axis: 0
  }
}
layer {
  name: "lstm1_transform_1"
  type: "InnerProduct"
  bottom: "h_conted_0"
  top: "W_hc_h_0"
  param {
    name: "W_hc"
  }
  inner_product_param {
    num_output: 4000
    bias_term: false
    weight_filler {
      type: "uniform"
      min: -0.08
      max: 0.08
    }
    axis: 2
  }
}
layer {
  name: "lstm1_gate_input_1"
  type: "Eltwise"
  bottom: "W_hc_h_0"
  bottom: "W_xc_x_1"
  top: "gate_input_1"
  eltwise_param {
    operation: SUM
  }
}
layer {
  name: "lstm1_unit_1"
  type: "LSTMUnit"
  bottom: "c_0"
  bottom: "gate_input_1"
  bottom: "cont_1"
  top: "c_1"
  top: "h_1"
}
layer {
  name: "lstm1_"
  type: "Split"
  bottom: "c_1"
  top: "c_T"
}
layer {
  name: "lstm1_h_concat"
  type: "Concat"
  bottom: "h_1"
  top: "h"
  concat_param {
    axis: 0
  }
}
layer {
  name: "h_pseudoloss"
  type: "Reduction"
  bottom: "h"
  top: "h_pseudoloss"
  loss_weight: 1
}
I0731 22:13:20.729106  6885 layer_factory.hpp:77] Creating layer lstm1_
I0731 22:13:20.729118  6885 net.cpp:91] Creating Layer lstm1_
I0731 22:13:20.729125  6885 net.cpp:399] lstm1_ -> x
I0731 22:13:20.729135  6885 net.cpp:399] lstm1_ -> cont
I0731 22:13:20.729215  6885 net.cpp:141] Setting up lstm1_
I0731 22:13:20.729225  6885 net.cpp:148] Top shape: 1 1 500 (500)
I0731 22:13:20.729231  6885 net.cpp:148] Top shape: 1 1 (1)
I0731 22:13:20.729235  6885 net.cpp:156] Memory required for data: 2004
I0731 22:13:20.729240  6885 layer_factory.hpp:77] Creating layer lstm1_
I0731 22:13:20.729249  6885 net.cpp:91] Creating Layer lstm1_
I0731 22:13:20.729256  6885 net.cpp:399] lstm1_ -> c_0
I0731 22:13:20.729266  6885 net.cpp:399] lstm1_ -> h_0
I0731 22:13:20.729316  6885 net.cpp:141] Setting up lstm1_
I0731 22:13:20.729327  6885 net.cpp:148] Top shape: 1 1 1000 (1000)
I0731 22:13:20.729332  6885 net.cpp:148] Top shape: 1 1 1000 (1000)
I0731 22:13:20.729336  6885 net.cpp:156] Memory required for data: 10004
I0731 22:13:20.729341  6885 layer_factory.hpp:77] Creating layer lstm1_cont_slice
I0731 22:13:20.729349  6885 net.cpp:91] Creating Layer lstm1_cont_slice
I0731 22:13:20.729354  6885 net.cpp:425] lstm1_cont_slice <- cont
I0731 22:13:20.729360  6885 net.cpp:399] lstm1_cont_slice -> cont_1
I0731 22:13:20.729398  6885 net.cpp:141] Setting up lstm1_cont_slice
I0731 22:13:20.729406  6885 net.cpp:148] Top shape: 1 1 (1)
I0731 22:13:20.729410  6885 net.cpp:156] Memory required for data: 10008
I0731 22:13:20.729414  6885 layer_factory.hpp:77] Creating layer cont_1_lstm1_cont_slice_0_split
I0731 22:13:20.729424  6885 net.cpp:91] Creating Layer cont_1_lstm1_cont_slice_0_split
I0731 22:13:20.729429  6885 net.cpp:425] cont_1_lstm1_cont_slice_0_split <- cont_1
I0731 22:13:20.729434  6885 net.cpp:399] cont_1_lstm1_cont_slice_0_split -> cont_1_lstm1_cont_slice_0_split_0
I0731 22:13:20.729442  6885 net.cpp:399] cont_1_lstm1_cont_slice_0_split -> cont_1_lstm1_cont_slice_0_split_1
I0731 22:13:20.729488  6885 net.cpp:141] Setting up cont_1_lstm1_cont_slice_0_split
I0731 22:13:20.729496  6885 net.cpp:148] Top shape: 1 1 (1)
I0731 22:13:20.729502  6885 net.cpp:148] Top shape: 1 1 (1)
I0731 22:13:20.729506  6885 net.cpp:156] Memory required for data: 10016
I0731 22:13:20.729511  6885 layer_factory.hpp:77] Creating layer lstm1_x_transform
I0731 22:13:20.729519  6885 net.cpp:91] Creating Layer lstm1_x_transform
I0731 22:13:20.729524  6885 net.cpp:425] lstm1_x_transform <- x
I0731 22:13:20.729533  6885 net.cpp:399] lstm1_x_transform -> W_xc_x
I0731 22:13:20.745517  6896 net.cpp:141] Setting up fc7
I0731 22:13:20.745563  6896 net.cpp:148] Top shape: 10 4096 (40960)
I0731 22:13:20.745569  6896 net.cpp:156] Memory required for data: 68273720
I0731 22:13:20.745584  6896 layer_factory.hpp:77] Creating layer relu7
I0731 22:13:20.745597  6896 net.cpp:91] Creating Layer relu7
I0731 22:13:20.745604  6896 net.cpp:425] relu7 <- fc7
I0731 22:13:20.745616  6896 net.cpp:386] relu7 -> fc7 (in-place)
I0731 22:13:20.746418  6896 net.cpp:141] Setting up relu7
I0731 22:13:20.746431  6896 net.cpp:148] Top shape: 10 4096 (40960)
I0731 22:13:20.746436  6896 net.cpp:156] Memory required for data: 68437560
I0731 22:13:20.746441  6896 layer_factory.hpp:77] Creating layer drop7
I0731 22:13:20.746454  6896 net.cpp:91] Creating Layer drop7
I0731 22:13:20.746459  6896 net.cpp:425] drop7 <- fc7
I0731 22:13:20.746466  6896 net.cpp:386] drop7 -> fc7 (in-place)
I0731 22:13:20.746506  6896 net.cpp:141] Setting up drop7
I0731 22:13:20.746515  6896 net.cpp:148] Top shape: 10 4096 (40960)
I0731 22:13:20.746518  6896 net.cpp:156] Memory required for data: 68601400
I0731 22:13:20.746522  6896 layer_factory.hpp:77] Creating layer fc8
I0731 22:13:20.746531  6896 net.cpp:91] Creating Layer fc8
I0731 22:13:20.746536  6896 net.cpp:425] fc8 <- fc7
I0731 22:13:20.746546  6896 net.cpp:399] fc8 -> fc8
I0731 22:13:20.754169  6885 net.cpp:141] Setting up lstm1_x_transform
I0731 22:13:20.754220  6885 net.cpp:148] Top shape: 1 1 4000 (4000)
I0731 22:13:20.754226  6885 net.cpp:156] Memory required for data: 26016
I0731 22:13:20.754248  6885 layer_factory.hpp:77] Creating layer lstm1_W_xc_x_slice
I0731 22:13:20.754263  6885 net.cpp:91] Creating Layer lstm1_W_xc_x_slice
I0731 22:13:20.754271  6885 net.cpp:425] lstm1_W_xc_x_slice <- W_xc_x
I0731 22:13:20.754279  6885 net.cpp:399] lstm1_W_xc_x_slice -> W_xc_x_1
I0731 22:13:20.754326  6885 net.cpp:141] Setting up lstm1_W_xc_x_slice
I0731 22:13:20.754336  6885 net.cpp:148] Top shape: 1 1 4000 (4000)
I0731 22:13:20.754340  6885 net.cpp:156] Memory required for data: 42016
I0731 22:13:20.754345  6885 layer_factory.hpp:77] Creating layer lstm1_h_conted_0
I0731 22:13:20.754355  6885 net.cpp:91] Creating Layer lstm1_h_conted_0
I0731 22:13:20.754360  6885 net.cpp:425] lstm1_h_conted_0 <- h_0
I0731 22:13:20.754366  6885 net.cpp:425] lstm1_h_conted_0 <- cont_1_lstm1_cont_slice_0_split_0
I0731 22:13:20.754372  6885 net.cpp:399] lstm1_h_conted_0 -> h_conted_0
I0731 22:13:20.754461  6885 net.cpp:141] Setting up lstm1_h_conted_0
I0731 22:13:20.754470  6885 net.cpp:148] Top shape: 1 1 1000 (1000)
I0731 22:13:20.754474  6885 net.cpp:156] Memory required for data: 46016
I0731 22:13:20.754479  6885 layer_factory.hpp:77] Creating layer lstm1_transform_1
I0731 22:13:20.754492  6885 net.cpp:91] Creating Layer lstm1_transform_1
I0731 22:13:20.754497  6885 net.cpp:425] lstm1_transform_1 <- h_conted_0
I0731 22:13:20.754503  6885 net.cpp:399] lstm1_transform_1 -> W_hc_h_0
I0731 22:13:20.762353  6896 net.cpp:141] Setting up fc8
I0731 22:13:20.762408  6896 net.cpp:148] Top shape: 10 1000 (10000)
I0731 22:13:20.762414  6896 net.cpp:156] Memory required for data: 68641400
I0731 22:13:20.762431  6896 layer_factory.hpp:77] Creating layer prob
I0731 22:13:20.762449  6896 net.cpp:91] Creating Layer prob
I0731 22:13:20.762456  6896 net.cpp:425] prob <- fc8
I0731 22:13:20.762466  6896 net.cpp:399] prob -> prob
I0731 22:13:20.762897  6896 net.cpp:141] Setting up prob
I0731 22:13:20.762908  6896 net.cpp:148] Top shape: 10 1000 (10000)
I0731 22:13:20.762913  6896 net.cpp:156] Memory required for data: 68681400
I0731 22:13:20.762918  6896 net.cpp:219] prob does not need backward computation.
I0731 22:13:20.762923  6896 net.cpp:219] fc8 does not need backward computation.
I0731 22:13:20.762928  6896 net.cpp:219] drop7 does not need backward computation.
I0731 22:13:20.762933  6896 net.cpp:219] relu7 does not need backward computation.
…
I0731 22:13:20.763006  6896 net.cpp:219] norm1 does not need backward computation.
I0731 22:13:20.763012  6896 net.cpp:219] pool1 does not need backward computation.
I0731 22:13:20.763016  6896 net.cpp:219] relu1 does not need backward computation.
I0731 22:13:20.763020  6896 net.cpp:219] conv1 does not need backward computation.
I0731 22:13:20.763025  6896 net.cpp:219] data does not need backward computation.
I0731 22:13:20.763028  6896 net.cpp:261] This network produces output prob
I0731 22:13:20.763049  6896 net.cpp:274] Network initialization done.
I0731 22:13:20.792664  6885 net.cpp:141] Setting up lstm1_transform_1
I0731 22:13:20.792716  6885 net.cpp:148] Top shape: 1 1 4000 (4000)
I0731 22:13:20.792721  6885 net.cpp:156] Memory required for data: 62016
I0731 22:13:20.792738  6885 layer_factory.hpp:77] Creating layer lstm1_gate_input_1
I0731 22:13:20.792758  6885 net.cpp:91] Creating Layer lstm1_gate_input_1
I0731 22:13:20.792764  6885 net.cpp:425] lstm1_gate_input_1 <- W_hc_h_0
I0731 22:13:20.792773  6885 net.cpp:425] lstm1_gate_input_1 <- W_xc_x_1
I0731 22:13:20.792780  6885 net.cpp:399] lstm1_gate_input_1 -> gate_input_1
I0731 22:13:20.792834  6885 net.cpp:141] Setting up lstm1_gate_input_1
I0731 22:13:20.792843  6885 net.cpp:148] Top shape: 1 1 4000 (4000)
I0731 22:13:20.792847  6885 net.cpp:156] Memory required for data: 78016
I0731 22:13:20.792852  6885 layer_factory.hpp:77] Creating layer lstm1_unit_1
I0731 22:13:20.792861  6885 net.cpp:91] Creating Layer lstm1_unit_1
I0731 22:13:20.792865  6885 net.cpp:425] lstm1_unit_1 <- c_0
I0731 22:13:20.792871  6885 net.cpp:425] lstm1_unit_1 <- gate_input_1
I0731 22:13:20.792876  6885 net.cpp:425] lstm1_unit_1 <- cont_1_lstm1_cont_slice_0_split_1
I0731 22:13:20.792886  6885 net.cpp:399] lstm1_unit_1 -> c_1
I0731 22:13:20.792893  6885 net.cpp:399] lstm1_unit_1 -> h_1
I0731 22:13:20.792953  6885 net.cpp:141] Setting up lstm1_unit_1
I0731 22:13:20.792960  6885 net.cpp:148] Top shape: 1 1 1000 (1000)
I0731 22:13:20.792966  6885 net.cpp:148] Top shape: 1 1 1000 (1000)
I0731 22:13:20.792970  6885 net.cpp:156] Memory required for data: 86016
I0731 22:13:20.792974  6885 layer_factory.hpp:77] Creating layer lstm1_
I0731 22:13:20.792984  6885 net.cpp:91] Creating Layer lstm1_
I0731 22:13:20.792989  6885 net.cpp:425] lstm1_ <- c_1
I0731 22:13:20.792995  6885 net.cpp:399] lstm1_ -> c_T
I0731 22:13:20.793025  6885 net.cpp:141] Setting up lstm1_
I0731 22:13:20.793032  6885 net.cpp:148] Top shape: 1 1 1000 (1000)
I0731 22:13:20.793036  6885 net.cpp:156] Memory required for data: 90016
I0731 22:13:20.793040  6885 layer_factory.hpp:77] Creating layer lstm1_h_concat
I0731 22:13:20.793058  6885 net.cpp:91] Creating Layer lstm1_h_concat
I0731 22:13:20.793063  6885 net.cpp:425] lstm1_h_concat <- h_1
I0731 22:13:20.793072  6885 net.cpp:399] lstm1_h_concat -> h
I0731 22:13:20.793109  6885 net.cpp:141] Setting up lstm1_h_concat
I0731 22:13:20.793118  6885 net.cpp:148] Top shape: 1 1 1000 (1000)
I0731 22:13:20.793121  6885 net.cpp:156] Memory required for data: 94016
I0731 22:13:20.793125  6885 layer_factory.hpp:77] Creating layer h_pseudoloss
I0731 22:13:20.793134  6885 net.cpp:91] Creating Layer h_pseudoloss
I0731 22:13:20.793138  6885 net.cpp:425] h_pseudoloss <- h
I0731 22:13:20.793144  6885 net.cpp:399] h_pseudoloss -> h_pseudoloss
I0731 22:13:20.793232  6885 net.cpp:141] Setting up h_pseudoloss
…
I0731 22:13:20.793349  6885 net.cpp:219] lstm1_ does not need backward computation.
I0731 22:13:20.793352  6885 net.cpp:261] This network produces output c_T
I0731 22:13:20.793356  6885 net.cpp:261] This network produces output h_pseudoloss
I0731 22:13:20.793370  6885 net.cpp:274] Network initialization done.
I0731 22:13:20.793424  6885 recurrent_layer.cpp:150] Adding parameter 0: W_xc
I0731 22:13:20.793431  6885 recurrent_layer.cpp:150] Adding parameter 1: b_c
I0731 22:13:20.793434  6885 recurrent_layer.cpp:150] Adding parameter 2: W_hc
I0731 22:13:20.793540  6885 net.cpp:141] Setting up lstm1
I0731 22:13:20.793550  6885 net.cpp:148] Top shape: 1 1 1000 (1000)
I0731 22:13:20.793555  6885 net.cpp:156] Memory required for data: 26408
I0731 22:13:20.793568  6885 layer_factory.hpp:77] Creating layer concat
I0731 22:13:20.793576  6885 net.cpp:91] Creating Layer concat
I0731 22:13:20.793586  6885 net.cpp:425] concat <- lstm1
I0731 22:13:20.793591  6885 net.cpp:425] concat <- embedded_input_sentence
I0731 22:13:20.793597  6885 net.cpp:425] concat <- reshaped_stage_indicator
I0731 22:13:20.793604  6885 net.cpp:399] concat -> lstm1_video_sequence
I0731 22:13:20.793637  6885 net.cpp:141] Setting up concat
I0731 22:13:20.793644  6885 net.cpp:148] Top shape: 1 1 1501 (1501)
I0731 22:13:20.793648  6885 net.cpp:156] Memory required for data: 32412
I0731 22:13:20.793653  6885 layer_factory.hpp:77] Creating layer lstm2
I0731 22:13:20.793665  6885 net.cpp:91] Creating Layer lstm2
I0731 22:13:20.793670  6885 net.cpp:425] lstm2 <- lstm1_video_sequence
I0731 22:13:20.793678  6885 net.cpp:425] lstm2 <- cont_sentence_input_1_split_1
I0731 22:13:20.793684  6885 net.cpp:399] lstm2 -> lstm2
I0731 22:13:20.793692  6885 recurrent_layer.cpp:20] Initializing recurrent layer: assuming input batch contains 1 timesteps of 1 independent streams.
I0731 22:13:20.793922  6885 net.cpp:49] Initializing net from parameters: 
layer {
  name: "lstm2_"
  type: "Input"
  top: "x"
  top: "cont"
  input_param {
    shape {
      dim: 1
      dim: 1
      dim: 1501
    }
    shape {
      dim: 1
      dim: 1
    }
  }
}
layer {
  name: "lstm2_"
  type: "Input"
  top: "c_0"
  top: "h_0"
  input_param {
    shape {
      dim: 1
      dim: 1
      dim: 1000
    }
    shape {
      dim: 1
      dim: 1
      dim: 1000
    }
  }
}
layer {
  name: "lstm2_cont_slice"
  type: "Slice"
  bottom: "cont"
  top: "cont_1"
  slice_param {
    axis: 0
  }
}
layer {
  name: "lstm2_x_transform"
  type: "InnerProduct"
  bottom: "x"
  top: "W_xc_x"
  param {
    name: "W_xc"
  }
  param {
    name: "b_c"
  }
  propagate_down: true
  inner_product_param {
    num_output: 4000
    bias_term: true
    weight_filler {
      type: "uniform"
      min: -0.08
      max: 0.08
    }
    bias_filler {
      type: "constant"
      value: 0
    }
    axis: 2
  }
}
layer {
  name: "lstm2_W_xc_x_slice"
  type: "Slice"
  bottom: "W_xc_x"
  top: "W_xc_x_1"
  slice_param {
    axis: 0
  }
}
layer {
  name: "lstm2_h_conted_0"
  type: "Scale"
  bottom: "h_0"
  bottom: "cont_1"
  top: "h_conted_0"
  scale_param {
    axis: 0
  }
}
layer {
  name: "lstm2_transform_1"
  type: "InnerProduct"
  bottom: "h_conted_0"
  top: "W_hc_h_0"
  param {
    name: "W_hc"
  }
  inner_product_param {
    num_output: 4000
    bias_term: false
    weight_filler {
      type: "uniform"
      min: -0.08
      max: 0.08
    }
    axis: 2
  }
}
layer {
  name: "lstm2_gate_input_1"
  type: "Eltwise"
  bottom: "W_hc_h_0"
  bottom: "W_xc_x_1"
  top: "gate_input_1"
  eltwise_param {
    operation: SUM
  }
}
layer {
  name: "lstm2_unit_1"
  type: "LSTMUnit"
  bottom: "c_0"
  bottom: "gate_input_1"
  bottom: "cont_1"
  top: "c_1"
  top: "h_1"
}
layer {
  name: "lstm2_"
  type: "Split"
  bottom: "c_1"
  top: "c_T"
}
layer {
  name: "lstm2_h_concat"
  type: "Concat"
  bottom: "h_1"
  top: "h"
  concat_param {
    axis: 0
  }
}
layer {
  name: "h_pseudoloss"
  type: "Reduction"
  bottom: "h"
  top: "h_pseudoloss"
  loss_weight: 1
}
I0731 22:13:20.794004  6885 layer_factory.hpp:77] Creating layer lstm2_
I0731 22:13:20.794016  6885 net.cpp:91] Creating Layer lstm2_
I0731 22:13:20.794023  6885 net.cpp:399] lstm2_ -> x
I0731 22:13:20.794033  6885 net.cpp:399] lstm2_ -> cont
I0731 22:13:20.794086  6885 net.cpp:141] Setting up lstm2_
I0731 22:13:20.794095  6885 net.cpp:148] Top shape: 1 1 1501 (1501)
I0731 22:13:20.794101  6885 net.cpp:148] Top shape: 1 1 (1)
I0731 22:13:20.794106  6885 net.cpp:156] Memory required for data: 6008
I0731 22:13:20.794111  6885 layer_factory.hpp:77] Creating layer lstm2_
I0731 22:13:20.794118  6885 net.cpp:91] Creating Layer lstm2_
I0731 22:13:20.794128  6885 net.cpp:399] lstm2_ -> c_0
I0731 22:13:20.794137  6885 net.cpp:399] lstm2_ -> h_0
I0731 22:13:20.794183  6885 net.cpp:141] Setting up lstm2_
I0731 22:13:20.794193  6885 net.cpp:148] Top shape: 1 1 1000 (1000)
I0731 22:13:20.794198  6885 net.cpp:148] Top shape: 1 1 1000 (1000)
I0731 22:13:20.794203  6885 net.cpp:156] Memory required for data: 14008
I0731 22:13:20.794206  6885 layer_factory.hpp:77] Creating layer lstm2_cont_slice
I0731 22:13:20.794214  6885 net.cpp:91] Creating Layer lstm2_cont_slice
I0731 22:13:20.794219  6885 net.cpp:425] lstm2_cont_slice <- cont
I0731 22:13:20.794226  6885 net.cpp:399] lstm2_cont_slice -> cont_1
I0731 22:13:20.794261  6885 net.cpp:141] Setting up lstm2_cont_slice
I0731 22:13:20.794270  6885 net.cpp:148] Top shape: 1 1 (1)
I0731 22:13:20.794276  6885 net.cpp:156] Memory required for data: 14012
I0731 22:13:20.794281  6885 layer_factory.hpp:77] Creating layer cont_1_lstm2_cont_slice_0_split
I0731 22:13:20.794287  6885 net.cpp:91] Creating Layer cont_1_lstm2_cont_slice_0_split
I0731 22:13:20.794291  6885 net.cpp:425] cont_1_lstm2_cont_slice_0_split <- cont_1
I0731 22:13:20.794297  6885 net.cpp:399] cont_1_lstm2_cont_slice_0_split -> cont_1_lstm2_cont_slice_0_split_0
I0731 22:13:20.794304  6885 net.cpp:399] cont_1_lstm2_cont_slice_0_split -> cont_1_lstm2_cont_slice_0_split_1
I0731 22:13:20.794350  6885 net.cpp:141] Setting up cont_1_lstm2_cont_slice_0_split
I0731 22:13:20.794358  6885 net.cpp:148] Top shape: 1 1 (1)
I0731 22:13:20.794363  6885 net.cpp:148] Top shape: 1 1 (1)
I0731 22:13:20.794368  6885 net.cpp:156] Memory required for data: 14020
I0731 22:13:20.794371  6885 layer_factory.hpp:77] Creating layer lstm2_x_transform
I0731 22:13:20.794384  6885 net.cpp:91] Creating Layer lstm2_x_transform
I0731 22:13:20.794389  6885 net.cpp:425] lstm2_x_transform <- x
I0731 22:13:20.794395  6885 net.cpp:399] lstm2_x_transform -> W_xc_x
I0731 22:13:20.852766  6885 net.cpp:141] Setting up lstm2_x_transform
I0731 22:13:20.852821  6885 net.cpp:148] Top shape: 1 1 4000 (4000)
I0731 22:13:20.852828  6885 net.cpp:156] Memory required for data: 30020
I0731 22:13:20.852849  6885 layer_factory.hpp:77] Creating layer lstm2_W_xc_x_slice
I0731 22:13:20.852864  6885 net.cpp:91] Creating Layer lstm2_W_xc_x_slice
I0731 22:13:20.852871  6885 net.cpp:425] lstm2_W_xc_x_slice <- W_xc_x
I0731 22:13:20.852886  6885 net.cpp:399] lstm2_W_xc_x_slice -> W_xc_x_1
I0731 22:13:20.852933  6885 net.cpp:141] Setting up lstm2_W_xc_x_slice
I0731 22:13:20.852943  6885 net.cpp:148] Top shape: 1 1 4000 (4000)
I0731 22:13:20.852947  6885 net.cpp:156] Memory required for data: 46020
I0731 22:13:20.852952  6885 layer_factory.hpp:77] Creating layer lstm2_h_conted_0
I0731 22:13:20.852962  6885 net.cpp:91] Creating Layer lstm2_h_conted_0
I0731 22:13:20.852967  6885 net.cpp:425] lstm2_h_conted_0 <- h_0
I0731 22:13:20.852972  6885 net.cpp:425] lstm2_h_conted_0 <- cont_1_lstm2_cont_slice_0_split_0
I0731 22:13:20.852982  6885 net.cpp:399] lstm2_h_conted_0 -> h_conted_0
I0731 22:13:20.853076  6885 net.cpp:141] Setting up lstm2_h_conted_0
I0731 22:13:20.853085  6885 net.cpp:148] Top shape: 1 1 1000 (1000)
I0731 22:13:20.853088  6885 net.cpp:156] Memory required for data: 50020
I0731 22:13:20.853093  6885 layer_factory.hpp:77] Creating layer lstm2_transform_1
I0731 22:13:20.853108  6885 net.cpp:91] Creating Layer lstm2_transform_1
I0731 22:13:20.853113  6885 net.cpp:425] lstm2_transform_1 <- h_conted_0
I0731 22:13:20.853121  6885 net.cpp:399] lstm2_transform_1 -> W_hc_h_0
I0731 22:13:20.893016  6885 net.cpp:141] Setting up lstm2_transform_1
I0731 22:13:20.893098  6885 net.cpp:148] Top shape: 1 1 4000 (4000)
I0731 22:13:20.893110  6885 net.cpp:156] Memory required for data: 66020
I0731 22:13:20.893151  6885 layer_factory.hpp:77] Creating layer lstm2_gate_input_1
I0731 22:13:20.893177  6885 net.cpp:91] Creating Layer lstm2_gate_input_1
I0731 22:13:20.893184  6885 net.cpp:425] lstm2_gate_input_1 <- W_hc_h_0
I0731 22:13:20.893194  6885 net.cpp:425] lstm2_gate_input_1 <- W_xc_x_1
I0731 22:13:20.893203  6885 net.cpp:399] lstm2_gate_input_1 -> gate_input_1
I0731 22:13:20.893265  6885 net.cpp:141] Setting up lstm2_gate_input_1
I0731 22:13:20.893275  6885 net.cpp:148] Top shape: 1 1 4000 (4000)
I0731 22:13:20.893278  6885 net.cpp:156] Memory required for data: 82020
I0731 22:13:20.893283  6885 layer_factory.hpp:77] Creating layer lstm2_unit_1
I0731 22:13:20.893296  6885 net.cpp:91] Creating Layer lstm2_unit_1
I0731 22:13:20.893302  6885 net.cpp:425] lstm2_unit_1 <- c_0
I0731 22:13:20.893308  6885 net.cpp:425] lstm2_unit_1 <- gate_input_1
I0731 22:13:20.893314  6885 net.cpp:425] lstm2_unit_1 <- cont_1_lstm2_cont_slice_0_split_1
I0731 22:13:20.893322  6885 net.cpp:399] lstm2_unit_1 -> c_1
I0731 22:13:20.893332  6885 net.cpp:399] lstm2_unit_1 -> h_1
I0731 22:13:20.893402  6885 net.cpp:141] Setting up lstm2_unit_1
I0731 22:13:20.893412  6885 net.cpp:148] Top shape: 1 1 1000 (1000)
I0731 22:13:20.893419  6885 net.cpp:148] Top shape: 1 1 1000 (1000)
I0731 22:13:20.893424  6885 net.cpp:156] Memory required for data: 90020
I0731 22:13:20.893429  6885 layer_factory.hpp:77] Creating layer lstm2_
I0731 22:13:20.893437  6885 net.cpp:91] Creating Layer lstm2_
I0731 22:13:20.893442  6885 net.cpp:425] lstm2_ <- c_1
I0731 22:13:20.893450  6885 net.cpp:399] lstm2_ -> c_T
I0731 22:13:20.893496  6885 net.cpp:141] Setting up lstm2_
I0731 22:13:20.893506  6885 net.cpp:148] Top shape: 1 1 1000 (1000)
I0731 22:13:20.893510  6885 net.cpp:156] Memory required for data: 94020
I0731 22:13:20.893515  6885 layer_factory.hpp:77] Creating layer lstm2_h_concat
I0731 22:13:20.893527  6885 net.cpp:91] Creating Layer lstm2_h_concat
I0731 22:13:20.893532  6885 net.cpp:425] lstm2_h_concat <- h_1
I0731 22:13:20.893540  6885 net.cpp:399] lstm2_h_concat -> h
I0731 22:13:20.893584  6885 net.cpp:141] Setting up lstm2_h_concat
I0731 22:13:20.893594  6885 net.cpp:148] Top shape: 1 1 1000 (1000)
I0731 22:13:20.893597  6885 net.cpp:156] Memory required for data: 98020
I0731 22:13:20.893602  6885 layer_factory.hpp:77] Creating layer h_pseudoloss
I0731 22:13:20.893613  6885 net.cpp:91] Creating Layer h_pseudoloss
I0731 22:13:20.893618  6885 net.cpp:425] h_pseudoloss <- h
I0731 22:13:20.893626  6885 net.cpp:399] h_pseudoloss -> h_pseudoloss
I0731 22:13:20.893726  6885 net.cpp:141] Setting up h_pseudoloss
…
