…
W0925 23:14:37.949609 27219 upgrade_proto.cpp:71] Note that future Caffe releases will only support input layers and not input fields.
I0925 23:14:37.950067 27265 net.cpp:49] Initializing net from parameters: 
name: "s2vt:features_to_lstm"
state {
  phase: TEST
}
layer {
  name: "input"
  type: "Input"
  top: "frames_fc7"
  top: "cont_sentence"
  top: "input_sentence"
  top: "stage_indicator"
  input_param {
    shape {
      dim: 1
      dim: 4096
    }
    shape {
      dim: 1
      dim: 1
    }
    shape {
      dim: 1
      dim: 1
    }
    shape {
      dim: 1
      dim: 1
    }
  }
}
layer {
  name: "embed_encoder"
  type: "InnerProduct"
  bottom: "frames_fc7"
  top: "embedded_in_frames"
  param {
    lr_mult: 1
    decay_mult: 1
  }
  param {
    lr_mult: 2
    decay_mult: 0
  }
  inner_product_param {
    num_output: 500
    weight_filler {
      type: "xavier"
    }
    bias_filler {
      type: "constant"
      value: 0.2
    }
  }
}
layer {
  name: "reshape_frames"
  type: "Reshape"
  bottom: "embedded_in_frames"
  top: "embedded_input_frames"
  reshape_param {
    shape {
      dim: 1
      dim: 1
      dim: 500
    }
  }
}
layer {
  name: "reshape_stage_indicator"
  type: "Reshape"
  bottom: "stage_indicator"
  top: "reshaped_stage_indicator"
  reshape_param {
    shape {
      dim: 1
      dim: 1
      dim: 1
    }
  }
}
layer {
  name: "embedding"
  type: "Embed"
  bottom: "input_sentence"
  top: "embedded_input_sentence"
  param {
    lr_mult: 1
  }
  embed_param {
    num_output: 500
    input_dim: 46168
    bias_term: false
    weight_filler {
      type: "uniform"
      min: -0.08
      max: 0.08
    }
  }
}
layer {
  name: "lstm1"
  type: "LSTM"
  bottom: "embedded_input_frames"
  bottom: "cont_sentence"
  top: "lstm1"
  recurrent_param {
    num_output: 1000
    weight_filler {
      type: "uniform"
      min: -0.08
      max: 0.08
    }
    bias_filler {
      type: "constant"
      value: 0
    }
  }
}
layer {
  name: "concat"
  type: "Concat"
  bottom: "lstm1"
  bottom: "embedded_input_sentence"
  bottom: "reshaped_stage_indicator"
  top: "lstm1_video_sequence"
  concat_param {
    concat_dim: 2
  }
}
layer {
  name: "lstm2"
  type: "LSTM"
  bottom: "lstm1_video_sequence"
  bottom: "cont_sentence"
  top: "lstm2"
  recurrent_param {
    num_output: 1000
    weight_filler {
      type: "uniform"
      min: -0.08
      max: 0.08
    }
    bias_filler {
      type: "constant"
      value: 0
    }
  }
}
layer {
  name: "predict"
  type: "InnerProduct"
  bottom: "lstm2"
  top: "predict"
  param {
    lr_mult: 1
    decay_mult: 1
  }
  param {
    lr_mult: 2
    decay_mult: 0
  }
  inner_product_param {
    num_output: 46168
    weight_filler {
      type: "uniform"
      min: -0.08
      max: 0.08
    }
    bias_filler {
      type: "constant"
      value: 0
    }
    axis: 2
  }
}
layer {
  name: "probs"
  type: "Softmax"
  bottom: "predict"
  top: "probs"
  softmax_param {
    axis: 2
  }
}
I0925 23:14:37.950074 27219 net.cpp:49] Initializing net from parameters: 
name: "s2vt:features_to_lstm"
state {
  phase: TEST
}
layer {
  name: "input"
  type: "Input"
  top: "frames_fc7"
  top: "cont_sentence"
  top: "input_sentence"
  top: "stage_indicator"
  input_param {
    shape {
      dim: 1
      dim: 4096
    }
    shape {
      dim: 1
      dim: 1
    }
    shape {
      dim: 1
      dim: 1
    }
    shape {
      dim: 1
      dim: 1
    }
  }
}
layer {
  name: "embed_encoder"
  type: "InnerProduct"
  bottom: "frames_fc7"
  top: "embedded_in_frames"
  param {
    lr_mult: 1
    decay_mult: 1
  }
  param {
    lr_mult: 2
    decay_mult: 0
  }
  inner_product_param {
    num_output: 500
    weight_filler {
      type: "xavier"
    }
    bias_filler {
      type: "constant"
      value: 0.2
    }
  }
}
layer {
  name: "reshape_frames"
  type: "Reshape"
  bottom: "embedded_in_frames"
  top: "embedded_input_frames"
  reshape_param {
    shape {
      dim: 1
      dim: 1
      dim: 500
    }
  }
}
layer {
  name: "reshape_stage_indicator"
  type: "Reshape"
  bottom: "stage_indicator"
  top: "reshaped_stage_indicator"
  reshape_param {
    shape {
      dim: 1
      dim: 1
      dim: 1
    }
  }
}
layer {
  name: "embedding"
  type: "Embed"
  bottom: "input_sentence"
  top: "embedded_input_sentence"
  param {
    lr_mult: 1
  }
  embed_param {
    num_output: 500
    input_dim: 46168
    bias_term: false
    weight_filler {
      type: "uniform"
      min: -0.08
      max: 0.08
    }
  }
}
layer {
  name: "lstm1"
  type: "LSTM"
  bottom: "embedded_input_frames"
  bottom: "cont_sentence"
  top: "lstm1"
  recurrent_param {
    num_output: 1000
    weight_filler {
      type: "uniform"
      min: -0.08
      max: 0.08
    }
    bias_filler {
      type: "constant"
      value: 0
    }
  }
}
layer {
  name: "concat"
  type: "Concat"
  bottom: "lstm1"
  bottom: "embedded_input_sentence"
  bottom: "reshaped_stage_indicator"
  top: "lstm1_video_sequence"
  concat_param {
    concat_dim: 2
  }
}
layer {
  name: "lstm2"
  type: "LSTM"
  bottom: "lstm1_video_sequence"
  bottom: "cont_sentence"
  top: "lstm2"
  recurrent_param {
    num_output: 1000
    weight_filler {
      type: "uniform"
      min: -0.08
      max: 0.08
    }
    bias_filler {
      type: "constant"
      value: 0
    }
  }
}
layer {
  name: "predict"
  type: "InnerProduct"
  bottom: "lstm2"
  top: "predict"
  param {
    lr_mult: 1
    decay_mult: 1
  }
  param {
    lr_mult: 2
    decay_mult: 0
  }
  inner_product_param {
    num_output: 46168
    weight_filler {
      type: "uniform"
      min: -0.08
      max: 0.08
    }
    bias_filler {
      type: "constant"
      value: 0
    }
    axis: 2
  }
}
layer {
  name: "probs"
  type: "Softmax"
  bottom: "predict"
  top: "probs"
  softmax_param {
    axis: 2
  }
}
I0925 23:14:37.950093 27269 net.cpp:49] Initializing net from parameters: 
name: "s2vt:features_to_lstm"
state {
  phase: TEST
}
layer {
  name: "input"
  type: "Input"
  top: "frames_fc7"
  top: "cont_sentence"
  top: "input_sentence"
  top: "stage_indicator"
  input_param {
    shape {
      dim: 1
      dim: 4096
    }
    shape {
      dim: 1
      dim: 1
    }
    shape {
      dim: 1
      dim: 1
    }
    shape {
      dim: 1
      dim: 1
    }
  }
}
layer {
  name: "embed_encoder"
  type: "InnerProduct"
  bottom: "frames_fc7"
  top: "embedded_in_frames"
  param {
    lr_mult: 1
    decay_mult: 1
  }
  param {
    lr_mult: 2
    decay_mult: 0
  }
  inner_product_param {
    num_output: 500
    weight_filler {
      type: "xavier"
    }
    bias_filler {
      type: "constant"
      value: 0.2
    }
  }
}
layer {
  name: "reshape_frames"
  type: "Reshape"
  bottom: "embedded_in_frames"
  top: "embedded_input_frames"
  reshape_param {
    shape {
      dim: 1
      dim: 1
      dim: 500
    }
  }
}
layer {
  name: "reshape_stage_indicator"
  type: "Reshape"
  bottom: "stage_indicator"
  top: "reshaped_stage_indicator"
  reshape_param {
    shape {
      dim: 1
      dim: 1
      dim: 1
    }
  }
}
layer {
  name: "embedding"
  type: "Embed"
  bottom: "input_sentence"
  top: "embedded_input_sentence"
  param {
    lr_mult: 1
  }
  embed_param {
    num_output: 500
    input_dim: 46168
    bias_term: false
    weight_filler {
      type: "uniform"
      min: -0.08
      max: 0.08
    }
  }
}
layer {
  name: "lstm1"
  type: "LSTM"
  bottom: "embedded_input_frames"
  bottom: "cont_sentence"
  top: "lstm1"
  recurrent_param {
    num_output: 1000
    weight_filler {
      type: "uniform"
      min: -0.08
      max: 0.08
    }
    bias_filler {
      type: "constant"
      value: 0
    }
  }
}
layer {
  name: "concat"
  type: "Concat"
  bottom: "lstm1"
  bottom: "embedded_input_sentence"
  bottom: "reshaped_stage_indicator"
  top: "lstm1_video_sequence"
  concat_param {
    concat_dim: 2
  }
}
layer {
  name: "lstm2"
  type: "LSTM"
  bottom: "lstm1_video_sequence"
  bottom: "cont_sentence"
  top: "lstm2"
  recurrent_param {
    num_output: 1000
    weight_filler {
      type: "uniform"
      min: -0.08
      max: 0.08
    }
    bias_filler {
      type: "constant"
      value: 0
    }
  }
}
layer {
  name: "predict"
  type: "InnerProduct"
  bottom: "lstm2"
  top: "predict"
  param {
    lr_mult: 1
    decay_mult: 1
  }
  param {
    lr_mult: 2
    decay_mult: 0
  }
  inner_product_param {
    num_output: 46168
    weight_filler {
      type: "uniform"
      min: -0.08
      max: 0.08
    }
    bias_filler {
      type: "constant"
      value: 0
    }
    axis: 2
  }
}
layer {
  name: "probs"
  type: "Softmax"
  bottom: "predict"
  top: "probs"
  softmax_param {
    axis: 2
  }
}
I0925 23:14:37.950109 27241 net.cpp:49] Initializing net from parameters: 
name: "CaffeNet"
state {
  phase: TEST
}
layer {
  name: "data"
  type: "Input"
  top: "data"
  input_param {
    shape {
      dim: 10
      dim: 3
      dim: 227
      dim: 227
    }
  }
}
layer {
  name: "conv1"
  type: "Convolution"
  bottom: "data"
  top: "conv1"
  convolution_param {
    num_output: 96
    kernel_size: 11
    stride: 4
  }
}
layer {
  name: "relu1"
  type: "ReLU"
  bottom: "conv1"
  top: "conv1"
}
layer {
  name: "pool1"
  type: "Pooling"
  bottom: "conv1"
  top: "pool1"
  pooling_param {
    pool: MAX
    kernel_size: 3
    stride: 2
  }
}
layer {
  name: "norm1"
  type: "LRN"
  bottom: "pool1"
  top: "norm1"
  lrn_param {
    local_size: 5
    alpha: 0.0001
    beta: 0.75
  }
}
layer {
  name: "conv2"
  type: "Convolution"
  bottom: "norm1"
  top: "conv2"
  convolution_param {
    num_output: 256
    pad: 2
    kernel_size: 5
    group: 2
  }
}
layer {
  name: "relu2"
  type: "ReLU"
  bottom: "conv2"
  top: "conv2"
}
layer {
  name: "pool2"
  type: "Pooling"
  bottom: "conv2"
  top: "pool2"
  pooling_param {
    pool: MAX
    kernel_size: 3
    stride: 2
  }
}
layer {
  name: "norm2"
  type: "LRN"
  bottom: "pool2"
  top: "norm2"
  lrn_param {
    local_size: 5
    alpha: 0.0001
    beta: 0.75
  }
}
layer {
  name: "conv3"
  type: "Convolution"
  bottom: "norm2"
  top: "conv3"
  convolution_param {
    num_output: 384
    pad: 1
    kernel_size: 3
  }
}
layer {
  name: "relu3"
  type: "ReLU"
  bottom: "conv3"
  top: "conv3"
}
layer {
  name: "conv4"
  type: "Convolution"
  bottom: "conv3"
  top: "conv4"
  convolution_param {
    num_output: 384
    pad: 1
    kernel_size: 3
    group: 2
  }
}
layer {
  name: "relu4"
  type: "ReLU"
  bottom: "conv4"
  top: "conv4"
}
layer {
  name: "conv5"
  type: "Convolution"
  bottom: "conv4"
  top: "conv5"
  convolution_param {
    num_output: 256
    pad: 1
    kernel_size: 3
    group: 2
  }
}
layer {
  name: "relu5"
  type: "ReLU"
  bottom: "conv5"
  top: "conv5"
}
layer {
  name: "pool5"
  type: "Pooling"
  bottom: "conv5"
  top: "pool5"
  pooling_param {
    pool: MAX
    kernel_size: 3
    stride: 2
  }
}
layer {
  name: "fc6"
  type: "InnerProduct"
  bottom: "pool5"
  top: "fc6"
  inner_product_param {
    num_output: 4096
  }
}
layer {
  name: "relu6"
  type: "ReLU"
  bottom: "fc6"
  top: "fc6"
}
layer {
  name: "drop6"
  type: "Dropout"
  bottom: "fc6"
  top: "fc6"
  dropout_param {
    dropout_ratio: 0.5
  }
}
layer {
  name: "fc7"
  type: "InnerProduct"
  bottom: "fc6"
  top: "fc7"
  inner_product_param {
    num_output: 4096
  }
}
layer {
  name: "relu7"
  type: "ReLU"
  bottom: "fc7"
  top: "fc7"
}
layer {
  name: "drop7"
  type: "Dropout"
  bottom: "fc7"
  top: "fc7"
  dropout_param {
    dropout_ratio: 0.5
  }
}
layer {
  name: "fc8"
  type: "InnerProduct"
  bottom: "fc7"
  top: "fc8"
  inner_product_param {
    num_output: 1000
  }
}
layer {
  name: "prob"
  type: "Softmax"
  bottom: "fc8"
  top: "prob"
}
I0925 23:14:37.950074 27257 net.cpp:49] Initializing net from parameters: 
name: "s2vt:features_to_lstm"
state {
  phase: TEST
}
layer {
  name: "input"
  type: "Input"
  top: "frames_fc7"
  top: "cont_sentence"
  top: "input_sentence"
  top: "stage_indicator"
  input_param {
    shape {
      dim: 1
      dim: 4096
    }
    shape {
      dim: 1
      dim: 1
    }
    shape {
      dim: 1
      dim: 1
    }
    shape {
      dim: 1
      dim: 1
    }
  }
}
layer {
  name: "embed_encoder"
  type: "InnerProduct"
  bottom: "frames_fc7"
  top: "embedded_in_frames"
  param {
    lr_mult: 1
    decay_mult: 1
  }
  param {
    lr_mult: 2
    decay_mult: 0
  }
  inner_product_param {
    num_output: 500
    weight_filler {
      type: "xavier"
    }
    bias_filler {
      type: "constant"
      value: 0.2
    }
  }
}
layer {
  name: "reshape_frames"
  type: "Reshape"
  bottom: "embedded_in_frames"
  top: "embedded_input_frames"
  reshape_param {
    shape {
      dim: 1
      dim: 1
      dim: 500
    }
  }
}
layer {
  name: "reshape_stage_indicator"
  type: "Reshape"
  bottom: "stage_indicator"
  top: "reshaped_stage_indicator"
  reshape_param {
    shape {
      dim: 1
      dim: 1
      dim: 1
    }
  }
}
layer {
  name: "embedding"
  type: "Embed"
  bottom: "input_sentence"
  top: "embedded_input_sentence"
  param {
    lr_mult: 1
  }
  embed_param {
    num_output: 500
    input_dim: 46168
    bias_term: false
    weight_filler {
      type: "uniform"
      min: -0.08
      max: 0.08
    }
  }
}
layer {
  name: "lstm1"
  type: "LSTM"
  bottom: "embedded_input_frames"
  bottom: "cont_sentence"
  top: "lstm1"
  recurrent_param {
    num_output: 1000
    weight_filler {
      type: "uniform"
      min: -0.08
      max: 0.08
    }
    bias_filler {
      type: "constant"
      value: 0
    }
  }
}
layer {
  name: "concat"
  type: "Concat"
  bottom: "lstm1"
  bottom: "embedded_input_sentence"
  bottom: "reshaped_stage_indicator"
  top: "lstm1_video_sequence"
  concat_param {
    concat_dim: 2
  }
}
layer {
  name: "lstm2"
  type: "LSTM"
  bottom: "lstm1_video_sequence"
  bottom: "cont_sentence"
  top: "lstm2"
  recurrent_param {
    num_output: 1000
    weight_filler {
      type: "uniform"
      min: -0.08
      max: 0.08
    }
    bias_filler {
      type: "constant"
      value: 0
    }
  }
}
layer {
  name: "predict"
  type: "InnerProduct"
  bottom: "lstm2"
  top: "predict"
  param {
    lr_mult: 1
    decay_mult: 1
  }
  param {
    lr_mult: 2
    decay_mult: 0
  }
  inner_product_param {
    num_output: 46168
    weight_filler {
      type: "uniform"
      min: -0.08
      max: 0.08
    }
    bias_filler {
      type: "constant"
      value: 0
    }
    axis: 2
  }
}
layer {
  name: "probs"
  type: "Softmax"
  bottom: "predict"
  top: "probs"
  softmax_param {
    axis: 2
  }
}
I0925 23:14:37.950093 27233 net.cpp:49] Initializing net from parameters: 
name: "s2vt:features_to_lstm"
state {
  phase: TEST
}
layer {
  name: "input"
  type: "Input"
  top: "frames_fc7"
  top: "cont_sentence"
  top: "input_sentence"
  top: "stage_indicator"
  input_param {
    shape {
      dim: 1
      dim: 4096
    }
    shape {
      dim: 1
      dim: 1
    }
    shape {
      dim: 1
      dim: 1
    }
    shape {
      dim: 1
      dim: 1
    }
  }
}
layer {
  name: "embed_encoder"
  type: "InnerProduct"
  bottom: "frames_fc7"
  top: "embedded_in_frames"
  param {
    lr_mult: 1
    decay_mult: 1
  }
  param {
    lr_mult: 2
    decay_mult: 0
  }
  inner_product_param {
    num_output: 500
    weight_filler {
      type: "xavier"
    }
    bias_filler {
      type: "constant"
      value: 0.2
    }
  }
}
layer {
  name: "reshape_frames"
  type: "Reshape"
  bottom: "embedded_in_frames"
  top: "embedded_input_frames"
  reshape_param {
    shape {
      dim: 1
      dim: 1
      dim: 500
    }
  }
}
layer {
  name: "reshape_stage_indicator"
  type: "Reshape"
  bottom: "stage_indicator"
  top: "reshaped_stage_indicator"
  reshape_param {
    shape {
      dim: 1
      dim: 1
      dim: 1
    }
  }
}
layer {
  name: "embedding"
  type: "Embed"
  bottom: "input_sentence"
  top: "embedded_input_sentence"
  param {
    lr_mult: 1
  }
  embed_param {
    num_output: 500
    input_dim: 46168
    bias_term: false
    weight_filler {
      type: "uniform"
      min: -0.08
      max: 0.08
    }
  }
}
layer {
  name: "lstm1"
  type: "LSTM"
  bottom: "embedded_input_frames"
  bottom: "cont_sentence"
  top: "lstm1"
  recurrent_param {
    num_output: 1000
    weight_filler {
      type: "uniform"
      min: -0.08
      max: 0.08
    }
    bias_filler {
      type: "constant"
      value: 0
    }
  }
}
layer {
  name: "concat"
  type: "Concat"
  bottom: "lstm1"
  bottom: "embedded_input_sentence"
  bottom: "reshaped_stage_indicator"
  top: "lstm1_video_sequence"
  concat_param {
    concat_dim: 2
  }
}
layer {
  name: "lstm2"
  type: "LSTM"
  bottom: "lstm1_video_sequence"
  bottom: "cont_sentence"
  top: "lstm2"
  recurrent_param {
    num_output: 1000
    weight_filler {
      type: "uniform"
      min: -0.08
      max: 0.08
    }
    bias_filler {
      type: "constant"
      value: 0
    }
  }
}
layer {
  name: "predict"
  type: "InnerProduct"
  bottom: "lstm2"
  top: "predict"
  param {
    lr_mult: 1
    decay_mult: 1
  }
  param {
    lr_mult: 2
    decay_mult: 0
  }
  inner_product_param {
    num_output: 46168
    weight_filler {
      type: "uniform"
      min: -0.08
      max: 0.08
    }
    bias_filler {
      type: "constant"
      value: 0
    }
    axis: 2
  }
}
layer {
  name: "probs"
  type: "Softmax"
  bottom: "predict"
  top: "probs"
  softmax_param {
    axis: 2
  }
}
I0925 23:14:37.950284 27241 layer_factory.hpp:77] Creating layer data
I0925 23:14:37.950278 27219 layer_factory.hpp:77] Creating layer input
I0925 23:14:37.950278 27257 layer_factory.hpp:77] Creating layer input
I0925 23:14:37.950278 27233 layer_factory.hpp:77] Creating layer input
I0925 23:14:37.950285 27269 layer_factory.hpp:77] Creating layer input
…
W0925 23:14:37.950925 27225 upgrade_proto.cpp:71] Note that future Caffe releases will only support input layers and not input fields.
I0925 23:14:37.951256 27225 net.cpp:49] Initializing net from parameters: 
name: "s2vt:features_to_lstm"
state {
  phase: TEST
}
layer {
  name: "input"
  type: "Input"
  top: "frames_fc7"
  top: "cont_sentence"
  top: "input_sentence"
  top: "stage_indicator"
  input_param {
    shape {
      dim: 1
      dim: 4096
    }
    shape {
      dim: 1
      dim: 1
    }
    shape {
      dim: 1
      dim: 1
    }
    shape {
      dim: 1
      dim: 1
    }
  }
}
layer {
  name: "embed_encoder"
  type: "InnerProduct"
  bottom: "frames_fc7"
  top: "embedded_in_frames"
  param {
    lr_mult: 1
    decay_mult: 1
  }
  param {
    lr_mult: 2
    decay_mult: 0
  }
  inner_product_param {
    num_output: 500
    weight_filler {
      type: "xavier"
    }
    bias_filler {
      type: "constant"
      value: 0.2
    }
  }
}
layer {
  name: "reshape_frames"
  type: "Reshape"
  bottom: "embedded_in_frames"
  top: "embedded_input_frames"
  reshape_param {
    shape {
      dim: 1
      dim: 1
      dim: 500
    }
  }
}
layer {
  name: "reshape_stage_indicator"
  type: "Reshape"
  bottom: "stage_indicator"
  top: "reshaped_stage_indicator"
  reshape_param {
    shape {
      dim: 1
      dim: 1
      dim: 1
    }
  }
}
layer {
  name: "embedding"
  type: "Embed"
  bottom: "input_sentence"
  top: "embedded_input_sentence"
  param {
    lr_mult: 1
  }
  embed_param {
    num_output: 500
    input_dim: 46168
    bias_term: false
    weight_filler {
      type: "uniform"
      min: -0.08
      max: 0.08
    }
  }
}
layer {
  name: "lstm1"
  type: "LSTM"
  bottom: "embedded_input_frames"
  bottom: "cont_sentence"
  top: "lstm1"
  recurrent_param {
    num_output: 1000
    weight_filler {
      type: "uniform"
      min: -0.08
      max: 0.08
    }
    bias_filler {
      type: "constant"
      value: 0
    }
  }
}
layer {
  name: "concat"
  type: "Concat"
  bottom: "lstm1"
  bottom: "embedded_input_sentence"
  bottom: "reshaped_stage_indicator"
  top: "lstm1_video_sequence"
  concat_param {
    concat_dim: 2
  }
}
layer {
  name: "lstm2"
  type: "LSTM"
  bottom: "lstm1_video_sequence"
  bottom: "cont_sentence"
  top: "lstm2"
  recurrent_param {
    num_output: 1000
    weight_filler {
      type: "uniform"
      min: -0.08
      max: 0.08
    }
    bias_filler {
      type: "constant"
      value: 0
    }
  }
}
layer {
  name: "predict"
  type: "InnerProduct"
  bottom: "lstm2"
  top: "predict"
  param {
    lr_mult: 1
    decay_mult: 1
  }
  param {
    lr_mult: 2
    decay_mult: 0
  }
  inner_product_param {
    num_output: 46168
    weight_filler {
      type: "uniform"
      min: -0.08
      max: 0.08
    }
    bias_filler {
      type: "constant"
      value: 0
    }
    axis: 2
  }
}
layer {
  name: "probs"
  type: "Softmax"
  bottom: "predict"
  top: "probs"
  softmax_param {
    axis: 2
  }
}
I0925 23:14:37.951383 27225 layer_factory.hpp:77] Creating layer input
I0925 23:14:37.951401 27225 net.cpp:91] Creating Layer input
I0925 23:14:37.951417 27225 net.cpp:399] input -> frames_fc7
I0925 23:14:37.951438 27225 net.cpp:399] input -> cont_sentence
I0925 23:14:37.951457 27225 net.cpp:399] input -> input_sentence
I0925 23:14:37.951477 27225 net.cpp:399] input -> stage_indicator
…
W0925 23:14:37.952080 27221 upgrade_proto.cpp:71] Note that future Caffe releases will only support input layers and not input fields.
I0925 23:14:37.952378 27221 net.cpp:49] Initializing net from parameters: 
name: "s2vt:features_to_lstm"
state {
  phase: TEST
}
layer {
  name: "input"
  type: "Input"
  top: "frames_fc7"
  top: "cont_sentence"
  top: "input_sentence"
  top: "stage_indicator"
  input_param {
    shape {
      dim: 1
      dim: 4096
    }
    shape {
      dim: 1
      dim: 1
    }
    shape {
      dim: 1
      dim: 1
    }
    shape {
      dim: 1
      dim: 1
    }
  }
}
layer {
  name: "embed_encoder"
  type: "InnerProduct"
  bottom: "frames_fc7"
  top: "embedded_in_frames"
  param {
    lr_mult: 1
    decay_mult: 1
  }
  param {
    lr_mult: 2
    decay_mult: 0
  }
  inner_product_param {
    num_output: 500
    weight_filler {
      type: "xavier"
    }
    bias_filler {
      type: "constant"
      value: 0.2
    }
  }
}
layer {
  name: "reshape_frames"
  type: "Reshape"
  bottom: "embedded_in_frames"
  top: "embedded_input_frames"
  reshape_param {
    shape {
      dim: 1
      dim: 1
      dim: 500
    }
  }
}
layer {
  name: "reshape_stage_indicator"
  type: "Reshape"
  bottom: "stage_indicator"
  top: "reshaped_stage_indicator"
  reshape_param {
    shape {
      dim: 1
      dim: 1
      dim: 1
    }
  }
}
layer {
  name: "embedding"
  type: "Embed"
  bottom: "input_sentence"
  top: "embedded_input_sentence"
  param {
    lr_mult: 1
  }
  embed_param {
    num_output: 500
    input_dim: 46168
    bias_term: false
    weight_filler {
      type: "uniform"
      min: -0.08
      max: 0.08
    }
  }
}
layer {
  name: "lstm1"
  type: "LSTM"
  bottom: "embedded_input_frames"
  bottom: "cont_sentence"
  top: "lstm1"
  recurrent_param {
    num_output: 1000
    weight_filler {
      type: "uniform"
      min: -0.08
      max: 0.08
    }
    bias_filler {
      type: "constant"
      value: 0
    }
  }
}
layer {
  name: "concat"
  type: "Concat"
  bottom: "lstm1"
  bottom: "embedded_input_sentence"
  bottom: "reshaped_stage_indicator"
  top: "lstm1_video_sequence"
  concat_param {
    concat_dim: 2
  }
}
layer {
  name: "lstm2"
  type: "LSTM"
  bottom: "lstm1_video_sequence"
  bottom: "cont_sentence"
  top: "lstm2"
  recurrent_param {
    num_output: 1000
    weight_filler {
      type: "uniform"
      min: -0.08
      max: 0.08
    }
    bias_filler {
      type: "constant"
      value: 0
    }
  }
}
layer {
  name: "predict"
  type: "InnerProduct"
  bottom: "lstm2"
  top: "predict"
  param {
    lr_mult: 1
    decay_mult: 1
  }
  param {
    lr_mult: 2
    decay_mult: 0
  }
  inner_product_param {
    num_output: 46168
    weight_filler {
      type: "uniform"
      min: -0.08
      max: 0.08
    }
    bias_filler {
      type: "constant"
      value: 0
    }
    axis: 2
  }
}
layer {
  name: "probs"
  type: "Softmax"
  bottom: "predict"
  top: "probs"
  softmax_param {
    axis: 2
  }
}
I0925 23:14:37.952493 27221 layer_factory.hpp:77] Creating layer input
I0925 23:14:37.952509 27221 net.cpp:91] Creating Layer input
I0925 23:14:37.952522 27221 net.cpp:399] input -> frames_fc7
I0925 23:14:37.952543 27221 net.cpp:399] input -> cont_sentence
I0925 23:14:37.952560 27221 net.cpp:399] input -> input_sentence
I0925 23:14:37.952577 27221 net.cpp:399] input -> stage_indicator
I0925 23:14:37.953362 27215 upgrade_proto.cpp:66] Attempting to upgrade input file specified using deprecated input fields: /home/peifeng/work/run/storm102/data/workers/568967d9-fa66-418b-82cf-c4920ab49a08/tmp/cvld4404296681424878203/s2vt.words_to_preds.prototxt
I0925 23:14:37.953385 27215 upgrade_proto.cpp:69] Successfully upgraded file specified using deprecated input fields.
W0925 23:14:37.953394 27215 upgrade_proto.cpp:71] Note that future Caffe releases will only support input layers and not input fields.
I0925 23:14:37.953810 27215 net.cpp:49] Initializing net from parameters: 
name: "s2vt:features_to_lstm"
state {
  phase: TEST
}
layer {
  name: "input"
  type: "Input"
  top: "frames_fc7"
  top: "cont_sentence"
  top: "input_sentence"
  top: "stage_indicator"
  input_param {
    shape {
      dim: 1
      dim: 4096
    }
    shape {
      dim: 1
      dim: 1
    }
    shape {
      dim: 1
      dim: 1
    }
    shape {
      dim: 1
      dim: 1
    }
  }
}
layer {
  name: "embed_encoder"
  type: "InnerProduct"
  bottom: "frames_fc7"
  top: "embedded_in_frames"
  param {
    lr_mult: 1
    decay_mult: 1
  }
  param {
    lr_mult: 2
    decay_mult: 0
  }
  inner_product_param {
    num_output: 500
    weight_filler {
      type: "xavier"
    }
    bias_filler {
      type: "constant"
      value: 0.2
    }
  }
}
layer {
  name: "reshape_frames"
  type: "Reshape"
  bottom: "embedded_in_frames"
  top: "embedded_input_frames"
  reshape_param {
    shape {
      dim: 1
      dim: 1
      dim: 500
    }
  }
}
layer {
  name: "reshape_stage_indicator"
  type: "Reshape"
  bottom: "stage_indicator"
  top: "reshaped_stage_indicator"
  reshape_param {
    shape {
      dim: 1
      dim: 1
      dim: 1
    }
  }
}
layer {
  name: "embedding"
  type: "Embed"
  bottom: "input_sentence"
  top: "embedded_input_sentence"
  param {
    lr_mult: 1
  }
  embed_param {
    num_output: 500
    input_dim: 46168
    bias_term: false
    weight_filler {
      type: "uniform"
      min: -0.08
      max: 0.08
    }
  }
}
layer {
  name: "lstm1"
  type: "LSTM"
  bottom: "embedded_input_frames"
  bottom: "cont_sentence"
  top: "lstm1"
  recurrent_param {
    num_output: 1000
    weight_filler {
      type: "uniform"
      min: -0.08
      max: 0.08
    }
    bias_filler {
      type: "constant"
      value: 0
    }
  }
}
layer {
  name: "concat"
  type: "Concat"
  bottom: "lstm1"
  bottom: "embedded_input_sentence"
  bottom: "reshaped_stage_indicator"
  top: "lstm1_video_sequence"
  concat_param {
    concat_dim: 2
  }
}
layer {
  name: "lstm2"
  type: "LSTM"
  bottom: "lstm1_video_sequence"
  bottom: "cont_sentence"
  top: "lstm2"
  recurrent_param {
    num_output: 1000
    weight_filler {
      type: "uniform"
      min: -0.08
      max: 0.08
    }
    bias_filler {
      type: "constant"
      value: 0
    }
  }
}
layer {
  name: "predict"
  type: "InnerProduct"
  bottom: "lstm2"
  top: "predict"
  param {
    lr_mult: 1
    decay_mult: 1
  }
  param {
    lr_mult: 2
    decay_mult: 0
  }
  inner_product_param {
    num_output: 46168
    weight_filler {
      type: "uniform"
      min: -0.08
      max: 0.08
    }
    bias_filler {
      type: "constant"
      value: 0
    }
    axis: 2
  }
}
layer {
  name: "probs"
  type: "Softmax"
  bottom: "predict"
  top: "probs"
  softmax_param {
    axis: 2
  }
}
I0925 23:14:37.953933 27215 layer_factory.hpp:77] Creating layer input
I0925 23:14:37.953950 27215 net.cpp:91] Creating Layer input
I0925 23:14:37.953961 27215 net.cpp:399] input -> frames_fc7
I0925 23:14:37.953979 27215 net.cpp:399] input -> cont_sentence
I0925 23:14:37.953997 27215 net.cpp:399] input -> input_sentence
I0925 23:14:37.954012 27215 net.cpp:399] input -> stage_indicator
I0925 23:14:37.954111 27239 upgrade_proto.cpp:66] Attempting to upgrade input file specified using deprecated input fields: /home/peifeng/work/run/storm102/data/workers/568967d9-fa66-418b-82cf-c4920ab49a08/tmp/cvld4404296681424878203/s2vt.words_to_preds.prototxt
I0925 23:14:37.954136 27239 upgrade_proto.cpp:69] Successfully upgraded file specified using deprecated input fields.
W0925 23:14:37.954149 27239 upgrade_proto.cpp:71] Note that future Caffe releases will only support input layers and not input fields.
I0925 23:14:37.954470 27239 net.cpp:49] Initializing net from parameters: 
name: "s2vt:features_to_lstm"
state {
  phase: TEST
}
layer {
  name: "input"
  type: "Input"
  top: "frames_fc7"
  top: "cont_sentence"
  top: "input_sentence"
  top: "stage_indicator"
  input_param {
    shape {
      dim: 1
      dim: 4096
    }
    shape {
      dim: 1
      dim: 1
    }
    shape {
      dim: 1
      dim: 1
    }
    shape {
      dim: 1
      dim: 1
    }
  }
}
layer {
  name: "embed_encoder"
  type: "InnerProduct"
  bottom: "frames_fc7"
  top: "embedded_in_frames"
  param {
    lr_mult: 1
    decay_mult: 1
  }
  param {
    lr_mult: 2
    decay_mult: 0
  }
  inner_product_param {
    num_output: 500
    weight_filler {
      type: "xavier"
    }
    bias_filler {
      type: "constant"
      value: 0.2
    }
  }
}
layer {
  name: "reshape_frames"
  type: "Reshape"
  bottom: "embedded_in_frames"
  top: "embedded_input_frames"
  reshape_param {
    shape {
      dim: 1
      dim: 1
      dim: 500
    }
  }
}
layer {
  name: "reshape_stage_indicator"
  type: "Reshape"
  bottom: "stage_indicator"
  top: "reshaped_stage_indicator"
  reshape_param {
    shape {
      dim: 1
      dim: 1
      dim: 1
    }
  }
}
layer {
  name: "embedding"
  type: "Embed"
  bottom: "input_sentence"
  top: "embedded_input_sentence"
  param {
    lr_mult: 1
  }
  embed_param {
    num_output: 500
    input_dim: 46168
    bias_term: false
    weight_filler {
      type: "uniform"
      min: -0.08
      max: 0.08
    }
  }
}
layer {
  name: "lstm1"
  type: "LSTM"
  bottom: "embedded_input_frames"
  bottom: "cont_sentence"
  top: "lstm1"
  recurrent_param {
    num_output: 1000
    weight_filler {
      type: "uniform"
      min: -0.08
      max: 0.08
    }
    bias_filler {
      type: "constant"
      value: 0
    }
  }
}
layer {
  name: "concat"
  type: "Concat"
  bottom: "lstm1"
  bottom: "embedded_input_sentence"
  bottom: "reshaped_stage_indicator"
  top: "lstm1_video_sequence"
  concat_param {
    concat_dim: 2
  }
}
layer {
  name: "lstm2"
  type: "LSTM"
  bottom: "lstm1_video_sequence"
  bottom: "cont_sentence"
  top: "lstm2"
  recurrent_param {
    num_output: 1000
    weight_filler {
      type: "uniform"
      min: -0.08
      max: 0.08
    }
    bias_filler {
      type: "constant"
      value: 0
    }
  }
}
layer {
  name: "predict"
  type: "InnerProduct"
  bottom: "lstm2"
  top: "predict"
  param {
    lr_mult: 1
    decay_mult: 1
  }
  param {
    lr_mult: 2
    decay_mult: 0
  }
  inner_product_param {
    num_output: 46168
    weight_filler {
      type: "uniform"
      min: -0.08
      max: 0.08
    }
    bias_filler {
      type: "constant"
      value: 0
    }
    axis: 2
  }
}
layer {
  name: "probs"
  type: "Softmax"
  bottom: "predict"
  top: "probs"
  softmax_param {
    axis: 2
  }
}
I0925 23:14:37.954592 27239 layer_factory.hpp:77] Creating layer input
I0925 23:14:37.954723 27239 net.cpp:91] Creating Layer input
I0925 23:14:37.954735 27239 net.cpp:399] input -> frames_fc7
I0925 23:14:37.954753 27239 net.cpp:399] input -> cont_sentence
I0925 23:14:37.954771 27239 net.cpp:399] input -> input_sentence
I0925 23:14:37.954787 27239 net.cpp:399] input -> stage_indicator
I0925 23:14:38.921214 27241 net.cpp:141] Setting up data
I0925 23:14:38.921329 27241 net.cpp:148] Top shape: 10 3 227 227 (1545870)
I0925 23:14:38.921336 27241 net.cpp:156] Memory required for data: 6183480
I0925 23:14:38.921366 27241 layer_factory.hpp:77] Creating layer conv1
I0925 23:14:38.921412 27241 net.cpp:91] Creating Layer conv1
I0925 23:14:38.921428 27241 net.cpp:425] conv1 <- data
I0925 23:14:38.921448 27241 net.cpp:399] conv1 -> conv1
I0925 23:14:38.921869 27225 net.cpp:141] Setting up input
I0925 23:14:38.921891 27225 net.cpp:148] Top shape: 1 4096 (4096)
I0925 23:14:38.921900 27225 net.cpp:148] Top shape: 1 1 (1)
I0925 23:14:38.921905 27225 net.cpp:148] Top shape: 1 1 (1)
I0925 23:14:38.921911 27225 net.cpp:148] Top shape: 1 1 (1)
I0925 23:14:38.921916 27225 net.cpp:156] Memory required for data: 16396
I0925 23:14:38.921921 27225 layer_factory.hpp:77] Creating layer cont_sentence_input_1_split
I0925 23:14:38.921941 27225 net.cpp:91] Creating Layer cont_sentence_input_1_split
I0925 23:14:38.921952 27225 net.cpp:425] cont_sentence_input_1_split <- cont_sentence
I0925 23:14:38.921973 27225 net.cpp:399] cont_sentence_input_1_split -> cont_sentence_input_1_split_0
I0925 23:14:38.921988 27225 net.cpp:399] cont_sentence_input_1_split -> cont_sentence_input_1_split_1
I0925 23:14:38.922046 27225 net.cpp:141] Setting up cont_sentence_input_1_split
I0925 23:14:38.922057 27225 net.cpp:148] Top shape: 1 1 (1)
I0925 23:14:38.922063 27225 net.cpp:148] Top shape: 1 1 (1)
I0925 23:14:38.922068 27225 net.cpp:156] Memory required for data: 16404
I0925 23:14:38.922075 27225 layer_factory.hpp:77] Creating layer embed_encoder
I0925 23:14:38.922101 27225 net.cpp:91] Creating Layer embed_encoder
I0925 23:14:38.922106 27225 net.cpp:425] embed_encoder <- frames_fc7
I0925 23:14:38.922116 27225 net.cpp:399] embed_encoder -> embedded_in_frames
I0925 23:14:38.927031 27215 net.cpp:141] Setting up input
I0925 23:14:38.927088 27215 net.cpp:148] Top shape: 1 4096 (4096)
I0925 23:14:38.927096 27215 net.cpp:148] Top shape: 1 1 (1)
I0925 23:14:38.927105 27215 net.cpp:148] Top shape: 1 1 (1)
I0925 23:14:38.927117 27215 net.cpp:148] Top shape: 1 1 (1)
I0925 23:14:38.927122 27215 net.cpp:156] Memory required for data: 16396
I0925 23:14:38.927132 27215 layer_factory.hpp:77] Creating layer cont_sentence_input_1_split
I0925 23:14:38.927171 27215 net.cpp:91] Creating Layer cont_sentence_input_1_split
I0925 23:14:38.927181 27215 net.cpp:425] cont_sentence_input_1_split <- cont_sentence
I0925 23:14:38.927194 27221 net.cpp:141] Setting up input
I0925 23:14:38.927207 27215 net.cpp:399] cont_sentence_input_1_split -> cont_sentence_input_1_split_0
I0925 23:14:38.927214 27221 net.cpp:148] Top shape: 1 4096 (4096)
I0925 23:14:38.927222 27221 net.cpp:148] Top shape: 1 1 (1)
I0925 23:14:38.927228 27221 net.cpp:148] Top shape: 1 1 (1)
I0925 23:14:38.927227 27215 net.cpp:399] cont_sentence_input_1_split -> cont_sentence_input_1_split_1
I0925 23:14:38.927234 27221 net.cpp:148] Top shape: 1 1 (1)
I0925 23:14:38.927238 27221 net.cpp:156] Memory required for data: 16396
I0925 23:14:38.927245 27221 layer_factory.hpp:77] Creating layer cont_sentence_input_1_split
I0925 23:14:38.927258 27221 net.cpp:91] Creating Layer cont_sentence_input_1_split
I0925 23:14:38.927263 27221 net.cpp:425] cont_sentence_input_1_split <- cont_sentence
I0925 23:14:38.927273 27221 net.cpp:399] cont_sentence_input_1_split -> cont_sentence_input_1_split_0
I0925 23:14:38.927284 27221 net.cpp:399] cont_sentence_input_1_split -> cont_sentence_input_1_split_1
I0925 23:14:38.927372 27265 net.cpp:141] Setting up input
I0925 23:14:38.927387 27265 net.cpp:148] Top shape: 1 4096 (4096)
I0925 23:14:38.927395 27265 net.cpp:148] Top shape: 1 1 (1)
I0925 23:14:38.927407 27265 net.cpp:148] Top shape: 1 1 (1)
I0925 23:14:38.927415 27265 net.cpp:148] Top shape: 1 1 (1)
I0925 23:14:38.927422 27265 net.cpp:156] Memory required for data: 16396
I0925 23:14:38.927449 27265 layer_factory.hpp:77] Creating layer cont_sentence_input_1_split
I0925 23:14:38.927466 27265 net.cpp:91] Creating Layer cont_sentence_input_1_split
I0925 23:14:38.927465 27257 net.cpp:141] Setting up input
I0925 23:14:38.927489 27265 net.cpp:425] cont_sentence_input_1_split <- cont_sentence
I0925 23:14:38.927515 27257 net.cpp:148] Top shape: 1 4096 (4096)
I0925 23:14:38.927516 27265 net.cpp:399] cont_sentence_input_1_split -> cont_sentence_input_1_split_0
I0925 23:14:38.927537 27257 net.cpp:148] Top shape: 1 1 (1)
I0925 23:14:38.927546 27265 net.cpp:399] cont_sentence_input_1_split -> cont_sentence_input_1_split_1
I0925 23:14:38.927551 27257 net.cpp:148] Top shape: 1 1 (1)
I0925 23:14:38.927561 27257 net.cpp:148] Top shape: 1 1 (1)
I0925 23:14:38.927569 27257 net.cpp:156] Memory required for data: 16396
I0925 23:14:38.927580 27215 net.cpp:141] Setting up cont_sentence_input_1_split
I0925 23:14:38.927583 27257 layer_factory.hpp:77] Creating layer cont_sentence_input_1_split
I0925 23:14:38.927595 27215 net.cpp:148] Top shape: 1 1 (1)
I0925 23:14:38.927603 27215 net.cpp:148] Top shape: 1 1 (1)
I0925 23:14:38.927606 27215 net.cpp:156] Memory required for data: 16404
I0925 23:14:38.927613 27257 net.cpp:91] Creating Layer cont_sentence_input_1_split
I0925 23:14:38.927614 27215 layer_factory.hpp:77] Creating layer embed_encoder
I0925 23:14:38.927636 27257 net.cpp:425] cont_sentence_input_1_split <- cont_sentence
I0925 23:14:38.927654 27257 net.cpp:399] cont_sentence_input_1_split -> cont_sentence_input_1_split_0
I0925 23:14:38.927670 27215 net.cpp:91] Creating Layer embed_encoder
I0925 23:14:38.927662 27233 net.cpp:141] Setting up input
I0925 23:14:38.927676 27257 net.cpp:399] cont_sentence_input_1_split -> cont_sentence_input_1_split_1
I0925 23:14:38.927677 27215 net.cpp:425] embed_encoder <- frames_fc7
I0925 23:14:38.927695 27233 net.cpp:148] Top shape: 1 4096 (4096)
I0925 23:14:38.927695 27215 net.cpp:399] embed_encoder -> embedded_in_frames
I0925 23:14:38.927709 27233 net.cpp:148] Top shape: 1 1 (1)
I0925 23:14:38.927721 27233 net.cpp:148] Top shape: 1 1 (1)
I0925 23:14:38.927729 27233 net.cpp:148] Top shape: 1 1 (1)
I0925 23:14:38.927737 27233 net.cpp:156] Memory required for data: 16396
I0925 23:14:38.927748 27233 layer_factory.hpp:77] Creating layer cont_sentence_input_1_split
I0925 23:14:38.927767 27233 net.cpp:91] Creating Layer cont_sentence_input_1_split
I0925 23:14:38.927775 27233 net.cpp:425] cont_sentence_input_1_split <- cont_sentence
I0925 23:14:38.927774 27257 net.cpp:141] Setting up cont_sentence_input_1_split
I0925 23:14:38.927801 27233 net.cpp:399] cont_sentence_input_1_split -> cont_sentence_input_1_split_0
I0925 23:14:38.927806 27257 net.cpp:148] Top shape: 1 1 (1)
I0925 23:14:38.927819 27233 net.cpp:399] cont_sentence_input_1_split -> cont_sentence_input_1_split_1
I0925 23:14:38.927819 27257 net.cpp:148] Top shape: 1 1 (1)
I0925 23:14:38.927836 27257 net.cpp:156] Memory required for data: 16404
I0925 23:14:38.927845 27257 layer_factory.hpp:77] Creating layer embed_encoder
I0925 23:14:38.927870 27257 net.cpp:91] Creating Layer embed_encoder
I0925 23:14:38.927880 27257 net.cpp:425] embed_encoder <- frames_fc7
I0925 23:14:38.927873 27239 net.cpp:141] Setting up input
I0925 23:14:38.927902 27257 net.cpp:399] embed_encoder -> embedded_in_frames
I0925 23:14:38.927927 27239 net.cpp:148] Top shape: 1 4096 (4096)
I0925 23:14:38.927923 27269 net.cpp:141] Setting up input
I0925 23:14:38.927949 27239 net.cpp:148] Top shape: 1 1 (1)
I0925 23:14:38.927963 27239 net.cpp:148] Top shape: 1 1 (1)
I0925 23:14:38.927966 27269 net.cpp:148] Top shape: 1 4096 (4096)
I0925 23:14:38.927973 27239 net.cpp:148] Top shape: 1 1 (1)
I0925 23:14:38.927983 27239 net.cpp:156] Memory required for data: 16396
I0925 23:14:38.927983 27269 net.cpp:148] Top shape: 1 1 (1)
I0925 23:14:38.927999 27239 layer_factory.hpp:77] Creating layer cont_sentence_input_1_split
I0925 23:14:38.928007 27269 net.cpp:148] Top shape: 1 1 (1)
I0925 23:14:38.928020 27269 net.cpp:148] Top shape: 1 1 (1)
I0925 23:14:38.928030 27221 net.cpp:141] Setting up cont_sentence_input_1_split
I0925 23:14:38.928035 27269 net.cpp:156] Memory required for data: 16396
I0925 23:14:38.928019 27239 net.cpp:91] Creating Layer cont_sentence_input_1_split
I0925 23:14:38.928047 27269 layer_factory.hpp:77] Creating layer cont_sentence_input_1_split
I0925 23:14:38.928052 27239 net.cpp:425] cont_sentence_input_1_split <- cont_sentence
I0925 23:14:38.928048 27221 net.cpp:148] Top shape: 1 1 (1)
I0925 23:14:38.928068 27239 net.cpp:399] cont_sentence_input_1_split -> cont_sentence_input_1_split_0
I0925 23:14:38.928072 27221 net.cpp:148] Top shape: 1 1 (1)
I0925 23:14:38.928086 27221 net.cpp:156] Memory required for data: 16404
I0925 23:14:38.928071 27269 net.cpp:91] Creating Layer cont_sentence_input_1_split
I0925 23:14:38.928092 27221 layer_factory.hpp:77] Creating layer embed_encoder
I0925 23:14:38.928083 27219 net.cpp:141] Setting up input
I0925 23:14:38.928103 27269 net.cpp:425] cont_sentence_input_1_split <- cont_sentence
I0925 23:14:38.928107 27221 net.cpp:91] Creating Layer embed_encoder
I0925 23:14:38.928086 27239 net.cpp:399] cont_sentence_input_1_split -> cont_sentence_input_1_split_1
I0925 23:14:38.928117 27221 net.cpp:425] embed_encoder <- frames_fc7
I0925 23:14:38.928118 27269 net.cpp:399] cont_sentence_input_1_split -> cont_sentence_input_1_split_0
I0925 23:14:38.928115 27219 net.cpp:148] Top shape: 1 4096 (4096)
I0925 23:14:38.928133 27221 net.cpp:399] embed_encoder -> embedded_in_frames
I0925 23:14:38.928138 27269 net.cpp:399] cont_sentence_input_1_split -> cont_sentence_input_1_split_1
I0925 23:14:38.928140 27219 net.cpp:148] Top shape: 1 1 (1)
I0925 23:14:38.928158 27219 net.cpp:148] Top shape: 1 1 (1)
I0925 23:14:38.928167 27219 net.cpp:148] Top shape: 1 1 (1)
I0925 23:14:38.928175 27219 net.cpp:156] Memory required for data: 16396
I0925 23:14:38.928186 27219 layer_factory.hpp:77] Creating layer cont_sentence_input_1_split
I0925 23:14:38.928201 27219 net.cpp:91] Creating Layer cont_sentence_input_1_split
I0925 23:14:38.928211 27219 net.cpp:425] cont_sentence_input_1_split <- cont_sentence
I0925 23:14:38.928221 27265 net.cpp:141] Setting up cont_sentence_input_1_split
I0925 23:14:38.928225 27219 net.cpp:399] cont_sentence_input_1_split -> cont_sentence_input_1_split_0
I0925 23:14:38.928247 27265 net.cpp:148] Top shape: 1 1 (1)
I0925 23:14:38.928258 27265 net.cpp:148] Top shape: 1 1 (1)
I0925 23:14:38.928262 27219 net.cpp:399] cont_sentence_input_1_split -> cont_sentence_input_1_split_1
I0925 23:14:38.928267 27265 net.cpp:156] Memory required for data: 16404
I0925 23:14:38.928277 27265 layer_factory.hpp:77] Creating layer embed_encoder
I0925 23:14:38.928295 27265 net.cpp:91] Creating Layer embed_encoder
I0925 23:14:38.928303 27265 net.cpp:425] embed_encoder <- frames_fc7
I0925 23:14:38.928319 27265 net.cpp:399] embed_encoder -> embedded_in_frames
I0925 23:14:38.940419 27233 net.cpp:141] Setting up cont_sentence_input_1_split
I0925 23:14:38.940467 27233 net.cpp:148] Top shape: 1 1 (1)
I0925 23:14:38.940475 27233 net.cpp:148] Top shape: 1 1 (1)
I0925 23:14:38.940480 27233 net.cpp:156] Memory required for data: 16404
I0925 23:14:38.940488 27233 layer_factory.hpp:77] Creating layer embed_encoder
I0925 23:14:38.940510 27233 net.cpp:91] Creating Layer embed_encoder
I0925 23:14:38.940517 27233 net.cpp:425] embed_encoder <- frames_fc7
I0925 23:14:38.940515 27239 net.cpp:141] Setting up cont_sentence_input_1_split
I0925 23:14:38.940544 27233 net.cpp:399] embed_encoder -> embedded_in_frames
I0925 23:14:38.940573 27239 net.cpp:148] Top shape: 1 1 (1)
I0925 23:14:38.940588 27239 net.cpp:148] Top shape: 1 1 (1)
I0925 23:14:38.940598 27239 net.cpp:156] Memory required for data: 16404
I0925 23:14:38.940610 27239 layer_factory.hpp:77] Creating layer embed_encoder
I0925 23:14:38.940640 27239 net.cpp:91] Creating Layer embed_encoder
I0925 23:14:38.940654 27239 net.cpp:425] embed_encoder <- frames_fc7
I0925 23:14:38.940676 27239 net.cpp:399] embed_encoder -> embedded_in_frames
I0925 23:14:38.944771 27219 net.cpp:141] Setting up cont_sentence_input_1_split
I0925 23:14:38.944800 27219 net.cpp:148] Top shape: 1 1 (1)
I0925 23:14:38.944808 27219 net.cpp:148] Top shape: 1 1 (1)
I0925 23:14:38.944813 27219 net.cpp:156] Memory required for data: 16404
I0925 23:14:38.944819 27219 layer_factory.hpp:77] Creating layer embed_encoder
I0925 23:14:38.944859 27219 net.cpp:91] Creating Layer embed_encoder
I0925 23:14:38.944866 27219 net.cpp:425] embed_encoder <- frames_fc7
I0925 23:14:38.944877 27219 net.cpp:399] embed_encoder -> embedded_in_frames
I0925 23:14:38.950801 27269 net.cpp:141] Setting up cont_sentence_input_1_split
I0925 23:14:38.950862 27269 net.cpp:148] Top shape: 1 1 (1)
I0925 23:14:38.950875 27269 net.cpp:148] Top shape: 1 1 (1)
I0925 23:14:38.950881 27269 net.cpp:156] Memory required for data: 16404
I0925 23:14:38.950893 27269 layer_factory.hpp:77] Creating layer embed_encoder
I0925 23:14:38.952081 27269 net.cpp:91] Creating Layer embed_encoder
I0925 23:14:38.952102 27269 net.cpp:425] embed_encoder <- frames_fc7
I0925 23:14:38.952121 27269 net.cpp:399] embed_encoder -> embedded_in_frames
I0925 23:14:38.975006 27221 net.cpp:141] Setting up embed_encoder
I0925 23:14:38.975636 27221 net.cpp:148] Top shape: 1 500 (500)
I0925 23:14:38.975797 27221 net.cpp:156] Memory required for data: 18404
I0925 23:14:38.976018 27221 layer_factory.hpp:77] Creating layer reshape_frames
I0925 23:14:38.976451 27221 net.cpp:91] Creating Layer reshape_frames
I0925 23:14:38.976465 27225 net.cpp:141] Setting up embed_encoder
I0925 23:14:38.976620 27221 net.cpp:425] reshape_frames <- embedded_in_frames
I0925 23:14:38.976634 27225 net.cpp:148] Top shape: 1 500 (500)
I0925 23:14:38.976644 27225 net.cpp:156] Memory required for data: 18404
I0925 23:14:38.976667 27225 layer_factory.hpp:77] Creating layer reshape_frames
I0925 23:14:38.976655 27257 net.cpp:141] Setting up embed_encoder
I0925 23:14:38.976689 27225 net.cpp:91] Creating Layer reshape_frames
I0925 23:14:38.976701 27225 net.cpp:425] reshape_frames <- embedded_in_frames
I0925 23:14:38.976702 27257 net.cpp:148] Top shape: 1 500 (500)
I0925 23:14:38.976714 27257 net.cpp:156] Memory required for data: 18404
I0925 23:14:38.976718 27225 net.cpp:399] reshape_frames -> embedded_input_frames
I0925 23:14:38.976747 27257 layer_factory.hpp:77] Creating layer reshape_frames
I0925 23:14:38.976770 27215 net.cpp:141] Setting up embed_encoder
I0925 23:14:38.976776 27257 net.cpp:91] Creating Layer reshape_frames
I0925 23:14:38.976788 27215 net.cpp:148] Top shape: 1 500 (500)
I0925 23:14:38.976791 27257 net.cpp:425] reshape_frames <- embedded_in_frames
I0925 23:14:38.976796 27215 net.cpp:156] Memory required for data: 18404
I0925 23:14:38.976809 27257 net.cpp:399] reshape_frames -> embedded_input_frames
I0925 23:14:38.976820 27215 layer_factory.hpp:77] Creating layer reshape_frames
I0925 23:14:38.976835 27215 net.cpp:91] Creating Layer reshape_frames
I0925 23:14:38.976843 27215 net.cpp:425] reshape_frames <- embedded_in_frames
I0925 23:14:38.976874 27215 net.cpp:399] reshape_frames -> embedded_input_frames
I0925 23:14:38.976644 27221 net.cpp:399] reshape_frames -> embedded_input_frames
I0925 23:14:38.982406 27225 net.cpp:141] Setting up reshape_frames
I0925 23:14:38.982456 27225 net.cpp:148] Top shape: 1 1 500 (500)
I0925 23:14:38.982467 27225 net.cpp:156] Memory required for data: 20404
I0925 23:14:38.982480 27225 layer_factory.hpp:77] Creating layer reshape_stage_indicator
I0925 23:14:38.982509 27225 net.cpp:91] Creating Layer reshape_stage_indicator
I0925 23:14:38.982525 27225 net.cpp:425] reshape_stage_indicator <- stage_indicator
I0925 23:14:38.982537 27257 net.cpp:141] Setting up reshape_frames
I0925 23:14:38.982578 27257 net.cpp:148] Top shape: 1 1 500 (500)
I0925 23:14:38.982584 27257 net.cpp:156] Memory required for data: 20404
I0925 23:14:38.982606 27257 layer_factory.hpp:77] Creating layer reshape_stage_indicator
I0925 23:14:38.982589 27215 net.cpp:141] Setting up reshape_frames
I0925 23:14:38.982635 27257 net.cpp:91] Creating Layer reshape_stage_indicator
I0925 23:14:38.982645 27257 net.cpp:425] reshape_stage_indicator <- stage_indicator
I0925 23:14:38.982642 27215 net.cpp:148] Top shape: 1 1 500 (500)
I0925 23:14:38.982655 27215 net.cpp:156] Memory required for data: 20404
I0925 23:14:38.982656 27257 net.cpp:399] reshape_stage_indicator -> reshaped_stage_indicator
I0925 23:14:38.982671 27215 layer_factory.hpp:77] Creating layer reshape_stage_indicator
I0925 23:14:38.982720 27215 net.cpp:91] Creating Layer reshape_stage_indicator
I0925 23:14:38.982731 27215 net.cpp:425] reshape_stage_indicator <- stage_indicator
I0925 23:14:38.982746 27215 net.cpp:399] reshape_stage_indicator -> reshaped_stage_indicator
I0925 23:14:38.982828 27221 net.cpp:141] Setting up reshape_frames
I0925 23:14:38.982873 27221 net.cpp:148] Top shape: 1 1 500 (500)
I0925 23:14:38.982883 27221 net.cpp:156] Memory required for data: 20404
I0925 23:14:38.982903 27265 net.cpp:141] Setting up embed_encoder
I0925 23:14:38.982913 27221 layer_factory.hpp:77] Creating layer reshape_stage_indicator
I0925 23:14:38.982923 27265 net.cpp:148] Top shape: 1 500 (500)
I0925 23:14:38.982933 27265 net.cpp:156] Memory required for data: 18404
I0925 23:14:38.982939 27257 net.cpp:141] Setting up reshape_stage_indicator
I0925 23:14:38.982952 27257 net.cpp:148] Top shape: 1 1 1 (1)
I0925 23:14:38.982957 27257 net.cpp:156] Memory required for data: 20408
I0925 23:14:38.982962 27257 layer_factory.hpp:77] Creating layer embedding
I0925 23:14:38.982965 27265 layer_factory.hpp:77] Creating layer reshape_frames
I0925 23:14:38.982985 27257 net.cpp:91] Creating Layer embedding
I0925 23:14:38.982986 27265 net.cpp:91] Creating Layer reshape_frames
I0925 23:14:38.982992 27257 net.cpp:425] embedding <- input_sentence
I0925 23:14:38.982997 27265 net.cpp:425] reshape_frames <- embedded_in_frames
I0925 23:14:38.983003 27257 net.cpp:399] embedding -> embedded_input_sentence
I0925 23:14:38.983013 27265 net.cpp:399] reshape_frames -> embedded_input_frames
I0925 23:14:38.983012 27215 net.cpp:141] Setting up reshape_stage_indicator
I0925 23:14:38.983043 27215 net.cpp:148] Top shape: 1 1 1 (1)
I0925 23:14:38.983052 27215 net.cpp:156] Memory required for data: 20408
I0925 23:14:38.983078 27215 layer_factory.hpp:77] Creating layer embedding
I0925 23:14:38.983098 27215 net.cpp:91] Creating Layer embedding
I0925 23:14:38.983108 27215 net.cpp:425] embedding <- input_sentence
I0925 23:14:38.983124 27215 net.cpp:399] embedding -> embedded_input_sentence
I0925 23:14:38.983153 27221 net.cpp:91] Creating Layer reshape_stage_indicator
I0925 23:14:38.983167 27221 net.cpp:425] reshape_stage_indicator <- stage_indicator
I0925 23:14:38.983183 27221 net.cpp:399] reshape_stage_indicator -> reshaped_stage_indicator
I0925 23:14:38.982548 27225 net.cpp:399] reshape_stage_indicator -> reshaped_stage_indicator
I0925 23:14:38.988188 27265 net.cpp:141] Setting up reshape_frames
I0925 23:14:38.988261 27265 net.cpp:148] Top shape: 1 1 500 (500)
I0925 23:14:38.988272 27265 net.cpp:156] Memory required for data: 20404
I0925 23:14:38.988286 27265 layer_factory.hpp:77] Creating layer reshape_stage_indicator
I0925 23:14:38.988309 27265 net.cpp:91] Creating Layer reshape_stage_indicator
I0925 23:14:38.988319 27265 net.cpp:425] reshape_stage_indicator <- stage_indicator
I0925 23:14:38.988335 27265 net.cpp:399] reshape_stage_indicator -> reshaped_stage_indicator
I0925 23:14:38.988394 27265 net.cpp:141] Setting up reshape_stage_indicator
I0925 23:14:38.988409 27265 net.cpp:148] Top shape: 1 1 1 (1)
I0925 23:14:38.988416 27265 net.cpp:156] Memory required for data: 20408
I0925 23:14:38.988425 27265 layer_factory.hpp:77] Creating layer embedding
I0925 23:14:38.988441 27265 net.cpp:91] Creating Layer embedding
I0925 23:14:38.988451 27265 net.cpp:425] embedding <- input_sentence
I0925 23:14:38.988463 27265 net.cpp:399] embedding -> embedded_input_sentence
I0925 23:14:39.032323 27221 net.cpp:141] Setting up reshape_stage_indicator
I0925 23:14:39.032394 27221 net.cpp:148] Top shape: 1 1 1 (1)
I0925 23:14:39.032402 27221 net.cpp:156] Memory required for data: 20408
I0925 23:14:39.032352 27225 net.cpp:141] Setting up reshape_stage_indicator
I0925 23:14:39.032412 27221 layer_factory.hpp:77] Creating layer embedding
I0925 23:14:39.032425 27225 net.cpp:148] Top shape: 1 1 1 (1)
I0925 23:14:39.032434 27225 net.cpp:156] Memory required for data: 20408
I0925 23:14:39.032440 27225 layer_factory.hpp:77] Creating layer embedding
I0925 23:14:39.032444 27221 net.cpp:91] Creating Layer embedding
I0925 23:14:39.032451 27221 net.cpp:425] embedding <- input_sentence
I0925 23:14:39.032457 27225 net.cpp:91] Creating Layer embedding
I0925 23:14:39.032464 27225 net.cpp:425] embedding <- input_sentence
I0925 23:14:39.032465 27221 net.cpp:399] embedding -> embedded_input_sentence
I0925 23:14:39.032474 27225 net.cpp:399] embedding -> embedded_input_sentence
I0925 23:14:39.180732 27219 net.cpp:141] Setting up embed_encoder
I0925 23:14:39.180794 27219 net.cpp:148] Top shape: 1 500 (500)
I0925 23:14:39.180800 27219 net.cpp:156] Memory required for data: 18404
I0925 23:14:39.180821 27219 layer_factory.hpp:77] Creating layer reshape_frames
I0925 23:14:39.180843 27219 net.cpp:91] Creating Layer reshape_frames
I0925 23:14:39.180851 27219 net.cpp:425] reshape_frames <- embedded_in_frames
I0925 23:14:39.180865 27219 net.cpp:399] reshape_frames -> embedded_input_frames
I0925 23:14:39.225558 27239 net.cpp:141] Setting up embed_encoder
I0925 23:14:39.225628 27239 net.cpp:148] Top shape: 1 500 (500)
I0925 23:14:39.225644 27239 net.cpp:156] Memory required for data: 18404
I0925 23:14:39.225685 27239 layer_factory.hpp:77] Creating layer reshape_frames
I0925 23:14:39.225730 27239 net.cpp:91] Creating Layer reshape_frames
I0925 23:14:39.225749 27239 net.cpp:425] reshape_frames <- embedded_in_frames
I0925 23:14:39.225771 27239 net.cpp:399] reshape_frames -> embedded_input_frames
I0925 23:14:39.225872 27239 net.cpp:141] Setting up reshape_frames
I0925 23:14:39.225893 27239 net.cpp:148] Top shape: 1 1 500 (500)
I0925 23:14:39.225903 27239 net.cpp:156] Memory required for data: 20404
I0925 23:14:39.225916 27239 layer_factory.hpp:77] Creating layer reshape_stage_indicator
I0925 23:14:39.225939 27239 net.cpp:91] Creating Layer reshape_stage_indicator
I0925 23:14:39.225951 27239 net.cpp:425] reshape_stage_indicator <- stage_indicator
I0925 23:14:39.225970 27239 net.cpp:399] reshape_stage_indicator -> reshaped_stage_indicator
I0925 23:14:39.226047 27239 net.cpp:141] Setting up reshape_stage_indicator
I0925 23:14:39.226068 27239 net.cpp:148] Top shape: 1 1 1 (1)
I0925 23:14:39.226079 27239 net.cpp:156] Memory required for data: 20408
I0925 23:14:39.226089 27239 layer_factory.hpp:77] Creating layer embedding
I0925 23:14:39.226121 27239 net.cpp:91] Creating Layer embedding
I0925 23:14:39.226136 27239 net.cpp:425] embedding <- input_sentence
I0925 23:14:39.226155 27239 net.cpp:399] embedding -> embedded_input_sentence
I0925 23:14:39.283588 27219 net.cpp:141] Setting up reshape_frames
I0925 23:14:39.283653 27219 net.cpp:148] Top shape: 1 1 500 (500)
I0925 23:14:39.283661 27219 net.cpp:156] Memory required for data: 20404
I0925 23:14:39.283673 27219 layer_factory.hpp:77] Creating layer reshape_stage_indicator
I0925 23:14:39.283684 27265 net.cpp:141] Setting up embedding
I0925 23:14:39.283740 27265 net.cpp:148] Top shape: 1 1 500 (500)
I0925 23:14:39.283746 27265 net.cpp:156] Memory required for data: 22408
I0925 23:14:39.283768 27265 layer_factory.hpp:77] Creating layer lstm1
I0925 23:14:39.283803 27265 net.cpp:91] Creating Layer lstm1
I0925 23:14:39.283813 27265 net.cpp:425] lstm1 <- embedded_input_frames
I0925 23:14:39.283824 27265 net.cpp:425] lstm1 <- cont_sentence_input_1_split_0
I0925 23:14:39.283836 27265 net.cpp:399] lstm1 -> lstm1
I0925 23:14:39.283874 27265 recurrent_layer.cpp:20] Initializing recurrent layer: assuming input batch contains 1 timesteps of 1 independent streams.
I0925 23:14:39.283929 27233 net.cpp:141] Setting up embed_encoder
I0925 23:14:39.283951 27233 net.cpp:148] Top shape: 1 500 (500)
I0925 23:14:39.283957 27233 net.cpp:156] Memory required for data: 18404
I0925 23:14:39.283974 27233 layer_factory.hpp:77] Creating layer reshape_frames
I0925 23:14:39.283990 27233 net.cpp:91] Creating Layer reshape_frames
I0925 23:14:39.284003 27233 net.cpp:425] reshape_frames <- embedded_in_frames
I0925 23:14:39.284008 27257 net.cpp:141] Setting up embedding
I0925 23:14:39.284021 27233 net.cpp:399] reshape_frames -> embedded_input_frames
I0925 23:14:39.284026 27257 net.cpp:148] Top shape: 1 1 500 (500)
I0925 23:14:39.284032 27257 net.cpp:156] Memory required for data: 22408
I0925 23:14:39.284036 27269 net.cpp:141] Setting up embed_encoder
I0925 23:14:39.284045 27257 layer_factory.hpp:77] Creating layer lstm1
I0925 23:14:39.284054 27269 net.cpp:148] Top shape: 1 500 (500)
I0925 23:14:39.284061 27257 net.cpp:91] Creating Layer lstm1
I0925 23:14:39.284063 27269 net.cpp:156] Memory required for data: 18404
I0925 23:14:39.284072 27257 net.cpp:425] lstm1 <- embedded_input_frames
I0925 23:14:39.284085 27257 net.cpp:425] lstm1 <- cont_sentence_input_1_split_0
I0925 23:14:39.284090 27269 layer_factory.hpp:77] Creating layer reshape_frames
I0925 23:14:39.284090 27233 net.cpp:141] Setting up reshape_frames
I0925 23:14:39.284099 27257 net.cpp:399] lstm1 -> lstm1
I0925 23:14:39.284108 27233 net.cpp:148] Top shape: 1 1 500 (500)
I0925 23:14:39.284114 27257 recurrent_layer.cpp:20] Initializing recurrent layer: assuming input batch contains 1 timesteps of 1 independent streams.
I0925 23:14:39.284109 27269 net.cpp:91] Creating Layer reshape_frames
I0925 23:14:39.284131 27233 net.cpp:156] Memory required for data: 20404
I0925 23:14:39.284137 27269 net.cpp:425] reshape_frames <- embedded_in_frames
I0925 23:14:39.284139 27233 layer_factory.hpp:77] Creating layer reshape_stage_indicator
I0925 23:14:39.284152 27269 net.cpp:399] reshape_frames -> embedded_input_frames
I0925 23:14:39.284153 27233 net.cpp:91] Creating Layer reshape_stage_indicator
I0925 23:14:39.284183 27233 net.cpp:425] reshape_stage_indicator <- stage_indicator
I0925 23:14:39.284206 27233 net.cpp:399] reshape_stage_indicator -> reshaped_stage_indicator
I0925 23:14:39.284308 27265 net.cpp:49] Initializing net from parameters: 
layer {
  name: "lstm1_"
  type: "Input"
  top: "x"
  top: "cont"
  input_param {
    shape {
      dim: 1
      dim: 1
      dim: 500
    }
    shape {
      dim: 1
      dim: 1
    }
  }
}
layer {
  name: "lstm1_"
  type: "Input"
  top: "c_0"
  top: "h_0"
  input_param {
    shape {
      dim: 1
      dim: 1
      dim: 1000
    }
    shape {
      dim: 1
      dim: 1
      dim: 1000
    }
  }
}
layer {
  name: "lstm1_cont_slice"
  type: "Slice"
  bottom: "cont"
  top: "cont_1"
  slice_param {
    axis: 0
  }
}
layer {
  name: "lstm1_x_transform"
  type: "InnerProduct"
  bottom: "x"
  top: "W_xc_x"
  param {
    name: "W_xc"
  }
  param {
    name: "b_c"
  }
  propagate_down: true
  inner_product_param {
    num_output: 4000
    bias_term: true
    weight_filler {
      type: "uniform"
      min: -0.08
      max: 0.08
    }
    bias_filler {
      type: "constant"
      value: 0
    }
    axis: 2
  }
}
layer {
  name: "lstm1_W_xc_x_slice"
  type: "Slice"
  bottom: "W_xc_x"
  top: "W_xc_x_1"
  slice_param {
    axis: 0
  }
}
layer {
  name: "lstm1_h_conted_0"
  type: "Scale"
  bottom: "h_0"
  bottom: "cont_1"
  top: "h_conted_0"
  scale_param {
    axis: 0
  }
}
layer {
  name: "lstm1_transform_1"
  type: "InnerProduct"
  bottom: "h_conted_0"
  top: "W_hc_h_0"
  param {
    name: "W_hc"
  }
  inner_product_param {
    num_output: 4000
    bias_term: false
    weight_filler {
      type: "uniform"
      min: -0.08
      max: 0.08
    }
    axis: 2
  }
}
layer {
  name: "lstm1_gate_input_1"
  type: "Eltwise"
  bottom: "W_hc_h_0"
  bottom: "W_xc_x_1"
  top: "gate_input_1"
  eltwise_param {
    operation: SUM
  }
}
layer {
  name: "lstm1_unit_1"
  type: "LSTMUnit"
  bottom: "c_0"
  bottom: "gate_input_1"
  bottom: "cont_1"
  top: "c_1"
  top: "h_1"
}
layer {
  name: "lstm1_"
  type: "Split"
  bottom: "c_1"
  top: "c_T"
}
layer {
  name: "lstm1_h_concat"
  type: "Concat"
  bottom: "h_1"
  top: "h"
  concat_param {
    axis: 0
  }
}
layer {
  name: "h_pseudoloss"
  type: "Reduction"
  bottom: "h"
  top: "h_pseudoloss"
  loss_weight: 1
}
I0925 23:14:39.284412 27265 layer_factory.hpp:77] Creating layer lstm1_
I0925 23:14:39.284416 27257 net.cpp:49] Initializing net from parameters: 
layer {
  name: "lstm1_"
  type: "Input"
  top: "x"
  top: "cont"
  input_param {
    shape {
      dim: 1
      dim: 1
      dim: 500
    }
    shape {
      dim: 1
      dim: 1
    }
  }
}
layer {
  name: "lstm1_"
  type: "Input"
  top: "c_0"
  top: "h_0"
  input_param {
    shape {
      dim: 1
      dim: 1
      dim: 1000
    }
    shape {
      dim: 1
      dim: 1
      dim: 1000
    }
  }
}
layer {
  name: "lstm1_cont_slice"
  type: "Slice"
  bottom: "cont"
  top: "cont_1"
  slice_param {
    axis: 0
  }
}
layer {
  name: "lstm1_x_transform"
  type: "InnerProduct"
  bottom: "x"
  top: "W_xc_x"
  param {
    name: "W_xc"
  }
  param {
    name: "b_c"
  }
  propagate_down: true
  inner_product_param {
    num_output: 4000
    bias_term: true
    weight_filler {
      type: "uniform"
      min: -0.08
      max: 0.08
    }
    bias_filler {
      type: "constant"
      value: 0
    }
    axis: 2
  }
}
layer {
  name: "lstm1_W_xc_x_slice"
  type: "Slice"
  bottom: "W_xc_x"
  top: "W_xc_x_1"
  slice_param {
    axis: 0
  }
}
layer {
  name: "lstm1_h_conted_0"
  type: "Scale"
  bottom: "h_0"
  bottom: "cont_1"
  top: "h_conted_0"
  scale_param {
    axis: 0
  }
}
layer {
  name: "lstm1_transform_1"
  type: "InnerProduct"
  bottom: "h_conted_0"
  top: "W_hc_h_0"
  param {
    name: "W_hc"
  }
  inner_product_param {
    num_output: 4000
    bias_term: false
    weight_filler {
      type: "uniform"
      min: -0.08
      max: 0.08
    }
    axis: 2
  }
}
layer {
  name: "lstm1_gate_input_1"
  type: "Eltwise"
  bottom: "W_hc_h_0"
  bottom: "W_xc_x_1"
  top: "gate_input_1"
  eltwise_param {
    operation: SUM
  }
}
layer {
  name: "lstm1_unit_1"
  type: "LSTMUnit"
  bottom: "c_0"
  bottom: "gate_input_1"
  bottom: "cont_1"
  top: "c_1"
  top: "h_1"
}
layer {
  name: "lstm1_"
  type: "Split"
  bottom: "c_1"
  top: "c_T"
}
layer {
  name: "lstm1_h_concat"
  type: "Concat"
  bottom: "h_1"
  top: "h"
  concat_param {
    axis: 0
  }
}
layer {
  name: "h_pseudoloss"
  type: "Reduction"
  bottom: "h"
  top: "h_pseudoloss"
  loss_weight: 1
}
I0925 23:14:39.284426 27265 net.cpp:91] Creating Layer lstm1_
I0925 23:14:39.284435 27265 net.cpp:399] lstm1_ -> x
I0925 23:14:39.284446 27265 net.cpp:399] lstm1_ -> cont
I0925 23:14:39.284461 27269 net.cpp:141] Setting up reshape_frames
I0925 23:14:39.284476 27269 net.cpp:148] Top shape: 1 1 500 (500)
I0925 23:14:39.284481 27269 net.cpp:156] Memory required for data: 20404
I0925 23:14:39.284487 27269 layer_factory.hpp:77] Creating layer reshape_stage_indicator
I0925 23:14:39.284497 27269 net.cpp:91] Creating Layer reshape_stage_indicator
I0925 23:14:39.284502 27269 net.cpp:425] reshape_stage_indicator <- stage_indicator
I0925 23:14:39.284502 27233 net.cpp:141] Setting up reshape_stage_indicator
I0925 23:14:39.284507 27257 layer_factory.hpp:77] Creating layer lstm1_
I0925 23:14:39.284512 27269 net.cpp:399] reshape_stage_indicator -> reshaped_stage_indicator
I0925 23:14:39.284515 27233 net.cpp:148] Top shape: 1 1 1 (1)
I0925 23:14:39.284520 27257 net.cpp:91] Creating Layer lstm1_
I0925 23:14:39.284521 27233 net.cpp:156] Memory required for data: 20408
I0925 23:14:39.284533 27257 net.cpp:399] lstm1_ -> x
I0925 23:14:39.284538 27233 layer_factory.hpp:77] Creating layer embedding
I0925 23:14:39.284545 27257 net.cpp:399] lstm1_ -> cont
I0925 23:14:39.284551 27233 net.cpp:91] Creating Layer embedding
I0925 23:14:39.284557 27233 net.cpp:425] embedding <- input_sentence
I0925 23:14:39.284567 27233 net.cpp:399] embedding -> embedded_input_sentence
I0925 23:14:39.284742 27265 net.cpp:141] Setting up lstm1_
I0925 23:14:39.284755 27265 net.cpp:148] Top shape: 1 1 500 (500)
I0925 23:14:39.284762 27265 net.cpp:148] Top shape: 1 1 (1)
I0925 23:14:39.284767 27265 net.cpp:156] Memory required for data: 2004
I0925 23:14:39.284773 27265 layer_factory.hpp:77] Creating layer lstm1_
I0925 23:14:39.284787 27265 net.cpp:91] Creating Layer lstm1_
I0925 23:14:39.284796 27265 net.cpp:399] lstm1_ -> c_0
I0925 23:14:39.284807 27265 net.cpp:399] lstm1_ -> h_0
I0925 23:14:39.284896 27265 net.cpp:141] Setting up lstm1_
I0925 23:14:39.284909 27265 net.cpp:148] Top shape: 1 1 1000 (1000)
I0925 23:14:39.284915 27265 net.cpp:148] Top shape: 1 1 1000 (1000)
I0925 23:14:39.284920 27265 net.cpp:156] Memory required for data: 10004
I0925 23:14:39.284925 27265 layer_factory.hpp:77] Creating layer lstm1_cont_slice
I0925 23:14:39.284937 27265 net.cpp:91] Creating Layer lstm1_cont_slice
I0925 23:14:39.284941 27257 net.cpp:141] Setting up lstm1_
I0925 23:14:39.284943 27265 net.cpp:425] lstm1_cont_slice <- cont
I0925 23:14:39.284956 27257 net.cpp:148] Top shape: 1 1 500 (500)
I0925 23:14:39.284970 27265 net.cpp:399] lstm1_cont_slice -> cont_1
I0925 23:14:39.284975 27257 net.cpp:148] Top shape: 1 1 (1)
I0925 23:14:39.284981 27257 net.cpp:156] Memory required for data: 2004
I0925 23:14:39.284986 27257 layer_factory.hpp:77] Creating layer lstm1_
I0925 23:14:39.284994 27257 net.cpp:91] Creating Layer lstm1_
I0925 23:14:39.285004 27257 net.cpp:399] lstm1_ -> c_0
I0925 23:14:39.285015 27257 net.cpp:399] lstm1_ -> h_0
I0925 23:14:39.283712 27219 net.cpp:91] Creating Layer reshape_stage_indicator
I0925 23:14:39.286695 27219 net.cpp:425] reshape_stage_indicator <- stage_indicator
I0925 23:14:39.286715 27219 net.cpp:399] reshape_stage_indicator -> reshaped_stage_indicator
I0925 23:14:39.292935 27269 net.cpp:141] Setting up reshape_stage_indicator
I0925 23:14:39.292989 27269 net.cpp:148] Top shape: 1 1 1 (1)
I0925 23:14:39.292999 27269 net.cpp:156] Memory required for data: 20408
I0925 23:14:39.293011 27269 layer_factory.hpp:77] Creating layer embedding
I0925 23:14:39.293045 27269 net.cpp:91] Creating Layer embedding
I0925 23:14:39.293056 27269 net.cpp:425] embedding <- input_sentence
I0925 23:14:39.293074 27269 net.cpp:399] embedding -> embedded_input_sentence
I0925 23:14:39.358016 27219 net.cpp:141] Setting up reshape_stage_indicator
I0925 23:14:39.358084 27219 net.cpp:148] Top shape: 1 1 1 (1)
I0925 23:14:39.358093 27219 net.cpp:156] Memory required for data: 20408
I0925 23:14:39.358721 27219 layer_factory.hpp:77] Creating layer embedding
I0925 23:14:39.358755 27219 net.cpp:91] Creating Layer embedding
I0925 23:14:39.358767 27219 net.cpp:425] embedding <- input_sentence
I0925 23:14:39.358783 27219 net.cpp:399] embedding -> embedded_input_sentence
I0925 23:14:39.413311 27265 net.cpp:141] Setting up lstm1_cont_slice
I0925 23:14:39.413347 27225 net.cpp:141] Setting up embedding
I0925 23:14:39.413365 27265 net.cpp:148] Top shape: 1 1 (1)
I0925 23:14:39.413369 27225 net.cpp:148] Top shape: 1 1 500 (500)
I0925 23:14:39.413374 27265 net.cpp:156] Memory required for data: 10008
I0925 23:14:39.413378 27225 net.cpp:156] Memory required for data: 22408
I0925 23:14:39.413388 27265 layer_factory.hpp:77] Creating layer cont_1_lstm1_cont_slice_0_split
I0925 23:14:39.413403 27225 layer_factory.hpp:77] Creating layer lstm1
I0925 23:14:39.413409 27265 net.cpp:91] Creating Layer cont_1_lstm1_cont_slice_0_split
I0925 23:14:39.413419 27265 net.cpp:425] cont_1_lstm1_cont_slice_0_split <- cont_1
I0925 23:14:39.413421 27225 net.cpp:91] Creating Layer lstm1
I0925 23:14:39.413432 27225 net.cpp:425] lstm1 <- embedded_input_frames
I0925 23:14:39.413436 27265 net.cpp:399] cont_1_lstm1_cont_slice_0_split -> cont_1_lstm1_cont_slice_0_split_0
I0925 23:14:39.413444 27225 net.cpp:425] lstm1 <- cont_sentence_input_1_split_0
I0925 23:14:39.413457 27265 net.cpp:399] cont_1_lstm1_cont_slice_0_split -> cont_1_lstm1_cont_slice_0_split_1
I0925 23:14:39.413445 27257 net.cpp:141] Setting up lstm1_
I0925 23:14:39.413491 27257 net.cpp:148] Top shape: 1 1 1000 (1000)
I0925 23:14:39.413460 27225 net.cpp:399] lstm1 -> lstm1
I0925 23:14:39.413503 27257 net.cpp:148] Top shape: 1 1 1000 (1000)
I0925 23:14:39.413535 27257 net.cpp:156] Memory required for data: 10004
I0925 23:14:39.413547 27257 layer_factory.hpp:77] Creating layer lstm1_cont_slice
I0925 23:14:39.413569 27257 net.cpp:91] Creating Layer lstm1_cont_slice
I0925 23:14:39.413573 27225 recurrent_layer.cpp:20] Initializing recurrent layer: assuming input batch contains 1 timesteps of 1 independent streams.
I0925 23:14:39.413580 27257 net.cpp:425] lstm1_cont_slice <- cont
I0925 23:14:39.413599 27257 net.cpp:399] lstm1_cont_slice -> cont_1
I0925 23:14:39.413609 27215 net.cpp:141] Setting up embedding
I0925 23:14:39.413643 27265 net.cpp:141] Setting up cont_1_lstm1_cont_slice_0_split
I0925 23:14:39.413648 27215 net.cpp:148] Top shape: 1 1 500 (500)
I0925 23:14:39.413658 27215 net.cpp:156] Memory required for data: 22408
I0925 23:14:39.413662 27265 net.cpp:148] Top shape: 1 1 (1)
I0925 23:14:39.413673 27265 net.cpp:148] Top shape: 1 1 (1)
I0925 23:14:39.413676 27215 layer_factory.hpp:77] Creating layer lstm1
I0925 23:14:39.413681 27265 net.cpp:156] Memory required for data: 10016
I0925 23:14:39.413689 27265 layer_factory.hpp:77] Creating layer lstm1_x_transform
I0925 23:14:39.413693 27215 net.cpp:91] Creating Layer lstm1
I0925 23:14:39.413704 27215 net.cpp:425] lstm1 <- embedded_input_frames
I0925 23:14:39.413707 27265 net.cpp:91] Creating Layer lstm1_x_transform
I0925 23:14:39.413714 27215 net.cpp:425] lstm1 <- cont_sentence_input_1_split_0
I0925 23:14:39.413717 27265 net.cpp:425] lstm1_x_transform <- x
I0925 23:14:39.413776 27265 net.cpp:399] lstm1_x_transform -> W_xc_x
I0925 23:14:39.413794 27215 net.cpp:399] lstm1 -> lstm1
I0925 23:14:39.413818 27215 recurrent_layer.cpp:20] Initializing recurrent layer: assuming input batch contains 1 timesteps of 1 independent streams.
I0925 23:14:39.414026 27225 net.cpp:49] Initializing net from parameters: 
layer {
  name: "lstm1_"
  type: "Input"
  top: "x"
  top: "cont"
  input_param {
    shape {
      dim: 1
      dim: 1
      dim: 500
    }
    shape {
      dim: 1
      dim: 1
    }
  }
}
layer {
  name: "lstm1_"
  type: "Input"
  top: "c_0"
  top: "h_0"
  input_param {
    shape {
      dim: 1
      dim: 1
      dim: 1000
    }
    shape {
      dim: 1
      dim: 1
      dim: 1000
    }
  }
}
layer {
  name: "lstm1_cont_slice"
  type: "Slice"
  bottom: "cont"
  top: "cont_1"
  slice_param {
    axis: 0
  }
}
layer {
  name: "lstm1_x_transform"
  type: "InnerProduct"
  bottom: "x"
  top: "W_xc_x"
  param {
    name: "W_xc"
  }
  param {
    name: "b_c"
  }
  propagate_down: true
  inner_product_param {
    num_output: 4000
    bias_term: true
    weight_filler {
      type: "uniform"
      min: -0.08
      max: 0.08
    }
    bias_filler {
      type: "constant"
      value: 0
    }
    axis: 2
  }
}
layer {
  name: "lstm1_W_xc_x_slice"
  type: "Slice"
  bottom: "W_xc_x"
  top: "W_xc_x_1"
  slice_param {
    axis: 0
  }
}
layer {
  name: "lstm1_h_conted_0"
  type: "Scale"
  bottom: "h_0"
  bottom: "cont_1"
  top: "h_conted_0"
  scale_param {
    axis: 0
  }
}
layer {
  name: "lstm1_transform_1"
  type: "InnerProduct"
  bottom: "h_conted_0"
  top: "W_hc_h_0"
  param {
    name: "W_hc"
  }
  inner_product_param {
    num_output: 4000
    bias_term: false
    weight_filler {
      type: "uniform"
      min: -0.08
      max: 0.08
    }
    axis: 2
  }
}
layer {
  name: "lstm1_gate_input_1"
  type: "Eltwise"
  bottom: "W_hc_h_0"
  bottom: "W_xc_x_1"
  top: "gate_input_1"
  eltwise_param {
    operation: SUM
  }
}
layer {
  name: "lstm1_unit_1"
  type: "LSTMUnit"
  bottom: "c_0"
  bottom: "gate_input_1"
  bottom: "cont_1"
  top: "c_1"
  top: "h_1"
}
layer {
  name: "lstm1_"
  type: "Split"
  bottom: "c_1"
  top: "c_T"
}
layer {
  name: "lstm1_h_concat"
  type: "Concat"
  bottom: "h_1"
  top: "h"
  concat_param {
    axis: 0
  }
}
layer {
  name: "h_pseudoloss"
  type: "Reduction"
  bottom: "h"
  top: "h_pseudoloss"
  loss_weight: 1
}
I0925 23:14:39.414186 27225 layer_factory.hpp:77] Creating layer lstm1_
I0925 23:14:39.414206 27225 net.cpp:91] Creating Layer lstm1_
I0925 23:14:39.414217 27225 net.cpp:399] lstm1_ -> x
I0925 23:14:39.414234 27225 net.cpp:399] lstm1_ -> cont
I0925 23:14:39.414242 27215 net.cpp:49] Initializing net from parameters: 
layer {
  name: "lstm1_"
  type: "Input"
  top: "x"
  top: "cont"
  input_param {
    shape {
      dim: 1
      dim: 1
      dim: 500
    }
    shape {
      dim: 1
      dim: 1
    }
  }
}
layer {
  name: "lstm1_"
  type: "Input"
  top: "c_0"
  top: "h_0"
  input_param {
    shape {
      dim: 1
      dim: 1
      dim: 1000
    }
    shape {
      dim: 1
      dim: 1
      dim: 1000
    }
  }
}
layer {
  name: "lstm1_cont_slice"
  type: "Slice"
  bottom: "cont"
  top: "cont_1"
  slice_param {
    axis: 0
  }
}
layer {
  name: "lstm1_x_transform"
  type: "InnerProduct"
  bottom: "x"
  top: "W_xc_x"
  param {
    name: "W_xc"
  }
  param {
    name: "b_c"
  }
  propagate_down: true
  inner_product_param {
    num_output: 4000
    bias_term: true
    weight_filler {
      type: "uniform"
      min: -0.08
      max: 0.08
    }
    bias_filler {
      type: "constant"
      value: 0
    }
    axis: 2
  }
}
layer {
  name: "lstm1_W_xc_x_slice"
  type: "Slice"
  bottom: "W_xc_x"
  top: "W_xc_x_1"
  slice_param {
    axis: 0
  }
}
layer {
  name: "lstm1_h_conted_0"
  type: "Scale"
  bottom: "h_0"
  bottom: "cont_1"
  top: "h_conted_0"
  scale_param {
    axis: 0
  }
}
layer {
  name: "lstm1_transform_1"
  type: "InnerProduct"
  bottom: "h_conted_0"
  top: "W_hc_h_0"
  param {
    name: "W_hc"
  }
  inner_product_param {
    num_output: 4000
    bias_term: false
    weight_filler {
      type: "uniform"
      min: -0.08
      max: 0.08
    }
    axis: 2
  }
}
layer {
  name: "lstm1_gate_input_1"
  type: "Eltwise"
  bottom: "W_hc_h_0"
  bottom: "W_xc_x_1"
  top: "gate_input_1"
  eltwise_param {
    operation: SUM
  }
}
layer {
  name: "lstm1_unit_1"
  type: "LSTMUnit"
  bottom: "c_0"
  bottom: "gate_input_1"
  bottom: "cont_1"
  top: "c_1"
  top: "h_1"
}
layer {
  name: "lstm1_"
  type: "Split"
  bottom: "c_1"
  top: "c_T"
}
layer {
  name: "lstm1_h_concat"
  type: "Concat"
  bottom: "h_1"
  top: "h"
  concat_param {
    axis: 0
  }
}
layer {
  name: "h_pseudoloss"
  type: "Reduction"
  bottom: "h"
  top: "h_pseudoloss"
  loss_weight: 1
}
I0925 23:14:39.414389 27215 layer_factory.hpp:77] Creating layer lstm1_
I0925 23:14:39.414412 27215 net.cpp:91] Creating Layer lstm1_
I0925 23:14:39.414425 27215 net.cpp:399] lstm1_ -> x
I0925 23:14:39.414445 27215 net.cpp:399] lstm1_ -> cont
I0925 23:14:39.484347 27257 net.cpp:141] Setting up lstm1_cont_slice
I0925 23:14:39.484410 27257 net.cpp:148] Top shape: 1 1 (1)
I0925 23:14:39.484419 27257 net.cpp:156] Memory required for data: 10008
I0925 23:14:39.484441 27257 layer_factory.hpp:77] Creating layer cont_1_lstm1_cont_slice_0_split
I0925 23:14:39.484477 27257 net.cpp:91] Creating Layer cont_1_lstm1_cont_slice_0_split
I0925 23:14:39.484490 27257 net.cpp:425] cont_1_lstm1_cont_slice_0_split <- cont_1
I0925 23:14:39.484509 27257 net.cpp:399] cont_1_lstm1_cont_slice_0_split -> cont_1_lstm1_cont_slice_0_split_0
I0925 23:14:39.484534 27257 net.cpp:399] cont_1_lstm1_cont_slice_0_split -> cont_1_lstm1_cont_slice_0_split_1
I0925 23:14:39.484647 27257 net.cpp:141] Setting up cont_1_lstm1_cont_slice_0_split
I0925 23:14:39.484663 27257 net.cpp:148] Top shape: 1 1 (1)
I0925 23:14:39.484673 27257 net.cpp:148] Top shape: 1 1 (1)
I0925 23:14:39.484681 27257 net.cpp:156] Memory required for data: 10016
I0925 23:14:39.484689 27257 layer_factory.hpp:77] Creating layer lstm1_x_transform
I0925 23:14:39.484719 27257 net.cpp:91] Creating Layer lstm1_x_transform
I0925 23:14:39.484730 27257 net.cpp:425] lstm1_x_transform <- x
I0925 23:14:39.484743 27257 net.cpp:399] lstm1_x_transform -> W_xc_x
I0925 23:14:39.484793 27221 net.cpp:141] Setting up embedding
I0925 23:14:39.484838 27221 net.cpp:148] Top shape: 1 1 500 (500)
I0925 23:14:39.484844 27221 net.cpp:156] Memory required for data: 22408
I0925 23:14:39.484866 27221 layer_factory.hpp:77] Creating layer lstm1
I0925 23:14:39.484890 27221 net.cpp:91] Creating Layer lstm1
I0925 23:14:39.484899 27221 net.cpp:425] lstm1 <- embedded_input_frames
I0925 23:14:39.484908 27221 net.cpp:425] lstm1 <- cont_sentence_input_1_split_0
I0925 23:14:39.484920 27221 net.cpp:399] lstm1 -> lstm1
I0925 23:14:39.484941 27221 recurrent_layer.cpp:20] Initializing recurrent layer: assuming input batch contains 1 timesteps of 1 independent streams.
I0925 23:14:39.485119 27215 net.cpp:141] Setting up lstm1_
I0925 23:14:39.485137 27215 net.cpp:148] Top shape: 1 1 500 (500)
I0925 23:14:39.485144 27215 net.cpp:148] Top shape: 1 1 (1)
I0925 23:14:39.485148 27215 net.cpp:156] Memory required for data: 2004
I0925 23:14:39.485154 27215 layer_factory.hpp:77] Creating layer lstm1_
I0925 23:14:39.485168 27215 net.cpp:91] Creating Layer lstm1_
I0925 23:14:39.485182 27215 net.cpp:399] lstm1_ -> c_0
I0925 23:14:39.485194 27215 net.cpp:399] lstm1_ -> h_0
I0925 23:14:39.485354 27221 net.cpp:49] Initializing net from parameters: 
layer {
  name: "lstm1_"
  type: "Input"
  top: "x"
  top: "cont"
  input_param {
    shape {
      dim: 1
      dim: 1
      dim: 500
    }
    shape {
      dim: 1
      dim: 1
    }
  }
}
layer {
  name: "lstm1_"
  type: "Input"
  top: "c_0"
  top: "h_0"
  input_param {
    shape {
      dim: 1
      dim: 1
      dim: 1000
    }
    shape {
      dim: 1
      dim: 1
      dim: 1000
    }
  }
}
layer {
  name: "lstm1_cont_slice"
  type: "Slice"
  bottom: "cont"
  top: "cont_1"
  slice_param {
    axis: 0
  }
}
layer {
  name: "lstm1_x_transform"
  type: "InnerProduct"
  bottom: "x"
  top: "W_xc_x"
  param {
    name: "W_xc"
  }
  param {
    name: "b_c"
  }
  propagate_down: true
  inner_product_param {
    num_output: 4000
    bias_term: true
    weight_filler {
      type: "uniform"
      min: -0.08
      max: 0.08
    }
    bias_filler {
      type: "constant"
      value: 0
    }
    axis: 2
  }
}
layer {
  name: "lstm1_W_xc_x_slice"
  type: "Slice"
  bottom: "W_xc_x"
  top: "W_xc_x_1"
  slice_param {
    axis: 0
  }
}
layer {
  name: "lstm1_h_conted_0"
  type: "Scale"
  bottom: "h_0"
  bottom: "cont_1"
  top: "h_conted_0"
  scale_param {
    axis: 0
  }
}
layer {
  name: "lstm1_transform_1"
  type: "InnerProduct"
  bottom: "h_conted_0"
  top: "W_hc_h_0"
  param {
    name: "W_hc"
  }
  inner_product_param {
    num_output: 4000
    bias_term: false
    weight_filler {
      type: "uniform"
      min: -0.08
      max: 0.08
    }
    axis: 2
  }
}
layer {
  name: "lstm1_gate_input_1"
  type: "Eltwise"
  bottom: "W_hc_h_0"
  bottom: "W_xc_x_1"
  top: "gate_input_1"
  eltwise_param {
    operation: SUM
  }
}
layer {
  name: "lstm1_unit_1"
  type: "LSTMUnit"
  bottom: "c_0"
  bottom: "gate_input_1"
  bottom: "cont_1"
  top: "c_1"
  top: "h_1"
}
layer {
  name: "lstm1_"
  type: "Split"
  bottom: "c_1"
  top: "c_T"
}
layer {
  name: "lstm1_h_concat"
  type: "Concat"
  bottom: "h_1"
  top: "h"
  concat_param {
    axis: 0
  }
}
layer {
  name: "h_pseudoloss"
  type: "Reduction"
  bottom: "h"
  top: "h_pseudoloss"
  loss_weight: 1
}
I0925 23:14:39.485510 27221 layer_factory.hpp:77] Creating layer lstm1_
I0925 23:14:39.485528 27221 net.cpp:91] Creating Layer lstm1_
I0925 23:14:39.485540 27221 net.cpp:399] lstm1_ -> x
I0925 23:14:39.485560 27221 net.cpp:399] lstm1_ -> cont
I0925 23:14:39.489493 27225 net.cpp:141] Setting up lstm1_
I0925 23:14:39.489531 27225 net.cpp:148] Top shape: 1 1 500 (500)
I0925 23:14:39.489538 27225 net.cpp:148] Top shape: 1 1 (1)
I0925 23:14:39.489543 27225 net.cpp:156] Memory required for data: 2004
I0925 23:14:39.489552 27225 layer_factory.hpp:77] Creating layer lstm1_
I0925 23:14:39.489570 27225 net.cpp:91] Creating Layer lstm1_
I0925 23:14:39.489586 27225 net.cpp:399] lstm1_ -> c_0
I0925 23:14:39.489603 27225 net.cpp:399] lstm1_ -> h_0
I0925 23:14:39.496305 27215 net.cpp:141] Setting up lstm1_
I0925 23:14:39.496333 27221 net.cpp:141] Setting up lstm1_
I0925 23:14:39.496354 27221 net.cpp:148] Top shape: 1 1 500 (500)
I0925 23:14:39.496356 27215 net.cpp:148] Top shape: 1 1 1000 (1000)
I0925 23:14:39.496366 27221 net.cpp:148] Top shape: 1 1 (1)
I0925 23:14:39.496369 27215 net.cpp:148] Top shape: 1 1 1000 (1000)
I0925 23:14:39.496372 27221 net.cpp:156] Memory required for data: 2004
I0925 23:14:39.496368 27225 net.cpp:141] Setting up lstm1_
I0925 23:14:39.496386 27221 layer_factory.hpp:77] Creating layer lstm1_
I0925 23:14:39.496408 27225 net.cpp:148] Top shape: 1 1 1000 (1000)
I0925 23:14:39.496389 27215 net.cpp:156] Memory required for data: 10004
I0925 23:14:39.496425 27225 net.cpp:148] Top shape: 1 1 1000 (1000)
I0925 23:14:39.496430 27225 net.cpp:156] Memory required for data: 10004
I0925 23:14:39.496434 27215 layer_factory.hpp:77] Creating layer lstm1_cont_slice
I0925 23:14:39.496435 27225 layer_factory.hpp:77] Creating layer lstm1_cont_slice
I0925 23:14:39.496435 27221 net.cpp:91] Creating Layer lstm1_
I0925 23:14:39.496466 27225 net.cpp:91] Creating Layer lstm1_cont_slice
I0925 23:14:39.496471 27221 net.cpp:399] lstm1_ -> c_0
I0925 23:14:39.496465 27215 net.cpp:91] Creating Layer lstm1_cont_slice
I0925 23:14:39.496485 27225 net.cpp:425] lstm1_cont_slice <- cont
I0925 23:14:39.496496 27221 net.cpp:399] lstm1_ -> h_0
I0925 23:14:39.496502 27215 net.cpp:425] lstm1_cont_slice <- cont
I0925 23:14:39.496507 27225 net.cpp:399] lstm1_cont_slice -> cont_1
I0925 23:14:39.496517 27215 net.cpp:399] lstm1_cont_slice -> cont_1
I0925 23:14:39.497280 27215 net.cpp:141] Setting up lstm1_cont_slice
I0925 23:14:39.497298 27215 net.cpp:148] Top shape: 1 1 (1)
I0925 23:14:39.497304 27215 net.cpp:156] Memory required for data: 10008
I0925 23:14:39.497310 27215 layer_factory.hpp:77] Creating layer cont_1_lstm1_cont_slice_0_split
I0925 23:14:39.497319 27215 net.cpp:91] Creating Layer cont_1_lstm1_cont_slice_0_split
I0925 23:14:39.497324 27215 net.cpp:425] cont_1_lstm1_cont_slice_0_split <- cont_1
I0925 23:14:39.497323 27225 net.cpp:141] Setting up lstm1_cont_slice
I0925 23:14:39.497335 27215 net.cpp:399] cont_1_lstm1_cont_slice_0_split -> cont_1_lstm1_cont_slice_0_split_0
I0925 23:14:39.497339 27225 net.cpp:148] Top shape: 1 1 (1)
I0925 23:14:39.497344 27225 net.cpp:156] Memory required for data: 10008
I0925 23:14:39.497345 27215 net.cpp:399] cont_1_lstm1_cont_slice_0_split -> cont_1_lstm1_cont_slice_0_split_1
I0925 23:14:39.497349 27225 layer_factory.hpp:77] Creating layer cont_1_lstm1_cont_slice_0_split
I0925 23:14:39.497357 27221 net.cpp:141] Setting up lstm1_
I0925 23:14:39.497359 27225 net.cpp:91] Creating Layer cont_1_lstm1_cont_slice_0_split
I0925 23:14:39.497382 27225 net.cpp:425] cont_1_lstm1_cont_slice_0_split <- cont_1
I0925 23:14:39.497382 27221 net.cpp:148] Top shape: 1 1 1000 (1000)
I0925 23:14:39.497400 27225 net.cpp:399] cont_1_lstm1_cont_slice_0_split -> cont_1_lstm1_cont_slice_0_split_0
I0925 23:14:39.497401 27221 net.cpp:148] Top shape: 1 1 1000 (1000)
I0925 23:14:39.497409 27221 net.cpp:156] Memory required for data: 10004
I0925 23:14:39.497412 27225 net.cpp:399] cont_1_lstm1_cont_slice_0_split -> cont_1_lstm1_cont_slice_0_split_1
I0925 23:14:39.497416 27221 layer_factory.hpp:77] Creating layer lstm1_cont_slice
I0925 23:14:39.497433 27221 net.cpp:91] Creating Layer lstm1_cont_slice
I0925 23:14:39.497442 27221 net.cpp:425] lstm1_cont_slice <- cont
I0925 23:14:39.497452 27221 net.cpp:399] lstm1_cont_slice -> cont_1
I0925 23:14:39.499094 27215 net.cpp:141] Setting up cont_1_lstm1_cont_slice_0_split
I0925 23:14:39.499110 27215 net.cpp:148] Top shape: 1 1 (1)
I0925 23:14:39.499117 27215 net.cpp:148] Top shape: 1 1 (1)
I0925 23:14:39.499122 27215 net.cpp:156] Memory required for data: 10016
I0925 23:14:39.499128 27215 layer_factory.hpp:77] Creating layer lstm1_x_transform
I0925 23:14:39.499150 27215 net.cpp:91] Creating Layer lstm1_x_transform
I0925 23:14:39.499155 27215 net.cpp:425] lstm1_x_transform <- x
I0925 23:14:39.499164 27215 net.cpp:399] lstm1_x_transform -> W_xc_x
I0925 23:14:39.499223 27221 net.cpp:141] Setting up lstm1_cont_slice
I0925 23:14:39.499241 27221 net.cpp:148] Top shape: 1 1 (1)
I0925 23:14:39.499248 27221 net.cpp:156] Memory required for data: 10008
I0925 23:14:39.499256 27221 layer_factory.hpp:77] Creating layer cont_1_lstm1_cont_slice_0_split
I0925 23:14:39.499269 27221 net.cpp:91] Creating Layer cont_1_lstm1_cont_slice_0_split
I0925 23:14:39.499276 27221 net.cpp:425] cont_1_lstm1_cont_slice_0_split <- cont_1
I0925 23:14:39.499291 27221 net.cpp:399] cont_1_lstm1_cont_slice_0_split -> cont_1_lstm1_cont_slice_0_split_0
I0925 23:14:39.499305 27221 net.cpp:399] cont_1_lstm1_cont_slice_0_split -> cont_1_lstm1_cont_slice_0_split_1
I0925 23:14:39.499339 27225 net.cpp:141] Setting up cont_1_lstm1_cont_slice_0_split
I0925 23:14:39.499377 27225 net.cpp:148] Top shape: 1 1 (1)
I0925 23:14:39.499398 27225 net.cpp:148] Top shape: 1 1 (1)
I0925 23:14:39.499413 27225 net.cpp:156] Memory required for data: 10016
I0925 23:14:39.499430 27225 layer_factory.hpp:77] Creating layer lstm1_x_transform
I0925 23:14:39.499461 27225 net.cpp:91] Creating Layer lstm1_x_transform
I0925 23:14:39.499475 27225 net.cpp:425] lstm1_x_transform <- x
I0925 23:14:39.499493 27225 net.cpp:399] lstm1_x_transform -> W_xc_x
I0925 23:14:39.503823 27221 net.cpp:141] Setting up cont_1_lstm1_cont_slice_0_split
I0925 23:14:39.503876 27221 net.cpp:148] Top shape: 1 1 (1)
I0925 23:14:39.503887 27221 net.cpp:148] Top shape: 1 1 (1)
I0925 23:14:39.503895 27221 net.cpp:156] Memory required for data: 10016
I0925 23:14:39.503896 27239 net.cpp:141] Setting up embedding
I0925 23:14:39.503906 27221 layer_factory.hpp:77] Creating layer lstm1_x_transform
I0925 23:14:39.503912 27239 net.cpp:148] Top shape: 1 1 500 (500)
I0925 23:14:39.503918 27239 net.cpp:156] Memory required for data: 22408
I0925 23:14:39.503933 27221 net.cpp:91] Creating Layer lstm1_x_transform
I0925 23:14:39.503936 27239 layer_factory.hpp:77] Creating layer lstm1
I0925 23:14:39.503953 27221 net.cpp:425] lstm1_x_transform <- x
I0925 23:14:39.503968 27239 net.cpp:91] Creating Layer lstm1
I0925 23:14:39.503974 27239 net.cpp:425] lstm1 <- embedded_input_frames
I0925 23:14:39.503973 27221 net.cpp:399] lstm1_x_transform -> W_xc_x
I0925 23:14:39.503989 27239 net.cpp:425] lstm1 <- cont_sentence_input_1_split_0
I0925 23:14:39.504009 27239 net.cpp:399] lstm1 -> lstm1
I0925 23:14:39.504022 27239 recurrent_layer.cpp:20] Initializing recurrent layer: assuming input batch contains 1 timesteps of 1 independent streams.
I0925 23:14:39.507550 27239 net.cpp:49] Initializing net from parameters: 
layer {
  name: "lstm1_"
  type: "Input"
  top: "x"
  top: "cont"
  input_param {
    shape {
      dim: 1
      dim: 1
      dim: 500
    }
    shape {
      dim: 1
      dim: 1
    }
  }
}
layer {
  name: "lstm1_"
  type: "Input"
  top: "c_0"
  top: "h_0"
  input_param {
    shape {
      dim: 1
      dim: 1
      dim: 1000
    }
    shape {
      dim: 1
      dim: 1
      dim: 1000
    }
  }
}
layer {
  name: "lstm1_cont_slice"
  type: "Slice"
  bottom: "cont"
  top: "cont_1"
  slice_param {
    axis: 0
  }
}
layer {
  name: "lstm1_x_transform"
  type: "InnerProduct"
  bottom: "x"
  top: "W_xc_x"
  param {
    name: "W_xc"
  }
  param {
    name: "b_c"
  }
  propagate_down: true
  inner_product_param {
    num_output: 4000
    bias_term: true
    weight_filler {
      type: "uniform"
      min: -0.08
      max: 0.08
    }
    bias_filler {
      type: "constant"
      value: 0
    }
    axis: 2
  }
}
layer {
  name: "lstm1_W_xc_x_slice"
  type: "Slice"
  bottom: "W_xc_x"
  top: "W_xc_x_1"
  slice_param {
    axis: 0
  }
}
layer {
  name: "lstm1_h_conted_0"
  type: "Scale"
  bottom: "h_0"
  bottom: "cont_1"
  top: "h_conted_0"
  scale_param {
    axis: 0
  }
}
layer {
  name: "lstm1_transform_1"
  type: "InnerProduct"
  bottom: "h_conted_0"
  top: "W_hc_h_0"
  param {
    name: "W_hc"
  }
  inner_product_param {
    num_output: 4000
    bias_term: false
    weight_filler {
      type: "uniform"
      min: -0.08
      max: 0.08
    }
    axis: 2
  }
}
layer {
  name: "lstm1_gate_input_1"
  type: "Eltwise"
  bottom: "W_hc_h_0"
  bottom: "W_xc_x_1"
  top: "gate_input_1"
  eltwise_param {
    operation: SUM
  }
}
layer {
  name: "lstm1_unit_1"
  type: "LSTMUnit"
  bottom: "c_0"
  bottom: "gate_input_1"
  bottom: "cont_1"
  top: "c_1"
  top: "h_1"
}
layer {
  name: "lstm1_"
  type: "Split"
  bottom: "c_1"
  top: "c_T"
}
layer {
  name: "lstm1_h_concat"
  type: "Concat"
  bottom: "h_1"
  top: "h"
  concat_param {
    axis: 0
  }
}
layer {
  name: "h_pseudoloss"
  type: "Reduction"
  bottom: "h"
  top: "h_pseudoloss"
  loss_weight: 1
}
I0925 23:14:39.508317 27239 layer_factory.hpp:77] Creating layer lstm1_
I0925 23:14:39.508345 27239 net.cpp:91] Creating Layer lstm1_
I0925 23:14:39.508360 27239 net.cpp:399] lstm1_ -> x
I0925 23:14:39.508390 27239 net.cpp:399] lstm1_ -> cont
I0925 23:14:39.515408 27239 net.cpp:141] Setting up lstm1_
I0925 23:14:39.515465 27239 net.cpp:148] Top shape: 1 1 500 (500)
I0925 23:14:39.515477 27239 net.cpp:148] Top shape: 1 1 (1)
I0925 23:14:39.515483 27265 net.cpp:141] Setting up lstm1_x_transform
I0925 23:14:39.515529 27265 net.cpp:148] Top shape: 1 1 4000 (4000)
I0925 23:14:39.515537 27265 net.cpp:156] Memory required for data: 26016
I0925 23:14:39.515566 27265 layer_factory.hpp:77] Creating layer lstm1_W_xc_x_slice
I0925 23:14:39.515485 27239 net.cpp:156] Memory required for data: 2004
I0925 23:14:39.515586 27265 net.cpp:91] Creating Layer lstm1_W_xc_x_slice
I0925 23:14:39.515599 27239 layer_factory.hpp:77] Creating layer lstm1_
I0925 23:14:39.515650 27239 net.cpp:91] Creating Layer lstm1_
I0925 23:14:39.515666 27239 net.cpp:399] lstm1_ -> c_0
I0925 23:14:39.515691 27239 net.cpp:399] lstm1_ -> h_0
I0925 23:14:39.515599 27265 net.cpp:425] lstm1_W_xc_x_slice <- W_xc_x
I0925 23:14:39.515900 27265 net.cpp:399] lstm1_W_xc_x_slice -> W_xc_x_1
I0925 23:14:39.523313 27265 net.cpp:141] Setting up lstm1_W_xc_x_slice
I0925 23:14:39.523362 27265 net.cpp:148] Top shape: 1 1 4000 (4000)
I0925 23:14:39.523370 27265 net.cpp:156] Memory required for data: 42016
I0925 23:14:39.523382 27265 layer_factory.hpp:77] Creating layer lstm1_h_conted_0
I0925 23:14:39.523419 27265 net.cpp:91] Creating Layer lstm1_h_conted_0
I0925 23:14:39.523432 27265 net.cpp:425] lstm1_h_conted_0 <- h_0
I0925 23:14:39.523449 27239 net.cpp:141] Setting up lstm1_
I0925 23:14:39.523493 27239 net.cpp:148] Top shape: 1 1 1000 (1000)
I0925 23:14:39.523494 27265 net.cpp:425] lstm1_h_conted_0 <- cont_1_lstm1_cont_slice_0_split_0
I0925 23:14:39.523504 27239 net.cpp:148] Top shape: 1 1 1000 (1000)
I0925 23:14:39.523511 27239 net.cpp:156] Memory required for data: 10004
I0925 23:14:39.523521 27239 layer_factory.hpp:77] Creating layer lstm1_cont_slice
I0925 23:14:39.523573 27265 net.cpp:399] lstm1_h_conted_0 -> h_conted_0
I0925 23:14:39.523602 27257 net.cpp:141] Setting up lstm1_x_transform
I0925 23:14:39.523623 27257 net.cpp:148] Top shape: 1 1 4000 (4000)
I0925 23:14:39.523633 27257 net.cpp:156] Memory required for data: 26016
I0925 23:14:39.523656 27257 layer_factory.hpp:77] Creating layer lstm1_W_xc_x_slice
I0925 23:14:39.523670 27257 net.cpp:91] Creating Layer lstm1_W_xc_x_slice
I0925 23:14:39.523679 27257 net.cpp:425] lstm1_W_xc_x_slice <- W_xc_x
I0925 23:14:39.523695 27257 net.cpp:399] lstm1_W_xc_x_slice -> W_xc_x_1
I0925 23:14:39.524140 27257 net.cpp:141] Setting up lstm1_W_xc_x_slice
I0925 23:14:39.524158 27257 net.cpp:148] Top shape: 1 1 4000 (4000)
I0925 23:14:39.524165 27257 net.cpp:156] Memory required for data: 42016
I0925 23:14:39.524173 27257 layer_factory.hpp:77] Creating layer lstm1_h_conted_0
I0925 23:14:39.524188 27257 net.cpp:91] Creating Layer lstm1_h_conted_0
I0925 23:14:39.524196 27257 net.cpp:425] lstm1_h_conted_0 <- h_0
I0925 23:14:39.524206 27257 net.cpp:425] lstm1_h_conted_0 <- cont_1_lstm1_cont_slice_0_split_0
I0925 23:14:39.524222 27257 net.cpp:399] lstm1_h_conted_0 -> h_conted_0
I0925 23:14:39.524349 27265 net.cpp:141] Setting up lstm1_h_conted_0
I0925 23:14:39.524366 27265 net.cpp:148] Top shape: 1 1 1000 (1000)
I0925 23:14:39.524374 27265 net.cpp:156] Memory required for data: 46016
I0925 23:14:39.524384 27265 layer_factory.hpp:77] Creating layer lstm1_transform_1
I0925 23:14:39.524405 27265 net.cpp:91] Creating Layer lstm1_transform_1
I0925 23:14:39.524415 27265 net.cpp:425] lstm1_transform_1 <- h_conted_0
I0925 23:14:39.524428 27265 net.cpp:399] lstm1_transform_1 -> W_hc_h_0
I0925 23:14:39.524530 27257 net.cpp:141] Setting up lstm1_h_conted_0
I0925 23:14:39.524546 27257 net.cpp:148] Top shape: 1 1 1000 (1000)
I0925 23:14:39.524554 27257 net.cpp:156] Memory required for data: 46016
I0925 23:14:39.524561 27257 layer_factory.hpp:77] Creating layer lstm1_transform_1
I0925 23:14:39.524577 27257 net.cpp:91] Creating Layer lstm1_transform_1
I0925 23:14:39.524585 27257 net.cpp:425] lstm1_transform_1 <- h_conted_0
I0925 23:14:39.524600 27257 net.cpp:399] lstm1_transform_1 -> W_hc_h_0
I0925 23:14:39.529983 27239 net.cpp:91] Creating Layer lstm1_cont_slice
I0925 23:14:39.530025 27239 net.cpp:425] lstm1_cont_slice <- cont
I0925 23:14:39.530050 27239 net.cpp:399] lstm1_cont_slice -> cont_1
I0925 23:14:39.540140 27239 net.cpp:141] Setting up lstm1_cont_slice
I0925 23:14:39.540189 27239 net.cpp:148] Top shape: 1 1 (1)
I0925 23:14:39.540199 27239 net.cpp:156] Memory required for data: 10008
I0925 23:14:39.540211 27239 layer_factory.hpp:77] Creating layer cont_1_lstm1_cont_slice_0_split
I0925 23:14:39.540236 27239 net.cpp:91] Creating Layer cont_1_lstm1_cont_slice_0_split
I0925 23:14:39.540247 27239 net.cpp:425] cont_1_lstm1_cont_slice_0_split <- cont_1
I0925 23:14:39.540261 27239 net.cpp:399] cont_1_lstm1_cont_slice_0_split -> cont_1_lstm1_cont_slice_0_split_0
I0925 23:14:39.540278 27239 net.cpp:399] cont_1_lstm1_cont_slice_0_split -> cont_1_lstm1_cont_slice_0_split_1
I0925 23:14:39.540340 27215 net.cpp:141] Setting up lstm1_x_transform
I0925 23:14:39.540377 27215 net.cpp:148] Top shape: 1 1 4000 (4000)
I0925 23:14:39.540382 27215 net.cpp:156] Memory required for data: 26016
I0925 23:14:39.540406 27215 layer_factory.hpp:77] Creating layer lstm1_W_xc_x_slice
I0925 23:14:39.540424 27215 net.cpp:91] Creating Layer lstm1_W_xc_x_slice
I0925 23:14:39.540431 27215 net.cpp:425] lstm1_W_xc_x_slice <- W_xc_x
I0925 23:14:39.540441 27215 net.cpp:399] lstm1_W_xc_x_slice -> W_xc_x_1
I0925 23:14:39.540455 27221 net.cpp:141] Setting up lstm1_x_transform
I0925 23:14:39.540473 27221 net.cpp:148] Top shape: 1 1 4000 (4000)
I0925 23:14:39.540479 27221 net.cpp:156] Memory required for data: 26016
I0925 23:14:39.540493 27221 layer_factory.hpp:77] Creating layer lstm1_W_xc_x_slice
I0925 23:14:39.540503 27221 net.cpp:91] Creating Layer lstm1_W_xc_x_slice
I0925 23:14:39.540509 27221 net.cpp:425] lstm1_W_xc_x_slice <- W_xc_x
I0925 23:14:39.540518 27221 net.cpp:399] lstm1_W_xc_x_slice -> W_xc_x_1
I0925 23:14:39.551622 27215 net.cpp:141] Setting up lstm1_W_xc_x_slice
I0925 23:14:39.551708 27215 net.cpp:148] Top shape: 1 1 4000 (4000)
I0925 23:14:39.551728 27215 net.cpp:156] Memory required for data: 42016
I0925 23:14:39.551738 27239 net.cpp:141] Setting up cont_1_lstm1_cont_slice_0_split
I0925 23:14:39.551749 27215 layer_factory.hpp:77] Creating layer lstm1_h_conted_0
I0925 23:14:39.551784 27239 net.cpp:148] Top shape: 1 1 (1)
I0925 23:14:39.551795 27239 net.cpp:148] Top shape: 1 1 (1)
I0925 23:14:39.551794 27221 net.cpp:141] Setting up lstm1_W_xc_x_slice
I0925 23:14:39.551803 27239 net.cpp:156] Memory required for data: 10016
I0925 23:14:39.551825 27221 net.cpp:148] Top shape: 1 1 4000 (4000)
I0925 23:14:39.551833 27221 net.cpp:156] Memory required for data: 42016
I0925 23:14:39.551831 27225 net.cpp:141] Setting up lstm1_x_transform
I0925 23:14:39.551829 27215 net.cpp:91] Creating Layer lstm1_h_conted_0
I0925 23:14:39.551829 27239 layer_factory.hpp:77] Creating layer lstm1_x_transform
I0925 23:14:39.551841 27221 layer_factory.hpp:77] Creating layer lstm1_h_conted_0
I0925 23:14:39.551872 27225 net.cpp:148] Top shape: 1 1 4000 (4000)
I0925 23:14:39.551874 27215 net.cpp:425] lstm1_h_conted_0 <- h_0
I0925 23:14:39.551882 27225 net.cpp:156] Memory required for data: 26016
I0925 23:14:39.551889 27239 net.cpp:91] Creating Layer lstm1_x_transform
I0925 23:14:39.551877 27221 net.cpp:91] Creating Layer lstm1_h_conted_0
I0925 23:14:39.551901 27239 net.cpp:425] lstm1_x_transform <- x
I0925 23:14:39.551904 27221 net.cpp:425] lstm1_h_conted_0 <- h_0
I0925 23:14:39.551908 27225 layer_factory.hpp:77] Creating layer lstm1_W_xc_x_slice
I0925 23:14:39.551909 27215 net.cpp:425] lstm1_h_conted_0 <- cont_1_lstm1_cont_slice_0_split_0
I0925 23:14:39.551923 27239 net.cpp:399] lstm1_x_transform -> W_xc_x
I0925 23:14:39.551926 27225 net.cpp:91] Creating Layer lstm1_W_xc_x_slice
I0925 23:14:39.551916 27221 net.cpp:425] lstm1_h_conted_0 <- cont_1_lstm1_cont_slice_0_split_0
I0925 23:14:39.551936 27225 net.cpp:425] lstm1_W_xc_x_slice <- W_xc_x
I0925 23:14:39.551945 27221 net.cpp:399] lstm1_h_conted_0 -> h_conted_0
I0925 23:14:39.551950 27225 net.cpp:399] lstm1_W_xc_x_slice -> W_xc_x_1
I0925 23:14:39.551949 27215 net.cpp:399] lstm1_h_conted_0 -> h_conted_0
I0925 23:14:39.560230 27225 net.cpp:141] Setting up lstm1_W_xc_x_slice
I0925 23:14:39.560274 27225 net.cpp:148] Top shape: 1 1 4000 (4000)
I0925 23:14:39.560283 27225 net.cpp:156] Memory required for data: 42016
I0925 23:14:39.560294 27225 layer_factory.hpp:77] Creating layer lstm1_h_conted_0
I0925 23:14:39.560322 27225 net.cpp:91] Creating Layer lstm1_h_conted_0
I0925 23:14:39.560331 27225 net.cpp:425] lstm1_h_conted_0 <- h_0
I0925 23:14:39.560343 27225 net.cpp:425] lstm1_h_conted_0 <- cont_1_lstm1_cont_slice_0_split_0
I0925 23:14:39.560355 27225 net.cpp:399] lstm1_h_conted_0 -> h_conted_0
I0925 23:14:39.560503 27225 net.cpp:141] Setting up lstm1_h_conted_0
I0925 23:14:39.560518 27225 net.cpp:148] Top shape: 1 1 1000 (1000)
I0925 23:14:39.560525 27225 net.cpp:156] Memory required for data: 46016
I0925 23:14:39.560533 27225 layer_factory.hpp:77] Creating layer lstm1_transform_1
I0925 23:14:39.560549 27225 net.cpp:91] Creating Layer lstm1_transform_1
I0925 23:14:39.560557 27225 net.cpp:425] lstm1_transform_1 <- h_conted_0
I0925 23:14:39.560570 27225 net.cpp:399] lstm1_transform_1 -> W_hc_h_0
I0925 23:14:39.573884 27265 net.cpp:141] Setting up lstm1_transform_1
I0925 23:14:39.573971 27265 net.cpp:148] Top shape: 1 1 4000 (4000)
I0925 23:14:39.573982 27265 net.cpp:156] Memory required for data: 62016
I0925 23:14:39.574012 27265 layer_factory.hpp:77] Creating layer lstm1_gate_input_1
I0925 23:14:39.574044 27265 net.cpp:91] Creating Layer lstm1_gate_input_1
I0925 23:14:39.574057 27265 net.cpp:425] lstm1_gate_input_1 <- W_hc_h_0
I0925 23:14:39.574069 27265 net.cpp:425] lstm1_gate_input_1 <- W_xc_x_1
I0925 23:14:39.574085 27265 net.cpp:399] lstm1_gate_input_1 -> gate_input_1
I0925 23:14:39.580194 27265 net.cpp:141] Setting up lstm1_gate_input_1
I0925 23:14:39.580250 27265 net.cpp:148] Top shape: 1 1 4000 (4000)
I0925 23:14:39.580260 27265 net.cpp:156] Memory required for data: 78016
I0925 23:14:39.580273 27265 layer_factory.hpp:77] Creating layer lstm1_unit_1
I0925 23:14:39.580314 27265 net.cpp:91] Creating Layer lstm1_unit_1
I0925 23:14:39.580329 27265 net.cpp:425] lstm1_unit_1 <- c_0
I0925 23:14:39.580344 27265 net.cpp:425] lstm1_unit_1 <- gate_input_1
I0925 23:14:39.580354 27265 net.cpp:425] lstm1_unit_1 <- cont_1_lstm1_cont_slice_0_split_1
I0925 23:14:39.580368 27265 net.cpp:399] lstm1_unit_1 -> c_1
I0925 23:14:39.580387 27265 net.cpp:399] lstm1_unit_1 -> h_1
I0925 23:14:39.580693 27221 net.cpp:141] Setting up lstm1_h_conted_0
I0925 23:14:39.580714 27221 net.cpp:148] Top shape: 1 1 1000 (1000)
I0925 23:14:39.580724 27221 net.cpp:156] Memory required for data: 46016
I0925 23:14:39.580732 27221 layer_factory.hpp:77] Creating layer lstm1_transform_1
I0925 23:14:39.580752 27221 net.cpp:91] Creating Layer lstm1_transform_1
I0925 23:14:39.580762 27221 net.cpp:425] lstm1_transform_1 <- h_conted_0
I0925 23:14:39.580780 27221 net.cpp:399] lstm1_transform_1 -> W_hc_h_0
I0925 23:14:39.580780 27265 net.cpp:141] Setting up lstm1_unit_1
I0925 23:14:39.580799 27265 net.cpp:148] Top shape: 1 1 1000 (1000)
I0925 23:14:39.580809 27265 net.cpp:148] Top shape: 1 1 1000 (1000)
I0925 23:14:39.580816 27265 net.cpp:156] Memory required for data: 86016
I0925 23:14:39.580824 27265 layer_factory.hpp:77] Creating layer lstm1_
I0925 23:14:39.580838 27265 net.cpp:91] Creating Layer lstm1_
I0925 23:14:39.580847 27265 net.cpp:425] lstm1_ <- c_1
I0925 23:14:39.580857 27265 net.cpp:399] lstm1_ -> c_T
I0925 23:14:39.590891 27265 net.cpp:141] Setting up lstm1_
I0925 23:14:39.591341 27265 net.cpp:148] Top shape: 1 1 1000 (1000)
I0925 23:14:39.591359 27265 net.cpp:156] Memory required for data: 90016
I0925 23:14:39.591375 27265 layer_factory.hpp:77] Creating layer lstm1_h_concat
I0925 23:14:39.591401 27265 net.cpp:91] Creating Layer lstm1_h_concat
I0925 23:14:39.591413 27265 net.cpp:425] lstm1_h_concat <- h_1
I0925 23:14:39.591431 27265 net.cpp:399] lstm1_h_concat -> h
I0925 23:14:39.593540 27215 net.cpp:141] Setting up lstm1_h_conted_0
I0925 23:14:39.593576 27265 net.cpp:141] Setting up lstm1_h_concat
I0925 23:14:39.593585 27215 net.cpp:148] Top shape: 1 1 1000 (1000)
I0925 23:14:39.593591 27265 net.cpp:148] Top shape: 1 1 1000 (1000)
I0925 23:14:39.593592 27215 net.cpp:156] Memory required for data: 46016
I0925 23:14:39.593605 27265 net.cpp:156] Memory required for data: 94016
I0925 23:14:39.593612 27215 layer_factory.hpp:77] Creating layer lstm1_transform_1
I0925 23:14:39.593614 27265 layer_factory.hpp:77] Creating layer h_pseudoloss
I0925 23:14:39.593628 27257 net.cpp:141] Setting up lstm1_transform_1
I0925 23:14:39.593641 27265 net.cpp:91] Creating Layer h_pseudoloss
I0925 23:14:39.593641 27215 net.cpp:91] Creating Layer lstm1_transform_1
I0925 23:14:39.593652 27257 net.cpp:148] Top shape: 1 1 4000 (4000)
I0925 23:14:39.593655 27265 net.cpp:425] h_pseudoloss <- h
I0925 23:14:39.593658 27215 net.cpp:425] lstm1_transform_1 <- h_conted_0
I0925 23:14:39.593660 27257 net.cpp:156] Memory required for data: 62016
I0925 23:14:39.593672 27265 net.cpp:399] h_pseudoloss -> h_pseudoloss
I0925 23:14:39.593672 27215 net.cpp:399] lstm1_transform_1 -> W_hc_h_0
I0925 23:14:39.593685 27257 layer_factory.hpp:77] Creating layer lstm1_gate_input_1
I0925 23:14:39.593713 27257 net.cpp:91] Creating Layer lstm1_gate_input_1
I0925 23:14:39.593725 27257 net.cpp:425] lstm1_gate_input_1 <- W_hc_h_0
I0925 23:14:39.593737 27257 net.cpp:425] lstm1_gate_input_1 <- W_xc_x_1
I0925 23:14:39.593751 27257 net.cpp:399] lstm1_gate_input_1 -> gate_input_1
I0925 23:14:39.606268 27257 net.cpp:141] Setting up lstm1_gate_input_1
I0925 23:14:39.606873 27257 net.cpp:148] Top shape: 1 1 4000 (4000)
I0925 23:14:39.607028 27257 net.cpp:156] Memory required for data: 78016
I0925 23:14:39.607259 27257 layer_factory.hpp:77] Creating layer lstm1_unit_1
I0925 23:14:39.607954 27269 net.cpp:141] Setting up embedding
I0925 23:14:39.608064 27257 net.cpp:91] Creating Layer lstm1_unit_1
I0925 23:14:39.608451 27257 net.cpp:425] lstm1_unit_1 <- c_0
I0925 23:14:39.608471 27257 net.cpp:425] lstm1_unit_1 <- gate_input_1
I0925 23:14:39.608485 27257 net.cpp:425] lstm1_unit_1 <- cont_1_lstm1_cont_slice_0_split_1
I0925 23:14:39.608508 27257 net.cpp:399] lstm1_unit_1 -> c_1
I0925 23:14:39.608530 27257 net.cpp:399] lstm1_unit_1 -> h_1
I0925 23:14:39.608644 27239 net.cpp:141] Setting up lstm1_x_transform
I0925 23:14:39.608669 27239 net.cpp:148] Top shape: 1 1 4000 (4000)
I0925 23:14:39.608676 27239 net.cpp:156] Memory required for data: 26016
I0925 23:14:39.608698 27239 layer_factory.hpp:77] Creating layer lstm1_W_xc_x_slice
I0925 23:14:39.608716 27239 net.cpp:91] Creating Layer lstm1_W_xc_x_slice
I0925 23:14:39.608723 27239 net.cpp:425] lstm1_W_xc_x_slice <- W_xc_x
I0925 23:14:39.608731 27257 net.cpp:141] Setting up lstm1_unit_1
I0925 23:14:39.608747 27265 net.cpp:141] Setting up h_pseudoloss
I0925 23:14:39.608767 27265 net.cpp:148] Top shape: (1)
I0925 23:14:39.608816 27239 net.cpp:399] lstm1_W_xc_x_slice -> W_xc_x_1
I0925 23:14:39.608774 27265 net.cpp:151]     with loss weight 1
I0925 23:14:39.608886 27265 net.cpp:156] Memory required for data: 94020
I0925 23:14:39.608896 27265 net.cpp:217] h_pseudoloss needs backward computation.
I0925 23:14:39.608904 27265 net.cpp:217] lstm1_h_concat needs backward computation.
I0925 23:14:39.608912 27265 net.cpp:219] lstm1_ does not need backward computation.
I0925 23:14:39.608921 27265 net.cpp:217] lstm1_unit_1 needs backward computation.
I0925 23:14:39.608930 27265 net.cpp:217] lstm1_gate_input_1 needs backward computation.
I0925 23:14:39.608939 27265 net.cpp:217] lstm1_transform_1 needs backward computation.
I0925 23:14:39.608949 27265 net.cpp:219] lstm1_h_conted_0 does not need backward computation.
I0925 23:14:39.608748 27257 net.cpp:148] Top shape: 1 1 1000 (1000)
I0925 23:14:39.608973 27257 net.cpp:148] Top shape: 1 1 1000 (1000)
I0925 23:14:39.608979 27257 net.cpp:156] Memory required for data: 86016
I0925 23:14:39.608989 27257 layer_factory.hpp:77] Creating layer lstm1_
I0925 23:14:39.609000 27257 net.cpp:91] Creating Layer lstm1_
I0925 23:14:39.609001 27265 net.cpp:217] lstm1_W_xc_x_slice needs backward computation.
I0925 23:14:39.609009 27257 net.cpp:425] lstm1_ <- c_1
I0925 23:14:39.609016 27265 net.cpp:217] lstm1_x_transform needs backward computation.
I0925 23:14:39.609019 27257 net.cpp:399] lstm1_ -> c_T
I0925 23:14:39.609022 27265 net.cpp:219] cont_1_lstm1_cont_slice_0_split does not need backward computation.
I0925 23:14:39.609030 27265 net.cpp:219] lstm1_cont_slice does not need backward computation.
I0925 23:14:39.609037 27265 net.cpp:219] lstm1_ does not need backward computation.
I0925 23:14:39.609041 27265 net.cpp:219] lstm1_ does not need backward computation.
I0925 23:14:39.609045 27265 net.cpp:261] This network produces output c_T
I0925 23:14:39.609051 27265 net.cpp:261] This network produces output h_pseudoloss
I0925 23:14:39.609076 27265 net.cpp:274] Network initialization done.
I0925 23:14:39.609148 27265 recurrent_layer.cpp:150] Adding parameter 0: W_xc
I0925 23:14:39.609158 27265 recurrent_layer.cpp:150] Adding parameter 1: b_c
I0925 23:14:39.609163 27265 recurrent_layer.cpp:150] Adding parameter 2: W_hc
I0925 23:14:39.608436 27269 net.cpp:148] Top shape: 1 1 500 (500)
I0925 23:14:39.609351 27269 net.cpp:156] Memory required for data: 22408
I0925 23:14:39.609374 27269 layer_factory.hpp:77] Creating layer lstm1
I0925 23:14:39.609428 27269 net.cpp:91] Creating Layer lstm1
I0925 23:14:39.609441 27269 net.cpp:425] lstm1 <- embedded_input_frames
I0925 23:14:39.609452 27269 net.cpp:425] lstm1 <- cont_sentence_input_1_split_0
I0925 23:14:39.609486 27269 net.cpp:399] lstm1 -> lstm1
I0925 23:14:39.609503 27269 recurrent_layer.cpp:20] Initializing recurrent layer: assuming input batch contains 1 timesteps of 1 independent streams.
I0925 23:14:39.610028 27269 net.cpp:49] Initializing net from parameters: 
layer {
  name: "lstm1_"
  type: "Input"
  top: "x"
  top: "cont"
  input_param {
    shape {
      dim: 1
      dim: 1
      dim: 500
    }
    shape {
      dim: 1
      dim: 1
    }
  }
}
layer {
  name: "lstm1_"
  type: "Input"
  top: "c_0"
  top: "h_0"
  input_param {
    shape {
      dim: 1
      dim: 1
      dim: 1000
    }
    shape {
      dim: 1
      dim: 1
      dim: 1000
    }
  }
}
layer {
  name: "lstm1_cont_slice"
  type: "Slice"
  bottom: "cont"
  top: "cont_1"
  slice_param {
    axis: 0
  }
}
layer {
  name: "lstm1_x_transform"
  type: "InnerProduct"
  bottom: "x"
  top: "W_xc_x"
  param {
    name: "W_xc"
  }
  param {
    name: "b_c"
  }
  propagate_down: true
  inner_product_param {
    num_output: 4000
    bias_term: true
    weight_filler {
      type: "uniform"
      min: -0.08
      max: 0.08
    }
    bias_filler {
      type: "constant"
      value: 0
    }
    axis: 2
  }
}
layer {
  name: "lstm1_W_xc_x_slice"
  type: "Slice"
  bottom: "W_xc_x"
  top: "W_xc_x_1"
  slice_param {
    axis: 0
  }
}
layer {
  name: "lstm1_h_conted_0"
  type: "Scale"
  bottom: "h_0"
  bottom: "cont_1"
  top: "h_conted_0"
  scale_param {
    axis: 0
  }
}
layer {
  name: "lstm1_transform_1"
  type: "InnerProduct"
  bottom: "h_conted_0"
  top: "W_hc_h_0"
  param {
    name: "W_hc"
  }
  inner_product_param {
    num_output: 4000
    bias_term: false
    weight_filler {
      type: "uniform"
      min: -0.08
      max: 0.08
    }
    axis: 2
  }
}
layer {
  name: "lstm1_gate_input_1"
  type: "Eltwise"
  bottom: "W_hc_h_0"
  bottom: "W_xc_x_1"
  top: "gate_input_1"
  eltwise_param {
    operation: SUM
  }
}
layer {
  name: "lstm1_unit_1"
  type: "LSTMUnit"
  bottom: "c_0"
  bottom: "gate_input_1"
  bottom: "cont_1"
  top: "c_1"
  top: "h_1"
}
layer {
  name: "lstm1_"
  type: "Split"
  bottom: "c_1"
  top: "c_T"
}
layer {
  name: "lstm1_h_concat"
  type: "Concat"
  bottom: "h_1"
  top: "h"
  concat_param {
    axis: 0
  }
}
layer {
  name: "h_pseudoloss"
  type: "Reduction"
  bottom: "h"
  top: "h_pseudoloss"
  loss_weight: 1
}
I0925 23:14:39.610112 27239 net.cpp:141] Setting up lstm1_W_xc_x_slice
I0925 23:14:39.610124 27239 net.cpp:148] Top shape: 1 1 4000 (4000)
I0925 23:14:39.610129 27239 net.cpp:156] Memory required for data: 42016
I0925 23:14:39.610136 27239 layer_factory.hpp:77] Creating layer lstm1_h_conted_0
I0925 23:14:39.610146 27239 net.cpp:91] Creating Layer lstm1_h_conted_0
I0925 23:14:39.610152 27239 net.cpp:425] lstm1_h_conted_0 <- h_0
I0925 23:14:39.610160 27239 net.cpp:425] lstm1_h_conted_0 <- cont_1_lstm1_cont_slice_0_split_0
I0925 23:14:39.610168 27239 net.cpp:399] lstm1_h_conted_0 -> h_conted_0
I0925 23:14:39.610182 27269 layer_factory.hpp:77] Creating layer lstm1_
I0925 23:14:39.610200 27269 net.cpp:91] Creating Layer lstm1_
I0925 23:14:39.610209 27269 net.cpp:399] lstm1_ -> x
I0925 23:14:39.610225 27269 net.cpp:399] lstm1_ -> cont
I0925 23:14:39.610285 27239 net.cpp:141] Setting up lstm1_h_conted_0
I0925 23:14:39.610301 27239 net.cpp:148] Top shape: 1 1 1000 (1000)
I0925 23:14:39.610309 27239 net.cpp:156] Memory required for data: 46016
I0925 23:14:39.610318 27239 layer_factory.hpp:77] Creating layer lstm1_transform_1
I0925 23:14:39.610334 27239 net.cpp:91] Creating Layer lstm1_transform_1
I0925 23:14:39.610344 27239 net.cpp:425] lstm1_transform_1 <- h_conted_0
I0925 23:14:39.610369 27239 net.cpp:399] lstm1_transform_1 -> W_hc_h_0
I0925 23:14:39.610440 27269 net.cpp:141] Setting up lstm1_
I0925 23:14:39.610460 27269 net.cpp:148] Top shape: 1 1 500 (500)
I0925 23:14:39.610471 27269 net.cpp:148] Top shape: 1 1 (1)
I0925 23:14:39.610477 27265 net.cpp:141] Setting up lstm1
I0925 23:14:39.610478 27269 net.cpp:156] Memory required for data: 2004
I0925 23:14:39.610507 27269 layer_factory.hpp:77] Creating layer lstm1_
I0925 23:14:39.610507 27265 net.cpp:148] Top shape: 1 1 1000 (1000)
I0925 23:14:39.610527 27269 net.cpp:91] Creating Layer lstm1_
I0925 23:14:39.610528 27265 net.cpp:156] Memory required for data: 26408
I0925 23:14:39.610563 27265 layer_factory.hpp:77] Creating layer concat
I0925 23:14:39.610564 27269 net.cpp:399] lstm1_ -> c_0
I0925 23:14:39.610587 27265 net.cpp:91] Creating Layer concat
I0925 23:14:39.610608 27269 net.cpp:399] lstm1_ -> h_0
I0925 23:14:39.610610 27265 net.cpp:425] concat <- lstm1
I0925 23:14:39.610633 27265 net.cpp:425] concat <- embedded_input_sentence
I0925 23:14:39.610644 27265 net.cpp:425] concat <- reshaped_stage_indicator
I0925 23:14:39.610658 27265 net.cpp:399] concat -> lstm1_video_sequence
I0925 23:14:39.618072 27257 net.cpp:141] Setting up lstm1_
I0925 23:14:39.618119 27257 net.cpp:148] Top shape: 1 1 1000 (1000)
I0925 23:14:39.618127 27257 net.cpp:156] Memory required for data: 90016
I0925 23:14:39.618140 27257 layer_factory.hpp:77] Creating layer lstm1_h_concat
I0925 23:14:39.618162 27257 net.cpp:91] Creating Layer lstm1_h_concat
I0925 23:14:39.618172 27257 net.cpp:425] lstm1_h_concat <- h_1
I0925 23:14:39.618190 27257 net.cpp:399] lstm1_h_concat -> h
I0925 23:14:39.618198 27265 net.cpp:141] Setting up concat
I0925 23:14:39.618232 27265 net.cpp:148] Top shape: 1 1 1501 (1501)
I0925 23:14:39.618230 27225 net.cpp:141] Setting up lstm1_transform_1
I0925 23:14:39.618255 27265 net.cpp:156] Memory required for data: 32412
I0925 23:14:39.618266 27257 net.cpp:141] Setting up lstm1_h_concat
I0925 23:14:39.618273 27225 net.cpp:148] Top shape: 1 1 4000 (4000)
I0925 23:14:39.618283 27225 net.cpp:156] Memory required for data: 62016
I0925 23:14:39.618280 27257 net.cpp:148] Top shape: 1 1 1000 (1000)
I0925 23:14:39.618306 27225 layer_factory.hpp:77] Creating layer lstm1_gate_input_1
I0925 23:14:39.618273 27265 layer_factory.hpp:77] Creating layer lstm2
I0925 23:14:39.618321 27257 net.cpp:156] Memory required for data: 94016
I0925 23:14:39.618340 27225 net.cpp:91] Creating Layer lstm1_gate_input_1
I0925 23:14:39.618348 27257 layer_factory.hpp:77] Creating layer h_pseudoloss
I0925 23:14:39.618351 27225 net.cpp:425] lstm1_gate_input_1 <- W_hc_h_0
I0925 23:14:39.618362 27225 net.cpp:425] lstm1_gate_input_1 <- W_xc_x_1
I0925 23:14:39.618365 27257 net.cpp:91] Creating Layer h_pseudoloss
I0925 23:14:39.618367 27265 net.cpp:91] Creating Layer lstm2
I0925 23:14:39.618371 27269 net.cpp:141] Setting up lstm1_
I0925 23:14:39.618373 27257 net.cpp:425] h_pseudoloss <- h
I0925 23:14:39.618374 27225 net.cpp:399] lstm1_gate_input_1 -> gate_input_1
I0925 23:14:39.618401 27265 net.cpp:425] lstm2 <- lstm1_video_sequence
I0925 23:14:39.618413 27269 net.cpp:148] Top shape: 1 1 1000 (1000)
I0925 23:14:39.618405 27257 net.cpp:399] h_pseudoloss -> h_pseudoloss
I0925 23:14:39.618422 27269 net.cpp:148] Top shape: 1 1 1000 (1000)
I0925 23:14:39.618428 27269 net.cpp:156] Memory required for data: 10004
I0925 23:14:39.618430 27265 net.cpp:425] lstm2 <- cont_sentence_input_1_split_1
I0925 23:14:39.618438 27269 layer_factory.hpp:77] Creating layer lstm1_cont_slice
I0925 23:14:39.618464 27265 net.cpp:399] lstm2 -> lstm2
I0925 23:14:39.618472 27269 net.cpp:91] Creating Layer lstm1_cont_slice
I0925 23:14:39.618494 27269 net.cpp:425] lstm1_cont_slice <- cont
I0925 23:14:39.618507 27265 recurrent_layer.cpp:20] Initializing recurrent layer: assuming input batch contains 1 timesteps of 1 independent streams.
I0925 23:14:39.618507 27269 net.cpp:399] lstm1_cont_slice -> cont_1
I0925 23:14:39.619302 27265 net.cpp:49] Initializing net from parameters: 
layer {
  name: "lstm2_"
  type: "Input"
  top: "x"
  top: "cont"
  input_param {
    shape {
      dim: 1
      dim: 1
      dim: 1501
    }
    shape {
      dim: 1
      dim: 1
    }
  }
}
layer {
  name: "lstm2_"
  type: "Input"
  top: "c_0"
  top: "h_0"
  input_param {
    shape {
      dim: 1
      dim: 1
      dim: 1000
    }
    shape {
      dim: 1
      dim: 1
      dim: 1000
    }
  }
}
layer {
  name: "lstm2_cont_slice"
  type: "Slice"
  bottom: "cont"
  top: "cont_1"
  slice_param {
    axis: 0
  }
}
layer {
  name: "lstm2_x_transform"
  type: "InnerProduct"
  bottom: "x"
  top: "W_xc_x"
  param {
    name: "W_xc"
  }
  param {
    name: "b_c"
  }
  propagate_down: true
  inner_product_param {
    num_output: 4000
    bias_term: true
    weight_filler {
      type: "uniform"
      min: -0.08
      max: 0.08
    }
    bias_filler {
      type: "constant"
      value: 0
    }
    axis: 2
  }
}
layer {
  name: "lstm2_W_xc_x_slice"
  type: "Slice"
  bottom: "W_xc_x"
  top: "W_xc_x_1"
  slice_param {
    axis: 0
  }
}
layer {
  name: "lstm2_h_conted_0"
  type: "Scale"
  bottom: "h_0"
  bottom: "cont_1"
  top: "h_conted_0"
  scale_param {
    axis: 0
  }
}
layer {
  name: "lstm2_transform_1"
  type: "InnerProduct"
  bottom: "h_conted_0"
  top: "W_hc_h_0"
  param {
    name: "W_hc"
  }
  inner_product_param {
    num_output: 4000
    bias_term: false
    weight_filler {
      type: "uniform"
      min: -0.08
      max: 0.08
    }
    axis: 2
  }
}
layer {
  name: "lstm2_gate_input_1"
  type: "Eltwise"
  bottom: "W_hc_h_0"
  bottom: "W_xc_x_1"
  top: "gate_input_1"
  eltwise_param {
    operation: SUM
  }
}
layer {
  name: "lstm2_unit_1"
  type: "LSTMUnit"
  bottom: "c_0"
  bottom: "gate_input_1"
  bottom: "cont_1"
  top: "c_1"
  top: "h_1"
}
layer {
  name: "lstm2_"
  type: "Split"
  bottom: "c_1"
  top: "c_T"
}
layer {
  name: "lstm2_h_concat"
  type: "Concat"
  bottom: "h_1"
  top: "h"
  concat_param {
    axis: 0
  }
}
layer {
  name: "h_pseudoloss"
  type: "Reduction"
  bottom: "h"
  top: "h_pseudoloss"
  loss_weight: 1
}
I0925 23:14:39.621405 27265 layer_factory.hpp:77] Creating layer lstm2_
I0925 23:14:39.621449 27265 net.cpp:91] Creating Layer lstm2_
I0925 23:14:39.621460 27265 net.cpp:399] lstm2_ -> x
I0925 23:14:39.621486 27265 net.cpp:399] lstm2_ -> cont
I0925 23:14:39.629345 27225 net.cpp:141] Setting up lstm1_gate_input_1
I0925 23:14:39.629395 27225 net.cpp:148] Top shape: 1 1 4000 (4000)
I0925 23:14:39.629400 27225 net.cpp:156] Memory required for data: 78016
I0925 23:14:39.629410 27225 layer_factory.hpp:77] Creating layer lstm1_unit_1
I0925 23:14:39.629427 27225 net.cpp:91] Creating Layer lstm1_unit_1
I0925 23:14:39.629434 27225 net.cpp:425] lstm1_unit_1 <- c_0
I0925 23:14:39.629448 27225 net.cpp:425] lstm1_unit_1 <- gate_input_1
I0925 23:14:39.629459 27225 net.cpp:425] lstm1_unit_1 <- cont_1_lstm1_cont_slice_0_split_1
…
I0925 23:14:39.629566 27257 net.cpp:217] lstm1_transform_1 needs backward computation.
I0925 23:14:39.629575 27257 net.cpp:219] lstm1_h_conted_0 does not need backward computation.
I0925 23:14:39.629583 27257 net.cpp:217] lstm1_W_xc_x_slice needs backward computation.
I0925 23:14:39.629592 27257 net.cpp:217] lstm1_x_transform needs backward computation.
I0925 23:14:39.629601 27257 net.cpp:219] cont_1_lstm1_cont_slice_0_split does not need backward computation.
I0925 23:14:39.629603 27225 net.cpp:141] Setting up lstm1_unit_1
I0925 23:14:39.629614 27257 net.cpp:219] lstm1_cont_slice does not need backward computation.
I0925 23:14:39.629621 27225 net.cpp:148] Top shape: 1 1 1000 (1000)
I0925 23:14:39.629626 27257 net.cpp:219] lstm1_ does not need backward computation.
I0925 23:14:39.629631 27225 net.cpp:148] Top shape: 1 1 1000 (1000)
I0925 23:14:39.629649 27225 net.cpp:156] Memory required for data: 86016
I0925 23:14:39.629659 27225 layer_factory.hpp:77] Creating layer lstm1_
I0925 23:14:39.629678 27225 net.cpp:91] Creating Layer lstm1_
I0925 23:14:39.629686 27225 net.cpp:425] lstm1_ <- c_1
I0925 23:14:39.629698 27225 net.cpp:399] lstm1_ -> c_T
I0925 23:14:39.629632 27257 net.cpp:219] lstm1_ does not need backward computation.
I0925 23:14:39.629747 27257 net.cpp:261] This network produces output c_T
I0925 23:14:39.629756 27225 net.cpp:141] Setting up lstm1_
I0925 23:14:39.629760 27257 net.cpp:261] This network produces output h_pseudoloss
I0925 23:14:39.629760 27269 net.cpp:141] Setting up lstm1_cont_slice
I0925 23:14:39.629793 27257 net.cpp:274] Network initialization done.
I0925 23:14:39.629776 27225 net.cpp:148] Top shape: 1 1 1000 (1000)
I0925 23:14:39.629808 27225 net.cpp:156] Memory required for data: 90016
I0925 23:14:39.629817 27225 layer_factory.hpp:77] Creating layer lstm1_h_concat
I0925 23:14:39.629817 27269 net.cpp:148] Top shape: 1 1 (1)
I0925 23:14:39.629838 27225 net.cpp:91] Creating Layer lstm1_h_concat
I0925 23:14:39.629842 27269 net.cpp:156] Memory required for data: 10008
I0925 23:14:39.629848 27225 net.cpp:425] lstm1_h_concat <- h_1
I0925 23:14:39.629856 27269 layer_factory.hpp:77] Creating layer cont_1_lstm1_cont_slice_0_split
I0925 23:14:39.629865 27225 net.cpp:399] lstm1_h_concat -> h
I0925 23:14:39.629873 27257 recurrent_layer.cpp:150] Adding parameter 0: W_xc
I0925 23:14:39.629883 27269 net.cpp:91] Creating Layer cont_1_lstm1_cont_slice_0_split
I0925 23:14:39.629884 27257 recurrent_layer.cpp:150] Adding parameter 1: b_c
I0925 23:14:39.629899 27269 net.cpp:425] cont_1_lstm1_cont_slice_0_split <- cont_1
I0925 23:14:39.629905 27257 recurrent_layer.cpp:150] Adding parameter 2: W_hc
I0925 23:14:39.629917 27269 net.cpp:399] cont_1_lstm1_cont_slice_0_split -> cont_1_lstm1_cont_slice_0_split_0
I0925 23:14:39.629919 27225 net.cpp:141] Setting up lstm1_h_concat
I0925 23:14:39.629935 27225 net.cpp:148] Top shape: 1 1 1000 (1000)
I0925 23:14:39.629938 27269 net.cpp:399] cont_1_lstm1_cont_slice_0_split -> cont_1_lstm1_cont_slice_0_split_1
I0925 23:14:39.629942 27225 net.cpp:156] Memory required for data: 94016
I0925 23:14:39.629951 27225 layer_factory.hpp:77] Creating layer h_pseudoloss
I0925 23:14:39.629964 27225 net.cpp:91] Creating Layer h_pseudoloss
I0925 23:14:39.629972 27225 net.cpp:425] h_pseudoloss <- h
I0925 23:14:39.629984 27225 net.cpp:399] h_pseudoloss -> h_pseudoloss
I0925 23:14:39.630115 27225 net.cpp:141] Setting up h_pseudoloss
I0925 23:14:39.630129 27225 net.cpp:148] Top shape: (1)
I0925 23:14:39.630137 27225 net.cpp:151]     with loss weight 1
I0925 23:14:39.630151 27225 net.cpp:156] Memory required for data: 94020
I0925 23:14:39.630156 27257 net.cpp:141] Setting up lstm1
I0925 23:14:39.630177 27257 net.cpp:148] Top shape: 1 1 1000 (1000)
I0925 23:14:39.630185 27257 net.cpp:156] Memory required for data: 26408
I0925 23:14:39.630208 27257 layer_factory.hpp:77] Creating layer concat
I0925 23:14:39.630220 27221 net.cpp:141] Setting up lstm1_transform_1
I0925 23:14:39.630223 27257 net.cpp:91] Creating Layer concat
I0925 23:14:39.630239 27221 net.cpp:148] Top shape: 1 1 4000 (4000)
I0925 23:14:39.630244 27257 net.cpp:425] concat <- lstm1
I0925 23:14:39.630247 27221 net.cpp:156] Memory required for data: 62016
I0925 23:14:39.630254 27257 net.cpp:425] concat <- embedded_input_sentence
I0925 23:14:39.630264 27257 net.cpp:425] concat <- reshaped_stage_indicator
I0925 23:14:39.630157 27225 net.cpp:217] h_pseudoloss needs backward computation.
I0925 23:14:39.630280 27225 net.cpp:217] lstm1_h_concat needs backward computation.
I0925 23:14:39.630282 27257 net.cpp:399] concat -> lstm1_video_sequence
I0925 23:14:39.630288 27225 net.cpp:219] lstm1_ does not need backward computation.
I0925 23:14:39.630296 27225 net.cpp:217] lstm1_unit_1 needs backward computation.
I0925 23:14:39.630306 27225 net.cpp:217] lstm1_gate_input_1 needs backward computation.
I0925 23:14:39.630314 27225 net.cpp:217] lstm1_transform_1 needs backward computation.
I0925 23:14:39.630323 27225 net.cpp:219] lstm1_h_conted_0 does not need backward computation.
I0925 23:14:39.630332 27225 net.cpp:217] lstm1_W_xc_x_slice needs backward computation.
I0925 23:14:39.630336 27257 net.cpp:141] Setting up concat
I0925 23:14:39.630342 27225 net.cpp:217] lstm1_x_transform needs backward computation.
I0925 23:14:39.630355 27257 net.cpp:148] Top shape: 1 1 1501 (1501)
I0925 23:14:39.630359 27225 net.cpp:219] cont_1_lstm1_cont_slice_0_split does not need backward computation.
I0925 23:14:39.630363 27257 net.cpp:156] Memory required for data: 32412
I0925 23:14:39.630369 27225 net.cpp:219] lstm1_cont_slice does not need backward computation.
I0925 23:14:39.630373 27257 layer_factory.hpp:77] Creating layer lstm2
I0925 23:14:39.630378 27225 net.cpp:219] lstm1_ does not need backward computation.
…
I0925 23:14:39.630625 27221 net.cpp:399] lstm1_gate_input_1 -> gate_input_1
I0925 23:14:39.630851 27257 net.cpp:49] Initializing net from parameters: 
layer {
  name: "lstm2_"
  type: "Input"
  top: "x"
  top: "cont"
  input_param {
    shape {
      dim: 1
      dim: 1
      dim: 1501
    }
    shape {
      dim: 1
      dim: 1
    }
  }
}
layer {
  name: "lstm2_"
  type: "Input"
  top: "c_0"
  top: "h_0"
  input_param {
    shape {
      dim: 1
      dim: 1
      dim: 1000
    }
    shape {
      dim: 1
      dim: 1
      dim: 1000
    }
  }
}
layer {
  name: "lstm2_cont_slice"
  type: "Slice"
  bottom: "cont"
  top: "cont_1"
  slice_param {
    axis: 0
  }
}
layer {
  name: "lstm2_x_transform"
  type: "InnerProduct"
  bottom: "x"
  top: "W_xc_x"
  param {
    name: "W_xc"
  }
  param {
    name: "b_c"
  }
  propagate_down: true
  inner_product_param {
    num_output: 4000
    bias_term: true
    weight_filler {
      type: "uniform"
      min: -0.08
      max: 0.08
    }
    bias_filler {
      type: "constant"
      value: 0
    }
    axis: 2
  }
}
layer {
  name: "lstm2_W_xc_x_slice"
  type: "Slice"
  bottom: "W_xc_x"
  top: "W_xc_x_1"
  slice_param {
    axis: 0
  }
}
layer {
  name: "lstm2_h_conted_0"
  type: "Scale"
  bottom: "h_0"
  bottom: "cont_1"
  top: "h_conted_0"
  scale_param {
    axis: 0
  }
}
layer {
  name: "lstm2_transform_1"
  type: "InnerProduct"
  bottom: "h_conted_0"
  top: "W_hc_h_0"
  param {
    name: "W_hc"
  }
  inner_product_param {
    num_output: 4000
    bias_term: false
    weight_filler {
      type: "uniform"
      min: -0.08
      max: 0.08
    }
    axis: 2
  }
}
layer {
  name: "lstm2_gate_input_1"
  type: "Eltwise"
  bottom: "W_hc_h_0"
  bottom: "W_xc_x_1"
  top: "gate_input_1"
  eltwise_param {
    operation: SUM
  }
}
layer {
  name: "lstm2_unit_1"
  type: "LSTMUnit"
  bottom: "c_0"
  bottom: "gate_input_1"
  bottom: "cont_1"
  top: "c_1"
  top: "h_1"
}
layer {
  name: "lstm2_"
  type: "Split"
  bottom: "c_1"
  top: "c_T"
}
layer {
  name: "lstm2_h_concat"
  type: "Concat"
  bottom: "h_1"
  top: "h"
  concat_param {
    axis: 0
  }
}
layer {
  name: "h_pseudoloss"
  type: "Reduction"
  bottom: "h"
  top: "h_pseudoloss"
  loss_weight: 1
}
I0925 23:14:39.630985 27257 layer_factory.hpp:77] Creating layer lstm2_
I0925 23:14:39.631000 27257 net.cpp:91] Creating Layer lstm2_
I0925 23:14:39.631009 27257 net.cpp:399] lstm2_ -> x
I0925 23:14:39.631026 27257 net.cpp:399] lstm2_ -> cont
I0925 23:14:39.672679 27221 net.cpp:141] Setting up lstm1_gate_input_1
I0925 23:14:39.672736 27221 net.cpp:148] Top shape: 1 1 4000 (4000)
I0925 23:14:39.672749 27221 net.cpp:156] Memory required for data: 78016
I0925 23:14:39.672763 27221 layer_factory.hpp:77] Creating layer lstm1_unit_1
I0925 23:14:39.672786 27221 net.cpp:91] Creating Layer lstm1_unit_1
I0925 23:14:39.672796 27221 net.cpp:425] lstm1_unit_1 <- c_0
I0925 23:14:39.672801 27215 net.cpp:141] Setting up lstm1_transform_1
I0925 23:14:39.672806 27221 net.cpp:425] lstm1_unit_1 <- gate_input_1
I0925 23:14:39.672821 27215 net.cpp:148] Top shape: 1 1 4000 (4000)
I0925 23:14:39.672822 27221 net.cpp:425] lstm1_unit_1 <- cont_1_lstm1_cont_slice_0_split_1
I0925 23:14:39.672829 27215 net.cpp:156] Memory required for data: 62016
I0925 23:14:39.672837 27221 net.cpp:399] lstm1_unit_1 -> c_1
I0925 23:14:39.672847 27215 layer_factory.hpp:77] Creating layer lstm1_gate_input_1
I0925 23:14:39.672857 27221 net.cpp:399] lstm1_unit_1 -> h_1
I0925 23:14:39.672864 27215 net.cpp:91] Creating Layer lstm1_gate_input_1
I0925 23:14:39.672871 27215 net.cpp:425] lstm1_gate_input_1 <- W_hc_h_0
I0925 23:14:39.672879 27215 net.cpp:425] lstm1_gate_input_1 <- W_xc_x_1
I0925 23:14:39.672888 27215 net.cpp:399] lstm1_gate_input_1 -> gate_input_1
I0925 23:14:39.672938 27215 net.cpp:141] Setting up lstm1_gate_input_1
I0925 23:14:39.672930 27239 net.cpp:141] Setting up lstm1_transform_1
I0925 23:14:39.672930 27233 net.cpp:141] Setting up embedding
I0925 23:14:39.672963 27239 net.cpp:148] Top shape: 1 1 4000 (4000)
I0925 23:14:39.672950 27215 net.cpp:148] Top shape: 1 1 4000 (4000)
I0925 23:14:39.672971 27239 net.cpp:156] Memory required for data: 62016
I0925 23:14:39.672976 27215 net.cpp:156] Memory required for data: 78016
I0925 23:14:39.672982 27215 layer_factory.hpp:77] Creating layer lstm1_unit_1
I0925 23:14:39.672983 27239 layer_factory.hpp:77] Creating layer lstm1_gate_input_1
I0925 23:14:39.672986 27233 net.cpp:148] Top shape: 1 1 500 (500)
I0925 23:14:39.672991 27215 net.cpp:91] Creating Layer lstm1_unit_1
I0925 23:14:39.672997 27215 net.cpp:425] lstm1_unit_1 <- c_0
I0925 23:14:39.673001 27239 net.cpp:91] Creating Layer lstm1_gate_input_1
I0925 23:14:39.673004 27257 net.cpp:141] Setting up lstm2_
I0925 23:14:39.672996 27233 net.cpp:156] Memory required for data: 22408
I0925 23:14:39.673008 27239 net.cpp:425] lstm1_gate_input_1 <- W_hc_h_0
I0925 23:14:39.673010 27215 net.cpp:425] lstm1_unit_1 <- gate_input_1
I0925 23:14:39.673027 27257 net.cpp:148] Top shape: 1 1 1501 (1501)
I0925 23:14:39.673032 27215 net.cpp:425] lstm1_unit_1 <- cont_1_lstm1_cont_slice_0_split_1
I0925 23:14:39.673029 27239 net.cpp:425] lstm1_gate_input_1 <- W_xc_x_1
I0925 23:14:39.673040 27215 net.cpp:399] lstm1_unit_1 -> c_1
I0925 23:14:39.673039 27265 net.cpp:141] Setting up lstm2_
I0925 23:14:39.673044 27257 net.cpp:148] Top shape: 1 1 (1)
I0925 23:14:39.673050 27215 net.cpp:399] lstm1_unit_1 -> h_1
I0925 23:14:39.673055 27265 net.cpp:148] Top shape: 1 1 1501 (1501)
I0925 23:14:39.673044 27233 layer_factory.hpp:77] Creating layer lstm1
I0925 23:14:39.673058 27257 net.cpp:156] Memory required for data: 6008
I0925 23:14:39.673048 27239 net.cpp:399] lstm1_gate_input_1 -> gate_input_1
I0925 23:14:39.673070 27265 net.cpp:148] Top shape: 1 1 (1)
I0925 23:14:39.673071 27257 layer_factory.hpp:77] Creating layer lstm2_
I0925 23:14:39.673084 27265 net.cpp:156] Memory required for data: 6008
I0925 23:14:39.673087 27233 net.cpp:91] Creating Layer lstm1
I0925 23:14:39.673094 27265 layer_factory.hpp:77] Creating layer lstm2_
I0925 23:14:39.673100 27257 net.cpp:91] Creating Layer lstm2_
I0925 23:14:39.673104 27233 net.cpp:425] lstm1 <- embedded_input_frames
I0925 23:14:39.673117 27233 net.cpp:425] lstm1 <- cont_sentence_input_1_split_0
I0925 23:14:39.673117 27265 net.cpp:91] Creating Layer lstm2_
I0925 23:14:39.673117 27257 net.cpp:399] lstm2_ -> c_0
I0925 23:14:39.673131 27233 net.cpp:399] lstm1 -> lstm1
I0925 23:14:39.673136 27215 net.cpp:141] Setting up lstm1_unit_1
I0925 23:14:39.673141 27265 net.cpp:399] lstm2_ -> c_0
I0925 23:14:39.673148 27215 net.cpp:148] Top shape: 1 1 1000 (1000)
I0925 23:14:39.673151 27257 net.cpp:399] lstm2_ -> h_0
I0925 23:14:39.673154 27215 net.cpp:148] Top shape: 1 1 1000 (1000)
I0925 23:14:39.673156 27233 recurrent_layer.cpp:20] Initializing recurrent layer: assuming input batch contains 1 timesteps of 1 independent streams.
I0925 23:14:39.673161 27215 net.cpp:156] Memory required for data: 86016
I0925 23:14:39.673158 27265 net.cpp:399] lstm2_ -> h_0
I0925 23:14:39.673182 27215 layer_factory.hpp:77] Creating layer lstm1_
I0925 23:14:39.673198 27239 net.cpp:141] Setting up lstm1_gate_input_1
I0925 23:14:39.673200 27215 net.cpp:91] Creating Layer lstm1_
I0925 23:14:39.673213 27239 net.cpp:148] Top shape: 1 1 4000 (4000)
I0925 23:14:39.673213 27215 net.cpp:425] lstm1_ <- c_1
I0925 23:14:39.673218 27239 net.cpp:156] Memory required for data: 78016
I0925 23:14:39.673221 27215 net.cpp:399] lstm1_ -> c_T
I0925 23:14:39.673223 27239 layer_factory.hpp:77] Creating layer lstm1_unit_1
I0925 23:14:39.673233 27239 net.cpp:91] Creating Layer lstm1_unit_1
I0925 23:14:39.673238 27239 net.cpp:425] lstm1_unit_1 <- c_0
I0925 23:14:39.673243 27239 net.cpp:425] lstm1_unit_1 <- gate_input_1
I0925 23:14:39.673249 27239 net.cpp:425] lstm1_unit_1 <- cont_1_lstm1_cont_slice_0_split_1
I0925 23:14:39.673260 27239 net.cpp:399] lstm1_unit_1 -> c_1
I0925 23:14:39.673270 27239 net.cpp:399] lstm1_unit_1 -> h_1
I0925 23:14:39.673270 27269 net.cpp:141] Setting up cont_1_lstm1_cont_slice_0_split
I0925 23:14:39.673290 27269 net.cpp:148] Top shape: 1 1 (1)
I0925 23:14:39.673296 27269 net.cpp:148] Top shape: 1 1 (1)
I0925 23:14:39.673301 27269 net.cpp:156] Memory required for data: 10016
I0925 23:14:39.673307 27269 layer_factory.hpp:77] Creating layer lstm1_x_transform
I0925 23:14:39.673310 27225 net.cpp:141] Setting up lstm1
I0925 23:14:39.673323 27269 net.cpp:91] Creating Layer lstm1_x_transform
I0925 23:14:39.673328 27225 net.cpp:148] Top shape: 1 1 1000 (1000)
I0925 23:14:39.673331 27269 net.cpp:425] lstm1_x_transform <- x
I0925 23:14:39.673334 27225 net.cpp:156] Memory required for data: 26408
I0925 23:14:39.673343 27269 net.cpp:399] lstm1_x_transform -> W_xc_x
I0925 23:14:39.673346 27221 net.cpp:141] Setting up lstm1_unit_1
I0925 23:14:39.673352 27225 layer_factory.hpp:77] Creating layer concat
I0925 23:14:39.673359 27221 net.cpp:148] Top shape: 1 1 1000 (1000)
I0925 23:14:39.673363 27225 net.cpp:91] Creating Layer concat
I0925 23:14:39.673365 27221 net.cpp:148] Top shape: 1 1 1000 (1000)
I0925 23:14:39.673370 27225 net.cpp:425] concat <- lstm1
I0925 23:14:39.673372 27221 net.cpp:156] Memory required for data: 86016
I0925 23:14:39.673378 27225 net.cpp:425] concat <- embedded_input_sentence
I0925 23:14:39.673382 27221 layer_factory.hpp:77] Creating layer lstm1_
I0925 23:14:39.673384 27225 net.cpp:425] concat <- reshaped_stage_indicator
I0925 23:14:39.673400 27221 net.cpp:91] Creating Layer lstm1_
I0925 23:14:39.673403 27225 net.cpp:399] concat -> lstm1_video_sequence
I0925 23:14:39.673413 27221 net.cpp:425] lstm1_ <- c_1
I0925 23:14:39.673426 27221 net.cpp:399] lstm1_ -> c_T
I0925 23:14:39.673454 27265 net.cpp:141] Setting up lstm2_
I0925 23:14:39.673477 27265 net.cpp:148] Top shape: 1 1 1000 (1000)
I0925 23:14:39.673480 27221 net.cpp:141] Setting up lstm1_
I0925 23:14:39.673490 27265 net.cpp:148] Top shape: 1 1 1000 (1000)
I0925 23:14:39.673491 27221 net.cpp:148] Top shape: 1 1 1000 (1000)
I0925 23:14:39.673497 27265 net.cpp:156] Memory required for data: 14008
I0925 23:14:39.673498 27221 net.cpp:156] Memory required for data: 90016
I0925 23:14:39.673511 27265 layer_factory.hpp:77] Creating layer lstm2_cont_slice
I0925 23:14:39.673521 27221 layer_factory.hpp:77] Creating layer lstm1_h_concat
I0925 23:14:39.673527 27265 net.cpp:91] Creating Layer lstm2_cont_slice
I0925 23:14:39.673533 27221 net.cpp:91] Creating Layer lstm1_h_concat
I0925 23:14:39.673537 27265 net.cpp:425] lstm2_cont_slice <- cont
I0925 23:14:39.673543 27221 net.cpp:425] lstm1_h_concat <- h_1
I0925 23:14:39.673543 27233 net.cpp:49] Initializing net from parameters: 
layer {
  name: "lstm1_"
  type: "Input"
  top: "x"
  top: "cont"
  input_param {
    shape {
      dim: 1
      dim: 1
      dim: 500
    }
    shape {
      dim: 1
      dim: 1
    }
  }
}
layer {
  name: "lstm1_"
  type: "Input"
  top: "c_0"
  top: "h_0"
  input_param {
    shape {
      dim: 1
      dim: 1
      dim: 1000
    }
    shape {
      dim: 1
      dim: 1
      dim: 1000
    }
  }
}
layer {
  name: "lstm1_cont_slice"
  type: "Slice"
  bottom: "cont"
  top: "cont_1"
  slice_param {
    axis: 0
  }
}
layer {
  name: "lstm1_x_transform"
  type: "InnerProduct"
  bottom: "x"
  top: "W_xc_x"
  param {
    name: "W_xc"
  }
  param {
    name: "b_c"
  }
  propagate_down: true
  inner_product_param {
    num_output: 4000
    bias_term: true
    weight_filler {
      type: "uniform"
      min: -0.08
      max: 0.08
    }
    bias_filler {
      type: "constant"
      value: 0
    }
    axis: 2
  }
}
layer {
  name: "lstm1_W_xc_x_slice"
  type: "Slice"
  bottom: "W_xc_x"
  top: "W_xc_x_1"
  slice_param {
    axis: 0
  }
}
layer {
  name: "lstm1_h_conted_0"
  type: "Scale"
  bottom: "h_0"
  bottom: "cont_1"
  top: "h_conted_0"
  scale_param {
    axis: 0
  }
}
layer {
  name: "lstm1_transform_1"
  type: "InnerProduct"
  bottom: "h_conted_0"
  top: "W_hc_h_0"
  param {
    name: "W_hc"
  }
  inner_product_param {
    num_output: 4000
    bias_term: false
    weight_filler {
      type: "uniform"
      min: -0.08
      max: 0.08
    }
    axis: 2
  }
}
layer {
  name: "lstm1_gate_input_1"
  type: "Eltwise"
  bottom: "W_hc_h_0"
  bottom: "W_xc_x_1"
  top: "gate_input_1"
  eltwise_param {
    operation: SUM
  }
}
layer {
  name: "lstm1_unit_1"
  type: "LSTMUnit"
  bottom: "c_0"
  bottom: "gate_input_1"
  bottom: "cont_1"
  top: "c_1"
  top: "h_1"
}
layer {
  name: "lstm1_"
  type: "Split"
  bottom: "c_1"
  top: "c_T"
}
layer {
  name: "lstm1_h_concat"
  type: "Concat"
  bottom: "h_1"
  top: "h"
  concat_param {
    axis: 0
  }
}
layer {
  name: "h_pseudoloss"
  type: "Reduction"
  bottom: "h"
  top: "h_pseudoloss"
  loss_weight: 1
}
I0925 23:14:39.673558 27221 net.cpp:399] lstm1_h_concat -> h
I0925 23:14:39.673550 27239 net.cpp:141] Setting up lstm1_unit_1
I0925 23:14:39.673576 27225 net.cpp:141] Setting up concat
I0925 23:14:39.673548 27265 net.cpp:399] lstm2_cont_slice -> cont_1
I0925 23:14:39.673591 27225 net.cpp:148] Top shape: 1 1 1501 (1501)
I0925 23:14:39.673596 27225 net.cpp:156] Memory required for data: 32412
I0925 23:14:39.673601 27225 layer_factory.hpp:77] Creating layer lstm2
I0925 23:14:39.673614 27225 net.cpp:91] Creating Layer lstm2
I0925 23:14:39.673622 27225 net.cpp:425] lstm2 <- lstm1_video_sequence
I0925 23:14:39.673626 27215 net.cpp:141] Setting up lstm1_
I0925 23:14:39.673635 27225 net.cpp:425] lstm2 <- cont_sentence_input_1_split_1
I0925 23:14:39.673637 27215 net.cpp:148] Top shape: 1 1 1000 (1000)
I0925 23:14:39.673643 27215 net.cpp:156] Memory required for data: 90016
I0925 23:14:39.673648 27215 layer_factory.hpp:77] Creating layer lstm1_h_concat
I0925 23:14:39.673648 27225 net.cpp:399] lstm2 -> lstm2
I0925 23:14:39.673662 27215 net.cpp:91] Creating Layer lstm1_h_concat
I0925 23:14:39.673667 27215 net.cpp:425] lstm1_h_concat <- h_1
I0925 23:14:39.673671 27225 recurrent_layer.cpp:20] Initializing recurrent layer: assuming input batch contains 1 timesteps of 1 independent streams.
I0925 23:14:39.673679 27215 net.cpp:399] lstm1_h_concat -> h
I0925 23:14:39.673679 27233 layer_factory.hpp:77] Creating layer lstm1_
I0925 23:14:39.673588 27239 net.cpp:148] Top shape: 1 1 1000 (1000)
I0925 23:14:39.673697 27233 net.cpp:91] Creating Layer lstm1_
I0925 23:14:39.673703 27239 net.cpp:148] Top shape: 1 1 1000 (1000)
I0925 23:14:39.673709 27239 net.cpp:156] Memory required for data: 86016
I0925 23:14:39.673722 27239 layer_factory.hpp:77] Creating layer lstm1_
I0925 23:14:39.673708 27233 net.cpp:399] lstm1_ -> x
I0925 23:14:39.673728 27239 net.cpp:91] Creating Layer lstm1_
I0925 23:14:39.673733 27239 net.cpp:425] lstm1_ <- c_1
I0925 23:14:39.673740 27239 net.cpp:399] lstm1_ -> c_T
I0925 23:14:39.673743 27233 net.cpp:399] lstm1_ -> cont
I0925 23:14:39.673940 27225 net.cpp:49] Initializing net from parameters: 
layer {
  name: "lstm2_"
  type: "Input"
  top: "x"
  top: "cont"
  input_param {
    shape {
      dim: 1
      dim: 1
      dim: 1501
    }
    shape {
      dim: 1
      dim: 1
    }
  }
}
layer {
  name: "lstm2_"
  type: "Input"
  top: "c_0"
  top: "h_0"
  input_param {
    shape {
      dim: 1
      dim: 1
      dim: 1000
    }
    shape {
      dim: 1
      dim: 1
      dim: 1000
    }
  }
}
layer {
  name: "lstm2_cont_slice"
  type: "Slice"
  bottom: "cont"
  top: "cont_1"
  slice_param {
    axis: 0
  }
}
layer {
  name: "lstm2_x_transform"
  type: "InnerProduct"
  bottom: "x"
  top: "W_xc_x"
  param {
    name: "W_xc"
  }
  param {
    name: "b_c"
  }
  propagate_down: true
  inner_product_param {
    num_output: 4000
    bias_term: true
    weight_filler {
      type: "uniform"
      min: -0.08
      max: 0.08
    }
    bias_filler {
      type: "constant"
      value: 0
    }
    axis: 2
  }
}
layer {
  name: "lstm2_W_xc_x_slice"
  type: "Slice"
  bottom: "W_xc_x"
  top: "W_xc_x_1"
  slice_param {
    axis: 0
  }
}
layer {
  name: "lstm2_h_conted_0"
  type: "Scale"
  bottom: "h_0"
  bottom: "cont_1"
  top: "h_conted_0"
  scale_param {
    axis: 0
  }
}
layer {
  name: "lstm2_transform_1"
  type: "InnerProduct"
  bottom: "h_conted_0"
  top: "W_hc_h_0"
  param {
    name: "W_hc"
  }
  inner_product_param {
    num_output: 4000
    bias_term: false
    weight_filler {
      type: "uniform"
      min: -0.08
      max: 0.08
    }
    axis: 2
  }
}
layer {
  name: "lstm2_gate_input_1"
  type: "Eltwise"
  bottom: "W_hc_h_0"
  bottom: "W_xc_x_1"
  top: "gate_input_1"
  eltwise_param {
    operation: SUM
  }
}
layer {
  name: "lstm2_unit_1"
  type: "LSTMUnit"
  bottom: "c_0"
  bottom: "gate_input_1"
  bottom: "cont_1"
  top: "c_1"
  top: "h_1"
}
layer {
  name: "lstm2_"
  type: "Split"
  bottom: "c_1"
  top: "c_T"
}
layer {
  name: "lstm2_h_concat"
  type: "Concat"
  bottom: "h_1"
  top: "h"
  concat_param {
    axis: 0
  }
}
layer {
  name: "h_pseudoloss"
  type: "Reduction"
  bottom: "h"
  top: "h_pseudoloss"
  loss_weight: 1
}
I0925 23:14:39.674028 27225 layer_factory.hpp:77] Creating layer lstm2_
I0925 23:14:39.674039 27225 net.cpp:91] Creating Layer lstm2_
I0925 23:14:39.674047 27225 net.cpp:399] lstm2_ -> x
I0925 23:14:39.674058 27225 net.cpp:399] lstm2_ -> cont
I0925 23:14:39.677857 27221 net.cpp:141] Setting up lstm1_h_concat
I0925 23:14:39.677870 27221 net.cpp:148] Top shape: 1 1 1000 (1000)
I0925 23:14:39.677875 27221 net.cpp:156] Memory required for data: 94016
I0925 23:14:39.677881 27221 layer_factory.hpp:77] Creating layer h_pseudoloss
I0925 23:14:39.677897 27221 net.cpp:91] Creating Layer h_pseudoloss
I0925 23:14:39.677907 27221 net.cpp:425] h_pseudoloss <- h
I0925 23:14:39.677919 27221 net.cpp:399] h_pseudoloss -> h_pseudoloss
I0925 23:14:39.677940 27265 net.cpp:141] Setting up lstm2_cont_slice
I0925 23:14:39.677958 27265 net.cpp:148] Top shape: 1 1 (1)
I0925 23:14:39.677964 27265 net.cpp:156] Memory required for data: 14012
I0925 23:14:39.677969 27265 layer_factory.hpp:77] Creating layer cont_1_lstm2_cont_slice_0_split
I0925 23:14:39.677983 27265 net.cpp:91] Creating Layer cont_1_lstm2_cont_slice_0_split
I0925 23:14:39.677980 27257 net.cpp:141] Setting up lstm2_
I0925 23:14:39.677989 27265 net.cpp:425] cont_1_lstm2_cont_slice_0_split <- cont_1
I0925 23:14:39.677995 27257 net.cpp:148] Top shape: 1 1 1000 (1000)
I0925 23:14:39.677996 27265 net.cpp:399] cont_1_lstm2_cont_slice_0_split -> cont_1_lstm2_cont_slice_0_split_0
I0925 23:14:39.678014 27257 net.cpp:148] Top shape: 1 1 1000 (1000)
I0925 23:14:39.678019 27257 net.cpp:156] Memory required for data: 14008
I0925 23:14:39.678022 27265 net.cpp:399] cont_1_lstm2_cont_slice_0_split -> cont_1_lstm2_cont_slice_0_split_1
I0925 23:14:39.678023 27257 layer_factory.hpp:77] Creating layer lstm2_cont_slice
I0925 23:14:39.678041 27257 net.cpp:91] Creating Layer lstm2_cont_slice
I0925 23:14:39.678047 27257 net.cpp:425] lstm2_cont_slice <- cont
I0925 23:14:39.678045 27215 net.cpp:141] Setting up lstm1_h_concat
I0925 23:14:39.678056 27257 net.cpp:399] lstm2_cont_slice -> cont_1
I0925 23:14:39.678069 27215 net.cpp:148] Top shape: 1 1 1000 (1000)
I0925 23:14:39.678076 27215 net.cpp:156] Memory required for data: 94016
I0925 23:14:39.678081 27215 layer_factory.hpp:77] Creating layer h_pseudoloss
I0925 23:14:39.678091 27215 net.cpp:91] Creating Layer h_pseudoloss
I0925 23:14:39.678091 27265 net.cpp:141] Setting up cont_1_lstm2_cont_slice_0_split
I0925 23:14:39.678097 27215 net.cpp:425] h_pseudoloss <- h
I0925 23:14:39.678102 27265 net.cpp:148] Top shape: 1 1 (1)
I0925 23:14:39.678104 27215 net.cpp:399] h_pseudoloss -> h_pseudoloss
I0925 23:14:39.678108 27265 net.cpp:148] Top shape: 1 1 (1)
I0925 23:14:39.678112 27265 net.cpp:156] Memory required for data: 14020
I0925 23:14:39.678117 27265 layer_factory.hpp:77] Creating layer lstm2_x_transform
I0925 23:14:39.678131 27265 net.cpp:91] Creating Layer lstm2_x_transform
I0925 23:14:39.678136 27265 net.cpp:425] lstm2_x_transform <- x
I0925 23:14:39.678144 27265 net.cpp:399] lstm2_x_transform -> W_xc_x
I0925 23:14:39.678215 27215 net.cpp:141] Setting up h_pseudoloss
I0925 23:14:39.678227 27215 net.cpp:148] Top shape: (1)
I0925 23:14:39.678231 27215 net.cpp:151]     with loss weight 1
I0925 23:14:39.678242 27257 net.cpp:141] Setting up lstm2_cont_slice
I0925 23:14:39.678244 27215 net.cpp:156] Memory required for data: 94020
I0925 23:14:39.678258 27257 net.cpp:148] Top shape: 1 1 (1)
I0925 23:14:39.678261 27215 net.cpp:217] h_pseudoloss needs backward computation.
I0925 23:14:39.678263 27257 net.cpp:156] Memory required for data: 14012
I0925 23:14:39.678266 27215 net.cpp:217] lstm1_h_concat needs backward computation.
I0925 23:14:39.678269 27257 layer_factory.hpp:77] Creating layer cont_1_lstm2_cont_slice_0_split
I0925 23:14:39.678270 27215 net.cpp:219] lstm1_ does not need backward computation.
…
I0925 23:14:39.678344 27215 net.cpp:219] lstm1_ does not need backward computation.
I0925 23:14:39.678347 27215 net.cpp:261] This network produces output c_T
I0925 23:14:39.678351 27215 net.cpp:261] This network produces output h_pseudoloss
I0925 23:14:39.678367 27215 net.cpp:274] Network initialization done.
I0925 23:14:39.678411 27215 recurrent_layer.cpp:150] Adding parameter 0: W_xc
I0925 23:14:39.678416 27215 recurrent_layer.cpp:150] Adding parameter 1: b_c
I0925 23:14:39.678421 27215 recurrent_layer.cpp:150] Adding parameter 2: W_hc
I0925 23:14:39.678421 27225 net.cpp:141] Setting up lstm2_
I0925 23:14:39.678434 27225 net.cpp:148] Top shape: 1 1 1501 (1501)
I0925 23:14:39.678442 27225 net.cpp:148] Top shape: 1 1 (1)
I0925 23:14:39.678445 27225 net.cpp:156] Memory required for data: 6008
I0925 23:14:39.678450 27225 layer_factory.hpp:77] Creating layer lstm2_
I0925 23:14:39.678460 27225 net.cpp:91] Creating Layer lstm2_
I0925 23:14:39.678469 27225 net.cpp:399] lstm2_ -> c_0
I0925 23:14:39.678480 27225 net.cpp:399] lstm2_ -> h_0
I0925 23:14:39.678550 27225 net.cpp:141] Setting up lstm2_
I0925 23:14:39.678561 27225 net.cpp:148] Top shape: 1 1 1000 (1000)
I0925 23:14:39.678567 27225 net.cpp:148] Top shape: 1 1 1000 (1000)
I0925 23:14:39.678571 27225 net.cpp:156] Memory required for data: 14008
I0925 23:14:39.678576 27225 layer_factory.hpp:77] Creating layer lstm2_cont_slice
I0925 23:14:39.678584 27225 net.cpp:91] Creating Layer lstm2_cont_slice
I0925 23:14:39.678589 27225 net.cpp:425] lstm2_cont_slice <- cont
I0925 23:14:39.678608 27225 net.cpp:399] lstm2_cont_slice -> cont_1
I0925 23:14:39.678674 27233 net.cpp:141] Setting up lstm1_
I0925 23:14:39.678719 27233 net.cpp:148] Top shape: 1 1 500 (500)
I0925 23:14:39.678726 27233 net.cpp:148] Top shape: 1 1 (1)
I0925 23:14:39.678731 27233 net.cpp:156] Memory required for data: 2004
I0925 23:14:39.678741 27233 layer_factory.hpp:77] Creating layer lstm1_
I0925 23:14:39.678763 27233 net.cpp:91] Creating Layer lstm1_
I0925 23:14:39.678855 27233 net.cpp:399] lstm1_ -> c_0
I0925 23:14:39.678890 27233 net.cpp:399] lstm1_ -> h_0
I0925 23:14:39.690093 27225 net.cpp:141] Setting up lstm2_cont_slice
I0925 23:14:39.690143 27225 net.cpp:148] Top shape: 1 1 (1)
I0925 23:14:39.690151 27225 net.cpp:156] Memory required for data: 14012
I0925 23:14:39.690160 27225 layer_factory.hpp:77] Creating layer cont_1_lstm2_cont_slice_0_split
I0925 23:14:39.690182 27225 net.cpp:91] Creating Layer cont_1_lstm2_cont_slice_0_split
I0925 23:14:39.690189 27225 net.cpp:425] cont_1_lstm2_cont_slice_0_split <- cont_1
I0925 23:14:39.690201 27225 net.cpp:399] cont_1_lstm2_cont_slice_0_split -> cont_1_lstm2_cont_slice_0_split_0
I0925 23:14:39.690214 27225 net.cpp:399] cont_1_lstm2_cont_slice_0_split -> cont_1_lstm2_cont_slice_0_split_1
I0925 23:14:39.690306 27215 net.cpp:141] Setting up lstm1
I0925 23:14:39.690328 27215 net.cpp:148] Top shape: 1 1 1000 (1000)
I0925 23:14:39.690336 27215 net.cpp:156] Memory required for data: 26408
I0925 23:14:39.690363 27215 layer_factory.hpp:77] Creating layer concat
I0925 23:14:39.690412 27215 net.cpp:91] Creating Layer concat
I0925 23:14:39.690423 27215 net.cpp:425] concat <- lstm1
I0925 23:14:39.690434 27215 net.cpp:425] concat <- embedded_input_sentence
I0925 23:14:39.690445 27215 net.cpp:425] concat <- reshaped_stage_indicator
I0925 23:14:39.690456 27215 net.cpp:399] concat -> lstm1_video_sequence
I0925 23:14:39.690481 27257 net.cpp:141] Setting up cont_1_lstm2_cont_slice_0_split
I0925 23:14:39.690502 27257 net.cpp:148] Top shape: 1 1 (1)
I0925 23:14:39.690512 27257 net.cpp:148] Top shape: 1 1 (1)
I0925 23:14:39.690521 27257 net.cpp:156] Memory required for data: 14020
I0925 23:14:39.690529 27257 layer_factory.hpp:77] Creating layer lstm2_x_transform
I0925 23:14:39.690531 27239 net.cpp:141] Setting up lstm1_
I0925 23:14:39.690547 27239 net.cpp:148] Top shape: 1 1 1000 (1000)
I0925 23:14:39.690556 27257 net.cpp:91] Creating Layer lstm2_x_transform
I0925 23:14:39.690556 27239 net.cpp:156] Memory required for data: 90016
I0925 23:14:39.690579 27257 net.cpp:425] lstm2_x_transform <- x
I0925 23:14:39.690582 27239 layer_factory.hpp:77] Creating layer lstm1_h_concat
I0925 23:14:39.690613 27239 net.cpp:91] Creating Layer lstm1_h_concat
I0925 23:14:39.690613 27257 net.cpp:399] lstm2_x_transform -> W_xc_x
I0925 23:14:39.690639 27239 net.cpp:425] lstm1_h_concat <- h_1
I0925 23:14:39.690655 27239 net.cpp:399] lstm1_h_concat -> h
I0925 23:14:39.690665 27221 net.cpp:141] Setting up h_pseudoloss
I0925 23:14:39.690726 27221 net.cpp:148] Top shape: (1)
I0925 23:14:39.690735 27233 net.cpp:141] Setting up lstm1_
I0925 23:14:39.690744 27221 net.cpp:151]     with loss weight 1
I0925 23:14:39.690781 27233 net.cpp:148] Top shape: 1 1 1000 (1000)
I0925 23:14:39.690783 27221 net.cpp:156] Memory required for data: 94020
I0925 23:14:39.690793 27233 net.cpp:148] Top shape: 1 1 1000 (1000)
I0925 23:14:39.690803 27233 net.cpp:156] Memory required for data: 10004
I0925 23:14:39.690803 27221 net.cpp:217] h_pseudoloss needs backward computation.
I0925 23:14:39.690815 27233 layer_factory.hpp:77] Creating layer lstm1_cont_slice
I0925 23:14:39.690822 27221 net.cpp:217] lstm1_h_concat needs backward computation.
I0925 23:14:39.690840 27215 net.cpp:141] Setting up concat
I0925 23:14:39.690846 27233 net.cpp:91] Creating Layer lstm1_cont_slice
I0925 23:14:39.690860 27233 net.cpp:425] lstm1_cont_slice <- cont
I0925 23:14:39.690842 27221 net.cpp:219] lstm1_ does not need backward computation.
I0925 23:14:39.690876 27233 net.cpp:399] lstm1_cont_slice -> cont_1
I0925 23:14:39.690878 27215 net.cpp:148] Top shape: 1 1 1501 (1501)
I0925 23:14:39.690888 27221 net.cpp:217] lstm1_unit_1 needs backward computation.
I0925 23:14:39.690888 27215 net.cpp:156] Memory required for data: 32412
I0925 23:14:39.690927 27215 layer_factory.hpp:77] Creating layer lstm2
I0925 23:14:39.690929 27221 net.cpp:217] lstm1_gate_input_1 needs backward computation.
I0925 23:14:39.690948 27221 net.cpp:217] lstm1_transform_1 needs backward computation.
…
…
I0925 23:14:39.971593 27239 net.cpp:141] Setting up lstm2_h_conted_0
I0925 23:14:39.971612 27239 net.cpp:148] Top shape: 1 1 1000 (1000)
I0925 23:14:39.971621 27239 net.cpp:156] Memory required for data: 50020
I0925 23:14:39.971629 27239 layer_factory.hpp:77] Creating layer lstm2_transform_1
I0925 23:14:39.971647 27239 net.cpp:91] Creating Layer lstm2_transform_1
I0925 23:14:39.971657 27239 net.cpp:425] lstm2_transform_1 <- h_conted_0
I0925 23:14:39.971658 27225 net.cpp:141] Setting up h_pseudoloss
I0925 23:14:39.971673 27225 net.cpp:148] Top shape: (1)
…
I0925 23:14:39.971807 27225 net.cpp:219] lstm2_ does not need backward computation.
I0925 23:14:39.971812 27225 net.cpp:261] This network produces output c_T
I0925 23:14:39.971817 27225 net.cpp:261] This network produces output h_pseudoloss
I0925 23:14:39.971837 27225 net.cpp:274] Network initialization done.
I0925 23:14:39.971884 27225 recurrent_layer.cpp:150] Adding parameter 0: W_xc
I0925 23:14:39.971889 27225 recurrent_layer.cpp:150] Adding parameter 1: b_c
I0925 23:14:39.971894 27225 recurrent_layer.cpp:150] Adding parameter 2: W_hc
I0925 23:14:40.055830 27215 net.cpp:141] Setting up lstm2_
I0925 23:14:40.055862 27215 net.cpp:148] Top shape: 1 1 1000 (1000)
I0925 23:14:40.055868 27215 net.cpp:156] Memory required for data: 94020
I0925 23:14:40.055874 27215 layer_factory.hpp:77] Creating layer lstm2_h_concat
I0925 23:14:40.055883 27215 net.cpp:91] Creating Layer lstm2_h_concat
I0925 23:14:40.055889 27215 net.cpp:425] lstm2_h_concat <- h_1
I0925 23:14:40.055901 27215 net.cpp:399] lstm2_h_concat -> h
I0925 23:14:40.081516 27221 net.cpp:141] Setting up lstm2_h_concat
I0925 23:14:40.081567 27221 net.cpp:148] Top shape: 1 1 1000 (1000)
I0925 23:14:40.081573 27221 net.cpp:156] Memory required for data: 98020
I0925 23:14:40.081583 27221 layer_factory.hpp:77] Creating layer h_pseudoloss
I0925 23:14:40.081601 27221 net.cpp:91] Creating Layer h_pseudoloss
I0925 23:14:40.081609 27221 net.cpp:425] h_pseudoloss <- h
I0925 23:14:40.081621 27221 net.cpp:399] h_pseudoloss -> h_pseudoloss
I0925 23:14:40.089782 27215 net.cpp:141] Setting up lstm2_h_concat
I0925 23:14:40.089836 27215 net.cpp:148] Top shape: 1 1 1000 (1000)
I0925 23:14:40.089843 27215 net.cpp:156] Memory required for data: 98020
I0925 23:14:40.089850 27215 layer_factory.hpp:77] Creating layer h_pseudoloss
I0925 23:14:40.089884 27215 net.cpp:91] Creating Layer h_pseudoloss
I0925 23:14:40.089891 27215 net.cpp:425] h_pseudoloss <- h
I0925 23:14:40.089905 27215 net.cpp:399] h_pseudoloss -> h_pseudoloss
I0925 23:14:40.090090 27269 net.cpp:141] Setting up lstm1
I0925 23:14:40.090108 27269 net.cpp:148] Top shape: 1 1 1000 (1000)
I0925 23:14:40.090113 27269 net.cpp:156] Memory required for data: 26408
I0925 23:14:40.090131 27269 layer_factory.hpp:77] Creating layer concat
I0925 23:14:40.090142 27269 net.cpp:91] Creating Layer concat
I0925 23:14:40.090149 27269 net.cpp:425] concat <- lstm1
I0925 23:14:40.090157 27269 net.cpp:425] concat <- embedded_input_sentence
I0925 23:14:40.090162 27269 net.cpp:425] concat <- reshaped_stage_indicator
I0925 23:14:40.090169 27269 net.cpp:399] concat -> lstm1_video_sequence
I0925 23:14:40.090188 27215 net.cpp:141] Setting up h_pseudoloss
I0925 23:14:40.090201 27215 net.cpp:148] Top shape: (1)
I0925 23:14:40.090217 27269 net.cpp:141] Setting up concat
I0925 23:14:40.090206 27215 net.cpp:151]     with loss weight 1
I0925 23:14:40.090227 27269 net.cpp:148] Top shape: 1 1 1501 (1501)
I0925 23:14:40.090229 27215 net.cpp:156] Memory required for data: 98024
I0925 23:14:40.090232 27269 net.cpp:156] Memory required for data: 32412
I0925 23:14:40.090236 27215 net.cpp:217] h_pseudoloss needs backward computation.
I0925 23:14:40.090239 27269 layer_factory.hpp:77] Creating layer lstm2
I0925 23:14:40.090241 27215 net.cpp:217] lstm2_h_concat needs backward computation.
I0925 23:14:40.090246 27215 net.cpp:219] lstm2_ does not need backward computation.
…
I0925 23:14:40.090555 27221 net.cpp:261] This network produces output h_pseudoloss
I0925 23:14:40.090558 27225 net.cpp:91] Creating Layer predict
I0925 23:14:40.090569 27269 net.cpp:49] Initializing net from parameters: 
layer {
  name: "lstm2_"
  type: "Input"
  top: "x"
  top: "cont"
  input_param {
    shape {
      dim: 1
      dim: 1
      dim: 1501
    }
    shape {
      dim: 1
      dim: 1
    }
  }
}
layer {
  name: "lstm2_"
  type: "Input"
  top: "c_0"
  top: "h_0"
  input_param {
    shape {
      dim: 1
      dim: 1
      dim: 1000
    }
    shape {
      dim: 1
      dim: 1
      dim: 1000
    }
  }
}
layer {
  name: "lstm2_cont_slice"
  type: "Slice"
  bottom: "cont"
  top: "cont_1"
  slice_param {
    axis: 0
  }
}
layer {
  name: "lstm2_x_transform"
  type: "InnerProduct"
  bottom: "x"
  top: "W_xc_x"
  param {
    name: "W_xc"
  }
  param {
    name: "b_c"
  }
  propagate_down: true
  inner_product_param {
    num_output: 4000
    bias_term: true
    weight_filler {
      type: "uniform"
      min: -0.08
      max: 0.08
    }
    bias_filler {
      type: "constant"
      value: 0
    }
    axis: 2
  }
}
layer {
  name: "lstm2_W_xc_x_slice"
  type: "Slice"
  bottom: "W_xc_x"
  top: "W_xc_x_1"
  slice_param {
    axis: 0
  }
}
layer {
  name: "lstm2_h_conted_0"
  type: "Scale"
  bottom: "h_0"
  bottom: "cont_1"
  top: "h_conted_0"
  scale_param {
    axis: 0
  }
}
layer {
  name: "lstm2_transform_1"
  type: "InnerProduct"
  bottom: "h_conted_0"
  top: "W_hc_h_0"
  param {
    name: "W_hc"
  }
  inner_product_param {
    num_output: 4000
    bias_term: false
    weight_filler {
      type: "uniform"
      min: -0.08
      max: 0.08
    }
    axis: 2
  }
}
layer {
  name: "lstm2_gate_input_1"
  type: "Eltwise"
  bottom: "W_hc_h_0"
  bottom: "W_xc_x_1"
  top: "gate_input_1"
  eltwise_param {
    operation: SUM
  }
}
layer {
  name: "lstm2_unit_1"
  type: "LSTMUnit"
  bottom: "c_0"
  bottom: "gate_input_1"
  bottom: "cont_1"
  top: "c_1"
  top: "h_1"
}
layer {
  name: "lstm2_"
  type: "Split"
  bottom: "c_1"
  top: "c_T"
}
layer {
  name: "lstm2_h_concat"
  type: "Concat"
  bottom: "h_1"
  top: "h"
  concat_param {
    axis: 0
  }
}
layer {
  name: "h_pseudoloss"
  type: "Reduction"
  bottom: "h"
  top: "h_pseudoloss"
  loss_weight: 1
}
I0925 23:14:40.090576 27225 net.cpp:425] predict <- lstm2
I0925 23:14:40.090580 27221 net.cpp:274] Network initialization done.
I0925 23:14:40.090627 27225 net.cpp:399] predict -> predict
I0925 23:14:40.090658 27221 recurrent_layer.cpp:150] Adding parameter 0: W_xc
I0925 23:14:40.090667 27221 recurrent_layer.cpp:150] Adding parameter 1: b_c
I0925 23:14:40.090672 27221 recurrent_layer.cpp:150] Adding parameter 2: W_hc
I0925 23:14:40.090675 27269 layer_factory.hpp:77] Creating layer lstm2_
I0925 23:14:40.090688 27269 net.cpp:91] Creating Layer lstm2_
I0925 23:14:40.090694 27269 net.cpp:399] lstm2_ -> x
I0925 23:14:40.090705 27269 net.cpp:399] lstm2_ -> cont
I0925 23:14:40.100558 27221 net.cpp:141] Setting up lstm2
I0925 23:14:40.100599 27221 net.cpp:148] Top shape: 1 1 1000 (1000)
I0925 23:14:40.100607 27221 net.cpp:156] Memory required for data: 36412
I0925 23:14:40.100630 27221 layer_factory.hpp:77] Creating layer predict
I0925 23:14:40.100648 27221 net.cpp:91] Creating Layer predict
I0925 23:14:40.100658 27221 net.cpp:425] predict <- lstm2
I0925 23:14:40.100673 27221 net.cpp:399] predict -> predict
I0925 23:14:40.100690 27215 net.cpp:141] Setting up lstm2
I0925 23:14:40.100714 27215 net.cpp:148] Top shape: 1 1 1000 (1000)
I0925 23:14:40.100714 27269 net.cpp:141] Setting up lstm2_
I0925 23:14:40.100720 27215 net.cpp:156] Memory required for data: 36412
I0925 23:14:40.100728 27269 net.cpp:148] Top shape: 1 1 1501 (1501)
I0925 23:14:40.100735 27269 net.cpp:148] Top shape: 1 1 (1)
I0925 23:14:40.100739 27215 layer_factory.hpp:77] Creating layer predict
I0925 23:14:40.100739 27269 net.cpp:156] Memory required for data: 6008
I0925 23:14:40.100754 27269 layer_factory.hpp:77] Creating layer lstm2_
I0925 23:14:40.100756 27215 net.cpp:91] Creating Layer predict
I0925 23:14:40.100764 27215 net.cpp:425] predict <- lstm2
I0925 23:14:40.100765 27269 net.cpp:91] Creating Layer lstm2_
I0925 23:14:40.100772 27215 net.cpp:399] predict -> predict
I0925 23:14:40.100774 27269 net.cpp:399] lstm2_ -> c_0
I0925 23:14:40.100795 27269 net.cpp:399] lstm2_ -> h_0
I0925 23:14:40.274703 27219 net.cpp:141] Setting up lstm2_x_transform
I0925 23:14:40.274758 27219 net.cpp:148] Top shape: 1 1 4000 (4000)
I0925 23:14:40.274765 27219 net.cpp:156] Memory required for data: 30020
I0925 23:14:40.274785 27219 layer_factory.hpp:77] Creating layer lstm2_W_xc_x_slice
I0925 23:14:40.274802 27219 net.cpp:91] Creating Layer lstm2_W_xc_x_slice
I0925 23:14:40.274809 27219 net.cpp:425] lstm2_W_xc_x_slice <- W_xc_x
I0925 23:14:40.274824 27219 net.cpp:399] lstm2_W_xc_x_slice -> W_xc_x_1
I0925 23:14:40.274860 27239 net.cpp:141] Setting up lstm2_transform_1
I0925 23:14:40.274905 27239 net.cpp:148] Top shape: 1 1 4000 (4000)
I0925 23:14:40.274914 27239 net.cpp:156] Memory required for data: 66020
I0925 23:14:40.274938 27239 layer_factory.hpp:77] Creating layer lstm2_gate_input_1
I0925 23:14:40.274968 27239 net.cpp:91] Creating Layer lstm2_gate_input_1
I0925 23:14:40.274978 27239 net.cpp:425] lstm2_gate_input_1 <- W_hc_h_0
I0925 23:14:40.274989 27239 net.cpp:425] lstm2_gate_input_1 <- W_xc_x_1
I0925 23:14:40.275002 27239 net.cpp:399] lstm2_gate_input_1 -> gate_input_1
I0925 23:14:40.361256 27269 net.cpp:141] Setting up lstm2_
I0925 23:14:40.361315 27269 net.cpp:148] Top shape: 1 1 1000 (1000)
I0925 23:14:40.361321 27269 net.cpp:148] Top shape: 1 1 1000 (1000)
I0925 23:14:40.361326 27269 net.cpp:156] Memory required for data: 14008
I0925 23:14:40.361327 27219 net.cpp:141] Setting up lstm2_W_xc_x_slice
I0925 23:14:40.361338 27269 layer_factory.hpp:77] Creating layer lstm2_cont_slice
I0925 23:14:40.361347 27219 net.cpp:148] Top shape: 1 1 4000 (4000)
I0925 23:14:40.361352 27219 net.cpp:156] Memory required for data: 46020
I0925 23:14:40.361359 27219 layer_factory.hpp:77] Creating layer lstm2_h_conted_0
I0925 23:14:40.361366 27269 net.cpp:91] Creating Layer lstm2_cont_slice
I0925 23:14:40.361374 27269 net.cpp:425] lstm2_cont_slice <- cont
I0925 23:14:40.361376 27219 net.cpp:91] Creating Layer lstm2_h_conted_0
I0925 23:14:40.361382 27219 net.cpp:425] lstm2_h_conted_0 <- h_0
I0925 23:14:40.361387 27269 net.cpp:399] lstm2_cont_slice -> cont_1
I0925 23:14:40.361390 27219 net.cpp:425] lstm2_h_conted_0 <- cont_1_lstm2_cont_slice_0_split_0
I0925 23:14:40.361399 27219 net.cpp:399] lstm2_h_conted_0 -> h_conted_0
I0925 23:14:40.361531 27239 net.cpp:141] Setting up lstm2_gate_input_1
I0925 23:14:40.361580 27239 net.cpp:148] Top shape: 1 1 4000 (4000)
I0925 23:14:40.361588 27239 net.cpp:156] Memory required for data: 82020
I0925 23:14:40.361603 27239 layer_factory.hpp:77] Creating layer lstm2_unit_1
I0925 23:14:40.361629 27239 net.cpp:91] Creating Layer lstm2_unit_1
I0925 23:14:40.361644 27239 net.cpp:425] lstm2_unit_1 <- c_0
I0925 23:14:40.361661 27239 net.cpp:425] lstm2_unit_1 <- gate_input_1
I0925 23:14:40.361670 27239 net.cpp:425] lstm2_unit_1 <- cont_1_lstm2_cont_slice_0_split_1
I0925 23:14:40.361685 27239 net.cpp:399] lstm2_unit_1 -> c_1
I0925 23:14:40.361703 27239 net.cpp:399] lstm2_unit_1 -> h_1
I0925 23:14:40.361809 27269 net.cpp:141] Setting up lstm2_cont_slice
I0925 23:14:40.361826 27269 net.cpp:148] Top shape: 1 1 (1)
I0925 23:14:40.361832 27269 net.cpp:156] Memory required for data: 14012
I0925 23:14:40.361838 27269 layer_factory.hpp:77] Creating layer cont_1_lstm2_cont_slice_0_split
I0925 23:14:40.361850 27269 net.cpp:91] Creating Layer cont_1_lstm2_cont_slice_0_split
I0925 23:14:40.361855 27269 net.cpp:425] cont_1_lstm2_cont_slice_0_split <- cont_1
I0925 23:14:40.361865 27269 net.cpp:399] cont_1_lstm2_cont_slice_0_split -> cont_1_lstm2_cont_slice_0_split_0
I0925 23:14:40.361874 27269 net.cpp:399] cont_1_lstm2_cont_slice_0_split -> cont_1_lstm2_cont_slice_0_split_1
I0925 23:14:40.362037 27239 net.cpp:141] Setting up lstm2_unit_1
I0925 23:14:40.362056 27239 net.cpp:148] Top shape: 1 1 1000 (1000)
I0925 23:14:40.362063 27239 net.cpp:148] Top shape: 1 1 1000 (1000)
I0925 23:14:40.362067 27239 net.cpp:156] Memory required for data: 90020
I0925 23:14:40.362073 27239 layer_factory.hpp:77] Creating layer lstm2_
I0925 23:14:40.362090 27239 net.cpp:91] Creating Layer lstm2_
I0925 23:14:40.362097 27239 net.cpp:425] lstm2_ <- c_1
I0925 23:14:40.362104 27239 net.cpp:399] lstm2_ -> c_T
I0925 23:14:40.362131 27233 net.cpp:141] Setting up lstm2_x_transform
I0925 23:14:40.362151 27233 net.cpp:148] Top shape: 1 1 4000 (4000)
I0925 23:14:40.362156 27233 net.cpp:156] Memory required for data: 30020
I0925 23:14:40.362160 27239 net.cpp:141] Setting up lstm2_
I0925 23:14:40.362170 27239 net.cpp:148] Top shape: 1 1 1000 (1000)
I0925 23:14:40.362171 27233 layer_factory.hpp:77] Creating layer lstm2_W_xc_x_slice
I0925 23:14:40.362175 27239 net.cpp:156] Memory required for data: 94020
I0925 23:14:40.362181 27239 layer_factory.hpp:77] Creating layer lstm2_h_concat
I0925 23:14:40.362181 27233 net.cpp:91] Creating Layer lstm2_W_xc_x_slice
I0925 23:14:40.362196 27233 net.cpp:425] lstm2_W_xc_x_slice <- W_xc_x
I0925 23:14:40.362198 27239 net.cpp:91] Creating Layer lstm2_h_concat
I0925 23:14:40.362205 27233 net.cpp:399] lstm2_W_xc_x_slice -> W_xc_x_1
I0925 23:14:40.362205 27239 net.cpp:425] lstm2_h_concat <- h_1
I0925 23:14:40.362226 27239 net.cpp:399] lstm2_h_concat -> h
I0925 23:14:40.362233 27269 net.cpp:141] Setting up cont_1_lstm2_cont_slice_0_split
I0925 23:14:40.362251 27269 net.cpp:148] Top shape: 1 1 (1)
I0925 23:14:40.362258 27269 net.cpp:148] Top shape: 1 1 (1)
I0925 23:14:40.362262 27269 net.cpp:156] Memory required for data: 14020
I0925 23:14:40.362263 27233 net.cpp:141] Setting up lstm2_W_xc_x_slice
I0925 23:14:40.362268 27269 layer_factory.hpp:77] Creating layer lstm2_x_transform
I0925 23:14:40.362275 27233 net.cpp:148] Top shape: 1 1 4000 (4000)
I0925 23:14:40.362280 27233 net.cpp:156] Memory required for data: 46020
I0925 23:14:40.362285 27233 layer_factory.hpp:77] Creating layer lstm2_h_conted_0
I0925 23:14:40.362288 27269 net.cpp:91] Creating Layer lstm2_x_transform
I0925 23:14:40.362294 27233 net.cpp:91] Creating Layer lstm2_h_conted_0
I0925 23:14:40.362295 27269 net.cpp:425] lstm2_x_transform <- x
I0925 23:14:40.362304 27233 net.cpp:425] lstm2_h_conted_0 <- h_0
I0925 23:14:40.362311 27233 net.cpp:425] lstm2_h_conted_0 <- cont_1_lstm2_cont_slice_0_split_0
I0925 23:14:40.362314 27269 net.cpp:399] lstm2_x_transform -> W_xc_x
I0925 23:14:40.362319 27233 net.cpp:399] lstm2_h_conted_0 -> h_conted_0
I0925 23:14:40.362509 27239 net.cpp:141] Setting up lstm2_h_concat
I0925 23:14:40.362521 27239 net.cpp:148] Top shape: 1 1 1000 (1000)
I0925 23:14:40.362526 27239 net.cpp:156] Memory required for data: 98020
I0925 23:14:40.362531 27239 layer_factory.hpp:77] Creating layer h_pseudoloss
I0925 23:14:40.362543 27239 net.cpp:91] Creating Layer h_pseudoloss
I0925 23:14:40.362550 27239 net.cpp:425] h_pseudoloss <- h
I0925 23:14:40.362556 27239 net.cpp:399] h_pseudoloss -> h_pseudoloss
I0925 23:14:40.362637 27219 net.cpp:141] Setting up lstm2_h_conted_0
I0925 23:14:40.362655 27219 net.cpp:148] Top shape: 1 1 1000 (1000)
I0925 23:14:40.362660 27219 net.cpp:156] Memory required for data: 50020
I0925 23:14:40.362665 27219 layer_factory.hpp:77] Creating layer lstm2_transform_1
I0925 23:14:40.362679 27219 net.cpp:91] Creating Layer lstm2_transform_1
I0925 23:14:40.362684 27219 net.cpp:425] lstm2_transform_1 <- h_conted_0
I0925 23:14:40.362695 27219 net.cpp:399] lstm2_transform_1 -> W_hc_h_0
I0925 23:14:40.375418 27257 net.cpp:141] Setting up predict
I0925 23:14:40.375471 27257 net.cpp:148] Top shape: 1 1 46168 (46168)
I0925 23:14:40.375478 27257 net.cpp:156] Memory required for data: 221084
I0925 23:14:40.375500 27257 layer_factory.hpp:77] Creating layer probs
I0925 23:14:40.375519 27257 net.cpp:91] Creating Layer probs
I0925 23:14:40.375530 27257 net.cpp:425] probs <- predict
I0925 23:14:40.375542 27257 net.cpp:399] probs -> probs
I0925 23:14:40.384018 27233 net.cpp:141] Setting up lstm2_h_conted_0
I0925 23:14:40.384048 27239 net.cpp:141] Setting up h_pseudoloss
I0925 23:14:40.384078 27233 net.cpp:148] Top shape: 1 1 1000 (1000)
I0925 23:14:40.384083 27239 net.cpp:148] Top shape: (1)
I0925 23:14:40.384084 27233 net.cpp:156] Memory required for data: 50020
I0925 23:14:40.384095 27233 layer_factory.hpp:77] Creating layer lstm2_transform_1
I0925 23:14:40.384088 27239 net.cpp:151]     with loss weight 1
I0925 23:14:40.384116 27239 net.cpp:156] Memory required for data: 98024
I0925 23:14:40.384119 27233 net.cpp:91] Creating Layer lstm2_transform_1
…
I0925 23:14:40.384234 27239 net.cpp:219] lstm2_ does not need backward computation.
I0925 23:14:40.384238 27239 net.cpp:261] This network produces output c_T
I0925 23:14:40.384244 27239 net.cpp:261] This network produces output h_pseudoloss
I0925 23:14:40.384263 27239 net.cpp:274] Network initialization done.
I0925 23:14:40.384420 27239 recurrent_layer.cpp:150] Adding parameter 0: W_xc
I0925 23:14:40.384433 27239 recurrent_layer.cpp:150] Adding parameter 1: b_c
I0925 23:14:40.384438 27239 recurrent_layer.cpp:150] Adding parameter 2: W_hc
I0925 23:14:40.392829 27239 net.cpp:141] Setting up lstm2
I0925 23:14:40.392889 27239 net.cpp:148] Top shape: 1 1 1000 (1000)
I0925 23:14:40.392896 27239 net.cpp:156] Memory required for data: 36412
I0925 23:14:40.392947 27239 layer_factory.hpp:77] Creating layer predict
I0925 23:14:40.392969 27239 net.cpp:91] Creating Layer predict
I0925 23:14:40.392989 27239 net.cpp:425] predict <- lstm2
I0925 23:14:40.392999 27239 net.cpp:399] predict -> predict
I0925 23:14:40.478761 27219 net.cpp:141] Setting up lstm2_transform_1
I0925 23:14:40.478830 27219 net.cpp:148] Top shape: 1 1 4000 (4000)
I0925 23:14:40.478837 27219 net.cpp:156] Memory required for data: 66020
I0925 23:14:40.478884 27219 layer_factory.hpp:77] Creating layer lstm2_gate_input_1
I0925 23:14:40.478936 27219 net.cpp:91] Creating Layer lstm2_gate_input_1
I0925 23:14:40.478945 27219 net.cpp:425] lstm2_gate_input_1 <- W_hc_h_0
I0925 23:14:40.478953 27219 net.cpp:425] lstm2_gate_input_1 <- W_xc_x_1
I0925 23:14:40.478961 27219 net.cpp:399] lstm2_gate_input_1 -> gate_input_1
I0925 23:14:40.479145 27269 net.cpp:141] Setting up lstm2_x_transform
I0925 23:14:40.479163 27269 net.cpp:148] Top shape: 1 1 4000 (4000)
I0925 23:14:40.479168 27269 net.cpp:156] Memory required for data: 30020
I0925 23:14:40.479182 27269 layer_factory.hpp:77] Creating layer lstm2_W_xc_x_slice
I0925 23:14:40.479194 27269 net.cpp:91] Creating Layer lstm2_W_xc_x_slice
I0925 23:14:40.479202 27269 net.cpp:425] lstm2_W_xc_x_slice <- W_xc_x
I0925 23:14:40.479212 27269 net.cpp:399] lstm2_W_xc_x_slice -> W_xc_x_1
I0925 23:14:40.479207 27233 net.cpp:141] Setting up lstm2_transform_1
I0925 23:14:40.479231 27233 net.cpp:148] Top shape: 1 1 4000 (4000)
I0925 23:14:40.479238 27233 net.cpp:156] Memory required for data: 66020
I0925 23:14:40.479254 27233 layer_factory.hpp:77] Creating layer lstm2_gate_input_1
I0925 23:14:40.479269 27233 net.cpp:91] Creating Layer lstm2_gate_input_1
I0925 23:14:40.479275 27233 net.cpp:425] lstm2_gate_input_1 <- W_hc_h_0
I0925 23:14:40.479284 27233 net.cpp:425] lstm2_gate_input_1 <- W_xc_x_1
I0925 23:14:40.479291 27233 net.cpp:399] lstm2_gate_input_1 -> gate_input_1
I0925 23:14:40.479356 27219 net.cpp:141] Setting up lstm2_gate_input_1
I0925 23:14:40.479394 27219 net.cpp:148] Top shape: 1 1 4000 (4000)
I0925 23:14:40.479399 27219 net.cpp:156] Memory required for data: 82020
I0925 23:14:40.479408 27219 layer_factory.hpp:77] Creating layer lstm2_unit_1
I0925 23:14:40.479423 27219 net.cpp:91] Creating Layer lstm2_unit_1
I0925 23:14:40.479429 27219 net.cpp:425] lstm2_unit_1 <- c_0
I0925 23:14:40.479439 27219 net.cpp:425] lstm2_unit_1 <- gate_input_1
I0925 23:14:40.479445 27219 net.cpp:425] lstm2_unit_1 <- cont_1_lstm2_cont_slice_0_split_1
I0925 23:14:40.479456 27219 net.cpp:399] lstm2_unit_1 -> c_1
I0925 23:14:40.479470 27219 net.cpp:399] lstm2_unit_1 -> h_1
I0925 23:14:40.479466 27265 net.cpp:141] Setting up predict
I0925 23:14:40.479499 27265 net.cpp:148] Top shape: 1 1 46168 (46168)
I0925 23:14:40.479506 27265 net.cpp:156] Memory required for data: 221084
I0925 23:14:40.479540 27233 net.cpp:141] Setting up lstm2_gate_input_1
I0925 23:14:40.479548 27265 layer_factory.hpp:77] Creating layer probs
I0925 23:14:40.479574 27233 net.cpp:148] Top shape: 1 1 4000 (4000)
I0925 23:14:40.479575 27265 net.cpp:91] Creating Layer probs
I0925 23:14:40.479586 27233 net.cpp:156] Memory required for data: 82020
I0925 23:14:40.479590 27265 net.cpp:425] probs <- predict
I0925 23:14:40.479574 27269 net.cpp:141] Setting up lstm2_W_xc_x_slice
I0925 23:14:40.479605 27233 layer_factory.hpp:77] Creating layer lstm2_unit_1
I0925 23:14:40.479616 27265 net.cpp:399] probs -> probs
I0925 23:14:40.479616 27269 net.cpp:148] Top shape: 1 1 4000 (4000)
I0925 23:14:40.479624 27233 net.cpp:91] Creating Layer lstm2_unit_1
I0925 23:14:40.479642 27233 net.cpp:425] lstm2_unit_1 <- c_0
I0925 23:14:40.479626 27269 net.cpp:156] Memory required for data: 46020
I0925 23:14:40.479656 27233 net.cpp:425] lstm2_unit_1 <- gate_input_1
I0925 23:14:40.479658 27269 layer_factory.hpp:77] Creating layer lstm2_h_conted_0
I0925 23:14:40.479667 27233 net.cpp:425] lstm2_unit_1 <- cont_1_lstm2_cont_slice_0_split_1
I0925 23:14:40.479674 27269 net.cpp:91] Creating Layer lstm2_h_conted_0
I0925 23:14:40.479679 27233 net.cpp:399] lstm2_unit_1 -> c_1
I0925 23:14:40.479684 27269 net.cpp:425] lstm2_h_conted_0 <- h_0
I0925 23:14:40.479694 27269 net.cpp:425] lstm2_h_conted_0 <- cont_1_lstm2_cont_slice_0_split_0
I0925 23:14:40.479694 27233 net.cpp:399] lstm2_unit_1 -> h_1
I0925 23:14:40.479718 27269 net.cpp:399] lstm2_h_conted_0 -> h_conted_0
I0925 23:14:40.479727 27219 net.cpp:141] Setting up lstm2_unit_1
I0925 23:14:40.479744 27219 net.cpp:148] Top shape: 1 1 1000 (1000)
I0925 23:14:40.479751 27219 net.cpp:148] Top shape: 1 1 1000 (1000)
I0925 23:14:40.479756 27219 net.cpp:156] Memory required for data: 90020
I0925 23:14:40.479761 27219 layer_factory.hpp:77] Creating layer lstm2_
I0925 23:14:40.479773 27219 net.cpp:91] Creating Layer lstm2_
I0925 23:14:40.479782 27219 net.cpp:425] lstm2_ <- c_1
I0925 23:14:40.479794 27219 net.cpp:399] lstm2_ -> c_T
I0925 23:14:40.479852 27219 net.cpp:141] Setting up lstm2_
I0925 23:14:40.479863 27219 net.cpp:148] Top shape: 1 1 1000 (1000)
I0925 23:14:40.479868 27219 net.cpp:156] Memory required for data: 94020
I0925 23:14:40.479873 27219 layer_factory.hpp:77] Creating layer lstm2_h_concat
I0925 23:14:40.479887 27219 net.cpp:91] Creating Layer lstm2_h_concat
I0925 23:14:40.479897 27219 net.cpp:425] lstm2_h_concat <- h_1
I0925 23:14:40.479907 27219 net.cpp:399] lstm2_h_concat -> h
I0925 23:14:40.479957 27233 net.cpp:141] Setting up lstm2_unit_1
I0925 23:14:40.479977 27233 net.cpp:148] Top shape: 1 1 1000 (1000)
I0925 23:14:40.479989 27233 net.cpp:148] Top shape: 1 1 1000 (1000)
I0925 23:14:40.479996 27233 net.cpp:156] Memory required for data: 90020
I0925 23:14:40.480005 27233 layer_factory.hpp:77] Creating layer lstm2_
I0925 23:14:40.480017 27233 net.cpp:91] Creating Layer lstm2_
I0925 23:14:40.480022 27233 net.cpp:425] lstm2_ <- c_1
I0925 23:14:40.480026 27219 net.cpp:141] Setting up lstm2_h_concat
I0925 23:14:40.480036 27233 net.cpp:399] lstm2_ -> c_T
I0925 23:14:40.480042 27219 net.cpp:148] Top shape: 1 1 1000 (1000)
I0925 23:14:40.480049 27219 net.cpp:156] Memory required for data: 98020
I0925 23:14:40.480058 27219 layer_factory.hpp:77] Creating layer h_pseudoloss
I0925 23:14:40.480073 27219 net.cpp:91] Creating Layer h_pseudoloss
I0925 23:14:40.480079 27219 net.cpp:425] h_pseudoloss <- h
I0925 23:14:40.480087 27219 net.cpp:399] h_pseudoloss -> h_pseudoloss
I0925 23:14:40.480113 27269 net.cpp:141] Setting up lstm2_h_conted_0
I0925 23:14:40.480126 27269 net.cpp:148] Top shape: 1 1 1000 (1000)
I0925 23:14:40.480130 27269 net.cpp:156] Memory required for data: 50020
I0925 23:14:40.480136 27269 layer_factory.hpp:77] Creating layer lstm2_transform_1
I0925 23:14:40.480156 27269 net.cpp:91] Creating Layer lstm2_transform_1
I0925 23:14:40.480164 27269 net.cpp:425] lstm2_transform_1 <- h_conted_0
I0925 23:14:40.480172 27269 net.cpp:399] lstm2_transform_1 -> W_hc_h_0
I0925 23:14:40.480705 27233 net.cpp:141] Setting up lstm2_
I0925 23:14:40.480720 27233 net.cpp:148] Top shape: 1 1 1000 (1000)
I0925 23:14:40.480726 27233 net.cpp:156] Memory required for data: 94020
I0925 23:14:40.480731 27233 layer_factory.hpp:77] Creating layer lstm2_h_concat
I0925 23:14:40.480746 27233 net.cpp:91] Creating Layer lstm2_h_concat
I0925 23:14:40.480749 27219 net.cpp:141] Setting up h_pseudoloss
I0925 23:14:40.480756 27233 net.cpp:425] lstm2_h_concat <- h_1
I0925 23:14:40.480764 27219 net.cpp:148] Top shape: (1)
I0925 23:14:40.480770 27233 net.cpp:399] lstm2_h_concat -> h
I0925 23:14:40.480769 27219 net.cpp:151]     with loss weight 1
I0925 23:14:40.480784 27219 net.cpp:156] Memory required for data: 98024
I0925 23:14:40.480792 27219 net.cpp:217] h_pseudoloss needs backward computation.
I0925 23:14:40.480800 27219 net.cpp:217] lstm2_h_concat needs backward computation.
I0925 23:14:40.480806 27219 net.cpp:219] lstm2_ does not need backward computation.
I0925 23:14:40.480811 27219 net.cpp:217] lstm2_unit_1 needs backward computation.
I0925 23:14:40.480818 27219 net.cpp:217] lstm2_gate_input_1 needs backward computation.
I0925 23:14:40.480823 27219 net.cpp:217] lstm2_transform_1 needs backward computation.
I0925 23:14:40.480829 27219 net.cpp:219] lstm2_h_conted_0 does not need backward computation.
I0925 23:14:40.480835 27233 net.cpp:141] Setting up lstm2_h_concat
I0925 23:14:40.480837 27219 net.cpp:217] lstm2_W_xc_x_slice needs backward computation.
I0925 23:14:40.480855 27233 net.cpp:148] Top shape: 1 1 1000 (1000)
I0925 23:14:40.480857 27219 net.cpp:217] lstm2_x_transform needs backward computation.
I0925 23:14:40.480868 27233 net.cpp:156] Memory required for data: 98020
I0925 23:14:40.480873 27219 net.cpp:219] cont_1_lstm2_cont_slice_0_split does not need backward computation.
I0925 23:14:40.480877 27233 layer_factory.hpp:77] Creating layer h_pseudoloss
I0925 23:14:40.480880 27219 net.cpp:219] lstm2_cont_slice does not need backward computation.
…
I0925 23:14:40.490952 27233 net.cpp:261] This network produces output c_T
I0925 23:14:40.490952 27219 net.cpp:399] predict -> predict
I0925 23:14:40.490957 27233 net.cpp:261] This network produces output h_pseudoloss
I0925 23:14:40.490978 27233 net.cpp:274] Network initialization done.
I0925 23:14:40.491036 27233 recurrent_layer.cpp:150] Adding parameter 0: W_xc
I0925 23:14:40.491044 27233 recurrent_layer.cpp:150] Adding parameter 1: b_c
I0925 23:14:40.491047 27233 recurrent_layer.cpp:150] Adding parameter 2: W_hc
I0925 23:14:40.493355 27233 net.cpp:141] Setting up lstm2
I0925 23:14:40.493369 27233 net.cpp:148] Top shape: 1 1 1000 (1000)
I0925 23:14:40.493374 27233 net.cpp:156] Memory required for data: 36412
I0925 23:14:40.493392 27233 layer_factory.hpp:77] Creating layer predict
I0925 23:14:40.493405 27233 net.cpp:91] Creating Layer predict
I0925 23:14:40.493413 27233 net.cpp:425] predict <- lstm2
I0925 23:14:40.493422 27233 net.cpp:399] predict -> predict
I0925 23:14:40.656445 27269 net.cpp:141] Setting up lstm2_transform_1
I0925 23:14:40.656476 27225 net.cpp:141] Setting up predict
I0925 23:14:40.656512 27225 net.cpp:148] Top shape: 1 1 46168 (46168)
I0925 23:14:40.656512 27269 net.cpp:148] Top shape: 1 1 4000 (4000)
I0925 23:14:40.656524 27225 net.cpp:156] Memory required for data: 221084
I0925 23:14:40.656528 27269 net.cpp:156] Memory required for data: 66020
I0925 23:14:40.656546 27225 layer_factory.hpp:77] Creating layer probs
I0925 23:14:40.656550 27269 layer_factory.hpp:77] Creating layer lstm2_gate_input_1
I0925 23:14:40.656569 27225 net.cpp:91] Creating Layer probs
I0925 23:14:40.656577 27269 net.cpp:91] Creating Layer lstm2_gate_input_1
I0925 23:14:40.656577 27225 net.cpp:425] probs <- predict
I0925 23:14:40.656589 27269 net.cpp:425] lstm2_gate_input_1 <- W_hc_h_0
I0925 23:14:40.656596 27269 net.cpp:425] lstm2_gate_input_1 <- W_xc_x_1
I0925 23:14:40.656596 27225 net.cpp:399] probs -> probs
I0925 23:14:40.656610 27269 net.cpp:399] lstm2_gate_input_1 -> gate_input_1
I0925 23:14:40.658787 27269 net.cpp:141] Setting up lstm2_gate_input_1
I0925 23:14:40.658804 27269 net.cpp:148] Top shape: 1 1 4000 (4000)
I0925 23:14:40.658809 27269 net.cpp:156] Memory required for data: 82020
I0925 23:14:40.658815 27269 layer_factory.hpp:77] Creating layer lstm2_unit_1
I0925 23:14:40.658830 27269 net.cpp:91] Creating Layer lstm2_unit_1
I0925 23:14:40.658836 27269 net.cpp:425] lstm2_unit_1 <- c_0
I0925 23:14:40.658844 27269 net.cpp:425] lstm2_unit_1 <- gate_input_1
I0925 23:14:40.658850 27269 net.cpp:425] lstm2_unit_1 <- cont_1_lstm2_cont_slice_0_split_1
I0925 23:14:40.658857 27269 net.cpp:399] lstm2_unit_1 -> c_1
I0925 23:14:40.658869 27269 net.cpp:399] lstm2_unit_1 -> h_1
I0925 23:14:40.658871 27215 net.cpp:141] Setting up predict
I0925 23:14:40.658892 27215 net.cpp:148] Top shape: 1 1 46168 (46168)
I0925 23:14:40.658897 27215 net.cpp:156] Memory required for data: 221084
I0925 23:14:40.658911 27215 layer_factory.hpp:77] Creating layer probs
I0925 23:14:40.658924 27215 net.cpp:91] Creating Layer probs
I0925 23:14:40.658941 27215 net.cpp:425] probs <- predict
I0925 23:14:40.658952 27215 net.cpp:399] probs -> probs
I0925 23:14:40.660835 27269 net.cpp:141] Setting up lstm2_unit_1
I0925 23:14:40.660853 27269 net.cpp:148] Top shape: 1 1 1000 (1000)
I0925 23:14:40.660861 27269 net.cpp:148] Top shape: 1 1 1000 (1000)
I0925 23:14:40.660864 27269 net.cpp:156] Memory required for data: 90020
I0925 23:14:40.660871 27269 layer_factory.hpp:77] Creating layer lstm2_
I0925 23:14:40.660879 27269 net.cpp:91] Creating Layer lstm2_
I0925 23:14:40.660884 27269 net.cpp:425] lstm2_ <- c_1
I0925 23:14:40.660892 27269 net.cpp:399] lstm2_ -> c_T
I0925 23:14:40.662420 27269 net.cpp:141] Setting up lstm2_
I0925 23:14:40.662437 27269 net.cpp:148] Top shape: 1 1 1000 (1000)
I0925 23:14:40.662442 27269 net.cpp:156] Memory required for data: 94020
I0925 23:14:40.662448 27269 layer_factory.hpp:77] Creating layer lstm2_h_concat
I0925 23:14:40.662459 27269 net.cpp:91] Creating Layer lstm2_h_concat
I0925 23:14:40.662466 27269 net.cpp:425] lstm2_h_concat <- h_1
I0925 23:14:40.662473 27269 net.cpp:399] lstm2_h_concat -> h
I0925 23:14:40.673389 27269 net.cpp:141] Setting up lstm2_h_concat
I0925 23:14:40.673415 27269 net.cpp:148] Top shape: 1 1 1000 (1000)
I0925 23:14:40.673420 27269 net.cpp:156] Memory required for data: 98020
I0925 23:14:40.673427 27269 layer_factory.hpp:77] Creating layer h_pseudoloss
I0925 23:14:40.673440 27269 net.cpp:91] Creating Layer h_pseudoloss
I0925 23:14:40.673446 27269 net.cpp:425] h_pseudoloss <- h
I0925 23:14:40.673455 27269 net.cpp:399] h_pseudoloss -> h_pseudoloss
I0925 23:14:40.673568 27269 net.cpp:141] Setting up h_pseudoloss
…
I0925 23:14:40.673676 27269 net.cpp:219] lstm2_ does not need backward computation.
I0925 23:14:40.673681 27269 net.cpp:261] This network produces output c_T
I0925 23:14:40.673686 27269 net.cpp:261] This network produces output h_pseudoloss
I0925 23:14:40.673701 27269 net.cpp:274] Network initialization done.
I0925 23:14:40.673771 27269 recurrent_layer.cpp:150] Adding parameter 0: W_xc
I0925 23:14:40.673779 27269 recurrent_layer.cpp:150] Adding parameter 1: b_c
I0925 23:14:40.673784 27269 recurrent_layer.cpp:150] Adding parameter 2: W_hc
I0925 23:14:40.734007 27221 net.cpp:141] Setting up predict
I0925 23:14:41.046475 27221 net.cpp:148] Top shape: 1 1 46168 (46168)
I0925 23:14:40.772292 27215 net.cpp:141] Setting up probs
I0925 23:14:40.773175 27257 net.cpp:141] Setting up probs
I0925 23:14:41.046526 27215 net.cpp:148] Top shape: 1 1 46168 (46168)
I0925 23:14:40.774206 27241 net.cpp:141] Setting up conv1
I0925 23:14:40.843560 27239 net.cpp:141] Setting up predict
I0925 23:14:41.046567 27241 net.cpp:148] Top shape: 10 96 55 55 (2904000)
I0925 23:14:41.046577 27239 net.cpp:148] Top shape: 1 1 46168 (46168)
I0925 23:14:41.046581 27241 net.cpp:156] Memory required for data: 17799480
I0925 23:14:41.046499 27221 net.cpp:156] Memory required for data: 221084
I0925 23:14:41.046545 27215 net.cpp:156] Memory required for data: 405756
I0925 23:14:40.929080 27219 net.cpp:141] Setting up predict
I0925 23:14:41.046531 27257 net.cpp:148] Top shape: 1 1 46168 (46168)
I0925 23:14:41.046591 27239 net.cpp:156] Memory required for data: 221084
I0925 23:14:41.046649 27215 net.cpp:219] probs does not need backward computation.
I0925 23:14:41.046746 27257 net.cpp:156] Memory required for data: 405756
I0925 23:14:41.046660 27241 layer_factory.hpp:77] Creating layer relu1
I0925 23:14:41.046782 27215 net.cpp:219] predict does not need backward computation.
I0925 23:14:41.046783 27257 net.cpp:219] probs does not need backward computation.
I0925 23:14:41.046735 27219 net.cpp:148] Top shape: 1 1 46168 (46168)
I0925 23:14:41.010933 27233 net.cpp:141] Setting up predict
I0925 23:14:41.046845 27219 net.cpp:156] Memory required for data: 221084
I0925 23:14:41.046825 27215 net.cpp:219] lstm2 does not need backward computation.
I0925 23:14:41.046813 27257 net.cpp:219] predict does not need backward computation.
I0925 23:14:41.046893 27215 net.cpp:219] concat does not need backward computation.
I0925 23:14:41.046905 27257 net.cpp:219] lstm2 does not need backward computation.
I0925 23:14:41.046922 27215 net.cpp:219] lstm1 does not need backward computation.
I0925 23:14:41.046905 27219 layer_factory.hpp:77] Creating layer probs
I0925 23:14:41.046952 27257 net.cpp:219] concat does not need backward computation.
I0925 23:14:41.046947 27215 net.cpp:219] embedding does not need backward computation.
I0925 23:14:41.046978 27257 net.cpp:219] lstm1 does not need backward computation.
I0925 23:14:41.046974 27269 net.cpp:141] Setting up lstm2
I0925 23:14:41.047004 27257 net.cpp:219] embedding does not need backward computation.
I0925 23:14:41.047013 27219 net.cpp:91] Creating Layer probs
I0925 23:14:41.047027 27257 net.cpp:219] reshape_stage_indicator does not need backward computation.
I0925 23:14:41.046994 27215 net.cpp:219] reshape_stage_indicator does not need backward computation.
I0925 23:14:41.047076 27233 net.cpp:148] Top shape: 1 1 46168 (46168)
I0925 23:14:41.047036 27239 layer_factory.hpp:77] Creating layer probs
I0925 23:14:41.047050 27257 net.cpp:219] reshape_frames does not need backward computation.
I0925 23:14:41.047046 27269 net.cpp:148] Top shape: 1 1 1000 (1000)
I0925 23:14:41.047052 27219 net.cpp:425] probs <- predict
I0925 23:14:41.046654 27221 layer_factory.hpp:77] Creating layer probs
I0925 23:14:41.047062 27215 net.cpp:219] reshape_frames does not need backward computation.
I0925 23:14:41.047152 27269 net.cpp:156] Memory required for data: 36412
I0925 23:14:41.047169 27215 net.cpp:219] embed_encoder does not need backward computation.
I0925 23:14:41.047178 27219 net.cpp:399] probs -> probs
…
I0925 23:14:41.178194 27225 net.cpp:219] reshape_frames does not need backward computation.
I0925 23:14:41.178202 27225 net.cpp:219] embed_encoder does not need backward computation.
I0925 23:14:41.178220 27225 net.cpp:219] cont_sentence_input_1_split does not need backward computation.
I0925 23:14:41.178232 27225 net.cpp:219] input does not need backward computation.
I0925 23:14:41.178241 27225 net.cpp:261] This network produces output probs
I0925 23:14:41.178264 27225 net.cpp:274] Network initialization done.
I0925 23:14:41.199208 27239 net.cpp:141] Setting up probs
I0925 23:14:41.199312 27239 net.cpp:148] Top shape: 1 1 46168 (46168)
I0925 23:14:41.199324 27239 net.cpp:156] Memory required for data: 405756
I0925 23:14:41.199345 27239 net.cpp:219] probs does not need backward computation.
I0925 23:14:41.199362 27239 net.cpp:219] predict does not need backward computation.
I0925 23:14:41.199376 27239 net.cpp:219] lstm2 does not need backward computation.
I0925 23:14:41.199388 27239 net.cpp:219] concat does not need backward computation.
I0925 23:14:41.199403 27239 net.cpp:219] lstm1 does not need backward computation.
I0925 23:14:41.199417 27239 net.cpp:219] embedding does not need backward computation.
I0925 23:14:41.199429 27239 net.cpp:219] reshape_stage_indicator does not need backward computation.
I0925 23:14:41.199440 27239 net.cpp:219] reshape_frames does not need backward computation.
I0925 23:14:41.199451 27239 net.cpp:219] embed_encoder does not need backward computation.
I0925 23:14:41.199517 27239 net.cpp:219] cont_sentence_input_1_split does not need backward computation.
I0925 23:14:41.200548 27239 net.cpp:219] input does not need backward computation.
I0925 23:14:41.200599 27239 net.cpp:261] This network produces output probs
I0925 23:14:41.200645 27239 net.cpp:274] Network initialization done.
I0925 23:14:41.201323 27221 net.cpp:141] Setting up probs
I0925 23:14:41.201364 27221 net.cpp:148] Top shape: 1 1 46168 (46168)
I0925 23:14:41.201373 27221 net.cpp:156] Memory required for data: 405756
I0925 23:14:41.201385 27221 net.cpp:219] probs does not need backward computation.
I0925 23:14:41.201391 27221 net.cpp:219] predict does not need backward computation.
I0925 23:14:41.201401 27221 net.cpp:219] lstm2 does not need backward computation.
I0925 23:14:41.201411 27221 net.cpp:219] concat does not need backward computation.
I0925 23:14:41.201421 27221 net.cpp:219] lstm1 does not need backward computation.
I0925 23:14:41.201432 27221 net.cpp:219] embedding does not need backward computation.
I0925 23:14:41.201442 27221 net.cpp:219] reshape_stage_indicator does not need backward computation.
I0925 23:14:41.201450 27221 net.cpp:219] reshape_frames does not need backward computation.
I0925 23:14:41.201458 27221 net.cpp:219] embed_encoder does not need backward computation.
I0925 23:14:41.201470 27221 net.cpp:219] cont_sentence_input_1_split does not need backward computation.
I0925 23:14:41.201480 27221 net.cpp:219] input does not need backward computation.
I0925 23:14:41.201488 27221 net.cpp:261] This network produces output probs
I0925 23:14:41.201519 27221 net.cpp:274] Network initialization done.
I0925 23:14:41.204140 27241 net.cpp:141] Setting up relu1
I0925 23:14:41.204207 27241 net.cpp:148] Top shape: 10 96 55 55 (2904000)
I0925 23:14:41.204216 27241 net.cpp:156] Memory required for data: 29415480
I0925 23:14:41.204226 27241 layer_factory.hpp:77] Creating layer pool1
I0925 23:14:41.204254 27241 net.cpp:91] Creating Layer pool1
I0925 23:14:41.204262 27241 net.cpp:425] pool1 <- conv1
I0925 23:14:41.204275 27241 net.cpp:399] pool1 -> pool1
I0925 23:14:41.204622 27219 net.cpp:141] Setting up probs
I0925 23:14:41.204644 27233 net.cpp:141] Setting up probs
I0925 23:14:41.204661 27219 net.cpp:148] Top shape: 1 1 46168 (46168)
I0925 23:14:41.204665 27233 net.cpp:148] Top shape: 1 1 46168 (46168)
I0925 23:14:41.204668 27219 net.cpp:156] Memory required for data: 405756
I0925 23:14:41.204671 27233 net.cpp:156] Memory required for data: 405756
I0925 23:14:41.204676 27219 net.cpp:219] probs does not need backward computation.
I0925 23:14:41.204677 27233 net.cpp:219] probs does not need backward computation.
I0925 23:14:41.204685 27219 net.cpp:219] predict does not need backward computation.
…
I0925 23:14:41.204728 27219 net.cpp:219] reshape_frames does not need backward computation.
I0925 23:14:41.204733 27219 net.cpp:219] embed_encoder does not need backward computation.
I0925 23:14:41.204738 27219 net.cpp:219] cont_sentence_input_1_split does not need backward computation.
I0925 23:14:41.204744 27219 net.cpp:219] input does not need backward computation.
I0925 23:14:41.204748 27219 net.cpp:261] This network produces output probs
I0925 23:14:41.204766 27219 net.cpp:274] Network initialization done.
I0925 23:14:41.204799 27241 net.cpp:141] Setting up pool1
I0925 23:14:41.204825 27241 net.cpp:148] Top shape: 10 96 27 27 (699840)
I0925 23:14:41.204830 27241 net.cpp:156] Memory required for data: 32214840
I0925 23:14:41.205245 27241 layer_factory.hpp:77] Creating layer norm1
I0925 23:14:41.205243 27233 net.cpp:219] reshape_stage_indicator does not need backward computation.
I0925 23:14:41.205279 27233 net.cpp:219] reshape_frames does not need backward computation.
I0925 23:14:41.205286 27233 net.cpp:219] embed_encoder does not need backward computation.
I0925 23:14:41.205292 27233 net.cpp:219] cont_sentence_input_1_split does not need backward computation.
I0925 23:14:41.205296 27241 net.cpp:91] Creating Layer norm1
I0925 23:14:41.205299 27233 net.cpp:219] input does not need backward computation.
I0925 23:14:41.205304 27233 net.cpp:261] This network produces output probs
I0925 23:14:41.205307 27241 net.cpp:425] norm1 <- pool1
I0925 23:14:41.205318 27241 net.cpp:399] norm1 -> norm1
I0925 23:14:41.205322 27233 net.cpp:274] Network initialization done.
I0925 23:14:41.206225 27241 net.cpp:141] Setting up norm1
I0925 23:14:41.206260 27241 net.cpp:148] Top shape: 10 96 27 27 (699840)
I0925 23:14:41.206266 27241 net.cpp:156] Memory required for data: 35014200
I0925 23:14:41.206277 27241 layer_factory.hpp:77] Creating layer conv2
I0925 23:14:41.206307 27241 net.cpp:91] Creating Layer conv2
I0925 23:14:41.206315 27241 net.cpp:425] conv2 <- norm1
I0925 23:14:41.206328 27241 net.cpp:399] conv2 -> conv2
I0925 23:14:41.222298 27241 net.cpp:141] Setting up conv2
I0925 23:14:41.222371 27241 net.cpp:148] Top shape: 10 256 27 27 (1866240)
I0925 23:14:41.222383 27241 net.cpp:156] Memory required for data: 42479160
I0925 23:14:41.222420 27241 layer_factory.hpp:77] Creating layer relu2
I0925 23:14:41.222445 27241 net.cpp:91] Creating Layer relu2
I0925 23:14:41.222460 27241 net.cpp:425] relu2 <- conv2
I0925 23:14:41.222476 27241 net.cpp:386] relu2 -> conv2 (in-place)
I0925 23:14:41.228165 27241 net.cpp:141] Setting up relu2
I0925 23:14:41.228241 27241 net.cpp:148] Top shape: 10 256 27 27 (1866240)
I0925 23:14:41.228255 27241 net.cpp:156] Memory required for data: 49944120
I0925 23:14:41.228271 27241 layer_factory.hpp:77] Creating layer pool2
I0925 23:14:41.228305 27241 net.cpp:91] Creating Layer pool2
I0925 23:14:41.228318 27241 net.cpp:425] pool2 <- conv2
I0925 23:14:41.228691 27241 net.cpp:399] pool2 -> pool2
I0925 23:14:41.229678 27241 net.cpp:141] Setting up pool2
I0925 23:14:41.229743 27241 net.cpp:148] Top shape: 10 256 13 13 (432640)
I0925 23:14:41.229871 27241 net.cpp:156] Memory required for data: 51674680
I0925 23:14:41.229907 27241 layer_factory.hpp:77] Creating layer norm2
I0925 23:14:41.230387 27241 net.cpp:91] Creating Layer norm2
I0925 23:14:41.230408 27241 net.cpp:425] norm2 <- pool2
I0925 23:14:41.230442 27241 net.cpp:399] norm2 -> norm2
I0925 23:14:41.235721 27241 net.cpp:141] Setting up norm2
I0925 23:14:41.235803 27241 net.cpp:148] Top shape: 10 256 13 13 (432640)
I0925 23:14:41.235816 27241 net.cpp:156] Memory required for data: 53405240
I0925 23:14:41.235828 27241 layer_factory.hpp:77] Creating layer conv3
I0925 23:14:41.236385 27241 net.cpp:91] Creating Layer conv3
I0925 23:14:41.236405 27241 net.cpp:425] conv3 <- norm2
I0925 23:14:41.236479 27241 net.cpp:399] conv3 -> conv3
I0925 23:14:41.272094 27241 net.cpp:141] Setting up conv3
I0925 23:14:41.272202 27241 net.cpp:148] Top shape: 10 384 13 13 (648960)
I0925 23:14:41.272227 27241 net.cpp:156] Memory required for data: 56001080
I0925 23:14:41.272285 27241 layer_factory.hpp:77] Creating layer relu3
I0925 23:14:41.272330 27241 net.cpp:91] Creating Layer relu3
I0925 23:14:41.272351 27241 net.cpp:425] relu3 <- conv3
I0925 23:14:41.272377 27241 net.cpp:386] relu3 -> conv3 (in-place)
I0925 23:14:41.276278 27241 net.cpp:141] Setting up relu3
I0925 23:14:41.276398 27241 net.cpp:148] Top shape: 10 384 13 13 (648960)
I0925 23:14:41.276427 27241 net.cpp:156] Memory required for data: 58596920
I0925 23:14:41.276456 27241 layer_factory.hpp:77] Creating layer conv4
I0925 23:14:41.276523 27241 net.cpp:91] Creating Layer conv4
I0925 23:14:41.276556 27241 net.cpp:425] conv4 <- conv3
I0925 23:14:41.277120 27241 net.cpp:399] conv4 -> conv4
I0925 23:14:41.296015 27241 net.cpp:141] Setting up conv4
I0925 23:14:41.296154 27241 net.cpp:148] Top shape: 10 384 13 13 (648960)
I0925 23:14:41.296169 27241 net.cpp:156] Memory required for data: 61192760
I0925 23:14:41.296217 27241 layer_factory.hpp:77] Creating layer relu4
I0925 23:14:41.296264 27241 net.cpp:91] Creating Layer relu4
I0925 23:14:41.296284 27241 net.cpp:425] relu4 <- conv4
I0925 23:14:41.296314 27241 net.cpp:386] relu4 -> conv4 (in-place)
I0925 23:14:41.298059 27241 net.cpp:141] Setting up relu4
I0925 23:14:41.298173 27241 net.cpp:148] Top shape: 10 384 13 13 (648960)
I0925 23:14:41.298187 27241 net.cpp:156] Memory required for data: 63788600
I0925 23:14:41.298228 27241 layer_factory.hpp:77] Creating layer conv5
I0925 23:14:41.298295 27241 net.cpp:91] Creating Layer conv5
I0925 23:14:41.298316 27241 net.cpp:425] conv5 <- conv4
I0925 23:14:41.298348 27241 net.cpp:399] conv5 -> conv5
I0925 23:14:41.309797 27241 net.cpp:141] Setting up conv5
I0925 23:14:41.309886 27241 net.cpp:148] Top shape: 10 256 13 13 (432640)
I0925 23:14:41.309900 27241 net.cpp:156] Memory required for data: 65519160
I0925 23:14:41.309943 27241 layer_factory.hpp:77] Creating layer relu5
I0925 23:14:41.309995 27241 net.cpp:91] Creating Layer relu5
I0925 23:14:41.310012 27241 net.cpp:425] relu5 <- conv5
I0925 23:14:41.310045 27241 net.cpp:386] relu5 -> conv5 (in-place)
I0925 23:14:41.311385 27241 net.cpp:141] Setting up relu5
I0925 23:14:41.311465 27241 net.cpp:148] Top shape: 10 256 13 13 (432640)
I0925 23:14:41.311480 27241 net.cpp:156] Memory required for data: 67249720
I0925 23:14:41.311496 27241 layer_factory.hpp:77] Creating layer pool5
I0925 23:14:41.311528 27241 net.cpp:91] Creating Layer pool5
I0925 23:14:41.311543 27241 net.cpp:425] pool5 <- conv5
I0925 23:14:41.311573 27241 net.cpp:399] pool5 -> pool5
I0925 23:14:41.311820 27241 net.cpp:141] Setting up pool5
I0925 23:14:41.311841 27241 net.cpp:148] Top shape: 10 256 6 6 (92160)
I0925 23:14:41.311851 27241 net.cpp:156] Memory required for data: 67618360
I0925 23:14:41.311861 27241 layer_factory.hpp:77] Creating layer fc6
I0925 23:14:41.311897 27241 net.cpp:91] Creating Layer fc6
I0925 23:14:41.311908 27241 net.cpp:425] fc6 <- pool5
I0925 23:14:41.311928 27241 net.cpp:399] fc6 -> fc6
I0925 23:14:41.480528 27241 net.cpp:141] Setting up fc6
I0925 23:14:41.480614 27241 net.cpp:148] Top shape: 10 4096 (40960)
I0925 23:14:41.480626 27241 net.cpp:156] Memory required for data: 67782200
I0925 23:14:41.480659 27241 layer_factory.hpp:77] Creating layer relu6
I0925 23:14:41.481096 27241 net.cpp:91] Creating Layer relu6
I0925 23:14:41.481118 27241 net.cpp:425] relu6 <- fc6
I0925 23:14:41.481137 27241 net.cpp:386] relu6 -> fc6 (in-place)
I0925 23:14:41.483239 27241 net.cpp:141] Setting up relu6
I0925 23:14:41.483311 27241 net.cpp:148] Top shape: 10 4096 (40960)
I0925 23:14:41.483324 27241 net.cpp:156] Memory required for data: 67946040
I0925 23:14:41.483337 27241 layer_factory.hpp:77] Creating layer drop6
I0925 23:14:41.483863 27241 net.cpp:91] Creating Layer drop6
I0925 23:14:41.483897 27241 net.cpp:425] drop6 <- fc6
I0925 23:14:41.483919 27241 net.cpp:386] drop6 -> fc6 (in-place)
I0925 23:14:41.484163 27241 net.cpp:141] Setting up drop6
I0925 23:14:41.484184 27241 net.cpp:148] Top shape: 10 4096 (40960)
I0925 23:14:41.484194 27241 net.cpp:156] Memory required for data: 68109880
I0925 23:14:41.484203 27241 layer_factory.hpp:77] Creating layer fc7
I0925 23:14:41.484225 27241 net.cpp:91] Creating Layer fc7
I0925 23:14:41.484232 27241 net.cpp:425] fc7 <- fc6
I0925 23:14:41.484259 27241 net.cpp:399] fc7 -> fc7
I0925 23:14:41.555165 27241 net.cpp:141] Setting up fc7
I0925 23:14:41.555238 27241 net.cpp:148] Top shape: 10 4096 (40960)
I0925 23:14:41.555250 27241 net.cpp:156] Memory required for data: 68273720
I0925 23:14:41.555282 27241 layer_factory.hpp:77] Creating layer relu7
I0925 23:14:41.555311 27241 net.cpp:91] Creating Layer relu7
I0925 23:14:41.555325 27241 net.cpp:425] relu7 <- fc7
I0925 23:14:41.555348 27241 net.cpp:386] relu7 -> fc7 (in-place)
I0925 23:14:41.556730 27241 net.cpp:141] Setting up relu7
I0925 23:14:41.556789 27241 net.cpp:148] Top shape: 10 4096 (40960)
I0925 23:14:41.556799 27241 net.cpp:156] Memory required for data: 68437560
I0925 23:14:41.556821 27241 layer_factory.hpp:77] Creating layer drop7
I0925 23:14:41.556850 27241 net.cpp:91] Creating Layer drop7
I0925 23:14:41.556862 27241 net.cpp:425] drop7 <- fc7
I0925 23:14:41.557226 27241 net.cpp:386] drop7 -> fc7 (in-place)
I0925 23:14:41.557456 27241 net.cpp:141] Setting up drop7
I0925 23:14:41.557481 27241 net.cpp:148] Top shape: 10 4096 (40960)
I0925 23:14:41.557492 27241 net.cpp:156] Memory required for data: 68601400
I0925 23:14:41.557503 27241 layer_factory.hpp:77] Creating layer fc8
I0925 23:14:41.557524 27241 net.cpp:91] Creating Layer fc8
I0925 23:14:41.557535 27241 net.cpp:425] fc8 <- fc7
I0925 23:14:41.557551 27241 net.cpp:399] fc8 -> fc8
I0925 23:14:41.580667 27241 net.cpp:141] Setting up fc8
I0925 23:14:41.580727 27241 net.cpp:148] Top shape: 10 1000 (10000)
I0925 23:14:41.580737 27241 net.cpp:156] Memory required for data: 68641400
I0925 23:14:41.580759 27241 layer_factory.hpp:77] Creating layer prob
I0925 23:14:41.581311 27241 net.cpp:91] Creating Layer prob
I0925 23:14:41.581342 27241 net.cpp:425] prob <- fc8
I0925 23:14:41.581368 27241 net.cpp:399] prob -> prob
I0925 23:14:41.584673 27241 net.cpp:141] Setting up prob
I0925 23:14:41.584754 27241 net.cpp:148] Top shape: 10 1000 (10000)
I0925 23:14:41.584767 27241 net.cpp:156] Memory required for data: 68681400
I0925 23:14:41.584785 27241 net.cpp:219] prob does not need backward computation.
I0925 23:14:41.584800 27241 net.cpp:219] fc8 does not need backward computation.
I0925 23:14:41.584813 27241 net.cpp:219] drop7 does not need backward computation.
I0925 23:14:41.584825 27241 net.cpp:219] relu7 does not need backward computation.
…
