…
W0925 23:59:49.647022 17987 upgrade_proto.cpp:71] Note that future Caffe releases will only support input layers and not input fields.
I0925 23:59:49.647197 18005 net.cpp:49] Initializing net from parameters: 
name: "s2vt:features_to_lstm"
state {
  phase: TEST
}
layer {
  name: "input"
  type: "Input"
  top: "frames_fc7"
  top: "cont_sentence"
  top: "input_sentence"
  top: "stage_indicator"
  input_param {
    shape {
      dim: 1
      dim: 4096
    }
    shape {
      dim: 1
      dim: 1
    }
    shape {
      dim: 1
      dim: 1
    }
    shape {
      dim: 1
      dim: 1
    }
  }
}
layer {
  name: "embed_encoder"
  type: "InnerProduct"
  bottom: "frames_fc7"
  top: "embedded_in_frames"
  param {
    lr_mult: 1
    decay_mult: 1
  }
  param {
    lr_mult: 2
    decay_mult: 0
  }
  inner_product_param {
    num_output: 500
    weight_filler {
      type: "xavier"
    }
    bias_filler {
      type: "constant"
      value: 0.2
    }
  }
}
layer {
  name: "reshape_frames"
  type: "Reshape"
  bottom: "embedded_in_frames"
  top: "embedded_input_frames"
  reshape_param {
    shape {
      dim: 1
      dim: 1
      dim: 500
    }
  }
}
layer {
  name: "reshape_stage_indicator"
  type: "Reshape"
  bottom: "stage_indicator"
  top: "reshaped_stage_indicator"
  reshape_param {
    shape {
      dim: 1
      dim: 1
      dim: 1
    }
  }
}
layer {
  name: "embedding"
  type: "Embed"
  bottom: "input_sentence"
  top: "embedded_input_sentence"
  param {
    lr_mult: 1
  }
  embed_param {
    num_output: 500
    input_dim: 46168
    bias_term: false
    weight_filler {
      type: "uniform"
      min: -0.08
      max: 0.08
    }
  }
}
layer {
  name: "lstm1"
  type: "LSTM"
  bottom: "embedded_input_frames"
  bottom: "cont_sentence"
  top: "lstm1"
  recurrent_param {
    num_output: 1000
    weight_filler {
      type: "uniform"
      min: -0.08
      max: 0.08
    }
    bias_filler {
      type: "constant"
      value: 0
    }
  }
}
layer {
  name: "concat"
  type: "Concat"
  bottom: "lstm1"
  bottom: "embedded_input_sentence"
  bottom: "reshaped_stage_indicator"
  top: "lstm1_video_sequence"
  concat_param {
    concat_dim: 2
  }
}
layer {
  name: "lstm2"
  type: "LSTM"
  bottom: "lstm1_video_sequence"
  bottom: "cont_sentence"
  top: "lstm2"
  recurrent_param {
    num_output: 1000
    weight_filler {
      type: "uniform"
      min: -0.08
      max: 0.08
    }
    bias_filler {
      type: "constant"
      value: 0
    }
  }
}
layer {
  name: "predict"
  type: "InnerProduct"
  bottom: "lstm2"
  top: "predict"
  param {
    lr_mult: 1
    decay_mult: 1
  }
  param {
    lr_mult: 2
    decay_mult: 0
  }
  inner_product_param {
    num_output: 46168
    weight_filler {
      type: "uniform"
      min: -0.08
      max: 0.08
    }
    bias_filler {
      type: "constant"
      value: 0
    }
    axis: 2
  }
}
layer {
  name: "probs"
  type: "Softmax"
  bottom: "predict"
  top: "probs"
  softmax_param {
    axis: 2
  }
}
I0925 23:59:49.647199 17967 net.cpp:49] Initializing net from parameters: 
name: "s2vt:features_to_lstm"
state {
  phase: TEST
}
layer {
  name: "input"
  type: "Input"
  top: "frames_fc7"
  top: "cont_sentence"
  top: "input_sentence"
  top: "stage_indicator"
  input_param {
    shape {
      dim: 1
      dim: 4096
    }
    shape {
      dim: 1
      dim: 1
    }
    shape {
      dim: 1
      dim: 1
    }
    shape {
      dim: 1
      dim: 1
    }
  }
}
layer {
  name: "embed_encoder"
  type: "InnerProduct"
  bottom: "frames_fc7"
  top: "embedded_in_frames"
  param {
    lr_mult: 1
    decay_mult: 1
  }
  param {
    lr_mult: 2
    decay_mult: 0
  }
  inner_product_param {
    num_output: 500
    weight_filler {
      type: "xavier"
    }
    bias_filler {
      type: "constant"
      value: 0.2
    }
  }
}
layer {
  name: "reshape_frames"
  type: "Reshape"
  bottom: "embedded_in_frames"
  top: "embedded_input_frames"
  reshape_param {
    shape {
      dim: 1
      dim: 1
      dim: 500
    }
  }
}
layer {
  name: "reshape_stage_indicator"
  type: "Reshape"
  bottom: "stage_indicator"
  top: "reshaped_stage_indicator"
  reshape_param {
    shape {
      dim: 1
      dim: 1
      dim: 1
    }
  }
}
layer {
  name: "embedding"
  type: "Embed"
  bottom: "input_sentence"
  top: "embedded_input_sentence"
  param {
    lr_mult: 1
  }
  embed_param {
    num_output: 500
    input_dim: 46168
    bias_term: false
    weight_filler {
      type: "uniform"
      min: -0.08
      max: 0.08
    }
  }
}
layer {
  name: "lstm1"
  type: "LSTM"
  bottom: "embedded_input_frames"
  bottom: "cont_sentence"
  top: "lstm1"
  recurrent_param {
    num_output: 1000
    weight_filler {
      type: "uniform"
      min: -0.08
      max: 0.08
    }
    bias_filler {
      type: "constant"
      value: 0
    }
  }
}
layer {
  name: "concat"
  type: "Concat"
  bottom: "lstm1"
  bottom: "embedded_input_sentence"
  bottom: "reshaped_stage_indicator"
  top: "lstm1_video_sequence"
  concat_param {
    concat_dim: 2
  }
}
layer {
  name: "lstm2"
  type: "LSTM"
  bottom: "lstm1_video_sequence"
  bottom: "cont_sentence"
  top: "lstm2"
  recurrent_param {
    num_output: 1000
    weight_filler {
      type: "uniform"
      min: -0.08
      max: 0.08
    }
    bias_filler {
      type: "constant"
      value: 0
    }
  }
}
layer {
  name: "predict"
  type: "InnerProduct"
  bottom: "lstm2"
  top: "predict"
  param {
    lr_mult: 1
    decay_mult: 1
  }
  param {
    lr_mult: 2
    decay_mult: 0
  }
  inner_product_param {
    num_output: 46168
    weight_filler {
      type: "uniform"
      min: -0.08
      max: 0.08
    }
    bias_filler {
      type: "constant"
      value: 0
    }
    axis: 2
  }
}
layer {
  name: "probs"
  type: "Softmax"
  bottom: "predict"
  top: "probs"
  softmax_param {
    axis: 2
  }
}
I0925 23:59:49.647205 17973 net.cpp:49] Initializing net from parameters: 
name: "s2vt:features_to_lstm"
state {
  phase: TEST
}
layer {
  name: "input"
  type: "Input"
  top: "frames_fc7"
  top: "cont_sentence"
  top: "input_sentence"
  top: "stage_indicator"
  input_param {
    shape {
      dim: 1
      dim: 4096
    }
    shape {
      dim: 1
      dim: 1
    }
    shape {
      dim: 1
      dim: 1
    }
    shape {
      dim: 1
      dim: 1
    }
  }
}
layer {
  name: "embed_encoder"
  type: "InnerProduct"
  bottom: "frames_fc7"
  top: "embedded_in_frames"
  param {
    lr_mult: 1
    decay_mult: 1
  }
  param {
    lr_mult: 2
    decay_mult: 0
  }
  inner_product_param {
    num_output: 500
    weight_filler {
      type: "xavier"
    }
    bias_filler {
      type: "constant"
      value: 0.2
    }
  }
}
layer {
  name: "reshape_frames"
  type: "Reshape"
  bottom: "embedded_in_frames"
  top: "embedded_input_frames"
  reshape_param {
    shape {
      dim: 1
      dim: 1
      dim: 500
    }
  }
}
layer {
  name: "reshape_stage_indicator"
  type: "Reshape"
  bottom: "stage_indicator"
  top: "reshaped_stage_indicator"
  reshape_param {
    shape {
      dim: 1
      dim: 1
      dim: 1
    }
  }
}
layer {
  name: "embedding"
  type: "Embed"
  bottom: "input_sentence"
  top: "embedded_input_sentence"
  param {
    lr_mult: 1
  }
  embed_param {
    num_output: 500
    input_dim: 46168
    bias_term: false
    weight_filler {
      type: "uniform"
      min: -0.08
      max: 0.08
    }
  }
}
layer {
  name: "lstm1"
  type: "LSTM"
  bottom: "embedded_input_frames"
  bottom: "cont_sentence"
  top: "lstm1"
  recurrent_param {
    num_output: 1000
    weight_filler {
      type: "uniform"
      min: -0.08
      max: 0.08
    }
    bias_filler {
      type: "constant"
      value: 0
    }
  }
}
layer {
  name: "concat"
  type: "Concat"
  bottom: "lstm1"
  bottom: "embedded_input_sentence"
  bottom: "reshaped_stage_indicator"
  top: "lstm1_video_sequence"
  concat_param {
    concat_dim: 2
  }
}
layer {
  name: "lstm2"
  type: "LSTM"
  bottom: "lstm1_video_sequence"
  bottom: "cont_sentence"
  top: "lstm2"
  recurrent_param {
    num_output: 1000
    weight_filler {
      type: "uniform"
      min: -0.08
      max: 0.08
    }
    bias_filler {
      type: "constant"
      value: 0
    }
  }
}
layer {
  name: "predict"
  type: "InnerProduct"
  bottom: "lstm2"
  top: "predict"
  param {
    lr_mult: 1
    decay_mult: 1
  }
  param {
    lr_mult: 2
    decay_mult: 0
  }
  inner_product_param {
    num_output: 46168
    weight_filler {
      type: "uniform"
      min: -0.08
      max: 0.08
    }
    bias_filler {
      type: "constant"
      value: 0
    }
    axis: 2
  }
}
layer {
  name: "probs"
  type: "Softmax"
  bottom: "predict"
  top: "probs"
  softmax_param {
    axis: 2
  }
}
I0925 23:59:49.647245 17969 net.cpp:49] Initializing net from parameters: 
name: "s2vt:features_to_lstm"
state {
  phase: TEST
}
layer {
  name: "input"
  type: "Input"
  top: "frames_fc7"
  top: "cont_sentence"
  top: "input_sentence"
  top: "stage_indicator"
  input_param {
    shape {
      dim: 1
      dim: 4096
    }
    shape {
      dim: 1
      dim: 1
    }
    shape {
      dim: 1
      dim: 1
    }
    shape {
      dim: 1
      dim: 1
    }
  }
}
layer {
  name: "embed_encoder"
  type: "InnerProduct"
  bottom: "frames_fc7"
  top: "embedded_in_frames"
  param {
    lr_mult: 1
    decay_mult: 1
  }
  param {
    lr_mult: 2
    decay_mult: 0
  }
  inner_product_param {
    num_output: 500
    weight_filler {
      type: "xavier"
    }
    bias_filler {
      type: "constant"
      value: 0.2
    }
  }
}
layer {
  name: "reshape_frames"
  type: "Reshape"
  bottom: "embedded_in_frames"
  top: "embedded_input_frames"
  reshape_param {
    shape {
      dim: 1
      dim: 1
      dim: 500
    }
  }
}
layer {
  name: "reshape_stage_indicator"
  type: "Reshape"
  bottom: "stage_indicator"
  top: "reshaped_stage_indicator"
  reshape_param {
    shape {
      dim: 1
      dim: 1
      dim: 1
    }
  }
}
layer {
  name: "embedding"
  type: "Embed"
  bottom: "input_sentence"
  top: "embedded_input_sentence"
  param {
    lr_mult: 1
  }
  embed_param {
    num_output: 500
    input_dim: 46168
    bias_term: false
    weight_filler {
      type: "uniform"
      min: -0.08
      max: 0.08
    }
  }
}
layer {
  name: "lstm1"
  type: "LSTM"
  bottom: "embedded_input_frames"
  bottom: "cont_sentence"
  top: "lstm1"
  recurrent_param {
    num_output: 1000
    weight_filler {
      type: "uniform"
      min: -0.08
      max: 0.08
    }
    bias_filler {
      type: "constant"
      value: 0
    }
  }
}
layer {
  name: "concat"
  type: "Concat"
  bottom: "lstm1"
  bottom: "embedded_input_sentence"
  bottom: "reshaped_stage_indicator"
  top: "lstm1_video_sequence"
  concat_param {
    concat_dim: 2
  }
}
layer {
  name: "lstm2"
  type: "LSTM"
  bottom: "lstm1_video_sequence"
  bottom: "cont_sentence"
  top: "lstm2"
  recurrent_param {
    num_output: 1000
    weight_filler {
      type: "uniform"
      min: -0.08
      max: 0.08
    }
    bias_filler {
      type: "constant"
      value: 0
    }
  }
}
layer {
  name: "predict"
  type: "InnerProduct"
  bottom: "lstm2"
  top: "predict"
  param {
    lr_mult: 1
    decay_mult: 1
  }
  param {
    lr_mult: 2
    decay_mult: 0
  }
  inner_product_param {
    num_output: 46168
    weight_filler {
      type: "uniform"
      min: -0.08
      max: 0.08
    }
    bias_filler {
      type: "constant"
      value: 0
    }
    axis: 2
  }
}
layer {
  name: "probs"
  type: "Softmax"
  bottom: "predict"
  top: "probs"
  softmax_param {
    axis: 2
  }
}
I0925 23:59:49.647203 17981 net.cpp:49] Initializing net from parameters: 
name: "s2vt:features_to_lstm"
state {
  phase: TEST
}
layer {
  name: "input"
  type: "Input"
  top: "frames_fc7"
  top: "cont_sentence"
  top: "input_sentence"
  top: "stage_indicator"
  input_param {
    shape {
      dim: 1
      dim: 4096
    }
    shape {
      dim: 1
      dim: 1
    }
    shape {
      dim: 1
      dim: 1
    }
    shape {
      dim: 1
      dim: 1
    }
  }
}
layer {
  name: "embed_encoder"
  type: "InnerProduct"
  bottom: "frames_fc7"
  top: "embedded_in_frames"
  param {
    lr_mult: 1
    decay_mult: 1
  }
  param {
    lr_mult: 2
    decay_mult: 0
  }
  inner_product_param {
    num_output: 500
    weight_filler {
      type: "xavier"
    }
    bias_filler {
      type: "constant"
      value: 0.2
    }
  }
}
layer {
  name: "reshape_frames"
  type: "Reshape"
  bottom: "embedded_in_frames"
  top: "embedded_input_frames"
  reshape_param {
    shape {
      dim: 1
      dim: 1
      dim: 500
    }
  }
}
layer {
  name: "reshape_stage_indicator"
  type: "Reshape"
  bottom: "stage_indicator"
  top: "reshaped_stage_indicator"
  reshape_param {
    shape {
      dim: 1
      dim: 1
      dim: 1
    }
  }
}
layer {
  name: "embedding"
  type: "Embed"
  bottom: "input_sentence"
  top: "embedded_input_sentence"
  param {
    lr_mult: 1
  }
  embed_param {
    num_output: 500
    input_dim: 46168
    bias_term: false
    weight_filler {
      type: "uniform"
      min: -0.08
      max: 0.08
    }
  }
}
layer {
  name: "lstm1"
  type: "LSTM"
  bottom: "embedded_input_frames"
  bottom: "cont_sentence"
  top: "lstm1"
  recurrent_param {
    num_output: 1000
    weight_filler {
      type: "uniform"
      min: -0.08
      max: 0.08
    }
    bias_filler {
      type: "constant"
      value: 0
    }
  }
}
layer {
  name: "concat"
  type: "Concat"
  bottom: "lstm1"
  bottom: "embedded_input_sentence"
  bottom: "reshaped_stage_indicator"
  top: "lstm1_video_sequence"
  concat_param {
    concat_dim: 2
  }
}
layer {
  name: "lstm2"
  type: "LSTM"
  bottom: "lstm1_video_sequence"
  bottom: "cont_sentence"
  top: "lstm2"
  recurrent_param {
    num_output: 1000
    weight_filler {
      type: "uniform"
      min: -0.08
      max: 0.08
    }
    bias_filler {
      type: "constant"
      value: 0
    }
  }
}
layer {
  name: "predict"
  type: "InnerProduct"
  bottom: "lstm2"
  top: "predict"
  param {
    lr_mult: 1
    decay_mult: 1
  }
  param {
    lr_mult: 2
    decay_mult: 0
  }
  inner_product_param {
    num_output: 46168
    weight_filler {
      type: "uniform"
      min: -0.08
      max: 0.08
    }
    bias_filler {
      type: "constant"
      value: 0
    }
    axis: 2
  }
}
layer {
  name: "probs"
  type: "Softmax"
  bottom: "predict"
  top: "probs"
  softmax_param {
    axis: 2
  }
}
I0925 23:59:49.647261 17989 net.cpp:49] Initializing net from parameters: 
name: "CaffeNet"
state {
  phase: TEST
}
layer {
  name: "data"
  type: "Input"
  top: "data"
  input_param {
    shape {
      dim: 10
      dim: 3
      dim: 227
      dim: 227
    }
  }
}
layer {
  name: "conv1"
  type: "Convolution"
  bottom: "data"
  top: "conv1"
  convolution_param {
    num_output: 96
    kernel_size: 11
    stride: 4
  }
}
layer {
  name: "relu1"
  type: "ReLU"
  bottom: "conv1"
  top: "conv1"
}
layer {
  name: "pool1"
  type: "Pooling"
  bottom: "conv1"
  top: "pool1"
  pooling_param {
    pool: MAX
    kernel_size: 3
    stride: 2
  }
}
layer {
  name: "norm1"
  type: "LRN"
  bottom: "pool1"
  top: "norm1"
  lrn_param {
    local_size: 5
    alpha: 0.0001
    beta: 0.75
  }
}
layer {
  name: "conv2"
  type: "Convolution"
  bottom: "norm1"
  top: "conv2"
  convolution_param {
    num_output: 256
    pad: 2
    kernel_size: 5
    group: 2
  }
}
layer {
  name: "relu2"
  type: "ReLU"
  bottom: "conv2"
  top: "conv2"
}
layer {
  name: "pool2"
  type: "Pooling"
  bottom: "conv2"
  top: "pool2"
  pooling_param {
    pool: MAX
    kernel_size: 3
    stride: 2
  }
}
layer {
  name: "norm2"
  type: "LRN"
  bottom: "pool2"
  top: "norm2"
  lrn_param {
    local_size: 5
    alpha: 0.0001
    beta: 0.75
  }
}
layer {
  name: "conv3"
  type: "Convolution"
  bottom: "norm2"
  top: "conv3"
  convolution_param {
    num_output: 384
    pad: 1
    kernel_size: 3
  }
}
layer {
  name: "relu3"
  type: "ReLU"
  bottom: "conv3"
  top: "conv3"
}
layer {
  name: "conv4"
  type: "Convolution"
  bottom: "conv3"
  top: "conv4"
  convolution_param {
    num_output: 384
    pad: 1
    kernel_size: 3
    group: 2
  }
}
layer {
  name: "relu4"
  type: "ReLU"
  bottom: "conv4"
  top: "conv4"
}
layer {
  name: "conv5"
  type: "Convolution"
  bottom: "conv4"
  top: "conv5"
  convolution_param {
    num_output: 256
    pad: 1
    kernel_size: 3
    group: 2
  }
}
layer {
  name: "relu5"
  type: "ReLU"
  bottom: "conv5"
  top: "conv5"
}
layer {
  name: "pool5"
  type: "Pooling"
  bottom: "conv5"
  top: "pool5"
  pooling_param {
    pool: MAX
    kernel_size: 3
    stride: 2
  }
}
layer {
  name: "fc6"
  type: "InnerProduct"
  bottom: "pool5"
  top: "fc6"
  inner_product_param {
    num_output: 4096
  }
}
layer {
  name: "relu6"
  type: "ReLU"
  bottom: "fc6"
  top: "fc6"
}
layer {
  name: "drop6"
  type: "Dropout"
  bottom: "fc6"
  top: "fc6"
  dropout_param {
    dropout_ratio: 0.5
  }
}
layer {
  name: "fc7"
  type: "InnerProduct"
  bottom: "fc6"
  top: "fc7"
  inner_product_param {
    num_output: 4096
  }
}
layer {
  name: "relu7"
  type: "ReLU"
  bottom: "fc7"
  top: "fc7"
}
layer {
  name: "drop7"
  type: "Dropout"
  bottom: "fc7"
  top: "fc7"
  dropout_param {
    dropout_ratio: 0.5
  }
}
layer {
  name: "fc8"
  type: "InnerProduct"
  bottom: "fc7"
  top: "fc8"
  inner_product_param {
    num_output: 1000
  }
}
layer {
  name: "prob"
  type: "Softmax"
  bottom: "fc8"
  top: "prob"
}
I0925 23:59:49.647248 17987 net.cpp:49] Initializing net from parameters: 
name: "s2vt:features_to_lstm"
state {
  phase: TEST
}
layer {
  name: "input"
  type: "Input"
  top: "frames_fc7"
  top: "cont_sentence"
  top: "input_sentence"
  top: "stage_indicator"
  input_param {
    shape {
      dim: 1
      dim: 4096
    }
    shape {
      dim: 1
      dim: 1
    }
    shape {
      dim: 1
      dim: 1
    }
    shape {
      dim: 1
      dim: 1
    }
  }
}
layer {
  name: "embed_encoder"
  type: "InnerProduct"
  bottom: "frames_fc7"
  top: "embedded_in_frames"
  param {
    lr_mult: 1
    decay_mult: 1
  }
  param {
    lr_mult: 2
    decay_mult: 0
  }
  inner_product_param {
    num_output: 500
    weight_filler {
      type: "xavier"
    }
    bias_filler {
      type: "constant"
      value: 0.2
    }
  }
}
layer {
  name: "reshape_frames"
  type: "Reshape"
  bottom: "embedded_in_frames"
  top: "embedded_input_frames"
  reshape_param {
    shape {
      dim: 1
      dim: 1
      dim: 500
    }
  }
}
layer {
  name: "reshape_stage_indicator"
  type: "Reshape"
  bottom: "stage_indicator"
  top: "reshaped_stage_indicator"
  reshape_param {
    shape {
      dim: 1
      dim: 1
      dim: 1
    }
  }
}
layer {
  name: "embedding"
  type: "Embed"
  bottom: "input_sentence"
  top: "embedded_input_sentence"
  param {
    lr_mult: 1
  }
  embed_param {
    num_output: 500
    input_dim: 46168
    bias_term: false
    weight_filler {
      type: "uniform"
      min: -0.08
      max: 0.08
    }
  }
}
layer {
  name: "lstm1"
  type: "LSTM"
  bottom: "embedded_input_frames"
  bottom: "cont_sentence"
  top: "lstm1"
  recurrent_param {
    num_output: 1000
    weight_filler {
      type: "uniform"
      min: -0.08
      max: 0.08
    }
    bias_filler {
      type: "constant"
      value: 0
    }
  }
}
layer {
  name: "concat"
  type: "Concat"
  bottom: "lstm1"
  bottom: "embedded_input_sentence"
  bottom: "reshaped_stage_indicator"
  top: "lstm1_video_sequence"
  concat_param {
    concat_dim: 2
  }
}
layer {
  name: "lstm2"
  type: "LSTM"
  bottom: "lstm1_video_sequence"
  bottom: "cont_sentence"
  top: "lstm2"
  recurrent_param {
    num_output: 1000
    weight_filler {
      type: "uniform"
      min: -0.08
      max: 0.08
    }
    bias_filler {
      type: "constant"
      value: 0
    }
  }
}
layer {
  name: "predict"
  type: "InnerProduct"
  bottom: "lstm2"
  top: "predict"
  param {
    lr_mult: 1
    decay_mult: 1
  }
  param {
    lr_mult: 2
    decay_mult: 0
  }
  inner_product_param {
    num_output: 46168
    weight_filler {
      type: "uniform"
      min: -0.08
      max: 0.08
    }
    bias_filler {
      type: "constant"
      value: 0
    }
    axis: 2
  }
}
layer {
  name: "probs"
  type: "Softmax"
  bottom: "predict"
  top: "probs"
  softmax_param {
    axis: 2
  }
}
I0925 23:59:49.647320 17963 net.cpp:49] Initializing net from parameters: 
name: "s2vt:features_to_lstm"
state {
  phase: TEST
}
layer {
  name: "input"
  type: "Input"
  top: "frames_fc7"
  top: "cont_sentence"
  top: "input_sentence"
  top: "stage_indicator"
  input_param {
    shape {
      dim: 1
      dim: 4096
    }
    shape {
      dim: 1
      dim: 1
    }
    shape {
      dim: 1
      dim: 1
    }
    shape {
      dim: 1
      dim: 1
    }
  }
}
layer {
  name: "embed_encoder"
  type: "InnerProduct"
  bottom: "frames_fc7"
  top: "embedded_in_frames"
  param {
    lr_mult: 1
    decay_mult: 1
  }
  param {
    lr_mult: 2
    decay_mult: 0
  }
  inner_product_param {
    num_output: 500
    weight_filler {
      type: "xavier"
    }
    bias_filler {
      type: "constant"
      value: 0.2
    }
  }
}
layer {
  name: "reshape_frames"
  type: "Reshape"
  bottom: "embedded_in_frames"
  top: "embedded_input_frames"
  reshape_param {
    shape {
      dim: 1
      dim: 1
      dim: 500
    }
  }
}
layer {
  name: "reshape_stage_indicator"
  type: "Reshape"
  bottom: "stage_indicator"
  top: "reshaped_stage_indicator"
  reshape_param {
    shape {
      dim: 1
      dim: 1
      dim: 1
    }
  }
}
layer {
  name: "embedding"
  type: "Embed"
  bottom: "input_sentence"
  top: "embedded_input_sentence"
  param {
    lr_mult: 1
  }
  embed_param {
    num_output: 500
    input_dim: 46168
    bias_term: false
    weight_filler {
      type: "uniform"
      min: -0.08
      max: 0.08
    }
  }
}
layer {
  name: "lstm1"
  type: "LSTM"
  bottom: "embedded_input_frames"
  bottom: "cont_sentence"
  top: "lstm1"
  recurrent_param {
    num_output: 1000
    weight_filler {
      type: "uniform"
      min: -0.08
      max: 0.08
    }
    bias_filler {
      type: "constant"
      value: 0
    }
  }
}
layer {
  name: "concat"
  type: "Concat"
  bottom: "lstm1"
  bottom: "embedded_input_sentence"
  bottom: "reshaped_stage_indicator"
  top: "lstm1_video_sequence"
  concat_param {
    concat_dim: 2
  }
}
layer {
  name: "lstm2"
  type: "LSTM"
  bottom: "lstm1_video_sequence"
  bottom: "cont_sentence"
  top: "lstm2"
  recurrent_param {
    num_output: 1000
    weight_filler {
      type: "uniform"
      min: -0.08
      max: 0.08
    }
    bias_filler {
      type: "constant"
      value: 0
    }
  }
}
layer {
  name: "predict"
  type: "InnerProduct"
  bottom: "lstm2"
  top: "predict"
  param {
    lr_mult: 1
    decay_mult: 1
  }
  param {
    lr_mult: 2
    decay_mult: 0
  }
  inner_product_param {
    num_output: 46168
    weight_filler {
      type: "uniform"
      min: -0.08
      max: 0.08
    }
    bias_filler {
      type: "constant"
      value: 0
    }
    axis: 2
  }
}
layer {
  name: "probs"
  type: "Softmax"
  bottom: "predict"
  top: "probs"
  softmax_param {
    axis: 2
  }
}
I0925 23:59:49.647338 18013 net.cpp:49] Initializing net from parameters: 
name: "s2vt:features_to_lstm"
state {
  phase: TEST
}
layer {
  name: "input"
  type: "Input"
  top: "frames_fc7"
  top: "cont_sentence"
  top: "input_sentence"
  top: "stage_indicator"
  input_param {
    shape {
      dim: 1
      dim: 4096
    }
    shape {
      dim: 1
      dim: 1
    }
    shape {
      dim: 1
      dim: 1
    }
    shape {
      dim: 1
      dim: 1
    }
  }
}
layer {
  name: "embed_encoder"
  type: "InnerProduct"
  bottom: "frames_fc7"
  top: "embedded_in_frames"
  param {
    lr_mult: 1
    decay_mult: 1
  }
  param {
    lr_mult: 2
    decay_mult: 0
  }
  inner_product_param {
    num_output: 500
    weight_filler {
      type: "xavier"
    }
    bias_filler {
      type: "constant"
      value: 0.2
    }
  }
}
layer {
  name: "reshape_frames"
  type: "Reshape"
  bottom: "embedded_in_frames"
  top: "embedded_input_frames"
  reshape_param {
    shape {
      dim: 1
      dim: 1
      dim: 500
    }
  }
}
layer {
  name: "reshape_stage_indicator"
  type: "Reshape"
  bottom: "stage_indicator"
  top: "reshaped_stage_indicator"
  reshape_param {
    shape {
      dim: 1
      dim: 1
      dim: 1
    }
  }
}
layer {
  name: "embedding"
  type: "Embed"
  bottom: "input_sentence"
  top: "embedded_input_sentence"
  param {
    lr_mult: 1
  }
  embed_param {
    num_output: 500
    input_dim: 46168
    bias_term: false
    weight_filler {
      type: "uniform"
      min: -0.08
      max: 0.08
    }
  }
}
layer {
  name: "lstm1"
  type: "LSTM"
  bottom: "embedded_input_frames"
  bottom: "cont_sentence"
  top: "lstm1"
  recurrent_param {
    num_output: 1000
    weight_filler {
      type: "uniform"
      min: -0.08
      max: 0.08
    }
    bias_filler {
      type: "constant"
      value: 0
    }
  }
}
layer {
  name: "concat"
  type: "Concat"
  bottom: "lstm1"
  bottom: "embedded_input_sentence"
  bottom: "reshaped_stage_indicator"
  top: "lstm1_video_sequence"
  concat_param {
    concat_dim: 2
  }
}
layer {
  name: "lstm2"
  type: "LSTM"
  bottom: "lstm1_video_sequence"
  bottom: "cont_sentence"
  top: "lstm2"
  recurrent_param {
    num_output: 1000
    weight_filler {
      type: "uniform"
      min: -0.08
      max: 0.08
    }
    bias_filler {
      type: "constant"
      value: 0
    }
  }
}
layer {
  name: "predict"
  type: "InnerProduct"
  bottom: "lstm2"
  top: "predict"
  param {
    lr_mult: 1
    decay_mult: 1
  }
  param {
    lr_mult: 2
    decay_mult: 0
  }
  inner_product_param {
    num_output: 46168
    weight_filler {
      type: "uniform"
      min: -0.08
      max: 0.08
    }
    bias_filler {
      type: "constant"
      value: 0
    }
    axis: 2
  }
}
layer {
  name: "probs"
  type: "Softmax"
  bottom: "predict"
  top: "probs"
  softmax_param {
    axis: 2
  }
}
I0925 23:59:49.647361 17981 layer_factory.hpp:77] Creating layer input
I0925 23:59:49.647362 17969 layer_factory.hpp:77] Creating layer input
I0925 23:59:49.647362 18005 layer_factory.hpp:77] Creating layer input
I0925 23:59:49.647362 17967 layer_factory.hpp:77] Creating layer input
I0925 23:59:49.647362 17973 layer_factory.hpp:77] Creating layer input
I0925 23:59:49.647362 18017 net.cpp:49] Initializing net from parameters: 
name: "s2vt:features_to_lstm"
state {
  phase: TEST
}
layer {
  name: "input"
  type: "Input"
  top: "frames_fc7"
  top: "cont_sentence"
  top: "input_sentence"
  top: "stage_indicator"
  input_param {
    shape {
      dim: 1
      dim: 4096
    }
    shape {
      dim: 1
      dim: 1
    }
    shape {
      dim: 1
      dim: 1
    }
    shape {
      dim: 1
      dim: 1
    }
  }
}
layer {
  name: "embed_encoder"
  type: "InnerProduct"
  bottom: "frames_fc7"
  top: "embedded_in_frames"
  param {
    lr_mult: 1
    decay_mult: 1
  }
  param {
    lr_mult: 2
    decay_mult: 0
  }
  inner_product_param {
    num_output: 500
    weight_filler {
      type: "xavier"
    }
    bias_filler {
      type: "constant"
      value: 0.2
    }
  }
}
layer {
  name: "reshape_frames"
  type: "Reshape"
  bottom: "embedded_in_frames"
  top: "embedded_input_frames"
  reshape_param {
    shape {
      dim: 1
      dim: 1
      dim: 500
    }
  }
}
layer {
  name: "reshape_stage_indicator"
  type: "Reshape"
  bottom: "stage_indicator"
  top: "reshaped_stage_indicator"
  reshape_param {
    shape {
      dim: 1
      dim: 1
      dim: 1
    }
  }
}
layer {
  name: "embedding"
  type: "Embed"
  bottom: "input_sentence"
  top: "embedded_input_sentence"
  param {
    lr_mult: 1
  }
  embed_param {
    num_output: 500
    input_dim: 46168
    bias_term: false
    weight_filler {
      type: "uniform"
      min: -0.08
      max: 0.08
    }
  }
}
layer {
  name: "lstm1"
  type: "LSTM"
  bottom: "embedded_input_frames"
  bottom: "cont_sentence"
  top: "lstm1"
  recurrent_param {
    num_output: 1000
    weight_filler {
      type: "uniform"
      min: -0.08
      max: 0.08
    }
    bias_filler {
      type: "constant"
      value: 0
    }
  }
}
layer {
  name: "concat"
  type: "Concat"
  bottom: "lstm1"
  bottom: "embedded_input_sentence"
  bottom: "reshaped_stage_indicator"
  top: "lstm1_video_sequence"
  concat_param {
    concat_dim: 2
  }
}
layer {
  name: "lstm2"
  type: "LSTM"
  bottom: "lstm1_video_sequence"
  bottom: "cont_sentence"
  top: "lstm2"
  recurrent_param {
    num_output: 1000
    weight_filler {
      type: "uniform"
      min: -0.08
      max: 0.08
    }
    bias_filler {
      type: "constant"
      value: 0
    }
  }
}
layer {
  name: "predict"
  type: "InnerProduct"
  bottom: "lstm2"
  top: "predict"
  param {
    lr_mult: 1
    decay_mult: 1
  }
  param {
    lr_mult: 2
    decay_mult: 0
  }
  inner_product_param {
    num_output: 46168
    weight_filler {
      type: "uniform"
      min: -0.08
      max: 0.08
    }
    bias_filler {
      type: "constant"
      value: 0
    }
    axis: 2
  }
}
layer {
  name: "probs"
  type: "Softmax"
  bottom: "predict"
  top: "probs"
  softmax_param {
    axis: 2
  }
}
I0925 23:59:49.647377 17987 layer_factory.hpp:77] Creating layer input
I0925 23:59:49.647413 18005 net.cpp:91] Creating Layer input
I0925 23:59:49.647418 17967 net.cpp:91] Creating Layer input
I0925 23:59:49.647420 17973 net.cpp:91] Creating Layer input
I0925 23:59:49.647421 17989 layer_factory.hpp:77] Creating layer data
I0925 23:59:49.647433 17973 net.cpp:399] input -> frames_fc7
…
I0925 23:59:49.647588 18017 net.cpp:399] input -> cont_sentence
I0925 23:59:49.647595 17963 net.cpp:399] input -> cont_sentence
I0925 23:59:49.647600 18013 net.cpp:399] input -> input_sentence
I0925 23:59:49.647608 17963 net.cpp:399] input -> input_sentence
I0925 23:59:49.647617 18013 net.cpp:399] input -> stage_indicator
I0925 23:59:49.647625 17963 net.cpp:399] input -> stage_indicator
I0925 23:59:49.647608 18017 net.cpp:399] input -> input_sentence
I0925 23:59:49.647649 18017 net.cpp:399] input -> stage_indicator
I0925 23:59:50.561342 17989 net.cpp:141] Setting up data
I0925 23:59:50.561424 17989 net.cpp:148] Top shape: 10 3 227 227 (1545870)
I0925 23:59:50.561436 17989 net.cpp:156] Memory required for data: 6183480
I0925 23:59:50.561465 17989 layer_factory.hpp:77] Creating layer conv1
I0925 23:59:50.561512 17989 net.cpp:91] Creating Layer conv1
I0925 23:59:50.561527 17989 net.cpp:425] conv1 <- data
I0925 23:59:50.561548 17989 net.cpp:399] conv1 -> conv1
I0925 23:59:50.561766 17973 net.cpp:141] Setting up input
I0925 23:59:50.561784 17973 net.cpp:148] Top shape: 1 4096 (4096)
I0925 23:59:50.561791 17973 net.cpp:148] Top shape: 1 1 (1)
I0925 23:59:50.561796 17973 net.cpp:148] Top shape: 1 1 (1)
I0925 23:59:50.561802 17973 net.cpp:148] Top shape: 1 1 (1)
I0925 23:59:50.561806 17973 net.cpp:156] Memory required for data: 16396
I0925 23:59:50.561811 17973 layer_factory.hpp:77] Creating layer cont_sentence_input_1_split
I0925 23:59:50.561830 17973 net.cpp:91] Creating Layer cont_sentence_input_1_split
I0925 23:59:50.561837 17973 net.cpp:425] cont_sentence_input_1_split <- cont_sentence
I0925 23:59:50.561859 17973 net.cpp:399] cont_sentence_input_1_split -> cont_sentence_input_1_split_0
I0925 23:59:50.561872 17973 net.cpp:399] cont_sentence_input_1_split -> cont_sentence_input_1_split_1
I0925 23:59:50.561986 17963 net.cpp:141] Setting up input
I0925 23:59:50.562026 17963 net.cpp:148] Top shape: 1 4096 (4096)
I0925 23:59:50.562036 17963 net.cpp:148] Top shape: 1 1 (1)
I0925 23:59:50.562042 17963 net.cpp:148] Top shape: 1 1 (1)
I0925 23:59:50.562047 17963 net.cpp:148] Top shape: 1 1 (1)
I0925 23:59:50.562052 17963 net.cpp:156] Memory required for data: 16396
I0925 23:59:50.562062 17963 layer_factory.hpp:77] Creating layer cont_sentence_input_1_split
I0925 23:59:50.562091 17963 net.cpp:91] Creating Layer cont_sentence_input_1_split
I0925 23:59:50.562103 17963 net.cpp:425] cont_sentence_input_1_split <- cont_sentence
I0925 23:59:50.562114 17967 net.cpp:141] Setting up input
I0925 23:59:50.562119 17963 net.cpp:399] cont_sentence_input_1_split -> cont_sentence_input_1_split_0
I0925 23:59:50.562139 17967 net.cpp:148] Top shape: 1 4096 (4096)
I0925 23:59:50.562151 17967 net.cpp:148] Top shape: 1 1 (1)
I0925 23:59:50.562155 17963 net.cpp:399] cont_sentence_input_1_split -> cont_sentence_input_1_split_1
I0925 23:59:50.562161 17967 net.cpp:148] Top shape: 1 1 (1)
I0925 23:59:50.562171 17967 net.cpp:148] Top shape: 1 1 (1)
I0925 23:59:50.562178 17967 net.cpp:156] Memory required for data: 16396
I0925 23:59:50.562187 17967 layer_factory.hpp:77] Creating layer cont_sentence_input_1_split
I0925 23:59:50.562201 17967 net.cpp:91] Creating Layer cont_sentence_input_1_split
I0925 23:59:50.562209 17967 net.cpp:425] cont_sentence_input_1_split <- cont_sentence
I0925 23:59:50.562224 17967 net.cpp:399] cont_sentence_input_1_split -> cont_sentence_input_1_split_0
I0925 23:59:50.562240 17967 net.cpp:399] cont_sentence_input_1_split -> cont_sentence_input_1_split_1
I0925 23:59:50.562247 17973 net.cpp:141] Setting up cont_sentence_input_1_split
I0925 23:59:50.562268 17973 net.cpp:148] Top shape: 1 1 (1)
I0925 23:59:50.562279 17973 net.cpp:148] Top shape: 1 1 (1)
I0925 23:59:50.562288 17973 net.cpp:156] Memory required for data: 16404
I0925 23:59:50.562297 17973 layer_factory.hpp:77] Creating layer embed_encoder
I0925 23:59:50.562326 17973 net.cpp:91] Creating Layer embed_encoder
I0925 23:59:50.562335 17973 net.cpp:425] embed_encoder <- frames_fc7
I0925 23:59:50.562350 17973 net.cpp:399] embed_encoder -> embedded_in_frames
I0925 23:59:50.562458 17969 net.cpp:141] Setting up input
I0925 23:59:50.562477 17969 net.cpp:148] Top shape: 1 4096 (4096)
I0925 23:59:50.562489 17969 net.cpp:148] Top shape: 1 1 (1)
I0925 23:59:50.562499 17969 net.cpp:148] Top shape: 1 1 (1)
I0925 23:59:50.562507 17969 net.cpp:148] Top shape: 1 1 (1)
I0925 23:59:50.562515 17969 net.cpp:156] Memory required for data: 16396
I0925 23:59:50.562522 17969 layer_factory.hpp:77] Creating layer cont_sentence_input_1_split
I0925 23:59:50.562539 17969 net.cpp:91] Creating Layer cont_sentence_input_1_split
I0925 23:59:50.562547 17969 net.cpp:425] cont_sentence_input_1_split <- cont_sentence
I0925 23:59:50.562561 17969 net.cpp:399] cont_sentence_input_1_split -> cont_sentence_input_1_split_0
I0925 23:59:50.562568 18017 net.cpp:141] Setting up input
I0925 23:59:50.562577 17969 net.cpp:399] cont_sentence_input_1_split -> cont_sentence_input_1_split_1
I0925 23:59:50.562582 18017 net.cpp:148] Top shape: 1 4096 (4096)
I0925 23:59:50.562588 18017 net.cpp:148] Top shape: 1 1 (1)
I0925 23:59:50.562613 18017 net.cpp:148] Top shape: 1 1 (1)
I0925 23:59:50.562625 18017 net.cpp:148] Top shape: 1 1 (1)
I0925 23:59:50.562633 18017 net.cpp:156] Memory required for data: 16396
I0925 23:59:50.562644 18017 layer_factory.hpp:77] Creating layer cont_sentence_input_1_split
I0925 23:59:50.562659 18017 net.cpp:91] Creating Layer cont_sentence_input_1_split
I0925 23:59:50.562666 18017 net.cpp:425] cont_sentence_input_1_split <- cont_sentence
I0925 23:59:50.562664 17969 net.cpp:141] Setting up cont_sentence_input_1_split
I0925 23:59:50.562690 18017 net.cpp:399] cont_sentence_input_1_split -> cont_sentence_input_1_split_0
I0925 23:59:50.562692 17969 net.cpp:148] Top shape: 1 1 (1)
I0925 23:59:50.562703 17969 net.cpp:148] Top shape: 1 1 (1)
I0925 23:59:50.562708 18017 net.cpp:399] cont_sentence_input_1_split -> cont_sentence_input_1_split_1
I0925 23:59:50.562711 17969 net.cpp:156] Memory required for data: 16404
I0925 23:59:50.562728 17969 layer_factory.hpp:77] Creating layer embed_encoder
I0925 23:59:50.562747 17969 net.cpp:91] Creating Layer embed_encoder
I0925 23:59:50.562755 17969 net.cpp:425] embed_encoder <- frames_fc7
I0925 23:59:50.562768 17969 net.cpp:399] embed_encoder -> embedded_in_frames
I0925 23:59:50.562844 18005 net.cpp:141] Setting up input
I0925 23:59:50.562860 18005 net.cpp:148] Top shape: 1 4096 (4096)
I0925 23:59:50.562865 17981 net.cpp:141] Setting up input
I0925 23:59:50.562870 18005 net.cpp:148] Top shape: 1 1 (1)
I0925 23:59:50.562891 17981 net.cpp:148] Top shape: 1 4096 (4096)
I0925 23:59:50.562898 18005 net.cpp:148] Top shape: 1 1 (1)
I0925 23:59:50.562904 17981 net.cpp:148] Top shape: 1 1 (1)
I0925 23:59:50.562908 18005 net.cpp:148] Top shape: 1 1 (1)
I0925 23:59:50.562916 17981 net.cpp:148] Top shape: 1 1 (1)
I0925 23:59:50.562917 18005 net.cpp:156] Memory required for data: 16396
I0925 23:59:50.562933 17981 net.cpp:148] Top shape: 1 1 (1)
I0925 23:59:50.562940 18005 layer_factory.hpp:77] Creating layer cont_sentence_input_1_split
I0925 23:59:50.562942 17981 net.cpp:156] Memory required for data: 16396
I0925 23:59:50.562954 17981 layer_factory.hpp:77] Creating layer cont_sentence_input_1_split
I0925 23:59:50.562958 18005 net.cpp:91] Creating Layer cont_sentence_input_1_split
I0925 23:59:50.562968 18005 net.cpp:425] cont_sentence_input_1_split <- cont_sentence
I0925 23:59:50.562971 17981 net.cpp:91] Creating Layer cont_sentence_input_1_split
I0925 23:59:50.562979 18005 net.cpp:399] cont_sentence_input_1_split -> cont_sentence_input_1_split_0
I0925 23:59:50.562988 17981 net.cpp:425] cont_sentence_input_1_split <- cont_sentence
I0925 23:59:50.562969 17987 net.cpp:141] Setting up input
I0925 23:59:50.562999 18005 net.cpp:399] cont_sentence_input_1_split -> cont_sentence_input_1_split_1
I0925 23:59:50.563004 17981 net.cpp:399] cont_sentence_input_1_split -> cont_sentence_input_1_split_0
I0925 23:59:50.563005 17987 net.cpp:148] Top shape: 1 4096 (4096)
I0925 23:59:50.563026 17987 net.cpp:148] Top shape: 1 1 (1)
I0925 23:59:50.563026 17981 net.cpp:399] cont_sentence_input_1_split -> cont_sentence_input_1_split_1
I0925 23:59:50.563048 17987 net.cpp:148] Top shape: 1 1 (1)
I0925 23:59:50.563058 17987 net.cpp:148] Top shape: 1 1 (1)
I0925 23:59:50.563066 17987 net.cpp:156] Memory required for data: 16396
I0925 23:59:50.563074 17987 layer_factory.hpp:77] Creating layer cont_sentence_input_1_split
I0925 23:59:50.563088 17987 net.cpp:91] Creating Layer cont_sentence_input_1_split
I0925 23:59:50.563098 17987 net.cpp:425] cont_sentence_input_1_split <- cont_sentence
I0925 23:59:50.563112 17987 net.cpp:399] cont_sentence_input_1_split -> cont_sentence_input_1_split_0
I0925 23:59:50.563128 17987 net.cpp:399] cont_sentence_input_1_split -> cont_sentence_input_1_split_1
I0925 23:59:50.563128 17981 net.cpp:141] Setting up cont_sentence_input_1_split
I0925 23:59:50.563154 17981 net.cpp:148] Top shape: 1 1 (1)
I0925 23:59:50.563168 17981 net.cpp:148] Top shape: 1 1 (1)
I0925 23:59:50.563175 17981 net.cpp:156] Memory required for data: 16404
I0925 23:59:50.563184 17981 layer_factory.hpp:77] Creating layer embed_encoder
I0925 23:59:50.563199 17981 net.cpp:91] Creating Layer embed_encoder
I0925 23:59:50.563205 17981 net.cpp:425] embed_encoder <- frames_fc7
I0925 23:59:50.563217 17981 net.cpp:399] embed_encoder -> embedded_in_frames
I0925 23:59:50.568029 18005 net.cpp:141] Setting up cont_sentence_input_1_split
I0925 23:59:50.568071 18005 net.cpp:148] Top shape: 1 1 (1)
I0925 23:59:50.568079 18005 net.cpp:148] Top shape: 1 1 (1)
I0925 23:59:50.568068 18013 net.cpp:141] Setting up input
I0925 23:59:50.568087 18005 net.cpp:156] Memory required for data: 16404
I0925 23:59:50.568115 18013 net.cpp:148] Top shape: 1 4096 (4096)
I0925 23:59:50.568116 18005 layer_factory.hpp:77] Creating layer embed_encoder
I0925 23:59:50.568128 18013 net.cpp:148] Top shape: 1 1 (1)
I0925 23:59:50.568135 18013 net.cpp:148] Top shape: 1 1 (1)
I0925 23:59:50.568141 18013 net.cpp:148] Top shape: 1 1 (1)
I0925 23:59:50.568145 18013 net.cpp:156] Memory required for data: 16396
I0925 23:59:50.568156 18013 layer_factory.hpp:77] Creating layer cont_sentence_input_1_split
I0925 23:59:50.568156 18005 net.cpp:91] Creating Layer embed_encoder
I0925 23:59:50.568169 17987 net.cpp:141] Setting up cont_sentence_input_1_split
I0925 23:59:50.568176 18013 net.cpp:91] Creating Layer cont_sentence_input_1_split
I0925 23:59:50.568173 18005 net.cpp:425] embed_encoder <- frames_fc7
I0925 23:59:50.568184 18013 net.cpp:425] cont_sentence_input_1_split <- cont_sentence
I0925 23:59:50.568192 17987 net.cpp:148] Top shape: 1 1 (1)
I0925 23:59:50.568202 18005 net.cpp:399] embed_encoder -> embedded_in_frames
I0925 23:59:50.568205 17987 net.cpp:148] Top shape: 1 1 (1)
I0925 23:59:50.568204 18013 net.cpp:399] cont_sentence_input_1_split -> cont_sentence_input_1_split_0
I0925 23:59:50.568212 17987 net.cpp:156] Memory required for data: 16404
I0925 23:59:50.568218 17987 layer_factory.hpp:77] Creating layer embed_encoder
I0925 23:59:50.568225 18013 net.cpp:399] cont_sentence_input_1_split -> cont_sentence_input_1_split_1
I0925 23:59:50.568236 17987 net.cpp:91] Creating Layer embed_encoder
I0925 23:59:50.568243 17987 net.cpp:425] embed_encoder <- frames_fc7
I0925 23:59:50.568250 17987 net.cpp:399] embed_encoder -> embedded_in_frames
I0925 23:59:50.568276 18017 net.cpp:141] Setting up cont_sentence_input_1_split
I0925 23:59:50.568298 18017 net.cpp:148] Top shape: 1 1 (1)
I0925 23:59:50.568305 18017 net.cpp:148] Top shape: 1 1 (1)
I0925 23:59:50.568310 18017 net.cpp:156] Memory required for data: 16404
I0925 23:59:50.568315 18017 layer_factory.hpp:77] Creating layer embed_encoder
I0925 23:59:50.568331 18017 net.cpp:91] Creating Layer embed_encoder
I0925 23:59:50.568337 18017 net.cpp:425] embed_encoder <- frames_fc7
I0925 23:59:50.568347 18017 net.cpp:399] embed_encoder -> embedded_in_frames
I0925 23:59:50.572417 17963 net.cpp:141] Setting up cont_sentence_input_1_split
I0925 23:59:50.572449 17963 net.cpp:148] Top shape: 1 1 (1)
I0925 23:59:50.572463 17963 net.cpp:148] Top shape: 1 1 (1)
I0925 23:59:50.572458 17967 net.cpp:141] Setting up cont_sentence_input_1_split
I0925 23:59:50.572481 17963 net.cpp:156] Memory required for data: 16404
I0925 23:59:50.572509 17967 net.cpp:148] Top shape: 1 1 (1)
I0925 23:59:50.572513 17963 layer_factory.hpp:77] Creating layer embed_encoder
I0925 23:59:50.572520 17967 net.cpp:148] Top shape: 1 1 (1)
I0925 23:59:50.572527 17967 net.cpp:156] Memory required for data: 16404
I0925 23:59:50.572535 17967 layer_factory.hpp:77] Creating layer embed_encoder
I0925 23:59:50.572540 17963 net.cpp:91] Creating Layer embed_encoder
I0925 23:59:50.572554 17963 net.cpp:425] embed_encoder <- frames_fc7
I0925 23:59:50.572552 17967 net.cpp:91] Creating Layer embed_encoder
I0925 23:59:50.572595 17963 net.cpp:399] embed_encoder -> embedded_in_frames
I0925 23:59:50.572597 17967 net.cpp:425] embed_encoder <- frames_fc7
I0925 23:59:50.572623 17967 net.cpp:399] embed_encoder -> embedded_in_frames
I0925 23:59:50.584774 18013 net.cpp:141] Setting up cont_sentence_input_1_split
I0925 23:59:50.584830 18013 net.cpp:148] Top shape: 1 1 (1)
I0925 23:59:50.584842 18013 net.cpp:148] Top shape: 1 1 (1)
I0925 23:59:50.584851 18013 net.cpp:156] Memory required for data: 16404
I0925 23:59:50.584861 18013 layer_factory.hpp:77] Creating layer embed_encoder
I0925 23:59:50.584889 18013 net.cpp:91] Creating Layer embed_encoder
I0925 23:59:50.584900 18013 net.cpp:425] embed_encoder <- frames_fc7
I0925 23:59:50.584918 18013 net.cpp:399] embed_encoder -> embedded_in_frames
I0925 23:59:50.607586 17981 net.cpp:141] Setting up embed_encoder
I0925 23:59:50.607633 17981 net.cpp:148] Top shape: 1 500 (500)
I0925 23:59:50.607640 17981 net.cpp:156] Memory required for data: 18404
I0925 23:59:50.607666 17981 layer_factory.hpp:77] Creating layer reshape_frames
I0925 23:59:50.610740 17981 net.cpp:91] Creating Layer reshape_frames
I0925 23:59:50.610785 17981 net.cpp:425] reshape_frames <- embedded_in_frames
I0925 23:59:50.610800 17981 net.cpp:399] reshape_frames -> embedded_input_frames
I0925 23:59:50.616938 17981 net.cpp:141] Setting up reshape_frames
I0925 23:59:50.616991 17981 net.cpp:148] Top shape: 1 1 500 (500)
I0925 23:59:50.616998 17981 net.cpp:156] Memory required for data: 20404
I0925 23:59:50.617007 17981 layer_factory.hpp:77] Creating layer reshape_stage_indicator
I0925 23:59:50.617029 17981 net.cpp:91] Creating Layer reshape_stage_indicator
I0925 23:59:50.617043 17981 net.cpp:425] reshape_stage_indicator <- stage_indicator
I0925 23:59:50.617058 17981 net.cpp:399] reshape_stage_indicator -> reshaped_stage_indicator
I0925 23:59:50.617077 17963 net.cpp:141] Setting up embed_encoder
I0925 23:59:50.617099 17963 net.cpp:148] Top shape: 1 500 (500)
I0925 23:59:50.617106 17963 net.cpp:156] Memory required for data: 18404
I0925 23:59:50.617130 17963 layer_factory.hpp:77] Creating layer reshape_frames
I0925 23:59:50.617146 17963 net.cpp:91] Creating Layer reshape_frames
I0925 23:59:50.617158 17963 net.cpp:425] reshape_frames <- embedded_in_frames
I0925 23:59:50.617172 17963 net.cpp:399] reshape_frames -> embedded_input_frames
I0925 23:59:50.617291 17981 net.cpp:141] Setting up reshape_stage_indicator
I0925 23:59:50.617306 17981 net.cpp:148] Top shape: 1 1 1 (1)
I0925 23:59:50.617316 17981 net.cpp:156] Memory required for data: 20408
I0925 23:59:50.617326 17981 layer_factory.hpp:77] Creating layer embedding
I0925 23:59:50.617341 17981 net.cpp:91] Creating Layer embedding
I0925 23:59:50.617347 17981 net.cpp:425] embedding <- input_sentence
I0925 23:59:50.617357 17981 net.cpp:399] embedding -> embedded_input_sentence
I0925 23:59:50.617418 17973 net.cpp:141] Setting up embed_encoder
I0925 23:59:50.617440 17973 net.cpp:148] Top shape: 1 500 (500)
I0925 23:59:50.617449 17973 net.cpp:156] Memory required for data: 18404
I0925 23:59:50.617471 17973 layer_factory.hpp:77] Creating layer reshape_frames
I0925 23:59:50.617506 17973 net.cpp:91] Creating Layer reshape_frames
I0925 23:59:50.617519 17973 net.cpp:425] reshape_frames <- embedded_in_frames
I0925 23:59:50.617532 17973 net.cpp:399] reshape_frames -> embedded_input_frames
I0925 23:59:50.617961 17963 net.cpp:141] Setting up reshape_frames
I0925 23:59:50.617977 17963 net.cpp:148] Top shape: 1 1 500 (500)
I0925 23:59:50.617985 17963 net.cpp:156] Memory required for data: 20404
I0925 23:59:50.617992 17963 layer_factory.hpp:77] Creating layer reshape_stage_indicator
I0925 23:59:50.618007 17963 net.cpp:91] Creating Layer reshape_stage_indicator
I0925 23:59:50.618016 17963 net.cpp:425] reshape_stage_indicator <- stage_indicator
I0925 23:59:50.618028 17963 net.cpp:399] reshape_stage_indicator -> reshaped_stage_indicator
I0925 23:59:50.618065 18005 net.cpp:141] Setting up embed_encoder
I0925 23:59:50.618078 18005 net.cpp:148] Top shape: 1 500 (500)
I0925 23:59:50.618085 18005 net.cpp:156] Memory required for data: 18404
I0925 23:59:50.618106 18005 layer_factory.hpp:77] Creating layer reshape_frames
I0925 23:59:50.618119 18005 net.cpp:91] Creating Layer reshape_frames
I0925 23:59:50.618127 18005 net.cpp:425] reshape_frames <- embedded_in_frames
I0925 23:59:50.618170 18005 net.cpp:399] reshape_frames -> embedded_input_frames
I0925 23:59:50.618166 17969 net.cpp:141] Setting up embed_encoder
I0925 23:59:50.618199 17969 net.cpp:148] Top shape: 1 500 (500)
I0925 23:59:50.618213 17969 net.cpp:156] Memory required for data: 18404
I0925 23:59:50.618219 17963 net.cpp:141] Setting up reshape_stage_indicator
I0925 23:59:50.618235 17963 net.cpp:148] Top shape: 1 1 1 (1)
I0925 23:59:50.618242 17963 net.cpp:156] Memory required for data: 20408
I0925 23:59:50.618250 17963 layer_factory.hpp:77] Creating layer embedding
I0925 23:59:50.618320 17963 net.cpp:91] Creating Layer embedding
I0925 23:59:50.618264 17973 net.cpp:141] Setting up reshape_frames
I0925 23:59:50.618333 17963 net.cpp:425] embedding <- input_sentence
I0925 23:59:50.618299 18005 net.cpp:141] Setting up reshape_frames
I0925 23:59:50.618350 17973 net.cpp:148] Top shape: 1 1 500 (500)
I0925 23:59:50.618249 17969 layer_factory.hpp:77] Creating layer reshape_frames
I0925 23:59:50.618362 17973 net.cpp:156] Memory required for data: 20404
I0925 23:59:50.618371 17973 layer_factory.hpp:77] Creating layer reshape_stage_indicator
I0925 23:59:50.618389 17969 net.cpp:91] Creating Layer reshape_frames
I0925 23:59:50.618405 17969 net.cpp:425] reshape_frames <- embedded_in_frames
I0925 23:59:50.618419 17969 net.cpp:399] reshape_frames -> embedded_input_frames
I0925 23:59:50.618464 17969 net.cpp:141] Setting up reshape_frames
I0925 23:59:50.618477 17969 net.cpp:148] Top shape: 1 1 500 (500)
I0925 23:59:50.618484 17969 net.cpp:156] Memory required for data: 20404
I0925 23:59:50.618491 17969 layer_factory.hpp:77] Creating layer reshape_stage_indicator
I0925 23:59:50.618506 17969 net.cpp:91] Creating Layer reshape_stage_indicator
I0925 23:59:50.618515 17969 net.cpp:425] reshape_stage_indicator <- stage_indicator
I0925 23:59:50.618542 17969 net.cpp:399] reshape_stage_indicator -> reshaped_stage_indicator
I0925 23:59:50.618590 17969 net.cpp:141] Setting up reshape_stage_indicator
I0925 23:59:50.618621 17969 net.cpp:148] Top shape: 1 1 1 (1)
I0925 23:59:50.618628 17969 net.cpp:156] Memory required for data: 20408
I0925 23:59:50.618638 17969 layer_factory.hpp:77] Creating layer embedding
I0925 23:59:50.618652 17969 net.cpp:91] Creating Layer embedding
I0925 23:59:50.618659 17969 net.cpp:425] embedding <- input_sentence
I0925 23:59:50.618690 17969 net.cpp:399] embedding -> embedded_input_sentence
I0925 23:59:50.618389 17973 net.cpp:91] Creating Layer reshape_stage_indicator
I0925 23:59:50.618783 17973 net.cpp:425] reshape_stage_indicator <- stage_indicator
I0925 23:59:50.618351 18005 net.cpp:148] Top shape: 1 1 500 (500)
I0925 23:59:50.618806 18005 net.cpp:156] Memory required for data: 20404
I0925 23:59:50.618814 18005 layer_factory.hpp:77] Creating layer reshape_stage_indicator
I0925 23:59:50.618826 18005 net.cpp:91] Creating Layer reshape_stage_indicator
I0925 23:59:50.618834 18005 net.cpp:425] reshape_stage_indicator <- stage_indicator
I0925 23:59:50.618844 18005 net.cpp:399] reshape_stage_indicator -> reshaped_stage_indicator
I0925 23:59:50.620311 17973 net.cpp:399] reshape_stage_indicator -> reshaped_stage_indicator
I0925 23:59:50.621908 17963 net.cpp:399] embedding -> embedded_input_sentence
I0925 23:59:50.662792 18005 net.cpp:141] Setting up reshape_stage_indicator
I0925 23:59:50.662889 18005 net.cpp:148] Top shape: 1 1 1 (1)
I0925 23:59:50.662901 18005 net.cpp:156] Memory required for data: 20408
I0925 23:59:50.662889 17973 net.cpp:141] Setting up reshape_stage_indicator
I0925 23:59:50.662981 17973 net.cpp:148] Top shape: 1 1 1 (1)
I0925 23:59:50.662992 17973 net.cpp:156] Memory required for data: 20408
I0925 23:59:50.663005 17973 layer_factory.hpp:77] Creating layer embedding
I0925 23:59:50.663038 17973 net.cpp:91] Creating Layer embedding
I0925 23:59:50.663053 17973 net.cpp:425] embedding <- input_sentence
I0925 23:59:50.663087 17973 net.cpp:399] embedding -> embedded_input_sentence
I0925 23:59:50.663122 17987 net.cpp:141] Setting up embed_encoder
I0925 23:59:50.663143 17987 net.cpp:148] Top shape: 1 500 (500)
I0925 23:59:50.663152 17987 net.cpp:156] Memory required for data: 18404
I0925 23:59:50.663182 17987 layer_factory.hpp:77] Creating layer reshape_frames
I0925 23:59:50.663210 17987 net.cpp:91] Creating Layer reshape_frames
I0925 23:59:50.663223 17987 net.cpp:425] reshape_frames <- embedded_in_frames
I0925 23:59:50.663236 17987 net.cpp:399] reshape_frames -> embedded_input_frames
I0925 23:59:50.662922 18005 layer_factory.hpp:77] Creating layer embedding
I0925 23:59:50.666705 18005 net.cpp:91] Creating Layer embedding
I0925 23:59:50.666731 18005 net.cpp:425] embedding <- input_sentence
I0925 23:59:50.666750 18005 net.cpp:399] embedding -> embedded_input_sentence
I0925 23:59:50.811797 17987 net.cpp:141] Setting up reshape_frames
I0925 23:59:50.811852 17987 net.cpp:148] Top shape: 1 1 500 (500)
I0925 23:59:50.811858 17987 net.cpp:156] Memory required for data: 20404
I0925 23:59:50.811867 17987 layer_factory.hpp:77] Creating layer reshape_stage_indicator
I0925 23:59:50.811893 17987 net.cpp:91] Creating Layer reshape_stage_indicator
I0925 23:59:50.811902 17987 net.cpp:425] reshape_stage_indicator <- stage_indicator
I0925 23:59:50.811914 17987 net.cpp:399] reshape_stage_indicator -> reshaped_stage_indicator
I0925 23:59:50.855463 17967 net.cpp:141] Setting up embed_encoder
I0925 23:59:50.855518 17967 net.cpp:148] Top shape: 1 500 (500)
I0925 23:59:50.855527 17967 net.cpp:156] Memory required for data: 18404
I0925 23:59:50.855554 17967 layer_factory.hpp:77] Creating layer reshape_frames
I0925 23:59:50.855577 17967 net.cpp:91] Creating Layer reshape_frames
I0925 23:59:50.855588 17967 net.cpp:425] reshape_frames <- embedded_in_frames
I0925 23:59:50.855584 17987 net.cpp:141] Setting up reshape_stage_indicator
I0925 23:59:50.855608 17967 net.cpp:399] reshape_frames -> embedded_input_frames
I0925 23:59:50.855623 17987 net.cpp:148] Top shape: 1 1 1 (1)
I0925 23:59:50.855634 17987 net.cpp:156] Memory required for data: 20408
I0925 23:59:50.855645 17987 layer_factory.hpp:77] Creating layer embedding
I0925 23:59:50.855669 17987 net.cpp:91] Creating Layer embedding
I0925 23:59:50.855679 17987 net.cpp:425] embedding <- input_sentence
I0925 23:59:50.855695 17987 net.cpp:399] embedding -> embedded_input_sentence
I0925 23:59:50.855700 17969 net.cpp:141] Setting up embedding
I0925 23:59:50.855717 17969 net.cpp:148] Top shape: 1 1 500 (500)
I0925 23:59:50.855722 17969 net.cpp:156] Memory required for data: 22408
I0925 23:59:50.855736 17969 layer_factory.hpp:77] Creating layer lstm1
I0925 23:59:50.855758 17969 net.cpp:91] Creating Layer lstm1
I0925 23:59:50.855765 17969 net.cpp:425] lstm1 <- embedded_input_frames
I0925 23:59:50.855772 17969 net.cpp:425] lstm1 <- cont_sentence_input_1_split_0
I0925 23:59:50.855784 17969 net.cpp:399] lstm1 -> lstm1
I0925 23:59:50.855798 18013 net.cpp:141] Setting up embed_encoder
I0925 23:59:50.855805 17969 recurrent_layer.cpp:20] Initializing recurrent layer: assuming input batch contains 1 timesteps of 1 independent streams.
I0925 23:59:50.855834 18013 net.cpp:148] Top shape: 1 500 (500)
I0925 23:59:50.855844 18013 net.cpp:156] Memory required for data: 18404
I0925 23:59:50.855855 17967 net.cpp:141] Setting up reshape_frames
I0925 23:59:50.855867 18013 layer_factory.hpp:77] Creating layer reshape_frames
I0925 23:59:50.855871 17967 net.cpp:148] Top shape: 1 1 500 (500)
I0925 23:59:50.855888 18013 net.cpp:91] Creating Layer reshape_frames
I0925 23:59:50.855934 17967 net.cpp:156] Memory required for data: 20404
I0925 23:59:50.855965 18013 net.cpp:425] reshape_frames <- embedded_in_frames
I0925 23:59:50.855965 17967 layer_factory.hpp:77] Creating layer reshape_stage_indicator
I0925 23:59:50.855991 18013 net.cpp:399] reshape_frames -> embedded_input_frames
I0925 23:59:50.856001 17967 net.cpp:91] Creating Layer reshape_stage_indicator
I0925 23:59:50.856011 17967 net.cpp:425] reshape_stage_indicator <- stage_indicator
I0925 23:59:50.856024 17967 net.cpp:399] reshape_stage_indicator -> reshaped_stage_indicator
I0925 23:59:50.856194 17969 net.cpp:49] Initializing net from parameters: 
layer {
  name: "lstm1_"
  type: "Input"
  top: "x"
  top: "cont"
  input_param {
    shape {
      dim: 1
      dim: 1
      dim: 500
    }
    shape {
      dim: 1
      dim: 1
    }
  }
}
layer {
  name: "lstm1_"
  type: "Input"
  top: "c_0"
  top: "h_0"
  input_param {
    shape {
      dim: 1
      dim: 1
      dim: 1000
    }
    shape {
      dim: 1
      dim: 1
      dim: 1000
    }
  }
}
layer {
  name: "lstm1_cont_slice"
  type: "Slice"
  bottom: "cont"
  top: "cont_1"
  slice_param {
    axis: 0
  }
}
layer {
  name: "lstm1_x_transform"
  type: "InnerProduct"
  bottom: "x"
  top: "W_xc_x"
  param {
    name: "W_xc"
  }
  param {
    name: "b_c"
  }
  propagate_down: true
  inner_product_param {
    num_output: 4000
    bias_term: true
    weight_filler {
      type: "uniform"
      min: -0.08
      max: 0.08
    }
    bias_filler {
      type: "constant"
      value: 0
    }
    axis: 2
  }
}
layer {
  name: "lstm1_W_xc_x_slice"
  type: "Slice"
  bottom: "W_xc_x"
  top: "W_xc_x_1"
  slice_param {
    axis: 0
  }
}
layer {
  name: "lstm1_h_conted_0"
  type: "Scale"
  bottom: "h_0"
  bottom: "cont_1"
  top: "h_conted_0"
  scale_param {
    axis: 0
  }
}
layer {
  name: "lstm1_transform_1"
  type: "InnerProduct"
  bottom: "h_conted_0"
  top: "W_hc_h_0"
  param {
    name: "W_hc"
  }
  inner_product_param {
    num_output: 4000
    bias_term: false
    weight_filler {
      type: "uniform"
      min: -0.08
      max: 0.08
    }
    axis: 2
  }
}
layer {
  name: "lstm1_gate_input_1"
  type: "Eltwise"
  bottom: "W_hc_h_0"
  bottom: "W_xc_x_1"
  top: "gate_input_1"
  eltwise_param {
    operation: SUM
  }
}
layer {
  name: "lstm1_unit_1"
  type: "LSTMUnit"
  bottom: "c_0"
  bottom: "gate_input_1"
  bottom: "cont_1"
  top: "c_1"
  top: "h_1"
}
layer {
  name: "lstm1_"
  type: "Split"
  bottom: "c_1"
  top: "c_T"
}
layer {
  name: "lstm1_h_concat"
  type: "Concat"
  bottom: "h_1"
  top: "h"
  concat_param {
    axis: 0
  }
}
layer {
  name: "h_pseudoloss"
  type: "Reduction"
  bottom: "h"
  top: "h_pseudoloss"
  loss_weight: 1
}
I0925 23:59:50.856289 17969 layer_factory.hpp:77] Creating layer lstm1_
I0925 23:59:50.856302 17969 net.cpp:91] Creating Layer lstm1_
I0925 23:59:50.856308 17969 net.cpp:399] lstm1_ -> x
I0925 23:59:50.856320 17969 net.cpp:399] lstm1_ -> cont
I0925 23:59:50.857412 18017 net.cpp:141] Setting up embed_encoder
I0925 23:59:50.857430 18017 net.cpp:148] Top shape: 1 500 (500)
I0925 23:59:50.857436 18017 net.cpp:156] Memory required for data: 18404
I0925 23:59:50.857451 18017 layer_factory.hpp:77] Creating layer reshape_frames
I0925 23:59:50.857465 18017 net.cpp:91] Creating Layer reshape_frames
I0925 23:59:50.857472 18017 net.cpp:425] reshape_frames <- embedded_in_frames
I0925 23:59:50.857482 18017 net.cpp:399] reshape_frames -> embedded_input_frames
I0925 23:59:50.857478 18013 net.cpp:141] Setting up reshape_frames
I0925 23:59:50.857498 18013 net.cpp:148] Top shape: 1 1 500 (500)
I0925 23:59:50.857506 18013 net.cpp:156] Memory required for data: 20404
I0925 23:59:50.857514 17967 net.cpp:141] Setting up reshape_stage_indicator
I0925 23:59:50.857514 18013 layer_factory.hpp:77] Creating layer reshape_stage_indicator
I0925 23:59:50.857540 17967 net.cpp:148] Top shape: 1 1 1 (1)
I0925 23:59:50.857548 17967 net.cpp:156] Memory required for data: 20408
I0925 23:59:50.857553 18013 net.cpp:91] Creating Layer reshape_stage_indicator
I0925 23:59:50.857555 17967 layer_factory.hpp:77] Creating layer embedding
I0925 23:59:50.857563 18013 net.cpp:425] reshape_stage_indicator <- stage_indicator
I0925 23:59:50.857573 17967 net.cpp:91] Creating Layer embedding
I0925 23:59:50.857581 17967 net.cpp:425] embedding <- input_sentence
I0925 23:59:50.857583 18013 net.cpp:399] reshape_stage_indicator -> reshaped_stage_indicator
I0925 23:59:50.857594 17967 net.cpp:399] embedding -> embedded_input_sentence
I0925 23:59:50.901901 17969 net.cpp:141] Setting up lstm1_
I0925 23:59:50.901944 18017 net.cpp:141] Setting up reshape_frames
I0925 23:59:50.901993 18013 net.cpp:141] Setting up reshape_stage_indicator
I0925 23:59:50.902006 17969 net.cpp:148] Top shape: 1 1 500 (500)
I0925 23:59:50.902024 18013 net.cpp:148] Top shape: 1 1 1 (1)
I0925 23:59:50.902030 18013 net.cpp:156] Memory required for data: 20408
I0925 23:59:50.902004 18017 net.cpp:148] Top shape: 1 1 500 (500)
I0925 23:59:50.902042 18013 layer_factory.hpp:77] Creating layer embedding
I0925 23:59:50.902045 18017 net.cpp:156] Memory required for data: 20404
I0925 23:59:50.902052 18017 layer_factory.hpp:77] Creating layer reshape_stage_indicator
I0925 23:59:50.902055 17969 net.cpp:148] Top shape: 1 1 (1)
I0925 23:59:50.902073 18017 net.cpp:91] Creating Layer reshape_stage_indicator
I0925 23:59:50.902072 17969 net.cpp:156] Memory required for data: 2004
I0925 23:59:50.902086 18017 net.cpp:425] reshape_stage_indicator <- stage_indicator
I0925 23:59:50.902097 17969 layer_factory.hpp:77] Creating layer lstm1_
I0925 23:59:50.902107 18013 net.cpp:91] Creating Layer embedding
I0925 23:59:50.902108 18017 net.cpp:399] reshape_stage_indicator -> reshaped_stage_indicator
I0925 23:59:50.902117 18013 net.cpp:425] embedding <- input_sentence
I0925 23:59:50.902128 18013 net.cpp:399] embedding -> embedded_input_sentence
I0925 23:59:50.902140 17969 net.cpp:91] Creating Layer lstm1_
I0925 23:59:50.902182 18017 net.cpp:141] Setting up reshape_stage_indicator
I0925 23:59:50.902185 17969 net.cpp:399] lstm1_ -> c_0
I0925 23:59:50.902194 18017 net.cpp:148] Top shape: 1 1 1 (1)
I0925 23:59:50.902216 18017 net.cpp:156] Memory required for data: 20408
I0925 23:59:50.902222 18017 layer_factory.hpp:77] Creating layer embedding
I0925 23:59:50.902236 18017 net.cpp:91] Creating Layer embedding
I0925 23:59:50.902241 18017 net.cpp:425] embedding <- input_sentence
I0925 23:59:50.902243 17969 net.cpp:399] lstm1_ -> h_0
I0925 23:59:50.902251 18017 net.cpp:399] embedding -> embedded_input_sentence
I0925 23:59:50.947450 17973 net.cpp:141] Setting up embedding
I0925 23:59:50.947505 17973 net.cpp:148] Top shape: 1 1 500 (500)
I0925 23:59:50.947516 17973 net.cpp:156] Memory required for data: 22408
I0925 23:59:50.947556 17969 net.cpp:141] Setting up lstm1_
I0925 23:59:50.947579 17969 net.cpp:148] Top shape: 1 1 1000 (1000)
I0925 23:59:50.947590 17969 net.cpp:148] Top shape: 1 1 1000 (1000)
I0925 23:59:50.947597 17969 net.cpp:156] Memory required for data: 10004
I0925 23:59:50.947607 17969 layer_factory.hpp:77] Creating layer lstm1_cont_slice
I0925 23:59:50.947631 17969 net.cpp:91] Creating Layer lstm1_cont_slice
I0925 23:59:50.947641 17969 net.cpp:425] lstm1_cont_slice <- cont
I0925 23:59:50.947659 17969 net.cpp:399] lstm1_cont_slice -> cont_1
I0925 23:59:50.950059 17973 layer_factory.hpp:77] Creating layer lstm1
I0925 23:59:50.950152 17973 net.cpp:91] Creating Layer lstm1
I0925 23:59:50.950176 17973 net.cpp:425] lstm1 <- embedded_input_frames
I0925 23:59:50.950201 17973 net.cpp:425] lstm1 <- cont_sentence_input_1_split_0
I0925 23:59:50.950242 17973 net.cpp:399] lstm1 -> lstm1
I0925 23:59:50.950286 17973 recurrent_layer.cpp:20] Initializing recurrent layer: assuming input batch contains 1 timesteps of 1 independent streams.
I0925 23:59:50.950913 17973 net.cpp:49] Initializing net from parameters: 
layer {
  name: "lstm1_"
  type: "Input"
  top: "x"
  top: "cont"
  input_param {
    shape {
      dim: 1
      dim: 1
      dim: 500
    }
    shape {
      dim: 1
      dim: 1
    }
  }
}
layer {
  name: "lstm1_"
  type: "Input"
  top: "c_0"
  top: "h_0"
  input_param {
    shape {
      dim: 1
      dim: 1
      dim: 1000
    }
    shape {
      dim: 1
      dim: 1
      dim: 1000
    }
  }
}
layer {
  name: "lstm1_cont_slice"
  type: "Slice"
  bottom: "cont"
  top: "cont_1"
  slice_param {
    axis: 0
  }
}
layer {
  name: "lstm1_x_transform"
  type: "InnerProduct"
  bottom: "x"
  top: "W_xc_x"
  param {
    name: "W_xc"
  }
  param {
    name: "b_c"
  }
  propagate_down: true
  inner_product_param {
    num_output: 4000
    bias_term: true
    weight_filler {
      type: "uniform"
      min: -0.08
      max: 0.08
    }
    bias_filler {
      type: "constant"
      value: 0
    }
    axis: 2
  }
}
layer {
  name: "lstm1_W_xc_x_slice"
  type: "Slice"
  bottom: "W_xc_x"
  top: "W_xc_x_1"
  slice_param {
    axis: 0
  }
}
layer {
  name: "lstm1_h_conted_0"
  type: "Scale"
  bottom: "h_0"
  bottom: "cont_1"
  top: "h_conted_0"
  scale_param {
    axis: 0
  }
}
layer {
  name: "lstm1_transform_1"
  type: "InnerProduct"
  bottom: "h_conted_0"
  top: "W_hc_h_0"
  param {
    name: "W_hc"
  }
  inner_product_param {
    num_output: 4000
    bias_term: false
    weight_filler {
      type: "uniform"
      min: -0.08
      max: 0.08
    }
    axis: 2
  }
}
layer {
  name: "lstm1_gate_input_1"
  type: "Eltwise"
  bottom: "W_hc_h_0"
  bottom: "W_xc_x_1"
  top: "gate_input_1"
  eltwise_param {
    operation: SUM
  }
}
layer {
  name: "lstm1_unit_1"
  type: "LSTMUnit"
  bottom: "c_0"
  bottom: "gate_input_1"
  bottom: "cont_1"
  top: "c_1"
  top: "h_1"
}
layer {
  name: "lstm1_"
  type: "Split"
  bottom: "c_1"
  top: "c_T"
}
layer {
  name: "lstm1_h_concat"
  type: "Concat"
  bottom: "h_1"
  top: "h"
  concat_param {
    axis: 0
  }
}
layer {
  name: "h_pseudoloss"
  type: "Reduction"
  bottom: "h"
  top: "h_pseudoloss"
  loss_weight: 1
}
I0925 23:59:50.951127 17973 layer_factory.hpp:77] Creating layer lstm1_
I0925 23:59:50.951160 17973 net.cpp:91] Creating Layer lstm1_
I0925 23:59:50.951182 17973 net.cpp:399] lstm1_ -> x
I0925 23:59:50.951215 17973 net.cpp:399] lstm1_ -> cont
I0925 23:59:51.053228 17969 net.cpp:141] Setting up lstm1_cont_slice
I0925 23:59:51.053273 17973 net.cpp:141] Setting up lstm1_
I0925 23:59:51.053326 17973 net.cpp:148] Top shape: 1 1 500 (500)
I0925 23:59:51.053329 17969 net.cpp:148] Top shape: 1 1 (1)
I0925 23:59:51.053335 17973 net.cpp:148] Top shape: 1 1 (1)
I0925 23:59:51.053355 17973 net.cpp:156] Memory required for data: 2004
I0925 23:59:51.053359 17969 net.cpp:156] Memory required for data: 10008
I0925 23:59:51.053367 17973 layer_factory.hpp:77] Creating layer lstm1_
I0925 23:59:51.053376 17969 layer_factory.hpp:77] Creating layer cont_1_lstm1_cont_slice_0_split
I0925 23:59:51.053396 17973 net.cpp:91] Creating Layer lstm1_
I0925 23:59:51.053416 17973 net.cpp:399] lstm1_ -> c_0
I0925 23:59:51.053405 17981 net.cpp:141] Setting up embedding
I0925 23:59:51.053450 17963 net.cpp:141] Setting up embedding
I0925 23:59:51.053468 17981 net.cpp:148] Top shape: 1 1 500 (500)
I0925 23:59:51.053437 17973 net.cpp:399] lstm1_ -> h_0
I0925 23:59:51.053479 17963 net.cpp:148] Top shape: 1 1 500 (500)
I0925 23:59:51.053483 17981 net.cpp:156] Memory required for data: 22408
I0925 23:59:51.053418 17969 net.cpp:91] Creating Layer cont_1_lstm1_cont_slice_0_split
I0925 23:59:51.053509 17981 layer_factory.hpp:77] Creating layer lstm1
I0925 23:59:51.053488 17963 net.cpp:156] Memory required for data: 22408
I0925 23:59:51.053536 17981 net.cpp:91] Creating Layer lstm1
I0925 23:59:51.053534 17969 net.cpp:425] cont_1_lstm1_cont_slice_0_split <- cont_1
I0925 23:59:51.053550 17981 net.cpp:425] lstm1 <- embedded_input_frames
I0925 23:59:51.053544 18005 net.cpp:141] Setting up embedding
I0925 23:59:51.053563 17969 net.cpp:399] cont_1_lstm1_cont_slice_0_split -> cont_1_lstm1_cont_slice_0_split_0
I0925 23:59:51.053576 17981 net.cpp:425] lstm1 <- cont_sentence_input_1_split_0
I0925 23:59:51.053568 18005 net.cpp:148] Top shape: 1 1 500 (500)
I0925 23:59:51.053550 17963 layer_factory.hpp:77] Creating layer lstm1
I0925 23:59:51.053596 18005 net.cpp:156] Memory required for data: 22408
I0925 23:59:51.053603 17981 net.cpp:399] lstm1 -> lstm1
I0925 23:59:51.053613 18005 layer_factory.hpp:77] Creating layer lstm1
I0925 23:59:51.053616 17963 net.cpp:91] Creating Layer lstm1
I0925 23:59:51.053611 17969 net.cpp:399] cont_1_lstm1_cont_slice_0_split -> cont_1_lstm1_cont_slice_0_split_1
I0925 23:59:51.053633 17963 net.cpp:425] lstm1 <- embedded_input_frames
I0925 23:59:51.053602 17973 net.cpp:141] Setting up lstm1_
I0925 23:59:51.053653 17963 net.cpp:425] lstm1 <- cont_sentence_input_1_split_0
I0925 23:59:51.053629 18005 net.cpp:91] Creating Layer lstm1
I0925 23:59:51.053668 17963 net.cpp:399] lstm1 -> lstm1
I0925 23:59:51.053645 17981 recurrent_layer.cpp:20] Initializing recurrent layer: assuming input batch contains 1 timesteps of 1 independent streams.
I0925 23:59:51.053679 18005 net.cpp:425] lstm1 <- embedded_input_frames
I0925 23:59:51.053683 17973 net.cpp:148] Top shape: 1 1 1000 (1000)
I0925 23:59:51.053688 17963 recurrent_layer.cpp:20] Initializing recurrent layer: assuming input batch contains 1 timesteps of 1 independent streams.
I0925 23:59:51.053696 17973 net.cpp:148] Top shape: 1 1 1000 (1000)
I0925 23:59:51.053690 18005 net.cpp:425] lstm1 <- cont_sentence_input_1_split_0
I0925 23:59:51.053705 17973 net.cpp:156] Memory required for data: 10004
I0925 23:59:51.053714 17973 layer_factory.hpp:77] Creating layer lstm1_cont_slice
I0925 23:59:51.053721 18005 net.cpp:399] lstm1 -> lstm1
I0925 23:59:51.053731 17973 net.cpp:91] Creating Layer lstm1_cont_slice
I0925 23:59:51.053737 18005 recurrent_layer.cpp:20] Initializing recurrent layer: assuming input batch contains 1 timesteps of 1 independent streams.
I0925 23:59:51.053742 17973 net.cpp:425] lstm1_cont_slice <- cont
I0925 23:59:51.053760 17973 net.cpp:399] lstm1_cont_slice -> cont_1
I0925 23:59:51.054028 18005 net.cpp:49] Initializing net from parameters: 
layer {
  name: "lstm1_"
  type: "Input"
  top: "x"
  top: "cont"
  input_param {
    shape {
      dim: 1
      dim: 1
      dim: 500
    }
    shape {
      dim: 1
      dim: 1
    }
  }
}
layer {
  name: "lstm1_"
  type: "Input"
  top: "c_0"
  top: "h_0"
  input_param {
    shape {
      dim: 1
      dim: 1
      dim: 1000
    }
    shape {
      dim: 1
      dim: 1
      dim: 1000
    }
  }
}
layer {
  name: "lstm1_cont_slice"
  type: "Slice"
  bottom: "cont"
  top: "cont_1"
  slice_param {
    axis: 0
  }
}
layer {
  name: "lstm1_x_transform"
  type: "InnerProduct"
  bottom: "x"
  top: "W_xc_x"
  param {
    name: "W_xc"
  }
  param {
    name: "b_c"
  }
  propagate_down: true
  inner_product_param {
    num_output: 4000
    bias_term: true
    weight_filler {
      type: "uniform"
      min: -0.08
      max: 0.08
    }
    bias_filler {
      type: "constant"
      value: 0
    }
    axis: 2
  }
}
layer {
  name: "lstm1_W_xc_x_slice"
  type: "Slice"
  bottom: "W_xc_x"
  top: "W_xc_x_1"
  slice_param {
    axis: 0
  }
}
layer {
  name: "lstm1_h_conted_0"
  type: "Scale"
  bottom: "h_0"
  bottom: "cont_1"
  top: "h_conted_0"
  scale_param {
    axis: 0
  }
}
layer {
  name: "lstm1_transform_1"
  type: "InnerProduct"
  bottom: "h_conted_0"
  top: "W_hc_h_0"
  param {
    name: "W_hc"
  }
  inner_product_param {
    num_output: 4000
    bias_term: false
    weight_filler {
      type: "uniform"
      min: -0.08
      max: 0.08
    }
    axis: 2
  }
}
layer {
  name: "lstm1_gate_input_1"
  type: "Eltwise"
  bottom: "W_hc_h_0"
  bottom: "W_xc_x_1"
  top: "gate_input_1"
  eltwise_param {
    operation: SUM
  }
}
layer {
  name: "lstm1_unit_1"
  type: "LSTMUnit"
  bottom: "c_0"
  bottom: "gate_input_1"
  bottom: "cont_1"
  top: "c_1"
  top: "h_1"
}
layer {
  name: "lstm1_"
  type: "Split"
  bottom: "c_1"
  top: "c_T"
}
layer {
  name: "lstm1_h_concat"
  type: "Concat"
  bottom: "h_1"
  top: "h"
  concat_param {
    axis: 0
  }
}
layer {
  name: "h_pseudoloss"
  type: "Reduction"
  bottom: "h"
  top: "h_pseudoloss"
  loss_weight: 1
}
I0925 23:59:51.054069 17981 net.cpp:49] Initializing net from parameters: 
layer {
  name: "lstm1_"
  type: "Input"
  top: "x"
  top: "cont"
  input_param {
    shape {
      dim: 1
      dim: 1
      dim: 500
    }
    shape {
      dim: 1
      dim: 1
    }
  }
}
layer {
  name: "lstm1_"
  type: "Input"
  top: "c_0"
  top: "h_0"
  input_param {
    shape {
      dim: 1
      dim: 1
      dim: 1000
    }
    shape {
      dim: 1
      dim: 1
      dim: 1000
    }
  }
}
layer {
  name: "lstm1_cont_slice"
  type: "Slice"
  bottom: "cont"
  top: "cont_1"
  slice_param {
    axis: 0
  }
}
layer {
  name: "lstm1_x_transform"
  type: "InnerProduct"
  bottom: "x"
  top: "W_xc_x"
  param {
    name: "W_xc"
  }
  param {
    name: "b_c"
  }
  propagate_down: true
  inner_product_param {
    num_output: 4000
    bias_term: true
    weight_filler {
      type: "uniform"
      min: -0.08
      max: 0.08
    }
    bias_filler {
      type: "constant"
      value: 0
    }
    axis: 2
  }
}
layer {
  name: "lstm1_W_xc_x_slice"
  type: "Slice"
  bottom: "W_xc_x"
  top: "W_xc_x_1"
  slice_param {
    axis: 0
  }
}
layer {
  name: "lstm1_h_conted_0"
  type: "Scale"
  bottom: "h_0"
  bottom: "cont_1"
  top: "h_conted_0"
  scale_param {
    axis: 0
  }
}
layer {
  name: "lstm1_transform_1"
  type: "InnerProduct"
  bottom: "h_conted_0"
  top: "W_hc_h_0"
  param {
    name: "W_hc"
  }
  inner_product_param {
    num_output: 4000
    bias_term: false
    weight_filler {
      type: "uniform"
      min: -0.08
      max: 0.08
    }
    axis: 2
  }
}
layer {
  name: "lstm1_gate_input_1"
  type: "Eltwise"
  bottom: "W_hc_h_0"
  bottom: "W_xc_x_1"
  top: "gate_input_1"
  eltwise_param {
    operation: SUM
  }
}
layer {
  name: "lstm1_unit_1"
  type: "LSTMUnit"
  bottom: "c_0"
  bottom: "gate_input_1"
  bottom: "cont_1"
  top: "c_1"
  top: "h_1"
}
layer {
  name: "lstm1_"
  type: "Split"
  bottom: "c_1"
  top: "c_T"
}
layer {
  name: "lstm1_h_concat"
  type: "Concat"
  bottom: "h_1"
  top: "h"
  concat_param {
    axis: 0
  }
}
layer {
  name: "h_pseudoloss"
  type: "Reduction"
  bottom: "h"
  top: "h_pseudoloss"
  loss_weight: 1
}
I0925 23:59:51.054085 17963 net.cpp:49] Initializing net from parameters: 
layer {
  name: "lstm1_"
  type: "Input"
  top: "x"
  top: "cont"
  input_param {
    shape {
      dim: 1
      dim: 1
      dim: 500
    }
    shape {
      dim: 1
      dim: 1
    }
  }
}
layer {
  name: "lstm1_"
  type: "Input"
  top: "c_0"
  top: "h_0"
  input_param {
    shape {
      dim: 1
      dim: 1
      dim: 1000
    }
    shape {
      dim: 1
      dim: 1
      dim: 1000
    }
  }
}
layer {
  name: "lstm1_cont_slice"
  type: "Slice"
  bottom: "cont"
  top: "cont_1"
  slice_param {
    axis: 0
  }
}
layer {
  name: "lstm1_x_transform"
  type: "InnerProduct"
  bottom: "x"
  top: "W_xc_x"
  param {
    name: "W_xc"
  }
  param {
    name: "b_c"
  }
  propagate_down: true
  inner_product_param {
    num_output: 4000
    bias_term: true
    weight_filler {
      type: "uniform"
      min: -0.08
      max: 0.08
    }
    bias_filler {
      type: "constant"
      value: 0
    }
    axis: 2
  }
}
layer {
  name: "lstm1_W_xc_x_slice"
  type: "Slice"
  bottom: "W_xc_x"
  top: "W_xc_x_1"
  slice_param {
    axis: 0
  }
}
layer {
  name: "lstm1_h_conted_0"
  type: "Scale"
  bottom: "h_0"
  bottom: "cont_1"
  top: "h_conted_0"
  scale_param {
    axis: 0
  }
}
layer {
  name: "lstm1_transform_1"
  type: "InnerProduct"
  bottom: "h_conted_0"
  top: "W_hc_h_0"
  param {
    name: "W_hc"
  }
  inner_product_param {
    num_output: 4000
    bias_term: false
    weight_filler {
      type: "uniform"
      min: -0.08
      max: 0.08
    }
    axis: 2
  }
}
layer {
  name: "lstm1_gate_input_1"
  type: "Eltwise"
  bottom: "W_hc_h_0"
  bottom: "W_xc_x_1"
  top: "gate_input_1"
  eltwise_param {
    operation: SUM
  }
}
layer {
  name: "lstm1_unit_1"
  type: "LSTMUnit"
  bottom: "c_0"
  bottom: "gate_input_1"
  bottom: "cont_1"
  top: "c_1"
  top: "h_1"
}
layer {
  name: "lstm1_"
  type: "Split"
  bottom: "c_1"
  top: "c_T"
}
layer {
  name: "lstm1_h_concat"
  type: "Concat"
  bottom: "h_1"
  top: "h"
  concat_param {
    axis: 0
  }
}
layer {
  name: "h_pseudoloss"
  type: "Reduction"
  bottom: "h"
  top: "h_pseudoloss"
  loss_weight: 1
}
I0925 23:59:51.054129 18005 layer_factory.hpp:77] Creating layer lstm1_
I0925 23:59:51.054141 18005 net.cpp:91] Creating Layer lstm1_
I0925 23:59:51.054148 18005 net.cpp:399] lstm1_ -> x
I0925 23:59:51.054160 18005 net.cpp:399] lstm1_ -> cont
I0925 23:59:51.054198 17981 layer_factory.hpp:77] Creating layer lstm1_
I0925 23:59:51.054208 17963 layer_factory.hpp:77] Creating layer lstm1_
I0925 23:59:51.054215 17981 net.cpp:91] Creating Layer lstm1_
I0925 23:59:51.054224 17963 net.cpp:91] Creating Layer lstm1_
I0925 23:59:51.054225 17981 net.cpp:399] lstm1_ -> x
I0925 23:59:51.054235 17963 net.cpp:399] lstm1_ -> x
I0925 23:59:51.054244 17981 net.cpp:399] lstm1_ -> cont
I0925 23:59:51.054251 17963 net.cpp:399] lstm1_ -> cont
I0925 23:59:51.056145 17973 net.cpp:141] Setting up lstm1_cont_slice
I0925 23:59:51.056187 18005 net.cpp:141] Setting up lstm1_
I0925 23:59:51.056192 17973 net.cpp:148] Top shape: 1 1 (1)
I0925 23:59:51.056210 18005 net.cpp:148] Top shape: 1 1 500 (500)
I0925 23:59:51.056218 18005 net.cpp:148] Top shape: 1 1 (1)
I0925 23:59:51.056216 17973 net.cpp:156] Memory required for data: 10008
I0925 23:59:51.056222 18005 net.cpp:156] Memory required for data: 2004
I0925 23:59:51.056249 18005 layer_factory.hpp:77] Creating layer lstm1_
I0925 23:59:51.056251 17973 layer_factory.hpp:77] Creating layer cont_1_lstm1_cont_slice_0_split
I0925 23:59:51.056278 18005 net.cpp:91] Creating Layer lstm1_
I0925 23:59:51.056301 17973 net.cpp:91] Creating Layer cont_1_lstm1_cont_slice_0_split
I0925 23:59:51.056313 18005 net.cpp:399] lstm1_ -> c_0
I0925 23:59:51.056321 17973 net.cpp:425] cont_1_lstm1_cont_slice_0_split <- cont_1
I0925 23:59:51.056340 18005 net.cpp:399] lstm1_ -> h_0
I0925 23:59:51.056344 17973 net.cpp:399] cont_1_lstm1_cont_slice_0_split -> cont_1_lstm1_cont_slice_0_split_0
I0925 23:59:51.056340 17963 net.cpp:141] Setting up lstm1_
I0925 23:59:51.056370 17973 net.cpp:399] cont_1_lstm1_cont_slice_0_split -> cont_1_lstm1_cont_slice_0_split_1
I0925 23:59:51.056393 17963 net.cpp:148] Top shape: 1 1 500 (500)
I0925 23:59:51.056414 17963 net.cpp:148] Top shape: 1 1 (1)
I0925 23:59:51.056426 17963 net.cpp:156] Memory required for data: 2004
I0925 23:59:51.056445 17963 layer_factory.hpp:77] Creating layer lstm1_
I0925 23:59:51.056462 17969 net.cpp:141] Setting up cont_1_lstm1_cont_slice_0_split
I0925 23:59:51.056479 17969 net.cpp:148] Top shape: 1 1 (1)
I0925 23:59:51.056481 17963 net.cpp:91] Creating Layer lstm1_
I0925 23:59:51.056488 17969 net.cpp:148] Top shape: 1 1 (1)
I0925 23:59:51.056529 17969 net.cpp:156] Memory required for data: 10016
I0925 23:59:51.056536 17963 net.cpp:399] lstm1_ -> c_0
I0925 23:59:51.056545 17969 layer_factory.hpp:77] Creating layer lstm1_x_transform
I0925 23:59:51.056571 17969 net.cpp:91] Creating Layer lstm1_x_transform
I0925 23:59:51.056577 17969 net.cpp:425] lstm1_x_transform <- x
I0925 23:59:51.056591 17969 net.cpp:399] lstm1_x_transform -> W_xc_x
I0925 23:59:51.056578 17973 net.cpp:141] Setting up cont_1_lstm1_cont_slice_0_split
I0925 23:59:51.056577 17963 net.cpp:399] lstm1_ -> h_0
I0925 23:59:51.056639 17973 net.cpp:148] Top shape: 1 1 (1)
I0925 23:59:51.056658 17973 net.cpp:148] Top shape: 1 1 (1)
I0925 23:59:51.056669 17973 net.cpp:156] Memory required for data: 10016
I0925 23:59:51.056684 17973 layer_factory.hpp:77] Creating layer lstm1_x_transform
I0925 23:59:51.056720 17973 net.cpp:91] Creating Layer lstm1_x_transform
I0925 23:59:51.056732 17973 net.cpp:425] lstm1_x_transform <- x
I0925 23:59:51.056756 17973 net.cpp:399] lstm1_x_transform -> W_xc_x
I0925 23:59:51.063627 17963 net.cpp:141] Setting up lstm1_
I0925 23:59:51.063674 17963 net.cpp:148] Top shape: 1 1 1000 (1000)
I0925 23:59:51.063684 17963 net.cpp:148] Top shape: 1 1 1000 (1000)
I0925 23:59:51.063691 17963 net.cpp:156] Memory required for data: 10004
I0925 23:59:51.063701 17963 layer_factory.hpp:77] Creating layer lstm1_cont_slice
I0925 23:59:51.063727 17963 net.cpp:91] Creating Layer lstm1_cont_slice
I0925 23:59:51.063737 17963 net.cpp:425] lstm1_cont_slice <- cont
I0925 23:59:51.063740 18005 net.cpp:141] Setting up lstm1_
I0925 23:59:51.063763 17981 net.cpp:141] Setting up lstm1_
I0925 23:59:51.063755 17963 net.cpp:399] lstm1_cont_slice -> cont_1
I0925 23:59:51.063786 17981 net.cpp:148] Top shape: 1 1 500 (500)
I0925 23:59:51.063789 18005 net.cpp:148] Top shape: 1 1 1000 (1000)
I0925 23:59:51.063799 17981 net.cpp:148] Top shape: 1 1 (1)
I0925 23:59:51.063802 18005 net.cpp:148] Top shape: 1 1 1000 (1000)
I0925 23:59:51.063807 17981 net.cpp:156] Memory required for data: 2004
I0925 23:59:51.063810 18005 net.cpp:156] Memory required for data: 10004
I0925 23:59:51.063817 17981 layer_factory.hpp:77] Creating layer lstm1_
I0925 23:59:51.063822 18005 layer_factory.hpp:77] Creating layer lstm1_cont_slice
I0925 23:59:51.063835 17963 net.cpp:141] Setting up lstm1_cont_slice
I0925 23:59:51.063856 17963 net.cpp:148] Top shape: 1 1 (1)
I0925 23:59:51.063861 18005 net.cpp:91] Creating Layer lstm1_cont_slice
I0925 23:59:51.063863 17963 net.cpp:156] Memory required for data: 10008
I0925 23:59:51.063884 18005 net.cpp:425] lstm1_cont_slice <- cont
I0925 23:59:51.063889 17963 layer_factory.hpp:77] Creating layer cont_1_lstm1_cont_slice_0_split
I0925 23:59:51.063900 18005 net.cpp:399] lstm1_cont_slice -> cont_1
I0925 23:59:51.063902 17963 net.cpp:91] Creating Layer cont_1_lstm1_cont_slice_0_split
I0925 23:59:51.063923 17963 net.cpp:425] cont_1_lstm1_cont_slice_0_split <- cont_1
I0925 23:59:51.063936 17963 net.cpp:399] cont_1_lstm1_cont_slice_0_split -> cont_1_lstm1_cont_slice_0_split_0
I0925 23:59:51.063949 17963 net.cpp:399] cont_1_lstm1_cont_slice_0_split -> cont_1_lstm1_cont_slice_0_split_1
I0925 23:59:51.063838 17981 net.cpp:91] Creating Layer lstm1_
I0925 23:59:51.064813 17981 net.cpp:399] lstm1_ -> c_0
I0925 23:59:51.064838 17981 net.cpp:399] lstm1_ -> h_0
I0925 23:59:51.068053 18005 net.cpp:141] Setting up lstm1_cont_slice
I0925 23:59:51.068092 18005 net.cpp:148] Top shape: 1 1 (1)
I0925 23:59:51.068100 18005 net.cpp:156] Memory required for data: 10008
I0925 23:59:51.068110 18005 layer_factory.hpp:77] Creating layer cont_1_lstm1_cont_slice_0_split
I0925 23:59:51.068127 18005 net.cpp:91] Creating Layer cont_1_lstm1_cont_slice_0_split
I0925 23:59:51.068136 18005 net.cpp:425] cont_1_lstm1_cont_slice_0_split <- cont_1
I0925 23:59:51.068162 18005 net.cpp:399] cont_1_lstm1_cont_slice_0_split -> cont_1_lstm1_cont_slice_0_split_0
I0925 23:59:51.068168 17981 net.cpp:141] Setting up lstm1_
I0925 23:59:51.068179 18005 net.cpp:399] cont_1_lstm1_cont_slice_0_split -> cont_1_lstm1_cont_slice_0_split_1
I0925 23:59:51.068189 17981 net.cpp:148] Top shape: 1 1 1000 (1000)
I0925 23:59:51.068199 17981 net.cpp:148] Top shape: 1 1 1000 (1000)
I0925 23:59:51.068207 17981 net.cpp:156] Memory required for data: 10004
I0925 23:59:51.068215 17981 layer_factory.hpp:77] Creating layer lstm1_cont_slice
I0925 23:59:51.068229 17981 net.cpp:91] Creating Layer lstm1_cont_slice
I0925 23:59:51.068238 17981 net.cpp:425] lstm1_cont_slice <- cont
I0925 23:59:51.068249 17981 net.cpp:399] lstm1_cont_slice -> cont_1
I0925 23:59:51.068291 18005 net.cpp:141] Setting up cont_1_lstm1_cont_slice_0_split
I0925 23:59:51.068306 18005 net.cpp:148] Top shape: 1 1 (1)
I0925 23:59:51.068315 18005 net.cpp:148] Top shape: 1 1 (1)
I0925 23:59:51.068321 18005 net.cpp:156] Memory required for data: 10016
I0925 23:59:51.068328 18005 layer_factory.hpp:77] Creating layer lstm1_x_transform
I0925 23:59:51.068353 18005 net.cpp:91] Creating Layer lstm1_x_transform
I0925 23:59:51.068362 18005 net.cpp:425] lstm1_x_transform <- x
I0925 23:59:51.068374 18005 net.cpp:399] lstm1_x_transform -> W_xc_x
I0925 23:59:51.068599 17981 net.cpp:141] Setting up lstm1_cont_slice
I0925 23:59:51.068617 17981 net.cpp:148] Top shape: 1 1 (1)
I0925 23:59:51.068625 17981 net.cpp:156] Memory required for data: 10008
I0925 23:59:51.068634 17981 layer_factory.hpp:77] Creating layer cont_1_lstm1_cont_slice_0_split
I0925 23:59:51.068645 17981 net.cpp:91] Creating Layer cont_1_lstm1_cont_slice_0_split
I0925 23:59:51.068653 17981 net.cpp:425] cont_1_lstm1_cont_slice_0_split <- cont_1
I0925 23:59:51.068665 17981 net.cpp:399] cont_1_lstm1_cont_slice_0_split -> cont_1_lstm1_cont_slice_0_split_0
I0925 23:59:51.068678 17981 net.cpp:399] cont_1_lstm1_cont_slice_0_split -> cont_1_lstm1_cont_slice_0_split_1
I0925 23:59:51.068739 17981 net.cpp:141] Setting up cont_1_lstm1_cont_slice_0_split
I0925 23:59:51.068752 17981 net.cpp:148] Top shape: 1 1 (1)
I0925 23:59:51.068760 17981 net.cpp:148] Top shape: 1 1 (1)
I0925 23:59:51.068766 17981 net.cpp:156] Memory required for data: 10016
I0925 23:59:51.068774 17981 layer_factory.hpp:77] Creating layer lstm1_x_transform
I0925 23:59:51.068794 17981 net.cpp:91] Creating Layer lstm1_x_transform
I0925 23:59:51.068800 17981 net.cpp:425] lstm1_x_transform <- x
I0925 23:59:51.068815 17981 net.cpp:399] lstm1_x_transform -> W_xc_x
I0925 23:59:51.073139 17963 net.cpp:141] Setting up cont_1_lstm1_cont_slice_0_split
I0925 23:59:51.073179 17963 net.cpp:148] Top shape: 1 1 (1)
I0925 23:59:51.073189 17963 net.cpp:148] Top shape: 1 1 (1)
I0925 23:59:51.073197 17963 net.cpp:156] Memory required for data: 10016
I0925 23:59:51.073210 17963 layer_factory.hpp:77] Creating layer lstm1_x_transform
I0925 23:59:51.073243 17963 net.cpp:91] Creating Layer lstm1_x_transform
I0925 23:59:51.073256 17963 net.cpp:425] lstm1_x_transform <- x
I0925 23:59:51.073272 17963 net.cpp:399] lstm1_x_transform -> W_xc_x
I0925 23:59:51.091986 17969 net.cpp:141] Setting up lstm1_x_transform
I0925 23:59:51.092036 17969 net.cpp:148] Top shape: 1 1 4000 (4000)
I0925 23:59:51.092046 17969 net.cpp:156] Memory required for data: 26016
I0925 23:59:51.092077 17969 layer_factory.hpp:77] Creating layer lstm1_W_xc_x_slice
I0925 23:59:51.092103 17969 net.cpp:91] Creating Layer lstm1_W_xc_x_slice
I0925 23:59:51.092113 17969 net.cpp:425] lstm1_W_xc_x_slice <- W_xc_x
I0925 23:59:51.092126 17969 net.cpp:399] lstm1_W_xc_x_slice -> W_xc_x_1
I0925 23:59:51.092195 17981 net.cpp:141] Setting up lstm1_x_transform
I0925 23:59:51.092245 17981 net.cpp:148] Top shape: 1 1 4000 (4000)
I0925 23:59:51.092249 17969 net.cpp:141] Setting up lstm1_W_xc_x_slice
I0925 23:59:51.092255 17981 net.cpp:156] Memory required for data: 26016
I0925 23:59:51.092272 17969 net.cpp:148] Top shape: 1 1 4000 (4000)
I0925 23:59:51.092281 17969 net.cpp:156] Memory required for data: 42016
I0925 23:59:51.092288 17969 layer_factory.hpp:77] Creating layer lstm1_h_conted_0
I0925 23:59:51.092306 17981 layer_factory.hpp:77] Creating layer lstm1_W_xc_x_slice
I0925 23:59:51.092316 17969 net.cpp:91] Creating Layer lstm1_h_conted_0
I0925 23:59:51.092325 17969 net.cpp:425] lstm1_h_conted_0 <- h_0
I0925 23:59:51.092329 17981 net.cpp:91] Creating Layer lstm1_W_xc_x_slice
I0925 23:59:51.092335 17969 net.cpp:425] lstm1_h_conted_0 <- cont_1_lstm1_cont_slice_0_split_0
I0925 23:59:51.092349 17969 net.cpp:399] lstm1_h_conted_0 -> h_conted_0
I0925 23:59:51.092353 17981 net.cpp:425] lstm1_W_xc_x_slice <- W_xc_x
I0925 23:59:51.092370 17981 net.cpp:399] lstm1_W_xc_x_slice -> W_xc_x_1
I0925 23:59:51.103101 17987 net.cpp:141] Setting up embedding
I0925 23:59:51.103147 17987 net.cpp:148] Top shape: 1 1 500 (500)
I0925 23:59:51.103162 17987 net.cpp:156] Memory required for data: 22408
I0925 23:59:51.103188 17987 layer_factory.hpp:77] Creating layer lstm1
I0925 23:59:51.103212 17987 net.cpp:91] Creating Layer lstm1
I0925 23:59:51.103229 17987 net.cpp:425] lstm1 <- embedded_input_frames
I0925 23:59:51.103240 17987 net.cpp:425] lstm1 <- cont_sentence_input_1_split_0
I0925 23:59:51.103255 17987 net.cpp:399] lstm1 -> lstm1
I0925 23:59:51.103277 17987 recurrent_layer.cpp:20] Initializing recurrent layer: assuming input batch contains 1 timesteps of 1 independent streams.
I0925 23:59:51.103334 17969 net.cpp:141] Setting up lstm1_h_conted_0
I0925 23:59:51.103371 17969 net.cpp:148] Top shape: 1 1 1000 (1000)
I0925 23:59:51.103380 17969 net.cpp:156] Memory required for data: 46016
I0925 23:59:51.103391 17969 layer_factory.hpp:77] Creating layer lstm1_transform_1
I0925 23:59:51.103415 17969 net.cpp:91] Creating Layer lstm1_transform_1
I0925 23:59:51.103425 17969 net.cpp:425] lstm1_transform_1 <- h_conted_0
I0925 23:59:51.103444 17969 net.cpp:399] lstm1_transform_1 -> W_hc_h_0
I0925 23:59:51.111362 17987 net.cpp:49] Initializing net from parameters: 
layer {
  name: "lstm1_"
  type: "Input"
  top: "x"
  top: "cont"
  input_param {
    shape {
      dim: 1
      dim: 1
      dim: 500
    }
    shape {
      dim: 1
      dim: 1
    }
  }
}
layer {
  name: "lstm1_"
  type: "Input"
  top: "c_0"
  top: "h_0"
  input_param {
    shape {
      dim: 1
      dim: 1
      dim: 1000
    }
    shape {
      dim: 1
      dim: 1
      dim: 1000
    }
  }
}
layer {
  name: "lstm1_cont_slice"
  type: "Slice"
  bottom: "cont"
  top: "cont_1"
  slice_param {
    axis: 0
  }
}
layer {
  name: "lstm1_x_transform"
  type: "InnerProduct"
  bottom: "x"
  top: "W_xc_x"
  param {
    name: "W_xc"
  }
  param {
    name: "b_c"
  }
  propagate_down: true
  inner_product_param {
    num_output: 4000
    bias_term: true
    weight_filler {
      type: "uniform"
      min: -0.08
      max: 0.08
    }
    bias_filler {
      type: "constant"
      value: 0
    }
    axis: 2
  }
}
layer {
  name: "lstm1_W_xc_x_slice"
  type: "Slice"
  bottom: "W_xc_x"
  top: "W_xc_x_1"
  slice_param {
    axis: 0
  }
}
layer {
  name: "lstm1_h_conted_0"
  type: "Scale"
  bottom: "h_0"
  bottom: "cont_1"
  top: "h_conted_0"
  scale_param {
    axis: 0
  }
}
layer {
  name: "lstm1_transform_1"
  type: "InnerProduct"
  bottom: "h_conted_0"
  top: "W_hc_h_0"
  param {
    name: "W_hc"
  }
  inner_product_param {
    num_output: 4000
    bias_term: false
    weight_filler {
      type: "uniform"
      min: -0.08
      max: 0.08
    }
    axis: 2
  }
}
layer {
  name: "lstm1_gate_input_1"
  type: "Eltwise"
  bottom: "W_hc_h_0"
  bottom: "W_xc_x_1"
  top: "gate_input_1"
  eltwise_param {
    operation: SUM
  }
}
layer {
  name: "lstm1_unit_1"
  type: "LSTMUnit"
  bottom: "c_0"
  bottom: "gate_input_1"
  bottom: "cont_1"
  top: "c_1"
  top: "h_1"
}
layer {
  name: "lstm1_"
  type: "Split"
  bottom: "c_1"
  top: "c_T"
}
layer {
  name: "lstm1_h_concat"
  type: "Concat"
  bottom: "h_1"
  top: "h"
  concat_param {
    axis: 0
  }
}
layer {
  name: "h_pseudoloss"
  type: "Reduction"
  bottom: "h"
  top: "h_pseudoloss"
  loss_weight: 1
}
I0925 23:59:51.111572 17987 layer_factory.hpp:77] Creating layer lstm1_
I0925 23:59:51.111598 17987 net.cpp:91] Creating Layer lstm1_
I0925 23:59:51.111634 17987 net.cpp:399] lstm1_ -> x
I0925 23:59:51.111659 17987 net.cpp:399] lstm1_ -> cont
I0925 23:59:51.112722 17981 net.cpp:141] Setting up lstm1_W_xc_x_slice
I0925 23:59:51.112756 17981 net.cpp:148] Top shape: 1 1 4000 (4000)
I0925 23:59:51.112764 17981 net.cpp:156] Memory required for data: 42016
I0925 23:59:51.112773 17981 layer_factory.hpp:77] Creating layer lstm1_h_conted_0
I0925 23:59:51.112802 17981 net.cpp:91] Creating Layer lstm1_h_conted_0
I0925 23:59:51.112812 17981 net.cpp:425] lstm1_h_conted_0 <- h_0
I0925 23:59:51.112823 17981 net.cpp:425] lstm1_h_conted_0 <- cont_1_lstm1_cont_slice_0_split_0
I0925 23:59:51.112838 17981 net.cpp:399] lstm1_h_conted_0 -> h_conted_0
I0925 23:59:51.113005 17973 net.cpp:141] Setting up lstm1_x_transform
I0925 23:59:51.113044 17973 net.cpp:148] Top shape: 1 1 4000 (4000)
I0925 23:59:51.113050 17973 net.cpp:156] Memory required for data: 26016
I0925 23:59:51.113071 17973 layer_factory.hpp:77] Creating layer lstm1_W_xc_x_slice
I0925 23:59:51.113085 17987 net.cpp:141] Setting up lstm1_
I0925 23:59:51.113090 17973 net.cpp:91] Creating Layer lstm1_W_xc_x_slice
I0925 23:59:51.113106 17987 net.cpp:148] Top shape: 1 1 500 (500)
I0925 23:59:51.113111 17973 net.cpp:425] lstm1_W_xc_x_slice <- W_xc_x
I0925 23:59:51.113117 17987 net.cpp:148] Top shape: 1 1 (1)
I0925 23:59:51.113121 17973 net.cpp:399] lstm1_W_xc_x_slice -> W_xc_x_1
I0925 23:59:51.113126 17987 net.cpp:156] Memory required for data: 2004
I0925 23:59:51.113134 17987 layer_factory.hpp:77] Creating layer lstm1_
I0925 23:59:51.113152 17987 net.cpp:91] Creating Layer lstm1_
I0925 23:59:51.113163 17987 net.cpp:399] lstm1_ -> c_0
I0925 23:59:51.113179 17987 net.cpp:399] lstm1_ -> h_0
I0925 23:59:51.113204 17973 net.cpp:141] Setting up lstm1_W_xc_x_slice
I0925 23:59:51.113220 17973 net.cpp:148] Top shape: 1 1 4000 (4000)
I0925 23:59:51.113229 17973 net.cpp:156] Memory required for data: 42016
I0925 23:59:51.113236 17973 layer_factory.hpp:77] Creating layer lstm1_h_conted_0
I0925 23:59:51.113251 17973 net.cpp:91] Creating Layer lstm1_h_conted_0
I0925 23:59:51.113260 17973 net.cpp:425] lstm1_h_conted_0 <- h_0
I0925 23:59:51.113271 17973 net.cpp:425] lstm1_h_conted_0 <- cont_1_lstm1_cont_slice_0_split_0
I0925 23:59:51.113271 17987 net.cpp:141] Setting up lstm1_
I0925 23:59:51.113284 17973 net.cpp:399] lstm1_h_conted_0 -> h_conted_0
I0925 23:59:51.113289 17987 net.cpp:148] Top shape: 1 1 1000 (1000)
I0925 23:59:51.113301 17987 net.cpp:148] Top shape: 1 1 1000 (1000)
I0925 23:59:51.113307 17987 net.cpp:156] Memory required for data: 10004
I0925 23:59:51.113314 17987 layer_factory.hpp:77] Creating layer lstm1_cont_slice
I0925 23:59:51.113327 17987 net.cpp:91] Creating Layer lstm1_cont_slice
I0925 23:59:51.113334 17987 net.cpp:425] lstm1_cont_slice <- cont
I0925 23:59:51.113350 17987 net.cpp:399] lstm1_cont_slice -> cont_1
I0925 23:59:51.113534 17987 net.cpp:141] Setting up lstm1_cont_slice
I0925 23:59:51.113554 17987 net.cpp:148] Top shape: 1 1 (1)
I0925 23:59:51.113562 17987 net.cpp:156] Memory required for data: 10008
I0925 23:59:51.113570 17987 layer_factory.hpp:77] Creating layer cont_1_lstm1_cont_slice_0_split
I0925 23:59:51.113581 17987 net.cpp:91] Creating Layer cont_1_lstm1_cont_slice_0_split
I0925 23:59:51.113590 17987 net.cpp:425] cont_1_lstm1_cont_slice_0_split <- cont_1
I0925 23:59:51.113600 17987 net.cpp:399] cont_1_lstm1_cont_slice_0_split -> cont_1_lstm1_cont_slice_0_split_0
I0925 23:59:51.113613 17987 net.cpp:399] cont_1_lstm1_cont_slice_0_split -> cont_1_lstm1_cont_slice_0_split_1
I0925 23:59:51.113669 17973 net.cpp:141] Setting up lstm1_h_conted_0
I0925 23:59:51.113699 17973 net.cpp:148] Top shape: 1 1 1000 (1000)
I0925 23:59:51.113713 17973 net.cpp:156] Memory required for data: 46016
I0925 23:59:51.113724 17973 layer_factory.hpp:77] Creating layer lstm1_transform_1
I0925 23:59:51.113749 17973 net.cpp:91] Creating Layer lstm1_transform_1
I0925 23:59:51.113765 17973 net.cpp:425] lstm1_transform_1 <- h_conted_0
I0925 23:59:51.113786 17973 net.cpp:399] lstm1_transform_1 -> W_hc_h_0
I0925 23:59:51.114121 17987 net.cpp:141] Setting up cont_1_lstm1_cont_slice_0_split
I0925 23:59:51.114142 17987 net.cpp:148] Top shape: 1 1 (1)
I0925 23:59:51.114152 17987 net.cpp:148] Top shape: 1 1 (1)
I0925 23:59:51.114159 17987 net.cpp:156] Memory required for data: 10016
I0925 23:59:51.114167 17987 layer_factory.hpp:77] Creating layer lstm1_x_transform
I0925 23:59:51.114198 17987 net.cpp:91] Creating Layer lstm1_x_transform
I0925 23:59:51.114207 17987 net.cpp:425] lstm1_x_transform <- x
I0925 23:59:51.114220 17987 net.cpp:399] lstm1_x_transform -> W_xc_x
I0925 23:59:51.121031 18005 net.cpp:141] Setting up lstm1_x_transform
I0925 23:59:51.121080 18005 net.cpp:148] Top shape: 1 1 4000 (4000)
I0925 23:59:51.121088 18005 net.cpp:156] Memory required for data: 26016
I0925 23:59:51.127516 18005 layer_factory.hpp:77] Creating layer lstm1_W_xc_x_slice
I0925 23:59:51.127573 18005 net.cpp:91] Creating Layer lstm1_W_xc_x_slice
I0925 23:59:51.127581 18005 net.cpp:425] lstm1_W_xc_x_slice <- W_xc_x
I0925 23:59:51.127594 18005 net.cpp:399] lstm1_W_xc_x_slice -> W_xc_x_1
I0925 23:59:51.130882 18005 net.cpp:141] Setting up lstm1_W_xc_x_slice
I0925 23:59:51.130933 18005 net.cpp:148] Top shape: 1 1 4000 (4000)
I0925 23:59:51.130941 18005 net.cpp:156] Memory required for data: 42016
I0925 23:59:51.130941 17981 net.cpp:141] Setting up lstm1_h_conted_0
I0925 23:59:51.130955 18005 layer_factory.hpp:77] Creating layer lstm1_h_conted_0
I0925 23:59:51.130961 17981 net.cpp:148] Top shape: 1 1 1000 (1000)
I0925 23:59:51.130967 17981 net.cpp:156] Memory required for data: 46016
I0925 23:59:51.130973 17981 layer_factory.hpp:77] Creating layer lstm1_transform_1
I0925 23:59:51.130987 17981 net.cpp:91] Creating Layer lstm1_transform_1
I0925 23:59:51.130995 17981 net.cpp:425] lstm1_transform_1 <- h_conted_0
I0925 23:59:51.130997 18005 net.cpp:91] Creating Layer lstm1_h_conted_0
I0925 23:59:51.131008 17981 net.cpp:399] lstm1_transform_1 -> W_hc_h_0
I0925 23:59:51.131008 18005 net.cpp:425] lstm1_h_conted_0 <- h_0
I0925 23:59:51.131038 18005 net.cpp:425] lstm1_h_conted_0 <- cont_1_lstm1_cont_slice_0_split_0
I0925 23:59:51.131052 18005 net.cpp:399] lstm1_h_conted_0 -> h_conted_0
I0925 23:59:51.139817 17963 net.cpp:141] Setting up lstm1_x_transform
I0925 23:59:51.139865 17963 net.cpp:148] Top shape: 1 1 4000 (4000)
I0925 23:59:51.139871 17963 net.cpp:156] Memory required for data: 26016
I0925 23:59:51.139899 17963 layer_factory.hpp:77] Creating layer lstm1_W_xc_x_slice
I0925 23:59:51.139917 17963 net.cpp:91] Creating Layer lstm1_W_xc_x_slice
I0925 23:59:51.139925 17963 net.cpp:425] lstm1_W_xc_x_slice <- W_xc_x
I0925 23:59:51.139935 17963 net.cpp:399] lstm1_W_xc_x_slice -> W_xc_x_1
I0925 23:59:51.140008 17963 net.cpp:141] Setting up lstm1_W_xc_x_slice
I0925 23:59:51.140024 17963 net.cpp:148] Top shape: 1 1 4000 (4000)
I0925 23:59:51.140029 17963 net.cpp:156] Memory required for data: 42016
I0925 23:59:51.140034 17963 layer_factory.hpp:77] Creating layer lstm1_h_conted_0
I0925 23:59:51.140050 17963 net.cpp:91] Creating Layer lstm1_h_conted_0
I0925 23:59:51.140058 17963 net.cpp:425] lstm1_h_conted_0 <- h_0
I0925 23:59:51.140069 17963 net.cpp:425] lstm1_h_conted_0 <- cont_1_lstm1_cont_slice_0_split_0
I0925 23:59:51.140081 17963 net.cpp:399] lstm1_h_conted_0 -> h_conted_0
I0925 23:59:51.140192 17987 net.cpp:141] Setting up lstm1_x_transform
I0925 23:59:51.140229 17987 net.cpp:148] Top shape: 1 1 4000 (4000)
I0925 23:59:51.140236 17987 net.cpp:156] Memory required for data: 26016
I0925 23:59:51.140242 18005 net.cpp:141] Setting up lstm1_h_conted_0
I0925 23:59:51.140255 17987 layer_factory.hpp:77] Creating layer lstm1_W_xc_x_slice
I0925 23:59:51.140262 18005 net.cpp:148] Top shape: 1 1 1000 (1000)
I0925 23:59:51.140272 17987 net.cpp:91] Creating Layer lstm1_W_xc_x_slice
I0925 23:59:51.140285 17987 net.cpp:425] lstm1_W_xc_x_slice <- W_xc_x
I0925 23:59:51.140271 18005 net.cpp:156] Memory required for data: 46016
I0925 23:59:51.140300 17987 net.cpp:399] lstm1_W_xc_x_slice -> W_xc_x_1
I0925 23:59:51.140313 18005 layer_factory.hpp:77] Creating layer lstm1_transform_1
I0925 23:59:51.140336 18005 net.cpp:91] Creating Layer lstm1_transform_1
I0925 23:59:51.140347 18005 net.cpp:425] lstm1_transform_1 <- h_conted_0
I0925 23:59:51.140358 18005 net.cpp:399] lstm1_transform_1 -> W_hc_h_0
I0925 23:59:51.140373 17987 net.cpp:141] Setting up lstm1_W_xc_x_slice
I0925 23:59:51.140383 17987 net.cpp:148] Top shape: 1 1 4000 (4000)
I0925 23:59:51.140388 17987 net.cpp:156] Memory required for data: 42016
I0925 23:59:51.140393 17987 layer_factory.hpp:77] Creating layer lstm1_h_conted_0
I0925 23:59:51.140403 17987 net.cpp:91] Creating Layer lstm1_h_conted_0
I0925 23:59:51.140408 17987 net.cpp:425] lstm1_h_conted_0 <- h_0
I0925 23:59:51.140413 17987 net.cpp:425] lstm1_h_conted_0 <- cont_1_lstm1_cont_slice_0_split_0
I0925 23:59:51.140429 17987 net.cpp:399] lstm1_h_conted_0 -> h_conted_0
I0925 23:59:51.140491 17963 net.cpp:141] Setting up lstm1_h_conted_0
I0925 23:59:51.140506 17963 net.cpp:148] Top shape: 1 1 1000 (1000)
I0925 23:59:51.140509 17963 net.cpp:156] Memory required for data: 46016
I0925 23:59:51.140514 17963 layer_factory.hpp:77] Creating layer lstm1_transform_1
I0925 23:59:51.140524 17963 net.cpp:91] Creating Layer lstm1_transform_1
I0925 23:59:51.140530 17963 net.cpp:425] lstm1_transform_1 <- h_conted_0
I0925 23:59:51.140543 17963 net.cpp:399] lstm1_transform_1 -> W_hc_h_0
I0925 23:59:51.140616 17987 net.cpp:141] Setting up lstm1_h_conted_0
I0925 23:59:51.140630 17987 net.cpp:148] Top shape: 1 1 1000 (1000)
I0925 23:59:51.140635 17987 net.cpp:156] Memory required for data: 46016
I0925 23:59:51.140640 17987 layer_factory.hpp:77] Creating layer lstm1_transform_1
I0925 23:59:51.140652 17987 net.cpp:91] Creating Layer lstm1_transform_1
I0925 23:59:51.140658 17987 net.cpp:425] lstm1_transform_1 <- h_conted_0
I0925 23:59:51.140669 17987 net.cpp:399] lstm1_transform_1 -> W_hc_h_0
I0925 23:59:51.149417 17969 net.cpp:141] Setting up lstm1_transform_1
I0925 23:59:51.149466 17969 net.cpp:148] Top shape: 1 1 4000 (4000)
I0925 23:59:51.149477 17969 net.cpp:156] Memory required for data: 62016
I0925 23:59:51.149502 17969 layer_factory.hpp:77] Creating layer lstm1_gate_input_1
I0925 23:59:51.149539 17969 net.cpp:91] Creating Layer lstm1_gate_input_1
I0925 23:59:51.149550 17969 net.cpp:425] lstm1_gate_input_1 <- W_hc_h_0
I0925 23:59:51.149561 17969 net.cpp:425] lstm1_gate_input_1 <- W_xc_x_1
I0925 23:59:51.149577 17969 net.cpp:399] lstm1_gate_input_1 -> gate_input_1
I0925 23:59:51.149659 17969 net.cpp:141] Setting up lstm1_gate_input_1
I0925 23:59:51.149674 17969 net.cpp:148] Top shape: 1 1 4000 (4000)
I0925 23:59:51.149682 17969 net.cpp:156] Memory required for data: 78016
I0925 23:59:51.149689 17969 layer_factory.hpp:77] Creating layer lstm1_unit_1
I0925 23:59:51.149704 17969 net.cpp:91] Creating Layer lstm1_unit_1
I0925 23:59:51.149713 17969 net.cpp:425] lstm1_unit_1 <- c_0
I0925 23:59:51.149722 17969 net.cpp:425] lstm1_unit_1 <- gate_input_1
I0925 23:59:51.149732 17969 net.cpp:425] lstm1_unit_1 <- cont_1_lstm1_cont_slice_0_split_1
I0925 23:59:51.149744 17969 net.cpp:399] lstm1_unit_1 -> c_1
I0925 23:59:51.149761 17969 net.cpp:399] lstm1_unit_1 -> h_1
I0925 23:59:51.149862 17969 net.cpp:141] Setting up lstm1_unit_1
I0925 23:59:51.149875 17969 net.cpp:148] Top shape: 1 1 1000 (1000)
I0925 23:59:51.149886 17969 net.cpp:148] Top shape: 1 1 1000 (1000)
I0925 23:59:51.149893 17969 net.cpp:156] Memory required for data: 86016
I0925 23:59:51.149900 17969 layer_factory.hpp:77] Creating layer lstm1_
I0925 23:59:51.149914 17969 net.cpp:91] Creating Layer lstm1_
I0925 23:59:51.149922 17969 net.cpp:425] lstm1_ <- c_1
I0925 23:59:51.149933 17969 net.cpp:399] lstm1_ -> c_T
I0925 23:59:51.149981 17969 net.cpp:141] Setting up lstm1_
I0925 23:59:51.149996 17969 net.cpp:148] Top shape: 1 1 1000 (1000)
I0925 23:59:51.150003 17969 net.cpp:156] Memory required for data: 90016
I0925 23:59:51.150010 17969 layer_factory.hpp:77] Creating layer lstm1_h_concat
I0925 23:59:51.150025 17969 net.cpp:91] Creating Layer lstm1_h_concat
I0925 23:59:51.150033 17969 net.cpp:425] lstm1_h_concat <- h_1
I0925 23:59:51.150141 17969 net.cpp:399] lstm1_h_concat -> h
I0925 23:59:51.150190 17969 net.cpp:141] Setting up lstm1_h_concat
I0925 23:59:51.150205 17969 net.cpp:148] Top shape: 1 1 1000 (1000)
I0925 23:59:51.150213 17969 net.cpp:156] Memory required for data: 94016
I0925 23:59:51.150220 17969 layer_factory.hpp:77] Creating layer h_pseudoloss
I0925 23:59:51.150243 17969 net.cpp:91] Creating Layer h_pseudoloss
I0925 23:59:51.150254 17969 net.cpp:425] h_pseudoloss <- h
I0925 23:59:51.150265 17969 net.cpp:399] h_pseudoloss -> h_pseudoloss
I0925 23:59:51.182353 17973 net.cpp:141] Setting up lstm1_transform_1
I0925 23:59:51.182415 17973 net.cpp:148] Top shape: 1 1 4000 (4000)
I0925 23:59:51.182426 17973 net.cpp:156] Memory required for data: 62016
I0925 23:59:51.182457 17973 layer_factory.hpp:77] Creating layer lstm1_gate_input_1
I0925 23:59:51.182490 17973 net.cpp:91] Creating Layer lstm1_gate_input_1
I0925 23:59:51.182502 17973 net.cpp:425] lstm1_gate_input_1 <- W_hc_h_0
I0925 23:59:51.182513 17973 net.cpp:425] lstm1_gate_input_1 <- W_xc_x_1
I0925 23:59:51.182526 17973 net.cpp:399] lstm1_gate_input_1 -> gate_input_1
I0925 23:59:51.194538 18013 net.cpp:141] Setting up embedding
I0925 23:59:51.194591 18013 net.cpp:148] Top shape: 1 1 500 (500)
I0925 23:59:51.194613 18013 net.cpp:156] Memory required for data: 22408
I0925 23:59:51.194639 18013 layer_factory.hpp:77] Creating layer lstm1
I0925 23:59:51.194664 18013 net.cpp:91] Creating Layer lstm1
I0925 23:59:51.194679 18013 net.cpp:425] lstm1 <- embedded_input_frames
I0925 23:59:51.194689 18013 net.cpp:425] lstm1 <- cont_sentence_input_1_split_0
I0925 23:59:51.194684 17969 net.cpp:141] Setting up h_pseudoloss
…
I0925 23:59:51.194964 17969 recurrent_layer.cpp:150] Adding parameter 2: W_hc
I0925 23:59:51.195075 18013 net.cpp:49] Initializing net from parameters: 
layer {
  name: "lstm1_"
  type: "Input"
  top: "x"
  top: "cont"
  input_param {
    shape {
      dim: 1
      dim: 1
      dim: 500
    }
    shape {
      dim: 1
      dim: 1
    }
  }
}
layer {
  name: "lstm1_"
  type: "Input"
  top: "c_0"
  top: "h_0"
  input_param {
    shape {
      dim: 1
      dim: 1
      dim: 1000
    }
    shape {
      dim: 1
      dim: 1
      dim: 1000
    }
  }
}
layer {
  name: "lstm1_cont_slice"
  type: "Slice"
  bottom: "cont"
  top: "cont_1"
  slice_param {
    axis: 0
  }
}
layer {
  name: "lstm1_x_transform"
  type: "InnerProduct"
  bottom: "x"
  top: "W_xc_x"
  param {
    name: "W_xc"
  }
  param {
    name: "b_c"
  }
  propagate_down: true
  inner_product_param {
    num_output: 4000
    bias_term: true
    weight_filler {
      type: "uniform"
      min: -0.08
      max: 0.08
    }
    bias_filler {
      type: "constant"
      value: 0
    }
    axis: 2
  }
}
layer {
  name: "lstm1_W_xc_x_slice"
  type: "Slice"
  bottom: "W_xc_x"
  top: "W_xc_x_1"
  slice_param {
    axis: 0
  }
}
layer {
  name: "lstm1_h_conted_0"
  type: "Scale"
  bottom: "h_0"
  bottom: "cont_1"
  top: "h_conted_0"
  scale_param {
    axis: 0
  }
}
layer {
  name: "lstm1_transform_1"
  type: "InnerProduct"
  bottom: "h_conted_0"
  top: "W_hc_h_0"
  param {
    name: "W_hc"
  }
  inner_product_param {
    num_output: 4000
    bias_term: false
    weight_filler {
      type: "uniform"
      min: -0.08
      max: 0.08
    }
    axis: 2
  }
}
layer {
  name: "lstm1_gate_input_1"
  type: "Eltwise"
  bottom: "W_hc_h_0"
  bottom: "W_xc_x_1"
  top: "gate_input_1"
  eltwise_param {
    operation: SUM
  }
}
layer {
  name: "lstm1_unit_1"
  type: "LSTMUnit"
  bottom: "c_0"
  bottom: "gate_input_1"
  bottom: "cont_1"
  top: "c_1"
  top: "h_1"
}
layer {
  name: "lstm1_"
  type: "Split"
  bottom: "c_1"
  top: "c_T"
}
layer {
  name: "lstm1_h_concat"
  type: "Concat"
  bottom: "h_1"
  top: "h"
  concat_param {
    axis: 0
  }
}
layer {
  name: "h_pseudoloss"
  type: "Reduction"
  bottom: "h"
  top: "h_pseudoloss"
  loss_weight: 1
}
I0925 23:59:51.195088 17969 net.cpp:141] Setting up lstm1
I0925 23:59:51.195101 17969 net.cpp:148] Top shape: 1 1 1000 (1000)
I0925 23:59:51.195106 17969 net.cpp:156] Memory required for data: 26408
I0925 23:59:51.195122 17969 layer_factory.hpp:77] Creating layer concat
I0925 23:59:51.195135 17969 net.cpp:91] Creating Layer concat
I0925 23:59:51.195142 17969 net.cpp:425] concat <- lstm1
I0925 23:59:51.195149 17969 net.cpp:425] concat <- embedded_input_sentence
I0925 23:59:51.195155 17969 net.cpp:425] concat <- reshaped_stage_indicator
I0925 23:59:51.195163 17969 net.cpp:399] concat -> lstm1_video_sequence
I0925 23:59:51.195186 18013 layer_factory.hpp:77] Creating layer lstm1_
I0925 23:59:51.195201 17969 net.cpp:141] Setting up concat
I0925 23:59:51.195209 18013 net.cpp:91] Creating Layer lstm1_
I0925 23:59:51.195238 18013 net.cpp:399] lstm1_ -> x
I0925 23:59:51.195211 17969 net.cpp:148] Top shape: 1 1 1501 (1501)
I0925 23:59:51.195252 18013 net.cpp:399] lstm1_ -> cont
I0925 23:59:51.195256 17969 net.cpp:156] Memory required for data: 32412
I0925 23:59:51.195269 17969 layer_factory.hpp:77] Creating layer lstm2
I0925 23:59:51.195289 17969 net.cpp:91] Creating Layer lstm2
I0925 23:59:51.195300 17969 net.cpp:425] lstm2 <- lstm1_video_sequence
I0925 23:59:51.195309 17969 net.cpp:425] lstm2 <- cont_sentence_input_1_split_1
I0925 23:59:51.195322 17969 net.cpp:399] lstm2 -> lstm2
I0925 23:59:51.195341 17969 recurrent_layer.cpp:20] Initializing recurrent layer: assuming input batch contains 1 timesteps of 1 independent streams.
I0925 23:59:51.195376 18013 net.cpp:141] Setting up lstm1_
I0925 23:59:51.195394 18013 net.cpp:148] Top shape: 1 1 500 (500)
I0925 23:59:51.195401 18013 net.cpp:148] Top shape: 1 1 (1)
I0925 23:59:51.195407 18013 net.cpp:156] Memory required for data: 2004
I0925 23:59:51.195412 18013 layer_factory.hpp:77] Creating layer lstm1_
I0925 23:59:51.195425 18013 net.cpp:91] Creating Layer lstm1_
I0925 23:59:51.195431 18013 net.cpp:399] lstm1_ -> c_0
I0925 23:59:51.195443 18013 net.cpp:399] lstm1_ -> h_0
I0925 23:59:51.195504 18013 net.cpp:141] Setting up lstm1_
I0925 23:59:51.195515 18013 net.cpp:148] Top shape: 1 1 1000 (1000)
I0925 23:59:51.195520 18013 net.cpp:148] Top shape: 1 1 1000 (1000)
I0925 23:59:51.195525 18013 net.cpp:156] Memory required for data: 10004
I0925 23:59:51.195529 18013 layer_factory.hpp:77] Creating layer lstm1_cont_slice
I0925 23:59:51.195539 18013 net.cpp:91] Creating Layer lstm1_cont_slice
I0925 23:59:51.195544 18013 net.cpp:425] lstm1_cont_slice <- cont
I0925 23:59:51.195552 18013 net.cpp:399] lstm1_cont_slice -> cont_1
I0925 23:59:51.195588 18013 net.cpp:141] Setting up lstm1_cont_slice
I0925 23:59:51.195598 18013 net.cpp:148] Top shape: 1 1 (1)
I0925 23:59:51.195602 18013 net.cpp:156] Memory required for data: 10008
I0925 23:59:51.195607 18013 layer_factory.hpp:77] Creating layer cont_1_lstm1_cont_slice_0_split
I0925 23:59:51.195616 18013 net.cpp:91] Creating Layer cont_1_lstm1_cont_slice_0_split
I0925 23:59:51.195621 18013 net.cpp:425] cont_1_lstm1_cont_slice_0_split <- cont_1
I0925 23:59:51.195619 17969 net.cpp:49] Initializing net from parameters: 
layer {
  name: "lstm2_"
  type: "Input"
  top: "x"
  top: "cont"
  input_param {
    shape {
      dim: 1
      dim: 1
      dim: 1501
    }
    shape {
      dim: 1
      dim: 1
    }
  }
}
layer {
  name: "lstm2_"
  type: "Input"
  top: "c_0"
  top: "h_0"
  input_param {
    shape {
      dim: 1
      dim: 1
      dim: 1000
    }
    shape {
      dim: 1
      dim: 1
      dim: 1000
    }
  }
}
layer {
  name: "lstm2_cont_slice"
  type: "Slice"
  bottom: "cont"
  top: "cont_1"
  slice_param {
    axis: 0
  }
}
layer {
  name: "lstm2_x_transform"
  type: "InnerProduct"
  bottom: "x"
  top: "W_xc_x"
  param {
    name: "W_xc"
  }
  param {
    name: "b_c"
  }
  propagate_down: true
  inner_product_param {
    num_output: 4000
    bias_term: true
    weight_filler {
      type: "uniform"
      min: -0.08
      max: 0.08
    }
    bias_filler {
      type: "constant"
      value: 0
    }
    axis: 2
  }
}
layer {
  name: "lstm2_W_xc_x_slice"
  type: "Slice"
  bottom: "W_xc_x"
  top: "W_xc_x_1"
  slice_param {
    axis: 0
  }
}
layer {
  name: "lstm2_h_conted_0"
  type: "Scale"
  bottom: "h_0"
  bottom: "cont_1"
  top: "h_conted_0"
  scale_param {
    axis: 0
  }
}
layer {
  name: "lstm2_transform_1"
  type: "InnerProduct"
  bottom: "h_conted_0"
  top: "W_hc_h_0"
  param {
    name: "W_hc"
  }
  inner_product_param {
    num_output: 4000
    bias_term: false
    weight_filler {
      type: "uniform"
      min: -0.08
      max: 0.08
    }
    axis: 2
  }
}
layer {
  name: "lstm2_gate_input_1"
  type: "Eltwise"
  bottom: "W_hc_h_0"
  bottom: "W_xc_x_1"
  top: "gate_input_1"
  eltwise_param {
    operation: SUM
  }
}
layer {
  name: "lstm2_unit_1"
  type: "LSTMUnit"
  bottom: "c_0"
  bottom: "gate_input_1"
  bottom: "cont_1"
  top: "c_1"
  top: "h_1"
}
layer {
  name: "lstm2_"
  type: "Split"
  bottom: "c_1"
  top: "c_T"
}
layer {
  name: "lstm2_h_concat"
  type: "Concat"
  bottom: "h_1"
  top: "h"
  concat_param {
    axis: 0
  }
}
layer {
  name: "h_pseudoloss"
  type: "Reduction"
  bottom: "h"
  top: "h_pseudoloss"
  loss_weight: 1
}
I0925 23:59:51.195629 18013 net.cpp:399] cont_1_lstm1_cont_slice_0_split -> cont_1_lstm1_cont_slice_0_split_0
I0925 23:59:51.195638 18013 net.cpp:399] cont_1_lstm1_cont_slice_0_split -> cont_1_lstm1_cont_slice_0_split_1
I0925 23:59:51.195688 18013 net.cpp:141] Setting up cont_1_lstm1_cont_slice_0_split
I0925 23:59:51.195695 18013 net.cpp:148] Top shape: 1 1 (1)
I0925 23:59:51.195701 18013 net.cpp:148] Top shape: 1 1 (1)
I0925 23:59:51.195709 17969 layer_factory.hpp:77] Creating layer lstm2_
I0925 23:59:51.195715 18013 net.cpp:156] Memory required for data: 10016
I0925 23:59:51.195722 17969 net.cpp:91] Creating Layer lstm2_
I0925 23:59:51.195724 18013 layer_factory.hpp:77] Creating layer lstm1_x_transform
I0925 23:59:51.195730 17969 net.cpp:399] lstm2_ -> x
I0925 23:59:51.195741 17969 net.cpp:399] lstm2_ -> cont
I0925 23:59:51.195742 18013 net.cpp:91] Creating Layer lstm1_x_transform
I0925 23:59:51.195752 18013 net.cpp:425] lstm1_x_transform <- x
I0925 23:59:51.195770 18013 net.cpp:399] lstm1_x_transform -> W_xc_x
I0925 23:59:51.195838 17969 net.cpp:141] Setting up lstm2_
I0925 23:59:51.195850 17969 net.cpp:148] Top shape: 1 1 1501 (1501)
I0925 23:59:51.195857 17969 net.cpp:148] Top shape: 1 1 (1)
I0925 23:59:51.195860 17969 net.cpp:156] Memory required for data: 6008
I0925 23:59:51.195865 17969 layer_factory.hpp:77] Creating layer lstm2_
I0925 23:59:51.195875 17969 net.cpp:91] Creating Layer lstm2_
I0925 23:59:51.195885 17969 net.cpp:399] lstm2_ -> c_0
I0925 23:59:51.195895 17969 net.cpp:399] lstm2_ -> h_0
I0925 23:59:51.195961 17969 net.cpp:141] Setting up lstm2_
I0925 23:59:51.195972 17969 net.cpp:148] Top shape: 1 1 1000 (1000)
I0925 23:59:51.195978 17969 net.cpp:148] Top shape: 1 1 1000 (1000)
I0925 23:59:51.195982 17969 net.cpp:156] Memory required for data: 14008
I0925 23:59:51.195987 17969 layer_factory.hpp:77] Creating layer lstm2_cont_slice
I0925 23:59:51.195999 17969 net.cpp:91] Creating Layer lstm2_cont_slice
I0925 23:59:51.196005 17969 net.cpp:425] lstm2_cont_slice <- cont
I0925 23:59:51.196017 17969 net.cpp:399] lstm2_cont_slice -> cont_1
I0925 23:59:51.200284 17987 net.cpp:141] Setting up lstm1_transform_1
I0925 23:59:51.200330 17987 net.cpp:148] Top shape: 1 1 4000 (4000)
I0925 23:59:51.200337 17987 net.cpp:156] Memory required for data: 62016
I0925 23:59:51.200361 17987 layer_factory.hpp:77] Creating layer lstm1_gate_input_1
I0925 23:59:51.200394 17987 net.cpp:91] Creating Layer lstm1_gate_input_1
I0925 23:59:51.200404 17987 net.cpp:425] lstm1_gate_input_1 <- W_hc_h_0
I0925 23:59:51.200415 17987 net.cpp:425] lstm1_gate_input_1 <- W_xc_x_1
I0925 23:59:51.200428 17987 net.cpp:399] lstm1_gate_input_1 -> gate_input_1
I0925 23:59:51.200494 17987 net.cpp:141] Setting up lstm1_gate_input_1
I0925 23:59:51.200507 17987 net.cpp:148] Top shape: 1 1 4000 (4000)
I0925 23:59:51.200513 17987 net.cpp:156] Memory required for data: 78016
I0925 23:59:51.200520 17987 layer_factory.hpp:77] Creating layer lstm1_unit_1
I0925 23:59:51.200533 17987 net.cpp:91] Creating Layer lstm1_unit_1
I0925 23:59:51.200541 17987 net.cpp:425] lstm1_unit_1 <- c_0
I0925 23:59:51.200554 17987 net.cpp:425] lstm1_unit_1 <- gate_input_1
I0925 23:59:51.200564 17987 net.cpp:425] lstm1_unit_1 <- cont_1_lstm1_cont_slice_0_split_1
I0925 23:59:51.200577 17987 net.cpp:399] lstm1_unit_1 -> c_1
I0925 23:59:51.200590 17987 net.cpp:399] lstm1_unit_1 -> h_1
I0925 23:59:51.200719 17987 net.cpp:141] Setting up lstm1_unit_1
I0925 23:59:51.200733 17987 net.cpp:148] Top shape: 1 1 1000 (1000)
I0925 23:59:51.200743 17987 net.cpp:148] Top shape: 1 1 1000 (1000)
I0925 23:59:51.200750 17987 net.cpp:156] Memory required for data: 86016
I0925 23:59:51.200758 17987 layer_factory.hpp:77] Creating layer lstm1_
I0925 23:59:51.200773 17987 net.cpp:91] Creating Layer lstm1_
I0925 23:59:51.200779 17987 net.cpp:425] lstm1_ <- c_1
I0925 23:59:51.200790 17987 net.cpp:399] lstm1_ -> c_T
I0925 23:59:51.200867 17987 net.cpp:141] Setting up lstm1_
I0925 23:59:51.200889 17987 net.cpp:148] Top shape: 1 1 1000 (1000)
I0925 23:59:51.200901 17987 net.cpp:156] Memory required for data: 90016
I0925 23:59:51.200911 17987 layer_factory.hpp:77] Creating layer lstm1_h_concat
I0925 23:59:51.200932 17987 net.cpp:91] Creating Layer lstm1_h_concat
I0925 23:59:51.200944 17987 net.cpp:425] lstm1_h_concat <- h_1
I0925 23:59:51.200961 17987 net.cpp:399] lstm1_h_concat -> h
I0925 23:59:51.201052 17973 net.cpp:141] Setting up lstm1_gate_input_1
I0925 23:59:51.201088 17973 net.cpp:148] Top shape: 1 1 4000 (4000)
I0925 23:59:51.201094 17973 net.cpp:156] Memory required for data: 78016
I0925 23:59:51.201103 17973 layer_factory.hpp:77] Creating layer lstm1_unit_1
I0925 23:59:51.201118 17973 net.cpp:91] Creating Layer lstm1_unit_1
I0925 23:59:51.201124 17973 net.cpp:425] lstm1_unit_1 <- c_0
I0925 23:59:51.201133 17973 net.cpp:425] lstm1_unit_1 <- gate_input_1
I0925 23:59:51.201139 17973 net.cpp:425] lstm1_unit_1 <- cont_1_lstm1_cont_slice_0_split_1
I0925 23:59:51.201148 17973 net.cpp:399] lstm1_unit_1 -> c_1
I0925 23:59:51.201159 17973 net.cpp:399] lstm1_unit_1 -> h_1
I0925 23:59:51.201233 17973 net.cpp:141] Setting up lstm1_unit_1
I0925 23:59:51.201242 17973 net.cpp:148] Top shape: 1 1 1000 (1000)
I0925 23:59:51.201248 17973 net.cpp:148] Top shape: 1 1 1000 (1000)
I0925 23:59:51.201253 17973 net.cpp:156] Memory required for data: 86016
I0925 23:59:51.201257 17973 layer_factory.hpp:77] Creating layer lstm1_
I0925 23:59:51.201268 17973 net.cpp:91] Creating Layer lstm1_
I0925 23:59:51.201273 17973 net.cpp:425] lstm1_ <- c_1
I0925 23:59:51.201282 17973 net.cpp:399] lstm1_ -> c_T
I0925 23:59:51.201313 17973 net.cpp:141] Setting up lstm1_
I0925 23:59:51.201321 17973 net.cpp:148] Top shape: 1 1 1000 (1000)
I0925 23:59:51.201325 17973 net.cpp:156] Memory required for data: 90016
I0925 23:59:51.201330 17973 layer_factory.hpp:77] Creating layer lstm1_h_concat
I0925 23:59:51.201341 17973 net.cpp:91] Creating Layer lstm1_h_concat
I0925 23:59:51.201346 17973 net.cpp:425] lstm1_h_concat <- h_1
I0925 23:59:51.201362 17973 net.cpp:399] lstm1_h_concat -> h
I0925 23:59:51.201422 17973 net.cpp:141] Setting up lstm1_h_concat
I0925 23:59:51.201438 17973 net.cpp:148] Top shape: 1 1 1000 (1000)
I0925 23:59:51.201445 17973 net.cpp:156] Memory required for data: 94016
I0925 23:59:51.201453 17973 layer_factory.hpp:77] Creating layer h_pseudoloss
I0925 23:59:51.201468 17973 net.cpp:91] Creating Layer h_pseudoloss
I0925 23:59:51.201477 17973 net.cpp:425] h_pseudoloss <- h
I0925 23:59:51.201488 17973 net.cpp:399] h_pseudoloss -> h_pseudoloss
I0925 23:59:51.204129 17987 net.cpp:141] Setting up lstm1_h_concat
I0925 23:59:51.204175 17987 net.cpp:148] Top shape: 1 1 1000 (1000)
I0925 23:59:51.204183 17987 net.cpp:156] Memory required for data: 94016
I0925 23:59:51.204195 17987 layer_factory.hpp:77] Creating layer h_pseudoloss
I0925 23:59:51.204187 17981 net.cpp:141] Setting up lstm1_transform_1
I0925 23:59:51.204213 17987 net.cpp:91] Creating Layer h_pseudoloss
I0925 23:59:51.204259 17981 net.cpp:148] Top shape: 1 1 4000 (4000)
I0925 23:59:51.204265 17987 net.cpp:425] h_pseudoloss <- h
I0925 23:59:51.204272 17981 net.cpp:156] Memory required for data: 62016
I0925 23:59:51.204282 17987 net.cpp:399] h_pseudoloss -> h_pseudoloss
I0925 23:59:51.204301 17981 layer_factory.hpp:77] Creating layer lstm1_gate_input_1
I0925 23:59:51.204329 17981 net.cpp:91] Creating Layer lstm1_gate_input_1
I0925 23:59:51.204341 17981 net.cpp:425] lstm1_gate_input_1 <- W_hc_h_0
…
I0925 23:59:51.206784 17987 net.cpp:219] lstm1_ does not need backward computation.
I0925 23:59:51.206786 17987 net.cpp:261] This network produces output c_T
I0925 23:59:51.206792 17987 net.cpp:261] This network produces output h_pseudoloss
I0925 23:59:51.206809 17987 net.cpp:274] Network initialization done.
I0925 23:59:51.206856 17987 recurrent_layer.cpp:150] Adding parameter 0: W_xc
I0925 23:59:51.206863 17987 recurrent_layer.cpp:150] Adding parameter 1: b_c
I0925 23:59:51.206867 17987 recurrent_layer.cpp:150] Adding parameter 2: W_hc
I0925 23:59:51.206943 17963 net.cpp:141] Setting up lstm1_transform_1
I0925 23:59:51.206959 17963 net.cpp:148] Top shape: 1 1 4000 (4000)
I0925 23:59:51.206967 17963 net.cpp:156] Memory required for data: 62016
I0925 23:59:51.206984 17963 layer_factory.hpp:77] Creating layer lstm1_gate_input_1
I0925 23:59:51.207005 17963 net.cpp:91] Creating Layer lstm1_gate_input_1
I0925 23:59:51.207015 17963 net.cpp:425] lstm1_gate_input_1 <- W_hc_h_0
I0925 23:59:51.207065 17963 net.cpp:425] lstm1_gate_input_1 <- W_xc_x_1
I0925 23:59:51.207082 17963 net.cpp:399] lstm1_gate_input_1 -> gate_input_1
I0925 23:59:51.207131 18005 net.cpp:141] Setting up lstm1_transform_1
I0925 23:59:51.207144 17963 net.cpp:141] Setting up lstm1_gate_input_1
I0925 23:59:51.207149 18005 net.cpp:148] Top shape: 1 1 4000 (4000)
I0925 23:59:51.207154 18005 net.cpp:156] Memory required for data: 62016
I0925 23:59:51.207156 17963 net.cpp:148] Top shape: 1 1 4000 (4000)
I0925 23:59:51.207161 17963 net.cpp:156] Memory required for data: 78016
I0925 23:59:51.207165 18005 layer_factory.hpp:77] Creating layer lstm1_gate_input_1
I0925 23:59:51.207177 17963 layer_factory.hpp:77] Creating layer lstm1_unit_1
I0925 23:59:51.207186 17963 net.cpp:91] Creating Layer lstm1_unit_1
I0925 23:59:51.207190 18005 net.cpp:91] Creating Layer lstm1_gate_input_1
I0925 23:59:51.207191 17963 net.cpp:425] lstm1_unit_1 <- c_0
I0925 23:59:51.207204 18005 net.cpp:425] lstm1_gate_input_1 <- W_hc_h_0
I0925 23:59:51.207208 17963 net.cpp:425] lstm1_unit_1 <- gate_input_1
I0925 23:59:51.207211 18005 net.cpp:425] lstm1_gate_input_1 <- W_xc_x_1
I0925 23:59:51.207214 17963 net.cpp:425] lstm1_unit_1 <- cont_1_lstm1_cont_slice_0_split_1
I0925 23:59:51.207219 18005 net.cpp:399] lstm1_gate_input_1 -> gate_input_1
I0925 23:59:51.207221 17963 net.cpp:399] lstm1_unit_1 -> c_1
I0925 23:59:51.207231 17963 net.cpp:399] lstm1_unit_1 -> h_1
I0925 23:59:51.207362 17981 net.cpp:141] Setting up lstm1_unit_1
I0925 23:59:51.207382 17981 net.cpp:148] Top shape: 1 1 1000 (1000)
I0925 23:59:51.207394 17981 net.cpp:148] Top shape: 1 1 1000 (1000)
I0925 23:59:51.207401 18005 net.cpp:141] Setting up lstm1_gate_input_1
I0925 23:59:51.207402 17981 net.cpp:156] Memory required for data: 86016
I0925 23:59:51.207418 18005 net.cpp:148] Top shape: 1 1 4000 (4000)
I0925 23:59:51.207418 17981 layer_factory.hpp:77] Creating layer lstm1_
I0925 23:59:51.207429 18005 net.cpp:156] Memory required for data: 78016
I0925 23:59:51.207428 17973 net.cpp:141] Setting up lstm1
I0925 23:59:51.207442 18005 layer_factory.hpp:77] Creating layer lstm1_unit_1
I0925 23:59:51.207438 17981 net.cpp:91] Creating Layer lstm1_
I0925 23:59:51.207453 17973 net.cpp:148] Top shape: 1 1 1000 (1000)
I0925 23:59:51.207454 18005 net.cpp:91] Creating Layer lstm1_unit_1
I0925 23:59:51.207461 17973 net.cpp:156] Memory required for data: 26408
I0925 23:59:51.207466 18005 net.cpp:425] lstm1_unit_1 <- c_0
I0925 23:59:51.207455 17981 net.cpp:425] lstm1_ <- c_1
I0925 23:59:51.207478 18005 net.cpp:425] lstm1_unit_1 <- gate_input_1
I0925 23:59:51.207482 17981 net.cpp:399] lstm1_ -> c_T
I0925 23:59:51.207487 18005 net.cpp:425] lstm1_unit_1 <- cont_1_lstm1_cont_slice_0_split_1
I0925 23:59:51.207489 17973 layer_factory.hpp:77] Creating layer concat
I0925 23:59:51.207499 18005 net.cpp:399] lstm1_unit_1 -> c_1
I0925 23:59:51.207507 17973 net.cpp:91] Creating Layer concat
I0925 23:59:51.207515 18005 net.cpp:399] lstm1_unit_1 -> h_1
I0925 23:59:51.207516 17973 net.cpp:425] concat <- lstm1
I0925 23:59:51.207525 17973 net.cpp:425] concat <- embedded_input_sentence
I0925 23:59:51.207526 17987 net.cpp:141] Setting up lstm1
I0925 23:59:51.207530 17973 net.cpp:425] concat <- reshaped_stage_indicator
I0925 23:59:51.207543 17987 net.cpp:148] Top shape: 1 1 1000 (1000)
I0925 23:59:51.207550 17987 net.cpp:156] Memory required for data: 26408
I0925 23:59:51.207550 17973 net.cpp:399] concat -> lstm1_video_sequence
I0925 23:59:51.207567 17987 layer_factory.hpp:77] Creating layer concat
I0925 23:59:51.207569 17969 net.cpp:141] Setting up cont_1_lstm2_cont_slice_0_split
I0925 23:59:51.207577 17987 net.cpp:91] Creating Layer concat
I0925 23:59:51.207590 17969 net.cpp:148] Top shape: 1 1 (1)
I0925 23:59:51.207597 17987 net.cpp:425] concat <- lstm1
I0925 23:59:51.207597 17969 net.cpp:148] Top shape: 1 1 (1)
I0925 23:59:51.207609 17987 net.cpp:425] concat <- embedded_input_sentence
I0925 23:59:51.207612 17969 net.cpp:156] Memory required for data: 14020
I0925 23:59:51.207613 17973 net.cpp:141] Setting up concat
I0925 23:59:51.207619 17969 layer_factory.hpp:77] Creating layer lstm2_x_transform
I0925 23:59:51.207617 17987 net.cpp:425] concat <- reshaped_stage_indicator
I0925 23:59:51.207628 17973 net.cpp:148] Top shape: 1 1 1501 (1501)
I0925 23:59:51.207633 17973 net.cpp:156] Memory required for data: 32412
I0925 23:59:51.207631 17987 net.cpp:399] concat -> lstm1_video_sequence
I0925 23:59:51.207639 17973 layer_factory.hpp:77] Creating layer lstm2
I0925 23:59:51.207641 17969 net.cpp:91] Creating Layer lstm2_x_transform
I0925 23:59:51.207648 17969 net.cpp:425] lstm2_x_transform <- x
I0925 23:59:51.207654 17973 net.cpp:91] Creating Layer lstm2
I0925 23:59:51.207653 17981 net.cpp:141] Setting up lstm1_
I0925 23:59:51.207660 17973 net.cpp:425] lstm2 <- lstm1_video_sequence
I0925 23:59:51.207667 17973 net.cpp:425] lstm2 <- cont_sentence_input_1_split_1
I0925 23:59:51.207674 17981 net.cpp:148] Top shape: 1 1 1000 (1000)
I0925 23:59:51.207659 17969 net.cpp:399] lstm2_x_transform -> W_xc_x
I0925 23:59:51.207679 17973 net.cpp:399] lstm2 -> lstm2
I0925 23:59:51.207684 17981 net.cpp:156] Memory required for data: 90016
I0925 23:59:51.207693 17981 layer_factory.hpp:77] Creating layer lstm1_h_concat
I0925 23:59:51.207697 17973 recurrent_layer.cpp:20] Initializing recurrent layer: assuming input batch contains 1 timesteps of 1 independent streams.
I0925 23:59:51.207703 17981 net.cpp:91] Creating Layer lstm1_h_concat
I0925 23:59:51.207710 17981 net.cpp:425] lstm1_h_concat <- h_1
I0925 23:59:51.207717 17981 net.cpp:399] lstm1_h_concat -> h
I0925 23:59:51.207729 17963 net.cpp:141] Setting up lstm1_unit_1
I0925 23:59:51.207744 17963 net.cpp:148] Top shape: 1 1 1000 (1000)
I0925 23:59:51.207756 17963 net.cpp:148] Top shape: 1 1 1000 (1000)
I0925 23:59:51.207758 17987 net.cpp:141] Setting up concat
I0925 23:59:51.207762 17963 net.cpp:156] Memory required for data: 86016
I0925 23:59:51.207769 17987 net.cpp:148] Top shape: 1 1 1501 (1501)
I0925 23:59:51.207770 17963 layer_factory.hpp:77] Creating layer lstm1_
I0925 23:59:51.207773 17987 net.cpp:156] Memory required for data: 32412
I0925 23:59:51.207779 17987 layer_factory.hpp:77] Creating layer lstm2
I0925 23:59:51.207787 17963 net.cpp:91] Creating Layer lstm1_
I0925 23:59:51.207790 17987 net.cpp:91] Creating Layer lstm2
I0925 23:59:51.207803 17963 net.cpp:425] lstm1_ <- c_1
I0925 23:59:51.207805 17987 net.cpp:425] lstm2 <- lstm1_video_sequence
I0925 23:59:51.207818 17987 net.cpp:425] lstm2 <- cont_sentence_input_1_split_1
I0925 23:59:51.207819 17963 net.cpp:399] lstm1_ -> c_T
I0925 23:59:51.207826 17987 net.cpp:399] lstm2 -> lstm2
I0925 23:59:51.207837 17987 recurrent_layer.cpp:20] Initializing recurrent layer: assuming input batch contains 1 timesteps of 1 independent streams.
I0925 23:59:51.207886 17963 net.cpp:141] Setting up lstm1_
I0925 23:59:51.207902 17963 net.cpp:148] Top shape: 1 1 1000 (1000)
I0925 23:59:51.207911 17963 net.cpp:156] Memory required for data: 90016
I0925 23:59:51.207918 17963 layer_factory.hpp:77] Creating layer lstm1_h_concat
I0925 23:59:51.207923 18005 net.cpp:141] Setting up lstm1_unit_1
I0925 23:59:51.207931 17963 net.cpp:91] Creating Layer lstm1_h_concat
I0925 23:59:51.207937 18005 net.cpp:148] Top shape: 1 1 1000 (1000)
I0925 23:59:51.207940 17963 net.cpp:425] lstm1_h_concat <- h_1
I0925 23:59:51.207943 18005 net.cpp:148] Top shape: 1 1 1000 (1000)
I0925 23:59:51.207948 18005 net.cpp:156] Memory required for data: 86016
I0925 23:59:51.207953 18005 layer_factory.hpp:77] Creating layer lstm1_
I0925 23:59:51.207957 17963 net.cpp:399] lstm1_h_concat -> h
I0925 23:59:51.207964 18005 net.cpp:91] Creating Layer lstm1_
I0925 23:59:51.207970 18005 net.cpp:425] lstm1_ <- c_1
I0925 23:59:51.207978 18005 net.cpp:399] lstm1_ -> c_T
I0925 23:59:51.217519 17973 net.cpp:49] Initializing net from parameters: 
layer {
  name: "lstm2_"
  type: "Input"
  top: "x"
  top: "cont"
  input_param {
    shape {
      dim: 1
      dim: 1
      dim: 1501
    }
    shape {
      dim: 1
      dim: 1
    }
  }
}
layer {
  name: "lstm2_"
  type: "Input"
  top: "c_0"
  top: "h_0"
  input_param {
    shape {
      dim: 1
      dim: 1
      dim: 1000
    }
    shape {
      dim: 1
      dim: 1
      dim: 1000
    }
  }
}
layer {
  name: "lstm2_cont_slice"
  type: "Slice"
  bottom: "cont"
  top: "cont_1"
  slice_param {
    axis: 0
  }
}
layer {
  name: "lstm2_x_transform"
  type: "InnerProduct"
  bottom: "x"
  top: "W_xc_x"
  param {
    name: "W_xc"
  }
  param {
    name: "b_c"
  }
  propagate_down: true
  inner_product_param {
    num_output: 4000
    bias_term: true
    weight_filler {
      type: "uniform"
      min: -0.08
      max: 0.08
    }
    bias_filler {
      type: "constant"
      value: 0
    }
    axis: 2
  }
}
layer {
  name: "lstm2_W_xc_x_slice"
  type: "Slice"
  bottom: "W_xc_x"
  top: "W_xc_x_1"
  slice_param {
    axis: 0
  }
}
layer {
  name: "lstm2_h_conted_0"
  type: "Scale"
  bottom: "h_0"
  bottom: "cont_1"
  top: "h_conted_0"
  scale_param {
    axis: 0
  }
}
layer {
  name: "lstm2_transform_1"
  type: "InnerProduct"
  bottom: "h_conted_0"
  top: "W_hc_h_0"
  param {
    name: "W_hc"
  }
  inner_product_param {
    num_output: 4000
    bias_term: false
    weight_filler {
      type: "uniform"
      min: -0.08
      max: 0.08
    }
    axis: 2
  }
}
layer {
  name: "lstm2_gate_input_1"
  type: "Eltwise"
  bottom: "W_hc_h_0"
  bottom: "W_xc_x_1"
  top: "gate_input_1"
  eltwise_param {
    operation: SUM
  }
}
layer {
  name: "lstm2_unit_1"
  type: "LSTMUnit"
  bottom: "c_0"
  bottom: "gate_input_1"
  bottom: "cont_1"
  top: "c_1"
  top: "h_1"
}
layer {
  name: "lstm2_"
  type: "Split"
  bottom: "c_1"
  top: "c_T"
}
layer {
  name: "lstm2_h_concat"
  type: "Concat"
  bottom: "h_1"
  top: "h"
  concat_param {
    axis: 0
  }
}
layer {
  name: "h_pseudoloss"
  type: "Reduction"
  bottom: "h"
  top: "h_pseudoloss"
  loss_weight: 1
}
I0925 23:59:51.217540 17987 net.cpp:49] Initializing net from parameters: 
layer {
  name: "lstm2_"
  type: "Input"
  top: "x"
  top: "cont"
  input_param {
    shape {
      dim: 1
      dim: 1
      dim: 1501
    }
    shape {
      dim: 1
      dim: 1
    }
  }
}
layer {
  name: "lstm2_"
  type: "Input"
  top: "c_0"
  top: "h_0"
  input_param {
    shape {
      dim: 1
      dim: 1
      dim: 1000
    }
    shape {
      dim: 1
      dim: 1
      dim: 1000
    }
  }
}
layer {
  name: "lstm2_cont_slice"
  type: "Slice"
  bottom: "cont"
  top: "cont_1"
  slice_param {
    axis: 0
  }
}
layer {
  name: "lstm2_x_transform"
  type: "InnerProduct"
  bottom: "x"
  top: "W_xc_x"
  param {
    name: "W_xc"
  }
  param {
    name: "b_c"
  }
  propagate_down: true
  inner_product_param {
    num_output: 4000
    bias_term: true
    weight_filler {
      type: "uniform"
      min: -0.08
      max: 0.08
    }
    bias_filler {
      type: "constant"
      value: 0
    }
    axis: 2
  }
}
layer {
  name: "lstm2_W_xc_x_slice"
  type: "Slice"
  bottom: "W_xc_x"
  top: "W_xc_x_1"
  slice_param {
    axis: 0
  }
}
layer {
  name: "lstm2_h_conted_0"
  type: "Scale"
  bottom: "h_0"
  bottom: "cont_1"
  top: "h_conted_0"
  scale_param {
    axis: 0
  }
}
layer {
  name: "lstm2_transform_1"
  type: "InnerProduct"
  bottom: "h_conted_0"
  top: "W_hc_h_0"
  param {
    name: "W_hc"
  }
  inner_product_param {
    num_output: 4000
    bias_term: false
    weight_filler {
      type: "uniform"
      min: -0.08
      max: 0.08
    }
    axis: 2
  }
}
layer {
  name: "lstm2_gate_input_1"
  type: "Eltwise"
  bottom: "W_hc_h_0"
  bottom: "W_xc_x_1"
  top: "gate_input_1"
  eltwise_param {
    operation: SUM
  }
}
layer {
  name: "lstm2_unit_1"
  type: "LSTMUnit"
  bottom: "c_0"
  bottom: "gate_input_1"
  bottom: "cont_1"
  top: "c_1"
  top: "h_1"
}
layer {
  name: "lstm2_"
  type: "Split"
  bottom: "c_1"
  top: "c_T"
}
layer {
  name: "lstm2_h_concat"
  type: "Concat"
  bottom: "h_1"
  top: "h"
  concat_param {
    axis: 0
  }
}
layer {
  name: "h_pseudoloss"
  type: "Reduction"
  bottom: "h"
  top: "h_pseudoloss"
  loss_weight: 1
}
I0925 23:59:51.217624 17973 layer_factory.hpp:77] Creating layer lstm2_
I0925 23:59:51.217630 17987 layer_factory.hpp:77] Creating layer lstm2_
I0925 23:59:51.217638 17973 net.cpp:91] Creating Layer lstm2_
I0925 23:59:51.217643 17987 net.cpp:91] Creating Layer lstm2_
I0925 23:59:51.217644 17973 net.cpp:399] lstm2_ -> x
I0925 23:59:51.217648 17987 net.cpp:399] lstm2_ -> x
I0925 23:59:51.217656 17973 net.cpp:399] lstm2_ -> cont
I0925 23:59:51.217660 17987 net.cpp:399] lstm2_ -> cont
I0925 23:59:51.218839 17981 net.cpp:141] Setting up lstm1_h_concat
I0925 23:59:51.218864 17981 net.cpp:148] Top shape: 1 1 1000 (1000)
I0925 23:59:51.218869 17981 net.cpp:156] Memory required for data: 94016
I0925 23:59:51.218876 17981 layer_factory.hpp:77] Creating layer h_pseudoloss
I0925 23:59:51.218891 17981 net.cpp:91] Creating Layer h_pseudoloss
I0925 23:59:51.218901 17981 net.cpp:425] h_pseudoloss <- h
I0925 23:59:51.218897 17963 net.cpp:141] Setting up lstm1_h_concat
I0925 23:59:51.218936 17981 net.cpp:399] h_pseudoloss -> h_pseudoloss
I0925 23:59:51.218940 17963 net.cpp:148] Top shape: 1 1 1000 (1000)
I0925 23:59:51.218937 18005 net.cpp:141] Setting up lstm1_
I0925 23:59:51.218951 17963 net.cpp:156] Memory required for data: 94016
I0925 23:59:51.218961 18005 net.cpp:148] Top shape: 1 1 1000 (1000)
I0925 23:59:51.218961 17963 layer_factory.hpp:77] Creating layer h_pseudoloss
I0925 23:59:51.218981 18005 net.cpp:156] Memory required for data: 90016
I0925 23:59:51.218992 18005 layer_factory.hpp:77] Creating layer lstm1_h_concat
I0925 23:59:51.218993 17963 net.cpp:91] Creating Layer h_pseudoloss
I0925 23:59:51.219004 17963 net.cpp:425] h_pseudoloss <- h
I0925 23:59:51.219008 18005 net.cpp:91] Creating Layer lstm1_h_concat
I0925 23:59:51.219018 18005 net.cpp:425] lstm1_h_concat <- h_1
I0925 23:59:51.219019 17963 net.cpp:399] h_pseudoloss -> h_pseudoloss
I0925 23:59:51.219089 18005 net.cpp:399] lstm1_h_concat -> h
I0925 23:59:51.219146 17973 net.cpp:141] Setting up lstm2_
I0925 23:59:51.219166 17973 net.cpp:148] Top shape: 1 1 1501 (1501)
I0925 23:59:51.219177 17973 net.cpp:148] Top shape: 1 1 (1)
I0925 23:59:51.219184 17973 net.cpp:156] Memory required for data: 6008
I0925 23:59:51.219194 17973 layer_factory.hpp:77] Creating layer lstm2_
I0925 23:59:51.219213 17973 net.cpp:91] Creating Layer lstm2_
I0925 23:59:51.219226 17973 net.cpp:399] lstm2_ -> c_0
I0925 23:59:51.219245 17973 net.cpp:399] lstm2_ -> h_0
I0925 23:59:51.219250 17981 net.cpp:141] Setting up h_pseudoloss
I0925 23:59:51.219267 17981 net.cpp:148] Top shape: (1)
I0925 23:59:51.219282 18005 net.cpp:141] Setting up lstm1_h_concat
I0925 23:59:51.219276 17981 net.cpp:151]     with loss weight 1
I0925 23:59:51.219296 18005 net.cpp:148] Top shape: 1 1 1000 (1000)
I0925 23:59:51.219300 17981 net.cpp:156] Memory required for data: 94020
I0925 23:59:51.219305 18005 net.cpp:156] Memory required for data: 94016
I0925 23:59:51.219307 17981 net.cpp:217] h_pseudoloss needs backward computation.
I0925 23:59:51.219311 18005 layer_factory.hpp:77] Creating layer h_pseudoloss
I0925 23:59:51.219316 17981 net.cpp:217] lstm1_h_concat needs backward computation.
…
I0925 23:59:51.219728 17973 net.cpp:399] lstm2_cont_slice -> cont_1
I0925 23:59:51.219728 18005 net.cpp:219] lstm1_cont_slice does not need backward computation.
I0925 23:59:51.219745 18005 net.cpp:219] lstm1_ does not need backward computation.
I0925 23:59:51.219758 18005 net.cpp:219] lstm1_ does not need backward computation.
I0925 23:59:51.219763 18005 net.cpp:261] This network produces output c_T
I0925 23:59:51.219772 18005 net.cpp:261] This network produces output h_pseudoloss
I0925 23:59:51.219794 18005 net.cpp:274] Network initialization done.
I0925 23:59:51.219796 17973 net.cpp:141] Setting up lstm2_cont_slice
I0925 23:59:51.219813 17973 net.cpp:148] Top shape: 1 1 (1)
I0925 23:59:51.219821 17973 net.cpp:156] Memory required for data: 14012
I0925 23:59:51.219830 17973 layer_factory.hpp:77] Creating layer cont_1_lstm2_cont_slice_0_split
I0925 23:59:51.219844 18005 recurrent_layer.cpp:150] Adding parameter 0: W_xc
I0925 23:59:51.219846 17973 net.cpp:91] Creating Layer cont_1_lstm2_cont_slice_0_split
I0925 23:59:51.219851 18005 recurrent_layer.cpp:150] Adding parameter 1: b_c
I0925 23:59:51.219856 18005 recurrent_layer.cpp:150] Adding parameter 2: W_hc
I0925 23:59:51.219854 17973 net.cpp:425] cont_1_lstm2_cont_slice_0_split <- cont_1
I0925 23:59:51.219884 17973 net.cpp:399] cont_1_lstm2_cont_slice_0_split -> cont_1_lstm2_cont_slice_0_split_0
I0925 23:59:51.219898 17973 net.cpp:399] cont_1_lstm2_cont_slice_0_split -> cont_1_lstm2_cont_slice_0_split_1
I0925 23:59:51.220099 17981 net.cpp:141] Setting up lstm1
I0925 23:59:51.220118 17981 net.cpp:148] Top shape: 1 1 1000 (1000)
I0925 23:59:51.220126 17981 net.cpp:156] Memory required for data: 26408
I0925 23:59:51.220147 17981 layer_factory.hpp:77] Creating layer concat
I0925 23:59:51.220157 17981 net.cpp:91] Creating Layer concat
I0925 23:59:51.220165 17981 net.cpp:425] concat <- lstm1
I0925 23:59:51.220171 17981 net.cpp:425] concat <- embedded_input_sentence
I0925 23:59:51.220181 17981 net.cpp:425] concat <- reshaped_stage_indicator
I0925 23:59:51.220193 17981 net.cpp:399] concat -> lstm1_video_sequence
I0925 23:59:51.220216 17973 net.cpp:141] Setting up cont_1_lstm2_cont_slice_0_split
I0925 23:59:51.220234 17973 net.cpp:148] Top shape: 1 1 (1)
I0925 23:59:51.220239 17981 net.cpp:141] Setting up concat
I0925 23:59:51.220245 17973 net.cpp:148] Top shape: 1 1 (1)
I0925 23:59:51.220249 17981 net.cpp:148] Top shape: 1 1 1501 (1501)
I0925 23:59:51.220254 17981 net.cpp:156] Memory required for data: 32412
I0925 23:59:51.220254 17973 net.cpp:156] Memory required for data: 14020
I0925 23:59:51.220260 17981 layer_factory.hpp:77] Creating layer lstm2
I0925 23:59:51.220264 17973 layer_factory.hpp:77] Creating layer lstm2_x_transform
I0925 23:59:51.220275 17981 net.cpp:91] Creating Layer lstm2
I0925 23:59:51.220280 17981 net.cpp:425] lstm2 <- lstm1_video_sequence
I0925 23:59:51.220286 17981 net.cpp:425] lstm2 <- cont_sentence_input_1_split_1
I0925 23:59:51.220289 17973 net.cpp:91] Creating Layer lstm2_x_transform
I0925 23:59:51.220294 17981 net.cpp:399] lstm2 -> lstm2
I0925 23:59:51.220300 17973 net.cpp:425] lstm2_x_transform <- x
I0925 23:59:51.220306 17981 recurrent_layer.cpp:20] Initializing recurrent layer: assuming input batch contains 1 timesteps of 1 independent streams.
I0925 23:59:51.220320 17973 net.cpp:399] lstm2_x_transform -> W_xc_x
I0925 23:59:51.220494 17987 net.cpp:141] Setting up lstm2_
I0925 23:59:51.220561 17987 net.cpp:148] Top shape: 1 1 1501 (1501)
I0925 23:59:51.220584 17987 net.cpp:148] Top shape: 1 1 (1)
I0925 23:59:51.220599 17987 net.cpp:156] Memory required for data: 6008
I0925 23:59:51.220605 18005 net.cpp:141] Setting up lstm1
I0925 23:59:51.220619 17987 layer_factory.hpp:77] Creating layer lstm2_
I0925 23:59:51.220634 17981 net.cpp:49] Initializing net from parameters: 
layer {
  name: "lstm2_"
  type: "Input"
  top: "x"
  top: "cont"
  input_param {
    shape {
      dim: 1
      dim: 1
      dim: 1501
    }
    shape {
      dim: 1
      dim: 1
    }
  }
}
layer {
  name: "lstm2_"
  type: "Input"
  top: "c_0"
  top: "h_0"
  input_param {
    shape {
      dim: 1
      dim: 1
      dim: 1000
    }
    shape {
      dim: 1
      dim: 1
      dim: 1000
    }
  }
}
layer {
  name: "lstm2_cont_slice"
  type: "Slice"
  bottom: "cont"
  top: "cont_1"
  slice_param {
    axis: 0
  }
}
layer {
  name: "lstm2_x_transform"
  type: "InnerProduct"
  bottom: "x"
  top: "W_xc_x"
  param {
    name: "W_xc"
  }
  param {
    name: "b_c"
  }
  propagate_down: true
  inner_product_param {
    num_output: 4000
    bias_term: true
    weight_filler {
      type: "uniform"
      min: -0.08
      max: 0.08
    }
    bias_filler {
      type: "constant"
      value: 0
    }
    axis: 2
  }
}
layer {
  name: "lstm2_W_xc_x_slice"
  type: "Slice"
  bottom: "W_xc_x"
  top: "W_xc_x_1"
  slice_param {
    axis: 0
  }
}
layer {
  name: "lstm2_h_conted_0"
  type: "Scale"
  bottom: "h_0"
  bottom: "cont_1"
  top: "h_conted_0"
  scale_param {
    axis: 0
  }
}
layer {
  name: "lstm2_transform_1"
  type: "InnerProduct"
  bottom: "h_conted_0"
  top: "W_hc_h_0"
  param {
    name: "W_hc"
  }
  inner_product_param {
    num_output: 4000
    bias_term: false
    weight_filler {
      type: "uniform"
      min: -0.08
      max: 0.08
    }
    axis: 2
  }
}
layer {
  name: "lstm2_gate_input_1"
  type: "Eltwise"
  bottom: "W_hc_h_0"
  bottom: "W_xc_x_1"
  top: "gate_input_1"
  eltwise_param {
    operation: SUM
  }
}
layer {
  name: "lstm2_unit_1"
  type: "LSTMUnit"
  bottom: "c_0"
  bottom: "gate_input_1"
  bottom: "cont_1"
  top: "c_1"
  top: "h_1"
}
layer {
  name: "lstm2_"
  type: "Split"
  bottom: "c_1"
  top: "c_T"
}
layer {
  name: "lstm2_h_concat"
  type: "Concat"
  bottom: "h_1"
  top: "h"
  concat_param {
    axis: 0
  }
}
layer {
  name: "h_pseudoloss"
  type: "Reduction"
  bottom: "h"
  top: "h_pseudoloss"
  loss_weight: 1
}
I0925 23:59:51.220625 18005 net.cpp:148] Top shape: 1 1 1000 (1000)
I0925 23:59:51.220654 18005 net.cpp:156] Memory required for data: 26408
I0925 23:59:51.220671 17987 net.cpp:91] Creating Layer lstm2_
I0925 23:59:51.220679 18005 layer_factory.hpp:77] Creating layer concat
I0925 23:59:51.220707 18005 net.cpp:91] Creating Layer concat
I0925 23:59:51.220718 18005 net.cpp:425] concat <- lstm1
I0925 23:59:51.220721 17987 net.cpp:399] lstm2_ -> c_0
I0925 23:59:51.220729 18005 net.cpp:425] concat <- embedded_input_sentence
I0925 23:59:51.220774 17987 net.cpp:399] lstm2_ -> h_0
I0925 23:59:51.220782 17981 layer_factory.hpp:77] Creating layer lstm2_
I0925 23:59:51.220782 18005 net.cpp:425] concat <- reshaped_stage_indicator
I0925 23:59:51.220809 18005 net.cpp:399] concat -> lstm1_video_sequence
I0925 23:59:51.220808 17981 net.cpp:91] Creating Layer lstm2_
I0925 23:59:51.220846 17981 net.cpp:399] lstm2_ -> x
I0925 23:59:51.220862 17981 net.cpp:399] lstm2_ -> cont
I0925 23:59:51.220989 17987 net.cpp:141] Setting up lstm2_
I0925 23:59:51.221012 18005 net.cpp:141] Setting up concat
I0925 23:59:51.221019 17987 net.cpp:148] Top shape: 1 1 1000 (1000)
I0925 23:59:51.221030 18005 net.cpp:148] Top shape: 1 1 1501 (1501)
I0925 23:59:51.221040 18005 net.cpp:156] Memory required for data: 32412
I0925 23:59:51.221040 17987 net.cpp:148] Top shape: 1 1 1000 (1000)
I0925 23:59:51.221048 18005 layer_factory.hpp:77] Creating layer lstm2
I0925 23:59:51.221055 17987 net.cpp:156] Memory required for data: 14008
I0925 23:59:51.221067 18005 net.cpp:91] Creating Layer lstm2
I0925 23:59:51.221072 17987 layer_factory.hpp:77] Creating layer lstm2_cont_slice
I0925 23:59:51.221077 18005 net.cpp:425] lstm2 <- lstm1_video_sequence
I0925 23:59:51.221091 18005 net.cpp:425] lstm2 <- cont_sentence_input_1_split_1
I0925 23:59:51.221102 18005 net.cpp:399] lstm2 -> lstm2
I0925 23:59:51.221101 17987 net.cpp:91] Creating Layer lstm2_cont_slice
I0925 23:59:51.221118 18005 recurrent_layer.cpp:20] Initializing recurrent layer: assuming input batch contains 1 timesteps of 1 independent streams.
I0925 23:59:51.221122 17987 net.cpp:425] lstm2_cont_slice <- cont
I0925 23:59:51.221144 17987 net.cpp:399] lstm2_cont_slice -> cont_1
I0925 23:59:51.221256 17987 net.cpp:141] Setting up lstm2_cont_slice
I0925 23:59:51.221282 17987 net.cpp:148] Top shape: 1 1 (1)
I0925 23:59:51.221295 17987 net.cpp:156] Memory required for data: 14012
I0925 23:59:51.221309 17987 layer_factory.hpp:77] Creating layer cont_1_lstm2_cont_slice_0_split
I0925 23:59:51.221390 17987 net.cpp:91] Creating Layer cont_1_lstm2_cont_slice_0_split
I0925 23:59:51.221457 18005 net.cpp:49] Initializing net from parameters: 
layer {
  name: "lstm2_"
  type: "Input"
  top: "x"
  top: "cont"
  input_param {
    shape {
      dim: 1
      dim: 1
      dim: 1501
    }
    shape {
      dim: 1
      dim: 1
    }
  }
}
layer {
  name: "lstm2_"
  type: "Input"
  top: "c_0"
  top: "h_0"
  input_param {
    shape {
      dim: 1
      dim: 1
      dim: 1000
    }
    shape {
      dim: 1
      dim: 1
      dim: 1000
    }
  }
}
layer {
  name: "lstm2_cont_slice"
  type: "Slice"
  bottom: "cont"
  top: "cont_1"
  slice_param {
    axis: 0
  }
}
layer {
  name: "lstm2_x_transform"
  type: "InnerProduct"
  bottom: "x"
  top: "W_xc_x"
  param {
    name: "W_xc"
  }
  param {
    name: "b_c"
  }
  propagate_down: true
  inner_product_param {
    num_output: 4000
    bias_term: true
    weight_filler {
      type: "uniform"
      min: -0.08
      max: 0.08
    }
    bias_filler {
      type: "constant"
      value: 0
    }
    axis: 2
  }
}
layer {
  name: "lstm2_W_xc_x_slice"
  type: "Slice"
  bottom: "W_xc_x"
  top: "W_xc_x_1"
  slice_param {
    axis: 0
  }
}
layer {
  name: "lstm2_h_conted_0"
  type: "Scale"
  bottom: "h_0"
  bottom: "cont_1"
  top: "h_conted_0"
  scale_param {
    axis: 0
  }
}
layer {
  name: "lstm2_transform_1"
  type: "InnerProduct"
  bottom: "h_conted_0"
  top: "W_hc_h_0"
  param {
    name: "W_hc"
  }
  inner_product_param {
    num_output: 4000
    bias_term: false
    weight_filler {
      type: "uniform"
      min: -0.08
      max: 0.08
    }
    axis: 2
  }
}
layer {
  name: "lstm2_gate_input_1"
  type: "Eltwise"
  bottom: "W_hc_h_0"
  bottom: "W_xc_x_1"
  top: "gate_input_1"
  eltwise_param {
    operation: SUM
  }
}
layer {
  name: "lstm2_unit_1"
  type: "LSTMUnit"
  bottom: "c_0"
  bottom: "gate_input_1"
  bottom: "cont_1"
  top: "c_1"
  top: "h_1"
}
layer {
  name: "lstm2_"
  type: "Split"
  bottom: "c_1"
  top: "c_T"
}
layer {
  name: "lstm2_h_concat"
  type: "Concat"
  bottom: "h_1"
  top: "h"
  concat_param {
    axis: 0
  }
}
layer {
  name: "h_pseudoloss"
  type: "Reduction"
  bottom: "h"
  top: "h_pseudoloss"
  loss_weight: 1
}
I0925 23:59:51.221426 17987 net.cpp:425] cont_1_lstm2_cont_slice_0_split <- cont_1
I0925 23:59:51.221527 17987 net.cpp:399] cont_1_lstm2_cont_slice_0_split -> cont_1_lstm2_cont_slice_0_split_0
I0925 23:59:51.221557 17987 net.cpp:399] cont_1_lstm2_cont_slice_0_split -> cont_1_lstm2_cont_slice_0_split_1
I0925 23:59:51.231771 18005 layer_factory.hpp:77] Creating layer lstm2_
I0925 23:59:51.231837 18005 net.cpp:91] Creating Layer lstm2_
I0925 23:59:51.231851 18005 net.cpp:399] lstm2_ -> x
I0925 23:59:51.231883 18005 net.cpp:399] lstm2_ -> cont
I0925 23:59:51.233882 18013 net.cpp:141] Setting up lstm1_x_transform
I0925 23:59:51.233918 18013 net.cpp:148] Top shape: 1 1 4000 (4000)
I0925 23:59:51.233928 18013 net.cpp:156] Memory required for data: 26016
I0925 23:59:51.233954 18013 layer_factory.hpp:77] Creating layer lstm1_W_xc_x_slice
I0925 23:59:51.233973 18013 net.cpp:91] Creating Layer lstm1_W_xc_x_slice
I0925 23:59:51.233984 18013 net.cpp:425] lstm1_W_xc_x_slice <- W_xc_x
I0925 23:59:51.234016 18013 net.cpp:399] lstm1_W_xc_x_slice -> W_xc_x_1
I0925 23:59:51.234083 18013 net.cpp:141] Setting up lstm1_W_xc_x_slice
I0925 23:59:51.234102 18013 net.cpp:148] Top shape: 1 1 4000 (4000)
I0925 23:59:51.234110 18013 net.cpp:156] Memory required for data: 42016
I0925 23:59:51.234119 18013 layer_factory.hpp:77] Creating layer lstm1_h_conted_0
I0925 23:59:51.234136 18013 net.cpp:91] Creating Layer lstm1_h_conted_0
I0925 23:59:51.234145 18013 net.cpp:425] lstm1_h_conted_0 <- h_0
I0925 23:59:51.234158 18013 net.cpp:425] lstm1_h_conted_0 <- cont_1_lstm1_cont_slice_0_split_0
I0925 23:59:51.234170 18013 net.cpp:399] lstm1_h_conted_0 -> h_conted_0
I0925 23:59:51.234338 18013 net.cpp:141] Setting up lstm1_h_conted_0
I0925 23:59:51.234355 18013 net.cpp:148] Top shape: 1 1 1000 (1000)
I0925 23:59:51.234364 18013 net.cpp:156] Memory required for data: 46016
I0925 23:59:51.234374 18013 layer_factory.hpp:77] Creating layer lstm1_transform_1
I0925 23:59:51.234392 18013 net.cpp:91] Creating Layer lstm1_transform_1
I0925 23:59:51.234401 18013 net.cpp:425] lstm1_transform_1 <- h_conted_0
I0925 23:59:51.234431 18013 net.cpp:399] lstm1_transform_1 -> W_hc_h_0
I0925 23:59:51.245198 17963 net.cpp:141] Setting up h_pseudoloss
…
I0925 23:59:51.245370 17963 net.cpp:217] lstm1_x_transform needs backward computation.
I0925 23:59:51.245379 17963 net.cpp:219] cont_1_lstm1_cont_slice_0_split does not need backward computation.
I0925 23:59:51.245389 17963 net.cpp:219] lstm1_cont_slice does not need backward computation.
I0925 23:59:51.245385 17967 net.cpp:141] Setting up embedding
I0925 23:59:51.245398 17963 net.cpp:219] lstm1_ does not need backward computation.
I0925 23:59:51.245405 17963 net.cpp:219] lstm1_ does not need backward computation.
I0925 23:59:51.245412 17963 net.cpp:261] This network produces output c_T
I0925 23:59:51.245412 17967 net.cpp:148] Top shape: 1 1 500 (500)
I0925 23:59:51.245422 17967 net.cpp:156] Memory required for data: 22408
I0925 23:59:51.245422 17963 net.cpp:261] This network produces output h_pseudoloss
I0925 23:59:51.245452 17967 layer_factory.hpp:77] Creating layer lstm1
I0925 23:59:51.245452 17987 net.cpp:141] Setting up cont_1_lstm2_cont_slice_0_split
I0925 23:59:51.245476 17967 net.cpp:91] Creating Layer lstm1
I0925 23:59:51.245482 17987 net.cpp:148] Top shape: 1 1 (1)
I0925 23:59:51.245462 17981 net.cpp:141] Setting up lstm2_
I0925 23:59:51.245491 17967 net.cpp:425] lstm1 <- embedded_input_frames
I0925 23:59:51.245493 17987 net.cpp:148] Top shape: 1 1 (1)
I0925 23:59:51.245528 18005 net.cpp:141] Setting up lstm2_
I0925 23:59:51.245533 17981 net.cpp:148] Top shape: 1 1 1501 (1501)
I0925 23:59:51.245563 18005 net.cpp:148] Top shape: 1 1 1501 (1501)
I0925 23:59:51.245570 17981 net.cpp:148] Top shape: 1 1 (1)
I0925 23:59:51.245580 18005 net.cpp:148] Top shape: 1 1 (1)
I0925 23:59:51.245538 17987 net.cpp:156] Memory required for data: 14020
I0925 23:59:51.245535 17967 net.cpp:425] lstm1 <- cont_sentence_input_1_split_0
I0925 23:59:51.245584 17981 net.cpp:156] Memory required for data: 6008
I0925 23:59:51.245599 17987 layer_factory.hpp:77] Creating layer lstm2_x_transform
I0925 23:59:51.245612 17981 layer_factory.hpp:77] Creating layer lstm2_
I0925 23:59:51.245618 17967 net.cpp:399] lstm1 -> lstm1
…
I0925 23:59:51.245755 17963 recurrent_layer.cpp:150] Adding parameter 2: W_hc
I0925 23:59:51.245651 17987 net.cpp:399] lstm2_x_transform -> W_xc_x
I0925 23:59:51.246028 17967 net.cpp:49] Initializing net from parameters: 
layer {
  name: "lstm1_"
  type: "Input"
  top: "x"
  top: "cont"
  input_param {
    shape {
      dim: 1
      dim: 1
      dim: 500
    }
    shape {
      dim: 1
      dim: 1
    }
  }
}
layer {
  name: "lstm1_"
  type: "Input"
  top: "c_0"
  top: "h_0"
  input_param {
    shape {
      dim: 1
      dim: 1
      dim: 1000
    }
    shape {
      dim: 1
      dim: 1
      dim: 1000
    }
  }
}
layer {
  name: "lstm1_cont_slice"
  type: "Slice"
  bottom: "cont"
  top: "cont_1"
  slice_param {
    axis: 0
  }
}
layer {
  name: "lstm1_x_transform"
  type: "InnerProduct"
  bottom: "x"
  top: "W_xc_x"
  param {
    name: "W_xc"
  }
  param {
    name: "b_c"
  }
  propagate_down: true
  inner_product_param {
    num_output: 4000
…
I0925 23:59:51.741778 17981 net.cpp:217] h_pseudoloss needs backward computation.
I0925 23:59:51.741786 17981 net.cpp:217] lstm2_h_concat needs backward computation.
I0925 23:59:51.741780 18005 net.cpp:141] Setting up lstm2
I0925 23:59:51.741793 17967 net.cpp:91] Creating Layer lstm2_
I0925 23:59:51.741791 17981 net.cpp:219] lstm2_ does not need backward computation.
I0925 23:59:51.741802 17981 net.cpp:217] lstm2_unit_1 needs backward computation.
I0925 23:59:51.741804 18005 net.cpp:148] Top shape: 1 1 1000 (1000)
I0925 23:59:51.741806 17967 net.cpp:399] lstm2_ -> c_0
I0925 23:59:51.741811 17981 net.cpp:217] lstm2_gate_input_1 needs backward computation.
I0925 23:59:51.741812 18005 net.cpp:156] Memory required for data: 36412
I0925 23:59:51.741816 17981 net.cpp:217] lstm2_transform_1 needs backward computation.
I0925 23:59:51.741827 17981 net.cpp:219] lstm2_h_conted_0 does not need backward computation.
…
I0925 23:59:51.741890 17981 net.cpp:219] lstm2_ does not need backward computation.
I0925 23:59:51.741896 17981 net.cpp:261] This network produces output c_T
I0925 23:59:51.741906 17981 net.cpp:261] This network produces output h_pseudoloss
I0925 23:59:51.741927 17981 net.cpp:274] Network initialization done.
I0925 23:59:51.741979 17981 recurrent_layer.cpp:150] Adding parameter 0: W_xc
I0925 23:59:51.741986 17981 recurrent_layer.cpp:150] Adding parameter 1: b_c
I0925 23:59:51.741991 17981 recurrent_layer.cpp:150] Adding parameter 2: W_hc
I0925 23:59:51.742023 18017 net.cpp:141] Setting up lstm2_
I0925 23:59:51.742036 18017 net.cpp:148] Top shape: 1 1 1501 (1501)
I0925 23:59:51.742043 18017 net.cpp:148] Top shape: 1 1 (1)
I0925 23:59:51.742048 18017 net.cpp:156] Memory required for data: 6008
I0925 23:59:51.742053 18017 layer_factory.hpp:77] Creating layer lstm2_
I0925 23:59:51.742059 17967 net.cpp:141] Setting up lstm2_
I0925 23:59:51.742063 18017 net.cpp:91] Creating Layer lstm2_
I0925 23:59:51.742076 17967 net.cpp:148] Top shape: 1 1 1000 (1000)
I0925 23:59:51.742079 18017 net.cpp:399] lstm2_ -> c_0
I0925 23:59:51.742082 17967 net.cpp:148] Top shape: 1 1 1000 (1000)
I0925 23:59:51.742087 17967 net.cpp:156] Memory required for data: 14008
I0925 23:59:51.742091 17967 layer_factory.hpp:77] Creating layer lstm2_cont_slice
I0925 23:59:51.742096 18017 net.cpp:399] lstm2_ -> h_0
I0925 23:59:51.742105 17967 net.cpp:91] Creating Layer lstm2_cont_slice
I0925 23:59:51.742110 17967 net.cpp:425] lstm2_cont_slice <- cont
I0925 23:59:51.742118 17967 net.cpp:399] lstm2_cont_slice -> cont_1
I0925 23:59:51.742174 18013 net.cpp:141] Setting up lstm2_h_conted_0
I0925 23:59:51.742208 18013 net.cpp:148] Top shape: 1 1 1000 (1000)
I0925 23:59:51.742224 18013 net.cpp:156] Memory required for data: 50020
I0925 23:59:51.742239 18013 layer_factory.hpp:77] Creating layer lstm2_transform_1
I0925 23:59:51.742274 18013 net.cpp:91] Creating Layer lstm2_transform_1
I0925 23:59:51.742295 18013 net.cpp:425] lstm2_transform_1 <- h_conted_0
I0925 23:59:51.742318 18013 net.cpp:399] lstm2_transform_1 -> W_hc_h_0
I0925 23:59:51.837661 18017 net.cpp:141] Setting up lstm2_
I0925 23:59:51.837718 18017 net.cpp:148] Top shape: 1 1 1000 (1000)
I0925 23:59:51.837731 18017 net.cpp:148] Top shape: 1 1 1000 (1000)
I0925 23:59:51.837738 18017 net.cpp:156] Memory required for data: 14008
I0925 23:59:51.837755 18017 layer_factory.hpp:77] Creating layer lstm2_cont_slice
I0925 23:59:51.837785 18017 net.cpp:91] Creating Layer lstm2_cont_slice
I0925 23:59:51.837791 18017 net.cpp:425] lstm2_cont_slice <- cont
I0925 23:59:51.837803 18017 net.cpp:399] lstm2_cont_slice -> cont_1
I0925 23:59:51.837815 17967 net.cpp:141] Setting up lstm2_cont_slice
I0925 23:59:51.837851 17967 net.cpp:148] Top shape: 1 1 (1)
I0925 23:59:51.837855 17967 net.cpp:156] Memory required for data: 14012
I0925 23:59:51.837868 17967 layer_factory.hpp:77] Creating layer cont_1_lstm2_cont_slice_0_split
I0925 23:59:51.837889 17967 net.cpp:91] Creating Layer cont_1_lstm2_cont_slice_0_split
I0925 23:59:51.837899 17967 net.cpp:425] cont_1_lstm2_cont_slice_0_split <- cont_1
I0925 23:59:51.837909 17967 net.cpp:399] cont_1_lstm2_cont_slice_0_split -> cont_1_lstm2_cont_slice_0_split_0
I0925 23:59:51.837924 17967 net.cpp:399] cont_1_lstm2_cont_slice_0_split -> cont_1_lstm2_cont_slice_0_split_1
I0925 23:59:51.838039 17967 net.cpp:141] Setting up cont_1_lstm2_cont_slice_0_split
I0925 23:59:51.838049 17967 net.cpp:148] Top shape: 1 1 (1)
I0925 23:59:51.838055 17967 net.cpp:148] Top shape: 1 1 (1)
I0925 23:59:51.838059 17967 net.cpp:156] Memory required for data: 14020
I0925 23:59:51.838065 17967 layer_factory.hpp:77] Creating layer lstm2_x_transform
I0925 23:59:51.838088 17967 net.cpp:91] Creating Layer lstm2_x_transform
I0925 23:59:51.838093 17967 net.cpp:425] lstm2_x_transform <- x
I0925 23:59:51.838106 17967 net.cpp:399] lstm2_x_transform -> W_xc_x
I0925 23:59:51.838150 18017 net.cpp:141] Setting up lstm2_cont_slice
I0925 23:59:51.838167 18017 net.cpp:148] Top shape: 1 1 (1)
I0925 23:59:51.838171 18017 net.cpp:156] Memory required for data: 14012
I0925 23:59:51.838176 18017 layer_factory.hpp:77] Creating layer cont_1_lstm2_cont_slice_0_split
I0925 23:59:51.838189 18017 net.cpp:91] Creating Layer cont_1_lstm2_cont_slice_0_split
I0925 23:59:51.838196 18017 net.cpp:425] cont_1_lstm2_cont_slice_0_split <- cont_1
I0925 23:59:51.838202 18017 net.cpp:399] cont_1_lstm2_cont_slice_0_split -> cont_1_lstm2_cont_slice_0_split_0
…
I0925 23:59:51.849441 17973 net.cpp:219] lstm2_cont_slice does not need backward computation.
I0925 23:59:51.849453 17973 net.cpp:219] lstm2_ does not need backward computation.
I0925 23:59:51.849462 17973 net.cpp:219] lstm2_ does not need backward computation.
I0925 23:59:51.849469 17973 net.cpp:261] This network produces output c_T
I0925 23:59:51.849479 17973 net.cpp:261] This network produces output h_pseudoloss
I0925 23:59:51.849511 17973 net.cpp:274] Network initialization done.
I0925 23:59:51.849606 17981 net.cpp:141] Setting up lstm2
I0925 23:59:51.849627 17973 recurrent_layer.cpp:150] Adding parameter 0: W_xc
I0925 23:59:51.849637 17981 net.cpp:148] Top shape: 1 1 1000 (1000)
I0925 23:59:51.849639 17973 recurrent_layer.cpp:150] Adding parameter 1: b_c
I0925 23:59:51.849647 17981 net.cpp:156] Memory required for data: 36412
I0925 23:59:51.849652 17973 recurrent_layer.cpp:150] Adding parameter 2: W_hc
I0925 23:59:51.849679 17981 layer_factory.hpp:77] Creating layer predict
I0925 23:59:51.849712 17981 net.cpp:91] Creating Layer predict
I0925 23:59:51.852227 17981 net.cpp:425] predict <- lstm2
I0925 23:59:51.852294 17981 net.cpp:399] predict -> predict
I0925 23:59:51.982278 18017 net.cpp:141] Setting up cont_1_lstm2_cont_slice_0_split
I0925 23:59:51.982348 18017 net.cpp:148] Top shape: 1 1 (1)
I0925 23:59:51.982360 18017 net.cpp:148] Top shape: 1 1 (1)
I0925 23:59:51.982367 18017 net.cpp:156] Memory required for data: 14020
I0925 23:59:51.982383 18017 layer_factory.hpp:77] Creating layer lstm2_x_transform
I0925 23:59:51.982422 18017 net.cpp:91] Creating Layer lstm2_x_transform
I0925 23:59:51.982435 18017 net.cpp:425] lstm2_x_transform <- x
I0925 23:59:51.982461 18017 net.cpp:399] lstm2_x_transform -> W_xc_x
I0925 23:59:51.986248 18013 net.cpp:141] Setting up lstm2_transform_1
I0925 23:59:51.986282 18013 net.cpp:148] Top shape: 1 1 4000 (4000)
I0925 23:59:51.986292 18013 net.cpp:156] Memory required for data: 66020
I0925 23:59:51.986320 18013 layer_factory.hpp:77] Creating layer lstm2_gate_input_1
I0925 23:59:51.986358 18013 net.cpp:91] Creating Layer lstm2_gate_input_1
I0925 23:59:51.986372 18013 net.cpp:425] lstm2_gate_input_1 <- W_hc_h_0
I0925 23:59:51.986382 18013 net.cpp:425] lstm2_gate_input_1 <- W_xc_x_1
I0925 23:59:51.986467 18013 net.cpp:399] lstm2_gate_input_1 -> gate_input_1
I0925 23:59:51.986544 18013 net.cpp:141] Setting up lstm2_gate_input_1
I0925 23:59:51.986560 18013 net.cpp:148] Top shape: 1 1 4000 (4000)
I0925 23:59:51.986569 18013 net.cpp:156] Memory required for data: 82020
I0925 23:59:51.986577 18013 layer_factory.hpp:77] Creating layer lstm2_unit_1
I0925 23:59:51.986644 18013 net.cpp:91] Creating Layer lstm2_unit_1
I0925 23:59:51.986656 18013 net.cpp:425] lstm2_unit_1 <- c_0
I0925 23:59:51.986668 18013 net.cpp:425] lstm2_unit_1 <- gate_input_1
I0925 23:59:51.986681 18013 net.cpp:425] lstm2_unit_1 <- cont_1_lstm2_cont_slice_0_split_1
I0925 23:59:51.986696 18013 net.cpp:399] lstm2_unit_1 -> c_1
I0925 23:59:51.988034 18013 net.cpp:399] lstm2_unit_1 -> h_1
I0925 23:59:52.000916 17969 net.cpp:141] Setting up predict
I0925 23:59:52.001668 17969 net.cpp:148] Top shape: 1 1 46168 (46168)
I0925 23:59:52.001932 17969 net.cpp:156] Memory required for data: 221084
I0925 23:59:52.002200 17969 layer_factory.hpp:77] Creating layer probs
I0925 23:59:52.002491 17969 net.cpp:91] Creating Layer probs
I0925 23:59:52.002634 17969 net.cpp:425] probs <- predict
I0925 23:59:52.002768 17969 net.cpp:399] probs -> probs
I0925 23:59:52.004111 17973 net.cpp:141] Setting up lstm2
I0925 23:59:52.004143 17973 net.cpp:148] Top shape: 1 1 1000 (1000)
I0925 23:59:52.004153 17973 net.cpp:156] Memory required for data: 36412
I0925 23:59:52.004181 17973 layer_factory.hpp:77] Creating layer predict
I0925 23:59:52.004204 17973 net.cpp:91] Creating Layer predict
I0925 23:59:52.004216 17973 net.cpp:425] predict <- lstm2
I0925 23:59:52.004230 17973 net.cpp:399] predict -> predict
I0925 23:59:52.100220 17967 net.cpp:141] Setting up lstm2_x_transform
I0925 23:59:52.100278 17967 net.cpp:148] Top shape: 1 1 4000 (4000)
I0925 23:59:52.100288 17967 net.cpp:156] Memory required for data: 30020
I0925 23:59:52.100318 17967 layer_factory.hpp:77] Creating layer lstm2_W_xc_x_slice
I0925 23:59:52.100344 17967 net.cpp:91] Creating Layer lstm2_W_xc_x_slice
I0925 23:59:52.100358 17967 net.cpp:425] lstm2_W_xc_x_slice <- W_xc_x
I0925 23:59:52.100373 17967 net.cpp:399] lstm2_W_xc_x_slice -> W_xc_x_1
I0925 23:59:52.100709 18017 net.cpp:141] Setting up lstm2_x_transform
I0925 23:59:52.100769 18017 net.cpp:148] Top shape: 1 1 4000 (4000)
I0925 23:59:52.100781 18017 net.cpp:156] Memory required for data: 30020
I0925 23:59:52.100816 18017 layer_factory.hpp:77] Creating layer lstm2_W_xc_x_slice
I0925 23:59:52.100844 18017 net.cpp:91] Creating Layer lstm2_W_xc_x_slice
I0925 23:59:52.100858 18017 net.cpp:425] lstm2_W_xc_x_slice <- W_xc_x
I0925 23:59:52.100883 18017 net.cpp:399] lstm2_W_xc_x_slice -> W_xc_x_1
I0925 23:59:52.100985 18017 net.cpp:141] Setting up lstm2_W_xc_x_slice
I0925 23:59:52.101007 18017 net.cpp:148] Top shape: 1 1 4000 (4000)
I0925 23:59:52.101019 18017 net.cpp:156] Memory required for data: 46020
I0925 23:59:52.101030 18017 layer_factory.hpp:77] Creating layer lstm2_h_conted_0
I0925 23:59:52.101056 18017 net.cpp:91] Creating Layer lstm2_h_conted_0
I0925 23:59:52.101068 18017 net.cpp:425] lstm2_h_conted_0 <- h_0
I0925 23:59:52.101081 18017 net.cpp:425] lstm2_h_conted_0 <- cont_1_lstm2_cont_slice_0_split_0
I0925 23:59:52.101097 18017 net.cpp:399] lstm2_h_conted_0 -> h_conted_0
I0925 23:59:52.101377 18017 net.cpp:141] Setting up lstm2_h_conted_0
I0925 23:59:52.101399 18017 net.cpp:148] Top shape: 1 1 1000 (1000)
I0925 23:59:52.101409 18017 net.cpp:156] Memory required for data: 50020
I0925 23:59:52.101418 18017 layer_factory.hpp:77] Creating layer lstm2_transform_1
I0925 23:59:52.101446 18017 net.cpp:91] Creating Layer lstm2_transform_1
I0925 23:59:52.101456 18017 net.cpp:425] lstm2_transform_1 <- h_conted_0
I0925 23:59:52.101477 18017 net.cpp:399] lstm2_transform_1 -> W_hc_h_0
I0925 23:59:52.111399 17967 net.cpp:141] Setting up lstm2_W_xc_x_slice
I0925 23:59:52.111459 17967 net.cpp:148] Top shape: 1 1 4000 (4000)
I0925 23:59:52.111469 17967 net.cpp:156] Memory required for data: 46020
I0925 23:59:52.111481 17967 layer_factory.hpp:77] Creating layer lstm2_h_conted_0
I0925 23:59:52.111503 17967 net.cpp:91] Creating Layer lstm2_h_conted_0
I0925 23:59:52.111515 17967 net.cpp:425] lstm2_h_conted_0 <- h_0
I0925 23:59:52.111529 17967 net.cpp:425] lstm2_h_conted_0 <- cont_1_lstm2_cont_slice_0_split_0
I0925 23:59:52.111543 17967 net.cpp:399] lstm2_h_conted_0 -> h_conted_0
I0925 23:59:52.111843 18013 net.cpp:141] Setting up lstm2_unit_1
I0925 23:59:52.111886 18013 net.cpp:148] Top shape: 1 1 1000 (1000)
I0925 23:59:52.111894 18013 net.cpp:148] Top shape: 1 1 1000 (1000)
I0925 23:59:52.111898 18013 net.cpp:156] Memory required for data: 90020
I0925 23:59:52.111907 18013 layer_factory.hpp:77] Creating layer lstm2_
I0925 23:59:52.111927 18013 net.cpp:91] Creating Layer lstm2_
I0925 23:59:52.111933 18013 net.cpp:425] lstm2_ <- c_1
I0925 23:59:52.111944 18013 net.cpp:399] lstm2_ -> c_T
I0925 23:59:52.112020 17967 net.cpp:141] Setting up lstm2_h_conted_0
I0925 23:59:52.112035 17967 net.cpp:148] Top shape: 1 1 1000 (1000)
I0925 23:59:52.112042 17967 net.cpp:156] Memory required for data: 50020
I0925 23:59:52.112051 17967 layer_factory.hpp:77] Creating layer lstm2_transform_1
I0925 23:59:52.112069 17967 net.cpp:91] Creating Layer lstm2_transform_1
I0925 23:59:52.112077 17967 net.cpp:425] lstm2_transform_1 <- h_conted_0
I0925 23:59:52.112093 17967 net.cpp:399] lstm2_transform_1 -> W_hc_h_0
I0925 23:59:52.112140 18013 net.cpp:141] Setting up lstm2_
I0925 23:59:52.112152 18013 net.cpp:148] Top shape: 1 1 1000 (1000)
I0925 23:59:52.112156 18013 net.cpp:156] Memory required for data: 94020
I0925 23:59:52.112161 18013 layer_factory.hpp:77] Creating layer lstm2_h_concat
I0925 23:59:52.112172 18013 net.cpp:91] Creating Layer lstm2_h_concat
I0925 23:59:52.112177 18013 net.cpp:425] lstm2_h_concat <- h_1
I0925 23:59:52.112190 18013 net.cpp:399] lstm2_h_concat -> h
I0925 23:59:52.112303 17987 net.cpp:141] Setting up predict
I0925 23:59:52.112344 17987 net.cpp:148] Top shape: 1 1 46168 (46168)
I0925 23:59:52.112354 17987 net.cpp:156] Memory required for data: 221084
I0925 23:59:52.112404 17987 layer_factory.hpp:77] Creating layer probs
I0925 23:59:52.112426 17987 net.cpp:91] Creating Layer probs
I0925 23:59:52.112490 17987 net.cpp:425] probs <- predict
I0925 23:59:52.112514 17987 net.cpp:399] probs -> probs
I0925 23:59:52.122259 18013 net.cpp:141] Setting up lstm2_h_concat
I0925 23:59:52.122325 18013 net.cpp:148] Top shape: 1 1 1000 (1000)
I0925 23:59:52.122335 18013 net.cpp:156] Memory required for data: 98020
I0925 23:59:52.122349 18013 layer_factory.hpp:77] Creating layer h_pseudoloss
I0925 23:59:52.122372 18013 net.cpp:91] Creating Layer h_pseudoloss
I0925 23:59:52.122382 18013 net.cpp:425] h_pseudoloss <- h
I0925 23:59:52.122400 18013 net.cpp:399] h_pseudoloss -> h_pseudoloss
I0925 23:59:52.122611 18013 net.cpp:141] Setting up h_pseudoloss
…
I0925 23:59:52.122809 18013 net.cpp:219] lstm2_ does not need backward computation.
I0925 23:59:52.122815 18013 net.cpp:261] This network produces output c_T
I0925 23:59:52.122824 18013 net.cpp:261] This network produces output h_pseudoloss
I0925 23:59:52.122848 18013 net.cpp:274] Network initialization done.
I0925 23:59:52.122941 18013 recurrent_layer.cpp:150] Adding parameter 0: W_xc
I0925 23:59:52.122949 18013 recurrent_layer.cpp:150] Adding parameter 1: b_c
I0925 23:59:52.122956 18013 recurrent_layer.cpp:150] Adding parameter 2: W_hc
I0925 23:59:52.133337 18013 net.cpp:141] Setting up lstm2
I0925 23:59:52.133394 18013 net.cpp:148] Top shape: 1 1 1000 (1000)
I0925 23:59:52.133402 18013 net.cpp:156] Memory required for data: 36412
I0925 23:59:52.133438 18013 layer_factory.hpp:77] Creating layer predict
I0925 23:59:52.133461 18013 net.cpp:91] Creating Layer predict
I0925 23:59:52.133473 18013 net.cpp:425] predict <- lstm2
I0925 23:59:52.133486 18013 net.cpp:399] predict -> predict
I0925 23:59:52.223601 18017 net.cpp:141] Setting up lstm2_transform_1
I0925 23:59:52.224019 18017 net.cpp:148] Top shape: 1 1 4000 (4000)
I0925 23:59:52.224035 18017 net.cpp:156] Memory required for data: 66020
I0925 23:59:52.224066 18017 layer_factory.hpp:77] Creating layer lstm2_gate_input_1
I0925 23:59:52.224102 18017 net.cpp:91] Creating Layer lstm2_gate_input_1
I0925 23:59:52.224112 18017 net.cpp:425] lstm2_gate_input_1 <- W_hc_h_0
I0925 23:59:52.224125 18017 net.cpp:425] lstm2_gate_input_1 <- W_xc_x_1
I0925 23:59:52.224138 18017 net.cpp:399] lstm2_gate_input_1 -> gate_input_1
I0925 23:59:52.224236 18017 net.cpp:141] Setting up lstm2_gate_input_1
I0925 23:59:52.224251 18017 net.cpp:148] Top shape: 1 1 4000 (4000)
I0925 23:59:52.224257 18017 net.cpp:156] Memory required for data: 82020
I0925 23:59:52.224266 18017 layer_factory.hpp:77] Creating layer lstm2_unit_1
I0925 23:59:52.224279 18017 net.cpp:91] Creating Layer lstm2_unit_1
I0925 23:59:52.224287 18017 net.cpp:425] lstm2_unit_1 <- c_0
I0925 23:59:52.224297 18017 net.cpp:425] lstm2_unit_1 <- gate_input_1
I0925 23:59:52.224305 18017 net.cpp:425] lstm2_unit_1 <- cont_1_lstm2_cont_slice_0_split_1
I0925 23:59:52.224319 18017 net.cpp:399] lstm2_unit_1 -> c_1
I0925 23:59:52.224334 18017 net.cpp:399] lstm2_unit_1 -> h_1
I0925 23:59:52.224453 18017 net.cpp:141] Setting up lstm2_unit_1
I0925 23:59:52.224469 18017 net.cpp:148] Top shape: 1 1 1000 (1000)
I0925 23:59:52.224480 18017 net.cpp:148] Top shape: 1 1 1000 (1000)
I0925 23:59:52.224488 18017 net.cpp:156] Memory required for data: 90020
I0925 23:59:52.224494 18017 layer_factory.hpp:77] Creating layer lstm2_
I0925 23:59:52.224508 18017 net.cpp:91] Creating Layer lstm2_
I0925 23:59:52.224515 18017 net.cpp:425] lstm2_ <- c_1
I0925 23:59:52.224527 18017 net.cpp:399] lstm2_ -> c_T
I0925 23:59:52.224583 18017 net.cpp:141] Setting up lstm2_
I0925 23:59:52.224598 18017 net.cpp:148] Top shape: 1 1 1000 (1000)
I0925 23:59:52.224606 18017 net.cpp:156] Memory required for data: 94020
I0925 23:59:52.224612 18017 layer_factory.hpp:77] Creating layer lstm2_h_concat
I0925 23:59:52.224630 18017 net.cpp:91] Creating Layer lstm2_h_concat
I0925 23:59:52.224638 18017 net.cpp:425] lstm2_h_concat <- h_1
I0925 23:59:52.224649 18017 net.cpp:399] lstm2_h_concat -> h
I0925 23:59:52.224704 18017 net.cpp:141] Setting up lstm2_h_concat
I0925 23:59:52.224719 18017 net.cpp:148] Top shape: 1 1 1000 (1000)
I0925 23:59:52.224725 18017 net.cpp:156] Memory required for data: 98020
I0925 23:59:52.224733 18017 layer_factory.hpp:77] Creating layer h_pseudoloss
I0925 23:59:52.224751 18017 net.cpp:91] Creating Layer h_pseudoloss
I0925 23:59:52.224759 18017 net.cpp:425] h_pseudoloss <- h
I0925 23:59:52.224771 18017 net.cpp:399] h_pseudoloss -> h_pseudoloss
I0925 23:59:52.224922 18017 net.cpp:141] Setting up h_pseudoloss
…
I0925 23:59:52.225082 18017 net.cpp:219] lstm2_ does not need backward computation.
I0925 23:59:52.225090 18017 net.cpp:261] This network produces output c_T
I0925 23:59:52.225097 18017 net.cpp:261] This network produces output h_pseudoloss
I0925 23:59:52.225128 18017 net.cpp:274] Network initialization done.
I0925 23:59:52.225209 18017 recurrent_layer.cpp:150] Adding parameter 0: W_xc
I0925 23:59:52.225221 18017 recurrent_layer.cpp:150] Adding parameter 1: b_c
I0925 23:59:52.225229 18017 recurrent_layer.cpp:150] Adding parameter 2: W_hc
I0925 23:59:52.225404 18017 net.cpp:141] Setting up lstm2
I0925 23:59:52.225425 18017 net.cpp:148] Top shape: 1 1 1000 (1000)
I0925 23:59:52.225432 18017 net.cpp:156] Memory required for data: 36412
I0925 23:59:52.225458 18017 layer_factory.hpp:77] Creating layer predict
I0925 23:59:52.225479 18017 net.cpp:91] Creating Layer predict
I0925 23:59:52.225492 18017 net.cpp:425] predict <- lstm2
I0925 23:59:52.225504 18017 net.cpp:399] predict -> predict
I0925 23:59:52.225574 17967 net.cpp:141] Setting up lstm2_transform_1
I0925 23:59:52.225618 17967 net.cpp:148] Top shape: 1 1 4000 (4000)
I0925 23:59:52.225627 17967 net.cpp:156] Memory required for data: 66020
I0925 23:59:52.225651 17967 layer_factory.hpp:77] Creating layer lstm2_gate_input_1
I0925 23:59:52.225678 17967 net.cpp:91] Creating Layer lstm2_gate_input_1
I0925 23:59:52.225689 17967 net.cpp:425] lstm2_gate_input_1 <- W_hc_h_0
I0925 23:59:52.225700 17967 net.cpp:425] lstm2_gate_input_1 <- W_xc_x_1
I0925 23:59:52.225713 17967 net.cpp:399] lstm2_gate_input_1 -> gate_input_1
I0925 23:59:52.225790 17967 net.cpp:141] Setting up lstm2_gate_input_1
I0925 23:59:52.225803 17967 net.cpp:148] Top shape: 1 1 4000 (4000)
I0925 23:59:52.225810 17967 net.cpp:156] Memory required for data: 82020
I0925 23:59:52.225817 17967 layer_factory.hpp:77] Creating layer lstm2_unit_1
I0925 23:59:52.225831 17967 net.cpp:91] Creating Layer lstm2_unit_1
I0925 23:59:52.225838 17967 net.cpp:425] lstm2_unit_1 <- c_0
I0925 23:59:52.225847 17967 net.cpp:425] lstm2_unit_1 <- gate_input_1
I0925 23:59:52.225857 17967 net.cpp:425] lstm2_unit_1 <- cont_1_lstm2_cont_slice_0_split_1
I0925 23:59:52.225869 17967 net.cpp:399] lstm2_unit_1 -> c_1
I0925 23:59:52.225883 17967 net.cpp:399] lstm2_unit_1 -> h_1
I0925 23:59:52.225992 17967 net.cpp:141] Setting up lstm2_unit_1
I0925 23:59:52.226006 17967 net.cpp:148] Top shape: 1 1 1000 (1000)
I0925 23:59:52.226016 17967 net.cpp:148] Top shape: 1 1 1000 (1000)
I0925 23:59:52.226022 17967 net.cpp:156] Memory required for data: 90020
I0925 23:59:52.226030 17967 layer_factory.hpp:77] Creating layer lstm2_
I0925 23:59:52.226042 17967 net.cpp:91] Creating Layer lstm2_
I0925 23:59:52.226049 17967 net.cpp:425] lstm2_ <- c_1
I0925 23:59:52.226060 17967 net.cpp:399] lstm2_ -> c_T
I0925 23:59:52.226114 17967 net.cpp:141] Setting up lstm2_
I0925 23:59:52.226126 17967 net.cpp:148] Top shape: 1 1 1000 (1000)
I0925 23:59:52.226133 17967 net.cpp:156] Memory required for data: 94020
I0925 23:59:52.226140 17967 layer_factory.hpp:77] Creating layer lstm2_h_concat
I0925 23:59:52.226153 17967 net.cpp:91] Creating Layer lstm2_h_concat
I0925 23:59:52.226161 17967 net.cpp:425] lstm2_h_concat <- h_1
I0925 23:59:52.226174 17967 net.cpp:399] lstm2_h_concat -> h
I0925 23:59:52.234585 17967 net.cpp:141] Setting up lstm2_h_concat
I0925 23:59:52.235141 17967 net.cpp:148] Top shape: 1 1 1000 (1000)
I0925 23:59:52.237519 17963 net.cpp:141] Setting up predict
I0925 23:59:52.237764 17967 net.cpp:156] Memory required for data: 98020
I0925 23:59:52.237792 17967 layer_factory.hpp:77] Creating layer h_pseudoloss
I0925 23:59:52.241060 17967 net.cpp:91] Creating Layer h_pseudoloss
I0925 23:59:52.241113 17967 net.cpp:425] h_pseudoloss <- h
I0925 23:59:52.241140 17967 net.cpp:399] h_pseudoloss -> h_pseudoloss
I0925 23:59:52.242907 17963 net.cpp:148] Top shape: 1 1 46168 (46168)
I0925 23:59:52.242949 17963 net.cpp:156] Memory required for data: 221084
I0925 23:59:52.242982 17963 layer_factory.hpp:77] Creating layer probs
I0925 23:59:52.243010 17963 net.cpp:91] Creating Layer probs
I0925 23:59:52.243057 17963 net.cpp:425] probs <- predict
I0925 23:59:52.243105 17963 net.cpp:399] probs -> probs
I0925 23:59:52.322065 17967 net.cpp:141] Setting up h_pseudoloss
I0925 23:59:52.322113 17967 net.cpp:148] Top shape: (1)
I0925 23:59:52.322118 17967 net.cpp:151]     with loss weight 1
I0925 23:59:52.322147 17967 net.cpp:156] Memory required for data: 98024
I0925 23:59:52.322156 17967 net.cpp:217] h_pseudoloss needs backward computation.
I0925 23:59:52.322163 17967 net.cpp:217] lstm2_h_concat needs backward computation.
I0925 23:59:52.322168 17967 net.cpp:219] lstm2_ does not need backward computation.
I0925 23:59:52.322175 17967 net.cpp:217] lstm2_unit_1 needs backward computation.
I0925 23:59:52.322182 17967 net.cpp:217] lstm2_gate_input_1 needs backward computation.
I0925 23:59:52.322188 17967 net.cpp:217] lstm2_transform_1 needs backward computation.
I0925 23:59:52.322194 17967 net.cpp:219] lstm2_h_conted_0 does not need backward computation.
I0925 23:59:52.322192 18005 net.cpp:141] Setting up predict
I0925 23:59:52.322217 17967 net.cpp:217] lstm2_W_xc_x_slice needs backward computation.
I0925 23:59:52.322242 17967 net.cpp:217] lstm2_x_transform needs backward computation.
I0925 23:59:52.322247 18005 net.cpp:148] Top shape: 1 1 46168 (46168)
I0925 23:59:52.322248 17967 net.cpp:219] cont_1_lstm2_cont_slice_0_split does not need backward computation.
I0925 23:59:52.322263 18005 net.cpp:156] Memory required for data: 221084
I0925 23:59:52.322273 17967 net.cpp:219] lstm2_cont_slice does not need backward computation.
I0925 23:59:52.322284 17967 net.cpp:219] lstm2_ does not need backward computation.
I0925 23:59:52.322291 17967 net.cpp:219] lstm2_ does not need backward computation.
I0925 23:59:52.322295 17967 net.cpp:261] This network produces output c_T
I0925 23:59:52.322284 18005 layer_factory.hpp:77] Creating layer probs
I0925 23:59:52.322304 17967 net.cpp:261] This network produces output h_pseudoloss
I0925 23:59:52.322324 18005 net.cpp:91] Creating Layer probs
I0925 23:59:52.322327 17967 net.cpp:274] Network initialization done.
I0925 23:59:52.322337 18005 net.cpp:425] probs <- predict
I0925 23:59:52.322352 18005 net.cpp:399] probs -> probs
I0925 23:59:52.322396 17967 recurrent_layer.cpp:150] Adding parameter 0: W_xc
I0925 23:59:52.322403 17967 recurrent_layer.cpp:150] Adding parameter 1: b_c
I0925 23:59:52.322407 17967 recurrent_layer.cpp:150] Adding parameter 2: W_hc
I0925 23:59:52.322552 17967 net.cpp:141] Setting up lstm2
I0925 23:59:52.322566 17967 net.cpp:148] Top shape: 1 1 1000 (1000)
I0925 23:59:52.322571 17967 net.cpp:156] Memory required for data: 36412
I0925 23:59:52.322589 17967 layer_factory.hpp:77] Creating layer predict
I0925 23:59:52.322623 17967 net.cpp:91] Creating Layer predict
I0925 23:59:52.322634 17967 net.cpp:425] predict <- lstm2
I0925 23:59:52.322643 17967 net.cpp:399] predict -> predict
I0925 23:59:52.421715 17981 net.cpp:141] Setting up predict
I0925 23:59:52.421785 17981 net.cpp:148] Top shape: 1 1 46168 (46168)
I0925 23:59:52.421805 17981 net.cpp:156] Memory required for data: 221084
I0925 23:59:52.421829 17981 layer_factory.hpp:77] Creating layer probs
I0925 23:59:52.421865 17981 net.cpp:91] Creating Layer probs
I0925 23:59:52.421877 17981 net.cpp:425] probs <- predict
I0925 23:59:52.421893 17981 net.cpp:399] probs -> probs
I0925 23:59:52.491770 17973 net.cpp:141] Setting up predict
I0925 23:59:52.492374 17973 net.cpp:148] Top shape: 1 1 46168 (46168)
I0925 23:59:52.492560 17973 net.cpp:156] Memory required for data: 221084
I0925 23:59:52.492736 17973 layer_factory.hpp:77] Creating layer probs
I0925 23:59:52.492974 17973 net.cpp:91] Creating Layer probs
I0925 23:59:52.493160 17973 net.cpp:425] probs <- predict
I0925 23:59:52.493306 17973 net.cpp:399] probs -> probs
I0925 23:59:52.647083 18013 net.cpp:141] Setting up predict
I0925 23:59:52.647570 18013 net.cpp:148] Top shape: 1 1 46168 (46168)
I0925 23:59:52.647727 18013 net.cpp:156] Memory required for data: 221084
I0925 23:59:52.647873 18013 layer_factory.hpp:77] Creating layer probs
I0925 23:59:52.648015 18013 net.cpp:91] Creating Layer probs
I0925 23:59:52.648177 18013 net.cpp:425] probs <- predict
I0925 23:59:52.648339 18013 net.cpp:399] probs -> probs
I0925 23:59:52.649147 17969 net.cpp:141] Setting up probs
I0925 23:59:52.649174 17969 net.cpp:148] Top shape: 1 1 46168 (46168)
I0925 23:59:52.649183 17969 net.cpp:156] Memory required for data: 405756
I0925 23:59:52.649193 17969 net.cpp:219] probs does not need backward computation.
I0925 23:59:52.649201 17969 net.cpp:219] predict does not need backward computation.
I0925 23:59:52.649211 17969 net.cpp:219] lstm2 does not need backward computation.
I0925 23:59:52.649221 17969 net.cpp:219] concat does not need backward computation.
I0925 23:59:52.649231 17969 net.cpp:219] lstm1 does not need backward computation.
I0925 23:59:52.649241 17969 net.cpp:219] embedding does not need backward computation.
I0925 23:59:52.649250 17969 net.cpp:219] reshape_stage_indicator does not need backward computation.
I0925 23:59:52.649258 17969 net.cpp:219] reshape_frames does not need backward computation.
I0925 23:59:52.649268 17969 net.cpp:219] embed_encoder does not need backward computation.
I0925 23:59:52.649276 17969 net.cpp:219] cont_sentence_input_1_split does not need backward computation.
I0925 23:59:52.649286 17969 net.cpp:219] input does not need backward computation.
I0925 23:59:52.649293 17969 net.cpp:261] This network produces output probs
I0925 23:59:52.649322 17969 net.cpp:274] Network initialization done.
I0925 23:59:52.661520 17981 net.cpp:141] Setting up probs
I0925 23:59:52.661574 17981 net.cpp:148] Top shape: 1 1 46168 (46168)
I0925 23:59:52.661584 17981 net.cpp:156] Memory required for data: 405756
I0925 23:59:52.661597 17981 net.cpp:219] probs does not need backward computation.
I0925 23:59:52.661607 17981 net.cpp:219] predict does not need backward computation.
I0925 23:59:52.661617 17981 net.cpp:219] lstm2 does not need backward computation.
I0925 23:59:52.661626 17981 net.cpp:219] concat does not need backward computation.
I0925 23:59:52.661638 17981 net.cpp:219] lstm1 does not need backward computation.
I0925 23:59:52.661648 17981 net.cpp:219] embedding does not need backward computation.
I0925 23:59:52.661656 17981 net.cpp:219] reshape_stage_indicator does not need backward computation.
I0925 23:59:52.661665 17981 net.cpp:219] reshape_frames does not need backward computation.
I0925 23:59:52.661674 17981 net.cpp:219] embed_encoder does not need backward computation.
I0925 23:59:52.661685 17981 net.cpp:219] cont_sentence_input_1_split does not need backward computation.
I0925 23:59:52.661695 17981 net.cpp:219] input does not need backward computation.
I0925 23:59:52.661702 17981 net.cpp:261] This network produces output probs
I0925 23:59:52.661730 17981 net.cpp:274] Network initialization done.
I0925 23:59:52.666729 17973 net.cpp:141] Setting up probs
I0925 23:59:52.666782 17973 net.cpp:148] Top shape: 1 1 46168 (46168)
I0925 23:59:52.666790 17973 net.cpp:156] Memory required for data: 405756
I0925 23:59:52.666800 17973 net.cpp:219] probs does not need backward computation.
I0925 23:59:52.666808 17973 net.cpp:219] predict does not need backward computation.
I0925 23:59:52.666815 17973 net.cpp:219] lstm2 does not need backward computation.
I0925 23:59:52.666821 17973 net.cpp:219] concat does not need backward computation.
I0925 23:59:52.666827 17973 net.cpp:219] lstm1 does not need backward computation.
I0925 23:59:52.666834 17973 net.cpp:219] embedding does not need backward computation.
I0925 23:59:52.666841 17973 net.cpp:219] reshape_stage_indicator does not need backward computation.
I0925 23:59:52.666846 17973 net.cpp:219] reshape_frames does not need backward computation.
I0925 23:59:52.666851 17973 net.cpp:219] embed_encoder does not need backward computation.
I0925 23:59:52.666856 17973 net.cpp:219] cont_sentence_input_1_split does not need backward computation.
I0925 23:59:52.666860 17973 net.cpp:219] input does not need backward computation.
I0925 23:59:52.666864 17973 net.cpp:261] This network produces output probs
I0925 23:59:52.666898 17973 net.cpp:274] Network initialization done.
I0925 23:59:52.669054 18013 net.cpp:141] Setting up probs
I0925 23:59:52.669106 18013 net.cpp:148] Top shape: 1 1 46168 (46168)
I0925 23:59:52.669114 18013 net.cpp:156] Memory required for data: 405756
I0925 23:59:52.669126 18013 net.cpp:219] probs does not need backward computation.
I0925 23:59:52.669137 18013 net.cpp:219] predict does not need backward computation.
I0925 23:59:52.669145 18013 net.cpp:219] lstm2 does not need backward computation.
I0925 23:59:52.669154 18013 net.cpp:219] concat does not need backward computation.
I0925 23:59:52.669165 18013 net.cpp:219] lstm1 does not need backward computation.
I0925 23:59:52.669275 18013 net.cpp:219] embedding does not need backward computation.
I0925 23:59:52.669297 18013 net.cpp:219] reshape_stage_indicator does not need backward computation.
I0925 23:59:52.669308 18013 net.cpp:219] reshape_frames does not need backward computation.
I0925 23:59:52.669317 18013 net.cpp:219] embed_encoder does not need backward computation.
I0925 23:59:52.669328 18013 net.cpp:219] cont_sentence_input_1_split does not need backward computation.
I0925 23:59:52.669343 18013 net.cpp:219] input does not need backward computation.
I0925 23:59:52.669351 18013 net.cpp:261] This network produces output probs
I0925 23:59:52.669387 18013 net.cpp:274] Network initialization done.
I0925 23:59:52.670420 17963 net.cpp:141] Setting up probs
I0925 23:59:52.672919 17963 net.cpp:148] Top shape: 1 1 46168 (46168)
I0925 23:59:52.672955 17963 net.cpp:156] Memory required for data: 405756
I0925 23:59:52.672967 17963 net.cpp:219] probs does not need backward computation.
I0925 23:59:52.672978 17963 net.cpp:219] predict does not need backward computation.
I0925 23:59:52.672992 17963 net.cpp:219] lstm2 does not need backward computation.
I0925 23:59:52.673003 17963 net.cpp:219] concat does not need backward computation.
I0925 23:59:52.673015 17963 net.cpp:219] lstm1 does not need backward computation.
I0925 23:59:52.673024 17963 net.cpp:219] embedding does not need backward computation.
I0925 23:59:52.673032 17963 net.cpp:219] reshape_stage_indicator does not need backward computation.
I0925 23:59:52.673040 17963 net.cpp:219] reshape_frames does not need backward computation.
I0925 23:59:52.673048 17963 net.cpp:219] embed_encoder does not need backward computation.
I0925 23:59:52.673056 17963 net.cpp:219] cont_sentence_input_1_split does not need backward computation.
I0925 23:59:52.673064 17963 net.cpp:219] input does not need backward computation.
I0925 23:59:52.673071 17963 net.cpp:261] This network produces output probs
I0925 23:59:52.673096 17963 net.cpp:274] Network initialization done.
I0925 23:59:52.673637 17989 net.cpp:141] Setting up conv1
I0925 23:59:52.673666 17989 net.cpp:148] Top shape: 10 96 55 55 (2904000)
I0925 23:59:52.673673 17989 net.cpp:156] Memory required for data: 17799480
I0925 23:59:52.673704 17989 layer_factory.hpp:77] Creating layer relu1
I0925 23:59:52.673728 17989 net.cpp:91] Creating Layer relu1
I0925 23:59:52.673738 17989 net.cpp:425] relu1 <- conv1
I0925 23:59:52.673750 17989 net.cpp:386] relu1 -> conv1 (in-place)
I0925 23:59:52.673842 17987 net.cpp:141] Setting up probs
I0925 23:59:52.673868 17987 net.cpp:148] Top shape: 1 1 46168 (46168)
I0925 23:59:52.673874 17987 net.cpp:156] Memory required for data: 405756
I0925 23:59:52.673882 17987 net.cpp:219] probs does not need backward computation.
I0925 23:59:52.673887 17987 net.cpp:219] predict does not need backward computation.
I0925 23:59:52.673895 17987 net.cpp:219] lstm2 does not need backward computation.
I0925 23:59:52.673902 17987 net.cpp:219] concat does not need backward computation.
I0925 23:59:52.673907 17987 net.cpp:219] lstm1 does not need backward computation.
I0925 23:59:52.673914 17987 net.cpp:219] embedding does not need backward computation.
I0925 23:59:52.673919 17987 net.cpp:219] reshape_stage_indicator does not need backward computation.
I0925 23:59:52.673924 17987 net.cpp:219] reshape_frames does not need backward computation.
I0925 23:59:52.673929 17987 net.cpp:219] embed_encoder does not need backward computation.
I0925 23:59:52.673934 17987 net.cpp:219] cont_sentence_input_1_split does not need backward computation.
I0925 23:59:52.673940 18005 net.cpp:141] Setting up probs
I0925 23:59:52.673955 17987 net.cpp:219] input does not need backward computation.
I0925 23:59:52.673961 17987 net.cpp:261] This network produces output probs
I0925 23:59:52.673964 18005 net.cpp:148] Top shape: 1 1 46168 (46168)
I0925 23:59:52.673969 18005 net.cpp:156] Memory required for data: 405756
I0925 23:59:52.673975 18005 net.cpp:219] probs does not need backward computation.
I0925 23:59:52.673980 18005 net.cpp:219] predict does not need backward computation.
I0925 23:59:52.674006 18005 net.cpp:219] lstm2 does not need backward computation.
I0925 23:59:52.674006 17987 net.cpp:274] Network initialization done.
I0925 23:59:52.674016 18005 net.cpp:219] concat does not need backward computation.
I0925 23:59:52.674026 18005 net.cpp:219] lstm1 does not need backward computation.
I0925 23:59:52.674032 18005 net.cpp:219] embedding does not need backward computation.
I0925 23:59:52.674038 18005 net.cpp:219] reshape_stage_indicator does not need backward computation.
I0925 23:59:52.674044 18005 net.cpp:219] reshape_frames does not need backward computation.
I0925 23:59:52.674051 18005 net.cpp:219] embed_encoder does not need backward computation.
I0925 23:59:52.674057 18005 net.cpp:219] cont_sentence_input_1_split does not need backward computation.
I0925 23:59:52.674062 18005 net.cpp:219] input does not need backward computation.
I0925 23:59:52.674065 18005 net.cpp:261] This network produces output probs
I0925 23:59:52.674084 18005 net.cpp:274] Network initialization done.
I0925 23:59:52.674635 17989 net.cpp:141] Setting up relu1
I0925 23:59:52.674660 17989 net.cpp:148] Top shape: 10 96 55 55 (2904000)
I0925 23:59:52.674671 17989 net.cpp:156] Memory required for data: 29415480
I0925 23:59:52.674682 17989 layer_factory.hpp:77] Creating layer pool1
I0925 23:59:52.674707 17989 net.cpp:91] Creating Layer pool1
I0925 23:59:52.674718 17989 net.cpp:425] pool1 <- conv1
I0925 23:59:52.674732 17989 net.cpp:399] pool1 -> pool1
I0925 23:59:52.674854 17989 net.cpp:141] Setting up pool1
I0925 23:59:52.674871 17989 net.cpp:148] Top shape: 10 96 27 27 (699840)
I0925 23:59:52.674880 17989 net.cpp:156] Memory required for data: 32214840
I0925 23:59:52.674886 17989 layer_factory.hpp:77] Creating layer norm1
I0925 23:59:52.674913 17989 net.cpp:91] Creating Layer norm1
I0925 23:59:52.674923 17989 net.cpp:425] norm1 <- pool1
I0925 23:59:52.674935 17989 net.cpp:399] norm1 -> norm1
I0925 23:59:52.675350 17989 net.cpp:141] Setting up norm1
I0925 23:59:52.675364 17989 net.cpp:148] Top shape: 10 96 27 27 (699840)
I0925 23:59:52.675369 17989 net.cpp:156] Memory required for data: 35014200
I0925 23:59:52.675374 17989 layer_factory.hpp:77] Creating layer conv2
I0925 23:59:52.675389 17989 net.cpp:91] Creating Layer conv2
I0925 23:59:52.675393 17989 net.cpp:425] conv2 <- norm1
I0925 23:59:52.675401 17989 net.cpp:399] conv2 -> conv2
I0925 23:59:52.748092 18017 net.cpp:141] Setting up predict
I0925 23:59:52.748538 18017 net.cpp:148] Top shape: 1 1 46168 (46168)
I0925 23:59:52.748697 18017 net.cpp:156] Memory required for data: 221084
I0925 23:59:52.748841 18017 layer_factory.hpp:77] Creating layer probs
I0925 23:59:52.750710 18017 net.cpp:91] Creating Layer probs
I0925 23:59:52.751046 18017 net.cpp:425] probs <- predict
I0925 23:59:52.751219 18017 net.cpp:399] probs -> probs
I0925 23:59:52.765841 18017 net.cpp:141] Setting up probs
I0925 23:59:52.765910 18017 net.cpp:148] Top shape: 1 1 46168 (46168)
I0925 23:59:52.765923 18017 net.cpp:156] Memory required for data: 405756
I0925 23:59:52.765938 18017 net.cpp:219] probs does not need backward computation.
I0925 23:59:52.765954 18017 net.cpp:219] predict does not need backward computation.
I0925 23:59:52.765964 18017 net.cpp:219] lstm2 does not need backward computation.
I0925 23:59:52.765969 18017 net.cpp:219] concat does not need backward computation.
I0925 23:59:52.765976 18017 net.cpp:219] lstm1 does not need backward computation.
I0925 23:59:52.765982 18017 net.cpp:219] embedding does not need backward computation.
I0925 23:59:52.765987 18017 net.cpp:219] reshape_stage_indicator does not need backward computation.
I0925 23:59:52.765992 18017 net.cpp:219] reshape_frames does not need backward computation.
I0925 23:59:52.765997 18017 net.cpp:219] embed_encoder does not need backward computation.
I0925 23:59:52.766469 18017 net.cpp:219] cont_sentence_input_1_split does not need backward computation.
I0925 23:59:52.766484 18017 net.cpp:219] input does not need backward computation.
I0925 23:59:52.766492 18017 net.cpp:261] This network produces output probs
I0925 23:59:52.766520 18017 net.cpp:274] Network initialization done.
I0925 23:59:52.786324 17989 net.cpp:141] Setting up conv2
I0925 23:59:52.786423 17989 net.cpp:148] Top shape: 10 256 27 27 (1866240)
I0925 23:59:52.786448 17989 net.cpp:156] Memory required for data: 42479160
I0925 23:59:52.786948 17989 layer_factory.hpp:77] Creating layer relu2
I0925 23:59:52.787570 17989 net.cpp:91] Creating Layer relu2
I0925 23:59:52.787607 17989 net.cpp:425] relu2 <- conv2
I0925 23:59:52.788122 17989 net.cpp:386] relu2 -> conv2 (in-place)
I0925 23:59:52.790700 17989 net.cpp:141] Setting up relu2
I0925 23:59:52.790782 17989 net.cpp:148] Top shape: 10 256 27 27 (1866240)
I0925 23:59:52.790801 17989 net.cpp:156] Memory required for data: 49944120
I0925 23:59:52.790822 17989 layer_factory.hpp:77] Creating layer pool2
I0925 23:59:52.791285 17989 net.cpp:91] Creating Layer pool2
I0925 23:59:52.791313 17989 net.cpp:425] pool2 <- conv2
I0925 23:59:52.791345 17989 net.cpp:399] pool2 -> pool2
I0925 23:59:52.792361 17989 net.cpp:141] Setting up pool2
I0925 23:59:52.792424 17989 net.cpp:148] Top shape: 10 256 13 13 (432640)
I0925 23:59:52.792441 17989 net.cpp:156] Memory required for data: 51674680
I0925 23:59:52.792460 17989 layer_factory.hpp:77] Creating layer norm2
I0925 23:59:52.792937 17989 net.cpp:91] Creating Layer norm2
I0925 23:59:52.792968 17989 net.cpp:425] norm2 <- pool2
I0925 23:59:52.792996 17989 net.cpp:399] norm2 -> norm2
I0925 23:59:52.816668 17989 net.cpp:141] Setting up norm2
I0925 23:59:52.816751 17989 net.cpp:148] Top shape: 10 256 13 13 (432640)
I0925 23:59:52.816766 17989 net.cpp:156] Memory required for data: 53405240
I0925 23:59:52.816783 17989 layer_factory.hpp:77] Creating layer conv3
I0925 23:59:52.817167 17989 net.cpp:91] Creating Layer conv3
I0925 23:59:52.817183 17989 net.cpp:425] conv3 <- norm2
I0925 23:59:52.817206 17989 net.cpp:399] conv3 -> conv3
I0925 23:59:52.831195 17967 net.cpp:141] Setting up predict
I0925 23:59:52.831892 17967 net.cpp:148] Top shape: 1 1 46168 (46168)
I0925 23:59:52.832059 17967 net.cpp:156] Memory required for data: 221084
I0925 23:59:52.832295 17967 layer_factory.hpp:77] Creating layer probs
I0925 23:59:52.832489 17967 net.cpp:91] Creating Layer probs
I0925 23:59:52.832650 17967 net.cpp:425] probs <- predict
I0925 23:59:52.832819 17967 net.cpp:399] probs -> probs
I0925 23:59:52.834981 17967 net.cpp:141] Setting up probs
I0925 23:59:52.835049 17967 net.cpp:148] Top shape: 1 1 46168 (46168)
I0925 23:59:52.835058 17967 net.cpp:156] Memory required for data: 405756
I0925 23:59:52.835073 17967 net.cpp:219] probs does not need backward computation.
I0925 23:59:52.835085 17967 net.cpp:219] predict does not need backward computation.
I0925 23:59:52.835096 17967 net.cpp:219] lstm2 does not need backward computation.
I0925 23:59:52.835105 17967 net.cpp:219] concat does not need backward computation.
I0925 23:59:52.835116 17967 net.cpp:219] lstm1 does not need backward computation.
I0925 23:59:52.835129 17967 net.cpp:219] embedding does not need backward computation.
I0925 23:59:52.835137 17967 net.cpp:219] reshape_stage_indicator does not need backward computation.
I0925 23:59:52.835145 17967 net.cpp:219] reshape_frames does not need backward computation.
I0925 23:59:52.835153 17967 net.cpp:219] embed_encoder does not need backward computation.
I0925 23:59:52.835161 17967 net.cpp:219] cont_sentence_input_1_split does not need backward computation.
I0925 23:59:52.835170 17967 net.cpp:219] input does not need backward computation.
I0925 23:59:52.835176 17967 net.cpp:261] This network produces output probs
I0925 23:59:52.835211 17967 net.cpp:274] Network initialization done.
I0925 23:59:52.880667 17989 net.cpp:141] Setting up conv3
I0925 23:59:52.880789 17989 net.cpp:148] Top shape: 10 384 13 13 (648960)
I0925 23:59:52.880803 17989 net.cpp:156] Memory required for data: 56001080
I0925 23:59:52.880836 17989 layer_factory.hpp:77] Creating layer relu3
I0925 23:59:52.880959 17989 net.cpp:91] Creating Layer relu3
I0925 23:59:52.880980 17989 net.cpp:425] relu3 <- conv3
I0925 23:59:52.881003 17989 net.cpp:386] relu3 -> conv3 (in-place)
I0925 23:59:52.884444 17989 net.cpp:141] Setting up relu3
I0925 23:59:52.884503 17989 net.cpp:148] Top shape: 10 384 13 13 (648960)
I0925 23:59:52.884511 17989 net.cpp:156] Memory required for data: 58596920
I0925 23:59:52.884521 17989 layer_factory.hpp:77] Creating layer conv4
I0925 23:59:52.885052 17989 net.cpp:91] Creating Layer conv4
I0925 23:59:52.885073 17989 net.cpp:425] conv4 <- conv3
I0925 23:59:52.885097 17989 net.cpp:399] conv4 -> conv4
I0925 23:59:52.932449 17989 net.cpp:141] Setting up conv4
I0925 23:59:52.932523 17989 net.cpp:148] Top shape: 10 384 13 13 (648960)
I0925 23:59:52.932533 17989 net.cpp:156] Memory required for data: 61192760
I0925 23:59:52.932562 17989 layer_factory.hpp:77] Creating layer relu4
I0925 23:59:52.932606 17989 net.cpp:91] Creating Layer relu4
I0925 23:59:52.932620 17989 net.cpp:425] relu4 <- conv4
I0925 23:59:52.932636 17989 net.cpp:386] relu4 -> conv4 (in-place)
I0925 23:59:52.933753 17989 net.cpp:141] Setting up relu4
I0925 23:59:52.933782 17989 net.cpp:148] Top shape: 10 384 13 13 (648960)
I0925 23:59:52.933791 17989 net.cpp:156] Memory required for data: 63788600
I0925 23:59:52.933800 17989 layer_factory.hpp:77] Creating layer conv5
I0925 23:59:52.933871 17989 net.cpp:91] Creating Layer conv5
I0925 23:59:52.933881 17989 net.cpp:425] conv5 <- conv4
I0925 23:59:52.933897 17989 net.cpp:399] conv5 -> conv5
I0925 23:59:53.014703 17989 net.cpp:141] Setting up conv5
I0925 23:59:53.014767 17989 net.cpp:148] Top shape: 10 256 13 13 (432640)
I0925 23:59:53.014778 17989 net.cpp:156] Memory required for data: 65519160
I0925 23:59:53.014824 17989 layer_factory.hpp:77] Creating layer relu5
I0925 23:59:53.014961 17989 net.cpp:91] Creating Layer relu5
I0925 23:59:53.015002 17989 net.cpp:425] relu5 <- conv5
I0925 23:59:53.015024 17989 net.cpp:386] relu5 -> conv5 (in-place)
I0925 23:59:53.017230 17989 net.cpp:141] Setting up relu5
I0925 23:59:53.017282 17989 net.cpp:148] Top shape: 10 256 13 13 (432640)
I0925 23:59:53.017294 17989 net.cpp:156] Memory required for data: 67249720
I0925 23:59:53.017309 17989 layer_factory.hpp:77] Creating layer pool5
I0925 23:59:53.017341 17989 net.cpp:91] Creating Layer pool5
I0925 23:59:53.017354 17989 net.cpp:425] pool5 <- conv5
I0925 23:59:53.017372 17989 net.cpp:399] pool5 -> pool5
I0925 23:59:53.017922 17989 net.cpp:141] Setting up pool5
I0925 23:59:53.017942 17989 net.cpp:148] Top shape: 10 256 6 6 (92160)
I0925 23:59:53.017952 17989 net.cpp:156] Memory required for data: 67618360
I0925 23:59:53.017961 17989 layer_factory.hpp:77] Creating layer fc6
I0925 23:59:53.017982 17989 net.cpp:91] Creating Layer fc6
I0925 23:59:53.017990 17989 net.cpp:425] fc6 <- pool5
I0925 23:59:53.018086 17989 net.cpp:399] fc6 -> fc6
I0925 23:59:53.139426 17989 net.cpp:141] Setting up fc6
I0925 23:59:53.139497 17989 net.cpp:148] Top shape: 10 4096 (40960)
I0925 23:59:53.139509 17989 net.cpp:156] Memory required for data: 67782200
I0925 23:59:53.139533 17989 layer_factory.hpp:77] Creating layer relu6
I0925 23:59:53.139557 17989 net.cpp:91] Creating Layer relu6
I0925 23:59:53.139569 17989 net.cpp:425] relu6 <- fc6
I0925 23:59:53.139590 17989 net.cpp:386] relu6 -> fc6 (in-place)
I0925 23:59:53.141109 17989 net.cpp:141] Setting up relu6
I0925 23:59:53.141126 17989 net.cpp:148] Top shape: 10 4096 (40960)
I0925 23:59:53.141131 17989 net.cpp:156] Memory required for data: 67946040
I0925 23:59:53.141139 17989 layer_factory.hpp:77] Creating layer drop6
I0925 23:59:53.141198 17989 net.cpp:91] Creating Layer drop6
I0925 23:59:53.141211 17989 net.cpp:425] drop6 <- fc6
I0925 23:59:53.141228 17989 net.cpp:386] drop6 -> fc6 (in-place)
I0925 23:59:53.141304 17989 net.cpp:141] Setting up drop6
I0925 23:59:53.141324 17989 net.cpp:148] Top shape: 10 4096 (40960)
I0925 23:59:53.141333 17989 net.cpp:156] Memory required for data: 68109880
I0925 23:59:53.141342 17989 layer_factory.hpp:77] Creating layer fc7
I0925 23:59:53.142679 17989 net.cpp:91] Creating Layer fc7
I0925 23:59:53.142693 17989 net.cpp:425] fc7 <- fc6
I0925 23:59:53.142702 17989 net.cpp:399] fc7 -> fc7
I0925 23:59:53.198724 17989 net.cpp:141] Setting up fc7
I0925 23:59:53.198808 17989 net.cpp:148] Top shape: 10 4096 (40960)
I0925 23:59:53.198820 17989 net.cpp:156] Memory required for data: 68273720
I0925 23:59:53.198851 17989 layer_factory.hpp:77] Creating layer relu7
I0925 23:59:53.198884 17989 net.cpp:91] Creating Layer relu7
I0925 23:59:53.198897 17989 net.cpp:425] relu7 <- fc7
I0925 23:59:53.198915 17989 net.cpp:386] relu7 -> fc7 (in-place)
I0925 23:59:53.201417 17989 net.cpp:141] Setting up relu7
I0925 23:59:53.201499 17989 net.cpp:148] Top shape: 10 4096 (40960)
I0925 23:59:53.201514 17989 net.cpp:156] Memory required for data: 68437560
I0925 23:59:53.201530 17989 layer_factory.hpp:77] Creating layer drop7
I0925 23:59:53.201561 17989 net.cpp:91] Creating Layer drop7
I0925 23:59:53.201576 17989 net.cpp:425] drop7 <- fc7
I0925 23:59:53.201597 17989 net.cpp:386] drop7 -> fc7 (in-place)
I0925 23:59:53.202299 17989 net.cpp:141] Setting up drop7
I0925 23:59:53.202320 17989 net.cpp:148] Top shape: 10 4096 (40960)
I0925 23:59:53.202327 17989 net.cpp:156] Memory required for data: 68601400
I0925 23:59:53.202335 17989 layer_factory.hpp:77] Creating layer fc8
I0925 23:59:53.202352 17989 net.cpp:91] Creating Layer fc8
I0925 23:59:53.202359 17989 net.cpp:425] fc8 <- fc7
I0925 23:59:53.202375 17989 net.cpp:399] fc8 -> fc8
I0925 23:59:53.234711 17989 net.cpp:141] Setting up fc8
I0925 23:59:53.234796 17989 net.cpp:148] Top shape: 10 1000 (10000)
I0925 23:59:53.234807 17989 net.cpp:156] Memory required for data: 68641400
I0925 23:59:53.234838 17989 layer_factory.hpp:77] Creating layer prob
I0925 23:59:53.234882 17989 net.cpp:91] Creating Layer prob
I0925 23:59:53.234897 17989 net.cpp:425] prob <- fc8
I0925 23:59:53.239656 17989 net.cpp:399] prob -> prob
I0925 23:59:53.247859 17989 net.cpp:141] Setting up prob
I0925 23:59:53.247932 17989 net.cpp:148] Top shape: 10 1000 (10000)
I0925 23:59:53.247943 17989 net.cpp:156] Memory required for data: 68681400
I0925 23:59:53.247962 17989 net.cpp:219] prob does not need backward computation.
I0925 23:59:53.247977 17989 net.cpp:219] fc8 does not need backward computation.
I0925 23:59:53.247987 17989 net.cpp:219] drop7 does not need backward computation.
I0925 23:59:53.247995 17989 net.cpp:219] relu7 does not need backward computation.
…
