…
I0802 20:59:50.380589 11496 upgrade_proto.cpp:66] Attempting to upgrade input file specified using deprecated input fields: /tmp/cvld312563683855469615/s2vt.words_to_preds.prototxt
I0802 20:59:50.380707 11496 upgrade_proto.cpp:69] Successfully upgraded file specified using deprecated input fields.
W0802 20:59:50.380715 11496 upgrade_proto.cpp:71] Note that future Caffe releases will only support input layers and not input fields.
I0802 20:59:50.380946 11506 net.cpp:49] Initializing net from parameters: 
name: "CaffeNet"
state {
  phase: TEST
}
layer {
  name: "data"
  type: "Input"
  top: "data"
  input_param {
    shape {
      dim: 10
      dim: 3
      dim: 227
      dim: 227
    }
  }
}
layer {
  name: "conv1"
  type: "Convolution"
  bottom: "data"
  top: "conv1"
  convolution_param {
    num_output: 96
    kernel_size: 11
    stride: 4
  }
}
layer {
  name: "relu1"
  type: "ReLU"
  bottom: "conv1"
  top: "conv1"
}
layer {
  name: "pool1"
  type: "Pooling"
  bottom: "conv1"
  top: "pool1"
  pooling_param {
    pool: MAX
    kernel_size: 3
    stride: 2
  }
}
layer {
  name: "norm1"
  type: "LRN"
  bottom: "pool1"
  top: "norm1"
  lrn_param {
    local_size: 5
    alpha: 0.0001
    beta: 0.75
  }
}
layer {
  name: "conv2"
  type: "Convolution"
  bottom: "norm1"
  top: "conv2"
  convolution_param {
    num_output: 256
    pad: 2
    kernel_size: 5
    group: 2
  }
}
layer {
  name: "relu2"
  type: "ReLU"
  bottom: "conv2"
  top: "conv2"
}
layer {
  name: "pool2"
  type: "Pooling"
  bottom: "conv2"
  top: "pool2"
  pooling_param {
    pool: MAX
    kernel_size: 3
    stride: 2
  }
}
layer {
  name: "norm2"
  type: "LRN"
  bottom: "pool2"
  top: "norm2"
  lrn_param {
    local_size: 5
    alpha: 0.0001
    beta: 0.75
  }
}
layer {
  name: "conv3"
  type: "Convolution"
  bottom: "norm2"
  top: "conv3"
  convolution_param {
    num_output: 384
    pad: 1
    kernel_size: 3
  }
}
layer {
  name: "relu3"
  type: "ReLU"
  bottom: "conv3"
  top: "conv3"
}
layer {
  name: "conv4"
  type: "Convolution"
  bottom: "conv3"
  top: "conv4"
  convolution_param {
    num_output: 384
    pad: 1
    kernel_size: 3
    group: 2
  }
}
layer {
  name: "relu4"
  type: "ReLU"
  bottom: "conv4"
  top: "conv4"
}
layer {
  name: "conv5"
  type: "Convolution"
  bottom: "conv4"
  top: "conv5"
  convolution_param {
    num_output: 256
    pad: 1
    kernel_size: 3
    group: 2
  }
}
layer {
  name: "relu5"
  type: "ReLU"
  bottom: "conv5"
  top: "conv5"
}
layer {
  name: "pool5"
  type: "Pooling"
  bottom: "conv5"
  top: "pool5"
  pooling_param {
    pool: MAX
    kernel_size: 3
    stride: 2
  }
}
layer {
  name: "fc6"
  type: "InnerProduct"
  bottom: "pool5"
  top: "fc6"
  inner_product_param {
    num_output: 4096
  }
}
layer {
  name: "relu6"
  type: "ReLU"
  bottom: "fc6"
  top: "fc6"
}
layer {
  name: "drop6"
  type: "Dropout"
  bottom: "fc6"
  top: "fc6"
  dropout_param {
    dropout_ratio: 0.5
  }
}
layer {
  name: "fc7"
  type: "InnerProduct"
  bottom: "fc6"
  top: "fc7"
  inner_product_param {
    num_output: 4096
  }
}
layer {
  name: "relu7"
  type: "ReLU"
  bottom: "fc7"
  top: "fc7"
}
layer {
  name: "drop7"
  type: "Dropout"
  bottom: "fc7"
  top: "fc7"
  dropout_param {
    dropout_ratio: 0.5
  }
}
layer {
  name: "fc8"
  type: "InnerProduct"
  bottom: "fc7"
  top: "fc8"
  inner_product_param {
    num_output: 1000
  }
}
layer {
  name: "prob"
  type: "Softmax"
  bottom: "fc8"
  top: "prob"
}
I0802 20:59:50.380954 11496 net.cpp:49] Initializing net from parameters: 
name: "s2vt:features_to_lstm"
state {
  phase: TEST
}
layer {
  name: "input"
  type: "Input"
  top: "frames_fc7"
  top: "cont_sentence"
  top: "input_sentence"
  top: "stage_indicator"
  input_param {
    shape {
      dim: 1
      dim: 4096
    }
    shape {
      dim: 1
      dim: 1
    }
    shape {
      dim: 1
      dim: 1
    }
    shape {
      dim: 1
      dim: 1
    }
  }
}
layer {
  name: "embed_encoder"
  type: "InnerProduct"
  bottom: "frames_fc7"
  top: "embedded_in_frames"
  param {
    lr_mult: 1
    decay_mult: 1
  }
  param {
    lr_mult: 2
    decay_mult: 0
  }
  inner_product_param {
    num_output: 500
    weight_filler {
      type: "xavier"
    }
    bias_filler {
      type: "constant"
      value: 0.2
    }
  }
}
layer {
  name: "reshape_frames"
  type: "Reshape"
  bottom: "embedded_in_frames"
  top: "embedded_input_frames"
  reshape_param {
    shape {
      dim: 1
      dim: 1
      dim: 500
    }
  }
}
layer {
  name: "reshape_stage_indicator"
  type: "Reshape"
  bottom: "stage_indicator"
  top: "reshaped_stage_indicator"
  reshape_param {
    shape {
      dim: 1
      dim: 1
      dim: 1
    }
  }
}
layer {
  name: "embedding"
  type: "Embed"
  bottom: "input_sentence"
  top: "embedded_input_sentence"
  param {
    lr_mult: 1
  }
  embed_param {
    num_output: 500
    input_dim: 46168
    bias_term: false
    weight_filler {
      type: "uniform"
      min: -0.08
      max: 0.08
    }
  }
}
layer {
  name: "lstm1"
  type: "LSTM"
  bottom: "embedded_input_frames"
  bottom: "cont_sentence"
  top: "lstm1"
  recurrent_param {
    num_output: 1000
    weight_filler {
      type: "uniform"
      min: -0.08
      max: 0.08
    }
    bias_filler {
      type: "constant"
      value: 0
    }
  }
}
layer {
  name: "concat"
  type: "Concat"
  bottom: "lstm1"
  bottom: "embedded_input_sentence"
  bottom: "reshaped_stage_indicator"
  top: "lstm1_video_sequence"
  concat_param {
    concat_dim: 2
  }
}
layer {
  name: "lstm2"
  type: "LSTM"
  bottom: "lstm1_video_sequence"
  bottom: "cont_sentence"
  top: "lstm2"
  recurrent_param {
    num_output: 1000
    weight_filler {
      type: "uniform"
      min: -0.08
      max: 0.08
    }
    bias_filler {
      type: "constant"
      value: 0
    }
  }
}
layer {
  name: "predict"
  type: "InnerProduct"
  bottom: "lstm2"
  top: "predict"
  param {
    lr_mult: 1
    decay_mult: 1
  }
  param {
    lr_mult: 2
    decay_mult: 0
  }
  inner_product_param {
    num_output: 46168
    weight_filler {
      type: "uniform"
      min: -0.08
      max: 0.08
    }
    bias_filler {
      type: "constant"
      value: 0
    }
    axis: 2
  }
}
layer {
  name: "probs"
  type: "Softmax"
  bottom: "predict"
  top: "probs"
  softmax_param {
    axis: 2
  }
}
I0802 20:59:50.381080 11506 layer_factory.hpp:77] Creating layer data
I0802 20:59:50.381090 11496 layer_factory.hpp:77] Creating layer input
I0802 20:59:50.381113 11506 net.cpp:91] Creating Layer data
I0802 20:59:50.381113 11496 net.cpp:91] Creating Layer input
I0802 20:59:50.381129 11506 net.cpp:399] data -> data
I0802 20:59:50.381129 11496 net.cpp:399] input -> frames_fc7
I0802 20:59:50.381170 11496 net.cpp:399] input -> cont_sentence
I0802 20:59:50.381184 11496 net.cpp:399] input -> input_sentence
I0802 20:59:50.381196 11496 net.cpp:399] input -> stage_indicator
I0802 20:59:50.931582 11506 net.cpp:141] Setting up data
I0802 20:59:50.931661 11506 net.cpp:148] Top shape: 10 3 227 227 (1545870)
I0802 20:59:50.931669 11506 net.cpp:156] Memory required for data: 6183480
I0802 20:59:50.931675 11496 net.cpp:141] Setting up input
I0802 20:59:50.931694 11506 layer_factory.hpp:77] Creating layer conv1
I0802 20:59:50.931697 11496 net.cpp:148] Top shape: 1 4096 (4096)
I0802 20:59:50.931706 11496 net.cpp:148] Top shape: 1 1 (1)
I0802 20:59:50.931712 11496 net.cpp:148] Top shape: 1 1 (1)
I0802 20:59:50.931720 11496 net.cpp:148] Top shape: 1 1 (1)
I0802 20:59:50.931723 11496 net.cpp:156] Memory required for data: 16396
I0802 20:59:50.931730 11506 net.cpp:91] Creating Layer conv1
I0802 20:59:50.931730 11496 layer_factory.hpp:77] Creating layer cont_sentence_input_1_split
I0802 20:59:50.931746 11506 net.cpp:425] conv1 <- data
I0802 20:59:50.931763 11506 net.cpp:399] conv1 -> conv1
I0802 20:59:50.931769 11496 net.cpp:91] Creating Layer cont_sentence_input_1_split
I0802 20:59:50.931777 11496 net.cpp:425] cont_sentence_input_1_split <- cont_sentence
I0802 20:59:50.931802 11496 net.cpp:399] cont_sentence_input_1_split -> cont_sentence_input_1_split_0
I0802 20:59:50.931818 11496 net.cpp:399] cont_sentence_input_1_split -> cont_sentence_input_1_split_1
I0802 20:59:50.931908 11496 net.cpp:141] Setting up cont_sentence_input_1_split
I0802 20:59:50.931921 11496 net.cpp:148] Top shape: 1 1 (1)
I0802 20:59:50.931927 11496 net.cpp:148] Top shape: 1 1 (1)
I0802 20:59:50.931931 11496 net.cpp:156] Memory required for data: 16404
I0802 20:59:50.931937 11496 layer_factory.hpp:77] Creating layer embed_encoder
I0802 20:59:50.931962 11496 net.cpp:91] Creating Layer embed_encoder
I0802 20:59:50.931968 11496 net.cpp:425] embed_encoder <- frames_fc7
I0802 20:59:50.931977 11496 net.cpp:399] embed_encoder -> embedded_in_frames
I0802 20:59:50.956307 11496 net.cpp:141] Setting up embed_encoder
I0802 20:59:50.956362 11496 net.cpp:148] Top shape: 1 500 (500)
I0802 20:59:50.956368 11496 net.cpp:156] Memory required for data: 18404
I0802 20:59:50.956398 11496 layer_factory.hpp:77] Creating layer reshape_frames
I0802 20:59:50.956429 11496 net.cpp:91] Creating Layer reshape_frames
I0802 20:59:50.956439 11496 net.cpp:425] reshape_frames <- embedded_in_frames
I0802 20:59:50.956450 11496 net.cpp:399] reshape_frames -> embedded_input_frames
I0802 20:59:50.959367 11496 net.cpp:141] Setting up reshape_frames
I0802 20:59:50.959388 11496 net.cpp:148] Top shape: 1 1 500 (500)
I0802 20:59:50.959394 11496 net.cpp:156] Memory required for data: 20404
I0802 20:59:50.959400 11496 layer_factory.hpp:77] Creating layer reshape_stage_indicator
I0802 20:59:50.959422 11496 net.cpp:91] Creating Layer reshape_stage_indicator
I0802 20:59:50.959429 11496 net.cpp:425] reshape_stage_indicator <- stage_indicator
I0802 20:59:50.959439 11496 net.cpp:399] reshape_stage_indicator -> reshaped_stage_indicator
I0802 20:59:50.963191 11496 net.cpp:141] Setting up reshape_stage_indicator
I0802 20:59:50.963213 11496 net.cpp:148] Top shape: 1 1 1 (1)
I0802 20:59:50.963219 11496 net.cpp:156] Memory required for data: 20408
I0802 20:59:50.963225 11496 layer_factory.hpp:77] Creating layer embedding
I0802 20:59:50.963245 11496 net.cpp:91] Creating Layer embedding
I0802 20:59:50.963253 11496 net.cpp:425] embedding <- input_sentence
I0802 20:59:50.963261 11496 net.cpp:399] embedding -> embedded_input_sentence
I0802 20:59:51.207974 11506 net.cpp:141] Setting up conv1
I0802 20:59:51.208024 11506 net.cpp:148] Top shape: 10 96 55 55 (2904000)
I0802 20:59:51.208032 11506 net.cpp:156] Memory required for data: 17799480
I0802 20:59:51.208060 11506 layer_factory.hpp:77] Creating layer relu1
I0802 20:59:51.208081 11506 net.cpp:91] Creating Layer relu1
I0802 20:59:51.208088 11506 net.cpp:425] relu1 <- conv1
I0802 20:59:51.208097 11506 net.cpp:386] relu1 -> conv1 (in-place)
I0802 20:59:51.208545 11506 net.cpp:141] Setting up relu1
I0802 20:59:51.208562 11506 net.cpp:148] Top shape: 10 96 55 55 (2904000)
I0802 20:59:51.208569 11506 net.cpp:156] Memory required for data: 29415480
I0802 20:59:51.208573 11506 layer_factory.hpp:77] Creating layer pool1
I0802 20:59:51.208587 11506 net.cpp:91] Creating Layer pool1
I0802 20:59:51.208593 11506 net.cpp:425] pool1 <- conv1
I0802 20:59:51.208601 11506 net.cpp:399] pool1 -> pool1
I0802 20:59:51.209306 11506 net.cpp:141] Setting up pool1
I0802 20:59:51.209329 11506 net.cpp:148] Top shape: 10 96 27 27 (699840)
I0802 20:59:51.209336 11506 net.cpp:156] Memory required for data: 32214840
I0802 20:59:51.209342 11506 layer_factory.hpp:77] Creating layer norm1
I0802 20:59:51.209368 11506 net.cpp:91] Creating Layer norm1
I0802 20:59:51.209375 11506 net.cpp:425] norm1 <- pool1
I0802 20:59:51.209385 11506 net.cpp:399] norm1 -> norm1
I0802 20:59:51.209935 11506 net.cpp:141] Setting up norm1
I0802 20:59:51.209950 11506 net.cpp:148] Top shape: 10 96 27 27 (699840)
I0802 20:59:51.209956 11506 net.cpp:156] Memory required for data: 35014200
I0802 20:59:51.209961 11506 layer_factory.hpp:77] Creating layer conv2
I0802 20:59:51.209981 11506 net.cpp:91] Creating Layer conv2
I0802 20:59:51.209990 11506 net.cpp:425] conv2 <- norm1
I0802 20:59:51.209998 11506 net.cpp:399] conv2 -> conv2
I0802 20:59:51.213429 11506 net.cpp:141] Setting up conv2
I0802 20:59:51.213459 11506 net.cpp:148] Top shape: 10 256 27 27 (1866240)
I0802 20:59:51.213464 11506 net.cpp:156] Memory required for data: 42479160
I0802 20:59:51.213481 11506 layer_factory.hpp:77] Creating layer relu2
I0802 20:59:51.213495 11506 net.cpp:91] Creating Layer relu2
I0802 20:59:51.213501 11506 net.cpp:425] relu2 <- conv2
I0802 20:59:51.213512 11506 net.cpp:386] relu2 -> conv2 (in-place)
I0802 20:59:51.213956 11506 net.cpp:141] Setting up relu2
I0802 20:59:51.213970 11506 net.cpp:148] Top shape: 10 256 27 27 (1866240)
I0802 20:59:51.213975 11506 net.cpp:156] Memory required for data: 49944120
I0802 20:59:51.213980 11506 layer_factory.hpp:77] Creating layer pool2
I0802 20:59:51.213994 11506 net.cpp:91] Creating Layer pool2
I0802 20:59:51.214000 11506 net.cpp:425] pool2 <- conv2
I0802 20:59:51.214007 11506 net.cpp:399] pool2 -> pool2
I0802 20:59:51.214073 11506 net.cpp:141] Setting up pool2
I0802 20:59:51.214084 11506 net.cpp:148] Top shape: 10 256 13 13 (432640)
I0802 20:59:51.214088 11506 net.cpp:156] Memory required for data: 51674680
I0802 20:59:51.214094 11506 layer_factory.hpp:77] Creating layer norm2
I0802 20:59:51.214107 11506 net.cpp:91] Creating Layer norm2
I0802 20:59:51.214112 11506 net.cpp:425] norm2 <- pool2
I0802 20:59:51.214120 11506 net.cpp:399] norm2 -> norm2
I0802 20:59:51.214375 11496 net.cpp:141] Setting up embedding
I0802 20:59:51.214401 11496 net.cpp:148] Top shape: 1 1 500 (500)
I0802 20:59:51.214412 11496 net.cpp:156] Memory required for data: 22408
I0802 20:59:51.214432 11496 layer_factory.hpp:77] Creating layer lstm1
I0802 20:59:51.214471 11496 net.cpp:91] Creating Layer lstm1
I0802 20:59:51.214488 11496 net.cpp:425] lstm1 <- embedded_input_frames
I0802 20:59:51.214495 11506 net.cpp:141] Setting up norm2
I0802 20:59:51.214500 11496 net.cpp:425] lstm1 <- cont_sentence_input_1_split_0
I0802 20:59:51.214512 11506 net.cpp:148] Top shape: 10 256 13 13 (432640)
I0802 20:59:51.214519 11506 net.cpp:156] Memory required for data: 53405240
I0802 20:59:51.214524 11506 layer_factory.hpp:77] Creating layer conv3
I0802 20:59:51.214522 11496 net.cpp:399] lstm1 -> lstm1
I0802 20:59:51.214540 11506 net.cpp:91] Creating Layer conv3
I0802 20:59:51.214546 11506 net.cpp:425] conv3 <- norm2
I0802 20:59:51.214553 11506 net.cpp:399] conv3 -> conv3
I0802 20:59:51.214556 11496 recurrent_layer.cpp:20] Initializing recurrent layer: assuming input batch contains 1 timesteps of 1 independent streams.
I0802 20:59:51.216419 11496 net.cpp:49] Initializing net from parameters: 
layer {
  name: "lstm1_"
  type: "Input"
  top: "x"
  top: "cont"
  input_param {
    shape {
      dim: 1
      dim: 1
      dim: 500
    }
    shape {
      dim: 1
      dim: 1
    }
  }
}
layer {
  name: "lstm1_"
  type: "Input"
  top: "c_0"
  top: "h_0"
  input_param {
    shape {
      dim: 1
      dim: 1
      dim: 1000
    }
    shape {
      dim: 1
      dim: 1
      dim: 1000
    }
  }
}
layer {
  name: "lstm1_cont_slice"
  type: "Slice"
  bottom: "cont"
  top: "cont_1"
  slice_param {
    axis: 0
  }
}
layer {
  name: "lstm1_x_transform"
  type: "InnerProduct"
  bottom: "x"
  top: "W_xc_x"
  param {
    name: "W_xc"
  }
  param {
    name: "b_c"
  }
  propagate_down: true
  inner_product_param {
    num_output: 4000
    bias_term: true
    weight_filler {
      type: "uniform"
      min: -0.08
      max: 0.08
    }
    bias_filler {
      type: "constant"
      value: 0
    }
    axis: 2
  }
}
layer {
  name: "lstm1_W_xc_x_slice"
  type: "Slice"
  bottom: "W_xc_x"
  top: "W_xc_x_1"
  slice_param {
    axis: 0
  }
}
layer {
  name: "lstm1_h_conted_0"
  type: "Scale"
  bottom: "h_0"
  bottom: "cont_1"
  top: "h_conted_0"
  scale_param {
    axis: 0
  }
}
layer {
  name: "lstm1_transform_1"
  type: "InnerProduct"
  bottom: "h_conted_0"
  top: "W_hc_h_0"
  param {
    name: "W_hc"
  }
  inner_product_param {
    num_output: 4000
    bias_term: false
    weight_filler {
      type: "uniform"
      min: -0.08
      max: 0.08
    }
    axis: 2
  }
}
layer {
  name: "lstm1_gate_input_1"
  type: "Eltwise"
  bottom: "W_hc_h_0"
  bottom: "W_xc_x_1"
  top: "gate_input_1"
  eltwise_param {
    operation: SUM
  }
}
layer {
  name: "lstm1_unit_1"
  type: "LSTMUnit"
  bottom: "c_0"
  bottom: "gate_input_1"
  bottom: "cont_1"
  top: "c_1"
  top: "h_1"
}
layer {
  name: "lstm1_"
  type: "Split"
  bottom: "c_1"
  top: "c_T"
}
layer {
  name: "lstm1_h_concat"
  type: "Concat"
  bottom: "h_1"
  top: "h"
  concat_param {
    axis: 0
  }
}
layer {
  name: "h_pseudoloss"
  type: "Reduction"
  bottom: "h"
  top: "h_pseudoloss"
  loss_weight: 1
}
I0802 20:59:51.216598 11496 layer_factory.hpp:77] Creating layer lstm1_
I0802 20:59:51.216619 11496 net.cpp:91] Creating Layer lstm1_
I0802 20:59:51.216632 11496 net.cpp:399] lstm1_ -> x
I0802 20:59:51.216653 11496 net.cpp:399] lstm1_ -> cont
I0802 20:59:51.216776 11496 net.cpp:141] Setting up lstm1_
I0802 20:59:51.216794 11496 net.cpp:148] Top shape: 1 1 500 (500)
I0802 20:59:51.216806 11496 net.cpp:148] Top shape: 1 1 (1)
I0802 20:59:51.216814 11496 net.cpp:156] Memory required for data: 2004
I0802 20:59:51.216823 11496 layer_factory.hpp:77] Creating layer lstm1_
I0802 20:59:51.216837 11496 net.cpp:91] Creating Layer lstm1_
I0802 20:59:51.216852 11496 net.cpp:399] lstm1_ -> c_0
I0802 20:59:51.216871 11496 net.cpp:399] lstm1_ -> h_0
I0802 20:59:51.216954 11496 net.cpp:141] Setting up lstm1_
I0802 20:59:51.216974 11496 net.cpp:148] Top shape: 1 1 1000 (1000)
I0802 20:59:51.216985 11496 net.cpp:148] Top shape: 1 1 1000 (1000)
I0802 20:59:51.216992 11496 net.cpp:156] Memory required for data: 10004
I0802 20:59:51.217000 11496 layer_factory.hpp:77] Creating layer lstm1_cont_slice
I0802 20:59:51.217015 11496 net.cpp:91] Creating Layer lstm1_cont_slice
I0802 20:59:51.217023 11496 net.cpp:425] lstm1_cont_slice <- cont
I0802 20:59:51.217036 11496 net.cpp:399] lstm1_cont_slice -> cont_1
I0802 20:59:51.217100 11496 net.cpp:141] Setting up lstm1_cont_slice
I0802 20:59:51.217118 11496 net.cpp:148] Top shape: 1 1 (1)
I0802 20:59:51.217125 11496 net.cpp:156] Memory required for data: 10008
I0802 20:59:51.217134 11496 layer_factory.hpp:77] Creating layer cont_1_lstm1_cont_slice_0_split
I0802 20:59:51.217150 11496 net.cpp:91] Creating Layer cont_1_lstm1_cont_slice_0_split
I0802 20:59:51.217159 11496 net.cpp:425] cont_1_lstm1_cont_slice_0_split <- cont_1
I0802 20:59:51.217171 11496 net.cpp:399] cont_1_lstm1_cont_slice_0_split -> cont_1_lstm1_cont_slice_0_split_0
I0802 20:59:51.217186 11496 net.cpp:399] cont_1_lstm1_cont_slice_0_split -> cont_1_lstm1_cont_slice_0_split_1
I0802 20:59:51.217277 11496 net.cpp:141] Setting up cont_1_lstm1_cont_slice_0_split
I0802 20:59:51.217293 11496 net.cpp:148] Top shape: 1 1 (1)
I0802 20:59:51.217303 11496 net.cpp:148] Top shape: 1 1 (1)
I0802 20:59:51.217310 11496 net.cpp:156] Memory required for data: 10016
I0802 20:59:51.217319 11496 layer_factory.hpp:77] Creating layer lstm1_x_transform
I0802 20:59:51.217336 11496 net.cpp:91] Creating Layer lstm1_x_transform
I0802 20:59:51.217344 11496 net.cpp:425] lstm1_x_transform <- x
I0802 20:59:51.217363 11496 net.cpp:399] lstm1_x_transform -> W_xc_x
I0802 20:59:51.224099 11506 net.cpp:141] Setting up conv3
I0802 20:59:51.224159 11506 net.cpp:148] Top shape: 10 384 13 13 (648960)
I0802 20:59:51.224166 11506 net.cpp:156] Memory required for data: 56001080
I0802 20:59:51.224190 11506 layer_factory.hpp:77] Creating layer relu3
I0802 20:59:51.224212 11506 net.cpp:91] Creating Layer relu3
I0802 20:59:51.224220 11506 net.cpp:425] relu3 <- conv3
I0802 20:59:51.224230 11506 net.cpp:386] relu3 -> conv3 (in-place)
I0802 20:59:51.224681 11506 net.cpp:141] Setting up relu3
I0802 20:59:51.224695 11506 net.cpp:148] Top shape: 10 384 13 13 (648960)
I0802 20:59:51.224701 11506 net.cpp:156] Memory required for data: 58596920
I0802 20:59:51.224707 11506 layer_factory.hpp:77] Creating layer conv4
I0802 20:59:51.224726 11506 net.cpp:91] Creating Layer conv4
I0802 20:59:51.224732 11506 net.cpp:425] conv4 <- conv3
I0802 20:59:51.224740 11506 net.cpp:399] conv4 -> conv4
I0802 20:59:51.229104 11506 net.cpp:141] Setting up conv4
I0802 20:59:51.229133 11506 net.cpp:148] Top shape: 10 384 13 13 (648960)
I0802 20:59:51.229140 11506 net.cpp:156] Memory required for data: 61192760
I0802 20:59:51.229151 11506 layer_factory.hpp:77] Creating layer relu4
I0802 20:59:51.229166 11506 net.cpp:91] Creating Layer relu4
I0802 20:59:51.229171 11506 net.cpp:425] relu4 <- conv4
I0802 20:59:51.229179 11506 net.cpp:386] relu4 -> conv4 (in-place)
I0802 20:59:51.229619 11506 net.cpp:141] Setting up relu4
I0802 20:59:51.229636 11506 net.cpp:148] Top shape: 10 384 13 13 (648960)
I0802 20:59:51.229641 11506 net.cpp:156] Memory required for data: 63788600
I0802 20:59:51.229647 11506 layer_factory.hpp:77] Creating layer conv5
I0802 20:59:51.229661 11506 net.cpp:91] Creating Layer conv5
I0802 20:59:51.229667 11506 net.cpp:425] conv5 <- conv4
I0802 20:59:51.229678 11506 net.cpp:399] conv5 -> conv5
I0802 20:59:51.233652 11506 net.cpp:141] Setting up conv5
I0802 20:59:51.233676 11506 net.cpp:148] Top shape: 10 256 13 13 (432640)
I0802 20:59:51.233682 11506 net.cpp:156] Memory required for data: 65519160
I0802 20:59:51.233700 11506 layer_factory.hpp:77] Creating layer relu5
I0802 20:59:51.233711 11506 net.cpp:91] Creating Layer relu5
I0802 20:59:51.233716 11506 net.cpp:425] relu5 <- conv5
I0802 20:59:51.233727 11506 net.cpp:386] relu5 -> conv5 (in-place)
I0802 20:59:51.234174 11506 net.cpp:141] Setting up relu5
I0802 20:59:51.234187 11506 net.cpp:148] Top shape: 10 256 13 13 (432640)
I0802 20:59:51.234192 11506 net.cpp:156] Memory required for data: 67249720
I0802 20:59:51.234199 11506 layer_factory.hpp:77] Creating layer pool5
I0802 20:59:51.234215 11506 net.cpp:91] Creating Layer pool5
I0802 20:59:51.234220 11506 net.cpp:425] pool5 <- conv5
I0802 20:59:51.234227 11506 net.cpp:399] pool5 -> pool5
I0802 20:59:51.234299 11506 net.cpp:141] Setting up pool5
I0802 20:59:51.234310 11506 net.cpp:148] Top shape: 10 256 6 6 (92160)
I0802 20:59:51.234315 11506 net.cpp:156] Memory required for data: 67618360
I0802 20:59:51.234320 11506 layer_factory.hpp:77] Creating layer fc6
I0802 20:59:51.234338 11506 net.cpp:91] Creating Layer fc6
I0802 20:59:51.234343 11506 net.cpp:425] fc6 <- pool5
I0802 20:59:51.234349 11506 net.cpp:399] fc6 -> fc6
I0802 20:59:51.304929 11496 net.cpp:141] Setting up lstm1_x_transform
I0802 20:59:51.304986 11496 net.cpp:148] Top shape: 1 1 4000 (4000)
I0802 20:59:51.304993 11496 net.cpp:156] Memory required for data: 26016
I0802 20:59:51.305017 11496 layer_factory.hpp:77] Creating layer lstm1_W_xc_x_slice
I0802 20:59:51.305037 11496 net.cpp:91] Creating Layer lstm1_W_xc_x_slice
I0802 20:59:51.305044 11496 net.cpp:425] lstm1_W_xc_x_slice <- W_xc_x
I0802 20:59:51.305054 11496 net.cpp:399] lstm1_W_xc_x_slice -> W_xc_x_1
I0802 20:59:51.305109 11496 net.cpp:141] Setting up lstm1_W_xc_x_slice
I0802 20:59:51.305120 11496 net.cpp:148] Top shape: 1 1 4000 (4000)
I0802 20:59:51.305125 11496 net.cpp:156] Memory required for data: 42016
I0802 20:59:51.305131 11496 layer_factory.hpp:77] Creating layer lstm1_h_conted_0
I0802 20:59:51.305143 11496 net.cpp:91] Creating Layer lstm1_h_conted_0
I0802 20:59:51.305150 11496 net.cpp:425] lstm1_h_conted_0 <- h_0
I0802 20:59:51.305155 11496 net.cpp:425] lstm1_h_conted_0 <- cont_1_lstm1_cont_slice_0_split_0
I0802 20:59:51.305163 11496 net.cpp:399] lstm1_h_conted_0 -> h_conted_0
I0802 20:59:51.305265 11496 net.cpp:141] Setting up lstm1_h_conted_0
I0802 20:59:51.305276 11496 net.cpp:148] Top shape: 1 1 1000 (1000)
I0802 20:59:51.305281 11496 net.cpp:156] Memory required for data: 46016
I0802 20:59:51.305286 11496 layer_factory.hpp:77] Creating layer lstm1_transform_1
I0802 20:59:51.305300 11496 net.cpp:91] Creating Layer lstm1_transform_1
I0802 20:59:51.305306 11496 net.cpp:425] lstm1_transform_1 <- h_conted_0
I0802 20:59:51.305315 11496 net.cpp:399] lstm1_transform_1 -> W_hc_h_0
I0802 20:59:51.346379 11506 net.cpp:141] Setting up fc6
I0802 20:59:51.346433 11506 net.cpp:148] Top shape: 10 4096 (40960)
I0802 20:59:51.346441 11506 net.cpp:156] Memory required for data: 67782200
I0802 20:59:51.346456 11506 layer_factory.hpp:77] Creating layer relu6
I0802 20:59:51.346478 11506 net.cpp:91] Creating Layer relu6
I0802 20:59:51.346487 11506 net.cpp:425] relu6 <- fc6
I0802 20:59:51.346496 11506 net.cpp:386] relu6 -> fc6 (in-place)
I0802 20:59:51.346861 11506 net.cpp:141] Setting up relu6
I0802 20:59:51.346874 11506 net.cpp:148] Top shape: 10 4096 (40960)
I0802 20:59:51.346879 11506 net.cpp:156] Memory required for data: 67946040
I0802 20:59:51.346884 11506 layer_factory.hpp:77] Creating layer drop6
I0802 20:59:51.346909 11506 net.cpp:91] Creating Layer drop6
I0802 20:59:51.346913 11506 net.cpp:425] drop6 <- fc6
I0802 20:59:51.346925 11506 net.cpp:386] drop6 -> fc6 (in-place)
I0802 20:59:51.346981 11506 net.cpp:141] Setting up drop6
I0802 20:59:51.346989 11506 net.cpp:148] Top shape: 10 4096 (40960)
I0802 20:59:51.346998 11506 net.cpp:156] Memory required for data: 68109880
I0802 20:59:51.347003 11506 layer_factory.hpp:77] Creating layer fc7
I0802 20:59:51.347013 11506 net.cpp:91] Creating Layer fc7
I0802 20:59:51.347019 11506 net.cpp:425] fc7 <- fc6
I0802 20:59:51.347026 11506 net.cpp:399] fc7 -> fc7
I0802 20:59:51.379000 11496 net.cpp:141] Setting up lstm1_transform_1
I0802 20:59:51.379060 11496 net.cpp:148] Top shape: 1 1 4000 (4000)
I0802 20:59:51.379066 11496 net.cpp:156] Memory required for data: 62016
I0802 20:59:51.379091 11496 layer_factory.hpp:77] Creating layer lstm1_gate_input_1
I0802 20:59:51.379118 11496 net.cpp:91] Creating Layer lstm1_gate_input_1
I0802 20:59:51.379127 11496 net.cpp:425] lstm1_gate_input_1 <- W_hc_h_0
I0802 20:59:51.379134 11496 net.cpp:425] lstm1_gate_input_1 <- W_xc_x_1
I0802 20:59:51.379143 11496 net.cpp:399] lstm1_gate_input_1 -> gate_input_1
I0802 20:59:51.379223 11496 net.cpp:141] Setting up lstm1_gate_input_1
I0802 20:59:51.379235 11496 net.cpp:148] Top shape: 1 1 4000 (4000)
I0802 20:59:51.379238 11496 net.cpp:156] Memory required for data: 78016
I0802 20:59:51.379243 11496 layer_factory.hpp:77] Creating layer lstm1_unit_1
I0802 20:59:51.379256 11496 net.cpp:91] Creating Layer lstm1_unit_1
I0802 20:59:51.379261 11496 net.cpp:425] lstm1_unit_1 <- c_0
I0802 20:59:51.379267 11496 net.cpp:425] lstm1_unit_1 <- gate_input_1
I0802 20:59:51.379273 11496 net.cpp:425] lstm1_unit_1 <- cont_1_lstm1_cont_slice_0_split_1
I0802 20:59:51.379281 11496 net.cpp:399] lstm1_unit_1 -> c_1
I0802 20:59:51.379289 11496 net.cpp:399] lstm1_unit_1 -> h_1
I0802 20:59:51.379361 11496 net.cpp:141] Setting up lstm1_unit_1
I0802 20:59:51.379372 11496 net.cpp:148] Top shape: 1 1 1000 (1000)
I0802 20:59:51.379379 11496 net.cpp:148] Top shape: 1 1 1000 (1000)
I0802 20:59:51.379382 11496 net.cpp:156] Memory required for data: 86016
I0802 20:59:51.379389 11496 layer_factory.hpp:77] Creating layer lstm1_
I0802 20:59:51.379400 11496 net.cpp:91] Creating Layer lstm1_
I0802 20:59:51.379405 11496 net.cpp:425] lstm1_ <- c_1
I0802 20:59:51.379413 11496 net.cpp:399] lstm1_ -> c_T
I0802 20:59:51.379447 11496 net.cpp:141] Setting up lstm1_
I0802 20:59:51.379456 11496 net.cpp:148] Top shape: 1 1 1000 (1000)
I0802 20:59:51.379462 11496 net.cpp:156] Memory required for data: 90016
I0802 20:59:51.379467 11496 layer_factory.hpp:77] Creating layer lstm1_h_concat
I0802 20:59:51.379477 11496 net.cpp:91] Creating Layer lstm1_h_concat
I0802 20:59:51.379482 11496 net.cpp:425] lstm1_h_concat <- h_1
I0802 20:59:51.379493 11496 net.cpp:399] lstm1_h_concat -> h
I0802 20:59:51.379535 11496 net.cpp:141] Setting up lstm1_h_concat
I0802 20:59:51.379544 11496 net.cpp:148] Top shape: 1 1 1000 (1000)
I0802 20:59:51.379549 11496 net.cpp:156] Memory required for data: 94016
I0802 20:59:51.379554 11496 layer_factory.hpp:77] Creating layer h_pseudoloss
I0802 20:59:51.379575 11496 net.cpp:91] Creating Layer h_pseudoloss
I0802 20:59:51.379580 11496 net.cpp:425] h_pseudoloss <- h
I0802 20:59:51.379586 11496 net.cpp:399] h_pseudoloss -> h_pseudoloss
I0802 20:59:51.379683 11496 net.cpp:141] Setting up h_pseudoloss
…
I0802 20:59:51.379817 11496 net.cpp:219] lstm1_ does not need backward computation.
I0802 20:59:51.379820 11496 net.cpp:261] This network produces output c_T
I0802 20:59:51.379825 11496 net.cpp:261] This network produces output h_pseudoloss
I0802 20:59:51.379843 11496 net.cpp:274] Network initialization done.
I0802 20:59:51.379912 11496 recurrent_layer.cpp:150] Adding parameter 0: W_xc
I0802 20:59:51.379920 11496 recurrent_layer.cpp:150] Adding parameter 1: b_c
I0802 20:59:51.379925 11496 recurrent_layer.cpp:150] Adding parameter 2: W_hc
I0802 20:59:51.380044 11496 net.cpp:141] Setting up lstm1
I0802 20:59:51.380059 11496 net.cpp:148] Top shape: 1 1 1000 (1000)
I0802 20:59:51.380064 11496 net.cpp:156] Memory required for data: 26408
I0802 20:59:51.380077 11496 layer_factory.hpp:77] Creating layer concat
I0802 20:59:51.380087 11496 net.cpp:91] Creating Layer concat
I0802 20:59:51.380095 11496 net.cpp:425] concat <- lstm1
I0802 20:59:51.380101 11496 net.cpp:425] concat <- embedded_input_sentence
I0802 20:59:51.380125 11496 net.cpp:425] concat <- reshaped_stage_indicator
I0802 20:59:51.380133 11496 net.cpp:399] concat -> lstm1_video_sequence
I0802 20:59:51.380173 11496 net.cpp:141] Setting up concat
I0802 20:59:51.380183 11496 net.cpp:148] Top shape: 1 1 1501 (1501)
I0802 20:59:51.380187 11496 net.cpp:156] Memory required for data: 32412
I0802 20:59:51.380193 11496 layer_factory.hpp:77] Creating layer lstm2
I0802 20:59:51.380206 11496 net.cpp:91] Creating Layer lstm2
I0802 20:59:51.380213 11496 net.cpp:425] lstm2 <- lstm1_video_sequence
I0802 20:59:51.380218 11496 net.cpp:425] lstm2 <- cont_sentence_input_1_split_1
I0802 20:59:51.380225 11496 net.cpp:399] lstm2 -> lstm2
I0802 20:59:51.380236 11496 recurrent_layer.cpp:20] Initializing recurrent layer: assuming input batch contains 1 timesteps of 1 independent streams.
I0802 20:59:51.380524 11496 net.cpp:49] Initializing net from parameters: 
layer {
  name: "lstm2_"
  type: "Input"
  top: "x"
  top: "cont"
  input_param {
    shape {
      dim: 1
      dim: 1
      dim: 1501
    }
    shape {
      dim: 1
      dim: 1
    }
  }
}
layer {
  name: "lstm2_"
  type: "Input"
  top: "c_0"
  top: "h_0"
  input_param {
    shape {
      dim: 1
      dim: 1
      dim: 1000
    }
    shape {
      dim: 1
      dim: 1
      dim: 1000
    }
  }
}
layer {
  name: "lstm2_cont_slice"
  type: "Slice"
  bottom: "cont"
  top: "cont_1"
  slice_param {
    axis: 0
  }
}
layer {
  name: "lstm2_x_transform"
  type: "InnerProduct"
  bottom: "x"
  top: "W_xc_x"
  param {
    name: "W_xc"
  }
  param {
    name: "b_c"
  }
  propagate_down: true
  inner_product_param {
    num_output: 4000
    bias_term: true
    weight_filler {
      type: "uniform"
      min: -0.08
      max: 0.08
    }
    bias_filler {
      type: "constant"
      value: 0
    }
    axis: 2
  }
}
layer {
  name: "lstm2_W_xc_x_slice"
  type: "Slice"
  bottom: "W_xc_x"
  top: "W_xc_x_1"
  slice_param {
    axis: 0
  }
}
layer {
  name: "lstm2_h_conted_0"
  type: "Scale"
  bottom: "h_0"
  bottom: "cont_1"
  top: "h_conted_0"
  scale_param {
    axis: 0
  }
}
layer {
  name: "lstm2_transform_1"
  type: "InnerProduct"
  bottom: "h_conted_0"
  top: "W_hc_h_0"
  param {
    name: "W_hc"
  }
  inner_product_param {
    num_output: 4000
    bias_term: false
    weight_filler {
      type: "uniform"
      min: -0.08
      max: 0.08
    }
    axis: 2
  }
}
layer {
  name: "lstm2_gate_input_1"
  type: "Eltwise"
  bottom: "W_hc_h_0"
  bottom: "W_xc_x_1"
  top: "gate_input_1"
  eltwise_param {
    operation: SUM
  }
}
layer {
  name: "lstm2_unit_1"
  type: "LSTMUnit"
  bottom: "c_0"
  bottom: "gate_input_1"
  bottom: "cont_1"
  top: "c_1"
  top: "h_1"
}
layer {
  name: "lstm2_"
  type: "Split"
  bottom: "c_1"
  top: "c_T"
}
layer {
  name: "lstm2_h_concat"
  type: "Concat"
  bottom: "h_1"
  top: "h"
  concat_param {
    axis: 0
  }
}
layer {
  name: "h_pseudoloss"
  type: "Reduction"
  bottom: "h"
  top: "h_pseudoloss"
  loss_weight: 1
}
I0802 20:59:51.380621 11496 layer_factory.hpp:77] Creating layer lstm2_
I0802 20:59:51.380635 11496 net.cpp:91] Creating Layer lstm2_
I0802 20:59:51.380641 11496 net.cpp:399] lstm2_ -> x
I0802 20:59:51.380653 11496 net.cpp:399] lstm2_ -> cont
I0802 20:59:51.380717 11496 net.cpp:141] Setting up lstm2_
I0802 20:59:51.380728 11496 net.cpp:148] Top shape: 1 1 1501 (1501)
I0802 20:59:51.380734 11496 net.cpp:148] Top shape: 1 1 (1)
I0802 20:59:51.380738 11496 net.cpp:156] Memory required for data: 6008
I0802 20:59:51.380744 11496 layer_factory.hpp:77] Creating layer lstm2_
I0802 20:59:51.380753 11496 net.cpp:91] Creating Layer lstm2_
I0802 20:59:51.380764 11496 net.cpp:399] lstm2_ -> c_0
I0802 20:59:51.380774 11496 net.cpp:399] lstm2_ -> h_0
I0802 20:59:51.380831 11496 net.cpp:141] Setting up lstm2_
I0802 20:59:51.380842 11496 net.cpp:148] Top shape: 1 1 1000 (1000)
I0802 20:59:51.380848 11496 net.cpp:148] Top shape: 1 1 1000 (1000)
I0802 20:59:51.380852 11496 net.cpp:156] Memory required for data: 14008
I0802 20:59:51.380857 11496 layer_factory.hpp:77] Creating layer lstm2_cont_slice
I0802 20:59:51.380867 11496 net.cpp:91] Creating Layer lstm2_cont_slice
I0802 20:59:51.380872 11496 net.cpp:425] lstm2_cont_slice <- cont
I0802 20:59:51.380879 11496 net.cpp:399] lstm2_cont_slice -> cont_1
I0802 20:59:51.380920 11496 net.cpp:141] Setting up lstm2_cont_slice
I0802 20:59:51.380930 11496 net.cpp:148] Top shape: 1 1 (1)
I0802 20:59:51.380934 11496 net.cpp:156] Memory required for data: 14012
I0802 20:59:51.380939 11496 layer_factory.hpp:77] Creating layer cont_1_lstm2_cont_slice_0_split
I0802 20:59:51.380949 11496 net.cpp:91] Creating Layer cont_1_lstm2_cont_slice_0_split
I0802 20:59:51.380954 11496 net.cpp:425] cont_1_lstm2_cont_slice_0_split <- cont_1
I0802 20:59:51.380961 11496 net.cpp:399] cont_1_lstm2_cont_slice_0_split -> cont_1_lstm2_cont_slice_0_split_0
I0802 20:59:51.380970 11496 net.cpp:399] cont_1_lstm2_cont_slice_0_split -> cont_1_lstm2_cont_slice_0_split_1
I0802 20:59:51.381024 11496 net.cpp:141] Setting up cont_1_lstm2_cont_slice_0_split
I0802 20:59:51.381034 11496 net.cpp:148] Top shape: 1 1 (1)
I0802 20:59:51.381039 11496 net.cpp:148] Top shape: 1 1 (1)
I0802 20:59:51.381044 11496 net.cpp:156] Memory required for data: 14020
I0802 20:59:51.381049 11496 layer_factory.hpp:77] Creating layer lstm2_x_transform
I0802 20:59:51.381063 11496 net.cpp:91] Creating Layer lstm2_x_transform
I0802 20:59:51.381068 11496 net.cpp:425] lstm2_x_transform <- x
I0802 20:59:51.381077 11496 net.cpp:399] lstm2_x_transform -> W_xc_x
I0802 20:59:51.397722 11506 net.cpp:141] Setting up fc7
I0802 20:59:51.397766 11506 net.cpp:148] Top shape: 10 4096 (40960)
I0802 20:59:51.397773 11506 net.cpp:156] Memory required for data: 68273720
I0802 20:59:51.397788 11506 layer_factory.hpp:77] Creating layer relu7
I0802 20:59:51.397809 11506 net.cpp:91] Creating Layer relu7
I0802 20:59:51.397817 11506 net.cpp:425] relu7 <- fc7
I0802 20:59:51.397828 11506 net.cpp:386] relu7 -> fc7 (in-place)
I0802 20:59:51.398490 11506 net.cpp:141] Setting up relu7
I0802 20:59:51.398504 11506 net.cpp:148] Top shape: 10 4096 (40960)
I0802 20:59:51.398509 11506 net.cpp:156] Memory required for data: 68437560
I0802 20:59:51.398515 11506 layer_factory.hpp:77] Creating layer drop7
I0802 20:59:51.398532 11506 net.cpp:91] Creating Layer drop7
I0802 20:59:51.398538 11506 net.cpp:425] drop7 <- fc7
I0802 20:59:51.398545 11506 net.cpp:386] drop7 -> fc7 (in-place)
I0802 20:59:51.398592 11506 net.cpp:141] Setting up drop7
I0802 20:59:51.398602 11506 net.cpp:148] Top shape: 10 4096 (40960)
I0802 20:59:51.398607 11506 net.cpp:156] Memory required for data: 68601400
I0802 20:59:51.398612 11506 layer_factory.hpp:77] Creating layer fc8
I0802 20:59:51.398622 11506 net.cpp:91] Creating Layer fc8
I0802 20:59:51.398627 11506 net.cpp:425] fc8 <- fc7
I0802 20:59:51.398639 11506 net.cpp:399] fc8 -> fc8
I0802 20:59:51.411780 11506 net.cpp:141] Setting up fc8
I0802 20:59:51.411828 11506 net.cpp:148] Top shape: 10 1000 (10000)
I0802 20:59:51.411834 11506 net.cpp:156] Memory required for data: 68641400
I0802 20:59:51.411849 11506 layer_factory.hpp:77] Creating layer prob
I0802 20:59:51.411869 11506 net.cpp:91] Creating Layer prob
I0802 20:59:51.411876 11506 net.cpp:425] prob <- fc8
I0802 20:59:51.411887 11506 net.cpp:399] prob -> prob
I0802 20:59:51.412369 11506 net.cpp:141] Setting up prob
I0802 20:59:51.412381 11506 net.cpp:148] Top shape: 10 1000 (10000)
I0802 20:59:51.412386 11506 net.cpp:156] Memory required for data: 68681400
I0802 20:59:51.412394 11506 net.cpp:219] prob does not need backward computation.
I0802 20:59:51.412398 11506 net.cpp:219] fc8 does not need backward computation.
I0802 20:59:51.412403 11506 net.cpp:219] drop7 does not need backward computation.
I0802 20:59:51.412408 11506 net.cpp:219] relu7 does not need backward computation.
…
I0802 20:59:51.412490 11506 net.cpp:219] norm1 does not need backward computation.
I0802 20:59:51.412494 11506 net.cpp:219] pool1 does not need backward computation.
I0802 20:59:51.412500 11506 net.cpp:219] relu1 does not need backward computation.
I0802 20:59:51.412505 11506 net.cpp:219] conv1 does not need backward computation.
I0802 20:59:51.412509 11506 net.cpp:219] data does not need backward computation.
I0802 20:59:51.412514 11506 net.cpp:261] This network produces output prob
I0802 20:59:51.412534 11506 net.cpp:274] Network initialization done.
I0802 20:59:51.451927 11496 net.cpp:141] Setting up lstm2_x_transform
I0802 20:59:51.451983 11496 net.cpp:148] Top shape: 1 1 4000 (4000)
I0802 20:59:51.451990 11496 net.cpp:156] Memory required for data: 30020
I0802 20:59:51.452018 11496 layer_factory.hpp:77] Creating layer lstm2_W_xc_x_slice
I0802 20:59:51.452035 11496 net.cpp:91] Creating Layer lstm2_W_xc_x_slice
I0802 20:59:51.452042 11496 net.cpp:425] lstm2_W_xc_x_slice <- W_xc_x
I0802 20:59:51.452052 11496 net.cpp:399] lstm2_W_xc_x_slice -> W_xc_x_1
I0802 20:59:51.452487 11496 net.cpp:141] Setting up lstm2_W_xc_x_slice
I0802 20:59:51.452508 11496 net.cpp:148] Top shape: 1 1 4000 (4000)
I0802 20:59:51.452514 11496 net.cpp:156] Memory required for data: 46020
I0802 20:59:51.452520 11496 layer_factory.hpp:77] Creating layer lstm2_h_conted_0
I0802 20:59:51.452533 11496 net.cpp:91] Creating Layer lstm2_h_conted_0
I0802 20:59:51.452539 11496 net.cpp:425] lstm2_h_conted_0 <- h_0
I0802 20:59:51.452546 11496 net.cpp:425] lstm2_h_conted_0 <- cont_1_lstm2_cont_slice_0_split_0
I0802 20:59:51.452554 11496 net.cpp:399] lstm2_h_conted_0 -> h_conted_0
I0802 20:59:51.452679 11496 net.cpp:141] Setting up lstm2_h_conted_0
I0802 20:59:51.452692 11496 net.cpp:148] Top shape: 1 1 1000 (1000)
I0802 20:59:51.452695 11496 net.cpp:156] Memory required for data: 50020
I0802 20:59:51.452702 11496 layer_factory.hpp:77] Creating layer lstm2_transform_1
I0802 20:59:51.452714 11496 net.cpp:91] Creating Layer lstm2_transform_1
I0802 20:59:51.452720 11496 net.cpp:425] lstm2_transform_1 <- h_conted_0
I0802 20:59:51.452728 11496 net.cpp:399] lstm2_transform_1 -> W_hc_h_0
I0802 20:59:51.495636 11496 net.cpp:141] Setting up lstm2_transform_1
I0802 20:59:51.495693 11496 net.cpp:148] Top shape: 1 1 4000 (4000)
I0802 20:59:51.495700 11496 net.cpp:156] Memory required for data: 66020
I0802 20:59:51.495725 11496 layer_factory.hpp:77] Creating layer lstm2_gate_input_1
I0802 20:59:51.495748 11496 net.cpp:91] Creating Layer lstm2_gate_input_1
I0802 20:59:51.495754 11496 net.cpp:425] lstm2_gate_input_1 <- W_hc_h_0
I0802 20:59:51.495764 11496 net.cpp:425] lstm2_gate_input_1 <- W_xc_x_1
I0802 20:59:51.495772 11496 net.cpp:399] lstm2_gate_input_1 -> gate_input_1
I0802 20:59:51.495831 11496 net.cpp:141] Setting up lstm2_gate_input_1
I0802 20:59:51.495843 11496 net.cpp:148] Top shape: 1 1 4000 (4000)
I0802 20:59:51.495847 11496 net.cpp:156] Memory required for data: 82020
I0802 20:59:51.495852 11496 layer_factory.hpp:77] Creating layer lstm2_unit_1
I0802 20:59:51.495865 11496 net.cpp:91] Creating Layer lstm2_unit_1
I0802 20:59:51.495870 11496 net.cpp:425] lstm2_unit_1 <- c_0
I0802 20:59:51.495877 11496 net.cpp:425] lstm2_unit_1 <- gate_input_1
I0802 20:59:51.495882 11496 net.cpp:425] lstm2_unit_1 <- cont_1_lstm2_cont_slice_0_split_1
I0802 20:59:51.495889 11496 net.cpp:399] lstm2_unit_1 -> c_1
I0802 20:59:51.495898 11496 net.cpp:399] lstm2_unit_1 -> h_1
I0802 20:59:51.495972 11496 net.cpp:141] Setting up lstm2_unit_1
I0802 20:59:51.495982 11496 net.cpp:148] Top shape: 1 1 1000 (1000)
I0802 20:59:51.495988 11496 net.cpp:148] Top shape: 1 1 1000 (1000)
I0802 20:59:51.495993 11496 net.cpp:156] Memory required for data: 90020
I0802 20:59:51.495998 11496 layer_factory.hpp:77] Creating layer lstm2_
I0802 20:59:51.496007 11496 net.cpp:91] Creating Layer lstm2_
I0802 20:59:51.496012 11496 net.cpp:425] lstm2_ <- c_1
I0802 20:59:51.496019 11496 net.cpp:399] lstm2_ -> c_T
I0802 20:59:51.496054 11496 net.cpp:141] Setting up lstm2_
I0802 20:59:51.496063 11496 net.cpp:148] Top shape: 1 1 1000 (1000)
I0802 20:59:51.496068 11496 net.cpp:156] Memory required for data: 94020
I0802 20:59:51.496073 11496 layer_factory.hpp:77] Creating layer lstm2_h_concat
I0802 20:59:51.496088 11496 net.cpp:91] Creating Layer lstm2_h_concat
I0802 20:59:51.496093 11496 net.cpp:425] lstm2_h_concat <- h_1
I0802 20:59:51.496101 11496 net.cpp:399] lstm2_h_concat -> h
I0802 20:59:51.496155 11496 net.cpp:141] Setting up lstm2_h_concat
I0802 20:59:51.496165 11496 net.cpp:148] Top shape: 1 1 1000 (1000)
I0802 20:59:51.496170 11496 net.cpp:156] Memory required for data: 98020
I0802 20:59:51.496175 11496 layer_factory.hpp:77] Creating layer h_pseudoloss
I0802 20:59:51.496184 11496 net.cpp:91] Creating Layer h_pseudoloss
I0802 20:59:51.496189 11496 net.cpp:425] h_pseudoloss <- h
I0802 20:59:51.496201 11496 net.cpp:399] h_pseudoloss -> h_pseudoloss
I0802 20:59:51.496299 11496 net.cpp:141] Setting up h_pseudoloss
…
