…
2016-08-02 07:05:04.492 STDERR [INFO] I0802 07:05:04.472949 31417 net.cpp:91] Creating Layer input
2016-08-02 07:05:04.492 STDERR [INFO] I0802 07:05:04.472956 31417 net.cpp:399] input -> frames_fc7
2016-08-02 07:05:04.492 STDERR [INFO] I0802 07:05:04.472973 31417 net.cpp:399] input -> cont_sentence
2016-08-02 07:05:04.492 STDERR [INFO] I0802 07:05:04.472983 31417 net.cpp:399] input -> input_sentence
2016-08-02 07:05:04.492 STDERR [INFO] I0802 07:05:04.472993 31417 net.cpp:399] input -> stage_indicator
2016-08-02 07:05:04.492 STDERR [INFO] I0802 07:05:04.473189 31417 net.cpp:141] Setting up input
2016-08-02 07:05:04.492 STDERR [INFO] I0802 07:05:04.473201 31417 net.cpp:148] Top shape: 1 4096 (4096)
2016-08-02 07:05:04.492 STDERR [INFO] I0802 07:05:04.473208 31417 net.cpp:148] Top shape: 1 1 (1)
2016-08-02 07:05:04.493 STDERR [INFO] I0802 07:05:04.473213 31417 net.cpp:148] Top shape: 1 1 (1)
2016-08-02 07:05:04.493 STDERR [INFO] I0802 07:05:04.473218 31417 net.cpp:148] Top shape: 1 1 (1)
2016-08-02 07:05:04.493 STDERR [INFO] I0802 07:05:04.473222 31417 net.cpp:156] Memory required for data: 16396
2016-08-02 07:05:04.493 STDERR [INFO] I0802 07:05:04.473228 31417 layer_factory.hpp:77] Creating layer cont_sentence_input_1_split
2016-08-02 07:05:04.493 STDERR [INFO] I0802 07:05:04.473248 31417 net.cpp:91] Creating Layer cont_sentence_input_1_split
2016-08-02 07:05:04.493 STDERR [INFO] I0802 07:05:04.473253 31417 net.cpp:425] cont_sentence_input_1_split <- cont_sentence
2016-08-02 07:05:04.493 STDERR [INFO] I0802 07:05:04.473275 31417 net.cpp:399] cont_sentence_input_1_split -> cont_sentence_input_1_split_0
2016-08-02 07:05:04.493 STDERR [INFO] I0802 07:05:04.473285 31417 net.cpp:399] cont_sentence_input_1_split -> cont_sentence_input_1_split_1
2016-08-02 07:05:04.493 STDERR [INFO] I0802 07:05:04.476775 31417 net.cpp:141] Setting up cont_sentence_input_1_split
2016-08-02 07:05:04.493 STDERR [INFO] I0802 07:05:04.476794 31417 net.cpp:148] Top shape: 1 1 (1)
2016-08-02 07:05:04.493 STDERR [INFO] I0802 07:05:04.476800 31417 net.cpp:148] Top shape: 1 1 (1)
2016-08-02 07:05:04.494 STDERR [INFO] I0802 07:05:04.476804 31417 net.cpp:156] Memory required for data: 16404
2016-08-02 07:05:04.494 STDERR [INFO] I0802 07:05:04.476809 31417 layer_factory.hpp:77] Creating layer embed_encoder
2016-08-02 07:05:04.494 STDERR [INFO] I0802 07:05:04.476827 31417 net.cpp:91] Creating Layer embed_encoder
2016-08-02 07:05:04.494 STDERR [INFO] I0802 07:05:04.476833 31417 net.cpp:425] embed_encoder <- frames_fc7
2016-08-02 07:05:04.494 STDERR [INFO] I0802 07:05:04.476841 31417 net.cpp:399] embed_encoder -> embedded_in_frames
2016-08-02 07:05:04.500 STDERR [INFO] I0802 07:05:04.500048 31417 net.cpp:141] Setting up embed_encoder
2016-08-02 07:05:04.500 STDERR [INFO] I0802 07:05:04.500087 31417 net.cpp:148] Top shape: 1 500 (500)
2016-08-02 07:05:04.500 STDERR [INFO] I0802 07:05:04.500092 31417 net.cpp:156] Memory required for data: 18404
2016-08-02 07:05:04.500 STDERR [INFO] I0802 07:05:04.500113 31417 layer_factory.hpp:77] Creating layer reshape_frames
2016-08-02 07:05:04.500 STDERR [INFO] I0802 07:05:04.500135 31417 net.cpp:91] Creating Layer reshape_frames
2016-08-02 07:05:04.500 STDERR [INFO] I0802 07:05:04.500143 31417 net.cpp:425] reshape_frames <- embedded_in_frames
2016-08-02 07:05:04.500 STDERR [INFO] I0802 07:05:04.500152 31417 net.cpp:399] reshape_frames -> embedded_input_frames
2016-08-02 07:05:04.500 STDERR [INFO] I0802 07:05:04.500380 31417 net.cpp:141] Setting up reshape_frames
2016-08-02 07:05:04.501 STDERR [INFO] I0802 07:05:04.500391 31417 net.cpp:148] Top shape: 1 1 500 (500)
2016-08-02 07:05:04.501 STDERR [INFO] I0802 07:05:04.500394 31417 net.cpp:156] Memory required for data: 20404
2016-08-02 07:05:04.501 STDERR [INFO] I0802 07:05:04.500399 31417 layer_factory.hpp:77] Creating layer reshape_stage_indicator
2016-08-02 07:05:04.501 STDERR [INFO] I0802 07:05:04.500409 31417 net.cpp:91] Creating Layer reshape_stage_indicator
2016-08-02 07:05:04.501 STDERR [INFO] I0802 07:05:04.500414 31417 net.cpp:425] reshape_stage_indicator <- stage_indicator
2016-08-02 07:05:04.501 STDERR [INFO] I0802 07:05:04.500422 31417 net.cpp:399] reshape_stage_indicator -> reshaped_stage_indicator
2016-08-02 07:05:04.501 STDERR [INFO] I0802 07:05:04.500578 31417 net.cpp:141] Setting up reshape_stage_indicator
2016-08-02 07:05:04.501 STDERR [INFO] I0802 07:05:04.500588 31417 net.cpp:148] Top shape: 1 1 1 (1)
2016-08-02 07:05:04.501 STDERR [INFO] I0802 07:05:04.500593 31417 net.cpp:156] Memory required for data: 20408
2016-08-02 07:05:04.501 STDERR [INFO] I0802 07:05:04.500597 31417 layer_factory.hpp:77] Creating layer embedding
2016-08-02 07:05:04.502 STDERR [INFO] I0802 07:05:04.500608 31417 net.cpp:91] Creating Layer embedding
2016-08-02 07:05:04.502 STDERR [INFO] I0802 07:05:04.500613 31417 net.cpp:425] embedding <- input_sentence
…
2016-08-02 07:05:04.603 n.t.s.b.CVParticleBolt [INFO] [Timing] RequestID: 0 StreamID: home_peifeng_work_data_frame_320x240_jpg SequenceNr: 120 Entering scale: 1470135904603
2016-08-02 07:05:04.606 n.t.s.s.CVParticleSpout [INFO] [Timing] RequestID: 0 StreamID: home_peifeng_work_data_frame_320x240_jpg SequenceNr: 121 Leaving fetcher: 1470135904606 Size: 8702
2016-08-02 07:05:04.606 n.t.s.b.CVParticleBolt [INFO] [Timing] RequestID: 0 StreamID: home_peifeng_work_data_frame_320x240_jpg SequenceNr: 121 Entering scale: 1470135904606
2016-08-02 07:05:04.607 STDERR [INFO] I0802 07:05:04.607525 31427 net.cpp:141] Setting up conv1
2016-08-02 07:05:04.608 STDERR [INFO] I0802 07:05:04.607576 31427 net.cpp:148] Top shape: 10 96 55 55 (2904000)
2016-08-02 07:05:04.608 STDERR [INFO] I0802 07:05:04.607583 31427 net.cpp:156] Memory required for data: 17799480
2016-08-02 07:05:04.608 STDERR [INFO] I0802 07:05:04.607609 31427 layer_factory.hpp:77] Creating layer relu1
2016-08-02 07:05:04.608 n.t.s.b.CVParticleBolt [INFO] [Timing] RequestID: 0 StreamID: home_peifeng_work_data_frame_320x240_jpg SequenceNr: 120 Leaving scale: 1470135904608 Size: 3530
2016-08-02 07:05:04.608 STDERR [INFO] I0802 07:05:04.607628 31427 net.cpp:91] Creating Layer relu1
2016-08-02 07:05:04.608 STDERR [INFO] I0802 07:05:04.607635 31427 net.cpp:425] relu1 <- conv1
2016-08-02 07:05:04.608 STDERR [INFO] I0802 07:05:04.607643 31427 net.cpp:386] relu1 -> conv1 (in-place)
2016-08-02 07:05:04.608 STDERR [INFO] I0802 07:05:04.608094 31427 net.cpp:141] Setting up relu1
2016-08-02 07:05:04.608 STDERR [INFO] I0802 07:05:04.608108 31427 net.cpp:148] Top shape: 10 96 55 55 (2904000)
2016-08-02 07:05:04.608 n.t.s.s.CVParticleSpout [INFO] [Timing] RequestID: 0 StreamID: home_peifeng_work_data_frame_320x240_jpg SequenceNr: 122 Leaving fetcher: 1470135904608 Size: 8702
2016-08-02 07:05:04.608 n.t.s.b.CVParticleBolt [INFO] [Timing] RequestID: 0 StreamID: home_peifeng_work_data_frame_320x240_jpg SequenceNr: 122 Entering scale: 1470135904608
2016-08-02 07:05:04.608 STDERR [INFO] I0802 07:05:04.608114 31427 net.cpp:156] Memory required for data: 29415480
2016-08-02 07:05:04.608 STDERR [INFO] I0802 07:05:04.608119 31427 layer_factory.hpp:77] Creating layer pool1
2016-08-02 07:05:04.608 STDERR [INFO] I0802 07:05:04.608131 31427 net.cpp:91] Creating Layer pool1
2016-08-02 07:05:04.608 STDERR [INFO] I0802 07:05:04.608136 31427 net.cpp:425] pool1 <- conv1
2016-08-02 07:05:04.609 STDERR [INFO] I0802 07:05:04.608144 31427 net.cpp:399] pool1 -> pool1
2016-08-02 07:05:04.609 STDERR [INFO] I0802 07:05:04.608211 31427 net.cpp:141] Setting up pool1
2016-08-02 07:05:04.609 STDERR [INFO] I0802 07:05:04.608220 31427 net.cpp:148] Top shape: 10 96 27 27 (699840)
2016-08-02 07:05:04.609 STDERR [INFO] I0802 07:05:04.608225 31427 net.cpp:156] Memory required for data: 32214840
2016-08-02 07:05:04.609 STDERR [INFO] I0802 07:05:04.608230 31427 layer_factory.hpp:77] Creating layer norm1
2016-08-02 07:05:04.609 STDERR [INFO] I0802 07:05:04.608247 31427 net.cpp:91] Creating Layer norm1
2016-08-02 07:05:04.609 STDERR [INFO] I0802 07:05:04.608253 31427 net.cpp:425] norm1 <- pool1
2016-08-02 07:05:04.609 STDERR [INFO] I0802 07:05:04.608259 31427 net.cpp:399] norm1 -> norm1
2016-08-02 07:05:04.609 STDERR [INFO] I0802 07:05:04.608726 31427 net.cpp:141] Setting up norm1
2016-08-02 07:05:04.609 STDERR [INFO] I0802 07:05:04.608739 31427 net.cpp:148] Top shape: 10 96 27 27 (699840)
2016-08-02 07:05:04.609 STDERR [INFO] I0802 07:05:04.608744 31427 net.cpp:156] Memory required for data: 35014200
2016-08-02 07:05:04.609 STDERR [INFO] I0802 07:05:04.608749 31427 layer_factory.hpp:77] Creating layer conv2
2016-08-02 07:05:04.610 STDERR [INFO] I0802 07:05:04.608767 31427 net.cpp:91] Creating Layer conv2
2016-08-02 07:05:04.610 STDERR [INFO] I0802 07:05:04.608772 31427 net.cpp:425] conv2 <- norm1
2016-08-02 07:05:04.610 STDERR [INFO] I0802 07:05:04.608778 31427 net.cpp:399] conv2 -> conv2
2016-08-02 07:05:04.610 n.t.s.b.CVParticleBolt [INFO] [Timing] RequestID: 0 StreamID: home_peifeng_work_data_frame_320x240_jpg SequenceNr: 121 Leaving scale: 1470135904610 Size: 3530
2016-08-02 07:05:04.611 n.t.s.s.CVParticleSpout [INFO] [Timing] RequestID: 0 StreamID: home_peifeng_work_data_frame_320x240_jpg SequenceNr: 123 Leaving fetcher: 1470135904611 Size: 8702
2016-08-02 07:05:04.611 n.t.s.b.CVParticleBolt [INFO] [Timing] RequestID: 0 StreamID: home_peifeng_work_data_frame_320x240_jpg SequenceNr: 123 Entering scale: 1470135904611
2016-08-02 07:05:04.612 STDERR [INFO] I0802 07:05:04.612557 31427 net.cpp:141] Setting up conv2
2016-08-02 07:05:04.612 STDERR [INFO] I0802 07:05:04.612589 31427 net.cpp:148] Top shape: 10 256 27 27 (1866240)
2016-08-02 07:05:04.612 STDERR [INFO] I0802 07:05:04.612601 31427 net.cpp:156] Memory required for data: 42479160
2016-08-02 07:05:04.613 STDERR [INFO] I0802 07:05:04.612624 31427 layer_factory.hpp:77] Creating layer relu2
2016-08-02 07:05:04.613 n.t.s.b.CVParticleBolt [INFO] [Timing] RequestID: 0 StreamID: home_peifeng_work_data_frame_320x240_jpg SequenceNr: 122 Leaving scale: 1470135904613 Size: 3530
2016-08-02 07:05:04.613 STDERR [INFO] I0802 07:05:04.612643 31427 net.cpp:91] Creating Layer relu2
2016-08-02 07:05:04.613 STDERR [INFO] I0802 07:05:04.612654 31427 net.cpp:425] relu2 <- conv2
2016-08-02 07:05:04.613 STDERR [INFO] I0802 07:05:04.612668 31427 net.cpp:386] relu2 -> conv2 (in-place)
2016-08-02 07:05:04.613 STDERR [INFO] I0802 07:05:04.613385 31427 net.cpp:141] Setting up relu2
2016-08-02 07:05:04.613 STDERR [INFO] I0802 07:05:04.613412 31427 net.cpp:148] Top shape: 10 256 27 27 (1866240)
2016-08-02 07:05:04.613 STDERR [INFO] I0802 07:05:04.613425 31427 net.cpp:156] Memory required for data: 49944120
2016-08-02 07:05:04.613 STDERR [INFO] I0802 07:05:04.613438 31427 layer_factory.hpp:77] Creating layer pool2
2016-08-02 07:05:04.614 STDERR [INFO] I0802 07:05:04.613459 31427 net.cpp:91] Creating Layer pool2
2016-08-02 07:05:04.614 STDERR [INFO] I0802 07:05:04.613471 31427 net.cpp:425] pool2 <- conv2
2016-08-02 07:05:04.614 STDERR [INFO] I0802 07:05:04.613489 31427 net.cpp:399] pool2 -> pool2
2016-08-02 07:05:04.614 STDERR [INFO] I0802 07:05:04.613596 31427 net.cpp:141] Setting up pool2
2016-08-02 07:05:04.614 STDERR [INFO] I0802 07:05:04.613620 31427 net.cpp:148] Top shape: 10 256 13 13 (432640)
2016-08-02 07:05:04.614 STDERR [INFO] I0802 07:05:04.613631 31427 net.cpp:156] Memory required for data: 51674680
2016-08-02 07:05:04.614 STDERR [INFO] I0802 07:05:04.613643 31427 layer_factory.hpp:77] Creating layer norm2
2016-08-02 07:05:04.614 STDERR [INFO] I0802 07:05:04.613665 31427 net.cpp:91] Creating Layer norm2
2016-08-02 07:05:04.614 STDERR [INFO] I0802 07:05:04.613677 31427 net.cpp:425] norm2 <- pool2
2016-08-02 07:05:04.615 STDERR [INFO] I0802 07:05:04.613693 31427 net.cpp:399] norm2 -> norm2
2016-08-02 07:05:04.615 STDERR [INFO] I0802 07:05:04.614243 31427 net.cpp:141] Setting up norm2
2016-08-02 07:05:04.615 STDERR [INFO] I0802 07:05:04.614269 31427 net.cpp:148] Top shape: 10 256 13 13 (432640)
2016-08-02 07:05:04.615 STDERR [INFO] I0802 07:05:04.614280 31427 net.cpp:156] Memory required for data: 53405240
2016-08-02 07:05:04.615 n.t.s.b.CVParticleBolt [INFO] [Timing] RequestID: 0 StreamID: home_peifeng_work_data_frame_320x240_jpg SequenceNr: 123 Leaving scale: 1470135904615 Size: 3530
2016-08-02 07:05:04.615 STDERR [INFO] I0802 07:05:04.614295 31427 layer_factory.hpp:77] Creating layer conv3
2016-08-02 07:05:04.615 STDERR [INFO] I0802 07:05:04.614320 31427 net.cpp:91] Creating Layer conv3
2016-08-02 07:05:04.615 STDERR [INFO] I0802 07:05:04.614332 31427 net.cpp:425] conv3 <- norm2
2016-08-02 07:05:04.615 STDERR [INFO] I0802 07:05:04.614351 31427 net.cpp:399] conv3 -> conv3
2016-08-02 07:05:04.619 STDERR [INFO] I0802 07:05:04.619479 31427 net.cpp:141] Setting up conv3
2016-08-02 07:05:04.619 STDERR [INFO] I0802 07:05:04.619508 31427 net.cpp:148] Top shape: 10 384 13 13 (648960)
2016-08-02 07:05:04.619 STDERR [INFO] I0802 07:05:04.619513 31427 net.cpp:156] Memory required for data: 56001080
2016-08-02 07:05:04.619 STDERR [INFO] I0802 07:05:04.619526 31427 layer_factory.hpp:77] Creating layer relu3
2016-08-02 07:05:04.620 STDERR [INFO] I0802 07:05:04.619537 31427 net.cpp:91] Creating Layer relu3
2016-08-02 07:05:04.620 STDERR [INFO] I0802 07:05:04.619542 31427 net.cpp:425] relu3 <- conv3
2016-08-02 07:05:04.620 STDERR [INFO] I0802 07:05:04.619549 31427 net.cpp:386] relu3 -> conv3 (in-place)
2016-08-02 07:05:04.620 STDERR [INFO] I0802 07:05:04.620018 31427 net.cpp:141] Setting up relu3
2016-08-02 07:05:04.620 STDERR [INFO] I0802 07:05:04.620031 31427 net.cpp:148] Top shape: 10 384 13 13 (648960)
2016-08-02 07:05:04.620 STDERR [INFO] I0802 07:05:04.620036 31427 net.cpp:156] Memory required for data: 58596920
2016-08-02 07:05:04.620 STDERR [INFO] I0802 07:05:04.620054 31427 layer_factory.hpp:77] Creating layer conv4
2016-08-02 07:05:04.620 STDERR [INFO] I0802 07:05:04.620069 31427 net.cpp:91] Creating Layer conv4
2016-08-02 07:05:04.620 STDERR [INFO] I0802 07:05:04.620074 31427 net.cpp:425] conv4 <- conv3
2016-08-02 07:05:04.620 STDERR [INFO] I0802 07:05:04.620082 31427 net.cpp:399] conv4 -> conv4
2016-08-02 07:05:04.624 STDERR [INFO] I0802 07:05:04.624198 31427 net.cpp:141] Setting up conv4
2016-08-02 07:05:04.624 STDERR [INFO] I0802 07:05:04.624220 31427 net.cpp:148] Top shape: 10 384 13 13 (648960)
2016-08-02 07:05:04.624 STDERR [INFO] I0802 07:05:04.624225 31427 net.cpp:156] Memory required for data: 61192760
2016-08-02 07:05:04.624 STDERR [INFO] I0802 07:05:04.624235 31427 layer_factory.hpp:77] Creating layer relu4
2016-08-02 07:05:04.624 STDERR [INFO] I0802 07:05:04.624243 31427 net.cpp:91] Creating Layer relu4
2016-08-02 07:05:04.624 STDERR [INFO] I0802 07:05:04.624249 31427 net.cpp:425] relu4 <- conv4
2016-08-02 07:05:04.624 STDERR [INFO] I0802 07:05:04.624258 31427 net.cpp:386] relu4 -> conv4 (in-place)
2016-08-02 07:05:04.624 STDERR [INFO] I0802 07:05:04.624707 31427 net.cpp:141] Setting up relu4
2016-08-02 07:05:04.625 STDERR [INFO] I0802 07:05:04.624719 31427 net.cpp:148] Top shape: 10 384 13 13 (648960)
2016-08-02 07:05:04.625 STDERR [INFO] I0802 07:05:04.624724 31427 net.cpp:156] Memory required for data: 63788600
2016-08-02 07:05:04.625 STDERR [INFO] I0802 07:05:04.624729 31427 layer_factory.hpp:77] Creating layer conv5
2016-08-02 07:05:04.625 STDERR [INFO] I0802 07:05:04.624742 31427 net.cpp:91] Creating Layer conv5
2016-08-02 07:05:04.625 STDERR [INFO] I0802 07:05:04.624747 31427 net.cpp:425] conv5 <- conv4
2016-08-02 07:05:04.625 STDERR [INFO] I0802 07:05:04.624755 31427 net.cpp:399] conv5 -> conv5
2016-08-02 07:05:04.628 STDERR [INFO] I0802 07:05:04.628700 31427 net.cpp:141] Setting up conv5
2016-08-02 07:05:04.628 STDERR [INFO] I0802 07:05:04.628717 31427 net.cpp:148] Top shape: 10 256 13 13 (432640)
2016-08-02 07:05:04.629 STDERR [INFO] I0802 07:05:04.628722 31427 net.cpp:156] Memory required for data: 65519160
2016-08-02 07:05:04.629 STDERR [INFO] I0802 07:05:04.628734 31427 layer_factory.hpp:77] Creating layer relu5
2016-08-02 07:05:04.629 STDERR [INFO] I0802 07:05:04.628743 31427 net.cpp:91] Creating Layer relu5
2016-08-02 07:05:04.629 STDERR [INFO] I0802 07:05:04.628748 31427 net.cpp:425] relu5 <- conv5
2016-08-02 07:05:04.629 STDERR [INFO] I0802 07:05:04.628757 31427 net.cpp:386] relu5 -> conv5 (in-place)
2016-08-02 07:05:04.629 STDERR [INFO] I0802 07:05:04.629215 31427 net.cpp:141] Setting up relu5
2016-08-02 07:05:04.629 STDERR [INFO] I0802 07:05:04.629226 31427 net.cpp:148] Top shape: 10 256 13 13 (432640)
2016-08-02 07:05:04.629 STDERR [INFO] I0802 07:05:04.629231 31427 net.cpp:156] Memory required for data: 67249720
2016-08-02 07:05:04.629 STDERR [INFO] I0802 07:05:04.629236 31427 layer_factory.hpp:77] Creating layer pool5
2016-08-02 07:05:04.629 STDERR [INFO] I0802 07:05:04.629250 31427 net.cpp:91] Creating Layer pool5
2016-08-02 07:05:04.629 STDERR [INFO] I0802 07:05:04.629254 31427 net.cpp:425] pool5 <- conv5
2016-08-02 07:05:04.629 STDERR [INFO] I0802 07:05:04.629261 31427 net.cpp:399] pool5 -> pool5
2016-08-02 07:05:04.630 STDERR [INFO] I0802 07:05:04.629323 31427 net.cpp:141] Setting up pool5
2016-08-02 07:05:04.630 STDERR [INFO] I0802 07:05:04.629331 31427 net.cpp:148] Top shape: 10 256 6 6 (92160)
2016-08-02 07:05:04.630 STDERR [INFO] I0802 07:05:04.629335 31427 net.cpp:156] Memory required for data: 67618360
2016-08-02 07:05:04.630 STDERR [INFO] I0802 07:05:04.629340 31427 layer_factory.hpp:77] Creating layer fc6
2016-08-02 07:05:04.630 STDERR [INFO] I0802 07:05:04.629353 31427 net.cpp:91] Creating Layer fc6
2016-08-02 07:05:04.630 STDERR [INFO] I0802 07:05:04.629357 31427 net.cpp:425] fc6 <- pool5
2016-08-02 07:05:04.630 STDERR [INFO] I0802 07:05:04.629367 31427 net.cpp:399] fc6 -> fc6
2016-08-02 07:05:04.727 STDERR [INFO] I0802 07:05:04.727111 31427 net.cpp:141] Setting up fc6
2016-08-02 07:05:04.727 STDERR [INFO] I0802 07:05:04.727185 31427 net.cpp:148] Top shape: 10 4096 (40960)
2016-08-02 07:05:04.727 STDERR [INFO] I0802 07:05:04.727190 31427 net.cpp:156] Memory required for data: 67782200
2016-08-02 07:05:04.727 STDERR [INFO] I0802 07:05:04.727207 31427 layer_factory.hpp:77] Creating layer relu6
2016-08-02 07:05:04.727 STDERR [INFO] I0802 07:05:04.727224 31427 net.cpp:91] Creating Layer relu6
2016-08-02 07:05:04.728 STDERR [INFO] I0802 07:05:04.727231 31427 net.cpp:425] relu6 <- fc6
2016-08-02 07:05:04.728 STDERR [INFO] I0802 07:05:04.727241 31427 net.cpp:386] relu6 -> fc6 (in-place)
2016-08-02 07:05:04.728 STDERR [INFO] I0802 07:05:04.727573 31427 net.cpp:141] Setting up relu6
2016-08-02 07:05:04.728 STDERR [INFO] I0802 07:05:04.727584 31427 net.cpp:148] Top shape: 10 4096 (40960)
2016-08-02 07:05:04.728 STDERR [INFO] I0802 07:05:04.727589 31427 net.cpp:156] Memory required for data: 67946040
2016-08-02 07:05:04.728 STDERR [INFO] I0802 07:05:04.727594 31427 layer_factory.hpp:77] Creating layer drop6
2016-08-02 07:05:04.728 STDERR [INFO] I0802 07:05:04.727617 31427 net.cpp:91] Creating Layer drop6
2016-08-02 07:05:04.728 STDERR [INFO] I0802 07:05:04.727624 31427 net.cpp:425] drop6 <- fc6
2016-08-02 07:05:04.728 STDERR [INFO] I0802 07:05:04.727632 31427 net.cpp:386] drop6 -> fc6 (in-place)
2016-08-02 07:05:04.728 STDERR [INFO] I0802 07:05:04.727679 31427 net.cpp:141] Setting up drop6
2016-08-02 07:05:04.728 STDERR [INFO] I0802 07:05:04.727689 31427 net.cpp:148] Top shape: 10 4096 (40960)
2016-08-02 07:05:04.729 STDERR [INFO] I0802 07:05:04.727692 31427 net.cpp:156] Memory required for data: 68109880
2016-08-02 07:05:04.729 STDERR [INFO] I0802 07:05:04.727697 31427 layer_factory.hpp:77] Creating layer fc7
2016-08-02 07:05:04.729 STDERR [INFO] I0802 07:05:04.727713 31427 net.cpp:91] Creating Layer fc7
2016-08-02 07:05:04.729 STDERR [INFO] I0802 07:05:04.727718 31427 net.cpp:425] fc7 <- fc6
2016-08-02 07:05:04.729 STDERR [INFO] I0802 07:05:04.727727 31427 net.cpp:399] fc7 -> fc7
2016-08-02 07:05:04.755 STDERR [INFO] I0802 07:05:04.755383 31417 net.cpp:141] Setting up embedding
2016-08-02 07:05:04.755 STDERR [INFO] I0802 07:05:04.755445 31417 net.cpp:148] Top shape: 1 1 500 (500)
2016-08-02 07:05:04.756 STDERR [INFO] I0802 07:05:04.755452 31417 net.cpp:156] Memory required for data: 22408
2016-08-02 07:05:04.756 STDERR [INFO] I0802 07:05:04.755467 31417 layer_factory.hpp:77] Creating layer lstm1
2016-08-02 07:05:04.756 STDERR [INFO] I0802 07:05:04.755484 31417 net.cpp:91] Creating Layer lstm1
2016-08-02 07:05:04.756 STDERR [INFO] I0802 07:05:04.755492 31417 net.cpp:425] lstm1 <- embedded_input_frames
…
2016-08-02 07:05:04.768 STDERR [INFO] }
2016-08-02 07:05:04.768 STDERR [INFO] I0802 07:05:04.755970 31417 layer_factory.hpp:77] Creating layer lstm1_
2016-08-02 07:05:04.768 STDERR [INFO] I0802 07:05:04.755983 31417 net.cpp:91] Creating Layer lstm1_
2016-08-02 07:05:04.768 STDERR [INFO] I0802 07:05:04.755990 31417 net.cpp:399] lstm1_ -> x
2016-08-02 07:05:04.768 STDERR [INFO] I0802 07:05:04.756001 31417 net.cpp:399] lstm1_ -> cont
2016-08-02 07:05:04.768 STDERR [INFO] I0802 07:05:04.756078 31417 net.cpp:141] Setting up lstm1_
2016-08-02 07:05:04.768 STDERR [INFO] I0802 07:05:04.756091 31417 net.cpp:148] Top shape: 1 1 500 (500)
2016-08-02 07:05:04.768 STDERR [INFO] I0802 07:05:04.756098 31417 net.cpp:148] Top shape: 1 1 (1)
2016-08-02 07:05:04.768 STDERR [INFO] I0802 07:05:04.756101 31417 net.cpp:156] Memory required for data: 2004
2016-08-02 07:05:04.768 STDERR [INFO] I0802 07:05:04.756106 31417 layer_factory.hpp:77] Creating layer lstm1_
2016-08-02 07:05:04.768 STDERR [INFO] I0802 07:05:04.756115 31417 net.cpp:91] Creating Layer lstm1_
2016-08-02 07:05:04.768 STDERR [INFO] I0802 07:05:04.756121 31417 net.cpp:399] lstm1_ -> c_0
2016-08-02 07:05:04.768 STDERR [INFO] I0802 07:05:04.756134 31417 net.cpp:399] lstm1_ -> h_0
2016-08-02 07:05:04.769 STDERR [INFO] I0802 07:05:04.756184 31417 net.cpp:141] Setting up lstm1_
2016-08-02 07:05:04.769 STDERR [INFO] I0802 07:05:04.756192 31417 net.cpp:148] Top shape: 1 1 1000 (1000)
2016-08-02 07:05:04.769 STDERR [INFO] I0802 07:05:04.756198 31417 net.cpp:148] Top shape: 1 1 1000 (1000)
2016-08-02 07:05:04.769 STDERR [INFO] I0802 07:05:04.756202 31417 net.cpp:156] Memory required for data: 10004
2016-08-02 07:05:04.769 STDERR [INFO] I0802 07:05:04.756207 31417 layer_factory.hpp:77] Creating layer lstm1_cont_slice
2016-08-02 07:05:04.769 STDERR [INFO] I0802 07:05:04.756218 31417 net.cpp:91] Creating Layer lstm1_cont_slice
2016-08-02 07:05:04.769 STDERR [INFO] I0802 07:05:04.756223 31417 net.cpp:425] lstm1_cont_slice <- cont
2016-08-02 07:05:04.769 STDERR [INFO] I0802 07:05:04.756230 31417 net.cpp:399] lstm1_cont_slice -> cont_1
2016-08-02 07:05:04.769 STDERR [INFO] I0802 07:05:04.756266 31417 net.cpp:141] Setting up lstm1_cont_slice
2016-08-02 07:05:04.769 STDERR [INFO] I0802 07:05:04.756275 31417 net.cpp:148] Top shape: 1 1 (1)
2016-08-02 07:05:04.769 STDERR [INFO] I0802 07:05:04.756279 31417 net.cpp:156] Memory required for data: 10008
2016-08-02 07:05:04.769 STDERR [INFO] I0802 07:05:04.756284 31417 layer_factory.hpp:77] Creating layer cont_1_lstm1_cont_slice_0_split
2016-08-02 07:05:04.769 STDERR [INFO] I0802 07:05:04.756291 31417 net.cpp:91] Creating Layer cont_1_lstm1_cont_slice_0_split
2016-08-02 07:05:04.769 STDERR [INFO] I0802 07:05:04.756295 31417 net.cpp:425] cont_1_lstm1_cont_slice_0_split <- cont_1
2016-08-02 07:05:04.770 STDERR [INFO] I0802 07:05:04.756304 31417 net.cpp:399] cont_1_lstm1_cont_slice_0_split -> cont_1_lstm1_cont_slice_0_split_0
2016-08-02 07:05:04.770 STDERR [INFO] I0802 07:05:04.756312 31417 net.cpp:399] cont_1_lstm1_cont_slice_0_split -> cont_1_lstm1_cont_slice_0_split_1
2016-08-02 07:05:04.770 STDERR [INFO] I0802 07:05:04.756358 31417 net.cpp:141] Setting up cont_1_lstm1_cont_slice_0_split
2016-08-02 07:05:04.770 STDERR [INFO] I0802 07:05:04.756366 31417 net.cpp:148] Top shape: 1 1 (1)
2016-08-02 07:05:04.770 STDERR [INFO] I0802 07:05:04.756371 31417 net.cpp:148] Top shape: 1 1 (1)
2016-08-02 07:05:04.770 STDERR [INFO] I0802 07:05:04.756376 31417 net.cpp:156] Memory required for data: 10016
2016-08-02 07:05:04.770 STDERR [INFO] I0802 07:05:04.756381 31417 layer_factory.hpp:77] Creating layer lstm1_x_transform
2016-08-02 07:05:04.770 STDERR [INFO] I0802 07:05:04.756392 31417 net.cpp:91] Creating Layer lstm1_x_transform
2016-08-02 07:05:04.770 STDERR [INFO] I0802 07:05:04.756397 31417 net.cpp:425] lstm1_x_transform <- x
2016-08-02 07:05:04.770 STDERR [INFO] I0802 07:05:04.756405 31417 net.cpp:399] lstm1_x_transform -> W_xc_x
2016-08-02 07:05:04.771 STDERR [INFO] I0802 07:05:04.771304 31427 net.cpp:141] Setting up fc7
2016-08-02 07:05:04.771 STDERR [INFO] I0802 07:05:04.771371 31427 net.cpp:148] Top shape: 10 4096 (40960)
2016-08-02 07:05:04.771 STDERR [INFO] I0802 07:05:04.771378 31427 net.cpp:156] Memory required for data: 68273720
2016-08-02 07:05:04.772 STDERR [INFO] I0802 07:05:04.771392 31427 layer_factory.hpp:77] Creating layer relu7
2016-08-02 07:05:04.772 STDERR [INFO] I0802 07:05:04.771409 31427 net.cpp:91] Creating Layer relu7
2016-08-02 07:05:04.772 STDERR [INFO] I0802 07:05:04.771414 31427 net.cpp:425] relu7 <- fc7
2016-08-02 07:05:04.772 STDERR [INFO] I0802 07:05:04.771423 31427 net.cpp:386] relu7 -> fc7 (in-place)
2016-08-02 07:05:04.772 STDERR [INFO] I0802 07:05:04.772214 31427 net.cpp:141] Setting up relu7
2016-08-02 07:05:04.772 STDERR [INFO] I0802 07:05:04.772228 31427 net.cpp:148] Top shape: 10 4096 (40960)
2016-08-02 07:05:04.772 STDERR [INFO] I0802 07:05:04.772233 31427 net.cpp:156] Memory required for data: 68437560
2016-08-02 07:05:04.773 STDERR [INFO] I0802 07:05:04.772238 31427 layer_factory.hpp:77] Creating layer drop7
2016-08-02 07:05:04.773 STDERR [INFO] I0802 07:05:04.772249 31427 net.cpp:91] Creating Layer drop7
2016-08-02 07:05:04.773 STDERR [INFO] I0802 07:05:04.772254 31427 net.cpp:425] drop7 <- fc7
2016-08-02 07:05:04.773 STDERR [INFO] I0802 07:05:04.772260 31427 net.cpp:386] drop7 -> fc7 (in-place)
2016-08-02 07:05:04.773 STDERR [INFO] I0802 07:05:04.772305 31427 net.cpp:141] Setting up drop7
2016-08-02 07:05:04.773 STDERR [INFO] I0802 07:05:04.772320 31427 net.cpp:148] Top shape: 10 4096 (40960)
2016-08-02 07:05:04.773 STDERR [INFO] I0802 07:05:04.772325 31427 net.cpp:156] Memory required for data: 68601400
2016-08-02 07:05:04.773 STDERR [INFO] I0802 07:05:04.772330 31427 layer_factory.hpp:77] Creating layer fc8
2016-08-02 07:05:04.774 STDERR [INFO] I0802 07:05:04.772343 31427 net.cpp:91] Creating Layer fc8
2016-08-02 07:05:04.774 STDERR [INFO] I0802 07:05:04.772348 31427 net.cpp:425] fc8 <- fc7
2016-08-02 07:05:04.774 STDERR [INFO] I0802 07:05:04.772356 31427 net.cpp:399] fc8 -> fc8
2016-08-02 07:05:04.779 STDERR [INFO] I0802 07:05:04.779825 31417 net.cpp:141] Setting up lstm1_x_transform
2016-08-02 07:05:04.780 STDERR [INFO] I0802 07:05:04.779862 31417 net.cpp:148] Top shape: 1 1 4000 (4000)
2016-08-02 07:05:04.780 STDERR [INFO] I0802 07:05:04.779868 31417 net.cpp:156] Memory required for data: 26016
2016-08-02 07:05:04.780 STDERR [INFO] I0802 07:05:04.779884 31417 layer_factory.hpp:77] Creating layer lstm1_W_xc_x_slice
2016-08-02 07:05:04.780 STDERR [INFO] I0802 07:05:04.779897 31417 net.cpp:91] Creating Layer lstm1_W_xc_x_slice
2016-08-02 07:05:04.780 STDERR [INFO] I0802 07:05:04.779903 31417 net.cpp:425] lstm1_W_xc_x_slice <- W_xc_x
2016-08-02 07:05:04.780 STDERR [INFO] I0802 07:05:04.779917 31417 net.cpp:399] lstm1_W_xc_x_slice -> W_xc_x_1
2016-08-02 07:05:04.780 STDERR [INFO] I0802 07:05:04.779955 31417 net.cpp:141] Setting up lstm1_W_xc_x_slice
2016-08-02 07:05:04.780 STDERR [INFO] I0802 07:05:04.779965 31417 net.cpp:148] Top shape: 1 1 4000 (4000)
2016-08-02 07:05:04.780 STDERR [INFO] I0802 07:05:04.779969 31417 net.cpp:156] Memory required for data: 42016
2016-08-02 07:05:04.781 STDERR [INFO] I0802 07:05:04.779973 31417 layer_factory.hpp:77] Creating layer lstm1_h_conted_0
2016-08-02 07:05:04.781 STDERR [INFO] I0802 07:05:04.779983 31417 net.cpp:91] Creating Layer lstm1_h_conted_0
2016-08-02 07:05:04.781 STDERR [INFO] I0802 07:05:04.779994 31417 net.cpp:425] lstm1_h_conted_0 <- h_0
2016-08-02 07:05:04.781 STDERR [INFO] I0802 07:05:04.780000 31417 net.cpp:425] lstm1_h_conted_0 <- cont_1_lstm1_cont_slice_0_split_0
2016-08-02 07:05:04.781 STDERR [INFO] I0802 07:05:04.780021 31417 net.cpp:399] lstm1_h_conted_0 -> h_conted_0
2016-08-02 07:05:04.781 STDERR [INFO] I0802 07:05:04.780109 31417 net.cpp:141] Setting up lstm1_h_conted_0
2016-08-02 07:05:04.781 STDERR [INFO] I0802 07:05:04.780118 31417 net.cpp:148] Top shape: 1 1 1000 (1000)
2016-08-02 07:05:04.781 STDERR [INFO] I0802 07:05:04.780122 31417 net.cpp:156] Memory required for data: 46016
2016-08-02 07:05:04.781 STDERR [INFO] I0802 07:05:04.780128 31417 layer_factory.hpp:77] Creating layer lstm1_transform_1
2016-08-02 07:05:04.781 STDERR [INFO] I0802 07:05:04.780138 31417 net.cpp:91] Creating Layer lstm1_transform_1
2016-08-02 07:05:04.781 STDERR [INFO] I0802 07:05:04.780143 31417 net.cpp:425] lstm1_transform_1 <- h_conted_0
2016-08-02 07:05:04.781 STDERR [INFO] I0802 07:05:04.780155 31417 net.cpp:399] lstm1_transform_1 -> W_hc_h_0
2016-08-02 07:05:04.788 STDERR [INFO] I0802 07:05:04.788245 31427 net.cpp:141] Setting up fc8
2016-08-02 07:05:04.788 STDERR [INFO] I0802 07:05:04.788300 31427 net.cpp:148] Top shape: 10 1000 (10000)
2016-08-02 07:05:04.788 STDERR [INFO] I0802 07:05:04.788306 31427 net.cpp:156] Memory required for data: 68641400
2016-08-02 07:05:04.788 STDERR [INFO] I0802 07:05:04.788322 31427 layer_factory.hpp:77] Creating layer prob
2016-08-02 07:05:04.789 STDERR [INFO] I0802 07:05:04.788341 31427 net.cpp:91] Creating Layer prob
2016-08-02 07:05:04.789 STDERR [INFO] I0802 07:05:04.788347 31427 net.cpp:425] prob <- fc8
2016-08-02 07:05:04.789 STDERR [INFO] I0802 07:05:04.788367 31427 net.cpp:399] prob -> prob
2016-08-02 07:05:04.789 STDERR [INFO] I0802 07:05:04.788764 31427 net.cpp:141] Setting up prob
2016-08-02 07:05:04.789 STDERR [INFO] I0802 07:05:04.788775 31427 net.cpp:148] Top shape: 10 1000 (10000)
2016-08-02 07:05:04.789 STDERR [INFO] I0802 07:05:04.788780 31427 net.cpp:156] Memory required for data: 68681400
2016-08-02 07:05:04.789 STDERR [INFO] I0802 07:05:04.788785 31427 net.cpp:219] prob does not need backward computation.
2016-08-02 07:05:04.789 STDERR [INFO] I0802 07:05:04.788790 31427 net.cpp:219] fc8 does not need backward computation.
2016-08-02 07:05:04.789 STDERR [INFO] I0802 07:05:04.788802 31427 net.cpp:219] drop7 does not need backward computation.
…
2016-08-02 07:05:04.811 n.t.s.b.CVParticleBolt [INFO] [Timing] RequestID: 0 StreamID: home_peifeng_work_data_frame_320x240_jpg SequenceNr: 127 Entering scale: 1470135904811
2016-08-02 07:05:04.815 n.t.s.b.CVParticleBolt [INFO] [Timing] RequestID: 0 StreamID: home_peifeng_work_data_frame_320x240_jpg SequenceNr: 126 Leaving scale: 1470135904815 Size: 3530
2016-08-02 07:05:04.816 n.t.s.b.CVParticleBolt [INFO] [Timing] RequestID: 0 StreamID: home_peifeng_work_data_frame_320x240_jpg SequenceNr: 127 Leaving scale: 1470135904816 Size: 3530
2016-08-02 07:05:04.818 STDERR [INFO] I0802 07:05:04.818282 31417 net.cpp:141] Setting up lstm1_transform_1
2016-08-02 07:05:04.818 STDERR [INFO] I0802 07:05:04.818325 31417 net.cpp:148] Top shape: 1 1 4000 (4000)
2016-08-02 07:05:04.818 STDERR [INFO] I0802 07:05:04.818331 31417 net.cpp:156] Memory required for data: 62016
2016-08-02 07:05:04.818 STDERR [INFO] I0802 07:05:04.818347 31417 layer_factory.hpp:77] Creating layer lstm1_gate_input_1
2016-08-02 07:05:04.819 STDERR [INFO] I0802 07:05:04.818364 31417 net.cpp:91] Creating Layer lstm1_gate_input_1
2016-08-02 07:05:04.819 STDERR [INFO] I0802 07:05:04.818372 31417 net.cpp:425] lstm1_gate_input_1 <- W_hc_h_0
2016-08-02 07:05:04.819 STDERR [INFO] I0802 07:05:04.818379 31417 net.cpp:425] lstm1_gate_input_1 <- W_xc_x_1
2016-08-02 07:05:04.819 STDERR [INFO] I0802 07:05:04.818389 31417 net.cpp:399] lstm1_gate_input_1 -> gate_input_1
2016-08-02 07:05:04.819 STDERR [INFO] I0802 07:05:04.818445 31417 net.cpp:141] Setting up lstm1_gate_input_1
2016-08-02 07:05:04.819 STDERR [INFO] I0802 07:05:04.818454 31417 net.cpp:148] Top shape: 1 1 4000 (4000)
2016-08-02 07:05:04.819 STDERR [INFO] I0802 07:05:04.818459 31417 net.cpp:156] Memory required for data: 78016
2016-08-02 07:05:04.819 STDERR [INFO] I0802 07:05:04.818464 31417 layer_factory.hpp:77] Creating layer lstm1_unit_1
2016-08-02 07:05:04.819 STDERR [INFO] I0802 07:05:04.818471 31417 net.cpp:91] Creating Layer lstm1_unit_1
2016-08-02 07:05:04.820 STDERR [INFO] I0802 07:05:04.818476 31417 net.cpp:425] lstm1_unit_1 <- c_0
2016-08-02 07:05:04.820 STDERR [INFO] I0802 07:05:04.818482 31417 net.cpp:425] lstm1_unit_1 <- gate_input_1
2016-08-02 07:05:04.820 STDERR [INFO] I0802 07:05:04.818487 31417 net.cpp:425] lstm1_unit_1 <- cont_1_lstm1_cont_slice_0_split_1
2016-08-02 07:05:04.820 STDERR [INFO] I0802 07:05:04.818495 31417 net.cpp:399] lstm1_unit_1 -> c_1
2016-08-02 07:05:04.820 STDERR [INFO] I0802 07:05:04.818506 31417 net.cpp:399] lstm1_unit_1 -> h_1
2016-08-02 07:05:04.820 STDERR [INFO] I0802 07:05:04.818567 31417 net.cpp:141] Setting up lstm1_unit_1
2016-08-02 07:05:04.820 STDERR [INFO] I0802 07:05:04.818575 31417 net.cpp:148] Top shape: 1 1 1000 (1000)
2016-08-02 07:05:04.820 STDERR [INFO] I0802 07:05:04.818581 31417 net.cpp:148] Top shape: 1 1 1000 (1000)
2016-08-02 07:05:04.820 STDERR [INFO] I0802 07:05:04.818585 31417 net.cpp:156] Memory required for data: 86016
2016-08-02 07:05:04.820 STDERR [INFO] I0802 07:05:04.818589 31417 layer_factory.hpp:77] Creating layer lstm1_
2016-08-02 07:05:04.820 STDERR [INFO] I0802 07:05:04.818598 31417 net.cpp:91] Creating Layer lstm1_
2016-08-02 07:05:04.821 STDERR [INFO] I0802 07:05:04.818603 31417 net.cpp:425] lstm1_ <- c_1
2016-08-02 07:05:04.821 STDERR [INFO] I0802 07:05:04.818609 31417 net.cpp:399] lstm1_ -> c_T
2016-08-02 07:05:04.821 STDERR [INFO] I0802 07:05:04.818641 31417 net.cpp:141] Setting up lstm1_
2016-08-02 07:05:04.821 STDERR [INFO] I0802 07:05:04.818650 31417 net.cpp:148] Top shape: 1 1 1000 (1000)
2016-08-02 07:05:04.821 STDERR [INFO] I0802 07:05:04.818655 31417 net.cpp:156] Memory required for data: 90016
2016-08-02 07:05:04.821 STDERR [INFO] I0802 07:05:04.818658 31417 layer_factory.hpp:77] Creating layer lstm1_h_concat
2016-08-02 07:05:04.821 STDERR [INFO] I0802 07:05:04.818667 31417 net.cpp:91] Creating Layer lstm1_h_concat
2016-08-02 07:05:04.821 STDERR [INFO] I0802 07:05:04.818672 31417 net.cpp:425] lstm1_h_concat <- h_1
2016-08-02 07:05:04.821 STDERR [INFO] I0802 07:05:04.818678 31417 net.cpp:399] lstm1_h_concat -> h
2016-08-02 07:05:04.821 STDERR [INFO] I0802 07:05:04.818717 31417 net.cpp:141] Setting up lstm1_h_concat
2016-08-02 07:05:04.821 STDERR [INFO] I0802 07:05:04.818727 31417 net.cpp:148] Top shape: 1 1 1000 (1000)
2016-08-02 07:05:04.821 STDERR [INFO] I0802 07:05:04.818730 31417 net.cpp:156] Memory required for data: 94016
2016-08-02 07:05:04.821 STDERR [INFO] I0802 07:05:04.818734 31417 layer_factory.hpp:77] Creating layer h_pseudoloss
2016-08-02 07:05:04.821 STDERR [INFO] I0802 07:05:04.818750 31417 net.cpp:91] Creating Layer h_pseudoloss
2016-08-02 07:05:04.822 STDERR [INFO] I0802 07:05:04.818755 31417 net.cpp:425] h_pseudoloss <- h
…
2016-08-02 07:05:04.836 STDERR [INFO] }
2016-08-02 07:05:04.836 STDERR [INFO] I0802 07:05:04.819622 31417 layer_factory.hpp:77] Creating layer lstm2_
2016-08-02 07:05:04.836 STDERR [INFO] I0802 07:05:04.819633 31417 net.cpp:91] Creating Layer lstm2_
2016-08-02 07:05:04.836 STDERR [INFO] I0802 07:05:04.819639 31417 net.cpp:399] lstm2_ -> x
2016-08-02 07:05:04.836 STDERR [INFO] I0802 07:05:04.819649 31417 net.cpp:399] lstm2_ -> cont
2016-08-02 07:05:04.836 STDERR [INFO] I0802 07:05:04.819702 31417 net.cpp:141] Setting up lstm2_
2016-08-02 07:05:04.836 STDERR [INFO] I0802 07:05:04.819711 31417 net.cpp:148] Top shape: 1 1 1501 (1501)
2016-08-02 07:05:04.836 STDERR [INFO] I0802 07:05:04.819717 31417 net.cpp:148] Top shape: 1 1 (1)
2016-08-02 07:05:04.837 STDERR [INFO] I0802 07:05:04.819721 31417 net.cpp:156] Memory required for data: 6008
2016-08-02 07:05:04.837 STDERR [INFO] I0802 07:05:04.819726 31417 layer_factory.hpp:77] Creating layer lstm2_
2016-08-02 07:05:04.837 STDERR [INFO] I0802 07:05:04.819735 31417 net.cpp:91] Creating Layer lstm2_
2016-08-02 07:05:04.837 STDERR [INFO] I0802 07:05:04.819743 31417 net.cpp:399] lstm2_ -> c_0
2016-08-02 07:05:04.837 STDERR [INFO] I0802 07:05:04.819753 31417 net.cpp:399] lstm2_ -> h_0
2016-08-02 07:05:04.837 STDERR [INFO] I0802 07:05:04.819797 31417 net.cpp:141] Setting up lstm2_
2016-08-02 07:05:04.837 STDERR [INFO] I0802 07:05:04.819805 31417 net.cpp:148] Top shape: 1 1 1000 (1000)
2016-08-02 07:05:04.837 STDERR [INFO] I0802 07:05:04.819810 31417 net.cpp:148] Top shape: 1 1 1000 (1000)
2016-08-02 07:05:04.837 STDERR [INFO] I0802 07:05:04.819814 31417 net.cpp:156] Memory required for data: 14008
2016-08-02 07:05:04.837 STDERR [INFO] I0802 07:05:04.819819 31417 layer_factory.hpp:77] Creating layer lstm2_cont_slice
2016-08-02 07:05:04.837 STDERR [INFO] I0802 07:05:04.819831 31417 net.cpp:91] Creating Layer lstm2_cont_slice
2016-08-02 07:05:04.837 STDERR [INFO] I0802 07:05:04.819836 31417 net.cpp:425] lstm2_cont_slice <- cont
2016-08-02 07:05:04.837 STDERR [INFO] I0802 07:05:04.819844 31417 net.cpp:399] lstm2_cont_slice -> cont_1
2016-08-02 07:05:04.837 STDERR [INFO] I0802 07:05:04.819875 31417 net.cpp:141] Setting up lstm2_cont_slice
2016-08-02 07:05:04.838 STDERR [INFO] I0802 07:05:04.819883 31417 net.cpp:148] Top shape: 1 1 (1)
2016-08-02 07:05:04.838 STDERR [INFO] I0802 07:05:04.819887 31417 net.cpp:156] Memory required for data: 14012
2016-08-02 07:05:04.838 STDERR [INFO] I0802 07:05:04.819891 31417 layer_factory.hpp:77] Creating layer cont_1_lstm2_cont_slice_0_split
2016-08-02 07:05:04.838 STDERR [INFO] I0802 07:05:04.819898 31417 net.cpp:91] Creating Layer cont_1_lstm2_cont_slice_0_split
2016-08-02 07:05:04.838 STDERR [INFO] I0802 07:05:04.819902 31417 net.cpp:425] cont_1_lstm2_cont_slice_0_split <- cont_1
2016-08-02 07:05:04.838 STDERR [INFO] I0802 07:05:04.819911 31417 net.cpp:399] cont_1_lstm2_cont_slice_0_split -> cont_1_lstm2_cont_slice_0_split_0
2016-08-02 07:05:04.838 STDERR [INFO] I0802 07:05:04.819919 31417 net.cpp:399] cont_1_lstm2_cont_slice_0_split -> cont_1_lstm2_cont_slice_0_split_1
2016-08-02 07:05:04.838 STDERR [INFO] I0802 07:05:04.819963 31417 net.cpp:141] Setting up cont_1_lstm2_cont_slice_0_split
2016-08-02 07:05:04.838 STDERR [INFO] I0802 07:05:04.819972 31417 net.cpp:148] Top shape: 1 1 (1)
2016-08-02 07:05:04.838 STDERR [INFO] I0802 07:05:04.819977 31417 net.cpp:148] Top shape: 1 1 (1)
2016-08-02 07:05:04.838 STDERR [INFO] I0802 07:05:04.819980 31417 net.cpp:156] Memory required for data: 14020
2016-08-02 07:05:04.838 STDERR [INFO] I0802 07:05:04.819985 31417 layer_factory.hpp:77] Creating layer lstm2_x_transform
2016-08-02 07:05:04.838 STDERR [INFO] I0802 07:05:04.819996 31417 net.cpp:91] Creating Layer lstm2_x_transform
2016-08-02 07:05:04.838 STDERR [INFO] I0802 07:05:04.820001 31417 net.cpp:425] lstm2_x_transform <- x
2016-08-02 07:05:04.839 STDERR [INFO] I0802 07:05:04.820016 31417 net.cpp:399] lstm2_x_transform -> W_xc_x
2016-08-02 07:05:04.876 STDERR [INFO] I0802 07:05:04.876332 31417 net.cpp:141] Setting up lstm2_x_transform
2016-08-02 07:05:04.876 STDERR [INFO] I0802 07:05:04.876389 31417 net.cpp:148] Top shape: 1 1 4000 (4000)
2016-08-02 07:05:04.877 STDERR [INFO] I0802 07:05:04.876396 31417 net.cpp:156] Memory required for data: 30020
2016-08-02 07:05:04.877 STDERR [INFO] I0802 07:05:04.876418 31417 layer_factory.hpp:77] Creating layer lstm2_W_xc_x_slice
2016-08-02 07:05:04.877 STDERR [INFO] I0802 07:05:04.876433 31417 net.cpp:91] Creating Layer lstm2_W_xc_x_slice
2016-08-02 07:05:04.877 STDERR [INFO] I0802 07:05:04.876440 31417 net.cpp:425] lstm2_W_xc_x_slice <- W_xc_x
2016-08-02 07:05:04.877 STDERR [INFO] I0802 07:05:04.876449 31417 net.cpp:399] lstm2_W_xc_x_slice -> W_xc_x_1
2016-08-02 07:05:04.877 STDERR [INFO] I0802 07:05:04.876492 31417 net.cpp:141] Setting up lstm2_W_xc_x_slice
2016-08-02 07:05:04.877 STDERR [INFO] I0802 07:05:04.876502 31417 net.cpp:148] Top shape: 1 1 4000 (4000)
2016-08-02 07:05:04.877 STDERR [INFO] I0802 07:05:04.876505 31417 net.cpp:156] Memory required for data: 46020
2016-08-02 07:05:04.877 STDERR [INFO] I0802 07:05:04.876510 31417 layer_factory.hpp:77] Creating layer lstm2_h_conted_0
2016-08-02 07:05:04.877 STDERR [INFO] I0802 07:05:04.876525 31417 net.cpp:91] Creating Layer lstm2_h_conted_0
2016-08-02 07:05:04.877 STDERR [INFO] I0802 07:05:04.876530 31417 net.cpp:425] lstm2_h_conted_0 <- h_0
2016-08-02 07:05:04.877 STDERR [INFO] I0802 07:05:04.876536 31417 net.cpp:425] lstm2_h_conted_0 <- cont_1_lstm2_cont_slice_0_split_0
2016-08-02 07:05:04.877 STDERR [INFO] I0802 07:05:04.876544 31417 net.cpp:399] lstm2_h_conted_0 -> h_conted_0
2016-08-02 07:05:04.877 STDERR [INFO] I0802 07:05:04.876641 31417 net.cpp:141] Setting up lstm2_h_conted_0
2016-08-02 07:05:04.878 STDERR [INFO] I0802 07:05:04.876651 31417 net.cpp:148] Top shape: 1 1 1000 (1000)
2016-08-02 07:05:04.878 STDERR [INFO] I0802 07:05:04.876654 31417 net.cpp:156] Memory required for data: 50020
2016-08-02 07:05:04.878 STDERR [INFO] I0802 07:05:04.876658 31417 layer_factory.hpp:77] Creating layer lstm2_transform_1
2016-08-02 07:05:04.878 STDERR [INFO] I0802 07:05:04.876669 31417 net.cpp:91] Creating Layer lstm2_transform_1
2016-08-02 07:05:04.878 STDERR [INFO] I0802 07:05:04.876674 31417 net.cpp:425] lstm2_transform_1 <- h_conted_0
2016-08-02 07:05:04.878 STDERR [INFO] I0802 07:05:04.876682 31417 net.cpp:399] lstm2_transform_1 -> W_hc_h_0
2016-08-02 07:05:04.914 STDERR [INFO] I0802 07:05:04.914324 31417 net.cpp:141] Setting up lstm2_transform_1
2016-08-02 07:05:04.914 STDERR [INFO] I0802 07:05:04.914383 31417 net.cpp:148] Top shape: 1 1 4000 (4000)
2016-08-02 07:05:04.914 STDERR [INFO] I0802 07:05:04.914389 31417 net.cpp:156] Memory required for data: 66020
2016-08-02 07:05:04.915 STDERR [INFO] I0802 07:05:04.914407 31417 layer_factory.hpp:77] Creating layer lstm2_gate_input_1
2016-08-02 07:05:04.915 STDERR [INFO] I0802 07:05:04.914427 31417 net.cpp:91] Creating Layer lstm2_gate_input_1
2016-08-02 07:05:04.915 STDERR [INFO] I0802 07:05:04.914434 31417 net.cpp:425] lstm2_gate_input_1 <- W_hc_h_0
2016-08-02 07:05:04.915 STDERR [INFO] I0802 07:05:04.914443 31417 net.cpp:425] lstm2_gate_input_1 <- W_xc_x_1
2016-08-02 07:05:04.915 STDERR [INFO] I0802 07:05:04.914450 31417 net.cpp:399] lstm2_gate_input_1 -> gate_input_1
2016-08-02 07:05:04.915 STDERR [INFO] I0802 07:05:04.914499 31417 net.cpp:141] Setting up lstm2_gate_input_1
2016-08-02 07:05:04.915 STDERR [INFO] I0802 07:05:04.914508 31417 net.cpp:148] Top shape: 1 1 4000 (4000)
2016-08-02 07:05:04.915 STDERR [INFO] I0802 07:05:04.914512 31417 net.cpp:156] Memory required for data: 82020
2016-08-02 07:05:04.915 STDERR [INFO] I0802 07:05:04.914516 31417 layer_factory.hpp:77] Creating layer lstm2_unit_1
2016-08-02 07:05:04.915 STDERR [INFO] I0802 07:05:04.914525 31417 net.cpp:91] Creating Layer lstm2_unit_1
2016-08-02 07:05:04.915 STDERR [INFO] I0802 07:05:04.914530 31417 net.cpp:425] lstm2_unit_1 <- c_0
2016-08-02 07:05:04.915 STDERR [INFO] I0802 07:05:04.914536 31417 net.cpp:425] lstm2_unit_1 <- gate_input_1
2016-08-02 07:05:04.915 STDERR [INFO] I0802 07:05:04.914541 31417 net.cpp:425] lstm2_unit_1 <- cont_1_lstm2_cont_slice_0_split_1
2016-08-02 07:05:04.916 STDERR [INFO] I0802 07:05:04.914547 31417 net.cpp:399] lstm2_unit_1 -> c_1
2016-08-02 07:05:04.916 STDERR [INFO] I0802 07:05:04.914556 31417 net.cpp:399] lstm2_unit_1 -> h_1
2016-08-02 07:05:04.916 STDERR [INFO] I0802 07:05:04.914616 31417 net.cpp:141] Setting up lstm2_unit_1
2016-08-02 07:05:04.916 STDERR [INFO] I0802 07:05:04.914625 31417 net.cpp:148] Top shape: 1 1 1000 (1000)
2016-08-02 07:05:04.916 STDERR [INFO] I0802 07:05:04.914630 31417 net.cpp:148] Top shape: 1 1 1000 (1000)
2016-08-02 07:05:04.916 STDERR [INFO] I0802 07:05:04.914635 31417 net.cpp:156] Memory required for data: 90020
2016-08-02 07:05:04.916 STDERR [INFO] I0802 07:05:04.914639 31417 layer_factory.hpp:77] Creating layer lstm2_
2016-08-02 07:05:04.916 STDERR [INFO] I0802 07:05:04.914649 31417 net.cpp:91] Creating Layer lstm2_
2016-08-02 07:05:04.916 STDERR [INFO] I0802 07:05:04.914654 31417 net.cpp:425] lstm2_ <- c_1
2016-08-02 07:05:04.916 STDERR [INFO] I0802 07:05:04.914661 31417 net.cpp:399] lstm2_ -> c_T
2016-08-02 07:05:04.916 STDERR [INFO] I0802 07:05:04.914691 31417 net.cpp:141] Setting up lstm2_
2016-08-02 07:05:04.916 STDERR [INFO] I0802 07:05:04.914700 31417 net.cpp:148] Top shape: 1 1 1000 (1000)
2016-08-02 07:05:04.916 STDERR [INFO] I0802 07:05:04.914703 31417 net.cpp:156] Memory required for data: 94020
2016-08-02 07:05:04.916 STDERR [INFO] I0802 07:05:04.914707 31417 layer_factory.hpp:77] Creating layer lstm2_h_concat
2016-08-02 07:05:04.916 STDERR [INFO] I0802 07:05:04.914716 31417 net.cpp:91] Creating Layer lstm2_h_concat
2016-08-02 07:05:04.917 STDERR [INFO] I0802 07:05:04.914721 31417 net.cpp:425] lstm2_h_concat <- h_1
2016-08-02 07:05:04.917 STDERR [INFO] I0802 07:05:04.914731 31417 net.cpp:399] lstm2_h_concat -> h
2016-08-02 07:05:04.917 STDERR [INFO] I0802 07:05:04.914764 31417 net.cpp:141] Setting up lstm2_h_concat
2016-08-02 07:05:04.917 STDERR [INFO] I0802 07:05:04.914772 31417 net.cpp:148] Top shape: 1 1 1000 (1000)
2016-08-02 07:05:04.917 STDERR [INFO] I0802 07:05:04.914777 31417 net.cpp:156] Memory required for data: 98020
2016-08-02 07:05:04.917 STDERR [INFO] I0802 07:05:04.914780 31417 layer_factory.hpp:77] Creating layer h_pseudoloss
2016-08-02 07:05:04.917 STDERR [INFO] I0802 07:05:04.914789 31417 net.cpp:91] Creating Layer h_pseudoloss
2016-08-02 07:05:04.917 STDERR [INFO] I0802 07:05:04.914794 31417 net.cpp:425] h_pseudoloss <- h
…
