…
2016-08-02 20:59:50.817 n.t.s.b.CVParticleBolt [INFO] [Timing] RequestID: 0 StreamID: home_lvnguyen_work_data_frame_320x240_jpg SequenceNr: 218 Leaving scale: 1470185990817 Size: 3531
2016-08-02 20:59:50.817 n.t.s.b.CVParticleBolt [INFO] [Timing] RequestID: 0 StreamID: home_lvnguyen_work_data_frame_320x240_jpg SequenceNr: 219 Entering scale: 1470185990817
2016-08-02 20:59:50.825 n.t.s.b.CVParticleBolt [INFO] [Timing] RequestID: 0 StreamID: home_lvnguyen_work_data_frame_320x240_jpg SequenceNr: 219 Leaving scale: 1470185990825 Size: 3531
2016-08-02 20:59:50.931 STDERR [INFO] I0802 20:59:50.931582 11506 net.cpp:141] Setting up data
2016-08-02 20:59:50.932 STDERR [INFO] I0802 20:59:50.931661 11506 net.cpp:148] Top shape: 10 3 227 227 (1545870)
2016-08-02 20:59:50.932 STDERR [INFO] I0802 20:59:50.931669 11506 net.cpp:156] Memory required for data: 6183480
2016-08-02 20:59:50.932 STDERR [INFO] I0802 20:59:50.931675 11496 net.cpp:141] Setting up input
2016-08-02 20:59:50.932 STDERR [INFO] I0802 20:59:50.931694 11506 layer_factory.hpp:77] Creating layer conv1
2016-08-02 20:59:50.932 STDERR [INFO] I0802 20:59:50.931697 11496 net.cpp:148] Top shape: 1 4096 (4096)
2016-08-02 20:59:50.932 STDERR [INFO] I0802 20:59:50.931706 11496 net.cpp:148] Top shape: 1 1 (1)
2016-08-02 20:59:50.933 STDERR [INFO] I0802 20:59:50.931712 11496 net.cpp:148] Top shape: 1 1 (1)
2016-08-02 20:59:50.933 STDERR [INFO] I0802 20:59:50.931720 11496 net.cpp:148] Top shape: 1 1 (1)
2016-08-02 20:59:50.933 STDERR [INFO] I0802 20:59:50.931723 11496 net.cpp:156] Memory required for data: 16396
2016-08-02 20:59:50.933 STDERR [INFO] I0802 20:59:50.931730 11506 net.cpp:91] Creating Layer conv1
2016-08-02 20:59:50.933 STDERR [INFO] I0802 20:59:50.931730 11496 layer_factory.hpp:77] Creating layer cont_sentence_input_1_split
2016-08-02 20:59:50.933 STDERR [INFO] I0802 20:59:50.931746 11506 net.cpp:425] conv1 <- data
2016-08-02 20:59:50.933 STDERR [INFO] I0802 20:59:50.931763 11506 net.cpp:399] conv1 -> conv1
2016-08-02 20:59:50.933 STDERR [INFO] I0802 20:59:50.931769 11496 net.cpp:91] Creating Layer cont_sentence_input_1_split
2016-08-02 20:59:50.933 STDERR [INFO] I0802 20:59:50.931777 11496 net.cpp:425] cont_sentence_input_1_split <- cont_sentence
2016-08-02 20:59:50.933 STDERR [INFO] I0802 20:59:50.931802 11496 net.cpp:399] cont_sentence_input_1_split -> cont_sentence_input_1_split_0
2016-08-02 20:59:50.933 STDERR [INFO] I0802 20:59:50.931818 11496 net.cpp:399] cont_sentence_input_1_split -> cont_sentence_input_1_split_1
2016-08-02 20:59:50.934 STDERR [INFO] I0802 20:59:50.931908 11496 net.cpp:141] Setting up cont_sentence_input_1_split
2016-08-02 20:59:50.934 STDERR [INFO] I0802 20:59:50.931921 11496 net.cpp:148] Top shape: 1 1 (1)
2016-08-02 20:59:50.934 STDERR [INFO] I0802 20:59:50.931927 11496 net.cpp:148] Top shape: 1 1 (1)
2016-08-02 20:59:50.934 STDERR [INFO] I0802 20:59:50.931931 11496 net.cpp:156] Memory required for data: 16404
2016-08-02 20:59:50.934 STDERR [INFO] I0802 20:59:50.931937 11496 layer_factory.hpp:77] Creating layer embed_encoder
2016-08-02 20:59:50.934 STDERR [INFO] I0802 20:59:50.931962 11496 net.cpp:91] Creating Layer embed_encoder
2016-08-02 20:59:50.934 STDERR [INFO] I0802 20:59:50.931968 11496 net.cpp:425] embed_encoder <- frames_fc7
2016-08-02 20:59:50.934 STDERR [INFO] I0802 20:59:50.931977 11496 net.cpp:399] embed_encoder -> embedded_in_frames
2016-08-02 20:59:50.956 STDERR [INFO] I0802 20:59:50.956307 11496 net.cpp:141] Setting up embed_encoder
2016-08-02 20:59:50.957 STDERR [INFO] I0802 20:59:50.956362 11496 net.cpp:148] Top shape: 1 500 (500)
2016-08-02 20:59:50.957 STDERR [INFO] I0802 20:59:50.956368 11496 net.cpp:156] Memory required for data: 18404
2016-08-02 20:59:50.957 STDERR [INFO] I0802 20:59:50.956398 11496 layer_factory.hpp:77] Creating layer reshape_frames
2016-08-02 20:59:50.957 STDERR [INFO] I0802 20:59:50.956429 11496 net.cpp:91] Creating Layer reshape_frames
2016-08-02 20:59:50.957 STDERR [INFO] I0802 20:59:50.956439 11496 net.cpp:425] reshape_frames <- embedded_in_frames
2016-08-02 20:59:50.957 STDERR [INFO] I0802 20:59:50.956450 11496 net.cpp:399] reshape_frames -> embedded_input_frames
2016-08-02 20:59:50.959 STDERR [INFO] I0802 20:59:50.959367 11496 net.cpp:141] Setting up reshape_frames
2016-08-02 20:59:50.959 STDERR [INFO] I0802 20:59:50.959388 11496 net.cpp:148] Top shape: 1 1 500 (500)
2016-08-02 20:59:50.959 STDERR [INFO] I0802 20:59:50.959394 11496 net.cpp:156] Memory required for data: 20404
2016-08-02 20:59:50.959 STDERR [INFO] I0802 20:59:50.959400 11496 layer_factory.hpp:77] Creating layer reshape_stage_indicator
2016-08-02 20:59:50.959 STDERR [INFO] I0802 20:59:50.959422 11496 net.cpp:91] Creating Layer reshape_stage_indicator
2016-08-02 20:59:50.960 STDERR [INFO] I0802 20:59:50.959429 11496 net.cpp:425] reshape_stage_indicator <- stage_indicator
2016-08-02 20:59:50.960 STDERR [INFO] I0802 20:59:50.959439 11496 net.cpp:399] reshape_stage_indicator -> reshaped_stage_indicator
2016-08-02 20:59:50.963 STDERR [INFO] I0802 20:59:50.963191 11496 net.cpp:141] Setting up reshape_stage_indicator
2016-08-02 20:59:50.964 STDERR [INFO] I0802 20:59:50.963213 11496 net.cpp:148] Top shape: 1 1 1 (1)
2016-08-02 20:59:50.964 STDERR [INFO] I0802 20:59:50.963219 11496 net.cpp:156] Memory required for data: 20408
2016-08-02 20:59:50.964 STDERR [INFO] I0802 20:59:50.963225 11496 layer_factory.hpp:77] Creating layer embedding
2016-08-02 20:59:50.964 STDERR [INFO] I0802 20:59:50.963245 11496 net.cpp:91] Creating Layer embedding
2016-08-02 20:59:50.964 STDERR [INFO] I0802 20:59:50.963253 11496 net.cpp:425] embedding <- input_sentence
…
2016-08-02 20:59:51.203 n.t.s.f.RefreshingImageFetcher$ImageReader [INFO] [Timing] RequestID: 0 StreamID: home_lvnguyen_work_data_frame_320x240_jpg SequenceNr: 227 Entering queue: 1470185991203
2016-08-02 20:59:51.206 n.t.s.s.CVParticleSpout [INFO] [Timing] RequestID: 0 StreamID: home_lvnguyen_work_data_frame_320x240_jpg SequenceNr: 224 Leaving fetcher: 1470185991206 Size: 8703
2016-08-02 20:59:51.206 n.t.s.b.CVParticleBolt [INFO] [Timing] RequestID: 0 StreamID: home_lvnguyen_work_data_frame_320x240_jpg SequenceNr: 224 Entering scale: 1470185991206
2016-08-02 20:59:51.208 STDERR [INFO] I0802 20:59:51.207974 11506 net.cpp:141] Setting up conv1
2016-08-02 20:59:51.208 STDERR [INFO] I0802 20:59:51.208024 11506 net.cpp:148] Top shape: 10 96 55 55 (2904000)
2016-08-02 20:59:51.208 STDERR [INFO] I0802 20:59:51.208032 11506 net.cpp:156] Memory required for data: 17799480
2016-08-02 20:59:51.208 n.t.s.s.CVParticleSpout [INFO] [Timing] RequestID: 0 StreamID: home_lvnguyen_work_data_frame_320x240_jpg SequenceNr: 225 Leaving fetcher: 1470185991208 Size: 8703
2016-08-02 20:59:51.208 STDERR [INFO] I0802 20:59:51.208060 11506 layer_factory.hpp:77] Creating layer relu1
2016-08-02 20:59:51.208 STDERR [INFO] I0802 20:59:51.208081 11506 net.cpp:91] Creating Layer relu1
2016-08-02 20:59:51.209 STDERR [INFO] I0802 20:59:51.208088 11506 net.cpp:425] relu1 <- conv1
2016-08-02 20:59:51.209 STDERR [INFO] I0802 20:59:51.208097 11506 net.cpp:386] relu1 -> conv1 (in-place)
2016-08-02 20:59:51.209 n.t.s.b.CVParticleBolt [INFO] [Timing] RequestID: 0 StreamID: home_lvnguyen_work_data_frame_320x240_jpg SequenceNr: 225 Entering scale: 1470185991208
2016-08-02 20:59:51.209 STDERR [INFO] I0802 20:59:51.208545 11506 net.cpp:141] Setting up relu1
2016-08-02 20:59:51.209 STDERR [INFO] I0802 20:59:51.208562 11506 net.cpp:148] Top shape: 10 96 55 55 (2904000)
2016-08-02 20:59:51.209 STDERR [INFO] I0802 20:59:51.208569 11506 net.cpp:156] Memory required for data: 29415480
2016-08-02 20:59:51.209 STDERR [INFO] I0802 20:59:51.208573 11506 layer_factory.hpp:77] Creating layer pool1
2016-08-02 20:59:51.209 STDERR [INFO] I0802 20:59:51.208587 11506 net.cpp:91] Creating Layer pool1
2016-08-02 20:59:51.210 STDERR [INFO] I0802 20:59:51.208593 11506 net.cpp:425] pool1 <- conv1
2016-08-02 20:59:51.210 STDERR [INFO] I0802 20:59:51.208601 11506 net.cpp:399] pool1 -> pool1
2016-08-02 20:59:51.210 STDERR [INFO] I0802 20:59:51.209306 11506 net.cpp:141] Setting up pool1
2016-08-02 20:59:51.210 STDERR [INFO] I0802 20:59:51.209329 11506 net.cpp:148] Top shape: 10 96 27 27 (699840)
2016-08-02 20:59:51.210 STDERR [INFO] I0802 20:59:51.209336 11506 net.cpp:156] Memory required for data: 32214840
2016-08-02 20:59:51.210 STDERR [INFO] I0802 20:59:51.209342 11506 layer_factory.hpp:77] Creating layer norm1
2016-08-02 20:59:51.210 STDERR [INFO] I0802 20:59:51.209368 11506 net.cpp:91] Creating Layer norm1
2016-08-02 20:59:51.210 STDERR [INFO] I0802 20:59:51.209375 11506 net.cpp:425] norm1 <- pool1
2016-08-02 20:59:51.211 STDERR [INFO] I0802 20:59:51.209385 11506 net.cpp:399] norm1 -> norm1
2016-08-02 20:59:51.211 STDERR [INFO] I0802 20:59:51.209935 11506 net.cpp:141] Setting up norm1
2016-08-02 20:59:51.211 n.t.s.s.CVParticleSpout [INFO] [Timing] RequestID: 0 StreamID: home_lvnguyen_work_data_frame_320x240_jpg SequenceNr: 226 Leaving fetcher: 1470185991211 Size: 8703
2016-08-02 20:59:51.211 STDERR [INFO] I0802 20:59:51.209950 11506 net.cpp:148] Top shape: 10 96 27 27 (699840)
2016-08-02 20:59:51.211 n.t.s.b.CVParticleBolt [INFO] [Timing] RequestID: 0 StreamID: home_lvnguyen_work_data_frame_320x240_jpg SequenceNr: 224 Leaving scale: 1470185991211 Size: 3531
2016-08-02 20:59:51.211 STDERR [INFO] I0802 20:59:51.209956 11506 net.cpp:156] Memory required for data: 35014200
2016-08-02 20:59:51.211 STDERR [INFO] I0802 20:59:51.209961 11506 layer_factory.hpp:77] Creating layer conv2
2016-08-02 20:59:51.211 STDERR [INFO] I0802 20:59:51.209981 11506 net.cpp:91] Creating Layer conv2
2016-08-02 20:59:51.211 STDERR [INFO] I0802 20:59:51.209990 11506 net.cpp:425] conv2 <- norm1
2016-08-02 20:59:51.212 n.t.s.b.CVParticleBolt [INFO] [Timing] RequestID: 0 StreamID: home_lvnguyen_work_data_frame_320x240_jpg SequenceNr: 226 Entering scale: 1470185991212
2016-08-02 20:59:51.212 STDERR [INFO] I0802 20:59:51.209998 11506 net.cpp:399] conv2 -> conv2
2016-08-02 20:59:51.213 STDERR [INFO] I0802 20:59:51.213429 11506 net.cpp:141] Setting up conv2
2016-08-02 20:59:51.213 STDERR [INFO] I0802 20:59:51.213459 11506 net.cpp:148] Top shape: 10 256 27 27 (1866240)
2016-08-02 20:59:51.213 STDERR [INFO] I0802 20:59:51.213464 11506 net.cpp:156] Memory required for data: 42479160
2016-08-02 20:59:51.214 STDERR [INFO] I0802 20:59:51.213481 11506 layer_factory.hpp:77] Creating layer relu2
2016-08-02 20:59:51.214 n.t.s.b.CVParticleBolt [INFO] [Timing] RequestID: 0 StreamID: home_lvnguyen_work_data_frame_320x240_jpg SequenceNr: 227 Entering scale: 1470185991214
2016-08-02 20:59:51.214 STDERR [INFO] I0802 20:59:51.213495 11506 net.cpp:91] Creating Layer relu2
2016-08-02 20:59:51.214 n.t.s.s.CVParticleSpout [INFO] [Timing] RequestID: 0 StreamID: home_lvnguyen_work_data_frame_320x240_jpg SequenceNr: 227 Leaving fetcher: 1470185991214 Size: 8703
2016-08-02 20:59:51.214 STDERR [INFO] I0802 20:59:51.213501 11506 net.cpp:425] relu2 <- conv2
2016-08-02 20:59:51.214 STDERR [INFO] I0802 20:59:51.213512 11506 net.cpp:386] relu2 -> conv2 (in-place)
2016-08-02 20:59:51.214 STDERR [INFO] I0802 20:59:51.213956 11506 net.cpp:141] Setting up relu2
2016-08-02 20:59:51.214 STDERR [INFO] I0802 20:59:51.213970 11506 net.cpp:148] Top shape: 10 256 27 27 (1866240)
2016-08-02 20:59:51.215 STDERR [INFO] I0802 20:59:51.213975 11506 net.cpp:156] Memory required for data: 49944120
2016-08-02 20:59:51.215 STDERR [INFO] I0802 20:59:51.213980 11506 layer_factory.hpp:77] Creating layer pool2
2016-08-02 20:59:51.215 STDERR [INFO] I0802 20:59:51.213994 11506 net.cpp:91] Creating Layer pool2
2016-08-02 20:59:51.215 STDERR [INFO] I0802 20:59:51.214000 11506 net.cpp:425] pool2 <- conv2
2016-08-02 20:59:51.215 STDERR [INFO] I0802 20:59:51.214007 11506 net.cpp:399] pool2 -> pool2
2016-08-02 20:59:51.215 STDERR [INFO] I0802 20:59:51.214073 11506 net.cpp:141] Setting up pool2
2016-08-02 20:59:51.215 STDERR [INFO] I0802 20:59:51.214084 11506 net.cpp:148] Top shape: 10 256 13 13 (432640)
2016-08-02 20:59:51.215 STDERR [INFO] I0802 20:59:51.214088 11506 net.cpp:156] Memory required for data: 51674680
2016-08-02 20:59:51.216 STDERR [INFO] I0802 20:59:51.214094 11506 layer_factory.hpp:77] Creating layer norm2
2016-08-02 20:59:51.216 STDERR [INFO] I0802 20:59:51.214107 11506 net.cpp:91] Creating Layer norm2
2016-08-02 20:59:51.216 STDERR [INFO] I0802 20:59:51.214112 11506 net.cpp:425] norm2 <- pool2
2016-08-02 20:59:51.216 n.t.s.b.CVParticleBolt [INFO] [Timing] RequestID: 0 StreamID: home_lvnguyen_work_data_frame_320x240_jpg SequenceNr: 225 Leaving scale: 1470185991216 Size: 3531
2016-08-02 20:59:51.216 STDERR [INFO] I0802 20:59:51.214120 11506 net.cpp:399] norm2 -> norm2
2016-08-02 20:59:51.216 STDERR [INFO] I0802 20:59:51.214375 11496 net.cpp:141] Setting up embedding
2016-08-02 20:59:51.216 STDERR [INFO] I0802 20:59:51.214401 11496 net.cpp:148] Top shape: 1 1 500 (500)
2016-08-02 20:59:51.216 STDERR [INFO] I0802 20:59:51.214412 11496 net.cpp:156] Memory required for data: 22408
2016-08-02 20:59:51.216 STDERR [INFO] I0802 20:59:51.214432 11496 layer_factory.hpp:77] Creating layer lstm1
2016-08-02 20:59:51.217 n.t.s.b.CVParticleBolt [INFO] [Timing] RequestID: 0 StreamID: home_lvnguyen_work_data_frame_320x240_jpg SequenceNr: 226 Leaving scale: 1470185991217 Size: 3531
2016-08-02 20:59:51.217 STDERR [INFO] I0802 20:59:51.214471 11496 net.cpp:91] Creating Layer lstm1
2016-08-02 20:59:51.217 STDERR [INFO] I0802 20:59:51.214488 11496 net.cpp:425] lstm1 <- embedded_input_frames
2016-08-02 20:59:51.217 STDERR [INFO] I0802 20:59:51.214495 11506 net.cpp:141] Setting up norm2
2016-08-02 20:59:51.217 STDERR [INFO] I0802 20:59:51.214500 11496 net.cpp:425] lstm1 <- cont_sentence_input_1_split_0
2016-08-02 20:59:51.217 STDERR [INFO] I0802 20:59:51.214512 11506 net.cpp:148] Top shape: 10 256 13 13 (432640)
2016-08-02 20:59:51.217 STDERR [INFO] I0802 20:59:51.214519 11506 net.cpp:156] Memory required for data: 53405240
2016-08-02 20:59:51.217 STDERR [INFO] I0802 20:59:51.214524 11506 layer_factory.hpp:77] Creating layer conv3
2016-08-02 20:59:51.217 STDERR [INFO] I0802 20:59:51.214522 11496 net.cpp:399] lstm1 -> lstm1
2016-08-02 20:59:51.217 STDERR [INFO] I0802 20:59:51.214540 11506 net.cpp:91] Creating Layer conv3
…
2016-08-02 20:59:51.231 STDERR [INFO] }
2016-08-02 20:59:51.231 STDERR [INFO] I0802 20:59:51.216598 11496 layer_factory.hpp:77] Creating layer lstm1_
2016-08-02 20:59:51.231 STDERR [INFO] I0802 20:59:51.216619 11496 net.cpp:91] Creating Layer lstm1_
2016-08-02 20:59:51.231 STDERR [INFO] I0802 20:59:51.216632 11496 net.cpp:399] lstm1_ -> x
2016-08-02 20:59:51.231 STDERR [INFO] I0802 20:59:51.216653 11496 net.cpp:399] lstm1_ -> cont
2016-08-02 20:59:51.231 STDERR [INFO] I0802 20:59:51.216776 11496 net.cpp:141] Setting up lstm1_
2016-08-02 20:59:51.231 STDERR [INFO] I0802 20:59:51.216794 11496 net.cpp:148] Top shape: 1 1 500 (500)
2016-08-02 20:59:51.231 STDERR [INFO] I0802 20:59:51.216806 11496 net.cpp:148] Top shape: 1 1 (1)
2016-08-02 20:59:51.232 STDERR [INFO] I0802 20:59:51.216814 11496 net.cpp:156] Memory required for data: 2004
2016-08-02 20:59:51.232 STDERR [INFO] I0802 20:59:51.216823 11496 layer_factory.hpp:77] Creating layer lstm1_
2016-08-02 20:59:51.232 STDERR [INFO] I0802 20:59:51.216837 11496 net.cpp:91] Creating Layer lstm1_
2016-08-02 20:59:51.232 STDERR [INFO] I0802 20:59:51.216852 11496 net.cpp:399] lstm1_ -> c_0
2016-08-02 20:59:51.232 STDERR [INFO] I0802 20:59:51.216871 11496 net.cpp:399] lstm1_ -> h_0
2016-08-02 20:59:51.232 STDERR [INFO] I0802 20:59:51.216954 11496 net.cpp:141] Setting up lstm1_
2016-08-02 20:59:51.232 STDERR [INFO] I0802 20:59:51.216974 11496 net.cpp:148] Top shape: 1 1 1000 (1000)
2016-08-02 20:59:51.232 STDERR [INFO] I0802 20:59:51.216985 11496 net.cpp:148] Top shape: 1 1 1000 (1000)
2016-08-02 20:59:51.232 STDERR [INFO] I0802 20:59:51.216992 11496 net.cpp:156] Memory required for data: 10004
2016-08-02 20:59:51.232 STDERR [INFO] I0802 20:59:51.217000 11496 layer_factory.hpp:77] Creating layer lstm1_cont_slice
2016-08-02 20:59:51.232 STDERR [INFO] I0802 20:59:51.217015 11496 net.cpp:91] Creating Layer lstm1_cont_slice
2016-08-02 20:59:51.233 STDERR [INFO] I0802 20:59:51.217023 11496 net.cpp:425] lstm1_cont_slice <- cont
2016-08-02 20:59:51.233 STDERR [INFO] I0802 20:59:51.217036 11496 net.cpp:399] lstm1_cont_slice -> cont_1
2016-08-02 20:59:51.233 STDERR [INFO] I0802 20:59:51.217100 11496 net.cpp:141] Setting up lstm1_cont_slice
2016-08-02 20:59:51.233 STDERR [INFO] I0802 20:59:51.217118 11496 net.cpp:148] Top shape: 1 1 (1)
2016-08-02 20:59:51.233 STDERR [INFO] I0802 20:59:51.217125 11496 net.cpp:156] Memory required for data: 10008
2016-08-02 20:59:51.233 STDERR [INFO] I0802 20:59:51.217134 11496 layer_factory.hpp:77] Creating layer cont_1_lstm1_cont_slice_0_split
2016-08-02 20:59:51.233 STDERR [INFO] I0802 20:59:51.217150 11496 net.cpp:91] Creating Layer cont_1_lstm1_cont_slice_0_split
2016-08-02 20:59:51.233 STDERR [INFO] I0802 20:59:51.217159 11496 net.cpp:425] cont_1_lstm1_cont_slice_0_split <- cont_1
2016-08-02 20:59:51.233 STDERR [INFO] I0802 20:59:51.217171 11496 net.cpp:399] cont_1_lstm1_cont_slice_0_split -> cont_1_lstm1_cont_slice_0_split_0
2016-08-02 20:59:51.233 STDERR [INFO] I0802 20:59:51.217186 11496 net.cpp:399] cont_1_lstm1_cont_slice_0_split -> cont_1_lstm1_cont_slice_0_split_1
2016-08-02 20:59:51.234 STDERR [INFO] I0802 20:59:51.217277 11496 net.cpp:141] Setting up cont_1_lstm1_cont_slice_0_split
2016-08-02 20:59:51.234 STDERR [INFO] I0802 20:59:51.217293 11496 net.cpp:148] Top shape: 1 1 (1)
2016-08-02 20:59:51.234 STDERR [INFO] I0802 20:59:51.217303 11496 net.cpp:148] Top shape: 1 1 (1)
2016-08-02 20:59:51.234 STDERR [INFO] I0802 20:59:51.217310 11496 net.cpp:156] Memory required for data: 10016
2016-08-02 20:59:51.234 STDERR [INFO] I0802 20:59:51.217319 11496 layer_factory.hpp:77] Creating layer lstm1_x_transform
2016-08-02 20:59:51.234 STDERR [INFO] I0802 20:59:51.217336 11496 net.cpp:91] Creating Layer lstm1_x_transform
2016-08-02 20:59:51.234 STDERR [INFO] I0802 20:59:51.217344 11496 net.cpp:425] lstm1_x_transform <- x
2016-08-02 20:59:51.234 STDERR [INFO] I0802 20:59:51.217363 11496 net.cpp:399] lstm1_x_transform -> W_xc_x
2016-08-02 20:59:51.234 STDERR [INFO] I0802 20:59:51.224099 11506 net.cpp:141] Setting up conv3
2016-08-02 20:59:51.235 STDERR [INFO] I0802 20:59:51.224159 11506 net.cpp:148] Top shape: 10 384 13 13 (648960)
2016-08-02 20:59:51.235 STDERR [INFO] I0802 20:59:51.224166 11506 net.cpp:156] Memory required for data: 56001080
2016-08-02 20:59:51.235 STDERR [INFO] I0802 20:59:51.224190 11506 layer_factory.hpp:77] Creating layer relu3
2016-08-02 20:59:51.235 STDERR [INFO] I0802 20:59:51.224212 11506 net.cpp:91] Creating Layer relu3
2016-08-02 20:59:51.235 STDERR [INFO] I0802 20:59:51.224220 11506 net.cpp:425] relu3 <- conv3
2016-08-02 20:59:51.235 STDERR [INFO] I0802 20:59:51.224230 11506 net.cpp:386] relu3 -> conv3 (in-place)
2016-08-02 20:59:51.235 STDERR [INFO] I0802 20:59:51.224681 11506 net.cpp:141] Setting up relu3
2016-08-02 20:59:51.235 STDERR [INFO] I0802 20:59:51.224695 11506 net.cpp:148] Top shape: 10 384 13 13 (648960)
2016-08-02 20:59:51.235 STDERR [INFO] I0802 20:59:51.224701 11506 net.cpp:156] Memory required for data: 58596920
2016-08-02 20:59:51.235 STDERR [INFO] I0802 20:59:51.224707 11506 layer_factory.hpp:77] Creating layer conv4
2016-08-02 20:59:51.235 STDERR [INFO] I0802 20:59:51.224726 11506 net.cpp:91] Creating Layer conv4
2016-08-02 20:59:51.235 STDERR [INFO] I0802 20:59:51.224732 11506 net.cpp:425] conv4 <- conv3
2016-08-02 20:59:51.236 STDERR [INFO] I0802 20:59:51.224740 11506 net.cpp:399] conv4 -> conv4
2016-08-02 20:59:51.236 STDERR [INFO] I0802 20:59:51.229104 11506 net.cpp:141] Setting up conv4
2016-08-02 20:59:51.236 STDERR [INFO] I0802 20:59:51.229133 11506 net.cpp:148] Top shape: 10 384 13 13 (648960)
2016-08-02 20:59:51.236 STDERR [INFO] I0802 20:59:51.229140 11506 net.cpp:156] Memory required for data: 61192760
2016-08-02 20:59:51.236 STDERR [INFO] I0802 20:59:51.229151 11506 layer_factory.hpp:77] Creating layer relu4
2016-08-02 20:59:51.236 STDERR [INFO] I0802 20:59:51.229166 11506 net.cpp:91] Creating Layer relu4
2016-08-02 20:59:51.236 STDERR [INFO] I0802 20:59:51.229171 11506 net.cpp:425] relu4 <- conv4
2016-08-02 20:59:51.236 STDERR [INFO] I0802 20:59:51.229179 11506 net.cpp:386] relu4 -> conv4 (in-place)
2016-08-02 20:59:51.236 STDERR [INFO] I0802 20:59:51.229619 11506 net.cpp:141] Setting up relu4
2016-08-02 20:59:51.236 STDERR [INFO] I0802 20:59:51.229636 11506 net.cpp:148] Top shape: 10 384 13 13 (648960)
2016-08-02 20:59:51.236 STDERR [INFO] I0802 20:59:51.229641 11506 net.cpp:156] Memory required for data: 63788600
2016-08-02 20:59:51.236 STDERR [INFO] I0802 20:59:51.229647 11506 layer_factory.hpp:77] Creating layer conv5
2016-08-02 20:59:51.237 STDERR [INFO] I0802 20:59:51.229661 11506 net.cpp:91] Creating Layer conv5
2016-08-02 20:59:51.237 STDERR [INFO] I0802 20:59:51.229667 11506 net.cpp:425] conv5 <- conv4
2016-08-02 20:59:51.237 STDERR [INFO] I0802 20:59:51.229678 11506 net.cpp:399] conv5 -> conv5
2016-08-02 20:59:51.237 STDERR [INFO] I0802 20:59:51.233652 11506 net.cpp:141] Setting up conv5
2016-08-02 20:59:51.237 STDERR [INFO] I0802 20:59:51.233676 11506 net.cpp:148] Top shape: 10 256 13 13 (432640)
2016-08-02 20:59:51.238 STDERR [INFO] I0802 20:59:51.233682 11506 net.cpp:156] Memory required for data: 65519160
2016-08-02 20:59:51.238 STDERR [INFO] I0802 20:59:51.233700 11506 layer_factory.hpp:77] Creating layer relu5
2016-08-02 20:59:51.238 STDERR [INFO] I0802 20:59:51.233711 11506 net.cpp:91] Creating Layer relu5
2016-08-02 20:59:51.238 STDERR [INFO] I0802 20:59:51.233716 11506 net.cpp:425] relu5 <- conv5
2016-08-02 20:59:51.238 STDERR [INFO] I0802 20:59:51.233727 11506 net.cpp:386] relu5 -> conv5 (in-place)
2016-08-02 20:59:51.238 STDERR [INFO] I0802 20:59:51.234174 11506 net.cpp:141] Setting up relu5
2016-08-02 20:59:51.238 STDERR [INFO] I0802 20:59:51.234187 11506 net.cpp:148] Top shape: 10 256 13 13 (432640)
2016-08-02 20:59:51.238 STDERR [INFO] I0802 20:59:51.234192 11506 net.cpp:156] Memory required for data: 67249720
2016-08-02 20:59:51.238 STDERR [INFO] I0802 20:59:51.234199 11506 layer_factory.hpp:77] Creating layer pool5
2016-08-02 20:59:51.238 STDERR [INFO] I0802 20:59:51.234215 11506 net.cpp:91] Creating Layer pool5
2016-08-02 20:59:51.238 STDERR [INFO] I0802 20:59:51.234220 11506 net.cpp:425] pool5 <- conv5
2016-08-02 20:59:51.238 STDERR [INFO] I0802 20:59:51.234227 11506 net.cpp:399] pool5 -> pool5
2016-08-02 20:59:51.239 STDERR [INFO] I0802 20:59:51.234299 11506 net.cpp:141] Setting up pool5
2016-08-02 20:59:51.239 STDERR [INFO] I0802 20:59:51.234310 11506 net.cpp:148] Top shape: 10 256 6 6 (92160)
2016-08-02 20:59:51.239 STDERR [INFO] I0802 20:59:51.234315 11506 net.cpp:156] Memory required for data: 67618360
2016-08-02 20:59:51.239 STDERR [INFO] I0802 20:59:51.234320 11506 layer_factory.hpp:77] Creating layer fc6
2016-08-02 20:59:51.239 STDERR [INFO] I0802 20:59:51.234338 11506 net.cpp:91] Creating Layer fc6
2016-08-02 20:59:51.239 STDERR [INFO] I0802 20:59:51.234343 11506 net.cpp:425] fc6 <- pool5
2016-08-02 20:59:51.239 STDERR [INFO] I0802 20:59:51.234349 11506 net.cpp:399] fc6 -> fc6
2016-08-02 20:59:51.305 STDERR [INFO] I0802 20:59:51.304929 11496 net.cpp:141] Setting up lstm1_x_transform
2016-08-02 20:59:51.305 STDERR [INFO] I0802 20:59:51.304986 11496 net.cpp:148] Top shape: 1 1 4000 (4000)
2016-08-02 20:59:51.305 STDERR [INFO] I0802 20:59:51.304993 11496 net.cpp:156] Memory required for data: 26016
2016-08-02 20:59:51.305 STDERR [INFO] I0802 20:59:51.305017 11496 layer_factory.hpp:77] Creating layer lstm1_W_xc_x_slice
2016-08-02 20:59:51.305 STDERR [INFO] I0802 20:59:51.305037 11496 net.cpp:91] Creating Layer lstm1_W_xc_x_slice
2016-08-02 20:59:51.305 STDERR [INFO] I0802 20:59:51.305044 11496 net.cpp:425] lstm1_W_xc_x_slice <- W_xc_x
2016-08-02 20:59:51.306 STDERR [INFO] I0802 20:59:51.305054 11496 net.cpp:399] lstm1_W_xc_x_slice -> W_xc_x_1
2016-08-02 20:59:51.306 STDERR [INFO] I0802 20:59:51.305109 11496 net.cpp:141] Setting up lstm1_W_xc_x_slice
2016-08-02 20:59:51.306 STDERR [INFO] I0802 20:59:51.305120 11496 net.cpp:148] Top shape: 1 1 4000 (4000)
2016-08-02 20:59:51.306 STDERR [INFO] I0802 20:59:51.305125 11496 net.cpp:156] Memory required for data: 42016
2016-08-02 20:59:51.306 STDERR [INFO] I0802 20:59:51.305131 11496 layer_factory.hpp:77] Creating layer lstm1_h_conted_0
2016-08-02 20:59:51.306 STDERR [INFO] I0802 20:59:51.305143 11496 net.cpp:91] Creating Layer lstm1_h_conted_0
2016-08-02 20:59:51.306 STDERR [INFO] I0802 20:59:51.305150 11496 net.cpp:425] lstm1_h_conted_0 <- h_0
2016-08-02 20:59:51.306 STDERR [INFO] I0802 20:59:51.305155 11496 net.cpp:425] lstm1_h_conted_0 <- cont_1_lstm1_cont_slice_0_split_0
2016-08-02 20:59:51.307 STDERR [INFO] I0802 20:59:51.305163 11496 net.cpp:399] lstm1_h_conted_0 -> h_conted_0
2016-08-02 20:59:51.307 STDERR [INFO] I0802 20:59:51.305265 11496 net.cpp:141] Setting up lstm1_h_conted_0
2016-08-02 20:59:51.307 STDERR [INFO] I0802 20:59:51.305276 11496 net.cpp:148] Top shape: 1 1 1000 (1000)
2016-08-02 20:59:51.307 STDERR [INFO] I0802 20:59:51.305281 11496 net.cpp:156] Memory required for data: 46016
2016-08-02 20:59:51.307 STDERR [INFO] I0802 20:59:51.305286 11496 layer_factory.hpp:77] Creating layer lstm1_transform_1
2016-08-02 20:59:51.307 STDERR [INFO] I0802 20:59:51.305300 11496 net.cpp:91] Creating Layer lstm1_transform_1
2016-08-02 20:59:51.307 STDERR [INFO] I0802 20:59:51.305306 11496 net.cpp:425] lstm1_transform_1 <- h_conted_0
2016-08-02 20:59:51.307 STDERR [INFO] I0802 20:59:51.305315 11496 net.cpp:399] lstm1_transform_1 -> W_hc_h_0
2016-08-02 20:59:51.346 STDERR [INFO] I0802 20:59:51.346379 11506 net.cpp:141] Setting up fc6
2016-08-02 20:59:51.347 STDERR [INFO] I0802 20:59:51.346433 11506 net.cpp:148] Top shape: 10 4096 (40960)
2016-08-02 20:59:51.347 STDERR [INFO] I0802 20:59:51.346441 11506 net.cpp:156] Memory required for data: 67782200
2016-08-02 20:59:51.347 STDERR [INFO] I0802 20:59:51.346456 11506 layer_factory.hpp:77] Creating layer relu6
2016-08-02 20:59:51.347 STDERR [INFO] I0802 20:59:51.346478 11506 net.cpp:91] Creating Layer relu6
2016-08-02 20:59:51.347 STDERR [INFO] I0802 20:59:51.346487 11506 net.cpp:425] relu6 <- fc6
2016-08-02 20:59:51.347 STDERR [INFO] I0802 20:59:51.346496 11506 net.cpp:386] relu6 -> fc6 (in-place)
2016-08-02 20:59:51.348 STDERR [INFO] I0802 20:59:51.346861 11506 net.cpp:141] Setting up relu6
2016-08-02 20:59:51.348 STDERR [INFO] I0802 20:59:51.346874 11506 net.cpp:148] Top shape: 10 4096 (40960)
2016-08-02 20:59:51.348 STDERR [INFO] I0802 20:59:51.346879 11506 net.cpp:156] Memory required for data: 67946040
2016-08-02 20:59:51.348 STDERR [INFO] I0802 20:59:51.346884 11506 layer_factory.hpp:77] Creating layer drop6
2016-08-02 20:59:51.348 STDERR [INFO] I0802 20:59:51.346909 11506 net.cpp:91] Creating Layer drop6
2016-08-02 20:59:51.348 STDERR [INFO] I0802 20:59:51.346913 11506 net.cpp:425] drop6 <- fc6
2016-08-02 20:59:51.348 STDERR [INFO] I0802 20:59:51.346925 11506 net.cpp:386] drop6 -> fc6 (in-place)
2016-08-02 20:59:51.348 STDERR [INFO] I0802 20:59:51.346981 11506 net.cpp:141] Setting up drop6
2016-08-02 20:59:51.348 STDERR [INFO] I0802 20:59:51.346989 11506 net.cpp:148] Top shape: 10 4096 (40960)
2016-08-02 20:59:51.348 STDERR [INFO] I0802 20:59:51.346998 11506 net.cpp:156] Memory required for data: 68109880
2016-08-02 20:59:51.349 STDERR [INFO] I0802 20:59:51.347003 11506 layer_factory.hpp:77] Creating layer fc7
2016-08-02 20:59:51.349 STDERR [INFO] I0802 20:59:51.347013 11506 net.cpp:91] Creating Layer fc7
2016-08-02 20:59:51.349 STDERR [INFO] I0802 20:59:51.347019 11506 net.cpp:425] fc7 <- fc6
2016-08-02 20:59:51.349 STDERR [INFO] I0802 20:59:51.347026 11506 net.cpp:399] fc7 -> fc7
2016-08-02 20:59:51.379 STDERR [INFO] I0802 20:59:51.379000 11496 net.cpp:141] Setting up lstm1_transform_1
2016-08-02 20:59:51.379 STDERR [INFO] I0802 20:59:51.379060 11496 net.cpp:148] Top shape: 1 1 4000 (4000)
2016-08-02 20:59:51.379 STDERR [INFO] I0802 20:59:51.379066 11496 net.cpp:156] Memory required for data: 62016
2016-08-02 20:59:51.379 STDERR [INFO] I0802 20:59:51.379091 11496 layer_factory.hpp:77] Creating layer lstm1_gate_input_1
2016-08-02 20:59:51.380 STDERR [INFO] I0802 20:59:51.379118 11496 net.cpp:91] Creating Layer lstm1_gate_input_1
2016-08-02 20:59:51.380 STDERR [INFO] I0802 20:59:51.379127 11496 net.cpp:425] lstm1_gate_input_1 <- W_hc_h_0
2016-08-02 20:59:51.380 STDERR [INFO] I0802 20:59:51.379134 11496 net.cpp:425] lstm1_gate_input_1 <- W_xc_x_1
2016-08-02 20:59:51.380 STDERR [INFO] I0802 20:59:51.379143 11496 net.cpp:399] lstm1_gate_input_1 -> gate_input_1
2016-08-02 20:59:51.380 STDERR [INFO] I0802 20:59:51.379223 11496 net.cpp:141] Setting up lstm1_gate_input_1
2016-08-02 20:59:51.380 STDERR [INFO] I0802 20:59:51.379235 11496 net.cpp:148] Top shape: 1 1 4000 (4000)
2016-08-02 20:59:51.381 STDERR [INFO] I0802 20:59:51.379238 11496 net.cpp:156] Memory required for data: 78016
2016-08-02 20:59:51.381 STDERR [INFO] I0802 20:59:51.379243 11496 layer_factory.hpp:77] Creating layer lstm1_unit_1
2016-08-02 20:59:51.381 STDERR [INFO] I0802 20:59:51.379256 11496 net.cpp:91] Creating Layer lstm1_unit_1
2016-08-02 20:59:51.381 STDERR [INFO] I0802 20:59:51.379261 11496 net.cpp:425] lstm1_unit_1 <- c_0
2016-08-02 20:59:51.381 STDERR [INFO] I0802 20:59:51.379267 11496 net.cpp:425] lstm1_unit_1 <- gate_input_1
2016-08-02 20:59:51.381 STDERR [INFO] I0802 20:59:51.379273 11496 net.cpp:425] lstm1_unit_1 <- cont_1_lstm1_cont_slice_0_split_1
2016-08-02 20:59:51.381 STDERR [INFO] I0802 20:59:51.379281 11496 net.cpp:399] lstm1_unit_1 -> c_1
2016-08-02 20:59:51.381 STDERR [INFO] I0802 20:59:51.379289 11496 net.cpp:399] lstm1_unit_1 -> h_1
2016-08-02 20:59:51.381 STDERR [INFO] I0802 20:59:51.379361 11496 net.cpp:141] Setting up lstm1_unit_1
2016-08-02 20:59:51.381 STDERR [INFO] I0802 20:59:51.379372 11496 net.cpp:148] Top shape: 1 1 1000 (1000)
2016-08-02 20:59:51.381 STDERR [INFO] I0802 20:59:51.379379 11496 net.cpp:148] Top shape: 1 1 1000 (1000)
2016-08-02 20:59:51.382 STDERR [INFO] I0802 20:59:51.379382 11496 net.cpp:156] Memory required for data: 86016
2016-08-02 20:59:51.382 STDERR [INFO] I0802 20:59:51.379389 11496 layer_factory.hpp:77] Creating layer lstm1_
2016-08-02 20:59:51.382 STDERR [INFO] I0802 20:59:51.379400 11496 net.cpp:91] Creating Layer lstm1_
2016-08-02 20:59:51.382 STDERR [INFO] I0802 20:59:51.379405 11496 net.cpp:425] lstm1_ <- c_1
2016-08-02 20:59:51.382 STDERR [INFO] I0802 20:59:51.379413 11496 net.cpp:399] lstm1_ -> c_T
2016-08-02 20:59:51.382 STDERR [INFO] I0802 20:59:51.379447 11496 net.cpp:141] Setting up lstm1_
2016-08-02 20:59:51.382 STDERR [INFO] I0802 20:59:51.379456 11496 net.cpp:148] Top shape: 1 1 1000 (1000)
2016-08-02 20:59:51.382 STDERR [INFO] I0802 20:59:51.379462 11496 net.cpp:156] Memory required for data: 90016
2016-08-02 20:59:51.382 STDERR [INFO] I0802 20:59:51.379467 11496 layer_factory.hpp:77] Creating layer lstm1_h_concat
2016-08-02 20:59:51.382 STDERR [INFO] I0802 20:59:51.379477 11496 net.cpp:91] Creating Layer lstm1_h_concat
2016-08-02 20:59:51.383 STDERR [INFO] I0802 20:59:51.379482 11496 net.cpp:425] lstm1_h_concat <- h_1
2016-08-02 20:59:51.383 STDERR [INFO] I0802 20:59:51.379493 11496 net.cpp:399] lstm1_h_concat -> h
2016-08-02 20:59:51.383 STDERR [INFO] I0802 20:59:51.379535 11496 net.cpp:141] Setting up lstm1_h_concat
2016-08-02 20:59:51.383 STDERR [INFO] I0802 20:59:51.379544 11496 net.cpp:148] Top shape: 1 1 1000 (1000)
2016-08-02 20:59:51.383 STDERR [INFO] I0802 20:59:51.379549 11496 net.cpp:156] Memory required for data: 94016
2016-08-02 20:59:51.383 STDERR [INFO] I0802 20:59:51.379554 11496 layer_factory.hpp:77] Creating layer h_pseudoloss
2016-08-02 20:59:51.383 STDERR [INFO] I0802 20:59:51.379575 11496 net.cpp:91] Creating Layer h_pseudoloss
2016-08-02 20:59:51.383 STDERR [INFO] I0802 20:59:51.379580 11496 net.cpp:425] h_pseudoloss <- h
…
2016-08-02 20:59:51.400 STDERR [INFO] I0802 20:59:51.380635 11496 net.cpp:91] Creating Layer lstm2_
2016-08-02 20:59:51.400 n.t.s.f.RefreshingImageFetcher$ImageReader [INFO] [Timing] RequestID: 0 StreamID: home_lvnguyen_work_data_frame_320x240_jpg SequenceNr: 231 Entering queue: 1470185991400
2016-08-02 20:59:51.400 STDERR [INFO] I0802 20:59:51.380641 11496 net.cpp:399] lstm2_ -> x
2016-08-02 20:59:51.400 STDERR [INFO] I0802 20:59:51.380653 11496 net.cpp:399] lstm2_ -> cont
2016-08-02 20:59:51.400 STDERR [INFO] I0802 20:59:51.380717 11496 net.cpp:141] Setting up lstm2_
2016-08-02 20:59:51.400 STDERR [INFO] I0802 20:59:51.380728 11496 net.cpp:148] Top shape: 1 1 1501 (1501)
2016-08-02 20:59:51.400 STDERR [INFO] I0802 20:59:51.380734 11496 net.cpp:148] Top shape: 1 1 (1)
2016-08-02 20:59:51.400 STDERR [INFO] I0802 20:59:51.380738 11496 net.cpp:156] Memory required for data: 6008
2016-08-02 20:59:51.400 STDERR [INFO] I0802 20:59:51.380744 11496 layer_factory.hpp:77] Creating layer lstm2_
2016-08-02 20:59:51.401 STDERR [INFO] I0802 20:59:51.380753 11496 net.cpp:91] Creating Layer lstm2_
2016-08-02 20:59:51.401 STDERR [INFO] I0802 20:59:51.380764 11496 net.cpp:399] lstm2_ -> c_0
2016-08-02 20:59:51.401 STDERR [INFO] I0802 20:59:51.380774 11496 net.cpp:399] lstm2_ -> h_0
2016-08-02 20:59:51.401 STDERR [INFO] I0802 20:59:51.380831 11496 net.cpp:141] Setting up lstm2_
2016-08-02 20:59:51.401 STDERR [INFO] I0802 20:59:51.380842 11496 net.cpp:148] Top shape: 1 1 1000 (1000)
2016-08-02 20:59:51.402 STDERR [INFO] I0802 20:59:51.380848 11496 net.cpp:148] Top shape: 1 1 1000 (1000)
2016-08-02 20:59:51.402 STDERR [INFO] I0802 20:59:51.380852 11496 net.cpp:156] Memory required for data: 14008
2016-08-02 20:59:51.402 STDERR [INFO] I0802 20:59:51.380857 11496 layer_factory.hpp:77] Creating layer lstm2_cont_slice
2016-08-02 20:59:51.402 STDERR [INFO] I0802 20:59:51.380867 11496 net.cpp:91] Creating Layer lstm2_cont_slice
2016-08-02 20:59:51.402 STDERR [INFO] I0802 20:59:51.380872 11496 net.cpp:425] lstm2_cont_slice <- cont
2016-08-02 20:59:51.402 STDERR [INFO] I0802 20:59:51.380879 11496 net.cpp:399] lstm2_cont_slice -> cont_1
2016-08-02 20:59:51.402 STDERR [INFO] I0802 20:59:51.380920 11496 net.cpp:141] Setting up lstm2_cont_slice
2016-08-02 20:59:51.403 STDERR [INFO] I0802 20:59:51.380930 11496 net.cpp:148] Top shape: 1 1 (1)
2016-08-02 20:59:51.403 STDERR [INFO] I0802 20:59:51.380934 11496 net.cpp:156] Memory required for data: 14012
2016-08-02 20:59:51.403 STDERR [INFO] I0802 20:59:51.380939 11496 layer_factory.hpp:77] Creating layer cont_1_lstm2_cont_slice_0_split
2016-08-02 20:59:51.403 STDERR [INFO] I0802 20:59:51.380949 11496 net.cpp:91] Creating Layer cont_1_lstm2_cont_slice_0_split
2016-08-02 20:59:51.403 STDERR [INFO] I0802 20:59:51.380954 11496 net.cpp:425] cont_1_lstm2_cont_slice_0_split <- cont_1
2016-08-02 20:59:51.403 STDERR [INFO] I0802 20:59:51.380961 11496 net.cpp:399] cont_1_lstm2_cont_slice_0_split -> cont_1_lstm2_cont_slice_0_split_0
2016-08-02 20:59:51.403 STDERR [INFO] I0802 20:59:51.380970 11496 net.cpp:399] cont_1_lstm2_cont_slice_0_split -> cont_1_lstm2_cont_slice_0_split_1
2016-08-02 20:59:51.403 STDERR [INFO] I0802 20:59:51.381024 11496 net.cpp:141] Setting up cont_1_lstm2_cont_slice_0_split
2016-08-02 20:59:51.403 STDERR [INFO] I0802 20:59:51.381034 11496 net.cpp:148] Top shape: 1 1 (1)
2016-08-02 20:59:51.403 STDERR [INFO] I0802 20:59:51.381039 11496 net.cpp:148] Top shape: 1 1 (1)
2016-08-02 20:59:51.403 STDERR [INFO] I0802 20:59:51.381044 11496 net.cpp:156] Memory required for data: 14020
2016-08-02 20:59:51.404 STDERR [INFO] I0802 20:59:51.381049 11496 layer_factory.hpp:77] Creating layer lstm2_x_transform
2016-08-02 20:59:51.404 STDERR [INFO] I0802 20:59:51.381063 11496 net.cpp:91] Creating Layer lstm2_x_transform
2016-08-02 20:59:51.404 STDERR [INFO] I0802 20:59:51.381068 11496 net.cpp:425] lstm2_x_transform <- x
2016-08-02 20:59:51.404 STDERR [INFO] I0802 20:59:51.381077 11496 net.cpp:399] lstm2_x_transform -> W_xc_x
2016-08-02 20:59:51.404 STDERR [INFO] I0802 20:59:51.397722 11506 net.cpp:141] Setting up fc7
2016-08-02 20:59:51.404 n.t.s.s.CVParticleSpout [INFO] [Timing] RequestID: 0 StreamID: home_lvnguyen_work_data_frame_320x240_jpg SequenceNr: 228 Leaving fetcher: 1470185991404 Size: 8703
2016-08-02 20:59:51.404 n.t.s.b.CVParticleBolt [INFO] [Timing] RequestID: 0 StreamID: home_lvnguyen_work_data_frame_320x240_jpg SequenceNr: 228 Entering scale: 1470185991404
2016-08-02 20:59:51.404 STDERR [INFO] I0802 20:59:51.397766 11506 net.cpp:148] Top shape: 10 4096 (40960)
2016-08-02 20:59:51.404 STDERR [INFO] I0802 20:59:51.397773 11506 net.cpp:156] Memory required for data: 68273720
2016-08-02 20:59:51.404 STDERR [INFO] I0802 20:59:51.397788 11506 layer_factory.hpp:77] Creating layer relu7
2016-08-02 20:59:51.404 STDERR [INFO] I0802 20:59:51.397809 11506 net.cpp:91] Creating Layer relu7
2016-08-02 20:59:51.404 STDERR [INFO] I0802 20:59:51.397817 11506 net.cpp:425] relu7 <- fc7
2016-08-02 20:59:51.405 STDERR [INFO] I0802 20:59:51.397828 11506 net.cpp:386] relu7 -> fc7 (in-place)
2016-08-02 20:59:51.405 STDERR [INFO] I0802 20:59:51.398490 11506 net.cpp:141] Setting up relu7
2016-08-02 20:59:51.405 STDERR [INFO] I0802 20:59:51.398504 11506 net.cpp:148] Top shape: 10 4096 (40960)
2016-08-02 20:59:51.405 STDERR [INFO] I0802 20:59:51.398509 11506 net.cpp:156] Memory required for data: 68437560
2016-08-02 20:59:51.405 STDERR [INFO] I0802 20:59:51.398515 11506 layer_factory.hpp:77] Creating layer drop7
2016-08-02 20:59:51.405 STDERR [INFO] I0802 20:59:51.398532 11506 net.cpp:91] Creating Layer drop7
2016-08-02 20:59:51.405 STDERR [INFO] I0802 20:59:51.398538 11506 net.cpp:425] drop7 <- fc7
2016-08-02 20:59:51.405 STDERR [INFO] I0802 20:59:51.398545 11506 net.cpp:386] drop7 -> fc7 (in-place)
2016-08-02 20:59:51.405 STDERR [INFO] I0802 20:59:51.398592 11506 net.cpp:141] Setting up drop7
2016-08-02 20:59:51.405 STDERR [INFO] I0802 20:59:51.398602 11506 net.cpp:148] Top shape: 10 4096 (40960)
2016-08-02 20:59:51.405 STDERR [INFO] I0802 20:59:51.398607 11506 net.cpp:156] Memory required for data: 68601400
2016-08-02 20:59:51.405 STDERR [INFO] I0802 20:59:51.398612 11506 layer_factory.hpp:77] Creating layer fc8
2016-08-02 20:59:51.406 STDERR [INFO] I0802 20:59:51.398622 11506 net.cpp:91] Creating Layer fc8
2016-08-02 20:59:51.406 STDERR [INFO] I0802 20:59:51.398627 11506 net.cpp:425] fc8 <- fc7
…
2016-08-02 20:59:51.419 n.t.s.b.CVParticleBolt [INFO] [Timing] RequestID: 0 StreamID: home_lvnguyen_work_data_frame_320x240_jpg SequenceNr: 230 Leaving scale: 1470185991419 Size: 3531
2016-08-02 20:59:51.419 n.t.s.b.CVParticleBolt [INFO] [Timing] RequestID: 0 StreamID: home_lvnguyen_work_data_frame_320x240_jpg SequenceNr: 231 Entering scale: 1470185991419
2016-08-02 20:59:51.427 n.t.s.b.CVParticleBolt [INFO] [Timing] RequestID: 0 StreamID: home_lvnguyen_work_data_frame_320x240_jpg SequenceNr: 231 Leaving scale: 1470185991427 Size: 3531
2016-08-02 20:59:51.452 STDERR [INFO] I0802 20:59:51.451927 11496 net.cpp:141] Setting up lstm2_x_transform
2016-08-02 20:59:51.452 STDERR [INFO] I0802 20:59:51.451983 11496 net.cpp:148] Top shape: 1 1 4000 (4000)
2016-08-02 20:59:51.452 STDERR [INFO] I0802 20:59:51.451990 11496 net.cpp:156] Memory required for data: 30020
2016-08-02 20:59:51.452 STDERR [INFO] I0802 20:59:51.452018 11496 layer_factory.hpp:77] Creating layer lstm2_W_xc_x_slice
2016-08-02 20:59:51.452 STDERR [INFO] I0802 20:59:51.452035 11496 net.cpp:91] Creating Layer lstm2_W_xc_x_slice
2016-08-02 20:59:51.453 STDERR [INFO] I0802 20:59:51.452042 11496 net.cpp:425] lstm2_W_xc_x_slice <- W_xc_x
2016-08-02 20:59:51.453 STDERR [INFO] I0802 20:59:51.452052 11496 net.cpp:399] lstm2_W_xc_x_slice -> W_xc_x_1
2016-08-02 20:59:51.453 STDERR [INFO] I0802 20:59:51.452487 11496 net.cpp:141] Setting up lstm2_W_xc_x_slice
2016-08-02 20:59:51.453 STDERR [INFO] I0802 20:59:51.452508 11496 net.cpp:148] Top shape: 1 1 4000 (4000)
2016-08-02 20:59:51.453 STDERR [INFO] I0802 20:59:51.452514 11496 net.cpp:156] Memory required for data: 46020
2016-08-02 20:59:51.453 STDERR [INFO] I0802 20:59:51.452520 11496 layer_factory.hpp:77] Creating layer lstm2_h_conted_0
2016-08-02 20:59:51.453 STDERR [INFO] I0802 20:59:51.452533 11496 net.cpp:91] Creating Layer lstm2_h_conted_0
2016-08-02 20:59:51.453 STDERR [INFO] I0802 20:59:51.452539 11496 net.cpp:425] lstm2_h_conted_0 <- h_0
2016-08-02 20:59:51.453 STDERR [INFO] I0802 20:59:51.452546 11496 net.cpp:425] lstm2_h_conted_0 <- cont_1_lstm2_cont_slice_0_split_0
2016-08-02 20:59:51.453 STDERR [INFO] I0802 20:59:51.452554 11496 net.cpp:399] lstm2_h_conted_0 -> h_conted_0
2016-08-02 20:59:51.453 STDERR [INFO] I0802 20:59:51.452679 11496 net.cpp:141] Setting up lstm2_h_conted_0
2016-08-02 20:59:51.454 STDERR [INFO] I0802 20:59:51.452692 11496 net.cpp:148] Top shape: 1 1 1000 (1000)
2016-08-02 20:59:51.454 STDERR [INFO] I0802 20:59:51.452695 11496 net.cpp:156] Memory required for data: 50020
2016-08-02 20:59:51.454 STDERR [INFO] I0802 20:59:51.452702 11496 layer_factory.hpp:77] Creating layer lstm2_transform_1
2016-08-02 20:59:51.454 STDERR [INFO] I0802 20:59:51.452714 11496 net.cpp:91] Creating Layer lstm2_transform_1
2016-08-02 20:59:51.454 STDERR [INFO] I0802 20:59:51.452720 11496 net.cpp:425] lstm2_transform_1 <- h_conted_0
2016-08-02 20:59:51.454 STDERR [INFO] I0802 20:59:51.452728 11496 net.cpp:399] lstm2_transform_1 -> W_hc_h_0
2016-08-02 20:59:51.495 STDERR [INFO] I0802 20:59:51.495636 11496 net.cpp:141] Setting up lstm2_transform_1
2016-08-02 20:59:51.496 STDERR [INFO] I0802 20:59:51.495693 11496 net.cpp:148] Top shape: 1 1 4000 (4000)
2016-08-02 20:59:51.496 STDERR [INFO] I0802 20:59:51.495700 11496 net.cpp:156] Memory required for data: 66020
2016-08-02 20:59:51.496 STDERR [INFO] I0802 20:59:51.495725 11496 layer_factory.hpp:77] Creating layer lstm2_gate_input_1
2016-08-02 20:59:51.496 STDERR [INFO] I0802 20:59:51.495748 11496 net.cpp:91] Creating Layer lstm2_gate_input_1
2016-08-02 20:59:51.496 STDERR [INFO] I0802 20:59:51.495754 11496 net.cpp:425] lstm2_gate_input_1 <- W_hc_h_0
2016-08-02 20:59:51.496 STDERR [INFO] I0802 20:59:51.495764 11496 net.cpp:425] lstm2_gate_input_1 <- W_xc_x_1
2016-08-02 20:59:51.496 STDERR [INFO] I0802 20:59:51.495772 11496 net.cpp:399] lstm2_gate_input_1 -> gate_input_1
2016-08-02 20:59:51.497 STDERR [INFO] I0802 20:59:51.495831 11496 net.cpp:141] Setting up lstm2_gate_input_1
2016-08-02 20:59:51.497 STDERR [INFO] I0802 20:59:51.495843 11496 net.cpp:148] Top shape: 1 1 4000 (4000)
2016-08-02 20:59:51.497 STDERR [INFO] I0802 20:59:51.495847 11496 net.cpp:156] Memory required for data: 82020
2016-08-02 20:59:51.497 STDERR [INFO] I0802 20:59:51.495852 11496 layer_factory.hpp:77] Creating layer lstm2_unit_1
2016-08-02 20:59:51.497 STDERR [INFO] I0802 20:59:51.495865 11496 net.cpp:91] Creating Layer lstm2_unit_1
2016-08-02 20:59:51.497 STDERR [INFO] I0802 20:59:51.495870 11496 net.cpp:425] lstm2_unit_1 <- c_0
2016-08-02 20:59:51.497 STDERR [INFO] I0802 20:59:51.495877 11496 net.cpp:425] lstm2_unit_1 <- gate_input_1
2016-08-02 20:59:51.497 STDERR [INFO] I0802 20:59:51.495882 11496 net.cpp:425] lstm2_unit_1 <- cont_1_lstm2_cont_slice_0_split_1
2016-08-02 20:59:51.497 STDERR [INFO] I0802 20:59:51.495889 11496 net.cpp:399] lstm2_unit_1 -> c_1
2016-08-02 20:59:51.498 STDERR [INFO] I0802 20:59:51.495898 11496 net.cpp:399] lstm2_unit_1 -> h_1
2016-08-02 20:59:51.498 STDERR [INFO] I0802 20:59:51.495972 11496 net.cpp:141] Setting up lstm2_unit_1
2016-08-02 20:59:51.498 STDERR [INFO] I0802 20:59:51.495982 11496 net.cpp:148] Top shape: 1 1 1000 (1000)
2016-08-02 20:59:51.498 STDERR [INFO] I0802 20:59:51.495988 11496 net.cpp:148] Top shape: 1 1 1000 (1000)
2016-08-02 20:59:51.498 STDERR [INFO] I0802 20:59:51.495993 11496 net.cpp:156] Memory required for data: 90020
2016-08-02 20:59:51.498 STDERR [INFO] I0802 20:59:51.495998 11496 layer_factory.hpp:77] Creating layer lstm2_
2016-08-02 20:59:51.498 STDERR [INFO] I0802 20:59:51.496007 11496 net.cpp:91] Creating Layer lstm2_
2016-08-02 20:59:51.498 STDERR [INFO] I0802 20:59:51.496012 11496 net.cpp:425] lstm2_ <- c_1
2016-08-02 20:59:51.498 STDERR [INFO] I0802 20:59:51.496019 11496 net.cpp:399] lstm2_ -> c_T
2016-08-02 20:59:51.498 STDERR [INFO] I0802 20:59:51.496054 11496 net.cpp:141] Setting up lstm2_
2016-08-02 20:59:51.498 STDERR [INFO] I0802 20:59:51.496063 11496 net.cpp:148] Top shape: 1 1 1000 (1000)
2016-08-02 20:59:51.498 STDERR [INFO] I0802 20:59:51.496068 11496 net.cpp:156] Memory required for data: 94020
2016-08-02 20:59:51.499 STDERR [INFO] I0802 20:59:51.496073 11496 layer_factory.hpp:77] Creating layer lstm2_h_concat
2016-08-02 20:59:51.499 STDERR [INFO] I0802 20:59:51.496088 11496 net.cpp:91] Creating Layer lstm2_h_concat
2016-08-02 20:59:51.499 STDERR [INFO] I0802 20:59:51.496093 11496 net.cpp:425] lstm2_h_concat <- h_1
2016-08-02 20:59:51.499 STDERR [INFO] I0802 20:59:51.496101 11496 net.cpp:399] lstm2_h_concat -> h
2016-08-02 20:59:51.499 STDERR [INFO] I0802 20:59:51.496155 11496 net.cpp:141] Setting up lstm2_h_concat
2016-08-02 20:59:51.499 STDERR [INFO] I0802 20:59:51.496165 11496 net.cpp:148] Top shape: 1 1 1000 (1000)
2016-08-02 20:59:51.499 STDERR [INFO] I0802 20:59:51.496170 11496 net.cpp:156] Memory required for data: 98020
2016-08-02 20:59:51.499 STDERR [INFO] I0802 20:59:51.496175 11496 layer_factory.hpp:77] Creating layer h_pseudoloss
2016-08-02 20:59:51.499 STDERR [INFO] I0802 20:59:51.496184 11496 net.cpp:91] Creating Layer h_pseudoloss
2016-08-02 20:59:51.499 STDERR [INFO] I0802 20:59:51.496189 11496 net.cpp:425] h_pseudoloss <- h
…
