…
Java HotSpot(TM) 64-Bit Server VM warning: You have loaded library /tmp/cvld8578469103187705214/libopencv_java310.xine1.so which might have disabled stack guard. The VM will try to fix the stack guard now.
It's highly recommended that you fix the library with 'execstack -c <libfile>', or link it with '-z noexecstack'.
WARNING: Logging before InitGoogleLogging() is written to STDERR
I0802 07:05:03.866531 31427 net.cpp:49] Initializing net from parameters: 
name: "CaffeNet"
state {
  phase: TEST
}
layer {
  name: "data"
  type: "Input"
  top: "data"
  input_param {
    shape {
      dim: 10
      dim: 3
      dim: 227
      dim: 227
    }
  }
}
layer {
  name: "conv1"
  type: "Convolution"
  bottom: "data"
  top: "conv1"
  convolution_param {
    num_output: 96
    kernel_size: 11
    stride: 4
  }
}
layer {
  name: "relu1"
  type: "ReLU"
  bottom: "conv1"
  top: "conv1"
}
layer {
  name: "pool1"
  type: "Pooling"
  bottom: "conv1"
  top: "pool1"
  pooling_param {
    pool: MAX
    kernel_size: 3
    stride: 2
  }
}
layer {
  name: "norm1"
  type: "LRN"
  bottom: "pool1"
  top: "norm1"
  lrn_param {
    local_size: 5
    alpha: 0.0001
    beta: 0.75
  }
}
layer {
  name: "conv2"
  type: "Convolution"
  bottom: "norm1"
  top: "conv2"
  convolution_param {
    num_output: 256
    pad: 2
    kernel_size: 5
    group: 2
  }
}
layer {
  name: "relu2"
  type: "ReLU"
  bottom: "conv2"
  top: "conv2"
}
layer {
  name: "pool2"
  type: "Pooling"
  bottom: "conv2"
  top: "pool2"
  pooling_param {
    pool: MAX
    kernel_size: 3
    stride: 2
  }
}
layer {
  name: "norm2"
  type: "LRN"
  bottom: "pool2"
  top: "norm2"
  lrn_param {
    local_size: 5
    alpha: 0.0001
    beta: 0.75
  }
}
layer {
  name: "conv3"
  type: "Convolution"
  bottom: "norm2"
  top: "conv3"
  convolution_param {
    num_output: 384
    pad: 1
    kernel_size: 3
  }
}
layer {
  name: "relu3"
  type: "ReLU"
  bottom: "conv3"
  top: "conv3"
}
layer {
  name: "conv4"
  type: "Convolution"
  bottom: "conv3"
  top: "conv4"
  convolution_param {
    num_output: 384
    pad: 1
    kernel_size: 3
    group: 2
  }
}
layer {
  name: "relu4"
  type: "ReLU"
  bottom: "conv4"
  top: "conv4"
}
layer {
  name: "conv5"
  type: "Convolution"
  bottom: "conv4"
  top: "conv5"
  convolution_param {
    num_output: 256
    pad: 1
    kernel_size: 3
    group: 2
  }
}
layer {
  name: "relu5"
  type: "ReLU"
  bottom: "conv5"
  top: "conv5"
}
layer {
  name: "pool5"
  type: "Pooling"
  bottom: "conv5"
  top: "pool5"
  pooling_param {
    pool: MAX
    kernel_size: 3
    stride: 2
  }
}
layer {
  name: "fc6"
  type: "InnerProduct"
  bottom: "pool5"
  top: "fc6"
  inner_product_param {
    num_output: 4096
  }
}
layer {
  name: "relu6"
  type: "ReLU"
  bottom: "fc6"
  top: "fc6"
}
layer {
  name: "drop6"
  type: "Dropout"
  bottom: "fc6"
  top: "fc6"
  dropout_param {
    dropout_ratio: 0.5
  }
}
layer {
  name: "fc7"
  type: "InnerProduct"
  bottom: "fc6"
  top: "fc7"
  inner_product_param {
    num_output: 4096
  }
}
layer {
  name: "relu7"
  type: "ReLU"
  bottom: "fc7"
  top: "fc7"
}
layer {
  name: "drop7"
  type: "Dropout"
  bottom: "fc7"
  top: "fc7"
  dropout_param {
    dropout_ratio: 0.5
  }
}
layer {
  name: "fc8"
  type: "InnerProduct"
  bottom: "fc7"
  top: "fc8"
  inner_product_param {
    num_output: 1000
  }
}
layer {
  name: "prob"
  type: "Softmax"
  bottom: "fc8"
  top: "prob"
}
I0802 07:05:03.866721 31427 layer_factory.hpp:77] Creating layer data
I0802 07:05:03.866745 31427 net.cpp:91] Creating Layer data
I0802 07:05:03.866755 31427 net.cpp:399] data -> data
I0802 07:05:04.348307 31427 net.cpp:141] Setting up data
I0802 07:05:04.348423 31427 net.cpp:148] Top shape: 10 3 227 227 (1545870)
I0802 07:05:04.348429 31427 net.cpp:156] Memory required for data: 6183480
I0802 07:05:04.348449 31427 layer_factory.hpp:77] Creating layer conv1
I0802 07:05:04.348486 31427 net.cpp:91] Creating Layer conv1
I0802 07:05:04.348496 31427 net.cpp:425] conv1 <- data
I0802 07:05:04.348510 31427 net.cpp:399] conv1 -> conv1
I0802 07:05:04.472545 31417 upgrade_proto.cpp:66] Attempting to upgrade input file specified using deprecated input fields: /tmp/cvld8578469103187705214/s2vt.words_to_preds.prototxt
I0802 07:05:04.472607 31417 upgrade_proto.cpp:69] Successfully upgraded file specified using deprecated input fields.
W0802 07:05:04.472615 31417 upgrade_proto.cpp:71] Note that future Caffe releases will only support input layers and not input fields.
I0802 07:05:04.472844 31417 net.cpp:49] Initializing net from parameters: 
name: "s2vt:features_to_lstm"
state {
  phase: TEST
}
layer {
  name: "input"
  type: "Input"
  top: "frames_fc7"
  top: "cont_sentence"
  top: "input_sentence"
  top: "stage_indicator"
  input_param {
    shape {
      dim: 1
      dim: 4096
    }
    shape {
      dim: 1
      dim: 1
    }
    shape {
      dim: 1
      dim: 1
    }
    shape {
      dim: 1
      dim: 1
    }
  }
}
layer {
  name: "embed_encoder"
  type: "InnerProduct"
  bottom: "frames_fc7"
  top: "embedded_in_frames"
  param {
    lr_mult: 1
    decay_mult: 1
  }
  param {
    lr_mult: 2
    decay_mult: 0
  }
  inner_product_param {
    num_output: 500
    weight_filler {
      type: "xavier"
    }
    bias_filler {
      type: "constant"
      value: 0.2
    }
  }
}
layer {
  name: "reshape_frames"
  type: "Reshape"
  bottom: "embedded_in_frames"
  top: "embedded_input_frames"
  reshape_param {
    shape {
      dim: 1
      dim: 1
      dim: 500
    }
  }
}
layer {
  name: "reshape_stage_indicator"
  type: "Reshape"
  bottom: "stage_indicator"
  top: "reshaped_stage_indicator"
  reshape_param {
    shape {
      dim: 1
      dim: 1
      dim: 1
    }
  }
}
layer {
  name: "embedding"
  type: "Embed"
  bottom: "input_sentence"
  top: "embedded_input_sentence"
  param {
    lr_mult: 1
  }
  embed_param {
    num_output: 500
    input_dim: 46168
    bias_term: false
    weight_filler {
      type: "uniform"
      min: -0.08
      max: 0.08
    }
  }
}
layer {
  name: "lstm1"
  type: "LSTM"
  bottom: "embedded_input_frames"
  bottom: "cont_sentence"
  top: "lstm1"
  recurrent_param {
    num_output: 1000
    weight_filler {
      type: "uniform"
      min: -0.08
      max: 0.08
    }
    bias_filler {
      type: "constant"
      value: 0
    }
  }
}
layer {
  name: "concat"
  type: "Concat"
  bottom: "lstm1"
  bottom: "embedded_input_sentence"
  bottom: "reshaped_stage_indicator"
  top: "lstm1_video_sequence"
  concat_param {
    concat_dim: 2
  }
}
layer {
  name: "lstm2"
  type: "LSTM"
  bottom: "lstm1_video_sequence"
  bottom: "cont_sentence"
  top: "lstm2"
  recurrent_param {
    num_output: 1000
    weight_filler {
      type: "uniform"
      min: -0.08
      max: 0.08
    }
    bias_filler {
      type: "constant"
      value: 0
    }
  }
}
layer {
  name: "predict"
  type: "InnerProduct"
  bottom: "lstm2"
  top: "predict"
  param {
    lr_mult: 1
    decay_mult: 1
  }
  param {
    lr_mult: 2
    decay_mult: 0
  }
  inner_product_param {
    num_output: 46168
    weight_filler {
      type: "uniform"
      min: -0.08
      max: 0.08
    }
    bias_filler {
      type: "constant"
      value: 0
    }
    axis: 2
  }
}
layer {
  name: "probs"
  type: "Softmax"
  bottom: "predict"
  top: "probs"
  softmax_param {
    axis: 2
  }
}
I0802 07:05:04.472934 31417 layer_factory.hpp:77] Creating layer input
I0802 07:05:04.472949 31417 net.cpp:91] Creating Layer input
I0802 07:05:04.472956 31417 net.cpp:399] input -> frames_fc7
I0802 07:05:04.472973 31417 net.cpp:399] input -> cont_sentence
I0802 07:05:04.472983 31417 net.cpp:399] input -> input_sentence
I0802 07:05:04.472993 31417 net.cpp:399] input -> stage_indicator
I0802 07:05:04.473189 31417 net.cpp:141] Setting up input
I0802 07:05:04.473201 31417 net.cpp:148] Top shape: 1 4096 (4096)
I0802 07:05:04.473208 31417 net.cpp:148] Top shape: 1 1 (1)
I0802 07:05:04.473213 31417 net.cpp:148] Top shape: 1 1 (1)
I0802 07:05:04.473218 31417 net.cpp:148] Top shape: 1 1 (1)
I0802 07:05:04.473222 31417 net.cpp:156] Memory required for data: 16396
I0802 07:05:04.473228 31417 layer_factory.hpp:77] Creating layer cont_sentence_input_1_split
I0802 07:05:04.473248 31417 net.cpp:91] Creating Layer cont_sentence_input_1_split
I0802 07:05:04.473253 31417 net.cpp:425] cont_sentence_input_1_split <- cont_sentence
I0802 07:05:04.473275 31417 net.cpp:399] cont_sentence_input_1_split -> cont_sentence_input_1_split_0
I0802 07:05:04.473285 31417 net.cpp:399] cont_sentence_input_1_split -> cont_sentence_input_1_split_1
I0802 07:05:04.476775 31417 net.cpp:141] Setting up cont_sentence_input_1_split
I0802 07:05:04.476794 31417 net.cpp:148] Top shape: 1 1 (1)
I0802 07:05:04.476800 31417 net.cpp:148] Top shape: 1 1 (1)
I0802 07:05:04.476804 31417 net.cpp:156] Memory required for data: 16404
I0802 07:05:04.476809 31417 layer_factory.hpp:77] Creating layer embed_encoder
I0802 07:05:04.476827 31417 net.cpp:91] Creating Layer embed_encoder
I0802 07:05:04.476833 31417 net.cpp:425] embed_encoder <- frames_fc7
I0802 07:05:04.476841 31417 net.cpp:399] embed_encoder -> embedded_in_frames
I0802 07:05:04.500048 31417 net.cpp:141] Setting up embed_encoder
I0802 07:05:04.500087 31417 net.cpp:148] Top shape: 1 500 (500)
I0802 07:05:04.500092 31417 net.cpp:156] Memory required for data: 18404
I0802 07:05:04.500113 31417 layer_factory.hpp:77] Creating layer reshape_frames
I0802 07:05:04.500135 31417 net.cpp:91] Creating Layer reshape_frames
I0802 07:05:04.500143 31417 net.cpp:425] reshape_frames <- embedded_in_frames
I0802 07:05:04.500152 31417 net.cpp:399] reshape_frames -> embedded_input_frames
I0802 07:05:04.500380 31417 net.cpp:141] Setting up reshape_frames
I0802 07:05:04.500391 31417 net.cpp:148] Top shape: 1 1 500 (500)
I0802 07:05:04.500394 31417 net.cpp:156] Memory required for data: 20404
I0802 07:05:04.500399 31417 layer_factory.hpp:77] Creating layer reshape_stage_indicator
I0802 07:05:04.500409 31417 net.cpp:91] Creating Layer reshape_stage_indicator
I0802 07:05:04.500414 31417 net.cpp:425] reshape_stage_indicator <- stage_indicator
I0802 07:05:04.500422 31417 net.cpp:399] reshape_stage_indicator -> reshaped_stage_indicator
I0802 07:05:04.500578 31417 net.cpp:141] Setting up reshape_stage_indicator
I0802 07:05:04.500588 31417 net.cpp:148] Top shape: 1 1 1 (1)
I0802 07:05:04.500593 31417 net.cpp:156] Memory required for data: 20408
I0802 07:05:04.500597 31417 layer_factory.hpp:77] Creating layer embedding
I0802 07:05:04.500608 31417 net.cpp:91] Creating Layer embedding
I0802 07:05:04.500613 31417 net.cpp:425] embedding <- input_sentence
I0802 07:05:04.500622 31417 net.cpp:399] embedding -> embedded_input_sentence
I0802 07:05:04.607525 31427 net.cpp:141] Setting up conv1
I0802 07:05:04.607576 31427 net.cpp:148] Top shape: 10 96 55 55 (2904000)
I0802 07:05:04.607583 31427 net.cpp:156] Memory required for data: 17799480
I0802 07:05:04.607609 31427 layer_factory.hpp:77] Creating layer relu1
I0802 07:05:04.607628 31427 net.cpp:91] Creating Layer relu1
I0802 07:05:04.607635 31427 net.cpp:425] relu1 <- conv1
I0802 07:05:04.607643 31427 net.cpp:386] relu1 -> conv1 (in-place)
I0802 07:05:04.608094 31427 net.cpp:141] Setting up relu1
I0802 07:05:04.608108 31427 net.cpp:148] Top shape: 10 96 55 55 (2904000)
I0802 07:05:04.608114 31427 net.cpp:156] Memory required for data: 29415480
I0802 07:05:04.608119 31427 layer_factory.hpp:77] Creating layer pool1
I0802 07:05:04.608131 31427 net.cpp:91] Creating Layer pool1
I0802 07:05:04.608136 31427 net.cpp:425] pool1 <- conv1
I0802 07:05:04.608144 31427 net.cpp:399] pool1 -> pool1
I0802 07:05:04.608211 31427 net.cpp:141] Setting up pool1
I0802 07:05:04.608220 31427 net.cpp:148] Top shape: 10 96 27 27 (699840)
I0802 07:05:04.608225 31427 net.cpp:156] Memory required for data: 32214840
I0802 07:05:04.608230 31427 layer_factory.hpp:77] Creating layer norm1
I0802 07:05:04.608247 31427 net.cpp:91] Creating Layer norm1
I0802 07:05:04.608253 31427 net.cpp:425] norm1 <- pool1
I0802 07:05:04.608259 31427 net.cpp:399] norm1 -> norm1
I0802 07:05:04.608726 31427 net.cpp:141] Setting up norm1
I0802 07:05:04.608739 31427 net.cpp:148] Top shape: 10 96 27 27 (699840)
I0802 07:05:04.608744 31427 net.cpp:156] Memory required for data: 35014200
I0802 07:05:04.608749 31427 layer_factory.hpp:77] Creating layer conv2
I0802 07:05:04.608767 31427 net.cpp:91] Creating Layer conv2
I0802 07:05:04.608772 31427 net.cpp:425] conv2 <- norm1
I0802 07:05:04.608778 31427 net.cpp:399] conv2 -> conv2
I0802 07:05:04.612557 31427 net.cpp:141] Setting up conv2
I0802 07:05:04.612589 31427 net.cpp:148] Top shape: 10 256 27 27 (1866240)
I0802 07:05:04.612601 31427 net.cpp:156] Memory required for data: 42479160
I0802 07:05:04.612624 31427 layer_factory.hpp:77] Creating layer relu2
I0802 07:05:04.612643 31427 net.cpp:91] Creating Layer relu2
I0802 07:05:04.612654 31427 net.cpp:425] relu2 <- conv2
I0802 07:05:04.612668 31427 net.cpp:386] relu2 -> conv2 (in-place)
I0802 07:05:04.613385 31427 net.cpp:141] Setting up relu2
I0802 07:05:04.613412 31427 net.cpp:148] Top shape: 10 256 27 27 (1866240)
I0802 07:05:04.613425 31427 net.cpp:156] Memory required for data: 49944120
I0802 07:05:04.613438 31427 layer_factory.hpp:77] Creating layer pool2
I0802 07:05:04.613459 31427 net.cpp:91] Creating Layer pool2
I0802 07:05:04.613471 31427 net.cpp:425] pool2 <- conv2
I0802 07:05:04.613489 31427 net.cpp:399] pool2 -> pool2
I0802 07:05:04.613596 31427 net.cpp:141] Setting up pool2
I0802 07:05:04.613620 31427 net.cpp:148] Top shape: 10 256 13 13 (432640)
I0802 07:05:04.613631 31427 net.cpp:156] Memory required for data: 51674680
I0802 07:05:04.613643 31427 layer_factory.hpp:77] Creating layer norm2
I0802 07:05:04.613665 31427 net.cpp:91] Creating Layer norm2
I0802 07:05:04.613677 31427 net.cpp:425] norm2 <- pool2
I0802 07:05:04.613693 31427 net.cpp:399] norm2 -> norm2
I0802 07:05:04.614243 31427 net.cpp:141] Setting up norm2
I0802 07:05:04.614269 31427 net.cpp:148] Top shape: 10 256 13 13 (432640)
I0802 07:05:04.614280 31427 net.cpp:156] Memory required for data: 53405240
I0802 07:05:04.614295 31427 layer_factory.hpp:77] Creating layer conv3
I0802 07:05:04.614320 31427 net.cpp:91] Creating Layer conv3
I0802 07:05:04.614332 31427 net.cpp:425] conv3 <- norm2
I0802 07:05:04.614351 31427 net.cpp:399] conv3 -> conv3
I0802 07:05:04.619479 31427 net.cpp:141] Setting up conv3
I0802 07:05:04.619508 31427 net.cpp:148] Top shape: 10 384 13 13 (648960)
I0802 07:05:04.619513 31427 net.cpp:156] Memory required for data: 56001080
I0802 07:05:04.619526 31427 layer_factory.hpp:77] Creating layer relu3
I0802 07:05:04.619537 31427 net.cpp:91] Creating Layer relu3
I0802 07:05:04.619542 31427 net.cpp:425] relu3 <- conv3
I0802 07:05:04.619549 31427 net.cpp:386] relu3 -> conv3 (in-place)
I0802 07:05:04.620018 31427 net.cpp:141] Setting up relu3
I0802 07:05:04.620031 31427 net.cpp:148] Top shape: 10 384 13 13 (648960)
I0802 07:05:04.620036 31427 net.cpp:156] Memory required for data: 58596920
I0802 07:05:04.620054 31427 layer_factory.hpp:77] Creating layer conv4
I0802 07:05:04.620069 31427 net.cpp:91] Creating Layer conv4
I0802 07:05:04.620074 31427 net.cpp:425] conv4 <- conv3
I0802 07:05:04.620082 31427 net.cpp:399] conv4 -> conv4
I0802 07:05:04.624198 31427 net.cpp:141] Setting up conv4
I0802 07:05:04.624220 31427 net.cpp:148] Top shape: 10 384 13 13 (648960)
I0802 07:05:04.624225 31427 net.cpp:156] Memory required for data: 61192760
I0802 07:05:04.624235 31427 layer_factory.hpp:77] Creating layer relu4
I0802 07:05:04.624243 31427 net.cpp:91] Creating Layer relu4
I0802 07:05:04.624249 31427 net.cpp:425] relu4 <- conv4
I0802 07:05:04.624258 31427 net.cpp:386] relu4 -> conv4 (in-place)
I0802 07:05:04.624707 31427 net.cpp:141] Setting up relu4
I0802 07:05:04.624719 31427 net.cpp:148] Top shape: 10 384 13 13 (648960)
I0802 07:05:04.624724 31427 net.cpp:156] Memory required for data: 63788600
I0802 07:05:04.624729 31427 layer_factory.hpp:77] Creating layer conv5
I0802 07:05:04.624742 31427 net.cpp:91] Creating Layer conv5
I0802 07:05:04.624747 31427 net.cpp:425] conv5 <- conv4
I0802 07:05:04.624755 31427 net.cpp:399] conv5 -> conv5
I0802 07:05:04.628700 31427 net.cpp:141] Setting up conv5
I0802 07:05:04.628717 31427 net.cpp:148] Top shape: 10 256 13 13 (432640)
I0802 07:05:04.628722 31427 net.cpp:156] Memory required for data: 65519160
I0802 07:05:04.628734 31427 layer_factory.hpp:77] Creating layer relu5
I0802 07:05:04.628743 31427 net.cpp:91] Creating Layer relu5
I0802 07:05:04.628748 31427 net.cpp:425] relu5 <- conv5
I0802 07:05:04.628757 31427 net.cpp:386] relu5 -> conv5 (in-place)
I0802 07:05:04.629215 31427 net.cpp:141] Setting up relu5
I0802 07:05:04.629226 31427 net.cpp:148] Top shape: 10 256 13 13 (432640)
I0802 07:05:04.629231 31427 net.cpp:156] Memory required for data: 67249720
I0802 07:05:04.629236 31427 layer_factory.hpp:77] Creating layer pool5
I0802 07:05:04.629250 31427 net.cpp:91] Creating Layer pool5
I0802 07:05:04.629254 31427 net.cpp:425] pool5 <- conv5
I0802 07:05:04.629261 31427 net.cpp:399] pool5 -> pool5
I0802 07:05:04.629323 31427 net.cpp:141] Setting up pool5
I0802 07:05:04.629331 31427 net.cpp:148] Top shape: 10 256 6 6 (92160)
I0802 07:05:04.629335 31427 net.cpp:156] Memory required for data: 67618360
I0802 07:05:04.629340 31427 layer_factory.hpp:77] Creating layer fc6
I0802 07:05:04.629353 31427 net.cpp:91] Creating Layer fc6
I0802 07:05:04.629357 31427 net.cpp:425] fc6 <- pool5
I0802 07:05:04.629367 31427 net.cpp:399] fc6 -> fc6
I0802 07:05:04.727111 31427 net.cpp:141] Setting up fc6
I0802 07:05:04.727185 31427 net.cpp:148] Top shape: 10 4096 (40960)
I0802 07:05:04.727190 31427 net.cpp:156] Memory required for data: 67782200
I0802 07:05:04.727207 31427 layer_factory.hpp:77] Creating layer relu6
I0802 07:05:04.727224 31427 net.cpp:91] Creating Layer relu6
I0802 07:05:04.727231 31427 net.cpp:425] relu6 <- fc6
I0802 07:05:04.727241 31427 net.cpp:386] relu6 -> fc6 (in-place)
I0802 07:05:04.727573 31427 net.cpp:141] Setting up relu6
I0802 07:05:04.727584 31427 net.cpp:148] Top shape: 10 4096 (40960)
I0802 07:05:04.727589 31427 net.cpp:156] Memory required for data: 67946040
I0802 07:05:04.727594 31427 layer_factory.hpp:77] Creating layer drop6
I0802 07:05:04.727617 31427 net.cpp:91] Creating Layer drop6
I0802 07:05:04.727624 31427 net.cpp:425] drop6 <- fc6
I0802 07:05:04.727632 31427 net.cpp:386] drop6 -> fc6 (in-place)
I0802 07:05:04.727679 31427 net.cpp:141] Setting up drop6
I0802 07:05:04.727689 31427 net.cpp:148] Top shape: 10 4096 (40960)
I0802 07:05:04.727692 31427 net.cpp:156] Memory required for data: 68109880
I0802 07:05:04.727697 31427 layer_factory.hpp:77] Creating layer fc7
I0802 07:05:04.727713 31427 net.cpp:91] Creating Layer fc7
I0802 07:05:04.727718 31427 net.cpp:425] fc7 <- fc6
I0802 07:05:04.727727 31427 net.cpp:399] fc7 -> fc7
I0802 07:05:04.755383 31417 net.cpp:141] Setting up embedding
I0802 07:05:04.755445 31417 net.cpp:148] Top shape: 1 1 500 (500)
I0802 07:05:04.755452 31417 net.cpp:156] Memory required for data: 22408
I0802 07:05:04.755467 31417 layer_factory.hpp:77] Creating layer lstm1
I0802 07:05:04.755484 31417 net.cpp:91] Creating Layer lstm1
I0802 07:05:04.755492 31417 net.cpp:425] lstm1 <- embedded_input_frames
I0802 07:05:04.755501 31417 net.cpp:425] lstm1 <- cont_sentence_input_1_split_0
I0802 07:05:04.755509 31417 net.cpp:399] lstm1 -> lstm1
I0802 07:05:04.755544 31417 recurrent_layer.cpp:20] Initializing recurrent layer: assuming input batch contains 1 timesteps of 1 independent streams.
I0802 07:05:04.755884 31417 net.cpp:49] Initializing net from parameters: 
layer {
  name: "lstm1_"
  type: "Input"
  top: "x"
  top: "cont"
  input_param {
    shape {
      dim: 1
      dim: 1
      dim: 500
    }
    shape {
      dim: 1
      dim: 1
    }
  }
}
layer {
  name: "lstm1_"
  type: "Input"
  top: "c_0"
  top: "h_0"
  input_param {
    shape {
      dim: 1
      dim: 1
      dim: 1000
    }
    shape {
      dim: 1
      dim: 1
      dim: 1000
    }
  }
}
layer {
  name: "lstm1_cont_slice"
  type: "Slice"
  bottom: "cont"
  top: "cont_1"
  slice_param {
    axis: 0
  }
}
layer {
  name: "lstm1_x_transform"
  type: "InnerProduct"
  bottom: "x"
  top: "W_xc_x"
  param {
    name: "W_xc"
  }
  param {
    name: "b_c"
  }
  propagate_down: true
  inner_product_param {
    num_output: 4000
    bias_term: true
    weight_filler {
      type: "uniform"
      min: -0.08
      max: 0.08
    }
    bias_filler {
      type: "constant"
      value: 0
    }
    axis: 2
  }
}
layer {
  name: "lstm1_W_xc_x_slice"
  type: "Slice"
  bottom: "W_xc_x"
  top: "W_xc_x_1"
  slice_param {
    axis: 0
  }
}
layer {
  name: "lstm1_h_conted_0"
  type: "Scale"
  bottom: "h_0"
  bottom: "cont_1"
  top: "h_conted_0"
  scale_param {
    axis: 0
  }
}
layer {
  name: "lstm1_transform_1"
  type: "InnerProduct"
  bottom: "h_conted_0"
  top: "W_hc_h_0"
  param {
    name: "W_hc"
  }
  inner_product_param {
    num_output: 4000
    bias_term: false
    weight_filler {
      type: "uniform"
      min: -0.08
      max: 0.08
    }
    axis: 2
  }
}
layer {
  name: "lstm1_gate_input_1"
  type: "Eltwise"
  bottom: "W_hc_h_0"
  bottom: "W_xc_x_1"
  top: "gate_input_1"
  eltwise_param {
    operation: SUM
  }
}
layer {
  name: "lstm1_unit_1"
  type: "LSTMUnit"
  bottom: "c_0"
  bottom: "gate_input_1"
  bottom: "cont_1"
  top: "c_1"
  top: "h_1"
}
layer {
  name: "lstm1_"
  type: "Split"
  bottom: "c_1"
  top: "c_T"
}
layer {
  name: "lstm1_h_concat"
  type: "Concat"
  bottom: "h_1"
  top: "h"
  concat_param {
    axis: 0
  }
}
layer {
  name: "h_pseudoloss"
  type: "Reduction"
  bottom: "h"
  top: "h_pseudoloss"
  loss_weight: 1
}
I0802 07:05:04.755970 31417 layer_factory.hpp:77] Creating layer lstm1_
I0802 07:05:04.755983 31417 net.cpp:91] Creating Layer lstm1_
I0802 07:05:04.755990 31417 net.cpp:399] lstm1_ -> x
I0802 07:05:04.756001 31417 net.cpp:399] lstm1_ -> cont
I0802 07:05:04.756078 31417 net.cpp:141] Setting up lstm1_
I0802 07:05:04.756091 31417 net.cpp:148] Top shape: 1 1 500 (500)
I0802 07:05:04.756098 31417 net.cpp:148] Top shape: 1 1 (1)
I0802 07:05:04.756101 31417 net.cpp:156] Memory required for data: 2004
I0802 07:05:04.756106 31417 layer_factory.hpp:77] Creating layer lstm1_
I0802 07:05:04.756115 31417 net.cpp:91] Creating Layer lstm1_
I0802 07:05:04.756121 31417 net.cpp:399] lstm1_ -> c_0
I0802 07:05:04.756134 31417 net.cpp:399] lstm1_ -> h_0
I0802 07:05:04.756184 31417 net.cpp:141] Setting up lstm1_
I0802 07:05:04.756192 31417 net.cpp:148] Top shape: 1 1 1000 (1000)
I0802 07:05:04.756198 31417 net.cpp:148] Top shape: 1 1 1000 (1000)
I0802 07:05:04.756202 31417 net.cpp:156] Memory required for data: 10004
I0802 07:05:04.756207 31417 layer_factory.hpp:77] Creating layer lstm1_cont_slice
I0802 07:05:04.756218 31417 net.cpp:91] Creating Layer lstm1_cont_slice
I0802 07:05:04.756223 31417 net.cpp:425] lstm1_cont_slice <- cont
I0802 07:05:04.756230 31417 net.cpp:399] lstm1_cont_slice -> cont_1
I0802 07:05:04.756266 31417 net.cpp:141] Setting up lstm1_cont_slice
I0802 07:05:04.756275 31417 net.cpp:148] Top shape: 1 1 (1)
I0802 07:05:04.756279 31417 net.cpp:156] Memory required for data: 10008
I0802 07:05:04.756284 31417 layer_factory.hpp:77] Creating layer cont_1_lstm1_cont_slice_0_split
I0802 07:05:04.756291 31417 net.cpp:91] Creating Layer cont_1_lstm1_cont_slice_0_split
I0802 07:05:04.756295 31417 net.cpp:425] cont_1_lstm1_cont_slice_0_split <- cont_1
I0802 07:05:04.756304 31417 net.cpp:399] cont_1_lstm1_cont_slice_0_split -> cont_1_lstm1_cont_slice_0_split_0
I0802 07:05:04.756312 31417 net.cpp:399] cont_1_lstm1_cont_slice_0_split -> cont_1_lstm1_cont_slice_0_split_1
I0802 07:05:04.756358 31417 net.cpp:141] Setting up cont_1_lstm1_cont_slice_0_split
I0802 07:05:04.756366 31417 net.cpp:148] Top shape: 1 1 (1)
I0802 07:05:04.756371 31417 net.cpp:148] Top shape: 1 1 (1)
I0802 07:05:04.756376 31417 net.cpp:156] Memory required for data: 10016
I0802 07:05:04.756381 31417 layer_factory.hpp:77] Creating layer lstm1_x_transform
I0802 07:05:04.756392 31417 net.cpp:91] Creating Layer lstm1_x_transform
I0802 07:05:04.756397 31417 net.cpp:425] lstm1_x_transform <- x
I0802 07:05:04.756405 31417 net.cpp:399] lstm1_x_transform -> W_xc_x
I0802 07:05:04.771304 31427 net.cpp:141] Setting up fc7
I0802 07:05:04.771371 31427 net.cpp:148] Top shape: 10 4096 (40960)
I0802 07:05:04.771378 31427 net.cpp:156] Memory required for data: 68273720
I0802 07:05:04.771392 31427 layer_factory.hpp:77] Creating layer relu7
I0802 07:05:04.771409 31427 net.cpp:91] Creating Layer relu7
I0802 07:05:04.771414 31427 net.cpp:425] relu7 <- fc7
I0802 07:05:04.771423 31427 net.cpp:386] relu7 -> fc7 (in-place)
I0802 07:05:04.772214 31427 net.cpp:141] Setting up relu7
I0802 07:05:04.772228 31427 net.cpp:148] Top shape: 10 4096 (40960)
I0802 07:05:04.772233 31427 net.cpp:156] Memory required for data: 68437560
I0802 07:05:04.772238 31427 layer_factory.hpp:77] Creating layer drop7
I0802 07:05:04.772249 31427 net.cpp:91] Creating Layer drop7
I0802 07:05:04.772254 31427 net.cpp:425] drop7 <- fc7
I0802 07:05:04.772260 31427 net.cpp:386] drop7 -> fc7 (in-place)
I0802 07:05:04.772305 31427 net.cpp:141] Setting up drop7
I0802 07:05:04.772320 31427 net.cpp:148] Top shape: 10 4096 (40960)
I0802 07:05:04.772325 31427 net.cpp:156] Memory required for data: 68601400
I0802 07:05:04.772330 31427 layer_factory.hpp:77] Creating layer fc8
I0802 07:05:04.772343 31427 net.cpp:91] Creating Layer fc8
I0802 07:05:04.772348 31427 net.cpp:425] fc8 <- fc7
I0802 07:05:04.772356 31427 net.cpp:399] fc8 -> fc8
I0802 07:05:04.779825 31417 net.cpp:141] Setting up lstm1_x_transform
I0802 07:05:04.779862 31417 net.cpp:148] Top shape: 1 1 4000 (4000)
I0802 07:05:04.779868 31417 net.cpp:156] Memory required for data: 26016
I0802 07:05:04.779884 31417 layer_factory.hpp:77] Creating layer lstm1_W_xc_x_slice
I0802 07:05:04.779897 31417 net.cpp:91] Creating Layer lstm1_W_xc_x_slice
I0802 07:05:04.779903 31417 net.cpp:425] lstm1_W_xc_x_slice <- W_xc_x
I0802 07:05:04.779917 31417 net.cpp:399] lstm1_W_xc_x_slice -> W_xc_x_1
I0802 07:05:04.779955 31417 net.cpp:141] Setting up lstm1_W_xc_x_slice
I0802 07:05:04.779965 31417 net.cpp:148] Top shape: 1 1 4000 (4000)
I0802 07:05:04.779969 31417 net.cpp:156] Memory required for data: 42016
I0802 07:05:04.779973 31417 layer_factory.hpp:77] Creating layer lstm1_h_conted_0
I0802 07:05:04.779983 31417 net.cpp:91] Creating Layer lstm1_h_conted_0
I0802 07:05:04.779994 31417 net.cpp:425] lstm1_h_conted_0 <- h_0
I0802 07:05:04.780000 31417 net.cpp:425] lstm1_h_conted_0 <- cont_1_lstm1_cont_slice_0_split_0
I0802 07:05:04.780021 31417 net.cpp:399] lstm1_h_conted_0 -> h_conted_0
I0802 07:05:04.780109 31417 net.cpp:141] Setting up lstm1_h_conted_0
I0802 07:05:04.780118 31417 net.cpp:148] Top shape: 1 1 1000 (1000)
I0802 07:05:04.780122 31417 net.cpp:156] Memory required for data: 46016
I0802 07:05:04.780128 31417 layer_factory.hpp:77] Creating layer lstm1_transform_1
I0802 07:05:04.780138 31417 net.cpp:91] Creating Layer lstm1_transform_1
I0802 07:05:04.780143 31417 net.cpp:425] lstm1_transform_1 <- h_conted_0
I0802 07:05:04.780155 31417 net.cpp:399] lstm1_transform_1 -> W_hc_h_0
I0802 07:05:04.788245 31427 net.cpp:141] Setting up fc8
I0802 07:05:04.788300 31427 net.cpp:148] Top shape: 10 1000 (10000)
I0802 07:05:04.788306 31427 net.cpp:156] Memory required for data: 68641400
I0802 07:05:04.788322 31427 layer_factory.hpp:77] Creating layer prob
I0802 07:05:04.788341 31427 net.cpp:91] Creating Layer prob
I0802 07:05:04.788347 31427 net.cpp:425] prob <- fc8
I0802 07:05:04.788367 31427 net.cpp:399] prob -> prob
I0802 07:05:04.788764 31427 net.cpp:141] Setting up prob
I0802 07:05:04.788775 31427 net.cpp:148] Top shape: 10 1000 (10000)
I0802 07:05:04.788780 31427 net.cpp:156] Memory required for data: 68681400
I0802 07:05:04.788785 31427 net.cpp:219] prob does not need backward computation.
I0802 07:05:04.788790 31427 net.cpp:219] fc8 does not need backward computation.
I0802 07:05:04.788802 31427 net.cpp:219] drop7 does not need backward computation.
I0802 07:05:04.788806 31427 net.cpp:219] relu7 does not need backward computation.
…
I0802 07:05:04.788874 31427 net.cpp:219] norm1 does not need backward computation.
I0802 07:05:04.788878 31427 net.cpp:219] pool1 does not need backward computation.
I0802 07:05:04.788882 31427 net.cpp:219] relu1 does not need backward computation.
I0802 07:05:04.788887 31427 net.cpp:219] conv1 does not need backward computation.
I0802 07:05:04.788892 31427 net.cpp:219] data does not need backward computation.
I0802 07:05:04.788894 31427 net.cpp:261] This network produces output prob
I0802 07:05:04.788915 31427 net.cpp:274] Network initialization done.
I0802 07:05:04.818282 31417 net.cpp:141] Setting up lstm1_transform_1
I0802 07:05:04.818325 31417 net.cpp:148] Top shape: 1 1 4000 (4000)
I0802 07:05:04.818331 31417 net.cpp:156] Memory required for data: 62016
I0802 07:05:04.818347 31417 layer_factory.hpp:77] Creating layer lstm1_gate_input_1
I0802 07:05:04.818364 31417 net.cpp:91] Creating Layer lstm1_gate_input_1
I0802 07:05:04.818372 31417 net.cpp:425] lstm1_gate_input_1 <- W_hc_h_0
I0802 07:05:04.818379 31417 net.cpp:425] lstm1_gate_input_1 <- W_xc_x_1
I0802 07:05:04.818389 31417 net.cpp:399] lstm1_gate_input_1 -> gate_input_1
I0802 07:05:04.818445 31417 net.cpp:141] Setting up lstm1_gate_input_1
I0802 07:05:04.818454 31417 net.cpp:148] Top shape: 1 1 4000 (4000)
I0802 07:05:04.818459 31417 net.cpp:156] Memory required for data: 78016
I0802 07:05:04.818464 31417 layer_factory.hpp:77] Creating layer lstm1_unit_1
I0802 07:05:04.818471 31417 net.cpp:91] Creating Layer lstm1_unit_1
I0802 07:05:04.818476 31417 net.cpp:425] lstm1_unit_1 <- c_0
I0802 07:05:04.818482 31417 net.cpp:425] lstm1_unit_1 <- gate_input_1
I0802 07:05:04.818487 31417 net.cpp:425] lstm1_unit_1 <- cont_1_lstm1_cont_slice_0_split_1
I0802 07:05:04.818495 31417 net.cpp:399] lstm1_unit_1 -> c_1
I0802 07:05:04.818506 31417 net.cpp:399] lstm1_unit_1 -> h_1
I0802 07:05:04.818567 31417 net.cpp:141] Setting up lstm1_unit_1
I0802 07:05:04.818575 31417 net.cpp:148] Top shape: 1 1 1000 (1000)
I0802 07:05:04.818581 31417 net.cpp:148] Top shape: 1 1 1000 (1000)
I0802 07:05:04.818585 31417 net.cpp:156] Memory required for data: 86016
I0802 07:05:04.818589 31417 layer_factory.hpp:77] Creating layer lstm1_
I0802 07:05:04.818598 31417 net.cpp:91] Creating Layer lstm1_
I0802 07:05:04.818603 31417 net.cpp:425] lstm1_ <- c_1
I0802 07:05:04.818609 31417 net.cpp:399] lstm1_ -> c_T
I0802 07:05:04.818641 31417 net.cpp:141] Setting up lstm1_
I0802 07:05:04.818650 31417 net.cpp:148] Top shape: 1 1 1000 (1000)
I0802 07:05:04.818655 31417 net.cpp:156] Memory required for data: 90016
I0802 07:05:04.818658 31417 layer_factory.hpp:77] Creating layer lstm1_h_concat
I0802 07:05:04.818667 31417 net.cpp:91] Creating Layer lstm1_h_concat
I0802 07:05:04.818672 31417 net.cpp:425] lstm1_h_concat <- h_1
I0802 07:05:04.818678 31417 net.cpp:399] lstm1_h_concat -> h
I0802 07:05:04.818717 31417 net.cpp:141] Setting up lstm1_h_concat
I0802 07:05:04.818727 31417 net.cpp:148] Top shape: 1 1 1000 (1000)
I0802 07:05:04.818730 31417 net.cpp:156] Memory required for data: 94016
I0802 07:05:04.818734 31417 layer_factory.hpp:77] Creating layer h_pseudoloss
I0802 07:05:04.818750 31417 net.cpp:91] Creating Layer h_pseudoloss
I0802 07:05:04.818755 31417 net.cpp:425] h_pseudoloss <- h
I0802 07:05:04.818763 31417 net.cpp:399] h_pseudoloss -> h_pseudoloss
I0802 07:05:04.818853 31417 net.cpp:141] Setting up h_pseudoloss
…
I0802 07:05:04.818964 31417 net.cpp:219] lstm1_ does not need backward computation.
I0802 07:05:04.818969 31417 net.cpp:261] This network produces output c_T
I0802 07:05:04.818972 31417 net.cpp:261] This network produces output h_pseudoloss
I0802 07:05:04.818990 31417 net.cpp:274] Network initialization done.
I0802 07:05:04.819038 31417 recurrent_layer.cpp:150] Adding parameter 0: W_xc
I0802 07:05:04.819044 31417 recurrent_layer.cpp:150] Adding parameter 1: b_c
I0802 07:05:04.819049 31417 recurrent_layer.cpp:150] Adding parameter 2: W_hc
I0802 07:05:04.819155 31417 net.cpp:141] Setting up lstm1
I0802 07:05:04.819166 31417 net.cpp:148] Top shape: 1 1 1000 (1000)
I0802 07:05:04.819171 31417 net.cpp:156] Memory required for data: 26408
I0802 07:05:04.819183 31417 layer_factory.hpp:77] Creating layer concat
I0802 07:05:04.819192 31417 net.cpp:91] Creating Layer concat
I0802 07:05:04.819198 31417 net.cpp:425] concat <- lstm1
I0802 07:05:04.819205 31417 net.cpp:425] concat <- embedded_input_sentence
I0802 07:05:04.819211 31417 net.cpp:425] concat <- reshaped_stage_indicator
I0802 07:05:04.819216 31417 net.cpp:399] concat -> lstm1_video_sequence
I0802 07:05:04.819249 31417 net.cpp:141] Setting up concat
I0802 07:05:04.819257 31417 net.cpp:148] Top shape: 1 1 1501 (1501)
I0802 07:05:04.819262 31417 net.cpp:156] Memory required for data: 32412
I0802 07:05:04.819267 31417 layer_factory.hpp:77] Creating layer lstm2
I0802 07:05:04.819278 31417 net.cpp:91] Creating Layer lstm2
I0802 07:05:04.819283 31417 net.cpp:425] lstm2 <- lstm1_video_sequence
I0802 07:05:04.819288 31417 net.cpp:425] lstm2 <- cont_sentence_input_1_split_1
I0802 07:05:04.819295 31417 net.cpp:399] lstm2 -> lstm2
I0802 07:05:04.819305 31417 recurrent_layer.cpp:20] Initializing recurrent layer: assuming input batch contains 1 timesteps of 1 independent streams.
I0802 07:05:04.819540 31417 net.cpp:49] Initializing net from parameters: 
layer {
  name: "lstm2_"
  type: "Input"
  top: "x"
  top: "cont"
  input_param {
    shape {
      dim: 1
      dim: 1
      dim: 1501
    }
    shape {
      dim: 1
      dim: 1
    }
  }
}
layer {
  name: "lstm2_"
  type: "Input"
  top: "c_0"
  top: "h_0"
  input_param {
    shape {
      dim: 1
      dim: 1
      dim: 1000
    }
    shape {
      dim: 1
      dim: 1
      dim: 1000
    }
  }
}
layer {
  name: "lstm2_cont_slice"
  type: "Slice"
  bottom: "cont"
  top: "cont_1"
  slice_param {
    axis: 0
  }
}
layer {
  name: "lstm2_x_transform"
  type: "InnerProduct"
  bottom: "x"
  top: "W_xc_x"
  param {
    name: "W_xc"
  }
  param {
    name: "b_c"
  }
  propagate_down: true
  inner_product_param {
    num_output: 4000
    bias_term: true
    weight_filler {
      type: "uniform"
      min: -0.08
      max: 0.08
    }
    bias_filler {
      type: "constant"
      value: 0
    }
    axis: 2
  }
}
layer {
  name: "lstm2_W_xc_x_slice"
  type: "Slice"
  bottom: "W_xc_x"
  top: "W_xc_x_1"
  slice_param {
    axis: 0
  }
}
layer {
  name: "lstm2_h_conted_0"
  type: "Scale"
  bottom: "h_0"
  bottom: "cont_1"
  top: "h_conted_0"
  scale_param {
    axis: 0
  }
}
layer {
  name: "lstm2_transform_1"
  type: "InnerProduct"
  bottom: "h_conted_0"
  top: "W_hc_h_0"
  param {
    name: "W_hc"
  }
  inner_product_param {
    num_output: 4000
    bias_term: false
    weight_filler {
      type: "uniform"
      min: -0.08
      max: 0.08
    }
    axis: 2
  }
}
layer {
  name: "lstm2_gate_input_1"
  type: "Eltwise"
  bottom: "W_hc_h_0"
  bottom: "W_xc_x_1"
  top: "gate_input_1"
  eltwise_param {
    operation: SUM
  }
}
layer {
  name: "lstm2_unit_1"
  type: "LSTMUnit"
  bottom: "c_0"
  bottom: "gate_input_1"
  bottom: "cont_1"
  top: "c_1"
  top: "h_1"
}
layer {
  name: "lstm2_"
  type: "Split"
  bottom: "c_1"
  top: "c_T"
}
layer {
  name: "lstm2_h_concat"
  type: "Concat"
  bottom: "h_1"
  top: "h"
  concat_param {
    axis: 0
  }
}
layer {
  name: "h_pseudoloss"
  type: "Reduction"
  bottom: "h"
  top: "h_pseudoloss"
  loss_weight: 1
}
I0802 07:05:04.819622 31417 layer_factory.hpp:77] Creating layer lstm2_
I0802 07:05:04.819633 31417 net.cpp:91] Creating Layer lstm2_
I0802 07:05:04.819639 31417 net.cpp:399] lstm2_ -> x
I0802 07:05:04.819649 31417 net.cpp:399] lstm2_ -> cont
I0802 07:05:04.819702 31417 net.cpp:141] Setting up lstm2_
I0802 07:05:04.819711 31417 net.cpp:148] Top shape: 1 1 1501 (1501)
I0802 07:05:04.819717 31417 net.cpp:148] Top shape: 1 1 (1)
I0802 07:05:04.819721 31417 net.cpp:156] Memory required for data: 6008
I0802 07:05:04.819726 31417 layer_factory.hpp:77] Creating layer lstm2_
I0802 07:05:04.819735 31417 net.cpp:91] Creating Layer lstm2_
I0802 07:05:04.819743 31417 net.cpp:399] lstm2_ -> c_0
I0802 07:05:04.819753 31417 net.cpp:399] lstm2_ -> h_0
I0802 07:05:04.819797 31417 net.cpp:141] Setting up lstm2_
I0802 07:05:04.819805 31417 net.cpp:148] Top shape: 1 1 1000 (1000)
I0802 07:05:04.819810 31417 net.cpp:148] Top shape: 1 1 1000 (1000)
I0802 07:05:04.819814 31417 net.cpp:156] Memory required for data: 14008
I0802 07:05:04.819819 31417 layer_factory.hpp:77] Creating layer lstm2_cont_slice
I0802 07:05:04.819831 31417 net.cpp:91] Creating Layer lstm2_cont_slice
I0802 07:05:04.819836 31417 net.cpp:425] lstm2_cont_slice <- cont
I0802 07:05:04.819844 31417 net.cpp:399] lstm2_cont_slice -> cont_1
I0802 07:05:04.819875 31417 net.cpp:141] Setting up lstm2_cont_slice
I0802 07:05:04.819883 31417 net.cpp:148] Top shape: 1 1 (1)
I0802 07:05:04.819887 31417 net.cpp:156] Memory required for data: 14012
I0802 07:05:04.819891 31417 layer_factory.hpp:77] Creating layer cont_1_lstm2_cont_slice_0_split
I0802 07:05:04.819898 31417 net.cpp:91] Creating Layer cont_1_lstm2_cont_slice_0_split
I0802 07:05:04.819902 31417 net.cpp:425] cont_1_lstm2_cont_slice_0_split <- cont_1
I0802 07:05:04.819911 31417 net.cpp:399] cont_1_lstm2_cont_slice_0_split -> cont_1_lstm2_cont_slice_0_split_0
I0802 07:05:04.819919 31417 net.cpp:399] cont_1_lstm2_cont_slice_0_split -> cont_1_lstm2_cont_slice_0_split_1
I0802 07:05:04.819963 31417 net.cpp:141] Setting up cont_1_lstm2_cont_slice_0_split
I0802 07:05:04.819972 31417 net.cpp:148] Top shape: 1 1 (1)
I0802 07:05:04.819977 31417 net.cpp:148] Top shape: 1 1 (1)
I0802 07:05:04.819980 31417 net.cpp:156] Memory required for data: 14020
I0802 07:05:04.819985 31417 layer_factory.hpp:77] Creating layer lstm2_x_transform
I0802 07:05:04.819996 31417 net.cpp:91] Creating Layer lstm2_x_transform
I0802 07:05:04.820001 31417 net.cpp:425] lstm2_x_transform <- x
I0802 07:05:04.820016 31417 net.cpp:399] lstm2_x_transform -> W_xc_x
I0802 07:05:04.876332 31417 net.cpp:141] Setting up lstm2_x_transform
I0802 07:05:04.876389 31417 net.cpp:148] Top shape: 1 1 4000 (4000)
I0802 07:05:04.876396 31417 net.cpp:156] Memory required for data: 30020
I0802 07:05:04.876418 31417 layer_factory.hpp:77] Creating layer lstm2_W_xc_x_slice
I0802 07:05:04.876433 31417 net.cpp:91] Creating Layer lstm2_W_xc_x_slice
I0802 07:05:04.876440 31417 net.cpp:425] lstm2_W_xc_x_slice <- W_xc_x
I0802 07:05:04.876449 31417 net.cpp:399] lstm2_W_xc_x_slice -> W_xc_x_1
I0802 07:05:04.876492 31417 net.cpp:141] Setting up lstm2_W_xc_x_slice
I0802 07:05:04.876502 31417 net.cpp:148] Top shape: 1 1 4000 (4000)
I0802 07:05:04.876505 31417 net.cpp:156] Memory required for data: 46020
I0802 07:05:04.876510 31417 layer_factory.hpp:77] Creating layer lstm2_h_conted_0
I0802 07:05:04.876525 31417 net.cpp:91] Creating Layer lstm2_h_conted_0
I0802 07:05:04.876530 31417 net.cpp:425] lstm2_h_conted_0 <- h_0
I0802 07:05:04.876536 31417 net.cpp:425] lstm2_h_conted_0 <- cont_1_lstm2_cont_slice_0_split_0
I0802 07:05:04.876544 31417 net.cpp:399] lstm2_h_conted_0 -> h_conted_0
I0802 07:05:04.876641 31417 net.cpp:141] Setting up lstm2_h_conted_0
I0802 07:05:04.876651 31417 net.cpp:148] Top shape: 1 1 1000 (1000)
I0802 07:05:04.876654 31417 net.cpp:156] Memory required for data: 50020
I0802 07:05:04.876658 31417 layer_factory.hpp:77] Creating layer lstm2_transform_1
I0802 07:05:04.876669 31417 net.cpp:91] Creating Layer lstm2_transform_1
I0802 07:05:04.876674 31417 net.cpp:425] lstm2_transform_1 <- h_conted_0
I0802 07:05:04.876682 31417 net.cpp:399] lstm2_transform_1 -> W_hc_h_0
I0802 07:05:04.914324 31417 net.cpp:141] Setting up lstm2_transform_1
I0802 07:05:04.914383 31417 net.cpp:148] Top shape: 1 1 4000 (4000)
I0802 07:05:04.914389 31417 net.cpp:156] Memory required for data: 66020
I0802 07:05:04.914407 31417 layer_factory.hpp:77] Creating layer lstm2_gate_input_1
I0802 07:05:04.914427 31417 net.cpp:91] Creating Layer lstm2_gate_input_1
I0802 07:05:04.914434 31417 net.cpp:425] lstm2_gate_input_1 <- W_hc_h_0
I0802 07:05:04.914443 31417 net.cpp:425] lstm2_gate_input_1 <- W_xc_x_1
I0802 07:05:04.914450 31417 net.cpp:399] lstm2_gate_input_1 -> gate_input_1
I0802 07:05:04.914499 31417 net.cpp:141] Setting up lstm2_gate_input_1
I0802 07:05:04.914508 31417 net.cpp:148] Top shape: 1 1 4000 (4000)
I0802 07:05:04.914512 31417 net.cpp:156] Memory required for data: 82020
I0802 07:05:04.914516 31417 layer_factory.hpp:77] Creating layer lstm2_unit_1
I0802 07:05:04.914525 31417 net.cpp:91] Creating Layer lstm2_unit_1
I0802 07:05:04.914530 31417 net.cpp:425] lstm2_unit_1 <- c_0
I0802 07:05:04.914536 31417 net.cpp:425] lstm2_unit_1 <- gate_input_1
I0802 07:05:04.914541 31417 net.cpp:425] lstm2_unit_1 <- cont_1_lstm2_cont_slice_0_split_1
I0802 07:05:04.914547 31417 net.cpp:399] lstm2_unit_1 -> c_1
I0802 07:05:04.914556 31417 net.cpp:399] lstm2_unit_1 -> h_1
I0802 07:05:04.914616 31417 net.cpp:141] Setting up lstm2_unit_1
I0802 07:05:04.914625 31417 net.cpp:148] Top shape: 1 1 1000 (1000)
I0802 07:05:04.914630 31417 net.cpp:148] Top shape: 1 1 1000 (1000)
I0802 07:05:04.914635 31417 net.cpp:156] Memory required for data: 90020
I0802 07:05:04.914639 31417 layer_factory.hpp:77] Creating layer lstm2_
I0802 07:05:04.914649 31417 net.cpp:91] Creating Layer lstm2_
I0802 07:05:04.914654 31417 net.cpp:425] lstm2_ <- c_1
I0802 07:05:04.914661 31417 net.cpp:399] lstm2_ -> c_T
I0802 07:05:04.914691 31417 net.cpp:141] Setting up lstm2_
I0802 07:05:04.914700 31417 net.cpp:148] Top shape: 1 1 1000 (1000)
I0802 07:05:04.914703 31417 net.cpp:156] Memory required for data: 94020
I0802 07:05:04.914707 31417 layer_factory.hpp:77] Creating layer lstm2_h_concat
I0802 07:05:04.914716 31417 net.cpp:91] Creating Layer lstm2_h_concat
I0802 07:05:04.914721 31417 net.cpp:425] lstm2_h_concat <- h_1
I0802 07:05:04.914731 31417 net.cpp:399] lstm2_h_concat -> h
I0802 07:05:04.914764 31417 net.cpp:141] Setting up lstm2_h_concat
I0802 07:05:04.914772 31417 net.cpp:148] Top shape: 1 1 1000 (1000)
I0802 07:05:04.914777 31417 net.cpp:156] Memory required for data: 98020
I0802 07:05:04.914780 31417 layer_factory.hpp:77] Creating layer h_pseudoloss
I0802 07:05:04.914789 31417 net.cpp:91] Creating Layer h_pseudoloss
I0802 07:05:04.914794 31417 net.cpp:425] h_pseudoloss <- h
I0802 07:05:04.914801 31417 net.cpp:399] h_pseudoloss -> h_pseudoloss
I0802 07:05:04.914887 31417 net.cpp:141] Setting up h_pseudoloss
…
