…
Java HotSpot(TM) 64-Bit Server VM warning: You have loaded library /tmp/cvld6920059310877616933/libopencv_java310.xine1.so which might have disabled stack guard. The VM will try to fix the stack guard now.
It's highly recommended that you fix the library with 'execstack -c <libfile>', or link it with '-z noexecstack'.
WARNING: Logging before InitGoogleLogging() is written to STDERR
I0730 10:54:59.467326 23943 net.cpp:49] Initializing net from parameters: 
name: "CaffeNet"
state {
  phase: TEST
}
layer {
  name: "data"
  type: "Input"
  top: "data"
  input_param {
    shape {
      dim: 10
      dim: 3
      dim: 227
      dim: 227
    }
  }
}
layer {
  name: "conv1"
  type: "Convolution"
  bottom: "data"
  top: "conv1"
  convolution_param {
    num_output: 96
    kernel_size: 11
    stride: 4
  }
}
layer {
  name: "relu1"
  type: "ReLU"
  bottom: "conv1"
  top: "conv1"
}
layer {
  name: "pool1"
  type: "Pooling"
  bottom: "conv1"
  top: "pool1"
  pooling_param {
    pool: MAX
    kernel_size: 3
    stride: 2
  }
}
layer {
  name: "norm1"
  type: "LRN"
  bottom: "pool1"
  top: "norm1"
  lrn_param {
    local_size: 5
    alpha: 0.0001
    beta: 0.75
  }
}
layer {
  name: "conv2"
  type: "Convolution"
  bottom: "norm1"
  top: "conv2"
  convolution_param {
    num_output: 256
    pad: 2
    kernel_size: 5
    group: 2
  }
}
layer {
  name: "relu2"
  type: "ReLU"
  bottom: "conv2"
  top: "conv2"
}
layer {
  name: "pool2"
  type: "Pooling"
  bottom: "conv2"
  top: "pool2"
  pooling_param {
    pool: MAX
    kernel_size: 3
    stride: 2
  }
}
layer {
  name: "norm2"
  type: "LRN"
  bottom: "pool2"
  top: "norm2"
  lrn_param {
    local_size: 5
    alpha: 0.0001
    beta: 0.75
  }
}
layer {
  name: "conv3"
  type: "Convolution"
  bottom: "norm2"
  top: "conv3"
  convolution_param {
    num_output: 384
    pad: 1
    kernel_size: 3
  }
}
layer {
  name: "relu3"
  type: "ReLU"
  bottom: "conv3"
  top: "conv3"
}
layer {
  name: "conv4"
  type: "Convolution"
  bottom: "conv3"
  top: "conv4"
  convolution_param {
    num_output: 384
    pad: 1
    kernel_size: 3
    group: 2
  }
}
layer {
  name: "relu4"
  type: "ReLU"
  bottom: "conv4"
  top: "conv4"
}
layer {
  name: "conv5"
  type: "Convolution"
  bottom: "conv4"
  top: "conv5"
  convolution_param {
    num_output: 256
    pad: 1
    kernel_size: 3
    group: 2
  }
}
layer {
  name: "relu5"
  type: "ReLU"
  bottom: "conv5"
  top: "conv5"
}
layer {
  name: "pool5"
  type: "Pooling"
  bottom: "conv5"
  top: "pool5"
  pooling_param {
    pool: MAX
    kernel_size: 3
    stride: 2
  }
}
layer {
  name: "fc6"
  type: "InnerProduct"
  bottom: "pool5"
  top: "fc6"
  inner_product_param {
    num_output: 4096
  }
}
layer {
  name: "relu6"
  type: "ReLU"
  bottom: "fc6"
  top: "fc6"
}
layer {
  name: "drop6"
  type: "Dropout"
  bottom: "fc6"
  top: "fc6"
  dropout_param {
    dropout_ratio: 0.5
  }
}
layer {
  name: "fc7"
  type: "InnerProduct"
  bottom: "fc6"
  top: "fc7"
  inner_product_param {
    num_output: 4096
  }
}
layer {
  name: "relu7"
  type: "ReLU"
  bottom: "fc7"
  top: "fc7"
}
layer {
  name: "drop7"
  type: "Dropout"
  bottom: "fc7"
  top: "fc7"
  dropout_param {
    dropout_ratio: 0.5
  }
}
layer {
  name: "fc8"
  type: "InnerProduct"
  bottom: "fc7"
  top: "fc8"
  inner_product_param {
    num_output: 1000
  }
}
layer {
  name: "prob"
  type: "Softmax"
  bottom: "fc8"
  top: "prob"
}
I0730 10:54:59.467510 23943 layer_factory.hpp:77] Creating layer data
I0730 10:54:59.467535 23943 net.cpp:91] Creating Layer data
I0730 10:54:59.467545 23943 net.cpp:399] data -> data
I0730 10:54:59.942355 23932 upgrade_proto.cpp:66] Attempting to upgrade input file specified using deprecated input fields: /tmp/cvld6920059310877616933/s2vt.words_to_preds.prototxt
I0730 10:54:59.942404 23932 upgrade_proto.cpp:69] Successfully upgraded file specified using deprecated input fields.
W0730 10:54:59.942412 23932 upgrade_proto.cpp:71] Note that future Caffe releases will only support input layers and not input fields.
I0730 10:54:59.942656 23932 net.cpp:49] Initializing net from parameters: 
name: "s2vt:features_to_lstm"
state {
  phase: TEST
}
layer {
  name: "input"
  type: "Input"
  top: "frames_fc7"
  top: "cont_sentence"
  top: "input_sentence"
  top: "stage_indicator"
  input_param {
    shape {
      dim: 1
      dim: 4096
    }
    shape {
      dim: 1
      dim: 1
    }
    shape {
      dim: 1
      dim: 1
    }
    shape {
      dim: 1
      dim: 1
    }
  }
}
layer {
  name: "embed_encoder"
  type: "InnerProduct"
  bottom: "frames_fc7"
  top: "embedded_in_frames"
  param {
    lr_mult: 1
    decay_mult: 1
  }
  param {
    lr_mult: 2
    decay_mult: 0
  }
  inner_product_param {
    num_output: 500
    weight_filler {
      type: "xavier"
    }
    bias_filler {
      type: "constant"
      value: 0.2
    }
  }
}
layer {
  name: "reshape_frames"
  type: "Reshape"
  bottom: "embedded_in_frames"
  top: "embedded_input_frames"
  reshape_param {
    shape {
      dim: 1
      dim: 1
      dim: 500
    }
  }
}
layer {
  name: "reshape_stage_indicator"
  type: "Reshape"
  bottom: "stage_indicator"
  top: "reshaped_stage_indicator"
  reshape_param {
    shape {
      dim: 1
      dim: 1
      dim: 1
    }
  }
}
layer {
  name: "embedding"
  type: "Embed"
  bottom: "input_sentence"
  top: "embedded_input_sentence"
  param {
    lr_mult: 1
  }
  embed_param {
    num_output: 500
    input_dim: 46168
    bias_term: false
    weight_filler {
      type: "uniform"
      min: -0.08
      max: 0.08
    }
  }
}
layer {
  name: "lstm1"
  type: "LSTM"
  bottom: "embedded_input_frames"
  bottom: "cont_sentence"
  top: "lstm1"
  recurrent_param {
    num_output: 1000
    weight_filler {
      type: "uniform"
      min: -0.08
      max: 0.08
    }
    bias_filler {
      type: "constant"
      value: 0
    }
  }
}
layer {
  name: "concat"
  type: "Concat"
  bottom: "lstm1"
  bottom: "embedded_input_sentence"
  bottom: "reshaped_stage_indicator"
  top: "lstm1_video_sequence"
  concat_param {
    concat_dim: 2
  }
}
layer {
  name: "lstm2"
  type: "LSTM"
  bottom: "lstm1_video_sequence"
  bottom: "cont_sentence"
  top: "lstm2"
  recurrent_param {
    num_output: 1000
    weight_filler {
      type: "uniform"
      min: -0.08
      max: 0.08
    }
    bias_filler {
      type: "constant"
      value: 0
    }
  }
}
layer {
  name: "predict"
  type: "InnerProduct"
  bottom: "lstm2"
  top: "predict"
  param {
    lr_mult: 1
    decay_mult: 1
  }
  param {
    lr_mult: 2
    decay_mult: 0
  }
  inner_product_param {
    num_output: 46168
    weight_filler {
      type: "uniform"
      min: -0.08
      max: 0.08
    }
    bias_filler {
      type: "constant"
      value: 0
    }
    axis: 2
  }
}
layer {
  name: "probs"
  type: "Softmax"
  bottom: "predict"
  top: "probs"
  softmax_param {
    axis: 2
  }
}
I0730 10:54:59.942797 23932 layer_factory.hpp:77] Creating layer input
I0730 10:54:59.942813 23932 net.cpp:91] Creating Layer input
I0730 10:54:59.942821 23932 net.cpp:399] input -> frames_fc7
I0730 10:54:59.942838 23932 net.cpp:399] input -> cont_sentence
I0730 10:54:59.942852 23932 net.cpp:399] input -> input_sentence
I0730 10:54:59.942862 23932 net.cpp:399] input -> stage_indicator
I0730 10:54:59.977378 23943 net.cpp:141] Setting up data
I0730 10:54:59.977440 23943 net.cpp:148] Top shape: 10 3 227 227 (1545870)
I0730 10:54:59.977447 23943 net.cpp:156] Memory required for data: 6183480
I0730 10:54:59.977465 23943 layer_factory.hpp:77] Creating layer conv1
I0730 10:54:59.977463 23932 net.cpp:141] Setting up input
I0730 10:54:59.977481 23932 net.cpp:148] Top shape: 1 4096 (4096)
I0730 10:54:59.977488 23932 net.cpp:148] Top shape: 1 1 (1)
I0730 10:54:59.977491 23943 net.cpp:91] Creating Layer conv1
I0730 10:54:59.977494 23932 net.cpp:148] Top shape: 1 1 (1)
I0730 10:54:59.977499 23932 net.cpp:148] Top shape: 1 1 (1)
I0730 10:54:59.977500 23943 net.cpp:425] conv1 <- data
I0730 10:54:59.977504 23932 net.cpp:156] Memory required for data: 16396
I0730 10:54:59.977510 23932 layer_factory.hpp:77] Creating layer cont_sentence_input_1_split
I0730 10:54:59.977514 23943 net.cpp:399] conv1 -> conv1
I0730 10:54:59.977531 23932 net.cpp:91] Creating Layer cont_sentence_input_1_split
I0730 10:54:59.977537 23932 net.cpp:425] cont_sentence_input_1_split <- cont_sentence
I0730 10:54:59.977558 23932 net.cpp:399] cont_sentence_input_1_split -> cont_sentence_input_1_split_0
I0730 10:54:59.977571 23932 net.cpp:399] cont_sentence_input_1_split -> cont_sentence_input_1_split_1
I0730 10:54:59.977730 23932 net.cpp:141] Setting up cont_sentence_input_1_split
I0730 10:54:59.977741 23932 net.cpp:148] Top shape: 1 1 (1)
I0730 10:54:59.977746 23932 net.cpp:148] Top shape: 1 1 (1)
I0730 10:54:59.977751 23932 net.cpp:156] Memory required for data: 16404
I0730 10:54:59.977756 23932 layer_factory.hpp:77] Creating layer embed_encoder
I0730 10:54:59.977768 23932 net.cpp:91] Creating Layer embed_encoder
I0730 10:54:59.977773 23932 net.cpp:425] embed_encoder <- frames_fc7
I0730 10:54:59.977783 23932 net.cpp:399] embed_encoder -> embedded_in_frames
I0730 10:55:00.000507 23932 net.cpp:141] Setting up embed_encoder
I0730 10:55:00.000550 23932 net.cpp:148] Top shape: 1 500 (500)
I0730 10:55:00.000555 23932 net.cpp:156] Memory required for data: 18404
I0730 10:55:00.000578 23932 layer_factory.hpp:77] Creating layer reshape_frames
I0730 10:55:00.000602 23932 net.cpp:91] Creating Layer reshape_frames
I0730 10:55:00.000609 23932 net.cpp:425] reshape_frames <- embedded_in_frames
I0730 10:55:00.000622 23932 net.cpp:399] reshape_frames -> embedded_input_frames
I0730 10:55:00.001332 23932 net.cpp:141] Setting up reshape_frames
I0730 10:55:00.001349 23932 net.cpp:148] Top shape: 1 1 500 (500)
I0730 10:55:00.001354 23932 net.cpp:156] Memory required for data: 20404
I0730 10:55:00.001359 23932 layer_factory.hpp:77] Creating layer reshape_stage_indicator
I0730 10:55:00.001373 23932 net.cpp:91] Creating Layer reshape_stage_indicator
I0730 10:55:00.001377 23932 net.cpp:425] reshape_stage_indicator <- stage_indicator
I0730 10:55:00.001386 23932 net.cpp:399] reshape_stage_indicator -> reshaped_stage_indicator
I0730 10:55:00.004448 23932 net.cpp:141] Setting up reshape_stage_indicator
I0730 10:55:00.004480 23932 net.cpp:148] Top shape: 1 1 1 (1)
I0730 10:55:00.004487 23932 net.cpp:156] Memory required for data: 20408
I0730 10:55:00.004492 23932 layer_factory.hpp:77] Creating layer embedding
I0730 10:55:00.004505 23932 net.cpp:91] Creating Layer embedding
I0730 10:55:00.004510 23932 net.cpp:425] embedding <- input_sentence
I0730 10:55:00.004519 23932 net.cpp:399] embedding -> embedded_input_sentence
I0730 10:55:00.225296 23932 net.cpp:141] Setting up embedding
I0730 10:55:00.225342 23932 net.cpp:148] Top shape: 1 1 500 (500)
I0730 10:55:00.225348 23932 net.cpp:156] Memory required for data: 22408
I0730 10:55:00.225364 23932 layer_factory.hpp:77] Creating layer lstm1
I0730 10:55:00.225384 23932 net.cpp:91] Creating Layer lstm1
I0730 10:55:00.225392 23932 net.cpp:425] lstm1 <- embedded_input_frames
I0730 10:55:00.225400 23932 net.cpp:425] lstm1 <- cont_sentence_input_1_split_0
I0730 10:55:00.225409 23932 net.cpp:399] lstm1 -> lstm1
I0730 10:55:00.225443 23932 recurrent_layer.cpp:20] Initializing recurrent layer: assuming input batch contains 1 timesteps of 1 independent streams.
I0730 10:55:00.225772 23932 net.cpp:49] Initializing net from parameters: 
layer {
  name: "lstm1_"
  type: "Input"
  top: "x"
  top: "cont"
  input_param {
    shape {
      dim: 1
      dim: 1
      dim: 500
    }
    shape {
      dim: 1
      dim: 1
    }
  }
}
layer {
  name: "lstm1_"
  type: "Input"
  top: "c_0"
  top: "h_0"
  input_param {
    shape {
      dim: 1
      dim: 1
      dim: 1000
    }
    shape {
      dim: 1
      dim: 1
      dim: 1000
    }
  }
}
layer {
  name: "lstm1_cont_slice"
  type: "Slice"
  bottom: "cont"
  top: "cont_1"
  slice_param {
    axis: 0
  }
}
layer {
  name: "lstm1_x_transform"
  type: "InnerProduct"
  bottom: "x"
  top: "W_xc_x"
  param {
    name: "W_xc"
  }
  param {
    name: "b_c"
  }
  propagate_down: true
  inner_product_param {
    num_output: 4000
    bias_term: true
    weight_filler {
      type: "uniform"
      min: -0.08
      max: 0.08
    }
    bias_filler {
      type: "constant"
      value: 0
    }
    axis: 2
  }
}
layer {
  name: "lstm1_W_xc_x_slice"
  type: "Slice"
  bottom: "W_xc_x"
  top: "W_xc_x_1"
  slice_param {
    axis: 0
  }
}
layer {
  name: "lstm1_h_conted_0"
  type: "Scale"
  bottom: "h_0"
  bottom: "cont_1"
  top: "h_conted_0"
  scale_param {
    axis: 0
  }
}
layer {
  name: "lstm1_transform_1"
  type: "InnerProduct"
  bottom: "h_conted_0"
  top: "W_hc_h_0"
  param {
    name: "W_hc"
  }
  inner_product_param {
    num_output: 4000
    bias_term: false
    weight_filler {
      type: "uniform"
      min: -0.08
      max: 0.08
    }
    axis: 2
  }
}
layer {
  name: "lstm1_gate_input_1"
  type: "Eltwise"
  bottom: "W_hc_h_0"
  bottom: "W_xc_x_1"
  top: "gate_input_1"
  eltwise_param {
    operation: SUM
  }
}
layer {
  name: "lstm1_unit_1"
  type: "LSTMUnit"
  bottom: "c_0"
  bottom: "gate_input_1"
  bottom: "cont_1"
  top: "c_1"
  top: "h_1"
}
layer {
  name: "lstm1_"
  type: "Split"
  bottom: "c_1"
  top: "c_T"
}
layer {
  name: "lstm1_h_concat"
  type: "Concat"
  bottom: "h_1"
  top: "h"
  concat_param {
    axis: 0
  }
}
layer {
  name: "h_pseudoloss"
  type: "Reduction"
  bottom: "h"
  top: "h_pseudoloss"
  loss_weight: 1
}
I0730 10:55:00.225860 23932 layer_factory.hpp:77] Creating layer lstm1_
I0730 10:55:00.225872 23932 net.cpp:91] Creating Layer lstm1_
I0730 10:55:00.225879 23932 net.cpp:399] lstm1_ -> x
I0730 10:55:00.225891 23932 net.cpp:399] lstm1_ -> cont
I0730 10:55:00.229395 23932 net.cpp:141] Setting up lstm1_
I0730 10:55:00.229419 23932 net.cpp:148] Top shape: 1 1 500 (500)
I0730 10:55:00.229427 23932 net.cpp:148] Top shape: 1 1 (1)
I0730 10:55:00.229431 23932 net.cpp:156] Memory required for data: 2004
I0730 10:55:00.229437 23932 layer_factory.hpp:77] Creating layer lstm1_
I0730 10:55:00.229449 23932 net.cpp:91] Creating Layer lstm1_
I0730 10:55:00.229455 23932 net.cpp:399] lstm1_ -> c_0
I0730 10:55:00.229470 23932 net.cpp:399] lstm1_ -> h_0
I0730 10:55:00.239717 23932 net.cpp:141] Setting up lstm1_
I0730 10:55:00.239738 23932 net.cpp:148] Top shape: 1 1 1000 (1000)
I0730 10:55:00.239745 23932 net.cpp:148] Top shape: 1 1 1000 (1000)
I0730 10:55:00.239749 23932 net.cpp:156] Memory required for data: 10004
I0730 10:55:00.239754 23932 layer_factory.hpp:77] Creating layer lstm1_cont_slice
I0730 10:55:00.239769 23932 net.cpp:91] Creating Layer lstm1_cont_slice
I0730 10:55:00.239775 23932 net.cpp:425] lstm1_cont_slice <- cont
I0730 10:55:00.239783 23932 net.cpp:399] lstm1_cont_slice -> cont_1
I0730 10:55:00.239825 23932 net.cpp:141] Setting up lstm1_cont_slice
I0730 10:55:00.239835 23932 net.cpp:148] Top shape: 1 1 (1)
I0730 10:55:00.239838 23932 net.cpp:156] Memory required for data: 10008
I0730 10:55:00.239843 23932 layer_factory.hpp:77] Creating layer cont_1_lstm1_cont_slice_0_split
I0730 10:55:00.239851 23932 net.cpp:91] Creating Layer cont_1_lstm1_cont_slice_0_split
I0730 10:55:00.239856 23932 net.cpp:425] cont_1_lstm1_cont_slice_0_split <- cont_1
I0730 10:55:00.239866 23932 net.cpp:399] cont_1_lstm1_cont_slice_0_split -> cont_1_lstm1_cont_slice_0_split_0
I0730 10:55:00.239873 23932 net.cpp:399] cont_1_lstm1_cont_slice_0_split -> cont_1_lstm1_cont_slice_0_split_1
I0730 10:55:00.239922 23932 net.cpp:141] Setting up cont_1_lstm1_cont_slice_0_split
I0730 10:55:00.239930 23932 net.cpp:148] Top shape: 1 1 (1)
I0730 10:55:00.239935 23932 net.cpp:148] Top shape: 1 1 (1)
I0730 10:55:00.239940 23932 net.cpp:156] Memory required for data: 10016
I0730 10:55:00.239944 23932 layer_factory.hpp:77] Creating layer lstm1_x_transform
I0730 10:55:00.239961 23932 net.cpp:91] Creating Layer lstm1_x_transform
I0730 10:55:00.239966 23932 net.cpp:425] lstm1_x_transform <- x
I0730 10:55:00.239974 23932 net.cpp:399] lstm1_x_transform -> W_xc_x
I0730 10:55:00.257118 23943 net.cpp:141] Setting up conv1
I0730 10:55:00.257161 23943 net.cpp:148] Top shape: 10 96 55 55 (2904000)
I0730 10:55:00.257169 23943 net.cpp:156] Memory required for data: 17799480
I0730 10:55:00.257190 23943 layer_factory.hpp:77] Creating layer relu1
I0730 10:55:00.257206 23943 net.cpp:91] Creating Layer relu1
I0730 10:55:00.257212 23943 net.cpp:425] relu1 <- conv1
I0730 10:55:00.257220 23943 net.cpp:386] relu1 -> conv1 (in-place)
I0730 10:55:00.257910 23943 net.cpp:141] Setting up relu1
I0730 10:55:00.257925 23943 net.cpp:148] Top shape: 10 96 55 55 (2904000)
I0730 10:55:00.257930 23943 net.cpp:156] Memory required for data: 29415480
I0730 10:55:00.257936 23943 layer_factory.hpp:77] Creating layer pool1
I0730 10:55:00.257948 23943 net.cpp:91] Creating Layer pool1
I0730 10:55:00.257953 23943 net.cpp:425] pool1 <- conv1
I0730 10:55:00.257961 23943 net.cpp:399] pool1 -> pool1
I0730 10:55:00.258025 23943 net.cpp:141] Setting up pool1
I0730 10:55:00.258035 23943 net.cpp:148] Top shape: 10 96 27 27 (699840)
I0730 10:55:00.258040 23943 net.cpp:156] Memory required for data: 32214840
I0730 10:55:00.258045 23943 layer_factory.hpp:77] Creating layer norm1
I0730 10:55:00.258060 23943 net.cpp:91] Creating Layer norm1
I0730 10:55:00.258065 23943 net.cpp:425] norm1 <- pool1
I0730 10:55:00.258072 23943 net.cpp:399] norm1 -> norm1
I0730 10:55:00.258815 23943 net.cpp:141] Setting up norm1
I0730 10:55:00.258829 23943 net.cpp:148] Top shape: 10 96 27 27 (699840)
I0730 10:55:00.258834 23943 net.cpp:156] Memory required for data: 35014200
I0730 10:55:00.258841 23943 layer_factory.hpp:77] Creating layer conv2
I0730 10:55:00.258854 23943 net.cpp:91] Creating Layer conv2
I0730 10:55:00.258859 23943 net.cpp:425] conv2 <- norm1
I0730 10:55:00.258867 23943 net.cpp:399] conv2 -> conv2
I0730 10:55:00.260247 23932 net.cpp:141] Setting up lstm1_x_transform
I0730 10:55:00.260272 23932 net.cpp:148] Top shape: 1 1 4000 (4000)
I0730 10:55:00.260277 23932 net.cpp:156] Memory required for data: 26016
I0730 10:55:00.260290 23932 layer_factory.hpp:77] Creating layer lstm1_W_xc_x_slice
I0730 10:55:00.260303 23932 net.cpp:91] Creating Layer lstm1_W_xc_x_slice
I0730 10:55:00.260309 23932 net.cpp:425] lstm1_W_xc_x_slice <- W_xc_x
I0730 10:55:00.260318 23932 net.cpp:399] lstm1_W_xc_x_slice -> W_xc_x_1
I0730 10:55:00.260485 23932 net.cpp:141] Setting up lstm1_W_xc_x_slice
I0730 10:55:00.260498 23932 net.cpp:148] Top shape: 1 1 4000 (4000)
I0730 10:55:00.260501 23932 net.cpp:156] Memory required for data: 42016
I0730 10:55:00.260506 23932 layer_factory.hpp:77] Creating layer lstm1_h_conted_0
I0730 10:55:00.260516 23932 net.cpp:91] Creating Layer lstm1_h_conted_0
I0730 10:55:00.260521 23932 net.cpp:425] lstm1_h_conted_0 <- h_0
I0730 10:55:00.260529 23932 net.cpp:425] lstm1_h_conted_0 <- cont_1_lstm1_cont_slice_0_split_0
I0730 10:55:00.260538 23932 net.cpp:399] lstm1_h_conted_0 -> h_conted_0
I0730 10:55:00.260638 23932 net.cpp:141] Setting up lstm1_h_conted_0
I0730 10:55:00.260648 23932 net.cpp:148] Top shape: 1 1 1000 (1000)
I0730 10:55:00.260653 23932 net.cpp:156] Memory required for data: 46016
I0730 10:55:00.260658 23932 layer_factory.hpp:77] Creating layer lstm1_transform_1
I0730 10:55:00.260673 23932 net.cpp:91] Creating Layer lstm1_transform_1
I0730 10:55:00.260677 23932 net.cpp:425] lstm1_transform_1 <- h_conted_0
I0730 10:55:00.260686 23932 net.cpp:399] lstm1_transform_1 -> W_hc_h_0
I0730 10:55:00.271581 23943 net.cpp:141] Setting up conv2
I0730 10:55:00.271625 23943 net.cpp:148] Top shape: 10 256 27 27 (1866240)
I0730 10:55:00.271633 23943 net.cpp:156] Memory required for data: 42479160
I0730 10:55:00.271653 23943 layer_factory.hpp:77] Creating layer relu2
I0730 10:55:00.271668 23943 net.cpp:91] Creating Layer relu2
I0730 10:55:00.271674 23943 net.cpp:425] relu2 <- conv2
I0730 10:55:00.271683 23943 net.cpp:386] relu2 -> conv2 (in-place)
I0730 10:55:00.272403 23943 net.cpp:141] Setting up relu2
I0730 10:55:00.272416 23943 net.cpp:148] Top shape: 10 256 27 27 (1866240)
I0730 10:55:00.272421 23943 net.cpp:156] Memory required for data: 49944120
I0730 10:55:00.272428 23943 layer_factory.hpp:77] Creating layer pool2
I0730 10:55:00.272438 23943 net.cpp:91] Creating Layer pool2
I0730 10:55:00.272444 23943 net.cpp:425] pool2 <- conv2
I0730 10:55:00.272451 23943 net.cpp:399] pool2 -> pool2
I0730 10:55:00.272505 23943 net.cpp:141] Setting up pool2
I0730 10:55:00.272516 23943 net.cpp:148] Top shape: 10 256 13 13 (432640)
I0730 10:55:00.272521 23943 net.cpp:156] Memory required for data: 51674680
I0730 10:55:00.272526 23943 layer_factory.hpp:77] Creating layer norm2
I0730 10:55:00.272542 23943 net.cpp:91] Creating Layer norm2
I0730 10:55:00.272552 23943 net.cpp:425] norm2 <- pool2
I0730 10:55:00.272563 23943 net.cpp:399] norm2 -> norm2
I0730 10:55:00.272816 23943 net.cpp:141] Setting up norm2
I0730 10:55:00.272830 23943 net.cpp:148] Top shape: 10 256 13 13 (432640)
I0730 10:55:00.272833 23943 net.cpp:156] Memory required for data: 53405240
I0730 10:55:00.272840 23943 layer_factory.hpp:77] Creating layer conv3
I0730 10:55:00.272853 23943 net.cpp:91] Creating Layer conv3
I0730 10:55:00.272858 23943 net.cpp:425] conv3 <- norm2
I0730 10:55:00.272866 23943 net.cpp:399] conv3 -> conv3
I0730 10:55:00.277871 23943 net.cpp:141] Setting up conv3
I0730 10:55:00.277910 23943 net.cpp:148] Top shape: 10 384 13 13 (648960)
I0730 10:55:00.277918 23943 net.cpp:156] Memory required for data: 56001080
I0730 10:55:00.277940 23943 layer_factory.hpp:77] Creating layer relu3
I0730 10:55:00.277953 23943 net.cpp:91] Creating Layer relu3
I0730 10:55:00.277958 23943 net.cpp:425] relu3 <- conv3
I0730 10:55:00.277968 23943 net.cpp:386] relu3 -> conv3 (in-place)
I0730 10:55:00.278673 23943 net.cpp:141] Setting up relu3
I0730 10:55:00.278697 23943 net.cpp:148] Top shape: 10 384 13 13 (648960)
I0730 10:55:00.278702 23943 net.cpp:156] Memory required for data: 58596920
I0730 10:55:00.278707 23943 layer_factory.hpp:77] Creating layer conv4
I0730 10:55:00.278723 23943 net.cpp:91] Creating Layer conv4
I0730 10:55:00.278729 23943 net.cpp:425] conv4 <- conv3
I0730 10:55:00.278738 23943 net.cpp:399] conv4 -> conv4
I0730 10:55:00.284265 23943 net.cpp:141] Setting up conv4
I0730 10:55:00.284298 23943 net.cpp:148] Top shape: 10 384 13 13 (648960)
I0730 10:55:00.284304 23943 net.cpp:156] Memory required for data: 61192760
I0730 10:55:00.284320 23943 layer_factory.hpp:77] Creating layer relu4
I0730 10:55:00.284339 23943 net.cpp:91] Creating Layer relu4
I0730 10:55:00.284346 23943 net.cpp:425] relu4 <- conv4
I0730 10:55:00.284359 23943 net.cpp:386] relu4 -> conv4 (in-place)
I0730 10:55:00.285081 23943 net.cpp:141] Setting up relu4
I0730 10:55:00.285094 23943 net.cpp:148] Top shape: 10 384 13 13 (648960)
I0730 10:55:00.285099 23943 net.cpp:156] Memory required for data: 63788600
I0730 10:55:00.285104 23943 layer_factory.hpp:77] Creating layer conv5
I0730 10:55:00.285120 23943 net.cpp:91] Creating Layer conv5
I0730 10:55:00.285126 23943 net.cpp:425] conv5 <- conv4
I0730 10:55:00.285135 23943 net.cpp:399] conv5 -> conv5
I0730 10:55:00.290465 23943 net.cpp:141] Setting up conv5
I0730 10:55:00.290493 23943 net.cpp:148] Top shape: 10 256 13 13 (432640)
I0730 10:55:00.290498 23943 net.cpp:156] Memory required for data: 65519160
I0730 10:55:00.290514 23943 layer_factory.hpp:77] Creating layer relu5
I0730 10:55:00.290527 23943 net.cpp:91] Creating Layer relu5
I0730 10:55:00.290532 23943 net.cpp:425] relu5 <- conv5
I0730 10:55:00.290544 23943 net.cpp:386] relu5 -> conv5 (in-place)
I0730 10:55:00.291281 23943 net.cpp:141] Setting up relu5
I0730 10:55:00.291296 23943 net.cpp:148] Top shape: 10 256 13 13 (432640)
I0730 10:55:00.291301 23943 net.cpp:156] Memory required for data: 67249720
I0730 10:55:00.291306 23943 layer_factory.hpp:77] Creating layer pool5
I0730 10:55:00.291318 23943 net.cpp:91] Creating Layer pool5
I0730 10:55:00.291324 23943 net.cpp:425] pool5 <- conv5
I0730 10:55:00.291332 23943 net.cpp:399] pool5 -> pool5
I0730 10:55:00.291394 23943 net.cpp:141] Setting up pool5
I0730 10:55:00.291404 23943 net.cpp:148] Top shape: 10 256 6 6 (92160)
I0730 10:55:00.291409 23943 net.cpp:156] Memory required for data: 67618360
I0730 10:55:00.291414 23943 layer_factory.hpp:77] Creating layer fc6
I0730 10:55:00.291429 23943 net.cpp:91] Creating Layer fc6
I0730 10:55:00.291435 23943 net.cpp:425] fc6 <- pool5
I0730 10:55:00.291441 23943 net.cpp:399] fc6 -> fc6
I0730 10:55:00.355909 23932 net.cpp:141] Setting up lstm1_transform_1
I0730 10:55:00.355962 23932 net.cpp:148] Top shape: 1 1 4000 (4000)
I0730 10:55:00.355969 23932 net.cpp:156] Memory required for data: 62016
I0730 10:55:00.355993 23932 layer_factory.hpp:77] Creating layer lstm1_gate_input_1
I0730 10:55:00.356015 23932 net.cpp:91] Creating Layer lstm1_gate_input_1
I0730 10:55:00.356024 23932 net.cpp:425] lstm1_gate_input_1 <- W_hc_h_0
I0730 10:55:00.356032 23932 net.cpp:425] lstm1_gate_input_1 <- W_xc_x_1
I0730 10:55:00.356042 23932 net.cpp:399] lstm1_gate_input_1 -> gate_input_1
I0730 10:55:00.356106 23932 net.cpp:141] Setting up lstm1_gate_input_1
I0730 10:55:00.356115 23932 net.cpp:148] Top shape: 1 1 4000 (4000)
I0730 10:55:00.356120 23932 net.cpp:156] Memory required for data: 78016
I0730 10:55:00.356124 23932 layer_factory.hpp:77] Creating layer lstm1_unit_1
I0730 10:55:00.356137 23932 net.cpp:91] Creating Layer lstm1_unit_1
I0730 10:55:00.356142 23932 net.cpp:425] lstm1_unit_1 <- c_0
I0730 10:55:00.356148 23932 net.cpp:425] lstm1_unit_1 <- gate_input_1
I0730 10:55:00.356153 23932 net.cpp:425] lstm1_unit_1 <- cont_1_lstm1_cont_slice_0_split_1
I0730 10:55:00.356160 23932 net.cpp:399] lstm1_unit_1 -> c_1
I0730 10:55:00.356168 23932 net.cpp:399] lstm1_unit_1 -> h_1
I0730 10:55:00.356232 23932 net.cpp:141] Setting up lstm1_unit_1
I0730 10:55:00.356240 23932 net.cpp:148] Top shape: 1 1 1000 (1000)
I0730 10:55:00.356246 23932 net.cpp:148] Top shape: 1 1 1000 (1000)
I0730 10:55:00.356251 23932 net.cpp:156] Memory required for data: 86016
I0730 10:55:00.356256 23932 layer_factory.hpp:77] Creating layer lstm1_
I0730 10:55:00.356264 23932 net.cpp:91] Creating Layer lstm1_
I0730 10:55:00.356268 23932 net.cpp:425] lstm1_ <- c_1
I0730 10:55:00.356278 23932 net.cpp:399] lstm1_ -> c_T
I0730 10:55:00.356315 23932 net.cpp:141] Setting up lstm1_
I0730 10:55:00.356323 23932 net.cpp:148] Top shape: 1 1 1000 (1000)
I0730 10:55:00.356328 23932 net.cpp:156] Memory required for data: 90016
I0730 10:55:00.356333 23932 layer_factory.hpp:77] Creating layer lstm1_h_concat
I0730 10:55:00.356350 23932 net.cpp:91] Creating Layer lstm1_h_concat
I0730 10:55:00.356356 23932 net.cpp:425] lstm1_h_concat <- h_1
I0730 10:55:00.356362 23932 net.cpp:399] lstm1_h_concat -> h
I0730 10:55:00.356400 23932 net.cpp:141] Setting up lstm1_h_concat
I0730 10:55:00.356408 23932 net.cpp:148] Top shape: 1 1 1000 (1000)
I0730 10:55:00.356413 23932 net.cpp:156] Memory required for data: 94016
I0730 10:55:00.356417 23932 layer_factory.hpp:77] Creating layer h_pseudoloss
I0730 10:55:00.356431 23932 net.cpp:91] Creating Layer h_pseudoloss
I0730 10:55:00.356436 23932 net.cpp:425] h_pseudoloss <- h
I0730 10:55:00.356443 23932 net.cpp:399] h_pseudoloss -> h_pseudoloss
I0730 10:55:00.356519 23932 net.cpp:141] Setting up h_pseudoloss
…
I0730 10:55:00.356638 23932 net.cpp:219] lstm1_ does not need backward computation.
I0730 10:55:00.356642 23932 net.cpp:261] This network produces output c_T
I0730 10:55:00.356647 23932 net.cpp:261] This network produces output h_pseudoloss
I0730 10:55:00.356663 23932 net.cpp:274] Network initialization done.
I0730 10:55:00.356720 23932 recurrent_layer.cpp:150] Adding parameter 0: W_xc
I0730 10:55:00.356727 23932 recurrent_layer.cpp:150] Adding parameter 1: b_c
I0730 10:55:00.356731 23932 recurrent_layer.cpp:150] Adding parameter 2: W_hc
I0730 10:55:00.356843 23932 net.cpp:141] Setting up lstm1
I0730 10:55:00.356855 23932 net.cpp:148] Top shape: 1 1 1000 (1000)
I0730 10:55:00.356859 23932 net.cpp:156] Memory required for data: 26408
I0730 10:55:00.356873 23932 layer_factory.hpp:77] Creating layer concat
I0730 10:55:00.356881 23932 net.cpp:91] Creating Layer concat
I0730 10:55:00.356886 23932 net.cpp:425] concat <- lstm1
I0730 10:55:00.356894 23932 net.cpp:425] concat <- embedded_input_sentence
I0730 10:55:00.356899 23932 net.cpp:425] concat <- reshaped_stage_indicator
I0730 10:55:00.356904 23932 net.cpp:399] concat -> lstm1_video_sequence
I0730 10:55:00.356937 23932 net.cpp:141] Setting up concat
I0730 10:55:00.356945 23932 net.cpp:148] Top shape: 1 1 1501 (1501)
I0730 10:55:00.356950 23932 net.cpp:156] Memory required for data: 32412
I0730 10:55:00.356956 23932 layer_factory.hpp:77] Creating layer lstm2
I0730 10:55:00.356968 23932 net.cpp:91] Creating Layer lstm2
I0730 10:55:00.356973 23932 net.cpp:425] lstm2 <- lstm1_video_sequence
I0730 10:55:00.356979 23932 net.cpp:425] lstm2 <- cont_sentence_input_1_split_1
I0730 10:55:00.356986 23932 net.cpp:399] lstm2 -> lstm2
I0730 10:55:00.356997 23932 recurrent_layer.cpp:20] Initializing recurrent layer: assuming input batch contains 1 timesteps of 1 independent streams.
I0730 10:55:00.357234 23932 net.cpp:49] Initializing net from parameters: 
layer {
  name: "lstm2_"
  type: "Input"
  top: "x"
  top: "cont"
  input_param {
    shape {
      dim: 1
      dim: 1
      dim: 1501
    }
    shape {
      dim: 1
      dim: 1
    }
  }
}
layer {
  name: "lstm2_"
  type: "Input"
  top: "c_0"
  top: "h_0"
  input_param {
    shape {
      dim: 1
      dim: 1
      dim: 1000
    }
    shape {
      dim: 1
      dim: 1
      dim: 1000
    }
  }
}
layer {
  name: "lstm2_cont_slice"
  type: "Slice"
  bottom: "cont"
  top: "cont_1"
  slice_param {
    axis: 0
  }
}
layer {
  name: "lstm2_x_transform"
  type: "InnerProduct"
  bottom: "x"
  top: "W_xc_x"
  param {
    name: "W_xc"
  }
  param {
    name: "b_c"
  }
  propagate_down: true
  inner_product_param {
    num_output: 4000
    bias_term: true
    weight_filler {
      type: "uniform"
      min: -0.08
      max: 0.08
    }
    bias_filler {
      type: "constant"
      value: 0
    }
    axis: 2
  }
}
layer {
  name: "lstm2_W_xc_x_slice"
  type: "Slice"
  bottom: "W_xc_x"
  top: "W_xc_x_1"
  slice_param {
    axis: 0
  }
}
layer {
  name: "lstm2_h_conted_0"
  type: "Scale"
  bottom: "h_0"
  bottom: "cont_1"
  top: "h_conted_0"
  scale_param {
    axis: 0
  }
}
layer {
  name: "lstm2_transform_1"
  type: "InnerProduct"
  bottom: "h_conted_0"
  top: "W_hc_h_0"
  param {
    name: "W_hc"
  }
  inner_product_param {
    num_output: 4000
    bias_term: false
    weight_filler {
      type: "uniform"
      min: -0.08
      max: 0.08
    }
    axis: 2
  }
}
layer {
  name: "lstm2_gate_input_1"
  type: "Eltwise"
  bottom: "W_hc_h_0"
  bottom: "W_xc_x_1"
  top: "gate_input_1"
  eltwise_param {
    operation: SUM
  }
}
layer {
  name: "lstm2_unit_1"
  type: "LSTMUnit"
  bottom: "c_0"
  bottom: "gate_input_1"
  bottom: "cont_1"
  top: "c_1"
  top: "h_1"
}
layer {
  name: "lstm2_"
  type: "Split"
  bottom: "c_1"
  top: "c_T"
}
layer {
  name: "lstm2_h_concat"
  type: "Concat"
  bottom: "h_1"
  top: "h"
  concat_param {
    axis: 0
  }
}
layer {
  name: "h_pseudoloss"
  type: "Reduction"
  bottom: "h"
  top: "h_pseudoloss"
  loss_weight: 1
}
I0730 10:55:00.357319 23932 layer_factory.hpp:77] Creating layer lstm2_
I0730 10:55:00.357332 23932 net.cpp:91] Creating Layer lstm2_
I0730 10:55:00.357338 23932 net.cpp:399] lstm2_ -> x
I0730 10:55:00.357349 23932 net.cpp:399] lstm2_ -> cont
I0730 10:55:00.357403 23932 net.cpp:141] Setting up lstm2_
I0730 10:55:00.357411 23932 net.cpp:148] Top shape: 1 1 1501 (1501)
I0730 10:55:00.357419 23932 net.cpp:148] Top shape: 1 1 (1)
I0730 10:55:00.357422 23932 net.cpp:156] Memory required for data: 6008
I0730 10:55:00.357427 23932 layer_factory.hpp:77] Creating layer lstm2_
I0730 10:55:00.357439 23932 net.cpp:91] Creating Layer lstm2_
I0730 10:55:00.357445 23932 net.cpp:399] lstm2_ -> c_0
I0730 10:55:00.357455 23932 net.cpp:399] lstm2_ -> h_0
I0730 10:55:00.357507 23932 net.cpp:141] Setting up lstm2_
I0730 10:55:00.357517 23932 net.cpp:148] Top shape: 1 1 1000 (1000)
I0730 10:55:00.357522 23932 net.cpp:148] Top shape: 1 1 1000 (1000)
I0730 10:55:00.357527 23932 net.cpp:156] Memory required for data: 14008
I0730 10:55:00.357530 23932 layer_factory.hpp:77] Creating layer lstm2_cont_slice
I0730 10:55:00.357539 23932 net.cpp:91] Creating Layer lstm2_cont_slice
I0730 10:55:00.357544 23932 net.cpp:425] lstm2_cont_slice <- cont
I0730 10:55:00.357552 23932 net.cpp:399] lstm2_cont_slice -> cont_1
I0730 10:55:00.357583 23932 net.cpp:141] Setting up lstm2_cont_slice
I0730 10:55:00.357591 23932 net.cpp:148] Top shape: 1 1 (1)
I0730 10:55:00.357596 23932 net.cpp:156] Memory required for data: 14012
I0730 10:55:00.357601 23932 layer_factory.hpp:77] Creating layer cont_1_lstm2_cont_slice_0_split
I0730 10:55:00.357611 23932 net.cpp:91] Creating Layer cont_1_lstm2_cont_slice_0_split
I0730 10:55:00.357616 23932 net.cpp:425] cont_1_lstm2_cont_slice_0_split <- cont_1
I0730 10:55:00.357622 23932 net.cpp:399] cont_1_lstm2_cont_slice_0_split -> cont_1_lstm2_cont_slice_0_split_0
I0730 10:55:00.357632 23932 net.cpp:399] cont_1_lstm2_cont_slice_0_split -> cont_1_lstm2_cont_slice_0_split_1
I0730 10:55:00.357677 23932 net.cpp:141] Setting up cont_1_lstm2_cont_slice_0_split
I0730 10:55:00.357686 23932 net.cpp:148] Top shape: 1 1 (1)
I0730 10:55:00.357692 23932 net.cpp:148] Top shape: 1 1 (1)
I0730 10:55:00.357695 23932 net.cpp:156] Memory required for data: 14020
I0730 10:55:00.357700 23932 layer_factory.hpp:77] Creating layer lstm2_x_transform
I0730 10:55:00.357712 23932 net.cpp:91] Creating Layer lstm2_x_transform
I0730 10:55:00.357717 23932 net.cpp:425] lstm2_x_transform <- x
I0730 10:55:00.357728 23932 net.cpp:399] lstm2_x_transform -> W_xc_x
I0730 10:55:00.394047 23943 net.cpp:141] Setting up fc6
I0730 10:55:00.394093 23943 net.cpp:148] Top shape: 10 4096 (40960)
I0730 10:55:00.394099 23943 net.cpp:156] Memory required for data: 67782200
I0730 10:55:00.394114 23943 layer_factory.hpp:77] Creating layer relu6
I0730 10:55:00.394126 23943 net.cpp:91] Creating Layer relu6
I0730 10:55:00.394134 23943 net.cpp:425] relu6 <- fc6
I0730 10:55:00.394145 23943 net.cpp:386] relu6 -> fc6 (in-place)
I0730 10:55:00.394453 23943 net.cpp:141] Setting up relu6
I0730 10:55:00.394464 23943 net.cpp:148] Top shape: 10 4096 (40960)
I0730 10:55:00.394470 23943 net.cpp:156] Memory required for data: 67946040
I0730 10:55:00.394479 23943 layer_factory.hpp:77] Creating layer drop6
I0730 10:55:00.394498 23943 net.cpp:91] Creating Layer drop6
I0730 10:55:00.394505 23943 net.cpp:425] drop6 <- fc6
I0730 10:55:00.394512 23943 net.cpp:386] drop6 -> fc6 (in-place)
I0730 10:55:00.394564 23943 net.cpp:141] Setting up drop6
I0730 10:55:00.394573 23943 net.cpp:148] Top shape: 10 4096 (40960)
I0730 10:55:00.394577 23943 net.cpp:156] Memory required for data: 68109880
I0730 10:55:00.394582 23943 layer_factory.hpp:77] Creating layer fc7
I0730 10:55:00.394593 23943 net.cpp:91] Creating Layer fc7
I0730 10:55:00.394598 23943 net.cpp:425] fc7 <- fc6
I0730 10:55:00.394610 23943 net.cpp:399] fc7 -> fc7
I0730 10:55:00.424510 23932 net.cpp:141] Setting up lstm2_x_transform
I0730 10:55:00.424559 23932 net.cpp:148] Top shape: 1 1 4000 (4000)
I0730 10:55:00.424566 23932 net.cpp:156] Memory required for data: 30020
I0730 10:55:00.424592 23932 layer_factory.hpp:77] Creating layer lstm2_W_xc_x_slice
I0730 10:55:00.424607 23932 net.cpp:91] Creating Layer lstm2_W_xc_x_slice
I0730 10:55:00.424613 23932 net.cpp:425] lstm2_W_xc_x_slice <- W_xc_x
I0730 10:55:00.424623 23932 net.cpp:399] lstm2_W_xc_x_slice -> W_xc_x_1
I0730 10:55:00.424667 23932 net.cpp:141] Setting up lstm2_W_xc_x_slice
I0730 10:55:00.424677 23932 net.cpp:148] Top shape: 1 1 4000 (4000)
I0730 10:55:00.424681 23932 net.cpp:156] Memory required for data: 46020
I0730 10:55:00.424686 23932 layer_factory.hpp:77] Creating layer lstm2_h_conted_0
I0730 10:55:00.424700 23932 net.cpp:91] Creating Layer lstm2_h_conted_0
I0730 10:55:00.424705 23932 net.cpp:425] lstm2_h_conted_0 <- h_0
I0730 10:55:00.424712 23932 net.cpp:425] lstm2_h_conted_0 <- cont_1_lstm2_cont_slice_0_split_0
I0730 10:55:00.424720 23932 net.cpp:399] lstm2_h_conted_0 -> h_conted_0
I0730 10:55:00.424813 23932 net.cpp:141] Setting up lstm2_h_conted_0
I0730 10:55:00.424821 23932 net.cpp:148] Top shape: 1 1 1000 (1000)
I0730 10:55:00.424826 23932 net.cpp:156] Memory required for data: 50020
I0730 10:55:00.424830 23932 layer_factory.hpp:77] Creating layer lstm2_transform_1
I0730 10:55:00.424844 23932 net.cpp:91] Creating Layer lstm2_transform_1
I0730 10:55:00.424849 23932 net.cpp:425] lstm2_transform_1 <- h_conted_0
I0730 10:55:00.424856 23932 net.cpp:399] lstm2_transform_1 -> W_hc_h_0
I0730 10:55:00.441963 23943 net.cpp:141] Setting up fc7
I0730 10:55:00.442009 23943 net.cpp:148] Top shape: 10 4096 (40960)
I0730 10:55:00.442015 23943 net.cpp:156] Memory required for data: 68273720
I0730 10:55:00.442029 23943 layer_factory.hpp:77] Creating layer relu7
I0730 10:55:00.442044 23943 net.cpp:91] Creating Layer relu7
I0730 10:55:00.442049 23943 net.cpp:425] relu7 <- fc7
I0730 10:55:00.442059 23943 net.cpp:386] relu7 -> fc7 (in-place)
I0730 10:55:00.443559 23943 net.cpp:141] Setting up relu7
I0730 10:55:00.443581 23943 net.cpp:148] Top shape: 10 4096 (40960)
I0730 10:55:00.443588 23943 net.cpp:156] Memory required for data: 68437560
I0730 10:55:00.443593 23943 layer_factory.hpp:77] Creating layer drop7
I0730 10:55:00.443603 23943 net.cpp:91] Creating Layer drop7
I0730 10:55:00.443608 23943 net.cpp:425] drop7 <- fc7
I0730 10:55:00.443615 23943 net.cpp:386] drop7 -> fc7 (in-place)
I0730 10:55:00.443660 23943 net.cpp:141] Setting up drop7
I0730 10:55:00.443670 23943 net.cpp:148] Top shape: 10 4096 (40960)
I0730 10:55:00.443673 23943 net.cpp:156] Memory required for data: 68601400
I0730 10:55:00.443681 23943 layer_factory.hpp:77] Creating layer fc8
I0730 10:55:00.443699 23943 net.cpp:91] Creating Layer fc8
I0730 10:55:00.443708 23943 net.cpp:425] fc8 <- fc7
I0730 10:55:00.443717 23943 net.cpp:399] fc8 -> fc8
I0730 10:55:00.456341 23943 net.cpp:141] Setting up fc8
I0730 10:55:00.456387 23943 net.cpp:148] Top shape: 10 1000 (10000)
I0730 10:55:00.456393 23943 net.cpp:156] Memory required for data: 68641400
I0730 10:55:00.456406 23943 layer_factory.hpp:77] Creating layer prob
I0730 10:55:00.456426 23943 net.cpp:91] Creating Layer prob
I0730 10:55:00.456434 23943 net.cpp:425] prob <- fc8
I0730 10:55:00.456444 23943 net.cpp:399] prob -> prob
I0730 10:55:00.456859 23943 net.cpp:141] Setting up prob
I0730 10:55:00.456872 23943 net.cpp:148] Top shape: 10 1000 (10000)
I0730 10:55:00.456876 23943 net.cpp:156] Memory required for data: 68681400
I0730 10:55:00.456882 23943 net.cpp:219] prob does not need backward computation.
I0730 10:55:00.456887 23943 net.cpp:219] fc8 does not need backward computation.
I0730 10:55:00.456892 23943 net.cpp:219] drop7 does not need backward computation.
I0730 10:55:00.456897 23943 net.cpp:219] relu7 does not need backward computation.
…
I0730 10:55:00.456967 23943 net.cpp:219] norm1 does not need backward computation.
I0730 10:55:00.456972 23943 net.cpp:219] pool1 does not need backward computation.
I0730 10:55:00.456977 23943 net.cpp:219] relu1 does not need backward computation.
I0730 10:55:00.456981 23943 net.cpp:219] conv1 does not need backward computation.
I0730 10:55:00.456985 23943 net.cpp:219] data does not need backward computation.
I0730 10:55:00.456990 23943 net.cpp:261] This network produces output prob
I0730 10:55:00.457008 23943 net.cpp:274] Network initialization done.
I0730 10:55:00.465178 23932 net.cpp:141] Setting up lstm2_transform_1
I0730 10:55:00.465219 23932 net.cpp:148] Top shape: 1 1 4000 (4000)
I0730 10:55:00.465224 23932 net.cpp:156] Memory required for data: 66020
I0730 10:55:00.465242 23932 layer_factory.hpp:77] Creating layer lstm2_gate_input_1
I0730 10:55:00.465260 23932 net.cpp:91] Creating Layer lstm2_gate_input_1
I0730 10:55:00.465270 23932 net.cpp:425] lstm2_gate_input_1 <- W_hc_h_0
I0730 10:55:00.465277 23932 net.cpp:425] lstm2_gate_input_1 <- W_xc_x_1
I0730 10:55:00.465284 23932 net.cpp:399] lstm2_gate_input_1 -> gate_input_1
I0730 10:55:00.465330 23932 net.cpp:141] Setting up lstm2_gate_input_1
I0730 10:55:00.465339 23932 net.cpp:148] Top shape: 1 1 4000 (4000)
I0730 10:55:00.465343 23932 net.cpp:156] Memory required for data: 82020
I0730 10:55:00.465348 23932 layer_factory.hpp:77] Creating layer lstm2_unit_1
I0730 10:55:00.465360 23932 net.cpp:91] Creating Layer lstm2_unit_1
I0730 10:55:00.465365 23932 net.cpp:425] lstm2_unit_1 <- c_0
I0730 10:55:00.465371 23932 net.cpp:425] lstm2_unit_1 <- gate_input_1
I0730 10:55:00.465376 23932 net.cpp:425] lstm2_unit_1 <- cont_1_lstm2_cont_slice_0_split_1
I0730 10:55:00.465384 23932 net.cpp:399] lstm2_unit_1 -> c_1
I0730 10:55:00.465391 23932 net.cpp:399] lstm2_unit_1 -> h_1
I0730 10:55:00.465456 23932 net.cpp:141] Setting up lstm2_unit_1
I0730 10:55:00.465464 23932 net.cpp:148] Top shape: 1 1 1000 (1000)
I0730 10:55:00.465471 23932 net.cpp:148] Top shape: 1 1 1000 (1000)
I0730 10:55:00.465474 23932 net.cpp:156] Memory required for data: 90020
I0730 10:55:00.465479 23932 layer_factory.hpp:77] Creating layer lstm2_
I0730 10:55:00.465487 23932 net.cpp:91] Creating Layer lstm2_
I0730 10:55:00.465492 23932 net.cpp:425] lstm2_ <- c_1
I0730 10:55:00.465502 23932 net.cpp:399] lstm2_ -> c_T
I0730 10:55:00.465531 23932 net.cpp:141] Setting up lstm2_
I0730 10:55:00.465539 23932 net.cpp:148] Top shape: 1 1 1000 (1000)
I0730 10:55:00.465543 23932 net.cpp:156] Memory required for data: 94020
I0730 10:55:00.465548 23932 layer_factory.hpp:77] Creating layer lstm2_h_concat
I0730 10:55:00.465559 23932 net.cpp:91] Creating Layer lstm2_h_concat
I0730 10:55:00.465564 23932 net.cpp:425] lstm2_h_concat <- h_1
I0730 10:55:00.465572 23932 net.cpp:399] lstm2_h_concat -> h
I0730 10:55:00.465607 23932 net.cpp:141] Setting up lstm2_h_concat
I0730 10:55:00.465615 23932 net.cpp:148] Top shape: 1 1 1000 (1000)
I0730 10:55:00.465620 23932 net.cpp:156] Memory required for data: 98020
I0730 10:55:00.465625 23932 layer_factory.hpp:77] Creating layer h_pseudoloss
I0730 10:55:00.465633 23932 net.cpp:91] Creating Layer h_pseudoloss
I0730 10:55:00.465637 23932 net.cpp:425] h_pseudoloss <- h
I0730 10:55:00.465644 23932 net.cpp:399] h_pseudoloss -> h_pseudoloss
I0730 10:55:00.465729 23932 net.cpp:141] Setting up h_pseudoloss
…
