…
Java HotSpot(TM) 64-Bit Server VM warning: You have loaded library /tmp/cvld6082484834843405644/libopencv_java310.so which might have disabled stack guard. The VM will try to fix the stack guard now.
It's highly recommended that you fix the library with 'execstack -c <libfile>', or link it with '-z noexecstack'.
WARNING: cuda not found in compile time, setting current GPU will not work.
WARNING: Logging before InitGoogleLogging() is written to STDERR
I0706 22:04:05.154814 31367 net.cpp:49] Initializing net from parameters: 
name: "GoogleNet"
state {
  phase: TEST
}
layer {
  name: "data"
  type: "Input"
  top: "data"
  input_param {
    shape {
      dim: 10
      dim: 3
      dim: 224
      dim: 224
    }
  }
}
layer {
  name: "conv1/7x7_s2"
  type: "Convolution"
  bottom: "data"
  top: "conv1/7x7_s2"
  param {
    lr_mult: 1
    decay_mult: 1
  }
  param {
    lr_mult: 2
    decay_mult: 0
  }
  convolution_param {
    num_output: 64
    pad: 3
    kernel_size: 7
    stride: 2
    weight_filler {
      type: "xavier"
      std: 0.1
    }
    bias_filler {
      type: "constant"
      value: 0.2
    }
  }
}
layer {
  name: "conv1/relu_7x7"
  type: "ReLU"
  bottom: "conv1/7x7_s2"
  top: "conv1/7x7_s2"
}
layer {
  name: "pool1/3x3_s2"
  type: "Pooling"
  bottom: "conv1/7x7_s2"
  top: "pool1/3x3_s2"
  pooling_param {
    pool: MAX
    kernel_size: 3
    stride: 2
  }
}
layer {
  name: "pool1/norm1"
  type: "LRN"
  bottom: "pool1/3x3_s2"
  top: "pool1/norm1"
  lrn_param {
    local_size: 5
    alpha: 0.0001
    beta: 0.75
  }
}
layer {
  name: "conv2/3x3_reduce"
  type: "Convolution"
  bottom: "pool1/norm1"
  top: "conv2/3x3_reduce"
  param {
    lr_mult: 1
    decay_mult: 1
  }
  param {
    lr_mult: 2
    decay_mult: 0
  }
  convolution_param {
    num_output: 64
    kernel_size: 1
    weight_filler {
      type: "xavier"
      std: 0.1
    }
    bias_filler {
      type: "constant"
      value: 0.2
    }
  }
}
layer {
  name: "conv2/relu_3x3_reduce"
  type: "ReLU"
  bottom: "conv2/3x3_reduce"
  top: "conv2/3x3_reduce"
}
layer {
  name: "conv2/3x3"
  type: "Convolution"
  bottom: "conv2/3x3_reduce"
  top: "conv2/3x3"
  param {
    lr_mult: 1
    decay_mult: 1
  }
  param {
    lr_mult: 2
    decay_mult: 0
  }
  convolution_param {
    num_output: 192
    pad: 1
    kernel_size: 3
    weight_filler {
      type: "xavier"
      std: 0.03
    }
    bias_filler {
      type: "constant"
      value: 0.2
    }
  }
}
layer {
  name: "conv2/relu_3x3"
  type: "ReLU"
  bottom: "conv2/3x3"
  top: "conv2/3x3"
}
layer {
  name: "conv2/norm2"
  type: "LRN"
  bottom: "conv2/3x3"
  top: "conv2/norm2"
  lrn_param {
    local_size: 5
    alpha: 0.0001
    beta: 0.75
  }
}
layer {
  name: "pool2/3x3_s2"
  type: "Pooling"
  bottom: "conv2/norm2"
  top: "pool2/3x3_s2"
  pooling_param {
    pool: MAX
    kernel_size: 3
    stride: 2
  }
}
layer {
  name: "inception_3a/1x1"
  type: "Convolution"
  bottom: "pool2/3x3_s2"
  top: "inception_3a/1x1"
  param {
    lr_mult: 1
    decay_mult: 1
  }
  param {
    lr_mult: 2
    decay_mult: 0
  }
  convolution_param {
    num_output: 64
    kernel_size: 1
    weight_filler {
      type: "xavier"
      std: 0.03
    }
    bias_filler {
      type: "constant"
      value: 0.2
    }
  }
}
layer {
  name: "inception_3a/relu_1x1"
  type: "ReLU"
  bottom: "inception_3a/1x1"
  top: "inception_3a/1x1"
}
layer {
  name: "inception_3a/3x3_reduce"
  type: "Convolution"
  bottom: "pool2/3x3_s2"
  top: "inception_3a/3x3_reduce"
  param {
    lr_mult: 1
    decay_mult: 1
  }
  param {
    lr_mult: 2
    decay_mult: 0
  }
  convolution_param {
    num_output: 96
    kernel_size: 1
    weight_filler {
      type: "xavier"
      std: 0.09
    }
    bias_filler {
      type: "constant"
      value: 0.2
    }
  }
}
layer {
  name: "inception_3a/relu_3x3_reduce"
  type: "ReLU"
  bottom: "inception_3a/3x3_reduce"
  top: "inception_3a/3x3_reduce"
}
layer {
  name: "inception_3a/3x3"
  type: "Convolution"
  bottom: "inception_3a/3x3_reduce"
  top: "inception_3a/3x3"
  param {
    lr_mult: 1
    decay_mult: 1
  }
  param {
    lr_mult: 2
    decay_mult: 0
  }
  convolution_param {
    num_output: 128
    pad: 1
    kernel_size: 3
    weight_filler {
      type: "xavier"
      std: 0.03
    }
    bias_filler {
      type: "constant"
      value: 0.2
    }
  }
}
layer {
  name: "inception_3a/relu_3x3"
  type: "ReLU"
  bottom: "inception_3a/3x3"
  top: "inception_3a/3x3"
}
layer {
  name: "inception_3a/5x5_reduce"
  type: "Convolution"
  bottom: "pool2/3x3_s2"
  top: "inception_3a/5x5_reduce"
  param {
    lr_mult: 1
    decay_mult: 1
  }
  param {
    lr_mult: 2
    decay_mult: 0
  }
  convolution_param {
    num_output: 16
    kernel_size: 1
    weight_filler {
      type: "xavier"
      std: 0.2
    }
    bias_filler {
      type: "constant"
      value: 0.2
    }
  }
}
layer {
  name: "inception_3a/relu_5x5_reduce"
  type: "ReLU"
  bottom: "inception_3a/5x5_reduce"
  top: "inception_3a/5x5_reduce"
}
layer {
  name: "inception_3a/5x5"
  type: "Convolution"
  bottom: "inception_3a/5x5_reduce"
  top: "inception_3a/5x5"
  param {
    lr_mult: 1
    decay_mult: 1
  }
  param {
    lr_mult: 2
    decay_mult: 0
  }
  convolution_param {
    num_output: 32
    pad: 2
    kernel_size: 5
    weight_filler {
      type: "xavier"
      std: 0.03
    }
    bias_filler {
      type: "constant"
      value: 0.2
    }
  }
}
layer {
  name: "inception_3a/relu_5x5"
  type: "ReLU"
  bottom: "inception_3a/5x5"
  top: "inception_3a/5x5"
}
layer {
  name: "inception_3a/pool"
  type: "Pooling"
  bottom: "pool2/3x3_s2"
  top: "inception_3a/pool"
  pooling_param {
    pool: MAX
    kernel_size: 3
    stride: 1
    pad: 1
  }
}
layer {
  name: "inception_3a/pool_proj"
  type: "Convolution"
  bottom: "inception_3a/pool"
  top: "inception_3a/pool_proj"
  param {
    lr_mult: 1
    decay_mult: 1
  }
  param {
    lr_mult: 2
    decay_mult: 0
  }
  convolution_param {
    num_output: 32
    kernel_size: 1
    weight_filler {
      type: "xavier"
      std: 0.1
    }
    bias_filler {
      type: "constant"
      value: 0.2
    }
  }
}
layer {
  name: "inception_3a/relu_pool_proj"
  type: "ReLU"
  bottom: "inception_3a/pool_proj"
  top: "inception_3a/pool_proj"
}
layer {
  name: "inception_3a/output"
  type: "Concat"
  bottom: "inception_3a/1x1"
  bottom: "inception_3a/3x3"
  bottom: "inception_3a/5x5"
  bottom: "inception_3a/pool_proj"
  top: "inception_3a/output"
}
layer {
  name: "inception_3b/1x1"
  type: "Convolution"
  bottom: "inception_3a/output"
  top: "inception_3b/1x1"
  param {
    lr_mult: 1
    decay_mult: 1
  }
  param {
    lr_mult: 2
    decay_mult: 0
  }
  convolution_param {
    num_output: 128
    kernel_size: 1
    weight_filler {
      type: "xavier"
      std: 0.03
    }
    bias_filler {
      type: "constant"
      value: 0.2
    }
  }
}
layer {
  name: "inception_3b/relu_1x1"
  type: "ReLU"
  bottom: "inception_3b/1x1"
  top: "inception_3b/1x1"
}
layer {
  name: "inception_3b/3x3_reduce"
  type: "Convolution"
  bottom: "inception_3a/output"
  top: "inception_3b/3x3_reduce"
  param {
    lr_mult: 1
    decay_mult: 1
  }
  param {
    lr_mult: 2
    decay_mult: 0
  }
  convolution_param {
    num_output: 128
    kernel_size: 1
    weight_filler {
      type: "xavier"
      std: 0.09
    }
    bias_filler {
      type: "constant"
      value: 0.2
    }
  }
}
layer {
  name: "inception_3b/relu_3x3_reduce"
  type: "ReLU"
  bottom: "inception_3b/3x3_reduce"
  top: "inception_3b/3x3_reduce"
}
layer {
  name: "inception_3b/3x3"
  type: "Convolution"
  bottom: "inception_3b/3x3_reduce"
  top: "inception_3b/3x3"
  param {
    lr_mult: 1
    decay_mult: 1
  }
  param {
    lr_mult: 2
    decay_mult: 0
  }
  convolution_param {
    num_output: 192
    pad: 1
    kernel_size: 3
    weight_filler {
      type: "xavier"
      std: 0.03
    }
    bias_filler {
      type: "constant"
      value: 0.2
    }
  }
}
layer {
  name: "inception_3b/relu_3x3"
  type: "ReLU"
  bottom: "inception_3b/3x3"
  top: "inception_3b/3x3"
}
layer {
  name: "inception_3b/5x5_reduce"
  type: "Convolution"
  bottom: "inception_3a/output"
  top: "inception_3b/5x5_reduce"
  param {
    lr_mult: 1
    decay_mult: 1
  }
  param {
    lr_mult: 2
    decay_mult: 0
  }
  convolution_param {
    num_output: 32
    kernel_size: 1
    weight_filler {
      type: "xavier"
      std: 0.2
    }
    bias_filler {
      type: "constant"
      value: 0.2
    }
  }
}
layer {
  name: "inception_3b/relu_5x5_reduce"
  type: "ReLU"
  bottom: "inception_3b/5x5_reduce"
  top: "inception_3b/5x5_reduce"
}
layer {
  name: "inception_3b/5x5"
  type: "Convolution"
  bottom: "inception_3b/5x5_reduce"
  top: "inception_3b/5x5"
  param {
    lr_mult: 1
    decay_mult: 1
  }
  param {
    lr_mult: 2
    decay_mult: 0
  }
  convolution_param {
    num_output: 96
    pad: 2
    kernel_size: 5
    weight_filler {
      type: "xavier"
      std: 0.03
    }
    bias_filler {
      type: "constant"
      value: 0.2
    }
  }
}
layer {
  name: "inception_3b/relu_5x5"
  type: "ReLU"
  bottom: "inception_3b/5x5"
  top: "inception_3b/5x5"
}
layer {
  name: "inception_3b/pool"
  type: "Pooling"
  bottom: "inception_3a/output"
  top: "inception_3b/pool"
  pooling_param {
    pool: MAX
    kernel_size: 3
    stride: 1
    pad: 1
  }
}
layer {
  name: "inception_3b/pool_proj"
  type: "Convolution"
  bottom: "inception_3b/pool"
  top: "inception_3b/pool_proj"
  param {
    lr_mult: 1
    decay_mult: 1
  }
  param {
    lr_mult: 2
    decay_mult: 0
  }
  convolution_param {
    num_output: 64
    kernel_size: 1
    weight_filler {
      type: "xavier"
      std: 0.1
    }
    bias_filler {
      type: "constant"
      value: 0.2
    }
  }
}
layer {
  name: "inception_3b/relu_pool_proj"
  type: "ReLU"
  bottom: "inception_3b/pool_proj"
  top: "inception_3b/pool_proj"
}
layer {
  name: "inception_3b/output"
  type: "Concat"
  bottom: "inception_3b/1x1"
  bottom: "inception_3b/3x3"
  bottom: "inception_3b/5x5"
  bottom: "inception_3b/pool_proj"
  top: "inception_3b/output"
}
layer {
  name: "pool3/3x3_s2"
  type: "Pooling"
  bottom: "inception_3b/output"
  top: "pool3/3x3_s2"
  pooling_param {
    pool: MAX
    kernel_size: 3
    stride: 2
  }
}
layer {
  name: "inception_4a/1x1"
  type: "Convolution"
  bottom: "pool3/3x3_s2"
  top: "inception_4a/1x1"
  param {
    lr_mult: 1
    decay_mult: 1
  }
  param {
    lr_mult: 2
    decay_mult: 0
  }
  convolution_param {
    num_output: 192
    kernel_size: 1
    weight_filler {
      type: "xavier"
      std: 0.03
    }
    bias_filler {
      type: "constant"
      value: 0.2
    }
  }
}
layer {
  name: "inception_4a/relu_1x1"
  type: "ReLU"
  bottom: "inception_4a/1x1"
  top: "inception_4a/1x1"
}
layer {
  name: "inception_4a/3x3_reduce"
  type: "Convolution"
  bottom: "pool3/3x3_s2"
  top: "inception_4a/3x3_reduce"
  param {
    lr_mult: 1
    decay_mult: 1
  }
  param {
    lr_mult: 2
    decay_mult: 0
  }
  convolution_param {
    num_output: 96
    kernel_size: 1
    weight_filler {
      type: "xavier"
      std: 0.09
    }
    bias_filler {
      type: "constant"
      value: 0.2
    }
  }
}
layer {
  name: "inception_4a/relu_3x3_reduce"
  type: "ReLU"
  bottom: "inception_4a/3x3_reduce"
  top: "inception_4a/3x3_reduce"
}
layer {
  name: "inception_4a/3x3"
  type: "Convolution"
  bottom: "inception_4a/3x3_reduce"
  top: "inception_4a/3x3"
  param {
    lr_mult: 1
    decay_mult: 1
  }
  param {
    lr_mult: 2
    decay_mult: 0
  }
  convolution_param {
    num_output: 208
    pad: 1
    kernel_size: 3
    weight_filler {
      type: "xavier"
      std: 0.03
    }
    bias_filler {
      type: "constant"
      value: 0.2
    }
  }
}
layer {
  name: "inception_4a/relu_3x3"
  type: "ReLU"
  bottom: "inception_4a/3x3"
  top: "inception_4a/3x3"
}
layer {
  name: "inception_4a/5x5_reduce"
  type: "Convolution"
  bottom: "pool3/3x3_s2"
  top: "inception_4a/5x5_reduce"
  param {
    lr_mult: 1
    decay_mult: 1
  }
  param {
    lr_mult: 2
    decay_mult: 0
  }
  convolution_param {
    num_output: 16
    kernel_size: 1
    weight_filler {
      type: "xavier"
      std: 0.2
    }
    bias_filler {
      type: "constant"
      value: 0.2
    }
  }
}
layer {
  name: "inception_4a/relu_5x5_reduce"
  type: "ReLU"
  bottom: "inception_4a/5x5_reduce"
  top: "inception_4a/5x5_reduce"
}
layer {
  name: "inception_4a/5x5"
  type: "Convolution"
  bottom: "inception_4a/5x5_reduce"
  top: "inception_4a/5x5"
  param {
    lr_mult: 1
    decay_mult: 1
  }
  param {
    lr_mult: 2
    decay_mult: 0
  }
  convolution_param {
    num_output: 48
    pad: 2
    kernel_size: 5
    weight_filler {
      type: "xavier"
      std: 0.03
    }
    bias_filler {
      type: "constant"
      value: 0.2
    }
  }
}
layer {
  name: "inception_4a/relu_5x5"
  type: "ReLU"
  bottom: "inception_4a/5x5"
  top: "inception_4a/5x5"
}
layer {
  name: "inception_4a/pool"
  type: "Pooling"
  bottom: "pool3/3x3_s2"
  top: "inception_4a/pool"
  pooling_param {
    pool: MAX
    kernel_size: 3
    stride: 1
    pad: 1
  }
}
layer {
  name: "inception_4a/pool_proj"
  type: "Convolution"
  bottom: "inception_4a/pool"
  top: "inception_4a/pool_proj"
  param {
    lr_mult: 1
    decay_mult: 1
  }
  param {
    lr_mult: 2
    decay_mult: 0
  }
  convolution_param {
    num_output: 64
    kernel_size: 1
    weight_filler {
      type: "xavier"
      std: 0.1
    }
    bias_filler {
      type: "constant"
      value: 0.2
    }
  }
}
layer {
  name: "inception_4a/relu_pool_proj"
  type: "ReLU"
  bottom: "inception_4a/pool_proj"
  top: "inception_4a/pool_proj"
}
layer {
  name: "inception_4a/output"
  type: "Concat"
  bottom: "inception_4a/1x1"
  bottom: "inception_4a/3x3"
  bottom: "inception_4a/5x5"
  bottom: "inception_4a/pool_proj"
  top: "inception_4a/output"
}
layer {
  name: "inception_4b/1x1"
  type: "Convolution"
  bottom: "inception_4a/output"
  top: "inception_4b/1x1"
  param {
    lr_mult: 1
    decay_mult: 1
  }
  param {
    lr_mult: 2
    decay_mult: 0
  }
  convolution_param {
    num_output: 160
    kernel_size: 1
    weight_filler {
      type: "xavier"
      std: 0.03
    }
    bias_filler {
      type: "constant"
      value: 0.2
    }
  }
}
layer {
  name: "inception_4b/relu_1x1"
  type: "ReLU"
  bottom: "inception_4b/1x1"
  top: "inception_4b/1x1"
}
layer {
  name: "inception_4b/3x3_reduce"
  type: "Convolution"
  bottom: "inception_4a/output"
  top: "inception_4b/3x3_reduce"
  param {
    lr_mult: 1
    decay_mult: 1
  }
  param {
    lr_mult: 2
    decay_mult: 0
  }
  convolution_param {
    num_output: 112
    kernel_size: 1
    weight_filler {
      type: "xavier"
      std: 0.09
    }
    bias_filler {
      type: "constant"
      value: 0.2
    }
  }
}
layer {
  name: "inception_4b/relu_3x3_reduce"
  type: "ReLU"
  bottom: "inception_4b/3x3_reduce"
  top: "inception_4b/3x3_reduce"
}
layer {
  name: "inception_4b/3x3"
  type: "Convolution"
  bottom: "inception_4b/3x3_reduce"
  top: "inception_4b/3x3"
  param {
    lr_mult: 1
    decay_mult: 1
  }
  param {
    lr_mult: 2
    decay_mult: 0
  }
  convolution_param {
    num_output: 224
    pad: 1
    kernel_size: 3
    weight_filler {
      type: "xavier"
      std: 0.03
    }
    bias_filler {
      type: "constant"
      value: 0.2
    }
  }
}
layer {
  name: "inception_4b/relu_3x3"
  type: "ReLU"
  bottom: "inception_4b/3x3"
  top: "inception_4b/3x3"
}
layer {
  name: "inception_4b/5x5_reduce"
  type: "Convolution"
  bottom: "inception_4a/output"
  top: "inception_4b/5x5_reduce"
  param {
    lr_mult: 1
    decay_mult: 1
  }
  param {
    lr_mult: 2
    decay_mult: 0
  }
  convolution_param {
    num_output: 24
    kernel_size: 1
    weight_filler {
      type: "xavier"
      std: 0.2
    }
    bias_filler {
      type: "constant"
      value: 0.2
    }
  }
}
layer {
  name: "inception_4b/relu_5x5_reduce"
  type: "ReLU"
  bottom: "inception_4b/5x5_reduce"
  top: "inception_4b/5x5_reduce"
}
layer {
  name: "inception_4b/5x5"
  type: "Convolution"
  bottom: "inception_4b/5x5_reduce"
  top: "inception_4b/5x5"
  param {
    lr_mult: 1
    decay_mult: 1
  }
  param {
    lr_mult: 2
    decay_mult: 0
  }
  convolution_param {
    num_output: 64
    pad: 2
    kernel_size: 5
    weight_filler {
      type: "xavier"
      std: 0.03
    }
    bias_filler {
      type: "constant"
      value: 0.2
    }
  }
}
layer {
  name: "inception_4b/relu_5x5"
  type: "ReLU"
  bottom: "inception_4b/5x5"
  top: "inception_4b/5x5"
}
layer {
  name: "inception_4b/pool"
  type: "Pooling"
  bottom: "inception_4a/output"
  top: "inception_4b/pool"
  pooling_param {
    pool: MAX
    kernel_size: 3
    stride: 1
    pad: 1
  }
}
layer {
  name: "inception_4b/pool_proj"
  type: "Convolution"
  bottom: "inception_4b/pool"
  top: "inception_4b/pool_proj"
  param {
    lr_mult: 1
    decay_mult: 1
  }
  param {
    lr_mult: 2
    decay_mult: 0
  }
  convolution_param {
    num_output: 64
    kernel_size: 1
    weight_filler {
      type: "xavier"
      std: 0.1
    }
    bias_filler {
      type: "constant"
      value: 0.2
    }
  }
}
layer {
  name: "inception_4b/relu_pool_proj"
  type: "ReLU"
  bottom: "inception_4b/pool_proj"
  top: "inception_4b/pool_proj"
}
layer {
  name: "inception_4b/output"
  type: "Concat"
  bottom: "inception_4b/1x1"
  bottom: "inception_4b/3x3"
  bottom: "inception_4b/5x5"
  bottom: "inception_4b/pool_proj"
  top: "inception_4b/output"
}
layer {
  name: "inception_4c/1x1"
  type: "Convolution"
  bottom: "inception_4b/output"
  top: "inception_4c/1x1"
  param {
    lr_mult: 1
    decay_mult: 1
  }
  param {
    lr_mult: 2
    decay_mult: 0
  }
  convolution_param {
    num_output: 128
    kernel_size: 1
    weight_filler {
      type: "xavier"
      std: 0.03
    }
    bias_filler {
      type: "constant"
      value: 0.2
    }
  }
}
layer {
  name: "inception_4c/relu_1x1"
  type: "ReLU"
  bottom: "inception_4c/1x1"
  top: "inception_4c/1x1"
}
layer {
  name: "inception_4c/3x3_reduce"
  type: "Convolution"
  bottom: "inception_4b/output"
  top: "inception_4c/3x3_reduce"
  param {
    lr_mult: 1
    decay_mult: 1
  }
  param {
    lr_mult: 2
    decay_mult: 0
  }
  convolution_param {
    num_output: 128
    kernel_size: 1
    weight_filler {
      type: "xavier"
      std: 0.09
    }
    bias_filler {
      type: "constant"
      value: 0.2
    }
  }
}
layer {
  name: "inception_4c/relu_3x3_reduce"
  type: "ReLU"
  bottom: "inception_4c/3x3_reduce"
  top: "inception_4c/3x3_reduce"
}
layer {
  name: "inception_4c/3x3"
  type: "Convolution"
  bottom: "inception_4c/3x3_reduce"
  top: "inception_4c/3x3"
  param {
    lr_mult: 1
    decay_mult: 1
  }
  param {
    lr_mult: 2
    decay_mult: 0
  }
  convolution_param {
    num_output: 256
    pad: 1
    kernel_size: 3
    weight_filler {
      type: "xavier"
      std: 0.03
    }
    bias_filler {
      type: "constant"
      value: 0.2
    }
  }
}
layer {
  name: "inception_4c/relu_3x3"
  type: "ReLU"
  bottom: "inception_4c/3x3"
  top: "inception_4c/3x3"
}
layer {
  name: "inception_4c/5x5_reduce"
  type: "Convolution"
  bottom: "inception_4b/output"
  top: "inception_4c/5x5_reduce"
  param {
    lr_mult: 1
    decay_mult: 1
  }
  param {
    lr_mult: 2
    decay_mult: 0
  }
  convolution_param {
    num_output: 24
    kernel_size: 1
    weight_filler {
      type: "xavier"
      std: 0.2
    }
    bias_filler {
      type: "constant"
      value: 0.2
    }
  }
}
layer {
  name: "inception_4c/relu_5x5_reduce"
  type: "ReLU"
  bottom: "inception_4c/5x5_reduce"
  top: "inception_4c/5x5_reduce"
}
layer {
  name: "inception_4c/5x5"
  type: "Convolution"
  bottom: "inception_4c/5x5_reduce"
  top: "inception_4c/5x5"
  param {
    lr_mult: 1
    decay_mult: 1
  }
  param {
    lr_mult: 2
    decay_mult: 0
  }
  convolution_param {
    num_output: 64
    pad: 2
    kernel_size: 5
    weight_filler {
      type: "xavier"
      std: 0.03
    }
    bias_filler {
      type: "constant"
      value: 0.2
    }
  }
}
layer {
  name: "inception_4c/relu_5x5"
  type: "ReLU"
  bottom: "inception_4c/5x5"
  top: "inception_4c/5x5"
}
layer {
  name: "inception_4c/pool"
  type: "Pooling"
  bottom: "inception_4b/output"
  top: "inception_4c/pool"
  pooling_param {
    pool: MAX
    kernel_size: 3
    stride: 1
    pad: 1
  }
}
layer {
  name: "inception_4c/pool_proj"
  type: "Convolution"
  bottom: "inception_4c/pool"
  top: "inception_4c/pool_proj"
  param {
    lr_mult: 1
    decay_mult: 1
  }
  param {
    lr_mult: 2
    decay_mult: 0
  }
  convolution_param {
    num_output: 64
    kernel_size: 1
    weight_filler {
      type: "xavier"
      std: 0.1
    }
    bias_filler {
      type: "constant"
      value: 0.2
    }
  }
}
layer {
  name: "inception_4c/relu_pool_proj"
  type: "ReLU"
  bottom: "inception_4c/pool_proj"
  top: "inception_4c/pool_proj"
}
layer {
  name: "inception_4c/output"
  type: "Concat"
  bottom: "inception_4c/1x1"
  bottom: "inception_4c/3x3"
  bottom: "inception_4c/5x5"
  bottom: "inception_4c/pool_proj"
  top: "inception_4c/output"
}
layer {
  name: "inception_4d/1x1"
  type: "Convolution"
  bottom: "inception_4c/output"
  top: "inception_4d/1x1"
  param {
    lr_mult: 1
    decay_mult: 1
  }
  param {
    lr_mult: 2
    decay_mult: 0
  }
  convolution_param {
    num_output: 112
    kernel_size: 1
    weight_filler {
      type: "xavier"
      std: 0.03
    }
    bias_filler {
      type: "constant"
      value: 0.2
    }
  }
}
layer {
  name: "inception_4d/relu_1x1"
  type: "ReLU"
  bottom: "inception_4d/1x1"
  top: "inception_4d/1x1"
}
layer {
  name: "inception_4d/3x3_reduce"
  type: "Convolution"
  bottom: "inception_4c/output"
  top: "inception_4d/3x3_reduce"
  param {
    lr_mult: 1
    decay_mult: 1
  }
  param {
    lr_mult: 2
    decay_mult: 0
  }
  convolution_param {
    num_output: 144
    kernel_size: 1
    weight_filler {
      type: "xavier"
      std: 0.09
    }
    bias_filler {
      type: "constant"
      value: 0.2
    }
  }
}
layer {
  name: "inception_4d/relu_3x3_reduce"
  type: "ReLU"
  bottom: "inception_4d/3x3_reduce"
  top: "inception_4d/3x3_reduce"
}
layer {
  name: "inception_4d/3x3"
  type: "Convolution"
  bottom: "inception_4d/3x3_reduce"
  top: "inception_4d/3x3"
  param {
    lr_mult: 1
    decay_mult: 1
  }
  param {
    lr_mult: 2
    decay_mult: 0
  }
  convolution_param {
    num_output: 288
    pad: 1
    kernel_size: 3
    weight_filler {
      type: "xavier"
      std: 0.03
    }
    bias_filler {
      type: "constant"
      value: 0.2
    }
  }
}
layer {
  name: "inception_4d/relu_3x3"
  type: "ReLU"
  bottom: "inception_4d/3x3"
  top: "inception_4d/3x3"
}
layer {
  name: "inception_4d/5x5_reduce"
  type: "Convolution"
  bottom: "inception_4c/output"
  top: "inception_4d/5x5_reduce"
  param {
    lr_mult: 1
    decay_mult: 1
  }
  param {
    lr_mult: 2
    decay_mult: 0
  }
  convolution_param {
    num_output: 32
    kernel_size: 1
    weight_filler {
      type: "xavier"
      std: 0.2
    }
    bias_filler {
      type: "constant"
      value: 0.2
    }
  }
}
layer {
  name: "inception_4d/relu_5x5_reduce"
  type: "ReLU"
  bottom: "inception_4d/5x5_reduce"
  top: "inception_4d/5x5_reduce"
}
layer {
  name: "inception_4d/5x5"
  type: "Convolution"
  bottom: "inception_4d/5x5_reduce"
  top: "inception_4d/5x5"
  param {
    lr_mult: 1
    decay_mult: 1
  }
  param {
    lr_mult: 2
    decay_mult: 0
  }
  convolution_param {
    num_output: 64
    pad: 2
    kernel_size: 5
    weight_filler {
      type: "xavier"
      std: 0.03
    }
    bias_filler {
      type: "constant"
      value: 0.2
    }
  }
}
layer {
  name: "inception_4d/relu_5x5"
  type: "ReLU"
  bottom: "inception_4d/5x5"
  top: "inception_4d/5x5"
}
layer {
  name: "inception_4d/pool"
  type: "Pooling"
  bottom: "inception_4c/output"
  top: "inception_4d/pool"
  pooling_param {
    pool: MAX
    kernel_size: 3
    stride: 1
    pad: 1
  }
}
layer {
  name: "inception_4d/pool_proj"
  type: "Convolution"
  bottom: "inception_4d/pool"
  top: "inception_4d/pool_proj"
  param {
    lr_mult: 1
    decay_mult: 1
  }
  param {
    lr_mult: 2
    decay_mult: 0
  }
  convolution_param {
    num_output: 64
    kernel_size: 1
    weight_filler {
      type: "xavier"
      std: 0.1
    }
    bias_filler {
      type: "constant"
      value: 0.2
    }
  }
}
layer {
  name: "inception_4d/relu_pool_proj"
  type: "ReLU"
  bottom: "inception_4d/pool_proj"
  top: "inception_4d/pool_proj"
}
layer {
  name: "inception_4d/output"
  type: "Concat"
  bottom: "inception_4d/1x1"
  bottom: "inception_4d/3x3"
  bottom: "inception_4d/5x5"
  bottom: "inception_4d/pool_proj"
  top: "inception_4d/output"
}
layer {
  name: "inception_4e/1x1"
  type: "Convolution"
  bottom: "inception_4d/output"
  top: "inception_4e/1x1"
  param {
    lr_mult: 1
    decay_mult: 1
  }
  param {
    lr_mult: 2
    decay_mult: 0
  }
  convolution_param {
    num_output: 256
    kernel_size: 1
    weight_filler {
      type: "xavier"
      std: 0.03
    }
    bias_filler {
      type: "constant"
      value: 0.2
    }
  }
}
layer {
  name: "inception_4e/relu_1x1"
  type: "ReLU"
  bottom: "inception_4e/1x1"
  top: "inception_4e/1x1"
}
layer {
  name: "inception_4e/3x3_reduce"
  type: "Convolution"
  bottom: "inception_4d/output"
  top: "inception_4e/3x3_reduce"
  param {
    lr_mult: 1
    decay_mult: 1
  }
  param {
    lr_mult: 2
    decay_mult: 0
  }
  convolution_param {
    num_output: 160
    kernel_size: 1
    weight_filler {
      type: "xavier"
      std: 0.09
    }
    bias_filler {
      type: "constant"
      value: 0.2
    }
  }
}
layer {
  name: "inception_4e/relu_3x3_reduce"
  type: "ReLU"
  bottom: "inception_4e/3x3_reduce"
  top: "inception_4e/3x3_reduce"
}
layer {
  name: "inception_4e/3x3"
  type: "Convolution"
  bottom: "inception_4e/3x3_reduce"
  top: "inception_4e/3x3"
  param {
    lr_mult: 1
    decay_mult: 1
  }
  param {
    lr_mult: 2
    decay_mult: 0
  }
  convolution_param {
    num_output: 320
    pad: 1
    kernel_size: 3
    weight_filler {
      type: "xavier"
      std: 0.03
    }
    bias_filler {
      type: "constant"
      value: 0.2
    }
  }
}
layer {
  name: "inception_4e/relu_3x3"
  type: "ReLU"
  bottom: "inception_4e/3x3"
  top: "inception_4e/3x3"
}
layer {
  name: "inception_4e/5x5_reduce"
  type: "Convolution"
  bottom: "inception_4d/output"
  top: "inception_4e/5x5_reduce"
  param {
    lr_mult: 1
    decay_mult: 1
  }
  param {
    lr_mult: 2
    decay_mult: 0
  }
  convolution_param {
    num_output: 32
    kernel_size: 1
    weight_filler {
      type: "xavier"
      std: 0.2
    }
    bias_filler {
      type: "constant"
      value: 0.2
    }
  }
}
layer {
  name: "inception_4e/relu_5x5_reduce"
  type: "ReLU"
  bottom: "inception_4e/5x5_reduce"
  top: "inception_4e/5x5_reduce"
}
layer {
  name: "inception_4e/5x5"
  type: "Convolution"
  bottom: "inception_4e/5x5_reduce"
  top: "inception_4e/5x5"
  param {
    lr_mult: 1
    decay_mult: 1
  }
  param {
    lr_mult: 2
    decay_mult: 0
  }
  convolution_param {
    num_output: 128
    pad: 2
    kernel_size: 5
    weight_filler {
      type: "xavier"
      std: 0.03
    }
    bias_filler {
      type: "constant"
      value: 0.2
    }
  }
}
layer {
  name: "inception_4e/relu_5x5"
  type: "ReLU"
  bottom: "inception_4e/5x5"
  top: "inception_4e/5x5"
}
layer {
  name: "inception_4e/pool"
  type: "Pooling"
  bottom: "inception_4d/output"
  top: "inception_4e/pool"
  pooling_param {
    pool: MAX
    kernel_size: 3
    stride: 1
    pad: 1
  }
}
layer {
  name: "inception_4e/pool_proj"
  type: "Convolution"
  bottom: "inception_4e/pool"
  top: "inception_4e/pool_proj"
  param {
    lr_mult: 1
    decay_mult: 1
  }
  param {
    lr_mult: 2
    decay_mult: 0
  }
  convolution_param {
    num_output: 128
    kernel_size: 1
    weight_filler {
      type: "xavier"
      std: 0.1
    }
    bias_filler {
      type: "constant"
      value: 0.2
    }
  }
}
layer {
  name: "inception_4e/relu_pool_proj"
  type: "ReLU"
  bottom: "inception_4e/pool_proj"
  top: "inception_4e/pool_proj"
}
layer {
  name: "inception_4e/output"
  type: "Concat"
  bottom: "inception_4e/1x1"
  bottom: "inception_4e/3x3"
  bottom: "inception_4e/5x5"
  bottom: "inception_4e/pool_proj"
  top: "inception_4e/output"
}
layer {
  name: "pool4/3x3_s2"
  type: "Pooling"
  bottom: "inception_4e/output"
  top: "pool4/3x3_s2"
  pooling_param {
    pool: MAX
    kernel_size: 3
    stride: 2
  }
}
layer {
  name: "inception_5a/1x1"
  type: "Convolution"
  bottom: "pool4/3x3_s2"
  top: "inception_5a/1x1"
  param {
    lr_mult: 1
    decay_mult: 1
  }
  param {
    lr_mult: 2
    decay_mult: 0
  }
  convolution_param {
    num_output: 256
    kernel_size: 1
    weight_filler {
      type: "xavier"
      std: 0.03
    }
    bias_filler {
      type: "constant"
      value: 0.2
    }
  }
}
layer {
  name: "inception_5a/relu_1x1"
  type: "ReLU"
  bottom: "inception_5a/1x1"
  top: "inception_5a/1x1"
}
layer {
  name: "inception_5a/3x3_reduce"
  type: "Convolution"
  bottom: "pool4/3x3_s2"
  top: "inception_5a/3x3_reduce"
  param {
    lr_mult: 1
    decay_mult: 1
  }
  param {
    lr_mult: 2
    decay_mult: 0
  }
  convolution_param {
    num_output: 160
    kernel_size: 1
    weight_filler {
      type: "xavier"
      std: 0.09
    }
    bias_filler {
      type: "constant"
      value: 0.2
    }
  }
}
layer {
  name: "inception_5a/relu_3x3_reduce"
  type: "ReLU"
  bottom: "inception_5a/3x3_reduce"
  top: "inception_5a/3x3_reduce"
}
layer {
  name: "inception_5a/3x3"
  type: "Convolution"
  bottom: "inception_5a/3x3_reduce"
  top: "inception_5a/3x3"
  param {
    lr_mult: 1
    decay_mult: 1
  }
  param {
    lr_mult: 2
    decay_mult: 0
  }
  convolution_param {
    num_output: 320
    pad: 1
    kernel_size: 3
    weight_filler {
      type: "xavier"
      std: 0.03
    }
    bias_filler {
      type: "constant"
      value: 0.2
    }
  }
}
layer {
  name: "inception_5a/relu_3x3"
  type: "ReLU"
  bottom: "inception_5a/3x3"
  top: "inception_5a/3x3"
}
layer {
  name: "inception_5a/5x5_reduce"
  type: "Convolution"
  bottom: "pool4/3x3_s2"
  top: "inception_5a/5x5_reduce"
  param {
    lr_mult: 1
    decay_mult: 1
  }
  param {
    lr_mult: 2
    decay_mult: 0
  }
  convolution_param {
    num_output: 32
    kernel_size: 1
    weight_filler {
      type: "xavier"
      std: 0.2
    }
    bias_filler {
      type: "constant"
      value: 0.2
    }
I0706 22:04:05.155639 31367 layer_factory.hpp:77] Creating layer data
I0706 22:04:05.155663 31367 net.cpp:91] Creating Layer data
I0706 22:04:05.155673 31367 net.cpp:399] data -> data
I0706 22:04:05.753041 31367 net.cpp:141] Setting up data
I0706 22:04:05.753150 31367 net.cpp:148] Top shape: 10 3 224 224 (1505280)
I0706 22:04:05.753159 31367 net.cpp:156] Memory required for data: 6021120
I0706 22:04:05.753176 31367 layer_factory.hpp:77] Creating layer conv1/7x7_s2
I0706 22:04:05.753214 31367 net.cpp:91] Creating Layer conv1/7x7_s2
I0706 22:04:05.753223 31367 net.cpp:425] conv1/7x7_s2 <- data
I0706 22:04:05.753237 31367 net.cpp:399] conv1/7x7_s2 -> conv1/7x7_s2
I0706 22:04:05.971318 31367 net.cpp:141] Setting up conv1/7x7_s2
I0706 22:04:05.971370 31367 net.cpp:148] Top shape: 10 64 112 112 (8028160)
I0706 22:04:05.971377 31367 net.cpp:156] Memory required for data: 38133760
I0706 22:04:05.971408 31367 layer_factory.hpp:77] Creating layer conv1/relu_7x7
I0706 22:04:05.971433 31367 net.cpp:91] Creating Layer conv1/relu_7x7
I0706 22:04:05.971441 31367 net.cpp:425] conv1/relu_7x7 <- conv1/7x7_s2
I0706 22:04:05.971449 31367 net.cpp:386] conv1/relu_7x7 -> conv1/7x7_s2 (in-place)
I0706 22:04:05.972141 31367 net.cpp:141] Setting up conv1/relu_7x7
I0706 22:04:05.972153 31367 net.cpp:148] Top shape: 10 64 112 112 (8028160)
I0706 22:04:05.972158 31367 net.cpp:156] Memory required for data: 70246400
I0706 22:04:05.972163 31367 layer_factory.hpp:77] Creating layer pool1/3x3_s2
I0706 22:04:05.972177 31367 net.cpp:91] Creating Layer pool1/3x3_s2
I0706 22:04:05.972183 31367 net.cpp:425] pool1/3x3_s2 <- conv1/7x7_s2
I0706 22:04:05.972192 31367 net.cpp:399] pool1/3x3_s2 -> pool1/3x3_s2
I0706 22:04:05.972481 31367 net.cpp:141] Setting up pool1/3x3_s2
I0706 22:04:05.972543 31367 net.cpp:148] Top shape: 10 64 56 56 (2007040)
I0706 22:04:05.972554 31367 net.cpp:156] Memory required for data: 78274560
I0706 22:04:05.972569 31367 layer_factory.hpp:77] Creating layer pool1/norm1
I0706 22:04:05.972609 31367 net.cpp:91] Creating Layer pool1/norm1
I0706 22:04:05.972621 31367 net.cpp:425] pool1/norm1 <- pool1/3x3_s2
I0706 22:04:05.972640 31367 net.cpp:399] pool1/norm1 -> pool1/norm1
I0706 22:04:05.974587 31367 net.cpp:141] Setting up pool1/norm1
I0706 22:04:05.974623 31367 net.cpp:148] Top shape: 10 64 56 56 (2007040)
I0706 22:04:05.974633 31367 net.cpp:156] Memory required for data: 86302720
I0706 22:04:05.974644 31367 layer_factory.hpp:77] Creating layer conv2/3x3_reduce
I0706 22:04:05.974676 31367 net.cpp:91] Creating Layer conv2/3x3_reduce
I0706 22:04:05.974709 31367 net.cpp:425] conv2/3x3_reduce <- pool1/norm1
I0706 22:04:05.974742 31367 net.cpp:399] conv2/3x3_reduce -> conv2/3x3_reduce
I0706 22:04:05.978953 31367 net.cpp:141] Setting up conv2/3x3_reduce
I0706 22:04:05.978972 31367 net.cpp:148] Top shape: 10 64 56 56 (2007040)
I0706 22:04:05.978991 31367 net.cpp:156] Memory required for data: 94330880
I0706 22:04:05.979004 31367 layer_factory.hpp:77] Creating layer conv2/relu_3x3_reduce
I0706 22:04:05.979014 31367 net.cpp:91] Creating Layer conv2/relu_3x3_reduce
I0706 22:04:05.979020 31367 net.cpp:425] conv2/relu_3x3_reduce <- conv2/3x3_reduce
I0706 22:04:05.979027 31367 net.cpp:386] conv2/relu_3x3_reduce -> conv2/3x3_reduce (in-place)
I0706 22:04:05.980147 31367 net.cpp:141] Setting up conv2/relu_3x3_reduce
I0706 22:04:05.980180 31367 net.cpp:148] Top shape: 10 64 56 56 (2007040)
I0706 22:04:05.980190 31367 net.cpp:156] Memory required for data: 102359040
I0706 22:04:05.980201 31367 layer_factory.hpp:77] Creating layer conv2/3x3
I0706 22:04:05.980238 31367 net.cpp:91] Creating Layer conv2/3x3
I0706 22:04:05.980249 31367 net.cpp:425] conv2/3x3 <- conv2/3x3_reduce
I0706 22:04:05.980264 31367 net.cpp:399] conv2/3x3 -> conv2/3x3
I0706 22:04:05.987785 31367 net.cpp:141] Setting up conv2/3x3
I0706 22:04:05.987818 31367 net.cpp:148] Top shape: 10 192 56 56 (6021120)
I0706 22:04:05.987828 31367 net.cpp:156] Memory required for data: 126443520
I0706 22:04:05.987850 31367 layer_factory.hpp:77] Creating layer conv2/relu_3x3
I0706 22:04:05.987867 31367 net.cpp:91] Creating Layer conv2/relu_3x3
I0706 22:04:05.987876 31367 net.cpp:425] conv2/relu_3x3 <- conv2/3x3
I0706 22:04:05.987889 31367 net.cpp:386] conv2/relu_3x3 -> conv2/3x3 (in-place)
I0706 22:04:05.988248 31367 net.cpp:141] Setting up conv2/relu_3x3
I0706 22:04:05.988268 31367 net.cpp:148] Top shape: 10 192 56 56 (6021120)
I0706 22:04:05.988276 31367 net.cpp:156] Memory required for data: 150528000
I0706 22:04:05.988286 31367 layer_factory.hpp:77] Creating layer conv2/norm2
I0706 22:04:05.988301 31367 net.cpp:91] Creating Layer conv2/norm2
I0706 22:04:05.988309 31367 net.cpp:425] conv2/norm2 <- conv2/3x3
I0706 22:04:05.988322 31367 net.cpp:399] conv2/norm2 -> conv2/norm2
I0706 22:04:05.989517 31367 net.cpp:141] Setting up conv2/norm2
I0706 22:04:05.989545 31367 net.cpp:148] Top shape: 10 192 56 56 (6021120)
I0706 22:04:05.989554 31367 net.cpp:156] Memory required for data: 174612480
I0706 22:04:05.989563 31367 layer_factory.hpp:77] Creating layer pool2/3x3_s2
I0706 22:04:05.989579 31367 net.cpp:91] Creating Layer pool2/3x3_s2
I0706 22:04:05.989588 31367 net.cpp:425] pool2/3x3_s2 <- conv2/norm2
I0706 22:04:05.989600 31367 net.cpp:399] pool2/3x3_s2 -> pool2/3x3_s2
I0706 22:04:05.989681 31367 net.cpp:141] Setting up pool2/3x3_s2
I0706 22:04:05.989696 31367 net.cpp:148] Top shape: 10 192 28 28 (1505280)
I0706 22:04:05.989703 31367 net.cpp:156] Memory required for data: 180633600
I0706 22:04:05.989711 31367 layer_factory.hpp:77] Creating layer pool2/3x3_s2_pool2/3x3_s2_0_split
I0706 22:04:05.989734 31367 net.cpp:91] Creating Layer pool2/3x3_s2_pool2/3x3_s2_0_split
I0706 22:04:05.989743 31367 net.cpp:425] pool2/3x3_s2_pool2/3x3_s2_0_split <- pool2/3x3_s2
I0706 22:04:05.989754 31367 net.cpp:399] pool2/3x3_s2_pool2/3x3_s2_0_split -> pool2/3x3_s2_pool2/3x3_s2_0_split_0
I0706 22:04:05.989770 31367 net.cpp:399] pool2/3x3_s2_pool2/3x3_s2_0_split -> pool2/3x3_s2_pool2/3x3_s2_0_split_1
I0706 22:04:05.989784 31367 net.cpp:399] pool2/3x3_s2_pool2/3x3_s2_0_split -> pool2/3x3_s2_pool2/3x3_s2_0_split_2
I0706 22:04:05.989797 31367 net.cpp:399] pool2/3x3_s2_pool2/3x3_s2_0_split -> pool2/3x3_s2_pool2/3x3_s2_0_split_3
I0706 22:04:05.989904 31367 net.cpp:141] Setting up pool2/3x3_s2_pool2/3x3_s2_0_split
I0706 22:04:05.989920 31367 net.cpp:148] Top shape: 10 192 28 28 (1505280)
I0706 22:04:05.989929 31367 net.cpp:148] Top shape: 10 192 28 28 (1505280)
I0706 22:04:05.989938 31367 net.cpp:148] Top shape: 10 192 28 28 (1505280)
I0706 22:04:05.989946 31367 net.cpp:148] Top shape: 10 192 28 28 (1505280)
I0706 22:04:05.989953 31367 net.cpp:156] Memory required for data: 204718080
I0706 22:04:05.989961 31367 layer_factory.hpp:77] Creating layer inception_3a/1x1
I0706 22:04:05.989981 31367 net.cpp:91] Creating Layer inception_3a/1x1
I0706 22:04:05.989990 31367 net.cpp:425] inception_3a/1x1 <- pool2/3x3_s2_pool2/3x3_s2_0_split_0
I0706 22:04:05.990025 31367 net.cpp:399] inception_3a/1x1 -> inception_3a/1x1
I0706 22:04:05.995666 31367 net.cpp:141] Setting up inception_3a/1x1
I0706 22:04:05.995697 31367 net.cpp:148] Top shape: 10 64 28 28 (501760)
I0706 22:04:05.995707 31367 net.cpp:156] Memory required for data: 206725120
I0706 22:04:05.995723 31367 layer_factory.hpp:77] Creating layer inception_3a/relu_1x1
I0706 22:04:05.995756 31367 net.cpp:91] Creating Layer inception_3a/relu_1x1
I0706 22:04:05.995766 31367 net.cpp:425] inception_3a/relu_1x1 <- inception_3a/1x1
I0706 22:04:05.995777 31367 net.cpp:386] inception_3a/relu_1x1 -> inception_3a/1x1 (in-place)
I0706 22:04:05.996151 31367 net.cpp:141] Setting up inception_3a/relu_1x1
I0706 22:04:05.996170 31367 net.cpp:148] Top shape: 10 64 28 28 (501760)
I0706 22:04:05.996176 31367 net.cpp:156] Memory required for data: 208732160
I0706 22:04:05.996184 31367 layer_factory.hpp:77] Creating layer inception_3a/3x3_reduce
I0706 22:04:05.996206 31367 net.cpp:91] Creating Layer inception_3a/3x3_reduce
I0706 22:04:05.996215 31367 net.cpp:425] inception_3a/3x3_reduce <- pool2/3x3_s2_pool2/3x3_s2_0_split_1
I0706 22:04:05.996232 31367 net.cpp:399] inception_3a/3x3_reduce -> inception_3a/3x3_reduce
I0706 22:04:06.001055 31367 net.cpp:141] Setting up inception_3a/3x3_reduce
I0706 22:04:06.001092 31367 net.cpp:148] Top shape: 10 96 28 28 (752640)
I0706 22:04:06.001107 31367 net.cpp:156] Memory required for data: 211742720
I0706 22:04:06.001138 31367 layer_factory.hpp:77] Creating layer inception_3a/relu_3x3_reduce
I0706 22:04:06.001162 31367 net.cpp:91] Creating Layer inception_3a/relu_3x3_reduce
I0706 22:04:06.001183 31367 net.cpp:425] inception_3a/relu_3x3_reduce <- inception_3a/3x3_reduce
I0706 22:04:06.001211 31367 net.cpp:386] inception_3a/relu_3x3_reduce -> inception_3a/3x3_reduce (in-place)
I0706 22:04:06.001756 31367 net.cpp:141] Setting up inception_3a/relu_3x3_reduce
I0706 22:04:06.001788 31367 net.cpp:148] Top shape: 10 96 28 28 (752640)
I0706 22:04:06.001801 31367 net.cpp:156] Memory required for data: 214753280
I0706 22:04:06.001814 31367 layer_factory.hpp:77] Creating layer inception_3a/3x3
I0706 22:04:06.001855 31367 net.cpp:91] Creating Layer inception_3a/3x3
I0706 22:04:06.001870 31367 net.cpp:425] inception_3a/3x3 <- inception_3a/3x3_reduce
I0706 22:04:06.001893 31367 net.cpp:399] inception_3a/3x3 -> inception_3a/3x3
I0706 22:04:06.006482 31367 net.cpp:141] Setting up inception_3a/3x3
I0706 22:04:06.006511 31367 net.cpp:148] Top shape: 10 128 28 28 (1003520)
I0706 22:04:06.006520 31367 net.cpp:156] Memory required for data: 218767360
I0706 22:04:06.006533 31367 layer_factory.hpp:77] Creating layer inception_3a/relu_3x3
I0706 22:04:06.006553 31367 net.cpp:91] Creating Layer inception_3a/relu_3x3
I0706 22:04:06.006562 31367 net.cpp:425] inception_3a/relu_3x3 <- inception_3a/3x3
I0706 22:04:06.006574 31367 net.cpp:386] inception_3a/relu_3x3 -> inception_3a/3x3 (in-place)
I0706 22:04:06.007609 31367 net.cpp:141] Setting up inception_3a/relu_3x3
I0706 22:04:06.007633 31367 net.cpp:148] Top shape: 10 128 28 28 (1003520)
I0706 22:04:06.007640 31367 net.cpp:156] Memory required for data: 222781440
I0706 22:04:06.007648 31367 layer_factory.hpp:77] Creating layer inception_3a/5x5_reduce
I0706 22:04:06.007673 31367 net.cpp:91] Creating Layer inception_3a/5x5_reduce
I0706 22:04:06.007681 31367 net.cpp:425] inception_3a/5x5_reduce <- pool2/3x3_s2_pool2/3x3_s2_0_split_2
I0706 22:04:06.007694 31367 net.cpp:399] inception_3a/5x5_reduce -> inception_3a/5x5_reduce
I0706 22:04:06.010746 31367 net.cpp:141] Setting up inception_3a/5x5_reduce
I0706 22:04:06.010773 31367 net.cpp:148] Top shape: 10 16 28 28 (125440)
I0706 22:04:06.010782 31367 net.cpp:156] Memory required for data: 223283200
I0706 22:04:06.010794 31367 layer_factory.hpp:77] Creating layer inception_3a/relu_5x5_reduce
I0706 22:04:06.010810 31367 net.cpp:91] Creating Layer inception_3a/relu_5x5_reduce
I0706 22:04:06.010820 31367 net.cpp:425] inception_3a/relu_5x5_reduce <- inception_3a/5x5_reduce
I0706 22:04:06.010830 31367 net.cpp:386] inception_3a/relu_5x5_reduce -> inception_3a/5x5_reduce (in-place)
I0706 22:04:06.011167 31367 net.cpp:141] Setting up inception_3a/relu_5x5_reduce
I0706 22:04:06.011183 31367 net.cpp:148] Top shape: 10 16 28 28 (125440)
I0706 22:04:06.011189 31367 net.cpp:156] Memory required for data: 223784960
I0706 22:04:06.011196 31367 layer_factory.hpp:77] Creating layer inception_3a/5x5
I0706 22:04:06.011220 31367 net.cpp:91] Creating Layer inception_3a/5x5
I0706 22:04:06.011229 31367 net.cpp:425] inception_3a/5x5 <- inception_3a/5x5_reduce
I0706 22:04:06.011241 31367 net.cpp:399] inception_3a/5x5 -> inception_3a/5x5
I0706 22:04:06.015750 31367 net.cpp:141] Setting up inception_3a/5x5
I0706 22:04:06.015779 31367 net.cpp:148] Top shape: 10 32 28 28 (250880)
I0706 22:04:06.015786 31367 net.cpp:156] Memory required for data: 224788480
I0706 22:04:06.015799 31367 layer_factory.hpp:77] Creating layer inception_3a/relu_5x5
I0706 22:04:06.015811 31367 net.cpp:91] Creating Layer inception_3a/relu_5x5
I0706 22:04:06.015820 31367 net.cpp:425] inception_3a/relu_5x5 <- inception_3a/5x5
I0706 22:04:06.015833 31367 net.cpp:386] inception_3a/relu_5x5 -> inception_3a/5x5 (in-place)
I0706 22:04:06.016175 31367 net.cpp:141] Setting up inception_3a/relu_5x5
I0706 22:04:06.016192 31367 net.cpp:148] Top shape: 10 32 28 28 (250880)
I0706 22:04:06.016198 31367 net.cpp:156] Memory required for data: 225792000
I0706 22:04:06.016206 31367 layer_factory.hpp:77] Creating layer inception_3a/pool
I0706 22:04:06.016223 31367 net.cpp:91] Creating Layer inception_3a/pool
I0706 22:04:06.016232 31367 net.cpp:425] inception_3a/pool <- pool2/3x3_s2_pool2/3x3_s2_0_split_3
I0706 22:04:06.016242 31367 net.cpp:399] inception_3a/pool -> inception_3a/pool
I0706 22:04:06.016329 31367 net.cpp:141] Setting up inception_3a/pool
I0706 22:04:06.016341 31367 net.cpp:148] Top shape: 10 192 28 28 (1505280)
I0706 22:04:06.016347 31367 net.cpp:156] Memory required for data: 231813120
I0706 22:04:06.016355 31367 layer_factory.hpp:77] Creating layer inception_3a/pool_proj
I0706 22:04:06.016373 31367 net.cpp:91] Creating Layer inception_3a/pool_proj
I0706 22:04:06.016381 31367 net.cpp:425] inception_3a/pool_proj <- inception_3a/pool
I0706 22:04:06.016397 31367 net.cpp:399] inception_3a/pool_proj -> inception_3a/pool_proj
I0706 22:04:06.019536 31367 net.cpp:141] Setting up inception_3a/pool_proj
I0706 22:04:06.019565 31367 net.cpp:148] Top shape: 10 32 28 28 (250880)
I0706 22:04:06.019573 31367 net.cpp:156] Memory required for data: 232816640
I0706 22:04:06.019592 31367 layer_factory.hpp:77] Creating layer inception_3a/relu_pool_proj
I0706 22:04:06.019604 31367 net.cpp:91] Creating Layer inception_3a/relu_pool_proj
I0706 22:04:06.019613 31367 net.cpp:425] inception_3a/relu_pool_proj <- inception_3a/pool_proj
I0706 22:04:06.019628 31367 net.cpp:386] inception_3a/relu_pool_proj -> inception_3a/pool_proj (in-place)
I0706 22:04:06.020627 31367 net.cpp:141] Setting up inception_3a/relu_pool_proj
I0706 22:04:06.020650 31367 net.cpp:148] Top shape: 10 32 28 28 (250880)
I0706 22:04:06.020658 31367 net.cpp:156] Memory required for data: 233820160
I0706 22:04:06.020665 31367 layer_factory.hpp:77] Creating layer inception_3a/output
I0706 22:04:06.020686 31367 net.cpp:91] Creating Layer inception_3a/output
I0706 22:04:06.020694 31367 net.cpp:425] inception_3a/output <- inception_3a/1x1
I0706 22:04:06.020709 31367 net.cpp:425] inception_3a/output <- inception_3a/3x3
I0706 22:04:06.020717 31367 net.cpp:425] inception_3a/output <- inception_3a/5x5
I0706 22:04:06.020725 31367 net.cpp:425] inception_3a/output <- inception_3a/pool_proj
I0706 22:04:06.020735 31367 net.cpp:399] inception_3a/output -> inception_3a/output
I0706 22:04:06.020800 31367 net.cpp:141] Setting up inception_3a/output
I0706 22:04:06.020814 31367 net.cpp:148] Top shape: 10 256 28 28 (2007040)
I0706 22:04:06.020820 31367 net.cpp:156] Memory required for data: 241848320
I0706 22:04:06.020828 31367 layer_factory.hpp:77] Creating layer inception_3a/output_inception_3a/output_0_split
I0706 22:04:06.020838 31367 net.cpp:91] Creating Layer inception_3a/output_inception_3a/output_0_split
I0706 22:04:06.020844 31367 net.cpp:425] inception_3a/output_inception_3a/output_0_split <- inception_3a/output
I0706 22:04:06.020859 31367 net.cpp:399] inception_3a/output_inception_3a/output_0_split -> inception_3a/output_inception_3a/output_0_split_0
I0706 22:04:06.020872 31367 net.cpp:399] inception_3a/output_inception_3a/output_0_split -> inception_3a/output_inception_3a/output_0_split_1
I0706 22:04:06.020884 31367 net.cpp:399] inception_3a/output_inception_3a/output_0_split -> inception_3a/output_inception_3a/output_0_split_2
I0706 22:04:06.020895 31367 net.cpp:399] inception_3a/output_inception_3a/output_0_split -> inception_3a/output_inception_3a/output_0_split_3
I0706 22:04:06.021015 31367 net.cpp:141] Setting up inception_3a/output_inception_3a/output_0_split
I0706 22:04:06.021029 31367 net.cpp:148] Top shape: 10 256 28 28 (2007040)
I0706 22:04:06.021037 31367 net.cpp:148] Top shape: 10 256 28 28 (2007040)
I0706 22:04:06.021045 31367 net.cpp:148] Top shape: 10 256 28 28 (2007040)
I0706 22:04:06.021052 31367 net.cpp:148] Top shape: 10 256 28 28 (2007040)
I0706 22:04:06.021059 31367 net.cpp:156] Memory required for data: 273960960
I0706 22:04:06.021064 31367 layer_factory.hpp:77] Creating layer inception_3b/1x1
I0706 22:04:06.021090 31367 net.cpp:91] Creating Layer inception_3b/1x1
I0706 22:04:06.021097 31367 net.cpp:425] inception_3b/1x1 <- inception_3a/output_inception_3a/output_0_split_0
I0706 22:04:06.021109 31367 net.cpp:399] inception_3b/1x1 -> inception_3b/1x1
I0706 22:04:06.024284 31367 net.cpp:141] Setting up inception_3b/1x1
I0706 22:04:06.024312 31367 net.cpp:148] Top shape: 10 128 28 28 (1003520)
I0706 22:04:06.024319 31367 net.cpp:156] Memory required for data: 277975040
I0706 22:04:06.024332 31367 layer_factory.hpp:77] Creating layer inception_3b/relu_1x1
I0706 22:04:06.024346 31367 net.cpp:91] Creating Layer inception_3b/relu_1x1
I0706 22:04:06.024355 31367 net.cpp:425] inception_3b/relu_1x1 <- inception_3b/1x1
I0706 22:04:06.024364 31367 net.cpp:386] inception_3b/relu_1x1 -> inception_3b/1x1 (in-place)
I0706 22:04:06.024875 31367 net.cpp:141] Setting up inception_3b/relu_1x1
I0706 22:04:06.024893 31367 net.cpp:148] Top shape: 10 128 28 28 (1003520)
I0706 22:04:06.024899 31367 net.cpp:156] Memory required for data: 281989120
I0706 22:04:06.024906 31367 layer_factory.hpp:77] Creating layer inception_3b/3x3_reduce
I0706 22:04:06.024930 31367 net.cpp:91] Creating Layer inception_3b/3x3_reduce
I0706 22:04:06.024938 31367 net.cpp:425] inception_3b/3x3_reduce <- inception_3a/output_inception_3a/output_0_split_1
I0706 22:04:06.024950 31367 net.cpp:399] inception_3b/3x3_reduce -> inception_3b/3x3_reduce
I0706 22:04:06.028043 31367 net.cpp:141] Setting up inception_3b/3x3_reduce
I0706 22:04:06.028069 31367 net.cpp:148] Top shape: 10 128 28 28 (1003520)
I0706 22:04:06.028075 31367 net.cpp:156] Memory required for data: 286003200
I0706 22:04:06.028087 31367 layer_factory.hpp:77] Creating layer inception_3b/relu_3x3_reduce
I0706 22:04:06.028102 31367 net.cpp:91] Creating Layer inception_3b/relu_3x3_reduce
I0706 22:04:06.028110 31367 net.cpp:425] inception_3b/relu_3x3_reduce <- inception_3b/3x3_reduce
I0706 22:04:06.028120 31367 net.cpp:386] inception_3b/relu_3x3_reduce -> inception_3b/3x3_reduce (in-place)
I0706 22:04:06.028434 31367 net.cpp:141] Setting up inception_3b/relu_3x3_reduce
I0706 22:04:06.028450 31367 net.cpp:148] Top shape: 10 128 28 28 (1003520)
I0706 22:04:06.028456 31367 net.cpp:156] Memory required for data: 290017280
I0706 22:04:06.028463 31367 layer_factory.hpp:77] Creating layer inception_3b/3x3
I0706 22:04:06.028486 31367 net.cpp:91] Creating Layer inception_3b/3x3
I0706 22:04:06.028493 31367 net.cpp:425] inception_3b/3x3 <- inception_3b/3x3_reduce
I0706 22:04:06.028504 31367 net.cpp:399] inception_3b/3x3 -> inception_3b/3x3
I0706 22:04:06.035202 31367 net.cpp:141] Setting up inception_3b/3x3
I0706 22:04:06.035228 31367 net.cpp:148] Top shape: 10 192 28 28 (1505280)
I0706 22:04:06.035233 31367 net.cpp:156] Memory required for data: 296038400
I0706 22:04:06.035245 31367 layer_factory.hpp:77] Creating layer inception_3b/relu_3x3
I0706 22:04:06.035266 31367 net.cpp:91] Creating Layer inception_3b/relu_3x3
I0706 22:04:06.035274 31367 net.cpp:425] inception_3b/relu_3x3 <- inception_3b/3x3
I0706 22:04:06.035284 31367 net.cpp:386] inception_3b/relu_3x3 -> inception_3b/3x3 (in-place)
I0706 22:04:06.036192 31367 net.cpp:141] Setting up inception_3b/relu_3x3
I0706 22:04:06.036212 31367 net.cpp:148] Top shape: 10 192 28 28 (1505280)
I0706 22:04:06.036219 31367 net.cpp:156] Memory required for data: 302059520
I0706 22:04:06.036226 31367 layer_factory.hpp:77] Creating layer inception_3b/5x5_reduce
I0706 22:04:06.036249 31367 net.cpp:91] Creating Layer inception_3b/5x5_reduce
I0706 22:04:06.036257 31367 net.cpp:425] inception_3b/5x5_reduce <- inception_3a/output_inception_3a/output_0_split_2
I0706 22:04:06.036268 31367 net.cpp:399] inception_3b/5x5_reduce -> inception_3b/5x5_reduce
I0706 22:04:06.038941 31367 net.cpp:141] Setting up inception_3b/5x5_reduce
I0706 22:04:06.038961 31367 net.cpp:148] Top shape: 10 32 28 28 (250880)
I0706 22:04:06.038967 31367 net.cpp:156] Memory required for data: 303063040
I0706 22:04:06.038976 31367 layer_factory.hpp:77] Creating layer inception_3b/relu_5x5_reduce
I0706 22:04:06.038988 31367 net.cpp:91] Creating Layer inception_3b/relu_5x5_reduce
I0706 22:04:06.038995 31367 net.cpp:425] inception_3b/relu_5x5_reduce <- inception_3b/5x5_reduce
I0706 22:04:06.039002 31367 net.cpp:386] inception_3b/relu_5x5_reduce -> inception_3b/5x5_reduce (in-place)
I0706 22:04:06.039247 31367 net.cpp:141] Setting up inception_3b/relu_5x5_reduce
I0706 22:04:06.039259 31367 net.cpp:148] Top shape: 10 32 28 28 (250880)
I0706 22:04:06.039264 31367 net.cpp:156] Memory required for data: 304066560
I0706 22:04:06.039269 31367 layer_factory.hpp:77] Creating layer inception_3b/5x5
I0706 22:04:06.039288 31367 net.cpp:91] Creating Layer inception_3b/5x5
I0706 22:04:06.039294 31367 net.cpp:425] inception_3b/5x5 <- inception_3b/5x5_reduce
I0706 22:04:06.039304 31367 net.cpp:399] inception_3b/5x5 -> inception_3b/5x5
I0706 22:04:06.043797 31367 net.cpp:141] Setting up inception_3b/5x5
I0706 22:04:06.043819 31367 net.cpp:148] Top shape: 10 96 28 28 (752640)
I0706 22:04:06.043826 31367 net.cpp:156] Memory required for data: 307077120
I0706 22:04:06.043838 31367 layer_factory.hpp:77] Creating layer inception_3b/relu_5x5
I0706 22:04:06.043854 31367 net.cpp:91] Creating Layer inception_3b/relu_5x5
I0706 22:04:06.043862 31367 net.cpp:425] inception_3b/relu_5x5 <- inception_3b/5x5
I0706 22:04:06.043872 31367 net.cpp:386] inception_3b/relu_5x5 -> inception_3b/5x5 (in-place)
I0706 22:04:06.044165 31367 net.cpp:141] Setting up inception_3b/relu_5x5
I0706 22:04:06.044179 31367 net.cpp:148] Top shape: 10 96 28 28 (752640)
I0706 22:04:06.044185 31367 net.cpp:156] Memory required for data: 310087680
I0706 22:04:06.044191 31367 layer_factory.hpp:77] Creating layer inception_3b/pool
I0706 22:04:06.044205 31367 net.cpp:91] Creating Layer inception_3b/pool
I0706 22:04:06.044212 31367 net.cpp:425] inception_3b/pool <- inception_3a/output_inception_3a/output_0_split_3
I0706 22:04:06.044226 31367 net.cpp:399] inception_3b/pool -> inception_3b/pool
I0706 22:04:06.044304 31367 net.cpp:141] Setting up inception_3b/pool
I0706 22:04:06.044314 31367 net.cpp:148] Top shape: 10 256 28 28 (2007040)
I0706 22:04:06.044319 31367 net.cpp:156] Memory required for data: 318115840
I0706 22:04:06.044325 31367 layer_factory.hpp:77] Creating layer inception_3b/pool_proj
I0706 22:04:06.044353 31367 net.cpp:91] Creating Layer inception_3b/pool_proj
I0706 22:04:06.044366 31367 net.cpp:425] inception_3b/pool_proj <- inception_3b/pool
I0706 22:04:06.044381 31367 net.cpp:399] inception_3b/pool_proj -> inception_3b/pool_proj
I0706 22:04:06.047421 31367 net.cpp:141] Setting up inception_3b/pool_proj
I0706 22:04:06.047444 31367 net.cpp:148] Top shape: 10 64 28 28 (501760)
I0706 22:04:06.047451 31367 net.cpp:156] Memory required for data: 320122880
I0706 22:04:06.047464 31367 layer_factory.hpp:77] Creating layer inception_3b/relu_pool_proj
I0706 22:04:06.047477 31367 net.cpp:91] Creating Layer inception_3b/relu_pool_proj
I0706 22:04:06.047485 31367 net.cpp:425] inception_3b/relu_pool_proj <- inception_3b/pool_proj
I0706 22:04:06.047497 31367 net.cpp:386] inception_3b/relu_pool_proj -> inception_3b/pool_proj (in-place)
I0706 22:04:06.048305 31367 net.cpp:141] Setting up inception_3b/relu_pool_proj
I0706 22:04:06.048324 31367 net.cpp:148] Top shape: 10 64 28 28 (501760)
I0706 22:04:06.048331 31367 net.cpp:156] Memory required for data: 322129920
I0706 22:04:06.048337 31367 layer_factory.hpp:77] Creating layer inception_3b/output
I0706 22:04:06.048347 31367 net.cpp:91] Creating Layer inception_3b/output
I0706 22:04:06.048353 31367 net.cpp:425] inception_3b/output <- inception_3b/1x1
I0706 22:04:06.048362 31367 net.cpp:425] inception_3b/output <- inception_3b/3x3
I0706 22:04:06.048367 31367 net.cpp:425] inception_3b/output <- inception_3b/5x5
I0706 22:04:06.048374 31367 net.cpp:425] inception_3b/output <- inception_3b/pool_proj
I0706 22:04:06.048385 31367 net.cpp:399] inception_3b/output -> inception_3b/output
I0706 22:04:06.048434 31367 net.cpp:141] Setting up inception_3b/output
I0706 22:04:06.048445 31367 net.cpp:148] Top shape: 10 480 28 28 (3763200)
I0706 22:04:06.048450 31367 net.cpp:156] Memory required for data: 337182720
I0706 22:04:06.048456 31367 layer_factory.hpp:77] Creating layer pool3/3x3_s2
I0706 22:04:06.048470 31367 net.cpp:91] Creating Layer pool3/3x3_s2
I0706 22:04:06.048477 31367 net.cpp:425] pool3/3x3_s2 <- inception_3b/output
I0706 22:04:06.048485 31367 net.cpp:399] pool3/3x3_s2 -> pool3/3x3_s2
I0706 22:04:06.048558 31367 net.cpp:141] Setting up pool3/3x3_s2
I0706 22:04:06.048573 31367 net.cpp:148] Top shape: 10 480 14 14 (940800)
I0706 22:04:06.048578 31367 net.cpp:156] Memory required for data: 340945920
I0706 22:04:06.048583 31367 layer_factory.hpp:77] Creating layer pool3/3x3_s2_pool3/3x3_s2_0_split
I0706 22:04:06.048593 31367 net.cpp:91] Creating Layer pool3/3x3_s2_pool3/3x3_s2_0_split
I0706 22:04:06.048599 31367 net.cpp:425] pool3/3x3_s2_pool3/3x3_s2_0_split <- pool3/3x3_s2
I0706 22:04:06.048607 31367 net.cpp:399] pool3/3x3_s2_pool3/3x3_s2_0_split -> pool3/3x3_s2_pool3/3x3_s2_0_split_0
I0706 22:04:06.048616 31367 net.cpp:399] pool3/3x3_s2_pool3/3x3_s2_0_split -> pool3/3x3_s2_pool3/3x3_s2_0_split_1
I0706 22:04:06.048630 31367 net.cpp:399] pool3/3x3_s2_pool3/3x3_s2_0_split -> pool3/3x3_s2_pool3/3x3_s2_0_split_2
I0706 22:04:06.048640 31367 net.cpp:399] pool3/3x3_s2_pool3/3x3_s2_0_split -> pool3/3x3_s2_pool3/3x3_s2_0_split_3
I0706 22:04:06.048738 31367 net.cpp:141] Setting up pool3/3x3_s2_pool3/3x3_s2_0_split
I0706 22:04:06.048748 31367 net.cpp:148] Top shape: 10 480 14 14 (940800)
I0706 22:04:06.048755 31367 net.cpp:148] Top shape: 10 480 14 14 (940800)
I0706 22:04:06.048761 31367 net.cpp:148] Top shape: 10 480 14 14 (940800)
I0706 22:04:06.048768 31367 net.cpp:148] Top shape: 10 480 14 14 (940800)
I0706 22:04:06.048773 31367 net.cpp:156] Memory required for data: 355998720
I0706 22:04:06.048779 31367 layer_factory.hpp:77] Creating layer inception_4a/1x1
I0706 22:04:06.048796 31367 net.cpp:91] Creating Layer inception_4a/1x1
I0706 22:04:06.048805 31367 net.cpp:425] inception_4a/1x1 <- pool3/3x3_s2_pool3/3x3_s2_0_split_0
I0706 22:04:06.048815 31367 net.cpp:399] inception_4a/1x1 -> inception_4a/1x1
I0706 22:04:06.052768 31367 net.cpp:141] Setting up inception_4a/1x1
I0706 22:04:06.052791 31367 net.cpp:148] Top shape: 10 192 14 14 (376320)
I0706 22:04:06.052798 31367 net.cpp:156] Memory required for data: 357504000
I0706 22:04:06.052809 31367 layer_factory.hpp:77] Creating layer inception_4a/relu_1x1
I0706 22:04:06.052819 31367 net.cpp:91] Creating Layer inception_4a/relu_1x1
I0706 22:04:06.052826 31367 net.cpp:425] inception_4a/relu_1x1 <- inception_4a/1x1
I0706 22:04:06.052834 31367 net.cpp:386] inception_4a/relu_1x1 -> inception_4a/1x1 (in-place)
I0706 22:04:06.053125 31367 net.cpp:141] Setting up inception_4a/relu_1x1
I0706 22:04:06.053139 31367 net.cpp:148] Top shape: 10 192 14 14 (376320)
I0706 22:04:06.053144 31367 net.cpp:156] Memory required for data: 359009280
I0706 22:04:06.053150 31367 layer_factory.hpp:77] Creating layer inception_4a/3x3_reduce
I0706 22:04:06.053167 31367 net.cpp:91] Creating Layer inception_4a/3x3_reduce
I0706 22:04:06.053174 31367 net.cpp:425] inception_4a/3x3_reduce <- pool3/3x3_s2_pool3/3x3_s2_0_split_1
I0706 22:04:06.053189 31367 net.cpp:399] inception_4a/3x3_reduce -> inception_4a/3x3_reduce
I0706 22:04:06.056087 31367 net.cpp:141] Setting up inception_4a/3x3_reduce
I0706 22:04:06.056108 31367 net.cpp:148] Top shape: 10 96 14 14 (188160)
I0706 22:04:06.056115 31367 net.cpp:156] Memory required for data: 359761920
I0706 22:04:06.056138 31367 layer_factory.hpp:77] Creating layer inception_4a/relu_3x3_reduce
I0706 22:04:06.056149 31367 net.cpp:91] Creating Layer inception_4a/relu_3x3_reduce
I0706 22:04:06.056155 31367 net.cpp:425] inception_4a/relu_3x3_reduce <- inception_4a/3x3_reduce
I0706 22:04:06.056164 31367 net.cpp:386] inception_4a/relu_3x3_reduce -> inception_4a/3x3_reduce (in-place)
I0706 22:04:06.056447 31367 net.cpp:141] Setting up inception_4a/relu_3x3_reduce
I0706 22:04:06.056460 31367 net.cpp:148] Top shape: 10 96 14 14 (188160)
I0706 22:04:06.056466 31367 net.cpp:156] Memory required for data: 360514560
I0706 22:04:06.056473 31367 layer_factory.hpp:77] Creating layer inception_4a/3x3
I0706 22:04:06.056490 31367 net.cpp:91] Creating Layer inception_4a/3x3
I0706 22:04:06.056498 31367 net.cpp:425] inception_4a/3x3 <- inception_4a/3x3_reduce
I0706 22:04:06.056510 31367 net.cpp:399] inception_4a/3x3 -> inception_4a/3x3
I0706 22:04:06.061645 31367 net.cpp:141] Setting up inception_4a/3x3
I0706 22:04:06.061667 31367 net.cpp:148] Top shape: 10 208 14 14 (407680)
I0706 22:04:06.061673 31367 net.cpp:156] Memory required for data: 362145280
I0706 22:04:06.061683 31367 layer_factory.hpp:77] Creating layer inception_4a/relu_3x3
I0706 22:04:06.061693 31367 net.cpp:91] Creating Layer inception_4a/relu_3x3
I0706 22:04:06.061700 31367 net.cpp:425] inception_4a/relu_3x3 <- inception_4a/3x3
I0706 22:04:06.061712 31367 net.cpp:386] inception_4a/relu_3x3 -> inception_4a/3x3 (in-place)
I0706 22:04:06.062513 31367 net.cpp:141] Setting up inception_4a/relu_3x3
I0706 22:04:06.062531 31367 net.cpp:148] Top shape: 10 208 14 14 (407680)
I0706 22:04:06.062537 31367 net.cpp:156] Memory required for data: 363776000
I0706 22:04:06.062543 31367 layer_factory.hpp:77] Creating layer inception_4a/5x5_reduce
I0706 22:04:06.062561 31367 net.cpp:91] Creating Layer inception_4a/5x5_reduce
I0706 22:04:06.062568 31367 net.cpp:425] inception_4a/5x5_reduce <- pool3/3x3_s2_pool3/3x3_s2_0_split_2
I0706 22:04:06.062582 31367 net.cpp:399] inception_4a/5x5_reduce -> inception_4a/5x5_reduce
I0706 22:04:06.065001 31367 net.cpp:141] Setting up inception_4a/5x5_reduce
I0706 22:04:06.065021 31367 net.cpp:148] Top shape: 10 16 14 14 (31360)
I0706 22:04:06.065027 31367 net.cpp:156] Memory required for data: 363901440
I0706 22:04:06.065037 31367 layer_factory.hpp:77] Creating layer inception_4a/relu_5x5_reduce
I0706 22:04:06.065052 31367 net.cpp:91] Creating Layer inception_4a/relu_5x5_reduce
I0706 22:04:06.065058 31367 net.cpp:425] inception_4a/relu_5x5_reduce <- inception_4a/5x5_reduce
I0706 22:04:06.065066 31367 net.cpp:386] inception_4a/relu_5x5_reduce -> inception_4a/5x5_reduce (in-place)
I0706 22:04:06.065338 31367 net.cpp:141] Setting up inception_4a/relu_5x5_reduce
I0706 22:04:06.065351 31367 net.cpp:148] Top shape: 10 16 14 14 (31360)
I0706 22:04:06.065356 31367 net.cpp:156] Memory required for data: 364026880
I0706 22:04:06.065362 31367 layer_factory.hpp:77] Creating layer inception_4a/5x5
I0706 22:04:06.065382 31367 net.cpp:91] Creating Layer inception_4a/5x5
I0706 22:04:06.065388 31367 net.cpp:425] inception_4a/5x5 <- inception_4a/5x5_reduce
I0706 22:04:06.065398 31367 net.cpp:399] inception_4a/5x5 -> inception_4a/5x5
I0706 22:04:06.068075 31367 net.cpp:141] Setting up inception_4a/5x5
I0706 22:04:06.068096 31367 net.cpp:148] Top shape: 10 48 14 14 (94080)
I0706 22:04:06.068102 31367 net.cpp:156] Memory required for data: 364403200
I0706 22:04:06.068112 31367 layer_factory.hpp:77] Creating layer inception_4a/relu_5x5
I0706 22:04:06.068127 31367 net.cpp:91] Creating Layer inception_4a/relu_5x5
I0706 22:04:06.068135 31367 net.cpp:425] inception_4a/relu_5x5 <- inception_4a/5x5
I0706 22:04:06.068143 31367 net.cpp:386] inception_4a/relu_5x5 -> inception_4a/5x5 (in-place)
I0706 22:04:06.068411 31367 net.cpp:141] Setting up inception_4a/relu_5x5
I0706 22:04:06.068424 31367 net.cpp:148] Top shape: 10 48 14 14 (94080)
I0706 22:04:06.068429 31367 net.cpp:156] Memory required for data: 364779520
I0706 22:04:06.068435 31367 layer_factory.hpp:77] Creating layer inception_4a/pool
I0706 22:04:06.068444 31367 net.cpp:91] Creating Layer inception_4a/pool
I0706 22:04:06.068450 31367 net.cpp:425] inception_4a/pool <- pool3/3x3_s2_pool3/3x3_s2_0_split_3
I0706 22:04:06.068464 31367 net.cpp:399] inception_4a/pool -> inception_4a/pool
I0706 22:04:06.068533 31367 net.cpp:141] Setting up inception_4a/pool
I0706 22:04:06.068544 31367 net.cpp:148] Top shape: 10 480 14 14 (940800)
I0706 22:04:06.068549 31367 net.cpp:156] Memory required for data: 368542720
I0706 22:04:06.068554 31367 layer_factory.hpp:77] Creating layer inception_4a/pool_proj
I0706 22:04:06.068573 31367 net.cpp:91] Creating Layer inception_4a/pool_proj
I0706 22:04:06.068580 31367 net.cpp:425] inception_4a/pool_proj <- inception_4a/pool
I0706 22:04:06.068590 31367 net.cpp:399] inception_4a/pool_proj -> inception_4a/pool_proj
I0706 22:04:06.071204 31367 net.cpp:141] Setting up inception_4a/pool_proj
I0706 22:04:06.071226 31367 net.cpp:148] Top shape: 10 64 14 14 (125440)
I0706 22:04:06.071233 31367 net.cpp:156] Memory required for data: 369044480
I0706 22:04:06.071243 31367 layer_factory.hpp:77] Creating layer inception_4a/relu_pool_proj
I0706 22:04:06.071251 31367 net.cpp:91] Creating Layer inception_4a/relu_pool_proj
I0706 22:04:06.071259 31367 net.cpp:425] inception_4a/relu_pool_proj <- inception_4a/pool_proj
I0706 22:04:06.071265 31367 net.cpp:386] inception_4a/relu_pool_proj -> inception_4a/pool_proj (in-place)
I0706 22:04:06.072046 31367 net.cpp:141] Setting up inception_4a/relu_pool_proj
I0706 22:04:06.072062 31367 net.cpp:148] Top shape: 10 64 14 14 (125440)
I0706 22:04:06.072067 31367 net.cpp:156] Memory required for data: 369546240
I0706 22:04:06.072073 31367 layer_factory.hpp:77] Creating layer inception_4a/output
I0706 22:04:06.072082 31367 net.cpp:91] Creating Layer inception_4a/output
I0706 22:04:06.072088 31367 net.cpp:425] inception_4a/output <- inception_4a/1x1
I0706 22:04:06.072095 31367 net.cpp:425] inception_4a/output <- inception_4a/3x3
I0706 22:04:06.072101 31367 net.cpp:425] inception_4a/output <- inception_4a/5x5
I0706 22:04:06.072108 31367 net.cpp:425] inception_4a/output <- inception_4a/pool_proj
I0706 22:04:06.072114 31367 net.cpp:399] inception_4a/output -> inception_4a/output
I0706 22:04:06.072165 31367 net.cpp:141] Setting up inception_4a/output
I0706 22:04:06.072175 31367 net.cpp:148] Top shape: 10 512 14 14 (1003520)
I0706 22:04:06.072180 31367 net.cpp:156] Memory required for data: 373560320
I0706 22:04:06.072185 31367 layer_factory.hpp:77] Creating layer inception_4a/output_inception_4a/output_0_split
I0706 22:04:06.072196 31367 net.cpp:91] Creating Layer inception_4a/output_inception_4a/output_0_split
I0706 22:04:06.072202 31367 net.cpp:425] inception_4a/output_inception_4a/output_0_split <- inception_4a/output
I0706 22:04:06.072209 31367 net.cpp:399] inception_4a/output_inception_4a/output_0_split -> inception_4a/output_inception_4a/output_0_split_0
I0706 22:04:06.072219 31367 net.cpp:399] inception_4a/output_inception_4a/output_0_split -> inception_4a/output_inception_4a/output_0_split_1
I0706 22:04:06.072228 31367 net.cpp:399] inception_4a/output_inception_4a/output_0_split -> inception_4a/output_inception_4a/output_0_split_2
I0706 22:04:06.072237 31367 net.cpp:399] inception_4a/output_inception_4a/output_0_split -> inception_4a/output_inception_4a/output_0_split_3
I0706 22:04:06.072334 31367 net.cpp:141] Setting up inception_4a/output_inception_4a/output_0_split
I0706 22:04:06.072343 31367 net.cpp:148] Top shape: 10 512 14 14 (1003520)
I0706 22:04:06.072350 31367 net.cpp:148] Top shape: 10 512 14 14 (1003520)
I0706 22:04:06.072355 31367 net.cpp:148] Top shape: 10 512 14 14 (1003520)
I0706 22:04:06.072361 31367 net.cpp:148] Top shape: 10 512 14 14 (1003520)
I0706 22:04:06.072365 31367 net.cpp:156] Memory required for data: 389616640
I0706 22:04:06.072371 31367 layer_factory.hpp:77] Creating layer inception_4b/1x1
I0706 22:04:06.072389 31367 net.cpp:91] Creating Layer inception_4b/1x1
I0706 22:04:06.072396 31367 net.cpp:425] inception_4b/1x1 <- inception_4a/output_inception_4a/output_0_split_0
I0706 22:04:06.072407 31367 net.cpp:399] inception_4b/1x1 -> inception_4b/1x1
I0706 22:04:06.075398 31367 net.cpp:141] Setting up inception_4b/1x1
I0706 22:04:06.075422 31367 net.cpp:148] Top shape: 10 160 14 14 (313600)
I0706 22:04:06.075428 31367 net.cpp:156] Memory required for data: 390871040
I0706 22:04:06.075438 31367 layer_factory.hpp:77] Creating layer inception_4b/relu_1x1
I0706 22:04:06.075448 31367 net.cpp:91] Creating Layer inception_4b/relu_1x1
I0706 22:04:06.075453 31367 net.cpp:425] inception_4b/relu_1x1 <- inception_4b/1x1
I0706 22:04:06.075464 31367 net.cpp:386] inception_4b/relu_1x1 -> inception_4b/1x1 (in-place)
I0706 22:04:06.075721 31367 net.cpp:141] Setting up inception_4b/relu_1x1
I0706 22:04:06.075732 31367 net.cpp:148] Top shape: 10 160 14 14 (313600)
I0706 22:04:06.075737 31367 net.cpp:156] Memory required for data: 392125440
I0706 22:04:06.075743 31367 layer_factory.hpp:77] Creating layer inception_4b/3x3_reduce
I0706 22:04:06.075759 31367 net.cpp:91] Creating Layer inception_4b/3x3_reduce
I0706 22:04:06.075767 31367 net.cpp:425] inception_4b/3x3_reduce <- inception_4a/output_inception_4a/output_0_split_1
I0706 22:04:06.075778 31367 net.cpp:399] inception_4b/3x3_reduce -> inception_4b/3x3_reduce
I0706 22:04:06.078523 31367 net.cpp:141] Setting up inception_4b/3x3_reduce
I0706 22:04:06.078542 31367 net.cpp:148] Top shape: 10 112 14 14 (219520)
I0706 22:04:06.078548 31367 net.cpp:156] Memory required for data: 393003520
I0706 22:04:06.078558 31367 layer_factory.hpp:77] Creating layer inception_4b/relu_3x3_reduce
I0706 22:04:06.078572 31367 net.cpp:91] Creating Layer inception_4b/relu_3x3_reduce
I0706 22:04:06.078578 31367 net.cpp:425] inception_4b/relu_3x3_reduce <- inception_4b/3x3_reduce
I0706 22:04:06.078586 31367 net.cpp:386] inception_4b/relu_3x3_reduce -> inception_4b/3x3_reduce (in-place)
I0706 22:04:06.078858 31367 net.cpp:141] Setting up inception_4b/relu_3x3_reduce
I0706 22:04:06.078871 31367 net.cpp:148] Top shape: 10 112 14 14 (219520)
I0706 22:04:06.078874 31367 net.cpp:156] Memory required for data: 393881600
I0706 22:04:06.078879 31367 layer_factory.hpp:77] Creating layer inception_4b/3x3
I0706 22:04:06.078894 31367 net.cpp:91] Creating Layer inception_4b/3x3
I0706 22:04:06.078901 31367 net.cpp:425] inception_4b/3x3 <- inception_4b/3x3_reduce
I0706 22:04:06.078910 31367 net.cpp:399] inception_4b/3x3 -> inception_4b/3x3
I0706 22:04:06.089268 31367 net.cpp:141] Setting up inception_4b/3x3
I0706 22:04:06.089323 31367 net.cpp:148] Top shape: 10 224 14 14 (439040)
I0706 22:04:06.089331 31367 net.cpp:156] Memory required for data: 395637760
I0706 22:04:06.089349 31367 layer_factory.hpp:77] Creating layer inception_4b/relu_3x3
I0706 22:04:06.089372 31367 net.cpp:91] Creating Layer inception_4b/relu_3x3
I0706 22:04:06.089385 31367 net.cpp:425] inception_4b/relu_3x3 <- inception_4b/3x3
I0706 22:04:06.089397 31367 net.cpp:386] inception_4b/relu_3x3 -> inception_4b/3x3 (in-place)
I0706 22:04:06.090284 31367 net.cpp:141] Setting up inception_4b/relu_3x3
I0706 22:04:06.090301 31367 net.cpp:148] Top shape: 10 224 14 14 (439040)
I0706 22:04:06.090308 31367 net.cpp:156] Memory required for data: 397393920
I0706 22:04:06.090317 31367 layer_factory.hpp:77] Creating layer inception_4b/5x5_reduce
I0706 22:04:06.090359 31367 net.cpp:91] Creating Layer inception_4b/5x5_reduce
I0706 22:04:06.090373 31367 net.cpp:425] inception_4b/5x5_reduce <- inception_4a/output_inception_4a/output_0_split_2
I0706 22:04:06.090394 31367 net.cpp:399] inception_4b/5x5_reduce -> inception_4b/5x5_reduce
I0706 22:04:06.093318 31367 net.cpp:141] Setting up inception_4b/5x5_reduce
I0706 22:04:06.093343 31367 net.cpp:148] Top shape: 10 24 14 14 (47040)
I0706 22:04:06.093353 31367 net.cpp:156] Memory required for data: 397582080
I0706 22:04:06.093371 31367 layer_factory.hpp:77] Creating layer inception_4b/relu_5x5_reduce
I0706 22:04:06.093387 31367 net.cpp:91] Creating Layer inception_4b/relu_5x5_reduce
I0706 22:04:06.093400 31367 net.cpp:425] inception_4b/relu_5x5_reduce <- inception_4b/5x5_reduce
I0706 22:04:06.093415 31367 net.cpp:386] inception_4b/relu_5x5_reduce -> inception_4b/5x5_reduce (in-place)
I0706 22:04:06.093860 31367 net.cpp:141] Setting up inception_4b/relu_5x5_reduce
I0706 22:04:06.093880 31367 net.cpp:148] Top shape: 10 24 14 14 (47040)
I0706 22:04:06.093889 31367 net.cpp:156] Memory required for data: 397770240
I0706 22:04:06.093899 31367 layer_factory.hpp:77] Creating layer inception_4b/5x5
I0706 22:04:06.093924 31367 net.cpp:91] Creating Layer inception_4b/5x5
I0706 22:04:06.093938 31367 net.cpp:425] inception_4b/5x5 <- inception_4b/5x5_reduce
I0706 22:04:06.093963 31367 net.cpp:399] inception_4b/5x5 -> inception_4b/5x5
I0706 22:04:06.097534 31367 net.cpp:141] Setting up inception_4b/5x5
I0706 22:04:06.097554 31367 net.cpp:148] Top shape: 10 64 14 14 (125440)
I0706 22:04:06.097563 31367 net.cpp:156] Memory required for data: 398272000
I0706 22:04:06.097579 31367 layer_factory.hpp:77] Creating layer inception_4b/relu_5x5
I0706 22:04:06.097599 31367 net.cpp:91] Creating Layer inception_4b/relu_5x5
I0706 22:04:06.097610 31367 net.cpp:425] inception_4b/relu_5x5 <- inception_4b/5x5
I0706 22:04:06.097625 31367 net.cpp:386] inception_4b/relu_5x5 -> inception_4b/5x5 (in-place)
I0706 22:04:06.098052 31367 net.cpp:141] Setting up inception_4b/relu_5x5
I0706 22:04:06.098068 31367 net.cpp:148] Top shape: 10 64 14 14 (125440)
I0706 22:04:06.098076 31367 net.cpp:156] Memory required for data: 398773760
I0706 22:04:06.098085 31367 layer_factory.hpp:77] Creating layer inception_4b/pool
I0706 22:04:06.098099 31367 net.cpp:91] Creating Layer inception_4b/pool
I0706 22:04:06.098109 31367 net.cpp:425] inception_4b/pool <- inception_4a/output_inception_4a/output_0_split_3
I0706 22:04:06.098129 31367 net.cpp:399] inception_4b/pool -> inception_4b/pool
I0706 22:04:06.098230 31367 net.cpp:141] Setting up inception_4b/pool
I0706 22:04:06.098248 31367 net.cpp:148] Top shape: 10 512 14 14 (1003520)
I0706 22:04:06.098255 31367 net.cpp:156] Memory required for data: 402787840
I0706 22:04:06.098264 31367 layer_factory.hpp:77] Creating layer inception_4b/pool_proj
I0706 22:04:06.098291 31367 net.cpp:91] Creating Layer inception_4b/pool_proj
I0706 22:04:06.098304 31367 net.cpp:425] inception_4b/pool_proj <- inception_4b/pool
I0706 22:04:06.098320 31367 net.cpp:399] inception_4b/pool_proj -> inception_4b/pool_proj
I0706 22:04:06.100980 31367 net.cpp:141] Setting up inception_4b/pool_proj
I0706 22:04:06.100999 31367 net.cpp:148] Top shape: 10 64 14 14 (125440)
I0706 22:04:06.101008 31367 net.cpp:156] Memory required for data: 403289600
I0706 22:04:06.101023 31367 layer_factory.hpp:77] Creating layer inception_4b/relu_pool_proj
I0706 22:04:06.101040 31367 net.cpp:91] Creating Layer inception_4b/relu_pool_proj
I0706 22:04:06.101052 31367 net.cpp:425] inception_4b/relu_pool_proj <- inception_4b/pool_proj
I0706 22:04:06.101064 31367 net.cpp:386] inception_4b/relu_pool_proj -> inception_4b/pool_proj (in-place)
I0706 22:04:06.101902 31367 net.cpp:141] Setting up inception_4b/relu_pool_proj
I0706 22:04:06.101924 31367 net.cpp:148] Top shape: 10 64 14 14 (125440)
I0706 22:04:06.101933 31367 net.cpp:156] Memory required for data: 403791360
I0706 22:04:06.101943 31367 layer_factory.hpp:77] Creating layer inception_4b/output
I0706 22:04:06.101956 31367 net.cpp:91] Creating Layer inception_4b/output
I0706 22:04:06.101966 31367 net.cpp:425] inception_4b/output <- inception_4b/1x1
I0706 22:04:06.101979 31367 net.cpp:425] inception_4b/output <- inception_4b/3x3
I0706 22:04:06.101989 31367 net.cpp:425] inception_4b/output <- inception_4b/5x5
I0706 22:04:06.101999 31367 net.cpp:425] inception_4b/output <- inception_4b/pool_proj
I0706 22:04:06.102012 31367 net.cpp:399] inception_4b/output -> inception_4b/output
I0706 22:04:06.102075 31367 net.cpp:141] Setting up inception_4b/output
I0706 22:04:06.102092 31367 net.cpp:148] Top shape: 10 512 14 14 (1003520)
I0706 22:04:06.102100 31367 net.cpp:156] Memory required for data: 407805440
I0706 22:04:06.102109 31367 layer_factory.hpp:77] Creating layer inception_4b/output_inception_4b/output_0_split
I0706 22:04:06.102123 31367 net.cpp:91] Creating Layer inception_4b/output_inception_4b/output_0_split
I0706 22:04:06.102133 31367 net.cpp:425] inception_4b/output_inception_4b/output_0_split <- inception_4b/output
I0706 22:04:06.102149 31367 net.cpp:399] inception_4b/output_inception_4b/output_0_split -> inception_4b/output_inception_4b/output_0_split_0
I0706 22:04:06.102166 31367 net.cpp:399] inception_4b/output_inception_4b/output_0_split -> inception_4b/output_inception_4b/output_0_split_1
I0706 22:04:06.102182 31367 net.cpp:399] inception_4b/output_inception_4b/output_0_split -> inception_4b/output_inception_4b/output_0_split_2
I0706 22:04:06.102198 31367 net.cpp:399] inception_4b/output_inception_4b/output_0_split -> inception_4b/output_inception_4b/output_0_split_3
I0706 22:04:06.102358 31367 net.cpp:141] Setting up inception_4b/output_inception_4b/output_0_split
I0706 22:04:06.102375 31367 net.cpp:148] Top shape: 10 512 14 14 (1003520)
I0706 22:04:06.102385 31367 net.cpp:148] Top shape: 10 512 14 14 (1003520)
I0706 22:04:06.102396 31367 net.cpp:148] Top shape: 10 512 14 14 (1003520)
I0706 22:04:06.102406 31367 net.cpp:148] Top shape: 10 512 14 14 (1003520)
I0706 22:04:06.102412 31367 net.cpp:156] Memory required for data: 423861760
I0706 22:04:06.102421 31367 layer_factory.hpp:77] Creating layer inception_4c/1x1
I0706 22:04:06.102442 31367 net.cpp:91] Creating Layer inception_4c/1x1
I0706 22:04:06.102453 31367 net.cpp:425] inception_4c/1x1 <- inception_4b/output_inception_4b/output_0_split_0
I0706 22:04:06.102469 31367 net.cpp:399] inception_4c/1x1 -> inception_4c/1x1
I0706 22:04:06.105475 31367 net.cpp:141] Setting up inception_4c/1x1
I0706 22:04:06.105494 31367 net.cpp:148] Top shape: 10 128 14 14 (250880)
I0706 22:04:06.105504 31367 net.cpp:156] Memory required for data: 424865280
I0706 22:04:06.105518 31367 layer_factory.hpp:77] Creating layer inception_4c/relu_1x1
I0706 22:04:06.105531 31367 net.cpp:91] Creating Layer inception_4c/relu_1x1
I0706 22:04:06.105542 31367 net.cpp:425] inception_4c/relu_1x1 <- inception_4c/1x1
I0706 22:04:06.105554 31367 net.cpp:386] inception_4c/relu_1x1 -> inception_4c/1x1 (in-place)
I0706 22:04:06.105931 31367 net.cpp:141] Setting up inception_4c/relu_1x1
I0706 22:04:06.105948 31367 net.cpp:148] Top shape: 10 128 14 14 (250880)
I0706 22:04:06.105957 31367 net.cpp:156] Memory required for data: 425868800
I0706 22:04:06.105967 31367 layer_factory.hpp:77] Creating layer inception_4c/3x3_reduce
I0706 22:04:06.105988 31367 net.cpp:91] Creating Layer inception_4c/3x3_reduce
I0706 22:04:06.105998 31367 net.cpp:425] inception_4c/3x3_reduce <- inception_4b/output_inception_4b/output_0_split_1
I0706 22:04:06.106020 31367 net.cpp:399] inception_4c/3x3_reduce -> inception_4c/3x3_reduce
I0706 22:04:06.108687 31367 net.cpp:141] Setting up inception_4c/3x3_reduce
I0706 22:04:06.108710 31367 net.cpp:148] Top shape: 10 128 14 14 (250880)
I0706 22:04:06.108719 31367 net.cpp:156] Memory required for data: 426872320
I0706 22:04:06.108734 31367 layer_factory.hpp:77] Creating layer inception_4c/relu_3x3_reduce
I0706 22:04:06.108747 31367 net.cpp:91] Creating Layer inception_4c/relu_3x3_reduce
I0706 22:04:06.108757 31367 net.cpp:425] inception_4c/relu_3x3_reduce <- inception_4c/3x3_reduce
I0706 22:04:06.108769 31367 net.cpp:386] inception_4c/relu_3x3_reduce -> inception_4c/3x3_reduce (in-place)
I0706 22:04:06.109144 31367 net.cpp:141] Setting up inception_4c/relu_3x3_reduce
I0706 22:04:06.109163 31367 net.cpp:148] Top shape: 10 128 14 14 (250880)
I0706 22:04:06.109170 31367 net.cpp:156] Memory required for data: 427875840
I0706 22:04:06.109179 31367 layer_factory.hpp:77] Creating layer inception_4c/3x3
I0706 22:04:06.109200 31367 net.cpp:91] Creating Layer inception_4c/3x3
I0706 22:04:06.109211 31367 net.cpp:425] inception_4c/3x3 <- inception_4c/3x3_reduce
I0706 22:04:06.109232 31367 net.cpp:399] inception_4c/3x3 -> inception_4c/3x3
I0706 22:04:06.114513 31367 net.cpp:141] Setting up inception_4c/3x3
I0706 22:04:06.114534 31367 net.cpp:148] Top shape: 10 256 14 14 (501760)
I0706 22:04:06.114543 31367 net.cpp:156] Memory required for data: 429882880
I0706 22:04:06.114558 31367 layer_factory.hpp:77] Creating layer inception_4c/relu_3x3
I0706 22:04:06.114578 31367 net.cpp:91] Creating Layer inception_4c/relu_3x3
I0706 22:04:06.114589 31367 net.cpp:425] inception_4c/relu_3x3 <- inception_4c/3x3
I0706 22:04:06.114601 31367 net.cpp:386] inception_4c/relu_3x3 -> inception_4c/3x3 (in-place)
I0706 22:04:06.115564 31367 net.cpp:141] Setting up inception_4c/relu_3x3
I0706 22:04:06.115583 31367 net.cpp:148] Top shape: 10 256 14 14 (501760)
I0706 22:04:06.115592 31367 net.cpp:156] Memory required for data: 431889920
I0706 22:04:06.115602 31367 layer_factory.hpp:77] Creating layer inception_4c/5x5_reduce
I0706 22:04:06.115648 31367 net.cpp:91] Creating Layer inception_4c/5x5_reduce
I0706 22:04:06.115658 31367 net.cpp:425] inception_4c/5x5_reduce <- inception_4b/output_inception_4b/output_0_split_2
I0706 22:04:06.115675 31367 net.cpp:399] inception_4c/5x5_reduce -> inception_4c/5x5_reduce
I0706 22:04:06.118160 31367 net.cpp:141] Setting up inception_4c/5x5_reduce
I0706 22:04:06.118185 31367 net.cpp:148] Top shape: 10 24 14 14 (47040)
I0706 22:04:06.118193 31367 net.cpp:156] Memory required for data: 432078080
I0706 22:04:06.118209 31367 layer_factory.hpp:77] Creating layer inception_4c/relu_5x5_reduce
I0706 22:04:06.118222 31367 net.cpp:91] Creating Layer inception_4c/relu_5x5_reduce
I0706 22:04:06.118233 31367 net.cpp:425] inception_4c/relu_5x5_reduce <- inception_4c/5x5_reduce
I0706 22:04:06.118245 31367 net.cpp:386] inception_4c/relu_5x5_reduce -> inception_4c/5x5_reduce (in-place)
I0706 22:04:06.118680 31367 net.cpp:141] Setting up inception_4c/relu_5x5_reduce
I0706 22:04:06.118710 31367 net.cpp:148] Top shape: 10 24 14 14 (47040)
I0706 22:04:06.118719 31367 net.cpp:156] Memory required for data: 432266240
I0706 22:04:06.118728 31367 layer_factory.hpp:77] Creating layer inception_4c/5x5
I0706 22:04:06.118753 31367 net.cpp:91] Creating Layer inception_4c/5x5
I0706 22:04:06.118767 31367 net.cpp:425] inception_4c/5x5 <- inception_4c/5x5_reduce
I0706 22:04:06.118789 31367 net.cpp:399] inception_4c/5x5 -> inception_4c/5x5
I0706 22:04:06.121979 31367 net.cpp:141] Setting up inception_4c/5x5
I0706 22:04:06.121999 31367 net.cpp:148] Top shape: 10 64 14 14 (125440)
I0706 22:04:06.122006 31367 net.cpp:156] Memory required for data: 432768000
I0706 22:04:06.122020 31367 layer_factory.hpp:77] Creating layer inception_4c/relu_5x5
I0706 22:04:06.122032 31367 net.cpp:91] Creating Layer inception_4c/relu_5x5
I0706 22:04:06.122043 31367 net.cpp:425] inception_4c/relu_5x5 <- inception_4c/5x5
I0706 22:04:06.122061 31367 net.cpp:386] inception_4c/relu_5x5 -> inception_4c/5x5 (in-place)
I0706 22:04:06.122480 31367 net.cpp:141] Setting up inception_4c/relu_5x5
I0706 22:04:06.122503 31367 net.cpp:148] Top shape: 10 64 14 14 (125440)
I0706 22:04:06.122512 31367 net.cpp:156] Memory required for data: 433269760
I0706 22:04:06.122522 31367 layer_factory.hpp:77] Creating layer inception_4c/pool
I0706 22:04:06.122536 31367 net.cpp:91] Creating Layer inception_4c/pool
I0706 22:04:06.122547 31367 net.cpp:425] inception_4c/pool <- inception_4b/output_inception_4b/output_0_split_3
I0706 22:04:06.122565 31367 net.cpp:399] inception_4c/pool -> inception_4c/pool
I0706 22:04:06.122710 31367 net.cpp:141] Setting up inception_4c/pool
I0706 22:04:06.122727 31367 net.cpp:148] Top shape: 10 512 14 14 (1003520)
I0706 22:04:06.122736 31367 net.cpp:156] Memory required for data: 437283840
I0706 22:04:06.122745 31367 layer_factory.hpp:77] Creating layer inception_4c/pool_proj
I0706 22:04:06.122781 31367 net.cpp:91] Creating Layer inception_4c/pool_proj
I0706 22:04:06.122794 31367 net.cpp:425] inception_4c/pool_proj <- inception_4c/pool
I0706 22:04:06.122815 31367 net.cpp:399] inception_4c/pool_proj -> inception_4c/pool_proj
I0706 22:04:06.126946 31367 net.cpp:141] Setting up inception_4c/pool_proj
I0706 22:04:06.126971 31367 net.cpp:148] Top shape: 10 64 14 14 (125440)
I0706 22:04:06.126981 31367 net.cpp:156] Memory required for data: 437785600
I0706 22:04:06.127043 31367 layer_factory.hpp:77] Creating layer inception_4c/relu_pool_proj
I0706 22:04:06.127063 31367 net.cpp:91] Creating Layer inception_4c/relu_pool_proj
I0706 22:04:06.127071 31367 net.cpp:425] inception_4c/relu_pool_proj <- inception_4c/pool_proj
I0706 22:04:06.127079 31367 net.cpp:386] inception_4c/relu_pool_proj -> inception_4c/pool_proj (in-place)
I0706 22:04:06.128034 31367 net.cpp:141] Setting up inception_4c/relu_pool_proj
I0706 22:04:06.128053 31367 net.cpp:148] Top shape: 10 64 14 14 (125440)
I0706 22:04:06.128062 31367 net.cpp:156] Memory required for data: 438287360
I0706 22:04:06.128072 31367 layer_factory.hpp:77] Creating layer inception_4c/output
I0706 22:04:06.128087 31367 net.cpp:91] Creating Layer inception_4c/output
I0706 22:04:06.128096 31367 net.cpp:425] inception_4c/output <- inception_4c/1x1
I0706 22:04:06.128108 31367 net.cpp:425] inception_4c/output <- inception_4c/3x3
I0706 22:04:06.128123 31367 net.cpp:425] inception_4c/output <- inception_4c/5x5
I0706 22:04:06.128144 31367 net.cpp:425] inception_4c/output <- inception_4c/pool_proj
I0706 22:04:06.128157 31367 net.cpp:399] inception_4c/output -> inception_4c/output
I0706 22:04:06.128233 31367 net.cpp:141] Setting up inception_4c/output
I0706 22:04:06.128249 31367 net.cpp:148] Top shape: 10 512 14 14 (1003520)
I0706 22:04:06.128257 31367 net.cpp:156] Memory required for data: 442301440
I0706 22:04:06.128265 31367 layer_factory.hpp:77] Creating layer inception_4c/output_inception_4c/output_0_split
I0706 22:04:06.128284 31367 net.cpp:91] Creating Layer inception_4c/output_inception_4c/output_0_split
I0706 22:04:06.128295 31367 net.cpp:425] inception_4c/output_inception_4c/output_0_split <- inception_4c/output
I0706 22:04:06.128309 31367 net.cpp:399] inception_4c/output_inception_4c/output_0_split -> inception_4c/output_inception_4c/output_0_split_0
I0706 22:04:06.128329 31367 net.cpp:399] inception_4c/output_inception_4c/output_0_split -> inception_4c/output_inception_4c/output_0_split_1
I0706 22:04:06.128346 31367 net.cpp:399] inception_4c/output_inception_4c/output_0_split -> inception_4c/output_inception_4c/output_0_split_2
I0706 22:04:06.128362 31367 net.cpp:399] inception_4c/output_inception_4c/output_0_split -> inception_4c/output_inception_4c/output_0_split_3
I0706 22:04:06.128525 31367 net.cpp:141] Setting up inception_4c/output_inception_4c/output_0_split
I0706 22:04:06.128540 31367 net.cpp:148] Top shape: 10 512 14 14 (1003520)
I0706 22:04:06.128551 31367 net.cpp:148] Top shape: 10 512 14 14 (1003520)
I0706 22:04:06.128561 31367 net.cpp:148] Top shape: 10 512 14 14 (1003520)
I0706 22:04:06.128572 31367 net.cpp:148] Top shape: 10 512 14 14 (1003520)
I0706 22:04:06.128579 31367 net.cpp:156] Memory required for data: 458357760
I0706 22:04:06.128588 31367 layer_factory.hpp:77] Creating layer inception_4d/1x1
I0706 22:04:06.128610 31367 net.cpp:91] Creating Layer inception_4d/1x1
I0706 22:04:06.128621 31367 net.cpp:425] inception_4d/1x1 <- inception_4c/output_inception_4c/output_0_split_0
I0706 22:04:06.128643 31367 net.cpp:399] inception_4d/1x1 -> inception_4d/1x1
I0706 22:04:06.132086 31367 net.cpp:141] Setting up inception_4d/1x1
I0706 22:04:06.132109 31367 net.cpp:148] Top shape: 10 112 14 14 (219520)
I0706 22:04:06.132118 31367 net.cpp:156] Memory required for data: 459235840
I0706 22:04:06.132135 31367 layer_factory.hpp:77] Creating layer inception_4d/relu_1x1
I0706 22:04:06.132149 31367 net.cpp:91] Creating Layer inception_4d/relu_1x1
I0706 22:04:06.132160 31367 net.cpp:425] inception_4d/relu_1x1 <- inception_4d/1x1
I0706 22:04:06.132181 31367 net.cpp:386] inception_4d/relu_1x1 -> inception_4d/1x1 (in-place)
I0706 22:04:06.132586 31367 net.cpp:141] Setting up inception_4d/relu_1x1
I0706 22:04:06.132608 31367 net.cpp:148] Top shape: 10 112 14 14 (219520)
I0706 22:04:06.132618 31367 net.cpp:156] Memory required for data: 460113920
I0706 22:04:06.132627 31367 layer_factory.hpp:77] Creating layer inception_4d/3x3_reduce
I0706 22:04:06.132653 31367 net.cpp:91] Creating Layer inception_4d/3x3_reduce
I0706 22:04:06.132695 31367 net.cpp:425] inception_4d/3x3_reduce <- inception_4c/output_inception_4c/output_0_split_1
I0706 22:04:06.132717 31367 net.cpp:399] inception_4d/3x3_reduce -> inception_4d/3x3_reduce
I0706 22:04:06.135797 31367 net.cpp:141] Setting up inception_4d/3x3_reduce
I0706 22:04:06.135820 31367 net.cpp:148] Top shape: 10 144 14 14 (282240)
I0706 22:04:06.135829 31367 net.cpp:156] Memory required for data: 461242880
I0706 22:04:06.135846 31367 layer_factory.hpp:77] Creating layer inception_4d/relu_3x3_reduce
I0706 22:04:06.135867 31367 net.cpp:91] Creating Layer inception_4d/relu_3x3_reduce
I0706 22:04:06.135879 31367 net.cpp:425] inception_4d/relu_3x3_reduce <- inception_4d/3x3_reduce
I0706 22:04:06.135893 31367 net.cpp:386] inception_4d/relu_3x3_reduce -> inception_4d/3x3_reduce (in-place)
I0706 22:04:06.136302 31367 net.cpp:141] Setting up inception_4d/relu_3x3_reduce
I0706 22:04:06.136322 31367 net.cpp:148] Top shape: 10 144 14 14 (282240)
I0706 22:04:06.136330 31367 net.cpp:156] Memory required for data: 462371840
I0706 22:04:06.136339 31367 layer_factory.hpp:77] Creating layer inception_4d/3x3
I0706 22:04:06.136364 31367 net.cpp:91] Creating Layer inception_4d/3x3
I0706 22:04:06.136378 31367 net.cpp:425] inception_4d/3x3 <- inception_4d/3x3_reduce
I0706 22:04:06.136397 31367 net.cpp:399] inception_4d/3x3 -> inception_4d/3x3
I0706 22:04:06.142678 31367 net.cpp:141] Setting up inception_4d/3x3
I0706 22:04:06.142719 31367 net.cpp:148] Top shape: 10 288 14 14 (564480)
I0706 22:04:06.142729 31367 net.cpp:156] Memory required for data: 464629760
I0706 22:04:06.142745 31367 layer_factory.hpp:77] Creating layer inception_4d/relu_3x3
I0706 22:04:06.142760 31367 net.cpp:91] Creating Layer inception_4d/relu_3x3
I0706 22:04:06.142770 31367 net.cpp:425] inception_4d/relu_3x3 <- inception_4d/3x3
I0706 22:04:06.142787 31367 net.cpp:386] inception_4d/relu_3x3 -> inception_4d/3x3 (in-place)
I0706 22:04:06.143668 31367 net.cpp:141] Setting up inception_4d/relu_3x3
I0706 22:04:06.143687 31367 net.cpp:148] Top shape: 10 288 14 14 (564480)
I0706 22:04:06.143695 31367 net.cpp:156] Memory required for data: 466887680
I0706 22:04:06.143704 31367 layer_factory.hpp:77] Creating layer inception_4d/5x5_reduce
I0706 22:04:06.143728 31367 net.cpp:91] Creating Layer inception_4d/5x5_reduce
I0706 22:04:06.143740 31367 net.cpp:425] inception_4d/5x5_reduce <- inception_4c/output_inception_4c/output_0_split_2
I0706 22:04:06.143762 31367 net.cpp:399] inception_4d/5x5_reduce -> inception_4d/5x5_reduce
I0706 22:04:06.146389 31367 net.cpp:141] Setting up inception_4d/5x5_reduce
I0706 22:04:06.146409 31367 net.cpp:148] Top shape: 10 32 14 14 (62720)
I0706 22:04:06.146419 31367 net.cpp:156] Memory required for data: 467138560
I0706 22:04:06.146447 31367 layer_factory.hpp:77] Creating layer inception_4d/relu_5x5_reduce
I0706 22:04:06.146461 31367 net.cpp:91] Creating Layer inception_4d/relu_5x5_reduce
I0706 22:04:06.146473 31367 net.cpp:425] inception_4d/relu_5x5_reduce <- inception_4d/5x5_reduce
I0706 22:04:06.146492 31367 net.cpp:386] inception_4d/relu_5x5_reduce -> inception_4d/5x5_reduce (in-place)
I0706 22:04:06.146916 31367 net.cpp:141] Setting up inception_4d/relu_5x5_reduce
I0706 22:04:06.146939 31367 net.cpp:148] Top shape: 10 32 14 14 (62720)
I0706 22:04:06.146950 31367 net.cpp:156] Memory required for data: 467389440
I0706 22:04:06.146960 31367 layer_factory.hpp:77] Creating layer inception_4d/5x5
I0706 22:04:06.146989 31367 net.cpp:91] Creating Layer inception_4d/5x5
I0706 22:04:06.147002 31367 net.cpp:425] inception_4d/5x5 <- inception_4d/5x5_reduce
I0706 22:04:06.147020 31367 net.cpp:399] inception_4d/5x5 -> inception_4d/5x5
I0706 22:04:06.149684 31367 net.cpp:141] Setting up inception_4d/5x5
I0706 22:04:06.149704 31367 net.cpp:148] Top shape: 10 64 14 14 (125440)
I0706 22:04:06.149713 31367 net.cpp:156] Memory required for data: 467891200
I0706 22:04:06.149729 31367 layer_factory.hpp:77] Creating layer inception_4d/relu_5x5
I0706 22:04:06.149744 31367 net.cpp:91] Creating Layer inception_4d/relu_5x5
I0706 22:04:06.149754 31367 net.cpp:425] inception_4d/relu_5x5 <- inception_4d/5x5
I0706 22:04:06.149766 31367 net.cpp:386] inception_4d/relu_5x5 -> inception_4d/5x5 (in-place)
I0706 22:04:06.150169 31367 net.cpp:141] Setting up inception_4d/relu_5x5
I0706 22:04:06.150188 31367 net.cpp:148] Top shape: 10 64 14 14 (125440)
I0706 22:04:06.150197 31367 net.cpp:156] Memory required for data: 468392960
I0706 22:04:06.150207 31367 layer_factory.hpp:77] Creating layer inception_4d/pool
I0706 22:04:06.150225 31367 net.cpp:91] Creating Layer inception_4d/pool
I0706 22:04:06.150236 31367 net.cpp:425] inception_4d/pool <- inception_4c/output_inception_4c/output_0_split_3
I0706 22:04:06.150250 31367 net.cpp:399] inception_4d/pool -> inception_4d/pool
I0706 22:04:06.150364 31367 net.cpp:141] Setting up inception_4d/pool
I0706 22:04:06.150380 31367 net.cpp:148] Top shape: 10 512 14 14 (1003520)
I0706 22:04:06.150388 31367 net.cpp:156] Memory required for data: 472407040
I0706 22:04:06.150398 31367 layer_factory.hpp:77] Creating layer inception_4d/pool_proj
I0706 22:04:06.150420 31367 net.cpp:91] Creating Layer inception_4d/pool_proj
I0706 22:04:06.150434 31367 net.cpp:425] inception_4d/pool_proj <- inception_4d/pool
I0706 22:04:06.150454 31367 net.cpp:399] inception_4d/pool_proj -> inception_4d/pool_proj
I0706 22:04:06.153089 31367 net.cpp:141] Setting up inception_4d/pool_proj
I0706 22:04:06.153108 31367 net.cpp:148] Top shape: 10 64 14 14 (125440)
I0706 22:04:06.153118 31367 net.cpp:156] Memory required for data: 472908800
I0706 22:04:06.153134 31367 layer_factory.hpp:77] Creating layer inception_4d/relu_pool_proj
I0706 22:04:06.153148 31367 net.cpp:91] Creating Layer inception_4d/relu_pool_proj
I0706 22:04:06.153159 31367 net.cpp:425] inception_4d/relu_pool_proj <- inception_4d/pool_proj
I0706 22:04:06.153178 31367 net.cpp:386] inception_4d/relu_pool_proj -> inception_4d/pool_proj (in-place)
I0706 22:04:06.154109 31367 net.cpp:141] Setting up inception_4d/relu_pool_proj
I0706 22:04:06.154129 31367 net.cpp:148] Top shape: 10 64 14 14 (125440)
I0706 22:04:06.154136 31367 net.cpp:156] Memory required for data: 473410560
I0706 22:04:06.154145 31367 layer_factory.hpp:77] Creating layer inception_4d/output
I0706 22:04:06.154163 31367 net.cpp:91] Creating Layer inception_4d/output
I0706 22:04:06.154173 31367 net.cpp:425] inception_4d/output <- inception_4d/1x1
I0706 22:04:06.154184 31367 net.cpp:425] inception_4d/output <- inception_4d/3x3
I0706 22:04:06.154194 31367 net.cpp:425] inception_4d/output <- inception_4d/5x5
I0706 22:04:06.154204 31367 net.cpp:425] inception_4d/output <- inception_4d/pool_proj
I0706 22:04:06.154217 31367 net.cpp:399] inception_4d/output -> inception_4d/output
I0706 22:04:06.154289 31367 net.cpp:141] Setting up inception_4d/output
I0706 22:04:06.154305 31367 net.cpp:148] Top shape: 10 528 14 14 (1034880)
I0706 22:04:06.154314 31367 net.cpp:156] Memory required for data: 477550080
I0706 22:04:06.154322 31367 layer_factory.hpp:77] Creating layer inception_4d/output_inception_4d/output_0_split
I0706 22:04:06.154336 31367 net.cpp:91] Creating Layer inception_4d/output_inception_4d/output_0_split
I0706 22:04:06.154346 31367 net.cpp:425] inception_4d/output_inception_4d/output_0_split <- inception_4d/output
I0706 22:04:06.154367 31367 net.cpp:399] inception_4d/output_inception_4d/output_0_split -> inception_4d/output_inception_4d/output_0_split_0
I0706 22:04:06.154386 31367 net.cpp:399] inception_4d/output_inception_4d/output_0_split -> inception_4d/output_inception_4d/output_0_split_1
I0706 22:04:06.154403 31367 net.cpp:399] inception_4d/output_inception_4d/output_0_split -> inception_4d/output_inception_4d/output_0_split_2
I0706 22:04:06.154419 31367 net.cpp:399] inception_4d/output_inception_4d/output_0_split -> inception_4d/output_inception_4d/output_0_split_3
I0706 22:04:06.154610 31367 net.cpp:141] Setting up inception_4d/output_inception_4d/output_0_split
I0706 22:04:06.154628 31367 net.cpp:148] Top shape: 10 528 14 14 (1034880)
I0706 22:04:06.154639 31367 net.cpp:148] Top shape: 10 528 14 14 (1034880)
I0706 22:04:06.154649 31367 net.cpp:148] Top shape: 10 528 14 14 (1034880)
I0706 22:04:06.154659 31367 net.cpp:148] Top shape: 10 528 14 14 (1034880)
I0706 22:04:06.154667 31367 net.cpp:156] Memory required for data: 494108160
I0706 22:04:06.154678 31367 layer_factory.hpp:77] Creating layer inception_4e/1x1
I0706 22:04:06.154716 31367 net.cpp:91] Creating Layer inception_4e/1x1
I0706 22:04:06.154731 31367 net.cpp:425] inception_4e/1x1 <- inception_4d/output_inception_4d/output_0_split_0
I0706 22:04:06.154747 31367 net.cpp:399] inception_4e/1x1 -> inception_4e/1x1
I0706 22:04:06.159708 31367 net.cpp:141] Setting up inception_4e/1x1
I0706 22:04:06.159728 31367 net.cpp:148] Top shape: 10 256 14 14 (501760)
I0706 22:04:06.159736 31367 net.cpp:156] Memory required for data: 496115200
I0706 22:04:06.159751 31367 layer_factory.hpp:77] Creating layer inception_4e/relu_1x1
I0706 22:04:06.159770 31367 net.cpp:91] Creating Layer inception_4e/relu_1x1
I0706 22:04:06.159782 31367 net.cpp:425] inception_4e/relu_1x1 <- inception_4e/1x1
I0706 22:04:06.159795 31367 net.cpp:386] inception_4e/relu_1x1 -> inception_4e/1x1 (in-place)
I0706 22:04:06.160187 31367 net.cpp:141] Setting up inception_4e/relu_1x1
I0706 22:04:06.160205 31367 net.cpp:148] Top shape: 10 256 14 14 (501760)
I0706 22:04:06.160214 31367 net.cpp:156] Memory required for data: 498122240
I0706 22:04:06.160223 31367 layer_factory.hpp:77] Creating layer inception_4e/3x3_reduce
I0706 22:04:06.160248 31367 net.cpp:91] Creating Layer inception_4e/3x3_reduce
I0706 22:04:06.160261 31367 net.cpp:425] inception_4e/3x3_reduce <- inception_4d/output_inception_4d/output_0_split_1
I0706 22:04:06.160295 31367 net.cpp:399] inception_4e/3x3_reduce -> inception_4e/3x3_reduce
I0706 22:04:06.163187 31367 net.cpp:141] Setting up inception_4e/3x3_reduce
I0706 22:04:06.163206 31367 net.cpp:148] Top shape: 10 160 14 14 (313600)
I0706 22:04:06.163214 31367 net.cpp:156] Memory required for data: 499376640
I0706 22:04:06.163229 31367 layer_factory.hpp:77] Creating layer inception_4e/relu_3x3_reduce
I0706 22:04:06.163249 31367 net.cpp:91] Creating Layer inception_4e/relu_3x3_reduce
I0706 22:04:06.163260 31367 net.cpp:425] inception_4e/relu_3x3_reduce <- inception_4e/3x3_reduce
I0706 22:04:06.163272 31367 net.cpp:386] inception_4e/relu_3x3_reduce -> inception_4e/3x3_reduce (in-place)
I0706 22:04:06.163661 31367 net.cpp:141] Setting up inception_4e/relu_3x3_reduce
I0706 22:04:06.163678 31367 net.cpp:148] Top shape: 10 160 14 14 (313600)
I0706 22:04:06.163686 31367 net.cpp:156] Memory required for data: 500631040
I0706 22:04:06.163696 31367 layer_factory.hpp:77] Creating layer inception_4e/3x3
I0706 22:04:06.163719 31367 net.cpp:91] Creating Layer inception_4e/3x3
I0706 22:04:06.163732 31367 net.cpp:425] inception_4e/3x3 <- inception_4e/3x3_reduce
I0706 22:04:06.163750 31367 net.cpp:399] inception_4e/3x3 -> inception_4e/3x3
I0706 22:04:06.170425 31367 net.cpp:141] Setting up inception_4e/3x3
I0706 22:04:06.170450 31367 net.cpp:148] Top shape: 10 320 14 14 (627200)
I0706 22:04:06.170459 31367 net.cpp:156] Memory required for data: 503139840
I0706 22:04:06.170475 31367 layer_factory.hpp:77] Creating layer inception_4e/relu_3x3
I0706 22:04:06.170487 31367 net.cpp:91] Creating Layer inception_4e/relu_3x3
I0706 22:04:06.170498 31367 net.cpp:425] inception_4e/relu_3x3 <- inception_4e/3x3
I0706 22:04:06.170511 31367 net.cpp:386] inception_4e/relu_3x3 -> inception_4e/3x3 (in-place)
I0706 22:04:06.171424 31367 net.cpp:141] Setting up inception_4e/relu_3x3
I0706 22:04:06.171443 31367 net.cpp:148] Top shape: 10 320 14 14 (627200)
I0706 22:04:06.171452 31367 net.cpp:156] Memory required for data: 505648640
I0706 22:04:06.171461 31367 layer_factory.hpp:77] Creating layer inception_4e/5x5_reduce
I0706 22:04:06.171489 31367 net.cpp:91] Creating Layer inception_4e/5x5_reduce
I0706 22:04:06.171501 31367 net.cpp:425] inception_4e/5x5_reduce <- inception_4d/output_inception_4d/output_0_split_2
I0706 22:04:06.171522 31367 net.cpp:399] inception_4e/5x5_reduce -> inception_4e/5x5_reduce
I0706 22:04:06.173846 31367 net.cpp:141] Setting up inception_4e/5x5_reduce
I0706 22:04:06.173864 31367 net.cpp:148] Top shape: 10 32 14 14 (62720)
I0706 22:04:06.173873 31367 net.cpp:156] Memory required for data: 505899520
I0706 22:04:06.173888 31367 layer_factory.hpp:77] Creating layer inception_4e/relu_5x5_reduce
I0706 22:04:06.173902 31367 net.cpp:91] Creating Layer inception_4e/relu_5x5_reduce
I0706 22:04:06.173913 31367 net.cpp:425] inception_4e/relu_5x5_reduce <- inception_4e/5x5_reduce
I0706 22:04:06.173929 31367 net.cpp:386] inception_4e/relu_5x5_reduce -> inception_4e/5x5_reduce (in-place)
I0706 22:04:06.174320 31367 net.cpp:141] Setting up inception_4e/relu_5x5_reduce
I0706 22:04:06.174342 31367 net.cpp:148] Top shape: 10 32 14 14 (62720)
I0706 22:04:06.174350 31367 net.cpp:156] Memory required for data: 506150400
I0706 22:04:06.174361 31367 layer_factory.hpp:77] Creating layer inception_4e/5x5
I0706 22:04:06.174388 31367 net.cpp:91] Creating Layer inception_4e/5x5
I0706 22:04:06.174401 31367 net.cpp:425] inception_4e/5x5 <- inception_4e/5x5_reduce
I0706 22:04:06.174417 31367 net.cpp:399] inception_4e/5x5 -> inception_4e/5x5
I0706 22:04:06.178488 31367 net.cpp:141] Setting up inception_4e/5x5
I0706 22:04:06.178509 31367 net.cpp:148] Top shape: 10 128 14 14 (250880)
I0706 22:04:06.178517 31367 net.cpp:156] Memory required for data: 507153920
I0706 22:04:06.178532 31367 layer_factory.hpp:77] Creating layer inception_4e/relu_5x5
I0706 22:04:06.178546 31367 net.cpp:91] Creating Layer inception_4e/relu_5x5
I0706 22:04:06.178556 31367 net.cpp:425] inception_4e/relu_5x5 <- inception_4e/5x5
I0706 22:04:06.178573 31367 net.cpp:386] inception_4e/relu_5x5 -> inception_4e/5x5 (in-place)
I0706 22:04:06.178992 31367 net.cpp:141] Setting up inception_4e/relu_5x5
I0706 22:04:06.179011 31367 net.cpp:148] Top shape: 10 128 14 14 (250880)
I0706 22:04:06.179031 31367 net.cpp:156] Memory required for data: 508157440
I0706 22:04:06.179040 31367 layer_factory.hpp:77] Creating layer inception_4e/pool
I0706 22:04:06.179060 31367 net.cpp:91] Creating Layer inception_4e/pool
I0706 22:04:06.179072 31367 net.cpp:425] inception_4e/pool <- inception_4d/output_inception_4d/output_0_split_3
I0706 22:04:06.179086 31367 net.cpp:399] inception_4e/pool -> inception_4e/pool
I0706 22:04:06.179201 31367 net.cpp:141] Setting up inception_4e/pool
I0706 22:04:06.179217 31367 net.cpp:148] Top shape: 10 528 14 14 (1034880)
I0706 22:04:06.179225 31367 net.cpp:156] Memory required for data: 512296960
I0706 22:04:06.179234 31367 layer_factory.hpp:77] Creating layer inception_4e/pool_proj
I0706 22:04:06.179255 31367 net.cpp:91] Creating Layer inception_4e/pool_proj
I0706 22:04:06.179266 31367 net.cpp:425] inception_4e/pool_proj <- inception_4e/pool
I0706 22:04:06.179288 31367 net.cpp:399] inception_4e/pool_proj -> inception_4e/pool_proj
I0706 22:04:06.182235 31367 net.cpp:141] Setting up inception_4e/pool_proj
I0706 22:04:06.182255 31367 net.cpp:148] Top shape: 10 128 14 14 (250880)
I0706 22:04:06.182263 31367 net.cpp:156] Memory required for data: 513300480
I0706 22:04:06.182279 31367 layer_factory.hpp:77] Creating layer inception_4e/relu_pool_proj
I0706 22:04:06.182293 31367 net.cpp:91] Creating Layer inception_4e/relu_pool_proj
I0706 22:04:06.182302 31367 net.cpp:425] inception_4e/relu_pool_proj <- inception_4e/pool_proj
I0706 22:04:06.182313 31367 net.cpp:386] inception_4e/relu_pool_proj -> inception_4e/pool_proj (in-place)
I0706 22:04:06.183289 31367 net.cpp:141] Setting up inception_4e/relu_pool_proj
I0706 22:04:06.183310 31367 net.cpp:148] Top shape: 10 128 14 14 (250880)
I0706 22:04:06.183318 31367 net.cpp:156] Memory required for data: 514304000
I0706 22:04:06.183328 31367 layer_factory.hpp:77] Creating layer inception_4e/output
I0706 22:04:06.183342 31367 net.cpp:91] Creating Layer inception_4e/output
I0706 22:04:06.183352 31367 net.cpp:425] inception_4e/output <- inception_4e/1x1
I0706 22:04:06.183364 31367 net.cpp:425] inception_4e/output <- inception_4e/3x3
I0706 22:04:06.183375 31367 net.cpp:425] inception_4e/output <- inception_4e/5x5
I0706 22:04:06.183385 31367 net.cpp:425] inception_4e/output <- inception_4e/pool_proj
I0706 22:04:06.183399 31367 net.cpp:399] inception_4e/output -> inception_4e/output
I0706 22:04:06.183476 31367 net.cpp:141] Setting up inception_4e/output
I0706 22:04:06.183493 31367 net.cpp:148] Top shape: 10 832 14 14 (1630720)
I0706 22:04:06.183507 31367 net.cpp:156] Memory required for data: 520826880
I0706 22:04:06.183516 31367 layer_factory.hpp:77] Creating layer pool4/3x3_s2
I0706 22:04:06.183531 31367 net.cpp:91] Creating Layer pool4/3x3_s2
I0706 22:04:06.183542 31367 net.cpp:425] pool4/3x3_s2 <- inception_4e/output
I0706 22:04:06.183567 31367 net.cpp:399] pool4/3x3_s2 -> pool4/3x3_s2
I0706 22:04:06.183694 31367 net.cpp:141] Setting up pool4/3x3_s2
I0706 22:04:06.183711 31367 net.cpp:148] Top shape: 10 832 7 7 (407680)
I0706 22:04:06.183718 31367 net.cpp:156] Memory required for data: 522457600
I0706 22:04:06.183727 31367 layer_factory.hpp:77] Creating layer pool4/3x3_s2_pool4/3x3_s2_0_split
I0706 22:04:06.183753 31367 net.cpp:91] Creating Layer pool4/3x3_s2_pool4/3x3_s2_0_split
I0706 22:04:06.183761 31367 net.cpp:425] pool4/3x3_s2_pool4/3x3_s2_0_split <- pool4/3x3_s2
I0706 22:04:06.183780 31367 net.cpp:399] pool4/3x3_s2_pool4/3x3_s2_0_split -> pool4/3x3_s2_pool4/3x3_s2_0_split_0
I0706 22:04:06.183811 31367 net.cpp:399] pool4/3x3_s2_pool4/3x3_s2_0_split -> pool4/3x3_s2_pool4/3x3_s2_0_split_1
I0706 22:04:06.183828 31367 net.cpp:399] pool4/3x3_s2_pool4/3x3_s2_0_split -> pool4/3x3_s2_pool4/3x3_s2_0_split_2
I0706 22:04:06.183845 31367 net.cpp:399] pool4/3x3_s2_pool4/3x3_s2_0_split -> pool4/3x3_s2_pool4/3x3_s2_0_split_3
I0706 22:04:06.184038 31367 net.cpp:141] Setting up pool4/3x3_s2_pool4/3x3_s2_0_split
I0706 22:04:06.184056 31367 net.cpp:148] Top shape: 10 832 7 7 (407680)
I0706 22:04:06.184067 31367 net.cpp:148] Top shape: 10 832 7 7 (407680)
I0706 22:04:06.184077 31367 net.cpp:148] Top shape: 10 832 7 7 (407680)
I0706 22:04:06.184088 31367 net.cpp:148] Top shape: 10 832 7 7 (407680)
I0706 22:04:06.184097 31367 net.cpp:156] Memory required for data: 528980480
I0706 22:04:06.184105 31367 layer_factory.hpp:77] Creating layer inception_5a/1x1
I0706 22:04:06.184134 31367 net.cpp:91] Creating Layer inception_5a/1x1
I0706 22:04:06.184147 31367 net.cpp:425] inception_5a/1x1 <- pool4/3x3_s2_pool4/3x3_s2_0_split_0
I0706 22:04:06.184165 31367 net.cpp:399] inception_5a/1x1 -> inception_5a/1x1
I0706 22:04:06.189419 31367 net.cpp:141] Setting up inception_5a/1x1
I0706 22:04:06.189438 31367 net.cpp:148] Top shape: 10 256 7 7 (125440)
I0706 22:04:06.189446 31367 net.cpp:156] Memory required for data: 529482240
I0706 22:04:06.189462 31367 layer_factory.hpp:77] Creating layer inception_5a/relu_1x1
I0706 22:04:06.189482 31367 net.cpp:91] Creating Layer inception_5a/relu_1x1
I0706 22:04:06.189493 31367 net.cpp:425] inception_5a/relu_1x1 <- inception_5a/1x1
I0706 22:04:06.189505 31367 net.cpp:386] inception_5a/relu_1x1 -> inception_5a/1x1 (in-place)
I0706 22:04:06.189919 31367 net.cpp:141] Setting up inception_5a/relu_1x1
I0706 22:04:06.189939 31367 net.cpp:148] Top shape: 10 256 7 7 (125440)
I0706 22:04:06.189947 31367 net.cpp:156] Memory required for data: 529984000
I0706 22:04:06.189957 31367 layer_factory.hpp:77] Creating layer inception_5a/3x3_reduce
I0706 22:04:06.189982 31367 net.cpp:91] Creating Layer inception_5a/3x3_reduce
I0706 22:04:06.189996 31367 net.cpp:425] inception_5a/3x3_reduce <- pool4/3x3_s2_pool4/3x3_s2_0_split_1
I0706 22:04:06.190016 31367 net.cpp:399] inception_5a/3x3_reduce -> inception_5a/3x3_reduce
I0706 22:04:06.194222 31367 net.cpp:141] Setting up inception_5a/3x3_reduce
I0706 22:04:06.194242 31367 net.cpp:148] Top shape: 10 160 7 7 (78400)
I0706 22:04:06.194252 31367 net.cpp:156] Memory required for data: 530297600
I0706 22:04:06.194267 31367 layer_factory.hpp:77] Creating layer inception_5a/relu_3x3_reduce
I0706 22:04:06.194284 31367 net.cpp:91] Creating Layer inception_5a/relu_3x3_reduce
I0706 22:04:06.194295 31367 net.cpp:425] inception_5a/relu_3x3_reduce <- inception_5a/3x3_reduce
I0706 22:04:06.194308 31367 net.cpp:386] inception_5a/relu_3x3_reduce -> inception_5a/3x3_reduce (in-place)
I0706 22:04:06.194756 31367 net.cpp:141] Setting up inception_5a/relu_3x3_reduce
I0706 22:04:06.194774 31367 net.cpp:148] Top shape: 10 160 7 7 (78400)
I0706 22:04:06.194784 31367 net.cpp:156] Memory required for data: 530611200
I0706 22:04:06.194793 31367 layer_factory.hpp:77] Creating layer inception_5a/3x3
I0706 22:04:06.194824 31367 net.cpp:91] Creating Layer inception_5a/3x3
I0706 22:04:06.194839 31367 net.cpp:425] inception_5a/3x3 <- inception_5a/3x3_reduce
I0706 22:04:06.194856 31367 net.cpp:399] inception_5a/3x3 -> inception_5a/3x3
I0706 22:04:06.202793 31367 net.cpp:141] Setting up inception_5a/3x3
I0706 22:04:06.202814 31367 net.cpp:148] Top shape: 10 320 7 7 (156800)
I0706 22:04:06.202823 31367 net.cpp:156] Memory required for data: 531238400
I0706 22:04:06.202839 31367 layer_factory.hpp:77] Creating layer inception_5a/relu_3x3
I0706 22:04:06.202853 31367 net.cpp:91] Creating Layer inception_5a/relu_3x3
I0706 22:04:06.202862 31367 net.cpp:425] inception_5a/relu_3x3 <- inception_5a/3x3
I0706 22:04:06.202880 31367 net.cpp:386] inception_5a/relu_3x3 -> inception_5a/3x3 (in-place)
I0706 22:04:06.203872 31367 net.cpp:141] Setting up inception_5a/relu_3x3
I0706 22:04:06.203891 31367 net.cpp:148] Top shape: 10 320 7 7 (156800)
I0706 22:04:06.203901 31367 net.cpp:156] Memory required for data: 531865600
I0706 22:04:06.203909 31367 layer_factory.hpp:77] Creating layer inception_5a/5x5_reduce
I0706 22:04:06.203933 31367 net.cpp:91] Creating Layer inception_5a/5x5_reduce
I0706 22:04:06.203946 31367 net.cpp:425] inception_5a/5x5_reduce <- pool4/3x3_s2_pool4/3x3_s2_0_split_2
I0706 22:04:06.203968 31367 net.cpp:399] inception_5a/5x5_reduce -> inception_5a/5x5_reduce
I0706 22:04:06.206559 31367 net.cpp:141] Setting up inception_5a/5x5_reduce
I0706 22:04:06.206579 31367 net.cpp:148] Top shape: 10 32 7 7 (15680)
I0706 22:04:06.206589 31367 net.cpp:156] Memory required for data: 531928320
I0706 22:04:06.206605 31367 layer_factory.hpp:77] Creating layer inception_5a/relu_5x5_reduce
I0706 22:04:06.206624 31367 net.cpp:91] Creating Layer inception_5a/relu_5x5_reduce
I0706 22:04:06.206636 31367 net.cpp:425] inception_5a/relu_5x5_reduce <- inception_5a/5x5_reduce
I0706 22:04:06.206650 31367 net.cpp:386] inception_5a/relu_5x5_reduce -> inception_5a/5x5_reduce (in-place)
I0706 22:04:06.207115 31367 net.cpp:141] Setting up inception_5a/relu_5x5_reduce
I0706 22:04:06.207134 31367 net.cpp:148] Top shape: 10 32 7 7 (15680)
I0706 22:04:06.207144 31367 net.cpp:156] Memory required for data: 531991040
I0706 22:04:06.207154 31367 layer_factory.hpp:77] Creating layer inception_5a/5x5
I0706 22:04:06.207180 31367 net.cpp:91] Creating Layer inception_5a/5x5
I0706 22:04:06.207193 31367 net.cpp:425] inception_5a/5x5 <- inception_5a/5x5_reduce
I0706 22:04:06.207214 31367 net.cpp:399] inception_5a/5x5 -> inception_5a/5x5
I0706 22:04:06.210358 31367 net.cpp:141] Setting up inception_5a/5x5
I0706 22:04:06.210377 31367 net.cpp:148] Top shape: 10 128 7 7 (62720)
I0706 22:04:06.210386 31367 net.cpp:156] Memory required for data: 532241920
I0706 22:04:06.210402 31367 layer_factory.hpp:77] Creating layer inception_5a/relu_5x5
I0706 22:04:06.210443 31367 net.cpp:91] Creating Layer inception_5a/relu_5x5
I0706 22:04:06.210455 31367 net.cpp:425] inception_5a/relu_5x5 <- inception_5a/5x5
I0706 22:04:06.210467 31367 net.cpp:386] inception_5a/relu_5x5 -> inception_5a/5x5 (in-place)
I0706 22:04:06.210881 31367 net.cpp:141] Setting up inception_5a/relu_5x5
I0706 22:04:06.210899 31367 net.cpp:148] Top shape: 10 128 7 7 (62720)
I0706 22:04:06.210908 31367 net.cpp:156] Memory required for data: 532492800
I0706 22:04:06.210919 31367 layer_factory.hpp:77] Creating layer inception_5a/pool
I0706 22:04:06.210938 31367 net.cpp:91] Creating Layer inception_5a/pool
I0706 22:04:06.210949 31367 net.cpp:425] inception_5a/pool <- pool4/3x3_s2_pool4/3x3_s2_0_split_3
I0706 22:04:06.210964 31367 net.cpp:399] inception_5a/pool -> inception_5a/pool
I0706 22:04:06.211096 31367 net.cpp:141] Setting up inception_5a/pool
I0706 22:04:06.211112 31367 net.cpp:148] Top shape: 10 832 7 7 (407680)
I0706 22:04:06.211120 31367 net.cpp:156] Memory required for data: 534123520
I0706 22:04:06.211129 31367 layer_factory.hpp:77] Creating layer inception_5a/pool_proj
I0706 22:04:06.211153 31367 net.cpp:91] Creating Layer inception_5a/pool_proj
I0706 22:04:06.211164 31367 net.cpp:425] inception_5a/pool_proj <- inception_5a/pool
I0706 22:04:06.211184 31367 net.cpp:399] inception_5a/pool_proj -> inception_5a/pool_proj
I0706 22:04:06.215198 31367 net.cpp:141] Setting up inception_5a/pool_proj
I0706 22:04:06.215216 31367 net.cpp:148] Top shape: 10 128 7 7 (62720)
I0706 22:04:06.215225 31367 net.cpp:156] Memory required for data: 534374400
I0706 22:04:06.215240 31367 layer_factory.hpp:77] Creating layer inception_5a/relu_pool_proj
I0706 22:04:06.215261 31367 net.cpp:91] Creating Layer inception_5a/relu_pool_proj
I0706 22:04:06.215273 31367 net.cpp:425] inception_5a/relu_pool_proj <- inception_5a/pool_proj
I0706 22:04:06.215286 31367 net.cpp:386] inception_5a/relu_pool_proj -> inception_5a/pool_proj (in-place)
I0706 22:04:06.216231 31367 net.cpp:141] Setting up inception_5a/relu_pool_proj
I0706 22:04:06.216253 31367 net.cpp:148] Top shape: 10 128 7 7 (62720)
I0706 22:04:06.216274 31367 net.cpp:156] Memory required for data: 534625280
I0706 22:04:06.216282 31367 layer_factory.hpp:77] Creating layer inception_5a/output
I0706 22:04:06.216295 31367 net.cpp:91] Creating Layer inception_5a/output
I0706 22:04:06.216303 31367 net.cpp:425] inception_5a/output <- inception_5a/1x1
I0706 22:04:06.216313 31367 net.cpp:425] inception_5a/output <- inception_5a/3x3
I0706 22:04:06.216323 31367 net.cpp:425] inception_5a/output <- inception_5a/5x5
I0706 22:04:06.216333 31367 net.cpp:425] inception_5a/output <- inception_5a/pool_proj
I0706 22:04:06.216346 31367 net.cpp:399] inception_5a/output -> inception_5a/output
I0706 22:04:06.216418 31367 net.cpp:141] Setting up inception_5a/output
I0706 22:04:06.216434 31367 net.cpp:148] Top shape: 10 832 7 7 (407680)
I0706 22:04:06.216442 31367 net.cpp:156] Memory required for data: 536256000
I0706 22:04:06.216451 31367 layer_factory.hpp:77] Creating layer inception_5a/output_inception_5a/output_0_split
I0706 22:04:06.216464 31367 net.cpp:91] Creating Layer inception_5a/output_inception_5a/output_0_split
I0706 22:04:06.216472 31367 net.cpp:425] inception_5a/output_inception_5a/output_0_split <- inception_5a/output
I0706 22:04:06.216488 31367 net.cpp:399] inception_5a/output_inception_5a/output_0_split -> inception_5a/output_inception_5a/output_0_split_0
I0706 22:04:06.216506 31367 net.cpp:399] inception_5a/output_inception_5a/output_0_split -> inception_5a/output_inception_5a/output_0_split_1
I0706 22:04:06.216522 31367 net.cpp:399] inception_5a/output_inception_5a/output_0_split -> inception_5a/output_inception_5a/output_0_split_2
I0706 22:04:06.216538 31367 net.cpp:399] inception_5a/output_inception_5a/output_0_split -> inception_5a/output_inception_5a/output_0_split_3
I0706 22:04:06.216730 31367 net.cpp:141] Setting up inception_5a/output_inception_5a/output_0_split
I0706 22:04:06.216747 31367 net.cpp:148] Top shape: 10 832 7 7 (407680)
I0706 22:04:06.216758 31367 net.cpp:148] Top shape: 10 832 7 7 (407680)
I0706 22:04:06.216768 31367 net.cpp:148] Top shape: 10 832 7 7 (407680)
I0706 22:04:06.216776 31367 net.cpp:148] Top shape: 10 832 7 7 (407680)
I0706 22:04:06.216784 31367 net.cpp:156] Memory required for data: 542778880
I0706 22:04:06.216792 31367 layer_factory.hpp:77] Creating layer inception_5b/1x1
I0706 22:04:06.216816 31367 net.cpp:91] Creating Layer inception_5b/1x1
I0706 22:04:06.216827 31367 net.cpp:425] inception_5b/1x1 <- inception_5a/output_inception_5a/output_0_split_0
I0706 22:04:06.216847 31367 net.cpp:399] inception_5b/1x1 -> inception_5b/1x1
I0706 22:04:06.222786 31367 net.cpp:141] Setting up inception_5b/1x1
I0706 22:04:06.222808 31367 net.cpp:148] Top shape: 10 384 7 7 (188160)
I0706 22:04:06.222817 31367 net.cpp:156] Memory required for data: 543531520
I0706 22:04:06.222832 31367 layer_factory.hpp:77] Creating layer inception_5b/relu_1x1
I0706 22:04:06.222851 31367 net.cpp:91] Creating Layer inception_5b/relu_1x1
I0706 22:04:06.222862 31367 net.cpp:425] inception_5b/relu_1x1 <- inception_5b/1x1
I0706 22:04:06.222874 31367 net.cpp:386] inception_5b/relu_1x1 -> inception_5b/1x1 (in-place)
I0706 22:04:06.223284 31367 net.cpp:141] Setting up inception_5b/relu_1x1
I0706 22:04:06.223301 31367 net.cpp:148] Top shape: 10 384 7 7 (188160)
I0706 22:04:06.223309 31367 net.cpp:156] Memory required for data: 544284160
I0706 22:04:06.223318 31367 layer_factory.hpp:77] Creating layer inception_5b/3x3_reduce
I0706 22:04:06.223350 31367 net.cpp:91] Creating Layer inception_5b/3x3_reduce
I0706 22:04:06.223362 31367 net.cpp:425] inception_5b/3x3_reduce <- inception_5a/output_inception_5a/output_0_split_1
I0706 22:04:06.223378 31367 net.cpp:399] inception_5b/3x3_reduce -> inception_5b/3x3_reduce
I0706 22:04:06.227830 31367 net.cpp:141] Setting up inception_5b/3x3_reduce
I0706 22:04:06.227850 31367 net.cpp:148] Top shape: 10 192 7 7 (94080)
I0706 22:04:06.227859 31367 net.cpp:156] Memory required for data: 544660480
I0706 22:04:06.227874 31367 layer_factory.hpp:77] Creating layer inception_5b/relu_3x3_reduce
I0706 22:04:06.227892 31367 net.cpp:91] Creating Layer inception_5b/relu_3x3_reduce
I0706 22:04:06.227903 31367 net.cpp:425] inception_5b/relu_3x3_reduce <- inception_5b/3x3_reduce
I0706 22:04:06.227916 31367 net.cpp:386] inception_5b/relu_3x3_reduce -> inception_5b/3x3_reduce (in-place)
I0706 22:04:06.228307 31367 net.cpp:141] Setting up inception_5b/relu_3x3_reduce
I0706 22:04:06.228323 31367 net.cpp:148] Top shape: 10 192 7 7 (94080)
I0706 22:04:06.228332 31367 net.cpp:156] Memory required for data: 545036800
I0706 22:04:06.228341 31367 layer_factory.hpp:77] Creating layer inception_5b/3x3
I0706 22:04:06.228365 31367 net.cpp:91] Creating Layer inception_5b/3x3
I0706 22:04:06.228377 31367 net.cpp:425] inception_5b/3x3 <- inception_5b/3x3_reduce
I0706 22:04:06.228396 31367 net.cpp:399] inception_5b/3x3 -> inception_5b/3x3
I0706 22:04:06.237869 31367 net.cpp:141] Setting up inception_5b/3x3
I0706 22:04:06.237900 31367 net.cpp:148] Top shape: 10 384 7 7 (188160)
I0706 22:04:06.237910 31367 net.cpp:156] Memory required for data: 545789440
I0706 22:04:06.237926 31367 layer_factory.hpp:77] Creating layer inception_5b/relu_3x3
I0706 22:04:06.237941 31367 net.cpp:91] Creating Layer inception_5b/relu_3x3
I0706 22:04:06.237952 31367 net.cpp:425] inception_5b/relu_3x3 <- inception_5b/3x3
I0706 22:04:06.237965 31367 net.cpp:386] inception_5b/relu_3x3 -> inception_5b/3x3 (in-place)
I0706 22:04:06.238878 31367 net.cpp:141] Setting up inception_5b/relu_3x3
I0706 22:04:06.238899 31367 net.cpp:148] Top shape: 10 384 7 7 (188160)
I0706 22:04:06.238909 31367 net.cpp:156] Memory required for data: 546542080
I0706 22:04:06.238919 31367 layer_factory.hpp:77] Creating layer inception_5b/5x5_reduce
I0706 22:04:06.238946 31367 net.cpp:91] Creating Layer inception_5b/5x5_reduce
I0706 22:04:06.238960 31367 net.cpp:425] inception_5b/5x5_reduce <- inception_5a/output_inception_5a/output_0_split_2
I0706 22:04:06.238978 31367 net.cpp:399] inception_5b/5x5_reduce -> inception_5b/5x5_reduce
I0706 22:04:06.241719 31367 net.cpp:141] Setting up inception_5b/5x5_reduce
I0706 22:04:06.241739 31367 net.cpp:148] Top shape: 10 48 7 7 (23520)
I0706 22:04:06.241750 31367 net.cpp:156] Memory required for data: 546636160
I0706 22:04:06.241765 31367 layer_factory.hpp:77] Creating layer inception_5b/relu_5x5_reduce
I0706 22:04:06.241780 31367 net.cpp:91] Creating Layer inception_5b/relu_5x5_reduce
I0706 22:04:06.241791 31367 net.cpp:425] inception_5b/relu_5x5_reduce <- inception_5b/5x5_reduce
I0706 22:04:06.241811 31367 net.cpp:386] inception_5b/relu_5x5_reduce -> inception_5b/5x5_reduce (in-place)
I0706 22:04:06.242231 31367 net.cpp:141] Setting up inception_5b/relu_5x5_reduce
I0706 22:04:06.242249 31367 net.cpp:148] Top shape: 10 48 7 7 (23520)
I0706 22:04:06.242259 31367 net.cpp:156] Memory required for data: 546730240
I0706 22:04:06.242269 31367 layer_factory.hpp:77] Creating layer inception_5b/5x5
I0706 22:04:06.242293 31367 net.cpp:91] Creating Layer inception_5b/5x5
I0706 22:04:06.242306 31367 net.cpp:425] inception_5b/5x5 <- inception_5b/5x5_reduce
I0706 22:04:06.242329 31367 net.cpp:399] inception_5b/5x5 -> inception_5b/5x5
I0706 22:04:06.246465 31367 net.cpp:141] Setting up inception_5b/5x5
I0706 22:04:06.246486 31367 net.cpp:148] Top shape: 10 128 7 7 (62720)
I0706 22:04:06.246495 31367 net.cpp:156] Memory required for data: 546981120
I0706 22:04:06.246511 31367 layer_factory.hpp:77] Creating layer inception_5b/relu_5x5
I0706 22:04:06.246526 31367 net.cpp:91] Creating Layer inception_5b/relu_5x5
I0706 22:04:06.246537 31367 net.cpp:425] inception_5b/relu_5x5 <- inception_5b/5x5
I0706 22:04:06.246558 31367 net.cpp:386] inception_5b/relu_5x5 -> inception_5b/5x5 (in-place)
I0706 22:04:06.246994 31367 net.cpp:141] Setting up inception_5b/relu_5x5
I0706 22:04:06.247025 31367 net.cpp:148] Top shape: 10 128 7 7 (62720)
I0706 22:04:06.247033 31367 net.cpp:156] Memory required for data: 547232000
I0706 22:04:06.247042 31367 layer_factory.hpp:77] Creating layer inception_5b/pool
I0706 22:04:06.247056 31367 net.cpp:91] Creating Layer inception_5b/pool
I0706 22:04:06.247064 31367 net.cpp:425] inception_5b/pool <- inception_5a/output_inception_5a/output_0_split_3
I0706 22:04:06.247076 31367 net.cpp:399] inception_5b/pool -> inception_5b/pool
I0706 22:04:06.247220 31367 net.cpp:141] Setting up inception_5b/pool
I0706 22:04:06.247238 31367 net.cpp:148] Top shape: 10 832 7 7 (407680)
I0706 22:04:06.247247 31367 net.cpp:156] Memory required for data: 548862720
I0706 22:04:06.247256 31367 layer_factory.hpp:77] Creating layer inception_5b/pool_proj
I0706 22:04:06.247282 31367 net.cpp:91] Creating Layer inception_5b/pool_proj
I0706 22:04:06.247298 31367 net.cpp:425] inception_5b/pool_proj <- inception_5b/pool
I0706 22:04:06.247318 31367 net.cpp:399] inception_5b/pool_proj -> inception_5b/pool_proj
I0706 22:04:06.251520 31367 net.cpp:141] Setting up inception_5b/pool_proj
I0706 22:04:06.251544 31367 net.cpp:148] Top shape: 10 128 7 7 (62720)
I0706 22:04:06.251554 31367 net.cpp:156] Memory required for data: 549113600
I0706 22:04:06.251571 31367 layer_factory.hpp:77] Creating layer inception_5b/relu_pool_proj
I0706 22:04:06.251586 31367 net.cpp:91] Creating Layer inception_5b/relu_pool_proj
I0706 22:04:06.251596 31367 net.cpp:425] inception_5b/relu_pool_proj <- inception_5b/pool_proj
I0706 22:04:06.251608 31367 net.cpp:386] inception_5b/relu_pool_proj -> inception_5b/pool_proj (in-place)
I0706 22:04:06.252492 31367 net.cpp:141] Setting up inception_5b/relu_pool_proj
I0706 22:04:06.252514 31367 net.cpp:148] Top shape: 10 128 7 7 (62720)
I0706 22:04:06.252524 31367 net.cpp:156] Memory required for data: 549364480
I0706 22:04:06.252533 31367 layer_factory.hpp:77] Creating layer inception_5b/output
I0706 22:04:06.252547 31367 net.cpp:91] Creating Layer inception_5b/output
I0706 22:04:06.252557 31367 net.cpp:425] inception_5b/output <- inception_5b/1x1
I0706 22:04:06.252568 31367 net.cpp:425] inception_5b/output <- inception_5b/3x3
I0706 22:04:06.252578 31367 net.cpp:425] inception_5b/output <- inception_5b/5x5
I0706 22:04:06.252589 31367 net.cpp:425] inception_5b/output <- inception_5b/pool_proj
I0706 22:04:06.252602 31367 net.cpp:399] inception_5b/output -> inception_5b/output
I0706 22:04:06.252677 31367 net.cpp:141] Setting up inception_5b/output
I0706 22:04:06.252693 31367 net.cpp:148] Top shape: 10 1024 7 7 (501760)
I0706 22:04:06.252702 31367 net.cpp:156] Memory required for data: 551371520
I0706 22:04:06.252712 31367 layer_factory.hpp:77] Creating layer pool5/7x7_s1
I0706 22:04:06.252728 31367 net.cpp:91] Creating Layer pool5/7x7_s1
I0706 22:04:06.252738 31367 net.cpp:425] pool5/7x7_s1 <- inception_5b/output
I0706 22:04:06.252753 31367 net.cpp:399] pool5/7x7_s1 -> pool5/7x7_s1
I0706 22:04:06.253252 31367 net.cpp:141] Setting up pool5/7x7_s1
I0706 22:04:06.253270 31367 net.cpp:148] Top shape: 10 1024 1 1 (10240)
I0706 22:04:06.253279 31367 net.cpp:156] Memory required for data: 551412480
I0706 22:04:06.253288 31367 layer_factory.hpp:77] Creating layer pool5/drop_7x7_s1
I0706 22:04:06.253303 31367 net.cpp:91] Creating Layer pool5/drop_7x7_s1
I0706 22:04:06.253312 31367 net.cpp:425] pool5/drop_7x7_s1 <- pool5/7x7_s1
I0706 22:04:06.253330 31367 net.cpp:386] pool5/drop_7x7_s1 -> pool5/7x7_s1 (in-place)
I0706 22:04:06.253406 31367 net.cpp:141] Setting up pool5/drop_7x7_s1
I0706 22:04:06.253420 31367 net.cpp:148] Top shape: 10 1024 1 1 (10240)
I0706 22:04:06.253433 31367 net.cpp:156] Memory required for data: 551453440
I0706 22:04:06.253443 31367 layer_factory.hpp:77] Creating layer loss3/classifier
I0706 22:04:06.253465 31367 net.cpp:91] Creating Layer loss3/classifier
I0706 22:04:06.253476 31367 net.cpp:425] loss3/classifier <- pool5/7x7_s1
I0706 22:04:06.253499 31367 net.cpp:399] loss3/classifier -> loss3/classifier
I0706 22:04:06.263700 31367 net.cpp:141] Setting up loss3/classifier
I0706 22:04:06.263723 31367 net.cpp:148] Top shape: 10 1000 (10000)
I0706 22:04:06.263732 31367 net.cpp:156] Memory required for data: 551493440
I0706 22:04:06.263751 31367 layer_factory.hpp:77] Creating layer prob
I0706 22:04:06.263766 31367 net.cpp:91] Creating Layer prob
I0706 22:04:06.263775 31367 net.cpp:425] prob <- loss3/classifier
I0706 22:04:06.263792 31367 net.cpp:399] prob -> prob
I0706 22:04:06.264864 31367 net.cpp:141] Setting up prob
I0706 22:04:06.264883 31367 net.cpp:148] Top shape: 10 1000 (10000)
I0706 22:04:06.264891 31367 net.cpp:156] Memory required for data: 551533440
I0706 22:04:06.264900 31367 net.cpp:219] prob does not need backward computation.
I0706 22:04:06.264909 31367 net.cpp:219] loss3/classifier does not need backward computation.
I0706 22:04:06.264917 31367 net.cpp:219] pool5/drop_7x7_s1 does not need backward computation.
I0706 22:04:06.264925 31367 net.cpp:219] pool5/7x7_s1 does not need backward computation.
…
