…
I0924 02:14:26.387473 19029 upgrade_proto.cpp:69] Successfully upgraded file specified using deprecated input fields.
W0924 02:14:26.387485 19009 upgrade_proto.cpp:71] Note that future Caffe releases will only support input layers and not input fields.
W0924 02:14:26.387487 19029 upgrade_proto.cpp:71] Note that future Caffe releases will only support input layers and not input fields.
I0924 02:14:26.387653 19007 net.cpp:49] Initializing net from parameters: 
name: "CaffeNet"
state {
  phase: TEST
}
layer {
  name: "data"
  type: "Input"
  top: "data"
  input_param {
    shape {
      dim: 10
      dim: 3
      dim: 227
      dim: 227
    }
  }
}
layer {
  name: "conv1"
  type: "Convolution"
  bottom: "data"
  top: "conv1"
  convolution_param {
    num_output: 96
    kernel_size: 11
    stride: 4
  }
}
layer {
  name: "relu1"
  type: "ReLU"
  bottom: "conv1"
  top: "conv1"
}
layer {
  name: "pool1"
  type: "Pooling"
  bottom: "conv1"
  top: "pool1"
  pooling_param {
    pool: MAX
    kernel_size: 3
    stride: 2
  }
}
layer {
  name: "norm1"
  type: "LRN"
  bottom: "pool1"
  top: "norm1"
  lrn_param {
    local_size: 5
    alpha: 0.0001
    beta: 0.75
  }
}
layer {
  name: "conv2"
  type: "Convolution"
  bottom: "norm1"
  top: "conv2"
  convolution_param {
    num_output: 256
    pad: 2
    kernel_size: 5
    group: 2
  }
}
layer {
  name: "relu2"
  type: "ReLU"
  bottom: "conv2"
  top: "conv2"
}
layer {
  name: "pool2"
  type: "Pooling"
  bottom: "conv2"
  top: "pool2"
  pooling_param {
    pool: MAX
    kernel_size: 3
    stride: 2
  }
}
layer {
  name: "norm2"
  type: "LRN"
  bottom: "pool2"
  top: "norm2"
  lrn_param {
    local_size: 5
    alpha: 0.0001
    beta: 0.75
  }
}
layer {
  name: "conv3"
  type: "Convolution"
  bottom: "norm2"
  top: "conv3"
  convolution_param {
    num_output: 384
    pad: 1
    kernel_size: 3
  }
}
layer {
  name: "relu3"
  type: "ReLU"
  bottom: "conv3"
  top: "conv3"
}
layer {
  name: "conv4"
  type: "Convolution"
  bottom: "conv3"
  top: "conv4"
  convolution_param {
    num_output: 384
    pad: 1
    kernel_size: 3
    group: 2
  }
}
layer {
  name: "relu4"
  type: "ReLU"
  bottom: "conv4"
  top: "conv4"
}
layer {
  name: "conv5"
  type: "Convolution"
  bottom: "conv4"
  top: "conv5"
  convolution_param {
    num_output: 256
    pad: 1
    kernel_size: 3
    group: 2
  }
}
layer {
  name: "relu5"
  type: "ReLU"
  bottom: "conv5"
  top: "conv5"
}
layer {
  name: "pool5"
  type: "Pooling"
  bottom: "conv5"
  top: "pool5"
  pooling_param {
    pool: MAX
    kernel_size: 3
    stride: 2
  }
}
layer {
  name: "fc6"
  type: "InnerProduct"
  bottom: "pool5"
  top: "fc6"
  inner_product_param {
    num_output: 4096
  }
}
layer {
  name: "relu6"
  type: "ReLU"
  bottom: "fc6"
  top: "fc6"
}
layer {
  name: "drop6"
  type: "Dropout"
  bottom: "fc6"
  top: "fc6"
  dropout_param {
    dropout_ratio: 0.5
  }
}
layer {
  name: "fc7"
  type: "InnerProduct"
  bottom: "fc6"
  top: "fc7"
  inner_product_param {
    num_output: 4096
  }
}
layer {
  name: "relu7"
  type: "ReLU"
  bottom: "fc7"
  top: "fc7"
}
layer {
  name: "drop7"
  type: "Dropout"
  bottom: "fc7"
  top: "fc7"
  dropout_param {
    dropout_ratio: 0.5
  }
}
layer {
  name: "fc8"
  type: "InnerProduct"
  bottom: "fc7"
  top: "fc8"
  inner_product_param {
    num_output: 1000
  }
}
layer {
  name: "prob"
  type: "Softmax"
  bottom: "fc8"
  top: "prob"
}
I0924 02:14:26.387701 19013 net.cpp:49] Initializing net from parameters: 
name: "s2vt:features_to_lstm"
state {
  phase: TEST
}
layer {
  name: "input"
  type: "Input"
  top: "frames_fc7"
  top: "cont_sentence"
  top: "input_sentence"
  top: "stage_indicator"
  input_param {
    shape {
      dim: 1
      dim: 4096
    }
    shape {
      dim: 1
      dim: 1
    }
    shape {
      dim: 1
      dim: 1
    }
    shape {
      dim: 1
      dim: 1
    }
  }
}
layer {
  name: "embed_encoder"
  type: "InnerProduct"
  bottom: "frames_fc7"
  top: "embedded_in_frames"
  param {
    lr_mult: 1
    decay_mult: 1
  }
  param {
    lr_mult: 2
    decay_mult: 0
  }
  inner_product_param {
    num_output: 500
    weight_filler {
      type: "xavier"
    }
    bias_filler {
      type: "constant"
      value: 0.2
    }
  }
}
layer {
  name: "reshape_frames"
  type: "Reshape"
  bottom: "embedded_in_frames"
  top: "embedded_input_frames"
  reshape_param {
    shape {
      dim: 1
      dim: 1
      dim: 500
    }
  }
}
layer {
  name: "reshape_stage_indicator"
  type: "Reshape"
  bottom: "stage_indicator"
  top: "reshaped_stage_indicator"
  reshape_param {
    shape {
      dim: 1
      dim: 1
      dim: 1
    }
  }
}
layer {
  name: "embedding"
  type: "Embed"
  bottom: "input_sentence"
  top: "embedded_input_sentence"
  param {
    lr_mult: 1
  }
  embed_param {
    num_output: 500
    input_dim: 46168
    bias_term: false
    weight_filler {
      type: "uniform"
      min: -0.08
      max: 0.08
    }
  }
}
layer {
  name: "lstm1"
  type: "LSTM"
  bottom: "embedded_input_frames"
  bottom: "cont_sentence"
  top: "lstm1"
  recurrent_param {
    num_output: 1000
    weight_filler {
      type: "uniform"
      min: -0.08
      max: 0.08
    }
    bias_filler {
      type: "constant"
      value: 0
    }
  }
}
layer {
  name: "concat"
  type: "Concat"
  bottom: "lstm1"
  bottom: "embedded_input_sentence"
  bottom: "reshaped_stage_indicator"
  top: "lstm1_video_sequence"
  concat_param {
    concat_dim: 2
  }
}
layer {
  name: "lstm2"
  type: "LSTM"
  bottom: "lstm1_video_sequence"
  bottom: "cont_sentence"
  top: "lstm2"
  recurrent_param {
    num_output: 1000
    weight_filler {
      type: "uniform"
      min: -0.08
      max: 0.08
    }
    bias_filler {
      type: "constant"
      value: 0
    }
  }
}
layer {
  name: "predict"
  type: "InnerProduct"
  bottom: "lstm2"
  top: "predict"
  param {
    lr_mult: 1
    decay_mult: 1
  }
  param {
    lr_mult: 2
    decay_mult: 0
  }
  inner_product_param {
    num_output: 46168
    weight_filler {
      type: "uniform"
      min: -0.08
      max: 0.08
    }
    bias_filler {
      type: "constant"
      value: 0
    }
    axis: 2
  }
}
layer {
  name: "probs"
  type: "Softmax"
  bottom: "predict"
  top: "probs"
  softmax_param {
    axis: 2
  }
}
I0924 02:14:26.387750 19009 net.cpp:49] Initializing net from parameters: 
name: "s2vt:features_to_lstm"
state {
  phase: TEST
}
layer {
  name: "input"
  type: "Input"
  top: "frames_fc7"
  top: "cont_sentence"
  top: "input_sentence"
  top: "stage_indicator"
  input_param {
    shape {
      dim: 1
      dim: 4096
    }
    shape {
      dim: 1
      dim: 1
    }
    shape {
      dim: 1
      dim: 1
    }
    shape {
      dim: 1
      dim: 1
    }
  }
}
layer {
  name: "embed_encoder"
  type: "InnerProduct"
  bottom: "frames_fc7"
  top: "embedded_in_frames"
  param {
    lr_mult: 1
    decay_mult: 1
  }
  param {
    lr_mult: 2
    decay_mult: 0
  }
  inner_product_param {
    num_output: 500
    weight_filler {
      type: "xavier"
    }
    bias_filler {
      type: "constant"
      value: 0.2
    }
  }
}
layer {
  name: "reshape_frames"
  type: "Reshape"
  bottom: "embedded_in_frames"
  top: "embedded_input_frames"
  reshape_param {
    shape {
      dim: 1
      dim: 1
      dim: 500
    }
  }
}
layer {
  name: "reshape_stage_indicator"
  type: "Reshape"
  bottom: "stage_indicator"
  top: "reshaped_stage_indicator"
  reshape_param {
    shape {
      dim: 1
      dim: 1
      dim: 1
    }
  }
}
layer {
  name: "embedding"
  type: "Embed"
  bottom: "input_sentence"
  top: "embedded_input_sentence"
  param {
    lr_mult: 1
  }
  embed_param {
    num_output: 500
    input_dim: 46168
    bias_term: false
    weight_filler {
      type: "uniform"
      min: -0.08
      max: 0.08
    }
  }
}
layer {
  name: "lstm1"
  type: "LSTM"
  bottom: "embedded_input_frames"
  bottom: "cont_sentence"
  top: "lstm1"
  recurrent_param {
    num_output: 1000
    weight_filler {
      type: "uniform"
      min: -0.08
      max: 0.08
    }
    bias_filler {
      type: "constant"
      value: 0
    }
  }
}
layer {
  name: "concat"
  type: "Concat"
  bottom: "lstm1"
  bottom: "embedded_input_sentence"
  bottom: "reshaped_stage_indicator"
  top: "lstm1_video_sequence"
  concat_param {
    concat_dim: 2
  }
}
layer {
  name: "lstm2"
  type: "LSTM"
  bottom: "lstm1_video_sequence"
  bottom: "cont_sentence"
  top: "lstm2"
  recurrent_param {
    num_output: 1000
    weight_filler {
      type: "uniform"
      min: -0.08
      max: 0.08
    }
    bias_filler {
      type: "constant"
      value: 0
    }
  }
}
layer {
  name: "predict"
  type: "InnerProduct"
  bottom: "lstm2"
  top: "predict"
  param {
    lr_mult: 1
    decay_mult: 1
  }
  param {
    lr_mult: 2
    decay_mult: 0
  }
  inner_product_param {
    num_output: 46168
    weight_filler {
      type: "uniform"
      min: -0.08
      max: 0.08
    }
    bias_filler {
      type: "constant"
      value: 0
    }
    axis: 2
  }
}
layer {
  name: "probs"
  type: "Softmax"
  bottom: "predict"
  top: "probs"
  softmax_param {
    axis: 2
  }
}
I0924 02:14:26.387750 19029 net.cpp:49] Initializing net from parameters: 
name: "s2vt:features_to_lstm"
state {
  phase: TEST
}
layer {
  name: "input"
  type: "Input"
  top: "frames_fc7"
  top: "cont_sentence"
  top: "input_sentence"
  top: "stage_indicator"
  input_param {
    shape {
      dim: 1
      dim: 4096
    }
    shape {
      dim: 1
      dim: 1
    }
    shape {
      dim: 1
      dim: 1
    }
    shape {
      dim: 1
      dim: 1
    }
  }
}
layer {
  name: "embed_encoder"
  type: "InnerProduct"
  bottom: "frames_fc7"
  top: "embedded_in_frames"
  param {
    lr_mult: 1
    decay_mult: 1
  }
  param {
    lr_mult: 2
    decay_mult: 0
  }
  inner_product_param {
    num_output: 500
    weight_filler {
      type: "xavier"
    }
    bias_filler {
      type: "constant"
      value: 0.2
    }
  }
}
layer {
  name: "reshape_frames"
  type: "Reshape"
  bottom: "embedded_in_frames"
  top: "embedded_input_frames"
  reshape_param {
    shape {
      dim: 1
      dim: 1
      dim: 500
    }
  }
}
layer {
  name: "reshape_stage_indicator"
  type: "Reshape"
  bottom: "stage_indicator"
  top: "reshaped_stage_indicator"
  reshape_param {
    shape {
      dim: 1
      dim: 1
      dim: 1
    }
  }
}
layer {
  name: "embedding"
  type: "Embed"
  bottom: "input_sentence"
  top: "embedded_input_sentence"
  param {
    lr_mult: 1
  }
  embed_param {
    num_output: 500
    input_dim: 46168
    bias_term: false
    weight_filler {
      type: "uniform"
      min: -0.08
      max: 0.08
    }
  }
}
layer {
  name: "lstm1"
  type: "LSTM"
  bottom: "embedded_input_frames"
  bottom: "cont_sentence"
  top: "lstm1"
  recurrent_param {
    num_output: 1000
    weight_filler {
      type: "uniform"
      min: -0.08
      max: 0.08
    }
    bias_filler {
      type: "constant"
      value: 0
    }
  }
}
layer {
  name: "concat"
  type: "Concat"
  bottom: "lstm1"
  bottom: "embedded_input_sentence"
  bottom: "reshaped_stage_indicator"
  top: "lstm1_video_sequence"
  concat_param {
    concat_dim: 2
  }
}
layer {
  name: "lstm2"
  type: "LSTM"
  bottom: "lstm1_video_sequence"
  bottom: "cont_sentence"
  top: "lstm2"
  recurrent_param {
    num_output: 1000
    weight_filler {
      type: "uniform"
      min: -0.08
      max: 0.08
    }
    bias_filler {
      type: "constant"
      value: 0
    }
  }
}
layer {
  name: "predict"
  type: "InnerProduct"
  bottom: "lstm2"
  top: "predict"
  param {
    lr_mult: 1
    decay_mult: 1
  }
  param {
    lr_mult: 2
    decay_mult: 0
  }
  inner_product_param {
    num_output: 46168
    weight_filler {
      type: "uniform"
      min: -0.08
      max: 0.08
    }
    bias_filler {
      type: "constant"
      value: 0
    }
    axis: 2
  }
}
layer {
  name: "probs"
  type: "Softmax"
  bottom: "predict"
  top: "probs"
  softmax_param {
    axis: 2
  }
}
I0924 02:14:26.387768 19007 layer_factory.hpp:77] Creating layer data
I0924 02:14:26.387804 19013 layer_factory.hpp:77] Creating layer input
I0924 02:14:26.387807 19007 net.cpp:91] Creating Layer data
I0924 02:14:26.387815 19013 net.cpp:91] Creating Layer input
I0924 02:14:26.387817 19007 net.cpp:399] data -> data
I0924 02:14:26.387825 19013 net.cpp:399] input -> frames_fc7
…
I0924 02:14:26.387900 19029 net.cpp:399] input -> frames_fc7
I0924 02:14:26.387905 19009 net.cpp:399] input -> frames_fc7
I0924 02:14:26.387920 19009 net.cpp:399] input -> cont_sentence
I0924 02:14:26.387920 19029 net.cpp:399] input -> cont_sentence
I0924 02:14:26.387938 19009 net.cpp:399] input -> input_sentence
I0924 02:14:26.387943 19029 net.cpp:399] input -> input_sentence
I0924 02:14:26.387951 19009 net.cpp:399] input -> stage_indicator
I0924 02:14:26.387955 19029 net.cpp:399] input -> stage_indicator
I0924 02:14:26.947780 19007 net.cpp:141] Setting up data
I0924 02:14:26.947849 19007 net.cpp:148] Top shape: 10 3 227 227 (1545870)
I0924 02:14:26.947855 19007 net.cpp:156] Memory required for data: 6183480
I0924 02:14:26.947873 19007 layer_factory.hpp:77] Creating layer conv1
I0924 02:14:26.947906 19007 net.cpp:91] Creating Layer conv1
I0924 02:14:26.947913 19007 net.cpp:425] conv1 <- data
I0924 02:14:26.947931 19007 net.cpp:399] conv1 -> conv1
I0924 02:14:26.947990 19029 net.cpp:141] Setting up input
I0924 02:14:26.948029 19029 net.cpp:148] Top shape: 1 4096 (4096)
I0924 02:14:26.948038 19029 net.cpp:148] Top shape: 1 1 (1)
I0924 02:14:26.948045 19029 net.cpp:148] Top shape: 1 1 (1)
I0924 02:14:26.948051 19029 net.cpp:148] Top shape: 1 1 (1)
I0924 02:14:26.948055 19029 net.cpp:156] Memory required for data: 16396
I0924 02:14:26.948057 19009 net.cpp:141] Setting up input
I0924 02:14:26.948065 19029 layer_factory.hpp:77] Creating layer cont_sentence_input_1_split
I0924 02:14:26.948081 19009 net.cpp:148] Top shape: 1 4096 (4096)
I0924 02:14:26.948091 19009 net.cpp:148] Top shape: 1 1 (1)
I0924 02:14:26.948096 19009 net.cpp:148] Top shape: 1 1 (1)
I0924 02:14:26.948102 19009 net.cpp:148] Top shape: 1 1 (1)
I0924 02:14:26.948104 19029 net.cpp:91] Creating Layer cont_sentence_input_1_split
I0924 02:14:26.948107 19009 net.cpp:156] Memory required for data: 16396
I0924 02:14:26.948113 19029 net.cpp:425] cont_sentence_input_1_split <- cont_sentence
I0924 02:14:26.948114 19009 layer_factory.hpp:77] Creating layer cont_sentence_input_1_split
I0924 02:14:26.948127 19009 net.cpp:91] Creating Layer cont_sentence_input_1_split
I0924 02:14:26.948133 19009 net.cpp:425] cont_sentence_input_1_split <- cont_sentence
I0924 02:14:26.948148 19029 net.cpp:399] cont_sentence_input_1_split -> cont_sentence_input_1_split_0
I0924 02:14:26.948151 19009 net.cpp:399] cont_sentence_input_1_split -> cont_sentence_input_1_split_0
I0924 02:14:26.948166 19029 net.cpp:399] cont_sentence_input_1_split -> cont_sentence_input_1_split_1
I0924 02:14:26.948166 19009 net.cpp:399] cont_sentence_input_1_split -> cont_sentence_input_1_split_1
I0924 02:14:26.948514 19013 net.cpp:141] Setting up input
I0924 02:14:26.948534 19013 net.cpp:148] Top shape: 1 4096 (4096)
I0924 02:14:26.948541 19013 net.cpp:148] Top shape: 1 1 (1)
I0924 02:14:26.948547 19013 net.cpp:148] Top shape: 1 1 (1)
I0924 02:14:26.948550 19029 net.cpp:141] Setting up cont_sentence_input_1_split
I0924 02:14:26.948554 19013 net.cpp:148] Top shape: 1 1 (1)
I0924 02:14:26.948567 19029 net.cpp:148] Top shape: 1 1 (1)
I0924 02:14:26.948570 19013 net.cpp:156] Memory required for data: 16396
I0924 02:14:26.948575 19029 net.cpp:148] Top shape: 1 1 (1)
I0924 02:14:26.948578 19013 layer_factory.hpp:77] Creating layer cont_sentence_input_1_split
I0924 02:14:26.948577 19009 net.cpp:141] Setting up cont_sentence_input_1_split
I0924 02:14:26.948581 19029 net.cpp:156] Memory required for data: 16404
I0924 02:14:26.948604 19013 net.cpp:91] Creating Layer cont_sentence_input_1_split
I0924 02:14:26.948611 19009 net.cpp:148] Top shape: 1 1 (1)
I0924 02:14:26.948612 19029 layer_factory.hpp:77] Creating layer embed_encoder
I0924 02:14:26.948617 19013 net.cpp:425] cont_sentence_input_1_split <- cont_sentence
I0924 02:14:26.948619 19009 net.cpp:148] Top shape: 1 1 (1)
I0924 02:14:26.948626 19009 net.cpp:156] Memory required for data: 16404
I0924 02:14:26.948629 19013 net.cpp:399] cont_sentence_input_1_split -> cont_sentence_input_1_split_0
I0924 02:14:26.948632 19009 layer_factory.hpp:77] Creating layer embed_encoder
I0924 02:14:26.948643 19013 net.cpp:399] cont_sentence_input_1_split -> cont_sentence_input_1_split_1
I0924 02:14:26.948668 19029 net.cpp:91] Creating Layer embed_encoder
I0924 02:14:26.948668 19009 net.cpp:91] Creating Layer embed_encoder
I0924 02:14:26.948679 19029 net.cpp:425] embed_encoder <- frames_fc7
I0924 02:14:26.948683 19009 net.cpp:425] embed_encoder <- frames_fc7
I0924 02:14:26.948690 19029 net.cpp:399] embed_encoder -> embedded_in_frames
I0924 02:14:26.948695 19009 net.cpp:399] embed_encoder -> embedded_in_frames
I0924 02:14:26.949512 19013 net.cpp:141] Setting up cont_sentence_input_1_split
I0924 02:14:26.949525 19013 net.cpp:148] Top shape: 1 1 (1)
I0924 02:14:26.949532 19013 net.cpp:148] Top shape: 1 1 (1)
I0924 02:14:26.949535 19013 net.cpp:156] Memory required for data: 16404
I0924 02:14:26.949540 19013 layer_factory.hpp:77] Creating layer embed_encoder
I0924 02:14:26.949554 19013 net.cpp:91] Creating Layer embed_encoder
I0924 02:14:26.949559 19013 net.cpp:425] embed_encoder <- frames_fc7
I0924 02:14:26.949568 19013 net.cpp:399] embed_encoder -> embedded_in_frames
I0924 02:14:26.983573 19029 net.cpp:141] Setting up embed_encoder
I0924 02:14:26.983628 19029 net.cpp:148] Top shape: 1 500 (500)
I0924 02:14:26.983635 19029 net.cpp:156] Memory required for data: 18404
I0924 02:14:26.983669 19029 layer_factory.hpp:77] Creating layer reshape_frames
I0924 02:14:26.983723 19029 net.cpp:91] Creating Layer reshape_frames
I0924 02:14:26.983733 19029 net.cpp:425] reshape_frames <- embedded_in_frames
I0924 02:14:26.983746 19029 net.cpp:399] reshape_frames -> embedded_input_frames
I0924 02:14:26.983814 19029 net.cpp:141] Setting up reshape_frames
I0924 02:14:26.983824 19029 net.cpp:148] Top shape: 1 1 500 (500)
I0924 02:14:26.983829 19029 net.cpp:156] Memory required for data: 20404
I0924 02:14:26.983835 19029 layer_factory.hpp:77] Creating layer reshape_stage_indicator
I0924 02:14:26.983850 19029 net.cpp:91] Creating Layer reshape_stage_indicator
I0924 02:14:26.983855 19029 net.cpp:425] reshape_stage_indicator <- stage_indicator
I0924 02:14:26.983865 19029 net.cpp:399] reshape_stage_indicator -> reshaped_stage_indicator
I0924 02:14:26.983898 19013 net.cpp:141] Setting up embed_encoder
I0924 02:14:26.983940 19013 net.cpp:148] Top shape: 1 500 (500)
I0924 02:14:26.983950 19013 net.cpp:156] Memory required for data: 18404
I0924 02:14:26.983955 19009 net.cpp:141] Setting up embed_encoder
I0924 02:14:26.983978 19009 net.cpp:148] Top shape: 1 500 (500)
I0924 02:14:26.983978 19013 layer_factory.hpp:77] Creating layer reshape_frames
I0924 02:14:26.983984 19009 net.cpp:156] Memory required for data: 18404
I0924 02:14:26.983986 19029 net.cpp:141] Setting up reshape_stage_indicator
I0924 02:14:26.983999 19029 net.cpp:148] Top shape: 1 1 1 (1)
I0924 02:14:26.984001 19009 layer_factory.hpp:77] Creating layer reshape_frames
I0924 02:14:26.984004 19029 net.cpp:156] Memory required for data: 20408
I0924 02:14:26.984015 19009 net.cpp:91] Creating Layer reshape_frames
I0924 02:14:26.984016 19029 layer_factory.hpp:77] Creating layer embedding
I0924 02:14:26.984002 19013 net.cpp:91] Creating Layer reshape_frames
I0924 02:14:26.984022 19009 net.cpp:425] reshape_frames <- embedded_in_frames
I0924 02:14:26.984035 19029 net.cpp:91] Creating Layer embedding
I0924 02:14:26.984045 19029 net.cpp:425] embedding <- input_sentence
I0924 02:14:26.984035 19009 net.cpp:399] reshape_frames -> embedded_input_frames
I0924 02:14:26.984057 19029 net.cpp:399] embedding -> embedded_input_sentence
I0924 02:14:26.984032 19013 net.cpp:425] reshape_frames <- embedded_in_frames
I0924 02:14:26.984084 19013 net.cpp:399] reshape_frames -> embedded_input_frames
I0924 02:14:26.984107 19009 net.cpp:141] Setting up reshape_frames
I0924 02:14:26.984119 19009 net.cpp:148] Top shape: 1 1 500 (500)
I0924 02:14:26.984124 19009 net.cpp:156] Memory required for data: 20404
I0924 02:14:26.984129 19009 layer_factory.hpp:77] Creating layer reshape_stage_indicator
I0924 02:14:26.984140 19009 net.cpp:91] Creating Layer reshape_stage_indicator
I0924 02:14:26.984145 19009 net.cpp:425] reshape_stage_indicator <- stage_indicator
I0924 02:14:26.984154 19009 net.cpp:399] reshape_stage_indicator -> reshaped_stage_indicator
I0924 02:14:26.984163 19013 net.cpp:141] Setting up reshape_frames
I0924 02:14:26.984181 19013 net.cpp:148] Top shape: 1 1 500 (500)
I0924 02:14:26.984189 19013 net.cpp:156] Memory required for data: 20404
I0924 02:14:26.984199 19013 layer_factory.hpp:77] Creating layer reshape_stage_indicator
I0924 02:14:26.984215 19013 net.cpp:91] Creating Layer reshape_stage_indicator
I0924 02:14:26.984225 19013 net.cpp:425] reshape_stage_indicator <- stage_indicator
I0924 02:14:26.984238 19013 net.cpp:399] reshape_stage_indicator -> reshaped_stage_indicator
I0924 02:14:27.035352 19013 net.cpp:141] Setting up reshape_stage_indicator
I0924 02:14:27.035403 19013 net.cpp:148] Top shape: 1 1 1 (1)
I0924 02:14:27.035409 19013 net.cpp:156] Memory required for data: 20408
I0924 02:14:27.035418 19013 layer_factory.hpp:77] Creating layer embedding
I0924 02:14:27.035436 19013 net.cpp:91] Creating Layer embedding
I0924 02:14:27.035444 19013 net.cpp:425] embedding <- input_sentence
I0924 02:14:27.035455 19013 net.cpp:399] embedding -> embedded_input_sentence
I0924 02:14:27.035496 19009 net.cpp:141] Setting up reshape_stage_indicator
I0924 02:14:27.035557 19009 net.cpp:148] Top shape: 1 1 1 (1)
I0924 02:14:27.035568 19009 net.cpp:156] Memory required for data: 20408
I0924 02:14:27.035583 19009 layer_factory.hpp:77] Creating layer embedding
I0924 02:14:27.035611 19009 net.cpp:91] Creating Layer embedding
I0924 02:14:27.035625 19009 net.cpp:425] embedding <- input_sentence
I0924 02:14:27.035647 19009 net.cpp:399] embedding -> embedded_input_sentence
I0924 02:14:27.240334 19029 net.cpp:141] Setting up embedding
I0924 02:14:27.240391 19029 net.cpp:148] Top shape: 1 1 500 (500)
I0924 02:14:27.240397 19029 net.cpp:156] Memory required for data: 22408
I0924 02:14:27.240420 19029 layer_factory.hpp:77] Creating layer lstm1
I0924 02:14:27.240447 19029 net.cpp:91] Creating Layer lstm1
I0924 02:14:27.240454 19029 net.cpp:425] lstm1 <- embedded_input_frames
I0924 02:14:27.240464 19029 net.cpp:425] lstm1 <- cont_sentence_input_1_split_0
I0924 02:14:27.240475 19029 net.cpp:399] lstm1 -> lstm1
I0924 02:14:27.240519 19029 recurrent_layer.cpp:20] Initializing recurrent layer: assuming input batch contains 1 timesteps of 1 independent streams.
I0924 02:14:27.240938 19029 net.cpp:49] Initializing net from parameters: 
layer {
  name: "lstm1_"
  type: "Input"
  top: "x"
  top: "cont"
  input_param {
    shape {
      dim: 1
      dim: 1
      dim: 500
    }
    shape {
      dim: 1
      dim: 1
    }
  }
}
layer {
  name: "lstm1_"
  type: "Input"
  top: "c_0"
  top: "h_0"
  input_param {
    shape {
      dim: 1
      dim: 1
      dim: 1000
    }
    shape {
      dim: 1
      dim: 1
      dim: 1000
    }
  }
}
layer {
  name: "lstm1_cont_slice"
  type: "Slice"
  bottom: "cont"
  top: "cont_1"
  slice_param {
    axis: 0
  }
}
layer {
  name: "lstm1_x_transform"
  type: "InnerProduct"
  bottom: "x"
  top: "W_xc_x"
  param {
    name: "W_xc"
  }
  param {
    name: "b_c"
  }
  propagate_down: true
  inner_product_param {
    num_output: 4000
    bias_term: true
    weight_filler {
      type: "uniform"
      min: -0.08
      max: 0.08
    }
    bias_filler {
      type: "constant"
      value: 0
    }
    axis: 2
  }
}
layer {
  name: "lstm1_W_xc_x_slice"
  type: "Slice"
  bottom: "W_xc_x"
  top: "W_xc_x_1"
  slice_param {
    axis: 0
  }
}
layer {
  name: "lstm1_h_conted_0"
  type: "Scale"
  bottom: "h_0"
  bottom: "cont_1"
  top: "h_conted_0"
  scale_param {
    axis: 0
  }
}
layer {
  name: "lstm1_transform_1"
  type: "InnerProduct"
  bottom: "h_conted_0"
  top: "W_hc_h_0"
  param {
    name: "W_hc"
  }
  inner_product_param {
    num_output: 4000
    bias_term: false
    weight_filler {
      type: "uniform"
      min: -0.08
      max: 0.08
    }
    axis: 2
  }
}
layer {
  name: "lstm1_gate_input_1"
  type: "Eltwise"
  bottom: "W_hc_h_0"
  bottom: "W_xc_x_1"
  top: "gate_input_1"
  eltwise_param {
    operation: SUM
  }
}
layer {
  name: "lstm1_unit_1"
  type: "LSTMUnit"
  bottom: "c_0"
  bottom: "gate_input_1"
  bottom: "cont_1"
  top: "c_1"
  top: "h_1"
}
layer {
  name: "lstm1_"
  type: "Split"
  bottom: "c_1"
  top: "c_T"
}
layer {
  name: "lstm1_h_concat"
  type: "Concat"
  bottom: "h_1"
  top: "h"
  concat_param {
    axis: 0
  }
}
layer {
  name: "h_pseudoloss"
  type: "Reduction"
  bottom: "h"
  top: "h_pseudoloss"
  loss_weight: 1
}
I0924 02:14:27.241046 19029 layer_factory.hpp:77] Creating layer lstm1_
I0924 02:14:27.241061 19029 net.cpp:91] Creating Layer lstm1_
I0924 02:14:27.241068 19029 net.cpp:399] lstm1_ -> x
I0924 02:14:27.241081 19029 net.cpp:399] lstm1_ -> cont
I0924 02:14:27.246865 19029 net.cpp:141] Setting up lstm1_
I0924 02:14:27.246903 19029 net.cpp:148] Top shape: 1 1 500 (500)
I0924 02:14:27.246912 19029 net.cpp:148] Top shape: 1 1 (1)
I0924 02:14:27.246917 19029 net.cpp:156] Memory required for data: 2004
I0924 02:14:27.246927 19029 layer_factory.hpp:77] Creating layer lstm1_
I0924 02:14:27.246958 19029 net.cpp:91] Creating Layer lstm1_
I0924 02:14:27.246968 19029 net.cpp:399] lstm1_ -> c_0
I0924 02:14:27.246986 19029 net.cpp:399] lstm1_ -> h_0
I0924 02:14:27.247045 19029 net.cpp:141] Setting up lstm1_
I0924 02:14:27.247058 19029 net.cpp:148] Top shape: 1 1 1000 (1000)
I0924 02:14:27.247066 19029 net.cpp:148] Top shape: 1 1 1000 (1000)
I0924 02:14:27.247069 19029 net.cpp:156] Memory required for data: 10004
I0924 02:14:27.247074 19029 layer_factory.hpp:77] Creating layer lstm1_cont_slice
I0924 02:14:27.247086 19029 net.cpp:91] Creating Layer lstm1_cont_slice
I0924 02:14:27.247092 19029 net.cpp:425] lstm1_cont_slice <- cont
I0924 02:14:27.247100 19029 net.cpp:399] lstm1_cont_slice -> cont_1
I0924 02:14:27.247144 19029 net.cpp:141] Setting up lstm1_cont_slice
I0924 02:14:27.247154 19029 net.cpp:148] Top shape: 1 1 (1)
I0924 02:14:27.247159 19029 net.cpp:156] Memory required for data: 10008
I0924 02:14:27.247164 19029 layer_factory.hpp:77] Creating layer cont_1_lstm1_cont_slice_0_split
I0924 02:14:27.247172 19029 net.cpp:91] Creating Layer cont_1_lstm1_cont_slice_0_split
I0924 02:14:27.247177 19029 net.cpp:425] cont_1_lstm1_cont_slice_0_split <- cont_1
I0924 02:14:27.247189 19029 net.cpp:399] cont_1_lstm1_cont_slice_0_split -> cont_1_lstm1_cont_slice_0_split_0
I0924 02:14:27.247198 19029 net.cpp:399] cont_1_lstm1_cont_slice_0_split -> cont_1_lstm1_cont_slice_0_split_1
I0924 02:14:27.247267 19029 net.cpp:141] Setting up cont_1_lstm1_cont_slice_0_split
I0924 02:14:27.247280 19029 net.cpp:148] Top shape: 1 1 (1)
I0924 02:14:27.247287 19029 net.cpp:148] Top shape: 1 1 (1)
I0924 02:14:27.247292 19029 net.cpp:156] Memory required for data: 10016
I0924 02:14:27.247298 19029 layer_factory.hpp:77] Creating layer lstm1_x_transform
I0924 02:14:27.247311 19029 net.cpp:91] Creating Layer lstm1_x_transform
I0924 02:14:27.247318 19029 net.cpp:425] lstm1_x_transform <- x
I0924 02:14:27.247329 19029 net.cpp:399] lstm1_x_transform -> W_xc_x
I0924 02:14:27.255939 19013 net.cpp:141] Setting up embedding
I0924 02:14:27.255980 19013 net.cpp:148] Top shape: 1 1 500 (500)
I0924 02:14:27.255985 19013 net.cpp:156] Memory required for data: 22408
I0924 02:14:27.256001 19013 layer_factory.hpp:77] Creating layer lstm1
I0924 02:14:27.256018 19013 net.cpp:91] Creating Layer lstm1
I0924 02:14:27.256026 19013 net.cpp:425] lstm1 <- embedded_input_frames
I0924 02:14:27.256034 19013 net.cpp:425] lstm1 <- cont_sentence_input_1_split_0
I0924 02:14:27.256044 19013 net.cpp:399] lstm1 -> lstm1
I0924 02:14:27.256060 19013 recurrent_layer.cpp:20] Initializing recurrent layer: assuming input batch contains 1 timesteps of 1 independent streams.
I0924 02:14:27.256315 19013 net.cpp:49] Initializing net from parameters: 
layer {
  name: "lstm1_"
  type: "Input"
  top: "x"
  top: "cont"
  input_param {
    shape {
      dim: 1
      dim: 1
      dim: 500
    }
    shape {
      dim: 1
      dim: 1
    }
  }
}
layer {
  name: "lstm1_"
  type: "Input"
  top: "c_0"
  top: "h_0"
  input_param {
    shape {
      dim: 1
      dim: 1
      dim: 1000
    }
    shape {
      dim: 1
      dim: 1
      dim: 1000
    }
  }
}
layer {
  name: "lstm1_cont_slice"
  type: "Slice"
  bottom: "cont"
  top: "cont_1"
  slice_param {
    axis: 0
  }
}
layer {
  name: "lstm1_x_transform"
  type: "InnerProduct"
  bottom: "x"
  top: "W_xc_x"
  param {
    name: "W_xc"
  }
  param {
    name: "b_c"
  }
  propagate_down: true
  inner_product_param {
    num_output: 4000
    bias_term: true
    weight_filler {
      type: "uniform"
      min: -0.08
      max: 0.08
    }
    bias_filler {
      type: "constant"
      value: 0
    }
    axis: 2
  }
}
layer {
  name: "lstm1_W_xc_x_slice"
  type: "Slice"
  bottom: "W_xc_x"
  top: "W_xc_x_1"
  slice_param {
    axis: 0
  }
}
layer {
  name: "lstm1_h_conted_0"
  type: "Scale"
  bottom: "h_0"
  bottom: "cont_1"
  top: "h_conted_0"
  scale_param {
    axis: 0
  }
}
layer {
  name: "lstm1_transform_1"
  type: "InnerProduct"
  bottom: "h_conted_0"
  top: "W_hc_h_0"
  param {
    name: "W_hc"
  }
  inner_product_param {
    num_output: 4000
    bias_term: false
    weight_filler {
      type: "uniform"
      min: -0.08
      max: 0.08
    }
    axis: 2
  }
}
layer {
  name: "lstm1_gate_input_1"
  type: "Eltwise"
  bottom: "W_hc_h_0"
  bottom: "W_xc_x_1"
  top: "gate_input_1"
  eltwise_param {
    operation: SUM
  }
}
layer {
  name: "lstm1_unit_1"
  type: "LSTMUnit"
  bottom: "c_0"
  bottom: "gate_input_1"
  bottom: "cont_1"
  top: "c_1"
  top: "h_1"
}
layer {
  name: "lstm1_"
  type: "Split"
  bottom: "c_1"
  top: "c_T"
}
layer {
  name: "lstm1_h_concat"
  type: "Concat"
  bottom: "h_1"
  top: "h"
  concat_param {
    axis: 0
  }
}
layer {
  name: "h_pseudoloss"
  type: "Reduction"
  bottom: "h"
  top: "h_pseudoloss"
  loss_weight: 1
}
I0924 02:14:27.256398 19013 layer_factory.hpp:77] Creating layer lstm1_
I0924 02:14:27.256410 19013 net.cpp:91] Creating Layer lstm1_
I0924 02:14:27.256417 19013 net.cpp:399] lstm1_ -> x
I0924 02:14:27.256428 19013 net.cpp:399] lstm1_ -> cont
I0924 02:14:27.259692 19013 net.cpp:141] Setting up lstm1_
I0924 02:14:27.259711 19013 net.cpp:148] Top shape: 1 1 500 (500)
I0924 02:14:27.259718 19013 net.cpp:148] Top shape: 1 1 (1)
I0924 02:14:27.259722 19013 net.cpp:156] Memory required for data: 2004
I0924 02:14:27.259728 19013 layer_factory.hpp:77] Creating layer lstm1_
I0924 02:14:27.259738 19013 net.cpp:91] Creating Layer lstm1_
I0924 02:14:27.259747 19013 net.cpp:399] lstm1_ -> c_0
I0924 02:14:27.259758 19013 net.cpp:399] lstm1_ -> h_0
I0924 02:14:27.260314 19013 net.cpp:141] Setting up lstm1_
I0924 02:14:27.260332 19013 net.cpp:148] Top shape: 1 1 1000 (1000)
I0924 02:14:27.260339 19013 net.cpp:148] Top shape: 1 1 1000 (1000)
I0924 02:14:27.260344 19013 net.cpp:156] Memory required for data: 10004
I0924 02:14:27.260349 19013 layer_factory.hpp:77] Creating layer lstm1_cont_slice
I0924 02:14:27.260359 19013 net.cpp:91] Creating Layer lstm1_cont_slice
I0924 02:14:27.260365 19013 net.cpp:425] lstm1_cont_slice <- cont
I0924 02:14:27.260372 19013 net.cpp:399] lstm1_cont_slice -> cont_1
I0924 02:14:27.260493 19013 net.cpp:141] Setting up lstm1_cont_slice
I0924 02:14:27.260504 19013 net.cpp:148] Top shape: 1 1 (1)
I0924 02:14:27.260509 19013 net.cpp:156] Memory required for data: 10008
I0924 02:14:27.260514 19013 layer_factory.hpp:77] Creating layer cont_1_lstm1_cont_slice_0_split
I0924 02:14:27.260522 19013 net.cpp:91] Creating Layer cont_1_lstm1_cont_slice_0_split
I0924 02:14:27.260527 19013 net.cpp:425] cont_1_lstm1_cont_slice_0_split <- cont_1
I0924 02:14:27.260535 19013 net.cpp:399] cont_1_lstm1_cont_slice_0_split -> cont_1_lstm1_cont_slice_0_split_0
I0924 02:14:27.260543 19013 net.cpp:399] cont_1_lstm1_cont_slice_0_split -> cont_1_lstm1_cont_slice_0_split_1
I0924 02:14:27.261970 19013 net.cpp:141] Setting up cont_1_lstm1_cont_slice_0_split
I0924 02:14:27.261987 19013 net.cpp:148] Top shape: 1 1 (1)
I0924 02:14:27.261994 19013 net.cpp:148] Top shape: 1 1 (1)
I0924 02:14:27.261998 19013 net.cpp:156] Memory required for data: 10016
I0924 02:14:27.262004 19013 layer_factory.hpp:77] Creating layer lstm1_x_transform
I0924 02:14:27.262017 19013 net.cpp:91] Creating Layer lstm1_x_transform
I0924 02:14:27.262022 19013 net.cpp:425] lstm1_x_transform <- x
I0924 02:14:27.262032 19013 net.cpp:399] lstm1_x_transform -> W_xc_x
I0924 02:14:27.278815 19029 net.cpp:141] Setting up lstm1_x_transform
I0924 02:14:27.278865 19029 net.cpp:148] Top shape: 1 1 4000 (4000)
I0924 02:14:27.278872 19029 net.cpp:156] Memory required for data: 26016
I0924 02:14:27.278898 19029 layer_factory.hpp:77] Creating layer lstm1_W_xc_x_slice
I0924 02:14:27.278920 19029 net.cpp:91] Creating Layer lstm1_W_xc_x_slice
I0924 02:14:27.278928 19029 net.cpp:425] lstm1_W_xc_x_slice <- W_xc_x
I0924 02:14:27.278939 19029 net.cpp:399] lstm1_W_xc_x_slice -> W_xc_x_1
I0924 02:14:27.280220 19029 net.cpp:141] Setting up lstm1_W_xc_x_slice
I0924 02:14:27.280241 19029 net.cpp:148] Top shape: 1 1 4000 (4000)
I0924 02:14:27.280247 19029 net.cpp:156] Memory required for data: 42016
I0924 02:14:27.280253 19029 layer_factory.hpp:77] Creating layer lstm1_h_conted_0
I0924 02:14:27.280277 19029 net.cpp:91] Creating Layer lstm1_h_conted_0
I0924 02:14:27.280284 19029 net.cpp:425] lstm1_h_conted_0 <- h_0
I0924 02:14:27.280292 19029 net.cpp:425] lstm1_h_conted_0 <- cont_1_lstm1_cont_slice_0_split_0
I0924 02:14:27.280305 19029 net.cpp:399] lstm1_h_conted_0 -> h_conted_0
I0924 02:14:27.283974 19029 net.cpp:141] Setting up lstm1_h_conted_0
I0924 02:14:27.283998 19029 net.cpp:148] Top shape: 1 1 1000 (1000)
I0924 02:14:27.284004 19029 net.cpp:156] Memory required for data: 46016
I0924 02:14:27.284010 19029 layer_factory.hpp:77] Creating layer lstm1_transform_1
I0924 02:14:27.284030 19029 net.cpp:91] Creating Layer lstm1_transform_1
I0924 02:14:27.284036 19029 net.cpp:425] lstm1_transform_1 <- h_conted_0
I0924 02:14:27.284046 19029 net.cpp:399] lstm1_transform_1 -> W_hc_h_0
I0924 02:14:27.298487 19013 net.cpp:141] Setting up lstm1_x_transform
I0924 02:14:27.298535 19013 net.cpp:148] Top shape: 1 1 4000 (4000)
I0924 02:14:27.298542 19013 net.cpp:156] Memory required for data: 26016
I0924 02:14:27.298563 19013 layer_factory.hpp:77] Creating layer lstm1_W_xc_x_slice
I0924 02:14:27.298579 19013 net.cpp:91] Creating Layer lstm1_W_xc_x_slice
I0924 02:14:27.298586 19013 net.cpp:425] lstm1_W_xc_x_slice <- W_xc_x
I0924 02:14:27.298607 19013 net.cpp:399] lstm1_W_xc_x_slice -> W_xc_x_1
I0924 02:14:27.299649 19013 net.cpp:141] Setting up lstm1_W_xc_x_slice
I0924 02:14:27.299669 19013 net.cpp:148] Top shape: 1 1 4000 (4000)
I0924 02:14:27.299674 19013 net.cpp:156] Memory required for data: 42016
I0924 02:14:27.299680 19013 layer_factory.hpp:77] Creating layer lstm1_h_conted_0
I0924 02:14:27.299691 19013 net.cpp:91] Creating Layer lstm1_h_conted_0
I0924 02:14:27.299697 19013 net.cpp:425] lstm1_h_conted_0 <- h_0
I0924 02:14:27.299705 19013 net.cpp:425] lstm1_h_conted_0 <- cont_1_lstm1_cont_slice_0_split_0
I0924 02:14:27.299712 19013 net.cpp:399] lstm1_h_conted_0 -> h_conted_0
I0924 02:14:27.300815 19013 net.cpp:141] Setting up lstm1_h_conted_0
I0924 02:14:27.300834 19013 net.cpp:148] Top shape: 1 1 1000 (1000)
I0924 02:14:27.300840 19013 net.cpp:156] Memory required for data: 46016
I0924 02:14:27.300846 19013 layer_factory.hpp:77] Creating layer lstm1_transform_1
I0924 02:14:27.300859 19013 net.cpp:91] Creating Layer lstm1_transform_1
I0924 02:14:27.300865 19013 net.cpp:425] lstm1_transform_1 <- h_conted_0
I0924 02:14:27.300874 19013 net.cpp:399] lstm1_transform_1 -> W_hc_h_0
I0924 02:14:27.309576 19007 net.cpp:141] Setting up conv1
I0924 02:14:27.309625 19007 net.cpp:148] Top shape: 10 96 55 55 (2904000)
I0924 02:14:27.309631 19007 net.cpp:156] Memory required for data: 17799480
I0924 02:14:27.309656 19007 layer_factory.hpp:77] Creating layer relu1
I0924 02:14:27.309675 19007 net.cpp:91] Creating Layer relu1
I0924 02:14:27.309682 19007 net.cpp:425] relu1 <- conv1
I0924 02:14:27.309691 19007 net.cpp:386] relu1 -> conv1 (in-place)
I0924 02:14:27.310117 19007 net.cpp:141] Setting up relu1
I0924 02:14:27.310129 19007 net.cpp:148] Top shape: 10 96 55 55 (2904000)
I0924 02:14:27.310134 19007 net.cpp:156] Memory required for data: 29415480
I0924 02:14:27.310139 19007 layer_factory.hpp:77] Creating layer pool1
I0924 02:14:27.310153 19007 net.cpp:91] Creating Layer pool1
I0924 02:14:27.310158 19007 net.cpp:425] pool1 <- conv1
I0924 02:14:27.310168 19007 net.cpp:399] pool1 -> pool1
I0924 02:14:27.310251 19007 net.cpp:141] Setting up pool1
I0924 02:14:27.310264 19007 net.cpp:148] Top shape: 10 96 27 27 (699840)
I0924 02:14:27.310268 19007 net.cpp:156] Memory required for data: 32214840
I0924 02:14:27.310273 19007 layer_factory.hpp:77] Creating layer norm1
I0924 02:14:27.310289 19007 net.cpp:91] Creating Layer norm1
I0924 02:14:27.310294 19007 net.cpp:425] norm1 <- pool1
I0924 02:14:27.310304 19007 net.cpp:399] norm1 -> norm1
I0924 02:14:27.310570 19007 net.cpp:141] Setting up norm1
I0924 02:14:27.310581 19007 net.cpp:148] Top shape: 10 96 27 27 (699840)
I0924 02:14:27.310585 19007 net.cpp:156] Memory required for data: 35014200
I0924 02:14:27.310590 19007 layer_factory.hpp:77] Creating layer conv2
I0924 02:14:27.310622 19007 net.cpp:91] Creating Layer conv2
I0924 02:14:27.310628 19007 net.cpp:425] conv2 <- norm1
I0924 02:14:27.310636 19007 net.cpp:399] conv2 -> conv2
I0924 02:14:27.313953 19007 net.cpp:141] Setting up conv2
I0924 02:14:27.313979 19007 net.cpp:148] Top shape: 10 256 27 27 (1866240)
I0924 02:14:27.313985 19007 net.cpp:156] Memory required for data: 42479160
I0924 02:14:27.313999 19007 layer_factory.hpp:77] Creating layer relu2
I0924 02:14:27.314010 19007 net.cpp:91] Creating Layer relu2
I0924 02:14:27.314015 19007 net.cpp:425] relu2 <- conv2
I0924 02:14:27.314023 19007 net.cpp:386] relu2 -> conv2 (in-place)
I0924 02:14:27.314425 19007 net.cpp:141] Setting up relu2
I0924 02:14:27.314438 19007 net.cpp:148] Top shape: 10 256 27 27 (1866240)
I0924 02:14:27.314443 19007 net.cpp:156] Memory required for data: 49944120
I0924 02:14:27.314448 19007 layer_factory.hpp:77] Creating layer pool2
I0924 02:14:27.314457 19007 net.cpp:91] Creating Layer pool2
I0924 02:14:27.314461 19007 net.cpp:425] pool2 <- conv2
I0924 02:14:27.314472 19007 net.cpp:399] pool2 -> pool2
I0924 02:14:27.314528 19007 net.cpp:141] Setting up pool2
I0924 02:14:27.314538 19007 net.cpp:148] Top shape: 10 256 13 13 (432640)
I0924 02:14:27.314543 19007 net.cpp:156] Memory required for data: 51674680
I0924 02:14:27.314546 19007 layer_factory.hpp:77] Creating layer norm2
I0924 02:14:27.314560 19007 net.cpp:91] Creating Layer norm2
I0924 02:14:27.314565 19007 net.cpp:425] norm2 <- pool2
I0924 02:14:27.314574 19007 net.cpp:399] norm2 -> norm2
I0924 02:14:27.314844 19007 net.cpp:141] Setting up norm2
I0924 02:14:27.314857 19007 net.cpp:148] Top shape: 10 256 13 13 (432640)
I0924 02:14:27.314862 19007 net.cpp:156] Memory required for data: 53405240
I0924 02:14:27.314867 19007 layer_factory.hpp:77] Creating layer conv3
I0924 02:14:27.314880 19007 net.cpp:91] Creating Layer conv3
I0924 02:14:27.314885 19007 net.cpp:425] conv3 <- norm2
I0924 02:14:27.314894 19007 net.cpp:399] conv3 -> conv3
I0924 02:14:27.318513 19007 net.cpp:141] Setting up conv3
I0924 02:14:27.318542 19007 net.cpp:148] Top shape: 10 384 13 13 (648960)
I0924 02:14:27.318548 19007 net.cpp:156] Memory required for data: 56001080
I0924 02:14:27.318563 19007 layer_factory.hpp:77] Creating layer relu3
I0924 02:14:27.318578 19007 net.cpp:91] Creating Layer relu3
I0924 02:14:27.318585 19007 net.cpp:425] relu3 <- conv3
I0924 02:14:27.318593 19007 net.cpp:386] relu3 -> conv3 (in-place)
I0924 02:14:27.318828 19007 net.cpp:141] Setting up relu3
I0924 02:14:27.318840 19007 net.cpp:148] Top shape: 10 384 13 13 (648960)
I0924 02:14:27.318845 19007 net.cpp:156] Memory required for data: 58596920
I0924 02:14:27.318850 19007 layer_factory.hpp:77] Creating layer conv4
I0924 02:14:27.318863 19007 net.cpp:91] Creating Layer conv4
I0924 02:14:27.318869 19007 net.cpp:425] conv4 <- conv3
I0924 02:14:27.318876 19007 net.cpp:399] conv4 -> conv4
I0924 02:14:27.322888 19007 net.cpp:141] Setting up conv4
I0924 02:14:27.322914 19007 net.cpp:148] Top shape: 10 384 13 13 (648960)
I0924 02:14:27.322919 19007 net.cpp:156] Memory required for data: 61192760
I0924 02:14:27.322929 19007 layer_factory.hpp:77] Creating layer relu4
I0924 02:14:27.322939 19007 net.cpp:91] Creating Layer relu4
I0924 02:14:27.322944 19007 net.cpp:425] relu4 <- conv4
I0924 02:14:27.322953 19007 net.cpp:386] relu4 -> conv4 (in-place)
I0924 02:14:27.323490 19007 net.cpp:141] Setting up relu4
I0924 02:14:27.323508 19007 net.cpp:148] Top shape: 10 384 13 13 (648960)
I0924 02:14:27.323518 19007 net.cpp:156] Memory required for data: 63788600
I0924 02:14:27.323526 19007 layer_factory.hpp:77] Creating layer conv5
I0924 02:14:27.323547 19007 net.cpp:91] Creating Layer conv5
I0924 02:14:27.323557 19007 net.cpp:425] conv5 <- conv4
I0924 02:14:27.323571 19007 net.cpp:399] conv5 -> conv5
I0924 02:14:27.327265 19029 net.cpp:141] Setting up lstm1_transform_1
I0924 02:14:27.327311 19029 net.cpp:148] Top shape: 1 1 4000 (4000)
I0924 02:14:27.327318 19029 net.cpp:156] Memory required for data: 62016
I0924 02:14:27.327340 19029 layer_factory.hpp:77] Creating layer lstm1_gate_input_1
I0924 02:14:27.327365 19029 net.cpp:91] Creating Layer lstm1_gate_input_1
I0924 02:14:27.327373 19029 net.cpp:425] lstm1_gate_input_1 <- W_hc_h_0
I0924 02:14:27.327381 19029 net.cpp:425] lstm1_gate_input_1 <- W_xc_x_1
I0924 02:14:27.327390 19029 net.cpp:399] lstm1_gate_input_1 -> gate_input_1
I0924 02:14:27.327886 19029 net.cpp:141] Setting up lstm1_gate_input_1
I0924 02:14:27.327898 19029 net.cpp:148] Top shape: 1 1 4000 (4000)
I0924 02:14:27.327903 19029 net.cpp:156] Memory required for data: 78016
I0924 02:14:27.327909 19029 layer_factory.hpp:77] Creating layer lstm1_unit_1
I0924 02:14:27.327919 19029 net.cpp:91] Creating Layer lstm1_unit_1
I0924 02:14:27.327924 19029 net.cpp:425] lstm1_unit_1 <- c_0
I0924 02:14:27.327931 19029 net.cpp:425] lstm1_unit_1 <- gate_input_1
I0924 02:14:27.327937 19029 net.cpp:425] lstm1_unit_1 <- cont_1_lstm1_cont_slice_0_split_1
I0924 02:14:27.327949 19029 net.cpp:399] lstm1_unit_1 -> c_1
I0924 02:14:27.327958 19029 net.cpp:399] lstm1_unit_1 -> h_1
I0924 02:14:27.328084 19029 net.cpp:141] Setting up lstm1_unit_1
I0924 02:14:27.328096 19029 net.cpp:148] Top shape: 1 1 1000 (1000)
I0924 02:14:27.328104 19029 net.cpp:148] Top shape: 1 1 1000 (1000)
I0924 02:14:27.328109 19029 net.cpp:156] Memory required for data: 86016
I0924 02:14:27.328114 19029 layer_factory.hpp:77] Creating layer lstm1_
I0924 02:14:27.328124 19029 net.cpp:91] Creating Layer lstm1_
I0924 02:14:27.328128 19029 net.cpp:425] lstm1_ <- c_1
I0924 02:14:27.328136 19029 net.cpp:399] lstm1_ -> c_T
I0924 02:14:27.328702 19029 net.cpp:141] Setting up lstm1_
I0924 02:14:27.328714 19029 net.cpp:148] Top shape: 1 1 1000 (1000)
I0924 02:14:27.328719 19029 net.cpp:156] Memory required for data: 90016
I0924 02:14:27.328724 19029 layer_factory.hpp:77] Creating layer lstm1_h_concat
I0924 02:14:27.328735 19029 net.cpp:91] Creating Layer lstm1_h_concat
I0924 02:14:27.328740 19029 net.cpp:425] lstm1_h_concat <- h_1
I0924 02:14:27.328748 19029 net.cpp:399] lstm1_h_concat -> h
I0924 02:14:27.328907 19029 net.cpp:141] Setting up lstm1_h_concat
I0924 02:14:27.328918 19029 net.cpp:148] Top shape: 1 1 1000 (1000)
I0924 02:14:27.328923 19029 net.cpp:156] Memory required for data: 94016
I0924 02:14:27.328928 19029 layer_factory.hpp:77] Creating layer h_pseudoloss
I0924 02:14:27.328944 19029 net.cpp:91] Creating Layer h_pseudoloss
I0924 02:14:27.328950 19029 net.cpp:425] h_pseudoloss <- h
I0924 02:14:27.328958 19029 net.cpp:399] h_pseudoloss -> h_pseudoloss
I0924 02:14:27.329313 19029 net.cpp:141] Setting up h_pseudoloss
…
I0924 02:14:27.329442 19029 net.cpp:219] lstm1_ does not need backward computation.
I0924 02:14:27.329447 19029 net.cpp:261] This network produces output c_T
I0924 02:14:27.329452 19029 net.cpp:261] This network produces output h_pseudoloss
I0924 02:14:27.329474 19029 net.cpp:274] Network initialization done.
I0924 02:14:27.329540 19029 recurrent_layer.cpp:150] Adding parameter 0: W_xc
I0924 02:14:27.329547 19029 recurrent_layer.cpp:150] Adding parameter 1: b_c
I0924 02:14:27.329552 19029 recurrent_layer.cpp:150] Adding parameter 2: W_hc
I0924 02:14:27.329690 19007 net.cpp:141] Setting up conv5
I0924 02:14:27.329726 19007 net.cpp:148] Top shape: 10 256 13 13 (432640)
I0924 02:14:27.329736 19007 net.cpp:156] Memory required for data: 65519160
I0924 02:14:27.329763 19007 layer_factory.hpp:77] Creating layer relu5
I0924 02:14:27.329782 19007 net.cpp:91] Creating Layer relu5
I0924 02:14:27.329792 19007 net.cpp:425] relu5 <- conv5
I0924 02:14:27.329803 19007 net.cpp:386] relu5 -> conv5 (in-place)
I0924 02:14:27.329807 19029 net.cpp:141] Setting up lstm1
I0924 02:14:27.329820 19029 net.cpp:148] Top shape: 1 1 1000 (1000)
I0924 02:14:27.329826 19029 net.cpp:156] Memory required for data: 26408
I0924 02:14:27.329841 19029 layer_factory.hpp:77] Creating layer concat
I0924 02:14:27.329850 19029 net.cpp:91] Creating Layer concat
I0924 02:14:27.329857 19029 net.cpp:425] concat <- lstm1
I0924 02:14:27.329865 19029 net.cpp:425] concat <- embedded_input_sentence
I0924 02:14:27.329871 19029 net.cpp:425] concat <- reshaped_stage_indicator
I0924 02:14:27.329879 19029 net.cpp:399] concat -> lstm1_video_sequence
I0924 02:14:27.329931 19029 net.cpp:141] Setting up concat
I0924 02:14:27.329941 19029 net.cpp:148] Top shape: 1 1 1501 (1501)
I0924 02:14:27.329946 19029 net.cpp:156] Memory required for data: 32412
I0924 02:14:27.329952 19029 layer_factory.hpp:77] Creating layer lstm2
I0924 02:14:27.329965 19029 net.cpp:91] Creating Layer lstm2
I0924 02:14:27.329972 19029 net.cpp:425] lstm2 <- lstm1_video_sequence
I0924 02:14:27.329978 19029 net.cpp:425] lstm2 <- cont_sentence_input_1_split_1
I0924 02:14:27.329987 19029 net.cpp:399] lstm2 -> lstm2
I0924 02:14:27.329998 19029 recurrent_layer.cpp:20] Initializing recurrent layer: assuming input batch contains 1 timesteps of 1 independent streams.
I0924 02:14:27.330286 19029 net.cpp:49] Initializing net from parameters: 
layer {
  name: "lstm2_"
  type: "Input"
  top: "x"
  top: "cont"
  input_param {
    shape {
      dim: 1
      dim: 1
      dim: 1501
    }
    shape {
      dim: 1
      dim: 1
    }
  }
}
layer {
  name: "lstm2_"
  type: "Input"
  top: "c_0"
  top: "h_0"
  input_param {
    shape {
      dim: 1
      dim: 1
      dim: 1000
    }
    shape {
      dim: 1
      dim: 1
      dim: 1000
    }
  }
}
layer {
  name: "lstm2_cont_slice"
  type: "Slice"
  bottom: "cont"
  top: "cont_1"
  slice_param {
    axis: 0
  }
}
layer {
  name: "lstm2_x_transform"
  type: "InnerProduct"
  bottom: "x"
  top: "W_xc_x"
  param {
    name: "W_xc"
  }
  param {
    name: "b_c"
  }
  propagate_down: true
  inner_product_param {
    num_output: 4000
    bias_term: true
    weight_filler {
      type: "uniform"
      min: -0.08
      max: 0.08
    }
    bias_filler {
      type: "constant"
      value: 0
    }
    axis: 2
  }
}
layer {
  name: "lstm2_W_xc_x_slice"
  type: "Slice"
  bottom: "W_xc_x"
  top: "W_xc_x_1"
  slice_param {
    axis: 0
  }
}
layer {
  name: "lstm2_h_conted_0"
  type: "Scale"
  bottom: "h_0"
  bottom: "cont_1"
  top: "h_conted_0"
  scale_param {
    axis: 0
  }
}
layer {
  name: "lstm2_transform_1"
  type: "InnerProduct"
  bottom: "h_conted_0"
  top: "W_hc_h_0"
  param {
    name: "W_hc"
  }
  inner_product_param {
    num_output: 4000
    bias_term: false
    weight_filler {
      type: "uniform"
      min: -0.08
      max: 0.08
    }
    axis: 2
  }
}
layer {
  name: "lstm2_gate_input_1"
  type: "Eltwise"
  bottom: "W_hc_h_0"
  bottom: "W_xc_x_1"
  top: "gate_input_1"
  eltwise_param {
    operation: SUM
  }
}
layer {
  name: "lstm2_unit_1"
  type: "LSTMUnit"
  bottom: "c_0"
  bottom: "gate_input_1"
  bottom: "cont_1"
  top: "c_1"
  top: "h_1"
}
layer {
  name: "lstm2_"
  type: "Split"
  bottom: "c_1"
  top: "c_T"
}
layer {
  name: "lstm2_h_concat"
  type: "Concat"
  bottom: "h_1"
  top: "h"
  concat_param {
    axis: 0
  }
}
layer {
  name: "h_pseudoloss"
  type: "Reduction"
  bottom: "h"
  top: "h_pseudoloss"
  loss_weight: 1
}
I0924 02:14:27.330385 19029 layer_factory.hpp:77] Creating layer lstm2_
I0924 02:14:27.330399 19029 net.cpp:91] Creating Layer lstm2_
I0924 02:14:27.330405 19029 net.cpp:399] lstm2_ -> x
I0924 02:14:27.330417 19029 net.cpp:399] lstm2_ -> cont
I0924 02:14:27.330513 19029 net.cpp:141] Setting up lstm2_
I0924 02:14:27.330525 19029 net.cpp:148] Top shape: 1 1 1501 (1501)
I0924 02:14:27.330531 19029 net.cpp:148] Top shape: 1 1 (1)
I0924 02:14:27.330538 19029 net.cpp:156] Memory required for data: 6008
I0924 02:14:27.330538 19007 net.cpp:141] Setting up relu5
I0924 02:14:27.330543 19029 layer_factory.hpp:77] Creating layer lstm2_
I0924 02:14:27.330562 19007 net.cpp:148] Top shape: 10 256 13 13 (432640)
I0924 02:14:27.330570 19029 net.cpp:91] Creating Layer lstm2_
I0924 02:14:27.330574 19007 net.cpp:156] Memory required for data: 67249720
I0924 02:14:27.330584 19029 net.cpp:399] lstm2_ -> c_0
I0924 02:14:27.330585 19007 layer_factory.hpp:77] Creating layer pool5
I0924 02:14:27.330605 19029 net.cpp:399] lstm2_ -> h_0
I0924 02:14:27.330611 19007 net.cpp:91] Creating Layer pool5
I0924 02:14:27.330623 19007 net.cpp:425] pool5 <- conv5
I0924 02:14:27.330641 19007 net.cpp:399] pool5 -> pool5
I0924 02:14:27.330672 19029 net.cpp:141] Setting up lstm2_
I0924 02:14:27.330683 19029 net.cpp:148] Top shape: 1 1 1000 (1000)
I0924 02:14:27.330690 19029 net.cpp:148] Top shape: 1 1 1000 (1000)
I0924 02:14:27.330694 19029 net.cpp:156] Memory required for data: 14008
I0924 02:14:27.330699 19029 layer_factory.hpp:77] Creating layer lstm2_cont_slice
I0924 02:14:27.330714 19029 net.cpp:91] Creating Layer lstm2_cont_slice
I0924 02:14:27.330720 19029 net.cpp:425] lstm2_cont_slice <- cont
I0924 02:14:27.330729 19029 net.cpp:399] lstm2_cont_slice -> cont_1
I0924 02:14:27.330773 19007 net.cpp:141] Setting up pool5
I0924 02:14:27.330790 19007 net.cpp:148] Top shape: 10 256 6 6 (92160)
I0924 02:14:27.330797 19007 net.cpp:156] Memory required for data: 67618360
I0924 02:14:27.330807 19007 layer_factory.hpp:77] Creating layer fc6
I0924 02:14:27.330821 19029 net.cpp:141] Setting up lstm2_cont_slice
I0924 02:14:27.330832 19007 net.cpp:91] Creating Layer fc6
I0924 02:14:27.330834 19029 net.cpp:148] Top shape: 1 1 (1)
I0924 02:14:27.330847 19007 net.cpp:425] fc6 <- pool5
I0924 02:14:27.330852 19029 net.cpp:156] Memory required for data: 14012
I0924 02:14:27.330857 19029 layer_factory.hpp:77] Creating layer cont_1_lstm2_cont_slice_0_split
I0924 02:14:27.330862 19007 net.cpp:399] fc6 -> fc6
I0924 02:14:27.330865 19029 net.cpp:91] Creating Layer cont_1_lstm2_cont_slice_0_split
I0924 02:14:27.330871 19029 net.cpp:425] cont_1_lstm2_cont_slice_0_split <- cont_1
I0924 02:14:27.330883 19029 net.cpp:399] cont_1_lstm2_cont_slice_0_split -> cont_1_lstm2_cont_slice_0_split_0
I0924 02:14:27.330893 19029 net.cpp:399] cont_1_lstm2_cont_slice_0_split -> cont_1_lstm2_cont_slice_0_split_1
I0924 02:14:27.331004 19029 net.cpp:141] Setting up cont_1_lstm2_cont_slice_0_split
I0924 02:14:27.331015 19029 net.cpp:148] Top shape: 1 1 (1)
I0924 02:14:27.331022 19029 net.cpp:148] Top shape: 1 1 (1)
I0924 02:14:27.331027 19029 net.cpp:156] Memory required for data: 14020
I0924 02:14:27.331032 19029 layer_factory.hpp:77] Creating layer lstm2_x_transform
I0924 02:14:27.331068 19029 net.cpp:91] Creating Layer lstm2_x_transform
I0924 02:14:27.331075 19029 net.cpp:425] lstm2_x_transform <- x
I0924 02:14:27.331085 19029 net.cpp:399] lstm2_x_transform -> W_xc_x
I0924 02:14:27.401280 19009 net.cpp:141] Setting up embedding
I0924 02:14:27.401340 19009 net.cpp:148] Top shape: 1 1 500 (500)
I0924 02:14:27.401350 19009 net.cpp:156] Memory required for data: 22408
I0924 02:14:27.401377 19009 layer_factory.hpp:77] Creating layer lstm1
I0924 02:14:27.401370 19013 net.cpp:141] Setting up lstm1_transform_1
I0924 02:14:27.401408 19009 net.cpp:91] Creating Layer lstm1
I0924 02:14:27.401413 19013 net.cpp:148] Top shape: 1 1 4000 (4000)
I0924 02:14:27.401422 19009 net.cpp:425] lstm1 <- embedded_input_frames
I0924 02:14:27.401422 19013 net.cpp:156] Memory required for data: 62016
I0924 02:14:27.401454 19009 net.cpp:425] lstm1 <- cont_sentence_input_1_split_0
I0924 02:14:27.401470 19009 net.cpp:399] lstm1 -> lstm1
I0924 02:14:27.401478 19013 layer_factory.hpp:77] Creating layer lstm1_gate_input_1
I0924 02:14:27.401497 19009 recurrent_layer.cpp:20] Initializing recurrent layer: assuming input batch contains 1 timesteps of 1 independent streams.
I0924 02:14:27.401502 19013 net.cpp:91] Creating Layer lstm1_gate_input_1
I0924 02:14:27.401513 19013 net.cpp:425] lstm1_gate_input_1 <- W_hc_h_0
I0924 02:14:27.401525 19013 net.cpp:425] lstm1_gate_input_1 <- W_xc_x_1
I0924 02:14:27.401536 19013 net.cpp:399] lstm1_gate_input_1 -> gate_input_1
I0924 02:14:27.401968 19009 net.cpp:49] Initializing net from parameters: 
layer {
  name: "lstm1_"
  type: "Input"
  top: "x"
  top: "cont"
  input_param {
    shape {
      dim: 1
      dim: 1
      dim: 500
    }
    shape {
      dim: 1
      dim: 1
    }
  }
}
layer {
  name: "lstm1_"
  type: "Input"
  top: "c_0"
  top: "h_0"
  input_param {
    shape {
      dim: 1
      dim: 1
      dim: 1000
    }
    shape {
      dim: 1
      dim: 1
      dim: 1000
    }
  }
}
layer {
  name: "lstm1_cont_slice"
  type: "Slice"
  bottom: "cont"
  top: "cont_1"
  slice_param {
    axis: 0
  }
}
layer {
  name: "lstm1_x_transform"
  type: "InnerProduct"
  bottom: "x"
  top: "W_xc_x"
  param {
    name: "W_xc"
  }
  param {
    name: "b_c"
  }
  propagate_down: true
  inner_product_param {
    num_output: 4000
    bias_term: true
    weight_filler {
      type: "uniform"
      min: -0.08
      max: 0.08
    }
    bias_filler {
      type: "constant"
      value: 0
    }
    axis: 2
  }
}
layer {
  name: "lstm1_W_xc_x_slice"
  type: "Slice"
  bottom: "W_xc_x"
  top: "W_xc_x_1"
  slice_param {
    axis: 0
  }
}
layer {
  name: "lstm1_h_conted_0"
  type: "Scale"
  bottom: "h_0"
  bottom: "cont_1"
  top: "h_conted_0"
  scale_param {
    axis: 0
  }
}
layer {
  name: "lstm1_transform_1"
  type: "InnerProduct"
  bottom: "h_conted_0"
  top: "W_hc_h_0"
  param {
    name: "W_hc"
  }
  inner_product_param {
    num_output: 4000
    bias_term: false
    weight_filler {
      type: "uniform"
      min: -0.08
      max: 0.08
    }
    axis: 2
  }
}
layer {
  name: "lstm1_gate_input_1"
  type: "Eltwise"
  bottom: "W_hc_h_0"
  bottom: "W_xc_x_1"
  top: "gate_input_1"
  eltwise_param {
    operation: SUM
  }
}
layer {
  name: "lstm1_unit_1"
  type: "LSTMUnit"
  bottom: "c_0"
  bottom: "gate_input_1"
  bottom: "cont_1"
  top: "c_1"
  top: "h_1"
}
layer {
  name: "lstm1_"
  type: "Split"
  bottom: "c_1"
  top: "c_T"
}
layer {
  name: "lstm1_h_concat"
  type: "Concat"
  bottom: "h_1"
  top: "h"
  concat_param {
    axis: 0
  }
}
layer {
  name: "h_pseudoloss"
  type: "Reduction"
  bottom: "h"
  top: "h_pseudoloss"
  loss_weight: 1
}
I0924 02:14:27.402109 19009 layer_factory.hpp:77] Creating layer lstm1_
I0924 02:14:27.402128 19009 net.cpp:91] Creating Layer lstm1_
I0924 02:14:27.402138 19009 net.cpp:399] lstm1_ -> x
I0924 02:14:27.402156 19009 net.cpp:399] lstm1_ -> cont
I0924 02:14:27.414068 19013 net.cpp:141] Setting up lstm1_gate_input_1
I0924 02:14:27.414131 19013 net.cpp:148] Top shape: 1 1 4000 (4000)
I0924 02:14:27.414142 19013 net.cpp:156] Memory required for data: 78016
I0924 02:14:27.414155 19013 layer_factory.hpp:77] Creating layer lstm1_unit_1
I0924 02:14:27.414178 19013 net.cpp:91] Creating Layer lstm1_unit_1
I0924 02:14:27.414189 19013 net.cpp:425] lstm1_unit_1 <- c_0
I0924 02:14:27.414202 19013 net.cpp:425] lstm1_unit_1 <- gate_input_1
I0924 02:14:27.414214 19013 net.cpp:425] lstm1_unit_1 <- cont_1_lstm1_cont_slice_0_split_1
I0924 02:14:27.414213 19009 net.cpp:141] Setting up lstm1_
I0924 02:14:27.414278 19013 net.cpp:399] lstm1_unit_1 -> c_1
I0924 02:14:27.414301 19013 net.cpp:399] lstm1_unit_1 -> h_1
I0924 02:14:27.414309 19009 net.cpp:148] Top shape: 1 1 500 (500)
I0924 02:14:27.414319 19009 net.cpp:148] Top shape: 1 1 (1)
I0924 02:14:27.414324 19009 net.cpp:156] Memory required for data: 2004
I0924 02:14:27.414335 19009 layer_factory.hpp:77] Creating layer lstm1_
I0924 02:14:27.414360 19009 net.cpp:91] Creating Layer lstm1_
I0924 02:14:27.414368 19009 net.cpp:399] lstm1_ -> c_0
I0924 02:14:27.414389 19009 net.cpp:399] lstm1_ -> h_0
I0924 02:14:27.414472 19013 net.cpp:141] Setting up lstm1_unit_1
I0924 02:14:27.414489 19013 net.cpp:148] Top shape: 1 1 1000 (1000)
I0924 02:14:27.414499 19013 net.cpp:148] Top shape: 1 1 1000 (1000)
I0924 02:14:27.414505 19013 net.cpp:156] Memory required for data: 86016
I0924 02:14:27.414513 19013 layer_factory.hpp:77] Creating layer lstm1_
I0924 02:14:27.414527 19013 net.cpp:91] Creating Layer lstm1_
I0924 02:14:27.414527 19009 net.cpp:141] Setting up lstm1_
I0924 02:14:27.414548 19013 net.cpp:425] lstm1_ <- c_1
I0924 02:14:27.414572 19009 net.cpp:148] Top shape: 1 1 1000 (1000)
I0924 02:14:27.414610 19013 net.cpp:399] lstm1_ -> c_T
I0924 02:14:27.414610 19009 net.cpp:148] Top shape: 1 1 1000 (1000)
I0924 02:14:27.414644 19009 net.cpp:156] Memory required for data: 10004
I0924 02:14:27.414649 19009 layer_factory.hpp:77] Creating layer lstm1_cont_slice
I0924 02:14:27.414662 19009 net.cpp:91] Creating Layer lstm1_cont_slice
I0924 02:14:27.414669 19009 net.cpp:425] lstm1_cont_slice <- cont
I0924 02:14:27.414680 19009 net.cpp:399] lstm1_cont_slice -> cont_1
I0924 02:14:27.414700 19013 net.cpp:141] Setting up lstm1_
I0924 02:14:27.414716 19013 net.cpp:148] Top shape: 1 1 1000 (1000)
I0924 02:14:27.414724 19013 net.cpp:156] Memory required for data: 90016
I0924 02:14:27.414732 19013 layer_factory.hpp:77] Creating layer lstm1_h_concat
I0924 02:14:27.414746 19009 net.cpp:141] Setting up lstm1_cont_slice
I0924 02:14:27.414777 19009 net.cpp:148] Top shape: 1 1 (1)
I0924 02:14:27.414782 19009 net.cpp:156] Memory required for data: 10008
I0924 02:14:27.414788 19009 layer_factory.hpp:77] Creating layer cont_1_lstm1_cont_slice_0_split
I0924 02:14:27.414795 19009 net.cpp:91] Creating Layer cont_1_lstm1_cont_slice_0_split
I0924 02:14:27.414801 19009 net.cpp:425] cont_1_lstm1_cont_slice_0_split <- cont_1
I0924 02:14:27.414808 19009 net.cpp:399] cont_1_lstm1_cont_slice_0_split -> cont_1_lstm1_cont_slice_0_split_0
I0924 02:14:27.414821 19009 net.cpp:399] cont_1_lstm1_cont_slice_0_split -> cont_1_lstm1_cont_slice_0_split_1
I0924 02:14:27.414885 19009 net.cpp:141] Setting up cont_1_lstm1_cont_slice_0_split
I0924 02:14:27.414894 19009 net.cpp:148] Top shape: 1 1 (1)
I0924 02:14:27.414901 19009 net.cpp:148] Top shape: 1 1 (1)
I0924 02:14:27.414906 19009 net.cpp:156] Memory required for data: 10016
I0924 02:14:27.414911 19009 layer_factory.hpp:77] Creating layer lstm1_x_transform
I0924 02:14:27.414934 19009 net.cpp:91] Creating Layer lstm1_x_transform
I0924 02:14:27.414940 19009 net.cpp:425] lstm1_x_transform <- x
I0924 02:14:27.414949 19009 net.cpp:399] lstm1_x_transform -> W_xc_x
I0924 02:14:27.414747 19013 net.cpp:91] Creating Layer lstm1_h_concat
I0924 02:14:27.422737 19013 net.cpp:425] lstm1_h_concat <- h_1
I0924 02:14:27.422782 19013 net.cpp:399] lstm1_h_concat -> h
I0924 02:14:27.422946 19013 net.cpp:141] Setting up lstm1_h_concat
I0924 02:14:27.422968 19013 net.cpp:148] Top shape: 1 1 1000 (1000)
I0924 02:14:27.422977 19013 net.cpp:156] Memory required for data: 94016
I0924 02:14:27.422987 19013 layer_factory.hpp:77] Creating layer h_pseudoloss
I0924 02:14:27.423003 19013 net.cpp:91] Creating Layer h_pseudoloss
I0924 02:14:27.423012 19013 net.cpp:425] h_pseudoloss <- h
I0924 02:14:27.423027 19013 net.cpp:399] h_pseudoloss -> h_pseudoloss
I0924 02:14:27.423192 19013 net.cpp:141] Setting up h_pseudoloss
…
I0924 02:14:27.423365 19013 net.cpp:219] lstm1_ does not need backward computation.
I0924 02:14:27.423372 19013 net.cpp:261] This network produces output c_T
I0924 02:14:27.423382 19013 net.cpp:261] This network produces output h_pseudoloss
I0924 02:14:27.423408 19013 net.cpp:274] Network initialization done.
I0924 02:14:27.423480 19013 recurrent_layer.cpp:150] Adding parameter 0: W_xc
I0924 02:14:27.423491 19013 recurrent_layer.cpp:150] Adding parameter 1: b_c
I0924 02:14:27.423499 19013 recurrent_layer.cpp:150] Adding parameter 2: W_hc
I0924 02:14:27.423666 19013 net.cpp:141] Setting up lstm1
I0924 02:14:27.423682 19013 net.cpp:148] Top shape: 1 1 1000 (1000)
I0924 02:14:27.423691 19013 net.cpp:156] Memory required for data: 26408
I0924 02:14:27.423713 19013 layer_factory.hpp:77] Creating layer concat
I0924 02:14:27.423730 19013 net.cpp:91] Creating Layer concat
I0924 02:14:27.423740 19013 net.cpp:425] concat <- lstm1
I0924 02:14:27.423753 19013 net.cpp:425] concat <- embedded_input_sentence
I0924 02:14:27.423761 19013 net.cpp:425] concat <- reshaped_stage_indicator
I0924 02:14:27.423774 19013 net.cpp:399] concat -> lstm1_video_sequence
I0924 02:14:27.423830 19013 net.cpp:141] Setting up concat
I0924 02:14:27.423846 19013 net.cpp:148] Top shape: 1 1 1501 (1501)
I0924 02:14:27.423852 19013 net.cpp:156] Memory required for data: 32412
I0924 02:14:27.423861 19013 layer_factory.hpp:77] Creating layer lstm2
I0924 02:14:27.423880 19013 net.cpp:91] Creating Layer lstm2
I0924 02:14:27.423889 19013 net.cpp:425] lstm2 <- lstm1_video_sequence
I0924 02:14:27.423899 19013 net.cpp:425] lstm2 <- cont_sentence_input_1_split_1
I0924 02:14:27.423913 19013 net.cpp:399] lstm2 -> lstm2
I0924 02:14:27.423928 19013 recurrent_layer.cpp:20] Initializing recurrent layer: assuming input batch contains 1 timesteps of 1 independent streams.
I0924 02:14:27.424358 19013 net.cpp:49] Initializing net from parameters: 
layer {
  name: "lstm2_"
  type: "Input"
  top: "x"
  top: "cont"
  input_param {
    shape {
      dim: 1
      dim: 1
      dim: 1501
    }
    shape {
      dim: 1
      dim: 1
    }
  }
}
layer {
  name: "lstm2_"
  type: "Input"
  top: "c_0"
  top: "h_0"
  input_param {
    shape {
      dim: 1
      dim: 1
      dim: 1000
    }
    shape {
      dim: 1
      dim: 1
      dim: 1000
    }
  }
}
layer {
  name: "lstm2_cont_slice"
  type: "Slice"
  bottom: "cont"
  top: "cont_1"
  slice_param {
    axis: 0
  }
}
layer {
  name: "lstm2_x_transform"
  type: "InnerProduct"
  bottom: "x"
  top: "W_xc_x"
  param {
    name: "W_xc"
  }
  param {
    name: "b_c"
  }
  propagate_down: true
  inner_product_param {
    num_output: 4000
    bias_term: true
    weight_filler {
      type: "uniform"
      min: -0.08
      max: 0.08
    }
    bias_filler {
      type: "constant"
      value: 0
    }
    axis: 2
  }
}
layer {
  name: "lstm2_W_xc_x_slice"
  type: "Slice"
  bottom: "W_xc_x"
  top: "W_xc_x_1"
  slice_param {
    axis: 0
  }
}
layer {
  name: "lstm2_h_conted_0"
  type: "Scale"
  bottom: "h_0"
  bottom: "cont_1"
  top: "h_conted_0"
  scale_param {
    axis: 0
  }
}
layer {
  name: "lstm2_transform_1"
  type: "InnerProduct"
  bottom: "h_conted_0"
  top: "W_hc_h_0"
  param {
    name: "W_hc"
  }
  inner_product_param {
    num_output: 4000
    bias_term: false
    weight_filler {
      type: "uniform"
      min: -0.08
      max: 0.08
    }
    axis: 2
  }
}
layer {
  name: "lstm2_gate_input_1"
  type: "Eltwise"
  bottom: "W_hc_h_0"
  bottom: "W_xc_x_1"
  top: "gate_input_1"
  eltwise_param {
    operation: SUM
  }
}
layer {
  name: "lstm2_unit_1"
  type: "LSTMUnit"
  bottom: "c_0"
  bottom: "gate_input_1"
  bottom: "cont_1"
  top: "c_1"
  top: "h_1"
}
layer {
  name: "lstm2_"
  type: "Split"
  bottom: "c_1"
  top: "c_T"
}
layer {
  name: "lstm2_h_concat"
  type: "Concat"
  bottom: "h_1"
  top: "h"
  concat_param {
    axis: 0
  }
}
layer {
  name: "h_pseudoloss"
  type: "Reduction"
  bottom: "h"
  top: "h_pseudoloss"
  loss_weight: 1
}
I0924 02:14:27.424486 19013 layer_factory.hpp:77] Creating layer lstm2_
I0924 02:14:27.424505 19013 net.cpp:91] Creating Layer lstm2_
I0924 02:14:27.424516 19013 net.cpp:399] lstm2_ -> x
I0924 02:14:27.424535 19013 net.cpp:399] lstm2_ -> cont
I0924 02:14:27.424625 19013 net.cpp:141] Setting up lstm2_
I0924 02:14:27.424641 19013 net.cpp:148] Top shape: 1 1 1501 (1501)
I0924 02:14:27.424652 19013 net.cpp:148] Top shape: 1 1 (1)
I0924 02:14:27.424659 19013 net.cpp:156] Memory required for data: 6008
I0924 02:14:27.424667 19013 layer_factory.hpp:77] Creating layer lstm2_
I0924 02:14:27.424685 19013 net.cpp:91] Creating Layer lstm2_
I0924 02:14:27.424700 19013 net.cpp:399] lstm2_ -> c_0
I0924 02:14:27.424715 19013 net.cpp:399] lstm2_ -> h_0
I0924 02:14:27.424813 19013 net.cpp:141] Setting up lstm2_
I0924 02:14:27.424829 19013 net.cpp:148] Top shape: 1 1 1000 (1000)
I0924 02:14:27.424839 19013 net.cpp:148] Top shape: 1 1 1000 (1000)
I0924 02:14:27.424845 19013 net.cpp:156] Memory required for data: 14008
I0924 02:14:27.424854 19013 layer_factory.hpp:77] Creating layer lstm2_cont_slice
I0924 02:14:27.424867 19013 net.cpp:91] Creating Layer lstm2_cont_slice
I0924 02:14:27.424876 19013 net.cpp:425] lstm2_cont_slice <- cont
I0924 02:14:27.424891 19013 net.cpp:399] lstm2_cont_slice -> cont_1
I0924 02:14:27.424947 19013 net.cpp:141] Setting up lstm2_cont_slice
I0924 02:14:27.424963 19013 net.cpp:148] Top shape: 1 1 (1)
I0924 02:14:27.424970 19013 net.cpp:156] Memory required for data: 14012
I0924 02:14:27.424978 19013 layer_factory.hpp:77] Creating layer cont_1_lstm2_cont_slice_0_split
I0924 02:14:27.424999 19013 net.cpp:91] Creating Layer cont_1_lstm2_cont_slice_0_split
I0924 02:14:27.425009 19013 net.cpp:425] cont_1_lstm2_cont_slice_0_split <- cont_1
I0924 02:14:27.425021 19013 net.cpp:399] cont_1_lstm2_cont_slice_0_split -> cont_1_lstm2_cont_slice_0_split_0
I0924 02:14:27.425038 19013 net.cpp:399] cont_1_lstm2_cont_slice_0_split -> cont_1_lstm2_cont_slice_0_split_1
I0924 02:14:27.425120 19013 net.cpp:141] Setting up cont_1_lstm2_cont_slice_0_split
I0924 02:14:27.425137 19013 net.cpp:148] Top shape: 1 1 (1)
I0924 02:14:27.425148 19013 net.cpp:148] Top shape: 1 1 (1)
I0924 02:14:27.425155 19013 net.cpp:156] Memory required for data: 14020
I0924 02:14:27.425164 19013 layer_factory.hpp:77] Creating layer lstm2_x_transform
I0924 02:14:27.425184 19013 net.cpp:91] Creating Layer lstm2_x_transform
I0924 02:14:27.425191 19013 net.cpp:425] lstm2_x_transform <- x
I0924 02:14:27.425204 19013 net.cpp:399] lstm2_x_transform -> W_xc_x
I0924 02:14:27.440505 19009 net.cpp:141] Setting up lstm1_x_transform
I0924 02:14:27.440556 19009 net.cpp:148] Top shape: 1 1 4000 (4000)
I0924 02:14:27.440562 19009 net.cpp:156] Memory required for data: 26016
I0924 02:14:27.440588 19009 layer_factory.hpp:77] Creating layer lstm1_W_xc_x_slice
I0924 02:14:27.440611 19009 net.cpp:91] Creating Layer lstm1_W_xc_x_slice
I0924 02:14:27.440619 19009 net.cpp:425] lstm1_W_xc_x_slice <- W_xc_x
I0924 02:14:27.440629 19009 net.cpp:399] lstm1_W_xc_x_slice -> W_xc_x_1
I0924 02:14:27.440682 19009 net.cpp:141] Setting up lstm1_W_xc_x_slice
I0924 02:14:27.440692 19009 net.cpp:148] Top shape: 1 1 4000 (4000)
I0924 02:14:27.440697 19009 net.cpp:156] Memory required for data: 42016
I0924 02:14:27.440702 19009 layer_factory.hpp:77] Creating layer lstm1_h_conted_0
I0924 02:14:27.440717 19009 net.cpp:91] Creating Layer lstm1_h_conted_0
I0924 02:14:27.440723 19009 net.cpp:425] lstm1_h_conted_0 <- h_0
I0924 02:14:27.440731 19009 net.cpp:425] lstm1_h_conted_0 <- cont_1_lstm1_cont_slice_0_split_0
I0924 02:14:27.440738 19009 net.cpp:399] lstm1_h_conted_0 -> h_conted_0
I0924 02:14:27.440847 19009 net.cpp:141] Setting up lstm1_h_conted_0
I0924 02:14:27.440857 19009 net.cpp:148] Top shape: 1 1 1000 (1000)
I0924 02:14:27.440862 19009 net.cpp:156] Memory required for data: 46016
I0924 02:14:27.440868 19009 layer_factory.hpp:77] Creating layer lstm1_transform_1
I0924 02:14:27.440887 19009 net.cpp:91] Creating Layer lstm1_transform_1
I0924 02:14:27.440893 19009 net.cpp:425] lstm1_transform_1 <- h_conted_0
I0924 02:14:27.440902 19009 net.cpp:399] lstm1_transform_1 -> W_hc_h_0
I0924 02:14:27.449251 19007 net.cpp:141] Setting up fc6
I0924 02:14:27.449301 19007 net.cpp:148] Top shape: 10 4096 (40960)
I0924 02:14:27.449307 19007 net.cpp:156] Memory required for data: 67782200
I0924 02:14:27.449326 19007 layer_factory.hpp:77] Creating layer relu6
I0924 02:14:27.449345 19007 net.cpp:91] Creating Layer relu6
I0924 02:14:27.449353 19007 net.cpp:425] relu6 <- fc6
I0924 02:14:27.449369 19007 net.cpp:386] relu6 -> fc6 (in-place)
I0924 02:14:27.449761 19007 net.cpp:141] Setting up relu6
I0924 02:14:27.449777 19007 net.cpp:148] Top shape: 10 4096 (40960)
I0924 02:14:27.449784 19007 net.cpp:156] Memory required for data: 67946040
I0924 02:14:27.449790 19007 layer_factory.hpp:77] Creating layer drop6
I0924 02:14:27.449801 19007 net.cpp:91] Creating Layer drop6
I0924 02:14:27.449806 19007 net.cpp:425] drop6 <- fc6
I0924 02:14:27.449813 19007 net.cpp:386] drop6 -> fc6 (in-place)
I0924 02:14:27.449874 19007 net.cpp:141] Setting up drop6
I0924 02:14:27.449885 19007 net.cpp:148] Top shape: 10 4096 (40960)
I0924 02:14:27.449890 19007 net.cpp:156] Memory required for data: 68109880
I0924 02:14:27.449895 19007 layer_factory.hpp:77] Creating layer fc7
I0924 02:14:27.449908 19007 net.cpp:91] Creating Layer fc7
I0924 02:14:27.449913 19007 net.cpp:425] fc7 <- fc6
I0924 02:14:27.449923 19007 net.cpp:399] fc7 -> fc7
I0924 02:14:27.483378 19029 net.cpp:141] Setting up lstm2_x_transform
I0924 02:14:27.483436 19029 net.cpp:148] Top shape: 1 1 4000 (4000)
I0924 02:14:27.483443 19029 net.cpp:156] Memory required for data: 30020
I0924 02:14:27.483469 19029 layer_factory.hpp:77] Creating layer lstm2_W_xc_x_slice
I0924 02:14:27.483490 19029 net.cpp:91] Creating Layer lstm2_W_xc_x_slice
I0924 02:14:27.483497 19029 net.cpp:425] lstm2_W_xc_x_slice <- W_xc_x
I0924 02:14:27.483512 19029 net.cpp:399] lstm2_W_xc_x_slice -> W_xc_x_1
I0924 02:14:27.483566 19029 net.cpp:141] Setting up lstm2_W_xc_x_slice
I0924 02:14:27.483577 19029 net.cpp:148] Top shape: 1 1 4000 (4000)
I0924 02:14:27.483582 19029 net.cpp:156] Memory required for data: 46020
I0924 02:14:27.483587 19029 layer_factory.hpp:77] Creating layer lstm2_h_conted_0
I0924 02:14:27.483599 19029 net.cpp:91] Creating Layer lstm2_h_conted_0
I0924 02:14:27.483605 19029 net.cpp:425] lstm2_h_conted_0 <- h_0
I0924 02:14:27.483613 19029 net.cpp:425] lstm2_h_conted_0 <- cont_1_lstm2_cont_slice_0_split_0
I0924 02:14:27.483623 19029 net.cpp:399] lstm2_h_conted_0 -> h_conted_0
I0924 02:14:27.483754 19029 net.cpp:141] Setting up lstm2_h_conted_0
I0924 02:14:27.483765 19029 net.cpp:148] Top shape: 1 1 1000 (1000)
I0924 02:14:27.483770 19029 net.cpp:156] Memory required for data: 50020
I0924 02:14:27.483775 19029 layer_factory.hpp:77] Creating layer lstm2_transform_1
I0924 02:14:27.483793 19029 net.cpp:91] Creating Layer lstm2_transform_1
I0924 02:14:27.483799 19029 net.cpp:425] lstm2_transform_1 <- h_conted_0
I0924 02:14:27.483808 19029 net.cpp:399] lstm2_transform_1 -> W_hc_h_0
I0924 02:14:27.483810 19009 net.cpp:141] Setting up lstm1_transform_1
I0924 02:14:27.483831 19009 net.cpp:148] Top shape: 1 1 4000 (4000)
I0924 02:14:27.483837 19009 net.cpp:156] Memory required for data: 62016
I0924 02:14:27.483850 19009 layer_factory.hpp:77] Creating layer lstm1_gate_input_1
I0924 02:14:27.483867 19009 net.cpp:91] Creating Layer lstm1_gate_input_1
I0924 02:14:27.483875 19009 net.cpp:425] lstm1_gate_input_1 <- W_hc_h_0
I0924 02:14:27.483881 19009 net.cpp:425] lstm1_gate_input_1 <- W_xc_x_1
I0924 02:14:27.483893 19009 net.cpp:399] lstm1_gate_input_1 -> gate_input_1
I0924 02:14:27.492498 19009 net.cpp:141] Setting up lstm1_gate_input_1
I0924 02:14:27.492563 19009 net.cpp:148] Top shape: 1 1 4000 (4000)
I0924 02:14:27.492569 19009 net.cpp:156] Memory required for data: 78016
I0924 02:14:27.492579 19009 layer_factory.hpp:77] Creating layer lstm1_unit_1
I0924 02:14:27.492612 19009 net.cpp:91] Creating Layer lstm1_unit_1
I0924 02:14:27.492620 19009 net.cpp:425] lstm1_unit_1 <- c_0
I0924 02:14:27.492632 19009 net.cpp:425] lstm1_unit_1 <- gate_input_1
I0924 02:14:27.492640 19009 net.cpp:425] lstm1_unit_1 <- cont_1_lstm1_cont_slice_0_split_1
I0924 02:14:27.492650 19009 net.cpp:399] lstm1_unit_1 -> c_1
I0924 02:14:27.492666 19009 net.cpp:399] lstm1_unit_1 -> h_1
I0924 02:14:27.492770 19009 net.cpp:141] Setting up lstm1_unit_1
I0924 02:14:27.492781 19009 net.cpp:148] Top shape: 1 1 1000 (1000)
I0924 02:14:27.492787 19009 net.cpp:148] Top shape: 1 1 1000 (1000)
I0924 02:14:27.492792 19009 net.cpp:156] Memory required for data: 86016
I0924 02:14:27.492797 19009 layer_factory.hpp:77] Creating layer lstm1_
I0924 02:14:27.492807 19009 net.cpp:91] Creating Layer lstm1_
I0924 02:14:27.492812 19009 net.cpp:425] lstm1_ <- c_1
I0924 02:14:27.492826 19009 net.cpp:399] lstm1_ -> c_T
I0924 02:14:27.492864 19009 net.cpp:141] Setting up lstm1_
I0924 02:14:27.492874 19009 net.cpp:148] Top shape: 1 1 1000 (1000)
I0924 02:14:27.492879 19009 net.cpp:156] Memory required for data: 90016
I0924 02:14:27.492883 19009 layer_factory.hpp:77] Creating layer lstm1_h_concat
I0924 02:14:27.492895 19009 net.cpp:91] Creating Layer lstm1_h_concat
I0924 02:14:27.492902 19009 net.cpp:425] lstm1_h_concat <- h_1
I0924 02:14:27.492908 19009 net.cpp:399] lstm1_h_concat -> h
I0924 02:14:27.492952 19009 net.cpp:141] Setting up lstm1_h_concat
I0924 02:14:27.492962 19009 net.cpp:148] Top shape: 1 1 1000 (1000)
I0924 02:14:27.492967 19009 net.cpp:156] Memory required for data: 94016
I0924 02:14:27.492972 19009 layer_factory.hpp:77] Creating layer h_pseudoloss
I0924 02:14:27.492983 19009 net.cpp:91] Creating Layer h_pseudoloss
I0924 02:14:27.492988 19009 net.cpp:425] h_pseudoloss <- h
I0924 02:14:27.492996 19009 net.cpp:399] h_pseudoloss -> h_pseudoloss
I0924 02:14:27.493108 19009 net.cpp:141] Setting up h_pseudoloss
…
I0924 02:14:27.493227 19009 net.cpp:219] lstm1_ does not need backward computation.
I0924 02:14:27.493230 19009 net.cpp:261] This network produces output c_T
I0924 02:14:27.493235 19009 net.cpp:261] This network produces output h_pseudoloss
I0924 02:14:27.493253 19009 net.cpp:274] Network initialization done.
I0924 02:14:27.493314 19009 recurrent_layer.cpp:150] Adding parameter 0: W_xc
I0924 02:14:27.493320 19009 recurrent_layer.cpp:150] Adding parameter 1: b_c
I0924 02:14:27.493326 19009 recurrent_layer.cpp:150] Adding parameter 2: W_hc
I0924 02:14:27.493450 19009 net.cpp:141] Setting up lstm1
I0924 02:14:27.493463 19009 net.cpp:148] Top shape: 1 1 1000 (1000)
I0924 02:14:27.493468 19009 net.cpp:156] Memory required for data: 26408
I0924 02:14:27.493485 19009 layer_factory.hpp:77] Creating layer concat
I0924 02:14:27.493495 19009 net.cpp:91] Creating Layer concat
I0924 02:14:27.493502 19009 net.cpp:425] concat <- lstm1
I0924 02:14:27.493510 19009 net.cpp:425] concat <- embedded_input_sentence
I0924 02:14:27.493515 19009 net.cpp:425] concat <- reshaped_stage_indicator
I0924 02:14:27.493523 19009 net.cpp:399] concat -> lstm1_video_sequence
I0924 02:14:27.493563 19009 net.cpp:141] Setting up concat
I0924 02:14:27.493572 19009 net.cpp:148] Top shape: 1 1 1501 (1501)
I0924 02:14:27.493577 19009 net.cpp:156] Memory required for data: 32412
I0924 02:14:27.493584 19009 layer_factory.hpp:77] Creating layer lstm2
I0924 02:14:27.493599 19009 net.cpp:91] Creating Layer lstm2
I0924 02:14:27.493605 19009 net.cpp:425] lstm2 <- lstm1_video_sequence
I0924 02:14:27.493613 19009 net.cpp:425] lstm2 <- cont_sentence_input_1_split_1
I0924 02:14:27.493620 19009 net.cpp:399] lstm2 -> lstm2
I0924 02:14:27.493633 19009 recurrent_layer.cpp:20] Initializing recurrent layer: assuming input batch contains 1 timesteps of 1 independent streams.
I0924 02:14:27.493932 19009 net.cpp:49] Initializing net from parameters: 
layer {
  name: "lstm2_"
  type: "Input"
  top: "x"
  top: "cont"
  input_param {
    shape {
      dim: 1
      dim: 1
      dim: 1501
    }
    shape {
      dim: 1
      dim: 1
    }
  }
}
layer {
  name: "lstm2_"
  type: "Input"
  top: "c_0"
  top: "h_0"
  input_param {
    shape {
      dim: 1
      dim: 1
      dim: 1000
    }
    shape {
      dim: 1
      dim: 1
      dim: 1000
    }
  }
}
layer {
  name: "lstm2_cont_slice"
  type: "Slice"
  bottom: "cont"
  top: "cont_1"
  slice_param {
    axis: 0
  }
}
layer {
  name: "lstm2_x_transform"
  type: "InnerProduct"
  bottom: "x"
  top: "W_xc_x"
  param {
    name: "W_xc"
  }
  param {
    name: "b_c"
  }
  propagate_down: true
  inner_product_param {
    num_output: 4000
    bias_term: true
    weight_filler {
      type: "uniform"
      min: -0.08
      max: 0.08
    }
    bias_filler {
      type: "constant"
      value: 0
    }
    axis: 2
  }
}
layer {
  name: "lstm2_W_xc_x_slice"
  type: "Slice"
  bottom: "W_xc_x"
  top: "W_xc_x_1"
  slice_param {
    axis: 0
  }
}
layer {
  name: "lstm2_h_conted_0"
  type: "Scale"
  bottom: "h_0"
  bottom: "cont_1"
  top: "h_conted_0"
  scale_param {
    axis: 0
  }
}
layer {
  name: "lstm2_transform_1"
  type: "InnerProduct"
  bottom: "h_conted_0"
  top: "W_hc_h_0"
  param {
    name: "W_hc"
  }
  inner_product_param {
    num_output: 4000
    bias_term: false
    weight_filler {
      type: "uniform"
      min: -0.08
      max: 0.08
    }
    axis: 2
  }
}
layer {
  name: "lstm2_gate_input_1"
  type: "Eltwise"
  bottom: "W_hc_h_0"
  bottom: "W_xc_x_1"
  top: "gate_input_1"
  eltwise_param {
    operation: SUM
  }
}
layer {
  name: "lstm2_unit_1"
  type: "LSTMUnit"
  bottom: "c_0"
  bottom: "gate_input_1"
  bottom: "cont_1"
  top: "c_1"
  top: "h_1"
}
layer {
  name: "lstm2_"
  type: "Split"
  bottom: "c_1"
  top: "c_T"
}
layer {
  name: "lstm2_h_concat"
  type: "Concat"
  bottom: "h_1"
  top: "h"
  concat_param {
    axis: 0
  }
}
layer {
  name: "h_pseudoloss"
  type: "Reduction"
  bottom: "h"
  top: "h_pseudoloss"
  loss_weight: 1
}
I0924 02:14:27.494036 19009 layer_factory.hpp:77] Creating layer lstm2_
I0924 02:14:27.494050 19009 net.cpp:91] Creating Layer lstm2_
I0924 02:14:27.494057 19009 net.cpp:399] lstm2_ -> x
I0924 02:14:27.494069 19009 net.cpp:399] lstm2_ -> cont
I0924 02:14:27.494138 19009 net.cpp:141] Setting up lstm2_
I0924 02:14:27.494149 19009 net.cpp:148] Top shape: 1 1 1501 (1501)
I0924 02:14:27.494156 19009 net.cpp:148] Top shape: 1 1 (1)
I0924 02:14:27.494160 19009 net.cpp:156] Memory required for data: 6008
I0924 02:14:27.494165 19009 layer_factory.hpp:77] Creating layer lstm2_
I0924 02:14:27.494179 19009 net.cpp:91] Creating Layer lstm2_
I0924 02:14:27.494186 19009 net.cpp:399] lstm2_ -> c_0
I0924 02:14:27.494197 19009 net.cpp:399] lstm2_ -> h_0
I0924 02:14:27.494264 19009 net.cpp:141] Setting up lstm2_
I0924 02:14:27.494274 19009 net.cpp:148] Top shape: 1 1 1000 (1000)
I0924 02:14:27.494282 19009 net.cpp:148] Top shape: 1 1 1000 (1000)
I0924 02:14:27.494285 19009 net.cpp:156] Memory required for data: 14008
I0924 02:14:27.494290 19009 layer_factory.hpp:77] Creating layer lstm2_cont_slice
I0924 02:14:27.494300 19009 net.cpp:91] Creating Layer lstm2_cont_slice
I0924 02:14:27.494305 19009 net.cpp:425] lstm2_cont_slice <- cont
I0924 02:14:27.494313 19009 net.cpp:399] lstm2_cont_slice -> cont_1
I0924 02:14:27.494357 19009 net.cpp:141] Setting up lstm2_cont_slice
I0924 02:14:27.494367 19009 net.cpp:148] Top shape: 1 1 (1)
I0924 02:14:27.494372 19009 net.cpp:156] Memory required for data: 14012
I0924 02:14:27.494377 19009 layer_factory.hpp:77] Creating layer cont_1_lstm2_cont_slice_0_split
I0924 02:14:27.494385 19009 net.cpp:91] Creating Layer cont_1_lstm2_cont_slice_0_split
I0924 02:14:27.494390 19009 net.cpp:425] cont_1_lstm2_cont_slice_0_split <- cont_1
I0924 02:14:27.494400 19009 net.cpp:399] cont_1_lstm2_cont_slice_0_split -> cont_1_lstm2_cont_slice_0_split_0
I0924 02:14:27.494410 19009 net.cpp:399] cont_1_lstm2_cont_slice_0_split -> cont_1_lstm2_cont_slice_0_split_1
I0924 02:14:27.494464 19009 net.cpp:141] Setting up cont_1_lstm2_cont_slice_0_split
I0924 02:14:27.494477 19009 net.cpp:148] Top shape: 1 1 (1)
I0924 02:14:27.494483 19009 net.cpp:148] Top shape: 1 1 (1)
I0924 02:14:27.494488 19009 net.cpp:156] Memory required for data: 14020
I0924 02:14:27.494493 19009 layer_factory.hpp:77] Creating layer lstm2_x_transform
I0924 02:14:27.494505 19009 net.cpp:91] Creating Layer lstm2_x_transform
I0924 02:14:27.494510 19009 net.cpp:425] lstm2_x_transform <- x
I0924 02:14:27.494521 19009 net.cpp:399] lstm2_x_transform -> W_xc_x
I0924 02:14:27.507442 19007 net.cpp:141] Setting up fc7
I0924 02:14:27.507503 19007 net.cpp:148] Top shape: 10 4096 (40960)
I0924 02:14:27.507517 19007 net.cpp:156] Memory required for data: 68273720
I0924 02:14:27.507545 19007 layer_factory.hpp:77] Creating layer relu7
I0924 02:14:27.507607 19007 net.cpp:91] Creating Layer relu7
I0924 02:14:27.507632 19007 net.cpp:425] relu7 <- fc7
I0924 02:14:27.507652 19007 net.cpp:386] relu7 -> fc7 (in-place)
I0924 02:14:27.507814 19013 net.cpp:141] Setting up lstm2_x_transform
I0924 02:14:27.507836 19013 net.cpp:148] Top shape: 1 1 4000 (4000)
I0924 02:14:27.507846 19013 net.cpp:156] Memory required for data: 30020
I0924 02:14:27.507874 19013 layer_factory.hpp:77] Creating layer lstm2_W_xc_x_slice
I0924 02:14:27.507895 19013 net.cpp:91] Creating Layer lstm2_W_xc_x_slice
I0924 02:14:27.507910 19013 net.cpp:425] lstm2_W_xc_x_slice <- W_xc_x
I0924 02:14:27.507925 19013 net.cpp:399] lstm2_W_xc_x_slice -> W_xc_x_1
I0924 02:14:27.508553 19013 net.cpp:141] Setting up lstm2_W_xc_x_slice
I0924 02:14:27.508579 19013 net.cpp:148] Top shape: 1 1 4000 (4000)
I0924 02:14:27.508589 19013 net.cpp:156] Memory required for data: 46020
I0924 02:14:27.508599 19013 layer_factory.hpp:77] Creating layer lstm2_h_conted_0
I0924 02:14:27.508627 19013 net.cpp:91] Creating Layer lstm2_h_conted_0
I0924 02:14:27.508641 19013 net.cpp:425] lstm2_h_conted_0 <- h_0
I0924 02:14:27.508653 19013 net.cpp:425] lstm2_h_conted_0 <- cont_1_lstm2_cont_slice_0_split_0
I0924 02:14:27.508669 19013 net.cpp:399] lstm2_h_conted_0 -> h_conted_0
I0924 02:14:27.508746 19007 net.cpp:141] Setting up relu7
I0924 02:14:27.508767 19007 net.cpp:148] Top shape: 10 4096 (40960)
I0924 02:14:27.508776 19007 net.cpp:156] Memory required for data: 68437560
I0924 02:14:27.508786 19007 layer_factory.hpp:77] Creating layer drop7
I0924 02:14:27.508810 19007 net.cpp:91] Creating Layer drop7
I0924 02:14:27.508819 19007 net.cpp:425] drop7 <- fc7
I0924 02:14:27.508831 19007 net.cpp:386] drop7 -> fc7 (in-place)
I0924 02:14:27.508908 19007 net.cpp:141] Setting up drop7
I0924 02:14:27.508924 19007 net.cpp:148] Top shape: 10 4096 (40960)
I0924 02:14:27.508931 19007 net.cpp:156] Memory required for data: 68601400
I0924 02:14:27.508939 19007 layer_factory.hpp:77] Creating layer fc8
I0924 02:14:27.508955 19007 net.cpp:91] Creating Layer fc8
I0924 02:14:27.508963 19007 net.cpp:425] fc8 <- fc7
I0924 02:14:27.508975 19013 net.cpp:141] Setting up lstm2_h_conted_0
I0924 02:14:27.508981 19007 net.cpp:399] fc8 -> fc8
I0924 02:14:27.509006 19013 net.cpp:148] Top shape: 1 1 1000 (1000)
I0924 02:14:27.509016 19013 net.cpp:156] Memory required for data: 50020
I0924 02:14:27.509027 19013 layer_factory.hpp:77] Creating layer lstm2_transform_1
I0924 02:14:27.509047 19013 net.cpp:91] Creating Layer lstm2_transform_1
I0924 02:14:27.509058 19013 net.cpp:425] lstm2_transform_1 <- h_conted_0
I0924 02:14:27.509074 19013 net.cpp:399] lstm2_transform_1 -> W_hc_h_0
I0924 02:14:27.528812 19029 net.cpp:141] Setting up lstm2_transform_1
I0924 02:14:27.528868 19029 net.cpp:148] Top shape: 1 1 4000 (4000)
I0924 02:14:27.528874 19029 net.cpp:156] Memory required for data: 66020
I0924 02:14:27.528898 19029 layer_factory.hpp:77] Creating layer lstm2_gate_input_1
I0924 02:14:27.528924 19029 net.cpp:91] Creating Layer lstm2_gate_input_1
I0924 02:14:27.528924 19007 net.cpp:141] Setting up fc8
I0924 02:14:27.528933 19029 net.cpp:425] lstm2_gate_input_1 <- W_hc_h_0
I0924 02:14:27.528959 19029 net.cpp:425] lstm2_gate_input_1 <- W_xc_x_1
I0924 02:14:27.528959 19007 net.cpp:148] Top shape: 10 1000 (10000)
I0924 02:14:27.528977 19029 net.cpp:399] lstm2_gate_input_1 -> gate_input_1
I0924 02:14:27.528980 19007 net.cpp:156] Memory required for data: 68641400
I0924 02:14:27.529000 19007 layer_factory.hpp:77] Creating layer prob
I0924 02:14:27.529017 19007 net.cpp:91] Creating Layer prob
I0924 02:14:27.529027 19007 net.cpp:425] prob <- fc8
I0924 02:14:27.529041 19007 net.cpp:399] prob -> prob
I0924 02:14:27.529042 19029 net.cpp:141] Setting up lstm2_gate_input_1
I0924 02:14:27.529054 19029 net.cpp:148] Top shape: 1 1 4000 (4000)
I0924 02:14:27.529058 19029 net.cpp:156] Memory required for data: 82020
I0924 02:14:27.529064 19029 layer_factory.hpp:77] Creating layer lstm2_unit_1
I0924 02:14:27.529074 19029 net.cpp:91] Creating Layer lstm2_unit_1
I0924 02:14:27.529079 19029 net.cpp:425] lstm2_unit_1 <- c_0
I0924 02:14:27.529086 19029 net.cpp:425] lstm2_unit_1 <- gate_input_1
I0924 02:14:27.529093 19029 net.cpp:425] lstm2_unit_1 <- cont_1_lstm2_cont_slice_0_split_1
I0924 02:14:27.529103 19029 net.cpp:399] lstm2_unit_1 -> c_1
I0924 02:14:27.529114 19029 net.cpp:399] lstm2_unit_1 -> h_1
I0924 02:14:27.529563 19029 net.cpp:141] Setting up lstm2_unit_1
I0924 02:14:27.529577 19029 net.cpp:148] Top shape: 1 1 1000 (1000)
I0924 02:14:27.529583 19029 net.cpp:148] Top shape: 1 1 1000 (1000)
I0924 02:14:27.529588 19029 net.cpp:156] Memory required for data: 90020
I0924 02:14:27.529593 19029 layer_factory.hpp:77] Creating layer lstm2_
I0924 02:14:27.529603 19029 net.cpp:91] Creating Layer lstm2_
I0924 02:14:27.529608 19029 net.cpp:425] lstm2_ <- c_1
I0924 02:14:27.529616 19029 net.cpp:399] lstm2_ -> c_T
I0924 02:14:27.529686 19029 net.cpp:141] Setting up lstm2_
I0924 02:14:27.529697 19029 net.cpp:148] Top shape: 1 1 1000 (1000)
I0924 02:14:27.529703 19029 net.cpp:156] Memory required for data: 94020
I0924 02:14:27.529708 19029 layer_factory.hpp:77] Creating layer lstm2_h_concat
I0924 02:14:27.529719 19029 net.cpp:91] Creating Layer lstm2_h_concat
I0924 02:14:27.529726 19029 net.cpp:425] lstm2_h_concat <- h_1
I0924 02:14:27.529733 19029 net.cpp:399] lstm2_h_concat -> h
I0924 02:14:27.529829 19029 net.cpp:141] Setting up lstm2_h_concat
I0924 02:14:27.529840 19029 net.cpp:148] Top shape: 1 1 1000 (1000)
I0924 02:14:27.529845 19029 net.cpp:156] Memory required for data: 98020
I0924 02:14:27.529850 19029 layer_factory.hpp:77] Creating layer h_pseudoloss
I0924 02:14:27.529865 19029 net.cpp:91] Creating Layer h_pseudoloss
I0924 02:14:27.529870 19029 net.cpp:425] h_pseudoloss <- h
I0924 02:14:27.529878 19029 net.cpp:399] h_pseudoloss -> h_pseudoloss
I0924 02:14:27.530017 19007 net.cpp:141] Setting up prob
I0924 02:14:27.530036 19007 net.cpp:148] Top shape: 10 1000 (10000)
I0924 02:14:27.530042 19029 net.cpp:141] Setting up h_pseudoloss
I0924 02:14:27.530045 19007 net.cpp:156] Memory required for data: 68681400
I0924 02:14:27.530061 19029 net.cpp:148] Top shape: (1)
I0924 02:14:27.530064 19007 net.cpp:219] prob does not need backward computation.
I0924 02:14:27.530074 19007 net.cpp:219] fc8 does not need backward computation.
I0924 02:14:27.530066 19029 net.cpp:151]     with loss weight 1
…
I0924 02:14:27.530294 19007 net.cpp:219] pool1 does not need backward computation.
I0924 02:14:27.530308 19029 recurrent_layer.cpp:150] Adding parameter 2: W_hc
I0924 02:14:27.530324 19007 net.cpp:219] relu1 does not need backward computation.
I0924 02:14:27.530334 19007 net.cpp:219] conv1 does not need backward computation.
I0924 02:14:27.530344 19007 net.cpp:219] data does not need backward computation.
I0924 02:14:27.530351 19007 net.cpp:261] This network produces output prob
I0924 02:14:27.530381 19007 net.cpp:274] Network initialization done.
I0924 02:14:27.530447 19029 net.cpp:141] Setting up lstm2
I0924 02:14:27.530459 19029 net.cpp:148] Top shape: 1 1 1000 (1000)
I0924 02:14:27.530464 19029 net.cpp:156] Memory required for data: 36412
I0924 02:14:27.530480 19029 layer_factory.hpp:77] Creating layer predict
I0924 02:14:27.530495 19029 net.cpp:91] Creating Layer predict
I0924 02:14:27.530503 19029 net.cpp:425] predict <- lstm2
I0924 02:14:27.530510 19029 net.cpp:399] predict -> predict
I0924 02:14:27.617403 19013 net.cpp:141] Setting up lstm2_transform_1
I0924 02:14:27.617471 19013 net.cpp:148] Top shape: 1 1 4000 (4000)
I0924 02:14:27.617483 19013 net.cpp:156] Memory required for data: 66020
I0924 02:14:27.617514 19013 layer_factory.hpp:77] Creating layer lstm2_gate_input_1
I0924 02:14:27.617533 19009 net.cpp:141] Setting up lstm2_x_transform
I0924 02:14:27.617552 19009 net.cpp:148] Top shape: 1 1 4000 (4000)
I0924 02:14:27.617552 19013 net.cpp:91] Creating Layer lstm2_gate_input_1
I0924 02:14:27.617570 19009 net.cpp:156] Memory required for data: 30020
I0924 02:14:27.617581 19013 net.cpp:425] lstm2_gate_input_1 <- W_hc_h_0
I0924 02:14:27.617595 19013 net.cpp:425] lstm2_gate_input_1 <- W_xc_x_1
I0924 02:14:27.617599 19009 layer_factory.hpp:77] Creating layer lstm2_W_xc_x_slice
I0924 02:14:27.617611 19013 net.cpp:399] lstm2_gate_input_1 -> gate_input_1
I0924 02:14:27.617619 19009 net.cpp:91] Creating Layer lstm2_W_xc_x_slice
I0924 02:14:27.617627 19009 net.cpp:425] lstm2_W_xc_x_slice <- W_xc_x
I0924 02:14:27.617640 19009 net.cpp:399] lstm2_W_xc_x_slice -> W_xc_x_1
I0924 02:14:27.617688 19013 net.cpp:141] Setting up lstm2_gate_input_1
I0924 02:14:27.617707 19013 net.cpp:148] Top shape: 1 1 4000 (4000)
I0924 02:14:27.617715 19013 net.cpp:156] Memory required for data: 82020
I0924 02:14:27.617725 19013 layer_factory.hpp:77] Creating layer lstm2_unit_1
I0924 02:14:27.617736 19009 net.cpp:141] Setting up lstm2_W_xc_x_slice
I0924 02:14:27.617753 19009 net.cpp:148] Top shape: 1 1 4000 (4000)
I0924 02:14:27.617753 19013 net.cpp:91] Creating Layer lstm2_unit_1
I0924 02:14:27.617769 19009 net.cpp:156] Memory required for data: 46020
I0924 02:14:27.617774 19013 net.cpp:425] lstm2_unit_1 <- c_0
I0924 02:14:27.617777 19009 layer_factory.hpp:77] Creating layer lstm2_h_conted_0
I0924 02:14:27.617787 19013 net.cpp:425] lstm2_unit_1 <- gate_input_1
I0924 02:14:27.617794 19009 net.cpp:91] Creating Layer lstm2_h_conted_0
I0924 02:14:27.617797 19013 net.cpp:425] lstm2_unit_1 <- cont_1_lstm2_cont_slice_0_split_1
I0924 02:14:27.617804 19009 net.cpp:425] lstm2_h_conted_0 <- h_0
I0924 02:14:27.617810 19013 net.cpp:399] lstm2_unit_1 -> c_1
I0924 02:14:27.617815 19009 net.cpp:425] lstm2_h_conted_0 <- cont_1_lstm2_cont_slice_0_split_0
I0924 02:14:27.617826 19013 net.cpp:399] lstm2_unit_1 -> h_1
I0924 02:14:27.617826 19009 net.cpp:399] lstm2_h_conted_0 -> h_conted_0
I0924 02:14:27.618034 19013 net.cpp:141] Setting up lstm2_unit_1
I0924 02:14:27.618053 19013 net.cpp:148] Top shape: 1 1 1000 (1000)
I0924 02:14:27.618067 19013 net.cpp:148] Top shape: 1 1 1000 (1000)
I0924 02:14:27.618074 19013 net.cpp:156] Memory required for data: 90020
I0924 02:14:27.618083 19013 layer_factory.hpp:77] Creating layer lstm2_
I0924 02:14:27.618100 19013 net.cpp:91] Creating Layer lstm2_
I0924 02:14:27.618111 19013 net.cpp:425] lstm2_ <- c_1
I0924 02:14:27.618115 19009 net.cpp:141] Setting up lstm2_h_conted_0
I0924 02:14:27.618129 19013 net.cpp:399] lstm2_ -> c_T
I0924 02:14:27.618132 19009 net.cpp:148] Top shape: 1 1 1000 (1000)
I0924 02:14:27.618140 19009 net.cpp:156] Memory required for data: 50020
I0924 02:14:27.618149 19009 layer_factory.hpp:77] Creating layer lstm2_transform_1
I0924 02:14:27.618170 19009 net.cpp:91] Creating Layer lstm2_transform_1
I0924 02:14:27.618180 19009 net.cpp:425] lstm2_transform_1 <- h_conted_0
I0924 02:14:27.618187 19013 net.cpp:141] Setting up lstm2_
I0924 02:14:27.618196 19009 net.cpp:399] lstm2_transform_1 -> W_hc_h_0
I0924 02:14:27.618202 19013 net.cpp:148] Top shape: 1 1 1000 (1000)
I0924 02:14:27.618211 19013 net.cpp:156] Memory required for data: 94020
I0924 02:14:27.618221 19013 layer_factory.hpp:77] Creating layer lstm2_h_concat
I0924 02:14:27.618237 19013 net.cpp:91] Creating Layer lstm2_h_concat
I0924 02:14:27.618247 19013 net.cpp:425] lstm2_h_concat <- h_1
I0924 02:14:27.618290 19013 net.cpp:399] lstm2_h_concat -> h
I0924 02:14:27.626983 19013 net.cpp:141] Setting up lstm2_h_concat
I0924 02:14:27.627085 19013 net.cpp:148] Top shape: 1 1 1000 (1000)
I0924 02:14:27.627106 19013 net.cpp:156] Memory required for data: 98020
I0924 02:14:27.627128 19013 layer_factory.hpp:77] Creating layer h_pseudoloss
I0924 02:14:27.627166 19013 net.cpp:91] Creating Layer h_pseudoloss
I0924 02:14:27.627187 19013 net.cpp:425] h_pseudoloss <- h
I0924 02:14:27.627218 19013 net.cpp:399] h_pseudoloss -> h_pseudoloss
I0924 02:14:27.627537 19013 net.cpp:141] Setting up h_pseudoloss
…
I0924 02:14:27.627846 19013 net.cpp:219] lstm2_ does not need backward computation.
I0924 02:14:27.627858 19013 net.cpp:261] This network produces output c_T
I0924 02:14:27.627874 19013 net.cpp:261] This network produces output h_pseudoloss
I0924 02:14:27.627918 19013 net.cpp:274] Network initialization done.
I0924 02:14:27.628054 19013 recurrent_layer.cpp:150] Adding parameter 0: W_xc
I0924 02:14:27.628077 19013 recurrent_layer.cpp:150] Adding parameter 1: b_c
I0924 02:14:27.628093 19013 recurrent_layer.cpp:150] Adding parameter 2: W_hc
I0924 02:14:27.628448 19013 net.cpp:141] Setting up lstm2
I0924 02:14:27.628481 19013 net.cpp:148] Top shape: 1 1 1000 (1000)
I0924 02:14:27.628497 19013 net.cpp:156] Memory required for data: 36412
I0924 02:14:27.628543 19013 layer_factory.hpp:77] Creating layer predict
I0924 02:14:27.628585 19013 net.cpp:91] Creating Layer predict
I0924 02:14:27.628607 19013 net.cpp:425] predict <- lstm2
I0924 02:14:27.628634 19013 net.cpp:399] predict -> predict
I0924 02:14:27.727373 19009 net.cpp:141] Setting up lstm2_transform_1
I0924 02:14:27.727565 19009 net.cpp:148] Top shape: 1 1 4000 (4000)
I0924 02:14:27.727573 19009 net.cpp:156] Memory required for data: 66020
I0924 02:14:27.727602 19009 layer_factory.hpp:77] Creating layer lstm2_gate_input_1
I0924 02:14:27.727627 19009 net.cpp:91] Creating Layer lstm2_gate_input_1
I0924 02:14:27.727633 19009 net.cpp:425] lstm2_gate_input_1 <- W_hc_h_0
I0924 02:14:27.727643 19009 net.cpp:425] lstm2_gate_input_1 <- W_xc_x_1
I0924 02:14:27.727656 19009 net.cpp:399] lstm2_gate_input_1 -> gate_input_1
I0924 02:14:27.727732 19009 net.cpp:141] Setting up lstm2_gate_input_1
I0924 02:14:27.727746 19009 net.cpp:148] Top shape: 1 1 4000 (4000)
I0924 02:14:27.727751 19009 net.cpp:156] Memory required for data: 82020
I0924 02:14:27.727757 19009 layer_factory.hpp:77] Creating layer lstm2_unit_1
I0924 02:14:27.727767 19009 net.cpp:91] Creating Layer lstm2_unit_1
I0924 02:14:27.727772 19009 net.cpp:425] lstm2_unit_1 <- c_0
I0924 02:14:27.727778 19009 net.cpp:425] lstm2_unit_1 <- gate_input_1
I0924 02:14:27.727784 19009 net.cpp:425] lstm2_unit_1 <- cont_1_lstm2_cont_slice_0_split_1
I0924 02:14:27.727792 19009 net.cpp:399] lstm2_unit_1 -> c_1
I0924 02:14:27.727802 19009 net.cpp:399] lstm2_unit_1 -> h_1
I0924 02:14:27.727880 19009 net.cpp:141] Setting up lstm2_unit_1
I0924 02:14:27.727890 19009 net.cpp:148] Top shape: 1 1 1000 (1000)
I0924 02:14:27.727897 19009 net.cpp:148] Top shape: 1 1 1000 (1000)
I0924 02:14:27.727902 19009 net.cpp:156] Memory required for data: 90020
I0924 02:14:27.727907 19009 layer_factory.hpp:77] Creating layer lstm2_
I0924 02:14:27.727917 19009 net.cpp:91] Creating Layer lstm2_
I0924 02:14:27.727922 19009 net.cpp:425] lstm2_ <- c_1
I0924 02:14:27.727931 19009 net.cpp:399] lstm2_ -> c_T
I0924 02:14:27.727967 19009 net.cpp:141] Setting up lstm2_
I0924 02:14:27.727977 19009 net.cpp:148] Top shape: 1 1 1000 (1000)
I0924 02:14:27.727982 19009 net.cpp:156] Memory required for data: 94020
I0924 02:14:27.727987 19009 layer_factory.hpp:77] Creating layer lstm2_h_concat
I0924 02:14:27.728000 19009 net.cpp:91] Creating Layer lstm2_h_concat
I0924 02:14:27.728006 19009 net.cpp:425] lstm2_h_concat <- h_1
I0924 02:14:27.728016 19009 net.cpp:399] lstm2_h_concat -> h
I0924 02:14:27.728057 19009 net.cpp:141] Setting up lstm2_h_concat
I0924 02:14:27.728066 19009 net.cpp:148] Top shape: 1 1 1000 (1000)
I0924 02:14:27.728071 19009 net.cpp:156] Memory required for data: 98020
I0924 02:14:27.728075 19009 layer_factory.hpp:77] Creating layer h_pseudoloss
I0924 02:14:27.728088 19009 net.cpp:91] Creating Layer h_pseudoloss
I0924 02:14:27.728094 19009 net.cpp:425] h_pseudoloss <- h
I0924 02:14:27.728101 19009 net.cpp:399] h_pseudoloss -> h_pseudoloss
I0924 02:14:27.728211 19009 net.cpp:141] Setting up h_pseudoloss
…
I0924 02:14:27.728317 19009 net.cpp:219] lstm2_ does not need backward computation.
I0924 02:14:27.728322 19009 net.cpp:261] This network produces output c_T
I0924 02:14:27.728327 19009 net.cpp:261] This network produces output h_pseudoloss
I0924 02:14:27.728346 19009 net.cpp:274] Network initialization done.
I0924 02:14:27.728404 19009 recurrent_layer.cpp:150] Adding parameter 0: W_xc
I0924 02:14:27.728410 19009 recurrent_layer.cpp:150] Adding parameter 1: b_c
I0924 02:14:27.728415 19009 recurrent_layer.cpp:150] Adding parameter 2: W_hc
I0924 02:14:27.728543 19009 net.cpp:141] Setting up lstm2
I0924 02:14:27.728555 19009 net.cpp:148] Top shape: 1 1 1000 (1000)
I0924 02:14:27.728560 19009 net.cpp:156] Memory required for data: 36412
I0924 02:14:27.728576 19009 layer_factory.hpp:77] Creating layer predict
I0924 02:14:27.728592 19009 net.cpp:91] Creating Layer predict
I0924 02:14:27.728600 19009 net.cpp:425] predict <- lstm2
I0924 02:14:27.728608 19009 net.cpp:399] predict -> predict
I0924 02:14:27.943703 19007 upgrade_proto.cpp:43] Attempting to upgrade input file specified using deprecated transformation parameters: /home/peifeng/work/run/storm102/data/workers/0ab20028-068a-464f-8c0f-f61e4463a131/tmp/cvld4384933450763853674/bvlc_reference_caffenet.caffemodel
I0924 02:14:27.943749 19007 upgrade_proto.cpp:46] Successfully upgraded file specified using deprecated data transformation parameters.
W0924 02:14:27.943758 19007 upgrade_proto.cpp:48] Note that future Caffe releases will only support transform_param messages for transformation fields.
I0924 02:14:27.943765 19007 upgrade_proto.cpp:52] Attempting to upgrade input file specified using deprecated V1LayerParameter: /home/peifeng/work/run/storm102/data/workers/0ab20028-068a-464f-8c0f-f61e4463a131/tmp/cvld4384933450763853674/bvlc_reference_caffenet.caffemodel
I0924 02:14:28.024150 19029 net.cpp:141] Setting up predict
I0924 02:14:28.024204 19029 net.cpp:148] Top shape: 1 1 46168 (46168)
I0924 02:14:28.024212 19029 net.cpp:156] Memory required for data: 221084
I0924 02:14:28.024230 19029 layer_factory.hpp:77] Creating layer probs
I0924 02:14:28.024252 19029 net.cpp:91] Creating Layer probs
I0924 02:14:28.024260 19029 net.cpp:425] probs <- predict
I0924 02:14:28.024272 19029 net.cpp:399] probs -> probs
I0924 02:14:28.025168 19029 net.cpp:141] Setting up probs
I0924 02:14:28.025189 19029 net.cpp:148] Top shape: 1 1 46168 (46168)
I0924 02:14:28.025194 19029 net.cpp:156] Memory required for data: 405756
I0924 02:14:28.025202 19029 net.cpp:219] probs does not need backward computation.
I0924 02:14:28.025207 19029 net.cpp:219] predict does not need backward computation.
I0924 02:14:28.025213 19029 net.cpp:219] lstm2 does not need backward computation.
I0924 02:14:28.025218 19029 net.cpp:219] concat does not need backward computation.
I0924 02:14:28.025225 19029 net.cpp:219] lstm1 does not need backward computation.
I0924 02:14:28.025231 19029 net.cpp:219] embedding does not need backward computation.
I0924 02:14:28.025238 19029 net.cpp:219] reshape_stage_indicator does not need backward computation.
I0924 02:14:28.025243 19029 net.cpp:219] reshape_frames does not need backward computation.
I0924 02:14:28.025249 19029 net.cpp:219] embed_encoder does not need backward computation.
I0924 02:14:28.025254 19029 net.cpp:219] cont_sentence_input_1_split does not need backward computation.
I0924 02:14:28.025259 19029 net.cpp:219] input does not need backward computation.
I0924 02:14:28.025264 19029 net.cpp:261] This network produces output probs
I0924 02:14:28.025280 19029 net.cpp:274] Network initialization done.
I0924 02:14:28.141389 19013 net.cpp:141] Setting up predict
I0924 02:14:28.141439 19013 net.cpp:148] Top shape: 1 1 46168 (46168)
I0924 02:14:28.141446 19013 net.cpp:156] Memory required for data: 221084
I0924 02:14:28.141460 19013 layer_factory.hpp:77] Creating layer probs
I0924 02:14:28.141479 19013 net.cpp:91] Creating Layer probs
I0924 02:14:28.141486 19013 net.cpp:425] probs <- predict
I0924 02:14:28.141496 19013 net.cpp:399] probs -> probs
I0924 02:14:28.142004 19013 net.cpp:141] Setting up probs
I0924 02:14:28.142016 19013 net.cpp:148] Top shape: 1 1 46168 (46168)
I0924 02:14:28.142021 19013 net.cpp:156] Memory required for data: 405756
I0924 02:14:28.142026 19013 net.cpp:219] probs does not need backward computation.
I0924 02:14:28.142031 19013 net.cpp:219] predict does not need backward computation.
I0924 02:14:28.142037 19013 net.cpp:219] lstm2 does not need backward computation.
I0924 02:14:28.142042 19013 net.cpp:219] concat does not need backward computation.
I0924 02:14:28.142048 19013 net.cpp:219] lstm1 does not need backward computation.
I0924 02:14:28.142055 19013 net.cpp:219] embedding does not need backward computation.
I0924 02:14:28.142060 19013 net.cpp:219] reshape_stage_indicator does not need backward computation.
I0924 02:14:28.142065 19013 net.cpp:219] reshape_frames does not need backward computation.
I0924 02:14:28.142069 19013 net.cpp:219] embed_encoder does not need backward computation.
I0924 02:14:28.142073 19013 net.cpp:219] cont_sentence_input_1_split does not need backward computation.
I0924 02:14:28.142079 19013 net.cpp:219] input does not need backward computation.
I0924 02:14:28.142083 19013 net.cpp:261] This network produces output probs
I0924 02:14:28.142098 19013 net.cpp:274] Network initialization done.
I0924 02:14:28.225606 19009 net.cpp:141] Setting up predict
I0924 02:14:28.225666 19009 net.cpp:148] Top shape: 1 1 46168 (46168)
I0924 02:14:28.225673 19009 net.cpp:156] Memory required for data: 221084
I0924 02:14:28.225690 19009 layer_factory.hpp:77] Creating layer probs
I0924 02:14:28.225713 19009 net.cpp:91] Creating Layer probs
I0924 02:14:28.225720 19009 net.cpp:425] probs <- predict
I0924 02:14:28.225733 19009 net.cpp:399] probs -> probs
I0924 02:14:28.226481 19009 net.cpp:141] Setting up probs
I0924 02:14:28.226497 19009 net.cpp:148] Top shape: 1 1 46168 (46168)
I0924 02:14:28.226503 19009 net.cpp:156] Memory required for data: 405756
I0924 02:14:28.226511 19009 net.cpp:219] probs does not need backward computation.
I0924 02:14:28.226516 19009 net.cpp:219] predict does not need backward computation.
I0924 02:14:28.226521 19009 net.cpp:219] lstm2 does not need backward computation.
I0924 02:14:28.226528 19009 net.cpp:219] concat does not need backward computation.
…
