…
Java HotSpot(TM) 64-Bit Server VM warning: You have loaded library /tmp/cvld8929187862957963316/libopencv_java310.xine1.so which might have disabled stack guard. The VM will try to fix the stack guard now.
It's highly recommended that you fix the library with 'execstack -c <libfile>', or link it with '-z noexecstack'.
WARNING: Logging before InitGoogleLogging() is written to STDERR
I0802 06:48:10.512301 22621 net.cpp:49] Initializing net from parameters: 
name: "CaffeNet"
state {
  phase: TEST
}
layer {
  name: "data"
  type: "Input"
  top: "data"
  input_param {
    shape {
      dim: 10
      dim: 3
      dim: 227
      dim: 227
    }
  }
}
layer {
  name: "conv1"
  type: "Convolution"
  bottom: "data"
  top: "conv1"
  convolution_param {
    num_output: 96
    kernel_size: 11
    stride: 4
  }
}
layer {
  name: "relu1"
  type: "ReLU"
  bottom: "conv1"
  top: "conv1"
}
layer {
  name: "pool1"
  type: "Pooling"
  bottom: "conv1"
  top: "pool1"
  pooling_param {
    pool: MAX
    kernel_size: 3
    stride: 2
  }
}
layer {
  name: "norm1"
  type: "LRN"
  bottom: "pool1"
  top: "norm1"
  lrn_param {
    local_size: 5
    alpha: 0.0001
    beta: 0.75
  }
}
layer {
  name: "conv2"
  type: "Convolution"
  bottom: "norm1"
  top: "conv2"
  convolution_param {
    num_output: 256
    pad: 2
    kernel_size: 5
    group: 2
  }
}
layer {
  name: "relu2"
  type: "ReLU"
  bottom: "conv2"
  top: "conv2"
}
layer {
  name: "pool2"
  type: "Pooling"
  bottom: "conv2"
  top: "pool2"
  pooling_param {
    pool: MAX
    kernel_size: 3
    stride: 2
  }
}
layer {
  name: "norm2"
  type: "LRN"
  bottom: "pool2"
  top: "norm2"
  lrn_param {
    local_size: 5
    alpha: 0.0001
    beta: 0.75
  }
}
layer {
  name: "conv3"
  type: "Convolution"
  bottom: "norm2"
  top: "conv3"
  convolution_param {
    num_output: 384
    pad: 1
    kernel_size: 3
  }
}
layer {
  name: "relu3"
  type: "ReLU"
  bottom: "conv3"
  top: "conv3"
}
layer {
  name: "conv4"
  type: "Convolution"
  bottom: "conv3"
  top: "conv4"
  convolution_param {
    num_output: 384
    pad: 1
    kernel_size: 3
    group: 2
  }
}
layer {
  name: "relu4"
  type: "ReLU"
  bottom: "conv4"
  top: "conv4"
}
layer {
  name: "conv5"
  type: "Convolution"
  bottom: "conv4"
  top: "conv5"
  convolution_param {
    num_output: 256
    pad: 1
    kernel_size: 3
    group: 2
  }
}
layer {
  name: "relu5"
  type: "ReLU"
  bottom: "conv5"
  top: "conv5"
}
layer {
  name: "pool5"
  type: "Pooling"
  bottom: "conv5"
  top: "pool5"
  pooling_param {
    pool: MAX
    kernel_size: 3
    stride: 2
  }
}
layer {
  name: "fc6"
  type: "InnerProduct"
  bottom: "pool5"
  top: "fc6"
  inner_product_param {
    num_output: 4096
  }
}
layer {
  name: "relu6"
  type: "ReLU"
  bottom: "fc6"
  top: "fc6"
}
layer {
  name: "drop6"
  type: "Dropout"
  bottom: "fc6"
  top: "fc6"
  dropout_param {
    dropout_ratio: 0.5
  }
}
layer {
  name: "fc7"
  type: "InnerProduct"
  bottom: "fc6"
  top: "fc7"
  inner_product_param {
    num_output: 4096
  }
}
layer {
  name: "relu7"
  type: "ReLU"
  bottom: "fc7"
  top: "fc7"
}
layer {
  name: "drop7"
  type: "Dropout"
  bottom: "fc7"
  top: "fc7"
  dropout_param {
    dropout_ratio: 0.5
  }
}
layer {
  name: "fc8"
  type: "InnerProduct"
  bottom: "fc7"
  top: "fc8"
  inner_product_param {
    num_output: 1000
  }
}
layer {
  name: "prob"
  type: "Softmax"
  bottom: "fc8"
  top: "prob"
}
I0802 06:48:10.512562 22621 layer_factory.hpp:77] Creating layer data
I0802 06:48:10.512593 22621 net.cpp:91] Creating Layer data
I0802 06:48:10.512603 22621 net.cpp:399] data -> data
I0802 06:48:11.079341 22621 net.cpp:141] Setting up data
I0802 06:48:11.079483 22621 net.cpp:148] Top shape: 10 3 227 227 (1545870)
I0802 06:48:11.079493 22621 net.cpp:156] Memory required for data: 6183480
I0802 06:48:11.079521 22621 layer_factory.hpp:77] Creating layer conv1
I0802 06:48:11.079567 22621 net.cpp:91] Creating Layer conv1
I0802 06:48:11.079583 22621 net.cpp:425] conv1 <- data
I0802 06:48:11.079603 22621 net.cpp:399] conv1 -> conv1
I0802 06:48:11.313977 22621 net.cpp:141] Setting up conv1
I0802 06:48:11.314025 22621 net.cpp:148] Top shape: 10 96 55 55 (2904000)
I0802 06:48:11.314033 22621 net.cpp:156] Memory required for data: 17799480
I0802 06:48:11.314062 22621 layer_factory.hpp:77] Creating layer relu1
I0802 06:48:11.314079 22621 net.cpp:91] Creating Layer relu1
I0802 06:48:11.314086 22621 net.cpp:425] relu1 <- conv1
I0802 06:48:11.314095 22621 net.cpp:386] relu1 -> conv1 (in-place)
I0802 06:48:11.314568 22621 net.cpp:141] Setting up relu1
I0802 06:48:11.314582 22621 net.cpp:148] Top shape: 10 96 55 55 (2904000)
I0802 06:48:11.314589 22621 net.cpp:156] Memory required for data: 29415480
I0802 06:48:11.314594 22621 layer_factory.hpp:77] Creating layer pool1
I0802 06:48:11.314607 22621 net.cpp:91] Creating Layer pool1
I0802 06:48:11.314612 22621 net.cpp:425] pool1 <- conv1
I0802 06:48:11.314621 22621 net.cpp:399] pool1 -> pool1
I0802 06:48:11.314702 22621 net.cpp:141] Setting up pool1
I0802 06:48:11.314713 22621 net.cpp:148] Top shape: 10 96 27 27 (699840)
I0802 06:48:11.314718 22621 net.cpp:156] Memory required for data: 32214840
I0802 06:48:11.314723 22621 layer_factory.hpp:77] Creating layer norm1
I0802 06:48:11.314741 22621 net.cpp:91] Creating Layer norm1
I0802 06:48:11.314746 22621 net.cpp:425] norm1 <- pool1
I0802 06:48:11.314754 22621 net.cpp:399] norm1 -> norm1
I0802 06:48:11.315286 22621 net.cpp:141] Setting up norm1
I0802 06:48:11.315301 22621 net.cpp:148] Top shape: 10 96 27 27 (699840)
I0802 06:48:11.315306 22621 net.cpp:156] Memory required for data: 35014200
I0802 06:48:11.315312 22621 layer_factory.hpp:77] Creating layer conv2
I0802 06:48:11.315331 22621 net.cpp:91] Creating Layer conv2
I0802 06:48:11.315336 22621 net.cpp:425] conv2 <- norm1
I0802 06:48:11.315345 22621 net.cpp:399] conv2 -> conv2
I0802 06:48:11.320521 22621 net.cpp:141] Setting up conv2
I0802 06:48:11.320541 22621 net.cpp:148] Top shape: 10 256 27 27 (1866240)
I0802 06:48:11.320546 22621 net.cpp:156] Memory required for data: 42479160
I0802 06:48:11.320560 22621 layer_factory.hpp:77] Creating layer relu2
I0802 06:48:11.320574 22621 net.cpp:91] Creating Layer relu2
I0802 06:48:11.320580 22621 net.cpp:425] relu2 <- conv2
I0802 06:48:11.320587 22621 net.cpp:386] relu2 -> conv2 (in-place)
I0802 06:48:11.321085 22621 net.cpp:141] Setting up relu2
I0802 06:48:11.321105 22621 net.cpp:148] Top shape: 10 256 27 27 (1866240)
I0802 06:48:11.321110 22621 net.cpp:156] Memory required for data: 49944120
I0802 06:48:11.321116 22621 layer_factory.hpp:77] Creating layer pool2
I0802 06:48:11.321127 22621 net.cpp:91] Creating Layer pool2
I0802 06:48:11.321132 22621 net.cpp:425] pool2 <- conv2
I0802 06:48:11.321142 22621 net.cpp:399] pool2 -> pool2
I0802 06:48:11.321205 22621 net.cpp:141] Setting up pool2
I0802 06:48:11.321218 22621 net.cpp:148] Top shape: 10 256 13 13 (432640)
I0802 06:48:11.321223 22621 net.cpp:156] Memory required for data: 51674680
I0802 06:48:11.321228 22621 layer_factory.hpp:77] Creating layer norm2
I0802 06:48:11.321238 22621 net.cpp:91] Creating Layer norm2
I0802 06:48:11.321243 22621 net.cpp:425] norm2 <- pool2
I0802 06:48:11.321254 22621 net.cpp:399] norm2 -> norm2
I0802 06:48:11.321539 22621 net.cpp:141] Setting up norm2
I0802 06:48:11.321552 22621 net.cpp:148] Top shape: 10 256 13 13 (432640)
I0802 06:48:11.321557 22621 net.cpp:156] Memory required for data: 53405240
I0802 06:48:11.321562 22621 layer_factory.hpp:77] Creating layer conv3
I0802 06:48:11.321575 22621 net.cpp:91] Creating Layer conv3
I0802 06:48:11.321581 22621 net.cpp:425] conv3 <- norm2
I0802 06:48:11.321593 22621 net.cpp:399] conv3 -> conv3
I0802 06:48:11.325776 22621 net.cpp:141] Setting up conv3
I0802 06:48:11.325794 22621 net.cpp:148] Top shape: 10 384 13 13 (648960)
I0802 06:48:11.325799 22621 net.cpp:156] Memory required for data: 56001080
I0802 06:48:11.325814 22621 layer_factory.hpp:77] Creating layer relu3
I0802 06:48:11.325829 22621 net.cpp:91] Creating Layer relu3
I0802 06:48:11.325834 22621 net.cpp:425] relu3 <- conv3
I0802 06:48:11.325842 22621 net.cpp:386] relu3 -> conv3 (in-place)
I0802 06:48:11.326329 22621 net.cpp:141] Setting up relu3
I0802 06:48:11.326344 22621 net.cpp:148] Top shape: 10 384 13 13 (648960)
I0802 06:48:11.326349 22621 net.cpp:156] Memory required for data: 58596920
I0802 06:48:11.326355 22621 layer_factory.hpp:77] Creating layer conv4
I0802 06:48:11.326370 22621 net.cpp:91] Creating Layer conv4
I0802 06:48:11.326376 22621 net.cpp:425] conv4 <- conv3
I0802 06:48:11.326387 22621 net.cpp:399] conv4 -> conv4
I0802 06:48:11.331262 22621 net.cpp:141] Setting up conv4
I0802 06:48:11.331284 22621 net.cpp:148] Top shape: 10 384 13 13 (648960)
I0802 06:48:11.331290 22621 net.cpp:156] Memory required for data: 61192760
I0802 06:48:11.331300 22621 layer_factory.hpp:77] Creating layer relu4
I0802 06:48:11.331310 22621 net.cpp:91] Creating Layer relu4
I0802 06:48:11.331316 22621 net.cpp:425] relu4 <- conv4
I0802 06:48:11.331324 22621 net.cpp:386] relu4 -> conv4 (in-place)
I0802 06:48:11.331817 22621 net.cpp:141] Setting up relu4
I0802 06:48:11.331831 22621 net.cpp:148] Top shape: 10 384 13 13 (648960)
I0802 06:48:11.331836 22621 net.cpp:156] Memory required for data: 63788600
I0802 06:48:11.331842 22621 layer_factory.hpp:77] Creating layer conv5
I0802 06:48:11.331858 22621 net.cpp:91] Creating Layer conv5
I0802 06:48:11.331864 22621 net.cpp:425] conv5 <- conv4
I0802 06:48:11.331873 22621 net.cpp:399] conv5 -> conv5
I0802 06:48:11.336236 22621 net.cpp:141] Setting up conv5
I0802 06:48:11.336253 22621 net.cpp:148] Top shape: 10 256 13 13 (432640)
I0802 06:48:11.336259 22621 net.cpp:156] Memory required for data: 65519160
I0802 06:48:11.336274 22621 layer_factory.hpp:77] Creating layer relu5
I0802 06:48:11.336283 22621 net.cpp:91] Creating Layer relu5
I0802 06:48:11.336288 22621 net.cpp:425] relu5 <- conv5
I0802 06:48:11.336297 22621 net.cpp:386] relu5 -> conv5 (in-place)
I0802 06:48:11.336801 22621 net.cpp:141] Setting up relu5
I0802 06:48:11.336814 22621 net.cpp:148] Top shape: 10 256 13 13 (432640)
I0802 06:48:11.336819 22621 net.cpp:156] Memory required for data: 67249720
I0802 06:48:11.336827 22621 layer_factory.hpp:77] Creating layer pool5
I0802 06:48:11.336838 22621 net.cpp:91] Creating Layer pool5
I0802 06:48:11.336843 22621 net.cpp:425] pool5 <- conv5
I0802 06:48:11.336854 22621 net.cpp:399] pool5 -> pool5
I0802 06:48:11.336920 22621 net.cpp:141] Setting up pool5
I0802 06:48:11.336930 22621 net.cpp:148] Top shape: 10 256 6 6 (92160)
I0802 06:48:11.336935 22621 net.cpp:156] Memory required for data: 67618360
I0802 06:48:11.336941 22621 layer_factory.hpp:77] Creating layer fc6
I0802 06:48:11.336966 22621 net.cpp:91] Creating Layer fc6
I0802 06:48:11.336972 22621 net.cpp:425] fc6 <- pool5
I0802 06:48:11.336982 22621 net.cpp:399] fc6 -> fc6
I0802 06:48:11.449134 22621 net.cpp:141] Setting up fc6
I0802 06:48:11.449180 22621 net.cpp:148] Top shape: 10 4096 (40960)
I0802 06:48:11.449187 22621 net.cpp:156] Memory required for data: 67782200
I0802 06:48:11.449201 22621 layer_factory.hpp:77] Creating layer relu6
I0802 06:48:11.449223 22621 net.cpp:91] Creating Layer relu6
I0802 06:48:11.449229 22621 net.cpp:425] relu6 <- fc6
I0802 06:48:11.449239 22621 net.cpp:386] relu6 -> fc6 (in-place)
I0802 06:48:11.449594 22621 net.cpp:141] Setting up relu6
I0802 06:48:11.449606 22621 net.cpp:148] Top shape: 10 4096 (40960)
I0802 06:48:11.449611 22621 net.cpp:156] Memory required for data: 67946040
I0802 06:48:11.449617 22621 layer_factory.hpp:77] Creating layer drop6
I0802 06:48:11.449637 22621 net.cpp:91] Creating Layer drop6
I0802 06:48:11.449643 22621 net.cpp:425] drop6 <- fc6
I0802 06:48:11.449651 22621 net.cpp:386] drop6 -> fc6 (in-place)
I0802 06:48:11.449707 22621 net.cpp:141] Setting up drop6
I0802 06:48:11.449717 22621 net.cpp:148] Top shape: 10 4096 (40960)
I0802 06:48:11.449722 22621 net.cpp:156] Memory required for data: 68109880
I0802 06:48:11.449726 22621 layer_factory.hpp:77] Creating layer fc7
I0802 06:48:11.449739 22621 net.cpp:91] Creating Layer fc7
I0802 06:48:11.449744 22621 net.cpp:425] fc7 <- fc6
I0802 06:48:11.449751 22621 net.cpp:399] fc7 -> fc7
I0802 06:48:11.498813 22621 net.cpp:141] Setting up fc7
I0802 06:48:11.498859 22621 net.cpp:148] Top shape: 10 4096 (40960)
I0802 06:48:11.498865 22621 net.cpp:156] Memory required for data: 68273720
I0802 06:48:11.498880 22621 layer_factory.hpp:77] Creating layer relu7
I0802 06:48:11.498901 22621 net.cpp:91] Creating Layer relu7
I0802 06:48:11.498908 22621 net.cpp:425] relu7 <- fc7
I0802 06:48:11.498917 22621 net.cpp:386] relu7 -> fc7 (in-place)
I0802 06:48:11.499755 22621 net.cpp:141] Setting up relu7
I0802 06:48:11.499769 22621 net.cpp:148] Top shape: 10 4096 (40960)
I0802 06:48:11.499773 22621 net.cpp:156] Memory required for data: 68437560
I0802 06:48:11.499779 22621 layer_factory.hpp:77] Creating layer drop7
I0802 06:48:11.499797 22621 net.cpp:91] Creating Layer drop7
I0802 06:48:11.499802 22621 net.cpp:425] drop7 <- fc7
I0802 06:48:11.499809 22621 net.cpp:386] drop7 -> fc7 (in-place)
I0802 06:48:11.499892 22621 net.cpp:141] Setting up drop7
I0802 06:48:11.499903 22621 net.cpp:148] Top shape: 10 4096 (40960)
I0802 06:48:11.499908 22621 net.cpp:156] Memory required for data: 68601400
I0802 06:48:11.499913 22621 layer_factory.hpp:77] Creating layer fc8
I0802 06:48:11.499924 22621 net.cpp:91] Creating Layer fc8
I0802 06:48:11.499929 22621 net.cpp:425] fc8 <- fc7
I0802 06:48:11.499941 22621 net.cpp:399] fc8 -> fc8
I0802 06:48:11.512231 22621 net.cpp:141] Setting up fc8
I0802 06:48:11.512275 22621 net.cpp:148] Top shape: 10 1000 (10000)
I0802 06:48:11.512281 22621 net.cpp:156] Memory required for data: 68641400
I0802 06:48:11.512295 22621 layer_factory.hpp:77] Creating layer prob
I0802 06:48:11.512310 22621 net.cpp:91] Creating Layer prob
I0802 06:48:11.512321 22621 net.cpp:425] prob <- fc8
I0802 06:48:11.512331 22621 net.cpp:399] prob -> prob
I0802 06:48:11.512796 22621 net.cpp:141] Setting up prob
I0802 06:48:11.512809 22621 net.cpp:148] Top shape: 10 1000 (10000)
I0802 06:48:11.512814 22621 net.cpp:156] Memory required for data: 68681400
I0802 06:48:11.512820 22621 net.cpp:219] prob does not need backward computation.
I0802 06:48:11.512825 22621 net.cpp:219] fc8 does not need backward computation.
I0802 06:48:11.512831 22621 net.cpp:219] drop7 does not need backward computation.
I0802 06:48:11.512835 22621 net.cpp:219] relu7 does not need backward computation.
…
W0802 06:48:16.848250 22611 upgrade_proto.cpp:71] Note that future Caffe releases will only support input layers and not input fields.
I0802 06:48:16.848731 22611 net.cpp:49] Initializing net from parameters: 
name: "s2vt:features_to_lstm"
state {
  phase: TEST
}
layer {
  name: "input"
  type: "Input"
  top: "frames_fc7"
  top: "cont_sentence"
  top: "input_sentence"
  top: "stage_indicator"
  input_param {
    shape {
      dim: 1
      dim: 4096
    }
    shape {
      dim: 1
      dim: 1
    }
    shape {
      dim: 1
      dim: 1
    }
    shape {
      dim: 1
      dim: 1
    }
  }
}
layer {
  name: "embed_encoder"
  type: "InnerProduct"
  bottom: "frames_fc7"
  top: "embedded_in_frames"
  param {
    lr_mult: 1
    decay_mult: 1
  }
  param {
    lr_mult: 2
    decay_mult: 0
  }
  inner_product_param {
    num_output: 500
    weight_filler {
      type: "xavier"
    }
    bias_filler {
      type: "constant"
      value: 0.2
    }
  }
}
layer {
  name: "reshape_frames"
  type: "Reshape"
  bottom: "embedded_in_frames"
  top: "embedded_input_frames"
  reshape_param {
    shape {
      dim: 1
      dim: 1
      dim: 500
    }
  }
}
layer {
  name: "reshape_stage_indicator"
  type: "Reshape"
  bottom: "stage_indicator"
  top: "reshaped_stage_indicator"
  reshape_param {
    shape {
      dim: 1
      dim: 1
      dim: 1
    }
  }
}
layer {
  name: "embedding"
  type: "Embed"
  bottom: "input_sentence"
  top: "embedded_input_sentence"
  param {
    lr_mult: 1
  }
  embed_param {
    num_output: 500
    input_dim: 46168
    bias_term: false
    weight_filler {
      type: "uniform"
      min: -0.08
      max: 0.08
    }
  }
}
layer {
  name: "lstm1"
  type: "LSTM"
  bottom: "embedded_input_frames"
  bottom: "cont_sentence"
  top: "lstm1"
  recurrent_param {
    num_output: 1000
    weight_filler {
      type: "uniform"
      min: -0.08
      max: 0.08
    }
    bias_filler {
      type: "constant"
      value: 0
    }
  }
}
layer {
  name: "concat"
  type: "Concat"
  bottom: "lstm1"
  bottom: "embedded_input_sentence"
  bottom: "reshaped_stage_indicator"
  top: "lstm1_video_sequence"
  concat_param {
    concat_dim: 2
  }
}
layer {
  name: "lstm2"
  type: "LSTM"
  bottom: "lstm1_video_sequence"
  bottom: "cont_sentence"
  top: "lstm2"
  recurrent_param {
    num_output: 1000
    weight_filler {
      type: "uniform"
      min: -0.08
      max: 0.08
    }
    bias_filler {
      type: "constant"
      value: 0
    }
  }
}
layer {
  name: "predict"
  type: "InnerProduct"
  bottom: "lstm2"
  top: "predict"
  param {
    lr_mult: 1
    decay_mult: 1
  }
  param {
    lr_mult: 2
    decay_mult: 0
  }
  inner_product_param {
    num_output: 46168
    weight_filler {
      type: "uniform"
      min: -0.08
      max: 0.08
    }
    bias_filler {
      type: "constant"
      value: 0
    }
    axis: 2
  }
}
layer {
  name: "probs"
  type: "Softmax"
  bottom: "predict"
  top: "probs"
  softmax_param {
    axis: 2
  }
}
I0802 06:48:16.848893 22611 layer_factory.hpp:77] Creating layer input
I0802 06:48:16.848924 22611 net.cpp:91] Creating Layer input
I0802 06:48:16.848937 22611 net.cpp:399] input -> frames_fc7
I0802 06:48:16.848963 22611 net.cpp:399] input -> cont_sentence
I0802 06:48:16.848979 22611 net.cpp:399] input -> input_sentence
I0802 06:48:16.848994 22611 net.cpp:399] input -> stage_indicator
I0802 06:48:16.849177 22611 net.cpp:141] Setting up input
I0802 06:48:16.849195 22611 net.cpp:148] Top shape: 1 4096 (4096)
I0802 06:48:16.849205 22611 net.cpp:148] Top shape: 1 1 (1)
I0802 06:48:16.849215 22611 net.cpp:148] Top shape: 1 1 (1)
I0802 06:48:16.849223 22611 net.cpp:148] Top shape: 1 1 (1)
I0802 06:48:16.849230 22611 net.cpp:156] Memory required for data: 16396
I0802 06:48:16.849237 22611 layer_factory.hpp:77] Creating layer cont_sentence_input_1_split
I0802 06:48:16.849263 22611 net.cpp:91] Creating Layer cont_sentence_input_1_split
I0802 06:48:16.849273 22611 net.cpp:425] cont_sentence_input_1_split <- cont_sentence
I0802 06:48:16.849298 22611 net.cpp:399] cont_sentence_input_1_split -> cont_sentence_input_1_split_0
I0802 06:48:16.849316 22611 net.cpp:399] cont_sentence_input_1_split -> cont_sentence_input_1_split_1
I0802 06:48:16.849397 22611 net.cpp:141] Setting up cont_sentence_input_1_split
I0802 06:48:16.849413 22611 net.cpp:148] Top shape: 1 1 (1)
I0802 06:48:16.849422 22611 net.cpp:148] Top shape: 1 1 (1)
I0802 06:48:16.849429 22611 net.cpp:156] Memory required for data: 16404
I0802 06:48:16.849437 22611 layer_factory.hpp:77] Creating layer embed_encoder
I0802 06:48:16.849455 22611 net.cpp:91] Creating Layer embed_encoder
I0802 06:48:16.849463 22611 net.cpp:425] embed_encoder <- frames_fc7
I0802 06:48:16.849476 22611 net.cpp:399] embed_encoder -> embedded_in_frames
I0802 06:48:16.883960 22611 net.cpp:141] Setting up embed_encoder
I0802 06:48:16.884018 22611 net.cpp:148] Top shape: 1 500 (500)
I0802 06:48:16.884027 22611 net.cpp:156] Memory required for data: 18404
I0802 06:48:16.884068 22611 layer_factory.hpp:77] Creating layer reshape_frames
I0802 06:48:16.884090 22611 net.cpp:91] Creating Layer reshape_frames
I0802 06:48:16.884099 22611 net.cpp:425] reshape_frames <- embedded_in_frames
I0802 06:48:16.884112 22611 net.cpp:399] reshape_frames -> embedded_input_frames
I0802 06:48:16.884189 22611 net.cpp:141] Setting up reshape_frames
I0802 06:48:16.884202 22611 net.cpp:148] Top shape: 1 1 500 (500)
I0802 06:48:16.884207 22611 net.cpp:156] Memory required for data: 20404
I0802 06:48:16.884213 22611 layer_factory.hpp:77] Creating layer reshape_stage_indicator
I0802 06:48:16.884227 22611 net.cpp:91] Creating Layer reshape_stage_indicator
I0802 06:48:16.884234 22611 net.cpp:425] reshape_stage_indicator <- stage_indicator
I0802 06:48:16.884246 22611 net.cpp:399] reshape_stage_indicator -> reshaped_stage_indicator
I0802 06:48:16.884296 22611 net.cpp:141] Setting up reshape_stage_indicator
I0802 06:48:16.884308 22611 net.cpp:148] Top shape: 1 1 1 (1)
I0802 06:48:16.884315 22611 net.cpp:156] Memory required for data: 20408
I0802 06:48:16.884320 22611 layer_factory.hpp:77] Creating layer embedding
I0802 06:48:16.884337 22611 net.cpp:91] Creating Layer embedding
I0802 06:48:16.884344 22611 net.cpp:425] embedding <- input_sentence
I0802 06:48:16.884359 22611 net.cpp:399] embedding -> embedded_input_sentence
I0802 06:48:17.202409 22611 net.cpp:141] Setting up embedding
I0802 06:48:17.202462 22611 net.cpp:148] Top shape: 1 1 500 (500)
I0802 06:48:17.202471 22611 net.cpp:156] Memory required for data: 22408
I0802 06:48:17.202492 22611 layer_factory.hpp:77] Creating layer lstm1
I0802 06:48:17.202528 22611 net.cpp:91] Creating Layer lstm1
I0802 06:48:17.202538 22611 net.cpp:425] lstm1 <- embedded_input_frames
I0802 06:48:17.202548 22611 net.cpp:425] lstm1 <- cont_sentence_input_1_split_0
I0802 06:48:17.202559 22611 net.cpp:399] lstm1 -> lstm1
I0802 06:48:17.202601 22611 recurrent_layer.cpp:20] Initializing recurrent layer: assuming input batch contains 1 timesteps of 1 independent streams.
I0802 06:48:17.203034 22611 net.cpp:49] Initializing net from parameters: 
layer {
  name: "lstm1_"
  type: "Input"
  top: "x"
  top: "cont"
  input_param {
    shape {
      dim: 1
      dim: 1
      dim: 500
    }
    shape {
      dim: 1
      dim: 1
    }
  }
}
layer {
  name: "lstm1_"
  type: "Input"
  top: "c_0"
  top: "h_0"
  input_param {
    shape {
      dim: 1
      dim: 1
      dim: 1000
    }
    shape {
      dim: 1
      dim: 1
      dim: 1000
    }
  }
}
layer {
  name: "lstm1_cont_slice"
  type: "Slice"
  bottom: "cont"
  top: "cont_1"
  slice_param {
    axis: 0
  }
}
layer {
  name: "lstm1_x_transform"
  type: "InnerProduct"
  bottom: "x"
  top: "W_xc_x"
  param {
    name: "W_xc"
  }
  param {
    name: "b_c"
  }
  propagate_down: true
  inner_product_param {
    num_output: 4000
    bias_term: true
    weight_filler {
      type: "uniform"
      min: -0.08
      max: 0.08
    }
    bias_filler {
      type: "constant"
      value: 0
    }
    axis: 2
  }
}
layer {
  name: "lstm1_W_xc_x_slice"
  type: "Slice"
  bottom: "W_xc_x"
  top: "W_xc_x_1"
  slice_param {
    axis: 0
  }
}
layer {
  name: "lstm1_h_conted_0"
  type: "Scale"
  bottom: "h_0"
  bottom: "cont_1"
  top: "h_conted_0"
  scale_param {
    axis: 0
  }
}
layer {
  name: "lstm1_transform_1"
  type: "InnerProduct"
  bottom: "h_conted_0"
  top: "W_hc_h_0"
  param {
    name: "W_hc"
  }
  inner_product_param {
    num_output: 4000
    bias_term: false
    weight_filler {
      type: "uniform"
      min: -0.08
      max: 0.08
    }
    axis: 2
  }
}
layer {
  name: "lstm1_gate_input_1"
  type: "Eltwise"
  bottom: "W_hc_h_0"
  bottom: "W_xc_x_1"
  top: "gate_input_1"
  eltwise_param {
    operation: SUM
  }
}
layer {
  name: "lstm1_unit_1"
  type: "LSTMUnit"
  bottom: "c_0"
  bottom: "gate_input_1"
  bottom: "cont_1"
  top: "c_1"
  top: "h_1"
}
layer {
  name: "lstm1_"
  type: "Split"
  bottom: "c_1"
  top: "c_T"
}
layer {
  name: "lstm1_h_concat"
  type: "Concat"
  bottom: "h_1"
  top: "h"
  concat_param {
    axis: 0
  }
}
layer {
  name: "h_pseudoloss"
  type: "Reduction"
  bottom: "h"
  top: "h_pseudoloss"
  loss_weight: 1
}
I0802 06:48:17.203140 22611 layer_factory.hpp:77] Creating layer lstm1_
I0802 06:48:17.203153 22611 net.cpp:91] Creating Layer lstm1_
I0802 06:48:17.203161 22611 net.cpp:399] lstm1_ -> x
I0802 06:48:17.203173 22611 net.cpp:399] lstm1_ -> cont
I0802 06:48:17.203809 22611 net.cpp:141] Setting up lstm1_
I0802 06:48:17.203830 22611 net.cpp:148] Top shape: 1 1 500 (500)
I0802 06:48:17.203837 22611 net.cpp:148] Top shape: 1 1 (1)
I0802 06:48:17.203841 22611 net.cpp:156] Memory required for data: 2004
I0802 06:48:17.203847 22611 layer_factory.hpp:77] Creating layer lstm1_
I0802 06:48:17.203858 22611 net.cpp:91] Creating Layer lstm1_
I0802 06:48:17.203866 22611 net.cpp:399] lstm1_ -> c_0
I0802 06:48:17.203881 22611 net.cpp:399] lstm1_ -> h_0
I0802 06:48:17.236351 22611 net.cpp:141] Setting up lstm1_
I0802 06:48:17.236418 22611 net.cpp:148] Top shape: 1 1 1000 (1000)
I0802 06:48:17.236438 22611 net.cpp:148] Top shape: 1 1 1000 (1000)
I0802 06:48:17.236448 22611 net.cpp:156] Memory required for data: 10004
I0802 06:48:17.236464 22611 layer_factory.hpp:77] Creating layer lstm1_cont_slice
I0802 06:48:17.236516 22611 net.cpp:91] Creating Layer lstm1_cont_slice
I0802 06:48:17.236532 22611 net.cpp:425] lstm1_cont_slice <- cont
I0802 06:48:17.236555 22611 net.cpp:399] lstm1_cont_slice -> cont_1
I0802 06:48:17.252296 22611 net.cpp:141] Setting up lstm1_cont_slice
I0802 06:48:17.252343 22611 net.cpp:148] Top shape: 1 1 (1)
I0802 06:48:17.252351 22611 net.cpp:156] Memory required for data: 10008
I0802 06:48:17.252359 22611 layer_factory.hpp:77] Creating layer cont_1_lstm1_cont_slice_0_split
I0802 06:48:17.252375 22611 net.cpp:91] Creating Layer cont_1_lstm1_cont_slice_0_split
I0802 06:48:17.252383 22611 net.cpp:425] cont_1_lstm1_cont_slice_0_split <- cont_1
I0802 06:48:17.252398 22611 net.cpp:399] cont_1_lstm1_cont_slice_0_split -> cont_1_lstm1_cont_slice_0_split_0
I0802 06:48:17.252411 22611 net.cpp:399] cont_1_lstm1_cont_slice_0_split -> cont_1_lstm1_cont_slice_0_split_1
I0802 06:48:17.254058 22611 net.cpp:141] Setting up cont_1_lstm1_cont_slice_0_split
I0802 06:48:17.254081 22611 net.cpp:148] Top shape: 1 1 (1)
I0802 06:48:17.254087 22611 net.cpp:148] Top shape: 1 1 (1)
I0802 06:48:17.254092 22611 net.cpp:156] Memory required for data: 10016
I0802 06:48:17.254098 22611 layer_factory.hpp:77] Creating layer lstm1_x_transform
I0802 06:48:17.254122 22611 net.cpp:91] Creating Layer lstm1_x_transform
I0802 06:48:17.254128 22611 net.cpp:425] lstm1_x_transform <- x
I0802 06:48:17.254138 22611 net.cpp:399] lstm1_x_transform -> W_xc_x
I0802 06:48:17.284144 22611 net.cpp:141] Setting up lstm1_x_transform
I0802 06:48:17.284193 22611 net.cpp:148] Top shape: 1 1 4000 (4000)
I0802 06:48:17.284199 22611 net.cpp:156] Memory required for data: 26016
I0802 06:48:17.284220 22611 layer_factory.hpp:77] Creating layer lstm1_W_xc_x_slice
I0802 06:48:17.284241 22611 net.cpp:91] Creating Layer lstm1_W_xc_x_slice
I0802 06:48:17.284250 22611 net.cpp:425] lstm1_W_xc_x_slice <- W_xc_x
I0802 06:48:17.284260 22611 net.cpp:399] lstm1_W_xc_x_slice -> W_xc_x_1
I0802 06:48:17.284312 22611 net.cpp:141] Setting up lstm1_W_xc_x_slice
I0802 06:48:17.284323 22611 net.cpp:148] Top shape: 1 1 4000 (4000)
I0802 06:48:17.284328 22611 net.cpp:156] Memory required for data: 42016
I0802 06:48:17.284333 22611 layer_factory.hpp:77] Creating layer lstm1_h_conted_0
I0802 06:48:17.284343 22611 net.cpp:91] Creating Layer lstm1_h_conted_0
I0802 06:48:17.284349 22611 net.cpp:425] lstm1_h_conted_0 <- h_0
I0802 06:48:17.284355 22611 net.cpp:425] lstm1_h_conted_0 <- cont_1_lstm1_cont_slice_0_split_0
I0802 06:48:17.284368 22611 net.cpp:399] lstm1_h_conted_0 -> h_conted_0
I0802 06:48:17.284481 22611 net.cpp:141] Setting up lstm1_h_conted_0
I0802 06:48:17.284492 22611 net.cpp:148] Top shape: 1 1 1000 (1000)
I0802 06:48:17.284495 22611 net.cpp:156] Memory required for data: 46016
I0802 06:48:17.284500 22611 layer_factory.hpp:77] Creating layer lstm1_transform_1
I0802 06:48:17.284518 22611 net.cpp:91] Creating Layer lstm1_transform_1
I0802 06:48:17.284523 22611 net.cpp:425] lstm1_transform_1 <- h_conted_0
I0802 06:48:17.284533 22611 net.cpp:399] lstm1_transform_1 -> W_hc_h_0
I0802 06:48:17.331295 22611 net.cpp:141] Setting up lstm1_transform_1
I0802 06:48:17.331341 22611 net.cpp:148] Top shape: 1 1 4000 (4000)
I0802 06:48:17.331347 22611 net.cpp:156] Memory required for data: 62016
I0802 06:48:17.331364 22611 layer_factory.hpp:77] Creating layer lstm1_gate_input_1
I0802 06:48:17.331387 22611 net.cpp:91] Creating Layer lstm1_gate_input_1
I0802 06:48:17.331394 22611 net.cpp:425] lstm1_gate_input_1 <- W_hc_h_0
I0802 06:48:17.331404 22611 net.cpp:425] lstm1_gate_input_1 <- W_xc_x_1
I0802 06:48:17.331414 22611 net.cpp:399] lstm1_gate_input_1 -> gate_input_1
I0802 06:48:17.331476 22611 net.cpp:141] Setting up lstm1_gate_input_1
I0802 06:48:17.331486 22611 net.cpp:148] Top shape: 1 1 4000 (4000)
I0802 06:48:17.331490 22611 net.cpp:156] Memory required for data: 78016
I0802 06:48:17.331496 22611 layer_factory.hpp:77] Creating layer lstm1_unit_1
I0802 06:48:17.331508 22611 net.cpp:91] Creating Layer lstm1_unit_1
I0802 06:48:17.331514 22611 net.cpp:425] lstm1_unit_1 <- c_0
I0802 06:48:17.331521 22611 net.cpp:425] lstm1_unit_1 <- gate_input_1
I0802 06:48:17.331526 22611 net.cpp:425] lstm1_unit_1 <- cont_1_lstm1_cont_slice_0_split_1
I0802 06:48:17.331533 22611 net.cpp:399] lstm1_unit_1 -> c_1
I0802 06:48:17.331543 22611 net.cpp:399] lstm1_unit_1 -> h_1
I0802 06:48:17.331616 22611 net.cpp:141] Setting up lstm1_unit_1
I0802 06:48:17.331626 22611 net.cpp:148] Top shape: 1 1 1000 (1000)
I0802 06:48:17.331632 22611 net.cpp:148] Top shape: 1 1 1000 (1000)
I0802 06:48:17.331636 22611 net.cpp:156] Memory required for data: 86016
I0802 06:48:17.331641 22611 layer_factory.hpp:77] Creating layer lstm1_
I0802 06:48:17.331650 22611 net.cpp:91] Creating Layer lstm1_
I0802 06:48:17.331655 22611 net.cpp:425] lstm1_ <- c_1
I0802 06:48:17.331665 22611 net.cpp:399] lstm1_ -> c_T
I0802 06:48:17.331701 22611 net.cpp:141] Setting up lstm1_
I0802 06:48:17.331709 22611 net.cpp:148] Top shape: 1 1 1000 (1000)
I0802 06:48:17.331714 22611 net.cpp:156] Memory required for data: 90016
I0802 06:48:17.331719 22611 layer_factory.hpp:77] Creating layer lstm1_h_concat
I0802 06:48:17.331729 22611 net.cpp:91] Creating Layer lstm1_h_concat
I0802 06:48:17.331734 22611 net.cpp:425] lstm1_h_concat <- h_1
I0802 06:48:17.331742 22611 net.cpp:399] lstm1_h_concat -> h
I0802 06:48:17.331792 22611 net.cpp:141] Setting up lstm1_h_concat
I0802 06:48:17.331802 22611 net.cpp:148] Top shape: 1 1 1000 (1000)
I0802 06:48:17.331807 22611 net.cpp:156] Memory required for data: 94016
I0802 06:48:17.331812 22611 layer_factory.hpp:77] Creating layer h_pseudoloss
I0802 06:48:17.331826 22611 net.cpp:91] Creating Layer h_pseudoloss
I0802 06:48:17.331832 22611 net.cpp:425] h_pseudoloss <- h
I0802 06:48:17.331840 22611 net.cpp:399] h_pseudoloss -> h_pseudoloss
I0802 06:48:17.331944 22611 net.cpp:141] Setting up h_pseudoloss
…
I0802 06:48:17.332073 22611 net.cpp:219] lstm1_ does not need backward computation.
I0802 06:48:17.332077 22611 net.cpp:261] This network produces output c_T
I0802 06:48:17.332082 22611 net.cpp:261] This network produces output h_pseudoloss
I0802 06:48:17.332098 22611 net.cpp:274] Network initialization done.
I0802 06:48:17.332152 22611 recurrent_layer.cpp:150] Adding parameter 0: W_xc
I0802 06:48:17.332159 22611 recurrent_layer.cpp:150] Adding parameter 1: b_c
I0802 06:48:17.332165 22611 recurrent_layer.cpp:150] Adding parameter 2: W_hc
I0802 06:48:17.332315 22611 net.cpp:141] Setting up lstm1
I0802 06:48:17.332329 22611 net.cpp:148] Top shape: 1 1 1000 (1000)
I0802 06:48:17.332334 22611 net.cpp:156] Memory required for data: 26408
I0802 06:48:17.332348 22611 layer_factory.hpp:77] Creating layer concat
I0802 06:48:17.332358 22611 net.cpp:91] Creating Layer concat
I0802 06:48:17.332365 22611 net.cpp:425] concat <- lstm1
I0802 06:48:17.332371 22611 net.cpp:425] concat <- embedded_input_sentence
I0802 06:48:17.332377 22611 net.cpp:425] concat <- reshaped_stage_indicator
I0802 06:48:17.332384 22611 net.cpp:399] concat -> lstm1_video_sequence
I0802 06:48:17.332423 22611 net.cpp:141] Setting up concat
I0802 06:48:17.332433 22611 net.cpp:148] Top shape: 1 1 1501 (1501)
I0802 06:48:17.332437 22611 net.cpp:156] Memory required for data: 32412
I0802 06:48:17.332442 22611 layer_factory.hpp:77] Creating layer lstm2
I0802 06:48:17.332455 22611 net.cpp:91] Creating Layer lstm2
I0802 06:48:17.332460 22611 net.cpp:425] lstm2 <- lstm1_video_sequence
I0802 06:48:17.332468 22611 net.cpp:425] lstm2 <- cont_sentence_input_1_split_1
I0802 06:48:17.332474 22611 net.cpp:399] lstm2 -> lstm2
I0802 06:48:17.332485 22611 recurrent_layer.cpp:20] Initializing recurrent layer: assuming input batch contains 1 timesteps of 1 independent streams.
I0802 06:48:17.332744 22611 net.cpp:49] Initializing net from parameters: 
layer {
  name: "lstm2_"
  type: "Input"
  top: "x"
  top: "cont"
  input_param {
    shape {
      dim: 1
      dim: 1
      dim: 1501
    }
    shape {
      dim: 1
      dim: 1
    }
  }
}
layer {
  name: "lstm2_"
  type: "Input"
  top: "c_0"
  top: "h_0"
  input_param {
    shape {
      dim: 1
      dim: 1
      dim: 1000
    }
    shape {
      dim: 1
      dim: 1
      dim: 1000
    }
  }
}
layer {
  name: "lstm2_cont_slice"
  type: "Slice"
  bottom: "cont"
  top: "cont_1"
  slice_param {
    axis: 0
  }
}
layer {
  name: "lstm2_x_transform"
  type: "InnerProduct"
  bottom: "x"
  top: "W_xc_x"
  param {
    name: "W_xc"
  }
  param {
    name: "b_c"
  }
  propagate_down: true
  inner_product_param {
    num_output: 4000
    bias_term: true
    weight_filler {
      type: "uniform"
      min: -0.08
      max: 0.08
    }
    bias_filler {
      type: "constant"
      value: 0
    }
    axis: 2
  }
}
layer {
  name: "lstm2_W_xc_x_slice"
  type: "Slice"
  bottom: "W_xc_x"
  top: "W_xc_x_1"
  slice_param {
    axis: 0
  }
}
layer {
  name: "lstm2_h_conted_0"
  type: "Scale"
  bottom: "h_0"
  bottom: "cont_1"
  top: "h_conted_0"
  scale_param {
    axis: 0
  }
}
layer {
  name: "lstm2_transform_1"
  type: "InnerProduct"
  bottom: "h_conted_0"
  top: "W_hc_h_0"
  param {
    name: "W_hc"
  }
  inner_product_param {
    num_output: 4000
    bias_term: false
    weight_filler {
      type: "uniform"
      min: -0.08
      max: 0.08
    }
    axis: 2
  }
}
layer {
  name: "lstm2_gate_input_1"
  type: "Eltwise"
  bottom: "W_hc_h_0"
  bottom: "W_xc_x_1"
  top: "gate_input_1"
  eltwise_param {
    operation: SUM
  }
}
layer {
  name: "lstm2_unit_1"
  type: "LSTMUnit"
  bottom: "c_0"
  bottom: "gate_input_1"
  bottom: "cont_1"
  top: "c_1"
  top: "h_1"
}
layer {
  name: "lstm2_"
  type: "Split"
  bottom: "c_1"
  top: "c_T"
}
layer {
  name: "lstm2_h_concat"
  type: "Concat"
  bottom: "h_1"
  top: "h"
  concat_param {
    axis: 0
  }
}
layer {
  name: "h_pseudoloss"
  type: "Reduction"
  bottom: "h"
  top: "h_pseudoloss"
  loss_weight: 1
}
I0802 06:48:17.332836 22611 layer_factory.hpp:77] Creating layer lstm2_
I0802 06:48:17.332851 22611 net.cpp:91] Creating Layer lstm2_
I0802 06:48:17.332859 22611 net.cpp:399] lstm2_ -> x
I0802 06:48:17.332871 22611 net.cpp:399] lstm2_ -> cont
I0802 06:48:17.332944 22611 net.cpp:141] Setting up lstm2_
I0802 06:48:17.332954 22611 net.cpp:148] Top shape: 1 1 1501 (1501)
I0802 06:48:17.332962 22611 net.cpp:148] Top shape: 1 1 (1)
I0802 06:48:17.332965 22611 net.cpp:156] Memory required for data: 6008
I0802 06:48:17.332970 22611 layer_factory.hpp:77] Creating layer lstm2_
I0802 06:48:17.332983 22611 net.cpp:91] Creating Layer lstm2_
I0802 06:48:17.332990 22611 net.cpp:399] lstm2_ -> c_0
I0802 06:48:17.333000 22611 net.cpp:399] lstm2_ -> h_0
I0802 06:48:17.333063 22611 net.cpp:141] Setting up lstm2_
I0802 06:48:17.333073 22611 net.cpp:148] Top shape: 1 1 1000 (1000)
I0802 06:48:17.333079 22611 net.cpp:148] Top shape: 1 1 1000 (1000)
I0802 06:48:17.333083 22611 net.cpp:156] Memory required for data: 14008
I0802 06:48:17.333088 22611 layer_factory.hpp:77] Creating layer lstm2_cont_slice
I0802 06:48:17.333097 22611 net.cpp:91] Creating Layer lstm2_cont_slice
I0802 06:48:17.333102 22611 net.cpp:425] lstm2_cont_slice <- cont
I0802 06:48:17.333109 22611 net.cpp:399] lstm2_cont_slice -> cont_1
I0802 06:48:17.333151 22611 net.cpp:141] Setting up lstm2_cont_slice
I0802 06:48:17.333160 22611 net.cpp:148] Top shape: 1 1 (1)
I0802 06:48:17.333165 22611 net.cpp:156] Memory required for data: 14012
I0802 06:48:17.333170 22611 layer_factory.hpp:77] Creating layer cont_1_lstm2_cont_slice_0_split
I0802 06:48:17.333178 22611 net.cpp:91] Creating Layer cont_1_lstm2_cont_slice_0_split
I0802 06:48:17.333183 22611 net.cpp:425] cont_1_lstm2_cont_slice_0_split <- cont_1
I0802 06:48:17.333191 22611 net.cpp:399] cont_1_lstm2_cont_slice_0_split -> cont_1_lstm2_cont_slice_0_split_0
I0802 06:48:17.333200 22611 net.cpp:399] cont_1_lstm2_cont_slice_0_split -> cont_1_lstm2_cont_slice_0_split_1
I0802 06:48:17.333255 22611 net.cpp:141] Setting up cont_1_lstm2_cont_slice_0_split
I0802 06:48:17.333267 22611 net.cpp:148] Top shape: 1 1 (1)
I0802 06:48:17.333273 22611 net.cpp:148] Top shape: 1 1 (1)
I0802 06:48:17.333278 22611 net.cpp:156] Memory required for data: 14020
I0802 06:48:17.333283 22611 layer_factory.hpp:77] Creating layer lstm2_x_transform
I0802 06:48:17.333293 22611 net.cpp:91] Creating Layer lstm2_x_transform
I0802 06:48:17.333298 22611 net.cpp:425] lstm2_x_transform <- x
I0802 06:48:17.333308 22611 net.cpp:399] lstm2_x_transform -> W_xc_x
I0802 06:48:17.401088 22611 net.cpp:141] Setting up lstm2_x_transform
I0802 06:48:17.401134 22611 net.cpp:148] Top shape: 1 1 4000 (4000)
I0802 06:48:17.401140 22611 net.cpp:156] Memory required for data: 30020
I0802 06:48:17.401161 22611 layer_factory.hpp:77] Creating layer lstm2_W_xc_x_slice
I0802 06:48:17.401177 22611 net.cpp:91] Creating Layer lstm2_W_xc_x_slice
I0802 06:48:17.401185 22611 net.cpp:425] lstm2_W_xc_x_slice <- W_xc_x
I0802 06:48:17.401195 22611 net.cpp:399] lstm2_W_xc_x_slice -> W_xc_x_1
I0802 06:48:17.401257 22611 net.cpp:141] Setting up lstm2_W_xc_x_slice
I0802 06:48:17.401269 22611 net.cpp:148] Top shape: 1 1 4000 (4000)
I0802 06:48:17.401273 22611 net.cpp:156] Memory required for data: 46020
I0802 06:48:17.401278 22611 layer_factory.hpp:77] Creating layer lstm2_h_conted_0
I0802 06:48:17.401289 22611 net.cpp:91] Creating Layer lstm2_h_conted_0
I0802 06:48:17.401294 22611 net.cpp:425] lstm2_h_conted_0 <- h_0
I0802 06:48:17.401300 22611 net.cpp:425] lstm2_h_conted_0 <- cont_1_lstm2_cont_slice_0_split_0
I0802 06:48:17.401309 22611 net.cpp:399] lstm2_h_conted_0 -> h_conted_0
I0802 06:48:17.401418 22611 net.cpp:141] Setting up lstm2_h_conted_0
I0802 06:48:17.401429 22611 net.cpp:148] Top shape: 1 1 1000 (1000)
I0802 06:48:17.401433 22611 net.cpp:156] Memory required for data: 50020
I0802 06:48:17.401438 22611 layer_factory.hpp:77] Creating layer lstm2_transform_1
I0802 06:48:17.401450 22611 net.cpp:91] Creating Layer lstm2_transform_1
I0802 06:48:17.401456 22611 net.cpp:425] lstm2_transform_1 <- h_conted_0
I0802 06:48:17.401468 22611 net.cpp:399] lstm2_transform_1 -> W_hc_h_0
I0802 06:48:17.449671 22611 net.cpp:141] Setting up lstm2_transform_1
I0802 06:48:17.449720 22611 net.cpp:148] Top shape: 1 1 4000 (4000)
I0802 06:48:17.449728 22611 net.cpp:156] Memory required for data: 66020
I0802 06:48:17.449746 22611 layer_factory.hpp:77] Creating layer lstm2_gate_input_1
I0802 06:48:17.449764 22611 net.cpp:91] Creating Layer lstm2_gate_input_1
I0802 06:48:17.449771 22611 net.cpp:425] lstm2_gate_input_1 <- W_hc_h_0
I0802 06:48:17.449780 22611 net.cpp:425] lstm2_gate_input_1 <- W_xc_x_1
I0802 06:48:17.449791 22611 net.cpp:399] lstm2_gate_input_1 -> gate_input_1
I0802 06:48:17.449849 22611 net.cpp:141] Setting up lstm2_gate_input_1
I0802 06:48:17.449859 22611 net.cpp:148] Top shape: 1 1 4000 (4000)
I0802 06:48:17.449864 22611 net.cpp:156] Memory required for data: 82020
I0802 06:48:17.449868 22611 layer_factory.hpp:77] Creating layer lstm2_unit_1
I0802 06:48:17.449878 22611 net.cpp:91] Creating Layer lstm2_unit_1
I0802 06:48:17.449883 22611 net.cpp:425] lstm2_unit_1 <- c_0
I0802 06:48:17.449889 22611 net.cpp:425] lstm2_unit_1 <- gate_input_1
I0802 06:48:17.449895 22611 net.cpp:425] lstm2_unit_1 <- cont_1_lstm2_cont_slice_0_split_1
I0802 06:48:17.449905 22611 net.cpp:399] lstm2_unit_1 -> c_1
I0802 06:48:17.449914 22611 net.cpp:399] lstm2_unit_1 -> h_1
I0802 06:48:17.449988 22611 net.cpp:141] Setting up lstm2_unit_1
I0802 06:48:17.449998 22611 net.cpp:148] Top shape: 1 1 1000 (1000)
I0802 06:48:17.450006 22611 net.cpp:148] Top shape: 1 1 1000 (1000)
I0802 06:48:17.450009 22611 net.cpp:156] Memory required for data: 90020
I0802 06:48:17.450014 22611 layer_factory.hpp:77] Creating layer lstm2_
I0802 06:48:17.450023 22611 net.cpp:91] Creating Layer lstm2_
I0802 06:48:17.450028 22611 net.cpp:425] lstm2_ <- c_1
I0802 06:48:17.450036 22611 net.cpp:399] lstm2_ -> c_T
I0802 06:48:17.450074 22611 net.cpp:141] Setting up lstm2_
I0802 06:48:17.450083 22611 net.cpp:148] Top shape: 1 1 1000 (1000)
I0802 06:48:17.450088 22611 net.cpp:156] Memory required for data: 94020
I0802 06:48:17.450093 22611 layer_factory.hpp:77] Creating layer lstm2_h_concat
I0802 06:48:17.450103 22611 net.cpp:91] Creating Layer lstm2_h_concat
I0802 06:48:17.450108 22611 net.cpp:425] lstm2_h_concat <- h_1
I0802 06:48:17.450116 22611 net.cpp:399] lstm2_h_concat -> h
I0802 06:48:17.450155 22611 net.cpp:141] Setting up lstm2_h_concat
I0802 06:48:17.450165 22611 net.cpp:148] Top shape: 1 1 1000 (1000)
I0802 06:48:17.450168 22611 net.cpp:156] Memory required for data: 98020
I0802 06:48:17.450173 22611 layer_factory.hpp:77] Creating layer h_pseudoloss
I0802 06:48:17.450186 22611 net.cpp:91] Creating Layer h_pseudoloss
I0802 06:48:17.450191 22611 net.cpp:425] h_pseudoloss <- h
I0802 06:48:17.450198 22611 net.cpp:399] h_pseudoloss -> h_pseudoloss
I0802 06:48:17.450299 22611 net.cpp:141] Setting up h_pseudoloss
…
