…
Java HotSpot(TM) 64-Bit Server VM warning: You have loaded library /tmp/cvld3025376402826937730/libopencv_java310.xine1.so which might have disabled stack guard. The VM will try to fix the stack guard now.
It's highly recommended that you fix the library with 'execstack -c <libfile>', or link it with '-z noexecstack'.
WARNING: Logging before InitGoogleLogging() is written to STDERR
I0802 20:43:03.821128 32497 net.cpp:49] Initializing net from parameters: 
name: "CaffeNet"
state {
  phase: TEST
}
layer {
  name: "data"
  type: "Input"
  top: "data"
  input_param {
    shape {
      dim: 10
      dim: 3
      dim: 227
      dim: 227
    }
  }
}
layer {
  name: "conv1"
  type: "Convolution"
  bottom: "data"
  top: "conv1"
  convolution_param {
    num_output: 96
    kernel_size: 11
    stride: 4
  }
}
layer {
  name: "relu1"
  type: "ReLU"
  bottom: "conv1"
  top: "conv1"
}
layer {
  name: "pool1"
  type: "Pooling"
  bottom: "conv1"
  top: "pool1"
  pooling_param {
    pool: MAX
    kernel_size: 3
    stride: 2
  }
}
layer {
  name: "norm1"
  type: "LRN"
  bottom: "pool1"
  top: "norm1"
  lrn_param {
    local_size: 5
    alpha: 0.0001
    beta: 0.75
  }
}
layer {
  name: "conv2"
  type: "Convolution"
  bottom: "norm1"
  top: "conv2"
  convolution_param {
    num_output: 256
    pad: 2
    kernel_size: 5
    group: 2
  }
}
layer {
  name: "relu2"
  type: "ReLU"
  bottom: "conv2"
  top: "conv2"
}
layer {
  name: "pool2"
  type: "Pooling"
  bottom: "conv2"
  top: "pool2"
  pooling_param {
    pool: MAX
    kernel_size: 3
    stride: 2
  }
}
layer {
  name: "norm2"
  type: "LRN"
  bottom: "pool2"
  top: "norm2"
  lrn_param {
    local_size: 5
    alpha: 0.0001
    beta: 0.75
  }
}
layer {
  name: "conv3"
  type: "Convolution"
  bottom: "norm2"
  top: "conv3"
  convolution_param {
    num_output: 384
    pad: 1
    kernel_size: 3
  }
}
layer {
  name: "relu3"
  type: "ReLU"
  bottom: "conv3"
  top: "conv3"
}
layer {
  name: "conv4"
  type: "Convolution"
  bottom: "conv3"
  top: "conv4"
  convolution_param {
    num_output: 384
    pad: 1
    kernel_size: 3
    group: 2
  }
}
layer {
  name: "relu4"
  type: "ReLU"
  bottom: "conv4"
  top: "conv4"
}
layer {
  name: "conv5"
  type: "Convolution"
  bottom: "conv4"
  top: "conv5"
  convolution_param {
    num_output: 256
    pad: 1
    kernel_size: 3
    group: 2
  }
}
layer {
  name: "relu5"
  type: "ReLU"
  bottom: "conv5"
  top: "conv5"
}
layer {
  name: "pool5"
  type: "Pooling"
  bottom: "conv5"
  top: "pool5"
  pooling_param {
    pool: MAX
    kernel_size: 3
    stride: 2
  }
}
layer {
  name: "fc6"
  type: "InnerProduct"
  bottom: "pool5"
  top: "fc6"
  inner_product_param {
    num_output: 4096
  }
}
layer {
  name: "relu6"
  type: "ReLU"
  bottom: "fc6"
  top: "fc6"
}
layer {
  name: "drop6"
  type: "Dropout"
  bottom: "fc6"
  top: "fc6"
  dropout_param {
    dropout_ratio: 0.5
  }
}
layer {
  name: "fc7"
  type: "InnerProduct"
  bottom: "fc6"
  top: "fc7"
  inner_product_param {
    num_output: 4096
  }
}
layer {
  name: "relu7"
  type: "ReLU"
  bottom: "fc7"
  top: "fc7"
}
layer {
  name: "drop7"
  type: "Dropout"
  bottom: "fc7"
  top: "fc7"
  dropout_param {
    dropout_ratio: 0.5
  }
}
layer {
  name: "fc8"
  type: "InnerProduct"
  bottom: "fc7"
  top: "fc8"
  inner_product_param {
    num_output: 1000
  }
}
layer {
  name: "prob"
  type: "Softmax"
  bottom: "fc8"
  top: "prob"
}
I0802 20:43:03.821552 32497 layer_factory.hpp:77] Creating layer data
I0802 20:43:03.821610 32497 net.cpp:91] Creating Layer data
I0802 20:43:03.821635 32497 net.cpp:399] data -> data
I0802 20:43:03.822042 32487 upgrade_proto.cpp:66] Attempting to upgrade input file specified using deprecated input fields: /tmp/cvld3025376402826937730/s2vt.words_to_preds.prototxt
I0802 20:43:03.822078 32487 upgrade_proto.cpp:69] Successfully upgraded file specified using deprecated input fields.
W0802 20:43:03.822087 32487 upgrade_proto.cpp:71] Note that future Caffe releases will only support input layers and not input fields.
I0802 20:43:03.822345 32487 net.cpp:49] Initializing net from parameters: 
name: "s2vt:features_to_lstm"
state {
  phase: TEST
}
layer {
  name: "input"
  type: "Input"
  top: "frames_fc7"
  top: "cont_sentence"
  top: "input_sentence"
  top: "stage_indicator"
  input_param {
    shape {
      dim: 1
      dim: 4096
    }
    shape {
      dim: 1
      dim: 1
    }
    shape {
      dim: 1
      dim: 1
    }
    shape {
      dim: 1
      dim: 1
    }
  }
}
layer {
  name: "embed_encoder"
  type: "InnerProduct"
  bottom: "frames_fc7"
  top: "embedded_in_frames"
  param {
    lr_mult: 1
    decay_mult: 1
  }
  param {
    lr_mult: 2
    decay_mult: 0
  }
  inner_product_param {
    num_output: 500
    weight_filler {
      type: "xavier"
    }
    bias_filler {
      type: "constant"
      value: 0.2
    }
  }
}
layer {
  name: "reshape_frames"
  type: "Reshape"
  bottom: "embedded_in_frames"
  top: "embedded_input_frames"
  reshape_param {
    shape {
      dim: 1
      dim: 1
      dim: 500
    }
  }
}
layer {
  name: "reshape_stage_indicator"
  type: "Reshape"
  bottom: "stage_indicator"
  top: "reshaped_stage_indicator"
  reshape_param {
    shape {
      dim: 1
      dim: 1
      dim: 1
    }
  }
}
layer {
  name: "embedding"
  type: "Embed"
  bottom: "input_sentence"
  top: "embedded_input_sentence"
  param {
    lr_mult: 1
  }
  embed_param {
    num_output: 500
    input_dim: 46168
    bias_term: false
    weight_filler {
      type: "uniform"
      min: -0.08
      max: 0.08
    }
  }
}
layer {
  name: "lstm1"
  type: "LSTM"
  bottom: "embedded_input_frames"
  bottom: "cont_sentence"
  top: "lstm1"
  recurrent_param {
    num_output: 1000
    weight_filler {
      type: "uniform"
      min: -0.08
      max: 0.08
    }
    bias_filler {
      type: "constant"
      value: 0
    }
  }
}
layer {
  name: "concat"
  type: "Concat"
  bottom: "lstm1"
  bottom: "embedded_input_sentence"
  bottom: "reshaped_stage_indicator"
  top: "lstm1_video_sequence"
  concat_param {
    concat_dim: 2
  }
}
layer {
  name: "lstm2"
  type: "LSTM"
  bottom: "lstm1_video_sequence"
  bottom: "cont_sentence"
  top: "lstm2"
  recurrent_param {
    num_output: 1000
    weight_filler {
      type: "uniform"
      min: -0.08
      max: 0.08
    }
    bias_filler {
      type: "constant"
      value: 0
    }
  }
}
layer {
  name: "predict"
  type: "InnerProduct"
  bottom: "lstm2"
  top: "predict"
  param {
    lr_mult: 1
    decay_mult: 1
  }
  param {
    lr_mult: 2
    decay_mult: 0
  }
  inner_product_param {
    num_output: 46168
    weight_filler {
      type: "uniform"
      min: -0.08
      max: 0.08
    }
    bias_filler {
      type: "constant"
      value: 0
    }
    axis: 2
  }
}
layer {
  name: "probs"
  type: "Softmax"
  bottom: "predict"
  top: "probs"
  softmax_param {
    axis: 2
  }
}
I0802 20:43:03.822464 32487 layer_factory.hpp:77] Creating layer input
I0802 20:43:03.822477 32487 net.cpp:91] Creating Layer input
I0802 20:43:03.822484 32487 net.cpp:399] input -> frames_fc7
I0802 20:43:03.822497 32487 net.cpp:399] input -> cont_sentence
I0802 20:43:03.822511 32487 net.cpp:399] input -> input_sentence
I0802 20:43:03.822522 32487 net.cpp:399] input -> stage_indicator
I0802 20:43:05.904896 32497 net.cpp:141] Setting up data
I0802 20:43:05.904989 32487 net.cpp:141] Setting up input
I0802 20:43:05.905024 32487 net.cpp:148] Top shape: 1 4096 (4096)
I0802 20:43:05.905025 32497 net.cpp:148] Top shape: 10 3 227 227 (1545870)
I0802 20:43:05.905041 32487 net.cpp:148] Top shape: 1 1 (1)
I0802 20:43:05.905051 32487 net.cpp:148] Top shape: 1 1 (1)
I0802 20:43:05.905045 32497 net.cpp:156] Memory required for data: 6183480
I0802 20:43:05.905058 32487 net.cpp:148] Top shape: 1 1 (1)
I0802 20:43:05.905063 32487 net.cpp:156] Memory required for data: 16396
I0802 20:43:05.905078 32487 layer_factory.hpp:77] Creating layer cont_sentence_input_1_split
I0802 20:43:05.905078 32497 layer_factory.hpp:77] Creating layer conv1
I0802 20:43:05.905112 32487 net.cpp:91] Creating Layer cont_sentence_input_1_split
I0802 20:43:05.905118 32497 net.cpp:91] Creating Layer conv1
I0802 20:43:05.905123 32487 net.cpp:425] cont_sentence_input_1_split <- cont_sentence
I0802 20:43:05.905125 32497 net.cpp:425] conv1 <- data
I0802 20:43:05.905140 32497 net.cpp:399] conv1 -> conv1
I0802 20:43:05.905151 32487 net.cpp:399] cont_sentence_input_1_split -> cont_sentence_input_1_split_0
I0802 20:43:05.905165 32487 net.cpp:399] cont_sentence_input_1_split -> cont_sentence_input_1_split_1
I0802 20:43:05.905220 32487 net.cpp:141] Setting up cont_sentence_input_1_split
I0802 20:43:05.905233 32487 net.cpp:148] Top shape: 1 1 (1)
I0802 20:43:05.905241 32487 net.cpp:148] Top shape: 1 1 (1)
I0802 20:43:05.905246 32487 net.cpp:156] Memory required for data: 16404
I0802 20:43:05.905251 32487 layer_factory.hpp:77] Creating layer embed_encoder
I0802 20:43:05.905272 32487 net.cpp:91] Creating Layer embed_encoder
I0802 20:43:05.905277 32487 net.cpp:425] embed_encoder <- frames_fc7
I0802 20:43:05.905288 32487 net.cpp:399] embed_encoder -> embedded_in_frames
I0802 20:43:05.957661 32487 net.cpp:141] Setting up embed_encoder
I0802 20:43:05.957720 32487 net.cpp:148] Top shape: 1 500 (500)
I0802 20:43:05.957731 32487 net.cpp:156] Memory required for data: 18404
I0802 20:43:05.957765 32487 layer_factory.hpp:77] Creating layer reshape_frames
I0802 20:43:05.957815 32487 net.cpp:91] Creating Layer reshape_frames
I0802 20:43:05.957828 32487 net.cpp:425] reshape_frames <- embedded_in_frames
I0802 20:43:05.957844 32487 net.cpp:399] reshape_frames -> embedded_input_frames
I0802 20:43:05.961856 32487 net.cpp:141] Setting up reshape_frames
I0802 20:43:05.961886 32487 net.cpp:148] Top shape: 1 1 500 (500)
I0802 20:43:05.961894 32487 net.cpp:156] Memory required for data: 20404
I0802 20:43:05.961904 32487 layer_factory.hpp:77] Creating layer reshape_stage_indicator
I0802 20:43:05.961922 32487 net.cpp:91] Creating Layer reshape_stage_indicator
I0802 20:43:05.961931 32487 net.cpp:425] reshape_stage_indicator <- stage_indicator
I0802 20:43:05.961946 32487 net.cpp:399] reshape_stage_indicator -> reshaped_stage_indicator
I0802 20:43:05.969276 32487 net.cpp:141] Setting up reshape_stage_indicator
I0802 20:43:05.969305 32487 net.cpp:148] Top shape: 1 1 1 (1)
I0802 20:43:05.969313 32487 net.cpp:156] Memory required for data: 20408
I0802 20:43:05.969326 32487 layer_factory.hpp:77] Creating layer embedding
I0802 20:43:05.969347 32487 net.cpp:91] Creating Layer embedding
I0802 20:43:05.969354 32487 net.cpp:425] embedding <- input_sentence
I0802 20:43:05.969368 32487 net.cpp:399] embedding -> embedded_input_sentence
I0802 20:43:06.212121 32497 net.cpp:141] Setting up conv1
I0802 20:43:06.212173 32497 net.cpp:148] Top shape: 10 96 55 55 (2904000)
I0802 20:43:06.212180 32497 net.cpp:156] Memory required for data: 17799480
I0802 20:43:06.212204 32497 layer_factory.hpp:77] Creating layer relu1
I0802 20:43:06.212225 32497 net.cpp:91] Creating Layer relu1
I0802 20:43:06.212232 32497 net.cpp:425] relu1 <- conv1
I0802 20:43:06.212240 32497 net.cpp:386] relu1 -> conv1 (in-place)
I0802 20:43:06.212657 32497 net.cpp:141] Setting up relu1
I0802 20:43:06.212671 32497 net.cpp:148] Top shape: 10 96 55 55 (2904000)
I0802 20:43:06.212677 32497 net.cpp:156] Memory required for data: 29415480
I0802 20:43:06.212682 32497 layer_factory.hpp:77] Creating layer pool1
I0802 20:43:06.212700 32497 net.cpp:91] Creating Layer pool1
I0802 20:43:06.212707 32497 net.cpp:425] pool1 <- conv1
I0802 20:43:06.212714 32497 net.cpp:399] pool1 -> pool1
I0802 20:43:06.212795 32497 net.cpp:141] Setting up pool1
I0802 20:43:06.212806 32497 net.cpp:148] Top shape: 10 96 27 27 (699840)
I0802 20:43:06.212810 32497 net.cpp:156] Memory required for data: 32214840
I0802 20:43:06.212818 32497 layer_factory.hpp:77] Creating layer norm1
I0802 20:43:06.212837 32497 net.cpp:91] Creating Layer norm1
I0802 20:43:06.212842 32497 net.cpp:425] norm1 <- pool1
I0802 20:43:06.212849 32497 net.cpp:399] norm1 -> norm1
I0802 20:43:06.213304 32497 net.cpp:141] Setting up norm1
I0802 20:43:06.213320 32497 net.cpp:148] Top shape: 10 96 27 27 (699840)
I0802 20:43:06.213325 32497 net.cpp:156] Memory required for data: 35014200
I0802 20:43:06.213330 32497 layer_factory.hpp:77] Creating layer conv2
I0802 20:43:06.213347 32497 net.cpp:91] Creating Layer conv2
I0802 20:43:06.213353 32497 net.cpp:425] conv2 <- norm1
I0802 20:43:06.213361 32497 net.cpp:399] conv2 -> conv2
I0802 20:43:06.216589 32497 net.cpp:141] Setting up conv2
I0802 20:43:06.216608 32497 net.cpp:148] Top shape: 10 256 27 27 (1866240)
I0802 20:43:06.216612 32497 net.cpp:156] Memory required for data: 42479160
I0802 20:43:06.216626 32497 layer_factory.hpp:77] Creating layer relu2
I0802 20:43:06.216635 32497 net.cpp:91] Creating Layer relu2
I0802 20:43:06.216640 32497 net.cpp:425] relu2 <- conv2
I0802 20:43:06.216647 32497 net.cpp:386] relu2 -> conv2 (in-place)
I0802 20:43:06.217090 32497 net.cpp:141] Setting up relu2
I0802 20:43:06.217104 32497 net.cpp:148] Top shape: 10 256 27 27 (1866240)
I0802 20:43:06.217109 32497 net.cpp:156] Memory required for data: 49944120
I0802 20:43:06.217115 32497 layer_factory.hpp:77] Creating layer pool2
I0802 20:43:06.217125 32497 net.cpp:91] Creating Layer pool2
I0802 20:43:06.217130 32497 net.cpp:425] pool2 <- conv2
I0802 20:43:06.217141 32497 net.cpp:399] pool2 -> pool2
I0802 20:43:06.217201 32497 net.cpp:141] Setting up pool2
I0802 20:43:06.217212 32497 net.cpp:148] Top shape: 10 256 13 13 (432640)
I0802 20:43:06.217216 32497 net.cpp:156] Memory required for data: 51674680
I0802 20:43:06.217221 32497 layer_factory.hpp:77] Creating layer norm2
I0802 20:43:06.217239 32497 net.cpp:91] Creating Layer norm2
I0802 20:43:06.217244 32497 net.cpp:425] norm2 <- pool2
I0802 20:43:06.217254 32497 net.cpp:399] norm2 -> norm2
I0802 20:43:06.217540 32497 net.cpp:141] Setting up norm2
I0802 20:43:06.217553 32497 net.cpp:148] Top shape: 10 256 13 13 (432640)
I0802 20:43:06.217558 32497 net.cpp:156] Memory required for data: 53405240
I0802 20:43:06.217564 32497 layer_factory.hpp:77] Creating layer conv3
I0802 20:43:06.217581 32497 net.cpp:91] Creating Layer conv3
I0802 20:43:06.217586 32497 net.cpp:425] conv3 <- norm2
I0802 20:43:06.217595 32497 net.cpp:399] conv3 -> conv3
I0802 20:43:06.221442 32497 net.cpp:141] Setting up conv3
I0802 20:43:06.221458 32497 net.cpp:148] Top shape: 10 384 13 13 (648960)
I0802 20:43:06.221463 32497 net.cpp:156] Memory required for data: 56001080
I0802 20:43:06.221480 32497 layer_factory.hpp:77] Creating layer relu3
I0802 20:43:06.221492 32497 net.cpp:91] Creating Layer relu3
I0802 20:43:06.221496 32497 net.cpp:425] relu3 <- conv3
I0802 20:43:06.221505 32497 net.cpp:386] relu3 -> conv3 (in-place)
I0802 20:43:06.221927 32497 net.cpp:141] Setting up relu3
I0802 20:43:06.221941 32497 net.cpp:148] Top shape: 10 384 13 13 (648960)
I0802 20:43:06.221946 32497 net.cpp:156] Memory required for data: 58596920
I0802 20:43:06.221951 32497 layer_factory.hpp:77] Creating layer conv4
I0802 20:43:06.221969 32497 net.cpp:91] Creating Layer conv4
I0802 20:43:06.221974 32497 net.cpp:425] conv4 <- conv3
I0802 20:43:06.221983 32497 net.cpp:399] conv4 -> conv4
I0802 20:43:06.226192 32497 net.cpp:141] Setting up conv4
I0802 20:43:06.226208 32497 net.cpp:148] Top shape: 10 384 13 13 (648960)
I0802 20:43:06.226214 32497 net.cpp:156] Memory required for data: 61192760
I0802 20:43:06.226224 32497 layer_factory.hpp:77] Creating layer relu4
I0802 20:43:06.226238 32497 net.cpp:91] Creating Layer relu4
I0802 20:43:06.226244 32497 net.cpp:425] relu4 <- conv4
I0802 20:43:06.226253 32497 net.cpp:386] relu4 -> conv4 (in-place)
I0802 20:43:06.226680 32497 net.cpp:141] Setting up relu4
I0802 20:43:06.226694 32497 net.cpp:148] Top shape: 10 384 13 13 (648960)
I0802 20:43:06.226699 32497 net.cpp:156] Memory required for data: 63788600
I0802 20:43:06.226708 32497 layer_factory.hpp:77] Creating layer conv5
I0802 20:43:06.226727 32497 net.cpp:91] Creating Layer conv5
I0802 20:43:06.226732 32497 net.cpp:425] conv5 <- conv4
I0802 20:43:06.226742 32497 net.cpp:399] conv5 -> conv5
I0802 20:43:06.226801 32487 net.cpp:141] Setting up embedding
I0802 20:43:06.226845 32487 net.cpp:148] Top shape: 1 1 500 (500)
I0802 20:43:06.226850 32487 net.cpp:156] Memory required for data: 22408
I0802 20:43:06.226867 32487 layer_factory.hpp:77] Creating layer lstm1
I0802 20:43:06.226907 32487 net.cpp:91] Creating Layer lstm1
I0802 20:43:06.226915 32487 net.cpp:425] lstm1 <- embedded_input_frames
I0802 20:43:06.226927 32487 net.cpp:425] lstm1 <- cont_sentence_input_1_split_0
I0802 20:43:06.226936 32487 net.cpp:399] lstm1 -> lstm1
I0802 20:43:06.226964 32487 recurrent_layer.cpp:20] Initializing recurrent layer: assuming input batch contains 1 timesteps of 1 independent streams.
I0802 20:43:06.227869 32487 net.cpp:49] Initializing net from parameters: 
layer {
  name: "lstm1_"
  type: "Input"
  top: "x"
  top: "cont"
  input_param {
    shape {
      dim: 1
      dim: 1
      dim: 500
    }
    shape {
      dim: 1
      dim: 1
    }
  }
}
layer {
  name: "lstm1_"
  type: "Input"
  top: "c_0"
  top: "h_0"
  input_param {
    shape {
      dim: 1
      dim: 1
      dim: 1000
    }
    shape {
      dim: 1
      dim: 1
      dim: 1000
    }
  }
}
layer {
  name: "lstm1_cont_slice"
  type: "Slice"
  bottom: "cont"
  top: "cont_1"
  slice_param {
    axis: 0
  }
}
layer {
  name: "lstm1_x_transform"
  type: "InnerProduct"
  bottom: "x"
  top: "W_xc_x"
  param {
    name: "W_xc"
  }
  param {
    name: "b_c"
  }
  propagate_down: true
  inner_product_param {
    num_output: 4000
    bias_term: true
    weight_filler {
      type: "uniform"
      min: -0.08
      max: 0.08
    }
    bias_filler {
      type: "constant"
      value: 0
    }
    axis: 2
  }
}
layer {
  name: "lstm1_W_xc_x_slice"
  type: "Slice"
  bottom: "W_xc_x"
  top: "W_xc_x_1"
  slice_param {
    axis: 0
  }
}
layer {
  name: "lstm1_h_conted_0"
  type: "Scale"
  bottom: "h_0"
  bottom: "cont_1"
  top: "h_conted_0"
  scale_param {
    axis: 0
  }
}
layer {
  name: "lstm1_transform_1"
  type: "InnerProduct"
  bottom: "h_conted_0"
  top: "W_hc_h_0"
  param {
    name: "W_hc"
  }
  inner_product_param {
    num_output: 4000
    bias_term: false
    weight_filler {
      type: "uniform"
      min: -0.08
      max: 0.08
    }
    axis: 2
  }
}
layer {
  name: "lstm1_gate_input_1"
  type: "Eltwise"
  bottom: "W_hc_h_0"
  bottom: "W_xc_x_1"
  top: "gate_input_1"
  eltwise_param {
    operation: SUM
  }
}
layer {
  name: "lstm1_unit_1"
  type: "LSTMUnit"
  bottom: "c_0"
  bottom: "gate_input_1"
  bottom: "cont_1"
  top: "c_1"
  top: "h_1"
}
layer {
  name: "lstm1_"
  type: "Split"
  bottom: "c_1"
  top: "c_T"
}
layer {
  name: "lstm1_h_concat"
  type: "Concat"
  bottom: "h_1"
  top: "h"
  concat_param {
    axis: 0
  }
}
layer {
  name: "h_pseudoloss"
  type: "Reduction"
  bottom: "h"
  top: "h_pseudoloss"
  loss_weight: 1
}
I0802 20:43:06.227987 32487 layer_factory.hpp:77] Creating layer lstm1_
I0802 20:43:06.228005 32487 net.cpp:91] Creating Layer lstm1_
I0802 20:43:06.228013 32487 net.cpp:399] lstm1_ -> x
I0802 20:43:06.228025 32487 net.cpp:399] lstm1_ -> cont
I0802 20:43:06.228129 32487 net.cpp:141] Setting up lstm1_
I0802 20:43:06.228142 32487 net.cpp:148] Top shape: 1 1 500 (500)
I0802 20:43:06.228149 32487 net.cpp:148] Top shape: 1 1 (1)
I0802 20:43:06.228153 32487 net.cpp:156] Memory required for data: 2004
I0802 20:43:06.228159 32487 layer_factory.hpp:77] Creating layer lstm1_
I0802 20:43:06.228171 32487 net.cpp:91] Creating Layer lstm1_
I0802 20:43:06.228178 32487 net.cpp:399] lstm1_ -> c_0
I0802 20:43:06.228188 32487 net.cpp:399] lstm1_ -> h_0
I0802 20:43:06.228250 32487 net.cpp:141] Setting up lstm1_
I0802 20:43:06.228260 32487 net.cpp:148] Top shape: 1 1 1000 (1000)
I0802 20:43:06.228266 32487 net.cpp:148] Top shape: 1 1 1000 (1000)
I0802 20:43:06.228271 32487 net.cpp:156] Memory required for data: 10004
I0802 20:43:06.228276 32487 layer_factory.hpp:77] Creating layer lstm1_cont_slice
I0802 20:43:06.228284 32487 net.cpp:91] Creating Layer lstm1_cont_slice
I0802 20:43:06.228289 32487 net.cpp:425] lstm1_cont_slice <- cont
I0802 20:43:06.228301 32487 net.cpp:399] lstm1_cont_slice -> cont_1
I0802 20:43:06.228394 32487 net.cpp:141] Setting up lstm1_cont_slice
I0802 20:43:06.228405 32487 net.cpp:148] Top shape: 1 1 (1)
I0802 20:43:06.228410 32487 net.cpp:156] Memory required for data: 10008
I0802 20:43:06.228415 32487 layer_factory.hpp:77] Creating layer cont_1_lstm1_cont_slice_0_split
I0802 20:43:06.228427 32487 net.cpp:91] Creating Layer cont_1_lstm1_cont_slice_0_split
I0802 20:43:06.228432 32487 net.cpp:425] cont_1_lstm1_cont_slice_0_split <- cont_1
I0802 20:43:06.228440 32487 net.cpp:399] cont_1_lstm1_cont_slice_0_split -> cont_1_lstm1_cont_slice_0_split_0
I0802 20:43:06.228448 32487 net.cpp:399] cont_1_lstm1_cont_slice_0_split -> cont_1_lstm1_cont_slice_0_split_1
I0802 20:43:06.228708 32487 net.cpp:141] Setting up cont_1_lstm1_cont_slice_0_split
I0802 20:43:06.228718 32487 net.cpp:148] Top shape: 1 1 (1)
I0802 20:43:06.228724 32487 net.cpp:148] Top shape: 1 1 (1)
I0802 20:43:06.228729 32487 net.cpp:156] Memory required for data: 10016
I0802 20:43:06.228734 32487 layer_factory.hpp:77] Creating layer lstm1_x_transform
I0802 20:43:06.228745 32487 net.cpp:91] Creating Layer lstm1_x_transform
I0802 20:43:06.228750 32487 net.cpp:425] lstm1_x_transform <- x
I0802 20:43:06.228762 32487 net.cpp:399] lstm1_x_transform -> W_xc_x
I0802 20:43:06.235322 32497 net.cpp:141] Setting up conv5
I0802 20:43:06.235342 32497 net.cpp:148] Top shape: 10 256 13 13 (432640)
I0802 20:43:06.235348 32497 net.cpp:156] Memory required for data: 65519160
I0802 20:43:06.235363 32497 layer_factory.hpp:77] Creating layer relu5
I0802 20:43:06.235371 32497 net.cpp:91] Creating Layer relu5
I0802 20:43:06.235376 32497 net.cpp:425] relu5 <- conv5
I0802 20:43:06.235383 32497 net.cpp:386] relu5 -> conv5 (in-place)
I0802 20:43:06.235838 32497 net.cpp:141] Setting up relu5
I0802 20:43:06.235852 32497 net.cpp:148] Top shape: 10 256 13 13 (432640)
I0802 20:43:06.235857 32497 net.cpp:156] Memory required for data: 67249720
I0802 20:43:06.235863 32497 layer_factory.hpp:77] Creating layer pool5
I0802 20:43:06.235873 32497 net.cpp:91] Creating Layer pool5
I0802 20:43:06.235879 32497 net.cpp:425] pool5 <- conv5
I0802 20:43:06.235890 32497 net.cpp:399] pool5 -> pool5
I0802 20:43:06.235956 32497 net.cpp:141] Setting up pool5
I0802 20:43:06.235966 32497 net.cpp:148] Top shape: 10 256 6 6 (92160)
I0802 20:43:06.235970 32497 net.cpp:156] Memory required for data: 67618360
I0802 20:43:06.235975 32497 layer_factory.hpp:77] Creating layer fc6
I0802 20:43:06.235993 32497 net.cpp:91] Creating Layer fc6
I0802 20:43:06.235999 32497 net.cpp:425] fc6 <- pool5
I0802 20:43:06.236006 32497 net.cpp:399] fc6 -> fc6
I0802 20:43:06.306413 32487 net.cpp:141] Setting up lstm1_x_transform
I0802 20:43:06.306434 32487 net.cpp:148] Top shape: 1 1 4000 (4000)
I0802 20:43:06.306439 32487 net.cpp:156] Memory required for data: 26016
I0802 20:43:06.306453 32487 layer_factory.hpp:77] Creating layer lstm1_W_xc_x_slice
I0802 20:43:06.306463 32487 net.cpp:91] Creating Layer lstm1_W_xc_x_slice
I0802 20:43:06.306469 32487 net.cpp:425] lstm1_W_xc_x_slice <- W_xc_x
I0802 20:43:06.306478 32487 net.cpp:399] lstm1_W_xc_x_slice -> W_xc_x_1
I0802 20:43:06.306522 32487 net.cpp:141] Setting up lstm1_W_xc_x_slice
I0802 20:43:06.306534 32487 net.cpp:148] Top shape: 1 1 4000 (4000)
I0802 20:43:06.306538 32487 net.cpp:156] Memory required for data: 42016
I0802 20:43:06.306543 32487 layer_factory.hpp:77] Creating layer lstm1_h_conted_0
I0802 20:43:06.306552 32487 net.cpp:91] Creating Layer lstm1_h_conted_0
I0802 20:43:06.306557 32487 net.cpp:425] lstm1_h_conted_0 <- h_0
I0802 20:43:06.306563 32487 net.cpp:425] lstm1_h_conted_0 <- cont_1_lstm1_cont_slice_0_split_0
I0802 20:43:06.306571 32487 net.cpp:399] lstm1_h_conted_0 -> h_conted_0
I0802 20:43:06.306663 32487 net.cpp:141] Setting up lstm1_h_conted_0
I0802 20:43:06.306674 32487 net.cpp:148] Top shape: 1 1 1000 (1000)
I0802 20:43:06.306679 32487 net.cpp:156] Memory required for data: 46016
I0802 20:43:06.306682 32487 layer_factory.hpp:77] Creating layer lstm1_transform_1
I0802 20:43:06.306692 32487 net.cpp:91] Creating Layer lstm1_transform_1
I0802 20:43:06.306697 32487 net.cpp:425] lstm1_transform_1 <- h_conted_0
I0802 20:43:06.306705 32487 net.cpp:399] lstm1_transform_1 -> W_hc_h_0
I0802 20:43:06.346055 32497 net.cpp:141] Setting up fc6
I0802 20:43:06.346104 32497 net.cpp:148] Top shape: 10 4096 (40960)
I0802 20:43:06.346110 32497 net.cpp:156] Memory required for data: 67782200
I0802 20:43:06.346132 32497 layer_factory.hpp:77] Creating layer relu6
I0802 20:43:06.346151 32497 net.cpp:91] Creating Layer relu6
I0802 20:43:06.346159 32497 net.cpp:425] relu6 <- fc6
I0802 20:43:06.346173 32497 net.cpp:386] relu6 -> fc6 (in-place)
I0802 20:43:06.346549 32497 net.cpp:141] Setting up relu6
I0802 20:43:06.346561 32497 net.cpp:148] Top shape: 10 4096 (40960)
I0802 20:43:06.346566 32497 net.cpp:156] Memory required for data: 67946040
I0802 20:43:06.346571 32497 layer_factory.hpp:77] Creating layer drop6
I0802 20:43:06.346597 32497 net.cpp:91] Creating Layer drop6
I0802 20:43:06.346603 32497 net.cpp:425] drop6 <- fc6
I0802 20:43:06.346611 32497 net.cpp:386] drop6 -> fc6 (in-place)
I0802 20:43:06.346668 32497 net.cpp:141] Setting up drop6
I0802 20:43:06.346678 32497 net.cpp:148] Top shape: 10 4096 (40960)
I0802 20:43:06.346683 32497 net.cpp:156] Memory required for data: 68109880
I0802 20:43:06.346688 32497 layer_factory.hpp:77] Creating layer fc7
I0802 20:43:06.346698 32497 net.cpp:91] Creating Layer fc7
I0802 20:43:06.346704 32497 net.cpp:425] fc7 <- fc6
I0802 20:43:06.346714 32497 net.cpp:399] fc7 -> fc7
I0802 20:43:06.379379 32487 net.cpp:141] Setting up lstm1_transform_1
I0802 20:43:06.379442 32487 net.cpp:148] Top shape: 1 1 4000 (4000)
I0802 20:43:06.379451 32487 net.cpp:156] Memory required for data: 62016
I0802 20:43:06.379473 32487 layer_factory.hpp:77] Creating layer lstm1_gate_input_1
I0802 20:43:06.379498 32487 net.cpp:91] Creating Layer lstm1_gate_input_1
I0802 20:43:06.379508 32487 net.cpp:425] lstm1_gate_input_1 <- W_hc_h_0
I0802 20:43:06.379518 32487 net.cpp:425] lstm1_gate_input_1 <- W_xc_x_1
I0802 20:43:06.379528 32487 net.cpp:399] lstm1_gate_input_1 -> gate_input_1
I0802 20:43:06.379609 32487 net.cpp:141] Setting up lstm1_gate_input_1
I0802 20:43:06.379623 32487 net.cpp:148] Top shape: 1 1 4000 (4000)
I0802 20:43:06.379629 32487 net.cpp:156] Memory required for data: 78016
I0802 20:43:06.379636 32487 layer_factory.hpp:77] Creating layer lstm1_unit_1
I0802 20:43:06.379649 32487 net.cpp:91] Creating Layer lstm1_unit_1
I0802 20:43:06.379657 32487 net.cpp:425] lstm1_unit_1 <- c_0
I0802 20:43:06.379663 32487 net.cpp:425] lstm1_unit_1 <- gate_input_1
I0802 20:43:06.379670 32487 net.cpp:425] lstm1_unit_1 <- cont_1_lstm1_cont_slice_0_split_1
I0802 20:43:06.379679 32487 net.cpp:399] lstm1_unit_1 -> c_1
I0802 20:43:06.379690 32487 net.cpp:399] lstm1_unit_1 -> h_1
I0802 20:43:06.379781 32487 net.cpp:141] Setting up lstm1_unit_1
I0802 20:43:06.379794 32487 net.cpp:148] Top shape: 1 1 1000 (1000)
I0802 20:43:06.379802 32487 net.cpp:148] Top shape: 1 1 1000 (1000)
I0802 20:43:06.379807 32487 net.cpp:156] Memory required for data: 86016
I0802 20:43:06.379813 32487 layer_factory.hpp:77] Creating layer lstm1_
I0802 20:43:06.379825 32487 net.cpp:91] Creating Layer lstm1_
I0802 20:43:06.379830 32487 net.cpp:425] lstm1_ <- c_1
I0802 20:43:06.379839 32487 net.cpp:399] lstm1_ -> c_T
I0802 20:43:06.379883 32487 net.cpp:141] Setting up lstm1_
I0802 20:43:06.379894 32487 net.cpp:148] Top shape: 1 1 1000 (1000)
I0802 20:43:06.379899 32487 net.cpp:156] Memory required for data: 90016
I0802 20:43:06.379905 32487 layer_factory.hpp:77] Creating layer lstm1_h_concat
I0802 20:43:06.379922 32487 net.cpp:91] Creating Layer lstm1_h_concat
I0802 20:43:06.379930 32487 net.cpp:425] lstm1_h_concat <- h_1
I0802 20:43:06.379938 32487 net.cpp:399] lstm1_h_concat -> h
I0802 20:43:06.379987 32487 net.cpp:141] Setting up lstm1_h_concat
I0802 20:43:06.379999 32487 net.cpp:148] Top shape: 1 1 1000 (1000)
I0802 20:43:06.380004 32487 net.cpp:156] Memory required for data: 94016
I0802 20:43:06.380010 32487 layer_factory.hpp:77] Creating layer h_pseudoloss
I0802 20:43:06.380035 32487 net.cpp:91] Creating Layer h_pseudoloss
I0802 20:43:06.380043 32487 net.cpp:425] h_pseudoloss <- h
I0802 20:43:06.380055 32487 net.cpp:399] h_pseudoloss -> h_pseudoloss
I0802 20:43:06.381798 32487 net.cpp:141] Setting up h_pseudoloss
…
I0802 20:43:06.381959 32487 net.cpp:219] lstm1_ does not need backward computation.
I0802 20:43:06.381964 32487 net.cpp:261] This network produces output c_T
I0802 20:43:06.381970 32487 net.cpp:261] This network produces output h_pseudoloss
I0802 20:43:06.381997 32487 net.cpp:274] Network initialization done.
I0802 20:43:06.382073 32487 recurrent_layer.cpp:150] Adding parameter 0: W_xc
I0802 20:43:06.382081 32487 recurrent_layer.cpp:150] Adding parameter 1: b_c
I0802 20:43:06.382087 32487 recurrent_layer.cpp:150] Adding parameter 2: W_hc
I0802 20:43:06.382233 32487 net.cpp:141] Setting up lstm1
I0802 20:43:06.382249 32487 net.cpp:148] Top shape: 1 1 1000 (1000)
I0802 20:43:06.382254 32487 net.cpp:156] Memory required for data: 26408
I0802 20:43:06.382273 32487 layer_factory.hpp:77] Creating layer concat
I0802 20:43:06.382285 32487 net.cpp:91] Creating Layer concat
I0802 20:43:06.382294 32487 net.cpp:425] concat <- lstm1
I0802 20:43:06.382302 32487 net.cpp:425] concat <- embedded_input_sentence
I0802 20:43:06.382310 32487 net.cpp:425] concat <- reshaped_stage_indicator
I0802 20:43:06.382318 32487 net.cpp:399] concat -> lstm1_video_sequence
I0802 20:43:06.382369 32487 net.cpp:141] Setting up concat
I0802 20:43:06.382381 32487 net.cpp:148] Top shape: 1 1 1501 (1501)
I0802 20:43:06.382386 32487 net.cpp:156] Memory required for data: 32412
I0802 20:43:06.382393 32487 layer_factory.hpp:77] Creating layer lstm2
I0802 20:43:06.382410 32487 net.cpp:91] Creating Layer lstm2
I0802 20:43:06.382416 32487 net.cpp:425] lstm2 <- lstm1_video_sequence
I0802 20:43:06.382423 32487 net.cpp:425] lstm2 <- cont_sentence_input_1_split_1
I0802 20:43:06.382432 32487 net.cpp:399] lstm2 -> lstm2
I0802 20:43:06.382447 32487 recurrent_layer.cpp:20] Initializing recurrent layer: assuming input batch contains 1 timesteps of 1 independent streams.
I0802 20:43:06.383070 32487 net.cpp:49] Initializing net from parameters: 
layer {
  name: "lstm2_"
  type: "Input"
  top: "x"
  top: "cont"
  input_param {
    shape {
      dim: 1
      dim: 1
      dim: 1501
    }
    shape {
      dim: 1
      dim: 1
    }
  }
}
layer {
  name: "lstm2_"
  type: "Input"
  top: "c_0"
  top: "h_0"
  input_param {
    shape {
      dim: 1
      dim: 1
      dim: 1000
    }
    shape {
      dim: 1
      dim: 1
      dim: 1000
    }
  }
}
layer {
  name: "lstm2_cont_slice"
  type: "Slice"
  bottom: "cont"
  top: "cont_1"
  slice_param {
    axis: 0
  }
}
layer {
  name: "lstm2_x_transform"
  type: "InnerProduct"
  bottom: "x"
  top: "W_xc_x"
  param {
    name: "W_xc"
  }
  param {
    name: "b_c"
  }
  propagate_down: true
  inner_product_param {
    num_output: 4000
    bias_term: true
    weight_filler {
      type: "uniform"
      min: -0.08
      max: 0.08
    }
    bias_filler {
      type: "constant"
      value: 0
    }
    axis: 2
  }
}
layer {
  name: "lstm2_W_xc_x_slice"
  type: "Slice"
  bottom: "W_xc_x"
  top: "W_xc_x_1"
  slice_param {
    axis: 0
  }
}
layer {
  name: "lstm2_h_conted_0"
  type: "Scale"
  bottom: "h_0"
  bottom: "cont_1"
  top: "h_conted_0"
  scale_param {
    axis: 0
  }
}
layer {
  name: "lstm2_transform_1"
  type: "InnerProduct"
  bottom: "h_conted_0"
  top: "W_hc_h_0"
  param {
    name: "W_hc"
  }
  inner_product_param {
    num_output: 4000
    bias_term: false
    weight_filler {
      type: "uniform"
      min: -0.08
      max: 0.08
    }
    axis: 2
  }
}
layer {
  name: "lstm2_gate_input_1"
  type: "Eltwise"
  bottom: "W_hc_h_0"
  bottom: "W_xc_x_1"
  top: "gate_input_1"
  eltwise_param {
    operation: SUM
  }
}
layer {
  name: "lstm2_unit_1"
  type: "LSTMUnit"
  bottom: "c_0"
  bottom: "gate_input_1"
  bottom: "cont_1"
  top: "c_1"
  top: "h_1"
}
layer {
  name: "lstm2_"
  type: "Split"
  bottom: "c_1"
  top: "c_T"
}
layer {
  name: "lstm2_h_concat"
  type: "Concat"
  bottom: "h_1"
  top: "h"
  concat_param {
    axis: 0
  }
}
layer {
  name: "h_pseudoloss"
  type: "Reduction"
  bottom: "h"
  top: "h_pseudoloss"
  loss_weight: 1
}
I0802 20:43:06.383189 32487 layer_factory.hpp:77] Creating layer lstm2_
I0802 20:43:06.383205 32487 net.cpp:91] Creating Layer lstm2_
I0802 20:43:06.383213 32487 net.cpp:399] lstm2_ -> x
I0802 20:43:06.383229 32487 net.cpp:399] lstm2_ -> cont
I0802 20:43:06.383303 32487 net.cpp:141] Setting up lstm2_
I0802 20:43:06.383316 32487 net.cpp:148] Top shape: 1 1 1501 (1501)
I0802 20:43:06.383324 32487 net.cpp:148] Top shape: 1 1 (1)
I0802 20:43:06.383329 32487 net.cpp:156] Memory required for data: 6008
I0802 20:43:06.383337 32487 layer_factory.hpp:77] Creating layer lstm2_
I0802 20:43:06.383347 32487 net.cpp:91] Creating Layer lstm2_
I0802 20:43:06.383354 32487 net.cpp:399] lstm2_ -> c_0
I0802 20:43:06.383368 32487 net.cpp:399] lstm2_ -> h_0
I0802 20:43:06.383433 32487 net.cpp:141] Setting up lstm2_
I0802 20:43:06.383445 32487 net.cpp:148] Top shape: 1 1 1000 (1000)
I0802 20:43:06.383453 32487 net.cpp:148] Top shape: 1 1 1000 (1000)
I0802 20:43:06.383458 32487 net.cpp:156] Memory required for data: 14008
I0802 20:43:06.383465 32487 layer_factory.hpp:77] Creating layer lstm2_cont_slice
I0802 20:43:06.383476 32487 net.cpp:91] Creating Layer lstm2_cont_slice
I0802 20:43:06.383482 32487 net.cpp:425] lstm2_cont_slice <- cont
I0802 20:43:06.383498 32487 net.cpp:399] lstm2_cont_slice -> cont_1
I0802 20:43:06.383544 32487 net.cpp:141] Setting up lstm2_cont_slice
I0802 20:43:06.383556 32487 net.cpp:148] Top shape: 1 1 (1)
I0802 20:43:06.383563 32487 net.cpp:156] Memory required for data: 14012
I0802 20:43:06.383569 32487 layer_factory.hpp:77] Creating layer cont_1_lstm2_cont_slice_0_split
I0802 20:43:06.383576 32487 net.cpp:91] Creating Layer cont_1_lstm2_cont_slice_0_split
I0802 20:43:06.383582 32487 net.cpp:425] cont_1_lstm2_cont_slice_0_split <- cont_1
I0802 20:43:06.383590 32487 net.cpp:399] cont_1_lstm2_cont_slice_0_split -> cont_1_lstm2_cont_slice_0_split_0
I0802 20:43:06.383601 32487 net.cpp:399] cont_1_lstm2_cont_slice_0_split -> cont_1_lstm2_cont_slice_0_split_1
I0802 20:43:06.383669 32487 net.cpp:141] Setting up cont_1_lstm2_cont_slice_0_split
I0802 20:43:06.383680 32487 net.cpp:148] Top shape: 1 1 (1)
I0802 20:43:06.383688 32487 net.cpp:148] Top shape: 1 1 (1)
I0802 20:43:06.383693 32487 net.cpp:156] Memory required for data: 14020
I0802 20:43:06.383700 32487 layer_factory.hpp:77] Creating layer lstm2_x_transform
I0802 20:43:06.383718 32487 net.cpp:91] Creating Layer lstm2_x_transform
I0802 20:43:06.383724 32487 net.cpp:425] lstm2_x_transform <- x
I0802 20:43:06.383734 32487 net.cpp:399] lstm2_x_transform -> W_xc_x
I0802 20:43:06.397866 32497 net.cpp:141] Setting up fc7
I0802 20:43:06.397927 32497 net.cpp:148] Top shape: 10 4096 (40960)
I0802 20:43:06.397933 32497 net.cpp:156] Memory required for data: 68273720
I0802 20:43:06.397953 32497 layer_factory.hpp:77] Creating layer relu7
I0802 20:43:06.397974 32497 net.cpp:91] Creating Layer relu7
I0802 20:43:06.397981 32497 net.cpp:425] relu7 <- fc7
I0802 20:43:06.397995 32497 net.cpp:386] relu7 -> fc7 (in-place)
I0802 20:43:06.398721 32497 net.cpp:141] Setting up relu7
I0802 20:43:06.398736 32497 net.cpp:148] Top shape: 10 4096 (40960)
I0802 20:43:06.398741 32497 net.cpp:156] Memory required for data: 68437560
I0802 20:43:06.398747 32497 layer_factory.hpp:77] Creating layer drop7
I0802 20:43:06.398761 32497 net.cpp:91] Creating Layer drop7
I0802 20:43:06.398766 32497 net.cpp:425] drop7 <- fc7
I0802 20:43:06.398777 32497 net.cpp:386] drop7 -> fc7 (in-place)
I0802 20:43:06.398824 32497 net.cpp:141] Setting up drop7
I0802 20:43:06.398834 32497 net.cpp:148] Top shape: 10 4096 (40960)
I0802 20:43:06.398839 32497 net.cpp:156] Memory required for data: 68601400
I0802 20:43:06.398844 32497 layer_factory.hpp:77] Creating layer fc8
I0802 20:43:06.398855 32497 net.cpp:91] Creating Layer fc8
I0802 20:43:06.398860 32497 net.cpp:425] fc8 <- fc7
I0802 20:43:06.398867 32497 net.cpp:399] fc8 -> fc8
I0802 20:43:06.411104 32497 net.cpp:141] Setting up fc8
I0802 20:43:06.411154 32497 net.cpp:148] Top shape: 10 1000 (10000)
I0802 20:43:06.411161 32497 net.cpp:156] Memory required for data: 68641400
I0802 20:43:06.411177 32497 layer_factory.hpp:77] Creating layer prob
I0802 20:43:06.411198 32497 net.cpp:91] Creating Layer prob
I0802 20:43:06.411206 32497 net.cpp:425] prob <- fc8
I0802 20:43:06.411217 32497 net.cpp:399] prob -> prob
I0802 20:43:06.411692 32497 net.cpp:141] Setting up prob
I0802 20:43:06.411705 32497 net.cpp:148] Top shape: 10 1000 (10000)
I0802 20:43:06.411710 32497 net.cpp:156] Memory required for data: 68681400
I0802 20:43:06.411716 32497 net.cpp:219] prob does not need backward computation.
I0802 20:43:06.411722 32497 net.cpp:219] fc8 does not need backward computation.
I0802 20:43:06.411727 32497 net.cpp:219] drop7 does not need backward computation.
I0802 20:43:06.411732 32497 net.cpp:219] relu7 does not need backward computation.
…
I0802 20:43:06.411819 32497 net.cpp:219] norm1 does not need backward computation.
I0802 20:43:06.411825 32497 net.cpp:219] pool1 does not need backward computation.
I0802 20:43:06.411830 32497 net.cpp:219] relu1 does not need backward computation.
I0802 20:43:06.411835 32497 net.cpp:219] conv1 does not need backward computation.
I0802 20:43:06.411840 32497 net.cpp:219] data does not need backward computation.
I0802 20:43:06.411844 32497 net.cpp:261] This network produces output prob
I0802 20:43:06.411867 32497 net.cpp:274] Network initialization done.
I0802 20:43:06.452972 32487 net.cpp:141] Setting up lstm2_x_transform
I0802 20:43:06.453018 32487 net.cpp:148] Top shape: 1 1 4000 (4000)
I0802 20:43:06.453024 32487 net.cpp:156] Memory required for data: 30020
I0802 20:43:06.453047 32487 layer_factory.hpp:77] Creating layer lstm2_W_xc_x_slice
I0802 20:43:06.453063 32487 net.cpp:91] Creating Layer lstm2_W_xc_x_slice
I0802 20:43:06.453069 32487 net.cpp:425] lstm2_W_xc_x_slice <- W_xc_x
I0802 20:43:06.453079 32487 net.cpp:399] lstm2_W_xc_x_slice -> W_xc_x_1
I0802 20:43:06.453135 32487 net.cpp:141] Setting up lstm2_W_xc_x_slice
I0802 20:43:06.453145 32487 net.cpp:148] Top shape: 1 1 4000 (4000)
I0802 20:43:06.453150 32487 net.cpp:156] Memory required for data: 46020
I0802 20:43:06.453155 32487 layer_factory.hpp:77] Creating layer lstm2_h_conted_0
I0802 20:43:06.453166 32487 net.cpp:91] Creating Layer lstm2_h_conted_0
I0802 20:43:06.453172 32487 net.cpp:425] lstm2_h_conted_0 <- h_0
I0802 20:43:06.453178 32487 net.cpp:425] lstm2_h_conted_0 <- cont_1_lstm2_cont_slice_0_split_0
I0802 20:43:06.453186 32487 net.cpp:399] lstm2_h_conted_0 -> h_conted_0
I0802 20:43:06.453294 32487 net.cpp:141] Setting up lstm2_h_conted_0
I0802 20:43:06.453304 32487 net.cpp:148] Top shape: 1 1 1000 (1000)
I0802 20:43:06.453308 32487 net.cpp:156] Memory required for data: 50020
I0802 20:43:06.453313 32487 layer_factory.hpp:77] Creating layer lstm2_transform_1
I0802 20:43:06.453327 32487 net.cpp:91] Creating Layer lstm2_transform_1
I0802 20:43:06.453332 32487 net.cpp:425] lstm2_transform_1 <- h_conted_0
I0802 20:43:06.453344 32487 net.cpp:399] lstm2_transform_1 -> W_hc_h_0
I0802 20:43:06.496613 32487 net.cpp:141] Setting up lstm2_transform_1
I0802 20:43:06.496654 32487 net.cpp:148] Top shape: 1 1 4000 (4000)
I0802 20:43:06.496659 32487 net.cpp:156] Memory required for data: 66020
I0802 20:43:06.496680 32487 layer_factory.hpp:77] Creating layer lstm2_gate_input_1
I0802 20:43:06.496700 32487 net.cpp:91] Creating Layer lstm2_gate_input_1
I0802 20:43:06.496706 32487 net.cpp:425] lstm2_gate_input_1 <- W_hc_h_0
I0802 20:43:06.496716 32487 net.cpp:425] lstm2_gate_input_1 <- W_xc_x_1
I0802 20:43:06.496727 32487 net.cpp:399] lstm2_gate_input_1 -> gate_input_1
I0802 20:43:06.496781 32487 net.cpp:141] Setting up lstm2_gate_input_1
I0802 20:43:06.496795 32487 net.cpp:148] Top shape: 1 1 4000 (4000)
I0802 20:43:06.496800 32487 net.cpp:156] Memory required for data: 82020
I0802 20:43:06.496805 32487 layer_factory.hpp:77] Creating layer lstm2_unit_1
I0802 20:43:06.496816 32487 net.cpp:91] Creating Layer lstm2_unit_1
I0802 20:43:06.496822 32487 net.cpp:425] lstm2_unit_1 <- c_0
I0802 20:43:06.496829 32487 net.cpp:425] lstm2_unit_1 <- gate_input_1
I0802 20:43:06.496834 32487 net.cpp:425] lstm2_unit_1 <- cont_1_lstm2_cont_slice_0_split_1
I0802 20:43:06.496840 32487 net.cpp:399] lstm2_unit_1 -> c_1
I0802 20:43:06.496850 32487 net.cpp:399] lstm2_unit_1 -> h_1
I0802 20:43:06.496920 32487 net.cpp:141] Setting up lstm2_unit_1
I0802 20:43:06.496930 32487 net.cpp:148] Top shape: 1 1 1000 (1000)
I0802 20:43:06.496937 32487 net.cpp:148] Top shape: 1 1 1000 (1000)
I0802 20:43:06.496942 32487 net.cpp:156] Memory required for data: 90020
I0802 20:43:06.496947 32487 layer_factory.hpp:77] Creating layer lstm2_
I0802 20:43:06.496955 32487 net.cpp:91] Creating Layer lstm2_
I0802 20:43:06.496960 32487 net.cpp:425] lstm2_ <- c_1
I0802 20:43:06.496969 32487 net.cpp:399] lstm2_ -> c_T
I0802 20:43:06.497004 32487 net.cpp:141] Setting up lstm2_
I0802 20:43:06.497014 32487 net.cpp:148] Top shape: 1 1 1000 (1000)
I0802 20:43:06.497019 32487 net.cpp:156] Memory required for data: 94020
I0802 20:43:06.497025 32487 layer_factory.hpp:77] Creating layer lstm2_h_concat
I0802 20:43:06.497042 32487 net.cpp:91] Creating Layer lstm2_h_concat
I0802 20:43:06.497047 32487 net.cpp:425] lstm2_h_concat <- h_1
I0802 20:43:06.497056 32487 net.cpp:399] lstm2_h_concat -> h
I0802 20:43:06.497097 32487 net.cpp:141] Setting up lstm2_h_concat
I0802 20:43:06.497107 32487 net.cpp:148] Top shape: 1 1 1000 (1000)
I0802 20:43:06.497110 32487 net.cpp:156] Memory required for data: 98020
I0802 20:43:06.497115 32487 layer_factory.hpp:77] Creating layer h_pseudoloss
I0802 20:43:06.497125 32487 net.cpp:91] Creating Layer h_pseudoloss
I0802 20:43:06.497130 32487 net.cpp:425] h_pseudoloss <- h
I0802 20:43:06.497141 32487 net.cpp:399] h_pseudoloss -> h_pseudoloss
I0802 20:43:06.497256 32487 net.cpp:141] Setting up h_pseudoloss
…
