…
Java HotSpot(TM) 64-Bit Server VM warning: You have loaded library /tmp/cvld5441637714970202431/libopencv_java310.xine1.so which might have disabled stack guard. The VM will try to fix the stack guard now.
It's highly recommended that you fix the library with 'execstack -c <libfile>', or link it with '-z noexecstack'.
WARNING: Logging before InitGoogleLogging() is written to STDERR
I0801 00:28:48.821434  6812 net.cpp:49] Initializing net from parameters: 
name: "CaffeNet"
state {
  phase: TEST
}
layer {
  name: "data"
  type: "Input"
  top: "data"
  input_param {
    shape {
      dim: 10
      dim: 3
      dim: 227
      dim: 227
    }
  }
}
layer {
  name: "conv1"
  type: "Convolution"
  bottom: "data"
  top: "conv1"
  convolution_param {
    num_output: 96
    kernel_size: 11
    stride: 4
  }
}
layer {
  name: "relu1"
  type: "ReLU"
  bottom: "conv1"
  top: "conv1"
}
layer {
  name: "pool1"
  type: "Pooling"
  bottom: "conv1"
  top: "pool1"
  pooling_param {
    pool: MAX
    kernel_size: 3
    stride: 2
  }
}
layer {
  name: "norm1"
  type: "LRN"
  bottom: "pool1"
  top: "norm1"
  lrn_param {
    local_size: 5
    alpha: 0.0001
    beta: 0.75
  }
}
layer {
  name: "conv2"
  type: "Convolution"
  bottom: "norm1"
  top: "conv2"
  convolution_param {
    num_output: 256
    pad: 2
    kernel_size: 5
    group: 2
  }
}
layer {
  name: "relu2"
  type: "ReLU"
  bottom: "conv2"
  top: "conv2"
}
layer {
  name: "pool2"
  type: "Pooling"
  bottom: "conv2"
  top: "pool2"
  pooling_param {
    pool: MAX
    kernel_size: 3
    stride: 2
  }
}
layer {
  name: "norm2"
  type: "LRN"
  bottom: "pool2"
  top: "norm2"
  lrn_param {
    local_size: 5
    alpha: 0.0001
    beta: 0.75
  }
}
layer {
  name: "conv3"
  type: "Convolution"
  bottom: "norm2"
  top: "conv3"
  convolution_param {
    num_output: 384
    pad: 1
    kernel_size: 3
  }
}
layer {
  name: "relu3"
  type: "ReLU"
  bottom: "conv3"
  top: "conv3"
}
layer {
  name: "conv4"
  type: "Convolution"
  bottom: "conv3"
  top: "conv4"
  convolution_param {
    num_output: 384
    pad: 1
    kernel_size: 3
    group: 2
  }
}
layer {
  name: "relu4"
  type: "ReLU"
  bottom: "conv4"
  top: "conv4"
}
layer {
  name: "conv5"
  type: "Convolution"
  bottom: "conv4"
  top: "conv5"
  convolution_param {
    num_output: 256
    pad: 1
    kernel_size: 3
    group: 2
  }
}
layer {
  name: "relu5"
  type: "ReLU"
  bottom: "conv5"
  top: "conv5"
}
layer {
  name: "pool5"
  type: "Pooling"
  bottom: "conv5"
  top: "pool5"
  pooling_param {
    pool: MAX
    kernel_size: 3
    stride: 2
  }
}
layer {
  name: "fc6"
  type: "InnerProduct"
  bottom: "pool5"
  top: "fc6"
  inner_product_param {
    num_output: 4096
  }
}
layer {
  name: "relu6"
  type: "ReLU"
  bottom: "fc6"
  top: "fc6"
}
layer {
  name: "drop6"
  type: "Dropout"
  bottom: "fc6"
  top: "fc6"
  dropout_param {
    dropout_ratio: 0.5
  }
}
layer {
  name: "fc7"
  type: "InnerProduct"
  bottom: "fc6"
  top: "fc7"
  inner_product_param {
    num_output: 4096
  }
}
layer {
  name: "relu7"
  type: "ReLU"
  bottom: "fc7"
  top: "fc7"
}
layer {
  name: "drop7"
  type: "Dropout"
  bottom: "fc7"
  top: "fc7"
  dropout_param {
    dropout_ratio: 0.5
  }
}
layer {
  name: "fc8"
  type: "InnerProduct"
  bottom: "fc7"
  top: "fc8"
  inner_product_param {
    num_output: 1000
  }
}
layer {
  name: "prob"
  type: "Softmax"
  bottom: "fc8"
  top: "prob"
}
I0801 00:28:48.821666  6812 layer_factory.hpp:77] Creating layer data
I0801 00:28:48.821699  6812 net.cpp:91] Creating Layer data
I0801 00:28:48.821712  6812 net.cpp:399] data -> data
I0801 00:28:49.389338  6812 net.cpp:141] Setting up data
I0801 00:28:49.389446  6812 net.cpp:148] Top shape: 10 3 227 227 (1545870)
I0801 00:28:49.389454  6812 net.cpp:156] Memory required for data: 6183480
I0801 00:28:49.389477  6812 layer_factory.hpp:77] Creating layer conv1
I0801 00:28:49.389511  6812 net.cpp:91] Creating Layer conv1
I0801 00:28:49.389521  6812 net.cpp:425] conv1 <- data
I0801 00:28:49.389538  6812 net.cpp:399] conv1 -> conv1
I0801 00:28:49.583709  6802 upgrade_proto.cpp:66] Attempting to upgrade input file specified using deprecated input fields: /tmp/cvld5441637714970202431/s2vt.words_to_preds.prototxt
I0801 00:28:49.583770  6802 upgrade_proto.cpp:69] Successfully upgraded file specified using deprecated input fields.
W0801 00:28:49.583778  6802 upgrade_proto.cpp:71] Note that future Caffe releases will only support input layers and not input fields.
I0801 00:28:49.584089  6802 net.cpp:49] Initializing net from parameters: 
name: "s2vt:features_to_lstm"
state {
  phase: TEST
}
layer {
  name: "input"
  type: "Input"
  top: "frames_fc7"
  top: "cont_sentence"
  top: "input_sentence"
  top: "stage_indicator"
  input_param {
    shape {
      dim: 1
      dim: 4096
    }
    shape {
      dim: 1
      dim: 1
    }
    shape {
      dim: 1
      dim: 1
    }
    shape {
      dim: 1
      dim: 1
    }
  }
}
layer {
  name: "embed_encoder"
  type: "InnerProduct"
  bottom: "frames_fc7"
  top: "embedded_in_frames"
  param {
    lr_mult: 1
    decay_mult: 1
  }
  param {
    lr_mult: 2
    decay_mult: 0
  }
  inner_product_param {
    num_output: 500
    weight_filler {
      type: "xavier"
    }
    bias_filler {
      type: "constant"
      value: 0.2
    }
  }
}
layer {
  name: "reshape_frames"
  type: "Reshape"
  bottom: "embedded_in_frames"
  top: "embedded_input_frames"
  reshape_param {
    shape {
      dim: 1
      dim: 1
      dim: 500
    }
  }
}
layer {
  name: "reshape_stage_indicator"
  type: "Reshape"
  bottom: "stage_indicator"
  top: "reshaped_stage_indicator"
  reshape_param {
    shape {
      dim: 1
      dim: 1
      dim: 1
    }
  }
}
layer {
  name: "embedding"
  type: "Embed"
  bottom: "input_sentence"
  top: "embedded_input_sentence"
  param {
    lr_mult: 1
  }
  embed_param {
    num_output: 500
    input_dim: 46168
    bias_term: false
    weight_filler {
      type: "uniform"
      min: -0.08
      max: 0.08
    }
  }
}
layer {
  name: "lstm1"
  type: "LSTM"
  bottom: "embedded_input_frames"
  bottom: "cont_sentence"
  top: "lstm1"
  recurrent_param {
    num_output: 1000
    weight_filler {
      type: "uniform"
      min: -0.08
      max: 0.08
    }
    bias_filler {
      type: "constant"
      value: 0
    }
  }
}
layer {
  name: "concat"
  type: "Concat"
  bottom: "lstm1"
  bottom: "embedded_input_sentence"
  bottom: "reshaped_stage_indicator"
  top: "lstm1_video_sequence"
  concat_param {
    concat_dim: 2
  }
}
layer {
  name: "lstm2"
  type: "LSTM"
  bottom: "lstm1_video_sequence"
  bottom: "cont_sentence"
  top: "lstm2"
  recurrent_param {
    num_output: 1000
    weight_filler {
      type: "uniform"
      min: -0.08
      max: 0.08
    }
    bias_filler {
      type: "constant"
      value: 0
    }
  }
}
layer {
  name: "predict"
  type: "InnerProduct"
  bottom: "lstm2"
  top: "predict"
  param {
    lr_mult: 1
    decay_mult: 1
  }
  param {
    lr_mult: 2
    decay_mult: 0
  }
  inner_product_param {
    num_output: 46168
    weight_filler {
      type: "uniform"
      min: -0.08
      max: 0.08
    }
    bias_filler {
      type: "constant"
      value: 0
    }
    axis: 2
  }
}
layer {
  name: "probs"
  type: "Softmax"
  bottom: "predict"
  top: "probs"
  softmax_param {
    axis: 2
  }
}
I0801 00:28:49.584214  6802 layer_factory.hpp:77] Creating layer input
I0801 00:28:49.584233  6802 net.cpp:91] Creating Layer input
I0801 00:28:49.584242  6802 net.cpp:399] input -> frames_fc7
I0801 00:28:49.584264  6802 net.cpp:399] input -> cont_sentence
I0801 00:28:49.584275  6802 net.cpp:399] input -> input_sentence
I0801 00:28:49.584286  6802 net.cpp:399] input -> stage_indicator
I0801 00:28:49.592433  6802 net.cpp:141] Setting up input
I0801 00:28:49.592470  6802 net.cpp:148] Top shape: 1 4096 (4096)
I0801 00:28:49.592478  6802 net.cpp:148] Top shape: 1 1 (1)
I0801 00:28:49.592484  6802 net.cpp:148] Top shape: 1 1 (1)
I0801 00:28:49.592490  6802 net.cpp:148] Top shape: 1 1 (1)
I0801 00:28:49.592494  6802 net.cpp:156] Memory required for data: 16396
I0801 00:28:49.592504  6802 layer_factory.hpp:77] Creating layer cont_sentence_input_1_split
I0801 00:28:49.592530  6802 net.cpp:91] Creating Layer cont_sentence_input_1_split
I0801 00:28:49.592538  6802 net.cpp:425] cont_sentence_input_1_split <- cont_sentence
I0801 00:28:49.592568  6802 net.cpp:399] cont_sentence_input_1_split -> cont_sentence_input_1_split_0
I0801 00:28:49.592586  6802 net.cpp:399] cont_sentence_input_1_split -> cont_sentence_input_1_split_1
I0801 00:28:49.593610  6802 net.cpp:141] Setting up cont_sentence_input_1_split
I0801 00:28:49.593631  6802 net.cpp:148] Top shape: 1 1 (1)
I0801 00:28:49.593637  6802 net.cpp:148] Top shape: 1 1 (1)
I0801 00:28:49.593641  6802 net.cpp:156] Memory required for data: 16404
I0801 00:28:49.593647  6802 layer_factory.hpp:77] Creating layer embed_encoder
I0801 00:28:49.593672  6802 net.cpp:91] Creating Layer embed_encoder
I0801 00:28:49.593678  6802 net.cpp:425] embed_encoder <- frames_fc7
I0801 00:28:49.593688  6802 net.cpp:399] embed_encoder -> embedded_in_frames
I0801 00:28:49.623524  6802 net.cpp:141] Setting up embed_encoder
I0801 00:28:49.623574  6802 net.cpp:148] Top shape: 1 500 (500)
I0801 00:28:49.623581  6802 net.cpp:156] Memory required for data: 18404
I0801 00:28:49.623612  6802 layer_factory.hpp:77] Creating layer reshape_frames
I0801 00:28:49.623644  6802 net.cpp:91] Creating Layer reshape_frames
I0801 00:28:49.623654  6802 net.cpp:425] reshape_frames <- embedded_in_frames
I0801 00:28:49.623667  6802 net.cpp:399] reshape_frames -> embedded_input_frames
I0801 00:28:49.625838  6802 net.cpp:141] Setting up reshape_frames
I0801 00:28:49.625861  6802 net.cpp:148] Top shape: 1 1 500 (500)
I0801 00:28:49.625867  6802 net.cpp:156] Memory required for data: 20404
I0801 00:28:49.625872  6802 layer_factory.hpp:77] Creating layer reshape_stage_indicator
I0801 00:28:49.625888  6802 net.cpp:91] Creating Layer reshape_stage_indicator
I0801 00:28:49.625895  6802 net.cpp:425] reshape_stage_indicator <- stage_indicator
I0801 00:28:49.625905  6802 net.cpp:399] reshape_stage_indicator -> reshaped_stage_indicator
I0801 00:28:49.627789  6802 net.cpp:141] Setting up reshape_stage_indicator
I0801 00:28:49.627811  6802 net.cpp:148] Top shape: 1 1 1 (1)
I0801 00:28:49.627817  6802 net.cpp:156] Memory required for data: 20408
I0801 00:28:49.627822  6802 layer_factory.hpp:77] Creating layer embedding
I0801 00:28:49.627846  6802 net.cpp:91] Creating Layer embedding
I0801 00:28:49.627853  6802 net.cpp:425] embedding <- input_sentence
I0801 00:28:49.627863  6802 net.cpp:399] embedding -> embedded_input_sentence
I0801 00:28:49.693150  6812 net.cpp:141] Setting up conv1
I0801 00:28:49.693204  6812 net.cpp:148] Top shape: 10 96 55 55 (2904000)
I0801 00:28:49.693212  6812 net.cpp:156] Memory required for data: 17799480
I0801 00:28:49.693238  6812 layer_factory.hpp:77] Creating layer relu1
I0801 00:28:49.693259  6812 net.cpp:91] Creating Layer relu1
I0801 00:28:49.693267  6812 net.cpp:425] relu1 <- conv1
I0801 00:28:49.693277  6812 net.cpp:386] relu1 -> conv1 (in-place)
I0801 00:28:49.693791  6812 net.cpp:141] Setting up relu1
I0801 00:28:49.693809  6812 net.cpp:148] Top shape: 10 96 55 55 (2904000)
I0801 00:28:49.693814  6812 net.cpp:156] Memory required for data: 29415480
I0801 00:28:49.693820  6812 layer_factory.hpp:77] Creating layer pool1
I0801 00:28:49.693835  6812 net.cpp:91] Creating Layer pool1
I0801 00:28:49.693840  6812 net.cpp:425] pool1 <- conv1
I0801 00:28:49.693847  6812 net.cpp:399] pool1 -> pool1
I0801 00:28:49.693931  6812 net.cpp:141] Setting up pool1
I0801 00:28:49.693943  6812 net.cpp:148] Top shape: 10 96 27 27 (699840)
I0801 00:28:49.693948  6812 net.cpp:156] Memory required for data: 32214840
I0801 00:28:49.693953  6812 layer_factory.hpp:77] Creating layer norm1
I0801 00:28:49.693974  6812 net.cpp:91] Creating Layer norm1
I0801 00:28:49.693980  6812 net.cpp:425] norm1 <- pool1
I0801 00:28:49.693989  6812 net.cpp:399] norm1 -> norm1
I0801 00:28:49.694550  6812 net.cpp:141] Setting up norm1
I0801 00:28:49.694566  6812 net.cpp:148] Top shape: 10 96 27 27 (699840)
I0801 00:28:49.694571  6812 net.cpp:156] Memory required for data: 35014200
I0801 00:28:49.694576  6812 layer_factory.hpp:77] Creating layer conv2
I0801 00:28:49.694599  6812 net.cpp:91] Creating Layer conv2
I0801 00:28:49.694605  6812 net.cpp:425] conv2 <- norm1
I0801 00:28:49.694613  6812 net.cpp:399] conv2 -> conv2
I0801 00:28:49.698348  6812 net.cpp:141] Setting up conv2
I0801 00:28:49.698369  6812 net.cpp:148] Top shape: 10 256 27 27 (1866240)
I0801 00:28:49.698379  6812 net.cpp:156] Memory required for data: 42479160
I0801 00:28:49.698391  6812 layer_factory.hpp:77] Creating layer relu2
I0801 00:28:49.698401  6812 net.cpp:91] Creating Layer relu2
I0801 00:28:49.698406  6812 net.cpp:425] relu2 <- conv2
I0801 00:28:49.698415  6812 net.cpp:386] relu2 -> conv2 (in-place)
I0801 00:28:49.698936  6812 net.cpp:141] Setting up relu2
I0801 00:28:49.698951  6812 net.cpp:148] Top shape: 10 256 27 27 (1866240)
I0801 00:28:49.698957  6812 net.cpp:156] Memory required for data: 49944120
I0801 00:28:49.698962  6812 layer_factory.hpp:77] Creating layer pool2
I0801 00:28:49.698972  6812 net.cpp:91] Creating Layer pool2
I0801 00:28:49.698977  6812 net.cpp:425] pool2 <- conv2
I0801 00:28:49.698988  6812 net.cpp:399] pool2 -> pool2
I0801 00:28:49.699049  6812 net.cpp:141] Setting up pool2
I0801 00:28:49.699059  6812 net.cpp:148] Top shape: 10 256 13 13 (432640)
I0801 00:28:49.699064  6812 net.cpp:156] Memory required for data: 51674680
I0801 00:28:49.699069  6812 layer_factory.hpp:77] Creating layer norm2
I0801 00:28:49.699084  6812 net.cpp:91] Creating Layer norm2
I0801 00:28:49.699089  6812 net.cpp:425] norm2 <- pool2
I0801 00:28:49.699100  6812 net.cpp:399] norm2 -> norm2
I0801 00:28:49.699385  6812 net.cpp:141] Setting up norm2
I0801 00:28:49.699398  6812 net.cpp:148] Top shape: 10 256 13 13 (432640)
I0801 00:28:49.699404  6812 net.cpp:156] Memory required for data: 53405240
I0801 00:28:49.699409  6812 layer_factory.hpp:77] Creating layer conv3
I0801 00:28:49.699424  6812 net.cpp:91] Creating Layer conv3
I0801 00:28:49.699429  6812 net.cpp:425] conv3 <- norm2
I0801 00:28:49.699440  6812 net.cpp:399] conv3 -> conv3
I0801 00:28:49.703675  6812 net.cpp:141] Setting up conv3
I0801 00:28:49.703696  6812 net.cpp:148] Top shape: 10 384 13 13 (648960)
I0801 00:28:49.703701  6812 net.cpp:156] Memory required for data: 56001080
I0801 00:28:49.703719  6812 layer_factory.hpp:77] Creating layer relu3
I0801 00:28:49.703730  6812 net.cpp:91] Creating Layer relu3
I0801 00:28:49.703737  6812 net.cpp:425] relu3 <- conv3
I0801 00:28:49.703743  6812 net.cpp:386] relu3 -> conv3 (in-place)
I0801 00:28:49.704272  6812 net.cpp:141] Setting up relu3
I0801 00:28:49.704295  6812 net.cpp:148] Top shape: 10 384 13 13 (648960)
I0801 00:28:49.704300  6812 net.cpp:156] Memory required for data: 58596920
I0801 00:28:49.704306  6812 layer_factory.hpp:77] Creating layer conv4
I0801 00:28:49.704318  6812 net.cpp:91] Creating Layer conv4
I0801 00:28:49.704324  6812 net.cpp:425] conv4 <- conv3
I0801 00:28:49.704334  6812 net.cpp:399] conv4 -> conv4
I0801 00:28:49.708953  6812 net.cpp:141] Setting up conv4
I0801 00:28:49.708979  6812 net.cpp:148] Top shape: 10 384 13 13 (648960)
I0801 00:28:49.708986  6812 net.cpp:156] Memory required for data: 61192760
I0801 00:28:49.708995  6812 layer_factory.hpp:77] Creating layer relu4
I0801 00:28:49.709009  6812 net.cpp:91] Creating Layer relu4
I0801 00:28:49.709015  6812 net.cpp:425] relu4 <- conv4
I0801 00:28:49.709027  6812 net.cpp:386] relu4 -> conv4 (in-place)
I0801 00:28:49.709527  6812 net.cpp:141] Setting up relu4
I0801 00:28:49.709542  6812 net.cpp:148] Top shape: 10 384 13 13 (648960)
I0801 00:28:49.709547  6812 net.cpp:156] Memory required for data: 63788600
I0801 00:28:49.709553  6812 layer_factory.hpp:77] Creating layer conv5
I0801 00:28:49.709568  6812 net.cpp:91] Creating Layer conv5
I0801 00:28:49.709573  6812 net.cpp:425] conv5 <- conv4
I0801 00:28:49.709581  6812 net.cpp:399] conv5 -> conv5
I0801 00:28:49.713976  6812 net.cpp:141] Setting up conv5
I0801 00:28:49.713997  6812 net.cpp:148] Top shape: 10 256 13 13 (432640)
I0801 00:28:49.714002  6812 net.cpp:156] Memory required for data: 65519160
I0801 00:28:49.714022  6812 layer_factory.hpp:77] Creating layer relu5
I0801 00:28:49.714032  6812 net.cpp:91] Creating Layer relu5
I0801 00:28:49.714038  6812 net.cpp:425] relu5 <- conv5
I0801 00:28:49.714047  6812 net.cpp:386] relu5 -> conv5 (in-place)
I0801 00:28:49.714560  6812 net.cpp:141] Setting up relu5
I0801 00:28:49.714576  6812 net.cpp:148] Top shape: 10 256 13 13 (432640)
I0801 00:28:49.714581  6812 net.cpp:156] Memory required for data: 67249720
I0801 00:28:49.714586  6812 layer_factory.hpp:77] Creating layer pool5
I0801 00:28:49.714597  6812 net.cpp:91] Creating Layer pool5
I0801 00:28:49.714602  6812 net.cpp:425] pool5 <- conv5
I0801 00:28:49.714612  6812 net.cpp:399] pool5 -> pool5
I0801 00:28:49.714682  6812 net.cpp:141] Setting up pool5
I0801 00:28:49.714694  6812 net.cpp:148] Top shape: 10 256 6 6 (92160)
I0801 00:28:49.714699  6812 net.cpp:156] Memory required for data: 67618360
I0801 00:28:49.714704  6812 layer_factory.hpp:77] Creating layer fc6
I0801 00:28:49.714717  6812 net.cpp:91] Creating Layer fc6
I0801 00:28:49.714722  6812 net.cpp:425] fc6 <- pool5
I0801 00:28:49.714735  6812 net.cpp:399] fc6 -> fc6
I0801 00:28:49.828835  6812 net.cpp:141] Setting up fc6
I0801 00:28:49.828896  6812 net.cpp:148] Top shape: 10 4096 (40960)
I0801 00:28:49.828902  6812 net.cpp:156] Memory required for data: 67782200
I0801 00:28:49.828922  6812 layer_factory.hpp:77] Creating layer relu6
I0801 00:28:49.828943  6812 net.cpp:91] Creating Layer relu6
I0801 00:28:49.828950  6812 net.cpp:425] relu6 <- fc6
I0801 00:28:49.828963  6812 net.cpp:386] relu6 -> fc6 (in-place)
I0801 00:28:49.829320  6812 net.cpp:141] Setting up relu6
I0801 00:28:49.829334  6812 net.cpp:148] Top shape: 10 4096 (40960)
I0801 00:28:49.829339  6812 net.cpp:156] Memory required for data: 67946040
I0801 00:28:49.829344  6812 layer_factory.hpp:77] Creating layer drop6
I0801 00:28:49.829370  6812 net.cpp:91] Creating Layer drop6
I0801 00:28:49.829375  6812 net.cpp:425] drop6 <- fc6
I0801 00:28:49.829386  6812 net.cpp:386] drop6 -> fc6 (in-place)
I0801 00:28:49.829442  6812 net.cpp:141] Setting up drop6
I0801 00:28:49.829452  6812 net.cpp:148] Top shape: 10 4096 (40960)
I0801 00:28:49.829455  6812 net.cpp:156] Memory required for data: 68109880
I0801 00:28:49.829460  6812 layer_factory.hpp:77] Creating layer fc7
I0801 00:28:49.829476  6812 net.cpp:91] Creating Layer fc7
I0801 00:28:49.829483  6812 net.cpp:425] fc7 <- fc6
I0801 00:28:49.829490  6812 net.cpp:399] fc7 -> fc7
I0801 00:28:49.879339  6812 net.cpp:141] Setting up fc7
I0801 00:28:49.879400  6812 net.cpp:148] Top shape: 10 4096 (40960)
I0801 00:28:49.879406  6812 net.cpp:156] Memory required for data: 68273720
I0801 00:28:49.879425  6812 layer_factory.hpp:77] Creating layer relu7
I0801 00:28:49.879446  6812 net.cpp:91] Creating Layer relu7
I0801 00:28:49.879453  6812 net.cpp:425] relu7 <- fc7
I0801 00:28:49.879463  6812 net.cpp:386] relu7 -> fc7 (in-place)
I0801 00:28:49.880337  6812 net.cpp:141] Setting up relu7
I0801 00:28:49.880354  6812 net.cpp:148] Top shape: 10 4096 (40960)
I0801 00:28:49.880359  6812 net.cpp:156] Memory required for data: 68437560
I0801 00:28:49.880365  6812 layer_factory.hpp:77] Creating layer drop7
I0801 00:28:49.880376  6812 net.cpp:91] Creating Layer drop7
I0801 00:28:49.880381  6812 net.cpp:425] drop7 <- fc7
I0801 00:28:49.880389  6812 net.cpp:386] drop7 -> fc7 (in-place)
I0801 00:28:49.880440  6812 net.cpp:141] Setting up drop7
I0801 00:28:49.880450  6812 net.cpp:148] Top shape: 10 4096 (40960)
I0801 00:28:49.880455  6812 net.cpp:156] Memory required for data: 68601400
I0801 00:28:49.880460  6812 layer_factory.hpp:77] Creating layer fc8
I0801 00:28:49.880473  6812 net.cpp:91] Creating Layer fc8
I0801 00:28:49.880478  6812 net.cpp:425] fc8 <- fc7
I0801 00:28:49.880486  6812 net.cpp:399] fc8 -> fc8
I0801 00:28:49.892807  6812 net.cpp:141] Setting up fc8
I0801 00:28:49.892863  6812 net.cpp:148] Top shape: 10 1000 (10000)
I0801 00:28:49.892868  6812 net.cpp:156] Memory required for data: 68641400
I0801 00:28:49.892885  6812 layer_factory.hpp:77] Creating layer prob
I0801 00:28:49.892904  6812 net.cpp:91] Creating Layer prob
I0801 00:28:49.892910  6812 net.cpp:425] prob <- fc8
I0801 00:28:49.892931  6812 net.cpp:399] prob -> prob
I0801 00:28:49.893379  6812 net.cpp:141] Setting up prob
I0801 00:28:49.893393  6812 net.cpp:148] Top shape: 10 1000 (10000)
I0801 00:28:49.893399  6812 net.cpp:156] Memory required for data: 68681400
I0801 00:28:49.893404  6812 net.cpp:219] prob does not need backward computation.
I0801 00:28:49.893409  6812 net.cpp:219] fc8 does not need backward computation.
I0801 00:28:49.893414  6812 net.cpp:219] drop7 does not need backward computation.
I0801 00:28:49.893419  6812 net.cpp:219] relu7 does not need backward computation.
…
I0801 00:28:49.893492  6812 net.cpp:219] norm1 does not need backward computation.
I0801 00:28:49.893497  6812 net.cpp:219] pool1 does not need backward computation.
I0801 00:28:49.893502  6812 net.cpp:219] relu1 does not need backward computation.
I0801 00:28:49.893507  6812 net.cpp:219] conv1 does not need backward computation.
I0801 00:28:49.893512  6812 net.cpp:219] data does not need backward computation.
I0801 00:28:49.893515  6812 net.cpp:261] This network produces output prob
I0801 00:28:49.893538  6812 net.cpp:274] Network initialization done.
I0801 00:28:49.905486  6802 net.cpp:141] Setting up embedding
I0801 00:28:49.905540  6802 net.cpp:148] Top shape: 1 1 500 (500)
I0801 00:28:49.905547  6802 net.cpp:156] Memory required for data: 22408
I0801 00:28:49.905565  6802 layer_factory.hpp:77] Creating layer lstm1
I0801 00:28:49.905591  6802 net.cpp:91] Creating Layer lstm1
I0801 00:28:49.905599  6802 net.cpp:425] lstm1 <- embedded_input_frames
I0801 00:28:49.905609  6802 net.cpp:425] lstm1 <- cont_sentence_input_1_split_0
I0801 00:28:49.905681  6802 net.cpp:399] lstm1 -> lstm1
I0801 00:28:49.905746  6802 recurrent_layer.cpp:20] Initializing recurrent layer: assuming input batch contains 1 timesteps of 1 independent streams.
I0801 00:28:49.906184  6802 net.cpp:49] Initializing net from parameters: 
layer {
  name: "lstm1_"
  type: "Input"
  top: "x"
  top: "cont"
  input_param {
    shape {
      dim: 1
      dim: 1
      dim: 500
    }
    shape {
      dim: 1
      dim: 1
    }
  }
}
layer {
  name: "lstm1_"
  type: "Input"
  top: "c_0"
  top: "h_0"
  input_param {
    shape {
      dim: 1
      dim: 1
      dim: 1000
    }
    shape {
      dim: 1
      dim: 1
      dim: 1000
    }
  }
}
layer {
  name: "lstm1_cont_slice"
  type: "Slice"
  bottom: "cont"
  top: "cont_1"
  slice_param {
    axis: 0
  }
}
layer {
  name: "lstm1_x_transform"
  type: "InnerProduct"
  bottom: "x"
  top: "W_xc_x"
  param {
    name: "W_xc"
  }
  param {
    name: "b_c"
  }
  propagate_down: true
  inner_product_param {
    num_output: 4000
    bias_term: true
    weight_filler {
      type: "uniform"
      min: -0.08
      max: 0.08
    }
    bias_filler {
      type: "constant"
      value: 0
    }
    axis: 2
  }
}
layer {
  name: "lstm1_W_xc_x_slice"
  type: "Slice"
  bottom: "W_xc_x"
  top: "W_xc_x_1"
  slice_param {
    axis: 0
  }
}
layer {
  name: "lstm1_h_conted_0"
  type: "Scale"
  bottom: "h_0"
  bottom: "cont_1"
  top: "h_conted_0"
  scale_param {
    axis: 0
  }
}
layer {
  name: "lstm1_transform_1"
  type: "InnerProduct"
  bottom: "h_conted_0"
  top: "W_hc_h_0"
  param {
    name: "W_hc"
  }
  inner_product_param {
    num_output: 4000
    bias_term: false
    weight_filler {
      type: "uniform"
      min: -0.08
      max: 0.08
    }
    axis: 2
  }
}
layer {
  name: "lstm1_gate_input_1"
  type: "Eltwise"
  bottom: "W_hc_h_0"
  bottom: "W_xc_x_1"
  top: "gate_input_1"
  eltwise_param {
    operation: SUM
  }
}
layer {
  name: "lstm1_unit_1"
  type: "LSTMUnit"
  bottom: "c_0"
  bottom: "gate_input_1"
  bottom: "cont_1"
  top: "c_1"
  top: "h_1"
}
layer {
  name: "lstm1_"
  type: "Split"
  bottom: "c_1"
  top: "c_T"
}
layer {
  name: "lstm1_h_concat"
  type: "Concat"
  bottom: "h_1"
  top: "h"
  concat_param {
    axis: 0
  }
}
layer {
  name: "h_pseudoloss"
  type: "Reduction"
  bottom: "h"
  top: "h_pseudoloss"
  loss_weight: 1
}
I0801 00:28:49.906296  6802 layer_factory.hpp:77] Creating layer lstm1_
I0801 00:28:49.906311  6802 net.cpp:91] Creating Layer lstm1_
I0801 00:28:49.906318  6802 net.cpp:399] lstm1_ -> x
I0801 00:28:49.906332  6802 net.cpp:399] lstm1_ -> cont
I0801 00:28:49.906469  6802 net.cpp:141] Setting up lstm1_
I0801 00:28:49.906482  6802 net.cpp:148] Top shape: 1 1 500 (500)
I0801 00:28:49.906488  6802 net.cpp:148] Top shape: 1 1 (1)
I0801 00:28:49.906493  6802 net.cpp:156] Memory required for data: 2004
I0801 00:28:49.906499  6802 layer_factory.hpp:77] Creating layer lstm1_
I0801 00:28:49.906508  6802 net.cpp:91] Creating Layer lstm1_
I0801 00:28:49.906517  6802 net.cpp:399] lstm1_ -> c_0
I0801 00:28:49.906529  6802 net.cpp:399] lstm1_ -> h_0
I0801 00:28:49.906590  6802 net.cpp:141] Setting up lstm1_
I0801 00:28:49.906606  6802 net.cpp:148] Top shape: 1 1 1000 (1000)
I0801 00:28:49.906617  6802 net.cpp:148] Top shape: 1 1 1000 (1000)
I0801 00:28:49.906625  6802 net.cpp:156] Memory required for data: 10004
I0801 00:28:49.906633  6802 layer_factory.hpp:77] Creating layer lstm1_cont_slice
I0801 00:28:49.906649  6802 net.cpp:91] Creating Layer lstm1_cont_slice
I0801 00:28:49.906658  6802 net.cpp:425] lstm1_cont_slice <- cont
I0801 00:28:49.906672  6802 net.cpp:399] lstm1_cont_slice -> cont_1
I0801 00:28:49.906738  6802 net.cpp:141] Setting up lstm1_cont_slice
I0801 00:28:49.906754  6802 net.cpp:148] Top shape: 1 1 (1)
I0801 00:28:49.906762  6802 net.cpp:156] Memory required for data: 10008
I0801 00:28:49.906771  6802 layer_factory.hpp:77] Creating layer cont_1_lstm1_cont_slice_0_split
I0801 00:28:49.906788  6802 net.cpp:91] Creating Layer cont_1_lstm1_cont_slice_0_split
I0801 00:28:49.906797  6802 net.cpp:425] cont_1_lstm1_cont_slice_0_split <- cont_1
I0801 00:28:49.906810  6802 net.cpp:399] cont_1_lstm1_cont_slice_0_split -> cont_1_lstm1_cont_slice_0_split_0
I0801 00:28:49.906824  6802 net.cpp:399] cont_1_lstm1_cont_slice_0_split -> cont_1_lstm1_cont_slice_0_split_1
I0801 00:28:49.906904  6802 net.cpp:141] Setting up cont_1_lstm1_cont_slice_0_split
I0801 00:28:49.906919  6802 net.cpp:148] Top shape: 1 1 (1)
I0801 00:28:49.906930  6802 net.cpp:148] Top shape: 1 1 (1)
I0801 00:28:49.906939  6802 net.cpp:156] Memory required for data: 10016
I0801 00:28:49.906946  6802 layer_factory.hpp:77] Creating layer lstm1_x_transform
I0801 00:28:49.906963  6802 net.cpp:91] Creating Layer lstm1_x_transform
I0801 00:28:49.906973  6802 net.cpp:425] lstm1_x_transform <- x
I0801 00:28:49.906991  6802 net.cpp:399] lstm1_x_transform -> W_xc_x
I0801 00:28:49.932910  6802 net.cpp:141] Setting up lstm1_x_transform
I0801 00:28:49.932962  6802 net.cpp:148] Top shape: 1 1 4000 (4000)
I0801 00:28:49.932970  6802 net.cpp:156] Memory required for data: 26016
I0801 00:28:49.932992  6802 layer_factory.hpp:77] Creating layer lstm1_W_xc_x_slice
I0801 00:28:49.933010  6802 net.cpp:91] Creating Layer lstm1_W_xc_x_slice
I0801 00:28:49.933027  6802 net.cpp:425] lstm1_W_xc_x_slice <- W_xc_x
I0801 00:28:49.933037  6802 net.cpp:399] lstm1_W_xc_x_slice -> W_xc_x_1
I0801 00:28:49.933091  6802 net.cpp:141] Setting up lstm1_W_xc_x_slice
I0801 00:28:49.933102  6802 net.cpp:148] Top shape: 1 1 4000 (4000)
I0801 00:28:49.933106  6802 net.cpp:156] Memory required for data: 42016
I0801 00:28:49.933111  6802 layer_factory.hpp:77] Creating layer lstm1_h_conted_0
I0801 00:28:49.933123  6802 net.cpp:91] Creating Layer lstm1_h_conted_0
I0801 00:28:49.933128  6802 net.cpp:425] lstm1_h_conted_0 <- h_0
I0801 00:28:49.933135  6802 net.cpp:425] lstm1_h_conted_0 <- cont_1_lstm1_cont_slice_0_split_0
I0801 00:28:49.933142  6802 net.cpp:399] lstm1_h_conted_0 -> h_conted_0
I0801 00:28:49.933256  6802 net.cpp:141] Setting up lstm1_h_conted_0
I0801 00:28:49.933266  6802 net.cpp:148] Top shape: 1 1 1000 (1000)
I0801 00:28:49.933270  6802 net.cpp:156] Memory required for data: 46016
I0801 00:28:49.933275  6802 layer_factory.hpp:77] Creating layer lstm1_transform_1
I0801 00:28:49.933290  6802 net.cpp:91] Creating Layer lstm1_transform_1
I0801 00:28:49.933295  6802 net.cpp:425] lstm1_transform_1 <- h_conted_0
I0801 00:28:49.933303  6802 net.cpp:399] lstm1_transform_1 -> W_hc_h_0
I0801 00:28:49.990830  6802 net.cpp:141] Setting up lstm1_transform_1
I0801 00:28:49.990895  6802 net.cpp:148] Top shape: 1 1 4000 (4000)
I0801 00:28:49.990905  6802 net.cpp:156] Memory required for data: 62016
I0801 00:28:49.990944  6802 layer_factory.hpp:77] Creating layer lstm1_gate_input_1
I0801 00:28:49.990970  6802 net.cpp:91] Creating Layer lstm1_gate_input_1
I0801 00:28:49.990980  6802 net.cpp:425] lstm1_gate_input_1 <- W_hc_h_0
I0801 00:28:49.990993  6802 net.cpp:425] lstm1_gate_input_1 <- W_xc_x_1
I0801 00:28:49.991009  6802 net.cpp:399] lstm1_gate_input_1 -> gate_input_1
I0801 00:28:49.991096  6802 net.cpp:141] Setting up lstm1_gate_input_1
I0801 00:28:49.991116  6802 net.cpp:148] Top shape: 1 1 4000 (4000)
I0801 00:28:49.991122  6802 net.cpp:156] Memory required for data: 78016
I0801 00:28:49.991129  6802 layer_factory.hpp:77] Creating layer lstm1_unit_1
I0801 00:28:49.991143  6802 net.cpp:91] Creating Layer lstm1_unit_1
I0801 00:28:49.991152  6802 net.cpp:425] lstm1_unit_1 <- c_0
I0801 00:28:49.991160  6802 net.cpp:425] lstm1_unit_1 <- gate_input_1
I0801 00:28:49.991168  6802 net.cpp:425] lstm1_unit_1 <- cont_1_lstm1_cont_slice_0_split_1
I0801 00:28:49.991178  6802 net.cpp:399] lstm1_unit_1 -> c_1
I0801 00:28:49.991191  6802 net.cpp:399] lstm1_unit_1 -> h_1
I0801 00:28:49.991292  6802 net.cpp:141] Setting up lstm1_unit_1
I0801 00:28:49.991307  6802 net.cpp:148] Top shape: 1 1 1000 (1000)
I0801 00:28:49.991314  6802 net.cpp:148] Top shape: 1 1 1000 (1000)
I0801 00:28:49.991322  6802 net.cpp:156] Memory required for data: 86016
I0801 00:28:49.991328  6802 layer_factory.hpp:77] Creating layer lstm1_
I0801 00:28:49.991340  6802 net.cpp:91] Creating Layer lstm1_
I0801 00:28:49.991348  6802 net.cpp:425] lstm1_ <- c_1
I0801 00:28:49.991358  6802 net.cpp:399] lstm1_ -> c_T
I0801 00:28:49.991405  6802 net.cpp:141] Setting up lstm1_
I0801 00:28:49.991423  6802 net.cpp:148] Top shape: 1 1 1000 (1000)
I0801 00:28:49.991430  6802 net.cpp:156] Memory required for data: 90016
I0801 00:28:49.991436  6802 layer_factory.hpp:77] Creating layer lstm1_h_concat
I0801 00:28:49.991451  6802 net.cpp:91] Creating Layer lstm1_h_concat
I0801 00:28:49.991458  6802 net.cpp:425] lstm1_h_concat <- h_1
I0801 00:28:49.991472  6802 net.cpp:399] lstm1_h_concat -> h
I0801 00:28:49.991523  6802 net.cpp:141] Setting up lstm1_h_concat
I0801 00:28:49.991535  6802 net.cpp:148] Top shape: 1 1 1000 (1000)
I0801 00:28:49.991542  6802 net.cpp:156] Memory required for data: 94016
I0801 00:28:49.991549  6802 layer_factory.hpp:77] Creating layer h_pseudoloss
I0801 00:28:49.991580  6802 net.cpp:91] Creating Layer h_pseudoloss
I0801 00:28:49.991588  6802 net.cpp:425] h_pseudoloss <- h
I0801 00:28:49.991598  6802 net.cpp:399] h_pseudoloss -> h_pseudoloss
I0801 00:28:49.991741  6802 net.cpp:141] Setting up h_pseudoloss
…
I0801 00:28:49.991914  6802 net.cpp:219] lstm1_ does not need backward computation.
I0801 00:28:49.991919  6802 net.cpp:261] This network produces output c_T
I0801 00:28:49.991926  6802 net.cpp:261] This network produces output h_pseudoloss
I0801 00:28:49.991952  6802 net.cpp:274] Network initialization done.
I0801 00:28:49.992048  6802 recurrent_layer.cpp:150] Adding parameter 0: W_xc
I0801 00:28:49.992060  6802 recurrent_layer.cpp:150] Adding parameter 1: b_c
I0801 00:28:49.992068  6802 recurrent_layer.cpp:150] Adding parameter 2: W_hc
I0801 00:28:49.992240  6802 net.cpp:141] Setting up lstm1
I0801 00:28:49.992260  6802 net.cpp:148] Top shape: 1 1 1000 (1000)
I0801 00:28:49.992267  6802 net.cpp:156] Memory required for data: 26408
I0801 00:28:49.992287  6802 layer_factory.hpp:77] Creating layer concat
I0801 00:28:49.992300  6802 net.cpp:91] Creating Layer concat
I0801 00:28:49.992311  6802 net.cpp:425] concat <- lstm1
I0801 00:28:49.992321  6802 net.cpp:425] concat <- embedded_input_sentence
I0801 00:28:49.992331  6802 net.cpp:425] concat <- reshaped_stage_indicator
I0801 00:28:49.992341  6802 net.cpp:399] concat -> lstm1_video_sequence
I0801 00:28:49.992393  6802 net.cpp:141] Setting up concat
I0801 00:28:49.992405  6802 net.cpp:148] Top shape: 1 1 1501 (1501)
I0801 00:28:49.992411  6802 net.cpp:156] Memory required for data: 32412
I0801 00:28:49.992419  6802 layer_factory.hpp:77] Creating layer lstm2
I0801 00:28:49.992436  6802 net.cpp:91] Creating Layer lstm2
I0801 00:28:49.992444  6802 net.cpp:425] lstm2 <- lstm1_video_sequence
I0801 00:28:49.992454  6802 net.cpp:425] lstm2 <- cont_sentence_input_1_split_1
I0801 00:28:49.992465  6802 net.cpp:399] lstm2 -> lstm2
I0801 00:28:49.992480  6802 recurrent_layer.cpp:20] Initializing recurrent layer: assuming input batch contains 1 timesteps of 1 independent streams.
I0801 00:28:49.992863  6802 net.cpp:49] Initializing net from parameters: 
layer {
  name: "lstm2_"
  type: "Input"
  top: "x"
  top: "cont"
  input_param {
    shape {
      dim: 1
      dim: 1
      dim: 1501
    }
    shape {
      dim: 1
      dim: 1
    }
  }
}
layer {
  name: "lstm2_"
  type: "Input"
  top: "c_0"
  top: "h_0"
  input_param {
    shape {
      dim: 1
      dim: 1
      dim: 1000
    }
    shape {
      dim: 1
      dim: 1
      dim: 1000
    }
  }
}
layer {
  name: "lstm2_cont_slice"
  type: "Slice"
  bottom: "cont"
  top: "cont_1"
  slice_param {
    axis: 0
  }
}
layer {
  name: "lstm2_x_transform"
  type: "InnerProduct"
  bottom: "x"
  top: "W_xc_x"
  param {
    name: "W_xc"
  }
  param {
    name: "b_c"
  }
  propagate_down: true
  inner_product_param {
    num_output: 4000
    bias_term: true
    weight_filler {
      type: "uniform"
      min: -0.08
      max: 0.08
    }
    bias_filler {
      type: "constant"
      value: 0
    }
    axis: 2
  }
}
layer {
  name: "lstm2_W_xc_x_slice"
  type: "Slice"
  bottom: "W_xc_x"
  top: "W_xc_x_1"
  slice_param {
    axis: 0
  }
}
layer {
  name: "lstm2_h_conted_0"
  type: "Scale"
  bottom: "h_0"
  bottom: "cont_1"
  top: "h_conted_0"
  scale_param {
    axis: 0
  }
}
layer {
  name: "lstm2_transform_1"
  type: "InnerProduct"
  bottom: "h_conted_0"
  top: "W_hc_h_0"
  param {
    name: "W_hc"
  }
  inner_product_param {
    num_output: 4000
    bias_term: false
    weight_filler {
      type: "uniform"
      min: -0.08
      max: 0.08
    }
    axis: 2
  }
}
layer {
  name: "lstm2_gate_input_1"
  type: "Eltwise"
  bottom: "W_hc_h_0"
  bottom: "W_xc_x_1"
  top: "gate_input_1"
  eltwise_param {
    operation: SUM
  }
}
layer {
  name: "lstm2_unit_1"
  type: "LSTMUnit"
  bottom: "c_0"
  bottom: "gate_input_1"
  bottom: "cont_1"
  top: "c_1"
  top: "h_1"
}
layer {
  name: "lstm2_"
  type: "Split"
  bottom: "c_1"
  top: "c_T"
}
layer {
  name: "lstm2_h_concat"
  type: "Concat"
  bottom: "h_1"
  top: "h"
  concat_param {
    axis: 0
  }
}
layer {
  name: "h_pseudoloss"
  type: "Reduction"
  bottom: "h"
  top: "h_pseudoloss"
  loss_weight: 1
}
I0801 00:28:49.992995  6802 layer_factory.hpp:77] Creating layer lstm2_
I0801 00:28:49.993015  6802 net.cpp:91] Creating Layer lstm2_
I0801 00:28:49.993023  6802 net.cpp:399] lstm2_ -> x
I0801 00:28:49.993041  6802 net.cpp:399] lstm2_ -> cont
I0801 00:28:49.993122  6802 net.cpp:141] Setting up lstm2_
I0801 00:28:49.993137  6802 net.cpp:148] Top shape: 1 1 1501 (1501)
I0801 00:28:49.993146  6802 net.cpp:148] Top shape: 1 1 (1)
I0801 00:28:49.993152  6802 net.cpp:156] Memory required for data: 6008
I0801 00:28:49.993160  6802 layer_factory.hpp:77] Creating layer lstm2_
I0801 00:28:49.993172  6802 net.cpp:91] Creating Layer lstm2_
I0801 00:28:49.993181  6802 net.cpp:399] lstm2_ -> c_0
I0801 00:28:49.993201  6802 net.cpp:399] lstm2_ -> h_0
I0801 00:28:49.993270  6802 net.cpp:141] Setting up lstm2_
I0801 00:28:49.993283  6802 net.cpp:148] Top shape: 1 1 1000 (1000)
I0801 00:28:49.993291  6802 net.cpp:148] Top shape: 1 1 1000 (1000)
I0801 00:28:49.993297  6802 net.cpp:156] Memory required for data: 14008
I0801 00:28:49.993304  6802 layer_factory.hpp:77] Creating layer lstm2_cont_slice
I0801 00:28:49.993321  6802 net.cpp:91] Creating Layer lstm2_cont_slice
I0801 00:28:49.993329  6802 net.cpp:425] lstm2_cont_slice <- cont
I0801 00:28:49.993340  6802 net.cpp:399] lstm2_cont_slice -> cont_1
I0801 00:28:49.993389  6802 net.cpp:141] Setting up lstm2_cont_slice
I0801 00:28:49.993403  6802 net.cpp:148] Top shape: 1 1 (1)
I0801 00:28:49.993409  6802 net.cpp:156] Memory required for data: 14012
I0801 00:28:49.993417  6802 layer_factory.hpp:77] Creating layer cont_1_lstm2_cont_slice_0_split
I0801 00:28:49.993427  6802 net.cpp:91] Creating Layer cont_1_lstm2_cont_slice_0_split
I0801 00:28:49.993433  6802 net.cpp:425] cont_1_lstm2_cont_slice_0_split <- cont_1
I0801 00:28:49.993448  6802 net.cpp:399] cont_1_lstm2_cont_slice_0_split -> cont_1_lstm2_cont_slice_0_split_0
I0801 00:28:49.993460  6802 net.cpp:399] cont_1_lstm2_cont_slice_0_split -> cont_1_lstm2_cont_slice_0_split_1
I0801 00:28:49.993531  6802 net.cpp:141] Setting up cont_1_lstm2_cont_slice_0_split
I0801 00:28:49.993546  6802 net.cpp:148] Top shape: 1 1 (1)
I0801 00:28:49.993553  6802 net.cpp:148] Top shape: 1 1 (1)
I0801 00:28:49.993561  6802 net.cpp:156] Memory required for data: 14020
I0801 00:28:49.993567  6802 layer_factory.hpp:77] Creating layer lstm2_x_transform
I0801 00:28:49.993587  6802 net.cpp:91] Creating Layer lstm2_x_transform
I0801 00:28:49.993594  6802 net.cpp:425] lstm2_x_transform <- x
I0801 00:28:49.993607  6802 net.cpp:399] lstm2_x_transform -> W_xc_x
I0801 00:28:50.064635  6802 net.cpp:141] Setting up lstm2_x_transform
I0801 00:28:50.064692  6802 net.cpp:148] Top shape: 1 1 4000 (4000)
I0801 00:28:50.064699  6802 net.cpp:156] Memory required for data: 30020
I0801 00:28:50.064725  6802 layer_factory.hpp:77] Creating layer lstm2_W_xc_x_slice
I0801 00:28:50.064749  6802 net.cpp:91] Creating Layer lstm2_W_xc_x_slice
I0801 00:28:50.064759  6802 net.cpp:425] lstm2_W_xc_x_slice <- W_xc_x
I0801 00:28:50.064771  6802 net.cpp:399] lstm2_W_xc_x_slice -> W_xc_x_1
I0801 00:28:50.064831  6802 net.cpp:141] Setting up lstm2_W_xc_x_slice
I0801 00:28:50.064843  6802 net.cpp:148] Top shape: 1 1 4000 (4000)
I0801 00:28:50.064848  6802 net.cpp:156] Memory required for data: 46020
I0801 00:28:50.064854  6802 layer_factory.hpp:77] Creating layer lstm2_h_conted_0
I0801 00:28:50.064870  6802 net.cpp:91] Creating Layer lstm2_h_conted_0
I0801 00:28:50.064877  6802 net.cpp:425] lstm2_h_conted_0 <- h_0
I0801 00:28:50.064885  6802 net.cpp:425] lstm2_h_conted_0 <- cont_1_lstm2_cont_slice_0_split_0
I0801 00:28:50.064893  6802 net.cpp:399] lstm2_h_conted_0 -> h_conted_0
I0801 00:28:50.065017  6802 net.cpp:141] Setting up lstm2_h_conted_0
I0801 00:28:50.065029  6802 net.cpp:148] Top shape: 1 1 1000 (1000)
I0801 00:28:50.065034  6802 net.cpp:156] Memory required for data: 50020
I0801 00:28:50.065040  6802 layer_factory.hpp:77] Creating layer lstm2_transform_1
I0801 00:28:50.065057  6802 net.cpp:91] Creating Layer lstm2_transform_1
I0801 00:28:50.065062  6802 net.cpp:425] lstm2_transform_1 <- h_conted_0
I0801 00:28:50.065073  6802 net.cpp:399] lstm2_transform_1 -> W_hc_h_0
I0801 00:28:50.126710  6802 net.cpp:141] Setting up lstm2_transform_1
I0801 00:28:50.126768  6802 net.cpp:148] Top shape: 1 1 4000 (4000)
I0801 00:28:50.126776  6802 net.cpp:156] Memory required for data: 66020
I0801 00:28:50.126817  6802 layer_factory.hpp:77] Creating layer lstm2_gate_input_1
I0801 00:28:50.126844  6802 net.cpp:91] Creating Layer lstm2_gate_input_1
I0801 00:28:50.126854  6802 net.cpp:425] lstm2_gate_input_1 <- W_hc_h_0
I0801 00:28:50.126865  6802 net.cpp:425] lstm2_gate_input_1 <- W_xc_x_1
I0801 00:28:50.126875  6802 net.cpp:399] lstm2_gate_input_1 -> gate_input_1
I0801 00:28:50.126942  6802 net.cpp:141] Setting up lstm2_gate_input_1
I0801 00:28:50.126955  6802 net.cpp:148] Top shape: 1 1 4000 (4000)
I0801 00:28:50.126960  6802 net.cpp:156] Memory required for data: 82020
I0801 00:28:50.126966  6802 layer_factory.hpp:77] Creating layer lstm2_unit_1
I0801 00:28:50.126978  6802 net.cpp:91] Creating Layer lstm2_unit_1
I0801 00:28:50.126984  6802 net.cpp:425] lstm2_unit_1 <- c_0
I0801 00:28:50.126991  6802 net.cpp:425] lstm2_unit_1 <- gate_input_1
I0801 00:28:50.126998  6802 net.cpp:425] lstm2_unit_1 <- cont_1_lstm2_cont_slice_0_split_1
I0801 00:28:50.127008  6802 net.cpp:399] lstm2_unit_1 -> c_1
I0801 00:28:50.127019  6802 net.cpp:399] lstm2_unit_1 -> h_1
I0801 00:28:50.127104  6802 net.cpp:141] Setting up lstm2_unit_1
I0801 00:28:50.127116  6802 net.cpp:148] Top shape: 1 1 1000 (1000)
I0801 00:28:50.127123  6802 net.cpp:148] Top shape: 1 1 1000 (1000)
I0801 00:28:50.127130  6802 net.cpp:156] Memory required for data: 90020
I0801 00:28:50.127135  6802 layer_factory.hpp:77] Creating layer lstm2_
I0801 00:28:50.127149  6802 net.cpp:91] Creating Layer lstm2_
I0801 00:28:50.127156  6802 net.cpp:425] lstm2_ <- c_1
I0801 00:28:50.127166  6802 net.cpp:399] lstm2_ -> c_T
I0801 00:28:50.127207  6802 net.cpp:141] Setting up lstm2_
I0801 00:28:50.127218  6802 net.cpp:148] Top shape: 1 1 1000 (1000)
I0801 00:28:50.127223  6802 net.cpp:156] Memory required for data: 94020
I0801 00:28:50.127228  6802 layer_factory.hpp:77] Creating layer lstm2_h_concat
I0801 00:28:50.127241  6802 net.cpp:91] Creating Layer lstm2_h_concat
I0801 00:28:50.127248  6802 net.cpp:425] lstm2_h_concat <- h_1
I0801 00:28:50.127259  6802 net.cpp:399] lstm2_h_concat -> h
I0801 00:28:50.127306  6802 net.cpp:141] Setting up lstm2_h_concat
I0801 00:28:50.127318  6802 net.cpp:148] Top shape: 1 1 1000 (1000)
I0801 00:28:50.127323  6802 net.cpp:156] Memory required for data: 98020
I0801 00:28:50.127329  6802 layer_factory.hpp:77] Creating layer h_pseudoloss
I0801 00:28:50.127341  6802 net.cpp:91] Creating Layer h_pseudoloss
I0801 00:28:50.127347  6802 net.cpp:425] h_pseudoloss <- h
I0801 00:28:50.127357  6802 net.cpp:399] h_pseudoloss -> h_pseudoloss
I0801 00:28:50.127475  6802 net.cpp:141] Setting up h_pseudoloss
…
