…
Java HotSpot(TM) 64-Bit Server VM warning: You have loaded library /home/peifeng/work/run/storm102/data/workers/a2fcfeb1-5665-43d2-aabf-72c381364c6e/tmp/cvld403670290942188455/libopencv_java310.xine1.so which might have disabled stack guard. The VM will try to fix the stack guard now.
It's highly recommended that you fix the library with 'execstack -c <libfile>', or link it with '-z noexecstack'.
WARNING: Logging before InitGoogleLogging() is written to STDERR
I0913 19:27:56.774778 22956 net.cpp:49] Initializing net from parameters: 
name: "GoogleNet"
state {
  phase: TEST
}
layer {
  name: "data"
  type: "Input"
  top: "data"
  input_param {
    shape {
      dim: 10
      dim: 3
      dim: 224
      dim: 224
    }
  }
}
layer {
  name: "conv1/7x7_s2"
  type: "Convolution"
  bottom: "data"
  top: "conv1/7x7_s2"
  param {
    lr_mult: 1
    decay_mult: 1
  }
  param {
    lr_mult: 2
    decay_mult: 0
  }
  convolution_param {
    num_output: 64
    pad: 3
    kernel_size: 7
    stride: 2
    weight_filler {
      type: "xavier"
      std: 0.1
    }
    bias_filler {
      type: "constant"
      value: 0.2
    }
  }
}
layer {
  name: "conv1/relu_7x7"
  type: "ReLU"
  bottom: "conv1/7x7_s2"
  top: "conv1/7x7_s2"
}
layer {
  name: "pool1/3x3_s2"
  type: "Pooling"
  bottom: "conv1/7x7_s2"
  top: "pool1/3x3_s2"
  pooling_param {
    pool: MAX
    kernel_size: 3
    stride: 2
  }
}
layer {
  name: "pool1/norm1"
  type: "LRN"
  bottom: "pool1/3x3_s2"
  top: "pool1/norm1"
  lrn_param {
    local_size: 5
    alpha: 0.0001
    beta: 0.75
  }
}
layer {
  name: "conv2/3x3_reduce"
  type: "Convolution"
  bottom: "pool1/norm1"
  top: "conv2/3x3_reduce"
  param {
    lr_mult: 1
    decay_mult: 1
  }
  param {
    lr_mult: 2
    decay_mult: 0
  }
  convolution_param {
    num_output: 64
    kernel_size: 1
    weight_filler {
      type: "xavier"
      std: 0.1
    }
    bias_filler {
      type: "constant"
      value: 0.2
    }
  }
}
layer {
  name: "conv2/relu_3x3_reduce"
  type: "ReLU"
  bottom: "conv2/3x3_reduce"
  top: "conv2/3x3_reduce"
}
layer {
  name: "conv2/3x3"
  type: "Convolution"
  bottom: "conv2/3x3_reduce"
  top: "conv2/3x3"
  param {
    lr_mult: 1
    decay_mult: 1
  }
  param {
    lr_mult: 2
    decay_mult: 0
  }
  convolution_param {
    num_output: 192
    pad: 1
    kernel_size: 3
    weight_filler {
      type: "xavier"
      std: 0.03
    }
    bias_filler {
      type: "constant"
      value: 0.2
    }
  }
}
layer {
  name: "conv2/relu_3x3"
  type: "ReLU"
  bottom: "conv2/3x3"
  top: "conv2/3x3"
}
layer {
  name: "conv2/norm2"
  type: "LRN"
  bottom: "conv2/3x3"
  top: "conv2/norm2"
  lrn_param {
    local_size: 5
    alpha: 0.0001
    beta: 0.75
  }
}
layer {
  name: "pool2/3x3_s2"
  type: "Pooling"
  bottom: "conv2/norm2"
  top: "pool2/3x3_s2"
  pooling_param {
    pool: MAX
    kernel_size: 3
    stride: 2
  }
}
layer {
  name: "inception_3a/1x1"
  type: "Convolution"
  bottom: "pool2/3x3_s2"
  top: "inception_3a/1x1"
  param {
    lr_mult: 1
    decay_mult: 1
  }
  param {
    lr_mult: 2
    decay_mult: 0
  }
  convolution_param {
    num_output: 64
    kernel_size: 1
    weight_filler {
      type: "xavier"
      std: 0.03
    }
    bias_filler {
      type: "constant"
      value: 0.2
    }
  }
}
layer {
  name: "inception_3a/relu_1x1"
  type: "ReLU"
  bottom: "inception_3a/1x1"
  top: "inception_3a/1x1"
}
layer {
  name: "inception_3a/3x3_reduce"
  type: "Convolution"
  bottom: "pool2/3x3_s2"
  top: "inception_3a/3x3_reduce"
  param {
    lr_mult: 1
    decay_mult: 1
  }
  param {
    lr_mult: 2
    decay_mult: 0
  }
  convolution_param {
    num_output: 96
    kernel_size: 1
    weight_filler {
      type: "xavier"
      std: 0.09
    }
    bias_filler {
      type: "constant"
      value: 0.2
    }
  }
}
layer {
  name: "inception_3a/relu_3x3_reduce"
  type: "ReLU"
  bottom: "inception_3a/3x3_reduce"
  top: "inception_3a/3x3_reduce"
}
layer {
  name: "inception_3a/3x3"
  type: "Convolution"
  bottom: "inception_3a/3x3_reduce"
  top: "inception_3a/3x3"
  param {
    lr_mult: 1
    decay_mult: 1
  }
  param {
    lr_mult: 2
    decay_mult: 0
  }
  convolution_param {
    num_output: 128
    pad: 1
    kernel_size: 3
    weight_filler {
      type: "xavier"
      std: 0.03
    }
    bias_filler {
      type: "constant"
      value: 0.2
    }
  }
}
layer {
  name: "inception_3a/relu_3x3"
  type: "ReLU"
  bottom: "inception_3a/3x3"
  top: "inception_3a/3x3"
}
layer {
  name: "inception_3a/5x5_reduce"
  type: "Convolution"
  bottom: "pool2/3x3_s2"
  top: "inception_3a/5x5_reduce"
  param {
    lr_mult: 1
    decay_mult: 1
  }
  param {
    lr_mult: 2
    decay_mult: 0
  }
  convolution_param {
    num_output: 16
    kernel_size: 1
    weight_filler {
      type: "xavier"
      std: 0.2
    }
    bias_filler {
      type: "constant"
      value: 0.2
    }
  }
}
layer {
  name: "inception_3a/relu_5x5_reduce"
  type: "ReLU"
  bottom: "inception_3a/5x5_reduce"
  top: "inception_3a/5x5_reduce"
}
layer {
  name: "inception_3a/5x5"
  type: "Convolution"
  bottom: "inception_3a/5x5_reduce"
  top: "inception_3a/5x5"
  param {
    lr_mult: 1
    decay_mult: 1
  }
  param {
    lr_mult: 2
    decay_mult: 0
  }
  convolution_param {
    num_output: 32
    pad: 2
    kernel_size: 5
    weight_filler {
      type: "xavier"
      std: 0.03
    }
    bias_filler {
      type: "constant"
      value: 0.2
    }
  }
}
layer {
  name: "inception_3a/relu_5x5"
  type: "ReLU"
  bottom: "inception_3a/5x5"
  top: "inception_3a/5x5"
}
layer {
  name: "inception_3a/pool"
  type: "Pooling"
  bottom: "pool2/3x3_s2"
  top: "inception_3a/pool"
  pooling_param {
    pool: MAX
    kernel_size: 3
    stride: 1
    pad: 1
  }
}
layer {
  name: "inception_3a/pool_proj"
  type: "Convolution"
  bottom: "inception_3a/pool"
  top: "inception_3a/pool_proj"
  param {
    lr_mult: 1
    decay_mult: 1
  }
  param {
    lr_mult: 2
    decay_mult: 0
  }
  convolution_param {
    num_output: 32
    kernel_size: 1
    weight_filler {
      type: "xavier"
      std: 0.1
    }
    bias_filler {
      type: "constant"
      value: 0.2
    }
  }
}
layer {
  name: "inception_3a/relu_pool_proj"
  type: "ReLU"
  bottom: "inception_3a/pool_proj"
  top: "inception_3a/pool_proj"
}
layer {
  name: "inception_3a/output"
  type: "Concat"
  bottom: "inception_3a/1x1"
  bottom: "inception_3a/3x3"
  bottom: "inception_3a/5x5"
  bottom: "inception_3a/pool_proj"
  top: "inception_3a/output"
}
layer {
  name: "inception_3b/1x1"
  type: "Convolution"
  bottom: "inception_3a/output"
  top: "inception_3b/1x1"
  param {
    lr_mult: 1
    decay_mult: 1
  }
  param {
    lr_mult: 2
    decay_mult: 0
  }
  convolution_param {
    num_output: 128
    kernel_size: 1
    weight_filler {
      type: "xavier"
      std: 0.03
    }
    bias_filler {
      type: "constant"
      value: 0.2
    }
  }
}
layer {
  name: "inception_3b/relu_1x1"
  type: "ReLU"
  bottom: "inception_3b/1x1"
  top: "inception_3b/1x1"
}
layer {
  name: "inception_3b/3x3_reduce"
  type: "Convolution"
  bottom: "inception_3a/output"
  top: "inception_3b/3x3_reduce"
  param {
    lr_mult: 1
    decay_mult: 1
  }
  param {
    lr_mult: 2
    decay_mult: 0
  }
  convolution_param {
    num_output: 128
    kernel_size: 1
    weight_filler {
      type: "xavier"
      std: 0.09
    }
    bias_filler {
      type: "constant"
      value: 0.2
    }
  }
}
layer {
  name: "inception_3b/relu_3x3_reduce"
  type: "ReLU"
  bottom: "inception_3b/3x3_reduce"
  top: "inception_3b/3x3_reduce"
}
layer {
  name: "inception_3b/3x3"
  type: "Convolution"
  bottom: "inception_3b/3x3_reduce"
  top: "inception_3b/3x3"
  param {
    lr_mult: 1
    decay_mult: 1
  }
  param {
    lr_mult: 2
    decay_mult: 0
  }
  convolution_param {
    num_output: 192
    pad: 1
    kernel_size: 3
    weight_filler {
      type: "xavier"
      std: 0.03
    }
    bias_filler {
      type: "constant"
      value: 0.2
    }
  }
}
layer {
  name: "inception_3b/relu_3x3"
  type: "ReLU"
  bottom: "inception_3b/3x3"
  top: "inception_3b/3x3"
}
layer {
  name: "inception_3b/5x5_reduce"
  type: "Convolution"
  bottom: "inception_3a/output"
  top: "inception_3b/5x5_reduce"
  param {
    lr_mult: 1
    decay_mult: 1
  }
  param {
    lr_mult: 2
    decay_mult: 0
  }
  convolution_param {
    num_output: 32
    kernel_size: 1
    weight_filler {
      type: "xavier"
      std: 0.2
    }
    bias_filler {
      type: "constant"
      value: 0.2
    }
  }
}
layer {
  name: "inception_3b/relu_5x5_reduce"
  type: "ReLU"
  bottom: "inception_3b/5x5_reduce"
  top: "inception_3b/5x5_reduce"
}
layer {
  name: "inception_3b/5x5"
  type: "Convolution"
  bottom: "inception_3b/5x5_reduce"
  top: "inception_3b/5x5"
  param {
    lr_mult: 1
    decay_mult: 1
  }
  param {
    lr_mult: 2
    decay_mult: 0
  }
  convolution_param {
    num_output: 96
    pad: 2
    kernel_size: 5
    weight_filler {
      type: "xavier"
      std: 0.03
    }
    bias_filler {
      type: "constant"
      value: 0.2
    }
  }
}
layer {
  name: "inception_3b/relu_5x5"
  type: "ReLU"
  bottom: "inception_3b/5x5"
  top: "inception_3b/5x5"
}
layer {
  name: "inception_3b/pool"
  type: "Pooling"
  bottom: "inception_3a/output"
  top: "inception_3b/pool"
  pooling_param {
    pool: MAX
    kernel_size: 3
    stride: 1
    pad: 1
  }
}
layer {
  name: "inception_3b/pool_proj"
  type: "Convolution"
  bottom: "inception_3b/pool"
  top: "inception_3b/pool_proj"
  param {
    lr_mult: 1
    decay_mult: 1
  }
  param {
    lr_mult: 2
    decay_mult: 0
  }
  convolution_param {
    num_output: 64
    kernel_size: 1
    weight_filler {
      type: "xavier"
      std: 0.1
    }
    bias_filler {
      type: "constant"
      value: 0.2
    }
  }
}
layer {
  name: "inception_3b/relu_pool_proj"
  type: "ReLU"
  bottom: "inception_3b/pool_proj"
  top: "inception_3b/pool_proj"
}
layer {
  name: "inception_3b/output"
  type: "Concat"
  bottom: "inception_3b/1x1"
  bottom: "inception_3b/3x3"
  bottom: "inception_3b/5x5"
  bottom: "inception_3b/pool_proj"
  top: "inception_3b/output"
}
layer {
  name: "pool3/3x3_s2"
  type: "Pooling"
  bottom: "inception_3b/output"
  top: "pool3/3x3_s2"
  pooling_param {
    pool: MAX
    kernel_size: 3
    stride: 2
  }
}
layer {
  name: "inception_4a/1x1"
  type: "Convolution"
  bottom: "pool3/3x3_s2"
  top: "inception_4a/1x1"
  param {
    lr_mult: 1
    decay_mult: 1
  }
  param {
    lr_mult: 2
    decay_mult: 0
  }
  convolution_param {
    num_output: 192
    kernel_size: 1
    weight_filler {
      type: "xavier"
      std: 0.03
    }
    bias_filler {
      type: "constant"
      value: 0.2
    }
  }
}
layer {
  name: "inception_4a/relu_1x1"
  type: "ReLU"
  bottom: "inception_4a/1x1"
  top: "inception_4a/1x1"
}
layer {
  name: "inception_4a/3x3_reduce"
  type: "Convolution"
  bottom: "pool3/3x3_s2"
  top: "inception_4a/3x3_reduce"
  param {
    lr_mult: 1
    decay_mult: 1
  }
  param {
    lr_mult: 2
    decay_mult: 0
  }
  convolution_param {
    num_output: 96
    kernel_size: 1
    weight_filler {
      type: "xavier"
      std: 0.09
    }
    bias_filler {
      type: "constant"
      value: 0.2
    }
  }
}
layer {
  name: "inception_4a/relu_3x3_reduce"
  type: "ReLU"
  bottom: "inception_4a/3x3_reduce"
  top: "inception_4a/3x3_reduce"
}
layer {
  name: "inception_4a/3x3"
  type: "Convolution"
  bottom: "inception_4a/3x3_reduce"
  top: "inception_4a/3x3"
  param {
    lr_mult: 1
    decay_mult: 1
  }
  param {
    lr_mult: 2
    decay_mult: 0
  }
  convolution_param {
    num_output: 208
    pad: 1
    kernel_size: 3
    weight_filler {
      type: "xavier"
      std: 0.03
    }
    bias_filler {
      type: "constant"
      value: 0.2
    }
  }
}
layer {
  name: "inception_4a/relu_3x3"
  type: "ReLU"
  bottom: "inception_4a/3x3"
  top: "inception_4a/3x3"
}
layer {
  name: "inception_4a/5x5_reduce"
  type: "Convolution"
  bottom: "pool3/3x3_s2"
  top: "inception_4a/5x5_reduce"
  param {
    lr_mult: 1
    decay_mult: 1
  }
  param {
    lr_mult: 2
    decay_mult: 0
  }
  convolution_param {
    num_output: 16
    kernel_size: 1
    weight_filler {
      type: "xavier"
      std: 0.2
    }
    bias_filler {
      type: "constant"
      value: 0.2
    }
  }
}
layer {
  name: "inception_4a/relu_5x5_reduce"
  type: "ReLU"
  bottom: "inception_4a/5x5_reduce"
  top: "inception_4a/5x5_reduce"
}
layer {
  name: "inception_4a/5x5"
  type: "Convolution"
  bottom: "inception_4a/5x5_reduce"
  top: "inception_4a/5x5"
  param {
    lr_mult: 1
    decay_mult: 1
  }
  param {
    lr_mult: 2
    decay_mult: 0
  }
  convolution_param {
    num_output: 48
    pad: 2
    kernel_size: 5
    weight_filler {
      type: "xavier"
      std: 0.03
    }
    bias_filler {
      type: "constant"
      value: 0.2
    }
  }
}
layer {
  name: "inception_4a/relu_5x5"
  type: "ReLU"
  bottom: "inception_4a/5x5"
  top: "inception_4a/5x5"
}
layer {
  name: "inception_4a/pool"
  type: "Pooling"
  bottom: "pool3/3x3_s2"
  top: "inception_4a/pool"
  pooling_param {
    pool: MAX
    kernel_size: 3
    stride: 1
    pad: 1
  }
}
layer {
  name: "inception_4a/pool_proj"
  type: "Convolution"
  bottom: "inception_4a/pool"
  top: "inception_4a/pool_proj"
  param {
    lr_mult: 1
    decay_mult: 1
  }
  param {
    lr_mult: 2
    decay_mult: 0
  }
  convolution_param {
    num_output: 64
    kernel_size: 1
    weight_filler {
      type: "xavier"
      std: 0.1
    }
    bias_filler {
      type: "constant"
      value: 0.2
    }
  }
}
layer {
  name: "inception_4a/relu_pool_proj"
  type: "ReLU"
  bottom: "inception_4a/pool_proj"
  top: "inception_4a/pool_proj"
}
layer {
  name: "inception_4a/output"
  type: "Concat"
  bottom: "inception_4a/1x1"
  bottom: "inception_4a/3x3"
  bottom: "inception_4a/5x5"
  bottom: "inception_4a/pool_proj"
  top: "inception_4a/output"
}
layer {
  name: "inception_4b/1x1"
  type: "Convolution"
  bottom: "inception_4a/output"
  top: "inception_4b/1x1"
  param {
    lr_mult: 1
    decay_mult: 1
  }
  param {
    lr_mult: 2
    decay_mult: 0
  }
  convolution_param {
    num_output: 160
    kernel_size: 1
    weight_filler {
      type: "xavier"
      std: 0.03
    }
    bias_filler {
      type: "constant"
      value: 0.2
    }
  }
}
layer {
  name: "inception_4b/relu_1x1"
  type: "ReLU"
  bottom: "inception_4b/1x1"
  top: "inception_4b/1x1"
}
layer {
  name: "inception_4b/3x3_reduce"
  type: "Convolution"
  bottom: "inception_4a/output"
  top: "inception_4b/3x3_reduce"
  param {
    lr_mult: 1
    decay_mult: 1
  }
  param {
    lr_mult: 2
    decay_mult: 0
  }
  convolution_param {
    num_output: 112
    kernel_size: 1
    weight_filler {
      type: "xavier"
      std: 0.09
    }
    bias_filler {
      type: "constant"
      value: 0.2
    }
  }
}
layer {
  name: "inception_4b/relu_3x3_reduce"
  type: "ReLU"
  bottom: "inception_4b/3x3_reduce"
  top: "inception_4b/3x3_reduce"
}
layer {
  name: "inception_4b/3x3"
  type: "Convolution"
  bottom: "inception_4b/3x3_reduce"
  top: "inception_4b/3x3"
  param {
    lr_mult: 1
    decay_mult: 1
  }
  param {
    lr_mult: 2
    decay_mult: 0
  }
  convolution_param {
    num_output: 224
    pad: 1
    kernel_size: 3
    weight_filler {
      type: "xavier"
      std: 0.03
    }
    bias_filler {
      type: "constant"
      value: 0.2
    }
  }
}
layer {
  name: "inception_4b/relu_3x3"
  type: "ReLU"
  bottom: "inception_4b/3x3"
  top: "inception_4b/3x3"
}
layer {
  name: "inception_4b/5x5_reduce"
  type: "Convolution"
  bottom: "inception_4a/output"
  top: "inception_4b/5x5_reduce"
  param {
    lr_mult: 1
    decay_mult: 1
  }
  param {
    lr_mult: 2
    decay_mult: 0
  }
  convolution_param {
    num_output: 24
    kernel_size: 1
    weight_filler {
      type: "xavier"
      std: 0.2
    }
    bias_filler {
      type: "constant"
      value: 0.2
    }
  }
}
layer {
  name: "inception_4b/relu_5x5_reduce"
  type: "ReLU"
  bottom: "inception_4b/5x5_reduce"
  top: "inception_4b/5x5_reduce"
}
layer {
  name: "inception_4b/5x5"
  type: "Convolution"
  bottom: "inception_4b/5x5_reduce"
  top: "inception_4b/5x5"
  param {
    lr_mult: 1
    decay_mult: 1
  }
  param {
    lr_mult: 2
    decay_mult: 0
  }
  convolution_param {
    num_output: 64
    pad: 2
    kernel_size: 5
    weight_filler {
      type: "xavier"
      std: 0.03
    }
    bias_filler {
      type: "constant"
      value: 0.2
    }
  }
}
layer {
  name: "inception_4b/relu_5x5"
  type: "ReLU"
  bottom: "inception_4b/5x5"
  top: "inception_4b/5x5"
}
layer {
  name: "inception_4b/pool"
  type: "Pooling"
  bottom: "inception_4a/output"
  top: "inception_4b/pool"
  pooling_param {
    pool: MAX
    kernel_size: 3
    stride: 1
    pad: 1
  }
}
layer {
  name: "inception_4b/pool_proj"
  type: "Convolution"
  bottom: "inception_4b/pool"
  top: "inception_4b/pool_proj"
  param {
    lr_mult: 1
    decay_mult: 1
  }
  param {
    lr_mult: 2
    decay_mult: 0
  }
  convolution_param {
    num_output: 64
    kernel_size: 1
    weight_filler {
      type: "xavier"
      std: 0.1
    }
    bias_filler {
      type: "constant"
      value: 0.2
    }
  }
}
layer {
  name: "inception_4b/relu_pool_proj"
  type: "ReLU"
  bottom: "inception_4b/pool_proj"
  top: "inception_4b/pool_proj"
}
layer {
  name: "inception_4b/output"
  type: "Concat"
  bottom: "inception_4b/1x1"
  bottom: "inception_4b/3x3"
  bottom: "inception_4b/5x5"
  bottom: "inception_4b/pool_proj"
  top: "inception_4b/output"
}
layer {
  name: "inception_4c/1x1"
  type: "Convolution"
  bottom: "inception_4b/output"
  top: "inception_4c/1x1"
  param {
    lr_mult: 1
    decay_mult: 1
  }
  param {
    lr_mult: 2
    decay_mult: 0
  }
  convolution_param {
    num_output: 128
    kernel_size: 1
    weight_filler {
      type: "xavier"
      std: 0.03
    }
    bias_filler {
      type: "constant"
      value: 0.2
    }
  }
}
layer {
  name: "inception_4c/relu_1x1"
  type: "ReLU"
  bottom: "inception_4c/1x1"
  top: "inception_4c/1x1"
}
layer {
  name: "inception_4c/3x3_reduce"
  type: "Convolution"
  bottom: "inception_4b/output"
  top: "inception_4c/3x3_reduce"
  param {
    lr_mult: 1
    decay_mult: 1
  }
  param {
    lr_mult: 2
    decay_mult: 0
  }
  convolution_param {
    num_output: 128
    kernel_size: 1
    weight_filler {
      type: "xavier"
      std: 0.09
    }
    bias_filler {
      type: "constant"
      value: 0.2
    }
  }
}
layer {
  name: "inception_4c/relu_3x3_reduce"
  type: "ReLU"
  bottom: "inception_4c/3x3_reduce"
  top: "inception_4c/3x3_reduce"
}
layer {
  name: "inception_4c/3x3"
  type: "Convolution"
  bottom: "inception_4c/3x3_reduce"
  top: "inception_4c/3x3"
  param {
    lr_mult: 1
    decay_mult: 1
  }
  param {
    lr_mult: 2
    decay_mult: 0
  }
  convolution_param {
    num_output: 256
    pad: 1
    kernel_size: 3
    weight_filler {
      type: "xavier"
      std: 0.03
    }
    bias_filler {
      type: "constant"
      value: 0.2
    }
  }
}
layer {
  name: "inception_4c/relu_3x3"
  type: "ReLU"
  bottom: "inception_4c/3x3"
  top: "inception_4c/3x3"
}
layer {
  name: "inception_4c/5x5_reduce"
  type: "Convolution"
  bottom: "inception_4b/output"
  top: "inception_4c/5x5_reduce"
  param {
    lr_mult: 1
    decay_mult: 1
  }
  param {
    lr_mult: 2
    decay_mult: 0
  }
  convolution_param {
    num_output: 24
    kernel_size: 1
    weight_filler {
      type: "xavier"
      std: 0.2
    }
    bias_filler {
      type: "constant"
      value: 0.2
    }
  }
}
layer {
  name: "inception_4c/relu_5x5_reduce"
  type: "ReLU"
  bottom: "inception_4c/5x5_reduce"
  top: "inception_4c/5x5_reduce"
}
layer {
  name: "inception_4c/5x5"
  type: "Convolution"
  bottom: "inception_4c/5x5_reduce"
  top: "inception_4c/5x5"
  param {
    lr_mult: 1
    decay_mult: 1
  }
  param {
    lr_mult: 2
    decay_mult: 0
  }
  convolution_param {
    num_output: 64
    pad: 2
    kernel_size: 5
    weight_filler {
      type: "xavier"
      std: 0.03
    }
    bias_filler {
      type: "constant"
      value: 0.2
    }
  }
}
layer {
  name: "inception_4c/relu_5x5"
  type: "ReLU"
  bottom: "inception_4c/5x5"
  top: "inception_4c/5x5"
}
layer {
  name: "inception_4c/pool"
  type: "Pooling"
  bottom: "inception_4b/output"
  top: "inception_4c/pool"
  pooling_param {
    pool: MAX
    kernel_size: 3
    stride: 1
    pad: 1
  }
}
layer {
  name: "inception_4c/pool_proj"
  type: "Convolution"
  bottom: "inception_4c/pool"
  top: "inception_4c/pool_proj"
  param {
    lr_mult: 1
    decay_mult: 1
  }
  param {
    lr_mult: 2
    decay_mult: 0
  }
  convolution_param {
    num_output: 64
    kernel_size: 1
    weight_filler {
      type: "xavier"
      std: 0.1
    }
    bias_filler {
      type: "constant"
      value: 0.2
    }
  }
}
layer {
  name: "inception_4c/relu_pool_proj"
  type: "ReLU"
  bottom: "inception_4c/pool_proj"
  top: "inception_4c/pool_proj"
}
layer {
  name: "inception_4c/output"
  type: "Concat"
  bottom: "inception_4c/1x1"
  bottom: "inception_4c/3x3"
  bottom: "inception_4c/5x5"
  bottom: "inception_4c/pool_proj"
  top: "inception_4c/output"
}
layer {
  name: "inception_4d/1x1"
  type: "Convolution"
  bottom: "inception_4c/output"
  top: "inception_4d/1x1"
  param {
    lr_mult: 1
    decay_mult: 1
  }
  param {
    lr_mult: 2
    decay_mult: 0
  }
  convolution_param {
    num_output: 112
    kernel_size: 1
    weight_filler {
      type: "xavier"
      std: 0.03
    }
    bias_filler {
      type: "constant"
      value: 0.2
    }
  }
}
layer {
  name: "inception_4d/relu_1x1"
  type: "ReLU"
  bottom: "inception_4d/1x1"
  top: "inception_4d/1x1"
}
layer {
  name: "inception_4d/3x3_reduce"
  type: "Convolution"
  bottom: "inception_4c/output"
  top: "inception_4d/3x3_reduce"
  param {
    lr_mult: 1
    decay_mult: 1
  }
  param {
    lr_mult: 2
    decay_mult: 0
  }
  convolution_param {
    num_output: 144
    kernel_size: 1
    weight_filler {
      type: "xavier"
      std: 0.09
    }
    bias_filler {
      type: "constant"
      value: 0.2
    }
  }
}
layer {
  name: "inception_4d/relu_3x3_reduce"
  type: "ReLU"
  bottom: "inception_4d/3x3_reduce"
  top: "inception_4d/3x3_reduce"
}
layer {
  name: "inception_4d/3x3"
  type: "Convolution"
  bottom: "inception_4d/3x3_reduce"
  top: "inception_4d/3x3"
  param {
    lr_mult: 1
    decay_mult: 1
  }
  param {
    lr_mult: 2
    decay_mult: 0
  }
  convolution_param {
    num_output: 288
    pad: 1
    kernel_size: 3
    weight_filler {
      type: "xavier"
      std: 0.03
    }
    bias_filler {
      type: "constant"
      value: 0.2
    }
  }
}
layer {
  name: "inception_4d/relu_3x3"
  type: "ReLU"
  bottom: "inception_4d/3x3"
  top: "inception_4d/3x3"
}
layer {
  name: "inception_4d/5x5_reduce"
  type: "Convolution"
  bottom: "inception_4c/output"
  top: "inception_4d/5x5_reduce"
  param {
    lr_mult: 1
    decay_mult: 1
  }
  param {
    lr_mult: 2
    decay_mult: 0
  }
  convolution_param {
    num_output: 32
    kernel_size: 1
    weight_filler {
      type: "xavier"
      std: 0.2
    }
    bias_filler {
      type: "constant"
      value: 0.2
    }
  }
}
layer {
  name: "inception_4d/relu_5x5_reduce"
  type: "ReLU"
  bottom: "inception_4d/5x5_reduce"
  top: "inception_4d/5x5_reduce"
}
layer {
  name: "inception_4d/5x5"
  type: "Convolution"
  bottom: "inception_4d/5x5_reduce"
  top: "inception_4d/5x5"
  param {
    lr_mult: 1
    decay_mult: 1
  }
  param {
    lr_mult: 2
    decay_mult: 0
  }
  convolution_param {
    num_output: 64
    pad: 2
    kernel_size: 5
    weight_filler {
      type: "xavier"
      std: 0.03
    }
    bias_filler {
      type: "constant"
      value: 0.2
    }
  }
}
layer {
  name: "inception_4d/relu_5x5"
  type: "ReLU"
  bottom: "inception_4d/5x5"
  top: "inception_4d/5x5"
}
layer {
  name: "inception_4d/pool"
  type: "Pooling"
  bottom: "inception_4c/output"
  top: "inception_4d/pool"
  pooling_param {
    pool: MAX
    kernel_size: 3
    stride: 1
    pad: 1
  }
}
layer {
  name: "inception_4d/pool_proj"
  type: "Convolution"
  bottom: "inception_4d/pool"
  top: "inception_4d/pool_proj"
  param {
    lr_mult: 1
    decay_mult: 1
  }
  param {
    lr_mult: 2
    decay_mult: 0
  }
  convolution_param {
    num_output: 64
    kernel_size: 1
    weight_filler {
      type: "xavier"
      std: 0.1
    }
    bias_filler {
      type: "constant"
      value: 0.2
    }
  }
}
layer {
  name: "inception_4d/relu_pool_proj"
  type: "ReLU"
  bottom: "inception_4d/pool_proj"
  top: "inception_4d/pool_proj"
}
layer {
  name: "inception_4d/output"
  type: "Concat"
  bottom: "inception_4d/1x1"
  bottom: "inception_4d/3x3"
  bottom: "inception_4d/5x5"
  bottom: "inception_4d/pool_proj"
  top: "inception_4d/output"
}
layer {
  name: "inception_4e/1x1"
  type: "Convolution"
  bottom: "inception_4d/output"
  top: "inception_4e/1x1"
  param {
    lr_mult: 1
    decay_mult: 1
  }
  param {
    lr_mult: 2
    decay_mult: 0
  }
  convolution_param {
    num_output: 256
    kernel_size: 1
    weight_filler {
      type: "xavier"
      std: 0.03
    }
    bias_filler {
      type: "constant"
      value: 0.2
    }
  }
}
layer {
  name: "inception_4e/relu_1x1"
  type: "ReLU"
  bottom: "inception_4e/1x1"
  top: "inception_4e/1x1"
}
layer {
  name: "inception_4e/3x3_reduce"
  type: "Convolution"
  bottom: "inception_4d/output"
  top: "inception_4e/3x3_reduce"
  param {
    lr_mult: 1
    decay_mult: 1
  }
  param {
    lr_mult: 2
    decay_mult: 0
  }
  convolution_param {
    num_output: 160
    kernel_size: 1
    weight_filler {
      type: "xavier"
      std: 0.09
    }
    bias_filler {
      type: "constant"
      value: 0.2
    }
  }
}
layer {
  name: "inception_4e/relu_3x3_reduce"
  type: "ReLU"
  bottom: "inception_4e/3x3_reduce"
  top: "inception_4e/3x3_reduce"
}
layer {
  name: "inception_4e/3x3"
  type: "Convolution"
  bottom: "inception_4e/3x3_reduce"
  top: "inception_4e/3x3"
  param {
    lr_mult: 1
    decay_mult: 1
  }
  param {
    lr_mult: 2
    decay_mult: 0
  }
  convolution_param {
    num_output: 320
    pad: 1
    kernel_size: 3
    weight_filler {
      type: "xavier"
      std: 0.03
    }
    bias_filler {
      type: "constant"
      value: 0.2
    }
  }
}
layer {
  name: "inception_4e/relu_3x3"
  type: "ReLU"
  bottom: "inception_4e/3x3"
  top: "inception_4e/3x3"
}
layer {
  name: "inception_4e/5x5_reduce"
  type: "Convolution"
  bottom: "inception_4d/output"
  top: "inception_4e/5x5_reduce"
  param {
    lr_mult: 1
    decay_mult: 1
  }
  param {
    lr_mult: 2
    decay_mult: 0
  }
  convolution_param {
    num_output: 32
    kernel_size: 1
    weight_filler {
      type: "xavier"
      std: 0.2
    }
    bias_filler {
      type: "constant"
      value: 0.2
    }
  }
}
layer {
  name: "inception_4e/relu_5x5_reduce"
  type: "ReLU"
  bottom: "inception_4e/5x5_reduce"
  top: "inception_4e/5x5_reduce"
}
layer {
  name: "inception_4e/5x5"
  type: "Convolution"
  bottom: "inception_4e/5x5_reduce"
  top: "inception_4e/5x5"
  param {
    lr_mult: 1
    decay_mult: 1
  }
  param {
    lr_mult: 2
    decay_mult: 0
  }
  convolution_param {
    num_output: 128
    pad: 2
    kernel_size: 5
    weight_filler {
      type: "xavier"
      std: 0.03
    }
    bias_filler {
      type: "constant"
      value: 0.2
    }
  }
}
layer {
  name: "inception_4e/relu_5x5"
  type: "ReLU"
  bottom: "inception_4e/5x5"
  top: "inception_4e/5x5"
}
layer {
  name: "inception_4e/pool"
  type: "Pooling"
  bottom: "inception_4d/output"
  top: "inception_4e/pool"
  pooling_param {
    pool: MAX
    kernel_size: 3
    stride: 1
    pad: 1
  }
}
layer {
  name: "inception_4e/pool_proj"
  type: "Convolution"
  bottom: "inception_4e/pool"
  top: "inception_4e/pool_proj"
  param {
    lr_mult: 1
    decay_mult: 1
  }
  param {
    lr_mult: 2
    decay_mult: 0
  }
  convolution_param {
    num_output: 128
    kernel_size: 1
    weight_filler {
      type: "xavier"
      std: 0.1
    }
    bias_filler {
      type: "constant"
      value: 0.2
    }
  }
}
layer {
  name: "inception_4e/relu_pool_proj"
  type: "ReLU"
  bottom: "inception_4e/pool_proj"
  top: "inception_4e/pool_proj"
}
layer {
  name: "inception_4e/output"
  type: "Concat"
  bottom: "inception_4e/1x1"
  bottom: "inception_4e/3x3"
  bottom: "inception_4e/5x5"
  bottom: "inception_4e/pool_proj"
  top: "inception_4e/output"
}
layer {
  name: "pool4/3x3_s2"
  type: "Pooling"
  bottom: "inception_4e/output"
  top: "pool4/3x3_s2"
  pooling_param {
    pool: MAX
    kernel_size: 3
    stride: 2
  }
}
layer {
  name: "inception_5a/1x1"
  type: "Convolution"
  bottom: "pool4/3x3_s2"
  top: "inception_5a/1x1"
  param {
    lr_mult: 1
    decay_mult: 1
  }
  param {
    lr_mult: 2
    decay_mult: 0
  }
  convolution_param {
    num_output: 256
    kernel_size: 1
    weight_filler {
      type: "xavier"
      std: 0.03
    }
    bias_filler {
      type: "constant"
      value: 0.2
    }
  }
}
layer {
  name: "inception_5a/relu_1x1"
  type: "ReLU"
  bottom: "inception_5a/1x1"
  top: "inception_5a/1x1"
}
layer {
  name: "inception_5a/3x3_reduce"
  type: "Convolution"
  bottom: "pool4/3x3_s2"
  top: "inception_5a/3x3_reduce"
  param {
    lr_mult: 1
    decay_mult: 1
  }
  param {
    lr_mult: 2
    decay_mult: 0
  }
  convolution_param {
    num_output: 160
    kernel_size: 1
    weight_filler {
      type: "xavier"
      std: 0.09
    }
    bias_filler {
      type: "constant"
      value: 0.2
    }
  }
}
layer {
  name: "inception_5a/relu_3x3_reduce"
  type: "ReLU"
  bottom: "inception_5a/3x3_reduce"
  top: "inception_5a/3x3_reduce"
}
layer {
  name: "inception_5a/3x3"
  type: "Convolution"
  bottom: "inception_5a/3x3_reduce"
  top: "inception_5a/3x3"
  param {
    lr_mult: 1
    decay_mult: 1
  }
  param {
    lr_mult: 2
    decay_mult: 0
  }
  convolution_param {
    num_output: 320
    pad: 1
    kernel_size: 3
    weight_filler {
      type: "xavier"
      std: 0.03
    }
    bias_filler {
      type: "constant"
      value: 0.2
    }
  }
}
layer {
  name: "inception_5a/relu_3x3"
  type: "ReLU"
  bottom: "inception_5a/3x3"
  top: "inception_5a/3x3"
}
layer {
  name: "inception_5a/5x5_reduce"
  type: "Convolution"
  bottom: "pool4/3x3_s2"
  top: "inception_5a/5x5_reduce"
  param {
    lr_mult: 1
    decay_mult: 1
  }
  param {
    lr_mult: 2
    decay_mult: 0
  }
  convolution_param {
    num_output: 32
    kernel_size: 1
    weight_filler {
      type: "xavier"
      std: 0.2
    }
    bias_filler {
      type: "constant"
      value: 0.2
    }
I0913 19:27:56.775615 22956 layer_factory.hpp:77] Creating layer data
I0913 19:27:56.775641 22956 net.cpp:91] Creating Layer data
I0913 19:27:56.775650 22956 net.cpp:399] data -> data
I0913 19:27:57.306442 22956 net.cpp:141] Setting up data
I0913 19:27:57.306505 22956 net.cpp:148] Top shape: 10 3 224 224 (1505280)
I0913 19:27:57.306512 22956 net.cpp:156] Memory required for data: 6021120
I0913 19:27:57.306531 22956 layer_factory.hpp:77] Creating layer conv1/7x7_s2
I0913 19:27:57.306567 22956 net.cpp:91] Creating Layer conv1/7x7_s2
I0913 19:27:57.306576 22956 net.cpp:425] conv1/7x7_s2 <- data
I0913 19:27:57.306589 22956 net.cpp:399] conv1/7x7_s2 -> conv1/7x7_s2
I0913 19:27:57.481396 22956 net.cpp:141] Setting up conv1/7x7_s2
I0913 19:27:57.481462 22956 net.cpp:148] Top shape: 10 64 112 112 (8028160)
I0913 19:27:57.481467 22956 net.cpp:156] Memory required for data: 38133760
I0913 19:27:57.481495 22956 layer_factory.hpp:77] Creating layer conv1/relu_7x7
I0913 19:27:57.481515 22956 net.cpp:91] Creating Layer conv1/relu_7x7
I0913 19:27:57.481523 22956 net.cpp:425] conv1/relu_7x7 <- conv1/7x7_s2
I0913 19:27:57.481529 22956 net.cpp:386] conv1/relu_7x7 -> conv1/7x7_s2 (in-place)
I0913 19:27:57.481945 22956 net.cpp:141] Setting up conv1/relu_7x7
I0913 19:27:57.481958 22956 net.cpp:148] Top shape: 10 64 112 112 (8028160)
I0913 19:27:57.481963 22956 net.cpp:156] Memory required for data: 70246400
I0913 19:27:57.481968 22956 layer_factory.hpp:77] Creating layer pool1/3x3_s2
I0913 19:27:57.481981 22956 net.cpp:91] Creating Layer pool1/3x3_s2
I0913 19:27:57.481986 22956 net.cpp:425] pool1/3x3_s2 <- conv1/7x7_s2
I0913 19:27:57.481997 22956 net.cpp:399] pool1/3x3_s2 -> pool1/3x3_s2
I0913 19:27:57.482074 22956 net.cpp:141] Setting up pool1/3x3_s2
I0913 19:27:57.482084 22956 net.cpp:148] Top shape: 10 64 56 56 (2007040)
I0913 19:27:57.482089 22956 net.cpp:156] Memory required for data: 78274560
I0913 19:27:57.482094 22956 layer_factory.hpp:77] Creating layer pool1/norm1
I0913 19:27:57.482115 22956 net.cpp:91] Creating Layer pool1/norm1
I0913 19:27:57.482120 22956 net.cpp:425] pool1/norm1 <- pool1/3x3_s2
I0913 19:27:57.482130 22956 net.cpp:399] pool1/norm1 -> pool1/norm1
I0913 19:27:57.482398 22956 net.cpp:141] Setting up pool1/norm1
I0913 19:27:57.482409 22956 net.cpp:148] Top shape: 10 64 56 56 (2007040)
I0913 19:27:57.482414 22956 net.cpp:156] Memory required for data: 86302720
I0913 19:27:57.482419 22956 layer_factory.hpp:77] Creating layer conv2/3x3_reduce
I0913 19:27:57.482442 22956 net.cpp:91] Creating Layer conv2/3x3_reduce
I0913 19:27:57.482450 22956 net.cpp:425] conv2/3x3_reduce <- pool1/norm1
I0913 19:27:57.482458 22956 net.cpp:399] conv2/3x3_reduce -> conv2/3x3_reduce
I0913 19:27:57.484549 22956 net.cpp:141] Setting up conv2/3x3_reduce
I0913 19:27:57.484580 22956 net.cpp:148] Top shape: 10 64 56 56 (2007040)
I0913 19:27:57.484586 22956 net.cpp:156] Memory required for data: 94330880
I0913 19:27:57.484597 22956 layer_factory.hpp:77] Creating layer conv2/relu_3x3_reduce
I0913 19:27:57.484611 22956 net.cpp:91] Creating Layer conv2/relu_3x3_reduce
I0913 19:27:57.484616 22956 net.cpp:425] conv2/relu_3x3_reduce <- conv2/3x3_reduce
I0913 19:27:57.484622 22956 net.cpp:386] conv2/relu_3x3_reduce -> conv2/3x3_reduce (in-place)
I0913 19:27:57.485002 22956 net.cpp:141] Setting up conv2/relu_3x3_reduce
I0913 19:27:57.485014 22956 net.cpp:148] Top shape: 10 64 56 56 (2007040)
I0913 19:27:57.485019 22956 net.cpp:156] Memory required for data: 102359040
I0913 19:27:57.485024 22956 layer_factory.hpp:77] Creating layer conv2/3x3
I0913 19:27:57.485043 22956 net.cpp:91] Creating Layer conv2/3x3
I0913 19:27:57.485047 22956 net.cpp:425] conv2/3x3 <- conv2/3x3_reduce
I0913 19:27:57.485055 22956 net.cpp:399] conv2/3x3 -> conv2/3x3
I0913 19:27:57.488062 22956 net.cpp:141] Setting up conv2/3x3
I0913 19:27:57.488098 22956 net.cpp:148] Top shape: 10 192 56 56 (6021120)
I0913 19:27:57.488104 22956 net.cpp:156] Memory required for data: 126443520
I0913 19:27:57.488116 22956 layer_factory.hpp:77] Creating layer conv2/relu_3x3
I0913 19:27:57.488131 22956 net.cpp:91] Creating Layer conv2/relu_3x3
I0913 19:27:57.488137 22956 net.cpp:425] conv2/relu_3x3 <- conv2/3x3
I0913 19:27:57.488143 22956 net.cpp:386] conv2/relu_3x3 -> conv2/3x3 (in-place)
I0913 19:27:57.488373 22956 net.cpp:141] Setting up conv2/relu_3x3
I0913 19:27:57.488386 22956 net.cpp:148] Top shape: 10 192 56 56 (6021120)
I0913 19:27:57.488391 22956 net.cpp:156] Memory required for data: 150528000
I0913 19:27:57.488396 22956 layer_factory.hpp:77] Creating layer conv2/norm2
I0913 19:27:57.488406 22956 net.cpp:91] Creating Layer conv2/norm2
I0913 19:27:57.488411 22956 net.cpp:425] conv2/norm2 <- conv2/3x3
I0913 19:27:57.488418 22956 net.cpp:399] conv2/norm2 -> conv2/norm2
I0913 19:27:57.488843 22956 net.cpp:141] Setting up conv2/norm2
I0913 19:27:57.488857 22956 net.cpp:148] Top shape: 10 192 56 56 (6021120)
I0913 19:27:57.488860 22956 net.cpp:156] Memory required for data: 174612480
I0913 19:27:57.488865 22956 layer_factory.hpp:77] Creating layer pool2/3x3_s2
I0913 19:27:57.488876 22956 net.cpp:91] Creating Layer pool2/3x3_s2
I0913 19:27:57.488881 22956 net.cpp:425] pool2/3x3_s2 <- conv2/norm2
I0913 19:27:57.488888 22956 net.cpp:399] pool2/3x3_s2 -> pool2/3x3_s2
I0913 19:27:57.488939 22956 net.cpp:141] Setting up pool2/3x3_s2
I0913 19:27:57.488947 22956 net.cpp:148] Top shape: 10 192 28 28 (1505280)
I0913 19:27:57.488951 22956 net.cpp:156] Memory required for data: 180633600
I0913 19:27:57.488955 22956 layer_factory.hpp:77] Creating layer pool2/3x3_s2_pool2/3x3_s2_0_split
I0913 19:27:57.488972 22956 net.cpp:91] Creating Layer pool2/3x3_s2_pool2/3x3_s2_0_split
I0913 19:27:57.488977 22956 net.cpp:425] pool2/3x3_s2_pool2/3x3_s2_0_split <- pool2/3x3_s2
I0913 19:27:57.488986 22956 net.cpp:399] pool2/3x3_s2_pool2/3x3_s2_0_split -> pool2/3x3_s2_pool2/3x3_s2_0_split_0
I0913 19:27:57.488996 22956 net.cpp:399] pool2/3x3_s2_pool2/3x3_s2_0_split -> pool2/3x3_s2_pool2/3x3_s2_0_split_1
I0913 19:27:57.489004 22956 net.cpp:399] pool2/3x3_s2_pool2/3x3_s2_0_split -> pool2/3x3_s2_pool2/3x3_s2_0_split_2
I0913 19:27:57.489012 22956 net.cpp:399] pool2/3x3_s2_pool2/3x3_s2_0_split -> pool2/3x3_s2_pool2/3x3_s2_0_split_3
I0913 19:27:57.489083 22956 net.cpp:141] Setting up pool2/3x3_s2_pool2/3x3_s2_0_split
I0913 19:27:57.489091 22956 net.cpp:148] Top shape: 10 192 28 28 (1505280)
I0913 19:27:57.489096 22956 net.cpp:148] Top shape: 10 192 28 28 (1505280)
I0913 19:27:57.489102 22956 net.cpp:148] Top shape: 10 192 28 28 (1505280)
I0913 19:27:57.489107 22956 net.cpp:148] Top shape: 10 192 28 28 (1505280)
I0913 19:27:57.489111 22956 net.cpp:156] Memory required for data: 204718080
I0913 19:27:57.489115 22956 layer_factory.hpp:77] Creating layer inception_3a/1x1
I0913 19:27:57.489132 22956 net.cpp:91] Creating Layer inception_3a/1x1
I0913 19:27:57.489137 22956 net.cpp:425] inception_3a/1x1 <- pool2/3x3_s2_pool2/3x3_s2_0_split_0
I0913 19:27:57.489159 22956 net.cpp:399] inception_3a/1x1 -> inception_3a/1x1
I0913 19:27:57.491081 22956 net.cpp:141] Setting up inception_3a/1x1
I0913 19:27:57.491111 22956 net.cpp:148] Top shape: 10 64 28 28 (501760)
I0913 19:27:57.491117 22956 net.cpp:156] Memory required for data: 206725120
I0913 19:27:57.491127 22956 layer_factory.hpp:77] Creating layer inception_3a/relu_1x1
I0913 19:27:57.491138 22956 net.cpp:91] Creating Layer inception_3a/relu_1x1
I0913 19:27:57.491144 22956 net.cpp:425] inception_3a/relu_1x1 <- inception_3a/1x1
I0913 19:27:57.491152 22956 net.cpp:386] inception_3a/relu_1x1 -> inception_3a/1x1 (in-place)
I0913 19:27:57.491535 22956 net.cpp:141] Setting up inception_3a/relu_1x1
I0913 19:27:57.491550 22956 net.cpp:148] Top shape: 10 64 28 28 (501760)
I0913 19:27:57.491555 22956 net.cpp:156] Memory required for data: 208732160
I0913 19:27:57.491560 22956 layer_factory.hpp:77] Creating layer inception_3a/3x3_reduce
I0913 19:27:57.491575 22956 net.cpp:91] Creating Layer inception_3a/3x3_reduce
I0913 19:27:57.491580 22956 net.cpp:425] inception_3a/3x3_reduce <- pool2/3x3_s2_pool2/3x3_s2_0_split_1
I0913 19:27:57.491590 22956 net.cpp:399] inception_3a/3x3_reduce -> inception_3a/3x3_reduce
I0913 19:27:57.493995 22956 net.cpp:141] Setting up inception_3a/3x3_reduce
I0913 19:27:57.494012 22956 net.cpp:148] Top shape: 10 96 28 28 (752640)
I0913 19:27:57.494019 22956 net.cpp:156] Memory required for data: 211742720
I0913 19:27:57.494032 22956 layer_factory.hpp:77] Creating layer inception_3a/relu_3x3_reduce
I0913 19:27:57.494042 22956 net.cpp:91] Creating Layer inception_3a/relu_3x3_reduce
I0913 19:27:57.494047 22956 net.cpp:425] inception_3a/relu_3x3_reduce <- inception_3a/3x3_reduce
I0913 19:27:57.494053 22956 net.cpp:386] inception_3a/relu_3x3_reduce -> inception_3a/3x3_reduce (in-place)
I0913 19:27:57.494308 22956 net.cpp:141] Setting up inception_3a/relu_3x3_reduce
I0913 19:27:57.494320 22956 net.cpp:148] Top shape: 10 96 28 28 (752640)
I0913 19:27:57.494324 22956 net.cpp:156] Memory required for data: 214753280
I0913 19:27:57.494329 22956 layer_factory.hpp:77] Creating layer inception_3a/3x3
I0913 19:27:57.494345 22956 net.cpp:91] Creating Layer inception_3a/3x3
I0913 19:27:57.494351 22956 net.cpp:425] inception_3a/3x3 <- inception_3a/3x3_reduce
I0913 19:27:57.494364 22956 net.cpp:399] inception_3a/3x3 -> inception_3a/3x3
I0913 19:27:57.496577 22956 net.cpp:141] Setting up inception_3a/3x3
I0913 19:27:57.496594 22956 net.cpp:148] Top shape: 10 128 28 28 (1003520)
I0913 19:27:57.496599 22956 net.cpp:156] Memory required for data: 218767360
I0913 19:27:57.496608 22956 layer_factory.hpp:77] Creating layer inception_3a/relu_3x3
I0913 19:27:57.496618 22956 net.cpp:91] Creating Layer inception_3a/relu_3x3
I0913 19:27:57.496623 22956 net.cpp:425] inception_3a/relu_3x3 <- inception_3a/3x3
I0913 19:27:57.496632 22956 net.cpp:386] inception_3a/relu_3x3 -> inception_3a/3x3 (in-place)
I0913 19:27:57.497030 22956 net.cpp:141] Setting up inception_3a/relu_3x3
I0913 19:27:57.497041 22956 net.cpp:148] Top shape: 10 128 28 28 (1003520)
I0913 19:27:57.497046 22956 net.cpp:156] Memory required for data: 222781440
I0913 19:27:57.497051 22956 layer_factory.hpp:77] Creating layer inception_3a/5x5_reduce
I0913 19:27:57.497066 22956 net.cpp:91] Creating Layer inception_3a/5x5_reduce
I0913 19:27:57.497072 22956 net.cpp:425] inception_3a/5x5_reduce <- pool2/3x3_s2_pool2/3x3_s2_0_split_2
I0913 19:27:57.497083 22956 net.cpp:399] inception_3a/5x5_reduce -> inception_3a/5x5_reduce
I0913 19:27:57.498301 22956 net.cpp:141] Setting up inception_3a/5x5_reduce
I0913 19:27:57.498318 22956 net.cpp:148] Top shape: 10 16 28 28 (125440)
I0913 19:27:57.498323 22956 net.cpp:156] Memory required for data: 223283200
I0913 19:27:57.498332 22956 layer_factory.hpp:77] Creating layer inception_3a/relu_5x5_reduce
I0913 19:27:57.498339 22956 net.cpp:91] Creating Layer inception_3a/relu_5x5_reduce
I0913 19:27:57.498345 22956 net.cpp:425] inception_3a/relu_5x5_reduce <- inception_3a/5x5_reduce
I0913 19:27:57.498358 22956 net.cpp:386] inception_3a/relu_5x5_reduce -> inception_3a/5x5_reduce (in-place)
I0913 19:27:57.498746 22956 net.cpp:141] Setting up inception_3a/relu_5x5_reduce
I0913 19:27:57.498759 22956 net.cpp:148] Top shape: 10 16 28 28 (125440)
I0913 19:27:57.498762 22956 net.cpp:156] Memory required for data: 223784960
I0913 19:27:57.498767 22956 layer_factory.hpp:77] Creating layer inception_3a/5x5
I0913 19:27:57.498785 22956 net.cpp:91] Creating Layer inception_3a/5x5
I0913 19:27:57.498790 22956 net.cpp:425] inception_3a/5x5 <- inception_3a/5x5_reduce
I0913 19:27:57.498800 22956 net.cpp:399] inception_3a/5x5 -> inception_3a/5x5
I0913 19:27:57.500747 22956 net.cpp:141] Setting up inception_3a/5x5
I0913 19:27:57.500766 22956 net.cpp:148] Top shape: 10 32 28 28 (250880)
I0913 19:27:57.500771 22956 net.cpp:156] Memory required for data: 224788480
I0913 19:27:57.500782 22956 layer_factory.hpp:77] Creating layer inception_3a/relu_5x5
I0913 19:27:57.500792 22956 net.cpp:91] Creating Layer inception_3a/relu_5x5
I0913 19:27:57.500797 22956 net.cpp:425] inception_3a/relu_5x5 <- inception_3a/5x5
I0913 19:27:57.500805 22956 net.cpp:386] inception_3a/relu_5x5 -> inception_3a/5x5 (in-place)
I0913 19:27:57.501051 22956 net.cpp:141] Setting up inception_3a/relu_5x5
I0913 19:27:57.501063 22956 net.cpp:148] Top shape: 10 32 28 28 (250880)
I0913 19:27:57.501067 22956 net.cpp:156] Memory required for data: 225792000
I0913 19:27:57.501072 22956 layer_factory.hpp:77] Creating layer inception_3a/pool
I0913 19:27:57.501085 22956 net.cpp:91] Creating Layer inception_3a/pool
I0913 19:27:57.501090 22956 net.cpp:425] inception_3a/pool <- pool2/3x3_s2_pool2/3x3_s2_0_split_3
I0913 19:27:57.501097 22956 net.cpp:399] inception_3a/pool -> inception_3a/pool
I0913 19:27:57.501155 22956 net.cpp:141] Setting up inception_3a/pool
I0913 19:27:57.501164 22956 net.cpp:148] Top shape: 10 192 28 28 (1505280)
I0913 19:27:57.501168 22956 net.cpp:156] Memory required for data: 231813120
I0913 19:27:57.501173 22956 layer_factory.hpp:77] Creating layer inception_3a/pool_proj
I0913 19:27:57.501186 22956 net.cpp:91] Creating Layer inception_3a/pool_proj
I0913 19:27:57.501191 22956 net.cpp:425] inception_3a/pool_proj <- inception_3a/pool
I0913 19:27:57.501199 22956 net.cpp:399] inception_3a/pool_proj -> inception_3a/pool_proj
I0913 19:27:57.502588 22956 net.cpp:141] Setting up inception_3a/pool_proj
I0913 19:27:57.502605 22956 net.cpp:148] Top shape: 10 32 28 28 (250880)
I0913 19:27:57.502610 22956 net.cpp:156] Memory required for data: 232816640
I0913 19:27:57.502627 22956 layer_factory.hpp:77] Creating layer inception_3a/relu_pool_proj
I0913 19:27:57.502636 22956 net.cpp:91] Creating Layer inception_3a/relu_pool_proj
I0913 19:27:57.502642 22956 net.cpp:425] inception_3a/relu_pool_proj <- inception_3a/pool_proj
I0913 19:27:57.502652 22956 net.cpp:386] inception_3a/relu_pool_proj -> inception_3a/pool_proj (in-place)
I0913 19:27:57.503042 22956 net.cpp:141] Setting up inception_3a/relu_pool_proj
I0913 19:27:57.503054 22956 net.cpp:148] Top shape: 10 32 28 28 (250880)
I0913 19:27:57.503059 22956 net.cpp:156] Memory required for data: 233820160
I0913 19:27:57.503063 22956 layer_factory.hpp:77] Creating layer inception_3a/output
I0913 19:27:57.503080 22956 net.cpp:91] Creating Layer inception_3a/output
I0913 19:27:57.503085 22956 net.cpp:425] inception_3a/output <- inception_3a/1x1
I0913 19:27:57.503092 22956 net.cpp:425] inception_3a/output <- inception_3a/3x3
I0913 19:27:57.503096 22956 net.cpp:425] inception_3a/output <- inception_3a/5x5
I0913 19:27:57.503101 22956 net.cpp:425] inception_3a/output <- inception_3a/pool_proj
I0913 19:27:57.503110 22956 net.cpp:399] inception_3a/output -> inception_3a/output
I0913 19:27:57.503155 22956 net.cpp:141] Setting up inception_3a/output
I0913 19:27:57.503166 22956 net.cpp:148] Top shape: 10 256 28 28 (2007040)
I0913 19:27:57.503171 22956 net.cpp:156] Memory required for data: 241848320
I0913 19:27:57.503175 22956 layer_factory.hpp:77] Creating layer inception_3a/output_inception_3a/output_0_split
I0913 19:27:57.503183 22956 net.cpp:91] Creating Layer inception_3a/output_inception_3a/output_0_split
I0913 19:27:57.503187 22956 net.cpp:425] inception_3a/output_inception_3a/output_0_split <- inception_3a/output
I0913 19:27:57.503195 22956 net.cpp:399] inception_3a/output_inception_3a/output_0_split -> inception_3a/output_inception_3a/output_0_split_0
I0913 19:27:57.503202 22956 net.cpp:399] inception_3a/output_inception_3a/output_0_split -> inception_3a/output_inception_3a/output_0_split_1
I0913 19:27:57.503213 22956 net.cpp:399] inception_3a/output_inception_3a/output_0_split -> inception_3a/output_inception_3a/output_0_split_2
I0913 19:27:57.503221 22956 net.cpp:399] inception_3a/output_inception_3a/output_0_split -> inception_3a/output_inception_3a/output_0_split_3
I0913 19:27:57.503298 22956 net.cpp:141] Setting up inception_3a/output_inception_3a/output_0_split
I0913 19:27:57.503307 22956 net.cpp:148] Top shape: 10 256 28 28 (2007040)
I0913 19:27:57.503312 22956 net.cpp:148] Top shape: 10 256 28 28 (2007040)
I0913 19:27:57.503317 22956 net.cpp:148] Top shape: 10 256 28 28 (2007040)
I0913 19:27:57.503322 22956 net.cpp:148] Top shape: 10 256 28 28 (2007040)
I0913 19:27:57.503326 22956 net.cpp:156] Memory required for data: 273960960
I0913 19:27:57.503331 22956 layer_factory.hpp:77] Creating layer inception_3b/1x1
I0913 19:27:57.503345 22956 net.cpp:91] Creating Layer inception_3b/1x1
I0913 19:27:57.503351 22956 net.cpp:425] inception_3b/1x1 <- inception_3a/output_inception_3a/output_0_split_0
I0913 19:27:57.503365 22956 net.cpp:399] inception_3b/1x1 -> inception_3b/1x1
I0913 19:27:57.504809 22956 net.cpp:141] Setting up inception_3b/1x1
I0913 19:27:57.504822 22956 net.cpp:148] Top shape: 10 128 28 28 (1003520)
I0913 19:27:57.504827 22956 net.cpp:156] Memory required for data: 277975040
I0913 19:27:57.504835 22956 layer_factory.hpp:77] Creating layer inception_3b/relu_1x1
I0913 19:27:57.504847 22956 net.cpp:91] Creating Layer inception_3b/relu_1x1
I0913 19:27:57.504853 22956 net.cpp:425] inception_3b/relu_1x1 <- inception_3b/1x1
I0913 19:27:57.504859 22956 net.cpp:386] inception_3b/relu_1x1 -> inception_3b/1x1 (in-place)
I0913 19:27:57.505236 22956 net.cpp:141] Setting up inception_3b/relu_1x1
I0913 19:27:57.505249 22956 net.cpp:148] Top shape: 10 128 28 28 (1003520)
I0913 19:27:57.505252 22956 net.cpp:156] Memory required for data: 281989120
I0913 19:27:57.505257 22956 layer_factory.hpp:77] Creating layer inception_3b/3x3_reduce
I0913 19:27:57.505275 22956 net.cpp:91] Creating Layer inception_3b/3x3_reduce
I0913 19:27:57.505280 22956 net.cpp:425] inception_3b/3x3_reduce <- inception_3a/output_inception_3a/output_0_split_1
I0913 19:27:57.505288 22956 net.cpp:399] inception_3b/3x3_reduce -> inception_3b/3x3_reduce
I0913 19:27:57.506853 22956 net.cpp:141] Setting up inception_3b/3x3_reduce
I0913 19:27:57.506871 22956 net.cpp:148] Top shape: 10 128 28 28 (1003520)
I0913 19:27:57.506876 22956 net.cpp:156] Memory required for data: 286003200
I0913 19:27:57.506885 22956 layer_factory.hpp:77] Creating layer inception_3b/relu_3x3_reduce
I0913 19:27:57.506892 22956 net.cpp:91] Creating Layer inception_3b/relu_3x3_reduce
I0913 19:27:57.506897 22956 net.cpp:425] inception_3b/relu_3x3_reduce <- inception_3b/3x3_reduce
I0913 19:27:57.506906 22956 net.cpp:386] inception_3b/relu_3x3_reduce -> inception_3b/3x3_reduce (in-place)
I0913 19:27:57.507123 22956 net.cpp:141] Setting up inception_3b/relu_3x3_reduce
I0913 19:27:57.507133 22956 net.cpp:148] Top shape: 10 128 28 28 (1003520)
I0913 19:27:57.507138 22956 net.cpp:156] Memory required for data: 290017280
I0913 19:27:57.507143 22956 layer_factory.hpp:77] Creating layer inception_3b/3x3
I0913 19:27:57.507158 22956 net.cpp:91] Creating Layer inception_3b/3x3
I0913 19:27:57.507164 22956 net.cpp:425] inception_3b/3x3 <- inception_3b/3x3_reduce
I0913 19:27:57.507172 22956 net.cpp:399] inception_3b/3x3 -> inception_3b/3x3
I0913 19:27:57.510834 22956 net.cpp:141] Setting up inception_3b/3x3
I0913 19:27:57.510853 22956 net.cpp:148] Top shape: 10 192 28 28 (1505280)
I0913 19:27:57.510857 22956 net.cpp:156] Memory required for data: 296038400
I0913 19:27:57.510866 22956 layer_factory.hpp:77] Creating layer inception_3b/relu_3x3
I0913 19:27:57.510877 22956 net.cpp:91] Creating Layer inception_3b/relu_3x3
I0913 19:27:57.510884 22956 net.cpp:425] inception_3b/relu_3x3 <- inception_3b/3x3
I0913 19:27:57.510895 22956 net.cpp:386] inception_3b/relu_3x3 -> inception_3b/3x3 (in-place)
I0913 19:27:57.511296 22956 net.cpp:141] Setting up inception_3b/relu_3x3
I0913 19:27:57.511308 22956 net.cpp:148] Top shape: 10 192 28 28 (1505280)
I0913 19:27:57.511312 22956 net.cpp:156] Memory required for data: 302059520
I0913 19:27:57.511317 22956 layer_factory.hpp:77] Creating layer inception_3b/5x5_reduce
I0913 19:27:57.511335 22956 net.cpp:91] Creating Layer inception_3b/5x5_reduce
I0913 19:27:57.511340 22956 net.cpp:425] inception_3b/5x5_reduce <- inception_3a/output_inception_3a/output_0_split_2
I0913 19:27:57.511349 22956 net.cpp:399] inception_3b/5x5_reduce -> inception_3b/5x5_reduce
I0913 19:27:57.512629 22956 net.cpp:141] Setting up inception_3b/5x5_reduce
I0913 19:27:57.512647 22956 net.cpp:148] Top shape: 10 32 28 28 (250880)
I0913 19:27:57.512652 22956 net.cpp:156] Memory required for data: 303063040
I0913 19:27:57.512660 22956 layer_factory.hpp:77] Creating layer inception_3b/relu_5x5_reduce
I0913 19:27:57.512672 22956 net.cpp:91] Creating Layer inception_3b/relu_5x5_reduce
I0913 19:27:57.512678 22956 net.cpp:425] inception_3b/relu_5x5_reduce <- inception_3b/5x5_reduce
I0913 19:27:57.512686 22956 net.cpp:386] inception_3b/relu_5x5_reduce -> inception_3b/5x5_reduce (in-place)
I0913 19:27:57.513074 22956 net.cpp:141] Setting up inception_3b/relu_5x5_reduce
I0913 19:27:57.513087 22956 net.cpp:148] Top shape: 10 32 28 28 (250880)
I0913 19:27:57.513092 22956 net.cpp:156] Memory required for data: 304066560
I0913 19:27:57.513097 22956 layer_factory.hpp:77] Creating layer inception_3b/5x5
I0913 19:27:57.513113 22956 net.cpp:91] Creating Layer inception_3b/5x5
I0913 19:27:57.513119 22956 net.cpp:425] inception_3b/5x5 <- inception_3b/5x5_reduce
I0913 19:27:57.513128 22956 net.cpp:399] inception_3b/5x5 -> inception_3b/5x5
I0913 19:27:57.515760 22956 net.cpp:141] Setting up inception_3b/5x5
I0913 19:27:57.515779 22956 net.cpp:148] Top shape: 10 96 28 28 (752640)
I0913 19:27:57.515784 22956 net.cpp:156] Memory required for data: 307077120
I0913 19:27:57.515792 22956 layer_factory.hpp:77] Creating layer inception_3b/relu_5x5
I0913 19:27:57.515807 22956 net.cpp:91] Creating Layer inception_3b/relu_5x5
I0913 19:27:57.515813 22956 net.cpp:425] inception_3b/relu_5x5 <- inception_3b/5x5
I0913 19:27:57.515820 22956 net.cpp:386] inception_3b/relu_5x5 -> inception_3b/5x5 (in-place)
I0913 19:27:57.516046 22956 net.cpp:141] Setting up inception_3b/relu_5x5
I0913 19:27:57.516057 22956 net.cpp:148] Top shape: 10 96 28 28 (752640)
I0913 19:27:57.516060 22956 net.cpp:156] Memory required for data: 310087680
I0913 19:27:57.516065 22956 layer_factory.hpp:77] Creating layer inception_3b/pool
I0913 19:27:57.516083 22956 net.cpp:91] Creating Layer inception_3b/pool
I0913 19:27:57.516089 22956 net.cpp:425] inception_3b/pool <- inception_3a/output_inception_3a/output_0_split_3
I0913 19:27:57.516098 22956 net.cpp:399] inception_3b/pool -> inception_3b/pool
I0913 19:27:57.516158 22956 net.cpp:141] Setting up inception_3b/pool
I0913 19:27:57.516167 22956 net.cpp:148] Top shape: 10 256 28 28 (2007040)
I0913 19:27:57.516171 22956 net.cpp:156] Memory required for data: 318115840
I0913 19:27:57.516176 22956 layer_factory.hpp:77] Creating layer inception_3b/pool_proj
I0913 19:27:57.516193 22956 net.cpp:91] Creating Layer inception_3b/pool_proj
I0913 19:27:57.516198 22956 net.cpp:425] inception_3b/pool_proj <- inception_3b/pool
I0913 19:27:57.516206 22956 net.cpp:399] inception_3b/pool_proj -> inception_3b/pool_proj
I0913 19:27:57.517705 22956 net.cpp:141] Setting up inception_3b/pool_proj
I0913 19:27:57.517721 22956 net.cpp:148] Top shape: 10 64 28 28 (501760)
I0913 19:27:57.517726 22956 net.cpp:156] Memory required for data: 320122880
I0913 19:27:57.517735 22956 layer_factory.hpp:77] Creating layer inception_3b/relu_pool_proj
I0913 19:27:57.517747 22956 net.cpp:91] Creating Layer inception_3b/relu_pool_proj
I0913 19:27:57.517753 22956 net.cpp:425] inception_3b/relu_pool_proj <- inception_3b/pool_proj
I0913 19:27:57.517760 22956 net.cpp:386] inception_3b/relu_pool_proj -> inception_3b/pool_proj (in-place)
I0913 19:27:57.518154 22956 net.cpp:141] Setting up inception_3b/relu_pool_proj
I0913 19:27:57.518168 22956 net.cpp:148] Top shape: 10 64 28 28 (501760)
I0913 19:27:57.518173 22956 net.cpp:156] Memory required for data: 322129920
I0913 19:27:57.518178 22956 layer_factory.hpp:77] Creating layer inception_3b/output
I0913 19:27:57.518187 22956 net.cpp:91] Creating Layer inception_3b/output
I0913 19:27:57.518191 22956 net.cpp:425] inception_3b/output <- inception_3b/1x1
I0913 19:27:57.518198 22956 net.cpp:425] inception_3b/output <- inception_3b/3x3
I0913 19:27:57.518203 22956 net.cpp:425] inception_3b/output <- inception_3b/5x5
I0913 19:27:57.518208 22956 net.cpp:425] inception_3b/output <- inception_3b/pool_proj
I0913 19:27:57.518215 22956 net.cpp:399] inception_3b/output -> inception_3b/output
I0913 19:27:57.518254 22956 net.cpp:141] Setting up inception_3b/output
I0913 19:27:57.518261 22956 net.cpp:148] Top shape: 10 480 28 28 (3763200)
I0913 19:27:57.518265 22956 net.cpp:156] Memory required for data: 337182720
I0913 19:27:57.518270 22956 layer_factory.hpp:77] Creating layer pool3/3x3_s2
I0913 19:27:57.518285 22956 net.cpp:91] Creating Layer pool3/3x3_s2
I0913 19:27:57.518290 22956 net.cpp:425] pool3/3x3_s2 <- inception_3b/output
I0913 19:27:57.518296 22956 net.cpp:399] pool3/3x3_s2 -> pool3/3x3_s2
I0913 19:27:57.518354 22956 net.cpp:141] Setting up pool3/3x3_s2
I0913 19:27:57.518365 22956 net.cpp:148] Top shape: 10 480 14 14 (940800)
I0913 19:27:57.518369 22956 net.cpp:156] Memory required for data: 340945920
I0913 19:27:57.518374 22956 layer_factory.hpp:77] Creating layer pool3/3x3_s2_pool3/3x3_s2_0_split
I0913 19:27:57.518383 22956 net.cpp:91] Creating Layer pool3/3x3_s2_pool3/3x3_s2_0_split
I0913 19:27:57.518386 22956 net.cpp:425] pool3/3x3_s2_pool3/3x3_s2_0_split <- pool3/3x3_s2
I0913 19:27:57.518393 22956 net.cpp:399] pool3/3x3_s2_pool3/3x3_s2_0_split -> pool3/3x3_s2_pool3/3x3_s2_0_split_0
I0913 19:27:57.518401 22956 net.cpp:399] pool3/3x3_s2_pool3/3x3_s2_0_split -> pool3/3x3_s2_pool3/3x3_s2_0_split_1
I0913 19:27:57.518409 22956 net.cpp:399] pool3/3x3_s2_pool3/3x3_s2_0_split -> pool3/3x3_s2_pool3/3x3_s2_0_split_2
I0913 19:27:57.518419 22956 net.cpp:399] pool3/3x3_s2_pool3/3x3_s2_0_split -> pool3/3x3_s2_pool3/3x3_s2_0_split_3
I0913 19:27:57.518497 22956 net.cpp:141] Setting up pool3/3x3_s2_pool3/3x3_s2_0_split
I0913 19:27:57.518506 22956 net.cpp:148] Top shape: 10 480 14 14 (940800)
I0913 19:27:57.518512 22956 net.cpp:148] Top shape: 10 480 14 14 (940800)
I0913 19:27:57.518517 22956 net.cpp:148] Top shape: 10 480 14 14 (940800)
I0913 19:27:57.518522 22956 net.cpp:148] Top shape: 10 480 14 14 (940800)
I0913 19:27:57.518525 22956 net.cpp:156] Memory required for data: 355998720
I0913 19:27:57.518529 22956 layer_factory.hpp:77] Creating layer inception_4a/1x1
I0913 19:27:57.518544 22956 net.cpp:91] Creating Layer inception_4a/1x1
I0913 19:27:57.518549 22956 net.cpp:425] inception_4a/1x1 <- pool3/3x3_s2_pool3/3x3_s2_0_split_0
I0913 19:27:57.518559 22956 net.cpp:399] inception_4a/1x1 -> inception_4a/1x1
I0913 19:27:57.520689 22956 net.cpp:141] Setting up inception_4a/1x1
I0913 19:27:57.520706 22956 net.cpp:148] Top shape: 10 192 14 14 (376320)
I0913 19:27:57.520711 22956 net.cpp:156] Memory required for data: 357504000
I0913 19:27:57.520720 22956 layer_factory.hpp:77] Creating layer inception_4a/relu_1x1
I0913 19:27:57.520728 22956 net.cpp:91] Creating Layer inception_4a/relu_1x1
I0913 19:27:57.520736 22956 net.cpp:425] inception_4a/relu_1x1 <- inception_4a/1x1
I0913 19:27:57.520743 22956 net.cpp:386] inception_4a/relu_1x1 -> inception_4a/1x1 (in-place)
I0913 19:27:57.521137 22956 net.cpp:141] Setting up inception_4a/relu_1x1
I0913 19:27:57.521152 22956 net.cpp:148] Top shape: 10 192 14 14 (376320)
I0913 19:27:57.521157 22956 net.cpp:156] Memory required for data: 359009280
I0913 19:27:57.521162 22956 layer_factory.hpp:77] Creating layer inception_4a/3x3_reduce
I0913 19:27:57.521178 22956 net.cpp:91] Creating Layer inception_4a/3x3_reduce
I0913 19:27:57.521183 22956 net.cpp:425] inception_4a/3x3_reduce <- pool3/3x3_s2_pool3/3x3_s2_0_split_1
I0913 19:27:57.521195 22956 net.cpp:399] inception_4a/3x3_reduce -> inception_4a/3x3_reduce
I0913 19:27:57.523048 22956 net.cpp:141] Setting up inception_4a/3x3_reduce
I0913 19:27:57.523078 22956 net.cpp:148] Top shape: 10 96 14 14 (188160)
I0913 19:27:57.523082 22956 net.cpp:156] Memory required for data: 359761920
I0913 19:27:57.523102 22956 layer_factory.hpp:77] Creating layer inception_4a/relu_3x3_reduce
I0913 19:27:57.523118 22956 net.cpp:91] Creating Layer inception_4a/relu_3x3_reduce
I0913 19:27:57.523124 22956 net.cpp:425] inception_4a/relu_3x3_reduce <- inception_4a/3x3_reduce
I0913 19:27:57.523133 22956 net.cpp:386] inception_4a/relu_3x3_reduce -> inception_4a/3x3_reduce (in-place)
I0913 19:27:57.523363 22956 net.cpp:141] Setting up inception_4a/relu_3x3_reduce
I0913 19:27:57.523373 22956 net.cpp:148] Top shape: 10 96 14 14 (188160)
I0913 19:27:57.523377 22956 net.cpp:156] Memory required for data: 360514560
I0913 19:27:57.523382 22956 layer_factory.hpp:77] Creating layer inception_4a/3x3
I0913 19:27:57.523401 22956 net.cpp:91] Creating Layer inception_4a/3x3
I0913 19:27:57.523406 22956 net.cpp:425] inception_4a/3x3 <- inception_4a/3x3_reduce
I0913 19:27:57.523416 22956 net.cpp:399] inception_4a/3x3 -> inception_4a/3x3
I0913 19:27:57.526916 22956 net.cpp:141] Setting up inception_4a/3x3
I0913 19:27:57.526932 22956 net.cpp:148] Top shape: 10 208 14 14 (407680)
I0913 19:27:57.526937 22956 net.cpp:156] Memory required for data: 362145280
I0913 19:27:57.526944 22956 layer_factory.hpp:77] Creating layer inception_4a/relu_3x3
I0913 19:27:57.526953 22956 net.cpp:91] Creating Layer inception_4a/relu_3x3
I0913 19:27:57.526959 22956 net.cpp:425] inception_4a/relu_3x3 <- inception_4a/3x3
I0913 19:27:57.526969 22956 net.cpp:386] inception_4a/relu_3x3 -> inception_4a/3x3 (in-place)
I0913 19:27:57.527375 22956 net.cpp:141] Setting up inception_4a/relu_3x3
I0913 19:27:57.527390 22956 net.cpp:148] Top shape: 10 208 14 14 (407680)
I0913 19:27:57.527395 22956 net.cpp:156] Memory required for data: 363776000
I0913 19:27:57.527400 22956 layer_factory.hpp:77] Creating layer inception_4a/5x5_reduce
I0913 19:27:57.527415 22956 net.cpp:91] Creating Layer inception_4a/5x5_reduce
I0913 19:27:57.527422 22956 net.cpp:425] inception_4a/5x5_reduce <- pool3/3x3_s2_pool3/3x3_s2_0_split_2
I0913 19:27:57.527433 22956 net.cpp:399] inception_4a/5x5_reduce -> inception_4a/5x5_reduce
I0913 19:27:57.528739 22956 net.cpp:141] Setting up inception_4a/5x5_reduce
I0913 19:27:57.528756 22956 net.cpp:148] Top shape: 10 16 14 14 (31360)
I0913 19:27:57.528761 22956 net.cpp:156] Memory required for data: 363901440
I0913 19:27:57.528770 22956 layer_factory.hpp:77] Creating layer inception_4a/relu_5x5_reduce
I0913 19:27:57.528782 22956 net.cpp:91] Creating Layer inception_4a/relu_5x5_reduce
I0913 19:27:57.528789 22956 net.cpp:425] inception_4a/relu_5x5_reduce <- inception_4a/5x5_reduce
I0913 19:27:57.528795 22956 net.cpp:386] inception_4a/relu_5x5_reduce -> inception_4a/5x5_reduce (in-place)
I0913 19:27:57.529225 22956 net.cpp:141] Setting up inception_4a/relu_5x5_reduce
I0913 19:27:57.529238 22956 net.cpp:148] Top shape: 10 16 14 14 (31360)
I0913 19:27:57.529243 22956 net.cpp:156] Memory required for data: 364026880
I0913 19:27:57.529248 22956 layer_factory.hpp:77] Creating layer inception_4a/5x5
I0913 19:27:57.529266 22956 net.cpp:91] Creating Layer inception_4a/5x5
I0913 19:27:57.529273 22956 net.cpp:425] inception_4a/5x5 <- inception_4a/5x5_reduce
I0913 19:27:57.529280 22956 net.cpp:399] inception_4a/5x5 -> inception_4a/5x5
I0913 19:27:57.530848 22956 net.cpp:141] Setting up inception_4a/5x5
I0913 19:27:57.530879 22956 net.cpp:148] Top shape: 10 48 14 14 (94080)
I0913 19:27:57.530884 22956 net.cpp:156] Memory required for data: 364403200
I0913 19:27:57.530892 22956 layer_factory.hpp:77] Creating layer inception_4a/relu_5x5
I0913 19:27:57.530905 22956 net.cpp:91] Creating Layer inception_4a/relu_5x5
I0913 19:27:57.530911 22956 net.cpp:425] inception_4a/relu_5x5 <- inception_4a/5x5
I0913 19:27:57.530918 22956 net.cpp:386] inception_4a/relu_5x5 -> inception_4a/5x5 (in-place)
I0913 19:27:57.531147 22956 net.cpp:141] Setting up inception_4a/relu_5x5
I0913 19:27:57.531157 22956 net.cpp:148] Top shape: 10 48 14 14 (94080)
I0913 19:27:57.531162 22956 net.cpp:156] Memory required for data: 364779520
I0913 19:27:57.531167 22956 layer_factory.hpp:77] Creating layer inception_4a/pool
I0913 19:27:57.531177 22956 net.cpp:91] Creating Layer inception_4a/pool
I0913 19:27:57.531183 22956 net.cpp:425] inception_4a/pool <- pool3/3x3_s2_pool3/3x3_s2_0_split_3
I0913 19:27:57.531193 22956 net.cpp:399] inception_4a/pool -> inception_4a/pool
I0913 19:27:57.531255 22956 net.cpp:141] Setting up inception_4a/pool
I0913 19:27:57.531265 22956 net.cpp:148] Top shape: 10 480 14 14 (940800)
I0913 19:27:57.531268 22956 net.cpp:156] Memory required for data: 368542720
I0913 19:27:57.531273 22956 layer_factory.hpp:77] Creating layer inception_4a/pool_proj
I0913 19:27:57.531291 22956 net.cpp:91] Creating Layer inception_4a/pool_proj
I0913 19:27:57.531297 22956 net.cpp:425] inception_4a/pool_proj <- inception_4a/pool
I0913 19:27:57.531306 22956 net.cpp:399] inception_4a/pool_proj -> inception_4a/pool_proj
I0913 19:27:57.532944 22956 net.cpp:141] Setting up inception_4a/pool_proj
I0913 19:27:57.532964 22956 net.cpp:148] Top shape: 10 64 14 14 (125440)
I0913 19:27:57.532969 22956 net.cpp:156] Memory required for data: 369044480
I0913 19:27:57.532977 22956 layer_factory.hpp:77] Creating layer inception_4a/relu_pool_proj
I0913 19:27:57.532986 22956 net.cpp:91] Creating Layer inception_4a/relu_pool_proj
I0913 19:27:57.532991 22956 net.cpp:425] inception_4a/relu_pool_proj <- inception_4a/pool_proj
I0913 19:27:57.532999 22956 net.cpp:386] inception_4a/relu_pool_proj -> inception_4a/pool_proj (in-place)
I0913 19:27:57.533402 22956 net.cpp:141] Setting up inception_4a/relu_pool_proj
I0913 19:27:57.533414 22956 net.cpp:148] Top shape: 10 64 14 14 (125440)
I0913 19:27:57.533418 22956 net.cpp:156] Memory required for data: 369546240
I0913 19:27:57.533423 22956 layer_factory.hpp:77] Creating layer inception_4a/output
I0913 19:27:57.533432 22956 net.cpp:91] Creating Layer inception_4a/output
I0913 19:27:57.533438 22956 net.cpp:425] inception_4a/output <- inception_4a/1x1
I0913 19:27:57.533444 22956 net.cpp:425] inception_4a/output <- inception_4a/3x3
I0913 19:27:57.533449 22956 net.cpp:425] inception_4a/output <- inception_4a/5x5
I0913 19:27:57.533454 22956 net.cpp:425] inception_4a/output <- inception_4a/pool_proj
I0913 19:27:57.533460 22956 net.cpp:399] inception_4a/output -> inception_4a/output
I0913 19:27:57.533504 22956 net.cpp:141] Setting up inception_4a/output
I0913 19:27:57.533514 22956 net.cpp:148] Top shape: 10 512 14 14 (1003520)
I0913 19:27:57.533519 22956 net.cpp:156] Memory required for data: 373560320
I0913 19:27:57.533522 22956 layer_factory.hpp:77] Creating layer inception_4a/output_inception_4a/output_0_split
I0913 19:27:57.533534 22956 net.cpp:91] Creating Layer inception_4a/output_inception_4a/output_0_split
I0913 19:27:57.533538 22956 net.cpp:425] inception_4a/output_inception_4a/output_0_split <- inception_4a/output
I0913 19:27:57.533545 22956 net.cpp:399] inception_4a/output_inception_4a/output_0_split -> inception_4a/output_inception_4a/output_0_split_0
I0913 19:27:57.533553 22956 net.cpp:399] inception_4a/output_inception_4a/output_0_split -> inception_4a/output_inception_4a/output_0_split_1
I0913 19:27:57.533561 22956 net.cpp:399] inception_4a/output_inception_4a/output_0_split -> inception_4a/output_inception_4a/output_0_split_2
I0913 19:27:57.533568 22956 net.cpp:399] inception_4a/output_inception_4a/output_0_split -> inception_4a/output_inception_4a/output_0_split_3
I0913 19:27:57.533654 22956 net.cpp:141] Setting up inception_4a/output_inception_4a/output_0_split
I0913 19:27:57.533663 22956 net.cpp:148] Top shape: 10 512 14 14 (1003520)
I0913 19:27:57.533668 22956 net.cpp:148] Top shape: 10 512 14 14 (1003520)
I0913 19:27:57.533674 22956 net.cpp:148] Top shape: 10 512 14 14 (1003520)
I0913 19:27:57.533679 22956 net.cpp:148] Top shape: 10 512 14 14 (1003520)
I0913 19:27:57.533682 22956 net.cpp:156] Memory required for data: 389616640
I0913 19:27:57.533687 22956 layer_factory.hpp:77] Creating layer inception_4b/1x1
I0913 19:27:57.533701 22956 net.cpp:91] Creating Layer inception_4b/1x1
I0913 19:27:57.533706 22956 net.cpp:425] inception_4b/1x1 <- inception_4a/output_inception_4a/output_0_split_0
I0913 19:27:57.533716 22956 net.cpp:399] inception_4b/1x1 -> inception_4b/1x1
I0913 19:27:57.535539 22956 net.cpp:141] Setting up inception_4b/1x1
I0913 19:27:57.535555 22956 net.cpp:148] Top shape: 10 160 14 14 (313600)
I0913 19:27:57.535560 22956 net.cpp:156] Memory required for data: 390871040
I0913 19:27:57.535568 22956 layer_factory.hpp:77] Creating layer inception_4b/relu_1x1
I0913 19:27:57.535580 22956 net.cpp:91] Creating Layer inception_4b/relu_1x1
I0913 19:27:57.535586 22956 net.cpp:425] inception_4b/relu_1x1 <- inception_4b/1x1
I0913 19:27:57.535593 22956 net.cpp:386] inception_4b/relu_1x1 -> inception_4b/1x1 (in-place)
I0913 19:27:57.535990 22956 net.cpp:141] Setting up inception_4b/relu_1x1
I0913 19:27:57.536002 22956 net.cpp:148] Top shape: 10 160 14 14 (313600)
I0913 19:27:57.536006 22956 net.cpp:156] Memory required for data: 392125440
I0913 19:27:57.536012 22956 layer_factory.hpp:77] Creating layer inception_4b/3x3_reduce
I0913 19:27:57.536029 22956 net.cpp:91] Creating Layer inception_4b/3x3_reduce
I0913 19:27:57.536036 22956 net.cpp:425] inception_4b/3x3_reduce <- inception_4a/output_inception_4a/output_0_split_1
I0913 19:27:57.536044 22956 net.cpp:399] inception_4b/3x3_reduce -> inception_4b/3x3_reduce
I0913 19:27:57.537920 22956 net.cpp:141] Setting up inception_4b/3x3_reduce
I0913 19:27:57.537948 22956 net.cpp:148] Top shape: 10 112 14 14 (219520)
I0913 19:27:57.537955 22956 net.cpp:156] Memory required for data: 393003520
I0913 19:27:57.537962 22956 layer_factory.hpp:77] Creating layer inception_4b/relu_3x3_reduce
I0913 19:27:57.537978 22956 net.cpp:91] Creating Layer inception_4b/relu_3x3_reduce
I0913 19:27:57.537984 22956 net.cpp:425] inception_4b/relu_3x3_reduce <- inception_4b/3x3_reduce
I0913 19:27:57.537993 22956 net.cpp:386] inception_4b/relu_3x3_reduce -> inception_4b/3x3_reduce (in-place)
I0913 19:27:57.538221 22956 net.cpp:141] Setting up inception_4b/relu_3x3_reduce
I0913 19:27:57.538233 22956 net.cpp:148] Top shape: 10 112 14 14 (219520)
I0913 19:27:57.538236 22956 net.cpp:156] Memory required for data: 393881600
I0913 19:27:57.538241 22956 layer_factory.hpp:77] Creating layer inception_4b/3x3
I0913 19:27:57.538256 22956 net.cpp:91] Creating Layer inception_4b/3x3
I0913 19:27:57.538262 22956 net.cpp:425] inception_4b/3x3 <- inception_4b/3x3_reduce
I0913 19:27:57.538272 22956 net.cpp:399] inception_4b/3x3 -> inception_4b/3x3
I0913 19:27:57.542268 22956 net.cpp:141] Setting up inception_4b/3x3
I0913 19:27:57.542287 22956 net.cpp:148] Top shape: 10 224 14 14 (439040)
I0913 19:27:57.542292 22956 net.cpp:156] Memory required for data: 395637760
I0913 19:27:57.542300 22956 layer_factory.hpp:77] Creating layer inception_4b/relu_3x3
I0913 19:27:57.542313 22956 net.cpp:91] Creating Layer inception_4b/relu_3x3
I0913 19:27:57.542320 22956 net.cpp:425] inception_4b/relu_3x3 <- inception_4b/3x3
I0913 19:27:57.542326 22956 net.cpp:386] inception_4b/relu_3x3 -> inception_4b/3x3 (in-place)
I0913 19:27:57.542745 22956 net.cpp:141] Setting up inception_4b/relu_3x3
I0913 19:27:57.542758 22956 net.cpp:148] Top shape: 10 224 14 14 (439040)
I0913 19:27:57.542763 22956 net.cpp:156] Memory required for data: 397393920
I0913 19:27:57.542768 22956 layer_factory.hpp:77] Creating layer inception_4b/5x5_reduce
I0913 19:27:57.542795 22956 net.cpp:91] Creating Layer inception_4b/5x5_reduce
I0913 19:27:57.542801 22956 net.cpp:425] inception_4b/5x5_reduce <- inception_4a/output_inception_4a/output_0_split_2
I0913 19:27:57.542814 22956 net.cpp:399] inception_4b/5x5_reduce -> inception_4b/5x5_reduce
I0913 19:27:57.544195 22956 net.cpp:141] Setting up inception_4b/5x5_reduce
I0913 19:27:57.544212 22956 net.cpp:148] Top shape: 10 24 14 14 (47040)
I0913 19:27:57.544217 22956 net.cpp:156] Memory required for data: 397582080
I0913 19:27:57.544226 22956 layer_factory.hpp:77] Creating layer inception_4b/relu_5x5_reduce
I0913 19:27:57.544237 22956 net.cpp:91] Creating Layer inception_4b/relu_5x5_reduce
I0913 19:27:57.544244 22956 net.cpp:425] inception_4b/relu_5x5_reduce <- inception_4b/5x5_reduce
I0913 19:27:57.544250 22956 net.cpp:386] inception_4b/relu_5x5_reduce -> inception_4b/5x5_reduce (in-place)
I0913 19:27:57.544664 22956 net.cpp:141] Setting up inception_4b/relu_5x5_reduce
I0913 19:27:57.544677 22956 net.cpp:148] Top shape: 10 24 14 14 (47040)
I0913 19:27:57.544682 22956 net.cpp:156] Memory required for data: 397770240
I0913 19:27:57.544687 22956 layer_factory.hpp:77] Creating layer inception_4b/5x5
I0913 19:27:57.544701 22956 net.cpp:91] Creating Layer inception_4b/5x5
I0913 19:27:57.544708 22956 net.cpp:425] inception_4b/5x5 <- inception_4b/5x5_reduce
I0913 19:27:57.544719 22956 net.cpp:399] inception_4b/5x5 -> inception_4b/5x5
I0913 19:27:57.547128 22956 net.cpp:141] Setting up inception_4b/5x5
I0913 19:27:57.547145 22956 net.cpp:148] Top shape: 10 64 14 14 (125440)
I0913 19:27:57.547149 22956 net.cpp:156] Memory required for data: 398272000
I0913 19:27:57.547158 22956 layer_factory.hpp:77] Creating layer inception_4b/relu_5x5
I0913 19:27:57.547170 22956 net.cpp:91] Creating Layer inception_4b/relu_5x5
I0913 19:27:57.547178 22956 net.cpp:425] inception_4b/relu_5x5 <- inception_4b/5x5
I0913 19:27:57.547183 22956 net.cpp:386] inception_4b/relu_5x5 -> inception_4b/5x5 (in-place)
I0913 19:27:57.547422 22956 net.cpp:141] Setting up inception_4b/relu_5x5
I0913 19:27:57.547432 22956 net.cpp:148] Top shape: 10 64 14 14 (125440)
I0913 19:27:57.547437 22956 net.cpp:156] Memory required for data: 398773760
I0913 19:27:57.547442 22956 layer_factory.hpp:77] Creating layer inception_4b/pool
I0913 19:27:57.547452 22956 net.cpp:91] Creating Layer inception_4b/pool
I0913 19:27:57.547457 22956 net.cpp:425] inception_4b/pool <- inception_4a/output_inception_4a/output_0_split_3
I0913 19:27:57.547468 22956 net.cpp:399] inception_4b/pool -> inception_4b/pool
I0913 19:27:57.547533 22956 net.cpp:141] Setting up inception_4b/pool
I0913 19:27:57.547543 22956 net.cpp:148] Top shape: 10 512 14 14 (1003520)
I0913 19:27:57.547546 22956 net.cpp:156] Memory required for data: 402787840
I0913 19:27:57.547550 22956 layer_factory.hpp:77] Creating layer inception_4b/pool_proj
I0913 19:27:57.547569 22956 net.cpp:91] Creating Layer inception_4b/pool_proj
I0913 19:27:57.547574 22956 net.cpp:425] inception_4b/pool_proj <- inception_4b/pool
I0913 19:27:57.547582 22956 net.cpp:399] inception_4b/pool_proj -> inception_4b/pool_proj
I0913 19:27:57.549252 22956 net.cpp:141] Setting up inception_4b/pool_proj
I0913 19:27:57.549283 22956 net.cpp:148] Top shape: 10 64 14 14 (125440)
I0913 19:27:57.549289 22956 net.cpp:156] Memory required for data: 403289600
I0913 19:27:57.549299 22956 layer_factory.hpp:77] Creating layer inception_4b/relu_pool_proj
I0913 19:27:57.549306 22956 net.cpp:91] Creating Layer inception_4b/relu_pool_proj
I0913 19:27:57.549312 22956 net.cpp:425] inception_4b/relu_pool_proj <- inception_4b/pool_proj
I0913 19:27:57.549319 22956 net.cpp:386] inception_4b/relu_pool_proj -> inception_4b/pool_proj (in-place)
I0913 19:27:57.549724 22956 net.cpp:141] Setting up inception_4b/relu_pool_proj
I0913 19:27:57.549738 22956 net.cpp:148] Top shape: 10 64 14 14 (125440)
I0913 19:27:57.549743 22956 net.cpp:156] Memory required for data: 403791360
I0913 19:27:57.549748 22956 layer_factory.hpp:77] Creating layer inception_4b/output
I0913 19:27:57.549757 22956 net.cpp:91] Creating Layer inception_4b/output
I0913 19:27:57.549763 22956 net.cpp:425] inception_4b/output <- inception_4b/1x1
I0913 19:27:57.549769 22956 net.cpp:425] inception_4b/output <- inception_4b/3x3
I0913 19:27:57.549774 22956 net.cpp:425] inception_4b/output <- inception_4b/5x5
I0913 19:27:57.549779 22956 net.cpp:425] inception_4b/output <- inception_4b/pool_proj
I0913 19:27:57.549787 22956 net.cpp:399] inception_4b/output -> inception_4b/output
I0913 19:27:57.549832 22956 net.cpp:141] Setting up inception_4b/output
I0913 19:27:57.549841 22956 net.cpp:148] Top shape: 10 512 14 14 (1003520)
I0913 19:27:57.549845 22956 net.cpp:156] Memory required for data: 407805440
I0913 19:27:57.549850 22956 layer_factory.hpp:77] Creating layer inception_4b/output_inception_4b/output_0_split
I0913 19:27:57.549860 22956 net.cpp:91] Creating Layer inception_4b/output_inception_4b/output_0_split
I0913 19:27:57.549865 22956 net.cpp:425] inception_4b/output_inception_4b/output_0_split <- inception_4b/output
I0913 19:27:57.549872 22956 net.cpp:399] inception_4b/output_inception_4b/output_0_split -> inception_4b/output_inception_4b/output_0_split_0
I0913 19:27:57.549883 22956 net.cpp:399] inception_4b/output_inception_4b/output_0_split -> inception_4b/output_inception_4b/output_0_split_1
I0913 19:27:57.549899 22956 net.cpp:399] inception_4b/output_inception_4b/output_0_split -> inception_4b/output_inception_4b/output_0_split_2
I0913 19:27:57.549909 22956 net.cpp:399] inception_4b/output_inception_4b/output_0_split -> inception_4b/output_inception_4b/output_0_split_3
I0913 19:27:57.550001 22956 net.cpp:141] Setting up inception_4b/output_inception_4b/output_0_split
I0913 19:27:57.550011 22956 net.cpp:148] Top shape: 10 512 14 14 (1003520)
I0913 19:27:57.550016 22956 net.cpp:148] Top shape: 10 512 14 14 (1003520)
I0913 19:27:57.550021 22956 net.cpp:148] Top shape: 10 512 14 14 (1003520)
I0913 19:27:57.550026 22956 net.cpp:148] Top shape: 10 512 14 14 (1003520)
I0913 19:27:57.550030 22956 net.cpp:156] Memory required for data: 423861760
I0913 19:27:57.550034 22956 layer_factory.hpp:77] Creating layer inception_4c/1x1
I0913 19:27:57.550050 22956 net.cpp:91] Creating Layer inception_4c/1x1
I0913 19:27:57.550055 22956 net.cpp:425] inception_4c/1x1 <- inception_4b/output_inception_4b/output_0_split_0
I0913 19:27:57.550065 22956 net.cpp:399] inception_4c/1x1 -> inception_4c/1x1
I0913 19:27:57.551790 22956 net.cpp:141] Setting up inception_4c/1x1
I0913 19:27:57.551820 22956 net.cpp:148] Top shape: 10 128 14 14 (250880)
I0913 19:27:57.551825 22956 net.cpp:156] Memory required for data: 424865280
I0913 19:27:57.551833 22956 layer_factory.hpp:77] Creating layer inception_4c/relu_1x1
I0913 19:27:57.551844 22956 net.cpp:91] Creating Layer inception_4c/relu_1x1
I0913 19:27:57.551851 22956 net.cpp:425] inception_4c/relu_1x1 <- inception_4c/1x1
I0913 19:27:57.551856 22956 net.cpp:386] inception_4c/relu_1x1 -> inception_4c/1x1 (in-place)
I0913 19:27:57.552270 22956 net.cpp:141] Setting up inception_4c/relu_1x1
I0913 19:27:57.552284 22956 net.cpp:148] Top shape: 10 128 14 14 (250880)
I0913 19:27:57.552290 22956 net.cpp:156] Memory required for data: 425868800
I0913 19:27:57.552295 22956 layer_factory.hpp:77] Creating layer inception_4c/3x3_reduce
I0913 19:27:57.552307 22956 net.cpp:91] Creating Layer inception_4c/3x3_reduce
I0913 19:27:57.552314 22956 net.cpp:425] inception_4c/3x3_reduce <- inception_4b/output_inception_4b/output_0_split_1
I0913 19:27:57.552326 22956 net.cpp:399] inception_4c/3x3_reduce -> inception_4c/3x3_reduce
I0913 19:27:57.554226 22956 net.cpp:141] Setting up inception_4c/3x3_reduce
I0913 19:27:57.554255 22956 net.cpp:148] Top shape: 10 128 14 14 (250880)
I0913 19:27:57.554260 22956 net.cpp:156] Memory required for data: 426872320
I0913 19:27:57.554270 22956 layer_factory.hpp:77] Creating layer inception_4c/relu_3x3_reduce
I0913 19:27:57.554277 22956 net.cpp:91] Creating Layer inception_4c/relu_3x3_reduce
I0913 19:27:57.554282 22956 net.cpp:425] inception_4c/relu_3x3_reduce <- inception_4c/3x3_reduce
I0913 19:27:57.554292 22956 net.cpp:386] inception_4c/relu_3x3_reduce -> inception_4c/3x3_reduce (in-place)
I0913 19:27:57.554527 22956 net.cpp:141] Setting up inception_4c/relu_3x3_reduce
I0913 19:27:57.554538 22956 net.cpp:148] Top shape: 10 128 14 14 (250880)
I0913 19:27:57.554543 22956 net.cpp:156] Memory required for data: 427875840
I0913 19:27:57.554548 22956 layer_factory.hpp:77] Creating layer inception_4c/3x3
I0913 19:27:57.554563 22956 net.cpp:91] Creating Layer inception_4c/3x3
I0913 19:27:57.554569 22956 net.cpp:425] inception_4c/3x3 <- inception_4c/3x3_reduce
I0913 19:27:57.554579 22956 net.cpp:399] inception_4c/3x3 -> inception_4c/3x3
I0913 19:27:57.558871 22956 net.cpp:141] Setting up inception_4c/3x3
I0913 19:27:57.558888 22956 net.cpp:148] Top shape: 10 256 14 14 (501760)
I0913 19:27:57.558907 22956 net.cpp:156] Memory required for data: 429882880
I0913 19:27:57.558915 22956 layer_factory.hpp:77] Creating layer inception_4c/relu_3x3
I0913 19:27:57.558928 22956 net.cpp:91] Creating Layer inception_4c/relu_3x3
I0913 19:27:57.558934 22956 net.cpp:425] inception_4c/relu_3x3 <- inception_4c/3x3
I0913 19:27:57.558943 22956 net.cpp:386] inception_4c/relu_3x3 -> inception_4c/3x3 (in-place)
I0913 19:27:57.559361 22956 net.cpp:141] Setting up inception_4c/relu_3x3
I0913 19:27:57.559375 22956 net.cpp:148] Top shape: 10 256 14 14 (501760)
I0913 19:27:57.559379 22956 net.cpp:156] Memory required for data: 431889920
I0913 19:27:57.559384 22956 layer_factory.hpp:77] Creating layer inception_4c/5x5_reduce
I0913 19:27:57.559399 22956 net.cpp:91] Creating Layer inception_4c/5x5_reduce
I0913 19:27:57.559406 22956 net.cpp:425] inception_4c/5x5_reduce <- inception_4b/output_inception_4b/output_0_split_2
I0913 19:27:57.559413 22956 net.cpp:399] inception_4c/5x5_reduce -> inception_4c/5x5_reduce
I0913 19:27:57.560793 22956 net.cpp:141] Setting up inception_4c/5x5_reduce
I0913 19:27:57.560830 22956 net.cpp:148] Top shape: 10 24 14 14 (47040)
I0913 19:27:57.560837 22956 net.cpp:156] Memory required for data: 432078080
I0913 19:27:57.560844 22956 layer_factory.hpp:77] Creating layer inception_4c/relu_5x5_reduce
I0913 19:27:57.560853 22956 net.cpp:91] Creating Layer inception_4c/relu_5x5_reduce
I0913 19:27:57.560858 22956 net.cpp:425] inception_4c/relu_5x5_reduce <- inception_4c/5x5_reduce
I0913 19:27:57.560865 22956 net.cpp:386] inception_4c/relu_5x5_reduce -> inception_4c/5x5_reduce (in-place)
I0913 19:27:57.561267 22956 net.cpp:141] Setting up inception_4c/relu_5x5_reduce
I0913 19:27:57.561282 22956 net.cpp:148] Top shape: 10 24 14 14 (47040)
I0913 19:27:57.561286 22956 net.cpp:156] Memory required for data: 432266240
I0913 19:27:57.561291 22956 layer_factory.hpp:77] Creating layer inception_4c/5x5
I0913 19:27:57.561308 22956 net.cpp:91] Creating Layer inception_4c/5x5
I0913 19:27:57.561314 22956 net.cpp:425] inception_4c/5x5 <- inception_4c/5x5_reduce
I0913 19:27:57.561324 22956 net.cpp:399] inception_4c/5x5 -> inception_4c/5x5
I0913 19:27:57.563320 22956 net.cpp:141] Setting up inception_4c/5x5
I0913 19:27:57.563338 22956 net.cpp:148] Top shape: 10 64 14 14 (125440)
I0913 19:27:57.563343 22956 net.cpp:156] Memory required for data: 432768000
I0913 19:27:57.563350 22956 layer_factory.hpp:77] Creating layer inception_4c/relu_5x5
I0913 19:27:57.563362 22956 net.cpp:91] Creating Layer inception_4c/relu_5x5
I0913 19:27:57.563369 22956 net.cpp:425] inception_4c/relu_5x5 <- inception_4c/5x5
I0913 19:27:57.563375 22956 net.cpp:386] inception_4c/relu_5x5 -> inception_4c/5x5 (in-place)
I0913 19:27:57.563608 22956 net.cpp:141] Setting up inception_4c/relu_5x5
I0913 19:27:57.563619 22956 net.cpp:148] Top shape: 10 64 14 14 (125440)
I0913 19:27:57.563623 22956 net.cpp:156] Memory required for data: 433269760
I0913 19:27:57.563628 22956 layer_factory.hpp:77] Creating layer inception_4c/pool
I0913 19:27:57.563637 22956 net.cpp:91] Creating Layer inception_4c/pool
I0913 19:27:57.563643 22956 net.cpp:425] inception_4c/pool <- inception_4b/output_inception_4b/output_0_split_3
I0913 19:27:57.563654 22956 net.cpp:399] inception_4c/pool -> inception_4c/pool
I0913 19:27:57.563720 22956 net.cpp:141] Setting up inception_4c/pool
I0913 19:27:57.563730 22956 net.cpp:148] Top shape: 10 512 14 14 (1003520)
I0913 19:27:57.563735 22956 net.cpp:156] Memory required for data: 437283840
I0913 19:27:57.563738 22956 layer_factory.hpp:77] Creating layer inception_4c/pool_proj
I0913 19:27:57.563756 22956 net.cpp:91] Creating Layer inception_4c/pool_proj
I0913 19:27:57.563762 22956 net.cpp:425] inception_4c/pool_proj <- inception_4c/pool
I0913 19:27:57.563771 22956 net.cpp:399] inception_4c/pool_proj -> inception_4c/pool_proj
I0913 19:27:57.566165 22956 net.cpp:141] Setting up inception_4c/pool_proj
I0913 19:27:57.566185 22956 net.cpp:148] Top shape: 10 64 14 14 (125440)
I0913 19:27:57.566190 22956 net.cpp:156] Memory required for data: 437785600
I0913 19:27:57.566217 22956 layer_factory.hpp:77] Creating layer inception_4c/relu_pool_proj
I0913 19:27:57.566226 22956 net.cpp:91] Creating Layer inception_4c/relu_pool_proj
I0913 19:27:57.566232 22956 net.cpp:425] inception_4c/relu_pool_proj <- inception_4c/pool_proj
I0913 19:27:57.566238 22956 net.cpp:386] inception_4c/relu_pool_proj -> inception_4c/pool_proj (in-place)
I0913 19:27:57.566649 22956 net.cpp:141] Setting up inception_4c/relu_pool_proj
I0913 19:27:57.566663 22956 net.cpp:148] Top shape: 10 64 14 14 (125440)
I0913 19:27:57.566668 22956 net.cpp:156] Memory required for data: 438287360
I0913 19:27:57.566673 22956 layer_factory.hpp:77] Creating layer inception_4c/output
I0913 19:27:57.566682 22956 net.cpp:91] Creating Layer inception_4c/output
I0913 19:27:57.566687 22956 net.cpp:425] inception_4c/output <- inception_4c/1x1
I0913 19:27:57.566694 22956 net.cpp:425] inception_4c/output <- inception_4c/3x3
I0913 19:27:57.566699 22956 net.cpp:425] inception_4c/output <- inception_4c/5x5
I0913 19:27:57.566704 22956 net.cpp:425] inception_4c/output <- inception_4c/pool_proj
I0913 19:27:57.566709 22956 net.cpp:399] inception_4c/output -> inception_4c/output
I0913 19:27:57.566757 22956 net.cpp:141] Setting up inception_4c/output
I0913 19:27:57.566767 22956 net.cpp:148] Top shape: 10 512 14 14 (1003520)
I0913 19:27:57.566771 22956 net.cpp:156] Memory required for data: 442301440
I0913 19:27:57.566776 22956 layer_factory.hpp:77] Creating layer inception_4c/output_inception_4c/output_0_split
I0913 19:27:57.566784 22956 net.cpp:91] Creating Layer inception_4c/output_inception_4c/output_0_split
I0913 19:27:57.566789 22956 net.cpp:425] inception_4c/output_inception_4c/output_0_split <- inception_4c/output
I0913 19:27:57.566797 22956 net.cpp:399] inception_4c/output_inception_4c/output_0_split -> inception_4c/output_inception_4c/output_0_split_0
I0913 19:27:57.566807 22956 net.cpp:399] inception_4c/output_inception_4c/output_0_split -> inception_4c/output_inception_4c/output_0_split_1
I0913 19:27:57.566814 22956 net.cpp:399] inception_4c/output_inception_4c/output_0_split -> inception_4c/output_inception_4c/output_0_split_2
I0913 19:27:57.566822 22956 net.cpp:399] inception_4c/output_inception_4c/output_0_split -> inception_4c/output_inception_4c/output_0_split_3
I0913 19:27:57.566913 22956 net.cpp:141] Setting up inception_4c/output_inception_4c/output_0_split
I0913 19:27:57.566922 22956 net.cpp:148] Top shape: 10 512 14 14 (1003520)
I0913 19:27:57.566927 22956 net.cpp:148] Top shape: 10 512 14 14 (1003520)
I0913 19:27:57.566932 22956 net.cpp:148] Top shape: 10 512 14 14 (1003520)
I0913 19:27:57.566937 22956 net.cpp:148] Top shape: 10 512 14 14 (1003520)
I0913 19:27:57.566941 22956 net.cpp:156] Memory required for data: 458357760
I0913 19:27:57.566946 22956 layer_factory.hpp:77] Creating layer inception_4d/1x1
I0913 19:27:57.566961 22956 net.cpp:91] Creating Layer inception_4d/1x1
I0913 19:27:57.566965 22956 net.cpp:425] inception_4d/1x1 <- inception_4c/output_inception_4c/output_0_split_0
I0913 19:27:57.566975 22956 net.cpp:399] inception_4d/1x1 -> inception_4d/1x1
I0913 19:27:57.568677 22956 net.cpp:141] Setting up inception_4d/1x1
I0913 19:27:57.568694 22956 net.cpp:148] Top shape: 10 112 14 14 (219520)
I0913 19:27:57.568699 22956 net.cpp:156] Memory required for data: 459235840
I0913 19:27:57.568707 22956 layer_factory.hpp:77] Creating layer inception_4d/relu_1x1
I0913 19:27:57.568716 22956 net.cpp:91] Creating Layer inception_4d/relu_1x1
I0913 19:27:57.568722 22956 net.cpp:425] inception_4d/relu_1x1 <- inception_4d/1x1
I0913 19:27:57.568728 22956 net.cpp:386] inception_4d/relu_1x1 -> inception_4d/1x1 (in-place)
I0913 19:27:57.569151 22956 net.cpp:141] Setting up inception_4d/relu_1x1
I0913 19:27:57.569164 22956 net.cpp:148] Top shape: 10 112 14 14 (219520)
I0913 19:27:57.569169 22956 net.cpp:156] Memory required for data: 460113920
I0913 19:27:57.569174 22956 layer_factory.hpp:77] Creating layer inception_4d/3x3_reduce
I0913 19:27:57.569190 22956 net.cpp:91] Creating Layer inception_4d/3x3_reduce
I0913 19:27:57.569195 22956 net.cpp:425] inception_4d/3x3_reduce <- inception_4c/output_inception_4c/output_0_split_1
I0913 19:27:57.569205 22956 net.cpp:399] inception_4d/3x3_reduce -> inception_4d/3x3_reduce
I0913 19:27:57.571259 22956 net.cpp:141] Setting up inception_4d/3x3_reduce
I0913 19:27:57.571276 22956 net.cpp:148] Top shape: 10 144 14 14 (282240)
I0913 19:27:57.571281 22956 net.cpp:156] Memory required for data: 461242880
I0913 19:27:57.571290 22956 layer_factory.hpp:77] Creating layer inception_4d/relu_3x3_reduce
I0913 19:27:57.571301 22956 net.cpp:91] Creating Layer inception_4d/relu_3x3_reduce
I0913 19:27:57.571307 22956 net.cpp:425] inception_4d/relu_3x3_reduce <- inception_4d/3x3_reduce
I0913 19:27:57.571316 22956 net.cpp:386] inception_4d/relu_3x3_reduce -> inception_4d/3x3_reduce (in-place)
I0913 19:27:57.571555 22956 net.cpp:141] Setting up inception_4d/relu_3x3_reduce
I0913 19:27:57.571566 22956 net.cpp:148] Top shape: 10 144 14 14 (282240)
I0913 19:27:57.571570 22956 net.cpp:156] Memory required for data: 462371840
I0913 19:27:57.571575 22956 layer_factory.hpp:77] Creating layer inception_4d/3x3
I0913 19:27:57.571590 22956 net.cpp:91] Creating Layer inception_4d/3x3
I0913 19:27:57.571596 22956 net.cpp:425] inception_4d/3x3 <- inception_4d/3x3_reduce
I0913 19:27:57.571606 22956 net.cpp:399] inception_4d/3x3 -> inception_4d/3x3
I0913 19:27:57.576668 22956 net.cpp:141] Setting up inception_4d/3x3
I0913 19:27:57.576684 22956 net.cpp:148] Top shape: 10 288 14 14 (564480)
I0913 19:27:57.576692 22956 net.cpp:156] Memory required for data: 464629760
I0913 19:27:57.576700 22956 layer_factory.hpp:77] Creating layer inception_4d/relu_3x3
I0913 19:27:57.576709 22956 net.cpp:91] Creating Layer inception_4d/relu_3x3
I0913 19:27:57.576714 22956 net.cpp:425] inception_4d/relu_3x3 <- inception_4d/3x3
I0913 19:27:57.576721 22956 net.cpp:386] inception_4d/relu_3x3 -> inception_4d/3x3 (in-place)
I0913 19:27:57.577121 22956 net.cpp:141] Setting up inception_4d/relu_3x3
I0913 19:27:57.577136 22956 net.cpp:148] Top shape: 10 288 14 14 (564480)
I0913 19:27:57.577139 22956 net.cpp:156] Memory required for data: 466887680
I0913 19:27:57.577144 22956 layer_factory.hpp:77] Creating layer inception_4d/5x5_reduce
I0913 19:27:57.577160 22956 net.cpp:91] Creating Layer inception_4d/5x5_reduce
I0913 19:27:57.577167 22956 net.cpp:425] inception_4d/5x5_reduce <- inception_4c/output_inception_4c/output_0_split_2
I0913 19:27:57.577174 22956 net.cpp:399] inception_4d/5x5_reduce -> inception_4d/5x5_reduce
I0913 19:27:57.578635 22956 net.cpp:141] Setting up inception_4d/5x5_reduce
I0913 19:27:57.578650 22956 net.cpp:148] Top shape: 10 32 14 14 (62720)
I0913 19:27:57.578655 22956 net.cpp:156] Memory required for data: 467138560
I0913 19:27:57.578663 22956 layer_factory.hpp:77] Creating layer inception_4d/relu_5x5_reduce
I0913 19:27:57.578671 22956 net.cpp:91] Creating Layer inception_4d/relu_5x5_reduce
I0913 19:27:57.578676 22956 net.cpp:425] inception_4d/relu_5x5_reduce <- inception_4d/5x5_reduce
I0913 19:27:57.578686 22956 net.cpp:386] inception_4d/relu_5x5_reduce -> inception_4d/5x5_reduce (in-place)
I0913 19:27:57.579079 22956 net.cpp:141] Setting up inception_4d/relu_5x5_reduce
I0913 19:27:57.579090 22956 net.cpp:148] Top shape: 10 32 14 14 (62720)
I0913 19:27:57.579095 22956 net.cpp:156] Memory required for data: 467389440
I0913 19:27:57.579100 22956 layer_factory.hpp:77] Creating layer inception_4d/5x5
I0913 19:27:57.579115 22956 net.cpp:91] Creating Layer inception_4d/5x5
I0913 19:27:57.579121 22956 net.cpp:425] inception_4d/5x5 <- inception_4d/5x5_reduce
I0913 19:27:57.579131 22956 net.cpp:399] inception_4d/5x5 -> inception_4d/5x5
I0913 19:27:57.580919 22956 net.cpp:141] Setting up inception_4d/5x5
I0913 19:27:57.580936 22956 net.cpp:148] Top shape: 10 64 14 14 (125440)
I0913 19:27:57.580940 22956 net.cpp:156] Memory required for data: 467891200
I0913 19:27:57.580948 22956 layer_factory.hpp:77] Creating layer inception_4d/relu_5x5
I0913 19:27:57.580960 22956 net.cpp:91] Creating Layer inception_4d/relu_5x5
I0913 19:27:57.580966 22956 net.cpp:425] inception_4d/relu_5x5 <- inception_4d/5x5
I0913 19:27:57.580973 22956 net.cpp:386] inception_4d/relu_5x5 -> inception_4d/5x5 (in-place)
I0913 19:27:57.581240 22956 net.cpp:141] Setting up inception_4d/relu_5x5
I0913 19:27:57.581251 22956 net.cpp:148] Top shape: 10 64 14 14 (125440)
I0913 19:27:57.581256 22956 net.cpp:156] Memory required for data: 468392960
I0913 19:27:57.581260 22956 layer_factory.hpp:77] Creating layer inception_4d/pool
I0913 19:27:57.581270 22956 net.cpp:91] Creating Layer inception_4d/pool
I0913 19:27:57.581275 22956 net.cpp:425] inception_4d/pool <- inception_4c/output_inception_4c/output_0_split_3
I0913 19:27:57.581285 22956 net.cpp:399] inception_4d/pool -> inception_4d/pool
I0913 19:27:57.581353 22956 net.cpp:141] Setting up inception_4d/pool
I0913 19:27:57.581362 22956 net.cpp:148] Top shape: 10 512 14 14 (1003520)
I0913 19:27:57.581367 22956 net.cpp:156] Memory required for data: 472407040
I0913 19:27:57.581372 22956 layer_factory.hpp:77] Creating layer inception_4d/pool_proj
I0913 19:27:57.581389 22956 net.cpp:91] Creating Layer inception_4d/pool_proj
I0913 19:27:57.581394 22956 net.cpp:425] inception_4d/pool_proj <- inception_4d/pool
I0913 19:27:57.581403 22956 net.cpp:399] inception_4d/pool_proj -> inception_4d/pool_proj
I0913 19:27:57.583132 22956 net.cpp:141] Setting up inception_4d/pool_proj
I0913 19:27:57.583161 22956 net.cpp:148] Top shape: 10 64 14 14 (125440)
I0913 19:27:57.583166 22956 net.cpp:156] Memory required for data: 472908800
I0913 19:27:57.583176 22956 layer_factory.hpp:77] Creating layer inception_4d/relu_pool_proj
I0913 19:27:57.583187 22956 net.cpp:91] Creating Layer inception_4d/relu_pool_proj
I0913 19:27:57.583194 22956 net.cpp:425] inception_4d/relu_pool_proj <- inception_4d/pool_proj
I0913 19:27:57.583201 22956 net.cpp:386] inception_4d/relu_pool_proj -> inception_4d/pool_proj (in-place)
I0913 19:27:57.583622 22956 net.cpp:141] Setting up inception_4d/relu_pool_proj
I0913 19:27:57.583637 22956 net.cpp:148] Top shape: 10 64 14 14 (125440)
I0913 19:27:57.583642 22956 net.cpp:156] Memory required for data: 473410560
I0913 19:27:57.583647 22956 layer_factory.hpp:77] Creating layer inception_4d/output
I0913 19:27:57.583657 22956 net.cpp:91] Creating Layer inception_4d/output
I0913 19:27:57.583662 22956 net.cpp:425] inception_4d/output <- inception_4d/1x1
I0913 19:27:57.583668 22956 net.cpp:425] inception_4d/output <- inception_4d/3x3
I0913 19:27:57.583673 22956 net.cpp:425] inception_4d/output <- inception_4d/5x5
I0913 19:27:57.583678 22956 net.cpp:425] inception_4d/output <- inception_4d/pool_proj
I0913 19:27:57.583686 22956 net.cpp:399] inception_4d/output -> inception_4d/output
I0913 19:27:57.583730 22956 net.cpp:141] Setting up inception_4d/output
I0913 19:27:57.583739 22956 net.cpp:148] Top shape: 10 528 14 14 (1034880)
I0913 19:27:57.583744 22956 net.cpp:156] Memory required for data: 477550080
I0913 19:27:57.583748 22956 layer_factory.hpp:77] Creating layer inception_4d/output_inception_4d/output_0_split
I0913 19:27:57.583760 22956 net.cpp:91] Creating Layer inception_4d/output_inception_4d/output_0_split
I0913 19:27:57.583765 22956 net.cpp:425] inception_4d/output_inception_4d/output_0_split <- inception_4d/output
I0913 19:27:57.583772 22956 net.cpp:399] inception_4d/output_inception_4d/output_0_split -> inception_4d/output_inception_4d/output_0_split_0
I0913 19:27:57.583783 22956 net.cpp:399] inception_4d/output_inception_4d/output_0_split -> inception_4d/output_inception_4d/output_0_split_1
I0913 19:27:57.583792 22956 net.cpp:399] inception_4d/output_inception_4d/output_0_split -> inception_4d/output_inception_4d/output_0_split_2
I0913 19:27:57.583799 22956 net.cpp:399] inception_4d/output_inception_4d/output_0_split -> inception_4d/output_inception_4d/output_0_split_3
I0913 19:27:57.583894 22956 net.cpp:141] Setting up inception_4d/output_inception_4d/output_0_split
I0913 19:27:57.583902 22956 net.cpp:148] Top shape: 10 528 14 14 (1034880)
I0913 19:27:57.583909 22956 net.cpp:148] Top shape: 10 528 14 14 (1034880)
I0913 19:27:57.583914 22956 net.cpp:148] Top shape: 10 528 14 14 (1034880)
I0913 19:27:57.583919 22956 net.cpp:148] Top shape: 10 528 14 14 (1034880)
I0913 19:27:57.583922 22956 net.cpp:156] Memory required for data: 494108160
I0913 19:27:57.583926 22956 layer_factory.hpp:77] Creating layer inception_4e/1x1
I0913 19:27:57.583940 22956 net.cpp:91] Creating Layer inception_4e/1x1
I0913 19:27:57.583945 22956 net.cpp:425] inception_4e/1x1 <- inception_4d/output_inception_4d/output_0_split_0
I0913 19:27:57.583956 22956 net.cpp:399] inception_4e/1x1 -> inception_4e/1x1
I0913 19:27:57.587214 22956 net.cpp:141] Setting up inception_4e/1x1
I0913 19:27:57.587244 22956 net.cpp:148] Top shape: 10 256 14 14 (501760)
I0913 19:27:57.587250 22956 net.cpp:156] Memory required for data: 496115200
I0913 19:27:57.587258 22956 layer_factory.hpp:77] Creating layer inception_4e/relu_1x1
I0913 19:27:57.587270 22956 net.cpp:91] Creating Layer inception_4e/relu_1x1
I0913 19:27:57.587276 22956 net.cpp:425] inception_4e/relu_1x1 <- inception_4e/1x1
I0913 19:27:57.587283 22956 net.cpp:386] inception_4e/relu_1x1 -> inception_4e/1x1 (in-place)
I0913 19:27:57.587702 22956 net.cpp:141] Setting up inception_4e/relu_1x1
I0913 19:27:57.587716 22956 net.cpp:148] Top shape: 10 256 14 14 (501760)
I0913 19:27:57.587721 22956 net.cpp:156] Memory required for data: 498122240
I0913 19:27:57.587726 22956 layer_factory.hpp:77] Creating layer inception_4e/3x3_reduce
I0913 19:27:57.587744 22956 net.cpp:91] Creating Layer inception_4e/3x3_reduce
I0913 19:27:57.587750 22956 net.cpp:425] inception_4e/3x3_reduce <- inception_4d/output_inception_4d/output_0_split_1
I0913 19:27:57.587759 22956 net.cpp:399] inception_4e/3x3_reduce -> inception_4e/3x3_reduce
I0913 19:27:57.589854 22956 net.cpp:141] Setting up inception_4e/3x3_reduce
I0913 19:27:57.589870 22956 net.cpp:148] Top shape: 10 160 14 14 (313600)
I0913 19:27:57.589874 22956 net.cpp:156] Memory required for data: 499376640
I0913 19:27:57.589884 22956 layer_factory.hpp:77] Creating layer inception_4e/relu_3x3_reduce
I0913 19:27:57.589895 22956 net.cpp:91] Creating Layer inception_4e/relu_3x3_reduce
I0913 19:27:57.589900 22956 net.cpp:425] inception_4e/relu_3x3_reduce <- inception_4e/3x3_reduce
I0913 19:27:57.589906 22956 net.cpp:386] inception_4e/relu_3x3_reduce -> inception_4e/3x3_reduce (in-place)
I0913 19:27:57.590163 22956 net.cpp:141] Setting up inception_4e/relu_3x3_reduce
I0913 19:27:57.590174 22956 net.cpp:148] Top shape: 10 160 14 14 (313600)
I0913 19:27:57.590178 22956 net.cpp:156] Memory required for data: 500631040
I0913 19:27:57.590183 22956 layer_factory.hpp:77] Creating layer inception_4e/3x3
I0913 19:27:57.590201 22956 net.cpp:91] Creating Layer inception_4e/3x3
I0913 19:27:57.590207 22956 net.cpp:425] inception_4e/3x3 <- inception_4e/3x3_reduce
I0913 19:27:57.590215 22956 net.cpp:399] inception_4e/3x3 -> inception_4e/3x3
I0913 19:27:57.595948 22956 net.cpp:141] Setting up inception_4e/3x3
I0913 19:27:57.595965 22956 net.cpp:148] Top shape: 10 320 14 14 (627200)
I0913 19:27:57.595970 22956 net.cpp:156] Memory required for data: 503139840
I0913 19:27:57.595978 22956 layer_factory.hpp:77] Creating layer inception_4e/relu_3x3
I0913 19:27:57.595990 22956 net.cpp:91] Creating Layer inception_4e/relu_3x3
I0913 19:27:57.595996 22956 net.cpp:425] inception_4e/relu_3x3 <- inception_4e/3x3
I0913 19:27:57.596002 22956 net.cpp:386] inception_4e/relu_3x3 -> inception_4e/3x3 (in-place)
I0913 19:27:57.596426 22956 net.cpp:141] Setting up inception_4e/relu_3x3
I0913 19:27:57.596441 22956 net.cpp:148] Top shape: 10 320 14 14 (627200)
I0913 19:27:57.596446 22956 net.cpp:156] Memory required for data: 505648640
I0913 19:27:57.596451 22956 layer_factory.hpp:77] Creating layer inception_4e/5x5_reduce
I0913 19:27:57.596468 22956 net.cpp:91] Creating Layer inception_4e/5x5_reduce
I0913 19:27:57.596488 22956 net.cpp:425] inception_4e/5x5_reduce <- inception_4d/output_inception_4d/output_0_split_2
I0913 19:27:57.596498 22956 net.cpp:399] inception_4e/5x5_reduce -> inception_4e/5x5_reduce
I0913 19:27:57.597967 22956 net.cpp:141] Setting up inception_4e/5x5_reduce
I0913 19:27:57.597982 22956 net.cpp:148] Top shape: 10 32 14 14 (62720)
I0913 19:27:57.597987 22956 net.cpp:156] Memory required for data: 505899520
I0913 19:27:57.597995 22956 layer_factory.hpp:77] Creating layer inception_4e/relu_5x5_reduce
I0913 19:27:57.598003 22956 net.cpp:91] Creating Layer inception_4e/relu_5x5_reduce
I0913 19:27:57.598009 22956 net.cpp:425] inception_4e/relu_5x5_reduce <- inception_4e/5x5_reduce
I0913 19:27:57.598018 22956 net.cpp:386] inception_4e/relu_5x5_reduce -> inception_4e/5x5_reduce (in-place)
I0913 19:27:57.598459 22956 net.cpp:141] Setting up inception_4e/relu_5x5_reduce
I0913 19:27:57.598471 22956 net.cpp:148] Top shape: 10 32 14 14 (62720)
I0913 19:27:57.598476 22956 net.cpp:156] Memory required for data: 506150400
I0913 19:27:57.598481 22956 layer_factory.hpp:77] Creating layer inception_4e/5x5
I0913 19:27:57.598496 22956 net.cpp:91] Creating Layer inception_4e/5x5
I0913 19:27:57.598502 22956 net.cpp:425] inception_4e/5x5 <- inception_4e/5x5_reduce
I0913 19:27:57.598513 22956 net.cpp:399] inception_4e/5x5 -> inception_4e/5x5
I0913 19:27:57.603132 22956 net.cpp:141] Setting up inception_4e/5x5
I0913 19:27:57.603168 22956 net.cpp:148] Top shape: 10 128 14 14 (250880)
I0913 19:27:57.603173 22956 net.cpp:156] Memory required for data: 507153920
I0913 19:27:57.603183 22956 layer_factory.hpp:77] Creating layer inception_4e/relu_5x5
I0913 19:27:57.603191 22956 net.cpp:91] Creating Layer inception_4e/relu_5x5
I0913 19:27:57.603198 22956 net.cpp:425] inception_4e/relu_5x5 <- inception_4e/5x5
I0913 19:27:57.603204 22956 net.cpp:386] inception_4e/relu_5x5 -> inception_4e/5x5 (in-place)
I0913 19:27:57.603466 22956 net.cpp:141] Setting up inception_4e/relu_5x5
I0913 19:27:57.603482 22956 net.cpp:148] Top shape: 10 128 14 14 (250880)
I0913 19:27:57.603490 22956 net.cpp:156] Memory required for data: 508157440
I0913 19:27:57.603497 22956 layer_factory.hpp:77] Creating layer inception_4e/pool
I0913 19:27:57.603510 22956 net.cpp:91] Creating Layer inception_4e/pool
I0913 19:27:57.603516 22956 net.cpp:425] inception_4e/pool <- inception_4d/output_inception_4d/output_0_split_3
I0913 19:27:57.603524 22956 net.cpp:399] inception_4e/pool -> inception_4e/pool
I0913 19:27:57.603600 22956 net.cpp:141] Setting up inception_4e/pool
I0913 19:27:57.603608 22956 net.cpp:148] Top shape: 10 528 14 14 (1034880)
I0913 19:27:57.603613 22956 net.cpp:156] Memory required for data: 512296960
I0913 19:27:57.603617 22956 layer_factory.hpp:77] Creating layer inception_4e/pool_proj
I0913 19:27:57.603632 22956 net.cpp:91] Creating Layer inception_4e/pool_proj
I0913 19:27:57.603638 22956 net.cpp:425] inception_4e/pool_proj <- inception_4e/pool
I0913 19:27:57.603649 22956 net.cpp:399] inception_4e/pool_proj -> inception_4e/pool_proj
I0913 19:27:57.605739 22956 net.cpp:141] Setting up inception_4e/pool_proj
I0913 19:27:57.605756 22956 net.cpp:148] Top shape: 10 128 14 14 (250880)
I0913 19:27:57.605774 22956 net.cpp:156] Memory required for data: 513300480
I0913 19:27:57.605783 22956 layer_factory.hpp:77] Creating layer inception_4e/relu_pool_proj
I0913 19:27:57.605795 22956 net.cpp:91] Creating Layer inception_4e/relu_pool_proj
I0913 19:27:57.605803 22956 net.cpp:425] inception_4e/relu_pool_proj <- inception_4e/pool_proj
I0913 19:27:57.605809 22956 net.cpp:386] inception_4e/relu_pool_proj -> inception_4e/pool_proj (in-place)
I0913 19:27:57.606261 22956 net.cpp:141] Setting up inception_4e/relu_pool_proj
I0913 19:27:57.606273 22956 net.cpp:148] Top shape: 10 128 14 14 (250880)
I0913 19:27:57.606277 22956 net.cpp:156] Memory required for data: 514304000
I0913 19:27:57.606282 22956 layer_factory.hpp:77] Creating layer inception_4e/output
I0913 19:27:57.606294 22956 net.cpp:91] Creating Layer inception_4e/output
I0913 19:27:57.606300 22956 net.cpp:425] inception_4e/output <- inception_4e/1x1
I0913 19:27:57.606307 22956 net.cpp:425] inception_4e/output <- inception_4e/3x3
I0913 19:27:57.606312 22956 net.cpp:425] inception_4e/output <- inception_4e/5x5
I0913 19:27:57.606317 22956 net.cpp:425] inception_4e/output <- inception_4e/pool_proj
I0913 19:27:57.606323 22956 net.cpp:399] inception_4e/output -> inception_4e/output
I0913 19:27:57.606372 22956 net.cpp:141] Setting up inception_4e/output
I0913 19:27:57.606381 22956 net.cpp:148] Top shape: 10 832 14 14 (1630720)
I0913 19:27:57.606385 22956 net.cpp:156] Memory required for data: 520826880
I0913 19:27:57.606390 22956 layer_factory.hpp:77] Creating layer pool4/3x3_s2
I0913 19:27:57.606400 22956 net.cpp:91] Creating Layer pool4/3x3_s2
I0913 19:27:57.606405 22956 net.cpp:425] pool4/3x3_s2 <- inception_4e/output
I0913 19:27:57.606415 22956 net.cpp:399] pool4/3x3_s2 -> pool4/3x3_s2
I0913 19:27:57.606482 22956 net.cpp:141] Setting up pool4/3x3_s2
I0913 19:27:57.606490 22956 net.cpp:148] Top shape: 10 832 7 7 (407680)
I0913 19:27:57.606494 22956 net.cpp:156] Memory required for data: 522457600
I0913 19:27:57.606499 22956 layer_factory.hpp:77] Creating layer pool4/3x3_s2_pool4/3x3_s2_0_split
I0913 19:27:57.606508 22956 net.cpp:91] Creating Layer pool4/3x3_s2_pool4/3x3_s2_0_split
I0913 19:27:57.606513 22956 net.cpp:425] pool4/3x3_s2_pool4/3x3_s2_0_split <- pool4/3x3_s2
I0913 19:27:57.606520 22956 net.cpp:399] pool4/3x3_s2_pool4/3x3_s2_0_split -> pool4/3x3_s2_pool4/3x3_s2_0_split_0
I0913 19:27:57.606529 22956 net.cpp:399] pool4/3x3_s2_pool4/3x3_s2_0_split -> pool4/3x3_s2_pool4/3x3_s2_0_split_1
I0913 19:27:57.606536 22956 net.cpp:399] pool4/3x3_s2_pool4/3x3_s2_0_split -> pool4/3x3_s2_pool4/3x3_s2_0_split_2
I0913 19:27:57.606544 22956 net.cpp:399] pool4/3x3_s2_pool4/3x3_s2_0_split -> pool4/3x3_s2_pool4/3x3_s2_0_split_3
I0913 19:27:57.606640 22956 net.cpp:141] Setting up pool4/3x3_s2_pool4/3x3_s2_0_split
I0913 19:27:57.606652 22956 net.cpp:148] Top shape: 10 832 7 7 (407680)
I0913 19:27:57.606657 22956 net.cpp:148] Top shape: 10 832 7 7 (407680)
I0913 19:27:57.606662 22956 net.cpp:148] Top shape: 10 832 7 7 (407680)
I0913 19:27:57.606667 22956 net.cpp:148] Top shape: 10 832 7 7 (407680)
I0913 19:27:57.606672 22956 net.cpp:156] Memory required for data: 528980480
I0913 19:27:57.606675 22956 layer_factory.hpp:77] Creating layer inception_5a/1x1
I0913 19:27:57.606690 22956 net.cpp:91] Creating Layer inception_5a/1x1
I0913 19:27:57.606696 22956 net.cpp:425] inception_5a/1x1 <- pool4/3x3_s2_pool4/3x3_s2_0_split_0
I0913 19:27:57.606705 22956 net.cpp:399] inception_5a/1x1 -> inception_5a/1x1
I0913 19:27:57.610352 22956 net.cpp:141] Setting up inception_5a/1x1
I0913 19:27:57.610373 22956 net.cpp:148] Top shape: 10 256 7 7 (125440)
I0913 19:27:57.610378 22956 net.cpp:156] Memory required for data: 529482240
I0913 19:27:57.610386 22956 layer_factory.hpp:77] Creating layer inception_5a/relu_1x1
I0913 19:27:57.610399 22956 net.cpp:91] Creating Layer inception_5a/relu_1x1
I0913 19:27:57.610405 22956 net.cpp:425] inception_5a/relu_1x1 <- inception_5a/1x1
I0913 19:27:57.610412 22956 net.cpp:386] inception_5a/relu_1x1 -> inception_5a/1x1 (in-place)
I0913 19:27:57.610837 22956 net.cpp:141] Setting up inception_5a/relu_1x1
I0913 19:27:57.610851 22956 net.cpp:148] Top shape: 10 256 7 7 (125440)
I0913 19:27:57.610854 22956 net.cpp:156] Memory required for data: 529984000
I0913 19:27:57.610859 22956 layer_factory.hpp:77] Creating layer inception_5a/3x3_reduce
I0913 19:27:57.610877 22956 net.cpp:91] Creating Layer inception_5a/3x3_reduce
I0913 19:27:57.610883 22956 net.cpp:425] inception_5a/3x3_reduce <- pool4/3x3_s2_pool4/3x3_s2_0_split_1
I0913 19:27:57.610893 22956 net.cpp:399] inception_5a/3x3_reduce -> inception_5a/3x3_reduce
I0913 19:27:57.614205 22956 net.cpp:141] Setting up inception_5a/3x3_reduce
I0913 19:27:57.614228 22956 net.cpp:148] Top shape: 10 160 7 7 (78400)
I0913 19:27:57.614235 22956 net.cpp:156] Memory required for data: 530297600
I0913 19:27:57.614248 22956 layer_factory.hpp:77] Creating layer inception_5a/relu_3x3_reduce
I0913 19:27:57.614260 22956 net.cpp:91] Creating Layer inception_5a/relu_3x3_reduce
I0913 19:27:57.614269 22956 net.cpp:425] inception_5a/relu_3x3_reduce <- inception_5a/3x3_reduce
I0913 19:27:57.614284 22956 net.cpp:386] inception_5a/relu_3x3_reduce -> inception_5a/3x3_reduce (in-place)
I0913 19:27:57.614627 22956 net.cpp:141] Setting up inception_5a/relu_3x3_reduce
I0913 19:27:57.614645 22956 net.cpp:148] Top shape: 10 160 7 7 (78400)
I0913 19:27:57.614653 22956 net.cpp:156] Memory required for data: 530611200
I0913 19:27:57.614663 22956 layer_factory.hpp:77] Creating layer inception_5a/3x3
I0913 19:27:57.616665 22956 net.cpp:91] Creating Layer inception_5a/3x3
I0913 19:27:57.616715 22956 net.cpp:425] inception_5a/3x3 <- inception_5a/3x3_reduce
I0913 19:27:57.616740 22956 net.cpp:399] inception_5a/3x3 -> inception_5a/3x3
I0913 19:27:57.628739 22956 net.cpp:141] Setting up inception_5a/3x3
I0913 19:27:57.628793 22956 net.cpp:148] Top shape: 10 320 7 7 (156800)
I0913 19:27:57.628803 22956 net.cpp:156] Memory required for data: 531238400
I0913 19:27:57.628834 22956 layer_factory.hpp:77] Creating layer inception_5a/relu_3x3
I0913 19:27:57.628845 22956 net.cpp:91] Creating Layer inception_5a/relu_3x3
I0913 19:27:57.628850 22956 net.cpp:425] inception_5a/relu_3x3 <- inception_5a/3x3
I0913 19:27:57.628859 22956 net.cpp:386] inception_5a/relu_3x3 -> inception_5a/3x3 (in-place)
I0913 19:27:57.629298 22956 net.cpp:141] Setting up inception_5a/relu_3x3
I0913 19:27:57.629312 22956 net.cpp:148] Top shape: 10 320 7 7 (156800)
I0913 19:27:57.629317 22956 net.cpp:156] Memory required for data: 531865600
I0913 19:27:57.629322 22956 layer_factory.hpp:77] Creating layer inception_5a/5x5_reduce
I0913 19:27:57.629338 22956 net.cpp:91] Creating Layer inception_5a/5x5_reduce
I0913 19:27:57.629345 22956 net.cpp:425] inception_5a/5x5_reduce <- pool4/3x3_s2_pool4/3x3_s2_0_split_2
I0913 19:27:57.629360 22956 net.cpp:399] inception_5a/5x5_reduce -> inception_5a/5x5_reduce
I0913 19:27:57.630973 22956 net.cpp:141] Setting up inception_5a/5x5_reduce
I0913 19:27:57.630991 22956 net.cpp:148] Top shape: 10 32 7 7 (15680)
I0913 19:27:57.630996 22956 net.cpp:156] Memory required for data: 531928320
I0913 19:27:57.631005 22956 layer_factory.hpp:77] Creating layer inception_5a/relu_5x5_reduce
I0913 19:27:57.631013 22956 net.cpp:91] Creating Layer inception_5a/relu_5x5_reduce
I0913 19:27:57.631018 22956 net.cpp:425] inception_5a/relu_5x5_reduce <- inception_5a/5x5_reduce
I0913 19:27:57.631028 22956 net.cpp:386] inception_5a/relu_5x5_reduce -> inception_5a/5x5_reduce (in-place)
I0913 19:27:57.631453 22956 net.cpp:141] Setting up inception_5a/relu_5x5_reduce
I0913 19:27:57.631464 22956 net.cpp:148] Top shape: 10 32 7 7 (15680)
I0913 19:27:57.631469 22956 net.cpp:156] Memory required for data: 531991040
I0913 19:27:57.631474 22956 layer_factory.hpp:77] Creating layer inception_5a/5x5
I0913 19:27:57.631489 22956 net.cpp:91] Creating Layer inception_5a/5x5
I0913 19:27:57.631495 22956 net.cpp:425] inception_5a/5x5 <- inception_5a/5x5_reduce
I0913 19:27:57.631507 22956 net.cpp:399] inception_5a/5x5 -> inception_5a/5x5
I0913 19:27:57.633833 22956 net.cpp:141] Setting up inception_5a/5x5
I0913 19:27:57.633851 22956 net.cpp:148] Top shape: 10 128 7 7 (62720)
I0913 19:27:57.633855 22956 net.cpp:156] Memory required for data: 532241920
I0913 19:27:57.633864 22956 layer_factory.hpp:77] Creating layer inception_5a/relu_5x5
I0913 19:27:57.633899 22956 net.cpp:91] Creating Layer inception_5a/relu_5x5
I0913 19:27:57.633906 22956 net.cpp:425] inception_5a/relu_5x5 <- inception_5a/5x5
I0913 19:27:57.633913 22956 net.cpp:386] inception_5a/relu_5x5 -> inception_5a/5x5 (in-place)
I0913 19:27:57.634165 22956 net.cpp:141] Setting up inception_5a/relu_5x5
I0913 19:27:57.634176 22956 net.cpp:148] Top shape: 10 128 7 7 (62720)
I0913 19:27:57.634179 22956 net.cpp:156] Memory required for data: 532492800
I0913 19:27:57.634186 22956 layer_factory.hpp:77] Creating layer inception_5a/pool
I0913 19:27:57.634196 22956 net.cpp:91] Creating Layer inception_5a/pool
I0913 19:27:57.634201 22956 net.cpp:425] inception_5a/pool <- pool4/3x3_s2_pool4/3x3_s2_0_split_3
I0913 19:27:57.634212 22956 net.cpp:399] inception_5a/pool -> inception_5a/pool
I0913 19:27:57.634286 22956 net.cpp:141] Setting up inception_5a/pool
I0913 19:27:57.634296 22956 net.cpp:148] Top shape: 10 832 7 7 (407680)
I0913 19:27:57.634300 22956 net.cpp:156] Memory required for data: 534123520
I0913 19:27:57.634305 22956 layer_factory.hpp:77] Creating layer inception_5a/pool_proj
I0913 19:27:57.634325 22956 net.cpp:91] Creating Layer inception_5a/pool_proj
I0913 19:27:57.634331 22956 net.cpp:425] inception_5a/pool_proj <- inception_5a/pool
I0913 19:27:57.634341 22956 net.cpp:399] inception_5a/pool_proj -> inception_5a/pool_proj
I0913 19:27:57.637403 22956 net.cpp:141] Setting up inception_5a/pool_proj
I0913 19:27:57.637421 22956 net.cpp:148] Top shape: 10 128 7 7 (62720)
I0913 19:27:57.637426 22956 net.cpp:156] Memory required for data: 534374400
I0913 19:27:57.637435 22956 layer_factory.hpp:77] Creating layer inception_5a/relu_pool_proj
I0913 19:27:57.637447 22956 net.cpp:91] Creating Layer inception_5a/relu_pool_proj
I0913 19:27:57.637454 22956 net.cpp:425] inception_5a/relu_pool_proj <- inception_5a/pool_proj
I0913 19:27:57.637460 22956 net.cpp:386] inception_5a/relu_pool_proj -> inception_5a/pool_proj (in-place)
I0913 19:27:57.637887 22956 net.cpp:141] Setting up inception_5a/relu_pool_proj
I0913 19:27:57.637903 22956 net.cpp:148] Top shape: 10 128 7 7 (62720)
I0913 19:27:57.637907 22956 net.cpp:156] Memory required for data: 534625280
I0913 19:27:57.637912 22956 layer_factory.hpp:77] Creating layer inception_5a/output
I0913 19:27:57.637925 22956 net.cpp:91] Creating Layer inception_5a/output
I0913 19:27:57.637931 22956 net.cpp:425] inception_5a/output <- inception_5a/1x1
I0913 19:27:57.637938 22956 net.cpp:425] inception_5a/output <- inception_5a/3x3
I0913 19:27:57.637943 22956 net.cpp:425] inception_5a/output <- inception_5a/5x5
I0913 19:27:57.637948 22956 net.cpp:425] inception_5a/output <- inception_5a/pool_proj
I0913 19:27:57.637954 22956 net.cpp:399] inception_5a/output -> inception_5a/output
I0913 19:27:57.638005 22956 net.cpp:141] Setting up inception_5a/output
I0913 19:27:57.638015 22956 net.cpp:148] Top shape: 10 832 7 7 (407680)
I0913 19:27:57.638020 22956 net.cpp:156] Memory required for data: 536256000
I0913 19:27:57.638023 22956 layer_factory.hpp:77] Creating layer inception_5a/output_inception_5a/output_0_split
I0913 19:27:57.638032 22956 net.cpp:91] Creating Layer inception_5a/output_inception_5a/output_0_split
I0913 19:27:57.638037 22956 net.cpp:425] inception_5a/output_inception_5a/output_0_split <- inception_5a/output
I0913 19:27:57.638047 22956 net.cpp:399] inception_5a/output_inception_5a/output_0_split -> inception_5a/output_inception_5a/output_0_split_0
I0913 19:27:57.638064 22956 net.cpp:399] inception_5a/output_inception_5a/output_0_split -> inception_5a/output_inception_5a/output_0_split_1
I0913 19:27:57.638073 22956 net.cpp:399] inception_5a/output_inception_5a/output_0_split -> inception_5a/output_inception_5a/output_0_split_2
I0913 19:27:57.638082 22956 net.cpp:399] inception_5a/output_inception_5a/output_0_split -> inception_5a/output_inception_5a/output_0_split_3
I0913 19:27:57.638187 22956 net.cpp:141] Setting up inception_5a/output_inception_5a/output_0_split
I0913 19:27:57.638196 22956 net.cpp:148] Top shape: 10 832 7 7 (407680)
I0913 19:27:57.638202 22956 net.cpp:148] Top shape: 10 832 7 7 (407680)
I0913 19:27:57.638207 22956 net.cpp:148] Top shape: 10 832 7 7 (407680)
I0913 19:27:57.638212 22956 net.cpp:148] Top shape: 10 832 7 7 (407680)
I0913 19:27:57.638216 22956 net.cpp:156] Memory required for data: 542778880
I0913 19:27:57.638221 22956 layer_factory.hpp:77] Creating layer inception_5b/1x1
I0913 19:27:57.638237 22956 net.cpp:91] Creating Layer inception_5b/1x1
I0913 19:27:57.638243 22956 net.cpp:425] inception_5b/1x1 <- inception_5a/output_inception_5a/output_0_split_0
I0913 19:27:57.638252 22956 net.cpp:399] inception_5b/1x1 -> inception_5b/1x1
I0913 19:27:57.642851 22956 net.cpp:141] Setting up inception_5b/1x1
I0913 19:27:57.642873 22956 net.cpp:148] Top shape: 10 384 7 7 (188160)
I0913 19:27:57.642877 22956 net.cpp:156] Memory required for data: 543531520
I0913 19:27:57.642886 22956 layer_factory.hpp:77] Creating layer inception_5b/relu_1x1
I0913 19:27:57.642895 22956 net.cpp:91] Creating Layer inception_5b/relu_1x1
I0913 19:27:57.642901 22956 net.cpp:425] inception_5b/relu_1x1 <- inception_5b/1x1
I0913 19:27:57.642909 22956 net.cpp:386] inception_5b/relu_1x1 -> inception_5b/1x1 (in-place)
I0913 19:27:57.643332 22956 net.cpp:141] Setting up inception_5b/relu_1x1
I0913 19:27:57.643347 22956 net.cpp:148] Top shape: 10 384 7 7 (188160)
I0913 19:27:57.643352 22956 net.cpp:156] Memory required for data: 544284160
I0913 19:27:57.643357 22956 layer_factory.hpp:77] Creating layer inception_5b/3x3_reduce
I0913 19:27:57.643373 22956 net.cpp:91] Creating Layer inception_5b/3x3_reduce
I0913 19:27:57.643378 22956 net.cpp:425] inception_5b/3x3_reduce <- inception_5a/output_inception_5a/output_0_split_1
I0913 19:27:57.643388 22956 net.cpp:399] inception_5b/3x3_reduce -> inception_5b/3x3_reduce
I0913 19:27:57.647881 22956 net.cpp:141] Setting up inception_5b/3x3_reduce
I0913 19:27:57.647930 22956 net.cpp:148] Top shape: 10 192 7 7 (94080)
I0913 19:27:57.647936 22956 net.cpp:156] Memory required for data: 544660480
I0913 19:27:57.647953 22956 layer_factory.hpp:77] Creating layer inception_5b/relu_3x3_reduce
I0913 19:27:57.647967 22956 net.cpp:91] Creating Layer inception_5b/relu_3x3_reduce
I0913 19:27:57.647976 22956 net.cpp:425] inception_5b/relu_3x3_reduce <- inception_5b/3x3_reduce
I0913 19:27:57.647985 22956 net.cpp:386] inception_5b/relu_3x3_reduce -> inception_5b/3x3_reduce (in-place)
I0913 19:27:57.648267 22956 net.cpp:141] Setting up inception_5b/relu_3x3_reduce
I0913 19:27:57.648279 22956 net.cpp:148] Top shape: 10 192 7 7 (94080)
I0913 19:27:57.648284 22956 net.cpp:156] Memory required for data: 545036800
I0913 19:27:57.648289 22956 layer_factory.hpp:77] Creating layer inception_5b/3x3
I0913 19:27:57.648308 22956 net.cpp:91] Creating Layer inception_5b/3x3
I0913 19:27:57.648315 22956 net.cpp:425] inception_5b/3x3 <- inception_5b/3x3_reduce
I0913 19:27:57.648327 22956 net.cpp:399] inception_5b/3x3 -> inception_5b/3x3
I0913 19:27:57.656683 22956 net.cpp:141] Setting up inception_5b/3x3
I0913 19:27:57.656720 22956 net.cpp:148] Top shape: 10 384 7 7 (188160)
I0913 19:27:57.656726 22956 net.cpp:156] Memory required for data: 545789440
I0913 19:27:57.656739 22956 layer_factory.hpp:77] Creating layer inception_5b/relu_3x3
I0913 19:27:57.656756 22956 net.cpp:91] Creating Layer inception_5b/relu_3x3
I0913 19:27:57.656765 22956 net.cpp:425] inception_5b/relu_3x3 <- inception_5b/3x3
I0913 19:27:57.656783 22956 net.cpp:386] inception_5b/relu_3x3 -> inception_5b/3x3 (in-place)
I0913 19:27:57.657215 22956 net.cpp:141] Setting up inception_5b/relu_3x3
I0913 19:27:57.657228 22956 net.cpp:148] Top shape: 10 384 7 7 (188160)
I0913 19:27:57.657233 22956 net.cpp:156] Memory required for data: 546542080
I0913 19:27:57.657238 22956 layer_factory.hpp:77] Creating layer inception_5b/5x5_reduce
I0913 19:27:57.657259 22956 net.cpp:91] Creating Layer inception_5b/5x5_reduce
I0913 19:27:57.657266 22956 net.cpp:425] inception_5b/5x5_reduce <- inception_5a/output_inception_5a/output_0_split_2
I0913 19:27:57.657276 22956 net.cpp:399] inception_5b/5x5_reduce -> inception_5b/5x5_reduce
I0913 19:27:57.659031 22956 net.cpp:141] Setting up inception_5b/5x5_reduce
I0913 19:27:57.659047 22956 net.cpp:148] Top shape: 10 48 7 7 (23520)
I0913 19:27:57.659052 22956 net.cpp:156] Memory required for data: 546636160
I0913 19:27:57.659061 22956 layer_factory.hpp:77] Creating layer inception_5b/relu_5x5_reduce
I0913 19:27:57.659072 22956 net.cpp:91] Creating Layer inception_5b/relu_5x5_reduce
I0913 19:27:57.659080 22956 net.cpp:425] inception_5b/relu_5x5_reduce <- inception_5b/5x5_reduce
I0913 19:27:57.659086 22956 net.cpp:386] inception_5b/relu_5x5_reduce -> inception_5b/5x5_reduce (in-place)
I0913 19:27:57.659512 22956 net.cpp:141] Setting up inception_5b/relu_5x5_reduce
I0913 19:27:57.659526 22956 net.cpp:148] Top shape: 10 48 7 7 (23520)
I0913 19:27:57.659531 22956 net.cpp:156] Memory required for data: 546730240
I0913 19:27:57.659536 22956 layer_factory.hpp:77] Creating layer inception_5b/5x5
I0913 19:27:57.659554 22956 net.cpp:91] Creating Layer inception_5b/5x5
I0913 19:27:57.659560 22956 net.cpp:425] inception_5b/5x5 <- inception_5b/5x5_reduce
I0913 19:27:57.659569 22956 net.cpp:399] inception_5b/5x5 -> inception_5b/5x5
I0913 19:27:57.662647 22956 net.cpp:141] Setting up inception_5b/5x5
I0913 19:27:57.662662 22956 net.cpp:148] Top shape: 10 128 7 7 (62720)
I0913 19:27:57.662675 22956 net.cpp:156] Memory required for data: 546981120
I0913 19:27:57.662683 22956 layer_factory.hpp:77] Creating layer inception_5b/relu_5x5
I0913 19:27:57.662694 22956 net.cpp:91] Creating Layer inception_5b/relu_5x5
I0913 19:27:57.662700 22956 net.cpp:425] inception_5b/relu_5x5 <- inception_5b/5x5
I0913 19:27:57.662708 22956 net.cpp:386] inception_5b/relu_5x5 -> inception_5b/5x5 (in-place)
I0913 19:27:57.662964 22956 net.cpp:141] Setting up inception_5b/relu_5x5
I0913 19:27:57.662978 22956 net.cpp:148] Top shape: 10 128 7 7 (62720)
I0913 19:27:57.662983 22956 net.cpp:156] Memory required for data: 547232000
I0913 19:27:57.662988 22956 layer_factory.hpp:77] Creating layer inception_5b/pool
I0913 19:27:57.662998 22956 net.cpp:91] Creating Layer inception_5b/pool
I0913 19:27:57.663004 22956 net.cpp:425] inception_5b/pool <- inception_5a/output_inception_5a/output_0_split_3
I0913 19:27:57.663014 22956 net.cpp:399] inception_5b/pool -> inception_5b/pool
I0913 19:27:57.663091 22956 net.cpp:141] Setting up inception_5b/pool
I0913 19:27:57.663103 22956 net.cpp:148] Top shape: 10 832 7 7 (407680)
I0913 19:27:57.663107 22956 net.cpp:156] Memory required for data: 548862720
I0913 19:27:57.663112 22956 layer_factory.hpp:77] Creating layer inception_5b/pool_proj
I0913 19:27:57.663123 22956 net.cpp:91] Creating Layer inception_5b/pool_proj
I0913 19:27:57.663128 22956 net.cpp:425] inception_5b/pool_proj <- inception_5b/pool
I0913 19:27:57.663139 22956 net.cpp:399] inception_5b/pool_proj -> inception_5b/pool_proj
I0913 19:27:57.666208 22956 net.cpp:141] Setting up inception_5b/pool_proj
I0913 19:27:57.666224 22956 net.cpp:148] Top shape: 10 128 7 7 (62720)
I0913 19:27:57.666229 22956 net.cpp:156] Memory required for data: 549113600
I0913 19:27:57.666239 22956 layer_factory.hpp:77] Creating layer inception_5b/relu_pool_proj
I0913 19:27:57.666250 22956 net.cpp:91] Creating Layer inception_5b/relu_pool_proj
I0913 19:27:57.666256 22956 net.cpp:425] inception_5b/relu_pool_proj <- inception_5b/pool_proj
I0913 19:27:57.666265 22956 net.cpp:386] inception_5b/relu_pool_proj -> inception_5b/pool_proj (in-place)
I0913 19:27:57.666694 22956 net.cpp:141] Setting up inception_5b/relu_pool_proj
I0913 19:27:57.666709 22956 net.cpp:148] Top shape: 10 128 7 7 (62720)
I0913 19:27:57.666714 22956 net.cpp:156] Memory required for data: 549364480
I0913 19:27:57.666719 22956 layer_factory.hpp:77] Creating layer inception_5b/output
I0913 19:27:57.666733 22956 net.cpp:91] Creating Layer inception_5b/output
I0913 19:27:57.666738 22956 net.cpp:425] inception_5b/output <- inception_5b/1x1
I0913 19:27:57.666744 22956 net.cpp:425] inception_5b/output <- inception_5b/3x3
I0913 19:27:57.666749 22956 net.cpp:425] inception_5b/output <- inception_5b/5x5
I0913 19:27:57.666754 22956 net.cpp:425] inception_5b/output <- inception_5b/pool_proj
I0913 19:27:57.666764 22956 net.cpp:399] inception_5b/output -> inception_5b/output
I0913 19:27:57.666811 22956 net.cpp:141] Setting up inception_5b/output
I0913 19:27:57.666821 22956 net.cpp:148] Top shape: 10 1024 7 7 (501760)
I0913 19:27:57.666826 22956 net.cpp:156] Memory required for data: 551371520
I0913 19:27:57.666831 22956 layer_factory.hpp:77] Creating layer pool5/7x7_s1
I0913 19:27:57.666841 22956 net.cpp:91] Creating Layer pool5/7x7_s1
I0913 19:27:57.666847 22956 net.cpp:425] pool5/7x7_s1 <- inception_5b/output
I0913 19:27:57.666856 22956 net.cpp:399] pool5/7x7_s1 -> pool5/7x7_s1
I0913 19:27:57.667167 22956 net.cpp:141] Setting up pool5/7x7_s1
I0913 19:27:57.667179 22956 net.cpp:148] Top shape: 10 1024 1 1 (10240)
I0913 19:27:57.667183 22956 net.cpp:156] Memory required for data: 551412480
I0913 19:27:57.667188 22956 layer_factory.hpp:77] Creating layer pool5/drop_7x7_s1
I0913 19:27:57.667197 22956 net.cpp:91] Creating Layer pool5/drop_7x7_s1
I0913 19:27:57.667202 22956 net.cpp:425] pool5/drop_7x7_s1 <- pool5/7x7_s1
I0913 19:27:57.667210 22956 net.cpp:386] pool5/drop_7x7_s1 -> pool5/7x7_s1 (in-place)
I0913 19:27:57.667259 22956 net.cpp:141] Setting up pool5/drop_7x7_s1
I0913 19:27:57.667268 22956 net.cpp:148] Top shape: 10 1024 1 1 (10240)
I0913 19:27:57.667273 22956 net.cpp:156] Memory required for data: 551453440
I0913 19:27:57.667278 22956 layer_factory.hpp:77] Creating layer loss3/classifier
I0913 19:27:57.667297 22956 net.cpp:91] Creating Layer loss3/classifier
I0913 19:27:57.667302 22956 net.cpp:425] loss3/classifier <- pool5/7x7_s1
I0913 19:27:57.667311 22956 net.cpp:399] loss3/classifier -> loss3/classifier
I0913 19:27:57.676976 22956 net.cpp:141] Setting up loss3/classifier
I0913 19:27:57.677000 22956 net.cpp:148] Top shape: 10 1000 (10000)
I0913 19:27:57.677006 22956 net.cpp:156] Memory required for data: 551493440
I0913 19:27:57.677016 22956 layer_factory.hpp:77] Creating layer prob
I0913 19:27:57.677027 22956 net.cpp:91] Creating Layer prob
I0913 19:27:57.677033 22956 net.cpp:425] prob <- loss3/classifier
I0913 19:27:57.677047 22956 net.cpp:399] prob -> prob
I0913 19:27:57.677661 22956 net.cpp:141] Setting up prob
I0913 19:27:57.677676 22956 net.cpp:148] Top shape: 10 1000 (10000)
I0913 19:27:57.677681 22956 net.cpp:156] Memory required for data: 551533440
I0913 19:27:57.677687 22956 net.cpp:219] prob does not need backward computation.
I0913 19:27:57.677692 22956 net.cpp:219] loss3/classifier does not need backward computation.
I0913 19:27:57.677696 22956 net.cpp:219] pool5/drop_7x7_s1 does not need backward computation.
I0913 19:27:57.677700 22956 net.cpp:219] pool5/7x7_s1 does not need backward computation.
…
