…
2016-07-30 11:19:07.474 STDERR [INFO] I0730 11:19:07.449615  7245 net.cpp:91] Creating Layer input
2016-07-30 11:19:07.474 STDERR [INFO] I0730 11:19:07.449622  7245 net.cpp:399] input -> frames_fc7
2016-07-30 11:19:07.474 STDERR [INFO] I0730 11:19:07.449638  7245 net.cpp:399] input -> cont_sentence
2016-07-30 11:19:07.474 STDERR [INFO] I0730 11:19:07.449648  7245 net.cpp:399] input -> input_sentence
2016-07-30 11:19:07.474 STDERR [INFO] I0730 11:19:07.449657  7245 net.cpp:399] input -> stage_indicator
2016-07-30 11:19:07.474 STDERR [INFO] I0730 11:19:07.449883  7245 net.cpp:141] Setting up input
2016-07-30 11:19:07.474 STDERR [INFO] I0730 11:19:07.449897  7245 net.cpp:148] Top shape: 1 4096 (4096)
2016-07-30 11:19:07.474 STDERR [INFO] I0730 11:19:07.449903  7245 net.cpp:148] Top shape: 1 1 (1)
2016-07-30 11:19:07.475 STDERR [INFO] I0730 11:19:07.449908  7245 net.cpp:148] Top shape: 1 1 (1)
2016-07-30 11:19:07.475 STDERR [INFO] I0730 11:19:07.449913  7245 net.cpp:148] Top shape: 1 1 (1)
2016-07-30 11:19:07.475 STDERR [INFO] I0730 11:19:07.449918  7245 net.cpp:156] Memory required for data: 16396
2016-07-30 11:19:07.475 STDERR [INFO] I0730 11:19:07.449923  7245 layer_factory.hpp:77] Creating layer cont_sentence_input_1_split
2016-07-30 11:19:07.475 STDERR [INFO] I0730 11:19:07.449941  7245 net.cpp:91] Creating Layer cont_sentence_input_1_split
2016-07-30 11:19:07.475 STDERR [INFO] I0730 11:19:07.449946  7245 net.cpp:425] cont_sentence_input_1_split <- cont_sentence
2016-07-30 11:19:07.475 STDERR [INFO] I0730 11:19:07.449965  7245 net.cpp:399] cont_sentence_input_1_split -> cont_sentence_input_1_split_0
2016-07-30 11:19:07.475 STDERR [INFO] I0730 11:19:07.449975  7245 net.cpp:399] cont_sentence_input_1_split -> cont_sentence_input_1_split_1
2016-07-30 11:19:07.475 STDERR [INFO] I0730 11:19:07.454473  7245 net.cpp:141] Setting up cont_sentence_input_1_split
2016-07-30 11:19:07.476 STDERR [INFO] I0730 11:19:07.454496  7245 net.cpp:148] Top shape: 1 1 (1)
2016-07-30 11:19:07.476 STDERR [INFO] I0730 11:19:07.454502  7245 net.cpp:148] Top shape: 1 1 (1)
2016-07-30 11:19:07.476 STDERR [INFO] I0730 11:19:07.454506  7245 net.cpp:156] Memory required for data: 16404
2016-07-30 11:19:07.476 STDERR [INFO] I0730 11:19:07.454512  7245 layer_factory.hpp:77] Creating layer embed_encoder
2016-07-30 11:19:07.476 STDERR [INFO] I0730 11:19:07.454535  7245 net.cpp:91] Creating Layer embed_encoder
2016-07-30 11:19:07.476 STDERR [INFO] I0730 11:19:07.454540  7245 net.cpp:425] embed_encoder <- frames_fc7
2016-07-30 11:19:07.476 STDERR [INFO] I0730 11:19:07.454548  7245 net.cpp:399] embed_encoder -> embedded_in_frames
2016-07-30 11:19:07.483 STDERR [INFO] I0730 11:19:07.483058  7245 net.cpp:141] Setting up embed_encoder
2016-07-30 11:19:07.483 STDERR [INFO] I0730 11:19:07.483104  7245 net.cpp:148] Top shape: 1 500 (500)
2016-07-30 11:19:07.483 STDERR [INFO] I0730 11:19:07.483110  7245 net.cpp:156] Memory required for data: 18404
2016-07-30 11:19:07.483 STDERR [INFO] I0730 11:19:07.483135  7245 layer_factory.hpp:77] Creating layer reshape_frames
2016-07-30 11:19:07.483 STDERR [INFO] I0730 11:19:07.483160  7245 net.cpp:91] Creating Layer reshape_frames
2016-07-30 11:19:07.483 STDERR [INFO] I0730 11:19:07.483167  7245 net.cpp:425] reshape_frames <- embedded_in_frames
2016-07-30 11:19:07.484 STDERR [INFO] I0730 11:19:07.483177  7245 net.cpp:399] reshape_frames -> embedded_input_frames
2016-07-30 11:19:07.490 STDERR [INFO] I0730 11:19:07.490502  7245 net.cpp:141] Setting up reshape_frames
2016-07-30 11:19:07.490 STDERR [INFO] I0730 11:19:07.490525  7245 net.cpp:148] Top shape: 1 1 500 (500)
2016-07-30 11:19:07.490 STDERR [INFO] I0730 11:19:07.490530  7245 net.cpp:156] Memory required for data: 20404
2016-07-30 11:19:07.490 STDERR [INFO] I0730 11:19:07.490535  7245 layer_factory.hpp:77] Creating layer reshape_stage_indicator
2016-07-30 11:19:07.491 STDERR [INFO] I0730 11:19:07.490548  7245 net.cpp:91] Creating Layer reshape_stage_indicator
2016-07-30 11:19:07.491 STDERR [INFO] I0730 11:19:07.490555  7245 net.cpp:425] reshape_stage_indicator <- stage_indicator
2016-07-30 11:19:07.491 STDERR [INFO] I0730 11:19:07.490568  7245 net.cpp:399] reshape_stage_indicator -> reshaped_stage_indicator
2016-07-30 11:19:07.491 STDERR [INFO] I0730 11:19:07.490610  7245 net.cpp:141] Setting up reshape_stage_indicator
2016-07-30 11:19:07.491 STDERR [INFO] I0730 11:19:07.490620  7245 net.cpp:148] Top shape: 1 1 1 (1)
2016-07-30 11:19:07.492 STDERR [INFO] I0730 11:19:07.490624  7245 net.cpp:156] Memory required for data: 20408
2016-07-30 11:19:07.492 STDERR [INFO] I0730 11:19:07.490628  7245 layer_factory.hpp:77] Creating layer embedding
2016-07-30 11:19:07.492 STDERR [INFO] I0730 11:19:07.490639  7245 net.cpp:91] Creating Layer embedding
2016-07-30 11:19:07.492 STDERR [INFO] I0730 11:19:07.490644  7245 net.cpp:425] embedding <- input_sentence
2016-07-30 11:19:07.492 STDERR [INFO] I0730 11:19:07.490655  7245 net.cpp:399] embedding -> embedded_input_sentence
2016-07-30 11:19:07.646 STDERR [INFO] I0730 11:19:07.645855  7255 net.cpp:141] Setting up conv1
2016-07-30 11:19:07.646 STDERR [INFO] I0730 11:19:07.645916  7255 net.cpp:148] Top shape: 10 96 55 55 (2904000)
2016-07-30 11:19:07.646 STDERR [INFO] I0730 11:19:07.645925  7255 net.cpp:156] Memory required for data: 17799480
2016-07-30 11:19:07.646 STDERR [INFO] I0730 11:19:07.645951  7255 layer_factory.hpp:77] Creating layer relu1
2016-07-30 11:19:07.646 STDERR [INFO] I0730 11:19:07.645972  7255 net.cpp:91] Creating Layer relu1
2016-07-30 11:19:07.646 STDERR [INFO] I0730 11:19:07.645980  7255 net.cpp:425] relu1 <- conv1
2016-07-30 11:19:07.646 STDERR [INFO] I0730 11:19:07.645988  7255 net.cpp:386] relu1 -> conv1 (in-place)
2016-07-30 11:19:07.647 STDERR [INFO] I0730 11:19:07.646786  7255 net.cpp:141] Setting up relu1
2016-07-30 11:19:07.647 STDERR [INFO] I0730 11:19:07.646803  7255 net.cpp:148] Top shape: 10 96 55 55 (2904000)
2016-07-30 11:19:07.647 STDERR [INFO] I0730 11:19:07.646809  7255 net.cpp:156] Memory required for data: 29415480
2016-07-30 11:19:07.647 STDERR [INFO] I0730 11:19:07.646814  7255 layer_factory.hpp:77] Creating layer pool1
2016-07-30 11:19:07.647 STDERR [INFO] I0730 11:19:07.646829  7255 net.cpp:91] Creating Layer pool1
2016-07-30 11:19:07.647 STDERR [INFO] I0730 11:19:07.646834  7255 net.cpp:425] pool1 <- conv1
2016-07-30 11:19:07.647 STDERR [INFO] I0730 11:19:07.646842  7255 net.cpp:399] pool1 -> pool1
2016-07-30 11:19:07.647 STDERR [INFO] I0730 11:19:07.646922  7255 net.cpp:141] Setting up pool1
2016-07-30 11:19:07.647 STDERR [INFO] I0730 11:19:07.646934  7255 net.cpp:148] Top shape: 10 96 27 27 (699840)
2016-07-30 11:19:07.647 STDERR [INFO] I0730 11:19:07.646939  7255 net.cpp:156] Memory required for data: 32214840
2016-07-30 11:19:07.647 STDERR [INFO] I0730 11:19:07.646944  7255 layer_factory.hpp:77] Creating layer norm1
2016-07-30 11:19:07.648 STDERR [INFO] I0730 11:19:07.646967  7255 net.cpp:91] Creating Layer norm1
2016-07-30 11:19:07.648 STDERR [INFO] I0730 11:19:07.646973  7255 net.cpp:425] norm1 <- pool1
2016-07-30 11:19:07.648 STDERR [INFO] I0730 11:19:07.646981  7255 net.cpp:399] norm1 -> norm1
2016-07-30 11:19:07.648 STDERR [INFO] I0730 11:19:07.647812  7255 net.cpp:141] Setting up norm1
2016-07-30 11:19:07.648 STDERR [INFO] I0730 11:19:07.647827  7255 net.cpp:148] Top shape: 10 96 27 27 (699840)
2016-07-30 11:19:07.648 STDERR [INFO] I0730 11:19:07.647832  7255 net.cpp:156] Memory required for data: 35014200
2016-07-30 11:19:07.648 STDERR [INFO] I0730 11:19:07.647838  7255 layer_factory.hpp:77] Creating layer conv2
2016-07-30 11:19:07.648 STDERR [INFO] I0730 11:19:07.647861  7255 net.cpp:91] Creating Layer conv2
2016-07-30 11:19:07.648 STDERR [INFO] I0730 11:19:07.647868  7255 net.cpp:425] conv2 <- norm1
2016-07-30 11:19:07.648 STDERR [INFO] I0730 11:19:07.647876  7255 net.cpp:399] conv2 -> conv2
2016-07-30 11:19:07.652 STDERR [INFO] I0730 11:19:07.652601  7255 net.cpp:141] Setting up conv2
2016-07-30 11:19:07.652 STDERR [INFO] I0730 11:19:07.652622  7255 net.cpp:148] Top shape: 10 256 27 27 (1866240)
2016-07-30 11:19:07.653 STDERR [INFO] I0730 11:19:07.652628  7255 net.cpp:156] Memory required for data: 42479160
2016-07-30 11:19:07.653 STDERR [INFO] I0730 11:19:07.652644  7255 layer_factory.hpp:77] Creating layer relu2
2016-07-30 11:19:07.653 STDERR [INFO] I0730 11:19:07.652655  7255 net.cpp:91] Creating Layer relu2
2016-07-30 11:19:07.653 STDERR [INFO] I0730 11:19:07.652660  7255 net.cpp:425] relu2 <- conv2
2016-07-30 11:19:07.653 STDERR [INFO] I0730 11:19:07.652667  7255 net.cpp:386] relu2 -> conv2 (in-place)
2016-07-30 11:19:07.653 STDERR [INFO] I0730 11:19:07.653446  7255 net.cpp:141] Setting up relu2
2016-07-30 11:19:07.653 STDERR [INFO] I0730 11:19:07.653460  7255 net.cpp:148] Top shape: 10 256 27 27 (1866240)
2016-07-30 11:19:07.653 STDERR [INFO] I0730 11:19:07.653466  7255 net.cpp:156] Memory required for data: 49944120
2016-07-30 11:19:07.653 STDERR [INFO] I0730 11:19:07.653471  7255 layer_factory.hpp:77] Creating layer pool2
2016-07-30 11:19:07.653 STDERR [INFO] I0730 11:19:07.653481  7255 net.cpp:91] Creating Layer pool2
2016-07-30 11:19:07.653 STDERR [INFO] I0730 11:19:07.653486  7255 net.cpp:425] pool2 <- conv2
2016-07-30 11:19:07.653 STDERR [INFO] I0730 11:19:07.653497  7255 net.cpp:399] pool2 -> pool2
2016-07-30 11:19:07.654 STDERR [INFO] I0730 11:19:07.653555  7255 net.cpp:141] Setting up pool2
2016-07-30 11:19:07.654 STDERR [INFO] I0730 11:19:07.653565  7255 net.cpp:148] Top shape: 10 256 13 13 (432640)
2016-07-30 11:19:07.654 STDERR [INFO] I0730 11:19:07.653570  7255 net.cpp:156] Memory required for data: 51674680
2016-07-30 11:19:07.654 STDERR [INFO] I0730 11:19:07.653575  7255 layer_factory.hpp:77] Creating layer norm2
2016-07-30 11:19:07.654 STDERR [INFO] I0730 11:19:07.653590  7255 net.cpp:91] Creating Layer norm2
2016-07-30 11:19:07.654 STDERR [INFO] I0730 11:19:07.653596  7255 net.cpp:425] norm2 <- pool2
2016-07-30 11:19:07.654 STDERR [INFO] I0730 11:19:07.653605  7255 net.cpp:399] norm2 -> norm2
2016-07-30 11:19:07.654 STDERR [INFO] I0730 11:19:07.653877  7255 net.cpp:141] Setting up norm2
2016-07-30 11:19:07.654 STDERR [INFO] I0730 11:19:07.653890  7255 net.cpp:148] Top shape: 10 256 13 13 (432640)
2016-07-30 11:19:07.654 STDERR [INFO] I0730 11:19:07.653895  7255 net.cpp:156] Memory required for data: 53405240
2016-07-30 11:19:07.655 STDERR [INFO] I0730 11:19:07.653901  7255 layer_factory.hpp:77] Creating layer conv3
2016-07-30 11:19:07.655 STDERR [INFO] I0730 11:19:07.653915  7255 net.cpp:91] Creating Layer conv3
2016-07-30 11:19:07.655 STDERR [INFO] I0730 11:19:07.653921  7255 net.cpp:425] conv3 <- norm2
2016-07-30 11:19:07.655 STDERR [INFO] I0730 11:19:07.653931  7255 net.cpp:399] conv3 -> conv3
2016-07-30 11:19:07.659 STDERR [INFO] I0730 11:19:07.659039  7255 net.cpp:141] Setting up conv3
2016-07-30 11:19:07.659 STDERR [INFO] I0730 11:19:07.659061  7255 net.cpp:148] Top shape: 10 384 13 13 (648960)
2016-07-30 11:19:07.659 STDERR [INFO] I0730 11:19:07.659067  7255 net.cpp:156] Memory required for data: 56001080
2016-07-30 11:19:07.659 STDERR [INFO] I0730 11:19:07.659085  7255 layer_factory.hpp:77] Creating layer relu3
2016-07-30 11:19:07.659 STDERR [INFO] I0730 11:19:07.659106  7255 net.cpp:91] Creating Layer relu3
2016-07-30 11:19:07.659 STDERR [INFO] I0730 11:19:07.659112  7255 net.cpp:425] relu3 <- conv3
2016-07-30 11:19:07.659 STDERR [INFO] I0730 11:19:07.659119  7255 net.cpp:386] relu3 -> conv3 (in-place)
2016-07-30 11:19:07.659 STDERR [INFO] I0730 11:19:07.659893  7255 net.cpp:141] Setting up relu3
2016-07-30 11:19:07.660 STDERR [INFO] I0730 11:19:07.659909  7255 net.cpp:148] Top shape: 10 384 13 13 (648960)
2016-07-30 11:19:07.660 STDERR [INFO] I0730 11:19:07.659914  7255 net.cpp:156] Memory required for data: 58596920
2016-07-30 11:19:07.660 STDERR [INFO] I0730 11:19:07.659920  7255 layer_factory.hpp:77] Creating layer conv4
2016-07-30 11:19:07.660 STDERR [INFO] I0730 11:19:07.659932  7255 net.cpp:91] Creating Layer conv4
2016-07-30 11:19:07.660 STDERR [INFO] I0730 11:19:07.659937  7255 net.cpp:425] conv4 <- conv3
2016-07-30 11:19:07.660 STDERR [INFO] I0730 11:19:07.659950  7255 net.cpp:399] conv4 -> conv4
2016-07-30 11:19:07.666 STDERR [INFO] I0730 11:19:07.665920  7255 net.cpp:141] Setting up conv4
2016-07-30 11:19:07.666 STDERR [INFO] I0730 11:19:07.665946  7255 net.cpp:148] Top shape: 10 384 13 13 (648960)
2016-07-30 11:19:07.666 STDERR [INFO] I0730 11:19:07.665953  7255 net.cpp:156] Memory required for data: 61192760
2016-07-30 11:19:07.666 STDERR [INFO] I0730 11:19:07.665964  7255 layer_factory.hpp:77] Creating layer relu4
2016-07-30 11:19:07.666 STDERR [INFO] I0730 11:19:07.665979  7255 net.cpp:91] Creating Layer relu4
2016-07-30 11:19:07.666 STDERR [INFO] I0730 11:19:07.665985  7255 net.cpp:425] relu4 <- conv4
2016-07-30 11:19:07.666 STDERR [INFO] I0730 11:19:07.665997  7255 net.cpp:386] relu4 -> conv4 (in-place)
2016-07-30 11:19:07.666 STDERR [INFO] I0730 11:19:07.666790  7255 net.cpp:141] Setting up relu4
2016-07-30 11:19:07.666 STDERR [INFO] I0730 11:19:07.666807  7255 net.cpp:148] Top shape: 10 384 13 13 (648960)
2016-07-30 11:19:07.667 STDERR [INFO] I0730 11:19:07.666812  7255 net.cpp:156] Memory required for data: 63788600
2016-07-30 11:19:07.667 STDERR [INFO] I0730 11:19:07.666818  7255 layer_factory.hpp:77] Creating layer conv5
2016-07-30 11:19:07.667 STDERR [INFO] I0730 11:19:07.666833  7255 net.cpp:91] Creating Layer conv5
2016-07-30 11:19:07.667 STDERR [INFO] I0730 11:19:07.666841  7255 net.cpp:425] conv5 <- conv4
2016-07-30 11:19:07.667 STDERR [INFO] I0730 11:19:07.666890  7255 net.cpp:399] conv5 -> conv5
2016-07-30 11:19:07.673 STDERR [INFO] I0730 11:19:07.672888  7255 net.cpp:141] Setting up conv5
2016-07-30 11:19:07.673 STDERR [INFO] I0730 11:19:07.672930  7255 net.cpp:148] Top shape: 10 256 13 13 (432640)
2016-07-30 11:19:07.673 STDERR [INFO] I0730 11:19:07.672936  7255 net.cpp:156] Memory required for data: 65519160
2016-07-30 11:19:07.673 STDERR [INFO] I0730 11:19:07.672960  7255 layer_factory.hpp:77] Creating layer relu5
2016-07-30 11:19:07.673 STDERR [INFO] I0730 11:19:07.672974  7255 net.cpp:91] Creating Layer relu5
2016-07-30 11:19:07.673 STDERR [INFO] I0730 11:19:07.672979  7255 net.cpp:425] relu5 <- conv5
2016-07-30 11:19:07.673 STDERR [INFO] I0730 11:19:07.672989  7255 net.cpp:386] relu5 -> conv5 (in-place)
2016-07-30 11:19:07.673 STDERR [INFO] I0730 11:19:07.673681  7255 net.cpp:141] Setting up relu5
2016-07-30 11:19:07.673 STDERR [INFO] I0730 11:19:07.673694  7255 net.cpp:148] Top shape: 10 256 13 13 (432640)
2016-07-30 11:19:07.674 STDERR [INFO] I0730 11:19:07.673698  7255 net.cpp:156] Memory required for data: 67249720
2016-07-30 11:19:07.674 STDERR [INFO] I0730 11:19:07.673703  7255 layer_factory.hpp:77] Creating layer pool5
2016-07-30 11:19:07.674 STDERR [INFO] I0730 11:19:07.673712  7255 net.cpp:91] Creating Layer pool5
2016-07-30 11:19:07.674 STDERR [INFO] I0730 11:19:07.673717  7255 net.cpp:425] pool5 <- conv5
2016-07-30 11:19:07.674 STDERR [INFO] I0730 11:19:07.673727  7255 net.cpp:399] pool5 -> pool5
2016-07-30 11:19:07.674 STDERR [INFO] I0730 11:19:07.673787  7255 net.cpp:141] Setting up pool5
2016-07-30 11:19:07.674 STDERR [INFO] I0730 11:19:07.673799  7255 net.cpp:148] Top shape: 10 256 6 6 (92160)
2016-07-30 11:19:07.674 STDERR [INFO] I0730 11:19:07.673802  7255 net.cpp:156] Memory required for data: 67618360
2016-07-30 11:19:07.674 STDERR [INFO] I0730 11:19:07.673807  7255 layer_factory.hpp:77] Creating layer fc6
2016-07-30 11:19:07.674 STDERR [INFO] I0730 11:19:07.673820  7255 net.cpp:91] Creating Layer fc6
2016-07-30 11:19:07.674 STDERR [INFO] I0730 11:19:07.673825  7255 net.cpp:425] fc6 <- pool5
2016-07-30 11:19:07.674 STDERR [INFO] I0730 11:19:07.673830  7255 net.cpp:399] fc6 -> fc6
2016-07-30 11:19:07.737 STDERR [INFO] I0730 11:19:07.737718  7245 net.cpp:141] Setting up embedding
2016-07-30 11:19:07.738 STDERR [INFO] I0730 11:19:07.737782  7245 net.cpp:148] Top shape: 1 1 500 (500)
2016-07-30 11:19:07.738 STDERR [INFO] I0730 11:19:07.737789  7245 net.cpp:156] Memory required for data: 22408
2016-07-30 11:19:07.738 STDERR [INFO] I0730 11:19:07.737812  7245 layer_factory.hpp:77] Creating layer lstm1
2016-07-30 11:19:07.738 STDERR [INFO] I0730 11:19:07.737838  7245 net.cpp:91] Creating Layer lstm1
2016-07-30 11:19:07.738 STDERR [INFO] I0730 11:19:07.737848  7245 net.cpp:425] lstm1 <- embedded_input_frames
…
2016-07-30 11:19:07.756 STDERR [INFO] }
2016-07-30 11:19:07.756 STDERR [INFO] I0730 11:19:07.738437  7245 layer_factory.hpp:77] Creating layer lstm1_
2016-07-30 11:19:07.756 STDERR [INFO] I0730 11:19:07.738451  7245 net.cpp:91] Creating Layer lstm1_
2016-07-30 11:19:07.756 STDERR [INFO] I0730 11:19:07.738458  7245 net.cpp:399] lstm1_ -> x
2016-07-30 11:19:07.756 STDERR [INFO] I0730 11:19:07.738471  7245 net.cpp:399] lstm1_ -> cont
2016-07-30 11:19:07.756 STDERR [INFO] I0730 11:19:07.738539  7245 net.cpp:141] Setting up lstm1_
2016-07-30 11:19:07.756 STDERR [INFO] I0730 11:19:07.738551  7245 net.cpp:148] Top shape: 1 1 500 (500)
2016-07-30 11:19:07.756 STDERR [INFO] I0730 11:19:07.738557  7245 net.cpp:148] Top shape: 1 1 (1)
2016-07-30 11:19:07.756 STDERR [INFO] I0730 11:19:07.738562  7245 net.cpp:156] Memory required for data: 2004
2016-07-30 11:19:07.757 STDERR [INFO] I0730 11:19:07.738567  7245 layer_factory.hpp:77] Creating layer lstm1_
2016-07-30 11:19:07.757 STDERR [INFO] I0730 11:19:07.738576  7245 net.cpp:91] Creating Layer lstm1_
2016-07-30 11:19:07.757 STDERR [INFO] I0730 11:19:07.738586  7245 net.cpp:399] lstm1_ -> c_0
2016-07-30 11:19:07.757 STDERR [INFO] I0730 11:19:07.738597  7245 net.cpp:399] lstm1_ -> h_0
2016-07-30 11:19:07.757 STDERR [INFO] I0730 11:19:07.738651  7245 net.cpp:141] Setting up lstm1_
2016-07-30 11:19:07.757 STDERR [INFO] I0730 11:19:07.738662  7245 net.cpp:148] Top shape: 1 1 1000 (1000)
2016-07-30 11:19:07.757 STDERR [INFO] I0730 11:19:07.738668  7245 net.cpp:148] Top shape: 1 1 1000 (1000)
2016-07-30 11:19:07.757 STDERR [INFO] I0730 11:19:07.738672  7245 net.cpp:156] Memory required for data: 10004
2016-07-30 11:19:07.758 STDERR [INFO] I0730 11:19:07.738677  7245 layer_factory.hpp:77] Creating layer lstm1_cont_slice
2016-07-30 11:19:07.758 STDERR [INFO] I0730 11:19:07.738703  7245 net.cpp:91] Creating Layer lstm1_cont_slice
2016-07-30 11:19:07.758 STDERR [INFO] I0730 11:19:07.738708  7245 net.cpp:425] lstm1_cont_slice <- cont
2016-07-30 11:19:07.758 STDERR [INFO] I0730 11:19:07.738739  7245 net.cpp:399] lstm1_cont_slice -> cont_1
2016-07-30 11:19:07.758 STDERR [INFO] I0730 11:19:07.738806  7245 net.cpp:141] Setting up lstm1_cont_slice
2016-07-30 11:19:07.758 STDERR [INFO] I0730 11:19:07.738823  7245 net.cpp:148] Top shape: 1 1 (1)
2016-07-30 11:19:07.759 STDERR [INFO] I0730 11:19:07.738832  7245 net.cpp:156] Memory required for data: 10008
2016-07-30 11:19:07.759 STDERR [INFO] I0730 11:19:07.738842  7245 layer_factory.hpp:77] Creating layer cont_1_lstm1_cont_slice_0_split
2016-07-30 11:19:07.759 STDERR [INFO] I0730 11:19:07.738860  7245 net.cpp:91] Creating Layer cont_1_lstm1_cont_slice_0_split
2016-07-30 11:19:07.759 STDERR [INFO] I0730 11:19:07.738869  7245 net.cpp:425] cont_1_lstm1_cont_slice_0_split <- cont_1
2016-07-30 11:19:07.759 STDERR [INFO] I0730 11:19:07.738883  7245 net.cpp:399] cont_1_lstm1_cont_slice_0_split -> cont_1_lstm1_cont_slice_0_split_0
2016-07-30 11:19:07.759 STDERR [INFO] I0730 11:19:07.738899  7245 net.cpp:399] cont_1_lstm1_cont_slice_0_split -> cont_1_lstm1_cont_slice_0_split_1
2016-07-30 11:19:07.759 STDERR [INFO] I0730 11:19:07.738987  7245 net.cpp:141] Setting up cont_1_lstm1_cont_slice_0_split
2016-07-30 11:19:07.759 STDERR [INFO] I0730 11:19:07.739003  7245 net.cpp:148] Top shape: 1 1 (1)
2016-07-30 11:19:07.759 STDERR [INFO] I0730 11:19:07.739014  7245 net.cpp:148] Top shape: 1 1 (1)
2016-07-30 11:19:07.759 STDERR [INFO] I0730 11:19:07.739022  7245 net.cpp:156] Memory required for data: 10016
2016-07-30 11:19:07.760 STDERR [INFO] I0730 11:19:07.739030  7245 layer_factory.hpp:77] Creating layer lstm1_x_transform
2016-07-30 11:19:07.760 STDERR [INFO] I0730 11:19:07.739048  7245 net.cpp:91] Creating Layer lstm1_x_transform
2016-07-30 11:19:07.760 STDERR [INFO] I0730 11:19:07.739058  7245 net.cpp:425] lstm1_x_transform <- x
2016-07-30 11:19:07.760 STDERR [INFO] I0730 11:19:07.739073  7245 net.cpp:399] lstm1_x_transform -> W_xc_x
2016-07-30 11:19:07.768 STDERR [INFO] I0730 11:19:07.768638  7245 net.cpp:141] Setting up lstm1_x_transform
2016-07-30 11:19:07.769 STDERR [INFO] I0730 11:19:07.768705  7245 net.cpp:148] Top shape: 1 1 4000 (4000)
2016-07-30 11:19:07.769 STDERR [INFO] I0730 11:19:07.768718  7245 net.cpp:156] Memory required for data: 26016
2016-07-30 11:19:07.769 STDERR [INFO] I0730 11:19:07.768750  7245 layer_factory.hpp:77] Creating layer lstm1_W_xc_x_slice
2016-07-30 11:19:07.769 STDERR [INFO] I0730 11:19:07.768774  7245 net.cpp:91] Creating Layer lstm1_W_xc_x_slice
2016-07-30 11:19:07.769 STDERR [INFO] I0730 11:19:07.768786  7245 net.cpp:425] lstm1_W_xc_x_slice <- W_xc_x
2016-07-30 11:19:07.769 STDERR [INFO] I0730 11:19:07.768803  7245 net.cpp:399] lstm1_W_xc_x_slice -> W_xc_x_1
2016-07-30 11:19:07.769 STDERR [INFO] I0730 11:19:07.768873  7245 net.cpp:141] Setting up lstm1_W_xc_x_slice
2016-07-30 11:19:07.769 STDERR [INFO] I0730 11:19:07.768892  7245 net.cpp:148] Top shape: 1 1 4000 (4000)
2016-07-30 11:19:07.769 STDERR [INFO] I0730 11:19:07.768900  7245 net.cpp:156] Memory required for data: 42016
2016-07-30 11:19:07.770 STDERR [INFO] I0730 11:19:07.768909  7245 layer_factory.hpp:77] Creating layer lstm1_h_conted_0
2016-07-30 11:19:07.770 STDERR [INFO] I0730 11:19:07.768931  7245 net.cpp:91] Creating Layer lstm1_h_conted_0
2016-07-30 11:19:07.770 STDERR [INFO] I0730 11:19:07.768944  7245 net.cpp:425] lstm1_h_conted_0 <- h_0
2016-07-30 11:19:07.770 STDERR [INFO] I0730 11:19:07.768954  7245 net.cpp:425] lstm1_h_conted_0 <- cont_1_lstm1_cont_slice_0_split_0
2016-07-30 11:19:07.770 STDERR [INFO] I0730 11:19:07.768966  7245 net.cpp:399] lstm1_h_conted_0 -> h_conted_0
2016-07-30 11:19:07.770 STDERR [INFO] I0730 11:19:07.769134  7245 net.cpp:141] Setting up lstm1_h_conted_0
2016-07-30 11:19:07.770 STDERR [INFO] I0730 11:19:07.769151  7245 net.cpp:148] Top shape: 1 1 1000 (1000)
2016-07-30 11:19:07.770 STDERR [INFO] I0730 11:19:07.769160  7245 net.cpp:156] Memory required for data: 46016
2016-07-30 11:19:07.770 STDERR [INFO] I0730 11:19:07.769170  7245 layer_factory.hpp:77] Creating layer lstm1_transform_1
2016-07-30 11:19:07.770 STDERR [INFO] I0730 11:19:07.769194  7245 net.cpp:91] Creating Layer lstm1_transform_1
2016-07-30 11:19:07.770 STDERR [INFO] I0730 11:19:07.769204  7245 net.cpp:425] lstm1_transform_1 <- h_conted_0
2016-07-30 11:19:07.771 STDERR [INFO] I0730 11:19:07.769219  7245 net.cpp:399] lstm1_transform_1 -> W_hc_h_0
2016-07-30 11:19:07.779 STDERR [INFO] I0730 11:19:07.779223  7255 net.cpp:141] Setting up fc6
2016-07-30 11:19:07.779 STDERR [INFO] I0730 11:19:07.779273  7255 net.cpp:148] Top shape: 10 4096 (40960)
2016-07-30 11:19:07.780 STDERR [INFO] I0730 11:19:07.779279  7255 net.cpp:156] Memory required for data: 67782200
2016-07-30 11:19:07.780 STDERR [INFO] I0730 11:19:07.779294  7255 layer_factory.hpp:77] Creating layer relu6
2016-07-30 11:19:07.780 STDERR [INFO] I0730 11:19:07.779309  7255 net.cpp:91] Creating Layer relu6
2016-07-30 11:19:07.780 STDERR [INFO] I0730 11:19:07.779316  7255 net.cpp:425] relu6 <- fc6
2016-07-30 11:19:07.780 STDERR [INFO] I0730 11:19:07.779325  7255 net.cpp:386] relu6 -> fc6 (in-place)
2016-07-30 11:19:07.780 STDERR [INFO] I0730 11:19:07.779639  7255 net.cpp:141] Setting up relu6
2016-07-30 11:19:07.780 STDERR [INFO] I0730 11:19:07.779651  7255 net.cpp:148] Top shape: 10 4096 (40960)
2016-07-30 11:19:07.780 STDERR [INFO] I0730 11:19:07.779655  7255 net.cpp:156] Memory required for data: 67946040
2016-07-30 11:19:07.780 STDERR [INFO] I0730 11:19:07.779660  7255 layer_factory.hpp:77] Creating layer drop6
2016-07-30 11:19:07.780 STDERR [INFO] I0730 11:19:07.779680  7255 net.cpp:91] Creating Layer drop6
2016-07-30 11:19:07.780 STDERR [INFO] I0730 11:19:07.779685  7255 net.cpp:425] drop6 <- fc6
2016-07-30 11:19:07.780 STDERR [INFO] I0730 11:19:07.779693  7255 net.cpp:386] drop6 -> fc6 (in-place)
2016-07-30 11:19:07.781 STDERR [INFO] I0730 11:19:07.779739  7255 net.cpp:141] Setting up drop6
2016-07-30 11:19:07.781 STDERR [INFO] I0730 11:19:07.779748  7255 net.cpp:148] Top shape: 10 4096 (40960)
2016-07-30 11:19:07.781 STDERR [INFO] I0730 11:19:07.779752  7255 net.cpp:156] Memory required for data: 68109880
2016-07-30 11:19:07.781 STDERR [INFO] I0730 11:19:07.779757  7255 layer_factory.hpp:77] Creating layer fc7
2016-07-30 11:19:07.781 STDERR [INFO] I0730 11:19:07.779770  7255 net.cpp:91] Creating Layer fc7
2016-07-30 11:19:07.781 STDERR [INFO] I0730 11:19:07.779775  7255 net.cpp:425] fc7 <- fc6
2016-07-30 11:19:07.781 STDERR [INFO] I0730 11:19:07.779781  7255 net.cpp:399] fc7 -> fc7
2016-07-30 11:19:07.814 STDERR [INFO] I0730 11:19:07.813715  7245 net.cpp:141] Setting up lstm1_transform_1
2016-07-30 11:19:07.814 STDERR [INFO] I0730 11:19:07.813777  7245 net.cpp:148] Top shape: 1 1 4000 (4000)
2016-07-30 11:19:07.814 STDERR [INFO] I0730 11:19:07.813784  7245 net.cpp:156] Memory required for data: 62016
2016-07-30 11:19:07.814 STDERR [INFO] I0730 11:19:07.813808  7245 layer_factory.hpp:77] Creating layer lstm1_gate_input_1
2016-07-30 11:19:07.814 STDERR [INFO] I0730 11:19:07.813838  7245 net.cpp:91] Creating Layer lstm1_gate_input_1
2016-07-30 11:19:07.814 STDERR [INFO] I0730 11:19:07.813846  7245 net.cpp:425] lstm1_gate_input_1 <- W_hc_h_0
2016-07-30 11:19:07.814 STDERR [INFO] I0730 11:19:07.813856  7245 net.cpp:425] lstm1_gate_input_1 <- W_xc_x_1
2016-07-30 11:19:07.815 STDERR [INFO] I0730 11:19:07.813864  7245 net.cpp:399] lstm1_gate_input_1 -> gate_input_1
2016-07-30 11:19:07.815 STDERR [INFO] I0730 11:19:07.813928  7245 net.cpp:141] Setting up lstm1_gate_input_1
2016-07-30 11:19:07.815 STDERR [INFO] I0730 11:19:07.813940  7245 net.cpp:148] Top shape: 1 1 4000 (4000)
2016-07-30 11:19:07.815 STDERR [INFO] I0730 11:19:07.813944  7245 net.cpp:156] Memory required for data: 78016
2016-07-30 11:19:07.815 STDERR [INFO] I0730 11:19:07.813949  7245 layer_factory.hpp:77] Creating layer lstm1_unit_1
2016-07-30 11:19:07.815 STDERR [INFO] I0730 11:19:07.813959  7245 net.cpp:91] Creating Layer lstm1_unit_1
2016-07-30 11:19:07.815 STDERR [INFO] I0730 11:19:07.813964  7245 net.cpp:425] lstm1_unit_1 <- c_0
2016-07-30 11:19:07.816 STDERR [INFO] I0730 11:19:07.813971  7245 net.cpp:425] lstm1_unit_1 <- gate_input_1
2016-07-30 11:19:07.816 STDERR [INFO] I0730 11:19:07.813977  7245 net.cpp:425] lstm1_unit_1 <- cont_1_lstm1_cont_slice_0_split_1
2016-07-30 11:19:07.816 STDERR [INFO] I0730 11:19:07.813983  7245 net.cpp:399] lstm1_unit_1 -> c_1
2016-07-30 11:19:07.816 STDERR [INFO] I0730 11:19:07.813992  7245 net.cpp:399] lstm1_unit_1 -> h_1
2016-07-30 11:19:07.816 STDERR [INFO] I0730 11:19:07.814060  7245 net.cpp:141] Setting up lstm1_unit_1
2016-07-30 11:19:07.816 STDERR [INFO] I0730 11:19:07.814069  7245 net.cpp:148] Top shape: 1 1 1000 (1000)
2016-07-30 11:19:07.816 STDERR [INFO] I0730 11:19:07.814076  7245 net.cpp:148] Top shape: 1 1 1000 (1000)
2016-07-30 11:19:07.816 STDERR [INFO] I0730 11:19:07.814080  7245 net.cpp:156] Memory required for data: 86016
2016-07-30 11:19:07.816 STDERR [INFO] I0730 11:19:07.814085  7245 layer_factory.hpp:77] Creating layer lstm1_
2016-07-30 11:19:07.816 STDERR [INFO] I0730 11:19:07.814098  7245 net.cpp:91] Creating Layer lstm1_
2016-07-30 11:19:07.816 STDERR [INFO] I0730 11:19:07.814103  7245 net.cpp:425] lstm1_ <- c_1
2016-07-30 11:19:07.816 STDERR [INFO] I0730 11:19:07.814110  7245 net.cpp:399] lstm1_ -> c_T
2016-07-30 11:19:07.816 STDERR [INFO] I0730 11:19:07.814143  7245 net.cpp:141] Setting up lstm1_
2016-07-30 11:19:07.817 STDERR [INFO] I0730 11:19:07.814152  7245 net.cpp:148] Top shape: 1 1 1000 (1000)
2016-07-30 11:19:07.817 STDERR [INFO] I0730 11:19:07.814157  7245 net.cpp:156] Memory required for data: 90016
2016-07-30 11:19:07.817 STDERR [INFO] I0730 11:19:07.814162  7245 layer_factory.hpp:77] Creating layer lstm1_h_concat
2016-07-30 11:19:07.817 STDERR [INFO] I0730 11:19:07.814172  7245 net.cpp:91] Creating Layer lstm1_h_concat
2016-07-30 11:19:07.817 STDERR [INFO] I0730 11:19:07.814177  7245 net.cpp:425] lstm1_h_concat <- h_1
2016-07-30 11:19:07.817 STDERR [INFO] I0730 11:19:07.814188  7245 net.cpp:399] lstm1_h_concat -> h
2016-07-30 11:19:07.817 STDERR [INFO] I0730 11:19:07.814235  7245 net.cpp:141] Setting up lstm1_h_concat
2016-07-30 11:19:07.817 STDERR [INFO] I0730 11:19:07.814244  7245 net.cpp:148] Top shape: 1 1 1000 (1000)
2016-07-30 11:19:07.817 STDERR [INFO] I0730 11:19:07.814249  7245 net.cpp:156] Memory required for data: 94016
2016-07-30 11:19:07.817 STDERR [INFO] I0730 11:19:07.814254  7245 layer_factory.hpp:77] Creating layer h_pseudoloss
2016-07-30 11:19:07.817 STDERR [INFO] I0730 11:19:07.814271  7245 net.cpp:91] Creating Layer h_pseudoloss
2016-07-30 11:19:07.817 STDERR [INFO] I0730 11:19:07.814276  7245 net.cpp:425] h_pseudoloss <- h
…
2016-07-30 11:19:07.833 STDERR [INFO] }
2016-07-30 11:19:07.833 STDERR [INFO] I0730 11:19:07.815333  7245 layer_factory.hpp:77] Creating layer lstm2_
2016-07-30 11:19:07.833 STDERR [INFO] I0730 11:19:07.815347  7245 net.cpp:91] Creating Layer lstm2_
2016-07-30 11:19:07.833 STDERR [INFO] I0730 11:19:07.815354  7245 net.cpp:399] lstm2_ -> x
2016-07-30 11:19:07.833 STDERR [INFO] I0730 11:19:07.815366  7245 net.cpp:399] lstm2_ -> cont
2016-07-30 11:19:07.833 STDERR [INFO] I0730 11:19:07.815424  7245 net.cpp:141] Setting up lstm2_
2016-07-30 11:19:07.833 STDERR [INFO] I0730 11:19:07.815435  7245 net.cpp:148] Top shape: 1 1 1501 (1501)
2016-07-30 11:19:07.833 STDERR [INFO] I0730 11:19:07.815441  7245 net.cpp:148] Top shape: 1 1 (1)
2016-07-30 11:19:07.834 STDERR [INFO] I0730 11:19:07.815445  7245 net.cpp:156] Memory required for data: 6008
2016-07-30 11:19:07.834 STDERR [INFO] I0730 11:19:07.815451  7245 layer_factory.hpp:77] Creating layer lstm2_
2016-07-30 11:19:07.834 STDERR [INFO] I0730 11:19:07.815459  7245 net.cpp:91] Creating Layer lstm2_
2016-07-30 11:19:07.834 STDERR [INFO] I0730 11:19:07.815469  7245 net.cpp:399] lstm2_ -> c_0
2016-07-30 11:19:07.834 STDERR [INFO] I0730 11:19:07.815479  7245 net.cpp:399] lstm2_ -> h_0
2016-07-30 11:19:07.834 STDERR [INFO] I0730 11:19:07.815532  7245 net.cpp:141] Setting up lstm2_
2016-07-30 11:19:07.835 STDERR [INFO] I0730 11:19:07.815541  7245 net.cpp:148] Top shape: 1 1 1000 (1000)
2016-07-30 11:19:07.835 STDERR [INFO] I0730 11:19:07.815548  7245 net.cpp:148] Top shape: 1 1 1000 (1000)
2016-07-30 11:19:07.835 STDERR [INFO] I0730 11:19:07.815552  7245 net.cpp:156] Memory required for data: 14008
2016-07-30 11:19:07.835 STDERR [INFO] I0730 11:19:07.815557  7245 layer_factory.hpp:77] Creating layer lstm2_cont_slice
2016-07-30 11:19:07.835 STDERR [INFO] I0730 11:19:07.815565  7245 net.cpp:91] Creating Layer lstm2_cont_slice
2016-07-30 11:19:07.835 STDERR [INFO] I0730 11:19:07.815570  7245 net.cpp:425] lstm2_cont_slice <- cont
2016-07-30 11:19:07.835 STDERR [INFO] I0730 11:19:07.815578  7245 net.cpp:399] lstm2_cont_slice -> cont_1
2016-07-30 11:19:07.835 STDERR [INFO] I0730 11:19:07.815620  7245 net.cpp:141] Setting up lstm2_cont_slice
2016-07-30 11:19:07.835 STDERR [INFO] I0730 11:19:07.815630  7245 net.cpp:148] Top shape: 1 1 (1)
2016-07-30 11:19:07.835 STDERR [INFO] I0730 11:19:07.815634  7245 net.cpp:156] Memory required for data: 14012
2016-07-30 11:19:07.835 STDERR [INFO] I0730 11:19:07.815639  7245 layer_factory.hpp:77] Creating layer cont_1_lstm2_cont_slice_0_split
2016-07-30 11:19:07.836 STDERR [INFO] I0730 11:19:07.815649  7245 net.cpp:91] Creating Layer cont_1_lstm2_cont_slice_0_split
2016-07-30 11:19:07.836 STDERR [INFO] I0730 11:19:07.815654  7245 net.cpp:425] cont_1_lstm2_cont_slice_0_split <- cont_1
2016-07-30 11:19:07.836 STDERR [INFO] I0730 11:19:07.815660  7245 net.cpp:399] cont_1_lstm2_cont_slice_0_split -> cont_1_lstm2_cont_slice_0_split_0
2016-07-30 11:19:07.836 STDERR [INFO] I0730 11:19:07.815670  7245 net.cpp:399] cont_1_lstm2_cont_slice_0_split -> cont_1_lstm2_cont_slice_0_split_1
2016-07-30 11:19:07.836 STDERR [INFO] I0730 11:19:07.815721  7245 net.cpp:141] Setting up cont_1_lstm2_cont_slice_0_split
2016-07-30 11:19:07.836 STDERR [INFO] I0730 11:19:07.815729  7245 net.cpp:148] Top shape: 1 1 (1)
2016-07-30 11:19:07.836 STDERR [INFO] I0730 11:19:07.815735  7245 net.cpp:148] Top shape: 1 1 (1)
2016-07-30 11:19:07.836 STDERR [INFO] I0730 11:19:07.815739  7245 net.cpp:156] Memory required for data: 14020
2016-07-30 11:19:07.836 STDERR [INFO] I0730 11:19:07.815744  7245 layer_factory.hpp:77] Creating layer lstm2_x_transform
2016-07-30 11:19:07.836 STDERR [INFO] I0730 11:19:07.815755  7245 net.cpp:91] Creating Layer lstm2_x_transform
2016-07-30 11:19:07.836 STDERR [INFO] I0730 11:19:07.815760  7245 net.cpp:425] lstm2_x_transform <- x
2016-07-30 11:19:07.836 STDERR [INFO] I0730 11:19:07.815770  7245 net.cpp:399] lstm2_x_transform -> W_xc_x
2016-07-30 11:19:07.837 STDERR [INFO] I0730 11:19:07.828594  7255 net.cpp:141] Setting up fc7
2016-07-30 11:19:07.837 STDERR [INFO] I0730 11:19:07.828639  7255 net.cpp:148] Top shape: 10 4096 (40960)
2016-07-30 11:19:07.837 STDERR [INFO] I0730 11:19:07.828644  7255 net.cpp:156] Memory required for data: 68273720
2016-07-30 11:19:07.837 STDERR [INFO] I0730 11:19:07.828657  7255 layer_factory.hpp:77] Creating layer relu7
2016-07-30 11:19:07.837 STDERR [INFO] I0730 11:19:07.828670  7255 net.cpp:91] Creating Layer relu7
2016-07-30 11:19:07.837 STDERR [INFO] I0730 11:19:07.828677  7255 net.cpp:425] relu7 <- fc7
2016-07-30 11:19:07.837 STDERR [INFO] I0730 11:19:07.828685  7255 net.cpp:386] relu7 -> fc7 (in-place)
2016-07-30 11:19:07.837 STDERR [INFO] I0730 11:19:07.830020  7255 net.cpp:141] Setting up relu7
2016-07-30 11:19:07.837 STDERR [INFO] I0730 11:19:07.830032  7255 net.cpp:148] Top shape: 10 4096 (40960)
2016-07-30 11:19:07.837 STDERR [INFO] I0730 11:19:07.830037  7255 net.cpp:156] Memory required for data: 68437560
2016-07-30 11:19:07.837 STDERR [INFO] I0730 11:19:07.830042  7255 layer_factory.hpp:77] Creating layer drop7
2016-07-30 11:19:07.837 STDERR [INFO] I0730 11:19:07.830051  7255 net.cpp:91] Creating Layer drop7
2016-07-30 11:19:07.838 STDERR [INFO] I0730 11:19:07.830055  7255 net.cpp:425] drop7 <- fc7
2016-07-30 11:19:07.838 STDERR [INFO] I0730 11:19:07.830061  7255 net.cpp:386] drop7 -> fc7 (in-place)
2016-07-30 11:19:07.838 STDERR [INFO] I0730 11:19:07.830102  7255 net.cpp:141] Setting up drop7
2016-07-30 11:19:07.838 STDERR [INFO] I0730 11:19:07.830111  7255 net.cpp:148] Top shape: 10 4096 (40960)
2016-07-30 11:19:07.838 STDERR [INFO] I0730 11:19:07.830116  7255 net.cpp:156] Memory required for data: 68601400
2016-07-30 11:19:07.838 STDERR [INFO] I0730 11:19:07.830119  7255 layer_factory.hpp:77] Creating layer fc8
2016-07-30 11:19:07.838 STDERR [INFO] I0730 11:19:07.830132  7255 net.cpp:91] Creating Layer fc8
2016-07-30 11:19:07.838 STDERR [INFO] I0730 11:19:07.830135  7255 net.cpp:425] fc8 <- fc7
2016-07-30 11:19:07.838 STDERR [INFO] I0730 11:19:07.830142  7255 net.cpp:399] fc8 -> fc8
2016-07-30 11:19:07.842 STDERR [INFO] I0730 11:19:07.842474  7255 net.cpp:141] Setting up fc8
2016-07-30 11:19:07.843 STDERR [INFO] I0730 11:19:07.842522  7255 net.cpp:148] Top shape: 10 1000 (10000)
2016-07-30 11:19:07.843 STDERR [INFO] I0730 11:19:07.842528  7255 net.cpp:156] Memory required for data: 68641400
2016-07-30 11:19:07.843 STDERR [INFO] I0730 11:19:07.842541  7255 layer_factory.hpp:77] Creating layer prob
2016-07-30 11:19:07.843 STDERR [INFO] I0730 11:19:07.842556  7255 net.cpp:91] Creating Layer prob
2016-07-30 11:19:07.843 STDERR [INFO] I0730 11:19:07.842562  7255 net.cpp:425] prob <- fc8
2016-07-30 11:19:07.843 STDERR [INFO] I0730 11:19:07.842574  7255 net.cpp:399] prob -> prob
2016-07-30 11:19:07.843 STDERR [INFO] I0730 11:19:07.842988  7255 net.cpp:141] Setting up prob
2016-07-30 11:19:07.843 STDERR [INFO] I0730 11:19:07.842999  7255 net.cpp:148] Top shape: 10 1000 (10000)
2016-07-30 11:19:07.843 STDERR [INFO] I0730 11:19:07.843003  7255 net.cpp:156] Memory required for data: 68681400
2016-07-30 11:19:07.843 STDERR [INFO] I0730 11:19:07.843009  7255 net.cpp:219] prob does not need backward computation.
2016-07-30 11:19:07.843 STDERR [INFO] I0730 11:19:07.843014  7255 net.cpp:219] fc8 does not need backward computation.
2016-07-30 11:19:07.844 STDERR [INFO] I0730 11:19:07.843019  7255 net.cpp:219] drop7 does not need backward computation.
…
2016-07-30 11:19:07.845 STDERR [INFO] I0730 11:19:07.843101  7255 net.cpp:219] conv1 does not need backward computation.
2016-07-30 11:19:07.845 STDERR [INFO] I0730 11:19:07.843104  7255 net.cpp:219] data does not need backward computation.
2016-07-30 11:19:07.845 STDERR [INFO] I0730 11:19:07.843107  7255 net.cpp:261] This network produces output prob
2016-07-30 11:19:07.845 STDERR [INFO] I0730 11:19:07.843127  7255 net.cpp:274] Network initialization done.
2016-07-30 11:19:07.881 STDERR [INFO] I0730 11:19:07.881105  7245 net.cpp:141] Setting up lstm2_x_transform
2016-07-30 11:19:07.881 STDERR [INFO] I0730 11:19:07.881165  7245 net.cpp:148] Top shape: 1 1 4000 (4000)
2016-07-30 11:19:07.881 STDERR [INFO] I0730 11:19:07.881171  7245 net.cpp:156] Memory required for data: 30020
2016-07-30 11:19:07.881 STDERR [INFO] I0730 11:19:07.881198  7245 layer_factory.hpp:77] Creating layer lstm2_W_xc_x_slice
2016-07-30 11:19:07.882 STDERR [INFO] I0730 11:19:07.881217  7245 net.cpp:91] Creating Layer lstm2_W_xc_x_slice
2016-07-30 11:19:07.882 STDERR [INFO] I0730 11:19:07.881224  7245 net.cpp:425] lstm2_W_xc_x_slice <- W_xc_x
2016-07-30 11:19:07.882 STDERR [INFO] I0730 11:19:07.881235  7245 net.cpp:399] lstm2_W_xc_x_slice -> W_xc_x_1
2016-07-30 11:19:07.882 STDERR [INFO] I0730 11:19:07.881290  7245 net.cpp:141] Setting up lstm2_W_xc_x_slice
2016-07-30 11:19:07.882 STDERR [INFO] I0730 11:19:07.881302  7245 net.cpp:148] Top shape: 1 1 4000 (4000)
2016-07-30 11:19:07.882 STDERR [INFO] I0730 11:19:07.881306  7245 net.cpp:156] Memory required for data: 46020
2016-07-30 11:19:07.882 STDERR [INFO] I0730 11:19:07.881311  7245 layer_factory.hpp:77] Creating layer lstm2_h_conted_0
2016-07-30 11:19:07.882 STDERR [INFO] I0730 11:19:07.881323  7245 net.cpp:91] Creating Layer lstm2_h_conted_0
2016-07-30 11:19:07.882 STDERR [INFO] I0730 11:19:07.881330  7245 net.cpp:425] lstm2_h_conted_0 <- h_0
2016-07-30 11:19:07.882 STDERR [INFO] I0730 11:19:07.881335  7245 net.cpp:425] lstm2_h_conted_0 <- cont_1_lstm2_cont_slice_0_split_0
2016-07-30 11:19:07.882 STDERR [INFO] I0730 11:19:07.881342  7245 net.cpp:399] lstm2_h_conted_0 -> h_conted_0
2016-07-30 11:19:07.883 STDERR [INFO] I0730 11:19:07.881443  7245 net.cpp:141] Setting up lstm2_h_conted_0
2016-07-30 11:19:07.883 STDERR [INFO] I0730 11:19:07.881453  7245 net.cpp:148] Top shape: 1 1 1000 (1000)
2016-07-30 11:19:07.883 STDERR [INFO] I0730 11:19:07.881458  7245 net.cpp:156] Memory required for data: 50020
2016-07-30 11:19:07.883 STDERR [INFO] I0730 11:19:07.881464  7245 layer_factory.hpp:77] Creating layer lstm2_transform_1
2016-07-30 11:19:07.883 STDERR [INFO] I0730 11:19:07.881477  7245 net.cpp:91] Creating Layer lstm2_transform_1
2016-07-30 11:19:07.883 STDERR [INFO] I0730 11:19:07.881482  7245 net.cpp:425] lstm2_transform_1 <- h_conted_0
2016-07-30 11:19:07.883 STDERR [INFO] I0730 11:19:07.881491  7245 net.cpp:399] lstm2_transform_1 -> W_hc_h_0
2016-07-30 11:19:07.926 STDERR [INFO] I0730 11:19:07.926069  7245 net.cpp:141] Setting up lstm2_transform_1
2016-07-30 11:19:07.926 STDERR [INFO] I0730 11:19:07.926141  7245 net.cpp:148] Top shape: 1 1 4000 (4000)
2016-07-30 11:19:07.926 STDERR [INFO] I0730 11:19:07.926149  7245 net.cpp:156] Memory required for data: 66020
2016-07-30 11:19:07.926 STDERR [INFO] I0730 11:19:07.926177  7245 layer_factory.hpp:77] Creating layer lstm2_gate_input_1
2016-07-30 11:19:07.926 STDERR [INFO] I0730 11:19:07.926201  7245 net.cpp:91] Creating Layer lstm2_gate_input_1
2016-07-30 11:19:07.927 STDERR [INFO] I0730 11:19:07.926210  7245 net.cpp:425] lstm2_gate_input_1 <- W_hc_h_0
2016-07-30 11:19:07.927 STDERR [INFO] I0730 11:19:07.926219  7245 net.cpp:425] lstm2_gate_input_1 <- W_xc_x_1
2016-07-30 11:19:07.927 STDERR [INFO] I0730 11:19:07.926229  7245 net.cpp:399] lstm2_gate_input_1 -> gate_input_1
2016-07-30 11:19:07.927 STDERR [INFO] I0730 11:19:07.926287  7245 net.cpp:141] Setting up lstm2_gate_input_1
2016-07-30 11:19:07.927 STDERR [INFO] I0730 11:19:07.926297  7245 net.cpp:148] Top shape: 1 1 4000 (4000)
2016-07-30 11:19:07.927 STDERR [INFO] I0730 11:19:07.926302  7245 net.cpp:156] Memory required for data: 82020
2016-07-30 11:19:07.927 STDERR [INFO] I0730 11:19:07.926307  7245 layer_factory.hpp:77] Creating layer lstm2_unit_1
2016-07-30 11:19:07.927 STDERR [INFO] I0730 11:19:07.926321  7245 net.cpp:91] Creating Layer lstm2_unit_1
2016-07-30 11:19:07.927 STDERR [INFO] I0730 11:19:07.926326  7245 net.cpp:425] lstm2_unit_1 <- c_0
2016-07-30 11:19:07.927 STDERR [INFO] I0730 11:19:07.926331  7245 net.cpp:425] lstm2_unit_1 <- gate_input_1
2016-07-30 11:19:07.927 STDERR [INFO] I0730 11:19:07.926337  7245 net.cpp:425] lstm2_unit_1 <- cont_1_lstm2_cont_slice_0_split_1
2016-07-30 11:19:07.928 STDERR [INFO] I0730 11:19:07.926344  7245 net.cpp:399] lstm2_unit_1 -> c_1
2016-07-30 11:19:07.928 STDERR [INFO] I0730 11:19:07.926354  7245 net.cpp:399] lstm2_unit_1 -> h_1
2016-07-30 11:19:07.928 STDERR [INFO] I0730 11:19:07.926426  7245 net.cpp:141] Setting up lstm2_unit_1
2016-07-30 11:19:07.928 STDERR [INFO] I0730 11:19:07.926436  7245 net.cpp:148] Top shape: 1 1 1000 (1000)
2016-07-30 11:19:07.928 STDERR [INFO] I0730 11:19:07.926442  7245 net.cpp:148] Top shape: 1 1 1000 (1000)
2016-07-30 11:19:07.928 STDERR [INFO] I0730 11:19:07.926447  7245 net.cpp:156] Memory required for data: 90020
2016-07-30 11:19:07.928 STDERR [INFO] I0730 11:19:07.926452  7245 layer_factory.hpp:77] Creating layer lstm2_
2016-07-30 11:19:07.928 STDERR [INFO] I0730 11:19:07.926461  7245 net.cpp:91] Creating Layer lstm2_
2016-07-30 11:19:07.928 STDERR [INFO] I0730 11:19:07.926466  7245 net.cpp:425] lstm2_ <- c_1
2016-07-30 11:19:07.928 STDERR [INFO] I0730 11:19:07.926473  7245 net.cpp:399] lstm2_ -> c_T
2016-07-30 11:19:07.928 STDERR [INFO] I0730 11:19:07.926506  7245 net.cpp:141] Setting up lstm2_
2016-07-30 11:19:07.928 STDERR [INFO] I0730 11:19:07.926514  7245 net.cpp:148] Top shape: 1 1 1000 (1000)
2016-07-30 11:19:07.929 STDERR [INFO] I0730 11:19:07.926519  7245 net.cpp:156] Memory required for data: 94020
2016-07-30 11:19:07.929 STDERR [INFO] I0730 11:19:07.926524  7245 layer_factory.hpp:77] Creating layer lstm2_h_concat
2016-07-30 11:19:07.929 STDERR [INFO] I0730 11:19:07.926538  7245 net.cpp:91] Creating Layer lstm2_h_concat
2016-07-30 11:19:07.929 STDERR [INFO] I0730 11:19:07.926544  7245 net.cpp:425] lstm2_h_concat <- h_1
2016-07-30 11:19:07.929 STDERR [INFO] I0730 11:19:07.926551  7245 net.cpp:399] lstm2_h_concat -> h
2016-07-30 11:19:07.929 STDERR [INFO] I0730 11:19:07.926591  7245 net.cpp:141] Setting up lstm2_h_concat
2016-07-30 11:19:07.929 STDERR [INFO] I0730 11:19:07.926600  7245 net.cpp:148] Top shape: 1 1 1000 (1000)
2016-07-30 11:19:07.929 STDERR [INFO] I0730 11:19:07.926605  7245 net.cpp:156] Memory required for data: 98020
2016-07-30 11:19:07.929 STDERR [INFO] I0730 11:19:07.926609  7245 layer_factory.hpp:77] Creating layer h_pseudoloss
2016-07-30 11:19:07.929 STDERR [INFO] I0730 11:19:07.926620  7245 net.cpp:91] Creating Layer h_pseudoloss
2016-07-30 11:19:07.929 STDERR [INFO] I0730 11:19:07.926625  7245 net.cpp:425] h_pseudoloss <- h
…
