…
Java HotSpot(TM) 64-Bit Server VM warning: You have loaded library /tmp/cvld7037771341585519122/libopencv_java310.xine1.so which might have disabled stack guard. The VM will try to fix the stack guard now.
It's highly recommended that you fix the library with 'execstack -c <libfile>', or link it with '-z noexecstack'.
WARNING: Logging before InitGoogleLogging() is written to STDERR
I0730 11:19:06.815855  7255 net.cpp:49] Initializing net from parameters: 
name: "CaffeNet"
state {
  phase: TEST
}
layer {
  name: "data"
  type: "Input"
  top: "data"
  input_param {
    shape {
      dim: 10
      dim: 3
      dim: 227
      dim: 227
    }
  }
}
layer {
  name: "conv1"
  type: "Convolution"
  bottom: "data"
  top: "conv1"
  convolution_param {
    num_output: 96
    kernel_size: 11
    stride: 4
  }
}
layer {
  name: "relu1"
  type: "ReLU"
  bottom: "conv1"
  top: "conv1"
}
layer {
  name: "pool1"
  type: "Pooling"
  bottom: "conv1"
  top: "pool1"
  pooling_param {
    pool: MAX
    kernel_size: 3
    stride: 2
  }
}
layer {
  name: "norm1"
  type: "LRN"
  bottom: "pool1"
  top: "norm1"
  lrn_param {
    local_size: 5
    alpha: 0.0001
    beta: 0.75
  }
}
layer {
  name: "conv2"
  type: "Convolution"
  bottom: "norm1"
  top: "conv2"
  convolution_param {
    num_output: 256
    pad: 2
    kernel_size: 5
    group: 2
  }
}
layer {
  name: "relu2"
  type: "ReLU"
  bottom: "conv2"
  top: "conv2"
}
layer {
  name: "pool2"
  type: "Pooling"
  bottom: "conv2"
  top: "pool2"
  pooling_param {
    pool: MAX
    kernel_size: 3
    stride: 2
  }
}
layer {
  name: "norm2"
  type: "LRN"
  bottom: "pool2"
  top: "norm2"
  lrn_param {
    local_size: 5
    alpha: 0.0001
    beta: 0.75
  }
}
layer {
  name: "conv3"
  type: "Convolution"
  bottom: "norm2"
  top: "conv3"
  convolution_param {
    num_output: 384
    pad: 1
    kernel_size: 3
  }
}
layer {
  name: "relu3"
  type: "ReLU"
  bottom: "conv3"
  top: "conv3"
}
layer {
  name: "conv4"
  type: "Convolution"
  bottom: "conv3"
  top: "conv4"
  convolution_param {
    num_output: 384
    pad: 1
    kernel_size: 3
    group: 2
  }
}
layer {
  name: "relu4"
  type: "ReLU"
  bottom: "conv4"
  top: "conv4"
}
layer {
  name: "conv5"
  type: "Convolution"
  bottom: "conv4"
  top: "conv5"
  convolution_param {
    num_output: 256
    pad: 1
    kernel_size: 3
    group: 2
  }
}
layer {
  name: "relu5"
  type: "ReLU"
  bottom: "conv5"
  top: "conv5"
}
layer {
  name: "pool5"
  type: "Pooling"
  bottom: "conv5"
  top: "pool5"
  pooling_param {
    pool: MAX
    kernel_size: 3
    stride: 2
  }
}
layer {
  name: "fc6"
  type: "InnerProduct"
  bottom: "pool5"
  top: "fc6"
  inner_product_param {
    num_output: 4096
  }
}
layer {
  name: "relu6"
  type: "ReLU"
  bottom: "fc6"
  top: "fc6"
}
layer {
  name: "drop6"
  type: "Dropout"
  bottom: "fc6"
  top: "fc6"
  dropout_param {
    dropout_ratio: 0.5
  }
}
layer {
  name: "fc7"
  type: "InnerProduct"
  bottom: "fc6"
  top: "fc7"
  inner_product_param {
    num_output: 4096
  }
}
layer {
  name: "relu7"
  type: "ReLU"
  bottom: "fc7"
  top: "fc7"
}
layer {
  name: "drop7"
  type: "Dropout"
  bottom: "fc7"
  top: "fc7"
  dropout_param {
    dropout_ratio: 0.5
  }
}
layer {
  name: "fc8"
  type: "InnerProduct"
  bottom: "fc7"
  top: "fc8"
  inner_product_param {
    num_output: 1000
  }
}
layer {
  name: "prob"
  type: "Softmax"
  bottom: "fc8"
  top: "prob"
}
I0730 11:19:06.816020  7255 layer_factory.hpp:77] Creating layer data
I0730 11:19:06.816041  7255 net.cpp:91] Creating Layer data
I0730 11:19:06.816051  7255 net.cpp:399] data -> data
I0730 11:19:07.331456  7255 net.cpp:141] Setting up data
I0730 11:19:07.331575  7255 net.cpp:148] Top shape: 10 3 227 227 (1545870)
I0730 11:19:07.331583  7255 net.cpp:156] Memory required for data: 6183480
I0730 11:19:07.331605  7255 layer_factory.hpp:77] Creating layer conv1
I0730 11:19:07.331645  7255 net.cpp:91] Creating Layer conv1
I0730 11:19:07.331655  7255 net.cpp:425] conv1 <- data
I0730 11:19:07.331671  7255 net.cpp:399] conv1 -> conv1
I0730 11:19:07.449223  7245 upgrade_proto.cpp:66] Attempting to upgrade input file specified using deprecated input fields: /tmp/cvld7037771341585519122/s2vt.words_to_preds.prototxt
I0730 11:19:07.449275  7245 upgrade_proto.cpp:69] Successfully upgraded file specified using deprecated input fields.
W0730 11:19:07.449285  7245 upgrade_proto.cpp:71] Note that future Caffe releases will only support input layers and not input fields.
I0730 11:19:07.449509  7245 net.cpp:49] Initializing net from parameters: 
name: "s2vt:features_to_lstm"
state {
  phase: TEST
}
layer {
  name: "input"
  type: "Input"
  top: "frames_fc7"
  top: "cont_sentence"
  top: "input_sentence"
  top: "stage_indicator"
  input_param {
    shape {
      dim: 1
      dim: 4096
    }
    shape {
      dim: 1
      dim: 1
    }
    shape {
      dim: 1
      dim: 1
    }
    shape {
      dim: 1
      dim: 1
    }
  }
}
layer {
  name: "embed_encoder"
  type: "InnerProduct"
  bottom: "frames_fc7"
  top: "embedded_in_frames"
  param {
    lr_mult: 1
    decay_mult: 1
  }
  param {
    lr_mult: 2
    decay_mult: 0
  }
  inner_product_param {
    num_output: 500
    weight_filler {
      type: "xavier"
    }
    bias_filler {
      type: "constant"
      value: 0.2
    }
  }
}
layer {
  name: "reshape_frames"
  type: "Reshape"
  bottom: "embedded_in_frames"
  top: "embedded_input_frames"
  reshape_param {
    shape {
      dim: 1
      dim: 1
      dim: 500
    }
  }
}
layer {
  name: "reshape_stage_indicator"
  type: "Reshape"
  bottom: "stage_indicator"
  top: "reshaped_stage_indicator"
  reshape_param {
    shape {
      dim: 1
      dim: 1
      dim: 1
    }
  }
}
layer {
  name: "embedding"
  type: "Embed"
  bottom: "input_sentence"
  top: "embedded_input_sentence"
  param {
    lr_mult: 1
  }
  embed_param {
    num_output: 500
    input_dim: 46168
    bias_term: false
    weight_filler {
      type: "uniform"
      min: -0.08
      max: 0.08
    }
  }
}
layer {
  name: "lstm1"
  type: "LSTM"
  bottom: "embedded_input_frames"
  bottom: "cont_sentence"
  top: "lstm1"
  recurrent_param {
    num_output: 1000
    weight_filler {
      type: "uniform"
      min: -0.08
      max: 0.08
    }
    bias_filler {
      type: "constant"
      value: 0
    }
  }
}
layer {
  name: "concat"
  type: "Concat"
  bottom: "lstm1"
  bottom: "embedded_input_sentence"
  bottom: "reshaped_stage_indicator"
  top: "lstm1_video_sequence"
  concat_param {
    concat_dim: 2
  }
}
layer {
  name: "lstm2"
  type: "LSTM"
  bottom: "lstm1_video_sequence"
  bottom: "cont_sentence"
  top: "lstm2"
  recurrent_param {
    num_output: 1000
    weight_filler {
      type: "uniform"
      min: -0.08
      max: 0.08
    }
    bias_filler {
      type: "constant"
      value: 0
    }
  }
}
layer {
  name: "predict"
  type: "InnerProduct"
  bottom: "lstm2"
  top: "predict"
  param {
    lr_mult: 1
    decay_mult: 1
  }
  param {
    lr_mult: 2
    decay_mult: 0
  }
  inner_product_param {
    num_output: 46168
    weight_filler {
      type: "uniform"
      min: -0.08
      max: 0.08
    }
    bias_filler {
      type: "constant"
      value: 0
    }
    axis: 2
  }
}
layer {
  name: "probs"
  type: "Softmax"
  bottom: "predict"
  top: "probs"
  softmax_param {
    axis: 2
  }
}
I0730 11:19:07.449600  7245 layer_factory.hpp:77] Creating layer input
I0730 11:19:07.449615  7245 net.cpp:91] Creating Layer input
I0730 11:19:07.449622  7245 net.cpp:399] input -> frames_fc7
I0730 11:19:07.449638  7245 net.cpp:399] input -> cont_sentence
I0730 11:19:07.449648  7245 net.cpp:399] input -> input_sentence
I0730 11:19:07.449657  7245 net.cpp:399] input -> stage_indicator
I0730 11:19:07.449883  7245 net.cpp:141] Setting up input
I0730 11:19:07.449897  7245 net.cpp:148] Top shape: 1 4096 (4096)
I0730 11:19:07.449903  7245 net.cpp:148] Top shape: 1 1 (1)
I0730 11:19:07.449908  7245 net.cpp:148] Top shape: 1 1 (1)
I0730 11:19:07.449913  7245 net.cpp:148] Top shape: 1 1 (1)
I0730 11:19:07.449918  7245 net.cpp:156] Memory required for data: 16396
I0730 11:19:07.449923  7245 layer_factory.hpp:77] Creating layer cont_sentence_input_1_split
I0730 11:19:07.449941  7245 net.cpp:91] Creating Layer cont_sentence_input_1_split
I0730 11:19:07.449946  7245 net.cpp:425] cont_sentence_input_1_split <- cont_sentence
I0730 11:19:07.449965  7245 net.cpp:399] cont_sentence_input_1_split -> cont_sentence_input_1_split_0
I0730 11:19:07.449975  7245 net.cpp:399] cont_sentence_input_1_split -> cont_sentence_input_1_split_1
I0730 11:19:07.454473  7245 net.cpp:141] Setting up cont_sentence_input_1_split
I0730 11:19:07.454496  7245 net.cpp:148] Top shape: 1 1 (1)
I0730 11:19:07.454502  7245 net.cpp:148] Top shape: 1 1 (1)
I0730 11:19:07.454506  7245 net.cpp:156] Memory required for data: 16404
I0730 11:19:07.454512  7245 layer_factory.hpp:77] Creating layer embed_encoder
I0730 11:19:07.454535  7245 net.cpp:91] Creating Layer embed_encoder
I0730 11:19:07.454540  7245 net.cpp:425] embed_encoder <- frames_fc7
I0730 11:19:07.454548  7245 net.cpp:399] embed_encoder -> embedded_in_frames
I0730 11:19:07.483058  7245 net.cpp:141] Setting up embed_encoder
I0730 11:19:07.483104  7245 net.cpp:148] Top shape: 1 500 (500)
I0730 11:19:07.483110  7245 net.cpp:156] Memory required for data: 18404
I0730 11:19:07.483135  7245 layer_factory.hpp:77] Creating layer reshape_frames
I0730 11:19:07.483160  7245 net.cpp:91] Creating Layer reshape_frames
I0730 11:19:07.483167  7245 net.cpp:425] reshape_frames <- embedded_in_frames
I0730 11:19:07.483177  7245 net.cpp:399] reshape_frames -> embedded_input_frames
I0730 11:19:07.490502  7245 net.cpp:141] Setting up reshape_frames
I0730 11:19:07.490525  7245 net.cpp:148] Top shape: 1 1 500 (500)
I0730 11:19:07.490530  7245 net.cpp:156] Memory required for data: 20404
I0730 11:19:07.490535  7245 layer_factory.hpp:77] Creating layer reshape_stage_indicator
I0730 11:19:07.490548  7245 net.cpp:91] Creating Layer reshape_stage_indicator
I0730 11:19:07.490555  7245 net.cpp:425] reshape_stage_indicator <- stage_indicator
I0730 11:19:07.490568  7245 net.cpp:399] reshape_stage_indicator -> reshaped_stage_indicator
I0730 11:19:07.490610  7245 net.cpp:141] Setting up reshape_stage_indicator
I0730 11:19:07.490620  7245 net.cpp:148] Top shape: 1 1 1 (1)
I0730 11:19:07.490624  7245 net.cpp:156] Memory required for data: 20408
I0730 11:19:07.490628  7245 layer_factory.hpp:77] Creating layer embedding
I0730 11:19:07.490639  7245 net.cpp:91] Creating Layer embedding
I0730 11:19:07.490644  7245 net.cpp:425] embedding <- input_sentence
I0730 11:19:07.490655  7245 net.cpp:399] embedding -> embedded_input_sentence
I0730 11:19:07.645855  7255 net.cpp:141] Setting up conv1
I0730 11:19:07.645916  7255 net.cpp:148] Top shape: 10 96 55 55 (2904000)
I0730 11:19:07.645925  7255 net.cpp:156] Memory required for data: 17799480
I0730 11:19:07.645951  7255 layer_factory.hpp:77] Creating layer relu1
I0730 11:19:07.645972  7255 net.cpp:91] Creating Layer relu1
I0730 11:19:07.645980  7255 net.cpp:425] relu1 <- conv1
I0730 11:19:07.645988  7255 net.cpp:386] relu1 -> conv1 (in-place)
I0730 11:19:07.646786  7255 net.cpp:141] Setting up relu1
I0730 11:19:07.646803  7255 net.cpp:148] Top shape: 10 96 55 55 (2904000)
I0730 11:19:07.646809  7255 net.cpp:156] Memory required for data: 29415480
I0730 11:19:07.646814  7255 layer_factory.hpp:77] Creating layer pool1
I0730 11:19:07.646829  7255 net.cpp:91] Creating Layer pool1
I0730 11:19:07.646834  7255 net.cpp:425] pool1 <- conv1
I0730 11:19:07.646842  7255 net.cpp:399] pool1 -> pool1
I0730 11:19:07.646922  7255 net.cpp:141] Setting up pool1
I0730 11:19:07.646934  7255 net.cpp:148] Top shape: 10 96 27 27 (699840)
I0730 11:19:07.646939  7255 net.cpp:156] Memory required for data: 32214840
I0730 11:19:07.646944  7255 layer_factory.hpp:77] Creating layer norm1
I0730 11:19:07.646967  7255 net.cpp:91] Creating Layer norm1
I0730 11:19:07.646973  7255 net.cpp:425] norm1 <- pool1
I0730 11:19:07.646981  7255 net.cpp:399] norm1 -> norm1
I0730 11:19:07.647812  7255 net.cpp:141] Setting up norm1
I0730 11:19:07.647827  7255 net.cpp:148] Top shape: 10 96 27 27 (699840)
I0730 11:19:07.647832  7255 net.cpp:156] Memory required for data: 35014200
I0730 11:19:07.647838  7255 layer_factory.hpp:77] Creating layer conv2
I0730 11:19:07.647861  7255 net.cpp:91] Creating Layer conv2
I0730 11:19:07.647868  7255 net.cpp:425] conv2 <- norm1
I0730 11:19:07.647876  7255 net.cpp:399] conv2 -> conv2
I0730 11:19:07.652601  7255 net.cpp:141] Setting up conv2
I0730 11:19:07.652622  7255 net.cpp:148] Top shape: 10 256 27 27 (1866240)
I0730 11:19:07.652628  7255 net.cpp:156] Memory required for data: 42479160
I0730 11:19:07.652644  7255 layer_factory.hpp:77] Creating layer relu2
I0730 11:19:07.652655  7255 net.cpp:91] Creating Layer relu2
I0730 11:19:07.652660  7255 net.cpp:425] relu2 <- conv2
I0730 11:19:07.652667  7255 net.cpp:386] relu2 -> conv2 (in-place)
I0730 11:19:07.653446  7255 net.cpp:141] Setting up relu2
I0730 11:19:07.653460  7255 net.cpp:148] Top shape: 10 256 27 27 (1866240)
I0730 11:19:07.653466  7255 net.cpp:156] Memory required for data: 49944120
I0730 11:19:07.653471  7255 layer_factory.hpp:77] Creating layer pool2
I0730 11:19:07.653481  7255 net.cpp:91] Creating Layer pool2
I0730 11:19:07.653486  7255 net.cpp:425] pool2 <- conv2
I0730 11:19:07.653497  7255 net.cpp:399] pool2 -> pool2
I0730 11:19:07.653555  7255 net.cpp:141] Setting up pool2
I0730 11:19:07.653565  7255 net.cpp:148] Top shape: 10 256 13 13 (432640)
I0730 11:19:07.653570  7255 net.cpp:156] Memory required for data: 51674680
I0730 11:19:07.653575  7255 layer_factory.hpp:77] Creating layer norm2
I0730 11:19:07.653590  7255 net.cpp:91] Creating Layer norm2
I0730 11:19:07.653596  7255 net.cpp:425] norm2 <- pool2
I0730 11:19:07.653605  7255 net.cpp:399] norm2 -> norm2
I0730 11:19:07.653877  7255 net.cpp:141] Setting up norm2
I0730 11:19:07.653890  7255 net.cpp:148] Top shape: 10 256 13 13 (432640)
I0730 11:19:07.653895  7255 net.cpp:156] Memory required for data: 53405240
I0730 11:19:07.653901  7255 layer_factory.hpp:77] Creating layer conv3
I0730 11:19:07.653915  7255 net.cpp:91] Creating Layer conv3
I0730 11:19:07.653921  7255 net.cpp:425] conv3 <- norm2
I0730 11:19:07.653931  7255 net.cpp:399] conv3 -> conv3
I0730 11:19:07.659039  7255 net.cpp:141] Setting up conv3
I0730 11:19:07.659061  7255 net.cpp:148] Top shape: 10 384 13 13 (648960)
I0730 11:19:07.659067  7255 net.cpp:156] Memory required for data: 56001080
I0730 11:19:07.659085  7255 layer_factory.hpp:77] Creating layer relu3
I0730 11:19:07.659106  7255 net.cpp:91] Creating Layer relu3
I0730 11:19:07.659112  7255 net.cpp:425] relu3 <- conv3
I0730 11:19:07.659119  7255 net.cpp:386] relu3 -> conv3 (in-place)
I0730 11:19:07.659893  7255 net.cpp:141] Setting up relu3
I0730 11:19:07.659909  7255 net.cpp:148] Top shape: 10 384 13 13 (648960)
I0730 11:19:07.659914  7255 net.cpp:156] Memory required for data: 58596920
I0730 11:19:07.659920  7255 layer_factory.hpp:77] Creating layer conv4
I0730 11:19:07.659932  7255 net.cpp:91] Creating Layer conv4
I0730 11:19:07.659937  7255 net.cpp:425] conv4 <- conv3
I0730 11:19:07.659950  7255 net.cpp:399] conv4 -> conv4
I0730 11:19:07.665920  7255 net.cpp:141] Setting up conv4
I0730 11:19:07.665946  7255 net.cpp:148] Top shape: 10 384 13 13 (648960)
I0730 11:19:07.665953  7255 net.cpp:156] Memory required for data: 61192760
I0730 11:19:07.665964  7255 layer_factory.hpp:77] Creating layer relu4
I0730 11:19:07.665979  7255 net.cpp:91] Creating Layer relu4
I0730 11:19:07.665985  7255 net.cpp:425] relu4 <- conv4
I0730 11:19:07.665997  7255 net.cpp:386] relu4 -> conv4 (in-place)
I0730 11:19:07.666790  7255 net.cpp:141] Setting up relu4
I0730 11:19:07.666807  7255 net.cpp:148] Top shape: 10 384 13 13 (648960)
I0730 11:19:07.666812  7255 net.cpp:156] Memory required for data: 63788600
I0730 11:19:07.666818  7255 layer_factory.hpp:77] Creating layer conv5
I0730 11:19:07.666833  7255 net.cpp:91] Creating Layer conv5
I0730 11:19:07.666841  7255 net.cpp:425] conv5 <- conv4
I0730 11:19:07.666890  7255 net.cpp:399] conv5 -> conv5
I0730 11:19:07.672888  7255 net.cpp:141] Setting up conv5
I0730 11:19:07.672930  7255 net.cpp:148] Top shape: 10 256 13 13 (432640)
I0730 11:19:07.672936  7255 net.cpp:156] Memory required for data: 65519160
I0730 11:19:07.672960  7255 layer_factory.hpp:77] Creating layer relu5
I0730 11:19:07.672974  7255 net.cpp:91] Creating Layer relu5
I0730 11:19:07.672979  7255 net.cpp:425] relu5 <- conv5
I0730 11:19:07.672989  7255 net.cpp:386] relu5 -> conv5 (in-place)
I0730 11:19:07.673681  7255 net.cpp:141] Setting up relu5
I0730 11:19:07.673694  7255 net.cpp:148] Top shape: 10 256 13 13 (432640)
I0730 11:19:07.673698  7255 net.cpp:156] Memory required for data: 67249720
I0730 11:19:07.673703  7255 layer_factory.hpp:77] Creating layer pool5
I0730 11:19:07.673712  7255 net.cpp:91] Creating Layer pool5
I0730 11:19:07.673717  7255 net.cpp:425] pool5 <- conv5
I0730 11:19:07.673727  7255 net.cpp:399] pool5 -> pool5
I0730 11:19:07.673787  7255 net.cpp:141] Setting up pool5
I0730 11:19:07.673799  7255 net.cpp:148] Top shape: 10 256 6 6 (92160)
I0730 11:19:07.673802  7255 net.cpp:156] Memory required for data: 67618360
I0730 11:19:07.673807  7255 layer_factory.hpp:77] Creating layer fc6
I0730 11:19:07.673820  7255 net.cpp:91] Creating Layer fc6
I0730 11:19:07.673825  7255 net.cpp:425] fc6 <- pool5
I0730 11:19:07.673830  7255 net.cpp:399] fc6 -> fc6
I0730 11:19:07.737718  7245 net.cpp:141] Setting up embedding
I0730 11:19:07.737782  7245 net.cpp:148] Top shape: 1 1 500 (500)
I0730 11:19:07.737789  7245 net.cpp:156] Memory required for data: 22408
I0730 11:19:07.737812  7245 layer_factory.hpp:77] Creating layer lstm1
I0730 11:19:07.737838  7245 net.cpp:91] Creating Layer lstm1
I0730 11:19:07.737848  7245 net.cpp:425] lstm1 <- embedded_input_frames
I0730 11:19:07.737857  7245 net.cpp:425] lstm1 <- cont_sentence_input_1_split_0
I0730 11:19:07.737871  7245 net.cpp:399] lstm1 -> lstm1
I0730 11:19:07.737915  7245 recurrent_layer.cpp:20] Initializing recurrent layer: assuming input batch contains 1 timesteps of 1 independent streams.
I0730 11:19:07.738333  7245 net.cpp:49] Initializing net from parameters: 
layer {
  name: "lstm1_"
  type: "Input"
  top: "x"
  top: "cont"
  input_param {
    shape {
      dim: 1
      dim: 1
      dim: 500
    }
    shape {
      dim: 1
      dim: 1
    }
  }
}
layer {
  name: "lstm1_"
  type: "Input"
  top: "c_0"
  top: "h_0"
  input_param {
    shape {
      dim: 1
      dim: 1
      dim: 1000
    }
    shape {
      dim: 1
      dim: 1
      dim: 1000
    }
  }
}
layer {
  name: "lstm1_cont_slice"
  type: "Slice"
  bottom: "cont"
  top: "cont_1"
  slice_param {
    axis: 0
  }
}
layer {
  name: "lstm1_x_transform"
  type: "InnerProduct"
  bottom: "x"
  top: "W_xc_x"
  param {
    name: "W_xc"
  }
  param {
    name: "b_c"
  }
  propagate_down: true
  inner_product_param {
    num_output: 4000
    bias_term: true
    weight_filler {
      type: "uniform"
      min: -0.08
      max: 0.08
    }
    bias_filler {
      type: "constant"
      value: 0
    }
    axis: 2
  }
}
layer {
  name: "lstm1_W_xc_x_slice"
  type: "Slice"
  bottom: "W_xc_x"
  top: "W_xc_x_1"
  slice_param {
    axis: 0
  }
}
layer {
  name: "lstm1_h_conted_0"
  type: "Scale"
  bottom: "h_0"
  bottom: "cont_1"
  top: "h_conted_0"
  scale_param {
    axis: 0
  }
}
layer {
  name: "lstm1_transform_1"
  type: "InnerProduct"
  bottom: "h_conted_0"
  top: "W_hc_h_0"
  param {
    name: "W_hc"
  }
  inner_product_param {
    num_output: 4000
    bias_term: false
    weight_filler {
      type: "uniform"
      min: -0.08
      max: 0.08
    }
    axis: 2
  }
}
layer {
  name: "lstm1_gate_input_1"
  type: "Eltwise"
  bottom: "W_hc_h_0"
  bottom: "W_xc_x_1"
  top: "gate_input_1"
  eltwise_param {
    operation: SUM
  }
}
layer {
  name: "lstm1_unit_1"
  type: "LSTMUnit"
  bottom: "c_0"
  bottom: "gate_input_1"
  bottom: "cont_1"
  top: "c_1"
  top: "h_1"
}
layer {
  name: "lstm1_"
  type: "Split"
  bottom: "c_1"
  top: "c_T"
}
layer {
  name: "lstm1_h_concat"
  type: "Concat"
  bottom: "h_1"
  top: "h"
  concat_param {
    axis: 0
  }
}
layer {
  name: "h_pseudoloss"
  type: "Reduction"
  bottom: "h"
  top: "h_pseudoloss"
  loss_weight: 1
}
I0730 11:19:07.738437  7245 layer_factory.hpp:77] Creating layer lstm1_
I0730 11:19:07.738451  7245 net.cpp:91] Creating Layer lstm1_
I0730 11:19:07.738458  7245 net.cpp:399] lstm1_ -> x
I0730 11:19:07.738471  7245 net.cpp:399] lstm1_ -> cont
I0730 11:19:07.738539  7245 net.cpp:141] Setting up lstm1_
I0730 11:19:07.738551  7245 net.cpp:148] Top shape: 1 1 500 (500)
I0730 11:19:07.738557  7245 net.cpp:148] Top shape: 1 1 (1)
I0730 11:19:07.738562  7245 net.cpp:156] Memory required for data: 2004
I0730 11:19:07.738567  7245 layer_factory.hpp:77] Creating layer lstm1_
I0730 11:19:07.738576  7245 net.cpp:91] Creating Layer lstm1_
I0730 11:19:07.738586  7245 net.cpp:399] lstm1_ -> c_0
I0730 11:19:07.738597  7245 net.cpp:399] lstm1_ -> h_0
I0730 11:19:07.738651  7245 net.cpp:141] Setting up lstm1_
I0730 11:19:07.738662  7245 net.cpp:148] Top shape: 1 1 1000 (1000)
I0730 11:19:07.738668  7245 net.cpp:148] Top shape: 1 1 1000 (1000)
I0730 11:19:07.738672  7245 net.cpp:156] Memory required for data: 10004
I0730 11:19:07.738677  7245 layer_factory.hpp:77] Creating layer lstm1_cont_slice
I0730 11:19:07.738703  7245 net.cpp:91] Creating Layer lstm1_cont_slice
I0730 11:19:07.738708  7245 net.cpp:425] lstm1_cont_slice <- cont
I0730 11:19:07.738739  7245 net.cpp:399] lstm1_cont_slice -> cont_1
I0730 11:19:07.738806  7245 net.cpp:141] Setting up lstm1_cont_slice
I0730 11:19:07.738823  7245 net.cpp:148] Top shape: 1 1 (1)
I0730 11:19:07.738832  7245 net.cpp:156] Memory required for data: 10008
I0730 11:19:07.738842  7245 layer_factory.hpp:77] Creating layer cont_1_lstm1_cont_slice_0_split
I0730 11:19:07.738860  7245 net.cpp:91] Creating Layer cont_1_lstm1_cont_slice_0_split
I0730 11:19:07.738869  7245 net.cpp:425] cont_1_lstm1_cont_slice_0_split <- cont_1
I0730 11:19:07.738883  7245 net.cpp:399] cont_1_lstm1_cont_slice_0_split -> cont_1_lstm1_cont_slice_0_split_0
I0730 11:19:07.738899  7245 net.cpp:399] cont_1_lstm1_cont_slice_0_split -> cont_1_lstm1_cont_slice_0_split_1
I0730 11:19:07.738987  7245 net.cpp:141] Setting up cont_1_lstm1_cont_slice_0_split
I0730 11:19:07.739003  7245 net.cpp:148] Top shape: 1 1 (1)
I0730 11:19:07.739014  7245 net.cpp:148] Top shape: 1 1 (1)
I0730 11:19:07.739022  7245 net.cpp:156] Memory required for data: 10016
I0730 11:19:07.739030  7245 layer_factory.hpp:77] Creating layer lstm1_x_transform
I0730 11:19:07.739048  7245 net.cpp:91] Creating Layer lstm1_x_transform
I0730 11:19:07.739058  7245 net.cpp:425] lstm1_x_transform <- x
I0730 11:19:07.739073  7245 net.cpp:399] lstm1_x_transform -> W_xc_x
I0730 11:19:07.768638  7245 net.cpp:141] Setting up lstm1_x_transform
I0730 11:19:07.768705  7245 net.cpp:148] Top shape: 1 1 4000 (4000)
I0730 11:19:07.768718  7245 net.cpp:156] Memory required for data: 26016
I0730 11:19:07.768750  7245 layer_factory.hpp:77] Creating layer lstm1_W_xc_x_slice
I0730 11:19:07.768774  7245 net.cpp:91] Creating Layer lstm1_W_xc_x_slice
I0730 11:19:07.768786  7245 net.cpp:425] lstm1_W_xc_x_slice <- W_xc_x
I0730 11:19:07.768803  7245 net.cpp:399] lstm1_W_xc_x_slice -> W_xc_x_1
I0730 11:19:07.768873  7245 net.cpp:141] Setting up lstm1_W_xc_x_slice
I0730 11:19:07.768892  7245 net.cpp:148] Top shape: 1 1 4000 (4000)
I0730 11:19:07.768900  7245 net.cpp:156] Memory required for data: 42016
I0730 11:19:07.768909  7245 layer_factory.hpp:77] Creating layer lstm1_h_conted_0
I0730 11:19:07.768931  7245 net.cpp:91] Creating Layer lstm1_h_conted_0
I0730 11:19:07.768944  7245 net.cpp:425] lstm1_h_conted_0 <- h_0
I0730 11:19:07.768954  7245 net.cpp:425] lstm1_h_conted_0 <- cont_1_lstm1_cont_slice_0_split_0
I0730 11:19:07.768966  7245 net.cpp:399] lstm1_h_conted_0 -> h_conted_0
I0730 11:19:07.769134  7245 net.cpp:141] Setting up lstm1_h_conted_0
I0730 11:19:07.769151  7245 net.cpp:148] Top shape: 1 1 1000 (1000)
I0730 11:19:07.769160  7245 net.cpp:156] Memory required for data: 46016
I0730 11:19:07.769170  7245 layer_factory.hpp:77] Creating layer lstm1_transform_1
I0730 11:19:07.769194  7245 net.cpp:91] Creating Layer lstm1_transform_1
I0730 11:19:07.769204  7245 net.cpp:425] lstm1_transform_1 <- h_conted_0
I0730 11:19:07.769219  7245 net.cpp:399] lstm1_transform_1 -> W_hc_h_0
I0730 11:19:07.779223  7255 net.cpp:141] Setting up fc6
I0730 11:19:07.779273  7255 net.cpp:148] Top shape: 10 4096 (40960)
I0730 11:19:07.779279  7255 net.cpp:156] Memory required for data: 67782200
I0730 11:19:07.779294  7255 layer_factory.hpp:77] Creating layer relu6
I0730 11:19:07.779309  7255 net.cpp:91] Creating Layer relu6
I0730 11:19:07.779316  7255 net.cpp:425] relu6 <- fc6
I0730 11:19:07.779325  7255 net.cpp:386] relu6 -> fc6 (in-place)
I0730 11:19:07.779639  7255 net.cpp:141] Setting up relu6
I0730 11:19:07.779651  7255 net.cpp:148] Top shape: 10 4096 (40960)
I0730 11:19:07.779655  7255 net.cpp:156] Memory required for data: 67946040
I0730 11:19:07.779660  7255 layer_factory.hpp:77] Creating layer drop6
I0730 11:19:07.779680  7255 net.cpp:91] Creating Layer drop6
I0730 11:19:07.779685  7255 net.cpp:425] drop6 <- fc6
I0730 11:19:07.779693  7255 net.cpp:386] drop6 -> fc6 (in-place)
I0730 11:19:07.779739  7255 net.cpp:141] Setting up drop6
I0730 11:19:07.779748  7255 net.cpp:148] Top shape: 10 4096 (40960)
I0730 11:19:07.779752  7255 net.cpp:156] Memory required for data: 68109880
I0730 11:19:07.779757  7255 layer_factory.hpp:77] Creating layer fc7
I0730 11:19:07.779770  7255 net.cpp:91] Creating Layer fc7
I0730 11:19:07.779775  7255 net.cpp:425] fc7 <- fc6
I0730 11:19:07.779781  7255 net.cpp:399] fc7 -> fc7
I0730 11:19:07.813715  7245 net.cpp:141] Setting up lstm1_transform_1
I0730 11:19:07.813777  7245 net.cpp:148] Top shape: 1 1 4000 (4000)
I0730 11:19:07.813784  7245 net.cpp:156] Memory required for data: 62016
I0730 11:19:07.813808  7245 layer_factory.hpp:77] Creating layer lstm1_gate_input_1
I0730 11:19:07.813838  7245 net.cpp:91] Creating Layer lstm1_gate_input_1
I0730 11:19:07.813846  7245 net.cpp:425] lstm1_gate_input_1 <- W_hc_h_0
I0730 11:19:07.813856  7245 net.cpp:425] lstm1_gate_input_1 <- W_xc_x_1
I0730 11:19:07.813864  7245 net.cpp:399] lstm1_gate_input_1 -> gate_input_1
I0730 11:19:07.813928  7245 net.cpp:141] Setting up lstm1_gate_input_1
I0730 11:19:07.813940  7245 net.cpp:148] Top shape: 1 1 4000 (4000)
I0730 11:19:07.813944  7245 net.cpp:156] Memory required for data: 78016
I0730 11:19:07.813949  7245 layer_factory.hpp:77] Creating layer lstm1_unit_1
I0730 11:19:07.813959  7245 net.cpp:91] Creating Layer lstm1_unit_1
I0730 11:19:07.813964  7245 net.cpp:425] lstm1_unit_1 <- c_0
I0730 11:19:07.813971  7245 net.cpp:425] lstm1_unit_1 <- gate_input_1
I0730 11:19:07.813977  7245 net.cpp:425] lstm1_unit_1 <- cont_1_lstm1_cont_slice_0_split_1
I0730 11:19:07.813983  7245 net.cpp:399] lstm1_unit_1 -> c_1
I0730 11:19:07.813992  7245 net.cpp:399] lstm1_unit_1 -> h_1
I0730 11:19:07.814060  7245 net.cpp:141] Setting up lstm1_unit_1
I0730 11:19:07.814069  7245 net.cpp:148] Top shape: 1 1 1000 (1000)
I0730 11:19:07.814076  7245 net.cpp:148] Top shape: 1 1 1000 (1000)
I0730 11:19:07.814080  7245 net.cpp:156] Memory required for data: 86016
I0730 11:19:07.814085  7245 layer_factory.hpp:77] Creating layer lstm1_
I0730 11:19:07.814098  7245 net.cpp:91] Creating Layer lstm1_
I0730 11:19:07.814103  7245 net.cpp:425] lstm1_ <- c_1
I0730 11:19:07.814110  7245 net.cpp:399] lstm1_ -> c_T
I0730 11:19:07.814143  7245 net.cpp:141] Setting up lstm1_
I0730 11:19:07.814152  7245 net.cpp:148] Top shape: 1 1 1000 (1000)
I0730 11:19:07.814157  7245 net.cpp:156] Memory required for data: 90016
I0730 11:19:07.814162  7245 layer_factory.hpp:77] Creating layer lstm1_h_concat
I0730 11:19:07.814172  7245 net.cpp:91] Creating Layer lstm1_h_concat
I0730 11:19:07.814177  7245 net.cpp:425] lstm1_h_concat <- h_1
I0730 11:19:07.814188  7245 net.cpp:399] lstm1_h_concat -> h
I0730 11:19:07.814235  7245 net.cpp:141] Setting up lstm1_h_concat
I0730 11:19:07.814244  7245 net.cpp:148] Top shape: 1 1 1000 (1000)
I0730 11:19:07.814249  7245 net.cpp:156] Memory required for data: 94016
I0730 11:19:07.814254  7245 layer_factory.hpp:77] Creating layer h_pseudoloss
I0730 11:19:07.814271  7245 net.cpp:91] Creating Layer h_pseudoloss
I0730 11:19:07.814276  7245 net.cpp:425] h_pseudoloss <- h
I0730 11:19:07.814283  7245 net.cpp:399] h_pseudoloss -> h_pseudoloss
I0730 11:19:07.814383  7245 net.cpp:141] Setting up h_pseudoloss
…
I0730 11:19:07.814519  7245 net.cpp:219] lstm1_ does not need backward computation.
I0730 11:19:07.814523  7245 net.cpp:261] This network produces output c_T
I0730 11:19:07.814529  7245 net.cpp:261] This network produces output h_pseudoloss
I0730 11:19:07.814546  7245 net.cpp:274] Network initialization done.
I0730 11:19:07.814615  7245 recurrent_layer.cpp:150] Adding parameter 0: W_xc
I0730 11:19:07.814621  7245 recurrent_layer.cpp:150] Adding parameter 1: b_c
I0730 11:19:07.814626  7245 recurrent_layer.cpp:150] Adding parameter 2: W_hc
I0730 11:19:07.814764  7245 net.cpp:141] Setting up lstm1
I0730 11:19:07.814780  7245 net.cpp:148] Top shape: 1 1 1000 (1000)
I0730 11:19:07.814785  7245 net.cpp:156] Memory required for data: 26408
I0730 11:19:07.814800  7245 layer_factory.hpp:77] Creating layer concat
I0730 11:19:07.814810  7245 net.cpp:91] Creating Layer concat
I0730 11:19:07.814817  7245 net.cpp:425] concat <- lstm1
I0730 11:19:07.814824  7245 net.cpp:425] concat <- embedded_input_sentence
I0730 11:19:07.814831  7245 net.cpp:425] concat <- reshaped_stage_indicator
I0730 11:19:07.814837  7245 net.cpp:399] concat -> lstm1_video_sequence
I0730 11:19:07.814873  7245 net.cpp:141] Setting up concat
I0730 11:19:07.814882  7245 net.cpp:148] Top shape: 1 1 1501 (1501)
I0730 11:19:07.814888  7245 net.cpp:156] Memory required for data: 32412
I0730 11:19:07.814893  7245 layer_factory.hpp:77] Creating layer lstm2
I0730 11:19:07.814908  7245 net.cpp:91] Creating Layer lstm2
I0730 11:19:07.814913  7245 net.cpp:425] lstm2 <- lstm1_video_sequence
I0730 11:19:07.814919  7245 net.cpp:425] lstm2 <- cont_sentence_input_1_split_1
I0730 11:19:07.814926  7245 net.cpp:399] lstm2 -> lstm2
I0730 11:19:07.814939  7245 recurrent_layer.cpp:20] Initializing recurrent layer: assuming input batch contains 1 timesteps of 1 independent streams.
I0730 11:19:07.815237  7245 net.cpp:49] Initializing net from parameters: 
layer {
  name: "lstm2_"
  type: "Input"
  top: "x"
  top: "cont"
  input_param {
    shape {
      dim: 1
      dim: 1
      dim: 1501
    }
    shape {
      dim: 1
      dim: 1
    }
  }
}
layer {
  name: "lstm2_"
  type: "Input"
  top: "c_0"
  top: "h_0"
  input_param {
    shape {
      dim: 1
      dim: 1
      dim: 1000
    }
    shape {
      dim: 1
      dim: 1
      dim: 1000
    }
  }
}
layer {
  name: "lstm2_cont_slice"
  type: "Slice"
  bottom: "cont"
  top: "cont_1"
  slice_param {
    axis: 0
  }
}
layer {
  name: "lstm2_x_transform"
  type: "InnerProduct"
  bottom: "x"
  top: "W_xc_x"
  param {
    name: "W_xc"
  }
  param {
    name: "b_c"
  }
  propagate_down: true
  inner_product_param {
    num_output: 4000
    bias_term: true
    weight_filler {
      type: "uniform"
      min: -0.08
      max: 0.08
    }
    bias_filler {
      type: "constant"
      value: 0
    }
    axis: 2
  }
}
layer {
  name: "lstm2_W_xc_x_slice"
  type: "Slice"
  bottom: "W_xc_x"
  top: "W_xc_x_1"
  slice_param {
    axis: 0
  }
}
layer {
  name: "lstm2_h_conted_0"
  type: "Scale"
  bottom: "h_0"
  bottom: "cont_1"
  top: "h_conted_0"
  scale_param {
    axis: 0
  }
}
layer {
  name: "lstm2_transform_1"
  type: "InnerProduct"
  bottom: "h_conted_0"
  top: "W_hc_h_0"
  param {
    name: "W_hc"
  }
  inner_product_param {
    num_output: 4000
    bias_term: false
    weight_filler {
      type: "uniform"
      min: -0.08
      max: 0.08
    }
    axis: 2
  }
}
layer {
  name: "lstm2_gate_input_1"
  type: "Eltwise"
  bottom: "W_hc_h_0"
  bottom: "W_xc_x_1"
  top: "gate_input_1"
  eltwise_param {
    operation: SUM
  }
}
layer {
  name: "lstm2_unit_1"
  type: "LSTMUnit"
  bottom: "c_0"
  bottom: "gate_input_1"
  bottom: "cont_1"
  top: "c_1"
  top: "h_1"
}
layer {
  name: "lstm2_"
  type: "Split"
  bottom: "c_1"
  top: "c_T"
}
layer {
  name: "lstm2_h_concat"
  type: "Concat"
  bottom: "h_1"
  top: "h"
  concat_param {
    axis: 0
  }
}
layer {
  name: "h_pseudoloss"
  type: "Reduction"
  bottom: "h"
  top: "h_pseudoloss"
  loss_weight: 1
}
I0730 11:19:07.815333  7245 layer_factory.hpp:77] Creating layer lstm2_
I0730 11:19:07.815347  7245 net.cpp:91] Creating Layer lstm2_
I0730 11:19:07.815354  7245 net.cpp:399] lstm2_ -> x
I0730 11:19:07.815366  7245 net.cpp:399] lstm2_ -> cont
I0730 11:19:07.815424  7245 net.cpp:141] Setting up lstm2_
I0730 11:19:07.815435  7245 net.cpp:148] Top shape: 1 1 1501 (1501)
I0730 11:19:07.815441  7245 net.cpp:148] Top shape: 1 1 (1)
I0730 11:19:07.815445  7245 net.cpp:156] Memory required for data: 6008
I0730 11:19:07.815451  7245 layer_factory.hpp:77] Creating layer lstm2_
I0730 11:19:07.815459  7245 net.cpp:91] Creating Layer lstm2_
I0730 11:19:07.815469  7245 net.cpp:399] lstm2_ -> c_0
I0730 11:19:07.815479  7245 net.cpp:399] lstm2_ -> h_0
I0730 11:19:07.815532  7245 net.cpp:141] Setting up lstm2_
I0730 11:19:07.815541  7245 net.cpp:148] Top shape: 1 1 1000 (1000)
I0730 11:19:07.815548  7245 net.cpp:148] Top shape: 1 1 1000 (1000)
I0730 11:19:07.815552  7245 net.cpp:156] Memory required for data: 14008
I0730 11:19:07.815557  7245 layer_factory.hpp:77] Creating layer lstm2_cont_slice
I0730 11:19:07.815565  7245 net.cpp:91] Creating Layer lstm2_cont_slice
I0730 11:19:07.815570  7245 net.cpp:425] lstm2_cont_slice <- cont
I0730 11:19:07.815578  7245 net.cpp:399] lstm2_cont_slice -> cont_1
I0730 11:19:07.815620  7245 net.cpp:141] Setting up lstm2_cont_slice
I0730 11:19:07.815630  7245 net.cpp:148] Top shape: 1 1 (1)
I0730 11:19:07.815634  7245 net.cpp:156] Memory required for data: 14012
I0730 11:19:07.815639  7245 layer_factory.hpp:77] Creating layer cont_1_lstm2_cont_slice_0_split
I0730 11:19:07.815649  7245 net.cpp:91] Creating Layer cont_1_lstm2_cont_slice_0_split
I0730 11:19:07.815654  7245 net.cpp:425] cont_1_lstm2_cont_slice_0_split <- cont_1
I0730 11:19:07.815660  7245 net.cpp:399] cont_1_lstm2_cont_slice_0_split -> cont_1_lstm2_cont_slice_0_split_0
I0730 11:19:07.815670  7245 net.cpp:399] cont_1_lstm2_cont_slice_0_split -> cont_1_lstm2_cont_slice_0_split_1
I0730 11:19:07.815721  7245 net.cpp:141] Setting up cont_1_lstm2_cont_slice_0_split
I0730 11:19:07.815729  7245 net.cpp:148] Top shape: 1 1 (1)
I0730 11:19:07.815735  7245 net.cpp:148] Top shape: 1 1 (1)
I0730 11:19:07.815739  7245 net.cpp:156] Memory required for data: 14020
I0730 11:19:07.815744  7245 layer_factory.hpp:77] Creating layer lstm2_x_transform
I0730 11:19:07.815755  7245 net.cpp:91] Creating Layer lstm2_x_transform
I0730 11:19:07.815760  7245 net.cpp:425] lstm2_x_transform <- x
I0730 11:19:07.815770  7245 net.cpp:399] lstm2_x_transform -> W_xc_x
I0730 11:19:07.828594  7255 net.cpp:141] Setting up fc7
I0730 11:19:07.828639  7255 net.cpp:148] Top shape: 10 4096 (40960)
I0730 11:19:07.828644  7255 net.cpp:156] Memory required for data: 68273720
I0730 11:19:07.828657  7255 layer_factory.hpp:77] Creating layer relu7
I0730 11:19:07.828670  7255 net.cpp:91] Creating Layer relu7
I0730 11:19:07.828677  7255 net.cpp:425] relu7 <- fc7
I0730 11:19:07.828685  7255 net.cpp:386] relu7 -> fc7 (in-place)
I0730 11:19:07.830020  7255 net.cpp:141] Setting up relu7
I0730 11:19:07.830032  7255 net.cpp:148] Top shape: 10 4096 (40960)
I0730 11:19:07.830037  7255 net.cpp:156] Memory required for data: 68437560
I0730 11:19:07.830042  7255 layer_factory.hpp:77] Creating layer drop7
I0730 11:19:07.830051  7255 net.cpp:91] Creating Layer drop7
I0730 11:19:07.830055  7255 net.cpp:425] drop7 <- fc7
I0730 11:19:07.830061  7255 net.cpp:386] drop7 -> fc7 (in-place)
I0730 11:19:07.830102  7255 net.cpp:141] Setting up drop7
I0730 11:19:07.830111  7255 net.cpp:148] Top shape: 10 4096 (40960)
I0730 11:19:07.830116  7255 net.cpp:156] Memory required for data: 68601400
I0730 11:19:07.830119  7255 layer_factory.hpp:77] Creating layer fc8
I0730 11:19:07.830132  7255 net.cpp:91] Creating Layer fc8
I0730 11:19:07.830135  7255 net.cpp:425] fc8 <- fc7
I0730 11:19:07.830142  7255 net.cpp:399] fc8 -> fc8
I0730 11:19:07.842474  7255 net.cpp:141] Setting up fc8
I0730 11:19:07.842522  7255 net.cpp:148] Top shape: 10 1000 (10000)
I0730 11:19:07.842528  7255 net.cpp:156] Memory required for data: 68641400
I0730 11:19:07.842541  7255 layer_factory.hpp:77] Creating layer prob
I0730 11:19:07.842556  7255 net.cpp:91] Creating Layer prob
I0730 11:19:07.842562  7255 net.cpp:425] prob <- fc8
I0730 11:19:07.842574  7255 net.cpp:399] prob -> prob
I0730 11:19:07.842988  7255 net.cpp:141] Setting up prob
I0730 11:19:07.842999  7255 net.cpp:148] Top shape: 10 1000 (10000)
I0730 11:19:07.843003  7255 net.cpp:156] Memory required for data: 68681400
I0730 11:19:07.843009  7255 net.cpp:219] prob does not need backward computation.
I0730 11:19:07.843014  7255 net.cpp:219] fc8 does not need backward computation.
I0730 11:19:07.843019  7255 net.cpp:219] drop7 does not need backward computation.
I0730 11:19:07.843022  7255 net.cpp:219] relu7 does not need backward computation.
…
I0730 11:19:07.843088  7255 net.cpp:219] norm1 does not need backward computation.
I0730 11:19:07.843092  7255 net.cpp:219] pool1 does not need backward computation.
I0730 11:19:07.843096  7255 net.cpp:219] relu1 does not need backward computation.
I0730 11:19:07.843101  7255 net.cpp:219] conv1 does not need backward computation.
I0730 11:19:07.843104  7255 net.cpp:219] data does not need backward computation.
I0730 11:19:07.843107  7255 net.cpp:261] This network produces output prob
I0730 11:19:07.843127  7255 net.cpp:274] Network initialization done.
I0730 11:19:07.881105  7245 net.cpp:141] Setting up lstm2_x_transform
I0730 11:19:07.881165  7245 net.cpp:148] Top shape: 1 1 4000 (4000)
I0730 11:19:07.881171  7245 net.cpp:156] Memory required for data: 30020
I0730 11:19:07.881198  7245 layer_factory.hpp:77] Creating layer lstm2_W_xc_x_slice
I0730 11:19:07.881217  7245 net.cpp:91] Creating Layer lstm2_W_xc_x_slice
I0730 11:19:07.881224  7245 net.cpp:425] lstm2_W_xc_x_slice <- W_xc_x
I0730 11:19:07.881235  7245 net.cpp:399] lstm2_W_xc_x_slice -> W_xc_x_1
I0730 11:19:07.881290  7245 net.cpp:141] Setting up lstm2_W_xc_x_slice
I0730 11:19:07.881302  7245 net.cpp:148] Top shape: 1 1 4000 (4000)
I0730 11:19:07.881306  7245 net.cpp:156] Memory required for data: 46020
I0730 11:19:07.881311  7245 layer_factory.hpp:77] Creating layer lstm2_h_conted_0
I0730 11:19:07.881323  7245 net.cpp:91] Creating Layer lstm2_h_conted_0
I0730 11:19:07.881330  7245 net.cpp:425] lstm2_h_conted_0 <- h_0
I0730 11:19:07.881335  7245 net.cpp:425] lstm2_h_conted_0 <- cont_1_lstm2_cont_slice_0_split_0
I0730 11:19:07.881342  7245 net.cpp:399] lstm2_h_conted_0 -> h_conted_0
I0730 11:19:07.881443  7245 net.cpp:141] Setting up lstm2_h_conted_0
I0730 11:19:07.881453  7245 net.cpp:148] Top shape: 1 1 1000 (1000)
I0730 11:19:07.881458  7245 net.cpp:156] Memory required for data: 50020
I0730 11:19:07.881464  7245 layer_factory.hpp:77] Creating layer lstm2_transform_1
I0730 11:19:07.881477  7245 net.cpp:91] Creating Layer lstm2_transform_1
I0730 11:19:07.881482  7245 net.cpp:425] lstm2_transform_1 <- h_conted_0
I0730 11:19:07.881491  7245 net.cpp:399] lstm2_transform_1 -> W_hc_h_0
I0730 11:19:07.926069  7245 net.cpp:141] Setting up lstm2_transform_1
I0730 11:19:07.926141  7245 net.cpp:148] Top shape: 1 1 4000 (4000)
I0730 11:19:07.926149  7245 net.cpp:156] Memory required for data: 66020
I0730 11:19:07.926177  7245 layer_factory.hpp:77] Creating layer lstm2_gate_input_1
I0730 11:19:07.926201  7245 net.cpp:91] Creating Layer lstm2_gate_input_1
I0730 11:19:07.926210  7245 net.cpp:425] lstm2_gate_input_1 <- W_hc_h_0
I0730 11:19:07.926219  7245 net.cpp:425] lstm2_gate_input_1 <- W_xc_x_1
I0730 11:19:07.926229  7245 net.cpp:399] lstm2_gate_input_1 -> gate_input_1
I0730 11:19:07.926287  7245 net.cpp:141] Setting up lstm2_gate_input_1
I0730 11:19:07.926297  7245 net.cpp:148] Top shape: 1 1 4000 (4000)
I0730 11:19:07.926302  7245 net.cpp:156] Memory required for data: 82020
I0730 11:19:07.926307  7245 layer_factory.hpp:77] Creating layer lstm2_unit_1
I0730 11:19:07.926321  7245 net.cpp:91] Creating Layer lstm2_unit_1
I0730 11:19:07.926326  7245 net.cpp:425] lstm2_unit_1 <- c_0
I0730 11:19:07.926331  7245 net.cpp:425] lstm2_unit_1 <- gate_input_1
I0730 11:19:07.926337  7245 net.cpp:425] lstm2_unit_1 <- cont_1_lstm2_cont_slice_0_split_1
I0730 11:19:07.926344  7245 net.cpp:399] lstm2_unit_1 -> c_1
I0730 11:19:07.926354  7245 net.cpp:399] lstm2_unit_1 -> h_1
I0730 11:19:07.926426  7245 net.cpp:141] Setting up lstm2_unit_1
I0730 11:19:07.926436  7245 net.cpp:148] Top shape: 1 1 1000 (1000)
I0730 11:19:07.926442  7245 net.cpp:148] Top shape: 1 1 1000 (1000)
I0730 11:19:07.926447  7245 net.cpp:156] Memory required for data: 90020
I0730 11:19:07.926452  7245 layer_factory.hpp:77] Creating layer lstm2_
I0730 11:19:07.926461  7245 net.cpp:91] Creating Layer lstm2_
I0730 11:19:07.926466  7245 net.cpp:425] lstm2_ <- c_1
I0730 11:19:07.926473  7245 net.cpp:399] lstm2_ -> c_T
I0730 11:19:07.926506  7245 net.cpp:141] Setting up lstm2_
I0730 11:19:07.926514  7245 net.cpp:148] Top shape: 1 1 1000 (1000)
I0730 11:19:07.926519  7245 net.cpp:156] Memory required for data: 94020
I0730 11:19:07.926524  7245 layer_factory.hpp:77] Creating layer lstm2_h_concat
I0730 11:19:07.926538  7245 net.cpp:91] Creating Layer lstm2_h_concat
I0730 11:19:07.926544  7245 net.cpp:425] lstm2_h_concat <- h_1
I0730 11:19:07.926551  7245 net.cpp:399] lstm2_h_concat -> h
I0730 11:19:07.926591  7245 net.cpp:141] Setting up lstm2_h_concat
I0730 11:19:07.926600  7245 net.cpp:148] Top shape: 1 1 1000 (1000)
I0730 11:19:07.926605  7245 net.cpp:156] Memory required for data: 98020
I0730 11:19:07.926609  7245 layer_factory.hpp:77] Creating layer h_pseudoloss
I0730 11:19:07.926620  7245 net.cpp:91] Creating Layer h_pseudoloss
I0730 11:19:07.926625  7245 net.cpp:425] h_pseudoloss <- h
I0730 11:19:07.926635  7245 net.cpp:399] h_pseudoloss -> h_pseudoloss
I0730 11:19:07.926748  7245 net.cpp:141] Setting up h_pseudoloss
…
