…
W0924 03:42:29.680254  4325 upgrade_proto.cpp:71] Note that future Caffe releases will only support input layers and not input fields.
I0924 03:42:29.680559  4331 net.cpp:49] Initializing net from parameters: 
name: "s2vt:features_to_lstm"
state {
  phase: TEST
}
layer {
  name: "input"
  type: "Input"
  top: "frames_fc7"
  top: "cont_sentence"
  top: "input_sentence"
  top: "stage_indicator"
  input_param {
    shape {
      dim: 1
      dim: 4096
    }
    shape {
      dim: 1
      dim: 1
    }
    shape {
      dim: 1
      dim: 1
    }
    shape {
      dim: 1
      dim: 1
    }
  }
}
layer {
  name: "embed_encoder"
  type: "InnerProduct"
  bottom: "frames_fc7"
  top: "embedded_in_frames"
  param {
    lr_mult: 1
    decay_mult: 1
  }
  param {
    lr_mult: 2
    decay_mult: 0
  }
  inner_product_param {
    num_output: 500
    weight_filler {
      type: "xavier"
    }
    bias_filler {
      type: "constant"
      value: 0.2
    }
  }
}
layer {
  name: "reshape_frames"
  type: "Reshape"
  bottom: "embedded_in_frames"
  top: "embedded_input_frames"
  reshape_param {
    shape {
      dim: 1
      dim: 1
      dim: 500
    }
  }
}
layer {
  name: "reshape_stage_indicator"
  type: "Reshape"
  bottom: "stage_indicator"
  top: "reshaped_stage_indicator"
  reshape_param {
    shape {
      dim: 1
      dim: 1
      dim: 1
    }
  }
}
layer {
  name: "embedding"
  type: "Embed"
  bottom: "input_sentence"
  top: "embedded_input_sentence"
  param {
    lr_mult: 1
  }
  embed_param {
    num_output: 500
    input_dim: 46168
    bias_term: false
    weight_filler {
      type: "uniform"
      min: -0.08
      max: 0.08
    }
  }
}
layer {
  name: "lstm1"
  type: "LSTM"
  bottom: "embedded_input_frames"
  bottom: "cont_sentence"
  top: "lstm1"
  recurrent_param {
    num_output: 1000
    weight_filler {
      type: "uniform"
      min: -0.08
      max: 0.08
    }
    bias_filler {
      type: "constant"
      value: 0
    }
  }
}
layer {
  name: "concat"
  type: "Concat"
  bottom: "lstm1"
  bottom: "embedded_input_sentence"
  bottom: "reshaped_stage_indicator"
  top: "lstm1_video_sequence"
  concat_param {
    concat_dim: 2
  }
}
layer {
  name: "lstm2"
  type: "LSTM"
  bottom: "lstm1_video_sequence"
  bottom: "cont_sentence"
  top: "lstm2"
  recurrent_param {
    num_output: 1000
    weight_filler {
      type: "uniform"
      min: -0.08
      max: 0.08
    }
    bias_filler {
      type: "constant"
      value: 0
    }
  }
}
layer {
  name: "predict"
  type: "InnerProduct"
  bottom: "lstm2"
  top: "predict"
  param {
    lr_mult: 1
    decay_mult: 1
  }
  param {
    lr_mult: 2
    decay_mult: 0
  }
  inner_product_param {
    num_output: 46168
    weight_filler {
      type: "uniform"
      min: -0.08
      max: 0.08
    }
    bias_filler {
      type: "constant"
      value: 0
    }
    axis: 2
  }
}
layer {
  name: "probs"
  type: "Softmax"
  bottom: "predict"
  top: "probs"
  softmax_param {
    axis: 2
  }
}
I0924 03:42:29.680608  4321 upgrade_proto.cpp:66] Attempting to upgrade input file specified using deprecated input fields: /home/peifeng/work/run/storm102/data/workers/8964e0af-9967-4471-9b86-716a14a5c8ff/tmp/cvld2886650522518698677/s2vt.words_to_preds.prototxt
I0924 03:42:29.680606  4325 net.cpp:49] Initializing net from parameters: 
name: "s2vt:features_to_lstm"
state {
  phase: TEST
}
layer {
  name: "input"
  type: "Input"
  top: "frames_fc7"
  top: "cont_sentence"
  top: "input_sentence"
  top: "stage_indicator"
  input_param {
    shape {
      dim: 1
      dim: 4096
    }
    shape {
      dim: 1
      dim: 1
    }
    shape {
      dim: 1
      dim: 1
    }
    shape {
      dim: 1
      dim: 1
    }
  }
}
layer {
  name: "embed_encoder"
  type: "InnerProduct"
  bottom: "frames_fc7"
  top: "embedded_in_frames"
  param {
    lr_mult: 1
    decay_mult: 1
  }
  param {
    lr_mult: 2
    decay_mult: 0
  }
  inner_product_param {
    num_output: 500
    weight_filler {
      type: "xavier"
    }
    bias_filler {
      type: "constant"
      value: 0.2
    }
  }
}
layer {
  name: "reshape_frames"
  type: "Reshape"
  bottom: "embedded_in_frames"
  top: "embedded_input_frames"
  reshape_param {
    shape {
      dim: 1
      dim: 1
      dim: 500
    }
  }
}
layer {
  name: "reshape_stage_indicator"
  type: "Reshape"
  bottom: "stage_indicator"
  top: "reshaped_stage_indicator"
  reshape_param {
    shape {
      dim: 1
      dim: 1
      dim: 1
    }
  }
}
layer {
  name: "embedding"
  type: "Embed"
  bottom: "input_sentence"
  top: "embedded_input_sentence"
  param {
    lr_mult: 1
  }
  embed_param {
    num_output: 500
    input_dim: 46168
    bias_term: false
    weight_filler {
      type: "uniform"
      min: -0.08
      max: 0.08
    }
  }
}
layer {
  name: "lstm1"
  type: "LSTM"
  bottom: "embedded_input_frames"
  bottom: "cont_sentence"
  top: "lstm1"
  recurrent_param {
    num_output: 1000
    weight_filler {
      type: "uniform"
      min: -0.08
      max: 0.08
    }
    bias_filler {
      type: "constant"
      value: 0
    }
  }
}
layer {
  name: "concat"
  type: "Concat"
  bottom: "lstm1"
  bottom: "embedded_input_sentence"
  bottom: "reshaped_stage_indicator"
  top: "lstm1_video_sequence"
  concat_param {
    concat_dim: 2
  }
}
layer {
  name: "lstm2"
  type: "LSTM"
  bottom: "lstm1_video_sequence"
  bottom: "cont_sentence"
  top: "lstm2"
  recurrent_param {
    num_output: 1000
    weight_filler {
      type: "uniform"
      min: -0.08
      max: 0.08
    }
    bias_filler {
      type: "constant"
      value: 0
    }
  }
}
layer {
  name: "predict"
  type: "InnerProduct"
  bottom: "lstm2"
  top: "predict"
  param {
    lr_mult: 1
    decay_mult: 1
  }
  param {
    lr_mult: 2
    decay_mult: 0
  }
  inner_product_param {
    num_output: 46168
    weight_filler {
      type: "uniform"
      min: -0.08
      max: 0.08
    }
    bias_filler {
      type: "constant"
      value: 0
    }
    axis: 2
  }
}
layer {
  name: "probs"
  type: "Softmax"
  bottom: "predict"
  top: "probs"
  softmax_param {
    axis: 2
  }
}
I0924 03:42:29.680626  4321 upgrade_proto.cpp:69] Successfully upgraded file specified using deprecated input fields.
W0924 03:42:29.680632  4321 upgrade_proto.cpp:71] Note that future Caffe releases will only support input layers and not input fields.
I0924 03:42:29.680761  4327 upgrade_proto.cpp:66] Attempting to upgrade input file specified using deprecated input fields: /home/peifeng/work/run/storm102/data/workers/8964e0af-9967-4471-9b86-716a14a5c8ff/tmp/cvld2886650522518698677/s2vt.words_to_preds.prototxt
…
I0924 03:42:29.680933  4331 net.cpp:91] Creating Layer input
I0924 03:42:29.680933  4325 net.cpp:91] Creating Layer input
I0924 03:42:29.680956  4321 net.cpp:49] Initializing net from parameters: 
name: "s2vt:features_to_lstm"
state {
  phase: TEST
}
layer {
  name: "input"
  type: "Input"
  top: "frames_fc7"
  top: "cont_sentence"
  top: "input_sentence"
  top: "stage_indicator"
  input_param {
    shape {
      dim: 1
      dim: 4096
    }
    shape {
      dim: 1
      dim: 1
    }
    shape {
      dim: 1
      dim: 1
    }
    shape {
      dim: 1
      dim: 1
    }
  }
}
layer {
  name: "embed_encoder"
  type: "InnerProduct"
  bottom: "frames_fc7"
  top: "embedded_in_frames"
  param {
    lr_mult: 1
    decay_mult: 1
  }
  param {
    lr_mult: 2
    decay_mult: 0
  }
  inner_product_param {
    num_output: 500
    weight_filler {
      type: "xavier"
    }
    bias_filler {
      type: "constant"
      value: 0.2
    }
  }
}
layer {
  name: "reshape_frames"
  type: "Reshape"
  bottom: "embedded_in_frames"
  top: "embedded_input_frames"
  reshape_param {
    shape {
      dim: 1
      dim: 1
      dim: 500
    }
  }
}
layer {
  name: "reshape_stage_indicator"
  type: "Reshape"
  bottom: "stage_indicator"
  top: "reshaped_stage_indicator"
  reshape_param {
    shape {
      dim: 1
      dim: 1
      dim: 1
    }
  }
}
layer {
  name: "embedding"
  type: "Embed"
  bottom: "input_sentence"
  top: "embedded_input_sentence"
  param {
    lr_mult: 1
  }
  embed_param {
    num_output: 500
    input_dim: 46168
    bias_term: false
    weight_filler {
      type: "uniform"
      min: -0.08
      max: 0.08
    }
  }
}
layer {
  name: "lstm1"
  type: "LSTM"
  bottom: "embedded_input_frames"
  bottom: "cont_sentence"
  top: "lstm1"
  recurrent_param {
    num_output: 1000
    weight_filler {
      type: "uniform"
      min: -0.08
      max: 0.08
    }
    bias_filler {
      type: "constant"
      value: 0
    }
  }
}
layer {
  name: "concat"
  type: "Concat"
  bottom: "lstm1"
  bottom: "embedded_input_sentence"
  bottom: "reshaped_stage_indicator"
  top: "lstm1_video_sequence"
  concat_param {
    concat_dim: 2
  }
}
layer {
  name: "lstm2"
  type: "LSTM"
  bottom: "lstm1_video_sequence"
  bottom: "cont_sentence"
  top: "lstm2"
  recurrent_param {
    num_output: 1000
    weight_filler {
      type: "uniform"
      min: -0.08
      max: 0.08
    }
    bias_filler {
      type: "constant"
      value: 0
    }
  }
}
layer {
  name: "predict"
  type: "InnerProduct"
  bottom: "lstm2"
  top: "predict"
  param {
    lr_mult: 1
    decay_mult: 1
  }
  param {
    lr_mult: 2
    decay_mult: 0
  }
  inner_product_param {
    num_output: 46168
    weight_filler {
      type: "uniform"
      min: -0.08
      max: 0.08
    }
    bias_filler {
      type: "constant"
      value: 0
    }
    axis: 2
  }
}
layer {
  name: "probs"
  type: "Softmax"
  bottom: "predict"
  top: "probs"
  softmax_param {
    axis: 2
  }
}
I0924 03:42:29.680974  4325 net.cpp:399] input -> frames_fc7
I0924 03:42:29.680963  4331 net.cpp:399] input -> frames_fc7
I0924 03:42:29.681040  4331 net.cpp:399] input -> cont_sentence
I0924 03:42:29.681046  4325 net.cpp:399] input -> cont_sentence
I0924 03:42:29.681066  4331 net.cpp:399] input -> input_sentence
I0924 03:42:29.681069  4321 layer_factory.hpp:77] Creating layer input
I0924 03:42:29.681076  4325 net.cpp:399] input -> input_sentence
I0924 03:42:29.681085  4321 net.cpp:91] Creating Layer input
I0924 03:42:29.681087  4331 net.cpp:399] input -> stage_indicator
I0924 03:42:29.681094  4321 net.cpp:399] input -> frames_fc7
I0924 03:42:29.681099  4325 net.cpp:399] input -> stage_indicator
I0924 03:42:29.681099  4327 net.cpp:49] Initializing net from parameters: 
name: "s2vt:features_to_lstm"
state {
  phase: TEST
}
layer {
  name: "input"
  type: "Input"
  top: "frames_fc7"
  top: "cont_sentence"
  top: "input_sentence"
  top: "stage_indicator"
  input_param {
    shape {
      dim: 1
      dim: 4096
    }
    shape {
      dim: 1
      dim: 1
    }
    shape {
      dim: 1
      dim: 1
    }
    shape {
      dim: 1
      dim: 1
    }
  }
}
layer {
  name: "embed_encoder"
  type: "InnerProduct"
  bottom: "frames_fc7"
  top: "embedded_in_frames"
  param {
    lr_mult: 1
    decay_mult: 1
  }
  param {
    lr_mult: 2
    decay_mult: 0
  }
  inner_product_param {
    num_output: 500
    weight_filler {
      type: "xavier"
    }
    bias_filler {
      type: "constant"
      value: 0.2
    }
  }
}
layer {
  name: "reshape_frames"
  type: "Reshape"
  bottom: "embedded_in_frames"
  top: "embedded_input_frames"
  reshape_param {
    shape {
      dim: 1
      dim: 1
      dim: 500
    }
  }
}
layer {
  name: "reshape_stage_indicator"
  type: "Reshape"
  bottom: "stage_indicator"
  top: "reshaped_stage_indicator"
  reshape_param {
    shape {
      dim: 1
      dim: 1
      dim: 1
    }
  }
}
layer {
  name: "embedding"
  type: "Embed"
  bottom: "input_sentence"
  top: "embedded_input_sentence"
  param {
    lr_mult: 1
  }
  embed_param {
    num_output: 500
    input_dim: 46168
    bias_term: false
    weight_filler {
      type: "uniform"
      min: -0.08
      max: 0.08
    }
  }
}
layer {
  name: "lstm1"
  type: "LSTM"
  bottom: "embedded_input_frames"
  bottom: "cont_sentence"
  top: "lstm1"
  recurrent_param {
    num_output: 1000
    weight_filler {
      type: "uniform"
      min: -0.08
      max: 0.08
    }
    bias_filler {
      type: "constant"
      value: 0
    }
  }
}
layer {
  name: "concat"
  type: "Concat"
  bottom: "lstm1"
  bottom: "embedded_input_sentence"
  bottom: "reshaped_stage_indicator"
  top: "lstm1_video_sequence"
  concat_param {
    concat_dim: 2
  }
}
layer {
  name: "lstm2"
  type: "LSTM"
  bottom: "lstm1_video_sequence"
  bottom: "cont_sentence"
  top: "lstm2"
  recurrent_param {
    num_output: 1000
    weight_filler {
      type: "uniform"
      min: -0.08
      max: 0.08
    }
    bias_filler {
      type: "constant"
      value: 0
    }
  }
}
layer {
  name: "predict"
  type: "InnerProduct"
  bottom: "lstm2"
  top: "predict"
  param {
    lr_mult: 1
    decay_mult: 1
  }
  param {
    lr_mult: 2
    decay_mult: 0
  }
  inner_product_param {
    num_output: 46168
    weight_filler {
      type: "uniform"
      min: -0.08
      max: 0.08
    }
    bias_filler {
      type: "constant"
      value: 0
    }
    axis: 2
  }
}
layer {
  name: "probs"
  type: "Softmax"
  bottom: "predict"
  top: "probs"
  softmax_param {
    axis: 2
  }
}
I0924 03:42:29.681107  4321 net.cpp:399] input -> cont_sentence
I0924 03:42:29.681138  4321 net.cpp:399] input -> input_sentence
I0924 03:42:29.681162  4321 net.cpp:399] input -> stage_indicator
I0924 03:42:29.681231  4327 layer_factory.hpp:77] Creating layer input
I0924 03:42:29.681252  4327 net.cpp:91] Creating Layer input
I0924 03:42:29.681263  4327 net.cpp:399] input -> frames_fc7
I0924 03:42:29.681280  4327 net.cpp:399] input -> cont_sentence
I0924 03:42:29.681298  4327 net.cpp:399] input -> input_sentence
I0924 03:42:29.681304  4361 net.cpp:49] Initializing net from parameters: 
name: "CaffeNet"
state {
  phase: TEST
}
layer {
  name: "data"
  type: "Input"
  top: "data"
  input_param {
    shape {
      dim: 10
      dim: 3
      dim: 227
      dim: 227
    }
  }
}
layer {
  name: "conv1"
  type: "Convolution"
  bottom: "data"
  top: "conv1"
  convolution_param {
    num_output: 96
    kernel_size: 11
    stride: 4
  }
}
layer {
  name: "relu1"
  type: "ReLU"
  bottom: "conv1"
  top: "conv1"
}
layer {
  name: "pool1"
  type: "Pooling"
  bottom: "conv1"
  top: "pool1"
  pooling_param {
    pool: MAX
    kernel_size: 3
    stride: 2
  }
}
layer {
  name: "norm1"
  type: "LRN"
  bottom: "pool1"
  top: "norm1"
  lrn_param {
    local_size: 5
    alpha: 0.0001
    beta: 0.75
  }
}
layer {
  name: "conv2"
  type: "Convolution"
  bottom: "norm1"
  top: "conv2"
  convolution_param {
    num_output: 256
    pad: 2
    kernel_size: 5
    group: 2
  }
}
layer {
  name: "relu2"
  type: "ReLU"
  bottom: "conv2"
  top: "conv2"
}
layer {
  name: "pool2"
  type: "Pooling"
  bottom: "conv2"
  top: "pool2"
  pooling_param {
    pool: MAX
    kernel_size: 3
    stride: 2
  }
}
layer {
  name: "norm2"
  type: "LRN"
  bottom: "pool2"
  top: "norm2"
  lrn_param {
    local_size: 5
    alpha: 0.0001
    beta: 0.75
  }
}
layer {
  name: "conv3"
  type: "Convolution"
  bottom: "norm2"
  top: "conv3"
  convolution_param {
    num_output: 384
    pad: 1
    kernel_size: 3
  }
}
layer {
  name: "relu3"
  type: "ReLU"
  bottom: "conv3"
  top: "conv3"
}
layer {
  name: "conv4"
  type: "Convolution"
  bottom: "conv3"
  top: "conv4"
  convolution_param {
    num_output: 384
    pad: 1
    kernel_size: 3
    group: 2
  }
}
layer {
  name: "relu4"
  type: "ReLU"
  bottom: "conv4"
  top: "conv4"
}
layer {
  name: "conv5"
  type: "Convolution"
  bottom: "conv4"
  top: "conv5"
  convolution_param {
    num_output: 256
    pad: 1
    kernel_size: 3
    group: 2
  }
}
layer {
  name: "relu5"
  type: "ReLU"
  bottom: "conv5"
  top: "conv5"
}
layer {
  name: "pool5"
  type: "Pooling"
  bottom: "conv5"
  top: "pool5"
  pooling_param {
    pool: MAX
    kernel_size: 3
    stride: 2
  }
}
layer {
  name: "fc6"
  type: "InnerProduct"
  bottom: "pool5"
  top: "fc6"
  inner_product_param {
    num_output: 4096
  }
}
layer {
  name: "relu6"
  type: "ReLU"
  bottom: "fc6"
  top: "fc6"
}
layer {
  name: "drop6"
  type: "Dropout"
  bottom: "fc6"
  top: "fc6"
  dropout_param {
    dropout_ratio: 0.5
  }
}
layer {
  name: "fc7"
  type: "InnerProduct"
  bottom: "fc6"
  top: "fc7"
  inner_product_param {
    num_output: 4096
  }
}
layer {
  name: "relu7"
  type: "ReLU"
  bottom: "fc7"
  top: "fc7"
}
layer {
  name: "drop7"
  type: "Dropout"
  bottom: "fc7"
  top: "fc7"
  dropout_param {
    dropout_ratio: 0.5
  }
}
layer {
  name: "fc8"
  type: "InnerProduct"
  bottom: "fc7"
  top: "fc8"
  inner_product_param {
    num_output: 1000
  }
}
layer {
  name: "prob"
  type: "Softmax"
  bottom: "fc8"
  top: "prob"
}
I0924 03:42:29.681316  4327 net.cpp:399] input -> stage_indicator
I0924 03:42:29.681457  4361 layer_factory.hpp:77] Creating layer data
I0924 03:42:29.681478  4361 net.cpp:91] Creating Layer data
I0924 03:42:29.681484  4339 upgrade_proto.cpp:66] Attempting to upgrade input file specified using deprecated input fields: /home/peifeng/work/run/storm102/data/workers/8964e0af-9967-4471-9b86-716a14a5c8ff/tmp/cvld2886650522518698677/s2vt.words_to_preds.prototxt
I0924 03:42:29.681489  4361 net.cpp:399] data -> data
I0924 03:42:29.681514  4339 upgrade_proto.cpp:69] Successfully upgraded file specified using deprecated input fields.
W0924 03:42:29.681524  4339 upgrade_proto.cpp:71] Note that future Caffe releases will only support input layers and not input fields.
I0924 03:42:29.681711  4339 net.cpp:49] Initializing net from parameters: 
name: "s2vt:features_to_lstm"
state {
  phase: TEST
}
layer {
  name: "input"
  type: "Input"
  top: "frames_fc7"
  top: "cont_sentence"
  top: "input_sentence"
  top: "stage_indicator"
  input_param {
    shape {
      dim: 1
      dim: 4096
    }
    shape {
      dim: 1
      dim: 1
    }
    shape {
      dim: 1
      dim: 1
    }
    shape {
      dim: 1
      dim: 1
    }
  }
}
layer {
  name: "embed_encoder"
  type: "InnerProduct"
  bottom: "frames_fc7"
  top: "embedded_in_frames"
  param {
    lr_mult: 1
    decay_mult: 1
  }
  param {
    lr_mult: 2
    decay_mult: 0
  }
  inner_product_param {
    num_output: 500
    weight_filler {
      type: "xavier"
    }
    bias_filler {
      type: "constant"
      value: 0.2
    }
  }
}
layer {
  name: "reshape_frames"
  type: "Reshape"
  bottom: "embedded_in_frames"
  top: "embedded_input_frames"
  reshape_param {
    shape {
      dim: 1
      dim: 1
      dim: 500
    }
  }
}
layer {
  name: "reshape_stage_indicator"
  type: "Reshape"
  bottom: "stage_indicator"
  top: "reshaped_stage_indicator"
  reshape_param {
    shape {
      dim: 1
      dim: 1
      dim: 1
    }
  }
}
layer {
  name: "embedding"
  type: "Embed"
  bottom: "input_sentence"
  top: "embedded_input_sentence"
  param {
    lr_mult: 1
  }
  embed_param {
    num_output: 500
    input_dim: 46168
    bias_term: false
    weight_filler {
      type: "uniform"
      min: -0.08
      max: 0.08
    }
  }
}
layer {
  name: "lstm1"
  type: "LSTM"
  bottom: "embedded_input_frames"
  bottom: "cont_sentence"
  top: "lstm1"
  recurrent_param {
    num_output: 1000
    weight_filler {
      type: "uniform"
      min: -0.08
      max: 0.08
    }
    bias_filler {
      type: "constant"
      value: 0
    }
  }
}
layer {
  name: "concat"
  type: "Concat"
  bottom: "lstm1"
  bottom: "embedded_input_sentence"
  bottom: "reshaped_stage_indicator"
  top: "lstm1_video_sequence"
  concat_param {
    concat_dim: 2
  }
}
layer {
  name: "lstm2"
  type: "LSTM"
  bottom: "lstm1_video_sequence"
  bottom: "cont_sentence"
  top: "lstm2"
  recurrent_param {
    num_output: 1000
    weight_filler {
      type: "uniform"
      min: -0.08
      max: 0.08
    }
    bias_filler {
      type: "constant"
      value: 0
    }
  }
}
layer {
  name: "predict"
  type: "InnerProduct"
  bottom: "lstm2"
  top: "predict"
  param {
    lr_mult: 1
    decay_mult: 1
  }
  param {
    lr_mult: 2
    decay_mult: 0
  }
  inner_product_param {
    num_output: 46168
    weight_filler {
      type: "uniform"
      min: -0.08
      max: 0.08
    }
    bias_filler {
      type: "constant"
      value: 0
    }
    axis: 2
  }
}
layer {
  name: "probs"
  type: "Softmax"
  bottom: "predict"
  top: "probs"
  softmax_param {
    axis: 2
  }
}
I0924 03:42:29.681794  4339 layer_factory.hpp:77] Creating layer input
I0924 03:42:29.681807  4339 net.cpp:91] Creating Layer input
I0924 03:42:29.681814  4339 net.cpp:399] input -> frames_fc7
I0924 03:42:29.681828  4339 net.cpp:399] input -> cont_sentence
I0924 03:42:29.681838  4339 net.cpp:399] input -> input_sentence
I0924 03:42:29.681849  4339 net.cpp:399] input -> stage_indicator
I0924 03:42:29.682451  4359 net.cpp:49] Initializing net from parameters: 
name: "s2vt:features_to_lstm"
state {
  phase: TEST
}
layer {
  name: "input"
  type: "Input"
  top: "frames_fc7"
  top: "cont_sentence"
  top: "input_sentence"
  top: "stage_indicator"
  input_param {
    shape {
      dim: 1
      dim: 4096
    }
    shape {
      dim: 1
      dim: 1
    }
    shape {
      dim: 1
      dim: 1
    }
    shape {
      dim: 1
      dim: 1
    }
  }
}
layer {
  name: "embed_encoder"
  type: "InnerProduct"
  bottom: "frames_fc7"
  top: "embedded_in_frames"
  param {
    lr_mult: 1
    decay_mult: 1
  }
  param {
    lr_mult: 2
    decay_mult: 0
  }
  inner_product_param {
    num_output: 500
    weight_filler {
      type: "xavier"
    }
    bias_filler {
      type: "constant"
      value: 0.2
    }
  }
}
layer {
  name: "reshape_frames"
  type: "Reshape"
  bottom: "embedded_in_frames"
  top: "embedded_input_frames"
  reshape_param {
    shape {
      dim: 1
      dim: 1
      dim: 500
    }
  }
}
layer {
  name: "reshape_stage_indicator"
  type: "Reshape"
  bottom: "stage_indicator"
  top: "reshaped_stage_indicator"
  reshape_param {
    shape {
      dim: 1
      dim: 1
      dim: 1
    }
  }
}
layer {
  name: "embedding"
  type: "Embed"
  bottom: "input_sentence"
  top: "embedded_input_sentence"
  param {
    lr_mult: 1
  }
  embed_param {
    num_output: 500
    input_dim: 46168
    bias_term: false
    weight_filler {
      type: "uniform"
      min: -0.08
      max: 0.08
    }
  }
}
layer {
  name: "lstm1"
  type: "LSTM"
  bottom: "embedded_input_frames"
  bottom: "cont_sentence"
  top: "lstm1"
  recurrent_param {
    num_output: 1000
    weight_filler {
      type: "uniform"
      min: -0.08
      max: 0.08
    }
    bias_filler {
      type: "constant"
      value: 0
    }
  }
}
layer {
  name: "concat"
  type: "Concat"
  bottom: "lstm1"
  bottom: "embedded_input_sentence"
  bottom: "reshaped_stage_indicator"
  top: "lstm1_video_sequence"
  concat_param {
    concat_dim: 2
  }
}
layer {
  name: "lstm2"
  type: "LSTM"
  bottom: "lstm1_video_sequence"
  bottom: "cont_sentence"
  top: "lstm2"
  recurrent_param {
    num_output: 1000
    weight_filler {
      type: "uniform"
      min: -0.08
      max: 0.08
    }
    bias_filler {
      type: "constant"
      value: 0
    }
  }
}
layer {
  name: "predict"
  type: "InnerProduct"
  bottom: "lstm2"
  top: "predict"
  param {
    lr_mult: 1
    decay_mult: 1
  }
  param {
    lr_mult: 2
    decay_mult: 0
  }
  inner_product_param {
    num_output: 46168
    weight_filler {
      type: "uniform"
      min: -0.08
      max: 0.08
    }
    bias_filler {
      type: "constant"
      value: 0
    }
    axis: 2
  }
}
layer {
  name: "probs"
  type: "Softmax"
  bottom: "predict"
  top: "probs"
  softmax_param {
    axis: 2
  }
}
I0924 03:42:29.682492  4369 upgrade_proto.cpp:66] Attempting to upgrade input file specified using deprecated input fields: /home/peifeng/work/run/storm102/data/workers/8964e0af-9967-4471-9b86-716a14a5c8ff/tmp/cvld2886650522518698677/s2vt.words_to_preds.prototxt
I0924 03:42:29.682515  4369 upgrade_proto.cpp:69] Successfully upgraded file specified using deprecated input fields.
W0924 03:42:29.682523  4369 upgrade_proto.cpp:71] Note that future Caffe releases will only support input layers and not input fields.
I0924 03:42:29.682581  4359 layer_factory.hpp:77] Creating layer input
I0924 03:42:29.682612  4359 net.cpp:91] Creating Layer input
I0924 03:42:29.682627  4359 net.cpp:399] input -> frames_fc7
I0924 03:42:29.682647  4359 net.cpp:399] input -> cont_sentence
I0924 03:42:29.682664  4359 net.cpp:399] input -> input_sentence
I0924 03:42:29.682682  4359 net.cpp:399] input -> stage_indicator
I0924 03:42:29.682878  4369 net.cpp:49] Initializing net from parameters: 
name: "s2vt:features_to_lstm"
state {
  phase: TEST
}
layer {
  name: "input"
  type: "Input"
  top: "frames_fc7"
  top: "cont_sentence"
  top: "input_sentence"
  top: "stage_indicator"
  input_param {
    shape {
      dim: 1
      dim: 4096
    }
    shape {
      dim: 1
      dim: 1
    }
    shape {
      dim: 1
      dim: 1
    }
    shape {
      dim: 1
      dim: 1
    }
  }
}
layer {
  name: "embed_encoder"
  type: "InnerProduct"
  bottom: "frames_fc7"
  top: "embedded_in_frames"
  param {
    lr_mult: 1
    decay_mult: 1
  }
  param {
    lr_mult: 2
    decay_mult: 0
  }
  inner_product_param {
    num_output: 500
    weight_filler {
      type: "xavier"
    }
    bias_filler {
      type: "constant"
      value: 0.2
    }
  }
}
layer {
  name: "reshape_frames"
  type: "Reshape"
  bottom: "embedded_in_frames"
  top: "embedded_input_frames"
  reshape_param {
    shape {
      dim: 1
      dim: 1
      dim: 500
    }
  }
}
layer {
  name: "reshape_stage_indicator"
  type: "Reshape"
  bottom: "stage_indicator"
  top: "reshaped_stage_indicator"
  reshape_param {
    shape {
      dim: 1
      dim: 1
      dim: 1
    }
  }
}
layer {
  name: "embedding"
  type: "Embed"
  bottom: "input_sentence"
  top: "embedded_input_sentence"
  param {
    lr_mult: 1
  }
  embed_param {
    num_output: 500
    input_dim: 46168
    bias_term: false
    weight_filler {
      type: "uniform"
      min: -0.08
      max: 0.08
    }
  }
}
layer {
  name: "lstm1"
  type: "LSTM"
  bottom: "embedded_input_frames"
  bottom: "cont_sentence"
  top: "lstm1"
  recurrent_param {
    num_output: 1000
    weight_filler {
      type: "uniform"
      min: -0.08
      max: 0.08
    }
    bias_filler {
      type: "constant"
      value: 0
    }
  }
}
layer {
  name: "concat"
  type: "Concat"
  bottom: "lstm1"
  bottom: "embedded_input_sentence"
  bottom: "reshaped_stage_indicator"
  top: "lstm1_video_sequence"
  concat_param {
    concat_dim: 2
  }
}
layer {
  name: "lstm2"
  type: "LSTM"
  bottom: "lstm1_video_sequence"
  bottom: "cont_sentence"
  top: "lstm2"
  recurrent_param {
    num_output: 1000
    weight_filler {
      type: "uniform"
      min: -0.08
      max: 0.08
    }
    bias_filler {
      type: "constant"
      value: 0
    }
  }
}
layer {
  name: "predict"
  type: "InnerProduct"
  bottom: "lstm2"
  top: "predict"
  param {
    lr_mult: 1
    decay_mult: 1
  }
  param {
    lr_mult: 2
    decay_mult: 0
  }
  inner_product_param {
    num_output: 46168
    weight_filler {
      type: "uniform"
      min: -0.08
      max: 0.08
    }
    bias_filler {
      type: "constant"
      value: 0
    }
    axis: 2
  }
}
layer {
  name: "probs"
  type: "Softmax"
  bottom: "predict"
  top: "probs"
  softmax_param {
    axis: 2
  }
}
I0924 03:42:29.683017  4369 layer_factory.hpp:77] Creating layer input
I0924 03:42:29.683037  4369 net.cpp:91] Creating Layer input
I0924 03:42:29.683048  4369 net.cpp:399] input -> frames_fc7
I0924 03:42:29.683068  4369 net.cpp:399] input -> cont_sentence
I0924 03:42:29.683087  4369 net.cpp:399] input -> input_sentence
I0924 03:42:29.683105  4369 net.cpp:399] input -> stage_indicator
I0924 03:42:29.683145  4343 upgrade_proto.cpp:66] Attempting to upgrade input file specified using deprecated input fields: /home/peifeng/work/run/storm102/data/workers/8964e0af-9967-4471-9b86-716a14a5c8ff/tmp/cvld2886650522518698677/s2vt.words_to_preds.prototxt
I0924 03:42:29.683166  4343 upgrade_proto.cpp:69] Successfully upgraded file specified using deprecated input fields.
W0924 03:42:29.683172  4343 upgrade_proto.cpp:71] Note that future Caffe releases will only support input layers and not input fields.
I0924 03:42:29.683455  4343 net.cpp:49] Initializing net from parameters: 
name: "s2vt:features_to_lstm"
state {
  phase: TEST
}
layer {
  name: "input"
  type: "Input"
  top: "frames_fc7"
  top: "cont_sentence"
  top: "input_sentence"
  top: "stage_indicator"
  input_param {
    shape {
      dim: 1
      dim: 4096
    }
    shape {
      dim: 1
      dim: 1
    }
    shape {
      dim: 1
      dim: 1
    }
    shape {
      dim: 1
      dim: 1
    }
  }
}
layer {
  name: "embed_encoder"
  type: "InnerProduct"
  bottom: "frames_fc7"
  top: "embedded_in_frames"
  param {
    lr_mult: 1
    decay_mult: 1
  }
  param {
    lr_mult: 2
    decay_mult: 0
  }
  inner_product_param {
    num_output: 500
    weight_filler {
      type: "xavier"
    }
    bias_filler {
      type: "constant"
      value: 0.2
    }
  }
}
layer {
  name: "reshape_frames"
  type: "Reshape"
  bottom: "embedded_in_frames"
  top: "embedded_input_frames"
  reshape_param {
    shape {
      dim: 1
      dim: 1
      dim: 500
    }
  }
}
layer {
  name: "reshape_stage_indicator"
  type: "Reshape"
  bottom: "stage_indicator"
  top: "reshaped_stage_indicator"
  reshape_param {
    shape {
      dim: 1
      dim: 1
      dim: 1
    }
  }
}
layer {
  name: "embedding"
  type: "Embed"
  bottom: "input_sentence"
  top: "embedded_input_sentence"
  param {
    lr_mult: 1
  }
  embed_param {
    num_output: 500
    input_dim: 46168
    bias_term: false
    weight_filler {
      type: "uniform"
      min: -0.08
      max: 0.08
    }
  }
}
layer {
  name: "lstm1"
  type: "LSTM"
  bottom: "embedded_input_frames"
  bottom: "cont_sentence"
  top: "lstm1"
  recurrent_param {
    num_output: 1000
    weight_filler {
      type: "uniform"
      min: -0.08
      max: 0.08
    }
    bias_filler {
      type: "constant"
      value: 0
    }
  }
}
layer {
  name: "concat"
  type: "Concat"
  bottom: "lstm1"
  bottom: "embedded_input_sentence"
  bottom: "reshaped_stage_indicator"
  top: "lstm1_video_sequence"
  concat_param {
    concat_dim: 2
  }
}
layer {
  name: "lstm2"
  type: "LSTM"
  bottom: "lstm1_video_sequence"
  bottom: "cont_sentence"
  top: "lstm2"
  recurrent_param {
    num_output: 1000
    weight_filler {
      type: "uniform"
      min: -0.08
      max: 0.08
    }
    bias_filler {
      type: "constant"
      value: 0
    }
  }
}
layer {
  name: "predict"
  type: "InnerProduct"
  bottom: "lstm2"
  top: "predict"
  param {
    lr_mult: 1
    decay_mult: 1
  }
  param {
    lr_mult: 2
    decay_mult: 0
  }
  inner_product_param {
    num_output: 46168
    weight_filler {
      type: "uniform"
      min: -0.08
      max: 0.08
    }
    bias_filler {
      type: "constant"
      value: 0
    }
    axis: 2
  }
}
layer {
  name: "probs"
  type: "Softmax"
  bottom: "predict"
  top: "probs"
  softmax_param {
    axis: 2
  }
}
I0924 03:42:29.683573  4343 layer_factory.hpp:77] Creating layer input
I0924 03:42:29.683593  4343 net.cpp:91] Creating Layer input
I0924 03:42:29.683604  4343 net.cpp:399] input -> frames_fc7
I0924 03:42:29.683621  4343 net.cpp:399] input -> cont_sentence
I0924 03:42:29.683640  4343 net.cpp:399] input -> input_sentence
I0924 03:42:29.683656  4343 net.cpp:399] input -> stage_indicator
I0924 03:42:30.460716  4361 net.cpp:141] Setting up data
I0924 03:42:30.460840  4361 net.cpp:148] Top shape: 10 3 227 227 (1545870)
I0924 03:42:30.460856  4359 net.cpp:141] Setting up input
I0924 03:42:30.460888  4359 net.cpp:148] Top shape: 1 4096 (4096)
I0924 03:42:30.460901  4359 net.cpp:148] Top shape: 1 1 (1)
I0924 03:42:30.460911  4359 net.cpp:148] Top shape: 1 1 (1)
I0924 03:42:30.460921  4359 net.cpp:148] Top shape: 1 1 (1)
I0924 03:42:30.460929  4359 net.cpp:156] Memory required for data: 16396
I0924 03:42:30.461030  4369 net.cpp:141] Setting up input
I0924 03:42:30.461024  4359 layer_factory.hpp:77] Creating layer cont_sentence_input_1_split
I0924 03:42:30.461082  4369 net.cpp:148] Top shape: 1 4096 (4096)
I0924 03:42:30.461097  4369 net.cpp:148] Top shape: 1 1 (1)
I0924 03:42:30.461102  4369 net.cpp:148] Top shape: 1 1 (1)
I0924 03:42:30.461105  4359 net.cpp:91] Creating Layer cont_sentence_input_1_split
I0924 03:42:30.461108  4369 net.cpp:148] Top shape: 1 1 (1)
I0924 03:42:30.461125  4369 net.cpp:156] Memory required for data: 16396
I0924 03:42:30.461128  4359 net.cpp:425] cont_sentence_input_1_split <- cont_sentence
I0924 03:42:30.461133  4369 layer_factory.hpp:77] Creating layer cont_sentence_input_1_split
I0924 03:42:30.461145  4369 net.cpp:91] Creating Layer cont_sentence_input_1_split
I0924 03:42:30.461153  4369 net.cpp:425] cont_sentence_input_1_split <- cont_sentence
I0924 03:42:30.461153  4321 net.cpp:141] Setting up input
I0924 03:42:30.461166  4369 net.cpp:399] cont_sentence_input_1_split -> cont_sentence_input_1_split_0
I0924 03:42:30.461179  4321 net.cpp:148] Top shape: 1 4096 (4096)
I0924 03:42:30.461166  4359 net.cpp:399] cont_sentence_input_1_split -> cont_sentence_input_1_split_0
I0924 03:42:30.461194  4369 net.cpp:399] cont_sentence_input_1_split -> cont_sentence_input_1_split_1
I0924 03:42:30.461202  4321 net.cpp:148] Top shape: 1 1 (1)
I0924 03:42:30.461216  4321 net.cpp:148] Top shape: 1 1 (1)
I0924 03:42:30.461217  4359 net.cpp:399] cont_sentence_input_1_split -> cont_sentence_input_1_split_1
I0924 03:42:30.460855  4361 net.cpp:156] Memory required for data: 6183480
I0924 03:42:30.461228  4321 net.cpp:148] Top shape: 1 1 (1)
I0924 03:42:30.461254  4361 layer_factory.hpp:77] Creating layer conv1
I0924 03:42:30.461258  4321 net.cpp:156] Memory required for data: 16396
I0924 03:42:30.461282  4369 net.cpp:141] Setting up cont_sentence_input_1_split
I0924 03:42:30.461284  4321 layer_factory.hpp:77] Creating layer cont_sentence_input_1_split
I0924 03:42:30.461292  4369 net.cpp:148] Top shape: 1 1 (1)
I0924 03:42:30.461308  4369 net.cpp:148] Top shape: 1 1 (1)
I0924 03:42:30.461313  4321 net.cpp:91] Creating Layer cont_sentence_input_1_split
I0924 03:42:30.461313  4369 net.cpp:156] Memory required for data: 16404
I0924 03:42:30.461311  4361 net.cpp:91] Creating Layer conv1
I0924 03:42:30.461335  4321 net.cpp:425] cont_sentence_input_1_split <- cont_sentence
I0924 03:42:30.461335  4369 layer_factory.hpp:77] Creating layer embed_encoder
I0924 03:42:30.461350  4361 net.cpp:425] conv1 <- data
I0924 03:42:30.461355  4321 net.cpp:399] cont_sentence_input_1_split -> cont_sentence_input_1_split_0
I0924 03:42:30.461370  4369 net.cpp:91] Creating Layer embed_encoder
I0924 03:42:30.461375  4361 net.cpp:399] conv1 -> conv1
I0924 03:42:30.461379  4369 net.cpp:425] embed_encoder <- frames_fc7
I0924 03:42:30.461376  4321 net.cpp:399] cont_sentence_input_1_split -> cont_sentence_input_1_split_1
I0924 03:42:30.461406  4369 net.cpp:399] embed_encoder -> embedded_in_frames
I0924 03:42:30.461415  4343 net.cpp:141] Setting up input
I0924 03:42:30.461433  4343 net.cpp:148] Top shape: 1 4096 (4096)
I0924 03:42:30.461441  4343 net.cpp:148] Top shape: 1 1 (1)
I0924 03:42:30.461447  4343 net.cpp:148] Top shape: 1 1 (1)
I0924 03:42:30.461453  4343 net.cpp:148] Top shape: 1 1 (1)
I0924 03:42:30.461457  4343 net.cpp:156] Memory required for data: 16396
I0924 03:42:30.461464  4343 layer_factory.hpp:77] Creating layer cont_sentence_input_1_split
I0924 03:42:30.461477  4343 net.cpp:91] Creating Layer cont_sentence_input_1_split
I0924 03:42:30.461483  4343 net.cpp:425] cont_sentence_input_1_split <- cont_sentence
I0924 03:42:30.461496  4343 net.cpp:399] cont_sentence_input_1_split -> cont_sentence_input_1_split_0
I0924 03:42:30.461508  4343 net.cpp:399] cont_sentence_input_1_split -> cont_sentence_input_1_split_1
I0924 03:42:30.461549  4359 net.cpp:141] Setting up cont_sentence_input_1_split
I0924 03:42:30.461566  4359 net.cpp:148] Top shape: 1 1 (1)
I0924 03:42:30.461577  4359 net.cpp:148] Top shape: 1 1 (1)
I0924 03:42:30.461585  4359 net.cpp:156] Memory required for data: 16404
I0924 03:42:30.461594  4359 layer_factory.hpp:77] Creating layer embed_encoder
I0924 03:42:30.461612  4359 net.cpp:91] Creating Layer embed_encoder
I0924 03:42:30.461621  4359 net.cpp:425] embed_encoder <- frames_fc7
I0924 03:42:30.461634  4359 net.cpp:399] embed_encoder -> embedded_in_frames
I0924 03:42:30.461675  4327 net.cpp:141] Setting up input
I0924 03:42:30.461694  4327 net.cpp:148] Top shape: 1 4096 (4096)
I0924 03:42:30.461702  4327 net.cpp:148] Top shape: 1 1 (1)
I0924 03:42:30.461709  4327 net.cpp:148] Top shape: 1 1 (1)
I0924 03:42:30.461714  4327 net.cpp:148] Top shape: 1 1 (1)
I0924 03:42:30.461717  4327 net.cpp:156] Memory required for data: 16396
I0924 03:42:30.461722  4327 layer_factory.hpp:77] Creating layer cont_sentence_input_1_split
I0924 03:42:30.461738  4327 net.cpp:91] Creating Layer cont_sentence_input_1_split
I0924 03:42:30.461745  4327 net.cpp:425] cont_sentence_input_1_split <- cont_sentence
I0924 03:42:30.461752  4327 net.cpp:399] cont_sentence_input_1_split -> cont_sentence_input_1_split_0
I0924 03:42:30.461765  4327 net.cpp:399] cont_sentence_input_1_split -> cont_sentence_input_1_split_1
I0924 03:42:30.461778  4321 net.cpp:141] Setting up cont_sentence_input_1_split
I0924 03:42:30.461801  4321 net.cpp:148] Top shape: 1 1 (1)
I0924 03:42:30.461813  4321 net.cpp:148] Top shape: 1 1 (1)
I0924 03:42:30.461822  4321 net.cpp:156] Memory required for data: 16404
I0924 03:42:30.461833  4321 layer_factory.hpp:77] Creating layer embed_encoder
I0924 03:42:30.461851  4321 net.cpp:91] Creating Layer embed_encoder
I0924 03:42:30.461861  4321 net.cpp:425] embed_encoder <- frames_fc7
I0924 03:42:30.461879  4321 net.cpp:399] embed_encoder -> embedded_in_frames
I0924 03:42:30.461906  4331 net.cpp:141] Setting up input
I0924 03:42:30.461927  4331 net.cpp:148] Top shape: 1 4096 (4096)
I0924 03:42:30.461935  4331 net.cpp:148] Top shape: 1 1 (1)
I0924 03:42:30.461941  4331 net.cpp:148] Top shape: 1 1 (1)
I0924 03:42:30.461946  4331 net.cpp:148] Top shape: 1 1 (1)
I0924 03:42:30.461951  4331 net.cpp:156] Memory required for data: 16396
I0924 03:42:30.461956  4331 layer_factory.hpp:77] Creating layer cont_sentence_input_1_split
I0924 03:42:30.461966  4331 net.cpp:91] Creating Layer cont_sentence_input_1_split
I0924 03:42:30.461974  4331 net.cpp:425] cont_sentence_input_1_split <- cont_sentence
I0924 03:42:30.461987  4331 net.cpp:399] cont_sentence_input_1_split -> cont_sentence_input_1_split_0
I0924 03:42:30.462004  4331 net.cpp:399] cont_sentence_input_1_split -> cont_sentence_input_1_split_1
I0924 03:42:30.462112  4327 net.cpp:141] Setting up cont_sentence_input_1_split
I0924 03:42:30.462126  4327 net.cpp:148] Top shape: 1 1 (1)
I0924 03:42:30.462131  4327 net.cpp:148] Top shape: 1 1 (1)
I0924 03:42:30.462136  4327 net.cpp:156] Memory required for data: 16404
I0924 03:42:30.462137  4343 net.cpp:141] Setting up cont_sentence_input_1_split
I0924 03:42:30.462141  4327 layer_factory.hpp:77] Creating layer embed_encoder
I0924 03:42:30.462162  4343 net.cpp:148] Top shape: 1 1 (1)
I0924 03:42:30.462167  4343 net.cpp:148] Top shape: 1 1 (1)
I0924 03:42:30.462172  4343 net.cpp:156] Memory required for data: 16404
I0924 03:42:30.462173  4327 net.cpp:91] Creating Layer embed_encoder
I0924 03:42:30.462177  4343 layer_factory.hpp:77] Creating layer embed_encoder
I0924 03:42:30.462182  4327 net.cpp:425] embed_encoder <- frames_fc7
I0924 03:42:30.462189  4327 net.cpp:399] embed_encoder -> embedded_in_frames
I0924 03:42:30.462190  4343 net.cpp:91] Creating Layer embed_encoder
I0924 03:42:30.462198  4343 net.cpp:425] embed_encoder <- frames_fc7
I0924 03:42:30.462214  4343 net.cpp:399] embed_encoder -> embedded_in_frames
I0924 03:42:30.473542  4325 net.cpp:141] Setting up input
I0924 03:42:30.473601  4325 net.cpp:148] Top shape: 1 4096 (4096)
I0924 03:42:30.473615  4325 net.cpp:148] Top shape: 1 1 (1)
I0924 03:42:30.473625  4325 net.cpp:148] Top shape: 1 1 (1)
I0924 03:42:30.473634  4325 net.cpp:148] Top shape: 1 1 (1)
I0924 03:42:30.473641  4325 net.cpp:156] Memory required for data: 16396
I0924 03:42:30.473659  4325 layer_factory.hpp:77] Creating layer cont_sentence_input_1_split
I0924 03:42:30.473685  4325 net.cpp:91] Creating Layer cont_sentence_input_1_split
I0924 03:42:30.473697  4325 net.cpp:425] cont_sentence_input_1_split <- cont_sentence
I0924 03:42:30.473714  4325 net.cpp:399] cont_sentence_input_1_split -> cont_sentence_input_1_split_0
I0924 03:42:30.473738  4325 net.cpp:399] cont_sentence_input_1_split -> cont_sentence_input_1_split_1
I0924 03:42:30.489245  4321 net.cpp:141] Setting up embed_encoder
I0924 03:42:30.489297  4321 net.cpp:148] Top shape: 1 500 (500)
I0924 03:42:30.489306  4321 net.cpp:156] Memory required for data: 18404
I0924 03:42:30.489341  4321 layer_factory.hpp:77] Creating layer reshape_frames
I0924 03:42:30.489378  4321 net.cpp:91] Creating Layer reshape_frames
I0924 03:42:30.489392  4321 net.cpp:425] reshape_frames <- embedded_in_frames
I0924 03:42:30.489408  4321 net.cpp:399] reshape_frames -> embedded_input_frames
I0924 03:42:30.489481  4321 net.cpp:141] Setting up reshape_frames
I0924 03:42:30.489497  4321 net.cpp:148] Top shape: 1 1 500 (500)
I0924 03:42:30.489504  4321 net.cpp:156] Memory required for data: 20404
I0924 03:42:30.489512  4321 layer_factory.hpp:77] Creating layer reshape_stage_indicator
I0924 03:42:30.489545  4321 net.cpp:91] Creating Layer reshape_stage_indicator
I0924 03:42:30.489557  4321 net.cpp:425] reshape_stage_indicator <- stage_indicator
I0924 03:42:30.489583  4321 net.cpp:399] reshape_stage_indicator -> reshaped_stage_indicator
I0924 03:42:30.489667  4321 net.cpp:141] Setting up reshape_stage_indicator
I0924 03:42:30.489686  4321 net.cpp:148] Top shape: 1 1 1 (1)
I0924 03:42:30.489693  4321 net.cpp:156] Memory required for data: 20408
I0924 03:42:30.489702  4321 layer_factory.hpp:77] Creating layer embedding
I0924 03:42:30.489720  4321 net.cpp:91] Creating Layer embedding
I0924 03:42:30.489729  4321 net.cpp:425] embedding <- input_sentence
I0924 03:42:30.489743  4321 net.cpp:399] embedding -> embedded_input_sentence
I0924 03:42:30.533485  4339 net.cpp:141] Setting up input
I0924 03:42:30.533552  4339 net.cpp:148] Top shape: 1 4096 (4096)
I0924 03:42:30.533565  4339 net.cpp:148] Top shape: 1 1 (1)
I0924 03:42:30.533574  4339 net.cpp:148] Top shape: 1 1 (1)
I0924 03:42:30.533583  4339 net.cpp:148] Top shape: 1 1 (1)
I0924 03:42:30.533591  4339 net.cpp:156] Memory required for data: 16396
I0924 03:42:30.533603  4339 layer_factory.hpp:77] Creating layer cont_sentence_input_1_split
I0924 03:42:30.533629  4339 net.cpp:91] Creating Layer cont_sentence_input_1_split
I0924 03:42:30.533639  4339 net.cpp:425] cont_sentence_input_1_split <- cont_sentence
I0924 03:42:30.533655  4339 net.cpp:399] cont_sentence_input_1_split -> cont_sentence_input_1_split_0
I0924 03:42:30.533675  4339 net.cpp:399] cont_sentence_input_1_split -> cont_sentence_input_1_split_1
I0924 03:42:30.533752  4339 net.cpp:141] Setting up cont_sentence_input_1_split
I0924 03:42:30.533766  4339 net.cpp:148] Top shape: 1 1 (1)
I0924 03:42:30.533774  4339 net.cpp:148] Top shape: 1 1 (1)
I0924 03:42:30.533782  4339 net.cpp:156] Memory required for data: 16404
I0924 03:42:30.533788  4339 layer_factory.hpp:77] Creating layer embed_encoder
I0924 03:42:30.533809  4339 net.cpp:91] Creating Layer embed_encoder
I0924 03:42:30.533818  4339 net.cpp:425] embed_encoder <- frames_fc7
I0924 03:42:30.533829  4339 net.cpp:399] embed_encoder -> embedded_in_frames
I0924 03:42:30.539216  4331 net.cpp:141] Setting up cont_sentence_input_1_split
I0924 03:42:30.539268  4331 net.cpp:148] Top shape: 1 1 (1)
I0924 03:42:30.539276  4331 net.cpp:148] Top shape: 1 1 (1)
I0924 03:42:30.539281  4331 net.cpp:156] Memory required for data: 16404
I0924 03:42:30.539294  4331 layer_factory.hpp:77] Creating layer embed_encoder
I0924 03:42:30.539320  4331 net.cpp:91] Creating Layer embed_encoder
I0924 03:42:30.539330  4331 net.cpp:425] embed_encoder <- frames_fc7
I0924 03:42:30.539341  4331 net.cpp:399] embed_encoder -> embedded_in_frames
I0924 03:42:30.539369  4359 net.cpp:141] Setting up embed_encoder
I0924 03:42:30.539392  4359 net.cpp:148] Top shape: 1 500 (500)
I0924 03:42:30.539402  4359 net.cpp:156] Memory required for data: 18404
I0924 03:42:30.539427  4359 layer_factory.hpp:77] Creating layer reshape_frames
I0924 03:42:30.539448  4359 net.cpp:91] Creating Layer reshape_frames
I0924 03:42:30.539458  4359 net.cpp:425] reshape_frames <- embedded_in_frames
I0924 03:42:30.539471  4359 net.cpp:399] reshape_frames -> embedded_input_frames
I0924 03:42:30.549708  4359 net.cpp:141] Setting up reshape_frames
I0924 03:42:30.549767  4359 net.cpp:148] Top shape: 1 1 500 (500)
I0924 03:42:30.549777  4359 net.cpp:156] Memory required for data: 20404
I0924 03:42:30.549790  4359 layer_factory.hpp:77] Creating layer reshape_stage_indicator
I0924 03:42:30.549823  4359 net.cpp:91] Creating Layer reshape_stage_indicator
I0924 03:42:30.549834  4359 net.cpp:425] reshape_stage_indicator <- stage_indicator
I0924 03:42:30.549855  4359 net.cpp:399] reshape_stage_indicator -> reshaped_stage_indicator
I0924 03:42:30.550575  4325 net.cpp:141] Setting up cont_sentence_input_1_split
I0924 03:42:30.550637  4325 net.cpp:148] Top shape: 1 1 (1)
I0924 03:42:30.550647  4325 net.cpp:148] Top shape: 1 1 (1)
I0924 03:42:30.550670  4325 net.cpp:156] Memory required for data: 16404
I0924 03:42:30.550680  4325 layer_factory.hpp:77] Creating layer embed_encoder
I0924 03:42:30.554091  4325 net.cpp:91] Creating Layer embed_encoder
I0924 03:42:30.554132  4325 net.cpp:425] embed_encoder <- frames_fc7
I0924 03:42:30.554162  4325 net.cpp:399] embed_encoder -> embedded_in_frames
I0924 03:42:30.559813  4359 net.cpp:141] Setting up reshape_stage_indicator
I0924 03:42:30.559934  4359 net.cpp:148] Top shape: 1 1 1 (1)
I0924 03:42:30.559947  4359 net.cpp:156] Memory required for data: 20408
I0924 03:42:30.559973  4359 layer_factory.hpp:77] Creating layer embedding
I0924 03:42:30.559993  4359 net.cpp:91] Creating Layer embedding
I0924 03:42:30.560001  4359 net.cpp:425] embedding <- input_sentence
I0924 03:42:30.560019  4359 net.cpp:399] embedding -> embedded_input_sentence
I0924 03:42:30.566959  4339 net.cpp:141] Setting up embed_encoder
I0924 03:42:30.567018  4339 net.cpp:148] Top shape: 1 500 (500)
I0924 03:42:30.567029  4339 net.cpp:156] Memory required for data: 18404
I0924 03:42:30.567056  4339 layer_factory.hpp:77] Creating layer reshape_frames
I0924 03:42:30.567081  4339 net.cpp:91] Creating Layer reshape_frames
I0924 03:42:30.567092  4339 net.cpp:425] reshape_frames <- embedded_in_frames
I0924 03:42:30.567106  4339 net.cpp:399] reshape_frames -> embedded_input_frames
I0924 03:42:30.567162  4339 net.cpp:141] Setting up reshape_frames
I0924 03:42:30.567174  4339 net.cpp:148] Top shape: 1 1 500 (500)
I0924 03:42:30.567181  4339 net.cpp:156] Memory required for data: 20404
I0924 03:42:30.567189  4339 layer_factory.hpp:77] Creating layer reshape_stage_indicator
I0924 03:42:30.567204  4339 net.cpp:91] Creating Layer reshape_stage_indicator
I0924 03:42:30.567212  4339 net.cpp:425] reshape_stage_indicator <- stage_indicator
I0924 03:42:30.567227  4339 net.cpp:399] reshape_stage_indicator -> reshaped_stage_indicator
I0924 03:42:30.567276  4339 net.cpp:141] Setting up reshape_stage_indicator
I0924 03:42:30.567288  4339 net.cpp:148] Top shape: 1 1 1 (1)
I0924 03:42:30.567296  4339 net.cpp:156] Memory required for data: 20408
I0924 03:42:30.567303  4339 layer_factory.hpp:77] Creating layer embedding
I0924 03:42:30.567319  4339 net.cpp:91] Creating Layer embedding
I0924 03:42:30.567327  4339 net.cpp:425] embedding <- input_sentence
I0924 03:42:30.567342  4339 net.cpp:399] embedding -> embedded_input_sentence
I0924 03:42:30.615571  4369 net.cpp:141] Setting up embed_encoder
I0924 03:42:30.615628  4369 net.cpp:148] Top shape: 1 500 (500)
I0924 03:42:30.615638  4369 net.cpp:156] Memory required for data: 18404
I0924 03:42:30.615674  4369 layer_factory.hpp:77] Creating layer reshape_frames
I0924 03:42:30.615707  4369 net.cpp:91] Creating Layer reshape_frames
I0924 03:42:30.615720  4369 net.cpp:425] reshape_frames <- embedded_in_frames
I0924 03:42:30.615738  4369 net.cpp:399] reshape_frames -> embedded_input_frames
I0924 03:42:30.679397  4369 net.cpp:141] Setting up reshape_frames
I0924 03:42:30.679473  4369 net.cpp:148] Top shape: 1 1 500 (500)
I0924 03:42:30.679491  4369 net.cpp:156] Memory required for data: 20404
I0924 03:42:30.679508  4369 layer_factory.hpp:77] Creating layer reshape_stage_indicator
I0924 03:42:30.679545  4369 net.cpp:91] Creating Layer reshape_stage_indicator
I0924 03:42:30.679566  4369 net.cpp:425] reshape_stage_indicator <- stage_indicator
I0924 03:42:30.679594  4369 net.cpp:399] reshape_stage_indicator -> reshaped_stage_indicator
I0924 03:42:30.679728  4343 net.cpp:141] Setting up embed_encoder
I0924 03:42:30.679750  4343 net.cpp:148] Top shape: 1 500 (500)
I0924 03:42:30.679759  4343 net.cpp:156] Memory required for data: 18404
I0924 03:42:30.679785  4343 layer_factory.hpp:77] Creating layer reshape_frames
I0924 03:42:30.679811  4343 net.cpp:91] Creating Layer reshape_frames
I0924 03:42:30.679822  4343 net.cpp:425] reshape_frames <- embedded_in_frames
I0924 03:42:30.679839  4343 net.cpp:399] reshape_frames -> embedded_input_frames
I0924 03:42:30.679859  4331 net.cpp:141] Setting up embed_encoder
I0924 03:42:30.679882  4331 net.cpp:148] Top shape: 1 500 (500)
I0924 03:42:30.679890  4331 net.cpp:156] Memory required for data: 18404
I0924 03:42:30.679903  4343 net.cpp:141] Setting up reshape_frames
I0924 03:42:30.679913  4331 layer_factory.hpp:77] Creating layer reshape_frames
I0924 03:42:30.679919  4343 net.cpp:148] Top shape: 1 1 500 (500)
I0924 03:42:30.679926  4343 net.cpp:156] Memory required for data: 20404
I0924 03:42:30.679927  4331 net.cpp:91] Creating Layer reshape_frames
I0924 03:42:30.679935  4343 layer_factory.hpp:77] Creating layer reshape_stage_indicator
I0924 03:42:30.679939  4331 net.cpp:425] reshape_frames <- embedded_in_frames
I0924 03:42:30.679952  4331 net.cpp:399] reshape_frames -> embedded_input_frames
I0924 03:42:30.679955  4343 net.cpp:91] Creating Layer reshape_stage_indicator
I0924 03:42:30.679963  4343 net.cpp:425] reshape_stage_indicator <- stage_indicator
I0924 03:42:30.679977  4343 net.cpp:399] reshape_stage_indicator -> reshaped_stage_indicator
I0924 03:42:30.680011  4331 net.cpp:141] Setting up reshape_frames
I0924 03:42:30.680025  4331 net.cpp:148] Top shape: 1 1 500 (500)
I0924 03:42:30.680033  4331 net.cpp:156] Memory required for data: 20404
I0924 03:42:30.680042  4331 layer_factory.hpp:77] Creating layer reshape_stage_indicator
I0924 03:42:30.680058  4331 net.cpp:91] Creating Layer reshape_stage_indicator
I0924 03:42:30.680066  4331 net.cpp:425] reshape_stage_indicator <- stage_indicator
I0924 03:42:30.680079  4331 net.cpp:399] reshape_stage_indicator -> reshaped_stage_indicator
I0924 03:42:30.680129  4331 net.cpp:141] Setting up reshape_stage_indicator
I0924 03:42:30.680142  4331 net.cpp:148] Top shape: 1 1 1 (1)
I0924 03:42:30.680150  4331 net.cpp:156] Memory required for data: 20408
I0924 03:42:30.680157  4331 layer_factory.hpp:77] Creating layer embedding
I0924 03:42:30.680191  4331 net.cpp:91] Creating Layer embedding
I0924 03:42:30.680198  4331 net.cpp:425] embedding <- input_sentence
I0924 03:42:30.680214  4331 net.cpp:399] embedding -> embedded_input_sentence
I0924 03:42:30.731120  4343 net.cpp:141] Setting up reshape_stage_indicator
I0924 03:42:30.731194  4343 net.cpp:148] Top shape: 1 1 1 (1)
I0924 03:42:30.731206  4343 net.cpp:156] Memory required for data: 20408
I0924 03:42:30.731202  4369 net.cpp:141] Setting up reshape_stage_indicator
I0924 03:42:30.731223  4343 layer_factory.hpp:77] Creating layer embedding
I0924 03:42:30.731254  4369 net.cpp:148] Top shape: 1 1 1 (1)
I0924 03:42:30.731262  4369 net.cpp:156] Memory required for data: 20408
I0924 03:42:30.731271  4369 layer_factory.hpp:77] Creating layer embedding
I0924 03:42:30.731274  4343 net.cpp:91] Creating Layer embedding
I0924 03:42:30.731289  4343 net.cpp:425] embedding <- input_sentence
I0924 03:42:30.731302  4369 net.cpp:91] Creating Layer embedding
I0924 03:42:30.731310  4369 net.cpp:425] embedding <- input_sentence
I0924 03:42:30.731317  4343 net.cpp:399] embedding -> embedded_input_sentence
I0924 03:42:30.731324  4369 net.cpp:399] embedding -> embedded_input_sentence
I0924 03:42:30.731420  4327 net.cpp:141] Setting up embed_encoder
I0924 03:42:30.731441  4327 net.cpp:148] Top shape: 1 500 (500)
I0924 03:42:30.731451  4327 net.cpp:156] Memory required for data: 18404
I0924 03:42:30.731477  4327 layer_factory.hpp:77] Creating layer reshape_frames
I0924 03:42:30.731509  4327 net.cpp:91] Creating Layer reshape_frames
I0924 03:42:30.731523  4327 net.cpp:425] reshape_frames <- embedded_in_frames
I0924 03:42:30.731539  4327 net.cpp:399] reshape_frames -> embedded_input_frames
I0924 03:42:30.825707  4327 net.cpp:141] Setting up reshape_frames
I0924 03:42:30.825757  4321 net.cpp:141] Setting up embedding
I0924 03:42:30.825767  4327 net.cpp:148] Top shape: 1 1 500 (500)
I0924 03:42:30.825788  4327 net.cpp:156] Memory required for data: 20404
I0924 03:42:30.825788  4321 net.cpp:148] Top shape: 1 1 500 (500)
I0924 03:42:30.825796  4327 layer_factory.hpp:77] Creating layer reshape_stage_indicator
I0924 03:42:30.825796  4321 net.cpp:156] Memory required for data: 22408
I0924 03:42:30.825822  4327 net.cpp:91] Creating Layer reshape_stage_indicator
I0924 03:42:30.825822  4321 layer_factory.hpp:77] Creating layer lstm1
I0924 03:42:30.825830  4327 net.cpp:425] reshape_stage_indicator <- stage_indicator
I0924 03:42:30.825851  4327 net.cpp:399] reshape_stage_indicator -> reshaped_stage_indicator
I0924 03:42:30.825857  4321 net.cpp:91] Creating Layer lstm1
I0924 03:42:30.825867  4321 net.cpp:425] lstm1 <- embedded_input_frames
I0924 03:42:30.825877  4321 net.cpp:425] lstm1 <- cont_sentence_input_1_split_0
I0924 03:42:30.825891  4321 net.cpp:399] lstm1 -> lstm1
I0924 03:42:30.825914  4325 net.cpp:141] Setting up embed_encoder
I0924 03:42:30.825929  4321 recurrent_layer.cpp:20] Initializing recurrent layer: assuming input batch contains 1 timesteps of 1 independent streams.
I0924 03:42:30.825958  4325 net.cpp:148] Top shape: 1 500 (500)
I0924 03:42:30.825964  4325 net.cpp:156] Memory required for data: 18404
I0924 03:42:30.825966  4339 net.cpp:141] Setting up embedding
I0924 03:42:30.825985  4325 layer_factory.hpp:77] Creating layer reshape_frames
I0924 03:42:30.825986  4339 net.cpp:148] Top shape: 1 1 500 (500)
I0924 03:42:30.825999  4327 net.cpp:141] Setting up reshape_stage_indicator
I0924 03:42:30.826010  4339 net.cpp:156] Memory required for data: 22408
I0924 03:42:30.826012  4325 net.cpp:91] Creating Layer reshape_frames
I0924 03:42:30.826017  4327 net.cpp:148] Top shape: 1 1 1 (1)
I0924 03:42:30.826021  4325 net.cpp:425] reshape_frames <- embedded_in_frames
I0924 03:42:30.826023  4327 net.cpp:156] Memory required for data: 20408
I0924 03:42:30.826026  4339 layer_factory.hpp:77] Creating layer lstm1
I0924 03:42:30.826030  4327 layer_factory.hpp:77] Creating layer embedding
I0924 03:42:30.826037  4325 net.cpp:399] reshape_frames -> embedded_input_frames
I0924 03:42:30.826040  4339 net.cpp:91] Creating Layer lstm1
…
I0924 03:42:30.826081  4339 recurrent_layer.cpp:20] Initializing recurrent layer: assuming input batch contains 1 timesteps of 1 independent streams.
I0924 03:42:30.826361  4339 net.cpp:49] Initializing net from parameters: 
layer {
  name: "lstm1_"
  type: "Input"
  top: "x"
  top: "cont"
  input_param {
    shape {
      dim: 1
      dim: 1
      dim: 500
    }
    shape {
      dim: 1
      dim: 1
    }
  }
}
layer {
  name: "lstm1_"
  type: "Input"
  top: "c_0"
  top: "h_0"
  input_param {
    shape {
      dim: 1
      dim: 1
      dim: 1000
    }
    shape {
      dim: 1
      dim: 1
      dim: 1000
    }
  }
}
layer {
  name: "lstm1_cont_slice"
  type: "Slice"
  bottom: "cont"
  top: "cont_1"
  slice_param {
    axis: 0
  }
}
layer {
  name: "lstm1_x_transform"
  type: "InnerProduct"
  bottom: "x"
  top: "W_xc_x"
  param {
    name: "W_xc"
  }
  param {
    name: "b_c"
  }
  propagate_down: true
  inner_product_param {
    num_output: 4000
    bias_term: true
    weight_filler {
      type: "uniform"
      min: -0.08
      max: 0.08
    }
    bias_filler {
      type: "constant"
      value: 0
    }
    axis: 2
  }
}
layer {
  name: "lstm1_W_xc_x_slice"
  type: "Slice"
  bottom: "W_xc_x"
  top: "W_xc_x_1"
  slice_param {
    axis: 0
  }
}
layer {
  name: "lstm1_h_conted_0"
  type: "Scale"
  bottom: "h_0"
  bottom: "cont_1"
  top: "h_conted_0"
  scale_param {
    axis: 0
  }
}
layer {
  name: "lstm1_transform_1"
  type: "InnerProduct"
  bottom: "h_conted_0"
  top: "W_hc_h_0"
  param {
    name: "W_hc"
  }
  inner_product_param {
    num_output: 4000
    bias_term: false
    weight_filler {
      type: "uniform"
      min: -0.08
      max: 0.08
    }
    axis: 2
  }
}
layer {
  name: "lstm1_gate_input_1"
  type: "Eltwise"
  bottom: "W_hc_h_0"
  bottom: "W_xc_x_1"
  top: "gate_input_1"
  eltwise_param {
    operation: SUM
  }
}
layer {
  name: "lstm1_unit_1"
  type: "LSTMUnit"
  bottom: "c_0"
  bottom: "gate_input_1"
  bottom: "cont_1"
  top: "c_1"
  top: "h_1"
}
layer {
  name: "lstm1_"
  type: "Split"
  bottom: "c_1"
  top: "c_T"
}
layer {
  name: "lstm1_h_concat"
  type: "Concat"
  bottom: "h_1"
  top: "h"
  concat_param {
    axis: 0
  }
}
layer {
  name: "h_pseudoloss"
  type: "Reduction"
  bottom: "h"
  top: "h_pseudoloss"
  loss_weight: 1
}
I0924 03:42:30.826401  4321 net.cpp:49] Initializing net from parameters: 
layer {
  name: "lstm1_"
  type: "Input"
  top: "x"
  top: "cont"
  input_param {
    shape {
      dim: 1
      dim: 1
      dim: 500
    }
    shape {
      dim: 1
      dim: 1
    }
  }
}
layer {
  name: "lstm1_"
  type: "Input"
  top: "c_0"
  top: "h_0"
  input_param {
    shape {
      dim: 1
      dim: 1
      dim: 1000
    }
    shape {
      dim: 1
      dim: 1
      dim: 1000
    }
  }
}
layer {
  name: "lstm1_cont_slice"
  type: "Slice"
  bottom: "cont"
  top: "cont_1"
  slice_param {
    axis: 0
  }
}
layer {
  name: "lstm1_x_transform"
  type: "InnerProduct"
  bottom: "x"
  top: "W_xc_x"
  param {
    name: "W_xc"
  }
  param {
    name: "b_c"
  }
  propagate_down: true
  inner_product_param {
    num_output: 4000
    bias_term: true
    weight_filler {
      type: "uniform"
      min: -0.08
      max: 0.08
    }
    bias_filler {
      type: "constant"
      value: 0
    }
    axis: 2
  }
}
layer {
  name: "lstm1_W_xc_x_slice"
  type: "Slice"
  bottom: "W_xc_x"
  top: "W_xc_x_1"
  slice_param {
    axis: 0
  }
}
layer {
  name: "lstm1_h_conted_0"
  type: "Scale"
  bottom: "h_0"
  bottom: "cont_1"
  top: "h_conted_0"
  scale_param {
    axis: 0
  }
}
layer {
  name: "lstm1_transform_1"
  type: "InnerProduct"
  bottom: "h_conted_0"
  top: "W_hc_h_0"
  param {
    name: "W_hc"
  }
  inner_product_param {
    num_output: 4000
    bias_term: false
    weight_filler {
      type: "uniform"
      min: -0.08
      max: 0.08
    }
    axis: 2
  }
}
layer {
  name: "lstm1_gate_input_1"
  type: "Eltwise"
  bottom: "W_hc_h_0"
  bottom: "W_xc_x_1"
  top: "gate_input_1"
  eltwise_param {
    operation: SUM
  }
}
layer {
  name: "lstm1_unit_1"
  type: "LSTMUnit"
  bottom: "c_0"
  bottom: "gate_input_1"
  bottom: "cont_1"
  top: "c_1"
  top: "h_1"
}
layer {
  name: "lstm1_"
  type: "Split"
  bottom: "c_1"
  top: "c_T"
}
layer {
  name: "lstm1_h_concat"
  type: "Concat"
  bottom: "h_1"
  top: "h"
  concat_param {
    axis: 0
  }
}
layer {
  name: "h_pseudoloss"
  type: "Reduction"
  bottom: "h"
  top: "h_pseudoloss"
  loss_weight: 1
}
I0924 03:42:30.826455  4339 layer_factory.hpp:77] Creating layer lstm1_
I0924 03:42:30.826467  4339 net.cpp:91] Creating Layer lstm1_
I0924 03:42:30.826474  4339 net.cpp:399] lstm1_ -> x
I0924 03:42:30.826485  4339 net.cpp:399] lstm1_ -> cont
I0924 03:42:30.826525  4321 layer_factory.hpp:77] Creating layer lstm1_
I0924 03:42:30.826542  4321 net.cpp:91] Creating Layer lstm1_
I0924 03:42:30.826552  4321 net.cpp:399] lstm1_ -> x
I0924 03:42:30.826568  4321 net.cpp:399] lstm1_ -> cont
I0924 03:42:30.827436  4325 net.cpp:141] Setting up reshape_frames
I0924 03:42:30.827455  4325 net.cpp:148] Top shape: 1 1 500 (500)
I0924 03:42:30.827460  4325 net.cpp:156] Memory required for data: 20404
I0924 03:42:30.827466  4325 layer_factory.hpp:77] Creating layer reshape_stage_indicator
I0924 03:42:30.827476  4325 net.cpp:91] Creating Layer reshape_stage_indicator
I0924 03:42:30.827482  4325 net.cpp:425] reshape_stage_indicator <- stage_indicator
I0924 03:42:30.827491  4325 net.cpp:399] reshape_stage_indicator -> reshaped_stage_indicator
I0924 03:42:30.874119  4325 net.cpp:141] Setting up reshape_stage_indicator
I0924 03:42:30.874181  4325 net.cpp:148] Top shape: 1 1 1 (1)
I0924 03:42:30.874191  4325 net.cpp:156] Memory required for data: 20408
I0924 03:42:30.874187  4321 net.cpp:141] Setting up lstm1_
I0924 03:42:30.874208  4325 layer_factory.hpp:77] Creating layer embedding
I0924 03:42:30.874234  4339 net.cpp:141] Setting up lstm1_
I0924 03:42:30.874241  4321 net.cpp:148] Top shape: 1 1 500 (500)
I0924 03:42:30.874266  4325 net.cpp:91] Creating Layer embedding
I0924 03:42:30.874271  4321 net.cpp:148] Top shape: 1 1 (1)
I0924 03:42:30.874280  4321 net.cpp:156] Memory required for data: 2004
I0924 03:42:30.874266  4339 net.cpp:148] Top shape: 1 1 500 (500)
I0924 03:42:30.874292  4321 layer_factory.hpp:77] Creating layer lstm1_
I0924 03:42:30.874303  4339 net.cpp:148] Top shape: 1 1 (1)
I0924 03:42:30.874294  4325 net.cpp:425] embedding <- input_sentence
I0924 03:42:30.874311  4339 net.cpp:156] Memory required for data: 2004
I0924 03:42:30.874341  4321 net.cpp:91] Creating Layer lstm1_
I0924 03:42:30.874352  4321 net.cpp:399] lstm1_ -> c_0
I0924 03:42:30.874343  4325 net.cpp:399] embedding -> embedded_input_sentence
I0924 03:42:30.874344  4339 layer_factory.hpp:77] Creating layer lstm1_
I0924 03:42:30.874377  4321 net.cpp:399] lstm1_ -> h_0
I0924 03:42:30.874382  4339 net.cpp:91] Creating Layer lstm1_
I0924 03:42:30.874402  4339 net.cpp:399] lstm1_ -> c_0
I0924 03:42:30.874421  4339 net.cpp:399] lstm1_ -> h_0
I0924 03:42:30.875582  4321 net.cpp:141] Setting up lstm1_
I0924 03:42:30.875622  4321 net.cpp:148] Top shape: 1 1 1000 (1000)
I0924 03:42:30.875633  4321 net.cpp:148] Top shape: 1 1 1000 (1000)
I0924 03:42:30.875639  4321 net.cpp:156] Memory required for data: 10004
I0924 03:42:30.875649  4321 layer_factory.hpp:77] Creating layer lstm1_cont_slice
I0924 03:42:30.875670  4321 net.cpp:91] Creating Layer lstm1_cont_slice
I0924 03:42:30.875679  4321 net.cpp:425] lstm1_cont_slice <- cont
I0924 03:42:30.875697  4321 net.cpp:399] lstm1_cont_slice -> cont_1
I0924 03:42:30.875756  4321 net.cpp:141] Setting up lstm1_cont_slice
I0924 03:42:30.875776  4321 net.cpp:148] Top shape: 1 1 (1)
I0924 03:42:30.875782  4321 net.cpp:156] Memory required for data: 10008
I0924 03:42:30.875790  4321 layer_factory.hpp:77] Creating layer cont_1_lstm1_cont_slice_0_split
I0924 03:42:30.875804  4321 net.cpp:91] Creating Layer cont_1_lstm1_cont_slice_0_split
I0924 03:42:30.875813  4321 net.cpp:425] cont_1_lstm1_cont_slice_0_split <- cont_1
I0924 03:42:30.875824  4321 net.cpp:399] cont_1_lstm1_cont_slice_0_split -> cont_1_lstm1_cont_slice_0_split_0
I0924 03:42:30.875838  4321 net.cpp:399] cont_1_lstm1_cont_slice_0_split -> cont_1_lstm1_cont_slice_0_split_1
I0924 03:42:30.875922  4321 net.cpp:141] Setting up cont_1_lstm1_cont_slice_0_split
I0924 03:42:30.875937  4321 net.cpp:148] Top shape: 1 1 (1)
I0924 03:42:30.875947  4321 net.cpp:148] Top shape: 1 1 (1)
I0924 03:42:30.875954  4321 net.cpp:156] Memory required for data: 10016
I0924 03:42:30.875963  4321 layer_factory.hpp:77] Creating layer lstm1_x_transform
I0924 03:42:30.875988  4321 net.cpp:91] Creating Layer lstm1_x_transform
I0924 03:42:30.875998  4321 net.cpp:425] lstm1_x_transform <- x
I0924 03:42:30.876011  4321 net.cpp:399] lstm1_x_transform -> W_xc_x
I0924 03:42:30.932690  4359 net.cpp:141] Setting up embedding
I0924 03:42:30.932802  4339 net.cpp:141] Setting up lstm1_
I0924 03:42:30.933362  4359 net.cpp:148] Top shape: 1 1 500 (500)
I0924 03:42:30.933377  4359 net.cpp:156] Memory required for data: 22408
I0924 03:42:30.933382  4339 net.cpp:148] Top shape: 1 1 1000 (1000)
I0924 03:42:30.933398  4339 net.cpp:148] Top shape: 1 1 1000 (1000)
I0924 03:42:30.933403  4359 layer_factory.hpp:77] Creating layer lstm1
I0924 03:42:30.933440  4359 net.cpp:91] Creating Layer lstm1
I0924 03:42:30.933452  4359 net.cpp:425] lstm1 <- embedded_input_frames
I0924 03:42:30.933465  4359 net.cpp:425] lstm1 <- cont_sentence_input_1_split_0
I0924 03:42:30.933480  4359 net.cpp:399] lstm1 -> lstm1
I0924 03:42:30.933506  4359 recurrent_layer.cpp:20] Initializing recurrent layer: assuming input batch contains 1 timesteps of 1 independent streams.
I0924 03:42:30.933912  4359 net.cpp:49] Initializing net from parameters: 
layer {
  name: "lstm1_"
  type: "Input"
  top: "x"
  top: "cont"
  input_param {
    shape {
      dim: 1
      dim: 1
      dim: 500
    }
    shape {
      dim: 1
      dim: 1
    }
  }
}
layer {
  name: "lstm1_"
  type: "Input"
  top: "c_0"
  top: "h_0"
  input_param {
    shape {
      dim: 1
      dim: 1
      dim: 1000
    }
    shape {
      dim: 1
      dim: 1
      dim: 1000
    }
  }
}
layer {
  name: "lstm1_cont_slice"
  type: "Slice"
  bottom: "cont"
  top: "cont_1"
  slice_param {
    axis: 0
  }
}
layer {
  name: "lstm1_x_transform"
  type: "InnerProduct"
  bottom: "x"
  top: "W_xc_x"
  param {
    name: "W_xc"
  }
  param {
    name: "b_c"
  }
  propagate_down: true
  inner_product_param {
    num_output: 4000
    bias_term: true
    weight_filler {
      type: "uniform"
      min: -0.08
      max: 0.08
    }
    bias_filler {
      type: "constant"
      value: 0
    }
    axis: 2
  }
}
layer {
  name: "lstm1_W_xc_x_slice"
  type: "Slice"
  bottom: "W_xc_x"
  top: "W_xc_x_1"
  slice_param {
    axis: 0
  }
}
layer {
  name: "lstm1_h_conted_0"
  type: "Scale"
  bottom: "h_0"
  bottom: "cont_1"
  top: "h_conted_0"
  scale_param {
    axis: 0
  }
}
layer {
  name: "lstm1_transform_1"
  type: "InnerProduct"
  bottom: "h_conted_0"
  top: "W_hc_h_0"
  param {
    name: "W_hc"
  }
  inner_product_param {
    num_output: 4000
    bias_term: false
    weight_filler {
      type: "uniform"
      min: -0.08
      max: 0.08
    }
    axis: 2
  }
}
layer {
  name: "lstm1_gate_input_1"
  type: "Eltwise"
  bottom: "W_hc_h_0"
  bottom: "W_xc_x_1"
  top: "gate_input_1"
  eltwise_param {
    operation: SUM
  }
}
layer {
  name: "lstm1_unit_1"
  type: "LSTMUnit"
  bottom: "c_0"
  bottom: "gate_input_1"
  bottom: "cont_1"
  top: "c_1"
  top: "h_1"
}
layer {
  name: "lstm1_"
  type: "Split"
  bottom: "c_1"
  top: "c_T"
}
layer {
  name: "lstm1_h_concat"
  type: "Concat"
  bottom: "h_1"
  top: "h"
  concat_param {
    axis: 0
  }
}
layer {
  name: "h_pseudoloss"
  type: "Reduction"
  bottom: "h"
  top: "h_pseudoloss"
  loss_weight: 1
}
I0924 03:42:30.934043  4359 layer_factory.hpp:77] Creating layer lstm1_
I0924 03:42:30.934063  4359 net.cpp:91] Creating Layer lstm1_
I0924 03:42:30.934074  4359 net.cpp:399] lstm1_ -> x
I0924 03:42:30.934092  4359 net.cpp:399] lstm1_ -> cont
I0924 03:42:30.933404  4339 net.cpp:156] Memory required for data: 10004
I0924 03:42:30.934404  4339 layer_factory.hpp:77] Creating layer lstm1_cont_slice
I0924 03:42:30.934447  4339 net.cpp:91] Creating Layer lstm1_cont_slice
I0924 03:42:30.934458  4339 net.cpp:425] lstm1_cont_slice <- cont
I0924 03:42:30.934484  4339 net.cpp:399] lstm1_cont_slice -> cont_1
I0924 03:42:30.945483  4339 net.cpp:141] Setting up lstm1_cont_slice
I0924 03:42:30.945570  4339 net.cpp:148] Top shape: 1 1 (1)
I0924 03:42:30.945590  4339 net.cpp:156] Memory required for data: 10008
I0924 03:42:30.945611  4339 layer_factory.hpp:77] Creating layer cont_1_lstm1_cont_slice_0_split
I0924 03:42:30.945657  4339 net.cpp:91] Creating Layer cont_1_lstm1_cont_slice_0_split
I0924 03:42:30.945678  4339 net.cpp:425] cont_1_lstm1_cont_slice_0_split <- cont_1
I0924 03:42:30.945674  4359 net.cpp:141] Setting up lstm1_
I0924 03:42:30.945713  4339 net.cpp:399] cont_1_lstm1_cont_slice_0_split -> cont_1_lstm1_cont_slice_0_split_0
I0924 03:42:30.945719  4359 net.cpp:148] Top shape: 1 1 500 (500)
I0924 03:42:30.945751  4359 net.cpp:148] Top shape: 1 1 (1)
I0924 03:42:30.945760  4359 net.cpp:156] Memory required for data: 2004
I0924 03:42:30.945761  4339 net.cpp:399] cont_1_lstm1_cont_slice_0_split -> cont_1_lstm1_cont_slice_0_split_1
I0924 03:42:30.945771  4359 layer_factory.hpp:77] Creating layer lstm1_
I0924 03:42:30.945796  4359 net.cpp:91] Creating Layer lstm1_
I0924 03:42:30.945811  4359 net.cpp:399] lstm1_ -> c_0
I0924 03:42:30.945835  4359 net.cpp:399] lstm1_ -> h_0
I0924 03:42:30.945922  4339 net.cpp:141] Setting up cont_1_lstm1_cont_slice_0_split
I0924 03:42:30.945940  4339 net.cpp:148] Top shape: 1 1 (1)
I0924 03:42:30.945952  4339 net.cpp:148] Top shape: 1 1 (1)
I0924 03:42:30.945960  4339 net.cpp:156] Memory required for data: 10016
I0924 03:42:30.945969  4339 layer_factory.hpp:77] Creating layer lstm1_x_transform
I0924 03:42:30.945996  4339 net.cpp:91] Creating Layer lstm1_x_transform
I0924 03:42:30.946004  4359 net.cpp:141] Setting up lstm1_
I0924 03:42:30.946007  4339 net.cpp:425] lstm1_x_transform <- x
I0924 03:42:30.946027  4359 net.cpp:148] Top shape: 1 1 1000 (1000)
I0924 03:42:30.946038  4359 net.cpp:148] Top shape: 1 1 1000 (1000)
I0924 03:42:30.946043  4339 net.cpp:399] lstm1_x_transform -> W_xc_x
I0924 03:42:30.946044  4359 net.cpp:156] Memory required for data: 10004
I0924 03:42:30.946071  4359 layer_factory.hpp:77] Creating layer lstm1_cont_slice
I0924 03:42:30.946086  4359 net.cpp:91] Creating Layer lstm1_cont_slice
I0924 03:42:30.946094  4359 net.cpp:425] lstm1_cont_slice <- cont
I0924 03:42:30.946106  4359 net.cpp:399] lstm1_cont_slice -> cont_1
I0924 03:42:30.952005  4359 net.cpp:141] Setting up lstm1_cont_slice
I0924 03:42:30.952050  4359 net.cpp:148] Top shape: 1 1 (1)
I0924 03:42:30.952059  4359 net.cpp:156] Memory required for data: 10008
I0924 03:42:30.952069  4359 layer_factory.hpp:77] Creating layer cont_1_lstm1_cont_slice_0_split
I0924 03:42:30.952092  4359 net.cpp:91] Creating Layer cont_1_lstm1_cont_slice_0_split
I0924 03:42:30.952101  4359 net.cpp:425] cont_1_lstm1_cont_slice_0_split <- cont_1
I0924 03:42:30.952116  4359 net.cpp:399] cont_1_lstm1_cont_slice_0_split -> cont_1_lstm1_cont_slice_0_split_0
I0924 03:42:30.952132  4359 net.cpp:399] cont_1_lstm1_cont_slice_0_split -> cont_1_lstm1_cont_slice_0_split_1
I0924 03:42:30.952219  4359 net.cpp:141] Setting up cont_1_lstm1_cont_slice_0_split
I0924 03:42:30.952231  4359 net.cpp:148] Top shape: 1 1 (1)
I0924 03:42:30.952241  4359 net.cpp:148] Top shape: 1 1 (1)
I0924 03:42:30.952249  4359 net.cpp:156] Memory required for data: 10016
I0924 03:42:30.952255  4359 layer_factory.hpp:77] Creating layer lstm1_x_transform
I0924 03:42:30.952275  4359 net.cpp:91] Creating Layer lstm1_x_transform
I0924 03:42:30.952283  4359 net.cpp:425] lstm1_x_transform <- x
I0924 03:42:30.952299  4359 net.cpp:399] lstm1_x_transform -> W_xc_x
I0924 03:42:30.958988  4321 net.cpp:141] Setting up lstm1_x_transform
I0924 03:42:30.959033  4321 net.cpp:148] Top shape: 1 1 4000 (4000)
I0924 03:42:30.959043  4321 net.cpp:156] Memory required for data: 26016
I0924 03:42:30.959074  4321 layer_factory.hpp:77] Creating layer lstm1_W_xc_x_slice
I0924 03:42:30.959096  4321 net.cpp:91] Creating Layer lstm1_W_xc_x_slice
I0924 03:42:30.959106  4321 net.cpp:425] lstm1_W_xc_x_slice <- W_xc_x
I0924 03:42:30.959120  4321 net.cpp:399] lstm1_W_xc_x_slice -> W_xc_x_1
I0924 03:42:30.959178  4321 net.cpp:141] Setting up lstm1_W_xc_x_slice
I0924 03:42:30.959194  4321 net.cpp:148] Top shape: 1 1 4000 (4000)
I0924 03:42:30.959202  4321 net.cpp:156] Memory required for data: 42016
I0924 03:42:30.959208  4321 layer_factory.hpp:77] Creating layer lstm1_h_conted_0
I0924 03:42:30.959239  4321 net.cpp:91] Creating Layer lstm1_h_conted_0
I0924 03:42:30.959249  4321 net.cpp:425] lstm1_h_conted_0 <- h_0
I0924 03:42:30.959259  4321 net.cpp:425] lstm1_h_conted_0 <- cont_1_lstm1_cont_slice_0_split_0
I0924 03:42:30.959271  4321 net.cpp:399] lstm1_h_conted_0 -> h_conted_0
I0924 03:42:30.959422  4321 net.cpp:141] Setting up lstm1_h_conted_0
I0924 03:42:30.959439  4321 net.cpp:148] Top shape: 1 1 1000 (1000)
I0924 03:42:30.959445  4321 net.cpp:156] Memory required for data: 46016
I0924 03:42:30.959453  4321 layer_factory.hpp:77] Creating layer lstm1_transform_1
I0924 03:42:30.959470  4321 net.cpp:91] Creating Layer lstm1_transform_1
I0924 03:42:30.959478  4321 net.cpp:425] lstm1_transform_1 <- h_conted_0
I0924 03:42:30.959491  4321 net.cpp:399] lstm1_transform_1 -> W_hc_h_0
I0924 03:42:30.969374  4331 net.cpp:141] Setting up embedding
I0924 03:42:30.969425  4331 net.cpp:148] Top shape: 1 1 500 (500)
I0924 03:42:30.969434  4331 net.cpp:156] Memory required for data: 22408
I0924 03:42:30.969461  4331 layer_factory.hpp:77] Creating layer lstm1
I0924 03:42:30.969486  4331 net.cpp:91] Creating Layer lstm1
I0924 03:42:30.969497  4331 net.cpp:425] lstm1 <- embedded_input_frames
I0924 03:42:30.969509  4331 net.cpp:425] lstm1 <- cont_sentence_input_1_split_0
I0924 03:42:30.969526  4331 net.cpp:399] lstm1 -> lstm1
I0924 03:42:30.969548  4331 recurrent_layer.cpp:20] Initializing recurrent layer: assuming input batch contains 1 timesteps of 1 independent streams.
I0924 03:42:30.970041  4331 net.cpp:49] Initializing net from parameters: 
layer {
  name: "lstm1_"
  type: "Input"
  top: "x"
  top: "cont"
  input_param {
    shape {
      dim: 1
      dim: 1
      dim: 500
    }
    shape {
      dim: 1
      dim: 1
    }
  }
}
layer {
  name: "lstm1_"
  type: "Input"
  top: "c_0"
  top: "h_0"
  input_param {
    shape {
      dim: 1
      dim: 1
      dim: 1000
    }
    shape {
      dim: 1
      dim: 1
      dim: 1000
    }
  }
}
layer {
  name: "lstm1_cont_slice"
  type: "Slice"
  bottom: "cont"
  top: "cont_1"
  slice_param {
    axis: 0
  }
}
layer {
  name: "lstm1_x_transform"
  type: "InnerProduct"
  bottom: "x"
  top: "W_xc_x"
  param {
    name: "W_xc"
  }
  param {
    name: "b_c"
  }
  propagate_down: true
  inner_product_param {
    num_output: 4000
    bias_term: true
    weight_filler {
      type: "uniform"
      min: -0.08
      max: 0.08
    }
    bias_filler {
      type: "constant"
      value: 0
    }
    axis: 2
  }
}
layer {
  name: "lstm1_W_xc_x_slice"
  type: "Slice"
  bottom: "W_xc_x"
  top: "W_xc_x_1"
  slice_param {
    axis: 0
  }
}
layer {
  name: "lstm1_h_conted_0"
  type: "Scale"
  bottom: "h_0"
  bottom: "cont_1"
  top: "h_conted_0"
  scale_param {
    axis: 0
  }
}
layer {
  name: "lstm1_transform_1"
  type: "InnerProduct"
  bottom: "h_conted_0"
  top: "W_hc_h_0"
  param {
    name: "W_hc"
  }
  inner_product_param {
    num_output: 4000
    bias_term: false
    weight_filler {
      type: "uniform"
      min: -0.08
      max: 0.08
    }
    axis: 2
  }
}
layer {
  name: "lstm1_gate_input_1"
  type: "Eltwise"
  bottom: "W_hc_h_0"
  bottom: "W_xc_x_1"
  top: "gate_input_1"
  eltwise_param {
    operation: SUM
  }
}
layer {
  name: "lstm1_unit_1"
  type: "LSTMUnit"
  bottom: "c_0"
  bottom: "gate_input_1"
  bottom: "cont_1"
  top: "c_1"
  top: "h_1"
}
layer {
  name: "lstm1_"
  type: "Split"
  bottom: "c_1"
  top: "c_T"
}
layer {
  name: "lstm1_h_concat"
  type: "Concat"
  bottom: "h_1"
  top: "h"
  concat_param {
    axis: 0
  }
}
layer {
  name: "h_pseudoloss"
  type: "Reduction"
  bottom: "h"
  top: "h_pseudoloss"
  loss_weight: 1
}
I0924 03:42:30.970194  4331 layer_factory.hpp:77] Creating layer lstm1_
I0924 03:42:30.970213  4331 net.cpp:91] Creating Layer lstm1_
I0924 03:42:30.970223  4331 net.cpp:399] lstm1_ -> x
I0924 03:42:30.970240  4331 net.cpp:399] lstm1_ -> cont
I0924 03:42:30.971737  4331 net.cpp:141] Setting up lstm1_
I0924 03:42:30.971768  4331 net.cpp:148] Top shape: 1 1 500 (500)
I0924 03:42:30.971779  4331 net.cpp:148] Top shape: 1 1 (1)
I0924 03:42:30.971786  4331 net.cpp:156] Memory required for data: 2004
I0924 03:42:30.971796  4331 layer_factory.hpp:77] Creating layer lstm1_
I0924 03:42:30.971815  4331 net.cpp:91] Creating Layer lstm1_
I0924 03:42:30.971829  4331 net.cpp:399] lstm1_ -> c_0
I0924 03:42:30.971848  4331 net.cpp:399] lstm1_ -> h_0
I0924 03:42:30.990237  4331 net.cpp:141] Setting up lstm1_
I0924 03:42:30.990285  4331 net.cpp:148] Top shape: 1 1 1000 (1000)
I0924 03:42:30.990298  4331 net.cpp:148] Top shape: 1 1 1000 (1000)
I0924 03:42:30.990308  4331 net.cpp:156] Memory required for data: 10004
I0924 03:42:30.990319  4331 layer_factory.hpp:77] Creating layer lstm1_cont_slice
I0924 03:42:30.990342  4331 net.cpp:91] Creating Layer lstm1_cont_slice
I0924 03:42:30.990352  4331 net.cpp:425] lstm1_cont_slice <- cont
I0924 03:42:30.990367  4331 net.cpp:399] lstm1_cont_slice -> cont_1
I0924 03:42:30.990456  4331 net.cpp:141] Setting up lstm1_cont_slice
I0924 03:42:30.990473  4331 net.cpp:148] Top shape: 1 1 (1)
I0924 03:42:30.990479  4331 net.cpp:156] Memory required for data: 10008
I0924 03:42:30.990488  4331 layer_factory.hpp:77] Creating layer cont_1_lstm1_cont_slice_0_split
I0924 03:42:30.990504  4331 net.cpp:91] Creating Layer cont_1_lstm1_cont_slice_0_split
I0924 03:42:30.990512  4331 net.cpp:425] cont_1_lstm1_cont_slice_0_split <- cont_1
I0924 03:42:30.990525  4331 net.cpp:399] cont_1_lstm1_cont_slice_0_split -> cont_1_lstm1_cont_slice_0_split_0
I0924 03:42:30.990538  4331 net.cpp:399] cont_1_lstm1_cont_slice_0_split -> cont_1_lstm1_cont_slice_0_split_1
I0924 03:42:30.990766  4359 net.cpp:141] Setting up lstm1_x_transform
I0924 03:42:30.990785  4359 net.cpp:148] Top shape: 1 1 4000 (4000)
I0924 03:42:30.990793  4359 net.cpp:156] Memory required for data: 26016
I0924 03:42:30.990813  4359 layer_factory.hpp:77] Creating layer lstm1_W_xc_x_slice
I0924 03:42:30.990828  4359 net.cpp:91] Creating Layer lstm1_W_xc_x_slice
I0924 03:42:30.990836  4359 net.cpp:425] lstm1_W_xc_x_slice <- W_xc_x
I0924 03:42:30.990852  4359 net.cpp:399] lstm1_W_xc_x_slice -> W_xc_x_1
I0924 03:42:30.990905  4359 net.cpp:141] Setting up lstm1_W_xc_x_slice
I0924 03:42:30.990921  4359 net.cpp:148] Top shape: 1 1 4000 (4000)
I0924 03:42:30.990929  4359 net.cpp:156] Memory required for data: 42016
I0924 03:42:30.990937  4359 layer_factory.hpp:77] Creating layer lstm1_h_conted_0
I0924 03:42:30.990952  4359 net.cpp:91] Creating Layer lstm1_h_conted_0
I0924 03:42:30.990962  4359 net.cpp:425] lstm1_h_conted_0 <- h_0
I0924 03:42:30.990972  4359 net.cpp:425] lstm1_h_conted_0 <- cont_1_lstm1_cont_slice_0_split_0
I0924 03:42:30.990983  4359 net.cpp:399] lstm1_h_conted_0 -> h_conted_0
I0924 03:42:30.990991  4369 net.cpp:141] Setting up embedding
I0924 03:42:30.991014  4369 net.cpp:148] Top shape: 1 1 500 (500)
I0924 03:42:30.991024  4369 net.cpp:156] Memory required for data: 22408
I0924 03:42:30.991039  4369 layer_factory.hpp:77] Creating layer lstm1
I0924 03:42:30.991058  4369 net.cpp:91] Creating Layer lstm1
I0924 03:42:30.991070  4369 net.cpp:425] lstm1 <- embedded_input_frames
I0924 03:42:30.991081  4369 net.cpp:425] lstm1 <- cont_sentence_input_1_split_0
I0924 03:42:30.991099  4369 net.cpp:399] lstm1 -> lstm1
I0924 03:42:30.991111  4359 net.cpp:141] Setting up lstm1_h_conted_0
I0924 03:42:30.991120  4369 recurrent_layer.cpp:20] Initializing recurrent layer: assuming input batch contains 1 timesteps of 1 independent streams.
I0924 03:42:30.991124  4359 net.cpp:148] Top shape: 1 1 1000 (1000)
I0924 03:42:30.991147  4359 net.cpp:156] Memory required for data: 46016
I0924 03:42:30.991153  4359 layer_factory.hpp:77] Creating layer lstm1_transform_1
I0924 03:42:30.991165  4359 net.cpp:91] Creating Layer lstm1_transform_1
I0924 03:42:30.991171  4359 net.cpp:425] lstm1_transform_1 <- h_conted_0
I0924 03:42:30.991183  4359 net.cpp:399] lstm1_transform_1 -> W_hc_h_0
I0924 03:42:30.991564  4369 net.cpp:49] Initializing net from parameters: 
layer {
  name: "lstm1_"
  type: "Input"
  top: "x"
  top: "cont"
  input_param {
    shape {
      dim: 1
      dim: 1
      dim: 500
    }
    shape {
      dim: 1
      dim: 1
    }
  }
}
layer {
  name: "lstm1_"
  type: "Input"
  top: "c_0"
  top: "h_0"
  input_param {
    shape {
      dim: 1
      dim: 1
      dim: 1000
    }
    shape {
      dim: 1
      dim: 1
      dim: 1000
    }
  }
}
layer {
  name: "lstm1_cont_slice"
  type: "Slice"
  bottom: "cont"
  top: "cont_1"
  slice_param {
    axis: 0
  }
}
layer {
  name: "lstm1_x_transform"
  type: "InnerProduct"
  bottom: "x"
  top: "W_xc_x"
  param {
    name: "W_xc"
  }
  param {
    name: "b_c"
  }
  propagate_down: true
  inner_product_param {
    num_output: 4000
    bias_term: true
    weight_filler {
      type: "uniform"
      min: -0.08
      max: 0.08
    }
    bias_filler {
      type: "constant"
      value: 0
    }
    axis: 2
  }
}
layer {
  name: "lstm1_W_xc_x_slice"
  type: "Slice"
  bottom: "W_xc_x"
  top: "W_xc_x_1"
  slice_param {
    axis: 0
  }
}
layer {
  name: "lstm1_h_conted_0"
  type: "Scale"
  bottom: "h_0"
  bottom: "cont_1"
  top: "h_conted_0"
  scale_param {
    axis: 0
  }
}
layer {
  name: "lstm1_transform_1"
  type: "InnerProduct"
  bottom: "h_conted_0"
  top: "W_hc_h_0"
  param {
    name: "W_hc"
  }
  inner_product_param {
    num_output: 4000
    bias_term: false
    weight_filler {
      type: "uniform"
      min: -0.08
      max: 0.08
    }
    axis: 2
  }
}
layer {
  name: "lstm1_gate_input_1"
  type: "Eltwise"
  bottom: "W_hc_h_0"
  bottom: "W_xc_x_1"
  top: "gate_input_1"
  eltwise_param {
    operation: SUM
  }
}
layer {
  name: "lstm1_unit_1"
  type: "LSTMUnit"
  bottom: "c_0"
  bottom: "gate_input_1"
  bottom: "cont_1"
  top: "c_1"
  top: "h_1"
}
layer {
  name: "lstm1_"
  type: "Split"
  bottom: "c_1"
  top: "c_T"
}
layer {
  name: "lstm1_h_concat"
  type: "Concat"
  bottom: "h_1"
  top: "h"
  concat_param {
    axis: 0
  }
}
layer {
  name: "h_pseudoloss"
  type: "Reduction"
  bottom: "h"
  top: "h_pseudoloss"
  loss_weight: 1
}
I0924 03:42:30.991703  4369 layer_factory.hpp:77] Creating layer lstm1_
I0924 03:42:30.991722  4369 net.cpp:91] Creating Layer lstm1_
I0924 03:42:30.991734  4369 net.cpp:399] lstm1_ -> x
I0924 03:42:30.991753  4369 net.cpp:399] lstm1_ -> cont
I0924 03:42:31.000365  4331 net.cpp:141] Setting up cont_1_lstm1_cont_slice_0_split
I0924 03:42:31.000413  4331 net.cpp:148] Top shape: 1 1 (1)
I0924 03:42:31.000425  4331 net.cpp:148] Top shape: 1 1 (1)
I0924 03:42:31.000425  4369 net.cpp:141] Setting up lstm1_
I0924 03:42:31.000434  4331 net.cpp:156] Memory required for data: 10016
I0924 03:42:31.000447  4369 net.cpp:148] Top shape: 1 1 500 (500)
I0924 03:42:31.000447  4331 layer_factory.hpp:77] Creating layer lstm1_x_transform
I0924 03:42:31.000480  4369 net.cpp:148] Top shape: 1 1 (1)
I0924 03:42:31.000490  4369 net.cpp:156] Memory required for data: 2004
I0924 03:42:31.000494  4331 net.cpp:91] Creating Layer lstm1_x_transform
I0924 03:42:31.000500  4369 layer_factory.hpp:77] Creating layer lstm1_
I0924 03:42:31.000505  4331 net.cpp:425] lstm1_x_transform <- x
I0924 03:42:31.000520  4369 net.cpp:91] Creating Layer lstm1_
I0924 03:42:31.000522  4331 net.cpp:399] lstm1_x_transform -> W_xc_x
I0924 03:42:31.000550  4369 net.cpp:399] lstm1_ -> c_0
I0924 03:42:31.000573  4369 net.cpp:399] lstm1_ -> h_0
I0924 03:42:31.000608  4339 net.cpp:141] Setting up lstm1_x_transform
I0924 03:42:31.000650  4339 net.cpp:148] Top shape: 1 1 4000 (4000)
I0924 03:42:31.000659  4339 net.cpp:156] Memory required for data: 26016
I0924 03:42:31.000686  4339 layer_factory.hpp:77] Creating layer lstm1_W_xc_x_slice
I0924 03:42:31.000707  4339 net.cpp:91] Creating Layer lstm1_W_xc_x_slice
I0924 03:42:31.000717  4339 net.cpp:425] lstm1_W_xc_x_slice <- W_xc_x
I0924 03:42:31.000731  4339 net.cpp:399] lstm1_W_xc_x_slice -> W_xc_x_1
I0924 03:42:31.006899  4339 net.cpp:141] Setting up lstm1_W_xc_x_slice
I0924 03:42:31.006956  4339 net.cpp:148] Top shape: 1 1 4000 (4000)
I0924 03:42:31.006966  4339 net.cpp:156] Memory required for data: 42016
I0924 03:42:31.006979  4339 layer_factory.hpp:77] Creating layer lstm1_h_conted_0
I0924 03:42:31.006976  4369 net.cpp:141] Setting up lstm1_
I0924 03:42:31.007006  4339 net.cpp:91] Creating Layer lstm1_h_conted_0
I0924 03:42:31.007019  4339 net.cpp:425] lstm1_h_conted_0 <- h_0
I0924 03:42:31.007030  4369 net.cpp:148] Top shape: 1 1 1000 (1000)
I0924 03:42:31.007032  4339 net.cpp:425] lstm1_h_conted_0 <- cont_1_lstm1_cont_slice_0_split_0
I0924 03:42:31.007052  4369 net.cpp:148] Top shape: 1 1 1000 (1000)
I0924 03:42:31.007061  4369 net.cpp:156] Memory required for data: 10004
I0924 03:42:31.007063  4339 net.cpp:399] lstm1_h_conted_0 -> h_conted_0
I0924 03:42:31.007073  4369 layer_factory.hpp:77] Creating layer lstm1_cont_slice
I0924 03:42:31.007110  4369 net.cpp:91] Creating Layer lstm1_cont_slice
I0924 03:42:31.007122  4369 net.cpp:425] lstm1_cont_slice <- cont
I0924 03:42:31.007150  4369 net.cpp:399] lstm1_cont_slice -> cont_1
I0924 03:42:31.007261  4369 net.cpp:141] Setting up lstm1_cont_slice
I0924 03:42:31.007278  4369 net.cpp:148] Top shape: 1 1 (1)
I0924 03:42:31.007285  4369 net.cpp:156] Memory required for data: 10008
I0924 03:42:31.007293  4369 layer_factory.hpp:77] Creating layer cont_1_lstm1_cont_slice_0_split
I0924 03:42:31.007324  4369 net.cpp:91] Creating Layer cont_1_lstm1_cont_slice_0_split
I0924 03:42:31.007336  4369 net.cpp:425] cont_1_lstm1_cont_slice_0_split <- cont_1
I0924 03:42:31.007349  4369 net.cpp:399] cont_1_lstm1_cont_slice_0_split -> cont_1_lstm1_cont_slice_0_split_0
I0924 03:42:31.007380  4369 net.cpp:399] cont_1_lstm1_cont_slice_0_split -> cont_1_lstm1_cont_slice_0_split_1
I0924 03:42:31.007500  4369 net.cpp:141] Setting up cont_1_lstm1_cont_slice_0_split
I0924 03:42:31.007516  4369 net.cpp:148] Top shape: 1 1 (1)
I0924 03:42:31.007526  4369 net.cpp:148] Top shape: 1 1 (1)
I0924 03:42:31.007534  4369 net.cpp:156] Memory required for data: 10016
I0924 03:42:31.007555  4369 layer_factory.hpp:77] Creating layer lstm1_x_transform
I0924 03:42:31.007581  4369 net.cpp:91] Creating Layer lstm1_x_transform
I0924 03:42:31.007591  4369 net.cpp:425] lstm1_x_transform <- x
I0924 03:42:31.007597  4339 net.cpp:141] Setting up lstm1_h_conted_0
I0924 03:42:31.007619  4339 net.cpp:148] Top shape: 1 1 1000 (1000)
I0924 03:42:31.007618  4369 net.cpp:399] lstm1_x_transform -> W_xc_x
I0924 03:42:31.007633  4339 net.cpp:156] Memory required for data: 46016
I0924 03:42:31.007684  4339 layer_factory.hpp:77] Creating layer lstm1_transform_1
I0924 03:42:31.007705  4339 net.cpp:91] Creating Layer lstm1_transform_1
I0924 03:42:31.007714  4339 net.cpp:425] lstm1_transform_1 <- h_conted_0
I0924 03:42:31.007731  4339 net.cpp:399] lstm1_transform_1 -> W_hc_h_0
I0924 03:42:31.014003  4321 net.cpp:141] Setting up lstm1_transform_1
I0924 03:42:31.014053  4321 net.cpp:148] Top shape: 1 1 4000 (4000)
I0924 03:42:31.014063  4321 net.cpp:156] Memory required for data: 62016
I0924 03:42:31.014088  4321 layer_factory.hpp:77] Creating layer lstm1_gate_input_1
I0924 03:42:31.014122  4321 net.cpp:91] Creating Layer lstm1_gate_input_1
I0924 03:42:31.014134  4321 net.cpp:425] lstm1_gate_input_1 <- W_hc_h_0
I0924 03:42:31.014149  4321 net.cpp:425] lstm1_gate_input_1 <- W_xc_x_1
I0924 03:42:31.014164  4321 net.cpp:399] lstm1_gate_input_1 -> gate_input_1
I0924 03:42:31.032399  4321 net.cpp:141] Setting up lstm1_gate_input_1
I0924 03:42:31.032459  4321 net.cpp:148] Top shape: 1 1 4000 (4000)
I0924 03:42:31.032470  4321 net.cpp:156] Memory required for data: 78016
I0924 03:42:31.032485  4321 layer_factory.hpp:77] Creating layer lstm1_unit_1
I0924 03:42:31.032521  4321 net.cpp:91] Creating Layer lstm1_unit_1
I0924 03:42:31.032533  4321 net.cpp:425] lstm1_unit_1 <- c_0
I0924 03:42:31.032548  4321 net.cpp:425] lstm1_unit_1 <- gate_input_1
I0924 03:42:31.032558  4321 net.cpp:425] lstm1_unit_1 <- cont_1_lstm1_cont_slice_0_split_1
I0924 03:42:31.032572  4321 net.cpp:399] lstm1_unit_1 -> c_1
I0924 03:42:31.032593  4321 net.cpp:399] lstm1_unit_1 -> h_1
I0924 03:42:31.032641  4343 net.cpp:141] Setting up embedding
I0924 03:42:31.032686  4343 net.cpp:148] Top shape: 1 1 500 (500)
I0924 03:42:31.032697  4343 net.cpp:156] Memory required for data: 22408
I0924 03:42:31.032728  4343 layer_factory.hpp:77] Creating layer lstm1
I0924 03:42:31.032758  4343 net.cpp:91] Creating Layer lstm1
I0924 03:42:31.032773  4343 net.cpp:425] lstm1 <- embedded_input_frames
I0924 03:42:31.032785  4343 net.cpp:425] lstm1 <- cont_sentence_input_1_split_0
I0924 03:42:31.032801  4343 net.cpp:399] lstm1 -> lstm1
I0924 03:42:31.032825  4343 recurrent_layer.cpp:20] Initializing recurrent layer: assuming input batch contains 1 timesteps of 1 independent streams.
I0924 03:42:31.033217  4343 net.cpp:49] Initializing net from parameters: 
layer {
  name: "lstm1_"
  type: "Input"
  top: "x"
  top: "cont"
  input_param {
    shape {
      dim: 1
      dim: 1
      dim: 500
    }
    shape {
      dim: 1
      dim: 1
    }
  }
}
layer {
  name: "lstm1_"
  type: "Input"
  top: "c_0"
  top: "h_0"
  input_param {
    shape {
      dim: 1
      dim: 1
      dim: 1000
    }
    shape {
      dim: 1
      dim: 1
      dim: 1000
    }
  }
}
layer {
  name: "lstm1_cont_slice"
  type: "Slice"
  bottom: "cont"
  top: "cont_1"
  slice_param {
    axis: 0
  }
}
layer {
  name: "lstm1_x_transform"
  type: "InnerProduct"
  bottom: "x"
  top: "W_xc_x"
  param {
    name: "W_xc"
  }
  param {
    name: "b_c"
  }
  propagate_down: true
  inner_product_param {
    num_output: 4000
    bias_term: true
    weight_filler {
      type: "uniform"
      min: -0.08
      max: 0.08
    }
    bias_filler {
      type: "constant"
      value: 0
    }
    axis: 2
  }
}
layer {
  name: "lstm1_W_xc_x_slice"
  type: "Slice"
  bottom: "W_xc_x"
  top: "W_xc_x_1"
  slice_param {
    axis: 0
  }
}
layer {
  name: "lstm1_h_conted_0"
  type: "Scale"
  bottom: "h_0"
  bottom: "cont_1"
  top: "h_conted_0"
  scale_param {
    axis: 0
  }
}
layer {
  name: "lstm1_transform_1"
  type: "InnerProduct"
  bottom: "h_conted_0"
  top: "W_hc_h_0"
  param {
    name: "W_hc"
  }
  inner_product_param {
    num_output: 4000
    bias_term: false
    weight_filler {
      type: "uniform"
      min: -0.08
      max: 0.08
    }
    axis: 2
  }
}
layer {
  name: "lstm1_gate_input_1"
  type: "Eltwise"
  bottom: "W_hc_h_0"
  bottom: "W_xc_x_1"
  top: "gate_input_1"
  eltwise_param {
    operation: SUM
  }
}
layer {
  name: "lstm1_unit_1"
  type: "LSTMUnit"
  bottom: "c_0"
  bottom: "gate_input_1"
  bottom: "cont_1"
  top: "c_1"
  top: "h_1"
}
layer {
  name: "lstm1_"
  type: "Split"
  bottom: "c_1"
  top: "c_T"
}
layer {
  name: "lstm1_h_concat"
  type: "Concat"
  bottom: "h_1"
  top: "h"
  concat_param {
    axis: 0
  }
}
layer {
  name: "h_pseudoloss"
  type: "Reduction"
  bottom: "h"
  top: "h_pseudoloss"
  loss_weight: 1
}
I0924 03:42:31.033350  4343 layer_factory.hpp:77] Creating layer lstm1_
I0924 03:42:31.033367  4343 net.cpp:91] Creating Layer lstm1_
I0924 03:42:31.033377  4343 net.cpp:399] lstm1_ -> x
I0924 03:42:31.033395  4343 net.cpp:399] lstm1_ -> cont
I0924 03:42:31.035946  4343 net.cpp:141] Setting up lstm1_
I0924 03:42:31.035974  4343 net.cpp:148] Top shape: 1 1 500 (500)
I0924 03:42:31.035985  4343 net.cpp:148] Top shape: 1 1 (1)
I0924 03:42:31.035992  4343 net.cpp:156] Memory required for data: 2004
I0924 03:42:31.036001  4343 layer_factory.hpp:77] Creating layer lstm1_
I0924 03:42:31.036028  4343 net.cpp:91] Creating Layer lstm1_
I0924 03:42:31.036029  4321 net.cpp:141] Setting up lstm1_unit_1
I0924 03:42:31.036061  4321 net.cpp:148] Top shape: 1 1 1000 (1000)
I0924 03:42:31.036067  4321 net.cpp:148] Top shape: 1 1 1000 (1000)
I0924 03:42:31.036072  4321 net.cpp:156] Memory required for data: 86016
I0924 03:42:31.036078  4321 layer_factory.hpp:77] Creating layer lstm1_
I0924 03:42:31.036097  4321 net.cpp:91] Creating Layer lstm1_
I0924 03:42:31.036103  4321 net.cpp:425] lstm1_ <- c_1
I0924 03:42:31.036118  4321 net.cpp:399] lstm1_ -> c_T
I0924 03:42:31.036157  4331 net.cpp:141] Setting up lstm1_x_transform
I0924 03:42:31.036175  4331 net.cpp:148] Top shape: 1 1 4000 (4000)
I0924 03:42:31.036180  4331 net.cpp:156] Memory required for data: 26016
I0924 03:42:31.036196  4331 layer_factory.hpp:77] Creating layer lstm1_W_xc_x_slice
I0924 03:42:31.036207  4331 net.cpp:91] Creating Layer lstm1_W_xc_x_slice
I0924 03:42:31.036213  4331 net.cpp:425] lstm1_W_xc_x_slice <- W_xc_x
I0924 03:42:31.036226  4331 net.cpp:399] lstm1_W_xc_x_slice -> W_xc_x_1
I0924 03:42:31.036238  4369 net.cpp:141] Setting up lstm1_x_transform
I0924 03:42:31.036259  4369 net.cpp:148] Top shape: 1 1 4000 (4000)
I0924 03:42:31.036267  4369 net.cpp:156] Memory required for data: 26016
I0924 03:42:31.036285  4369 layer_factory.hpp:77] Creating layer lstm1_W_xc_x_slice
I0924 03:42:31.036299  4369 net.cpp:91] Creating Layer lstm1_W_xc_x_slice
I0924 03:42:31.036308  4369 net.cpp:425] lstm1_W_xc_x_slice <- W_xc_x
I0924 03:42:31.036322  4369 net.cpp:399] lstm1_W_xc_x_slice -> W_xc_x_1
I0924 03:42:31.036345  4321 net.cpp:141] Setting up lstm1_
I0924 03:42:31.036358  4321 net.cpp:148] Top shape: 1 1 1000 (1000)
I0924 03:42:31.036363  4321 net.cpp:156] Memory required for data: 90016
I0924 03:42:31.036368  4321 layer_factory.hpp:77] Creating layer lstm1_h_concat
I0924 03:42:31.036379  4321 net.cpp:91] Creating Layer lstm1_h_concat
I0924 03:42:31.036387  4321 net.cpp:425] lstm1_h_concat <- h_1
I0924 03:42:31.036391  4369 net.cpp:141] Setting up lstm1_W_xc_x_slice
I0924 03:42:31.036406  4369 net.cpp:148] Top shape: 1 1 4000 (4000)
I0924 03:42:31.036407  4321 net.cpp:399] lstm1_h_concat -> h
I0924 03:42:31.036414  4369 net.cpp:156] Memory required for data: 42016
I0924 03:42:31.036422  4369 layer_factory.hpp:77] Creating layer lstm1_h_conted_0
I0924 03:42:31.036437  4369 net.cpp:91] Creating Layer lstm1_h_conted_0
I0924 03:42:31.036444  4369 net.cpp:425] lstm1_h_conted_0 <- h_0
I0924 03:42:31.036454  4369 net.cpp:425] lstm1_h_conted_0 <- cont_1_lstm1_cont_slice_0_split_0
I0924 03:42:31.036469  4369 net.cpp:399] lstm1_h_conted_0 -> h_conted_0
I0924 03:42:31.036576  4331 net.cpp:141] Setting up lstm1_W_xc_x_slice
I0924 03:42:31.036588  4331 net.cpp:148] Top shape: 1 1 4000 (4000)
I0924 03:42:31.036593  4331 net.cpp:156] Memory required for data: 42016
I0924 03:42:31.036599  4331 layer_factory.hpp:77] Creating layer lstm1_h_conted_0
I0924 03:42:31.036608  4331 net.cpp:91] Creating Layer lstm1_h_conted_0
I0924 03:42:31.036614  4331 net.cpp:425] lstm1_h_conted_0 <- h_0
I0924 03:42:31.036620  4331 net.cpp:425] lstm1_h_conted_0 <- cont_1_lstm1_cont_slice_0_split_0
I0924 03:42:31.036628  4331 net.cpp:399] lstm1_h_conted_0 -> h_conted_0
I0924 03:42:31.036626  4321 net.cpp:141] Setting up lstm1_h_concat
I0924 03:42:31.036648  4321 net.cpp:148] Top shape: 1 1 1000 (1000)
I0924 03:42:31.036653  4321 net.cpp:156] Memory required for data: 94016
I0924 03:42:31.036659  4321 layer_factory.hpp:77] Creating layer h_pseudoloss
I0924 03:42:31.036679  4321 net.cpp:91] Creating Layer h_pseudoloss
I0924 03:42:31.036689  4321 net.cpp:425] h_pseudoloss <- h
I0924 03:42:31.036700  4321 net.cpp:399] h_pseudoloss -> h_pseudoloss
I0924 03:42:31.036816  4331 net.cpp:141] Setting up lstm1_h_conted_0
I0924 03:42:31.036830  4331 net.cpp:148] Top shape: 1 1 1000 (1000)
I0924 03:42:31.036834  4331 net.cpp:156] Memory required for data: 46016
I0924 03:42:31.036840  4331 layer_factory.hpp:77] Creating layer lstm1_transform_1
I0924 03:42:31.036852  4331 net.cpp:91] Creating Layer lstm1_transform_1
I0924 03:42:31.036857  4331 net.cpp:425] lstm1_transform_1 <- h_conted_0
I0924 03:42:31.036870  4331 net.cpp:399] lstm1_transform_1 -> W_hc_h_0
I0924 03:42:31.036039  4343 net.cpp:399] lstm1_ -> c_0
I0924 03:42:31.038713  4343 net.cpp:399] lstm1_ -> h_0
I0924 03:42:31.046236  4369 net.cpp:141] Setting up lstm1_h_conted_0
I0924 03:42:31.046284  4369 net.cpp:148] Top shape: 1 1 1000 (1000)
I0924 03:42:31.046293  4369 net.cpp:156] Memory required for data: 46016
I0924 03:42:31.046305  4369 layer_factory.hpp:77] Creating layer lstm1_transform_1
I0924 03:42:31.046329  4369 net.cpp:91] Creating Layer lstm1_transform_1
I0924 03:42:31.046340  4369 net.cpp:425] lstm1_transform_1 <- h_conted_0
I0924 03:42:31.046361  4369 net.cpp:399] lstm1_transform_1 -> W_hc_h_0
I0924 03:42:31.058784  4343 net.cpp:141] Setting up lstm1_
I0924 03:42:31.058841  4343 net.cpp:148] Top shape: 1 1 1000 (1000)
I0924 03:42:31.058853  4343 net.cpp:148] Top shape: 1 1 1000 (1000)
I0924 03:42:31.058861  4343 net.cpp:156] Memory required for data: 10004
I0924 03:42:31.058871  4343 layer_factory.hpp:77] Creating layer lstm1_cont_slice
I0924 03:42:31.058905  4343 net.cpp:91] Creating Layer lstm1_cont_slice
I0924 03:42:31.058917  4343 net.cpp:425] lstm1_cont_slice <- cont
I0924 03:42:31.058931  4343 net.cpp:399] lstm1_cont_slice -> cont_1
I0924 03:42:31.071122  4343 net.cpp:141] Setting up lstm1_cont_slice
I0924 03:42:31.071173  4343 net.cpp:148] Top shape: 1 1 (1)
I0924 03:42:31.071185  4343 net.cpp:156] Memory required for data: 10008
I0924 03:42:31.071197  4343 layer_factory.hpp:77] Creating layer cont_1_lstm1_cont_slice_0_split
I0924 03:42:31.071218  4343 net.cpp:91] Creating Layer cont_1_lstm1_cont_slice_0_split
I0924 03:42:31.071228  4343 net.cpp:425] cont_1_lstm1_cont_slice_0_split <- cont_1
I0924 03:42:31.071245  4343 net.cpp:399] cont_1_lstm1_cont_slice_0_split -> cont_1_lstm1_cont_slice_0_split_0
I0924 03:42:31.071264  4343 net.cpp:399] cont_1_lstm1_cont_slice_0_split -> cont_1_lstm1_cont_slice_0_split_1
I0924 03:42:31.071349  4343 net.cpp:141] Setting up cont_1_lstm1_cont_slice_0_split
I0924 03:42:31.071367  4343 net.cpp:148] Top shape: 1 1 (1)
I0924 03:42:31.071375  4343 net.cpp:148] Top shape: 1 1 (1)
I0924 03:42:31.071382  4343 net.cpp:156] Memory required for data: 10016
I0924 03:42:31.071390  4343 layer_factory.hpp:77] Creating layer lstm1_x_transform
I0924 03:42:31.071411  4343 net.cpp:91] Creating Layer lstm1_x_transform
I0924 03:42:31.071420  4343 net.cpp:425] lstm1_x_transform <- x
I0924 03:42:31.071436  4343 net.cpp:399] lstm1_x_transform -> W_xc_x
I0924 03:42:31.076735  4359 net.cpp:141] Setting up lstm1_transform_1
I0924 03:42:31.076786  4359 net.cpp:148] Top shape: 1 1 4000 (4000)
I0924 03:42:31.076797  4359 net.cpp:156] Memory required for data: 62016
I0924 03:42:31.076822  4359 layer_factory.hpp:77] Creating layer lstm1_gate_input_1
I0924 03:42:31.076850  4359 net.cpp:91] Creating Layer lstm1_gate_input_1
I0924 03:42:31.076861  4359 net.cpp:425] lstm1_gate_input_1 <- W_hc_h_0
I0924 03:42:31.076874  4359 net.cpp:425] lstm1_gate_input_1 <- W_xc_x_1
I0924 03:42:31.076885  4359 net.cpp:399] lstm1_gate_input_1 -> gate_input_1
I0924 03:42:31.076966  4359 net.cpp:141] Setting up lstm1_gate_input_1
I0924 03:42:31.076979  4359 net.cpp:148] Top shape: 1 1 4000 (4000)
I0924 03:42:31.076987  4359 net.cpp:156] Memory required for data: 78016
I0924 03:42:31.076995  4359 layer_factory.hpp:77] Creating layer lstm1_unit_1
I0924 03:42:31.077009  4359 net.cpp:91] Creating Layer lstm1_unit_1
I0924 03:42:31.077016  4359 net.cpp:425] lstm1_unit_1 <- c_0
I0924 03:42:31.077028  4359 net.cpp:425] lstm1_unit_1 <- gate_input_1
I0924 03:42:31.077036  4359 net.cpp:425] lstm1_unit_1 <- cont_1_lstm1_cont_slice_0_split_1
I0924 03:42:31.077051  4359 net.cpp:399] lstm1_unit_1 -> c_1
I0924 03:42:31.077075  4359 net.cpp:399] lstm1_unit_1 -> h_1
I0924 03:42:31.077170  4359 net.cpp:141] Setting up lstm1_unit_1
I0924 03:42:31.077185  4359 net.cpp:148] Top shape: 1 1 1000 (1000)
I0924 03:42:31.077196  4359 net.cpp:148] Top shape: 1 1 1000 (1000)
I0924 03:42:31.077203  4359 net.cpp:156] Memory required for data: 86016
I0924 03:42:31.077211  4359 layer_factory.hpp:77] Creating layer lstm1_
I0924 03:42:31.077224  4359 net.cpp:91] Creating Layer lstm1_
I0924 03:42:31.077232  4359 net.cpp:425] lstm1_ <- c_1
I0924 03:42:31.077244  4359 net.cpp:399] lstm1_ -> c_T
I0924 03:42:31.077292  4359 net.cpp:141] Setting up lstm1_
I0924 03:42:31.077307  4359 net.cpp:148] Top shape: 1 1 1000 (1000)
I0924 03:42:31.077314  4359 net.cpp:156] Memory required for data: 90016
I0924 03:42:31.077322  4359 layer_factory.hpp:77] Creating layer lstm1_h_concat
I0924 03:42:31.077335  4359 net.cpp:91] Creating Layer lstm1_h_concat
I0924 03:42:31.077347  4359 net.cpp:425] lstm1_h_concat <- h_1
I0924 03:42:31.077358  4359 net.cpp:399] lstm1_h_concat -> h
I0924 03:42:31.077405  4359 net.cpp:141] Setting up lstm1_h_concat
I0924 03:42:31.077419  4359 net.cpp:148] Top shape: 1 1 1000 (1000)
I0924 03:42:31.077426  4359 net.cpp:156] Memory required for data: 94016
I0924 03:42:31.077433  4359 layer_factory.hpp:77] Creating layer h_pseudoloss
I0924 03:42:31.077451  4359 net.cpp:91] Creating Layer h_pseudoloss
I0924 03:42:31.077461  4359 net.cpp:425] h_pseudoloss <- h
I0924 03:42:31.077471  4359 net.cpp:399] h_pseudoloss -> h_pseudoloss
I0924 03:42:31.077590  4359 net.cpp:141] Setting up h_pseudoloss
…
I0924 03:42:31.077776  4359 net.cpp:219] lstm1_ does not need backward computation.
I0924 03:42:31.077785  4359 net.cpp:261] This network produces output c_T
I0924 03:42:31.077791  4359 net.cpp:261] This network produces output h_pseudoloss
I0924 03:42:31.077821  4359 net.cpp:274] Network initialization done.
I0924 03:42:31.077896  4359 recurrent_layer.cpp:150] Adding parameter 0: W_xc
I0924 03:42:31.077905  4359 recurrent_layer.cpp:150] Adding parameter 1: b_c
I0924 03:42:31.077913  4359 recurrent_layer.cpp:150] Adding parameter 2: W_hc
I0924 03:42:31.078052  4359 net.cpp:141] Setting up lstm1
I0924 03:42:31.078068  4359 net.cpp:148] Top shape: 1 1 1000 (1000)
I0924 03:42:31.078076  4359 net.cpp:156] Memory required for data: 26408
I0924 03:42:31.078097  4359 layer_factory.hpp:77] Creating layer concat
I0924 03:42:31.078110  4359 net.cpp:91] Creating Layer concat
I0924 03:42:31.078120  4359 net.cpp:425] concat <- lstm1
I0924 03:42:31.078130  4359 net.cpp:425] concat <- embedded_input_sentence
I0924 03:42:31.078140  4359 net.cpp:425] concat <- reshaped_stage_indicator
I0924 03:42:31.078151  4359 net.cpp:399] concat -> lstm1_video_sequence
I0924 03:42:31.078198  4359 net.cpp:141] Setting up concat
I0924 03:42:31.078212  4359 net.cpp:148] Top shape: 1 1 1501 (1501)
I0924 03:42:31.078219  4359 net.cpp:156] Memory required for data: 32412
I0924 03:42:31.078227  4359 layer_factory.hpp:77] Creating layer lstm2
I0924 03:42:31.078244  4359 net.cpp:91] Creating Layer lstm2
I0924 03:42:31.078253  4359 net.cpp:425] lstm2 <- lstm1_video_sequence
I0924 03:42:31.078263  4359 net.cpp:425] lstm2 <- cont_sentence_input_1_split_1
I0924 03:42:31.078274  4359 net.cpp:399] lstm2 -> lstm2
I0924 03:42:31.078290  4359 recurrent_layer.cpp:20] Initializing recurrent layer: assuming input batch contains 1 timesteps of 1 independent streams.
I0924 03:42:31.078680  4359 net.cpp:49] Initializing net from parameters: 
layer {
  name: "lstm2_"
  type: "Input"
  top: "x"
  top: "cont"
  input_param {
    shape {
      dim: 1
      dim: 1
      dim: 1501
    }
    shape {
      dim: 1
      dim: 1
    }
  }
}
layer {
  name: "lstm2_"
  type: "Input"
  top: "c_0"
  top: "h_0"
  input_param {
    shape {
      dim: 1
      dim: 1
      dim: 1000
    }
    shape {
      dim: 1
      dim: 1
      dim: 1000
    }
  }
}
layer {
  name: "lstm2_cont_slice"
  type: "Slice"
  bottom: "cont"
  top: "cont_1"
  slice_param {
    axis: 0
  }
}
layer {
  name: "lstm2_x_transform"
  type: "InnerProduct"
  bottom: "x"
  top: "W_xc_x"
  param {
    name: "W_xc"
  }
  param {
    name: "b_c"
  }
  propagate_down: true
  inner_product_param {
    num_output: 4000
    bias_term: true
    weight_filler {
      type: "uniform"
      min: -0.08
      max: 0.08
    }
    bias_filler {
      type: "constant"
      value: 0
    }
    axis: 2
  }
}
layer {
  name: "lstm2_W_xc_x_slice"
  type: "Slice"
  bottom: "W_xc_x"
  top: "W_xc_x_1"
  slice_param {
    axis: 0
  }
}
layer {
  name: "lstm2_h_conted_0"
  type: "Scale"
  bottom: "h_0"
  bottom: "cont_1"
  top: "h_conted_0"
  scale_param {
    axis: 0
  }
}
layer {
  name: "lstm2_transform_1"
  type: "InnerProduct"
  bottom: "h_conted_0"
  top: "W_hc_h_0"
  param {
    name: "W_hc"
  }
  inner_product_param {
    num_output: 4000
    bias_term: false
    weight_filler {
      type: "uniform"
      min: -0.08
      max: 0.08
    }
    axis: 2
  }
}
layer {
  name: "lstm2_gate_input_1"
  type: "Eltwise"
  bottom: "W_hc_h_0"
  bottom: "W_xc_x_1"
  top: "gate_input_1"
  eltwise_param {
    operation: SUM
  }
}
layer {
  name: "lstm2_unit_1"
  type: "LSTMUnit"
  bottom: "c_0"
  bottom: "gate_input_1"
  bottom: "cont_1"
  top: "c_1"
  top: "h_1"
}
layer {
  name: "lstm2_"
  type: "Split"
  bottom: "c_1"
  top: "c_T"
}
layer {
  name: "lstm2_h_concat"
  type: "Concat"
  bottom: "h_1"
  top: "h"
  concat_param {
    axis: 0
  }
}
layer {
  name: "h_pseudoloss"
  type: "Reduction"
  bottom: "h"
  top: "h_pseudoloss"
  loss_weight: 1
}
I0924 03:42:31.078809  4359 layer_factory.hpp:77] Creating layer lstm2_
I0924 03:42:31.078825  4359 net.cpp:91] Creating Layer lstm2_
I0924 03:42:31.078836  4359 net.cpp:399] lstm2_ -> x
I0924 03:42:31.078852  4359 net.cpp:399] lstm2_ -> cont
I0924 03:42:31.078927  4359 net.cpp:141] Setting up lstm2_
I0924 03:42:31.078941  4359 net.cpp:148] Top shape: 1 1 1501 (1501)
I0924 03:42:31.078951  4359 net.cpp:148] Top shape: 1 1 (1)
I0924 03:42:31.078958  4359 net.cpp:156] Memory required for data: 6008
I0924 03:42:31.078966  4359 layer_factory.hpp:77] Creating layer lstm2_
I0924 03:42:31.078979  4359 net.cpp:91] Creating Layer lstm2_
I0924 03:42:31.078995  4359 net.cpp:399] lstm2_ -> c_0
I0924 03:42:31.079011  4359 net.cpp:399] lstm2_ -> h_0
I0924 03:42:31.079078  4359 net.cpp:141] Setting up lstm2_
I0924 03:42:31.079092  4359 net.cpp:148] Top shape: 1 1 1000 (1000)
I0924 03:42:31.079100  4359 net.cpp:148] Top shape: 1 1 1000 (1000)
I0924 03:42:31.079107  4359 net.cpp:156] Memory required for data: 14008
I0924 03:42:31.079115  4359 layer_factory.hpp:77] Creating layer lstm2_cont_slice
I0924 03:42:31.079131  4359 net.cpp:91] Creating Layer lstm2_cont_slice
I0924 03:42:31.079139  4359 net.cpp:425] lstm2_cont_slice <- cont
I0924 03:42:31.079150  4359 net.cpp:399] lstm2_cont_slice -> cont_1
I0924 03:42:31.079202  4359 net.cpp:141] Setting up lstm2_cont_slice
I0924 03:42:31.079216  4359 net.cpp:148] Top shape: 1 1 (1)
I0924 03:42:31.079223  4359 net.cpp:156] Memory required for data: 14012
I0924 03:42:31.079231  4359 layer_factory.hpp:77] Creating layer cont_1_lstm2_cont_slice_0_split
I0924 03:42:31.079241  4359 net.cpp:91] Creating Layer cont_1_lstm2_cont_slice_0_split
I0924 03:42:31.079251  4359 net.cpp:425] cont_1_lstm2_cont_slice_0_split <- cont_1
I0924 03:42:31.079264  4359 net.cpp:399] cont_1_lstm2_cont_slice_0_split -> cont_1_lstm2_cont_slice_0_split_0
I0924 03:42:31.079278  4359 net.cpp:399] cont_1_lstm2_cont_slice_0_split -> cont_1_lstm2_cont_slice_0_split_1
I0924 03:42:31.079350  4359 net.cpp:141] Setting up cont_1_lstm2_cont_slice_0_split
I0924 03:42:31.079365  4359 net.cpp:148] Top shape: 1 1 (1)
I0924 03:42:31.079375  4359 net.cpp:148] Top shape: 1 1 (1)
I0924 03:42:31.079382  4359 net.cpp:156] Memory required for data: 14020
I0924 03:42:31.079391  4359 layer_factory.hpp:77] Creating layer lstm2_x_transform
I0924 03:42:31.079408  4359 net.cpp:91] Creating Layer lstm2_x_transform
I0924 03:42:31.079417  4359 net.cpp:425] lstm2_x_transform <- x
I0924 03:42:31.079430  4359 net.cpp:399] lstm2_x_transform -> W_xc_x
I0924 03:42:31.098172  4321 net.cpp:141] Setting up h_pseudoloss
I0924 03:42:31.098219  4321 net.cpp:148] Top shape: (1)
I0924 03:42:31.098227  4321 net.cpp:151]     with loss weight 1
I0924 03:42:31.098245  4321 net.cpp:156] Memory required for data: 94020
I0924 03:42:31.098254  4321 net.cpp:217] h_pseudoloss needs backward computation.
I0924 03:42:31.098260  4321 net.cpp:217] lstm1_h_concat needs backward computation.
I0924 03:42:31.098266  4321 net.cpp:219] lstm1_ does not need backward computation.
I0924 03:42:31.098273  4321 net.cpp:217] lstm1_unit_1 needs backward computation.
I0924 03:42:31.098268  4339 net.cpp:141] Setting up lstm1_transform_1
I0924 03:42:31.098280  4321 net.cpp:217] lstm1_gate_input_1 needs backward computation.
I0924 03:42:31.098289  4321 net.cpp:217] lstm1_transform_1 needs backward computation.
I0924 03:42:31.098290  4339 net.cpp:148] Top shape: 1 1 4000 (4000)
I0924 03:42:31.098294  4321 net.cpp:219] lstm1_h_conted_0 does not need backward computation.
I0924 03:42:31.098295  4339 net.cpp:156] Memory required for data: 62016
I0924 03:42:31.098300  4321 net.cpp:217] lstm1_W_xc_x_slice needs backward computation.
I0924 03:42:31.098306  4321 net.cpp:217] lstm1_x_transform needs backward computation.
I0924 03:42:31.098311  4321 net.cpp:219] cont_1_lstm1_cont_slice_0_split does not need backward computation.
I0924 03:42:31.098315  4339 layer_factory.hpp:77] Creating layer lstm1_gate_input_1
I0924 03:42:31.098320  4321 net.cpp:219] lstm1_cont_slice does not need backward computation.
I0924 03:42:31.098335  4321 net.cpp:219] lstm1_ does not need backward computation.
I0924 03:42:31.098340  4339 net.cpp:91] Creating Layer lstm1_gate_input_1
I0924 03:42:31.098342  4321 net.cpp:219] lstm1_ does not need backward computation.
I0924 03:42:31.098359  4339 net.cpp:425] lstm1_gate_input_1 <- W_hc_h_0
I0924 03:42:31.098362  4321 net.cpp:261] This network produces output c_T
I0924 03:42:31.098371  4339 net.cpp:425] lstm1_gate_input_1 <- W_xc_x_1
I0924 03:42:31.098372  4321 net.cpp:261] This network produces output h_pseudoloss
I0924 03:42:31.098390  4339 net.cpp:399] lstm1_gate_input_1 -> gate_input_1
I0924 03:42:31.098407  4321 net.cpp:274] Network initialization done.
I0924 03:42:31.098456  4327 net.cpp:141] Setting up embedding
I0924 03:42:31.098480  4327 net.cpp:148] Top shape: 1 1 500 (500)
I0924 03:42:31.098480  4321 recurrent_layer.cpp:150] Adding parameter 0: W_xc
I0924 03:42:31.098498  4327 net.cpp:156] Memory required for data: 22408
I0924 03:42:31.098505  4321 recurrent_layer.cpp:150] Adding parameter 1: b_c
I0924 03:42:31.098512  4321 recurrent_layer.cpp:150] Adding parameter 2: W_hc
I0924 03:42:31.098520  4327 layer_factory.hpp:77] Creating layer lstm1
I0924 03:42:31.098536  4339 net.cpp:141] Setting up lstm1_gate_input_1
I0924 03:42:31.098541  4327 net.cpp:91] Creating Layer lstm1
I0924 03:42:31.098568  4339 net.cpp:148] Top shape: 1 1 4000 (4000)
I0924 03:42:31.098573  4327 net.cpp:425] lstm1 <- embedded_input_frames
I0924 03:42:31.098577  4339 net.cpp:156] Memory required for data: 78016
I0924 03:42:31.098620  4339 layer_factory.hpp:77] Creating layer lstm1_unit_1
I0924 03:42:31.098621  4327 net.cpp:425] lstm1 <- cont_sentence_input_1_split_0
I0924 03:42:31.098635  4339 net.cpp:91] Creating Layer lstm1_unit_1
I0924 03:42:31.098641  4327 net.cpp:399] lstm1 -> lstm1
I0924 03:42:31.098644  4339 net.cpp:425] lstm1_unit_1 <- c_0
I0924 03:42:31.098656  4339 net.cpp:425] lstm1_unit_1 <- gate_input_1
I0924 03:42:31.098664  4327 recurrent_layer.cpp:20] Initializing recurrent layer: assuming input batch contains 1 timesteps of 1 independent streams.
I0924 03:42:31.098666  4339 net.cpp:425] lstm1_unit_1 <- cont_1_lstm1_cont_slice_0_split_1
I0924 03:42:31.098692  4339 net.cpp:399] lstm1_unit_1 -> c_1
I0924 03:42:31.098707  4339 net.cpp:399] lstm1_unit_1 -> h_1
I0924 03:42:31.098812  4321 net.cpp:141] Setting up lstm1
I0924 03:42:31.098829  4321 net.cpp:148] Top shape: 1 1 1000 (1000)
I0924 03:42:31.098837  4321 net.cpp:156] Memory required for data: 26408
I0924 03:42:31.098853  4343 net.cpp:141] Setting up lstm1_x_transform
I0924 03:42:31.098860  4321 layer_factory.hpp:77] Creating layer concat
I0924 03:42:31.098882  4343 net.cpp:148] Top shape: 1 1 4000 (4000)
I0924 03:42:31.098886  4321 net.cpp:91] Creating Layer concat
I0924 03:42:31.098891  4343 net.cpp:156] Memory required for data: 26016
I0924 03:42:31.098897  4321 net.cpp:425] concat <- lstm1
I0924 03:42:31.098907  4321 net.cpp:425] concat <- embedded_input_sentence
I0924 03:42:31.098911  4343 layer_factory.hpp:77] Creating layer lstm1_W_xc_x_slice
I0924 03:42:31.098917  4321 net.cpp:425] concat <- reshaped_stage_indicator
I0924 03:42:31.098927  4343 net.cpp:91] Creating Layer lstm1_W_xc_x_slice
I0924 03:42:31.098928  4321 net.cpp:399] concat -> lstm1_video_sequence
I0924 03:42:31.098937  4343 net.cpp:425] lstm1_W_xc_x_slice <- W_xc_x
I0924 03:42:31.098950  4343 net.cpp:399] lstm1_W_xc_x_slice -> W_xc_x_1
I0924 03:42:31.098963  4331 net.cpp:141] Setting up lstm1_transform_1
I0924 03:42:31.098985  4331 net.cpp:148] Top shape: 1 1 4000 (4000)
I0924 03:42:31.098989  4321 net.cpp:141] Setting up concat
I0924 03:42:31.098994  4331 net.cpp:156] Memory required for data: 62016
I0924 03:42:31.099002  4321 net.cpp:148] Top shape: 1 1 1501 (1501)
I0924 03:42:31.099010  4321 net.cpp:156] Memory required for data: 32412
I0924 03:42:31.099009  4331 layer_factory.hpp:77] Creating layer lstm1_gate_input_1
I0924 03:42:31.099025  4321 layer_factory.hpp:77] Creating layer lstm2
I0924 03:42:31.099031  4339 net.cpp:141] Setting up lstm1_unit_1
I0924 03:42:31.099042  4321 net.cpp:91] Creating Layer lstm2
I0924 03:42:31.099045  4331 net.cpp:91] Creating Layer lstm1_gate_input_1
I0924 03:42:31.099052  4321 net.cpp:425] lstm2 <- lstm1_video_sequence
I0924 03:42:31.099047  4339 net.cpp:148] Top shape: 1 1 1000 (1000)
I0924 03:42:31.099063  4321 net.cpp:425] lstm2 <- cont_sentence_input_1_split_1
I0924 03:42:31.099067  4339 net.cpp:148] Top shape: 1 1 1000 (1000)
I0924 03:42:31.099068  4327 net.cpp:49] Initializing net from parameters: 
layer {
  name: "lstm1_"
  type: "Input"
  top: "x"
  top: "cont"
  input_param {
    shape {
      dim: 1
      dim: 1
      dim: 500
    }
    shape {
      dim: 1
      dim: 1
    }
  }
}
layer {
  name: "lstm1_"
  type: "Input"
  top: "c_0"
  top: "h_0"
  input_param {
    shape {
      dim: 1
      dim: 1
      dim: 1000
    }
    shape {
      dim: 1
      dim: 1
      dim: 1000
    }
  }
}
layer {
  name: "lstm1_cont_slice"
  type: "Slice"
  bottom: "cont"
  top: "cont_1"
  slice_param {
    axis: 0
  }
}
layer {
  name: "lstm1_x_transform"
  type: "InnerProduct"
  bottom: "x"
  top: "W_xc_x"
  param {
    name: "W_xc"
  }
  param {
    name: "b_c"
  }
  propagate_down: true
  inner_product_param {
    num_output: 4000
    bias_term: true
    weight_filler {
      type: "uniform"
      min: -0.08
      max: 0.08
    }
    bias_filler {
      type: "constant"
      value: 0
    }
    axis: 2
  }
}
layer {
  name: "lstm1_W_xc_x_slice"
  type: "Slice"
  bottom: "W_xc_x"
  top: "W_xc_x_1"
  slice_param {
    axis: 0
  }
}
layer {
  name: "lstm1_h_conted_0"
  type: "Scale"
  bottom: "h_0"
  bottom: "cont_1"
  top: "h_conted_0"
  scale_param {
    axis: 0
  }
}
layer {
  name: "lstm1_transform_1"
  type: "InnerProduct"
  bottom: "h_conted_0"
  top: "W_hc_h_0"
  param {
    name: "W_hc"
  }
  inner_product_param {
    num_output: 4000
    bias_term: false
    weight_filler {
      type: "uniform"
      min: -0.08
      max: 0.08
    }
    axis: 2
  }
}
layer {
  name: "lstm1_gate_input_1"
  type: "Eltwise"
  bottom: "W_hc_h_0"
  bottom: "W_xc_x_1"
  top: "gate_input_1"
  eltwise_param {
    operation: SUM
  }
}
layer {
  name: "lstm1_unit_1"
  type: "LSTMUnit"
  bottom: "c_0"
  bottom: "gate_input_1"
  bottom: "cont_1"
  top: "c_1"
  top: "h_1"
}
layer {
  name: "lstm1_"
  type: "Split"
  bottom: "c_1"
  top: "c_T"
}
layer {
  name: "lstm1_h_concat"
  type: "Concat"
  bottom: "h_1"
  top: "h"
  concat_param {
    axis: 0
  }
}
layer {
  name: "h_pseudoloss"
  type: "Reduction"
  bottom: "h"
  top: "h_pseudoloss"
  loss_weight: 1
}
I0924 03:42:31.099063  4331 net.cpp:425] lstm1_gate_input_1 <- W_hc_h_0
I0924 03:42:31.099076  4339 net.cpp:156] Memory required for data: 86016
I0924 03:42:31.099086  4343 net.cpp:141] Setting up lstm1_W_xc_x_slice
I0924 03:42:31.099097  4339 layer_factory.hpp:77] Creating layer lstm1_
I0924 03:42:31.099089  4321 net.cpp:399] lstm2 -> lstm2
I0924 03:42:31.099093  4331 net.cpp:425] lstm1_gate_input_1 <- W_xc_x_1
I0924 03:42:31.099109  4343 net.cpp:148] Top shape: 1 1 4000 (4000)
I0924 03:42:31.099117  4343 net.cpp:156] Memory required for data: 42016
I0924 03:42:31.099118  4321 recurrent_layer.cpp:20] Initializing recurrent layer: assuming input batch contains 1 timesteps of 1 independent streams.
I0924 03:42:31.099122  4331 net.cpp:399] lstm1_gate_input_1 -> gate_input_1
I0924 03:42:31.099125  4343 layer_factory.hpp:77] Creating layer lstm1_h_conted_0
I0924 03:42:31.099118  4339 net.cpp:91] Creating Layer lstm1_
I0924 03:42:31.099136  4339 net.cpp:425] lstm1_ <- c_1
I0924 03:42:31.099140  4343 net.cpp:91] Creating Layer lstm1_h_conted_0
I0924 03:42:31.099148  4339 net.cpp:399] lstm1_ -> c_T
I0924 03:42:31.099149  4343 net.cpp:425] lstm1_h_conted_0 <- h_0
I0924 03:42:31.099169  4343 net.cpp:425] lstm1_h_conted_0 <- cont_1_lstm1_cont_slice_0_split_0
I0924 03:42:31.099180  4343 net.cpp:399] lstm1_h_conted_0 -> h_conted_0
I0924 03:42:31.099184  4331 net.cpp:141] Setting up lstm1_gate_input_1
I0924 03:42:31.099200  4331 net.cpp:148] Top shape: 1 1 4000 (4000)
I0924 03:42:31.099206  4331 net.cpp:156] Memory required for data: 78016
I0924 03:42:31.099220  4331 layer_factory.hpp:77] Creating layer lstm1_unit_1
I0924 03:42:31.099220  4327 layer_factory.hpp:77] Creating layer lstm1_
I0924 03:42:31.099225  4339 net.cpp:141] Setting up lstm1_
I0924 03:42:31.099232  4331 net.cpp:91] Creating Layer lstm1_unit_1
I0924 03:42:31.099239  4339 net.cpp:148] Top shape: 1 1 1000 (1000)
I0924 03:42:31.099242  4327 net.cpp:91] Creating Layer lstm1_
I0924 03:42:31.099254  4327 net.cpp:399] lstm1_ -> x
I0924 03:42:31.099258  4339 net.cpp:156] Memory required for data: 90016
I0924 03:42:31.099267  4339 layer_factory.hpp:77] Creating layer lstm1_h_concat
I0924 03:42:31.099241  4331 net.cpp:425] lstm1_unit_1 <- c_0
I0924 03:42:31.099282  4327 net.cpp:399] lstm1_ -> cont
I0924 03:42:31.099287  4339 net.cpp:91] Creating Layer lstm1_h_concat
I0924 03:42:31.099292  4331 net.cpp:425] lstm1_unit_1 <- gate_input_1
I0924 03:42:31.099295  4339 net.cpp:425] lstm1_h_concat <- h_1
I0924 03:42:31.099301  4331 net.cpp:425] lstm1_unit_1 <- cont_1_lstm1_cont_slice_0_split_1
I0924 03:42:31.099311  4339 net.cpp:399] lstm1_h_concat -> h
I0924 03:42:31.099318  4331 net.cpp:399] lstm1_unit_1 -> c_1
I0924 03:42:31.099334  4331 net.cpp:399] lstm1_unit_1 -> h_1
I0924 03:42:31.099335  4343 net.cpp:141] Setting up lstm1_h_conted_0
I0924 03:42:31.099351  4343 net.cpp:148] Top shape: 1 1 1000 (1000)
I0924 03:42:31.099357  4343 net.cpp:156] Memory required for data: 46016
I0924 03:42:31.099364  4343 layer_factory.hpp:77] Creating layer lstm1_transform_1
I0924 03:42:31.099373  4339 net.cpp:141] Setting up lstm1_h_concat
I0924 03:42:31.099380  4343 net.cpp:91] Creating Layer lstm1_transform_1
I0924 03:42:31.099387  4339 net.cpp:148] Top shape: 1 1 1000 (1000)
I0924 03:42:31.099387  4343 net.cpp:425] lstm1_transform_1 <- h_conted_0
I0924 03:42:31.099400  4339 net.cpp:156] Memory required for data: 94016
I0924 03:42:31.099408  4339 layer_factory.hpp:77] Creating layer h_pseudoloss
I0924 03:42:31.099411  4343 net.cpp:399] lstm1_transform_1 -> W_hc_h_0
I0924 03:42:31.099421  4339 net.cpp:91] Creating Layer h_pseudoloss
I0924 03:42:31.099429  4339 net.cpp:425] h_pseudoloss <- h
I0924 03:42:31.099429  4321 net.cpp:49] Initializing net from parameters: 
layer {
  name: "lstm2_"
  type: "Input"
  top: "x"
  top: "cont"
  input_param {
    shape {
      dim: 1
      dim: 1
      dim: 1501
    }
    shape {
      dim: 1
      dim: 1
    }
  }
}
layer {
  name: "lstm2_"
  type: "Input"
  top: "c_0"
  top: "h_0"
  input_param {
    shape {
      dim: 1
      dim: 1
      dim: 1000
    }
    shape {
      dim: 1
      dim: 1
      dim: 1000
    }
  }
}
layer {
  name: "lstm2_cont_slice"
  type: "Slice"
  bottom: "cont"
  top: "cont_1"
  slice_param {
    axis: 0
  }
}
layer {
  name: "lstm2_x_transform"
  type: "InnerProduct"
  bottom: "x"
  top: "W_xc_x"
  param {
    name: "W_xc"
  }
  param {
    name: "b_c"
  }
  propagate_down: true
  inner_product_param {
    num_output: 4000
    bias_term: true
    weight_filler {
      type: "uniform"
      min: -0.08
      max: 0.08
    }
    bias_filler {
      type: "constant"
      value: 0
    }
    axis: 2
  }
}
layer {
  name: "lstm2_W_xc_x_slice"
  type: "Slice"
  bottom: "W_xc_x"
  top: "W_xc_x_1"
  slice_param {
    axis: 0
  }
}
layer {
  name: "lstm2_h_conted_0"
  type: "Scale"
  bottom: "h_0"
  bottom: "cont_1"
  top: "h_conted_0"
  scale_param {
    axis: 0
  }
}
layer {
  name: "lstm2_transform_1"
  type: "InnerProduct"
  bottom: "h_conted_0"
  top: "W_hc_h_0"
  param {
    name: "W_hc"
  }
  inner_product_param {
    num_output: 4000
    bias_term: false
    weight_filler {
      type: "uniform"
      min: -0.08
      max: 0.08
    }
    axis: 2
  }
}
layer {
  name: "lstm2_gate_input_1"
  type: "Eltwise"
  bottom: "W_hc_h_0"
  bottom: "W_xc_x_1"
  top: "gate_input_1"
  eltwise_param {
    operation: SUM
  }
}
layer {
  name: "lstm2_unit_1"
  type: "LSTMUnit"
  bottom: "c_0"
  bottom: "gate_input_1"
  bottom: "cont_1"
  top: "c_1"
  top: "h_1"
}
layer {
  name: "lstm2_"
  type: "Split"
  bottom: "c_1"
  top: "c_T"
}
layer {
  name: "lstm2_h_concat"
  type: "Concat"
  bottom: "h_1"
  top: "h"
  concat_param {
    axis: 0
  }
}
layer {
  name: "h_pseudoloss"
  type: "Reduction"
  bottom: "h"
  top: "h_pseudoloss"
  loss_weight: 1
}
I0924 03:42:31.099439  4339 net.cpp:399] h_pseudoloss -> h_pseudoloss
I0924 03:42:31.099500  4327 net.cpp:141] Setting up lstm1_
I0924 03:42:31.099519  4327 net.cpp:148] Top shape: 1 1 500 (500)
I0924 03:42:31.099529  4327 net.cpp:148] Top shape: 1 1 (1)
I0924 03:42:31.099536  4327 net.cpp:156] Memory required for data: 2004
I0924 03:42:31.099545  4327 layer_factory.hpp:77] Creating layer lstm1_
I0924 03:42:31.099557  4321 layer_factory.hpp:77] Creating layer lstm2_
I0924 03:42:31.099565  4327 net.cpp:91] Creating Layer lstm1_
I0924 03:42:31.099575  4321 net.cpp:91] Creating Layer lstm2_
I0924 03:42:31.099578  4327 net.cpp:399] lstm1_ -> c_0
I0924 03:42:31.099584  4321 net.cpp:399] lstm2_ -> x
I0924 03:42:31.099596  4327 net.cpp:399] lstm1_ -> h_0
I0924 03:42:31.099601  4321 net.cpp:399] lstm2_ -> cont
I0924 03:42:31.099624  4331 net.cpp:141] Setting up lstm1_unit_1
I0924 03:42:31.099639  4331 net.cpp:148] Top shape: 1 1 1000 (1000)
I0924 03:42:31.099649  4331 net.cpp:148] Top shape: 1 1 1000 (1000)
I0924 03:42:31.099656  4331 net.cpp:156] Memory required for data: 86016
I0924 03:42:31.099663  4331 layer_factory.hpp:77] Creating layer lstm1_
I0924 03:42:31.099674  4331 net.cpp:91] Creating Layer lstm1_
I0924 03:42:31.099683  4331 net.cpp:425] lstm1_ <- c_1
I0924 03:42:31.099694  4331 net.cpp:399] lstm1_ -> c_T
I0924 03:42:31.099702  4327 net.cpp:141] Setting up lstm1_
I0924 03:42:31.099721  4327 net.cpp:148] Top shape: 1 1 1000 (1000)
I0924 03:42:31.099732  4327 net.cpp:148] Top shape: 1 1 1000 (1000)
I0924 03:42:31.099740  4327 net.cpp:156] Memory required for data: 10004
I0924 03:42:31.099745  4331 net.cpp:141] Setting up lstm1_
I0924 03:42:31.099748  4327 layer_factory.hpp:77] Creating layer lstm1_cont_slice
I0924 03:42:31.099766  4331 net.cpp:148] Top shape: 1 1 1000 (1000)
I0924 03:42:31.099774  4331 net.cpp:156] Memory required for data: 90016
I0924 03:42:31.099776  4327 net.cpp:91] Creating Layer lstm1_cont_slice
I0924 03:42:31.099782  4331 layer_factory.hpp:77] Creating layer lstm1_h_concat
I0924 03:42:31.099787  4327 net.cpp:425] lstm1_cont_slice <- cont
I0924 03:42:31.099798  4331 net.cpp:91] Creating Layer lstm1_h_concat
I0924 03:42:31.099805  4327 net.cpp:399] lstm1_cont_slice -> cont_1
I0924 03:42:31.099807  4331 net.cpp:425] lstm1_h_concat <- h_1
I0924 03:42:31.099830  4331 net.cpp:399] lstm1_h_concat -> h
I0924 03:42:31.099874  4327 net.cpp:141] Setting up lstm1_cont_slice
I0924 03:42:31.099892  4327 net.cpp:148] Top shape: 1 1 (1)
I0924 03:42:31.099900  4327 net.cpp:156] Memory required for data: 10008
I0924 03:42:31.099910  4327 layer_factory.hpp:77] Creating layer cont_1_lstm1_cont_slice_0_split
I0924 03:42:31.099927  4327 net.cpp:91] Creating Layer cont_1_lstm1_cont_slice_0_split
I0924 03:42:31.099937  4327 net.cpp:425] cont_1_lstm1_cont_slice_0_split <- cont_1
I0924 03:42:31.099948  4327 net.cpp:399] cont_1_lstm1_cont_slice_0_split -> cont_1_lstm1_cont_slice_0_split_0
I0924 03:42:31.099957  4331 net.cpp:141] Setting up lstm1_h_concat
I0924 03:42:31.099967  4327 net.cpp:399] cont_1_lstm1_cont_slice_0_split -> cont_1_lstm1_cont_slice_0_split_1
I0924 03:42:31.099972  4331 net.cpp:148] Top shape: 1 1 1000 (1000)
I0924 03:42:31.099979  4331 net.cpp:156] Memory required for data: 94016
I0924 03:42:31.099987  4331 layer_factory.hpp:77] Creating layer h_pseudoloss
I0924 03:42:31.099987  4321 net.cpp:141] Setting up lstm2_
I0924 03:42:31.099999  4331 net.cpp:91] Creating Layer h_pseudoloss
I0924 03:42:31.100003  4321 net.cpp:148] Top shape: 1 1 1501 (1501)
I0924 03:42:31.100008  4331 net.cpp:425] h_pseudoloss <- h
I0924 03:42:31.100014  4321 net.cpp:148] Top shape: 1 1 (1)
I0924 03:42:31.100019  4331 net.cpp:399] h_pseudoloss -> h_pseudoloss
I0924 03:42:31.100021  4321 net.cpp:156] Memory required for data: 6008
I0924 03:42:31.100029  4321 layer_factory.hpp:77] Creating layer lstm2_
I0924 03:42:31.100044  4321 net.cpp:91] Creating Layer lstm2_
I0924 03:42:31.100064  4327 net.cpp:141] Setting up cont_1_lstm1_cont_slice_0_split
I0924 03:42:31.100067  4321 net.cpp:399] lstm2_ -> c_0
I0924 03:42:31.100085  4327 net.cpp:148] Top shape: 1 1 (1)
I0924 03:42:31.100095  4327 net.cpp:148] Top shape: 1 1 (1)
I0924 03:42:31.100095  4321 net.cpp:399] lstm2_ -> h_0
I0924 03:42:31.100106  4327 net.cpp:156] Memory required for data: 10016
I0924 03:42:31.100116  4327 layer_factory.hpp:77] Creating layer lstm1_x_transform
I0924 03:42:31.100133  4327 net.cpp:91] Creating Layer lstm1_x_transform
I0924 03:42:31.100143  4327 net.cpp:425] lstm1_x_transform <- x
I0924 03:42:31.100152  4331 net.cpp:141] Setting up h_pseudoloss
I0924 03:42:31.100162  4327 net.cpp:399] lstm1_x_transform -> W_xc_x
I0924 03:42:31.100167  4331 net.cpp:148] Top shape: (1)
I0924 03:42:31.100175  4331 net.cpp:151]     with loss weight 1
I0924 03:42:31.100191  4331 net.cpp:156] Memory required for data: 94020
I0924 03:42:31.100199  4331 net.cpp:217] h_pseudoloss needs backward computation.
I0924 03:42:31.100208  4331 net.cpp:217] lstm1_h_concat needs backward computation.
I0924 03:42:31.100214  4331 net.cpp:219] lstm1_ does not need backward computation.
I0924 03:42:31.100222  4331 net.cpp:217] lstm1_unit_1 needs backward computation.
I0924 03:42:31.100231  4331 net.cpp:217] lstm1_gate_input_1 needs backward computation.
I0924 03:42:31.100239  4331 net.cpp:217] lstm1_transform_1 needs backward computation.
I0924 03:42:31.100247  4331 net.cpp:219] lstm1_h_conted_0 does not need backward computation.
I0924 03:42:31.100252  4321 net.cpp:141] Setting up lstm2_
I0924 03:42:31.100257  4331 net.cpp:217] lstm1_W_xc_x_slice needs backward computation.
I0924 03:42:31.100265  4321 net.cpp:148] Top shape: 1 1 1000 (1000)
I0924 03:42:31.100265  4331 net.cpp:217] lstm1_x_transform needs backward computation.
I0924 03:42:31.100278  4321 net.cpp:148] Top shape: 1 1 1000 (1000)
I0924 03:42:31.100283  4321 net.cpp:156] Memory required for data: 14008
I0924 03:42:31.100286  4331 net.cpp:219] cont_1_lstm1_cont_slice_0_split does not need backward computation.
I0924 03:42:31.100288  4321 layer_factory.hpp:77] Creating layer lstm2_cont_slice
I0924 03:42:31.100301  4331 net.cpp:219] lstm1_cont_slice does not need backward computation.
I0924 03:42:31.100306  4321 net.cpp:91] Creating Layer lstm2_cont_slice
I0924 03:42:31.100312  4321 net.cpp:425] lstm2_cont_slice <- cont
I0924 03:42:31.100312  4331 net.cpp:219] lstm1_ does not need backward computation.
I0924 03:42:31.100320  4321 net.cpp:399] lstm2_cont_slice -> cont_1
I0924 03:42:31.100322  4331 net.cpp:219] lstm1_ does not need backward computation.
I0924 03:42:31.100329  4331 net.cpp:261] This network produces output c_T
I0924 03:42:31.100390  4331 net.cpp:261] This network produces output h_pseudoloss
I0924 03:42:31.100409  4331 net.cpp:274] Network initialization done.
I0924 03:42:31.100455  4331 recurrent_layer.cpp:150] Adding parameter 0: W_xc
I0924 03:42:31.100461  4331 recurrent_layer.cpp:150] Adding parameter 1: b_c
I0924 03:42:31.100466  4331 recurrent_layer.cpp:150] Adding parameter 2: W_hc
I0924 03:42:31.106101  4321 net.cpp:141] Setting up lstm2_cont_slice
I0924 03:42:31.106145  4321 net.cpp:148] Top shape: 1 1 (1)
I0924 03:42:31.106154  4321 net.cpp:156] Memory required for data: 14012
I0924 03:42:31.106163  4321 layer_factory.hpp:77] Creating layer cont_1_lstm2_cont_slice_0_split
I0924 03:42:31.106194  4321 net.cpp:91] Creating Layer cont_1_lstm2_cont_slice_0_split
I0924 03:42:31.106202  4321 net.cpp:425] cont_1_lstm2_cont_slice_0_split <- cont_1
I0924 03:42:31.106214  4321 net.cpp:399] cont_1_lstm2_cont_slice_0_split -> cont_1_lstm2_cont_slice_0_split_0
I0924 03:42:31.106226  4321 net.cpp:399] cont_1_lstm2_cont_slice_0_split -> cont_1_lstm2_cont_slice_0_split_1
I0924 03:42:31.114210  4331 net.cpp:141] Setting up lstm1
I0924 03:42:31.114279  4331 net.cpp:148] Top shape: 1 1 1000 (1000)
I0924 03:42:31.114292  4331 net.cpp:156] Memory required for data: 26408
I0924 03:42:31.114326  4331 layer_factory.hpp:77] Creating layer concat
I0924 03:42:31.114351  4331 net.cpp:91] Creating Layer concat
I0924 03:42:31.114362  4331 net.cpp:425] concat <- lstm1
I0924 03:42:31.114374  4331 net.cpp:425] concat <- embedded_input_sentence
I0924 03:42:31.114383  4331 net.cpp:425] concat <- reshaped_stage_indicator
I0924 03:42:31.114400  4331 net.cpp:399] concat -> lstm1_video_sequence
I0924 03:42:31.114467  4331 net.cpp:141] Setting up concat
I0924 03:42:31.114481  4331 net.cpp:148] Top shape: 1 1 1501 (1501)
I0924 03:42:31.114490  4331 net.cpp:156] Memory required for data: 32412
I0924 03:42:31.114497  4331 layer_factory.hpp:77] Creating layer lstm2
I0924 03:42:31.114517  4331 net.cpp:91] Creating Layer lstm2
I0924 03:42:31.114526  4331 net.cpp:425] lstm2 <- lstm1_video_sequence
I0924 03:42:31.114537  4331 net.cpp:425] lstm2 <- cont_sentence_input_1_split_1
I0924 03:42:31.114548  4331 net.cpp:399] lstm2 -> lstm2
I0924 03:42:31.114565  4331 recurrent_layer.cpp:20] Initializing recurrent layer: assuming input batch contains 1 timesteps of 1 independent streams.
I0924 03:42:31.114820  4321 net.cpp:141] Setting up cont_1_lstm2_cont_slice_0_split
I0924 03:42:31.114845  4321 net.cpp:148] Top shape: 1 1 (1)
I0924 03:42:31.114858  4321 net.cpp:148] Top shape: 1 1 (1)
I0924 03:42:31.114866  4321 net.cpp:156] Memory required for data: 14020
I0924 03:42:31.114876  4321 layer_factory.hpp:77] Creating layer lstm2_x_transform
I0924 03:42:31.114897  4321 net.cpp:91] Creating Layer lstm2_x_transform
I0924 03:42:31.114908  4321 net.cpp:425] lstm2_x_transform <- x
I0924 03:42:31.114926  4321 net.cpp:399] lstm2_x_transform -> W_xc_x
I0924 03:42:31.114992  4331 net.cpp:49] Initializing net from parameters: 
layer {
  name: "lstm2_"
  type: "Input"
  top: "x"
  top: "cont"
  input_param {
    shape {
      dim: 1
      dim: 1
      dim: 1501
    }
    shape {
      dim: 1
      dim: 1
    }
  }
}
layer {
  name: "lstm2_"
  type: "Input"
  top: "c_0"
  top: "h_0"
  input_param {
    shape {
      dim: 1
      dim: 1
      dim: 1000
    }
    shape {
      dim: 1
      dim: 1
      dim: 1000
    }
  }
}
layer {
  name: "lstm2_cont_slice"
  type: "Slice"
  bottom: "cont"
  top: "cont_1"
  slice_param {
    axis: 0
  }
}
layer {
  name: "lstm2_x_transform"
  type: "InnerProduct"
  bottom: "x"
  top: "W_xc_x"
  param {
    name: "W_xc"
  }
  param {
    name: "b_c"
  }
  propagate_down: true
  inner_product_param {
    num_output: 4000
    bias_term: true
    weight_filler {
      type: "uniform"
      min: -0.08
      max: 0.08
    }
    bias_filler {
      type: "constant"
      value: 0
    }
    axis: 2
  }
}
layer {
  name: "lstm2_W_xc_x_slice"
  type: "Slice"
  bottom: "W_xc_x"
  top: "W_xc_x_1"
  slice_param {
    axis: 0
  }
}
layer {
  name: "lstm2_h_conted_0"
  type: "Scale"
  bottom: "h_0"
  bottom: "cont_1"
  top: "h_conted_0"
  scale_param {
    axis: 0
  }
}
layer {
  name: "lstm2_transform_1"
  type: "InnerProduct"
  bottom: "h_conted_0"
  top: "W_hc_h_0"
  param {
    name: "W_hc"
  }
  inner_product_param {
    num_output: 4000
    bias_term: false
    weight_filler {
      type: "uniform"
      min: -0.08
      max: 0.08
    }
    axis: 2
  }
}
layer {
  name: "lstm2_gate_input_1"
  type: "Eltwise"
  bottom: "W_hc_h_0"
  bottom: "W_xc_x_1"
  top: "gate_input_1"
  eltwise_param {
    operation: SUM
  }
}
layer {
  name: "lstm2_unit_1"
  type: "LSTMUnit"
  bottom: "c_0"
  bottom: "gate_input_1"
  bottom: "cont_1"
  top: "c_1"
  top: "h_1"
}
layer {
  name: "lstm2_"
  type: "Split"
  bottom: "c_1"
  top: "c_T"
}
layer {
  name: "lstm2_h_concat"
  type: "Concat"
  bottom: "h_1"
  top: "h"
  concat_param {
    axis: 0
  }
}
layer {
  name: "h_pseudoloss"
  type: "Reduction"
  bottom: "h"
  top: "h_pseudoloss"
  loss_weight: 1
}
I0924 03:42:31.127789  4331 layer_factory.hpp:77] Creating layer lstm2_
I0924 03:42:31.127852  4331 net.cpp:91] Creating Layer lstm2_
I0924 03:42:31.127866  4331 net.cpp:399] lstm2_ -> x
I0924 03:42:31.127893  4331 net.cpp:399] lstm2_ -> cont
I0924 03:42:31.129647  4339 net.cpp:141] Setting up h_pseudoloss
I0924 03:42:31.129673  4339 net.cpp:148] Top shape: (1)
…
I0924 03:42:31.129767  4339 net.cpp:219] lstm1_h_conted_0 does not need backward computation.
I0924 03:42:31.129781  4339 net.cpp:217] lstm1_W_xc_x_slice needs backward computation.
I0924 03:42:31.129791  4339 net.cpp:217] lstm1_x_transform needs backward computation.
I0924 03:42:31.129802  4339 net.cpp:219] cont_1_lstm1_cont_slice_0_split does not need backward computation.
I0924 03:42:31.129787  4369 net.cpp:141] Setting up lstm1_transform_1
I0924 03:42:31.129825  4339 net.cpp:219] lstm1_cont_slice does not need backward computation.
I0924 03:42:31.129858  4339 net.cpp:219] lstm1_ does not need backward computation.
I0924 03:42:31.129858  4369 net.cpp:148] Top shape: 1 1 4000 (4000)
I0924 03:42:31.129868  4339 net.cpp:219] lstm1_ does not need backward computation.
I0924 03:42:31.129871  4369 net.cpp:156] Memory required for data: 62016
I0924 03:42:31.129875  4339 net.cpp:261] This network produces output c_T
I0924 03:42:31.129885  4339 net.cpp:261] This network produces output h_pseudoloss
I0924 03:42:31.129899  4369 layer_factory.hpp:77] Creating layer lstm1_gate_input_1
I0924 03:42:31.129909  4339 net.cpp:274] Network initialization done.
I0924 03:42:31.129930  4369 net.cpp:91] Creating Layer lstm1_gate_input_1
I0924 03:42:31.129942  4369 net.cpp:425] lstm1_gate_input_1 <- W_hc_h_0
I0924 03:42:31.129954  4369 net.cpp:425] lstm1_gate_input_1 <- W_xc_x_1
I0924 03:42:31.129966  4369 net.cpp:399] lstm1_gate_input_1 -> gate_input_1
I0924 03:42:31.129983  4339 recurrent_layer.cpp:150] Adding parameter 0: W_xc
I0924 03:42:31.129994  4339 recurrent_layer.cpp:150] Adding parameter 1: b_c
I0924 03:42:31.130002  4339 recurrent_layer.cpp:150] Adding parameter 2: W_hc
I0924 03:42:31.130148  4331 net.cpp:141] Setting up lstm2_
I0924 03:42:31.130167  4331 net.cpp:148] Top shape: 1 1 1501 (1501)
I0924 03:42:31.130178  4331 net.cpp:148] Top shape: 1 1 (1)
I0924 03:42:31.130185  4331 net.cpp:156] Memory required for data: 6008
I0924 03:42:31.130194  4331 layer_factory.hpp:77] Creating layer lstm2_
I0924 03:42:31.130210  4331 net.cpp:91] Creating Layer lstm2_
I0924 03:42:31.130235  4331 net.cpp:399] lstm2_ -> c_0
I0924 03:42:31.130239  4327 net.cpp:141] Setting up lstm1_x_transform
I0924 03:42:31.130255  4331 net.cpp:399] lstm2_ -> h_0
I0924 03:42:31.130260  4327 net.cpp:148] Top shape: 1 1 4000 (4000)
I0924 03:42:31.130270  4327 net.cpp:156] Memory required for data: 26016
I0924 03:42:31.130270  4339 net.cpp:141] Setting up lstm1
I0924 03:42:31.130286  4339 net.cpp:148] Top shape: 1 1 1000 (1000)
I0924 03:42:31.130290  4327 layer_factory.hpp:77] Creating layer lstm1_W_xc_x_slice
I0924 03:42:31.130295  4339 net.cpp:156] Memory required for data: 26408
I0924 03:42:31.130306  4327 net.cpp:91] Creating Layer lstm1_W_xc_x_slice
I0924 03:42:31.130316  4339 layer_factory.hpp:77] Creating layer concat
I0924 03:42:31.130317  4327 net.cpp:425] lstm1_W_xc_x_slice <- W_xc_x
I0924 03:42:31.130338  4339 net.cpp:91] Creating Layer concat
I0924 03:42:31.130338  4369 net.cpp:141] Setting up lstm1_gate_input_1
I0924 03:42:31.130340  4327 net.cpp:399] lstm1_W_xc_x_slice -> W_xc_x_1
I0924 03:42:31.130354  4339 net.cpp:425] concat <- lstm1
I0924 03:42:31.130359  4369 net.cpp:148] Top shape: 1 1 4000 (4000)
I0924 03:42:31.130365  4339 net.cpp:425] concat <- embedded_input_sentence
I0924 03:42:31.130368  4369 net.cpp:156] Memory required for data: 78016
I0924 03:42:31.130378  4339 net.cpp:425] concat <- reshaped_stage_indicator
I0924 03:42:31.130378  4369 layer_factory.hpp:77] Creating layer lstm1_unit_1
I0924 03:42:31.130396  4339 net.cpp:399] concat -> lstm1_video_sequence
I0924 03:42:31.130409  4369 net.cpp:91] Creating Layer lstm1_unit_1
I0924 03:42:31.130421  4369 net.cpp:425] lstm1_unit_1 <- c_0
I0924 03:42:31.130432  4369 net.cpp:425] lstm1_unit_1 <- gate_input_1
I0924 03:42:31.130442  4369 net.cpp:425] lstm1_unit_1 <- cont_1_lstm1_cont_slice_0_split_1
I0924 03:42:31.130445  4331 net.cpp:141] Setting up lstm2_
I0924 03:42:31.130461  4369 net.cpp:399] lstm1_unit_1 -> c_1
I0924 03:42:31.130462  4331 net.cpp:148] Top shape: 1 1 1000 (1000)
I0924 03:42:31.130486  4339 net.cpp:141] Setting up concat
I0924 03:42:31.130487  4331 net.cpp:148] Top shape: 1 1 1000 (1000)
I0924 03:42:31.130503  4339 net.cpp:148] Top shape: 1 1 1501 (1501)
I0924 03:42:31.130504  4331 net.cpp:156] Memory required for data: 14008
I0924 03:42:31.130516  4339 net.cpp:156] Memory required for data: 32412
I0924 03:42:31.130520  4331 layer_factory.hpp:77] Creating layer lstm2_cont_slice
I0924 03:42:31.130523  4339 layer_factory.hpp:77] Creating layer lstm2
I0924 03:42:31.130539  4331 net.cpp:91] Creating Layer lstm2_cont_slice
I0924 03:42:31.130542  4339 net.cpp:91] Creating Layer lstm2
I0924 03:42:31.130548  4331 net.cpp:425] lstm2_cont_slice <- cont
I0924 03:42:31.130550  4339 net.cpp:425] lstm2 <- lstm1_video_sequence
I0924 03:42:31.130555  4327 net.cpp:141] Setting up lstm1_W_xc_x_slice
I0924 03:42:31.130560  4339 net.cpp:425] lstm2 <- cont_sentence_input_1_split_1
I0924 03:42:31.130560  4331 net.cpp:399] lstm2_cont_slice -> cont_1
I0924 03:42:31.130575  4339 net.cpp:399] lstm2 -> lstm2
I0924 03:42:31.130579  4327 net.cpp:148] Top shape: 1 1 4000 (4000)
I0924 03:42:31.130568  4369 net.cpp:399] lstm1_unit_1 -> h_1
I0924 03:42:31.130594  4339 recurrent_layer.cpp:20] Initializing recurrent layer: assuming input batch contains 1 timesteps of 1 independent streams.
I0924 03:42:31.130589  4327 net.cpp:156] Memory required for data: 42016
I0924 03:42:31.130632  4327 layer_factory.hpp:77] Creating layer lstm1_h_conted_0
I0924 03:42:31.130650  4327 net.cpp:91] Creating Layer lstm1_h_conted_0
I0924 03:42:31.130658  4327 net.cpp:425] lstm1_h_conted_0 <- h_0
I0924 03:42:31.130668  4327 net.cpp:425] lstm1_h_conted_0 <- cont_1_lstm1_cont_slice_0_split_0
I0924 03:42:31.130681  4327 net.cpp:399] lstm1_h_conted_0 -> h_conted_0
I0924 03:42:31.130873  4331 net.cpp:141] Setting up lstm2_cont_slice
I0924 03:42:31.130889  4331 net.cpp:148] Top shape: 1 1 (1)
I0924 03:42:31.130897  4331 net.cpp:156] Memory required for data: 14012
I0924 03:42:31.130904  4331 layer_factory.hpp:77] Creating layer cont_1_lstm2_cont_slice_0_split
I0924 03:42:31.130923  4331 net.cpp:91] Creating Layer cont_1_lstm2_cont_slice_0_split
I0924 03:42:31.130933  4331 net.cpp:425] cont_1_lstm2_cont_slice_0_split <- cont_1
I0924 03:42:31.130944  4331 net.cpp:399] cont_1_lstm2_cont_slice_0_split -> cont_1_lstm2_cont_slice_0_split_0
I0924 03:42:31.130957  4331 net.cpp:399] cont_1_lstm2_cont_slice_0_split -> cont_1_lstm2_cont_slice_0_split_1
I0924 03:42:31.130975  4339 net.cpp:49] Initializing net from parameters: 
layer {
  name: "lstm2_"
  type: "Input"
  top: "x"
  top: "cont"
  input_param {
    shape {
      dim: 1
      dim: 1
      dim: 1501
    }
    shape {
      dim: 1
      dim: 1
    }
  }
}
layer {
  name: "lstm2_"
  type: "Input"
  top: "c_0"
  top: "h_0"
  input_param {
    shape {
      dim: 1
      dim: 1
      dim: 1000
    }
    shape {
      dim: 1
      dim: 1
      dim: 1000
    }
  }
}
layer {
  name: "lstm2_cont_slice"
  type: "Slice"
  bottom: "cont"
  top: "cont_1"
  slice_param {
    axis: 0
  }
}
layer {
  name: "lstm2_x_transform"
  type: "InnerProduct"
  bottom: "x"
  top: "W_xc_x"
  param {
    name: "W_xc"
  }
  param {
    name: "b_c"
  }
  propagate_down: true
  inner_product_param {
    num_output: 4000
    bias_term: true
    weight_filler {
      type: "uniform"
      min: -0.08
      max: 0.08
    }
    bias_filler {
      type: "constant"
      value: 0
    }
    axis: 2
  }
}
layer {
  name: "lstm2_W_xc_x_slice"
  type: "Slice"
  bottom: "W_xc_x"
  top: "W_xc_x_1"
  slice_param {
    axis: 0
  }
}
layer {
  name: "lstm2_h_conted_0"
  type: "Scale"
  bottom: "h_0"
  bottom: "cont_1"
  top: "h_conted_0"
  scale_param {
    axis: 0
  }
}
layer {
  name: "lstm2_transform_1"
  type: "InnerProduct"
  bottom: "h_conted_0"
  top: "W_hc_h_0"
  param {
    name: "W_hc"
  }
  inner_product_param {
    num_output: 4000
    bias_term: false
    weight_filler {
      type: "uniform"
      min: -0.08
      max: 0.08
    }
    axis: 2
  }
}
layer {
  name: "lstm2_gate_input_1"
  type: "Eltwise"
  bottom: "W_hc_h_0"
  bottom: "W_xc_x_1"
  top: "gate_input_1"
  eltwise_param {
    operation: SUM
  }
}
layer {
  name: "lstm2_unit_1"
  type: "LSTMUnit"
  bottom: "c_0"
  bottom: "gate_input_1"
  bottom: "cont_1"
  top: "c_1"
  top: "h_1"
}
layer {
  name: "lstm2_"
  type: "Split"
  bottom: "c_1"
  top: "c_T"
}
layer {
  name: "lstm2_h_concat"
  type: "Concat"
  bottom: "h_1"
  top: "h"
  concat_param {
    axis: 0
  }
}
layer {
  name: "h_pseudoloss"
  type: "Reduction"
  bottom: "h"
  top: "h_pseudoloss"
  loss_weight: 1
}
I0924 03:42:31.131106  4339 layer_factory.hpp:77] Creating layer lstm2_
I0924 03:42:31.131124  4339 net.cpp:91] Creating Layer lstm2_
I0924 03:42:31.131134  4339 net.cpp:399] lstm2_ -> x
I0924 03:42:31.131151  4339 net.cpp:399] lstm2_ -> cont
I0924 03:42:31.131434  4369 net.cpp:141] Setting up lstm1_unit_1
I0924 03:42:31.131454  4369 net.cpp:148] Top shape: 1 1 1000 (1000)
I0924 03:42:31.131464  4369 net.cpp:148] Top shape: 1 1 1000 (1000)
I0924 03:42:31.131474  4369 net.cpp:156] Memory required for data: 86016
I0924 03:42:31.131481  4369 layer_factory.hpp:77] Creating layer lstm1_
I0924 03:42:31.131489  4331 net.cpp:141] Setting up cont_1_lstm2_cont_slice_0_split
I0924 03:42:31.131494  4369 net.cpp:91] Creating Layer lstm1_
I0924 03:42:31.131505  4369 net.cpp:425] lstm1_ <- c_1
I0924 03:42:31.131506  4331 net.cpp:148] Top shape: 1 1 (1)
I0924 03:42:31.131516  4369 net.cpp:399] lstm1_ -> c_T
I0924 03:42:31.131518  4331 net.cpp:148] Top shape: 1 1 (1)
I0924 03:42:31.131538  4331 net.cpp:156] Memory required for data: 14020
I0924 03:42:31.131546  4331 layer_factory.hpp:77] Creating layer lstm2_x_transform
I0924 03:42:31.131567  4339 net.cpp:141] Setting up lstm2_
I0924 03:42:31.131567  4331 net.cpp:91] Creating Layer lstm2_x_transform
I0924 03:42:31.131592  4339 net.cpp:148] Top shape: 1 1 1501 (1501)
I0924 03:42:31.131592  4331 net.cpp:425] lstm2_x_transform <- x
I0924 03:42:31.131606  4339 net.cpp:148] Top shape: 1 1 (1)
I0924 03:42:31.131613  4331 net.cpp:399] lstm2_x_transform -> W_xc_x
I0924 03:42:31.131614  4339 net.cpp:156] Memory required for data: 6008
I0924 03:42:31.131633  4339 layer_factory.hpp:77] Creating layer lstm2_
I0924 03:42:31.131649  4339 net.cpp:91] Creating Layer lstm2_
I0924 03:42:31.131662  4339 net.cpp:399] lstm2_ -> c_0
I0924 03:42:31.131678  4339 net.cpp:399] lstm2_ -> h_0
I0924 03:42:31.131688  4327 net.cpp:141] Setting up lstm1_h_conted_0
I0924 03:42:31.131707  4327 net.cpp:148] Top shape: 1 1 1000 (1000)
I0924 03:42:31.131716  4327 net.cpp:156] Memory required for data: 46016
I0924 03:42:31.131723  4327 layer_factory.hpp:77] Creating layer lstm1_transform_1
I0924 03:42:31.131739  4327 net.cpp:91] Creating Layer lstm1_transform_1
I0924 03:42:31.131748  4327 net.cpp:425] lstm1_transform_1 <- h_conted_0
I0924 03:42:31.131762  4327 net.cpp:399] lstm1_transform_1 -> W_hc_h_0
I0924 03:42:31.134973  4369 net.cpp:141] Setting up lstm1_
I0924 03:42:31.135000  4369 net.cpp:148] Top shape: 1 1 1000 (1000)
I0924 03:42:31.135006  4369 net.cpp:156] Memory required for data: 90016
I0924 03:42:31.135013  4369 layer_factory.hpp:77] Creating layer lstm1_h_concat
I0924 03:42:31.135027  4369 net.cpp:91] Creating Layer lstm1_h_concat
I0924 03:42:31.135035  4369 net.cpp:425] lstm1_h_concat <- h_1
I0924 03:42:31.135043  4369 net.cpp:399] lstm1_h_concat -> h
I0924 03:42:31.145282  4369 net.cpp:141] Setting up lstm1_h_concat
I0924 03:42:31.145335  4369 net.cpp:148] Top shape: 1 1 1000 (1000)
I0924 03:42:31.145345  4369 net.cpp:156] Memory required for data: 94016
I0924 03:42:31.145359  4369 layer_factory.hpp:77] Creating layer h_pseudoloss
I0924 03:42:31.145357  4339 net.cpp:141] Setting up lstm2_
I0924 03:42:31.145404  4369 net.cpp:91] Creating Layer h_pseudoloss
I0924 03:42:31.145408  4339 net.cpp:148] Top shape: 1 1 1000 (1000)
I0924 03:42:31.145419  4369 net.cpp:425] h_pseudoloss <- h
I0924 03:42:31.145422  4339 net.cpp:148] Top shape: 1 1 1000 (1000)
I0924 03:42:31.145431  4339 net.cpp:156] Memory required for data: 14008
I0924 03:42:31.145438  4369 net.cpp:399] h_pseudoloss -> h_pseudoloss
I0924 03:42:31.145442  4339 layer_factory.hpp:77] Creating layer lstm2_cont_slice
I0924 03:42:31.145467  4339 net.cpp:91] Creating Layer lstm2_cont_slice
I0924 03:42:31.145476  4339 net.cpp:425] lstm2_cont_slice <- cont
I0924 03:42:31.145491  4339 net.cpp:399] lstm2_cont_slice -> cont_1
I0924 03:42:31.163889  4339 net.cpp:141] Setting up lstm2_cont_slice
I0924 03:42:31.163964  4339 net.cpp:148] Top shape: 1 1 (1)
I0924 03:42:31.163976  4339 net.cpp:156] Memory required for data: 14012
I0924 03:42:31.163990  4339 layer_factory.hpp:77] Creating layer cont_1_lstm2_cont_slice_0_split
I0924 03:42:31.164018  4339 net.cpp:91] Creating Layer cont_1_lstm2_cont_slice_0_split
I0924 03:42:31.164032  4339 net.cpp:425] cont_1_lstm2_cont_slice_0_split <- cont_1
I0924 03:42:31.164052  4339 net.cpp:399] cont_1_lstm2_cont_slice_0_split -> cont_1_lstm2_cont_slice_0_split_0
I0924 03:42:31.164074  4339 net.cpp:399] cont_1_lstm2_cont_slice_0_split -> cont_1_lstm2_cont_slice_0_split_1
I0924 03:42:31.164198  4339 net.cpp:141] Setting up cont_1_lstm2_cont_slice_0_split
I0924 03:42:31.164216  4339 net.cpp:148] Top shape: 1 1 (1)
I0924 03:42:31.164228  4339 net.cpp:148] Top shape: 1 1 (1)
I0924 03:42:31.164237  4339 net.cpp:156] Memory required for data: 14020
I0924 03:42:31.164247  4339 layer_factory.hpp:77] Creating layer lstm2_x_transform
I0924 03:42:31.164278  4339 net.cpp:91] Creating Layer lstm2_x_transform
I0924 03:42:31.164289  4339 net.cpp:425] lstm2_x_transform <- x
I0924 03:42:31.164306  4339 net.cpp:399] lstm2_x_transform -> W_xc_x
I0924 03:42:31.178882  4343 net.cpp:141] Setting up lstm1_transform_1
I0924 03:42:31.178947  4343 net.cpp:148] Top shape: 1 1 4000 (4000)
I0924 03:42:31.178958  4343 net.cpp:156] Memory required for data: 62016
I0924 03:42:31.178993  4343 layer_factory.hpp:77] Creating layer lstm1_gate_input_1
I0924 03:42:31.179021  4343 net.cpp:91] Creating Layer lstm1_gate_input_1
I0924 03:42:31.179045  4343 net.cpp:425] lstm1_gate_input_1 <- W_hc_h_0
I0924 03:42:31.179056  4343 net.cpp:425] lstm1_gate_input_1 <- W_xc_x_1
I0924 03:42:31.179066  4359 net.cpp:141] Setting up lstm2_x_transform
I0924 03:42:31.179075  4343 net.cpp:399] lstm1_gate_input_1 -> gate_input_1
I0924 03:42:31.179177  4325 net.cpp:141] Setting up embedding
I0924 03:42:31.179198  4325 net.cpp:148] Top shape: 1 1 500 (500)
I0924 03:42:31.179208  4325 net.cpp:156] Memory required for data: 22408
I0924 03:42:31.179208  4343 net.cpp:141] Setting up lstm1_gate_input_1
I0924 03:42:31.179235  4325 layer_factory.hpp:77] Creating layer lstm1
I0924 03:42:31.179239  4343 net.cpp:148] Top shape: 1 1 4000 (4000)
I0924 03:42:31.179267  4343 net.cpp:156] Memory required for data: 78016
I0924 03:42:31.179277  4343 layer_factory.hpp:77] Creating layer lstm1_unit_1
I0924 03:42:31.179291  4343 net.cpp:91] Creating Layer lstm1_unit_1
I0924 03:42:31.179301  4343 net.cpp:425] lstm1_unit_1 <- c_0
I0924 03:42:31.179090  4359 net.cpp:148] Top shape: 1 1 4000 (4000)
I0924 03:42:31.179316  4359 net.cpp:156] Memory required for data: 30020
I0924 03:42:31.179323  4343 net.cpp:425] lstm1_unit_1 <- gate_input_1
I0924 03:42:31.179337  4359 layer_factory.hpp:77] Creating layer lstm2_W_xc_x_slice
I0924 03:42:31.179334  4343 net.cpp:425] lstm1_unit_1 <- cont_1_lstm1_cont_slice_0_split_1
I0924 03:42:31.179358  4359 net.cpp:91] Creating Layer lstm2_W_xc_x_slice
…
I0924 03:42:31.179513  4325 recurrent_layer.cpp:20] Initializing recurrent layer: assuming input batch contains 1 timesteps of 1 independent streams.
I0924 03:42:31.179976  4325 net.cpp:49] Initializing net from parameters: 
layer {
  name: "lstm1_"
  type: "Input"
  top: "x"
  top: "cont"
  input_param {
    shape {
      dim: 1
      dim: 1
      dim: 500
    }
    shape {
      dim: 1
      dim: 1
    }
  }
}
layer {
  name: "lstm1_"
  type: "Input"
  top: "c_0"
  top: "h_0"
  input_param {
    shape {
      dim: 1
      dim: 1
      dim: 1000
    }
    shape {
      dim: 1
      dim: 1
      dim: 1000
    }
  }
}
layer {
  name: "lstm1_cont_slice"
  type: "Slice"
…
I0924 03:44:15.729382  4653 net.cpp:425] concat <- embedded_input_sentence
I0924 03:44:15.729383  4675 net.cpp:141] Setting up lstm2_W_xc_x_slice
I0924 03:44:15.729390  4653 net.cpp:425] concat <- reshaped_stage_indicator
I0924 03:44:15.729384  4657 net.cpp:156] Memory required for data: 98020
I0924 03:44:15.729401  4653 net.cpp:399] concat -> lstm1_video_sequence
I0924 03:44:15.729410  4657 layer_factory.hpp:77] Creating layer h_pseudoloss
I0924 03:44:15.729403  4675 net.cpp:148] Top shape: 1 1 4000 (4000)
I0924 03:44:15.729429  4675 net.cpp:156] Memory required for data: 46020
I0924 03:44:15.729434  4657 net.cpp:91] Creating Layer h_pseudoloss
I0924 03:44:15.729436  4675 layer_factory.hpp:77] Creating layer lstm2_h_conted_0
I0924 03:44:15.729449  4657 net.cpp:425] h_pseudoloss <- h
I0924 03:44:15.729457  4675 net.cpp:91] Creating Layer lstm2_h_conted_0
I0924 03:44:15.729465  4657 net.cpp:399] h_pseudoloss -> h_pseudoloss
I0924 03:44:15.729470  4675 net.cpp:425] lstm2_h_conted_0 <- h_0
I0924 03:44:15.729455  4691 net.cpp:141] Setting up lstm2_
I0924 03:44:15.729478  4675 net.cpp:425] lstm2_h_conted_0 <- cont_1_lstm2_cont_slice_0_split_0
I0924 03:44:15.729499  4691 net.cpp:148] Top shape: 1 1 1501 (1501)
I0924 03:44:15.729503  4675 net.cpp:399] lstm2_h_conted_0 -> h_conted_0
I0924 03:44:15.729514  4691 net.cpp:148] Top shape: 1 1 (1)
I0924 03:44:15.729523  4691 net.cpp:156] Memory required for data: 6008
I0924 03:44:15.729524  4653 net.cpp:141] Setting up concat
I0924 03:44:15.729535  4691 layer_factory.hpp:77] Creating layer lstm2_
I0924 03:44:15.729539  4653 net.cpp:148] Top shape: 1 1 1501 (1501)
I0924 03:44:15.729547  4653 net.cpp:156] Memory required for data: 32412
I0924 03:44:15.729557  4653 layer_factory.hpp:77] Creating layer lstm2
I0924 03:44:15.729559  4691 net.cpp:91] Creating Layer lstm2_
I0924 03:44:15.729579  4691 net.cpp:399] lstm2_ -> c_0
I0924 03:44:15.729585  4653 net.cpp:91] Creating Layer lstm2
I0924 03:44:15.729595  4653 net.cpp:425] lstm2 <- lstm1_video_sequence
I0924 03:44:15.729603  4691 net.cpp:399] lstm2_ -> h_0
I0924 03:44:15.729607  4653 net.cpp:425] lstm2 <- cont_sentence_input_1_split_1
I0924 03:44:15.729624  4653 net.cpp:399] lstm2 -> lstm2
I0924 03:44:15.729645  4653 recurrent_layer.cpp:20] Initializing recurrent layer: assuming input batch contains 1 timesteps of 1 independent streams.
I0924 03:44:15.729648  4675 net.cpp:141] Setting up lstm2_h_conted_0
I0924 03:44:15.729660  4675 net.cpp:148] Top shape: 1 1 1000 (1000)
I0924 03:44:15.729666  4675 net.cpp:156] Memory required for data: 50020
I0924 03:44:15.729671  4675 layer_factory.hpp:77] Creating layer lstm2_transform_1
I0924 03:44:15.729684  4675 net.cpp:91] Creating Layer lstm2_transform_1
I0924 03:44:15.729691  4675 net.cpp:425] lstm2_transform_1 <- h_conted_0
I0924 03:44:15.729703  4675 net.cpp:399] lstm2_transform_1 -> W_hc_h_0
I0924 03:44:15.729843  4691 net.cpp:141] Setting up lstm2_
I0924 03:44:15.729864  4691 net.cpp:148] Top shape: 1 1 1000 (1000)
I0924 03:44:15.729877  4691 net.cpp:148] Top shape: 1 1 1000 (1000)
I0924 03:44:15.729885  4691 net.cpp:156] Memory required for data: 14008
I0924 03:44:15.729895  4691 layer_factory.hpp:77] Creating layer lstm2_cont_slice
I0924 03:44:15.729912  4691 net.cpp:91] Creating Layer lstm2_cont_slice
I0924 03:44:15.729920  4691 net.cpp:425] lstm2_cont_slice <- cont
I0924 03:44:15.729934  4691 net.cpp:399] lstm2_cont_slice -> cont_1
I0924 03:44:15.730013  4657 net.cpp:141] Setting up h_pseudoloss
I0924 03:44:15.730038  4657 net.cpp:148] Top shape: (1)
I0924 03:44:15.730053  4653 net.cpp:49] Initializing net from parameters: 
layer {
  name: "lstm2_"
  type: "Input"
  top: "x"
  top: "cont"
  input_param {
    shape {
      dim: 1
      dim: 1
      dim: 1501
    }
    shape {
      dim: 1
      dim: 1
    }
  }
}
layer {
  name: "lstm2_"
  type: "Input"
  top: "c_0"
  top: "h_0"
  input_param {
    shape {
      dim: 1
      dim: 1
      dim: 1000
    }
    shape {
      dim: 1
      dim: 1
      dim: 1000
    }
  }
}
layer {
  name: "lstm2_cont_slice"
  type: "Slice"
  bottom: "cont"
  top: "cont_1"
  slice_param {
    axis: 0
  }
}
layer {
  name: "lstm2_x_transform"
  type: "InnerProduct"
  bottom: "x"
  top: "W_xc_x"
  param {
    name: "W_xc"
  }
  param {
    name: "b_c"
  }
  propagate_down: true
  inner_product_param {
    num_output: 4000
    bias_term: true
    weight_filler {
      type: "uniform"
      min: -0.08
      max: 0.08
    }
    bias_filler {
      type: "constant"
      value: 0
    }
    axis: 2
  }
}
layer {
  name: "lstm2_W_xc_x_slice"
  type: "Slice"
  bottom: "W_xc_x"
  top: "W_xc_x_1"
  slice_param {
    axis: 0
  }
}
layer {
  name: "lstm2_h_conted_0"
  type: "Scale"
  bottom: "h_0"
  bottom: "cont_1"
  top: "h_conted_0"
  scale_param {
    axis: 0
  }
}
layer {
  name: "lstm2_transform_1"
  type: "InnerProduct"
  bottom: "h_conted_0"
  top: "W_hc_h_0"
  param {
    name: "W_hc"
  }
  inner_product_param {
    num_output: 4000
    bias_term: false
    weight_filler {
      type: "uniform"
      min: -0.08
      max: 0.08
    }
    axis: 2
  }
}
layer {
  name: "lstm2_gate_input_1"
  type: "Eltwise"
  bottom: "W_hc_h_0"
  bottom: "W_xc_x_1"
  top: "gate_input_1"
  eltwise_param {
    operation: SUM
  }
}
layer {
  name: "lstm2_unit_1"
  type: "LSTMUnit"
  bottom: "c_0"
  bottom: "gate_input_1"
  bottom: "cont_1"
  top: "c_1"
  top: "h_1"
}
layer {
  name: "lstm2_"
  type: "Split"
  bottom: "c_1"
  top: "c_T"
}
layer {
  name: "lstm2_h_concat"
  type: "Concat"
  bottom: "h_1"
  top: "h"
  concat_param {
    axis: 0
  }
}
layer {
  name: "h_pseudoloss"
  type: "Reduction"
  bottom: "h"
  top: "h_pseudoloss"
  loss_weight: 1
}
I0924 03:44:15.730051  4657 net.cpp:151]     with loss weight 1
I0924 03:44:15.730090  4657 net.cpp:156] Memory required for data: 98024
I0924 03:44:15.730104  4657 net.cpp:217] h_pseudoloss needs backward computation.
I0924 03:44:15.730116  4657 net.cpp:217] lstm2_h_concat needs backward computation.
I0924 03:44:15.730128  4657 net.cpp:219] lstm2_ does not need backward computation.
…
I0924 03:44:15.737962  4657 net.cpp:219] lstm2_ does not need backward computation.
I0924 03:44:15.737972  4657 net.cpp:261] This network produces output c_T
I0924 03:44:15.737982  4657 net.cpp:261] This network produces output h_pseudoloss
I0924 03:44:15.738016  4657 net.cpp:274] Network initialization done.
I0924 03:44:15.738116  4657 recurrent_layer.cpp:150] Adding parameter 0: W_xc
I0924 03:44:15.738134  4657 recurrent_layer.cpp:150] Adding parameter 1: b_c
I0924 03:44:15.738144  4657 recurrent_layer.cpp:150] Adding parameter 2: W_hc
I0924 03:44:15.738785  4691 net.cpp:141] Setting up lstm2_cont_slice
I0924 03:44:15.738817  4691 net.cpp:148] Top shape: 1 1 (1)
I0924 03:44:15.738828  4691 net.cpp:156] Memory required for data: 14012
I0924 03:44:15.738840  4691 layer_factory.hpp:77] Creating layer cont_1_lstm2_cont_slice_0_split
I0924 03:44:15.738869  4691 net.cpp:91] Creating Layer cont_1_lstm2_cont_slice_0_split
I0924 03:44:15.738883  4691 net.cpp:425] cont_1_lstm2_cont_slice_0_split <- cont_1
I0924 03:44:15.738898  4691 net.cpp:399] cont_1_lstm2_cont_slice_0_split -> cont_1_lstm2_cont_slice_0_split_0
I0924 03:44:15.738910  4691 net.cpp:399] cont_1_lstm2_cont_slice_0_split -> cont_1_lstm2_cont_slice_0_split_1
I0924 03:44:15.739079  4653 net.cpp:141] Setting up lstm2_
I0924 03:44:15.739099  4653 net.cpp:148] Top shape: 1 1 1501 (1501)
I0924 03:44:15.739111  4653 net.cpp:148] Top shape: 1 1 (1)
I0924 03:44:15.739120  4653 net.cpp:156] Memory required for data: 6008
I0924 03:44:15.739131  4653 layer_factory.hpp:77] Creating layer lstm2_
I0924 03:44:15.739146  4691 net.cpp:141] Setting up cont_1_lstm2_cont_slice_0_split
I0924 03:44:15.739154  4653 net.cpp:91] Creating Layer lstm2_
I0924 03:44:15.739162  4691 net.cpp:148] Top shape: 1 1 (1)
I0924 03:44:15.739168  4653 net.cpp:399] lstm2_ -> c_0
I0924 03:44:15.739174  4691 net.cpp:148] Top shape: 1 1 (1)
I0924 03:44:15.739183  4691 net.cpp:156] Memory required for data: 14020
I0924 03:44:15.739189  4653 net.cpp:399] lstm2_ -> h_0
I0924 03:44:15.739192  4691 layer_factory.hpp:77] Creating layer lstm2_x_transform
I0924 03:44:15.739219  4691 net.cpp:91] Creating Layer lstm2_x_transform
I0924 03:44:15.739217  4657 net.cpp:141] Setting up lstm2
I0924 03:44:15.739238  4691 net.cpp:425] lstm2_x_transform <- x
I0924 03:44:15.739254  4657 net.cpp:148] Top shape: 1 1 1000 (1000)
I0924 03:44:15.739256  4691 net.cpp:399] lstm2_x_transform -> W_xc_x
I0924 03:44:15.739275  4657 net.cpp:156] Memory required for data: 36412
I0924 03:44:15.739315  4653 net.cpp:141] Setting up lstm2_
I0924 03:44:15.739320  4657 layer_factory.hpp:77] Creating layer predict
I0924 03:44:15.739334  4653 net.cpp:148] Top shape: 1 1 1000 (1000)
I0924 03:44:15.739346  4657 net.cpp:91] Creating Layer predict
I0924 03:44:15.739348  4653 net.cpp:148] Top shape: 1 1 1000 (1000)
I0924 03:44:15.739367  4657 net.cpp:425] predict <- lstm2
I0924 03:44:15.739370  4653 net.cpp:156] Memory required for data: 14008
I0924 03:44:15.739382  4653 layer_factory.hpp:77] Creating layer lstm2_cont_slice
I0924 03:44:15.739387  4657 net.cpp:399] predict -> predict
I0924 03:44:15.739400  4653 net.cpp:91] Creating Layer lstm2_cont_slice
I0924 03:44:15.739409  4653 net.cpp:425] lstm2_cont_slice <- cont
I0924 03:44:15.739430  4653 net.cpp:399] lstm2_cont_slice -> cont_1
I0924 03:44:15.752568  4653 net.cpp:141] Setting up lstm2_cont_slice
I0924 03:44:15.752653  4653 net.cpp:148] Top shape: 1 1 (1)
I0924 03:44:15.752672  4653 net.cpp:156] Memory required for data: 14012
I0924 03:44:15.752694  4653 layer_factory.hpp:77] Creating layer cont_1_lstm2_cont_slice_0_split
I0924 03:44:15.752727  4653 net.cpp:91] Creating Layer cont_1_lstm2_cont_slice_0_split
I0924 03:44:15.752749  4653 net.cpp:425] cont_1_lstm2_cont_slice_0_split <- cont_1
I0924 03:44:15.752779  4653 net.cpp:399] cont_1_lstm2_cont_slice_0_split -> cont_1_lstm2_cont_slice_0_split_0
I0924 03:44:15.752813  4653 net.cpp:399] cont_1_lstm2_cont_slice_0_split -> cont_1_lstm2_cont_slice_0_split_1
I0924 03:44:15.842376  4653 net.cpp:141] Setting up cont_1_lstm2_cont_slice_0_split
I0924 03:44:15.842416  4675 net.cpp:141] Setting up lstm2_transform_1
I0924 03:44:15.842442  4675 net.cpp:148] Top shape: 1 1 4000 (4000)
I0924 03:44:15.842443  4653 net.cpp:148] Top shape: 1 1 (1)
I0924 03:44:15.842448  4675 net.cpp:156] Memory required for data: 66020
I0924 03:44:15.842464  4653 net.cpp:148] Top shape: 1 1 (1)
I0924 03:44:15.842476  4653 net.cpp:156] Memory required for data: 14020
I0924 03:44:15.842483  4675 layer_factory.hpp:77] Creating layer lstm2_gate_input_1
I0924 03:44:15.842484  4653 layer_factory.hpp:77] Creating layer lstm2_x_transform
I0924 03:44:15.842519  4675 net.cpp:91] Creating Layer lstm2_gate_input_1
I0924 03:44:15.842528  4675 net.cpp:425] lstm2_gate_input_1 <- W_hc_h_0
I0924 03:44:15.842530  4653 net.cpp:91] Creating Layer lstm2_x_transform
I0924 03:44:15.842538  4675 net.cpp:425] lstm2_gate_input_1 <- W_xc_x_1
I0924 03:44:15.842540  4653 net.cpp:425] lstm2_x_transform <- x
I0924 03:44:15.842553  4675 net.cpp:399] lstm2_gate_input_1 -> gate_input_1
I0924 03:44:15.842559  4653 net.cpp:399] lstm2_x_transform -> W_xc_x
I0924 03:44:15.842669  4691 net.cpp:141] Setting up lstm2_x_transform
I0924 03:44:15.842692  4691 net.cpp:148] Top shape: 1 1 4000 (4000)
I0924 03:44:15.842702  4691 net.cpp:156] Memory required for data: 30020
I0924 03:44:15.842723  4691 layer_factory.hpp:77] Creating layer lstm2_W_xc_x_slice
I0924 03:44:15.842738  4691 net.cpp:91] Creating Layer lstm2_W_xc_x_slice
I0924 03:44:15.842746  4691 net.cpp:425] lstm2_W_xc_x_slice <- W_xc_x
I0924 03:44:15.842756  4691 net.cpp:399] lstm2_W_xc_x_slice -> W_xc_x_1
I0924 03:44:15.842797  4675 net.cpp:141] Setting up lstm2_gate_input_1
I0924 03:44:15.842810  4675 net.cpp:148] Top shape: 1 1 4000 (4000)
I0924 03:44:15.842815  4675 net.cpp:156] Memory required for data: 82020
I0924 03:44:15.842821  4675 layer_factory.hpp:77] Creating layer lstm2_unit_1
I0924 03:44:15.842831  4675 net.cpp:91] Creating Layer lstm2_unit_1
I0924 03:44:15.842838  4675 net.cpp:425] lstm2_unit_1 <- c_0
I0924 03:44:15.842844  4675 net.cpp:425] lstm2_unit_1 <- gate_input_1
I0924 03:44:15.842850  4675 net.cpp:425] lstm2_unit_1 <- cont_1_lstm2_cont_slice_0_split_1
I0924 03:44:15.842862  4675 net.cpp:399] lstm2_unit_1 -> c_1
I0924 03:44:15.842874  4675 net.cpp:399] lstm2_unit_1 -> h_1
I0924 03:44:15.863911  4691 net.cpp:141] Setting up lstm2_W_xc_x_slice
I0924 03:44:15.864006  4691 net.cpp:148] Top shape: 1 1 4000 (4000)
I0924 03:44:15.864022  4663 net.cpp:141] Setting up predict
I0924 03:44:15.864027  4691 net.cpp:156] Memory required for data: 46020
I0924 03:44:15.864053  4663 net.cpp:148] Top shape: 1 1 46168 (46168)
I0924 03:44:15.864075  4663 net.cpp:156] Memory required for data: 221084
I0924 03:44:15.864084  4691 layer_factory.hpp:77] Creating layer lstm2_h_conted_0
I0924 03:44:15.864094  4675 net.cpp:141] Setting up lstm2_unit_1
I0924 03:44:15.864100  4663 layer_factory.hpp:77] Creating layer probs
I0924 03:44:15.864120  4675 net.cpp:148] Top shape: 1 1 1000 (1000)
I0924 03:44:15.864127  4675 net.cpp:148] Top shape: 1 1 1000 (1000)
I0924 03:44:15.864130  4663 net.cpp:91] Creating Layer probs
I0924 03:44:15.864133  4675 net.cpp:156] Memory required for data: 90020
I0924 03:44:15.864140  4663 net.cpp:425] probs <- predict
I0924 03:44:15.864128  4691 net.cpp:91] Creating Layer lstm2_h_conted_0
I0924 03:44:15.864154  4663 net.cpp:399] probs -> probs
I0924 03:44:15.864150  4675 layer_factory.hpp:77] Creating layer lstm2_
I0924 03:44:15.864172  4691 net.cpp:425] lstm2_h_conted_0 <- h_0
I0924 03:44:15.864173  4675 net.cpp:91] Creating Layer lstm2_
I0924 03:44:15.864207  4675 net.cpp:425] lstm2_ <- c_1
I0924 03:44:15.864212  4691 net.cpp:425] lstm2_h_conted_0 <- cont_1_lstm2_cont_slice_0_split_0
I0924 03:44:15.864218  4675 net.cpp:399] lstm2_ -> c_T
I0924 03:44:15.864249  4691 net.cpp:399] lstm2_h_conted_0 -> h_conted_0
I0924 03:44:15.872460  4675 net.cpp:141] Setting up lstm2_
I0924 03:44:15.872524  4675 net.cpp:148] Top shape: 1 1 1000 (1000)
I0924 03:44:15.872531  4675 net.cpp:156] Memory required for data: 94020
I0924 03:44:15.872542  4675 layer_factory.hpp:77] Creating layer lstm2_h_concat
I0924 03:44:15.872565  4675 net.cpp:91] Creating Layer lstm2_h_concat
I0924 03:44:15.872572  4675 net.cpp:425] lstm2_h_concat <- h_1
I0924 03:44:15.872587  4675 net.cpp:399] lstm2_h_concat -> h
I0924 03:44:15.872664  4675 net.cpp:141] Setting up lstm2_h_concat
I0924 03:44:15.872676  4675 net.cpp:148] Top shape: 1 1 1000 (1000)
I0924 03:44:15.872681  4675 net.cpp:156] Memory required for data: 98020
I0924 03:44:15.872687  4675 layer_factory.hpp:77] Creating layer h_pseudoloss
I0924 03:44:15.872699  4675 net.cpp:91] Creating Layer h_pseudoloss
I0924 03:44:15.872704  4675 net.cpp:425] h_pseudoloss <- h
I0924 03:44:15.872714  4675 net.cpp:399] h_pseudoloss -> h_pseudoloss
I0924 03:44:15.873011  4691 net.cpp:141] Setting up lstm2_h_conted_0
I0924 03:44:15.873031  4691 net.cpp:148] Top shape: 1 1 1000 (1000)
I0924 03:44:15.873039  4691 net.cpp:156] Memory required for data: 50020
I0924 03:44:15.873049  4691 layer_factory.hpp:77] Creating layer lstm2_transform_1
I0924 03:44:15.873070  4691 net.cpp:91] Creating Layer lstm2_transform_1
I0924 03:44:15.873080  4691 net.cpp:425] lstm2_transform_1 <- h_conted_0
I0924 03:44:15.873095  4691 net.cpp:399] lstm2_transform_1 -> W_hc_h_0
I0924 03:44:15.873335  4675 net.cpp:141] Setting up h_pseudoloss
…
I0924 03:44:15.873512  4675 net.cpp:219] lstm2_ does not need backward computation.
I0924 03:44:15.873517  4675 net.cpp:261] This network produces output c_T
I0924 03:44:15.873522  4675 net.cpp:261] This network produces output h_pseudoloss
I0924 03:44:15.873548  4675 net.cpp:274] Network initialization done.
I0924 03:44:15.873633  4675 recurrent_layer.cpp:150] Adding parameter 0: W_xc
I0924 03:44:15.873646  4675 recurrent_layer.cpp:150] Adding parameter 1: b_c
I0924 03:44:15.873656  4675 recurrent_layer.cpp:150] Adding parameter 2: W_hc
I0924 03:44:15.893270  4675 net.cpp:141] Setting up lstm2
I0924 03:44:15.893327  4675 net.cpp:148] Top shape: 1 1 1000 (1000)
I0924 03:44:15.893335  4675 net.cpp:156] Memory required for data: 36412
I0924 03:44:15.893363  4675 layer_factory.hpp:77] Creating layer predict
I0924 03:44:15.893388  4675 net.cpp:91] Creating Layer predict
I0924 03:44:15.893396  4675 net.cpp:425] predict <- lstm2
I0924 03:44:15.893409  4675 net.cpp:399] predict -> predict
I0924 03:44:15.986990  4691 net.cpp:141] Setting up lstm2_transform_1
I0924 03:44:15.987053  4691 net.cpp:148] Top shape: 1 1 4000 (4000)
I0924 03:44:15.987061  4691 net.cpp:156] Memory required for data: 66020
I0924 03:44:15.987087  4691 layer_factory.hpp:77] Creating layer lstm2_gate_input_1
I0924 03:44:15.987114  4691 net.cpp:91] Creating Layer lstm2_gate_input_1
I0924 03:44:15.987123  4691 net.cpp:425] lstm2_gate_input_1 <- W_hc_h_0
I0924 03:44:15.987133  4691 net.cpp:425] lstm2_gate_input_1 <- W_xc_x_1
I0924 03:44:15.987143  4691 net.cpp:399] lstm2_gate_input_1 -> gate_input_1
I0924 03:44:15.987207  4653 net.cpp:141] Setting up lstm2_x_transform
I0924 03:44:15.987227  4653 net.cpp:148] Top shape: 1 1 4000 (4000)
I0924 03:44:15.987233  4653 net.cpp:156] Memory required for data: 30020
I0924 03:44:15.987248  4653 layer_factory.hpp:77] Creating layer lstm2_W_xc_x_slice
I0924 03:44:15.987262  4653 net.cpp:91] Creating Layer lstm2_W_xc_x_slice
I0924 03:44:15.987269  4653 net.cpp:425] lstm2_W_xc_x_slice <- W_xc_x
I0924 03:44:15.987285  4653 net.cpp:399] lstm2_W_xc_x_slice -> W_xc_x_1
I0924 03:44:15.987293  4691 net.cpp:141] Setting up lstm2_gate_input_1
I0924 03:44:15.987306  4691 net.cpp:148] Top shape: 1 1 4000 (4000)
I0924 03:44:15.987311  4691 net.cpp:156] Memory required for data: 82020
I0924 03:44:15.987318  4691 layer_factory.hpp:77] Creating layer lstm2_unit_1
I0924 03:44:15.987330  4691 net.cpp:91] Creating Layer lstm2_unit_1
I0924 03:44:15.987339  4691 net.cpp:425] lstm2_unit_1 <- c_0
I0924 03:44:15.987346  4691 net.cpp:425] lstm2_unit_1 <- gate_input_1
I0924 03:44:15.987354  4691 net.cpp:425] lstm2_unit_1 <- cont_1_lstm2_cont_slice_0_split_1
I0924 03:44:15.987362  4691 net.cpp:399] lstm2_unit_1 -> c_1
I0924 03:44:15.987375  4691 net.cpp:399] lstm2_unit_1 -> h_1
I0924 03:44:15.987517  4653 net.cpp:141] Setting up lstm2_W_xc_x_slice
I0924 03:44:15.987531  4653 net.cpp:148] Top shape: 1 1 4000 (4000)
I0924 03:44:15.987536  4653 net.cpp:156] Memory required for data: 46020
I0924 03:44:15.987542  4653 layer_factory.hpp:77] Creating layer lstm2_h_conted_0
I0924 03:44:15.987556  4653 net.cpp:91] Creating Layer lstm2_h_conted_0
I0924 03:44:15.987562  4653 net.cpp:425] lstm2_h_conted_0 <- h_0
I0924 03:44:15.987570  4653 net.cpp:425] lstm2_h_conted_0 <- cont_1_lstm2_cont_slice_0_split_0
I0924 03:44:15.987582  4653 net.cpp:399] lstm2_h_conted_0 -> h_conted_0
I0924 03:44:15.987602  4659 net.cpp:141] Setting up predict
I0924 03:44:15.987623  4659 net.cpp:148] Top shape: 1 1 46168 (46168)
I0924 03:44:15.987629  4659 net.cpp:156] Memory required for data: 221084
I0924 03:44:15.987643  4659 layer_factory.hpp:77] Creating layer probs
I0924 03:44:15.987655  4659 net.cpp:91] Creating Layer probs
I0924 03:44:15.987663  4659 net.cpp:425] probs <- predict
I0924 03:44:15.987673  4659 net.cpp:399] probs -> probs
I0924 03:44:15.987843  4691 net.cpp:141] Setting up lstm2_unit_1
I0924 03:44:15.987855  4691 net.cpp:148] Top shape: 1 1 1000 (1000)
I0924 03:44:15.987862  4691 net.cpp:148] Top shape: 1 1 1000 (1000)
I0924 03:44:15.987867  4691 net.cpp:156] Memory required for data: 90020
I0924 03:44:15.987874  4691 layer_factory.hpp:77] Creating layer lstm2_
I0924 03:44:15.987893  4691 net.cpp:91] Creating Layer lstm2_
I0924 03:44:15.987895  4653 net.cpp:141] Setting up lstm2_h_conted_0
I0924 03:44:15.987900  4691 net.cpp:425] lstm2_ <- c_1
I0924 03:44:15.987907  4653 net.cpp:148] Top shape: 1 1 1000 (1000)
I0924 03:44:15.987910  4691 net.cpp:399] lstm2_ -> c_T
I0924 03:44:15.987912  4653 net.cpp:156] Memory required for data: 50020
I0924 03:44:15.987918  4653 layer_factory.hpp:77] Creating layer lstm2_transform_1
I0924 03:44:15.987937  4653 net.cpp:91] Creating Layer lstm2_transform_1
I0924 03:44:15.987944  4653 net.cpp:425] lstm2_transform_1 <- h_conted_0
I0924 03:44:15.987954  4653 net.cpp:399] lstm2_transform_1 -> W_hc_h_0
I0924 03:44:15.993041  4691 net.cpp:141] Setting up lstm2_
I0924 03:44:15.993057  4691 net.cpp:148] Top shape: 1 1 1000 (1000)
I0924 03:44:15.993062  4691 net.cpp:156] Memory required for data: 94020
I0924 03:44:15.993068  4691 layer_factory.hpp:77] Creating layer lstm2_h_concat
I0924 03:44:15.993084  4691 net.cpp:91] Creating Layer lstm2_h_concat
I0924 03:44:15.993091  4691 net.cpp:425] lstm2_h_concat <- h_1
I0924 03:44:15.993101  4691 net.cpp:399] lstm2_h_concat -> h
I0924 03:44:15.993160  4691 net.cpp:141] Setting up lstm2_h_concat
I0924 03:44:15.993170  4691 net.cpp:148] Top shape: 1 1 1000 (1000)
I0924 03:44:15.993175  4691 net.cpp:156] Memory required for data: 98020
I0924 03:44:15.993180  4691 layer_factory.hpp:77] Creating layer h_pseudoloss
I0924 03:44:15.993191  4691 net.cpp:91] Creating Layer h_pseudoloss
I0924 03:44:15.993196  4691 net.cpp:425] h_pseudoloss <- h
I0924 03:44:15.993207  4691 net.cpp:399] h_pseudoloss -> h_pseudoloss
I0924 03:44:16.001627  4691 net.cpp:141] Setting up h_pseudoloss
…
I0924 03:44:16.001806  4691 net.cpp:219] lstm2_ does not need backward computation.
I0924 03:44:16.001811  4691 net.cpp:261] This network produces output c_T
I0924 03:44:16.001818  4691 net.cpp:261] This network produces output h_pseudoloss
I0924 03:44:16.001842  4691 net.cpp:274] Network initialization done.
I0924 03:44:16.001915  4691 recurrent_layer.cpp:150] Adding parameter 0: W_xc
I0924 03:44:16.001924  4691 recurrent_layer.cpp:150] Adding parameter 1: b_c
I0924 03:44:16.001929  4691 recurrent_layer.cpp:150] Adding parameter 2: W_hc
I0924 03:44:16.004179  4691 net.cpp:141] Setting up lstm2
I0924 03:44:16.004220  4691 net.cpp:148] Top shape: 1 1 1000 (1000)
I0924 03:44:16.004227  4691 net.cpp:156] Memory required for data: 36412
I0924 03:44:16.004248  4691 layer_factory.hpp:77] Creating layer predict
I0924 03:44:16.004272  4691 net.cpp:91] Creating Layer predict
I0924 03:44:16.004281  4691 net.cpp:425] predict <- lstm2
I0924 03:44:16.004292  4691 net.cpp:399] predict -> predict
I0924 03:44:16.100296  4653 net.cpp:141] Setting up lstm2_transform_1
I0924 03:44:16.100358  4653 net.cpp:148] Top shape: 1 1 4000 (4000)
I0924 03:44:16.100365  4653 net.cpp:156] Memory required for data: 66020
I0924 03:44:16.100391  4653 layer_factory.hpp:77] Creating layer lstm2_gate_input_1
I0924 03:44:16.100420  4653 net.cpp:91] Creating Layer lstm2_gate_input_1
I0924 03:44:16.100428  4653 net.cpp:425] lstm2_gate_input_1 <- W_hc_h_0
I0924 03:44:16.100440  4653 net.cpp:425] lstm2_gate_input_1 <- W_xc_x_1
I0924 03:44:16.100450  4653 net.cpp:399] lstm2_gate_input_1 -> gate_input_1
I0924 03:44:16.100628  4653 net.cpp:141] Setting up lstm2_gate_input_1
I0924 03:44:16.100641  4653 net.cpp:148] Top shape: 1 1 4000 (4000)
I0924 03:44:16.100646  4653 net.cpp:156] Memory required for data: 82020
I0924 03:44:16.100651  4653 layer_factory.hpp:77] Creating layer lstm2_unit_1
I0924 03:44:16.100667  4653 net.cpp:91] Creating Layer lstm2_unit_1
I0924 03:44:16.100674  4653 net.cpp:425] lstm2_unit_1 <- c_0
I0924 03:44:16.100682  4653 net.cpp:425] lstm2_unit_1 <- gate_input_1
I0924 03:44:16.100687  4653 net.cpp:425] lstm2_unit_1 <- cont_1_lstm2_cont_slice_0_split_1
I0924 03:44:16.100695  4653 net.cpp:399] lstm2_unit_1 -> c_1
I0924 03:44:16.100706  4653 net.cpp:399] lstm2_unit_1 -> h_1
I0924 03:44:16.100731  4671 net.cpp:141] Setting up predict
I0924 03:44:16.100754  4671 net.cpp:148] Top shape: 1 1 46168 (46168)
I0924 03:44:16.100760  4671 net.cpp:156] Memory required for data: 221084
I0924 03:44:16.100775  4671 layer_factory.hpp:77] Creating layer probs
I0924 03:44:16.100788  4671 net.cpp:91] Creating Layer probs
I0924 03:44:16.100796  4671 net.cpp:425] probs <- predict
I0924 03:44:16.100806  4671 net.cpp:399] probs -> probs
I0924 03:44:16.100814  4653 net.cpp:141] Setting up lstm2_unit_1
I0924 03:44:16.100826  4653 net.cpp:148] Top shape: 1 1 1000 (1000)
I0924 03:44:16.100833  4653 net.cpp:148] Top shape: 1 1 1000 (1000)
I0924 03:44:16.100838  4653 net.cpp:156] Memory required for data: 90020
I0924 03:44:16.100843  4653 layer_factory.hpp:77] Creating layer lstm2_
I0924 03:44:16.100853  4653 net.cpp:91] Creating Layer lstm2_
I0924 03:44:16.100859  4653 net.cpp:425] lstm2_ <- c_1
I0924 03:44:16.100867  4653 net.cpp:399] lstm2_ -> c_T
I0924 03:44:16.101686  4653 net.cpp:141] Setting up lstm2_
I0924 03:44:16.101704  4653 net.cpp:148] Top shape: 1 1 1000 (1000)
I0924 03:44:16.101711  4653 net.cpp:156] Memory required for data: 94020
I0924 03:44:16.101716  4653 layer_factory.hpp:77] Creating layer lstm2_h_concat
I0924 03:44:16.101729  4653 net.cpp:91] Creating Layer lstm2_h_concat
I0924 03:44:16.101735  4653 net.cpp:425] lstm2_h_concat <- h_1
I0924 03:44:16.101744  4653 net.cpp:399] lstm2_h_concat -> h
I0924 03:44:16.119148  4653 net.cpp:141] Setting up lstm2_h_concat
I0924 03:44:16.119199  4653 net.cpp:148] Top shape: 1 1 1000 (1000)
I0924 03:44:16.119206  4653 net.cpp:156] Memory required for data: 98020
I0924 03:44:16.119216  4653 layer_factory.hpp:77] Creating layer h_pseudoloss
I0924 03:44:16.119237  4653 net.cpp:91] Creating Layer h_pseudoloss
I0924 03:44:16.119245  4653 net.cpp:425] h_pseudoloss <- h
I0924 03:44:16.119258  4653 net.cpp:399] h_pseudoloss -> h_pseudoloss
I0924 03:44:16.119396  4653 net.cpp:141] Setting up h_pseudoloss
…
I0924 03:44:16.119523  4653 net.cpp:219] lstm2_ does not need backward computation.
I0924 03:44:16.119526  4653 net.cpp:261] This network produces output c_T
I0924 03:44:16.119532  4653 net.cpp:261] This network produces output h_pseudoloss
I0924 03:44:16.119550  4653 net.cpp:274] Network initialization done.
I0924 03:44:16.119611  4653 recurrent_layer.cpp:150] Adding parameter 0: W_xc
I0924 03:44:16.119619  4653 recurrent_layer.cpp:150] Adding parameter 1: b_c
I0924 03:44:16.119624  4653 recurrent_layer.cpp:150] Adding parameter 2: W_hc
I0924 03:44:16.119773  4653 net.cpp:141] Setting up lstm2
I0924 03:44:16.119786  4653 net.cpp:148] Top shape: 1 1 1000 (1000)
I0924 03:44:16.119791  4653 net.cpp:156] Memory required for data: 36412
I0924 03:44:16.119809  4653 layer_factory.hpp:77] Creating layer predict
I0924 03:44:16.119825  4653 net.cpp:91] Creating Layer predict
I0924 03:44:16.119833  4653 net.cpp:425] predict <- lstm2
I0924 03:44:16.119843  4653 net.cpp:399] predict -> predict
I0924 03:44:16.207211  4701 net.cpp:141] Setting up predict
I0924 03:44:16.207278  4701 net.cpp:148] Top shape: 1 1 46168 (46168)
I0924 03:44:16.207288  4701 net.cpp:156] Memory required for data: 221084
I0924 03:44:16.207312  4701 layer_factory.hpp:77] Creating layer probs
I0924 03:44:16.207340  4701 net.cpp:91] Creating Layer probs
I0924 03:44:16.207351  4701 net.cpp:425] probs <- predict
I0924 03:44:16.207370  4701 net.cpp:399] probs -> probs
I0924 03:44:16.257848  4657 net.cpp:141] Setting up predict
I0924 03:44:16.257905  4657 net.cpp:148] Top shape: 1 1 46168 (46168)
I0924 03:44:16.257912  4657 net.cpp:156] Memory required for data: 221084
I0924 03:44:16.257930  4657 layer_factory.hpp:77] Creating layer probs
I0924 03:44:16.257951  4657 net.cpp:91] Creating Layer probs
I0924 03:44:16.257959  4657 net.cpp:425] probs <- predict
I0924 03:44:16.257972  4657 net.cpp:399] probs -> probs
I0924 03:44:16.303926  4701 net.cpp:141] Setting up probs
I0924 03:44:16.303979  4701 net.cpp:148] Top shape: 1 1 46168 (46168)
I0924 03:44:16.303987  4701 net.cpp:156] Memory required for data: 405756
I0924 03:44:16.303998  4701 net.cpp:219] probs does not need backward computation.
I0924 03:44:16.304006  4701 net.cpp:219] predict does not need backward computation.
I0924 03:44:16.304013  4701 net.cpp:219] lstm2 does not need backward computation.
I0924 03:44:16.304020  4701 net.cpp:219] concat does not need backward computation.
I0924 03:44:16.304028  4701 net.cpp:219] lstm1 does not need backward computation.
I0924 03:44:16.304034  4701 net.cpp:219] embedding does not need backward computation.
I0924 03:44:16.304041  4701 net.cpp:219] reshape_stage_indicator does not need backward computation.
I0924 03:44:16.304047  4701 net.cpp:219] reshape_frames does not need backward computation.
I0924 03:44:16.304055  4701 net.cpp:219] embed_encoder does not need backward computation.
I0924 03:44:16.304061  4701 net.cpp:219] cont_sentence_input_1_split does not need backward computation.
I0924 03:44:16.304069  4701 net.cpp:219] input does not need backward computation.
I0924 03:44:16.304074  4701 net.cpp:261] This network produces output probs
I0924 03:44:16.304095  4701 net.cpp:274] Network initialization done.
I0924 03:44:16.304342  4663 net.cpp:141] Setting up probs
I0924 03:44:16.304368  4663 net.cpp:148] Top shape: 1 1 46168 (46168)
I0924 03:44:16.304379  4663 net.cpp:156] Memory required for data: 405756
I0924 03:44:16.304391  4663 net.cpp:219] probs does not need backward computation.
I0924 03:44:16.304399  4663 net.cpp:219] predict does not need backward computation.
I0924 03:44:16.304405  4663 net.cpp:219] lstm2 does not need backward computation.
I0924 03:44:16.304411  4663 net.cpp:219] concat does not need backward computation.
I0924 03:44:16.304419  4663 net.cpp:219] lstm1 does not need backward computation.
I0924 03:44:16.304428  4663 net.cpp:219] embedding does not need backward computation.
I0924 03:44:16.304440  4663 net.cpp:219] reshape_stage_indicator does not need backward computation.
I0924 03:44:16.304448  4663 net.cpp:219] reshape_frames does not need backward computation.
I0924 03:44:16.304455  4663 net.cpp:219] embed_encoder does not need backward computation.
I0924 03:44:16.304464  4663 net.cpp:219] cont_sentence_input_1_split does not need backward computation.
I0924 03:44:16.304471  4663 net.cpp:219] input does not need backward computation.
I0924 03:44:16.304476  4663 net.cpp:261] This network produces output probs
I0924 03:44:16.304507  4663 net.cpp:274] Network initialization done.
I0924 03:44:16.304541  4659 net.cpp:141] Setting up probs
I0924 03:44:16.304563  4659 net.cpp:148] Top shape: 1 1 46168 (46168)
I0924 03:44:16.304569  4659 net.cpp:156] Memory required for data: 405756
I0924 03:44:16.304575  4659 net.cpp:219] probs does not need backward computation.
I0924 03:44:16.304581  4659 net.cpp:219] predict does not need backward computation.
I0924 03:44:16.304587  4659 net.cpp:219] lstm2 does not need backward computation.
I0924 03:44:16.304594  4659 net.cpp:219] concat does not need backward computation.
I0924 03:44:16.304601  4659 net.cpp:219] lstm1 does not need backward computation.
I0924 03:44:16.304608  4659 net.cpp:219] embedding does not need backward computation.
I0924 03:44:16.304615  4659 net.cpp:219] reshape_stage_indicator does not need backward computation.
I0924 03:44:16.304620  4659 net.cpp:219] reshape_frames does not need backward computation.
I0924 03:44:16.304626  4659 net.cpp:219] embed_encoder does not need backward computation.
I0924 03:44:16.304632  4659 net.cpp:219] cont_sentence_input_1_split does not need backward computation.
I0924 03:44:16.304638  4659 net.cpp:219] input does not need backward computation.
I0924 03:44:16.304643  4659 net.cpp:261] This network produces output probs
I0924 03:44:16.304661  4659 net.cpp:274] Network initialization done.
I0924 03:44:16.304692  4671 net.cpp:141] Setting up probs
I0924 03:44:16.304713  4671 net.cpp:148] Top shape: 1 1 46168 (46168)
I0924 03:44:16.304718  4671 net.cpp:156] Memory required for data: 405756
I0924 03:44:16.304725  4671 net.cpp:219] probs does not need backward computation.
I0924 03:44:16.304733  4671 net.cpp:219] predict does not need backward computation.
I0924 03:44:16.304738  4671 net.cpp:219] lstm2 does not need backward computation.
I0924 03:44:16.304746  4671 net.cpp:219] concat does not need backward computation.
I0924 03:44:16.304754  4671 net.cpp:219] lstm1 does not need backward computation.
I0924 03:44:16.304761  4671 net.cpp:219] embedding does not need backward computation.
I0924 03:44:16.304767  4671 net.cpp:219] reshape_stage_indicator does not need backward computation.
I0924 03:44:16.304774  4671 net.cpp:219] reshape_frames does not need backward computation.
I0924 03:44:16.304780  4671 net.cpp:219] embed_encoder does not need backward computation.
I0924 03:44:16.304869  4671 net.cpp:219] cont_sentence_input_1_split does not need backward computation.
I0924 03:44:16.304908  4671 net.cpp:219] input does not need backward computation.
I0924 03:44:16.304915  4671 net.cpp:261] This network produces output probs
I0924 03:44:16.305516  4671 net.cpp:274] Network initialization done.
I0924 03:44:16.305899  4657 net.cpp:141] Setting up probs
I0924 03:44:16.305927  4657 net.cpp:148] Top shape: 1 1 46168 (46168)
I0924 03:44:16.305937  4657 net.cpp:156] Memory required for data: 405756
I0924 03:44:16.305945  4657 net.cpp:219] probs does not need backward computation.
I0924 03:44:16.305955  4657 net.cpp:219] predict does not need backward computation.
I0924 03:44:16.305964  4657 net.cpp:219] lstm2 does not need backward computation.
I0924 03:44:16.305974  4657 net.cpp:219] concat does not need backward computation.
I0924 03:44:16.305985  4657 net.cpp:219] lstm1 does not need backward computation.
I0924 03:44:16.305996  4657 net.cpp:219] embedding does not need backward computation.
I0924 03:44:16.306008  4657 net.cpp:219] reshape_stage_indicator does not need backward computation.
I0924 03:44:16.306017  4657 net.cpp:219] reshape_frames does not need backward computation.
I0924 03:44:16.306032  4657 net.cpp:219] embed_encoder does not need backward computation.
I0924 03:44:16.306044  4657 net.cpp:219] cont_sentence_input_1_split does not need backward computation.
I0924 03:44:16.306056  4657 net.cpp:219] input does not need backward computation.
I0924 03:44:16.306066  4657 net.cpp:261] This network produces output probs
I0924 03:44:16.306092  4657 net.cpp:274] Network initialization done.
I0924 03:44:16.307454  4693 net.cpp:141] Setting up conv1
I0924 03:44:16.307524  4693 net.cpp:148] Top shape: 10 96 55 55 (2904000)
I0924 03:44:16.307538  4693 net.cpp:156] Memory required for data: 17799480
I0924 03:44:16.307574  4693 layer_factory.hpp:77] Creating layer relu1
I0924 03:44:16.307601  4693 net.cpp:91] Creating Layer relu1
I0924 03:44:16.307613  4693 net.cpp:425] relu1 <- conv1
I0924 03:44:16.307628  4693 net.cpp:386] relu1 -> conv1 (in-place)
I0924 03:44:16.308519  4693 net.cpp:141] Setting up relu1
I0924 03:44:16.308542  4693 net.cpp:148] Top shape: 10 96 55 55 (2904000)
I0924 03:44:16.308552  4693 net.cpp:156] Memory required for data: 29415480
I0924 03:44:16.308562  4693 layer_factory.hpp:77] Creating layer pool1
I0924 03:44:16.308585  4693 net.cpp:91] Creating Layer pool1
I0924 03:44:16.308595  4693 net.cpp:425] pool1 <- conv1
I0924 03:44:16.308610  4693 net.cpp:399] pool1 -> pool1
I0924 03:44:16.308786  4693 net.cpp:141] Setting up pool1
I0924 03:44:16.308806  4693 net.cpp:148] Top shape: 10 96 27 27 (699840)
I0924 03:44:16.308816  4693 net.cpp:156] Memory required for data: 32214840
I0924 03:44:16.308826  4693 layer_factory.hpp:77] Creating layer norm1
I0924 03:44:16.308879  4693 net.cpp:91] Creating Layer norm1
I0924 03:44:16.308892  4693 net.cpp:425] norm1 <- pool1
I0924 03:44:16.308909  4693 net.cpp:399] norm1 -> norm1
I0924 03:44:16.309502  4693 net.cpp:141] Setting up norm1
I0924 03:44:16.309523  4693 net.cpp:148] Top shape: 10 96 27 27 (699840)
I0924 03:44:16.309533  4693 net.cpp:156] Memory required for data: 35014200
I0924 03:44:16.309543  4693 layer_factory.hpp:77] Creating layer conv2
I0924 03:44:16.309594  4693 net.cpp:91] Creating Layer conv2
I0924 03:44:16.309607  4693 net.cpp:425] conv2 <- norm1
I0924 03:44:16.309622  4693 net.cpp:399] conv2 -> conv2
I0924 03:44:16.335096  4693 net.cpp:141] Setting up conv2
I0924 03:44:16.335172  4693 net.cpp:148] Top shape: 10 256 27 27 (1866240)
I0924 03:44:16.335186  4693 net.cpp:156] Memory required for data: 42479160
I0924 03:44:16.335232  4693 layer_factory.hpp:77] Creating layer relu2
I0924 03:44:16.335263  4693 net.cpp:91] Creating Layer relu2
I0924 03:44:16.335274  4693 net.cpp:425] relu2 <- conv2
I0924 03:44:16.335289  4693 net.cpp:386] relu2 -> conv2 (in-place)
I0924 03:44:16.336369  4693 net.cpp:141] Setting up relu2
I0924 03:44:16.336410  4693 net.cpp:148] Top shape: 10 256 27 27 (1866240)
I0924 03:44:16.336421  4693 net.cpp:156] Memory required for data: 49944120
I0924 03:44:16.336431  4693 layer_factory.hpp:77] Creating layer pool2
I0924 03:44:16.336453  4693 net.cpp:91] Creating Layer pool2
I0924 03:44:16.336463  4693 net.cpp:425] pool2 <- conv2
I0924 03:44:16.336485  4693 net.cpp:399] pool2 -> pool2
I0924 03:44:16.337100  4693 net.cpp:141] Setting up pool2
I0924 03:44:16.337131  4693 net.cpp:148] Top shape: 10 256 13 13 (432640)
I0924 03:44:16.337141  4693 net.cpp:156] Memory required for data: 51674680
I0924 03:44:16.337152  4693 layer_factory.hpp:77] Creating layer norm2
I0924 03:44:16.337177  4693 net.cpp:91] Creating Layer norm2
I0924 03:44:16.337188  4693 net.cpp:425] norm2 <- pool2
I0924 03:44:16.337802  4693 net.cpp:399] norm2 -> norm2
I0924 03:44:16.340950  4693 net.cpp:141] Setting up norm2
I0924 03:44:16.341032  4693 net.cpp:148] Top shape: 10 256 13 13 (432640)
I0924 03:44:16.341044  4693 net.cpp:156] Memory required for data: 53405240
I0924 03:44:16.341058  4693 layer_factory.hpp:77] Creating layer conv3
I0924 03:44:16.341517  4693 net.cpp:91] Creating Layer conv3
I0924 03:44:16.341543  4693 net.cpp:425] conv3 <- norm2
I0924 03:44:16.341569  4693 net.cpp:399] conv3 -> conv3
I0924 03:44:16.364827  4693 net.cpp:141] Setting up conv3
I0924 03:44:16.364912  4693 net.cpp:148] Top shape: 10 384 13 13 (648960)
I0924 03:44:16.364926  4693 net.cpp:156] Memory required for data: 56001080
I0924 03:44:16.364980  4693 layer_factory.hpp:77] Creating layer relu3
I0924 03:44:16.365713  4693 net.cpp:91] Creating Layer relu3
I0924 03:44:16.365741  4693 net.cpp:425] relu3 <- conv3
I0924 03:44:16.365767  4693 net.cpp:386] relu3 -> conv3 (in-place)
I0924 03:44:16.368165  4693 net.cpp:141] Setting up relu3
I0924 03:44:16.368235  4693 net.cpp:148] Top shape: 10 384 13 13 (648960)
I0924 03:44:16.368248  4693 net.cpp:156] Memory required for data: 58596920
I0924 03:44:16.368263  4693 layer_factory.hpp:77] Creating layer conv4
I0924 03:44:16.368705  4693 net.cpp:91] Creating Layer conv4
I0924 03:44:16.368728  4693 net.cpp:425] conv4 <- conv3
I0924 03:44:16.368753  4693 net.cpp:399] conv4 -> conv4
I0924 03:44:16.388413  4693 net.cpp:141] Setting up conv4
I0924 03:44:16.389338  4693 net.cpp:148] Top shape: 10 384 13 13 (648960)
I0924 03:44:16.389765  4693 net.cpp:156] Memory required for data: 61192760
I0924 03:44:16.390075  4693 layer_factory.hpp:77] Creating layer relu4
I0924 03:44:16.390460  4693 net.cpp:91] Creating Layer relu4
I0924 03:44:16.390735  4693 net.cpp:425] relu4 <- conv4
I0924 03:44:16.391089  4693 net.cpp:386] relu4 -> conv4 (in-place)
I0924 03:44:16.392566  4693 net.cpp:141] Setting up relu4
I0924 03:44:16.393292  4693 net.cpp:148] Top shape: 10 384 13 13 (648960)
I0924 03:44:16.393653  4693 net.cpp:156] Memory required for data: 63788600
I0924 03:44:16.393913  4693 layer_factory.hpp:77] Creating layer conv5
I0924 03:44:16.394219  4693 net.cpp:91] Creating Layer conv5
I0924 03:44:16.394661  4693 net.cpp:425] conv5 <- conv4
I0924 03:44:16.395005  4693 net.cpp:399] conv5 -> conv5
I0924 03:44:16.407505  4675 net.cpp:141] Setting up predict
I0924 03:44:16.407580  4675 net.cpp:148] Top shape: 1 1 46168 (46168)
I0924 03:44:16.407591  4675 net.cpp:156] Memory required for data: 221084
I0924 03:44:16.407616  4675 layer_factory.hpp:77] Creating layer probs
I0924 03:44:16.407649  4675 net.cpp:91] Creating Layer probs
I0924 03:44:16.407662  4675 net.cpp:425] probs <- predict
I0924 03:44:16.407680  4675 net.cpp:399] probs -> probs
I0924 03:44:16.409862  4675 net.cpp:141] Setting up probs
I0924 03:44:16.409929  4675 net.cpp:148] Top shape: 1 1 46168 (46168)
I0924 03:44:16.409936  4675 net.cpp:156] Memory required for data: 405756
I0924 03:44:16.409947  4675 net.cpp:219] probs does not need backward computation.
I0924 03:44:16.409956  4675 net.cpp:219] predict does not need backward computation.
I0924 03:44:16.409965  4675 net.cpp:219] lstm2 does not need backward computation.
I0924 03:44:16.409973  4675 net.cpp:219] concat does not need backward computation.
I0924 03:44:16.409981  4675 net.cpp:219] lstm1 does not need backward computation.
I0924 03:44:16.409991  4675 net.cpp:219] embedding does not need backward computation.
I0924 03:44:16.409996  4675 net.cpp:219] reshape_stage_indicator does not need backward computation.
I0924 03:44:16.410003  4675 net.cpp:219] reshape_frames does not need backward computation.
I0924 03:44:16.410009  4675 net.cpp:219] embed_encoder does not need backward computation.
I0924 03:44:16.410017  4675 net.cpp:219] cont_sentence_input_1_split does not need backward computation.
I0924 03:44:16.410023  4675 net.cpp:219] input does not need backward computation.
I0924 03:44:16.410028  4675 net.cpp:261] This network produces output probs
I0924 03:44:16.410049  4675 net.cpp:274] Network initialization done.
I0924 03:44:16.411198  4693 net.cpp:141] Setting up conv5
I0924 03:44:16.411263  4693 net.cpp:148] Top shape: 10 256 13 13 (432640)
I0924 03:44:16.411278  4693 net.cpp:156] Memory required for data: 65519160
I0924 03:44:16.411321  4693 layer_factory.hpp:77] Creating layer relu5
I0924 03:44:16.411357  4693 net.cpp:91] Creating Layer relu5
I0924 03:44:16.411372  4693 net.cpp:425] relu5 <- conv5
I0924 03:44:16.411422  4693 net.cpp:386] relu5 -> conv5 (in-place)
I0924 03:44:16.412613  4693 net.cpp:141] Setting up relu5
I0924 03:44:16.413192  4693 net.cpp:148] Top shape: 10 256 13 13 (432640)
I0924 03:44:16.413427  4693 net.cpp:156] Memory required for data: 67249720
I0924 03:44:16.413612  4693 layer_factory.hpp:77] Creating layer pool5
I0924 03:44:16.413805  4693 net.cpp:91] Creating Layer pool5
I0924 03:44:16.413975  4693 net.cpp:425] pool5 <- conv5
I0924 03:44:16.414325  4693 net.cpp:399] pool5 -> pool5
I0924 03:44:16.414793  4693 net.cpp:141] Setting up pool5
I0924 03:44:16.414989  4693 net.cpp:148] Top shape: 10 256 6 6 (92160)
I0924 03:44:16.415307  4693 net.cpp:156] Memory required for data: 67618360
I0924 03:44:16.415477  4693 layer_factory.hpp:77] Creating layer fc6
I0924 03:44:16.415679  4693 net.cpp:91] Creating Layer fc6
I0924 03:44:16.415843  4693 net.cpp:425] fc6 <- pool5
I0924 03:44:16.416018  4693 net.cpp:399] fc6 -> fc6
I0924 03:44:16.550217  4691 net.cpp:141] Setting up predict
I0924 03:44:16.550318  4691 net.cpp:148] Top shape: 1 1 46168 (46168)
I0924 03:44:16.550329  4691 net.cpp:156] Memory required for data: 221084
I0924 03:44:16.550355  4691 layer_factory.hpp:77] Creating layer probs
I0924 03:44:16.550389  4691 net.cpp:91] Creating Layer probs
I0924 03:44:16.550401  4691 net.cpp:425] probs <- predict
I0924 03:44:16.550421  4691 net.cpp:399] probs -> probs
I0924 03:44:16.551579  4691 net.cpp:141] Setting up probs
I0924 03:44:16.551663  4691 net.cpp:148] Top shape: 1 1 46168 (46168)
I0924 03:44:16.551677  4691 net.cpp:156] Memory required for data: 405756
I0924 03:44:16.551697  4691 net.cpp:219] probs does not need backward computation.
I0924 03:44:16.551714  4691 net.cpp:219] predict does not need backward computation.
I0924 03:44:16.551728  4691 net.cpp:219] lstm2 does not need backward computation.
I0924 03:44:16.551743  4691 net.cpp:219] concat does not need backward computation.
I0924 03:44:16.551758  4691 net.cpp:219] lstm1 does not need backward computation.
I0924 03:44:16.551774  4691 net.cpp:219] embedding does not need backward computation.
I0924 03:44:16.551784  4691 net.cpp:219] reshape_stage_indicator does not need backward computation.
I0924 03:44:16.551796  4691 net.cpp:219] reshape_frames does not need backward computation.
I0924 03:44:16.551807  4691 net.cpp:219] embed_encoder does not need backward computation.
I0924 03:44:16.551817  4691 net.cpp:219] cont_sentence_input_1_split does not need backward computation.
I0924 03:44:16.551829  4691 net.cpp:219] input does not need backward computation.
I0924 03:44:16.551839  4691 net.cpp:261] This network produces output probs
I0924 03:44:16.551882  4691 net.cpp:274] Network initialization done.
I0924 03:44:16.554486  4693 net.cpp:141] Setting up fc6
I0924 03:44:16.554545  4693 net.cpp:148] Top shape: 10 4096 (40960)
I0924 03:44:16.554553  4693 net.cpp:156] Memory required for data: 67782200
I0924 03:44:16.554569  4693 layer_factory.hpp:77] Creating layer relu6
I0924 03:44:16.554592  4693 net.cpp:91] Creating Layer relu6
I0924 03:44:16.554613  4693 net.cpp:425] relu6 <- fc6
I0924 03:44:16.555158  4693 net.cpp:386] relu6 -> fc6 (in-place)
I0924 03:44:16.556136  4693 net.cpp:141] Setting up relu6
I0924 03:44:16.556187  4693 net.cpp:148] Top shape: 10 4096 (40960)
I0924 03:44:16.556195  4693 net.cpp:156] Memory required for data: 67946040
I0924 03:44:16.556205  4693 layer_factory.hpp:77] Creating layer drop6
I0924 03:44:16.556897  4693 net.cpp:91] Creating Layer drop6
I0924 03:44:16.556921  4693 net.cpp:425] drop6 <- fc6
I0924 03:44:16.556951  4693 net.cpp:386] drop6 -> fc6 (in-place)
I0924 03:44:16.557126  4693 net.cpp:141] Setting up drop6
I0924 03:44:16.557145  4693 net.cpp:148] Top shape: 10 4096 (40960)
I0924 03:44:16.557152  4693 net.cpp:156] Memory required for data: 68109880
I0924 03:44:16.557163  4693 layer_factory.hpp:77] Creating layer fc7
I0924 03:44:16.557178  4693 net.cpp:91] Creating Layer fc7
I0924 03:44:16.557184  4693 net.cpp:425] fc7 <- fc6
I0924 03:44:16.558043  4693 net.cpp:399] fc7 -> fc7
I0924 03:44:16.617449  4653 net.cpp:141] Setting up predict
I0924 03:44:16.617514  4653 net.cpp:148] Top shape: 1 1 46168 (46168)
I0924 03:44:16.617522  4653 net.cpp:156] Memory required for data: 221084
I0924 03:44:16.617542  4653 layer_factory.hpp:77] Creating layer probs
I0924 03:44:16.617563  4653 net.cpp:91] Creating Layer probs
I0924 03:44:16.617573  4653 net.cpp:425] probs <- predict
I0924 03:44:16.617586  4653 net.cpp:399] probs -> probs
I0924 03:44:16.619076  4653 net.cpp:141] Setting up probs
I0924 03:44:16.619133  4653 net.cpp:148] Top shape: 1 1 46168 (46168)
I0924 03:44:16.619141  4653 net.cpp:156] Memory required for data: 405756
I0924 03:44:16.619153  4653 net.cpp:219] probs does not need backward computation.
I0924 03:44:16.619161  4653 net.cpp:219] predict does not need backward computation.
I0924 03:44:16.619168  4653 net.cpp:219] lstm2 does not need backward computation.
I0924 03:44:16.619175  4653 net.cpp:219] concat does not need backward computation.
I0924 03:44:16.619182  4653 net.cpp:219] lstm1 does not need backward computation.
I0924 03:44:16.619189  4653 net.cpp:219] embedding does not need backward computation.
I0924 03:44:16.619196  4653 net.cpp:219] reshape_stage_indicator does not need backward computation.
I0924 03:44:16.619202  4653 net.cpp:219] reshape_frames does not need backward computation.
I0924 03:44:16.619210  4653 net.cpp:219] embed_encoder does not need backward computation.
I0924 03:44:16.619215  4653 net.cpp:219] cont_sentence_input_1_split does not need backward computation.
I0924 03:44:16.619221  4653 net.cpp:219] input does not need backward computation.
I0924 03:44:16.619226  4653 net.cpp:261] This network produces output probs
I0924 03:44:16.619668  4653 net.cpp:274] Network initialization done.
I0924 03:44:16.620218  4693 net.cpp:141] Setting up fc7
I0924 03:44:16.620239  4693 net.cpp:148] Top shape: 10 4096 (40960)
I0924 03:44:16.620245  4693 net.cpp:156] Memory required for data: 68273720
I0924 03:44:16.620260  4693 layer_factory.hpp:77] Creating layer relu7
I0924 03:44:16.620791  4693 net.cpp:91] Creating Layer relu7
I0924 03:44:16.620805  4693 net.cpp:425] relu7 <- fc7
I0924 03:44:16.620816  4693 net.cpp:386] relu7 -> fc7 (in-place)
I0924 03:44:16.622406  4693 net.cpp:141] Setting up relu7
I0924 03:44:16.622427  4693 net.cpp:148] Top shape: 10 4096 (40960)
I0924 03:44:16.622433  4693 net.cpp:156] Memory required for data: 68437560
I0924 03:44:16.622439  4693 layer_factory.hpp:77] Creating layer drop7
I0924 03:44:16.622452  4693 net.cpp:91] Creating Layer drop7
I0924 03:44:16.622457  4693 net.cpp:425] drop7 <- fc7
I0924 03:44:16.622958  4693 net.cpp:386] drop7 -> fc7 (in-place)
I0924 03:44:16.623049  4693 net.cpp:141] Setting up drop7
I0924 03:44:16.623066  4693 net.cpp:148] Top shape: 10 4096 (40960)
I0924 03:44:16.623072  4693 net.cpp:156] Memory required for data: 68601400
I0924 03:44:16.623078  4693 layer_factory.hpp:77] Creating layer fc8
I0924 03:44:16.623090  4693 net.cpp:91] Creating Layer fc8
I0924 03:44:16.623095  4693 net.cpp:425] fc8 <- fc7
I0924 03:44:16.623105  4693 net.cpp:399] fc8 -> fc8
I0924 03:44:16.640643  4693 net.cpp:141] Setting up fc8
I0924 03:44:16.640733  4693 net.cpp:148] Top shape: 10 1000 (10000)
I0924 03:44:16.640741  4693 net.cpp:156] Memory required for data: 68641400
I0924 03:44:16.640763  4693 layer_factory.hpp:77] Creating layer prob
I0924 03:44:16.640796  4693 net.cpp:91] Creating Layer prob
I0924 03:44:16.640805  4693 net.cpp:425] prob <- fc8
I0924 03:44:16.640827  4693 net.cpp:399] prob -> prob
I0924 03:44:16.644191  4693 net.cpp:141] Setting up prob
I0924 03:44:16.644258  4693 net.cpp:148] Top shape: 10 1000 (10000)
I0924 03:44:16.644266  4693 net.cpp:156] Memory required for data: 68681400
I0924 03:44:16.644279  4693 net.cpp:219] prob does not need backward computation.
I0924 03:44:16.644287  4693 net.cpp:219] fc8 does not need backward computation.
I0924 03:44:16.644294  4693 net.cpp:219] drop7 does not need backward computation.
I0924 03:44:16.644299  4693 net.cpp:219] relu7 does not need backward computation.
…
