…
Java HotSpot(TM) 64-Bit Server VM warning: You have loaded library /tmp/cvld5533233053907838465/libopencv_java310.xine1.so which might have disabled stack guard. The VM will try to fix the stack guard now.
It's highly recommended that you fix the library with 'execstack -c <libfile>', or link it with '-z noexecstack'.
WARNING: Logging before InitGoogleLogging() is written to STDERR
I0714 22:09:50.824558 24107 net.cpp:49] Initializing net from parameters: 
name: "GoogleNet"
state {
  phase: TEST
}
layer {
  name: "data"
  type: "Input"
  top: "data"
  input_param {
    shape {
      dim: 10
      dim: 3
      dim: 224
      dim: 224
    }
  }
}
layer {
  name: "conv1/7x7_s2"
  type: "Convolution"
  bottom: "data"
  top: "conv1/7x7_s2"
  param {
    lr_mult: 1
    decay_mult: 1
  }
  param {
    lr_mult: 2
    decay_mult: 0
  }
  convolution_param {
    num_output: 64
    pad: 3
    kernel_size: 7
    stride: 2
    weight_filler {
      type: "xavier"
      std: 0.1
    }
    bias_filler {
      type: "constant"
      value: 0.2
    }
  }
}
layer {
  name: "conv1/relu_7x7"
  type: "ReLU"
  bottom: "conv1/7x7_s2"
  top: "conv1/7x7_s2"
}
layer {
  name: "pool1/3x3_s2"
  type: "Pooling"
  bottom: "conv1/7x7_s2"
  top: "pool1/3x3_s2"
  pooling_param {
    pool: MAX
    kernel_size: 3
    stride: 2
  }
}
layer {
  name: "pool1/norm1"
  type: "LRN"
  bottom: "pool1/3x3_s2"
  top: "pool1/norm1"
  lrn_param {
    local_size: 5
    alpha: 0.0001
    beta: 0.75
  }
}
layer {
  name: "conv2/3x3_reduce"
  type: "Convolution"
  bottom: "pool1/norm1"
  top: "conv2/3x3_reduce"
  param {
    lr_mult: 1
    decay_mult: 1
  }
  param {
    lr_mult: 2
    decay_mult: 0
  }
  convolution_param {
    num_output: 64
    kernel_size: 1
    weight_filler {
      type: "xavier"
      std: 0.1
    }
    bias_filler {
      type: "constant"
      value: 0.2
    }
  }
}
layer {
  name: "conv2/relu_3x3_reduce"
  type: "ReLU"
  bottom: "conv2/3x3_reduce"
  top: "conv2/3x3_reduce"
}
layer {
  name: "conv2/3x3"
  type: "Convolution"
  bottom: "conv2/3x3_reduce"
  top: "conv2/3x3"
  param {
    lr_mult: 1
    decay_mult: 1
  }
  param {
    lr_mult: 2
    decay_mult: 0
  }
  convolution_param {
    num_output: 192
    pad: 1
    kernel_size: 3
    weight_filler {
      type: "xavier"
      std: 0.03
    }
    bias_filler {
      type: "constant"
      value: 0.2
    }
  }
}
layer {
  name: "conv2/relu_3x3"
  type: "ReLU"
  bottom: "conv2/3x3"
  top: "conv2/3x3"
}
layer {
  name: "conv2/norm2"
  type: "LRN"
  bottom: "conv2/3x3"
  top: "conv2/norm2"
  lrn_param {
    local_size: 5
    alpha: 0.0001
    beta: 0.75
  }
}
layer {
  name: "pool2/3x3_s2"
  type: "Pooling"
  bottom: "conv2/norm2"
  top: "pool2/3x3_s2"
  pooling_param {
    pool: MAX
    kernel_size: 3
    stride: 2
  }
}
layer {
  name: "inception_3a/1x1"
  type: "Convolution"
  bottom: "pool2/3x3_s2"
  top: "inception_3a/1x1"
  param {
    lr_mult: 1
    decay_mult: 1
  }
  param {
    lr_mult: 2
    decay_mult: 0
  }
  convolution_param {
    num_output: 64
    kernel_size: 1
    weight_filler {
      type: "xavier"
      std: 0.03
    }
    bias_filler {
      type: "constant"
      value: 0.2
    }
  }
}
layer {
  name: "inception_3a/relu_1x1"
  type: "ReLU"
  bottom: "inception_3a/1x1"
  top: "inception_3a/1x1"
}
layer {
  name: "inception_3a/3x3_reduce"
  type: "Convolution"
  bottom: "pool2/3x3_s2"
  top: "inception_3a/3x3_reduce"
  param {
    lr_mult: 1
    decay_mult: 1
  }
  param {
    lr_mult: 2
    decay_mult: 0
  }
  convolution_param {
    num_output: 96
    kernel_size: 1
    weight_filler {
      type: "xavier"
      std: 0.09
    }
    bias_filler {
      type: "constant"
      value: 0.2
    }
  }
}
layer {
  name: "inception_3a/relu_3x3_reduce"
  type: "ReLU"
  bottom: "inception_3a/3x3_reduce"
  top: "inception_3a/3x3_reduce"
}
layer {
  name: "inception_3a/3x3"
  type: "Convolution"
  bottom: "inception_3a/3x3_reduce"
  top: "inception_3a/3x3"
  param {
    lr_mult: 1
    decay_mult: 1
  }
  param {
    lr_mult: 2
    decay_mult: 0
  }
  convolution_param {
    num_output: 128
    pad: 1
    kernel_size: 3
    weight_filler {
      type: "xavier"
      std: 0.03
    }
    bias_filler {
      type: "constant"
      value: 0.2
    }
  }
}
layer {
  name: "inception_3a/relu_3x3"
  type: "ReLU"
  bottom: "inception_3a/3x3"
  top: "inception_3a/3x3"
}
layer {
  name: "inception_3a/5x5_reduce"
  type: "Convolution"
  bottom: "pool2/3x3_s2"
  top: "inception_3a/5x5_reduce"
  param {
    lr_mult: 1
    decay_mult: 1
  }
  param {
    lr_mult: 2
    decay_mult: 0
  }
  convolution_param {
    num_output: 16
    kernel_size: 1
    weight_filler {
      type: "xavier"
      std: 0.2
    }
    bias_filler {
      type: "constant"
      value: 0.2
    }
  }
}
layer {
  name: "inception_3a/relu_5x5_reduce"
  type: "ReLU"
  bottom: "inception_3a/5x5_reduce"
  top: "inception_3a/5x5_reduce"
}
layer {
  name: "inception_3a/5x5"
  type: "Convolution"
  bottom: "inception_3a/5x5_reduce"
  top: "inception_3a/5x5"
  param {
    lr_mult: 1
    decay_mult: 1
  }
  param {
    lr_mult: 2
    decay_mult: 0
  }
  convolution_param {
    num_output: 32
    pad: 2
    kernel_size: 5
    weight_filler {
      type: "xavier"
      std: 0.03
    }
    bias_filler {
      type: "constant"
      value: 0.2
    }
  }
}
layer {
  name: "inception_3a/relu_5x5"
  type: "ReLU"
  bottom: "inception_3a/5x5"
  top: "inception_3a/5x5"
}
layer {
  name: "inception_3a/pool"
  type: "Pooling"
  bottom: "pool2/3x3_s2"
  top: "inception_3a/pool"
  pooling_param {
    pool: MAX
    kernel_size: 3
    stride: 1
    pad: 1
  }
}
layer {
  name: "inception_3a/pool_proj"
  type: "Convolution"
  bottom: "inception_3a/pool"
  top: "inception_3a/pool_proj"
  param {
    lr_mult: 1
    decay_mult: 1
  }
  param {
    lr_mult: 2
    decay_mult: 0
  }
  convolution_param {
    num_output: 32
    kernel_size: 1
    weight_filler {
      type: "xavier"
      std: 0.1
    }
    bias_filler {
      type: "constant"
      value: 0.2
    }
  }
}
layer {
  name: "inception_3a/relu_pool_proj"
  type: "ReLU"
  bottom: "inception_3a/pool_proj"
  top: "inception_3a/pool_proj"
}
layer {
  name: "inception_3a/output"
  type: "Concat"
  bottom: "inception_3a/1x1"
  bottom: "inception_3a/3x3"
  bottom: "inception_3a/5x5"
  bottom: "inception_3a/pool_proj"
  top: "inception_3a/output"
}
layer {
  name: "inception_3b/1x1"
  type: "Convolution"
  bottom: "inception_3a/output"
  top: "inception_3b/1x1"
  param {
    lr_mult: 1
    decay_mult: 1
  }
  param {
    lr_mult: 2
    decay_mult: 0
  }
  convolution_param {
    num_output: 128
    kernel_size: 1
    weight_filler {
      type: "xavier"
      std: 0.03
    }
    bias_filler {
      type: "constant"
      value: 0.2
    }
  }
}
layer {
  name: "inception_3b/relu_1x1"
  type: "ReLU"
  bottom: "inception_3b/1x1"
  top: "inception_3b/1x1"
}
layer {
  name: "inception_3b/3x3_reduce"
  type: "Convolution"
  bottom: "inception_3a/output"
  top: "inception_3b/3x3_reduce"
  param {
    lr_mult: 1
    decay_mult: 1
  }
  param {
    lr_mult: 2
    decay_mult: 0
  }
  convolution_param {
    num_output: 128
    kernel_size: 1
    weight_filler {
      type: "xavier"
      std: 0.09
    }
    bias_filler {
      type: "constant"
      value: 0.2
    }
  }
}
layer {
  name: "inception_3b/relu_3x3_reduce"
  type: "ReLU"
  bottom: "inception_3b/3x3_reduce"
  top: "inception_3b/3x3_reduce"
}
layer {
  name: "inception_3b/3x3"
  type: "Convolution"
  bottom: "inception_3b/3x3_reduce"
  top: "inception_3b/3x3"
  param {
    lr_mult: 1
    decay_mult: 1
  }
  param {
    lr_mult: 2
    decay_mult: 0
  }
  convolution_param {
    num_output: 192
    pad: 1
    kernel_size: 3
    weight_filler {
      type: "xavier"
      std: 0.03
    }
    bias_filler {
      type: "constant"
      value: 0.2
    }
  }
}
layer {
  name: "inception_3b/relu_3x3"
  type: "ReLU"
  bottom: "inception_3b/3x3"
  top: "inception_3b/3x3"
}
layer {
  name: "inception_3b/5x5_reduce"
  type: "Convolution"
  bottom: "inception_3a/output"
  top: "inception_3b/5x5_reduce"
  param {
    lr_mult: 1
    decay_mult: 1
  }
  param {
    lr_mult: 2
    decay_mult: 0
  }
  convolution_param {
    num_output: 32
    kernel_size: 1
    weight_filler {
      type: "xavier"
      std: 0.2
    }
    bias_filler {
      type: "constant"
      value: 0.2
    }
  }
}
layer {
  name: "inception_3b/relu_5x5_reduce"
  type: "ReLU"
  bottom: "inception_3b/5x5_reduce"
  top: "inception_3b/5x5_reduce"
}
layer {
  name: "inception_3b/5x5"
  type: "Convolution"
  bottom: "inception_3b/5x5_reduce"
  top: "inception_3b/5x5"
  param {
    lr_mult: 1
    decay_mult: 1
  }
  param {
    lr_mult: 2
    decay_mult: 0
  }
  convolution_param {
    num_output: 96
    pad: 2
    kernel_size: 5
    weight_filler {
      type: "xavier"
      std: 0.03
    }
    bias_filler {
      type: "constant"
      value: 0.2
    }
  }
}
layer {
  name: "inception_3b/relu_5x5"
  type: "ReLU"
  bottom: "inception_3b/5x5"
  top: "inception_3b/5x5"
}
layer {
  name: "inception_3b/pool"
  type: "Pooling"
  bottom: "inception_3a/output"
  top: "inception_3b/pool"
  pooling_param {
    pool: MAX
    kernel_size: 3
    stride: 1
    pad: 1
  }
}
layer {
  name: "inception_3b/pool_proj"
  type: "Convolution"
  bottom: "inception_3b/pool"
  top: "inception_3b/pool_proj"
  param {
    lr_mult: 1
    decay_mult: 1
  }
  param {
    lr_mult: 2
    decay_mult: 0
  }
  convolution_param {
    num_output: 64
    kernel_size: 1
    weight_filler {
      type: "xavier"
      std: 0.1
    }
    bias_filler {
      type: "constant"
      value: 0.2
    }
  }
}
layer {
  name: "inception_3b/relu_pool_proj"
  type: "ReLU"
  bottom: "inception_3b/pool_proj"
  top: "inception_3b/pool_proj"
}
layer {
  name: "inception_3b/output"
  type: "Concat"
  bottom: "inception_3b/1x1"
  bottom: "inception_3b/3x3"
  bottom: "inception_3b/5x5"
  bottom: "inception_3b/pool_proj"
  top: "inception_3b/output"
}
layer {
  name: "pool3/3x3_s2"
  type: "Pooling"
  bottom: "inception_3b/output"
  top: "pool3/3x3_s2"
  pooling_param {
    pool: MAX
    kernel_size: 3
    stride: 2
  }
}
layer {
  name: "inception_4a/1x1"
  type: "Convolution"
  bottom: "pool3/3x3_s2"
  top: "inception_4a/1x1"
  param {
    lr_mult: 1
    decay_mult: 1
  }
  param {
    lr_mult: 2
    decay_mult: 0
  }
  convolution_param {
    num_output: 192
    kernel_size: 1
    weight_filler {
      type: "xavier"
      std: 0.03
    }
    bias_filler {
      type: "constant"
      value: 0.2
    }
  }
}
layer {
  name: "inception_4a/relu_1x1"
  type: "ReLU"
  bottom: "inception_4a/1x1"
  top: "inception_4a/1x1"
}
layer {
  name: "inception_4a/3x3_reduce"
  type: "Convolution"
  bottom: "pool3/3x3_s2"
  top: "inception_4a/3x3_reduce"
  param {
    lr_mult: 1
    decay_mult: 1
  }
  param {
    lr_mult: 2
    decay_mult: 0
  }
  convolution_param {
    num_output: 96
    kernel_size: 1
    weight_filler {
      type: "xavier"
      std: 0.09
    }
    bias_filler {
      type: "constant"
      value: 0.2
    }
  }
}
layer {
  name: "inception_4a/relu_3x3_reduce"
  type: "ReLU"
  bottom: "inception_4a/3x3_reduce"
  top: "inception_4a/3x3_reduce"
}
layer {
  name: "inception_4a/3x3"
  type: "Convolution"
  bottom: "inception_4a/3x3_reduce"
  top: "inception_4a/3x3"
  param {
    lr_mult: 1
    decay_mult: 1
  }
  param {
    lr_mult: 2
    decay_mult: 0
  }
  convolution_param {
    num_output: 208
    pad: 1
    kernel_size: 3
    weight_filler {
      type: "xavier"
      std: 0.03
    }
    bias_filler {
      type: "constant"
      value: 0.2
    }
  }
}
layer {
  name: "inception_4a/relu_3x3"
  type: "ReLU"
  bottom: "inception_4a/3x3"
  top: "inception_4a/3x3"
}
layer {
  name: "inception_4a/5x5_reduce"
  type: "Convolution"
  bottom: "pool3/3x3_s2"
  top: "inception_4a/5x5_reduce"
  param {
    lr_mult: 1
    decay_mult: 1
  }
  param {
    lr_mult: 2
    decay_mult: 0
  }
  convolution_param {
    num_output: 16
    kernel_size: 1
    weight_filler {
      type: "xavier"
      std: 0.2
    }
    bias_filler {
      type: "constant"
      value: 0.2
    }
  }
}
layer {
  name: "inception_4a/relu_5x5_reduce"
  type: "ReLU"
  bottom: "inception_4a/5x5_reduce"
  top: "inception_4a/5x5_reduce"
}
layer {
  name: "inception_4a/5x5"
  type: "Convolution"
  bottom: "inception_4a/5x5_reduce"
  top: "inception_4a/5x5"
  param {
    lr_mult: 1
    decay_mult: 1
  }
  param {
    lr_mult: 2
    decay_mult: 0
  }
  convolution_param {
    num_output: 48
    pad: 2
    kernel_size: 5
    weight_filler {
      type: "xavier"
      std: 0.03
    }
    bias_filler {
      type: "constant"
      value: 0.2
    }
  }
}
layer {
  name: "inception_4a/relu_5x5"
  type: "ReLU"
  bottom: "inception_4a/5x5"
  top: "inception_4a/5x5"
}
layer {
  name: "inception_4a/pool"
  type: "Pooling"
  bottom: "pool3/3x3_s2"
  top: "inception_4a/pool"
  pooling_param {
    pool: MAX
    kernel_size: 3
    stride: 1
    pad: 1
  }
}
layer {
  name: "inception_4a/pool_proj"
  type: "Convolution"
  bottom: "inception_4a/pool"
  top: "inception_4a/pool_proj"
  param {
    lr_mult: 1
    decay_mult: 1
  }
  param {
    lr_mult: 2
    decay_mult: 0
  }
  convolution_param {
    num_output: 64
    kernel_size: 1
    weight_filler {
      type: "xavier"
      std: 0.1
    }
    bias_filler {
      type: "constant"
      value: 0.2
    }
  }
}
layer {
  name: "inception_4a/relu_pool_proj"
  type: "ReLU"
  bottom: "inception_4a/pool_proj"
  top: "inception_4a/pool_proj"
}
layer {
  name: "inception_4a/output"
  type: "Concat"
  bottom: "inception_4a/1x1"
  bottom: "inception_4a/3x3"
  bottom: "inception_4a/5x5"
  bottom: "inception_4a/pool_proj"
  top: "inception_4a/output"
}
layer {
  name: "inception_4b/1x1"
  type: "Convolution"
  bottom: "inception_4a/output"
  top: "inception_4b/1x1"
  param {
    lr_mult: 1
    decay_mult: 1
  }
  param {
    lr_mult: 2
    decay_mult: 0
  }
  convolution_param {
    num_output: 160
    kernel_size: 1
    weight_filler {
      type: "xavier"
      std: 0.03
    }
    bias_filler {
      type: "constant"
      value: 0.2
    }
  }
}
layer {
  name: "inception_4b/relu_1x1"
  type: "ReLU"
  bottom: "inception_4b/1x1"
  top: "inception_4b/1x1"
}
layer {
  name: "inception_4b/3x3_reduce"
  type: "Convolution"
  bottom: "inception_4a/output"
  top: "inception_4b/3x3_reduce"
  param {
    lr_mult: 1
    decay_mult: 1
  }
  param {
    lr_mult: 2
    decay_mult: 0
  }
  convolution_param {
    num_output: 112
    kernel_size: 1
    weight_filler {
      type: "xavier"
      std: 0.09
    }
    bias_filler {
      type: "constant"
      value: 0.2
    }
  }
}
layer {
  name: "inception_4b/relu_3x3_reduce"
  type: "ReLU"
  bottom: "inception_4b/3x3_reduce"
  top: "inception_4b/3x3_reduce"
}
layer {
  name: "inception_4b/3x3"
  type: "Convolution"
  bottom: "inception_4b/3x3_reduce"
  top: "inception_4b/3x3"
  param {
    lr_mult: 1
    decay_mult: 1
  }
  param {
    lr_mult: 2
    decay_mult: 0
  }
  convolution_param {
    num_output: 224
    pad: 1
    kernel_size: 3
    weight_filler {
      type: "xavier"
      std: 0.03
    }
    bias_filler {
      type: "constant"
      value: 0.2
    }
  }
}
layer {
  name: "inception_4b/relu_3x3"
  type: "ReLU"
  bottom: "inception_4b/3x3"
  top: "inception_4b/3x3"
}
layer {
  name: "inception_4b/5x5_reduce"
  type: "Convolution"
  bottom: "inception_4a/output"
  top: "inception_4b/5x5_reduce"
  param {
    lr_mult: 1
    decay_mult: 1
  }
  param {
    lr_mult: 2
    decay_mult: 0
  }
  convolution_param {
    num_output: 24
    kernel_size: 1
    weight_filler {
      type: "xavier"
      std: 0.2
    }
    bias_filler {
      type: "constant"
      value: 0.2
    }
  }
}
layer {
  name: "inception_4b/relu_5x5_reduce"
  type: "ReLU"
  bottom: "inception_4b/5x5_reduce"
  top: "inception_4b/5x5_reduce"
}
layer {
  name: "inception_4b/5x5"
  type: "Convolution"
  bottom: "inception_4b/5x5_reduce"
  top: "inception_4b/5x5"
  param {
    lr_mult: 1
    decay_mult: 1
  }
  param {
    lr_mult: 2
    decay_mult: 0
  }
  convolution_param {
    num_output: 64
    pad: 2
    kernel_size: 5
    weight_filler {
      type: "xavier"
      std: 0.03
    }
    bias_filler {
      type: "constant"
      value: 0.2
    }
  }
}
layer {
  name: "inception_4b/relu_5x5"
  type: "ReLU"
  bottom: "inception_4b/5x5"
  top: "inception_4b/5x5"
}
layer {
  name: "inception_4b/pool"
  type: "Pooling"
  bottom: "inception_4a/output"
  top: "inception_4b/pool"
  pooling_param {
    pool: MAX
    kernel_size: 3
    stride: 1
    pad: 1
  }
}
layer {
  name: "inception_4b/pool_proj"
  type: "Convolution"
  bottom: "inception_4b/pool"
  top: "inception_4b/pool_proj"
  param {
    lr_mult: 1
    decay_mult: 1
  }
  param {
    lr_mult: 2
    decay_mult: 0
  }
  convolution_param {
    num_output: 64
    kernel_size: 1
    weight_filler {
      type: "xavier"
      std: 0.1
    }
    bias_filler {
      type: "constant"
      value: 0.2
    }
  }
}
layer {
  name: "inception_4b/relu_pool_proj"
  type: "ReLU"
  bottom: "inception_4b/pool_proj"
  top: "inception_4b/pool_proj"
}
layer {
  name: "inception_4b/output"
  type: "Concat"
  bottom: "inception_4b/1x1"
  bottom: "inception_4b/3x3"
  bottom: "inception_4b/5x5"
  bottom: "inception_4b/pool_proj"
  top: "inception_4b/output"
}
layer {
  name: "inception_4c/1x1"
  type: "Convolution"
  bottom: "inception_4b/output"
  top: "inception_4c/1x1"
  param {
    lr_mult: 1
    decay_mult: 1
  }
  param {
    lr_mult: 2
    decay_mult: 0
  }
  convolution_param {
    num_output: 128
    kernel_size: 1
    weight_filler {
      type: "xavier"
      std: 0.03
    }
    bias_filler {
      type: "constant"
      value: 0.2
    }
  }
}
layer {
  name: "inception_4c/relu_1x1"
  type: "ReLU"
  bottom: "inception_4c/1x1"
  top: "inception_4c/1x1"
}
layer {
  name: "inception_4c/3x3_reduce"
  type: "Convolution"
  bottom: "inception_4b/output"
  top: "inception_4c/3x3_reduce"
  param {
    lr_mult: 1
    decay_mult: 1
  }
  param {
    lr_mult: 2
    decay_mult: 0
  }
  convolution_param {
    num_output: 128
    kernel_size: 1
    weight_filler {
      type: "xavier"
      std: 0.09
    }
    bias_filler {
      type: "constant"
      value: 0.2
    }
  }
}
layer {
  name: "inception_4c/relu_3x3_reduce"
  type: "ReLU"
  bottom: "inception_4c/3x3_reduce"
  top: "inception_4c/3x3_reduce"
}
layer {
  name: "inception_4c/3x3"
  type: "Convolution"
  bottom: "inception_4c/3x3_reduce"
  top: "inception_4c/3x3"
  param {
    lr_mult: 1
    decay_mult: 1
  }
  param {
    lr_mult: 2
    decay_mult: 0
  }
  convolution_param {
    num_output: 256
    pad: 1
    kernel_size: 3
    weight_filler {
      type: "xavier"
      std: 0.03
    }
    bias_filler {
      type: "constant"
      value: 0.2
    }
  }
}
layer {
  name: "inception_4c/relu_3x3"
  type: "ReLU"
  bottom: "inception_4c/3x3"
  top: "inception_4c/3x3"
}
layer {
  name: "inception_4c/5x5_reduce"
  type: "Convolution"
  bottom: "inception_4b/output"
  top: "inception_4c/5x5_reduce"
  param {
    lr_mult: 1
    decay_mult: 1
  }
  param {
    lr_mult: 2
    decay_mult: 0
  }
  convolution_param {
    num_output: 24
    kernel_size: 1
    weight_filler {
      type: "xavier"
      std: 0.2
    }
    bias_filler {
      type: "constant"
      value: 0.2
    }
  }
}
layer {
  name: "inception_4c/relu_5x5_reduce"
  type: "ReLU"
  bottom: "inception_4c/5x5_reduce"
  top: "inception_4c/5x5_reduce"
}
layer {
  name: "inception_4c/5x5"
  type: "Convolution"
  bottom: "inception_4c/5x5_reduce"
  top: "inception_4c/5x5"
  param {
    lr_mult: 1
    decay_mult: 1
  }
  param {
    lr_mult: 2
    decay_mult: 0
  }
  convolution_param {
    num_output: 64
    pad: 2
    kernel_size: 5
    weight_filler {
      type: "xavier"
      std: 0.03
    }
    bias_filler {
      type: "constant"
      value: 0.2
    }
  }
}
layer {
  name: "inception_4c/relu_5x5"
  type: "ReLU"
  bottom: "inception_4c/5x5"
  top: "inception_4c/5x5"
}
layer {
  name: "inception_4c/pool"
  type: "Pooling"
  bottom: "inception_4b/output"
  top: "inception_4c/pool"
  pooling_param {
    pool: MAX
    kernel_size: 3
    stride: 1
    pad: 1
  }
}
layer {
  name: "inception_4c/pool_proj"
  type: "Convolution"
  bottom: "inception_4c/pool"
  top: "inception_4c/pool_proj"
  param {
    lr_mult: 1
    decay_mult: 1
  }
  param {
    lr_mult: 2
    decay_mult: 0
  }
  convolution_param {
    num_output: 64
    kernel_size: 1
    weight_filler {
      type: "xavier"
      std: 0.1
    }
    bias_filler {
      type: "constant"
      value: 0.2
    }
  }
}
layer {
  name: "inception_4c/relu_pool_proj"
  type: "ReLU"
  bottom: "inception_4c/pool_proj"
  top: "inception_4c/pool_proj"
}
layer {
  name: "inception_4c/output"
  type: "Concat"
  bottom: "inception_4c/1x1"
  bottom: "inception_4c/3x3"
  bottom: "inception_4c/5x5"
  bottom: "inception_4c/pool_proj"
  top: "inception_4c/output"
}
layer {
  name: "inception_4d/1x1"
  type: "Convolution"
  bottom: "inception_4c/output"
  top: "inception_4d/1x1"
  param {
    lr_mult: 1
    decay_mult: 1
  }
  param {
    lr_mult: 2
    decay_mult: 0
  }
  convolution_param {
    num_output: 112
    kernel_size: 1
    weight_filler {
      type: "xavier"
      std: 0.03
    }
    bias_filler {
      type: "constant"
      value: 0.2
    }
  }
}
layer {
  name: "inception_4d/relu_1x1"
  type: "ReLU"
  bottom: "inception_4d/1x1"
  top: "inception_4d/1x1"
}
layer {
  name: "inception_4d/3x3_reduce"
  type: "Convolution"
  bottom: "inception_4c/output"
  top: "inception_4d/3x3_reduce"
  param {
    lr_mult: 1
    decay_mult: 1
  }
  param {
    lr_mult: 2
    decay_mult: 0
  }
  convolution_param {
    num_output: 144
    kernel_size: 1
    weight_filler {
      type: "xavier"
      std: 0.09
    }
    bias_filler {
      type: "constant"
      value: 0.2
    }
  }
}
layer {
  name: "inception_4d/relu_3x3_reduce"
  type: "ReLU"
  bottom: "inception_4d/3x3_reduce"
  top: "inception_4d/3x3_reduce"
}
layer {
  name: "inception_4d/3x3"
  type: "Convolution"
  bottom: "inception_4d/3x3_reduce"
  top: "inception_4d/3x3"
  param {
    lr_mult: 1
    decay_mult: 1
  }
  param {
    lr_mult: 2
    decay_mult: 0
  }
  convolution_param {
    num_output: 288
    pad: 1
    kernel_size: 3
    weight_filler {
      type: "xavier"
      std: 0.03
    }
    bias_filler {
      type: "constant"
      value: 0.2
    }
  }
}
layer {
  name: "inception_4d/relu_3x3"
  type: "ReLU"
  bottom: "inception_4d/3x3"
  top: "inception_4d/3x3"
}
layer {
  name: "inception_4d/5x5_reduce"
  type: "Convolution"
  bottom: "inception_4c/output"
  top: "inception_4d/5x5_reduce"
  param {
    lr_mult: 1
    decay_mult: 1
  }
  param {
    lr_mult: 2
    decay_mult: 0
  }
  convolution_param {
    num_output: 32
    kernel_size: 1
    weight_filler {
      type: "xavier"
      std: 0.2
    }
    bias_filler {
      type: "constant"
      value: 0.2
    }
  }
}
layer {
  name: "inception_4d/relu_5x5_reduce"
  type: "ReLU"
  bottom: "inception_4d/5x5_reduce"
  top: "inception_4d/5x5_reduce"
}
layer {
  name: "inception_4d/5x5"
  type: "Convolution"
  bottom: "inception_4d/5x5_reduce"
  top: "inception_4d/5x5"
  param {
    lr_mult: 1
    decay_mult: 1
  }
  param {
    lr_mult: 2
    decay_mult: 0
  }
  convolution_param {
    num_output: 64
    pad: 2
    kernel_size: 5
    weight_filler {
      type: "xavier"
      std: 0.03
    }
    bias_filler {
      type: "constant"
      value: 0.2
    }
  }
}
layer {
  name: "inception_4d/relu_5x5"
  type: "ReLU"
  bottom: "inception_4d/5x5"
  top: "inception_4d/5x5"
}
layer {
  name: "inception_4d/pool"
  type: "Pooling"
  bottom: "inception_4c/output"
  top: "inception_4d/pool"
  pooling_param {
    pool: MAX
    kernel_size: 3
    stride: 1
    pad: 1
  }
}
layer {
  name: "inception_4d/pool_proj"
  type: "Convolution"
  bottom: "inception_4d/pool"
  top: "inception_4d/pool_proj"
  param {
    lr_mult: 1
    decay_mult: 1
  }
  param {
    lr_mult: 2
    decay_mult: 0
  }
  convolution_param {
    num_output: 64
    kernel_size: 1
    weight_filler {
      type: "xavier"
      std: 0.1
    }
    bias_filler {
      type: "constant"
      value: 0.2
    }
  }
}
layer {
  name: "inception_4d/relu_pool_proj"
  type: "ReLU"
  bottom: "inception_4d/pool_proj"
  top: "inception_4d/pool_proj"
}
layer {
  name: "inception_4d/output"
  type: "Concat"
  bottom: "inception_4d/1x1"
  bottom: "inception_4d/3x3"
  bottom: "inception_4d/5x5"
  bottom: "inception_4d/pool_proj"
  top: "inception_4d/output"
}
layer {
  name: "inception_4e/1x1"
  type: "Convolution"
  bottom: "inception_4d/output"
  top: "inception_4e/1x1"
  param {
    lr_mult: 1
    decay_mult: 1
  }
  param {
    lr_mult: 2
    decay_mult: 0
  }
  convolution_param {
    num_output: 256
    kernel_size: 1
    weight_filler {
      type: "xavier"
      std: 0.03
    }
    bias_filler {
      type: "constant"
      value: 0.2
    }
  }
}
layer {
  name: "inception_4e/relu_1x1"
  type: "ReLU"
  bottom: "inception_4e/1x1"
  top: "inception_4e/1x1"
}
layer {
  name: "inception_4e/3x3_reduce"
  type: "Convolution"
  bottom: "inception_4d/output"
  top: "inception_4e/3x3_reduce"
  param {
    lr_mult: 1
    decay_mult: 1
  }
  param {
    lr_mult: 2
    decay_mult: 0
  }
  convolution_param {
    num_output: 160
    kernel_size: 1
    weight_filler {
      type: "xavier"
      std: 0.09
    }
    bias_filler {
      type: "constant"
      value: 0.2
    }
  }
}
layer {
  name: "inception_4e/relu_3x3_reduce"
  type: "ReLU"
  bottom: "inception_4e/3x3_reduce"
  top: "inception_4e/3x3_reduce"
}
layer {
  name: "inception_4e/3x3"
  type: "Convolution"
  bottom: "inception_4e/3x3_reduce"
  top: "inception_4e/3x3"
  param {
    lr_mult: 1
    decay_mult: 1
  }
  param {
    lr_mult: 2
    decay_mult: 0
  }
  convolution_param {
    num_output: 320
    pad: 1
    kernel_size: 3
    weight_filler {
      type: "xavier"
      std: 0.03
    }
    bias_filler {
      type: "constant"
      value: 0.2
    }
  }
}
layer {
  name: "inception_4e/relu_3x3"
  type: "ReLU"
  bottom: "inception_4e/3x3"
  top: "inception_4e/3x3"
}
layer {
  name: "inception_4e/5x5_reduce"
  type: "Convolution"
  bottom: "inception_4d/output"
  top: "inception_4e/5x5_reduce"
  param {
    lr_mult: 1
    decay_mult: 1
  }
  param {
    lr_mult: 2
    decay_mult: 0
  }
  convolution_param {
    num_output: 32
    kernel_size: 1
    weight_filler {
      type: "xavier"
      std: 0.2
    }
    bias_filler {
      type: "constant"
      value: 0.2
    }
  }
}
layer {
  name: "inception_4e/relu_5x5_reduce"
  type: "ReLU"
  bottom: "inception_4e/5x5_reduce"
  top: "inception_4e/5x5_reduce"
}
layer {
  name: "inception_4e/5x5"
  type: "Convolution"
  bottom: "inception_4e/5x5_reduce"
  top: "inception_4e/5x5"
  param {
    lr_mult: 1
    decay_mult: 1
  }
  param {
    lr_mult: 2
    decay_mult: 0
  }
  convolution_param {
    num_output: 128
    pad: 2
    kernel_size: 5
    weight_filler {
      type: "xavier"
      std: 0.03
    }
    bias_filler {
      type: "constant"
      value: 0.2
    }
  }
}
layer {
  name: "inception_4e/relu_5x5"
  type: "ReLU"
  bottom: "inception_4e/5x5"
  top: "inception_4e/5x5"
}
layer {
  name: "inception_4e/pool"
  type: "Pooling"
  bottom: "inception_4d/output"
  top: "inception_4e/pool"
  pooling_param {
    pool: MAX
    kernel_size: 3
    stride: 1
    pad: 1
  }
}
layer {
  name: "inception_4e/pool_proj"
  type: "Convolution"
  bottom: "inception_4e/pool"
  top: "inception_4e/pool_proj"
  param {
    lr_mult: 1
    decay_mult: 1
  }
  param {
    lr_mult: 2
    decay_mult: 0
  }
  convolution_param {
    num_output: 128
    kernel_size: 1
    weight_filler {
      type: "xavier"
      std: 0.1
    }
    bias_filler {
      type: "constant"
      value: 0.2
    }
  }
}
layer {
  name: "inception_4e/relu_pool_proj"
  type: "ReLU"
  bottom: "inception_4e/pool_proj"
  top: "inception_4e/pool_proj"
}
layer {
  name: "inception_4e/output"
  type: "Concat"
  bottom: "inception_4e/1x1"
  bottom: "inception_4e/3x3"
  bottom: "inception_4e/5x5"
  bottom: "inception_4e/pool_proj"
  top: "inception_4e/output"
}
layer {
  name: "pool4/3x3_s2"
  type: "Pooling"
  bottom: "inception_4e/output"
  top: "pool4/3x3_s2"
  pooling_param {
    pool: MAX
    kernel_size: 3
    stride: 2
  }
}
layer {
  name: "inception_5a/1x1"
  type: "Convolution"
  bottom: "pool4/3x3_s2"
  top: "inception_5a/1x1"
  param {
    lr_mult: 1
    decay_mult: 1
  }
  param {
    lr_mult: 2
    decay_mult: 0
  }
  convolution_param {
    num_output: 256
    kernel_size: 1
    weight_filler {
      type: "xavier"
      std: 0.03
    }
    bias_filler {
      type: "constant"
      value: 0.2
    }
  }
}
layer {
  name: "inception_5a/relu_1x1"
  type: "ReLU"
  bottom: "inception_5a/1x1"
  top: "inception_5a/1x1"
}
layer {
  name: "inception_5a/3x3_reduce"
  type: "Convolution"
  bottom: "pool4/3x3_s2"
  top: "inception_5a/3x3_reduce"
  param {
    lr_mult: 1
    decay_mult: 1
  }
  param {
    lr_mult: 2
    decay_mult: 0
  }
  convolution_param {
    num_output: 160
    kernel_size: 1
    weight_filler {
      type: "xavier"
      std: 0.09
    }
    bias_filler {
      type: "constant"
      value: 0.2
    }
  }
}
layer {
  name: "inception_5a/relu_3x3_reduce"
  type: "ReLU"
  bottom: "inception_5a/3x3_reduce"
  top: "inception_5a/3x3_reduce"
}
layer {
  name: "inception_5a/3x3"
  type: "Convolution"
  bottom: "inception_5a/3x3_reduce"
  top: "inception_5a/3x3"
  param {
    lr_mult: 1
    decay_mult: 1
  }
  param {
    lr_mult: 2
    decay_mult: 0
  }
  convolution_param {
    num_output: 320
    pad: 1
    kernel_size: 3
    weight_filler {
      type: "xavier"
      std: 0.03
    }
    bias_filler {
      type: "constant"
      value: 0.2
    }
  }
}
layer {
  name: "inception_5a/relu_3x3"
  type: "ReLU"
  bottom: "inception_5a/3x3"
  top: "inception_5a/3x3"
}
layer {
  name: "inception_5a/5x5_reduce"
  type: "Convolution"
  bottom: "pool4/3x3_s2"
  top: "inception_5a/5x5_reduce"
  param {
    lr_mult: 1
    decay_mult: 1
  }
  param {
    lr_mult: 2
    decay_mult: 0
  }
  convolution_param {
    num_output: 32
    kernel_size: 1
    weight_filler {
      type: "xavier"
      std: 0.2
    }
    bias_filler {
      type: "constant"
      value: 0.2
    }
I0714 22:09:50.826944 24107 layer_factory.hpp:77] Creating layer data
I0714 22:09:50.826983 24107 net.cpp:91] Creating Layer data
I0714 22:09:50.826997 24107 net.cpp:399] data -> data
I0714 22:09:50.844832 24103 net.cpp:49] Initializing net from parameters: 
name: "GoogleNet"
state {
  phase: TEST
}
layer {
  name: "data"
  type: "Input"
  top: "data"
  input_param {
    shape {
      dim: 10
      dim: 3
      dim: 224
      dim: 224
    }
  }
}
layer {
  name: "conv1/7x7_s2"
  type: "Convolution"
  bottom: "data"
  top: "conv1/7x7_s2"
  param {
    lr_mult: 1
    decay_mult: 1
  }
  param {
    lr_mult: 2
    decay_mult: 0
  }
  convolution_param {
    num_output: 64
    pad: 3
    kernel_size: 7
    stride: 2
    weight_filler {
      type: "xavier"
      std: 0.1
    }
    bias_filler {
      type: "constant"
      value: 0.2
    }
  }
}
layer {
  name: "conv1/relu_7x7"
  type: "ReLU"
  bottom: "conv1/7x7_s2"
  top: "conv1/7x7_s2"
}
layer {
  name: "pool1/3x3_s2"
  type: "Pooling"
  bottom: "conv1/7x7_s2"
  top: "pool1/3x3_s2"
  pooling_param {
    pool: MAX
    kernel_size: 3
    stride: 2
  }
}
layer {
  name: "pool1/norm1"
  type: "LRN"
  bottom: "pool1/3x3_s2"
  top: "pool1/norm1"
  lrn_param {
    local_size: 5
    alpha: 0.0001
    beta: 0.75
  }
}
layer {
  name: "conv2/3x3_reduce"
  type: "Convolution"
  bottom: "pool1/norm1"
  top: "conv2/3x3_reduce"
  param {
    lr_mult: 1
    decay_mult: 1
  }
  param {
    lr_mult: 2
    decay_mult: 0
  }
  convolution_param {
    num_output: 64
    kernel_size: 1
    weight_filler {
      type: "xavier"
      std: 0.1
    }
    bias_filler {
      type: "constant"
      value: 0.2
    }
  }
}
layer {
  name: "conv2/relu_3x3_reduce"
  type: "ReLU"
  bottom: "conv2/3x3_reduce"
  top: "conv2/3x3_reduce"
}
layer {
  name: "conv2/3x3"
  type: "Convolution"
  bottom: "conv2/3x3_reduce"
  top: "conv2/3x3"
  param {
    lr_mult: 1
    decay_mult: 1
  }
  param {
    lr_mult: 2
    decay_mult: 0
  }
  convolution_param {
    num_output: 192
    pad: 1
    kernel_size: 3
    weight_filler {
      type: "xavier"
      std: 0.03
    }
    bias_filler {
      type: "constant"
      value: 0.2
    }
  }
}
layer {
  name: "conv2/relu_3x3"
  type: "ReLU"
  bottom: "conv2/3x3"
  top: "conv2/3x3"
}
layer {
  name: "conv2/norm2"
  type: "LRN"
  bottom: "conv2/3x3"
  top: "conv2/norm2"
  lrn_param {
    local_size: 5
    alpha: 0.0001
    beta: 0.75
  }
}
layer {
  name: "pool2/3x3_s2"
  type: "Pooling"
  bottom: "conv2/norm2"
  top: "pool2/3x3_s2"
  pooling_param {
    pool: MAX
    kernel_size: 3
    stride: 2
  }
}
layer {
  name: "inception_3a/1x1"
  type: "Convolution"
  bottom: "pool2/3x3_s2"
  top: "inception_3a/1x1"
  param {
    lr_mult: 1
    decay_mult: 1
  }
  param {
    lr_mult: 2
    decay_mult: 0
  }
  convolution_param {
    num_output: 64
    kernel_size: 1
    weight_filler {
      type: "xavier"
      std: 0.03
    }
    bias_filler {
      type: "constant"
      value: 0.2
    }
  }
}
layer {
  name: "inception_3a/relu_1x1"
  type: "ReLU"
  bottom: "inception_3a/1x1"
  top: "inception_3a/1x1"
}
layer {
  name: "inception_3a/3x3_reduce"
  type: "Convolution"
  bottom: "pool2/3x3_s2"
  top: "inception_3a/3x3_reduce"
  param {
    lr_mult: 1
    decay_mult: 1
  }
  param {
    lr_mult: 2
    decay_mult: 0
  }
  convolution_param {
    num_output: 96
    kernel_size: 1
    weight_filler {
      type: "xavier"
      std: 0.09
    }
    bias_filler {
      type: "constant"
      value: 0.2
    }
  }
}
layer {
  name: "inception_3a/relu_3x3_reduce"
  type: "ReLU"
  bottom: "inception_3a/3x3_reduce"
  top: "inception_3a/3x3_reduce"
}
layer {
  name: "inception_3a/3x3"
  type: "Convolution"
  bottom: "inception_3a/3x3_reduce"
  top: "inception_3a/3x3"
  param {
    lr_mult: 1
    decay_mult: 1
  }
  param {
    lr_mult: 2
    decay_mult: 0
  }
  convolution_param {
    num_output: 128
    pad: 1
    kernel_size: 3
    weight_filler {
      type: "xavier"
      std: 0.03
    }
    bias_filler {
      type: "constant"
      value: 0.2
    }
  }
}
layer {
  name: "inception_3a/relu_3x3"
  type: "ReLU"
  bottom: "inception_3a/3x3"
  top: "inception_3a/3x3"
}
layer {
  name: "inception_3a/5x5_reduce"
  type: "Convolution"
  bottom: "pool2/3x3_s2"
  top: "inception_3a/5x5_reduce"
  param {
    lr_mult: 1
    decay_mult: 1
  }
  param {
    lr_mult: 2
    decay_mult: 0
  }
  convolution_param {
    num_output: 16
    kernel_size: 1
    weight_filler {
      type: "xavier"
      std: 0.2
    }
    bias_filler {
      type: "constant"
      value: 0.2
    }
  }
}
layer {
  name: "inception_3a/relu_5x5_reduce"
  type: "ReLU"
  bottom: "inception_3a/5x5_reduce"
  top: "inception_3a/5x5_reduce"
}
layer {
  name: "inception_3a/5x5"
  type: "Convolution"
  bottom: "inception_3a/5x5_reduce"
  top: "inception_3a/5x5"
  param {
    lr_mult: 1
    decay_mult: 1
  }
  param {
    lr_mult: 2
    decay_mult: 0
  }
  convolution_param {
    num_output: 32
    pad: 2
    kernel_size: 5
    weight_filler {
      type: "xavier"
      std: 0.03
    }
    bias_filler {
      type: "constant"
      value: 0.2
    }
  }
}
layer {
  name: "inception_3a/relu_5x5"
  type: "ReLU"
  bottom: "inception_3a/5x5"
  top: "inception_3a/5x5"
}
layer {
  name: "inception_3a/pool"
  type: "Pooling"
  bottom: "pool2/3x3_s2"
  top: "inception_3a/pool"
  pooling_param {
    pool: MAX
    kernel_size: 3
    stride: 1
    pad: 1
  }
}
layer {
  name: "inception_3a/pool_proj"
  type: "Convolution"
  bottom: "inception_3a/pool"
  top: "inception_3a/pool_proj"
  param {
    lr_mult: 1
    decay_mult: 1
  }
  param {
    lr_mult: 2
    decay_mult: 0
  }
  convolution_param {
    num_output: 32
    kernel_size: 1
    weight_filler {
      type: "xavier"
      std: 0.1
    }
    bias_filler {
      type: "constant"
      value: 0.2
    }
  }
}
layer {
  name: "inception_3a/relu_pool_proj"
  type: "ReLU"
  bottom: "inception_3a/pool_proj"
  top: "inception_3a/pool_proj"
}
layer {
  name: "inception_3a/output"
  type: "Concat"
  bottom: "inception_3a/1x1"
  bottom: "inception_3a/3x3"
  bottom: "inception_3a/5x5"
  bottom: "inception_3a/pool_proj"
  top: "inception_3a/output"
}
layer {
  name: "inception_3b/1x1"
  type: "Convolution"
  bottom: "inception_3a/output"
  top: "inception_3b/1x1"
  param {
    lr_mult: 1
    decay_mult: 1
  }
  param {
    lr_mult: 2
    decay_mult: 0
  }
  convolution_param {
    num_output: 128
    kernel_size: 1
    weight_filler {
      type: "xavier"
      std: 0.03
    }
    bias_filler {
      type: "constant"
      value: 0.2
    }
  }
}
layer {
  name: "inception_3b/relu_1x1"
  type: "ReLU"
  bottom: "inception_3b/1x1"
  top: "inception_3b/1x1"
}
layer {
  name: "inception_3b/3x3_reduce"
  type: "Convolution"
  bottom: "inception_3a/output"
  top: "inception_3b/3x3_reduce"
  param {
    lr_mult: 1
    decay_mult: 1
  }
  param {
    lr_mult: 2
    decay_mult: 0
  }
  convolution_param {
    num_output: 128
    kernel_size: 1
    weight_filler {
      type: "xavier"
      std: 0.09
    }
    bias_filler {
      type: "constant"
      value: 0.2
    }
  }
}
layer {
  name: "inception_3b/relu_3x3_reduce"
  type: "ReLU"
  bottom: "inception_3b/3x3_reduce"
  top: "inception_3b/3x3_reduce"
}
layer {
  name: "inception_3b/3x3"
  type: "Convolution"
  bottom: "inception_3b/3x3_reduce"
  top: "inception_3b/3x3"
  param {
    lr_mult: 1
    decay_mult: 1
  }
  param {
    lr_mult: 2
    decay_mult: 0
  }
  convolution_param {
    num_output: 192
    pad: 1
    kernel_size: 3
    weight_filler {
      type: "xavier"
      std: 0.03
    }
    bias_filler {
      type: "constant"
      value: 0.2
    }
  }
}
layer {
  name: "inception_3b/relu_3x3"
  type: "ReLU"
  bottom: "inception_3b/3x3"
  top: "inception_3b/3x3"
}
layer {
  name: "inception_3b/5x5_reduce"
  type: "Convolution"
  bottom: "inception_3a/output"
  top: "inception_3b/5x5_reduce"
  param {
    lr_mult: 1
    decay_mult: 1
  }
  param {
    lr_mult: 2
    decay_mult: 0
  }
  convolution_param {
    num_output: 32
    kernel_size: 1
    weight_filler {
      type: "xavier"
      std: 0.2
    }
    bias_filler {
      type: "constant"
      value: 0.2
    }
  }
}
layer {
  name: "inception_3b/relu_5x5_reduce"
  type: "ReLU"
  bottom: "inception_3b/5x5_reduce"
  top: "inception_3b/5x5_reduce"
}
layer {
  name: "inception_3b/5x5"
  type: "Convolution"
  bottom: "inception_3b/5x5_reduce"
  top: "inception_3b/5x5"
  param {
    lr_mult: 1
    decay_mult: 1
  }
  param {
    lr_mult: 2
    decay_mult: 0
  }
  convolution_param {
    num_output: 96
    pad: 2
    kernel_size: 5
    weight_filler {
      type: "xavier"
      std: 0.03
    }
    bias_filler {
      type: "constant"
      value: 0.2
    }
  }
}
layer {
  name: "inception_3b/relu_5x5"
  type: "ReLU"
  bottom: "inception_3b/5x5"
  top: "inception_3b/5x5"
}
layer {
  name: "inception_3b/pool"
  type: "Pooling"
  bottom: "inception_3a/output"
  top: "inception_3b/pool"
  pooling_param {
    pool: MAX
    kernel_size: 3
    stride: 1
    pad: 1
  }
}
layer {
  name: "inception_3b/pool_proj"
  type: "Convolution"
  bottom: "inception_3b/pool"
  top: "inception_3b/pool_proj"
  param {
    lr_mult: 1
    decay_mult: 1
  }
  param {
    lr_mult: 2
    decay_mult: 0
  }
  convolution_param {
    num_output: 64
    kernel_size: 1
    weight_filler {
      type: "xavier"
      std: 0.1
    }
    bias_filler {
      type: "constant"
      value: 0.2
    }
  }
}
layer {
  name: "inception_3b/relu_pool_proj"
  type: "ReLU"
  bottom: "inception_3b/pool_proj"
  top: "inception_3b/pool_proj"
}
layer {
  name: "inception_3b/output"
  type: "Concat"
  bottom: "inception_3b/1x1"
  bottom: "inception_3b/3x3"
  bottom: "inception_3b/5x5"
  bottom: "inception_3b/pool_proj"
  top: "inception_3b/output"
}
layer {
  name: "pool3/3x3_s2"
  type: "Pooling"
  bottom: "inception_3b/output"
  top: "pool3/3x3_s2"
  pooling_param {
    pool: MAX
    kernel_size: 3
    stride: 2
  }
}
layer {
  name: "inception_4a/1x1"
  type: "Convolution"
  bottom: "pool3/3x3_s2"
  top: "inception_4a/1x1"
  param {
    lr_mult: 1
    decay_mult: 1
  }
  param {
    lr_mult: 2
    decay_mult: 0
  }
  convolution_param {
    num_output: 192
    kernel_size: 1
    weight_filler {
      type: "xavier"
      std: 0.03
    }
    bias_filler {
      type: "constant"
      value: 0.2
    }
  }
}
layer {
  name: "inception_4a/relu_1x1"
  type: "ReLU"
  bottom: "inception_4a/1x1"
  top: "inception_4a/1x1"
}
layer {
  name: "inception_4a/3x3_reduce"
  type: "Convolution"
  bottom: "pool3/3x3_s2"
  top: "inception_4a/3x3_reduce"
  param {
    lr_mult: 1
    decay_mult: 1
  }
  param {
    lr_mult: 2
    decay_mult: 0
  }
  convolution_param {
    num_output: 96
    kernel_size: 1
    weight_filler {
      type: "xavier"
      std: 0.09
    }
    bias_filler {
      type: "constant"
      value: 0.2
    }
  }
}
layer {
  name: "inception_4a/relu_3x3_reduce"
  type: "ReLU"
  bottom: "inception_4a/3x3_reduce"
  top: "inception_4a/3x3_reduce"
}
layer {
  name: "inception_4a/3x3"
  type: "Convolution"
  bottom: "inception_4a/3x3_reduce"
  top: "inception_4a/3x3"
  param {
    lr_mult: 1
    decay_mult: 1
  }
  param {
    lr_mult: 2
    decay_mult: 0
  }
  convolution_param {
    num_output: 208
    pad: 1
    kernel_size: 3
    weight_filler {
      type: "xavier"
      std: 0.03
    }
    bias_filler {
      type: "constant"
      value: 0.2
    }
  }
}
layer {
  name: "inception_4a/relu_3x3"
  type: "ReLU"
  bottom: "inception_4a/3x3"
  top: "inception_4a/3x3"
}
layer {
  name: "inception_4a/5x5_reduce"
  type: "Convolution"
  bottom: "pool3/3x3_s2"
  top: "inception_4a/5x5_reduce"
  param {
    lr_mult: 1
    decay_mult: 1
  }
  param {
    lr_mult: 2
    decay_mult: 0
  }
  convolution_param {
    num_output: 16
    kernel_size: 1
    weight_filler {
      type: "xavier"
      std: 0.2
    }
    bias_filler {
      type: "constant"
      value: 0.2
    }
  }
}
layer {
  name: "inception_4a/relu_5x5_reduce"
  type: "ReLU"
  bottom: "inception_4a/5x5_reduce"
  top: "inception_4a/5x5_reduce"
}
layer {
  name: "inception_4a/5x5"
  type: "Convolution"
  bottom: "inception_4a/5x5_reduce"
  top: "inception_4a/5x5"
  param {
    lr_mult: 1
    decay_mult: 1
  }
  param {
    lr_mult: 2
    decay_mult: 0
  }
  convolution_param {
    num_output: 48
    pad: 2
    kernel_size: 5
    weight_filler {
      type: "xavier"
      std: 0.03
    }
    bias_filler {
      type: "constant"
      value: 0.2
    }
  }
}
layer {
  name: "inception_4a/relu_5x5"
  type: "ReLU"
  bottom: "inception_4a/5x5"
  top: "inception_4a/5x5"
}
layer {
  name: "inception_4a/pool"
  type: "Pooling"
  bottom: "pool3/3x3_s2"
  top: "inception_4a/pool"
  pooling_param {
    pool: MAX
    kernel_size: 3
    stride: 1
    pad: 1
  }
}
layer {
  name: "inception_4a/pool_proj"
  type: "Convolution"
  bottom: "inception_4a/pool"
  top: "inception_4a/pool_proj"
  param {
    lr_mult: 1
    decay_mult: 1
  }
  param {
    lr_mult: 2
    decay_mult: 0
  }
  convolution_param {
    num_output: 64
    kernel_size: 1
    weight_filler {
      type: "xavier"
      std: 0.1
    }
    bias_filler {
      type: "constant"
      value: 0.2
    }
  }
}
layer {
  name: "inception_4a/relu_pool_proj"
  type: "ReLU"
  bottom: "inception_4a/pool_proj"
  top: "inception_4a/pool_proj"
}
layer {
  name: "inception_4a/output"
  type: "Concat"
  bottom: "inception_4a/1x1"
  bottom: "inception_4a/3x3"
  bottom: "inception_4a/5x5"
  bottom: "inception_4a/pool_proj"
  top: "inception_4a/output"
}
layer {
  name: "inception_4b/1x1"
  type: "Convolution"
  bottom: "inception_4a/output"
  top: "inception_4b/1x1"
  param {
    lr_mult: 1
    decay_mult: 1
  }
  param {
    lr_mult: 2
    decay_mult: 0
  }
  convolution_param {
    num_output: 160
    kernel_size: 1
    weight_filler {
      type: "xavier"
      std: 0.03
    }
    bias_filler {
      type: "constant"
      value: 0.2
    }
  }
}
layer {
  name: "inception_4b/relu_1x1"
  type: "ReLU"
  bottom: "inception_4b/1x1"
  top: "inception_4b/1x1"
}
layer {
  name: "inception_4b/3x3_reduce"
  type: "Convolution"
  bottom: "inception_4a/output"
  top: "inception_4b/3x3_reduce"
  param {
    lr_mult: 1
    decay_mult: 1
  }
  param {
    lr_mult: 2
    decay_mult: 0
  }
  convolution_param {
    num_output: 112
    kernel_size: 1
    weight_filler {
      type: "xavier"
      std: 0.09
    }
    bias_filler {
      type: "constant"
      value: 0.2
    }
  }
}
layer {
  name: "inception_4b/relu_3x3_reduce"
  type: "ReLU"
  bottom: "inception_4b/3x3_reduce"
  top: "inception_4b/3x3_reduce"
}
layer {
  name: "inception_4b/3x3"
  type: "Convolution"
  bottom: "inception_4b/3x3_reduce"
  top: "inception_4b/3x3"
  param {
    lr_mult: 1
    decay_mult: 1
  }
  param {
    lr_mult: 2
    decay_mult: 0
  }
  convolution_param {
    num_output: 224
    pad: 1
    kernel_size: 3
    weight_filler {
      type: "xavier"
      std: 0.03
    }
    bias_filler {
      type: "constant"
      value: 0.2
    }
  }
}
layer {
  name: "inception_4b/relu_3x3"
  type: "ReLU"
  bottom: "inception_4b/3x3"
  top: "inception_4b/3x3"
}
layer {
  name: "inception_4b/5x5_reduce"
  type: "Convolution"
  bottom: "inception_4a/output"
  top: "inception_4b/5x5_reduce"
  param {
    lr_mult: 1
    decay_mult: 1
  }
  param {
    lr_mult: 2
    decay_mult: 0
  }
  convolution_param {
    num_output: 24
    kernel_size: 1
    weight_filler {
      type: "xavier"
      std: 0.2
    }
    bias_filler {
      type: "constant"
      value: 0.2
    }
  }
}
layer {
  name: "inception_4b/relu_5x5_reduce"
  type: "ReLU"
  bottom: "inception_4b/5x5_reduce"
  top: "inception_4b/5x5_reduce"
}
layer {
  name: "inception_4b/5x5"
  type: "Convolution"
  bottom: "inception_4b/5x5_reduce"
  top: "inception_4b/5x5"
  param {
    lr_mult: 1
    decay_mult: 1
  }
  param {
    lr_mult: 2
    decay_mult: 0
  }
  convolution_param {
    num_output: 64
    pad: 2
    kernel_size: 5
    weight_filler {
      type: "xavier"
      std: 0.03
    }
    bias_filler {
      type: "constant"
      value: 0.2
    }
  }
}
layer {
  name: "inception_4b/relu_5x5"
  type: "ReLU"
  bottom: "inception_4b/5x5"
  top: "inception_4b/5x5"
}
layer {
  name: "inception_4b/pool"
  type: "Pooling"
  bottom: "inception_4a/output"
  top: "inception_4b/pool"
  pooling_param {
    pool: MAX
    kernel_size: 3
    stride: 1
    pad: 1
  }
}
layer {
  name: "inception_4b/pool_proj"
  type: "Convolution"
  bottom: "inception_4b/pool"
  top: "inception_4b/pool_proj"
  param {
    lr_mult: 1
    decay_mult: 1
  }
  param {
    lr_mult: 2
    decay_mult: 0
  }
  convolution_param {
    num_output: 64
    kernel_size: 1
    weight_filler {
      type: "xavier"
      std: 0.1
    }
    bias_filler {
      type: "constant"
      value: 0.2
    }
  }
}
layer {
  name: "inception_4b/relu_pool_proj"
  type: "ReLU"
  bottom: "inception_4b/pool_proj"
  top: "inception_4b/pool_proj"
}
layer {
  name: "inception_4b/output"
  type: "Concat"
  bottom: "inception_4b/1x1"
  bottom: "inception_4b/3x3"
  bottom: "inception_4b/5x5"
  bottom: "inception_4b/pool_proj"
  top: "inception_4b/output"
}
layer {
  name: "inception_4c/1x1"
  type: "Convolution"
  bottom: "inception_4b/output"
  top: "inception_4c/1x1"
  param {
    lr_mult: 1
    decay_mult: 1
  }
  param {
    lr_mult: 2
    decay_mult: 0
  }
  convolution_param {
    num_output: 128
    kernel_size: 1
    weight_filler {
      type: "xavier"
      std: 0.03
    }
    bias_filler {
      type: "constant"
      value: 0.2
    }
  }
}
layer {
  name: "inception_4c/relu_1x1"
  type: "ReLU"
  bottom: "inception_4c/1x1"
  top: "inception_4c/1x1"
}
layer {
  name: "inception_4c/3x3_reduce"
  type: "Convolution"
  bottom: "inception_4b/output"
  top: "inception_4c/3x3_reduce"
  param {
    lr_mult: 1
    decay_mult: 1
  }
  param {
    lr_mult: 2
    decay_mult: 0
  }
  convolution_param {
    num_output: 128
    kernel_size: 1
    weight_filler {
      type: "xavier"
      std: 0.09
    }
    bias_filler {
      type: "constant"
      value: 0.2
    }
  }
}
layer {
  name: "inception_4c/relu_3x3_reduce"
  type: "ReLU"
  bottom: "inception_4c/3x3_reduce"
  top: "inception_4c/3x3_reduce"
}
layer {
  name: "inception_4c/3x3"
  type: "Convolution"
  bottom: "inception_4c/3x3_reduce"
  top: "inception_4c/3x3"
  param {
    lr_mult: 1
    decay_mult: 1
  }
  param {
    lr_mult: 2
    decay_mult: 0
  }
  convolution_param {
    num_output: 256
    pad: 1
    kernel_size: 3
    weight_filler {
      type: "xavier"
      std: 0.03
    }
    bias_filler {
      type: "constant"
      value: 0.2
    }
  }
}
layer {
  name: "inception_4c/relu_3x3"
  type: "ReLU"
  bottom: "inception_4c/3x3"
  top: "inception_4c/3x3"
}
layer {
  name: "inception_4c/5x5_reduce"
  type: "Convolution"
  bottom: "inception_4b/output"
  top: "inception_4c/5x5_reduce"
  param {
    lr_mult: 1
    decay_mult: 1
  }
  param {
    lr_mult: 2
    decay_mult: 0
  }
  convolution_param {
    num_output: 24
    kernel_size: 1
    weight_filler {
      type: "xavier"
      std: 0.2
    }
    bias_filler {
      type: "constant"
      value: 0.2
    }
  }
}
layer {
  name: "inception_4c/relu_5x5_reduce"
  type: "ReLU"
  bottom: "inception_4c/5x5_reduce"
  top: "inception_4c/5x5_reduce"
}
layer {
  name: "inception_4c/5x5"
  type: "Convolution"
  bottom: "inception_4c/5x5_reduce"
  top: "inception_4c/5x5"
  param {
    lr_mult: 1
    decay_mult: 1
  }
  param {
    lr_mult: 2
    decay_mult: 0
  }
  convolution_param {
    num_output: 64
    pad: 2
    kernel_size: 5
    weight_filler {
      type: "xavier"
      std: 0.03
    }
    bias_filler {
      type: "constant"
      value: 0.2
    }
  }
}
layer {
  name: "inception_4c/relu_5x5"
  type: "ReLU"
  bottom: "inception_4c/5x5"
  top: "inception_4c/5x5"
}
layer {
  name: "inception_4c/pool"
  type: "Pooling"
  bottom: "inception_4b/output"
  top: "inception_4c/pool"
  pooling_param {
    pool: MAX
    kernel_size: 3
    stride: 1
    pad: 1
  }
}
layer {
  name: "inception_4c/pool_proj"
  type: "Convolution"
  bottom: "inception_4c/pool"
  top: "inception_4c/pool_proj"
  param {
    lr_mult: 1
    decay_mult: 1
  }
  param {
    lr_mult: 2
    decay_mult: 0
  }
  convolution_param {
    num_output: 64
    kernel_size: 1
    weight_filler {
      type: "xavier"
      std: 0.1
    }
    bias_filler {
      type: "constant"
      value: 0.2
    }
  }
}
layer {
  name: "inception_4c/relu_pool_proj"
  type: "ReLU"
  bottom: "inception_4c/pool_proj"
  top: "inception_4c/pool_proj"
}
layer {
  name: "inception_4c/output"
  type: "Concat"
  bottom: "inception_4c/1x1"
  bottom: "inception_4c/3x3"
  bottom: "inception_4c/5x5"
  bottom: "inception_4c/pool_proj"
  top: "inception_4c/output"
}
layer {
  name: "inception_4d/1x1"
  type: "Convolution"
  bottom: "inception_4c/output"
  top: "inception_4d/1x1"
  param {
    lr_mult: 1
    decay_mult: 1
  }
  param {
    lr_mult: 2
    decay_mult: 0
  }
  convolution_param {
    num_output: 112
    kernel_size: 1
    weight_filler {
      type: "xavier"
      std: 0.03
    }
    bias_filler {
      type: "constant"
      value: 0.2
    }
  }
}
layer {
  name: "inception_4d/relu_1x1"
  type: "ReLU"
  bottom: "inception_4d/1x1"
  top: "inception_4d/1x1"
}
layer {
  name: "inception_4d/3x3_reduce"
  type: "Convolution"
  bottom: "inception_4c/output"
  top: "inception_4d/3x3_reduce"
  param {
    lr_mult: 1
    decay_mult: 1
  }
  param {
    lr_mult: 2
    decay_mult: 0
  }
  convolution_param {
    num_output: 144
    kernel_size: 1
    weight_filler {
      type: "xavier"
      std: 0.09
    }
    bias_filler {
      type: "constant"
      value: 0.2
    }
  }
}
layer {
  name: "inception_4d/relu_3x3_reduce"
  type: "ReLU"
  bottom: "inception_4d/3x3_reduce"
  top: "inception_4d/3x3_reduce"
}
layer {
  name: "inception_4d/3x3"
  type: "Convolution"
  bottom: "inception_4d/3x3_reduce"
  top: "inception_4d/3x3"
  param {
    lr_mult: 1
    decay_mult: 1
  }
  param {
    lr_mult: 2
    decay_mult: 0
  }
  convolution_param {
    num_output: 288
    pad: 1
    kernel_size: 3
    weight_filler {
      type: "xavier"
      std: 0.03
    }
    bias_filler {
      type: "constant"
      value: 0.2
    }
  }
}
layer {
  name: "inception_4d/relu_3x3"
  type: "ReLU"
  bottom: "inception_4d/3x3"
  top: "inception_4d/3x3"
}
layer {
  name: "inception_4d/5x5_reduce"
  type: "Convolution"
  bottom: "inception_4c/output"
  top: "inception_4d/5x5_reduce"
  param {
    lr_mult: 1
    decay_mult: 1
  }
  param {
    lr_mult: 2
    decay_mult: 0
  }
  convolution_param {
    num_output: 32
    kernel_size: 1
    weight_filler {
      type: "xavier"
      std: 0.2
    }
    bias_filler {
      type: "constant"
      value: 0.2
    }
  }
}
layer {
  name: "inception_4d/relu_5x5_reduce"
  type: "ReLU"
  bottom: "inception_4d/5x5_reduce"
  top: "inception_4d/5x5_reduce"
}
layer {
  name: "inception_4d/5x5"
  type: "Convolution"
  bottom: "inception_4d/5x5_reduce"
  top: "inception_4d/5x5"
  param {
    lr_mult: 1
    decay_mult: 1
  }
  param {
    lr_mult: 2
    decay_mult: 0
  }
  convolution_param {
    num_output: 64
    pad: 2
    kernel_size: 5
    weight_filler {
      type: "xavier"
      std: 0.03
    }
    bias_filler {
      type: "constant"
      value: 0.2
    }
  }
}
layer {
  name: "inception_4d/relu_5x5"
  type: "ReLU"
  bottom: "inception_4d/5x5"
  top: "inception_4d/5x5"
}
layer {
  name: "inception_4d/pool"
  type: "Pooling"
  bottom: "inception_4c/output"
  top: "inception_4d/pool"
  pooling_param {
    pool: MAX
    kernel_size: 3
    stride: 1
    pad: 1
  }
}
layer {
  name: "inception_4d/pool_proj"
  type: "Convolution"
  bottom: "inception_4d/pool"
  top: "inception_4d/pool_proj"
  param {
    lr_mult: 1
    decay_mult: 1
  }
  param {
    lr_mult: 2
    decay_mult: 0
  }
  convolution_param {
    num_output: 64
    kernel_size: 1
    weight_filler {
      type: "xavier"
      std: 0.1
    }
    bias_filler {
      type: "constant"
      value: 0.2
    }
  }
}
layer {
  name: "inception_4d/relu_pool_proj"
  type: "ReLU"
  bottom: "inception_4d/pool_proj"
  top: "inception_4d/pool_proj"
}
layer {
  name: "inception_4d/output"
  type: "Concat"
  bottom: "inception_4d/1x1"
  bottom: "inception_4d/3x3"
  bottom: "inception_4d/5x5"
  bottom: "inception_4d/pool_proj"
  top: "inception_4d/output"
}
layer {
  name: "inception_4e/1x1"
  type: "Convolution"
  bottom: "inception_4d/output"
  top: "inception_4e/1x1"
  param {
    lr_mult: 1
    decay_mult: 1
  }
  param {
    lr_mult: 2
    decay_mult: 0
  }
  convolution_param {
    num_output: 256
    kernel_size: 1
    weight_filler {
      type: "xavier"
      std: 0.03
    }
    bias_filler {
      type: "constant"
      value: 0.2
    }
  }
}
layer {
  name: "inception_4e/relu_1x1"
  type: "ReLU"
  bottom: "inception_4e/1x1"
  top: "inception_4e/1x1"
}
layer {
  name: "inception_4e/3x3_reduce"
  type: "Convolution"
  bottom: "inception_4d/output"
  top: "inception_4e/3x3_reduce"
  param {
    lr_mult: 1
    decay_mult: 1
  }
  param {
    lr_mult: 2
    decay_mult: 0
  }
  convolution_param {
    num_output: 160
    kernel_size: 1
    weight_filler {
      type: "xavier"
      std: 0.09
    }
    bias_filler {
      type: "constant"
      value: 0.2
    }
  }
}
layer {
  name: "inception_4e/relu_3x3_reduce"
  type: "ReLU"
  bottom: "inception_4e/3x3_reduce"
  top: "inception_4e/3x3_reduce"
}
layer {
  name: "inception_4e/3x3"
  type: "Convolution"
  bottom: "inception_4e/3x3_reduce"
  top: "inception_4e/3x3"
  param {
    lr_mult: 1
    decay_mult: 1
  }
  param {
    lr_mult: 2
    decay_mult: 0
  }
  convolution_param {
    num_output: 320
    pad: 1
    kernel_size: 3
    weight_filler {
      type: "xavier"
      std: 0.03
    }
    bias_filler {
      type: "constant"
      value: 0.2
    }
  }
}
layer {
  name: "inception_4e/relu_3x3"
  type: "ReLU"
  bottom: "inception_4e/3x3"
  top: "inception_4e/3x3"
}
layer {
  name: "inception_4e/5x5_reduce"
  type: "Convolution"
  bottom: "inception_4d/output"
  top: "inception_4e/5x5_reduce"
  param {
    lr_mult: 1
    decay_mult: 1
  }
  param {
    lr_mult: 2
    decay_mult: 0
  }
  convolution_param {
    num_output: 32
    kernel_size: 1
    weight_filler {
      type: "xavier"
      std: 0.2
    }
    bias_filler {
      type: "constant"
      value: 0.2
    }
  }
}
layer {
  name: "inception_4e/relu_5x5_reduce"
  type: "ReLU"
  bottom: "inception_4e/5x5_reduce"
  top: "inception_4e/5x5_reduce"
}
layer {
  name: "inception_4e/5x5"
  type: "Convolution"
  bottom: "inception_4e/5x5_reduce"
  top: "inception_4e/5x5"
  param {
    lr_mult: 1
    decay_mult: 1
  }
  param {
    lr_mult: 2
    decay_mult: 0
  }
  convolution_param {
    num_output: 128
    pad: 2
    kernel_size: 5
    weight_filler {
      type: "xavier"
      std: 0.03
    }
    bias_filler {
      type: "constant"
      value: 0.2
    }
  }
}
layer {
  name: "inception_4e/relu_5x5"
  type: "ReLU"
  bottom: "inception_4e/5x5"
  top: "inception_4e/5x5"
}
layer {
  name: "inception_4e/pool"
  type: "Pooling"
  bottom: "inception_4d/output"
  top: "inception_4e/pool"
  pooling_param {
    pool: MAX
    kernel_size: 3
    stride: 1
    pad: 1
  }
}
layer {
  name: "inception_4e/pool_proj"
  type: "Convolution"
  bottom: "inception_4e/pool"
  top: "inception_4e/pool_proj"
  param {
    lr_mult: 1
    decay_mult: 1
  }
  param {
    lr_mult: 2
    decay_mult: 0
  }
  convolution_param {
    num_output: 128
    kernel_size: 1
    weight_filler {
      type: "xavier"
      std: 0.1
    }
    bias_filler {
      type: "constant"
      value: 0.2
    }
  }
}
layer {
  name: "inception_4e/relu_pool_proj"
  type: "ReLU"
  bottom: "inception_4e/pool_proj"
  top: "inception_4e/pool_proj"
}
layer {
  name: "inception_4e/output"
  type: "Concat"
  bottom: "inception_4e/1x1"
  bottom: "inception_4e/3x3"
  bottom: "inception_4e/5x5"
  bottom: "inception_4e/pool_proj"
  top: "inception_4e/output"
}
layer {
  name: "pool4/3x3_s2"
  type: "Pooling"
  bottom: "inception_4e/output"
  top: "pool4/3x3_s2"
  pooling_param {
    pool: MAX
    kernel_size: 3
    stride: 2
  }
}
layer {
  name: "inception_5a/1x1"
  type: "Convolution"
  bottom: "pool4/3x3_s2"
  top: "inception_5a/1x1"
  param {
    lr_mult: 1
    decay_mult: 1
  }
  param {
    lr_mult: 2
    decay_mult: 0
  }
  convolution_param {
    num_output: 256
    kernel_size: 1
    weight_filler {
      type: "xavier"
      std: 0.03
    }
    bias_filler {
      type: "constant"
      value: 0.2
    }
  }
}
layer {
  name: "inception_5a/relu_1x1"
  type: "ReLU"
  bottom: "inception_5a/1x1"
  top: "inception_5a/1x1"
}
layer {
  name: "inception_5a/3x3_reduce"
  type: "Convolution"
  bottom: "pool4/3x3_s2"
  top: "inception_5a/3x3_reduce"
  param {
    lr_mult: 1
    decay_mult: 1
  }
  param {
    lr_mult: 2
    decay_mult: 0
  }
  convolution_param {
    num_output: 160
    kernel_size: 1
    weight_filler {
      type: "xavier"
      std: 0.09
    }
    bias_filler {
      type: "constant"
      value: 0.2
    }
  }
}
layer {
  name: "inception_5a/relu_3x3_reduce"
  type: "ReLU"
  bottom: "inception_5a/3x3_reduce"
  top: "inception_5a/3x3_reduce"
}
layer {
  name: "inception_5a/3x3"
  type: "Convolution"
  bottom: "inception_5a/3x3_reduce"
  top: "inception_5a/3x3"
  param {
    lr_mult: 1
    decay_mult: 1
  }
  param {
    lr_mult: 2
    decay_mult: 0
  }
  convolution_param {
    num_output: 320
    pad: 1
    kernel_size: 3
    weight_filler {
      type: "xavier"
      std: 0.03
    }
    bias_filler {
      type: "constant"
      value: 0.2
    }
  }
}
layer {
  name: "inception_5a/relu_3x3"
  type: "ReLU"
  bottom: "inception_5a/3x3"
  top: "inception_5a/3x3"
}
layer {
  name: "inception_5a/5x5_reduce"
  type: "Convolution"
  bottom: "pool4/3x3_s2"
  top: "inception_5a/5x5_reduce"
  param {
    lr_mult: 1
    decay_mult: 1
  }
  param {
    lr_mult: 2
    decay_mult: 0
  }
  convolution_param {
    num_output: 32
    kernel_size: 1
    weight_filler {
      type: "xavier"
      std: 0.2
    }
    bias_filler {
      type: "constant"
      value: 0.2
    }
I0714 22:09:50.845782 24103 layer_factory.hpp:77] Creating layer data
I0714 22:09:50.845804 24103 net.cpp:91] Creating Layer data
I0714 22:09:50.845813 24103 net.cpp:399] data -> data
I0714 22:09:51.932472 24107 net.cpp:141] Setting up data
I0714 22:09:51.932600 24107 net.cpp:148] Top shape: 10 3 224 224 (1505280)
I0714 22:09:51.932610 24107 net.cpp:156] Memory required for data: 6021120
I0714 22:09:51.932643 24107 layer_factory.hpp:77] Creating layer conv1/7x7_s2
I0714 22:09:51.932698 24107 net.cpp:91] Creating Layer conv1/7x7_s2
I0714 22:09:51.932709 24107 net.cpp:425] conv1/7x7_s2 <- data
I0714 22:09:51.932729 24107 net.cpp:399] conv1/7x7_s2 -> conv1/7x7_s2
I0714 22:09:51.946672 24103 net.cpp:141] Setting up data
I0714 22:09:51.946727 24103 net.cpp:148] Top shape: 10 3 224 224 (1505280)
I0714 22:09:51.946748 24103 net.cpp:156] Memory required for data: 6021120
I0714 22:09:51.946761 24103 layer_factory.hpp:77] Creating layer conv1/7x7_s2
I0714 22:09:51.946799 24103 net.cpp:91] Creating Layer conv1/7x7_s2
I0714 22:09:51.946806 24103 net.cpp:425] conv1/7x7_s2 <- data
I0714 22:09:51.946820 24103 net.cpp:399] conv1/7x7_s2 -> conv1/7x7_s2
I0714 22:09:52.389901 24107 net.cpp:141] Setting up conv1/7x7_s2
I0714 22:09:52.389979 24107 net.cpp:148] Top shape: 10 64 112 112 (8028160)
I0714 22:09:52.389987 24107 net.cpp:156] Memory required for data: 38133760
I0714 22:09:52.390027 24107 layer_factory.hpp:77] Creating layer conv1/relu_7x7
I0714 22:09:52.390051 24107 net.cpp:91] Creating Layer conv1/relu_7x7
I0714 22:09:52.390059 24107 net.cpp:425] conv1/relu_7x7 <- conv1/7x7_s2
I0714 22:09:52.390070 24107 net.cpp:386] conv1/relu_7x7 -> conv1/7x7_s2 (in-place)
I0714 22:09:52.391417 24107 net.cpp:141] Setting up conv1/relu_7x7
I0714 22:09:52.391438 24107 net.cpp:148] Top shape: 10 64 112 112 (8028160)
I0714 22:09:52.391443 24107 net.cpp:156] Memory required for data: 70246400
I0714 22:09:52.391453 24107 layer_factory.hpp:77] Creating layer pool1/3x3_s2
I0714 22:09:52.391470 24107 net.cpp:91] Creating Layer pool1/3x3_s2
I0714 22:09:52.391476 24107 net.cpp:425] pool1/3x3_s2 <- conv1/7x7_s2
I0714 22:09:52.391476 24103 net.cpp:141] Setting up conv1/7x7_s2
I0714 22:09:52.391485 24107 net.cpp:399] pool1/3x3_s2 -> pool1/3x3_s2
I0714 22:09:52.391502 24103 net.cpp:148] Top shape: 10 64 112 112 (8028160)
I0714 22:09:52.391510 24103 net.cpp:156] Memory required for data: 38133760
I0714 22:09:52.391530 24103 layer_factory.hpp:77] Creating layer conv1/relu_7x7
I0714 22:09:52.391542 24103 net.cpp:91] Creating Layer conv1/relu_7x7
I0714 22:09:52.391549 24103 net.cpp:425] conv1/relu_7x7 <- conv1/7x7_s2
I0714 22:09:52.391558 24103 net.cpp:386] conv1/relu_7x7 -> conv1/7x7_s2 (in-place)
I0714 22:09:52.392315 24107 net.cpp:141] Setting up pool1/3x3_s2
I0714 22:09:52.392331 24107 net.cpp:148] Top shape: 10 64 56 56 (2007040)
I0714 22:09:52.392338 24107 net.cpp:156] Memory required for data: 78274560
I0714 22:09:52.392345 24107 layer_factory.hpp:77] Creating layer pool1/norm1
I0714 22:09:52.392366 24107 net.cpp:91] Creating Layer pool1/norm1
I0714 22:09:52.392372 24107 net.cpp:425] pool1/norm1 <- pool1/3x3_s2
I0714 22:09:52.392380 24107 net.cpp:399] pool1/norm1 -> pool1/norm1
I0714 22:09:52.392403 24103 net.cpp:141] Setting up conv1/relu_7x7
I0714 22:09:52.392421 24103 net.cpp:148] Top shape: 10 64 112 112 (8028160)
I0714 22:09:52.392426 24103 net.cpp:156] Memory required for data: 70246400
I0714 22:09:52.392432 24103 layer_factory.hpp:77] Creating layer pool1/3x3_s2
I0714 22:09:52.392458 24103 net.cpp:91] Creating Layer pool1/3x3_s2
I0714 22:09:52.392465 24103 net.cpp:425] pool1/3x3_s2 <- conv1/7x7_s2
I0714 22:09:52.392474 24103 net.cpp:399] pool1/3x3_s2 -> pool1/3x3_s2
I0714 22:09:52.393180 24103 net.cpp:141] Setting up pool1/3x3_s2
I0714 22:09:52.393196 24103 net.cpp:148] Top shape: 10 64 56 56 (2007040)
I0714 22:09:52.393203 24103 net.cpp:156] Memory required for data: 78274560
I0714 22:09:52.393208 24103 layer_factory.hpp:77] Creating layer pool1/norm1
I0714 22:09:52.393218 24103 net.cpp:91] Creating Layer pool1/norm1
I0714 22:09:52.393224 24103 net.cpp:425] pool1/norm1 <- pool1/3x3_s2
I0714 22:09:52.393235 24103 net.cpp:399] pool1/norm1 -> pool1/norm1
I0714 22:09:52.394057 24107 net.cpp:141] Setting up pool1/norm1
I0714 22:09:52.394074 24107 net.cpp:148] Top shape: 10 64 56 56 (2007040)
I0714 22:09:52.394080 24107 net.cpp:156] Memory required for data: 86302720
I0714 22:09:52.394086 24107 layer_factory.hpp:77] Creating layer conv2/3x3_reduce
I0714 22:09:52.394111 24107 net.cpp:91] Creating Layer conv2/3x3_reduce
I0714 22:09:52.394119 24107 net.cpp:425] conv2/3x3_reduce <- pool1/norm1
I0714 22:09:52.394127 24107 net.cpp:399] conv2/3x3_reduce -> conv2/3x3_reduce
I0714 22:09:52.394203 24103 net.cpp:141] Setting up pool1/norm1
I0714 22:09:52.394219 24103 net.cpp:148] Top shape: 10 64 56 56 (2007040)
I0714 22:09:52.394225 24103 net.cpp:156] Memory required for data: 86302720
I0714 22:09:52.394233 24103 layer_factory.hpp:77] Creating layer conv2/3x3_reduce
I0714 22:09:52.394249 24103 net.cpp:91] Creating Layer conv2/3x3_reduce
I0714 22:09:52.394255 24103 net.cpp:425] conv2/3x3_reduce <- pool1/norm1
I0714 22:09:52.394265 24103 net.cpp:399] conv2/3x3_reduce -> conv2/3x3_reduce
I0714 22:09:52.400671 24107 net.cpp:141] Setting up conv2/3x3_reduce
I0714 22:09:52.400696 24107 net.cpp:148] Top shape: 10 64 56 56 (2007040)
I0714 22:09:52.400703 24107 net.cpp:156] Memory required for data: 94330880
I0714 22:09:52.400738 24107 layer_factory.hpp:77] Creating layer conv2/relu_3x3_reduce
I0714 22:09:52.400753 24107 net.cpp:91] Creating Layer conv2/relu_3x3_reduce
I0714 22:09:52.400761 24107 net.cpp:425] conv2/relu_3x3_reduce <- conv2/3x3_reduce
I0714 22:09:52.400775 24107 net.cpp:386] conv2/relu_3x3_reduce -> conv2/3x3_reduce (in-place)
I0714 22:09:52.401901 24103 net.cpp:141] Setting up conv2/3x3_reduce
I0714 22:09:52.401923 24103 net.cpp:148] Top shape: 10 64 56 56 (2007040)
I0714 22:09:52.401926 24107 net.cpp:141] Setting up conv2/relu_3x3_reduce
I0714 22:09:52.401932 24103 net.cpp:156] Memory required for data: 94330880
I0714 22:09:52.401945 24107 net.cpp:148] Top shape: 10 64 56 56 (2007040)
I0714 22:09:52.401950 24107 net.cpp:156] Memory required for data: 102359040
I0714 22:09:52.401953 24103 layer_factory.hpp:77] Creating layer conv2/relu_3x3_reduce
I0714 22:09:52.401958 24107 layer_factory.hpp:77] Creating layer conv2/3x3
I0714 22:09:52.401973 24103 net.cpp:91] Creating Layer conv2/relu_3x3_reduce
I0714 22:09:52.401980 24103 net.cpp:425] conv2/relu_3x3_reduce <- conv2/3x3_reduce
I0714 22:09:52.401980 24107 net.cpp:91] Creating Layer conv2/3x3
I0714 22:09:52.401989 24107 net.cpp:425] conv2/3x3 <- conv2/3x3_reduce
I0714 22:09:52.401989 24103 net.cpp:386] conv2/relu_3x3_reduce -> conv2/3x3_reduce (in-place)
I0714 22:09:52.402017 24107 net.cpp:399] conv2/3x3 -> conv2/3x3
I0714 22:09:52.403035 24103 net.cpp:141] Setting up conv2/relu_3x3_reduce
I0714 22:09:52.403053 24103 net.cpp:148] Top shape: 10 64 56 56 (2007040)
I0714 22:09:52.403059 24103 net.cpp:156] Memory required for data: 102359040
I0714 22:09:52.403065 24103 layer_factory.hpp:77] Creating layer conv2/3x3
I0714 22:09:52.403082 24103 net.cpp:91] Creating Layer conv2/3x3
I0714 22:09:52.403089 24103 net.cpp:425] conv2/3x3 <- conv2/3x3_reduce
I0714 22:09:52.403101 24103 net.cpp:399] conv2/3x3 -> conv2/3x3
I0714 22:09:52.411125 24107 net.cpp:141] Setting up conv2/3x3
I0714 22:09:52.411151 24107 net.cpp:148] Top shape: 10 192 56 56 (6021120)
I0714 22:09:52.411157 24107 net.cpp:156] Memory required for data: 126443520
I0714 22:09:52.411178 24107 layer_factory.hpp:77] Creating layer conv2/relu_3x3
I0714 22:09:52.411193 24107 net.cpp:91] Creating Layer conv2/relu_3x3
I0714 22:09:52.411201 24107 net.cpp:425] conv2/relu_3x3 <- conv2/3x3
I0714 22:09:52.411213 24107 net.cpp:386] conv2/relu_3x3 -> conv2/3x3 (in-place)
I0714 22:09:52.411543 24107 net.cpp:141] Setting up conv2/relu_3x3
I0714 22:09:52.411559 24107 net.cpp:148] Top shape: 10 192 56 56 (6021120)
I0714 22:09:52.411566 24107 net.cpp:156] Memory required for data: 150528000
I0714 22:09:52.411571 24107 layer_factory.hpp:77] Creating layer conv2/norm2
I0714 22:09:52.411588 24107 net.cpp:91] Creating Layer conv2/norm2
I0714 22:09:52.411594 24107 net.cpp:425] conv2/norm2 <- conv2/3x3
I0714 22:09:52.411603 24107 net.cpp:399] conv2/norm2 -> conv2/norm2
I0714 22:09:52.413626 24103 net.cpp:141] Setting up conv2/3x3
I0714 22:09:52.413627 24107 net.cpp:141] Setting up conv2/norm2
I0714 22:09:52.413647 24103 net.cpp:148] Top shape: 10 192 56 56 (6021120)
I0714 22:09:52.413655 24103 net.cpp:156] Memory required for data: 126443520
I0714 22:09:52.413655 24107 net.cpp:148] Top shape: 10 192 56 56 (6021120)
I0714 22:09:52.413661 24107 net.cpp:156] Memory required for data: 174612480
I0714 22:09:52.413668 24107 layer_factory.hpp:77] Creating layer pool2/3x3_s2
I0714 22:09:52.413672 24103 layer_factory.hpp:77] Creating layer conv2/relu_3x3
I0714 22:09:52.413678 24107 net.cpp:91] Creating Layer pool2/3x3_s2
I0714 22:09:52.413684 24107 net.cpp:425] pool2/3x3_s2 <- conv2/norm2
I0714 22:09:52.413686 24103 net.cpp:91] Creating Layer conv2/relu_3x3
I0714 22:09:52.413691 24103 net.cpp:425] conv2/relu_3x3 <- conv2/3x3
I0714 22:09:52.413696 24107 net.cpp:399] pool2/3x3_s2 -> pool2/3x3_s2
I0714 22:09:52.413704 24103 net.cpp:386] conv2/relu_3x3 -> conv2/3x3 (in-place)
I0714 22:09:52.414000 24107 net.cpp:141] Setting up pool2/3x3_s2
I0714 22:09:52.414011 24107 net.cpp:148] Top shape: 10 192 28 28 (1505280)
I0714 22:09:52.414016 24107 net.cpp:156] Memory required for data: 180633600
I0714 22:09:52.414022 24107 layer_factory.hpp:77] Creating layer pool2/3x3_s2_pool2/3x3_s2_0_split
I0714 22:09:52.414047 24107 net.cpp:91] Creating Layer pool2/3x3_s2_pool2/3x3_s2_0_split
I0714 22:09:52.414054 24107 net.cpp:425] pool2/3x3_s2_pool2/3x3_s2_0_split <- pool2/3x3_s2
I0714 22:09:52.414064 24107 net.cpp:399] pool2/3x3_s2_pool2/3x3_s2_0_split -> pool2/3x3_s2_pool2/3x3_s2_0_split_0
I0714 22:09:52.414065 24103 net.cpp:141] Setting up conv2/relu_3x3
I0714 22:09:52.414075 24107 net.cpp:399] pool2/3x3_s2_pool2/3x3_s2_0_split -> pool2/3x3_s2_pool2/3x3_s2_0_split_1
I0714 22:09:52.414083 24103 net.cpp:148] Top shape: 10 192 56 56 (6021120)
I0714 22:09:52.414085 24107 net.cpp:399] pool2/3x3_s2_pool2/3x3_s2_0_split -> pool2/3x3_s2_pool2/3x3_s2_0_split_2
I0714 22:09:52.414088 24103 net.cpp:156] Memory required for data: 150528000
I0714 22:09:52.414094 24107 net.cpp:399] pool2/3x3_s2_pool2/3x3_s2_0_split -> pool2/3x3_s2_pool2/3x3_s2_0_split_3
I0714 22:09:52.414095 24103 layer_factory.hpp:77] Creating layer conv2/norm2
I0714 22:09:52.414106 24103 net.cpp:91] Creating Layer conv2/norm2
I0714 22:09:52.414111 24103 net.cpp:425] conv2/norm2 <- conv2/3x3
I0714 22:09:52.414124 24103 net.cpp:399] conv2/norm2 -> conv2/norm2
I0714 22:09:52.415057 24107 net.cpp:141] Setting up pool2/3x3_s2_pool2/3x3_s2_0_split
I0714 22:09:52.415071 24107 net.cpp:148] Top shape: 10 192 28 28 (1505280)
I0714 22:09:52.415077 24107 net.cpp:148] Top shape: 10 192 28 28 (1505280)
I0714 22:09:52.415083 24107 net.cpp:148] Top shape: 10 192 28 28 (1505280)
I0714 22:09:52.415089 24107 net.cpp:148] Top shape: 10 192 28 28 (1505280)
I0714 22:09:52.415094 24107 net.cpp:156] Memory required for data: 204718080
I0714 22:09:52.415102 24107 layer_factory.hpp:77] Creating layer inception_3a/1x1
I0714 22:09:52.415146 24107 net.cpp:91] Creating Layer inception_3a/1x1
I0714 22:09:52.415153 24107 net.cpp:425] inception_3a/1x1 <- pool2/3x3_s2_pool2/3x3_s2_0_split_0
I0714 22:09:52.415185 24107 net.cpp:399] inception_3a/1x1 -> inception_3a/1x1
I0714 22:09:52.415190 24103 net.cpp:141] Setting up conv2/norm2
I0714 22:09:52.415206 24103 net.cpp:148] Top shape: 10 192 56 56 (6021120)
I0714 22:09:52.415211 24103 net.cpp:156] Memory required for data: 174612480
I0714 22:09:52.415217 24103 layer_factory.hpp:77] Creating layer pool2/3x3_s2
I0714 22:09:52.415230 24103 net.cpp:91] Creating Layer pool2/3x3_s2
I0714 22:09:52.415236 24103 net.cpp:425] pool2/3x3_s2 <- conv2/norm2
I0714 22:09:52.415244 24103 net.cpp:399] pool2/3x3_s2 -> pool2/3x3_s2
I0714 22:09:52.415480 24103 net.cpp:141] Setting up pool2/3x3_s2
I0714 22:09:52.415493 24103 net.cpp:148] Top shape: 10 192 28 28 (1505280)
I0714 22:09:52.415498 24103 net.cpp:156] Memory required for data: 180633600
I0714 22:09:52.415504 24103 layer_factory.hpp:77] Creating layer pool2/3x3_s2_pool2/3x3_s2_0_split
I0714 22:09:52.415515 24103 net.cpp:91] Creating Layer pool2/3x3_s2_pool2/3x3_s2_0_split
I0714 22:09:52.415521 24103 net.cpp:425] pool2/3x3_s2_pool2/3x3_s2_0_split <- pool2/3x3_s2
I0714 22:09:52.415529 24103 net.cpp:399] pool2/3x3_s2_pool2/3x3_s2_0_split -> pool2/3x3_s2_pool2/3x3_s2_0_split_0
I0714 22:09:52.415539 24103 net.cpp:399] pool2/3x3_s2_pool2/3x3_s2_0_split -> pool2/3x3_s2_pool2/3x3_s2_0_split_1
I0714 22:09:52.415549 24103 net.cpp:399] pool2/3x3_s2_pool2/3x3_s2_0_split -> pool2/3x3_s2_pool2/3x3_s2_0_split_2
I0714 22:09:52.415557 24103 net.cpp:399] pool2/3x3_s2_pool2/3x3_s2_0_split -> pool2/3x3_s2_pool2/3x3_s2_0_split_3
I0714 22:09:52.415814 24103 net.cpp:141] Setting up pool2/3x3_s2_pool2/3x3_s2_0_split
I0714 22:09:52.415828 24103 net.cpp:148] Top shape: 10 192 28 28 (1505280)
I0714 22:09:52.415835 24103 net.cpp:148] Top shape: 10 192 28 28 (1505280)
I0714 22:09:52.415840 24103 net.cpp:148] Top shape: 10 192 28 28 (1505280)
I0714 22:09:52.415846 24103 net.cpp:148] Top shape: 10 192 28 28 (1505280)
I0714 22:09:52.415851 24103 net.cpp:156] Memory required for data: 204718080
I0714 22:09:52.415858 24103 layer_factory.hpp:77] Creating layer inception_3a/1x1
I0714 22:09:52.415880 24103 net.cpp:91] Creating Layer inception_3a/1x1
I0714 22:09:52.415887 24103 net.cpp:425] inception_3a/1x1 <- pool2/3x3_s2_pool2/3x3_s2_0_split_0
I0714 22:09:52.415899 24103 net.cpp:399] inception_3a/1x1 -> inception_3a/1x1
I0714 22:09:52.422780 24107 net.cpp:141] Setting up inception_3a/1x1
I0714 22:09:52.422857 24107 net.cpp:148] Top shape: 10 64 28 28 (501760)
I0714 22:09:52.422868 24107 net.cpp:156] Memory required for data: 206725120
I0714 22:09:52.422879 24107 layer_factory.hpp:77] Creating layer inception_3a/relu_1x1
I0714 22:09:52.422890 24107 net.cpp:91] Creating Layer inception_3a/relu_1x1
I0714 22:09:52.422896 24107 net.cpp:425] inception_3a/relu_1x1 <- inception_3a/1x1
I0714 22:09:52.422905 24107 net.cpp:386] inception_3a/relu_1x1 -> inception_3a/1x1 (in-place)
I0714 22:09:52.423770 24107 net.cpp:141] Setting up inception_3a/relu_1x1
I0714 22:09:52.423787 24107 net.cpp:148] Top shape: 10 64 28 28 (501760)
I0714 22:09:52.423792 24107 net.cpp:156] Memory required for data: 208732160
I0714 22:09:52.423799 24107 layer_factory.hpp:77] Creating layer inception_3a/3x3_reduce
I0714 22:09:52.423816 24107 net.cpp:91] Creating Layer inception_3a/3x3_reduce
I0714 22:09:52.423823 24107 net.cpp:425] inception_3a/3x3_reduce <- pool2/3x3_s2_pool2/3x3_s2_0_split_1
I0714 22:09:52.423841 24107 net.cpp:399] inception_3a/3x3_reduce -> inception_3a/3x3_reduce
I0714 22:09:52.425806 24103 net.cpp:141] Setting up inception_3a/1x1
I0714 22:09:52.425830 24103 net.cpp:148] Top shape: 10 64 28 28 (501760)
I0714 22:09:52.425837 24103 net.cpp:156] Memory required for data: 206725120
I0714 22:09:52.425849 24103 layer_factory.hpp:77] Creating layer inception_3a/relu_1x1
I0714 22:09:52.425860 24103 net.cpp:91] Creating Layer inception_3a/relu_1x1
I0714 22:09:52.425868 24103 net.cpp:425] inception_3a/relu_1x1 <- inception_3a/1x1
I0714 22:09:52.425881 24103 net.cpp:386] inception_3a/relu_1x1 -> inception_3a/1x1 (in-place)
I0714 22:09:52.426764 24103 net.cpp:141] Setting up inception_3a/relu_1x1
I0714 22:09:52.426784 24103 net.cpp:148] Top shape: 10 64 28 28 (501760)
I0714 22:09:52.426789 24103 net.cpp:156] Memory required for data: 208732160
I0714 22:09:52.426795 24103 layer_factory.hpp:77] Creating layer inception_3a/3x3_reduce
I0714 22:09:52.426816 24103 net.cpp:91] Creating Layer inception_3a/3x3_reduce
I0714 22:09:52.426823 24103 net.cpp:425] inception_3a/3x3_reduce <- pool2/3x3_s2_pool2/3x3_s2_0_split_1
I0714 22:09:52.426834 24103 net.cpp:399] inception_3a/3x3_reduce -> inception_3a/3x3_reduce
I0714 22:09:52.432974 24107 net.cpp:141] Setting up inception_3a/3x3_reduce
I0714 22:09:52.432998 24107 net.cpp:148] Top shape: 10 96 28 28 (752640)
I0714 22:09:52.433004 24107 net.cpp:156] Memory required for data: 211742720
I0714 22:09:52.433027 24107 layer_factory.hpp:77] Creating layer inception_3a/relu_3x3_reduce
I0714 22:09:52.433059 24107 net.cpp:91] Creating Layer inception_3a/relu_3x3_reduce
I0714 22:09:52.433068 24107 net.cpp:425] inception_3a/relu_3x3_reduce <- inception_3a/3x3_reduce
I0714 22:09:52.433075 24107 net.cpp:386] inception_3a/relu_3x3_reduce -> inception_3a/3x3_reduce (in-place)
I0714 22:09:52.433447 24107 net.cpp:141] Setting up inception_3a/relu_3x3_reduce
I0714 22:09:52.433461 24107 net.cpp:148] Top shape: 10 96 28 28 (752640)
I0714 22:09:52.433466 24107 net.cpp:156] Memory required for data: 214753280
I0714 22:09:52.433472 24107 layer_factory.hpp:77] Creating layer inception_3a/3x3
I0714 22:09:52.433503 24107 net.cpp:91] Creating Layer inception_3a/3x3
I0714 22:09:52.433511 24107 net.cpp:425] inception_3a/3x3 <- inception_3a/3x3_reduce
I0714 22:09:52.433526 24107 net.cpp:399] inception_3a/3x3 -> inception_3a/3x3
I0714 22:09:52.434933 24103 net.cpp:141] Setting up inception_3a/3x3_reduce
I0714 22:09:52.434959 24103 net.cpp:148] Top shape: 10 96 28 28 (752640)
I0714 22:09:52.434967 24103 net.cpp:156] Memory required for data: 211742720
I0714 22:09:52.434990 24103 layer_factory.hpp:77] Creating layer inception_3a/relu_3x3_reduce
I0714 22:09:52.435005 24103 net.cpp:91] Creating Layer inception_3a/relu_3x3_reduce
I0714 22:09:52.435012 24103 net.cpp:425] inception_3a/relu_3x3_reduce <- inception_3a/3x3_reduce
I0714 22:09:52.435020 24103 net.cpp:386] inception_3a/relu_3x3_reduce -> inception_3a/3x3_reduce (in-place)
I0714 22:09:52.435298 24103 net.cpp:141] Setting up inception_3a/relu_3x3_reduce
I0714 22:09:52.435312 24103 net.cpp:148] Top shape: 10 96 28 28 (752640)
I0714 22:09:52.435318 24103 net.cpp:156] Memory required for data: 214753280
I0714 22:09:52.435326 24103 layer_factory.hpp:77] Creating layer inception_3a/3x3
I0714 22:09:52.435356 24103 net.cpp:91] Creating Layer inception_3a/3x3
I0714 22:09:52.435364 24103 net.cpp:425] inception_3a/3x3 <- inception_3a/3x3_reduce
I0714 22:09:52.435374 24103 net.cpp:399] inception_3a/3x3 -> inception_3a/3x3
I0714 22:09:52.438951 24107 net.cpp:141] Setting up inception_3a/3x3
I0714 22:09:52.438971 24107 net.cpp:148] Top shape: 10 128 28 28 (1003520)
I0714 22:09:52.438977 24107 net.cpp:156] Memory required for data: 218767360
I0714 22:09:52.438987 24107 layer_factory.hpp:77] Creating layer inception_3a/relu_3x3
I0714 22:09:52.439000 24107 net.cpp:91] Creating Layer inception_3a/relu_3x3
I0714 22:09:52.439007 24107 net.cpp:425] inception_3a/relu_3x3 <- inception_3a/3x3
I0714 22:09:52.439015 24107 net.cpp:386] inception_3a/relu_3x3 -> inception_3a/3x3 (in-place)
I0714 22:09:52.440012 24107 net.cpp:141] Setting up inception_3a/relu_3x3
I0714 22:09:52.440031 24107 net.cpp:148] Top shape: 10 128 28 28 (1003520)
I0714 22:09:52.440035 24107 net.cpp:156] Memory required for data: 222781440
I0714 22:09:52.440042 24107 layer_factory.hpp:77] Creating layer inception_3a/5x5_reduce
I0714 22:09:52.440064 24107 net.cpp:91] Creating Layer inception_3a/5x5_reduce
I0714 22:09:52.440071 24107 net.cpp:425] inception_3a/5x5_reduce <- pool2/3x3_s2_pool2/3x3_s2_0_split_2
I0714 22:09:52.440074 24103 net.cpp:141] Setting up inception_3a/3x3
I0714 22:09:52.440083 24107 net.cpp:399] inception_3a/5x5_reduce -> inception_3a/5x5_reduce
I0714 22:09:52.440093 24103 net.cpp:148] Top shape: 10 128 28 28 (1003520)
I0714 22:09:52.440099 24103 net.cpp:156] Memory required for data: 218767360
I0714 22:09:52.440109 24103 layer_factory.hpp:77] Creating layer inception_3a/relu_3x3
I0714 22:09:52.440119 24103 net.cpp:91] Creating Layer inception_3a/relu_3x3
I0714 22:09:52.440127 24103 net.cpp:425] inception_3a/relu_3x3 <- inception_3a/3x3
I0714 22:09:52.440136 24103 net.cpp:386] inception_3a/relu_3x3 -> inception_3a/3x3 (in-place)
I0714 22:09:52.441139 24103 net.cpp:141] Setting up inception_3a/relu_3x3
I0714 22:09:52.441156 24103 net.cpp:148] Top shape: 10 128 28 28 (1003520)
I0714 22:09:52.441162 24103 net.cpp:156] Memory required for data: 222781440
I0714 22:09:52.441169 24103 layer_factory.hpp:77] Creating layer inception_3a/5x5_reduce
I0714 22:09:52.441186 24103 net.cpp:91] Creating Layer inception_3a/5x5_reduce
I0714 22:09:52.441193 24103 net.cpp:425] inception_3a/5x5_reduce <- pool2/3x3_s2_pool2/3x3_s2_0_split_2
I0714 22:09:52.441210 24103 net.cpp:399] inception_3a/5x5_reduce -> inception_3a/5x5_reduce
I0714 22:09:52.445492 24107 net.cpp:141] Setting up inception_3a/5x5_reduce
I0714 22:09:52.445511 24107 net.cpp:148] Top shape: 10 16 28 28 (125440)
I0714 22:09:52.445518 24107 net.cpp:156] Memory required for data: 223283200
I0714 22:09:52.445531 24107 layer_factory.hpp:77] Creating layer inception_3a/relu_5x5_reduce
I0714 22:09:52.445543 24107 net.cpp:91] Creating Layer inception_3a/relu_5x5_reduce
I0714 22:09:52.445549 24107 net.cpp:425] inception_3a/relu_5x5_reduce <- inception_3a/5x5_reduce
I0714 22:09:52.445557 24107 net.cpp:386] inception_3a/relu_5x5_reduce -> inception_3a/5x5_reduce (in-place)
I0714 22:09:52.445977 24107 net.cpp:141] Setting up inception_3a/relu_5x5_reduce
I0714 22:09:52.445993 24107 net.cpp:148] Top shape: 10 16 28 28 (125440)
I0714 22:09:52.445999 24107 net.cpp:156] Memory required for data: 223784960
I0714 22:09:52.446005 24107 layer_factory.hpp:77] Creating layer inception_3a/5x5
I0714 22:09:52.446025 24107 net.cpp:91] Creating Layer inception_3a/5x5
I0714 22:09:52.446033 24107 net.cpp:425] inception_3a/5x5 <- inception_3a/5x5_reduce
I0714 22:09:52.446043 24107 net.cpp:399] inception_3a/5x5 -> inception_3a/5x5
I0714 22:09:52.446070 24103 net.cpp:141] Setting up inception_3a/5x5_reduce
I0714 22:09:52.446087 24103 net.cpp:148] Top shape: 10 16 28 28 (125440)
I0714 22:09:52.446092 24103 net.cpp:156] Memory required for data: 223283200
I0714 22:09:52.446102 24103 layer_factory.hpp:77] Creating layer inception_3a/relu_5x5_reduce
I0714 22:09:52.446115 24103 net.cpp:91] Creating Layer inception_3a/relu_5x5_reduce
I0714 22:09:52.446121 24103 net.cpp:425] inception_3a/relu_5x5_reduce <- inception_3a/5x5_reduce
I0714 22:09:52.446130 24103 net.cpp:386] inception_3a/relu_5x5_reduce -> inception_3a/5x5_reduce (in-place)
I0714 22:09:52.446570 24103 net.cpp:141] Setting up inception_3a/relu_5x5_reduce
I0714 22:09:52.446584 24103 net.cpp:148] Top shape: 10 16 28 28 (125440)
I0714 22:09:52.446589 24103 net.cpp:156] Memory required for data: 223784960
I0714 22:09:52.446597 24103 layer_factory.hpp:77] Creating layer inception_3a/5x5
I0714 22:09:52.446614 24103 net.cpp:91] Creating Layer inception_3a/5x5
I0714 22:09:52.446620 24103 net.cpp:425] inception_3a/5x5 <- inception_3a/5x5_reduce
I0714 22:09:52.446630 24103 net.cpp:399] inception_3a/5x5 -> inception_3a/5x5
I0714 22:09:52.452322 24107 net.cpp:141] Setting up inception_3a/5x5
I0714 22:09:52.452342 24107 net.cpp:148] Top shape: 10 32 28 28 (250880)
I0714 22:09:52.452348 24107 net.cpp:156] Memory required for data: 224788480
I0714 22:09:52.452358 24107 layer_factory.hpp:77] Creating layer inception_3a/relu_5x5
I0714 22:09:52.452368 24107 net.cpp:91] Creating Layer inception_3a/relu_5x5
I0714 22:09:52.452374 24107 net.cpp:425] inception_3a/relu_5x5 <- inception_3a/5x5
I0714 22:09:52.452388 24107 net.cpp:386] inception_3a/relu_5x5 -> inception_3a/5x5 (in-place)
I0714 22:09:52.452783 24107 net.cpp:141] Setting up inception_3a/relu_5x5
I0714 22:09:52.452800 24107 net.cpp:148] Top shape: 10 32 28 28 (250880)
I0714 22:09:52.452805 24107 net.cpp:156] Memory required for data: 225792000
I0714 22:09:52.452811 24107 layer_factory.hpp:77] Creating layer inception_3a/pool
I0714 22:09:52.452826 24107 net.cpp:91] Creating Layer inception_3a/pool
I0714 22:09:52.452833 24107 net.cpp:425] inception_3a/pool <- pool2/3x3_s2_pool2/3x3_s2_0_split_3
I0714 22:09:52.452843 24107 net.cpp:399] inception_3a/pool -> inception_3a/pool
I0714 22:09:52.453462 24103 net.cpp:141] Setting up inception_3a/5x5
I0714 22:09:52.453482 24103 net.cpp:148] Top shape: 10 32 28 28 (250880)
I0714 22:09:52.453488 24103 net.cpp:156] Memory required for data: 224788480
I0714 22:09:52.453497 24107 net.cpp:141] Setting up inception_3a/pool
I0714 22:09:52.453500 24103 layer_factory.hpp:77] Creating layer inception_3a/relu_5x5
I0714 22:09:52.453513 24107 net.cpp:148] Top shape: 10 192 28 28 (1505280)
I0714 22:09:52.453517 24103 net.cpp:91] Creating Layer inception_3a/relu_5x5
I0714 22:09:52.453519 24107 net.cpp:156] Memory required for data: 231813120
I0714 22:09:52.453524 24103 net.cpp:425] inception_3a/relu_5x5 <- inception_3a/5x5
I0714 22:09:52.453526 24107 layer_factory.hpp:77] Creating layer inception_3a/pool_proj
I0714 22:09:52.453533 24103 net.cpp:386] inception_3a/relu_5x5 -> inception_3a/5x5 (in-place)
I0714 22:09:52.453541 24107 net.cpp:91] Creating Layer inception_3a/pool_proj
I0714 22:09:52.453547 24107 net.cpp:425] inception_3a/pool_proj <- inception_3a/pool
I0714 22:09:52.453560 24107 net.cpp:399] inception_3a/pool_proj -> inception_3a/pool_proj
I0714 22:09:52.453953 24103 net.cpp:141] Setting up inception_3a/relu_5x5
I0714 22:09:52.453968 24103 net.cpp:148] Top shape: 10 32 28 28 (250880)
I0714 22:09:52.453972 24103 net.cpp:156] Memory required for data: 225792000
I0714 22:09:52.453977 24103 layer_factory.hpp:77] Creating layer inception_3a/pool
I0714 22:09:52.453987 24103 net.cpp:91] Creating Layer inception_3a/pool
I0714 22:09:52.453994 24103 net.cpp:425] inception_3a/pool <- pool2/3x3_s2_pool2/3x3_s2_0_split_3
I0714 22:09:52.454007 24103 net.cpp:399] inception_3a/pool -> inception_3a/pool
I0714 22:09:52.454255 24103 net.cpp:141] Setting up inception_3a/pool
I0714 22:09:52.454268 24103 net.cpp:148] Top shape: 10 192 28 28 (1505280)
I0714 22:09:52.454273 24103 net.cpp:156] Memory required for data: 231813120
I0714 22:09:52.454282 24103 layer_factory.hpp:77] Creating layer inception_3a/pool_proj
I0714 22:09:52.454303 24103 net.cpp:91] Creating Layer inception_3a/pool_proj
I0714 22:09:52.454309 24103 net.cpp:425] inception_3a/pool_proj <- inception_3a/pool
I0714 22:09:52.454321 24103 net.cpp:399] inception_3a/pool_proj -> inception_3a/pool_proj
I0714 22:09:52.458463 24107 net.cpp:141] Setting up inception_3a/pool_proj
I0714 22:09:52.458482 24107 net.cpp:148] Top shape: 10 32 28 28 (250880)
I0714 22:09:52.458488 24107 net.cpp:156] Memory required for data: 232816640
I0714 22:09:52.458506 24107 layer_factory.hpp:77] Creating layer inception_3a/relu_pool_proj
I0714 22:09:52.458518 24107 net.cpp:91] Creating Layer inception_3a/relu_pool_proj
I0714 22:09:52.458523 24107 net.cpp:425] inception_3a/relu_pool_proj <- inception_3a/pool_proj
I0714 22:09:52.458531 24107 net.cpp:386] inception_3a/relu_pool_proj -> inception_3a/pool_proj (in-place)
I0714 22:09:52.459569 24107 net.cpp:141] Setting up inception_3a/relu_pool_proj
I0714 22:09:52.459588 24107 net.cpp:148] Top shape: 10 32 28 28 (250880)
I0714 22:09:52.459592 24107 net.cpp:156] Memory required for data: 233820160
I0714 22:09:52.459599 24107 layer_factory.hpp:77] Creating layer inception_3a/output
I0714 22:09:52.459626 24107 net.cpp:91] Creating Layer inception_3a/output
I0714 22:09:52.459633 24107 net.cpp:425] inception_3a/output <- inception_3a/1x1
I0714 22:09:52.459640 24107 net.cpp:425] inception_3a/output <- inception_3a/3x3
I0714 22:09:52.459646 24107 net.cpp:425] inception_3a/output <- inception_3a/5x5
I0714 22:09:52.459653 24107 net.cpp:425] inception_3a/output <- inception_3a/pool_proj
I0714 22:09:52.459661 24107 net.cpp:399] inception_3a/output -> inception_3a/output
I0714 22:09:52.459664 24103 net.cpp:141] Setting up inception_3a/pool_proj
I0714 22:09:52.459683 24103 net.cpp:148] Top shape: 10 32 28 28 (250880)
I0714 22:09:52.459691 24103 net.cpp:156] Memory required for data: 232816640
I0714 22:09:52.459704 24103 layer_factory.hpp:77] Creating layer inception_3a/relu_pool_proj
I0714 22:09:52.459725 24103 net.cpp:91] Creating Layer inception_3a/relu_pool_proj
I0714 22:09:52.459731 24103 net.cpp:425] inception_3a/relu_pool_proj <- inception_3a/pool_proj
I0714 22:09:52.459751 24103 net.cpp:386] inception_3a/relu_pool_proj -> inception_3a/pool_proj (in-place)
I0714 22:09:52.459750 24107 net.cpp:141] Setting up inception_3a/output
I0714 22:09:52.459772 24107 net.cpp:148] Top shape: 10 256 28 28 (2007040)
I0714 22:09:52.459777 24107 net.cpp:156] Memory required for data: 241848320
I0714 22:09:52.459785 24107 layer_factory.hpp:77] Creating layer inception_3a/output_inception_3a/output_0_split
I0714 22:09:52.459796 24107 net.cpp:91] Creating Layer inception_3a/output_inception_3a/output_0_split
I0714 22:09:52.459801 24107 net.cpp:425] inception_3a/output_inception_3a/output_0_split <- inception_3a/output
I0714 22:09:52.459815 24107 net.cpp:399] inception_3a/output_inception_3a/output_0_split -> inception_3a/output_inception_3a/output_0_split_0
I0714 22:09:52.459825 24107 net.cpp:399] inception_3a/output_inception_3a/output_0_split -> inception_3a/output_inception_3a/output_0_split_1
I0714 22:09:52.459836 24107 net.cpp:399] inception_3a/output_inception_3a/output_0_split -> inception_3a/output_inception_3a/output_0_split_2
I0714 22:09:52.459844 24107 net.cpp:399] inception_3a/output_inception_3a/output_0_split -> inception_3a/output_inception_3a/output_0_split_3
I0714 22:09:52.460690 24107 net.cpp:141] Setting up inception_3a/output_inception_3a/output_0_split
I0714 22:09:52.460702 24107 net.cpp:148] Top shape: 10 256 28 28 (2007040)
I0714 22:09:52.460708 24107 net.cpp:148] Top shape: 10 256 28 28 (2007040)
I0714 22:09:52.460714 24107 net.cpp:148] Top shape: 10 256 28 28 (2007040)
I0714 22:09:52.460721 24107 net.cpp:148] Top shape: 10 256 28 28 (2007040)
I0714 22:09:52.460721 24103 net.cpp:141] Setting up inception_3a/relu_pool_proj
I0714 22:09:52.460726 24107 net.cpp:156] Memory required for data: 273960960
I0714 22:09:52.460739 24103 net.cpp:148] Top shape: 10 32 28 28 (250880)
I0714 22:09:52.460741 24107 layer_factory.hpp:77] Creating layer inception_3b/1x1
I0714 22:09:52.460747 24103 net.cpp:156] Memory required for data: 233820160
I0714 22:09:52.460754 24103 layer_factory.hpp:77] Creating layer inception_3a/output
I0714 22:09:52.460762 24107 net.cpp:91] Creating Layer inception_3b/1x1
I0714 22:09:52.460763 24103 net.cpp:91] Creating Layer inception_3a/output
I0714 22:09:52.460773 24107 net.cpp:425] inception_3b/1x1 <- inception_3a/output_inception_3a/output_0_split_0
I0714 22:09:52.460777 24103 net.cpp:425] inception_3a/output <- inception_3a/1x1
I0714 22:09:52.460786 24103 net.cpp:425] inception_3a/output <- inception_3a/3x3
I0714 22:09:52.460788 24107 net.cpp:399] inception_3b/1x1 -> inception_3b/1x1
I0714 22:09:52.460793 24103 net.cpp:425] inception_3a/output <- inception_3a/5x5
I0714 22:09:52.460798 24103 net.cpp:425] inception_3a/output <- inception_3a/pool_proj
I0714 22:09:52.460810 24103 net.cpp:399] inception_3a/output -> inception_3a/output
I0714 22:09:52.460952 24103 net.cpp:141] Setting up inception_3a/output
I0714 22:09:52.460965 24103 net.cpp:148] Top shape: 10 256 28 28 (2007040)
I0714 22:09:52.460970 24103 net.cpp:156] Memory required for data: 241848320
I0714 22:09:52.460976 24103 layer_factory.hpp:77] Creating layer inception_3a/output_inception_3a/output_0_split
I0714 22:09:52.460997 24103 net.cpp:91] Creating Layer inception_3a/output_inception_3a/output_0_split
I0714 22:09:52.461004 24103 net.cpp:425] inception_3a/output_inception_3a/output_0_split <- inception_3a/output
I0714 22:09:52.461014 24103 net.cpp:399] inception_3a/output_inception_3a/output_0_split -> inception_3a/output_inception_3a/output_0_split_0
I0714 22:09:52.461024 24103 net.cpp:399] inception_3a/output_inception_3a/output_0_split -> inception_3a/output_inception_3a/output_0_split_1
I0714 22:09:52.461036 24103 net.cpp:399] inception_3a/output_inception_3a/output_0_split -> inception_3a/output_inception_3a/output_0_split_2
I0714 22:09:52.461045 24103 net.cpp:399] inception_3a/output_inception_3a/output_0_split -> inception_3a/output_inception_3a/output_0_split_3
I0714 22:09:52.461434 24103 net.cpp:141] Setting up inception_3a/output_inception_3a/output_0_split
I0714 22:09:52.461449 24103 net.cpp:148] Top shape: 10 256 28 28 (2007040)
I0714 22:09:52.461457 24103 net.cpp:148] Top shape: 10 256 28 28 (2007040)
I0714 22:09:52.461462 24103 net.cpp:148] Top shape: 10 256 28 28 (2007040)
I0714 22:09:52.461467 24103 net.cpp:148] Top shape: 10 256 28 28 (2007040)
I0714 22:09:52.461472 24103 net.cpp:156] Memory required for data: 273960960
I0714 22:09:52.461479 24103 layer_factory.hpp:77] Creating layer inception_3b/1x1
I0714 22:09:52.461496 24103 net.cpp:91] Creating Layer inception_3b/1x1
I0714 22:09:52.461503 24103 net.cpp:425] inception_3b/1x1 <- inception_3a/output_inception_3a/output_0_split_0
I0714 22:09:52.461513 24103 net.cpp:399] inception_3b/1x1 -> inception_3b/1x1
I0714 22:09:52.465796 24107 net.cpp:141] Setting up inception_3b/1x1
I0714 22:09:52.465821 24107 net.cpp:148] Top shape: 10 128 28 28 (1003520)
I0714 22:09:52.465827 24107 net.cpp:156] Memory required for data: 277975040
I0714 22:09:52.465842 24107 layer_factory.hpp:77] Creating layer inception_3b/relu_1x1
I0714 22:09:52.465853 24107 net.cpp:91] Creating Layer inception_3b/relu_1x1
I0714 22:09:52.465859 24107 net.cpp:425] inception_3b/relu_1x1 <- inception_3b/1x1
I0714 22:09:52.465870 24107 net.cpp:386] inception_3b/relu_1x1 -> inception_3b/1x1 (in-place)
I0714 22:09:52.466298 24107 net.cpp:141] Setting up inception_3b/relu_1x1
I0714 22:09:52.466313 24107 net.cpp:148] Top shape: 10 128 28 28 (1003520)
I0714 22:09:52.466318 24107 net.cpp:156] Memory required for data: 281989120
I0714 22:09:52.466323 24107 layer_factory.hpp:77] Creating layer inception_3b/3x3_reduce
I0714 22:09:52.466344 24107 net.cpp:91] Creating Layer inception_3b/3x3_reduce
I0714 22:09:52.466351 24107 net.cpp:425] inception_3b/3x3_reduce <- inception_3a/output_inception_3a/output_0_split_1
I0714 22:09:52.466374 24107 net.cpp:399] inception_3b/3x3_reduce -> inception_3b/3x3_reduce
I0714 22:09:52.466388 24103 net.cpp:141] Setting up inception_3b/1x1
I0714 22:09:52.466406 24103 net.cpp:148] Top shape: 10 128 28 28 (1003520)
I0714 22:09:52.466411 24103 net.cpp:156] Memory required for data: 277975040
I0714 22:09:52.466421 24103 layer_factory.hpp:77] Creating layer inception_3b/relu_1x1
I0714 22:09:52.466435 24103 net.cpp:91] Creating Layer inception_3b/relu_1x1
I0714 22:09:52.466442 24103 net.cpp:425] inception_3b/relu_1x1 <- inception_3b/1x1
I0714 22:09:52.466450 24103 net.cpp:386] inception_3b/relu_1x1 -> inception_3b/1x1 (in-place)
I0714 22:09:52.466908 24103 net.cpp:141] Setting up inception_3b/relu_1x1
I0714 22:09:52.466922 24103 net.cpp:148] Top shape: 10 128 28 28 (1003520)
I0714 22:09:52.466928 24103 net.cpp:156] Memory required for data: 281989120
I0714 22:09:52.466933 24103 layer_factory.hpp:77] Creating layer inception_3b/3x3_reduce
I0714 22:09:52.466953 24103 net.cpp:91] Creating Layer inception_3b/3x3_reduce
I0714 22:09:52.466960 24103 net.cpp:425] inception_3b/3x3_reduce <- inception_3a/output_inception_3a/output_0_split_1
I0714 22:09:52.466970 24103 net.cpp:399] inception_3b/3x3_reduce -> inception_3b/3x3_reduce
I0714 22:09:52.471570 24107 net.cpp:141] Setting up inception_3b/3x3_reduce
I0714 22:09:52.471590 24107 net.cpp:148] Top shape: 10 128 28 28 (1003520)
I0714 22:09:52.471596 24107 net.cpp:156] Memory required for data: 286003200
I0714 22:09:52.471606 24107 layer_factory.hpp:77] Creating layer inception_3b/relu_3x3_reduce
I0714 22:09:52.471616 24107 net.cpp:91] Creating Layer inception_3b/relu_3x3_reduce
I0714 22:09:52.471623 24107 net.cpp:425] inception_3b/relu_3x3_reduce <- inception_3b/3x3_reduce
I0714 22:09:52.471632 24107 net.cpp:386] inception_3b/relu_3x3_reduce -> inception_3b/3x3_reduce (in-place)
I0714 22:09:52.472146 24107 net.cpp:141] Setting up inception_3b/relu_3x3_reduce
I0714 22:09:52.472162 24107 net.cpp:148] Top shape: 10 128 28 28 (1003520)
I0714 22:09:52.472167 24107 net.cpp:156] Memory required for data: 290017280
I0714 22:09:52.472173 24107 layer_factory.hpp:77] Creating layer inception_3b/3x3
I0714 22:09:52.472190 24107 net.cpp:91] Creating Layer inception_3b/3x3
I0714 22:09:52.472198 24107 net.cpp:425] inception_3b/3x3 <- inception_3b/3x3_reduce
I0714 22:09:52.472214 24107 net.cpp:399] inception_3b/3x3 -> inception_3b/3x3
I0714 22:09:52.472259 24103 net.cpp:141] Setting up inception_3b/3x3_reduce
I0714 22:09:52.472298 24103 net.cpp:148] Top shape: 10 128 28 28 (1003520)
I0714 22:09:52.472306 24103 net.cpp:156] Memory required for data: 286003200
I0714 22:09:52.472321 24103 layer_factory.hpp:77] Creating layer inception_3b/relu_3x3_reduce
I0714 22:09:52.472338 24103 net.cpp:91] Creating Layer inception_3b/relu_3x3_reduce
I0714 22:09:52.472347 24103 net.cpp:425] inception_3b/relu_3x3_reduce <- inception_3b/3x3_reduce
I0714 22:09:52.472363 24103 net.cpp:386] inception_3b/relu_3x3_reduce -> inception_3b/3x3_reduce (in-place)
I0714 22:09:52.472856 24103 net.cpp:141] Setting up inception_3b/relu_3x3_reduce
I0714 22:09:52.472875 24103 net.cpp:148] Top shape: 10 128 28 28 (1003520)
I0714 22:09:52.472882 24103 net.cpp:156] Memory required for data: 290017280
I0714 22:09:52.472904 24103 layer_factory.hpp:77] Creating layer inception_3b/3x3
I0714 22:09:52.472959 24103 net.cpp:91] Creating Layer inception_3b/3x3
I0714 22:09:52.472966 24103 net.cpp:425] inception_3b/3x3 <- inception_3b/3x3_reduce
I0714 22:09:52.472977 24103 net.cpp:399] inception_3b/3x3 -> inception_3b/3x3
I0714 22:09:52.481096 24107 net.cpp:141] Setting up inception_3b/3x3
I0714 22:09:52.481119 24107 net.cpp:148] Top shape: 10 192 28 28 (1505280)
I0714 22:09:52.481125 24107 net.cpp:156] Memory required for data: 296038400
I0714 22:09:52.481135 24107 layer_factory.hpp:77] Creating layer inception_3b/relu_3x3
I0714 22:09:52.481159 24107 net.cpp:91] Creating Layer inception_3b/relu_3x3
I0714 22:09:52.481166 24107 net.cpp:425] inception_3b/relu_3x3 <- inception_3b/3x3
I0714 22:09:52.481175 24107 net.cpp:386] inception_3b/relu_3x3 -> inception_3b/3x3 (in-place)
I0714 22:09:52.482296 24107 net.cpp:141] Setting up inception_3b/relu_3x3
I0714 22:09:52.482313 24107 net.cpp:148] Top shape: 10 192 28 28 (1505280)
I0714 22:09:52.482319 24107 net.cpp:156] Memory required for data: 302059520
I0714 22:09:52.482326 24107 layer_factory.hpp:77] Creating layer inception_3b/5x5_reduce
I0714 22:09:52.482344 24107 net.cpp:91] Creating Layer inception_3b/5x5_reduce
I0714 22:09:52.482352 24107 net.cpp:425] inception_3b/5x5_reduce <- inception_3a/output_inception_3a/output_0_split_2
I0714 22:09:52.482365 24107 net.cpp:399] inception_3b/5x5_reduce -> inception_3b/5x5_reduce
I0714 22:09:52.482429 24103 net.cpp:141] Setting up inception_3b/3x3
I0714 22:09:52.482450 24103 net.cpp:148] Top shape: 10 192 28 28 (1505280)
I0714 22:09:52.482455 24103 net.cpp:156] Memory required for data: 296038400
I0714 22:09:52.482466 24103 layer_factory.hpp:77] Creating layer inception_3b/relu_3x3
I0714 22:09:52.482486 24103 net.cpp:91] Creating Layer inception_3b/relu_3x3
I0714 22:09:52.482493 24103 net.cpp:425] inception_3b/relu_3x3 <- inception_3b/3x3
I0714 22:09:52.482501 24103 net.cpp:386] inception_3b/relu_3x3 -> inception_3b/3x3 (in-place)
I0714 22:09:52.483547 24103 net.cpp:141] Setting up inception_3b/relu_3x3
I0714 22:09:52.483571 24103 net.cpp:148] Top shape: 10 192 28 28 (1505280)
I0714 22:09:52.483577 24103 net.cpp:156] Memory required for data: 302059520
I0714 22:09:52.483602 24103 layer_factory.hpp:77] Creating layer inception_3b/5x5_reduce
I0714 22:09:52.483623 24103 net.cpp:91] Creating Layer inception_3b/5x5_reduce
I0714 22:09:52.483630 24103 net.cpp:425] inception_3b/5x5_reduce <- inception_3a/output_inception_3a/output_0_split_2
I0714 22:09:52.483641 24103 net.cpp:399] inception_3b/5x5_reduce -> inception_3b/5x5_reduce
I0714 22:09:52.488387 24107 net.cpp:141] Setting up inception_3b/5x5_reduce
I0714 22:09:52.488410 24107 net.cpp:148] Top shape: 10 32 28 28 (250880)
I0714 22:09:52.488416 24107 net.cpp:156] Memory required for data: 303063040
I0714 22:09:52.488426 24107 layer_factory.hpp:77] Creating layer inception_3b/relu_5x5_reduce
I0714 22:09:52.488436 24107 net.cpp:91] Creating Layer inception_3b/relu_5x5_reduce
I0714 22:09:52.488446 24107 net.cpp:425] inception_3b/relu_5x5_reduce <- inception_3b/5x5_reduce
I0714 22:09:52.488456 24107 net.cpp:386] inception_3b/relu_5x5_reduce -> inception_3b/5x5_reduce (in-place)
I0714 22:09:52.488912 24107 net.cpp:141] Setting up inception_3b/relu_5x5_reduce
I0714 22:09:52.488929 24107 net.cpp:148] Top shape: 10 32 28 28 (250880)
I0714 22:09:52.488934 24107 net.cpp:156] Memory required for data: 304066560
I0714 22:09:52.488940 24107 layer_factory.hpp:77] Creating layer inception_3b/5x5
I0714 22:09:52.488962 24107 net.cpp:91] Creating Layer inception_3b/5x5
I0714 22:09:52.488970 24107 net.cpp:425] inception_3b/5x5 <- inception_3b/5x5_reduce
I0714 22:09:52.488981 24107 net.cpp:399] inception_3b/5x5 -> inception_3b/5x5
I0714 22:09:52.489140 24103 net.cpp:141] Setting up inception_3b/5x5_reduce
I0714 22:09:52.489161 24103 net.cpp:148] Top shape: 10 32 28 28 (250880)
I0714 22:09:52.489166 24103 net.cpp:156] Memory required for data: 303063040
I0714 22:09:52.489190 24103 layer_factory.hpp:77] Creating layer inception_3b/relu_5x5_reduce
I0714 22:09:52.489210 24103 net.cpp:91] Creating Layer inception_3b/relu_5x5_reduce
I0714 22:09:52.489218 24103 net.cpp:425] inception_3b/relu_5x5_reduce <- inception_3b/5x5_reduce
I0714 22:09:52.489238 24103 net.cpp:386] inception_3b/relu_5x5_reduce -> inception_3b/5x5_reduce (in-place)
I0714 22:09:52.489799 24103 net.cpp:141] Setting up inception_3b/relu_5x5_reduce
I0714 22:09:52.489819 24103 net.cpp:148] Top shape: 10 32 28 28 (250880)
I0714 22:09:52.489823 24103 net.cpp:156] Memory required for data: 304066560
I0714 22:09:52.489830 24103 layer_factory.hpp:77] Creating layer inception_3b/5x5
I0714 22:09:52.489847 24103 net.cpp:91] Creating Layer inception_3b/5x5
I0714 22:09:52.489855 24103 net.cpp:425] inception_3b/5x5 <- inception_3b/5x5_reduce
I0714 22:09:52.490267 24103 net.cpp:399] inception_3b/5x5 -> inception_3b/5x5
I0714 22:09:52.497440 24107 net.cpp:141] Setting up inception_3b/5x5
I0714 22:09:52.497464 24107 net.cpp:148] Top shape: 10 96 28 28 (752640)
I0714 22:09:52.497476 24107 net.cpp:156] Memory required for data: 307077120
I0714 22:09:52.497488 24107 layer_factory.hpp:77] Creating layer inception_3b/relu_5x5
I0714 22:09:52.497498 24107 net.cpp:91] Creating Layer inception_3b/relu_5x5
I0714 22:09:52.497504 24107 net.cpp:425] inception_3b/relu_5x5 <- inception_3b/5x5
I0714 22:09:52.497516 24107 net.cpp:386] inception_3b/relu_5x5 -> inception_3b/5x5 (in-place)
I0714 22:09:52.497877 24103 net.cpp:141] Setting up inception_3b/5x5
I0714 22:09:52.497897 24103 net.cpp:148] Top shape: 10 96 28 28 (752640)
I0714 22:09:52.497903 24103 net.cpp:156] Memory required for data: 307077120
I0714 22:09:52.497901 24107 net.cpp:141] Setting up inception_3b/relu_5x5
I0714 22:09:52.497918 24107 net.cpp:148] Top shape: 10 96 28 28 (752640)
I0714 22:09:52.497916 24103 layer_factory.hpp:77] Creating layer inception_3b/relu_5x5
I0714 22:09:52.497923 24107 net.cpp:156] Memory required for data: 310087680
I0714 22:09:52.497932 24107 layer_factory.hpp:77] Creating layer inception_3b/pool
I0714 22:09:52.497936 24103 net.cpp:91] Creating Layer inception_3b/relu_5x5
I0714 22:09:52.497943 24107 net.cpp:91] Creating Layer inception_3b/pool
I0714 22:09:52.497946 24103 net.cpp:425] inception_3b/relu_5x5 <- inception_3b/5x5
I0714 22:09:52.497949 24107 net.cpp:425] inception_3b/pool <- inception_3a/output_inception_3a/output_0_split_3
I0714 22:09:52.497954 24103 net.cpp:386] inception_3b/relu_5x5 -> inception_3b/5x5 (in-place)
I0714 22:09:52.497958 24107 net.cpp:399] inception_3b/pool -> inception_3b/pool
I0714 22:09:52.498267 24107 net.cpp:141] Setting up inception_3b/pool
I0714 22:09:52.498283 24107 net.cpp:148] Top shape: 10 256 28 28 (2007040)
I0714 22:09:52.498288 24107 net.cpp:156] Memory required for data: 318115840
I0714 22:09:52.498294 24107 layer_factory.hpp:77] Creating layer inception_3b/pool_proj
I0714 22:09:52.498322 24107 net.cpp:91] Creating Layer inception_3b/pool_proj
I0714 22:09:52.498329 24107 net.cpp:425] inception_3b/pool_proj <- inception_3b/pool
I0714 22:09:52.498340 24107 net.cpp:399] inception_3b/pool_proj -> inception_3b/pool_proj
I0714 22:09:52.498338 24103 net.cpp:141] Setting up inception_3b/relu_5x5
I0714 22:09:52.498360 24103 net.cpp:148] Top shape: 10 96 28 28 (752640)
I0714 22:09:52.498366 24103 net.cpp:156] Memory required for data: 310087680
I0714 22:09:52.498371 24103 layer_factory.hpp:77] Creating layer inception_3b/pool
I0714 22:09:52.498381 24103 net.cpp:91] Creating Layer inception_3b/pool
I0714 22:09:52.498389 24103 net.cpp:425] inception_3b/pool <- inception_3a/output_inception_3a/output_0_split_3
I0714 22:09:52.498401 24103 net.cpp:399] inception_3b/pool -> inception_3b/pool
I0714 22:09:52.498641 24103 net.cpp:141] Setting up inception_3b/pool
I0714 22:09:52.498653 24103 net.cpp:148] Top shape: 10 256 28 28 (2007040)
I0714 22:09:52.498658 24103 net.cpp:156] Memory required for data: 318115840
I0714 22:09:52.498667 24103 layer_factory.hpp:77] Creating layer inception_3b/pool_proj
I0714 22:09:52.498693 24103 net.cpp:91] Creating Layer inception_3b/pool_proj
I0714 22:09:52.498702 24103 net.cpp:425] inception_3b/pool_proj <- inception_3b/pool
I0714 22:09:52.498716 24103 net.cpp:399] inception_3b/pool_proj -> inception_3b/pool_proj
I0714 22:09:52.502532 24107 net.cpp:141] Setting up inception_3b/pool_proj
I0714 22:09:52.502552 24107 net.cpp:148] Top shape: 10 64 28 28 (501760)
I0714 22:09:52.502557 24107 net.cpp:156] Memory required for data: 320122880
I0714 22:09:52.502568 24107 layer_factory.hpp:77] Creating layer inception_3b/relu_pool_proj
I0714 22:09:52.502578 24107 net.cpp:91] Creating Layer inception_3b/relu_pool_proj
I0714 22:09:52.502588 24107 net.cpp:425] inception_3b/relu_pool_proj <- inception_3b/pool_proj
I0714 22:09:52.502596 24107 net.cpp:386] inception_3b/relu_pool_proj -> inception_3b/pool_proj (in-place)
I0714 22:09:52.503607 24107 net.cpp:141] Setting up inception_3b/relu_pool_proj
I0714 22:09:52.503625 24107 net.cpp:148] Top shape: 10 64 28 28 (501760)
I0714 22:09:52.503631 24107 net.cpp:156] Memory required for data: 322129920
I0714 22:09:52.503638 24107 layer_factory.hpp:77] Creating layer inception_3b/output
I0714 22:09:52.503649 24107 net.cpp:91] Creating Layer inception_3b/output
I0714 22:09:52.503655 24107 net.cpp:425] inception_3b/output <- inception_3b/1x1
I0714 22:09:52.503664 24107 net.cpp:425] inception_3b/output <- inception_3b/3x3
I0714 22:09:52.503670 24107 net.cpp:425] inception_3b/output <- inception_3b/5x5
I0714 22:09:52.503676 24107 net.cpp:425] inception_3b/output <- inception_3b/pool_proj
I0714 22:09:52.503684 24107 net.cpp:399] inception_3b/output -> inception_3b/output
I0714 22:09:52.503710 24103 net.cpp:141] Setting up inception_3b/pool_proj
I0714 22:09:52.503731 24103 net.cpp:148] Top shape: 10 64 28 28 (501760)
I0714 22:09:52.503737 24103 net.cpp:156] Memory required for data: 320122880
I0714 22:09:52.503748 24103 layer_factory.hpp:77] Creating layer inception_3b/relu_pool_proj
I0714 22:09:52.503759 24103 net.cpp:91] Creating Layer inception_3b/relu_pool_proj
I0714 22:09:52.503759 24107 net.cpp:141] Setting up inception_3b/output
I0714 22:09:52.503768 24103 net.cpp:425] inception_3b/relu_pool_proj <- inception_3b/pool_proj
I0714 22:09:52.503773 24107 net.cpp:148] Top shape: 10 480 28 28 (3763200)
I0714 22:09:52.503777 24103 net.cpp:386] inception_3b/relu_pool_proj -> inception_3b/pool_proj (in-place)
I0714 22:09:52.503780 24107 net.cpp:156] Memory required for data: 337182720
I0714 22:09:52.503788 24107 layer_factory.hpp:77] Creating layer pool3/3x3_s2
I0714 22:09:52.503799 24107 net.cpp:91] Creating Layer pool3/3x3_s2
I0714 22:09:52.503804 24107 net.cpp:425] pool3/3x3_s2 <- inception_3b/output
I0714 22:09:52.503813 24107 net.cpp:399] pool3/3x3_s2 -> pool3/3x3_s2
I0714 22:09:52.504601 24107 net.cpp:141] Setting up pool3/3x3_s2
I0714 22:09:52.504614 24107 net.cpp:148] Top shape: 10 480 14 14 (940800)
I0714 22:09:52.504619 24107 net.cpp:156] Memory required for data: 340945920
I0714 22:09:52.504624 24107 layer_factory.hpp:77] Creating layer pool3/3x3_s2_pool3/3x3_s2_0_split
I0714 22:09:52.504634 24107 net.cpp:91] Creating Layer pool3/3x3_s2_pool3/3x3_s2_0_split
I0714 22:09:52.504639 24107 net.cpp:425] pool3/3x3_s2_pool3/3x3_s2_0_split <- pool3/3x3_s2
I0714 22:09:52.504647 24107 net.cpp:399] pool3/3x3_s2_pool3/3x3_s2_0_split -> pool3/3x3_s2_pool3/3x3_s2_0_split_0
I0714 22:09:52.504660 24107 net.cpp:399] pool3/3x3_s2_pool3/3x3_s2_0_split -> pool3/3x3_s2_pool3/3x3_s2_0_split_1
I0714 22:09:52.504670 24107 net.cpp:399] pool3/3x3_s2_pool3/3x3_s2_0_split -> pool3/3x3_s2_pool3/3x3_s2_0_split_2
I0714 22:09:52.504679 24107 net.cpp:399] pool3/3x3_s2_pool3/3x3_s2_0_split -> pool3/3x3_s2_pool3/3x3_s2_0_split_3
I0714 22:09:52.504698 24103 net.cpp:141] Setting up inception_3b/relu_pool_proj
I0714 22:09:52.504715 24103 net.cpp:148] Top shape: 10 64 28 28 (501760)
I0714 22:09:52.504720 24103 net.cpp:156] Memory required for data: 322129920
I0714 22:09:52.504726 24103 layer_factory.hpp:77] Creating layer inception_3b/output
I0714 22:09:52.504736 24103 net.cpp:91] Creating Layer inception_3b/output
I0714 22:09:52.504742 24103 net.cpp:425] inception_3b/output <- inception_3b/1x1
I0714 22:09:52.504750 24103 net.cpp:425] inception_3b/output <- inception_3b/3x3
I0714 22:09:52.504755 24103 net.cpp:425] inception_3b/output <- inception_3b/5x5
I0714 22:09:52.504761 24103 net.cpp:425] inception_3b/output <- inception_3b/pool_proj
I0714 22:09:52.504770 24103 net.cpp:399] inception_3b/output -> inception_3b/output
I0714 22:09:52.504912 24103 net.cpp:141] Setting up inception_3b/output
I0714 22:09:52.504925 24103 net.cpp:148] Top shape: 10 480 28 28 (3763200)
I0714 22:09:52.504930 24103 net.cpp:156] Memory required for data: 337182720
I0714 22:09:52.504936 24103 layer_factory.hpp:77] Creating layer pool3/3x3_s2
I0714 22:09:52.504941 24107 net.cpp:141] Setting up pool3/3x3_s2_pool3/3x3_s2_0_split
I0714 22:09:52.504945 24103 net.cpp:91] Creating Layer pool3/3x3_s2
I0714 22:09:52.504958 24107 net.cpp:148] Top shape: 10 480 14 14 (940800)
I0714 22:09:52.504959 24103 net.cpp:425] pool3/3x3_s2 <- inception_3b/output
I0714 22:09:52.504966 24107 net.cpp:148] Top shape: 10 480 14 14 (940800)
I0714 22:09:52.504971 24107 net.cpp:148] Top shape: 10 480 14 14 (940800)
I0714 22:09:52.504972 24103 net.cpp:399] pool3/3x3_s2 -> pool3/3x3_s2
I0714 22:09:52.504977 24107 net.cpp:148] Top shape: 10 480 14 14 (940800)
I0714 22:09:52.504982 24107 net.cpp:156] Memory required for data: 355998720
I0714 22:09:52.504988 24107 layer_factory.hpp:77] Creating layer inception_4a/1x1
I0714 22:09:52.505007 24107 net.cpp:91] Creating Layer inception_4a/1x1
I0714 22:09:52.505012 24107 net.cpp:425] inception_4a/1x1 <- pool3/3x3_s2_pool3/3x3_s2_0_split_0
I0714 22:09:52.505026 24107 net.cpp:399] inception_4a/1x1 -> inception_4a/1x1
I0714 22:09:52.505123 24103 net.cpp:141] Setting up pool3/3x3_s2
I0714 22:09:52.505136 24103 net.cpp:148] Top shape: 10 480 14 14 (940800)
I0714 22:09:52.505141 24103 net.cpp:156] Memory required for data: 340945920
I0714 22:09:52.505149 24103 layer_factory.hpp:77] Creating layer pool3/3x3_s2_pool3/3x3_s2_0_split
I0714 22:09:52.505159 24103 net.cpp:91] Creating Layer pool3/3x3_s2_pool3/3x3_s2_0_split
I0714 22:09:52.505164 24103 net.cpp:425] pool3/3x3_s2_pool3/3x3_s2_0_split <- pool3/3x3_s2
I0714 22:09:52.505180 24103 net.cpp:399] pool3/3x3_s2_pool3/3x3_s2_0_split -> pool3/3x3_s2_pool3/3x3_s2_0_split_0
I0714 22:09:52.505192 24103 net.cpp:399] pool3/3x3_s2_pool3/3x3_s2_0_split -> pool3/3x3_s2_pool3/3x3_s2_0_split_1
I0714 22:09:52.505200 24103 net.cpp:399] pool3/3x3_s2_pool3/3x3_s2_0_split -> pool3/3x3_s2_pool3/3x3_s2_0_split_2
I0714 22:09:52.505209 24103 net.cpp:399] pool3/3x3_s2_pool3/3x3_s2_0_split -> pool3/3x3_s2_pool3/3x3_s2_0_split_3
I0714 22:09:52.505594 24103 net.cpp:141] Setting up pool3/3x3_s2_pool3/3x3_s2_0_split
I0714 22:09:52.505607 24103 net.cpp:148] Top shape: 10 480 14 14 (940800)
I0714 22:09:52.505614 24103 net.cpp:148] Top shape: 10 480 14 14 (940800)
I0714 22:09:52.505620 24103 net.cpp:148] Top shape: 10 480 14 14 (940800)
I0714 22:09:52.505625 24103 net.cpp:148] Top shape: 10 480 14 14 (940800)
I0714 22:09:52.505630 24103 net.cpp:156] Memory required for data: 355998720
I0714 22:09:52.505635 24103 layer_factory.hpp:77] Creating layer inception_4a/1x1
I0714 22:09:52.505651 24103 net.cpp:91] Creating Layer inception_4a/1x1
I0714 22:09:52.505658 24103 net.cpp:425] inception_4a/1x1 <- pool3/3x3_s2_pool3/3x3_s2_0_split_0
I0714 22:09:52.505671 24103 net.cpp:399] inception_4a/1x1 -> inception_4a/1x1
I0714 22:09:52.510885 24107 net.cpp:141] Setting up inception_4a/1x1
I0714 22:09:52.510906 24107 net.cpp:148] Top shape: 10 192 14 14 (376320)
I0714 22:09:52.510913 24107 net.cpp:156] Memory required for data: 357504000
I0714 22:09:52.510923 24107 layer_factory.hpp:77] Creating layer inception_4a/relu_1x1
I0714 22:09:52.510936 24107 net.cpp:91] Creating Layer inception_4a/relu_1x1
I0714 22:09:52.510942 24107 net.cpp:425] inception_4a/relu_1x1 <- inception_4a/1x1
I0714 22:09:52.510951 24107 net.cpp:386] inception_4a/relu_1x1 -> inception_4a/1x1 (in-place)
I0714 22:09:52.511013 24103 net.cpp:141] Setting up inception_4a/1x1
I0714 22:09:52.511030 24103 net.cpp:148] Top shape: 10 192 14 14 (376320)
I0714 22:09:52.511035 24103 net.cpp:156] Memory required for data: 357504000
I0714 22:09:52.511047 24103 layer_factory.hpp:77] Creating layer inception_4a/relu_1x1
I0714 22:09:52.511056 24103 net.cpp:91] Creating Layer inception_4a/relu_1x1
I0714 22:09:52.511064 24103 net.cpp:425] inception_4a/relu_1x1 <- inception_4a/1x1
I0714 22:09:52.511083 24103 net.cpp:386] inception_4a/relu_1x1 -> inception_4a/1x1 (in-place)
I0714 22:09:52.511346 24107 net.cpp:141] Setting up inception_4a/relu_1x1
I0714 22:09:52.511361 24107 net.cpp:148] Top shape: 10 192 14 14 (376320)
I0714 22:09:52.511366 24107 net.cpp:156] Memory required for data: 359009280
I0714 22:09:52.511374 24107 layer_factory.hpp:77] Creating layer inception_4a/3x3_reduce
I0714 22:09:52.511392 24107 net.cpp:91] Creating Layer inception_4a/3x3_reduce
I0714 22:09:52.511399 24107 net.cpp:425] inception_4a/3x3_reduce <- pool3/3x3_s2_pool3/3x3_s2_0_split_1
I0714 22:09:52.511414 24107 net.cpp:399] inception_4a/3x3_reduce -> inception_4a/3x3_reduce
I0714 22:09:52.511440 24103 net.cpp:141] Setting up inception_4a/relu_1x1
I0714 22:09:52.511454 24103 net.cpp:148] Top shape: 10 192 14 14 (376320)
I0714 22:09:52.511461 24103 net.cpp:156] Memory required for data: 359009280
I0714 22:09:52.511466 24103 layer_factory.hpp:77] Creating layer inception_4a/3x3_reduce
I0714 22:09:52.511492 24103 net.cpp:91] Creating Layer inception_4a/3x3_reduce
I0714 22:09:52.511499 24103 net.cpp:425] inception_4a/3x3_reduce <- pool3/3x3_s2_pool3/3x3_s2_0_split_1
I0714 22:09:52.511510 24103 net.cpp:399] inception_4a/3x3_reduce -> inception_4a/3x3_reduce
I0714 22:09:52.516000 24107 net.cpp:141] Setting up inception_4a/3x3_reduce
I0714 22:09:52.516021 24107 net.cpp:148] Top shape: 10 96 14 14 (188160)
I0714 22:09:52.516026 24107 net.cpp:156] Memory required for data: 359761920
I0714 22:09:52.516049 24107 layer_factory.hpp:77] Creating layer inception_4a/relu_3x3_reduce
I0714 22:09:52.516060 24107 net.cpp:91] Creating Layer inception_4a/relu_3x3_reduce
I0714 22:09:52.516067 24107 net.cpp:425] inception_4a/relu_3x3_reduce <- inception_4a/3x3_reduce
I0714 22:09:52.516077 24107 net.cpp:386] inception_4a/relu_3x3_reduce -> inception_4a/3x3_reduce (in-place)
I0714 22:09:52.516376 24103 net.cpp:141] Setting up inception_4a/3x3_reduce
I0714 22:09:52.516392 24103 net.cpp:148] Top shape: 10 96 14 14 (188160)
I0714 22:09:52.516397 24103 net.cpp:156] Memory required for data: 359761920
I0714 22:09:52.516422 24103 layer_factory.hpp:77] Creating layer inception_4a/relu_3x3_reduce
I0714 22:09:52.516439 24103 net.cpp:91] Creating Layer inception_4a/relu_3x3_reduce
I0714 22:09:52.516448 24103 net.cpp:425] inception_4a/relu_3x3_reduce <- inception_4a/3x3_reduce
I0714 22:09:52.516448 24107 net.cpp:141] Setting up inception_4a/relu_3x3_reduce
I0714 22:09:52.516455 24103 net.cpp:386] inception_4a/relu_3x3_reduce -> inception_4a/3x3_reduce (in-place)
I0714 22:09:52.516463 24107 net.cpp:148] Top shape: 10 96 14 14 (188160)
I0714 22:09:52.516468 24107 net.cpp:156] Memory required for data: 360514560
I0714 22:09:52.516474 24107 layer_factory.hpp:77] Creating layer inception_4a/3x3
I0714 22:09:52.516490 24107 net.cpp:91] Creating Layer inception_4a/3x3
I0714 22:09:52.516496 24107 net.cpp:425] inception_4a/3x3 <- inception_4a/3x3_reduce
I0714 22:09:52.516515 24107 net.cpp:399] inception_4a/3x3 -> inception_4a/3x3
I0714 22:09:52.516872 24103 net.cpp:141] Setting up inception_4a/relu_3x3_reduce
I0714 22:09:52.516886 24103 net.cpp:148] Top shape: 10 96 14 14 (188160)
I0714 22:09:52.516891 24103 net.cpp:156] Memory required for data: 360514560
I0714 22:09:52.516897 24103 layer_factory.hpp:77] Creating layer inception_4a/3x3
I0714 22:09:52.516914 24103 net.cpp:91] Creating Layer inception_4a/3x3
I0714 22:09:52.516921 24103 net.cpp:425] inception_4a/3x3 <- inception_4a/3x3_reduce
I0714 22:09:52.516932 24103 net.cpp:399] inception_4a/3x3 -> inception_4a/3x3
I0714 22:09:52.524654 24107 net.cpp:141] Setting up inception_4a/3x3
I0714 22:09:52.524675 24107 net.cpp:148] Top shape: 10 208 14 14 (407680)
I0714 22:09:52.524682 24107 net.cpp:156] Memory required for data: 362145280
I0714 22:09:52.524693 24107 layer_factory.hpp:77] Creating layer inception_4a/relu_3x3
I0714 22:09:52.524718 24107 net.cpp:91] Creating Layer inception_4a/relu_3x3
I0714 22:09:52.524724 24107 net.cpp:425] inception_4a/relu_3x3 <- inception_4a/3x3
I0714 22:09:52.524732 24107 net.cpp:386] inception_4a/relu_3x3 -> inception_4a/3x3 (in-place)
I0714 22:09:52.525786 24107 net.cpp:141] Setting up inception_4a/relu_3x3
I0714 22:09:52.525804 24107 net.cpp:148] Top shape: 10 208 14 14 (407680)
I0714 22:09:52.525810 24107 net.cpp:156] Memory required for data: 363776000
I0714 22:09:52.525815 24107 layer_factory.hpp:77] Creating layer inception_4a/5x5_reduce
I0714 22:09:52.525842 24107 net.cpp:91] Creating Layer inception_4a/5x5_reduce
I0714 22:09:52.525849 24107 net.cpp:425] inception_4a/5x5_reduce <- pool3/3x3_s2_pool3/3x3_s2_0_split_2
I0714 22:09:52.525864 24107 net.cpp:399] inception_4a/5x5_reduce -> inception_4a/5x5_reduce
I0714 22:09:52.525908 24103 net.cpp:141] Setting up inception_4a/3x3
I0714 22:09:52.525936 24103 net.cpp:148] Top shape: 10 208 14 14 (407680)
I0714 22:09:52.525943 24103 net.cpp:156] Memory required for data: 362145280
I0714 22:09:52.525954 24103 layer_factory.hpp:77] Creating layer inception_4a/relu_3x3
I0714 22:09:52.525964 24103 net.cpp:91] Creating Layer inception_4a/relu_3x3
I0714 22:09:52.525969 24103 net.cpp:425] inception_4a/relu_3x3 <- inception_4a/3x3
I0714 22:09:52.525977 24103 net.cpp:386] inception_4a/relu_3x3 -> inception_4a/3x3 (in-place)
I0714 22:09:52.526986 24103 net.cpp:141] Setting up inception_4a/relu_3x3
I0714 22:09:52.527004 24103 net.cpp:148] Top shape: 10 208 14 14 (407680)
I0714 22:09:52.527010 24103 net.cpp:156] Memory required for data: 363776000
I0714 22:09:52.527019 24103 layer_factory.hpp:77] Creating layer inception_4a/5x5_reduce
I0714 22:09:52.527046 24103 net.cpp:91] Creating Layer inception_4a/5x5_reduce
I0714 22:09:52.527055 24103 net.cpp:425] inception_4a/5x5_reduce <- pool3/3x3_s2_pool3/3x3_s2_0_split_2
I0714 22:09:52.527065 24103 net.cpp:399] inception_4a/5x5_reduce -> inception_4a/5x5_reduce
I0714 22:09:52.531472 24107 net.cpp:141] Setting up inception_4a/5x5_reduce
I0714 22:09:52.531494 24107 net.cpp:148] Top shape: 10 16 14 14 (31360)
I0714 22:09:52.531500 24107 net.cpp:156] Memory required for data: 363901440
I0714 22:09:52.531512 24107 layer_factory.hpp:77] Creating layer inception_4a/relu_5x5_reduce
I0714 22:09:52.531520 24107 net.cpp:91] Creating Layer inception_4a/relu_5x5_reduce
I0714 22:09:52.531527 24107 net.cpp:425] inception_4a/relu_5x5_reduce <- inception_4a/5x5_reduce
I0714 22:09:52.531535 24107 net.cpp:386] inception_4a/relu_5x5_reduce -> inception_4a/5x5_reduce (in-place)
I0714 22:09:52.532002 24107 net.cpp:141] Setting up inception_4a/relu_5x5_reduce
I0714 22:09:52.532019 24107 net.cpp:148] Top shape: 10 16 14 14 (31360)
I0714 22:09:52.532024 24107 net.cpp:156] Memory required for data: 364026880
I0714 22:09:52.532030 24107 layer_factory.hpp:77] Creating layer inception_4a/5x5
I0714 22:09:52.532050 24107 net.cpp:91] Creating Layer inception_4a/5x5
I0714 22:09:52.532058 24107 net.cpp:425] inception_4a/5x5 <- inception_4a/5x5_reduce
I0714 22:09:52.532071 24107 net.cpp:399] inception_4a/5x5 -> inception_4a/5x5
I0714 22:09:52.532070 24103 net.cpp:141] Setting up inception_4a/5x5_reduce
I0714 22:09:52.532088 24103 net.cpp:148] Top shape: 10 16 14 14 (31360)
I0714 22:09:52.532094 24103 net.cpp:156] Memory required for data: 363901440
I0714 22:09:52.532104 24103 layer_factory.hpp:77] Creating layer inception_4a/relu_5x5_reduce
I0714 22:09:52.532114 24103 net.cpp:91] Creating Layer inception_4a/relu_5x5_reduce
I0714 22:09:52.532121 24103 net.cpp:425] inception_4a/relu_5x5_reduce <- inception_4a/5x5_reduce
I0714 22:09:52.532130 24103 net.cpp:386] inception_4a/relu_5x5_reduce -> inception_4a/5x5_reduce (in-place)
I0714 22:09:52.532589 24103 net.cpp:141] Setting up inception_4a/relu_5x5_reduce
I0714 22:09:52.532603 24103 net.cpp:148] Top shape: 10 16 14 14 (31360)
I0714 22:09:52.532608 24103 net.cpp:156] Memory required for data: 364026880
I0714 22:09:52.532613 24103 layer_factory.hpp:77] Creating layer inception_4a/5x5
I0714 22:09:52.532634 24103 net.cpp:91] Creating Layer inception_4a/5x5
I0714 22:09:52.532640 24103 net.cpp:425] inception_4a/5x5 <- inception_4a/5x5_reduce
I0714 22:09:52.532655 24103 net.cpp:399] inception_4a/5x5 -> inception_4a/5x5
I0714 22:09:52.536331 24107 net.cpp:141] Setting up inception_4a/5x5
I0714 22:09:52.536350 24107 net.cpp:148] Top shape: 10 48 14 14 (94080)
I0714 22:09:52.536356 24107 net.cpp:156] Memory required for data: 364403200
I0714 22:09:52.536368 24107 layer_factory.hpp:77] Creating layer inception_4a/relu_5x5
I0714 22:09:52.536378 24107 net.cpp:91] Creating Layer inception_4a/relu_5x5
I0714 22:09:52.536386 24107 net.cpp:425] inception_4a/relu_5x5 <- inception_4a/5x5
I0714 22:09:52.536397 24107 net.cpp:386] inception_4a/relu_5x5 -> inception_4a/5x5 (in-place)
I0714 22:09:52.536697 24107 net.cpp:141] Setting up inception_4a/relu_5x5
I0714 22:09:52.536712 24107 net.cpp:148] Top shape: 10 48 14 14 (94080)
I0714 22:09:52.536718 24107 net.cpp:156] Memory required for data: 364779520
I0714 22:09:52.536725 24107 layer_factory.hpp:77] Creating layer inception_4a/pool
I0714 22:09:52.536736 24107 net.cpp:91] Creating Layer inception_4a/pool
I0714 22:09:52.536741 24107 net.cpp:425] inception_4a/pool <- pool3/3x3_s2_pool3/3x3_s2_0_split_3
I0714 22:09:52.536751 24107 net.cpp:399] inception_4a/pool -> inception_4a/pool
I0714 22:09:52.537253 24107 net.cpp:141] Setting up inception_4a/pool
I0714 22:09:52.537266 24107 net.cpp:148] Top shape: 10 480 14 14 (940800)
I0714 22:09:52.537271 24107 net.cpp:156] Memory required for data: 368542720
I0714 22:09:52.537277 24107 layer_factory.hpp:77] Creating layer inception_4a/pool_proj
I0714 22:09:52.537295 24107 net.cpp:91] Creating Layer inception_4a/pool_proj
I0714 22:09:52.537302 24107 net.cpp:425] inception_4a/pool_proj <- inception_4a/pool
I0714 22:09:52.537318 24107 net.cpp:399] inception_4a/pool_proj -> inception_4a/pool_proj
I0714 22:09:52.537899 24103 net.cpp:141] Setting up inception_4a/5x5
I0714 22:09:52.537917 24103 net.cpp:148] Top shape: 10 48 14 14 (94080)
I0714 22:09:52.537924 24103 net.cpp:156] Memory required for data: 364403200
I0714 22:09:52.537933 24103 layer_factory.hpp:77] Creating layer inception_4a/relu_5x5
I0714 22:09:52.537948 24103 net.cpp:91] Creating Layer inception_4a/relu_5x5
I0714 22:09:52.537955 24103 net.cpp:425] inception_4a/relu_5x5 <- inception_4a/5x5
I0714 22:09:52.537964 24103 net.cpp:386] inception_4a/relu_5x5 -> inception_4a/5x5 (in-place)
I0714 22:09:52.538348 24103 net.cpp:141] Setting up inception_4a/relu_5x5
I0714 22:09:52.538362 24103 net.cpp:148] Top shape: 10 48 14 14 (94080)
I0714 22:09:52.538367 24103 net.cpp:156] Memory required for data: 364779520
I0714 22:09:52.538373 24103 layer_factory.hpp:77] Creating layer inception_4a/pool
I0714 22:09:52.538385 24103 net.cpp:91] Creating Layer inception_4a/pool
I0714 22:09:52.538393 24103 net.cpp:425] inception_4a/pool <- pool3/3x3_s2_pool3/3x3_s2_0_split_3
I0714 22:09:52.538404 24103 net.cpp:399] inception_4a/pool -> inception_4a/pool
I0714 22:09:52.538524 24103 net.cpp:141] Setting up inception_4a/pool
I0714 22:09:52.538537 24103 net.cpp:148] Top shape: 10 480 14 14 (940800)
I0714 22:09:52.538542 24103 net.cpp:156] Memory required for data: 368542720
I0714 22:09:52.538547 24103 layer_factory.hpp:77] Creating layer inception_4a/pool_proj
I0714 22:09:52.538564 24103 net.cpp:91] Creating Layer inception_4a/pool_proj
I0714 22:09:52.538571 24103 net.cpp:425] inception_4a/pool_proj <- inception_4a/pool
I0714 22:09:52.538583 24103 net.cpp:399] inception_4a/pool_proj -> inception_4a/pool_proj
I0714 22:09:52.542275 24107 net.cpp:141] Setting up inception_4a/pool_proj
I0714 22:09:52.542304 24107 net.cpp:148] Top shape: 10 64 14 14 (125440)
I0714 22:09:52.542309 24107 net.cpp:156] Memory required for data: 369044480
I0714 22:09:52.542330 24107 layer_factory.hpp:77] Creating layer inception_4a/relu_pool_proj
I0714 22:09:52.542340 24107 net.cpp:91] Creating Layer inception_4a/relu_pool_proj
I0714 22:09:52.542346 24107 net.cpp:425] inception_4a/relu_pool_proj <- inception_4a/pool_proj
I0714 22:09:52.542356 24107 net.cpp:386] inception_4a/relu_pool_proj -> inception_4a/pool_proj (in-place)
I0714 22:09:52.543736 24107 net.cpp:141] Setting up inception_4a/relu_pool_proj
I0714 22:09:52.543754 24107 net.cpp:148] Top shape: 10 64 14 14 (125440)
I0714 22:09:52.543761 24107 net.cpp:156] Memory required for data: 369546240
I0714 22:09:52.543769 24107 layer_factory.hpp:77] Creating layer inception_4a/output
I0714 22:09:52.543781 24107 net.cpp:91] Creating Layer inception_4a/output
I0714 22:09:52.543787 24107 net.cpp:425] inception_4a/output <- inception_4a/1x1
I0714 22:09:52.543794 24107 net.cpp:425] inception_4a/output <- inception_4a/3x3
I0714 22:09:52.543800 24107 net.cpp:425] inception_4a/output <- inception_4a/5x5
I0714 22:09:52.543807 24107 net.cpp:425] inception_4a/output <- inception_4a/pool_proj
I0714 22:09:52.543813 24107 net.cpp:399] inception_4a/output -> inception_4a/output
I0714 22:09:52.543877 24103 net.cpp:141] Setting up inception_4a/pool_proj
I0714 22:09:52.543895 24103 net.cpp:148] Top shape: 10 64 14 14 (125440)
I0714 22:09:52.543900 24103 net.cpp:156] Memory required for data: 369044480
I0714 22:09:52.543910 24103 layer_factory.hpp:77] Creating layer inception_4a/relu_pool_proj
I0714 22:09:52.543915 24107 net.cpp:141] Setting up inception_4a/output
I0714 22:09:52.543923 24103 net.cpp:91] Creating Layer inception_4a/relu_pool_proj
I0714 22:09:52.543928 24107 net.cpp:148] Top shape: 10 512 14 14 (1003520)
I0714 22:09:52.543931 24103 net.cpp:425] inception_4a/relu_pool_proj <- inception_4a/pool_proj
I0714 22:09:52.543934 24107 net.cpp:156] Memory required for data: 373560320
I0714 22:09:52.543941 24107 layer_factory.hpp:77] Creating layer inception_4a/output_inception_4a/output_0_split
I0714 22:09:52.543943 24103 net.cpp:386] inception_4a/relu_pool_proj -> inception_4a/pool_proj (in-place)
I0714 22:09:52.543949 24107 net.cpp:91] Creating Layer inception_4a/output_inception_4a/output_0_split
I0714 22:09:52.543956 24107 net.cpp:425] inception_4a/output_inception_4a/output_0_split <- inception_4a/output
I0714 22:09:52.543969 24107 net.cpp:399] inception_4a/output_inception_4a/output_0_split -> inception_4a/output_inception_4a/output_0_split_0
I0714 22:09:52.543980 24107 net.cpp:399] inception_4a/output_inception_4a/output_0_split -> inception_4a/output_inception_4a/output_0_split_1
I0714 22:09:52.543989 24107 net.cpp:399] inception_4a/output_inception_4a/output_0_split -> inception_4a/output_inception_4a/output_0_split_2
I0714 22:09:52.543998 24107 net.cpp:399] inception_4a/output_inception_4a/output_0_split -> inception_4a/output_inception_4a/output_0_split_3
I0714 22:09:52.544911 24103 net.cpp:141] Setting up inception_4a/relu_pool_proj
I0714 22:09:52.544924 24107 net.cpp:141] Setting up inception_4a/output_inception_4a/output_0_split
I0714 22:09:52.544926 24103 net.cpp:148] Top shape: 10 64 14 14 (125440)
I0714 22:09:52.544939 24107 net.cpp:148] Top shape: 10 512 14 14 (1003520)
I0714 22:09:52.544939 24103 net.cpp:156] Memory required for data: 369546240
I0714 22:09:52.544948 24107 net.cpp:148] Top shape: 10 512 14 14 (1003520)
I0714 22:09:52.544950 24103 layer_factory.hpp:77] Creating layer inception_4a/output
I0714 22:09:52.544955 24107 net.cpp:148] Top shape: 10 512 14 14 (1003520)
I0714 22:09:52.544961 24107 net.cpp:148] Top shape: 10 512 14 14 (1003520)
I0714 22:09:52.544962 24103 net.cpp:91] Creating Layer inception_4a/output
I0714 22:09:52.544966 24107 net.cpp:156] Memory required for data: 389616640
I0714 22:09:52.544970 24103 net.cpp:425] inception_4a/output <- inception_4a/1x1
I0714 22:09:52.544972 24107 layer_factory.hpp:77] Creating layer inception_4b/1x1
I0714 22:09:52.544977 24103 net.cpp:425] inception_4a/output <- inception_4a/3x3
I0714 22:09:52.544983 24103 net.cpp:425] inception_4a/output <- inception_4a/5x5
I0714 22:09:52.544989 24103 net.cpp:425] inception_4a/output <- inception_4a/pool_proj
I0714 22:09:52.544991 24107 net.cpp:91] Creating Layer inception_4b/1x1
I0714 22:09:52.544997 24107 net.cpp:425] inception_4b/1x1 <- inception_4a/output_inception_4a/output_0_split_0
I0714 22:09:52.545001 24103 net.cpp:399] inception_4a/output -> inception_4a/output
I0714 22:09:52.545009 24107 net.cpp:399] inception_4b/1x1 -> inception_4b/1x1
I0714 22:09:52.545104 24103 net.cpp:141] Setting up inception_4a/output
I0714 22:09:52.545116 24103 net.cpp:148] Top shape: 10 512 14 14 (1003520)
I0714 22:09:52.545121 24103 net.cpp:156] Memory required for data: 373560320
I0714 22:09:52.545131 24103 layer_factory.hpp:77] Creating layer inception_4a/output_inception_4a/output_0_split
I0714 22:09:52.545141 24103 net.cpp:91] Creating Layer inception_4a/output_inception_4a/output_0_split
I0714 22:09:52.545146 24103 net.cpp:425] inception_4a/output_inception_4a/output_0_split <- inception_4a/output
I0714 22:09:52.545158 24103 net.cpp:399] inception_4a/output_inception_4a/output_0_split -> inception_4a/output_inception_4a/output_0_split_0
I0714 22:09:52.545171 24103 net.cpp:399] inception_4a/output_inception_4a/output_0_split -> inception_4a/output_inception_4a/output_0_split_1
I0714 22:09:52.545179 24103 net.cpp:399] inception_4a/output_inception_4a/output_0_split -> inception_4a/output_inception_4a/output_0_split_2
I0714 22:09:52.545189 24103 net.cpp:399] inception_4a/output_inception_4a/output_0_split -> inception_4a/output_inception_4a/output_0_split_3
I0714 22:09:52.545596 24103 net.cpp:141] Setting up inception_4a/output_inception_4a/output_0_split
I0714 22:09:52.545611 24103 net.cpp:148] Top shape: 10 512 14 14 (1003520)
I0714 22:09:52.545619 24103 net.cpp:148] Top shape: 10 512 14 14 (1003520)
I0714 22:09:52.545624 24103 net.cpp:148] Top shape: 10 512 14 14 (1003520)
I0714 22:09:52.545630 24103 net.cpp:148] Top shape: 10 512 14 14 (1003520)
I0714 22:09:52.545634 24103 net.cpp:156] Memory required for data: 389616640
I0714 22:09:52.545640 24103 layer_factory.hpp:77] Creating layer inception_4b/1x1
I0714 22:09:52.545655 24103 net.cpp:91] Creating Layer inception_4b/1x1
I0714 22:09:52.545661 24103 net.cpp:425] inception_4b/1x1 <- inception_4a/output_inception_4a/output_0_split_0
I0714 22:09:52.545675 24103 net.cpp:399] inception_4b/1x1 -> inception_4b/1x1
I0714 22:09:52.549556 24107 net.cpp:141] Setting up inception_4b/1x1
I0714 22:09:52.549576 24107 net.cpp:148] Top shape: 10 160 14 14 (313600)
I0714 22:09:52.549582 24107 net.cpp:156] Memory required for data: 390871040
I0714 22:09:52.549592 24107 layer_factory.hpp:77] Creating layer inception_4b/relu_1x1
I0714 22:09:52.549605 24107 net.cpp:91] Creating Layer inception_4b/relu_1x1
I0714 22:09:52.549612 24107 net.cpp:425] inception_4b/relu_1x1 <- inception_4b/1x1
I0714 22:09:52.549620 24107 net.cpp:386] inception_4b/relu_1x1 -> inception_4b/1x1 (in-place)
I0714 22:09:52.549962 24103 net.cpp:141] Setting up inception_4b/1x1
I0714 22:09:52.549989 24103 net.cpp:148] Top shape: 10 160 14 14 (313600)
I0714 22:09:52.549996 24103 net.cpp:156] Memory required for data: 390871040
I0714 22:09:52.549998 24107 net.cpp:141] Setting up inception_4b/relu_1x1
I0714 22:09:52.550006 24103 layer_factory.hpp:77] Creating layer inception_4b/relu_1x1
I0714 22:09:52.550014 24107 net.cpp:148] Top shape: 10 160 14 14 (313600)
I0714 22:09:52.550019 24107 net.cpp:156] Memory required for data: 392125440
I0714 22:09:52.550019 24103 net.cpp:91] Creating Layer inception_4b/relu_1x1
I0714 22:09:52.550027 24103 net.cpp:425] inception_4b/relu_1x1 <- inception_4b/1x1
I0714 22:09:52.550027 24107 layer_factory.hpp:77] Creating layer inception_4b/3x3_reduce
I0714 22:09:52.550035 24103 net.cpp:386] inception_4b/relu_1x1 -> inception_4b/1x1 (in-place)
I0714 22:09:52.550048 24107 net.cpp:91] Creating Layer inception_4b/3x3_reduce
I0714 22:09:52.550055 24107 net.cpp:425] inception_4b/3x3_reduce <- inception_4a/output_inception_4a/output_0_split_1
I0714 22:09:52.550072 24107 net.cpp:399] inception_4b/3x3_reduce -> inception_4b/3x3_reduce
I0714 22:09:52.550506 24103 net.cpp:141] Setting up inception_4b/relu_1x1
I0714 22:09:52.550520 24103 net.cpp:148] Top shape: 10 160 14 14 (313600)
I0714 22:09:52.550526 24103 net.cpp:156] Memory required for data: 392125440
I0714 22:09:52.550531 24103 layer_factory.hpp:77] Creating layer inception_4b/3x3_reduce
I0714 22:09:52.550549 24103 net.cpp:91] Creating Layer inception_4b/3x3_reduce
I0714 22:09:52.550556 24103 net.cpp:425] inception_4b/3x3_reduce <- inception_4a/output_inception_4a/output_0_split_1
I0714 22:09:52.550570 24103 net.cpp:399] inception_4b/3x3_reduce -> inception_4b/3x3_reduce
I0714 22:09:52.554838 24107 net.cpp:141] Setting up inception_4b/3x3_reduce
I0714 22:09:52.554858 24107 net.cpp:148] Top shape: 10 112 14 14 (219520)
I0714 22:09:52.554864 24107 net.cpp:156] Memory required for data: 393003520
I0714 22:09:52.554874 24107 layer_factory.hpp:77] Creating layer inception_4b/relu_3x3_reduce
I0714 22:09:52.554888 24107 net.cpp:91] Creating Layer inception_4b/relu_3x3_reduce
I0714 22:09:52.554895 24107 net.cpp:425] inception_4b/relu_3x3_reduce <- inception_4b/3x3_reduce
I0714 22:09:52.554908 24107 net.cpp:386] inception_4b/relu_3x3_reduce -> inception_4b/3x3_reduce (in-place)
I0714 22:09:52.555245 24103 net.cpp:141] Setting up inception_4b/3x3_reduce
I0714 22:09:52.555261 24103 net.cpp:148] Top shape: 10 112 14 14 (219520)
I0714 22:09:52.555268 24103 net.cpp:156] Memory required for data: 393003520
I0714 22:09:52.555277 24103 layer_factory.hpp:77] Creating layer inception_4b/relu_3x3_reduce
I0714 22:09:52.555287 24107 net.cpp:141] Setting up inception_4b/relu_3x3_reduce
I0714 22:09:52.555291 24103 net.cpp:91] Creating Layer inception_4b/relu_3x3_reduce
I0714 22:09:52.555305 24107 net.cpp:148] Top shape: 10 112 14 14 (219520)
I0714 22:09:52.555306 24103 net.cpp:425] inception_4b/relu_3x3_reduce <- inception_4b/3x3_reduce
I0714 22:09:52.555310 24107 net.cpp:156] Memory required for data: 393881600
I0714 22:09:52.555316 24103 net.cpp:386] inception_4b/relu_3x3_reduce -> inception_4b/3x3_reduce (in-place)
I0714 22:09:52.555316 24107 layer_factory.hpp:77] Creating layer inception_4b/3x3
I0714 22:09:52.555349 24107 net.cpp:91] Creating Layer inception_4b/3x3
I0714 22:09:52.555358 24107 net.cpp:425] inception_4b/3x3 <- inception_4b/3x3_reduce
I0714 22:09:52.555368 24107 net.cpp:399] inception_4b/3x3 -> inception_4b/3x3
I0714 22:09:52.555745 24103 net.cpp:141] Setting up inception_4b/relu_3x3_reduce
I0714 22:09:52.555759 24103 net.cpp:148] Top shape: 10 112 14 14 (219520)
I0714 22:09:52.555764 24103 net.cpp:156] Memory required for data: 393881600
I0714 22:09:52.555770 24103 layer_factory.hpp:77] Creating layer inception_4b/3x3
I0714 22:09:52.555791 24103 net.cpp:91] Creating Layer inception_4b/3x3
I0714 22:09:52.555799 24103 net.cpp:425] inception_4b/3x3 <- inception_4b/3x3_reduce
I0714 22:09:52.555811 24103 net.cpp:399] inception_4b/3x3 -> inception_4b/3x3
I0714 22:09:52.564429 24107 net.cpp:141] Setting up inception_4b/3x3
I0714 22:09:52.564452 24107 net.cpp:148] Top shape: 10 224 14 14 (439040)
I0714 22:09:52.564458 24107 net.cpp:156] Memory required for data: 395637760
I0714 22:09:52.564478 24107 layer_factory.hpp:77] Creating layer inception_4b/relu_3x3
I0714 22:09:52.564491 24107 net.cpp:91] Creating Layer inception_4b/relu_3x3
I0714 22:09:52.564498 24107 net.cpp:425] inception_4b/relu_3x3 <- inception_4b/3x3
I0714 22:09:52.564512 24107 net.cpp:386] inception_4b/relu_3x3 -> inception_4b/3x3 (in-place)
I0714 22:09:52.565920 24107 net.cpp:141] Setting up inception_4b/relu_3x3
I0714 22:09:52.565938 24107 net.cpp:148] Top shape: 10 224 14 14 (439040)
I0714 22:09:52.565944 24107 net.cpp:156] Memory required for data: 397393920
I0714 22:09:52.565950 24107 layer_factory.hpp:77] Creating layer inception_4b/5x5_reduce
I0714 22:09:52.565979 24107 net.cpp:91] Creating Layer inception_4b/5x5_reduce
I0714 22:09:52.565987 24107 net.cpp:425] inception_4b/5x5_reduce <- inception_4a/output_inception_4a/output_0_split_2
I0714 22:09:52.566005 24107 net.cpp:399] inception_4b/5x5_reduce -> inception_4b/5x5_reduce
I0714 22:09:52.566058 24103 net.cpp:141] Setting up inception_4b/3x3
I0714 22:09:52.566076 24103 net.cpp:148] Top shape: 10 224 14 14 (439040)
I0714 22:09:52.566082 24103 net.cpp:156] Memory required for data: 395637760
I0714 22:09:52.566092 24103 layer_factory.hpp:77] Creating layer inception_4b/relu_3x3
I0714 22:09:52.566105 24103 net.cpp:91] Creating Layer inception_4b/relu_3x3
I0714 22:09:52.566112 24103 net.cpp:425] inception_4b/relu_3x3 <- inception_4b/3x3
I0714 22:09:52.566121 24103 net.cpp:386] inception_4b/relu_3x3 -> inception_4b/3x3 (in-place)
I0714 22:09:52.567131 24103 net.cpp:141] Setting up inception_4b/relu_3x3
I0714 22:09:52.567148 24103 net.cpp:148] Top shape: 10 224 14 14 (439040)
I0714 22:09:52.567153 24103 net.cpp:156] Memory required for data: 397393920
I0714 22:09:52.567159 24103 layer_factory.hpp:77] Creating layer inception_4b/5x5_reduce
I0714 22:09:52.567194 24103 net.cpp:91] Creating Layer inception_4b/5x5_reduce
I0714 22:09:52.567203 24103 net.cpp:425] inception_4b/5x5_reduce <- inception_4a/output_inception_4a/output_0_split_2
I0714 22:09:52.567216 24103 net.cpp:399] inception_4b/5x5_reduce -> inception_4b/5x5_reduce
I0714 22:09:52.571773 24107 net.cpp:141] Setting up inception_4b/5x5_reduce
I0714 22:09:52.571792 24107 net.cpp:148] Top shape: 10 24 14 14 (47040)
I0714 22:09:52.571799 24107 net.cpp:156] Memory required for data: 397582080
I0714 22:09:52.571810 24107 layer_factory.hpp:77] Creating layer inception_4b/relu_5x5_reduce
I0714 22:09:52.571825 24107 net.cpp:91] Creating Layer inception_4b/relu_5x5_reduce
I0714 22:09:52.571832 24107 net.cpp:425] inception_4b/relu_5x5_reduce <- inception_4b/5x5_reduce
I0714 22:09:52.571841 24107 net.cpp:386] inception_4b/relu_5x5_reduce -> inception_4b/5x5_reduce (in-place)
I0714 22:09:52.572275 24107 net.cpp:141] Setting up inception_4b/relu_5x5_reduce
I0714 22:09:52.572289 24107 net.cpp:148] Top shape: 10 24 14 14 (47040)
I0714 22:09:52.572295 24107 net.cpp:156] Memory required for data: 397770240
I0714 22:09:52.572301 24107 layer_factory.hpp:77] Creating layer inception_4b/5x5
I0714 22:09:52.572324 24107 net.cpp:91] Creating Layer inception_4b/5x5
I0714 22:09:52.572331 24107 net.cpp:425] inception_4b/5x5 <- inception_4b/5x5_reduce
I0714 22:09:52.572345 24107 net.cpp:399] inception_4b/5x5 -> inception_4b/5x5
I0714 22:09:52.572391 24103 net.cpp:141] Setting up inception_4b/5x5_reduce
I0714 22:09:52.572408 24103 net.cpp:148] Top shape: 10 24 14 14 (47040)
I0714 22:09:52.572413 24103 net.cpp:156] Memory required for data: 397582080
I0714 22:09:52.572424 24103 layer_factory.hpp:77] Creating layer inception_4b/relu_5x5_reduce
I0714 22:09:52.572437 24103 net.cpp:91] Creating Layer inception_4b/relu_5x5_reduce
I0714 22:09:52.572443 24103 net.cpp:425] inception_4b/relu_5x5_reduce <- inception_4b/5x5_reduce
I0714 22:09:52.572453 24103 net.cpp:386] inception_4b/relu_5x5_reduce -> inception_4b/5x5_reduce (in-place)
I0714 22:09:52.572880 24103 net.cpp:141] Setting up inception_4b/relu_5x5_reduce
I0714 22:09:52.572893 24103 net.cpp:148] Top shape: 10 24 14 14 (47040)
I0714 22:09:52.572898 24103 net.cpp:156] Memory required for data: 397770240
I0714 22:09:52.572904 24103 layer_factory.hpp:77] Creating layer inception_4b/5x5
I0714 22:09:52.572924 24103 net.cpp:91] Creating Layer inception_4b/5x5
I0714 22:09:52.572932 24103 net.cpp:425] inception_4b/5x5 <- inception_4b/5x5_reduce
I0714 22:09:52.572942 24103 net.cpp:399] inception_4b/5x5 -> inception_4b/5x5
I0714 22:09:52.580313 24107 net.cpp:141] Setting up inception_4b/5x5
I0714 22:09:52.580334 24107 net.cpp:148] Top shape: 10 64 14 14 (125440)
I0714 22:09:52.580340 24107 net.cpp:156] Memory required for data: 398272000
I0714 22:09:52.580354 24107 layer_factory.hpp:77] Creating layer inception_4b/relu_5x5
I0714 22:09:52.580368 24107 net.cpp:91] Creating Layer inception_4b/relu_5x5
I0714 22:09:52.580374 24107 net.cpp:425] inception_4b/relu_5x5 <- inception_4b/5x5
I0714 22:09:52.580384 24107 net.cpp:386] inception_4b/relu_5x5 -> inception_4b/5x5 (in-place)
I0714 22:09:52.580801 24103 net.cpp:141] Setting up inception_4b/5x5
I0714 22:09:52.580817 24103 net.cpp:148] Top shape: 10 64 14 14 (125440)
I0714 22:09:52.580823 24103 net.cpp:156] Memory required for data: 398272000
I0714 22:09:52.580821 24107 net.cpp:141] Setting up inception_4b/relu_5x5
I0714 22:09:52.580835 24103 layer_factory.hpp:77] Creating layer inception_4b/relu_5x5
I0714 22:09:52.580837 24107 net.cpp:148] Top shape: 10 64 14 14 (125440)
I0714 22:09:52.580849 24103 net.cpp:91] Creating Layer inception_4b/relu_5x5
I0714 22:09:52.580849 24107 net.cpp:156] Memory required for data: 398773760
I0714 22:09:52.580859 24103 net.cpp:425] inception_4b/relu_5x5 <- inception_4b/5x5
I0714 22:09:52.580868 24103 net.cpp:386] inception_4b/relu_5x5 -> inception_4b/5x5 (in-place)
I0714 22:09:52.580862 24107 layer_factory.hpp:77] Creating layer inception_4b/pool
I0714 22:09:52.580894 24107 net.cpp:91] Creating Layer inception_4b/pool
I0714 22:09:52.580902 24107 net.cpp:425] inception_4b/pool <- inception_4a/output_inception_4a/output_0_split_3
I0714 22:09:52.580914 24107 net.cpp:399] inception_4b/pool -> inception_4b/pool
I0714 22:09:52.581184 24107 net.cpp:141] Setting up inception_4b/pool
I0714 22:09:52.581197 24107 net.cpp:148] Top shape: 10 512 14 14 (1003520)
I0714 22:09:52.581202 24107 net.cpp:156] Memory required for data: 402787840
I0714 22:09:52.581208 24107 layer_factory.hpp:77] Creating layer inception_4b/pool_proj
I0714 22:09:52.581229 24107 net.cpp:91] Creating Layer inception_4b/pool_proj
I0714 22:09:52.581236 24107 net.cpp:425] inception_4b/pool_proj <- inception_4b/pool
I0714 22:09:52.581246 24107 net.cpp:399] inception_4b/pool_proj -> inception_4b/pool_proj
I0714 22:09:52.581256 24103 net.cpp:141] Setting up inception_4b/relu_5x5
I0714 22:09:52.581270 24103 net.cpp:148] Top shape: 10 64 14 14 (125440)
I0714 22:09:52.581276 24103 net.cpp:156] Memory required for data: 398773760
I0714 22:09:52.581282 24103 layer_factory.hpp:77] Creating layer inception_4b/pool
I0714 22:09:52.581297 24103 net.cpp:91] Creating Layer inception_4b/pool
I0714 22:09:52.581305 24103 net.cpp:425] inception_4b/pool <- inception_4a/output_inception_4a/output_0_split_3
I0714 22:09:52.581313 24103 net.cpp:399] inception_4b/pool -> inception_4b/pool
I0714 22:09:52.581586 24103 net.cpp:141] Setting up inception_4b/pool
I0714 22:09:52.581599 24103 net.cpp:148] Top shape: 10 512 14 14 (1003520)
I0714 22:09:52.581604 24103 net.cpp:156] Memory required for data: 402787840
I0714 22:09:52.581610 24103 layer_factory.hpp:77] Creating layer inception_4b/pool_proj
I0714 22:09:52.581627 24103 net.cpp:91] Creating Layer inception_4b/pool_proj
I0714 22:09:52.581634 24103 net.cpp:425] inception_4b/pool_proj <- inception_4b/pool
I0714 22:09:52.581647 24103 net.cpp:399] inception_4b/pool_proj -> inception_4b/pool_proj
I0714 22:09:52.585495 24107 net.cpp:141] Setting up inception_4b/pool_proj
I0714 22:09:52.585515 24107 net.cpp:148] Top shape: 10 64 14 14 (125440)
I0714 22:09:52.585521 24107 net.cpp:156] Memory required for data: 403289600
I0714 22:09:52.585531 24107 layer_factory.hpp:77] Creating layer inception_4b/relu_pool_proj
I0714 22:09:52.585554 24107 net.cpp:91] Creating Layer inception_4b/relu_pool_proj
I0714 22:09:52.585562 24107 net.cpp:425] inception_4b/relu_pool_proj <- inception_4b/pool_proj
I0714 22:09:52.585573 24107 net.cpp:386] inception_4b/relu_pool_proj -> inception_4b/pool_proj (in-place)
I0714 22:09:52.586563 24107 net.cpp:141] Setting up inception_4b/relu_pool_proj
I0714 22:09:52.586581 24107 net.cpp:148] Top shape: 10 64 14 14 (125440)
I0714 22:09:52.586587 24107 net.cpp:156] Memory required for data: 403791360
I0714 22:09:52.586594 24107 layer_factory.hpp:77] Creating layer inception_4b/output
I0714 22:09:52.586606 24107 net.cpp:91] Creating Layer inception_4b/output
I0714 22:09:52.586613 24107 net.cpp:425] inception_4b/output <- inception_4b/1x1
I0714 22:09:52.586621 24107 net.cpp:425] inception_4b/output <- inception_4b/3x3
I0714 22:09:52.586627 24107 net.cpp:425] inception_4b/output <- inception_4b/5x5
I0714 22:09:52.586632 24107 net.cpp:425] inception_4b/output <- inception_4b/pool_proj
I0714 22:09:52.586642 24107 net.cpp:399] inception_4b/output -> inception_4b/output
I0714 22:09:52.586655 24103 net.cpp:141] Setting up inception_4b/pool_proj
I0714 22:09:52.586671 24103 net.cpp:148] Top shape: 10 64 14 14 (125440)
I0714 22:09:52.586678 24103 net.cpp:156] Memory required for data: 403289600
I0714 22:09:52.586700 24103 layer_factory.hpp:77] Creating layer inception_4b/relu_pool_proj
I0714 22:09:52.586714 24103 net.cpp:91] Creating Layer inception_4b/relu_pool_proj
I0714 22:09:52.586719 24103 net.cpp:425] inception_4b/relu_pool_proj <- inception_4b/pool_proj
I0714 22:09:52.586731 24103 net.cpp:386] inception_4b/relu_pool_proj -> inception_4b/pool_proj (in-place)
I0714 22:09:52.586736 24107 net.cpp:141] Setting up inception_4b/output
I0714 22:09:52.586748 24107 net.cpp:148] Top shape: 10 512 14 14 (1003520)
I0714 22:09:52.586753 24107 net.cpp:156] Memory required for data: 407805440
I0714 22:09:52.586760 24107 layer_factory.hpp:77] Creating layer inception_4b/output_inception_4b/output_0_split
I0714 22:09:52.586768 24107 net.cpp:91] Creating Layer inception_4b/output_inception_4b/output_0_split
I0714 22:09:52.586774 24107 net.cpp:425] inception_4b/output_inception_4b/output_0_split <- inception_4b/output
I0714 22:09:52.586786 24107 net.cpp:399] inception_4b/output_inception_4b/output_0_split -> inception_4b/output_inception_4b/output_0_split_0
I0714 22:09:52.586796 24107 net.cpp:399] inception_4b/output_inception_4b/output_0_split -> inception_4b/output_inception_4b/output_0_split_1
I0714 22:09:52.586805 24107 net.cpp:399] inception_4b/output_inception_4b/output_0_split -> inception_4b/output_inception_4b/output_0_split_2
I0714 22:09:52.586814 24107 net.cpp:399] inception_4b/output_inception_4b/output_0_split -> inception_4b/output_inception_4b/output_0_split_3
I0714 22:09:52.587710 24107 net.cpp:141] Setting up inception_4b/output_inception_4b/output_0_split
I0714 22:09:52.587723 24107 net.cpp:148] Top shape: 10 512 14 14 (1003520)
I0714 22:09:52.587720 24103 net.cpp:141] Setting up inception_4b/relu_pool_proj
I0714 22:09:52.587733 24107 net.cpp:148] Top shape: 10 512 14 14 (1003520)
I0714 22:09:52.587740 24107 net.cpp:148] Top shape: 10 512 14 14 (1003520)
I0714 22:09:52.587743 24103 net.cpp:148] Top shape: 10 64 14 14 (125440)
I0714 22:09:52.587746 24107 net.cpp:148] Top shape: 10 512 14 14 (1003520)
I0714 22:09:52.587749 24103 net.cpp:156] Memory required for data: 403791360
I0714 22:09:52.587751 24107 net.cpp:156] Memory required for data: 423861760
I0714 22:09:52.587755 24103 layer_factory.hpp:77] Creating layer inception_4b/output
I0714 22:09:52.587757 24107 layer_factory.hpp:77] Creating layer inception_4c/1x1
I0714 22:09:52.587769 24103 net.cpp:91] Creating Layer inception_4b/output
I0714 22:09:52.587775 24103 net.cpp:425] inception_4b/output <- inception_4b/1x1
I0714 22:09:52.587777 24107 net.cpp:91] Creating Layer inception_4c/1x1
I0714 22:09:52.587782 24103 net.cpp:425] inception_4b/output <- inception_4b/3x3
…
I0714 22:09:52.715070 24103 net.cpp:156] Memory required for data: 505648640
I0714 22:09:52.715087 24103 layer_factory.hpp:77] Creating layer inception_4e/5x5_reduce
I0714 22:09:52.715106 24103 net.cpp:91] Creating Layer inception_4e/5x5_reduce
I0714 22:09:52.715114 24103 net.cpp:425] inception_4e/5x5_reduce <- inception_4d/output_inception_4d/output_0_split_2
I0714 22:09:52.715126 24103 net.cpp:399] inception_4e/5x5_reduce -> inception_4e/5x5_reduce
I0714 22:09:52.721947 24103 net.cpp:141] Setting up inception_4e/5x5_reduce
I0714 22:09:52.721969 24103 net.cpp:148] Top shape: 10 32 14 14 (62720)
I0714 22:09:52.721976 24103 net.cpp:156] Memory required for data: 505899520
I0714 22:09:52.721987 24103 layer_factory.hpp:77] Creating layer inception_4e/relu_5x5_reduce
I0714 22:09:52.722009 24103 net.cpp:91] Creating Layer inception_4e/relu_5x5_reduce
I0714 22:09:52.722018 24103 net.cpp:425] inception_4e/relu_5x5_reduce <- inception_4e/5x5_reduce
I0714 22:09:52.722029 24103 net.cpp:386] inception_4e/relu_5x5_reduce -> inception_4e/5x5_reduce (in-place)
I0714 22:09:52.722431 24107 net.cpp:141] Setting up inception_4e/5x5
I0714 22:09:52.722450 24107 net.cpp:148] Top shape: 10 128 14 14 (250880)
I0714 22:09:52.722455 24107 net.cpp:156] Memory required for data: 507153920
I0714 22:09:52.722468 24107 layer_factory.hpp:77] Creating layer inception_4e/relu_5x5
I0714 22:09:52.722482 24107 net.cpp:91] Creating Layer inception_4e/relu_5x5
I0714 22:09:52.722491 24107 net.cpp:425] inception_4e/relu_5x5 <- inception_4e/5x5
I0714 22:09:52.722499 24107 net.cpp:386] inception_4e/relu_5x5 -> inception_4e/5x5 (in-place)
I0714 22:09:52.722503 24103 net.cpp:141] Setting up inception_4e/relu_5x5_reduce
I0714 22:09:52.722518 24103 net.cpp:148] Top shape: 10 32 14 14 (62720)
I0714 22:09:52.722524 24103 net.cpp:156] Memory required for data: 506150400
I0714 22:09:52.722529 24103 layer_factory.hpp:77] Creating layer inception_4e/5x5
I0714 22:09:52.722573 24103 net.cpp:91] Creating Layer inception_4e/5x5
I0714 22:09:52.722589 24103 net.cpp:425] inception_4e/5x5 <- inception_4e/5x5_reduce
I0714 22:09:52.722609 24103 net.cpp:399] inception_4e/5x5 -> inception_4e/5x5
I0714 22:09:52.722971 24107 net.cpp:141] Setting up inception_4e/relu_5x5
I0714 22:09:52.722986 24107 net.cpp:148] Top shape: 10 128 14 14 (250880)
I0714 22:09:52.722991 24107 net.cpp:156] Memory required for data: 508157440
I0714 22:09:52.722997 24107 layer_factory.hpp:77] Creating layer inception_4e/pool
I0714 22:09:52.723007 24107 net.cpp:91] Creating Layer inception_4e/pool
I0714 22:09:52.723014 24107 net.cpp:425] inception_4e/pool <- inception_4d/output_inception_4d/output_0_split_3
I0714 22:09:52.723027 24107 net.cpp:399] inception_4e/pool -> inception_4e/pool
I0714 22:09:52.723318 24107 net.cpp:141] Setting up inception_4e/pool
I0714 22:09:52.723332 24107 net.cpp:148] Top shape: 10 528 14 14 (1034880)
I0714 22:09:52.723337 24107 net.cpp:156] Memory required for data: 512296960
I0714 22:09:52.723342 24107 layer_factory.hpp:77] Creating layer inception_4e/pool_proj
I0714 22:09:52.723362 24107 net.cpp:91] Creating Layer inception_4e/pool_proj
I0714 22:09:52.723369 24107 net.cpp:425] inception_4e/pool_proj <- inception_4e/pool
I0714 22:09:52.723382 24107 net.cpp:399] inception_4e/pool_proj -> inception_4e/pool_proj
I0714 22:09:52.730052 24107 net.cpp:141] Setting up inception_4e/pool_proj
I0714 22:09:52.730073 24107 net.cpp:148] Top shape: 10 128 14 14 (250880)
I0714 22:09:52.730079 24107 net.cpp:156] Memory required for data: 513300480
I0714 22:09:52.730089 24107 layer_factory.hpp:77] Creating layer inception_4e/relu_pool_proj
I0714 22:09:52.730103 24107 net.cpp:91] Creating Layer inception_4e/relu_pool_proj
I0714 22:09:52.730109 24107 net.cpp:425] inception_4e/relu_pool_proj <- inception_4e/pool_proj
I0714 22:09:52.730118 24107 net.cpp:386] inception_4e/relu_pool_proj -> inception_4e/pool_proj (in-place)
I0714 22:09:52.731091 24103 net.cpp:141] Setting up inception_4e/5x5
I0714 22:09:52.731114 24103 net.cpp:148] Top shape: 10 128 14 14 (250880)
I0714 22:09:52.731122 24103 net.cpp:156] Memory required for data: 507153920
I0714 22:09:52.731132 24103 layer_factory.hpp:77] Creating layer inception_4e/relu_5x5
I0714 22:09:52.731201 24103 net.cpp:91] Creating Layer inception_4e/relu_5x5
I0714 22:09:52.731222 24107 net.cpp:141] Setting up inception_4e/relu_pool_proj
I0714 22:09:52.731226 24103 net.cpp:425] inception_4e/relu_5x5 <- inception_4e/5x5
I0714 22:09:52.731248 24107 net.cpp:148] Top shape: 10 128 14 14 (250880)
I0714 22:09:52.731252 24103 net.cpp:386] inception_4e/relu_5x5 -> inception_4e/5x5 (in-place)
I0714 22:09:52.731254 24107 net.cpp:156] Memory required for data: 514304000
I0714 22:09:52.731271 24107 layer_factory.hpp:77] Creating layer inception_4e/output
I0714 22:09:52.731282 24107 net.cpp:91] Creating Layer inception_4e/output
I0714 22:09:52.731289 24107 net.cpp:425] inception_4e/output <- inception_4e/1x1
I0714 22:09:52.731297 24107 net.cpp:425] inception_4e/output <- inception_4e/3x3
I0714 22:09:52.731302 24107 net.cpp:425] inception_4e/output <- inception_4e/5x5
I0714 22:09:52.731308 24107 net.cpp:425] inception_4e/output <- inception_4e/pool_proj
I0714 22:09:52.731317 24107 net.cpp:399] inception_4e/output -> inception_4e/output
I0714 22:09:52.731587 24107 net.cpp:141] Setting up inception_4e/output
I0714 22:09:52.731607 24107 net.cpp:148] Top shape: 10 832 14 14 (1630720)
I0714 22:09:52.731612 24107 net.cpp:156] Memory required for data: 520826880
I0714 22:09:52.731619 24107 layer_factory.hpp:77] Creating layer pool4/3x3_s2
I0714 22:09:52.731629 24107 net.cpp:91] Creating Layer pool4/3x3_s2
I0714 22:09:52.731637 24107 net.cpp:425] pool4/3x3_s2 <- inception_4e/output
I0714 22:09:52.731653 24107 net.cpp:399] pool4/3x3_s2 -> pool4/3x3_s2
I0714 22:09:52.731744 24103 net.cpp:141] Setting up inception_4e/relu_5x5
I0714 22:09:52.731758 24103 net.cpp:148] Top shape: 10 128 14 14 (250880)
I0714 22:09:52.731763 24103 net.cpp:156] Memory required for data: 508157440
I0714 22:09:52.731772 24103 layer_factory.hpp:77] Creating layer inception_4e/pool
I0714 22:09:52.731791 24103 net.cpp:91] Creating Layer inception_4e/pool
I0714 22:09:52.731799 24103 net.cpp:425] inception_4e/pool <- inception_4d/output_inception_4d/output_0_split_3
I0714 22:09:52.731808 24103 net.cpp:399] inception_4e/pool -> inception_4e/pool
I0714 22:09:52.731839 24107 net.cpp:141] Setting up pool4/3x3_s2
I0714 22:09:52.731853 24107 net.cpp:148] Top shape: 10 832 7 7 (407680)
I0714 22:09:52.731858 24107 net.cpp:156] Memory required for data: 522457600
I0714 22:09:52.731864 24107 layer_factory.hpp:77] Creating layer pool4/3x3_s2_pool4/3x3_s2_0_split
I0714 22:09:52.731874 24107 net.cpp:91] Creating Layer pool4/3x3_s2_pool4/3x3_s2_0_split
I0714 22:09:52.731880 24107 net.cpp:425] pool4/3x3_s2_pool4/3x3_s2_0_split <- pool4/3x3_s2
I0714 22:09:52.731889 24107 net.cpp:399] pool4/3x3_s2_pool4/3x3_s2_0_split -> pool4/3x3_s2_pool4/3x3_s2_0_split_0
I0714 22:09:52.731905 24107 net.cpp:399] pool4/3x3_s2_pool4/3x3_s2_0_split -> pool4/3x3_s2_pool4/3x3_s2_0_split_1
I0714 22:09:52.731917 24107 net.cpp:399] pool4/3x3_s2_pool4/3x3_s2_0_split -> pool4/3x3_s2_pool4/3x3_s2_0_split_2
I0714 22:09:52.731927 24107 net.cpp:399] pool4/3x3_s2_pool4/3x3_s2_0_split -> pool4/3x3_s2_pool4/3x3_s2_0_split_3
I0714 22:09:52.732033 24103 net.cpp:141] Setting up inception_4e/pool
I0714 22:09:52.732045 24103 net.cpp:148] Top shape: 10 528 14 14 (1034880)
I0714 22:09:52.732051 24103 net.cpp:156] Memory required for data: 512296960
I0714 22:09:52.732056 24103 layer_factory.hpp:77] Creating layer inception_4e/pool_proj
I0714 22:09:52.732076 24103 net.cpp:91] Creating Layer inception_4e/pool_proj
I0714 22:09:52.732084 24103 net.cpp:425] inception_4e/pool_proj <- inception_4e/pool
I0714 22:09:52.732095 24103 net.cpp:399] inception_4e/pool_proj -> inception_4e/pool_proj
I0714 22:09:52.732327 24107 net.cpp:141] Setting up pool4/3x3_s2_pool4/3x3_s2_0_split
I0714 22:09:52.732342 24107 net.cpp:148] Top shape: 10 832 7 7 (407680)
I0714 22:09:52.732348 24107 net.cpp:148] Top shape: 10 832 7 7 (407680)
I0714 22:09:52.732354 24107 net.cpp:148] Top shape: 10 832 7 7 (407680)
I0714 22:09:52.732360 24107 net.cpp:148] Top shape: 10 832 7 7 (407680)
I0714 22:09:52.732364 24107 net.cpp:156] Memory required for data: 528980480
I0714 22:09:52.732370 24107 layer_factory.hpp:77] Creating layer inception_5a/1x1
I0714 22:09:52.732388 24107 net.cpp:91] Creating Layer inception_5a/1x1
I0714 22:09:52.732393 24107 net.cpp:425] inception_5a/1x1 <- pool4/3x3_s2_pool4/3x3_s2_0_split_0
I0714 22:09:52.732414 24107 net.cpp:399] inception_5a/1x1 -> inception_5a/1x1
I0714 22:09:52.738845 24103 net.cpp:141] Setting up inception_4e/pool_proj
I0714 22:09:52.738869 24103 net.cpp:148] Top shape: 10 128 14 14 (250880)
I0714 22:09:52.738875 24103 net.cpp:156] Memory required for data: 513300480
I0714 22:09:52.738886 24103 layer_factory.hpp:77] Creating layer inception_4e/relu_pool_proj
I0714 22:09:52.738898 24103 net.cpp:91] Creating Layer inception_4e/relu_pool_proj
I0714 22:09:52.738904 24103 net.cpp:425] inception_4e/relu_pool_proj <- inception_4e/pool_proj
I0714 22:09:52.738912 24103 net.cpp:386] inception_4e/relu_pool_proj -> inception_4e/pool_proj (in-place)
I0714 22:09:52.740417 24103 net.cpp:141] Setting up inception_4e/relu_pool_proj
I0714 22:09:52.740434 24103 net.cpp:148] Top shape: 10 128 14 14 (250880)
I0714 22:09:52.740440 24103 net.cpp:156] Memory required for data: 514304000
I0714 22:09:52.740445 24103 layer_factory.hpp:77] Creating layer inception_4e/output
I0714 22:09:52.740458 24103 net.cpp:91] Creating Layer inception_4e/output
I0714 22:09:52.740465 24103 net.cpp:425] inception_4e/output <- inception_4e/1x1
I0714 22:09:52.740473 24103 net.cpp:425] inception_4e/output <- inception_4e/3x3
I0714 22:09:52.740480 24103 net.cpp:425] inception_4e/output <- inception_4e/5x5
I0714 22:09:52.740486 24103 net.cpp:425] inception_4e/output <- inception_4e/pool_proj
I0714 22:09:52.740499 24103 net.cpp:399] inception_4e/output -> inception_4e/output
I0714 22:09:52.740640 24103 net.cpp:141] Setting up inception_4e/output
I0714 22:09:52.740653 24103 net.cpp:148] Top shape: 10 832 14 14 (1630720)
I0714 22:09:52.740658 24103 net.cpp:156] Memory required for data: 520826880
I0714 22:09:52.740664 24103 layer_factory.hpp:77] Creating layer pool4/3x3_s2
I0714 22:09:52.740675 24103 net.cpp:91] Creating Layer pool4/3x3_s2
I0714 22:09:52.740682 24103 net.cpp:425] pool4/3x3_s2 <- inception_4e/output
I0714 22:09:52.740686 24107 net.cpp:141] Setting up inception_5a/1x1
I0714 22:09:52.740695 24103 net.cpp:399] pool4/3x3_s2 -> pool4/3x3_s2
I0714 22:09:52.740705 24107 net.cpp:148] Top shape: 10 256 7 7 (125440)
I0714 22:09:52.740711 24107 net.cpp:156] Memory required for data: 529482240
I0714 22:09:52.740723 24107 layer_factory.hpp:77] Creating layer inception_5a/relu_1x1
I0714 22:09:52.740741 24107 net.cpp:91] Creating Layer inception_5a/relu_1x1
I0714 22:09:52.740747 24107 net.cpp:425] inception_5a/relu_1x1 <- inception_5a/1x1
I0714 22:09:52.740759 24107 net.cpp:386] inception_5a/relu_1x1 -> inception_5a/1x1 (in-place)
I0714 22:09:52.741015 24103 net.cpp:141] Setting up pool4/3x3_s2
I0714 22:09:52.741029 24103 net.cpp:148] Top shape: 10 832 7 7 (407680)
I0714 22:09:52.741034 24103 net.cpp:156] Memory required for data: 522457600
I0714 22:09:52.741039 24103 layer_factory.hpp:77] Creating layer pool4/3x3_s2_pool4/3x3_s2_0_split
I0714 22:09:52.741047 24103 net.cpp:91] Creating Layer pool4/3x3_s2_pool4/3x3_s2_0_split
I0714 22:09:52.741053 24103 net.cpp:425] pool4/3x3_s2_pool4/3x3_s2_0_split <- pool4/3x3_s2
I0714 22:09:52.741065 24103 net.cpp:399] pool4/3x3_s2_pool4/3x3_s2_0_split -> pool4/3x3_s2_pool4/3x3_s2_0_split_0
I0714 22:09:52.741075 24103 net.cpp:399] pool4/3x3_s2_pool4/3x3_s2_0_split -> pool4/3x3_s2_pool4/3x3_s2_0_split_1
I0714 22:09:52.741086 24103 net.cpp:399] pool4/3x3_s2_pool4/3x3_s2_0_split -> pool4/3x3_s2_pool4/3x3_s2_0_split_2
I0714 22:09:52.741094 24103 net.cpp:399] pool4/3x3_s2_pool4/3x3_s2_0_split -> pool4/3x3_s2_pool4/3x3_s2_0_split_3
I0714 22:09:52.741129 24107 net.cpp:141] Setting up inception_5a/relu_1x1
I0714 22:09:52.741144 24107 net.cpp:148] Top shape: 10 256 7 7 (125440)
I0714 22:09:52.741149 24107 net.cpp:156] Memory required for data: 529984000
I0714 22:09:52.741155 24107 layer_factory.hpp:77] Creating layer inception_5a/3x3_reduce
I0714 22:09:52.741173 24107 net.cpp:91] Creating Layer inception_5a/3x3_reduce
I0714 22:09:52.741181 24107 net.cpp:425] inception_5a/3x3_reduce <- pool4/3x3_s2_pool4/3x3_s2_0_split_1
I0714 22:09:52.741194 24107 net.cpp:399] inception_5a/3x3_reduce -> inception_5a/3x3_reduce
I0714 22:09:52.741423 24103 net.cpp:141] Setting up pool4/3x3_s2_pool4/3x3_s2_0_split
I0714 22:09:52.741436 24103 net.cpp:148] Top shape: 10 832 7 7 (407680)
I0714 22:09:52.741442 24103 net.cpp:148] Top shape: 10 832 7 7 (407680)
I0714 22:09:52.741448 24103 net.cpp:148] Top shape: 10 832 7 7 (407680)
I0714 22:09:52.741454 24103 net.cpp:148] Top shape: 10 832 7 7 (407680)
I0714 22:09:52.741459 24103 net.cpp:156] Memory required for data: 528980480
I0714 22:09:52.741466 24103 layer_factory.hpp:77] Creating layer inception_5a/1x1
I0714 22:09:52.741478 24103 net.cpp:91] Creating Layer inception_5a/1x1
I0714 22:09:52.741484 24103 net.cpp:425] inception_5a/1x1 <- pool4/3x3_s2_pool4/3x3_s2_0_split_0
I0714 22:09:52.741498 24103 net.cpp:399] inception_5a/1x1 -> inception_5a/1x1
I0714 22:09:52.749459 24107 net.cpp:141] Setting up inception_5a/3x3_reduce
I0714 22:09:52.749480 24107 net.cpp:148] Top shape: 10 160 7 7 (78400)
I0714 22:09:52.749486 24107 net.cpp:156] Memory required for data: 530297600
I0714 22:09:52.749497 24107 layer_factory.hpp:77] Creating layer inception_5a/relu_3x3_reduce
I0714 22:09:52.749511 24107 net.cpp:91] Creating Layer inception_5a/relu_3x3_reduce
I0714 22:09:52.749518 24107 net.cpp:425] inception_5a/relu_3x3_reduce <- inception_5a/3x3_reduce
I0714 22:09:52.749527 24107 net.cpp:386] inception_5a/relu_3x3_reduce -> inception_5a/3x3_reduce (in-place)
I0714 22:09:52.749918 24107 net.cpp:141] Setting up inception_5a/relu_3x3_reduce
I0714 22:09:52.749933 24107 net.cpp:148] Top shape: 10 160 7 7 (78400)
I0714 22:09:52.749938 24107 net.cpp:156] Memory required for data: 530611200
I0714 22:09:52.749946 24107 layer_factory.hpp:77] Creating layer inception_5a/3x3
I0714 22:09:52.749968 24107 net.cpp:91] Creating Layer inception_5a/3x3
I0714 22:09:52.749974 24107 net.cpp:425] inception_5a/3x3 <- inception_5a/3x3_reduce
I0714 22:09:52.749985 24107 net.cpp:399] inception_5a/3x3 -> inception_5a/3x3
I0714 22:09:52.753360 24103 net.cpp:141] Setting up inception_5a/1x1
I0714 22:09:52.753382 24103 net.cpp:148] Top shape: 10 256 7 7 (125440)
I0714 22:09:52.753388 24103 net.cpp:156] Memory required for data: 529482240
I0714 22:09:52.753402 24103 layer_factory.hpp:77] Creating layer inception_5a/relu_1x1
I0714 22:09:52.753417 24103 net.cpp:91] Creating Layer inception_5a/relu_1x1
I0714 22:09:52.753423 24103 net.cpp:425] inception_5a/relu_1x1 <- inception_5a/1x1
I0714 22:09:52.753432 24103 net.cpp:386] inception_5a/relu_1x1 -> inception_5a/1x1 (in-place)
I0714 22:09:52.753739 24103 net.cpp:141] Setting up inception_5a/relu_1x1
I0714 22:09:52.753752 24103 net.cpp:148] Top shape: 10 256 7 7 (125440)
I0714 22:09:52.753757 24103 net.cpp:156] Memory required for data: 529984000
I0714 22:09:52.753763 24103 layer_factory.hpp:77] Creating layer inception_5a/3x3_reduce
I0714 22:09:52.753783 24103 net.cpp:91] Creating Layer inception_5a/3x3_reduce
I0714 22:09:52.753790 24103 net.cpp:425] inception_5a/3x3_reduce <- pool4/3x3_s2_pool4/3x3_s2_0_split_1
I0714 22:09:52.753803 24103 net.cpp:399] inception_5a/3x3_reduce -> inception_5a/3x3_reduce
I0714 22:09:52.761142 24103 net.cpp:141] Setting up inception_5a/3x3_reduce
I0714 22:09:52.761168 24103 net.cpp:148] Top shape: 10 160 7 7 (78400)
I0714 22:09:52.761173 24103 net.cpp:156] Memory required for data: 530297600
I0714 22:09:52.761184 24103 layer_factory.hpp:77] Creating layer inception_5a/relu_3x3_reduce
I0714 22:09:52.761194 24103 net.cpp:91] Creating Layer inception_5a/relu_3x3_reduce
I0714 22:09:52.761203 24103 net.cpp:425] inception_5a/relu_3x3_reduce <- inception_5a/3x3_reduce
I0714 22:09:52.761210 24103 net.cpp:386] inception_5a/relu_3x3_reduce -> inception_5a/3x3_reduce (in-place)
I0714 22:09:52.761657 24103 net.cpp:141] Setting up inception_5a/relu_3x3_reduce
I0714 22:09:52.761674 24103 net.cpp:148] Top shape: 10 160 7 7 (78400)
I0714 22:09:52.761679 24103 net.cpp:156] Memory required for data: 530611200
I0714 22:09:52.761685 24103 layer_factory.hpp:77] Creating layer inception_5a/3x3
I0714 22:09:52.761703 24103 net.cpp:91] Creating Layer inception_5a/3x3
I0714 22:09:52.761710 24103 net.cpp:425] inception_5a/3x3 <- inception_5a/3x3_reduce
I0714 22:09:52.761724 24103 net.cpp:399] inception_5a/3x3 -> inception_5a/3x3
I0714 22:09:52.762636 24107 net.cpp:141] Setting up inception_5a/3x3
I0714 22:09:52.762655 24107 net.cpp:148] Top shape: 10 320 7 7 (156800)
I0714 22:09:52.762661 24107 net.cpp:156] Memory required for data: 531238400
I0714 22:09:52.762672 24107 layer_factory.hpp:77] Creating layer inception_5a/relu_3x3
I0714 22:09:52.762696 24107 net.cpp:91] Creating Layer inception_5a/relu_3x3
I0714 22:09:52.762706 24107 net.cpp:425] inception_5a/relu_3x3 <- inception_5a/3x3
I0714 22:09:52.762719 24107 net.cpp:386] inception_5a/relu_3x3 -> inception_5a/3x3 (in-place)
I0714 22:09:52.763762 24107 net.cpp:141] Setting up inception_5a/relu_3x3
I0714 22:09:52.763780 24107 net.cpp:148] Top shape: 10 320 7 7 (156800)
I0714 22:09:52.763787 24107 net.cpp:156] Memory required for data: 531865600
I0714 22:09:52.763792 24107 layer_factory.hpp:77] Creating layer inception_5a/5x5_reduce
I0714 22:09:52.763810 24107 net.cpp:91] Creating Layer inception_5a/5x5_reduce
I0714 22:09:52.763818 24107 net.cpp:425] inception_5a/5x5_reduce <- pool4/3x3_s2_pool4/3x3_s2_0_split_2
I0714 22:09:52.763833 24107 net.cpp:399] inception_5a/5x5_reduce -> inception_5a/5x5_reduce
I0714 22:09:52.769279 24107 net.cpp:141] Setting up inception_5a/5x5_reduce
I0714 22:09:52.769301 24107 net.cpp:148] Top shape: 10 32 7 7 (15680)
I0714 22:09:52.769307 24107 net.cpp:156] Memory required for data: 531928320
I0714 22:09:52.769318 24107 layer_factory.hpp:77] Creating layer inception_5a/relu_5x5_reduce
I0714 22:09:52.769331 24107 net.cpp:91] Creating Layer inception_5a/relu_5x5_reduce
I0714 22:09:52.769338 24107 net.cpp:425] inception_5a/relu_5x5_reduce <- inception_5a/5x5_reduce
I0714 22:09:52.769347 24107 net.cpp:386] inception_5a/relu_5x5_reduce -> inception_5a/5x5_reduce (in-place)
I0714 22:09:52.769660 24107 net.cpp:141] Setting up inception_5a/relu_5x5_reduce
I0714 22:09:52.769673 24107 net.cpp:148] Top shape: 10 32 7 7 (15680)
I0714 22:09:52.769680 24107 net.cpp:156] Memory required for data: 531991040
I0714 22:09:52.769686 24107 layer_factory.hpp:77] Creating layer inception_5a/5x5
I0714 22:09:52.769703 24107 net.cpp:91] Creating Layer inception_5a/5x5
I0714 22:09:52.769711 24107 net.cpp:425] inception_5a/5x5 <- inception_5a/5x5_reduce
I0714 22:09:52.769731 24107 net.cpp:399] inception_5a/5x5 -> inception_5a/5x5
I0714 22:09:52.774164 24103 net.cpp:141] Setting up inception_5a/3x3
I0714 22:09:52.774184 24103 net.cpp:148] Top shape: 10 320 7 7 (156800)
I0714 22:09:52.774191 24103 net.cpp:156] Memory required for data: 531238400
I0714 22:09:52.774206 24103 layer_factory.hpp:77] Creating layer inception_5a/relu_3x3
I0714 22:09:52.774217 24103 net.cpp:91] Creating Layer inception_5a/relu_3x3
I0714 22:09:52.774224 24103 net.cpp:425] inception_5a/relu_3x3 <- inception_5a/3x3
I0714 22:09:52.774237 24103 net.cpp:386] inception_5a/relu_3x3 -> inception_5a/3x3 (in-place)
I0714 22:09:52.775292 24103 net.cpp:141] Setting up inception_5a/relu_3x3
I0714 22:09:52.775311 24103 net.cpp:148] Top shape: 10 320 7 7 (156800)
I0714 22:09:52.775317 24103 net.cpp:156] Memory required for data: 531865600
I0714 22:09:52.775323 24103 layer_factory.hpp:77] Creating layer inception_5a/5x5_reduce
I0714 22:09:52.775347 24103 net.cpp:91] Creating Layer inception_5a/5x5_reduce
I0714 22:09:52.775355 24103 net.cpp:425] inception_5a/5x5_reduce <- pool4/3x3_s2_pool4/3x3_s2_0_split_2
I0714 22:09:52.775367 24103 net.cpp:399] inception_5a/5x5_reduce -> inception_5a/5x5_reduce
I0714 22:09:52.778039 24107 net.cpp:141] Setting up inception_5a/5x5
I0714 22:09:52.778059 24107 net.cpp:148] Top shape: 10 128 7 7 (62720)
I0714 22:09:52.778065 24107 net.cpp:156] Memory required for data: 532241920
I0714 22:09:52.778075 24107 layer_factory.hpp:77] Creating layer inception_5a/relu_5x5
I0714 22:09:52.778116 24107 net.cpp:91] Creating Layer inception_5a/relu_5x5
I0714 22:09:52.778126 24107 net.cpp:425] inception_5a/relu_5x5 <- inception_5a/5x5
I0714 22:09:52.778133 24107 net.cpp:386] inception_5a/relu_5x5 -> inception_5a/5x5 (in-place)
I0714 22:09:52.778452 24107 net.cpp:141] Setting up inception_5a/relu_5x5
I0714 22:09:52.778466 24107 net.cpp:148] Top shape: 10 128 7 7 (62720)
I0714 22:09:52.778471 24107 net.cpp:156] Memory required for data: 532492800
I0714 22:09:52.778478 24107 layer_factory.hpp:77] Creating layer inception_5a/pool
I0714 22:09:52.778493 24107 net.cpp:91] Creating Layer inception_5a/pool
I0714 22:09:52.778499 24107 net.cpp:425] inception_5a/pool <- pool4/3x3_s2_pool4/3x3_s2_0_split_3
I0714 22:09:52.778508 24107 net.cpp:399] inception_5a/pool -> inception_5a/pool
I0714 22:09:52.779039 24107 net.cpp:141] Setting up inception_5a/pool
I0714 22:09:52.779055 24107 net.cpp:148] Top shape: 10 832 7 7 (407680)
I0714 22:09:52.779060 24107 net.cpp:156] Memory required for data: 534123520
I0714 22:09:52.779065 24107 layer_factory.hpp:77] Creating layer inception_5a/pool_proj
I0714 22:09:52.779084 24107 net.cpp:91] Creating Layer inception_5a/pool_proj
I0714 22:09:52.779091 24107 net.cpp:425] inception_5a/pool_proj <- inception_5a/pool
I0714 22:09:52.779106 24107 net.cpp:399] inception_5a/pool_proj -> inception_5a/pool_proj
I0714 22:09:52.782604 24103 net.cpp:141] Setting up inception_5a/5x5_reduce
I0714 22:09:52.782624 24103 net.cpp:148] Top shape: 10 32 7 7 (15680)
I0714 22:09:52.782629 24103 net.cpp:156] Memory required for data: 531928320
I0714 22:09:52.782640 24103 layer_factory.hpp:77] Creating layer inception_5a/relu_5x5_reduce
I0714 22:09:52.782651 24103 net.cpp:91] Creating Layer inception_5a/relu_5x5_reduce
I0714 22:09:52.782658 24103 net.cpp:425] inception_5a/relu_5x5_reduce <- inception_5a/5x5_reduce
I0714 22:09:52.782670 24103 net.cpp:386] inception_5a/relu_5x5_reduce -> inception_5a/5x5_reduce (in-place)
I0714 22:09:52.782994 24103 net.cpp:141] Setting up inception_5a/relu_5x5_reduce
I0714 22:09:52.783011 24103 net.cpp:148] Top shape: 10 32 7 7 (15680)
I0714 22:09:52.783017 24103 net.cpp:156] Memory required for data: 531991040
I0714 22:09:52.783023 24103 layer_factory.hpp:77] Creating layer inception_5a/5x5
I0714 22:09:52.783046 24103 net.cpp:91] Creating Layer inception_5a/5x5
I0714 22:09:52.783052 24103 net.cpp:425] inception_5a/5x5 <- inception_5a/5x5_reduce
I0714 22:09:52.783063 24103 net.cpp:399] inception_5a/5x5 -> inception_5a/5x5
I0714 22:09:52.787075 24107 net.cpp:141] Setting up inception_5a/pool_proj
I0714 22:09:52.787097 24107 net.cpp:148] Top shape: 10 128 7 7 (62720)
I0714 22:09:52.787103 24107 net.cpp:156] Memory required for data: 534374400
I0714 22:09:52.787113 24107 layer_factory.hpp:77] Creating layer inception_5a/relu_pool_proj
I0714 22:09:52.787127 24107 net.cpp:91] Creating Layer inception_5a/relu_pool_proj
I0714 22:09:52.787135 24107 net.cpp:425] inception_5a/relu_pool_proj <- inception_5a/pool_proj
I0714 22:09:52.787144 24107 net.cpp:386] inception_5a/relu_pool_proj -> inception_5a/pool_proj (in-place)
I0714 22:09:52.788568 24107 net.cpp:141] Setting up inception_5a/relu_pool_proj
I0714 22:09:52.788586 24107 net.cpp:148] Top shape: 10 128 7 7 (62720)
I0714 22:09:52.788591 24107 net.cpp:156] Memory required for data: 534625280
I0714 22:09:52.788597 24107 layer_factory.hpp:77] Creating layer inception_5a/output
I0714 22:09:52.788615 24107 net.cpp:91] Creating Layer inception_5a/output
I0714 22:09:52.788624 24107 net.cpp:425] inception_5a/output <- inception_5a/1x1
I0714 22:09:52.788631 24107 net.cpp:425] inception_5a/output <- inception_5a/3x3
I0714 22:09:52.788637 24107 net.cpp:425] inception_5a/output <- inception_5a/5x5
I0714 22:09:52.788643 24107 net.cpp:425] inception_5a/output <- inception_5a/pool_proj
I0714 22:09:52.788651 24107 net.cpp:399] inception_5a/output -> inception_5a/output
I0714 22:09:52.788769 24103 net.cpp:141] Setting up inception_5a/5x5
I0714 22:09:52.788785 24103 net.cpp:148] Top shape: 10 128 7 7 (62720)
I0714 22:09:52.788791 24103 net.cpp:156] Memory required for data: 532241920
I0714 22:09:52.788795 24107 net.cpp:141] Setting up inception_5a/output
I0714 22:09:52.788801 24103 layer_factory.hpp:77] Creating layer inception_5a/relu_5x5
I0714 22:09:52.788808 24107 net.cpp:148] Top shape: 10 832 7 7 (407680)
I0714 22:09:52.788815 24107 net.cpp:156] Memory required for data: 536256000
I0714 22:09:52.788820 24107 layer_factory.hpp:77] Creating layer inception_5a/output_inception_5a/output_0_split
I0714 22:09:52.788830 24107 net.cpp:91] Creating Layer inception_5a/output_inception_5a/output_0_split
I0714 22:09:52.788836 24107 net.cpp:425] inception_5a/output_inception_5a/output_0_split <- inception_5a/output
I0714 22:09:52.788843 24103 net.cpp:91] Creating Layer inception_5a/relu_5x5
I0714 22:09:52.788846 24107 net.cpp:399] inception_5a/output_inception_5a/output_0_split -> inception_5a/output_inception_5a/output_0_split_0
I0714 22:09:52.788852 24103 net.cpp:425] inception_5a/relu_5x5 <- inception_5a/5x5
I0714 22:09:52.788857 24107 net.cpp:399] inception_5a/output_inception_5a/output_0_split -> inception_5a/output_inception_5a/output_0_split_1
I0714 22:09:52.788861 24103 net.cpp:386] inception_5a/relu_5x5 -> inception_5a/5x5 (in-place)
I0714 22:09:52.788867 24107 net.cpp:399] inception_5a/output_inception_5a/output_0_split -> inception_5a/output_inception_5a/output_0_split_2
I0714 22:09:52.788877 24107 net.cpp:399] inception_5a/output_inception_5a/output_0_split -> inception_5a/output_inception_5a/output_0_split_3
I0714 22:09:52.789332 24103 net.cpp:141] Setting up inception_5a/relu_5x5
I0714 22:09:52.789350 24103 net.cpp:148] Top shape: 10 128 7 7 (62720)
I0714 22:09:52.789355 24103 net.cpp:156] Memory required for data: 532492800
I0714 22:09:52.789363 24103 layer_factory.hpp:77] Creating layer inception_5a/pool
I0714 22:09:52.789364 24107 net.cpp:141] Setting up inception_5a/output_inception_5a/output_0_split
I0714 22:09:52.789372 24103 net.cpp:91] Creating Layer inception_5a/pool
I0714 22:09:52.789378 24107 net.cpp:148] Top shape: 10 832 7 7 (407680)
I0714 22:09:52.789379 24103 net.cpp:425] inception_5a/pool <- pool4/3x3_s2_pool4/3x3_s2_0_split_3
I0714 22:09:52.789386 24107 net.cpp:148] Top shape: 10 832 7 7 (407680)
I0714 22:09:52.789389 24103 net.cpp:399] inception_5a/pool -> inception_5a/pool
I0714 22:09:52.789391 24107 net.cpp:148] Top shape: 10 832 7 7 (407680)
I0714 22:09:52.789398 24107 net.cpp:148] Top shape: 10 832 7 7 (407680)
I0714 22:09:52.789402 24107 net.cpp:156] Memory required for data: 542778880
I0714 22:09:52.789409 24107 layer_factory.hpp:77] Creating layer inception_5b/1x1
I0714 22:09:52.789433 24107 net.cpp:91] Creating Layer inception_5b/1x1
I0714 22:09:52.789439 24107 net.cpp:425] inception_5b/1x1 <- inception_5a/output_inception_5a/output_0_split_0
I0714 22:09:52.789453 24107 net.cpp:399] inception_5b/1x1 -> inception_5b/1x1
I0714 22:09:52.789571 24103 net.cpp:141] Setting up inception_5a/pool
I0714 22:09:52.789583 24103 net.cpp:148] Top shape: 10 832 7 7 (407680)
I0714 22:09:52.789588 24103 net.cpp:156] Memory required for data: 534123520
I0714 22:09:52.789594 24103 layer_factory.hpp:77] Creating layer inception_5a/pool_proj
I0714 22:09:52.789611 24103 net.cpp:91] Creating Layer inception_5a/pool_proj
I0714 22:09:52.789618 24103 net.cpp:425] inception_5a/pool_proj <- inception_5a/pool
I0714 22:09:52.789633 24103 net.cpp:399] inception_5a/pool_proj -> inception_5a/pool_proj
I0714 22:09:52.798928 24103 net.cpp:141] Setting up inception_5a/pool_proj
I0714 22:09:52.798952 24103 net.cpp:148] Top shape: 10 128 7 7 (62720)
I0714 22:09:52.798959 24103 net.cpp:156] Memory required for data: 534374400
I0714 22:09:52.798974 24103 layer_factory.hpp:77] Creating layer inception_5a/relu_pool_proj
I0714 22:09:52.798990 24103 net.cpp:91] Creating Layer inception_5a/relu_pool_proj
I0714 22:09:52.798996 24103 net.cpp:425] inception_5a/relu_pool_proj <- inception_5a/pool_proj
I0714 22:09:52.799007 24103 net.cpp:386] inception_5a/relu_pool_proj -> inception_5a/pool_proj (in-place)
I0714 22:09:52.800053 24103 net.cpp:141] Setting up inception_5a/relu_pool_proj
I0714 22:09:52.800071 24103 net.cpp:148] Top shape: 10 128 7 7 (62720)
I0714 22:09:52.800077 24103 net.cpp:156] Memory required for data: 534625280
I0714 22:09:52.800083 24103 layer_factory.hpp:77] Creating layer inception_5a/output
I0714 22:09:52.800093 24103 net.cpp:91] Creating Layer inception_5a/output
I0714 22:09:52.800101 24103 net.cpp:425] inception_5a/output <- inception_5a/1x1
I0714 22:09:52.800107 24103 net.cpp:425] inception_5a/output <- inception_5a/3x3
I0714 22:09:52.800114 24103 net.cpp:425] inception_5a/output <- inception_5a/5x5
I0714 22:09:52.800120 24103 net.cpp:425] inception_5a/output <- inception_5a/pool_proj
I0714 22:09:52.800130 24103 net.cpp:399] inception_5a/output -> inception_5a/output
I0714 22:09:52.800187 24107 net.cpp:141] Setting up inception_5b/1x1
I0714 22:09:52.800204 24107 net.cpp:148] Top shape: 10 384 7 7 (188160)
I0714 22:09:52.800209 24107 net.cpp:156] Memory required for data: 543531520
I0714 22:09:52.800220 24107 layer_factory.hpp:77] Creating layer inception_5b/relu_1x1
I0714 22:09:52.800225 24103 net.cpp:141] Setting up inception_5a/output
I0714 22:09:52.800232 24107 net.cpp:91] Creating Layer inception_5b/relu_1x1
I0714 22:09:52.800236 24103 net.cpp:148] Top shape: 10 832 7 7 (407680)
I0714 22:09:52.800240 24107 net.cpp:425] inception_5b/relu_1x1 <- inception_5b/1x1
I0714 22:09:52.800242 24103 net.cpp:156] Memory required for data: 536256000
I0714 22:09:52.800248 24103 layer_factory.hpp:77] Creating layer inception_5a/output_inception_5a/output_0_split
I0714 22:09:52.800248 24107 net.cpp:386] inception_5b/relu_1x1 -> inception_5b/1x1 (in-place)
I0714 22:09:52.800261 24103 net.cpp:91] Creating Layer inception_5a/output_inception_5a/output_0_split
I0714 22:09:52.800267 24103 net.cpp:425] inception_5a/output_inception_5a/output_0_split <- inception_5a/output
I0714 22:09:52.800276 24103 net.cpp:399] inception_5a/output_inception_5a/output_0_split -> inception_5a/output_inception_5a/output_0_split_0
I0714 22:09:52.800287 24103 net.cpp:399] inception_5a/output_inception_5a/output_0_split -> inception_5a/output_inception_5a/output_0_split_1
I0714 22:09:52.800295 24103 net.cpp:399] inception_5a/output_inception_5a/output_0_split -> inception_5a/output_inception_5a/output_0_split_2
I0714 22:09:52.800305 24103 net.cpp:399] inception_5a/output_inception_5a/output_0_split -> inception_5a/output_inception_5a/output_0_split_3
I0714 22:09:52.800714 24107 net.cpp:141] Setting up inception_5b/relu_1x1
I0714 22:09:52.800729 24107 net.cpp:148] Top shape: 10 384 7 7 (188160)
I0714 22:09:52.800734 24107 net.cpp:156] Memory required for data: 544284160
I0714 22:09:52.800740 24107 layer_factory.hpp:77] Creating layer inception_5b/3x3_reduce
I0714 22:09:52.800739 24103 net.cpp:141] Setting up inception_5a/output_inception_5a/output_0_split
I0714 22:09:52.800752 24103 net.cpp:148] Top shape: 10 832 7 7 (407680)
I0714 22:09:52.800760 24103 net.cpp:148] Top shape: 10 832 7 7 (407680)
I0714 22:09:52.800760 24107 net.cpp:91] Creating Layer inception_5b/3x3_reduce
I0714 22:09:52.800765 24103 net.cpp:148] Top shape: 10 832 7 7 (407680)
I0714 22:09:52.800768 24107 net.cpp:425] inception_5b/3x3_reduce <- inception_5a/output_inception_5a/output_0_split_1
I0714 22:09:52.800771 24103 net.cpp:148] Top shape: 10 832 7 7 (407680)
I0714 22:09:52.800776 24103 net.cpp:156] Memory required for data: 542778880
I0714 22:09:52.800779 24107 net.cpp:399] inception_5b/3x3_reduce -> inception_5b/3x3_reduce
I0714 22:09:52.800781 24103 layer_factory.hpp:77] Creating layer inception_5b/1x1
I0714 22:09:52.800803 24103 net.cpp:91] Creating Layer inception_5b/1x1
I0714 22:09:52.800811 24103 net.cpp:425] inception_5b/1x1 <- inception_5a/output_inception_5a/output_0_split_0
I0714 22:09:52.800822 24103 net.cpp:399] inception_5b/1x1 -> inception_5b/1x1
I0714 22:09:52.809557 24107 net.cpp:141] Setting up inception_5b/3x3_reduce
I0714 22:09:52.809584 24107 net.cpp:148] Top shape: 10 192 7 7 (94080)
I0714 22:09:52.809590 24107 net.cpp:156] Memory required for data: 544660480
I0714 22:09:52.809602 24107 layer_factory.hpp:77] Creating layer inception_5b/relu_3x3_reduce
I0714 22:09:52.809617 24107 net.cpp:91] Creating Layer inception_5b/relu_3x3_reduce
I0714 22:09:52.809625 24107 net.cpp:425] inception_5b/relu_3x3_reduce <- inception_5b/3x3_reduce
I0714 22:09:52.809636 24107 net.cpp:386] inception_5b/relu_3x3_reduce -> inception_5b/3x3_reduce (in-place)
I0714 22:09:52.810008 24107 net.cpp:141] Setting up inception_5b/relu_3x3_reduce
I0714 22:09:52.810021 24107 net.cpp:148] Top shape: 10 192 7 7 (94080)
I0714 22:09:52.810027 24107 net.cpp:156] Memory required for data: 545036800
I0714 22:09:52.810036 24107 layer_factory.hpp:77] Creating layer inception_5b/3x3
I0714 22:09:52.810057 24107 net.cpp:91] Creating Layer inception_5b/3x3
I0714 22:09:52.810065 24107 net.cpp:425] inception_5b/3x3 <- inception_5b/3x3_reduce
I0714 22:09:52.810076 24107 net.cpp:399] inception_5b/3x3 -> inception_5b/3x3
I0714 22:09:52.814013 24103 net.cpp:141] Setting up inception_5b/1x1
I0714 22:09:52.814044 24103 net.cpp:148] Top shape: 10 384 7 7 (188160)
I0714 22:09:52.814050 24103 net.cpp:156] Memory required for data: 543531520
I0714 22:09:52.814065 24103 layer_factory.hpp:77] Creating layer inception_5b/relu_1x1
I0714 22:09:52.814076 24103 net.cpp:91] Creating Layer inception_5b/relu_1x1
I0714 22:09:52.814085 24103 net.cpp:425] inception_5b/relu_1x1 <- inception_5b/1x1
I0714 22:09:52.814092 24103 net.cpp:386] inception_5b/relu_1x1 -> inception_5b/1x1 (in-place)
I0714 22:09:52.814424 24103 net.cpp:141] Setting up inception_5b/relu_1x1
I0714 22:09:52.814437 24103 net.cpp:148] Top shape: 10 384 7 7 (188160)
I0714 22:09:52.814442 24103 net.cpp:156] Memory required for data: 544284160
I0714 22:09:52.814448 24103 layer_factory.hpp:77] Creating layer inception_5b/3x3_reduce
I0714 22:09:52.814465 24103 net.cpp:91] Creating Layer inception_5b/3x3_reduce
I0714 22:09:52.814472 24103 net.cpp:425] inception_5b/3x3_reduce <- inception_5a/output_inception_5a/output_0_split_1
I0714 22:09:52.814486 24103 net.cpp:399] inception_5b/3x3_reduce -> inception_5b/3x3_reduce
I0714 22:09:52.822702 24103 net.cpp:141] Setting up inception_5b/3x3_reduce
I0714 22:09:52.822731 24103 net.cpp:148] Top shape: 10 192 7 7 (94080)
I0714 22:09:52.822737 24103 net.cpp:156] Memory required for data: 544660480
I0714 22:09:52.822749 24103 layer_factory.hpp:77] Creating layer inception_5b/relu_3x3_reduce
I0714 22:09:52.822762 24103 net.cpp:91] Creating Layer inception_5b/relu_3x3_reduce
I0714 22:09:52.822772 24103 net.cpp:425] inception_5b/relu_3x3_reduce <- inception_5b/3x3_reduce
I0714 22:09:52.822782 24103 net.cpp:386] inception_5b/relu_3x3_reduce -> inception_5b/3x3_reduce (in-place)
I0714 22:09:52.823210 24103 net.cpp:141] Setting up inception_5b/relu_3x3_reduce
I0714 22:09:52.823226 24103 net.cpp:148] Top shape: 10 192 7 7 (94080)
I0714 22:09:52.823232 24103 net.cpp:156] Memory required for data: 545036800
I0714 22:09:52.823238 24103 layer_factory.hpp:77] Creating layer inception_5b/3x3
I0714 22:09:52.823271 24103 net.cpp:91] Creating Layer inception_5b/3x3
I0714 22:09:52.823279 24103 net.cpp:425] inception_5b/3x3 <- inception_5b/3x3_reduce
I0714 22:09:52.823290 24103 net.cpp:399] inception_5b/3x3 -> inception_5b/3x3
I0714 22:09:52.823894 24107 net.cpp:141] Setting up inception_5b/3x3
I0714 22:09:52.823914 24107 net.cpp:148] Top shape: 10 384 7 7 (188160)
I0714 22:09:52.823922 24107 net.cpp:156] Memory required for data: 545789440
I0714 22:09:52.823935 24107 layer_factory.hpp:77] Creating layer inception_5b/relu_3x3
I0714 22:09:52.823945 24107 net.cpp:91] Creating Layer inception_5b/relu_3x3
I0714 22:09:52.823952 24107 net.cpp:425] inception_5b/relu_3x3 <- inception_5b/3x3
I0714 22:09:52.823961 24107 net.cpp:386] inception_5b/relu_3x3 -> inception_5b/3x3 (in-place)
I0714 22:09:52.825028 24107 net.cpp:141] Setting up inception_5b/relu_3x3
I0714 22:09:52.825049 24107 net.cpp:148] Top shape: 10 384 7 7 (188160)
I0714 22:09:52.825055 24107 net.cpp:156] Memory required for data: 546542080
I0714 22:09:52.825062 24107 layer_factory.hpp:77] Creating layer inception_5b/5x5_reduce
I0714 22:09:52.826233 24107 net.cpp:91] Creating Layer inception_5b/5x5_reduce
I0714 22:09:52.826248 24107 net.cpp:425] inception_5b/5x5_reduce <- inception_5a/output_inception_5a/output_0_split_2
I0714 22:09:52.826261 24107 net.cpp:399] inception_5b/5x5_reduce -> inception_5b/5x5_reduce
I0714 22:09:52.831678 24107 net.cpp:141] Setting up inception_5b/5x5_reduce
I0714 22:09:52.831712 24107 net.cpp:148] Top shape: 10 48 7 7 (23520)
I0714 22:09:52.831718 24107 net.cpp:156] Memory required for data: 546636160
I0714 22:09:52.831733 24107 layer_factory.hpp:77] Creating layer inception_5b/relu_5x5_reduce
I0714 22:09:52.831753 24107 net.cpp:91] Creating Layer inception_5b/relu_5x5_reduce
I0714 22:09:52.831761 24107 net.cpp:425] inception_5b/relu_5x5_reduce <- inception_5b/5x5_reduce
I0714 22:09:52.831771 24107 net.cpp:386] inception_5b/relu_5x5_reduce -> inception_5b/5x5_reduce (in-place)
I0714 22:09:52.832082 24107 net.cpp:141] Setting up inception_5b/relu_5x5_reduce
I0714 22:09:52.832095 24107 net.cpp:148] Top shape: 10 48 7 7 (23520)
I0714 22:09:52.832100 24107 net.cpp:156] Memory required for data: 546730240
I0714 22:09:52.832106 24107 layer_factory.hpp:77] Creating layer inception_5b/5x5
I0714 22:09:52.832129 24107 net.cpp:91] Creating Layer inception_5b/5x5
I0714 22:09:52.832136 24107 net.cpp:425] inception_5b/5x5 <- inception_5b/5x5_reduce
I0714 22:09:52.832146 24107 net.cpp:399] inception_5b/5x5 -> inception_5b/5x5
I0714 22:09:52.837842 24103 net.cpp:141] Setting up inception_5b/3x3
I0714 22:09:52.837874 24103 net.cpp:148] Top shape: 10 384 7 7 (188160)
I0714 22:09:52.837880 24103 net.cpp:156] Memory required for data: 545789440
I0714 22:09:52.837893 24103 layer_factory.hpp:77] Creating layer inception_5b/relu_3x3
I0714 22:09:52.837910 24103 net.cpp:91] Creating Layer inception_5b/relu_3x3
I0714 22:09:52.837919 24103 net.cpp:425] inception_5b/relu_3x3 <- inception_5b/3x3
I0714 22:09:52.837929 24103 net.cpp:386] inception_5b/relu_3x3 -> inception_5b/3x3 (in-place)
I0714 22:09:52.839315 24103 net.cpp:141] Setting up inception_5b/relu_3x3
I0714 22:09:52.839336 24103 net.cpp:148] Top shape: 10 384 7 7 (188160)
I0714 22:09:52.839341 24103 net.cpp:156] Memory required for data: 546542080
I0714 22:09:52.839347 24103 layer_factory.hpp:77] Creating layer inception_5b/5x5_reduce
I0714 22:09:52.839370 24103 net.cpp:91] Creating Layer inception_5b/5x5_reduce
I0714 22:09:52.839377 24103 net.cpp:425] inception_5b/5x5_reduce <- inception_5a/output_inception_5a/output_0_split_2
I0714 22:09:52.839390 24103 net.cpp:399] inception_5b/5x5_reduce -> inception_5b/5x5_reduce
I0714 22:09:52.839520 24107 net.cpp:141] Setting up inception_5b/5x5
I0714 22:09:52.839540 24107 net.cpp:148] Top shape: 10 128 7 7 (62720)
I0714 22:09:52.839546 24107 net.cpp:156] Memory required for data: 546981120
I0714 22:09:52.839557 24107 layer_factory.hpp:77] Creating layer inception_5b/relu_5x5
I0714 22:09:52.839576 24107 net.cpp:91] Creating Layer inception_5b/relu_5x5
I0714 22:09:52.839584 24107 net.cpp:425] inception_5b/relu_5x5 <- inception_5b/5x5
I0714 22:09:52.839593 24107 net.cpp:386] inception_5b/relu_5x5 -> inception_5b/5x5 (in-place)
I0714 22:09:52.840059 24107 net.cpp:141] Setting up inception_5b/relu_5x5
I0714 22:09:52.840076 24107 net.cpp:148] Top shape: 10 128 7 7 (62720)
I0714 22:09:52.840082 24107 net.cpp:156] Memory required for data: 547232000
I0714 22:09:52.840088 24107 layer_factory.hpp:77] Creating layer inception_5b/pool
I0714 22:09:52.840103 24107 net.cpp:91] Creating Layer inception_5b/pool
I0714 22:09:52.840111 24107 net.cpp:425] inception_5b/pool <- inception_5a/output_inception_5a/output_0_split_3
I0714 22:09:52.840123 24107 net.cpp:399] inception_5b/pool -> inception_5b/pool
I0714 22:09:52.840396 24107 net.cpp:141] Setting up inception_5b/pool
I0714 22:09:52.840409 24107 net.cpp:148] Top shape: 10 832 7 7 (407680)
I0714 22:09:52.840415 24107 net.cpp:156] Memory required for data: 548862720
I0714 22:09:52.840420 24107 layer_factory.hpp:77] Creating layer inception_5b/pool_proj
I0714 22:09:52.840438 24107 net.cpp:91] Creating Layer inception_5b/pool_proj
I0714 22:09:52.840445 24107 net.cpp:425] inception_5b/pool_proj <- inception_5b/pool
I0714 22:09:52.840458 24107 net.cpp:399] inception_5b/pool_proj -> inception_5b/pool_proj
I0714 22:09:52.846607 24103 net.cpp:141] Setting up inception_5b/5x5_reduce
I0714 22:09:52.846647 24103 net.cpp:148] Top shape: 10 48 7 7 (23520)
I0714 22:09:52.846653 24103 net.cpp:156] Memory required for data: 546636160
I0714 22:09:52.846668 24103 layer_factory.hpp:77] Creating layer inception_5b/relu_5x5_reduce
I0714 22:09:52.846680 24103 net.cpp:91] Creating Layer inception_5b/relu_5x5_reduce
I0714 22:09:52.846698 24103 net.cpp:425] inception_5b/relu_5x5_reduce <- inception_5b/5x5_reduce
I0714 22:09:52.846709 24103 net.cpp:386] inception_5b/relu_5x5_reduce -> inception_5b/5x5_reduce (in-place)
I0714 22:09:52.847060 24103 net.cpp:141] Setting up inception_5b/relu_5x5_reduce
I0714 22:09:52.847079 24103 net.cpp:148] Top shape: 10 48 7 7 (23520)
I0714 22:09:52.847084 24103 net.cpp:156] Memory required for data: 546730240
I0714 22:09:52.847090 24103 layer_factory.hpp:77] Creating layer inception_5b/5x5
I0714 22:09:52.847112 24103 net.cpp:91] Creating Layer inception_5b/5x5
I0714 22:09:52.847121 24103 net.cpp:425] inception_5b/5x5 <- inception_5b/5x5_reduce
I0714 22:09:52.847131 24103 net.cpp:399] inception_5b/5x5 -> inception_5b/5x5
I0714 22:09:52.848672 24107 net.cpp:141] Setting up inception_5b/pool_proj
I0714 22:09:52.848695 24107 net.cpp:148] Top shape: 10 128 7 7 (62720)
I0714 22:09:52.848701 24107 net.cpp:156] Memory required for data: 549113600
I0714 22:09:52.848713 24107 layer_factory.hpp:77] Creating layer inception_5b/relu_pool_proj
I0714 22:09:52.848727 24107 net.cpp:91] Creating Layer inception_5b/relu_pool_proj
I0714 22:09:52.848736 24107 net.cpp:425] inception_5b/relu_pool_proj <- inception_5b/pool_proj
I0714 22:09:52.848747 24107 net.cpp:386] inception_5b/relu_pool_proj -> inception_5b/pool_proj (in-place)
I0714 22:09:52.849777 24107 net.cpp:141] Setting up inception_5b/relu_pool_proj
I0714 22:09:52.849797 24107 net.cpp:148] Top shape: 10 128 7 7 (62720)
I0714 22:09:52.849802 24107 net.cpp:156] Memory required for data: 549364480
I0714 22:09:52.849812 24107 layer_factory.hpp:77] Creating layer inception_5b/output
I0714 22:09:52.849824 24107 net.cpp:91] Creating Layer inception_5b/output
I0714 22:09:52.849831 24107 net.cpp:425] inception_5b/output <- inception_5b/1x1
I0714 22:09:52.849839 24107 net.cpp:425] inception_5b/output <- inception_5b/3x3
I0714 22:09:52.849845 24107 net.cpp:425] inception_5b/output <- inception_5b/5x5
I0714 22:09:52.849851 24107 net.cpp:425] inception_5b/output <- inception_5b/pool_proj
I0714 22:09:52.849864 24107 net.cpp:399] inception_5b/output -> inception_5b/output
I0714 22:09:52.850677 24107 net.cpp:141] Setting up inception_5b/output
I0714 22:09:52.850702 24107 net.cpp:148] Top shape: 10 1024 7 7 (501760)
I0714 22:09:52.850706 24107 net.cpp:156] Memory required for data: 551371520
I0714 22:09:52.850713 24107 layer_factory.hpp:77] Creating layer pool5/7x7_s1
I0714 22:09:52.850728 24107 net.cpp:91] Creating Layer pool5/7x7_s1
I0714 22:09:52.850734 24107 net.cpp:425] pool5/7x7_s1 <- inception_5b/output
I0714 22:09:52.850742 24107 net.cpp:399] pool5/7x7_s1 -> pool5/7x7_s1
I0714 22:09:52.851599 24107 net.cpp:141] Setting up pool5/7x7_s1
I0714 22:09:52.851616 24107 net.cpp:148] Top shape: 10 1024 1 1 (10240)
I0714 22:09:52.851622 24107 net.cpp:156] Memory required for data: 551412480
I0714 22:09:52.851629 24107 layer_factory.hpp:77] Creating layer pool5/drop_7x7_s1
I0714 22:09:52.851650 24107 net.cpp:91] Creating Layer pool5/drop_7x7_s1
I0714 22:09:52.851657 24107 net.cpp:425] pool5/drop_7x7_s1 <- pool5/7x7_s1
I0714 22:09:52.851665 24107 net.cpp:386] pool5/drop_7x7_s1 -> pool5/7x7_s1 (in-place)
I0714 22:09:52.851903 24107 net.cpp:141] Setting up pool5/drop_7x7_s1
I0714 22:09:52.851917 24107 net.cpp:148] Top shape: 10 1024 1 1 (10240)
I0714 22:09:52.851922 24107 net.cpp:156] Memory required for data: 551453440
I0714 22:09:52.851927 24107 layer_factory.hpp:77] Creating layer loss3/classifier
I0714 22:09:52.851953 24107 net.cpp:91] Creating Layer loss3/classifier
I0714 22:09:52.851959 24107 net.cpp:425] loss3/classifier <- pool5/7x7_s1
I0714 22:09:52.851971 24107 net.cpp:399] loss3/classifier -> loss3/classifier
I0714 22:09:52.856765 24103 net.cpp:141] Setting up inception_5b/5x5
I0714 22:09:52.856799 24103 net.cpp:148] Top shape: 10 128 7 7 (62720)
I0714 22:09:52.856806 24103 net.cpp:156] Memory required for data: 546981120
I0714 22:09:52.856818 24103 layer_factory.hpp:77] Creating layer inception_5b/relu_5x5
I0714 22:09:52.856835 24103 net.cpp:91] Creating Layer inception_5b/relu_5x5
I0714 22:09:52.856843 24103 net.cpp:425] inception_5b/relu_5x5 <- inception_5b/5x5
I0714 22:09:52.856856 24103 net.cpp:386] inception_5b/relu_5x5 -> inception_5b/5x5 (in-place)
I0714 22:09:52.857184 24103 net.cpp:141] Setting up inception_5b/relu_5x5
I0714 22:09:52.857197 24103 net.cpp:148] Top shape: 10 128 7 7 (62720)
I0714 22:09:52.857203 24103 net.cpp:156] Memory required for data: 547232000
I0714 22:09:52.857209 24103 layer_factory.hpp:77] Creating layer inception_5b/pool
I0714 22:09:52.857220 24103 net.cpp:91] Creating Layer inception_5b/pool
I0714 22:09:52.857228 24103 net.cpp:425] inception_5b/pool <- inception_5a/output_inception_5a/output_0_split_3
I0714 22:09:52.857244 24103 net.cpp:399] inception_5b/pool -> inception_5b/pool
I0714 22:09:52.857408 24103 net.cpp:141] Setting up inception_5b/pool
I0714 22:09:52.857420 24103 net.cpp:148] Top shape: 10 832 7 7 (407680)
I0714 22:09:52.857424 24103 net.cpp:156] Memory required for data: 548862720
I0714 22:09:52.857431 24103 layer_factory.hpp:77] Creating layer inception_5b/pool_proj
I0714 22:09:52.857456 24103 net.cpp:91] Creating Layer inception_5b/pool_proj
I0714 22:09:52.857463 24103 net.cpp:425] inception_5b/pool_proj <- inception_5b/pool
I0714 22:09:52.857476 24103 net.cpp:399] inception_5b/pool_proj -> inception_5b/pool_proj
I0714 22:09:52.864868 24103 net.cpp:141] Setting up inception_5b/pool_proj
I0714 22:09:52.864940 24103 net.cpp:148] Top shape: 10 128 7 7 (62720)
I0714 22:09:52.864953 24103 net.cpp:156] Memory required for data: 549113600
I0714 22:09:52.864994 24103 layer_factory.hpp:77] Creating layer inception_5b/relu_pool_proj
I0714 22:09:52.865018 24103 net.cpp:91] Creating Layer inception_5b/relu_pool_proj
I0714 22:09:52.865032 24103 net.cpp:425] inception_5b/relu_pool_proj <- inception_5b/pool_proj
I0714 22:09:52.865053 24103 net.cpp:386] inception_5b/relu_pool_proj -> inception_5b/pool_proj (in-place)
I0714 22:09:52.867167 24103 net.cpp:141] Setting up inception_5b/relu_pool_proj
I0714 22:09:52.867199 24103 net.cpp:148] Top shape: 10 128 7 7 (62720)
I0714 22:09:52.867209 24103 net.cpp:156] Memory required for data: 549364480
I0714 22:09:52.867216 24107 net.cpp:141] Setting up loss3/classifier
I0714 22:09:52.867220 24103 layer_factory.hpp:77] Creating layer inception_5b/output
I0714 22:09:52.867256 24107 net.cpp:148] Top shape: 10 1000 (10000)
I0714 22:09:52.867264 24107 net.cpp:156] Memory required for data: 551493440
I0714 22:09:52.867277 24107 layer_factory.hpp:77] Creating layer prob
I0714 22:09:52.867276 24103 net.cpp:91] Creating Layer inception_5b/output
I0714 22:09:52.867300 24107 net.cpp:91] Creating Layer prob
I0714 22:09:52.867302 24103 net.cpp:425] inception_5b/output <- inception_5b/1x1
I0714 22:09:52.867307 24107 net.cpp:425] prob <- loss3/classifier
I0714 22:09:52.867316 24103 net.cpp:425] inception_5b/output <- inception_5b/3x3
I0714 22:09:52.867318 24107 net.cpp:399] prob -> prob
I0714 22:09:52.867333 24103 net.cpp:425] inception_5b/output <- inception_5b/5x5
I0714 22:09:52.867344 24103 net.cpp:425] inception_5b/output <- inception_5b/pool_proj
I0714 22:09:52.867357 24103 net.cpp:399] inception_5b/output -> inception_5b/output
I0714 22:09:52.868314 24103 net.cpp:141] Setting up inception_5b/output
I0714 22:09:52.868343 24103 net.cpp:148] Top shape: 10 1024 7 7 (501760)
I0714 22:09:52.868351 24103 net.cpp:156] Memory required for data: 551371520
I0714 22:09:52.868361 24103 layer_factory.hpp:77] Creating layer pool5/7x7_s1
I0714 22:09:52.868450 24103 net.cpp:91] Creating Layer pool5/7x7_s1
I0714 22:09:52.868472 24103 net.cpp:425] pool5/7x7_s1 <- inception_5b/output
I0714 22:09:52.868484 24103 net.cpp:399] pool5/7x7_s1 -> pool5/7x7_s1
I0714 22:09:52.869086 24107 net.cpp:141] Setting up prob
I0714 22:09:52.869115 24107 net.cpp:148] Top shape: 10 1000 (10000)
I0714 22:09:52.869122 24107 net.cpp:156] Memory required for data: 551533440
I0714 22:09:52.869128 24107 net.cpp:219] prob does not need backward computation.
I0714 22:09:52.869134 24107 net.cpp:219] loss3/classifier does not need backward computation.
I0714 22:09:52.869139 24107 net.cpp:219] pool5/drop_7x7_s1 does not need backward computation.
I0714 22:09:52.869144 24107 net.cpp:219] pool5/7x7_s1 does not need backward computation.
…
