…
2016-08-02 07:28:24.697 STDERR [INFO] I0802 07:28:24.675402 11585 net.cpp:91] Creating Layer input
2016-08-02 07:28:24.697 STDERR [INFO] I0802 07:28:24.675410 11585 net.cpp:399] input -> frames_fc7
2016-08-02 07:28:24.697 STDERR [INFO] I0802 07:28:24.675428 11585 net.cpp:399] input -> cont_sentence
2016-08-02 07:28:24.697 STDERR [INFO] I0802 07:28:24.675438 11585 net.cpp:399] input -> input_sentence
2016-08-02 07:28:24.697 STDERR [INFO] I0802 07:28:24.675447 11585 net.cpp:399] input -> stage_indicator
2016-08-02 07:28:24.697 STDERR [INFO] I0802 07:28:24.675632 11585 net.cpp:141] Setting up input
2016-08-02 07:28:24.697 STDERR [INFO] I0802 07:28:24.675645 11585 net.cpp:148] Top shape: 1 4096 (4096)
2016-08-02 07:28:24.697 STDERR [INFO] I0802 07:28:24.675652 11585 net.cpp:148] Top shape: 1 1 (1)
2016-08-02 07:28:24.697 STDERR [INFO] I0802 07:28:24.675657 11585 net.cpp:148] Top shape: 1 1 (1)
2016-08-02 07:28:24.697 STDERR [INFO] I0802 07:28:24.675662 11585 net.cpp:148] Top shape: 1 1 (1)
2016-08-02 07:28:24.697 STDERR [INFO] I0802 07:28:24.675668 11585 net.cpp:156] Memory required for data: 16396
2016-08-02 07:28:24.698 STDERR [INFO] I0802 07:28:24.675673 11585 layer_factory.hpp:77] Creating layer cont_sentence_input_1_split
2016-08-02 07:28:24.698 STDERR [INFO] I0802 07:28:24.675693 11585 net.cpp:91] Creating Layer cont_sentence_input_1_split
2016-08-02 07:28:24.698 STDERR [INFO] I0802 07:28:24.675698 11585 net.cpp:425] cont_sentence_input_1_split <- cont_sentence
2016-08-02 07:28:24.698 STDERR [INFO] I0802 07:28:24.675717 11585 net.cpp:399] cont_sentence_input_1_split -> cont_sentence_input_1_split_0
2016-08-02 07:28:24.698 STDERR [INFO] I0802 07:28:24.675729 11585 net.cpp:399] cont_sentence_input_1_split -> cont_sentence_input_1_split_1
2016-08-02 07:28:24.698 STDERR [INFO] I0802 07:28:24.675782 11585 net.cpp:141] Setting up cont_sentence_input_1_split
2016-08-02 07:28:24.698 STDERR [INFO] I0802 07:28:24.675792 11585 net.cpp:148] Top shape: 1 1 (1)
2016-08-02 07:28:24.698 STDERR [INFO] I0802 07:28:24.675798 11585 net.cpp:148] Top shape: 1 1 (1)
2016-08-02 07:28:24.698 STDERR [INFO] I0802 07:28:24.675802 11585 net.cpp:156] Memory required for data: 16404
2016-08-02 07:28:24.698 STDERR [INFO] I0802 07:28:24.675807 11585 layer_factory.hpp:77] Creating layer embed_encoder
2016-08-02 07:28:24.698 STDERR [INFO] I0802 07:28:24.675823 11585 net.cpp:91] Creating Layer embed_encoder
2016-08-02 07:28:24.698 STDERR [INFO] I0802 07:28:24.675828 11585 net.cpp:425] embed_encoder <- frames_fc7
2016-08-02 07:28:24.699 STDERR [INFO] I0802 07:28:24.675838 11585 net.cpp:399] embed_encoder -> embedded_in_frames
2016-08-02 07:28:24.699 STDERR [INFO] I0802 07:28:24.698298 11585 net.cpp:141] Setting up embed_encoder
2016-08-02 07:28:24.699 STDERR [INFO] I0802 07:28:24.698344 11585 net.cpp:148] Top shape: 1 500 (500)
2016-08-02 07:28:24.699 STDERR [INFO] I0802 07:28:24.698351 11585 net.cpp:156] Memory required for data: 18404
2016-08-02 07:28:24.699 STDERR [INFO] I0802 07:28:24.698379 11585 layer_factory.hpp:77] Creating layer reshape_frames
2016-08-02 07:28:24.699 STDERR [INFO] I0802 07:28:24.698407 11585 net.cpp:91] Creating Layer reshape_frames
2016-08-02 07:28:24.699 STDERR [INFO] I0802 07:28:24.698415 11585 net.cpp:425] reshape_frames <- embedded_in_frames
2016-08-02 07:28:24.699 STDERR [INFO] I0802 07:28:24.698426 11585 net.cpp:399] reshape_frames -> embedded_input_frames
2016-08-02 07:28:24.699 STDERR [INFO] I0802 07:28:24.698642 11585 net.cpp:141] Setting up reshape_frames
2016-08-02 07:28:24.699 STDERR [INFO] I0802 07:28:24.698663 11585 net.cpp:148] Top shape: 1 1 500 (500)
2016-08-02 07:28:24.699 STDERR [INFO] I0802 07:28:24.698673 11585 net.cpp:156] Memory required for data: 20404
2016-08-02 07:28:24.699 STDERR [INFO] I0802 07:28:24.698683 11585 layer_factory.hpp:77] Creating layer reshape_stage_indicator
2016-08-02 07:28:24.700 STDERR [INFO] I0802 07:28:24.698700 11585 net.cpp:91] Creating Layer reshape_stage_indicator
2016-08-02 07:28:24.700 STDERR [INFO] I0802 07:28:24.698709 11585 net.cpp:425] reshape_stage_indicator <- stage_indicator
2016-08-02 07:28:24.700 STDERR [INFO] I0802 07:28:24.698727 11585 net.cpp:399] reshape_stage_indicator -> reshaped_stage_indicator
2016-08-02 07:28:24.700 STDERR [INFO] I0802 07:28:24.698830 11585 net.cpp:141] Setting up reshape_stage_indicator
2016-08-02 07:28:24.700 STDERR [INFO] I0802 07:28:24.698848 11585 net.cpp:148] Top shape: 1 1 1 (1)
2016-08-02 07:28:24.701 STDERR [INFO] I0802 07:28:24.698854 11585 net.cpp:156] Memory required for data: 20408
2016-08-02 07:28:24.701 STDERR [INFO] I0802 07:28:24.698863 11585 layer_factory.hpp:77] Creating layer embedding
2016-08-02 07:28:24.701 STDERR [INFO] I0802 07:28:24.698882 11585 net.cpp:91] Creating Layer embedding
2016-08-02 07:28:24.701 STDERR [INFO] I0802 07:28:24.698892 11585 net.cpp:425] embedding <- input_sentence
…
2016-08-02 07:28:24.815 n.t.s.b.CVParticleBolt [INFO] [Timing] RequestID: 0 StreamID: home_peifeng_work_data_frame_320x240_jpg SequenceNr: 130 Leaving scale: 1470137304815 Size: 3530
2016-08-02 07:28:24.816 n.t.s.b.CVParticleBolt [INFO] [Timing] RequestID: 0 StreamID: home_peifeng_work_data_frame_320x240_jpg SequenceNr: 131 Leaving scale: 1470137304816 Size: 3530
2016-08-02 07:28:24.818 n.t.s.b.CVParticleBolt [INFO] [Timing] RequestID: 0 StreamID: home_peifeng_work_data_frame_320x240_jpg SequenceNr: 129 Leaving scale: 1470137304818 Size: 3530
2016-08-02 07:28:24.833 STDERR [INFO] I0802 07:28:24.832892 11595 net.cpp:141] Setting up conv1
2016-08-02 07:28:24.833 STDERR [INFO] I0802 07:28:24.832950 11595 net.cpp:148] Top shape: 10 96 55 55 (2904000)
2016-08-02 07:28:24.833 STDERR [INFO] I0802 07:28:24.832958 11595 net.cpp:156] Memory required for data: 17799480
2016-08-02 07:28:24.833 STDERR [INFO] I0802 07:28:24.832988 11595 layer_factory.hpp:77] Creating layer relu1
2016-08-02 07:28:24.833 STDERR [INFO] I0802 07:28:24.833009 11595 net.cpp:91] Creating Layer relu1
2016-08-02 07:28:24.833 STDERR [INFO] I0802 07:28:24.833017 11595 net.cpp:425] relu1 <- conv1
2016-08-02 07:28:24.834 STDERR [INFO] I0802 07:28:24.833031 11595 net.cpp:386] relu1 -> conv1 (in-place)
2016-08-02 07:28:24.834 STDERR [INFO] I0802 07:28:24.833588 11595 net.cpp:141] Setting up relu1
2016-08-02 07:28:24.834 STDERR [INFO] I0802 07:28:24.833605 11595 net.cpp:148] Top shape: 10 96 55 55 (2904000)
2016-08-02 07:28:24.834 STDERR [INFO] I0802 07:28:24.833611 11595 net.cpp:156] Memory required for data: 29415480
2016-08-02 07:28:24.834 STDERR [INFO] I0802 07:28:24.833617 11595 layer_factory.hpp:77] Creating layer pool1
2016-08-02 07:28:24.834 STDERR [INFO] I0802 07:28:24.833636 11595 net.cpp:91] Creating Layer pool1
2016-08-02 07:28:24.834 STDERR [INFO] I0802 07:28:24.833643 11595 net.cpp:425] pool1 <- conv1
2016-08-02 07:28:24.834 STDERR [INFO] I0802 07:28:24.833652 11595 net.cpp:399] pool1 -> pool1
2016-08-02 07:28:24.834 STDERR [INFO] I0802 07:28:24.833744 11595 net.cpp:141] Setting up pool1
2016-08-02 07:28:24.835 STDERR [INFO] I0802 07:28:24.833755 11595 net.cpp:148] Top shape: 10 96 27 27 (699840)
2016-08-02 07:28:24.835 STDERR [INFO] I0802 07:28:24.833761 11595 net.cpp:156] Memory required for data: 32214840
2016-08-02 07:28:24.835 STDERR [INFO] I0802 07:28:24.833767 11595 layer_factory.hpp:77] Creating layer norm1
2016-08-02 07:28:24.835 STDERR [INFO] I0802 07:28:24.833789 11595 net.cpp:91] Creating Layer norm1
2016-08-02 07:28:24.835 STDERR [INFO] I0802 07:28:24.833796 11595 net.cpp:425] norm1 <- pool1
2016-08-02 07:28:24.835 STDERR [INFO] I0802 07:28:24.833804 11595 net.cpp:399] norm1 -> norm1
2016-08-02 07:28:24.835 STDERR [INFO] I0802 07:28:24.834408 11595 net.cpp:141] Setting up norm1
2016-08-02 07:28:24.835 STDERR [INFO] I0802 07:28:24.834427 11595 net.cpp:148] Top shape: 10 96 27 27 (699840)
2016-08-02 07:28:24.835 STDERR [INFO] I0802 07:28:24.834434 11595 net.cpp:156] Memory required for data: 35014200
2016-08-02 07:28:24.835 STDERR [INFO] I0802 07:28:24.834439 11595 layer_factory.hpp:77] Creating layer conv2
2016-08-02 07:28:24.836 STDERR [INFO] I0802 07:28:24.834457 11595 net.cpp:91] Creating Layer conv2
2016-08-02 07:28:24.836 STDERR [INFO] I0802 07:28:24.834463 11595 net.cpp:425] conv2 <- norm1
2016-08-02 07:28:24.836 STDERR [INFO] I0802 07:28:24.834478 11595 net.cpp:399] conv2 -> conv2
2016-08-02 07:28:24.838 STDERR [INFO] I0802 07:28:24.838508 11595 net.cpp:141] Setting up conv2
2016-08-02 07:28:24.838 STDERR [INFO] I0802 07:28:24.838531 11595 net.cpp:148] Top shape: 10 256 27 27 (1866240)
2016-08-02 07:28:24.838 STDERR [INFO] I0802 07:28:24.838537 11595 net.cpp:156] Memory required for data: 42479160
2016-08-02 07:28:24.839 STDERR [INFO] I0802 07:28:24.838552 11595 layer_factory.hpp:77] Creating layer relu2
2016-08-02 07:28:24.839 STDERR [INFO] I0802 07:28:24.838568 11595 net.cpp:91] Creating Layer relu2
2016-08-02 07:28:24.839 STDERR [INFO] I0802 07:28:24.838575 11595 net.cpp:425] relu2 <- conv2
2016-08-02 07:28:24.839 STDERR [INFO] I0802 07:28:24.838583 11595 net.cpp:386] relu2 -> conv2 (in-place)
2016-08-02 07:28:24.839 STDERR [INFO] I0802 07:28:24.839128 11595 net.cpp:141] Setting up relu2
2016-08-02 07:28:24.839 STDERR [INFO] I0802 07:28:24.839146 11595 net.cpp:148] Top shape: 10 256 27 27 (1866240)
2016-08-02 07:28:24.839 STDERR [INFO] I0802 07:28:24.839154 11595 net.cpp:156] Memory required for data: 49944120
2016-08-02 07:28:24.839 STDERR [INFO] I0802 07:28:24.839159 11595 layer_factory.hpp:77] Creating layer pool2
2016-08-02 07:28:24.839 STDERR [INFO] I0802 07:28:24.839171 11595 net.cpp:91] Creating Layer pool2
2016-08-02 07:28:24.840 STDERR [INFO] I0802 07:28:24.839177 11595 net.cpp:425] pool2 <- conv2
2016-08-02 07:28:24.840 STDERR [INFO] I0802 07:28:24.839189 11595 net.cpp:399] pool2 -> pool2
2016-08-02 07:28:24.840 STDERR [INFO] I0802 07:28:24.839254 11595 net.cpp:141] Setting up pool2
2016-08-02 07:28:24.840 STDERR [INFO] I0802 07:28:24.839268 11595 net.cpp:148] Top shape: 10 256 13 13 (432640)
2016-08-02 07:28:24.840 STDERR [INFO] I0802 07:28:24.839273 11595 net.cpp:156] Memory required for data: 51674680
2016-08-02 07:28:24.840 STDERR [INFO] I0802 07:28:24.839279 11595 layer_factory.hpp:77] Creating layer norm2
2016-08-02 07:28:24.840 STDERR [INFO] I0802 07:28:24.839290 11595 net.cpp:91] Creating Layer norm2
2016-08-02 07:28:24.840 STDERR [INFO] I0802 07:28:24.839296 11595 net.cpp:425] norm2 <- pool2
2016-08-02 07:28:24.840 STDERR [INFO] I0802 07:28:24.839308 11595 net.cpp:399] norm2 -> norm2
2016-08-02 07:28:24.840 STDERR [INFO] I0802 07:28:24.839615 11595 net.cpp:141] Setting up norm2
2016-08-02 07:28:24.841 STDERR [INFO] I0802 07:28:24.839630 11595 net.cpp:148] Top shape: 10 256 13 13 (432640)
2016-08-02 07:28:24.841 STDERR [INFO] I0802 07:28:24.839635 11595 net.cpp:156] Memory required for data: 53405240
2016-08-02 07:28:24.841 STDERR [INFO] I0802 07:28:24.839642 11595 layer_factory.hpp:77] Creating layer conv3
2016-08-02 07:28:24.841 STDERR [INFO] I0802 07:28:24.839656 11595 net.cpp:91] Creating Layer conv3
2016-08-02 07:28:24.841 STDERR [INFO] I0802 07:28:24.839663 11595 net.cpp:425] conv3 <- norm2
2016-08-02 07:28:24.841 STDERR [INFO] I0802 07:28:24.839675 11595 net.cpp:399] conv3 -> conv3
2016-08-02 07:28:24.844 STDERR [INFO] I0802 07:28:24.844465 11595 net.cpp:141] Setting up conv3
2016-08-02 07:28:24.844 STDERR [INFO] I0802 07:28:24.844507 11595 net.cpp:148] Top shape: 10 384 13 13 (648960)
2016-08-02 07:28:24.845 STDERR [INFO] I0802 07:28:24.844514 11595 net.cpp:156] Memory required for data: 56001080
2016-08-02 07:28:24.845 STDERR [INFO] I0802 07:28:24.844534 11595 layer_factory.hpp:77] Creating layer relu3
2016-08-02 07:28:24.845 STDERR [INFO] I0802 07:28:24.844558 11595 net.cpp:91] Creating Layer relu3
2016-08-02 07:28:24.845 STDERR [INFO] I0802 07:28:24.844565 11595 net.cpp:425] relu3 <- conv3
2016-08-02 07:28:24.845 STDERR [INFO] I0802 07:28:24.844574 11595 net.cpp:386] relu3 -> conv3 (in-place)
2016-08-02 07:28:24.845 STDERR [INFO] I0802 07:28:24.845094 11595 net.cpp:141] Setting up relu3
2016-08-02 07:28:24.845 STDERR [INFO] I0802 07:28:24.845108 11595 net.cpp:148] Top shape: 10 384 13 13 (648960)
2016-08-02 07:28:24.845 STDERR [INFO] I0802 07:28:24.845113 11595 net.cpp:156] Memory required for data: 58596920
2016-08-02 07:28:24.845 STDERR [INFO] I0802 07:28:24.845119 11595 layer_factory.hpp:77] Creating layer conv4
2016-08-02 07:28:24.845 STDERR [INFO] I0802 07:28:24.845147 11595 net.cpp:91] Creating Layer conv4
2016-08-02 07:28:24.845 STDERR [INFO] I0802 07:28:24.845155 11595 net.cpp:425] conv4 <- conv3
2016-08-02 07:28:24.845 STDERR [INFO] I0802 07:28:24.845165 11595 net.cpp:399] conv4 -> conv4
2016-08-02 07:28:24.851 STDERR [INFO] I0802 07:28:24.850955 11595 net.cpp:141] Setting up conv4
2016-08-02 07:28:24.851 STDERR [INFO] I0802 07:28:24.850983 11595 net.cpp:148] Top shape: 10 384 13 13 (648960)
2016-08-02 07:28:24.851 STDERR [INFO] I0802 07:28:24.850989 11595 net.cpp:156] Memory required for data: 61192760
2016-08-02 07:28:24.851 STDERR [INFO] I0802 07:28:24.850999 11595 layer_factory.hpp:77] Creating layer relu4
2016-08-02 07:28:24.851 STDERR [INFO] I0802 07:28:24.851009 11595 net.cpp:91] Creating Layer relu4
2016-08-02 07:28:24.851 STDERR [INFO] I0802 07:28:24.851014 11595 net.cpp:425] relu4 <- conv4
2016-08-02 07:28:24.851 STDERR [INFO] I0802 07:28:24.851022 11595 net.cpp:386] relu4 -> conv4 (in-place)
2016-08-02 07:28:24.851 STDERR [INFO] I0802 07:28:24.851465 11595 net.cpp:141] Setting up relu4
2016-08-02 07:28:24.851 STDERR [INFO] I0802 07:28:24.851478 11595 net.cpp:148] Top shape: 10 384 13 13 (648960)
2016-08-02 07:28:24.851 STDERR [INFO] I0802 07:28:24.851482 11595 net.cpp:156] Memory required for data: 63788600
2016-08-02 07:28:24.852 STDERR [INFO] I0802 07:28:24.851487 11595 layer_factory.hpp:77] Creating layer conv5
2016-08-02 07:28:24.852 STDERR [INFO] I0802 07:28:24.851502 11595 net.cpp:91] Creating Layer conv5
2016-08-02 07:28:24.852 STDERR [INFO] I0802 07:28:24.851508 11595 net.cpp:425] conv5 <- conv4
2016-08-02 07:28:24.852 STDERR [INFO] I0802 07:28:24.851516 11595 net.cpp:399] conv5 -> conv5
2016-08-02 07:28:24.855 STDERR [INFO] I0802 07:28:24.855420 11595 net.cpp:141] Setting up conv5
2016-08-02 07:28:24.855 STDERR [INFO] I0802 07:28:24.855440 11595 net.cpp:148] Top shape: 10 256 13 13 (432640)
2016-08-02 07:28:24.855 STDERR [INFO] I0802 07:28:24.855446 11595 net.cpp:156] Memory required for data: 65519160
2016-08-02 07:28:24.855 STDERR [INFO] I0802 07:28:24.855459 11595 layer_factory.hpp:77] Creating layer relu5
2016-08-02 07:28:24.855 STDERR [INFO] I0802 07:28:24.855468 11595 net.cpp:91] Creating Layer relu5
2016-08-02 07:28:24.855 STDERR [INFO] I0802 07:28:24.855473 11595 net.cpp:425] relu5 <- conv5
2016-08-02 07:28:24.856 STDERR [INFO] I0802 07:28:24.855479 11595 net.cpp:386] relu5 -> conv5 (in-place)
2016-08-02 07:28:24.856 STDERR [INFO] I0802 07:28:24.855929 11595 net.cpp:141] Setting up relu5
2016-08-02 07:28:24.856 STDERR [INFO] I0802 07:28:24.855942 11595 net.cpp:148] Top shape: 10 256 13 13 (432640)
2016-08-02 07:28:24.856 STDERR [INFO] I0802 07:28:24.855947 11595 net.cpp:156] Memory required for data: 67249720
2016-08-02 07:28:24.856 STDERR [INFO] I0802 07:28:24.855952 11595 layer_factory.hpp:77] Creating layer pool5
2016-08-02 07:28:24.856 STDERR [INFO] I0802 07:28:24.855962 11595 net.cpp:91] Creating Layer pool5
2016-08-02 07:28:24.856 STDERR [INFO] I0802 07:28:24.855967 11595 net.cpp:425] pool5 <- conv5
2016-08-02 07:28:24.856 STDERR [INFO] I0802 07:28:24.855976 11595 net.cpp:399] pool5 -> pool5
2016-08-02 07:28:24.856 STDERR [INFO] I0802 07:28:24.856048 11595 net.cpp:141] Setting up pool5
2016-08-02 07:28:24.856 STDERR [INFO] I0802 07:28:24.856058 11595 net.cpp:148] Top shape: 10 256 6 6 (92160)
2016-08-02 07:28:24.856 STDERR [INFO] I0802 07:28:24.856063 11595 net.cpp:156] Memory required for data: 67618360
2016-08-02 07:28:24.856 STDERR [INFO] I0802 07:28:24.856067 11595 layer_factory.hpp:77] Creating layer fc6
2016-08-02 07:28:24.856 STDERR [INFO] I0802 07:28:24.856084 11595 net.cpp:91] Creating Layer fc6
2016-08-02 07:28:24.857 STDERR [INFO] I0802 07:28:24.856089 11595 net.cpp:425] fc6 <- pool5
2016-08-02 07:28:24.857 STDERR [INFO] I0802 07:28:24.856098 11595 net.cpp:399] fc6 -> fc6
2016-08-02 07:28:24.955 STDERR [INFO] I0802 07:28:24.955723 11595 net.cpp:141] Setting up fc6
2016-08-02 07:28:24.956 STDERR [INFO] I0802 07:28:24.955790 11595 net.cpp:148] Top shape: 10 4096 (40960)
2016-08-02 07:28:24.956 STDERR [INFO] I0802 07:28:24.955796 11595 net.cpp:156] Memory required for data: 67782200
2016-08-02 07:28:24.956 STDERR [INFO] I0802 07:28:24.955811 11595 layer_factory.hpp:77] Creating layer relu6
2016-08-02 07:28:24.956 STDERR [INFO] I0802 07:28:24.955832 11595 net.cpp:91] Creating Layer relu6
2016-08-02 07:28:24.956 STDERR [INFO] I0802 07:28:24.955838 11595 net.cpp:425] relu6 <- fc6
2016-08-02 07:28:24.956 STDERR [INFO] I0802 07:28:24.955847 11595 net.cpp:386] relu6 -> fc6 (in-place)
2016-08-02 07:28:24.956 STDERR [INFO] I0802 07:28:24.956187 11595 net.cpp:141] Setting up relu6
2016-08-02 07:28:24.956 STDERR [INFO] I0802 07:28:24.956197 11595 net.cpp:148] Top shape: 10 4096 (40960)
2016-08-02 07:28:24.957 STDERR [INFO] I0802 07:28:24.956202 11595 net.cpp:156] Memory required for data: 67946040
2016-08-02 07:28:24.957 STDERR [INFO] I0802 07:28:24.956207 11595 layer_factory.hpp:77] Creating layer drop6
2016-08-02 07:28:24.957 STDERR [INFO] I0802 07:28:24.956226 11595 net.cpp:91] Creating Layer drop6
2016-08-02 07:28:24.957 STDERR [INFO] I0802 07:28:24.956231 11595 net.cpp:425] drop6 <- fc6
2016-08-02 07:28:24.957 STDERR [INFO] I0802 07:28:24.956238 11595 net.cpp:386] drop6 -> fc6 (in-place)
2016-08-02 07:28:24.957 STDERR [INFO] I0802 07:28:24.956290 11595 net.cpp:141] Setting up drop6
2016-08-02 07:28:24.957 STDERR [INFO] I0802 07:28:24.956298 11595 net.cpp:148] Top shape: 10 4096 (40960)
2016-08-02 07:28:24.957 STDERR [INFO] I0802 07:28:24.956303 11595 net.cpp:156] Memory required for data: 68109880
2016-08-02 07:28:24.957 STDERR [INFO] I0802 07:28:24.956307 11595 layer_factory.hpp:77] Creating layer fc7
2016-08-02 07:28:24.957 STDERR [INFO] I0802 07:28:24.956320 11595 net.cpp:91] Creating Layer fc7
2016-08-02 07:28:24.957 STDERR [INFO] I0802 07:28:24.956324 11595 net.cpp:425] fc7 <- fc6
2016-08-02 07:28:24.957 STDERR [INFO] I0802 07:28:24.956331 11595 net.cpp:399] fc7 -> fc7
2016-08-02 07:28:24.988 STDERR [INFO] I0802 07:28:24.988332 11585 net.cpp:141] Setting up embedding
2016-08-02 07:28:24.988 STDERR [INFO] I0802 07:28:24.988385 11585 net.cpp:148] Top shape: 1 1 500 (500)
2016-08-02 07:28:24.988 STDERR [INFO] I0802 07:28:24.988391 11585 net.cpp:156] Memory required for data: 22408
2016-08-02 07:28:24.988 STDERR [INFO] I0802 07:28:24.988409 11585 layer_factory.hpp:77] Creating layer lstm1
2016-08-02 07:28:24.988 STDERR [INFO] I0802 07:28:24.988425 11585 net.cpp:91] Creating Layer lstm1
2016-08-02 07:28:24.989 STDERR [INFO] I0802 07:28:24.988431 11585 net.cpp:425] lstm1 <- embedded_input_frames
…
2016-08-02 07:28:25.000 STDERR [INFO] }
2016-08-02 07:28:25.000 STDERR [INFO] I0802 07:28:24.989054 11585 layer_factory.hpp:77] Creating layer lstm1_
2016-08-02 07:28:25.001 STDERR [INFO] I0802 07:28:24.989066 11585 net.cpp:91] Creating Layer lstm1_
2016-08-02 07:28:25.001 STDERR [INFO] I0802 07:28:24.989073 11585 net.cpp:399] lstm1_ -> x
2016-08-02 07:28:25.001 STDERR [INFO] I0802 07:28:24.989084 11585 net.cpp:399] lstm1_ -> cont
2016-08-02 07:28:25.001 STDERR [INFO] I0802 07:28:24.989176 11585 net.cpp:141] Setting up lstm1_
2016-08-02 07:28:25.001 STDERR [INFO] I0802 07:28:24.989186 11585 net.cpp:148] Top shape: 1 1 500 (500)
2016-08-02 07:28:25.001 STDERR [INFO] I0802 07:28:24.989192 11585 net.cpp:148] Top shape: 1 1 (1)
2016-08-02 07:28:25.001 STDERR [INFO] I0802 07:28:24.989195 11585 net.cpp:156] Memory required for data: 2004
2016-08-02 07:28:25.001 STDERR [INFO] I0802 07:28:24.989200 11585 layer_factory.hpp:77] Creating layer lstm1_
2016-08-02 07:28:25.001 STDERR [INFO] I0802 07:28:24.989208 11585 net.cpp:91] Creating Layer lstm1_
2016-08-02 07:28:25.001 STDERR [INFO] I0802 07:28:24.989217 11585 net.cpp:399] lstm1_ -> c_0
2016-08-02 07:28:25.001 STDERR [INFO] I0802 07:28:24.989228 11585 net.cpp:399] lstm1_ -> h_0
2016-08-02 07:28:25.001 STDERR [INFO] I0802 07:28:24.989279 11585 net.cpp:141] Setting up lstm1_
2016-08-02 07:28:25.001 STDERR [INFO] I0802 07:28:24.989289 11585 net.cpp:148] Top shape: 1 1 1000 (1000)
2016-08-02 07:28:25.002 STDERR [INFO] I0802 07:28:24.989294 11585 net.cpp:148] Top shape: 1 1 1000 (1000)
2016-08-02 07:28:25.002 STDERR [INFO] I0802 07:28:24.989298 11585 net.cpp:156] Memory required for data: 10004
2016-08-02 07:28:25.002 STDERR [INFO] I0802 07:28:24.989302 11585 layer_factory.hpp:77] Creating layer lstm1_cont_slice
2016-08-02 07:28:25.002 STDERR [INFO] I0802 07:28:24.989311 11585 net.cpp:91] Creating Layer lstm1_cont_slice
2016-08-02 07:28:25.002 STDERR [INFO] I0802 07:28:24.989316 11585 net.cpp:425] lstm1_cont_slice <- cont
2016-08-02 07:28:25.002 STDERR [INFO] I0802 07:28:24.989326 11585 net.cpp:399] lstm1_cont_slice -> cont_1
2016-08-02 07:28:25.002 STDERR [INFO] I0802 07:28:24.989359 11585 net.cpp:141] Setting up lstm1_cont_slice
2016-08-02 07:28:25.002 STDERR [INFO] I0802 07:28:24.989368 11585 net.cpp:148] Top shape: 1 1 (1)
2016-08-02 07:28:25.002 STDERR [INFO] I0802 07:28:24.989372 11585 net.cpp:156] Memory required for data: 10008
2016-08-02 07:28:25.002 STDERR [INFO] I0802 07:28:24.989377 11585 layer_factory.hpp:77] Creating layer cont_1_lstm1_cont_slice_0_split
2016-08-02 07:28:25.002 STDERR [INFO] I0802 07:28:24.989388 11585 net.cpp:91] Creating Layer cont_1_lstm1_cont_slice_0_split
2016-08-02 07:28:25.002 STDERR [INFO] I0802 07:28:24.989393 11585 net.cpp:425] cont_1_lstm1_cont_slice_0_split <- cont_1
2016-08-02 07:28:25.002 STDERR [INFO] I0802 07:28:24.989399 11585 net.cpp:399] cont_1_lstm1_cont_slice_0_split -> cont_1_lstm1_cont_slice_0_split_0
2016-08-02 07:28:25.002 STDERR [INFO] I0802 07:28:24.989408 11585 net.cpp:399] cont_1_lstm1_cont_slice_0_split -> cont_1_lstm1_cont_slice_0_split_1
2016-08-02 07:28:25.002 STDERR [INFO] I0802 07:28:24.989454 11585 net.cpp:141] Setting up cont_1_lstm1_cont_slice_0_split
2016-08-02 07:28:25.003 STDERR [INFO] I0802 07:28:24.989462 11585 net.cpp:148] Top shape: 1 1 (1)
2016-08-02 07:28:25.003 STDERR [INFO] I0802 07:28:24.989467 11585 net.cpp:148] Top shape: 1 1 (1)
2016-08-02 07:28:25.003 STDERR [INFO] I0802 07:28:24.989471 11585 net.cpp:156] Memory required for data: 10016
2016-08-02 07:28:25.003 STDERR [INFO] I0802 07:28:24.989476 11585 layer_factory.hpp:77] Creating layer lstm1_x_transform
2016-08-02 07:28:25.003 STDERR [INFO] I0802 07:28:24.989485 11585 net.cpp:91] Creating Layer lstm1_x_transform
2016-08-02 07:28:25.003 STDERR [INFO] I0802 07:28:24.989490 11585 net.cpp:425] lstm1_x_transform <- x
2016-08-02 07:28:25.003 STDERR [INFO] I0802 07:28:24.989497 11585 net.cpp:399] lstm1_x_transform -> W_xc_x
2016-08-02 07:28:25.004 n.t.s.b.CVParticleBolt [INFO] [Timing] RequestID: 0 StreamID: home_peifeng_work_data_frame_320x240_jpg SequenceNr: 132 Entering scale: 1470137305004
2016-08-02 07:28:25.004 n.t.s.s.CVParticleSpout [INFO] [Timing] RequestID: 0 StreamID: home_peifeng_work_data_frame_320x240_jpg SequenceNr: 132 Leaving fetcher: 1470137305004 Size: 8702
2016-08-02 07:28:25.007 n.t.s.s.CVParticleSpout [INFO] [Timing] RequestID: 0 StreamID: home_peifeng_work_data_frame_320x240_jpg SequenceNr: 133 Leaving fetcher: 1470137305007 Size: 8702
2016-08-02 07:28:25.007 n.t.s.b.CVParticleBolt [INFO] [Timing] RequestID: 0 StreamID: home_peifeng_work_data_frame_320x240_jpg SequenceNr: 133 Entering scale: 1470137305007
2016-08-02 07:28:25.007 STDERR [INFO] I0802 07:28:25.007336 11595 net.cpp:141] Setting up fc7
2016-08-02 07:28:25.008 STDERR [INFO] I0802 07:28:25.007390 11595 net.cpp:148] Top shape: 10 4096 (40960)
2016-08-02 07:28:25.008 STDERR [INFO] I0802 07:28:25.007397 11595 net.cpp:156] Memory required for data: 68273720
2016-08-02 07:28:25.008 STDERR [INFO] I0802 07:28:25.007416 11595 layer_factory.hpp:77] Creating layer relu7
2016-08-02 07:28:25.008 STDERR [INFO] I0802 07:28:25.007439 11595 net.cpp:91] Creating Layer relu7
2016-08-02 07:28:25.008 STDERR [INFO] I0802 07:28:25.007447 11595 net.cpp:425] relu7 <- fc7
2016-08-02 07:28:25.008 STDERR [INFO] I0802 07:28:25.007458 11595 net.cpp:386] relu7 -> fc7 (in-place)
2016-08-02 07:28:25.008 STDERR [INFO] I0802 07:28:25.008361 11595 net.cpp:141] Setting up relu7
2016-08-02 07:28:25.008 STDERR [INFO] I0802 07:28:25.008376 11595 net.cpp:148] Top shape: 10 4096 (40960)
2016-08-02 07:28:25.008 STDERR [INFO] I0802 07:28:25.008383 11595 net.cpp:156] Memory required for data: 68437560
2016-08-02 07:28:25.008 STDERR [INFO] I0802 07:28:25.008388 11595 layer_factory.hpp:77] Creating layer drop7
2016-08-02 07:28:25.009 STDERR [INFO] I0802 07:28:25.008404 11595 net.cpp:91] Creating Layer drop7
2016-08-02 07:28:25.009 STDERR [INFO] I0802 07:28:25.008410 11595 net.cpp:425] drop7 <- fc7
2016-08-02 07:28:25.009 STDERR [INFO] I0802 07:28:25.008417 11595 net.cpp:386] drop7 -> fc7 (in-place)
2016-08-02 07:28:25.009 STDERR [INFO] I0802 07:28:25.008465 11595 net.cpp:141] Setting up drop7
2016-08-02 07:28:25.009 STDERR [INFO] I0802 07:28:25.008473 11595 net.cpp:148] Top shape: 10 4096 (40960)
2016-08-02 07:28:25.009 STDERR [INFO] I0802 07:28:25.008479 11595 net.cpp:156] Memory required for data: 68601400
2016-08-02 07:28:25.009 STDERR [INFO] I0802 07:28:25.008484 11595 layer_factory.hpp:77] Creating layer fc8
2016-08-02 07:28:25.009 STDERR [INFO] I0802 07:28:25.008496 11595 net.cpp:91] Creating Layer fc8
2016-08-02 07:28:25.009 STDERR [INFO] I0802 07:28:25.008502 11595 net.cpp:425] fc8 <- fc7
…
2016-08-02 07:28:25.012 n.t.s.s.CVParticleSpout [INFO] [Timing] RequestID: 0 StreamID: home_peifeng_work_data_frame_320x240_jpg SequenceNr: 135 Leaving fetcher: 1470137305012 Size: 8702
2016-08-02 07:28:25.013 n.t.s.b.CVParticleBolt [INFO] [Timing] RequestID: 0 StreamID: home_peifeng_work_data_frame_320x240_jpg SequenceNr: 135 Entering scale: 1470137305013
2016-08-02 07:28:25.014 n.t.s.b.CVParticleBolt [INFO] [Timing] RequestID: 0 StreamID: home_peifeng_work_data_frame_320x240_jpg SequenceNr: 134 Leaving scale: 1470137305014 Size: 3530
2016-08-02 07:28:25.017 STDERR [INFO] I0802 07:28:25.017179 11585 net.cpp:141] Setting up lstm1_x_transform
2016-08-02 07:28:25.017 STDERR [INFO] I0802 07:28:25.017225 11585 net.cpp:148] Top shape: 1 1 4000 (4000)
2016-08-02 07:28:25.017 STDERR [INFO] I0802 07:28:25.017231 11585 net.cpp:156] Memory required for data: 26016
2016-08-02 07:28:25.017 STDERR [INFO] I0802 07:28:25.017251 11585 layer_factory.hpp:77] Creating layer lstm1_W_xc_x_slice
2016-08-02 07:28:25.017 STDERR [INFO] I0802 07:28:25.017271 11585 net.cpp:91] Creating Layer lstm1_W_xc_x_slice
2016-08-02 07:28:25.018 STDERR [INFO] I0802 07:28:25.017277 11585 net.cpp:425] lstm1_W_xc_x_slice <- W_xc_x
2016-08-02 07:28:25.018 STDERR [INFO] I0802 07:28:25.017287 11585 net.cpp:399] lstm1_W_xc_x_slice -> W_xc_x_1
2016-08-02 07:28:25.018 STDERR [INFO] I0802 07:28:25.017333 11585 net.cpp:141] Setting up lstm1_W_xc_x_slice
2016-08-02 07:28:25.018 STDERR [INFO] I0802 07:28:25.017341 11585 net.cpp:148] Top shape: 1 1 4000 (4000)
2016-08-02 07:28:25.018 n.t.s.b.CVParticleBolt [INFO] [Timing] RequestID: 0 StreamID: home_peifeng_work_data_frame_320x240_jpg SequenceNr: 135 Leaving scale: 1470137305018 Size: 3530
2016-08-02 07:28:25.018 STDERR [INFO] I0802 07:28:25.017346 11585 net.cpp:156] Memory required for data: 42016
2016-08-02 07:28:25.018 STDERR [INFO] I0802 07:28:25.017350 11585 layer_factory.hpp:77] Creating layer lstm1_h_conted_0
2016-08-02 07:28:25.018 STDERR [INFO] I0802 07:28:25.017364 11585 net.cpp:91] Creating Layer lstm1_h_conted_0
2016-08-02 07:28:25.018 STDERR [INFO] I0802 07:28:25.017369 11585 net.cpp:425] lstm1_h_conted_0 <- h_0
2016-08-02 07:28:25.018 STDERR [INFO] I0802 07:28:25.017374 11585 net.cpp:425] lstm1_h_conted_0 <- cont_1_lstm1_cont_slice_0_split_0
2016-08-02 07:28:25.018 STDERR [INFO] I0802 07:28:25.017380 11585 net.cpp:399] lstm1_h_conted_0 -> h_conted_0
2016-08-02 07:28:25.018 STDERR [INFO] I0802 07:28:25.017472 11585 net.cpp:141] Setting up lstm1_h_conted_0
2016-08-02 07:28:25.018 STDERR [INFO] I0802 07:28:25.017480 11585 net.cpp:148] Top shape: 1 1 1000 (1000)
2016-08-02 07:28:25.018 STDERR [INFO] I0802 07:28:25.017485 11585 net.cpp:156] Memory required for data: 46016
2016-08-02 07:28:25.019 STDERR [INFO] I0802 07:28:25.017489 11585 layer_factory.hpp:77] Creating layer lstm1_transform_1
2016-08-02 07:28:25.019 STDERR [INFO] I0802 07:28:25.017504 11585 net.cpp:91] Creating Layer lstm1_transform_1
2016-08-02 07:28:25.019 STDERR [INFO] I0802 07:28:25.017509 11585 net.cpp:425] lstm1_transform_1 <- h_conted_0
2016-08-02 07:28:25.019 STDERR [INFO] I0802 07:28:25.017518 11585 net.cpp:399] lstm1_transform_1 -> W_hc_h_0
2016-08-02 07:28:25.025 STDERR [INFO] I0802 07:28:25.025279 11595 net.cpp:141] Setting up fc8
2016-08-02 07:28:25.026 STDERR [INFO] I0802 07:28:25.025336 11595 net.cpp:148] Top shape: 10 1000 (10000)
2016-08-02 07:28:25.026 STDERR [INFO] I0802 07:28:25.025344 11595 net.cpp:156] Memory required for data: 68641400
2016-08-02 07:28:25.026 STDERR [INFO] I0802 07:28:25.025363 11595 layer_factory.hpp:77] Creating layer prob
2016-08-02 07:28:25.026 STDERR [INFO] I0802 07:28:25.025382 11595 net.cpp:91] Creating Layer prob
2016-08-02 07:28:25.026 STDERR [INFO] I0802 07:28:25.025390 11595 net.cpp:425] prob <- fc8
2016-08-02 07:28:25.026 STDERR [INFO] I0802 07:28:25.025403 11595 net.cpp:399] prob -> prob
2016-08-02 07:28:25.026 STDERR [INFO] I0802 07:28:25.025903 11595 net.cpp:141] Setting up prob
2016-08-02 07:28:25.026 STDERR [INFO] I0802 07:28:25.025916 11595 net.cpp:148] Top shape: 10 1000 (10000)
2016-08-02 07:28:25.026 STDERR [INFO] I0802 07:28:25.025923 11595 net.cpp:156] Memory required for data: 68681400
2016-08-02 07:28:25.026 STDERR [INFO] I0802 07:28:25.025928 11595 net.cpp:219] prob does not need backward computation.
2016-08-02 07:28:25.027 STDERR [INFO] I0802 07:28:25.025933 11595 net.cpp:219] fc8 does not need backward computation.
2016-08-02 07:28:25.027 STDERR [INFO] I0802 07:28:25.025940 11595 net.cpp:219] drop7 does not need backward computation.
…
2016-08-02 07:28:25.028 STDERR [INFO] I0802 07:28:25.026044 11595 net.cpp:219] conv1 does not need backward computation.
2016-08-02 07:28:25.028 STDERR [INFO] I0802 07:28:25.026049 11595 net.cpp:219] data does not need backward computation.
2016-08-02 07:28:25.029 STDERR [INFO] I0802 07:28:25.026054 11595 net.cpp:261] This network produces output prob
2016-08-02 07:28:25.029 STDERR [INFO] I0802 07:28:25.026077 11595 net.cpp:274] Network initialization done.
2016-08-02 07:28:25.056 STDERR [INFO] I0802 07:28:25.056017 11585 net.cpp:141] Setting up lstm1_transform_1
2016-08-02 07:28:25.056 STDERR [INFO] I0802 07:28:25.056063 11585 net.cpp:148] Top shape: 1 1 4000 (4000)
2016-08-02 07:28:25.056 STDERR [INFO] I0802 07:28:25.056069 11585 net.cpp:156] Memory required for data: 62016
2016-08-02 07:28:25.056 STDERR [INFO] I0802 07:28:25.056087 11585 layer_factory.hpp:77] Creating layer lstm1_gate_input_1
2016-08-02 07:28:25.056 STDERR [INFO] I0802 07:28:25.056116 11585 net.cpp:91] Creating Layer lstm1_gate_input_1
2016-08-02 07:28:25.056 STDERR [INFO] I0802 07:28:25.056123 11585 net.cpp:425] lstm1_gate_input_1 <- W_hc_h_0
2016-08-02 07:28:25.056 STDERR [INFO] I0802 07:28:25.056131 11585 net.cpp:425] lstm1_gate_input_1 <- W_xc_x_1
2016-08-02 07:28:25.056 STDERR [INFO] I0802 07:28:25.056139 11585 net.cpp:399] lstm1_gate_input_1 -> gate_input_1
2016-08-02 07:28:25.057 STDERR [INFO] I0802 07:28:25.056200 11585 net.cpp:141] Setting up lstm1_gate_input_1
2016-08-02 07:28:25.057 STDERR [INFO] I0802 07:28:25.056210 11585 net.cpp:148] Top shape: 1 1 4000 (4000)
2016-08-02 07:28:25.057 STDERR [INFO] I0802 07:28:25.056213 11585 net.cpp:156] Memory required for data: 78016
2016-08-02 07:28:25.057 STDERR [INFO] I0802 07:28:25.056217 11585 layer_factory.hpp:77] Creating layer lstm1_unit_1
2016-08-02 07:28:25.057 STDERR [INFO] I0802 07:28:25.056229 11585 net.cpp:91] Creating Layer lstm1_unit_1
2016-08-02 07:28:25.057 STDERR [INFO] I0802 07:28:25.056234 11585 net.cpp:425] lstm1_unit_1 <- c_0
2016-08-02 07:28:25.057 STDERR [INFO] I0802 07:28:25.056241 11585 net.cpp:425] lstm1_unit_1 <- gate_input_1
2016-08-02 07:28:25.057 STDERR [INFO] I0802 07:28:25.056246 11585 net.cpp:425] lstm1_unit_1 <- cont_1_lstm1_cont_slice_0_split_1
2016-08-02 07:28:25.057 STDERR [INFO] I0802 07:28:25.056252 11585 net.cpp:399] lstm1_unit_1 -> c_1
2016-08-02 07:28:25.057 STDERR [INFO] I0802 07:28:25.056260 11585 net.cpp:399] lstm1_unit_1 -> h_1
2016-08-02 07:28:25.058 STDERR [INFO] I0802 07:28:25.056321 11585 net.cpp:141] Setting up lstm1_unit_1
2016-08-02 07:28:25.058 STDERR [INFO] I0802 07:28:25.056329 11585 net.cpp:148] Top shape: 1 1 1000 (1000)
2016-08-02 07:28:25.058 STDERR [INFO] I0802 07:28:25.056335 11585 net.cpp:148] Top shape: 1 1 1000 (1000)
2016-08-02 07:28:25.058 STDERR [INFO] I0802 07:28:25.056339 11585 net.cpp:156] Memory required for data: 86016
2016-08-02 07:28:25.058 STDERR [INFO] I0802 07:28:25.056344 11585 layer_factory.hpp:77] Creating layer lstm1_
2016-08-02 07:28:25.058 STDERR [INFO] I0802 07:28:25.056352 11585 net.cpp:91] Creating Layer lstm1_
2016-08-02 07:28:25.058 STDERR [INFO] I0802 07:28:25.056357 11585 net.cpp:425] lstm1_ <- c_1
2016-08-02 07:28:25.058 STDERR [INFO] I0802 07:28:25.056363 11585 net.cpp:399] lstm1_ -> c_T
2016-08-02 07:28:25.058 STDERR [INFO] I0802 07:28:25.056396 11585 net.cpp:141] Setting up lstm1_
2016-08-02 07:28:25.058 STDERR [INFO] I0802 07:28:25.056403 11585 net.cpp:148] Top shape: 1 1 1000 (1000)
2016-08-02 07:28:25.058 STDERR [INFO] I0802 07:28:25.056408 11585 net.cpp:156] Memory required for data: 90016
2016-08-02 07:28:25.058 STDERR [INFO] I0802 07:28:25.056412 11585 layer_factory.hpp:77] Creating layer lstm1_h_concat
2016-08-02 07:28:25.058 STDERR [INFO] I0802 07:28:25.056421 11585 net.cpp:91] Creating Layer lstm1_h_concat
2016-08-02 07:28:25.058 STDERR [INFO] I0802 07:28:25.056427 11585 net.cpp:425] lstm1_h_concat <- h_1
2016-08-02 07:28:25.059 STDERR [INFO] I0802 07:28:25.056432 11585 net.cpp:399] lstm1_h_concat -> h
2016-08-02 07:28:25.059 STDERR [INFO] I0802 07:28:25.056468 11585 net.cpp:141] Setting up lstm1_h_concat
2016-08-02 07:28:25.059 STDERR [INFO] I0802 07:28:25.056475 11585 net.cpp:148] Top shape: 1 1 1000 (1000)
2016-08-02 07:28:25.059 STDERR [INFO] I0802 07:28:25.056479 11585 net.cpp:156] Memory required for data: 94016
2016-08-02 07:28:25.059 STDERR [INFO] I0802 07:28:25.056484 11585 layer_factory.hpp:77] Creating layer h_pseudoloss
2016-08-02 07:28:25.059 STDERR [INFO] I0802 07:28:25.056498 11585 net.cpp:91] Creating Layer h_pseudoloss
2016-08-02 07:28:25.059 STDERR [INFO] I0802 07:28:25.056502 11585 net.cpp:425] h_pseudoloss <- h
…
2016-08-02 07:28:25.073 STDERR [INFO] }
2016-08-02 07:28:25.073 STDERR [INFO] I0802 07:28:25.057356 11585 layer_factory.hpp:77] Creating layer lstm2_
2016-08-02 07:28:25.073 STDERR [INFO] I0802 07:28:25.057368 11585 net.cpp:91] Creating Layer lstm2_
2016-08-02 07:28:25.073 STDERR [INFO] I0802 07:28:25.057374 11585 net.cpp:399] lstm2_ -> x
2016-08-02 07:28:25.073 STDERR [INFO] I0802 07:28:25.057384 11585 net.cpp:399] lstm2_ -> cont
2016-08-02 07:28:25.073 STDERR [INFO] I0802 07:28:25.057435 11585 net.cpp:141] Setting up lstm2_
2016-08-02 07:28:25.073 STDERR [INFO] I0802 07:28:25.057445 11585 net.cpp:148] Top shape: 1 1 1501 (1501)
2016-08-02 07:28:25.073 STDERR [INFO] I0802 07:28:25.057451 11585 net.cpp:148] Top shape: 1 1 (1)
2016-08-02 07:28:25.073 STDERR [INFO] I0802 07:28:25.057454 11585 net.cpp:156] Memory required for data: 6008
2016-08-02 07:28:25.073 STDERR [INFO] I0802 07:28:25.057459 11585 layer_factory.hpp:77] Creating layer lstm2_
2016-08-02 07:28:25.074 STDERR [INFO] I0802 07:28:25.057471 11585 net.cpp:91] Creating Layer lstm2_
2016-08-02 07:28:25.074 STDERR [INFO] I0802 07:28:25.057476 11585 net.cpp:399] lstm2_ -> c_0
2016-08-02 07:28:25.074 STDERR [INFO] I0802 07:28:25.057485 11585 net.cpp:399] lstm2_ -> h_0
2016-08-02 07:28:25.074 STDERR [INFO] I0802 07:28:25.057533 11585 net.cpp:141] Setting up lstm2_
2016-08-02 07:28:25.074 STDERR [INFO] I0802 07:28:25.057541 11585 net.cpp:148] Top shape: 1 1 1000 (1000)
2016-08-02 07:28:25.074 STDERR [INFO] I0802 07:28:25.057548 11585 net.cpp:148] Top shape: 1 1 1000 (1000)
2016-08-02 07:28:25.074 STDERR [INFO] I0802 07:28:25.057551 11585 net.cpp:156] Memory required for data: 14008
2016-08-02 07:28:25.074 STDERR [INFO] I0802 07:28:25.057555 11585 layer_factory.hpp:77] Creating layer lstm2_cont_slice
2016-08-02 07:28:25.074 STDERR [INFO] I0802 07:28:25.057564 11585 net.cpp:91] Creating Layer lstm2_cont_slice
2016-08-02 07:28:25.074 STDERR [INFO] I0802 07:28:25.057569 11585 net.cpp:425] lstm2_cont_slice <- cont
2016-08-02 07:28:25.074 STDERR [INFO] I0802 07:28:25.057574 11585 net.cpp:399] lstm2_cont_slice -> cont_1
2016-08-02 07:28:25.074 STDERR [INFO] I0802 07:28:25.057606 11585 net.cpp:141] Setting up lstm2_cont_slice
2016-08-02 07:28:25.074 STDERR [INFO] I0802 07:28:25.057615 11585 net.cpp:148] Top shape: 1 1 (1)
2016-08-02 07:28:25.074 STDERR [INFO] I0802 07:28:25.057618 11585 net.cpp:156] Memory required for data: 14012
2016-08-02 07:28:25.075 STDERR [INFO] I0802 07:28:25.057623 11585 layer_factory.hpp:77] Creating layer cont_1_lstm2_cont_slice_0_split
2016-08-02 07:28:25.075 STDERR [INFO] I0802 07:28:25.057634 11585 net.cpp:91] Creating Layer cont_1_lstm2_cont_slice_0_split
2016-08-02 07:28:25.075 STDERR [INFO] I0802 07:28:25.057639 11585 net.cpp:425] cont_1_lstm2_cont_slice_0_split <- cont_1
2016-08-02 07:28:25.075 STDERR [INFO] I0802 07:28:25.057646 11585 net.cpp:399] cont_1_lstm2_cont_slice_0_split -> cont_1_lstm2_cont_slice_0_split_0
2016-08-02 07:28:25.075 STDERR [INFO] I0802 07:28:25.057656 11585 net.cpp:399] cont_1_lstm2_cont_slice_0_split -> cont_1_lstm2_cont_slice_0_split_1
2016-08-02 07:28:25.075 STDERR [INFO] I0802 07:28:25.057698 11585 net.cpp:141] Setting up cont_1_lstm2_cont_slice_0_split
2016-08-02 07:28:25.075 STDERR [INFO] I0802 07:28:25.057706 11585 net.cpp:148] Top shape: 1 1 (1)
2016-08-02 07:28:25.075 STDERR [INFO] I0802 07:28:25.057711 11585 net.cpp:148] Top shape: 1 1 (1)
2016-08-02 07:28:25.075 STDERR [INFO] I0802 07:28:25.057716 11585 net.cpp:156] Memory required for data: 14020
2016-08-02 07:28:25.075 STDERR [INFO] I0802 07:28:25.057720 11585 layer_factory.hpp:77] Creating layer lstm2_x_transform
2016-08-02 07:28:25.075 STDERR [INFO] I0802 07:28:25.057732 11585 net.cpp:91] Creating Layer lstm2_x_transform
2016-08-02 07:28:25.075 STDERR [INFO] I0802 07:28:25.057737 11585 net.cpp:425] lstm2_x_transform <- x
2016-08-02 07:28:25.075 STDERR [INFO] I0802 07:28:25.057746 11585 net.cpp:399] lstm2_x_transform -> W_xc_x
2016-08-02 07:28:25.114 STDERR [INFO] I0802 07:28:25.114464 11585 net.cpp:141] Setting up lstm2_x_transform
2016-08-02 07:28:25.115 STDERR [INFO] I0802 07:28:25.114511 11585 net.cpp:148] Top shape: 1 1 4000 (4000)
2016-08-02 07:28:25.115 STDERR [INFO] I0802 07:28:25.114517 11585 net.cpp:156] Memory required for data: 30020
2016-08-02 07:28:25.115 STDERR [INFO] I0802 07:28:25.114537 11585 layer_factory.hpp:77] Creating layer lstm2_W_xc_x_slice
2016-08-02 07:28:25.115 STDERR [INFO] I0802 07:28:25.114553 11585 net.cpp:91] Creating Layer lstm2_W_xc_x_slice
2016-08-02 07:28:25.115 STDERR [INFO] I0802 07:28:25.114560 11585 net.cpp:425] lstm2_W_xc_x_slice <- W_xc_x
2016-08-02 07:28:25.115 STDERR [INFO] I0802 07:28:25.114569 11585 net.cpp:399] lstm2_W_xc_x_slice -> W_xc_x_1
2016-08-02 07:28:25.115 STDERR [INFO] I0802 07:28:25.114619 11585 net.cpp:141] Setting up lstm2_W_xc_x_slice
2016-08-02 07:28:25.115 STDERR [INFO] I0802 07:28:25.114627 11585 net.cpp:148] Top shape: 1 1 4000 (4000)
2016-08-02 07:28:25.115 STDERR [INFO] I0802 07:28:25.114631 11585 net.cpp:156] Memory required for data: 46020
2016-08-02 07:28:25.115 STDERR [INFO] I0802 07:28:25.114636 11585 layer_factory.hpp:77] Creating layer lstm2_h_conted_0
2016-08-02 07:28:25.115 STDERR [INFO] I0802 07:28:25.114646 11585 net.cpp:91] Creating Layer lstm2_h_conted_0
2016-08-02 07:28:25.115 STDERR [INFO] I0802 07:28:25.114651 11585 net.cpp:425] lstm2_h_conted_0 <- h_0
2016-08-02 07:28:25.115 STDERR [INFO] I0802 07:28:25.114657 11585 net.cpp:425] lstm2_h_conted_0 <- cont_1_lstm2_cont_slice_0_split_0
2016-08-02 07:28:25.115 STDERR [INFO] I0802 07:28:25.114663 11585 net.cpp:399] lstm2_h_conted_0 -> h_conted_0
2016-08-02 07:28:25.116 STDERR [INFO] I0802 07:28:25.114755 11585 net.cpp:141] Setting up lstm2_h_conted_0
2016-08-02 07:28:25.116 STDERR [INFO] I0802 07:28:25.114764 11585 net.cpp:148] Top shape: 1 1 1000 (1000)
2016-08-02 07:28:25.116 STDERR [INFO] I0802 07:28:25.114768 11585 net.cpp:156] Memory required for data: 50020
2016-08-02 07:28:25.116 STDERR [INFO] I0802 07:28:25.114773 11585 layer_factory.hpp:77] Creating layer lstm2_transform_1
2016-08-02 07:28:25.116 STDERR [INFO] I0802 07:28:25.114785 11585 net.cpp:91] Creating Layer lstm2_transform_1
2016-08-02 07:28:25.116 STDERR [INFO] I0802 07:28:25.114790 11585 net.cpp:425] lstm2_transform_1 <- h_conted_0
2016-08-02 07:28:25.116 STDERR [INFO] I0802 07:28:25.114797 11585 net.cpp:399] lstm2_transform_1 -> W_hc_h_0
2016-08-02 07:28:25.152 STDERR [INFO] I0802 07:28:25.152698 11585 net.cpp:141] Setting up lstm2_transform_1
2016-08-02 07:28:25.153 STDERR [INFO] I0802 07:28:25.152745 11585 net.cpp:148] Top shape: 1 1 4000 (4000)
2016-08-02 07:28:25.153 STDERR [INFO] I0802 07:28:25.152751 11585 net.cpp:156] Memory required for data: 66020
2016-08-02 07:28:25.153 STDERR [INFO] I0802 07:28:25.152770 11585 layer_factory.hpp:77] Creating layer lstm2_gate_input_1
2016-08-02 07:28:25.153 STDERR [INFO] I0802 07:28:25.152788 11585 net.cpp:91] Creating Layer lstm2_gate_input_1
2016-08-02 07:28:25.153 STDERR [INFO] I0802 07:28:25.152794 11585 net.cpp:425] lstm2_gate_input_1 <- W_hc_h_0
2016-08-02 07:28:25.153 STDERR [INFO] I0802 07:28:25.152803 11585 net.cpp:425] lstm2_gate_input_1 <- W_xc_x_1
2016-08-02 07:28:25.153 STDERR [INFO] I0802 07:28:25.152813 11585 net.cpp:399] lstm2_gate_input_1 -> gate_input_1
2016-08-02 07:28:25.153 STDERR [INFO] I0802 07:28:25.152858 11585 net.cpp:141] Setting up lstm2_gate_input_1
2016-08-02 07:28:25.153 STDERR [INFO] I0802 07:28:25.152869 11585 net.cpp:148] Top shape: 1 1 4000 (4000)
2016-08-02 07:28:25.153 STDERR [INFO] I0802 07:28:25.152873 11585 net.cpp:156] Memory required for data: 82020
2016-08-02 07:28:25.154 STDERR [INFO] I0802 07:28:25.152879 11585 layer_factory.hpp:77] Creating layer lstm2_unit_1
2016-08-02 07:28:25.154 STDERR [INFO] I0802 07:28:25.152887 11585 net.cpp:91] Creating Layer lstm2_unit_1
2016-08-02 07:28:25.154 STDERR [INFO] I0802 07:28:25.152892 11585 net.cpp:425] lstm2_unit_1 <- c_0
2016-08-02 07:28:25.154 STDERR [INFO] I0802 07:28:25.152899 11585 net.cpp:425] lstm2_unit_1 <- gate_input_1
2016-08-02 07:28:25.154 STDERR [INFO] I0802 07:28:25.152904 11585 net.cpp:425] lstm2_unit_1 <- cont_1_lstm2_cont_slice_0_split_1
2016-08-02 07:28:25.154 STDERR [INFO] I0802 07:28:25.152909 11585 net.cpp:399] lstm2_unit_1 -> c_1
2016-08-02 07:28:25.154 STDERR [INFO] I0802 07:28:25.152918 11585 net.cpp:399] lstm2_unit_1 -> h_1
2016-08-02 07:28:25.154 STDERR [INFO] I0802 07:28:25.152976 11585 net.cpp:141] Setting up lstm2_unit_1
2016-08-02 07:28:25.154 STDERR [INFO] I0802 07:28:25.152984 11585 net.cpp:148] Top shape: 1 1 1000 (1000)
2016-08-02 07:28:25.154 STDERR [INFO] I0802 07:28:25.152989 11585 net.cpp:148] Top shape: 1 1 1000 (1000)
2016-08-02 07:28:25.154 STDERR [INFO] I0802 07:28:25.152994 11585 net.cpp:156] Memory required for data: 90020
2016-08-02 07:28:25.154 STDERR [INFO] I0802 07:28:25.152998 11585 layer_factory.hpp:77] Creating layer lstm2_
2016-08-02 07:28:25.154 STDERR [INFO] I0802 07:28:25.153007 11585 net.cpp:91] Creating Layer lstm2_
2016-08-02 07:28:25.154 STDERR [INFO] I0802 07:28:25.153012 11585 net.cpp:425] lstm2_ <- c_1
2016-08-02 07:28:25.155 STDERR [INFO] I0802 07:28:25.153017 11585 net.cpp:399] lstm2_ -> c_T
2016-08-02 07:28:25.155 STDERR [INFO] I0802 07:28:25.153045 11585 net.cpp:141] Setting up lstm2_
2016-08-02 07:28:25.155 STDERR [INFO] I0802 07:28:25.153053 11585 net.cpp:148] Top shape: 1 1 1000 (1000)
2016-08-02 07:28:25.155 STDERR [INFO] I0802 07:28:25.153058 11585 net.cpp:156] Memory required for data: 94020
2016-08-02 07:28:25.155 STDERR [INFO] I0802 07:28:25.153061 11585 layer_factory.hpp:77] Creating layer lstm2_h_concat
2016-08-02 07:28:25.155 STDERR [INFO] I0802 07:28:25.153074 11585 net.cpp:91] Creating Layer lstm2_h_concat
2016-08-02 07:28:25.155 STDERR [INFO] I0802 07:28:25.153079 11585 net.cpp:425] lstm2_h_concat <- h_1
2016-08-02 07:28:25.155 STDERR [INFO] I0802 07:28:25.153087 11585 net.cpp:399] lstm2_h_concat -> h
2016-08-02 07:28:25.155 STDERR [INFO] I0802 07:28:25.153118 11585 net.cpp:141] Setting up lstm2_h_concat
2016-08-02 07:28:25.155 STDERR [INFO] I0802 07:28:25.153126 11585 net.cpp:148] Top shape: 1 1 1000 (1000)
2016-08-02 07:28:25.155 STDERR [INFO] I0802 07:28:25.153131 11585 net.cpp:156] Memory required for data: 98020
2016-08-02 07:28:25.155 STDERR [INFO] I0802 07:28:25.153136 11585 layer_factory.hpp:77] Creating layer h_pseudoloss
2016-08-02 07:28:25.155 STDERR [INFO] I0802 07:28:25.153146 11585 net.cpp:91] Creating Layer h_pseudoloss
2016-08-02 07:28:25.155 STDERR [INFO] I0802 07:28:25.153151 11585 net.cpp:425] h_pseudoloss <- h
…
