…
Java HotSpot(TM) 64-Bit Server VM warning: You have loaded library /tmp/cvld5761723288886843606/libopencv_java310.xine1.so which might have disabled stack guard. The VM will try to fix the stack guard now.
It's highly recommended that you fix the library with 'execstack -c <libfile>', or link it with '-z noexecstack'.
WARNING: Logging before InitGoogleLogging() is written to STDERR
I0802 07:28:24.073348 11595 net.cpp:49] Initializing net from parameters: 
name: "CaffeNet"
state {
  phase: TEST
}
layer {
  name: "data"
  type: "Input"
  top: "data"
  input_param {
    shape {
      dim: 10
      dim: 3
      dim: 227
      dim: 227
    }
  }
}
layer {
  name: "conv1"
  type: "Convolution"
  bottom: "data"
  top: "conv1"
  convolution_param {
    num_output: 96
    kernel_size: 11
    stride: 4
  }
}
layer {
  name: "relu1"
  type: "ReLU"
  bottom: "conv1"
  top: "conv1"
}
layer {
  name: "pool1"
  type: "Pooling"
  bottom: "conv1"
  top: "pool1"
  pooling_param {
    pool: MAX
    kernel_size: 3
    stride: 2
  }
}
layer {
  name: "norm1"
  type: "LRN"
  bottom: "pool1"
  top: "norm1"
  lrn_param {
    local_size: 5
    alpha: 0.0001
    beta: 0.75
  }
}
layer {
  name: "conv2"
  type: "Convolution"
  bottom: "norm1"
  top: "conv2"
  convolution_param {
    num_output: 256
    pad: 2
    kernel_size: 5
    group: 2
  }
}
layer {
  name: "relu2"
  type: "ReLU"
  bottom: "conv2"
  top: "conv2"
}
layer {
  name: "pool2"
  type: "Pooling"
  bottom: "conv2"
  top: "pool2"
  pooling_param {
    pool: MAX
    kernel_size: 3
    stride: 2
  }
}
layer {
  name: "norm2"
  type: "LRN"
  bottom: "pool2"
  top: "norm2"
  lrn_param {
    local_size: 5
    alpha: 0.0001
    beta: 0.75
  }
}
layer {
  name: "conv3"
  type: "Convolution"
  bottom: "norm2"
  top: "conv3"
  convolution_param {
    num_output: 384
    pad: 1
    kernel_size: 3
  }
}
layer {
  name: "relu3"
  type: "ReLU"
  bottom: "conv3"
  top: "conv3"
}
layer {
  name: "conv4"
  type: "Convolution"
  bottom: "conv3"
  top: "conv4"
  convolution_param {
    num_output: 384
    pad: 1
    kernel_size: 3
    group: 2
  }
}
layer {
  name: "relu4"
  type: "ReLU"
  bottom: "conv4"
  top: "conv4"
}
layer {
  name: "conv5"
  type: "Convolution"
  bottom: "conv4"
  top: "conv5"
  convolution_param {
    num_output: 256
    pad: 1
    kernel_size: 3
    group: 2
  }
}
layer {
  name: "relu5"
  type: "ReLU"
  bottom: "conv5"
  top: "conv5"
}
layer {
  name: "pool5"
  type: "Pooling"
  bottom: "conv5"
  top: "pool5"
  pooling_param {
    pool: MAX
    kernel_size: 3
    stride: 2
  }
}
layer {
  name: "fc6"
  type: "InnerProduct"
  bottom: "pool5"
  top: "fc6"
  inner_product_param {
    num_output: 4096
  }
}
layer {
  name: "relu6"
  type: "ReLU"
  bottom: "fc6"
  top: "fc6"
}
layer {
  name: "drop6"
  type: "Dropout"
  bottom: "fc6"
  top: "fc6"
  dropout_param {
    dropout_ratio: 0.5
  }
}
layer {
  name: "fc7"
  type: "InnerProduct"
  bottom: "fc6"
  top: "fc7"
  inner_product_param {
    num_output: 4096
  }
}
layer {
  name: "relu7"
  type: "ReLU"
  bottom: "fc7"
  top: "fc7"
}
layer {
  name: "drop7"
  type: "Dropout"
  bottom: "fc7"
  top: "fc7"
  dropout_param {
    dropout_ratio: 0.5
  }
}
layer {
  name: "fc8"
  type: "InnerProduct"
  bottom: "fc7"
  top: "fc8"
  inner_product_param {
    num_output: 1000
  }
}
layer {
  name: "prob"
  type: "Softmax"
  bottom: "fc8"
  top: "prob"
}
I0802 07:28:24.073545 11595 layer_factory.hpp:77] Creating layer data
I0802 07:28:24.073573 11595 net.cpp:91] Creating Layer data
I0802 07:28:24.073583 11595 net.cpp:399] data -> data
I0802 07:28:24.564426 11595 net.cpp:141] Setting up data
I0802 07:28:24.564525 11595 net.cpp:148] Top shape: 10 3 227 227 (1545870)
I0802 07:28:24.564532 11595 net.cpp:156] Memory required for data: 6183480
I0802 07:28:24.564551 11595 layer_factory.hpp:77] Creating layer conv1
I0802 07:28:24.564584 11595 net.cpp:91] Creating Layer conv1
I0802 07:28:24.564594 11595 net.cpp:425] conv1 <- data
I0802 07:28:24.564607 11595 net.cpp:399] conv1 -> conv1
I0802 07:28:24.674984 11585 upgrade_proto.cpp:66] Attempting to upgrade input file specified using deprecated input fields: /tmp/cvld5761723288886843606/s2vt.words_to_preds.prototxt
I0802 07:28:24.675041 11585 upgrade_proto.cpp:69] Successfully upgraded file specified using deprecated input fields.
W0802 07:28:24.675050 11585 upgrade_proto.cpp:71] Note that future Caffe releases will only support input layers and not input fields.
I0802 07:28:24.675288 11585 net.cpp:49] Initializing net from parameters: 
name: "s2vt:features_to_lstm"
state {
  phase: TEST
}
layer {
  name: "input"
  type: "Input"
  top: "frames_fc7"
  top: "cont_sentence"
  top: "input_sentence"
  top: "stage_indicator"
  input_param {
    shape {
      dim: 1
      dim: 4096
    }
    shape {
      dim: 1
      dim: 1
    }
    shape {
      dim: 1
      dim: 1
    }
    shape {
      dim: 1
      dim: 1
    }
  }
}
layer {
  name: "embed_encoder"
  type: "InnerProduct"
  bottom: "frames_fc7"
  top: "embedded_in_frames"
  param {
    lr_mult: 1
    decay_mult: 1
  }
  param {
    lr_mult: 2
    decay_mult: 0
  }
  inner_product_param {
    num_output: 500
    weight_filler {
      type: "xavier"
    }
    bias_filler {
      type: "constant"
      value: 0.2
    }
  }
}
layer {
  name: "reshape_frames"
  type: "Reshape"
  bottom: "embedded_in_frames"
  top: "embedded_input_frames"
  reshape_param {
    shape {
      dim: 1
      dim: 1
      dim: 500
    }
  }
}
layer {
  name: "reshape_stage_indicator"
  type: "Reshape"
  bottom: "stage_indicator"
  top: "reshaped_stage_indicator"
  reshape_param {
    shape {
      dim: 1
      dim: 1
      dim: 1
    }
  }
}
layer {
  name: "embedding"
  type: "Embed"
  bottom: "input_sentence"
  top: "embedded_input_sentence"
  param {
    lr_mult: 1
  }
  embed_param {
    num_output: 500
    input_dim: 46168
    bias_term: false
    weight_filler {
      type: "uniform"
      min: -0.08
      max: 0.08
    }
  }
}
layer {
  name: "lstm1"
  type: "LSTM"
  bottom: "embedded_input_frames"
  bottom: "cont_sentence"
  top: "lstm1"
  recurrent_param {
    num_output: 1000
    weight_filler {
      type: "uniform"
      min: -0.08
      max: 0.08
    }
    bias_filler {
      type: "constant"
      value: 0
    }
  }
}
layer {
  name: "concat"
  type: "Concat"
  bottom: "lstm1"
  bottom: "embedded_input_sentence"
  bottom: "reshaped_stage_indicator"
  top: "lstm1_video_sequence"
  concat_param {
    concat_dim: 2
  }
}
layer {
  name: "lstm2"
  type: "LSTM"
  bottom: "lstm1_video_sequence"
  bottom: "cont_sentence"
  top: "lstm2"
  recurrent_param {
    num_output: 1000
    weight_filler {
      type: "uniform"
      min: -0.08
      max: 0.08
    }
    bias_filler {
      type: "constant"
      value: 0
    }
  }
}
layer {
  name: "predict"
  type: "InnerProduct"
  bottom: "lstm2"
  top: "predict"
  param {
    lr_mult: 1
    decay_mult: 1
  }
  param {
    lr_mult: 2
    decay_mult: 0
  }
  inner_product_param {
    num_output: 46168
    weight_filler {
      type: "uniform"
      min: -0.08
      max: 0.08
    }
    bias_filler {
      type: "constant"
      value: 0
    }
    axis: 2
  }
}
layer {
  name: "probs"
  type: "Softmax"
  bottom: "predict"
  top: "probs"
  softmax_param {
    axis: 2
  }
}
I0802 07:28:24.675386 11585 layer_factory.hpp:77] Creating layer input
I0802 07:28:24.675402 11585 net.cpp:91] Creating Layer input
I0802 07:28:24.675410 11585 net.cpp:399] input -> frames_fc7
I0802 07:28:24.675428 11585 net.cpp:399] input -> cont_sentence
I0802 07:28:24.675438 11585 net.cpp:399] input -> input_sentence
I0802 07:28:24.675447 11585 net.cpp:399] input -> stage_indicator
I0802 07:28:24.675632 11585 net.cpp:141] Setting up input
I0802 07:28:24.675645 11585 net.cpp:148] Top shape: 1 4096 (4096)
I0802 07:28:24.675652 11585 net.cpp:148] Top shape: 1 1 (1)
I0802 07:28:24.675657 11585 net.cpp:148] Top shape: 1 1 (1)
I0802 07:28:24.675662 11585 net.cpp:148] Top shape: 1 1 (1)
I0802 07:28:24.675668 11585 net.cpp:156] Memory required for data: 16396
I0802 07:28:24.675673 11585 layer_factory.hpp:77] Creating layer cont_sentence_input_1_split
I0802 07:28:24.675693 11585 net.cpp:91] Creating Layer cont_sentence_input_1_split
I0802 07:28:24.675698 11585 net.cpp:425] cont_sentence_input_1_split <- cont_sentence
I0802 07:28:24.675717 11585 net.cpp:399] cont_sentence_input_1_split -> cont_sentence_input_1_split_0
I0802 07:28:24.675729 11585 net.cpp:399] cont_sentence_input_1_split -> cont_sentence_input_1_split_1
I0802 07:28:24.675782 11585 net.cpp:141] Setting up cont_sentence_input_1_split
I0802 07:28:24.675792 11585 net.cpp:148] Top shape: 1 1 (1)
I0802 07:28:24.675798 11585 net.cpp:148] Top shape: 1 1 (1)
I0802 07:28:24.675802 11585 net.cpp:156] Memory required for data: 16404
I0802 07:28:24.675807 11585 layer_factory.hpp:77] Creating layer embed_encoder
I0802 07:28:24.675823 11585 net.cpp:91] Creating Layer embed_encoder
I0802 07:28:24.675828 11585 net.cpp:425] embed_encoder <- frames_fc7
I0802 07:28:24.675838 11585 net.cpp:399] embed_encoder -> embedded_in_frames
I0802 07:28:24.698298 11585 net.cpp:141] Setting up embed_encoder
I0802 07:28:24.698344 11585 net.cpp:148] Top shape: 1 500 (500)
I0802 07:28:24.698351 11585 net.cpp:156] Memory required for data: 18404
I0802 07:28:24.698379 11585 layer_factory.hpp:77] Creating layer reshape_frames
I0802 07:28:24.698407 11585 net.cpp:91] Creating Layer reshape_frames
I0802 07:28:24.698415 11585 net.cpp:425] reshape_frames <- embedded_in_frames
I0802 07:28:24.698426 11585 net.cpp:399] reshape_frames -> embedded_input_frames
I0802 07:28:24.698642 11585 net.cpp:141] Setting up reshape_frames
I0802 07:28:24.698663 11585 net.cpp:148] Top shape: 1 1 500 (500)
I0802 07:28:24.698673 11585 net.cpp:156] Memory required for data: 20404
I0802 07:28:24.698683 11585 layer_factory.hpp:77] Creating layer reshape_stage_indicator
I0802 07:28:24.698700 11585 net.cpp:91] Creating Layer reshape_stage_indicator
I0802 07:28:24.698709 11585 net.cpp:425] reshape_stage_indicator <- stage_indicator
I0802 07:28:24.698727 11585 net.cpp:399] reshape_stage_indicator -> reshaped_stage_indicator
I0802 07:28:24.698830 11585 net.cpp:141] Setting up reshape_stage_indicator
I0802 07:28:24.698848 11585 net.cpp:148] Top shape: 1 1 1 (1)
I0802 07:28:24.698854 11585 net.cpp:156] Memory required for data: 20408
I0802 07:28:24.698863 11585 layer_factory.hpp:77] Creating layer embedding
I0802 07:28:24.698882 11585 net.cpp:91] Creating Layer embedding
I0802 07:28:24.698892 11585 net.cpp:425] embedding <- input_sentence
I0802 07:28:24.698912 11585 net.cpp:399] embedding -> embedded_input_sentence
I0802 07:28:24.832892 11595 net.cpp:141] Setting up conv1
I0802 07:28:24.832950 11595 net.cpp:148] Top shape: 10 96 55 55 (2904000)
I0802 07:28:24.832958 11595 net.cpp:156] Memory required for data: 17799480
I0802 07:28:24.832988 11595 layer_factory.hpp:77] Creating layer relu1
I0802 07:28:24.833009 11595 net.cpp:91] Creating Layer relu1
I0802 07:28:24.833017 11595 net.cpp:425] relu1 <- conv1
I0802 07:28:24.833031 11595 net.cpp:386] relu1 -> conv1 (in-place)
I0802 07:28:24.833588 11595 net.cpp:141] Setting up relu1
I0802 07:28:24.833605 11595 net.cpp:148] Top shape: 10 96 55 55 (2904000)
I0802 07:28:24.833611 11595 net.cpp:156] Memory required for data: 29415480
I0802 07:28:24.833617 11595 layer_factory.hpp:77] Creating layer pool1
I0802 07:28:24.833636 11595 net.cpp:91] Creating Layer pool1
I0802 07:28:24.833643 11595 net.cpp:425] pool1 <- conv1
I0802 07:28:24.833652 11595 net.cpp:399] pool1 -> pool1
I0802 07:28:24.833744 11595 net.cpp:141] Setting up pool1
I0802 07:28:24.833755 11595 net.cpp:148] Top shape: 10 96 27 27 (699840)
I0802 07:28:24.833761 11595 net.cpp:156] Memory required for data: 32214840
I0802 07:28:24.833767 11595 layer_factory.hpp:77] Creating layer norm1
I0802 07:28:24.833789 11595 net.cpp:91] Creating Layer norm1
I0802 07:28:24.833796 11595 net.cpp:425] norm1 <- pool1
I0802 07:28:24.833804 11595 net.cpp:399] norm1 -> norm1
I0802 07:28:24.834408 11595 net.cpp:141] Setting up norm1
I0802 07:28:24.834427 11595 net.cpp:148] Top shape: 10 96 27 27 (699840)
I0802 07:28:24.834434 11595 net.cpp:156] Memory required for data: 35014200
I0802 07:28:24.834439 11595 layer_factory.hpp:77] Creating layer conv2
I0802 07:28:24.834457 11595 net.cpp:91] Creating Layer conv2
I0802 07:28:24.834463 11595 net.cpp:425] conv2 <- norm1
I0802 07:28:24.834478 11595 net.cpp:399] conv2 -> conv2
I0802 07:28:24.838508 11595 net.cpp:141] Setting up conv2
I0802 07:28:24.838531 11595 net.cpp:148] Top shape: 10 256 27 27 (1866240)
I0802 07:28:24.838537 11595 net.cpp:156] Memory required for data: 42479160
I0802 07:28:24.838552 11595 layer_factory.hpp:77] Creating layer relu2
I0802 07:28:24.838568 11595 net.cpp:91] Creating Layer relu2
I0802 07:28:24.838575 11595 net.cpp:425] relu2 <- conv2
I0802 07:28:24.838583 11595 net.cpp:386] relu2 -> conv2 (in-place)
I0802 07:28:24.839128 11595 net.cpp:141] Setting up relu2
I0802 07:28:24.839146 11595 net.cpp:148] Top shape: 10 256 27 27 (1866240)
I0802 07:28:24.839154 11595 net.cpp:156] Memory required for data: 49944120
I0802 07:28:24.839159 11595 layer_factory.hpp:77] Creating layer pool2
I0802 07:28:24.839171 11595 net.cpp:91] Creating Layer pool2
I0802 07:28:24.839177 11595 net.cpp:425] pool2 <- conv2
I0802 07:28:24.839189 11595 net.cpp:399] pool2 -> pool2
I0802 07:28:24.839254 11595 net.cpp:141] Setting up pool2
I0802 07:28:24.839268 11595 net.cpp:148] Top shape: 10 256 13 13 (432640)
I0802 07:28:24.839273 11595 net.cpp:156] Memory required for data: 51674680
I0802 07:28:24.839279 11595 layer_factory.hpp:77] Creating layer norm2
I0802 07:28:24.839290 11595 net.cpp:91] Creating Layer norm2
I0802 07:28:24.839296 11595 net.cpp:425] norm2 <- pool2
I0802 07:28:24.839308 11595 net.cpp:399] norm2 -> norm2
I0802 07:28:24.839615 11595 net.cpp:141] Setting up norm2
I0802 07:28:24.839630 11595 net.cpp:148] Top shape: 10 256 13 13 (432640)
I0802 07:28:24.839635 11595 net.cpp:156] Memory required for data: 53405240
I0802 07:28:24.839642 11595 layer_factory.hpp:77] Creating layer conv3
I0802 07:28:24.839656 11595 net.cpp:91] Creating Layer conv3
I0802 07:28:24.839663 11595 net.cpp:425] conv3 <- norm2
I0802 07:28:24.839675 11595 net.cpp:399] conv3 -> conv3
I0802 07:28:24.844465 11595 net.cpp:141] Setting up conv3
I0802 07:28:24.844507 11595 net.cpp:148] Top shape: 10 384 13 13 (648960)
I0802 07:28:24.844514 11595 net.cpp:156] Memory required for data: 56001080
I0802 07:28:24.844534 11595 layer_factory.hpp:77] Creating layer relu3
I0802 07:28:24.844558 11595 net.cpp:91] Creating Layer relu3
I0802 07:28:24.844565 11595 net.cpp:425] relu3 <- conv3
I0802 07:28:24.844574 11595 net.cpp:386] relu3 -> conv3 (in-place)
I0802 07:28:24.845094 11595 net.cpp:141] Setting up relu3
I0802 07:28:24.845108 11595 net.cpp:148] Top shape: 10 384 13 13 (648960)
I0802 07:28:24.845113 11595 net.cpp:156] Memory required for data: 58596920
I0802 07:28:24.845119 11595 layer_factory.hpp:77] Creating layer conv4
I0802 07:28:24.845147 11595 net.cpp:91] Creating Layer conv4
I0802 07:28:24.845155 11595 net.cpp:425] conv4 <- conv3
I0802 07:28:24.845165 11595 net.cpp:399] conv4 -> conv4
I0802 07:28:24.850955 11595 net.cpp:141] Setting up conv4
I0802 07:28:24.850983 11595 net.cpp:148] Top shape: 10 384 13 13 (648960)
I0802 07:28:24.850989 11595 net.cpp:156] Memory required for data: 61192760
I0802 07:28:24.850999 11595 layer_factory.hpp:77] Creating layer relu4
I0802 07:28:24.851009 11595 net.cpp:91] Creating Layer relu4
I0802 07:28:24.851014 11595 net.cpp:425] relu4 <- conv4
I0802 07:28:24.851022 11595 net.cpp:386] relu4 -> conv4 (in-place)
I0802 07:28:24.851465 11595 net.cpp:141] Setting up relu4
I0802 07:28:24.851478 11595 net.cpp:148] Top shape: 10 384 13 13 (648960)
I0802 07:28:24.851482 11595 net.cpp:156] Memory required for data: 63788600
I0802 07:28:24.851487 11595 layer_factory.hpp:77] Creating layer conv5
I0802 07:28:24.851502 11595 net.cpp:91] Creating Layer conv5
I0802 07:28:24.851508 11595 net.cpp:425] conv5 <- conv4
I0802 07:28:24.851516 11595 net.cpp:399] conv5 -> conv5
I0802 07:28:24.855420 11595 net.cpp:141] Setting up conv5
I0802 07:28:24.855440 11595 net.cpp:148] Top shape: 10 256 13 13 (432640)
I0802 07:28:24.855446 11595 net.cpp:156] Memory required for data: 65519160
I0802 07:28:24.855459 11595 layer_factory.hpp:77] Creating layer relu5
I0802 07:28:24.855468 11595 net.cpp:91] Creating Layer relu5
I0802 07:28:24.855473 11595 net.cpp:425] relu5 <- conv5
I0802 07:28:24.855479 11595 net.cpp:386] relu5 -> conv5 (in-place)
I0802 07:28:24.855929 11595 net.cpp:141] Setting up relu5
I0802 07:28:24.855942 11595 net.cpp:148] Top shape: 10 256 13 13 (432640)
I0802 07:28:24.855947 11595 net.cpp:156] Memory required for data: 67249720
I0802 07:28:24.855952 11595 layer_factory.hpp:77] Creating layer pool5
I0802 07:28:24.855962 11595 net.cpp:91] Creating Layer pool5
I0802 07:28:24.855967 11595 net.cpp:425] pool5 <- conv5
I0802 07:28:24.855976 11595 net.cpp:399] pool5 -> pool5
I0802 07:28:24.856048 11595 net.cpp:141] Setting up pool5
I0802 07:28:24.856058 11595 net.cpp:148] Top shape: 10 256 6 6 (92160)
I0802 07:28:24.856063 11595 net.cpp:156] Memory required for data: 67618360
I0802 07:28:24.856067 11595 layer_factory.hpp:77] Creating layer fc6
I0802 07:28:24.856084 11595 net.cpp:91] Creating Layer fc6
I0802 07:28:24.856089 11595 net.cpp:425] fc6 <- pool5
I0802 07:28:24.856098 11595 net.cpp:399] fc6 -> fc6
I0802 07:28:24.955723 11595 net.cpp:141] Setting up fc6
I0802 07:28:24.955790 11595 net.cpp:148] Top shape: 10 4096 (40960)
I0802 07:28:24.955796 11595 net.cpp:156] Memory required for data: 67782200
I0802 07:28:24.955811 11595 layer_factory.hpp:77] Creating layer relu6
I0802 07:28:24.955832 11595 net.cpp:91] Creating Layer relu6
I0802 07:28:24.955838 11595 net.cpp:425] relu6 <- fc6
I0802 07:28:24.955847 11595 net.cpp:386] relu6 -> fc6 (in-place)
I0802 07:28:24.956187 11595 net.cpp:141] Setting up relu6
I0802 07:28:24.956197 11595 net.cpp:148] Top shape: 10 4096 (40960)
I0802 07:28:24.956202 11595 net.cpp:156] Memory required for data: 67946040
I0802 07:28:24.956207 11595 layer_factory.hpp:77] Creating layer drop6
I0802 07:28:24.956226 11595 net.cpp:91] Creating Layer drop6
I0802 07:28:24.956231 11595 net.cpp:425] drop6 <- fc6
I0802 07:28:24.956238 11595 net.cpp:386] drop6 -> fc6 (in-place)
I0802 07:28:24.956290 11595 net.cpp:141] Setting up drop6
I0802 07:28:24.956298 11595 net.cpp:148] Top shape: 10 4096 (40960)
I0802 07:28:24.956303 11595 net.cpp:156] Memory required for data: 68109880
I0802 07:28:24.956307 11595 layer_factory.hpp:77] Creating layer fc7
I0802 07:28:24.956320 11595 net.cpp:91] Creating Layer fc7
I0802 07:28:24.956324 11595 net.cpp:425] fc7 <- fc6
I0802 07:28:24.956331 11595 net.cpp:399] fc7 -> fc7
I0802 07:28:24.988332 11585 net.cpp:141] Setting up embedding
I0802 07:28:24.988385 11585 net.cpp:148] Top shape: 1 1 500 (500)
I0802 07:28:24.988391 11585 net.cpp:156] Memory required for data: 22408
I0802 07:28:24.988409 11585 layer_factory.hpp:77] Creating layer lstm1
I0802 07:28:24.988425 11585 net.cpp:91] Creating Layer lstm1
I0802 07:28:24.988431 11585 net.cpp:425] lstm1 <- embedded_input_frames
I0802 07:28:24.988440 11585 net.cpp:425] lstm1 <- cont_sentence_input_1_split_0
I0802 07:28:24.988451 11585 net.cpp:399] lstm1 -> lstm1
I0802 07:28:24.988476 11585 recurrent_layer.cpp:20] Initializing recurrent layer: assuming input batch contains 1 timesteps of 1 independent streams.
I0802 07:28:24.988961 11585 net.cpp:49] Initializing net from parameters: 
layer {
  name: "lstm1_"
  type: "Input"
  top: "x"
  top: "cont"
  input_param {
    shape {
      dim: 1
      dim: 1
      dim: 500
    }
    shape {
      dim: 1
      dim: 1
    }
  }
}
layer {
  name: "lstm1_"
  type: "Input"
  top: "c_0"
  top: "h_0"
  input_param {
    shape {
      dim: 1
      dim: 1
      dim: 1000
    }
    shape {
      dim: 1
      dim: 1
      dim: 1000
    }
  }
}
layer {
  name: "lstm1_cont_slice"
  type: "Slice"
  bottom: "cont"
  top: "cont_1"
  slice_param {
    axis: 0
  }
}
layer {
  name: "lstm1_x_transform"
  type: "InnerProduct"
  bottom: "x"
  top: "W_xc_x"
  param {
    name: "W_xc"
  }
  param {
    name: "b_c"
  }
  propagate_down: true
  inner_product_param {
    num_output: 4000
    bias_term: true
    weight_filler {
      type: "uniform"
      min: -0.08
      max: 0.08
    }
    bias_filler {
      type: "constant"
      value: 0
    }
    axis: 2
  }
}
layer {
  name: "lstm1_W_xc_x_slice"
  type: "Slice"
  bottom: "W_xc_x"
  top: "W_xc_x_1"
  slice_param {
    axis: 0
  }
}
layer {
  name: "lstm1_h_conted_0"
  type: "Scale"
  bottom: "h_0"
  bottom: "cont_1"
  top: "h_conted_0"
  scale_param {
    axis: 0
  }
}
layer {
  name: "lstm1_transform_1"
  type: "InnerProduct"
  bottom: "h_conted_0"
  top: "W_hc_h_0"
  param {
    name: "W_hc"
  }
  inner_product_param {
    num_output: 4000
    bias_term: false
    weight_filler {
      type: "uniform"
      min: -0.08
      max: 0.08
    }
    axis: 2
  }
}
layer {
  name: "lstm1_gate_input_1"
  type: "Eltwise"
  bottom: "W_hc_h_0"
  bottom: "W_xc_x_1"
  top: "gate_input_1"
  eltwise_param {
    operation: SUM
  }
}
layer {
  name: "lstm1_unit_1"
  type: "LSTMUnit"
  bottom: "c_0"
  bottom: "gate_input_1"
  bottom: "cont_1"
  top: "c_1"
  top: "h_1"
}
layer {
  name: "lstm1_"
  type: "Split"
  bottom: "c_1"
  top: "c_T"
}
layer {
  name: "lstm1_h_concat"
  type: "Concat"
  bottom: "h_1"
  top: "h"
  concat_param {
    axis: 0
  }
}
layer {
  name: "h_pseudoloss"
  type: "Reduction"
  bottom: "h"
  top: "h_pseudoloss"
  loss_weight: 1
}
I0802 07:28:24.989054 11585 layer_factory.hpp:77] Creating layer lstm1_
I0802 07:28:24.989066 11585 net.cpp:91] Creating Layer lstm1_
I0802 07:28:24.989073 11585 net.cpp:399] lstm1_ -> x
I0802 07:28:24.989084 11585 net.cpp:399] lstm1_ -> cont
I0802 07:28:24.989176 11585 net.cpp:141] Setting up lstm1_
I0802 07:28:24.989186 11585 net.cpp:148] Top shape: 1 1 500 (500)
I0802 07:28:24.989192 11585 net.cpp:148] Top shape: 1 1 (1)
I0802 07:28:24.989195 11585 net.cpp:156] Memory required for data: 2004
I0802 07:28:24.989200 11585 layer_factory.hpp:77] Creating layer lstm1_
I0802 07:28:24.989208 11585 net.cpp:91] Creating Layer lstm1_
I0802 07:28:24.989217 11585 net.cpp:399] lstm1_ -> c_0
I0802 07:28:24.989228 11585 net.cpp:399] lstm1_ -> h_0
I0802 07:28:24.989279 11585 net.cpp:141] Setting up lstm1_
I0802 07:28:24.989289 11585 net.cpp:148] Top shape: 1 1 1000 (1000)
I0802 07:28:24.989294 11585 net.cpp:148] Top shape: 1 1 1000 (1000)
I0802 07:28:24.989298 11585 net.cpp:156] Memory required for data: 10004
I0802 07:28:24.989302 11585 layer_factory.hpp:77] Creating layer lstm1_cont_slice
I0802 07:28:24.989311 11585 net.cpp:91] Creating Layer lstm1_cont_slice
I0802 07:28:24.989316 11585 net.cpp:425] lstm1_cont_slice <- cont
I0802 07:28:24.989326 11585 net.cpp:399] lstm1_cont_slice -> cont_1
I0802 07:28:24.989359 11585 net.cpp:141] Setting up lstm1_cont_slice
I0802 07:28:24.989368 11585 net.cpp:148] Top shape: 1 1 (1)
I0802 07:28:24.989372 11585 net.cpp:156] Memory required for data: 10008
I0802 07:28:24.989377 11585 layer_factory.hpp:77] Creating layer cont_1_lstm1_cont_slice_0_split
I0802 07:28:24.989388 11585 net.cpp:91] Creating Layer cont_1_lstm1_cont_slice_0_split
I0802 07:28:24.989393 11585 net.cpp:425] cont_1_lstm1_cont_slice_0_split <- cont_1
I0802 07:28:24.989399 11585 net.cpp:399] cont_1_lstm1_cont_slice_0_split -> cont_1_lstm1_cont_slice_0_split_0
I0802 07:28:24.989408 11585 net.cpp:399] cont_1_lstm1_cont_slice_0_split -> cont_1_lstm1_cont_slice_0_split_1
I0802 07:28:24.989454 11585 net.cpp:141] Setting up cont_1_lstm1_cont_slice_0_split
I0802 07:28:24.989462 11585 net.cpp:148] Top shape: 1 1 (1)
I0802 07:28:24.989467 11585 net.cpp:148] Top shape: 1 1 (1)
I0802 07:28:24.989471 11585 net.cpp:156] Memory required for data: 10016
I0802 07:28:24.989476 11585 layer_factory.hpp:77] Creating layer lstm1_x_transform
I0802 07:28:24.989485 11585 net.cpp:91] Creating Layer lstm1_x_transform
I0802 07:28:24.989490 11585 net.cpp:425] lstm1_x_transform <- x
I0802 07:28:24.989497 11585 net.cpp:399] lstm1_x_transform -> W_xc_x
I0802 07:28:25.007336 11595 net.cpp:141] Setting up fc7
I0802 07:28:25.007390 11595 net.cpp:148] Top shape: 10 4096 (40960)
I0802 07:28:25.007397 11595 net.cpp:156] Memory required for data: 68273720
I0802 07:28:25.007416 11595 layer_factory.hpp:77] Creating layer relu7
I0802 07:28:25.007439 11595 net.cpp:91] Creating Layer relu7
I0802 07:28:25.007447 11595 net.cpp:425] relu7 <- fc7
I0802 07:28:25.007458 11595 net.cpp:386] relu7 -> fc7 (in-place)
I0802 07:28:25.008361 11595 net.cpp:141] Setting up relu7
I0802 07:28:25.008376 11595 net.cpp:148] Top shape: 10 4096 (40960)
I0802 07:28:25.008383 11595 net.cpp:156] Memory required for data: 68437560
I0802 07:28:25.008388 11595 layer_factory.hpp:77] Creating layer drop7
I0802 07:28:25.008404 11595 net.cpp:91] Creating Layer drop7
I0802 07:28:25.008410 11595 net.cpp:425] drop7 <- fc7
I0802 07:28:25.008417 11595 net.cpp:386] drop7 -> fc7 (in-place)
I0802 07:28:25.008465 11595 net.cpp:141] Setting up drop7
I0802 07:28:25.008473 11595 net.cpp:148] Top shape: 10 4096 (40960)
I0802 07:28:25.008479 11595 net.cpp:156] Memory required for data: 68601400
I0802 07:28:25.008484 11595 layer_factory.hpp:77] Creating layer fc8
I0802 07:28:25.008496 11595 net.cpp:91] Creating Layer fc8
I0802 07:28:25.008502 11595 net.cpp:425] fc8 <- fc7
I0802 07:28:25.008513 11595 net.cpp:399] fc8 -> fc8
I0802 07:28:25.017179 11585 net.cpp:141] Setting up lstm1_x_transform
I0802 07:28:25.017225 11585 net.cpp:148] Top shape: 1 1 4000 (4000)
I0802 07:28:25.017231 11585 net.cpp:156] Memory required for data: 26016
I0802 07:28:25.017251 11585 layer_factory.hpp:77] Creating layer lstm1_W_xc_x_slice
I0802 07:28:25.017271 11585 net.cpp:91] Creating Layer lstm1_W_xc_x_slice
I0802 07:28:25.017277 11585 net.cpp:425] lstm1_W_xc_x_slice <- W_xc_x
I0802 07:28:25.017287 11585 net.cpp:399] lstm1_W_xc_x_slice -> W_xc_x_1
I0802 07:28:25.017333 11585 net.cpp:141] Setting up lstm1_W_xc_x_slice
I0802 07:28:25.017341 11585 net.cpp:148] Top shape: 1 1 4000 (4000)
I0802 07:28:25.017346 11585 net.cpp:156] Memory required for data: 42016
I0802 07:28:25.017350 11585 layer_factory.hpp:77] Creating layer lstm1_h_conted_0
I0802 07:28:25.017364 11585 net.cpp:91] Creating Layer lstm1_h_conted_0
I0802 07:28:25.017369 11585 net.cpp:425] lstm1_h_conted_0 <- h_0
I0802 07:28:25.017374 11585 net.cpp:425] lstm1_h_conted_0 <- cont_1_lstm1_cont_slice_0_split_0
I0802 07:28:25.017380 11585 net.cpp:399] lstm1_h_conted_0 -> h_conted_0
I0802 07:28:25.017472 11585 net.cpp:141] Setting up lstm1_h_conted_0
I0802 07:28:25.017480 11585 net.cpp:148] Top shape: 1 1 1000 (1000)
I0802 07:28:25.017485 11585 net.cpp:156] Memory required for data: 46016
I0802 07:28:25.017489 11585 layer_factory.hpp:77] Creating layer lstm1_transform_1
I0802 07:28:25.017504 11585 net.cpp:91] Creating Layer lstm1_transform_1
I0802 07:28:25.017509 11585 net.cpp:425] lstm1_transform_1 <- h_conted_0
I0802 07:28:25.017518 11585 net.cpp:399] lstm1_transform_1 -> W_hc_h_0
I0802 07:28:25.025279 11595 net.cpp:141] Setting up fc8
I0802 07:28:25.025336 11595 net.cpp:148] Top shape: 10 1000 (10000)
I0802 07:28:25.025344 11595 net.cpp:156] Memory required for data: 68641400
I0802 07:28:25.025363 11595 layer_factory.hpp:77] Creating layer prob
I0802 07:28:25.025382 11595 net.cpp:91] Creating Layer prob
I0802 07:28:25.025390 11595 net.cpp:425] prob <- fc8
I0802 07:28:25.025403 11595 net.cpp:399] prob -> prob
I0802 07:28:25.025903 11595 net.cpp:141] Setting up prob
I0802 07:28:25.025916 11595 net.cpp:148] Top shape: 10 1000 (10000)
I0802 07:28:25.025923 11595 net.cpp:156] Memory required for data: 68681400
I0802 07:28:25.025928 11595 net.cpp:219] prob does not need backward computation.
I0802 07:28:25.025933 11595 net.cpp:219] fc8 does not need backward computation.
I0802 07:28:25.025940 11595 net.cpp:219] drop7 does not need backward computation.
I0802 07:28:25.025945 11595 net.cpp:219] relu7 does not need backward computation.
…
I0802 07:28:25.026029 11595 net.cpp:219] norm1 does not need backward computation.
I0802 07:28:25.026036 11595 net.cpp:219] pool1 does not need backward computation.
I0802 07:28:25.026041 11595 net.cpp:219] relu1 does not need backward computation.
I0802 07:28:25.026044 11595 net.cpp:219] conv1 does not need backward computation.
I0802 07:28:25.026049 11595 net.cpp:219] data does not need backward computation.
I0802 07:28:25.026054 11595 net.cpp:261] This network produces output prob
I0802 07:28:25.026077 11595 net.cpp:274] Network initialization done.
I0802 07:28:25.056017 11585 net.cpp:141] Setting up lstm1_transform_1
I0802 07:28:25.056063 11585 net.cpp:148] Top shape: 1 1 4000 (4000)
I0802 07:28:25.056069 11585 net.cpp:156] Memory required for data: 62016
I0802 07:28:25.056087 11585 layer_factory.hpp:77] Creating layer lstm1_gate_input_1
I0802 07:28:25.056116 11585 net.cpp:91] Creating Layer lstm1_gate_input_1
I0802 07:28:25.056123 11585 net.cpp:425] lstm1_gate_input_1 <- W_hc_h_0
I0802 07:28:25.056131 11585 net.cpp:425] lstm1_gate_input_1 <- W_xc_x_1
I0802 07:28:25.056139 11585 net.cpp:399] lstm1_gate_input_1 -> gate_input_1
I0802 07:28:25.056200 11585 net.cpp:141] Setting up lstm1_gate_input_1
I0802 07:28:25.056210 11585 net.cpp:148] Top shape: 1 1 4000 (4000)
I0802 07:28:25.056213 11585 net.cpp:156] Memory required for data: 78016
I0802 07:28:25.056217 11585 layer_factory.hpp:77] Creating layer lstm1_unit_1
I0802 07:28:25.056229 11585 net.cpp:91] Creating Layer lstm1_unit_1
I0802 07:28:25.056234 11585 net.cpp:425] lstm1_unit_1 <- c_0
I0802 07:28:25.056241 11585 net.cpp:425] lstm1_unit_1 <- gate_input_1
I0802 07:28:25.056246 11585 net.cpp:425] lstm1_unit_1 <- cont_1_lstm1_cont_slice_0_split_1
I0802 07:28:25.056252 11585 net.cpp:399] lstm1_unit_1 -> c_1
I0802 07:28:25.056260 11585 net.cpp:399] lstm1_unit_1 -> h_1
I0802 07:28:25.056321 11585 net.cpp:141] Setting up lstm1_unit_1
I0802 07:28:25.056329 11585 net.cpp:148] Top shape: 1 1 1000 (1000)
I0802 07:28:25.056335 11585 net.cpp:148] Top shape: 1 1 1000 (1000)
I0802 07:28:25.056339 11585 net.cpp:156] Memory required for data: 86016
I0802 07:28:25.056344 11585 layer_factory.hpp:77] Creating layer lstm1_
I0802 07:28:25.056352 11585 net.cpp:91] Creating Layer lstm1_
I0802 07:28:25.056357 11585 net.cpp:425] lstm1_ <- c_1
I0802 07:28:25.056363 11585 net.cpp:399] lstm1_ -> c_T
I0802 07:28:25.056396 11585 net.cpp:141] Setting up lstm1_
I0802 07:28:25.056403 11585 net.cpp:148] Top shape: 1 1 1000 (1000)
I0802 07:28:25.056408 11585 net.cpp:156] Memory required for data: 90016
I0802 07:28:25.056412 11585 layer_factory.hpp:77] Creating layer lstm1_h_concat
I0802 07:28:25.056421 11585 net.cpp:91] Creating Layer lstm1_h_concat
I0802 07:28:25.056427 11585 net.cpp:425] lstm1_h_concat <- h_1
I0802 07:28:25.056432 11585 net.cpp:399] lstm1_h_concat -> h
I0802 07:28:25.056468 11585 net.cpp:141] Setting up lstm1_h_concat
I0802 07:28:25.056475 11585 net.cpp:148] Top shape: 1 1 1000 (1000)
I0802 07:28:25.056479 11585 net.cpp:156] Memory required for data: 94016
I0802 07:28:25.056484 11585 layer_factory.hpp:77] Creating layer h_pseudoloss
I0802 07:28:25.056498 11585 net.cpp:91] Creating Layer h_pseudoloss
I0802 07:28:25.056502 11585 net.cpp:425] h_pseudoloss <- h
I0802 07:28:25.056509 11585 net.cpp:399] h_pseudoloss -> h_pseudoloss
I0802 07:28:25.056597 11585 net.cpp:141] Setting up h_pseudoloss
…
I0802 07:28:25.056715 11585 net.cpp:219] lstm1_ does not need backward computation.
I0802 07:28:25.056717 11585 net.cpp:261] This network produces output c_T
I0802 07:28:25.056722 11585 net.cpp:261] This network produces output h_pseudoloss
I0802 07:28:25.056735 11585 net.cpp:274] Network initialization done.
I0802 07:28:25.056785 11585 recurrent_layer.cpp:150] Adding parameter 0: W_xc
I0802 07:28:25.056792 11585 recurrent_layer.cpp:150] Adding parameter 1: b_c
I0802 07:28:25.056797 11585 recurrent_layer.cpp:150] Adding parameter 2: W_hc
I0802 07:28:25.056898 11585 net.cpp:141] Setting up lstm1
I0802 07:28:25.056910 11585 net.cpp:148] Top shape: 1 1 1000 (1000)
I0802 07:28:25.056915 11585 net.cpp:156] Memory required for data: 26408
I0802 07:28:25.056927 11585 layer_factory.hpp:77] Creating layer concat
I0802 07:28:25.056936 11585 net.cpp:91] Creating Layer concat
I0802 07:28:25.056941 11585 net.cpp:425] concat <- lstm1
I0802 07:28:25.056947 11585 net.cpp:425] concat <- embedded_input_sentence
I0802 07:28:25.056952 11585 net.cpp:425] concat <- reshaped_stage_indicator
I0802 07:28:25.056958 11585 net.cpp:399] concat -> lstm1_video_sequence
I0802 07:28:25.056989 11585 net.cpp:141] Setting up concat
I0802 07:28:25.056998 11585 net.cpp:148] Top shape: 1 1 1501 (1501)
I0802 07:28:25.057003 11585 net.cpp:156] Memory required for data: 32412
I0802 07:28:25.057006 11585 layer_factory.hpp:77] Creating layer lstm2
I0802 07:28:25.057018 11585 net.cpp:91] Creating Layer lstm2
I0802 07:28:25.057024 11585 net.cpp:425] lstm2 <- lstm1_video_sequence
I0802 07:28:25.057029 11585 net.cpp:425] lstm2 <- cont_sentence_input_1_split_1
I0802 07:28:25.057035 11585 net.cpp:399] lstm2 -> lstm2
I0802 07:28:25.057044 11585 recurrent_layer.cpp:20] Initializing recurrent layer: assuming input batch contains 1 timesteps of 1 independent streams.
I0802 07:28:25.057276 11585 net.cpp:49] Initializing net from parameters: 
layer {
  name: "lstm2_"
  type: "Input"
  top: "x"
  top: "cont"
  input_param {
    shape {
      dim: 1
      dim: 1
      dim: 1501
    }
    shape {
      dim: 1
      dim: 1
    }
  }
}
layer {
  name: "lstm2_"
  type: "Input"
  top: "c_0"
  top: "h_0"
  input_param {
    shape {
      dim: 1
      dim: 1
      dim: 1000
    }
    shape {
      dim: 1
      dim: 1
      dim: 1000
    }
  }
}
layer {
  name: "lstm2_cont_slice"
  type: "Slice"
  bottom: "cont"
  top: "cont_1"
  slice_param {
    axis: 0
  }
}
layer {
  name: "lstm2_x_transform"
  type: "InnerProduct"
  bottom: "x"
  top: "W_xc_x"
  param {
    name: "W_xc"
  }
  param {
    name: "b_c"
  }
  propagate_down: true
  inner_product_param {
    num_output: 4000
    bias_term: true
    weight_filler {
      type: "uniform"
      min: -0.08
      max: 0.08
    }
    bias_filler {
      type: "constant"
      value: 0
    }
    axis: 2
  }
}
layer {
  name: "lstm2_W_xc_x_slice"
  type: "Slice"
  bottom: "W_xc_x"
  top: "W_xc_x_1"
  slice_param {
    axis: 0
  }
}
layer {
  name: "lstm2_h_conted_0"
  type: "Scale"
  bottom: "h_0"
  bottom: "cont_1"
  top: "h_conted_0"
  scale_param {
    axis: 0
  }
}
layer {
  name: "lstm2_transform_1"
  type: "InnerProduct"
  bottom: "h_conted_0"
  top: "W_hc_h_0"
  param {
    name: "W_hc"
  }
  inner_product_param {
    num_output: 4000
    bias_term: false
    weight_filler {
      type: "uniform"
      min: -0.08
      max: 0.08
    }
    axis: 2
  }
}
layer {
  name: "lstm2_gate_input_1"
  type: "Eltwise"
  bottom: "W_hc_h_0"
  bottom: "W_xc_x_1"
  top: "gate_input_1"
  eltwise_param {
    operation: SUM
  }
}
layer {
  name: "lstm2_unit_1"
  type: "LSTMUnit"
  bottom: "c_0"
  bottom: "gate_input_1"
  bottom: "cont_1"
  top: "c_1"
  top: "h_1"
}
layer {
  name: "lstm2_"
  type: "Split"
  bottom: "c_1"
  top: "c_T"
}
layer {
  name: "lstm2_h_concat"
  type: "Concat"
  bottom: "h_1"
  top: "h"
  concat_param {
    axis: 0
  }
}
layer {
  name: "h_pseudoloss"
  type: "Reduction"
  bottom: "h"
  top: "h_pseudoloss"
  loss_weight: 1
}
I0802 07:28:25.057356 11585 layer_factory.hpp:77] Creating layer lstm2_
I0802 07:28:25.057368 11585 net.cpp:91] Creating Layer lstm2_
I0802 07:28:25.057374 11585 net.cpp:399] lstm2_ -> x
I0802 07:28:25.057384 11585 net.cpp:399] lstm2_ -> cont
I0802 07:28:25.057435 11585 net.cpp:141] Setting up lstm2_
I0802 07:28:25.057445 11585 net.cpp:148] Top shape: 1 1 1501 (1501)
I0802 07:28:25.057451 11585 net.cpp:148] Top shape: 1 1 (1)
I0802 07:28:25.057454 11585 net.cpp:156] Memory required for data: 6008
I0802 07:28:25.057459 11585 layer_factory.hpp:77] Creating layer lstm2_
I0802 07:28:25.057471 11585 net.cpp:91] Creating Layer lstm2_
I0802 07:28:25.057476 11585 net.cpp:399] lstm2_ -> c_0
I0802 07:28:25.057485 11585 net.cpp:399] lstm2_ -> h_0
I0802 07:28:25.057533 11585 net.cpp:141] Setting up lstm2_
I0802 07:28:25.057541 11585 net.cpp:148] Top shape: 1 1 1000 (1000)
I0802 07:28:25.057548 11585 net.cpp:148] Top shape: 1 1 1000 (1000)
I0802 07:28:25.057551 11585 net.cpp:156] Memory required for data: 14008
I0802 07:28:25.057555 11585 layer_factory.hpp:77] Creating layer lstm2_cont_slice
I0802 07:28:25.057564 11585 net.cpp:91] Creating Layer lstm2_cont_slice
I0802 07:28:25.057569 11585 net.cpp:425] lstm2_cont_slice <- cont
I0802 07:28:25.057574 11585 net.cpp:399] lstm2_cont_slice -> cont_1
I0802 07:28:25.057606 11585 net.cpp:141] Setting up lstm2_cont_slice
I0802 07:28:25.057615 11585 net.cpp:148] Top shape: 1 1 (1)
I0802 07:28:25.057618 11585 net.cpp:156] Memory required for data: 14012
I0802 07:28:25.057623 11585 layer_factory.hpp:77] Creating layer cont_1_lstm2_cont_slice_0_split
I0802 07:28:25.057634 11585 net.cpp:91] Creating Layer cont_1_lstm2_cont_slice_0_split
I0802 07:28:25.057639 11585 net.cpp:425] cont_1_lstm2_cont_slice_0_split <- cont_1
I0802 07:28:25.057646 11585 net.cpp:399] cont_1_lstm2_cont_slice_0_split -> cont_1_lstm2_cont_slice_0_split_0
I0802 07:28:25.057656 11585 net.cpp:399] cont_1_lstm2_cont_slice_0_split -> cont_1_lstm2_cont_slice_0_split_1
I0802 07:28:25.057698 11585 net.cpp:141] Setting up cont_1_lstm2_cont_slice_0_split
I0802 07:28:25.057706 11585 net.cpp:148] Top shape: 1 1 (1)
I0802 07:28:25.057711 11585 net.cpp:148] Top shape: 1 1 (1)
I0802 07:28:25.057716 11585 net.cpp:156] Memory required for data: 14020
I0802 07:28:25.057720 11585 layer_factory.hpp:77] Creating layer lstm2_x_transform
I0802 07:28:25.057732 11585 net.cpp:91] Creating Layer lstm2_x_transform
I0802 07:28:25.057737 11585 net.cpp:425] lstm2_x_transform <- x
I0802 07:28:25.057746 11585 net.cpp:399] lstm2_x_transform -> W_xc_x
I0802 07:28:25.114464 11585 net.cpp:141] Setting up lstm2_x_transform
I0802 07:28:25.114511 11585 net.cpp:148] Top shape: 1 1 4000 (4000)
I0802 07:28:25.114517 11585 net.cpp:156] Memory required for data: 30020
I0802 07:28:25.114537 11585 layer_factory.hpp:77] Creating layer lstm2_W_xc_x_slice
I0802 07:28:25.114553 11585 net.cpp:91] Creating Layer lstm2_W_xc_x_slice
I0802 07:28:25.114560 11585 net.cpp:425] lstm2_W_xc_x_slice <- W_xc_x
I0802 07:28:25.114569 11585 net.cpp:399] lstm2_W_xc_x_slice -> W_xc_x_1
I0802 07:28:25.114619 11585 net.cpp:141] Setting up lstm2_W_xc_x_slice
I0802 07:28:25.114627 11585 net.cpp:148] Top shape: 1 1 4000 (4000)
I0802 07:28:25.114631 11585 net.cpp:156] Memory required for data: 46020
I0802 07:28:25.114636 11585 layer_factory.hpp:77] Creating layer lstm2_h_conted_0
I0802 07:28:25.114646 11585 net.cpp:91] Creating Layer lstm2_h_conted_0
I0802 07:28:25.114651 11585 net.cpp:425] lstm2_h_conted_0 <- h_0
I0802 07:28:25.114657 11585 net.cpp:425] lstm2_h_conted_0 <- cont_1_lstm2_cont_slice_0_split_0
I0802 07:28:25.114663 11585 net.cpp:399] lstm2_h_conted_0 -> h_conted_0
I0802 07:28:25.114755 11585 net.cpp:141] Setting up lstm2_h_conted_0
I0802 07:28:25.114764 11585 net.cpp:148] Top shape: 1 1 1000 (1000)
I0802 07:28:25.114768 11585 net.cpp:156] Memory required for data: 50020
I0802 07:28:25.114773 11585 layer_factory.hpp:77] Creating layer lstm2_transform_1
I0802 07:28:25.114785 11585 net.cpp:91] Creating Layer lstm2_transform_1
I0802 07:28:25.114790 11585 net.cpp:425] lstm2_transform_1 <- h_conted_0
I0802 07:28:25.114797 11585 net.cpp:399] lstm2_transform_1 -> W_hc_h_0
I0802 07:28:25.152698 11585 net.cpp:141] Setting up lstm2_transform_1
I0802 07:28:25.152745 11585 net.cpp:148] Top shape: 1 1 4000 (4000)
I0802 07:28:25.152751 11585 net.cpp:156] Memory required for data: 66020
I0802 07:28:25.152770 11585 layer_factory.hpp:77] Creating layer lstm2_gate_input_1
I0802 07:28:25.152788 11585 net.cpp:91] Creating Layer lstm2_gate_input_1
I0802 07:28:25.152794 11585 net.cpp:425] lstm2_gate_input_1 <- W_hc_h_0
I0802 07:28:25.152803 11585 net.cpp:425] lstm2_gate_input_1 <- W_xc_x_1
I0802 07:28:25.152813 11585 net.cpp:399] lstm2_gate_input_1 -> gate_input_1
I0802 07:28:25.152858 11585 net.cpp:141] Setting up lstm2_gate_input_1
I0802 07:28:25.152869 11585 net.cpp:148] Top shape: 1 1 4000 (4000)
I0802 07:28:25.152873 11585 net.cpp:156] Memory required for data: 82020
I0802 07:28:25.152879 11585 layer_factory.hpp:77] Creating layer lstm2_unit_1
I0802 07:28:25.152887 11585 net.cpp:91] Creating Layer lstm2_unit_1
I0802 07:28:25.152892 11585 net.cpp:425] lstm2_unit_1 <- c_0
I0802 07:28:25.152899 11585 net.cpp:425] lstm2_unit_1 <- gate_input_1
I0802 07:28:25.152904 11585 net.cpp:425] lstm2_unit_1 <- cont_1_lstm2_cont_slice_0_split_1
I0802 07:28:25.152909 11585 net.cpp:399] lstm2_unit_1 -> c_1
I0802 07:28:25.152918 11585 net.cpp:399] lstm2_unit_1 -> h_1
I0802 07:28:25.152976 11585 net.cpp:141] Setting up lstm2_unit_1
I0802 07:28:25.152984 11585 net.cpp:148] Top shape: 1 1 1000 (1000)
I0802 07:28:25.152989 11585 net.cpp:148] Top shape: 1 1 1000 (1000)
I0802 07:28:25.152994 11585 net.cpp:156] Memory required for data: 90020
I0802 07:28:25.152998 11585 layer_factory.hpp:77] Creating layer lstm2_
I0802 07:28:25.153007 11585 net.cpp:91] Creating Layer lstm2_
I0802 07:28:25.153012 11585 net.cpp:425] lstm2_ <- c_1
I0802 07:28:25.153017 11585 net.cpp:399] lstm2_ -> c_T
I0802 07:28:25.153045 11585 net.cpp:141] Setting up lstm2_
I0802 07:28:25.153053 11585 net.cpp:148] Top shape: 1 1 1000 (1000)
I0802 07:28:25.153058 11585 net.cpp:156] Memory required for data: 94020
I0802 07:28:25.153061 11585 layer_factory.hpp:77] Creating layer lstm2_h_concat
I0802 07:28:25.153074 11585 net.cpp:91] Creating Layer lstm2_h_concat
I0802 07:28:25.153079 11585 net.cpp:425] lstm2_h_concat <- h_1
I0802 07:28:25.153087 11585 net.cpp:399] lstm2_h_concat -> h
I0802 07:28:25.153118 11585 net.cpp:141] Setting up lstm2_h_concat
I0802 07:28:25.153126 11585 net.cpp:148] Top shape: 1 1 1000 (1000)
I0802 07:28:25.153131 11585 net.cpp:156] Memory required for data: 98020
I0802 07:28:25.153136 11585 layer_factory.hpp:77] Creating layer h_pseudoloss
I0802 07:28:25.153146 11585 net.cpp:91] Creating Layer h_pseudoloss
I0802 07:28:25.153151 11585 net.cpp:425] h_pseudoloss <- h
I0802 07:28:25.153157 11585 net.cpp:399] h_pseudoloss -> h_pseudoloss
I0802 07:28:25.153244 11585 net.cpp:141] Setting up h_pseudoloss
…
