…
Java HotSpot(TM) 64-Bit Server VM warning: You have loaded library /tmp/cvld8230412023998816426/libopencv_java310.xine1.so which might have disabled stack guard. The VM will try to fix the stack guard now.
It's highly recommended that you fix the library with 'execstack -c <libfile>', or link it with '-z noexecstack'.
WARNING: Logging before InitGoogleLogging() is written to STDERR
I0730 09:45:32.719835 28240 net.cpp:49] Initializing net from parameters: 
name: "CaffeNet"
state {
  phase: TEST
}
layer {
  name: "data"
  type: "Input"
  top: "data"
  input_param {
    shape {
      dim: 10
      dim: 3
      dim: 227
      dim: 227
    }
  }
}
layer {
  name: "conv1"
  type: "Convolution"
  bottom: "data"
  top: "conv1"
  convolution_param {
    num_output: 96
    kernel_size: 11
    stride: 4
  }
}
layer {
  name: "relu1"
  type: "ReLU"
  bottom: "conv1"
  top: "conv1"
}
layer {
  name: "pool1"
  type: "Pooling"
  bottom: "conv1"
  top: "pool1"
  pooling_param {
    pool: MAX
    kernel_size: 3
    stride: 2
  }
}
layer {
  name: "norm1"
  type: "LRN"
  bottom: "pool1"
  top: "norm1"
  lrn_param {
    local_size: 5
    alpha: 0.0001
    beta: 0.75
  }
}
layer {
  name: "conv2"
  type: "Convolution"
  bottom: "norm1"
  top: "conv2"
  convolution_param {
    num_output: 256
    pad: 2
    kernel_size: 5
    group: 2
  }
}
layer {
  name: "relu2"
  type: "ReLU"
  bottom: "conv2"
  top: "conv2"
}
layer {
  name: "pool2"
  type: "Pooling"
  bottom: "conv2"
  top: "pool2"
  pooling_param {
    pool: MAX
    kernel_size: 3
    stride: 2
  }
}
layer {
  name: "norm2"
  type: "LRN"
  bottom: "pool2"
  top: "norm2"
  lrn_param {
    local_size: 5
    alpha: 0.0001
    beta: 0.75
  }
}
layer {
  name: "conv3"
  type: "Convolution"
  bottom: "norm2"
  top: "conv3"
  convolution_param {
    num_output: 384
    pad: 1
    kernel_size: 3
  }
}
layer {
  name: "relu3"
  type: "ReLU"
  bottom: "conv3"
  top: "conv3"
}
layer {
  name: "conv4"
  type: "Convolution"
  bottom: "conv3"
  top: "conv4"
  convolution_param {
    num_output: 384
    pad: 1
    kernel_size: 3
    group: 2
  }
}
layer {
  name: "relu4"
  type: "ReLU"
  bottom: "conv4"
  top: "conv4"
}
layer {
  name: "conv5"
  type: "Convolution"
  bottom: "conv4"
  top: "conv5"
  convolution_param {
    num_output: 256
    pad: 1
    kernel_size: 3
    group: 2
  }
}
layer {
  name: "relu5"
  type: "ReLU"
  bottom: "conv5"
  top: "conv5"
}
layer {
  name: "pool5"
  type: "Pooling"
  bottom: "conv5"
  top: "pool5"
  pooling_param {
    pool: MAX
    kernel_size: 3
    stride: 2
  }
}
layer {
  name: "fc6"
  type: "InnerProduct"
  bottom: "pool5"
  top: "fc6"
  inner_product_param {
    num_output: 4096
  }
}
layer {
  name: "relu6"
  type: "ReLU"
  bottom: "fc6"
  top: "fc6"
}
layer {
  name: "drop6"
  type: "Dropout"
  bottom: "fc6"
  top: "fc6"
  dropout_param {
    dropout_ratio: 0.5
  }
}
layer {
  name: "fc7"
  type: "InnerProduct"
  bottom: "fc6"
  top: "fc7"
  inner_product_param {
    num_output: 4096
  }
}
layer {
  name: "relu7"
  type: "ReLU"
  bottom: "fc7"
  top: "fc7"
}
layer {
  name: "drop7"
  type: "Dropout"
  bottom: "fc7"
  top: "fc7"
  dropout_param {
    dropout_ratio: 0.5
  }
}
layer {
  name: "fc8"
  type: "InnerProduct"
  bottom: "fc7"
  top: "fc8"
  inner_product_param {
    num_output: 1000
  }
}
layer {
  name: "prob"
  type: "Softmax"
  bottom: "fc8"
  top: "prob"
}
I0730 09:45:32.720022 28240 layer_factory.hpp:77] Creating layer data
I0730 09:45:32.720046 28240 net.cpp:91] Creating Layer data
I0730 09:45:32.720054 28240 net.cpp:399] data -> data
I0730 09:45:33.227663 28240 net.cpp:141] Setting up data
I0730 09:45:33.227754 28240 net.cpp:148] Top shape: 10 3 227 227 (1545870)
I0730 09:45:33.227761 28240 net.cpp:156] Memory required for data: 6183480
I0730 09:45:33.227778 28240 layer_factory.hpp:77] Creating layer conv1
I0730 09:45:33.227808 28240 net.cpp:91] Creating Layer conv1
I0730 09:45:33.227819 28240 net.cpp:425] conv1 <- data
I0730 09:45:33.227831 28240 net.cpp:399] conv1 -> conv1
I0730 09:45:33.464334 28240 net.cpp:141] Setting up conv1
I0730 09:45:33.464392 28240 net.cpp:148] Top shape: 10 96 55 55 (2904000)
I0730 09:45:33.464399 28240 net.cpp:156] Memory required for data: 17799480
I0730 09:45:33.464432 28240 layer_factory.hpp:77] Creating layer relu1
I0730 09:45:33.464453 28240 net.cpp:91] Creating Layer relu1
I0730 09:45:33.464462 28240 net.cpp:425] relu1 <- conv1
I0730 09:45:33.464470 28240 net.cpp:386] relu1 -> conv1 (in-place)
I0730 09:45:33.465240 28240 net.cpp:141] Setting up relu1
I0730 09:45:33.465255 28240 net.cpp:148] Top shape: 10 96 55 55 (2904000)
I0730 09:45:33.465260 28240 net.cpp:156] Memory required for data: 29415480
I0730 09:45:33.465266 28240 layer_factory.hpp:77] Creating layer pool1
I0730 09:45:33.465281 28240 net.cpp:91] Creating Layer pool1
I0730 09:45:33.465286 28240 net.cpp:425] pool1 <- conv1
I0730 09:45:33.465294 28240 net.cpp:399] pool1 -> pool1
I0730 09:45:33.465374 28240 net.cpp:141] Setting up pool1
I0730 09:45:33.465385 28240 net.cpp:148] Top shape: 10 96 27 27 (699840)
I0730 09:45:33.465390 28240 net.cpp:156] Memory required for data: 32214840
I0730 09:45:33.465395 28240 layer_factory.hpp:77] Creating layer norm1
I0730 09:45:33.465414 28240 net.cpp:91] Creating Layer norm1
I0730 09:45:33.465420 28240 net.cpp:425] norm1 <- pool1
I0730 09:45:33.465426 28240 net.cpp:399] norm1 -> norm1
I0730 09:45:33.466231 28240 net.cpp:141] Setting up norm1
I0730 09:45:33.466246 28240 net.cpp:148] Top shape: 10 96 27 27 (699840)
I0730 09:45:33.466251 28240 net.cpp:156] Memory required for data: 35014200
I0730 09:45:33.466258 28240 layer_factory.hpp:77] Creating layer conv2
I0730 09:45:33.466275 28240 net.cpp:91] Creating Layer conv2
I0730 09:45:33.466280 28240 net.cpp:425] conv2 <- norm1
I0730 09:45:33.466289 28240 net.cpp:399] conv2 -> conv2
I0730 09:45:33.471933 28240 net.cpp:141] Setting up conv2
I0730 09:45:33.471954 28240 net.cpp:148] Top shape: 10 256 27 27 (1866240)
I0730 09:45:33.471961 28240 net.cpp:156] Memory required for data: 42479160
I0730 09:45:33.471974 28240 layer_factory.hpp:77] Creating layer relu2
I0730 09:45:33.471987 28240 net.cpp:91] Creating Layer relu2
I0730 09:45:33.471993 28240 net.cpp:425] relu2 <- conv2
I0730 09:45:33.472002 28240 net.cpp:386] relu2 -> conv2 (in-place)
I0730 09:45:33.472795 28240 net.cpp:141] Setting up relu2
I0730 09:45:33.472812 28240 net.cpp:148] Top shape: 10 256 27 27 (1866240)
I0730 09:45:33.472818 28240 net.cpp:156] Memory required for data: 49944120
I0730 09:45:33.472823 28240 layer_factory.hpp:77] Creating layer pool2
I0730 09:45:33.472832 28240 net.cpp:91] Creating Layer pool2
I0730 09:45:33.472838 28240 net.cpp:425] pool2 <- conv2
I0730 09:45:33.472846 28240 net.cpp:399] pool2 -> pool2
I0730 09:45:33.472909 28240 net.cpp:141] Setting up pool2
I0730 09:45:33.472919 28240 net.cpp:148] Top shape: 10 256 13 13 (432640)
I0730 09:45:33.472923 28240 net.cpp:156] Memory required for data: 51674680
I0730 09:45:33.472929 28240 layer_factory.hpp:77] Creating layer norm2
I0730 09:45:33.472942 28240 net.cpp:91] Creating Layer norm2
I0730 09:45:33.472947 28240 net.cpp:425] norm2 <- pool2
I0730 09:45:33.472955 28240 net.cpp:399] norm2 -> norm2
I0730 09:45:33.473237 28240 net.cpp:141] Setting up norm2
I0730 09:45:33.473248 28240 net.cpp:148] Top shape: 10 256 13 13 (432640)
I0730 09:45:33.473253 28240 net.cpp:156] Memory required for data: 53405240
I0730 09:45:33.473259 28240 layer_factory.hpp:77] Creating layer conv3
I0730 09:45:33.473274 28240 net.cpp:91] Creating Layer conv3
I0730 09:45:33.473279 28240 net.cpp:425] conv3 <- norm2
I0730 09:45:33.473287 28240 net.cpp:399] conv3 -> conv3
I0730 09:45:33.478269 28240 net.cpp:141] Setting up conv3
I0730 09:45:33.478294 28240 net.cpp:148] Top shape: 10 384 13 13 (648960)
I0730 09:45:33.478301 28240 net.cpp:156] Memory required for data: 56001080
I0730 09:45:33.478314 28240 layer_factory.hpp:77] Creating layer relu3
I0730 09:45:33.478327 28240 net.cpp:91] Creating Layer relu3
I0730 09:45:33.478332 28240 net.cpp:425] relu3 <- conv3
I0730 09:45:33.478340 28240 net.cpp:386] relu3 -> conv3 (in-place)
I0730 09:45:33.479131 28240 net.cpp:141] Setting up relu3
I0730 09:45:33.479146 28240 net.cpp:148] Top shape: 10 384 13 13 (648960)
I0730 09:45:33.479151 28240 net.cpp:156] Memory required for data: 58596920
I0730 09:45:33.479156 28240 layer_factory.hpp:77] Creating layer conv4
I0730 09:45:33.479171 28240 net.cpp:91] Creating Layer conv4
I0730 09:45:33.479177 28240 net.cpp:425] conv4 <- conv3
I0730 09:45:33.479188 28240 net.cpp:399] conv4 -> conv4
I0730 09:45:33.485537 28240 net.cpp:141] Setting up conv4
I0730 09:45:33.485560 28240 net.cpp:148] Top shape: 10 384 13 13 (648960)
I0730 09:45:33.485566 28240 net.cpp:156] Memory required for data: 61192760
I0730 09:45:33.485576 28240 layer_factory.hpp:77] Creating layer relu4
I0730 09:45:33.485591 28240 net.cpp:91] Creating Layer relu4
I0730 09:45:33.485597 28240 net.cpp:425] relu4 <- conv4
I0730 09:45:33.485605 28240 net.cpp:386] relu4 -> conv4 (in-place)
I0730 09:45:33.486402 28240 net.cpp:141] Setting up relu4
I0730 09:45:33.486418 28240 net.cpp:148] Top shape: 10 384 13 13 (648960)
I0730 09:45:33.486423 28240 net.cpp:156] Memory required for data: 63788600
I0730 09:45:33.486428 28240 layer_factory.hpp:77] Creating layer conv5
I0730 09:45:33.486443 28240 net.cpp:91] Creating Layer conv5
I0730 09:45:33.486451 28240 net.cpp:425] conv5 <- conv4
I0730 09:45:33.486459 28240 net.cpp:399] conv5 -> conv5
I0730 09:45:33.492354 28240 net.cpp:141] Setting up conv5
I0730 09:45:33.492386 28240 net.cpp:148] Top shape: 10 256 13 13 (432640)
I0730 09:45:33.492394 28240 net.cpp:156] Memory required for data: 65519160
I0730 09:45:33.492451 28240 layer_factory.hpp:77] Creating layer relu5
I0730 09:45:33.492502 28240 net.cpp:91] Creating Layer relu5
I0730 09:45:33.492511 28240 net.cpp:425] relu5 <- conv5
I0730 09:45:33.492522 28240 net.cpp:386] relu5 -> conv5 (in-place)
I0730 09:45:33.494372 28240 net.cpp:141] Setting up relu5
I0730 09:45:33.494415 28240 net.cpp:148] Top shape: 10 256 13 13 (432640)
I0730 09:45:33.494424 28240 net.cpp:156] Memory required for data: 67249720
I0730 09:45:33.494437 28240 layer_factory.hpp:77] Creating layer pool5
I0730 09:45:33.494462 28240 net.cpp:91] Creating Layer pool5
I0730 09:45:33.494472 28240 net.cpp:425] pool5 <- conv5
I0730 09:45:33.494488 28240 net.cpp:399] pool5 -> pool5
I0730 09:45:33.494635 28240 net.cpp:141] Setting up pool5
I0730 09:45:33.494653 28240 net.cpp:148] Top shape: 10 256 6 6 (92160)
I0730 09:45:33.494662 28240 net.cpp:156] Memory required for data: 67618360
I0730 09:45:33.494670 28240 layer_factory.hpp:77] Creating layer fc6
I0730 09:45:33.494751 28240 net.cpp:91] Creating Layer fc6
I0730 09:45:33.494760 28240 net.cpp:425] fc6 <- pool5
I0730 09:45:33.494766 28240 net.cpp:399] fc6 -> fc6
I0730 09:45:33.558058 28230 upgrade_proto.cpp:66] Attempting to upgrade input file specified using deprecated input fields: /tmp/cvld8230412023998816426/s2vt.words_to_preds.prototxt
I0730 09:45:33.558123 28230 upgrade_proto.cpp:69] Successfully upgraded file specified using deprecated input fields.
W0730 09:45:33.558137 28230 upgrade_proto.cpp:71] Note that future Caffe releases will only support input layers and not input fields.
I0730 09:45:33.558511 28230 net.cpp:49] Initializing net from parameters: 
name: "s2vt:features_to_lstm"
state {
  phase: TEST
}
layer {
  name: "input"
  type: "Input"
  top: "frames_fc7"
  top: "cont_sentence"
  top: "input_sentence"
  top: "stage_indicator"
  input_param {
    shape {
      dim: 1
      dim: 4096
    }
    shape {
      dim: 1
      dim: 1
    }
    shape {
      dim: 1
      dim: 1
    }
    shape {
      dim: 1
      dim: 1
    }
  }
}
layer {
  name: "embed_encoder"
  type: "InnerProduct"
  bottom: "frames_fc7"
  top: "embedded_in_frames"
  param {
    lr_mult: 1
    decay_mult: 1
  }
  param {
    lr_mult: 2
    decay_mult: 0
  }
  inner_product_param {
    num_output: 500
    weight_filler {
      type: "xavier"
    }
    bias_filler {
      type: "constant"
      value: 0.2
    }
  }
}
layer {
  name: "reshape_frames"
  type: "Reshape"
  bottom: "embedded_in_frames"
  top: "embedded_input_frames"
  reshape_param {
    shape {
      dim: 1
      dim: 1
      dim: 500
    }
  }
}
layer {
  name: "reshape_stage_indicator"
  type: "Reshape"
  bottom: "stage_indicator"
  top: "reshaped_stage_indicator"
  reshape_param {
    shape {
      dim: 1
      dim: 1
      dim: 1
    }
  }
}
layer {
  name: "embedding"
  type: "Embed"
  bottom: "input_sentence"
  top: "embedded_input_sentence"
  param {
    lr_mult: 1
  }
  embed_param {
    num_output: 500
    input_dim: 46168
    bias_term: false
    weight_filler {
      type: "uniform"
      min: -0.08
      max: 0.08
    }
  }
}
layer {
  name: "lstm1"
  type: "LSTM"
  bottom: "embedded_input_frames"
  bottom: "cont_sentence"
  top: "lstm1"
  recurrent_param {
    num_output: 1000
    weight_filler {
      type: "uniform"
      min: -0.08
      max: 0.08
    }
    bias_filler {
      type: "constant"
      value: 0
    }
  }
}
layer {
  name: "concat"
  type: "Concat"
  bottom: "lstm1"
  bottom: "embedded_input_sentence"
  bottom: "reshaped_stage_indicator"
  top: "lstm1_video_sequence"
  concat_param {
    concat_dim: 2
  }
}
layer {
  name: "lstm2"
  type: "LSTM"
  bottom: "lstm1_video_sequence"
  bottom: "cont_sentence"
  top: "lstm2"
  recurrent_param {
    num_output: 1000
    weight_filler {
      type: "uniform"
      min: -0.08
      max: 0.08
    }
    bias_filler {
      type: "constant"
      value: 0
    }
  }
}
layer {
  name: "predict"
  type: "InnerProduct"
  bottom: "lstm2"
  top: "predict"
  param {
    lr_mult: 1
    decay_mult: 1
  }
  param {
    lr_mult: 2
    decay_mult: 0
  }
  inner_product_param {
    num_output: 46168
    weight_filler {
      type: "uniform"
      min: -0.08
      max: 0.08
    }
    bias_filler {
      type: "constant"
      value: 0
    }
    axis: 2
  }
}
layer {
  name: "probs"
  type: "Softmax"
  bottom: "predict"
  top: "probs"
  softmax_param {
    axis: 2
  }
}
I0730 09:45:33.558624 28230 layer_factory.hpp:77] Creating layer input
I0730 09:45:33.558658 28230 net.cpp:91] Creating Layer input
I0730 09:45:33.558672 28230 net.cpp:399] input -> frames_fc7
I0730 09:45:33.558732 28230 net.cpp:399] input -> cont_sentence
I0730 09:45:33.558765 28230 net.cpp:399] input -> input_sentence
I0730 09:45:33.558785 28230 net.cpp:399] input -> stage_indicator
I0730 09:45:33.558931 28230 net.cpp:141] Setting up input
I0730 09:45:33.558948 28230 net.cpp:148] Top shape: 1 4096 (4096)
I0730 09:45:33.558957 28230 net.cpp:148] Top shape: 1 1 (1)
I0730 09:45:33.558964 28230 net.cpp:148] Top shape: 1 1 (1)
I0730 09:45:33.558972 28230 net.cpp:148] Top shape: 1 1 (1)
I0730 09:45:33.558979 28230 net.cpp:156] Memory required for data: 16396
I0730 09:45:33.558985 28230 layer_factory.hpp:77] Creating layer cont_sentence_input_1_split
I0730 09:45:33.559007 28230 net.cpp:91] Creating Layer cont_sentence_input_1_split
I0730 09:45:33.559015 28230 net.cpp:425] cont_sentence_input_1_split <- cont_sentence
I0730 09:45:33.559042 28230 net.cpp:399] cont_sentence_input_1_split -> cont_sentence_input_1_split_0
I0730 09:45:33.559056 28230 net.cpp:399] cont_sentence_input_1_split -> cont_sentence_input_1_split_1
I0730 09:45:33.559144 28230 net.cpp:141] Setting up cont_sentence_input_1_split
I0730 09:45:33.559156 28230 net.cpp:148] Top shape: 1 1 (1)
I0730 09:45:33.559165 28230 net.cpp:148] Top shape: 1 1 (1)
I0730 09:45:33.559170 28230 net.cpp:156] Memory required for data: 16404
I0730 09:45:33.559176 28230 layer_factory.hpp:77] Creating layer embed_encoder
I0730 09:45:33.559192 28230 net.cpp:91] Creating Layer embed_encoder
I0730 09:45:33.559200 28230 net.cpp:425] embed_encoder <- frames_fc7
I0730 09:45:33.559211 28230 net.cpp:399] embed_encoder -> embedded_in_frames
I0730 09:45:33.584076 28230 net.cpp:141] Setting up embed_encoder
I0730 09:45:33.584120 28230 net.cpp:148] Top shape: 1 500 (500)
I0730 09:45:33.584126 28230 net.cpp:156] Memory required for data: 18404
I0730 09:45:33.584161 28230 layer_factory.hpp:77] Creating layer reshape_frames
I0730 09:45:33.584182 28230 net.cpp:91] Creating Layer reshape_frames
I0730 09:45:33.584189 28230 net.cpp:425] reshape_frames <- embedded_in_frames
I0730 09:45:33.584202 28230 net.cpp:399] reshape_frames -> embedded_input_frames
I0730 09:45:33.584259 28230 net.cpp:141] Setting up reshape_frames
I0730 09:45:33.584270 28230 net.cpp:148] Top shape: 1 1 500 (500)
I0730 09:45:33.584273 28230 net.cpp:156] Memory required for data: 20404
I0730 09:45:33.584278 28230 layer_factory.hpp:77] Creating layer reshape_stage_indicator
I0730 09:45:33.584290 28230 net.cpp:91] Creating Layer reshape_stage_indicator
I0730 09:45:33.584296 28230 net.cpp:425] reshape_stage_indicator <- stage_indicator
I0730 09:45:33.584306 28230 net.cpp:399] reshape_stage_indicator -> reshaped_stage_indicator
I0730 09:45:33.584347 28230 net.cpp:141] Setting up reshape_stage_indicator
I0730 09:45:33.584357 28230 net.cpp:148] Top shape: 1 1 1 (1)
I0730 09:45:33.584362 28230 net.cpp:156] Memory required for data: 20408
I0730 09:45:33.584367 28230 layer_factory.hpp:77] Creating layer embedding
I0730 09:45:33.584381 28230 net.cpp:91] Creating Layer embedding
I0730 09:45:33.584388 28230 net.cpp:425] embedding <- input_sentence
I0730 09:45:33.584395 28230 net.cpp:399] embedding -> embedded_input_sentence
I0730 09:45:33.629422 28240 net.cpp:141] Setting up fc6
I0730 09:45:33.629483 28240 net.cpp:148] Top shape: 10 4096 (40960)
I0730 09:45:33.629489 28240 net.cpp:156] Memory required for data: 67782200
I0730 09:45:33.629503 28240 layer_factory.hpp:77] Creating layer relu6
I0730 09:45:33.629515 28240 net.cpp:91] Creating Layer relu6
I0730 09:45:33.629521 28240 net.cpp:425] relu6 <- fc6
I0730 09:45:33.629531 28240 net.cpp:386] relu6 -> fc6 (in-place)
I0730 09:45:33.629848 28240 net.cpp:141] Setting up relu6
I0730 09:45:33.629858 28240 net.cpp:148] Top shape: 10 4096 (40960)
I0730 09:45:33.629863 28240 net.cpp:156] Memory required for data: 67946040
I0730 09:45:33.629868 28240 layer_factory.hpp:77] Creating layer drop6
I0730 09:45:33.629889 28240 net.cpp:91] Creating Layer drop6
I0730 09:45:33.629894 28240 net.cpp:425] drop6 <- fc6
I0730 09:45:33.629899 28240 net.cpp:386] drop6 -> fc6 (in-place)
I0730 09:45:33.629946 28240 net.cpp:141] Setting up drop6
I0730 09:45:33.629954 28240 net.cpp:148] Top shape: 10 4096 (40960)
I0730 09:45:33.629958 28240 net.cpp:156] Memory required for data: 68109880
I0730 09:45:33.629962 28240 layer_factory.hpp:77] Creating layer fc7
I0730 09:45:33.629971 28240 net.cpp:91] Creating Layer fc7
I0730 09:45:33.629976 28240 net.cpp:425] fc7 <- fc6
I0730 09:45:33.629987 28240 net.cpp:399] fc7 -> fc7
I0730 09:45:33.696202 28240 net.cpp:141] Setting up fc7
I0730 09:45:33.696259 28240 net.cpp:148] Top shape: 10 4096 (40960)
I0730 09:45:33.696265 28240 net.cpp:156] Memory required for data: 68273720
I0730 09:45:33.696282 28240 layer_factory.hpp:77] Creating layer relu7
I0730 09:45:33.696303 28240 net.cpp:91] Creating Layer relu7
I0730 09:45:33.696311 28240 net.cpp:425] relu7 <- fc7
I0730 09:45:33.696322 28240 net.cpp:386] relu7 -> fc7 (in-place)
I0730 09:45:33.698045 28240 net.cpp:141] Setting up relu7
I0730 09:45:33.698070 28240 net.cpp:148] Top shape: 10 4096 (40960)
I0730 09:45:33.698076 28240 net.cpp:156] Memory required for data: 68437560
I0730 09:45:33.698082 28240 layer_factory.hpp:77] Creating layer drop7
I0730 09:45:33.698096 28240 net.cpp:91] Creating Layer drop7
I0730 09:45:33.698101 28240 net.cpp:425] drop7 <- fc7
I0730 09:45:33.698109 28240 net.cpp:386] drop7 -> fc7 (in-place)
I0730 09:45:33.698168 28240 net.cpp:141] Setting up drop7
I0730 09:45:33.698180 28240 net.cpp:148] Top shape: 10 4096 (40960)
I0730 09:45:33.698185 28240 net.cpp:156] Memory required for data: 68601400
I0730 09:45:33.698191 28240 layer_factory.hpp:77] Creating layer fc8
I0730 09:45:33.698204 28240 net.cpp:91] Creating Layer fc8
I0730 09:45:33.698210 28240 net.cpp:425] fc8 <- fc7
I0730 09:45:33.698221 28240 net.cpp:399] fc8 -> fc8
I0730 09:45:33.712669 28240 net.cpp:141] Setting up fc8
I0730 09:45:33.712723 28240 net.cpp:148] Top shape: 10 1000 (10000)
I0730 09:45:33.712729 28240 net.cpp:156] Memory required for data: 68641400
I0730 09:45:33.712745 28240 layer_factory.hpp:77] Creating layer prob
I0730 09:45:33.712770 28240 net.cpp:91] Creating Layer prob
I0730 09:45:33.712779 28240 net.cpp:425] prob <- fc8
I0730 09:45:33.712790 28240 net.cpp:399] prob -> prob
I0730 09:45:33.713290 28240 net.cpp:141] Setting up prob
I0730 09:45:33.713309 28240 net.cpp:148] Top shape: 10 1000 (10000)
I0730 09:45:33.713315 28240 net.cpp:156] Memory required for data: 68681400
I0730 09:45:33.713320 28240 net.cpp:219] prob does not need backward computation.
I0730 09:45:33.713326 28240 net.cpp:219] fc8 does not need backward computation.
I0730 09:45:33.713331 28240 net.cpp:219] drop7 does not need backward computation.
I0730 09:45:33.713336 28240 net.cpp:219] relu7 does not need backward computation.
…
I0730 09:45:33.713418 28240 net.cpp:219] norm1 does not need backward computation.
I0730 09:45:33.713424 28240 net.cpp:219] pool1 does not need backward computation.
I0730 09:45:33.713429 28240 net.cpp:219] relu1 does not need backward computation.
I0730 09:45:33.713434 28240 net.cpp:219] conv1 does not need backward computation.
I0730 09:45:33.713439 28240 net.cpp:219] data does not need backward computation.
I0730 09:45:33.713443 28240 net.cpp:261] This network produces output prob
I0730 09:45:33.713470 28240 net.cpp:274] Network initialization done.
I0730 09:45:33.828223 28230 net.cpp:141] Setting up embedding
I0730 09:45:33.828290 28230 net.cpp:148] Top shape: 1 1 500 (500)
I0730 09:45:33.828296 28230 net.cpp:156] Memory required for data: 22408
I0730 09:45:33.828315 28230 layer_factory.hpp:77] Creating layer lstm1
I0730 09:45:33.828341 28230 net.cpp:91] Creating Layer lstm1
I0730 09:45:33.828351 28230 net.cpp:425] lstm1 <- embedded_input_frames
I0730 09:45:33.828361 28230 net.cpp:425] lstm1 <- cont_sentence_input_1_split_0
I0730 09:45:33.828373 28230 net.cpp:399] lstm1 -> lstm1
I0730 09:45:33.828418 28230 recurrent_layer.cpp:20] Initializing recurrent layer: assuming input batch contains 1 timesteps of 1 independent streams.
I0730 09:45:33.828824 28230 net.cpp:49] Initializing net from parameters: 
layer {
  name: "lstm1_"
  type: "Input"
  top: "x"
  top: "cont"
  input_param {
    shape {
      dim: 1
      dim: 1
      dim: 500
    }
    shape {
      dim: 1
      dim: 1
    }
  }
}
layer {
  name: "lstm1_"
  type: "Input"
  top: "c_0"
  top: "h_0"
  input_param {
    shape {
      dim: 1
      dim: 1
      dim: 1000
    }
    shape {
      dim: 1
      dim: 1
      dim: 1000
    }
  }
}
layer {
  name: "lstm1_cont_slice"
  type: "Slice"
  bottom: "cont"
  top: "cont_1"
  slice_param {
    axis: 0
  }
}
layer {
  name: "lstm1_x_transform"
  type: "InnerProduct"
  bottom: "x"
  top: "W_xc_x"
  param {
    name: "W_xc"
  }
  param {
    name: "b_c"
  }
  propagate_down: true
  inner_product_param {
    num_output: 4000
    bias_term: true
    weight_filler {
      type: "uniform"
      min: -0.08
      max: 0.08
    }
    bias_filler {
      type: "constant"
      value: 0
    }
    axis: 2
  }
}
layer {
  name: "lstm1_W_xc_x_slice"
  type: "Slice"
  bottom: "W_xc_x"
  top: "W_xc_x_1"
  slice_param {
    axis: 0
  }
}
layer {
  name: "lstm1_h_conted_0"
  type: "Scale"
  bottom: "h_0"
  bottom: "cont_1"
  top: "h_conted_0"
  scale_param {
    axis: 0
  }
}
layer {
  name: "lstm1_transform_1"
  type: "InnerProduct"
  bottom: "h_conted_0"
  top: "W_hc_h_0"
  param {
    name: "W_hc"
  }
  inner_product_param {
    num_output: 4000
    bias_term: false
    weight_filler {
      type: "uniform"
      min: -0.08
      max: 0.08
    }
    axis: 2
  }
}
layer {
  name: "lstm1_gate_input_1"
  type: "Eltwise"
  bottom: "W_hc_h_0"
  bottom: "W_xc_x_1"
  top: "gate_input_1"
  eltwise_param {
    operation: SUM
  }
}
layer {
  name: "lstm1_unit_1"
  type: "LSTMUnit"
  bottom: "c_0"
  bottom: "gate_input_1"
  bottom: "cont_1"
  top: "c_1"
  top: "h_1"
}
layer {
  name: "lstm1_"
  type: "Split"
  bottom: "c_1"
  top: "c_T"
}
layer {
  name: "lstm1_h_concat"
  type: "Concat"
  bottom: "h_1"
  top: "h"
  concat_param {
    axis: 0
  }
}
layer {
  name: "h_pseudoloss"
  type: "Reduction"
  bottom: "h"
  top: "h_pseudoloss"
  loss_weight: 1
}
I0730 09:45:33.828927 28230 layer_factory.hpp:77] Creating layer lstm1_
I0730 09:45:33.828941 28230 net.cpp:91] Creating Layer lstm1_
I0730 09:45:33.828948 28230 net.cpp:399] lstm1_ -> x
I0730 09:45:33.828961 28230 net.cpp:399] lstm1_ -> cont
I0730 09:45:33.829031 28230 net.cpp:141] Setting up lstm1_
I0730 09:45:33.829041 28230 net.cpp:148] Top shape: 1 1 500 (500)
I0730 09:45:33.829048 28230 net.cpp:148] Top shape: 1 1 (1)
I0730 09:45:33.829052 28230 net.cpp:156] Memory required for data: 2004
I0730 09:45:33.829057 28230 layer_factory.hpp:77] Creating layer lstm1_
I0730 09:45:33.829071 28230 net.cpp:91] Creating Layer lstm1_
I0730 09:45:33.829079 28230 net.cpp:399] lstm1_ -> c_0
I0730 09:45:33.829089 28230 net.cpp:399] lstm1_ -> h_0
I0730 09:45:33.829144 28230 net.cpp:141] Setting up lstm1_
I0730 09:45:33.829154 28230 net.cpp:148] Top shape: 1 1 1000 (1000)
I0730 09:45:33.829159 28230 net.cpp:148] Top shape: 1 1 1000 (1000)
I0730 09:45:33.829164 28230 net.cpp:156] Memory required for data: 10004
I0730 09:45:33.829169 28230 layer_factory.hpp:77] Creating layer lstm1_cont_slice
I0730 09:45:33.829180 28230 net.cpp:91] Creating Layer lstm1_cont_slice
I0730 09:45:33.829186 28230 net.cpp:425] lstm1_cont_slice <- cont
I0730 09:45:33.829193 28230 net.cpp:399] lstm1_cont_slice -> cont_1
I0730 09:45:33.829233 28230 net.cpp:141] Setting up lstm1_cont_slice
I0730 09:45:33.829243 28230 net.cpp:148] Top shape: 1 1 (1)
I0730 09:45:33.829248 28230 net.cpp:156] Memory required for data: 10008
I0730 09:45:33.829253 28230 layer_factory.hpp:77] Creating layer cont_1_lstm1_cont_slice_0_split
I0730 09:45:33.829262 28230 net.cpp:91] Creating Layer cont_1_lstm1_cont_slice_0_split
I0730 09:45:33.829265 28230 net.cpp:425] cont_1_lstm1_cont_slice_0_split <- cont_1
I0730 09:45:33.829275 28230 net.cpp:399] cont_1_lstm1_cont_slice_0_split -> cont_1_lstm1_cont_slice_0_split_0
I0730 09:45:33.829284 28230 net.cpp:399] cont_1_lstm1_cont_slice_0_split -> cont_1_lstm1_cont_slice_0_split_1
I0730 09:45:33.829334 28230 net.cpp:141] Setting up cont_1_lstm1_cont_slice_0_split
I0730 09:45:33.829345 28230 net.cpp:148] Top shape: 1 1 (1)
I0730 09:45:33.829351 28230 net.cpp:148] Top shape: 1 1 (1)
I0730 09:45:33.829356 28230 net.cpp:156] Memory required for data: 10016
I0730 09:45:33.829360 28230 layer_factory.hpp:77] Creating layer lstm1_x_transform
I0730 09:45:33.829370 28230 net.cpp:91] Creating Layer lstm1_x_transform
I0730 09:45:33.829375 28230 net.cpp:425] lstm1_x_transform <- x
I0730 09:45:33.829386 28230 net.cpp:399] lstm1_x_transform -> W_xc_x
I0730 09:45:33.851438 28230 net.cpp:141] Setting up lstm1_x_transform
I0730 09:45:33.851465 28230 net.cpp:148] Top shape: 1 1 4000 (4000)
I0730 09:45:33.851470 28230 net.cpp:156] Memory required for data: 26016
I0730 09:45:33.851485 28230 layer_factory.hpp:77] Creating layer lstm1_W_xc_x_slice
I0730 09:45:33.851495 28230 net.cpp:91] Creating Layer lstm1_W_xc_x_slice
I0730 09:45:33.851501 28230 net.cpp:425] lstm1_W_xc_x_slice <- W_xc_x
I0730 09:45:33.851508 28230 net.cpp:399] lstm1_W_xc_x_slice -> W_xc_x_1
I0730 09:45:33.851553 28230 net.cpp:141] Setting up lstm1_W_xc_x_slice
I0730 09:45:33.851564 28230 net.cpp:148] Top shape: 1 1 4000 (4000)
I0730 09:45:33.851568 28230 net.cpp:156] Memory required for data: 42016
I0730 09:45:33.851573 28230 layer_factory.hpp:77] Creating layer lstm1_h_conted_0
I0730 09:45:33.851583 28230 net.cpp:91] Creating Layer lstm1_h_conted_0
I0730 09:45:33.851588 28230 net.cpp:425] lstm1_h_conted_0 <- h_0
I0730 09:45:33.851594 28230 net.cpp:425] lstm1_h_conted_0 <- cont_1_lstm1_cont_slice_0_split_0
I0730 09:45:33.851601 28230 net.cpp:399] lstm1_h_conted_0 -> h_conted_0
I0730 09:45:33.851706 28230 net.cpp:141] Setting up lstm1_h_conted_0
I0730 09:45:33.851716 28230 net.cpp:148] Top shape: 1 1 1000 (1000)
I0730 09:45:33.851721 28230 net.cpp:156] Memory required for data: 46016
I0730 09:45:33.851725 28230 layer_factory.hpp:77] Creating layer lstm1_transform_1
I0730 09:45:33.851734 28230 net.cpp:91] Creating Layer lstm1_transform_1
I0730 09:45:33.851740 28230 net.cpp:425] lstm1_transform_1 <- h_conted_0
I0730 09:45:33.851748 28230 net.cpp:399] lstm1_transform_1 -> W_hc_h_0
I0730 09:45:33.894836 28230 net.cpp:141] Setting up lstm1_transform_1
I0730 09:45:33.894904 28230 net.cpp:148] Top shape: 1 1 4000 (4000)
I0730 09:45:33.894911 28230 net.cpp:156] Memory required for data: 62016
I0730 09:45:33.894933 28230 layer_factory.hpp:77] Creating layer lstm1_gate_input_1
I0730 09:45:33.894956 28230 net.cpp:91] Creating Layer lstm1_gate_input_1
I0730 09:45:33.894964 28230 net.cpp:425] lstm1_gate_input_1 <- W_hc_h_0
I0730 09:45:33.894975 28230 net.cpp:425] lstm1_gate_input_1 <- W_xc_x_1
I0730 09:45:33.894984 28230 net.cpp:399] lstm1_gate_input_1 -> gate_input_1
I0730 09:45:33.895051 28230 net.cpp:141] Setting up lstm1_gate_input_1
I0730 09:45:33.895061 28230 net.cpp:148] Top shape: 1 1 4000 (4000)
I0730 09:45:33.895066 28230 net.cpp:156] Memory required for data: 78016
I0730 09:45:33.895069 28230 layer_factory.hpp:77] Creating layer lstm1_unit_1
I0730 09:45:33.895082 28230 net.cpp:91] Creating Layer lstm1_unit_1
I0730 09:45:33.895087 28230 net.cpp:425] lstm1_unit_1 <- c_0
I0730 09:45:33.895093 28230 net.cpp:425] lstm1_unit_1 <- gate_input_1
I0730 09:45:33.895099 28230 net.cpp:425] lstm1_unit_1 <- cont_1_lstm1_cont_slice_0_split_1
I0730 09:45:33.895107 28230 net.cpp:399] lstm1_unit_1 -> c_1
I0730 09:45:33.895115 28230 net.cpp:399] lstm1_unit_1 -> h_1
I0730 09:45:33.895184 28230 net.cpp:141] Setting up lstm1_unit_1
I0730 09:45:33.895192 28230 net.cpp:148] Top shape: 1 1 1000 (1000)
I0730 09:45:33.895198 28230 net.cpp:148] Top shape: 1 1 1000 (1000)
I0730 09:45:33.895202 28230 net.cpp:156] Memory required for data: 86016
I0730 09:45:33.895207 28230 layer_factory.hpp:77] Creating layer lstm1_
I0730 09:45:33.895216 28230 net.cpp:91] Creating Layer lstm1_
I0730 09:45:33.895221 28230 net.cpp:425] lstm1_ <- c_1
I0730 09:45:33.895228 28230 net.cpp:399] lstm1_ -> c_T
I0730 09:45:33.895261 28230 net.cpp:141] Setting up lstm1_
I0730 09:45:33.895268 28230 net.cpp:148] Top shape: 1 1 1000 (1000)
I0730 09:45:33.895273 28230 net.cpp:156] Memory required for data: 90016
I0730 09:45:33.895278 28230 layer_factory.hpp:77] Creating layer lstm1_h_concat
I0730 09:45:33.895292 28230 net.cpp:91] Creating Layer lstm1_h_concat
I0730 09:45:33.895297 28230 net.cpp:425] lstm1_h_concat <- h_1
I0730 09:45:33.895304 28230 net.cpp:399] lstm1_h_concat -> h
I0730 09:45:33.895355 28230 net.cpp:141] Setting up lstm1_h_concat
I0730 09:45:33.895365 28230 net.cpp:148] Top shape: 1 1 1000 (1000)
I0730 09:45:33.895370 28230 net.cpp:156] Memory required for data: 94016
I0730 09:45:33.895375 28230 layer_factory.hpp:77] Creating layer h_pseudoloss
I0730 09:45:33.895391 28230 net.cpp:91] Creating Layer h_pseudoloss
I0730 09:45:33.895396 28230 net.cpp:425] h_pseudoloss <- h
I0730 09:45:33.895406 28230 net.cpp:399] h_pseudoloss -> h_pseudoloss
I0730 09:45:33.895506 28230 net.cpp:141] Setting up h_pseudoloss
…
I0730 09:45:33.895635 28230 net.cpp:219] lstm1_ does not need backward computation.
I0730 09:45:33.895639 28230 net.cpp:261] This network produces output c_T
I0730 09:45:33.895643 28230 net.cpp:261] This network produces output h_pseudoloss
I0730 09:45:33.895661 28230 net.cpp:274] Network initialization done.
I0730 09:45:33.895721 28230 recurrent_layer.cpp:150] Adding parameter 0: W_xc
I0730 09:45:33.895728 28230 recurrent_layer.cpp:150] Adding parameter 1: b_c
I0730 09:45:33.895732 28230 recurrent_layer.cpp:150] Adding parameter 2: W_hc
I0730 09:45:33.895856 28230 net.cpp:141] Setting up lstm1
I0730 09:45:33.895869 28230 net.cpp:148] Top shape: 1 1 1000 (1000)
I0730 09:45:33.895874 28230 net.cpp:156] Memory required for data: 26408
I0730 09:45:33.895887 28230 layer_factory.hpp:77] Creating layer concat
I0730 09:45:33.895896 28230 net.cpp:91] Creating Layer concat
I0730 09:45:33.895902 28230 net.cpp:425] concat <- lstm1
I0730 09:45:33.895910 28230 net.cpp:425] concat <- embedded_input_sentence
I0730 09:45:33.895915 28230 net.cpp:425] concat <- reshaped_stage_indicator
I0730 09:45:33.895922 28230 net.cpp:399] concat -> lstm1_video_sequence
I0730 09:45:33.895958 28230 net.cpp:141] Setting up concat
I0730 09:45:33.895968 28230 net.cpp:148] Top shape: 1 1 1501 (1501)
I0730 09:45:33.895972 28230 net.cpp:156] Memory required for data: 32412
I0730 09:45:33.895977 28230 layer_factory.hpp:77] Creating layer lstm2
I0730 09:45:33.895990 28230 net.cpp:91] Creating Layer lstm2
I0730 09:45:33.895995 28230 net.cpp:425] lstm2 <- lstm1_video_sequence
I0730 09:45:33.896005 28230 net.cpp:425] lstm2 <- cont_sentence_input_1_split_1
I0730 09:45:33.896014 28230 net.cpp:399] lstm2 -> lstm2
I0730 09:45:33.896025 28230 recurrent_layer.cpp:20] Initializing recurrent layer: assuming input batch contains 1 timesteps of 1 independent streams.
I0730 09:45:33.896311 28230 net.cpp:49] Initializing net from parameters: 
layer {
  name: "lstm2_"
  type: "Input"
  top: "x"
  top: "cont"
  input_param {
    shape {
      dim: 1
      dim: 1
      dim: 1501
    }
    shape {
      dim: 1
      dim: 1
    }
  }
}
layer {
  name: "lstm2_"
  type: "Input"
  top: "c_0"
  top: "h_0"
  input_param {
    shape {
      dim: 1
      dim: 1
      dim: 1000
    }
    shape {
      dim: 1
      dim: 1
      dim: 1000
    }
  }
}
layer {
  name: "lstm2_cont_slice"
  type: "Slice"
  bottom: "cont"
  top: "cont_1"
  slice_param {
    axis: 0
  }
}
layer {
  name: "lstm2_x_transform"
  type: "InnerProduct"
  bottom: "x"
  top: "W_xc_x"
  param {
    name: "W_xc"
  }
  param {
    name: "b_c"
  }
  propagate_down: true
  inner_product_param {
    num_output: 4000
    bias_term: true
    weight_filler {
      type: "uniform"
      min: -0.08
      max: 0.08
    }
    bias_filler {
      type: "constant"
      value: 0
    }
    axis: 2
  }
}
layer {
  name: "lstm2_W_xc_x_slice"
  type: "Slice"
  bottom: "W_xc_x"
  top: "W_xc_x_1"
  slice_param {
    axis: 0
  }
}
layer {
  name: "lstm2_h_conted_0"
  type: "Scale"
  bottom: "h_0"
  bottom: "cont_1"
  top: "h_conted_0"
  scale_param {
    axis: 0
  }
}
layer {
  name: "lstm2_transform_1"
  type: "InnerProduct"
  bottom: "h_conted_0"
  top: "W_hc_h_0"
  param {
    name: "W_hc"
  }
  inner_product_param {
    num_output: 4000
    bias_term: false
    weight_filler {
      type: "uniform"
      min: -0.08
      max: 0.08
    }
    axis: 2
  }
}
layer {
  name: "lstm2_gate_input_1"
  type: "Eltwise"
  bottom: "W_hc_h_0"
  bottom: "W_xc_x_1"
  top: "gate_input_1"
  eltwise_param {
    operation: SUM
  }
}
layer {
  name: "lstm2_unit_1"
  type: "LSTMUnit"
  bottom: "c_0"
  bottom: "gate_input_1"
  bottom: "cont_1"
  top: "c_1"
  top: "h_1"
}
layer {
  name: "lstm2_"
  type: "Split"
  bottom: "c_1"
  top: "c_T"
}
layer {
  name: "lstm2_h_concat"
  type: "Concat"
  bottom: "h_1"
  top: "h"
  concat_param {
    axis: 0
  }
}
layer {
  name: "h_pseudoloss"
  type: "Reduction"
  bottom: "h"
  top: "h_pseudoloss"
  loss_weight: 1
}
I0730 09:45:33.896409 28230 layer_factory.hpp:77] Creating layer lstm2_
I0730 09:45:33.896423 28230 net.cpp:91] Creating Layer lstm2_
I0730 09:45:33.896430 28230 net.cpp:399] lstm2_ -> x
I0730 09:45:33.896440 28230 net.cpp:399] lstm2_ -> cont
I0730 09:45:33.896500 28230 net.cpp:141] Setting up lstm2_
I0730 09:45:33.896509 28230 net.cpp:148] Top shape: 1 1 1501 (1501)
I0730 09:45:33.896517 28230 net.cpp:148] Top shape: 1 1 (1)
I0730 09:45:33.896520 28230 net.cpp:156] Memory required for data: 6008
I0730 09:45:33.896525 28230 layer_factory.hpp:77] Creating layer lstm2_
I0730 09:45:33.896534 28230 net.cpp:91] Creating Layer lstm2_
I0730 09:45:33.896540 28230 net.cpp:399] lstm2_ -> c_0
I0730 09:45:33.896550 28230 net.cpp:399] lstm2_ -> h_0
I0730 09:45:33.896601 28230 net.cpp:141] Setting up lstm2_
I0730 09:45:33.896611 28230 net.cpp:148] Top shape: 1 1 1000 (1000)
I0730 09:45:33.896617 28230 net.cpp:148] Top shape: 1 1 1000 (1000)
I0730 09:45:33.896621 28230 net.cpp:156] Memory required for data: 14008
I0730 09:45:33.896626 28230 layer_factory.hpp:77] Creating layer lstm2_cont_slice
I0730 09:45:33.896636 28230 net.cpp:91] Creating Layer lstm2_cont_slice
I0730 09:45:33.896641 28230 net.cpp:425] lstm2_cont_slice <- cont
I0730 09:45:33.896649 28230 net.cpp:399] lstm2_cont_slice -> cont_1
I0730 09:45:33.896684 28230 net.cpp:141] Setting up lstm2_cont_slice
I0730 09:45:33.896693 28230 net.cpp:148] Top shape: 1 1 (1)
I0730 09:45:33.896698 28230 net.cpp:156] Memory required for data: 14012
I0730 09:45:33.896703 28230 layer_factory.hpp:77] Creating layer cont_1_lstm2_cont_slice_0_split
I0730 09:45:33.896709 28230 net.cpp:91] Creating Layer cont_1_lstm2_cont_slice_0_split
I0730 09:45:33.896714 28230 net.cpp:425] cont_1_lstm2_cont_slice_0_split <- cont_1
I0730 09:45:33.896721 28230 net.cpp:399] cont_1_lstm2_cont_slice_0_split -> cont_1_lstm2_cont_slice_0_split_0
I0730 09:45:33.896729 28230 net.cpp:399] cont_1_lstm2_cont_slice_0_split -> cont_1_lstm2_cont_slice_0_split_1
I0730 09:45:33.896780 28230 net.cpp:141] Setting up cont_1_lstm2_cont_slice_0_split
I0730 09:45:33.896790 28230 net.cpp:148] Top shape: 1 1 (1)
I0730 09:45:33.896795 28230 net.cpp:148] Top shape: 1 1 (1)
I0730 09:45:33.896800 28230 net.cpp:156] Memory required for data: 14020
I0730 09:45:33.896805 28230 layer_factory.hpp:77] Creating layer lstm2_x_transform
I0730 09:45:33.896817 28230 net.cpp:91] Creating Layer lstm2_x_transform
I0730 09:45:33.896822 28230 net.cpp:425] lstm2_x_transform <- x
I0730 09:45:33.896831 28230 net.cpp:399] lstm2_x_transform -> W_xc_x
I0730 09:45:33.935472 28240 upgrade_proto.cpp:43] Attempting to upgrade input file specified using deprecated transformation parameters: /tmp/cvld8230412023998816426/bvlc_reference_caffenet.caffemodel
I0730 09:45:33.935508 28240 upgrade_proto.cpp:46] Successfully upgraded file specified using deprecated data transformation parameters.
W0730 09:45:33.935525 28240 upgrade_proto.cpp:48] Note that future Caffe releases will only support transform_param messages for transformation fields.
I0730 09:45:33.935529 28240 upgrade_proto.cpp:52] Attempting to upgrade input file specified using deprecated V1LayerParameter: /tmp/cvld8230412023998816426/bvlc_reference_caffenet.caffemodel
I0730 09:45:33.962888 28230 net.cpp:141] Setting up lstm2_x_transform
I0730 09:45:33.962955 28230 net.cpp:148] Top shape: 1 1 4000 (4000)
I0730 09:45:33.962961 28230 net.cpp:156] Memory required for data: 30020
I0730 09:45:33.962987 28230 layer_factory.hpp:77] Creating layer lstm2_W_xc_x_slice
I0730 09:45:33.963008 28230 net.cpp:91] Creating Layer lstm2_W_xc_x_slice
I0730 09:45:33.963016 28230 net.cpp:425] lstm2_W_xc_x_slice <- W_xc_x
I0730 09:45:33.963027 28230 net.cpp:399] lstm2_W_xc_x_slice -> W_xc_x_1
I0730 09:45:33.963076 28230 net.cpp:141] Setting up lstm2_W_xc_x_slice
I0730 09:45:33.963088 28230 net.cpp:148] Top shape: 1 1 4000 (4000)
I0730 09:45:33.963093 28230 net.cpp:156] Memory required for data: 46020
I0730 09:45:33.963098 28230 layer_factory.hpp:77] Creating layer lstm2_h_conted_0
I0730 09:45:33.963109 28230 net.cpp:91] Creating Layer lstm2_h_conted_0
I0730 09:45:33.963114 28230 net.cpp:425] lstm2_h_conted_0 <- h_0
I0730 09:45:33.963122 28230 net.cpp:425] lstm2_h_conted_0 <- cont_1_lstm2_cont_slice_0_split_0
I0730 09:45:33.963130 28230 net.cpp:399] lstm2_h_conted_0 -> h_conted_0
I0730 09:45:33.963232 28230 net.cpp:141] Setting up lstm2_h_conted_0
I0730 09:45:33.963243 28230 net.cpp:148] Top shape: 1 1 1000 (1000)
I0730 09:45:33.963248 28230 net.cpp:156] Memory required for data: 50020
I0730 09:45:33.963253 28230 layer_factory.hpp:77] Creating layer lstm2_transform_1
I0730 09:45:33.963269 28230 net.cpp:91] Creating Layer lstm2_transform_1
I0730 09:45:33.963274 28230 net.cpp:425] lstm2_transform_1 <- h_conted_0
I0730 09:45:33.963284 28230 net.cpp:399] lstm2_transform_1 -> W_hc_h_0
I0730 09:45:34.007459 28230 net.cpp:141] Setting up lstm2_transform_1
I0730 09:45:34.007525 28230 net.cpp:148] Top shape: 1 1 4000 (4000)
I0730 09:45:34.007531 28230 net.cpp:156] Memory required for data: 66020
I0730 09:45:34.007553 28230 layer_factory.hpp:77] Creating layer lstm2_gate_input_1
I0730 09:45:34.007578 28230 net.cpp:91] Creating Layer lstm2_gate_input_1
I0730 09:45:34.007586 28230 net.cpp:425] lstm2_gate_input_1 <- W_hc_h_0
I0730 09:45:34.007596 28230 net.cpp:425] lstm2_gate_input_1 <- W_xc_x_1
I0730 09:45:34.007607 28230 net.cpp:399] lstm2_gate_input_1 -> gate_input_1
I0730 09:45:34.007661 28230 net.cpp:141] Setting up lstm2_gate_input_1
I0730 09:45:34.007671 28230 net.cpp:148] Top shape: 1 1 4000 (4000)
I0730 09:45:34.007676 28230 net.cpp:156] Memory required for data: 82020
I0730 09:45:34.007680 28230 layer_factory.hpp:77] Creating layer lstm2_unit_1
I0730 09:45:34.007694 28230 net.cpp:91] Creating Layer lstm2_unit_1
I0730 09:45:34.007699 28230 net.cpp:425] lstm2_unit_1 <- c_0
I0730 09:45:34.007705 28230 net.cpp:425] lstm2_unit_1 <- gate_input_1
I0730 09:45:34.007710 28230 net.cpp:425] lstm2_unit_1 <- cont_1_lstm2_cont_slice_0_split_1
I0730 09:45:34.007719 28230 net.cpp:399] lstm2_unit_1 -> c_1
I0730 09:45:34.007726 28230 net.cpp:399] lstm2_unit_1 -> h_1
I0730 09:45:34.007796 28230 net.cpp:141] Setting up lstm2_unit_1
I0730 09:45:34.007805 28230 net.cpp:148] Top shape: 1 1 1000 (1000)
I0730 09:45:34.007812 28230 net.cpp:148] Top shape: 1 1 1000 (1000)
I0730 09:45:34.007815 28230 net.cpp:156] Memory required for data: 90020
I0730 09:45:34.007820 28230 layer_factory.hpp:77] Creating layer lstm2_
I0730 09:45:34.007829 28230 net.cpp:91] Creating Layer lstm2_
I0730 09:45:34.007834 28230 net.cpp:425] lstm2_ <- c_1
I0730 09:45:34.007844 28230 net.cpp:399] lstm2_ -> c_T
I0730 09:45:34.007879 28230 net.cpp:141] Setting up lstm2_
I0730 09:45:34.007886 28230 net.cpp:148] Top shape: 1 1 1000 (1000)
I0730 09:45:34.007891 28230 net.cpp:156] Memory required for data: 94020
I0730 09:45:34.007896 28230 layer_factory.hpp:77] Creating layer lstm2_h_concat
I0730 09:45:34.007906 28230 net.cpp:91] Creating Layer lstm2_h_concat
I0730 09:45:34.007910 28230 net.cpp:425] lstm2_h_concat <- h_1
I0730 09:45:34.007918 28230 net.cpp:399] lstm2_h_concat -> h
I0730 09:45:34.007957 28230 net.cpp:141] Setting up lstm2_h_concat
I0730 09:45:34.007966 28230 net.cpp:148] Top shape: 1 1 1000 (1000)
I0730 09:45:34.007971 28230 net.cpp:156] Memory required for data: 98020
I0730 09:45:34.007975 28230 layer_factory.hpp:77] Creating layer h_pseudoloss
I0730 09:45:34.007985 28230 net.cpp:91] Creating Layer h_pseudoloss
I0730 09:45:34.007990 28230 net.cpp:425] h_pseudoloss <- h
I0730 09:45:34.007997 28230 net.cpp:399] h_pseudoloss -> h_pseudoloss
I0730 09:45:34.008098 28230 net.cpp:141] Setting up h_pseudoloss
…
