…
2016-07-30 09:45:32.759 STDERR [INFO]   bottom: "fc8"
2016-07-30 09:45:32.760 STDERR [INFO]   top: "prob"
2016-07-30 09:45:32.760 STDERR [INFO] }
2016-07-30 09:45:32.760 STDERR [INFO] I0730 09:45:32.720022 28240 layer_factory.hpp:77] Creating layer data
2016-07-30 09:45:32.760 STDERR [INFO] I0730 09:45:32.720046 28240 net.cpp:91] Creating Layer data
2016-07-30 09:45:32.760 STDERR [INFO] I0730 09:45:32.720054 28240 net.cpp:399] data -> data
2016-07-30 09:45:33.227 STDERR [INFO] I0730 09:45:33.227663 28240 net.cpp:141] Setting up data
2016-07-30 09:45:33.228 STDERR [INFO] I0730 09:45:33.227754 28240 net.cpp:148] Top shape: 10 3 227 227 (1545870)
2016-07-30 09:45:33.228 STDERR [INFO] I0730 09:45:33.227761 28240 net.cpp:156] Memory required for data: 6183480
2016-07-30 09:45:33.228 STDERR [INFO] I0730 09:45:33.227778 28240 layer_factory.hpp:77] Creating layer conv1
2016-07-30 09:45:33.228 STDERR [INFO] I0730 09:45:33.227808 28240 net.cpp:91] Creating Layer conv1
2016-07-30 09:45:33.228 STDERR [INFO] I0730 09:45:33.227819 28240 net.cpp:425] conv1 <- data
2016-07-30 09:45:33.229 STDERR [INFO] I0730 09:45:33.227831 28240 net.cpp:399] conv1 -> conv1
2016-07-30 09:45:33.464 STDERR [INFO] I0730 09:45:33.464334 28240 net.cpp:141] Setting up conv1
2016-07-30 09:45:33.464 STDERR [INFO] I0730 09:45:33.464392 28240 net.cpp:148] Top shape: 10 96 55 55 (2904000)
2016-07-30 09:45:33.465 STDERR [INFO] I0730 09:45:33.464399 28240 net.cpp:156] Memory required for data: 17799480
2016-07-30 09:45:33.465 STDERR [INFO] I0730 09:45:33.464432 28240 layer_factory.hpp:77] Creating layer relu1
2016-07-30 09:45:33.465 STDERR [INFO] I0730 09:45:33.464453 28240 net.cpp:91] Creating Layer relu1
2016-07-30 09:45:33.465 STDERR [INFO] I0730 09:45:33.464462 28240 net.cpp:425] relu1 <- conv1
2016-07-30 09:45:33.465 STDERR [INFO] I0730 09:45:33.464470 28240 net.cpp:386] relu1 -> conv1 (in-place)
2016-07-30 09:45:33.465 STDERR [INFO] I0730 09:45:33.465240 28240 net.cpp:141] Setting up relu1
2016-07-30 09:45:33.465 STDERR [INFO] I0730 09:45:33.465255 28240 net.cpp:148] Top shape: 10 96 55 55 (2904000)
2016-07-30 09:45:33.465 STDERR [INFO] I0730 09:45:33.465260 28240 net.cpp:156] Memory required for data: 29415480
2016-07-30 09:45:33.465 STDERR [INFO] I0730 09:45:33.465266 28240 layer_factory.hpp:77] Creating layer pool1
2016-07-30 09:45:33.466 STDERR [INFO] I0730 09:45:33.465281 28240 net.cpp:91] Creating Layer pool1
2016-07-30 09:45:33.466 STDERR [INFO] I0730 09:45:33.465286 28240 net.cpp:425] pool1 <- conv1
2016-07-30 09:45:33.466 STDERR [INFO] I0730 09:45:33.465294 28240 net.cpp:399] pool1 -> pool1
2016-07-30 09:45:33.466 STDERR [INFO] I0730 09:45:33.465374 28240 net.cpp:141] Setting up pool1
2016-07-30 09:45:33.466 STDERR [INFO] I0730 09:45:33.465385 28240 net.cpp:148] Top shape: 10 96 27 27 (699840)
2016-07-30 09:45:33.466 STDERR [INFO] I0730 09:45:33.465390 28240 net.cpp:156] Memory required for data: 32214840
2016-07-30 09:45:33.467 STDERR [INFO] I0730 09:45:33.465395 28240 layer_factory.hpp:77] Creating layer norm1
2016-07-30 09:45:33.467 STDERR [INFO] I0730 09:45:33.465414 28240 net.cpp:91] Creating Layer norm1
2016-07-30 09:45:33.467 STDERR [INFO] I0730 09:45:33.465420 28240 net.cpp:425] norm1 <- pool1
2016-07-30 09:45:33.467 STDERR [INFO] I0730 09:45:33.465426 28240 net.cpp:399] norm1 -> norm1
2016-07-30 09:45:33.467 STDERR [INFO] I0730 09:45:33.466231 28240 net.cpp:141] Setting up norm1
2016-07-30 09:45:33.467 STDERR [INFO] I0730 09:45:33.466246 28240 net.cpp:148] Top shape: 10 96 27 27 (699840)
2016-07-30 09:45:33.467 STDERR [INFO] I0730 09:45:33.466251 28240 net.cpp:156] Memory required for data: 35014200
2016-07-30 09:45:33.467 STDERR [INFO] I0730 09:45:33.466258 28240 layer_factory.hpp:77] Creating layer conv2
2016-07-30 09:45:33.467 STDERR [INFO] I0730 09:45:33.466275 28240 net.cpp:91] Creating Layer conv2
2016-07-30 09:45:33.467 STDERR [INFO] I0730 09:45:33.466280 28240 net.cpp:425] conv2 <- norm1
2016-07-30 09:45:33.468 STDERR [INFO] I0730 09:45:33.466289 28240 net.cpp:399] conv2 -> conv2
2016-07-30 09:45:33.472 STDERR [INFO] I0730 09:45:33.471933 28240 net.cpp:141] Setting up conv2
2016-07-30 09:45:33.472 STDERR [INFO] I0730 09:45:33.471954 28240 net.cpp:148] Top shape: 10 256 27 27 (1866240)
2016-07-30 09:45:33.472 STDERR [INFO] I0730 09:45:33.471961 28240 net.cpp:156] Memory required for data: 42479160
2016-07-30 09:45:33.472 STDERR [INFO] I0730 09:45:33.471974 28240 layer_factory.hpp:77] Creating layer relu2
2016-07-30 09:45:33.472 STDERR [INFO] I0730 09:45:33.471987 28240 net.cpp:91] Creating Layer relu2
2016-07-30 09:45:33.472 STDERR [INFO] I0730 09:45:33.471993 28240 net.cpp:425] relu2 <- conv2
2016-07-30 09:45:33.472 STDERR [INFO] I0730 09:45:33.472002 28240 net.cpp:386] relu2 -> conv2 (in-place)
2016-07-30 09:45:33.472 STDERR [INFO] I0730 09:45:33.472795 28240 net.cpp:141] Setting up relu2
2016-07-30 09:45:33.472 STDERR [INFO] I0730 09:45:33.472812 28240 net.cpp:148] Top shape: 10 256 27 27 (1866240)
2016-07-30 09:45:33.473 STDERR [INFO] I0730 09:45:33.472818 28240 net.cpp:156] Memory required for data: 49944120
2016-07-30 09:45:33.473 STDERR [INFO] I0730 09:45:33.472823 28240 layer_factory.hpp:77] Creating layer pool2
2016-07-30 09:45:33.473 STDERR [INFO] I0730 09:45:33.472832 28240 net.cpp:91] Creating Layer pool2
2016-07-30 09:45:33.473 STDERR [INFO] I0730 09:45:33.472838 28240 net.cpp:425] pool2 <- conv2
2016-07-30 09:45:33.473 STDERR [INFO] I0730 09:45:33.472846 28240 net.cpp:399] pool2 -> pool2
2016-07-30 09:45:33.473 STDERR [INFO] I0730 09:45:33.472909 28240 net.cpp:141] Setting up pool2
2016-07-30 09:45:33.473 STDERR [INFO] I0730 09:45:33.472919 28240 net.cpp:148] Top shape: 10 256 13 13 (432640)
2016-07-30 09:45:33.473 STDERR [INFO] I0730 09:45:33.472923 28240 net.cpp:156] Memory required for data: 51674680
2016-07-30 09:45:33.473 STDERR [INFO] I0730 09:45:33.472929 28240 layer_factory.hpp:77] Creating layer norm2
2016-07-30 09:45:33.473 STDERR [INFO] I0730 09:45:33.472942 28240 net.cpp:91] Creating Layer norm2
2016-07-30 09:45:33.474 STDERR [INFO] I0730 09:45:33.472947 28240 net.cpp:425] norm2 <- pool2
2016-07-30 09:45:33.474 STDERR [INFO] I0730 09:45:33.472955 28240 net.cpp:399] norm2 -> norm2
2016-07-30 09:45:33.474 STDERR [INFO] I0730 09:45:33.473237 28240 net.cpp:141] Setting up norm2
2016-07-30 09:45:33.474 STDERR [INFO] I0730 09:45:33.473248 28240 net.cpp:148] Top shape: 10 256 13 13 (432640)
2016-07-30 09:45:33.474 STDERR [INFO] I0730 09:45:33.473253 28240 net.cpp:156] Memory required for data: 53405240
2016-07-30 09:45:33.474 STDERR [INFO] I0730 09:45:33.473259 28240 layer_factory.hpp:77] Creating layer conv3
2016-07-30 09:45:33.474 STDERR [INFO] I0730 09:45:33.473274 28240 net.cpp:91] Creating Layer conv3
2016-07-30 09:45:33.474 STDERR [INFO] I0730 09:45:33.473279 28240 net.cpp:425] conv3 <- norm2
2016-07-30 09:45:33.474 STDERR [INFO] I0730 09:45:33.473287 28240 net.cpp:399] conv3 -> conv3
2016-07-30 09:45:33.478 STDERR [INFO] I0730 09:45:33.478269 28240 net.cpp:141] Setting up conv3
2016-07-30 09:45:33.478 STDERR [INFO] I0730 09:45:33.478294 28240 net.cpp:148] Top shape: 10 384 13 13 (648960)
2016-07-30 09:45:33.479 STDERR [INFO] I0730 09:45:33.478301 28240 net.cpp:156] Memory required for data: 56001080
2016-07-30 09:45:33.479 STDERR [INFO] I0730 09:45:33.478314 28240 layer_factory.hpp:77] Creating layer relu3
2016-07-30 09:45:33.479 STDERR [INFO] I0730 09:45:33.478327 28240 net.cpp:91] Creating Layer relu3
2016-07-30 09:45:33.479 STDERR [INFO] I0730 09:45:33.478332 28240 net.cpp:425] relu3 <- conv3
2016-07-30 09:45:33.479 STDERR [INFO] I0730 09:45:33.478340 28240 net.cpp:386] relu3 -> conv3 (in-place)
2016-07-30 09:45:33.479 STDERR [INFO] I0730 09:45:33.479131 28240 net.cpp:141] Setting up relu3
2016-07-30 09:45:33.479 STDERR [INFO] I0730 09:45:33.479146 28240 net.cpp:148] Top shape: 10 384 13 13 (648960)
2016-07-30 09:45:33.479 STDERR [INFO] I0730 09:45:33.479151 28240 net.cpp:156] Memory required for data: 58596920
2016-07-30 09:45:33.479 STDERR [INFO] I0730 09:45:33.479156 28240 layer_factory.hpp:77] Creating layer conv4
2016-07-30 09:45:33.480 STDERR [INFO] I0730 09:45:33.479171 28240 net.cpp:91] Creating Layer conv4
2016-07-30 09:45:33.480 STDERR [INFO] I0730 09:45:33.479177 28240 net.cpp:425] conv4 <- conv3
2016-07-30 09:45:33.480 STDERR [INFO] I0730 09:45:33.479188 28240 net.cpp:399] conv4 -> conv4
2016-07-30 09:45:33.485 STDERR [INFO] I0730 09:45:33.485537 28240 net.cpp:141] Setting up conv4
2016-07-30 09:45:33.485 STDERR [INFO] I0730 09:45:33.485560 28240 net.cpp:148] Top shape: 10 384 13 13 (648960)
2016-07-30 09:45:33.485 STDERR [INFO] I0730 09:45:33.485566 28240 net.cpp:156] Memory required for data: 61192760
2016-07-30 09:45:33.486 STDERR [INFO] I0730 09:45:33.485576 28240 layer_factory.hpp:77] Creating layer relu4
2016-07-30 09:45:33.486 STDERR [INFO] I0730 09:45:33.485591 28240 net.cpp:91] Creating Layer relu4
2016-07-30 09:45:33.486 STDERR [INFO] I0730 09:45:33.485597 28240 net.cpp:425] relu4 <- conv4
2016-07-30 09:45:33.486 STDERR [INFO] I0730 09:45:33.485605 28240 net.cpp:386] relu4 -> conv4 (in-place)
2016-07-30 09:45:33.486 STDERR [INFO] I0730 09:45:33.486402 28240 net.cpp:141] Setting up relu4
2016-07-30 09:45:33.486 STDERR [INFO] I0730 09:45:33.486418 28240 net.cpp:148] Top shape: 10 384 13 13 (648960)
2016-07-30 09:45:33.486 STDERR [INFO] I0730 09:45:33.486423 28240 net.cpp:156] Memory required for data: 63788600
2016-07-30 09:45:33.486 STDERR [INFO] I0730 09:45:33.486428 28240 layer_factory.hpp:77] Creating layer conv5
2016-07-30 09:45:33.487 STDERR [INFO] I0730 09:45:33.486443 28240 net.cpp:91] Creating Layer conv5
2016-07-30 09:45:33.487 STDERR [INFO] I0730 09:45:33.486451 28240 net.cpp:425] conv5 <- conv4
2016-07-30 09:45:33.487 STDERR [INFO] I0730 09:45:33.486459 28240 net.cpp:399] conv5 -> conv5
2016-07-30 09:45:33.492 STDERR [INFO] I0730 09:45:33.492354 28240 net.cpp:141] Setting up conv5
2016-07-30 09:45:33.492 STDERR [INFO] I0730 09:45:33.492386 28240 net.cpp:148] Top shape: 10 256 13 13 (432640)
2016-07-30 09:45:33.492 STDERR [INFO] I0730 09:45:33.492394 28240 net.cpp:156] Memory required for data: 65519160
2016-07-30 09:45:33.492 STDERR [INFO] I0730 09:45:33.492451 28240 layer_factory.hpp:77] Creating layer relu5
2016-07-30 09:45:33.493 STDERR [INFO] I0730 09:45:33.492502 28240 net.cpp:91] Creating Layer relu5
2016-07-30 09:45:33.493 STDERR [INFO] I0730 09:45:33.492511 28240 net.cpp:425] relu5 <- conv5
2016-07-30 09:45:33.493 STDERR [INFO] I0730 09:45:33.492522 28240 net.cpp:386] relu5 -> conv5 (in-place)
2016-07-30 09:45:33.494 STDERR [INFO] I0730 09:45:33.494372 28240 net.cpp:141] Setting up relu5
2016-07-30 09:45:33.494 STDERR [INFO] I0730 09:45:33.494415 28240 net.cpp:148] Top shape: 10 256 13 13 (432640)
2016-07-30 09:45:33.494 STDERR [INFO] I0730 09:45:33.494424 28240 net.cpp:156] Memory required for data: 67249720
2016-07-30 09:45:33.495 STDERR [INFO] I0730 09:45:33.494437 28240 layer_factory.hpp:77] Creating layer pool5
2016-07-30 09:45:33.495 STDERR [INFO] I0730 09:45:33.494462 28240 net.cpp:91] Creating Layer pool5
2016-07-30 09:45:33.495 STDERR [INFO] I0730 09:45:33.494472 28240 net.cpp:425] pool5 <- conv5
2016-07-30 09:45:33.495 STDERR [INFO] I0730 09:45:33.494488 28240 net.cpp:399] pool5 -> pool5
2016-07-30 09:45:33.495 STDERR [INFO] I0730 09:45:33.494635 28240 net.cpp:141] Setting up pool5
2016-07-30 09:45:33.495 STDERR [INFO] I0730 09:45:33.494653 28240 net.cpp:148] Top shape: 10 256 6 6 (92160)
2016-07-30 09:45:33.495 STDERR [INFO] I0730 09:45:33.494662 28240 net.cpp:156] Memory required for data: 67618360
2016-07-30 09:45:33.495 STDERR [INFO] I0730 09:45:33.494670 28240 layer_factory.hpp:77] Creating layer fc6
2016-07-30 09:45:33.495 STDERR [INFO] I0730 09:45:33.494751 28240 net.cpp:91] Creating Layer fc6
2016-07-30 09:45:33.495 STDERR [INFO] I0730 09:45:33.494760 28240 net.cpp:425] fc6 <- pool5
…
2016-07-30 09:45:33.578 STDERR [INFO] I0730 09:45:33.558658 28230 net.cpp:91] Creating Layer input
2016-07-30 09:45:33.578 STDERR [INFO] I0730 09:45:33.558672 28230 net.cpp:399] input -> frames_fc7
2016-07-30 09:45:33.578 STDERR [INFO] I0730 09:45:33.558732 28230 net.cpp:399] input -> cont_sentence
2016-07-30 09:45:33.578 STDERR [INFO] I0730 09:45:33.558765 28230 net.cpp:399] input -> input_sentence
2016-07-30 09:45:33.578 STDERR [INFO] I0730 09:45:33.558785 28230 net.cpp:399] input -> stage_indicator
2016-07-30 09:45:33.578 STDERR [INFO] I0730 09:45:33.558931 28230 net.cpp:141] Setting up input
2016-07-30 09:45:33.578 STDERR [INFO] I0730 09:45:33.558948 28230 net.cpp:148] Top shape: 1 4096 (4096)
2016-07-30 09:45:33.578 STDERR [INFO] I0730 09:45:33.558957 28230 net.cpp:148] Top shape: 1 1 (1)
2016-07-30 09:45:33.578 STDERR [INFO] I0730 09:45:33.558964 28230 net.cpp:148] Top shape: 1 1 (1)
2016-07-30 09:45:33.578 STDERR [INFO] I0730 09:45:33.558972 28230 net.cpp:148] Top shape: 1 1 (1)
2016-07-30 09:45:33.578 STDERR [INFO] I0730 09:45:33.558979 28230 net.cpp:156] Memory required for data: 16396
2016-07-30 09:45:33.579 STDERR [INFO] I0730 09:45:33.558985 28230 layer_factory.hpp:77] Creating layer cont_sentence_input_1_split
2016-07-30 09:45:33.579 STDERR [INFO] I0730 09:45:33.559007 28230 net.cpp:91] Creating Layer cont_sentence_input_1_split
2016-07-30 09:45:33.579 STDERR [INFO] I0730 09:45:33.559015 28230 net.cpp:425] cont_sentence_input_1_split <- cont_sentence
2016-07-30 09:45:33.579 STDERR [INFO] I0730 09:45:33.559042 28230 net.cpp:399] cont_sentence_input_1_split -> cont_sentence_input_1_split_0
2016-07-30 09:45:33.579 STDERR [INFO] I0730 09:45:33.559056 28230 net.cpp:399] cont_sentence_input_1_split -> cont_sentence_input_1_split_1
2016-07-30 09:45:33.579 STDERR [INFO] I0730 09:45:33.559144 28230 net.cpp:141] Setting up cont_sentence_input_1_split
2016-07-30 09:45:33.579 STDERR [INFO] I0730 09:45:33.559156 28230 net.cpp:148] Top shape: 1 1 (1)
2016-07-30 09:45:33.579 STDERR [INFO] I0730 09:45:33.559165 28230 net.cpp:148] Top shape: 1 1 (1)
2016-07-30 09:45:33.579 STDERR [INFO] I0730 09:45:33.559170 28230 net.cpp:156] Memory required for data: 16404
2016-07-30 09:45:33.579 STDERR [INFO] I0730 09:45:33.559176 28230 layer_factory.hpp:77] Creating layer embed_encoder
2016-07-30 09:45:33.579 STDERR [INFO] I0730 09:45:33.559192 28230 net.cpp:91] Creating Layer embed_encoder
2016-07-30 09:45:33.580 STDERR [INFO] I0730 09:45:33.559200 28230 net.cpp:425] embed_encoder <- frames_fc7
2016-07-30 09:45:33.580 STDERR [INFO] I0730 09:45:33.559211 28230 net.cpp:399] embed_encoder -> embedded_in_frames
2016-07-30 09:45:33.584 STDERR [INFO] I0730 09:45:33.584076 28230 net.cpp:141] Setting up embed_encoder
2016-07-30 09:45:33.584 STDERR [INFO] I0730 09:45:33.584120 28230 net.cpp:148] Top shape: 1 500 (500)
2016-07-30 09:45:33.584 STDERR [INFO] I0730 09:45:33.584126 28230 net.cpp:156] Memory required for data: 18404
2016-07-30 09:45:33.584 STDERR [INFO] I0730 09:45:33.584161 28230 layer_factory.hpp:77] Creating layer reshape_frames
2016-07-30 09:45:33.584 STDERR [INFO] I0730 09:45:33.584182 28230 net.cpp:91] Creating Layer reshape_frames
2016-07-30 09:45:33.584 STDERR [INFO] I0730 09:45:33.584189 28230 net.cpp:425] reshape_frames <- embedded_in_frames
2016-07-30 09:45:33.584 STDERR [INFO] I0730 09:45:33.584202 28230 net.cpp:399] reshape_frames -> embedded_input_frames
2016-07-30 09:45:33.585 STDERR [INFO] I0730 09:45:33.584259 28230 net.cpp:141] Setting up reshape_frames
2016-07-30 09:45:33.585 STDERR [INFO] I0730 09:45:33.584270 28230 net.cpp:148] Top shape: 1 1 500 (500)
2016-07-30 09:45:33.585 STDERR [INFO] I0730 09:45:33.584273 28230 net.cpp:156] Memory required for data: 20404
2016-07-30 09:45:33.585 STDERR [INFO] I0730 09:45:33.584278 28230 layer_factory.hpp:77] Creating layer reshape_stage_indicator
2016-07-30 09:45:33.585 STDERR [INFO] I0730 09:45:33.584290 28230 net.cpp:91] Creating Layer reshape_stage_indicator
2016-07-30 09:45:33.585 STDERR [INFO] I0730 09:45:33.584296 28230 net.cpp:425] reshape_stage_indicator <- stage_indicator
2016-07-30 09:45:33.585 STDERR [INFO] I0730 09:45:33.584306 28230 net.cpp:399] reshape_stage_indicator -> reshaped_stage_indicator
2016-07-30 09:45:33.585 STDERR [INFO] I0730 09:45:33.584347 28230 net.cpp:141] Setting up reshape_stage_indicator
2016-07-30 09:45:33.585 STDERR [INFO] I0730 09:45:33.584357 28230 net.cpp:148] Top shape: 1 1 1 (1)
2016-07-30 09:45:33.585 STDERR [INFO] I0730 09:45:33.584362 28230 net.cpp:156] Memory required for data: 20408
2016-07-30 09:45:33.585 STDERR [INFO] I0730 09:45:33.584367 28230 layer_factory.hpp:77] Creating layer embedding
2016-07-30 09:45:33.586 STDERR [INFO] I0730 09:45:33.584381 28230 net.cpp:91] Creating Layer embedding
2016-07-30 09:45:33.586 STDERR [INFO] I0730 09:45:33.584388 28230 net.cpp:425] embedding <- input_sentence
2016-07-30 09:45:33.586 STDERR [INFO] I0730 09:45:33.584395 28230 net.cpp:399] embedding -> embedded_input_sentence
2016-07-30 09:45:33.629 STDERR [INFO] I0730 09:45:33.629422 28240 net.cpp:141] Setting up fc6
2016-07-30 09:45:33.629 STDERR [INFO] I0730 09:45:33.629483 28240 net.cpp:148] Top shape: 10 4096 (40960)
2016-07-30 09:45:33.630 STDERR [INFO] I0730 09:45:33.629489 28240 net.cpp:156] Memory required for data: 67782200
2016-07-30 09:45:33.630 STDERR [INFO] I0730 09:45:33.629503 28240 layer_factory.hpp:77] Creating layer relu6
2016-07-30 09:45:33.630 STDERR [INFO] I0730 09:45:33.629515 28240 net.cpp:91] Creating Layer relu6
2016-07-30 09:45:33.630 STDERR [INFO] I0730 09:45:33.629521 28240 net.cpp:425] relu6 <- fc6
2016-07-30 09:45:33.630 STDERR [INFO] I0730 09:45:33.629531 28240 net.cpp:386] relu6 -> fc6 (in-place)
2016-07-30 09:45:33.630 STDERR [INFO] I0730 09:45:33.629848 28240 net.cpp:141] Setting up relu6
2016-07-30 09:45:33.630 STDERR [INFO] I0730 09:45:33.629858 28240 net.cpp:148] Top shape: 10 4096 (40960)
2016-07-30 09:45:33.630 STDERR [INFO] I0730 09:45:33.629863 28240 net.cpp:156] Memory required for data: 67946040
2016-07-30 09:45:33.630 STDERR [INFO] I0730 09:45:33.629868 28240 layer_factory.hpp:77] Creating layer drop6
2016-07-30 09:45:33.630 STDERR [INFO] I0730 09:45:33.629889 28240 net.cpp:91] Creating Layer drop6
2016-07-30 09:45:33.630 STDERR [INFO] I0730 09:45:33.629894 28240 net.cpp:425] drop6 <- fc6
2016-07-30 09:45:33.630 STDERR [INFO] I0730 09:45:33.629899 28240 net.cpp:386] drop6 -> fc6 (in-place)
2016-07-30 09:45:33.631 STDERR [INFO] I0730 09:45:33.629946 28240 net.cpp:141] Setting up drop6
2016-07-30 09:45:33.631 STDERR [INFO] I0730 09:45:33.629954 28240 net.cpp:148] Top shape: 10 4096 (40960)
2016-07-30 09:45:33.631 STDERR [INFO] I0730 09:45:33.629958 28240 net.cpp:156] Memory required for data: 68109880
2016-07-30 09:45:33.631 STDERR [INFO] I0730 09:45:33.629962 28240 layer_factory.hpp:77] Creating layer fc7
2016-07-30 09:45:33.631 STDERR [INFO] I0730 09:45:33.629971 28240 net.cpp:91] Creating Layer fc7
2016-07-30 09:45:33.631 STDERR [INFO] I0730 09:45:33.629976 28240 net.cpp:425] fc7 <- fc6
2016-07-30 09:45:33.631 STDERR [INFO] I0730 09:45:33.629987 28240 net.cpp:399] fc7 -> fc7
2016-07-30 09:45:33.696 STDERR [INFO] I0730 09:45:33.696202 28240 net.cpp:141] Setting up fc7
2016-07-30 09:45:33.696 STDERR [INFO] I0730 09:45:33.696259 28240 net.cpp:148] Top shape: 10 4096 (40960)
2016-07-30 09:45:33.696 STDERR [INFO] I0730 09:45:33.696265 28240 net.cpp:156] Memory required for data: 68273720
2016-07-30 09:45:33.697 STDERR [INFO] I0730 09:45:33.696282 28240 layer_factory.hpp:77] Creating layer relu7
2016-07-30 09:45:33.697 STDERR [INFO] I0730 09:45:33.696303 28240 net.cpp:91] Creating Layer relu7
2016-07-30 09:45:33.697 STDERR [INFO] I0730 09:45:33.696311 28240 net.cpp:425] relu7 <- fc7
2016-07-30 09:45:33.697 STDERR [INFO] I0730 09:45:33.696322 28240 net.cpp:386] relu7 -> fc7 (in-place)
2016-07-30 09:45:33.698 STDERR [INFO] I0730 09:45:33.698045 28240 net.cpp:141] Setting up relu7
2016-07-30 09:45:33.698 STDERR [INFO] I0730 09:45:33.698070 28240 net.cpp:148] Top shape: 10 4096 (40960)
2016-07-30 09:45:33.698 STDERR [INFO] I0730 09:45:33.698076 28240 net.cpp:156] Memory required for data: 68437560
2016-07-30 09:45:33.698 STDERR [INFO] I0730 09:45:33.698082 28240 layer_factory.hpp:77] Creating layer drop7
2016-07-30 09:45:33.698 STDERR [INFO] I0730 09:45:33.698096 28240 net.cpp:91] Creating Layer drop7
2016-07-30 09:45:33.698 STDERR [INFO] I0730 09:45:33.698101 28240 net.cpp:425] drop7 <- fc7
2016-07-30 09:45:33.698 STDERR [INFO] I0730 09:45:33.698109 28240 net.cpp:386] drop7 -> fc7 (in-place)
2016-07-30 09:45:33.699 STDERR [INFO] I0730 09:45:33.698168 28240 net.cpp:141] Setting up drop7
2016-07-30 09:45:33.699 STDERR [INFO] I0730 09:45:33.698180 28240 net.cpp:148] Top shape: 10 4096 (40960)
2016-07-30 09:45:33.699 STDERR [INFO] I0730 09:45:33.698185 28240 net.cpp:156] Memory required for data: 68601400
2016-07-30 09:45:33.699 STDERR [INFO] I0730 09:45:33.698191 28240 layer_factory.hpp:77] Creating layer fc8
2016-07-30 09:45:33.699 STDERR [INFO] I0730 09:45:33.698204 28240 net.cpp:91] Creating Layer fc8
2016-07-30 09:45:33.699 STDERR [INFO] I0730 09:45:33.698210 28240 net.cpp:425] fc8 <- fc7
2016-07-30 09:45:33.699 STDERR [INFO] I0730 09:45:33.698221 28240 net.cpp:399] fc8 -> fc8
2016-07-30 09:45:33.712 STDERR [INFO] I0730 09:45:33.712669 28240 net.cpp:141] Setting up fc8
2016-07-30 09:45:33.713 STDERR [INFO] I0730 09:45:33.712723 28240 net.cpp:148] Top shape: 10 1000 (10000)
2016-07-30 09:45:33.713 STDERR [INFO] I0730 09:45:33.712729 28240 net.cpp:156] Memory required for data: 68641400
2016-07-30 09:45:33.713 STDERR [INFO] I0730 09:45:33.712745 28240 layer_factory.hpp:77] Creating layer prob
2016-07-30 09:45:33.713 STDERR [INFO] I0730 09:45:33.712770 28240 net.cpp:91] Creating Layer prob
2016-07-30 09:45:33.713 STDERR [INFO] I0730 09:45:33.712779 28240 net.cpp:425] prob <- fc8
2016-07-30 09:45:33.713 STDERR [INFO] I0730 09:45:33.712790 28240 net.cpp:399] prob -> prob
2016-07-30 09:45:33.714 STDERR [INFO] I0730 09:45:33.713290 28240 net.cpp:141] Setting up prob
2016-07-30 09:45:33.714 STDERR [INFO] I0730 09:45:33.713309 28240 net.cpp:148] Top shape: 10 1000 (10000)
2016-07-30 09:45:33.714 STDERR [INFO] I0730 09:45:33.713315 28240 net.cpp:156] Memory required for data: 68681400
2016-07-30 09:45:33.714 STDERR [INFO] I0730 09:45:33.713320 28240 net.cpp:219] prob does not need backward computation.
2016-07-30 09:45:33.714 STDERR [INFO] I0730 09:45:33.713326 28240 net.cpp:219] fc8 does not need backward computation.
2016-07-30 09:45:33.714 STDERR [INFO] I0730 09:45:33.713331 28240 net.cpp:219] drop7 does not need backward computation.
…
2016-07-30 09:45:33.840 STDERR [INFO] }
2016-07-30 09:45:33.840 STDERR [INFO] I0730 09:45:33.828927 28230 layer_factory.hpp:77] Creating layer lstm1_
2016-07-30 09:45:33.840 STDERR [INFO] I0730 09:45:33.828941 28230 net.cpp:91] Creating Layer lstm1_
2016-07-30 09:45:33.840 STDERR [INFO] I0730 09:45:33.828948 28230 net.cpp:399] lstm1_ -> x
2016-07-30 09:45:33.840 STDERR [INFO] I0730 09:45:33.828961 28230 net.cpp:399] lstm1_ -> cont
2016-07-30 09:45:33.840 STDERR [INFO] I0730 09:45:33.829031 28230 net.cpp:141] Setting up lstm1_
2016-07-30 09:45:33.840 STDERR [INFO] I0730 09:45:33.829041 28230 net.cpp:148] Top shape: 1 1 500 (500)
2016-07-30 09:45:33.840 STDERR [INFO] I0730 09:45:33.829048 28230 net.cpp:148] Top shape: 1 1 (1)
2016-07-30 09:45:33.841 STDERR [INFO] I0730 09:45:33.829052 28230 net.cpp:156] Memory required for data: 2004
2016-07-30 09:45:33.841 STDERR [INFO] I0730 09:45:33.829057 28230 layer_factory.hpp:77] Creating layer lstm1_
2016-07-30 09:45:33.841 STDERR [INFO] I0730 09:45:33.829071 28230 net.cpp:91] Creating Layer lstm1_
2016-07-30 09:45:33.841 STDERR [INFO] I0730 09:45:33.829079 28230 net.cpp:399] lstm1_ -> c_0
2016-07-30 09:45:33.841 STDERR [INFO] I0730 09:45:33.829089 28230 net.cpp:399] lstm1_ -> h_0
2016-07-30 09:45:33.841 STDERR [INFO] I0730 09:45:33.829144 28230 net.cpp:141] Setting up lstm1_
2016-07-30 09:45:33.841 STDERR [INFO] I0730 09:45:33.829154 28230 net.cpp:148] Top shape: 1 1 1000 (1000)
2016-07-30 09:45:33.841 STDERR [INFO] I0730 09:45:33.829159 28230 net.cpp:148] Top shape: 1 1 1000 (1000)
2016-07-30 09:45:33.841 STDERR [INFO] I0730 09:45:33.829164 28230 net.cpp:156] Memory required for data: 10004
2016-07-30 09:45:33.841 STDERR [INFO] I0730 09:45:33.829169 28230 layer_factory.hpp:77] Creating layer lstm1_cont_slice
2016-07-30 09:45:33.841 STDERR [INFO] I0730 09:45:33.829180 28230 net.cpp:91] Creating Layer lstm1_cont_slice
2016-07-30 09:45:33.841 STDERR [INFO] I0730 09:45:33.829186 28230 net.cpp:425] lstm1_cont_slice <- cont
2016-07-30 09:45:33.842 STDERR [INFO] I0730 09:45:33.829193 28230 net.cpp:399] lstm1_cont_slice -> cont_1
2016-07-30 09:45:33.842 STDERR [INFO] I0730 09:45:33.829233 28230 net.cpp:141] Setting up lstm1_cont_slice
2016-07-30 09:45:33.842 STDERR [INFO] I0730 09:45:33.829243 28230 net.cpp:148] Top shape: 1 1 (1)
2016-07-30 09:45:33.842 STDERR [INFO] I0730 09:45:33.829248 28230 net.cpp:156] Memory required for data: 10008
2016-07-30 09:45:33.842 STDERR [INFO] I0730 09:45:33.829253 28230 layer_factory.hpp:77] Creating layer cont_1_lstm1_cont_slice_0_split
2016-07-30 09:45:33.842 STDERR [INFO] I0730 09:45:33.829262 28230 net.cpp:91] Creating Layer cont_1_lstm1_cont_slice_0_split
2016-07-30 09:45:33.842 STDERR [INFO] I0730 09:45:33.829265 28230 net.cpp:425] cont_1_lstm1_cont_slice_0_split <- cont_1
2016-07-30 09:45:33.842 STDERR [INFO] I0730 09:45:33.829275 28230 net.cpp:399] cont_1_lstm1_cont_slice_0_split -> cont_1_lstm1_cont_slice_0_split_0
2016-07-30 09:45:33.842 STDERR [INFO] I0730 09:45:33.829284 28230 net.cpp:399] cont_1_lstm1_cont_slice_0_split -> cont_1_lstm1_cont_slice_0_split_1
2016-07-30 09:45:33.842 STDERR [INFO] I0730 09:45:33.829334 28230 net.cpp:141] Setting up cont_1_lstm1_cont_slice_0_split
2016-07-30 09:45:33.842 STDERR [INFO] I0730 09:45:33.829345 28230 net.cpp:148] Top shape: 1 1 (1)
2016-07-30 09:45:33.842 STDERR [INFO] I0730 09:45:33.829351 28230 net.cpp:148] Top shape: 1 1 (1)
2016-07-30 09:45:33.842 STDERR [INFO] I0730 09:45:33.829356 28230 net.cpp:156] Memory required for data: 10016
2016-07-30 09:45:33.842 STDERR [INFO] I0730 09:45:33.829360 28230 layer_factory.hpp:77] Creating layer lstm1_x_transform
2016-07-30 09:45:33.843 STDERR [INFO] I0730 09:45:33.829370 28230 net.cpp:91] Creating Layer lstm1_x_transform
2016-07-30 09:45:33.843 STDERR [INFO] I0730 09:45:33.829375 28230 net.cpp:425] lstm1_x_transform <- x
2016-07-30 09:45:33.843 STDERR [INFO] I0730 09:45:33.829386 28230 net.cpp:399] lstm1_x_transform -> W_xc_x
2016-07-30 09:45:33.851 STDERR [INFO] I0730 09:45:33.851438 28230 net.cpp:141] Setting up lstm1_x_transform
2016-07-30 09:45:33.852 STDERR [INFO] I0730 09:45:33.851465 28230 net.cpp:148] Top shape: 1 1 4000 (4000)
2016-07-30 09:45:33.852 STDERR [INFO] I0730 09:45:33.851470 28230 net.cpp:156] Memory required for data: 26016
2016-07-30 09:45:33.852 STDERR [INFO] I0730 09:45:33.851485 28230 layer_factory.hpp:77] Creating layer lstm1_W_xc_x_slice
2016-07-30 09:45:33.852 STDERR [INFO] I0730 09:45:33.851495 28230 net.cpp:91] Creating Layer lstm1_W_xc_x_slice
2016-07-30 09:45:33.852 STDERR [INFO] I0730 09:45:33.851501 28230 net.cpp:425] lstm1_W_xc_x_slice <- W_xc_x
2016-07-30 09:45:33.852 STDERR [INFO] I0730 09:45:33.851508 28230 net.cpp:399] lstm1_W_xc_x_slice -> W_xc_x_1
2016-07-30 09:45:33.852 STDERR [INFO] I0730 09:45:33.851553 28230 net.cpp:141] Setting up lstm1_W_xc_x_slice
2016-07-30 09:45:33.852 STDERR [INFO] I0730 09:45:33.851564 28230 net.cpp:148] Top shape: 1 1 4000 (4000)
2016-07-30 09:45:33.852 STDERR [INFO] I0730 09:45:33.851568 28230 net.cpp:156] Memory required for data: 42016
2016-07-30 09:45:33.852 STDERR [INFO] I0730 09:45:33.851573 28230 layer_factory.hpp:77] Creating layer lstm1_h_conted_0
2016-07-30 09:45:33.852 STDERR [INFO] I0730 09:45:33.851583 28230 net.cpp:91] Creating Layer lstm1_h_conted_0
2016-07-30 09:45:33.852 STDERR [INFO] I0730 09:45:33.851588 28230 net.cpp:425] lstm1_h_conted_0 <- h_0
2016-07-30 09:45:33.853 STDERR [INFO] I0730 09:45:33.851594 28230 net.cpp:425] lstm1_h_conted_0 <- cont_1_lstm1_cont_slice_0_split_0
2016-07-30 09:45:33.853 STDERR [INFO] I0730 09:45:33.851601 28230 net.cpp:399] lstm1_h_conted_0 -> h_conted_0
2016-07-30 09:45:33.853 STDERR [INFO] I0730 09:45:33.851706 28230 net.cpp:141] Setting up lstm1_h_conted_0
2016-07-30 09:45:33.853 STDERR [INFO] I0730 09:45:33.851716 28230 net.cpp:148] Top shape: 1 1 1000 (1000)
2016-07-30 09:45:33.853 STDERR [INFO] I0730 09:45:33.851721 28230 net.cpp:156] Memory required for data: 46016
2016-07-30 09:45:33.853 STDERR [INFO] I0730 09:45:33.851725 28230 layer_factory.hpp:77] Creating layer lstm1_transform_1
2016-07-30 09:45:33.853 STDERR [INFO] I0730 09:45:33.851734 28230 net.cpp:91] Creating Layer lstm1_transform_1
2016-07-30 09:45:33.853 STDERR [INFO] I0730 09:45:33.851740 28230 net.cpp:425] lstm1_transform_1 <- h_conted_0
2016-07-30 09:45:33.853 STDERR [INFO] I0730 09:45:33.851748 28230 net.cpp:399] lstm1_transform_1 -> W_hc_h_0
2016-07-30 09:45:33.895 STDERR [INFO] I0730 09:45:33.894836 28230 net.cpp:141] Setting up lstm1_transform_1
2016-07-30 09:45:33.895 STDERR [INFO] I0730 09:45:33.894904 28230 net.cpp:148] Top shape: 1 1 4000 (4000)
2016-07-30 09:45:33.895 STDERR [INFO] I0730 09:45:33.894911 28230 net.cpp:156] Memory required for data: 62016
2016-07-30 09:45:33.895 STDERR [INFO] I0730 09:45:33.894933 28230 layer_factory.hpp:77] Creating layer lstm1_gate_input_1
2016-07-30 09:45:33.895 STDERR [INFO] I0730 09:45:33.894956 28230 net.cpp:91] Creating Layer lstm1_gate_input_1
2016-07-30 09:45:33.895 STDERR [INFO] I0730 09:45:33.894964 28230 net.cpp:425] lstm1_gate_input_1 <- W_hc_h_0
2016-07-30 09:45:33.895 STDERR [INFO] I0730 09:45:33.894975 28230 net.cpp:425] lstm1_gate_input_1 <- W_xc_x_1
2016-07-30 09:45:33.895 STDERR [INFO] I0730 09:45:33.894984 28230 net.cpp:399] lstm1_gate_input_1 -> gate_input_1
2016-07-30 09:45:33.896 STDERR [INFO] I0730 09:45:33.895051 28230 net.cpp:141] Setting up lstm1_gate_input_1
2016-07-30 09:45:33.896 STDERR [INFO] I0730 09:45:33.895061 28230 net.cpp:148] Top shape: 1 1 4000 (4000)
2016-07-30 09:45:33.896 STDERR [INFO] I0730 09:45:33.895066 28230 net.cpp:156] Memory required for data: 78016
2016-07-30 09:45:33.896 STDERR [INFO] I0730 09:45:33.895069 28230 layer_factory.hpp:77] Creating layer lstm1_unit_1
2016-07-30 09:45:33.896 STDERR [INFO] I0730 09:45:33.895082 28230 net.cpp:91] Creating Layer lstm1_unit_1
2016-07-30 09:45:33.896 STDERR [INFO] I0730 09:45:33.895087 28230 net.cpp:425] lstm1_unit_1 <- c_0
2016-07-30 09:45:33.896 STDERR [INFO] I0730 09:45:33.895093 28230 net.cpp:425] lstm1_unit_1 <- gate_input_1
2016-07-30 09:45:33.896 STDERR [INFO] I0730 09:45:33.895099 28230 net.cpp:425] lstm1_unit_1 <- cont_1_lstm1_cont_slice_0_split_1
2016-07-30 09:45:33.896 STDERR [INFO] I0730 09:45:33.895107 28230 net.cpp:399] lstm1_unit_1 -> c_1
2016-07-30 09:45:33.896 STDERR [INFO] I0730 09:45:33.895115 28230 net.cpp:399] lstm1_unit_1 -> h_1
2016-07-30 09:45:33.897 STDERR [INFO] I0730 09:45:33.895184 28230 net.cpp:141] Setting up lstm1_unit_1
2016-07-30 09:45:33.897 STDERR [INFO] I0730 09:45:33.895192 28230 net.cpp:148] Top shape: 1 1 1000 (1000)
2016-07-30 09:45:33.897 STDERR [INFO] I0730 09:45:33.895198 28230 net.cpp:148] Top shape: 1 1 1000 (1000)
2016-07-30 09:45:33.897 STDERR [INFO] I0730 09:45:33.895202 28230 net.cpp:156] Memory required for data: 86016
2016-07-30 09:45:33.897 STDERR [INFO] I0730 09:45:33.895207 28230 layer_factory.hpp:77] Creating layer lstm1_
2016-07-30 09:45:33.897 STDERR [INFO] I0730 09:45:33.895216 28230 net.cpp:91] Creating Layer lstm1_
2016-07-30 09:45:33.897 STDERR [INFO] I0730 09:45:33.895221 28230 net.cpp:425] lstm1_ <- c_1
2016-07-30 09:45:33.897 STDERR [INFO] I0730 09:45:33.895228 28230 net.cpp:399] lstm1_ -> c_T
2016-07-30 09:45:33.897 STDERR [INFO] I0730 09:45:33.895261 28230 net.cpp:141] Setting up lstm1_
2016-07-30 09:45:33.897 STDERR [INFO] I0730 09:45:33.895268 28230 net.cpp:148] Top shape: 1 1 1000 (1000)
2016-07-30 09:45:33.897 STDERR [INFO] I0730 09:45:33.895273 28230 net.cpp:156] Memory required for data: 90016
2016-07-30 09:45:33.897 STDERR [INFO] I0730 09:45:33.895278 28230 layer_factory.hpp:77] Creating layer lstm1_h_concat
2016-07-30 09:45:33.897 STDERR [INFO] I0730 09:45:33.895292 28230 net.cpp:91] Creating Layer lstm1_h_concat
2016-07-30 09:45:33.897 STDERR [INFO] I0730 09:45:33.895297 28230 net.cpp:425] lstm1_h_concat <- h_1
2016-07-30 09:45:33.898 STDERR [INFO] I0730 09:45:33.895304 28230 net.cpp:399] lstm1_h_concat -> h
2016-07-30 09:45:33.898 STDERR [INFO] I0730 09:45:33.895355 28230 net.cpp:141] Setting up lstm1_h_concat
2016-07-30 09:45:33.898 STDERR [INFO] I0730 09:45:33.895365 28230 net.cpp:148] Top shape: 1 1 1000 (1000)
2016-07-30 09:45:33.898 STDERR [INFO] I0730 09:45:33.895370 28230 net.cpp:156] Memory required for data: 94016
2016-07-30 09:45:33.898 STDERR [INFO] I0730 09:45:33.895375 28230 layer_factory.hpp:77] Creating layer h_pseudoloss
2016-07-30 09:45:33.898 STDERR [INFO] I0730 09:45:33.895391 28230 net.cpp:91] Creating Layer h_pseudoloss
2016-07-30 09:45:33.898 STDERR [INFO] I0730 09:45:33.895396 28230 net.cpp:425] h_pseudoloss <- h
…
2016-07-30 09:45:33.912 STDERR [INFO] }
2016-07-30 09:45:33.912 STDERR [INFO] I0730 09:45:33.896409 28230 layer_factory.hpp:77] Creating layer lstm2_
2016-07-30 09:45:33.912 STDERR [INFO] I0730 09:45:33.896423 28230 net.cpp:91] Creating Layer lstm2_
2016-07-30 09:45:33.912 STDERR [INFO] I0730 09:45:33.896430 28230 net.cpp:399] lstm2_ -> x
2016-07-30 09:45:33.912 STDERR [INFO] I0730 09:45:33.896440 28230 net.cpp:399] lstm2_ -> cont
2016-07-30 09:45:33.912 STDERR [INFO] I0730 09:45:33.896500 28230 net.cpp:141] Setting up lstm2_
2016-07-30 09:45:33.912 STDERR [INFO] I0730 09:45:33.896509 28230 net.cpp:148] Top shape: 1 1 1501 (1501)
2016-07-30 09:45:33.912 STDERR [INFO] I0730 09:45:33.896517 28230 net.cpp:148] Top shape: 1 1 (1)
2016-07-30 09:45:33.912 STDERR [INFO] I0730 09:45:33.896520 28230 net.cpp:156] Memory required for data: 6008
2016-07-30 09:45:33.912 STDERR [INFO] I0730 09:45:33.896525 28230 layer_factory.hpp:77] Creating layer lstm2_
2016-07-30 09:45:33.912 STDERR [INFO] I0730 09:45:33.896534 28230 net.cpp:91] Creating Layer lstm2_
2016-07-30 09:45:33.912 STDERR [INFO] I0730 09:45:33.896540 28230 net.cpp:399] lstm2_ -> c_0
2016-07-30 09:45:33.912 STDERR [INFO] I0730 09:45:33.896550 28230 net.cpp:399] lstm2_ -> h_0
2016-07-30 09:45:33.913 STDERR [INFO] I0730 09:45:33.896601 28230 net.cpp:141] Setting up lstm2_
2016-07-30 09:45:33.913 STDERR [INFO] I0730 09:45:33.896611 28230 net.cpp:148] Top shape: 1 1 1000 (1000)
2016-07-30 09:45:33.913 STDERR [INFO] I0730 09:45:33.896617 28230 net.cpp:148] Top shape: 1 1 1000 (1000)
2016-07-30 09:45:33.913 STDERR [INFO] I0730 09:45:33.896621 28230 net.cpp:156] Memory required for data: 14008
2016-07-30 09:45:33.913 STDERR [INFO] I0730 09:45:33.896626 28230 layer_factory.hpp:77] Creating layer lstm2_cont_slice
2016-07-30 09:45:33.913 STDERR [INFO] I0730 09:45:33.896636 28230 net.cpp:91] Creating Layer lstm2_cont_slice
2016-07-30 09:45:33.913 STDERR [INFO] I0730 09:45:33.896641 28230 net.cpp:425] lstm2_cont_slice <- cont
2016-07-30 09:45:33.913 STDERR [INFO] I0730 09:45:33.896649 28230 net.cpp:399] lstm2_cont_slice -> cont_1
2016-07-30 09:45:33.913 STDERR [INFO] I0730 09:45:33.896684 28230 net.cpp:141] Setting up lstm2_cont_slice
2016-07-30 09:45:33.913 STDERR [INFO] I0730 09:45:33.896693 28230 net.cpp:148] Top shape: 1 1 (1)
2016-07-30 09:45:33.913 STDERR [INFO] I0730 09:45:33.896698 28230 net.cpp:156] Memory required for data: 14012
2016-07-30 09:45:33.913 STDERR [INFO] I0730 09:45:33.896703 28230 layer_factory.hpp:77] Creating layer cont_1_lstm2_cont_slice_0_split
2016-07-30 09:45:33.913 STDERR [INFO] I0730 09:45:33.896709 28230 net.cpp:91] Creating Layer cont_1_lstm2_cont_slice_0_split
2016-07-30 09:45:33.913 STDERR [INFO] I0730 09:45:33.896714 28230 net.cpp:425] cont_1_lstm2_cont_slice_0_split <- cont_1
2016-07-30 09:45:33.913 STDERR [INFO] I0730 09:45:33.896721 28230 net.cpp:399] cont_1_lstm2_cont_slice_0_split -> cont_1_lstm2_cont_slice_0_split_0
2016-07-30 09:45:33.914 STDERR [INFO] I0730 09:45:33.896729 28230 net.cpp:399] cont_1_lstm2_cont_slice_0_split -> cont_1_lstm2_cont_slice_0_split_1
2016-07-30 09:45:33.914 STDERR [INFO] I0730 09:45:33.896780 28230 net.cpp:141] Setting up cont_1_lstm2_cont_slice_0_split
2016-07-30 09:45:33.914 STDERR [INFO] I0730 09:45:33.896790 28230 net.cpp:148] Top shape: 1 1 (1)
2016-07-30 09:45:33.914 STDERR [INFO] I0730 09:45:33.896795 28230 net.cpp:148] Top shape: 1 1 (1)
2016-07-30 09:45:33.914 STDERR [INFO] I0730 09:45:33.896800 28230 net.cpp:156] Memory required for data: 14020
2016-07-30 09:45:33.914 STDERR [INFO] I0730 09:45:33.896805 28230 layer_factory.hpp:77] Creating layer lstm2_x_transform
2016-07-30 09:45:33.914 STDERR [INFO] I0730 09:45:33.896817 28230 net.cpp:91] Creating Layer lstm2_x_transform
2016-07-30 09:45:33.914 STDERR [INFO] I0730 09:45:33.896822 28230 net.cpp:425] lstm2_x_transform <- x
…
2016-07-30 09:45:33.936 STDERR [INFO] W0730 09:45:33.935525 28240 upgrade_proto.cpp:48] Note that future Caffe releases will only support transform_param messages for transformation fields.
2016-07-30 09:45:33.936 STDERR [INFO] I0730 09:45:33.935529 28240 upgrade_proto.cpp:52] Attempting to upgrade input file specified using deprecated V1LayerParameter: /tmp/cvld8230412023998816426/bvlc_reference_caffenet.caffemodel
2016-07-30 09:45:33.963 STDERR [INFO] I0730 09:45:33.962888 28230 net.cpp:141] Setting up lstm2_x_transform
2016-07-30 09:45:33.963 STDERR [INFO] I0730 09:45:33.962955 28230 net.cpp:148] Top shape: 1 1 4000 (4000)
2016-07-30 09:45:33.963 STDERR [INFO] I0730 09:45:33.962961 28230 net.cpp:156] Memory required for data: 30020
2016-07-30 09:45:33.963 STDERR [INFO] I0730 09:45:33.962987 28230 layer_factory.hpp:77] Creating layer lstm2_W_xc_x_slice
2016-07-30 09:45:33.963 STDERR [INFO] I0730 09:45:33.963008 28230 net.cpp:91] Creating Layer lstm2_W_xc_x_slice
2016-07-30 09:45:33.963 STDERR [INFO] I0730 09:45:33.963016 28230 net.cpp:425] lstm2_W_xc_x_slice <- W_xc_x
2016-07-30 09:45:33.963 STDERR [INFO] I0730 09:45:33.963027 28230 net.cpp:399] lstm2_W_xc_x_slice -> W_xc_x_1
2016-07-30 09:45:33.963 STDERR [INFO] I0730 09:45:33.963076 28230 net.cpp:141] Setting up lstm2_W_xc_x_slice
2016-07-30 09:45:33.963 STDERR [INFO] I0730 09:45:33.963088 28230 net.cpp:148] Top shape: 1 1 4000 (4000)
2016-07-30 09:45:33.963 STDERR [INFO] I0730 09:45:33.963093 28230 net.cpp:156] Memory required for data: 46020
2016-07-30 09:45:33.964 STDERR [INFO] I0730 09:45:33.963098 28230 layer_factory.hpp:77] Creating layer lstm2_h_conted_0
2016-07-30 09:45:33.964 STDERR [INFO] I0730 09:45:33.963109 28230 net.cpp:91] Creating Layer lstm2_h_conted_0
2016-07-30 09:45:33.964 STDERR [INFO] I0730 09:45:33.963114 28230 net.cpp:425] lstm2_h_conted_0 <- h_0
2016-07-30 09:45:33.964 STDERR [INFO] I0730 09:45:33.963122 28230 net.cpp:425] lstm2_h_conted_0 <- cont_1_lstm2_cont_slice_0_split_0
2016-07-30 09:45:33.964 STDERR [INFO] I0730 09:45:33.963130 28230 net.cpp:399] lstm2_h_conted_0 -> h_conted_0
2016-07-30 09:45:33.964 STDERR [INFO] I0730 09:45:33.963232 28230 net.cpp:141] Setting up lstm2_h_conted_0
2016-07-30 09:45:33.964 STDERR [INFO] I0730 09:45:33.963243 28230 net.cpp:148] Top shape: 1 1 1000 (1000)
2016-07-30 09:45:33.964 STDERR [INFO] I0730 09:45:33.963248 28230 net.cpp:156] Memory required for data: 50020
2016-07-30 09:45:33.964 STDERR [INFO] I0730 09:45:33.963253 28230 layer_factory.hpp:77] Creating layer lstm2_transform_1
2016-07-30 09:45:33.964 STDERR [INFO] I0730 09:45:33.963269 28230 net.cpp:91] Creating Layer lstm2_transform_1
2016-07-30 09:45:33.964 STDERR [INFO] I0730 09:45:33.963274 28230 net.cpp:425] lstm2_transform_1 <- h_conted_0
2016-07-30 09:45:33.964 STDERR [INFO] I0730 09:45:33.963284 28230 net.cpp:399] lstm2_transform_1 -> W_hc_h_0
2016-07-30 09:45:34.007 STDERR [INFO] I0730 09:45:34.007459 28230 net.cpp:141] Setting up lstm2_transform_1
2016-07-30 09:45:34.008 STDERR [INFO] I0730 09:45:34.007525 28230 net.cpp:148] Top shape: 1 1 4000 (4000)
2016-07-30 09:45:34.008 STDERR [INFO] I0730 09:45:34.007531 28230 net.cpp:156] Memory required for data: 66020
2016-07-30 09:45:34.008 STDERR [INFO] I0730 09:45:34.007553 28230 layer_factory.hpp:77] Creating layer lstm2_gate_input_1
2016-07-30 09:45:34.008 STDERR [INFO] I0730 09:45:34.007578 28230 net.cpp:91] Creating Layer lstm2_gate_input_1
2016-07-30 09:45:34.008 STDERR [INFO] I0730 09:45:34.007586 28230 net.cpp:425] lstm2_gate_input_1 <- W_hc_h_0
2016-07-30 09:45:34.008 STDERR [INFO] I0730 09:45:34.007596 28230 net.cpp:425] lstm2_gate_input_1 <- W_xc_x_1
2016-07-30 09:45:34.008 STDERR [INFO] I0730 09:45:34.007607 28230 net.cpp:399] lstm2_gate_input_1 -> gate_input_1
2016-07-30 09:45:34.008 STDERR [INFO] I0730 09:45:34.007661 28230 net.cpp:141] Setting up lstm2_gate_input_1
2016-07-30 09:45:34.008 STDERR [INFO] I0730 09:45:34.007671 28230 net.cpp:148] Top shape: 1 1 4000 (4000)
2016-07-30 09:45:34.008 STDERR [INFO] I0730 09:45:34.007676 28230 net.cpp:156] Memory required for data: 82020
2016-07-30 09:45:34.008 STDERR [INFO] I0730 09:45:34.007680 28230 layer_factory.hpp:77] Creating layer lstm2_unit_1
2016-07-30 09:45:34.008 STDERR [INFO] I0730 09:45:34.007694 28230 net.cpp:91] Creating Layer lstm2_unit_1
2016-07-30 09:45:34.008 STDERR [INFO] I0730 09:45:34.007699 28230 net.cpp:425] lstm2_unit_1 <- c_0
2016-07-30 09:45:34.008 STDERR [INFO] I0730 09:45:34.007705 28230 net.cpp:425] lstm2_unit_1 <- gate_input_1
2016-07-30 09:45:34.009 STDERR [INFO] I0730 09:45:34.007710 28230 net.cpp:425] lstm2_unit_1 <- cont_1_lstm2_cont_slice_0_split_1
2016-07-30 09:45:34.009 STDERR [INFO] I0730 09:45:34.007719 28230 net.cpp:399] lstm2_unit_1 -> c_1
2016-07-30 09:45:34.009 STDERR [INFO] I0730 09:45:34.007726 28230 net.cpp:399] lstm2_unit_1 -> h_1
2016-07-30 09:45:34.009 STDERR [INFO] I0730 09:45:34.007796 28230 net.cpp:141] Setting up lstm2_unit_1
2016-07-30 09:45:34.009 STDERR [INFO] I0730 09:45:34.007805 28230 net.cpp:148] Top shape: 1 1 1000 (1000)
2016-07-30 09:45:34.009 STDERR [INFO] I0730 09:45:34.007812 28230 net.cpp:148] Top shape: 1 1 1000 (1000)
2016-07-30 09:45:34.009 STDERR [INFO] I0730 09:45:34.007815 28230 net.cpp:156] Memory required for data: 90020
2016-07-30 09:45:34.009 STDERR [INFO] I0730 09:45:34.007820 28230 layer_factory.hpp:77] Creating layer lstm2_
2016-07-30 09:45:34.009 STDERR [INFO] I0730 09:45:34.007829 28230 net.cpp:91] Creating Layer lstm2_
2016-07-30 09:45:34.009 STDERR [INFO] I0730 09:45:34.007834 28230 net.cpp:425] lstm2_ <- c_1
2016-07-30 09:45:34.009 STDERR [INFO] I0730 09:45:34.007844 28230 net.cpp:399] lstm2_ -> c_T
2016-07-30 09:45:34.009 STDERR [INFO] I0730 09:45:34.007879 28230 net.cpp:141] Setting up lstm2_
2016-07-30 09:45:34.009 STDERR [INFO] I0730 09:45:34.007886 28230 net.cpp:148] Top shape: 1 1 1000 (1000)
2016-07-30 09:45:34.009 STDERR [INFO] I0730 09:45:34.007891 28230 net.cpp:156] Memory required for data: 94020
2016-07-30 09:45:34.009 STDERR [INFO] I0730 09:45:34.007896 28230 layer_factory.hpp:77] Creating layer lstm2_h_concat
2016-07-30 09:45:34.010 STDERR [INFO] I0730 09:45:34.007906 28230 net.cpp:91] Creating Layer lstm2_h_concat
2016-07-30 09:45:34.010 STDERR [INFO] I0730 09:45:34.007910 28230 net.cpp:425] lstm2_h_concat <- h_1
2016-07-30 09:45:34.010 STDERR [INFO] I0730 09:45:34.007918 28230 net.cpp:399] lstm2_h_concat -> h
2016-07-30 09:45:34.010 STDERR [INFO] I0730 09:45:34.007957 28230 net.cpp:141] Setting up lstm2_h_concat
2016-07-30 09:45:34.010 STDERR [INFO] I0730 09:45:34.007966 28230 net.cpp:148] Top shape: 1 1 1000 (1000)
2016-07-30 09:45:34.010 STDERR [INFO] I0730 09:45:34.007971 28230 net.cpp:156] Memory required for data: 98020
2016-07-30 09:45:34.010 STDERR [INFO] I0730 09:45:34.007975 28230 layer_factory.hpp:77] Creating layer h_pseudoloss
2016-07-30 09:45:34.010 STDERR [INFO] I0730 09:45:34.007985 28230 net.cpp:91] Creating Layer h_pseudoloss
2016-07-30 09:45:34.010 STDERR [INFO] I0730 09:45:34.007990 28230 net.cpp:425] h_pseudoloss <- h
…
