…
Java HotSpot(TM) 64-Bit Server VM warning: You have loaded library /tmp/cvld857464689621798417/libopencv_java310.xine1.so which might have disabled stack guard. The VM will try to fix the stack guard now.
It's highly recommended that you fix the library with 'execstack -c <libfile>', or link it with '-z noexecstack'.
WARNING: Logging before InitGoogleLogging() is written to STDERR
I0713 13:56:09.528810  5597 net.cpp:49] Initializing net from parameters: 
name: "GoogleNet"
state {
  phase: TEST
}
layer {
  name: "data"
  type: "Input"
  top: "data"
  input_param {
    shape {
      dim: 10
      dim: 3
      dim: 224
      dim: 224
    }
  }
}
layer {
  name: "conv1/7x7_s2"
  type: "Convolution"
  bottom: "data"
  top: "conv1/7x7_s2"
  param {
    lr_mult: 1
    decay_mult: 1
  }
  param {
    lr_mult: 2
    decay_mult: 0
  }
  convolution_param {
    num_output: 64
    pad: 3
    kernel_size: 7
    stride: 2
    weight_filler {
      type: "xavier"
      std: 0.1
    }
    bias_filler {
      type: "constant"
      value: 0.2
    }
  }
}
layer {
  name: "conv1/relu_7x7"
  type: "ReLU"
  bottom: "conv1/7x7_s2"
  top: "conv1/7x7_s2"
}
layer {
  name: "pool1/3x3_s2"
  type: "Pooling"
  bottom: "conv1/7x7_s2"
  top: "pool1/3x3_s2"
  pooling_param {
    pool: MAX
    kernel_size: 3
    stride: 2
  }
}
layer {
  name: "pool1/norm1"
  type: "LRN"
  bottom: "pool1/3x3_s2"
  top: "pool1/norm1"
  lrn_param {
    local_size: 5
    alpha: 0.0001
    beta: 0.75
  }
}
layer {
  name: "conv2/3x3_reduce"
  type: "Convolution"
  bottom: "pool1/norm1"
  top: "conv2/3x3_reduce"
  param {
    lr_mult: 1
    decay_mult: 1
  }
  param {
    lr_mult: 2
    decay_mult: 0
  }
  convolution_param {
    num_output: 64
    kernel_size: 1
    weight_filler {
      type: "xavier"
      std: 0.1
    }
    bias_filler {
      type: "constant"
      value: 0.2
    }
  }
}
layer {
  name: "conv2/relu_3x3_reduce"
  type: "ReLU"
  bottom: "conv2/3x3_reduce"
  top: "conv2/3x3_reduce"
}
layer {
  name: "conv2/3x3"
  type: "Convolution"
  bottom: "conv2/3x3_reduce"
  top: "conv2/3x3"
  param {
    lr_mult: 1
    decay_mult: 1
  }
  param {
    lr_mult: 2
    decay_mult: 0
  }
  convolution_param {
    num_output: 192
    pad: 1
    kernel_size: 3
    weight_filler {
      type: "xavier"
      std: 0.03
    }
    bias_filler {
      type: "constant"
      value: 0.2
    }
  }
}
layer {
  name: "conv2/relu_3x3"
  type: "ReLU"
  bottom: "conv2/3x3"
  top: "conv2/3x3"
}
layer {
  name: "conv2/norm2"
  type: "LRN"
  bottom: "conv2/3x3"
  top: "conv2/norm2"
  lrn_param {
    local_size: 5
    alpha: 0.0001
    beta: 0.75
  }
}
layer {
  name: "pool2/3x3_s2"
  type: "Pooling"
  bottom: "conv2/norm2"
  top: "pool2/3x3_s2"
  pooling_param {
    pool: MAX
    kernel_size: 3
    stride: 2
  }
}
layer {
  name: "inception_3a/1x1"
  type: "Convolution"
  bottom: "pool2/3x3_s2"
  top: "inception_3a/1x1"
  param {
    lr_mult: 1
    decay_mult: 1
  }
  param {
    lr_mult: 2
    decay_mult: 0
  }
  convolution_param {
    num_output: 64
    kernel_size: 1
    weight_filler {
      type: "xavier"
      std: 0.03
    }
    bias_filler {
      type: "constant"
      value: 0.2
    }
  }
}
layer {
  name: "inception_3a/relu_1x1"
  type: "ReLU"
  bottom: "inception_3a/1x1"
  top: "inception_3a/1x1"
}
layer {
  name: "inception_3a/3x3_reduce"
  type: "Convolution"
  bottom: "pool2/3x3_s2"
  top: "inception_3a/3x3_reduce"
  param {
    lr_mult: 1
    decay_mult: 1
  }
  param {
    lr_mult: 2
    decay_mult: 0
  }
  convolution_param {
    num_output: 96
    kernel_size: 1
    weight_filler {
      type: "xavier"
      std: 0.09
    }
    bias_filler {
      type: "constant"
      value: 0.2
    }
  }
}
layer {
  name: "inception_3a/relu_3x3_reduce"
  type: "ReLU"
  bottom: "inception_3a/3x3_reduce"
  top: "inception_3a/3x3_reduce"
}
layer {
  name: "inception_3a/3x3"
  type: "Convolution"
  bottom: "inception_3a/3x3_reduce"
  top: "inception_3a/3x3"
  param {
    lr_mult: 1
    decay_mult: 1
  }
  param {
    lr_mult: 2
    decay_mult: 0
  }
  convolution_param {
    num_output: 128
    pad: 1
    kernel_size: 3
    weight_filler {
      type: "xavier"
      std: 0.03
    }
    bias_filler {
      type: "constant"
      value: 0.2
    }
  }
}
layer {
  name: "inception_3a/relu_3x3"
  type: "ReLU"
  bottom: "inception_3a/3x3"
  top: "inception_3a/3x3"
}
layer {
  name: "inception_3a/5x5_reduce"
  type: "Convolution"
  bottom: "pool2/3x3_s2"
  top: "inception_3a/5x5_reduce"
  param {
    lr_mult: 1
    decay_mult: 1
  }
  param {
    lr_mult: 2
    decay_mult: 0
  }
  convolution_param {
    num_output: 16
    kernel_size: 1
    weight_filler {
      type: "xavier"
      std: 0.2
    }
    bias_filler {
      type: "constant"
      value: 0.2
    }
  }
}
layer {
  name: "inception_3a/relu_5x5_reduce"
  type: "ReLU"
  bottom: "inception_3a/5x5_reduce"
  top: "inception_3a/5x5_reduce"
}
layer {
  name: "inception_3a/5x5"
  type: "Convolution"
  bottom: "inception_3a/5x5_reduce"
  top: "inception_3a/5x5"
  param {
    lr_mult: 1
    decay_mult: 1
  }
  param {
    lr_mult: 2
    decay_mult: 0
  }
  convolution_param {
    num_output: 32
    pad: 2
    kernel_size: 5
    weight_filler {
      type: "xavier"
      std: 0.03
    }
    bias_filler {
      type: "constant"
      value: 0.2
    }
  }
}
layer {
  name: "inception_3a/relu_5x5"
  type: "ReLU"
  bottom: "inception_3a/5x5"
  top: "inception_3a/5x5"
}
layer {
  name: "inception_3a/pool"
  type: "Pooling"
  bottom: "pool2/3x3_s2"
  top: "inception_3a/pool"
  pooling_param {
    pool: MAX
    kernel_size: 3
    stride: 1
    pad: 1
  }
}
layer {
  name: "inception_3a/pool_proj"
  type: "Convolution"
  bottom: "inception_3a/pool"
  top: "inception_3a/pool_proj"
  param {
    lr_mult: 1
    decay_mult: 1
  }
  param {
    lr_mult: 2
    decay_mult: 0
  }
  convolution_param {
    num_output: 32
    kernel_size: 1
    weight_filler {
      type: "xavier"
      std: 0.1
    }
    bias_filler {
      type: "constant"
      value: 0.2
    }
  }
}
layer {
  name: "inception_3a/relu_pool_proj"
  type: "ReLU"
  bottom: "inception_3a/pool_proj"
  top: "inception_3a/pool_proj"
}
layer {
  name: "inception_3a/output"
  type: "Concat"
  bottom: "inception_3a/1x1"
  bottom: "inception_3a/3x3"
  bottom: "inception_3a/5x5"
  bottom: "inception_3a/pool_proj"
  top: "inception_3a/output"
}
layer {
  name: "inception_3b/1x1"
  type: "Convolution"
  bottom: "inception_3a/output"
  top: "inception_3b/1x1"
  param {
    lr_mult: 1
    decay_mult: 1
  }
  param {
    lr_mult: 2
    decay_mult: 0
  }
  convolution_param {
    num_output: 128
    kernel_size: 1
    weight_filler {
      type: "xavier"
      std: 0.03
    }
    bias_filler {
      type: "constant"
      value: 0.2
    }
  }
}
layer {
  name: "inception_3b/relu_1x1"
  type: "ReLU"
  bottom: "inception_3b/1x1"
  top: "inception_3b/1x1"
}
layer {
  name: "inception_3b/3x3_reduce"
  type: "Convolution"
  bottom: "inception_3a/output"
  top: "inception_3b/3x3_reduce"
  param {
    lr_mult: 1
    decay_mult: 1
  }
  param {
    lr_mult: 2
    decay_mult: 0
  }
  convolution_param {
    num_output: 128
    kernel_size: 1
    weight_filler {
      type: "xavier"
      std: 0.09
    }
    bias_filler {
      type: "constant"
      value: 0.2
    }
  }
}
layer {
  name: "inception_3b/relu_3x3_reduce"
  type: "ReLU"
  bottom: "inception_3b/3x3_reduce"
  top: "inception_3b/3x3_reduce"
}
layer {
  name: "inception_3b/3x3"
  type: "Convolution"
  bottom: "inception_3b/3x3_reduce"
  top: "inception_3b/3x3"
  param {
    lr_mult: 1
    decay_mult: 1
  }
  param {
    lr_mult: 2
    decay_mult: 0
  }
  convolution_param {
    num_output: 192
    pad: 1
    kernel_size: 3
    weight_filler {
      type: "xavier"
      std: 0.03
    }
    bias_filler {
      type: "constant"
      value: 0.2
    }
  }
}
layer {
  name: "inception_3b/relu_3x3"
  type: "ReLU"
  bottom: "inception_3b/3x3"
  top: "inception_3b/3x3"
}
layer {
  name: "inception_3b/5x5_reduce"
  type: "Convolution"
  bottom: "inception_3a/output"
  top: "inception_3b/5x5_reduce"
  param {
    lr_mult: 1
    decay_mult: 1
  }
  param {
    lr_mult: 2
    decay_mult: 0
  }
  convolution_param {
    num_output: 32
    kernel_size: 1
    weight_filler {
      type: "xavier"
      std: 0.2
    }
    bias_filler {
      type: "constant"
      value: 0.2
    }
  }
}
layer {
  name: "inception_3b/relu_5x5_reduce"
  type: "ReLU"
  bottom: "inception_3b/5x5_reduce"
  top: "inception_3b/5x5_reduce"
}
layer {
  name: "inception_3b/5x5"
  type: "Convolution"
  bottom: "inception_3b/5x5_reduce"
  top: "inception_3b/5x5"
  param {
    lr_mult: 1
    decay_mult: 1
  }
  param {
    lr_mult: 2
    decay_mult: 0
  }
  convolution_param {
    num_output: 96
    pad: 2
    kernel_size: 5
    weight_filler {
      type: "xavier"
      std: 0.03
    }
    bias_filler {
      type: "constant"
      value: 0.2
    }
  }
}
layer {
  name: "inception_3b/relu_5x5"
  type: "ReLU"
  bottom: "inception_3b/5x5"
  top: "inception_3b/5x5"
}
layer {
  name: "inception_3b/pool"
  type: "Pooling"
  bottom: "inception_3a/output"
  top: "inception_3b/pool"
  pooling_param {
    pool: MAX
    kernel_size: 3
    stride: 1
    pad: 1
  }
}
layer {
  name: "inception_3b/pool_proj"
  type: "Convolution"
  bottom: "inception_3b/pool"
  top: "inception_3b/pool_proj"
  param {
    lr_mult: 1
    decay_mult: 1
  }
  param {
    lr_mult: 2
    decay_mult: 0
  }
  convolution_param {
    num_output: 64
    kernel_size: 1
    weight_filler {
      type: "xavier"
      std: 0.1
    }
    bias_filler {
      type: "constant"
      value: 0.2
    }
  }
}
layer {
  name: "inception_3b/relu_pool_proj"
  type: "ReLU"
  bottom: "inception_3b/pool_proj"
  top: "inception_3b/pool_proj"
}
layer {
  name: "inception_3b/output"
  type: "Concat"
  bottom: "inception_3b/1x1"
  bottom: "inception_3b/3x3"
  bottom: "inception_3b/5x5"
  bottom: "inception_3b/pool_proj"
  top: "inception_3b/output"
}
layer {
  name: "pool3/3x3_s2"
  type: "Pooling"
  bottom: "inception_3b/output"
  top: "pool3/3x3_s2"
  pooling_param {
    pool: MAX
    kernel_size: 3
    stride: 2
  }
}
layer {
  name: "inception_4a/1x1"
  type: "Convolution"
  bottom: "pool3/3x3_s2"
  top: "inception_4a/1x1"
  param {
    lr_mult: 1
    decay_mult: 1
  }
  param {
    lr_mult: 2
    decay_mult: 0
  }
  convolution_param {
    num_output: 192
    kernel_size: 1
    weight_filler {
      type: "xavier"
      std: 0.03
    }
    bias_filler {
      type: "constant"
      value: 0.2
    }
  }
}
layer {
  name: "inception_4a/relu_1x1"
  type: "ReLU"
  bottom: "inception_4a/1x1"
  top: "inception_4a/1x1"
}
layer {
  name: "inception_4a/3x3_reduce"
  type: "Convolution"
  bottom: "pool3/3x3_s2"
  top: "inception_4a/3x3_reduce"
  param {
    lr_mult: 1
    decay_mult: 1
  }
  param {
    lr_mult: 2
    decay_mult: 0
  }
  convolution_param {
    num_output: 96
    kernel_size: 1
    weight_filler {
      type: "xavier"
      std: 0.09
    }
    bias_filler {
      type: "constant"
      value: 0.2
    }
  }
}
layer {
  name: "inception_4a/relu_3x3_reduce"
  type: "ReLU"
  bottom: "inception_4a/3x3_reduce"
  top: "inception_4a/3x3_reduce"
}
layer {
  name: "inception_4a/3x3"
  type: "Convolution"
  bottom: "inception_4a/3x3_reduce"
  top: "inception_4a/3x3"
  param {
    lr_mult: 1
    decay_mult: 1
  }
  param {
    lr_mult: 2
    decay_mult: 0
  }
  convolution_param {
    num_output: 208
    pad: 1
    kernel_size: 3
    weight_filler {
      type: "xavier"
      std: 0.03
    }
    bias_filler {
      type: "constant"
      value: 0.2
    }
  }
}
layer {
  name: "inception_4a/relu_3x3"
  type: "ReLU"
  bottom: "inception_4a/3x3"
  top: "inception_4a/3x3"
}
layer {
  name: "inception_4a/5x5_reduce"
  type: "Convolution"
  bottom: "pool3/3x3_s2"
  top: "inception_4a/5x5_reduce"
  param {
    lr_mult: 1
    decay_mult: 1
  }
  param {
    lr_mult: 2
    decay_mult: 0
  }
  convolution_param {
    num_output: 16
    kernel_size: 1
    weight_filler {
      type: "xavier"
      std: 0.2
    }
    bias_filler {
      type: "constant"
      value: 0.2
    }
  }
}
layer {
  name: "inception_4a/relu_5x5_reduce"
  type: "ReLU"
  bottom: "inception_4a/5x5_reduce"
  top: "inception_4a/5x5_reduce"
}
layer {
  name: "inception_4a/5x5"
  type: "Convolution"
  bottom: "inception_4a/5x5_reduce"
  top: "inception_4a/5x5"
  param {
    lr_mult: 1
    decay_mult: 1
  }
  param {
    lr_mult: 2
    decay_mult: 0
  }
  convolution_param {
    num_output: 48
    pad: 2
    kernel_size: 5
    weight_filler {
      type: "xavier"
      std: 0.03
    }
    bias_filler {
      type: "constant"
      value: 0.2
    }
  }
}
layer {
  name: "inception_4a/relu_5x5"
  type: "ReLU"
  bottom: "inception_4a/5x5"
  top: "inception_4a/5x5"
}
layer {
  name: "inception_4a/pool"
  type: "Pooling"
  bottom: "pool3/3x3_s2"
  top: "inception_4a/pool"
  pooling_param {
    pool: MAX
    kernel_size: 3
    stride: 1
    pad: 1
  }
}
layer {
  name: "inception_4a/pool_proj"
  type: "Convolution"
  bottom: "inception_4a/pool"
  top: "inception_4a/pool_proj"
  param {
    lr_mult: 1
    decay_mult: 1
  }
  param {
    lr_mult: 2
    decay_mult: 0
  }
  convolution_param {
    num_output: 64
    kernel_size: 1
    weight_filler {
      type: "xavier"
      std: 0.1
    }
    bias_filler {
      type: "constant"
      value: 0.2
    }
  }
}
layer {
  name: "inception_4a/relu_pool_proj"
  type: "ReLU"
  bottom: "inception_4a/pool_proj"
  top: "inception_4a/pool_proj"
}
layer {
  name: "inception_4a/output"
  type: "Concat"
  bottom: "inception_4a/1x1"
  bottom: "inception_4a/3x3"
  bottom: "inception_4a/5x5"
  bottom: "inception_4a/pool_proj"
  top: "inception_4a/output"
}
layer {
  name: "inception_4b/1x1"
  type: "Convolution"
  bottom: "inception_4a/output"
  top: "inception_4b/1x1"
  param {
    lr_mult: 1
    decay_mult: 1
  }
  param {
    lr_mult: 2
    decay_mult: 0
  }
  convolution_param {
    num_output: 160
    kernel_size: 1
    weight_filler {
      type: "xavier"
      std: 0.03
    }
    bias_filler {
      type: "constant"
      value: 0.2
    }
  }
}
layer {
  name: "inception_4b/relu_1x1"
  type: "ReLU"
  bottom: "inception_4b/1x1"
  top: "inception_4b/1x1"
}
layer {
  name: "inception_4b/3x3_reduce"
  type: "Convolution"
  bottom: "inception_4a/output"
  top: "inception_4b/3x3_reduce"
  param {
    lr_mult: 1
    decay_mult: 1
  }
  param {
    lr_mult: 2
    decay_mult: 0
  }
  convolution_param {
    num_output: 112
    kernel_size: 1
    weight_filler {
      type: "xavier"
      std: 0.09
    }
    bias_filler {
      type: "constant"
      value: 0.2
    }
  }
}
layer {
  name: "inception_4b/relu_3x3_reduce"
  type: "ReLU"
  bottom: "inception_4b/3x3_reduce"
  top: "inception_4b/3x3_reduce"
}
layer {
  name: "inception_4b/3x3"
  type: "Convolution"
  bottom: "inception_4b/3x3_reduce"
  top: "inception_4b/3x3"
  param {
    lr_mult: 1
    decay_mult: 1
  }
  param {
    lr_mult: 2
    decay_mult: 0
  }
  convolution_param {
    num_output: 224
    pad: 1
    kernel_size: 3
    weight_filler {
      type: "xavier"
      std: 0.03
    }
    bias_filler {
      type: "constant"
      value: 0.2
    }
  }
}
layer {
  name: "inception_4b/relu_3x3"
  type: "ReLU"
  bottom: "inception_4b/3x3"
  top: "inception_4b/3x3"
}
layer {
  name: "inception_4b/5x5_reduce"
  type: "Convolution"
  bottom: "inception_4a/output"
  top: "inception_4b/5x5_reduce"
  param {
    lr_mult: 1
    decay_mult: 1
  }
  param {
    lr_mult: 2
    decay_mult: 0
  }
  convolution_param {
    num_output: 24
    kernel_size: 1
    weight_filler {
      type: "xavier"
      std: 0.2
    }
    bias_filler {
      type: "constant"
      value: 0.2
    }
  }
}
layer {
  name: "inception_4b/relu_5x5_reduce"
  type: "ReLU"
  bottom: "inception_4b/5x5_reduce"
  top: "inception_4b/5x5_reduce"
}
layer {
  name: "inception_4b/5x5"
  type: "Convolution"
  bottom: "inception_4b/5x5_reduce"
  top: "inception_4b/5x5"
  param {
    lr_mult: 1
    decay_mult: 1
  }
  param {
    lr_mult: 2
    decay_mult: 0
  }
  convolution_param {
    num_output: 64
    pad: 2
    kernel_size: 5
    weight_filler {
      type: "xavier"
      std: 0.03
    }
    bias_filler {
      type: "constant"
      value: 0.2
    }
  }
}
layer {
  name: "inception_4b/relu_5x5"
  type: "ReLU"
  bottom: "inception_4b/5x5"
  top: "inception_4b/5x5"
}
layer {
  name: "inception_4b/pool"
  type: "Pooling"
  bottom: "inception_4a/output"
  top: "inception_4b/pool"
  pooling_param {
    pool: MAX
    kernel_size: 3
    stride: 1
    pad: 1
  }
}
layer {
  name: "inception_4b/pool_proj"
  type: "Convolution"
  bottom: "inception_4b/pool"
  top: "inception_4b/pool_proj"
  param {
    lr_mult: 1
    decay_mult: 1
  }
  param {
    lr_mult: 2
    decay_mult: 0
  }
  convolution_param {
    num_output: 64
    kernel_size: 1
    weight_filler {
      type: "xavier"
      std: 0.1
    }
    bias_filler {
      type: "constant"
      value: 0.2
    }
  }
}
layer {
  name: "inception_4b/relu_pool_proj"
  type: "ReLU"
  bottom: "inception_4b/pool_proj"
  top: "inception_4b/pool_proj"
}
layer {
  name: "inception_4b/output"
  type: "Concat"
  bottom: "inception_4b/1x1"
  bottom: "inception_4b/3x3"
  bottom: "inception_4b/5x5"
  bottom: "inception_4b/pool_proj"
  top: "inception_4b/output"
}
layer {
  name: "inception_4c/1x1"
  type: "Convolution"
  bottom: "inception_4b/output"
  top: "inception_4c/1x1"
  param {
    lr_mult: 1
    decay_mult: 1
  }
  param {
    lr_mult: 2
    decay_mult: 0
  }
  convolution_param {
    num_output: 128
    kernel_size: 1
    weight_filler {
      type: "xavier"
      std: 0.03
    }
    bias_filler {
      type: "constant"
      value: 0.2
    }
  }
}
layer {
  name: "inception_4c/relu_1x1"
  type: "ReLU"
  bottom: "inception_4c/1x1"
  top: "inception_4c/1x1"
}
layer {
  name: "inception_4c/3x3_reduce"
  type: "Convolution"
  bottom: "inception_4b/output"
  top: "inception_4c/3x3_reduce"
  param {
    lr_mult: 1
    decay_mult: 1
  }
  param {
    lr_mult: 2
    decay_mult: 0
  }
  convolution_param {
    num_output: 128
    kernel_size: 1
    weight_filler {
      type: "xavier"
      std: 0.09
    }
    bias_filler {
      type: "constant"
      value: 0.2
    }
  }
}
layer {
  name: "inception_4c/relu_3x3_reduce"
  type: "ReLU"
  bottom: "inception_4c/3x3_reduce"
  top: "inception_4c/3x3_reduce"
}
layer {
  name: "inception_4c/3x3"
  type: "Convolution"
  bottom: "inception_4c/3x3_reduce"
  top: "inception_4c/3x3"
  param {
    lr_mult: 1
    decay_mult: 1
  }
  param {
    lr_mult: 2
    decay_mult: 0
  }
  convolution_param {
    num_output: 256
    pad: 1
    kernel_size: 3
    weight_filler {
      type: "xavier"
      std: 0.03
    }
    bias_filler {
      type: "constant"
      value: 0.2
    }
  }
}
layer {
  name: "inception_4c/relu_3x3"
  type: "ReLU"
  bottom: "inception_4c/3x3"
  top: "inception_4c/3x3"
}
layer {
  name: "inception_4c/5x5_reduce"
  type: "Convolution"
  bottom: "inception_4b/output"
  top: "inception_4c/5x5_reduce"
  param {
    lr_mult: 1
    decay_mult: 1
  }
  param {
    lr_mult: 2
    decay_mult: 0
  }
  convolution_param {
    num_output: 24
    kernel_size: 1
    weight_filler {
      type: "xavier"
      std: 0.2
    }
    bias_filler {
      type: "constant"
      value: 0.2
    }
  }
}
layer {
  name: "inception_4c/relu_5x5_reduce"
  type: "ReLU"
  bottom: "inception_4c/5x5_reduce"
  top: "inception_4c/5x5_reduce"
}
layer {
  name: "inception_4c/5x5"
  type: "Convolution"
  bottom: "inception_4c/5x5_reduce"
  top: "inception_4c/5x5"
  param {
    lr_mult: 1
    decay_mult: 1
  }
  param {
    lr_mult: 2
    decay_mult: 0
  }
  convolution_param {
    num_output: 64
    pad: 2
    kernel_size: 5
    weight_filler {
      type: "xavier"
      std: 0.03
    }
    bias_filler {
      type: "constant"
      value: 0.2
    }
  }
}
layer {
  name: "inception_4c/relu_5x5"
  type: "ReLU"
  bottom: "inception_4c/5x5"
  top: "inception_4c/5x5"
}
layer {
  name: "inception_4c/pool"
  type: "Pooling"
  bottom: "inception_4b/output"
  top: "inception_4c/pool"
  pooling_param {
    pool: MAX
    kernel_size: 3
    stride: 1
    pad: 1
  }
}
layer {
  name: "inception_4c/pool_proj"
  type: "Convolution"
  bottom: "inception_4c/pool"
  top: "inception_4c/pool_proj"
  param {
    lr_mult: 1
    decay_mult: 1
  }
  param {
    lr_mult: 2
    decay_mult: 0
  }
  convolution_param {
    num_output: 64
    kernel_size: 1
    weight_filler {
      type: "xavier"
      std: 0.1
    }
    bias_filler {
      type: "constant"
      value: 0.2
    }
  }
}
layer {
  name: "inception_4c/relu_pool_proj"
  type: "ReLU"
  bottom: "inception_4c/pool_proj"
  top: "inception_4c/pool_proj"
}
layer {
  name: "inception_4c/output"
  type: "Concat"
  bottom: "inception_4c/1x1"
  bottom: "inception_4c/3x3"
  bottom: "inception_4c/5x5"
  bottom: "inception_4c/pool_proj"
  top: "inception_4c/output"
}
layer {
  name: "inception_4d/1x1"
  type: "Convolution"
  bottom: "inception_4c/output"
  top: "inception_4d/1x1"
  param {
    lr_mult: 1
    decay_mult: 1
  }
  param {
    lr_mult: 2
    decay_mult: 0
  }
  convolution_param {
    num_output: 112
    kernel_size: 1
    weight_filler {
      type: "xavier"
      std: 0.03
    }
    bias_filler {
      type: "constant"
      value: 0.2
    }
  }
}
layer {
  name: "inception_4d/relu_1x1"
  type: "ReLU"
  bottom: "inception_4d/1x1"
  top: "inception_4d/1x1"
}
layer {
  name: "inception_4d/3x3_reduce"
  type: "Convolution"
  bottom: "inception_4c/output"
  top: "inception_4d/3x3_reduce"
  param {
    lr_mult: 1
    decay_mult: 1
  }
  param {
    lr_mult: 2
    decay_mult: 0
  }
  convolution_param {
    num_output: 144
    kernel_size: 1
    weight_filler {
      type: "xavier"
      std: 0.09
    }
    bias_filler {
      type: "constant"
      value: 0.2
    }
  }
}
layer {
  name: "inception_4d/relu_3x3_reduce"
  type: "ReLU"
  bottom: "inception_4d/3x3_reduce"
  top: "inception_4d/3x3_reduce"
}
layer {
  name: "inception_4d/3x3"
  type: "Convolution"
  bottom: "inception_4d/3x3_reduce"
  top: "inception_4d/3x3"
  param {
    lr_mult: 1
    decay_mult: 1
  }
  param {
    lr_mult: 2
    decay_mult: 0
  }
  convolution_param {
    num_output: 288
    pad: 1
    kernel_size: 3
    weight_filler {
      type: "xavier"
      std: 0.03
    }
    bias_filler {
      type: "constant"
      value: 0.2
    }
  }
}
layer {
  name: "inception_4d/relu_3x3"
  type: "ReLU"
  bottom: "inception_4d/3x3"
  top: "inception_4d/3x3"
}
layer {
  name: "inception_4d/5x5_reduce"
  type: "Convolution"
  bottom: "inception_4c/output"
  top: "inception_4d/5x5_reduce"
  param {
    lr_mult: 1
    decay_mult: 1
  }
  param {
    lr_mult: 2
    decay_mult: 0
  }
  convolution_param {
    num_output: 32
    kernel_size: 1
    weight_filler {
      type: "xavier"
      std: 0.2
    }
    bias_filler {
      type: "constant"
      value: 0.2
    }
  }
}
layer {
  name: "inception_4d/relu_5x5_reduce"
  type: "ReLU"
  bottom: "inception_4d/5x5_reduce"
  top: "inception_4d/5x5_reduce"
}
layer {
  name: "inception_4d/5x5"
  type: "Convolution"
  bottom: "inception_4d/5x5_reduce"
  top: "inception_4d/5x5"
  param {
    lr_mult: 1
    decay_mult: 1
  }
  param {
    lr_mult: 2
    decay_mult: 0
  }
  convolution_param {
    num_output: 64
    pad: 2
    kernel_size: 5
    weight_filler {
      type: "xavier"
      std: 0.03
    }
    bias_filler {
      type: "constant"
      value: 0.2
    }
  }
}
layer {
  name: "inception_4d/relu_5x5"
  type: "ReLU"
  bottom: "inception_4d/5x5"
  top: "inception_4d/5x5"
}
layer {
  name: "inception_4d/pool"
  type: "Pooling"
  bottom: "inception_4c/output"
  top: "inception_4d/pool"
  pooling_param {
    pool: MAX
    kernel_size: 3
    stride: 1
    pad: 1
  }
}
layer {
  name: "inception_4d/pool_proj"
  type: "Convolution"
  bottom: "inception_4d/pool"
  top: "inception_4d/pool_proj"
  param {
    lr_mult: 1
    decay_mult: 1
  }
  param {
    lr_mult: 2
    decay_mult: 0
  }
  convolution_param {
    num_output: 64
    kernel_size: 1
    weight_filler {
      type: "xavier"
      std: 0.1
    }
    bias_filler {
      type: "constant"
      value: 0.2
    }
  }
}
layer {
  name: "inception_4d/relu_pool_proj"
  type: "ReLU"
  bottom: "inception_4d/pool_proj"
  top: "inception_4d/pool_proj"
}
layer {
  name: "inception_4d/output"
  type: "Concat"
  bottom: "inception_4d/1x1"
  bottom: "inception_4d/3x3"
  bottom: "inception_4d/5x5"
  bottom: "inception_4d/pool_proj"
  top: "inception_4d/output"
}
layer {
  name: "inception_4e/1x1"
  type: "Convolution"
  bottom: "inception_4d/output"
  top: "inception_4e/1x1"
  param {
    lr_mult: 1
    decay_mult: 1
  }
  param {
    lr_mult: 2
    decay_mult: 0
  }
  convolution_param {
    num_output: 256
    kernel_size: 1
    weight_filler {
      type: "xavier"
      std: 0.03
    }
    bias_filler {
      type: "constant"
      value: 0.2
    }
  }
}
layer {
  name: "inception_4e/relu_1x1"
  type: "ReLU"
  bottom: "inception_4e/1x1"
  top: "inception_4e/1x1"
}
layer {
  name: "inception_4e/3x3_reduce"
  type: "Convolution"
  bottom: "inception_4d/output"
  top: "inception_4e/3x3_reduce"
  param {
    lr_mult: 1
    decay_mult: 1
  }
  param {
    lr_mult: 2
    decay_mult: 0
  }
  convolution_param {
    num_output: 160
    kernel_size: 1
    weight_filler {
      type: "xavier"
      std: 0.09
    }
    bias_filler {
      type: "constant"
      value: 0.2
    }
  }
}
layer {
  name: "inception_4e/relu_3x3_reduce"
  type: "ReLU"
  bottom: "inception_4e/3x3_reduce"
  top: "inception_4e/3x3_reduce"
}
layer {
  name: "inception_4e/3x3"
  type: "Convolution"
  bottom: "inception_4e/3x3_reduce"
  top: "inception_4e/3x3"
  param {
    lr_mult: 1
    decay_mult: 1
  }
  param {
    lr_mult: 2
    decay_mult: 0
  }
  convolution_param {
    num_output: 320
    pad: 1
    kernel_size: 3
    weight_filler {
      type: "xavier"
      std: 0.03
    }
    bias_filler {
      type: "constant"
      value: 0.2
    }
  }
}
layer {
  name: "inception_4e/relu_3x3"
  type: "ReLU"
  bottom: "inception_4e/3x3"
  top: "inception_4e/3x3"
}
layer {
  name: "inception_4e/5x5_reduce"
  type: "Convolution"
  bottom: "inception_4d/output"
  top: "inception_4e/5x5_reduce"
  param {
    lr_mult: 1
    decay_mult: 1
  }
  param {
    lr_mult: 2
    decay_mult: 0
  }
  convolution_param {
    num_output: 32
    kernel_size: 1
    weight_filler {
      type: "xavier"
      std: 0.2
    }
    bias_filler {
      type: "constant"
      value: 0.2
    }
  }
}
layer {
  name: "inception_4e/relu_5x5_reduce"
  type: "ReLU"
  bottom: "inception_4e/5x5_reduce"
  top: "inception_4e/5x5_reduce"
}
layer {
  name: "inception_4e/5x5"
  type: "Convolution"
  bottom: "inception_4e/5x5_reduce"
  top: "inception_4e/5x5"
  param {
    lr_mult: 1
    decay_mult: 1
  }
  param {
    lr_mult: 2
    decay_mult: 0
  }
  convolution_param {
    num_output: 128
    pad: 2
    kernel_size: 5
    weight_filler {
      type: "xavier"
      std: 0.03
    }
    bias_filler {
      type: "constant"
      value: 0.2
    }
  }
}
layer {
  name: "inception_4e/relu_5x5"
  type: "ReLU"
  bottom: "inception_4e/5x5"
  top: "inception_4e/5x5"
}
layer {
  name: "inception_4e/pool"
  type: "Pooling"
  bottom: "inception_4d/output"
  top: "inception_4e/pool"
  pooling_param {
    pool: MAX
    kernel_size: 3
    stride: 1
    pad: 1
  }
}
layer {
  name: "inception_4e/pool_proj"
  type: "Convolution"
  bottom: "inception_4e/pool"
  top: "inception_4e/pool_proj"
  param {
    lr_mult: 1
    decay_mult: 1
  }
  param {
    lr_mult: 2
    decay_mult: 0
  }
  convolution_param {
    num_output: 128
    kernel_size: 1
    weight_filler {
      type: "xavier"
      std: 0.1
    }
    bias_filler {
      type: "constant"
      value: 0.2
    }
  }
}
layer {
  name: "inception_4e/relu_pool_proj"
  type: "ReLU"
  bottom: "inception_4e/pool_proj"
  top: "inception_4e/pool_proj"
}
layer {
  name: "inception_4e/output"
  type: "Concat"
  bottom: "inception_4e/1x1"
  bottom: "inception_4e/3x3"
  bottom: "inception_4e/5x5"
  bottom: "inception_4e/pool_proj"
  top: "inception_4e/output"
}
layer {
  name: "pool4/3x3_s2"
  type: "Pooling"
  bottom: "inception_4e/output"
  top: "pool4/3x3_s2"
  pooling_param {
    pool: MAX
    kernel_size: 3
    stride: 2
  }
}
layer {
  name: "inception_5a/1x1"
  type: "Convolution"
  bottom: "pool4/3x3_s2"
  top: "inception_5a/1x1"
  param {
    lr_mult: 1
    decay_mult: 1
  }
  param {
    lr_mult: 2
    decay_mult: 0
  }
  convolution_param {
    num_output: 256
    kernel_size: 1
    weight_filler {
      type: "xavier"
      std: 0.03
    }
    bias_filler {
      type: "constant"
      value: 0.2
    }
  }
}
layer {
  name: "inception_5a/relu_1x1"
  type: "ReLU"
  bottom: "inception_5a/1x1"
  top: "inception_5a/1x1"
}
layer {
  name: "inception_5a/3x3_reduce"
  type: "Convolution"
  bottom: "pool4/3x3_s2"
  top: "inception_5a/3x3_reduce"
  param {
    lr_mult: 1
    decay_mult: 1
  }
  param {
    lr_mult: 2
    decay_mult: 0
  }
  convolution_param {
    num_output: 160
    kernel_size: 1
    weight_filler {
      type: "xavier"
      std: 0.09
    }
    bias_filler {
      type: "constant"
      value: 0.2
    }
  }
}
layer {
  name: "inception_5a/relu_3x3_reduce"
  type: "ReLU"
  bottom: "inception_5a/3x3_reduce"
  top: "inception_5a/3x3_reduce"
}
layer {
  name: "inception_5a/3x3"
  type: "Convolution"
  bottom: "inception_5a/3x3_reduce"
  top: "inception_5a/3x3"
  param {
    lr_mult: 1
    decay_mult: 1
  }
  param {
    lr_mult: 2
    decay_mult: 0
  }
  convolution_param {
    num_output: 320
    pad: 1
    kernel_size: 3
    weight_filler {
      type: "xavier"
      std: 0.03
    }
    bias_filler {
      type: "constant"
      value: 0.2
    }
  }
}
layer {
  name: "inception_5a/relu_3x3"
  type: "ReLU"
  bottom: "inception_5a/3x3"
  top: "inception_5a/3x3"
}
layer {
  name: "inception_5a/5x5_reduce"
  type: "Convolution"
  bottom: "pool4/3x3_s2"
  top: "inception_5a/5x5_reduce"
  param {
    lr_mult: 1
    decay_mult: 1
  }
  param {
    lr_mult: 2
    decay_mult: 0
  }
  convolution_param {
    num_output: 32
    kernel_size: 1
    weight_filler {
      type: "xavier"
      std: 0.2
    }
    bias_filler {
      type: "constant"
      value: 0.2
    }
I0713 13:56:09.529789  5597 layer_factory.hpp:77] Creating layer data
I0713 13:56:09.529835  5597 net.cpp:91] Creating Layer data
I0713 13:56:09.529849  5597 net.cpp:399] data -> data
I0713 13:56:10.177067  5597 net.cpp:141] Setting up data
I0713 13:56:10.177223  5597 net.cpp:148] Top shape: 10 3 224 224 (1505280)
I0713 13:56:10.177234  5597 net.cpp:156] Memory required for data: 6021120
I0713 13:56:10.177284  5597 layer_factory.hpp:77] Creating layer conv1/7x7_s2
I0713 13:56:10.177343  5597 net.cpp:91] Creating Layer conv1/7x7_s2
I0713 13:56:10.177357  5597 net.cpp:425] conv1/7x7_s2 <- data
I0713 13:56:10.177376  5597 net.cpp:399] conv1/7x7_s2 -> conv1/7x7_s2
I0713 13:56:10.453411  5597 net.cpp:141] Setting up conv1/7x7_s2
I0713 13:56:10.453485  5597 net.cpp:148] Top shape: 10 64 112 112 (8028160)
I0713 13:56:10.453495  5597 net.cpp:156] Memory required for data: 38133760
I0713 13:56:10.453544  5597 layer_factory.hpp:77] Creating layer conv1/relu_7x7
I0713 13:56:10.453573  5597 net.cpp:91] Creating Layer conv1/relu_7x7
I0713 13:56:10.453583  5597 net.cpp:425] conv1/relu_7x7 <- conv1/7x7_s2
I0713 13:56:10.453595  5597 net.cpp:386] conv1/relu_7x7 -> conv1/7x7_s2 (in-place)
I0713 13:56:10.454553  5597 net.cpp:141] Setting up conv1/relu_7x7
I0713 13:56:10.454572  5597 net.cpp:148] Top shape: 10 64 112 112 (8028160)
I0713 13:56:10.454581  5597 net.cpp:156] Memory required for data: 70246400
I0713 13:56:10.454587  5597 layer_factory.hpp:77] Creating layer pool1/3x3_s2
I0713 13:56:10.454605  5597 net.cpp:91] Creating Layer pool1/3x3_s2
I0713 13:56:10.454612  5597 net.cpp:425] pool1/3x3_s2 <- conv1/7x7_s2
I0713 13:56:10.454633  5597 net.cpp:399] pool1/3x3_s2 -> pool1/3x3_s2
I0713 13:56:10.454776  5597 net.cpp:141] Setting up pool1/3x3_s2
I0713 13:56:10.454792  5597 net.cpp:148] Top shape: 10 64 56 56 (2007040)
I0713 13:56:10.454797  5597 net.cpp:156] Memory required for data: 78274560
I0713 13:56:10.454803  5597 layer_factory.hpp:77] Creating layer pool1/norm1
I0713 13:56:10.454825  5597 net.cpp:91] Creating Layer pool1/norm1
I0713 13:56:10.454833  5597 net.cpp:425] pool1/norm1 <- pool1/3x3_s2
I0713 13:56:10.454841  5597 net.cpp:399] pool1/norm1 -> pool1/norm1
I0713 13:56:10.455793  5597 net.cpp:141] Setting up pool1/norm1
I0713 13:56:10.455811  5597 net.cpp:148] Top shape: 10 64 56 56 (2007040)
I0713 13:56:10.455818  5597 net.cpp:156] Memory required for data: 86302720
I0713 13:56:10.455824  5597 layer_factory.hpp:77] Creating layer conv2/3x3_reduce
I0713 13:56:10.455854  5597 net.cpp:91] Creating Layer conv2/3x3_reduce
I0713 13:56:10.455862  5597 net.cpp:425] conv2/3x3_reduce <- pool1/norm1
I0713 13:56:10.455873  5597 net.cpp:399] conv2/3x3_reduce -> conv2/3x3_reduce
I0713 13:56:10.459187  5597 net.cpp:141] Setting up conv2/3x3_reduce
I0713 13:56:10.459211  5597 net.cpp:148] Top shape: 10 64 56 56 (2007040)
I0713 13:56:10.459218  5597 net.cpp:156] Memory required for data: 94330880
I0713 13:56:10.459233  5597 layer_factory.hpp:77] Creating layer conv2/relu_3x3_reduce
I0713 13:56:10.459246  5597 net.cpp:91] Creating Layer conv2/relu_3x3_reduce
I0713 13:56:10.459257  5597 net.cpp:425] conv2/relu_3x3_reduce <- conv2/3x3_reduce
I0713 13:56:10.459266  5597 net.cpp:386] conv2/relu_3x3_reduce -> conv2/3x3_reduce (in-place)
I0713 13:56:10.460167  5597 net.cpp:141] Setting up conv2/relu_3x3_reduce
I0713 13:56:10.460188  5597 net.cpp:148] Top shape: 10 64 56 56 (2007040)
I0713 13:56:10.460194  5597 net.cpp:156] Memory required for data: 102359040
I0713 13:56:10.460201  5597 layer_factory.hpp:77] Creating layer conv2/3x3
I0713 13:56:10.460222  5597 net.cpp:91] Creating Layer conv2/3x3
I0713 13:56:10.460228  5597 net.cpp:425] conv2/3x3 <- conv2/3x3_reduce
I0713 13:56:10.460243  5597 net.cpp:399] conv2/3x3 -> conv2/3x3
I0713 13:56:10.465942  5597 net.cpp:141] Setting up conv2/3x3
I0713 13:56:10.465966  5597 net.cpp:148] Top shape: 10 192 56 56 (6021120)
I0713 13:56:10.465972  5597 net.cpp:156] Memory required for data: 126443520
I0713 13:56:10.465989  5597 layer_factory.hpp:77] Creating layer conv2/relu_3x3
I0713 13:56:10.466002  5597 net.cpp:91] Creating Layer conv2/relu_3x3
I0713 13:56:10.466017  5597 net.cpp:425] conv2/relu_3x3 <- conv2/3x3
I0713 13:56:10.466032  5597 net.cpp:386] conv2/relu_3x3 -> conv2/3x3 (in-place)
I0713 13:56:10.466349  5597 net.cpp:141] Setting up conv2/relu_3x3
I0713 13:56:10.466367  5597 net.cpp:148] Top shape: 10 192 56 56 (6021120)
I0713 13:56:10.466373  5597 net.cpp:156] Memory required for data: 150528000
I0713 13:56:10.466389  5597 layer_factory.hpp:77] Creating layer conv2/norm2
I0713 13:56:10.466403  5597 net.cpp:91] Creating Layer conv2/norm2
I0713 13:56:10.466408  5597 net.cpp:425] conv2/norm2 <- conv2/3x3
I0713 13:56:10.466421  5597 net.cpp:399] conv2/norm2 -> conv2/norm2
I0713 13:56:10.467409  5597 net.cpp:141] Setting up conv2/norm2
I0713 13:56:10.467430  5597 net.cpp:148] Top shape: 10 192 56 56 (6021120)
I0713 13:56:10.467437  5597 net.cpp:156] Memory required for data: 174612480
I0713 13:56:10.467443  5597 layer_factory.hpp:77] Creating layer pool2/3x3_s2
I0713 13:56:10.467454  5597 net.cpp:91] Creating Layer pool2/3x3_s2
I0713 13:56:10.467461  5597 net.cpp:425] pool2/3x3_s2 <- conv2/norm2
I0713 13:56:10.467486  5597 net.cpp:399] pool2/3x3_s2 -> pool2/3x3_s2
I0713 13:56:10.467555  5597 net.cpp:141] Setting up pool2/3x3_s2
I0713 13:56:10.467567  5597 net.cpp:148] Top shape: 10 192 28 28 (1505280)
I0713 13:56:10.467573  5597 net.cpp:156] Memory required for data: 180633600
I0713 13:56:10.467579  5597 layer_factory.hpp:77] Creating layer pool2/3x3_s2_pool2/3x3_s2_0_split
I0713 13:56:10.467614  5597 net.cpp:91] Creating Layer pool2/3x3_s2_pool2/3x3_s2_0_split
I0713 13:56:10.467622  5597 net.cpp:425] pool2/3x3_s2_pool2/3x3_s2_0_split <- pool2/3x3_s2
I0713 13:56:10.467633  5597 net.cpp:399] pool2/3x3_s2_pool2/3x3_s2_0_split -> pool2/3x3_s2_pool2/3x3_s2_0_split_0
I0713 13:56:10.467648  5597 net.cpp:399] pool2/3x3_s2_pool2/3x3_s2_0_split -> pool2/3x3_s2_pool2/3x3_s2_0_split_1
I0713 13:56:10.467663  5597 net.cpp:399] pool2/3x3_s2_pool2/3x3_s2_0_split -> pool2/3x3_s2_pool2/3x3_s2_0_split_2
I0713 13:56:10.467674  5597 net.cpp:399] pool2/3x3_s2_pool2/3x3_s2_0_split -> pool2/3x3_s2_pool2/3x3_s2_0_split_3
I0713 13:56:10.467773  5597 net.cpp:141] Setting up pool2/3x3_s2_pool2/3x3_s2_0_split
I0713 13:56:10.467785  5597 net.cpp:148] Top shape: 10 192 28 28 (1505280)
I0713 13:56:10.467792  5597 net.cpp:148] Top shape: 10 192 28 28 (1505280)
I0713 13:56:10.467799  5597 net.cpp:148] Top shape: 10 192 28 28 (1505280)
I0713 13:56:10.467805  5597 net.cpp:148] Top shape: 10 192 28 28 (1505280)
I0713 13:56:10.467810  5597 net.cpp:156] Memory required for data: 204718080
I0713 13:56:10.467816  5597 layer_factory.hpp:77] Creating layer inception_3a/1x1
I0713 13:56:10.467834  5597 net.cpp:91] Creating Layer inception_3a/1x1
I0713 13:56:10.467841  5597 net.cpp:425] inception_3a/1x1 <- pool2/3x3_s2_pool2/3x3_s2_0_split_0
I0713 13:56:10.467875  5597 net.cpp:399] inception_3a/1x1 -> inception_3a/1x1
I0713 13:56:10.472326  5597 net.cpp:141] Setting up inception_3a/1x1
I0713 13:56:10.472347  5597 net.cpp:148] Top shape: 10 64 28 28 (501760)
I0713 13:56:10.472353  5597 net.cpp:156] Memory required for data: 206725120
I0713 13:56:10.472365  5597 layer_factory.hpp:77] Creating layer inception_3a/relu_1x1
I0713 13:56:10.472379  5597 net.cpp:91] Creating Layer inception_3a/relu_1x1
I0713 13:56:10.472388  5597 net.cpp:425] inception_3a/relu_1x1 <- inception_3a/1x1
I0713 13:56:10.472396  5597 net.cpp:386] inception_3a/relu_1x1 -> inception_3a/1x1 (in-place)
I0713 13:56:10.472705  5597 net.cpp:141] Setting up inception_3a/relu_1x1
I0713 13:56:10.472720  5597 net.cpp:148] Top shape: 10 64 28 28 (501760)
I0713 13:56:10.472725  5597 net.cpp:156] Memory required for data: 208732160
I0713 13:56:10.472731  5597 layer_factory.hpp:77] Creating layer inception_3a/3x3_reduce
I0713 13:56:10.472754  5597 net.cpp:91] Creating Layer inception_3a/3x3_reduce
I0713 13:56:10.472762  5597 net.cpp:425] inception_3a/3x3_reduce <- pool2/3x3_s2_pool2/3x3_s2_0_split_1
I0713 13:56:10.472774  5597 net.cpp:399] inception_3a/3x3_reduce -> inception_3a/3x3_reduce
I0713 13:56:10.476644  5597 net.cpp:141] Setting up inception_3a/3x3_reduce
I0713 13:56:10.476665  5597 net.cpp:148] Top shape: 10 96 28 28 (752640)
I0713 13:56:10.476671  5597 net.cpp:156] Memory required for data: 211742720
I0713 13:56:10.476691  5597 layer_factory.hpp:77] Creating layer inception_3a/relu_3x3_reduce
I0713 13:56:10.476709  5597 net.cpp:91] Creating Layer inception_3a/relu_3x3_reduce
I0713 13:56:10.476716  5597 net.cpp:425] inception_3a/relu_3x3_reduce <- inception_3a/3x3_reduce
I0713 13:56:10.476728  5597 net.cpp:386] inception_3a/relu_3x3_reduce -> inception_3a/3x3_reduce (in-place)
I0713 13:56:10.477010  5597 net.cpp:141] Setting up inception_3a/relu_3x3_reduce
I0713 13:56:10.477025  5597 net.cpp:148] Top shape: 10 96 28 28 (752640)
I0713 13:56:10.477030  5597 net.cpp:156] Memory required for data: 214753280
I0713 13:56:10.477036  5597 layer_factory.hpp:77] Creating layer inception_3a/3x3
I0713 13:56:10.477061  5597 net.cpp:91] Creating Layer inception_3a/3x3
I0713 13:56:10.477069  5597 net.cpp:425] inception_3a/3x3 <- inception_3a/3x3_reduce
I0713 13:56:10.477080  5597 net.cpp:399] inception_3a/3x3 -> inception_3a/3x3
I0713 13:56:10.480511  5597 net.cpp:141] Setting up inception_3a/3x3
I0713 13:56:10.480531  5597 net.cpp:148] Top shape: 10 128 28 28 (1003520)
I0713 13:56:10.480537  5597 net.cpp:156] Memory required for data: 218767360
I0713 13:56:10.480547  5597 layer_factory.hpp:77] Creating layer inception_3a/relu_3x3
I0713 13:56:10.480561  5597 net.cpp:91] Creating Layer inception_3a/relu_3x3
I0713 13:56:10.480568  5597 net.cpp:425] inception_3a/relu_3x3 <- inception_3a/3x3
I0713 13:56:10.480576  5597 net.cpp:386] inception_3a/relu_3x3 -> inception_3a/3x3 (in-place)
I0713 13:56:10.481391  5597 net.cpp:141] Setting up inception_3a/relu_3x3
I0713 13:56:10.481410  5597 net.cpp:148] Top shape: 10 128 28 28 (1003520)
I0713 13:56:10.481415  5597 net.cpp:156] Memory required for data: 222781440
I0713 13:56:10.481423  5597 layer_factory.hpp:77] Creating layer inception_3a/5x5_reduce
I0713 13:56:10.481441  5597 net.cpp:91] Creating Layer inception_3a/5x5_reduce
I0713 13:56:10.481448  5597 net.cpp:425] inception_3a/5x5_reduce <- pool2/3x3_s2_pool2/3x3_s2_0_split_2
I0713 13:56:10.481463  5597 net.cpp:399] inception_3a/5x5_reduce -> inception_3a/5x5_reduce
I0713 13:56:10.483876  5597 net.cpp:141] Setting up inception_3a/5x5_reduce
I0713 13:56:10.483896  5597 net.cpp:148] Top shape: 10 16 28 28 (125440)
I0713 13:56:10.483902  5597 net.cpp:156] Memory required for data: 223283200
I0713 13:56:10.483912  5597 layer_factory.hpp:77] Creating layer inception_3a/relu_5x5_reduce
I0713 13:56:10.483924  5597 net.cpp:91] Creating Layer inception_3a/relu_5x5_reduce
I0713 13:56:10.483930  5597 net.cpp:425] inception_3a/relu_5x5_reduce <- inception_3a/5x5_reduce
I0713 13:56:10.483943  5597 net.cpp:386] inception_3a/relu_5x5_reduce -> inception_3a/5x5_reduce (in-place)
I0713 13:56:10.484225  5597 net.cpp:141] Setting up inception_3a/relu_5x5_reduce
I0713 13:56:10.484241  5597 net.cpp:148] Top shape: 10 16 28 28 (125440)
I0713 13:56:10.484246  5597 net.cpp:156] Memory required for data: 223784960
I0713 13:56:10.484252  5597 layer_factory.hpp:77] Creating layer inception_3a/5x5
I0713 13:56:10.484272  5597 net.cpp:91] Creating Layer inception_3a/5x5
I0713 13:56:10.484278  5597 net.cpp:425] inception_3a/5x5 <- inception_3a/5x5_reduce
I0713 13:56:10.484288  5597 net.cpp:399] inception_3a/5x5 -> inception_3a/5x5
I0713 13:56:10.488057  5597 net.cpp:141] Setting up inception_3a/5x5
I0713 13:56:10.488077  5597 net.cpp:148] Top shape: 10 32 28 28 (250880)
I0713 13:56:10.488083  5597 net.cpp:156] Memory required for data: 224788480
I0713 13:56:10.488095  5597 layer_factory.hpp:77] Creating layer inception_3a/relu_5x5
I0713 13:56:10.488106  5597 net.cpp:91] Creating Layer inception_3a/relu_5x5
I0713 13:56:10.488111  5597 net.cpp:425] inception_3a/relu_5x5 <- inception_3a/5x5
I0713 13:56:10.488121  5597 net.cpp:386] inception_3a/relu_5x5 -> inception_3a/5x5 (in-place)
I0713 13:56:10.488405  5597 net.cpp:141] Setting up inception_3a/relu_5x5
I0713 13:56:10.488420  5597 net.cpp:148] Top shape: 10 32 28 28 (250880)
I0713 13:56:10.488425  5597 net.cpp:156] Memory required for data: 225792000
I0713 13:56:10.488430  5597 layer_factory.hpp:77] Creating layer inception_3a/pool
I0713 13:56:10.488445  5597 net.cpp:91] Creating Layer inception_3a/pool
I0713 13:56:10.488452  5597 net.cpp:425] inception_3a/pool <- pool2/3x3_s2_pool2/3x3_s2_0_split_3
I0713 13:56:10.488461  5597 net.cpp:399] inception_3a/pool -> inception_3a/pool
I0713 13:56:10.488529  5597 net.cpp:141] Setting up inception_3a/pool
I0713 13:56:10.488541  5597 net.cpp:148] Top shape: 10 192 28 28 (1505280)
I0713 13:56:10.488546  5597 net.cpp:156] Memory required for data: 231813120
I0713 13:56:10.488551  5597 layer_factory.hpp:77] Creating layer inception_3a/pool_proj
I0713 13:56:10.488570  5597 net.cpp:91] Creating Layer inception_3a/pool_proj
I0713 13:56:10.488577  5597 net.cpp:425] inception_3a/pool_proj <- inception_3a/pool
I0713 13:56:10.488590  5597 net.cpp:399] inception_3a/pool_proj -> inception_3a/pool_proj
I0713 13:56:10.490986  5597 net.cpp:141] Setting up inception_3a/pool_proj
I0713 13:56:10.491014  5597 net.cpp:148] Top shape: 10 32 28 28 (250880)
I0713 13:56:10.491019  5597 net.cpp:156] Memory required for data: 232816640
I0713 13:56:10.491037  5597 layer_factory.hpp:77] Creating layer inception_3a/relu_pool_proj
I0713 13:56:10.491049  5597 net.cpp:91] Creating Layer inception_3a/relu_pool_proj
I0713 13:56:10.491057  5597 net.cpp:425] inception_3a/relu_pool_proj <- inception_3a/pool_proj
I0713 13:56:10.491066  5597 net.cpp:386] inception_3a/relu_pool_proj -> inception_3a/pool_proj (in-place)
I0713 13:56:10.491848  5597 net.cpp:141] Setting up inception_3a/relu_pool_proj
I0713 13:56:10.491865  5597 net.cpp:148] Top shape: 10 32 28 28 (250880)
I0713 13:56:10.491871  5597 net.cpp:156] Memory required for data: 233820160
I0713 13:56:10.491878  5597 layer_factory.hpp:77] Creating layer inception_3a/output
I0713 13:56:10.491897  5597 net.cpp:91] Creating Layer inception_3a/output
I0713 13:56:10.491904  5597 net.cpp:425] inception_3a/output <- inception_3a/1x1
I0713 13:56:10.491911  5597 net.cpp:425] inception_3a/output <- inception_3a/3x3
I0713 13:56:10.491921  5597 net.cpp:425] inception_3a/output <- inception_3a/5x5
I0713 13:56:10.491927  5597 net.cpp:425] inception_3a/output <- inception_3a/pool_proj
I0713 13:56:10.491935  5597 net.cpp:399] inception_3a/output -> inception_3a/output
I0713 13:56:10.491986  5597 net.cpp:141] Setting up inception_3a/output
I0713 13:56:10.491996  5597 net.cpp:148] Top shape: 10 256 28 28 (2007040)
I0713 13:56:10.492000  5597 net.cpp:156] Memory required for data: 241848320
I0713 13:56:10.492007  5597 layer_factory.hpp:77] Creating layer inception_3a/output_inception_3a/output_0_split
I0713 13:56:10.492019  5597 net.cpp:91] Creating Layer inception_3a/output_inception_3a/output_0_split
I0713 13:56:10.492025  5597 net.cpp:425] inception_3a/output_inception_3a/output_0_split <- inception_3a/output
I0713 13:56:10.492033  5597 net.cpp:399] inception_3a/output_inception_3a/output_0_split -> inception_3a/output_inception_3a/output_0_split_0
I0713 13:56:10.492050  5597 net.cpp:399] inception_3a/output_inception_3a/output_0_split -> inception_3a/output_inception_3a/output_0_split_1
I0713 13:56:10.492060  5597 net.cpp:399] inception_3a/output_inception_3a/output_0_split -> inception_3a/output_inception_3a/output_0_split_2
I0713 13:56:10.492070  5597 net.cpp:399] inception_3a/output_inception_3a/output_0_split -> inception_3a/output_inception_3a/output_0_split_3
I0713 13:56:10.492156  5597 net.cpp:141] Setting up inception_3a/output_inception_3a/output_0_split
I0713 13:56:10.492166  5597 net.cpp:148] Top shape: 10 256 28 28 (2007040)
I0713 13:56:10.492173  5597 net.cpp:148] Top shape: 10 256 28 28 (2007040)
I0713 13:56:10.492178  5597 net.cpp:148] Top shape: 10 256 28 28 (2007040)
I0713 13:56:10.492184  5597 net.cpp:148] Top shape: 10 256 28 28 (2007040)
I0713 13:56:10.492188  5597 net.cpp:156] Memory required for data: 273960960
I0713 13:56:10.492193  5597 layer_factory.hpp:77] Creating layer inception_3b/1x1
I0713 13:56:10.492209  5597 net.cpp:91] Creating Layer inception_3b/1x1
I0713 13:56:10.492215  5597 net.cpp:425] inception_3b/1x1 <- inception_3a/output_inception_3a/output_0_split_0
I0713 13:56:10.492228  5597 net.cpp:399] inception_3b/1x1 -> inception_3b/1x1
I0713 13:56:10.494710  5597 net.cpp:141] Setting up inception_3b/1x1
I0713 13:56:10.494729  5597 net.cpp:148] Top shape: 10 128 28 28 (1003520)
I0713 13:56:10.494735  5597 net.cpp:156] Memory required for data: 277975040
I0713 13:56:10.494745  5597 layer_factory.hpp:77] Creating layer inception_3b/relu_1x1
I0713 13:56:10.494755  5597 net.cpp:91] Creating Layer inception_3b/relu_1x1
I0713 13:56:10.494761  5597 net.cpp:425] inception_3b/relu_1x1 <- inception_3b/1x1
I0713 13:56:10.494774  5597 net.cpp:386] inception_3b/relu_1x1 -> inception_3b/1x1 (in-place)
I0713 13:56:10.495030  5597 net.cpp:141] Setting up inception_3b/relu_1x1
I0713 13:56:10.495046  5597 net.cpp:148] Top shape: 10 128 28 28 (1003520)
I0713 13:56:10.495051  5597 net.cpp:156] Memory required for data: 281989120
I0713 13:56:10.495057  5597 layer_factory.hpp:77] Creating layer inception_3b/3x3_reduce
I0713 13:56:10.495071  5597 net.cpp:91] Creating Layer inception_3b/3x3_reduce
I0713 13:56:10.495076  5597 net.cpp:425] inception_3b/3x3_reduce <- inception_3a/output_inception_3a/output_0_split_1
I0713 13:56:10.495091  5597 net.cpp:399] inception_3b/3x3_reduce -> inception_3b/3x3_reduce
I0713 13:56:10.497639  5597 net.cpp:141] Setting up inception_3b/3x3_reduce
I0713 13:56:10.497658  5597 net.cpp:148] Top shape: 10 128 28 28 (1003520)
I0713 13:56:10.497663  5597 net.cpp:156] Memory required for data: 286003200
I0713 13:56:10.497674  5597 layer_factory.hpp:77] Creating layer inception_3b/relu_3x3_reduce
I0713 13:56:10.497684  5597 net.cpp:91] Creating Layer inception_3b/relu_3x3_reduce
I0713 13:56:10.497690  5597 net.cpp:425] inception_3b/relu_3x3_reduce <- inception_3b/3x3_reduce
I0713 13:56:10.497702  5597 net.cpp:386] inception_3b/relu_3x3_reduce -> inception_3b/3x3_reduce (in-place)
I0713 13:56:10.497962  5597 net.cpp:141] Setting up inception_3b/relu_3x3_reduce
I0713 13:56:10.497975  5597 net.cpp:148] Top shape: 10 128 28 28 (1003520)
I0713 13:56:10.497980  5597 net.cpp:156] Memory required for data: 290017280
I0713 13:56:10.497985  5597 layer_factory.hpp:77] Creating layer inception_3b/3x3
I0713 13:56:10.498003  5597 net.cpp:91] Creating Layer inception_3b/3x3
I0713 13:56:10.498009  5597 net.cpp:425] inception_3b/3x3 <- inception_3b/3x3_reduce
I0713 13:56:10.498023  5597 net.cpp:399] inception_3b/3x3 -> inception_3b/3x3
I0713 13:56:10.503324  5597 net.cpp:141] Setting up inception_3b/3x3
I0713 13:56:10.503345  5597 net.cpp:148] Top shape: 10 192 28 28 (1505280)
I0713 13:56:10.503351  5597 net.cpp:156] Memory required for data: 296038400
I0713 13:56:10.503365  5597 layer_factory.hpp:77] Creating layer inception_3b/relu_3x3
I0713 13:56:10.503381  5597 net.cpp:91] Creating Layer inception_3b/relu_3x3
I0713 13:56:10.503387  5597 net.cpp:425] inception_3b/relu_3x3 <- inception_3b/3x3
I0713 13:56:10.503396  5597 net.cpp:386] inception_3b/relu_3x3 -> inception_3b/3x3 (in-place)
I0713 13:56:10.504182  5597 net.cpp:141] Setting up inception_3b/relu_3x3
I0713 13:56:10.504199  5597 net.cpp:148] Top shape: 10 192 28 28 (1505280)
I0713 13:56:10.504204  5597 net.cpp:156] Memory required for data: 302059520
I0713 13:56:10.504209  5597 layer_factory.hpp:77] Creating layer inception_3b/5x5_reduce
I0713 13:56:10.504226  5597 net.cpp:91] Creating Layer inception_3b/5x5_reduce
I0713 13:56:10.504233  5597 net.cpp:425] inception_3b/5x5_reduce <- inception_3a/output_inception_3a/output_0_split_2
I0713 13:56:10.504247  5597 net.cpp:399] inception_3b/5x5_reduce -> inception_3b/5x5_reduce
I0713 13:56:10.506548  5597 net.cpp:141] Setting up inception_3b/5x5_reduce
I0713 13:56:10.506567  5597 net.cpp:148] Top shape: 10 32 28 28 (250880)
I0713 13:56:10.506572  5597 net.cpp:156] Memory required for data: 303063040
I0713 13:56:10.506582  5597 layer_factory.hpp:77] Creating layer inception_3b/relu_5x5_reduce
I0713 13:56:10.506592  5597 net.cpp:91] Creating Layer inception_3b/relu_5x5_reduce
I0713 13:56:10.506598  5597 net.cpp:425] inception_3b/relu_5x5_reduce <- inception_3b/5x5_reduce
I0713 13:56:10.506611  5597 net.cpp:386] inception_3b/relu_5x5_reduce -> inception_3b/5x5_reduce (in-place)
I0713 13:56:10.506886  5597 net.cpp:141] Setting up inception_3b/relu_5x5_reduce
I0713 13:56:10.506902  5597 net.cpp:148] Top shape: 10 32 28 28 (250880)
I0713 13:56:10.506907  5597 net.cpp:156] Memory required for data: 304066560
I0713 13:56:10.506913  5597 layer_factory.hpp:77] Creating layer inception_3b/5x5
I0713 13:56:10.506932  5597 net.cpp:91] Creating Layer inception_3b/5x5
I0713 13:56:10.506938  5597 net.cpp:425] inception_3b/5x5 <- inception_3b/5x5_reduce
I0713 13:56:10.506947  5597 net.cpp:399] inception_3b/5x5 -> inception_3b/5x5
I0713 13:56:10.511029  5597 net.cpp:141] Setting up inception_3b/5x5
I0713 13:56:10.511049  5597 net.cpp:148] Top shape: 10 96 28 28 (752640)
I0713 13:56:10.511054  5597 net.cpp:156] Memory required for data: 307077120
I0713 13:56:10.511065  5597 layer_factory.hpp:77] Creating layer inception_3b/relu_5x5
I0713 13:56:10.511077  5597 net.cpp:91] Creating Layer inception_3b/relu_5x5
I0713 13:56:10.511085  5597 net.cpp:425] inception_3b/relu_5x5 <- inception_3b/5x5
I0713 13:56:10.511092  5597 net.cpp:386] inception_3b/relu_5x5 -> inception_3b/5x5 (in-place)
I0713 13:56:10.511355  5597 net.cpp:141] Setting up inception_3b/relu_5x5
I0713 13:56:10.511368  5597 net.cpp:148] Top shape: 10 96 28 28 (752640)
I0713 13:56:10.511374  5597 net.cpp:156] Memory required for data: 310087680
I0713 13:56:10.511379  5597 layer_factory.hpp:77] Creating layer inception_3b/pool
I0713 13:56:10.511394  5597 net.cpp:91] Creating Layer inception_3b/pool
I0713 13:56:10.511400  5597 net.cpp:425] inception_3b/pool <- inception_3a/output_inception_3a/output_0_split_3
I0713 13:56:10.511412  5597 net.cpp:399] inception_3b/pool -> inception_3b/pool
I0713 13:56:10.511477  5597 net.cpp:141] Setting up inception_3b/pool
I0713 13:56:10.511488  5597 net.cpp:148] Top shape: 10 256 28 28 (2007040)
I0713 13:56:10.511493  5597 net.cpp:156] Memory required for data: 318115840
I0713 13:56:10.511498  5597 layer_factory.hpp:77] Creating layer inception_3b/pool_proj
I0713 13:56:10.511518  5597 net.cpp:91] Creating Layer inception_3b/pool_proj
I0713 13:56:10.511525  5597 net.cpp:425] inception_3b/pool_proj <- inception_3b/pool
I0713 13:56:10.511538  5597 net.cpp:399] inception_3b/pool_proj -> inception_3b/pool_proj
I0713 13:56:10.513936  5597 net.cpp:141] Setting up inception_3b/pool_proj
I0713 13:56:10.513957  5597 net.cpp:148] Top shape: 10 64 28 28 (501760)
I0713 13:56:10.513963  5597 net.cpp:156] Memory required for data: 320122880
I0713 13:56:10.513973  5597 layer_factory.hpp:77] Creating layer inception_3b/relu_pool_proj
I0713 13:56:10.513983  5597 net.cpp:91] Creating Layer inception_3b/relu_pool_proj
I0713 13:56:10.513989  5597 net.cpp:425] inception_3b/relu_pool_proj <- inception_3b/pool_proj
I0713 13:56:10.513998  5597 net.cpp:386] inception_3b/relu_pool_proj -> inception_3b/pool_proj (in-place)
I0713 13:56:10.514812  5597 net.cpp:141] Setting up inception_3b/relu_pool_proj
I0713 13:56:10.514828  5597 net.cpp:148] Top shape: 10 64 28 28 (501760)
I0713 13:56:10.514833  5597 net.cpp:156] Memory required for data: 322129920
I0713 13:56:10.514839  5597 layer_factory.hpp:77] Creating layer inception_3b/output
I0713 13:56:10.514849  5597 net.cpp:91] Creating Layer inception_3b/output
I0713 13:56:10.514855  5597 net.cpp:425] inception_3b/output <- inception_3b/1x1
I0713 13:56:10.514863  5597 net.cpp:425] inception_3b/output <- inception_3b/3x3
I0713 13:56:10.514869  5597 net.cpp:425] inception_3b/output <- inception_3b/5x5
I0713 13:56:10.514874  5597 net.cpp:425] inception_3b/output <- inception_3b/pool_proj
I0713 13:56:10.514883  5597 net.cpp:399] inception_3b/output -> inception_3b/output
I0713 13:56:10.514930  5597 net.cpp:141] Setting up inception_3b/output
I0713 13:56:10.514941  5597 net.cpp:148] Top shape: 10 480 28 28 (3763200)
I0713 13:56:10.514946  5597 net.cpp:156] Memory required for data: 337182720
I0713 13:56:10.514951  5597 layer_factory.hpp:77] Creating layer pool3/3x3_s2
I0713 13:56:10.514964  5597 net.cpp:91] Creating Layer pool3/3x3_s2
I0713 13:56:10.514971  5597 net.cpp:425] pool3/3x3_s2 <- inception_3b/output
I0713 13:56:10.514977  5597 net.cpp:399] pool3/3x3_s2 -> pool3/3x3_s2
I0713 13:56:10.515044  5597 net.cpp:141] Setting up pool3/3x3_s2
I0713 13:56:10.515055  5597 net.cpp:148] Top shape: 10 480 14 14 (940800)
I0713 13:56:10.515060  5597 net.cpp:156] Memory required for data: 340945920
I0713 13:56:10.515065  5597 layer_factory.hpp:77] Creating layer pool3/3x3_s2_pool3/3x3_s2_0_split
I0713 13:56:10.515079  5597 net.cpp:91] Creating Layer pool3/3x3_s2_pool3/3x3_s2_0_split
I0713 13:56:10.515085  5597 net.cpp:425] pool3/3x3_s2_pool3/3x3_s2_0_split <- pool3/3x3_s2
I0713 13:56:10.515094  5597 net.cpp:399] pool3/3x3_s2_pool3/3x3_s2_0_split -> pool3/3x3_s2_pool3/3x3_s2_0_split_0
I0713 13:56:10.515102  5597 net.cpp:399] pool3/3x3_s2_pool3/3x3_s2_0_split -> pool3/3x3_s2_pool3/3x3_s2_0_split_1
I0713 13:56:10.515111  5597 net.cpp:399] pool3/3x3_s2_pool3/3x3_s2_0_split -> pool3/3x3_s2_pool3/3x3_s2_0_split_2
I0713 13:56:10.515125  5597 net.cpp:399] pool3/3x3_s2_pool3/3x3_s2_0_split -> pool3/3x3_s2_pool3/3x3_s2_0_split_3
I0713 13:56:10.515210  5597 net.cpp:141] Setting up pool3/3x3_s2_pool3/3x3_s2_0_split
I0713 13:56:10.515220  5597 net.cpp:148] Top shape: 10 480 14 14 (940800)
I0713 13:56:10.515228  5597 net.cpp:148] Top shape: 10 480 14 14 (940800)
I0713 13:56:10.515233  5597 net.cpp:148] Top shape: 10 480 14 14 (940800)
I0713 13:56:10.515239  5597 net.cpp:148] Top shape: 10 480 14 14 (940800)
I0713 13:56:10.515242  5597 net.cpp:156] Memory required for data: 355998720
I0713 13:56:10.515247  5597 layer_factory.hpp:77] Creating layer inception_4a/1x1
I0713 13:56:10.515270  5597 net.cpp:91] Creating Layer inception_4a/1x1
I0713 13:56:10.515276  5597 net.cpp:425] inception_4a/1x1 <- pool3/3x3_s2_pool3/3x3_s2_0_split_0
I0713 13:56:10.515290  5597 net.cpp:399] inception_4a/1x1 -> inception_4a/1x1
I0713 13:56:10.519001  5597 net.cpp:141] Setting up inception_4a/1x1
I0713 13:56:10.519019  5597 net.cpp:148] Top shape: 10 192 14 14 (376320)
I0713 13:56:10.519026  5597 net.cpp:156] Memory required for data: 357504000
I0713 13:56:10.519035  5597 layer_factory.hpp:77] Creating layer inception_4a/relu_1x1
I0713 13:56:10.519049  5597 net.cpp:91] Creating Layer inception_4a/relu_1x1
I0713 13:56:10.519057  5597 net.cpp:425] inception_4a/relu_1x1 <- inception_4a/1x1
I0713 13:56:10.519065  5597 net.cpp:386] inception_4a/relu_1x1 -> inception_4a/1x1 (in-place)
I0713 13:56:10.519340  5597 net.cpp:141] Setting up inception_4a/relu_1x1
I0713 13:56:10.519353  5597 net.cpp:148] Top shape: 10 192 14 14 (376320)
I0713 13:56:10.519359  5597 net.cpp:156] Memory required for data: 359009280
I0713 13:56:10.519372  5597 layer_factory.hpp:77] Creating layer inception_4a/3x3_reduce
I0713 13:56:10.519392  5597 net.cpp:91] Creating Layer inception_4a/3x3_reduce
I0713 13:56:10.519398  5597 net.cpp:425] inception_4a/3x3_reduce <- pool3/3x3_s2_pool3/3x3_s2_0_split_1
I0713 13:56:10.519412  5597 net.cpp:399] inception_4a/3x3_reduce -> inception_4a/3x3_reduce
I0713 13:56:10.522107  5597 net.cpp:141] Setting up inception_4a/3x3_reduce
I0713 13:56:10.522126  5597 net.cpp:148] Top shape: 10 96 14 14 (188160)
I0713 13:56:10.522132  5597 net.cpp:156] Memory required for data: 359761920
I0713 13:56:10.522153  5597 layer_factory.hpp:77] Creating layer inception_4a/relu_3x3_reduce
I0713 13:56:10.522164  5597 net.cpp:91] Creating Layer inception_4a/relu_3x3_reduce
I0713 13:56:10.522171  5597 net.cpp:425] inception_4a/relu_3x3_reduce <- inception_4a/3x3_reduce
I0713 13:56:10.522187  5597 net.cpp:386] inception_4a/relu_3x3_reduce -> inception_4a/3x3_reduce (in-place)
I0713 13:56:10.522449  5597 net.cpp:141] Setting up inception_4a/relu_3x3_reduce
I0713 13:56:10.522462  5597 net.cpp:148] Top shape: 10 96 14 14 (188160)
I0713 13:56:10.522467  5597 net.cpp:156] Memory required for data: 360514560
I0713 13:56:10.522474  5597 layer_factory.hpp:77] Creating layer inception_4a/3x3
I0713 13:56:10.522490  5597 net.cpp:91] Creating Layer inception_4a/3x3
I0713 13:56:10.522496  5597 net.cpp:425] inception_4a/3x3 <- inception_4a/3x3_reduce
I0713 13:56:10.522510  5597 net.cpp:399] inception_4a/3x3 -> inception_4a/3x3
I0713 13:56:10.527508  5597 net.cpp:141] Setting up inception_4a/3x3
I0713 13:56:10.527529  5597 net.cpp:148] Top shape: 10 208 14 14 (407680)
I0713 13:56:10.527534  5597 net.cpp:156] Memory required for data: 362145280
I0713 13:56:10.527550  5597 layer_factory.hpp:77] Creating layer inception_4a/relu_3x3
I0713 13:56:10.527561  5597 net.cpp:91] Creating Layer inception_4a/relu_3x3
I0713 13:56:10.527567  5597 net.cpp:425] inception_4a/relu_3x3 <- inception_4a/3x3
I0713 13:56:10.527585  5597 net.cpp:386] inception_4a/relu_3x3 -> inception_4a/3x3 (in-place)
I0713 13:56:10.528393  5597 net.cpp:141] Setting up inception_4a/relu_3x3
I0713 13:56:10.528408  5597 net.cpp:148] Top shape: 10 208 14 14 (407680)
I0713 13:56:10.528414  5597 net.cpp:156] Memory required for data: 363776000
I0713 13:56:10.528419  5597 layer_factory.hpp:77] Creating layer inception_4a/5x5_reduce
I0713 13:56:10.528436  5597 net.cpp:91] Creating Layer inception_4a/5x5_reduce
I0713 13:56:10.528451  5597 net.cpp:425] inception_4a/5x5_reduce <- pool3/3x3_s2_pool3/3x3_s2_0_split_2
I0713 13:56:10.528465  5597 net.cpp:399] inception_4a/5x5_reduce -> inception_4a/5x5_reduce
I0713 13:56:10.530839  5597 net.cpp:141] Setting up inception_4a/5x5_reduce
I0713 13:56:10.530858  5597 net.cpp:148] Top shape: 10 16 14 14 (31360)
I0713 13:56:10.530864  5597 net.cpp:156] Memory required for data: 363901440
I0713 13:56:10.530874  5597 layer_factory.hpp:77] Creating layer inception_4a/relu_5x5_reduce
I0713 13:56:10.530885  5597 net.cpp:91] Creating Layer inception_4a/relu_5x5_reduce
I0713 13:56:10.530891  5597 net.cpp:425] inception_4a/relu_5x5_reduce <- inception_4a/5x5_reduce
I0713 13:56:10.530903  5597 net.cpp:386] inception_4a/relu_5x5_reduce -> inception_4a/5x5_reduce (in-place)
I0713 13:56:10.531172  5597 net.cpp:141] Setting up inception_4a/relu_5x5_reduce
I0713 13:56:10.531185  5597 net.cpp:148] Top shape: 10 16 14 14 (31360)
I0713 13:56:10.531190  5597 net.cpp:156] Memory required for data: 364026880
I0713 13:56:10.531196  5597 layer_factory.hpp:77] Creating layer inception_4a/5x5
I0713 13:56:10.531224  5597 net.cpp:91] Creating Layer inception_4a/5x5
I0713 13:56:10.531230  5597 net.cpp:425] inception_4a/5x5 <- inception_4a/5x5_reduce
I0713 13:56:10.531242  5597 net.cpp:399] inception_4a/5x5 -> inception_4a/5x5
I0713 13:56:10.533648  5597 net.cpp:141] Setting up inception_4a/5x5
I0713 13:56:10.533665  5597 net.cpp:148] Top shape: 10 48 14 14 (94080)
I0713 13:56:10.533671  5597 net.cpp:156] Memory required for data: 364403200
I0713 13:56:10.533681  5597 layer_factory.hpp:77] Creating layer inception_4a/relu_5x5
I0713 13:56:10.533694  5597 net.cpp:91] Creating Layer inception_4a/relu_5x5
I0713 13:56:10.533700  5597 net.cpp:425] inception_4a/relu_5x5 <- inception_4a/5x5
I0713 13:56:10.533709  5597 net.cpp:386] inception_4a/relu_5x5 -> inception_4a/5x5 (in-place)
I0713 13:56:10.533969  5597 net.cpp:141] Setting up inception_4a/relu_5x5
I0713 13:56:10.533982  5597 net.cpp:148] Top shape: 10 48 14 14 (94080)
I0713 13:56:10.533987  5597 net.cpp:156] Memory required for data: 364779520
I0713 13:56:10.533998  5597 layer_factory.hpp:77] Creating layer inception_4a/pool
I0713 13:56:10.534013  5597 net.cpp:91] Creating Layer inception_4a/pool
I0713 13:56:10.534019  5597 net.cpp:425] inception_4a/pool <- pool3/3x3_s2_pool3/3x3_s2_0_split_3
I0713 13:56:10.534032  5597 net.cpp:399] inception_4a/pool -> inception_4a/pool
I0713 13:56:10.534101  5597 net.cpp:141] Setting up inception_4a/pool
I0713 13:56:10.534111  5597 net.cpp:148] Top shape: 10 480 14 14 (940800)
I0713 13:56:10.534116  5597 net.cpp:156] Memory required for data: 368542720
I0713 13:56:10.534121  5597 layer_factory.hpp:77] Creating layer inception_4a/pool_proj
I0713 13:56:10.534137  5597 net.cpp:91] Creating Layer inception_4a/pool_proj
I0713 13:56:10.534144  5597 net.cpp:425] inception_4a/pool_proj <- inception_4a/pool
I0713 13:56:10.534157  5597 net.cpp:399] inception_4a/pool_proj -> inception_4a/pool_proj
I0713 13:56:10.536677  5597 net.cpp:141] Setting up inception_4a/pool_proj
I0713 13:56:10.536696  5597 net.cpp:148] Top shape: 10 64 14 14 (125440)
I0713 13:56:10.536701  5597 net.cpp:156] Memory required for data: 369044480
I0713 13:56:10.536712  5597 layer_factory.hpp:77] Creating layer inception_4a/relu_pool_proj
I0713 13:56:10.536725  5597 net.cpp:91] Creating Layer inception_4a/relu_pool_proj
I0713 13:56:10.536733  5597 net.cpp:425] inception_4a/relu_pool_proj <- inception_4a/pool_proj
I0713 13:56:10.536742  5597 net.cpp:386] inception_4a/relu_pool_proj -> inception_4a/pool_proj (in-place)
I0713 13:56:10.537540  5597 net.cpp:141] Setting up inception_4a/relu_pool_proj
I0713 13:56:10.537555  5597 net.cpp:148] Top shape: 10 64 14 14 (125440)
I0713 13:56:10.537560  5597 net.cpp:156] Memory required for data: 369546240
I0713 13:56:10.537566  5597 layer_factory.hpp:77] Creating layer inception_4a/output
I0713 13:56:10.537580  5597 net.cpp:91] Creating Layer inception_4a/output
I0713 13:56:10.537587  5597 net.cpp:425] inception_4a/output <- inception_4a/1x1
I0713 13:56:10.537595  5597 net.cpp:425] inception_4a/output <- inception_4a/3x3
I0713 13:56:10.537600  5597 net.cpp:425] inception_4a/output <- inception_4a/5x5
I0713 13:56:10.537606  5597 net.cpp:425] inception_4a/output <- inception_4a/pool_proj
I0713 13:56:10.537613  5597 net.cpp:399] inception_4a/output -> inception_4a/output
I0713 13:56:10.537662  5597 net.cpp:141] Setting up inception_4a/output
I0713 13:56:10.537673  5597 net.cpp:148] Top shape: 10 512 14 14 (1003520)
I0713 13:56:10.537678  5597 net.cpp:156] Memory required for data: 373560320
I0713 13:56:10.537683  5597 layer_factory.hpp:77] Creating layer inception_4a/output_inception_4a/output_0_split
I0713 13:56:10.537693  5597 net.cpp:91] Creating Layer inception_4a/output_inception_4a/output_0_split
I0713 13:56:10.537698  5597 net.cpp:425] inception_4a/output_inception_4a/output_0_split <- inception_4a/output
I0713 13:56:10.537709  5597 net.cpp:399] inception_4a/output_inception_4a/output_0_split -> inception_4a/output_inception_4a/output_0_split_0
I0713 13:56:10.537720  5597 net.cpp:399] inception_4a/output_inception_4a/output_0_split -> inception_4a/output_inception_4a/output_0_split_1
I0713 13:56:10.537730  5597 net.cpp:399] inception_4a/output_inception_4a/output_0_split -> inception_4a/output_inception_4a/output_0_split_2
I0713 13:56:10.537739  5597 net.cpp:399] inception_4a/output_inception_4a/output_0_split -> inception_4a/output_inception_4a/output_0_split_3
I0713 13:56:10.537848  5597 net.cpp:141] Setting up inception_4a/output_inception_4a/output_0_split
I0713 13:56:10.537858  5597 net.cpp:148] Top shape: 10 512 14 14 (1003520)
I0713 13:56:10.537864  5597 net.cpp:148] Top shape: 10 512 14 14 (1003520)
I0713 13:56:10.537870  5597 net.cpp:148] Top shape: 10 512 14 14 (1003520)
I0713 13:56:10.537876  5597 net.cpp:148] Top shape: 10 512 14 14 (1003520)
I0713 13:56:10.537880  5597 net.cpp:156] Memory required for data: 389616640
I0713 13:56:10.537885  5597 layer_factory.hpp:77] Creating layer inception_4b/1x1
I0713 13:56:10.537904  5597 net.cpp:91] Creating Layer inception_4b/1x1
I0713 13:56:10.537911  5597 net.cpp:425] inception_4b/1x1 <- inception_4a/output_inception_4a/output_0_split_0
I0713 13:56:10.537921  5597 net.cpp:399] inception_4b/1x1 -> inception_4b/1x1
I0713 13:56:10.540884  5597 net.cpp:141] Setting up inception_4b/1x1
I0713 13:56:10.540904  5597 net.cpp:148] Top shape: 10 160 14 14 (313600)
I0713 13:56:10.540910  5597 net.cpp:156] Memory required for data: 390871040
I0713 13:56:10.540921  5597 layer_factory.hpp:77] Creating layer inception_4b/relu_1x1
I0713 13:56:10.540931  5597 net.cpp:91] Creating Layer inception_4b/relu_1x1
I0713 13:56:10.540937  5597 net.cpp:425] inception_4b/relu_1x1 <- inception_4b/1x1
I0713 13:56:10.540946  5597 net.cpp:386] inception_4b/relu_1x1 -> inception_4b/1x1 (in-place)
I0713 13:56:10.541208  5597 net.cpp:141] Setting up inception_4b/relu_1x1
I0713 13:56:10.541220  5597 net.cpp:148] Top shape: 10 160 14 14 (313600)
I0713 13:56:10.541225  5597 net.cpp:156] Memory required for data: 392125440
I0713 13:56:10.541231  5597 layer_factory.hpp:77] Creating layer inception_4b/3x3_reduce
I0713 13:56:10.541249  5597 net.cpp:91] Creating Layer inception_4b/3x3_reduce
I0713 13:56:10.541255  5597 net.cpp:425] inception_4b/3x3_reduce <- inception_4a/output_inception_4a/output_0_split_1
I0713 13:56:10.541268  5597 net.cpp:399] inception_4b/3x3_reduce -> inception_4b/3x3_reduce
I0713 13:56:10.544049  5597 net.cpp:141] Setting up inception_4b/3x3_reduce
I0713 13:56:10.544067  5597 net.cpp:148] Top shape: 10 112 14 14 (219520)
I0713 13:56:10.544073  5597 net.cpp:156] Memory required for data: 393003520
I0713 13:56:10.544083  5597 layer_factory.hpp:77] Creating layer inception_4b/relu_3x3_reduce
I0713 13:56:10.544097  5597 net.cpp:91] Creating Layer inception_4b/relu_3x3_reduce
I0713 13:56:10.544104  5597 net.cpp:425] inception_4b/relu_3x3_reduce <- inception_4b/3x3_reduce
I0713 13:56:10.544112  5597 net.cpp:386] inception_4b/relu_3x3_reduce -> inception_4b/3x3_reduce (in-place)
I0713 13:56:10.544379  5597 net.cpp:141] Setting up inception_4b/relu_3x3_reduce
I0713 13:56:10.544392  5597 net.cpp:148] Top shape: 10 112 14 14 (219520)
I0713 13:56:10.544397  5597 net.cpp:156] Memory required for data: 393881600
I0713 13:56:10.544402  5597 layer_factory.hpp:77] Creating layer inception_4b/3x3
I0713 13:56:10.544420  5597 net.cpp:91] Creating Layer inception_4b/3x3
I0713 13:56:10.544426  5597 net.cpp:425] inception_4b/3x3 <- inception_4b/3x3_reduce
I0713 13:56:10.544437  5597 net.cpp:399] inception_4b/3x3 -> inception_4b/3x3
I0713 13:56:10.550398  5597 net.cpp:141] Setting up inception_4b/3x3
I0713 13:56:10.550418  5597 net.cpp:148] Top shape: 10 224 14 14 (439040)
I0713 13:56:10.550425  5597 net.cpp:156] Memory required for data: 395637760
I0713 13:56:10.550434  5597 layer_factory.hpp:77] Creating layer inception_4b/relu_3x3
I0713 13:56:10.550447  5597 net.cpp:91] Creating Layer inception_4b/relu_3x3
I0713 13:56:10.550454  5597 net.cpp:425] inception_4b/relu_3x3 <- inception_4b/3x3
I0713 13:56:10.550462  5597 net.cpp:386] inception_4b/relu_3x3 -> inception_4b/3x3 (in-place)
I0713 13:56:10.551286  5597 net.cpp:141] Setting up inception_4b/relu_3x3
I0713 13:56:10.551304  5597 net.cpp:148] Top shape: 10 224 14 14 (439040)
I0713 13:56:10.551311  5597 net.cpp:156] Memory required for data: 397393920
I0713 13:56:10.551316  5597 layer_factory.hpp:77] Creating layer inception_4b/5x5_reduce
I0713 13:56:10.551344  5597 net.cpp:91] Creating Layer inception_4b/5x5_reduce
I0713 13:56:10.551352  5597 net.cpp:425] inception_4b/5x5_reduce <- inception_4a/output_inception_4a/output_0_split_2
I0713 13:56:10.551364  5597 net.cpp:399] inception_4b/5x5_reduce -> inception_4b/5x5_reduce
I0713 13:56:10.553793  5597 net.cpp:141] Setting up inception_4b/5x5_reduce
I0713 13:56:10.553812  5597 net.cpp:148] Top shape: 10 24 14 14 (47040)
I0713 13:56:10.553817  5597 net.cpp:156] Memory required for data: 397582080
I0713 13:56:10.553828  5597 layer_factory.hpp:77] Creating layer inception_4b/relu_5x5_reduce
I0713 13:56:10.553843  5597 net.cpp:91] Creating Layer inception_4b/relu_5x5_reduce
I0713 13:56:10.553849  5597 net.cpp:425] inception_4b/relu_5x5_reduce <- inception_4b/5x5_reduce
I0713 13:56:10.553858  5597 net.cpp:386] inception_4b/relu_5x5_reduce -> inception_4b/5x5_reduce (in-place)
I0713 13:56:10.554131  5597 net.cpp:141] Setting up inception_4b/relu_5x5_reduce
I0713 13:56:10.554144  5597 net.cpp:148] Top shape: 10 24 14 14 (47040)
I0713 13:56:10.554149  5597 net.cpp:156] Memory required for data: 397770240
I0713 13:56:10.554154  5597 layer_factory.hpp:77] Creating layer inception_4b/5x5
I0713 13:56:10.554173  5597 net.cpp:91] Creating Layer inception_4b/5x5
I0713 13:56:10.554179  5597 net.cpp:425] inception_4b/5x5 <- inception_4b/5x5_reduce
I0713 13:56:10.554193  5597 net.cpp:399] inception_4b/5x5 -> inception_4b/5x5
I0713 13:56:10.557934  5597 net.cpp:141] Setting up inception_4b/5x5
I0713 13:56:10.557952  5597 net.cpp:148] Top shape: 10 64 14 14 (125440)
I0713 13:56:10.557958  5597 net.cpp:156] Memory required for data: 398272000
I0713 13:56:10.557970  5597 layer_factory.hpp:77] Creating layer inception_4b/relu_5x5
I0713 13:56:10.557982  5597 net.cpp:91] Creating Layer inception_4b/relu_5x5
I0713 13:56:10.557991  5597 net.cpp:425] inception_4b/relu_5x5 <- inception_4b/5x5
I0713 13:56:10.557998  5597 net.cpp:386] inception_4b/relu_5x5 -> inception_4b/5x5 (in-place)
I0713 13:56:10.558269  5597 net.cpp:141] Setting up inception_4b/relu_5x5
I0713 13:56:10.558281  5597 net.cpp:148] Top shape: 10 64 14 14 (125440)
I0713 13:56:10.558286  5597 net.cpp:156] Memory required for data: 398773760
I0713 13:56:10.558292  5597 layer_factory.hpp:77] Creating layer inception_4b/pool
I0713 13:56:10.558306  5597 net.cpp:91] Creating Layer inception_4b/pool
I0713 13:56:10.558313  5597 net.cpp:425] inception_4b/pool <- inception_4a/output_inception_4a/output_0_split_3
I0713 13:56:10.558325  5597 net.cpp:399] inception_4b/pool -> inception_4b/pool
I0713 13:56:10.558395  5597 net.cpp:141] Setting up inception_4b/pool
I0713 13:56:10.558405  5597 net.cpp:148] Top shape: 10 512 14 14 (1003520)
I0713 13:56:10.558410  5597 net.cpp:156] Memory required for data: 402787840
I0713 13:56:10.558415  5597 layer_factory.hpp:77] Creating layer inception_4b/pool_proj
I0713 13:56:10.558432  5597 net.cpp:91] Creating Layer inception_4b/pool_proj
I0713 13:56:10.558439  5597 net.cpp:425] inception_4b/pool_proj <- inception_4b/pool
I0713 13:56:10.558456  5597 net.cpp:399] inception_4b/pool_proj -> inception_4b/pool_proj
I0713 13:56:10.561038  5597 net.cpp:141] Setting up inception_4b/pool_proj
I0713 13:56:10.561056  5597 net.cpp:148] Top shape: 10 64 14 14 (125440)
I0713 13:56:10.561063  5597 net.cpp:156] Memory required for data: 403289600
I0713 13:56:10.561072  5597 layer_factory.hpp:77] Creating layer inception_4b/relu_pool_proj
I0713 13:56:10.561084  5597 net.cpp:91] Creating Layer inception_4b/relu_pool_proj
I0713 13:56:10.561089  5597 net.cpp:425] inception_4b/relu_pool_proj <- inception_4b/pool_proj
I0713 13:56:10.561101  5597 net.cpp:386] inception_4b/relu_pool_proj -> inception_4b/pool_proj (in-place)
I0713 13:56:10.561905  5597 net.cpp:141] Setting up inception_4b/relu_pool_proj
I0713 13:56:10.561923  5597 net.cpp:148] Top shape: 10 64 14 14 (125440)
I0713 13:56:10.561928  5597 net.cpp:156] Memory required for data: 403791360
I0713 13:56:10.561934  5597 layer_factory.hpp:77] Creating layer inception_4b/output
I0713 13:56:10.561944  5597 net.cpp:91] Creating Layer inception_4b/output
I0713 13:56:10.561950  5597 net.cpp:425] inception_4b/output <- inception_4b/1x1
I0713 13:56:10.561957  5597 net.cpp:425] inception_4b/output <- inception_4b/3x3
I0713 13:56:10.561964  5597 net.cpp:425] inception_4b/output <- inception_4b/5x5
I0713 13:56:10.561969  5597 net.cpp:425] inception_4b/output <- inception_4b/pool_proj
I0713 13:56:10.561981  5597 net.cpp:399] inception_4b/output -> inception_4b/output
I0713 13:56:10.562031  5597 net.cpp:141] Setting up inception_4b/output
I0713 13:56:10.562042  5597 net.cpp:148] Top shape: 10 512 14 14 (1003520)
I0713 13:56:10.562047  5597 net.cpp:156] Memory required for data: 407805440
I0713 13:56:10.562052  5597 layer_factory.hpp:77] Creating layer inception_4b/output_inception_4b/output_0_split
I0713 13:56:10.562062  5597 net.cpp:91] Creating Layer inception_4b/output_inception_4b/output_0_split
I0713 13:56:10.562067  5597 net.cpp:425] inception_4b/output_inception_4b/output_0_split <- inception_4b/output
I0713 13:56:10.562074  5597 net.cpp:399] inception_4b/output_inception_4b/output_0_split -> inception_4b/output_inception_4b/output_0_split_0
I0713 13:56:10.562089  5597 net.cpp:399] inception_4b/output_inception_4b/output_0_split -> inception_4b/output_inception_4b/output_0_split_1
I0713 13:56:10.562099  5597 net.cpp:399] inception_4b/output_inception_4b/output_0_split -> inception_4b/output_inception_4b/output_0_split_2
I0713 13:56:10.562109  5597 net.cpp:399] inception_4b/output_inception_4b/output_0_split -> inception_4b/output_inception_4b/output_0_split_3
I0713 13:56:10.562209  5597 net.cpp:141] Setting up inception_4b/output_inception_4b/output_0_split
I0713 13:56:10.562219  5597 net.cpp:148] Top shape: 10 512 14 14 (1003520)
I0713 13:56:10.562227  5597 net.cpp:148] Top shape: 10 512 14 14 (1003520)
I0713 13:56:10.562232  5597 net.cpp:148] Top shape: 10 512 14 14 (1003520)
I0713 13:56:10.562237  5597 net.cpp:148] Top shape: 10 512 14 14 (1003520)
I0713 13:56:10.562242  5597 net.cpp:156] Memory required for data: 423861760
I0713 13:56:10.562247  5597 layer_factory.hpp:77] Creating layer inception_4c/1x1
I0713 13:56:10.562266  5597 net.cpp:91] Creating Layer inception_4c/1x1
I0713 13:56:10.562273  5597 net.cpp:425] inception_4c/1x1 <- inception_4b/output_inception_4b/output_0_split_0
I0713 13:56:10.562283  5597 net.cpp:399] inception_4c/1x1 -> inception_4c/1x1
I0713 13:56:10.565145  5597 net.cpp:141] Setting up inception_4c/1x1
I0713 13:56:10.565163  5597 net.cpp:148] Top shape: 10 128 14 14 (250880)
I0713 13:56:10.565170  5597 net.cpp:156] Memory required for data: 424865280
I0713 13:56:10.565181  5597 layer_factory.hpp:77] Creating layer inception_4c/relu_1x1
I0713 13:56:10.565194  5597 net.cpp:91] Creating Layer inception_4c/relu_1x1
I0713 13:56:10.565201  5597 net.cpp:425] inception_4c/relu_1x1 <- inception_4c/1x1
I0713 13:56:10.565209  5597 net.cpp:386] inception_4c/relu_1x1 -> inception_4c/1x1 (in-place)
I0713 13:56:10.565475  5597 net.cpp:141] Setting up inception_4c/relu_1x1
I0713 13:56:10.565488  5597 net.cpp:148] Top shape: 10 128 14 14 (250880)
I0713 13:56:10.565493  5597 net.cpp:156] Memory required for data: 425868800
I0713 13:56:10.565500  5597 layer_factory.hpp:77] Creating layer inception_4c/3x3_reduce
I0713 13:56:10.565517  5597 net.cpp:91] Creating Layer inception_4c/3x3_reduce
I0713 13:56:10.565524  5597 net.cpp:425] inception_4c/3x3_reduce <- inception_4b/output_inception_4b/output_0_split_1
I0713 13:56:10.565542  5597 net.cpp:399] inception_4c/3x3_reduce -> inception_4c/3x3_reduce
I0713 13:56:10.568441  5597 net.cpp:141] Setting up inception_4c/3x3_reduce
I0713 13:56:10.568460  5597 net.cpp:148] Top shape: 10 128 14 14 (250880)
I0713 13:56:10.568466  5597 net.cpp:156] Memory required for data: 426872320
I0713 13:56:10.568476  5597 layer_factory.hpp:77] Creating layer inception_4c/relu_3x3_reduce
I0713 13:56:10.568491  5597 net.cpp:91] Creating Layer inception_4c/relu_3x3_reduce
I0713 13:56:10.568498  5597 net.cpp:425] inception_4c/relu_3x3_reduce <- inception_4c/3x3_reduce
I0713 13:56:10.568506  5597 net.cpp:386] inception_4c/relu_3x3_reduce -> inception_4c/3x3_reduce (in-place)
I0713 13:56:10.568774  5597 net.cpp:141] Setting up inception_4c/relu_3x3_reduce
I0713 13:56:10.568788  5597 net.cpp:148] Top shape: 10 128 14 14 (250880)
I0713 13:56:10.568794  5597 net.cpp:156] Memory required for data: 427875840
I0713 13:56:10.568799  5597 layer_factory.hpp:77] Creating layer inception_4c/3x3
I0713 13:56:10.568816  5597 net.cpp:91] Creating Layer inception_4c/3x3
I0713 13:56:10.568823  5597 net.cpp:425] inception_4c/3x3 <- inception_4c/3x3_reduce
I0713 13:56:10.568836  5597 net.cpp:399] inception_4c/3x3 -> inception_4c/3x3
I0713 13:56:10.574894  5597 net.cpp:141] Setting up inception_4c/3x3
I0713 13:56:10.574914  5597 net.cpp:148] Top shape: 10 256 14 14 (501760)
I0713 13:56:10.574920  5597 net.cpp:156] Memory required for data: 429882880
I0713 13:56:10.574930  5597 layer_factory.hpp:77] Creating layer inception_4c/relu_3x3
I0713 13:56:10.574942  5597 net.cpp:91] Creating Layer inception_4c/relu_3x3
I0713 13:56:10.574949  5597 net.cpp:425] inception_4c/relu_3x3 <- inception_4c/3x3
I0713 13:56:10.574957  5597 net.cpp:386] inception_4c/relu_3x3 -> inception_4c/3x3 (in-place)
I0713 13:56:10.575768  5597 net.cpp:141] Setting up inception_4c/relu_3x3
I0713 13:56:10.575786  5597 net.cpp:148] Top shape: 10 256 14 14 (501760)
I0713 13:56:10.575791  5597 net.cpp:156] Memory required for data: 431889920
I0713 13:56:10.575798  5597 layer_factory.hpp:77] Creating layer inception_4c/5x5_reduce
I0713 13:56:10.575816  5597 net.cpp:91] Creating Layer inception_4c/5x5_reduce
I0713 13:56:10.575824  5597 net.cpp:425] inception_4c/5x5_reduce <- inception_4b/output_inception_4b/output_0_split_2
I0713 13:56:10.575837  5597 net.cpp:399] inception_4c/5x5_reduce -> inception_4c/5x5_reduce
I0713 13:56:10.578321  5597 net.cpp:141] Setting up inception_4c/5x5_reduce
I0713 13:56:10.578341  5597 net.cpp:148] Top shape: 10 24 14 14 (47040)
I0713 13:56:10.578346  5597 net.cpp:156] Memory required for data: 432078080
I0713 13:56:10.578356  5597 layer_factory.hpp:77] Creating layer inception_4c/relu_5x5_reduce
I0713 13:56:10.578371  5597 net.cpp:91] Creating Layer inception_4c/relu_5x5_reduce
I0713 13:56:10.578377  5597 net.cpp:425] inception_4c/relu_5x5_reduce <- inception_4c/5x5_reduce
I0713 13:56:10.578385  5597 net.cpp:386] inception_4c/relu_5x5_reduce -> inception_4c/5x5_reduce (in-place)
I0713 13:56:10.578665  5597 net.cpp:141] Setting up inception_4c/relu_5x5_reduce
I0713 13:56:10.578678  5597 net.cpp:148] Top shape: 10 24 14 14 (47040)
I0713 13:56:10.578683  5597 net.cpp:156] Memory required for data: 432266240
I0713 13:56:10.578698  5597 layer_factory.hpp:77] Creating layer inception_4c/5x5
I0713 13:56:10.578717  5597 net.cpp:91] Creating Layer inception_4c/5x5
I0713 13:56:10.578724  5597 net.cpp:425] inception_4c/5x5 <- inception_4c/5x5_reduce
I0713 13:56:10.578737  5597 net.cpp:399] inception_4c/5x5 -> inception_4c/5x5
I0713 13:56:10.582011  5597 net.cpp:141] Setting up inception_4c/5x5
I0713 13:56:10.582029  5597 net.cpp:148] Top shape: 10 64 14 14 (125440)
I0713 13:56:10.582036  5597 net.cpp:156] Memory required for data: 432768000
I0713 13:56:10.582049  5597 layer_factory.hpp:77] Creating layer inception_4c/relu_5x5
I0713 13:56:10.582059  5597 net.cpp:91] Creating Layer inception_4c/relu_5x5
I0713 13:56:10.582067  5597 net.cpp:425] inception_4c/relu_5x5 <- inception_4c/5x5
I0713 13:56:10.582077  5597 net.cpp:386] inception_4c/relu_5x5 -> inception_4c/5x5 (in-place)
I0713 13:56:10.582346  5597 net.cpp:141] Setting up inception_4c/relu_5x5
I0713 13:56:10.582360  5597 net.cpp:148] Top shape: 10 64 14 14 (125440)
I0713 13:56:10.582365  5597 net.cpp:156] Memory required for data: 433269760
I0713 13:56:10.582370  5597 layer_factory.hpp:77] Creating layer inception_4c/pool
I0713 13:56:10.582386  5597 net.cpp:91] Creating Layer inception_4c/pool
I0713 13:56:10.582392  5597 net.cpp:425] inception_4c/pool <- inception_4b/output_inception_4b/output_0_split_3
I0713 13:56:10.582401  5597 net.cpp:399] inception_4c/pool -> inception_4c/pool
I0713 13:56:10.582478  5597 net.cpp:141] Setting up inception_4c/pool
I0713 13:56:10.582489  5597 net.cpp:148] Top shape: 10 512 14 14 (1003520)
I0713 13:56:10.582492  5597 net.cpp:156] Memory required for data: 437283840
I0713 13:56:10.582499  5597 layer_factory.hpp:77] Creating layer inception_4c/pool_proj
I0713 13:56:10.582517  5597 net.cpp:91] Creating Layer inception_4c/pool_proj
I0713 13:56:10.582525  5597 net.cpp:425] inception_4c/pool_proj <- inception_4c/pool
I0713 13:56:10.582537  5597 net.cpp:399] inception_4c/pool_proj -> inception_4c/pool_proj
I0713 13:56:10.586277  5597 net.cpp:141] Setting up inception_4c/pool_proj
I0713 13:56:10.586295  5597 net.cpp:148] Top shape: 10 64 14 14 (125440)
I0713 13:56:10.586302  5597 net.cpp:156] Memory required for data: 437785600
I0713 13:56:10.586330  5597 layer_factory.hpp:77] Creating layer inception_4c/relu_pool_proj
I0713 13:56:10.586343  5597 net.cpp:91] Creating Layer inception_4c/relu_pool_proj
I0713 13:56:10.586350  5597 net.cpp:425] inception_4c/relu_pool_proj <- inception_4c/pool_proj
I0713 13:56:10.586359  5597 net.cpp:386] inception_4c/relu_pool_proj -> inception_4c/pool_proj (in-place)
I0713 13:56:10.587178  5597 net.cpp:141] Setting up inception_4c/relu_pool_proj
I0713 13:56:10.587198  5597 net.cpp:148] Top shape: 10 64 14 14 (125440)
I0713 13:56:10.587203  5597 net.cpp:156] Memory required for data: 438287360
I0713 13:56:10.587208  5597 layer_factory.hpp:77] Creating layer inception_4c/output
I0713 13:56:10.587218  5597 net.cpp:91] Creating Layer inception_4c/output
I0713 13:56:10.587224  5597 net.cpp:425] inception_4c/output <- inception_4c/1x1
I0713 13:56:10.587231  5597 net.cpp:425] inception_4c/output <- inception_4c/3x3
I0713 13:56:10.587237  5597 net.cpp:425] inception_4c/output <- inception_4c/5x5
I0713 13:56:10.587254  5597 net.cpp:425] inception_4c/output <- inception_4c/pool_proj
I0713 13:56:10.587260  5597 net.cpp:399] inception_4c/output -> inception_4c/output
I0713 13:56:10.587316  5597 net.cpp:141] Setting up inception_4c/output
I0713 13:56:10.587327  5597 net.cpp:148] Top shape: 10 512 14 14 (1003520)
I0713 13:56:10.587335  5597 net.cpp:156] Memory required for data: 442301440
I0713 13:56:10.587340  5597 layer_factory.hpp:77] Creating layer inception_4c/output_inception_4c/output_0_split
I0713 13:56:10.587350  5597 net.cpp:91] Creating Layer inception_4c/output_inception_4c/output_0_split
I0713 13:56:10.587355  5597 net.cpp:425] inception_4c/output_inception_4c/output_0_split <- inception_4c/output
I0713 13:56:10.587363  5597 net.cpp:399] inception_4c/output_inception_4c/output_0_split -> inception_4c/output_inception_4c/output_0_split_0
I0713 13:56:10.587373  5597 net.cpp:399] inception_4c/output_inception_4c/output_0_split -> inception_4c/output_inception_4c/output_0_split_1
I0713 13:56:10.587383  5597 net.cpp:399] inception_4c/output_inception_4c/output_0_split -> inception_4c/output_inception_4c/output_0_split_2
I0713 13:56:10.587393  5597 net.cpp:399] inception_4c/output_inception_4c/output_0_split -> inception_4c/output_inception_4c/output_0_split_3
I0713 13:56:10.587497  5597 net.cpp:141] Setting up inception_4c/output_inception_4c/output_0_split
I0713 13:56:10.587508  5597 net.cpp:148] Top shape: 10 512 14 14 (1003520)
I0713 13:56:10.587514  5597 net.cpp:148] Top shape: 10 512 14 14 (1003520)
I0713 13:56:10.587520  5597 net.cpp:148] Top shape: 10 512 14 14 (1003520)
I0713 13:56:10.587525  5597 net.cpp:148] Top shape: 10 512 14 14 (1003520)
I0713 13:56:10.587530  5597 net.cpp:156] Memory required for data: 458357760
I0713 13:56:10.587535  5597 layer_factory.hpp:77] Creating layer inception_4d/1x1
I0713 13:56:10.587553  5597 net.cpp:91] Creating Layer inception_4d/1x1
I0713 13:56:10.587559  5597 net.cpp:425] inception_4d/1x1 <- inception_4c/output_inception_4c/output_0_split_0
I0713 13:56:10.587571  5597 net.cpp:399] inception_4d/1x1 -> inception_4d/1x1
I0713 13:56:10.590387  5597 net.cpp:141] Setting up inception_4d/1x1
I0713 13:56:10.590407  5597 net.cpp:148] Top shape: 10 112 14 14 (219520)
I0713 13:56:10.590414  5597 net.cpp:156] Memory required for data: 459235840
I0713 13:56:10.590426  5597 layer_factory.hpp:77] Creating layer inception_4d/relu_1x1
I0713 13:56:10.590436  5597 net.cpp:91] Creating Layer inception_4d/relu_1x1
I0713 13:56:10.590442  5597 net.cpp:425] inception_4d/relu_1x1 <- inception_4d/1x1
I0713 13:56:10.590464  5597 net.cpp:386] inception_4d/relu_1x1 -> inception_4d/1x1 (in-place)
I0713 13:56:10.590745  5597 net.cpp:141] Setting up inception_4d/relu_1x1
I0713 13:56:10.590759  5597 net.cpp:148] Top shape: 10 112 14 14 (219520)
I0713 13:56:10.590764  5597 net.cpp:156] Memory required for data: 460113920
I0713 13:56:10.590770  5597 layer_factory.hpp:77] Creating layer inception_4d/3x3_reduce
I0713 13:56:10.590787  5597 net.cpp:91] Creating Layer inception_4d/3x3_reduce
I0713 13:56:10.590796  5597 net.cpp:425] inception_4d/3x3_reduce <- inception_4c/output_inception_4c/output_0_split_1
I0713 13:56:10.590806  5597 net.cpp:399] inception_4d/3x3_reduce -> inception_4d/3x3_reduce
I0713 13:56:10.593813  5597 net.cpp:141] Setting up inception_4d/3x3_reduce
I0713 13:56:10.593832  5597 net.cpp:148] Top shape: 10 144 14 14 (282240)
I0713 13:56:10.593837  5597 net.cpp:156] Memory required for data: 461242880
I0713 13:56:10.593847  5597 layer_factory.hpp:77] Creating layer inception_4d/relu_3x3_reduce
I0713 13:56:10.593857  5597 net.cpp:91] Creating Layer inception_4d/relu_3x3_reduce
I0713 13:56:10.593863  5597 net.cpp:425] inception_4d/relu_3x3_reduce <- inception_4d/3x3_reduce
I0713 13:56:10.593874  5597 net.cpp:386] inception_4d/relu_3x3_reduce -> inception_4d/3x3_reduce (in-place)
I0713 13:56:10.594156  5597 net.cpp:141] Setting up inception_4d/relu_3x3_reduce
I0713 13:56:10.594168  5597 net.cpp:148] Top shape: 10 144 14 14 (282240)
I0713 13:56:10.594173  5597 net.cpp:156] Memory required for data: 462371840
I0713 13:56:10.594180  5597 layer_factory.hpp:77] Creating layer inception_4d/3x3
I0713 13:56:10.594202  5597 net.cpp:91] Creating Layer inception_4d/3x3
I0713 13:56:10.594208  5597 net.cpp:425] inception_4d/3x3 <- inception_4d/3x3_reduce
I0713 13:56:10.594218  5597 net.cpp:399] inception_4d/3x3 -> inception_4d/3x3
I0713 13:56:10.601172  5597 net.cpp:141] Setting up inception_4d/3x3
I0713 13:56:10.601191  5597 net.cpp:148] Top shape: 10 288 14 14 (564480)
I0713 13:56:10.601197  5597 net.cpp:156] Memory required for data: 464629760
I0713 13:56:10.601208  5597 layer_factory.hpp:77] Creating layer inception_4d/relu_3x3
I0713 13:56:10.601218  5597 net.cpp:91] Creating Layer inception_4d/relu_3x3
I0713 13:56:10.601225  5597 net.cpp:425] inception_4d/relu_3x3 <- inception_4d/3x3
I0713 13:56:10.601233  5597 net.cpp:386] inception_4d/relu_3x3 -> inception_4d/3x3 (in-place)
I0713 13:56:10.602042  5597 net.cpp:141] Setting up inception_4d/relu_3x3
I0713 13:56:10.602061  5597 net.cpp:148] Top shape: 10 288 14 14 (564480)
I0713 13:56:10.602066  5597 net.cpp:156] Memory required for data: 466887680
I0713 13:56:10.602072  5597 layer_factory.hpp:77] Creating layer inception_4d/5x5_reduce
I0713 13:56:10.602092  5597 net.cpp:91] Creating Layer inception_4d/5x5_reduce
I0713 13:56:10.602098  5597 net.cpp:425] inception_4d/5x5_reduce <- inception_4c/output_inception_4c/output_0_split_2
I0713 13:56:10.602113  5597 net.cpp:399] inception_4d/5x5_reduce -> inception_4d/5x5_reduce
I0713 13:56:10.604629  5597 net.cpp:141] Setting up inception_4d/5x5_reduce
I0713 13:56:10.604650  5597 net.cpp:148] Top shape: 10 32 14 14 (62720)
I0713 13:56:10.604655  5597 net.cpp:156] Memory required for data: 467138560
I0713 13:56:10.604665  5597 layer_factory.hpp:77] Creating layer inception_4d/relu_5x5_reduce
I0713 13:56:10.604679  5597 net.cpp:91] Creating Layer inception_4d/relu_5x5_reduce
I0713 13:56:10.604687  5597 net.cpp:425] inception_4d/relu_5x5_reduce <- inception_4d/5x5_reduce
I0713 13:56:10.604706  5597 net.cpp:386] inception_4d/relu_5x5_reduce -> inception_4d/5x5_reduce (in-place)
I0713 13:56:10.604979  5597 net.cpp:141] Setting up inception_4d/relu_5x5_reduce
I0713 13:56:10.604992  5597 net.cpp:148] Top shape: 10 32 14 14 (62720)
I0713 13:56:10.604997  5597 net.cpp:156] Memory required for data: 467389440
I0713 13:56:10.605003  5597 layer_factory.hpp:77] Creating layer inception_4d/5x5
I0713 13:56:10.605021  5597 net.cpp:91] Creating Layer inception_4d/5x5
I0713 13:56:10.605033  5597 net.cpp:425] inception_4d/5x5 <- inception_4d/5x5_reduce
I0713 13:56:10.605043  5597 net.cpp:399] inception_4d/5x5 -> inception_4d/5x5
I0713 13:56:10.607930  5597 net.cpp:141] Setting up inception_4d/5x5
I0713 13:56:10.607949  5597 net.cpp:148] Top shape: 10 64 14 14 (125440)
I0713 13:56:10.607955  5597 net.cpp:156] Memory required for data: 467891200
I0713 13:56:10.607965  5597 layer_factory.hpp:77] Creating layer inception_4d/relu_5x5
I0713 13:56:10.607980  5597 net.cpp:91] Creating Layer inception_4d/relu_5x5
I0713 13:56:10.607986  5597 net.cpp:425] inception_4d/relu_5x5 <- inception_4d/5x5
I0713 13:56:10.607995  5597 net.cpp:386] inception_4d/relu_5x5 -> inception_4d/5x5 (in-place)
I0713 13:56:10.608268  5597 net.cpp:141] Setting up inception_4d/relu_5x5
I0713 13:56:10.608281  5597 net.cpp:148] Top shape: 10 64 14 14 (125440)
I0713 13:56:10.608286  5597 net.cpp:156] Memory required for data: 468392960
I0713 13:56:10.608291  5597 layer_factory.hpp:77] Creating layer inception_4d/pool
I0713 13:56:10.608301  5597 net.cpp:91] Creating Layer inception_4d/pool
I0713 13:56:10.608307  5597 net.cpp:425] inception_4d/pool <- inception_4c/output_inception_4c/output_0_split_3
I0713 13:56:10.608320  5597 net.cpp:399] inception_4d/pool -> inception_4d/pool
I0713 13:56:10.608395  5597 net.cpp:141] Setting up inception_4d/pool
I0713 13:56:10.608407  5597 net.cpp:148] Top shape: 10 512 14 14 (1003520)
I0713 13:56:10.608412  5597 net.cpp:156] Memory required for data: 472407040
I0713 13:56:10.608417  5597 layer_factory.hpp:77] Creating layer inception_4d/pool_proj
I0713 13:56:10.608438  5597 net.cpp:91] Creating Layer inception_4d/pool_proj
I0713 13:56:10.608445  5597 net.cpp:425] inception_4d/pool_proj <- inception_4d/pool
I0713 13:56:10.608454  5597 net.cpp:399] inception_4d/pool_proj -> inception_4d/pool_proj
I0713 13:56:10.611127  5597 net.cpp:141] Setting up inception_4d/pool_proj
I0713 13:56:10.611146  5597 net.cpp:148] Top shape: 10 64 14 14 (125440)
I0713 13:56:10.611151  5597 net.cpp:156] Memory required for data: 472908800
I0713 13:56:10.611161  5597 layer_factory.hpp:77] Creating layer inception_4d/relu_pool_proj
I0713 13:56:10.611171  5597 net.cpp:91] Creating Layer inception_4d/relu_pool_proj
I0713 13:56:10.611178  5597 net.cpp:425] inception_4d/relu_pool_proj <- inception_4d/pool_proj
I0713 13:56:10.611191  5597 net.cpp:386] inception_4d/relu_pool_proj -> inception_4d/pool_proj (in-place)
I0713 13:56:10.612004  5597 net.cpp:141] Setting up inception_4d/relu_pool_proj
I0713 13:56:10.612018  5597 net.cpp:148] Top shape: 10 64 14 14 (125440)
I0713 13:56:10.612023  5597 net.cpp:156] Memory required for data: 473410560
I0713 13:56:10.612030  5597 layer_factory.hpp:77] Creating layer inception_4d/output
I0713 13:56:10.612040  5597 net.cpp:91] Creating Layer inception_4d/output
I0713 13:56:10.612049  5597 net.cpp:425] inception_4d/output <- inception_4d/1x1
I0713 13:56:10.612056  5597 net.cpp:425] inception_4d/output <- inception_4d/3x3
I0713 13:56:10.612062  5597 net.cpp:425] inception_4d/output <- inception_4d/5x5
I0713 13:56:10.612068  5597 net.cpp:425] inception_4d/output <- inception_4d/pool_proj
I0713 13:56:10.612076  5597 net.cpp:399] inception_4d/output -> inception_4d/output
I0713 13:56:10.612124  5597 net.cpp:141] Setting up inception_4d/output
I0713 13:56:10.612134  5597 net.cpp:148] Top shape: 10 528 14 14 (1034880)
I0713 13:56:10.612139  5597 net.cpp:156] Memory required for data: 477550080
I0713 13:56:10.612145  5597 layer_factory.hpp:77] Creating layer inception_4d/output_inception_4d/output_0_split
I0713 13:56:10.612159  5597 net.cpp:91] Creating Layer inception_4d/output_inception_4d/output_0_split
I0713 13:56:10.612166  5597 net.cpp:425] inception_4d/output_inception_4d/output_0_split <- inception_4d/output
I0713 13:56:10.612180  5597 net.cpp:399] inception_4d/output_inception_4d/output_0_split -> inception_4d/output_inception_4d/output_0_split_0
I0713 13:56:10.612191  5597 net.cpp:399] inception_4d/output_inception_4d/output_0_split -> inception_4d/output_inception_4d/output_0_split_1
I0713 13:56:10.612201  5597 net.cpp:399] inception_4d/output_inception_4d/output_0_split -> inception_4d/output_inception_4d/output_0_split_2
I0713 13:56:10.612211  5597 net.cpp:399] inception_4d/output_inception_4d/output_0_split -> inception_4d/output_inception_4d/output_0_split_3
I0713 13:56:10.612321  5597 net.cpp:141] Setting up inception_4d/output_inception_4d/output_0_split
I0713 13:56:10.612332  5597 net.cpp:148] Top shape: 10 528 14 14 (1034880)
I0713 13:56:10.612339  5597 net.cpp:148] Top shape: 10 528 14 14 (1034880)
I0713 13:56:10.612344  5597 net.cpp:148] Top shape: 10 528 14 14 (1034880)
I0713 13:56:10.612349  5597 net.cpp:148] Top shape: 10 528 14 14 (1034880)
I0713 13:56:10.612354  5597 net.cpp:156] Memory required for data: 494108160
I0713 13:56:10.612360  5597 layer_factory.hpp:77] Creating layer inception_4e/1x1
I0713 13:56:10.612376  5597 net.cpp:91] Creating Layer inception_4e/1x1
I0713 13:56:10.612382  5597 net.cpp:425] inception_4e/1x1 <- inception_4d/output_inception_4d/output_0_split_0
I0713 13:56:10.612396  5597 net.cpp:399] inception_4e/1x1 -> inception_4e/1x1
I0713 13:56:10.617709  5597 net.cpp:141] Setting up inception_4e/1x1
I0713 13:56:10.617733  5597 net.cpp:148] Top shape: 10 256 14 14 (501760)
I0713 13:56:10.617738  5597 net.cpp:156] Memory required for data: 496115200
I0713 13:56:10.617748  5597 layer_factory.hpp:77] Creating layer inception_4e/relu_1x1
I0713 13:56:10.617763  5597 net.cpp:91] Creating Layer inception_4e/relu_1x1
I0713 13:56:10.617779  5597 net.cpp:425] inception_4e/relu_1x1 <- inception_4e/1x1
I0713 13:56:10.617787  5597 net.cpp:386] inception_4e/relu_1x1 -> inception_4e/1x1 (in-place)
I0713 13:56:10.618069  5597 net.cpp:141] Setting up inception_4e/relu_1x1
I0713 13:56:10.618083  5597 net.cpp:148] Top shape: 10 256 14 14 (501760)
I0713 13:56:10.618088  5597 net.cpp:156] Memory required for data: 498122240
I0713 13:56:10.618093  5597 layer_factory.hpp:77] Creating layer inception_4e/3x3_reduce
I0713 13:56:10.618111  5597 net.cpp:91] Creating Layer inception_4e/3x3_reduce
I0713 13:56:10.618119  5597 net.cpp:425] inception_4e/3x3_reduce <- inception_4d/output_inception_4d/output_0_split_1
I0713 13:56:10.618129  5597 net.cpp:399] inception_4e/3x3_reduce -> inception_4e/3x3_reduce
I0713 13:56:10.621290  5597 net.cpp:141] Setting up inception_4e/3x3_reduce
I0713 13:56:10.621309  5597 net.cpp:148] Top shape: 10 160 14 14 (313600)
I0713 13:56:10.621315  5597 net.cpp:156] Memory required for data: 499376640
I0713 13:56:10.621325  5597 layer_factory.hpp:77] Creating layer inception_4e/relu_3x3_reduce
I0713 13:56:10.621340  5597 net.cpp:91] Creating Layer inception_4e/relu_3x3_reduce
I0713 13:56:10.621346  5597 net.cpp:425] inception_4e/relu_3x3_reduce <- inception_4e/3x3_reduce
I0713 13:56:10.621354  5597 net.cpp:386] inception_4e/relu_3x3_reduce -> inception_4e/3x3_reduce (in-place)
I0713 13:56:10.621639  5597 net.cpp:141] Setting up inception_4e/relu_3x3_reduce
I0713 13:56:10.621655  5597 net.cpp:148] Top shape: 10 160 14 14 (313600)
I0713 13:56:10.621661  5597 net.cpp:156] Memory required for data: 500631040
I0713 13:56:10.621667  5597 layer_factory.hpp:77] Creating layer inception_4e/3x3
I0713 13:56:10.621685  5597 net.cpp:91] Creating Layer inception_4e/3x3
I0713 13:56:10.621692  5597 net.cpp:425] inception_4e/3x3 <- inception_4e/3x3_reduce
I0713 13:56:10.621701  5597 net.cpp:399] inception_4e/3x3 -> inception_4e/3x3
I0713 13:56:10.629602  5597 net.cpp:141] Setting up inception_4e/3x3
I0713 13:56:10.629622  5597 net.cpp:148] Top shape: 10 320 14 14 (627200)
I0713 13:56:10.629628  5597 net.cpp:156] Memory required for data: 503139840
I0713 13:56:10.629639  5597 layer_factory.hpp:77] Creating layer inception_4e/relu_3x3
I0713 13:56:10.629653  5597 net.cpp:91] Creating Layer inception_4e/relu_3x3
I0713 13:56:10.629660  5597 net.cpp:425] inception_4e/relu_3x3 <- inception_4e/3x3
I0713 13:56:10.629669  5597 net.cpp:386] inception_4e/relu_3x3 -> inception_4e/3x3 (in-place)
I0713 13:56:10.630511  5597 net.cpp:141] Setting up inception_4e/relu_3x3
I0713 13:56:10.630527  5597 net.cpp:148] Top shape: 10 320 14 14 (627200)
I0713 13:56:10.630534  5597 net.cpp:156] Memory required for data: 505648640
I0713 13:56:10.630540  5597 layer_factory.hpp:77] Creating layer inception_4e/5x5_reduce
I0713 13:56:10.630563  5597 net.cpp:91] Creating Layer inception_4e/5x5_reduce
I0713 13:56:10.630571  5597 net.cpp:425] inception_4e/5x5_reduce <- inception_4d/output_inception_4d/output_0_split_2
I0713 13:56:10.630581  5597 net.cpp:399] inception_4e/5x5_reduce -> inception_4e/5x5_reduce
I0713 13:56:10.633158  5597 net.cpp:141] Setting up inception_4e/5x5_reduce
I0713 13:56:10.633179  5597 net.cpp:148] Top shape: 10 32 14 14 (62720)
I0713 13:56:10.633185  5597 net.cpp:156] Memory required for data: 505899520
I0713 13:56:10.633195  5597 layer_factory.hpp:77] Creating layer inception_4e/relu_5x5_reduce
I0713 13:56:10.633205  5597 net.cpp:91] Creating Layer inception_4e/relu_5x5_reduce
I0713 13:56:10.633213  5597 net.cpp:425] inception_4e/relu_5x5_reduce <- inception_4e/5x5_reduce
I0713 13:56:10.633221  5597 net.cpp:386] inception_4e/relu_5x5_reduce -> inception_4e/5x5_reduce (in-place)
I0713 13:56:10.633502  5597 net.cpp:141] Setting up inception_4e/relu_5x5_reduce
I0713 13:56:10.633515  5597 net.cpp:148] Top shape: 10 32 14 14 (62720)
I0713 13:56:10.633520  5597 net.cpp:156] Memory required for data: 506150400
I0713 13:56:10.633527  5597 layer_factory.hpp:77] Creating layer inception_4e/5x5
I0713 13:56:10.633543  5597 net.cpp:91] Creating Layer inception_4e/5x5
I0713 13:56:10.633550  5597 net.cpp:425] inception_4e/5x5 <- inception_4e/5x5_reduce
I0713 13:56:10.633563  5597 net.cpp:399] inception_4e/5x5 -> inception_4e/5x5
I0713 13:56:10.637979  5597 net.cpp:141] Setting up inception_4e/5x5
I0713 13:56:10.637998  5597 net.cpp:148] Top shape: 10 128 14 14 (250880)
I0713 13:56:10.638003  5597 net.cpp:156] Memory required for data: 507153920
I0713 13:56:10.638015  5597 layer_factory.hpp:77] Creating layer inception_4e/relu_5x5
I0713 13:56:10.638025  5597 net.cpp:91] Creating Layer inception_4e/relu_5x5
I0713 13:56:10.638031  5597 net.cpp:425] inception_4e/relu_5x5 <- inception_4e/5x5
I0713 13:56:10.638039  5597 net.cpp:386] inception_4e/relu_5x5 -> inception_4e/5x5 (in-place)
I0713 13:56:10.638329  5597 net.cpp:141] Setting up inception_4e/relu_5x5
I0713 13:56:10.638342  5597 net.cpp:148] Top shape: 10 128 14 14 (250880)
I0713 13:56:10.638347  5597 net.cpp:156] Memory required for data: 508157440
I0713 13:56:10.638352  5597 layer_factory.hpp:77] Creating layer inception_4e/pool
I0713 13:56:10.638370  5597 net.cpp:91] Creating Layer inception_4e/pool
I0713 13:56:10.638376  5597 net.cpp:425] inception_4e/pool <- inception_4d/output_inception_4d/output_0_split_3
I0713 13:56:10.638384  5597 net.cpp:399] inception_4e/pool -> inception_4e/pool
I0713 13:56:10.638465  5597 net.cpp:141] Setting up inception_4e/pool
I0713 13:56:10.638476  5597 net.cpp:148] Top shape: 10 528 14 14 (1034880)
I0713 13:56:10.638481  5597 net.cpp:156] Memory required for data: 512296960
I0713 13:56:10.638486  5597 layer_factory.hpp:77] Creating layer inception_4e/pool_proj
I0713 13:56:10.638504  5597 net.cpp:91] Creating Layer inception_4e/pool_proj
I0713 13:56:10.638511  5597 net.cpp:425] inception_4e/pool_proj <- inception_4e/pool
I0713 13:56:10.638523  5597 net.cpp:399] inception_4e/pool_proj -> inception_4e/pool_proj
I0713 13:56:10.641499  5597 net.cpp:141] Setting up inception_4e/pool_proj
I0713 13:56:10.641518  5597 net.cpp:148] Top shape: 10 128 14 14 (250880)
I0713 13:56:10.641523  5597 net.cpp:156] Memory required for data: 513300480
I0713 13:56:10.641533  5597 layer_factory.hpp:77] Creating layer inception_4e/relu_pool_proj
I0713 13:56:10.641547  5597 net.cpp:91] Creating Layer inception_4e/relu_pool_proj
I0713 13:56:10.641556  5597 net.cpp:425] inception_4e/relu_pool_proj <- inception_4e/pool_proj
I0713 13:56:10.641563  5597 net.cpp:386] inception_4e/relu_pool_proj -> inception_4e/pool_proj (in-place)
I0713 13:56:10.642377  5597 net.cpp:141] Setting up inception_4e/relu_pool_proj
I0713 13:56:10.642395  5597 net.cpp:148] Top shape: 10 128 14 14 (250880)
I0713 13:56:10.642400  5597 net.cpp:156] Memory required for data: 514304000
I0713 13:56:10.642405  5597 layer_factory.hpp:77] Creating layer inception_4e/output
I0713 13:56:10.642419  5597 net.cpp:91] Creating Layer inception_4e/output
I0713 13:56:10.642426  5597 net.cpp:425] inception_4e/output <- inception_4e/1x1
I0713 13:56:10.642434  5597 net.cpp:425] inception_4e/output <- inception_4e/3x3
I0713 13:56:10.642441  5597 net.cpp:425] inception_4e/output <- inception_4e/5x5
I0713 13:56:10.642446  5597 net.cpp:425] inception_4e/output <- inception_4e/pool_proj
I0713 13:56:10.642453  5597 net.cpp:399] inception_4e/output -> inception_4e/output
I0713 13:56:10.642513  5597 net.cpp:141] Setting up inception_4e/output
I0713 13:56:10.642524  5597 net.cpp:148] Top shape: 10 832 14 14 (1630720)
I0713 13:56:10.642529  5597 net.cpp:156] Memory required for data: 520826880
I0713 13:56:10.642534  5597 layer_factory.hpp:77] Creating layer pool4/3x3_s2
I0713 13:56:10.642544  5597 net.cpp:91] Creating Layer pool4/3x3_s2
I0713 13:56:10.642549  5597 net.cpp:425] pool4/3x3_s2 <- inception_4e/output
I0713 13:56:10.642561  5597 net.cpp:399] pool4/3x3_s2 -> pool4/3x3_s2
I0713 13:56:10.642637  5597 net.cpp:141] Setting up pool4/3x3_s2
I0713 13:56:10.642648  5597 net.cpp:148] Top shape: 10 832 7 7 (407680)
I0713 13:56:10.642653  5597 net.cpp:156] Memory required for data: 522457600
I0713 13:56:10.642658  5597 layer_factory.hpp:77] Creating layer pool4/3x3_s2_pool4/3x3_s2_0_split
I0713 13:56:10.642668  5597 net.cpp:91] Creating Layer pool4/3x3_s2_pool4/3x3_s2_0_split
I0713 13:56:10.642673  5597 net.cpp:425] pool4/3x3_s2_pool4/3x3_s2_0_split <- pool4/3x3_s2
I0713 13:56:10.642683  5597 net.cpp:399] pool4/3x3_s2_pool4/3x3_s2_0_split -> pool4/3x3_s2_pool4/3x3_s2_0_split_0
I0713 13:56:10.642704  5597 net.cpp:399] pool4/3x3_s2_pool4/3x3_s2_0_split -> pool4/3x3_s2_pool4/3x3_s2_0_split_1
I0713 13:56:10.642714  5597 net.cpp:399] pool4/3x3_s2_pool4/3x3_s2_0_split -> pool4/3x3_s2_pool4/3x3_s2_0_split_2
I0713 13:56:10.642724  5597 net.cpp:399] pool4/3x3_s2_pool4/3x3_s2_0_split -> pool4/3x3_s2_pool4/3x3_s2_0_split_3
I0713 13:56:10.642837  5597 net.cpp:141] Setting up pool4/3x3_s2_pool4/3x3_s2_0_split
I0713 13:56:10.642850  5597 net.cpp:148] Top shape: 10 832 7 7 (407680)
I0713 13:56:10.642856  5597 net.cpp:148] Top shape: 10 832 7 7 (407680)
I0713 13:56:10.642863  5597 net.cpp:148] Top shape: 10 832 7 7 (407680)
I0713 13:56:10.642868  5597 net.cpp:148] Top shape: 10 832 7 7 (407680)
I0713 13:56:10.642873  5597 net.cpp:156] Memory required for data: 528980480
I0713 13:56:10.642877  5597 layer_factory.hpp:77] Creating layer inception_5a/1x1
I0713 13:56:10.642895  5597 net.cpp:91] Creating Layer inception_5a/1x1
I0713 13:56:10.642901  5597 net.cpp:425] inception_5a/1x1 <- pool4/3x3_s2_pool4/3x3_s2_0_split_0
I0713 13:56:10.642911  5597 net.cpp:399] inception_5a/1x1 -> inception_5a/1x1
I0713 13:56:10.648262  5597 net.cpp:141] Setting up inception_5a/1x1
I0713 13:56:10.648282  5597 net.cpp:148] Top shape: 10 256 7 7 (125440)
I0713 13:56:10.648288  5597 net.cpp:156] Memory required for data: 529482240
I0713 13:56:10.648298  5597 layer_factory.hpp:77] Creating layer inception_5a/relu_1x1
I0713 13:56:10.648310  5597 net.cpp:91] Creating Layer inception_5a/relu_1x1
I0713 13:56:10.648318  5597 net.cpp:425] inception_5a/relu_1x1 <- inception_5a/1x1
I0713 13:56:10.648326  5597 net.cpp:386] inception_5a/relu_1x1 -> inception_5a/1x1 (in-place)
I0713 13:56:10.648612  5597 net.cpp:141] Setting up inception_5a/relu_1x1
I0713 13:56:10.648624  5597 net.cpp:148] Top shape: 10 256 7 7 (125440)
I0713 13:56:10.648629  5597 net.cpp:156] Memory required for data: 529984000
I0713 13:56:10.648635  5597 layer_factory.hpp:77] Creating layer inception_5a/3x3_reduce
I0713 13:56:10.648656  5597 net.cpp:91] Creating Layer inception_5a/3x3_reduce
I0713 13:56:10.648663  5597 net.cpp:425] inception_5a/3x3_reduce <- pool4/3x3_s2_pool4/3x3_s2_0_split_1
I0713 13:56:10.648674  5597 net.cpp:399] inception_5a/3x3_reduce -> inception_5a/3x3_reduce
I0713 13:56:10.653370  5597 net.cpp:141] Setting up inception_5a/3x3_reduce
I0713 13:56:10.653390  5597 net.cpp:148] Top shape: 10 160 7 7 (78400)
I0713 13:56:10.653396  5597 net.cpp:156] Memory required for data: 530297600
I0713 13:56:10.653408  5597 layer_factory.hpp:77] Creating layer inception_5a/relu_3x3_reduce
I0713 13:56:10.653416  5597 net.cpp:91] Creating Layer inception_5a/relu_3x3_reduce
I0713 13:56:10.653424  5597 net.cpp:425] inception_5a/relu_3x3_reduce <- inception_5a/3x3_reduce
I0713 13:56:10.653437  5597 net.cpp:386] inception_5a/relu_3x3_reduce -> inception_5a/3x3_reduce (in-place)
I0713 13:56:10.653720  5597 net.cpp:141] Setting up inception_5a/relu_3x3_reduce
I0713 13:56:10.653736  5597 net.cpp:148] Top shape: 10 160 7 7 (78400)
I0713 13:56:10.653741  5597 net.cpp:156] Memory required for data: 530611200
I0713 13:56:10.653746  5597 layer_factory.hpp:77] Creating layer inception_5a/3x3
I0713 13:56:10.653765  5597 net.cpp:91] Creating Layer inception_5a/3x3
I0713 13:56:10.653772  5597 net.cpp:425] inception_5a/3x3 <- inception_5a/3x3_reduce
I0713 13:56:10.653782  5597 net.cpp:399] inception_5a/3x3 -> inception_5a/3x3
I0713 13:56:10.662963  5597 net.cpp:141] Setting up inception_5a/3x3
I0713 13:56:10.662983  5597 net.cpp:148] Top shape: 10 320 7 7 (156800)
I0713 13:56:10.662988  5597 net.cpp:156] Memory required for data: 531238400
I0713 13:56:10.663003  5597 layer_factory.hpp:77] Creating layer inception_5a/relu_3x3
I0713 13:56:10.663013  5597 net.cpp:91] Creating Layer inception_5a/relu_3x3
I0713 13:56:10.663020  5597 net.cpp:425] inception_5a/relu_3x3 <- inception_5a/3x3
I0713 13:56:10.663031  5597 net.cpp:386] inception_5a/relu_3x3 -> inception_5a/3x3 (in-place)
I0713 13:56:10.663867  5597 net.cpp:141] Setting up inception_5a/relu_3x3
I0713 13:56:10.663885  5597 net.cpp:148] Top shape: 10 320 7 7 (156800)
I0713 13:56:10.663890  5597 net.cpp:156] Memory required for data: 531865600
I0713 13:56:10.663897  5597 layer_factory.hpp:77] Creating layer inception_5a/5x5_reduce
I0713 13:56:10.663914  5597 net.cpp:91] Creating Layer inception_5a/5x5_reduce
I0713 13:56:10.663921  5597 net.cpp:425] inception_5a/5x5_reduce <- pool4/3x3_s2_pool4/3x3_s2_0_split_2
I0713 13:56:10.663936  5597 net.cpp:399] inception_5a/5x5_reduce -> inception_5a/5x5_reduce
I0713 13:56:10.666606  5597 net.cpp:141] Setting up inception_5a/5x5_reduce
I0713 13:56:10.666625  5597 net.cpp:148] Top shape: 10 32 7 7 (15680)
I0713 13:56:10.666630  5597 net.cpp:156] Memory required for data: 531928320
I0713 13:56:10.666641  5597 layer_factory.hpp:77] Creating layer inception_5a/relu_5x5_reduce
I0713 13:56:10.666653  5597 net.cpp:91] Creating Layer inception_5a/relu_5x5_reduce
I0713 13:56:10.666661  5597 net.cpp:425] inception_5a/relu_5x5_reduce <- inception_5a/5x5_reduce
I0713 13:56:10.666669  5597 net.cpp:386] inception_5a/relu_5x5_reduce -> inception_5a/5x5_reduce (in-place)
I0713 13:56:10.666968  5597 net.cpp:141] Setting up inception_5a/relu_5x5_reduce
I0713 13:56:10.666981  5597 net.cpp:148] Top shape: 10 32 7 7 (15680)
I0713 13:56:10.666986  5597 net.cpp:156] Memory required for data: 531991040
I0713 13:56:10.666992  5597 layer_factory.hpp:77] Creating layer inception_5a/5x5
I0713 13:56:10.667009  5597 net.cpp:91] Creating Layer inception_5a/5x5
I0713 13:56:10.667016  5597 net.cpp:425] inception_5a/5x5 <- inception_5a/5x5_reduce
I0713 13:56:10.667031  5597 net.cpp:399] inception_5a/5x5 -> inception_5a/5x5
I0713 13:56:10.670318  5597 net.cpp:141] Setting up inception_5a/5x5
I0713 13:56:10.670336  5597 net.cpp:148] Top shape: 10 128 7 7 (62720)
I0713 13:56:10.670342  5597 net.cpp:156] Memory required for data: 532241920
I0713 13:56:10.670352  5597 layer_factory.hpp:77] Creating layer inception_5a/relu_5x5
I0713 13:56:10.670390  5597 net.cpp:91] Creating Layer inception_5a/relu_5x5
I0713 13:56:10.670398  5597 net.cpp:425] inception_5a/relu_5x5 <- inception_5a/5x5
I0713 13:56:10.670406  5597 net.cpp:386] inception_5a/relu_5x5 -> inception_5a/5x5 (in-place)
I0713 13:56:10.670681  5597 net.cpp:141] Setting up inception_5a/relu_5x5
I0713 13:56:10.670706  5597 net.cpp:148] Top shape: 10 128 7 7 (62720)
I0713 13:56:10.670711  5597 net.cpp:156] Memory required for data: 532492800
I0713 13:56:10.670717  5597 layer_factory.hpp:77] Creating layer inception_5a/pool
I0713 13:56:10.670727  5597 net.cpp:91] Creating Layer inception_5a/pool
I0713 13:56:10.670733  5597 net.cpp:425] inception_5a/pool <- pool4/3x3_s2_pool4/3x3_s2_0_split_3
I0713 13:56:10.670747  5597 net.cpp:399] inception_5a/pool -> inception_5a/pool
I0713 13:56:10.670828  5597 net.cpp:141] Setting up inception_5a/pool
I0713 13:56:10.670840  5597 net.cpp:148] Top shape: 10 832 7 7 (407680)
I0713 13:56:10.670845  5597 net.cpp:156] Memory required for data: 534123520
I0713 13:56:10.670850  5597 layer_factory.hpp:77] Creating layer inception_5a/pool_proj
I0713 13:56:10.670869  5597 net.cpp:91] Creating Layer inception_5a/pool_proj
I0713 13:56:10.670876  5597 net.cpp:425] inception_5a/pool_proj <- inception_5a/pool
I0713 13:56:10.670886  5597 net.cpp:399] inception_5a/pool_proj -> inception_5a/pool_proj
I0713 13:56:10.675362  5597 net.cpp:141] Setting up inception_5a/pool_proj
I0713 13:56:10.675385  5597 net.cpp:148] Top shape: 10 128 7 7 (62720)
I0713 13:56:10.675390  5597 net.cpp:156] Memory required for data: 534374400
I0713 13:56:10.675401  5597 layer_factory.hpp:77] Creating layer inception_5a/relu_pool_proj
I0713 13:56:10.675411  5597 net.cpp:91] Creating Layer inception_5a/relu_pool_proj
I0713 13:56:10.675417  5597 net.cpp:425] inception_5a/relu_pool_proj <- inception_5a/pool_proj
I0713 13:56:10.675431  5597 net.cpp:386] inception_5a/relu_pool_proj -> inception_5a/pool_proj (in-place)
I0713 13:56:10.676261  5597 net.cpp:141] Setting up inception_5a/relu_pool_proj
I0713 13:56:10.676280  5597 net.cpp:148] Top shape: 10 128 7 7 (62720)
I0713 13:56:10.676285  5597 net.cpp:156] Memory required for data: 534625280
I0713 13:56:10.676291  5597 layer_factory.hpp:77] Creating layer inception_5a/output
I0713 13:56:10.676301  5597 net.cpp:91] Creating Layer inception_5a/output
I0713 13:56:10.676307  5597 net.cpp:425] inception_5a/output <- inception_5a/1x1
I0713 13:56:10.676316  5597 net.cpp:425] inception_5a/output <- inception_5a/3x3
I0713 13:56:10.676321  5597 net.cpp:425] inception_5a/output <- inception_5a/5x5
I0713 13:56:10.676327  5597 net.cpp:425] inception_5a/output <- inception_5a/pool_proj
I0713 13:56:10.676337  5597 net.cpp:399] inception_5a/output -> inception_5a/output
I0713 13:56:10.676398  5597 net.cpp:141] Setting up inception_5a/output
I0713 13:56:10.676409  5597 net.cpp:148] Top shape: 10 832 7 7 (407680)
I0713 13:56:10.676414  5597 net.cpp:156] Memory required for data: 536256000
I0713 13:56:10.676419  5597 layer_factory.hpp:77] Creating layer inception_5a/output_inception_5a/output_0_split
I0713 13:56:10.676429  5597 net.cpp:91] Creating Layer inception_5a/output_inception_5a/output_0_split
I0713 13:56:10.676434  5597 net.cpp:425] inception_5a/output_inception_5a/output_0_split <- inception_5a/output
I0713 13:56:10.676446  5597 net.cpp:399] inception_5a/output_inception_5a/output_0_split -> inception_5a/output_inception_5a/output_0_split_0
I0713 13:56:10.676457  5597 net.cpp:399] inception_5a/output_inception_5a/output_0_split -> inception_5a/output_inception_5a/output_0_split_1
I0713 13:56:10.676467  5597 net.cpp:399] inception_5a/output_inception_5a/output_0_split -> inception_5a/output_inception_5a/output_0_split_2
I0713 13:56:10.676476  5597 net.cpp:399] inception_5a/output_inception_5a/output_0_split -> inception_5a/output_inception_5a/output_0_split_3
I0713 13:56:10.676600  5597 net.cpp:141] Setting up inception_5a/output_inception_5a/output_0_split
I0713 13:56:10.676611  5597 net.cpp:148] Top shape: 10 832 7 7 (407680)
I0713 13:56:10.676617  5597 net.cpp:148] Top shape: 10 832 7 7 (407680)
I0713 13:56:10.676623  5597 net.cpp:148] Top shape: 10 832 7 7 (407680)
I0713 13:56:10.676630  5597 net.cpp:148] Top shape: 10 832 7 7 (407680)
I0713 13:56:10.676633  5597 net.cpp:156] Memory required for data: 542778880
I0713 13:56:10.676638  5597 layer_factory.hpp:77] Creating layer inception_5b/1x1
I0713 13:56:10.676657  5597 net.cpp:91] Creating Layer inception_5b/1x1
I0713 13:56:10.676664  5597 net.cpp:425] inception_5b/1x1 <- inception_5a/output_inception_5a/output_0_split_0
I0713 13:56:10.676673  5597 net.cpp:399] inception_5b/1x1 -> inception_5b/1x1
I0713 13:56:10.683169  5597 net.cpp:141] Setting up inception_5b/1x1
I0713 13:56:10.683190  5597 net.cpp:148] Top shape: 10 384 7 7 (188160)
I0713 13:56:10.683197  5597 net.cpp:156] Memory required for data: 543531520
I0713 13:56:10.683207  5597 layer_factory.hpp:77] Creating layer inception_5b/relu_1x1
I0713 13:56:10.683218  5597 net.cpp:91] Creating Layer inception_5b/relu_1x1
I0713 13:56:10.683224  5597 net.cpp:425] inception_5b/relu_1x1 <- inception_5b/1x1
I0713 13:56:10.683238  5597 net.cpp:386] inception_5b/relu_1x1 -> inception_5b/1x1 (in-place)
I0713 13:56:10.683521  5597 net.cpp:141] Setting up inception_5b/relu_1x1
I0713 13:56:10.683533  5597 net.cpp:148] Top shape: 10 384 7 7 (188160)
I0713 13:56:10.683538  5597 net.cpp:156] Memory required for data: 544284160
I0713 13:56:10.683543  5597 layer_factory.hpp:77] Creating layer inception_5b/3x3_reduce
I0713 13:56:10.683565  5597 net.cpp:91] Creating Layer inception_5b/3x3_reduce
I0713 13:56:10.683571  5597 net.cpp:425] inception_5b/3x3_reduce <- inception_5a/output_inception_5a/output_0_split_1
I0713 13:56:10.683585  5597 net.cpp:399] inception_5b/3x3_reduce -> inception_5b/3x3_reduce
I0713 13:56:10.688590  5597 net.cpp:141] Setting up inception_5b/3x3_reduce
I0713 13:56:10.688611  5597 net.cpp:148] Top shape: 10 192 7 7 (94080)
I0713 13:56:10.688616  5597 net.cpp:156] Memory required for data: 544660480
I0713 13:56:10.688627  5597 layer_factory.hpp:77] Creating layer inception_5b/relu_3x3_reduce
I0713 13:56:10.688639  5597 net.cpp:91] Creating Layer inception_5b/relu_3x3_reduce
I0713 13:56:10.688647  5597 net.cpp:425] inception_5b/relu_3x3_reduce <- inception_5b/3x3_reduce
I0713 13:56:10.688654  5597 net.cpp:386] inception_5b/relu_3x3_reduce -> inception_5b/3x3_reduce (in-place)
I0713 13:56:10.688942  5597 net.cpp:141] Setting up inception_5b/relu_3x3_reduce
I0713 13:56:10.688954  5597 net.cpp:148] Top shape: 10 192 7 7 (94080)
I0713 13:56:10.688961  5597 net.cpp:156] Memory required for data: 545036800
I0713 13:56:10.688966  5597 layer_factory.hpp:77] Creating layer inception_5b/3x3
I0713 13:56:10.688985  5597 net.cpp:91] Creating Layer inception_5b/3x3
I0713 13:56:10.688992  5597 net.cpp:425] inception_5b/3x3 <- inception_5b/3x3_reduce
I0713 13:56:10.689002  5597 net.cpp:399] inception_5b/3x3 -> inception_5b/3x3
I0713 13:56:10.699158  5597 net.cpp:141] Setting up inception_5b/3x3
I0713 13:56:10.699182  5597 net.cpp:148] Top shape: 10 384 7 7 (188160)
I0713 13:56:10.699188  5597 net.cpp:156] Memory required for data: 545789440
I0713 13:56:10.699199  5597 layer_factory.hpp:77] Creating layer inception_5b/relu_3x3
I0713 13:56:10.699213  5597 net.cpp:91] Creating Layer inception_5b/relu_3x3
I0713 13:56:10.699220  5597 net.cpp:425] inception_5b/relu_3x3 <- inception_5b/3x3
I0713 13:56:10.699229  5597 net.cpp:386] inception_5b/relu_3x3 -> inception_5b/3x3 (in-place)
I0713 13:56:10.700068  5597 net.cpp:141] Setting up inception_5b/relu_3x3
I0713 13:56:10.700086  5597 net.cpp:148] Top shape: 10 384 7 7 (188160)
I0713 13:56:10.700093  5597 net.cpp:156] Memory required for data: 546542080
I0713 13:56:10.700098  5597 layer_factory.hpp:77] Creating layer inception_5b/5x5_reduce
I0713 13:56:10.700119  5597 net.cpp:91] Creating Layer inception_5b/5x5_reduce
I0713 13:56:10.700126  5597 net.cpp:425] inception_5b/5x5_reduce <- inception_5a/output_inception_5a/output_0_split_2
I0713 13:56:10.700136  5597 net.cpp:399] inception_5b/5x5_reduce -> inception_5b/5x5_reduce
I0713 13:56:10.703011  5597 net.cpp:141] Setting up inception_5b/5x5_reduce
I0713 13:56:10.703030  5597 net.cpp:148] Top shape: 10 48 7 7 (23520)
I0713 13:56:10.703037  5597 net.cpp:156] Memory required for data: 546636160
I0713 13:56:10.703045  5597 layer_factory.hpp:77] Creating layer inception_5b/relu_5x5_reduce
I0713 13:56:10.703055  5597 net.cpp:91] Creating Layer inception_5b/relu_5x5_reduce
I0713 13:56:10.703063  5597 net.cpp:425] inception_5b/relu_5x5_reduce <- inception_5b/5x5_reduce
I0713 13:56:10.703073  5597 net.cpp:386] inception_5b/relu_5x5_reduce -> inception_5b/5x5_reduce (in-place)
I0713 13:56:10.703357  5597 net.cpp:141] Setting up inception_5b/relu_5x5_reduce
I0713 13:56:10.703371  5597 net.cpp:148] Top shape: 10 48 7 7 (23520)
I0713 13:56:10.703375  5597 net.cpp:156] Memory required for data: 546730240
I0713 13:56:10.703382  5597 layer_factory.hpp:77] Creating layer inception_5b/5x5
I0713 13:56:10.703400  5597 net.cpp:91] Creating Layer inception_5b/5x5
I0713 13:56:10.703408  5597 net.cpp:425] inception_5b/5x5 <- inception_5b/5x5_reduce
I0713 13:56:10.703419  5597 net.cpp:399] inception_5b/5x5 -> inception_5b/5x5
I0713 13:56:10.707892  5597 net.cpp:141] Setting up inception_5b/5x5
I0713 13:56:10.707912  5597 net.cpp:148] Top shape: 10 128 7 7 (62720)
I0713 13:56:10.707918  5597 net.cpp:156] Memory required for data: 546981120
I0713 13:56:10.707928  5597 layer_factory.hpp:77] Creating layer inception_5b/relu_5x5
I0713 13:56:10.707938  5597 net.cpp:91] Creating Layer inception_5b/relu_5x5
I0713 13:56:10.707945  5597 net.cpp:425] inception_5b/relu_5x5 <- inception_5b/5x5
I0713 13:56:10.707957  5597 net.cpp:386] inception_5b/relu_5x5 -> inception_5b/5x5 (in-place)
I0713 13:56:10.708241  5597 net.cpp:141] Setting up inception_5b/relu_5x5
I0713 13:56:10.708255  5597 net.cpp:148] Top shape: 10 128 7 7 (62720)
I0713 13:56:10.708259  5597 net.cpp:156] Memory required for data: 547232000
I0713 13:56:10.708264  5597 layer_factory.hpp:77] Creating layer inception_5b/pool
I0713 13:56:10.708279  5597 net.cpp:91] Creating Layer inception_5b/pool
I0713 13:56:10.708287  5597 net.cpp:425] inception_5b/pool <- inception_5a/output_inception_5a/output_0_split_3
I0713 13:56:10.708294  5597 net.cpp:399] inception_5b/pool -> inception_5b/pool
I0713 13:56:10.708384  5597 net.cpp:141] Setting up inception_5b/pool
I0713 13:56:10.708395  5597 net.cpp:148] Top shape: 10 832 7 7 (407680)
I0713 13:56:10.708400  5597 net.cpp:156] Memory required for data: 548862720
I0713 13:56:10.708405  5597 layer_factory.hpp:77] Creating layer inception_5b/pool_proj
I0713 13:56:10.708420  5597 net.cpp:91] Creating Layer inception_5b/pool_proj
I0713 13:56:10.708426  5597 net.cpp:425] inception_5b/pool_proj <- inception_5b/pool
I0713 13:56:10.708439  5597 net.cpp:399] inception_5b/pool_proj -> inception_5b/pool_proj
I0713 13:56:10.712976  5597 net.cpp:141] Setting up inception_5b/pool_proj
I0713 13:56:10.712997  5597 net.cpp:148] Top shape: 10 128 7 7 (62720)
I0713 13:56:10.713003  5597 net.cpp:156] Memory required for data: 549113600
I0713 13:56:10.713013  5597 layer_factory.hpp:77] Creating layer inception_5b/relu_pool_proj
I0713 13:56:10.713026  5597 net.cpp:91] Creating Layer inception_5b/relu_pool_proj
I0713 13:56:10.713032  5597 net.cpp:425] inception_5b/relu_pool_proj <- inception_5b/pool_proj
I0713 13:56:10.713043  5597 net.cpp:386] inception_5b/relu_pool_proj -> inception_5b/pool_proj (in-place)
I0713 13:56:10.713879  5597 net.cpp:141] Setting up inception_5b/relu_pool_proj
I0713 13:56:10.713897  5597 net.cpp:148] Top shape: 10 128 7 7 (62720)
I0713 13:56:10.713903  5597 net.cpp:156] Memory required for data: 549364480
I0713 13:56:10.713908  5597 layer_factory.hpp:77] Creating layer inception_5b/output
I0713 13:56:10.713924  5597 net.cpp:91] Creating Layer inception_5b/output
I0713 13:56:10.713932  5597 net.cpp:425] inception_5b/output <- inception_5b/1x1
I0713 13:56:10.713938  5597 net.cpp:425] inception_5b/output <- inception_5b/3x3
I0713 13:56:10.713944  5597 net.cpp:425] inception_5b/output <- inception_5b/5x5
I0713 13:56:10.713950  5597 net.cpp:425] inception_5b/output <- inception_5b/pool_proj
I0713 13:56:10.713958  5597 net.cpp:399] inception_5b/output -> inception_5b/output
I0713 13:56:10.714016  5597 net.cpp:141] Setting up inception_5b/output
I0713 13:56:10.714028  5597 net.cpp:148] Top shape: 10 1024 7 7 (501760)
I0713 13:56:10.714032  5597 net.cpp:156] Memory required for data: 551371520
I0713 13:56:10.714037  5597 layer_factory.hpp:77] Creating layer pool5/7x7_s1
I0713 13:56:10.714047  5597 net.cpp:91] Creating Layer pool5/7x7_s1
I0713 13:56:10.714052  5597 net.cpp:425] pool5/7x7_s1 <- inception_5b/output
I0713 13:56:10.714066  5597 net.cpp:399] pool5/7x7_s1 -> pool5/7x7_s1
I0713 13:56:10.714426  5597 net.cpp:141] Setting up pool5/7x7_s1
I0713 13:56:10.714440  5597 net.cpp:148] Top shape: 10 1024 1 1 (10240)
I0713 13:56:10.714444  5597 net.cpp:156] Memory required for data: 551412480
I0713 13:56:10.714450  5597 layer_factory.hpp:77] Creating layer pool5/drop_7x7_s1
I0713 13:56:10.714465  5597 net.cpp:91] Creating Layer pool5/drop_7x7_s1
I0713 13:56:10.714471  5597 net.cpp:425] pool5/drop_7x7_s1 <- pool5/7x7_s1
I0713 13:56:10.714479  5597 net.cpp:386] pool5/drop_7x7_s1 -> pool5/7x7_s1 (in-place)
I0713 13:56:10.714540  5597 net.cpp:141] Setting up pool5/drop_7x7_s1
I0713 13:56:10.714550  5597 net.cpp:148] Top shape: 10 1024 1 1 (10240)
I0713 13:56:10.714555  5597 net.cpp:156] Memory required for data: 551453440
I0713 13:56:10.714560  5597 layer_factory.hpp:77] Creating layer loss3/classifier
I0713 13:56:10.714584  5597 net.cpp:91] Creating Layer loss3/classifier
I0713 13:56:10.714591  5597 net.cpp:425] loss3/classifier <- pool5/7x7_s1
I0713 13:56:10.714599  5597 net.cpp:399] loss3/classifier -> loss3/classifier
I0713 13:56:10.725996  5597 net.cpp:141] Setting up loss3/classifier
I0713 13:56:10.726019  5597 net.cpp:148] Top shape: 10 1000 (10000)
I0713 13:56:10.726025  5597 net.cpp:156] Memory required for data: 551493440
I0713 13:56:10.726037  5597 layer_factory.hpp:77] Creating layer prob
I0713 13:56:10.726049  5597 net.cpp:91] Creating Layer prob
I0713 13:56:10.726055  5597 net.cpp:425] prob <- loss3/classifier
I0713 13:56:10.726063  5597 net.cpp:399] prob -> prob
I0713 13:56:10.727183  5597 net.cpp:141] Setting up prob
I0713 13:56:10.727206  5597 net.cpp:148] Top shape: 10 1000 (10000)
I0713 13:56:10.727211  5597 net.cpp:156] Memory required for data: 551533440
I0713 13:56:10.727217  5597 net.cpp:219] prob does not need backward computation.
I0713 13:56:10.727223  5597 net.cpp:219] loss3/classifier does not need backward computation.
I0713 13:56:10.727228  5597 net.cpp:219] pool5/drop_7x7_s1 does not need backward computation.
I0713 13:56:10.727232  5597 net.cpp:219] pool5/7x7_s1 does not need backward computation.
…
