…
Java HotSpot(TM) 64-Bit Server VM warning: You have loaded library /home/peifeng/work/run/storm102/data/workers/e7afdc60-cc95-43a3-a771-665f47c54b8a/tmp/cvld8179734361505813345/libopencv_java310.xine1.so which might have disabled stack guard. The VM will try to fix the stack guard now.
It's highly recommended that you fix the library with 'execstack -c <libfile>', or link it with '-z noexecstack'.
WARNING: Logging before InitGoogleLogging() is written to STDERR
I0924 00:50:51.134506 27992 net.cpp:49] Initializing net from parameters: 
name: "GoogleNet"
state {
  phase: TEST
}
layer {
  name: "data"
  type: "Input"
  top: "data"
  input_param {
    shape {
      dim: 10
      dim: 3
      dim: 224
      dim: 224
    }
  }
}
layer {
  name: "conv1/7x7_s2"
  type: "Convolution"
  bottom: "data"
  top: "conv1/7x7_s2"
  param {
    lr_mult: 1
    decay_mult: 1
  }
  param {
    lr_mult: 2
    decay_mult: 0
  }
  convolution_param {
    num_output: 64
    pad: 3
    kernel_size: 7
    stride: 2
    weight_filler {
      type: "xavier"
      std: 0.1
    }
    bias_filler {
      type: "constant"
      value: 0.2
    }
  }
}
layer {
  name: "conv1/relu_7x7"
  type: "ReLU"
  bottom: "conv1/7x7_s2"
  top: "conv1/7x7_s2"
}
layer {
  name: "pool1/3x3_s2"
  type: "Pooling"
  bottom: "conv1/7x7_s2"
  top: "pool1/3x3_s2"
  pooling_param {
    pool: MAX
    kernel_size: 3
    stride: 2
  }
}
layer {
  name: "pool1/norm1"
  type: "LRN"
  bottom: "pool1/3x3_s2"
  top: "pool1/norm1"
  lrn_param {
    local_size: 5
    alpha: 0.0001
    beta: 0.75
  }
}
layer {
  name: "conv2/3x3_reduce"
  type: "Convolution"
  bottom: "pool1/norm1"
  top: "conv2/3x3_reduce"
  param {
    lr_mult: 1
    decay_mult: 1
  }
  param {
    lr_mult: 2
    decay_mult: 0
  }
  convolution_param {
    num_output: 64
    kernel_size: 1
    weight_filler {
      type: "xavier"
      std: 0.1
    }
    bias_filler {
      type: "constant"
      value: 0.2
    }
  }
}
layer {
  name: "conv2/relu_3x3_reduce"
  type: "ReLU"
  bottom: "conv2/3x3_reduce"
  top: "conv2/3x3_reduce"
}
layer {
  name: "conv2/3x3"
  type: "Convolution"
  bottom: "conv2/3x3_reduce"
  top: "conv2/3x3"
  param {
    lr_mult: 1
    decay_mult: 1
  }
  param {
    lr_mult: 2
    decay_mult: 0
  }
  convolution_param {
    num_output: 192
    pad: 1
    kernel_size: 3
    weight_filler {
      type: "xavier"
      std: 0.03
    }
    bias_filler {
      type: "constant"
      value: 0.2
    }
  }
}
layer {
  name: "conv2/relu_3x3"
  type: "ReLU"
  bottom: "conv2/3x3"
  top: "conv2/3x3"
}
layer {
  name: "conv2/norm2"
  type: "LRN"
  bottom: "conv2/3x3"
  top: "conv2/norm2"
  lrn_param {
    local_size: 5
    alpha: 0.0001
    beta: 0.75
  }
}
layer {
  name: "pool2/3x3_s2"
  type: "Pooling"
  bottom: "conv2/norm2"
  top: "pool2/3x3_s2"
  pooling_param {
    pool: MAX
    kernel_size: 3
    stride: 2
  }
}
layer {
  name: "inception_3a/1x1"
  type: "Convolution"
  bottom: "pool2/3x3_s2"
  top: "inception_3a/1x1"
  param {
    lr_mult: 1
    decay_mult: 1
  }
  param {
    lr_mult: 2
    decay_mult: 0
  }
  convolution_param {
    num_output: 64
    kernel_size: 1
    weight_filler {
      type: "xavier"
      std: 0.03
    }
    bias_filler {
      type: "constant"
      value: 0.2
    }
  }
}
layer {
  name: "inception_3a/relu_1x1"
  type: "ReLU"
  bottom: "inception_3a/1x1"
  top: "inception_3a/1x1"
}
layer {
  name: "inception_3a/3x3_reduce"
  type: "Convolution"
  bottom: "pool2/3x3_s2"
  top: "inception_3a/3x3_reduce"
  param {
    lr_mult: 1
    decay_mult: 1
  }
  param {
    lr_mult: 2
    decay_mult: 0
  }
  convolution_param {
    num_output: 96
    kernel_size: 1
    weight_filler {
      type: "xavier"
      std: 0.09
    }
    bias_filler {
      type: "constant"
      value: 0.2
    }
  }
}
layer {
  name: "inception_3a/relu_3x3_reduce"
  type: "ReLU"
  bottom: "inception_3a/3x3_reduce"
  top: "inception_3a/3x3_reduce"
}
layer {
  name: "inception_3a/3x3"
  type: "Convolution"
  bottom: "inception_3a/3x3_reduce"
  top: "inception_3a/3x3"
  param {
    lr_mult: 1
    decay_mult: 1
  }
  param {
    lr_mult: 2
    decay_mult: 0
  }
  convolution_param {
    num_output: 128
    pad: 1
    kernel_size: 3
    weight_filler {
      type: "xavier"
      std: 0.03
    }
    bias_filler {
      type: "constant"
      value: 0.2
    }
  }
}
layer {
  name: "inception_3a/relu_3x3"
  type: "ReLU"
  bottom: "inception_3a/3x3"
  top: "inception_3a/3x3"
}
layer {
  name: "inception_3a/5x5_reduce"
  type: "Convolution"
  bottom: "pool2/3x3_s2"
  top: "inception_3a/5x5_reduce"
  param {
    lr_mult: 1
    decay_mult: 1
  }
  param {
    lr_mult: 2
    decay_mult: 0
  }
  convolution_param {
    num_output: 16
    kernel_size: 1
    weight_filler {
      type: "xavier"
      std: 0.2
    }
    bias_filler {
      type: "constant"
      value: 0.2
    }
  }
}
layer {
  name: "inception_3a/relu_5x5_reduce"
  type: "ReLU"
  bottom: "inception_3a/5x5_reduce"
  top: "inception_3a/5x5_reduce"
}
layer {
  name: "inception_3a/5x5"
  type: "Convolution"
  bottom: "inception_3a/5x5_reduce"
  top: "inception_3a/5x5"
  param {
    lr_mult: 1
    decay_mult: 1
  }
  param {
    lr_mult: 2
    decay_mult: 0
  }
  convolution_param {
    num_output: 32
    pad: 2
    kernel_size: 5
    weight_filler {
      type: "xavier"
      std: 0.03
    }
    bias_filler {
      type: "constant"
      value: 0.2
    }
  }
}
layer {
  name: "inception_3a/relu_5x5"
  type: "ReLU"
  bottom: "inception_3a/5x5"
  top: "inception_3a/5x5"
}
layer {
  name: "inception_3a/pool"
  type: "Pooling"
  bottom: "pool2/3x3_s2"
  top: "inception_3a/pool"
  pooling_param {
    pool: MAX
    kernel_size: 3
    stride: 1
    pad: 1
  }
}
layer {
  name: "inception_3a/pool_proj"
  type: "Convolution"
  bottom: "inception_3a/pool"
  top: "inception_3a/pool_proj"
  param {
    lr_mult: 1
    decay_mult: 1
  }
  param {
    lr_mult: 2
    decay_mult: 0
  }
  convolution_param {
    num_output: 32
    kernel_size: 1
    weight_filler {
      type: "xavier"
      std: 0.1
    }
    bias_filler {
      type: "constant"
      value: 0.2
    }
  }
}
layer {
  name: "inception_3a/relu_pool_proj"
  type: "ReLU"
  bottom: "inception_3a/pool_proj"
  top: "inception_3a/pool_proj"
}
layer {
  name: "inception_3a/output"
  type: "Concat"
  bottom: "inception_3a/1x1"
  bottom: "inception_3a/3x3"
  bottom: "inception_3a/5x5"
  bottom: "inception_3a/pool_proj"
  top: "inception_3a/output"
}
layer {
  name: "inception_3b/1x1"
  type: "Convolution"
  bottom: "inception_3a/output"
  top: "inception_3b/1x1"
  param {
    lr_mult: 1
    decay_mult: 1
  }
  param {
    lr_mult: 2
    decay_mult: 0
  }
  convolution_param {
    num_output: 128
    kernel_size: 1
    weight_filler {
      type: "xavier"
      std: 0.03
    }
    bias_filler {
      type: "constant"
      value: 0.2
    }
  }
}
layer {
  name: "inception_3b/relu_1x1"
  type: "ReLU"
  bottom: "inception_3b/1x1"
  top: "inception_3b/1x1"
}
layer {
  name: "inception_3b/3x3_reduce"
  type: "Convolution"
  bottom: "inception_3a/output"
  top: "inception_3b/3x3_reduce"
  param {
    lr_mult: 1
    decay_mult: 1
  }
  param {
    lr_mult: 2
    decay_mult: 0
  }
  convolution_param {
    num_output: 128
    kernel_size: 1
    weight_filler {
      type: "xavier"
      std: 0.09
    }
    bias_filler {
      type: "constant"
      value: 0.2
    }
  }
}
layer {
  name: "inception_3b/relu_3x3_reduce"
  type: "ReLU"
  bottom: "inception_3b/3x3_reduce"
  top: "inception_3b/3x3_reduce"
}
layer {
  name: "inception_3b/3x3"
  type: "Convolution"
  bottom: "inception_3b/3x3_reduce"
  top: "inception_3b/3x3"
  param {
    lr_mult: 1
    decay_mult: 1
  }
  param {
    lr_mult: 2
    decay_mult: 0
  }
  convolution_param {
    num_output: 192
    pad: 1
    kernel_size: 3
    weight_filler {
      type: "xavier"
      std: 0.03
    }
    bias_filler {
      type: "constant"
      value: 0.2
    }
  }
}
layer {
  name: "inception_3b/relu_3x3"
  type: "ReLU"
  bottom: "inception_3b/3x3"
  top: "inception_3b/3x3"
}
layer {
  name: "inception_3b/5x5_reduce"
  type: "Convolution"
  bottom: "inception_3a/output"
  top: "inception_3b/5x5_reduce"
  param {
    lr_mult: 1
    decay_mult: 1
  }
  param {
    lr_mult: 2
    decay_mult: 0
  }
  convolution_param {
    num_output: 32
    kernel_size: 1
    weight_filler {
      type: "xavier"
      std: 0.2
    }
    bias_filler {
      type: "constant"
      value: 0.2
    }
  }
}
layer {
  name: "inception_3b/relu_5x5_reduce"
  type: "ReLU"
  bottom: "inception_3b/5x5_reduce"
  top: "inception_3b/5x5_reduce"
}
layer {
  name: "inception_3b/5x5"
  type: "Convolution"
  bottom: "inception_3b/5x5_reduce"
  top: "inception_3b/5x5"
  param {
    lr_mult: 1
    decay_mult: 1
  }
  param {
    lr_mult: 2
    decay_mult: 0
  }
  convolution_param {
    num_output: 96
    pad: 2
    kernel_size: 5
    weight_filler {
      type: "xavier"
      std: 0.03
    }
    bias_filler {
      type: "constant"
      value: 0.2
    }
  }
}
layer {
  name: "inception_3b/relu_5x5"
  type: "ReLU"
  bottom: "inception_3b/5x5"
  top: "inception_3b/5x5"
}
layer {
  name: "inception_3b/pool"
  type: "Pooling"
  bottom: "inception_3a/output"
  top: "inception_3b/pool"
  pooling_param {
    pool: MAX
    kernel_size: 3
    stride: 1
    pad: 1
  }
}
layer {
  name: "inception_3b/pool_proj"
  type: "Convolution"
  bottom: "inception_3b/pool"
  top: "inception_3b/pool_proj"
  param {
    lr_mult: 1
    decay_mult: 1
  }
  param {
    lr_mult: 2
    decay_mult: 0
  }
  convolution_param {
    num_output: 64
    kernel_size: 1
    weight_filler {
      type: "xavier"
      std: 0.1
    }
    bias_filler {
      type: "constant"
      value: 0.2
    }
  }
}
layer {
  name: "inception_3b/relu_pool_proj"
  type: "ReLU"
  bottom: "inception_3b/pool_proj"
  top: "inception_3b/pool_proj"
}
layer {
  name: "inception_3b/output"
  type: "Concat"
  bottom: "inception_3b/1x1"
  bottom: "inception_3b/3x3"
  bottom: "inception_3b/5x5"
  bottom: "inception_3b/pool_proj"
  top: "inception_3b/output"
}
layer {
  name: "pool3/3x3_s2"
  type: "Pooling"
  bottom: "inception_3b/output"
  top: "pool3/3x3_s2"
  pooling_param {
    pool: MAX
    kernel_size: 3
    stride: 2
  }
}
layer {
  name: "inception_4a/1x1"
  type: "Convolution"
  bottom: "pool3/3x3_s2"
  top: "inception_4a/1x1"
  param {
    lr_mult: 1
    decay_mult: 1
  }
  param {
    lr_mult: 2
    decay_mult: 0
  }
  convolution_param {
    num_output: 192
    kernel_size: 1
    weight_filler {
      type: "xavier"
      std: 0.03
    }
    bias_filler {
      type: "constant"
      value: 0.2
    }
  }
}
layer {
  name: "inception_4a/relu_1x1"
  type: "ReLU"
  bottom: "inception_4a/1x1"
  top: "inception_4a/1x1"
}
layer {
  name: "inception_4a/3x3_reduce"
  type: "Convolution"
  bottom: "pool3/3x3_s2"
  top: "inception_4a/3x3_reduce"
  param {
    lr_mult: 1
    decay_mult: 1
  }
  param {
    lr_mult: 2
    decay_mult: 0
  }
  convolution_param {
    num_output: 96
    kernel_size: 1
    weight_filler {
      type: "xavier"
      std: 0.09
    }
    bias_filler {
      type: "constant"
      value: 0.2
    }
  }
}
layer {
  name: "inception_4a/relu_3x3_reduce"
  type: "ReLU"
  bottom: "inception_4a/3x3_reduce"
  top: "inception_4a/3x3_reduce"
}
layer {
  name: "inception_4a/3x3"
  type: "Convolution"
  bottom: "inception_4a/3x3_reduce"
  top: "inception_4a/3x3"
  param {
    lr_mult: 1
    decay_mult: 1
  }
  param {
    lr_mult: 2
    decay_mult: 0
  }
  convolution_param {
    num_output: 208
    pad: 1
    kernel_size: 3
    weight_filler {
      type: "xavier"
      std: 0.03
    }
    bias_filler {
      type: "constant"
      value: 0.2
    }
  }
}
layer {
  name: "inception_4a/relu_3x3"
  type: "ReLU"
  bottom: "inception_4a/3x3"
  top: "inception_4a/3x3"
}
layer {
  name: "inception_4a/5x5_reduce"
  type: "Convolution"
  bottom: "pool3/3x3_s2"
  top: "inception_4a/5x5_reduce"
  param {
    lr_mult: 1
    decay_mult: 1
  }
  param {
    lr_mult: 2
    decay_mult: 0
  }
  convolution_param {
    num_output: 16
    kernel_size: 1
    weight_filler {
      type: "xavier"
      std: 0.2
    }
    bias_filler {
      type: "constant"
      value: 0.2
    }
  }
}
layer {
  name: "inception_4a/relu_5x5_reduce"
  type: "ReLU"
  bottom: "inception_4a/5x5_reduce"
  top: "inception_4a/5x5_reduce"
}
layer {
  name: "inception_4a/5x5"
  type: "Convolution"
  bottom: "inception_4a/5x5_reduce"
  top: "inception_4a/5x5"
  param {
    lr_mult: 1
    decay_mult: 1
  }
  param {
    lr_mult: 2
    decay_mult: 0
  }
  convolution_param {
    num_output: 48
    pad: 2
    kernel_size: 5
    weight_filler {
      type: "xavier"
      std: 0.03
    }
    bias_filler {
      type: "constant"
      value: 0.2
    }
  }
}
layer {
  name: "inception_4a/relu_5x5"
  type: "ReLU"
  bottom: "inception_4a/5x5"
  top: "inception_4a/5x5"
}
layer {
  name: "inception_4a/pool"
  type: "Pooling"
  bottom: "pool3/3x3_s2"
  top: "inception_4a/pool"
  pooling_param {
    pool: MAX
    kernel_size: 3
    stride: 1
    pad: 1
  }
}
layer {
  name: "inception_4a/pool_proj"
  type: "Convolution"
  bottom: "inception_4a/pool"
  top: "inception_4a/pool_proj"
  param {
    lr_mult: 1
    decay_mult: 1
  }
  param {
    lr_mult: 2
    decay_mult: 0
  }
  convolution_param {
    num_output: 64
    kernel_size: 1
    weight_filler {
      type: "xavier"
      std: 0.1
    }
    bias_filler {
      type: "constant"
      value: 0.2
    }
  }
}
layer {
  name: "inception_4a/relu_pool_proj"
  type: "ReLU"
  bottom: "inception_4a/pool_proj"
  top: "inception_4a/pool_proj"
}
layer {
  name: "inception_4a/output"
  type: "Concat"
  bottom: "inception_4a/1x1"
  bottom: "inception_4a/3x3"
  bottom: "inception_4a/5x5"
  bottom: "inception_4a/pool_proj"
  top: "inception_4a/output"
}
layer {
  name: "inception_4b/1x1"
  type: "Convolution"
  bottom: "inception_4a/output"
  top: "inception_4b/1x1"
  param {
    lr_mult: 1
    decay_mult: 1
  }
  param {
    lr_mult: 2
    decay_mult: 0
  }
  convolution_param {
    num_output: 160
    kernel_size: 1
    weight_filler {
      type: "xavier"
      std: 0.03
    }
    bias_filler {
      type: "constant"
      value: 0.2
    }
  }
}
layer {
  name: "inception_4b/relu_1x1"
  type: "ReLU"
  bottom: "inception_4b/1x1"
  top: "inception_4b/1x1"
}
layer {
  name: "inception_4b/3x3_reduce"
  type: "Convolution"
  bottom: "inception_4a/output"
  top: "inception_4b/3x3_reduce"
  param {
    lr_mult: 1
    decay_mult: 1
  }
  param {
    lr_mult: 2
    decay_mult: 0
  }
  convolution_param {
    num_output: 112
    kernel_size: 1
    weight_filler {
      type: "xavier"
      std: 0.09
    }
    bias_filler {
      type: "constant"
      value: 0.2
    }
  }
}
layer {
  name: "inception_4b/relu_3x3_reduce"
  type: "ReLU"
  bottom: "inception_4b/3x3_reduce"
  top: "inception_4b/3x3_reduce"
}
layer {
  name: "inception_4b/3x3"
  type: "Convolution"
  bottom: "inception_4b/3x3_reduce"
  top: "inception_4b/3x3"
  param {
    lr_mult: 1
    decay_mult: 1
  }
  param {
    lr_mult: 2
    decay_mult: 0
  }
  convolution_param {
    num_output: 224
    pad: 1
    kernel_size: 3
    weight_filler {
      type: "xavier"
      std: 0.03
    }
    bias_filler {
      type: "constant"
      value: 0.2
    }
  }
}
layer {
  name: "inception_4b/relu_3x3"
  type: "ReLU"
  bottom: "inception_4b/3x3"
  top: "inception_4b/3x3"
}
layer {
  name: "inception_4b/5x5_reduce"
  type: "Convolution"
  bottom: "inception_4a/output"
  top: "inception_4b/5x5_reduce"
  param {
    lr_mult: 1
    decay_mult: 1
  }
  param {
    lr_mult: 2
    decay_mult: 0
  }
  convolution_param {
    num_output: 24
    kernel_size: 1
    weight_filler {
      type: "xavier"
      std: 0.2
    }
    bias_filler {
      type: "constant"
      value: 0.2
    }
  }
}
layer {
  name: "inception_4b/relu_5x5_reduce"
  type: "ReLU"
  bottom: "inception_4b/5x5_reduce"
  top: "inception_4b/5x5_reduce"
}
layer {
  name: "inception_4b/5x5"
  type: "Convolution"
  bottom: "inception_4b/5x5_reduce"
  top: "inception_4b/5x5"
  param {
    lr_mult: 1
    decay_mult: 1
  }
  param {
    lr_mult: 2
    decay_mult: 0
  }
  convolution_param {
    num_output: 64
    pad: 2
    kernel_size: 5
    weight_filler {
      type: "xavier"
      std: 0.03
    }
    bias_filler {
      type: "constant"
      value: 0.2
    }
  }
}
layer {
  name: "inception_4b/relu_5x5"
  type: "ReLU"
  bottom: "inception_4b/5x5"
  top: "inception_4b/5x5"
}
layer {
  name: "inception_4b/pool"
  type: "Pooling"
  bottom: "inception_4a/output"
  top: "inception_4b/pool"
  pooling_param {
    pool: MAX
    kernel_size: 3
    stride: 1
    pad: 1
  }
}
layer {
  name: "inception_4b/pool_proj"
  type: "Convolution"
  bottom: "inception_4b/pool"
  top: "inception_4b/pool_proj"
  param {
    lr_mult: 1
    decay_mult: 1
  }
  param {
    lr_mult: 2
    decay_mult: 0
  }
  convolution_param {
    num_output: 64
    kernel_size: 1
    weight_filler {
      type: "xavier"
      std: 0.1
    }
    bias_filler {
      type: "constant"
      value: 0.2
    }
  }
}
layer {
  name: "inception_4b/relu_pool_proj"
  type: "ReLU"
  bottom: "inception_4b/pool_proj"
  top: "inception_4b/pool_proj"
}
layer {
  name: "inception_4b/output"
  type: "Concat"
  bottom: "inception_4b/1x1"
  bottom: "inception_4b/3x3"
  bottom: "inception_4b/5x5"
  bottom: "inception_4b/pool_proj"
  top: "inception_4b/output"
}
layer {
  name: "inception_4c/1x1"
  type: "Convolution"
  bottom: "inception_4b/output"
  top: "inception_4c/1x1"
  param {
    lr_mult: 1
    decay_mult: 1
  }
  param {
    lr_mult: 2
    decay_mult: 0
  }
  convolution_param {
    num_output: 128
    kernel_size: 1
    weight_filler {
      type: "xavier"
      std: 0.03
    }
    bias_filler {
      type: "constant"
      value: 0.2
    }
  }
}
layer {
  name: "inception_4c/relu_1x1"
  type: "ReLU"
  bottom: "inception_4c/1x1"
  top: "inception_4c/1x1"
}
layer {
  name: "inception_4c/3x3_reduce"
  type: "Convolution"
  bottom: "inception_4b/output"
  top: "inception_4c/3x3_reduce"
  param {
    lr_mult: 1
    decay_mult: 1
  }
  param {
    lr_mult: 2
    decay_mult: 0
  }
  convolution_param {
    num_output: 128
    kernel_size: 1
    weight_filler {
      type: "xavier"
      std: 0.09
    }
    bias_filler {
      type: "constant"
      value: 0.2
    }
  }
}
layer {
  name: "inception_4c/relu_3x3_reduce"
  type: "ReLU"
  bottom: "inception_4c/3x3_reduce"
  top: "inception_4c/3x3_reduce"
}
layer {
  name: "inception_4c/3x3"
  type: "Convolution"
  bottom: "inception_4c/3x3_reduce"
  top: "inception_4c/3x3"
  param {
    lr_mult: 1
    decay_mult: 1
  }
  param {
    lr_mult: 2
    decay_mult: 0
  }
  convolution_param {
    num_output: 256
    pad: 1
    kernel_size: 3
    weight_filler {
      type: "xavier"
      std: 0.03
    }
    bias_filler {
      type: "constant"
      value: 0.2
    }
  }
}
layer {
  name: "inception_4c/relu_3x3"
  type: "ReLU"
  bottom: "inception_4c/3x3"
  top: "inception_4c/3x3"
}
layer {
  name: "inception_4c/5x5_reduce"
  type: "Convolution"
  bottom: "inception_4b/output"
  top: "inception_4c/5x5_reduce"
  param {
    lr_mult: 1
    decay_mult: 1
  }
  param {
    lr_mult: 2
    decay_mult: 0
  }
  convolution_param {
    num_output: 24
    kernel_size: 1
    weight_filler {
      type: "xavier"
      std: 0.2
    }
    bias_filler {
      type: "constant"
      value: 0.2
    }
  }
}
layer {
  name: "inception_4c/relu_5x5_reduce"
  type: "ReLU"
  bottom: "inception_4c/5x5_reduce"
  top: "inception_4c/5x5_reduce"
}
layer {
  name: "inception_4c/5x5"
  type: "Convolution"
  bottom: "inception_4c/5x5_reduce"
  top: "inception_4c/5x5"
  param {
    lr_mult: 1
    decay_mult: 1
  }
  param {
    lr_mult: 2
    decay_mult: 0
  }
  convolution_param {
    num_output: 64
    pad: 2
    kernel_size: 5
    weight_filler {
      type: "xavier"
      std: 0.03
    }
    bias_filler {
      type: "constant"
      value: 0.2
    }
  }
}
layer {
  name: "inception_4c/relu_5x5"
  type: "ReLU"
  bottom: "inception_4c/5x5"
  top: "inception_4c/5x5"
}
layer {
  name: "inception_4c/pool"
  type: "Pooling"
  bottom: "inception_4b/output"
  top: "inception_4c/pool"
  pooling_param {
    pool: MAX
    kernel_size: 3
    stride: 1
    pad: 1
  }
}
layer {
  name: "inception_4c/pool_proj"
  type: "Convolution"
  bottom: "inception_4c/pool"
  top: "inception_4c/pool_proj"
  param {
    lr_mult: 1
    decay_mult: 1
  }
  param {
    lr_mult: 2
    decay_mult: 0
  }
  convolution_param {
    num_output: 64
    kernel_size: 1
    weight_filler {
      type: "xavier"
      std: 0.1
    }
    bias_filler {
      type: "constant"
      value: 0.2
    }
  }
}
layer {
  name: "inception_4c/relu_pool_proj"
  type: "ReLU"
  bottom: "inception_4c/pool_proj"
  top: "inception_4c/pool_proj"
}
layer {
  name: "inception_4c/output"
  type: "Concat"
  bottom: "inception_4c/1x1"
  bottom: "inception_4c/3x3"
  bottom: "inception_4c/5x5"
  bottom: "inception_4c/pool_proj"
  top: "inception_4c/output"
}
layer {
  name: "inception_4d/1x1"
  type: "Convolution"
  bottom: "inception_4c/output"
  top: "inception_4d/1x1"
  param {
    lr_mult: 1
    decay_mult: 1
  }
  param {
    lr_mult: 2
    decay_mult: 0
  }
  convolution_param {
    num_output: 112
    kernel_size: 1
    weight_filler {
      type: "xavier"
      std: 0.03
    }
    bias_filler {
      type: "constant"
      value: 0.2
    }
  }
}
layer {
  name: "inception_4d/relu_1x1"
  type: "ReLU"
  bottom: "inception_4d/1x1"
  top: "inception_4d/1x1"
}
layer {
  name: "inception_4d/3x3_reduce"
  type: "Convolution"
  bottom: "inception_4c/output"
  top: "inception_4d/3x3_reduce"
  param {
    lr_mult: 1
    decay_mult: 1
  }
  param {
    lr_mult: 2
    decay_mult: 0
  }
  convolution_param {
    num_output: 144
    kernel_size: 1
    weight_filler {
      type: "xavier"
      std: 0.09
    }
    bias_filler {
      type: "constant"
      value: 0.2
    }
  }
}
layer {
  name: "inception_4d/relu_3x3_reduce"
  type: "ReLU"
  bottom: "inception_4d/3x3_reduce"
  top: "inception_4d/3x3_reduce"
}
layer {
  name: "inception_4d/3x3"
  type: "Convolution"
  bottom: "inception_4d/3x3_reduce"
  top: "inception_4d/3x3"
  param {
    lr_mult: 1
    decay_mult: 1
  }
  param {
    lr_mult: 2
    decay_mult: 0
  }
  convolution_param {
    num_output: 288
    pad: 1
    kernel_size: 3
    weight_filler {
      type: "xavier"
      std: 0.03
    }
    bias_filler {
      type: "constant"
      value: 0.2
    }
  }
}
layer {
  name: "inception_4d/relu_3x3"
  type: "ReLU"
  bottom: "inception_4d/3x3"
  top: "inception_4d/3x3"
}
layer {
  name: "inception_4d/5x5_reduce"
  type: "Convolution"
  bottom: "inception_4c/output"
  top: "inception_4d/5x5_reduce"
  param {
    lr_mult: 1
    decay_mult: 1
  }
  param {
    lr_mult: 2
    decay_mult: 0
  }
  convolution_param {
    num_output: 32
    kernel_size: 1
    weight_filler {
      type: "xavier"
      std: 0.2
    }
    bias_filler {
      type: "constant"
      value: 0.2
    }
  }
}
layer {
  name: "inception_4d/relu_5x5_reduce"
  type: "ReLU"
  bottom: "inception_4d/5x5_reduce"
  top: "inception_4d/5x5_reduce"
}
layer {
  name: "inception_4d/5x5"
  type: "Convolution"
  bottom: "inception_4d/5x5_reduce"
  top: "inception_4d/5x5"
  param {
    lr_mult: 1
    decay_mult: 1
  }
  param {
    lr_mult: 2
    decay_mult: 0
  }
  convolution_param {
    num_output: 64
    pad: 2
    kernel_size: 5
    weight_filler {
      type: "xavier"
      std: 0.03
    }
    bias_filler {
      type: "constant"
      value: 0.2
    }
  }
}
layer {
  name: "inception_4d/relu_5x5"
  type: "ReLU"
  bottom: "inception_4d/5x5"
  top: "inception_4d/5x5"
}
layer {
  name: "inception_4d/pool"
  type: "Pooling"
  bottom: "inception_4c/output"
  top: "inception_4d/pool"
  pooling_param {
    pool: MAX
    kernel_size: 3
    stride: 1
    pad: 1
  }
}
layer {
  name: "inception_4d/pool_proj"
  type: "Convolution"
  bottom: "inception_4d/pool"
  top: "inception_4d/pool_proj"
  param {
    lr_mult: 1
    decay_mult: 1
  }
  param {
    lr_mult: 2
    decay_mult: 0
  }
  convolution_param {
    num_output: 64
    kernel_size: 1
    weight_filler {
      type: "xavier"
      std: 0.1
    }
    bias_filler {
      type: "constant"
      value: 0.2
    }
  }
}
layer {
  name: "inception_4d/relu_pool_proj"
  type: "ReLU"
  bottom: "inception_4d/pool_proj"
  top: "inception_4d/pool_proj"
}
layer {
  name: "inception_4d/output"
  type: "Concat"
  bottom: "inception_4d/1x1"
  bottom: "inception_4d/3x3"
  bottom: "inception_4d/5x5"
  bottom: "inception_4d/pool_proj"
  top: "inception_4d/output"
}
layer {
  name: "inception_4e/1x1"
  type: "Convolution"
  bottom: "inception_4d/output"
  top: "inception_4e/1x1"
  param {
    lr_mult: 1
    decay_mult: 1
  }
  param {
    lr_mult: 2
    decay_mult: 0
  }
  convolution_param {
    num_output: 256
    kernel_size: 1
    weight_filler {
      type: "xavier"
      std: 0.03
    }
    bias_filler {
      type: "constant"
      value: 0.2
    }
  }
}
layer {
  name: "inception_4e/relu_1x1"
  type: "ReLU"
  bottom: "inception_4e/1x1"
  top: "inception_4e/1x1"
}
layer {
  name: "inception_4e/3x3_reduce"
  type: "Convolution"
  bottom: "inception_4d/output"
  top: "inception_4e/3x3_reduce"
  param {
    lr_mult: 1
    decay_mult: 1
  }
  param {
    lr_mult: 2
    decay_mult: 0
  }
  convolution_param {
    num_output: 160
    kernel_size: 1
    weight_filler {
      type: "xavier"
      std: 0.09
    }
    bias_filler {
      type: "constant"
      value: 0.2
    }
  }
}
layer {
  name: "inception_4e/relu_3x3_reduce"
  type: "ReLU"
  bottom: "inception_4e/3x3_reduce"
  top: "inception_4e/3x3_reduce"
}
layer {
  name: "inception_4e/3x3"
  type: "Convolution"
  bottom: "inception_4e/3x3_reduce"
  top: "inception_4e/3x3"
  param {
    lr_mult: 1
    decay_mult: 1
  }
  param {
    lr_mult: 2
    decay_mult: 0
  }
  convolution_param {
    num_output: 320
    pad: 1
    kernel_size: 3
    weight_filler {
      type: "xavier"
      std: 0.03
    }
    bias_filler {
      type: "constant"
      value: 0.2
    }
  }
}
layer {
  name: "inception_4e/relu_3x3"
  type: "ReLU"
  bottom: "inception_4e/3x3"
  top: "inception_4e/3x3"
}
layer {
  name: "inception_4e/5x5_reduce"
  type: "Convolution"
  bottom: "inception_4d/output"
  top: "inception_4e/5x5_reduce"
  param {
    lr_mult: 1
    decay_mult: 1
  }
  param {
    lr_mult: 2
    decay_mult: 0
  }
  convolution_param {
    num_output: 32
    kernel_size: 1
    weight_filler {
      type: "xavier"
      std: 0.2
    }
    bias_filler {
      type: "constant"
      value: 0.2
    }
  }
}
layer {
  name: "inception_4e/relu_5x5_reduce"
  type: "ReLU"
  bottom: "inception_4e/5x5_reduce"
  top: "inception_4e/5x5_reduce"
}
layer {
  name: "inception_4e/5x5"
  type: "Convolution"
  bottom: "inception_4e/5x5_reduce"
  top: "inception_4e/5x5"
  param {
    lr_mult: 1
    decay_mult: 1
  }
  param {
    lr_mult: 2
    decay_mult: 0
  }
  convolution_param {
    num_output: 128
    pad: 2
    kernel_size: 5
    weight_filler {
      type: "xavier"
      std: 0.03
    }
    bias_filler {
      type: "constant"
      value: 0.2
    }
  }
}
layer {
  name: "inception_4e/relu_5x5"
  type: "ReLU"
  bottom: "inception_4e/5x5"
  top: "inception_4e/5x5"
}
layer {
  name: "inception_4e/pool"
  type: "Pooling"
  bottom: "inception_4d/output"
  top: "inception_4e/pool"
  pooling_param {
    pool: MAX
    kernel_size: 3
    stride: 1
    pad: 1
  }
}
layer {
  name: "inception_4e/pool_proj"
  type: "Convolution"
  bottom: "inception_4e/pool"
  top: "inception_4e/pool_proj"
  param {
    lr_mult: 1
    decay_mult: 1
  }
  param {
    lr_mult: 2
    decay_mult: 0
  }
  convolution_param {
    num_output: 128
    kernel_size: 1
    weight_filler {
      type: "xavier"
      std: 0.1
    }
    bias_filler {
      type: "constant"
      value: 0.2
    }
  }
}
layer {
  name: "inception_4e/relu_pool_proj"
  type: "ReLU"
  bottom: "inception_4e/pool_proj"
  top: "inception_4e/pool_proj"
}
layer {
  name: "inception_4e/output"
  type: "Concat"
  bottom: "inception_4e/1x1"
  bottom: "inception_4e/3x3"
  bottom: "inception_4e/5x5"
  bottom: "inception_4e/pool_proj"
  top: "inception_4e/output"
}
layer {
  name: "pool4/3x3_s2"
  type: "Pooling"
  bottom: "inception_4e/output"
  top: "pool4/3x3_s2"
  pooling_param {
    pool: MAX
    kernel_size: 3
    stride: 2
  }
}
layer {
  name: "inception_5a/1x1"
  type: "Convolution"
  bottom: "pool4/3x3_s2"
  top: "inception_5a/1x1"
  param {
    lr_mult: 1
    decay_mult: 1
  }
  param {
    lr_mult: 2
    decay_mult: 0
  }
  convolution_param {
    num_output: 256
    kernel_size: 1
    weight_filler {
      type: "xavier"
      std: 0.03
    }
    bias_filler {
      type: "constant"
      value: 0.2
    }
  }
}
layer {
  name: "inception_5a/relu_1x1"
  type: "ReLU"
  bottom: "inception_5a/1x1"
  top: "inception_5a/1x1"
}
layer {
  name: "inception_5a/3x3_reduce"
  type: "Convolution"
  bottom: "pool4/3x3_s2"
  top: "inception_5a/3x3_reduce"
  param {
    lr_mult: 1
    decay_mult: 1
  }
  param {
    lr_mult: 2
    decay_mult: 0
  }
  convolution_param {
    num_output: 160
    kernel_size: 1
    weight_filler {
      type: "xavier"
      std: 0.09
    }
    bias_filler {
      type: "constant"
      value: 0.2
    }
  }
}
layer {
  name: "inception_5a/relu_3x3_reduce"
  type: "ReLU"
  bottom: "inception_5a/3x3_reduce"
  top: "inception_5a/3x3_reduce"
}
layer {
  name: "inception_5a/3x3"
  type: "Convolution"
  bottom: "inception_5a/3x3_reduce"
  top: "inception_5a/3x3"
  param {
    lr_mult: 1
    decay_mult: 1
  }
  param {
    lr_mult: 2
    decay_mult: 0
  }
  convolution_param {
    num_output: 320
    pad: 1
    kernel_size: 3
    weight_filler {
      type: "xavier"
      std: 0.03
    }
    bias_filler {
      type: "constant"
      value: 0.2
    }
  }
}
layer {
  name: "inception_5a/relu_3x3"
  type: "ReLU"
  bottom: "inception_5a/3x3"
  top: "inception_5a/3x3"
}
layer {
  name: "inception_5a/5x5_reduce"
  type: "Convolution"
  bottom: "pool4/3x3_s2"
  top: "inception_5a/5x5_reduce"
  param {
    lr_mult: 1
    decay_mult: 1
  }
  param {
    lr_mult: 2
    decay_mult: 0
  }
  convolution_param {
    num_output: 32
    kernel_size: 1
    weight_filler {
      type: "xavier"
      std: 0.2
    }
    bias_filler {
      type: "constant"
      value: 0.2
    }
I0924 00:50:51.135509 27992 layer_factory.hpp:77] Creating layer data
I0924 00:50:51.135545 27992 net.cpp:91] Creating Layer data
I0924 00:50:51.135557 27992 net.cpp:399] data -> data
I0924 00:50:51.699102 27992 net.cpp:141] Setting up data
I0924 00:50:51.699179 27992 net.cpp:148] Top shape: 10 3 224 224 (1505280)
I0924 00:50:51.699187 27992 net.cpp:156] Memory required for data: 6021120
I0924 00:50:51.699209 27992 layer_factory.hpp:77] Creating layer conv1/7x7_s2
I0924 00:50:51.699249 27992 net.cpp:91] Creating Layer conv1/7x7_s2
I0924 00:50:51.699259 27992 net.cpp:425] conv1/7x7_s2 <- data
I0924 00:50:51.699273 27992 net.cpp:399] conv1/7x7_s2 -> conv1/7x7_s2
I0924 00:50:51.896529 27992 net.cpp:141] Setting up conv1/7x7_s2
I0924 00:50:51.896575 27992 net.cpp:148] Top shape: 10 64 112 112 (8028160)
I0924 00:50:51.896582 27992 net.cpp:156] Memory required for data: 38133760
I0924 00:50:51.896610 27992 layer_factory.hpp:77] Creating layer conv1/relu_7x7
I0924 00:50:51.896628 27992 net.cpp:91] Creating Layer conv1/relu_7x7
I0924 00:50:51.896636 27992 net.cpp:425] conv1/relu_7x7 <- conv1/7x7_s2
I0924 00:50:51.896643 27992 net.cpp:386] conv1/relu_7x7 -> conv1/7x7_s2 (in-place)
I0924 00:50:51.897063 27992 net.cpp:141] Setting up conv1/relu_7x7
I0924 00:50:51.897079 27992 net.cpp:148] Top shape: 10 64 112 112 (8028160)
I0924 00:50:51.897084 27992 net.cpp:156] Memory required for data: 70246400
I0924 00:50:51.897090 27992 layer_factory.hpp:77] Creating layer pool1/3x3_s2
I0924 00:50:51.897104 27992 net.cpp:91] Creating Layer pool1/3x3_s2
I0924 00:50:51.897110 27992 net.cpp:425] pool1/3x3_s2 <- conv1/7x7_s2
I0924 00:50:51.897119 27992 net.cpp:399] pool1/3x3_s2 -> pool1/3x3_s2
I0924 00:50:51.897203 27992 net.cpp:141] Setting up pool1/3x3_s2
I0924 00:50:51.897214 27992 net.cpp:148] Top shape: 10 64 56 56 (2007040)
I0924 00:50:51.897219 27992 net.cpp:156] Memory required for data: 78274560
I0924 00:50:51.897225 27992 layer_factory.hpp:77] Creating layer pool1/norm1
I0924 00:50:51.897243 27992 net.cpp:91] Creating Layer pool1/norm1
I0924 00:50:51.897248 27992 net.cpp:425] pool1/norm1 <- pool1/3x3_s2
I0924 00:50:51.897256 27992 net.cpp:399] pool1/norm1 -> pool1/norm1
I0924 00:50:51.897537 27992 net.cpp:141] Setting up pool1/norm1
I0924 00:50:51.897552 27992 net.cpp:148] Top shape: 10 64 56 56 (2007040)
I0924 00:50:51.897557 27992 net.cpp:156] Memory required for data: 86302720
I0924 00:50:51.897562 27992 layer_factory.hpp:77] Creating layer conv2/3x3_reduce
I0924 00:50:51.897580 27992 net.cpp:91] Creating Layer conv2/3x3_reduce
I0924 00:50:51.897586 27992 net.cpp:425] conv2/3x3_reduce <- pool1/norm1
I0924 00:50:51.897595 27992 net.cpp:399] conv2/3x3_reduce -> conv2/3x3_reduce
I0924 00:50:51.899749 27992 net.cpp:141] Setting up conv2/3x3_reduce
I0924 00:50:51.899772 27992 net.cpp:148] Top shape: 10 64 56 56 (2007040)
I0924 00:50:51.899778 27992 net.cpp:156] Memory required for data: 94330880
I0924 00:50:51.899791 27992 layer_factory.hpp:77] Creating layer conv2/relu_3x3_reduce
I0924 00:50:51.899801 27992 net.cpp:91] Creating Layer conv2/relu_3x3_reduce
I0924 00:50:51.899807 27992 net.cpp:425] conv2/relu_3x3_reduce <- conv2/3x3_reduce
I0924 00:50:51.899814 27992 net.cpp:386] conv2/relu_3x3_reduce -> conv2/3x3_reduce (in-place)
I0924 00:50:51.900238 27992 net.cpp:141] Setting up conv2/relu_3x3_reduce
I0924 00:50:51.900252 27992 net.cpp:148] Top shape: 10 64 56 56 (2007040)
I0924 00:50:51.900259 27992 net.cpp:156] Memory required for data: 102359040
I0924 00:50:51.900264 27992 layer_factory.hpp:77] Creating layer conv2/3x3
I0924 00:50:51.900279 27992 net.cpp:91] Creating Layer conv2/3x3
I0924 00:50:51.900285 27992 net.cpp:425] conv2/3x3 <- conv2/3x3_reduce
I0924 00:50:51.900295 27992 net.cpp:399] conv2/3x3 -> conv2/3x3
I0924 00:50:51.904032 27992 net.cpp:141] Setting up conv2/3x3
I0924 00:50:51.904065 27992 net.cpp:148] Top shape: 10 192 56 56 (6021120)
I0924 00:50:51.904078 27992 net.cpp:156] Memory required for data: 126443520
I0924 00:50:51.904103 27992 layer_factory.hpp:77] Creating layer conv2/relu_3x3
I0924 00:50:51.904124 27992 net.cpp:91] Creating Layer conv2/relu_3x3
I0924 00:50:51.904135 27992 net.cpp:425] conv2/relu_3x3 <- conv2/3x3
I0924 00:50:51.904150 27992 net.cpp:386] conv2/relu_3x3 -> conv2/3x3 (in-place)
I0924 00:50:51.904567 27992 net.cpp:141] Setting up conv2/relu_3x3
I0924 00:50:51.904590 27992 net.cpp:148] Top shape: 10 192 56 56 (6021120)
I0924 00:50:51.904602 27992 net.cpp:156] Memory required for data: 150528000
I0924 00:50:51.904613 27992 layer_factory.hpp:77] Creating layer conv2/norm2
I0924 00:50:51.904630 27992 net.cpp:91] Creating Layer conv2/norm2
I0924 00:50:51.904642 27992 net.cpp:425] conv2/norm2 <- conv2/3x3
I0924 00:50:51.904656 27992 net.cpp:399] conv2/norm2 -> conv2/norm2
I0924 00:50:51.905382 27992 net.cpp:141] Setting up conv2/norm2
I0924 00:50:51.905411 27992 net.cpp:148] Top shape: 10 192 56 56 (6021120)
I0924 00:50:51.905422 27992 net.cpp:156] Memory required for data: 174612480
I0924 00:50:51.905432 27992 layer_factory.hpp:77] Creating layer pool2/3x3_s2
I0924 00:50:51.905447 27992 net.cpp:91] Creating Layer pool2/3x3_s2
I0924 00:50:51.905458 27992 net.cpp:425] pool2/3x3_s2 <- conv2/norm2
I0924 00:50:51.905473 27992 net.cpp:399] pool2/3x3_s2 -> pool2/3x3_s2
I0924 00:50:51.905563 27992 net.cpp:141] Setting up pool2/3x3_s2
I0924 00:50:51.905582 27992 net.cpp:148] Top shape: 10 192 28 28 (1505280)
I0924 00:50:51.905592 27992 net.cpp:156] Memory required for data: 180633600
I0924 00:50:51.905602 27992 layer_factory.hpp:77] Creating layer pool2/3x3_s2_pool2/3x3_s2_0_split
I0924 00:50:51.905627 27992 net.cpp:91] Creating Layer pool2/3x3_s2_pool2/3x3_s2_0_split
I0924 00:50:51.905637 27992 net.cpp:425] pool2/3x3_s2_pool2/3x3_s2_0_split <- pool2/3x3_s2
I0924 00:50:51.905650 27992 net.cpp:399] pool2/3x3_s2_pool2/3x3_s2_0_split -> pool2/3x3_s2_pool2/3x3_s2_0_split_0
I0924 00:50:51.905669 27992 net.cpp:399] pool2/3x3_s2_pool2/3x3_s2_0_split -> pool2/3x3_s2_pool2/3x3_s2_0_split_1
I0924 00:50:51.905686 27992 net.cpp:399] pool2/3x3_s2_pool2/3x3_s2_0_split -> pool2/3x3_s2_pool2/3x3_s2_0_split_2
I0924 00:50:51.905702 27992 net.cpp:399] pool2/3x3_s2_pool2/3x3_s2_0_split -> pool2/3x3_s2_pool2/3x3_s2_0_split_3
I0924 00:50:51.905827 27992 net.cpp:141] Setting up pool2/3x3_s2_pool2/3x3_s2_0_split
I0924 00:50:51.905846 27992 net.cpp:148] Top shape: 10 192 28 28 (1505280)
I0924 00:50:51.905858 27992 net.cpp:148] Top shape: 10 192 28 28 (1505280)
I0924 00:50:51.905870 27992 net.cpp:148] Top shape: 10 192 28 28 (1505280)
I0924 00:50:51.905882 27992 net.cpp:148] Top shape: 10 192 28 28 (1505280)
I0924 00:50:51.905890 27992 net.cpp:156] Memory required for data: 204718080
I0924 00:50:51.905900 27992 layer_factory.hpp:77] Creating layer inception_3a/1x1
I0924 00:50:51.905922 27992 net.cpp:91] Creating Layer inception_3a/1x1
I0924 00:50:51.905932 27992 net.cpp:425] inception_3a/1x1 <- pool2/3x3_s2_pool2/3x3_s2_0_split_0
I0924 00:50:51.905967 27992 net.cpp:399] inception_3a/1x1 -> inception_3a/1x1
I0924 00:50:51.908643 27992 net.cpp:141] Setting up inception_3a/1x1
I0924 00:50:51.908675 27992 net.cpp:148] Top shape: 10 64 28 28 (501760)
I0924 00:50:51.908687 27992 net.cpp:156] Memory required for data: 206725120
I0924 00:50:51.908706 27992 layer_factory.hpp:77] Creating layer inception_3a/relu_1x1
I0924 00:50:51.908730 27992 net.cpp:91] Creating Layer inception_3a/relu_1x1
I0924 00:50:51.908742 27992 net.cpp:425] inception_3a/relu_1x1 <- inception_3a/1x1
I0924 00:50:51.908762 27992 net.cpp:386] inception_3a/relu_1x1 -> inception_3a/1x1 (in-place)
I0924 00:50:51.909412 27992 net.cpp:141] Setting up inception_3a/relu_1x1
I0924 00:50:51.909435 27992 net.cpp:148] Top shape: 10 64 28 28 (501760)
I0924 00:50:51.909445 27992 net.cpp:156] Memory required for data: 208732160
I0924 00:50:51.909456 27992 layer_factory.hpp:77] Creating layer inception_3a/3x3_reduce
I0924 00:50:51.909487 27992 net.cpp:91] Creating Layer inception_3a/3x3_reduce
I0924 00:50:51.909500 27992 net.cpp:425] inception_3a/3x3_reduce <- pool2/3x3_s2_pool2/3x3_s2_0_split_1
I0924 00:50:51.909520 27992 net.cpp:399] inception_3a/3x3_reduce -> inception_3a/3x3_reduce
I0924 00:50:51.913437 27992 net.cpp:141] Setting up inception_3a/3x3_reduce
I0924 00:50:51.913468 27992 net.cpp:148] Top shape: 10 96 28 28 (752640)
I0924 00:50:51.913480 27992 net.cpp:156] Memory required for data: 211742720
I0924 00:50:51.913522 27992 layer_factory.hpp:77] Creating layer inception_3a/relu_3x3_reduce
I0924 00:50:51.913540 27992 net.cpp:91] Creating Layer inception_3a/relu_3x3_reduce
I0924 00:50:51.913552 27992 net.cpp:425] inception_3a/relu_3x3_reduce <- inception_3a/3x3_reduce
I0924 00:50:51.913568 27992 net.cpp:386] inception_3a/relu_3x3_reduce -> inception_3a/3x3_reduce (in-place)
I0924 00:50:51.913997 27992 net.cpp:141] Setting up inception_3a/relu_3x3_reduce
I0924 00:50:51.914026 27992 net.cpp:148] Top shape: 10 96 28 28 (752640)
I0924 00:50:51.914036 27992 net.cpp:156] Memory required for data: 214753280
I0924 00:50:51.914044 27992 layer_factory.hpp:77] Creating layer inception_3a/3x3
I0924 00:50:51.914078 27992 net.cpp:91] Creating Layer inception_3a/3x3
I0924 00:50:51.914091 27992 net.cpp:425] inception_3a/3x3 <- inception_3a/3x3_reduce
I0924 00:50:51.914109 27992 net.cpp:399] inception_3a/3x3 -> inception_3a/3x3
I0924 00:50:51.917860 27992 net.cpp:141] Setting up inception_3a/3x3
I0924 00:50:51.917892 27992 net.cpp:148] Top shape: 10 128 28 28 (1003520)
I0924 00:50:51.917903 27992 net.cpp:156] Memory required for data: 218767360
I0924 00:50:51.917922 27992 layer_factory.hpp:77] Creating layer inception_3a/relu_3x3
I0924 00:50:51.917943 27992 net.cpp:91] Creating Layer inception_3a/relu_3x3
I0924 00:50:51.917955 27992 net.cpp:425] inception_3a/relu_3x3 <- inception_3a/3x3
I0924 00:50:51.917969 27992 net.cpp:386] inception_3a/relu_3x3 -> inception_3a/3x3 (in-place)
I0924 00:50:51.918614 27992 net.cpp:141] Setting up inception_3a/relu_3x3
I0924 00:50:51.918642 27992 net.cpp:148] Top shape: 10 128 28 28 (1003520)
I0924 00:50:51.918653 27992 net.cpp:156] Memory required for data: 222781440
I0924 00:50:51.918661 27992 layer_factory.hpp:77] Creating layer inception_3a/5x5_reduce
I0924 00:50:51.918690 27992 net.cpp:91] Creating Layer inception_3a/5x5_reduce
I0924 00:50:51.918702 27992 net.cpp:425] inception_3a/5x5_reduce <- pool2/3x3_s2_pool2/3x3_s2_0_split_2
I0924 00:50:51.918720 27992 net.cpp:399] inception_3a/5x5_reduce -> inception_3a/5x5_reduce
I0924 00:50:51.920848 27992 net.cpp:141] Setting up inception_3a/5x5_reduce
I0924 00:50:51.920876 27992 net.cpp:148] Top shape: 10 16 28 28 (125440)
I0924 00:50:51.920886 27992 net.cpp:156] Memory required for data: 223283200
I0924 00:50:51.920903 27992 layer_factory.hpp:77] Creating layer inception_3a/relu_5x5_reduce
I0924 00:50:51.920918 27992 net.cpp:91] Creating Layer inception_3a/relu_5x5_reduce
I0924 00:50:51.920928 27992 net.cpp:425] inception_3a/relu_5x5_reduce <- inception_3a/5x5_reduce
I0924 00:50:51.920948 27992 net.cpp:386] inception_3a/relu_5x5_reduce -> inception_3a/5x5_reduce (in-place)
I0924 00:50:51.921573 27992 net.cpp:141] Setting up inception_3a/relu_5x5_reduce
I0924 00:50:51.921594 27992 net.cpp:148] Top shape: 10 16 28 28 (125440)
I0924 00:50:51.921603 27992 net.cpp:156] Memory required for data: 223784960
I0924 00:50:51.921613 27992 layer_factory.hpp:77] Creating layer inception_3a/5x5
I0924 00:50:51.921639 27992 net.cpp:91] Creating Layer inception_3a/5x5
I0924 00:50:51.921650 27992 net.cpp:425] inception_3a/5x5 <- inception_3a/5x5_reduce
I0924 00:50:51.921671 27992 net.cpp:399] inception_3a/5x5 -> inception_3a/5x5
I0924 00:50:51.924542 27992 net.cpp:141] Setting up inception_3a/5x5
I0924 00:50:51.924569 27992 net.cpp:148] Top shape: 10 32 28 28 (250880)
I0924 00:50:51.924576 27992 net.cpp:156] Memory required for data: 224788480
I0924 00:50:51.924587 27992 layer_factory.hpp:77] Creating layer inception_3a/relu_5x5
I0924 00:50:51.924597 27992 net.cpp:91] Creating Layer inception_3a/relu_5x5
I0924 00:50:51.924602 27992 net.cpp:425] inception_3a/relu_5x5 <- inception_3a/5x5
I0924 00:50:51.924610 27992 net.cpp:386] inception_3a/relu_5x5 -> inception_3a/5x5 (in-place)
I0924 00:50:51.924873 27992 net.cpp:141] Setting up inception_3a/relu_5x5
I0924 00:50:51.924887 27992 net.cpp:148] Top shape: 10 32 28 28 (250880)
I0924 00:50:51.924892 27992 net.cpp:156] Memory required for data: 225792000
I0924 00:50:51.924897 27992 layer_factory.hpp:77] Creating layer inception_3a/pool
I0924 00:50:51.924908 27992 net.cpp:91] Creating Layer inception_3a/pool
I0924 00:50:51.924924 27992 net.cpp:425] inception_3a/pool <- pool2/3x3_s2_pool2/3x3_s2_0_split_3
I0924 00:50:51.924932 27992 net.cpp:399] inception_3a/pool -> inception_3a/pool
I0924 00:50:51.925000 27992 net.cpp:141] Setting up inception_3a/pool
I0924 00:50:51.925009 27992 net.cpp:148] Top shape: 10 192 28 28 (1505280)
I0924 00:50:51.925014 27992 net.cpp:156] Memory required for data: 231813120
I0924 00:50:51.925019 27992 layer_factory.hpp:77] Creating layer inception_3a/pool_proj
I0924 00:50:51.925035 27992 net.cpp:91] Creating Layer inception_3a/pool_proj
I0924 00:50:51.925042 27992 net.cpp:425] inception_3a/pool_proj <- inception_3a/pool
I0924 00:50:51.925051 27992 net.cpp:399] inception_3a/pool_proj -> inception_3a/pool_proj
I0924 00:50:51.926676 27992 net.cpp:141] Setting up inception_3a/pool_proj
I0924 00:50:51.926705 27992 net.cpp:148] Top shape: 10 32 28 28 (250880)
I0924 00:50:51.926717 27992 net.cpp:156] Memory required for data: 232816640
I0924 00:50:51.926733 27992 layer_factory.hpp:77] Creating layer inception_3a/relu_pool_proj
I0924 00:50:51.926743 27992 net.cpp:91] Creating Layer inception_3a/relu_pool_proj
I0924 00:50:51.926750 27992 net.cpp:425] inception_3a/relu_pool_proj <- inception_3a/pool_proj
I0924 00:50:51.926764 27992 net.cpp:386] inception_3a/relu_pool_proj -> inception_3a/pool_proj (in-place)
I0924 00:50:51.927197 27992 net.cpp:141] Setting up inception_3a/relu_pool_proj
I0924 00:50:51.927211 27992 net.cpp:148] Top shape: 10 32 28 28 (250880)
I0924 00:50:51.927217 27992 net.cpp:156] Memory required for data: 233820160
I0924 00:50:51.927222 27992 layer_factory.hpp:77] Creating layer inception_3a/output
I0924 00:50:51.927242 27992 net.cpp:91] Creating Layer inception_3a/output
I0924 00:50:51.927254 27992 net.cpp:425] inception_3a/output <- inception_3a/1x1
I0924 00:50:51.927261 27992 net.cpp:425] inception_3a/output <- inception_3a/3x3
I0924 00:50:51.927268 27992 net.cpp:425] inception_3a/output <- inception_3a/5x5
I0924 00:50:51.927273 27992 net.cpp:425] inception_3a/output <- inception_3a/pool_proj
I0924 00:50:51.927284 27992 net.cpp:399] inception_3a/output -> inception_3a/output
I0924 00:50:51.927330 27992 net.cpp:141] Setting up inception_3a/output
I0924 00:50:51.927343 27992 net.cpp:148] Top shape: 10 256 28 28 (2007040)
I0924 00:50:51.927348 27992 net.cpp:156] Memory required for data: 241848320
I0924 00:50:51.927353 27992 layer_factory.hpp:77] Creating layer inception_3a/output_inception_3a/output_0_split
I0924 00:50:51.927362 27992 net.cpp:91] Creating Layer inception_3a/output_inception_3a/output_0_split
I0924 00:50:51.927367 27992 net.cpp:425] inception_3a/output_inception_3a/output_0_split <- inception_3a/output
I0924 00:50:51.927376 27992 net.cpp:399] inception_3a/output_inception_3a/output_0_split -> inception_3a/output_inception_3a/output_0_split_0
I0924 00:50:51.927384 27992 net.cpp:399] inception_3a/output_inception_3a/output_0_split -> inception_3a/output_inception_3a/output_0_split_1
I0924 00:50:51.927393 27992 net.cpp:399] inception_3a/output_inception_3a/output_0_split -> inception_3a/output_inception_3a/output_0_split_2
I0924 00:50:51.927407 27992 net.cpp:399] inception_3a/output_inception_3a/output_0_split -> inception_3a/output_inception_3a/output_0_split_3
I0924 00:50:51.927494 27992 net.cpp:141] Setting up inception_3a/output_inception_3a/output_0_split
I0924 00:50:51.927503 27992 net.cpp:148] Top shape: 10 256 28 28 (2007040)
I0924 00:50:51.927510 27992 net.cpp:148] Top shape: 10 256 28 28 (2007040)
I0924 00:50:51.927515 27992 net.cpp:148] Top shape: 10 256 28 28 (2007040)
I0924 00:50:51.927520 27992 net.cpp:148] Top shape: 10 256 28 28 (2007040)
I0924 00:50:51.927525 27992 net.cpp:156] Memory required for data: 273960960
I0924 00:50:51.927530 27992 layer_factory.hpp:77] Creating layer inception_3b/1x1
I0924 00:50:51.927546 27992 net.cpp:91] Creating Layer inception_3b/1x1
I0924 00:50:51.927552 27992 net.cpp:425] inception_3b/1x1 <- inception_3a/output_inception_3a/output_0_split_0
I0924 00:50:51.927564 27992 net.cpp:399] inception_3b/1x1 -> inception_3b/1x1
I0924 00:50:51.929239 27992 net.cpp:141] Setting up inception_3b/1x1
I0924 00:50:51.929257 27992 net.cpp:148] Top shape: 10 128 28 28 (1003520)
I0924 00:50:51.929263 27992 net.cpp:156] Memory required for data: 277975040
I0924 00:50:51.929273 27992 layer_factory.hpp:77] Creating layer inception_3b/relu_1x1
I0924 00:50:51.929283 27992 net.cpp:91] Creating Layer inception_3b/relu_1x1
I0924 00:50:51.929289 27992 net.cpp:425] inception_3b/relu_1x1 <- inception_3b/1x1
I0924 00:50:51.929297 27992 net.cpp:386] inception_3b/relu_1x1 -> inception_3b/1x1 (in-place)
I0924 00:50:51.929747 27992 net.cpp:141] Setting up inception_3b/relu_1x1
I0924 00:50:51.929764 27992 net.cpp:148] Top shape: 10 128 28 28 (1003520)
I0924 00:50:51.929769 27992 net.cpp:156] Memory required for data: 281989120
I0924 00:50:51.929775 27992 layer_factory.hpp:77] Creating layer inception_3b/3x3_reduce
I0924 00:50:51.929791 27992 net.cpp:91] Creating Layer inception_3b/3x3_reduce
I0924 00:50:51.929798 27992 net.cpp:425] inception_3b/3x3_reduce <- inception_3a/output_inception_3a/output_0_split_1
I0924 00:50:51.929808 27992 net.cpp:399] inception_3b/3x3_reduce -> inception_3b/3x3_reduce
I0924 00:50:51.931625 27992 net.cpp:141] Setting up inception_3b/3x3_reduce
I0924 00:50:51.931646 27992 net.cpp:148] Top shape: 10 128 28 28 (1003520)
I0924 00:50:51.931651 27992 net.cpp:156] Memory required for data: 286003200
I0924 00:50:51.931661 27992 layer_factory.hpp:77] Creating layer inception_3b/relu_3x3_reduce
I0924 00:50:51.931674 27992 net.cpp:91] Creating Layer inception_3b/relu_3x3_reduce
I0924 00:50:51.931681 27992 net.cpp:425] inception_3b/relu_3x3_reduce <- inception_3b/3x3_reduce
I0924 00:50:51.931689 27992 net.cpp:386] inception_3b/relu_3x3_reduce -> inception_3b/3x3_reduce (in-place)
I0924 00:50:51.931942 27992 net.cpp:141] Setting up inception_3b/relu_3x3_reduce
I0924 00:50:51.931954 27992 net.cpp:148] Top shape: 10 128 28 28 (1003520)
I0924 00:50:51.931959 27992 net.cpp:156] Memory required for data: 290017280
I0924 00:50:51.931965 27992 layer_factory.hpp:77] Creating layer inception_3b/3x3
I0924 00:50:51.931985 27992 net.cpp:91] Creating Layer inception_3b/3x3
I0924 00:50:51.931991 27992 net.cpp:425] inception_3b/3x3 <- inception_3b/3x3_reduce
I0924 00:50:51.932000 27992 net.cpp:399] inception_3b/3x3 -> inception_3b/3x3
I0924 00:50:51.936270 27992 net.cpp:141] Setting up inception_3b/3x3
I0924 00:50:51.936305 27992 net.cpp:148] Top shape: 10 192 28 28 (1505280)
I0924 00:50:51.936312 27992 net.cpp:156] Memory required for data: 296038400
I0924 00:50:51.936323 27992 layer_factory.hpp:77] Creating layer inception_3b/relu_3x3
I0924 00:50:51.936341 27992 net.cpp:91] Creating Layer inception_3b/relu_3x3
I0924 00:50:51.936347 27992 net.cpp:425] inception_3b/relu_3x3 <- inception_3b/3x3
I0924 00:50:51.936369 27992 net.cpp:386] inception_3b/relu_3x3 -> inception_3b/3x3 (in-place)
I0924 00:50:51.936810 27992 net.cpp:141] Setting up inception_3b/relu_3x3
I0924 00:50:51.936823 27992 net.cpp:148] Top shape: 10 192 28 28 (1505280)
I0924 00:50:51.936828 27992 net.cpp:156] Memory required for data: 302059520
I0924 00:50:51.936835 27992 layer_factory.hpp:77] Creating layer inception_3b/5x5_reduce
I0924 00:50:51.936852 27992 net.cpp:91] Creating Layer inception_3b/5x5_reduce
I0924 00:50:51.936859 27992 net.cpp:425] inception_3b/5x5_reduce <- inception_3a/output_inception_3a/output_0_split_2
I0924 00:50:51.936872 27992 net.cpp:399] inception_3b/5x5_reduce -> inception_3b/5x5_reduce
I0924 00:50:51.938282 27992 net.cpp:141] Setting up inception_3b/5x5_reduce
I0924 00:50:51.938302 27992 net.cpp:148] Top shape: 10 32 28 28 (250880)
I0924 00:50:51.938308 27992 net.cpp:156] Memory required for data: 303063040
I0924 00:50:51.938318 27992 layer_factory.hpp:77] Creating layer inception_3b/relu_5x5_reduce
I0924 00:50:51.938329 27992 net.cpp:91] Creating Layer inception_3b/relu_5x5_reduce
I0924 00:50:51.938335 27992 net.cpp:425] inception_3b/relu_5x5_reduce <- inception_3b/5x5_reduce
I0924 00:50:51.938344 27992 net.cpp:386] inception_3b/relu_5x5_reduce -> inception_3b/5x5_reduce (in-place)
I0924 00:50:51.938796 27992 net.cpp:141] Setting up inception_3b/relu_5x5_reduce
I0924 00:50:51.938810 27992 net.cpp:148] Top shape: 10 32 28 28 (250880)
I0924 00:50:51.938815 27992 net.cpp:156] Memory required for data: 304066560
I0924 00:50:51.938820 27992 layer_factory.hpp:77] Creating layer inception_3b/5x5
I0924 00:50:51.938837 27992 net.cpp:91] Creating Layer inception_3b/5x5
I0924 00:50:51.938843 27992 net.cpp:425] inception_3b/5x5 <- inception_3b/5x5_reduce
I0924 00:50:51.938856 27992 net.cpp:399] inception_3b/5x5 -> inception_3b/5x5
I0924 00:50:51.941727 27992 net.cpp:141] Setting up inception_3b/5x5
I0924 00:50:51.941747 27992 net.cpp:148] Top shape: 10 96 28 28 (752640)
I0924 00:50:51.941753 27992 net.cpp:156] Memory required for data: 307077120
I0924 00:50:51.941763 27992 layer_factory.hpp:77] Creating layer inception_3b/relu_5x5
I0924 00:50:51.941779 27992 net.cpp:91] Creating Layer inception_3b/relu_5x5
I0924 00:50:51.941787 27992 net.cpp:425] inception_3b/relu_5x5 <- inception_3b/5x5
I0924 00:50:51.941794 27992 net.cpp:386] inception_3b/relu_5x5 -> inception_3b/5x5 (in-place)
I0924 00:50:51.942046 27992 net.cpp:141] Setting up inception_3b/relu_5x5
I0924 00:50:51.942062 27992 net.cpp:148] Top shape: 10 96 28 28 (752640)
I0924 00:50:51.942066 27992 net.cpp:156] Memory required for data: 310087680
I0924 00:50:51.942072 27992 layer_factory.hpp:77] Creating layer inception_3b/pool
I0924 00:50:51.942083 27992 net.cpp:91] Creating Layer inception_3b/pool
I0924 00:50:51.942088 27992 net.cpp:425] inception_3b/pool <- inception_3a/output_inception_3a/output_0_split_3
I0924 00:50:51.942096 27992 net.cpp:399] inception_3b/pool -> inception_3b/pool
I0924 00:50:51.942167 27992 net.cpp:141] Setting up inception_3b/pool
I0924 00:50:51.942176 27992 net.cpp:148] Top shape: 10 256 28 28 (2007040)
I0924 00:50:51.942181 27992 net.cpp:156] Memory required for data: 318115840
I0924 00:50:51.942186 27992 layer_factory.hpp:77] Creating layer inception_3b/pool_proj
I0924 00:50:51.942203 27992 net.cpp:91] Creating Layer inception_3b/pool_proj
I0924 00:50:51.942209 27992 net.cpp:425] inception_3b/pool_proj <- inception_3b/pool
I0924 00:50:51.942220 27992 net.cpp:399] inception_3b/pool_proj -> inception_3b/pool_proj
I0924 00:50:51.943945 27992 net.cpp:141] Setting up inception_3b/pool_proj
I0924 00:50:51.943966 27992 net.cpp:148] Top shape: 10 64 28 28 (501760)
I0924 00:50:51.943972 27992 net.cpp:156] Memory required for data: 320122880
I0924 00:50:51.943982 27992 layer_factory.hpp:77] Creating layer inception_3b/relu_pool_proj
I0924 00:50:51.943991 27992 net.cpp:91] Creating Layer inception_3b/relu_pool_proj
I0924 00:50:51.943997 27992 net.cpp:425] inception_3b/relu_pool_proj <- inception_3b/pool_proj
I0924 00:50:51.944010 27992 net.cpp:386] inception_3b/relu_pool_proj -> inception_3b/pool_proj (in-place)
I0924 00:50:51.944442 27992 net.cpp:141] Setting up inception_3b/relu_pool_proj
I0924 00:50:51.944456 27992 net.cpp:148] Top shape: 10 64 28 28 (501760)
I0924 00:50:51.944461 27992 net.cpp:156] Memory required for data: 322129920
I0924 00:50:51.944468 27992 layer_factory.hpp:77] Creating layer inception_3b/output
I0924 00:50:51.944476 27992 net.cpp:91] Creating Layer inception_3b/output
I0924 00:50:51.944483 27992 net.cpp:425] inception_3b/output <- inception_3b/1x1
I0924 00:50:51.944489 27992 net.cpp:425] inception_3b/output <- inception_3b/3x3
I0924 00:50:51.944495 27992 net.cpp:425] inception_3b/output <- inception_3b/5x5
I0924 00:50:51.944501 27992 net.cpp:425] inception_3b/output <- inception_3b/pool_proj
I0924 00:50:51.944512 27992 net.cpp:399] inception_3b/output -> inception_3b/output
I0924 00:50:51.944556 27992 net.cpp:141] Setting up inception_3b/output
I0924 00:50:51.944569 27992 net.cpp:148] Top shape: 10 480 28 28 (3763200)
I0924 00:50:51.944574 27992 net.cpp:156] Memory required for data: 337182720
I0924 00:50:51.944579 27992 layer_factory.hpp:77] Creating layer pool3/3x3_s2
I0924 00:50:51.944588 27992 net.cpp:91] Creating Layer pool3/3x3_s2
I0924 00:50:51.944593 27992 net.cpp:425] pool3/3x3_s2 <- inception_3b/output
I0924 00:50:51.944602 27992 net.cpp:399] pool3/3x3_s2 -> pool3/3x3_s2
I0924 00:50:51.944670 27992 net.cpp:141] Setting up pool3/3x3_s2
I0924 00:50:51.944681 27992 net.cpp:148] Top shape: 10 480 14 14 (940800)
I0924 00:50:51.944686 27992 net.cpp:156] Memory required for data: 340945920
I0924 00:50:51.944691 27992 layer_factory.hpp:77] Creating layer pool3/3x3_s2_pool3/3x3_s2_0_split
I0924 00:50:51.944705 27992 net.cpp:91] Creating Layer pool3/3x3_s2_pool3/3x3_s2_0_split
I0924 00:50:51.944710 27992 net.cpp:425] pool3/3x3_s2_pool3/3x3_s2_0_split <- pool3/3x3_s2
I0924 00:50:51.944717 27992 net.cpp:399] pool3/3x3_s2_pool3/3x3_s2_0_split -> pool3/3x3_s2_pool3/3x3_s2_0_split_0
I0924 00:50:51.944730 27992 net.cpp:399] pool3/3x3_s2_pool3/3x3_s2_0_split -> pool3/3x3_s2_pool3/3x3_s2_0_split_1
I0924 00:50:51.944738 27992 net.cpp:399] pool3/3x3_s2_pool3/3x3_s2_0_split -> pool3/3x3_s2_pool3/3x3_s2_0_split_2
I0924 00:50:51.944746 27992 net.cpp:399] pool3/3x3_s2_pool3/3x3_s2_0_split -> pool3/3x3_s2_pool3/3x3_s2_0_split_3
I0924 00:50:51.944833 27992 net.cpp:141] Setting up pool3/3x3_s2_pool3/3x3_s2_0_split
I0924 00:50:51.944844 27992 net.cpp:148] Top shape: 10 480 14 14 (940800)
I0924 00:50:51.944850 27992 net.cpp:148] Top shape: 10 480 14 14 (940800)
I0924 00:50:51.944855 27992 net.cpp:148] Top shape: 10 480 14 14 (940800)
I0924 00:50:51.944861 27992 net.cpp:148] Top shape: 10 480 14 14 (940800)
I0924 00:50:51.944865 27992 net.cpp:156] Memory required for data: 355998720
I0924 00:50:51.944871 27992 layer_factory.hpp:77] Creating layer inception_4a/1x1
I0924 00:50:51.944886 27992 net.cpp:91] Creating Layer inception_4a/1x1
I0924 00:50:51.944892 27992 net.cpp:425] inception_4a/1x1 <- pool3/3x3_s2_pool3/3x3_s2_0_split_0
I0924 00:50:51.944905 27992 net.cpp:399] inception_4a/1x1 -> inception_4a/1x1
I0924 00:50:51.947283 27992 net.cpp:141] Setting up inception_4a/1x1
I0924 00:50:51.947304 27992 net.cpp:148] Top shape: 10 192 14 14 (376320)
I0924 00:50:51.947312 27992 net.cpp:156] Memory required for data: 357504000
I0924 00:50:51.947322 27992 layer_factory.hpp:77] Creating layer inception_4a/relu_1x1
I0924 00:50:51.947332 27992 net.cpp:91] Creating Layer inception_4a/relu_1x1
I0924 00:50:51.947338 27992 net.cpp:425] inception_4a/relu_1x1 <- inception_4a/1x1
I0924 00:50:51.947346 27992 net.cpp:386] inception_4a/relu_1x1 -> inception_4a/1x1 (in-place)
I0924 00:50:51.947799 27992 net.cpp:141] Setting up inception_4a/relu_1x1
I0924 00:50:51.947815 27992 net.cpp:148] Top shape: 10 192 14 14 (376320)
I0924 00:50:51.947821 27992 net.cpp:156] Memory required for data: 359009280
I0924 00:50:51.947826 27992 layer_factory.hpp:77] Creating layer inception_4a/3x3_reduce
I0924 00:50:51.947839 27992 net.cpp:91] Creating Layer inception_4a/3x3_reduce
I0924 00:50:51.947846 27992 net.cpp:425] inception_4a/3x3_reduce <- pool3/3x3_s2_pool3/3x3_s2_0_split_1
I0924 00:50:51.947860 27992 net.cpp:399] inception_4a/3x3_reduce -> inception_4a/3x3_reduce
I0924 00:50:51.949790 27992 net.cpp:141] Setting up inception_4a/3x3_reduce
I0924 00:50:51.949805 27992 net.cpp:148] Top shape: 10 96 14 14 (188160)
I0924 00:50:51.949810 27992 net.cpp:156] Memory required for data: 359761920
I0924 00:50:51.949831 27992 layer_factory.hpp:77] Creating layer inception_4a/relu_3x3_reduce
I0924 00:50:51.949839 27992 net.cpp:91] Creating Layer inception_4a/relu_3x3_reduce
I0924 00:50:51.949846 27992 net.cpp:425] inception_4a/relu_3x3_reduce <- inception_4a/3x3_reduce
I0924 00:50:51.949858 27992 net.cpp:386] inception_4a/relu_3x3_reduce -> inception_4a/3x3_reduce (in-place)
I0924 00:50:51.950108 27992 net.cpp:141] Setting up inception_4a/relu_3x3_reduce
I0924 00:50:51.950124 27992 net.cpp:148] Top shape: 10 96 14 14 (188160)
I0924 00:50:51.950129 27992 net.cpp:156] Memory required for data: 360514560
I0924 00:50:51.950135 27992 layer_factory.hpp:77] Creating layer inception_4a/3x3
I0924 00:50:51.950152 27992 net.cpp:91] Creating Layer inception_4a/3x3
I0924 00:50:51.950158 27992 net.cpp:425] inception_4a/3x3 <- inception_4a/3x3_reduce
I0924 00:50:51.950168 27992 net.cpp:399] inception_4a/3x3 -> inception_4a/3x3
I0924 00:50:51.953933 27992 net.cpp:141] Setting up inception_4a/3x3
I0924 00:50:51.953956 27992 net.cpp:148] Top shape: 10 208 14 14 (407680)
I0924 00:50:51.953963 27992 net.cpp:156] Memory required for data: 362145280
I0924 00:50:51.953972 27992 layer_factory.hpp:77] Creating layer inception_4a/relu_3x3
I0924 00:50:51.953987 27992 net.cpp:91] Creating Layer inception_4a/relu_3x3
I0924 00:50:51.953994 27992 net.cpp:425] inception_4a/relu_3x3 <- inception_4a/3x3
I0924 00:50:51.954005 27992 net.cpp:386] inception_4a/relu_3x3 -> inception_4a/3x3 (in-place)
I0924 00:50:51.954439 27992 net.cpp:141] Setting up inception_4a/relu_3x3
I0924 00:50:51.954453 27992 net.cpp:148] Top shape: 10 208 14 14 (407680)
I0924 00:50:51.954458 27992 net.cpp:156] Memory required for data: 363776000
I0924 00:50:51.954464 27992 layer_factory.hpp:77] Creating layer inception_4a/5x5_reduce
I0924 00:50:51.954483 27992 net.cpp:91] Creating Layer inception_4a/5x5_reduce
I0924 00:50:51.954490 27992 net.cpp:425] inception_4a/5x5_reduce <- pool3/3x3_s2_pool3/3x3_s2_0_split_2
I0924 00:50:51.954500 27992 net.cpp:399] inception_4a/5x5_reduce -> inception_4a/5x5_reduce
I0924 00:50:51.955989 27992 net.cpp:141] Setting up inception_4a/5x5_reduce
I0924 00:50:51.956010 27992 net.cpp:148] Top shape: 10 16 14 14 (31360)
I0924 00:50:51.956017 27992 net.cpp:156] Memory required for data: 363901440
I0924 00:50:51.956027 27992 layer_factory.hpp:77] Creating layer inception_4a/relu_5x5_reduce
I0924 00:50:51.956039 27992 net.cpp:91] Creating Layer inception_4a/relu_5x5_reduce
I0924 00:50:51.956046 27992 net.cpp:425] inception_4a/relu_5x5_reduce <- inception_4a/5x5_reduce
I0924 00:50:51.956054 27992 net.cpp:386] inception_4a/relu_5x5_reduce -> inception_4a/5x5_reduce (in-place)
I0924 00:50:51.956485 27992 net.cpp:141] Setting up inception_4a/relu_5x5_reduce
I0924 00:50:51.956499 27992 net.cpp:148] Top shape: 10 16 14 14 (31360)
I0924 00:50:51.956504 27992 net.cpp:156] Memory required for data: 364026880
I0924 00:50:51.956511 27992 layer_factory.hpp:77] Creating layer inception_4a/5x5
I0924 00:50:51.956529 27992 net.cpp:91] Creating Layer inception_4a/5x5
I0924 00:50:51.956537 27992 net.cpp:425] inception_4a/5x5 <- inception_4a/5x5_reduce
I0924 00:50:51.956545 27992 net.cpp:399] inception_4a/5x5 -> inception_4a/5x5
I0924 00:50:51.958796 27992 net.cpp:141] Setting up inception_4a/5x5
I0924 00:50:51.958832 27992 net.cpp:148] Top shape: 10 48 14 14 (94080)
I0924 00:50:51.958843 27992 net.cpp:156] Memory required for data: 364403200
I0924 00:50:51.958863 27992 layer_factory.hpp:77] Creating layer inception_4a/relu_5x5
I0924 00:50:51.958880 27992 net.cpp:91] Creating Layer inception_4a/relu_5x5
I0924 00:50:51.958892 27992 net.cpp:425] inception_4a/relu_5x5 <- inception_4a/5x5
I0924 00:50:51.958907 27992 net.cpp:386] inception_4a/relu_5x5 -> inception_4a/5x5 (in-place)
I0924 00:50:51.959336 27992 net.cpp:141] Setting up inception_4a/relu_5x5
I0924 00:50:51.959357 27992 net.cpp:148] Top shape: 10 48 14 14 (94080)
I0924 00:50:51.959367 27992 net.cpp:156] Memory required for data: 364779520
I0924 00:50:51.959375 27992 layer_factory.hpp:77] Creating layer inception_4a/pool
I0924 00:50:51.959389 27992 net.cpp:91] Creating Layer inception_4a/pool
I0924 00:50:51.959403 27992 net.cpp:425] inception_4a/pool <- pool3/3x3_s2_pool3/3x3_s2_0_split_3
I0924 00:50:51.959419 27992 net.cpp:399] inception_4a/pool -> inception_4a/pool
I0924 00:50:51.959527 27992 net.cpp:141] Setting up inception_4a/pool
I0924 00:50:51.959547 27992 net.cpp:148] Top shape: 10 480 14 14 (940800)
I0924 00:50:51.959555 27992 net.cpp:156] Memory required for data: 368542720
I0924 00:50:51.959565 27992 layer_factory.hpp:77] Creating layer inception_4a/pool_proj
I0924 00:50:51.959592 27992 net.cpp:91] Creating Layer inception_4a/pool_proj
I0924 00:50:51.959604 27992 net.cpp:425] inception_4a/pool_proj <- inception_4a/pool
I0924 00:50:51.959622 27992 net.cpp:399] inception_4a/pool_proj -> inception_4a/pool_proj
I0924 00:50:51.962477 27992 net.cpp:141] Setting up inception_4a/pool_proj
I0924 00:50:51.962507 27992 net.cpp:148] Top shape: 10 64 14 14 (125440)
I0924 00:50:51.962517 27992 net.cpp:156] Memory required for data: 369044480
I0924 00:50:51.962533 27992 layer_factory.hpp:77] Creating layer inception_4a/relu_pool_proj
I0924 00:50:51.962548 27992 net.cpp:91] Creating Layer inception_4a/relu_pool_proj
I0924 00:50:51.962559 27992 net.cpp:425] inception_4a/relu_pool_proj <- inception_4a/pool_proj
I0924 00:50:51.962579 27992 net.cpp:386] inception_4a/relu_pool_proj -> inception_4a/pool_proj (in-place)
I0924 00:50:51.963258 27992 net.cpp:141] Setting up inception_4a/relu_pool_proj
I0924 00:50:51.963285 27992 net.cpp:148] Top shape: 10 64 14 14 (125440)
I0924 00:50:51.963295 27992 net.cpp:156] Memory required for data: 369546240
I0924 00:50:51.963304 27992 layer_factory.hpp:77] Creating layer inception_4a/output
I0924 00:50:51.963320 27992 net.cpp:91] Creating Layer inception_4a/output
I0924 00:50:51.963328 27992 net.cpp:425] inception_4a/output <- inception_4a/1x1
I0924 00:50:51.963340 27992 net.cpp:425] inception_4a/output <- inception_4a/3x3
I0924 00:50:51.963351 27992 net.cpp:425] inception_4a/output <- inception_4a/5x5
I0924 00:50:51.963361 27992 net.cpp:425] inception_4a/output <- inception_4a/pool_proj
I0924 00:50:51.963378 27992 net.cpp:399] inception_4a/output -> inception_4a/output
I0924 00:50:51.963443 27992 net.cpp:141] Setting up inception_4a/output
I0924 00:50:51.963467 27992 net.cpp:148] Top shape: 10 512 14 14 (1003520)
I0924 00:50:51.963476 27992 net.cpp:156] Memory required for data: 373560320
I0924 00:50:51.963485 27992 layer_factory.hpp:77] Creating layer inception_4a/output_inception_4a/output_0_split
I0924 00:50:51.963500 27992 net.cpp:91] Creating Layer inception_4a/output_inception_4a/output_0_split
I0924 00:50:51.963508 27992 net.cpp:425] inception_4a/output_inception_4a/output_0_split <- inception_4a/output
I0924 00:50:51.963521 27992 net.cpp:399] inception_4a/output_inception_4a/output_0_split -> inception_4a/output_inception_4a/output_0_split_0
I0924 00:50:51.963538 27992 net.cpp:399] inception_4a/output_inception_4a/output_0_split -> inception_4a/output_inception_4a/output_0_split_1
I0924 00:50:51.963554 27992 net.cpp:399] inception_4a/output_inception_4a/output_0_split -> inception_4a/output_inception_4a/output_0_split_2
I0924 00:50:51.963584 27992 net.cpp:399] inception_4a/output_inception_4a/output_0_split -> inception_4a/output_inception_4a/output_0_split_3
I0924 00:50:51.963744 27992 net.cpp:141] Setting up inception_4a/output_inception_4a/output_0_split
I0924 00:50:51.963764 27992 net.cpp:148] Top shape: 10 512 14 14 (1003520)
I0924 00:50:51.963776 27992 net.cpp:148] Top shape: 10 512 14 14 (1003520)
I0924 00:50:51.963788 27992 net.cpp:148] Top shape: 10 512 14 14 (1003520)
I0924 00:50:51.963800 27992 net.cpp:148] Top shape: 10 512 14 14 (1003520)
I0924 00:50:51.963809 27992 net.cpp:156] Memory required for data: 389616640
I0924 00:50:51.963819 27992 layer_factory.hpp:77] Creating layer inception_4b/1x1
I0924 00:50:51.963846 27992 net.cpp:91] Creating Layer inception_4b/1x1
I0924 00:50:51.963860 27992 net.cpp:425] inception_4b/1x1 <- inception_4a/output_inception_4a/output_0_split_0
I0924 00:50:51.963879 27992 net.cpp:399] inception_4b/1x1 -> inception_4b/1x1
I0924 00:50:51.967082 27992 net.cpp:141] Setting up inception_4b/1x1
I0924 00:50:51.967113 27992 net.cpp:148] Top shape: 10 160 14 14 (313600)
I0924 00:50:51.967123 27992 net.cpp:156] Memory required for data: 390871040
I0924 00:50:51.967140 27992 layer_factory.hpp:77] Creating layer inception_4b/relu_1x1
I0924 00:50:51.967155 27992 net.cpp:91] Creating Layer inception_4b/relu_1x1
I0924 00:50:51.967166 27992 net.cpp:425] inception_4b/relu_1x1 <- inception_4b/1x1
I0924 00:50:51.967180 27992 net.cpp:386] inception_4b/relu_1x1 -> inception_4b/1x1 (in-place)
I0924 00:50:51.967824 27992 net.cpp:141] Setting up inception_4b/relu_1x1
I0924 00:50:51.967851 27992 net.cpp:148] Top shape: 10 160 14 14 (313600)
I0924 00:50:51.967862 27992 net.cpp:156] Memory required for data: 392125440
I0924 00:50:51.967872 27992 layer_factory.hpp:77] Creating layer inception_4b/3x3_reduce
I0924 00:50:51.967898 27992 net.cpp:91] Creating Layer inception_4b/3x3_reduce
I0924 00:50:51.967910 27992 net.cpp:425] inception_4b/3x3_reduce <- inception_4a/output_inception_4a/output_0_split_1
I0924 00:50:51.967931 27992 net.cpp:399] inception_4b/3x3_reduce -> inception_4b/3x3_reduce
I0924 00:50:51.971217 27992 net.cpp:141] Setting up inception_4b/3x3_reduce
I0924 00:50:51.971249 27992 net.cpp:148] Top shape: 10 112 14 14 (219520)
I0924 00:50:51.971264 27992 net.cpp:156] Memory required for data: 393003520
I0924 00:50:51.971284 27992 layer_factory.hpp:77] Creating layer inception_4b/relu_3x3_reduce
I0924 00:50:51.971300 27992 net.cpp:91] Creating Layer inception_4b/relu_3x3_reduce
I0924 00:50:51.971313 27992 net.cpp:425] inception_4b/relu_3x3_reduce <- inception_4b/3x3_reduce
I0924 00:50:51.971328 27992 net.cpp:386] inception_4b/relu_3x3_reduce -> inception_4b/3x3_reduce (in-place)
I0924 00:50:51.971766 27992 net.cpp:141] Setting up inception_4b/relu_3x3_reduce
I0924 00:50:51.971788 27992 net.cpp:148] Top shape: 10 112 14 14 (219520)
I0924 00:50:51.971799 27992 net.cpp:156] Memory required for data: 393881600
I0924 00:50:51.971810 27992 layer_factory.hpp:77] Creating layer inception_4b/3x3
I0924 00:50:51.971843 27992 net.cpp:91] Creating Layer inception_4b/3x3
I0924 00:50:51.971858 27992 net.cpp:425] inception_4b/3x3 <- inception_4b/3x3_reduce
I0924 00:50:51.971879 27992 net.cpp:399] inception_4b/3x3 -> inception_4b/3x3
I0924 00:50:51.978795 27992 net.cpp:141] Setting up inception_4b/3x3
I0924 00:50:51.978826 27992 net.cpp:148] Top shape: 10 224 14 14 (439040)
I0924 00:50:51.978838 27992 net.cpp:156] Memory required for data: 395637760
I0924 00:50:51.978857 27992 layer_factory.hpp:77] Creating layer inception_4b/relu_3x3
I0924 00:50:51.978881 27992 net.cpp:91] Creating Layer inception_4b/relu_3x3
I0924 00:50:51.978893 27992 net.cpp:425] inception_4b/relu_3x3 <- inception_4b/3x3
I0924 00:50:51.978909 27992 net.cpp:386] inception_4b/relu_3x3 -> inception_4b/3x3 (in-place)
I0924 00:50:51.979627 27992 net.cpp:141] Setting up inception_4b/relu_3x3
I0924 00:50:51.979655 27992 net.cpp:148] Top shape: 10 224 14 14 (439040)
I0924 00:50:51.979665 27992 net.cpp:156] Memory required for data: 397393920
I0924 00:50:51.979676 27992 layer_factory.hpp:77] Creating layer inception_4b/5x5_reduce
I0924 00:50:51.979720 27992 net.cpp:91] Creating Layer inception_4b/5x5_reduce
I0924 00:50:51.979734 27992 net.cpp:425] inception_4b/5x5_reduce <- inception_4a/output_inception_4a/output_0_split_2
I0924 00:50:51.979760 27992 net.cpp:399] inception_4b/5x5_reduce -> inception_4b/5x5_reduce
I0924 00:50:51.982424 27992 net.cpp:141] Setting up inception_4b/5x5_reduce
I0924 00:50:51.982453 27992 net.cpp:148] Top shape: 10 24 14 14 (47040)
I0924 00:50:51.982465 27992 net.cpp:156] Memory required for data: 397582080
I0924 00:50:51.982484 27992 layer_factory.hpp:77] Creating layer inception_4b/relu_5x5_reduce
I0924 00:50:51.982508 27992 net.cpp:91] Creating Layer inception_4b/relu_5x5_reduce
I0924 00:50:51.982520 27992 net.cpp:425] inception_4b/relu_5x5_reduce <- inception_4b/5x5_reduce
I0924 00:50:51.982535 27992 net.cpp:386] inception_4b/relu_5x5_reduce -> inception_4b/5x5_reduce (in-place)
I0924 00:50:51.983156 27992 net.cpp:141] Setting up inception_4b/relu_5x5_reduce
I0924 00:50:51.983171 27992 net.cpp:148] Top shape: 10 24 14 14 (47040)
I0924 00:50:51.983177 27992 net.cpp:156] Memory required for data: 397770240
I0924 00:50:51.983182 27992 layer_factory.hpp:77] Creating layer inception_4b/5x5
I0924 00:50:51.983202 27992 net.cpp:91] Creating Layer inception_4b/5x5
I0924 00:50:51.983209 27992 net.cpp:425] inception_4b/5x5 <- inception_4b/5x5_reduce
I0924 00:50:51.983219 27992 net.cpp:399] inception_4b/5x5 -> inception_4b/5x5
I0924 00:50:51.987087 27992 net.cpp:141] Setting up inception_4b/5x5
I0924 00:50:51.987119 27992 net.cpp:148] Top shape: 10 64 14 14 (125440)
I0924 00:50:51.987131 27992 net.cpp:156] Memory required for data: 398272000
I0924 00:50:51.987149 27992 layer_factory.hpp:77] Creating layer inception_4b/relu_5x5
I0924 00:50:51.987166 27992 net.cpp:91] Creating Layer inception_4b/relu_5x5
I0924 00:50:51.987177 27992 net.cpp:425] inception_4b/relu_5x5 <- inception_4b/5x5
I0924 00:50:51.987198 27992 net.cpp:386] inception_4b/relu_5x5 -> inception_4b/5x5 (in-place)
I0924 00:50:51.987643 27992 net.cpp:141] Setting up inception_4b/relu_5x5
I0924 00:50:51.987664 27992 net.cpp:148] Top shape: 10 64 14 14 (125440)
I0924 00:50:51.987675 27992 net.cpp:156] Memory required for data: 398773760
I0924 00:50:51.987685 27992 layer_factory.hpp:77] Creating layer inception_4b/pool
I0924 00:50:51.987709 27992 net.cpp:91] Creating Layer inception_4b/pool
I0924 00:50:51.987722 27992 net.cpp:425] inception_4b/pool <- inception_4a/output_inception_4a/output_0_split_3
I0924 00:50:51.987738 27992 net.cpp:399] inception_4b/pool -> inception_4b/pool
I0924 00:50:51.987865 27992 net.cpp:141] Setting up inception_4b/pool
I0924 00:50:51.987885 27992 net.cpp:148] Top shape: 10 512 14 14 (1003520)
I0924 00:50:51.987895 27992 net.cpp:156] Memory required for data: 402787840
I0924 00:50:51.987905 27992 layer_factory.hpp:77] Creating layer inception_4b/pool_proj
I0924 00:50:51.987931 27992 net.cpp:91] Creating Layer inception_4b/pool_proj
I0924 00:50:51.987944 27992 net.cpp:425] inception_4b/pool_proj <- inception_4b/pool
I0924 00:50:51.987972 27992 net.cpp:399] inception_4b/pool_proj -> inception_4b/pool_proj
I0924 00:50:51.991096 27992 net.cpp:141] Setting up inception_4b/pool_proj
I0924 00:50:51.991128 27992 net.cpp:148] Top shape: 10 64 14 14 (125440)
I0924 00:50:51.991140 27992 net.cpp:156] Memory required for data: 403289600
I0924 00:50:51.991161 27992 layer_factory.hpp:77] Creating layer inception_4b/relu_pool_proj
I0924 00:50:51.991179 27992 net.cpp:91] Creating Layer inception_4b/relu_pool_proj
I0924 00:50:51.991191 27992 net.cpp:425] inception_4b/relu_pool_proj <- inception_4b/pool_proj
I0924 00:50:51.991211 27992 net.cpp:386] inception_4b/relu_pool_proj -> inception_4b/pool_proj (in-place)
I0924 00:50:51.991930 27992 net.cpp:141] Setting up inception_4b/relu_pool_proj
I0924 00:50:51.991961 27992 net.cpp:148] Top shape: 10 64 14 14 (125440)
I0924 00:50:51.991973 27992 net.cpp:156] Memory required for data: 403791360
I0924 00:50:51.991984 27992 layer_factory.hpp:77] Creating layer inception_4b/output
I0924 00:50:51.992000 27992 net.cpp:91] Creating Layer inception_4b/output
I0924 00:50:51.992014 27992 net.cpp:425] inception_4b/output <- inception_4b/1x1
I0924 00:50:51.992027 27992 net.cpp:425] inception_4b/output <- inception_4b/3x3
I0924 00:50:51.992040 27992 net.cpp:425] inception_4b/output <- inception_4b/5x5
I0924 00:50:51.992053 27992 net.cpp:425] inception_4b/output <- inception_4b/pool_proj
I0924 00:50:51.992072 27992 net.cpp:399] inception_4b/output -> inception_4b/output
I0924 00:50:51.992146 27992 net.cpp:141] Setting up inception_4b/output
I0924 00:50:51.992166 27992 net.cpp:148] Top shape: 10 512 14 14 (1003520)
I0924 00:50:51.992177 27992 net.cpp:156] Memory required for data: 407805440
I0924 00:50:51.992187 27992 layer_factory.hpp:77] Creating layer inception_4b/output_inception_4b/output_0_split
I0924 00:50:51.992211 27992 net.cpp:91] Creating Layer inception_4b/output_inception_4b/output_0_split
I0924 00:50:51.992224 27992 net.cpp:425] inception_4b/output_inception_4b/output_0_split <- inception_4b/output
I0924 00:50:51.992239 27992 net.cpp:399] inception_4b/output_inception_4b/output_0_split -> inception_4b/output_inception_4b/output_0_split_0
I0924 00:50:51.992262 27992 net.cpp:399] inception_4b/output_inception_4b/output_0_split -> inception_4b/output_inception_4b/output_0_split_1
I0924 00:50:51.992282 27992 net.cpp:399] inception_4b/output_inception_4b/output_0_split -> inception_4b/output_inception_4b/output_0_split_2
I0924 00:50:51.992300 27992 net.cpp:399] inception_4b/output_inception_4b/output_0_split -> inception_4b/output_inception_4b/output_0_split_3
I0924 00:50:51.992480 27992 net.cpp:141] Setting up inception_4b/output_inception_4b/output_0_split
I0924 00:50:51.992499 27992 net.cpp:148] Top shape: 10 512 14 14 (1003520)
I0924 00:50:51.992513 27992 net.cpp:148] Top shape: 10 512 14 14 (1003520)
I0924 00:50:51.992525 27992 net.cpp:148] Top shape: 10 512 14 14 (1003520)
I0924 00:50:51.992537 27992 net.cpp:148] Top shape: 10 512 14 14 (1003520)
I0924 00:50:51.992545 27992 net.cpp:156] Memory required for data: 423861760
I0924 00:50:51.992555 27992 layer_factory.hpp:77] Creating layer inception_4c/1x1
I0924 00:50:51.992584 27992 net.cpp:91] Creating Layer inception_4c/1x1
I0924 00:50:51.992599 27992 net.cpp:425] inception_4c/1x1 <- inception_4b/output_inception_4b/output_0_split_0
I0924 00:50:51.992625 27992 net.cpp:399] inception_4c/1x1 -> inception_4c/1x1
I0924 00:50:51.995916 27992 net.cpp:141] Setting up inception_4c/1x1
I0924 00:50:51.995950 27992 net.cpp:148] Top shape: 10 128 14 14 (250880)
I0924 00:50:51.995962 27992 net.cpp:156] Memory required for data: 424865280
I0924 00:50:51.995982 27992 layer_factory.hpp:77] Creating layer inception_4c/relu_1x1
I0924 00:50:51.996001 27992 net.cpp:91] Creating Layer inception_4c/relu_1x1
I0924 00:50:51.996012 27992 net.cpp:425] inception_4c/relu_1x1 <- inception_4c/1x1
I0924 00:50:51.996034 27992 net.cpp:386] inception_4c/relu_1x1 -> inception_4c/1x1 (in-place)
I0924 00:50:51.996726 27992 net.cpp:141] Setting up inception_4c/relu_1x1
I0924 00:50:51.996755 27992 net.cpp:148] Top shape: 10 128 14 14 (250880)
I0924 00:50:51.996767 27992 net.cpp:156] Memory required for data: 425868800
I0924 00:50:51.996778 27992 layer_factory.hpp:77] Creating layer inception_4c/3x3_reduce
I0924 00:50:51.996809 27992 net.cpp:91] Creating Layer inception_4c/3x3_reduce
I0924 00:50:51.996824 27992 net.cpp:425] inception_4c/3x3_reduce <- inception_4b/output_inception_4b/output_0_split_1
I0924 00:50:51.996847 27992 net.cpp:399] inception_4c/3x3_reduce -> inception_4c/3x3_reduce
I0924 00:50:51.999511 27992 net.cpp:141] Setting up inception_4c/3x3_reduce
I0924 00:50:51.999536 27992 net.cpp:148] Top shape: 10 128 14 14 (250880)
I0924 00:50:51.999541 27992 net.cpp:156] Memory required for data: 426872320
I0924 00:50:51.999552 27992 layer_factory.hpp:77] Creating layer inception_4c/relu_3x3_reduce
I0924 00:50:51.999562 27992 net.cpp:91] Creating Layer inception_4c/relu_3x3_reduce
I0924 00:50:51.999568 27992 net.cpp:425] inception_4c/relu_3x3_reduce <- inception_4c/3x3_reduce
I0924 00:50:51.999577 27992 net.cpp:386] inception_4c/relu_3x3_reduce -> inception_4c/3x3_reduce (in-place)
I0924 00:50:51.999858 27992 net.cpp:141] Setting up inception_4c/relu_3x3_reduce
I0924 00:50:51.999871 27992 net.cpp:148] Top shape: 10 128 14 14 (250880)
I0924 00:50:51.999876 27992 net.cpp:156] Memory required for data: 427875840
I0924 00:50:51.999881 27992 layer_factory.hpp:77] Creating layer inception_4c/3x3
I0924 00:50:51.999897 27992 net.cpp:91] Creating Layer inception_4c/3x3
I0924 00:50:51.999904 27992 net.cpp:425] inception_4c/3x3 <- inception_4c/3x3_reduce
I0924 00:50:51.999917 27992 net.cpp:399] inception_4c/3x3 -> inception_4c/3x3
I0924 00:50:52.004832 27992 net.cpp:141] Setting up inception_4c/3x3
I0924 00:50:52.004855 27992 net.cpp:148] Top shape: 10 256 14 14 (501760)
I0924 00:50:52.004861 27992 net.cpp:156] Memory required for data: 429882880
I0924 00:50:52.004871 27992 layer_factory.hpp:77] Creating layer inception_4c/relu_3x3
I0924 00:50:52.004881 27992 net.cpp:91] Creating Layer inception_4c/relu_3x3
I0924 00:50:52.004887 27992 net.cpp:425] inception_4c/relu_3x3 <- inception_4c/3x3
I0924 00:50:52.004895 27992 net.cpp:386] inception_4c/relu_3x3 -> inception_4c/3x3 (in-place)
I0924 00:50:52.005350 27992 net.cpp:141] Setting up inception_4c/relu_3x3
I0924 00:50:52.005364 27992 net.cpp:148] Top shape: 10 256 14 14 (501760)
I0924 00:50:52.005369 27992 net.cpp:156] Memory required for data: 431889920
I0924 00:50:52.005375 27992 layer_factory.hpp:77] Creating layer inception_4c/5x5_reduce
I0924 00:50:52.005393 27992 net.cpp:91] Creating Layer inception_4c/5x5_reduce
I0924 00:50:52.005400 27992 net.cpp:425] inception_4c/5x5_reduce <- inception_4b/output_inception_4b/output_0_split_2
I0924 00:50:52.005412 27992 net.cpp:399] inception_4c/5x5_reduce -> inception_4c/5x5_reduce
I0924 00:50:52.007002 27992 net.cpp:141] Setting up inception_4c/5x5_reduce
I0924 00:50:52.007028 27992 net.cpp:148] Top shape: 10 24 14 14 (47040)
I0924 00:50:52.007035 27992 net.cpp:156] Memory required for data: 432078080
I0924 00:50:52.007045 27992 layer_factory.hpp:77] Creating layer inception_4c/relu_5x5_reduce
I0924 00:50:52.007055 27992 net.cpp:91] Creating Layer inception_4c/relu_5x5_reduce
I0924 00:50:52.007061 27992 net.cpp:425] inception_4c/relu_5x5_reduce <- inception_4c/5x5_reduce
I0924 00:50:52.007068 27992 net.cpp:386] inception_4c/relu_5x5_reduce -> inception_4c/5x5_reduce (in-place)
I0924 00:50:52.007526 27992 net.cpp:141] Setting up inception_4c/relu_5x5_reduce
I0924 00:50:52.007544 27992 net.cpp:148] Top shape: 10 24 14 14 (47040)
I0924 00:50:52.007549 27992 net.cpp:156] Memory required for data: 432266240
I0924 00:50:52.007555 27992 layer_factory.hpp:77] Creating layer inception_4c/5x5
I0924 00:50:52.007571 27992 net.cpp:91] Creating Layer inception_4c/5x5
I0924 00:50:52.007578 27992 net.cpp:425] inception_4c/5x5 <- inception_4c/5x5_reduce
I0924 00:50:52.007588 27992 net.cpp:399] inception_4c/5x5 -> inception_4c/5x5
I0924 00:50:52.009744 27992 net.cpp:141] Setting up inception_4c/5x5
I0924 00:50:52.009765 27992 net.cpp:148] Top shape: 10 64 14 14 (125440)
I0924 00:50:52.009770 27992 net.cpp:156] Memory required for data: 432768000
I0924 00:50:52.009780 27992 layer_factory.hpp:77] Creating layer inception_4c/relu_5x5
I0924 00:50:52.009790 27992 net.cpp:91] Creating Layer inception_4c/relu_5x5
I0924 00:50:52.009796 27992 net.cpp:425] inception_4c/relu_5x5 <- inception_4c/5x5
I0924 00:50:52.009809 27992 net.cpp:386] inception_4c/relu_5x5 -> inception_4c/5x5 (in-place)
I0924 00:50:52.010072 27992 net.cpp:141] Setting up inception_4c/relu_5x5
I0924 00:50:52.010085 27992 net.cpp:148] Top shape: 10 64 14 14 (125440)
I0924 00:50:52.010090 27992 net.cpp:156] Memory required for data: 433269760
I0924 00:50:52.010097 27992 layer_factory.hpp:77] Creating layer inception_4c/pool
I0924 00:50:52.010109 27992 net.cpp:91] Creating Layer inception_4c/pool
I0924 00:50:52.010115 27992 net.cpp:425] inception_4c/pool <- inception_4b/output_inception_4b/output_0_split_3
I0924 00:50:52.010124 27992 net.cpp:399] inception_4c/pool -> inception_4c/pool
I0924 00:50:52.010202 27992 net.cpp:141] Setting up inception_4c/pool
I0924 00:50:52.010213 27992 net.cpp:148] Top shape: 10 512 14 14 (1003520)
I0924 00:50:52.010217 27992 net.cpp:156] Memory required for data: 437283840
I0924 00:50:52.010222 27992 layer_factory.hpp:77] Creating layer inception_4c/pool_proj
I0924 00:50:52.010239 27992 net.cpp:91] Creating Layer inception_4c/pool_proj
I0924 00:50:52.010246 27992 net.cpp:425] inception_4c/pool_proj <- inception_4c/pool
I0924 00:50:52.010257 27992 net.cpp:399] inception_4c/pool_proj -> inception_4c/pool_proj
I0924 00:50:52.012876 27992 net.cpp:141] Setting up inception_4c/pool_proj
I0924 00:50:52.012897 27992 net.cpp:148] Top shape: 10 64 14 14 (125440)
I0924 00:50:52.012903 27992 net.cpp:156] Memory required for data: 437785600
I0924 00:50:52.012935 27992 layer_factory.hpp:77] Creating layer inception_4c/relu_pool_proj
I0924 00:50:52.012945 27992 net.cpp:91] Creating Layer inception_4c/relu_pool_proj
I0924 00:50:52.012951 27992 net.cpp:425] inception_4c/relu_pool_proj <- inception_4c/pool_proj
I0924 00:50:52.012962 27992 net.cpp:386] inception_4c/relu_pool_proj -> inception_4c/pool_proj (in-place)
I0924 00:50:52.013416 27992 net.cpp:141] Setting up inception_4c/relu_pool_proj
I0924 00:50:52.013430 27992 net.cpp:148] Top shape: 10 64 14 14 (125440)
I0924 00:50:52.013435 27992 net.cpp:156] Memory required for data: 438287360
I0924 00:50:52.013440 27992 layer_factory.hpp:77] Creating layer inception_4c/output
I0924 00:50:52.013450 27992 net.cpp:91] Creating Layer inception_4c/output
I0924 00:50:52.013455 27992 net.cpp:425] inception_4c/output <- inception_4c/1x1
I0924 00:50:52.013463 27992 net.cpp:425] inception_4c/output <- inception_4c/3x3
I0924 00:50:52.013468 27992 net.cpp:425] inception_4c/output <- inception_4c/5x5
I0924 00:50:52.013474 27992 net.cpp:425] inception_4c/output <- inception_4c/pool_proj
I0924 00:50:52.013485 27992 net.cpp:399] inception_4c/output -> inception_4c/output
I0924 00:50:52.013535 27992 net.cpp:141] Setting up inception_4c/output
I0924 00:50:52.013548 27992 net.cpp:148] Top shape: 10 512 14 14 (1003520)
I0924 00:50:52.013553 27992 net.cpp:156] Memory required for data: 442301440
I0924 00:50:52.013558 27992 layer_factory.hpp:77] Creating layer inception_4c/output_inception_4c/output_0_split
I0924 00:50:52.013568 27992 net.cpp:91] Creating Layer inception_4c/output_inception_4c/output_0_split
I0924 00:50:52.013573 27992 net.cpp:425] inception_4c/output_inception_4c/output_0_split <- inception_4c/output
I0924 00:50:52.013581 27992 net.cpp:399] inception_4c/output_inception_4c/output_0_split -> inception_4c/output_inception_4c/output_0_split_0
I0924 00:50:52.013592 27992 net.cpp:399] inception_4c/output_inception_4c/output_0_split -> inception_4c/output_inception_4c/output_0_split_1
I0924 00:50:52.013600 27992 net.cpp:399] inception_4c/output_inception_4c/output_0_split -> inception_4c/output_inception_4c/output_0_split_2
I0924 00:50:52.013613 27992 net.cpp:399] inception_4c/output_inception_4c/output_0_split -> inception_4c/output_inception_4c/output_0_split_3
I0924 00:50:52.013718 27992 net.cpp:141] Setting up inception_4c/output_inception_4c/output_0_split
I0924 00:50:52.013728 27992 net.cpp:148] Top shape: 10 512 14 14 (1003520)
I0924 00:50:52.013734 27992 net.cpp:148] Top shape: 10 512 14 14 (1003520)
I0924 00:50:52.013741 27992 net.cpp:148] Top shape: 10 512 14 14 (1003520)
I0924 00:50:52.013746 27992 net.cpp:148] Top shape: 10 512 14 14 (1003520)
I0924 00:50:52.013751 27992 net.cpp:156] Memory required for data: 458357760
I0924 00:50:52.013756 27992 layer_factory.hpp:77] Creating layer inception_4d/1x1
I0924 00:50:52.013772 27992 net.cpp:91] Creating Layer inception_4d/1x1
I0924 00:50:52.013778 27992 net.cpp:425] inception_4d/1x1 <- inception_4c/output_inception_4c/output_0_split_0
I0924 00:50:52.013790 27992 net.cpp:399] inception_4d/1x1 -> inception_4d/1x1
I0924 00:50:52.015722 27992 net.cpp:141] Setting up inception_4d/1x1
I0924 00:50:52.015748 27992 net.cpp:148] Top shape: 10 112 14 14 (219520)
I0924 00:50:52.015753 27992 net.cpp:156] Memory required for data: 459235840
I0924 00:50:52.015763 27992 layer_factory.hpp:77] Creating layer inception_4d/relu_1x1
I0924 00:50:52.015774 27992 net.cpp:91] Creating Layer inception_4d/relu_1x1
I0924 00:50:52.015779 27992 net.cpp:425] inception_4d/relu_1x1 <- inception_4d/1x1
I0924 00:50:52.015787 27992 net.cpp:386] inception_4d/relu_1x1 -> inception_4d/1x1 (in-place)
I0924 00:50:52.016237 27992 net.cpp:141] Setting up inception_4d/relu_1x1
I0924 00:50:52.016252 27992 net.cpp:148] Top shape: 10 112 14 14 (219520)
I0924 00:50:52.016258 27992 net.cpp:156] Memory required for data: 460113920
I0924 00:50:52.016264 27992 layer_factory.hpp:77] Creating layer inception_4d/3x3_reduce
I0924 00:50:52.016280 27992 net.cpp:91] Creating Layer inception_4d/3x3_reduce
I0924 00:50:52.016288 27992 net.cpp:425] inception_4d/3x3_reduce <- inception_4c/output_inception_4c/output_0_split_1
I0924 00:50:52.016297 27992 net.cpp:399] inception_4d/3x3_reduce -> inception_4d/3x3_reduce
I0924 00:50:52.018585 27992 net.cpp:141] Setting up inception_4d/3x3_reduce
I0924 00:50:52.018617 27992 net.cpp:148] Top shape: 10 144 14 14 (282240)
I0924 00:50:52.018623 27992 net.cpp:156] Memory required for data: 461242880
I0924 00:50:52.018633 27992 layer_factory.hpp:77] Creating layer inception_4d/relu_3x3_reduce
I0924 00:50:52.018642 27992 net.cpp:91] Creating Layer inception_4d/relu_3x3_reduce
I0924 00:50:52.018649 27992 net.cpp:425] inception_4d/relu_3x3_reduce <- inception_4d/3x3_reduce
I0924 00:50:52.018657 27992 net.cpp:386] inception_4d/relu_3x3_reduce -> inception_4d/3x3_reduce (in-place)
I0924 00:50:52.018930 27992 net.cpp:141] Setting up inception_4d/relu_3x3_reduce
I0924 00:50:52.018944 27992 net.cpp:148] Top shape: 10 144 14 14 (282240)
I0924 00:50:52.018947 27992 net.cpp:156] Memory required for data: 462371840
I0924 00:50:52.018954 27992 layer_factory.hpp:77] Creating layer inception_4d/3x3
I0924 00:50:52.018970 27992 net.cpp:91] Creating Layer inception_4d/3x3
I0924 00:50:52.018976 27992 net.cpp:425] inception_4d/3x3 <- inception_4d/3x3_reduce
I0924 00:50:52.018990 27992 net.cpp:399] inception_4d/3x3 -> inception_4d/3x3
I0924 00:50:52.024683 27992 net.cpp:141] Setting up inception_4d/3x3
I0924 00:50:52.024710 27992 net.cpp:148] Top shape: 10 288 14 14 (564480)
I0924 00:50:52.024716 27992 net.cpp:156] Memory required for data: 464629760
I0924 00:50:52.024726 27992 layer_factory.hpp:77] Creating layer inception_4d/relu_3x3
I0924 00:50:52.024736 27992 net.cpp:91] Creating Layer inception_4d/relu_3x3
I0924 00:50:52.024744 27992 net.cpp:425] inception_4d/relu_3x3 <- inception_4d/3x3
I0924 00:50:52.024751 27992 net.cpp:386] inception_4d/relu_3x3 -> inception_4d/3x3 (in-place)
I0924 00:50:52.025213 27992 net.cpp:141] Setting up inception_4d/relu_3x3
I0924 00:50:52.025229 27992 net.cpp:148] Top shape: 10 288 14 14 (564480)
I0924 00:50:52.025234 27992 net.cpp:156] Memory required for data: 466887680
I0924 00:50:52.025240 27992 layer_factory.hpp:77] Creating layer inception_4d/5x5_reduce
I0924 00:50:52.025259 27992 net.cpp:91] Creating Layer inception_4d/5x5_reduce
I0924 00:50:52.025265 27992 net.cpp:425] inception_4d/5x5_reduce <- inception_4c/output_inception_4c/output_0_split_2
I0924 00:50:52.025275 27992 net.cpp:399] inception_4d/5x5_reduce -> inception_4d/5x5_reduce
I0924 00:50:52.026911 27992 net.cpp:141] Setting up inception_4d/5x5_reduce
I0924 00:50:52.026931 27992 net.cpp:148] Top shape: 10 32 14 14 (62720)
I0924 00:50:52.026937 27992 net.cpp:156] Memory required for data: 467138560
I0924 00:50:52.026947 27992 layer_factory.hpp:77] Creating layer inception_4d/relu_5x5_reduce
I0924 00:50:52.026959 27992 net.cpp:91] Creating Layer inception_4d/relu_5x5_reduce
I0924 00:50:52.026967 27992 net.cpp:425] inception_4d/relu_5x5_reduce <- inception_4d/5x5_reduce
I0924 00:50:52.026974 27992 net.cpp:386] inception_4d/relu_5x5_reduce -> inception_4d/5x5_reduce (in-place)
I0924 00:50:52.027431 27992 net.cpp:141] Setting up inception_4d/relu_5x5_reduce
I0924 00:50:52.027446 27992 net.cpp:148] Top shape: 10 32 14 14 (62720)
I0924 00:50:52.027451 27992 net.cpp:156] Memory required for data: 467389440
I0924 00:50:52.027456 27992 layer_factory.hpp:77] Creating layer inception_4d/5x5
I0924 00:50:52.027472 27992 net.cpp:91] Creating Layer inception_4d/5x5
I0924 00:50:52.027478 27992 net.cpp:425] inception_4d/5x5 <- inception_4d/5x5_reduce
I0924 00:50:52.027493 27992 net.cpp:399] inception_4d/5x5 -> inception_4d/5x5
I0924 00:50:52.029575 27992 net.cpp:141] Setting up inception_4d/5x5
I0924 00:50:52.029595 27992 net.cpp:148] Top shape: 10 64 14 14 (125440)
I0924 00:50:52.029602 27992 net.cpp:156] Memory required for data: 467891200
I0924 00:50:52.029610 27992 layer_factory.hpp:77] Creating layer inception_4d/relu_5x5
I0924 00:50:52.029620 27992 net.cpp:91] Creating Layer inception_4d/relu_5x5
I0924 00:50:52.029626 27992 net.cpp:425] inception_4d/relu_5x5 <- inception_4d/5x5
I0924 00:50:52.029638 27992 net.cpp:386] inception_4d/relu_5x5 -> inception_4d/5x5 (in-place)
I0924 00:50:52.029906 27992 net.cpp:141] Setting up inception_4d/relu_5x5
I0924 00:50:52.029919 27992 net.cpp:148] Top shape: 10 64 14 14 (125440)
I0924 00:50:52.029924 27992 net.cpp:156] Memory required for data: 468392960
I0924 00:50:52.029929 27992 layer_factory.hpp:77] Creating layer inception_4d/pool
I0924 00:50:52.029944 27992 net.cpp:91] Creating Layer inception_4d/pool
I0924 00:50:52.029952 27992 net.cpp:425] inception_4d/pool <- inception_4c/output_inception_4c/output_0_split_3
I0924 00:50:52.029959 27992 net.cpp:399] inception_4d/pool -> inception_4d/pool
I0924 00:50:52.030040 27992 net.cpp:141] Setting up inception_4d/pool
I0924 00:50:52.030051 27992 net.cpp:148] Top shape: 10 512 14 14 (1003520)
I0924 00:50:52.030056 27992 net.cpp:156] Memory required for data: 472407040
I0924 00:50:52.030061 27992 layer_factory.hpp:77] Creating layer inception_4d/pool_proj
I0924 00:50:52.030076 27992 net.cpp:91] Creating Layer inception_4d/pool_proj
I0924 00:50:52.030082 27992 net.cpp:425] inception_4d/pool_proj <- inception_4d/pool
I0924 00:50:52.030092 27992 net.cpp:399] inception_4d/pool_proj -> inception_4d/pool_proj
I0924 00:50:52.032035 27992 net.cpp:141] Setting up inception_4d/pool_proj
I0924 00:50:52.032055 27992 net.cpp:148] Top shape: 10 64 14 14 (125440)
I0924 00:50:52.032061 27992 net.cpp:156] Memory required for data: 472908800
I0924 00:50:52.032071 27992 layer_factory.hpp:77] Creating layer inception_4d/relu_pool_proj
I0924 00:50:52.032084 27992 net.cpp:91] Creating Layer inception_4d/relu_pool_proj
I0924 00:50:52.032093 27992 net.cpp:425] inception_4d/relu_pool_proj <- inception_4d/pool_proj
I0924 00:50:52.032100 27992 net.cpp:386] inception_4d/relu_pool_proj -> inception_4d/pool_proj (in-place)
I0924 00:50:52.032557 27992 net.cpp:141] Setting up inception_4d/relu_pool_proj
I0924 00:50:52.032570 27992 net.cpp:148] Top shape: 10 64 14 14 (125440)
I0924 00:50:52.032577 27992 net.cpp:156] Memory required for data: 473410560
I0924 00:50:52.032582 27992 layer_factory.hpp:77] Creating layer inception_4d/output
I0924 00:50:52.032596 27992 net.cpp:91] Creating Layer inception_4d/output
I0924 00:50:52.032603 27992 net.cpp:425] inception_4d/output <- inception_4d/1x1
I0924 00:50:52.032610 27992 net.cpp:425] inception_4d/output <- inception_4d/3x3
I0924 00:50:52.032616 27992 net.cpp:425] inception_4d/output <- inception_4d/5x5
I0924 00:50:52.032622 27992 net.cpp:425] inception_4d/output <- inception_4d/pool_proj
I0924 00:50:52.032629 27992 net.cpp:399] inception_4d/output -> inception_4d/output
I0924 00:50:52.032681 27992 net.cpp:141] Setting up inception_4d/output
I0924 00:50:52.032692 27992 net.cpp:148] Top shape: 10 528 14 14 (1034880)
I0924 00:50:52.032697 27992 net.cpp:156] Memory required for data: 477550080
I0924 00:50:52.032702 27992 layer_factory.hpp:77] Creating layer inception_4d/output_inception_4d/output_0_split
I0924 00:50:52.032712 27992 net.cpp:91] Creating Layer inception_4d/output_inception_4d/output_0_split
I0924 00:50:52.032717 27992 net.cpp:425] inception_4d/output_inception_4d/output_0_split <- inception_4d/output
I0924 00:50:52.032729 27992 net.cpp:399] inception_4d/output_inception_4d/output_0_split -> inception_4d/output_inception_4d/output_0_split_0
I0924 00:50:52.032740 27992 net.cpp:399] inception_4d/output_inception_4d/output_0_split -> inception_4d/output_inception_4d/output_0_split_1
I0924 00:50:52.032749 27992 net.cpp:399] inception_4d/output_inception_4d/output_0_split -> inception_4d/output_inception_4d/output_0_split_2
I0924 00:50:52.032758 27992 net.cpp:399] inception_4d/output_inception_4d/output_0_split -> inception_4d/output_inception_4d/output_0_split_3
I0924 00:50:52.032869 27992 net.cpp:141] Setting up inception_4d/output_inception_4d/output_0_split
I0924 00:50:52.032881 27992 net.cpp:148] Top shape: 10 528 14 14 (1034880)
I0924 00:50:52.032886 27992 net.cpp:148] Top shape: 10 528 14 14 (1034880)
I0924 00:50:52.032892 27992 net.cpp:148] Top shape: 10 528 14 14 (1034880)
I0924 00:50:52.032897 27992 net.cpp:148] Top shape: 10 528 14 14 (1034880)
I0924 00:50:52.032902 27992 net.cpp:156] Memory required for data: 494108160
I0924 00:50:52.032907 27992 layer_factory.hpp:77] Creating layer inception_4e/1x1
I0924 00:50:52.032927 27992 net.cpp:91] Creating Layer inception_4e/1x1
I0924 00:50:52.032932 27992 net.cpp:425] inception_4e/1x1 <- inception_4d/output_inception_4d/output_0_split_0
I0924 00:50:52.032941 27992 net.cpp:399] inception_4e/1x1 -> inception_4e/1x1
I0924 00:50:52.036460 27992 net.cpp:141] Setting up inception_4e/1x1
I0924 00:50:52.036481 27992 net.cpp:148] Top shape: 10 256 14 14 (501760)
I0924 00:50:52.036490 27992 net.cpp:156] Memory required for data: 496115200
I0924 00:50:52.036501 27992 layer_factory.hpp:77] Creating layer inception_4e/relu_1x1
I0924 00:50:52.036510 27992 net.cpp:91] Creating Layer inception_4e/relu_1x1
I0924 00:50:52.036517 27992 net.cpp:425] inception_4e/relu_1x1 <- inception_4e/1x1
I0924 00:50:52.036525 27992 net.cpp:386] inception_4e/relu_1x1 -> inception_4e/1x1 (in-place)
I0924 00:50:52.036978 27992 net.cpp:141] Setting up inception_4e/relu_1x1
I0924 00:50:52.036991 27992 net.cpp:148] Top shape: 10 256 14 14 (501760)
I0924 00:50:52.036999 27992 net.cpp:156] Memory required for data: 498122240
I0924 00:50:52.037005 27992 layer_factory.hpp:77] Creating layer inception_4e/3x3_reduce
I0924 00:50:52.037019 27992 net.cpp:91] Creating Layer inception_4e/3x3_reduce
I0924 00:50:52.037025 27992 net.cpp:425] inception_4e/3x3_reduce <- inception_4d/output_inception_4d/output_0_split_1
I0924 00:50:52.037039 27992 net.cpp:399] inception_4e/3x3_reduce -> inception_4e/3x3_reduce
I0924 00:50:52.039429 27992 net.cpp:141] Setting up inception_4e/3x3_reduce
I0924 00:50:52.039450 27992 net.cpp:148] Top shape: 10 160 14 14 (313600)
I0924 00:50:52.039456 27992 net.cpp:156] Memory required for data: 499376640
I0924 00:50:52.039466 27992 layer_factory.hpp:77] Creating layer inception_4e/relu_3x3_reduce
I0924 00:50:52.039481 27992 net.cpp:91] Creating Layer inception_4e/relu_3x3_reduce
I0924 00:50:52.039489 27992 net.cpp:425] inception_4e/relu_3x3_reduce <- inception_4e/3x3_reduce
I0924 00:50:52.039496 27992 net.cpp:386] inception_4e/relu_3x3_reduce -> inception_4e/3x3_reduce (in-place)
I0924 00:50:52.039769 27992 net.cpp:141] Setting up inception_4e/relu_3x3_reduce
I0924 00:50:52.039783 27992 net.cpp:148] Top shape: 10 160 14 14 (313600)
I0924 00:50:52.039788 27992 net.cpp:156] Memory required for data: 500631040
I0924 00:50:52.039793 27992 layer_factory.hpp:77] Creating layer inception_4e/3x3
I0924 00:50:52.039811 27992 net.cpp:91] Creating Layer inception_4e/3x3
I0924 00:50:52.039819 27992 net.cpp:425] inception_4e/3x3 <- inception_4e/3x3_reduce
I0924 00:50:52.039829 27992 net.cpp:399] inception_4e/3x3 -> inception_4e/3x3
I0924 00:50:52.046610 27992 net.cpp:141] Setting up inception_4e/3x3
I0924 00:50:52.046638 27992 net.cpp:148] Top shape: 10 320 14 14 (627200)
I0924 00:50:52.046643 27992 net.cpp:156] Memory required for data: 503139840
I0924 00:50:52.046654 27992 layer_factory.hpp:77] Creating layer inception_4e/relu_3x3
I0924 00:50:52.046664 27992 net.cpp:91] Creating Layer inception_4e/relu_3x3
I0924 00:50:52.046670 27992 net.cpp:425] inception_4e/relu_3x3 <- inception_4e/3x3
I0924 00:50:52.046679 27992 net.cpp:386] inception_4e/relu_3x3 -> inception_4e/3x3 (in-place)
I0924 00:50:52.047171 27992 net.cpp:141] Setting up inception_4e/relu_3x3
I0924 00:50:52.047185 27992 net.cpp:148] Top shape: 10 320 14 14 (627200)
I0924 00:50:52.047190 27992 net.cpp:156] Memory required for data: 505648640
I0924 00:50:52.047196 27992 layer_factory.hpp:77] Creating layer inception_4e/5x5_reduce
I0924 00:50:52.047215 27992 net.cpp:91] Creating Layer inception_4e/5x5_reduce
I0924 00:50:52.047222 27992 net.cpp:425] inception_4e/5x5_reduce <- inception_4d/output_inception_4d/output_0_split_2
I0924 00:50:52.047235 27992 net.cpp:399] inception_4e/5x5_reduce -> inception_4e/5x5_reduce
I0924 00:50:52.048902 27992 net.cpp:141] Setting up inception_4e/5x5_reduce
I0924 00:50:52.048923 27992 net.cpp:148] Top shape: 10 32 14 14 (62720)
I0924 00:50:52.048931 27992 net.cpp:156] Memory required for data: 505899520
I0924 00:50:52.048941 27992 layer_factory.hpp:77] Creating layer inception_4e/relu_5x5_reduce
I0924 00:50:52.048951 27992 net.cpp:91] Creating Layer inception_4e/relu_5x5_reduce
I0924 00:50:52.048957 27992 net.cpp:425] inception_4e/relu_5x5_reduce <- inception_4e/5x5_reduce
I0924 00:50:52.048965 27992 net.cpp:386] inception_4e/relu_5x5_reduce -> inception_4e/5x5_reduce (in-place)
I0924 00:50:52.049422 27992 net.cpp:141] Setting up inception_4e/relu_5x5_reduce
I0924 00:50:52.049435 27992 net.cpp:148] Top shape: 10 32 14 14 (62720)
I0924 00:50:52.049443 27992 net.cpp:156] Memory required for data: 506150400
I0924 00:50:52.049449 27992 layer_factory.hpp:77] Creating layer inception_4e/5x5
I0924 00:50:52.049463 27992 net.cpp:91] Creating Layer inception_4e/5x5
I0924 00:50:52.049469 27992 net.cpp:425] inception_4e/5x5 <- inception_4e/5x5_reduce
I0924 00:50:52.049484 27992 net.cpp:399] inception_4e/5x5 -> inception_4e/5x5
I0924 00:50:52.052736 27992 net.cpp:141] Setting up inception_4e/5x5
I0924 00:50:52.052757 27992 net.cpp:148] Top shape: 10 128 14 14 (250880)
I0924 00:50:52.052763 27992 net.cpp:156] Memory required for data: 507153920
I0924 00:50:52.052773 27992 layer_factory.hpp:77] Creating layer inception_4e/relu_5x5
I0924 00:50:52.052784 27992 net.cpp:91] Creating Layer inception_4e/relu_5x5
I0924 00:50:52.052791 27992 net.cpp:425] inception_4e/relu_5x5 <- inception_4e/5x5
I0924 00:50:52.052799 27992 net.cpp:386] inception_4e/relu_5x5 -> inception_4e/5x5 (in-place)
I0924 00:50:52.053076 27992 net.cpp:141] Setting up inception_4e/relu_5x5
I0924 00:50:52.053087 27992 net.cpp:148] Top shape: 10 128 14 14 (250880)
I0924 00:50:52.053092 27992 net.cpp:156] Memory required for data: 508157440
I0924 00:50:52.053098 27992 layer_factory.hpp:77] Creating layer inception_4e/pool
I0924 00:50:52.053112 27992 net.cpp:91] Creating Layer inception_4e/pool
I0924 00:50:52.053119 27992 net.cpp:425] inception_4e/pool <- inception_4d/output_inception_4d/output_0_split_3
I0924 00:50:52.053130 27992 net.cpp:399] inception_4e/pool -> inception_4e/pool
I0924 00:50:52.053208 27992 net.cpp:141] Setting up inception_4e/pool
I0924 00:50:52.053220 27992 net.cpp:148] Top shape: 10 528 14 14 (1034880)
I0924 00:50:52.053225 27992 net.cpp:156] Memory required for data: 512296960
I0924 00:50:52.053230 27992 layer_factory.hpp:77] Creating layer inception_4e/pool_proj
I0924 00:50:52.053246 27992 net.cpp:91] Creating Layer inception_4e/pool_proj
I0924 00:50:52.053252 27992 net.cpp:425] inception_4e/pool_proj <- inception_4e/pool
I0924 00:50:52.053266 27992 net.cpp:399] inception_4e/pool_proj -> inception_4e/pool_proj
I0924 00:50:52.055528 27992 net.cpp:141] Setting up inception_4e/pool_proj
I0924 00:50:52.055549 27992 net.cpp:148] Top shape: 10 128 14 14 (250880)
I0924 00:50:52.055555 27992 net.cpp:156] Memory required for data: 513300480
I0924 00:50:52.055565 27992 layer_factory.hpp:77] Creating layer inception_4e/relu_pool_proj
I0924 00:50:52.055577 27992 net.cpp:91] Creating Layer inception_4e/relu_pool_proj
I0924 00:50:52.055584 27992 net.cpp:425] inception_4e/relu_pool_proj <- inception_4e/pool_proj
I0924 00:50:52.055593 27992 net.cpp:386] inception_4e/relu_pool_proj -> inception_4e/pool_proj (in-place)
I0924 00:50:52.056061 27992 net.cpp:141] Setting up inception_4e/relu_pool_proj
I0924 00:50:52.056076 27992 net.cpp:148] Top shape: 10 128 14 14 (250880)
I0924 00:50:52.056080 27992 net.cpp:156] Memory required for data: 514304000
I0924 00:50:52.056087 27992 layer_factory.hpp:77] Creating layer inception_4e/output
I0924 00:50:52.056097 27992 net.cpp:91] Creating Layer inception_4e/output
I0924 00:50:52.056104 27992 net.cpp:425] inception_4e/output <- inception_4e/1x1
I0924 00:50:52.056112 27992 net.cpp:425] inception_4e/output <- inception_4e/3x3
I0924 00:50:52.056118 27992 net.cpp:425] inception_4e/output <- inception_4e/5x5
I0924 00:50:52.056123 27992 net.cpp:425] inception_4e/output <- inception_4e/pool_proj
I0924 00:50:52.056131 27992 net.cpp:399] inception_4e/output -> inception_4e/output
I0924 00:50:52.056185 27992 net.cpp:141] Setting up inception_4e/output
I0924 00:50:52.056195 27992 net.cpp:148] Top shape: 10 832 14 14 (1630720)
I0924 00:50:52.056200 27992 net.cpp:156] Memory required for data: 520826880
I0924 00:50:52.056205 27992 layer_factory.hpp:77] Creating layer pool4/3x3_s2
I0924 00:50:52.056215 27992 net.cpp:91] Creating Layer pool4/3x3_s2
I0924 00:50:52.056221 27992 net.cpp:425] pool4/3x3_s2 <- inception_4e/output
I0924 00:50:52.056232 27992 net.cpp:399] pool4/3x3_s2 -> pool4/3x3_s2
I0924 00:50:52.056303 27992 net.cpp:141] Setting up pool4/3x3_s2
I0924 00:50:52.056316 27992 net.cpp:148] Top shape: 10 832 7 7 (407680)
I0924 00:50:52.056321 27992 net.cpp:156] Memory required for data: 522457600
I0924 00:50:52.056326 27992 layer_factory.hpp:77] Creating layer pool4/3x3_s2_pool4/3x3_s2_0_split
I0924 00:50:52.056336 27992 net.cpp:91] Creating Layer pool4/3x3_s2_pool4/3x3_s2_0_split
I0924 00:50:52.056341 27992 net.cpp:425] pool4/3x3_s2_pool4/3x3_s2_0_split <- pool4/3x3_s2
I0924 00:50:52.056349 27992 net.cpp:399] pool4/3x3_s2_pool4/3x3_s2_0_split -> pool4/3x3_s2_pool4/3x3_s2_0_split_0
I0924 00:50:52.056358 27992 net.cpp:399] pool4/3x3_s2_pool4/3x3_s2_0_split -> pool4/3x3_s2_pool4/3x3_s2_0_split_1
I0924 00:50:52.056367 27992 net.cpp:399] pool4/3x3_s2_pool4/3x3_s2_0_split -> pool4/3x3_s2_pool4/3x3_s2_0_split_2
I0924 00:50:52.056380 27992 net.cpp:399] pool4/3x3_s2_pool4/3x3_s2_0_split -> pool4/3x3_s2_pool4/3x3_s2_0_split_3
I0924 00:50:52.056489 27992 net.cpp:141] Setting up pool4/3x3_s2_pool4/3x3_s2_0_split
I0924 00:50:52.056500 27992 net.cpp:148] Top shape: 10 832 7 7 (407680)
I0924 00:50:52.056507 27992 net.cpp:148] Top shape: 10 832 7 7 (407680)
I0924 00:50:52.056514 27992 net.cpp:148] Top shape: 10 832 7 7 (407680)
I0924 00:50:52.056519 27992 net.cpp:148] Top shape: 10 832 7 7 (407680)
I0924 00:50:52.056524 27992 net.cpp:156] Memory required for data: 528980480
I0924 00:50:52.056529 27992 layer_factory.hpp:77] Creating layer inception_5a/1x1
I0924 00:50:52.056545 27992 net.cpp:91] Creating Layer inception_5a/1x1
I0924 00:50:52.056551 27992 net.cpp:425] inception_5a/1x1 <- pool4/3x3_s2_pool4/3x3_s2_0_split_0
I0924 00:50:52.056563 27992 net.cpp:399] inception_5a/1x1 -> inception_5a/1x1
I0924 00:50:52.060601 27992 net.cpp:141] Setting up inception_5a/1x1
I0924 00:50:52.060623 27992 net.cpp:148] Top shape: 10 256 7 7 (125440)
I0924 00:50:52.060629 27992 net.cpp:156] Memory required for data: 529482240
I0924 00:50:52.060639 27992 layer_factory.hpp:77] Creating layer inception_5a/relu_1x1
I0924 00:50:52.060652 27992 net.cpp:91] Creating Layer inception_5a/relu_1x1
I0924 00:50:52.060659 27992 net.cpp:425] inception_5a/relu_1x1 <- inception_5a/1x1
I0924 00:50:52.060667 27992 net.cpp:386] inception_5a/relu_1x1 -> inception_5a/1x1 (in-place)
I0924 00:50:52.061136 27992 net.cpp:141] Setting up inception_5a/relu_1x1
I0924 00:50:52.061149 27992 net.cpp:148] Top shape: 10 256 7 7 (125440)
I0924 00:50:52.061154 27992 net.cpp:156] Memory required for data: 529984000
I0924 00:50:52.061161 27992 layer_factory.hpp:77] Creating layer inception_5a/3x3_reduce
I0924 00:50:52.061180 27992 net.cpp:91] Creating Layer inception_5a/3x3_reduce
I0924 00:50:52.061187 27992 net.cpp:425] inception_5a/3x3_reduce <- pool4/3x3_s2_pool4/3x3_s2_0_split_1
I0924 00:50:52.061198 27992 net.cpp:399] inception_5a/3x3_reduce -> inception_5a/3x3_reduce
I0924 00:50:52.064759 27992 net.cpp:141] Setting up inception_5a/3x3_reduce
I0924 00:50:52.064780 27992 net.cpp:148] Top shape: 10 160 7 7 (78400)
I0924 00:50:52.064786 27992 net.cpp:156] Memory required for data: 530297600
I0924 00:50:52.064796 27992 layer_factory.hpp:77] Creating layer inception_5a/relu_3x3_reduce
I0924 00:50:52.064808 27992 net.cpp:91] Creating Layer inception_5a/relu_3x3_reduce
I0924 00:50:52.064815 27992 net.cpp:425] inception_5a/relu_3x3_reduce <- inception_5a/3x3_reduce
I0924 00:50:52.064823 27992 net.cpp:386] inception_5a/relu_3x3_reduce -> inception_5a/3x3_reduce (in-place)
I0924 00:50:52.065109 27992 net.cpp:141] Setting up inception_5a/relu_3x3_reduce
I0924 00:50:52.065121 27992 net.cpp:148] Top shape: 10 160 7 7 (78400)
I0924 00:50:52.065126 27992 net.cpp:156] Memory required for data: 530611200
I0924 00:50:52.065131 27992 layer_factory.hpp:77] Creating layer inception_5a/3x3
I0924 00:50:52.065150 27992 net.cpp:91] Creating Layer inception_5a/3x3
I0924 00:50:52.065157 27992 net.cpp:425] inception_5a/3x3 <- inception_5a/3x3_reduce
I0924 00:50:52.065167 27992 net.cpp:399] inception_5a/3x3 -> inception_5a/3x3
I0924 00:50:52.072240 27992 net.cpp:141] Setting up inception_5a/3x3
I0924 00:50:52.072263 27992 net.cpp:148] Top shape: 10 320 7 7 (156800)
I0924 00:50:52.072269 27992 net.cpp:156] Memory required for data: 531238400
I0924 00:50:52.072283 27992 layer_factory.hpp:77] Creating layer inception_5a/relu_3x3
I0924 00:50:52.072293 27992 net.cpp:91] Creating Layer inception_5a/relu_3x3
I0924 00:50:52.072299 27992 net.cpp:425] inception_5a/relu_3x3 <- inception_5a/3x3
I0924 00:50:52.072307 27992 net.cpp:386] inception_5a/relu_3x3 -> inception_5a/3x3 (in-place)
I0924 00:50:52.072791 27992 net.cpp:141] Setting up inception_5a/relu_3x3
I0924 00:50:52.072805 27992 net.cpp:148] Top shape: 10 320 7 7 (156800)
I0924 00:50:52.072810 27992 net.cpp:156] Memory required for data: 531865600
I0924 00:50:52.072816 27992 layer_factory.hpp:77] Creating layer inception_5a/5x5_reduce
I0924 00:50:52.072834 27992 net.cpp:91] Creating Layer inception_5a/5x5_reduce
I0924 00:50:52.072840 27992 net.cpp:425] inception_5a/5x5_reduce <- pool4/3x3_s2_pool4/3x3_s2_0_split_2
I0924 00:50:52.072854 27992 net.cpp:399] inception_5a/5x5_reduce -> inception_5a/5x5_reduce
I0924 00:50:52.074636 27992 net.cpp:141] Setting up inception_5a/5x5_reduce
I0924 00:50:52.074657 27992 net.cpp:148] Top shape: 10 32 7 7 (15680)
I0924 00:50:52.074663 27992 net.cpp:156] Memory required for data: 531928320
I0924 00:50:52.074673 27992 layer_factory.hpp:77] Creating layer inception_5a/relu_5x5_reduce
I0924 00:50:52.074687 27992 net.cpp:91] Creating Layer inception_5a/relu_5x5_reduce
I0924 00:50:52.074694 27992 net.cpp:425] inception_5a/relu_5x5_reduce <- inception_5a/5x5_reduce
I0924 00:50:52.074703 27992 net.cpp:386] inception_5a/relu_5x5_reduce -> inception_5a/5x5_reduce (in-place)
I0924 00:50:52.075170 27992 net.cpp:141] Setting up inception_5a/relu_5x5_reduce
I0924 00:50:52.075184 27992 net.cpp:148] Top shape: 10 32 7 7 (15680)
I0924 00:50:52.075189 27992 net.cpp:156] Memory required for data: 531991040
I0924 00:50:52.075196 27992 layer_factory.hpp:77] Creating layer inception_5a/5x5
I0924 00:50:52.075214 27992 net.cpp:91] Creating Layer inception_5a/5x5
I0924 00:50:52.075222 27992 net.cpp:425] inception_5a/5x5 <- inception_5a/5x5_reduce
I0924 00:50:52.075232 27992 net.cpp:399] inception_5a/5x5 -> inception_5a/5x5
I0924 00:50:52.077790 27992 net.cpp:141] Setting up inception_5a/5x5
I0924 00:50:52.077811 27992 net.cpp:148] Top shape: 10 128 7 7 (62720)
I0924 00:50:52.077817 27992 net.cpp:156] Memory required for data: 532241920
I0924 00:50:52.077826 27992 layer_factory.hpp:77] Creating layer inception_5a/relu_5x5
I0924 00:50:52.077862 27992 net.cpp:91] Creating Layer inception_5a/relu_5x5
I0924 00:50:52.077869 27992 net.cpp:425] inception_5a/relu_5x5 <- inception_5a/5x5
I0924 00:50:52.077877 27992 net.cpp:386] inception_5a/relu_5x5 -> inception_5a/5x5 (in-place)
I0924 00:50:52.078158 27992 net.cpp:141] Setting up inception_5a/relu_5x5
I0924 00:50:52.078171 27992 net.cpp:148] Top shape: 10 128 7 7 (62720)
I0924 00:50:52.078176 27992 net.cpp:156] Memory required for data: 532492800
I0924 00:50:52.078182 27992 layer_factory.hpp:77] Creating layer inception_5a/pool
I0924 00:50:52.078196 27992 net.cpp:91] Creating Layer inception_5a/pool
I0924 00:50:52.078202 27992 net.cpp:425] inception_5a/pool <- pool4/3x3_s2_pool4/3x3_s2_0_split_3
I0924 00:50:52.078213 27992 net.cpp:399] inception_5a/pool -> inception_5a/pool
I0924 00:50:52.078294 27992 net.cpp:141] Setting up inception_5a/pool
I0924 00:50:52.078305 27992 net.cpp:148] Top shape: 10 832 7 7 (407680)
I0924 00:50:52.078310 27992 net.cpp:156] Memory required for data: 534123520
I0924 00:50:52.078315 27992 layer_factory.hpp:77] Creating layer inception_5a/pool_proj
I0924 00:50:52.078330 27992 net.cpp:91] Creating Layer inception_5a/pool_proj
I0924 00:50:52.078337 27992 net.cpp:425] inception_5a/pool_proj <- inception_5a/pool
I0924 00:50:52.078351 27992 net.cpp:399] inception_5a/pool_proj -> inception_5a/pool_proj
I0924 00:50:52.081681 27992 net.cpp:141] Setting up inception_5a/pool_proj
I0924 00:50:52.081702 27992 net.cpp:148] Top shape: 10 128 7 7 (62720)
I0924 00:50:52.081708 27992 net.cpp:156] Memory required for data: 534374400
I0924 00:50:52.081719 27992 layer_factory.hpp:77] Creating layer inception_5a/relu_pool_proj
I0924 00:50:52.081732 27992 net.cpp:91] Creating Layer inception_5a/relu_pool_proj
I0924 00:50:52.081740 27992 net.cpp:425] inception_5a/relu_pool_proj <- inception_5a/pool_proj
I0924 00:50:52.081748 27992 net.cpp:386] inception_5a/relu_pool_proj -> inception_5a/pool_proj (in-place)
I0924 00:50:52.082219 27992 net.cpp:141] Setting up inception_5a/relu_pool_proj
I0924 00:50:52.082234 27992 net.cpp:148] Top shape: 10 128 7 7 (62720)
I0924 00:50:52.082239 27992 net.cpp:156] Memory required for data: 534625280
I0924 00:50:52.082244 27992 layer_factory.hpp:77] Creating layer inception_5a/output
I0924 00:50:52.082258 27992 net.cpp:91] Creating Layer inception_5a/output
I0924 00:50:52.082265 27992 net.cpp:425] inception_5a/output <- inception_5a/1x1
I0924 00:50:52.082273 27992 net.cpp:425] inception_5a/output <- inception_5a/3x3
I0924 00:50:52.082278 27992 net.cpp:425] inception_5a/output <- inception_5a/5x5
I0924 00:50:52.082284 27992 net.cpp:425] inception_5a/output <- inception_5a/pool_proj
I0924 00:50:52.082293 27992 net.cpp:399] inception_5a/output -> inception_5a/output
I0924 00:50:52.082350 27992 net.cpp:141] Setting up inception_5a/output
I0924 00:50:52.082360 27992 net.cpp:148] Top shape: 10 832 7 7 (407680)
I0924 00:50:52.082365 27992 net.cpp:156] Memory required for data: 536256000
I0924 00:50:52.082370 27992 layer_factory.hpp:77] Creating layer inception_5a/output_inception_5a/output_0_split
I0924 00:50:52.082379 27992 net.cpp:91] Creating Layer inception_5a/output_inception_5a/output_0_split
I0924 00:50:52.082384 27992 net.cpp:425] inception_5a/output_inception_5a/output_0_split <- inception_5a/output
I0924 00:50:52.082396 27992 net.cpp:399] inception_5a/output_inception_5a/output_0_split -> inception_5a/output_inception_5a/output_0_split_0
I0924 00:50:52.082407 27992 net.cpp:399] inception_5a/output_inception_5a/output_0_split -> inception_5a/output_inception_5a/output_0_split_1
I0924 00:50:52.082417 27992 net.cpp:399] inception_5a/output_inception_5a/output_0_split -> inception_5a/output_inception_5a/output_0_split_2
I0924 00:50:52.082427 27992 net.cpp:399] inception_5a/output_inception_5a/output_0_split -> inception_5a/output_inception_5a/output_0_split_3
I0924 00:50:52.082543 27992 net.cpp:141] Setting up inception_5a/output_inception_5a/output_0_split
I0924 00:50:52.082554 27992 net.cpp:148] Top shape: 10 832 7 7 (407680)
I0924 00:50:52.082561 27992 net.cpp:148] Top shape: 10 832 7 7 (407680)
I0924 00:50:52.082566 27992 net.cpp:148] Top shape: 10 832 7 7 (407680)
I0924 00:50:52.082572 27992 net.cpp:148] Top shape: 10 832 7 7 (407680)
I0924 00:50:52.082576 27992 net.cpp:156] Memory required for data: 542778880
I0924 00:50:52.082581 27992 layer_factory.hpp:77] Creating layer inception_5b/1x1
I0924 00:50:52.082618 27992 net.cpp:91] Creating Layer inception_5b/1x1
I0924 00:50:52.082626 27992 net.cpp:425] inception_5b/1x1 <- inception_5a/output_inception_5a/output_0_split_0
I0924 00:50:52.082636 27992 net.cpp:399] inception_5b/1x1 -> inception_5b/1x1
I0924 00:50:52.087699 27992 net.cpp:141] Setting up inception_5b/1x1
I0924 00:50:52.087723 27992 net.cpp:148] Top shape: 10 384 7 7 (188160)
I0924 00:50:52.087728 27992 net.cpp:156] Memory required for data: 543531520
I0924 00:50:52.087738 27992 layer_factory.hpp:77] Creating layer inception_5b/relu_1x1
I0924 00:50:52.087752 27992 net.cpp:91] Creating Layer inception_5b/relu_1x1
I0924 00:50:52.087759 27992 net.cpp:425] inception_5b/relu_1x1 <- inception_5b/1x1
I0924 00:50:52.087767 27992 net.cpp:386] inception_5b/relu_1x1 -> inception_5b/1x1 (in-place)
I0924 00:50:52.088250 27992 net.cpp:141] Setting up inception_5b/relu_1x1
I0924 00:50:52.088264 27992 net.cpp:148] Top shape: 10 384 7 7 (188160)
I0924 00:50:52.088269 27992 net.cpp:156] Memory required for data: 544284160
I0924 00:50:52.088275 27992 layer_factory.hpp:77] Creating layer inception_5b/3x3_reduce
I0924 00:50:52.088295 27992 net.cpp:91] Creating Layer inception_5b/3x3_reduce
I0924 00:50:52.088302 27992 net.cpp:425] inception_5b/3x3_reduce <- inception_5a/output_inception_5a/output_0_split_1
I0924 00:50:52.088312 27992 net.cpp:399] inception_5b/3x3_reduce -> inception_5b/3x3_reduce
I0924 00:50:52.092178 27992 net.cpp:141] Setting up inception_5b/3x3_reduce
I0924 00:50:52.092201 27992 net.cpp:148] Top shape: 10 192 7 7 (94080)
I0924 00:50:52.092207 27992 net.cpp:156] Memory required for data: 544660480
I0924 00:50:52.092217 27992 layer_factory.hpp:77] Creating layer inception_5b/relu_3x3_reduce
I0924 00:50:52.092227 27992 net.cpp:91] Creating Layer inception_5b/relu_3x3_reduce
I0924 00:50:52.092233 27992 net.cpp:425] inception_5b/relu_3x3_reduce <- inception_5b/3x3_reduce
I0924 00:50:52.092245 27992 net.cpp:386] inception_5b/relu_3x3_reduce -> inception_5b/3x3_reduce (in-place)
I0924 00:50:52.092525 27992 net.cpp:141] Setting up inception_5b/relu_3x3_reduce
I0924 00:50:52.092537 27992 net.cpp:148] Top shape: 10 192 7 7 (94080)
I0924 00:50:52.092542 27992 net.cpp:156] Memory required for data: 545036800
I0924 00:50:52.092548 27992 layer_factory.hpp:77] Creating layer inception_5b/3x3
I0924 00:50:52.092564 27992 net.cpp:91] Creating Layer inception_5b/3x3
I0924 00:50:52.092571 27992 net.cpp:425] inception_5b/3x3 <- inception_5b/3x3_reduce
I0924 00:50:52.092583 27992 net.cpp:399] inception_5b/3x3 -> inception_5b/3x3
I0924 00:50:52.101393 27992 net.cpp:141] Setting up inception_5b/3x3
I0924 00:50:52.101416 27992 net.cpp:148] Top shape: 10 384 7 7 (188160)
I0924 00:50:52.101423 27992 net.cpp:156] Memory required for data: 545789440
I0924 00:50:52.101433 27992 layer_factory.hpp:77] Creating layer inception_5b/relu_3x3
I0924 00:50:52.101443 27992 net.cpp:91] Creating Layer inception_5b/relu_3x3
I0924 00:50:52.101449 27992 net.cpp:425] inception_5b/relu_3x3 <- inception_5b/3x3
I0924 00:50:52.101461 27992 net.cpp:386] inception_5b/relu_3x3 -> inception_5b/3x3 (in-place)
I0924 00:50:52.101946 27992 net.cpp:141] Setting up inception_5b/relu_3x3
I0924 00:50:52.101960 27992 net.cpp:148] Top shape: 10 384 7 7 (188160)
I0924 00:50:52.101965 27992 net.cpp:156] Memory required for data: 546542080
I0924 00:50:52.101971 27992 layer_factory.hpp:77] Creating layer inception_5b/5x5_reduce
I0924 00:50:52.101990 27992 net.cpp:91] Creating Layer inception_5b/5x5_reduce
I0924 00:50:52.101997 27992 net.cpp:425] inception_5b/5x5_reduce <- inception_5a/output_inception_5a/output_0_split_2
I0924 00:50:52.102010 27992 net.cpp:399] inception_5b/5x5_reduce -> inception_5b/5x5_reduce
I0924 00:50:52.103982 27992 net.cpp:141] Setting up inception_5b/5x5_reduce
I0924 00:50:52.104002 27992 net.cpp:148] Top shape: 10 48 7 7 (23520)
I0924 00:50:52.104008 27992 net.cpp:156] Memory required for data: 546636160
I0924 00:50:52.104018 27992 layer_factory.hpp:77] Creating layer inception_5b/relu_5x5_reduce
I0924 00:50:52.104030 27992 net.cpp:91] Creating Layer inception_5b/relu_5x5_reduce
I0924 00:50:52.104038 27992 net.cpp:425] inception_5b/relu_5x5_reduce <- inception_5b/5x5_reduce
I0924 00:50:52.104045 27992 net.cpp:386] inception_5b/relu_5x5_reduce -> inception_5b/5x5_reduce (in-place)
I0924 00:50:52.104516 27992 net.cpp:141] Setting up inception_5b/relu_5x5_reduce
I0924 00:50:52.104529 27992 net.cpp:148] Top shape: 10 48 7 7 (23520)
I0924 00:50:52.104534 27992 net.cpp:156] Memory required for data: 546730240
I0924 00:50:52.104540 27992 layer_factory.hpp:77] Creating layer inception_5b/5x5
I0924 00:50:52.104557 27992 net.cpp:91] Creating Layer inception_5b/5x5
I0924 00:50:52.104563 27992 net.cpp:425] inception_5b/5x5 <- inception_5b/5x5_reduce
I0924 00:50:52.104578 27992 net.cpp:399] inception_5b/5x5 -> inception_5b/5x5
I0924 00:50:52.107885 27992 net.cpp:141] Setting up inception_5b/5x5
I0924 00:50:52.107908 27992 net.cpp:148] Top shape: 10 128 7 7 (62720)
I0924 00:50:52.107913 27992 net.cpp:156] Memory required for data: 546981120
I0924 00:50:52.107923 27992 layer_factory.hpp:77] Creating layer inception_5b/relu_5x5
I0924 00:50:52.107936 27992 net.cpp:91] Creating Layer inception_5b/relu_5x5
I0924 00:50:52.107944 27992 net.cpp:425] inception_5b/relu_5x5 <- inception_5b/5x5
I0924 00:50:52.107951 27992 net.cpp:386] inception_5b/relu_5x5 -> inception_5b/5x5 (in-place)
I0924 00:50:52.108239 27992 net.cpp:141] Setting up inception_5b/relu_5x5
I0924 00:50:52.108253 27992 net.cpp:148] Top shape: 10 128 7 7 (62720)
I0924 00:50:52.108258 27992 net.cpp:156] Memory required for data: 547232000
I0924 00:50:52.108263 27992 layer_factory.hpp:77] Creating layer inception_5b/pool
I0924 00:50:52.108278 27992 net.cpp:91] Creating Layer inception_5b/pool
I0924 00:50:52.108284 27992 net.cpp:425] inception_5b/pool <- inception_5a/output_inception_5a/output_0_split_3
I0924 00:50:52.108295 27992 net.cpp:399] inception_5b/pool -> inception_5b/pool
I0924 00:50:52.108382 27992 net.cpp:141] Setting up inception_5b/pool
I0924 00:50:52.108393 27992 net.cpp:148] Top shape: 10 832 7 7 (407680)
I0924 00:50:52.108398 27992 net.cpp:156] Memory required for data: 548862720
I0924 00:50:52.108403 27992 layer_factory.hpp:77] Creating layer inception_5b/pool_proj
I0924 00:50:52.108419 27992 net.cpp:91] Creating Layer inception_5b/pool_proj
I0924 00:50:52.108427 27992 net.cpp:425] inception_5b/pool_proj <- inception_5b/pool
I0924 00:50:52.108439 27992 net.cpp:399] inception_5b/pool_proj -> inception_5b/pool_proj
I0924 00:50:52.111836 27992 net.cpp:141] Setting up inception_5b/pool_proj
I0924 00:50:52.111858 27992 net.cpp:148] Top shape: 10 128 7 7 (62720)
I0924 00:50:52.111865 27992 net.cpp:156] Memory required for data: 549113600
I0924 00:50:52.111873 27992 layer_factory.hpp:77] Creating layer inception_5b/relu_pool_proj
I0924 00:50:52.111883 27992 net.cpp:91] Creating Layer inception_5b/relu_pool_proj
I0924 00:50:52.111889 27992 net.cpp:425] inception_5b/relu_pool_proj <- inception_5b/pool_proj
I0924 00:50:52.111897 27992 net.cpp:386] inception_5b/relu_pool_proj -> inception_5b/pool_proj (in-place)
I0924 00:50:52.112385 27992 net.cpp:141] Setting up inception_5b/relu_pool_proj
I0924 00:50:52.112399 27992 net.cpp:148] Top shape: 10 128 7 7 (62720)
I0924 00:50:52.112404 27992 net.cpp:156] Memory required for data: 549364480
I0924 00:50:52.112411 27992 layer_factory.hpp:77] Creating layer inception_5b/output
I0924 00:50:52.112419 27992 net.cpp:91] Creating Layer inception_5b/output
I0924 00:50:52.112426 27992 net.cpp:425] inception_5b/output <- inception_5b/1x1
I0924 00:50:52.112432 27992 net.cpp:425] inception_5b/output <- inception_5b/3x3
I0924 00:50:52.112438 27992 net.cpp:425] inception_5b/output <- inception_5b/5x5
I0924 00:50:52.112444 27992 net.cpp:425] inception_5b/output <- inception_5b/pool_proj
I0924 00:50:52.112452 27992 net.cpp:399] inception_5b/output -> inception_5b/output
I0924 00:50:52.112512 27992 net.cpp:141] Setting up inception_5b/output
I0924 00:50:52.112524 27992 net.cpp:148] Top shape: 10 1024 7 7 (501760)
I0924 00:50:52.112529 27992 net.cpp:156] Memory required for data: 551371520
I0924 00:50:52.112537 27992 layer_factory.hpp:77] Creating layer pool5/7x7_s1
I0924 00:50:52.112548 27992 net.cpp:91] Creating Layer pool5/7x7_s1
I0924 00:50:52.112555 27992 net.cpp:425] pool5/7x7_s1 <- inception_5b/output
I0924 00:50:52.112563 27992 net.cpp:399] pool5/7x7_s1 -> pool5/7x7_s1
I0924 00:50:52.112915 27992 net.cpp:141] Setting up pool5/7x7_s1
I0924 00:50:52.112927 27992 net.cpp:148] Top shape: 10 1024 1 1 (10240)
I0924 00:50:52.112932 27992 net.cpp:156] Memory required for data: 551412480
I0924 00:50:52.112938 27992 layer_factory.hpp:77] Creating layer pool5/drop_7x7_s1
I0924 00:50:52.112948 27992 net.cpp:91] Creating Layer pool5/drop_7x7_s1
I0924 00:50:52.112954 27992 net.cpp:425] pool5/drop_7x7_s1 <- pool5/7x7_s1
I0924 00:50:52.112965 27992 net.cpp:386] pool5/drop_7x7_s1 -> pool5/7x7_s1 (in-place)
I0924 00:50:52.113021 27992 net.cpp:141] Setting up pool5/drop_7x7_s1
I0924 00:50:52.113031 27992 net.cpp:148] Top shape: 10 1024 1 1 (10240)
I0924 00:50:52.113036 27992 net.cpp:156] Memory required for data: 551453440
I0924 00:50:52.113041 27992 layer_factory.hpp:77] Creating layer loss3/classifier
I0924 00:50:52.113061 27992 net.cpp:91] Creating Layer loss3/classifier
I0924 00:50:52.113067 27992 net.cpp:425] loss3/classifier <- pool5/7x7_s1
I0924 00:50:52.113075 27992 net.cpp:399] loss3/classifier -> loss3/classifier
I0924 00:50:52.123985 27992 net.cpp:141] Setting up loss3/classifier
I0924 00:50:52.124012 27992 net.cpp:148] Top shape: 10 1000 (10000)
I0924 00:50:52.124017 27992 net.cpp:156] Memory required for data: 551493440
I0924 00:50:52.124027 27992 layer_factory.hpp:77] Creating layer prob
I0924 00:50:52.124038 27992 net.cpp:91] Creating Layer prob
I0924 00:50:52.124045 27992 net.cpp:425] prob <- loss3/classifier
I0924 00:50:52.124056 27992 net.cpp:399] prob -> prob
I0924 00:50:52.124703 27992 net.cpp:141] Setting up prob
I0924 00:50:52.124722 27992 net.cpp:148] Top shape: 10 1000 (10000)
I0924 00:50:52.124728 27992 net.cpp:156] Memory required for data: 551533440
I0924 00:50:52.124734 27992 net.cpp:219] prob does not need backward computation.
I0924 00:50:52.124740 27992 net.cpp:219] loss3/classifier does not need backward computation.
I0924 00:50:52.124744 27992 net.cpp:219] pool5/drop_7x7_s1 does not need backward computation.
I0924 00:50:52.124749 27992 net.cpp:219] pool5/7x7_s1 does not need backward computation.
…
