…
Java HotSpot(TM) 64-Bit Server VM warning: You have loaded library /tmp/cvld6012368067608724169/libopencv_java310.xine1.so which might have disabled stack guard. The VM will try to fix the stack guard now.
It's highly recommended that you fix the library with 'execstack -c <libfile>', or link it with '-z noexecstack'.
WARNING: Logging before InitGoogleLogging() is written to STDERR
I0803 22:36:45.849974  1405 net.cpp:49] Initializing net from parameters: 
name: "CaffeNet"
state {
  phase: TEST
}
layer {
  name: "data"
  type: "Input"
  top: "data"
  input_param {
    shape {
      dim: 10
      dim: 3
      dim: 227
      dim: 227
    }
  }
}
layer {
  name: "conv1"
  type: "Convolution"
  bottom: "data"
  top: "conv1"
  convolution_param {
    num_output: 96
    kernel_size: 11
    stride: 4
  }
}
layer {
  name: "relu1"
  type: "ReLU"
  bottom: "conv1"
  top: "conv1"
}
layer {
  name: "pool1"
  type: "Pooling"
  bottom: "conv1"
  top: "pool1"
  pooling_param {
    pool: MAX
    kernel_size: 3
    stride: 2
  }
}
layer {
  name: "norm1"
  type: "LRN"
  bottom: "pool1"
  top: "norm1"
  lrn_param {
    local_size: 5
    alpha: 0.0001
    beta: 0.75
  }
}
layer {
  name: "conv2"
  type: "Convolution"
  bottom: "norm1"
  top: "conv2"
  convolution_param {
    num_output: 256
    pad: 2
    kernel_size: 5
    group: 2
  }
}
layer {
  name: "relu2"
  type: "ReLU"
  bottom: "conv2"
  top: "conv2"
}
layer {
  name: "pool2"
  type: "Pooling"
  bottom: "conv2"
  top: "pool2"
  pooling_param {
    pool: MAX
    kernel_size: 3
    stride: 2
  }
}
layer {
  name: "norm2"
  type: "LRN"
  bottom: "pool2"
  top: "norm2"
  lrn_param {
    local_size: 5
    alpha: 0.0001
    beta: 0.75
  }
}
layer {
  name: "conv3"
  type: "Convolution"
  bottom: "norm2"
  top: "conv3"
  convolution_param {
    num_output: 384
    pad: 1
    kernel_size: 3
  }
}
layer {
  name: "relu3"
  type: "ReLU"
  bottom: "conv3"
  top: "conv3"
}
layer {
  name: "conv4"
  type: "Convolution"
  bottom: "conv3"
  top: "conv4"
  convolution_param {
    num_output: 384
    pad: 1
    kernel_size: 3
    group: 2
  }
}
layer {
  name: "relu4"
  type: "ReLU"
  bottom: "conv4"
  top: "conv4"
}
layer {
  name: "conv5"
  type: "Convolution"
  bottom: "conv4"
  top: "conv5"
  convolution_param {
    num_output: 256
    pad: 1
    kernel_size: 3
    group: 2
  }
}
layer {
  name: "relu5"
  type: "ReLU"
  bottom: "conv5"
  top: "conv5"
}
layer {
  name: "pool5"
  type: "Pooling"
  bottom: "conv5"
  top: "pool5"
  pooling_param {
    pool: MAX
    kernel_size: 3
    stride: 2
  }
}
layer {
  name: "fc6"
  type: "InnerProduct"
  bottom: "pool5"
  top: "fc6"
  inner_product_param {
    num_output: 4096
  }
}
layer {
  name: "relu6"
  type: "ReLU"
  bottom: "fc6"
  top: "fc6"
}
layer {
  name: "drop6"
  type: "Dropout"
  bottom: "fc6"
  top: "fc6"
  dropout_param {
    dropout_ratio: 0.5
  }
}
layer {
  name: "fc7"
  type: "InnerProduct"
  bottom: "fc6"
  top: "fc7"
  inner_product_param {
    num_output: 4096
  }
}
layer {
  name: "relu7"
  type: "ReLU"
  bottom: "fc7"
  top: "fc7"
}
layer {
  name: "drop7"
  type: "Dropout"
  bottom: "fc7"
  top: "fc7"
  dropout_param {
    dropout_ratio: 0.5
  }
}
layer {
  name: "fc8"
  type: "InnerProduct"
  bottom: "fc7"
  top: "fc8"
  inner_product_param {
    num_output: 1000
  }
}
layer {
  name: "prob"
  type: "Softmax"
  bottom: "fc8"
  top: "prob"
}
I0803 22:36:45.850175  1405 layer_factory.hpp:77] Creating layer data
I0803 22:36:45.850201  1405 net.cpp:91] Creating Layer data
I0803 22:36:45.850211  1405 net.cpp:399] data -> data
I0803 22:36:46.337667  1405 net.cpp:141] Setting up data
I0803 22:36:46.337781  1405 net.cpp:148] Top shape: 10 3 227 227 (1545870)
I0803 22:36:46.337788  1405 net.cpp:156] Memory required for data: 6183480
I0803 22:36:46.337810  1405 layer_factory.hpp:77] Creating layer conv1
I0803 22:36:46.337846  1405 net.cpp:91] Creating Layer conv1
I0803 22:36:46.337857  1405 net.cpp:425] conv1 <- data
I0803 22:36:46.337872  1405 net.cpp:399] conv1 -> conv1
I0803 22:36:46.534457  1395 upgrade_proto.cpp:66] Attempting to upgrade input file specified using deprecated input fields: /tmp/cvld6012368067608724169/s2vt.words_to_preds.prototxt
I0803 22:36:46.534521  1395 upgrade_proto.cpp:69] Successfully upgraded file specified using deprecated input fields.
W0803 22:36:46.534530  1395 upgrade_proto.cpp:71] Note that future Caffe releases will only support input layers and not input fields.
I0803 22:36:46.534795  1395 net.cpp:49] Initializing net from parameters: 
name: "s2vt:features_to_lstm"
state {
  phase: TEST
}
layer {
  name: "input"
  type: "Input"
  top: "frames_fc7"
  top: "cont_sentence"
  top: "input_sentence"
  top: "stage_indicator"
  input_param {
    shape {
      dim: 1
      dim: 4096
    }
    shape {
      dim: 1
      dim: 1
    }
    shape {
      dim: 1
      dim: 1
    }
    shape {
      dim: 1
      dim: 1
    }
  }
}
layer {
  name: "embed_encoder"
  type: "InnerProduct"
  bottom: "frames_fc7"
  top: "embedded_in_frames"
  param {
    lr_mult: 1
    decay_mult: 1
  }
  param {
    lr_mult: 2
    decay_mult: 0
  }
  inner_product_param {
    num_output: 500
    weight_filler {
      type: "xavier"
    }
    bias_filler {
      type: "constant"
      value: 0.2
    }
  }
}
layer {
  name: "reshape_frames"
  type: "Reshape"
  bottom: "embedded_in_frames"
  top: "embedded_input_frames"
  reshape_param {
    shape {
      dim: 1
      dim: 1
      dim: 500
    }
  }
}
layer {
  name: "reshape_stage_indicator"
  type: "Reshape"
  bottom: "stage_indicator"
  top: "reshaped_stage_indicator"
  reshape_param {
    shape {
      dim: 1
      dim: 1
      dim: 1
    }
  }
}
layer {
  name: "embedding"
  type: "Embed"
  bottom: "input_sentence"
  top: "embedded_input_sentence"
  param {
    lr_mult: 1
  }
  embed_param {
    num_output: 500
    input_dim: 46168
    bias_term: false
    weight_filler {
      type: "uniform"
      min: -0.08
      max: 0.08
    }
  }
}
layer {
  name: "lstm1"
  type: "LSTM"
  bottom: "embedded_input_frames"
  bottom: "cont_sentence"
  top: "lstm1"
  recurrent_param {
    num_output: 1000
    weight_filler {
      type: "uniform"
      min: -0.08
      max: 0.08
    }
    bias_filler {
      type: "constant"
      value: 0
    }
  }
}
layer {
  name: "concat"
  type: "Concat"
  bottom: "lstm1"
  bottom: "embedded_input_sentence"
  bottom: "reshaped_stage_indicator"
  top: "lstm1_video_sequence"
  concat_param {
    concat_dim: 2
  }
}
layer {
  name: "lstm2"
  type: "LSTM"
  bottom: "lstm1_video_sequence"
  bottom: "cont_sentence"
  top: "lstm2"
  recurrent_param {
    num_output: 1000
    weight_filler {
      type: "uniform"
      min: -0.08
      max: 0.08
    }
    bias_filler {
      type: "constant"
      value: 0
    }
  }
}
layer {
  name: "predict"
  type: "InnerProduct"
  bottom: "lstm2"
  top: "predict"
  param {
    lr_mult: 1
    decay_mult: 1
  }
  param {
    lr_mult: 2
    decay_mult: 0
  }
  inner_product_param {
    num_output: 46168
    weight_filler {
      type: "uniform"
      min: -0.08
      max: 0.08
    }
    bias_filler {
      type: "constant"
      value: 0
    }
    axis: 2
  }
}
layer {
  name: "probs"
  type: "Softmax"
  bottom: "predict"
  top: "probs"
  softmax_param {
    axis: 2
  }
}
I0803 22:36:46.534894  1395 layer_factory.hpp:77] Creating layer input
I0803 22:36:46.534909  1395 net.cpp:91] Creating Layer input
I0803 22:36:46.534917  1395 net.cpp:399] input -> frames_fc7
I0803 22:36:46.534937  1395 net.cpp:399] input -> cont_sentence
I0803 22:36:46.534947  1395 net.cpp:399] input -> input_sentence
I0803 22:36:46.534957  1395 net.cpp:399] input -> stage_indicator
I0803 22:36:46.536453  1395 net.cpp:141] Setting up input
I0803 22:36:46.536473  1395 net.cpp:148] Top shape: 1 4096 (4096)
I0803 22:36:46.536480  1395 net.cpp:148] Top shape: 1 1 (1)
I0803 22:36:46.536485  1395 net.cpp:148] Top shape: 1 1 (1)
I0803 22:36:46.536491  1395 net.cpp:148] Top shape: 1 1 (1)
I0803 22:36:46.536495  1395 net.cpp:156] Memory required for data: 16396
I0803 22:36:46.536500  1395 layer_factory.hpp:77] Creating layer cont_sentence_input_1_split
I0803 22:36:46.536522  1395 net.cpp:91] Creating Layer cont_sentence_input_1_split
I0803 22:36:46.536532  1395 net.cpp:425] cont_sentence_input_1_split <- cont_sentence
I0803 22:36:46.536563  1395 net.cpp:399] cont_sentence_input_1_split -> cont_sentence_input_1_split_0
I0803 22:36:46.536582  1395 net.cpp:399] cont_sentence_input_1_split -> cont_sentence_input_1_split_1
I0803 22:36:46.536662  1395 net.cpp:141] Setting up cont_sentence_input_1_split
I0803 22:36:46.536680  1395 net.cpp:148] Top shape: 1 1 (1)
I0803 22:36:46.536691  1395 net.cpp:148] Top shape: 1 1 (1)
I0803 22:36:46.536698  1395 net.cpp:156] Memory required for data: 16404
I0803 22:36:46.536707  1395 layer_factory.hpp:77] Creating layer embed_encoder
I0803 22:36:46.536734  1395 net.cpp:91] Creating Layer embed_encoder
I0803 22:36:46.536746  1395 net.cpp:425] embed_encoder <- frames_fc7
I0803 22:36:46.536761  1395 net.cpp:399] embed_encoder -> embedded_in_frames
I0803 22:36:46.562399  1395 net.cpp:141] Setting up embed_encoder
I0803 22:36:46.562449  1395 net.cpp:148] Top shape: 1 500 (500)
I0803 22:36:46.562456  1395 net.cpp:156] Memory required for data: 18404
I0803 22:36:46.562486  1395 layer_factory.hpp:77] Creating layer reshape_frames
I0803 22:36:46.562515  1395 net.cpp:91] Creating Layer reshape_frames
I0803 22:36:46.562525  1395 net.cpp:425] reshape_frames <- embedded_in_frames
I0803 22:36:46.562537  1395 net.cpp:399] reshape_frames -> embedded_input_frames
I0803 22:36:46.562680  1405 net.cpp:141] Setting up conv1
I0803 22:36:46.562700  1405 net.cpp:148] Top shape: 10 96 55 55 (2904000)
I0803 22:36:46.562705  1405 net.cpp:156] Memory required for data: 17799480
I0803 22:36:46.562710  1395 net.cpp:141] Setting up reshape_frames
I0803 22:36:46.562719  1405 layer_factory.hpp:77] Creating layer relu1
I0803 22:36:46.562721  1395 net.cpp:148] Top shape: 1 1 500 (500)
I0803 22:36:46.562726  1395 net.cpp:156] Memory required for data: 20404
I0803 22:36:46.562731  1395 layer_factory.hpp:77] Creating layer reshape_stage_indicator
I0803 22:36:46.562731  1405 net.cpp:91] Creating Layer relu1
I0803 22:36:46.562737  1405 net.cpp:425] relu1 <- conv1
I0803 22:36:46.562742  1395 net.cpp:91] Creating Layer reshape_stage_indicator
I0803 22:36:46.562744  1405 net.cpp:386] relu1 -> conv1 (in-place)
I0803 22:36:46.562749  1395 net.cpp:425] reshape_stage_indicator <- stage_indicator
I0803 22:36:46.562757  1395 net.cpp:399] reshape_stage_indicator -> reshaped_stage_indicator
I0803 22:36:46.563103  1395 net.cpp:141] Setting up reshape_stage_indicator
I0803 22:36:46.563114  1395 net.cpp:148] Top shape: 1 1 1 (1)
I0803 22:36:46.563118  1395 net.cpp:156] Memory required for data: 20408
I0803 22:36:46.563123  1395 layer_factory.hpp:77] Creating layer embedding
I0803 22:36:46.563136  1395 net.cpp:91] Creating Layer embedding
I0803 22:36:46.563141  1395 net.cpp:425] embedding <- input_sentence
I0803 22:36:46.563150  1395 net.cpp:399] embedding -> embedded_input_sentence
I0803 22:36:46.605325  1405 net.cpp:141] Setting up relu1
I0803 22:36:46.605396  1405 net.cpp:148] Top shape: 10 96 55 55 (2904000)
I0803 22:36:46.605406  1405 net.cpp:156] Memory required for data: 29415480
I0803 22:36:46.605419  1405 layer_factory.hpp:77] Creating layer pool1
I0803 22:36:46.605458  1405 net.cpp:91] Creating Layer pool1
I0803 22:36:46.605470  1405 net.cpp:425] pool1 <- conv1
I0803 22:36:46.605490  1405 net.cpp:399] pool1 -> pool1
I0803 22:36:46.605649  1405 net.cpp:141] Setting up pool1
I0803 22:36:46.605669  1405 net.cpp:148] Top shape: 10 96 27 27 (699840)
I0803 22:36:46.605679  1405 net.cpp:156] Memory required for data: 32214840
I0803 22:36:46.605686  1405 layer_factory.hpp:77] Creating layer norm1
I0803 22:36:46.605716  1405 net.cpp:91] Creating Layer norm1
I0803 22:36:46.605726  1405 net.cpp:425] norm1 <- pool1
I0803 22:36:46.605739  1405 net.cpp:399] norm1 -> norm1
I0803 22:36:46.606649  1405 net.cpp:141] Setting up norm1
I0803 22:36:46.606683  1405 net.cpp:148] Top shape: 10 96 27 27 (699840)
I0803 22:36:46.606694  1405 net.cpp:156] Memory required for data: 35014200
I0803 22:36:46.606705  1405 layer_factory.hpp:77] Creating layer conv2
I0803 22:36:46.606735  1405 net.cpp:91] Creating Layer conv2
I0803 22:36:46.606748  1405 net.cpp:425] conv2 <- norm1
I0803 22:36:46.606765  1405 net.cpp:399] conv2 -> conv2
I0803 22:36:46.613139  1405 net.cpp:141] Setting up conv2
I0803 22:36:46.613204  1405 net.cpp:148] Top shape: 10 256 27 27 (1866240)
I0803 22:36:46.613214  1405 net.cpp:156] Memory required for data: 42479160
I0803 22:36:46.613260  1405 layer_factory.hpp:77] Creating layer relu2
I0803 22:36:46.613287  1405 net.cpp:91] Creating Layer relu2
I0803 22:36:46.613297  1405 net.cpp:425] relu2 <- conv2
I0803 22:36:46.613312  1405 net.cpp:386] relu2 -> conv2 (in-place)
I0803 22:36:46.613905  1405 net.cpp:141] Setting up relu2
I0803 22:36:46.613924  1405 net.cpp:148] Top shape: 10 256 27 27 (1866240)
I0803 22:36:46.613930  1405 net.cpp:156] Memory required for data: 49944120
I0803 22:36:46.613940  1405 layer_factory.hpp:77] Creating layer pool2
I0803 22:36:46.613955  1405 net.cpp:91] Creating Layer pool2
I0803 22:36:46.613963  1405 net.cpp:425] pool2 <- conv2
I0803 22:36:46.613976  1405 net.cpp:399] pool2 -> pool2
I0803 22:36:46.614061  1405 net.cpp:141] Setting up pool2
I0803 22:36:46.614075  1405 net.cpp:148] Top shape: 10 256 13 13 (432640)
I0803 22:36:46.614084  1405 net.cpp:156] Memory required for data: 51674680
I0803 22:36:46.614091  1405 layer_factory.hpp:77] Creating layer norm2
I0803 22:36:46.614111  1405 net.cpp:91] Creating Layer norm2
I0803 22:36:46.614120  1405 net.cpp:425] norm2 <- pool2
I0803 22:36:46.614131  1405 net.cpp:399] norm2 -> norm2
I0803 22:36:46.614493  1405 net.cpp:141] Setting up norm2
I0803 22:36:46.614509  1405 net.cpp:148] Top shape: 10 256 13 13 (432640)
I0803 22:36:46.614517  1405 net.cpp:156] Memory required for data: 53405240
I0803 22:36:46.614526  1405 layer_factory.hpp:77] Creating layer conv3
I0803 22:36:46.614548  1405 net.cpp:91] Creating Layer conv3
I0803 22:36:46.614557  1405 net.cpp:425] conv3 <- norm2
I0803 22:36:46.614568  1405 net.cpp:399] conv3 -> conv3
I0803 22:36:46.619554  1405 net.cpp:141] Setting up conv3
I0803 22:36:46.619601  1405 net.cpp:148] Top shape: 10 384 13 13 (648960)
I0803 22:36:46.619607  1405 net.cpp:156] Memory required for data: 56001080
I0803 22:36:46.619629  1405 layer_factory.hpp:77] Creating layer relu3
I0803 22:36:46.619648  1405 net.cpp:91] Creating Layer relu3
I0803 22:36:46.619655  1405 net.cpp:425] relu3 <- conv3
I0803 22:36:46.619664  1405 net.cpp:386] relu3 -> conv3 (in-place)
I0803 22:36:46.620056  1405 net.cpp:141] Setting up relu3
I0803 22:36:46.620069  1405 net.cpp:148] Top shape: 10 384 13 13 (648960)
I0803 22:36:46.620074  1405 net.cpp:156] Memory required for data: 58596920
I0803 22:36:46.620079  1405 layer_factory.hpp:77] Creating layer conv4
I0803 22:36:46.620096  1405 net.cpp:91] Creating Layer conv4
I0803 22:36:46.620103  1405 net.cpp:425] conv4 <- conv3
I0803 22:36:46.620110  1405 net.cpp:399] conv4 -> conv4
I0803 22:36:46.624284  1405 net.cpp:141] Setting up conv4
I0803 22:36:46.624318  1405 net.cpp:148] Top shape: 10 384 13 13 (648960)
I0803 22:36:46.624325  1405 net.cpp:156] Memory required for data: 61192760
I0803 22:36:46.624336  1405 layer_factory.hpp:77] Creating layer relu4
I0803 22:36:46.624351  1405 net.cpp:91] Creating Layer relu4
I0803 22:36:46.624357  1405 net.cpp:425] relu4 <- conv4
I0803 22:36:46.624364  1405 net.cpp:386] relu4 -> conv4 (in-place)
I0803 22:36:46.624769  1405 net.cpp:141] Setting up relu4
I0803 22:36:46.624783  1405 net.cpp:148] Top shape: 10 384 13 13 (648960)
I0803 22:36:46.624786  1405 net.cpp:156] Memory required for data: 63788600
I0803 22:36:46.624791  1405 layer_factory.hpp:77] Creating layer conv5
I0803 22:36:46.624809  1405 net.cpp:91] Creating Layer conv5
I0803 22:36:46.624814  1405 net.cpp:425] conv5 <- conv4
I0803 22:36:46.624825  1405 net.cpp:399] conv5 -> conv5
I0803 22:36:46.628602  1405 net.cpp:141] Setting up conv5
I0803 22:36:46.628621  1405 net.cpp:148] Top shape: 10 256 13 13 (432640)
I0803 22:36:46.628626  1405 net.cpp:156] Memory required for data: 65519160
I0803 22:36:46.628643  1405 layer_factory.hpp:77] Creating layer relu5
I0803 22:36:46.628653  1405 net.cpp:91] Creating Layer relu5
I0803 22:36:46.628659  1405 net.cpp:425] relu5 <- conv5
I0803 22:36:46.628664  1405 net.cpp:386] relu5 -> conv5 (in-place)
I0803 22:36:46.629078  1405 net.cpp:141] Setting up relu5
I0803 22:36:46.629091  1405 net.cpp:148] Top shape: 10 256 13 13 (432640)
I0803 22:36:46.629096  1405 net.cpp:156] Memory required for data: 67249720
I0803 22:36:46.629101  1405 layer_factory.hpp:77] Creating layer pool5
I0803 22:36:46.629113  1405 net.cpp:91] Creating Layer pool5
I0803 22:36:46.629118  1405 net.cpp:425] pool5 <- conv5
I0803 22:36:46.629125  1405 net.cpp:399] pool5 -> pool5
I0803 22:36:46.629186  1405 net.cpp:141] Setting up pool5
I0803 22:36:46.629195  1405 net.cpp:148] Top shape: 10 256 6 6 (92160)
I0803 22:36:46.629199  1405 net.cpp:156] Memory required for data: 67618360
I0803 22:36:46.629204  1405 layer_factory.hpp:77] Creating layer fc6
I0803 22:36:46.629215  1405 net.cpp:91] Creating Layer fc6
I0803 22:36:46.629220  1405 net.cpp:425] fc6 <- pool5
I0803 22:36:46.629230  1405 net.cpp:399] fc6 -> fc6
I0803 22:36:46.731587  1405 net.cpp:141] Setting up fc6
I0803 22:36:46.731640  1405 net.cpp:148] Top shape: 10 4096 (40960)
I0803 22:36:46.731647  1405 net.cpp:156] Memory required for data: 67782200
I0803 22:36:46.731663  1405 layer_factory.hpp:77] Creating layer relu6
I0803 22:36:46.731679  1405 net.cpp:91] Creating Layer relu6
I0803 22:36:46.731685  1405 net.cpp:425] relu6 <- fc6
I0803 22:36:46.731695  1405 net.cpp:386] relu6 -> fc6 (in-place)
I0803 22:36:46.732043  1405 net.cpp:141] Setting up relu6
I0803 22:36:46.732055  1405 net.cpp:148] Top shape: 10 4096 (40960)
I0803 22:36:46.732059  1405 net.cpp:156] Memory required for data: 67946040
I0803 22:36:46.732064  1405 layer_factory.hpp:77] Creating layer drop6
I0803 22:36:46.732085  1405 net.cpp:91] Creating Layer drop6
I0803 22:36:46.732090  1405 net.cpp:425] drop6 <- fc6
I0803 22:36:46.732098  1405 net.cpp:386] drop6 -> fc6 (in-place)
I0803 22:36:46.732147  1405 net.cpp:141] Setting up drop6
I0803 22:36:46.732156  1405 net.cpp:148] Top shape: 10 4096 (40960)
I0803 22:36:46.732159  1405 net.cpp:156] Memory required for data: 68109880
I0803 22:36:46.732164  1405 layer_factory.hpp:77] Creating layer fc7
I0803 22:36:46.732177  1405 net.cpp:91] Creating Layer fc7
I0803 22:36:46.732182  1405 net.cpp:425] fc7 <- fc6
I0803 22:36:46.732188  1405 net.cpp:399] fc7 -> fc7
I0803 22:36:46.779641  1405 net.cpp:141] Setting up fc7
I0803 22:36:46.779702  1405 net.cpp:148] Top shape: 10 4096 (40960)
I0803 22:36:46.779708  1405 net.cpp:156] Memory required for data: 68273720
I0803 22:36:46.779724  1405 layer_factory.hpp:77] Creating layer relu7
I0803 22:36:46.779742  1405 net.cpp:91] Creating Layer relu7
I0803 22:36:46.779747  1405 net.cpp:425] relu7 <- fc7
I0803 22:36:46.779757  1405 net.cpp:386] relu7 -> fc7 (in-place)
I0803 22:36:46.780388  1405 net.cpp:141] Setting up relu7
I0803 22:36:46.780408  1405 net.cpp:148] Top shape: 10 4096 (40960)
I0803 22:36:46.780414  1405 net.cpp:156] Memory required for data: 68437560
I0803 22:36:46.780419  1405 layer_factory.hpp:77] Creating layer drop7
I0803 22:36:46.780431  1405 net.cpp:91] Creating Layer drop7
I0803 22:36:46.780434  1405 net.cpp:425] drop7 <- fc7
I0803 22:36:46.780441  1405 net.cpp:386] drop7 -> fc7 (in-place)
I0803 22:36:46.780485  1405 net.cpp:141] Setting up drop7
I0803 22:36:46.780493  1405 net.cpp:148] Top shape: 10 4096 (40960)
I0803 22:36:46.780498  1405 net.cpp:156] Memory required for data: 68601400
I0803 22:36:46.780501  1405 layer_factory.hpp:77] Creating layer fc8
I0803 22:36:46.780514  1405 net.cpp:91] Creating Layer fc8
I0803 22:36:46.780517  1405 net.cpp:425] fc8 <- fc7
I0803 22:36:46.780530  1405 net.cpp:399] fc8 -> fc8
I0803 22:36:46.788312  1395 net.cpp:141] Setting up embedding
I0803 22:36:46.788359  1395 net.cpp:148] Top shape: 1 1 500 (500)
I0803 22:36:46.788365  1395 net.cpp:156] Memory required for data: 22408
I0803 22:36:46.788385  1395 layer_factory.hpp:77] Creating layer lstm1
I0803 22:36:46.788419  1395 net.cpp:91] Creating Layer lstm1
I0803 22:36:46.788429  1395 net.cpp:425] lstm1 <- embedded_input_frames
I0803 22:36:46.788437  1395 net.cpp:425] lstm1 <- cont_sentence_input_1_split_0
I0803 22:36:46.788447  1395 net.cpp:399] lstm1 -> lstm1
I0803 22:36:46.788481  1395 recurrent_layer.cpp:20] Initializing recurrent layer: assuming input batch contains 1 timesteps of 1 independent streams.
I0803 22:36:46.788868  1395 net.cpp:49] Initializing net from parameters: 
layer {
  name: "lstm1_"
  type: "Input"
  top: "x"
  top: "cont"
  input_param {
    shape {
      dim: 1
      dim: 1
      dim: 500
    }
    shape {
      dim: 1
      dim: 1
    }
  }
}
layer {
  name: "lstm1_"
  type: "Input"
  top: "c_0"
  top: "h_0"
  input_param {
    shape {
      dim: 1
      dim: 1
      dim: 1000
    }
    shape {
      dim: 1
      dim: 1
      dim: 1000
    }
  }
}
layer {
  name: "lstm1_cont_slice"
  type: "Slice"
  bottom: "cont"
  top: "cont_1"
  slice_param {
    axis: 0
  }
}
layer {
  name: "lstm1_x_transform"
  type: "InnerProduct"
  bottom: "x"
  top: "W_xc_x"
  param {
    name: "W_xc"
  }
  param {
    name: "b_c"
  }
  propagate_down: true
  inner_product_param {
    num_output: 4000
    bias_term: true
    weight_filler {
      type: "uniform"
      min: -0.08
      max: 0.08
    }
    bias_filler {
      type: "constant"
      value: 0
    }
    axis: 2
  }
}
layer {
  name: "lstm1_W_xc_x_slice"
  type: "Slice"
  bottom: "W_xc_x"
  top: "W_xc_x_1"
  slice_param {
    axis: 0
  }
}
layer {
  name: "lstm1_h_conted_0"
  type: "Scale"
  bottom: "h_0"
  bottom: "cont_1"
  top: "h_conted_0"
  scale_param {
    axis: 0
  }
}
layer {
  name: "lstm1_transform_1"
  type: "InnerProduct"
  bottom: "h_conted_0"
  top: "W_hc_h_0"
  param {
    name: "W_hc"
  }
  inner_product_param {
    num_output: 4000
    bias_term: false
    weight_filler {
      type: "uniform"
      min: -0.08
      max: 0.08
    }
    axis: 2
  }
}
layer {
  name: "lstm1_gate_input_1"
  type: "Eltwise"
  bottom: "W_hc_h_0"
  bottom: "W_xc_x_1"
  top: "gate_input_1"
  eltwise_param {
    operation: SUM
  }
}
layer {
  name: "lstm1_unit_1"
  type: "LSTMUnit"
  bottom: "c_0"
  bottom: "gate_input_1"
  bottom: "cont_1"
  top: "c_1"
  top: "h_1"
}
layer {
  name: "lstm1_"
  type: "Split"
  bottom: "c_1"
  top: "c_T"
}
layer {
  name: "lstm1_h_concat"
  type: "Concat"
  bottom: "h_1"
  top: "h"
  concat_param {
    axis: 0
  }
}
layer {
  name: "h_pseudoloss"
  type: "Reduction"
  bottom: "h"
  top: "h_pseudoloss"
  loss_weight: 1
}
I0803 22:36:46.788962  1395 layer_factory.hpp:77] Creating layer lstm1_
I0803 22:36:46.788975  1395 net.cpp:91] Creating Layer lstm1_
I0803 22:36:46.788980  1395 net.cpp:399] lstm1_ -> x
I0803 22:36:46.788991  1395 net.cpp:399] lstm1_ -> cont
I0803 22:36:46.789060  1395 net.cpp:141] Setting up lstm1_
I0803 22:36:46.789072  1395 net.cpp:148] Top shape: 1 1 500 (500)
I0803 22:36:46.789077  1395 net.cpp:148] Top shape: 1 1 (1)
I0803 22:36:46.789082  1395 net.cpp:156] Memory required for data: 2004
I0803 22:36:46.789085  1395 layer_factory.hpp:77] Creating layer lstm1_
I0803 22:36:46.789093  1395 net.cpp:91] Creating Layer lstm1_
I0803 22:36:46.789101  1395 net.cpp:399] lstm1_ -> c_0
I0803 22:36:46.789110  1395 net.cpp:399] lstm1_ -> h_0
I0803 22:36:46.789160  1395 net.cpp:141] Setting up lstm1_
I0803 22:36:46.789168  1395 net.cpp:148] Top shape: 1 1 1000 (1000)
I0803 22:36:46.789173  1395 net.cpp:148] Top shape: 1 1 1000 (1000)
I0803 22:36:46.789177  1395 net.cpp:156] Memory required for data: 10004
I0803 22:36:46.789181  1395 layer_factory.hpp:77] Creating layer lstm1_cont_slice
I0803 22:36:46.789189  1395 net.cpp:91] Creating Layer lstm1_cont_slice
I0803 22:36:46.789193  1395 net.cpp:425] lstm1_cont_slice <- cont
I0803 22:36:46.789201  1395 net.cpp:399] lstm1_cont_slice -> cont_1
I0803 22:36:46.789248  1395 net.cpp:141] Setting up lstm1_cont_slice
I0803 22:36:46.789258  1395 net.cpp:148] Top shape: 1 1 (1)
I0803 22:36:46.789263  1395 net.cpp:156] Memory required for data: 10008
I0803 22:36:46.789268  1395 layer_factory.hpp:77] Creating layer cont_1_lstm1_cont_slice_0_split
I0803 22:36:46.789276  1395 net.cpp:91] Creating Layer cont_1_lstm1_cont_slice_0_split
I0803 22:36:46.789281  1395 net.cpp:425] cont_1_lstm1_cont_slice_0_split <- cont_1
I0803 22:36:46.789288  1395 net.cpp:399] cont_1_lstm1_cont_slice_0_split -> cont_1_lstm1_cont_slice_0_split_0
I0803 22:36:46.789304  1395 net.cpp:399] cont_1_lstm1_cont_slice_0_split -> cont_1_lstm1_cont_slice_0_split_1
I0803 22:36:46.789352  1395 net.cpp:141] Setting up cont_1_lstm1_cont_slice_0_split
I0803 22:36:46.789361  1395 net.cpp:148] Top shape: 1 1 (1)
I0803 22:36:46.789366  1395 net.cpp:148] Top shape: 1 1 (1)
I0803 22:36:46.789371  1395 net.cpp:156] Memory required for data: 10016
I0803 22:36:46.789374  1395 layer_factory.hpp:77] Creating layer lstm1_x_transform
I0803 22:36:46.789383  1395 net.cpp:91] Creating Layer lstm1_x_transform
I0803 22:36:46.789387  1395 net.cpp:425] lstm1_x_transform <- x
I0803 22:36:46.789397  1395 net.cpp:399] lstm1_x_transform -> W_xc_x
I0803 22:36:46.793768  1405 net.cpp:141] Setting up fc8
I0803 22:36:46.793817  1405 net.cpp:148] Top shape: 10 1000 (10000)
I0803 22:36:46.793823  1405 net.cpp:156] Memory required for data: 68641400
I0803 22:36:46.793840  1405 layer_factory.hpp:77] Creating layer prob
I0803 22:36:46.793858  1405 net.cpp:91] Creating Layer prob
I0803 22:36:46.793864  1405 net.cpp:425] prob <- fc8
I0803 22:36:46.793885  1405 net.cpp:399] prob -> prob
I0803 22:36:46.794312  1405 net.cpp:141] Setting up prob
I0803 22:36:46.794324  1405 net.cpp:148] Top shape: 10 1000 (10000)
I0803 22:36:46.794329  1405 net.cpp:156] Memory required for data: 68681400
I0803 22:36:46.794334  1405 net.cpp:219] prob does not need backward computation.
I0803 22:36:46.794339  1405 net.cpp:219] fc8 does not need backward computation.
I0803 22:36:46.794344  1405 net.cpp:219] drop7 does not need backward computation.
I0803 22:36:46.794348  1405 net.cpp:219] relu7 does not need backward computation.
…
I0803 22:36:46.794440  1405 net.cpp:219] norm1 does not need backward computation.
I0803 22:36:46.794443  1405 net.cpp:219] pool1 does not need backward computation.
I0803 22:36:46.794447  1405 net.cpp:219] relu1 does not need backward computation.
I0803 22:36:46.794451  1405 net.cpp:219] conv1 does not need backward computation.
I0803 22:36:46.794456  1405 net.cpp:219] data does not need backward computation.
I0803 22:36:46.794458  1405 net.cpp:261] This network produces output prob
I0803 22:36:46.794481  1405 net.cpp:274] Network initialization done.
I0803 22:36:46.811447  1395 net.cpp:141] Setting up lstm1_x_transform
I0803 22:36:46.811502  1395 net.cpp:148] Top shape: 1 1 4000 (4000)
I0803 22:36:46.811508  1395 net.cpp:156] Memory required for data: 26016
I0803 22:36:46.811533  1395 layer_factory.hpp:77] Creating layer lstm1_W_xc_x_slice
I0803 22:36:46.811550  1395 net.cpp:91] Creating Layer lstm1_W_xc_x_slice
I0803 22:36:46.811558  1395 net.cpp:425] lstm1_W_xc_x_slice <- W_xc_x
I0803 22:36:46.811565  1395 net.cpp:399] lstm1_W_xc_x_slice -> W_xc_x_1
I0803 22:36:46.811624  1395 net.cpp:141] Setting up lstm1_W_xc_x_slice
I0803 22:36:46.811635  1395 net.cpp:148] Top shape: 1 1 4000 (4000)
I0803 22:36:46.811640  1395 net.cpp:156] Memory required for data: 42016
I0803 22:36:46.811645  1395 layer_factory.hpp:77] Creating layer lstm1_h_conted_0
I0803 22:36:46.811655  1395 net.cpp:91] Creating Layer lstm1_h_conted_0
I0803 22:36:46.811660  1395 net.cpp:425] lstm1_h_conted_0 <- h_0
I0803 22:36:46.811664  1395 net.cpp:425] lstm1_h_conted_0 <- cont_1_lstm1_cont_slice_0_split_0
I0803 22:36:46.811671  1395 net.cpp:399] lstm1_h_conted_0 -> h_conted_0
I0803 22:36:46.811770  1395 net.cpp:141] Setting up lstm1_h_conted_0
I0803 22:36:46.811780  1395 net.cpp:148] Top shape: 1 1 1000 (1000)
I0803 22:36:46.811784  1395 net.cpp:156] Memory required for data: 46016
I0803 22:36:46.811789  1395 layer_factory.hpp:77] Creating layer lstm1_transform_1
I0803 22:36:46.811800  1395 net.cpp:91] Creating Layer lstm1_transform_1
I0803 22:36:46.811805  1395 net.cpp:425] lstm1_transform_1 <- h_conted_0
I0803 22:36:46.811811  1395 net.cpp:399] lstm1_transform_1 -> W_hc_h_0
I0803 22:36:46.851367  1395 net.cpp:141] Setting up lstm1_transform_1
I0803 22:36:46.851425  1395 net.cpp:148] Top shape: 1 1 4000 (4000)
I0803 22:36:46.851431  1395 net.cpp:156] Memory required for data: 62016
I0803 22:36:46.851454  1395 layer_factory.hpp:77] Creating layer lstm1_gate_input_1
I0803 22:36:46.851475  1395 net.cpp:91] Creating Layer lstm1_gate_input_1
I0803 22:36:46.851482  1395 net.cpp:425] lstm1_gate_input_1 <- W_hc_h_0
I0803 22:36:46.851490  1395 net.cpp:425] lstm1_gate_input_1 <- W_xc_x_1
I0803 22:36:46.851496  1395 net.cpp:399] lstm1_gate_input_1 -> gate_input_1
I0803 22:36:46.851555  1395 net.cpp:141] Setting up lstm1_gate_input_1
I0803 22:36:46.851565  1395 net.cpp:148] Top shape: 1 1 4000 (4000)
I0803 22:36:46.851569  1395 net.cpp:156] Memory required for data: 78016
I0803 22:36:46.851574  1395 layer_factory.hpp:77] Creating layer lstm1_unit_1
I0803 22:36:46.851584  1395 net.cpp:91] Creating Layer lstm1_unit_1
I0803 22:36:46.851589  1395 net.cpp:425] lstm1_unit_1 <- c_0
I0803 22:36:46.851594  1395 net.cpp:425] lstm1_unit_1 <- gate_input_1
I0803 22:36:46.851599  1395 net.cpp:425] lstm1_unit_1 <- cont_1_lstm1_cont_slice_0_split_1
I0803 22:36:46.851605  1395 net.cpp:399] lstm1_unit_1 -> c_1
I0803 22:36:46.851614  1395 net.cpp:399] lstm1_unit_1 -> h_1
I0803 22:36:46.851675  1395 net.cpp:141] Setting up lstm1_unit_1
I0803 22:36:46.851685  1395 net.cpp:148] Top shape: 1 1 1000 (1000)
I0803 22:36:46.851691  1395 net.cpp:148] Top shape: 1 1 1000 (1000)
I0803 22:36:46.851694  1395 net.cpp:156] Memory required for data: 86016
I0803 22:36:46.851698  1395 layer_factory.hpp:77] Creating layer lstm1_
I0803 22:36:46.851706  1395 net.cpp:91] Creating Layer lstm1_
I0803 22:36:46.851711  1395 net.cpp:425] lstm1_ <- c_1
I0803 22:36:46.851716  1395 net.cpp:399] lstm1_ -> c_T
I0803 22:36:46.851744  1395 net.cpp:141] Setting up lstm1_
I0803 22:36:46.851752  1395 net.cpp:148] Top shape: 1 1 1000 (1000)
I0803 22:36:46.851757  1395 net.cpp:156] Memory required for data: 90016
I0803 22:36:46.851760  1395 layer_factory.hpp:77] Creating layer lstm1_h_concat
I0803 22:36:46.851773  1395 net.cpp:91] Creating Layer lstm1_h_concat
I0803 22:36:46.851778  1395 net.cpp:425] lstm1_h_concat <- h_1
I0803 22:36:46.851783  1395 net.cpp:399] lstm1_h_concat -> h
I0803 22:36:46.851830  1395 net.cpp:141] Setting up lstm1_h_concat
I0803 22:36:46.851838  1395 net.cpp:148] Top shape: 1 1 1000 (1000)
I0803 22:36:46.851842  1395 net.cpp:156] Memory required for data: 94016
I0803 22:36:46.851847  1395 layer_factory.hpp:77] Creating layer h_pseudoloss
I0803 22:36:46.851861  1395 net.cpp:91] Creating Layer h_pseudoloss
I0803 22:36:46.851866  1395 net.cpp:425] h_pseudoloss <- h
I0803 22:36:46.851874  1395 net.cpp:399] h_pseudoloss -> h_pseudoloss
I0803 22:36:46.851958  1395 net.cpp:141] Setting up h_pseudoloss
…
I0803 22:36:46.852074  1395 net.cpp:219] lstm1_ does not need backward computation.
I0803 22:36:46.852077  1395 net.cpp:261] This network produces output c_T
I0803 22:36:46.852082  1395 net.cpp:261] This network produces output h_pseudoloss
I0803 22:36:46.852098  1395 net.cpp:274] Network initialization done.
I0803 22:36:46.852156  1395 recurrent_layer.cpp:150] Adding parameter 0: W_xc
I0803 22:36:46.852164  1395 recurrent_layer.cpp:150] Adding parameter 1: b_c
I0803 22:36:46.852166  1395 recurrent_layer.cpp:150] Adding parameter 2: W_hc
I0803 22:36:46.852272  1395 net.cpp:141] Setting up lstm1
I0803 22:36:46.852283  1395 net.cpp:148] Top shape: 1 1 1000 (1000)
I0803 22:36:46.852286  1395 net.cpp:156] Memory required for data: 26408
I0803 22:36:46.852300  1395 layer_factory.hpp:77] Creating layer concat
I0803 22:36:46.852309  1395 net.cpp:91] Creating Layer concat
I0803 22:36:46.852315  1395 net.cpp:425] concat <- lstm1
I0803 22:36:46.852322  1395 net.cpp:425] concat <- embedded_input_sentence
I0803 22:36:46.852327  1395 net.cpp:425] concat <- reshaped_stage_indicator
I0803 22:36:46.852334  1395 net.cpp:399] concat -> lstm1_video_sequence
I0803 22:36:46.852365  1395 net.cpp:141] Setting up concat
I0803 22:36:46.852375  1395 net.cpp:148] Top shape: 1 1 1501 (1501)
I0803 22:36:46.852377  1395 net.cpp:156] Memory required for data: 32412
I0803 22:36:46.852385  1395 layer_factory.hpp:77] Creating layer lstm2
I0803 22:36:46.852396  1395 net.cpp:91] Creating Layer lstm2
I0803 22:36:46.852401  1395 net.cpp:425] lstm2 <- lstm1_video_sequence
I0803 22:36:46.852407  1395 net.cpp:425] lstm2 <- cont_sentence_input_1_split_1
I0803 22:36:46.852413  1395 net.cpp:399] lstm2 -> lstm2
I0803 22:36:46.852423  1395 recurrent_layer.cpp:20] Initializing recurrent layer: assuming input batch contains 1 timesteps of 1 independent streams.
I0803 22:36:46.852674  1395 net.cpp:49] Initializing net from parameters: 
layer {
  name: "lstm2_"
  type: "Input"
  top: "x"
  top: "cont"
  input_param {
    shape {
      dim: 1
      dim: 1
      dim: 1501
    }
    shape {
      dim: 1
      dim: 1
    }
  }
}
layer {
  name: "lstm2_"
  type: "Input"
  top: "c_0"
  top: "h_0"
  input_param {
    shape {
      dim: 1
      dim: 1
      dim: 1000
    }
    shape {
      dim: 1
      dim: 1
      dim: 1000
    }
  }
}
layer {
  name: "lstm2_cont_slice"
  type: "Slice"
  bottom: "cont"
  top: "cont_1"
  slice_param {
    axis: 0
  }
}
layer {
  name: "lstm2_x_transform"
  type: "InnerProduct"
  bottom: "x"
  top: "W_xc_x"
  param {
    name: "W_xc"
  }
  param {
    name: "b_c"
  }
  propagate_down: true
  inner_product_param {
    num_output: 4000
    bias_term: true
    weight_filler {
      type: "uniform"
      min: -0.08
      max: 0.08
    }
    bias_filler {
      type: "constant"
      value: 0
    }
    axis: 2
  }
}
layer {
  name: "lstm2_W_xc_x_slice"
  type: "Slice"
  bottom: "W_xc_x"
  top: "W_xc_x_1"
  slice_param {
    axis: 0
  }
}
layer {
  name: "lstm2_h_conted_0"
  type: "Scale"
  bottom: "h_0"
  bottom: "cont_1"
  top: "h_conted_0"
  scale_param {
    axis: 0
  }
}
layer {
  name: "lstm2_transform_1"
  type: "InnerProduct"
  bottom: "h_conted_0"
  top: "W_hc_h_0"
  param {
    name: "W_hc"
  }
  inner_product_param {
    num_output: 4000
    bias_term: false
    weight_filler {
      type: "uniform"
      min: -0.08
      max: 0.08
    }
    axis: 2
  }
}
layer {
  name: "lstm2_gate_input_1"
  type: "Eltwise"
  bottom: "W_hc_h_0"
  bottom: "W_xc_x_1"
  top: "gate_input_1"
  eltwise_param {
    operation: SUM
  }
}
layer {
  name: "lstm2_unit_1"
  type: "LSTMUnit"
  bottom: "c_0"
  bottom: "gate_input_1"
  bottom: "cont_1"
  top: "c_1"
  top: "h_1"
}
layer {
  name: "lstm2_"
  type: "Split"
  bottom: "c_1"
  top: "c_T"
}
layer {
  name: "lstm2_h_concat"
  type: "Concat"
  bottom: "h_1"
  top: "h"
  concat_param {
    axis: 0
  }
}
layer {
  name: "h_pseudoloss"
  type: "Reduction"
  bottom: "h"
  top: "h_pseudoloss"
  loss_weight: 1
}
I0803 22:36:46.852757  1395 layer_factory.hpp:77] Creating layer lstm2_
I0803 22:36:46.852769  1395 net.cpp:91] Creating Layer lstm2_
I0803 22:36:46.852774  1395 net.cpp:399] lstm2_ -> x
I0803 22:36:46.852784  1395 net.cpp:399] lstm2_ -> cont
I0803 22:36:46.852835  1395 net.cpp:141] Setting up lstm2_
I0803 22:36:46.852844  1395 net.cpp:148] Top shape: 1 1 1501 (1501)
I0803 22:36:46.852850  1395 net.cpp:148] Top shape: 1 1 (1)
I0803 22:36:46.852854  1395 net.cpp:156] Memory required for data: 6008
I0803 22:36:46.852859  1395 layer_factory.hpp:77] Creating layer lstm2_
I0803 22:36:46.852866  1395 net.cpp:91] Creating Layer lstm2_
I0803 22:36:46.852871  1395 net.cpp:399] lstm2_ -> c_0
I0803 22:36:46.852880  1395 net.cpp:399] lstm2_ -> h_0
I0803 22:36:46.852926  1395 net.cpp:141] Setting up lstm2_
I0803 22:36:46.852934  1395 net.cpp:148] Top shape: 1 1 1000 (1000)
I0803 22:36:46.852939  1395 net.cpp:148] Top shape: 1 1 1000 (1000)
I0803 22:36:46.852943  1395 net.cpp:156] Memory required for data: 14008
I0803 22:36:46.852947  1395 layer_factory.hpp:77] Creating layer lstm2_cont_slice
I0803 22:36:46.852955  1395 net.cpp:91] Creating Layer lstm2_cont_slice
I0803 22:36:46.852959  1395 net.cpp:425] lstm2_cont_slice <- cont
I0803 22:36:46.852967  1395 net.cpp:399] lstm2_cont_slice -> cont_1
I0803 22:36:46.852998  1395 net.cpp:141] Setting up lstm2_cont_slice
I0803 22:36:46.853008  1395 net.cpp:148] Top shape: 1 1 (1)
I0803 22:36:46.853013  1395 net.cpp:156] Memory required for data: 14012
I0803 22:36:46.853016  1395 layer_factory.hpp:77] Creating layer cont_1_lstm2_cont_slice_0_split
I0803 22:36:46.853023  1395 net.cpp:91] Creating Layer cont_1_lstm2_cont_slice_0_split
I0803 22:36:46.853026  1395 net.cpp:425] cont_1_lstm2_cont_slice_0_split <- cont_1
I0803 22:36:46.853032  1395 net.cpp:399] cont_1_lstm2_cont_slice_0_split -> cont_1_lstm2_cont_slice_0_split_0
I0803 22:36:46.853039  1395 net.cpp:399] cont_1_lstm2_cont_slice_0_split -> cont_1_lstm2_cont_slice_0_split_1
I0803 22:36:46.853083  1395 net.cpp:141] Setting up cont_1_lstm2_cont_slice_0_split
I0803 22:36:46.853092  1395 net.cpp:148] Top shape: 1 1 (1)
I0803 22:36:46.853097  1395 net.cpp:148] Top shape: 1 1 (1)
I0803 22:36:46.853101  1395 net.cpp:156] Memory required for data: 14020
I0803 22:36:46.853106  1395 layer_factory.hpp:77] Creating layer lstm2_x_transform
I0803 22:36:46.853116  1395 net.cpp:91] Creating Layer lstm2_x_transform
I0803 22:36:46.853121  1395 net.cpp:425] lstm2_x_transform <- x
I0803 22:36:46.853128  1395 net.cpp:399] lstm2_x_transform -> W_xc_x
I0803 22:36:46.910537  1395 net.cpp:141] Setting up lstm2_x_transform
I0803 22:36:46.910590  1395 net.cpp:148] Top shape: 1 1 4000 (4000)
I0803 22:36:46.910596  1395 net.cpp:156] Memory required for data: 30020
I0803 22:36:46.910619  1395 layer_factory.hpp:77] Creating layer lstm2_W_xc_x_slice
I0803 22:36:46.910639  1395 net.cpp:91] Creating Layer lstm2_W_xc_x_slice
I0803 22:36:46.910645  1395 net.cpp:425] lstm2_W_xc_x_slice <- W_xc_x
I0803 22:36:46.910653  1395 net.cpp:399] lstm2_W_xc_x_slice -> W_xc_x_1
I0803 22:36:46.910698  1395 net.cpp:141] Setting up lstm2_W_xc_x_slice
I0803 22:36:46.910707  1395 net.cpp:148] Top shape: 1 1 4000 (4000)
I0803 22:36:46.910712  1395 net.cpp:156] Memory required for data: 46020
I0803 22:36:46.910717  1395 layer_factory.hpp:77] Creating layer lstm2_h_conted_0
I0803 22:36:46.910727  1395 net.cpp:91] Creating Layer lstm2_h_conted_0
I0803 22:36:46.910730  1395 net.cpp:425] lstm2_h_conted_0 <- h_0
I0803 22:36:46.910737  1395 net.cpp:425] lstm2_h_conted_0 <- cont_1_lstm2_cont_slice_0_split_0
I0803 22:36:46.910745  1395 net.cpp:399] lstm2_h_conted_0 -> h_conted_0
I0803 22:36:46.910835  1395 net.cpp:141] Setting up lstm2_h_conted_0
I0803 22:36:46.910843  1395 net.cpp:148] Top shape: 1 1 1000 (1000)
I0803 22:36:46.910847  1395 net.cpp:156] Memory required for data: 50020
I0803 22:36:46.910851  1395 layer_factory.hpp:77] Creating layer lstm2_transform_1
I0803 22:36:46.910869  1395 net.cpp:91] Creating Layer lstm2_transform_1
I0803 22:36:46.910874  1395 net.cpp:425] lstm2_transform_1 <- h_conted_0
I0803 22:36:46.910881  1395 net.cpp:399] lstm2_transform_1 -> W_hc_h_0
I0803 22:36:46.949056  1395 net.cpp:141] Setting up lstm2_transform_1
I0803 22:36:46.949110  1395 net.cpp:148] Top shape: 1 1 4000 (4000)
I0803 22:36:46.949115  1395 net.cpp:156] Memory required for data: 66020
I0803 22:36:46.949137  1395 layer_factory.hpp:77] Creating layer lstm2_gate_input_1
I0803 22:36:46.949160  1395 net.cpp:91] Creating Layer lstm2_gate_input_1
I0803 22:36:46.949167  1395 net.cpp:425] lstm2_gate_input_1 <- W_hc_h_0
I0803 22:36:46.949177  1395 net.cpp:425] lstm2_gate_input_1 <- W_xc_x_1
I0803 22:36:46.949187  1395 net.cpp:399] lstm2_gate_input_1 -> gate_input_1
I0803 22:36:46.949231  1395 net.cpp:141] Setting up lstm2_gate_input_1
I0803 22:36:46.949249  1395 net.cpp:148] Top shape: 1 1 4000 (4000)
I0803 22:36:46.949254  1395 net.cpp:156] Memory required for data: 82020
I0803 22:36:46.949259  1395 layer_factory.hpp:77] Creating layer lstm2_unit_1
I0803 22:36:46.949270  1395 net.cpp:91] Creating Layer lstm2_unit_1
I0803 22:36:46.949275  1395 net.cpp:425] lstm2_unit_1 <- c_0
I0803 22:36:46.949280  1395 net.cpp:425] lstm2_unit_1 <- gate_input_1
I0803 22:36:46.949285  1395 net.cpp:425] lstm2_unit_1 <- cont_1_lstm2_cont_slice_0_split_1
I0803 22:36:46.949291  1395 net.cpp:399] lstm2_unit_1 -> c_1
I0803 22:36:46.949300  1395 net.cpp:399] lstm2_unit_1 -> h_1
I0803 22:36:46.949360  1395 net.cpp:141] Setting up lstm2_unit_1
I0803 22:36:46.949369  1395 net.cpp:148] Top shape: 1 1 1000 (1000)
I0803 22:36:46.949374  1395 net.cpp:148] Top shape: 1 1 1000 (1000)
I0803 22:36:46.949378  1395 net.cpp:156] Memory required for data: 90020
I0803 22:36:46.949383  1395 layer_factory.hpp:77] Creating layer lstm2_
I0803 22:36:46.949390  1395 net.cpp:91] Creating Layer lstm2_
I0803 22:36:46.949394  1395 net.cpp:425] lstm2_ <- c_1
I0803 22:36:46.949403  1395 net.cpp:399] lstm2_ -> c_T
I0803 22:36:46.949431  1395 net.cpp:141] Setting up lstm2_
I0803 22:36:46.949440  1395 net.cpp:148] Top shape: 1 1 1000 (1000)
I0803 22:36:46.949443  1395 net.cpp:156] Memory required for data: 94020
I0803 22:36:46.949448  1395 layer_factory.hpp:77] Creating layer lstm2_h_concat
I0803 22:36:46.949456  1395 net.cpp:91] Creating Layer lstm2_h_concat
I0803 22:36:46.949460  1395 net.cpp:425] lstm2_h_concat <- h_1
I0803 22:36:46.949466  1395 net.cpp:399] lstm2_h_concat -> h
I0803 22:36:46.949502  1395 net.cpp:141] Setting up lstm2_h_concat
I0803 22:36:46.949511  1395 net.cpp:148] Top shape: 1 1 1000 (1000)
I0803 22:36:46.949514  1395 net.cpp:156] Memory required for data: 98020
I0803 22:36:46.949518  1395 layer_factory.hpp:77] Creating layer h_pseudoloss
I0803 22:36:46.949527  1395 net.cpp:91] Creating Layer h_pseudoloss
I0803 22:36:46.949532  1395 net.cpp:425] h_pseudoloss <- h
I0803 22:36:46.949537  1395 net.cpp:399] h_pseudoloss -> h_pseudoloss
I0803 22:36:46.949620  1395 net.cpp:141] Setting up h_pseudoloss
…
