…
Java HotSpot(TM) 64-Bit Server VM warning: You have loaded library /tmp/cvld5517490724173059799/libopencv_java310.xine1.so which might have disabled stack guard. The VM will try to fix the stack guard now.
It's highly recommended that you fix the library with 'execstack -c <libfile>', or link it with '-z noexecstack'.
WARNING: Logging before InitGoogleLogging() is written to STDERR
I0714 23:30:58.202040  2976 net.cpp:49] Initializing net from parameters: 
name: "GoogleNet"
state {
  phase: TEST
}
layer {
  name: "data"
  type: "Input"
  top: "data"
  input_param {
    shape {
      dim: 10
      dim: 3
      dim: 224
      dim: 224
    }
  }
}
layer {
  name: "conv1/7x7_s2"
  type: "Convolution"
  bottom: "data"
  top: "conv1/7x7_s2"
  param {
    lr_mult: 1
    decay_mult: 1
  }
  param {
    lr_mult: 2
    decay_mult: 0
  }
  convolution_param {
    num_output: 64
    pad: 3
    kernel_size: 7
    stride: 2
    weight_filler {
      type: "xavier"
      std: 0.1
    }
    bias_filler {
      type: "constant"
      value: 0.2
    }
  }
}
layer {
  name: "conv1/relu_7x7"
  type: "ReLU"
  bottom: "conv1/7x7_s2"
  top: "conv1/7x7_s2"
}
layer {
  name: "pool1/3x3_s2"
  type: "Pooling"
  bottom: "conv1/7x7_s2"
  top: "pool1/3x3_s2"
  pooling_param {
    pool: MAX
    kernel_size: 3
    stride: 2
  }
}
layer {
  name: "pool1/norm1"
  type: "LRN"
  bottom: "pool1/3x3_s2"
  top: "pool1/norm1"
  lrn_param {
    local_size: 5
    alpha: 0.0001
    beta: 0.75
  }
}
layer {
  name: "conv2/3x3_reduce"
  type: "Convolution"
  bottom: "pool1/norm1"
  top: "conv2/3x3_reduce"
  param {
    lr_mult: 1
    decay_mult: 1
  }
  param {
    lr_mult: 2
    decay_mult: 0
  }
  convolution_param {
    num_output: 64
    kernel_size: 1
    weight_filler {
      type: "xavier"
      std: 0.1
    }
    bias_filler {
      type: "constant"
      value: 0.2
    }
  }
}
layer {
  name: "conv2/relu_3x3_reduce"
  type: "ReLU"
  bottom: "conv2/3x3_reduce"
  top: "conv2/3x3_reduce"
}
layer {
  name: "conv2/3x3"
  type: "Convolution"
  bottom: "conv2/3x3_reduce"
  top: "conv2/3x3"
  param {
    lr_mult: 1
    decay_mult: 1
  }
  param {
    lr_mult: 2
    decay_mult: 0
  }
  convolution_param {
    num_output: 192
    pad: 1
    kernel_size: 3
    weight_filler {
      type: "xavier"
      std: 0.03
    }
    bias_filler {
      type: "constant"
      value: 0.2
    }
  }
}
layer {
  name: "conv2/relu_3x3"
  type: "ReLU"
  bottom: "conv2/3x3"
  top: "conv2/3x3"
}
layer {
  name: "conv2/norm2"
  type: "LRN"
  bottom: "conv2/3x3"
  top: "conv2/norm2"
  lrn_param {
    local_size: 5
    alpha: 0.0001
    beta: 0.75
  }
}
layer {
  name: "pool2/3x3_s2"
  type: "Pooling"
  bottom: "conv2/norm2"
  top: "pool2/3x3_s2"
  pooling_param {
    pool: MAX
    kernel_size: 3
    stride: 2
  }
}
layer {
  name: "inception_3a/1x1"
  type: "Convolution"
  bottom: "pool2/3x3_s2"
  top: "inception_3a/1x1"
  param {
    lr_mult: 1
    decay_mult: 1
  }
  param {
    lr_mult: 2
    decay_mult: 0
  }
  convolution_param {
    num_output: 64
    kernel_size: 1
    weight_filler {
      type: "xavier"
      std: 0.03
    }
    bias_filler {
      type: "constant"
      value: 0.2
    }
  }
}
layer {
  name: "inception_3a/relu_1x1"
  type: "ReLU"
  bottom: "inception_3a/1x1"
  top: "inception_3a/1x1"
}
layer {
  name: "inception_3a/3x3_reduce"
  type: "Convolution"
  bottom: "pool2/3x3_s2"
  top: "inception_3a/3x3_reduce"
  param {
    lr_mult: 1
    decay_mult: 1
  }
  param {
    lr_mult: 2
    decay_mult: 0
  }
  convolution_param {
    num_output: 96
    kernel_size: 1
    weight_filler {
      type: "xavier"
      std: 0.09
    }
    bias_filler {
      type: "constant"
      value: 0.2
    }
  }
}
layer {
  name: "inception_3a/relu_3x3_reduce"
  type: "ReLU"
  bottom: "inception_3a/3x3_reduce"
  top: "inception_3a/3x3_reduce"
}
layer {
  name: "inception_3a/3x3"
  type: "Convolution"
  bottom: "inception_3a/3x3_reduce"
  top: "inception_3a/3x3"
  param {
    lr_mult: 1
    decay_mult: 1
  }
  param {
    lr_mult: 2
    decay_mult: 0
  }
  convolution_param {
    num_output: 128
    pad: 1
    kernel_size: 3
    weight_filler {
      type: "xavier"
      std: 0.03
    }
    bias_filler {
      type: "constant"
      value: 0.2
    }
  }
}
layer {
  name: "inception_3a/relu_3x3"
  type: "ReLU"
  bottom: "inception_3a/3x3"
  top: "inception_3a/3x3"
}
layer {
  name: "inception_3a/5x5_reduce"
  type: "Convolution"
  bottom: "pool2/3x3_s2"
  top: "inception_3a/5x5_reduce"
  param {
    lr_mult: 1
    decay_mult: 1
  }
  param {
    lr_mult: 2
    decay_mult: 0
  }
  convolution_param {
    num_output: 16
    kernel_size: 1
    weight_filler {
      type: "xavier"
      std: 0.2
    }
    bias_filler {
      type: "constant"
      value: 0.2
    }
  }
}
layer {
  name: "inception_3a/relu_5x5_reduce"
  type: "ReLU"
  bottom: "inception_3a/5x5_reduce"
  top: "inception_3a/5x5_reduce"
}
layer {
  name: "inception_3a/5x5"
  type: "Convolution"
  bottom: "inception_3a/5x5_reduce"
  top: "inception_3a/5x5"
  param {
    lr_mult: 1
    decay_mult: 1
  }
  param {
    lr_mult: 2
    decay_mult: 0
  }
  convolution_param {
    num_output: 32
    pad: 2
    kernel_size: 5
    weight_filler {
      type: "xavier"
      std: 0.03
    }
    bias_filler {
      type: "constant"
      value: 0.2
    }
  }
}
layer {
  name: "inception_3a/relu_5x5"
  type: "ReLU"
  bottom: "inception_3a/5x5"
  top: "inception_3a/5x5"
}
layer {
  name: "inception_3a/pool"
  type: "Pooling"
  bottom: "pool2/3x3_s2"
  top: "inception_3a/pool"
  pooling_param {
    pool: MAX
    kernel_size: 3
    stride: 1
    pad: 1
  }
}
layer {
  name: "inception_3a/pool_proj"
  type: "Convolution"
  bottom: "inception_3a/pool"
  top: "inception_3a/pool_proj"
  param {
    lr_mult: 1
    decay_mult: 1
  }
  param {
    lr_mult: 2
    decay_mult: 0
  }
  convolution_param {
    num_output: 32
    kernel_size: 1
    weight_filler {
      type: "xavier"
      std: 0.1
    }
    bias_filler {
      type: "constant"
      value: 0.2
    }
  }
}
layer {
  name: "inception_3a/relu_pool_proj"
  type: "ReLU"
  bottom: "inception_3a/pool_proj"
  top: "inception_3a/pool_proj"
}
layer {
  name: "inception_3a/output"
  type: "Concat"
  bottom: "inception_3a/1x1"
  bottom: "inception_3a/3x3"
  bottom: "inception_3a/5x5"
  bottom: "inception_3a/pool_proj"
  top: "inception_3a/output"
}
layer {
  name: "inception_3b/1x1"
  type: "Convolution"
  bottom: "inception_3a/output"
  top: "inception_3b/1x1"
  param {
    lr_mult: 1
    decay_mult: 1
  }
  param {
    lr_mult: 2
    decay_mult: 0
  }
  convolution_param {
    num_output: 128
    kernel_size: 1
    weight_filler {
      type: "xavier"
      std: 0.03
    }
    bias_filler {
      type: "constant"
      value: 0.2
    }
  }
}
layer {
  name: "inception_3b/relu_1x1"
  type: "ReLU"
  bottom: "inception_3b/1x1"
  top: "inception_3b/1x1"
}
layer {
  name: "inception_3b/3x3_reduce"
  type: "Convolution"
  bottom: "inception_3a/output"
  top: "inception_3b/3x3_reduce"
  param {
    lr_mult: 1
    decay_mult: 1
  }
  param {
    lr_mult: 2
    decay_mult: 0
  }
  convolution_param {
    num_output: 128
    kernel_size: 1
    weight_filler {
      type: "xavier"
      std: 0.09
    }
    bias_filler {
      type: "constant"
      value: 0.2
    }
  }
}
layer {
  name: "inception_3b/relu_3x3_reduce"
  type: "ReLU"
  bottom: "inception_3b/3x3_reduce"
  top: "inception_3b/3x3_reduce"
}
layer {
  name: "inception_3b/3x3"
  type: "Convolution"
  bottom: "inception_3b/3x3_reduce"
  top: "inception_3b/3x3"
  param {
    lr_mult: 1
    decay_mult: 1
  }
  param {
    lr_mult: 2
    decay_mult: 0
  }
  convolution_param {
    num_output: 192
    pad: 1
    kernel_size: 3
    weight_filler {
      type: "xavier"
      std: 0.03
    }
    bias_filler {
      type: "constant"
      value: 0.2
    }
  }
}
layer {
  name: "inception_3b/relu_3x3"
  type: "ReLU"
  bottom: "inception_3b/3x3"
  top: "inception_3b/3x3"
}
layer {
  name: "inception_3b/5x5_reduce"
  type: "Convolution"
  bottom: "inception_3a/output"
  top: "inception_3b/5x5_reduce"
  param {
    lr_mult: 1
    decay_mult: 1
  }
  param {
    lr_mult: 2
    decay_mult: 0
  }
  convolution_param {
    num_output: 32
    kernel_size: 1
    weight_filler {
      type: "xavier"
      std: 0.2
    }
    bias_filler {
      type: "constant"
      value: 0.2
    }
  }
}
layer {
  name: "inception_3b/relu_5x5_reduce"
  type: "ReLU"
  bottom: "inception_3b/5x5_reduce"
  top: "inception_3b/5x5_reduce"
}
layer {
  name: "inception_3b/5x5"
  type: "Convolution"
  bottom: "inception_3b/5x5_reduce"
  top: "inception_3b/5x5"
  param {
    lr_mult: 1
    decay_mult: 1
  }
  param {
    lr_mult: 2
    decay_mult: 0
  }
  convolution_param {
    num_output: 96
    pad: 2
    kernel_size: 5
    weight_filler {
      type: "xavier"
      std: 0.03
    }
    bias_filler {
      type: "constant"
      value: 0.2
    }
  }
}
layer {
  name: "inception_3b/relu_5x5"
  type: "ReLU"
  bottom: "inception_3b/5x5"
  top: "inception_3b/5x5"
}
layer {
  name: "inception_3b/pool"
  type: "Pooling"
  bottom: "inception_3a/output"
  top: "inception_3b/pool"
  pooling_param {
    pool: MAX
    kernel_size: 3
    stride: 1
    pad: 1
  }
}
layer {
  name: "inception_3b/pool_proj"
  type: "Convolution"
  bottom: "inception_3b/pool"
  top: "inception_3b/pool_proj"
  param {
    lr_mult: 1
    decay_mult: 1
  }
  param {
    lr_mult: 2
    decay_mult: 0
  }
  convolution_param {
    num_output: 64
    kernel_size: 1
    weight_filler {
      type: "xavier"
      std: 0.1
    }
    bias_filler {
      type: "constant"
      value: 0.2
    }
  }
}
layer {
  name: "inception_3b/relu_pool_proj"
  type: "ReLU"
  bottom: "inception_3b/pool_proj"
  top: "inception_3b/pool_proj"
}
layer {
  name: "inception_3b/output"
  type: "Concat"
  bottom: "inception_3b/1x1"
  bottom: "inception_3b/3x3"
  bottom: "inception_3b/5x5"
  bottom: "inception_3b/pool_proj"
  top: "inception_3b/output"
}
layer {
  name: "pool3/3x3_s2"
  type: "Pooling"
  bottom: "inception_3b/output"
  top: "pool3/3x3_s2"
  pooling_param {
    pool: MAX
    kernel_size: 3
    stride: 2
  }
}
layer {
  name: "inception_4a/1x1"
  type: "Convolution"
  bottom: "pool3/3x3_s2"
  top: "inception_4a/1x1"
  param {
    lr_mult: 1
    decay_mult: 1
  }
  param {
    lr_mult: 2
    decay_mult: 0
  }
  convolution_param {
    num_output: 192
    kernel_size: 1
    weight_filler {
      type: "xavier"
      std: 0.03
    }
    bias_filler {
      type: "constant"
      value: 0.2
    }
  }
}
layer {
  name: "inception_4a/relu_1x1"
  type: "ReLU"
  bottom: "inception_4a/1x1"
  top: "inception_4a/1x1"
}
layer {
  name: "inception_4a/3x3_reduce"
  type: "Convolution"
  bottom: "pool3/3x3_s2"
  top: "inception_4a/3x3_reduce"
  param {
    lr_mult: 1
    decay_mult: 1
  }
  param {
    lr_mult: 2
    decay_mult: 0
  }
  convolution_param {
    num_output: 96
    kernel_size: 1
    weight_filler {
      type: "xavier"
      std: 0.09
    }
    bias_filler {
      type: "constant"
      value: 0.2
    }
  }
}
layer {
  name: "inception_4a/relu_3x3_reduce"
  type: "ReLU"
  bottom: "inception_4a/3x3_reduce"
  top: "inception_4a/3x3_reduce"
}
layer {
  name: "inception_4a/3x3"
  type: "Convolution"
  bottom: "inception_4a/3x3_reduce"
  top: "inception_4a/3x3"
  param {
    lr_mult: 1
    decay_mult: 1
  }
  param {
    lr_mult: 2
    decay_mult: 0
  }
  convolution_param {
    num_output: 208
    pad: 1
    kernel_size: 3
    weight_filler {
      type: "xavier"
      std: 0.03
    }
    bias_filler {
      type: "constant"
      value: 0.2
    }
  }
}
layer {
  name: "inception_4a/relu_3x3"
  type: "ReLU"
  bottom: "inception_4a/3x3"
  top: "inception_4a/3x3"
}
layer {
  name: "inception_4a/5x5_reduce"
  type: "Convolution"
  bottom: "pool3/3x3_s2"
  top: "inception_4a/5x5_reduce"
  param {
    lr_mult: 1
    decay_mult: 1
  }
  param {
    lr_mult: 2
    decay_mult: 0
  }
  convolution_param {
    num_output: 16
    kernel_size: 1
    weight_filler {
      type: "xavier"
      std: 0.2
    }
    bias_filler {
      type: "constant"
      value: 0.2
    }
  }
}
layer {
  name: "inception_4a/relu_5x5_reduce"
  type: "ReLU"
  bottom: "inception_4a/5x5_reduce"
  top: "inception_4a/5x5_reduce"
}
layer {
  name: "inception_4a/5x5"
  type: "Convolution"
  bottom: "inception_4a/5x5_reduce"
  top: "inception_4a/5x5"
  param {
    lr_mult: 1
    decay_mult: 1
  }
  param {
    lr_mult: 2
    decay_mult: 0
  }
  convolution_param {
    num_output: 48
    pad: 2
    kernel_size: 5
    weight_filler {
      type: "xavier"
      std: 0.03
    }
    bias_filler {
      type: "constant"
      value: 0.2
    }
  }
}
layer {
  name: "inception_4a/relu_5x5"
  type: "ReLU"
  bottom: "inception_4a/5x5"
  top: "inception_4a/5x5"
}
layer {
  name: "inception_4a/pool"
  type: "Pooling"
  bottom: "pool3/3x3_s2"
  top: "inception_4a/pool"
  pooling_param {
    pool: MAX
    kernel_size: 3
    stride: 1
    pad: 1
  }
}
layer {
  name: "inception_4a/pool_proj"
  type: "Convolution"
  bottom: "inception_4a/pool"
  top: "inception_4a/pool_proj"
  param {
    lr_mult: 1
    decay_mult: 1
  }
  param {
    lr_mult: 2
    decay_mult: 0
  }
  convolution_param {
    num_output: 64
    kernel_size: 1
    weight_filler {
      type: "xavier"
      std: 0.1
    }
    bias_filler {
      type: "constant"
      value: 0.2
    }
  }
}
layer {
  name: "inception_4a/relu_pool_proj"
  type: "ReLU"
  bottom: "inception_4a/pool_proj"
  top: "inception_4a/pool_proj"
}
layer {
  name: "inception_4a/output"
  type: "Concat"
  bottom: "inception_4a/1x1"
  bottom: "inception_4a/3x3"
  bottom: "inception_4a/5x5"
  bottom: "inception_4a/pool_proj"
  top: "inception_4a/output"
}
layer {
  name: "inception_4b/1x1"
  type: "Convolution"
  bottom: "inception_4a/output"
  top: "inception_4b/1x1"
  param {
    lr_mult: 1
    decay_mult: 1
  }
  param {
    lr_mult: 2
    decay_mult: 0
  }
  convolution_param {
    num_output: 160
    kernel_size: 1
    weight_filler {
      type: "xavier"
      std: 0.03
    }
    bias_filler {
      type: "constant"
      value: 0.2
    }
  }
}
layer {
  name: "inception_4b/relu_1x1"
  type: "ReLU"
  bottom: "inception_4b/1x1"
  top: "inception_4b/1x1"
}
layer {
  name: "inception_4b/3x3_reduce"
  type: "Convolution"
  bottom: "inception_4a/output"
  top: "inception_4b/3x3_reduce"
  param {
    lr_mult: 1
    decay_mult: 1
  }
  param {
    lr_mult: 2
    decay_mult: 0
  }
  convolution_param {
    num_output: 112
    kernel_size: 1
    weight_filler {
      type: "xavier"
      std: 0.09
    }
    bias_filler {
      type: "constant"
      value: 0.2
    }
  }
}
layer {
  name: "inception_4b/relu_3x3_reduce"
  type: "ReLU"
  bottom: "inception_4b/3x3_reduce"
  top: "inception_4b/3x3_reduce"
}
layer {
  name: "inception_4b/3x3"
  type: "Convolution"
  bottom: "inception_4b/3x3_reduce"
  top: "inception_4b/3x3"
  param {
    lr_mult: 1
    decay_mult: 1
  }
  param {
    lr_mult: 2
    decay_mult: 0
  }
  convolution_param {
    num_output: 224
    pad: 1
    kernel_size: 3
    weight_filler {
      type: "xavier"
      std: 0.03
    }
    bias_filler {
      type: "constant"
      value: 0.2
    }
  }
}
layer {
  name: "inception_4b/relu_3x3"
  type: "ReLU"
  bottom: "inception_4b/3x3"
  top: "inception_4b/3x3"
}
layer {
  name: "inception_4b/5x5_reduce"
  type: "Convolution"
  bottom: "inception_4a/output"
  top: "inception_4b/5x5_reduce"
  param {
    lr_mult: 1
    decay_mult: 1
  }
  param {
    lr_mult: 2
    decay_mult: 0
  }
  convolution_param {
    num_output: 24
    kernel_size: 1
    weight_filler {
      type: "xavier"
      std: 0.2
    }
    bias_filler {
      type: "constant"
      value: 0.2
    }
  }
}
layer {
  name: "inception_4b/relu_5x5_reduce"
  type: "ReLU"
  bottom: "inception_4b/5x5_reduce"
  top: "inception_4b/5x5_reduce"
}
layer {
  name: "inception_4b/5x5"
  type: "Convolution"
  bottom: "inception_4b/5x5_reduce"
  top: "inception_4b/5x5"
  param {
    lr_mult: 1
    decay_mult: 1
  }
  param {
    lr_mult: 2
    decay_mult: 0
  }
  convolution_param {
    num_output: 64
    pad: 2
    kernel_size: 5
    weight_filler {
      type: "xavier"
      std: 0.03
    }
    bias_filler {
      type: "constant"
      value: 0.2
    }
  }
}
layer {
  name: "inception_4b/relu_5x5"
  type: "ReLU"
  bottom: "inception_4b/5x5"
  top: "inception_4b/5x5"
}
layer {
  name: "inception_4b/pool"
  type: "Pooling"
  bottom: "inception_4a/output"
  top: "inception_4b/pool"
  pooling_param {
    pool: MAX
    kernel_size: 3
    stride: 1
    pad: 1
  }
}
layer {
  name: "inception_4b/pool_proj"
  type: "Convolution"
  bottom: "inception_4b/pool"
  top: "inception_4b/pool_proj"
  param {
    lr_mult: 1
    decay_mult: 1
  }
  param {
    lr_mult: 2
    decay_mult: 0
  }
  convolution_param {
    num_output: 64
    kernel_size: 1
    weight_filler {
      type: "xavier"
      std: 0.1
    }
    bias_filler {
      type: "constant"
      value: 0.2
    }
  }
}
layer {
  name: "inception_4b/relu_pool_proj"
  type: "ReLU"
  bottom: "inception_4b/pool_proj"
  top: "inception_4b/pool_proj"
}
layer {
  name: "inception_4b/output"
  type: "Concat"
  bottom: "inception_4b/1x1"
  bottom: "inception_4b/3x3"
  bottom: "inception_4b/5x5"
  bottom: "inception_4b/pool_proj"
  top: "inception_4b/output"
}
layer {
  name: "inception_4c/1x1"
  type: "Convolution"
  bottom: "inception_4b/output"
  top: "inception_4c/1x1"
  param {
    lr_mult: 1
    decay_mult: 1
  }
  param {
    lr_mult: 2
    decay_mult: 0
  }
  convolution_param {
    num_output: 128
    kernel_size: 1
    weight_filler {
      type: "xavier"
      std: 0.03
    }
    bias_filler {
      type: "constant"
      value: 0.2
    }
  }
}
layer {
  name: "inception_4c/relu_1x1"
  type: "ReLU"
  bottom: "inception_4c/1x1"
  top: "inception_4c/1x1"
}
layer {
  name: "inception_4c/3x3_reduce"
  type: "Convolution"
  bottom: "inception_4b/output"
  top: "inception_4c/3x3_reduce"
  param {
    lr_mult: 1
    decay_mult: 1
  }
  param {
    lr_mult: 2
    decay_mult: 0
  }
  convolution_param {
    num_output: 128
    kernel_size: 1
    weight_filler {
      type: "xavier"
      std: 0.09
    }
    bias_filler {
      type: "constant"
      value: 0.2
    }
  }
}
layer {
  name: "inception_4c/relu_3x3_reduce"
  type: "ReLU"
  bottom: "inception_4c/3x3_reduce"
  top: "inception_4c/3x3_reduce"
}
layer {
  name: "inception_4c/3x3"
  type: "Convolution"
  bottom: "inception_4c/3x3_reduce"
  top: "inception_4c/3x3"
  param {
    lr_mult: 1
    decay_mult: 1
  }
  param {
    lr_mult: 2
    decay_mult: 0
  }
  convolution_param {
    num_output: 256
    pad: 1
    kernel_size: 3
    weight_filler {
      type: "xavier"
      std: 0.03
    }
    bias_filler {
      type: "constant"
      value: 0.2
    }
  }
}
layer {
  name: "inception_4c/relu_3x3"
  type: "ReLU"
  bottom: "inception_4c/3x3"
  top: "inception_4c/3x3"
}
layer {
  name: "inception_4c/5x5_reduce"
  type: "Convolution"
  bottom: "inception_4b/output"
  top: "inception_4c/5x5_reduce"
  param {
    lr_mult: 1
    decay_mult: 1
  }
  param {
    lr_mult: 2
    decay_mult: 0
  }
  convolution_param {
    num_output: 24
    kernel_size: 1
    weight_filler {
      type: "xavier"
      std: 0.2
    }
    bias_filler {
      type: "constant"
      value: 0.2
    }
  }
}
layer {
  name: "inception_4c/relu_5x5_reduce"
  type: "ReLU"
  bottom: "inception_4c/5x5_reduce"
  top: "inception_4c/5x5_reduce"
}
layer {
  name: "inception_4c/5x5"
  type: "Convolution"
  bottom: "inception_4c/5x5_reduce"
  top: "inception_4c/5x5"
  param {
    lr_mult: 1
    decay_mult: 1
  }
  param {
    lr_mult: 2
    decay_mult: 0
  }
  convolution_param {
    num_output: 64
    pad: 2
    kernel_size: 5
    weight_filler {
      type: "xavier"
      std: 0.03
    }
    bias_filler {
      type: "constant"
      value: 0.2
    }
  }
}
layer {
  name: "inception_4c/relu_5x5"
  type: "ReLU"
  bottom: "inception_4c/5x5"
  top: "inception_4c/5x5"
}
layer {
  name: "inception_4c/pool"
  type: "Pooling"
  bottom: "inception_4b/output"
  top: "inception_4c/pool"
  pooling_param {
    pool: MAX
    kernel_size: 3
    stride: 1
    pad: 1
  }
}
layer {
  name: "inception_4c/pool_proj"
  type: "Convolution"
  bottom: "inception_4c/pool"
  top: "inception_4c/pool_proj"
  param {
    lr_mult: 1
    decay_mult: 1
  }
  param {
    lr_mult: 2
    decay_mult: 0
  }
  convolution_param {
    num_output: 64
    kernel_size: 1
    weight_filler {
      type: "xavier"
      std: 0.1
    }
    bias_filler {
      type: "constant"
      value: 0.2
    }
  }
}
layer {
  name: "inception_4c/relu_pool_proj"
  type: "ReLU"
  bottom: "inception_4c/pool_proj"
  top: "inception_4c/pool_proj"
}
layer {
  name: "inception_4c/output"
  type: "Concat"
  bottom: "inception_4c/1x1"
  bottom: "inception_4c/3x3"
  bottom: "inception_4c/5x5"
  bottom: "inception_4c/pool_proj"
  top: "inception_4c/output"
}
layer {
  name: "inception_4d/1x1"
  type: "Convolution"
  bottom: "inception_4c/output"
  top: "inception_4d/1x1"
  param {
    lr_mult: 1
    decay_mult: 1
  }
  param {
    lr_mult: 2
    decay_mult: 0
  }
  convolution_param {
    num_output: 112
    kernel_size: 1
    weight_filler {
      type: "xavier"
      std: 0.03
    }
    bias_filler {
      type: "constant"
      value: 0.2
    }
  }
}
layer {
  name: "inception_4d/relu_1x1"
  type: "ReLU"
  bottom: "inception_4d/1x1"
  top: "inception_4d/1x1"
}
layer {
  name: "inception_4d/3x3_reduce"
  type: "Convolution"
  bottom: "inception_4c/output"
  top: "inception_4d/3x3_reduce"
  param {
    lr_mult: 1
    decay_mult: 1
  }
  param {
    lr_mult: 2
    decay_mult: 0
  }
  convolution_param {
    num_output: 144
    kernel_size: 1
    weight_filler {
      type: "xavier"
      std: 0.09
    }
    bias_filler {
      type: "constant"
      value: 0.2
    }
  }
}
layer {
  name: "inception_4d/relu_3x3_reduce"
  type: "ReLU"
  bottom: "inception_4d/3x3_reduce"
  top: "inception_4d/3x3_reduce"
}
layer {
  name: "inception_4d/3x3"
  type: "Convolution"
  bottom: "inception_4d/3x3_reduce"
  top: "inception_4d/3x3"
  param {
    lr_mult: 1
    decay_mult: 1
  }
  param {
    lr_mult: 2
    decay_mult: 0
  }
  convolution_param {
    num_output: 288
    pad: 1
    kernel_size: 3
    weight_filler {
      type: "xavier"
      std: 0.03
    }
    bias_filler {
      type: "constant"
      value: 0.2
    }
  }
}
layer {
  name: "inception_4d/relu_3x3"
  type: "ReLU"
  bottom: "inception_4d/3x3"
  top: "inception_4d/3x3"
}
layer {
  name: "inception_4d/5x5_reduce"
  type: "Convolution"
  bottom: "inception_4c/output"
  top: "inception_4d/5x5_reduce"
  param {
    lr_mult: 1
    decay_mult: 1
  }
  param {
    lr_mult: 2
    decay_mult: 0
  }
  convolution_param {
    num_output: 32
    kernel_size: 1
    weight_filler {
      type: "xavier"
      std: 0.2
    }
    bias_filler {
      type: "constant"
      value: 0.2
    }
  }
}
layer {
  name: "inception_4d/relu_5x5_reduce"
  type: "ReLU"
  bottom: "inception_4d/5x5_reduce"
  top: "inception_4d/5x5_reduce"
}
layer {
  name: "inception_4d/5x5"
  type: "Convolution"
  bottom: "inception_4d/5x5_reduce"
  top: "inception_4d/5x5"
  param {
    lr_mult: 1
    decay_mult: 1
  }
  param {
    lr_mult: 2
    decay_mult: 0
  }
  convolution_param {
    num_output: 64
    pad: 2
    kernel_size: 5
    weight_filler {
      type: "xavier"
      std: 0.03
    }
    bias_filler {
      type: "constant"
      value: 0.2
    }
  }
}
layer {
  name: "inception_4d/relu_5x5"
  type: "ReLU"
  bottom: "inception_4d/5x5"
  top: "inception_4d/5x5"
}
layer {
  name: "inception_4d/pool"
  type: "Pooling"
  bottom: "inception_4c/output"
  top: "inception_4d/pool"
  pooling_param {
    pool: MAX
    kernel_size: 3
    stride: 1
    pad: 1
  }
}
layer {
  name: "inception_4d/pool_proj"
  type: "Convolution"
  bottom: "inception_4d/pool"
  top: "inception_4d/pool_proj"
  param {
    lr_mult: 1
    decay_mult: 1
  }
  param {
    lr_mult: 2
    decay_mult: 0
  }
  convolution_param {
    num_output: 64
    kernel_size: 1
    weight_filler {
      type: "xavier"
      std: 0.1
    }
    bias_filler {
      type: "constant"
      value: 0.2
    }
  }
}
layer {
  name: "inception_4d/relu_pool_proj"
  type: "ReLU"
  bottom: "inception_4d/pool_proj"
  top: "inception_4d/pool_proj"
}
layer {
  name: "inception_4d/output"
  type: "Concat"
  bottom: "inception_4d/1x1"
  bottom: "inception_4d/3x3"
  bottom: "inception_4d/5x5"
  bottom: "inception_4d/pool_proj"
  top: "inception_4d/output"
}
layer {
  name: "inception_4e/1x1"
  type: "Convolution"
  bottom: "inception_4d/output"
  top: "inception_4e/1x1"
  param {
    lr_mult: 1
    decay_mult: 1
  }
  param {
    lr_mult: 2
    decay_mult: 0
  }
  convolution_param {
    num_output: 256
    kernel_size: 1
    weight_filler {
      type: "xavier"
      std: 0.03
    }
    bias_filler {
      type: "constant"
      value: 0.2
    }
  }
}
layer {
  name: "inception_4e/relu_1x1"
  type: "ReLU"
  bottom: "inception_4e/1x1"
  top: "inception_4e/1x1"
}
layer {
  name: "inception_4e/3x3_reduce"
  type: "Convolution"
  bottom: "inception_4d/output"
  top: "inception_4e/3x3_reduce"
  param {
    lr_mult: 1
    decay_mult: 1
  }
  param {
    lr_mult: 2
    decay_mult: 0
  }
  convolution_param {
    num_output: 160
    kernel_size: 1
    weight_filler {
      type: "xavier"
      std: 0.09
    }
    bias_filler {
      type: "constant"
      value: 0.2
    }
  }
}
layer {
  name: "inception_4e/relu_3x3_reduce"
  type: "ReLU"
  bottom: "inception_4e/3x3_reduce"
  top: "inception_4e/3x3_reduce"
}
layer {
  name: "inception_4e/3x3"
  type: "Convolution"
  bottom: "inception_4e/3x3_reduce"
  top: "inception_4e/3x3"
  param {
    lr_mult: 1
    decay_mult: 1
  }
  param {
    lr_mult: 2
    decay_mult: 0
  }
  convolution_param {
    num_output: 320
    pad: 1
    kernel_size: 3
    weight_filler {
      type: "xavier"
      std: 0.03
    }
    bias_filler {
      type: "constant"
      value: 0.2
    }
  }
}
layer {
  name: "inception_4e/relu_3x3"
  type: "ReLU"
  bottom: "inception_4e/3x3"
  top: "inception_4e/3x3"
}
layer {
  name: "inception_4e/5x5_reduce"
  type: "Convolution"
  bottom: "inception_4d/output"
  top: "inception_4e/5x5_reduce"
  param {
    lr_mult: 1
    decay_mult: 1
  }
  param {
    lr_mult: 2
    decay_mult: 0
  }
  convolution_param {
    num_output: 32
    kernel_size: 1
    weight_filler {
      type: "xavier"
      std: 0.2
    }
    bias_filler {
      type: "constant"
      value: 0.2
    }
  }
}
layer {
  name: "inception_4e/relu_5x5_reduce"
  type: "ReLU"
  bottom: "inception_4e/5x5_reduce"
  top: "inception_4e/5x5_reduce"
}
layer {
  name: "inception_4e/5x5"
  type: "Convolution"
  bottom: "inception_4e/5x5_reduce"
  top: "inception_4e/5x5"
  param {
    lr_mult: 1
    decay_mult: 1
  }
  param {
    lr_mult: 2
    decay_mult: 0
  }
  convolution_param {
    num_output: 128
    pad: 2
    kernel_size: 5
    weight_filler {
      type: "xavier"
      std: 0.03
    }
    bias_filler {
      type: "constant"
      value: 0.2
    }
  }
}
layer {
  name: "inception_4e/relu_5x5"
  type: "ReLU"
  bottom: "inception_4e/5x5"
  top: "inception_4e/5x5"
}
layer {
  name: "inception_4e/pool"
  type: "Pooling"
  bottom: "inception_4d/output"
  top: "inception_4e/pool"
  pooling_param {
    pool: MAX
    kernel_size: 3
    stride: 1
    pad: 1
  }
}
layer {
  name: "inception_4e/pool_proj"
  type: "Convolution"
  bottom: "inception_4e/pool"
  top: "inception_4e/pool_proj"
  param {
    lr_mult: 1
    decay_mult: 1
  }
  param {
    lr_mult: 2
    decay_mult: 0
  }
  convolution_param {
    num_output: 128
    kernel_size: 1
    weight_filler {
      type: "xavier"
      std: 0.1
    }
    bias_filler {
      type: "constant"
      value: 0.2
    }
  }
}
layer {
  name: "inception_4e/relu_pool_proj"
  type: "ReLU"
  bottom: "inception_4e/pool_proj"
  top: "inception_4e/pool_proj"
}
layer {
  name: "inception_4e/output"
  type: "Concat"
  bottom: "inception_4e/1x1"
  bottom: "inception_4e/3x3"
  bottom: "inception_4e/5x5"
  bottom: "inception_4e/pool_proj"
  top: "inception_4e/output"
}
layer {
  name: "pool4/3x3_s2"
  type: "Pooling"
  bottom: "inception_4e/output"
  top: "pool4/3x3_s2"
  pooling_param {
    pool: MAX
    kernel_size: 3
    stride: 2
  }
}
layer {
  name: "inception_5a/1x1"
  type: "Convolution"
  bottom: "pool4/3x3_s2"
  top: "inception_5a/1x1"
  param {
    lr_mult: 1
    decay_mult: 1
  }
  param {
    lr_mult: 2
    decay_mult: 0
  }
  convolution_param {
    num_output: 256
    kernel_size: 1
    weight_filler {
      type: "xavier"
      std: 0.03
    }
    bias_filler {
      type: "constant"
      value: 0.2
    }
  }
}
layer {
  name: "inception_5a/relu_1x1"
  type: "ReLU"
  bottom: "inception_5a/1x1"
  top: "inception_5a/1x1"
}
layer {
  name: "inception_5a/3x3_reduce"
  type: "Convolution"
  bottom: "pool4/3x3_s2"
  top: "inception_5a/3x3_reduce"
  param {
    lr_mult: 1
    decay_mult: 1
  }
  param {
    lr_mult: 2
    decay_mult: 0
  }
  convolution_param {
    num_output: 160
    kernel_size: 1
    weight_filler {
      type: "xavier"
      std: 0.09
    }
    bias_filler {
      type: "constant"
      value: 0.2
    }
  }
}
layer {
  name: "inception_5a/relu_3x3_reduce"
  type: "ReLU"
  bottom: "inception_5a/3x3_reduce"
  top: "inception_5a/3x3_reduce"
}
layer {
  name: "inception_5a/3x3"
  type: "Convolution"
  bottom: "inception_5a/3x3_reduce"
  top: "inception_5a/3x3"
  param {
    lr_mult: 1
    decay_mult: 1
  }
  param {
    lr_mult: 2
    decay_mult: 0
  }
  convolution_param {
    num_output: 320
    pad: 1
    kernel_size: 3
    weight_filler {
      type: "xavier"
      std: 0.03
    }
    bias_filler {
      type: "constant"
      value: 0.2
    }
  }
}
layer {
  name: "inception_5a/relu_3x3"
  type: "ReLU"
  bottom: "inception_5a/3x3"
  top: "inception_5a/3x3"
}
layer {
  name: "inception_5a/5x5_reduce"
  type: "Convolution"
  bottom: "pool4/3x3_s2"
  top: "inception_5a/5x5_reduce"
  param {
    lr_mult: 1
    decay_mult: 1
  }
  param {
    lr_mult: 2
    decay_mult: 0
  }
  convolution_param {
    num_output: 32
    kernel_size: 1
    weight_filler {
      type: "xavier"
      std: 0.2
    }
    bias_filler {
      type: "constant"
      value: 0.2
    }
I0714 23:30:58.202040  2980 net.cpp:49] Initializing net from parameters: 
name: "GoogleNet"
state {
  phase: TEST
}
layer {
  name: "data"
  type: "Input"
  top: "data"
  input_param {
    shape {
      dim: 10
      dim: 3
      dim: 224
      dim: 224
    }
  }
}
layer {
  name: "conv1/7x7_s2"
  type: "Convolution"
  bottom: "data"
  top: "conv1/7x7_s2"
  param {
    lr_mult: 1
    decay_mult: 1
  }
  param {
    lr_mult: 2
    decay_mult: 0
  }
  convolution_param {
    num_output: 64
    pad: 3
    kernel_size: 7
    stride: 2
    weight_filler {
      type: "xavier"
      std: 0.1
    }
    bias_filler {
      type: "constant"
      value: 0.2
    }
  }
}
layer {
  name: "conv1/relu_7x7"
  type: "ReLU"
  bottom: "conv1/7x7_s2"
  top: "conv1/7x7_s2"
}
layer {
  name: "pool1/3x3_s2"
  type: "Pooling"
  bottom: "conv1/7x7_s2"
  top: "pool1/3x3_s2"
  pooling_param {
    pool: MAX
    kernel_size: 3
    stride: 2
  }
}
layer {
  name: "pool1/norm1"
  type: "LRN"
  bottom: "pool1/3x3_s2"
  top: "pool1/norm1"
  lrn_param {
    local_size: 5
    alpha: 0.0001
    beta: 0.75
  }
}
layer {
  name: "conv2/3x3_reduce"
  type: "Convolution"
  bottom: "pool1/norm1"
  top: "conv2/3x3_reduce"
  param {
    lr_mult: 1
    decay_mult: 1
  }
  param {
    lr_mult: 2
    decay_mult: 0
  }
  convolution_param {
    num_output: 64
    kernel_size: 1
    weight_filler {
      type: "xavier"
      std: 0.1
    }
    bias_filler {
      type: "constant"
      value: 0.2
    }
  }
}
layer {
  name: "conv2/relu_3x3_reduce"
  type: "ReLU"
  bottom: "conv2/3x3_reduce"
  top: "conv2/3x3_reduce"
}
layer {
  name: "conv2/3x3"
  type: "Convolution"
  bottom: "conv2/3x3_reduce"
  top: "conv2/3x3"
  param {
    lr_mult: 1
    decay_mult: 1
  }
  param {
    lr_mult: 2
    decay_mult: 0
  }
  convolution_param {
    num_output: 192
    pad: 1
    kernel_size: 3
    weight_filler {
      type: "xavier"
      std: 0.03
    }
    bias_filler {
      type: "constant"
      value: 0.2
    }
  }
}
layer {
  name: "conv2/relu_3x3"
  type: "ReLU"
  bottom: "conv2/3x3"
  top: "conv2/3x3"
}
layer {
  name: "conv2/norm2"
  type: "LRN"
  bottom: "conv2/3x3"
  top: "conv2/norm2"
  lrn_param {
    local_size: 5
    alpha: 0.0001
    beta: 0.75
  }
}
layer {
  name: "pool2/3x3_s2"
  type: "Pooling"
  bottom: "conv2/norm2"
  top: "pool2/3x3_s2"
  pooling_param {
    pool: MAX
    kernel_size: 3
    stride: 2
  }
}
layer {
  name: "inception_3a/1x1"
  type: "Convolution"
  bottom: "pool2/3x3_s2"
  top: "inception_3a/1x1"
  param {
    lr_mult: 1
    decay_mult: 1
  }
  param {
    lr_mult: 2
    decay_mult: 0
  }
  convolution_param {
    num_output: 64
    kernel_size: 1
    weight_filler {
      type: "xavier"
      std: 0.03
    }
    bias_filler {
      type: "constant"
      value: 0.2
    }
  }
}
layer {
  name: "inception_3a/relu_1x1"
  type: "ReLU"
  bottom: "inception_3a/1x1"
  top: "inception_3a/1x1"
}
layer {
  name: "inception_3a/3x3_reduce"
  type: "Convolution"
  bottom: "pool2/3x3_s2"
  top: "inception_3a/3x3_reduce"
  param {
    lr_mult: 1
    decay_mult: 1
  }
  param {
    lr_mult: 2
    decay_mult: 0
  }
  convolution_param {
    num_output: 96
    kernel_size: 1
    weight_filler {
      type: "xavier"
      std: 0.09
    }
    bias_filler {
      type: "constant"
      value: 0.2
    }
  }
}
layer {
  name: "inception_3a/relu_3x3_reduce"
  type: "ReLU"
  bottom: "inception_3a/3x3_reduce"
  top: "inception_3a/3x3_reduce"
}
layer {
  name: "inception_3a/3x3"
  type: "Convolution"
  bottom: "inception_3a/3x3_reduce"
  top: "inception_3a/3x3"
  param {
    lr_mult: 1
    decay_mult: 1
  }
  param {
    lr_mult: 2
    decay_mult: 0
  }
  convolution_param {
    num_output: 128
    pad: 1
    kernel_size: 3
    weight_filler {
      type: "xavier"
      std: 0.03
    }
    bias_filler {
      type: "constant"
      value: 0.2
    }
  }
}
layer {
  name: "inception_3a/relu_3x3"
  type: "ReLU"
  bottom: "inception_3a/3x3"
  top: "inception_3a/3x3"
}
layer {
  name: "inception_3a/5x5_reduce"
  type: "Convolution"
  bottom: "pool2/3x3_s2"
  top: "inception_3a/5x5_reduce"
  param {
    lr_mult: 1
    decay_mult: 1
  }
  param {
    lr_mult: 2
    decay_mult: 0
  }
  convolution_param {
    num_output: 16
    kernel_size: 1
    weight_filler {
      type: "xavier"
      std: 0.2
    }
    bias_filler {
      type: "constant"
      value: 0.2
    }
  }
}
layer {
  name: "inception_3a/relu_5x5_reduce"
  type: "ReLU"
  bottom: "inception_3a/5x5_reduce"
  top: "inception_3a/5x5_reduce"
}
layer {
  name: "inception_3a/5x5"
  type: "Convolution"
  bottom: "inception_3a/5x5_reduce"
  top: "inception_3a/5x5"
  param {
    lr_mult: 1
    decay_mult: 1
  }
  param {
    lr_mult: 2
    decay_mult: 0
  }
  convolution_param {
    num_output: 32
    pad: 2
    kernel_size: 5
    weight_filler {
      type: "xavier"
      std: 0.03
    }
    bias_filler {
      type: "constant"
      value: 0.2
    }
  }
}
layer {
  name: "inception_3a/relu_5x5"
  type: "ReLU"
  bottom: "inception_3a/5x5"
  top: "inception_3a/5x5"
}
layer {
  name: "inception_3a/pool"
  type: "Pooling"
  bottom: "pool2/3x3_s2"
  top: "inception_3a/pool"
  pooling_param {
    pool: MAX
    kernel_size: 3
    stride: 1
    pad: 1
  }
}
layer {
  name: "inception_3a/pool_proj"
  type: "Convolution"
  bottom: "inception_3a/pool"
  top: "inception_3a/pool_proj"
  param {
    lr_mult: 1
    decay_mult: 1
  }
  param {
    lr_mult: 2
    decay_mult: 0
  }
  convolution_param {
    num_output: 32
    kernel_size: 1
    weight_filler {
      type: "xavier"
      std: 0.1
    }
    bias_filler {
      type: "constant"
      value: 0.2
    }
  }
}
layer {
  name: "inception_3a/relu_pool_proj"
  type: "ReLU"
  bottom: "inception_3a/pool_proj"
  top: "inception_3a/pool_proj"
}
layer {
  name: "inception_3a/output"
  type: "Concat"
  bottom: "inception_3a/1x1"
  bottom: "inception_3a/3x3"
  bottom: "inception_3a/5x5"
  bottom: "inception_3a/pool_proj"
  top: "inception_3a/output"
}
layer {
  name: "inception_3b/1x1"
  type: "Convolution"
  bottom: "inception_3a/output"
  top: "inception_3b/1x1"
  param {
    lr_mult: 1
    decay_mult: 1
  }
  param {
    lr_mult: 2
    decay_mult: 0
  }
  convolution_param {
    num_output: 128
    kernel_size: 1
    weight_filler {
      type: "xavier"
      std: 0.03
    }
    bias_filler {
      type: "constant"
      value: 0.2
    }
  }
}
layer {
  name: "inception_3b/relu_1x1"
  type: "ReLU"
  bottom: "inception_3b/1x1"
  top: "inception_3b/1x1"
}
layer {
  name: "inception_3b/3x3_reduce"
  type: "Convolution"
  bottom: "inception_3a/output"
  top: "inception_3b/3x3_reduce"
  param {
    lr_mult: 1
    decay_mult: 1
  }
  param {
    lr_mult: 2
    decay_mult: 0
  }
  convolution_param {
    num_output: 128
    kernel_size: 1
    weight_filler {
      type: "xavier"
      std: 0.09
    }
    bias_filler {
      type: "constant"
      value: 0.2
    }
  }
}
layer {
  name: "inception_3b/relu_3x3_reduce"
  type: "ReLU"
  bottom: "inception_3b/3x3_reduce"
  top: "inception_3b/3x3_reduce"
}
layer {
  name: "inception_3b/3x3"
  type: "Convolution"
  bottom: "inception_3b/3x3_reduce"
  top: "inception_3b/3x3"
  param {
    lr_mult: 1
    decay_mult: 1
  }
  param {
    lr_mult: 2
    decay_mult: 0
  }
  convolution_param {
    num_output: 192
    pad: 1
    kernel_size: 3
    weight_filler {
      type: "xavier"
      std: 0.03
    }
    bias_filler {
      type: "constant"
      value: 0.2
    }
  }
}
layer {
  name: "inception_3b/relu_3x3"
  type: "ReLU"
  bottom: "inception_3b/3x3"
  top: "inception_3b/3x3"
}
layer {
  name: "inception_3b/5x5_reduce"
  type: "Convolution"
  bottom: "inception_3a/output"
  top: "inception_3b/5x5_reduce"
  param {
    lr_mult: 1
    decay_mult: 1
  }
  param {
    lr_mult: 2
    decay_mult: 0
  }
  convolution_param {
    num_output: 32
    kernel_size: 1
    weight_filler {
      type: "xavier"
      std: 0.2
    }
    bias_filler {
      type: "constant"
      value: 0.2
    }
  }
}
layer {
  name: "inception_3b/relu_5x5_reduce"
  type: "ReLU"
  bottom: "inception_3b/5x5_reduce"
  top: "inception_3b/5x5_reduce"
}
layer {
  name: "inception_3b/5x5"
  type: "Convolution"
  bottom: "inception_3b/5x5_reduce"
  top: "inception_3b/5x5"
  param {
    lr_mult: 1
    decay_mult: 1
  }
  param {
    lr_mult: 2
    decay_mult: 0
  }
  convolution_param {
    num_output: 96
    pad: 2
    kernel_size: 5
    weight_filler {
      type: "xavier"
      std: 0.03
    }
    bias_filler {
      type: "constant"
      value: 0.2
    }
  }
}
layer {
  name: "inception_3b/relu_5x5"
  type: "ReLU"
  bottom: "inception_3b/5x5"
  top: "inception_3b/5x5"
}
layer {
  name: "inception_3b/pool"
  type: "Pooling"
  bottom: "inception_3a/output"
  top: "inception_3b/pool"
  pooling_param {
    pool: MAX
    kernel_size: 3
    stride: 1
    pad: 1
  }
}
layer {
  name: "inception_3b/pool_proj"
  type: "Convolution"
  bottom: "inception_3b/pool"
  top: "inception_3b/pool_proj"
  param {
    lr_mult: 1
    decay_mult: 1
  }
  param {
    lr_mult: 2
    decay_mult: 0
  }
  convolution_param {
    num_output: 64
    kernel_size: 1
    weight_filler {
      type: "xavier"
      std: 0.1
    }
    bias_filler {
      type: "constant"
      value: 0.2
    }
  }
}
layer {
  name: "inception_3b/relu_pool_proj"
  type: "ReLU"
  bottom: "inception_3b/pool_proj"
  top: "inception_3b/pool_proj"
}
layer {
  name: "inception_3b/output"
  type: "Concat"
  bottom: "inception_3b/1x1"
  bottom: "inception_3b/3x3"
  bottom: "inception_3b/5x5"
  bottom: "inception_3b/pool_proj"
  top: "inception_3b/output"
}
layer {
  name: "pool3/3x3_s2"
  type: "Pooling"
  bottom: "inception_3b/output"
  top: "pool3/3x3_s2"
  pooling_param {
    pool: MAX
    kernel_size: 3
    stride: 2
  }
}
layer {
  name: "inception_4a/1x1"
  type: "Convolution"
  bottom: "pool3/3x3_s2"
  top: "inception_4a/1x1"
  param {
    lr_mult: 1
    decay_mult: 1
  }
  param {
    lr_mult: 2
    decay_mult: 0
  }
  convolution_param {
    num_output: 192
    kernel_size: 1
    weight_filler {
      type: "xavier"
      std: 0.03
    }
    bias_filler {
      type: "constant"
      value: 0.2
    }
  }
}
layer {
  name: "inception_4a/relu_1x1"
  type: "ReLU"
  bottom: "inception_4a/1x1"
  top: "inception_4a/1x1"
}
layer {
  name: "inception_4a/3x3_reduce"
  type: "Convolution"
  bottom: "pool3/3x3_s2"
  top: "inception_4a/3x3_reduce"
  param {
    lr_mult: 1
    decay_mult: 1
  }
  param {
    lr_mult: 2
    decay_mult: 0
  }
  convolution_param {
    num_output: 96
    kernel_size: 1
    weight_filler {
      type: "xavier"
      std: 0.09
    }
    bias_filler {
      type: "constant"
      value: 0.2
    }
  }
}
layer {
  name: "inception_4a/relu_3x3_reduce"
  type: "ReLU"
  bottom: "inception_4a/3x3_reduce"
  top: "inception_4a/3x3_reduce"
}
layer {
  name: "inception_4a/3x3"
  type: "Convolution"
  bottom: "inception_4a/3x3_reduce"
  top: "inception_4a/3x3"
  param {
    lr_mult: 1
    decay_mult: 1
  }
  param {
    lr_mult: 2
    decay_mult: 0
  }
  convolution_param {
    num_output: 208
    pad: 1
    kernel_size: 3
    weight_filler {
      type: "xavier"
      std: 0.03
    }
    bias_filler {
      type: "constant"
      value: 0.2
    }
  }
}
layer {
  name: "inception_4a/relu_3x3"
  type: "ReLU"
  bottom: "inception_4a/3x3"
  top: "inception_4a/3x3"
}
layer {
  name: "inception_4a/5x5_reduce"
  type: "Convolution"
  bottom: "pool3/3x3_s2"
  top: "inception_4a/5x5_reduce"
  param {
    lr_mult: 1
    decay_mult: 1
  }
  param {
    lr_mult: 2
    decay_mult: 0
  }
  convolution_param {
    num_output: 16
    kernel_size: 1
    weight_filler {
      type: "xavier"
      std: 0.2
    }
    bias_filler {
      type: "constant"
      value: 0.2
    }
  }
}
layer {
  name: "inception_4a/relu_5x5_reduce"
  type: "ReLU"
  bottom: "inception_4a/5x5_reduce"
  top: "inception_4a/5x5_reduce"
}
layer {
  name: "inception_4a/5x5"
  type: "Convolution"
  bottom: "inception_4a/5x5_reduce"
  top: "inception_4a/5x5"
  param {
    lr_mult: 1
    decay_mult: 1
  }
  param {
    lr_mult: 2
    decay_mult: 0
  }
  convolution_param {
    num_output: 48
    pad: 2
    kernel_size: 5
    weight_filler {
      type: "xavier"
      std: 0.03
    }
    bias_filler {
      type: "constant"
      value: 0.2
    }
  }
}
layer {
  name: "inception_4a/relu_5x5"
  type: "ReLU"
  bottom: "inception_4a/5x5"
  top: "inception_4a/5x5"
}
layer {
  name: "inception_4a/pool"
  type: "Pooling"
  bottom: "pool3/3x3_s2"
  top: "inception_4a/pool"
  pooling_param {
    pool: MAX
    kernel_size: 3
    stride: 1
    pad: 1
  }
}
layer {
  name: "inception_4a/pool_proj"
  type: "Convolution"
  bottom: "inception_4a/pool"
  top: "inception_4a/pool_proj"
  param {
    lr_mult: 1
    decay_mult: 1
  }
  param {
    lr_mult: 2
    decay_mult: 0
  }
  convolution_param {
    num_output: 64
    kernel_size: 1
    weight_filler {
      type: "xavier"
      std: 0.1
    }
    bias_filler {
      type: "constant"
      value: 0.2
    }
  }
}
layer {
  name: "inception_4a/relu_pool_proj"
  type: "ReLU"
  bottom: "inception_4a/pool_proj"
  top: "inception_4a/pool_proj"
}
layer {
  name: "inception_4a/output"
  type: "Concat"
  bottom: "inception_4a/1x1"
  bottom: "inception_4a/3x3"
  bottom: "inception_4a/5x5"
  bottom: "inception_4a/pool_proj"
  top: "inception_4a/output"
}
layer {
  name: "inception_4b/1x1"
  type: "Convolution"
  bottom: "inception_4a/output"
  top: "inception_4b/1x1"
  param {
    lr_mult: 1
    decay_mult: 1
  }
  param {
    lr_mult: 2
    decay_mult: 0
  }
  convolution_param {
    num_output: 160
    kernel_size: 1
    weight_filler {
      type: "xavier"
      std: 0.03
    }
    bias_filler {
      type: "constant"
      value: 0.2
    }
  }
}
layer {
  name: "inception_4b/relu_1x1"
  type: "ReLU"
  bottom: "inception_4b/1x1"
  top: "inception_4b/1x1"
}
layer {
  name: "inception_4b/3x3_reduce"
  type: "Convolution"
  bottom: "inception_4a/output"
  top: "inception_4b/3x3_reduce"
  param {
    lr_mult: 1
    decay_mult: 1
  }
  param {
    lr_mult: 2
    decay_mult: 0
  }
  convolution_param {
    num_output: 112
    kernel_size: 1
    weight_filler {
      type: "xavier"
      std: 0.09
    }
    bias_filler {
      type: "constant"
      value: 0.2
    }
  }
}
layer {
  name: "inception_4b/relu_3x3_reduce"
  type: "ReLU"
  bottom: "inception_4b/3x3_reduce"
  top: "inception_4b/3x3_reduce"
}
layer {
  name: "inception_4b/3x3"
  type: "Convolution"
  bottom: "inception_4b/3x3_reduce"
  top: "inception_4b/3x3"
  param {
    lr_mult: 1
    decay_mult: 1
  }
  param {
    lr_mult: 2
    decay_mult: 0
  }
  convolution_param {
    num_output: 224
    pad: 1
    kernel_size: 3
    weight_filler {
      type: "xavier"
      std: 0.03
    }
    bias_filler {
      type: "constant"
      value: 0.2
    }
  }
}
layer {
  name: "inception_4b/relu_3x3"
  type: "ReLU"
  bottom: "inception_4b/3x3"
  top: "inception_4b/3x3"
}
layer {
  name: "inception_4b/5x5_reduce"
  type: "Convolution"
  bottom: "inception_4a/output"
  top: "inception_4b/5x5_reduce"
  param {
    lr_mult: 1
    decay_mult: 1
  }
  param {
    lr_mult: 2
    decay_mult: 0
  }
  convolution_param {
    num_output: 24
    kernel_size: 1
    weight_filler {
      type: "xavier"
      std: 0.2
    }
    bias_filler {
      type: "constant"
      value: 0.2
    }
  }
}
layer {
  name: "inception_4b/relu_5x5_reduce"
  type: "ReLU"
  bottom: "inception_4b/5x5_reduce"
  top: "inception_4b/5x5_reduce"
}
layer {
  name: "inception_4b/5x5"
  type: "Convolution"
  bottom: "inception_4b/5x5_reduce"
  top: "inception_4b/5x5"
  param {
    lr_mult: 1
    decay_mult: 1
  }
  param {
    lr_mult: 2
    decay_mult: 0
  }
  convolution_param {
    num_output: 64
    pad: 2
    kernel_size: 5
    weight_filler {
      type: "xavier"
      std: 0.03
    }
    bias_filler {
      type: "constant"
      value: 0.2
    }
  }
}
layer {
  name: "inception_4b/relu_5x5"
  type: "ReLU"
  bottom: "inception_4b/5x5"
  top: "inception_4b/5x5"
}
layer {
  name: "inception_4b/pool"
  type: "Pooling"
  bottom: "inception_4a/output"
  top: "inception_4b/pool"
  pooling_param {
    pool: MAX
    kernel_size: 3
    stride: 1
    pad: 1
  }
}
layer {
  name: "inception_4b/pool_proj"
  type: "Convolution"
  bottom: "inception_4b/pool"
  top: "inception_4b/pool_proj"
  param {
    lr_mult: 1
    decay_mult: 1
  }
  param {
    lr_mult: 2
    decay_mult: 0
  }
  convolution_param {
    num_output: 64
    kernel_size: 1
    weight_filler {
      type: "xavier"
      std: 0.1
    }
    bias_filler {
      type: "constant"
      value: 0.2
    }
  }
}
layer {
  name: "inception_4b/relu_pool_proj"
  type: "ReLU"
  bottom: "inception_4b/pool_proj"
  top: "inception_4b/pool_proj"
}
layer {
  name: "inception_4b/output"
  type: "Concat"
  bottom: "inception_4b/1x1"
  bottom: "inception_4b/3x3"
  bottom: "inception_4b/5x5"
  bottom: "inception_4b/pool_proj"
  top: "inception_4b/output"
}
layer {
  name: "inception_4c/1x1"
  type: "Convolution"
  bottom: "inception_4b/output"
  top: "inception_4c/1x1"
  param {
    lr_mult: 1
    decay_mult: 1
  }
  param {
    lr_mult: 2
    decay_mult: 0
  }
  convolution_param {
    num_output: 128
    kernel_size: 1
    weight_filler {
      type: "xavier"
      std: 0.03
    }
    bias_filler {
      type: "constant"
      value: 0.2
    }
  }
}
layer {
  name: "inception_4c/relu_1x1"
  type: "ReLU"
  bottom: "inception_4c/1x1"
  top: "inception_4c/1x1"
}
layer {
  name: "inception_4c/3x3_reduce"
  type: "Convolution"
  bottom: "inception_4b/output"
  top: "inception_4c/3x3_reduce"
  param {
    lr_mult: 1
    decay_mult: 1
  }
  param {
    lr_mult: 2
    decay_mult: 0
  }
  convolution_param {
    num_output: 128
    kernel_size: 1
    weight_filler {
      type: "xavier"
      std: 0.09
    }
    bias_filler {
      type: "constant"
      value: 0.2
    }
  }
}
layer {
  name: "inception_4c/relu_3x3_reduce"
  type: "ReLU"
  bottom: "inception_4c/3x3_reduce"
  top: "inception_4c/3x3_reduce"
}
layer {
  name: "inception_4c/3x3"
  type: "Convolution"
  bottom: "inception_4c/3x3_reduce"
  top: "inception_4c/3x3"
  param {
    lr_mult: 1
    decay_mult: 1
  }
  param {
    lr_mult: 2
    decay_mult: 0
  }
  convolution_param {
    num_output: 256
    pad: 1
    kernel_size: 3
    weight_filler {
      type: "xavier"
      std: 0.03
    }
    bias_filler {
      type: "constant"
      value: 0.2
    }
  }
}
layer {
  name: "inception_4c/relu_3x3"
  type: "ReLU"
  bottom: "inception_4c/3x3"
  top: "inception_4c/3x3"
}
layer {
  name: "inception_4c/5x5_reduce"
  type: "Convolution"
  bottom: "inception_4b/output"
  top: "inception_4c/5x5_reduce"
  param {
    lr_mult: 1
    decay_mult: 1
  }
  param {
    lr_mult: 2
    decay_mult: 0
  }
  convolution_param {
    num_output: 24
    kernel_size: 1
    weight_filler {
      type: "xavier"
      std: 0.2
    }
    bias_filler {
      type: "constant"
      value: 0.2
    }
  }
}
layer {
  name: "inception_4c/relu_5x5_reduce"
  type: "ReLU"
  bottom: "inception_4c/5x5_reduce"
  top: "inception_4c/5x5_reduce"
}
layer {
  name: "inception_4c/5x5"
  type: "Convolution"
  bottom: "inception_4c/5x5_reduce"
  top: "inception_4c/5x5"
  param {
    lr_mult: 1
    decay_mult: 1
  }
  param {
    lr_mult: 2
    decay_mult: 0
  }
  convolution_param {
    num_output: 64
    pad: 2
    kernel_size: 5
    weight_filler {
      type: "xavier"
      std: 0.03
    }
    bias_filler {
      type: "constant"
      value: 0.2
    }
  }
}
layer {
  name: "inception_4c/relu_5x5"
  type: "ReLU"
  bottom: "inception_4c/5x5"
  top: "inception_4c/5x5"
}
layer {
  name: "inception_4c/pool"
  type: "Pooling"
  bottom: "inception_4b/output"
  top: "inception_4c/pool"
  pooling_param {
    pool: MAX
    kernel_size: 3
    stride: 1
    pad: 1
  }
}
layer {
  name: "inception_4c/pool_proj"
  type: "Convolution"
  bottom: "inception_4c/pool"
  top: "inception_4c/pool_proj"
  param {
    lr_mult: 1
    decay_mult: 1
  }
  param {
    lr_mult: 2
    decay_mult: 0
  }
  convolution_param {
    num_output: 64
    kernel_size: 1
    weight_filler {
      type: "xavier"
      std: 0.1
    }
    bias_filler {
      type: "constant"
      value: 0.2
    }
  }
}
layer {
  name: "inception_4c/relu_pool_proj"
  type: "ReLU"
  bottom: "inception_4c/pool_proj"
  top: "inception_4c/pool_proj"
}
layer {
  name: "inception_4c/output"
  type: "Concat"
  bottom: "inception_4c/1x1"
  bottom: "inception_4c/3x3"
  bottom: "inception_4c/5x5"
  bottom: "inception_4c/pool_proj"
  top: "inception_4c/output"
}
layer {
  name: "inception_4d/1x1"
  type: "Convolution"
  bottom: "inception_4c/output"
  top: "inception_4d/1x1"
  param {
    lr_mult: 1
    decay_mult: 1
  }
  param {
    lr_mult: 2
    decay_mult: 0
  }
  convolution_param {
    num_output: 112
    kernel_size: 1
    weight_filler {
      type: "xavier"
      std: 0.03
    }
    bias_filler {
      type: "constant"
      value: 0.2
    }
  }
}
layer {
  name: "inception_4d/relu_1x1"
  type: "ReLU"
  bottom: "inception_4d/1x1"
  top: "inception_4d/1x1"
}
layer {
  name: "inception_4d/3x3_reduce"
  type: "Convolution"
  bottom: "inception_4c/output"
  top: "inception_4d/3x3_reduce"
  param {
    lr_mult: 1
    decay_mult: 1
  }
  param {
    lr_mult: 2
    decay_mult: 0
  }
  convolution_param {
    num_output: 144
    kernel_size: 1
    weight_filler {
      type: "xavier"
      std: 0.09
    }
    bias_filler {
      type: "constant"
      value: 0.2
    }
  }
}
layer {
  name: "inception_4d/relu_3x3_reduce"
  type: "ReLU"
  bottom: "inception_4d/3x3_reduce"
  top: "inception_4d/3x3_reduce"
}
layer {
  name: "inception_4d/3x3"
  type: "Convolution"
  bottom: "inception_4d/3x3_reduce"
  top: "inception_4d/3x3"
  param {
    lr_mult: 1
    decay_mult: 1
  }
  param {
    lr_mult: 2
    decay_mult: 0
  }
  convolution_param {
    num_output: 288
    pad: 1
    kernel_size: 3
    weight_filler {
      type: "xavier"
      std: 0.03
    }
    bias_filler {
      type: "constant"
      value: 0.2
    }
  }
}
layer {
  name: "inception_4d/relu_3x3"
  type: "ReLU"
  bottom: "inception_4d/3x3"
  top: "inception_4d/3x3"
}
layer {
  name: "inception_4d/5x5_reduce"
  type: "Convolution"
  bottom: "inception_4c/output"
  top: "inception_4d/5x5_reduce"
  param {
    lr_mult: 1
    decay_mult: 1
  }
  param {
    lr_mult: 2
    decay_mult: 0
  }
  convolution_param {
    num_output: 32
    kernel_size: 1
    weight_filler {
      type: "xavier"
      std: 0.2
    }
    bias_filler {
      type: "constant"
      value: 0.2
    }
  }
}
layer {
  name: "inception_4d/relu_5x5_reduce"
  type: "ReLU"
  bottom: "inception_4d/5x5_reduce"
  top: "inception_4d/5x5_reduce"
}
layer {
  name: "inception_4d/5x5"
  type: "Convolution"
  bottom: "inception_4d/5x5_reduce"
  top: "inception_4d/5x5"
  param {
    lr_mult: 1
    decay_mult: 1
  }
  param {
    lr_mult: 2
    decay_mult: 0
  }
  convolution_param {
    num_output: 64
    pad: 2
    kernel_size: 5
    weight_filler {
      type: "xavier"
      std: 0.03
    }
    bias_filler {
      type: "constant"
      value: 0.2
    }
  }
}
layer {
  name: "inception_4d/relu_5x5"
  type: "ReLU"
  bottom: "inception_4d/5x5"
  top: "inception_4d/5x5"
}
layer {
  name: "inception_4d/pool"
  type: "Pooling"
  bottom: "inception_4c/output"
  top: "inception_4d/pool"
  pooling_param {
    pool: MAX
    kernel_size: 3
    stride: 1
    pad: 1
  }
}
layer {
  name: "inception_4d/pool_proj"
  type: "Convolution"
  bottom: "inception_4d/pool"
  top: "inception_4d/pool_proj"
  param {
    lr_mult: 1
    decay_mult: 1
  }
  param {
    lr_mult: 2
    decay_mult: 0
  }
  convolution_param {
    num_output: 64
    kernel_size: 1
    weight_filler {
      type: "xavier"
      std: 0.1
    }
    bias_filler {
      type: "constant"
      value: 0.2
    }
  }
}
layer {
  name: "inception_4d/relu_pool_proj"
  type: "ReLU"
  bottom: "inception_4d/pool_proj"
  top: "inception_4d/pool_proj"
}
layer {
  name: "inception_4d/output"
  type: "Concat"
  bottom: "inception_4d/1x1"
  bottom: "inception_4d/3x3"
  bottom: "inception_4d/5x5"
  bottom: "inception_4d/pool_proj"
  top: "inception_4d/output"
}
layer {
  name: "inception_4e/1x1"
  type: "Convolution"
  bottom: "inception_4d/output"
  top: "inception_4e/1x1"
  param {
    lr_mult: 1
    decay_mult: 1
  }
  param {
    lr_mult: 2
    decay_mult: 0
  }
  convolution_param {
    num_output: 256
    kernel_size: 1
    weight_filler {
      type: "xavier"
      std: 0.03
    }
    bias_filler {
      type: "constant"
      value: 0.2
    }
  }
}
layer {
  name: "inception_4e/relu_1x1"
  type: "ReLU"
  bottom: "inception_4e/1x1"
  top: "inception_4e/1x1"
}
layer {
  name: "inception_4e/3x3_reduce"
  type: "Convolution"
  bottom: "inception_4d/output"
  top: "inception_4e/3x3_reduce"
  param {
    lr_mult: 1
    decay_mult: 1
  }
  param {
    lr_mult: 2
    decay_mult: 0
  }
  convolution_param {
    num_output: 160
    kernel_size: 1
    weight_filler {
      type: "xavier"
      std: 0.09
    }
    bias_filler {
      type: "constant"
      value: 0.2
    }
  }
}
layer {
  name: "inception_4e/relu_3x3_reduce"
  type: "ReLU"
  bottom: "inception_4e/3x3_reduce"
  top: "inception_4e/3x3_reduce"
}
layer {
  name: "inception_4e/3x3"
  type: "Convolution"
  bottom: "inception_4e/3x3_reduce"
  top: "inception_4e/3x3"
  param {
    lr_mult: 1
    decay_mult: 1
  }
  param {
    lr_mult: 2
    decay_mult: 0
  }
  convolution_param {
    num_output: 320
    pad: 1
    kernel_size: 3
    weight_filler {
      type: "xavier"
      std: 0.03
    }
    bias_filler {
      type: "constant"
      value: 0.2
    }
  }
}
layer {
  name: "inception_4e/relu_3x3"
  type: "ReLU"
  bottom: "inception_4e/3x3"
  top: "inception_4e/3x3"
}
layer {
  name: "inception_4e/5x5_reduce"
  type: "Convolution"
  bottom: "inception_4d/output"
  top: "inception_4e/5x5_reduce"
  param {
    lr_mult: 1
    decay_mult: 1
  }
  param {
    lr_mult: 2
    decay_mult: 0
  }
  convolution_param {
    num_output: 32
    kernel_size: 1
    weight_filler {
      type: "xavier"
      std: 0.2
    }
    bias_filler {
      type: "constant"
      value: 0.2
    }
  }
}
layer {
  name: "inception_4e/relu_5x5_reduce"
  type: "ReLU"
  bottom: "inception_4e/5x5_reduce"
  top: "inception_4e/5x5_reduce"
}
layer {
  name: "inception_4e/5x5"
  type: "Convolution"
  bottom: "inception_4e/5x5_reduce"
  top: "inception_4e/5x5"
  param {
    lr_mult: 1
    decay_mult: 1
  }
  param {
    lr_mult: 2
    decay_mult: 0
  }
  convolution_param {
    num_output: 128
    pad: 2
    kernel_size: 5
    weight_filler {
      type: "xavier"
      std: 0.03
    }
    bias_filler {
      type: "constant"
      value: 0.2
    }
  }
}
layer {
  name: "inception_4e/relu_5x5"
  type: "ReLU"
  bottom: "inception_4e/5x5"
  top: "inception_4e/5x5"
}
layer {
  name: "inception_4e/pool"
  type: "Pooling"
  bottom: "inception_4d/output"
  top: "inception_4e/pool"
  pooling_param {
    pool: MAX
    kernel_size: 3
    stride: 1
    pad: 1
  }
}
layer {
  name: "inception_4e/pool_proj"
  type: "Convolution"
  bottom: "inception_4e/pool"
  top: "inception_4e/pool_proj"
  param {
    lr_mult: 1
    decay_mult: 1
  }
  param {
    lr_mult: 2
    decay_mult: 0
  }
  convolution_param {
    num_output: 128
    kernel_size: 1
    weight_filler {
      type: "xavier"
      std: 0.1
    }
    bias_filler {
      type: "constant"
      value: 0.2
    }
  }
}
layer {
  name: "inception_4e/relu_pool_proj"
  type: "ReLU"
  bottom: "inception_4e/pool_proj"
  top: "inception_4e/pool_proj"
}
layer {
  name: "inception_4e/output"
  type: "Concat"
  bottom: "inception_4e/1x1"
  bottom: "inception_4e/3x3"
  bottom: "inception_4e/5x5"
  bottom: "inception_4e/pool_proj"
  top: "inception_4e/output"
}
layer {
  name: "pool4/3x3_s2"
  type: "Pooling"
  bottom: "inception_4e/output"
  top: "pool4/3x3_s2"
  pooling_param {
    pool: MAX
    kernel_size: 3
    stride: 2
  }
}
layer {
  name: "inception_5a/1x1"
  type: "Convolution"
  bottom: "pool4/3x3_s2"
  top: "inception_5a/1x1"
  param {
    lr_mult: 1
    decay_mult: 1
  }
  param {
    lr_mult: 2
    decay_mult: 0
  }
  convolution_param {
    num_output: 256
    kernel_size: 1
    weight_filler {
      type: "xavier"
      std: 0.03
    }
    bias_filler {
      type: "constant"
      value: 0.2
    }
  }
}
layer {
  name: "inception_5a/relu_1x1"
  type: "ReLU"
  bottom: "inception_5a/1x1"
  top: "inception_5a/1x1"
}
layer {
  name: "inception_5a/3x3_reduce"
  type: "Convolution"
  bottom: "pool4/3x3_s2"
  top: "inception_5a/3x3_reduce"
  param {
    lr_mult: 1
    decay_mult: 1
  }
  param {
    lr_mult: 2
    decay_mult: 0
  }
  convolution_param {
    num_output: 160
    kernel_size: 1
    weight_filler {
      type: "xavier"
      std: 0.09
    }
    bias_filler {
      type: "constant"
      value: 0.2
    }
  }
}
layer {
  name: "inception_5a/relu_3x3_reduce"
  type: "ReLU"
  bottom: "inception_5a/3x3_reduce"
  top: "inception_5a/3x3_reduce"
}
layer {
  name: "inception_5a/3x3"
  type: "Convolution"
  bottom: "inception_5a/3x3_reduce"
  top: "inception_5a/3x3"
  param {
    lr_mult: 1
    decay_mult: 1
  }
  param {
    lr_mult: 2
    decay_mult: 0
  }
  convolution_param {
    num_output: 320
    pad: 1
    kernel_size: 3
    weight_filler {
      type: "xavier"
      std: 0.03
    }
    bias_filler {
      type: "constant"
      value: 0.2
    }
  }
}
layer {
  name: "inception_5a/relu_3x3"
  type: "ReLU"
  bottom: "inception_5a/3x3"
  top: "inception_5a/3x3"
}
layer {
  name: "inception_5a/5x5_reduce"
  type: "Convolution"
  bottom: "pool4/3x3_s2"
  top: "inception_5a/5x5_reduce"
  param {
    lr_mult: 1
    decay_mult: 1
  }
  param {
    lr_mult: 2
    decay_mult: 0
  }
  convolution_param {
    num_output: 32
    kernel_size: 1
    weight_filler {
      type: "xavier"
      std: 0.2
    }
    bias_filler {
      type: "constant"
      value: 0.2
    }
I0714 23:30:58.203091  2976 layer_factory.hpp:77] Creating layer data
I0714 23:30:58.203095  2980 layer_factory.hpp:77] Creating layer data
I0714 23:30:58.203125  2980 net.cpp:91] Creating Layer data
I0714 23:30:58.203125  2976 net.cpp:91] Creating Layer data
I0714 23:30:58.203141  2980 net.cpp:399] data -> data
I0714 23:30:58.203143  2976 net.cpp:399] data -> data
I0714 23:30:58.728816  2976 net.cpp:141] Setting up data
I0714 23:30:58.728879  2976 net.cpp:148] Top shape: 10 3 224 224 (1505280)
I0714 23:30:58.728885  2976 net.cpp:156] Memory required for data: 6021120
I0714 23:30:58.728904  2976 layer_factory.hpp:77] Creating layer conv1/7x7_s2
I0714 23:30:58.728893  2980 net.cpp:141] Setting up data
I0714 23:30:58.728941  2980 net.cpp:148] Top shape: 10 3 224 224 (1505280)
I0714 23:30:58.728947  2980 net.cpp:156] Memory required for data: 6021120
I0714 23:30:58.728953  2976 net.cpp:91] Creating Layer conv1/7x7_s2
I0714 23:30:58.728958  2980 layer_factory.hpp:77] Creating layer conv1/7x7_s2
I0714 23:30:58.728963  2976 net.cpp:425] conv1/7x7_s2 <- data
I0714 23:30:58.728976  2976 net.cpp:399] conv1/7x7_s2 -> conv1/7x7_s2
I0714 23:30:58.728988  2980 net.cpp:91] Creating Layer conv1/7x7_s2
I0714 23:30:58.728996  2980 net.cpp:425] conv1/7x7_s2 <- data
I0714 23:30:58.729015  2980 net.cpp:399] conv1/7x7_s2 -> conv1/7x7_s2
I0714 23:30:58.980813  2980 net.cpp:141] Setting up conv1/7x7_s2
I0714 23:30:58.980813  2976 net.cpp:141] Setting up conv1/7x7_s2
I0714 23:30:58.980881  2980 net.cpp:148] Top shape: 10 64 112 112 (8028160)
I0714 23:30:58.980882  2976 net.cpp:148] Top shape: 10 64 112 112 (8028160)
I0714 23:30:58.980891  2980 net.cpp:156] Memory required for data: 38133760
I0714 23:30:58.980895  2976 net.cpp:156] Memory required for data: 38133760
I0714 23:30:58.980927  2976 layer_factory.hpp:77] Creating layer conv1/relu_7x7
I0714 23:30:58.980927  2980 layer_factory.hpp:77] Creating layer conv1/relu_7x7
I0714 23:30:58.980953  2976 net.cpp:91] Creating Layer conv1/relu_7x7
I0714 23:30:58.980957  2980 net.cpp:91] Creating Layer conv1/relu_7x7
I0714 23:30:58.980962  2976 net.cpp:425] conv1/relu_7x7 <- conv1/7x7_s2
I0714 23:30:58.980963  2980 net.cpp:425] conv1/relu_7x7 <- conv1/7x7_s2
I0714 23:30:58.980975  2976 net.cpp:386] conv1/relu_7x7 -> conv1/7x7_s2 (in-place)
I0714 23:30:58.980978  2980 net.cpp:386] conv1/relu_7x7 -> conv1/7x7_s2 (in-place)
I0714 23:30:58.982158  2976 net.cpp:141] Setting up conv1/relu_7x7
I0714 23:30:58.982161  2980 net.cpp:141] Setting up conv1/relu_7x7
I0714 23:30:58.982175  2976 net.cpp:148] Top shape: 10 64 112 112 (8028160)
I0714 23:30:58.982180  2976 net.cpp:156] Memory required for data: 70246400
I0714 23:30:58.982182  2980 net.cpp:148] Top shape: 10 64 112 112 (8028160)
I0714 23:30:58.982187  2976 layer_factory.hpp:77] Creating layer pool1/3x3_s2
I0714 23:30:58.982187  2980 net.cpp:156] Memory required for data: 70246400
I0714 23:30:58.982200  2980 layer_factory.hpp:77] Creating layer pool1/3x3_s2
I0714 23:30:58.982205  2976 net.cpp:91] Creating Layer pool1/3x3_s2
I0714 23:30:58.982211  2976 net.cpp:425] pool1/3x3_s2 <- conv1/7x7_s2
I0714 23:30:58.982213  2980 net.cpp:91] Creating Layer pool1/3x3_s2
I0714 23:30:58.982218  2980 net.cpp:425] pool1/3x3_s2 <- conv1/7x7_s2
I0714 23:30:58.982220  2976 net.cpp:399] pool1/3x3_s2 -> pool1/3x3_s2
I0714 23:30:58.982226  2980 net.cpp:399] pool1/3x3_s2 -> pool1/3x3_s2
I0714 23:30:58.982347  2976 net.cpp:141] Setting up pool1/3x3_s2
I0714 23:30:58.982359  2976 net.cpp:148] Top shape: 10 64 56 56 (2007040)
I0714 23:30:58.982364  2976 net.cpp:156] Memory required for data: 78274560
I0714 23:30:58.982369  2976 layer_factory.hpp:77] Creating layer pool1/norm1
I0714 23:30:58.982377  2980 net.cpp:141] Setting up pool1/3x3_s2
I0714 23:30:58.982389  2980 net.cpp:148] Top shape: 10 64 56 56 (2007040)
I0714 23:30:58.982390  2976 net.cpp:91] Creating Layer pool1/norm1
I0714 23:30:58.982394  2980 net.cpp:156] Memory required for data: 78274560
I0714 23:30:58.982398  2976 net.cpp:425] pool1/norm1 <- pool1/3x3_s2
I0714 23:30:58.982400  2980 layer_factory.hpp:77] Creating layer pool1/norm1
I0714 23:30:58.982405  2976 net.cpp:399] pool1/norm1 -> pool1/norm1
I0714 23:30:58.982414  2980 net.cpp:91] Creating Layer pool1/norm1
I0714 23:30:58.982419  2980 net.cpp:425] pool1/norm1 <- pool1/3x3_s2
I0714 23:30:58.982426  2980 net.cpp:399] pool1/norm1 -> pool1/norm1
I0714 23:30:58.983680  2980 net.cpp:141] Setting up pool1/norm1
I0714 23:30:58.983695  2980 net.cpp:148] Top shape: 10 64 56 56 (2007040)
I0714 23:30:58.983700  2980 net.cpp:156] Memory required for data: 86302720
I0714 23:30:58.983705  2980 layer_factory.hpp:77] Creating layer conv2/3x3_reduce
I0714 23:30:58.983708  2976 net.cpp:141] Setting up pool1/norm1
I0714 23:30:58.983723  2976 net.cpp:148] Top shape: 10 64 56 56 (2007040)
I0714 23:30:58.983727  2976 net.cpp:156] Memory required for data: 86302720
I0714 23:30:58.983729  2980 net.cpp:91] Creating Layer conv2/3x3_reduce
I0714 23:30:58.983733  2976 layer_factory.hpp:77] Creating layer conv2/3x3_reduce
I0714 23:30:58.983736  2980 net.cpp:425] conv2/3x3_reduce <- pool1/norm1
I0714 23:30:58.983747  2980 net.cpp:399] conv2/3x3_reduce -> conv2/3x3_reduce
I0714 23:30:58.983753  2976 net.cpp:91] Creating Layer conv2/3x3_reduce
I0714 23:30:58.983760  2976 net.cpp:425] conv2/3x3_reduce <- pool1/norm1
I0714 23:30:58.983769  2976 net.cpp:399] conv2/3x3_reduce -> conv2/3x3_reduce
I0714 23:30:58.989830  2980 net.cpp:141] Setting up conv2/3x3_reduce
I0714 23:30:58.989850  2980 net.cpp:148] Top shape: 10 64 56 56 (2007040)
I0714 23:30:58.989855  2980 net.cpp:156] Memory required for data: 94330880
I0714 23:30:58.989867  2980 layer_factory.hpp:77] Creating layer conv2/relu_3x3_reduce
I0714 23:30:58.989876  2980 net.cpp:91] Creating Layer conv2/relu_3x3_reduce
I0714 23:30:58.989882  2980 net.cpp:425] conv2/relu_3x3_reduce <- conv2/3x3_reduce
I0714 23:30:58.989889  2980 net.cpp:386] conv2/relu_3x3_reduce -> conv2/3x3_reduce (in-place)
I0714 23:30:58.989956  2976 net.cpp:141] Setting up conv2/3x3_reduce
I0714 23:30:58.989976  2976 net.cpp:148] Top shape: 10 64 56 56 (2007040)
I0714 23:30:58.989985  2976 net.cpp:156] Memory required for data: 94330880
I0714 23:30:58.989998  2976 layer_factory.hpp:77] Creating layer conv2/relu_3x3_reduce
I0714 23:30:58.990008  2976 net.cpp:91] Creating Layer conv2/relu_3x3_reduce
I0714 23:30:58.990015  2976 net.cpp:425] conv2/relu_3x3_reduce <- conv2/3x3_reduce
I0714 23:30:58.990021  2976 net.cpp:386] conv2/relu_3x3_reduce -> conv2/3x3_reduce (in-place)
I0714 23:30:58.991075  2980 net.cpp:141] Setting up conv2/relu_3x3_reduce
I0714 23:30:58.991080  2976 net.cpp:141] Setting up conv2/relu_3x3_reduce
I0714 23:30:58.991093  2980 net.cpp:148] Top shape: 10 64 56 56 (2007040)
I0714 23:30:58.991098  2980 net.cpp:156] Memory required for data: 102359040
I0714 23:30:58.991098  2976 net.cpp:148] Top shape: 10 64 56 56 (2007040)
I0714 23:30:58.991107  2980 layer_factory.hpp:77] Creating layer conv2/3x3
I0714 23:30:58.991109  2976 net.cpp:156] Memory required for data: 102359040
I0714 23:30:58.991116  2976 layer_factory.hpp:77] Creating layer conv2/3x3
I0714 23:30:58.991124  2980 net.cpp:91] Creating Layer conv2/3x3
I0714 23:30:58.991132  2980 net.cpp:425] conv2/3x3 <- conv2/3x3_reduce
I0714 23:30:58.991133  2976 net.cpp:91] Creating Layer conv2/3x3
I0714 23:30:58.991139  2976 net.cpp:425] conv2/3x3 <- conv2/3x3_reduce
I0714 23:30:58.991143  2980 net.cpp:399] conv2/3x3 -> conv2/3x3
I0714 23:30:58.991153  2976 net.cpp:399] conv2/3x3 -> conv2/3x3
I0714 23:30:58.998795  2976 net.cpp:141] Setting up conv2/3x3
I0714 23:30:58.998812  2976 net.cpp:148] Top shape: 10 192 56 56 (6021120)
I0714 23:30:58.998818  2976 net.cpp:156] Memory required for data: 126443520
I0714 23:30:58.998837  2976 layer_factory.hpp:77] Creating layer conv2/relu_3x3
I0714 23:30:58.998849  2976 net.cpp:91] Creating Layer conv2/relu_3x3
I0714 23:30:58.998854  2976 net.cpp:425] conv2/relu_3x3 <- conv2/3x3
I0714 23:30:58.998867  2976 net.cpp:386] conv2/relu_3x3 -> conv2/3x3 (in-place)
I0714 23:30:58.998878  2980 net.cpp:141] Setting up conv2/3x3
I0714 23:30:58.998898  2980 net.cpp:148] Top shape: 10 192 56 56 (6021120)
I0714 23:30:58.998903  2980 net.cpp:156] Memory required for data: 126443520
I0714 23:30:58.998916  2980 layer_factory.hpp:77] Creating layer conv2/relu_3x3
I0714 23:30:58.998927  2980 net.cpp:91] Creating Layer conv2/relu_3x3
I0714 23:30:58.998932  2980 net.cpp:425] conv2/relu_3x3 <- conv2/3x3
I0714 23:30:58.998940  2980 net.cpp:386] conv2/relu_3x3 -> conv2/3x3 (in-place)
I0714 23:30:59.000010  2980 net.cpp:141] Setting up conv2/relu_3x3
I0714 23:30:59.000017  2976 net.cpp:141] Setting up conv2/relu_3x3
I0714 23:30:59.000025  2980 net.cpp:148] Top shape: 10 192 56 56 (6021120)
I0714 23:30:59.000036  2980 net.cpp:156] Memory required for data: 150528000
I0714 23:30:59.000036  2976 net.cpp:148] Top shape: 10 192 56 56 (6021120)
I0714 23:30:59.000046  2980 layer_factory.hpp:77] Creating layer conv2/norm2
I0714 23:30:59.000049  2976 net.cpp:156] Memory required for data: 150528000
I0714 23:30:59.000056  2976 layer_factory.hpp:77] Creating layer conv2/norm2
I0714 23:30:59.000058  2980 net.cpp:91] Creating Layer conv2/norm2
I0714 23:30:59.000064  2980 net.cpp:425] conv2/norm2 <- conv2/3x3
I0714 23:30:59.000068  2976 net.cpp:91] Creating Layer conv2/norm2
I0714 23:30:59.000072  2980 net.cpp:399] conv2/norm2 -> conv2/norm2
I0714 23:30:59.000074  2976 net.cpp:425] conv2/norm2 <- conv2/3x3
I0714 23:30:59.000082  2976 net.cpp:399] conv2/norm2 -> conv2/norm2
I0714 23:30:59.001255  2980 net.cpp:141] Setting up conv2/norm2
I0714 23:30:59.001268  2980 net.cpp:148] Top shape: 10 192 56 56 (6021120)
I0714 23:30:59.001273  2980 net.cpp:156] Memory required for data: 174612480
I0714 23:30:59.001279  2980 layer_factory.hpp:77] Creating layer pool2/3x3_s2
I0714 23:30:59.001291  2980 net.cpp:91] Creating Layer pool2/3x3_s2
I0714 23:30:59.001296  2980 net.cpp:425] pool2/3x3_s2 <- conv2/norm2
I0714 23:30:59.001303  2980 net.cpp:399] pool2/3x3_s2 -> pool2/3x3_s2
I0714 23:30:59.001314  2976 net.cpp:141] Setting up conv2/norm2
I0714 23:30:59.001337  2976 net.cpp:148] Top shape: 10 192 56 56 (6021120)
I0714 23:30:59.001343  2976 net.cpp:156] Memory required for data: 174612480
I0714 23:30:59.001348  2976 layer_factory.hpp:77] Creating layer pool2/3x3_s2
I0714 23:30:59.001358  2976 net.cpp:91] Creating Layer pool2/3x3_s2
I0714 23:30:59.001363  2976 net.cpp:425] pool2/3x3_s2 <- conv2/norm2
I0714 23:30:59.001365  2980 net.cpp:141] Setting up pool2/3x3_s2
I0714 23:30:59.001370  2976 net.cpp:399] pool2/3x3_s2 -> pool2/3x3_s2
I0714 23:30:59.001376  2980 net.cpp:148] Top shape: 10 192 28 28 (1505280)
I0714 23:30:59.001380  2980 net.cpp:156] Memory required for data: 180633600
I0714 23:30:59.001386  2980 layer_factory.hpp:77] Creating layer pool2/3x3_s2_pool2/3x3_s2_0_split
I0714 23:30:59.001431  2976 net.cpp:141] Setting up pool2/3x3_s2
I0714 23:30:59.182940  2980 net.cpp:91] Creating Layer pool2/3x3_s2_pool2/3x3_s2_0_split
I0714 23:30:59.182963  2980 net.cpp:425] pool2/3x3_s2_pool2/3x3_s2_0_split <- pool2/3x3_s2
I0714 23:30:59.182976  2980 net.cpp:399] pool2/3x3_s2_pool2/3x3_s2_0_split -> pool2/3x3_s2_pool2/3x3_s2_0_split_0
I0714 23:30:59.182973  2976 net.cpp:148] Top shape: 10 192 28 28 (1505280)
I0714 23:30:59.182987  2976 net.cpp:156] Memory required for data: 180633600
I0714 23:30:59.182996  2976 layer_factory.hpp:77] Creating layer pool2/3x3_s2_pool2/3x3_s2_0_split
I0714 23:30:59.183001  2980 net.cpp:399] pool2/3x3_s2_pool2/3x3_s2_0_split -> pool2/3x3_s2_pool2/3x3_s2_0_split_1
I0714 23:30:59.183010  2980 net.cpp:399] pool2/3x3_s2_pool2/3x3_s2_0_split -> pool2/3x3_s2_pool2/3x3_s2_0_split_2
I0714 23:30:59.183012  2976 net.cpp:91] Creating Layer pool2/3x3_s2_pool2/3x3_s2_0_split
I0714 23:30:59.183018  2980 net.cpp:399] pool2/3x3_s2_pool2/3x3_s2_0_split -> pool2/3x3_s2_pool2/3x3_s2_0_split_3
I0714 23:30:59.183019  2976 net.cpp:425] pool2/3x3_s2_pool2/3x3_s2_0_split <- pool2/3x3_s2
I0714 23:30:59.183053  2976 net.cpp:399] pool2/3x3_s2_pool2/3x3_s2_0_split -> pool2/3x3_s2_pool2/3x3_s2_0_split_0
I0714 23:30:59.183068  2976 net.cpp:399] pool2/3x3_s2_pool2/3x3_s2_0_split -> pool2/3x3_s2_pool2/3x3_s2_0_split_1
I0714 23:30:59.183078  2976 net.cpp:399] pool2/3x3_s2_pool2/3x3_s2_0_split -> pool2/3x3_s2_pool2/3x3_s2_0_split_2
I0714 23:30:59.183089  2976 net.cpp:399] pool2/3x3_s2_pool2/3x3_s2_0_split -> pool2/3x3_s2_pool2/3x3_s2_0_split_3
I0714 23:30:59.183200  2980 net.cpp:141] Setting up pool2/3x3_s2_pool2/3x3_s2_0_split
I0714 23:30:59.183215  2980 net.cpp:148] Top shape: 10 192 28 28 (1505280)
I0714 23:30:59.183221  2980 net.cpp:148] Top shape: 10 192 28 28 (1505280)
I0714 23:30:59.183228  2980 net.cpp:148] Top shape: 10 192 28 28 (1505280)
I0714 23:30:59.183233  2980 net.cpp:148] Top shape: 10 192 28 28 (1505280)
I0714 23:30:59.183236  2980 net.cpp:156] Memory required for data: 204718080
I0714 23:30:59.183243  2980 layer_factory.hpp:77] Creating layer inception_3a/1x1
I0714 23:30:59.183265  2980 net.cpp:91] Creating Layer inception_3a/1x1
I0714 23:30:59.183271  2980 net.cpp:425] inception_3a/1x1 <- pool2/3x3_s2_pool2/3x3_s2_0_split_0
I0714 23:30:59.183302  2980 net.cpp:399] inception_3a/1x1 -> inception_3a/1x1
I0714 23:30:59.183337  2976 net.cpp:141] Setting up pool2/3x3_s2_pool2/3x3_s2_0_split
I0714 23:30:59.183351  2976 net.cpp:148] Top shape: 10 192 28 28 (1505280)
I0714 23:30:59.183358  2976 net.cpp:148] Top shape: 10 192 28 28 (1505280)
I0714 23:30:59.183363  2976 net.cpp:148] Top shape: 10 192 28 28 (1505280)
I0714 23:30:59.183369  2976 net.cpp:148] Top shape: 10 192 28 28 (1505280)
I0714 23:30:59.183373  2976 net.cpp:156] Memory required for data: 204718080
I0714 23:30:59.183378  2976 layer_factory.hpp:77] Creating layer inception_3a/1x1
I0714 23:30:59.183398  2976 net.cpp:91] Creating Layer inception_3a/1x1
I0714 23:30:59.183404  2976 net.cpp:425] inception_3a/1x1 <- pool2/3x3_s2_pool2/3x3_s2_0_split_0
I0714 23:30:59.183421  2976 net.cpp:399] inception_3a/1x1 -> inception_3a/1x1
I0714 23:30:59.191622  2976 net.cpp:141] Setting up inception_3a/1x1
I0714 23:30:59.191642  2976 net.cpp:148] Top shape: 10 64 28 28 (501760)
I0714 23:30:59.191648  2976 net.cpp:156] Memory required for data: 206725120
I0714 23:30:59.191658  2976 layer_factory.hpp:77] Creating layer inception_3a/relu_1x1
I0714 23:30:59.191669  2976 net.cpp:91] Creating Layer inception_3a/relu_1x1
I0714 23:30:59.191675  2976 net.cpp:425] inception_3a/relu_1x1 <- inception_3a/1x1
I0714 23:30:59.191687  2976 net.cpp:386] inception_3a/relu_1x1 -> inception_3a/1x1 (in-place)
I0714 23:30:59.191684  2980 net.cpp:141] Setting up inception_3a/1x1
I0714 23:30:59.191702  2980 net.cpp:148] Top shape: 10 64 28 28 (501760)
I0714 23:30:59.191707  2980 net.cpp:156] Memory required for data: 206725120
I0714 23:30:59.191717  2980 layer_factory.hpp:77] Creating layer inception_3a/relu_1x1
I0714 23:30:59.191735  2980 net.cpp:91] Creating Layer inception_3a/relu_1x1
I0714 23:30:59.191741  2980 net.cpp:425] inception_3a/relu_1x1 <- inception_3a/1x1
I0714 23:30:59.191748  2980 net.cpp:386] inception_3a/relu_1x1 -> inception_3a/1x1 (in-place)
I0714 23:30:59.192818  2980 net.cpp:141] Setting up inception_3a/relu_1x1
I0714 23:30:59.192831  2980 net.cpp:148] Top shape: 10 64 28 28 (501760)
I0714 23:30:59.192834  2980 net.cpp:156] Memory required for data: 208732160
I0714 23:30:59.192839  2980 layer_factory.hpp:77] Creating layer inception_3a/3x3_reduce
I0714 23:30:59.192858  2980 net.cpp:91] Creating Layer inception_3a/3x3_reduce
I0714 23:30:59.192859  2976 net.cpp:141] Setting up inception_3a/relu_1x1
I0714 23:30:59.192864  2980 net.cpp:425] inception_3a/3x3_reduce <- pool2/3x3_s2_pool2/3x3_s2_0_split_1
I0714 23:30:59.192878  2976 net.cpp:148] Top shape: 10 64 28 28 (501760)
I0714 23:30:59.192883  2976 net.cpp:156] Memory required for data: 208732160
I0714 23:30:59.192885  2980 net.cpp:399] inception_3a/3x3_reduce -> inception_3a/3x3_reduce
I0714 23:30:59.192889  2976 layer_factory.hpp:77] Creating layer inception_3a/3x3_reduce
I0714 23:30:59.192908  2976 net.cpp:91] Creating Layer inception_3a/3x3_reduce
I0714 23:30:59.192914  2976 net.cpp:425] inception_3a/3x3_reduce <- pool2/3x3_s2_pool2/3x3_s2_0_split_1
I0714 23:30:59.192927  2976 net.cpp:399] inception_3a/3x3_reduce -> inception_3a/3x3_reduce
I0714 23:30:59.197751  2980 net.cpp:141] Setting up inception_3a/3x3_reduce
I0714 23:30:59.197767  2980 net.cpp:148] Top shape: 10 96 28 28 (752640)
I0714 23:30:59.197772  2980 net.cpp:156] Memory required for data: 211742720
I0714 23:30:59.197787  2980 layer_factory.hpp:77] Creating layer inception_3a/relu_3x3_reduce
I0714 23:30:59.197798  2980 net.cpp:91] Creating Layer inception_3a/relu_3x3_reduce
I0714 23:30:59.197804  2980 net.cpp:425] inception_3a/relu_3x3_reduce <- inception_3a/3x3_reduce
I0714 23:30:59.197811  2980 net.cpp:386] inception_3a/relu_3x3_reduce -> inception_3a/3x3_reduce (in-place)
I0714 23:30:59.199456  2980 net.cpp:141] Setting up inception_3a/relu_3x3_reduce
I0714 23:30:59.199470  2980 net.cpp:148] Top shape: 10 96 28 28 (752640)
I0714 23:30:59.199475  2980 net.cpp:156] Memory required for data: 214753280
I0714 23:30:59.199481  2980 layer_factory.hpp:77] Creating layer inception_3a/3x3
I0714 23:30:59.199501  2980 net.cpp:91] Creating Layer inception_3a/3x3
I0714 23:30:59.199506  2980 net.cpp:425] inception_3a/3x3 <- inception_3a/3x3_reduce
I0714 23:30:59.199515  2980 net.cpp:399] inception_3a/3x3 -> inception_3a/3x3
I0714 23:30:59.201027  2976 net.cpp:141] Setting up inception_3a/3x3_reduce
I0714 23:30:59.201045  2976 net.cpp:148] Top shape: 10 96 28 28 (752640)
I0714 23:30:59.201050  2976 net.cpp:156] Memory required for data: 211742720
I0714 23:30:59.201064  2976 layer_factory.hpp:77] Creating layer inception_3a/relu_3x3_reduce
I0714 23:30:59.201073  2976 net.cpp:91] Creating Layer inception_3a/relu_3x3_reduce
I0714 23:30:59.201079  2976 net.cpp:425] inception_3a/relu_3x3_reduce <- inception_3a/3x3_reduce
I0714 23:30:59.201092  2976 net.cpp:386] inception_3a/relu_3x3_reduce -> inception_3a/3x3_reduce (in-place)
I0714 23:30:59.201364  2976 net.cpp:141] Setting up inception_3a/relu_3x3_reduce
I0714 23:30:59.201377  2976 net.cpp:148] Top shape: 10 96 28 28 (752640)
I0714 23:30:59.201381  2976 net.cpp:156] Memory required for data: 214753280
I0714 23:30:59.201387  2976 layer_factory.hpp:77] Creating layer inception_3a/3x3
I0714 23:30:59.201407  2976 net.cpp:91] Creating Layer inception_3a/3x3
I0714 23:30:59.201413  2976 net.cpp:425] inception_3a/3x3 <- inception_3a/3x3_reduce
I0714 23:30:59.201426  2976 net.cpp:399] inception_3a/3x3 -> inception_3a/3x3
I0714 23:30:59.204941  2980 net.cpp:141] Setting up inception_3a/3x3
I0714 23:30:59.204962  2980 net.cpp:148] Top shape: 10 128 28 28 (1003520)
I0714 23:30:59.204967  2980 net.cpp:156] Memory required for data: 218767360
I0714 23:30:59.204977  2980 layer_factory.hpp:77] Creating layer inception_3a/relu_3x3
I0714 23:30:59.206172  2976 net.cpp:141] Setting up inception_3a/3x3
I0714 23:30:59.225663  2980 net.cpp:91] Creating Layer inception_3a/relu_3x3
I0714 23:30:59.225699  2980 net.cpp:425] inception_3a/relu_3x3 <- inception_3a/3x3
I0714 23:30:59.225703  2976 net.cpp:148] Top shape: 10 128 28 28 (1003520)
I0714 23:30:59.225716  2976 net.cpp:156] Memory required for data: 218767360
I0714 23:30:59.225718  2980 net.cpp:386] inception_3a/relu_3x3 -> inception_3a/3x3 (in-place)
I0714 23:30:59.225730  2976 layer_factory.hpp:77] Creating layer inception_3a/relu_3x3
I0714 23:30:59.225744  2976 net.cpp:91] Creating Layer inception_3a/relu_3x3
I0714 23:30:59.225751  2976 net.cpp:425] inception_3a/relu_3x3 <- inception_3a/3x3
I0714 23:30:59.225772  2976 net.cpp:386] inception_3a/relu_3x3 -> inception_3a/3x3 (in-place)
I0714 23:30:59.227675  2976 net.cpp:141] Setting up inception_3a/relu_3x3
I0714 23:30:59.227694  2976 net.cpp:148] Top shape: 10 128 28 28 (1003520)
I0714 23:30:59.227699  2976 net.cpp:156] Memory required for data: 222781440
I0714 23:30:59.227704  2976 layer_factory.hpp:77] Creating layer inception_3a/5x5_reduce
I0714 23:30:59.227730  2976 net.cpp:91] Creating Layer inception_3a/5x5_reduce
I0714 23:30:59.227736  2976 net.cpp:425] inception_3a/5x5_reduce <- pool2/3x3_s2_pool2/3x3_s2_0_split_2
I0714 23:30:59.227747  2976 net.cpp:399] inception_3a/5x5_reduce -> inception_3a/5x5_reduce
I0714 23:30:59.227768  2980 net.cpp:141] Setting up inception_3a/relu_3x3
I0714 23:30:59.227788  2980 net.cpp:148] Top shape: 10 128 28 28 (1003520)
I0714 23:30:59.227793  2980 net.cpp:156] Memory required for data: 222781440
I0714 23:30:59.227798  2980 layer_factory.hpp:77] Creating layer inception_3a/5x5_reduce
I0714 23:30:59.227818  2980 net.cpp:91] Creating Layer inception_3a/5x5_reduce
I0714 23:30:59.227824  2980 net.cpp:425] inception_3a/5x5_reduce <- pool2/3x3_s2_pool2/3x3_s2_0_split_2
I0714 23:30:59.227838  2980 net.cpp:399] inception_3a/5x5_reduce -> inception_3a/5x5_reduce
I0714 23:30:59.233027  2980 net.cpp:141] Setting up inception_3a/5x5_reduce
I0714 23:30:59.233050  2980 net.cpp:148] Top shape: 10 16 28 28 (125440)
I0714 23:30:59.233055  2980 net.cpp:156] Memory required for data: 223283200
I0714 23:30:59.233067  2980 layer_factory.hpp:77] Creating layer inception_3a/relu_5x5_reduce
I0714 23:30:59.233067  2976 net.cpp:141] Setting up inception_3a/5x5_reduce
I0714 23:30:59.233081  2980 net.cpp:91] Creating Layer inception_3a/relu_5x5_reduce
I0714 23:30:59.233085  2976 net.cpp:148] Top shape: 10 16 28 28 (125440)
I0714 23:30:59.233088  2980 net.cpp:425] inception_3a/relu_5x5_reduce <- inception_3a/5x5_reduce
I0714 23:30:59.233091  2976 net.cpp:156] Memory required for data: 223283200
I0714 23:30:59.233100  2980 net.cpp:386] inception_3a/relu_5x5_reduce -> inception_3a/5x5_reduce (in-place)
I0714 23:30:59.233103  2976 layer_factory.hpp:77] Creating layer inception_3a/relu_5x5_reduce
I0714 23:30:59.233113  2976 net.cpp:91] Creating Layer inception_3a/relu_5x5_reduce
I0714 23:30:59.233119  2976 net.cpp:425] inception_3a/relu_5x5_reduce <- inception_3a/5x5_reduce
I0714 23:30:59.233129  2976 net.cpp:386] inception_3a/relu_5x5_reduce -> inception_3a/5x5_reduce (in-place)
I0714 23:30:59.234350  2976 net.cpp:141] Setting up inception_3a/relu_5x5_reduce
I0714 23:30:59.234357  2980 net.cpp:141] Setting up inception_3a/relu_5x5_reduce
I0714 23:30:59.234364  2976 net.cpp:148] Top shape: 10 16 28 28 (125440)
I0714 23:30:59.234375  2980 net.cpp:148] Top shape: 10 16 28 28 (125440)
I0714 23:30:59.234378  2976 net.cpp:156] Memory required for data: 223784960
I0714 23:30:59.234380  2980 net.cpp:156] Memory required for data: 223784960
I0714 23:30:59.234387  2976 layer_factory.hpp:77] Creating layer inception_3a/5x5
I0714 23:30:59.234388  2980 layer_factory.hpp:77] Creating layer inception_3a/5x5
I0714 23:30:59.234421  2976 net.cpp:91] Creating Layer inception_3a/5x5
I0714 23:30:59.234426  2980 net.cpp:91] Creating Layer inception_3a/5x5
I0714 23:30:59.234431  2976 net.cpp:425] inception_3a/5x5 <- inception_3a/5x5_reduce
I0714 23:30:59.234436  2980 net.cpp:425] inception_3a/5x5 <- inception_3a/5x5_reduce
I0714 23:30:59.234442  2976 net.cpp:399] inception_3a/5x5 -> inception_3a/5x5
I0714 23:30:59.234447  2980 net.cpp:399] inception_3a/5x5 -> inception_3a/5x5
I0714 23:30:59.240456  2976 net.cpp:141] Setting up inception_3a/5x5
I0714 23:30:59.240474  2976 net.cpp:148] Top shape: 10 32 28 28 (250880)
I0714 23:30:59.240480  2976 net.cpp:156] Memory required for data: 224788480
I0714 23:30:59.240490  2976 layer_factory.hpp:77] Creating layer inception_3a/relu_5x5
I0714 23:30:59.240501  2976 net.cpp:91] Creating Layer inception_3a/relu_5x5
I0714 23:30:59.240507  2976 net.cpp:425] inception_3a/relu_5x5 <- inception_3a/5x5
I0714 23:30:59.240519  2976 net.cpp:386] inception_3a/relu_5x5 -> inception_3a/5x5 (in-place)
I0714 23:30:59.241786  2976 net.cpp:141] Setting up inception_3a/relu_5x5
I0714 23:30:59.241801  2976 net.cpp:148] Top shape: 10 32 28 28 (250880)
I0714 23:30:59.241806  2976 net.cpp:156] Memory required for data: 225792000
I0714 23:30:59.241811  2976 layer_factory.hpp:77] Creating layer inception_3a/pool
I0714 23:30:59.241827  2976 net.cpp:91] Creating Layer inception_3a/pool
I0714 23:30:59.241833  2976 net.cpp:425] inception_3a/pool <- pool2/3x3_s2_pool2/3x3_s2_0_split_3
I0714 23:30:59.241842  2976 net.cpp:399] inception_3a/pool -> inception_3a/pool
I0714 23:30:59.242405  2980 net.cpp:141] Setting up inception_3a/5x5
I0714 23:30:59.242422  2980 net.cpp:148] Top shape: 10 32 28 28 (250880)
I0714 23:30:59.242427  2980 net.cpp:156] Memory required for data: 224788480
I0714 23:30:59.242437  2980 layer_factory.hpp:77] Creating layer inception_3a/relu_5x5
I0714 23:30:59.242450  2980 net.cpp:91] Creating Layer inception_3a/relu_5x5
I0714 23:30:59.242456  2980 net.cpp:425] inception_3a/relu_5x5 <- inception_3a/5x5
I0714 23:30:59.242463  2980 net.cpp:386] inception_3a/relu_5x5 -> inception_3a/5x5 (in-place)
I0714 23:30:59.242482  2976 net.cpp:141] Setting up inception_3a/pool
I0714 23:30:59.242496  2976 net.cpp:148] Top shape: 10 192 28 28 (1505280)
I0714 23:30:59.242499  2976 net.cpp:156] Memory required for data: 231813120
I0714 23:30:59.242504  2976 layer_factory.hpp:77] Creating layer inception_3a/pool_proj
I0714 23:30:59.242521  2976 net.cpp:91] Creating Layer inception_3a/pool_proj
I0714 23:30:59.242527  2976 net.cpp:425] inception_3a/pool_proj <- inception_3a/pool
I0714 23:30:59.242540  2976 net.cpp:399] inception_3a/pool_proj -> inception_3a/pool_proj
I0714 23:30:59.243058  2980 net.cpp:141] Setting up inception_3a/relu_5x5
I0714 23:30:59.243072  2980 net.cpp:148] Top shape: 10 32 28 28 (250880)
I0714 23:30:59.243077  2980 net.cpp:156] Memory required for data: 225792000
I0714 23:30:59.243082  2980 layer_factory.hpp:77] Creating layer inception_3a/pool
I0714 23:30:59.243091  2980 net.cpp:91] Creating Layer inception_3a/pool
I0714 23:30:59.243096  2980 net.cpp:425] inception_3a/pool <- pool2/3x3_s2_pool2/3x3_s2_0_split_3
I0714 23:30:59.243106  2980 net.cpp:399] inception_3a/pool -> inception_3a/pool
I0714 23:30:59.243197  2980 net.cpp:141] Setting up inception_3a/pool
I0714 23:30:59.243207  2980 net.cpp:148] Top shape: 10 192 28 28 (1505280)
I0714 23:30:59.243211  2980 net.cpp:156] Memory required for data: 231813120
I0714 23:30:59.243216  2980 layer_factory.hpp:77] Creating layer inception_3a/pool_proj
I0714 23:30:59.243233  2980 net.cpp:91] Creating Layer inception_3a/pool_proj
I0714 23:30:59.243239  2980 net.cpp:425] inception_3a/pool_proj <- inception_3a/pool
I0714 23:30:59.243247  2980 net.cpp:399] inception_3a/pool_proj -> inception_3a/pool_proj
I0714 23:30:59.248121  2976 net.cpp:141] Setting up inception_3a/pool_proj
I0714 23:30:59.248138  2976 net.cpp:148] Top shape: 10 32 28 28 (250880)
I0714 23:30:59.248144  2976 net.cpp:156] Memory required for data: 232816640
I0714 23:30:59.248163  2976 layer_factory.hpp:77] Creating layer inception_3a/relu_pool_proj
I0714 23:30:59.248173  2976 net.cpp:91] Creating Layer inception_3a/relu_pool_proj
I0714 23:30:59.248179  2976 net.cpp:425] inception_3a/relu_pool_proj <- inception_3a/pool_proj
I0714 23:30:59.248229  2980 net.cpp:141] Setting up inception_3a/pool_proj
I0714 23:30:59.264689  2976 net.cpp:386] inception_3a/relu_pool_proj -> inception_3a/pool_proj (in-place)
I0714 23:30:59.264714  2980 net.cpp:148] Top shape: 10 32 28 28 (250880)
I0714 23:30:59.264724  2980 net.cpp:156] Memory required for data: 232816640
I0714 23:30:59.264750  2980 layer_factory.hpp:77] Creating layer inception_3a/relu_pool_proj
I0714 23:30:59.264760  2980 net.cpp:91] Creating Layer inception_3a/relu_pool_proj
I0714 23:30:59.264767  2980 net.cpp:425] inception_3a/relu_pool_proj <- inception_3a/pool_proj
I0714 23:30:59.264776  2980 net.cpp:386] inception_3a/relu_pool_proj -> inception_3a/pool_proj (in-place)
I0714 23:30:59.266252  2976 net.cpp:141] Setting up inception_3a/relu_pool_proj
I0714 23:30:59.266265  2976 net.cpp:148] Top shape: 10 32 28 28 (250880)
I0714 23:30:59.266270  2976 net.cpp:156] Memory required for data: 233820160
I0714 23:30:59.266276  2976 layer_factory.hpp:77] Creating layer inception_3a/output
I0714 23:30:59.266286  2980 net.cpp:141] Setting up inception_3a/relu_pool_proj
I0714 23:30:59.266296  2976 net.cpp:91] Creating Layer inception_3a/output
I0714 23:30:59.266302  2976 net.cpp:425] inception_3a/output <- inception_3a/1x1
I0714 23:30:59.266305  2980 net.cpp:148] Top shape: 10 32 28 28 (250880)
I0714 23:30:59.266310  2976 net.cpp:425] inception_3a/output <- inception_3a/3x3
I0714 23:30:59.266310  2980 net.cpp:156] Memory required for data: 233820160
I0714 23:30:59.266320  2976 net.cpp:425] inception_3a/output <- inception_3a/5x5
I0714 23:30:59.266325  2980 layer_factory.hpp:77] Creating layer inception_3a/output
I0714 23:30:59.266326  2976 net.cpp:425] inception_3a/output <- inception_3a/pool_proj
I0714 23:30:59.266340  2980 net.cpp:91] Creating Layer inception_3a/output
I0714 23:30:59.266346  2980 net.cpp:425] inception_3a/output <- inception_3a/1x1
I0714 23:30:59.266348  2976 net.cpp:399] inception_3a/output -> inception_3a/output
I0714 23:30:59.266355  2980 net.cpp:425] inception_3a/output <- inception_3a/3x3
I0714 23:30:59.266360  2980 net.cpp:425] inception_3a/output <- inception_3a/5x5
I0714 23:30:59.266365  2980 net.cpp:425] inception_3a/output <- inception_3a/pool_proj
I0714 23:30:59.266371  2980 net.cpp:399] inception_3a/output -> inception_3a/output
I0714 23:30:59.266417  2976 net.cpp:141] Setting up inception_3a/output
I0714 23:30:59.266427  2976 net.cpp:148] Top shape: 10 256 28 28 (2007040)
I0714 23:30:59.266433  2976 net.cpp:156] Memory required for data: 241848320
I0714 23:30:59.266438  2976 layer_factory.hpp:77] Creating layer inception_3a/output_inception_3a/output_0_split
I0714 23:30:59.266446  2976 net.cpp:91] Creating Layer inception_3a/output_inception_3a/output_0_split
I0714 23:30:59.266451  2976 net.cpp:425] inception_3a/output_inception_3a/output_0_split <- inception_3a/output
I0714 23:30:59.266459  2976 net.cpp:399] inception_3a/output_inception_3a/output_0_split -> inception_3a/output_inception_3a/output_0_split_0
I0714 23:30:59.266470  2980 net.cpp:141] Setting up inception_3a/output
I0714 23:30:59.266474  2976 net.cpp:399] inception_3a/output_inception_3a/output_0_split -> inception_3a/output_inception_3a/output_0_split_1
I0714 23:30:59.266486  2980 net.cpp:148] Top shape: 10 256 28 28 (2007040)
I0714 23:30:59.266491  2980 net.cpp:156] Memory required for data: 241848320
I0714 23:30:59.266495  2976 net.cpp:399] inception_3a/output_inception_3a/output_0_split -> inception_3a/output_inception_3a/output_0_split_2
I0714 23:30:59.266496  2980 layer_factory.hpp:77] Creating layer inception_3a/output_inception_3a/output_0_split
I0714 23:30:59.266510  2976 net.cpp:399] inception_3a/output_inception_3a/output_0_split -> inception_3a/output_inception_3a/output_0_split_3
I0714 23:30:59.266518  2980 net.cpp:91] Creating Layer inception_3a/output_inception_3a/output_0_split
I0714 23:30:59.266525  2980 net.cpp:425] inception_3a/output_inception_3a/output_0_split <- inception_3a/output
I0714 23:30:59.266531  2980 net.cpp:399] inception_3a/output_inception_3a/output_0_split -> inception_3a/output_inception_3a/output_0_split_0
I0714 23:30:59.266541  2980 net.cpp:399] inception_3a/output_inception_3a/output_0_split -> inception_3a/output_inception_3a/output_0_split_1
I0714 23:30:59.266549  2980 net.cpp:399] inception_3a/output_inception_3a/output_0_split -> inception_3a/output_inception_3a/output_0_split_2
I0714 23:30:59.266557  2980 net.cpp:399] inception_3a/output_inception_3a/output_0_split -> inception_3a/output_inception_3a/output_0_split_3
I0714 23:30:59.266629  2976 net.cpp:141] Setting up inception_3a/output_inception_3a/output_0_split
I0714 23:30:59.266640  2976 net.cpp:148] Top shape: 10 256 28 28 (2007040)
I0714 23:30:59.266646  2976 net.cpp:148] Top shape: 10 256 28 28 (2007040)
I0714 23:30:59.266652  2976 net.cpp:148] Top shape: 10 256 28 28 (2007040)
I0714 23:30:59.266659  2976 net.cpp:148] Top shape: 10 256 28 28 (2007040)
I0714 23:30:59.266662  2976 net.cpp:156] Memory required for data: 273960960
I0714 23:30:59.266667  2976 layer_factory.hpp:77] Creating layer inception_3b/1x1
I0714 23:30:59.266697  2976 net.cpp:91] Creating Layer inception_3b/1x1
I0714 23:30:59.266705  2976 net.cpp:425] inception_3b/1x1 <- inception_3a/output_inception_3a/output_0_split_0
I0714 23:30:59.266716  2976 net.cpp:399] inception_3b/1x1 -> inception_3b/1x1
I0714 23:30:59.266731  2980 net.cpp:141] Setting up inception_3a/output_inception_3a/output_0_split
I0714 23:30:59.266742  2980 net.cpp:148] Top shape: 10 256 28 28 (2007040)
I0714 23:30:59.266747  2980 net.cpp:148] Top shape: 10 256 28 28 (2007040)
I0714 23:30:59.266752  2980 net.cpp:148] Top shape: 10 256 28 28 (2007040)
I0714 23:30:59.266757  2980 net.cpp:148] Top shape: 10 256 28 28 (2007040)
I0714 23:30:59.266762  2980 net.cpp:156] Memory required for data: 273960960
I0714 23:30:59.266765  2980 layer_factory.hpp:77] Creating layer inception_3b/1x1
I0714 23:30:59.266783  2980 net.cpp:91] Creating Layer inception_3b/1x1
I0714 23:30:59.266788  2980 net.cpp:425] inception_3b/1x1 <- inception_3a/output_inception_3a/output_0_split_0
I0714 23:30:59.266799  2980 net.cpp:399] inception_3b/1x1 -> inception_3b/1x1
I0714 23:30:59.271466  2976 net.cpp:141] Setting up inception_3b/1x1
I0714 23:30:59.271484  2976 net.cpp:148] Top shape: 10 128 28 28 (1003520)
I0714 23:30:59.271489  2976 net.cpp:156] Memory required for data: 277975040
I0714 23:30:59.271499  2976 layer_factory.hpp:77] Creating layer inception_3b/relu_1x1
I0714 23:30:59.271512  2976 net.cpp:91] Creating Layer inception_3b/relu_1x1
I0714 23:30:59.271519  2976 net.cpp:425] inception_3b/relu_1x1 <- inception_3b/1x1
I0714 23:30:59.271530  2976 net.cpp:386] inception_3b/relu_1x1 -> inception_3b/1x1 (in-place)
I0714 23:30:59.271900  2976 net.cpp:141] Setting up inception_3b/relu_1x1
I0714 23:30:59.271914  2976 net.cpp:148] Top shape: 10 128 28 28 (1003520)
I0714 23:30:59.271919  2976 net.cpp:156] Memory required for data: 281989120
I0714 23:30:59.271924  2976 layer_factory.hpp:77] Creating layer inception_3b/3x3_reduce
I0714 23:30:59.271941  2976 net.cpp:91] Creating Layer inception_3b/3x3_reduce
I0714 23:30:59.271947  2976 net.cpp:425] inception_3b/3x3_reduce <- inception_3a/output_inception_3a/output_0_split_1
I0714 23:30:59.271960  2976 net.cpp:399] inception_3b/3x3_reduce -> inception_3b/3x3_reduce
I0714 23:30:59.276134  2976 net.cpp:141] Setting up inception_3b/3x3_reduce
I0714 23:30:59.276149  2976 net.cpp:148] Top shape: 10 128 28 28 (1003520)
I0714 23:30:59.276155  2976 net.cpp:156] Memory required for data: 286003200
I0714 23:30:59.276165  2976 layer_factory.hpp:77] Creating layer inception_3b/relu_3x3_reduce
I0714 23:30:59.276175  2976 net.cpp:91] Creating Layer inception_3b/relu_3x3_reduce
I0714 23:30:59.276182  2976 net.cpp:425] inception_3b/relu_3x3_reduce <- inception_3b/3x3_reduce
I0714 23:30:59.276172  2980 net.cpp:141] Setting up inception_3b/1x1
I0714 23:30:59.276193  2976 net.cpp:386] inception_3b/relu_3x3_reduce -> inception_3b/3x3_reduce (in-place)
I0714 23:30:59.276214  2980 net.cpp:148] Top shape: 10 128 28 28 (1003520)
I0714 23:30:59.276479  2976 net.cpp:141] Setting up inception_3b/relu_3x3_reduce
I0714 23:30:59.302625  2976 net.cpp:148] Top shape: 10 128 28 28 (1003520)
I0714 23:30:59.302624  2980 net.cpp:156] Memory required for data: 277975040
I0714 23:30:59.302631  2976 net.cpp:156] Memory required for data: 290017280
I0714 23:30:59.302644  2976 layer_factory.hpp:77] Creating layer inception_3b/3x3
I0714 23:30:59.302650  2980 layer_factory.hpp:77] Creating layer inception_3b/relu_1x1
I0714 23:30:59.302661  2980 net.cpp:91] Creating Layer inception_3b/relu_1x1
I0714 23:30:59.302664  2976 net.cpp:91] Creating Layer inception_3b/3x3
I0714 23:30:59.302670  2980 net.cpp:425] inception_3b/relu_1x1 <- inception_3b/1x1
I0714 23:30:59.302671  2976 net.cpp:425] inception_3b/3x3 <- inception_3b/3x3_reduce
I0714 23:30:59.302680  2980 net.cpp:386] inception_3b/relu_1x1 -> inception_3b/1x1 (in-place)
I0714 23:30:59.302681  2976 net.cpp:399] inception_3b/3x3 -> inception_3b/3x3
I0714 23:30:59.305089  2980 net.cpp:141] Setting up inception_3b/relu_1x1
I0714 23:30:59.305109  2980 net.cpp:148] Top shape: 10 128 28 28 (1003520)
I0714 23:30:59.305114  2980 net.cpp:156] Memory required for data: 281989120
I0714 23:30:59.305119  2980 layer_factory.hpp:77] Creating layer inception_3b/3x3_reduce
I0714 23:30:59.305137  2980 net.cpp:91] Creating Layer inception_3b/3x3_reduce
I0714 23:30:59.305147  2980 net.cpp:425] inception_3b/3x3_reduce <- inception_3a/output_inception_3a/output_0_split_1
I0714 23:30:59.305168  2980 net.cpp:399] inception_3b/3x3_reduce -> inception_3b/3x3_reduce
I0714 23:30:59.309083  2980 net.cpp:141] Setting up inception_3b/3x3_reduce
I0714 23:30:59.309103  2980 net.cpp:148] Top shape: 10 128 28 28 (1003520)
I0714 23:30:59.309108  2980 net.cpp:156] Memory required for data: 286003200
I0714 23:30:59.309118  2980 layer_factory.hpp:77] Creating layer inception_3b/relu_3x3_reduce
I0714 23:30:59.309128  2980 net.cpp:91] Creating Layer inception_3b/relu_3x3_reduce
I0714 23:30:59.309134  2980 net.cpp:425] inception_3b/relu_3x3_reduce <- inception_3b/3x3_reduce
I0714 23:30:59.309142  2980 net.cpp:386] inception_3b/relu_3x3_reduce -> inception_3b/3x3_reduce (in-place)
I0714 23:30:59.310938  2980 net.cpp:141] Setting up inception_3b/relu_3x3_reduce
I0714 23:30:59.310951  2980 net.cpp:148] Top shape: 10 128 28 28 (1003520)
I0714 23:30:59.310956  2980 net.cpp:156] Memory required for data: 290017280
I0714 23:30:59.310961  2980 layer_factory.hpp:77] Creating layer inception_3b/3x3
I0714 23:30:59.310981  2980 net.cpp:91] Creating Layer inception_3b/3x3
I0714 23:30:59.310987  2980 net.cpp:425] inception_3b/3x3 <- inception_3b/3x3_reduce
I0714 23:30:59.310997  2980 net.cpp:399] inception_3b/3x3 -> inception_3b/3x3
I0714 23:30:59.311172  2976 net.cpp:141] Setting up inception_3b/3x3
I0714 23:30:59.311190  2976 net.cpp:148] Top shape: 10 192 28 28 (1505280)
I0714 23:30:59.311197  2976 net.cpp:156] Memory required for data: 296038400
I0714 23:30:59.311205  2976 layer_factory.hpp:77] Creating layer inception_3b/relu_3x3
I0714 23:30:59.311221  2976 net.cpp:91] Creating Layer inception_3b/relu_3x3
I0714 23:30:59.311228  2976 net.cpp:425] inception_3b/relu_3x3 <- inception_3b/3x3
I0714 23:30:59.311239  2976 net.cpp:386] inception_3b/relu_3x3 -> inception_3b/3x3 (in-place)
I0714 23:30:59.312796  2976 net.cpp:141] Setting up inception_3b/relu_3x3
I0714 23:30:59.312810  2976 net.cpp:148] Top shape: 10 192 28 28 (1505280)
I0714 23:30:59.312818  2976 net.cpp:156] Memory required for data: 302059520
I0714 23:30:59.312824  2976 layer_factory.hpp:77] Creating layer inception_3b/5x5_reduce
I0714 23:30:59.312836  2976 net.cpp:91] Creating Layer inception_3b/5x5_reduce
I0714 23:30:59.312842  2976 net.cpp:425] inception_3b/5x5_reduce <- inception_3a/output_inception_3a/output_0_split_2
I0714 23:30:59.312855  2976 net.cpp:399] inception_3b/5x5_reduce -> inception_3b/5x5_reduce
I0714 23:30:59.317173  2976 net.cpp:141] Setting up inception_3b/5x5_reduce
I0714 23:30:59.317193  2976 net.cpp:148] Top shape: 10 32 28 28 (250880)
I0714 23:30:59.317203  2976 net.cpp:156] Memory required for data: 303063040
I0714 23:30:59.317216  2976 layer_factory.hpp:77] Creating layer inception_3b/relu_5x5_reduce
I0714 23:30:59.317225  2976 net.cpp:91] Creating Layer inception_3b/relu_5x5_reduce
I0714 23:30:59.317232  2976 net.cpp:425] inception_3b/relu_5x5_reduce <- inception_3b/5x5_reduce
I0714 23:30:59.317242  2976 net.cpp:386] inception_3b/relu_5x5_reduce -> inception_3b/5x5_reduce (in-place)
I0714 23:30:59.318387  2976 net.cpp:141] Setting up inception_3b/relu_5x5_reduce
I0714 23:30:59.318403  2976 net.cpp:148] Top shape: 10 32 28 28 (250880)
I0714 23:30:59.318408  2976 net.cpp:156] Memory required for data: 304066560
I0714 23:30:59.318413  2976 layer_factory.hpp:77] Creating layer inception_3b/5x5
I0714 23:30:59.318428  2976 net.cpp:91] Creating Layer inception_3b/5x5
I0714 23:30:59.318435  2976 net.cpp:425] inception_3b/5x5 <- inception_3b/5x5_reduce
I0714 23:30:59.318449  2976 net.cpp:399] inception_3b/5x5 -> inception_3b/5x5
I0714 23:30:59.318469  2980 net.cpp:141] Setting up inception_3b/3x3
I0714 23:30:59.318485  2980 net.cpp:148] Top shape: 10 192 28 28 (1505280)
I0714 23:30:59.318490  2980 net.cpp:156] Memory required for data: 296038400
I0714 23:30:59.318500  2980 layer_factory.hpp:77] Creating layer inception_3b/relu_3x3
I0714 23:30:59.318517  2980 net.cpp:91] Creating Layer inception_3b/relu_3x3
I0714 23:30:59.318523  2980 net.cpp:425] inception_3b/relu_3x3 <- inception_3b/3x3
I0714 23:30:59.318532  2980 net.cpp:386] inception_3b/relu_3x3 -> inception_3b/3x3 (in-place)
I0714 23:30:59.320116  2980 net.cpp:141] Setting up inception_3b/relu_3x3
I0714 23:30:59.320129  2980 net.cpp:148] Top shape: 10 192 28 28 (1505280)
I0714 23:30:59.320134  2980 net.cpp:156] Memory required for data: 302059520
I0714 23:30:59.320140  2980 layer_factory.hpp:77] Creating layer inception_3b/5x5_reduce
I0714 23:30:59.320157  2980 net.cpp:91] Creating Layer inception_3b/5x5_reduce
I0714 23:30:59.320163  2980 net.cpp:425] inception_3b/5x5_reduce <- inception_3a/output_inception_3a/output_0_split_2
I0714 23:30:59.320175  2980 net.cpp:399] inception_3b/5x5_reduce -> inception_3b/5x5_reduce
I0714 23:30:59.324875  2980 net.cpp:141] Setting up inception_3b/5x5_reduce
I0714 23:30:59.324892  2980 net.cpp:148] Top shape: 10 32 28 28 (250880)
I0714 23:30:59.324898  2980 net.cpp:156] Memory required for data: 303063040
I0714 23:30:59.324908  2980 layer_factory.hpp:77] Creating layer inception_3b/relu_5x5_reduce
I0714 23:30:59.324918  2980 net.cpp:91] Creating Layer inception_3b/relu_5x5_reduce
I0714 23:30:59.324923  2980 net.cpp:425] inception_3b/relu_5x5_reduce <- inception_3b/5x5_reduce
I0714 23:30:59.324934  2980 net.cpp:386] inception_3b/relu_5x5_reduce -> inception_3b/5x5_reduce (in-place)
I0714 23:30:59.325299  2976 net.cpp:141] Setting up inception_3b/5x5
I0714 23:30:59.325315  2976 net.cpp:148] Top shape: 10 96 28 28 (752640)
I0714 23:30:59.325320  2976 net.cpp:156] Memory required for data: 307077120
I0714 23:30:59.325330  2976 layer_factory.hpp:77] Creating layer inception_3b/relu_5x5
I0714 23:30:59.325345  2976 net.cpp:91] Creating Layer inception_3b/relu_5x5
I0714 23:30:59.325351  2976 net.cpp:425] inception_3b/relu_5x5 <- inception_3b/5x5
I0714 23:30:59.325354  2980 net.cpp:141] Setting up inception_3b/relu_5x5_reduce
I0714 23:30:59.325359  2976 net.cpp:386] inception_3b/relu_5x5 -> inception_3b/5x5 (in-place)
I0714 23:30:59.325371  2980 net.cpp:148] Top shape: 10 32 28 28 (250880)
I0714 23:30:59.325376  2980 net.cpp:156] Memory required for data: 304066560
I0714 23:30:59.325382  2980 layer_factory.hpp:77] Creating layer inception_3b/5x5
I0714 23:30:59.325398  2980 net.cpp:91] Creating Layer inception_3b/5x5
I0714 23:30:59.325405  2980 net.cpp:425] inception_3b/5x5 <- inception_3b/5x5_reduce
I0714 23:30:59.325420  2980 net.cpp:399] inception_3b/5x5 -> inception_3b/5x5
I0714 23:30:59.326465  2976 net.cpp:141] Setting up inception_3b/relu_5x5
I0714 23:30:59.326480  2976 net.cpp:148] Top shape: 10 96 28 28 (752640)
I0714 23:30:59.329124  2980 net.cpp:141] Setting up inception_3b/5x5
I0714 23:30:59.335556  2976 net.cpp:156] Memory required for data: 310087680
I0714 23:30:59.335572  2976 layer_factory.hpp:77] Creating layer inception_3b/pool
I0714 23:30:59.335572  2980 net.cpp:148] Top shape: 10 96 28 28 (752640)
I0714 23:30:59.335578  2980 net.cpp:156] Memory required for data: 307077120
I0714 23:30:59.335587  2976 net.cpp:91] Creating Layer inception_3b/pool
I0714 23:30:59.335588  2980 layer_factory.hpp:77] Creating layer inception_3b/relu_5x5
I0714 23:30:59.335593  2976 net.cpp:425] inception_3b/pool <- inception_3a/output_inception_3a/output_0_split_3
I0714 23:30:59.335597  2980 net.cpp:91] Creating Layer inception_3b/relu_5x5
I0714 23:30:59.335603  2980 net.cpp:425] inception_3b/relu_5x5 <- inception_3b/5x5
I0714 23:30:59.335605  2976 net.cpp:399] inception_3b/pool -> inception_3b/pool
I0714 23:30:59.335614  2980 net.cpp:386] inception_3b/relu_5x5 -> inception_3b/5x5 (in-place)
I0714 23:30:59.335880  2976 net.cpp:141] Setting up inception_3b/pool
I0714 23:30:59.335892  2976 net.cpp:148] Top shape: 10 256 28 28 (2007040)
I0714 23:30:59.335897  2976 net.cpp:156] Memory required for data: 318115840
I0714 23:30:59.335902  2976 layer_factory.hpp:77] Creating layer inception_3b/pool_proj
I0714 23:30:59.335918  2976 net.cpp:91] Creating Layer inception_3b/pool_proj
I0714 23:30:59.335924  2976 net.cpp:425] inception_3b/pool_proj <- inception_3b/pool
I0714 23:30:59.335938  2976 net.cpp:399] inception_3b/pool_proj -> inception_3b/pool_proj
I0714 23:30:59.336187  2980 net.cpp:141] Setting up inception_3b/relu_5x5
I0714 23:30:59.336200  2980 net.cpp:148] Top shape: 10 96 28 28 (752640)
I0714 23:30:59.336205  2980 net.cpp:156] Memory required for data: 310087680
I0714 23:30:59.336210  2980 layer_factory.hpp:77] Creating layer inception_3b/pool
I0714 23:30:59.336222  2980 net.cpp:91] Creating Layer inception_3b/pool
I0714 23:30:59.336228  2980 net.cpp:425] inception_3b/pool <- inception_3a/output_inception_3a/output_0_split_3
I0714 23:30:59.336237  2980 net.cpp:399] inception_3b/pool -> inception_3b/pool
I0714 23:30:59.336315  2980 net.cpp:141] Setting up inception_3b/pool
I0714 23:30:59.336326  2980 net.cpp:148] Top shape: 10 256 28 28 (2007040)
I0714 23:30:59.336331  2980 net.cpp:156] Memory required for data: 318115840
I0714 23:30:59.336336  2980 layer_factory.hpp:77] Creating layer inception_3b/pool_proj
I0714 23:30:59.336351  2980 net.cpp:91] Creating Layer inception_3b/pool_proj
I0714 23:30:59.336357  2980 net.cpp:425] inception_3b/pool_proj <- inception_3b/pool
I0714 23:30:59.336369  2980 net.cpp:399] inception_3b/pool_proj -> inception_3b/pool_proj
I0714 23:30:59.341095  2976 net.cpp:141] Setting up inception_3b/pool_proj
I0714 23:30:59.341111  2976 net.cpp:148] Top shape: 10 64 28 28 (501760)
I0714 23:30:59.341117  2976 net.cpp:156] Memory required for data: 320122880
I0714 23:30:59.341126  2976 layer_factory.hpp:77] Creating layer inception_3b/relu_pool_proj
I0714 23:30:59.341136  2976 net.cpp:91] Creating Layer inception_3b/relu_pool_proj
I0714 23:30:59.341142  2976 net.cpp:425] inception_3b/relu_pool_proj <- inception_3b/pool_proj
I0714 23:30:59.341153  2976 net.cpp:386] inception_3b/relu_pool_proj -> inception_3b/pool_proj (in-place)
I0714 23:30:59.341521  2980 net.cpp:141] Setting up inception_3b/pool_proj
I0714 23:30:59.341541  2980 net.cpp:148] Top shape: 10 64 28 28 (501760)
I0714 23:30:59.341545  2980 net.cpp:156] Memory required for data: 320122880
I0714 23:30:59.341555  2980 layer_factory.hpp:77] Creating layer inception_3b/relu_pool_proj
I0714 23:30:59.341568  2980 net.cpp:91] Creating Layer inception_3b/relu_pool_proj
I0714 23:30:59.341575  2980 net.cpp:425] inception_3b/relu_pool_proj <- inception_3b/pool_proj
I0714 23:30:59.341580  2976 net.cpp:141] Setting up inception_3b/relu_pool_proj
I0714 23:30:59.341585  2980 net.cpp:386] inception_3b/relu_pool_proj -> inception_3b/pool_proj (in-place)
I0714 23:30:59.341598  2976 net.cpp:148] Top shape: 10 64 28 28 (501760)
I0714 23:30:59.341603  2976 net.cpp:156] Memory required for data: 322129920
I0714 23:30:59.341609  2976 layer_factory.hpp:77] Creating layer inception_3b/output
I0714 23:30:59.341619  2976 net.cpp:91] Creating Layer inception_3b/output
I0714 23:30:59.341624  2976 net.cpp:425] inception_3b/output <- inception_3b/1x1
I0714 23:30:59.341630  2976 net.cpp:425] inception_3b/output <- inception_3b/3x3
I0714 23:30:59.341637  2976 net.cpp:425] inception_3b/output <- inception_3b/5x5
I0714 23:30:59.341642  2976 net.cpp:425] inception_3b/output <- inception_3b/pool_proj
I0714 23:30:59.341650  2976 net.cpp:399] inception_3b/output -> inception_3b/output
I0714 23:30:59.342392  2976 net.cpp:141] Setting up inception_3b/output
I0714 23:30:59.342404  2976 net.cpp:148] Top shape: 10 480 28 28 (3763200)
I0714 23:30:59.342409  2976 net.cpp:156] Memory required for data: 337182720
I0714 23:30:59.342414  2976 layer_factory.hpp:77] Creating layer pool3/3x3_s2
I0714 23:30:59.342425  2976 net.cpp:91] Creating Layer pool3/3x3_s2
I0714 23:30:59.342432  2976 net.cpp:425] pool3/3x3_s2 <- inception_3b/output
I0714 23:30:59.342438  2976 net.cpp:399] pool3/3x3_s2 -> pool3/3x3_s2
I0714 23:30:59.342542  2976 net.cpp:141] Setting up pool3/3x3_s2
I0714 23:30:59.342555  2976 net.cpp:148] Top shape: 10 480 14 14 (940800)
I0714 23:30:59.342559  2976 net.cpp:156] Memory required for data: 340945920
I0714 23:30:59.342564  2976 layer_factory.hpp:77] Creating layer pool3/3x3_s2_pool3/3x3_s2_0_split
I0714 23:30:59.342574  2976 net.cpp:91] Creating Layer pool3/3x3_s2_pool3/3x3_s2_0_split
I0714 23:30:59.342571  2980 net.cpp:141] Setting up inception_3b/relu_pool_proj
I0714 23:30:59.342579  2976 net.cpp:425] pool3/3x3_s2_pool3/3x3_s2_0_split <- pool3/3x3_s2
I0714 23:30:59.342587  2980 net.cpp:148] Top shape: 10 64 28 28 (501760)
I0714 23:30:59.342592  2976 net.cpp:399] pool3/3x3_s2_pool3/3x3_s2_0_split -> pool3/3x3_s2_pool3/3x3_s2_0_split_0
I0714 23:30:59.342593  2980 net.cpp:156] Memory required for data: 322129920
I0714 23:30:59.342599  2980 layer_factory.hpp:77] Creating layer inception_3b/output
I0714 23:30:59.342602  2976 net.cpp:399] pool3/3x3_s2_pool3/3x3_s2_0_split -> pool3/3x3_s2_pool3/3x3_s2_0_split_1
I0714 23:30:59.342608  2980 net.cpp:91] Creating Layer inception_3b/output
I0714 23:30:59.342612  2976 net.cpp:399] pool3/3x3_s2_pool3/3x3_s2_0_split -> pool3/3x3_s2_pool3/3x3_s2_0_split_2
I0714 23:30:59.342615  2980 net.cpp:425] inception_3b/output <- inception_3b/1x1
I0714 23:30:59.342622  2980 net.cpp:425] inception_3b/output <- inception_3b/3x3
I0714 23:30:59.342622  2976 net.cpp:399] pool3/3x3_s2_pool3/3x3_s2_0_split -> pool3/3x3_s2_pool3/3x3_s2_0_split_3
I0714 23:30:59.342629  2980 net.cpp:425] inception_3b/output <- inception_3b/5x5
I0714 23:30:59.342635  2980 net.cpp:425] inception_3b/output <- inception_3b/pool_proj
I0714 23:30:59.342644  2980 net.cpp:399] inception_3b/output -> inception_3b/output
I0714 23:30:59.342736  2980 net.cpp:141] Setting up inception_3b/output
I0714 23:30:59.342749  2980 net.cpp:148] Top shape: 10 480 28 28 (3763200)
I0714 23:30:59.342753  2980 net.cpp:156] Memory required for data: 337182720
I0714 23:30:59.342759  2980 layer_factory.hpp:77] Creating layer pool3/3x3_s2
I0714 23:30:59.342772  2980 net.cpp:91] Creating Layer pool3/3x3_s2
I0714 23:30:59.342777  2980 net.cpp:425] pool3/3x3_s2 <- inception_3b/output
I0714 23:30:59.342784  2980 net.cpp:399] pool3/3x3_s2 -> pool3/3x3_s2
I0714 23:30:59.342803  2976 net.cpp:141] Setting up pool3/3x3_s2_pool3/3x3_s2_0_split
I0714 23:30:59.342814  2976 net.cpp:148] Top shape: 10 480 14 14 (940800)
I0714 23:30:59.342821  2976 net.cpp:148] Top shape: 10 480 14 14 (940800)
I0714 23:30:59.342828  2976 net.cpp:148] Top shape: 10 480 14 14 (940800)
I0714 23:30:59.342833  2976 net.cpp:148] Top shape: 10 480 14 14 (940800)
I0714 23:30:59.342838  2976 net.cpp:156] Memory required for data: 355998720
I0714 23:30:59.342842  2976 layer_factory.hpp:77] Creating layer inception_4a/1x1
I0714 23:30:59.342859  2976 net.cpp:91] Creating Layer inception_4a/1x1
I0714 23:30:59.342865  2980 net.cpp:141] Setting up pool3/3x3_s2
I0714 23:30:59.368419  2976 net.cpp:425] inception_4a/1x1 <- pool3/3x3_s2_pool3/3x3_s2_0_split_0
I0714 23:30:59.368433  2980 net.cpp:148] Top shape: 10 480 14 14 (940800)
I0714 23:30:59.368438  2976 net.cpp:399] inception_4a/1x1 -> inception_4a/1x1
I0714 23:30:59.368439  2980 net.cpp:156] Memory required for data: 340945920
I0714 23:30:59.368445  2980 layer_factory.hpp:77] Creating layer pool3/3x3_s2_pool3/3x3_s2_0_split
I0714 23:30:59.368454  2980 net.cpp:91] Creating Layer pool3/3x3_s2_pool3/3x3_s2_0_split
I0714 23:30:59.368459  2980 net.cpp:425] pool3/3x3_s2_pool3/3x3_s2_0_split <- pool3/3x3_s2
I0714 23:30:59.368468  2980 net.cpp:399] pool3/3x3_s2_pool3/3x3_s2_0_split -> pool3/3x3_s2_pool3/3x3_s2_0_split_0
I0714 23:30:59.368476  2980 net.cpp:399] pool3/3x3_s2_pool3/3x3_s2_0_split -> pool3/3x3_s2_pool3/3x3_s2_0_split_1
I0714 23:30:59.368484  2980 net.cpp:399] pool3/3x3_s2_pool3/3x3_s2_0_split -> pool3/3x3_s2_pool3/3x3_s2_0_split_2
I0714 23:30:59.368496  2980 net.cpp:399] pool3/3x3_s2_pool3/3x3_s2_0_split -> pool3/3x3_s2_pool3/3x3_s2_0_split_3
I0714 23:30:59.368849  2980 net.cpp:141] Setting up pool3/3x3_s2_pool3/3x3_s2_0_split
I0714 23:30:59.368868  2980 net.cpp:148] Top shape: 10 480 14 14 (940800)
I0714 23:30:59.368875  2980 net.cpp:148] Top shape: 10 480 14 14 (940800)
I0714 23:30:59.368881  2980 net.cpp:148] Top shape: 10 480 14 14 (940800)
I0714 23:30:59.368887  2980 net.cpp:148] Top shape: 10 480 14 14 (940800)
I0714 23:30:59.368891  2980 net.cpp:156] Memory required for data: 355998720
I0714 23:30:59.368896  2980 layer_factory.hpp:77] Creating layer inception_4a/1x1
I0714 23:30:59.368914  2980 net.cpp:91] Creating Layer inception_4a/1x1
I0714 23:30:59.368921  2980 net.cpp:425] inception_4a/1x1 <- pool3/3x3_s2_pool3/3x3_s2_0_split_0
I0714 23:30:59.368934  2980 net.cpp:399] inception_4a/1x1 -> inception_4a/1x1
I0714 23:30:59.374793  2976 net.cpp:141] Setting up inception_4a/1x1
I0714 23:30:59.374812  2976 net.cpp:148] Top shape: 10 192 14 14 (376320)
I0714 23:30:59.374819  2976 net.cpp:156] Memory required for data: 357504000
I0714 23:30:59.374828  2976 layer_factory.hpp:77] Creating layer inception_4a/relu_1x1
I0714 23:30:59.374837  2976 net.cpp:91] Creating Layer inception_4a/relu_1x1
I0714 23:30:59.374845  2976 net.cpp:425] inception_4a/relu_1x1 <- inception_4a/1x1
I0714 23:30:59.374852  2976 net.cpp:386] inception_4a/relu_1x1 -> inception_4a/1x1 (in-place)
I0714 23:30:59.376035  2976 net.cpp:141] Setting up inception_4a/relu_1x1
I0714 23:30:59.376049  2976 net.cpp:148] Top shape: 10 192 14 14 (376320)
I0714 23:30:59.376054  2976 net.cpp:156] Memory required for data: 359009280
I0714 23:30:59.376058  2976 layer_factory.hpp:77] Creating layer inception_4a/3x3_reduce
I0714 23:30:59.376075  2976 net.cpp:91] Creating Layer inception_4a/3x3_reduce
I0714 23:30:59.376081  2976 net.cpp:425] inception_4a/3x3_reduce <- pool3/3x3_s2_pool3/3x3_s2_0_split_1
I0714 23:30:59.376098  2976 net.cpp:399] inception_4a/3x3_reduce -> inception_4a/3x3_reduce
I0714 23:30:59.376498  2980 net.cpp:141] Setting up inception_4a/1x1
I0714 23:30:59.376515  2980 net.cpp:148] Top shape: 10 192 14 14 (376320)
I0714 23:30:59.376520  2980 net.cpp:156] Memory required for data: 357504000
I0714 23:30:59.376531  2980 layer_factory.hpp:77] Creating layer inception_4a/relu_1x1
I0714 23:30:59.376543  2980 net.cpp:91] Creating Layer inception_4a/relu_1x1
I0714 23:30:59.376549  2980 net.cpp:425] inception_4a/relu_1x1 <- inception_4a/1x1
I0714 23:30:59.376557  2980 net.cpp:386] inception_4a/relu_1x1 -> inception_4a/1x1 (in-place)
I0714 23:30:59.376829  2980 net.cpp:141] Setting up inception_4a/relu_1x1
I0714 23:30:59.376842  2980 net.cpp:148] Top shape: 10 192 14 14 (376320)
I0714 23:30:59.376847  2980 net.cpp:156] Memory required for data: 359009280
I0714 23:30:59.376852  2980 layer_factory.hpp:77] Creating layer inception_4a/3x3_reduce
I0714 23:30:59.376868  2980 net.cpp:91] Creating Layer inception_4a/3x3_reduce
I0714 23:30:59.376874  2980 net.cpp:425] inception_4a/3x3_reduce <- pool3/3x3_s2_pool3/3x3_s2_0_split_1
I0714 23:30:59.376888  2980 net.cpp:399] inception_4a/3x3_reduce -> inception_4a/3x3_reduce
I0714 23:30:59.381561  2976 net.cpp:141] Setting up inception_4a/3x3_reduce
I0714 23:30:59.381577  2976 net.cpp:148] Top shape: 10 96 14 14 (188160)
I0714 23:30:59.381582  2976 net.cpp:156] Memory required for data: 359761920
I0714 23:30:59.381603  2976 layer_factory.hpp:77] Creating layer inception_4a/relu_3x3_reduce
I0714 23:30:59.381613  2976 net.cpp:91] Creating Layer inception_4a/relu_3x3_reduce
I0714 23:30:59.381618  2976 net.cpp:425] inception_4a/relu_3x3_reduce <- inception_4a/3x3_reduce
I0714 23:30:59.381628  2976 net.cpp:386] inception_4a/relu_3x3_reduce -> inception_4a/3x3_reduce (in-place)
I0714 23:30:59.382593  2980 net.cpp:141] Setting up inception_4a/3x3_reduce
I0714 23:30:59.382612  2980 net.cpp:148] Top shape: 10 96 14 14 (188160)
I0714 23:30:59.382617  2980 net.cpp:156] Memory required for data: 359761920
I0714 23:30:59.382635  2980 layer_factory.hpp:77] Creating layer inception_4a/relu_3x3_reduce
I0714 23:30:59.382647  2980 net.cpp:91] Creating Layer inception_4a/relu_3x3_reduce
I0714 23:30:59.382653  2980 net.cpp:425] inception_4a/relu_3x3_reduce <- inception_4a/3x3_reduce
I0714 23:30:59.382661  2980 net.cpp:386] inception_4a/relu_3x3_reduce -> inception_4a/3x3_reduce (in-place)
I0714 23:30:59.382666  2976 net.cpp:141] Setting up inception_4a/relu_3x3_reduce
I0714 23:30:59.382681  2976 net.cpp:148] Top shape: 10 96 14 14 (188160)
I0714 23:30:59.382696  2976 net.cpp:156] Memory required for data: 360514560
I0714 23:30:59.382704  2976 layer_factory.hpp:77] Creating layer inception_4a/3x3
I0714 23:30:59.382721  2976 net.cpp:91] Creating Layer inception_4a/3x3
I0714 23:30:59.382730  2976 net.cpp:425] inception_4a/3x3 <- inception_4a/3x3_reduce
I0714 23:30:59.382741  2976 net.cpp:399] inception_4a/3x3 -> inception_4a/3x3
I0714 23:30:59.384363  2980 net.cpp:141] Setting up inception_4a/relu_3x3_reduce
I0714 23:30:59.384377  2980 net.cpp:148] Top shape: 10 96 14 14 (188160)
I0714 23:30:59.384382  2980 net.cpp:156] Memory required for data: 360514560
I0714 23:30:59.384387  2980 layer_factory.hpp:77] Creating layer inception_4a/3x3
I0714 23:30:59.384403  2980 net.cpp:91] Creating Layer inception_4a/3x3
I0714 23:30:59.384410  2980 net.cpp:425] inception_4a/3x3 <- inception_4a/3x3_reduce
I0714 23:30:59.384423  2980 net.cpp:399] inception_4a/3x3 -> inception_4a/3x3
I0714 23:30:59.389021  2976 net.cpp:141] Setting up inception_4a/3x3
I0714 23:30:59.389041  2976 net.cpp:148] Top shape: 10 208 14 14 (407680)
I0714 23:30:59.389047  2976 net.cpp:156] Memory required for data: 362145280
I0714 23:30:59.389058  2976 layer_factory.hpp:77] Creating layer inception_4a/relu_3x3
I0714 23:30:59.389068  2976 net.cpp:91] Creating Layer inception_4a/relu_3x3
I0714 23:30:59.389075  2976 net.cpp:425] inception_4a/relu_3x3 <- inception_4a/3x3
I0714 23:30:59.389082  2976 net.cpp:386] inception_4a/relu_3x3 -> inception_4a/3x3 (in-place)
I0714 23:30:59.390512  2976 net.cpp:141] Setting up inception_4a/relu_3x3
I0714 23:30:59.390527  2976 net.cpp:148] Top shape: 10 208 14 14 (407680)
I0714 23:30:59.390532  2976 net.cpp:156] Memory required for data: 363776000
I0714 23:30:59.390538  2976 layer_factory.hpp:77] Creating layer inception_4a/5x5_reduce
I0714 23:30:59.390555  2976 net.cpp:91] Creating Layer inception_4a/5x5_reduce
I0714 23:30:59.390563  2976 net.cpp:425] inception_4a/5x5_reduce <- pool3/3x3_s2_pool3/3x3_s2_0_split_2
I0714 23:30:59.390576  2976 net.cpp:399] inception_4a/5x5_reduce -> inception_4a/5x5_reduce
I0714 23:30:59.390951  2980 net.cpp:141] Setting up inception_4a/3x3
I0714 23:30:59.390969  2980 net.cpp:148] Top shape: 10 208 14 14 (407680)
I0714 23:30:59.390974  2980 net.cpp:156] Memory required for data: 362145280
I0714 23:30:59.390985  2980 layer_factory.hpp:77] Creating layer inception_4a/relu_3x3
I0714 23:30:59.390996  2980 net.cpp:91] Creating Layer inception_4a/relu_3x3
I0714 23:30:59.391003  2980 net.cpp:425] inception_4a/relu_3x3 <- inception_4a/3x3
I0714 23:30:59.393263  2976 net.cpp:141] Setting up inception_4a/5x5_reduce
I0714 23:30:59.399266  2980 net.cpp:386] inception_4a/relu_3x3 -> inception_4a/3x3 (in-place)
I0714 23:30:59.399272  2976 net.cpp:148] Top shape: 10 16 14 14 (31360)
I0714 23:30:59.399278  2976 net.cpp:156] Memory required for data: 363901440
I0714 23:30:59.399288  2976 layer_factory.hpp:77] Creating layer inception_4a/relu_5x5_reduce
I0714 23:30:59.399297  2976 net.cpp:91] Creating Layer inception_4a/relu_5x5_reduce
I0714 23:30:59.399303  2976 net.cpp:425] inception_4a/relu_5x5_reduce <- inception_4a/5x5_reduce
I0714 23:30:59.399314  2976 net.cpp:386] inception_4a/relu_5x5_reduce -> inception_4a/5x5_reduce (in-place)
I0714 23:30:59.400461  2980 net.cpp:141] Setting up inception_4a/relu_3x3
I0714 23:30:59.400467  2976 net.cpp:141] Setting up inception_4a/relu_5x5_reduce
I0714 23:30:59.400477  2980 net.cpp:148] Top shape: 10 208 14 14 (407680)
I0714 23:30:59.400481  2976 net.cpp:148] Top shape: 10 16 14 14 (31360)
I0714 23:30:59.400482  2980 net.cpp:156] Memory required for data: 363776000
I0714 23:30:59.400487  2976 net.cpp:156] Memory required for data: 364026880
I0714 23:30:59.400490  2980 layer_factory.hpp:77] Creating layer inception_4a/5x5_reduce
I0714 23:30:59.400493  2976 layer_factory.hpp:77] Creating layer inception_4a/5x5
I0714 23:30:59.400506  2980 net.cpp:91] Creating Layer inception_4a/5x5_reduce
I0714 23:30:59.400512  2976 net.cpp:91] Creating Layer inception_4a/5x5
I0714 23:30:59.400512  2980 net.cpp:425] inception_4a/5x5_reduce <- pool3/3x3_s2_pool3/3x3_s2_0_split_2
I0714 23:30:59.400523  2976 net.cpp:425] inception_4a/5x5 <- inception_4a/5x5_reduce
I0714 23:30:59.400532  2980 net.cpp:399] inception_4a/5x5_reduce -> inception_4a/5x5_reduce
I0714 23:30:59.400533  2976 net.cpp:399] inception_4a/5x5 -> inception_4a/5x5
I0714 23:30:59.407338  2976 net.cpp:141] Setting up inception_4a/5x5
I0714 23:30:59.407363  2976 net.cpp:148] Top shape: 10 48 14 14 (94080)
I0714 23:30:59.407369  2976 net.cpp:156] Memory required for data: 364403200
I0714 23:30:59.407382  2976 layer_factory.hpp:77] Creating layer inception_4a/relu_5x5
I0714 23:30:59.407392  2976 net.cpp:91] Creating Layer inception_4a/relu_5x5
I0714 23:30:59.407398  2976 net.cpp:425] inception_4a/relu_5x5 <- inception_4a/5x5
I0714 23:30:59.407410  2976 net.cpp:386] inception_4a/relu_5x5 -> inception_4a/5x5 (in-place)
I0714 23:30:59.407765  2980 net.cpp:141] Setting up inception_4a/5x5_reduce
I0714 23:30:59.407785  2980 net.cpp:148] Top shape: 10 16 14 14 (31360)
I0714 23:30:59.407791  2980 net.cpp:156] Memory required for data: 363901440
I0714 23:30:59.407802  2980 layer_factory.hpp:77] Creating layer inception_4a/relu_5x5_reduce
I0714 23:30:59.407811  2980 net.cpp:91] Creating Layer inception_4a/relu_5x5_reduce
I0714 23:30:59.407817  2980 net.cpp:425] inception_4a/relu_5x5_reduce <- inception_4a/5x5_reduce
I0714 23:30:59.407825  2980 net.cpp:386] inception_4a/relu_5x5_reduce -> inception_4a/5x5_reduce (in-place)
I0714 23:30:59.409150  2976 net.cpp:141] Setting up inception_4a/relu_5x5
I0714 23:30:59.409165  2976 net.cpp:148] Top shape: 10 48 14 14 (94080)
I0714 23:30:59.409169  2976 net.cpp:156] Memory required for data: 364779520
I0714 23:30:59.409175  2976 layer_factory.hpp:77] Creating layer inception_4a/pool
I0714 23:30:59.409189  2976 net.cpp:91] Creating Layer inception_4a/pool
I0714 23:30:59.409196  2976 net.cpp:425] inception_4a/pool <- pool3/3x3_s2_pool3/3x3_s2_0_split_3
I0714 23:30:59.409204  2976 net.cpp:399] inception_4a/pool -> inception_4a/pool
I0714 23:30:59.409299  2976 net.cpp:141] Setting up inception_4a/pool
I0714 23:30:59.409312  2976 net.cpp:148] Top shape: 10 480 14 14 (940800)
I0714 23:30:59.409317  2976 net.cpp:156] Memory required for data: 368542720
I0714 23:30:59.409322  2976 layer_factory.hpp:77] Creating layer inception_4a/pool_proj
I0714 23:30:59.409339  2976 net.cpp:91] Creating Layer inception_4a/pool_proj
I0714 23:30:59.409346  2976 net.cpp:425] inception_4a/pool_proj <- inception_4a/pool
I0714 23:30:59.409359  2976 net.cpp:399] inception_4a/pool_proj -> inception_4a/pool_proj
I0714 23:30:59.409657  2980 net.cpp:141] Setting up inception_4a/relu_5x5_reduce
I0714 23:30:59.409672  2980 net.cpp:148] Top shape: 10 16 14 14 (31360)
I0714 23:30:59.409677  2980 net.cpp:156] Memory required for data: 364026880
I0714 23:30:59.409682  2980 layer_factory.hpp:77] Creating layer inception_4a/5x5
I0714 23:30:59.409700  2980 net.cpp:91] Creating Layer inception_4a/5x5
I0714 23:30:59.409706  2980 net.cpp:425] inception_4a/5x5 <- inception_4a/5x5_reduce
I0714 23:30:59.409719  2980 net.cpp:399] inception_4a/5x5 -> inception_4a/5x5
I0714 23:30:59.414902  2976 net.cpp:141] Setting up inception_4a/pool_proj
I0714 23:30:59.414934  2976 net.cpp:148] Top shape: 10 64 14 14 (125440)
I0714 23:30:59.414945  2976 net.cpp:156] Memory required for data: 369044480
I0714 23:30:59.414964  2976 layer_factory.hpp:77] Creating layer inception_4a/relu_pool_proj
I0714 23:30:59.414983  2976 net.cpp:91] Creating Layer inception_4a/relu_pool_proj
I0714 23:30:59.414996  2976 net.cpp:425] inception_4a/relu_pool_proj <- inception_4a/pool_proj
I0714 23:30:59.415019  2976 net.cpp:386] inception_4a/relu_pool_proj -> inception_4a/pool_proj (in-place)
I0714 23:30:59.416231  2976 net.cpp:141] Setting up inception_4a/relu_pool_proj
I0714 23:30:59.416247  2976 net.cpp:148] Top shape: 10 64 14 14 (125440)
I0714 23:30:59.416252  2976 net.cpp:156] Memory required for data: 369546240
I0714 23:30:59.416259  2976 layer_factory.hpp:77] Creating layer inception_4a/output
I0714 23:30:59.416272  2976 net.cpp:91] Creating Layer inception_4a/output
I0714 23:30:59.416280  2976 net.cpp:425] inception_4a/output <- inception_4a/1x1
I0714 23:30:59.416287  2976 net.cpp:425] inception_4a/output <- inception_4a/3x3
I0714 23:30:59.416293  2976 net.cpp:425] inception_4a/output <- inception_4a/5x5
I0714 23:30:59.416299  2976 net.cpp:425] inception_4a/output <- inception_4a/pool_proj
I0714 23:30:59.416307  2976 net.cpp:399] inception_4a/output -> inception_4a/output
I0714 23:30:59.416373  2976 net.cpp:141] Setting up inception_4a/output
I0714 23:30:59.416383  2976 net.cpp:148] Top shape: 10 512 14 14 (1003520)
I0714 23:30:59.416388  2976 net.cpp:156] Memory required for data: 373560320
I0714 23:30:59.416393  2976 layer_factory.hpp:77] Creating layer inception_4a/output_inception_4a/output_0_split
I0714 23:30:59.416404  2976 net.cpp:91] Creating Layer inception_4a/output_inception_4a/output_0_split
I0714 23:30:59.416409  2976 net.cpp:425] inception_4a/output_inception_4a/output_0_split <- inception_4a/output
I0714 23:30:59.416420  2976 net.cpp:399] inception_4a/output_inception_4a/output_0_split -> inception_4a/output_inception_4a/output_0_split_0
I0714 23:30:59.416430  2976 net.cpp:399] inception_4a/output_inception_4a/output_0_split -> inception_4a/output_inception_4a/output_0_split_1
I0714 23:30:59.416440  2976 net.cpp:399] inception_4a/output_inception_4a/output_0_split -> inception_4a/output_inception_4a/output_0_split_2
I0714 23:30:59.416450  2976 net.cpp:399] inception_4a/output_inception_4a/output_0_split -> inception_4a/output_inception_4a/output_0_split_3
I0714 23:30:59.416684  2976 net.cpp:141] Setting up inception_4a/output_inception_4a/output_0_split
I0714 23:30:59.416697  2976 net.cpp:148] Top shape: 10 512 14 14 (1003520)
I0714 23:30:59.416702  2976 net.cpp:148] Top shape: 10 512 14 14 (1003520)
I0714 23:30:59.416708  2976 net.cpp:148] Top shape: 10 512 14 14 (1003520)
I0714 23:30:59.416713  2976 net.cpp:148] Top shape: 10 512 14 14 (1003520)
I0714 23:30:59.416718  2976 net.cpp:156] Memory required for data: 389616640
I0714 23:30:59.416723  2976 layer_factory.hpp:77] Creating layer inception_4b/1x1
I0714 23:30:59.416745  2976 net.cpp:91] Creating Layer inception_4b/1x1
I0714 23:30:59.416752  2976 net.cpp:425] inception_4b/1x1 <- inception_4a/output_inception_4a/output_0_split_0
I0714 23:30:59.416761  2976 net.cpp:399] inception_4b/1x1 -> inception_4b/1x1
I0714 23:30:59.416802  2980 net.cpp:141] Setting up inception_4a/5x5
I0714 23:30:59.416826  2980 net.cpp:148] Top shape: 10 48 14 14 (94080)
I0714 23:30:59.416836  2980 net.cpp:156] Memory required for data: 364403200
I0714 23:30:59.416857  2980 layer_factory.hpp:77] Creating layer inception_4a/relu_5x5
I0714 23:30:59.416872  2980 net.cpp:91] Creating Layer inception_4a/relu_5x5
I0714 23:30:59.416885  2980 net.cpp:425] inception_4a/relu_5x5 <- inception_4a/5x5
I0714 23:30:59.416900  2980 net.cpp:386] inception_4a/relu_5x5 -> inception_4a/5x5 (in-place)
I0714 23:30:59.417532  2980 net.cpp:141] Setting up inception_4a/relu_5x5
I0714 23:30:59.417554  2980 net.cpp:148] Top shape: 10 48 14 14 (94080)
I0714 23:30:59.417565  2980 net.cpp:156] Memory required for data: 364779520
I0714 23:30:59.417575  2980 layer_factory.hpp:77] Creating layer inception_4a/pool
I0714 23:30:59.417596  2980 net.cpp:91] Creating Layer inception_4a/pool
I0714 23:30:59.417610  2980 net.cpp:425] inception_4a/pool <- pool3/3x3_s2_pool3/3x3_s2_0_split_3
I0714 23:30:59.417625  2980 net.cpp:399] inception_4a/pool -> inception_4a/pool
I0714 23:30:59.417712  2980 net.cpp:141] Setting up inception_4a/pool
I0714 23:30:59.417726  2980 net.cpp:148] Top shape: 10 480 14 14 (940800)
I0714 23:30:59.417732  2980 net.cpp:156] Memory required for data: 368542720
I0714 23:30:59.417742  2980 layer_factory.hpp:77] Creating layer inception_4a/pool_proj
I0714 23:30:59.417769  2980 net.cpp:91] Creating Layer inception_4a/pool_proj
I0714 23:30:59.417781  2980 net.cpp:425] inception_4a/pool_proj <- inception_4a/pool
I0714 23:30:59.417804  2980 net.cpp:399] inception_4a/pool_proj -> inception_4a/pool_proj
I0714 23:30:59.423795  2976 net.cpp:141] Setting up inception_4b/1x1
I0714 23:30:59.423825  2976 net.cpp:148] Top shape: 10 160 14 14 (313600)
I0714 23:30:59.423831  2976 net.cpp:156] Memory required for data: 390871040
I0714 23:30:59.423843  2976 layer_factory.hpp:77] Creating layer inception_4b/relu_1x1
I0714 23:30:59.423854  2976 net.cpp:91] Creating Layer inception_4b/relu_1x1
I0714 23:30:59.423861  2976 net.cpp:425] inception_4b/relu_1x1 <- inception_4b/1x1
I0714 23:30:59.423871  2976 net.cpp:386] inception_4b/relu_1x1 -> inception_4b/1x1 (in-place)
I0714 23:30:59.424885  2980 net.cpp:141] Setting up inception_4a/pool_proj
I0714 23:30:59.424903  2980 net.cpp:148] Top shape: 10 64 14 14 (125440)
I0714 23:30:59.424909  2980 net.cpp:156] Memory required for data: 369044480
I0714 23:30:59.424921  2980 layer_factory.hpp:77] Creating layer inception_4a/relu_pool_proj
I0714 23:30:59.424932  2980 net.cpp:91] Creating Layer inception_4a/relu_pool_proj
I0714 23:30:59.424940  2980 net.cpp:425] inception_4a/relu_pool_proj <- inception_4a/pool_proj
I0714 23:30:59.424948  2980 net.cpp:386] inception_4a/relu_pool_proj -> inception_4a/pool_proj (in-place)
I0714 23:30:59.424960  2976 net.cpp:141] Setting up inception_4b/relu_1x1
I0714 23:30:59.424975  2976 net.cpp:148] Top shape: 10 160 14 14 (313600)
I0714 23:30:59.424980  2976 net.cpp:156] Memory required for data: 392125440
I0714 23:30:59.424985  2976 layer_factory.hpp:77] Creating layer inception_4b/3x3_reduce
I0714 23:30:59.425005  2976 net.cpp:91] Creating Layer inception_4b/3x3_reduce
I0714 23:30:59.425012  2976 net.cpp:425] inception_4b/3x3_reduce <- inception_4a/output_inception_4a/output_0_split_1
I0714 23:30:59.425024  2976 net.cpp:399] inception_4b/3x3_reduce -> inception_4b/3x3_reduce
I0714 23:30:59.425513  2980 net.cpp:141] Setting up inception_4a/relu_pool_proj
I0714 23:30:59.425526  2980 net.cpp:148] Top shape: 10 64 14 14 (125440)
I0714 23:30:59.425531  2980 net.cpp:156] Memory required for data: 369546240
I0714 23:30:59.425536  2980 layer_factory.hpp:77] Creating layer inception_4a/output
I0714 23:30:59.425545  2980 net.cpp:91] Creating Layer inception_4a/output
I0714 23:30:59.425551  2980 net.cpp:425] inception_4a/output <- inception_4a/1x1
I0714 23:30:59.425559  2980 net.cpp:425] inception_4a/output <- inception_4a/3x3
I0714 23:30:59.425565  2980 net.cpp:425] inception_4a/output <- inception_4a/5x5
I0714 23:30:59.425570  2980 net.cpp:425] inception_4a/output <- inception_4a/pool_proj
I0714 23:30:59.425580  2980 net.cpp:399] inception_4a/output -> inception_4a/output
I0714 23:30:59.425637  2980 net.cpp:141] Setting up inception_4a/output
I0714 23:30:59.425647  2980 net.cpp:148] Top shape: 10 512 14 14 (1003520)
I0714 23:30:59.425652  2980 net.cpp:156] Memory required for data: 373560320
I0714 23:30:59.425657  2980 layer_factory.hpp:77] Creating layer inception_4a/output_inception_4a/output_0_split
I0714 23:30:59.425665  2980 net.cpp:91] Creating Layer inception_4a/output_inception_4a/output_0_split
I0714 23:30:59.425671  2980 net.cpp:425] inception_4a/output_inception_4a/output_0_split <- inception_4a/output
I0714 23:30:59.425678  2980 net.cpp:399] inception_4a/output_inception_4a/output_0_split -> inception_4a/output_inception_4a/output_0_split_0
I0714 23:30:59.425688  2980 net.cpp:399] inception_4a/output_inception_4a/output_0_split -> inception_4a/output_inception_4a/output_0_split_1
I0714 23:30:59.425699  2980 net.cpp:399] inception_4a/output_inception_4a/output_0_split -> inception_4a/output_inception_4a/output_0_split_2
I0714 23:30:59.425709  2980 net.cpp:399] inception_4a/output_inception_4a/output_0_split -> inception_4a/output_inception_4a/output_0_split_3
I0714 23:30:59.425817  2980 net.cpp:141] Setting up inception_4a/output_inception_4a/output_0_split
I0714 23:30:59.425827  2980 net.cpp:148] Top shape: 10 512 14 14 (1003520)
I0714 23:30:59.425834  2980 net.cpp:148] Top shape: 10 512 14 14 (1003520)
I0714 23:30:59.425839  2980 net.cpp:148] Top shape: 10 512 14 14 (1003520)
I0714 23:30:59.425845  2980 net.cpp:148] Top shape: 10 512 14 14 (1003520)
I0714 23:30:59.425849  2980 net.cpp:156] Memory required for data: 389616640
I0714 23:30:59.425854  2980 layer_factory.hpp:77] Creating layer inception_4b/1x1
I0714 23:30:59.425871  2980 net.cpp:91] Creating Layer inception_4b/1x1
I0714 23:30:59.425878  2980 net.cpp:425] inception_4b/1x1 <- inception_4a/output_inception_4a/output_0_split_0
I0714 23:30:59.425886  2980 net.cpp:399] inception_4b/1x1 -> inception_4b/1x1
I0714 23:30:59.429702  2976 net.cpp:141] Setting up inception_4b/3x3_reduce
I0714 23:30:59.429719  2976 net.cpp:148] Top shape: 10 112 14 14 (219520)
I0714 23:30:59.429724  2976 net.cpp:156] Memory required for data: 393003520
I0714 23:30:59.429734  2976 layer_factory.hpp:77] Creating layer inception_4b/relu_3x3_reduce
I0714 23:30:59.429744  2976 net.cpp:91] Creating Layer inception_4b/relu_3x3_reduce
I0714 23:30:59.429750  2976 net.cpp:425] inception_4b/relu_3x3_reduce <- inception_4b/3x3_reduce
I0714 23:30:59.429762  2976 net.cpp:386] inception_4b/relu_3x3_reduce -> inception_4b/3x3_reduce (in-place)
I0714 23:30:59.430987  2976 net.cpp:141] Setting up inception_4b/relu_3x3_reduce
I0714 23:30:59.431002  2976 net.cpp:148] Top shape: 10 112 14 14 (219520)
I0714 23:30:59.431007  2976 net.cpp:156] Memory required for data: 393881600
I0714 23:30:59.431013  2976 layer_factory.hpp:77] Creating layer inception_4b/3x3
I0714 23:30:59.431036  2976 net.cpp:91] Creating Layer inception_4b/3x3
I0714 23:30:59.431043  2976 net.cpp:425] inception_4b/3x3 <- inception_4b/3x3_reduce
I0714 23:30:59.431053  2976 net.cpp:399] inception_4b/3x3 -> inception_4b/3x3
I0714 23:30:59.431347  2980 net.cpp:141] Setting up inception_4b/1x1
I0714 23:30:59.431365  2980 net.cpp:148] Top shape: 10 160 14 14 (313600)
I0714 23:30:59.431370  2980 net.cpp:156] Memory required for data: 390871040
I0714 23:30:59.431380  2980 layer_factory.hpp:77] Creating layer inception_4b/relu_1x1
I0714 23:30:59.431391  2980 net.cpp:91] Creating Layer inception_4b/relu_1x1
I0714 23:30:59.431397  2980 net.cpp:425] inception_4b/relu_1x1 <- inception_4b/1x1
I0714 23:30:59.431406  2980 net.cpp:386] inception_4b/relu_1x1 -> inception_4b/1x1 (in-place)
I0714 23:30:59.433547  2980 net.cpp:141] Setting up inception_4b/relu_1x1
I0714 23:30:59.433562  2980 net.cpp:148] Top shape: 10 160 14 14 (313600)
I0714 23:30:59.433568  2980 net.cpp:156] Memory required for data: 392125440
I0714 23:30:59.433573  2980 layer_factory.hpp:77] Creating layer inception_4b/3x3_reduce
I0714 23:30:59.433590  2980 net.cpp:91] Creating Layer inception_4b/3x3_reduce
I0714 23:30:59.433598  2980 net.cpp:425] inception_4b/3x3_reduce <- inception_4a/output_inception_4a/output_0_split_1
I0714 23:30:59.433607  2980 net.cpp:399] inception_4b/3x3_reduce -> inception_4b/3x3_reduce
I0714 23:30:59.438024  2980 net.cpp:141] Setting up inception_4b/3x3_reduce
I0714 23:30:59.438043  2980 net.cpp:148] Top shape: 10 112 14 14 (219520)
I0714 23:30:59.438048  2980 net.cpp:156] Memory required for data: 393003520
I0714 23:30:59.438058  2980 layer_factory.hpp:77] Creating layer inception_4b/relu_3x3_reduce
I0714 23:30:59.438068  2980 net.cpp:91] Creating Layer inception_4b/relu_3x3_reduce
I0714 23:30:59.438074  2980 net.cpp:425] inception_4b/relu_3x3_reduce <- inception_4b/3x3_reduce
I0714 23:30:59.438086  2980 net.cpp:386] inception_4b/relu_3x3_reduce -> inception_4b/3x3_reduce (in-place)
I0714 23:30:59.439867  2980 net.cpp:141] Setting up inception_4b/relu_3x3_reduce
I0714 23:30:59.439882  2980 net.cpp:148] Top shape: 10 112 14 14 (219520)
I0714 23:30:59.439888  2980 net.cpp:156] Memory required for data: 393881600
I0714 23:30:59.439893  2980 layer_factory.hpp:77] Creating layer inception_4b/3x3
I0714 23:30:59.439910  2980 net.cpp:91] Creating Layer inception_4b/3x3
I0714 23:30:59.439918  2980 net.cpp:425] inception_4b/3x3 <- inception_4b/3x3_reduce
I0714 23:30:59.439932  2980 net.cpp:399] inception_4b/3x3 -> inception_4b/3x3
I0714 23:30:59.440132  2976 net.cpp:141] Setting up inception_4b/3x3
I0714 23:30:59.440150  2976 net.cpp:148] Top shape: 10 224 14 14 (439040)
I0714 23:30:59.440155  2976 net.cpp:156] Memory required for data: 395637760
I0714 23:30:59.440165  2976 layer_factory.hpp:77] Creating layer inception_4b/relu_3x3
I0714 23:30:59.440173  2976 net.cpp:91] Creating Layer inception_4b/relu_3x3
I0714 23:30:59.440181  2976 net.cpp:425] inception_4b/relu_3x3 <- inception_4b/3x3
I0714 23:30:59.440188  2976 net.cpp:386] inception_4b/relu_3x3 -> inception_4b/3x3 (in-place)
I0714 23:30:59.441826  2976 net.cpp:141] Setting up inception_4b/relu_3x3
I0714 23:30:59.441840  2976 net.cpp:148] Top shape: 10 224 14 14 (439040)
I0714 23:30:59.441844  2976 net.cpp:156] Memory required for data: 397393920
I0714 23:30:59.441850  2976 layer_factory.hpp:77] Creating layer inception_4b/5x5_reduce
I0714 23:30:59.441881  2976 net.cpp:91] Creating Layer inception_4b/5x5_reduce
I0714 23:30:59.441889  2976 net.cpp:425] inception_4b/5x5_reduce <- inception_4a/output_inception_4a/output_0_split_2
I0714 23:30:59.441901  2976 net.cpp:399] inception_4b/5x5_reduce -> inception_4b/5x5_reduce
I0714 23:30:59.446676  2976 net.cpp:141] Setting up inception_4b/5x5_reduce
I0714 23:30:59.446708  2976 net.cpp:148] Top shape: 10 24 14 14 (47040)
I0714 23:30:59.446719  2976 net.cpp:156] Memory required for data: 397582080
I0714 23:30:59.446732  2976 layer_factory.hpp:77] Creating layer inception_4b/relu_5x5_reduce
I0714 23:30:59.446740  2976 net.cpp:91] Creating Layer inception_4b/relu_5x5_reduce
I0714 23:30:59.446748  2976 net.cpp:425] inception_4b/relu_5x5_reduce <- inception_4b/5x5_reduce
I0714 23:30:59.446754  2976 net.cpp:386] inception_4b/relu_5x5_reduce -> inception_4b/5x5_reduce (in-place)
I0714 23:30:59.447886  2980 net.cpp:141] Setting up inception_4b/3x3
I0714 23:30:59.447896  2976 net.cpp:141] Setting up inception_4b/relu_5x5_reduce
I0714 23:30:59.447904  2980 net.cpp:148] Top shape: 10 224 14 14 (439040)
I0714 23:30:59.447911  2980 net.cpp:156] Memory required for data: 395637760
I0714 23:30:59.447913  2976 net.cpp:148] Top shape: 10 24 14 14 (47040)
I0714 23:30:59.447918  2976 net.cpp:156] Memory required for data: 397770240
I0714 23:30:59.447921  2980 layer_factory.hpp:77] Creating layer inception_4b/relu_3x3
I0714 23:30:59.447923  2976 layer_factory.hpp:77] Creating layer inception_4b/5x5
I0714 23:30:59.447931  2980 net.cpp:91] Creating Layer inception_4b/relu_3x3
I0714 23:30:59.447937  2980 net.cpp:425] inception_4b/relu_3x3 <- inception_4b/3x3
I0714 23:30:59.447944  2980 net.cpp:386] inception_4b/relu_3x3 -> inception_4b/3x3 (in-place)
I0714 23:30:59.447950  2976 net.cpp:91] Creating Layer inception_4b/5x5
I0714 23:30:59.447963  2976 net.cpp:425] inception_4b/5x5 <- inception_4b/5x5_reduce
I0714 23:30:59.447976  2976 net.cpp:399] inception_4b/5x5 -> inception_4b/5x5
I0714 23:30:59.448541  2980 net.cpp:141] Setting up inception_4b/relu_3x3
I0714 23:30:59.448555  2980 net.cpp:148] Top shape: 10 224 14 14 (439040)
I0714 23:30:59.448559  2980 net.cpp:156] Memory required for data: 397393920
I0714 23:30:59.448565  2980 layer_factory.hpp:77] Creating layer inception_4b/5x5_reduce
I0714 23:30:59.448592  2980 net.cpp:91] Creating Layer inception_4b/5x5_reduce
I0714 23:30:59.448598  2980 net.cpp:425] inception_4b/5x5_reduce <- inception_4a/output_inception_4a/output_0_split_2
I0714 23:30:59.448611  2980 net.cpp:399] inception_4b/5x5_reduce -> inception_4b/5x5_reduce
I0714 23:30:59.453533  2980 net.cpp:141] Setting up inception_4b/5x5_reduce
I0714 23:30:59.453550  2980 net.cpp:148] Top shape: 10 24 14 14 (47040)
I0714 23:30:59.453557  2980 net.cpp:156] Memory required for data: 397582080
I0714 23:30:59.453567  2980 layer_factory.hpp:77] Creating layer inception_4b/relu_5x5_reduce
I0714 23:30:59.453580  2980 net.cpp:91] Creating Layer inception_4b/relu_5x5_reduce
I0714 23:30:59.453586  2980 net.cpp:425] inception_4b/relu_5x5_reduce <- inception_4b/5x5_reduce
I0714 23:30:59.453601  2980 net.cpp:386] inception_4b/relu_5x5_reduce -> inception_4b/5x5_reduce (in-place)
I0714 23:30:59.453694  2976 net.cpp:141] Setting up inception_4b/5x5
I0714 23:30:59.453711  2976 net.cpp:148] Top shape: 10 64 14 14 (125440)
I0714 23:30:59.453716  2976 net.cpp:156] Memory required for data: 398272000
I0714 23:30:59.453725  2976 layer_factory.hpp:77] Creating layer inception_4b/relu_5x5
I0714 23:30:59.453737  2976 net.cpp:91] Creating Layer inception_4b/relu_5x5
I0714 23:30:59.453743  2976 net.cpp:425] inception_4b/relu_5x5 <- inception_4b/5x5
I0714 23:30:59.453752  2976 net.cpp:386] inception_4b/relu_5x5 -> inception_4b/5x5 (in-place)
I0714 23:30:59.454783  2980 net.cpp:141] Setting up inception_4b/relu_5x5_reduce
I0714 23:30:59.454797  2980 net.cpp:148] Top shape: 10 24 14 14 (47040)
I0714 23:30:59.454802  2980 net.cpp:156] Memory required for data: 397770240
I0714 23:30:59.454808  2980 layer_factory.hpp:77] Creating layer inception_4b/5x5
I0714 23:30:59.454825  2980 net.cpp:91] Creating Layer inception_4b/5x5
I0714 23:30:59.454833  2980 net.cpp:425] inception_4b/5x5 <- inception_4b/5x5_reduce
I0714 23:30:59.454844  2980 net.cpp:399] inception_4b/5x5 -> inception_4b/5x5
I0714 23:30:59.455098  2976 net.cpp:141] Setting up inception_4b/relu_5x5
I0714 23:30:59.455134  2976 net.cpp:148] Top shape: 10 64 14 14 (125440)
I0714 23:30:59.455144  2976 net.cpp:156] Memory required for data: 398773760
I0714 23:30:59.455152  2976 layer_factory.hpp:77] Creating layer inception_4b/pool
I0714 23:30:59.455169  2976 net.cpp:91] Creating Layer inception_4b/pool
I0714 23:30:59.455181  2976 net.cpp:425] inception_4b/pool <- inception_4a/output_inception_4a/output_0_split_3
I0714 23:30:59.455198  2976 net.cpp:399] inception_4b/pool -> inception_4b/pool
I0714 23:30:59.455461  2976 net.cpp:141] Setting up inception_4b/pool
I0714 23:30:59.455483  2976 net.cpp:148] Top shape: 10 512 14 14 (1003520)
I0714 23:30:59.455493  2976 net.cpp:156] Memory required for data: 402787840
I0714 23:30:59.455502  2976 layer_factory.hpp:77] Creating layer inception_4b/pool_proj
I0714 23:30:59.455524  2976 net.cpp:91] Creating Layer inception_4b/pool_proj
I0714 23:30:59.455535  2976 net.cpp:425] inception_4b/pool_proj <- inception_4b/pool
I0714 23:30:59.456210  2976 net.cpp:399] inception_4b/pool_proj -> inception_4b/pool_proj
I0714 23:30:59.464759  2980 net.cpp:141] Setting up inception_4b/5x5
I0714 23:30:59.464792  2980 net.cpp:148] Top shape: 10 64 14 14 (125440)
I0714 23:30:59.464802  2980 net.cpp:156] Memory required for data: 398272000
I0714 23:30:59.464821  2980 layer_factory.hpp:77] Creating layer inception_4b/relu_5x5
I0714 23:30:59.464839  2980 net.cpp:91] Creating Layer inception_4b/relu_5x5
I0714 23:30:59.464851  2980 net.cpp:425] inception_4b/relu_5x5 <- inception_4b/5x5
I0714 23:30:59.464870  2980 net.cpp:386] inception_4b/relu_5x5 -> inception_4b/5x5 (in-place)
I0714 23:30:59.464941  2976 net.cpp:141] Setting up inception_4b/pool_proj
I0714 23:30:59.464964  2976 net.cpp:148] Top shape: 10 64 14 14 (125440)
I0714 23:30:59.464974  2976 net.cpp:156] Memory required for data: 403289600
I0714 23:30:59.464993  2976 layer_factory.hpp:77] Creating layer inception_4b/relu_pool_proj
I0714 23:30:59.465008  2976 net.cpp:91] Creating Layer inception_4b/relu_pool_proj
I0714 23:30:59.465025  2976 net.cpp:425] inception_4b/relu_pool_proj <- inception_4b/pool_proj
I0714 23:30:59.465040  2976 net.cpp:386] inception_4b/relu_pool_proj -> inception_4b/pool_proj (in-place)
I0714 23:30:59.466758  2976 net.cpp:141] Setting up inception_4b/relu_pool_proj
I0714 23:30:59.466768  2980 net.cpp:141] Setting up inception_4b/relu_5x5
I0714 23:30:59.466780  2976 net.cpp:148] Top shape: 10 64 14 14 (125440)
I0714 23:30:59.466789  2980 net.cpp:148] Top shape: 10 64 14 14 (125440)
I0714 23:30:59.466790  2976 net.cpp:156] Memory required for data: 403791360
I0714 23:30:59.466799  2980 net.cpp:156] Memory required for data: 398773760
I0714 23:30:59.466800  2976 layer_factory.hpp:77] Creating layer inception_4b/output
I0714 23:30:59.466809  2980 layer_factory.hpp:77] Creating layer inception_4b/pool
I0714 23:30:59.466820  2976 net.cpp:91] Creating Layer inception_4b/output
I0714 23:30:59.466831  2976 net.cpp:425] inception_4b/output <- inception_4b/1x1
I0714 23:30:59.466833  2980 net.cpp:91] Creating Layer inception_4b/pool
I0714 23:30:59.466845  2976 net.cpp:425] inception_4b/output <- inception_4b/3x3
I0714 23:30:59.466845  2980 net.cpp:425] inception_4b/pool <- inception_4a/output_inception_4a/output_0_split_3
I0714 23:30:59.466862  2976 net.cpp:425] inception_4b/output <- inception_4b/5x5
I0714 23:30:59.466873  2980 net.cpp:399] inception_4b/pool -> inception_4b/pool
I0714 23:30:59.466873  2976 net.cpp:425] inception_4b/output <- inception_4b/pool_proj
I0714 23:30:59.466897  2976 net.cpp:399] inception_4b/output -> inception_4b/output
I0714 23:30:59.467036  2976 net.cpp:141] Setting up inception_4b/output
I0714 23:30:59.467056  2976 net.cpp:148] Top shape: 10 512 14 14 (1003520)
I0714 23:30:59.467063  2976 net.cpp:156] Memory required for data: 407805440
I0714 23:30:59.467072  2976 layer_factory.hpp:77] Creating layer inception_4b/output_inception_4b/output_0_split
I0714 23:30:59.467087  2976 net.cpp:91] Creating Layer inception_4b/output_inception_4b/output_0_split
I0714 23:30:59.467092  2980 net.cpp:141] Setting up inception_4b/pool
I0714 23:30:59.467097  2976 net.cpp:425] inception_4b/output_inception_4b/output_0_split <- inception_4b/output
I0714 23:30:59.467113  2980 net.cpp:148] Top shape: 10 512 14 14 (1003520)
I0714 23:30:59.467121  2980 net.cpp:156] Memory required for data: 402787840
I0714 23:30:59.467125  2976 net.cpp:399] inception_4b/output_inception_4b/output_0_split -> inception_4b/output_inception_4b/output_0_split_0
I0714 23:30:59.467130  2980 layer_factory.hpp:77] Creating layer inception_4b/pool_proj
I0714 23:30:59.467144  2976 net.cpp:399] inception_4b/output_inception_4b/output_0_split -> inception_4b/output_inception_4b/output_0_split_1
I0714 23:30:59.467159  2980 net.cpp:91] Creating Layer inception_4b/pool_proj
I0714 23:30:59.467160  2976 net.cpp:399] inception_4b/output_inception_4b/output_0_split -> inception_4b/output_inception_4b/output_0_split_2
I0714 23:30:59.467169  2980 net.cpp:425] inception_4b/pool_proj <- inception_4b/pool
I0714 23:30:59.467176  2976 net.cpp:399] inception_4b/output_inception_4b/output_0_split -> inception_4b/output_inception_4b/output_0_split_3
I0714 23:30:59.467186  2980 net.cpp:399] inception_4b/pool_proj -> inception_4b/pool_proj
I0714 23:30:59.467598  2976 net.cpp:141] Setting up inception_4b/output_inception_4b/output_0_split
I0714 23:30:59.467617  2976 net.cpp:148] Top shape: 10 512 14 14 (1003520)
I0714 23:30:59.467630  2976 net.cpp:148] Top shape: 10 512 14 14 (1003520)
I0714 23:30:59.467640  2976 net.cpp:148] Top shape: 10 512 14 14 (1003520)
I0714 23:30:59.467651  2976 net.cpp:148] Top shape: 10 512 14 14 (1003520)
I0714 23:30:59.467658  2976 net.cpp:156] Memory required for data: 423861760
I0714 23:30:59.467667  2976 layer_factory.hpp:77] Creating layer inception_4c/1x1
I0714 23:30:59.467691  2976 net.cpp:91] Creating Layer inception_4c/1x1
I0714 23:30:59.467702  2976 net.cpp:425] inception_4c/1x1 <- inception_4b/output_inception_4b/output_0_split_0
I0714 23:30:59.467718  2976 net.cpp:399] inception_4c/1x1 -> inception_4c/1x1
I0714 23:30:59.476065  2980 net.cpp:141] Setting up inception_4b/pool_proj
I0714 23:30:59.476109  2980 net.cpp:148] Top shape: 10 64 14 14 (125440)
I0714 23:30:59.476119  2980 net.cpp:156] Memory required for data: 403289600
I0714 23:30:59.476140  2980 layer_factory.hpp:77] Creating layer inception_4b/relu_pool_proj
I0714 23:30:59.476151  2976 net.cpp:141] Setting up inception_4c/1x1
I0714 23:30:59.476156  2980 net.cpp:91] Creating Layer inception_4b/relu_pool_proj
I0714 23:30:59.476181  2980 net.cpp:425] inception_4b/relu_pool_proj <- inception_4b/pool_proj
I0714 23:30:59.476181  2976 net.cpp:148] Top shape: 10 128 14 14 (250880)
I0714 23:30:59.476200  2976 net.cpp:156] Memory required for data: 424865280
I0714 23:30:59.476200  2980 net.cpp:386] inception_4b/relu_pool_proj -> inception_4b/pool_proj (in-place)
I0714 23:30:59.476219  2976 layer_factory.hpp:77] Creating layer inception_4c/relu_1x1
…
I0714 23:30:59.627722  2976 net.cpp:425] inception_4e/pool_proj <- inception_4e/pool
I0714 23:30:59.627734  2976 net.cpp:399] inception_4e/pool_proj -> inception_4e/pool_proj
I0714 23:30:59.633491  2976 net.cpp:141] Setting up inception_4e/pool_proj
I0714 23:30:59.633515  2976 net.cpp:148] Top shape: 10 128 14 14 (250880)
I0714 23:30:59.633522  2976 net.cpp:156] Memory required for data: 513300480
I0714 23:30:59.633532  2976 layer_factory.hpp:77] Creating layer inception_4e/relu_pool_proj
I0714 23:30:59.633546  2976 net.cpp:91] Creating Layer inception_4e/relu_pool_proj
I0714 23:30:59.633554  2976 net.cpp:425] inception_4e/relu_pool_proj <- inception_4e/pool_proj
I0714 23:30:59.633563  2976 net.cpp:386] inception_4e/relu_pool_proj -> inception_4e/pool_proj (in-place)
I0714 23:30:59.634831  2976 net.cpp:141] Setting up inception_4e/relu_pool_proj
I0714 23:30:59.634850  2976 net.cpp:148] Top shape: 10 128 14 14 (250880)
I0714 23:30:59.634855  2976 net.cpp:156] Memory required for data: 514304000
I0714 23:30:59.634860  2976 layer_factory.hpp:77] Creating layer inception_4e/output
I0714 23:30:59.634874  2976 net.cpp:91] Creating Layer inception_4e/output
I0714 23:30:59.634881  2976 net.cpp:425] inception_4e/output <- inception_4e/1x1
I0714 23:30:59.634889  2976 net.cpp:425] inception_4e/output <- inception_4e/3x3
I0714 23:30:59.634886  2980 net.cpp:141] Setting up inception_4e/5x5_reduce
I0714 23:30:59.634896  2976 net.cpp:425] inception_4e/output <- inception_4e/5x5
I0714 23:30:59.634912  2976 net.cpp:425] inception_4e/output <- inception_4e/pool_proj
I0714 23:30:59.634913  2980 net.cpp:148] Top shape: 10 32 14 14 (62720)
I0714 23:30:59.634920  2976 net.cpp:399] inception_4e/output -> inception_4e/output
I0714 23:30:59.634923  2980 net.cpp:156] Memory required for data: 505899520
I0714 23:30:59.634940  2980 layer_factory.hpp:77] Creating layer inception_4e/relu_5x5_reduce
I0714 23:30:59.634960  2980 net.cpp:91] Creating Layer inception_4e/relu_5x5_reduce
I0714 23:30:59.634974  2980 net.cpp:425] inception_4e/relu_5x5_reduce <- inception_4e/5x5_reduce
I0714 23:30:59.634986  2980 net.cpp:386] inception_4e/relu_5x5_reduce -> inception_4e/5x5_reduce (in-place)
I0714 23:30:59.634992  2976 net.cpp:141] Setting up inception_4e/output
I0714 23:30:59.635004  2976 net.cpp:148] Top shape: 10 832 14 14 (1630720)
I0714 23:30:59.635009  2976 net.cpp:156] Memory required for data: 520826880
I0714 23:30:59.635013  2976 layer_factory.hpp:77] Creating layer pool4/3x3_s2
I0714 23:30:59.635023  2976 net.cpp:91] Creating Layer pool4/3x3_s2
I0714 23:30:59.635030  2976 net.cpp:425] pool4/3x3_s2 <- inception_4e/output
I0714 23:30:59.635041  2976 net.cpp:399] pool4/3x3_s2 -> pool4/3x3_s2
I0714 23:30:59.635386  2976 net.cpp:141] Setting up pool4/3x3_s2
I0714 23:30:59.635399  2976 net.cpp:148] Top shape: 10 832 7 7 (407680)
I0714 23:30:59.635403  2976 net.cpp:156] Memory required for data: 522457600
I0714 23:30:59.635409  2976 layer_factory.hpp:77] Creating layer pool4/3x3_s2_pool4/3x3_s2_0_split
I0714 23:30:59.635424  2976 net.cpp:91] Creating Layer pool4/3x3_s2_pool4/3x3_s2_0_split
I0714 23:30:59.635431  2976 net.cpp:425] pool4/3x3_s2_pool4/3x3_s2_0_split <- pool4/3x3_s2
I0714 23:30:59.635438  2976 net.cpp:399] pool4/3x3_s2_pool4/3x3_s2_0_split -> pool4/3x3_s2_pool4/3x3_s2_0_split_0
I0714 23:30:59.635450  2976 net.cpp:399] pool4/3x3_s2_pool4/3x3_s2_0_split -> pool4/3x3_s2_pool4/3x3_s2_0_split_1
I0714 23:30:59.635459  2976 net.cpp:399] pool4/3x3_s2_pool4/3x3_s2_0_split -> pool4/3x3_s2_pool4/3x3_s2_0_split_2
I0714 23:30:59.635468  2976 net.cpp:399] pool4/3x3_s2_pool4/3x3_s2_0_split -> pool4/3x3_s2_pool4/3x3_s2_0_split_3
I0714 23:30:59.635715  2976 net.cpp:141] Setting up pool4/3x3_s2_pool4/3x3_s2_0_split
I0714 23:30:59.635726  2976 net.cpp:148] Top shape: 10 832 7 7 (407680)
I0714 23:30:59.635732  2976 net.cpp:148] Top shape: 10 832 7 7 (407680)
I0714 23:30:59.635738  2976 net.cpp:148] Top shape: 10 832 7 7 (407680)
I0714 23:30:59.635743  2976 net.cpp:148] Top shape: 10 832 7 7 (407680)
I0714 23:30:59.635747  2976 net.cpp:156] Memory required for data: 528980480
I0714 23:30:59.635752  2976 layer_factory.hpp:77] Creating layer inception_5a/1x1
I0714 23:30:59.635756  2980 net.cpp:141] Setting up inception_4e/relu_5x5_reduce
I0714 23:30:59.635772  2976 net.cpp:91] Creating Layer inception_5a/1x1
I0714 23:30:59.635776  2980 net.cpp:148] Top shape: 10 32 14 14 (62720)
I0714 23:30:59.635778  2976 net.cpp:425] inception_5a/1x1 <- pool4/3x3_s2_pool4/3x3_s2_0_split_0
I0714 23:30:59.635789  2980 net.cpp:156] Memory required for data: 506150400
I0714 23:30:59.635798  2980 layer_factory.hpp:77] Creating layer inception_4e/5x5
I0714 23:30:59.635800  2976 net.cpp:399] inception_5a/1x1 -> inception_5a/1x1
I0714 23:30:59.635826  2980 net.cpp:91] Creating Layer inception_4e/5x5
I0714 23:30:59.635838  2980 net.cpp:425] inception_4e/5x5 <- inception_4e/5x5_reduce
I0714 23:30:59.635857  2980 net.cpp:399] inception_4e/5x5 -> inception_4e/5x5
I0714 23:30:59.644575  2976 net.cpp:141] Setting up inception_5a/1x1
I0714 23:30:59.644604  2976 net.cpp:148] Top shape: 10 256 7 7 (125440)
I0714 23:30:59.644609  2976 net.cpp:156] Memory required for data: 529482240
I0714 23:30:59.644620  2976 layer_factory.hpp:77] Creating layer inception_5a/relu_1x1
I0714 23:30:59.644635  2976 net.cpp:91] Creating Layer inception_5a/relu_1x1
I0714 23:30:59.644642  2976 net.cpp:425] inception_5a/relu_1x1 <- inception_5a/1x1
I0714 23:30:59.644652  2976 net.cpp:386] inception_5a/relu_1x1 -> inception_5a/1x1 (in-place)
I0714 23:30:59.644999  2980 net.cpp:141] Setting up inception_4e/5x5
I0714 23:30:59.645017  2980 net.cpp:148] Top shape: 10 128 14 14 (250880)
I0714 23:30:59.645023  2980 net.cpp:156] Memory required for data: 507153920
I0714 23:30:59.645035  2980 layer_factory.hpp:77] Creating layer inception_4e/relu_5x5
I0714 23:30:59.645045  2980 net.cpp:91] Creating Layer inception_4e/relu_5x5
I0714 23:30:59.645054  2980 net.cpp:425] inception_4e/relu_5x5 <- inception_4e/5x5
I0714 23:30:59.645063  2980 net.cpp:386] inception_4e/relu_5x5 -> inception_4e/5x5 (in-place)
I0714 23:30:59.646540  2976 net.cpp:141] Setting up inception_5a/relu_1x1
I0714 23:30:59.646558  2976 net.cpp:148] Top shape: 10 256 7 7 (125440)
I0714 23:30:59.646562  2976 net.cpp:156] Memory required for data: 529984000
I0714 23:30:59.646569  2976 layer_factory.hpp:77] Creating layer inception_5a/3x3_reduce
I0714 23:30:59.646589  2976 net.cpp:91] Creating Layer inception_5a/3x3_reduce
I0714 23:30:59.646596  2976 net.cpp:425] inception_5a/3x3_reduce <- pool4/3x3_s2_pool4/3x3_s2_0_split_1
I0714 23:30:59.646610  2976 net.cpp:399] inception_5a/3x3_reduce -> inception_5a/3x3_reduce
I0714 23:30:59.647275  2980 net.cpp:141] Setting up inception_4e/relu_5x5
I0714 23:30:59.647303  2980 net.cpp:148] Top shape: 10 128 14 14 (250880)
I0714 23:30:59.647315  2980 net.cpp:156] Memory required for data: 508157440
I0714 23:30:59.647325  2980 layer_factory.hpp:77] Creating layer inception_4e/pool
I0714 23:30:59.647348  2980 net.cpp:91] Creating Layer inception_4e/pool
I0714 23:30:59.647362  2980 net.cpp:425] inception_4e/pool <- inception_4d/output_inception_4d/output_0_split_3
I0714 23:30:59.647378  2980 net.cpp:399] inception_4e/pool -> inception_4e/pool
I0714 23:30:59.647558  2980 net.cpp:141] Setting up inception_4e/pool
I0714 23:30:59.647578  2980 net.cpp:148] Top shape: 10 528 14 14 (1034880)
I0714 23:30:59.647586  2980 net.cpp:156] Memory required for data: 512296960
I0714 23:30:59.647595  2980 layer_factory.hpp:77] Creating layer inception_4e/pool_proj
I0714 23:30:59.647621  2980 net.cpp:91] Creating Layer inception_4e/pool_proj
I0714 23:30:59.647634  2980 net.cpp:425] inception_4e/pool_proj <- inception_4e/pool
I0714 23:30:59.647655  2980 net.cpp:399] inception_4e/pool_proj -> inception_4e/pool_proj
I0714 23:30:59.653627  2976 net.cpp:141] Setting up inception_5a/3x3_reduce
I0714 23:30:59.653653  2976 net.cpp:148] Top shape: 10 160 7 7 (78400)
I0714 23:30:59.653659  2976 net.cpp:156] Memory required for data: 530297600
I0714 23:30:59.653671  2976 layer_factory.hpp:77] Creating layer inception_5a/relu_3x3_reduce
I0714 23:30:59.653681  2976 net.cpp:91] Creating Layer inception_5a/relu_3x3_reduce
I0714 23:30:59.653689  2976 net.cpp:425] inception_5a/relu_3x3_reduce <- inception_5a/3x3_reduce
I0714 23:30:59.653702  2976 net.cpp:386] inception_5a/relu_3x3_reduce -> inception_5a/3x3_reduce (in-place)
I0714 23:30:59.654237  2976 net.cpp:141] Setting up inception_5a/relu_3x3_reduce
I0714 23:30:59.654252  2976 net.cpp:148] Top shape: 10 160 7 7 (78400)
I0714 23:30:59.654256  2976 net.cpp:156] Memory required for data: 530611200
I0714 23:30:59.654263  2976 layer_factory.hpp:77] Creating layer inception_5a/3x3
I0714 23:30:59.654280  2976 net.cpp:91] Creating Layer inception_5a/3x3
I0714 23:30:59.654287  2976 net.cpp:425] inception_5a/3x3 <- inception_5a/3x3_reduce
I0714 23:30:59.654300  2976 net.cpp:399] inception_5a/3x3 -> inception_5a/3x3
I0714 23:30:59.658188  2980 net.cpp:141] Setting up inception_4e/pool_proj
I0714 23:30:59.658227  2980 net.cpp:148] Top shape: 10 128 14 14 (250880)
I0714 23:30:59.658237  2980 net.cpp:156] Memory required for data: 513300480
I0714 23:30:59.658257  2980 layer_factory.hpp:77] Creating layer inception_4e/relu_pool_proj
I0714 23:30:59.658275  2980 net.cpp:91] Creating Layer inception_4e/relu_pool_proj
I0714 23:30:59.658288  2980 net.cpp:425] inception_4e/relu_pool_proj <- inception_4e/pool_proj
I0714 23:30:59.658306  2980 net.cpp:386] inception_4e/relu_pool_proj -> inception_4e/pool_proj (in-place)
I0714 23:30:59.658792  2980 net.cpp:141] Setting up inception_4e/relu_pool_proj
I0714 23:30:59.658810  2980 net.cpp:148] Top shape: 10 128 14 14 (250880)
I0714 23:30:59.658819  2980 net.cpp:156] Memory required for data: 514304000
I0714 23:30:59.658829  2980 layer_factory.hpp:77] Creating layer inception_4e/output
I0714 23:30:59.658849  2980 net.cpp:91] Creating Layer inception_4e/output
I0714 23:30:59.658860  2980 net.cpp:425] inception_4e/output <- inception_4e/1x1
I0714 23:30:59.658874  2980 net.cpp:425] inception_4e/output <- inception_4e/3x3
I0714 23:30:59.658885  2980 net.cpp:425] inception_4e/output <- inception_4e/5x5
I0714 23:30:59.658895  2980 net.cpp:425] inception_4e/output <- inception_4e/pool_proj
I0714 23:30:59.658907  2980 net.cpp:399] inception_4e/output -> inception_4e/output
I0714 23:30:59.659010  2980 net.cpp:141] Setting up inception_4e/output
I0714 23:30:59.659026  2980 net.cpp:148] Top shape: 10 832 14 14 (1630720)
I0714 23:30:59.659035  2980 net.cpp:156] Memory required for data: 520826880
I0714 23:30:59.659044  2980 layer_factory.hpp:77] Creating layer pool4/3x3_s2
I0714 23:30:59.659060  2980 net.cpp:91] Creating Layer pool4/3x3_s2
I0714 23:30:59.659070  2980 net.cpp:425] pool4/3x3_s2 <- inception_4e/output
I0714 23:30:59.659088  2980 net.cpp:399] pool4/3x3_s2 -> pool4/3x3_s2
I0714 23:30:59.659231  2980 net.cpp:141] Setting up pool4/3x3_s2
I0714 23:30:59.659248  2980 net.cpp:148] Top shape: 10 832 7 7 (407680)
I0714 23:30:59.659256  2980 net.cpp:156] Memory required for data: 522457600
I0714 23:30:59.659265  2980 layer_factory.hpp:77] Creating layer pool4/3x3_s2_pool4/3x3_s2_0_split
I0714 23:30:59.659286  2980 net.cpp:91] Creating Layer pool4/3x3_s2_pool4/3x3_s2_0_split
I0714 23:30:59.659296  2980 net.cpp:425] pool4/3x3_s2_pool4/3x3_s2_0_split <- pool4/3x3_s2
I0714 23:30:59.659313  2980 net.cpp:399] pool4/3x3_s2_pool4/3x3_s2_0_split -> pool4/3x3_s2_pool4/3x3_s2_0_split_0
I0714 23:30:59.659329  2980 net.cpp:399] pool4/3x3_s2_pool4/3x3_s2_0_split -> pool4/3x3_s2_pool4/3x3_s2_0_split_1
I0714 23:30:59.659344  2980 net.cpp:399] pool4/3x3_s2_pool4/3x3_s2_0_split -> pool4/3x3_s2_pool4/3x3_s2_0_split_2
I0714 23:30:59.659359  2980 net.cpp:399] pool4/3x3_s2_pool4/3x3_s2_0_split -> pool4/3x3_s2_pool4/3x3_s2_0_split_3
I0714 23:30:59.659598  2980 net.cpp:141] Setting up pool4/3x3_s2_pool4/3x3_s2_0_split
I0714 23:30:59.659615  2980 net.cpp:148] Top shape: 10 832 7 7 (407680)
I0714 23:30:59.659624  2980 net.cpp:148] Top shape: 10 832 7 7 (407680)
I0714 23:30:59.659634  2980 net.cpp:148] Top shape: 10 832 7 7 (407680)
I0714 23:30:59.659644  2980 net.cpp:148] Top shape: 10 832 7 7 (407680)
I0714 23:30:59.659651  2980 net.cpp:156] Memory required for data: 528980480
I0714 23:30:59.659660  2980 layer_factory.hpp:77] Creating layer inception_5a/1x1
I0714 23:30:59.659685  2980 net.cpp:91] Creating Layer inception_5a/1x1
I0714 23:30:59.659698  2980 net.cpp:425] inception_5a/1x1 <- pool4/3x3_s2_pool4/3x3_s2_0_split_0
I0714 23:30:59.659718  2980 net.cpp:399] inception_5a/1x1 -> inception_5a/1x1
I0714 23:30:59.665861  2976 net.cpp:141] Setting up inception_5a/3x3
I0714 23:30:59.665894  2976 net.cpp:148] Top shape: 10 320 7 7 (156800)
I0714 23:30:59.665900  2976 net.cpp:156] Memory required for data: 531238400
I0714 23:30:59.665913  2976 layer_factory.hpp:77] Creating layer inception_5a/relu_3x3
I0714 23:30:59.665925  2976 net.cpp:91] Creating Layer inception_5a/relu_3x3
I0714 23:30:59.665933  2976 net.cpp:425] inception_5a/relu_3x3 <- inception_5a/3x3
I0714 23:30:59.665942  2976 net.cpp:386] inception_5a/relu_3x3 -> inception_5a/3x3 (in-place)
I0714 23:30:59.668270  2976 net.cpp:141] Setting up inception_5a/relu_3x3
I0714 23:30:59.668289  2976 net.cpp:148] Top shape: 10 320 7 7 (156800)
I0714 23:30:59.668294  2976 net.cpp:156] Memory required for data: 531865600
I0714 23:30:59.668301  2976 layer_factory.hpp:77] Creating layer inception_5a/5x5_reduce
I0714 23:30:59.668321  2976 net.cpp:91] Creating Layer inception_5a/5x5_reduce
I0714 23:30:59.668329  2976 net.cpp:425] inception_5a/5x5_reduce <- pool4/3x3_s2_pool4/3x3_s2_0_split_2
I0714 23:30:59.668344  2976 net.cpp:399] inception_5a/5x5_reduce -> inception_5a/5x5_reduce
I0714 23:30:59.670542  2980 net.cpp:141] Setting up inception_5a/1x1
I0714 23:30:59.670565  2980 net.cpp:148] Top shape: 10 256 7 7 (125440)
I0714 23:30:59.670572  2980 net.cpp:156] Memory required for data: 529482240
I0714 23:30:59.670583  2980 layer_factory.hpp:77] Creating layer inception_5a/relu_1x1
I0714 23:30:59.670593  2980 net.cpp:91] Creating Layer inception_5a/relu_1x1
I0714 23:30:59.670601  2980 net.cpp:425] inception_5a/relu_1x1 <- inception_5a/1x1
I0714 23:30:59.670614  2980 net.cpp:386] inception_5a/relu_1x1 -> inception_5a/1x1 (in-place)
I0714 23:30:59.672732  2980 net.cpp:141] Setting up inception_5a/relu_1x1
I0714 23:30:59.672751  2980 net.cpp:148] Top shape: 10 256 7 7 (125440)
I0714 23:30:59.672756  2980 net.cpp:156] Memory required for data: 529984000
I0714 23:30:59.672762  2980 layer_factory.hpp:77] Creating layer inception_5a/3x3_reduce
I0714 23:30:59.672780  2980 net.cpp:91] Creating Layer inception_5a/3x3_reduce
I0714 23:30:59.672788  2980 net.cpp:425] inception_5a/3x3_reduce <- pool4/3x3_s2_pool4/3x3_s2_0_split_1
I0714 23:30:59.672802  2980 net.cpp:399] inception_5a/3x3_reduce -> inception_5a/3x3_reduce
I0714 23:30:59.675526  2976 net.cpp:141] Setting up inception_5a/5x5_reduce
I0714 23:30:59.675547  2976 net.cpp:148] Top shape: 10 32 7 7 (15680)
I0714 23:30:59.675554  2976 net.cpp:156] Memory required for data: 531928320
I0714 23:30:59.675564  2976 layer_factory.hpp:77] Creating layer inception_5a/relu_5x5_reduce
I0714 23:30:59.675581  2976 net.cpp:91] Creating Layer inception_5a/relu_5x5_reduce
I0714 23:30:59.675590  2976 net.cpp:425] inception_5a/relu_5x5_reduce <- inception_5a/5x5_reduce
I0714 23:30:59.675598  2976 net.cpp:386] inception_5a/relu_5x5_reduce -> inception_5a/5x5_reduce (in-place)
I0714 23:30:59.675909  2976 net.cpp:141] Setting up inception_5a/relu_5x5_reduce
I0714 23:30:59.675920  2976 net.cpp:148] Top shape: 10 32 7 7 (15680)
I0714 23:30:59.675925  2976 net.cpp:156] Memory required for data: 531991040
I0714 23:30:59.675930  2976 layer_factory.hpp:77] Creating layer inception_5a/5x5
I0714 23:30:59.675947  2976 net.cpp:91] Creating Layer inception_5a/5x5
I0714 23:30:59.675954  2976 net.cpp:425] inception_5a/5x5 <- inception_5a/5x5_reduce
I0714 23:30:59.675966  2976 net.cpp:399] inception_5a/5x5 -> inception_5a/5x5
I0714 23:30:59.681468  2980 net.cpp:141] Setting up inception_5a/3x3_reduce
I0714 23:30:59.681488  2980 net.cpp:148] Top shape: 10 160 7 7 (78400)
I0714 23:30:59.681494  2980 net.cpp:156] Memory required for data: 530297600
I0714 23:30:59.681505  2980 layer_factory.hpp:77] Creating layer inception_5a/relu_3x3_reduce
I0714 23:30:59.681515  2980 net.cpp:91] Creating Layer inception_5a/relu_3x3_reduce
I0714 23:30:59.681521  2980 net.cpp:425] inception_5a/relu_3x3_reduce <- inception_5a/3x3_reduce
I0714 23:30:59.681534  2980 net.cpp:386] inception_5a/relu_3x3_reduce -> inception_5a/3x3_reduce (in-place)
I0714 23:30:59.682461  2976 net.cpp:141] Setting up inception_5a/5x5
I0714 23:30:59.682479  2976 net.cpp:148] Top shape: 10 128 7 7 (62720)
I0714 23:30:59.682485  2976 net.cpp:156] Memory required for data: 532241920
I0714 23:30:59.682495  2976 layer_factory.hpp:77] Creating layer inception_5a/relu_5x5
I0714 23:30:59.682533  2976 net.cpp:91] Creating Layer inception_5a/relu_5x5
I0714 23:30:59.682539  2976 net.cpp:425] inception_5a/relu_5x5 <- inception_5a/5x5
I0714 23:30:59.682548  2976 net.cpp:386] inception_5a/relu_5x5 -> inception_5a/5x5 (in-place)
I0714 23:30:59.682790  2980 net.cpp:141] Setting up inception_5a/relu_3x3_reduce
I0714 23:30:59.682806  2980 net.cpp:148] Top shape: 10 160 7 7 (78400)
I0714 23:30:59.682811  2980 net.cpp:156] Memory required for data: 530611200
I0714 23:30:59.682816  2980 layer_factory.hpp:77] Creating layer inception_5a/3x3
I0714 23:30:59.682834  2980 net.cpp:91] Creating Layer inception_5a/3x3
I0714 23:30:59.682842  2980 net.cpp:425] inception_5a/3x3 <- inception_5a/3x3_reduce
I0714 23:30:59.682854  2980 net.cpp:399] inception_5a/3x3 -> inception_5a/3x3
I0714 23:30:59.683271  2976 net.cpp:141] Setting up inception_5a/relu_5x5
I0714 23:30:59.683287  2976 net.cpp:148] Top shape: 10 128 7 7 (62720)
I0714 23:30:59.683292  2976 net.cpp:156] Memory required for data: 532492800
I0714 23:30:59.683300  2976 layer_factory.hpp:77] Creating layer inception_5a/pool
I0714 23:30:59.683310  2976 net.cpp:91] Creating Layer inception_5a/pool
I0714 23:30:59.683316  2976 net.cpp:425] inception_5a/pool <- pool4/3x3_s2_pool4/3x3_s2_0_split_3
I0714 23:30:59.683326  2976 net.cpp:399] inception_5a/pool -> inception_5a/pool
I0714 23:30:59.685014  2976 net.cpp:141] Setting up inception_5a/pool
I0714 23:30:59.685031  2976 net.cpp:148] Top shape: 10 832 7 7 (407680)
I0714 23:30:59.685036  2976 net.cpp:156] Memory required for data: 534123520
I0714 23:30:59.685042  2976 layer_factory.hpp:77] Creating layer inception_5a/pool_proj
I0714 23:30:59.685060  2976 net.cpp:91] Creating Layer inception_5a/pool_proj
I0714 23:30:59.685066  2976 net.cpp:425] inception_5a/pool_proj <- inception_5a/pool
I0714 23:30:59.685078  2976 net.cpp:399] inception_5a/pool_proj -> inception_5a/pool_proj
I0714 23:30:59.692327  2976 net.cpp:141] Setting up inception_5a/pool_proj
I0714 23:30:59.692348  2976 net.cpp:148] Top shape: 10 128 7 7 (62720)
I0714 23:30:59.692354  2976 net.cpp:156] Memory required for data: 534374400
I0714 23:30:59.692364  2976 layer_factory.hpp:77] Creating layer inception_5a/relu_pool_proj
I0714 23:30:59.692374  2976 net.cpp:91] Creating Layer inception_5a/relu_pool_proj
I0714 23:30:59.692380  2976 net.cpp:425] inception_5a/relu_pool_proj <- inception_5a/pool_proj
I0714 23:30:59.692399  2976 net.cpp:386] inception_5a/relu_pool_proj -> inception_5a/pool_proj (in-place)
I0714 23:30:59.693619  2980 net.cpp:141] Setting up inception_5a/3x3
I0714 23:30:59.693637  2980 net.cpp:148] Top shape: 10 320 7 7 (156800)
I0714 23:30:59.693644  2980 net.cpp:156] Memory required for data: 531238400
I0714 23:30:59.693655  2980 layer_factory.hpp:77] Creating layer inception_5a/relu_3x3
I0714 23:30:59.693665  2980 net.cpp:91] Creating Layer inception_5a/relu_3x3
I0714 23:30:59.693672  2980 net.cpp:425] inception_5a/relu_3x3 <- inception_5a/3x3
I0714 23:30:59.693686  2980 net.cpp:386] inception_5a/relu_3x3 -> inception_5a/3x3 (in-place)
I0714 23:30:59.693701  2976 net.cpp:141] Setting up inception_5a/relu_pool_proj
I0714 23:30:59.693718  2976 net.cpp:148] Top shape: 10 128 7 7 (62720)
I0714 23:30:59.693723  2976 net.cpp:156] Memory required for data: 534625280
I0714 23:30:59.693729  2976 layer_factory.hpp:77] Creating layer inception_5a/output
I0714 23:30:59.693738  2976 net.cpp:91] Creating Layer inception_5a/output
I0714 23:30:59.693744  2976 net.cpp:425] inception_5a/output <- inception_5a/1x1
I0714 23:30:59.693752  2976 net.cpp:425] inception_5a/output <- inception_5a/3x3
I0714 23:30:59.693758  2976 net.cpp:425] inception_5a/output <- inception_5a/5x5
I0714 23:30:59.693763  2976 net.cpp:425] inception_5a/output <- inception_5a/pool_proj
I0714 23:30:59.693771  2976 net.cpp:399] inception_5a/output -> inception_5a/output
I0714 23:30:59.694525  2976 net.cpp:141] Setting up inception_5a/output
I0714 23:30:59.694538  2976 net.cpp:148] Top shape: 10 832 7 7 (407680)
I0714 23:30:59.694543  2976 net.cpp:156] Memory required for data: 536256000
I0714 23:30:59.694550  2976 layer_factory.hpp:77] Creating layer inception_5a/output_inception_5a/output_0_split
I0714 23:30:59.694558  2976 net.cpp:91] Creating Layer inception_5a/output_inception_5a/output_0_split
I0714 23:30:59.694567  2976 net.cpp:425] inception_5a/output_inception_5a/output_0_split <- inception_5a/output
I0714 23:30:59.694574  2976 net.cpp:399] inception_5a/output_inception_5a/output_0_split -> inception_5a/output_inception_5a/output_0_split_0
I0714 23:30:59.694584  2976 net.cpp:399] inception_5a/output_inception_5a/output_0_split -> inception_5a/output_inception_5a/output_0_split_1
I0714 23:30:59.694594  2976 net.cpp:399] inception_5a/output_inception_5a/output_0_split -> inception_5a/output_inception_5a/output_0_split_2
I0714 23:30:59.694603  2976 net.cpp:399] inception_5a/output_inception_5a/output_0_split -> inception_5a/output_inception_5a/output_0_split_3
I0714 23:30:59.694736  2980 net.cpp:141] Setting up inception_5a/relu_3x3
I0714 23:30:59.694751  2980 net.cpp:148] Top shape: 10 320 7 7 (156800)
I0714 23:30:59.694756  2980 net.cpp:156] Memory required for data: 531865600
I0714 23:30:59.694761  2980 layer_factory.hpp:77] Creating layer inception_5a/5x5_reduce
I0714 23:30:59.694780  2980 net.cpp:91] Creating Layer inception_5a/5x5_reduce
I0714 23:30:59.694789  2980 net.cpp:425] inception_5a/5x5_reduce <- pool4/3x3_s2_pool4/3x3_s2_0_split_2
I0714 23:30:59.694802  2980 net.cpp:399] inception_5a/5x5_reduce -> inception_5a/5x5_reduce
I0714 23:30:59.694855  2976 net.cpp:141] Setting up inception_5a/output_inception_5a/output_0_split
I0714 23:30:59.694867  2976 net.cpp:148] Top shape: 10 832 7 7 (407680)
I0714 23:30:59.694875  2976 net.cpp:148] Top shape: 10 832 7 7 (407680)
I0714 23:30:59.694880  2976 net.cpp:148] Top shape: 10 832 7 7 (407680)
I0714 23:30:59.694885  2976 net.cpp:148] Top shape: 10 832 7 7 (407680)
I0714 23:30:59.694890  2976 net.cpp:156] Memory required for data: 542778880
I0714 23:30:59.694895  2976 layer_factory.hpp:77] Creating layer inception_5b/1x1
I0714 23:30:59.694911  2976 net.cpp:91] Creating Layer inception_5b/1x1
I0714 23:30:59.694918  2976 net.cpp:425] inception_5b/1x1 <- inception_5a/output_inception_5a/output_0_split_0
I0714 23:30:59.694931  2976 net.cpp:399] inception_5b/1x1 -> inception_5b/1x1
I0714 23:30:59.699400  2980 net.cpp:141] Setting up inception_5a/5x5_reduce
I0714 23:30:59.699421  2980 net.cpp:148] Top shape: 10 32 7 7 (15680)
I0714 23:30:59.699427  2980 net.cpp:156] Memory required for data: 531928320
I0714 23:30:59.699437  2980 layer_factory.hpp:77] Creating layer inception_5a/relu_5x5_reduce
I0714 23:30:59.699451  2980 net.cpp:91] Creating Layer inception_5a/relu_5x5_reduce
I0714 23:30:59.699458  2980 net.cpp:425] inception_5a/relu_5x5_reduce <- inception_5a/5x5_reduce
I0714 23:30:59.699472  2980 net.cpp:386] inception_5a/relu_5x5_reduce -> inception_5a/5x5_reduce (in-place)
I0714 23:30:59.700747  2980 net.cpp:141] Setting up inception_5a/relu_5x5_reduce
I0714 23:30:59.700762  2980 net.cpp:148] Top shape: 10 32 7 7 (15680)
I0714 23:30:59.700767  2980 net.cpp:156] Memory required for data: 531991040
I0714 23:30:59.700773  2980 layer_factory.hpp:77] Creating layer inception_5a/5x5
I0714 23:30:59.700791  2980 net.cpp:91] Creating Layer inception_5a/5x5
I0714 23:30:59.700798  2980 net.cpp:425] inception_5a/5x5 <- inception_5a/5x5_reduce
I0714 23:30:59.700810  2980 net.cpp:399] inception_5a/5x5 -> inception_5a/5x5
I0714 23:30:59.704006  2976 net.cpp:141] Setting up inception_5b/1x1
I0714 23:30:59.704026  2976 net.cpp:148] Top shape: 10 384 7 7 (188160)
I0714 23:30:59.704032  2976 net.cpp:156] Memory required for data: 543531520
I0714 23:30:59.704042  2976 layer_factory.hpp:77] Creating layer inception_5b/relu_1x1
I0714 23:30:59.704056  2976 net.cpp:91] Creating Layer inception_5b/relu_1x1
I0714 23:30:59.704061  2976 net.cpp:425] inception_5b/relu_1x1 <- inception_5b/1x1
I0714 23:30:59.704069  2976 net.cpp:386] inception_5b/relu_1x1 -> inception_5b/1x1 (in-place)
I0714 23:30:59.705482  2976 net.cpp:141] Setting up inception_5b/relu_1x1
I0714 23:30:59.705502  2976 net.cpp:148] Top shape: 10 384 7 7 (188160)
I0714 23:30:59.705507  2976 net.cpp:156] Memory required for data: 544284160
I0714 23:30:59.705513  2976 layer_factory.hpp:77] Creating layer inception_5b/3x3_reduce
I0714 23:30:59.705526  2976 net.cpp:91] Creating Layer inception_5b/3x3_reduce
I0714 23:30:59.705533  2976 net.cpp:425] inception_5b/3x3_reduce <- inception_5a/output_inception_5a/output_0_split_1
I0714 23:30:59.705546  2976 net.cpp:399] inception_5b/3x3_reduce -> inception_5b/3x3_reduce
I0714 23:30:59.707518  2980 net.cpp:141] Setting up inception_5a/5x5
I0714 23:30:59.707543  2980 net.cpp:148] Top shape: 10 128 7 7 (62720)
I0714 23:30:59.707550  2980 net.cpp:156] Memory required for data: 532241920
I0714 23:30:59.707561  2980 layer_factory.hpp:77] Creating layer inception_5a/relu_5x5
I0714 23:30:59.707597  2980 net.cpp:91] Creating Layer inception_5a/relu_5x5
I0714 23:30:59.707605  2980 net.cpp:425] inception_5a/relu_5x5 <- inception_5a/5x5
I0714 23:30:59.707613  2980 net.cpp:386] inception_5a/relu_5x5 -> inception_5a/5x5 (in-place)
I0714 23:30:59.708550  2980 net.cpp:141] Setting up inception_5a/relu_5x5
I0714 23:30:59.708569  2980 net.cpp:148] Top shape: 10 128 7 7 (62720)
I0714 23:30:59.708573  2980 net.cpp:156] Memory required for data: 532492800
I0714 23:30:59.708580  2980 layer_factory.hpp:77] Creating layer inception_5a/pool
I0714 23:30:59.708595  2980 net.cpp:91] Creating Layer inception_5a/pool
I0714 23:30:59.708602  2980 net.cpp:425] inception_5a/pool <- pool4/3x3_s2_pool4/3x3_s2_0_split_3
I0714 23:30:59.708611  2980 net.cpp:399] inception_5a/pool -> inception_5a/pool
I0714 23:30:59.708811  2980 net.cpp:141] Setting up inception_5a/pool
I0714 23:30:59.708822  2980 net.cpp:148] Top shape: 10 832 7 7 (407680)
I0714 23:30:59.708827  2980 net.cpp:156] Memory required for data: 534123520
I0714 23:30:59.708833  2980 layer_factory.hpp:77] Creating layer inception_5a/pool_proj
I0714 23:30:59.708850  2980 net.cpp:91] Creating Layer inception_5a/pool_proj
I0714 23:30:59.708858  2980 net.cpp:425] inception_5a/pool_proj <- inception_5a/pool
I0714 23:30:59.708870  2980 net.cpp:399] inception_5a/pool_proj -> inception_5a/pool_proj
I0714 23:30:59.714118  2976 net.cpp:141] Setting up inception_5b/3x3_reduce
I0714 23:30:59.714139  2976 net.cpp:148] Top shape: 10 192 7 7 (94080)
I0714 23:30:59.714145  2976 net.cpp:156] Memory required for data: 544660480
I0714 23:30:59.714154  2976 layer_factory.hpp:77] Creating layer inception_5b/relu_3x3_reduce
I0714 23:30:59.714164  2976 net.cpp:91] Creating Layer inception_5b/relu_3x3_reduce
I0714 23:30:59.714170  2976 net.cpp:425] inception_5b/relu_3x3_reduce <- inception_5b/3x3_reduce
I0714 23:30:59.714179  2976 net.cpp:386] inception_5b/relu_3x3_reduce -> inception_5b/3x3_reduce (in-place)
I0714 23:30:59.715368  2976 net.cpp:141] Setting up inception_5b/relu_3x3_reduce
I0714 23:30:59.715384  2976 net.cpp:148] Top shape: 10 192 7 7 (94080)
I0714 23:30:59.715390  2976 net.cpp:156] Memory required for data: 545036800
I0714 23:30:59.715395  2976 layer_factory.hpp:77] Creating layer inception_5b/3x3
I0714 23:30:59.715411  2976 net.cpp:91] Creating Layer inception_5b/3x3
I0714 23:30:59.715418  2976 net.cpp:425] inception_5b/3x3 <- inception_5b/3x3_reduce
I0714 23:30:59.715435  2976 net.cpp:399] inception_5b/3x3 -> inception_5b/3x3
I0714 23:30:59.718961  2980 net.cpp:141] Setting up inception_5a/pool_proj
I0714 23:30:59.718986  2980 net.cpp:148] Top shape: 10 128 7 7 (62720)
I0714 23:30:59.718992  2980 net.cpp:156] Memory required for data: 534374400
I0714 23:30:59.719002  2980 layer_factory.hpp:77] Creating layer inception_5a/relu_pool_proj
I0714 23:30:59.719012  2980 net.cpp:91] Creating Layer inception_5a/relu_pool_proj
I0714 23:30:59.719019  2980 net.cpp:425] inception_5a/relu_pool_proj <- inception_5a/pool_proj
I0714 23:30:59.719027  2980 net.cpp:386] inception_5a/relu_pool_proj -> inception_5a/pool_proj (in-place)
I0714 23:30:59.719355  2980 net.cpp:141] Setting up inception_5a/relu_pool_proj
I0714 23:30:59.719368  2980 net.cpp:148] Top shape: 10 128 7 7 (62720)
I0714 23:30:59.719373  2980 net.cpp:156] Memory required for data: 534625280
I0714 23:30:59.719379  2980 layer_factory.hpp:77] Creating layer inception_5a/output
I0714 23:30:59.719388  2980 net.cpp:91] Creating Layer inception_5a/output
I0714 23:30:59.719394  2980 net.cpp:425] inception_5a/output <- inception_5a/1x1
I0714 23:30:59.719401  2980 net.cpp:425] inception_5a/output <- inception_5a/3x3
I0714 23:30:59.719408  2980 net.cpp:425] inception_5a/output <- inception_5a/5x5
I0714 23:30:59.719413  2980 net.cpp:425] inception_5a/output <- inception_5a/pool_proj
I0714 23:30:59.719424  2980 net.cpp:399] inception_5a/output -> inception_5a/output
I0714 23:30:59.719491  2980 net.cpp:141] Setting up inception_5a/output
I0714 23:30:59.719502  2980 net.cpp:148] Top shape: 10 832 7 7 (407680)
I0714 23:30:59.719507  2980 net.cpp:156] Memory required for data: 536256000
I0714 23:30:59.719512  2980 layer_factory.hpp:77] Creating layer inception_5a/output_inception_5a/output_0_split
I0714 23:30:59.719526  2980 net.cpp:91] Creating Layer inception_5a/output_inception_5a/output_0_split
I0714 23:30:59.719532  2980 net.cpp:425] inception_5a/output_inception_5a/output_0_split <- inception_5a/output
I0714 23:30:59.719540  2980 net.cpp:399] inception_5a/output_inception_5a/output_0_split -> inception_5a/output_inception_5a/output_0_split_0
I0714 23:30:59.719552  2980 net.cpp:399] inception_5a/output_inception_5a/output_0_split -> inception_5a/output_inception_5a/output_0_split_1
I0714 23:30:59.719561  2980 net.cpp:399] inception_5a/output_inception_5a/output_0_split -> inception_5a/output_inception_5a/output_0_split_2
I0714 23:30:59.719570  2980 net.cpp:399] inception_5a/output_inception_5a/output_0_split -> inception_5a/output_inception_5a/output_0_split_3
I0714 23:30:59.719738  2980 net.cpp:141] Setting up inception_5a/output_inception_5a/output_0_split
I0714 23:30:59.719749  2980 net.cpp:148] Top shape: 10 832 7 7 (407680)
I0714 23:30:59.719755  2980 net.cpp:148] Top shape: 10 832 7 7 (407680)
I0714 23:30:59.719761  2980 net.cpp:148] Top shape: 10 832 7 7 (407680)
I0714 23:30:59.719766  2980 net.cpp:148] Top shape: 10 832 7 7 (407680)
I0714 23:30:59.719770  2980 net.cpp:156] Memory required for data: 542778880
I0714 23:30:59.719775  2980 layer_factory.hpp:77] Creating layer inception_5b/1x1
I0714 23:30:59.719791  2980 net.cpp:91] Creating Layer inception_5b/1x1
I0714 23:30:59.719797  2980 net.cpp:425] inception_5b/1x1 <- inception_5a/output_inception_5a/output_0_split_0
I0714 23:30:59.719810  2980 net.cpp:399] inception_5b/1x1 -> inception_5b/1x1
I0714 23:30:59.729665  2980 net.cpp:141] Setting up inception_5b/1x1
I0714 23:30:59.729689  2980 net.cpp:148] Top shape: 10 384 7 7 (188160)
I0714 23:30:59.729696  2980 net.cpp:156] Memory required for data: 543531520
I0714 23:30:59.729707  2980 layer_factory.hpp:77] Creating layer inception_5b/relu_1x1
I0714 23:30:59.729712  2976 net.cpp:141] Setting up inception_5b/3x3
I0714 23:30:59.729717  2980 net.cpp:91] Creating Layer inception_5b/relu_1x1
I0714 23:30:59.729730  2980 net.cpp:425] inception_5b/relu_1x1 <- inception_5b/1x1
I0714 23:30:59.729733  2976 net.cpp:148] Top shape: 10 384 7 7 (188160)
I0714 23:30:59.729739  2976 net.cpp:156] Memory required for data: 545789440
I0714 23:30:59.729739  2980 net.cpp:386] inception_5b/relu_1x1 -> inception_5b/1x1 (in-place)
I0714 23:30:59.729750  2976 layer_factory.hpp:77] Creating layer inception_5b/relu_3x3
I0714 23:30:59.729759  2976 net.cpp:91] Creating Layer inception_5b/relu_3x3
I0714 23:30:59.729765  2976 net.cpp:425] inception_5b/relu_3x3 <- inception_5b/3x3
I0714 23:30:59.729773  2976 net.cpp:386] inception_5b/relu_3x3 -> inception_5b/3x3 (in-place)
I0714 23:30:59.731052  2976 net.cpp:141] Setting up inception_5b/relu_3x3
I0714 23:30:59.731057  2980 net.cpp:141] Setting up inception_5b/relu_1x1
I0714 23:30:59.731068  2976 net.cpp:148] Top shape: 10 384 7 7 (188160)
I0714 23:30:59.731073  2976 net.cpp:156] Memory required for data: 546542080
I0714 23:30:59.731076  2980 net.cpp:148] Top shape: 10 384 7 7 (188160)
I0714 23:30:59.731079  2976 layer_factory.hpp:77] Creating layer inception_5b/5x5_reduce
I0714 23:30:59.731081  2980 net.cpp:156] Memory required for data: 544284160
I0714 23:30:59.731086  2980 layer_factory.hpp:77] Creating layer inception_5b/3x3_reduce
I0714 23:30:59.731096  2976 net.cpp:91] Creating Layer inception_5b/5x5_reduce
I0714 23:30:59.731103  2976 net.cpp:425] inception_5b/5x5_reduce <- inception_5a/output_inception_5a/output_0_split_2
I0714 23:30:59.731103  2980 net.cpp:91] Creating Layer inception_5b/3x3_reduce
I0714 23:30:59.731112  2980 net.cpp:425] inception_5b/3x3_reduce <- inception_5a/output_inception_5a/output_0_split_1
I0714 23:30:59.731117  2976 net.cpp:399] inception_5b/5x5_reduce -> inception_5b/5x5_reduce
I0714 23:30:59.731122  2980 net.cpp:399] inception_5b/3x3_reduce -> inception_5b/3x3_reduce
I0714 23:30:59.737202  2976 net.cpp:141] Setting up inception_5b/5x5_reduce
I0714 23:30:59.737222  2976 net.cpp:148] Top shape: 10 48 7 7 (23520)
I0714 23:30:59.737227  2976 net.cpp:156] Memory required for data: 546636160
I0714 23:30:59.737237  2976 layer_factory.hpp:77] Creating layer inception_5b/relu_5x5_reduce
I0714 23:30:59.737249  2976 net.cpp:91] Creating Layer inception_5b/relu_5x5_reduce
I0714 23:30:59.737257  2976 net.cpp:425] inception_5b/relu_5x5_reduce <- inception_5b/5x5_reduce
I0714 23:30:59.737264  2976 net.cpp:386] inception_5b/relu_5x5_reduce -> inception_5b/5x5_reduce (in-place)
I0714 23:30:59.738673  2976 net.cpp:141] Setting up inception_5b/relu_5x5_reduce
I0714 23:30:59.738700  2976 net.cpp:148] Top shape: 10 48 7 7 (23520)
I0714 23:30:59.738706  2976 net.cpp:156] Memory required for data: 546730240
I0714 23:30:59.738713  2976 layer_factory.hpp:77] Creating layer inception_5b/5x5
I0714 23:30:59.738729  2976 net.cpp:91] Creating Layer inception_5b/5x5
I0714 23:30:59.738737  2976 net.cpp:425] inception_5b/5x5 <- inception_5b/5x5_reduce
I0714 23:30:59.738747  2976 net.cpp:399] inception_5b/5x5 -> inception_5b/5x5
I0714 23:30:59.739267  2980 net.cpp:141] Setting up inception_5b/3x3_reduce
I0714 23:30:59.739285  2980 net.cpp:148] Top shape: 10 192 7 7 (94080)
I0714 23:30:59.739291  2980 net.cpp:156] Memory required for data: 544660480
I0714 23:30:59.739301  2980 layer_factory.hpp:77] Creating layer inception_5b/relu_3x3_reduce
I0714 23:30:59.739310  2980 net.cpp:91] Creating Layer inception_5b/relu_3x3_reduce
I0714 23:30:59.739320  2980 net.cpp:425] inception_5b/relu_3x3_reduce <- inception_5b/3x3_reduce
I0714 23:30:59.739328  2980 net.cpp:386] inception_5b/relu_3x3_reduce -> inception_5b/3x3_reduce (in-place)
I0714 23:30:59.740424  2980 net.cpp:141] Setting up inception_5b/relu_3x3_reduce
I0714 23:30:59.740442  2980 net.cpp:148] Top shape: 10 192 7 7 (94080)
I0714 23:30:59.740447  2980 net.cpp:156] Memory required for data: 545036800
I0714 23:30:59.740453  2980 layer_factory.hpp:77] Creating layer inception_5b/3x3
I0714 23:30:59.740470  2980 net.cpp:91] Creating Layer inception_5b/3x3
I0714 23:30:59.740476  2980 net.cpp:425] inception_5b/3x3 <- inception_5b/3x3_reduce
I0714 23:30:59.740490  2980 net.cpp:399] inception_5b/3x3 -> inception_5b/3x3
I0714 23:30:59.746346  2976 net.cpp:141] Setting up inception_5b/5x5
I0714 23:30:59.746371  2976 net.cpp:148] Top shape: 10 128 7 7 (62720)
I0714 23:30:59.746376  2976 net.cpp:156] Memory required for data: 546981120
I0714 23:30:59.746387  2976 layer_factory.hpp:77] Creating layer inception_5b/relu_5x5
I0714 23:30:59.746397  2976 net.cpp:91] Creating Layer inception_5b/relu_5x5
I0714 23:30:59.746404  2976 net.cpp:425] inception_5b/relu_5x5 <- inception_5b/5x5
I0714 23:30:59.746417  2976 net.cpp:386] inception_5b/relu_5x5 -> inception_5b/5x5 (in-place)
I0714 23:30:59.746747  2976 net.cpp:141] Setting up inception_5b/relu_5x5
I0714 23:30:59.746764  2976 net.cpp:148] Top shape: 10 128 7 7 (62720)
I0714 23:30:59.746769  2976 net.cpp:156] Memory required for data: 547232000
I0714 23:30:59.746774  2976 layer_factory.hpp:77] Creating layer inception_5b/pool
I0714 23:30:59.746785  2976 net.cpp:91] Creating Layer inception_5b/pool
I0714 23:30:59.746791  2976 net.cpp:425] inception_5b/pool <- inception_5a/output_inception_5a/output_0_split_3
I0714 23:30:59.746800  2976 net.cpp:399] inception_5b/pool -> inception_5b/pool
I0714 23:30:59.746870  2976 net.cpp:141] Setting up inception_5b/pool
I0714 23:30:59.746881  2976 net.cpp:148] Top shape: 10 832 7 7 (407680)
I0714 23:30:59.746886  2976 net.cpp:156] Memory required for data: 548862720
I0714 23:30:59.746891  2976 layer_factory.hpp:77] Creating layer inception_5b/pool_proj
I0714 23:30:59.746907  2976 net.cpp:91] Creating Layer inception_5b/pool_proj
I0714 23:30:59.746914  2976 net.cpp:425] inception_5b/pool_proj <- inception_5b/pool
I0714 23:30:59.746925  2976 net.cpp:399] inception_5b/pool_proj -> inception_5b/pool_proj
I0714 23:30:59.753795  2980 net.cpp:141] Setting up inception_5b/3x3
I0714 23:30:59.753818  2980 net.cpp:148] Top shape: 10 384 7 7 (188160)
I0714 23:30:59.753823  2980 net.cpp:156] Memory required for data: 545789440
I0714 23:30:59.753834  2980 layer_factory.hpp:77] Creating layer inception_5b/relu_3x3
I0714 23:30:59.753844  2980 net.cpp:91] Creating Layer inception_5b/relu_3x3
I0714 23:30:59.753851  2980 net.cpp:425] inception_5b/relu_3x3 <- inception_5b/3x3
I0714 23:30:59.753864  2980 net.cpp:386] inception_5b/relu_3x3 -> inception_5b/3x3 (in-place)
I0714 23:30:59.754529  2976 net.cpp:141] Setting up inception_5b/pool_proj
I0714 23:30:59.754539  2980 net.cpp:141] Setting up inception_5b/relu_3x3
I0714 23:30:59.754549  2976 net.cpp:148] Top shape: 10 128 7 7 (62720)
I0714 23:30:59.754554  2980 net.cpp:148] Top shape: 10 384 7 7 (188160)
I0714 23:30:59.754554  2976 net.cpp:156] Memory required for data: 549113600
I0714 23:30:59.754559  2980 net.cpp:156] Memory required for data: 546542080
I0714 23:30:59.754565  2980 layer_factory.hpp:77] Creating layer inception_5b/5x5_reduce
I0714 23:30:59.754565  2976 layer_factory.hpp:77] Creating layer inception_5b/relu_pool_proj
I0714 23:30:59.754590  2980 net.cpp:91] Creating Layer inception_5b/5x5_reduce
I0714 23:30:59.754590  2976 net.cpp:91] Creating Layer inception_5b/relu_pool_proj
I0714 23:30:59.754600  2980 net.cpp:425] inception_5b/5x5_reduce <- inception_5a/output_inception_5a/output_0_split_2
I0714 23:30:59.754603  2976 net.cpp:425] inception_5b/relu_pool_proj <- inception_5b/pool_proj
I0714 23:30:59.754611  2980 net.cpp:399] inception_5b/5x5_reduce -> inception_5b/5x5_reduce
I0714 23:30:59.754612  2976 net.cpp:386] inception_5b/relu_pool_proj -> inception_5b/pool_proj (in-place)
I0714 23:30:59.755786  2976 net.cpp:141] Setting up inception_5b/relu_pool_proj
I0714 23:30:59.755805  2976 net.cpp:148] Top shape: 10 128 7 7 (62720)
I0714 23:30:59.755810  2976 net.cpp:156] Memory required for data: 549364480
I0714 23:30:59.755815  2976 layer_factory.hpp:77] Creating layer inception_5b/output
I0714 23:30:59.755828  2976 net.cpp:91] Creating Layer inception_5b/output
I0714 23:30:59.755836  2976 net.cpp:425] inception_5b/output <- inception_5b/1x1
I0714 23:30:59.755843  2976 net.cpp:425] inception_5b/output <- inception_5b/3x3
I0714 23:30:59.755849  2976 net.cpp:425] inception_5b/output <- inception_5b/5x5
I0714 23:30:59.755856  2976 net.cpp:425] inception_5b/output <- inception_5b/pool_proj
I0714 23:30:59.755862  2976 net.cpp:399] inception_5b/output -> inception_5b/output
I0714 23:30:59.755909  2976 net.cpp:141] Setting up inception_5b/output
I0714 23:30:59.755919  2976 net.cpp:148] Top shape: 10 1024 7 7 (501760)
I0714 23:30:59.755924  2976 net.cpp:156] Memory required for data: 551371520
I0714 23:30:59.755929  2976 layer_factory.hpp:77] Creating layer pool5/7x7_s1
I0714 23:30:59.755942  2976 net.cpp:91] Creating Layer pool5/7x7_s1
I0714 23:30:59.755949  2976 net.cpp:425] pool5/7x7_s1 <- inception_5b/output
I0714 23:30:59.755956  2976 net.cpp:399] pool5/7x7_s1 -> pool5/7x7_s1
I0714 23:30:59.757309  2976 net.cpp:141] Setting up pool5/7x7_s1
I0714 23:30:59.757325  2976 net.cpp:148] Top shape: 10 1024 1 1 (10240)
I0714 23:30:59.757330  2976 net.cpp:156] Memory required for data: 551412480
I0714 23:30:59.757335  2976 layer_factory.hpp:77] Creating layer pool5/drop_7x7_s1
I0714 23:30:59.757346  2976 net.cpp:91] Creating Layer pool5/drop_7x7_s1
I0714 23:30:59.757352  2976 net.cpp:425] pool5/drop_7x7_s1 <- pool5/7x7_s1
I0714 23:30:59.757361  2976 net.cpp:386] pool5/drop_7x7_s1 -> pool5/7x7_s1 (in-place)
I0714 23:30:59.757427  2976 net.cpp:141] Setting up pool5/drop_7x7_s1
I0714 23:30:59.757437  2976 net.cpp:148] Top shape: 10 1024 1 1 (10240)
I0714 23:30:59.757441  2976 net.cpp:156] Memory required for data: 551453440
I0714 23:30:59.757447  2976 layer_factory.hpp:77] Creating layer loss3/classifier
I0714 23:30:59.757468  2976 net.cpp:91] Creating Layer loss3/classifier
I0714 23:30:59.757475  2976 net.cpp:425] loss3/classifier <- pool5/7x7_s1
I0714 23:30:59.757486  2976 net.cpp:399] loss3/classifier -> loss3/classifier
I0714 23:30:59.761559  2980 net.cpp:141] Setting up inception_5b/5x5_reduce
I0714 23:30:59.761582  2980 net.cpp:148] Top shape: 10 48 7 7 (23520)
I0714 23:30:59.761589  2980 net.cpp:156] Memory required for data: 546636160
I0714 23:30:59.761598  2980 layer_factory.hpp:77] Creating layer inception_5b/relu_5x5_reduce
I0714 23:30:59.761613  2980 net.cpp:91] Creating Layer inception_5b/relu_5x5_reduce
I0714 23:30:59.761620  2980 net.cpp:425] inception_5b/relu_5x5_reduce <- inception_5b/5x5_reduce
I0714 23:30:59.761629  2980 net.cpp:386] inception_5b/relu_5x5_reduce -> inception_5b/5x5_reduce (in-place)
I0714 23:30:59.762610  2980 net.cpp:141] Setting up inception_5b/relu_5x5_reduce
I0714 23:30:59.762627  2980 net.cpp:148] Top shape: 10 48 7 7 (23520)
I0714 23:30:59.762632  2980 net.cpp:156] Memory required for data: 546730240
I0714 23:30:59.762639  2980 layer_factory.hpp:77] Creating layer inception_5b/5x5
I0714 23:30:59.762658  2980 net.cpp:91] Creating Layer inception_5b/5x5
I0714 23:30:59.762666  2980 net.cpp:425] inception_5b/5x5 <- inception_5b/5x5_reduce
I0714 23:30:59.762676  2980 net.cpp:399] inception_5b/5x5 -> inception_5b/5x5
I0714 23:30:59.765943  2980 net.cpp:141] Setting up inception_5b/5x5
I0714 23:30:59.765964  2980 net.cpp:148] Top shape: 10 128 7 7 (62720)
I0714 23:30:59.765970  2980 net.cpp:156] Memory required for data: 546981120
I0714 23:30:59.765980  2980 layer_factory.hpp:77] Creating layer inception_5b/relu_5x5
I0714 23:30:59.765990  2980 net.cpp:91] Creating Layer inception_5b/relu_5x5
I0714 23:30:59.765995  2980 net.cpp:425] inception_5b/relu_5x5 <- inception_5b/5x5
I0714 23:30:59.766005  2980 net.cpp:386] inception_5b/relu_5x5 -> inception_5b/5x5 (in-place)
I0714 23:30:59.766907  2980 net.cpp:141] Setting up inception_5b/relu_5x5
I0714 23:30:59.766926  2980 net.cpp:148] Top shape: 10 128 7 7 (62720)
I0714 23:30:59.766930  2980 net.cpp:156] Memory required for data: 547232000
I0714 23:30:59.766935  2980 layer_factory.hpp:77] Creating layer inception_5b/pool
I0714 23:30:59.766947  2980 net.cpp:91] Creating Layer inception_5b/pool
I0714 23:30:59.766953  2980 net.cpp:425] inception_5b/pool <- inception_5a/output_inception_5a/output_0_split_3
I0714 23:30:59.766965  2980 net.cpp:399] inception_5b/pool -> inception_5b/pool
I0714 23:30:59.767035  2980 net.cpp:141] Setting up inception_5b/pool
I0714 23:30:59.767045  2980 net.cpp:148] Top shape: 10 832 7 7 (407680)
I0714 23:30:59.767048  2980 net.cpp:156] Memory required for data: 548862720
I0714 23:30:59.767053  2980 layer_factory.hpp:77] Creating layer inception_5b/pool_proj
I0714 23:30:59.767072  2980 net.cpp:91] Creating Layer inception_5b/pool_proj
I0714 23:30:59.767079  2980 net.cpp:425] inception_5b/pool_proj <- inception_5b/pool
I0714 23:30:59.767088  2980 net.cpp:399] inception_5b/pool_proj -> inception_5b/pool_proj
I0714 23:30:59.770339  2976 net.cpp:141] Setting up loss3/classifier
I0714 23:30:59.770357  2976 net.cpp:148] Top shape: 10 1000 (10000)
I0714 23:30:59.770364  2976 net.cpp:156] Memory required for data: 551493440
I0714 23:30:59.770373  2976 layer_factory.hpp:77] Creating layer prob
I0714 23:30:59.770383  2976 net.cpp:91] Creating Layer prob
I0714 23:30:59.770390  2976 net.cpp:425] prob <- loss3/classifier
I0714 23:30:59.770398  2976 net.cpp:399] prob -> prob
I0714 23:30:59.771955  2976 net.cpp:141] Setting up prob
I0714 23:30:59.771975  2976 net.cpp:148] Top shape: 10 1000 (10000)
I0714 23:30:59.771980  2976 net.cpp:156] Memory required for data: 551533440
I0714 23:30:59.771986  2976 net.cpp:219] prob does not need backward computation.
I0714 23:30:59.771991  2976 net.cpp:219] loss3/classifier does not need backward computation.
I0714 23:30:59.771996  2976 net.cpp:219] pool5/drop_7x7_s1 does not need backward computation.
I0714 23:30:59.771999  2976 net.cpp:219] pool5/7x7_s1 does not need backward computation.
…
I0714 23:30:59.772740  2976 net.cpp:219] pool1/3x3_s2 does not need backward computation.
I0714 23:30:59.772745  2976 net.cpp:219] conv1/relu_7x7 does not need backward computation.
I0714 23:30:59.772750  2976 net.cpp:219] conv1/7x7_s2 does not need backward computation.
I0714 23:30:59.772755  2976 net.cpp:219] data does not need backward computation.
I0714 23:30:59.772761  2976 net.cpp:261] This network produces output prob
I0714 23:30:59.772907  2976 net.cpp:274] Network initialization done.
I0714 23:30:59.773468  2980 net.cpp:141] Setting up inception_5b/relu_pool_proj
I0714 23:30:59.773481  2980 net.cpp:148] Top shape: 10 128 7 7 (62720)
I0714 23:30:59.773486  2980 net.cpp:156] Memory required for data: 549364480
I0714 23:30:59.773491  2980 layer_factory.hpp:77] Creating layer inception_5b/output
I0714 23:30:59.773504  2980 net.cpp:91] Creating Layer inception_5b/output
I0714 23:30:59.773511  2980 net.cpp:425] inception_5b/output <- inception_5b/1x1
I0714 23:30:59.773519  2980 net.cpp:425] inception_5b/output <- inception_5b/3x3
I0714 23:30:59.773524  2980 net.cpp:425] inception_5b/output <- inception_5b/5x5
I0714 23:30:59.773530  2980 net.cpp:425] inception_5b/output <- inception_5b/pool_proj
I0714 23:30:59.773537  2980 net.cpp:399] inception_5b/output -> inception_5b/output
I0714 23:30:59.773584  2980 net.cpp:141] Setting up inception_5b/output
I0714 23:30:59.773596  2980 net.cpp:148] Top shape: 10 1024 7 7 (501760)
I0714 23:30:59.773600  2980 net.cpp:156] Memory required for data: 551371520
I0714 23:30:59.773605  2980 layer_factory.hpp:77] Creating layer pool5/7x7_s1
I0714 23:30:59.773613  2980 net.cpp:91] Creating Layer pool5/7x7_s1
I0714 23:30:59.773619  2980 net.cpp:425] pool5/7x7_s1 <- inception_5b/output
I0714 23:30:59.773644  2980 net.cpp:399] pool5/7x7_s1 -> pool5/7x7_s1
I0714 23:30:59.773993  2980 net.cpp:141] Setting up pool5/7x7_s1
I0714 23:30:59.774006  2980 net.cpp:148] Top shape: 10 1024 1 1 (10240)
I0714 23:30:59.774011  2980 net.cpp:156] Memory required for data: 551412480
I0714 23:30:59.774016  2980 layer_factory.hpp:77] Creating layer pool5/drop_7x7_s1
I0714 23:30:59.774030  2980 net.cpp:91] Creating Layer pool5/drop_7x7_s1
I0714 23:30:59.774036  2980 net.cpp:425] pool5/drop_7x7_s1 <- pool5/7x7_s1
I0714 23:30:59.774046  2980 net.cpp:386] pool5/drop_7x7_s1 -> pool5/7x7_s1 (in-place)
I0714 23:30:59.774082  2980 net.cpp:141] Setting up pool5/drop_7x7_s1
I0714 23:30:59.774091  2980 net.cpp:148] Top shape: 10 1024 1 1 (10240)
I0714 23:30:59.774096  2980 net.cpp:156] Memory required for data: 551453440
I0714 23:30:59.774101  2980 layer_factory.hpp:77] Creating layer loss3/classifier
I0714 23:30:59.774118  2980 net.cpp:91] Creating Layer loss3/classifier
I0714 23:30:59.774125  2980 net.cpp:425] loss3/classifier <- pool5/7x7_s1
I0714 23:30:59.774133  2980 net.cpp:399] loss3/classifier -> loss3/classifier
I0714 23:30:59.786322  2980 net.cpp:141] Setting up loss3/classifier
I0714 23:30:59.786378  2980 net.cpp:148] Top shape: 10 1000 (10000)
I0714 23:30:59.786384  2980 net.cpp:156] Memory required for data: 551493440
I0714 23:30:59.786401  2980 layer_factory.hpp:77] Creating layer prob
I0714 23:30:59.786417  2980 net.cpp:91] Creating Layer prob
I0714 23:30:59.786427  2980 net.cpp:425] prob <- loss3/classifier
I0714 23:30:59.786444  2980 net.cpp:399] prob -> prob
I0714 23:30:59.788565  2980 net.cpp:141] Setting up prob
I0714 23:30:59.788592  2980 net.cpp:148] Top shape: 10 1000 (10000)
I0714 23:30:59.788599  2980 net.cpp:156] Memory required for data: 551533440
I0714 23:30:59.788604  2980 net.cpp:219] prob does not need backward computation.
I0714 23:30:59.788610  2980 net.cpp:219] loss3/classifier does not need backward computation.
I0714 23:30:59.788616  2980 net.cpp:219] pool5/drop_7x7_s1 does not need backward computation.
I0714 23:30:59.788620  2980 net.cpp:219] pool5/7x7_s1 does not need backward computation.
…
