…
2016-07-05 19:03:42.695 STDERR [INFO] I0705 19:03:42.432392 23439 layer_factory.hpp:77] Creating layer conv1/7x7_s2
2016-07-05 19:03:42.695 STDERR [INFO] I0705 19:03:42.432415 23439 net.cpp:106] Creating Layer conv1/7x7_s2
2016-07-05 19:03:42.695 STDERR [INFO] I0705 19:03:42.432420 23439 net.cpp:454] conv1/7x7_s2 <- data
2016-07-05 19:03:42.695 STDERR [INFO] I0705 19:03:42.432430 23439 net.cpp:411] conv1/7x7_s2 -> conv1/7x7_s2
2016-07-05 19:03:42.696 STDERR [INFO] I0705 19:03:42.433007 23439 net.cpp:150] Setting up conv1/7x7_s2
2016-07-05 19:03:42.696 STDERR [INFO] I0705 19:03:42.433022 23439 net.cpp:157] Top shape: 10 64 112 112 (8028160)
2016-07-05 19:03:42.696 STDERR [INFO] I0705 19:03:42.433024 23439 net.cpp:165] Memory required for data: 32112640
2016-07-05 19:03:42.696 STDERR [INFO] I0705 19:03:42.433040 23439 layer_factory.hpp:77] Creating layer conv1/relu_7x7
2016-07-05 19:03:42.696 STDERR [INFO] I0705 19:03:42.433048 23439 net.cpp:106] Creating Layer conv1/relu_7x7
2016-07-05 19:03:42.696 STDERR [INFO] I0705 19:03:42.433055 23439 net.cpp:454] conv1/relu_7x7 <- conv1/7x7_s2
2016-07-05 19:03:42.696 STDERR [INFO] I0705 19:03:42.433060 23439 net.cpp:397] conv1/relu_7x7 -> conv1/7x7_s2 (in-place)
2016-07-05 19:03:42.696 STDERR [INFO] I0705 19:03:42.433073 23439 net.cpp:150] Setting up conv1/relu_7x7
2016-07-05 19:03:42.696 STDERR [INFO] I0705 19:03:42.433079 23439 net.cpp:157] Top shape: 10 64 112 112 (8028160)
2016-07-05 19:03:42.697 STDERR [INFO] I0705 19:03:42.433081 23439 net.cpp:165] Memory required for data: 64225280
2016-07-05 19:03:42.697 STDERR [INFO] I0705 19:03:42.433084 23439 layer_factory.hpp:77] Creating layer pool1/3x3_s2
2016-07-05 19:03:42.697 STDERR [INFO] I0705 19:03:42.433090 23439 net.cpp:106] Creating Layer pool1/3x3_s2
2016-07-05 19:03:42.697 STDERR [INFO] I0705 19:03:42.433094 23439 net.cpp:454] pool1/3x3_s2 <- conv1/7x7_s2
2016-07-05 19:03:42.697 STDERR [INFO] I0705 19:03:42.433099 23439 net.cpp:411] pool1/3x3_s2 -> pool1/3x3_s2
2016-07-05 19:03:42.697 STDERR [INFO] I0705 19:03:42.433115 23439 net.cpp:150] Setting up pool1/3x3_s2
2016-07-05 19:03:42.697 STDERR [INFO] I0705 19:03:42.433120 23439 net.cpp:157] Top shape: 10 64 56 56 (2007040)
2016-07-05 19:03:42.697 STDERR [INFO] I0705 19:03:42.433123 23439 net.cpp:165] Memory required for data: 72253440
2016-07-05 19:03:42.697 STDERR [INFO] I0705 19:03:42.433126 23439 layer_factory.hpp:77] Creating layer pool1/norm1
2016-07-05 19:03:42.698 STDERR [INFO] I0705 19:03:42.433133 23439 net.cpp:106] Creating Layer pool1/norm1
2016-07-05 19:03:42.698 STDERR [INFO] I0705 19:03:42.433136 23439 net.cpp:454] pool1/norm1 <- pool1/3x3_s2
2016-07-05 19:03:42.698 STDERR [INFO] I0705 19:03:42.433141 23439 net.cpp:411] pool1/norm1 -> pool1/norm1
2016-07-05 19:03:42.698 STDERR [INFO] I0705 19:03:42.433153 23439 net.cpp:150] Setting up pool1/norm1
2016-07-05 19:03:42.698 STDERR [INFO] I0705 19:03:42.433158 23439 net.cpp:157] Top shape: 10 64 56 56 (2007040)
2016-07-05 19:03:42.698 STDERR [INFO] I0705 19:03:42.433161 23439 net.cpp:165] Memory required for data: 80281600
2016-07-05 19:03:42.698 STDERR [INFO] I0705 19:03:42.433164 23439 layer_factory.hpp:77] Creating layer conv2/3x3_reduce
2016-07-05 19:03:42.698 STDERR [INFO] I0705 19:03:42.433174 23439 net.cpp:106] Creating Layer conv2/3x3_reduce
2016-07-05 19:03:42.699 STDERR [INFO] I0705 19:03:42.433178 23439 net.cpp:454] conv2/3x3_reduce <- pool1/norm1
2016-07-05 19:03:42.699 STDERR [INFO] I0705 19:03:42.433185 23439 net.cpp:411] conv2/3x3_reduce -> conv2/3x3_reduce
2016-07-05 19:03:42.699 STDERR [INFO] I0705 19:03:42.433246 23439 net.cpp:150] Setting up conv2/3x3_reduce
2016-07-05 19:03:42.699 STDERR [INFO] I0705 19:03:42.433253 23439 net.cpp:157] Top shape: 10 64 56 56 (2007040)
2016-07-05 19:03:42.699 STDERR [INFO] I0705 19:03:42.433255 23439 net.cpp:165] Memory required for data: 88309760
2016-07-05 19:03:42.699 STDERR [INFO] I0705 19:03:42.433262 23439 layer_factory.hpp:77] Creating layer conv2/relu_3x3_reduce
2016-07-05 19:03:42.699 STDERR [INFO] I0705 19:03:42.433269 23439 net.cpp:106] Creating Layer conv2/relu_3x3_reduce
2016-07-05 19:03:42.699 STDERR [INFO] I0705 19:03:42.433271 23439 net.cpp:454] conv2/relu_3x3_reduce <- conv2/3x3_reduce
2016-07-05 19:03:42.700 STDERR [INFO] I0705 19:03:42.433275 23439 net.cpp:397] conv2/relu_3x3_reduce -> conv2/3x3_reduce (in-place)
2016-07-05 19:03:42.700 STDERR [INFO] I0705 19:03:42.433281 23439 net.cpp:150] Setting up conv2/relu_3x3_reduce
2016-07-05 19:03:42.700 STDERR [INFO] I0705 19:03:42.433285 23439 net.cpp:157] Top shape: 10 64 56 56 (2007040)
2016-07-05 19:03:42.700 STDERR [INFO] I0705 19:03:42.433289 23439 net.cpp:165] Memory required for data: 96337920
2016-07-05 19:03:42.700 STDERR [INFO] I0705 19:03:42.433291 23439 layer_factory.hpp:77] Creating layer conv2/3x3
2016-07-05 19:03:42.700 STDERR [INFO] I0705 19:03:42.433300 23439 net.cpp:106] Creating Layer conv2/3x3
2016-07-05 19:03:42.700 STDERR [INFO] I0705 19:03:42.433305 23439 net.cpp:454] conv2/3x3 <- conv2/3x3_reduce
2016-07-05 19:03:42.700 STDERR [INFO] I0705 19:03:42.433311 23439 net.cpp:411] conv2/3x3 -> conv2/3x3
2016-07-05 19:03:42.700 STDERR [INFO] I0705 19:03:42.434260 23439 net.cpp:150] Setting up conv2/3x3
2016-07-05 19:03:42.701 STDERR [INFO] I0705 19:03:42.434268 23439 net.cpp:157] Top shape: 10 192 56 56 (6021120)
2016-07-05 19:03:42.701 STDERR [INFO] I0705 19:03:42.434273 23439 net.cpp:165] Memory required for data: 120422400
2016-07-05 19:03:42.701 STDERR [INFO] I0705 19:03:42.434279 23439 layer_factory.hpp:77] Creating layer conv2/relu_3x3
2016-07-05 19:03:42.701 STDERR [INFO] I0705 19:03:42.434285 23439 net.cpp:106] Creating Layer conv2/relu_3x3
2016-07-05 19:03:42.701 STDERR [INFO] I0705 19:03:42.434288 23439 net.cpp:454] conv2/relu_3x3 <- conv2/3x3
2016-07-05 19:03:42.702 STDERR [INFO] I0705 19:03:42.434295 23439 net.cpp:397] conv2/relu_3x3 -> conv2/3x3 (in-place)
2016-07-05 19:03:42.702 STDERR [INFO] I0705 19:03:42.434301 23439 net.cpp:150] Setting up conv2/relu_3x3
2016-07-05 19:03:42.702 STDERR [INFO] I0705 19:03:42.434305 23439 net.cpp:157] Top shape: 10 192 56 56 (6021120)
2016-07-05 19:03:42.702 STDERR [INFO] I0705 19:03:42.434309 23439 net.cpp:165] Memory required for data: 144506880
2016-07-05 19:03:42.702 STDERR [INFO] I0705 19:03:42.434312 23439 layer_factory.hpp:77] Creating layer conv2/norm2
2016-07-05 19:03:42.702 STDERR [INFO] I0705 19:03:42.434320 23439 net.cpp:106] Creating Layer conv2/norm2
2016-07-05 19:03:42.702 STDERR [INFO] I0705 19:03:42.434324 23439 net.cpp:454] conv2/norm2 <- conv2/3x3
2016-07-05 19:03:42.702 STDERR [INFO] I0705 19:03:42.434327 23439 net.cpp:411] conv2/norm2 -> conv2/norm2
2016-07-05 19:03:42.702 STDERR [INFO] I0705 19:03:42.434334 23439 net.cpp:150] Setting up conv2/norm2
2016-07-05 19:03:42.703 STDERR [INFO] I0705 19:03:42.434339 23439 net.cpp:157] Top shape: 10 192 56 56 (6021120)
2016-07-05 19:03:42.703 STDERR [INFO] I0705 19:03:42.434340 23439 net.cpp:165] Memory required for data: 168591360
2016-07-05 19:03:42.703 STDERR [INFO] I0705 19:03:42.434343 23439 layer_factory.hpp:77] Creating layer pool2/3x3_s2
2016-07-05 19:03:42.703 STDERR [INFO] I0705 19:03:42.434348 23439 net.cpp:106] Creating Layer pool2/3x3_s2
2016-07-05 19:03:42.703 STDERR [INFO] I0705 19:03:42.434351 23439 net.cpp:454] pool2/3x3_s2 <- conv2/norm2
2016-07-05 19:03:42.703 STDERR [INFO] I0705 19:03:42.434358 23439 net.cpp:411] pool2/3x3_s2 -> pool2/3x3_s2
2016-07-05 19:03:42.703 STDERR [INFO] I0705 19:03:42.434365 23439 net.cpp:150] Setting up pool2/3x3_s2
2016-07-05 19:03:42.703 STDERR [INFO] I0705 19:03:42.434370 23439 net.cpp:157] Top shape: 10 192 28 28 (1505280)
2016-07-05 19:03:42.704 STDERR [INFO] I0705 19:03:42.434372 23439 net.cpp:165] Memory required for data: 174612480
2016-07-05 19:03:42.704 STDERR [INFO] I0705 19:03:42.434375 23439 layer_factory.hpp:77] Creating layer pool2/3x3_s2_pool2/3x3_s2_0_split
2016-07-05 19:03:42.704 STDERR [INFO] I0705 19:03:42.434386 23439 net.cpp:106] Creating Layer pool2/3x3_s2_pool2/3x3_s2_0_split
2016-07-05 19:03:42.704 STDERR [INFO] I0705 19:03:42.434389 23439 net.cpp:454] pool2/3x3_s2_pool2/3x3_s2_0_split <- pool2/3x3_s2
2016-07-05 19:03:42.704 STDERR [INFO] I0705 19:03:42.434393 23439 net.cpp:411] pool2/3x3_s2_pool2/3x3_s2_0_split -> pool2/3x3_s2_pool2/3x3_s2_0_split_0
2016-07-05 19:03:42.704 STDERR [INFO] I0705 19:03:42.434399 23439 net.cpp:411] pool2/3x3_s2_pool2/3x3_s2_0_split -> pool2/3x3_s2_pool2/3x3_s2_0_split_1
2016-07-05 19:03:42.704 STDERR [INFO] I0705 19:03:42.434406 23439 net.cpp:411] pool2/3x3_s2_pool2/3x3_s2_0_split -> pool2/3x3_s2_pool2/3x3_s2_0_split_2
2016-07-05 19:03:42.704 STDERR [INFO] I0705 19:03:42.434411 23439 net.cpp:411] pool2/3x3_s2_pool2/3x3_s2_0_split -> pool2/3x3_s2_pool2/3x3_s2_0_split_3
2016-07-05 19:03:42.704 STDERR [INFO] I0705 19:03:42.434419 23439 net.cpp:150] Setting up pool2/3x3_s2_pool2/3x3_s2_0_split
2016-07-05 19:03:42.705 STDERR [INFO] I0705 19:03:42.434424 23439 net.cpp:157] Top shape: 10 192 28 28 (1505280)
2016-07-05 19:03:42.705 STDERR [INFO] I0705 19:03:42.434428 23439 net.cpp:157] Top shape: 10 192 28 28 (1505280)
2016-07-05 19:03:42.705 STDERR [INFO] I0705 19:03:42.434432 23439 net.cpp:157] Top shape: 10 192 28 28 (1505280)
2016-07-05 19:03:42.705 STDERR [INFO] I0705 19:03:42.434437 23439 net.cpp:157] Top shape: 10 192 28 28 (1505280)
2016-07-05 19:03:42.705 STDERR [INFO] I0705 19:03:42.434438 23439 net.cpp:165] Memory required for data: 198696960
2016-07-05 19:03:42.705 STDERR [INFO] I0705 19:03:42.434442 23439 layer_factory.hpp:77] Creating layer inception_3a/1x1
2016-07-05 19:03:42.705 STDERR [INFO] I0705 19:03:42.434450 23439 net.cpp:106] Creating Layer inception_3a/1x1
2016-07-05 19:03:42.705 STDERR [INFO] I0705 19:03:42.434454 23439 net.cpp:454] inception_3a/1x1 <- pool2/3x3_s2_pool2/3x3_s2_0_split_0
2016-07-05 19:03:42.705 STDERR [INFO] I0705 19:03:42.434465 23439 net.cpp:411] inception_3a/1x1 -> inception_3a/1x1
2016-07-05 19:03:42.706 STDERR [INFO] I0705 19:03:42.434587 23439 net.cpp:150] Setting up inception_3a/1x1
2016-07-05 19:03:42.706 STDERR [INFO] I0705 19:03:42.434593 23439 net.cpp:157] Top shape: 10 64 28 28 (501760)
2016-07-05 19:03:42.706 STDERR [INFO] I0705 19:03:42.434597 23439 net.cpp:165] Memory required for data: 200704000
2016-07-05 19:03:42.706 STDERR [INFO] I0705 19:03:42.434602 23439 layer_factory.hpp:77] Creating layer inception_3a/relu_1x1
2016-07-05 19:03:42.706 STDERR [INFO] I0705 19:03:42.434607 23439 net.cpp:106] Creating Layer inception_3a/relu_1x1
2016-07-05 19:03:42.706 STDERR [INFO] I0705 19:03:42.434610 23439 net.cpp:454] inception_3a/relu_1x1 <- inception_3a/1x1
2016-07-05 19:03:42.706 STDERR [INFO] I0705 19:03:42.434615 23439 net.cpp:397] inception_3a/relu_1x1 -> inception_3a/1x1 (in-place)
2016-07-05 19:03:42.706 STDERR [INFO] I0705 19:03:42.434620 23439 net.cpp:150] Setting up inception_3a/relu_1x1
2016-07-05 19:03:42.706 STDERR [INFO] I0705 19:03:42.434624 23439 net.cpp:157] Top shape: 10 64 28 28 (501760)
2016-07-05 19:03:42.707 STDERR [INFO] I0705 19:03:42.434628 23439 net.cpp:165] Memory required for data: 202711040
2016-07-05 19:03:42.707 STDERR [INFO] I0705 19:03:42.434630 23439 layer_factory.hpp:77] Creating layer inception_3a/3x3_reduce
2016-07-05 19:03:42.707 STDERR [INFO] I0705 19:03:42.434641 23439 net.cpp:106] Creating Layer inception_3a/3x3_reduce
2016-07-05 19:03:42.707 STDERR [INFO] I0705 19:03:42.434645 23439 net.cpp:454] inception_3a/3x3_reduce <- pool2/3x3_s2_pool2/3x3_s2_0_split_1
2016-07-05 19:03:42.707 STDERR [INFO] I0705 19:03:42.434650 23439 net.cpp:411] inception_3a/3x3_reduce -> inception_3a/3x3_reduce
2016-07-05 19:03:42.707 STDERR [INFO] I0705 19:03:42.434823 23439 net.cpp:150] Setting up inception_3a/3x3_reduce
2016-07-05 19:03:42.707 STDERR [INFO] I0705 19:03:42.434828 23439 net.cpp:157] Top shape: 10 96 28 28 (752640)
2016-07-05 19:03:42.707 STDERR [INFO] I0705 19:03:42.434831 23439 net.cpp:165] Memory required for data: 205721600
2016-07-05 19:03:42.707 STDERR [INFO] I0705 19:03:42.434840 23439 layer_factory.hpp:77] Creating layer inception_3a/relu_3x3_reduce
2016-07-05 19:03:42.708 STDERR [INFO] I0705 19:03:42.434846 23439 net.cpp:106] Creating Layer inception_3a/relu_3x3_reduce
2016-07-05 19:03:42.708 STDERR [INFO] I0705 19:03:42.434849 23439 net.cpp:454] inception_3a/relu_3x3_reduce <- inception_3a/3x3_reduce
2016-07-05 19:03:42.708 STDERR [INFO] I0705 19:03:42.434854 23439 net.cpp:397] inception_3a/relu_3x3_reduce -> inception_3a/3x3_reduce (in-place)
2016-07-05 19:03:42.708 STDERR [INFO] I0705 19:03:42.434859 23439 net.cpp:150] Setting up inception_3a/relu_3x3_reduce
2016-07-05 19:03:42.708 STDERR [INFO] I0705 19:03:42.434864 23439 net.cpp:157] Top shape: 10 96 28 28 (752640)
2016-07-05 19:03:42.708 STDERR [INFO] I0705 19:03:42.434866 23439 net.cpp:165] Memory required for data: 208732160
2016-07-05 19:03:42.708 STDERR [INFO] I0705 19:03:42.434870 23439 layer_factory.hpp:77] Creating layer inception_3a/3x3
2016-07-05 19:03:42.708 STDERR [INFO] I0705 19:03:42.434878 23439 net.cpp:106] Creating Layer inception_3a/3x3
2016-07-05 19:03:42.709 STDERR [INFO] I0705 19:03:42.434882 23439 net.cpp:454] inception_3a/3x3 <- inception_3a/3x3_reduce
2016-07-05 19:03:42.709 STDERR [INFO] I0705 19:03:42.434890 23439 net.cpp:411] inception_3a/3x3 -> inception_3a/3x3
2016-07-05 19:03:42.709 STDERR [INFO] I0705 19:03:42.435838 23439 net.cpp:150] Setting up inception_3a/3x3
2016-07-05 19:03:42.709 STDERR [INFO] I0705 19:03:42.435847 23439 net.cpp:157] Top shape: 10 128 28 28 (1003520)
2016-07-05 19:03:42.709 STDERR [INFO] I0705 19:03:42.435849 23439 net.cpp:165] Memory required for data: 212746240
2016-07-05 19:03:42.709 STDERR [INFO] I0705 19:03:42.435854 23439 layer_factory.hpp:77] Creating layer inception_3a/relu_3x3
2016-07-05 19:03:42.709 STDERR [INFO] I0705 19:03:42.435863 23439 net.cpp:106] Creating Layer inception_3a/relu_3x3
2016-07-05 19:03:42.709 STDERR [INFO] I0705 19:03:42.435866 23439 net.cpp:454] inception_3a/relu_3x3 <- inception_3a/3x3
2016-07-05 19:03:42.709 STDERR [INFO] I0705 19:03:42.435871 23439 net.cpp:397] inception_3a/relu_3x3 -> inception_3a/3x3 (in-place)
2016-07-05 19:03:42.710 STDERR [INFO] I0705 19:03:42.435878 23439 net.cpp:150] Setting up inception_3a/relu_3x3
2016-07-05 19:03:42.710 STDERR [INFO] I0705 19:03:42.435881 23439 net.cpp:157] Top shape: 10 128 28 28 (1003520)
2016-07-05 19:03:42.710 STDERR [INFO] I0705 19:03:42.435884 23439 net.cpp:165] Memory required for data: 216760320
2016-07-05 19:03:42.710 STDERR [INFO] I0705 19:03:42.435888 23439 layer_factory.hpp:77] Creating layer inception_3a/5x5_reduce
2016-07-05 19:03:42.710 STDERR [INFO] I0705 19:03:42.435896 23439 net.cpp:106] Creating Layer inception_3a/5x5_reduce
2016-07-05 19:03:42.710 STDERR [INFO] I0705 19:03:42.435900 23439 net.cpp:454] inception_3a/5x5_reduce <- pool2/3x3_s2_pool2/3x3_s2_0_split_2
2016-07-05 19:03:42.710 STDERR [INFO] I0705 19:03:42.435907 23439 net.cpp:411] inception_3a/5x5_reduce -> inception_3a/5x5_reduce
2016-07-05 19:03:42.710 STDERR [INFO] I0705 19:03:42.435955 23439 net.cpp:150] Setting up inception_3a/5x5_reduce
2016-07-05 19:03:42.710 STDERR [INFO] I0705 19:03:42.435961 23439 net.cpp:157] Top shape: 10 16 28 28 (125440)
2016-07-05 19:03:42.711 STDERR [INFO] I0705 19:03:42.435963 23439 net.cpp:165] Memory required for data: 217262080
2016-07-05 19:03:42.711 STDERR [INFO] I0705 19:03:42.435968 23439 layer_factory.hpp:77] Creating layer inception_3a/relu_5x5_reduce
2016-07-05 19:03:42.711 STDERR [INFO] I0705 19:03:42.435976 23439 net.cpp:106] Creating Layer inception_3a/relu_5x5_reduce
2016-07-05 19:03:42.711 STDERR [INFO] I0705 19:03:42.435979 23439 net.cpp:454] inception_3a/relu_5x5_reduce <- inception_3a/5x5_reduce
2016-07-05 19:03:42.711 STDERR [INFO] I0705 19:03:42.435984 23439 net.cpp:397] inception_3a/relu_5x5_reduce -> inception_3a/5x5_reduce (in-place)
2016-07-05 19:03:42.711 STDERR [INFO] I0705 19:03:42.435989 23439 net.cpp:150] Setting up inception_3a/relu_5x5_reduce
2016-07-05 19:03:42.711 STDERR [INFO] I0705 19:03:42.435993 23439 net.cpp:157] Top shape: 10 16 28 28 (125440)
2016-07-05 19:03:42.711 STDERR [INFO] I0705 19:03:42.435997 23439 net.cpp:165] Memory required for data: 217763840
2016-07-05 19:03:42.711 STDERR [INFO] I0705 19:03:42.435999 23439 layer_factory.hpp:77] Creating layer inception_3a/5x5
2016-07-05 19:03:42.712 STDERR [INFO] I0705 19:03:42.436007 23439 net.cpp:106] Creating Layer inception_3a/5x5
2016-07-05 19:03:42.712 STDERR [INFO] I0705 19:03:42.436010 23439 net.cpp:454] inception_3a/5x5 <- inception_3a/5x5_reduce
2016-07-05 19:03:42.712 STDERR [INFO] I0705 19:03:42.436018 23439 net.cpp:411] inception_3a/5x5 -> inception_3a/5x5
2016-07-05 19:03:42.712 STDERR [INFO] I0705 19:03:42.436141 23439 net.cpp:150] Setting up inception_3a/5x5
2016-07-05 19:03:42.712 STDERR [INFO] I0705 19:03:42.436147 23439 net.cpp:157] Top shape: 10 32 28 28 (250880)
2016-07-05 19:03:42.712 STDERR [INFO] I0705 19:03:42.436149 23439 net.cpp:165] Memory required for data: 218767360
2016-07-05 19:03:42.712 STDERR [INFO] I0705 19:03:42.436156 23439 layer_factory.hpp:77] Creating layer inception_3a/relu_5x5
2016-07-05 19:03:42.712 STDERR [INFO] I0705 19:03:42.436161 23439 net.cpp:106] Creating Layer inception_3a/relu_5x5
2016-07-05 19:03:42.712 STDERR [INFO] I0705 19:03:42.436164 23439 net.cpp:454] inception_3a/relu_5x5 <- inception_3a/5x5
2016-07-05 19:03:42.713 STDERR [INFO] I0705 19:03:42.436169 23439 net.cpp:397] inception_3a/relu_5x5 -> inception_3a/5x5 (in-place)
2016-07-05 19:03:42.713 STDERR [INFO] I0705 19:03:42.436174 23439 net.cpp:150] Setting up inception_3a/relu_5x5
2016-07-05 19:03:42.713 STDERR [INFO] I0705 19:03:42.436178 23439 net.cpp:157] Top shape: 10 32 28 28 (250880)
2016-07-05 19:03:42.713 STDERR [INFO] I0705 19:03:42.436182 23439 net.cpp:165] Memory required for data: 219770880
2016-07-05 19:03:42.713 STDERR [INFO] I0705 19:03:42.436183 23439 layer_factory.hpp:77] Creating layer inception_3a/pool
2016-07-05 19:03:42.713 STDERR [INFO] I0705 19:03:42.436189 23439 net.cpp:106] Creating Layer inception_3a/pool
2016-07-05 19:03:42.713 STDERR [INFO] I0705 19:03:42.436192 23439 net.cpp:454] inception_3a/pool <- pool2/3x3_s2_pool2/3x3_s2_0_split_3
2016-07-05 19:03:42.713 STDERR [INFO] I0705 19:03:42.436197 23439 net.cpp:411] inception_3a/pool -> inception_3a/pool
2016-07-05 19:03:42.714 STDERR [INFO] I0705 19:03:42.436208 23439 net.cpp:150] Setting up inception_3a/pool
2016-07-05 19:03:42.714 STDERR [INFO] I0705 19:03:42.436213 23439 net.cpp:157] Top shape: 10 192 28 28 (1505280)
2016-07-05 19:03:42.714 STDERR [INFO] I0705 19:03:42.436215 23439 net.cpp:165] Memory required for data: 225792000
2016-07-05 19:03:42.714 STDERR [INFO] I0705 19:03:42.436218 23439 layer_factory.hpp:77] Creating layer inception_3a/pool_proj
2016-07-05 19:03:42.714 STDERR [INFO] I0705 19:03:42.436226 23439 net.cpp:106] Creating Layer inception_3a/pool_proj
2016-07-05 19:03:42.714 STDERR [INFO] I0705 19:03:42.436229 23439 net.cpp:454] inception_3a/pool_proj <- inception_3a/pool
2016-07-05 19:03:42.714 STDERR [INFO] I0705 19:03:42.436235 23439 net.cpp:411] inception_3a/pool_proj -> inception_3a/pool_proj
2016-07-05 19:03:42.714 STDERR [INFO] I0705 19:03:42.436305 23439 net.cpp:150] Setting up inception_3a/pool_proj
2016-07-05 19:03:42.714 STDERR [INFO] I0705 19:03:42.436311 23439 net.cpp:157] Top shape: 10 32 28 28 (250880)
2016-07-05 19:03:42.715 STDERR [INFO] I0705 19:03:42.436313 23439 net.cpp:165] Memory required for data: 226795520
2016-07-05 19:03:42.715 STDERR [INFO] I0705 19:03:42.436321 23439 layer_factory.hpp:77] Creating layer inception_3a/relu_pool_proj
2016-07-05 19:03:42.715 STDERR [INFO] I0705 19:03:42.436326 23439 net.cpp:106] Creating Layer inception_3a/relu_pool_proj
2016-07-05 19:03:42.715 STDERR [INFO] I0705 19:03:42.436329 23439 net.cpp:454] inception_3a/relu_pool_proj <- inception_3a/pool_proj
2016-07-05 19:03:42.715 STDERR [INFO] I0705 19:03:42.436336 23439 net.cpp:397] inception_3a/relu_pool_proj -> inception_3a/pool_proj (in-place)
2016-07-05 19:03:42.715 STDERR [INFO] I0705 19:03:42.436342 23439 net.cpp:150] Setting up inception_3a/relu_pool_proj
2016-07-05 19:03:42.715 STDERR [INFO] I0705 19:03:42.436347 23439 net.cpp:157] Top shape: 10 32 28 28 (250880)
2016-07-05 19:03:42.715 STDERR [INFO] I0705 19:03:42.436349 23439 net.cpp:165] Memory required for data: 227799040
2016-07-05 19:03:42.715 STDERR [INFO] I0705 19:03:42.436352 23439 layer_factory.hpp:77] Creating layer inception_3a/output
2016-07-05 19:03:42.716 STDERR [INFO] I0705 19:03:42.436357 23439 net.cpp:106] Creating Layer inception_3a/output
2016-07-05 19:03:42.716 STDERR [INFO] I0705 19:03:42.436360 23439 net.cpp:454] inception_3a/output <- inception_3a/1x1
2016-07-05 19:03:42.716 STDERR [INFO] I0705 19:03:42.436364 23439 net.cpp:454] inception_3a/output <- inception_3a/3x3
2016-07-05 19:03:42.716 STDERR [INFO] I0705 19:03:42.436368 23439 net.cpp:454] inception_3a/output <- inception_3a/5x5
2016-07-05 19:03:42.716 STDERR [INFO] I0705 19:03:42.436372 23439 net.cpp:454] inception_3a/output <- inception_3a/pool_proj
2016-07-05 19:03:42.716 STDERR [INFO] I0705 19:03:42.436377 23439 net.cpp:411] inception_3a/output -> inception_3a/output
2016-07-05 19:03:42.716 STDERR [INFO] I0705 19:03:42.436383 23439 net.cpp:150] Setting up inception_3a/output
2016-07-05 19:03:42.716 STDERR [INFO] I0705 19:03:42.436389 23439 net.cpp:157] Top shape: 10 256 28 28 (2007040)
2016-07-05 19:03:42.716 STDERR [INFO] I0705 19:03:42.436393 23439 net.cpp:165] Memory required for data: 235827200
2016-07-05 19:03:42.717 STDERR [INFO] I0705 19:03:42.436395 23439 layer_factory.hpp:77] Creating layer inception_3a/output_inception_3a/output_0_split
2016-07-05 19:03:42.717 STDERR [INFO] I0705 19:03:42.436400 23439 net.cpp:106] Creating Layer inception_3a/output_inception_3a/output_0_split
…
2016-07-05 19:03:42.717 STDERR [INFO] I0705 19:03:42.436414 23439 net.cpp:411] inception_3a/output_inception_3a/output_0_split -> inception_3a/output_inception_3a/output_0_split_1
2016-07-05 19:03:42.717 STDERR [INFO] I0705 19:03:42.436420 23439 net.cpp:411] inception_3a/output_inception_3a/output_0_split -> inception_3a/output_inception_3a/output_0_split_2
2016-07-05 19:03:42.717 STDERR [INFO] I0705 19:03:42.436426 23439 net.cpp:411] inception_3a/output_inception_3a/output_0_split -> inception_3a/output_inception_3a/output_0_split_3
2016-07-05 19:03:42.717 STDERR [INFO] I0705 19:03:42.436434 23439 net.cpp:150] Setting up inception_3a/output_inception_3a/output_0_split
2016-07-05 19:03:42.717 STDERR [INFO] I0705 19:03:42.436439 23439 net.cpp:157] Top shape: 10 256 28 28 (2007040)
2016-07-05 19:03:42.718 STDERR [INFO] I0705 19:03:42.436442 23439 net.cpp:157] Top shape: 10 256 28 28 (2007040)
2016-07-05 19:03:42.718 STDERR [INFO] I0705 19:03:42.436446 23439 net.cpp:157] Top shape: 10 256 28 28 (2007040)
2016-07-05 19:03:42.718 STDERR [INFO] I0705 19:03:42.436450 23439 net.cpp:157] Top shape: 10 256 28 28 (2007040)
2016-07-05 19:03:42.718 STDERR [INFO] I0705 19:03:42.436452 23439 net.cpp:165] Memory required for data: 267939840
2016-07-05 19:03:42.718 STDERR [INFO] I0705 19:03:42.436455 23439 layer_factory.hpp:77] Creating layer inception_3b/1x1
2016-07-05 19:03:42.718 STDERR [INFO] I0705 19:03:42.436463 23439 net.cpp:106] Creating Layer inception_3b/1x1
2016-07-05 19:03:42.718 STDERR [INFO] I0705 19:03:42.436467 23439 net.cpp:454] inception_3b/1x1 <- inception_3a/output_inception_3a/output_0_split_0
2016-07-05 19:03:42.718 STDERR [INFO] I0705 19:03:42.436475 23439 net.cpp:411] inception_3b/1x1 -> inception_3b/1x1
2016-07-05 19:03:42.718 STDERR [INFO] I0705 19:03:42.436767 23439 net.cpp:150] Setting up inception_3b/1x1
2016-07-05 19:03:42.719 STDERR [INFO] I0705 19:03:42.436774 23439 net.cpp:157] Top shape: 10 128 28 28 (1003520)
2016-07-05 19:03:42.719 STDERR [INFO] I0705 19:03:42.436776 23439 net.cpp:165] Memory required for data: 271953920
2016-07-05 19:03:42.719 STDERR [INFO] I0705 19:03:42.436782 23439 layer_factory.hpp:77] Creating layer inception_3b/relu_1x1
2016-07-05 19:03:42.719 STDERR [INFO] I0705 19:03:42.436787 23439 net.cpp:106] Creating Layer inception_3b/relu_1x1
2016-07-05 19:03:42.719 STDERR [INFO] I0705 19:03:42.436791 23439 net.cpp:454] inception_3b/relu_1x1 <- inception_3b/1x1
2016-07-05 19:03:42.719 STDERR [INFO] I0705 19:03:42.436797 23439 net.cpp:397] inception_3b/relu_1x1 -> inception_3b/1x1 (in-place)
2016-07-05 19:03:42.719 STDERR [INFO] I0705 19:03:42.436803 23439 net.cpp:150] Setting up inception_3b/relu_1x1
2016-07-05 19:03:42.719 STDERR [INFO] I0705 19:03:42.436807 23439 net.cpp:157] Top shape: 10 128 28 28 (1003520)
2016-07-05 19:03:42.720 STDERR [INFO] I0705 19:03:42.436810 23439 net.cpp:165] Memory required for data: 275968000
2016-07-05 19:03:42.720 STDERR [INFO] I0705 19:03:42.436813 23439 layer_factory.hpp:77] Creating layer inception_3b/3x3_reduce
2016-07-05 19:03:42.720 STDERR [INFO] I0705 19:03:42.436821 23439 net.cpp:106] Creating Layer inception_3b/3x3_reduce
2016-07-05 19:03:42.720 STDERR [INFO] I0705 19:03:42.436825 23439 net.cpp:454] inception_3b/3x3_reduce <- inception_3a/output_inception_3a/output_0_split_1
2016-07-05 19:03:42.720 STDERR [INFO] I0705 19:03:42.436830 23439 net.cpp:411] inception_3b/3x3_reduce -> inception_3b/3x3_reduce
2016-07-05 19:03:42.720 STDERR [INFO] I0705 19:03:42.437121 23439 net.cpp:150] Setting up inception_3b/3x3_reduce
2016-07-05 19:03:42.720 STDERR [INFO] I0705 19:03:42.437130 23439 net.cpp:157] Top shape: 10 128 28 28 (1003520)
2016-07-05 19:03:42.720 STDERR [INFO] I0705 19:03:42.437134 23439 net.cpp:165] Memory required for data: 279982080
2016-07-05 19:03:42.720 STDERR [INFO] I0705 19:03:42.437139 23439 layer_factory.hpp:77] Creating layer inception_3b/relu_3x3_reduce
2016-07-05 19:03:42.721 STDERR [INFO] I0705 19:03:42.437144 23439 net.cpp:106] Creating Layer inception_3b/relu_3x3_reduce
2016-07-05 19:03:42.721 STDERR [INFO] I0705 19:03:42.437147 23439 net.cpp:454] inception_3b/relu_3x3_reduce <- inception_3b/3x3_reduce
2016-07-05 19:03:42.721 STDERR [INFO] I0705 19:03:42.437152 23439 net.cpp:397] inception_3b/relu_3x3_reduce -> inception_3b/3x3_reduce (in-place)
2016-07-05 19:03:42.721 STDERR [INFO] I0705 19:03:42.437157 23439 net.cpp:150] Setting up inception_3b/relu_3x3_reduce
2016-07-05 19:03:42.721 STDERR [INFO] I0705 19:03:42.437161 23439 net.cpp:157] Top shape: 10 128 28 28 (1003520)
2016-07-05 19:03:42.721 STDERR [INFO] I0705 19:03:42.437165 23439 net.cpp:165] Memory required for data: 283996160
2016-07-05 19:03:42.721 STDERR [INFO] I0705 19:03:42.437167 23439 layer_factory.hpp:77] Creating layer inception_3b/3x3
2016-07-05 19:03:42.721 STDERR [INFO] I0705 19:03:42.437176 23439 net.cpp:106] Creating Layer inception_3b/3x3
2016-07-05 19:03:42.721 STDERR [INFO] I0705 19:03:42.437180 23439 net.cpp:454] inception_3b/3x3 <- inception_3b/3x3_reduce
2016-07-05 19:03:42.722 STDERR [INFO] I0705 19:03:42.437187 23439 net.cpp:411] inception_3b/3x3 -> inception_3b/3x3
2016-07-05 19:03:42.722 STDERR [INFO] I0705 19:03:42.439049 23439 net.cpp:150] Setting up inception_3b/3x3
2016-07-05 19:03:42.722 STDERR [INFO] I0705 19:03:42.439057 23439 net.cpp:157] Top shape: 10 192 28 28 (1505280)
2016-07-05 19:03:42.722 STDERR [INFO] I0705 19:03:42.439059 23439 net.cpp:165] Memory required for data: 290017280
2016-07-05 19:03:42.722 STDERR [INFO] I0705 19:03:42.439065 23439 layer_factory.hpp:77] Creating layer inception_3b/relu_3x3
2016-07-05 19:03:42.722 STDERR [INFO] I0705 19:03:42.439072 23439 net.cpp:106] Creating Layer inception_3b/relu_3x3
2016-07-05 19:03:42.722 STDERR [INFO] I0705 19:03:42.439075 23439 net.cpp:454] inception_3b/relu_3x3 <- inception_3b/3x3
2016-07-05 19:03:42.722 STDERR [INFO] I0705 19:03:42.439080 23439 net.cpp:397] inception_3b/relu_3x3 -> inception_3b/3x3 (in-place)
2016-07-05 19:03:42.722 STDERR [INFO] I0705 19:03:42.439086 23439 net.cpp:150] Setting up inception_3b/relu_3x3
2016-07-05 19:03:42.723 STDERR [INFO] I0705 19:03:42.439090 23439 net.cpp:157] Top shape: 10 192 28 28 (1505280)
2016-07-05 19:03:42.723 STDERR [INFO] I0705 19:03:42.439092 23439 net.cpp:165] Memory required for data: 296038400
2016-07-05 19:03:42.723 STDERR [INFO] I0705 19:03:42.439095 23439 layer_factory.hpp:77] Creating layer inception_3b/5x5_reduce
2016-07-05 19:03:42.723 STDERR [INFO] I0705 19:03:42.439107 23439 net.cpp:106] Creating Layer inception_3b/5x5_reduce
2016-07-05 19:03:42.723 STDERR [INFO] I0705 19:03:42.439111 23439 net.cpp:454] inception_3b/5x5_reduce <- inception_3a/output_inception_3a/output_0_split_2
2016-07-05 19:03:42.723 STDERR [INFO] I0705 19:03:42.439119 23439 net.cpp:411] inception_3b/5x5_reduce -> inception_3b/5x5_reduce
2016-07-05 19:03:42.723 STDERR [INFO] I0705 19:03:42.439208 23439 net.cpp:150] Setting up inception_3b/5x5_reduce
2016-07-05 19:03:42.723 STDERR [INFO] I0705 19:03:42.439213 23439 net.cpp:157] Top shape: 10 32 28 28 (250880)
2016-07-05 19:03:42.723 STDERR [INFO] I0705 19:03:42.439216 23439 net.cpp:165] Memory required for data: 297041920
2016-07-05 19:03:42.724 STDERR [INFO] I0705 19:03:42.439221 23439 layer_factory.hpp:77] Creating layer inception_3b/relu_5x5_reduce
2016-07-05 19:03:42.724 STDERR [INFO] I0705 19:03:42.439226 23439 net.cpp:106] Creating Layer inception_3b/relu_5x5_reduce
2016-07-05 19:03:42.724 STDERR [INFO] I0705 19:03:42.439229 23439 net.cpp:454] inception_3b/relu_5x5_reduce <- inception_3b/5x5_reduce
2016-07-05 19:03:42.724 STDERR [INFO] I0705 19:03:42.439236 23439 net.cpp:397] inception_3b/relu_5x5_reduce -> inception_3b/5x5_reduce (in-place)
2016-07-05 19:03:42.724 STDERR [INFO] I0705 19:03:42.439241 23439 net.cpp:150] Setting up inception_3b/relu_5x5_reduce
2016-07-05 19:03:42.724 STDERR [INFO] I0705 19:03:42.439245 23439 net.cpp:157] Top shape: 10 32 28 28 (250880)
2016-07-05 19:03:42.724 STDERR [INFO] I0705 19:03:42.439249 23439 net.cpp:165] Memory required for data: 298045440
2016-07-05 19:03:42.724 STDERR [INFO] I0705 19:03:42.439251 23439 layer_factory.hpp:77] Creating layer inception_3b/5x5
2016-07-05 19:03:42.725 STDERR [INFO] I0705 19:03:42.439259 23439 net.cpp:106] Creating Layer inception_3b/5x5
2016-07-05 19:03:42.725 STDERR [INFO] I0705 19:03:42.439261 23439 net.cpp:454] inception_3b/5x5 <- inception_3b/5x5_reduce
2016-07-05 19:03:42.725 STDERR [INFO] I0705 19:03:42.439270 23439 net.cpp:411] inception_3b/5x5 -> inception_3b/5x5
2016-07-05 19:03:42.725 STDERR [INFO] I0705 19:03:42.439934 23439 net.cpp:150] Setting up inception_3b/5x5
2016-07-05 19:03:42.725 STDERR [INFO] I0705 19:03:42.439942 23439 net.cpp:157] Top shape: 10 96 28 28 (752640)
2016-07-05 19:03:42.725 STDERR [INFO] I0705 19:03:42.439945 23439 net.cpp:165] Memory required for data: 301056000
2016-07-05 19:03:42.725 STDERR [INFO] I0705 19:03:42.439950 23439 layer_factory.hpp:77] Creating layer inception_3b/relu_5x5
2016-07-05 19:03:42.725 STDERR [INFO] I0705 19:03:42.439957 23439 net.cpp:106] Creating Layer inception_3b/relu_5x5
2016-07-05 19:03:42.725 STDERR [INFO] I0705 19:03:42.439961 23439 net.cpp:454] inception_3b/relu_5x5 <- inception_3b/5x5
2016-07-05 19:03:42.726 STDERR [INFO] I0705 19:03:42.439966 23439 net.cpp:397] inception_3b/relu_5x5 -> inception_3b/5x5 (in-place)
2016-07-05 19:03:42.726 STDERR [INFO] I0705 19:03:42.439971 23439 net.cpp:150] Setting up inception_3b/relu_5x5
2016-07-05 19:03:42.726 STDERR [INFO] I0705 19:03:42.439975 23439 net.cpp:157] Top shape: 10 96 28 28 (752640)
2016-07-05 19:03:42.726 STDERR [INFO] I0705 19:03:42.439978 23439 net.cpp:165] Memory required for data: 304066560
2016-07-05 19:03:42.726 STDERR [INFO] I0705 19:03:42.439981 23439 layer_factory.hpp:77] Creating layer inception_3b/pool
2016-07-05 19:03:42.726 STDERR [INFO] I0705 19:03:42.439986 23439 net.cpp:106] Creating Layer inception_3b/pool
2016-07-05 19:03:42.727 STDERR [INFO] I0705 19:03:42.439991 23439 net.cpp:454] inception_3b/pool <- inception_3a/output_inception_3a/output_0_split_3
2016-07-05 19:03:42.727 STDERR [INFO] I0705 19:03:42.439996 23439 net.cpp:411] inception_3b/pool -> inception_3b/pool
2016-07-05 19:03:42.727 STDERR [INFO] I0705 19:03:42.440004 23439 net.cpp:150] Setting up inception_3b/pool
2016-07-05 19:03:42.727 STDERR [INFO] I0705 19:03:42.440008 23439 net.cpp:157] Top shape: 10 256 28 28 (2007040)
2016-07-05 19:03:42.727 STDERR [INFO] I0705 19:03:42.440011 23439 net.cpp:165] Memory required for data: 312094720
2016-07-05 19:03:42.727 STDERR [INFO] I0705 19:03:42.440014 23439 layer_factory.hpp:77] Creating layer inception_3b/pool_proj
2016-07-05 19:03:42.727 STDERR [INFO] I0705 19:03:42.440022 23439 net.cpp:106] Creating Layer inception_3b/pool_proj
2016-07-05 19:03:42.728 STDERR [INFO] I0705 19:03:42.440026 23439 net.cpp:454] inception_3b/pool_proj <- inception_3b/pool
2016-07-05 19:03:42.728 STDERR [INFO] I0705 19:03:42.440033 23439 net.cpp:411] inception_3b/pool_proj -> inception_3b/pool_proj
2016-07-05 19:03:42.728 STDERR [INFO] I0705 19:03:42.440192 23439 net.cpp:150] Setting up inception_3b/pool_proj
2016-07-05 19:03:42.728 STDERR [INFO] I0705 19:03:42.440198 23439 net.cpp:157] Top shape: 10 64 28 28 (501760)
2016-07-05 19:03:42.728 STDERR [INFO] I0705 19:03:42.440201 23439 net.cpp:165] Memory required for data: 314101760
2016-07-05 19:03:42.728 STDERR [INFO] I0705 19:03:42.440207 23439 layer_factory.hpp:77] Creating layer inception_3b/relu_pool_proj
2016-07-05 19:03:42.728 STDERR [INFO] I0705 19:03:42.440210 23439 net.cpp:106] Creating Layer inception_3b/relu_pool_proj
2016-07-05 19:03:42.728 STDERR [INFO] I0705 19:03:42.440214 23439 net.cpp:454] inception_3b/relu_pool_proj <- inception_3b/pool_proj
2016-07-05 19:03:42.728 STDERR [INFO] I0705 19:03:42.440220 23439 net.cpp:397] inception_3b/relu_pool_proj -> inception_3b/pool_proj (in-place)
2016-07-05 19:03:42.729 STDERR [INFO] I0705 19:03:42.440227 23439 net.cpp:150] Setting up inception_3b/relu_pool_proj
2016-07-05 19:03:42.729 STDERR [INFO] I0705 19:03:42.440230 23439 net.cpp:157] Top shape: 10 64 28 28 (501760)
2016-07-05 19:03:42.729 STDERR [INFO] I0705 19:03:42.440233 23439 net.cpp:165] Memory required for data: 316108800
2016-07-05 19:03:42.729 STDERR [INFO] I0705 19:03:42.440235 23439 layer_factory.hpp:77] Creating layer inception_3b/output
2016-07-05 19:03:42.729 STDERR [INFO] I0705 19:03:42.440240 23439 net.cpp:106] Creating Layer inception_3b/output
2016-07-05 19:03:42.729 STDERR [INFO] I0705 19:03:42.440243 23439 net.cpp:454] inception_3b/output <- inception_3b/1x1
2016-07-05 19:03:42.729 STDERR [INFO] I0705 19:03:42.440248 23439 net.cpp:454] inception_3b/output <- inception_3b/3x3
2016-07-05 19:03:42.729 STDERR [INFO] I0705 19:03:42.440250 23439 net.cpp:454] inception_3b/output <- inception_3b/5x5
2016-07-05 19:03:42.729 STDERR [INFO] I0705 19:03:42.440254 23439 net.cpp:454] inception_3b/output <- inception_3b/pool_proj
2016-07-05 19:03:42.730 STDERR [INFO] I0705 19:03:42.440259 23439 net.cpp:411] inception_3b/output -> inception_3b/output
2016-07-05 19:03:42.730 STDERR [INFO] I0705 19:03:42.440265 23439 net.cpp:150] Setting up inception_3b/output
2016-07-05 19:03:42.730 STDERR [INFO] I0705 19:03:42.440270 23439 net.cpp:157] Top shape: 10 480 28 28 (3763200)
2016-07-05 19:03:42.730 STDERR [INFO] I0705 19:03:42.440273 23439 net.cpp:165] Memory required for data: 331161600
2016-07-05 19:03:42.730 STDERR [INFO] I0705 19:03:42.440275 23439 layer_factory.hpp:77] Creating layer pool3/3x3_s2
2016-07-05 19:03:42.730 STDERR [INFO] I0705 19:03:42.440284 23439 net.cpp:106] Creating Layer pool3/3x3_s2
2016-07-05 19:03:42.730 STDERR [INFO] I0705 19:03:42.440286 23439 net.cpp:454] pool3/3x3_s2 <- inception_3b/output
2016-07-05 19:03:42.730 STDERR [INFO] I0705 19:03:42.440291 23439 net.cpp:411] pool3/3x3_s2 -> pool3/3x3_s2
2016-07-05 19:03:42.730 STDERR [INFO] I0705 19:03:42.440302 23439 net.cpp:150] Setting up pool3/3x3_s2
2016-07-05 19:03:42.731 STDERR [INFO] I0705 19:03:42.440307 23439 net.cpp:157] Top shape: 10 480 14 14 (940800)
2016-07-05 19:03:42.731 STDERR [INFO] I0705 19:03:42.440310 23439 net.cpp:165] Memory required for data: 334924800
2016-07-05 19:03:42.731 STDERR [INFO] I0705 19:03:42.440312 23439 layer_factory.hpp:77] Creating layer pool3/3x3_s2_pool3/3x3_s2_0_split
2016-07-05 19:03:42.731 STDERR [INFO] I0705 19:03:42.440317 23439 net.cpp:106] Creating Layer pool3/3x3_s2_pool3/3x3_s2_0_split
2016-07-05 19:03:42.731 STDERR [INFO] I0705 19:03:42.440320 23439 net.cpp:454] pool3/3x3_s2_pool3/3x3_s2_0_split <- pool3/3x3_s2
2016-07-05 19:03:42.731 STDERR [INFO] I0705 19:03:42.440325 23439 net.cpp:411] pool3/3x3_s2_pool3/3x3_s2_0_split -> pool3/3x3_s2_pool3/3x3_s2_0_split_0
2016-07-05 19:03:42.731 STDERR [INFO] I0705 19:03:42.440332 23439 net.cpp:411] pool3/3x3_s2_pool3/3x3_s2_0_split -> pool3/3x3_s2_pool3/3x3_s2_0_split_1
2016-07-05 19:03:42.731 STDERR [INFO] I0705 19:03:42.440338 23439 net.cpp:411] pool3/3x3_s2_pool3/3x3_s2_0_split -> pool3/3x3_s2_pool3/3x3_s2_0_split_2
2016-07-05 19:03:42.731 STDERR [INFO] I0705 19:03:42.440343 23439 net.cpp:411] pool3/3x3_s2_pool3/3x3_s2_0_split -> pool3/3x3_s2_pool3/3x3_s2_0_split_3
2016-07-05 19:03:42.732 STDERR [INFO] I0705 19:03:42.440351 23439 net.cpp:150] Setting up pool3/3x3_s2_pool3/3x3_s2_0_split
2016-07-05 19:03:42.732 STDERR [INFO] I0705 19:03:42.440356 23439 net.cpp:157] Top shape: 10 480 14 14 (940800)
2016-07-05 19:03:42.732 STDERR [INFO] I0705 19:03:42.440361 23439 net.cpp:157] Top shape: 10 480 14 14 (940800)
2016-07-05 19:03:42.732 STDERR [INFO] I0705 19:03:42.440364 23439 net.cpp:157] Top shape: 10 480 14 14 (940800)
2016-07-05 19:03:42.732 STDERR [INFO] I0705 19:03:42.440368 23439 net.cpp:157] Top shape: 10 480 14 14 (940800)
2016-07-05 19:03:42.732 STDERR [INFO] I0705 19:03:42.440371 23439 net.cpp:165] Memory required for data: 349977600
2016-07-05 19:03:42.732 STDERR [INFO] I0705 19:03:42.440374 23439 layer_factory.hpp:77] Creating layer inception_4a/1x1
2016-07-05 19:03:42.732 STDERR [INFO] I0705 19:03:42.440381 23439 net.cpp:106] Creating Layer inception_4a/1x1
2016-07-05 19:03:42.732 STDERR [INFO] I0705 19:03:42.440383 23439 net.cpp:454] inception_4a/1x1 <- pool3/3x3_s2_pool3/3x3_s2_0_split_0
2016-07-05 19:03:42.733 STDERR [INFO] I0705 19:03:42.440392 23439 net.cpp:411] inception_4a/1x1 -> inception_4a/1x1
2016-07-05 19:03:42.733 STDERR [INFO] I0705 19:03:42.441172 23439 net.cpp:150] Setting up inception_4a/1x1
2016-07-05 19:03:42.733 STDERR [INFO] I0705 19:03:42.441180 23439 net.cpp:157] Top shape: 10 192 14 14 (376320)
2016-07-05 19:03:42.733 STDERR [INFO] I0705 19:03:42.441184 23439 net.cpp:165] Memory required for data: 351482880
2016-07-05 19:03:42.733 STDERR [INFO] I0705 19:03:42.441190 23439 layer_factory.hpp:77] Creating layer inception_4a/relu_1x1
2016-07-05 19:03:42.733 STDERR [INFO] I0705 19:03:42.441195 23439 net.cpp:106] Creating Layer inception_4a/relu_1x1
2016-07-05 19:03:42.733 STDERR [INFO] I0705 19:03:42.441197 23439 net.cpp:454] inception_4a/relu_1x1 <- inception_4a/1x1
2016-07-05 19:03:42.733 STDERR [INFO] I0705 19:03:42.441202 23439 net.cpp:397] inception_4a/relu_1x1 -> inception_4a/1x1 (in-place)
2016-07-05 19:03:42.733 STDERR [INFO] I0705 19:03:42.441207 23439 net.cpp:150] Setting up inception_4a/relu_1x1
2016-07-05 19:03:42.734 STDERR [INFO] I0705 19:03:42.441212 23439 net.cpp:157] Top shape: 10 192 14 14 (376320)
2016-07-05 19:03:42.734 STDERR [INFO] I0705 19:03:42.441215 23439 net.cpp:165] Memory required for data: 352988160
2016-07-05 19:03:42.734 STDERR [INFO] I0705 19:03:42.441217 23439 layer_factory.hpp:77] Creating layer inception_4a/3x3_reduce
2016-07-05 19:03:42.734 STDERR [INFO] I0705 19:03:42.441226 23439 net.cpp:106] Creating Layer inception_4a/3x3_reduce
2016-07-05 19:03:42.734 STDERR [INFO] I0705 19:03:42.441231 23439 net.cpp:454] inception_4a/3x3_reduce <- pool3/3x3_s2_pool3/3x3_s2_0_split_1
2016-07-05 19:03:42.734 STDERR [INFO] I0705 19:03:42.441238 23439 net.cpp:411] inception_4a/3x3_reduce -> inception_4a/3x3_reduce
2016-07-05 19:03:42.734 STDERR [INFO] I0705 19:03:42.441642 23439 net.cpp:150] Setting up inception_4a/3x3_reduce
2016-07-05 19:03:42.734 STDERR [INFO] I0705 19:03:42.441649 23439 net.cpp:157] Top shape: 10 96 14 14 (188160)
2016-07-05 19:03:42.734 STDERR [INFO] I0705 19:03:42.441651 23439 net.cpp:165] Memory required for data: 353740800
2016-07-05 19:03:42.735 STDERR [INFO] I0705 19:03:42.441663 23439 layer_factory.hpp:77] Creating layer inception_4a/relu_3x3_reduce
2016-07-05 19:03:42.735 STDERR [INFO] I0705 19:03:42.441668 23439 net.cpp:106] Creating Layer inception_4a/relu_3x3_reduce
2016-07-05 19:03:42.735 STDERR [INFO] I0705 19:03:42.441673 23439 net.cpp:454] inception_4a/relu_3x3_reduce <- inception_4a/3x3_reduce
2016-07-05 19:03:42.735 STDERR [INFO] I0705 19:03:42.441678 23439 net.cpp:397] inception_4a/relu_3x3_reduce -> inception_4a/3x3_reduce (in-place)
2016-07-05 19:03:42.735 STDERR [INFO] I0705 19:03:42.441682 23439 net.cpp:150] Setting up inception_4a/relu_3x3_reduce
2016-07-05 19:03:42.735 STDERR [INFO] I0705 19:03:42.441686 23439 net.cpp:157] Top shape: 10 96 14 14 (188160)
2016-07-05 19:03:42.735 STDERR [INFO] I0705 19:03:42.441689 23439 net.cpp:165] Memory required for data: 354493440
2016-07-05 19:03:42.735 STDERR [INFO] I0705 19:03:42.441692 23439 layer_factory.hpp:77] Creating layer inception_4a/3x3
2016-07-05 19:03:42.736 STDERR [INFO] I0705 19:03:42.441701 23439 net.cpp:106] Creating Layer inception_4a/3x3
2016-07-05 19:03:42.736 STDERR [INFO] I0705 19:03:42.441704 23439 net.cpp:454] inception_4a/3x3 <- inception_4a/3x3_reduce
2016-07-05 19:03:42.736 STDERR [INFO] I0705 19:03:42.441712 23439 net.cpp:411] inception_4a/3x3 -> inception_4a/3x3
2016-07-05 19:03:42.736 STDERR [INFO] I0705 19:03:42.443227 23439 net.cpp:150] Setting up inception_4a/3x3
2016-07-05 19:03:42.736 STDERR [INFO] I0705 19:03:42.443233 23439 net.cpp:157] Top shape: 10 208 14 14 (407680)
2016-07-05 19:03:42.736 STDERR [INFO] I0705 19:03:42.443236 23439 net.cpp:165] Memory required for data: 356124160
2016-07-05 19:03:42.736 STDERR [INFO] I0705 19:03:42.443243 23439 layer_factory.hpp:77] Creating layer inception_4a/relu_3x3
2016-07-05 19:03:42.736 STDERR [INFO] I0705 19:03:42.443248 23439 net.cpp:106] Creating Layer inception_4a/relu_3x3
2016-07-05 19:03:42.736 STDERR [INFO] I0705 19:03:42.443250 23439 net.cpp:454] inception_4a/relu_3x3 <- inception_4a/3x3
2016-07-05 19:03:42.737 STDERR [INFO] I0705 19:03:42.443258 23439 net.cpp:397] inception_4a/relu_3x3 -> inception_4a/3x3 (in-place)
2016-07-05 19:03:42.737 STDERR [INFO] I0705 19:03:42.443264 23439 net.cpp:150] Setting up inception_4a/relu_3x3
2016-07-05 19:03:42.737 STDERR [INFO] I0705 19:03:42.443267 23439 net.cpp:157] Top shape: 10 208 14 14 (407680)
2016-07-05 19:03:42.737 STDERR [INFO] I0705 19:03:42.443270 23439 net.cpp:165] Memory required for data: 357754880
2016-07-05 19:03:42.737 n.t.s.b.CVParticleBolt [INFO] [Timing] RequestID: 0 StreamID: home/peifeng/work/frame.1080x1920.png SequenceNr: 44 Leaving scale: 1467759822737 Size: 60160
2016-07-05 19:03:42.737 STDERR [INFO] I0705 19:03:42.443274 23439 layer_factory.hpp:77] Creating layer inception_4a/5x5_reduce
2016-07-05 19:03:42.737 STDERR [INFO] I0705 19:03:42.443281 23439 net.cpp:106] Creating Layer inception_4a/5x5_reduce
2016-07-05 19:03:42.737 STDERR [INFO] I0705 19:03:42.443285 23439 net.cpp:454] inception_4a/5x5_reduce <- pool3/3x3_s2_pool3/3x3_s2_0_split_2
2016-07-05 19:03:42.737 STDERR [INFO] I0705 19:03:42.443291 23439 net.cpp:411] inception_4a/5x5_reduce -> inception_4a/5x5_reduce
2016-07-05 19:03:42.737 STDERR [INFO] I0705 19:03:42.443372 23439 net.cpp:150] Setting up inception_4a/5x5_reduce
2016-07-05 19:03:42.738 STDERR [INFO] I0705 19:03:42.443378 23439 net.cpp:157] Top shape: 10 16 14 14 (31360)
2016-07-05 19:03:42.738 STDERR [INFO] I0705 19:03:42.443382 23439 net.cpp:165] Memory required for data: 357880320
2016-07-05 19:03:42.738 STDERR [INFO] I0705 19:03:42.443387 23439 layer_factory.hpp:77] Creating layer inception_4a/relu_5x5_reduce
2016-07-05 19:03:42.738 STDERR [INFO] I0705 19:03:42.443392 23439 net.cpp:106] Creating Layer inception_4a/relu_5x5_reduce
2016-07-05 19:03:42.738 STDERR [INFO] I0705 19:03:42.443397 23439 net.cpp:454] inception_4a/relu_5x5_reduce <- inception_4a/5x5_reduce
2016-07-05 19:03:42.738 STDERR [INFO] I0705 19:03:42.443400 23439 net.cpp:397] inception_4a/relu_5x5_reduce -> inception_4a/5x5_reduce (in-place)
2016-07-05 19:03:42.738 STDERR [INFO] I0705 19:03:42.443406 23439 net.cpp:150] Setting up inception_4a/relu_5x5_reduce
2016-07-05 19:03:42.738 STDERR [INFO] I0705 19:03:42.443410 23439 net.cpp:157] Top shape: 10 16 14 14 (31360)
2016-07-05 19:03:42.738 STDERR [INFO] I0705 19:03:42.443413 23439 net.cpp:165] Memory required for data: 358005760
2016-07-05 19:03:42.739 STDERR [INFO] I0705 19:03:42.443415 23439 layer_factory.hpp:77] Creating layer inception_4a/5x5
2016-07-05 19:03:42.739 STDERR [INFO] I0705 19:03:42.443425 23439 net.cpp:106] Creating Layer inception_4a/5x5
2016-07-05 19:03:42.739 n.t.s.b.CVParticleBolt [INFO] [Timing] RequestID: 0 StreamID: home/peifeng/work/frame.1080x1920.png SequenceNr: 47 Entering scale: 1467759822739
2016-07-05 19:03:42.739 STDERR [INFO] I0705 19:03:42.443428 23439 net.cpp:454] inception_4a/5x5 <- inception_4a/5x5_reduce
2016-07-05 19:03:42.739 STDERR [INFO] I0705 19:03:42.443434 23439 net.cpp:411] inception_4a/5x5 -> inception_4a/5x5
2016-07-05 19:03:42.739 STDERR [INFO] I0705 19:03:42.443614 23439 net.cpp:150] Setting up inception_4a/5x5
2016-07-05 19:03:42.739 STDERR [INFO] I0705 19:03:42.443619 23439 net.cpp:157] Top shape: 10 48 14 14 (94080)
2016-07-05 19:03:42.739 STDERR [INFO] I0705 19:03:42.443622 23439 net.cpp:165] Memory required for data: 358382080
2016-07-05 19:03:42.739 STDERR [INFO] I0705 19:03:42.443627 23439 layer_factory.hpp:77] Creating layer inception_4a/relu_5x5
2016-07-05 19:03:42.739 STDERR [INFO] I0705 19:03:42.443632 23439 net.cpp:106] Creating Layer inception_4a/relu_5x5
2016-07-05 19:03:42.740 STDERR [INFO] I0705 19:03:42.443635 23439 net.cpp:454] inception_4a/relu_5x5 <- inception_4a/5x5
2016-07-05 19:03:42.740 STDERR [INFO] I0705 19:03:42.443642 23439 net.cpp:397] inception_4a/relu_5x5 -> inception_4a/5x5 (in-place)
2016-07-05 19:03:42.740 STDERR [INFO] I0705 19:03:42.443648 23439 net.cpp:150] Setting up inception_4a/relu_5x5
2016-07-05 19:03:42.740 STDERR [INFO] I0705 19:03:42.443652 23439 net.cpp:157] Top shape: 10 48 14 14 (94080)
2016-07-05 19:03:42.740 STDERR [INFO] I0705 19:03:42.443655 23439 net.cpp:165] Memory required for data: 358758400
2016-07-05 19:03:42.740 STDERR [INFO] I0705 19:03:42.443657 23439 layer_factory.hpp:77] Creating layer inception_4a/pool
2016-07-05 19:03:42.740 STDERR [INFO] I0705 19:03:42.443662 23439 net.cpp:106] Creating Layer inception_4a/pool
2016-07-05 19:03:42.740 STDERR [INFO] I0705 19:03:42.443665 23439 net.cpp:454] inception_4a/pool <- pool3/3x3_s2_pool3/3x3_s2_0_split_3
2016-07-05 19:03:42.740 STDERR [INFO] I0705 19:03:42.443671 23439 net.cpp:411] inception_4a/pool -> inception_4a/pool
2016-07-05 19:03:42.741 STDERR [INFO] I0705 19:03:42.443678 23439 net.cpp:150] Setting up inception_4a/pool
2016-07-05 19:03:42.741 STDERR [INFO] I0705 19:03:42.443682 23439 net.cpp:157] Top shape: 10 480 14 14 (940800)
2016-07-05 19:03:42.741 STDERR [INFO] I0705 19:03:42.443686 23439 net.cpp:165] Memory required for data: 362521600
2016-07-05 19:03:42.741 STDERR [INFO] I0705 19:03:42.443688 23439 layer_factory.hpp:77] Creating layer inception_4a/pool_proj
2016-07-05 19:03:42.741 STDERR [INFO] I0705 19:03:42.443698 23439 net.cpp:106] Creating Layer inception_4a/pool_proj
2016-07-05 19:03:42.741 STDERR [INFO] I0705 19:03:42.443702 23439 net.cpp:454] inception_4a/pool_proj <- inception_4a/pool
2016-07-05 19:03:42.741 STDERR [INFO] I0705 19:03:42.443708 23439 net.cpp:411] inception_4a/pool_proj -> inception_4a/pool_proj
2016-07-05 19:03:42.741 STDERR [INFO] I0705 19:03:42.443989 23439 net.cpp:150] Setting up inception_4a/pool_proj
2016-07-05 19:03:42.741 STDERR [INFO] I0705 19:03:42.443996 23439 net.cpp:157] Top shape: 10 64 14 14 (125440)
2016-07-05 19:03:42.742 STDERR [INFO] I0705 19:03:42.444000 23439 net.cpp:165] Memory required for data: 363023360
2016-07-05 19:03:42.742 STDERR [INFO] I0705 19:03:42.444005 23439 layer_factory.hpp:77] Creating layer inception_4a/relu_pool_proj
2016-07-05 19:03:42.742 STDERR [INFO] I0705 19:03:42.444010 23439 net.cpp:106] Creating Layer inception_4a/relu_pool_proj
2016-07-05 19:03:42.742 STDERR [INFO] I0705 19:03:42.444015 23439 net.cpp:454] inception_4a/relu_pool_proj <- inception_4a/pool_proj
2016-07-05 19:03:42.742 STDERR [INFO] I0705 19:03:42.444021 23439 net.cpp:397] inception_4a/relu_pool_proj -> inception_4a/pool_proj (in-place)
2016-07-05 19:03:42.742 STDERR [INFO] I0705 19:03:42.444026 23439 net.cpp:150] Setting up inception_4a/relu_pool_proj
2016-07-05 19:03:42.742 STDERR [INFO] I0705 19:03:42.444031 23439 net.cpp:157] Top shape: 10 64 14 14 (125440)
2016-07-05 19:03:42.742 STDERR [INFO] I0705 19:03:42.444033 23439 net.cpp:165] Memory required for data: 363525120
2016-07-05 19:03:42.742 STDERR [INFO] I0705 19:03:42.444036 23439 layer_factory.hpp:77] Creating layer inception_4a/output
2016-07-05 19:03:42.743 STDERR [INFO] I0705 19:03:42.444041 23439 net.cpp:106] Creating Layer inception_4a/output
2016-07-05 19:03:42.743 STDERR [INFO] I0705 19:03:42.444044 23439 net.cpp:454] inception_4a/output <- inception_4a/1x1
2016-07-05 19:03:42.743 STDERR [INFO] I0705 19:03:42.444048 23439 net.cpp:454] inception_4a/output <- inception_4a/3x3
2016-07-05 19:03:42.743 STDERR [INFO] I0705 19:03:42.444051 23439 net.cpp:454] inception_4a/output <- inception_4a/5x5
2016-07-05 19:03:42.743 STDERR [INFO] I0705 19:03:42.444056 23439 net.cpp:454] inception_4a/output <- inception_4a/pool_proj
2016-07-05 19:03:42.743 STDERR [INFO] I0705 19:03:42.444061 23439 net.cpp:411] inception_4a/output -> inception_4a/output
2016-07-05 19:03:42.743 STDERR [INFO] I0705 19:03:42.444068 23439 net.cpp:150] Setting up inception_4a/output
2016-07-05 19:03:42.743 STDERR [INFO] I0705 19:03:42.444072 23439 net.cpp:157] Top shape: 10 512 14 14 (1003520)
2016-07-05 19:03:42.743 STDERR [INFO] I0705 19:03:42.444075 23439 net.cpp:165] Memory required for data: 367539200
2016-07-05 19:03:42.744 STDERR [INFO] I0705 19:03:42.444078 23439 layer_factory.hpp:77] Creating layer inception_4a/output_inception_4a/output_0_split
2016-07-05 19:03:42.744 STDERR [INFO] I0705 19:03:42.444083 23439 net.cpp:106] Creating Layer inception_4a/output_inception_4a/output_0_split
…
2016-07-05 19:03:42.744 STDERR [INFO] I0705 19:03:42.444097 23439 net.cpp:411] inception_4a/output_inception_4a/output_0_split -> inception_4a/output_inception_4a/output_0_split_1
2016-07-05 19:03:42.744 STDERR [INFO] I0705 19:03:42.444105 23439 net.cpp:411] inception_4a/output_inception_4a/output_0_split -> inception_4a/output_inception_4a/output_0_split_2
2016-07-05 19:03:42.744 STDERR [INFO] I0705 19:03:42.444110 23439 net.cpp:411] inception_4a/output_inception_4a/output_0_split -> inception_4a/output_inception_4a/output_0_split_3
2016-07-05 19:03:42.744 STDERR [INFO] I0705 19:03:42.444118 23439 net.cpp:150] Setting up inception_4a/output_inception_4a/output_0_split
2016-07-05 19:03:42.744 STDERR [INFO] I0705 19:03:42.444121 23439 net.cpp:157] Top shape: 10 512 14 14 (1003520)
2016-07-05 19:03:42.745 STDERR [INFO] I0705 19:03:42.444125 23439 net.cpp:157] Top shape: 10 512 14 14 (1003520)
2016-07-05 19:03:42.745 STDERR [INFO] I0705 19:03:42.444129 23439 net.cpp:157] Top shape: 10 512 14 14 (1003520)
2016-07-05 19:03:42.745 STDERR [INFO] I0705 19:03:42.444133 23439 net.cpp:157] Top shape: 10 512 14 14 (1003520)
2016-07-05 19:03:42.745 STDERR [INFO] I0705 19:03:42.444135 23439 net.cpp:165] Memory required for data: 383595520
2016-07-05 19:03:42.745 STDERR [INFO] I0705 19:03:42.444139 23439 layer_factory.hpp:77] Creating layer inception_4b/1x1
2016-07-05 19:03:42.745 STDERR [INFO] I0705 19:03:42.444146 23439 net.cpp:106] Creating Layer inception_4b/1x1
2016-07-05 19:03:42.745 STDERR [INFO] I0705 19:03:42.444150 23439 net.cpp:454] inception_4b/1x1 <- inception_4a/output_inception_4a/output_0_split_0
2016-07-05 19:03:42.745 STDERR [INFO] I0705 19:03:42.444157 23439 net.cpp:411] inception_4b/1x1 -> inception_4b/1x1
2016-07-05 19:03:42.746 STDERR [INFO] I0705 19:03:42.444855 23439 net.cpp:150] Setting up inception_4b/1x1
2016-07-05 19:03:42.746 STDERR [INFO] I0705 19:03:42.444862 23439 net.cpp:157] Top shape: 10 160 14 14 (313600)
2016-07-05 19:03:42.746 STDERR [INFO] I0705 19:03:42.444865 23439 net.cpp:165] Memory required for data: 384849920
2016-07-05 19:03:42.746 STDERR [INFO] I0705 19:03:42.444871 23439 layer_factory.hpp:77] Creating layer inception_4b/relu_1x1
2016-07-05 19:03:42.746 STDERR [INFO] I0705 19:03:42.444878 23439 net.cpp:106] Creating Layer inception_4b/relu_1x1
2016-07-05 19:03:42.746 STDERR [INFO] I0705 19:03:42.444881 23439 net.cpp:454] inception_4b/relu_1x1 <- inception_4b/1x1
2016-07-05 19:03:42.746 STDERR [INFO] I0705 19:03:42.444886 23439 net.cpp:397] inception_4b/relu_1x1 -> inception_4b/1x1 (in-place)
2016-07-05 19:03:42.746 STDERR [INFO] I0705 19:03:42.444892 23439 net.cpp:150] Setting up inception_4b/relu_1x1
2016-07-05 19:03:42.746 STDERR [INFO] I0705 19:03:42.444896 23439 net.cpp:157] Top shape: 10 160 14 14 (313600)
2016-07-05 19:03:42.747 STDERR [INFO] I0705 19:03:42.444900 23439 net.cpp:165] Memory required for data: 386104320
2016-07-05 19:03:42.747 STDERR [INFO] I0705 19:03:42.444902 23439 layer_factory.hpp:77] Creating layer inception_4b/3x3_reduce
2016-07-05 19:03:42.747 STDERR [INFO] I0705 19:03:42.444911 23439 net.cpp:106] Creating Layer inception_4b/3x3_reduce
2016-07-05 19:03:42.747 STDERR [INFO] I0705 19:03:42.444914 23439 net.cpp:454] inception_4b/3x3_reduce <- inception_4a/output_inception_4a/output_0_split_1
2016-07-05 19:03:42.747 STDERR [INFO] I0705 19:03:42.444921 23439 net.cpp:411] inception_4b/3x3_reduce -> inception_4b/3x3_reduce
2016-07-05 19:03:42.747 STDERR [INFO] I0705 19:03:42.445418 23439 net.cpp:150] Setting up inception_4b/3x3_reduce
2016-07-05 19:03:42.747 STDERR [INFO] I0705 19:03:42.445427 23439 net.cpp:157] Top shape: 10 112 14 14 (219520)
2016-07-05 19:03:42.747 STDERR [INFO] I0705 19:03:42.445430 23439 net.cpp:165] Memory required for data: 386982400
2016-07-05 19:03:42.747 STDERR [INFO] I0705 19:03:42.445436 23439 layer_factory.hpp:77] Creating layer inception_4b/relu_3x3_reduce
2016-07-05 19:03:42.748 STDERR [INFO] I0705 19:03:42.445441 23439 net.cpp:106] Creating Layer inception_4b/relu_3x3_reduce
2016-07-05 19:03:42.748 STDERR [INFO] I0705 19:03:42.445444 23439 net.cpp:454] inception_4b/relu_3x3_reduce <- inception_4b/3x3_reduce
2016-07-05 19:03:42.748 STDERR [INFO] I0705 19:03:42.445449 23439 net.cpp:397] inception_4b/relu_3x3_reduce -> inception_4b/3x3_reduce (in-place)
2016-07-05 19:03:42.748 STDERR [INFO] I0705 19:03:42.445454 23439 net.cpp:150] Setting up inception_4b/relu_3x3_reduce
2016-07-05 19:03:42.748 STDERR [INFO] I0705 19:03:42.445458 23439 net.cpp:157] Top shape: 10 112 14 14 (219520)
2016-07-05 19:03:42.748 STDERR [INFO] I0705 19:03:42.445461 23439 net.cpp:165] Memory required for data: 387860480
2016-07-05 19:03:42.748 STDERR [INFO] I0705 19:03:42.445464 23439 layer_factory.hpp:77] Creating layer inception_4b/3x3
2016-07-05 19:03:42.748 STDERR [INFO] I0705 19:03:42.445473 23439 net.cpp:106] Creating Layer inception_4b/3x3
2016-07-05 19:03:42.748 STDERR [INFO] I0705 19:03:42.445477 23439 net.cpp:454] inception_4b/3x3 <- inception_4b/3x3_reduce
2016-07-05 19:03:42.749 STDERR [INFO] I0705 19:03:42.445484 23439 net.cpp:411] inception_4b/3x3 -> inception_4b/3x3
2016-07-05 19:03:42.749 STDERR [INFO] I0705 19:03:42.447376 23439 net.cpp:150] Setting up inception_4b/3x3
2016-07-05 19:03:42.749 STDERR [INFO] I0705 19:03:42.447384 23439 net.cpp:157] Top shape: 10 224 14 14 (439040)
2016-07-05 19:03:42.749 STDERR [INFO] I0705 19:03:42.447387 23439 net.cpp:165] Memory required for data: 389616640
2016-07-05 19:03:42.749 STDERR [INFO] I0705 19:03:42.447392 23439 layer_factory.hpp:77] Creating layer inception_4b/relu_3x3
2016-07-05 19:03:42.749 STDERR [INFO] I0705 19:03:42.447397 23439 net.cpp:106] Creating Layer inception_4b/relu_3x3
2016-07-05 19:03:42.749 STDERR [INFO] I0705 19:03:42.447402 23439 net.cpp:454] inception_4b/relu_3x3 <- inception_4b/3x3
2016-07-05 19:03:42.749 STDERR [INFO] I0705 19:03:42.447407 23439 net.cpp:397] inception_4b/relu_3x3 -> inception_4b/3x3 (in-place)
2016-07-05 19:03:42.749 STDERR [INFO] I0705 19:03:42.447413 23439 net.cpp:150] Setting up inception_4b/relu_3x3
2016-07-05 19:03:42.750 STDERR [INFO] I0705 19:03:42.447417 23439 net.cpp:157] Top shape: 10 224 14 14 (439040)
2016-07-05 19:03:42.750 STDERR [INFO] I0705 19:03:42.447420 23439 net.cpp:165] Memory required for data: 391372800
2016-07-05 19:03:42.750 STDERR [INFO] I0705 19:03:42.447422 23439 layer_factory.hpp:77] Creating layer inception_4b/5x5_reduce
2016-07-05 19:03:42.750 STDERR [INFO] I0705 19:03:42.447432 23439 net.cpp:106] Creating Layer inception_4b/5x5_reduce
2016-07-05 19:03:42.750 STDERR [INFO] I0705 19:03:42.447435 23439 net.cpp:454] inception_4b/5x5_reduce <- inception_4a/output_inception_4a/output_0_split_2
2016-07-05 19:03:42.750 STDERR [INFO] I0705 19:03:42.447440 23439 net.cpp:411] inception_4b/5x5_reduce -> inception_4b/5x5_reduce
2016-07-05 19:03:42.750 STDERR [INFO] I0705 19:03:42.447561 23439 net.cpp:150] Setting up inception_4b/5x5_reduce
2016-07-05 19:03:42.750 STDERR [INFO] I0705 19:03:42.447566 23439 net.cpp:157] Top shape: 10 24 14 14 (47040)
2016-07-05 19:03:42.750 STDERR [INFO] I0705 19:03:42.447568 23439 net.cpp:165] Memory required for data: 391560960
2016-07-05 19:03:42.751 STDERR [INFO] I0705 19:03:42.447573 23439 layer_factory.hpp:77] Creating layer inception_4b/relu_5x5_reduce
2016-07-05 19:03:42.751 STDERR [INFO] I0705 19:03:42.447584 23439 net.cpp:106] Creating Layer inception_4b/relu_5x5_reduce
2016-07-05 19:03:42.751 STDERR [INFO] I0705 19:03:42.447588 23439 net.cpp:454] inception_4b/relu_5x5_reduce <- inception_4b/5x5_reduce
2016-07-05 19:03:42.751 STDERR [INFO] I0705 19:03:42.447595 23439 net.cpp:397] inception_4b/relu_5x5_reduce -> inception_4b/5x5_reduce (in-place)
2016-07-05 19:03:42.751 STDERR [INFO] I0705 19:03:42.447602 23439 net.cpp:150] Setting up inception_4b/relu_5x5_reduce
2016-07-05 19:03:42.751 STDERR [INFO] I0705 19:03:42.447605 23439 net.cpp:157] Top shape: 10 24 14 14 (47040)
2016-07-05 19:03:42.752 STDERR [INFO] I0705 19:03:42.447608 23439 net.cpp:165] Memory required for data: 391749120
2016-07-05 19:03:42.752 STDERR [INFO] I0705 19:03:42.447612 23439 layer_factory.hpp:77] Creating layer inception_4b/5x5
2016-07-05 19:03:42.752 STDERR [INFO] I0705 19:03:42.447619 23439 net.cpp:106] Creating Layer inception_4b/5x5
2016-07-05 19:03:42.752 STDERR [INFO] I0705 19:03:42.447623 23439 net.cpp:454] inception_4b/5x5 <- inception_4b/5x5_reduce
2016-07-05 19:03:42.752 STDERR [INFO] I0705 19:03:42.517019 23439 net.cpp:411] inception_4b/5x5 -> inception_4b/5x5
2016-07-05 19:03:42.752 STDERR [INFO] I0705 19:03:42.517422 23439 net.cpp:150] Setting up inception_4b/5x5
2016-07-05 19:03:42.752 STDERR [INFO] I0705 19:03:42.517436 23439 net.cpp:157] Top shape: 10 64 14 14 (125440)
2016-07-05 19:03:42.753 STDERR [INFO] I0705 19:03:42.517439 23439 net.cpp:165] Memory required for data: 392250880
2016-07-05 19:03:42.753 STDERR [INFO] I0705 19:03:42.517448 23439 layer_factory.hpp:77] Creating layer inception_4b/relu_5x5
2016-07-05 19:03:42.753 STDERR [INFO] I0705 19:03:42.517460 23439 net.cpp:106] Creating Layer inception_4b/relu_5x5
2016-07-05 19:03:42.753 STDERR [INFO] I0705 19:03:42.517464 23439 net.cpp:454] inception_4b/relu_5x5 <- inception_4b/5x5
2016-07-05 19:03:42.753 STDERR [INFO] I0705 19:03:42.517469 23439 net.cpp:397] inception_4b/relu_5x5 -> inception_4b/5x5 (in-place)
2016-07-05 19:03:42.753 STDERR [INFO] I0705 19:03:42.517477 23439 net.cpp:150] Setting up inception_4b/relu_5x5
2016-07-05 19:03:42.753 STDERR [INFO] I0705 19:03:42.517480 23439 net.cpp:157] Top shape: 10 64 14 14 (125440)
2016-07-05 19:03:42.753 STDERR [INFO] I0705 19:03:42.517483 23439 net.cpp:165] Memory required for data: 392752640
2016-07-05 19:03:42.753 STDERR [INFO] I0705 19:03:42.517487 23439 layer_factory.hpp:77] Creating layer inception_4b/pool
2016-07-05 19:03:42.754 STDERR [INFO] I0705 19:03:42.517495 23439 net.cpp:106] Creating Layer inception_4b/pool
2016-07-05 19:03:42.754 STDERR [INFO] I0705 19:03:42.517499 23439 net.cpp:454] inception_4b/pool <- inception_4a/output_inception_4a/output_0_split_3
2016-07-05 19:03:42.754 STDERR [INFO] I0705 19:03:42.517508 23439 net.cpp:411] inception_4b/pool -> inception_4b/pool
2016-07-05 19:03:42.754 STDERR [INFO] I0705 19:03:42.517518 23439 net.cpp:150] Setting up inception_4b/pool
2016-07-05 19:03:42.754 STDERR [INFO] I0705 19:03:42.517523 23439 net.cpp:157] Top shape: 10 512 14 14 (1003520)
2016-07-05 19:03:42.754 STDERR [INFO] I0705 19:03:42.517525 23439 net.cpp:165] Memory required for data: 396766720
2016-07-05 19:03:42.754 STDERR [INFO] I0705 19:03:42.517529 23439 layer_factory.hpp:77] Creating layer inception_4b/pool_proj
2016-07-05 19:03:42.754 STDERR [INFO] I0705 19:03:42.517540 23439 net.cpp:106] Creating Layer inception_4b/pool_proj
2016-07-05 19:03:42.754 STDERR [INFO] I0705 19:03:42.517544 23439 net.cpp:454] inception_4b/pool_proj <- inception_4b/pool
2016-07-05 19:03:42.755 STDERR [INFO] I0705 19:03:42.517549 23439 net.cpp:411] inception_4b/pool_proj -> inception_4b/pool_proj
2016-07-05 19:03:42.755 STDERR [INFO] I0705 19:03:42.517845 23439 net.cpp:150] Setting up inception_4b/pool_proj
2016-07-05 19:03:42.755 STDERR [INFO] I0705 19:03:42.517851 23439 net.cpp:157] Top shape: 10 64 14 14 (125440)
2016-07-05 19:03:42.755 STDERR [INFO] I0705 19:03:42.517854 23439 net.cpp:165] Memory required for data: 397268480
2016-07-05 19:03:42.755 STDERR [INFO] I0705 19:03:42.517860 23439 layer_factory.hpp:77] Creating layer inception_4b/relu_pool_proj
2016-07-05 19:03:42.755 STDERR [INFO] I0705 19:03:42.517868 23439 net.cpp:106] Creating Layer inception_4b/relu_pool_proj
2016-07-05 19:03:42.755 STDERR [INFO] I0705 19:03:42.517873 23439 net.cpp:454] inception_4b/relu_pool_proj <- inception_4b/pool_proj
2016-07-05 19:03:42.755 STDERR [INFO] I0705 19:03:42.517876 23439 net.cpp:397] inception_4b/relu_pool_proj -> inception_4b/pool_proj (in-place)
2016-07-05 19:03:42.755 STDERR [INFO] I0705 19:03:42.517882 23439 net.cpp:150] Setting up inception_4b/relu_pool_proj
2016-07-05 19:03:42.756 STDERR [INFO] I0705 19:03:42.517886 23439 net.cpp:157] Top shape: 10 64 14 14 (125440)
2016-07-05 19:03:42.756 STDERR [INFO] I0705 19:03:42.517889 23439 net.cpp:165] Memory required for data: 397770240
2016-07-05 19:03:42.756 STDERR [INFO] I0705 19:03:42.517892 23439 layer_factory.hpp:77] Creating layer inception_4b/output
2016-07-05 19:03:42.756 STDERR [INFO] I0705 19:03:42.517901 23439 net.cpp:106] Creating Layer inception_4b/output
2016-07-05 19:03:42.756 STDERR [INFO] I0705 19:03:42.517905 23439 net.cpp:454] inception_4b/output <- inception_4b/1x1
2016-07-05 19:03:42.756 STDERR [INFO] I0705 19:03:42.517910 23439 net.cpp:454] inception_4b/output <- inception_4b/3x3
2016-07-05 19:03:42.756 STDERR [INFO] I0705 19:03:42.517913 23439 net.cpp:454] inception_4b/output <- inception_4b/5x5
2016-07-05 19:03:42.756 STDERR [INFO] I0705 19:03:42.517917 23439 net.cpp:454] inception_4b/output <- inception_4b/pool_proj
2016-07-05 19:03:42.757 STDERR [INFO] I0705 19:03:42.517921 23439 net.cpp:411] inception_4b/output -> inception_4b/output
2016-07-05 19:03:42.757 STDERR [INFO] I0705 19:03:42.517930 23439 net.cpp:150] Setting up inception_4b/output
2016-07-05 19:03:42.757 STDERR [INFO] I0705 19:03:42.517935 23439 net.cpp:157] Top shape: 10 512 14 14 (1003520)
2016-07-05 19:03:42.757 STDERR [INFO] I0705 19:03:42.517937 23439 net.cpp:165] Memory required for data: 401784320
2016-07-05 19:03:42.757 STDERR [INFO] I0705 19:03:42.517940 23439 layer_factory.hpp:77] Creating layer inception_4b/output_inception_4b/output_0_split
2016-07-05 19:03:42.757 STDERR [INFO] I0705 19:03:42.517947 23439 net.cpp:106] Creating Layer inception_4b/output_inception_4b/output_0_split
…
2016-07-05 19:03:42.757 STDERR [INFO] I0705 19:03:42.517964 23439 net.cpp:411] inception_4b/output_inception_4b/output_0_split -> inception_4b/output_inception_4b/output_0_split_1
2016-07-05 19:03:42.758 STDERR [INFO] I0705 19:03:42.517971 23439 net.cpp:411] inception_4b/output_inception_4b/output_0_split -> inception_4b/output_inception_4b/output_0_split_2
2016-07-05 19:03:42.758 STDERR [INFO] I0705 19:03:42.517976 23439 net.cpp:411] inception_4b/output_inception_4b/output_0_split -> inception_4b/output_inception_4b/output_0_split_3
2016-07-05 19:03:42.758 STDERR [INFO] I0705 19:03:42.517982 23439 net.cpp:150] Setting up inception_4b/output_inception_4b/output_0_split
2016-07-05 19:03:42.758 STDERR [INFO] I0705 19:03:42.517988 23439 net.cpp:157] Top shape: 10 512 14 14 (1003520)
2016-07-05 19:03:42.758 STDERR [INFO] I0705 19:03:42.517992 23439 net.cpp:157] Top shape: 10 512 14 14 (1003520)
2016-07-05 19:03:42.758 STDERR [INFO] I0705 19:03:42.517997 23439 net.cpp:157] Top shape: 10 512 14 14 (1003520)
2016-07-05 19:03:42.758 STDERR [INFO] I0705 19:03:42.517999 23439 net.cpp:157] Top shape: 10 512 14 14 (1003520)
2016-07-05 19:03:42.759 STDERR [INFO] I0705 19:03:42.518002 23439 net.cpp:165] Memory required for data: 417840640
2016-07-05 19:03:42.759 STDERR [INFO] I0705 19:03:42.518005 23439 layer_factory.hpp:77] Creating layer inception_4c/1x1
2016-07-05 19:03:42.759 STDERR [INFO] I0705 19:03:42.518015 23439 net.cpp:106] Creating Layer inception_4c/1x1
2016-07-05 19:03:42.759 STDERR [INFO] I0705 19:03:42.518019 23439 net.cpp:454] inception_4c/1x1 <- inception_4b/output_inception_4b/output_0_split_0
2016-07-05 19:03:42.759 STDERR [INFO] I0705 19:03:42.518024 23439 net.cpp:411] inception_4c/1x1 -> inception_4c/1x1
2016-07-05 19:03:42.759 STDERR [INFO] I0705 19:03:42.518590 23439 net.cpp:150] Setting up inception_4c/1x1
2016-07-05 19:03:42.759 STDERR [INFO] I0705 19:03:42.518599 23439 net.cpp:157] Top shape: 10 128 14 14 (250880)
2016-07-05 19:03:42.759 STDERR [INFO] I0705 19:03:42.518601 23439 net.cpp:165] Memory required for data: 418844160
2016-07-05 19:03:42.759 STDERR [INFO] I0705 19:03:42.518607 23439 layer_factory.hpp:77] Creating layer inception_4c/relu_1x1
2016-07-05 19:03:42.760 STDERR [INFO] I0705 19:03:42.518612 23439 net.cpp:106] Creating Layer inception_4c/relu_1x1
2016-07-05 19:03:42.760 STDERR [INFO] I0705 19:03:42.518616 23439 net.cpp:454] inception_4c/relu_1x1 <- inception_4c/1x1
2016-07-05 19:03:42.760 STDERR [INFO] I0705 19:03:42.518621 23439 net.cpp:397] inception_4c/relu_1x1 -> inception_4c/1x1 (in-place)
2016-07-05 19:03:42.760 STDERR [INFO] I0705 19:03:42.518626 23439 net.cpp:150] Setting up inception_4c/relu_1x1
2016-07-05 19:03:42.760 STDERR [INFO] I0705 19:03:42.518630 23439 net.cpp:157] Top shape: 10 128 14 14 (250880)
2016-07-05 19:03:42.760 STDERR [INFO] I0705 19:03:42.518632 23439 net.cpp:165] Memory required for data: 419847680
2016-07-05 19:03:42.760 STDERR [INFO] I0705 19:03:42.518636 23439 layer_factory.hpp:77] Creating layer inception_4c/3x3_reduce
2016-07-05 19:03:42.760 STDERR [INFO] I0705 19:03:42.518648 23439 net.cpp:106] Creating Layer inception_4c/3x3_reduce
2016-07-05 19:03:42.760 STDERR [INFO] I0705 19:03:42.518651 23439 net.cpp:454] inception_4c/3x3_reduce <- inception_4b/output_inception_4b/output_0_split_1
2016-07-05 19:03:42.761 STDERR [INFO] I0705 19:03:42.518659 23439 net.cpp:411] inception_4c/3x3_reduce -> inception_4c/3x3_reduce
2016-07-05 19:03:42.761 STDERR [INFO] I0705 19:03:42.519227 23439 net.cpp:150] Setting up inception_4c/3x3_reduce
2016-07-05 19:03:42.761 STDERR [INFO] I0705 19:03:42.519233 23439 net.cpp:157] Top shape: 10 128 14 14 (250880)
2016-07-05 19:03:42.761 STDERR [INFO] I0705 19:03:42.519237 23439 net.cpp:165] Memory required for data: 420851200
2016-07-05 19:03:42.761 STDERR [INFO] I0705 19:03:42.519243 23439 layer_factory.hpp:77] Creating layer inception_4c/relu_3x3_reduce
2016-07-05 19:03:42.761 STDERR [INFO] I0705 19:03:42.519248 23439 net.cpp:106] Creating Layer inception_4c/relu_3x3_reduce
2016-07-05 19:03:42.761 STDERR [INFO] I0705 19:03:42.519251 23439 net.cpp:454] inception_4c/relu_3x3_reduce <- inception_4c/3x3_reduce
2016-07-05 19:03:42.761 STDERR [INFO] I0705 19:03:42.519256 23439 net.cpp:397] inception_4c/relu_3x3_reduce -> inception_4c/3x3_reduce (in-place)
2016-07-05 19:03:42.761 STDERR [INFO] I0705 19:03:42.519261 23439 net.cpp:150] Setting up inception_4c/relu_3x3_reduce
2016-07-05 19:03:42.762 STDERR [INFO] I0705 19:03:42.519265 23439 net.cpp:157] Top shape: 10 128 14 14 (250880)
2016-07-05 19:03:42.762 STDERR [INFO] I0705 19:03:42.519268 23439 net.cpp:165] Memory required for data: 421854720
2016-07-05 19:03:42.762 STDERR [INFO] I0705 19:03:42.519271 23439 layer_factory.hpp:77] Creating layer inception_4c/3x3
2016-07-05 19:03:42.762 STDERR [INFO] I0705 19:03:42.519282 23439 net.cpp:106] Creating Layer inception_4c/3x3
2016-07-05 19:03:42.762 STDERR [INFO] I0705 19:03:42.519287 23439 net.cpp:454] inception_4c/3x3 <- inception_4c/3x3_reduce
2016-07-05 19:03:42.762 STDERR [INFO] I0705 19:03:42.519294 23439 net.cpp:411] inception_4c/3x3 -> inception_4c/3x3
2016-07-05 19:03:42.762 STDERR [INFO] I0705 19:03:42.521785 23439 net.cpp:150] Setting up inception_4c/3x3
2016-07-05 19:03:42.762 STDERR [INFO] I0705 19:03:42.521791 23439 net.cpp:157] Top shape: 10 256 14 14 (501760)
2016-07-05 19:03:42.762 STDERR [INFO] I0705 19:03:42.521795 23439 net.cpp:165] Memory required for data: 423861760
2016-07-05 19:03:42.763 STDERR [INFO] I0705 19:03:42.521800 23439 layer_factory.hpp:77] Creating layer inception_4c/relu_3x3
2016-07-05 19:03:42.763 STDERR [INFO] I0705 19:03:42.521808 23439 net.cpp:106] Creating Layer inception_4c/relu_3x3
2016-07-05 19:03:42.763 STDERR [INFO] I0705 19:03:42.521812 23439 net.cpp:454] inception_4c/relu_3x3 <- inception_4c/3x3
2016-07-05 19:03:42.763 STDERR [INFO] I0705 19:03:42.521816 23439 net.cpp:397] inception_4c/relu_3x3 -> inception_4c/3x3 (in-place)
2016-07-05 19:03:42.763 STDERR [INFO] I0705 19:03:42.587718 23439 net.cpp:150] Setting up inception_4c/relu_3x3
2016-07-05 19:03:42.763 STDERR [INFO] I0705 19:03:42.587728 23439 net.cpp:157] Top shape: 10 256 14 14 (501760)
2016-07-05 19:03:42.763 STDERR [INFO] I0705 19:03:42.587733 23439 net.cpp:165] Memory required for data: 425868800
2016-07-05 19:03:42.763 STDERR [INFO] I0705 19:03:42.587736 23439 layer_factory.hpp:77] Creating layer inception_4c/5x5_reduce
2016-07-05 19:03:42.763 STDERR [INFO] I0705 19:03:42.587751 23439 net.cpp:106] Creating Layer inception_4c/5x5_reduce
2016-07-05 19:03:42.764 STDERR [INFO] I0705 19:03:42.587755 23439 net.cpp:454] inception_4c/5x5_reduce <- inception_4b/output_inception_4b/output_0_split_2
2016-07-05 19:03:42.764 STDERR [INFO] I0705 19:03:42.587765 23439 net.cpp:411] inception_4c/5x5_reduce -> inception_4c/5x5_reduce
2016-07-05 19:03:42.764 STDERR [INFO] I0705 19:03:42.587919 23439 net.cpp:150] Setting up inception_4c/5x5_reduce
2016-07-05 19:03:42.764 STDERR [INFO] I0705 19:03:42.587930 23439 net.cpp:157] Top shape: 10 24 14 14 (47040)
2016-07-05 19:03:42.764 STDERR [INFO] I0705 19:03:42.587934 23439 net.cpp:165] Memory required for data: 426056960
2016-07-05 19:03:42.764 STDERR [INFO] I0705 19:03:42.587940 23439 layer_factory.hpp:77] Creating layer inception_4c/relu_5x5_reduce
2016-07-05 19:03:42.764 STDERR [INFO] I0705 19:03:42.587947 23439 net.cpp:106] Creating Layer inception_4c/relu_5x5_reduce
2016-07-05 19:03:42.764 STDERR [INFO] I0705 19:03:42.587951 23439 net.cpp:454] inception_4c/relu_5x5_reduce <- inception_4c/5x5_reduce
2016-07-05 19:03:42.764 STDERR [INFO] I0705 19:03:42.587956 23439 net.cpp:397] inception_4c/relu_5x5_reduce -> inception_4c/5x5_reduce (in-place)
2016-07-05 19:03:42.765 STDERR [INFO] I0705 19:03:42.587962 23439 net.cpp:150] Setting up inception_4c/relu_5x5_reduce
2016-07-05 19:03:42.765 STDERR [INFO] I0705 19:03:42.587966 23439 net.cpp:157] Top shape: 10 24 14 14 (47040)
2016-07-05 19:03:42.765 STDERR [INFO] I0705 19:03:42.587970 23439 net.cpp:165] Memory required for data: 426245120
2016-07-05 19:03:42.765 STDERR [INFO] I0705 19:03:42.587972 23439 layer_factory.hpp:77] Creating layer inception_4c/5x5
2016-07-05 19:03:42.765 STDERR [INFO] I0705 19:03:42.587985 23439 net.cpp:106] Creating Layer inception_4c/5x5
2016-07-05 19:03:42.765 STDERR [INFO] I0705 19:03:42.587987 23439 net.cpp:454] inception_4c/5x5 <- inception_4c/5x5_reduce
2016-07-05 19:03:42.765 STDERR [INFO] I0705 19:03:42.587996 23439 net.cpp:411] inception_4c/5x5 -> inception_4c/5x5
2016-07-05 19:03:42.765 STDERR [INFO] I0705 19:03:42.588340 23439 net.cpp:150] Setting up inception_4c/5x5
2016-07-05 19:03:42.765 STDERR [INFO] I0705 19:03:42.588347 23439 net.cpp:157] Top shape: 10 64 14 14 (125440)
2016-07-05 19:03:42.766 STDERR [INFO] I0705 19:03:42.588351 23439 net.cpp:165] Memory required for data: 426746880
2016-07-05 19:03:42.766 STDERR [INFO] I0705 19:03:42.588356 23439 layer_factory.hpp:77] Creating layer inception_4c/relu_5x5
2016-07-05 19:03:42.766 STDERR [INFO] I0705 19:03:42.588362 23439 net.cpp:106] Creating Layer inception_4c/relu_5x5
2016-07-05 19:03:42.766 STDERR [INFO] I0705 19:03:42.588366 23439 net.cpp:454] inception_4c/relu_5x5 <- inception_4c/5x5
2016-07-05 19:03:42.766 STDERR [INFO] I0705 19:03:42.588371 23439 net.cpp:397] inception_4c/relu_5x5 -> inception_4c/5x5 (in-place)
2016-07-05 19:03:42.766 STDERR [INFO] I0705 19:03:42.588378 23439 net.cpp:150] Setting up inception_4c/relu_5x5
2016-07-05 19:03:42.766 STDERR [INFO] I0705 19:03:42.588382 23439 net.cpp:157] Top shape: 10 64 14 14 (125440)
2016-07-05 19:03:42.766 STDERR [INFO] I0705 19:03:42.588385 23439 net.cpp:165] Memory required for data: 427248640
2016-07-05 19:03:42.767 STDERR [INFO] I0705 19:03:42.588388 23439 layer_factory.hpp:77] Creating layer inception_4c/pool
2016-07-05 19:03:42.767 STDERR [INFO] I0705 19:03:42.588394 23439 net.cpp:106] Creating Layer inception_4c/pool
2016-07-05 19:03:42.767 STDERR [INFO] I0705 19:03:42.588398 23439 net.cpp:454] inception_4c/pool <- inception_4b/output_inception_4b/output_0_split_3
2016-07-05 19:03:42.767 STDERR [INFO] I0705 19:03:42.588403 23439 net.cpp:411] inception_4c/pool -> inception_4c/pool
2016-07-05 19:03:42.767 STDERR [INFO] I0705 19:03:42.588412 23439 net.cpp:150] Setting up inception_4c/pool
2016-07-05 19:03:42.767 STDERR [INFO] I0705 19:03:42.588415 23439 net.cpp:157] Top shape: 10 512 14 14 (1003520)
2016-07-05 19:03:42.767 STDERR [INFO] I0705 19:03:42.588418 23439 net.cpp:165] Memory required for data: 431262720
2016-07-05 19:03:42.767 STDERR [INFO] I0705 19:03:42.588420 23439 layer_factory.hpp:77] Creating layer inception_4c/pool_proj
2016-07-05 19:03:42.767 STDERR [INFO] I0705 19:03:42.588433 23439 net.cpp:106] Creating Layer inception_4c/pool_proj
2016-07-05 19:03:42.768 STDERR [INFO] I0705 19:03:42.588439 23439 net.cpp:454] inception_4c/pool_proj <- inception_4c/pool
2016-07-05 19:03:42.768 STDERR [INFO] I0705 19:03:42.588444 23439 net.cpp:411] inception_4c/pool_proj -> inception_4c/pool_proj
2016-07-05 19:03:42.768 STDERR [INFO] I0705 19:03:42.588737 23439 net.cpp:150] Setting up inception_4c/pool_proj
2016-07-05 19:03:42.768 STDERR [INFO] I0705 19:03:42.588742 23439 net.cpp:157] Top shape: 10 64 14 14 (125440)
2016-07-05 19:03:42.768 STDERR [INFO] I0705 19:03:42.588745 23439 net.cpp:165] Memory required for data: 431764480
2016-07-05 19:03:42.768 STDERR [INFO] I0705 19:03:42.588768 23439 layer_factory.hpp:77] Creating layer inception_4c/relu_pool_proj
2016-07-05 19:03:42.768 STDERR [INFO] I0705 19:03:42.588774 23439 net.cpp:106] Creating Layer inception_4c/relu_pool_proj
2016-07-05 19:03:42.768 STDERR [INFO] I0705 19:03:42.588778 23439 net.cpp:454] inception_4c/relu_pool_proj <- inception_4c/pool_proj
2016-07-05 19:03:42.769 STDERR [INFO] I0705 19:03:42.588783 23439 net.cpp:397] inception_4c/relu_pool_proj -> inception_4c/pool_proj (in-place)
2016-07-05 19:03:42.769 STDERR [INFO] I0705 19:03:42.588788 23439 net.cpp:150] Setting up inception_4c/relu_pool_proj
2016-07-05 19:03:42.769 STDERR [INFO] I0705 19:03:42.588793 23439 net.cpp:157] Top shape: 10 64 14 14 (125440)
2016-07-05 19:03:42.769 STDERR [INFO] I0705 19:03:42.588795 23439 net.cpp:165] Memory required for data: 432266240
2016-07-05 19:03:42.769 STDERR [INFO] I0705 19:03:42.588798 23439 layer_factory.hpp:77] Creating layer inception_4c/output
2016-07-05 19:03:42.769 STDERR [INFO] I0705 19:03:42.588806 23439 net.cpp:106] Creating Layer inception_4c/output
2016-07-05 19:03:42.769 STDERR [INFO] I0705 19:03:42.588809 23439 net.cpp:454] inception_4c/output <- inception_4c/1x1
2016-07-05 19:03:42.769 STDERR [INFO] I0705 19:03:42.588814 23439 net.cpp:454] inception_4c/output <- inception_4c/3x3
2016-07-05 19:03:42.769 STDERR [INFO] I0705 19:03:42.588817 23439 net.cpp:454] inception_4c/output <- inception_4c/5x5
2016-07-05 19:03:42.770 STDERR [INFO] I0705 19:03:42.588821 23439 net.cpp:454] inception_4c/output <- inception_4c/pool_proj
2016-07-05 19:03:42.770 STDERR [INFO] I0705 19:03:42.588825 23439 net.cpp:411] inception_4c/output -> inception_4c/output
2016-07-05 19:03:42.770 STDERR [INFO] I0705 19:03:42.588832 23439 net.cpp:150] Setting up inception_4c/output
2016-07-05 19:03:42.770 STDERR [INFO] I0705 19:03:42.588840 23439 net.cpp:157] Top shape: 10 512 14 14 (1003520)
2016-07-05 19:03:42.770 STDERR [INFO] I0705 19:03:42.588842 23439 net.cpp:165] Memory required for data: 436280320
2016-07-05 19:03:42.770 STDERR [INFO] I0705 19:03:42.588846 23439 layer_factory.hpp:77] Creating layer inception_4c/output_inception_4c/output_0_split
2016-07-05 19:03:42.770 STDERR [INFO] I0705 19:03:42.588852 23439 net.cpp:106] Creating Layer inception_4c/output_inception_4c/output_0_split
…
2016-07-05 19:03:42.771 STDERR [INFO] I0705 19:03:42.588866 23439 net.cpp:411] inception_4c/output_inception_4c/output_0_split -> inception_4c/output_inception_4c/output_0_split_1
2016-07-05 19:03:42.771 STDERR [INFO] I0705 19:03:42.588871 23439 net.cpp:411] inception_4c/output_inception_4c/output_0_split -> inception_4c/output_inception_4c/output_0_split_2
2016-07-05 19:03:42.771 STDERR [INFO] I0705 19:03:42.588876 23439 net.cpp:411] inception_4c/output_inception_4c/output_0_split -> inception_4c/output_inception_4c/output_0_split_3
2016-07-05 19:03:42.771 STDERR [INFO] I0705 19:03:42.588886 23439 net.cpp:150] Setting up inception_4c/output_inception_4c/output_0_split
2016-07-05 19:03:42.771 STDERR [INFO] I0705 19:03:42.588891 23439 net.cpp:157] Top shape: 10 512 14 14 (1003520)
2016-07-05 19:03:42.771 STDERR [INFO] I0705 19:03:42.588894 23439 net.cpp:157] Top shape: 10 512 14 14 (1003520)
2016-07-05 19:03:42.771 STDERR [INFO] I0705 19:03:42.588897 23439 net.cpp:157] Top shape: 10 512 14 14 (1003520)
2016-07-05 19:03:42.771 STDERR [INFO] I0705 19:03:42.588901 23439 net.cpp:157] Top shape: 10 512 14 14 (1003520)
2016-07-05 19:03:42.771 STDERR [INFO] I0705 19:03:42.588903 23439 net.cpp:165] Memory required for data: 452336640
2016-07-05 19:03:42.772 STDERR [INFO] I0705 19:03:42.588907 23439 layer_factory.hpp:77] Creating layer inception_4d/1x1
2016-07-05 19:03:42.772 STDERR [INFO] I0705 19:03:42.588917 23439 net.cpp:106] Creating Layer inception_4d/1x1
2016-07-05 19:03:42.772 STDERR [INFO] I0705 19:03:42.588920 23439 net.cpp:454] inception_4d/1x1 <- inception_4c/output_inception_4c/output_0_split_0
2016-07-05 19:03:42.772 STDERR [INFO] I0705 19:03:42.588925 23439 net.cpp:411] inception_4d/1x1 -> inception_4d/1x1
2016-07-05 19:03:42.772 STDERR [INFO] I0705 19:03:42.589421 23439 net.cpp:150] Setting up inception_4d/1x1
2016-07-05 19:03:42.772 STDERR [INFO] I0705 19:03:42.589426 23439 net.cpp:157] Top shape: 10 112 14 14 (219520)
2016-07-05 19:03:42.772 STDERR [INFO] I0705 19:03:42.589429 23439 net.cpp:165] Memory required for data: 453214720
2016-07-05 19:03:42.772 STDERR [INFO] I0705 19:03:42.589435 23439 layer_factory.hpp:77] Creating layer inception_4d/relu_1x1
2016-07-05 19:03:42.772 STDERR [INFO] I0705 19:03:42.589447 23439 net.cpp:106] Creating Layer inception_4d/relu_1x1
2016-07-05 19:03:42.773 STDERR [INFO] I0705 19:03:42.589449 23439 net.cpp:454] inception_4d/relu_1x1 <- inception_4d/1x1
2016-07-05 19:03:42.773 STDERR [INFO] I0705 19:03:42.589454 23439 net.cpp:397] inception_4d/relu_1x1 -> inception_4d/1x1 (in-place)
2016-07-05 19:03:42.773 STDERR [INFO] I0705 19:03:42.589459 23439 net.cpp:150] Setting up inception_4d/relu_1x1
2016-07-05 19:03:42.773 STDERR [INFO] I0705 19:03:42.589463 23439 net.cpp:157] Top shape: 10 112 14 14 (219520)
2016-07-05 19:03:42.773 STDERR [INFO] I0705 19:03:42.589467 23439 net.cpp:165] Memory required for data: 454092800
2016-07-05 19:03:42.773 STDERR [INFO] I0705 19:03:42.589469 23439 layer_factory.hpp:77] Creating layer inception_4d/3x3_reduce
2016-07-05 19:03:42.773 STDERR [INFO] I0705 19:03:42.589479 23439 net.cpp:106] Creating Layer inception_4d/3x3_reduce
2016-07-05 19:03:42.773 STDERR [INFO] I0705 19:03:42.589483 23439 net.cpp:454] inception_4d/3x3_reduce <- inception_4c/output_inception_4c/output_0_split_1
2016-07-05 19:03:42.773 STDERR [INFO] I0705 19:03:42.589490 23439 net.cpp:411] inception_4d/3x3_reduce -> inception_4d/3x3_reduce
2016-07-05 19:03:42.774 STDERR [INFO] I0705 19:03:42.590122 23439 net.cpp:150] Setting up inception_4d/3x3_reduce
2016-07-05 19:03:42.774 STDERR [INFO] I0705 19:03:42.590129 23439 net.cpp:157] Top shape: 10 144 14 14 (282240)
2016-07-05 19:03:42.774 STDERR [INFO] I0705 19:03:42.654006 23439 net.cpp:165] Memory required for data: 455221760
2016-07-05 19:03:42.774 STDERR [INFO] I0705 19:03:42.654021 23439 layer_factory.hpp:77] Creating layer inception_4d/relu_3x3_reduce
2016-07-05 19:03:42.774 STDERR [INFO] I0705 19:03:42.654031 23439 net.cpp:106] Creating Layer inception_4d/relu_3x3_reduce
2016-07-05 19:03:42.774 STDERR [INFO] I0705 19:03:42.654036 23439 net.cpp:454] inception_4d/relu_3x3_reduce <- inception_4d/3x3_reduce
2016-07-05 19:03:42.774 STDERR [INFO] I0705 19:03:42.654047 23439 net.cpp:397] inception_4d/relu_3x3_reduce -> inception_4d/3x3_reduce (in-place)
2016-07-05 19:03:42.775 STDERR [INFO] I0705 19:03:42.654055 23439 net.cpp:150] Setting up inception_4d/relu_3x3_reduce
2016-07-05 19:03:42.775 STDERR [INFO] I0705 19:03:42.654060 23439 net.cpp:157] Top shape: 10 144 14 14 (282240)
2016-07-05 19:03:42.775 STDERR [INFO] I0705 19:03:42.654063 23439 net.cpp:165] Memory required for data: 456350720
2016-07-05 19:03:42.775 STDERR [INFO] I0705 19:03:42.654067 23439 layer_factory.hpp:77] Creating layer inception_4d/3x3
2016-07-05 19:03:42.775 STDERR [INFO] I0705 19:03:42.654498 23439 net.cpp:106] Creating Layer inception_4d/3x3
2016-07-05 19:03:42.775 STDERR [INFO] I0705 19:03:42.654511 23439 net.cpp:454] inception_4d/3x3 <- inception_4d/3x3_reduce
2016-07-05 19:03:42.775 STDERR [INFO] I0705 19:03:42.654522 23439 net.cpp:411] inception_4d/3x3 -> inception_4d/3x3
2016-07-05 19:03:42.775 STDERR [INFO] I0705 19:03:42.657672 23439 net.cpp:150] Setting up inception_4d/3x3
2016-07-05 19:03:42.776 STDERR [INFO] I0705 19:03:42.657682 23439 net.cpp:157] Top shape: 10 288 14 14 (564480)
2016-07-05 19:03:42.776 STDERR [INFO] I0705 19:03:42.657685 23439 net.cpp:165] Memory required for data: 458608640
2016-07-05 19:03:42.776 STDERR [INFO] I0705 19:03:42.657692 23439 layer_factory.hpp:77] Creating layer inception_4d/relu_3x3
2016-07-05 19:03:42.776 STDERR [INFO] I0705 19:03:42.657701 23439 net.cpp:106] Creating Layer inception_4d/relu_3x3
2016-07-05 19:03:42.776 STDERR [INFO] I0705 19:03:42.657704 23439 net.cpp:454] inception_4d/relu_3x3 <- inception_4d/3x3
2016-07-05 19:03:42.776 STDERR [INFO] I0705 19:03:42.657709 23439 net.cpp:397] inception_4d/relu_3x3 -> inception_4d/3x3 (in-place)
2016-07-05 19:03:42.776 STDERR [INFO] I0705 19:03:42.657716 23439 net.cpp:150] Setting up inception_4d/relu_3x3
2016-07-05 19:03:42.776 STDERR [INFO] I0705 19:03:42.657719 23439 net.cpp:157] Top shape: 10 288 14 14 (564480)
2016-07-05 19:03:42.776 STDERR [INFO] I0705 19:03:42.657722 23439 net.cpp:165] Memory required for data: 460866560
2016-07-05 19:03:42.777 STDERR [INFO] I0705 19:03:42.657726 23439 layer_factory.hpp:77] Creating layer inception_4d/5x5_reduce
2016-07-05 19:03:42.777 STDERR [INFO] I0705 19:03:42.657737 23439 net.cpp:106] Creating Layer inception_4d/5x5_reduce
2016-07-05 19:03:42.777 STDERR [INFO] I0705 19:03:42.657742 23439 net.cpp:454] inception_4d/5x5_reduce <- inception_4c/output_inception_4c/output_0_split_2
2016-07-05 19:03:42.777 STDERR [INFO] I0705 19:03:42.657750 23439 net.cpp:411] inception_4d/5x5_reduce -> inception_4d/5x5_reduce
2016-07-05 19:03:42.777 STDERR [INFO] I0705 19:03:42.657905 23439 net.cpp:150] Setting up inception_4d/5x5_reduce
2016-07-05 19:03:42.777 STDERR [INFO] I0705 19:03:42.657912 23439 net.cpp:157] Top shape: 10 32 14 14 (62720)
2016-07-05 19:03:42.778 STDERR [INFO] I0705 19:03:42.657914 23439 net.cpp:165] Memory required for data: 461117440
2016-07-05 19:03:42.778 STDERR [INFO] I0705 19:03:42.657919 23439 layer_factory.hpp:77] Creating layer inception_4d/relu_5x5_reduce
2016-07-05 19:03:42.778 STDERR [INFO] I0705 19:03:42.657925 23439 net.cpp:106] Creating Layer inception_4d/relu_5x5_reduce
2016-07-05 19:03:42.778 STDERR [INFO] I0705 19:03:42.657929 23439 net.cpp:454] inception_4d/relu_5x5_reduce <- inception_4d/5x5_reduce
2016-07-05 19:03:42.778 STDERR [INFO] I0705 19:03:42.657935 23439 net.cpp:397] inception_4d/relu_5x5_reduce -> inception_4d/5x5_reduce (in-place)
2016-07-05 19:03:42.778 STDERR [INFO] I0705 19:03:42.657940 23439 net.cpp:150] Setting up inception_4d/relu_5x5_reduce
2016-07-05 19:03:42.778 STDERR [INFO] I0705 19:03:42.657945 23439 net.cpp:157] Top shape: 10 32 14 14 (62720)
2016-07-05 19:03:42.778 STDERR [INFO] I0705 19:03:42.657948 23439 net.cpp:165] Memory required for data: 461368320
2016-07-05 19:03:42.778 STDERR [INFO] I0705 19:03:42.657950 23439 layer_factory.hpp:77] Creating layer inception_4d/5x5
2016-07-05 19:03:42.779 STDERR [INFO] I0705 19:03:42.657959 23439 net.cpp:106] Creating Layer inception_4d/5x5
2016-07-05 19:03:42.779 STDERR [INFO] I0705 19:03:42.657963 23439 net.cpp:454] inception_4d/5x5 <- inception_4d/5x5_reduce
2016-07-05 19:03:42.779 STDERR [INFO] I0705 19:03:42.657970 23439 net.cpp:411] inception_4d/5x5 -> inception_4d/5x5
2016-07-05 19:03:42.779 STDERR [INFO] I0705 19:03:42.658418 23439 net.cpp:150] Setting up inception_4d/5x5
2016-07-05 19:03:42.779 STDERR [INFO] I0705 19:03:42.658424 23439 net.cpp:157] Top shape: 10 64 14 14 (125440)
2016-07-05 19:03:42.779 STDERR [INFO] I0705 19:03:42.658427 23439 net.cpp:165] Memory required for data: 461870080
2016-07-05 19:03:42.779 STDERR [INFO] I0705 19:03:42.658433 23439 layer_factory.hpp:77] Creating layer inception_4d/relu_5x5
2016-07-05 19:03:42.779 STDERR [INFO] I0705 19:03:42.658438 23439 net.cpp:106] Creating Layer inception_4d/relu_5x5
2016-07-05 19:03:42.779 STDERR [INFO] I0705 19:03:42.658443 23439 net.cpp:454] inception_4d/relu_5x5 <- inception_4d/5x5
2016-07-05 19:03:42.780 STDERR [INFO] I0705 19:03:42.658448 23439 net.cpp:397] inception_4d/relu_5x5 -> inception_4d/5x5 (in-place)
2016-07-05 19:03:42.780 STDERR [INFO] I0705 19:03:42.658453 23439 net.cpp:150] Setting up inception_4d/relu_5x5
2016-07-05 19:03:42.780 STDERR [INFO] I0705 19:03:42.658457 23439 net.cpp:157] Top shape: 10 64 14 14 (125440)
2016-07-05 19:03:42.780 STDERR [INFO] I0705 19:03:42.658460 23439 net.cpp:165] Memory required for data: 462371840
2016-07-05 19:03:42.780 STDERR [INFO] I0705 19:03:42.658463 23439 layer_factory.hpp:77] Creating layer inception_4d/pool
2016-07-05 19:03:42.780 STDERR [INFO] I0705 19:03:42.658470 23439 net.cpp:106] Creating Layer inception_4d/pool
2016-07-05 19:03:42.780 STDERR [INFO] I0705 19:03:42.658473 23439 net.cpp:454] inception_4d/pool <- inception_4c/output_inception_4c/output_0_split_3
2016-07-05 19:03:42.780 STDERR [INFO] I0705 19:03:42.658479 23439 net.cpp:411] inception_4d/pool -> inception_4d/pool
2016-07-05 19:03:42.780 STDERR [INFO] I0705 19:03:42.658489 23439 net.cpp:150] Setting up inception_4d/pool
2016-07-05 19:03:42.781 STDERR [INFO] I0705 19:03:42.658494 23439 net.cpp:157] Top shape: 10 512 14 14 (1003520)
2016-07-05 19:03:42.781 STDERR [INFO] I0705 19:03:42.658496 23439 net.cpp:165] Memory required for data: 466385920
2016-07-05 19:03:42.781 STDERR [INFO] I0705 19:03:42.658499 23439 layer_factory.hpp:77] Creating layer inception_4d/pool_proj
2016-07-05 19:03:42.781 STDERR [INFO] I0705 19:03:42.658509 23439 net.cpp:106] Creating Layer inception_4d/pool_proj
2016-07-05 19:03:42.781 STDERR [INFO] I0705 19:03:42.658512 23439 net.cpp:454] inception_4d/pool_proj <- inception_4d/pool
2016-07-05 19:03:42.781 STDERR [INFO] I0705 19:03:42.658519 23439 net.cpp:411] inception_4d/pool_proj -> inception_4d/pool_proj
2016-07-05 19:03:42.781 STDERR [INFO] I0705 19:03:42.658812 23439 net.cpp:150] Setting up inception_4d/pool_proj
2016-07-05 19:03:42.781 STDERR [INFO] I0705 19:03:42.658819 23439 net.cpp:157] Top shape: 10 64 14 14 (125440)
2016-07-05 19:03:42.781 STDERR [INFO] I0705 19:03:42.658823 23439 net.cpp:165] Memory required for data: 466887680
2016-07-05 19:03:42.781 STDERR [INFO] I0705 19:03:42.658828 23439 layer_factory.hpp:77] Creating layer inception_4d/relu_pool_proj
2016-07-05 19:03:42.782 STDERR [INFO] I0705 19:03:42.658836 23439 net.cpp:106] Creating Layer inception_4d/relu_pool_proj
2016-07-05 19:03:42.782 STDERR [INFO] I0705 19:03:42.658840 23439 net.cpp:454] inception_4d/relu_pool_proj <- inception_4d/pool_proj
2016-07-05 19:03:42.782 STDERR [INFO] I0705 19:03:42.658845 23439 net.cpp:397] inception_4d/relu_pool_proj -> inception_4d/pool_proj (in-place)
2016-07-05 19:03:42.782 STDERR [INFO] I0705 19:03:42.658851 23439 net.cpp:150] Setting up inception_4d/relu_pool_proj
2016-07-05 19:03:42.782 STDERR [INFO] I0705 19:03:42.658855 23439 net.cpp:157] Top shape: 10 64 14 14 (125440)
2016-07-05 19:03:42.782 STDERR [INFO] I0705 19:03:42.658859 23439 net.cpp:165] Memory required for data: 467389440
2016-07-05 19:03:42.782 STDERR [INFO] I0705 19:03:42.658861 23439 layer_factory.hpp:77] Creating layer inception_4d/output
2016-07-05 19:03:42.782 STDERR [INFO] I0705 19:03:42.658869 23439 net.cpp:106] Creating Layer inception_4d/output
2016-07-05 19:03:42.782 STDERR [INFO] I0705 19:03:42.658874 23439 net.cpp:454] inception_4d/output <- inception_4d/1x1
2016-07-05 19:03:42.782 STDERR [INFO] I0705 19:03:42.658877 23439 net.cpp:454] inception_4d/output <- inception_4d/3x3
2016-07-05 19:03:42.783 STDERR [INFO] I0705 19:03:42.658881 23439 net.cpp:454] inception_4d/output <- inception_4d/5x5
2016-07-05 19:03:42.783 STDERR [INFO] I0705 19:03:42.658885 23439 net.cpp:454] inception_4d/output <- inception_4d/pool_proj
2016-07-05 19:03:42.783 STDERR [INFO] I0705 19:03:42.658890 23439 net.cpp:411] inception_4d/output -> inception_4d/output
2016-07-05 19:03:42.783 STDERR [INFO] I0705 19:03:42.658896 23439 net.cpp:150] Setting up inception_4d/output
2016-07-05 19:03:42.783 STDERR [INFO] I0705 19:03:42.658901 23439 net.cpp:157] Top shape: 10 528 14 14 (1034880)
2016-07-05 19:03:42.783 STDERR [INFO] I0705 19:03:42.658903 23439 net.cpp:165] Memory required for data: 471528960
2016-07-05 19:03:42.783 STDERR [INFO] I0705 19:03:42.658907 23439 layer_factory.hpp:77] Creating layer inception_4d/output_inception_4d/output_0_split
2016-07-05 19:03:42.783 STDERR [INFO] I0705 19:03:42.658913 23439 net.cpp:106] Creating Layer inception_4d/output_inception_4d/output_0_split
…
2016-07-05 19:03:42.784 STDERR [INFO] I0705 19:03:42.658931 23439 net.cpp:411] inception_4d/output_inception_4d/output_0_split -> inception_4d/output_inception_4d/output_0_split_1
2016-07-05 19:03:42.784 STDERR [INFO] I0705 19:03:42.658936 23439 net.cpp:411] inception_4d/output_inception_4d/output_0_split -> inception_4d/output_inception_4d/output_0_split_2
2016-07-05 19:03:42.784 STDERR [INFO] I0705 19:03:42.658941 23439 net.cpp:411] inception_4d/output_inception_4d/output_0_split -> inception_4d/output_inception_4d/output_0_split_3
2016-07-05 19:03:42.784 STDERR [INFO] I0705 19:03:42.658948 23439 net.cpp:150] Setting up inception_4d/output_inception_4d/output_0_split
2016-07-05 19:03:42.784 STDERR [INFO] I0705 19:03:42.658954 23439 net.cpp:157] Top shape: 10 528 14 14 (1034880)
2016-07-05 19:03:42.784 STDERR [INFO] I0705 19:03:42.658958 23439 net.cpp:157] Top shape: 10 528 14 14 (1034880)
2016-07-05 19:03:42.784 STDERR [INFO] I0705 19:03:42.658962 23439 net.cpp:157] Top shape: 10 528 14 14 (1034880)
2016-07-05 19:03:42.784 STDERR [INFO] I0705 19:03:42.658965 23439 net.cpp:157] Top shape: 10 528 14 14 (1034880)
2016-07-05 19:03:42.784 STDERR [INFO] I0705 19:03:42.658967 23439 net.cpp:165] Memory required for data: 488087040
2016-07-05 19:03:42.784 STDERR [INFO] I0705 19:03:42.658970 23439 layer_factory.hpp:77] Creating layer inception_4e/1x1
2016-07-05 19:03:42.785 STDERR [INFO] I0705 19:03:42.699790 23439 net.cpp:106] Creating Layer inception_4e/1x1
2016-07-05 19:03:42.785 STDERR [INFO] I0705 19:03:42.699810 23439 net.cpp:454] inception_4e/1x1 <- inception_4d/output_inception_4d/output_0_split_0
2016-07-05 19:03:42.785 STDERR [INFO] I0705 19:03:42.699825 23439 net.cpp:411] inception_4e/1x1 -> inception_4e/1x1
2016-07-05 19:03:42.785 STDERR [INFO] I0705 19:03:42.701108 23439 net.cpp:150] Setting up inception_4e/1x1
2016-07-05 19:03:42.785 STDERR [INFO] I0705 19:03:42.701118 23439 net.cpp:157] Top shape: 10 256 14 14 (501760)
2016-07-05 19:03:42.785 STDERR [INFO] I0705 19:03:42.701122 23439 net.cpp:165] Memory required for data: 490094080
2016-07-05 19:03:42.785 STDERR [INFO] I0705 19:03:42.701129 23439 layer_factory.hpp:77] Creating layer inception_4e/relu_1x1
2016-07-05 19:03:42.785 STDERR [INFO] I0705 19:03:42.701136 23439 net.cpp:106] Creating Layer inception_4e/relu_1x1
2016-07-05 19:03:42.785 STDERR [INFO] I0705 19:03:42.701141 23439 net.cpp:454] inception_4e/relu_1x1 <- inception_4e/1x1
2016-07-05 19:03:42.785 STDERR [INFO] I0705 19:03:42.701146 23439 net.cpp:397] inception_4e/relu_1x1 -> inception_4e/1x1 (in-place)
2016-07-05 19:03:42.785 STDERR [INFO] I0705 19:03:42.701153 23439 net.cpp:150] Setting up inception_4e/relu_1x1
2016-07-05 19:03:42.786 STDERR [INFO] I0705 19:03:42.701156 23439 net.cpp:157] Top shape: 10 256 14 14 (501760)
2016-07-05 19:03:42.786 STDERR [INFO] I0705 19:03:42.701159 23439 net.cpp:165] Memory required for data: 492101120
2016-07-05 19:03:42.786 STDERR [INFO] I0705 19:03:42.701162 23439 layer_factory.hpp:77] Creating layer inception_4e/3x3_reduce
2016-07-05 19:03:42.786 STDERR [INFO] I0705 19:03:42.701174 23439 net.cpp:106] Creating Layer inception_4e/3x3_reduce
2016-07-05 19:03:42.786 STDERR [INFO] I0705 19:03:42.701179 23439 net.cpp:454] inception_4e/3x3_reduce <- inception_4d/output_inception_4d/output_0_split_1
2016-07-05 19:03:42.786 STDERR [INFO] I0705 19:03:42.701186 23439 net.cpp:411] inception_4e/3x3_reduce -> inception_4e/3x3_reduce
2016-07-05 19:03:42.786 STDERR [INFO] I0705 19:03:42.701915 23439 net.cpp:150] Setting up inception_4e/3x3_reduce
2016-07-05 19:03:42.786 STDERR [INFO] I0705 19:03:42.701921 23439 net.cpp:157] Top shape: 10 160 14 14 (313600)
2016-07-05 19:03:42.786 STDERR [INFO] I0705 19:03:42.701925 23439 net.cpp:165] Memory required for data: 493355520
2016-07-05 19:03:42.786 STDERR [INFO] I0705 19:03:42.701930 23439 layer_factory.hpp:77] Creating layer inception_4e/relu_3x3_reduce
2016-07-05 19:03:42.787 STDERR [INFO] I0705 19:03:42.701936 23439 net.cpp:106] Creating Layer inception_4e/relu_3x3_reduce
2016-07-05 19:03:42.787 STDERR [INFO] I0705 19:03:42.701939 23439 net.cpp:454] inception_4e/relu_3x3_reduce <- inception_4e/3x3_reduce
2016-07-05 19:03:42.787 STDERR [INFO] I0705 19:03:42.701946 23439 net.cpp:397] inception_4e/relu_3x3_reduce -> inception_4e/3x3_reduce (in-place)
2016-07-05 19:03:42.787 STDERR [INFO] I0705 19:03:42.701951 23439 net.cpp:150] Setting up inception_4e/relu_3x3_reduce
2016-07-05 19:03:42.787 STDERR [INFO] I0705 19:03:42.701956 23439 net.cpp:157] Top shape: 10 160 14 14 (313600)
2016-07-05 19:03:42.787 STDERR [INFO] I0705 19:03:42.701958 23439 net.cpp:165] Memory required for data: 494609920
2016-07-05 19:03:42.787 STDERR [INFO] I0705 19:03:42.701961 23439 layer_factory.hpp:77] Creating layer inception_4e/3x3
2016-07-05 19:03:42.787 STDERR [INFO] I0705 19:03:42.701972 23439 net.cpp:106] Creating Layer inception_4e/3x3
2016-07-05 19:03:42.787 STDERR [INFO] I0705 19:03:42.701977 23439 net.cpp:454] inception_4e/3x3 <- inception_4e/3x3_reduce
2016-07-05 19:03:42.787 STDERR [INFO] I0705 19:03:42.701982 23439 net.cpp:411] inception_4e/3x3 -> inception_4e/3x3
2016-07-05 19:03:42.787 STDERR [INFO] I0705 19:03:42.705868 23439 net.cpp:150] Setting up inception_4e/3x3
2016-07-05 19:03:42.788 STDERR [INFO] I0705 19:03:42.705874 23439 net.cpp:157] Top shape: 10 320 14 14 (627200)
2016-07-05 19:03:42.788 STDERR [INFO] I0705 19:03:42.705878 23439 net.cpp:165] Memory required for data: 497118720
2016-07-05 19:03:42.788 STDERR [INFO] I0705 19:03:42.705883 23439 layer_factory.hpp:77] Creating layer inception_4e/relu_3x3
2016-07-05 19:03:42.788 STDERR [INFO] I0705 19:03:42.705889 23439 net.cpp:106] Creating Layer inception_4e/relu_3x3
2016-07-05 19:03:42.788 STDERR [INFO] I0705 19:03:42.705893 23439 net.cpp:454] inception_4e/relu_3x3 <- inception_4e/3x3
2016-07-05 19:03:42.788 STDERR [INFO] I0705 19:03:42.705898 23439 net.cpp:397] inception_4e/relu_3x3 -> inception_4e/3x3 (in-place)
2016-07-05 19:03:42.788 STDERR [INFO] I0705 19:03:42.705902 23439 net.cpp:150] Setting up inception_4e/relu_3x3
2016-07-05 19:03:42.788 STDERR [INFO] I0705 19:03:42.705906 23439 net.cpp:157] Top shape: 10 320 14 14 (627200)
2016-07-05 19:03:42.788 STDERR [INFO] I0705 19:03:42.705909 23439 net.cpp:165] Memory required for data: 499627520
2016-07-05 19:03:42.789 STDERR [INFO] I0705 19:03:42.705912 23439 layer_factory.hpp:77] Creating layer inception_4e/5x5_reduce
2016-07-05 19:03:42.789 STDERR [INFO] I0705 19:03:42.705924 23439 net.cpp:106] Creating Layer inception_4e/5x5_reduce
2016-07-05 19:03:42.789 STDERR [INFO] I0705 19:03:42.705927 23439 net.cpp:454] inception_4e/5x5_reduce <- inception_4d/output_inception_4d/output_0_split_2
2016-07-05 19:03:42.789 STDERR [INFO] I0705 19:03:42.705935 23439 net.cpp:411] inception_4e/5x5_reduce -> inception_4e/5x5_reduce
2016-07-05 19:03:42.789 STDERR [INFO] I0705 19:03:42.706094 23439 net.cpp:150] Setting up inception_4e/5x5_reduce
2016-07-05 19:03:42.789 STDERR [INFO] I0705 19:03:42.706099 23439 net.cpp:157] Top shape: 10 32 14 14 (62720)
2016-07-05 19:03:42.789 STDERR [INFO] I0705 19:03:42.706102 23439 net.cpp:165] Memory required for data: 499878400
2016-07-05 19:03:42.789 STDERR [INFO] I0705 19:03:42.706109 23439 layer_factory.hpp:77] Creating layer inception_4e/relu_5x5_reduce
2016-07-05 19:03:42.789 STDERR [INFO] I0705 19:03:42.706117 23439 net.cpp:106] Creating Layer inception_4e/relu_5x5_reduce
2016-07-05 19:03:42.789 STDERR [INFO] I0705 19:03:42.706120 23439 net.cpp:454] inception_4e/relu_5x5_reduce <- inception_4e/5x5_reduce
2016-07-05 19:03:42.789 STDERR [INFO] I0705 19:03:42.706126 23439 net.cpp:397] inception_4e/relu_5x5_reduce -> inception_4e/5x5_reduce (in-place)
2016-07-05 19:03:42.790 STDERR [INFO] I0705 19:03:42.706132 23439 net.cpp:150] Setting up inception_4e/relu_5x5_reduce
2016-07-05 19:03:42.790 STDERR [INFO] I0705 19:03:42.706136 23439 net.cpp:157] Top shape: 10 32 14 14 (62720)
2016-07-05 19:03:42.790 STDERR [INFO] I0705 19:03:42.706138 23439 net.cpp:165] Memory required for data: 500129280
2016-07-05 19:03:42.790 STDERR [INFO] I0705 19:03:42.706141 23439 layer_factory.hpp:77] Creating layer inception_4e/5x5
2016-07-05 19:03:42.790 STDERR [INFO] I0705 19:03:42.706151 23439 net.cpp:106] Creating Layer inception_4e/5x5
2016-07-05 19:03:42.790 STDERR [INFO] I0705 19:03:42.706153 23439 net.cpp:454] inception_4e/5x5 <- inception_4e/5x5_reduce
2016-07-05 19:03:42.790 STDERR [INFO] I0705 19:03:42.706161 23439 net.cpp:411] inception_4e/5x5 -> inception_4e/5x5
2016-07-05 19:03:42.790 STDERR [INFO] I0705 19:03:42.707036 23439 net.cpp:150] Setting up inception_4e/5x5
2016-07-05 19:03:42.790 STDERR [INFO] I0705 19:03:42.707043 23439 net.cpp:157] Top shape: 10 128 14 14 (250880)
2016-07-05 19:03:42.790 STDERR [INFO] I0705 19:03:42.707046 23439 net.cpp:165] Memory required for data: 501132800
2016-07-05 19:03:42.790 STDERR [INFO] I0705 19:03:42.707051 23439 layer_factory.hpp:77] Creating layer inception_4e/relu_5x5
2016-07-05 19:03:42.791 STDERR [INFO] I0705 19:03:42.707058 23439 net.cpp:106] Creating Layer inception_4e/relu_5x5
2016-07-05 19:03:42.791 STDERR [INFO] I0705 19:03:42.707062 23439 net.cpp:454] inception_4e/relu_5x5 <- inception_4e/5x5
2016-07-05 19:03:42.791 STDERR [INFO] I0705 19:03:42.707067 23439 net.cpp:397] inception_4e/relu_5x5 -> inception_4e/5x5 (in-place)
2016-07-05 19:03:42.791 STDERR [INFO] I0705 19:03:42.707072 23439 net.cpp:150] Setting up inception_4e/relu_5x5
2016-07-05 19:03:42.791 STDERR [INFO] I0705 19:03:42.707077 23439 net.cpp:157] Top shape: 10 128 14 14 (250880)
2016-07-05 19:03:42.791 STDERR [INFO] I0705 19:03:42.707078 23439 net.cpp:165] Memory required for data: 502136320
2016-07-05 19:03:42.791 STDERR [INFO] I0705 19:03:42.707082 23439 layer_factory.hpp:77] Creating layer inception_4e/pool
2016-07-05 19:03:42.791 STDERR [INFO] I0705 19:03:42.707087 23439 net.cpp:106] Creating Layer inception_4e/pool
2016-07-05 19:03:42.791 STDERR [INFO] I0705 19:03:42.707092 23439 net.cpp:454] inception_4e/pool <- inception_4d/output_inception_4d/output_0_split_3
2016-07-05 19:03:42.791 STDERR [INFO] I0705 19:03:42.707099 23439 net.cpp:411] inception_4e/pool -> inception_4e/pool
2016-07-05 19:03:42.792 STDERR [INFO] I0705 19:03:42.707108 23439 net.cpp:150] Setting up inception_4e/pool
2016-07-05 19:03:42.792 STDERR [INFO] I0705 19:03:42.707113 23439 net.cpp:157] Top shape: 10 528 14 14 (1034880)
2016-07-05 19:03:42.792 STDERR [INFO] I0705 19:03:42.707115 23439 net.cpp:165] Memory required for data: 506275840
2016-07-05 19:03:42.792 STDERR [INFO] I0705 19:03:42.707118 23439 layer_factory.hpp:77] Creating layer inception_4e/pool_proj
2016-07-05 19:03:42.792 STDERR [INFO] I0705 19:03:42.707129 23439 net.cpp:106] Creating Layer inception_4e/pool_proj
2016-07-05 19:03:42.792 STDERR [INFO] I0705 19:03:42.707132 23439 net.cpp:454] inception_4e/pool_proj <- inception_4e/pool
2016-07-05 19:03:42.792 STDERR [INFO] I0705 19:03:42.707137 23439 net.cpp:411] inception_4e/pool_proj -> inception_4e/pool_proj
2016-07-05 19:03:42.792 STDERR [INFO] I0705 19:03:42.707723 23439 net.cpp:150] Setting up inception_4e/pool_proj
2016-07-05 19:03:42.792 STDERR [INFO] I0705 19:03:42.707731 23439 net.cpp:157] Top shape: 10 128 14 14 (250880)
2016-07-05 19:03:42.792 STDERR [INFO] I0705 19:03:42.707733 23439 net.cpp:165] Memory required for data: 507279360
2016-07-05 19:03:42.792 STDERR [INFO] I0705 19:03:42.707738 23439 layer_factory.hpp:77] Creating layer inception_4e/relu_pool_proj
2016-07-05 19:03:42.793 STDERR [INFO] I0705 19:03:42.707744 23439 net.cpp:106] Creating Layer inception_4e/relu_pool_proj
2016-07-05 19:03:42.793 STDERR [INFO] I0705 19:03:42.707747 23439 net.cpp:454] inception_4e/relu_pool_proj <- inception_4e/pool_proj
2016-07-05 19:03:42.793 STDERR [INFO] I0705 19:03:42.707754 23439 net.cpp:397] inception_4e/relu_pool_proj -> inception_4e/pool_proj (in-place)
2016-07-05 19:03:42.793 STDERR [INFO] I0705 19:03:42.707761 23439 net.cpp:150] Setting up inception_4e/relu_pool_proj
2016-07-05 19:03:42.793 STDERR [INFO] I0705 19:03:42.707763 23439 net.cpp:157] Top shape: 10 128 14 14 (250880)
2016-07-05 19:03:42.793 STDERR [INFO] I0705 19:03:42.707767 23439 net.cpp:165] Memory required for data: 508282880
2016-07-05 19:03:42.793 STDERR [INFO] I0705 19:03:42.707769 23439 layer_factory.hpp:77] Creating layer inception_4e/output
2016-07-05 19:03:42.793 STDERR [INFO] I0705 19:03:42.707777 23439 net.cpp:106] Creating Layer inception_4e/output
2016-07-05 19:03:42.793 STDERR [INFO] I0705 19:03:42.707779 23439 net.cpp:454] inception_4e/output <- inception_4e/1x1
2016-07-05 19:03:42.793 STDERR [INFO] I0705 19:03:42.707783 23439 net.cpp:454] inception_4e/output <- inception_4e/3x3
2016-07-05 19:03:42.793 STDERR [INFO] I0705 19:03:42.707787 23439 net.cpp:454] inception_4e/output <- inception_4e/5x5
2016-07-05 19:03:42.794 STDERR [INFO] I0705 19:03:42.707790 23439 net.cpp:454] inception_4e/output <- inception_4e/pool_proj
2016-07-05 19:03:42.794 STDERR [INFO] I0705 19:03:42.707794 23439 net.cpp:411] inception_4e/output -> inception_4e/output
2016-07-05 19:03:42.794 STDERR [INFO] I0705 19:03:42.707808 23439 net.cpp:150] Setting up inception_4e/output
2016-07-05 19:03:42.794 STDERR [INFO] I0705 19:03:42.711779 23439 net.cpp:157] Top shape: 10 832 14 14 (1630720)
2016-07-05 19:03:42.794 STDERR [INFO] I0705 19:03:42.711786 23439 net.cpp:165] Memory required for data: 514805760
2016-07-05 19:03:42.794 STDERR [INFO] I0705 19:03:42.711791 23439 layer_factory.hpp:77] Creating layer pool4/3x3_s2
2016-07-05 19:03:42.794 STDERR [INFO] I0705 19:03:42.711805 23439 net.cpp:106] Creating Layer pool4/3x3_s2
2016-07-05 19:03:42.794 STDERR [INFO] I0705 19:03:42.711810 23439 net.cpp:454] pool4/3x3_s2 <- inception_4e/output
2016-07-05 19:03:42.794 STDERR [INFO] I0705 19:03:42.711823 23439 net.cpp:411] pool4/3x3_s2 -> pool4/3x3_s2
2016-07-05 19:03:42.794 STDERR [INFO] I0705 19:03:42.711834 23439 net.cpp:150] Setting up pool4/3x3_s2
2016-07-05 19:03:42.795 STDERR [INFO] I0705 19:03:42.711839 23439 net.cpp:157] Top shape: 10 832 7 7 (407680)
2016-07-05 19:03:42.795 STDERR [INFO] I0705 19:03:42.711841 23439 net.cpp:165] Memory required for data: 516436480
2016-07-05 19:03:42.795 STDERR [INFO] I0705 19:03:42.711845 23439 layer_factory.hpp:77] Creating layer pool4/3x3_s2_pool4/3x3_s2_0_split
2016-07-05 19:03:42.795 STDERR [INFO] I0705 19:03:42.711853 23439 net.cpp:106] Creating Layer pool4/3x3_s2_pool4/3x3_s2_0_split
2016-07-05 19:03:42.795 STDERR [INFO] I0705 19:03:42.711858 23439 net.cpp:454] pool4/3x3_s2_pool4/3x3_s2_0_split <- pool4/3x3_s2
2016-07-05 19:03:42.795 STDERR [INFO] I0705 19:03:42.711861 23439 net.cpp:411] pool4/3x3_s2_pool4/3x3_s2_0_split -> pool4/3x3_s2_pool4/3x3_s2_0_split_0
2016-07-05 19:03:42.795 STDERR [INFO] I0705 19:03:42.711868 23439 net.cpp:411] pool4/3x3_s2_pool4/3x3_s2_0_split -> pool4/3x3_s2_pool4/3x3_s2_0_split_1
2016-07-05 19:03:42.795 STDERR [INFO] I0705 19:03:42.711874 23439 net.cpp:411] pool4/3x3_s2_pool4/3x3_s2_0_split -> pool4/3x3_s2_pool4/3x3_s2_0_split_2
2016-07-05 19:03:42.795 STDERR [INFO] I0705 19:03:42.711879 23439 net.cpp:411] pool4/3x3_s2_pool4/3x3_s2_0_split -> pool4/3x3_s2_pool4/3x3_s2_0_split_3
2016-07-05 19:03:42.795 STDERR [INFO] I0705 19:03:42.711889 23439 net.cpp:150] Setting up pool4/3x3_s2_pool4/3x3_s2_0_split
2016-07-05 19:03:42.795 STDERR [INFO] I0705 19:03:42.711894 23439 net.cpp:157] Top shape: 10 832 7 7 (407680)
2016-07-05 19:03:42.796 STDERR [INFO] I0705 19:03:42.711897 23439 net.cpp:157] Top shape: 10 832 7 7 (407680)
2016-07-05 19:03:42.796 STDERR [INFO] I0705 19:03:42.711900 23439 net.cpp:157] Top shape: 10 832 7 7 (407680)
2016-07-05 19:03:42.796 STDERR [INFO] I0705 19:03:42.711905 23439 net.cpp:157] Top shape: 10 832 7 7 (407680)
2016-07-05 19:03:42.796 STDERR [INFO] I0705 19:03:42.711907 23439 net.cpp:165] Memory required for data: 522959360
2016-07-05 19:03:42.796 STDERR [INFO] I0705 19:03:42.711910 23439 layer_factory.hpp:77] Creating layer inception_5a/1x1
2016-07-05 19:03:42.796 STDERR [INFO] I0705 19:03:42.711922 23439 net.cpp:106] Creating Layer inception_5a/1x1
2016-07-05 19:03:42.796 STDERR [INFO] I0705 19:03:42.711926 23439 net.cpp:454] inception_5a/1x1 <- pool4/3x3_s2_pool4/3x3_s2_0_split_0
2016-07-05 19:03:42.796 STDERR [INFO] I0705 19:03:42.711932 23439 net.cpp:411] inception_5a/1x1 -> inception_5a/1x1
2016-07-05 19:03:42.796 STDERR [INFO] I0705 19:03:42.713738 23439 net.cpp:150] Setting up inception_5a/1x1
2016-07-05 19:03:42.796 STDERR [INFO] I0705 19:03:42.713745 23439 net.cpp:157] Top shape: 10 256 7 7 (125440)
2016-07-05 19:03:42.796 STDERR [INFO] I0705 19:03:42.713748 23439 net.cpp:165] Memory required for data: 523461120
2016-07-05 19:03:42.797 STDERR [INFO] I0705 19:03:42.713755 23439 layer_factory.hpp:77] Creating layer inception_5a/relu_1x1
2016-07-05 19:03:42.797 STDERR [INFO] I0705 19:03:42.713762 23439 net.cpp:106] Creating Layer inception_5a/relu_1x1
2016-07-05 19:03:42.797 STDERR [INFO] I0705 19:03:42.713765 23439 net.cpp:454] inception_5a/relu_1x1 <- inception_5a/1x1
2016-07-05 19:03:42.797 STDERR [INFO] I0705 19:03:42.713770 23439 net.cpp:397] inception_5a/relu_1x1 -> inception_5a/1x1 (in-place)
2016-07-05 19:03:42.797 STDERR [INFO] I0705 19:03:42.713776 23439 net.cpp:150] Setting up inception_5a/relu_1x1
2016-07-05 19:03:42.797 STDERR [INFO] I0705 19:03:42.713780 23439 net.cpp:157] Top shape: 10 256 7 7 (125440)
2016-07-05 19:03:42.797 STDERR [INFO] I0705 19:03:42.713783 23439 net.cpp:165] Memory required for data: 523962880
2016-07-05 19:03:42.797 STDERR [INFO] I0705 19:03:42.713786 23439 layer_factory.hpp:77] Creating layer inception_5a/3x3_reduce
2016-07-05 19:03:42.797 STDERR [INFO] I0705 19:03:42.713796 23439 net.cpp:106] Creating Layer inception_5a/3x3_reduce
2016-07-05 19:03:42.797 STDERR [INFO] I0705 19:03:42.713800 23439 net.cpp:454] inception_5a/3x3_reduce <- pool4/3x3_s2_pool4/3x3_s2_0_split_1
2016-07-05 19:03:42.797 STDERR [INFO] I0705 19:03:42.713809 23439 net.cpp:411] inception_5a/3x3_reduce -> inception_5a/3x3_reduce
2016-07-05 19:03:42.798 STDERR [INFO] I0705 19:03:42.714941 23439 net.cpp:150] Setting up inception_5a/3x3_reduce
2016-07-05 19:03:42.798 STDERR [INFO] I0705 19:03:42.714947 23439 net.cpp:157] Top shape: 10 160 7 7 (78400)
2016-07-05 19:03:42.798 STDERR [INFO] I0705 19:03:42.714951 23439 net.cpp:165] Memory required for data: 524276480
2016-07-05 19:03:42.798 STDERR [INFO] I0705 19:03:42.714956 23439 layer_factory.hpp:77] Creating layer inception_5a/relu_3x3_reduce
2016-07-05 19:03:42.798 STDERR [INFO] I0705 19:03:42.714962 23439 net.cpp:106] Creating Layer inception_5a/relu_3x3_reduce
2016-07-05 19:03:42.798 STDERR [INFO] I0705 19:03:42.714965 23439 net.cpp:454] inception_5a/relu_3x3_reduce <- inception_5a/3x3_reduce
2016-07-05 19:03:42.798 STDERR [INFO] I0705 19:03:42.714972 23439 net.cpp:397] inception_5a/relu_3x3_reduce -> inception_5a/3x3_reduce (in-place)
2016-07-05 19:03:42.798 STDERR [INFO] I0705 19:03:42.714978 23439 net.cpp:150] Setting up inception_5a/relu_3x3_reduce
2016-07-05 19:03:42.798 STDERR [INFO] I0705 19:03:42.714982 23439 net.cpp:157] Top shape: 10 160 7 7 (78400)
2016-07-05 19:03:42.798 STDERR [INFO] I0705 19:03:42.714985 23439 net.cpp:165] Memory required for data: 524590080
2016-07-05 19:03:42.799 STDERR [INFO] I0705 19:03:42.714988 23439 layer_factory.hpp:77] Creating layer inception_5a/3x3
2016-07-05 19:03:42.799 STDERR [INFO] I0705 19:03:42.714998 23439 net.cpp:106] Creating Layer inception_5a/3x3
2016-07-05 19:03:42.799 STDERR [INFO] I0705 19:03:42.715000 23439 net.cpp:454] inception_5a/3x3 <- inception_5a/3x3_reduce
2016-07-05 19:03:42.799 STDERR [INFO] I0705 19:03:42.715008 23439 net.cpp:411] inception_5a/3x3 -> inception_5a/3x3
2016-07-05 19:03:42.799 STDERR [INFO] I0705 19:03:42.718879 23439 net.cpp:150] Setting up inception_5a/3x3
2016-07-05 19:03:42.800 STDERR [INFO] I0705 19:03:42.718886 23439 net.cpp:157] Top shape: 10 320 7 7 (156800)
2016-07-05 19:03:42.800 STDERR [INFO] I0705 19:03:42.718889 23439 net.cpp:165] Memory required for data: 525217280
2016-07-05 19:03:42.800 STDERR [INFO] I0705 19:03:42.718895 23439 layer_factory.hpp:77] Creating layer inception_5a/relu_3x3
2016-07-05 19:03:42.800 STDERR [INFO] I0705 19:03:42.718904 23439 net.cpp:106] Creating Layer inception_5a/relu_3x3
2016-07-05 19:03:42.800 STDERR [INFO] I0705 19:03:42.718907 23439 net.cpp:454] inception_5a/relu_3x3 <- inception_5a/3x3
2016-07-05 19:03:42.800 STDERR [INFO] I0705 19:03:42.718911 23439 net.cpp:397] inception_5a/relu_3x3 -> inception_5a/3x3 (in-place)
2016-07-05 19:03:42.800 STDERR [INFO] I0705 19:03:42.718916 23439 net.cpp:150] Setting up inception_5a/relu_3x3
2016-07-05 19:03:42.800 STDERR [INFO] I0705 19:03:42.718920 23439 net.cpp:157] Top shape: 10 320 7 7 (156800)
2016-07-05 19:03:42.800 STDERR [INFO] I0705 19:03:42.718924 23439 net.cpp:165] Memory required for data: 525844480
2016-07-05 19:03:42.800 STDERR [INFO] I0705 19:03:42.718926 23439 layer_factory.hpp:77] Creating layer inception_5a/5x5_reduce
2016-07-05 19:03:42.800 STDERR [INFO] I0705 19:03:42.718937 23439 net.cpp:106] Creating Layer inception_5a/5x5_reduce
2016-07-05 19:03:42.801 STDERR [INFO] I0705 19:03:42.718941 23439 net.cpp:454] inception_5a/5x5_reduce <- pool4/3x3_s2_pool4/3x3_s2_0_split_2
2016-07-05 19:03:42.801 STDERR [INFO] I0705 19:03:42.718950 23439 net.cpp:411] inception_5a/5x5_reduce -> inception_5a/5x5_reduce
2016-07-05 19:03:42.801 STDERR [INFO] I0705 19:03:42.719190 23439 net.cpp:150] Setting up inception_5a/5x5_reduce
2016-07-05 19:03:42.801 STDERR [INFO] I0705 19:03:42.719197 23439 net.cpp:157] Top shape: 10 32 7 7 (15680)
2016-07-05 19:03:42.801 STDERR [INFO] I0705 19:03:42.719199 23439 net.cpp:165] Memory required for data: 525907200
2016-07-05 19:03:42.801 STDERR [INFO] I0705 19:03:42.719204 23439 layer_factory.hpp:77] Creating layer inception_5a/relu_5x5_reduce
2016-07-05 19:03:42.801 STDERR [INFO] I0705 19:03:42.719209 23439 net.cpp:106] Creating Layer inception_5a/relu_5x5_reduce
2016-07-05 19:03:42.801 STDERR [INFO] I0705 19:03:42.719215 23439 net.cpp:454] inception_5a/relu_5x5_reduce <- inception_5a/5x5_reduce
2016-07-05 19:03:42.801 STDERR [INFO] I0705 19:03:42.719219 23439 net.cpp:397] inception_5a/relu_5x5_reduce -> inception_5a/5x5_reduce (in-place)
2016-07-05 19:03:42.801 STDERR [INFO] I0705 19:03:42.719225 23439 net.cpp:150] Setting up inception_5a/relu_5x5_reduce
2016-07-05 19:03:42.801 STDERR [INFO] I0705 19:03:42.719229 23439 net.cpp:157] Top shape: 10 32 7 7 (15680)
2016-07-05 19:03:42.802 STDERR [INFO] I0705 19:03:42.719231 23439 net.cpp:165] Memory required for data: 525969920
2016-07-05 19:03:42.802 STDERR [INFO] I0705 19:03:42.719235 23439 layer_factory.hpp:77] Creating layer inception_5a/5x5
2016-07-05 19:03:42.802 STDERR [INFO] I0705 19:03:42.719245 23439 net.cpp:106] Creating Layer inception_5a/5x5
2016-07-05 19:03:42.802 STDERR [INFO] I0705 19:03:42.719249 23439 net.cpp:454] inception_5a/5x5 <- inception_5a/5x5_reduce
2016-07-05 19:03:42.802 STDERR [INFO] I0705 19:03:42.719254 23439 net.cpp:411] inception_5a/5x5 -> inception_5a/5x5
2016-07-05 19:03:42.802 STDERR [INFO] I0705 19:03:42.720134 23439 net.cpp:150] Setting up inception_5a/5x5
2016-07-05 19:03:42.802 STDERR [INFO] I0705 19:03:42.720141 23439 net.cpp:157] Top shape: 10 128 7 7 (62720)
2016-07-05 19:03:42.802 STDERR [INFO] I0705 19:03:42.720144 23439 net.cpp:165] Memory required for data: 526220800
2016-07-05 19:03:42.802 STDERR [INFO] I0705 19:03:42.720150 23439 layer_factory.hpp:77] Creating layer inception_5a/relu_5x5
2016-07-05 19:03:42.802 STDERR [INFO] I0705 19:03:42.720158 23439 net.cpp:106] Creating Layer inception_5a/relu_5x5
2016-07-05 19:03:42.802 STDERR [INFO] I0705 19:03:42.720162 23439 net.cpp:454] inception_5a/relu_5x5 <- inception_5a/5x5
2016-07-05 19:03:42.803 STDERR [INFO] I0705 19:03:42.720166 23439 net.cpp:397] inception_5a/relu_5x5 -> inception_5a/5x5 (in-place)
2016-07-05 19:03:42.803 STDERR [INFO] I0705 19:03:42.720171 23439 net.cpp:150] Setting up inception_5a/relu_5x5
2016-07-05 19:03:42.803 STDERR [INFO] I0705 19:03:42.720175 23439 net.cpp:157] Top shape: 10 128 7 7 (62720)
2016-07-05 19:03:42.803 STDERR [INFO] I0705 19:03:42.720178 23439 net.cpp:165] Memory required for data: 526471680
2016-07-05 19:03:42.803 STDERR [INFO] I0705 19:03:42.720181 23439 layer_factory.hpp:77] Creating layer inception_5a/pool
2016-07-05 19:03:42.803 STDERR [INFO] I0705 19:03:42.720209 23439 net.cpp:106] Creating Layer inception_5a/pool
2016-07-05 19:03:42.803 STDERR [INFO] I0705 19:03:42.720213 23439 net.cpp:454] inception_5a/pool <- pool4/3x3_s2_pool4/3x3_s2_0_split_3
2016-07-05 19:03:42.803 STDERR [INFO] I0705 19:03:42.720219 23439 net.cpp:411] inception_5a/pool -> inception_5a/pool
2016-07-05 19:03:42.803 STDERR [INFO] I0705 19:03:42.720227 23439 net.cpp:150] Setting up inception_5a/pool
2016-07-05 19:03:42.803 STDERR [INFO] I0705 19:03:42.720232 23439 net.cpp:157] Top shape: 10 832 7 7 (407680)
2016-07-05 19:03:42.804 STDERR [INFO] I0705 19:03:42.720234 23439 net.cpp:165] Memory required for data: 528102400
2016-07-05 19:03:42.804 STDERR [INFO] I0705 19:03:42.722779 23439 layer_factory.hpp:77] Creating layer inception_5a/pool_proj
2016-07-05 19:03:42.804 STDERR [INFO] I0705 19:03:42.722803 23439 net.cpp:106] Creating Layer inception_5a/pool_proj
2016-07-05 19:03:42.804 STDERR [INFO] I0705 19:03:42.722810 23439 net.cpp:454] inception_5a/pool_proj <- inception_5a/pool
2016-07-05 19:03:42.804 STDERR [INFO] I0705 19:03:42.722816 23439 net.cpp:411] inception_5a/pool_proj -> inception_5a/pool_proj
2016-07-05 19:03:42.804 STDERR [INFO] I0705 19:03:42.723732 23439 net.cpp:150] Setting up inception_5a/pool_proj
2016-07-05 19:03:42.804 STDERR [INFO] I0705 19:03:42.723742 23439 net.cpp:157] Top shape: 10 128 7 7 (62720)
2016-07-05 19:03:42.804 STDERR [INFO] I0705 19:03:42.723744 23439 net.cpp:165] Memory required for data: 528353280
2016-07-05 19:03:42.804 STDERR [INFO] I0705 19:03:42.723752 23439 layer_factory.hpp:77] Creating layer inception_5a/relu_pool_proj
2016-07-05 19:03:42.804 STDERR [INFO] I0705 19:03:42.723758 23439 net.cpp:106] Creating Layer inception_5a/relu_pool_proj
2016-07-05 19:03:42.804 STDERR [INFO] I0705 19:03:42.723762 23439 net.cpp:454] inception_5a/relu_pool_proj <- inception_5a/pool_proj
2016-07-05 19:03:42.805 STDERR [INFO] I0705 19:03:42.723768 23439 net.cpp:397] inception_5a/relu_pool_proj -> inception_5a/pool_proj (in-place)
2016-07-05 19:03:42.805 STDERR [INFO] I0705 19:03:42.723775 23439 net.cpp:150] Setting up inception_5a/relu_pool_proj
2016-07-05 19:03:42.805 STDERR [INFO] I0705 19:03:42.723779 23439 net.cpp:157] Top shape: 10 128 7 7 (62720)
2016-07-05 19:03:42.805 STDERR [INFO] I0705 19:03:42.723783 23439 net.cpp:165] Memory required for data: 528604160
2016-07-05 19:03:42.805 STDERR [INFO] I0705 19:03:42.723785 23439 layer_factory.hpp:77] Creating layer inception_5a/output
2016-07-05 19:03:42.805 STDERR [INFO] I0705 19:03:42.723791 23439 net.cpp:106] Creating Layer inception_5a/output
2016-07-05 19:03:42.805 STDERR [INFO] I0705 19:03:42.723795 23439 net.cpp:454] inception_5a/output <- inception_5a/1x1
2016-07-05 19:03:42.805 STDERR [INFO] I0705 19:03:42.723809 23439 net.cpp:454] inception_5a/output <- inception_5a/3x3
2016-07-05 19:03:42.805 STDERR [INFO] I0705 19:03:42.723814 23439 net.cpp:454] inception_5a/output <- inception_5a/5x5
2016-07-05 19:03:42.805 STDERR [INFO] I0705 19:03:42.723816 23439 net.cpp:454] inception_5a/output <- inception_5a/pool_proj
2016-07-05 19:03:42.805 STDERR [INFO] I0705 19:03:42.723821 23439 net.cpp:411] inception_5a/output -> inception_5a/output
2016-07-05 19:03:42.806 STDERR [INFO] I0705 19:03:42.723829 23439 net.cpp:150] Setting up inception_5a/output
2016-07-05 19:03:42.806 STDERR [INFO] I0705 19:03:42.723835 23439 net.cpp:157] Top shape: 10 832 7 7 (407680)
2016-07-05 19:03:42.806 STDERR [INFO] I0705 19:03:42.723839 23439 net.cpp:165] Memory required for data: 530234880
2016-07-05 19:03:42.806 STDERR [INFO] I0705 19:03:42.723842 23439 layer_factory.hpp:77] Creating layer inception_5a/output_inception_5a/output_0_split
2016-07-05 19:03:42.806 STDERR [INFO] I0705 19:03:42.723848 23439 net.cpp:106] Creating Layer inception_5a/output_inception_5a/output_0_split
…
2016-07-05 19:03:42.806 STDERR [INFO] I0705 19:03:42.723862 23439 net.cpp:411] inception_5a/output_inception_5a/output_0_split -> inception_5a/output_inception_5a/output_0_split_1
2016-07-05 19:03:42.806 STDERR [INFO] I0705 19:03:42.723868 23439 net.cpp:411] inception_5a/output_inception_5a/output_0_split -> inception_5a/output_inception_5a/output_0_split_2
2016-07-05 19:03:42.806 STDERR [INFO] I0705 19:03:42.723873 23439 net.cpp:411] inception_5a/output_inception_5a/output_0_split -> inception_5a/output_inception_5a/output_0_split_3
2016-07-05 19:03:42.806 STDERR [INFO] I0705 19:03:42.723882 23439 net.cpp:150] Setting up inception_5a/output_inception_5a/output_0_split
2016-07-05 19:03:42.807 STDERR [INFO] I0705 19:03:42.723886 23439 net.cpp:157] Top shape: 10 832 7 7 (407680)
2016-07-05 19:03:42.807 STDERR [INFO] I0705 19:03:42.723891 23439 net.cpp:157] Top shape: 10 832 7 7 (407680)
2016-07-05 19:03:42.807 STDERR [INFO] I0705 19:03:42.723893 23439 net.cpp:157] Top shape: 10 832 7 7 (407680)
2016-07-05 19:03:42.807 STDERR [INFO] I0705 19:03:42.723897 23439 net.cpp:157] Top shape: 10 832 7 7 (407680)
2016-07-05 19:03:42.807 STDERR [INFO] I0705 19:03:42.723901 23439 net.cpp:165] Memory required for data: 536757760
2016-07-05 19:03:42.807 STDERR [INFO] I0705 19:03:42.723903 23439 layer_factory.hpp:77] Creating layer inception_5b/1x1
2016-07-05 19:03:42.807 STDERR [INFO] I0705 19:03:42.723917 23439 net.cpp:106] Creating Layer inception_5b/1x1
2016-07-05 19:03:42.807 STDERR [INFO] I0705 19:03:42.723920 23439 net.cpp:454] inception_5b/1x1 <- inception_5a/output_inception_5a/output_0_split_0
2016-07-05 19:03:42.807 STDERR [INFO] I0705 19:03:42.723927 23439 net.cpp:411] inception_5b/1x1 -> inception_5b/1x1
2016-07-05 19:03:42.807 STDERR [INFO] I0705 19:03:42.726613 23439 net.cpp:150] Setting up inception_5b/1x1
2016-07-05 19:03:42.808 STDERR [INFO] I0705 19:03:42.726619 23439 net.cpp:157] Top shape: 10 384 7 7 (188160)
2016-07-05 19:03:42.808 STDERR [INFO] I0705 19:03:42.726621 23439 net.cpp:165] Memory required for data: 537510400
2016-07-05 19:03:42.808 STDERR [INFO] I0705 19:03:42.726627 23439 layer_factory.hpp:77] Creating layer inception_5b/relu_1x1
2016-07-05 19:03:42.808 STDERR [INFO] I0705 19:03:42.726634 23439 net.cpp:106] Creating Layer inception_5b/relu_1x1
2016-07-05 19:03:42.808 STDERR [INFO] I0705 19:03:42.726637 23439 net.cpp:454] inception_5b/relu_1x1 <- inception_5b/1x1
2016-07-05 19:03:42.808 STDERR [INFO] I0705 19:03:42.726645 23439 net.cpp:397] inception_5b/relu_1x1 -> inception_5b/1x1 (in-place)
2016-07-05 19:03:42.808 STDERR [INFO] I0705 19:03:42.726650 23439 net.cpp:150] Setting up inception_5b/relu_1x1
2016-07-05 19:03:42.808 STDERR [INFO] I0705 19:03:42.726655 23439 net.cpp:157] Top shape: 10 384 7 7 (188160)
2016-07-05 19:03:42.808 STDERR [INFO] I0705 19:03:42.726657 23439 net.cpp:165] Memory required for data: 538263040
2016-07-05 19:03:42.808 STDERR [INFO] I0705 19:03:42.726660 23439 layer_factory.hpp:77] Creating layer inception_5b/3x3_reduce
2016-07-05 19:03:42.808 STDERR [INFO] I0705 19:03:42.726671 23439 net.cpp:106] Creating Layer inception_5b/3x3_reduce
2016-07-05 19:03:42.809 STDERR [INFO] I0705 19:03:42.726675 23439 net.cpp:454] inception_5b/3x3_reduce <- inception_5a/output_inception_5a/output_0_split_1
2016-07-05 19:03:42.809 STDERR [INFO] I0705 19:03:42.726680 23439 net.cpp:411] inception_5b/3x3_reduce -> inception_5b/3x3_reduce
2016-07-05 19:03:42.809 STDERR [INFO] I0705 19:03:42.728041 23439 net.cpp:150] Setting up inception_5b/3x3_reduce
2016-07-05 19:03:42.809 STDERR [INFO] I0705 19:03:42.728049 23439 net.cpp:157] Top shape: 10 192 7 7 (94080)
2016-07-05 19:03:42.809 STDERR [INFO] I0705 19:03:42.728052 23439 net.cpp:165] Memory required for data: 538639360
2016-07-05 19:03:42.809 STDERR [INFO] I0705 19:03:42.728057 23439 layer_factory.hpp:77] Creating layer inception_5b/relu_3x3_reduce
2016-07-05 19:03:42.809 STDERR [INFO] I0705 19:03:42.728065 23439 net.cpp:106] Creating Layer inception_5b/relu_3x3_reduce
2016-07-05 19:03:42.809 STDERR [INFO] I0705 19:03:42.728070 23439 net.cpp:454] inception_5b/relu_3x3_reduce <- inception_5b/3x3_reduce
2016-07-05 19:03:42.809 STDERR [INFO] I0705 19:03:42.728075 23439 net.cpp:397] inception_5b/relu_3x3_reduce -> inception_5b/3x3_reduce (in-place)
2016-07-05 19:03:42.809 STDERR [INFO] I0705 19:03:42.728080 23439 net.cpp:150] Setting up inception_5b/relu_3x3_reduce
2016-07-05 19:03:42.809 STDERR [INFO] I0705 19:03:42.728083 23439 net.cpp:157] Top shape: 10 192 7 7 (94080)
2016-07-05 19:03:42.810 STDERR [INFO] I0705 19:03:42.728086 23439 net.cpp:165] Memory required for data: 539015680
2016-07-05 19:03:42.810 STDERR [INFO] I0705 19:03:42.728090 23439 layer_factory.hpp:77] Creating layer inception_5b/3x3
2016-07-05 19:03:42.810 STDERR [INFO] I0705 19:03:42.728101 23439 net.cpp:106] Creating Layer inception_5b/3x3
2016-07-05 19:03:42.810 STDERR [INFO] I0705 19:03:42.728104 23439 net.cpp:454] inception_5b/3x3 <- inception_5b/3x3_reduce
2016-07-05 19:03:42.810 STDERR [INFO] I0705 19:03:42.728109 23439 net.cpp:411] inception_5b/3x3 -> inception_5b/3x3
2016-07-05 19:03:42.810 STDERR [INFO] I0705 19:03:42.733695 23439 net.cpp:150] Setting up inception_5b/3x3
2016-07-05 19:03:42.810 STDERR [INFO] I0705 19:03:42.733703 23439 net.cpp:157] Top shape: 10 384 7 7 (188160)
2016-07-05 19:03:42.810 STDERR [INFO] I0705 19:03:42.733705 23439 net.cpp:165] Memory required for data: 539768320
2016-07-05 19:03:42.810 STDERR [INFO] I0705 19:03:42.733711 23439 layer_factory.hpp:77] Creating layer inception_5b/relu_3x3
2016-07-05 19:03:42.810 STDERR [INFO] I0705 19:03:42.733717 23439 net.cpp:106] Creating Layer inception_5b/relu_3x3
2016-07-05 19:03:42.811 STDERR [INFO] I0705 19:03:42.733721 23439 net.cpp:454] inception_5b/relu_3x3 <- inception_5b/3x3
2016-07-05 19:03:42.811 STDERR [INFO] I0705 19:03:42.733726 23439 net.cpp:397] inception_5b/relu_3x3 -> inception_5b/3x3 (in-place)
2016-07-05 19:03:42.811 STDERR [INFO] I0705 19:03:42.733731 23439 net.cpp:150] Setting up inception_5b/relu_3x3
2016-07-05 19:03:42.811 STDERR [INFO] I0705 19:03:42.733736 23439 net.cpp:157] Top shape: 10 384 7 7 (188160)
2016-07-05 19:03:42.811 STDERR [INFO] I0705 19:03:42.733737 23439 net.cpp:165] Memory required for data: 540520960
2016-07-05 19:03:42.811 STDERR [INFO] I0705 19:03:42.733741 23439 layer_factory.hpp:77] Creating layer inception_5b/5x5_reduce
2016-07-05 19:03:42.811 STDERR [INFO] I0705 19:03:42.733752 23439 net.cpp:106] Creating Layer inception_5b/5x5_reduce
2016-07-05 19:03:42.811 STDERR [INFO] I0705 19:03:42.733757 23439 net.cpp:454] inception_5b/5x5_reduce <- inception_5a/output_inception_5a/output_0_split_2
2016-07-05 19:03:42.811 STDERR [INFO] I0705 19:03:42.733763 23439 net.cpp:411] inception_5b/5x5_reduce -> inception_5b/5x5_reduce
2016-07-05 19:03:42.811 STDERR [INFO] I0705 19:03:42.734112 23439 net.cpp:150] Setting up inception_5b/5x5_reduce
2016-07-05 19:03:42.811 STDERR [INFO] I0705 19:03:42.734117 23439 net.cpp:157] Top shape: 10 48 7 7 (23520)
2016-07-05 19:03:42.812 STDERR [INFO] I0705 19:03:42.734120 23439 net.cpp:165] Memory required for data: 540615040
2016-07-05 19:03:42.812 STDERR [INFO] I0705 19:03:42.734127 23439 layer_factory.hpp:77] Creating layer inception_5b/relu_5x5_reduce
2016-07-05 19:03:42.812 STDERR [INFO] I0705 19:03:42.734132 23439 net.cpp:106] Creating Layer inception_5b/relu_5x5_reduce
2016-07-05 19:03:42.812 STDERR [INFO] I0705 19:03:42.734134 23439 net.cpp:454] inception_5b/relu_5x5_reduce <- inception_5b/5x5_reduce
2016-07-05 19:03:42.812 STDERR [INFO] I0705 19:03:42.734139 23439 net.cpp:397] inception_5b/relu_5x5_reduce -> inception_5b/5x5_reduce (in-place)
2016-07-05 19:03:42.812 STDERR [INFO] I0705 19:03:42.734144 23439 net.cpp:150] Setting up inception_5b/relu_5x5_reduce
2016-07-05 19:03:42.812 STDERR [INFO] I0705 19:03:42.734148 23439 net.cpp:157] Top shape: 10 48 7 7 (23520)
2016-07-05 19:03:42.812 STDERR [INFO] I0705 19:03:42.734151 23439 net.cpp:165] Memory required for data: 540709120
2016-07-05 19:03:42.812 STDERR [INFO] I0705 19:03:42.734154 23439 layer_factory.hpp:77] Creating layer inception_5b/5x5
2016-07-05 19:03:42.812 STDERR [INFO] I0705 19:03:42.734165 23439 net.cpp:106] Creating Layer inception_5b/5x5
2016-07-05 19:03:42.812 STDERR [INFO] I0705 19:03:42.734484 23439 net.cpp:454] inception_5b/5x5 <- inception_5b/5x5_reduce
2016-07-05 19:03:42.813 STDERR [INFO] I0705 19:03:42.734503 23439 net.cpp:411] inception_5b/5x5 -> inception_5b/5x5
2016-07-05 19:03:42.813 STDERR [INFO] I0705 19:03:42.735828 23439 net.cpp:150] Setting up inception_5b/5x5
2016-07-05 19:03:42.813 STDERR [INFO] I0705 19:03:42.735837 23439 net.cpp:157] Top shape: 10 128 7 7 (62720)
2016-07-05 19:03:42.813 STDERR [INFO] I0705 19:03:42.735841 23439 net.cpp:165] Memory required for data: 540960000
2016-07-05 19:03:42.813 STDERR [INFO] I0705 19:03:42.735847 23439 layer_factory.hpp:77] Creating layer inception_5b/relu_5x5
2016-07-05 19:03:42.813 STDERR [INFO] I0705 19:03:42.735854 23439 net.cpp:106] Creating Layer inception_5b/relu_5x5
2016-07-05 19:03:42.813 STDERR [INFO] I0705 19:03:42.735858 23439 net.cpp:454] inception_5b/relu_5x5 <- inception_5b/5x5
2016-07-05 19:03:42.813 STDERR [INFO] I0705 19:03:42.735864 23439 net.cpp:397] inception_5b/relu_5x5 -> inception_5b/5x5 (in-place)
2016-07-05 19:03:42.813 STDERR [INFO] I0705 19:03:42.735870 23439 net.cpp:150] Setting up inception_5b/relu_5x5
2016-07-05 19:03:42.813 STDERR [INFO] I0705 19:03:42.735874 23439 net.cpp:157] Top shape: 10 128 7 7 (62720)
2016-07-05 19:03:42.813 STDERR [INFO] I0705 19:03:42.735877 23439 net.cpp:165] Memory required for data: 541210880
2016-07-05 19:03:42.814 STDERR [INFO] I0705 19:03:42.735880 23439 layer_factory.hpp:77] Creating layer inception_5b/pool
2016-07-05 19:03:42.814 STDERR [INFO] I0705 19:03:42.735889 23439 net.cpp:106] Creating Layer inception_5b/pool
2016-07-05 19:03:42.814 STDERR [INFO] I0705 19:03:42.735893 23439 net.cpp:454] inception_5b/pool <- inception_5a/output_inception_5a/output_0_split_3
2016-07-05 19:03:42.814 STDERR [INFO] I0705 19:03:42.735898 23439 net.cpp:411] inception_5b/pool -> inception_5b/pool
2016-07-05 19:03:42.814 STDERR [INFO] I0705 19:03:42.735908 23439 net.cpp:150] Setting up inception_5b/pool
2016-07-05 19:03:42.814 STDERR [INFO] I0705 19:03:42.735913 23439 net.cpp:157] Top shape: 10 832 7 7 (407680)
2016-07-05 19:03:42.814 STDERR [INFO] I0705 19:03:42.735916 23439 net.cpp:165] Memory required for data: 542841600
2016-07-05 19:03:42.814 STDERR [INFO] I0705 19:03:42.735919 23439 layer_factory.hpp:77] Creating layer inception_5b/pool_proj
2016-07-05 19:03:42.814 STDERR [INFO] I0705 19:03:42.735929 23439 net.cpp:106] Creating Layer inception_5b/pool_proj
2016-07-05 19:03:42.814 STDERR [INFO] I0705 19:03:42.735932 23439 net.cpp:454] inception_5b/pool_proj <- inception_5b/pool
2016-07-05 19:03:42.814 STDERR [INFO] I0705 19:03:42.735939 23439 net.cpp:411] inception_5b/pool_proj -> inception_5b/pool_proj
2016-07-05 19:03:42.815 STDERR [INFO] I0705 19:03:42.736851 23439 net.cpp:150] Setting up inception_5b/pool_proj
2016-07-05 19:03:42.815 STDERR [INFO] I0705 19:03:42.736858 23439 net.cpp:157] Top shape: 10 128 7 7 (62720)
2016-07-05 19:03:42.815 STDERR [INFO] I0705 19:03:42.736860 23439 net.cpp:165] Memory required for data: 543092480
2016-07-05 19:03:42.815 STDERR [INFO] I0705 19:03:42.736866 23439 layer_factory.hpp:77] Creating layer inception_5b/relu_pool_proj
2016-07-05 19:03:42.815 STDERR [INFO] I0705 19:03:42.736872 23439 net.cpp:106] Creating Layer inception_5b/relu_pool_proj
2016-07-05 19:03:42.815 STDERR [INFO] I0705 19:03:42.736876 23439 net.cpp:454] inception_5b/relu_pool_proj <- inception_5b/pool_proj
2016-07-05 19:03:42.815 STDERR [INFO] I0705 19:03:42.736882 23439 net.cpp:397] inception_5b/relu_pool_proj -> inception_5b/pool_proj (in-place)
2016-07-05 19:03:42.815 STDERR [INFO] I0705 19:03:42.736888 23439 net.cpp:150] Setting up inception_5b/relu_pool_proj
2016-07-05 19:03:42.815 STDERR [INFO] I0705 19:03:42.736892 23439 net.cpp:157] Top shape: 10 128 7 7 (62720)
2016-07-05 19:03:42.815 STDERR [INFO] I0705 19:03:42.736896 23439 net.cpp:165] Memory required for data: 543343360
2016-07-05 19:03:42.816 STDERR [INFO] I0705 19:03:42.736898 23439 layer_factory.hpp:77] Creating layer inception_5b/output
2016-07-05 19:03:42.816 STDERR [INFO] I0705 19:03:42.736906 23439 net.cpp:106] Creating Layer inception_5b/output
2016-07-05 19:03:42.816 STDERR [INFO] I0705 19:03:42.736907 23439 net.cpp:454] inception_5b/output <- inception_5b/1x1
2016-07-05 19:03:42.816 STDERR [INFO] I0705 19:03:42.736912 23439 net.cpp:454] inception_5b/output <- inception_5b/3x3
2016-07-05 19:03:42.816 STDERR [INFO] I0705 19:03:42.736915 23439 net.cpp:454] inception_5b/output <- inception_5b/5x5
2016-07-05 19:03:42.816 STDERR [INFO] I0705 19:03:42.736919 23439 net.cpp:454] inception_5b/output <- inception_5b/pool_proj
2016-07-05 19:03:42.816 STDERR [INFO] I0705 19:03:42.736923 23439 net.cpp:411] inception_5b/output -> inception_5b/output
2016-07-05 19:03:42.816 STDERR [INFO] I0705 19:03:42.736930 23439 net.cpp:150] Setting up inception_5b/output
2016-07-05 19:03:42.816 STDERR [INFO] I0705 19:03:42.736935 23439 net.cpp:157] Top shape: 10 1024 7 7 (501760)
2016-07-05 19:03:42.816 STDERR [INFO] I0705 19:03:42.736937 23439 net.cpp:165] Memory required for data: 545350400
2016-07-05 19:03:42.816 STDERR [INFO] I0705 19:03:42.736941 23439 layer_factory.hpp:77] Creating layer pool5/7x7_s1
2016-07-05 19:03:42.817 STDERR [INFO] I0705 19:03:42.736949 23439 net.cpp:106] Creating Layer pool5/7x7_s1
2016-07-05 19:03:42.817 STDERR [INFO] I0705 19:03:42.736953 23439 net.cpp:454] pool5/7x7_s1 <- inception_5b/output
2016-07-05 19:03:42.817 STDERR [INFO] I0705 19:03:42.736958 23439 net.cpp:411] pool5/7x7_s1 -> pool5/7x7_s1
2016-07-05 19:03:42.817 STDERR [INFO] I0705 19:03:42.736963 23439 net.cpp:150] Setting up pool5/7x7_s1
2016-07-05 19:03:42.817 STDERR [INFO] I0705 19:03:42.736969 23439 net.cpp:157] Top shape: 10 1024 1 1 (10240)
2016-07-05 19:03:42.817 STDERR [INFO] I0705 19:03:42.736973 23439 net.cpp:165] Memory required for data: 545391360
2016-07-05 19:03:42.817 STDERR [INFO] I0705 19:03:42.736975 23439 layer_factory.hpp:77] Creating layer pool5/drop_7x7_s1
2016-07-05 19:03:42.817 STDERR [INFO] I0705 19:03:42.736990 23439 net.cpp:106] Creating Layer pool5/drop_7x7_s1
2016-07-05 19:03:42.817 STDERR [INFO] I0705 19:03:42.736994 23439 net.cpp:454] pool5/drop_7x7_s1 <- pool5/7x7_s1
2016-07-05 19:03:42.817 STDERR [INFO] I0705 19:03:42.736999 23439 net.cpp:397] pool5/drop_7x7_s1 -> pool5/7x7_s1 (in-place)
2016-07-05 19:03:42.817 STDERR [INFO] I0705 19:03:42.737021 23439 net.cpp:150] Setting up pool5/drop_7x7_s1
2016-07-05 19:03:42.818 STDERR [INFO] I0705 19:03:42.737025 23439 net.cpp:157] Top shape: 10 1024 1 1 (10240)
2016-07-05 19:03:42.818 STDERR [INFO] I0705 19:03:42.737027 23439 net.cpp:165] Memory required for data: 545432320
2016-07-05 19:03:42.818 STDERR [INFO] I0705 19:03:42.737031 23439 layer_factory.hpp:77] Creating layer loss3/classifier
2016-07-05 19:03:42.818 STDERR [INFO] I0705 19:03:42.737043 23439 net.cpp:106] Creating Layer loss3/classifier
2016-07-05 19:03:42.818 STDERR [INFO] I0705 19:03:42.737046 23439 net.cpp:454] loss3/classifier <- pool5/7x7_s1
2016-07-05 19:03:42.818 STDERR [INFO] I0705 19:03:42.737052 23439 net.cpp:411] loss3/classifier -> loss3/classifier
2016-07-05 19:03:42.818 STDERR [INFO] I0705 19:03:42.745277 23439 net.cpp:150] Setting up loss3/classifier
2016-07-05 19:03:42.818 STDERR [INFO] I0705 19:03:42.745285 23439 net.cpp:157] Top shape: 10 1000 (10000)
2016-07-05 19:03:42.818 STDERR [INFO] I0705 19:03:42.745288 23439 net.cpp:165] Memory required for data: 545472320
2016-07-05 19:03:42.818 STDERR [INFO] I0705 19:03:42.745295 23439 layer_factory.hpp:77] Creating layer prob
2016-07-05 19:03:42.819 STDERR [INFO] I0705 19:03:42.745301 23439 net.cpp:106] Creating Layer prob
2016-07-05 19:03:42.819 STDERR [INFO] I0705 19:03:42.745306 23439 net.cpp:454] prob <- loss3/classifier
2016-07-05 19:03:42.819 STDERR [INFO] I0705 19:03:42.745312 23439 net.cpp:411] prob -> prob
2016-07-05 19:03:42.819 STDERR [INFO] I0705 19:03:42.745326 23439 net.cpp:150] Setting up prob
2016-07-05 19:03:42.819 STDERR [INFO] I0705 19:03:42.745331 23439 net.cpp:157] Top shape: 10 1000 (10000)
2016-07-05 19:03:42.819 STDERR [INFO] I0705 19:03:42.745332 23439 net.cpp:165] Memory required for data: 545512320
2016-07-05 19:03:42.819 STDERR [INFO] I0705 19:03:42.745337 23439 net.cpp:228] prob does not need backward computation.
2016-07-05 19:03:42.819 STDERR [INFO] I0705 19:03:42.745339 23439 net.cpp:228] loss3/classifier does not need backward computation.
2016-07-05 19:03:42.819 STDERR [INFO] I0705 19:03:42.745342 23439 net.cpp:228] pool5/drop_7x7_s1 does not need backward computation.
…
