…
SLF4J: Found binding in [jar:file:/home/peifeng/storm-0.10.0/data/supervisor/stormdist/dnn_classification-1-1467759799/stormjar.jar!/org/slf4j/impl/StaticLoggerBinder.class]
SLF4J: See http://www.slf4j.org/codes.html#multiple_bindings for an explanation.
SLF4J: Actual binding is of type [org.apache.logging.slf4j.Log4jLoggerFactory]
WARNING: Logging before InitGoogleLogging() is written to STDERR
I0705 19:03:42.431607 23439 net.cpp:49] Initializing net from parameters: 
name: "GoogleNet"
input: "data"
input_dim: 10
input_dim: 3
input_dim: 224
input_dim: 224
state {
  phase: TEST
}
layer {
  name: "conv1/7x7_s2"
  type: "Convolution"
  bottom: "data"
  top: "conv1/7x7_s2"
  param {
    lr_mult: 1
    decay_mult: 1
  }
  param {
    lr_mult: 2
    decay_mult: 0
  }
  convolution_param {
    num_output: 64
    pad: 3
    kernel_size: 7
    stride: 2
    weight_filler {
      type: "xavier"
      std: 0.1
    }
    bias_filler {
      type: "constant"
      value: 0.2
    }
  }
}
layer {
  name: "conv1/relu_7x7"
  type: "ReLU"
  bottom: "conv1/7x7_s2"
  top: "conv1/7x7_s2"
}
layer {
  name: "pool1/3x3_s2"
  type: "Pooling"
  bottom: "conv1/7x7_s2"
  top: "pool1/3x3_s2"
  pooling_param {
    pool: MAX
    kernel_size: 3
    stride: 2
  }
}
layer {
  name: "pool1/norm1"
  type: "LRN"
  bottom: "pool1/3x3_s2"
  top: "pool1/norm1"
  lrn_param {
    local_size: 5
    alpha: 0.0001
    beta: 0.75
  }
}
layer {
  name: "conv2/3x3_reduce"
  type: "Convolution"
  bottom: "pool1/norm1"
  top: "conv2/3x3_reduce"
  param {
    lr_mult: 1
    decay_mult: 1
  }
  param {
    lr_mult: 2
    decay_mult: 0
  }
  convolution_param {
    num_output: 64
    kernel_size: 1
    weight_filler {
      type: "xavier"
      std: 0.1
    }
    bias_filler {
      type: "constant"
      value: 0.2
    }
  }
}
layer {
  name: "conv2/relu_3x3_reduce"
  type: "ReLU"
  bottom: "conv2/3x3_reduce"
  top: "conv2/3x3_reduce"
}
layer {
  name: "conv2/3x3"
  type: "Convolution"
  bottom: "conv2/3x3_reduce"
  top: "conv2/3x3"
  param {
    lr_mult: 1
    decay_mult: 1
  }
  param {
    lr_mult: 2
    decay_mult: 0
  }
  convolution_param {
    num_output: 192
    pad: 1
    kernel_size: 3
    weight_filler {
      type: "xavier"
      std: 0.03
    }
    bias_filler {
      type: "constant"
      value: 0.2
    }
  }
}
layer {
  name: "conv2/relu_3x3"
  type: "ReLU"
  bottom: "conv2/3x3"
  top: "conv2/3x3"
}
layer {
  name: "conv2/norm2"
  type: "LRN"
  bottom: "conv2/3x3"
  top: "conv2/norm2"
  lrn_param {
    local_size: 5
    alpha: 0.0001
    beta: 0.75
  }
}
layer {
  name: "pool2/3x3_s2"
  type: "Pooling"
  bottom: "conv2/norm2"
  top: "pool2/3x3_s2"
  pooling_param {
    pool: MAX
    kernel_size: 3
    stride: 2
  }
}
layer {
  name: "inception_3a/1x1"
  type: "Convolution"
  bottom: "pool2/3x3_s2"
  top: "inception_3a/1x1"
  param {
    lr_mult: 1
    decay_mult: 1
  }
  param {
    lr_mult: 2
    decay_mult: 0
  }
  convolution_param {
    num_output: 64
    kernel_size: 1
    weight_filler {
      type: "xavier"
      std: 0.03
    }
    bias_filler {
      type: "constant"
      value: 0.2
    }
  }
}
layer {
  name: "inception_3a/relu_1x1"
  type: "ReLU"
  bottom: "inception_3a/1x1"
  top: "inception_3a/1x1"
}
layer {
  name: "inception_3a/3x3_reduce"
  type: "Convolution"
  bottom: "pool2/3x3_s2"
  top: "inception_3a/3x3_reduce"
  param {
    lr_mult: 1
    decay_mult: 1
  }
  param {
    lr_mult: 2
    decay_mult: 0
  }
  convolution_param {
    num_output: 96
    kernel_size: 1
    weight_filler {
      type: "xavier"
      std: 0.09
    }
    bias_filler {
      type: "constant"
      value: 0.2
    }
  }
}
layer {
  name: "inception_3a/relu_3x3_reduce"
  type: "ReLU"
  bottom: "inception_3a/3x3_reduce"
  top: "inception_3a/3x3_reduce"
}
layer {
  name: "inception_3a/3x3"
  type: "Convolution"
  bottom: "inception_3a/3x3_reduce"
  top: "inception_3a/3x3"
  param {
    lr_mult: 1
    decay_mult: 1
  }
  param {
    lr_mult: 2
    decay_mult: 0
  }
  convolution_param {
    num_output: 128
    pad: 1
    kernel_size: 3
    weight_filler {
      type: "xavier"
      std: 0.03
    }
    bias_filler {
      type: "constant"
      value: 0.2
    }
  }
}
layer {
  name: "inception_3a/relu_3x3"
  type: "ReLU"
  bottom: "inception_3a/3x3"
  top: "inception_3a/3x3"
}
layer {
  name: "inception_3a/5x5_reduce"
  type: "Convolution"
  bottom: "pool2/3x3_s2"
  top: "inception_3a/5x5_reduce"
  param {
    lr_mult: 1
    decay_mult: 1
  }
  param {
    lr_mult: 2
    decay_mult: 0
  }
  convolution_param {
    num_output: 16
    kernel_size: 1
    weight_filler {
      type: "xavier"
      std: 0.2
    }
    bias_filler {
      type: "constant"
      value: 0.2
    }
  }
}
layer {
  name: "inception_3a/relu_5x5_reduce"
  type: "ReLU"
  bottom: "inception_3a/5x5_reduce"
  top: "inception_3a/5x5_reduce"
}
layer {
  name: "inception_3a/5x5"
  type: "Convolution"
  bottom: "inception_3a/5x5_reduce"
  top: "inception_3a/5x5"
  param {
    lr_mult: 1
    decay_mult: 1
  }
  param {
    lr_mult: 2
    decay_mult: 0
  }
  convolution_param {
    num_output: 32
    pad: 2
    kernel_size: 5
    weight_filler {
      type: "xavier"
      std: 0.03
    }
    bias_filler {
      type: "constant"
      value: 0.2
    }
  }
}
layer {
  name: "inception_3a/relu_5x5"
  type: "ReLU"
  bottom: "inception_3a/5x5"
  top: "inception_3a/5x5"
}
layer {
  name: "inception_3a/pool"
  type: "Pooling"
  bottom: "pool2/3x3_s2"
  top: "inception_3a/pool"
  pooling_param {
    pool: MAX
    kernel_size: 3
    stride: 1
    pad: 1
  }
}
layer {
  name: "inception_3a/pool_proj"
  type: "Convolution"
  bottom: "inception_3a/pool"
  top: "inception_3a/pool_proj"
  param {
    lr_mult: 1
    decay_mult: 1
  }
  param {
    lr_mult: 2
    decay_mult: 0
  }
  convolution_param {
    num_output: 32
    kernel_size: 1
    weight_filler {
      type: "xavier"
      std: 0.1
    }
    bias_filler {
      type: "constant"
      value: 0.2
    }
  }
}
layer {
  name: "inception_3a/relu_pool_proj"
  type: "ReLU"
  bottom: "inception_3a/pool_proj"
  top: "inception_3a/pool_proj"
}
layer {
  name: "inception_3a/output"
  type: "Concat"
  bottom: "inception_3a/1x1"
  bottom: "inception_3a/3x3"
  bottom: "inception_3a/5x5"
  bottom: "inception_3a/pool_proj"
  top: "inception_3a/output"
}
layer {
  name: "inception_3b/1x1"
  type: "Convolution"
  bottom: "inception_3a/output"
  top: "inception_3b/1x1"
  param {
    lr_mult: 1
    decay_mult: 1
  }
  param {
    lr_mult: 2
    decay_mult: 0
  }
  convolution_param {
    num_output: 128
    kernel_size: 1
    weight_filler {
      type: "xavier"
      std: 0.03
    }
    bias_filler {
      type: "constant"
      value: 0.2
    }
  }
}
layer {
  name: "inception_3b/relu_1x1"
  type: "ReLU"
  bottom: "inception_3b/1x1"
  top: "inception_3b/1x1"
}
layer {
  name: "inception_3b/3x3_reduce"
  type: "Convolution"
  bottom: "inception_3a/output"
  top: "inception_3b/3x3_reduce"
  param {
    lr_mult: 1
    decay_mult: 1
  }
  param {
    lr_mult: 2
    decay_mult: 0
  }
  convolution_param {
    num_output: 128
    kernel_size: 1
    weight_filler {
      type: "xavier"
      std: 0.09
    }
    bias_filler {
      type: "constant"
      value: 0.2
    }
  }
}
layer {
  name: "inception_3b/relu_3x3_reduce"
  type: "ReLU"
  bottom: "inception_3b/3x3_reduce"
  top: "inception_3b/3x3_reduce"
}
layer {
  name: "inception_3b/3x3"
  type: "Convolution"
  bottom: "inception_3b/3x3_reduce"
  top: "inception_3b/3x3"
  param {
    lr_mult: 1
    decay_mult: 1
  }
  param {
    lr_mult: 2
    decay_mult: 0
  }
  convolution_param {
    num_output: 192
    pad: 1
    kernel_size: 3
    weight_filler {
      type: "xavier"
      std: 0.03
    }
    bias_filler {
      type: "constant"
      value: 0.2
    }
  }
}
layer {
  name: "inception_3b/relu_3x3"
  type: "ReLU"
  bottom: "inception_3b/3x3"
  top: "inception_3b/3x3"
}
layer {
  name: "inception_3b/5x5_reduce"
  type: "Convolution"
  bottom: "inception_3a/output"
  top: "inception_3b/5x5_reduce"
  param {
    lr_mult: 1
    decay_mult: 1
  }
  param {
    lr_mult: 2
    decay_mult: 0
  }
  convolution_param {
    num_output: 32
    kernel_size: 1
    weight_filler {
      type: "xavier"
      std: 0.2
    }
    bias_filler {
      type: "constant"
      value: 0.2
    }
  }
}
layer {
  name: "inception_3b/relu_5x5_reduce"
  type: "ReLU"
  bottom: "inception_3b/5x5_reduce"
  top: "inception_3b/5x5_reduce"
}
layer {
  name: "inception_3b/5x5"
  type: "Convolution"
  bottom: "inception_3b/5x5_reduce"
  top: "inception_3b/5x5"
  param {
    lr_mult: 1
    decay_mult: 1
  }
  param {
    lr_mult: 2
    decay_mult: 0
  }
  convolution_param {
    num_output: 96
    pad: 2
    kernel_size: 5
    weight_filler {
      type: "xavier"
      std: 0.03
    }
    bias_filler {
      type: "constant"
      value: 0.2
    }
  }
}
layer {
  name: "inception_3b/relu_5x5"
  type: "ReLU"
  bottom: "inception_3b/5x5"
  top: "inception_3b/5x5"
}
layer {
  name: "inception_3b/pool"
  type: "Pooling"
  bottom: "inception_3a/output"
  top: "inception_3b/pool"
  pooling_param {
    pool: MAX
    kernel_size: 3
    stride: 1
    pad: 1
  }
}
layer {
  name: "inception_3b/pool_proj"
  type: "Convolution"
  bottom: "inception_3b/pool"
  top: "inception_3b/pool_proj"
  param {
    lr_mult: 1
    decay_mult: 1
  }
  param {
    lr_mult: 2
    decay_mult: 0
  }
  convolution_param {
    num_output: 64
    kernel_size: 1
    weight_filler {
      type: "xavier"
      std: 0.1
    }
    bias_filler {
      type: "constant"
      value: 0.2
    }
  }
}
layer {
  name: "inception_3b/relu_pool_proj"
  type: "ReLU"
  bottom: "inception_3b/pool_proj"
  top: "inception_3b/pool_proj"
}
layer {
  name: "inception_3b/output"
  type: "Concat"
  bottom: "inception_3b/1x1"
  bottom: "inception_3b/3x3"
  bottom: "inception_3b/5x5"
  bottom: "inception_3b/pool_proj"
  top: "inception_3b/output"
}
layer {
  name: "pool3/3x3_s2"
  type: "Pooling"
  bottom: "inception_3b/output"
  top: "pool3/3x3_s2"
  pooling_param {
    pool: MAX
    kernel_size: 3
    stride: 2
  }
}
layer {
  name: "inception_4a/1x1"
  type: "Convolution"
  bottom: "pool3/3x3_s2"
  top: "inception_4a/1x1"
  param {
    lr_mult: 1
    decay_mult: 1
  }
  param {
    lr_mult: 2
    decay_mult: 0
  }
  convolution_param {
    num_output: 192
    kernel_size: 1
    weight_filler {
      type: "xavier"
      std: 0.03
    }
    bias_filler {
      type: "constant"
      value: 0.2
    }
  }
}
layer {
  name: "inception_4a/relu_1x1"
  type: "ReLU"
  bottom: "inception_4a/1x1"
  top: "inception_4a/1x1"
}
layer {
  name: "inception_4a/3x3_reduce"
  type: "Convolution"
  bottom: "pool3/3x3_s2"
  top: "inception_4a/3x3_reduce"
  param {
    lr_mult: 1
    decay_mult: 1
  }
  param {
    lr_mult: 2
    decay_mult: 0
  }
  convolution_param {
    num_output: 96
    kernel_size: 1
    weight_filler {
      type: "xavier"
      std: 0.09
    }
    bias_filler {
      type: "constant"
      value: 0.2
    }
  }
}
layer {
  name: "inception_4a/relu_3x3_reduce"
  type: "ReLU"
  bottom: "inception_4a/3x3_reduce"
  top: "inception_4a/3x3_reduce"
}
layer {
  name: "inception_4a/3x3"
  type: "Convolution"
  bottom: "inception_4a/3x3_reduce"
  top: "inception_4a/3x3"
  param {
    lr_mult: 1
    decay_mult: 1
  }
  param {
    lr_mult: 2
    decay_mult: 0
  }
  convolution_param {
    num_output: 208
    pad: 1
    kernel_size: 3
    weight_filler {
      type: "xavier"
      std: 0.03
    }
    bias_filler {
      type: "constant"
      value: 0.2
    }
  }
}
layer {
  name: "inception_4a/relu_3x3"
  type: "ReLU"
  bottom: "inception_4a/3x3"
  top: "inception_4a/3x3"
}
layer {
  name: "inception_4a/5x5_reduce"
  type: "Convolution"
  bottom: "pool3/3x3_s2"
  top: "inception_4a/5x5_reduce"
  param {
    lr_mult: 1
    decay_mult: 1
  }
  param {
    lr_mult: 2
    decay_mult: 0
  }
  convolution_param {
    num_output: 16
    kernel_size: 1
    weight_filler {
      type: "xavier"
      std: 0.2
    }
    bias_filler {
      type: "constant"
      value: 0.2
    }
  }
}
layer {
  name: "inception_4a/relu_5x5_reduce"
  type: "ReLU"
  bottom: "inception_4a/5x5_reduce"
  top: "inception_4a/5x5_reduce"
}
layer {
  name: "inception_4a/5x5"
  type: "Convolution"
  bottom: "inception_4a/5x5_reduce"
  top: "inception_4a/5x5"
  param {
    lr_mult: 1
    decay_mult: 1
  }
  param {
    lr_mult: 2
    decay_mult: 0
  }
  convolution_param {
    num_output: 48
    pad: 2
    kernel_size: 5
    weight_filler {
      type: "xavier"
      std: 0.03
    }
    bias_filler {
      type: "constant"
      value: 0.2
    }
  }
}
layer {
  name: "inception_4a/relu_5x5"
  type: "ReLU"
  bottom: "inception_4a/5x5"
  top: "inception_4a/5x5"
}
layer {
  name: "inception_4a/pool"
  type: "Pooling"
  bottom: "pool3/3x3_s2"
  top: "inception_4a/pool"
  pooling_param {
    pool: MAX
    kernel_size: 3
    stride: 1
    pad: 1
  }
}
layer {
  name: "inception_4a/pool_proj"
  type: "Convolution"
  bottom: "inception_4a/pool"
  top: "inception_4a/pool_proj"
  param {
    lr_mult: 1
    decay_mult: 1
  }
  param {
    lr_mult: 2
    decay_mult: 0
  }
  convolution_param {
    num_output: 64
    kernel_size: 1
    weight_filler {
      type: "xavier"
      std: 0.1
    }
    bias_filler {
      type: "constant"
      value: 0.2
    }
  }
}
layer {
  name: "inception_4a/relu_pool_proj"
  type: "ReLU"
  bottom: "inception_4a/pool_proj"
  top: "inception_4a/pool_proj"
}
layer {
  name: "inception_4a/output"
  type: "Concat"
  bottom: "inception_4a/1x1"
  bottom: "inception_4a/3x3"
  bottom: "inception_4a/5x5"
  bottom: "inception_4a/pool_proj"
  top: "inception_4a/output"
}
layer {
  name: "inception_4b/1x1"
  type: "Convolution"
  bottom: "inception_4a/output"
  top: "inception_4b/1x1"
  param {
    lr_mult: 1
    decay_mult: 1
  }
  param {
    lr_mult: 2
    decay_mult: 0
  }
  convolution_param {
    num_output: 160
    kernel_size: 1
    weight_filler {
      type: "xavier"
      std: 0.03
    }
    bias_filler {
      type: "constant"
      value: 0.2
    }
  }
}
layer {
  name: "inception_4b/relu_1x1"
  type: "ReLU"
  bottom: "inception_4b/1x1"
  top: "inception_4b/1x1"
}
layer {
  name: "inception_4b/3x3_reduce"
  type: "Convolution"
  bottom: "inception_4a/output"
  top: "inception_4b/3x3_reduce"
  param {
    lr_mult: 1
    decay_mult: 1
  }
  param {
    lr_mult: 2
    decay_mult: 0
  }
  convolution_param {
    num_output: 112
    kernel_size: 1
    weight_filler {
      type: "xavier"
      std: 0.09
    }
    bias_filler {
      type: "constant"
      value: 0.2
    }
  }
}
layer {
  name: "inception_4b/relu_3x3_reduce"
  type: "ReLU"
  bottom: "inception_4b/3x3_reduce"
  top: "inception_4b/3x3_reduce"
}
layer {
  name: "inception_4b/3x3"
  type: "Convolution"
  bottom: "inception_4b/3x3_reduce"
  top: "inception_4b/3x3"
  param {
    lr_mult: 1
    decay_mult: 1
  }
  param {
    lr_mult: 2
    decay_mult: 0
  }
  convolution_param {
    num_output: 224
    pad: 1
    kernel_size: 3
    weight_filler {
      type: "xavier"
      std: 0.03
    }
    bias_filler {
      type: "constant"
      value: 0.2
    }
  }
}
layer {
  name: "inception_4b/relu_3x3"
  type: "ReLU"
  bottom: "inception_4b/3x3"
  top: "inception_4b/3x3"
}
layer {
  name: "inception_4b/5x5_reduce"
  type: "Convolution"
  bottom: "inception_4a/output"
  top: "inception_4b/5x5_reduce"
  param {
    lr_mult: 1
    decay_mult: 1
  }
  param {
    lr_mult: 2
    decay_mult: 0
  }
  convolution_param {
    num_output: 24
    kernel_size: 1
    weight_filler {
      type: "xavier"
      std: 0.2
    }
    bias_filler {
      type: "constant"
      value: 0.2
    }
  }
}
layer {
  name: "inception_4b/relu_5x5_reduce"
  type: "ReLU"
  bottom: "inception_4b/5x5_reduce"
  top: "inception_4b/5x5_reduce"
}
layer {
  name: "inception_4b/5x5"
  type: "Convolution"
  bottom: "inception_4b/5x5_reduce"
  top: "inception_4b/5x5"
  param {
    lr_mult: 1
    decay_mult: 1
  }
  param {
    lr_mult: 2
    decay_mult: 0
  }
  convolution_param {
    num_output: 64
    pad: 2
    kernel_size: 5
    weight_filler {
      type: "xavier"
      std: 0.03
    }
    bias_filler {
      type: "constant"
      value: 0.2
    }
  }
}
layer {
  name: "inception_4b/relu_5x5"
  type: "ReLU"
  bottom: "inception_4b/5x5"
  top: "inception_4b/5x5"
}
layer {
  name: "inception_4b/pool"
  type: "Pooling"
  bottom: "inception_4a/output"
  top: "inception_4b/pool"
  pooling_param {
    pool: MAX
    kernel_size: 3
    stride: 1
    pad: 1
  }
}
layer {
  name: "inception_4b/pool_proj"
  type: "Convolution"
  bottom: "inception_4b/pool"
  top: "inception_4b/pool_proj"
  param {
    lr_mult: 1
    decay_mult: 1
  }
  param {
    lr_mult: 2
    decay_mult: 0
  }
  convolution_param {
    num_output: 64
    kernel_size: 1
    weight_filler {
      type: "xavier"
      std: 0.1
    }
    bias_filler {
      type: "constant"
      value: 0.2
    }
  }
}
layer {
  name: "inception_4b/relu_pool_proj"
  type: "ReLU"
  bottom: "inception_4b/pool_proj"
  top: "inception_4b/pool_proj"
}
layer {
  name: "inception_4b/output"
  type: "Concat"
  bottom: "inception_4b/1x1"
  bottom: "inception_4b/3x3"
  bottom: "inception_4b/5x5"
  bottom: "inception_4b/pool_proj"
  top: "inception_4b/output"
}
layer {
  name: "inception_4c/1x1"
  type: "Convolution"
  bottom: "inception_4b/output"
  top: "inception_4c/1x1"
  param {
    lr_mult: 1
    decay_mult: 1
  }
  param {
    lr_mult: 2
    decay_mult: 0
  }
  convolution_param {
    num_output: 128
    kernel_size: 1
    weight_filler {
      type: "xavier"
      std: 0.03
    }
    bias_filler {
      type: "constant"
      value: 0.2
    }
  }
}
layer {
  name: "inception_4c/relu_1x1"
  type: "ReLU"
  bottom: "inception_4c/1x1"
  top: "inception_4c/1x1"
}
layer {
  name: "inception_4c/3x3_reduce"
  type: "Convolution"
  bottom: "inception_4b/output"
  top: "inception_4c/3x3_reduce"
  param {
    lr_mult: 1
    decay_mult: 1
  }
  param {
    lr_mult: 2
    decay_mult: 0
  }
  convolution_param {
    num_output: 128
    kernel_size: 1
    weight_filler {
      type: "xavier"
      std: 0.09
    }
    bias_filler {
      type: "constant"
      value: 0.2
    }
  }
}
layer {
  name: "inception_4c/relu_3x3_reduce"
  type: "ReLU"
  bottom: "inception_4c/3x3_reduce"
  top: "inception_4c/3x3_reduce"
}
layer {
  name: "inception_4c/3x3"
  type: "Convolution"
  bottom: "inception_4c/3x3_reduce"
  top: "inception_4c/3x3"
  param {
    lr_mult: 1
    decay_mult: 1
  }
  param {
    lr_mult: 2
    decay_mult: 0
  }
  convolution_param {
    num_output: 256
    pad: 1
    kernel_size: 3
    weight_filler {
      type: "xavier"
      std: 0.03
    }
    bias_filler {
      type: "constant"
      value: 0.2
    }
  }
}
layer {
  name: "inception_4c/relu_3x3"
  type: "ReLU"
  bottom: "inception_4c/3x3"
  top: "inception_4c/3x3"
}
layer {
  name: "inception_4c/5x5_reduce"
  type: "Convolution"
  bottom: "inception_4b/output"
  top: "inception_4c/5x5_reduce"
  param {
    lr_mult: 1
    decay_mult: 1
  }
  param {
    lr_mult: 2
    decay_mult: 0
  }
  convolution_param {
    num_output: 24
    kernel_size: 1
    weight_filler {
      type: "xavier"
      std: 0.2
    }
    bias_filler {
      type: "constant"
      value: 0.2
    }
  }
}
layer {
  name: "inception_4c/relu_5x5_reduce"
  type: "ReLU"
  bottom: "inception_4c/5x5_reduce"
  top: "inception_4c/5x5_reduce"
}
layer {
  name: "inception_4c/5x5"
  type: "Convolution"
  bottom: "inception_4c/5x5_reduce"
  top: "inception_4c/5x5"
  param {
    lr_mult: 1
    decay_mult: 1
  }
  param {
    lr_mult: 2
    decay_mult: 0
  }
  convolution_param {
    num_output: 64
    pad: 2
    kernel_size: 5
    weight_filler {
      type: "xavier"
      std: 0.03
    }
    bias_filler {
      type: "constant"
      value: 0.2
    }
  }
}
layer {
  name: "inception_4c/relu_5x5"
  type: "ReLU"
  bottom: "inception_4c/5x5"
  top: "inception_4c/5x5"
}
layer {
  name: "inception_4c/pool"
  type: "Pooling"
  bottom: "inception_4b/output"
  top: "inception_4c/pool"
  pooling_param {
    pool: MAX
    kernel_size: 3
    stride: 1
    pad: 1
  }
}
layer {
  name: "inception_4c/pool_proj"
  type: "Convolution"
  bottom: "inception_4c/pool"
  top: "inception_4c/pool_proj"
  param {
    lr_mult: 1
    decay_mult: 1
  }
  param {
    lr_mult: 2
    decay_mult: 0
  }
  convolution_param {
    num_output: 64
    kernel_size: 1
    weight_filler {
      type: "xavier"
      std: 0.1
    }
    bias_filler {
      type: "constant"
      value: 0.2
    }
  }
}
layer {
  name: "inception_4c/relu_pool_proj"
  type: "ReLU"
  bottom: "inception_4c/pool_proj"
  top: "inception_4c/pool_proj"
}
layer {
  name: "inception_4c/output"
  type: "Concat"
  bottom: "inception_4c/1x1"
  bottom: "inception_4c/3x3"
  bottom: "inception_4c/5x5"
  bottom: "inception_4c/pool_proj"
  top: "inception_4c/output"
}
layer {
  name: "inception_4d/1x1"
  type: "Convolution"
  bottom: "inception_4c/output"
  top: "inception_4d/1x1"
  param {
    lr_mult: 1
    decay_mult: 1
  }
  param {
    lr_mult: 2
    decay_mult: 0
  }
  convolution_param {
    num_output: 112
    kernel_size: 1
    weight_filler {
      type: "xavier"
      std: 0.03
    }
    bias_filler {
      type: "constant"
      value: 0.2
    }
  }
}
layer {
  name: "inception_4d/relu_1x1"
  type: "ReLU"
  bottom: "inception_4d/1x1"
  top: "inception_4d/1x1"
}
layer {
  name: "inception_4d/3x3_reduce"
  type: "Convolution"
  bottom: "inception_4c/output"
  top: "inception_4d/3x3_reduce"
  param {
    lr_mult: 1
    decay_mult: 1
  }
  param {
    lr_mult: 2
    decay_mult: 0
  }
  convolution_param {
    num_output: 144
    kernel_size: 1
    weight_filler {
      type: "xavier"
      std: 0.09
    }
    bias_filler {
      type: "constant"
      value: 0.2
    }
  }
}
layer {
  name: "inception_4d/relu_3x3_reduce"
  type: "ReLU"
  bottom: "inception_4d/3x3_reduce"
  top: "inception_4d/3x3_reduce"
}
layer {
  name: "inception_4d/3x3"
  type: "Convolution"
  bottom: "inception_4d/3x3_reduce"
  top: "inception_4d/3x3"
  param {
    lr_mult: 1
    decay_mult: 1
  }
  param {
    lr_mult: 2
    decay_mult: 0
  }
  convolution_param {
    num_output: 288
    pad: 1
    kernel_size: 3
    weight_filler {
      type: "xavier"
      std: 0.03
    }
    bias_filler {
      type: "constant"
      value: 0.2
    }
  }
}
layer {
  name: "inception_4d/relu_3x3"
  type: "ReLU"
  bottom: "inception_4d/3x3"
  top: "inception_4d/3x3"
}
layer {
  name: "inception_4d/5x5_reduce"
  type: "Convolution"
  bottom: "inception_4c/output"
  top: "inception_4d/5x5_reduce"
  param {
    lr_mult: 1
    decay_mult: 1
  }
  param {
    lr_mult: 2
    decay_mult: 0
  }
  convolution_param {
    num_output: 32
    kernel_size: 1
    weight_filler {
      type: "xavier"
      std: 0.2
    }
    bias_filler {
      type: "constant"
      value: 0.2
    }
  }
}
layer {
  name: "inception_4d/relu_5x5_reduce"
  type: "ReLU"
  bottom: "inception_4d/5x5_reduce"
  top: "inception_4d/5x5_reduce"
}
layer {
  name: "inception_4d/5x5"
  type: "Convolution"
  bottom: "inception_4d/5x5_reduce"
  top: "inception_4d/5x5"
  param {
    lr_mult: 1
    decay_mult: 1
  }
  param {
    lr_mult: 2
    decay_mult: 0
  }
  convolution_param {
    num_output: 64
    pad: 2
    kernel_size: 5
    weight_filler {
      type: "xavier"
      std: 0.03
    }
    bias_filler {
      type: "constant"
      value: 0.2
    }
  }
}
layer {
  name: "inception_4d/relu_5x5"
  type: "ReLU"
  bottom: "inception_4d/5x5"
  top: "inception_4d/5x5"
}
layer {
  name: "inception_4d/pool"
  type: "Pooling"
  bottom: "inception_4c/output"
  top: "inception_4d/pool"
  pooling_param {
    pool: MAX
    kernel_size: 3
    stride: 1
    pad: 1
  }
}
layer {
  name: "inception_4d/pool_proj"
  type: "Convolution"
  bottom: "inception_4d/pool"
  top: "inception_4d/pool_proj"
  param {
    lr_mult: 1
    decay_mult: 1
  }
  param {
    lr_mult: 2
    decay_mult: 0
  }
  convolution_param {
    num_output: 64
    kernel_size: 1
    weight_filler {
      type: "xavier"
      std: 0.1
    }
    bias_filler {
      type: "constant"
      value: 0.2
    }
  }
}
layer {
  name: "inception_4d/relu_pool_proj"
  type: "ReLU"
  bottom: "inception_4d/pool_proj"
  top: "inception_4d/pool_proj"
}
layer {
  name: "inception_4d/output"
  type: "Concat"
  bottom: "inception_4d/1x1"
  bottom: "inception_4d/3x3"
  bottom: "inception_4d/5x5"
  bottom: "inception_4d/pool_proj"
  top: "inception_4d/output"
}
layer {
  name: "inception_4e/1x1"
  type: "Convolution"
  bottom: "inception_4d/output"
  top: "inception_4e/1x1"
  param {
    lr_mult: 1
    decay_mult: 1
  }
  param {
    lr_mult: 2
    decay_mult: 0
  }
  convolution_param {
    num_output: 256
    kernel_size: 1
    weight_filler {
      type: "xavier"
      std: 0.03
    }
    bias_filler {
      type: "constant"
      value: 0.2
    }
  }
}
layer {
  name: "inception_4e/relu_1x1"
  type: "ReLU"
  bottom: "inception_4e/1x1"
  top: "inception_4e/1x1"
}
layer {
  name: "inception_4e/3x3_reduce"
  type: "Convolution"
  bottom: "inception_4d/output"
  top: "inception_4e/3x3_reduce"
  param {
    lr_mult: 1
    decay_mult: 1
  }
  param {
    lr_mult: 2
    decay_mult: 0
  }
  convolution_param {
    num_output: 160
    kernel_size: 1
    weight_filler {
      type: "xavier"
      std: 0.09
    }
    bias_filler {
      type: "constant"
      value: 0.2
    }
  }
}
layer {
  name: "inception_4e/relu_3x3_reduce"
  type: "ReLU"
  bottom: "inception_4e/3x3_reduce"
  top: "inception_4e/3x3_reduce"
}
layer {
  name: "inception_4e/3x3"
  type: "Convolution"
  bottom: "inception_4e/3x3_reduce"
  top: "inception_4e/3x3"
  param {
    lr_mult: 1
    decay_mult: 1
  }
  param {
    lr_mult: 2
    decay_mult: 0
  }
  convolution_param {
    num_output: 320
    pad: 1
    kernel_size: 3
    weight_filler {
      type: "xavier"
      std: 0.03
    }
    bias_filler {
      type: "constant"
      value: 0.2
    }
  }
}
layer {
  name: "inception_4e/relu_3x3"
  type: "ReLU"
  bottom: "inception_4e/3x3"
  top: "inception_4e/3x3"
}
layer {
  name: "inception_4e/5x5_reduce"
  type: "Convolution"
  bottom: "inception_4d/output"
  top: "inception_4e/5x5_reduce"
  param {
    lr_mult: 1
    decay_mult: 1
  }
  param {
    lr_mult: 2
    decay_mult: 0
  }
  convolution_param {
    num_output: 32
    kernel_size: 1
    weight_filler {
      type: "xavier"
      std: 0.2
    }
    bias_filler {
      type: "constant"
      value: 0.2
    }
  }
}
layer {
  name: "inception_4e/relu_5x5_reduce"
  type: "ReLU"
  bottom: "inception_4e/5x5_reduce"
  top: "inception_4e/5x5_reduce"
}
layer {
  name: "inception_4e/5x5"
  type: "Convolution"
  bottom: "inception_4e/5x5_reduce"
  top: "inception_4e/5x5"
  param {
    lr_mult: 1
    decay_mult: 1
  }
  param {
    lr_mult: 2
    decay_mult: 0
  }
  convolution_param {
    num_output: 128
    pad: 2
    kernel_size: 5
    weight_filler {
      type: "xavier"
      std: 0.03
    }
    bias_filler {
      type: "constant"
      value: 0.2
    }
  }
}
layer {
  name: "inception_4e/relu_5x5"
  type: "ReLU"
  bottom: "inception_4e/5x5"
  top: "inception_4e/5x5"
}
layer {
  name: "inception_4e/pool"
  type: "Pooling"
  bottom: "inception_4d/output"
  top: "inception_4e/pool"
  pooling_param {
    pool: MAX
    kernel_size: 3
    stride: 1
    pad: 1
  }
}
layer {
  name: "inception_4e/pool_proj"
  type: "Convolution"
  bottom: "inception_4e/pool"
  top: "inception_4e/pool_proj"
  param {
    lr_mult: 1
    decay_mult: 1
  }
  param {
    lr_mult: 2
    decay_mult: 0
  }
  convolution_param {
    num_output: 128
    kernel_size: 1
    weight_filler {
      type: "xavier"
      std: 0.1
    }
    bias_filler {
      type: "constant"
      value: 0.2
    }
  }
}
layer {
  name: "inception_4e/relu_pool_proj"
  type: "ReLU"
  bottom: "inception_4e/pool_proj"
  top: "inception_4e/pool_proj"
}
layer {
  name: "inception_4e/output"
  type: "Concat"
  bottom: "inception_4e/1x1"
  bottom: "inception_4e/3x3"
  bottom: "inception_4e/5x5"
  bottom: "inception_4e/pool_proj"
  top: "inception_4e/output"
}
layer {
  name: "pool4/3x3_s2"
  type: "Pooling"
  bottom: "inception_4e/output"
  top: "pool4/3x3_s2"
  pooling_param {
    pool: MAX
    kernel_size: 3
    stride: 2
  }
}
layer {
  name: "inception_5a/1x1"
  type: "Convolution"
  bottom: "pool4/3x3_s2"
  top: "inception_5a/1x1"
  param {
    lr_mult: 1
    decay_mult: 1
  }
  param {
    lr_mult: 2
    decay_mult: 0
  }
  convolution_param {
    num_output: 256
    kernel_size: 1
    weight_filler {
      type: "xavier"
      std: 0.03
    }
    bias_filler {
      type: "constant"
      value: 0.2
    }
  }
}
layer {
  name: "inception_5a/relu_1x1"
  type: "ReLU"
  bottom: "inception_5a/1x1"
  top: "inception_5a/1x1"
}
layer {
  name: "inception_5a/3x3_reduce"
  type: "Convolution"
  bottom: "pool4/3x3_s2"
  top: "inception_5a/3x3_reduce"
  param {
    lr_mult: 1
    decay_mult: 1
  }
  param {
    lr_mult: 2
    decay_mult: 0
  }
  convolution_param {
    num_output: 160
    kernel_size: 1
    weight_filler {
      type: "xavier"
      std: 0.09
    }
    bias_filler {
      type: "constant"
      value: 0.2
    }
  }
}
layer {
  name: "inception_5a/relu_3x3_reduce"
  type: "ReLU"
  bottom: "inception_5a/3x3_reduce"
  top: "inception_5a/3x3_reduce"
}
layer {
  name: "inception_5a/3x3"
  type: "Convolution"
  bottom: "inception_5a/3x3_reduce"
  top: "inception_5a/3x3"
  param {
    lr_mult: 1
    decay_mult: 1
  }
  param {
    lr_mult: 2
    decay_mult: 0
  }
  convolution_param {
    num_output: 320
    pad: 1
    kernel_size: 3
    weight_filler {
      type: "xavier"
      std: 0.03
    }
    bias_filler {
      type: "constant"
      value: 0.2
    }
  }
}
layer {
  name: "inception_5a/relu_3x3"
  type: "ReLU"
  bottom: "inception_5a/3x3"
  top: "inception_5a/3x3"
}
layer {
  name: "inception_5a/5x5_reduce"
  type: "Convolution"
  bottom: "pool4/3x3_s2"
  top: "inception_5a/5x5_reduce"
  param {
    lr_mult: 1
    decay_mult: 1
  }
  param {
    lr_mult: 2
    decay_mult: 0
  }
  convolution_param {
    num_output: 32
    kernel_size: 1
    weight_filler {
      type: "xavier"
      std: 0.2
    }
    bias_filler {
      type: "constant"
      value: 0.2
    }
  }
}
layer {
  name: "inception_5a/relu_5x5_reduce"
  type: "ReLU"
  bottom: "
I0705 19:03:42.432314 23439 net.cpp:413] Input 0 -> data
I0705 19:03:42.432392 23439 layer_factory.hpp:77] Creating layer conv1/7x7_s2
I0705 19:03:42.432415 23439 net.cpp:106] Creating Layer conv1/7x7_s2
I0705 19:03:42.432420 23439 net.cpp:454] conv1/7x7_s2 <- data
I0705 19:03:42.432430 23439 net.cpp:411] conv1/7x7_s2 -> conv1/7x7_s2
I0705 19:03:42.433007 23439 net.cpp:150] Setting up conv1/7x7_s2
I0705 19:03:42.433022 23439 net.cpp:157] Top shape: 10 64 112 112 (8028160)
I0705 19:03:42.433024 23439 net.cpp:165] Memory required for data: 32112640
I0705 19:03:42.433040 23439 layer_factory.hpp:77] Creating layer conv1/relu_7x7
I0705 19:03:42.433048 23439 net.cpp:106] Creating Layer conv1/relu_7x7
I0705 19:03:42.433055 23439 net.cpp:454] conv1/relu_7x7 <- conv1/7x7_s2
I0705 19:03:42.433060 23439 net.cpp:397] conv1/relu_7x7 -> conv1/7x7_s2 (in-place)
I0705 19:03:42.433073 23439 net.cpp:150] Setting up conv1/relu_7x7
I0705 19:03:42.433079 23439 net.cpp:157] Top shape: 10 64 112 112 (8028160)
I0705 19:03:42.433081 23439 net.cpp:165] Memory required for data: 64225280
I0705 19:03:42.433084 23439 layer_factory.hpp:77] Creating layer pool1/3x3_s2
I0705 19:03:42.433090 23439 net.cpp:106] Creating Layer pool1/3x3_s2
I0705 19:03:42.433094 23439 net.cpp:454] pool1/3x3_s2 <- conv1/7x7_s2
I0705 19:03:42.433099 23439 net.cpp:411] pool1/3x3_s2 -> pool1/3x3_s2
I0705 19:03:42.433115 23439 net.cpp:150] Setting up pool1/3x3_s2
I0705 19:03:42.433120 23439 net.cpp:157] Top shape: 10 64 56 56 (2007040)
I0705 19:03:42.433123 23439 net.cpp:165] Memory required for data: 72253440
I0705 19:03:42.433126 23439 layer_factory.hpp:77] Creating layer pool1/norm1
I0705 19:03:42.433133 23439 net.cpp:106] Creating Layer pool1/norm1
I0705 19:03:42.433136 23439 net.cpp:454] pool1/norm1 <- pool1/3x3_s2
I0705 19:03:42.433141 23439 net.cpp:411] pool1/norm1 -> pool1/norm1
I0705 19:03:42.433153 23439 net.cpp:150] Setting up pool1/norm1
I0705 19:03:42.433158 23439 net.cpp:157] Top shape: 10 64 56 56 (2007040)
I0705 19:03:42.433161 23439 net.cpp:165] Memory required for data: 80281600
I0705 19:03:42.433164 23439 layer_factory.hpp:77] Creating layer conv2/3x3_reduce
I0705 19:03:42.433174 23439 net.cpp:106] Creating Layer conv2/3x3_reduce
I0705 19:03:42.433178 23439 net.cpp:454] conv2/3x3_reduce <- pool1/norm1
I0705 19:03:42.433185 23439 net.cpp:411] conv2/3x3_reduce -> conv2/3x3_reduce
I0705 19:03:42.433246 23439 net.cpp:150] Setting up conv2/3x3_reduce
I0705 19:03:42.433253 23439 net.cpp:157] Top shape: 10 64 56 56 (2007040)
I0705 19:03:42.433255 23439 net.cpp:165] Memory required for data: 88309760
I0705 19:03:42.433262 23439 layer_factory.hpp:77] Creating layer conv2/relu_3x3_reduce
I0705 19:03:42.433269 23439 net.cpp:106] Creating Layer conv2/relu_3x3_reduce
I0705 19:03:42.433271 23439 net.cpp:454] conv2/relu_3x3_reduce <- conv2/3x3_reduce
I0705 19:03:42.433275 23439 net.cpp:397] conv2/relu_3x3_reduce -> conv2/3x3_reduce (in-place)
I0705 19:03:42.433281 23439 net.cpp:150] Setting up conv2/relu_3x3_reduce
I0705 19:03:42.433285 23439 net.cpp:157] Top shape: 10 64 56 56 (2007040)
I0705 19:03:42.433289 23439 net.cpp:165] Memory required for data: 96337920
I0705 19:03:42.433291 23439 layer_factory.hpp:77] Creating layer conv2/3x3
I0705 19:03:42.433300 23439 net.cpp:106] Creating Layer conv2/3x3
I0705 19:03:42.433305 23439 net.cpp:454] conv2/3x3 <- conv2/3x3_reduce
I0705 19:03:42.433311 23439 net.cpp:411] conv2/3x3 -> conv2/3x3
I0705 19:03:42.434260 23439 net.cpp:150] Setting up conv2/3x3
I0705 19:03:42.434268 23439 net.cpp:157] Top shape: 10 192 56 56 (6021120)
I0705 19:03:42.434273 23439 net.cpp:165] Memory required for data: 120422400
I0705 19:03:42.434279 23439 layer_factory.hpp:77] Creating layer conv2/relu_3x3
I0705 19:03:42.434285 23439 net.cpp:106] Creating Layer conv2/relu_3x3
I0705 19:03:42.434288 23439 net.cpp:454] conv2/relu_3x3 <- conv2/3x3
I0705 19:03:42.434295 23439 net.cpp:397] conv2/relu_3x3 -> conv2/3x3 (in-place)
I0705 19:03:42.434301 23439 net.cpp:150] Setting up conv2/relu_3x3
I0705 19:03:42.434305 23439 net.cpp:157] Top shape: 10 192 56 56 (6021120)
I0705 19:03:42.434309 23439 net.cpp:165] Memory required for data: 144506880
I0705 19:03:42.434312 23439 layer_factory.hpp:77] Creating layer conv2/norm2
I0705 19:03:42.434320 23439 net.cpp:106] Creating Layer conv2/norm2
I0705 19:03:42.434324 23439 net.cpp:454] conv2/norm2 <- conv2/3x3
I0705 19:03:42.434327 23439 net.cpp:411] conv2/norm2 -> conv2/norm2
I0705 19:03:42.434334 23439 net.cpp:150] Setting up conv2/norm2
I0705 19:03:42.434339 23439 net.cpp:157] Top shape: 10 192 56 56 (6021120)
I0705 19:03:42.434340 23439 net.cpp:165] Memory required for data: 168591360
I0705 19:03:42.434343 23439 layer_factory.hpp:77] Creating layer pool2/3x3_s2
I0705 19:03:42.434348 23439 net.cpp:106] Creating Layer pool2/3x3_s2
I0705 19:03:42.434351 23439 net.cpp:454] pool2/3x3_s2 <- conv2/norm2
I0705 19:03:42.434358 23439 net.cpp:411] pool2/3x3_s2 -> pool2/3x3_s2
I0705 19:03:42.434365 23439 net.cpp:150] Setting up pool2/3x3_s2
I0705 19:03:42.434370 23439 net.cpp:157] Top shape: 10 192 28 28 (1505280)
I0705 19:03:42.434372 23439 net.cpp:165] Memory required for data: 174612480
I0705 19:03:42.434375 23439 layer_factory.hpp:77] Creating layer pool2/3x3_s2_pool2/3x3_s2_0_split
I0705 19:03:42.434386 23439 net.cpp:106] Creating Layer pool2/3x3_s2_pool2/3x3_s2_0_split
I0705 19:03:42.434389 23439 net.cpp:454] pool2/3x3_s2_pool2/3x3_s2_0_split <- pool2/3x3_s2
I0705 19:03:42.434393 23439 net.cpp:411] pool2/3x3_s2_pool2/3x3_s2_0_split -> pool2/3x3_s2_pool2/3x3_s2_0_split_0
I0705 19:03:42.434399 23439 net.cpp:411] pool2/3x3_s2_pool2/3x3_s2_0_split -> pool2/3x3_s2_pool2/3x3_s2_0_split_1
I0705 19:03:42.434406 23439 net.cpp:411] pool2/3x3_s2_pool2/3x3_s2_0_split -> pool2/3x3_s2_pool2/3x3_s2_0_split_2
I0705 19:03:42.434411 23439 net.cpp:411] pool2/3x3_s2_pool2/3x3_s2_0_split -> pool2/3x3_s2_pool2/3x3_s2_0_split_3
I0705 19:03:42.434419 23439 net.cpp:150] Setting up pool2/3x3_s2_pool2/3x3_s2_0_split
I0705 19:03:42.434424 23439 net.cpp:157] Top shape: 10 192 28 28 (1505280)
I0705 19:03:42.434428 23439 net.cpp:157] Top shape: 10 192 28 28 (1505280)
I0705 19:03:42.434432 23439 net.cpp:157] Top shape: 10 192 28 28 (1505280)
I0705 19:03:42.434437 23439 net.cpp:157] Top shape: 10 192 28 28 (1505280)
I0705 19:03:42.434438 23439 net.cpp:165] Memory required for data: 198696960
I0705 19:03:42.434442 23439 layer_factory.hpp:77] Creating layer inception_3a/1x1
I0705 19:03:42.434450 23439 net.cpp:106] Creating Layer inception_3a/1x1
I0705 19:03:42.434454 23439 net.cpp:454] inception_3a/1x1 <- pool2/3x3_s2_pool2/3x3_s2_0_split_0
I0705 19:03:42.434465 23439 net.cpp:411] inception_3a/1x1 -> inception_3a/1x1
I0705 19:03:42.434587 23439 net.cpp:150] Setting up inception_3a/1x1
I0705 19:03:42.434593 23439 net.cpp:157] Top shape: 10 64 28 28 (501760)
I0705 19:03:42.434597 23439 net.cpp:165] Memory required for data: 200704000
I0705 19:03:42.434602 23439 layer_factory.hpp:77] Creating layer inception_3a/relu_1x1
I0705 19:03:42.434607 23439 net.cpp:106] Creating Layer inception_3a/relu_1x1
I0705 19:03:42.434610 23439 net.cpp:454] inception_3a/relu_1x1 <- inception_3a/1x1
I0705 19:03:42.434615 23439 net.cpp:397] inception_3a/relu_1x1 -> inception_3a/1x1 (in-place)
I0705 19:03:42.434620 23439 net.cpp:150] Setting up inception_3a/relu_1x1
I0705 19:03:42.434624 23439 net.cpp:157] Top shape: 10 64 28 28 (501760)
I0705 19:03:42.434628 23439 net.cpp:165] Memory required for data: 202711040
I0705 19:03:42.434630 23439 layer_factory.hpp:77] Creating layer inception_3a/3x3_reduce
I0705 19:03:42.434641 23439 net.cpp:106] Creating Layer inception_3a/3x3_reduce
I0705 19:03:42.434645 23439 net.cpp:454] inception_3a/3x3_reduce <- pool2/3x3_s2_pool2/3x3_s2_0_split_1
I0705 19:03:42.434650 23439 net.cpp:411] inception_3a/3x3_reduce -> inception_3a/3x3_reduce
I0705 19:03:42.434823 23439 net.cpp:150] Setting up inception_3a/3x3_reduce
I0705 19:03:42.434828 23439 net.cpp:157] Top shape: 10 96 28 28 (752640)
I0705 19:03:42.434831 23439 net.cpp:165] Memory required for data: 205721600
I0705 19:03:42.434840 23439 layer_factory.hpp:77] Creating layer inception_3a/relu_3x3_reduce
I0705 19:03:42.434846 23439 net.cpp:106] Creating Layer inception_3a/relu_3x3_reduce
I0705 19:03:42.434849 23439 net.cpp:454] inception_3a/relu_3x3_reduce <- inception_3a/3x3_reduce
I0705 19:03:42.434854 23439 net.cpp:397] inception_3a/relu_3x3_reduce -> inception_3a/3x3_reduce (in-place)
I0705 19:03:42.434859 23439 net.cpp:150] Setting up inception_3a/relu_3x3_reduce
I0705 19:03:42.434864 23439 net.cpp:157] Top shape: 10 96 28 28 (752640)
I0705 19:03:42.434866 23439 net.cpp:165] Memory required for data: 208732160
I0705 19:03:42.434870 23439 layer_factory.hpp:77] Creating layer inception_3a/3x3
I0705 19:03:42.434878 23439 net.cpp:106] Creating Layer inception_3a/3x3
I0705 19:03:42.434882 23439 net.cpp:454] inception_3a/3x3 <- inception_3a/3x3_reduce
I0705 19:03:42.434890 23439 net.cpp:411] inception_3a/3x3 -> inception_3a/3x3
I0705 19:03:42.435838 23439 net.cpp:150] Setting up inception_3a/3x3
I0705 19:03:42.435847 23439 net.cpp:157] Top shape: 10 128 28 28 (1003520)
I0705 19:03:42.435849 23439 net.cpp:165] Memory required for data: 212746240
I0705 19:03:42.435854 23439 layer_factory.hpp:77] Creating layer inception_3a/relu_3x3
I0705 19:03:42.435863 23439 net.cpp:106] Creating Layer inception_3a/relu_3x3
I0705 19:03:42.435866 23439 net.cpp:454] inception_3a/relu_3x3 <- inception_3a/3x3
I0705 19:03:42.435871 23439 net.cpp:397] inception_3a/relu_3x3 -> inception_3a/3x3 (in-place)
I0705 19:03:42.435878 23439 net.cpp:150] Setting up inception_3a/relu_3x3
I0705 19:03:42.435881 23439 net.cpp:157] Top shape: 10 128 28 28 (1003520)
I0705 19:03:42.435884 23439 net.cpp:165] Memory required for data: 216760320
I0705 19:03:42.435888 23439 layer_factory.hpp:77] Creating layer inception_3a/5x5_reduce
I0705 19:03:42.435896 23439 net.cpp:106] Creating Layer inception_3a/5x5_reduce
I0705 19:03:42.435900 23439 net.cpp:454] inception_3a/5x5_reduce <- pool2/3x3_s2_pool2/3x3_s2_0_split_2
I0705 19:03:42.435907 23439 net.cpp:411] inception_3a/5x5_reduce -> inception_3a/5x5_reduce
I0705 19:03:42.435955 23439 net.cpp:150] Setting up inception_3a/5x5_reduce
I0705 19:03:42.435961 23439 net.cpp:157] Top shape: 10 16 28 28 (125440)
I0705 19:03:42.435963 23439 net.cpp:165] Memory required for data: 217262080
I0705 19:03:42.435968 23439 layer_factory.hpp:77] Creating layer inception_3a/relu_5x5_reduce
I0705 19:03:42.435976 23439 net.cpp:106] Creating Layer inception_3a/relu_5x5_reduce
I0705 19:03:42.435979 23439 net.cpp:454] inception_3a/relu_5x5_reduce <- inception_3a/5x5_reduce
I0705 19:03:42.435984 23439 net.cpp:397] inception_3a/relu_5x5_reduce -> inception_3a/5x5_reduce (in-place)
I0705 19:03:42.435989 23439 net.cpp:150] Setting up inception_3a/relu_5x5_reduce
I0705 19:03:42.435993 23439 net.cpp:157] Top shape: 10 16 28 28 (125440)
I0705 19:03:42.435997 23439 net.cpp:165] Memory required for data: 217763840
I0705 19:03:42.435999 23439 layer_factory.hpp:77] Creating layer inception_3a/5x5
I0705 19:03:42.436007 23439 net.cpp:106] Creating Layer inception_3a/5x5
I0705 19:03:42.436010 23439 net.cpp:454] inception_3a/5x5 <- inception_3a/5x5_reduce
I0705 19:03:42.436018 23439 net.cpp:411] inception_3a/5x5 -> inception_3a/5x5
I0705 19:03:42.436141 23439 net.cpp:150] Setting up inception_3a/5x5
I0705 19:03:42.436147 23439 net.cpp:157] Top shape: 10 32 28 28 (250880)
I0705 19:03:42.436149 23439 net.cpp:165] Memory required for data: 218767360
I0705 19:03:42.436156 23439 layer_factory.hpp:77] Creating layer inception_3a/relu_5x5
I0705 19:03:42.436161 23439 net.cpp:106] Creating Layer inception_3a/relu_5x5
I0705 19:03:42.436164 23439 net.cpp:454] inception_3a/relu_5x5 <- inception_3a/5x5
I0705 19:03:42.436169 23439 net.cpp:397] inception_3a/relu_5x5 -> inception_3a/5x5 (in-place)
I0705 19:03:42.436174 23439 net.cpp:150] Setting up inception_3a/relu_5x5
I0705 19:03:42.436178 23439 net.cpp:157] Top shape: 10 32 28 28 (250880)
I0705 19:03:42.436182 23439 net.cpp:165] Memory required for data: 219770880
I0705 19:03:42.436183 23439 layer_factory.hpp:77] Creating layer inception_3a/pool
I0705 19:03:42.436189 23439 net.cpp:106] Creating Layer inception_3a/pool
I0705 19:03:42.436192 23439 net.cpp:454] inception_3a/pool <- pool2/3x3_s2_pool2/3x3_s2_0_split_3
I0705 19:03:42.436197 23439 net.cpp:411] inception_3a/pool -> inception_3a/pool
I0705 19:03:42.436208 23439 net.cpp:150] Setting up inception_3a/pool
I0705 19:03:42.436213 23439 net.cpp:157] Top shape: 10 192 28 28 (1505280)
I0705 19:03:42.436215 23439 net.cpp:165] Memory required for data: 225792000
I0705 19:03:42.436218 23439 layer_factory.hpp:77] Creating layer inception_3a/pool_proj
I0705 19:03:42.436226 23439 net.cpp:106] Creating Layer inception_3a/pool_proj
I0705 19:03:42.436229 23439 net.cpp:454] inception_3a/pool_proj <- inception_3a/pool
I0705 19:03:42.436235 23439 net.cpp:411] inception_3a/pool_proj -> inception_3a/pool_proj
I0705 19:03:42.436305 23439 net.cpp:150] Setting up inception_3a/pool_proj
I0705 19:03:42.436311 23439 net.cpp:157] Top shape: 10 32 28 28 (250880)
I0705 19:03:42.436313 23439 net.cpp:165] Memory required for data: 226795520
I0705 19:03:42.436321 23439 layer_factory.hpp:77] Creating layer inception_3a/relu_pool_proj
I0705 19:03:42.436326 23439 net.cpp:106] Creating Layer inception_3a/relu_pool_proj
I0705 19:03:42.436329 23439 net.cpp:454] inception_3a/relu_pool_proj <- inception_3a/pool_proj
I0705 19:03:42.436336 23439 net.cpp:397] inception_3a/relu_pool_proj -> inception_3a/pool_proj (in-place)
I0705 19:03:42.436342 23439 net.cpp:150] Setting up inception_3a/relu_pool_proj
I0705 19:03:42.436347 23439 net.cpp:157] Top shape: 10 32 28 28 (250880)
I0705 19:03:42.436349 23439 net.cpp:165] Memory required for data: 227799040
I0705 19:03:42.436352 23439 layer_factory.hpp:77] Creating layer inception_3a/output
I0705 19:03:42.436357 23439 net.cpp:106] Creating Layer inception_3a/output
I0705 19:03:42.436360 23439 net.cpp:454] inception_3a/output <- inception_3a/1x1
I0705 19:03:42.436364 23439 net.cpp:454] inception_3a/output <- inception_3a/3x3
I0705 19:03:42.436368 23439 net.cpp:454] inception_3a/output <- inception_3a/5x5
I0705 19:03:42.436372 23439 net.cpp:454] inception_3a/output <- inception_3a/pool_proj
I0705 19:03:42.436377 23439 net.cpp:411] inception_3a/output -> inception_3a/output
I0705 19:03:42.436383 23439 net.cpp:150] Setting up inception_3a/output
I0705 19:03:42.436389 23439 net.cpp:157] Top shape: 10 256 28 28 (2007040)
I0705 19:03:42.436393 23439 net.cpp:165] Memory required for data: 235827200
I0705 19:03:42.436395 23439 layer_factory.hpp:77] Creating layer inception_3a/output_inception_3a/output_0_split
I0705 19:03:42.436400 23439 net.cpp:106] Creating Layer inception_3a/output_inception_3a/output_0_split
I0705 19:03:42.436403 23439 net.cpp:454] inception_3a/output_inception_3a/output_0_split <- inception_3a/output
I0705 19:03:42.436408 23439 net.cpp:411] inception_3a/output_inception_3a/output_0_split -> inception_3a/output_inception_3a/output_0_split_0
I0705 19:03:42.436414 23439 net.cpp:411] inception_3a/output_inception_3a/output_0_split -> inception_3a/output_inception_3a/output_0_split_1
I0705 19:03:42.436420 23439 net.cpp:411] inception_3a/output_inception_3a/output_0_split -> inception_3a/output_inception_3a/output_0_split_2
I0705 19:03:42.436426 23439 net.cpp:411] inception_3a/output_inception_3a/output_0_split -> inception_3a/output_inception_3a/output_0_split_3
I0705 19:03:42.436434 23439 net.cpp:150] Setting up inception_3a/output_inception_3a/output_0_split
I0705 19:03:42.436439 23439 net.cpp:157] Top shape: 10 256 28 28 (2007040)
I0705 19:03:42.436442 23439 net.cpp:157] Top shape: 10 256 28 28 (2007040)
I0705 19:03:42.436446 23439 net.cpp:157] Top shape: 10 256 28 28 (2007040)
I0705 19:03:42.436450 23439 net.cpp:157] Top shape: 10 256 28 28 (2007040)
I0705 19:03:42.436452 23439 net.cpp:165] Memory required for data: 267939840
I0705 19:03:42.436455 23439 layer_factory.hpp:77] Creating layer inception_3b/1x1
I0705 19:03:42.436463 23439 net.cpp:106] Creating Layer inception_3b/1x1
I0705 19:03:42.436467 23439 net.cpp:454] inception_3b/1x1 <- inception_3a/output_inception_3a/output_0_split_0
I0705 19:03:42.436475 23439 net.cpp:411] inception_3b/1x1 -> inception_3b/1x1
I0705 19:03:42.436767 23439 net.cpp:150] Setting up inception_3b/1x1
I0705 19:03:42.436774 23439 net.cpp:157] Top shape: 10 128 28 28 (1003520)
I0705 19:03:42.436776 23439 net.cpp:165] Memory required for data: 271953920
I0705 19:03:42.436782 23439 layer_factory.hpp:77] Creating layer inception_3b/relu_1x1
I0705 19:03:42.436787 23439 net.cpp:106] Creating Layer inception_3b/relu_1x1
I0705 19:03:42.436791 23439 net.cpp:454] inception_3b/relu_1x1 <- inception_3b/1x1
I0705 19:03:42.436797 23439 net.cpp:397] inception_3b/relu_1x1 -> inception_3b/1x1 (in-place)
I0705 19:03:42.436803 23439 net.cpp:150] Setting up inception_3b/relu_1x1
I0705 19:03:42.436807 23439 net.cpp:157] Top shape: 10 128 28 28 (1003520)
I0705 19:03:42.436810 23439 net.cpp:165] Memory required for data: 275968000
I0705 19:03:42.436813 23439 layer_factory.hpp:77] Creating layer inception_3b/3x3_reduce
I0705 19:03:42.436821 23439 net.cpp:106] Creating Layer inception_3b/3x3_reduce
I0705 19:03:42.436825 23439 net.cpp:454] inception_3b/3x3_reduce <- inception_3a/output_inception_3a/output_0_split_1
I0705 19:03:42.436830 23439 net.cpp:411] inception_3b/3x3_reduce -> inception_3b/3x3_reduce
I0705 19:03:42.437121 23439 net.cpp:150] Setting up inception_3b/3x3_reduce
I0705 19:03:42.437130 23439 net.cpp:157] Top shape: 10 128 28 28 (1003520)
I0705 19:03:42.437134 23439 net.cpp:165] Memory required for data: 279982080
I0705 19:03:42.437139 23439 layer_factory.hpp:77] Creating layer inception_3b/relu_3x3_reduce
I0705 19:03:42.437144 23439 net.cpp:106] Creating Layer inception_3b/relu_3x3_reduce
I0705 19:03:42.437147 23439 net.cpp:454] inception_3b/relu_3x3_reduce <- inception_3b/3x3_reduce
I0705 19:03:42.437152 23439 net.cpp:397] inception_3b/relu_3x3_reduce -> inception_3b/3x3_reduce (in-place)
I0705 19:03:42.437157 23439 net.cpp:150] Setting up inception_3b/relu_3x3_reduce
I0705 19:03:42.437161 23439 net.cpp:157] Top shape: 10 128 28 28 (1003520)
I0705 19:03:42.437165 23439 net.cpp:165] Memory required for data: 283996160
I0705 19:03:42.437167 23439 layer_factory.hpp:77] Creating layer inception_3b/3x3
I0705 19:03:42.437176 23439 net.cpp:106] Creating Layer inception_3b/3x3
I0705 19:03:42.437180 23439 net.cpp:454] inception_3b/3x3 <- inception_3b/3x3_reduce
I0705 19:03:42.437187 23439 net.cpp:411] inception_3b/3x3 -> inception_3b/3x3
I0705 19:03:42.439049 23439 net.cpp:150] Setting up inception_3b/3x3
I0705 19:03:42.439057 23439 net.cpp:157] Top shape: 10 192 28 28 (1505280)
I0705 19:03:42.439059 23439 net.cpp:165] Memory required for data: 290017280
I0705 19:03:42.439065 23439 layer_factory.hpp:77] Creating layer inception_3b/relu_3x3
I0705 19:03:42.439072 23439 net.cpp:106] Creating Layer inception_3b/relu_3x3
I0705 19:03:42.439075 23439 net.cpp:454] inception_3b/relu_3x3 <- inception_3b/3x3
I0705 19:03:42.439080 23439 net.cpp:397] inception_3b/relu_3x3 -> inception_3b/3x3 (in-place)
I0705 19:03:42.439086 23439 net.cpp:150] Setting up inception_3b/relu_3x3
I0705 19:03:42.439090 23439 net.cpp:157] Top shape: 10 192 28 28 (1505280)
I0705 19:03:42.439092 23439 net.cpp:165] Memory required for data: 296038400
I0705 19:03:42.439095 23439 layer_factory.hpp:77] Creating layer inception_3b/5x5_reduce
I0705 19:03:42.439107 23439 net.cpp:106] Creating Layer inception_3b/5x5_reduce
I0705 19:03:42.439111 23439 net.cpp:454] inception_3b/5x5_reduce <- inception_3a/output_inception_3a/output_0_split_2
I0705 19:03:42.439119 23439 net.cpp:411] inception_3b/5x5_reduce -> inception_3b/5x5_reduce
I0705 19:03:42.439208 23439 net.cpp:150] Setting up inception_3b/5x5_reduce
I0705 19:03:42.439213 23439 net.cpp:157] Top shape: 10 32 28 28 (250880)
I0705 19:03:42.439216 23439 net.cpp:165] Memory required for data: 297041920
I0705 19:03:42.439221 23439 layer_factory.hpp:77] Creating layer inception_3b/relu_5x5_reduce
I0705 19:03:42.439226 23439 net.cpp:106] Creating Layer inception_3b/relu_5x5_reduce
I0705 19:03:42.439229 23439 net.cpp:454] inception_3b/relu_5x5_reduce <- inception_3b/5x5_reduce
I0705 19:03:42.439236 23439 net.cpp:397] inception_3b/relu_5x5_reduce -> inception_3b/5x5_reduce (in-place)
I0705 19:03:42.439241 23439 net.cpp:150] Setting up inception_3b/relu_5x5_reduce
I0705 19:03:42.439245 23439 net.cpp:157] Top shape: 10 32 28 28 (250880)
I0705 19:03:42.439249 23439 net.cpp:165] Memory required for data: 298045440
I0705 19:03:42.439251 23439 layer_factory.hpp:77] Creating layer inception_3b/5x5
I0705 19:03:42.439259 23439 net.cpp:106] Creating Layer inception_3b/5x5
I0705 19:03:42.439261 23439 net.cpp:454] inception_3b/5x5 <- inception_3b/5x5_reduce
I0705 19:03:42.439270 23439 net.cpp:411] inception_3b/5x5 -> inception_3b/5x5
I0705 19:03:42.439934 23439 net.cpp:150] Setting up inception_3b/5x5
I0705 19:03:42.439942 23439 net.cpp:157] Top shape: 10 96 28 28 (752640)
I0705 19:03:42.439945 23439 net.cpp:165] Memory required for data: 301056000
I0705 19:03:42.439950 23439 layer_factory.hpp:77] Creating layer inception_3b/relu_5x5
I0705 19:03:42.439957 23439 net.cpp:106] Creating Layer inception_3b/relu_5x5
I0705 19:03:42.439961 23439 net.cpp:454] inception_3b/relu_5x5 <- inception_3b/5x5
I0705 19:03:42.439966 23439 net.cpp:397] inception_3b/relu_5x5 -> inception_3b/5x5 (in-place)
I0705 19:03:42.439971 23439 net.cpp:150] Setting up inception_3b/relu_5x5
I0705 19:03:42.439975 23439 net.cpp:157] Top shape: 10 96 28 28 (752640)
I0705 19:03:42.439978 23439 net.cpp:165] Memory required for data: 304066560
I0705 19:03:42.439981 23439 layer_factory.hpp:77] Creating layer inception_3b/pool
I0705 19:03:42.439986 23439 net.cpp:106] Creating Layer inception_3b/pool
I0705 19:03:42.439991 23439 net.cpp:454] inception_3b/pool <- inception_3a/output_inception_3a/output_0_split_3
I0705 19:03:42.439996 23439 net.cpp:411] inception_3b/pool -> inception_3b/pool
I0705 19:03:42.440004 23439 net.cpp:150] Setting up inception_3b/pool
I0705 19:03:42.440008 23439 net.cpp:157] Top shape: 10 256 28 28 (2007040)
I0705 19:03:42.440011 23439 net.cpp:165] Memory required for data: 312094720
I0705 19:03:42.440014 23439 layer_factory.hpp:77] Creating layer inception_3b/pool_proj
I0705 19:03:42.440022 23439 net.cpp:106] Creating Layer inception_3b/pool_proj
I0705 19:03:42.440026 23439 net.cpp:454] inception_3b/pool_proj <- inception_3b/pool
I0705 19:03:42.440033 23439 net.cpp:411] inception_3b/pool_proj -> inception_3b/pool_proj
I0705 19:03:42.440192 23439 net.cpp:150] Setting up inception_3b/pool_proj
I0705 19:03:42.440198 23439 net.cpp:157] Top shape: 10 64 28 28 (501760)
I0705 19:03:42.440201 23439 net.cpp:165] Memory required for data: 314101760
I0705 19:03:42.440207 23439 layer_factory.hpp:77] Creating layer inception_3b/relu_pool_proj
I0705 19:03:42.440210 23439 net.cpp:106] Creating Layer inception_3b/relu_pool_proj
I0705 19:03:42.440214 23439 net.cpp:454] inception_3b/relu_pool_proj <- inception_3b/pool_proj
I0705 19:03:42.440220 23439 net.cpp:397] inception_3b/relu_pool_proj -> inception_3b/pool_proj (in-place)
I0705 19:03:42.440227 23439 net.cpp:150] Setting up inception_3b/relu_pool_proj
I0705 19:03:42.440230 23439 net.cpp:157] Top shape: 10 64 28 28 (501760)
I0705 19:03:42.440233 23439 net.cpp:165] Memory required for data: 316108800
I0705 19:03:42.440235 23439 layer_factory.hpp:77] Creating layer inception_3b/output
I0705 19:03:42.440240 23439 net.cpp:106] Creating Layer inception_3b/output
I0705 19:03:42.440243 23439 net.cpp:454] inception_3b/output <- inception_3b/1x1
I0705 19:03:42.440248 23439 net.cpp:454] inception_3b/output <- inception_3b/3x3
I0705 19:03:42.440250 23439 net.cpp:454] inception_3b/output <- inception_3b/5x5
I0705 19:03:42.440254 23439 net.cpp:454] inception_3b/output <- inception_3b/pool_proj
I0705 19:03:42.440259 23439 net.cpp:411] inception_3b/output -> inception_3b/output
I0705 19:03:42.440265 23439 net.cpp:150] Setting up inception_3b/output
I0705 19:03:42.440270 23439 net.cpp:157] Top shape: 10 480 28 28 (3763200)
I0705 19:03:42.440273 23439 net.cpp:165] Memory required for data: 331161600
I0705 19:03:42.440275 23439 layer_factory.hpp:77] Creating layer pool3/3x3_s2
I0705 19:03:42.440284 23439 net.cpp:106] Creating Layer pool3/3x3_s2
I0705 19:03:42.440286 23439 net.cpp:454] pool3/3x3_s2 <- inception_3b/output
I0705 19:03:42.440291 23439 net.cpp:411] pool3/3x3_s2 -> pool3/3x3_s2
I0705 19:03:42.440302 23439 net.cpp:150] Setting up pool3/3x3_s2
I0705 19:03:42.440307 23439 net.cpp:157] Top shape: 10 480 14 14 (940800)
I0705 19:03:42.440310 23439 net.cpp:165] Memory required for data: 334924800
I0705 19:03:42.440312 23439 layer_factory.hpp:77] Creating layer pool3/3x3_s2_pool3/3x3_s2_0_split
I0705 19:03:42.440317 23439 net.cpp:106] Creating Layer pool3/3x3_s2_pool3/3x3_s2_0_split
I0705 19:03:42.440320 23439 net.cpp:454] pool3/3x3_s2_pool3/3x3_s2_0_split <- pool3/3x3_s2
I0705 19:03:42.440325 23439 net.cpp:411] pool3/3x3_s2_pool3/3x3_s2_0_split -> pool3/3x3_s2_pool3/3x3_s2_0_split_0
I0705 19:03:42.440332 23439 net.cpp:411] pool3/3x3_s2_pool3/3x3_s2_0_split -> pool3/3x3_s2_pool3/3x3_s2_0_split_1
I0705 19:03:42.440338 23439 net.cpp:411] pool3/3x3_s2_pool3/3x3_s2_0_split -> pool3/3x3_s2_pool3/3x3_s2_0_split_2
I0705 19:03:42.440343 23439 net.cpp:411] pool3/3x3_s2_pool3/3x3_s2_0_split -> pool3/3x3_s2_pool3/3x3_s2_0_split_3
I0705 19:03:42.440351 23439 net.cpp:150] Setting up pool3/3x3_s2_pool3/3x3_s2_0_split
I0705 19:03:42.440356 23439 net.cpp:157] Top shape: 10 480 14 14 (940800)
I0705 19:03:42.440361 23439 net.cpp:157] Top shape: 10 480 14 14 (940800)
I0705 19:03:42.440364 23439 net.cpp:157] Top shape: 10 480 14 14 (940800)
I0705 19:03:42.440368 23439 net.cpp:157] Top shape: 10 480 14 14 (940800)
I0705 19:03:42.440371 23439 net.cpp:165] Memory required for data: 349977600
I0705 19:03:42.440374 23439 layer_factory.hpp:77] Creating layer inception_4a/1x1
I0705 19:03:42.440381 23439 net.cpp:106] Creating Layer inception_4a/1x1
I0705 19:03:42.440383 23439 net.cpp:454] inception_4a/1x1 <- pool3/3x3_s2_pool3/3x3_s2_0_split_0
I0705 19:03:42.440392 23439 net.cpp:411] inception_4a/1x1 -> inception_4a/1x1
I0705 19:03:42.441172 23439 net.cpp:150] Setting up inception_4a/1x1
I0705 19:03:42.441180 23439 net.cpp:157] Top shape: 10 192 14 14 (376320)
I0705 19:03:42.441184 23439 net.cpp:165] Memory required for data: 351482880
I0705 19:03:42.441190 23439 layer_factory.hpp:77] Creating layer inception_4a/relu_1x1
I0705 19:03:42.441195 23439 net.cpp:106] Creating Layer inception_4a/relu_1x1
I0705 19:03:42.441197 23439 net.cpp:454] inception_4a/relu_1x1 <- inception_4a/1x1
I0705 19:03:42.441202 23439 net.cpp:397] inception_4a/relu_1x1 -> inception_4a/1x1 (in-place)
I0705 19:03:42.441207 23439 net.cpp:150] Setting up inception_4a/relu_1x1
I0705 19:03:42.441212 23439 net.cpp:157] Top shape: 10 192 14 14 (376320)
I0705 19:03:42.441215 23439 net.cpp:165] Memory required for data: 352988160
I0705 19:03:42.441217 23439 layer_factory.hpp:77] Creating layer inception_4a/3x3_reduce
I0705 19:03:42.441226 23439 net.cpp:106] Creating Layer inception_4a/3x3_reduce
I0705 19:03:42.441231 23439 net.cpp:454] inception_4a/3x3_reduce <- pool3/3x3_s2_pool3/3x3_s2_0_split_1
I0705 19:03:42.441238 23439 net.cpp:411] inception_4a/3x3_reduce -> inception_4a/3x3_reduce
I0705 19:03:42.441642 23439 net.cpp:150] Setting up inception_4a/3x3_reduce
I0705 19:03:42.441649 23439 net.cpp:157] Top shape: 10 96 14 14 (188160)
I0705 19:03:42.441651 23439 net.cpp:165] Memory required for data: 353740800
I0705 19:03:42.441663 23439 layer_factory.hpp:77] Creating layer inception_4a/relu_3x3_reduce
I0705 19:03:42.441668 23439 net.cpp:106] Creating Layer inception_4a/relu_3x3_reduce
I0705 19:03:42.441673 23439 net.cpp:454] inception_4a/relu_3x3_reduce <- inception_4a/3x3_reduce
I0705 19:03:42.441678 23439 net.cpp:397] inception_4a/relu_3x3_reduce -> inception_4a/3x3_reduce (in-place)
I0705 19:03:42.441682 23439 net.cpp:150] Setting up inception_4a/relu_3x3_reduce
I0705 19:03:42.441686 23439 net.cpp:157] Top shape: 10 96 14 14 (188160)
I0705 19:03:42.441689 23439 net.cpp:165] Memory required for data: 354493440
I0705 19:03:42.441692 23439 layer_factory.hpp:77] Creating layer inception_4a/3x3
I0705 19:03:42.441701 23439 net.cpp:106] Creating Layer inception_4a/3x3
I0705 19:03:42.441704 23439 net.cpp:454] inception_4a/3x3 <- inception_4a/3x3_reduce
I0705 19:03:42.441712 23439 net.cpp:411] inception_4a/3x3 -> inception_4a/3x3
I0705 19:03:42.443227 23439 net.cpp:150] Setting up inception_4a/3x3
I0705 19:03:42.443233 23439 net.cpp:157] Top shape: 10 208 14 14 (407680)
I0705 19:03:42.443236 23439 net.cpp:165] Memory required for data: 356124160
I0705 19:03:42.443243 23439 layer_factory.hpp:77] Creating layer inception_4a/relu_3x3
I0705 19:03:42.443248 23439 net.cpp:106] Creating Layer inception_4a/relu_3x3
I0705 19:03:42.443250 23439 net.cpp:454] inception_4a/relu_3x3 <- inception_4a/3x3
I0705 19:03:42.443258 23439 net.cpp:397] inception_4a/relu_3x3 -> inception_4a/3x3 (in-place)
I0705 19:03:42.443264 23439 net.cpp:150] Setting up inception_4a/relu_3x3
I0705 19:03:42.443267 23439 net.cpp:157] Top shape: 10 208 14 14 (407680)
I0705 19:03:42.443270 23439 net.cpp:165] Memory required for data: 357754880
I0705 19:03:42.443274 23439 layer_factory.hpp:77] Creating layer inception_4a/5x5_reduce
I0705 19:03:42.443281 23439 net.cpp:106] Creating Layer inception_4a/5x5_reduce
I0705 19:03:42.443285 23439 net.cpp:454] inception_4a/5x5_reduce <- pool3/3x3_s2_pool3/3x3_s2_0_split_2
I0705 19:03:42.443291 23439 net.cpp:411] inception_4a/5x5_reduce -> inception_4a/5x5_reduce
I0705 19:03:42.443372 23439 net.cpp:150] Setting up inception_4a/5x5_reduce
I0705 19:03:42.443378 23439 net.cpp:157] Top shape: 10 16 14 14 (31360)
I0705 19:03:42.443382 23439 net.cpp:165] Memory required for data: 357880320
I0705 19:03:42.443387 23439 layer_factory.hpp:77] Creating layer inception_4a/relu_5x5_reduce
I0705 19:03:42.443392 23439 net.cpp:106] Creating Layer inception_4a/relu_5x5_reduce
I0705 19:03:42.443397 23439 net.cpp:454] inception_4a/relu_5x5_reduce <- inception_4a/5x5_reduce
I0705 19:03:42.443400 23439 net.cpp:397] inception_4a/relu_5x5_reduce -> inception_4a/5x5_reduce (in-place)
I0705 19:03:42.443406 23439 net.cpp:150] Setting up inception_4a/relu_5x5_reduce
I0705 19:03:42.443410 23439 net.cpp:157] Top shape: 10 16 14 14 (31360)
I0705 19:03:42.443413 23439 net.cpp:165] Memory required for data: 358005760
I0705 19:03:42.443415 23439 layer_factory.hpp:77] Creating layer inception_4a/5x5
I0705 19:03:42.443425 23439 net.cpp:106] Creating Layer inception_4a/5x5
I0705 19:03:42.443428 23439 net.cpp:454] inception_4a/5x5 <- inception_4a/5x5_reduce
I0705 19:03:42.443434 23439 net.cpp:411] inception_4a/5x5 -> inception_4a/5x5
I0705 19:03:42.443614 23439 net.cpp:150] Setting up inception_4a/5x5
I0705 19:03:42.443619 23439 net.cpp:157] Top shape: 10 48 14 14 (94080)
I0705 19:03:42.443622 23439 net.cpp:165] Memory required for data: 358382080
I0705 19:03:42.443627 23439 layer_factory.hpp:77] Creating layer inception_4a/relu_5x5
I0705 19:03:42.443632 23439 net.cpp:106] Creating Layer inception_4a/relu_5x5
I0705 19:03:42.443635 23439 net.cpp:454] inception_4a/relu_5x5 <- inception_4a/5x5
I0705 19:03:42.443642 23439 net.cpp:397] inception_4a/relu_5x5 -> inception_4a/5x5 (in-place)
I0705 19:03:42.443648 23439 net.cpp:150] Setting up inception_4a/relu_5x5
I0705 19:03:42.443652 23439 net.cpp:157] Top shape: 10 48 14 14 (94080)
I0705 19:03:42.443655 23439 net.cpp:165] Memory required for data: 358758400
I0705 19:03:42.443657 23439 layer_factory.hpp:77] Creating layer inception_4a/pool
I0705 19:03:42.443662 23439 net.cpp:106] Creating Layer inception_4a/pool
I0705 19:03:42.443665 23439 net.cpp:454] inception_4a/pool <- pool3/3x3_s2_pool3/3x3_s2_0_split_3
I0705 19:03:42.443671 23439 net.cpp:411] inception_4a/pool -> inception_4a/pool
I0705 19:03:42.443678 23439 net.cpp:150] Setting up inception_4a/pool
I0705 19:03:42.443682 23439 net.cpp:157] Top shape: 10 480 14 14 (940800)
I0705 19:03:42.443686 23439 net.cpp:165] Memory required for data: 362521600
I0705 19:03:42.443688 23439 layer_factory.hpp:77] Creating layer inception_4a/pool_proj
I0705 19:03:42.443698 23439 net.cpp:106] Creating Layer inception_4a/pool_proj
I0705 19:03:42.443702 23439 net.cpp:454] inception_4a/pool_proj <- inception_4a/pool
I0705 19:03:42.443708 23439 net.cpp:411] inception_4a/pool_proj -> inception_4a/pool_proj
I0705 19:03:42.443989 23439 net.cpp:150] Setting up inception_4a/pool_proj
I0705 19:03:42.443996 23439 net.cpp:157] Top shape: 10 64 14 14 (125440)
I0705 19:03:42.444000 23439 net.cpp:165] Memory required for data: 363023360
I0705 19:03:42.444005 23439 layer_factory.hpp:77] Creating layer inception_4a/relu_pool_proj
I0705 19:03:42.444010 23439 net.cpp:106] Creating Layer inception_4a/relu_pool_proj
I0705 19:03:42.444015 23439 net.cpp:454] inception_4a/relu_pool_proj <- inception_4a/pool_proj
I0705 19:03:42.444021 23439 net.cpp:397] inception_4a/relu_pool_proj -> inception_4a/pool_proj (in-place)
I0705 19:03:42.444026 23439 net.cpp:150] Setting up inception_4a/relu_pool_proj
I0705 19:03:42.444031 23439 net.cpp:157] Top shape: 10 64 14 14 (125440)
I0705 19:03:42.444033 23439 net.cpp:165] Memory required for data: 363525120
I0705 19:03:42.444036 23439 layer_factory.hpp:77] Creating layer inception_4a/output
I0705 19:03:42.444041 23439 net.cpp:106] Creating Layer inception_4a/output
I0705 19:03:42.444044 23439 net.cpp:454] inception_4a/output <- inception_4a/1x1
I0705 19:03:42.444048 23439 net.cpp:454] inception_4a/output <- inception_4a/3x3
I0705 19:03:42.444051 23439 net.cpp:454] inception_4a/output <- inception_4a/5x5
I0705 19:03:42.444056 23439 net.cpp:454] inception_4a/output <- inception_4a/pool_proj
I0705 19:03:42.444061 23439 net.cpp:411] inception_4a/output -> inception_4a/output
I0705 19:03:42.444068 23439 net.cpp:150] Setting up inception_4a/output
I0705 19:03:42.444072 23439 net.cpp:157] Top shape: 10 512 14 14 (1003520)
I0705 19:03:42.444075 23439 net.cpp:165] Memory required for data: 367539200
I0705 19:03:42.444078 23439 layer_factory.hpp:77] Creating layer inception_4a/output_inception_4a/output_0_split
I0705 19:03:42.444083 23439 net.cpp:106] Creating Layer inception_4a/output_inception_4a/output_0_split
I0705 19:03:42.444087 23439 net.cpp:454] inception_4a/output_inception_4a/output_0_split <- inception_4a/output
I0705 19:03:42.444092 23439 net.cpp:411] inception_4a/output_inception_4a/output_0_split -> inception_4a/output_inception_4a/output_0_split_0
I0705 19:03:42.444097 23439 net.cpp:411] inception_4a/output_inception_4a/output_0_split -> inception_4a/output_inception_4a/output_0_split_1
I0705 19:03:42.444105 23439 net.cpp:411] inception_4a/output_inception_4a/output_0_split -> inception_4a/output_inception_4a/output_0_split_2
I0705 19:03:42.444110 23439 net.cpp:411] inception_4a/output_inception_4a/output_0_split -> inception_4a/output_inception_4a/output_0_split_3
I0705 19:03:42.444118 23439 net.cpp:150] Setting up inception_4a/output_inception_4a/output_0_split
I0705 19:03:42.444121 23439 net.cpp:157] Top shape: 10 512 14 14 (1003520)
I0705 19:03:42.444125 23439 net.cpp:157] Top shape: 10 512 14 14 (1003520)
I0705 19:03:42.444129 23439 net.cpp:157] Top shape: 10 512 14 14 (1003520)
I0705 19:03:42.444133 23439 net.cpp:157] Top shape: 10 512 14 14 (1003520)
I0705 19:03:42.444135 23439 net.cpp:165] Memory required for data: 383595520
I0705 19:03:42.444139 23439 layer_factory.hpp:77] Creating layer inception_4b/1x1
I0705 19:03:42.444146 23439 net.cpp:106] Creating Layer inception_4b/1x1
I0705 19:03:42.444150 23439 net.cpp:454] inception_4b/1x1 <- inception_4a/output_inception_4a/output_0_split_0
I0705 19:03:42.444157 23439 net.cpp:411] inception_4b/1x1 -> inception_4b/1x1
I0705 19:03:42.444855 23439 net.cpp:150] Setting up inception_4b/1x1
I0705 19:03:42.444862 23439 net.cpp:157] Top shape: 10 160 14 14 (313600)
I0705 19:03:42.444865 23439 net.cpp:165] Memory required for data: 384849920
I0705 19:03:42.444871 23439 layer_factory.hpp:77] Creating layer inception_4b/relu_1x1
I0705 19:03:42.444878 23439 net.cpp:106] Creating Layer inception_4b/relu_1x1
I0705 19:03:42.444881 23439 net.cpp:454] inception_4b/relu_1x1 <- inception_4b/1x1
I0705 19:03:42.444886 23439 net.cpp:397] inception_4b/relu_1x1 -> inception_4b/1x1 (in-place)
I0705 19:03:42.444892 23439 net.cpp:150] Setting up inception_4b/relu_1x1
I0705 19:03:42.444896 23439 net.cpp:157] Top shape: 10 160 14 14 (313600)
I0705 19:03:42.444900 23439 net.cpp:165] Memory required for data: 386104320
I0705 19:03:42.444902 23439 layer_factory.hpp:77] Creating layer inception_4b/3x3_reduce
I0705 19:03:42.444911 23439 net.cpp:106] Creating Layer inception_4b/3x3_reduce
I0705 19:03:42.444914 23439 net.cpp:454] inception_4b/3x3_reduce <- inception_4a/output_inception_4a/output_0_split_1
I0705 19:03:42.444921 23439 net.cpp:411] inception_4b/3x3_reduce -> inception_4b/3x3_reduce
I0705 19:03:42.445418 23439 net.cpp:150] Setting up inception_4b/3x3_reduce
I0705 19:03:42.445427 23439 net.cpp:157] Top shape: 10 112 14 14 (219520)
I0705 19:03:42.445430 23439 net.cpp:165] Memory required for data: 386982400
I0705 19:03:42.445436 23439 layer_factory.hpp:77] Creating layer inception_4b/relu_3x3_reduce
I0705 19:03:42.445441 23439 net.cpp:106] Creating Layer inception_4b/relu_3x3_reduce
I0705 19:03:42.445444 23439 net.cpp:454] inception_4b/relu_3x3_reduce <- inception_4b/3x3_reduce
I0705 19:03:42.445449 23439 net.cpp:397] inception_4b/relu_3x3_reduce -> inception_4b/3x3_reduce (in-place)
I0705 19:03:42.445454 23439 net.cpp:150] Setting up inception_4b/relu_3x3_reduce
I0705 19:03:42.445458 23439 net.cpp:157] Top shape: 10 112 14 14 (219520)
I0705 19:03:42.445461 23439 net.cpp:165] Memory required for data: 387860480
I0705 19:03:42.445464 23439 layer_factory.hpp:77] Creating layer inception_4b/3x3
I0705 19:03:42.445473 23439 net.cpp:106] Creating Layer inception_4b/3x3
I0705 19:03:42.445477 23439 net.cpp:454] inception_4b/3x3 <- inception_4b/3x3_reduce
I0705 19:03:42.445484 23439 net.cpp:411] inception_4b/3x3 -> inception_4b/3x3
I0705 19:03:42.447376 23439 net.cpp:150] Setting up inception_4b/3x3
I0705 19:03:42.447384 23439 net.cpp:157] Top shape: 10 224 14 14 (439040)
I0705 19:03:42.447387 23439 net.cpp:165] Memory required for data: 389616640
I0705 19:03:42.447392 23439 layer_factory.hpp:77] Creating layer inception_4b/relu_3x3
I0705 19:03:42.447397 23439 net.cpp:106] Creating Layer inception_4b/relu_3x3
I0705 19:03:42.447402 23439 net.cpp:454] inception_4b/relu_3x3 <- inception_4b/3x3
I0705 19:03:42.447407 23439 net.cpp:397] inception_4b/relu_3x3 -> inception_4b/3x3 (in-place)
I0705 19:03:42.447413 23439 net.cpp:150] Setting up inception_4b/relu_3x3
I0705 19:03:42.447417 23439 net.cpp:157] Top shape: 10 224 14 14 (439040)
I0705 19:03:42.447420 23439 net.cpp:165] Memory required for data: 391372800
I0705 19:03:42.447422 23439 layer_factory.hpp:77] Creating layer inception_4b/5x5_reduce
I0705 19:03:42.447432 23439 net.cpp:106] Creating Layer inception_4b/5x5_reduce
I0705 19:03:42.447435 23439 net.cpp:454] inception_4b/5x5_reduce <- inception_4a/output_inception_4a/output_0_split_2
I0705 19:03:42.447440 23439 net.cpp:411] inception_4b/5x5_reduce -> inception_4b/5x5_reduce
I0705 19:03:42.447561 23439 net.cpp:150] Setting up inception_4b/5x5_reduce
I0705 19:03:42.447566 23439 net.cpp:157] Top shape: 10 24 14 14 (47040)
I0705 19:03:42.447568 23439 net.cpp:165] Memory required for data: 391560960
I0705 19:03:42.447573 23439 layer_factory.hpp:77] Creating layer inception_4b/relu_5x5_reduce
I0705 19:03:42.447584 23439 net.cpp:106] Creating Layer inception_4b/relu_5x5_reduce
I0705 19:03:42.447588 23439 net.cpp:454] inception_4b/relu_5x5_reduce <- inception_4b/5x5_reduce
I0705 19:03:42.447595 23439 net.cpp:397] inception_4b/relu_5x5_reduce -> inception_4b/5x5_reduce (in-place)
I0705 19:03:42.447602 23439 net.cpp:150] Setting up inception_4b/relu_5x5_reduce
I0705 19:03:42.447605 23439 net.cpp:157] Top shape: 10 24 14 14 (47040)
I0705 19:03:42.447608 23439 net.cpp:165] Memory required for data: 391749120
I0705 19:03:42.447612 23439 layer_factory.hpp:77] Creating layer inception_4b/5x5
I0705 19:03:42.447619 23439 net.cpp:106] Creating Layer inception_4b/5x5
I0705 19:03:42.447623 23439 net.cpp:454] inception_4b/5x5 <- inception_4b/5x5_reduce
I0705 19:03:42.517019 23439 net.cpp:411] inception_4b/5x5 -> inception_4b/5x5
I0705 19:03:42.517422 23439 net.cpp:150] Setting up inception_4b/5x5
I0705 19:03:42.517436 23439 net.cpp:157] Top shape: 10 64 14 14 (125440)
I0705 19:03:42.517439 23439 net.cpp:165] Memory required for data: 392250880
I0705 19:03:42.517448 23439 layer_factory.hpp:77] Creating layer inception_4b/relu_5x5
I0705 19:03:42.517460 23439 net.cpp:106] Creating Layer inception_4b/relu_5x5
I0705 19:03:42.517464 23439 net.cpp:454] inception_4b/relu_5x5 <- inception_4b/5x5
I0705 19:03:42.517469 23439 net.cpp:397] inception_4b/relu_5x5 -> inception_4b/5x5 (in-place)
I0705 19:03:42.517477 23439 net.cpp:150] Setting up inception_4b/relu_5x5
I0705 19:03:42.517480 23439 net.cpp:157] Top shape: 10 64 14 14 (125440)
I0705 19:03:42.517483 23439 net.cpp:165] Memory required for data: 392752640
I0705 19:03:42.517487 23439 layer_factory.hpp:77] Creating layer inception_4b/pool
I0705 19:03:42.517495 23439 net.cpp:106] Creating Layer inception_4b/pool
I0705 19:03:42.517499 23439 net.cpp:454] inception_4b/pool <- inception_4a/output_inception_4a/output_0_split_3
I0705 19:03:42.517508 23439 net.cpp:411] inception_4b/pool -> inception_4b/pool
I0705 19:03:42.517518 23439 net.cpp:150] Setting up inception_4b/pool
I0705 19:03:42.517523 23439 net.cpp:157] Top shape: 10 512 14 14 (1003520)
I0705 19:03:42.517525 23439 net.cpp:165] Memory required for data: 396766720
I0705 19:03:42.517529 23439 layer_factory.hpp:77] Creating layer inception_4b/pool_proj
I0705 19:03:42.517540 23439 net.cpp:106] Creating Layer inception_4b/pool_proj
I0705 19:03:42.517544 23439 net.cpp:454] inception_4b/pool_proj <- inception_4b/pool
I0705 19:03:42.517549 23439 net.cpp:411] inception_4b/pool_proj -> inception_4b/pool_proj
I0705 19:03:42.517845 23439 net.cpp:150] Setting up inception_4b/pool_proj
I0705 19:03:42.517851 23439 net.cpp:157] Top shape: 10 64 14 14 (125440)
I0705 19:03:42.517854 23439 net.cpp:165] Memory required for data: 397268480
I0705 19:03:42.517860 23439 layer_factory.hpp:77] Creating layer inception_4b/relu_pool_proj
I0705 19:03:42.517868 23439 net.cpp:106] Creating Layer inception_4b/relu_pool_proj
I0705 19:03:42.517873 23439 net.cpp:454] inception_4b/relu_pool_proj <- inception_4b/pool_proj
I0705 19:03:42.517876 23439 net.cpp:397] inception_4b/relu_pool_proj -> inception_4b/pool_proj (in-place)
I0705 19:03:42.517882 23439 net.cpp:150] Setting up inception_4b/relu_pool_proj
I0705 19:03:42.517886 23439 net.cpp:157] Top shape: 10 64 14 14 (125440)
I0705 19:03:42.517889 23439 net.cpp:165] Memory required for data: 397770240
I0705 19:03:42.517892 23439 layer_factory.hpp:77] Creating layer inception_4b/output
I0705 19:03:42.517901 23439 net.cpp:106] Creating Layer inception_4b/output
I0705 19:03:42.517905 23439 net.cpp:454] inception_4b/output <- inception_4b/1x1
I0705 19:03:42.517910 23439 net.cpp:454] inception_4b/output <- inception_4b/3x3
I0705 19:03:42.517913 23439 net.cpp:454] inception_4b/output <- inception_4b/5x5
I0705 19:03:42.517917 23439 net.cpp:454] inception_4b/output <- inception_4b/pool_proj
I0705 19:03:42.517921 23439 net.cpp:411] inception_4b/output -> inception_4b/output
I0705 19:03:42.517930 23439 net.cpp:150] Setting up inception_4b/output
I0705 19:03:42.517935 23439 net.cpp:157] Top shape: 10 512 14 14 (1003520)
I0705 19:03:42.517937 23439 net.cpp:165] Memory required for data: 401784320
I0705 19:03:42.517940 23439 layer_factory.hpp:77] Creating layer inception_4b/output_inception_4b/output_0_split
I0705 19:03:42.517947 23439 net.cpp:106] Creating Layer inception_4b/output_inception_4b/output_0_split
I0705 19:03:42.517951 23439 net.cpp:454] inception_4b/output_inception_4b/output_0_split <- inception_4b/output
I0705 19:03:42.517958 23439 net.cpp:411] inception_4b/output_inception_4b/output_0_split -> inception_4b/output_inception_4b/output_0_split_0
I0705 19:03:42.517964 23439 net.cpp:411] inception_4b/output_inception_4b/output_0_split -> inception_4b/output_inception_4b/output_0_split_1
I0705 19:03:42.517971 23439 net.cpp:411] inception_4b/output_inception_4b/output_0_split -> inception_4b/output_inception_4b/output_0_split_2
I0705 19:03:42.517976 23439 net.cpp:411] inception_4b/output_inception_4b/output_0_split -> inception_4b/output_inception_4b/output_0_split_3
I0705 19:03:42.517982 23439 net.cpp:150] Setting up inception_4b/output_inception_4b/output_0_split
I0705 19:03:42.517988 23439 net.cpp:157] Top shape: 10 512 14 14 (1003520)
I0705 19:03:42.517992 23439 net.cpp:157] Top shape: 10 512 14 14 (1003520)
I0705 19:03:42.517997 23439 net.cpp:157] Top shape: 10 512 14 14 (1003520)
I0705 19:03:42.517999 23439 net.cpp:157] Top shape: 10 512 14 14 (1003520)
I0705 19:03:42.518002 23439 net.cpp:165] Memory required for data: 417840640
I0705 19:03:42.518005 23439 layer_factory.hpp:77] Creating layer inception_4c/1x1
I0705 19:03:42.518015 23439 net.cpp:106] Creating Layer inception_4c/1x1
I0705 19:03:42.518019 23439 net.cpp:454] inception_4c/1x1 <- inception_4b/output_inception_4b/output_0_split_0
I0705 19:03:42.518024 23439 net.cpp:411] inception_4c/1x1 -> inception_4c/1x1
I0705 19:03:42.518590 23439 net.cpp:150] Setting up inception_4c/1x1
I0705 19:03:42.518599 23439 net.cpp:157] Top shape: 10 128 14 14 (250880)
I0705 19:03:42.518601 23439 net.cpp:165] Memory required for data: 418844160
I0705 19:03:42.518607 23439 layer_factory.hpp:77] Creating layer inception_4c/relu_1x1
I0705 19:03:42.518612 23439 net.cpp:106] Creating Layer inception_4c/relu_1x1
I0705 19:03:42.518616 23439 net.cpp:454] inception_4c/relu_1x1 <- inception_4c/1x1
I0705 19:03:42.518621 23439 net.cpp:397] inception_4c/relu_1x1 -> inception_4c/1x1 (in-place)
I0705 19:03:42.518626 23439 net.cpp:150] Setting up inception_4c/relu_1x1
I0705 19:03:42.518630 23439 net.cpp:157] Top shape: 10 128 14 14 (250880)
I0705 19:03:42.518632 23439 net.cpp:165] Memory required for data: 419847680
I0705 19:03:42.518636 23439 layer_factory.hpp:77] Creating layer inception_4c/3x3_reduce
I0705 19:03:42.518648 23439 net.cpp:106] Creating Layer inception_4c/3x3_reduce
I0705 19:03:42.518651 23439 net.cpp:454] inception_4c/3x3_reduce <- inception_4b/output_inception_4b/output_0_split_1
I0705 19:03:42.518659 23439 net.cpp:411] inception_4c/3x3_reduce -> inception_4c/3x3_reduce
I0705 19:03:42.519227 23439 net.cpp:150] Setting up inception_4c/3x3_reduce
I0705 19:03:42.519233 23439 net.cpp:157] Top shape: 10 128 14 14 (250880)
I0705 19:03:42.519237 23439 net.cpp:165] Memory required for data: 420851200
I0705 19:03:42.519243 23439 layer_factory.hpp:77] Creating layer inception_4c/relu_3x3_reduce
I0705 19:03:42.519248 23439 net.cpp:106] Creating Layer inception_4c/relu_3x3_reduce
I0705 19:03:42.519251 23439 net.cpp:454] inception_4c/relu_3x3_reduce <- inception_4c/3x3_reduce
I0705 19:03:42.519256 23439 net.cpp:397] inception_4c/relu_3x3_reduce -> inception_4c/3x3_reduce (in-place)
I0705 19:03:42.519261 23439 net.cpp:150] Setting up inception_4c/relu_3x3_reduce
I0705 19:03:42.519265 23439 net.cpp:157] Top shape: 10 128 14 14 (250880)
I0705 19:03:42.519268 23439 net.cpp:165] Memory required for data: 421854720
I0705 19:03:42.519271 23439 layer_factory.hpp:77] Creating layer inception_4c/3x3
I0705 19:03:42.519282 23439 net.cpp:106] Creating Layer inception_4c/3x3
I0705 19:03:42.519287 23439 net.cpp:454] inception_4c/3x3 <- inception_4c/3x3_reduce
I0705 19:03:42.519294 23439 net.cpp:411] inception_4c/3x3 -> inception_4c/3x3
I0705 19:03:42.521785 23439 net.cpp:150] Setting up inception_4c/3x3
I0705 19:03:42.521791 23439 net.cpp:157] Top shape: 10 256 14 14 (501760)
I0705 19:03:42.521795 23439 net.cpp:165] Memory required for data: 423861760
I0705 19:03:42.521800 23439 layer_factory.hpp:77] Creating layer inception_4c/relu_3x3
I0705 19:03:42.521808 23439 net.cpp:106] Creating Layer inception_4c/relu_3x3
I0705 19:03:42.521812 23439 net.cpp:454] inception_4c/relu_3x3 <- inception_4c/3x3
I0705 19:03:42.521816 23439 net.cpp:397] inception_4c/relu_3x3 -> inception_4c/3x3 (in-place)
I0705 19:03:42.587718 23439 net.cpp:150] Setting up inception_4c/relu_3x3
I0705 19:03:42.587728 23439 net.cpp:157] Top shape: 10 256 14 14 (501760)
I0705 19:03:42.587733 23439 net.cpp:165] Memory required for data: 425868800
I0705 19:03:42.587736 23439 layer_factory.hpp:77] Creating layer inception_4c/5x5_reduce
I0705 19:03:42.587751 23439 net.cpp:106] Creating Layer inception_4c/5x5_reduce
I0705 19:03:42.587755 23439 net.cpp:454] inception_4c/5x5_reduce <- inception_4b/output_inception_4b/output_0_split_2
I0705 19:03:42.587765 23439 net.cpp:411] inception_4c/5x5_reduce -> inception_4c/5x5_reduce
I0705 19:03:42.587919 23439 net.cpp:150] Setting up inception_4c/5x5_reduce
I0705 19:03:42.587930 23439 net.cpp:157] Top shape: 10 24 14 14 (47040)
I0705 19:03:42.587934 23439 net.cpp:165] Memory required for data: 426056960
I0705 19:03:42.587940 23439 layer_factory.hpp:77] Creating layer inception_4c/relu_5x5_reduce
I0705 19:03:42.587947 23439 net.cpp:106] Creating Layer inception_4c/relu_5x5_reduce
I0705 19:03:42.587951 23439 net.cpp:454] inception_4c/relu_5x5_reduce <- inception_4c/5x5_reduce
I0705 19:03:42.587956 23439 net.cpp:397] inception_4c/relu_5x5_reduce -> inception_4c/5x5_reduce (in-place)
I0705 19:03:42.587962 23439 net.cpp:150] Setting up inception_4c/relu_5x5_reduce
I0705 19:03:42.587966 23439 net.cpp:157] Top shape: 10 24 14 14 (47040)
I0705 19:03:42.587970 23439 net.cpp:165] Memory required for data: 426245120
I0705 19:03:42.587972 23439 layer_factory.hpp:77] Creating layer inception_4c/5x5
I0705 19:03:42.587985 23439 net.cpp:106] Creating Layer inception_4c/5x5
I0705 19:03:42.587987 23439 net.cpp:454] inception_4c/5x5 <- inception_4c/5x5_reduce
I0705 19:03:42.587996 23439 net.cpp:411] inception_4c/5x5 -> inception_4c/5x5
I0705 19:03:42.588340 23439 net.cpp:150] Setting up inception_4c/5x5
I0705 19:03:42.588347 23439 net.cpp:157] Top shape: 10 64 14 14 (125440)
I0705 19:03:42.588351 23439 net.cpp:165] Memory required for data: 426746880
I0705 19:03:42.588356 23439 layer_factory.hpp:77] Creating layer inception_4c/relu_5x5
I0705 19:03:42.588362 23439 net.cpp:106] Creating Layer inception_4c/relu_5x5
I0705 19:03:42.588366 23439 net.cpp:454] inception_4c/relu_5x5 <- inception_4c/5x5
I0705 19:03:42.588371 23439 net.cpp:397] inception_4c/relu_5x5 -> inception_4c/5x5 (in-place)
I0705 19:03:42.588378 23439 net.cpp:150] Setting up inception_4c/relu_5x5
I0705 19:03:42.588382 23439 net.cpp:157] Top shape: 10 64 14 14 (125440)
I0705 19:03:42.588385 23439 net.cpp:165] Memory required for data: 427248640
I0705 19:03:42.588388 23439 layer_factory.hpp:77] Creating layer inception_4c/pool
I0705 19:03:42.588394 23439 net.cpp:106] Creating Layer inception_4c/pool
I0705 19:03:42.588398 23439 net.cpp:454] inception_4c/pool <- inception_4b/output_inception_4b/output_0_split_3
I0705 19:03:42.588403 23439 net.cpp:411] inception_4c/pool -> inception_4c/pool
I0705 19:03:42.588412 23439 net.cpp:150] Setting up inception_4c/pool
I0705 19:03:42.588415 23439 net.cpp:157] Top shape: 10 512 14 14 (1003520)
I0705 19:03:42.588418 23439 net.cpp:165] Memory required for data: 431262720
I0705 19:03:42.588420 23439 layer_factory.hpp:77] Creating layer inception_4c/pool_proj
I0705 19:03:42.588433 23439 net.cpp:106] Creating Layer inception_4c/pool_proj
I0705 19:03:42.588439 23439 net.cpp:454] inception_4c/pool_proj <- inception_4c/pool
I0705 19:03:42.588444 23439 net.cpp:411] inception_4c/pool_proj -> inception_4c/pool_proj
I0705 19:03:42.588737 23439 net.cpp:150] Setting up inception_4c/pool_proj
I0705 19:03:42.588742 23439 net.cpp:157] Top shape: 10 64 14 14 (125440)
I0705 19:03:42.588745 23439 net.cpp:165] Memory required for data: 431764480
I0705 19:03:42.588768 23439 layer_factory.hpp:77] Creating layer inception_4c/relu_pool_proj
I0705 19:03:42.588774 23439 net.cpp:106] Creating Layer inception_4c/relu_pool_proj
I0705 19:03:42.588778 23439 net.cpp:454] inception_4c/relu_pool_proj <- inception_4c/pool_proj
I0705 19:03:42.588783 23439 net.cpp:397] inception_4c/relu_pool_proj -> inception_4c/pool_proj (in-place)
I0705 19:03:42.588788 23439 net.cpp:150] Setting up inception_4c/relu_pool_proj
I0705 19:03:42.588793 23439 net.cpp:157] Top shape: 10 64 14 14 (125440)
I0705 19:03:42.588795 23439 net.cpp:165] Memory required for data: 432266240
I0705 19:03:42.588798 23439 layer_factory.hpp:77] Creating layer inception_4c/output
I0705 19:03:42.588806 23439 net.cpp:106] Creating Layer inception_4c/output
I0705 19:03:42.588809 23439 net.cpp:454] inception_4c/output <- inception_4c/1x1
I0705 19:03:42.588814 23439 net.cpp:454] inception_4c/output <- inception_4c/3x3
I0705 19:03:42.588817 23439 net.cpp:454] inception_4c/output <- inception_4c/5x5
I0705 19:03:42.588821 23439 net.cpp:454] inception_4c/output <- inception_4c/pool_proj
I0705 19:03:42.588825 23439 net.cpp:411] inception_4c/output -> inception_4c/output
I0705 19:03:42.588832 23439 net.cpp:150] Setting up inception_4c/output
I0705 19:03:42.588840 23439 net.cpp:157] Top shape: 10 512 14 14 (1003520)
I0705 19:03:42.588842 23439 net.cpp:165] Memory required for data: 436280320
I0705 19:03:42.588846 23439 layer_factory.hpp:77] Creating layer inception_4c/output_inception_4c/output_0_split
I0705 19:03:42.588852 23439 net.cpp:106] Creating Layer inception_4c/output_inception_4c/output_0_split
I0705 19:03:42.588855 23439 net.cpp:454] inception_4c/output_inception_4c/output_0_split <- inception_4c/output
I0705 19:03:42.588860 23439 net.cpp:411] inception_4c/output_inception_4c/output_0_split -> inception_4c/output_inception_4c/output_0_split_0
I0705 19:03:42.588866 23439 net.cpp:411] inception_4c/output_inception_4c/output_0_split -> inception_4c/output_inception_4c/output_0_split_1
I0705 19:03:42.588871 23439 net.cpp:411] inception_4c/output_inception_4c/output_0_split -> inception_4c/output_inception_4c/output_0_split_2
I0705 19:03:42.588876 23439 net.cpp:411] inception_4c/output_inception_4c/output_0_split -> inception_4c/output_inception_4c/output_0_split_3
I0705 19:03:42.588886 23439 net.cpp:150] Setting up inception_4c/output_inception_4c/output_0_split
I0705 19:03:42.588891 23439 net.cpp:157] Top shape: 10 512 14 14 (1003520)
I0705 19:03:42.588894 23439 net.cpp:157] Top shape: 10 512 14 14 (1003520)
I0705 19:03:42.588897 23439 net.cpp:157] Top shape: 10 512 14 14 (1003520)
I0705 19:03:42.588901 23439 net.cpp:157] Top shape: 10 512 14 14 (1003520)
I0705 19:03:42.588903 23439 net.cpp:165] Memory required for data: 452336640
I0705 19:03:42.588907 23439 layer_factory.hpp:77] Creating layer inception_4d/1x1
I0705 19:03:42.588917 23439 net.cpp:106] Creating Layer inception_4d/1x1
I0705 19:03:42.588920 23439 net.cpp:454] inception_4d/1x1 <- inception_4c/output_inception_4c/output_0_split_0
I0705 19:03:42.588925 23439 net.cpp:411] inception_4d/1x1 -> inception_4d/1x1
I0705 19:03:42.589421 23439 net.cpp:150] Setting up inception_4d/1x1
I0705 19:03:42.589426 23439 net.cpp:157] Top shape: 10 112 14 14 (219520)
I0705 19:03:42.589429 23439 net.cpp:165] Memory required for data: 453214720
I0705 19:03:42.589435 23439 layer_factory.hpp:77] Creating layer inception_4d/relu_1x1
I0705 19:03:42.589447 23439 net.cpp:106] Creating Layer inception_4d/relu_1x1
I0705 19:03:42.589449 23439 net.cpp:454] inception_4d/relu_1x1 <- inception_4d/1x1
I0705 19:03:42.589454 23439 net.cpp:397] inception_4d/relu_1x1 -> inception_4d/1x1 (in-place)
I0705 19:03:42.589459 23439 net.cpp:150] Setting up inception_4d/relu_1x1
I0705 19:03:42.589463 23439 net.cpp:157] Top shape: 10 112 14 14 (219520)
I0705 19:03:42.589467 23439 net.cpp:165] Memory required for data: 454092800
I0705 19:03:42.589469 23439 layer_factory.hpp:77] Creating layer inception_4d/3x3_reduce
I0705 19:03:42.589479 23439 net.cpp:106] Creating Layer inception_4d/3x3_reduce
I0705 19:03:42.589483 23439 net.cpp:454] inception_4d/3x3_reduce <- inception_4c/output_inception_4c/output_0_split_1
I0705 19:03:42.589490 23439 net.cpp:411] inception_4d/3x3_reduce -> inception_4d/3x3_reduce
I0705 19:03:42.590122 23439 net.cpp:150] Setting up inception_4d/3x3_reduce
I0705 19:03:42.590129 23439 net.cpp:157] Top shape: 10 144 14 14 (282240)
I0705 19:03:42.654006 23439 net.cpp:165] Memory required for data: 455221760
I0705 19:03:42.654021 23439 layer_factory.hpp:77] Creating layer inception_4d/relu_3x3_reduce
I0705 19:03:42.654031 23439 net.cpp:106] Creating Layer inception_4d/relu_3x3_reduce
I0705 19:03:42.654036 23439 net.cpp:454] inception_4d/relu_3x3_reduce <- inception_4d/3x3_reduce
I0705 19:03:42.654047 23439 net.cpp:397] inception_4d/relu_3x3_reduce -> inception_4d/3x3_reduce (in-place)
I0705 19:03:42.654055 23439 net.cpp:150] Setting up inception_4d/relu_3x3_reduce
I0705 19:03:42.654060 23439 net.cpp:157] Top shape: 10 144 14 14 (282240)
I0705 19:03:42.654063 23439 net.cpp:165] Memory required for data: 456350720
I0705 19:03:42.654067 23439 layer_factory.hpp:77] Creating layer inception_4d/3x3
I0705 19:03:42.654498 23439 net.cpp:106] Creating Layer inception_4d/3x3
I0705 19:03:42.654511 23439 net.cpp:454] inception_4d/3x3 <- inception_4d/3x3_reduce
I0705 19:03:42.654522 23439 net.cpp:411] inception_4d/3x3 -> inception_4d/3x3
I0705 19:03:42.657672 23439 net.cpp:150] Setting up inception_4d/3x3
I0705 19:03:42.657682 23439 net.cpp:157] Top shape: 10 288 14 14 (564480)
I0705 19:03:42.657685 23439 net.cpp:165] Memory required for data: 458608640
I0705 19:03:42.657692 23439 layer_factory.hpp:77] Creating layer inception_4d/relu_3x3
I0705 19:03:42.657701 23439 net.cpp:106] Creating Layer inception_4d/relu_3x3
I0705 19:03:42.657704 23439 net.cpp:454] inception_4d/relu_3x3 <- inception_4d/3x3
I0705 19:03:42.657709 23439 net.cpp:397] inception_4d/relu_3x3 -> inception_4d/3x3 (in-place)
I0705 19:03:42.657716 23439 net.cpp:150] Setting up inception_4d/relu_3x3
I0705 19:03:42.657719 23439 net.cpp:157] Top shape: 10 288 14 14 (564480)
I0705 19:03:42.657722 23439 net.cpp:165] Memory required for data: 460866560
I0705 19:03:42.657726 23439 layer_factory.hpp:77] Creating layer inception_4d/5x5_reduce
I0705 19:03:42.657737 23439 net.cpp:106] Creating Layer inception_4d/5x5_reduce
I0705 19:03:42.657742 23439 net.cpp:454] inception_4d/5x5_reduce <- inception_4c/output_inception_4c/output_0_split_2
I0705 19:03:42.657750 23439 net.cpp:411] inception_4d/5x5_reduce -> inception_4d/5x5_reduce
I0705 19:03:42.657905 23439 net.cpp:150] Setting up inception_4d/5x5_reduce
I0705 19:03:42.657912 23439 net.cpp:157] Top shape: 10 32 14 14 (62720)
I0705 19:03:42.657914 23439 net.cpp:165] Memory required for data: 461117440
I0705 19:03:42.657919 23439 layer_factory.hpp:77] Creating layer inception_4d/relu_5x5_reduce
I0705 19:03:42.657925 23439 net.cpp:106] Creating Layer inception_4d/relu_5x5_reduce
I0705 19:03:42.657929 23439 net.cpp:454] inception_4d/relu_5x5_reduce <- inception_4d/5x5_reduce
I0705 19:03:42.657935 23439 net.cpp:397] inception_4d/relu_5x5_reduce -> inception_4d/5x5_reduce (in-place)
I0705 19:03:42.657940 23439 net.cpp:150] Setting up inception_4d/relu_5x5_reduce
I0705 19:03:42.657945 23439 net.cpp:157] Top shape: 10 32 14 14 (62720)
I0705 19:03:42.657948 23439 net.cpp:165] Memory required for data: 461368320
I0705 19:03:42.657950 23439 layer_factory.hpp:77] Creating layer inception_4d/5x5
I0705 19:03:42.657959 23439 net.cpp:106] Creating Layer inception_4d/5x5
I0705 19:03:42.657963 23439 net.cpp:454] inception_4d/5x5 <- inception_4d/5x5_reduce
I0705 19:03:42.657970 23439 net.cpp:411] inception_4d/5x5 -> inception_4d/5x5
I0705 19:03:42.658418 23439 net.cpp:150] Setting up inception_4d/5x5
I0705 19:03:42.658424 23439 net.cpp:157] Top shape: 10 64 14 14 (125440)
I0705 19:03:42.658427 23439 net.cpp:165] Memory required for data: 461870080
I0705 19:03:42.658433 23439 layer_factory.hpp:77] Creating layer inception_4d/relu_5x5
I0705 19:03:42.658438 23439 net.cpp:106] Creating Layer inception_4d/relu_5x5
I0705 19:03:42.658443 23439 net.cpp:454] inception_4d/relu_5x5 <- inception_4d/5x5
I0705 19:03:42.658448 23439 net.cpp:397] inception_4d/relu_5x5 -> inception_4d/5x5 (in-place)
I0705 19:03:42.658453 23439 net.cpp:150] Setting up inception_4d/relu_5x5
I0705 19:03:42.658457 23439 net.cpp:157] Top shape: 10 64 14 14 (125440)
I0705 19:03:42.658460 23439 net.cpp:165] Memory required for data: 462371840
I0705 19:03:42.658463 23439 layer_factory.hpp:77] Creating layer inception_4d/pool
I0705 19:03:42.658470 23439 net.cpp:106] Creating Layer inception_4d/pool
I0705 19:03:42.658473 23439 net.cpp:454] inception_4d/pool <- inception_4c/output_inception_4c/output_0_split_3
I0705 19:03:42.658479 23439 net.cpp:411] inception_4d/pool -> inception_4d/pool
I0705 19:03:42.658489 23439 net.cpp:150] Setting up inception_4d/pool
I0705 19:03:42.658494 23439 net.cpp:157] Top shape: 10 512 14 14 (1003520)
I0705 19:03:42.658496 23439 net.cpp:165] Memory required for data: 466385920
I0705 19:03:42.658499 23439 layer_factory.hpp:77] Creating layer inception_4d/pool_proj
I0705 19:03:42.658509 23439 net.cpp:106] Creating Layer inception_4d/pool_proj
I0705 19:03:42.658512 23439 net.cpp:454] inception_4d/pool_proj <- inception_4d/pool
I0705 19:03:42.658519 23439 net.cpp:411] inception_4d/pool_proj -> inception_4d/pool_proj
I0705 19:03:42.658812 23439 net.cpp:150] Setting up inception_4d/pool_proj
I0705 19:03:42.658819 23439 net.cpp:157] Top shape: 10 64 14 14 (125440)
I0705 19:03:42.658823 23439 net.cpp:165] Memory required for data: 466887680
I0705 19:03:42.658828 23439 layer_factory.hpp:77] Creating layer inception_4d/relu_pool_proj
I0705 19:03:42.658836 23439 net.cpp:106] Creating Layer inception_4d/relu_pool_proj
I0705 19:03:42.658840 23439 net.cpp:454] inception_4d/relu_pool_proj <- inception_4d/pool_proj
I0705 19:03:42.658845 23439 net.cpp:397] inception_4d/relu_pool_proj -> inception_4d/pool_proj (in-place)
I0705 19:03:42.658851 23439 net.cpp:150] Setting up inception_4d/relu_pool_proj
I0705 19:03:42.658855 23439 net.cpp:157] Top shape: 10 64 14 14 (125440)
I0705 19:03:42.658859 23439 net.cpp:165] Memory required for data: 467389440
I0705 19:03:42.658861 23439 layer_factory.hpp:77] Creating layer inception_4d/output
I0705 19:03:42.658869 23439 net.cpp:106] Creating Layer inception_4d/output
I0705 19:03:42.658874 23439 net.cpp:454] inception_4d/output <- inception_4d/1x1
I0705 19:03:42.658877 23439 net.cpp:454] inception_4d/output <- inception_4d/3x3
I0705 19:03:42.658881 23439 net.cpp:454] inception_4d/output <- inception_4d/5x5
I0705 19:03:42.658885 23439 net.cpp:454] inception_4d/output <- inception_4d/pool_proj
I0705 19:03:42.658890 23439 net.cpp:411] inception_4d/output -> inception_4d/output
I0705 19:03:42.658896 23439 net.cpp:150] Setting up inception_4d/output
I0705 19:03:42.658901 23439 net.cpp:157] Top shape: 10 528 14 14 (1034880)
I0705 19:03:42.658903 23439 net.cpp:165] Memory required for data: 471528960
I0705 19:03:42.658907 23439 layer_factory.hpp:77] Creating layer inception_4d/output_inception_4d/output_0_split
I0705 19:03:42.658913 23439 net.cpp:106] Creating Layer inception_4d/output_inception_4d/output_0_split
I0705 19:03:42.658916 23439 net.cpp:454] inception_4d/output_inception_4d/output_0_split <- inception_4d/output
I0705 19:03:42.658923 23439 net.cpp:411] inception_4d/output_inception_4d/output_0_split -> inception_4d/output_inception_4d/output_0_split_0
I0705 19:03:42.658931 23439 net.cpp:411] inception_4d/output_inception_4d/output_0_split -> inception_4d/output_inception_4d/output_0_split_1
I0705 19:03:42.658936 23439 net.cpp:411] inception_4d/output_inception_4d/output_0_split -> inception_4d/output_inception_4d/output_0_split_2
I0705 19:03:42.658941 23439 net.cpp:411] inception_4d/output_inception_4d/output_0_split -> inception_4d/output_inception_4d/output_0_split_3
I0705 19:03:42.658948 23439 net.cpp:150] Setting up inception_4d/output_inception_4d/output_0_split
I0705 19:03:42.658954 23439 net.cpp:157] Top shape: 10 528 14 14 (1034880)
I0705 19:03:42.658958 23439 net.cpp:157] Top shape: 10 528 14 14 (1034880)
I0705 19:03:42.658962 23439 net.cpp:157] Top shape: 10 528 14 14 (1034880)
I0705 19:03:42.658965 23439 net.cpp:157] Top shape: 10 528 14 14 (1034880)
I0705 19:03:42.658967 23439 net.cpp:165] Memory required for data: 488087040
I0705 19:03:42.658970 23439 layer_factory.hpp:77] Creating layer inception_4e/1x1
I0705 19:03:42.699790 23439 net.cpp:106] Creating Layer inception_4e/1x1
I0705 19:03:42.699810 23439 net.cpp:454] inception_4e/1x1 <- inception_4d/output_inception_4d/output_0_split_0
I0705 19:03:42.699825 23439 net.cpp:411] inception_4e/1x1 -> inception_4e/1x1
I0705 19:03:42.701108 23439 net.cpp:150] Setting up inception_4e/1x1
I0705 19:03:42.701118 23439 net.cpp:157] Top shape: 10 256 14 14 (501760)
I0705 19:03:42.701122 23439 net.cpp:165] Memory required for data: 490094080
I0705 19:03:42.701129 23439 layer_factory.hpp:77] Creating layer inception_4e/relu_1x1
I0705 19:03:42.701136 23439 net.cpp:106] Creating Layer inception_4e/relu_1x1
I0705 19:03:42.701141 23439 net.cpp:454] inception_4e/relu_1x1 <- inception_4e/1x1
I0705 19:03:42.701146 23439 net.cpp:397] inception_4e/relu_1x1 -> inception_4e/1x1 (in-place)
I0705 19:03:42.701153 23439 net.cpp:150] Setting up inception_4e/relu_1x1
I0705 19:03:42.701156 23439 net.cpp:157] Top shape: 10 256 14 14 (501760)
I0705 19:03:42.701159 23439 net.cpp:165] Memory required for data: 492101120
I0705 19:03:42.701162 23439 layer_factory.hpp:77] Creating layer inception_4e/3x3_reduce
I0705 19:03:42.701174 23439 net.cpp:106] Creating Layer inception_4e/3x3_reduce
I0705 19:03:42.701179 23439 net.cpp:454] inception_4e/3x3_reduce <- inception_4d/output_inception_4d/output_0_split_1
I0705 19:03:42.701186 23439 net.cpp:411] inception_4e/3x3_reduce -> inception_4e/3x3_reduce
I0705 19:03:42.701915 23439 net.cpp:150] Setting up inception_4e/3x3_reduce
I0705 19:03:42.701921 23439 net.cpp:157] Top shape: 10 160 14 14 (313600)
I0705 19:03:42.701925 23439 net.cpp:165] Memory required for data: 493355520
I0705 19:03:42.701930 23439 layer_factory.hpp:77] Creating layer inception_4e/relu_3x3_reduce
I0705 19:03:42.701936 23439 net.cpp:106] Creating Layer inception_4e/relu_3x3_reduce
I0705 19:03:42.701939 23439 net.cpp:454] inception_4e/relu_3x3_reduce <- inception_4e/3x3_reduce
I0705 19:03:42.701946 23439 net.cpp:397] inception_4e/relu_3x3_reduce -> inception_4e/3x3_reduce (in-place)
I0705 19:03:42.701951 23439 net.cpp:150] Setting up inception_4e/relu_3x3_reduce
I0705 19:03:42.701956 23439 net.cpp:157] Top shape: 10 160 14 14 (313600)
I0705 19:03:42.701958 23439 net.cpp:165] Memory required for data: 494609920
I0705 19:03:42.701961 23439 layer_factory.hpp:77] Creating layer inception_4e/3x3
I0705 19:03:42.701972 23439 net.cpp:106] Creating Layer inception_4e/3x3
I0705 19:03:42.701977 23439 net.cpp:454] inception_4e/3x3 <- inception_4e/3x3_reduce
I0705 19:03:42.701982 23439 net.cpp:411] inception_4e/3x3 -> inception_4e/3x3
I0705 19:03:42.705868 23439 net.cpp:150] Setting up inception_4e/3x3
I0705 19:03:42.705874 23439 net.cpp:157] Top shape: 10 320 14 14 (627200)
I0705 19:03:42.705878 23439 net.cpp:165] Memory required for data: 497118720
I0705 19:03:42.705883 23439 layer_factory.hpp:77] Creating layer inception_4e/relu_3x3
I0705 19:03:42.705889 23439 net.cpp:106] Creating Layer inception_4e/relu_3x3
I0705 19:03:42.705893 23439 net.cpp:454] inception_4e/relu_3x3 <- inception_4e/3x3
I0705 19:03:42.705898 23439 net.cpp:397] inception_4e/relu_3x3 -> inception_4e/3x3 (in-place)
I0705 19:03:42.705902 23439 net.cpp:150] Setting up inception_4e/relu_3x3
I0705 19:03:42.705906 23439 net.cpp:157] Top shape: 10 320 14 14 (627200)
I0705 19:03:42.705909 23439 net.cpp:165] Memory required for data: 499627520
I0705 19:03:42.705912 23439 layer_factory.hpp:77] Creating layer inception_4e/5x5_reduce
I0705 19:03:42.705924 23439 net.cpp:106] Creating Layer inception_4e/5x5_reduce
I0705 19:03:42.705927 23439 net.cpp:454] inception_4e/5x5_reduce <- inception_4d/output_inception_4d/output_0_split_2
I0705 19:03:42.705935 23439 net.cpp:411] inception_4e/5x5_reduce -> inception_4e/5x5_reduce
I0705 19:03:42.706094 23439 net.cpp:150] Setting up inception_4e/5x5_reduce
I0705 19:03:42.706099 23439 net.cpp:157] Top shape: 10 32 14 14 (62720)
I0705 19:03:42.706102 23439 net.cpp:165] Memory required for data: 499878400
I0705 19:03:42.706109 23439 layer_factory.hpp:77] Creating layer inception_4e/relu_5x5_reduce
I0705 19:03:42.706117 23439 net.cpp:106] Creating Layer inception_4e/relu_5x5_reduce
I0705 19:03:42.706120 23439 net.cpp:454] inception_4e/relu_5x5_reduce <- inception_4e/5x5_reduce
I0705 19:03:42.706126 23439 net.cpp:397] inception_4e/relu_5x5_reduce -> inception_4e/5x5_reduce (in-place)
I0705 19:03:42.706132 23439 net.cpp:150] Setting up inception_4e/relu_5x5_reduce
I0705 19:03:42.706136 23439 net.cpp:157] Top shape: 10 32 14 14 (62720)
I0705 19:03:42.706138 23439 net.cpp:165] Memory required for data: 500129280
I0705 19:03:42.706141 23439 layer_factory.hpp:77] Creating layer inception_4e/5x5
I0705 19:03:42.706151 23439 net.cpp:106] Creating Layer inception_4e/5x5
I0705 19:03:42.706153 23439 net.cpp:454] inception_4e/5x5 <- inception_4e/5x5_reduce
I0705 19:03:42.706161 23439 net.cpp:411] inception_4e/5x5 -> inception_4e/5x5
I0705 19:03:42.707036 23439 net.cpp:150] Setting up inception_4e/5x5
I0705 19:03:42.707043 23439 net.cpp:157] Top shape: 10 128 14 14 (250880)
I0705 19:03:42.707046 23439 net.cpp:165] Memory required for data: 501132800
I0705 19:03:42.707051 23439 layer_factory.hpp:77] Creating layer inception_4e/relu_5x5
I0705 19:03:42.707058 23439 net.cpp:106] Creating Layer inception_4e/relu_5x5
I0705 19:03:42.707062 23439 net.cpp:454] inception_4e/relu_5x5 <- inception_4e/5x5
I0705 19:03:42.707067 23439 net.cpp:397] inception_4e/relu_5x5 -> inception_4e/5x5 (in-place)
I0705 19:03:42.707072 23439 net.cpp:150] Setting up inception_4e/relu_5x5
I0705 19:03:42.707077 23439 net.cpp:157] Top shape: 10 128 14 14 (250880)
I0705 19:03:42.707078 23439 net.cpp:165] Memory required for data: 502136320
I0705 19:03:42.707082 23439 layer_factory.hpp:77] Creating layer inception_4e/pool
I0705 19:03:42.707087 23439 net.cpp:106] Creating Layer inception_4e/pool
I0705 19:03:42.707092 23439 net.cpp:454] inception_4e/pool <- inception_4d/output_inception_4d/output_0_split_3
I0705 19:03:42.707099 23439 net.cpp:411] inception_4e/pool -> inception_4e/pool
I0705 19:03:42.707108 23439 net.cpp:150] Setting up inception_4e/pool
I0705 19:03:42.707113 23439 net.cpp:157] Top shape: 10 528 14 14 (1034880)
I0705 19:03:42.707115 23439 net.cpp:165] Memory required for data: 506275840
I0705 19:03:42.707118 23439 layer_factory.hpp:77] Creating layer inception_4e/pool_proj
I0705 19:03:42.707129 23439 net.cpp:106] Creating Layer inception_4e/pool_proj
I0705 19:03:42.707132 23439 net.cpp:454] inception_4e/pool_proj <- inception_4e/pool
I0705 19:03:42.707137 23439 net.cpp:411] inception_4e/pool_proj -> inception_4e/pool_proj
I0705 19:03:42.707723 23439 net.cpp:150] Setting up inception_4e/pool_proj
I0705 19:03:42.707731 23439 net.cpp:157] Top shape: 10 128 14 14 (250880)
I0705 19:03:42.707733 23439 net.cpp:165] Memory required for data: 507279360
I0705 19:03:42.707738 23439 layer_factory.hpp:77] Creating layer inception_4e/relu_pool_proj
I0705 19:03:42.707744 23439 net.cpp:106] Creating Layer inception_4e/relu_pool_proj
I0705 19:03:42.707747 23439 net.cpp:454] inception_4e/relu_pool_proj <- inception_4e/pool_proj
I0705 19:03:42.707754 23439 net.cpp:397] inception_4e/relu_pool_proj -> inception_4e/pool_proj (in-place)
I0705 19:03:42.707761 23439 net.cpp:150] Setting up inception_4e/relu_pool_proj
I0705 19:03:42.707763 23439 net.cpp:157] Top shape: 10 128 14 14 (250880)
I0705 19:03:42.707767 23439 net.cpp:165] Memory required for data: 508282880
I0705 19:03:42.707769 23439 layer_factory.hpp:77] Creating layer inception_4e/output
I0705 19:03:42.707777 23439 net.cpp:106] Creating Layer inception_4e/output
I0705 19:03:42.707779 23439 net.cpp:454] inception_4e/output <- inception_4e/1x1
I0705 19:03:42.707783 23439 net.cpp:454] inception_4e/output <- inception_4e/3x3
I0705 19:03:42.707787 23439 net.cpp:454] inception_4e/output <- inception_4e/5x5
I0705 19:03:42.707790 23439 net.cpp:454] inception_4e/output <- inception_4e/pool_proj
I0705 19:03:42.707794 23439 net.cpp:411] inception_4e/output -> inception_4e/output
I0705 19:03:42.707808 23439 net.cpp:150] Setting up inception_4e/output
I0705 19:03:42.711779 23439 net.cpp:157] Top shape: 10 832 14 14 (1630720)
I0705 19:03:42.711786 23439 net.cpp:165] Memory required for data: 514805760
I0705 19:03:42.711791 23439 layer_factory.hpp:77] Creating layer pool4/3x3_s2
I0705 19:03:42.711805 23439 net.cpp:106] Creating Layer pool4/3x3_s2
I0705 19:03:42.711810 23439 net.cpp:454] pool4/3x3_s2 <- inception_4e/output
I0705 19:03:42.711823 23439 net.cpp:411] pool4/3x3_s2 -> pool4/3x3_s2
I0705 19:03:42.711834 23439 net.cpp:150] Setting up pool4/3x3_s2
I0705 19:03:42.711839 23439 net.cpp:157] Top shape: 10 832 7 7 (407680)
I0705 19:03:42.711841 23439 net.cpp:165] Memory required for data: 516436480
I0705 19:03:42.711845 23439 layer_factory.hpp:77] Creating layer pool4/3x3_s2_pool4/3x3_s2_0_split
I0705 19:03:42.711853 23439 net.cpp:106] Creating Layer pool4/3x3_s2_pool4/3x3_s2_0_split
I0705 19:03:42.711858 23439 net.cpp:454] pool4/3x3_s2_pool4/3x3_s2_0_split <- pool4/3x3_s2
I0705 19:03:42.711861 23439 net.cpp:411] pool4/3x3_s2_pool4/3x3_s2_0_split -> pool4/3x3_s2_pool4/3x3_s2_0_split_0
I0705 19:03:42.711868 23439 net.cpp:411] pool4/3x3_s2_pool4/3x3_s2_0_split -> pool4/3x3_s2_pool4/3x3_s2_0_split_1
I0705 19:03:42.711874 23439 net.cpp:411] pool4/3x3_s2_pool4/3x3_s2_0_split -> pool4/3x3_s2_pool4/3x3_s2_0_split_2
I0705 19:03:42.711879 23439 net.cpp:411] pool4/3x3_s2_pool4/3x3_s2_0_split -> pool4/3x3_s2_pool4/3x3_s2_0_split_3
I0705 19:03:42.711889 23439 net.cpp:150] Setting up pool4/3x3_s2_pool4/3x3_s2_0_split
I0705 19:03:42.711894 23439 net.cpp:157] Top shape: 10 832 7 7 (407680)
I0705 19:03:42.711897 23439 net.cpp:157] Top shape: 10 832 7 7 (407680)
I0705 19:03:42.711900 23439 net.cpp:157] Top shape: 10 832 7 7 (407680)
I0705 19:03:42.711905 23439 net.cpp:157] Top shape: 10 832 7 7 (407680)
I0705 19:03:42.711907 23439 net.cpp:165] Memory required for data: 522959360
I0705 19:03:42.711910 23439 layer_factory.hpp:77] Creating layer inception_5a/1x1
I0705 19:03:42.711922 23439 net.cpp:106] Creating Layer inception_5a/1x1
I0705 19:03:42.711926 23439 net.cpp:454] inception_5a/1x1 <- pool4/3x3_s2_pool4/3x3_s2_0_split_0
I0705 19:03:42.711932 23439 net.cpp:411] inception_5a/1x1 -> inception_5a/1x1
I0705 19:03:42.713738 23439 net.cpp:150] Setting up inception_5a/1x1
I0705 19:03:42.713745 23439 net.cpp:157] Top shape: 10 256 7 7 (125440)
I0705 19:03:42.713748 23439 net.cpp:165] Memory required for data: 523461120
I0705 19:03:42.713755 23439 layer_factory.hpp:77] Creating layer inception_5a/relu_1x1
I0705 19:03:42.713762 23439 net.cpp:106] Creating Layer inception_5a/relu_1x1
I0705 19:03:42.713765 23439 net.cpp:454] inception_5a/relu_1x1 <- inception_5a/1x1
I0705 19:03:42.713770 23439 net.cpp:397] inception_5a/relu_1x1 -> inception_5a/1x1 (in-place)
I0705 19:03:42.713776 23439 net.cpp:150] Setting up inception_5a/relu_1x1
I0705 19:03:42.713780 23439 net.cpp:157] Top shape: 10 256 7 7 (125440)
I0705 19:03:42.713783 23439 net.cpp:165] Memory required for data: 523962880
I0705 19:03:42.713786 23439 layer_factory.hpp:77] Creating layer inception_5a/3x3_reduce
I0705 19:03:42.713796 23439 net.cpp:106] Creating Layer inception_5a/3x3_reduce
I0705 19:03:42.713800 23439 net.cpp:454] inception_5a/3x3_reduce <- pool4/3x3_s2_pool4/3x3_s2_0_split_1
I0705 19:03:42.713809 23439 net.cpp:411] inception_5a/3x3_reduce -> inception_5a/3x3_reduce
I0705 19:03:42.714941 23439 net.cpp:150] Setting up inception_5a/3x3_reduce
I0705 19:03:42.714947 23439 net.cpp:157] Top shape: 10 160 7 7 (78400)
I0705 19:03:42.714951 23439 net.cpp:165] Memory required for data: 524276480
I0705 19:03:42.714956 23439 layer_factory.hpp:77] Creating layer inception_5a/relu_3x3_reduce
I0705 19:03:42.714962 23439 net.cpp:106] Creating Layer inception_5a/relu_3x3_reduce
I0705 19:03:42.714965 23439 net.cpp:454] inception_5a/relu_3x3_reduce <- inception_5a/3x3_reduce
I0705 19:03:42.714972 23439 net.cpp:397] inception_5a/relu_3x3_reduce -> inception_5a/3x3_reduce (in-place)
I0705 19:03:42.714978 23439 net.cpp:150] Setting up inception_5a/relu_3x3_reduce
I0705 19:03:42.714982 23439 net.cpp:157] Top shape: 10 160 7 7 (78400)
I0705 19:03:42.714985 23439 net.cpp:165] Memory required for data: 524590080
I0705 19:03:42.714988 23439 layer_factory.hpp:77] Creating layer inception_5a/3x3
I0705 19:03:42.714998 23439 net.cpp:106] Creating Layer inception_5a/3x3
I0705 19:03:42.715000 23439 net.cpp:454] inception_5a/3x3 <- inception_5a/3x3_reduce
I0705 19:03:42.715008 23439 net.cpp:411] inception_5a/3x3 -> inception_5a/3x3
I0705 19:03:42.718879 23439 net.cpp:150] Setting up inception_5a/3x3
I0705 19:03:42.718886 23439 net.cpp:157] Top shape: 10 320 7 7 (156800)
I0705 19:03:42.718889 23439 net.cpp:165] Memory required for data: 525217280
I0705 19:03:42.718895 23439 layer_factory.hpp:77] Creating layer inception_5a/relu_3x3
I0705 19:03:42.718904 23439 net.cpp:106] Creating Layer inception_5a/relu_3x3
I0705 19:03:42.718907 23439 net.cpp:454] inception_5a/relu_3x3 <- inception_5a/3x3
I0705 19:03:42.718911 23439 net.cpp:397] inception_5a/relu_3x3 -> inception_5a/3x3 (in-place)
I0705 19:03:42.718916 23439 net.cpp:150] Setting up inception_5a/relu_3x3
I0705 19:03:42.718920 23439 net.cpp:157] Top shape: 10 320 7 7 (156800)
I0705 19:03:42.718924 23439 net.cpp:165] Memory required for data: 525844480
I0705 19:03:42.718926 23439 layer_factory.hpp:77] Creating layer inception_5a/5x5_reduce
I0705 19:03:42.718937 23439 net.cpp:106] Creating Layer inception_5a/5x5_reduce
I0705 19:03:42.718941 23439 net.cpp:454] inception_5a/5x5_reduce <- pool4/3x3_s2_pool4/3x3_s2_0_split_2
I0705 19:03:42.718950 23439 net.cpp:411] inception_5a/5x5_reduce -> inception_5a/5x5_reduce
I0705 19:03:42.719190 23439 net.cpp:150] Setting up inception_5a/5x5_reduce
I0705 19:03:42.719197 23439 net.cpp:157] Top shape: 10 32 7 7 (15680)
I0705 19:03:42.719199 23439 net.cpp:165] Memory required for data: 525907200
I0705 19:03:42.719204 23439 layer_factory.hpp:77] Creating layer inception_5a/relu_5x5_reduce
I0705 19:03:42.719209 23439 net.cpp:106] Creating Layer inception_5a/relu_5x5_reduce
I0705 19:03:42.719215 23439 net.cpp:454] inception_5a/relu_5x5_reduce <- inception_5a/5x5_reduce
I0705 19:03:42.719219 23439 net.cpp:397] inception_5a/relu_5x5_reduce -> inception_5a/5x5_reduce (in-place)
I0705 19:03:42.719225 23439 net.cpp:150] Setting up inception_5a/relu_5x5_reduce
I0705 19:03:42.719229 23439 net.cpp:157] Top shape: 10 32 7 7 (15680)
I0705 19:03:42.719231 23439 net.cpp:165] Memory required for data: 525969920
I0705 19:03:42.719235 23439 layer_factory.hpp:77] Creating layer inception_5a/5x5
I0705 19:03:42.719245 23439 net.cpp:106] Creating Layer inception_5a/5x5
I0705 19:03:42.719249 23439 net.cpp:454] inception_5a/5x5 <- inception_5a/5x5_reduce
I0705 19:03:42.719254 23439 net.cpp:411] inception_5a/5x5 -> inception_5a/5x5
I0705 19:03:42.720134 23439 net.cpp:150] Setting up inception_5a/5x5
I0705 19:03:42.720141 23439 net.cpp:157] Top shape: 10 128 7 7 (62720)
I0705 19:03:42.720144 23439 net.cpp:165] Memory required for data: 526220800
I0705 19:03:42.720150 23439 layer_factory.hpp:77] Creating layer inception_5a/relu_5x5
I0705 19:03:42.720158 23439 net.cpp:106] Creating Layer inception_5a/relu_5x5
I0705 19:03:42.720162 23439 net.cpp:454] inception_5a/relu_5x5 <- inception_5a/5x5
I0705 19:03:42.720166 23439 net.cpp:397] inception_5a/relu_5x5 -> inception_5a/5x5 (in-place)
I0705 19:03:42.720171 23439 net.cpp:150] Setting up inception_5a/relu_5x5
I0705 19:03:42.720175 23439 net.cpp:157] Top shape: 10 128 7 7 (62720)
I0705 19:03:42.720178 23439 net.cpp:165] Memory required for data: 526471680
I0705 19:03:42.720181 23439 layer_factory.hpp:77] Creating layer inception_5a/pool
I0705 19:03:42.720209 23439 net.cpp:106] Creating Layer inception_5a/pool
I0705 19:03:42.720213 23439 net.cpp:454] inception_5a/pool <- pool4/3x3_s2_pool4/3x3_s2_0_split_3
I0705 19:03:42.720219 23439 net.cpp:411] inception_5a/pool -> inception_5a/pool
I0705 19:03:42.720227 23439 net.cpp:150] Setting up inception_5a/pool
I0705 19:03:42.720232 23439 net.cpp:157] Top shape: 10 832 7 7 (407680)
I0705 19:03:42.720234 23439 net.cpp:165] Memory required for data: 528102400
I0705 19:03:42.722779 23439 layer_factory.hpp:77] Creating layer inception_5a/pool_proj
I0705 19:03:42.722803 23439 net.cpp:106] Creating Layer inception_5a/pool_proj
I0705 19:03:42.722810 23439 net.cpp:454] inception_5a/pool_proj <- inception_5a/pool
I0705 19:03:42.722816 23439 net.cpp:411] inception_5a/pool_proj -> inception_5a/pool_proj
I0705 19:03:42.723732 23439 net.cpp:150] Setting up inception_5a/pool_proj
I0705 19:03:42.723742 23439 net.cpp:157] Top shape: 10 128 7 7 (62720)
I0705 19:03:42.723744 23439 net.cpp:165] Memory required for data: 528353280
I0705 19:03:42.723752 23439 layer_factory.hpp:77] Creating layer inception_5a/relu_pool_proj
I0705 19:03:42.723758 23439 net.cpp:106] Creating Layer inception_5a/relu_pool_proj
I0705 19:03:42.723762 23439 net.cpp:454] inception_5a/relu_pool_proj <- inception_5a/pool_proj
I0705 19:03:42.723768 23439 net.cpp:397] inception_5a/relu_pool_proj -> inception_5a/pool_proj (in-place)
I0705 19:03:42.723775 23439 net.cpp:150] Setting up inception_5a/relu_pool_proj
I0705 19:03:42.723779 23439 net.cpp:157] Top shape: 10 128 7 7 (62720)
I0705 19:03:42.723783 23439 net.cpp:165] Memory required for data: 528604160
I0705 19:03:42.723785 23439 layer_factory.hpp:77] Creating layer inception_5a/output
I0705 19:03:42.723791 23439 net.cpp:106] Creating Layer inception_5a/output
I0705 19:03:42.723795 23439 net.cpp:454] inception_5a/output <- inception_5a/1x1
I0705 19:03:42.723809 23439 net.cpp:454] inception_5a/output <- inception_5a/3x3
I0705 19:03:42.723814 23439 net.cpp:454] inception_5a/output <- inception_5a/5x5
I0705 19:03:42.723816 23439 net.cpp:454] inception_5a/output <- inception_5a/pool_proj
I0705 19:03:42.723821 23439 net.cpp:411] inception_5a/output -> inception_5a/output
I0705 19:03:42.723829 23439 net.cpp:150] Setting up inception_5a/output
I0705 19:03:42.723835 23439 net.cpp:157] Top shape: 10 832 7 7 (407680)
I0705 19:03:42.723839 23439 net.cpp:165] Memory required for data: 530234880
I0705 19:03:42.723842 23439 layer_factory.hpp:77] Creating layer inception_5a/output_inception_5a/output_0_split
I0705 19:03:42.723848 23439 net.cpp:106] Creating Layer inception_5a/output_inception_5a/output_0_split
I0705 19:03:42.723851 23439 net.cpp:454] inception_5a/output_inception_5a/output_0_split <- inception_5a/output
I0705 19:03:42.723856 23439 net.cpp:411] inception_5a/output_inception_5a/output_0_split -> inception_5a/output_inception_5a/output_0_split_0
I0705 19:03:42.723862 23439 net.cpp:411] inception_5a/output_inception_5a/output_0_split -> inception_5a/output_inception_5a/output_0_split_1
I0705 19:03:42.723868 23439 net.cpp:411] inception_5a/output_inception_5a/output_0_split -> inception_5a/output_inception_5a/output_0_split_2
I0705 19:03:42.723873 23439 net.cpp:411] inception_5a/output_inception_5a/output_0_split -> inception_5a/output_inception_5a/output_0_split_3
I0705 19:03:42.723882 23439 net.cpp:150] Setting up inception_5a/output_inception_5a/output_0_split
I0705 19:03:42.723886 23439 net.cpp:157] Top shape: 10 832 7 7 (407680)
I0705 19:03:42.723891 23439 net.cpp:157] Top shape: 10 832 7 7 (407680)
I0705 19:03:42.723893 23439 net.cpp:157] Top shape: 10 832 7 7 (407680)
I0705 19:03:42.723897 23439 net.cpp:157] Top shape: 10 832 7 7 (407680)
I0705 19:03:42.723901 23439 net.cpp:165] Memory required for data: 536757760
I0705 19:03:42.723903 23439 layer_factory.hpp:77] Creating layer inception_5b/1x1
I0705 19:03:42.723917 23439 net.cpp:106] Creating Layer inception_5b/1x1
I0705 19:03:42.723920 23439 net.cpp:454] inception_5b/1x1 <- inception_5a/output_inception_5a/output_0_split_0
I0705 19:03:42.723927 23439 net.cpp:411] inception_5b/1x1 -> inception_5b/1x1
I0705 19:03:42.726613 23439 net.cpp:150] Setting up inception_5b/1x1
I0705 19:03:42.726619 23439 net.cpp:157] Top shape: 10 384 7 7 (188160)
I0705 19:03:42.726621 23439 net.cpp:165] Memory required for data: 537510400
I0705 19:03:42.726627 23439 layer_factory.hpp:77] Creating layer inception_5b/relu_1x1
I0705 19:03:42.726634 23439 net.cpp:106] Creating Layer inception_5b/relu_1x1
I0705 19:03:42.726637 23439 net.cpp:454] inception_5b/relu_1x1 <- inception_5b/1x1
I0705 19:03:42.726645 23439 net.cpp:397] inception_5b/relu_1x1 -> inception_5b/1x1 (in-place)
I0705 19:03:42.726650 23439 net.cpp:150] Setting up inception_5b/relu_1x1
I0705 19:03:42.726655 23439 net.cpp:157] Top shape: 10 384 7 7 (188160)
I0705 19:03:42.726657 23439 net.cpp:165] Memory required for data: 538263040
I0705 19:03:42.726660 23439 layer_factory.hpp:77] Creating layer inception_5b/3x3_reduce
I0705 19:03:42.726671 23439 net.cpp:106] Creating Layer inception_5b/3x3_reduce
I0705 19:03:42.726675 23439 net.cpp:454] inception_5b/3x3_reduce <- inception_5a/output_inception_5a/output_0_split_1
I0705 19:03:42.726680 23439 net.cpp:411] inception_5b/3x3_reduce -> inception_5b/3x3_reduce
I0705 19:03:42.728041 23439 net.cpp:150] Setting up inception_5b/3x3_reduce
I0705 19:03:42.728049 23439 net.cpp:157] Top shape: 10 192 7 7 (94080)
I0705 19:03:42.728052 23439 net.cpp:165] Memory required for data: 538639360
I0705 19:03:42.728057 23439 layer_factory.hpp:77] Creating layer inception_5b/relu_3x3_reduce
I0705 19:03:42.728065 23439 net.cpp:106] Creating Layer inception_5b/relu_3x3_reduce
I0705 19:03:42.728070 23439 net.cpp:454] inception_5b/relu_3x3_reduce <- inception_5b/3x3_reduce
I0705 19:03:42.728075 23439 net.cpp:397] inception_5b/relu_3x3_reduce -> inception_5b/3x3_reduce (in-place)
I0705 19:03:42.728080 23439 net.cpp:150] Setting up inception_5b/relu_3x3_reduce
I0705 19:03:42.728083 23439 net.cpp:157] Top shape: 10 192 7 7 (94080)
I0705 19:03:42.728086 23439 net.cpp:165] Memory required for data: 539015680
I0705 19:03:42.728090 23439 layer_factory.hpp:77] Creating layer inception_5b/3x3
I0705 19:03:42.728101 23439 net.cpp:106] Creating Layer inception_5b/3x3
I0705 19:03:42.728104 23439 net.cpp:454] inception_5b/3x3 <- inception_5b/3x3_reduce
I0705 19:03:42.728109 23439 net.cpp:411] inception_5b/3x3 -> inception_5b/3x3
I0705 19:03:42.733695 23439 net.cpp:150] Setting up inception_5b/3x3
I0705 19:03:42.733703 23439 net.cpp:157] Top shape: 10 384 7 7 (188160)
I0705 19:03:42.733705 23439 net.cpp:165] Memory required for data: 539768320
I0705 19:03:42.733711 23439 layer_factory.hpp:77] Creating layer inception_5b/relu_3x3
I0705 19:03:42.733717 23439 net.cpp:106] Creating Layer inception_5b/relu_3x3
I0705 19:03:42.733721 23439 net.cpp:454] inception_5b/relu_3x3 <- inception_5b/3x3
I0705 19:03:42.733726 23439 net.cpp:397] inception_5b/relu_3x3 -> inception_5b/3x3 (in-place)
I0705 19:03:42.733731 23439 net.cpp:150] Setting up inception_5b/relu_3x3
I0705 19:03:42.733736 23439 net.cpp:157] Top shape: 10 384 7 7 (188160)
I0705 19:03:42.733737 23439 net.cpp:165] Memory required for data: 540520960
I0705 19:03:42.733741 23439 layer_factory.hpp:77] Creating layer inception_5b/5x5_reduce
I0705 19:03:42.733752 23439 net.cpp:106] Creating Layer inception_5b/5x5_reduce
I0705 19:03:42.733757 23439 net.cpp:454] inception_5b/5x5_reduce <- inception_5a/output_inception_5a/output_0_split_2
I0705 19:03:42.733763 23439 net.cpp:411] inception_5b/5x5_reduce -> inception_5b/5x5_reduce
I0705 19:03:42.734112 23439 net.cpp:150] Setting up inception_5b/5x5_reduce
I0705 19:03:42.734117 23439 net.cpp:157] Top shape: 10 48 7 7 (23520)
I0705 19:03:42.734120 23439 net.cpp:165] Memory required for data: 540615040
I0705 19:03:42.734127 23439 layer_factory.hpp:77] Creating layer inception_5b/relu_5x5_reduce
I0705 19:03:42.734132 23439 net.cpp:106] Creating Layer inception_5b/relu_5x5_reduce
I0705 19:03:42.734134 23439 net.cpp:454] inception_5b/relu_5x5_reduce <- inception_5b/5x5_reduce
I0705 19:03:42.734139 23439 net.cpp:397] inception_5b/relu_5x5_reduce -> inception_5b/5x5_reduce (in-place)
I0705 19:03:42.734144 23439 net.cpp:150] Setting up inception_5b/relu_5x5_reduce
I0705 19:03:42.734148 23439 net.cpp:157] Top shape: 10 48 7 7 (23520)
I0705 19:03:42.734151 23439 net.cpp:165] Memory required for data: 540709120
I0705 19:03:42.734154 23439 layer_factory.hpp:77] Creating layer inception_5b/5x5
I0705 19:03:42.734165 23439 net.cpp:106] Creating Layer inception_5b/5x5
I0705 19:03:42.734484 23439 net.cpp:454] inception_5b/5x5 <- inception_5b/5x5_reduce
I0705 19:03:42.734503 23439 net.cpp:411] inception_5b/5x5 -> inception_5b/5x5
I0705 19:03:42.735828 23439 net.cpp:150] Setting up inception_5b/5x5
I0705 19:03:42.735837 23439 net.cpp:157] Top shape: 10 128 7 7 (62720)
I0705 19:03:42.735841 23439 net.cpp:165] Memory required for data: 540960000
I0705 19:03:42.735847 23439 layer_factory.hpp:77] Creating layer inception_5b/relu_5x5
I0705 19:03:42.735854 23439 net.cpp:106] Creating Layer inception_5b/relu_5x5
I0705 19:03:42.735858 23439 net.cpp:454] inception_5b/relu_5x5 <- inception_5b/5x5
I0705 19:03:42.735864 23439 net.cpp:397] inception_5b/relu_5x5 -> inception_5b/5x5 (in-place)
I0705 19:03:42.735870 23439 net.cpp:150] Setting up inception_5b/relu_5x5
I0705 19:03:42.735874 23439 net.cpp:157] Top shape: 10 128 7 7 (62720)
I0705 19:03:42.735877 23439 net.cpp:165] Memory required for data: 541210880
I0705 19:03:42.735880 23439 layer_factory.hpp:77] Creating layer inception_5b/pool
I0705 19:03:42.735889 23439 net.cpp:106] Creating Layer inception_5b/pool
I0705 19:03:42.735893 23439 net.cpp:454] inception_5b/pool <- inception_5a/output_inception_5a/output_0_split_3
I0705 19:03:42.735898 23439 net.cpp:411] inception_5b/pool -> inception_5b/pool
I0705 19:03:42.735908 23439 net.cpp:150] Setting up inception_5b/pool
I0705 19:03:42.735913 23439 net.cpp:157] Top shape: 10 832 7 7 (407680)
I0705 19:03:42.735916 23439 net.cpp:165] Memory required for data: 542841600
I0705 19:03:42.735919 23439 layer_factory.hpp:77] Creating layer inception_5b/pool_proj
I0705 19:03:42.735929 23439 net.cpp:106] Creating Layer inception_5b/pool_proj
I0705 19:03:42.735932 23439 net.cpp:454] inception_5b/pool_proj <- inception_5b/pool
I0705 19:03:42.735939 23439 net.cpp:411] inception_5b/pool_proj -> inception_5b/pool_proj
I0705 19:03:42.736851 23439 net.cpp:150] Setting up inception_5b/pool_proj
I0705 19:03:42.736858 23439 net.cpp:157] Top shape: 10 128 7 7 (62720)
I0705 19:03:42.736860 23439 net.cpp:165] Memory required for data: 543092480
I0705 19:03:42.736866 23439 layer_factory.hpp:77] Creating layer inception_5b/relu_pool_proj
I0705 19:03:42.736872 23439 net.cpp:106] Creating Layer inception_5b/relu_pool_proj
I0705 19:03:42.736876 23439 net.cpp:454] inception_5b/relu_pool_proj <- inception_5b/pool_proj
I0705 19:03:42.736882 23439 net.cpp:397] inception_5b/relu_pool_proj -> inception_5b/pool_proj (in-place)
I0705 19:03:42.736888 23439 net.cpp:150] Setting up inception_5b/relu_pool_proj
I0705 19:03:42.736892 23439 net.cpp:157] Top shape: 10 128 7 7 (62720)
I0705 19:03:42.736896 23439 net.cpp:165] Memory required for data: 543343360
I0705 19:03:42.736898 23439 layer_factory.hpp:77] Creating layer inception_5b/output
I0705 19:03:42.736906 23439 net.cpp:106] Creating Layer inception_5b/output
I0705 19:03:42.736907 23439 net.cpp:454] inception_5b/output <- inception_5b/1x1
I0705 19:03:42.736912 23439 net.cpp:454] inception_5b/output <- inception_5b/3x3
I0705 19:03:42.736915 23439 net.cpp:454] inception_5b/output <- inception_5b/5x5
I0705 19:03:42.736919 23439 net.cpp:454] inception_5b/output <- inception_5b/pool_proj
I0705 19:03:42.736923 23439 net.cpp:411] inception_5b/output -> inception_5b/output
I0705 19:03:42.736930 23439 net.cpp:150] Setting up inception_5b/output
I0705 19:03:42.736935 23439 net.cpp:157] Top shape: 10 1024 7 7 (501760)
I0705 19:03:42.736937 23439 net.cpp:165] Memory required for data: 545350400
I0705 19:03:42.736941 23439 layer_factory.hpp:77] Creating layer pool5/7x7_s1
I0705 19:03:42.736949 23439 net.cpp:106] Creating Layer pool5/7x7_s1
I0705 19:03:42.736953 23439 net.cpp:454] pool5/7x7_s1 <- inception_5b/output
I0705 19:03:42.736958 23439 net.cpp:411] pool5/7x7_s1 -> pool5/7x7_s1
I0705 19:03:42.736963 23439 net.cpp:150] Setting up pool5/7x7_s1
I0705 19:03:42.736969 23439 net.cpp:157] Top shape: 10 1024 1 1 (10240)
I0705 19:03:42.736973 23439 net.cpp:165] Memory required for data: 545391360
I0705 19:03:42.736975 23439 layer_factory.hpp:77] Creating layer pool5/drop_7x7_s1
I0705 19:03:42.736990 23439 net.cpp:106] Creating Layer pool5/drop_7x7_s1
I0705 19:03:42.736994 23439 net.cpp:454] pool5/drop_7x7_s1 <- pool5/7x7_s1
I0705 19:03:42.736999 23439 net.cpp:397] pool5/drop_7x7_s1 -> pool5/7x7_s1 (in-place)
I0705 19:03:42.737021 23439 net.cpp:150] Setting up pool5/drop_7x7_s1
I0705 19:03:42.737025 23439 net.cpp:157] Top shape: 10 1024 1 1 (10240)
I0705 19:03:42.737027 23439 net.cpp:165] Memory required for data: 545432320
I0705 19:03:42.737031 23439 layer_factory.hpp:77] Creating layer loss3/classifier
I0705 19:03:42.737043 23439 net.cpp:106] Creating Layer loss3/classifier
I0705 19:03:42.737046 23439 net.cpp:454] loss3/classifier <- pool5/7x7_s1
I0705 19:03:42.737052 23439 net.cpp:411] loss3/classifier -> loss3/classifier
I0705 19:03:42.745277 23439 net.cpp:150] Setting up loss3/classifier
I0705 19:03:42.745285 23439 net.cpp:157] Top shape: 10 1000 (10000)
I0705 19:03:42.745288 23439 net.cpp:165] Memory required for data: 545472320
I0705 19:03:42.745295 23439 layer_factory.hpp:77] Creating layer prob
I0705 19:03:42.745301 23439 net.cpp:106] Creating Layer prob
I0705 19:03:42.745306 23439 net.cpp:454] prob <- loss3/classifier
I0705 19:03:42.745312 23439 net.cpp:411] prob -> prob
I0705 19:03:42.745326 23439 net.cpp:150] Setting up prob
I0705 19:03:42.745331 23439 net.cpp:157] Top shape: 10 1000 (10000)
I0705 19:03:42.745332 23439 net.cpp:165] Memory required for data: 545512320
I0705 19:03:42.745337 23439 net.cpp:228] prob does not need backward computation.
I0705 19:03:42.745339 23439 net.cpp:228] loss3/classifier does not need backward computation.
I0705 19:03:42.745342 23439 net.cpp:228] pool5/drop_7x7_s1 does not need backward computation.
I0705 19:03:42.745344 23439 net.cpp:228] pool5/7x7_s1 does not need backward computation.
…
