…
Java HotSpot(TM) 64-Bit Server VM warning: You have loaded library /tmp/cvld4237092461203001478/libopencv_java310.xine1.so which might have disabled stack guard. The VM will try to fix the stack guard now.
It's highly recommended that you fix the library with 'execstack -c <libfile>', or link it with '-z noexecstack'.
WARNING: Logging before InitGoogleLogging() is written to STDERR
I0713 13:41:00.803699 27591 net.cpp:49] Initializing net from parameters: 
name: "GoogleNet"
state {
  phase: TEST
}
layer {
  name: "data"
  type: "Input"
  top: "data"
  input_param {
    shape {
      dim: 10
      dim: 3
      dim: 224
      dim: 224
    }
  }
}
layer {
  name: "conv1/7x7_s2"
  type: "Convolution"
  bottom: "data"
  top: "conv1/7x7_s2"
  param {
    lr_mult: 1
    decay_mult: 1
  }
  param {
    lr_mult: 2
    decay_mult: 0
  }
  convolution_param {
    num_output: 64
    pad: 3
    kernel_size: 7
    stride: 2
    weight_filler {
      type: "xavier"
      std: 0.1
    }
    bias_filler {
      type: "constant"
      value: 0.2
    }
  }
}
layer {
  name: "conv1/relu_7x7"
  type: "ReLU"
  bottom: "conv1/7x7_s2"
  top: "conv1/7x7_s2"
}
layer {
  name: "pool1/3x3_s2"
  type: "Pooling"
  bottom: "conv1/7x7_s2"
  top: "pool1/3x3_s2"
  pooling_param {
    pool: MAX
    kernel_size: 3
    stride: 2
  }
}
layer {
  name: "pool1/norm1"
  type: "LRN"
  bottom: "pool1/3x3_s2"
  top: "pool1/norm1"
  lrn_param {
    local_size: 5
    alpha: 0.0001
    beta: 0.75
  }
}
layer {
  name: "conv2/3x3_reduce"
  type: "Convolution"
  bottom: "pool1/norm1"
  top: "conv2/3x3_reduce"
  param {
    lr_mult: 1
    decay_mult: 1
  }
  param {
    lr_mult: 2
    decay_mult: 0
  }
  convolution_param {
    num_output: 64
    kernel_size: 1
    weight_filler {
      type: "xavier"
      std: 0.1
    }
    bias_filler {
      type: "constant"
      value: 0.2
    }
  }
}
layer {
  name: "conv2/relu_3x3_reduce"
  type: "ReLU"
  bottom: "conv2/3x3_reduce"
  top: "conv2/3x3_reduce"
}
layer {
  name: "conv2/3x3"
  type: "Convolution"
  bottom: "conv2/3x3_reduce"
  top: "conv2/3x3"
  param {
    lr_mult: 1
    decay_mult: 1
  }
  param {
    lr_mult: 2
    decay_mult: 0
  }
  convolution_param {
    num_output: 192
    pad: 1
    kernel_size: 3
    weight_filler {
      type: "xavier"
      std: 0.03
    }
    bias_filler {
      type: "constant"
      value: 0.2
    }
  }
}
layer {
  name: "conv2/relu_3x3"
  type: "ReLU"
  bottom: "conv2/3x3"
  top: "conv2/3x3"
}
layer {
  name: "conv2/norm2"
  type: "LRN"
  bottom: "conv2/3x3"
  top: "conv2/norm2"
  lrn_param {
    local_size: 5
    alpha: 0.0001
    beta: 0.75
  }
}
layer {
  name: "pool2/3x3_s2"
  type: "Pooling"
  bottom: "conv2/norm2"
  top: "pool2/3x3_s2"
  pooling_param {
    pool: MAX
    kernel_size: 3
    stride: 2
  }
}
layer {
  name: "inception_3a/1x1"
  type: "Convolution"
  bottom: "pool2/3x3_s2"
  top: "inception_3a/1x1"
  param {
    lr_mult: 1
    decay_mult: 1
  }
  param {
    lr_mult: 2
    decay_mult: 0
  }
  convolution_param {
    num_output: 64
    kernel_size: 1
    weight_filler {
      type: "xavier"
      std: 0.03
    }
    bias_filler {
      type: "constant"
      value: 0.2
    }
  }
}
layer {
  name: "inception_3a/relu_1x1"
  type: "ReLU"
  bottom: "inception_3a/1x1"
  top: "inception_3a/1x1"
}
layer {
  name: "inception_3a/3x3_reduce"
  type: "Convolution"
  bottom: "pool2/3x3_s2"
  top: "inception_3a/3x3_reduce"
  param {
    lr_mult: 1
    decay_mult: 1
  }
  param {
    lr_mult: 2
    decay_mult: 0
  }
  convolution_param {
    num_output: 96
    kernel_size: 1
    weight_filler {
      type: "xavier"
      std: 0.09
    }
    bias_filler {
      type: "constant"
      value: 0.2
    }
  }
}
layer {
  name: "inception_3a/relu_3x3_reduce"
  type: "ReLU"
  bottom: "inception_3a/3x3_reduce"
  top: "inception_3a/3x3_reduce"
}
layer {
  name: "inception_3a/3x3"
  type: "Convolution"
  bottom: "inception_3a/3x3_reduce"
  top: "inception_3a/3x3"
  param {
    lr_mult: 1
    decay_mult: 1
  }
  param {
    lr_mult: 2
    decay_mult: 0
  }
  convolution_param {
    num_output: 128
    pad: 1
    kernel_size: 3
    weight_filler {
      type: "xavier"
      std: 0.03
    }
    bias_filler {
      type: "constant"
      value: 0.2
    }
  }
}
layer {
  name: "inception_3a/relu_3x3"
  type: "ReLU"
  bottom: "inception_3a/3x3"
  top: "inception_3a/3x3"
}
layer {
  name: "inception_3a/5x5_reduce"
  type: "Convolution"
  bottom: "pool2/3x3_s2"
  top: "inception_3a/5x5_reduce"
  param {
    lr_mult: 1
    decay_mult: 1
  }
  param {
    lr_mult: 2
    decay_mult: 0
  }
  convolution_param {
    num_output: 16
    kernel_size: 1
    weight_filler {
      type: "xavier"
      std: 0.2
    }
    bias_filler {
      type: "constant"
      value: 0.2
    }
  }
}
layer {
  name: "inception_3a/relu_5x5_reduce"
  type: "ReLU"
  bottom: "inception_3a/5x5_reduce"
  top: "inception_3a/5x5_reduce"
}
layer {
  name: "inception_3a/5x5"
  type: "Convolution"
  bottom: "inception_3a/5x5_reduce"
  top: "inception_3a/5x5"
  param {
    lr_mult: 1
    decay_mult: 1
  }
  param {
    lr_mult: 2
    decay_mult: 0
  }
  convolution_param {
    num_output: 32
    pad: 2
    kernel_size: 5
    weight_filler {
      type: "xavier"
      std: 0.03
    }
    bias_filler {
      type: "constant"
      value: 0.2
    }
  }
}
layer {
  name: "inception_3a/relu_5x5"
  type: "ReLU"
  bottom: "inception_3a/5x5"
  top: "inception_3a/5x5"
}
layer {
  name: "inception_3a/pool"
  type: "Pooling"
  bottom: "pool2/3x3_s2"
  top: "inception_3a/pool"
  pooling_param {
    pool: MAX
    kernel_size: 3
    stride: 1
    pad: 1
  }
}
layer {
  name: "inception_3a/pool_proj"
  type: "Convolution"
  bottom: "inception_3a/pool"
  top: "inception_3a/pool_proj"
  param {
    lr_mult: 1
    decay_mult: 1
  }
  param {
    lr_mult: 2
    decay_mult: 0
  }
  convolution_param {
    num_output: 32
    kernel_size: 1
    weight_filler {
      type: "xavier"
      std: 0.1
    }
    bias_filler {
      type: "constant"
      value: 0.2
    }
  }
}
layer {
  name: "inception_3a/relu_pool_proj"
  type: "ReLU"
  bottom: "inception_3a/pool_proj"
  top: "inception_3a/pool_proj"
}
layer {
  name: "inception_3a/output"
  type: "Concat"
  bottom: "inception_3a/1x1"
  bottom: "inception_3a/3x3"
  bottom: "inception_3a/5x5"
  bottom: "inception_3a/pool_proj"
  top: "inception_3a/output"
}
layer {
  name: "inception_3b/1x1"
  type: "Convolution"
  bottom: "inception_3a/output"
  top: "inception_3b/1x1"
  param {
    lr_mult: 1
    decay_mult: 1
  }
  param {
    lr_mult: 2
    decay_mult: 0
  }
  convolution_param {
    num_output: 128
    kernel_size: 1
    weight_filler {
      type: "xavier"
      std: 0.03
    }
    bias_filler {
      type: "constant"
      value: 0.2
    }
  }
}
layer {
  name: "inception_3b/relu_1x1"
  type: "ReLU"
  bottom: "inception_3b/1x1"
  top: "inception_3b/1x1"
}
layer {
  name: "inception_3b/3x3_reduce"
  type: "Convolution"
  bottom: "inception_3a/output"
  top: "inception_3b/3x3_reduce"
  param {
    lr_mult: 1
    decay_mult: 1
  }
  param {
    lr_mult: 2
    decay_mult: 0
  }
  convolution_param {
    num_output: 128
    kernel_size: 1
    weight_filler {
      type: "xavier"
      std: 0.09
    }
    bias_filler {
      type: "constant"
      value: 0.2
    }
  }
}
layer {
  name: "inception_3b/relu_3x3_reduce"
  type: "ReLU"
  bottom: "inception_3b/3x3_reduce"
  top: "inception_3b/3x3_reduce"
}
layer {
  name: "inception_3b/3x3"
  type: "Convolution"
  bottom: "inception_3b/3x3_reduce"
  top: "inception_3b/3x3"
  param {
    lr_mult: 1
    decay_mult: 1
  }
  param {
    lr_mult: 2
    decay_mult: 0
  }
  convolution_param {
    num_output: 192
    pad: 1
    kernel_size: 3
    weight_filler {
      type: "xavier"
      std: 0.03
    }
    bias_filler {
      type: "constant"
      value: 0.2
    }
  }
}
layer {
  name: "inception_3b/relu_3x3"
  type: "ReLU"
  bottom: "inception_3b/3x3"
  top: "inception_3b/3x3"
}
layer {
  name: "inception_3b/5x5_reduce"
  type: "Convolution"
  bottom: "inception_3a/output"
  top: "inception_3b/5x5_reduce"
  param {
    lr_mult: 1
    decay_mult: 1
  }
  param {
    lr_mult: 2
    decay_mult: 0
  }
  convolution_param {
    num_output: 32
    kernel_size: 1
    weight_filler {
      type: "xavier"
      std: 0.2
    }
    bias_filler {
      type: "constant"
      value: 0.2
    }
  }
}
layer {
  name: "inception_3b/relu_5x5_reduce"
  type: "ReLU"
  bottom: "inception_3b/5x5_reduce"
  top: "inception_3b/5x5_reduce"
}
layer {
  name: "inception_3b/5x5"
  type: "Convolution"
  bottom: "inception_3b/5x5_reduce"
  top: "inception_3b/5x5"
  param {
    lr_mult: 1
    decay_mult: 1
  }
  param {
    lr_mult: 2
    decay_mult: 0
  }
  convolution_param {
    num_output: 96
    pad: 2
    kernel_size: 5
    weight_filler {
      type: "xavier"
      std: 0.03
    }
    bias_filler {
      type: "constant"
      value: 0.2
    }
  }
}
layer {
  name: "inception_3b/relu_5x5"
  type: "ReLU"
  bottom: "inception_3b/5x5"
  top: "inception_3b/5x5"
}
layer {
  name: "inception_3b/pool"
  type: "Pooling"
  bottom: "inception_3a/output"
  top: "inception_3b/pool"
  pooling_param {
    pool: MAX
    kernel_size: 3
    stride: 1
    pad: 1
  }
}
layer {
  name: "inception_3b/pool_proj"
  type: "Convolution"
  bottom: "inception_3b/pool"
  top: "inception_3b/pool_proj"
  param {
    lr_mult: 1
    decay_mult: 1
  }
  param {
    lr_mult: 2
    decay_mult: 0
  }
  convolution_param {
    num_output: 64
    kernel_size: 1
    weight_filler {
      type: "xavier"
      std: 0.1
    }
    bias_filler {
      type: "constant"
      value: 0.2
    }
  }
}
layer {
  name: "inception_3b/relu_pool_proj"
  type: "ReLU"
  bottom: "inception_3b/pool_proj"
  top: "inception_3b/pool_proj"
}
layer {
  name: "inception_3b/output"
  type: "Concat"
  bottom: "inception_3b/1x1"
  bottom: "inception_3b/3x3"
  bottom: "inception_3b/5x5"
  bottom: "inception_3b/pool_proj"
  top: "inception_3b/output"
}
layer {
  name: "pool3/3x3_s2"
  type: "Pooling"
  bottom: "inception_3b/output"
  top: "pool3/3x3_s2"
  pooling_param {
    pool: MAX
    kernel_size: 3
    stride: 2
  }
}
layer {
  name: "inception_4a/1x1"
  type: "Convolution"
  bottom: "pool3/3x3_s2"
  top: "inception_4a/1x1"
  param {
    lr_mult: 1
    decay_mult: 1
  }
  param {
    lr_mult: 2
    decay_mult: 0
  }
  convolution_param {
    num_output: 192
    kernel_size: 1
    weight_filler {
      type: "xavier"
      std: 0.03
    }
    bias_filler {
      type: "constant"
      value: 0.2
    }
  }
}
layer {
  name: "inception_4a/relu_1x1"
  type: "ReLU"
  bottom: "inception_4a/1x1"
  top: "inception_4a/1x1"
}
layer {
  name: "inception_4a/3x3_reduce"
  type: "Convolution"
  bottom: "pool3/3x3_s2"
  top: "inception_4a/3x3_reduce"
  param {
    lr_mult: 1
    decay_mult: 1
  }
  param {
    lr_mult: 2
    decay_mult: 0
  }
  convolution_param {
    num_output: 96
    kernel_size: 1
    weight_filler {
      type: "xavier"
      std: 0.09
    }
    bias_filler {
      type: "constant"
      value: 0.2
    }
  }
}
layer {
  name: "inception_4a/relu_3x3_reduce"
  type: "ReLU"
  bottom: "inception_4a/3x3_reduce"
  top: "inception_4a/3x3_reduce"
}
layer {
  name: "inception_4a/3x3"
  type: "Convolution"
  bottom: "inception_4a/3x3_reduce"
  top: "inception_4a/3x3"
  param {
    lr_mult: 1
    decay_mult: 1
  }
  param {
    lr_mult: 2
    decay_mult: 0
  }
  convolution_param {
    num_output: 208
    pad: 1
    kernel_size: 3
    weight_filler {
      type: "xavier"
      std: 0.03
    }
    bias_filler {
      type: "constant"
      value: 0.2
    }
  }
}
layer {
  name: "inception_4a/relu_3x3"
  type: "ReLU"
  bottom: "inception_4a/3x3"
  top: "inception_4a/3x3"
}
layer {
  name: "inception_4a/5x5_reduce"
  type: "Convolution"
  bottom: "pool3/3x3_s2"
  top: "inception_4a/5x5_reduce"
  param {
    lr_mult: 1
    decay_mult: 1
  }
  param {
    lr_mult: 2
    decay_mult: 0
  }
  convolution_param {
    num_output: 16
    kernel_size: 1
    weight_filler {
      type: "xavier"
      std: 0.2
    }
    bias_filler {
      type: "constant"
      value: 0.2
    }
  }
}
layer {
  name: "inception_4a/relu_5x5_reduce"
  type: "ReLU"
  bottom: "inception_4a/5x5_reduce"
  top: "inception_4a/5x5_reduce"
}
layer {
  name: "inception_4a/5x5"
  type: "Convolution"
  bottom: "inception_4a/5x5_reduce"
  top: "inception_4a/5x5"
  param {
    lr_mult: 1
    decay_mult: 1
  }
  param {
    lr_mult: 2
    decay_mult: 0
  }
  convolution_param {
    num_output: 48
    pad: 2
    kernel_size: 5
    weight_filler {
      type: "xavier"
      std: 0.03
    }
    bias_filler {
      type: "constant"
      value: 0.2
    }
  }
}
layer {
  name: "inception_4a/relu_5x5"
  type: "ReLU"
  bottom: "inception_4a/5x5"
  top: "inception_4a/5x5"
}
layer {
  name: "inception_4a/pool"
  type: "Pooling"
  bottom: "pool3/3x3_s2"
  top: "inception_4a/pool"
  pooling_param {
    pool: MAX
    kernel_size: 3
    stride: 1
    pad: 1
  }
}
layer {
  name: "inception_4a/pool_proj"
  type: "Convolution"
  bottom: "inception_4a/pool"
  top: "inception_4a/pool_proj"
  param {
    lr_mult: 1
    decay_mult: 1
  }
  param {
    lr_mult: 2
    decay_mult: 0
  }
  convolution_param {
    num_output: 64
    kernel_size: 1
    weight_filler {
      type: "xavier"
      std: 0.1
    }
    bias_filler {
      type: "constant"
      value: 0.2
    }
  }
}
layer {
  name: "inception_4a/relu_pool_proj"
  type: "ReLU"
  bottom: "inception_4a/pool_proj"
  top: "inception_4a/pool_proj"
}
layer {
  name: "inception_4a/output"
  type: "Concat"
  bottom: "inception_4a/1x1"
  bottom: "inception_4a/3x3"
  bottom: "inception_4a/5x5"
  bottom: "inception_4a/pool_proj"
  top: "inception_4a/output"
}
layer {
  name: "inception_4b/1x1"
  type: "Convolution"
  bottom: "inception_4a/output"
  top: "inception_4b/1x1"
  param {
    lr_mult: 1
    decay_mult: 1
  }
  param {
    lr_mult: 2
    decay_mult: 0
  }
  convolution_param {
    num_output: 160
    kernel_size: 1
    weight_filler {
      type: "xavier"
      std: 0.03
    }
    bias_filler {
      type: "constant"
      value: 0.2
    }
  }
}
layer {
  name: "inception_4b/relu_1x1"
  type: "ReLU"
  bottom: "inception_4b/1x1"
  top: "inception_4b/1x1"
}
layer {
  name: "inception_4b/3x3_reduce"
  type: "Convolution"
  bottom: "inception_4a/output"
  top: "inception_4b/3x3_reduce"
  param {
    lr_mult: 1
    decay_mult: 1
  }
  param {
    lr_mult: 2
    decay_mult: 0
  }
  convolution_param {
    num_output: 112
    kernel_size: 1
    weight_filler {
      type: "xavier"
      std: 0.09
    }
    bias_filler {
      type: "constant"
      value: 0.2
    }
  }
}
layer {
  name: "inception_4b/relu_3x3_reduce"
  type: "ReLU"
  bottom: "inception_4b/3x3_reduce"
  top: "inception_4b/3x3_reduce"
}
layer {
  name: "inception_4b/3x3"
  type: "Convolution"
  bottom: "inception_4b/3x3_reduce"
  top: "inception_4b/3x3"
  param {
    lr_mult: 1
    decay_mult: 1
  }
  param {
    lr_mult: 2
    decay_mult: 0
  }
  convolution_param {
    num_output: 224
    pad: 1
    kernel_size: 3
    weight_filler {
      type: "xavier"
      std: 0.03
    }
    bias_filler {
      type: "constant"
      value: 0.2
    }
  }
}
layer {
  name: "inception_4b/relu_3x3"
  type: "ReLU"
  bottom: "inception_4b/3x3"
  top: "inception_4b/3x3"
}
layer {
  name: "inception_4b/5x5_reduce"
  type: "Convolution"
  bottom: "inception_4a/output"
  top: "inception_4b/5x5_reduce"
  param {
    lr_mult: 1
    decay_mult: 1
  }
  param {
    lr_mult: 2
    decay_mult: 0
  }
  convolution_param {
    num_output: 24
    kernel_size: 1
    weight_filler {
      type: "xavier"
      std: 0.2
    }
    bias_filler {
      type: "constant"
      value: 0.2
    }
  }
}
layer {
  name: "inception_4b/relu_5x5_reduce"
  type: "ReLU"
  bottom: "inception_4b/5x5_reduce"
  top: "inception_4b/5x5_reduce"
}
layer {
  name: "inception_4b/5x5"
  type: "Convolution"
  bottom: "inception_4b/5x5_reduce"
  top: "inception_4b/5x5"
  param {
    lr_mult: 1
    decay_mult: 1
  }
  param {
    lr_mult: 2
    decay_mult: 0
  }
  convolution_param {
    num_output: 64
    pad: 2
    kernel_size: 5
    weight_filler {
      type: "xavier"
      std: 0.03
    }
    bias_filler {
      type: "constant"
      value: 0.2
    }
  }
}
layer {
  name: "inception_4b/relu_5x5"
  type: "ReLU"
  bottom: "inception_4b/5x5"
  top: "inception_4b/5x5"
}
layer {
  name: "inception_4b/pool"
  type: "Pooling"
  bottom: "inception_4a/output"
  top: "inception_4b/pool"
  pooling_param {
    pool: MAX
    kernel_size: 3
    stride: 1
    pad: 1
  }
}
layer {
  name: "inception_4b/pool_proj"
  type: "Convolution"
  bottom: "inception_4b/pool"
  top: "inception_4b/pool_proj"
  param {
    lr_mult: 1
    decay_mult: 1
  }
  param {
    lr_mult: 2
    decay_mult: 0
  }
  convolution_param {
    num_output: 64
    kernel_size: 1
    weight_filler {
      type: "xavier"
      std: 0.1
    }
    bias_filler {
      type: "constant"
      value: 0.2
    }
  }
}
layer {
  name: "inception_4b/relu_pool_proj"
  type: "ReLU"
  bottom: "inception_4b/pool_proj"
  top: "inception_4b/pool_proj"
}
layer {
  name: "inception_4b/output"
  type: "Concat"
  bottom: "inception_4b/1x1"
  bottom: "inception_4b/3x3"
  bottom: "inception_4b/5x5"
  bottom: "inception_4b/pool_proj"
  top: "inception_4b/output"
}
layer {
  name: "inception_4c/1x1"
  type: "Convolution"
  bottom: "inception_4b/output"
  top: "inception_4c/1x1"
  param {
    lr_mult: 1
    decay_mult: 1
  }
  param {
    lr_mult: 2
    decay_mult: 0
  }
  convolution_param {
    num_output: 128
    kernel_size: 1
    weight_filler {
      type: "xavier"
      std: 0.03
    }
    bias_filler {
      type: "constant"
      value: 0.2
    }
  }
}
layer {
  name: "inception_4c/relu_1x1"
  type: "ReLU"
  bottom: "inception_4c/1x1"
  top: "inception_4c/1x1"
}
layer {
  name: "inception_4c/3x3_reduce"
  type: "Convolution"
  bottom: "inception_4b/output"
  top: "inception_4c/3x3_reduce"
  param {
    lr_mult: 1
    decay_mult: 1
  }
  param {
    lr_mult: 2
    decay_mult: 0
  }
  convolution_param {
    num_output: 128
    kernel_size: 1
    weight_filler {
      type: "xavier"
      std: 0.09
    }
    bias_filler {
      type: "constant"
      value: 0.2
    }
  }
}
layer {
  name: "inception_4c/relu_3x3_reduce"
  type: "ReLU"
  bottom: "inception_4c/3x3_reduce"
  top: "inception_4c/3x3_reduce"
}
layer {
  name: "inception_4c/3x3"
  type: "Convolution"
  bottom: "inception_4c/3x3_reduce"
  top: "inception_4c/3x3"
  param {
    lr_mult: 1
    decay_mult: 1
  }
  param {
    lr_mult: 2
    decay_mult: 0
  }
  convolution_param {
    num_output: 256
    pad: 1
    kernel_size: 3
    weight_filler {
      type: "xavier"
      std: 0.03
    }
    bias_filler {
      type: "constant"
      value: 0.2
    }
  }
}
layer {
  name: "inception_4c/relu_3x3"
  type: "ReLU"
  bottom: "inception_4c/3x3"
  top: "inception_4c/3x3"
}
layer {
  name: "inception_4c/5x5_reduce"
  type: "Convolution"
  bottom: "inception_4b/output"
  top: "inception_4c/5x5_reduce"
  param {
    lr_mult: 1
    decay_mult: 1
  }
  param {
    lr_mult: 2
    decay_mult: 0
  }
  convolution_param {
    num_output: 24
    kernel_size: 1
    weight_filler {
      type: "xavier"
      std: 0.2
    }
    bias_filler {
      type: "constant"
      value: 0.2
    }
  }
}
layer {
  name: "inception_4c/relu_5x5_reduce"
  type: "ReLU"
  bottom: "inception_4c/5x5_reduce"
  top: "inception_4c/5x5_reduce"
}
layer {
  name: "inception_4c/5x5"
  type: "Convolution"
  bottom: "inception_4c/5x5_reduce"
  top: "inception_4c/5x5"
  param {
    lr_mult: 1
    decay_mult: 1
  }
  param {
    lr_mult: 2
    decay_mult: 0
  }
  convolution_param {
    num_output: 64
    pad: 2
    kernel_size: 5
    weight_filler {
      type: "xavier"
      std: 0.03
    }
    bias_filler {
      type: "constant"
      value: 0.2
    }
  }
}
layer {
  name: "inception_4c/relu_5x5"
  type: "ReLU"
  bottom: "inception_4c/5x5"
  top: "inception_4c/5x5"
}
layer {
  name: "inception_4c/pool"
  type: "Pooling"
  bottom: "inception_4b/output"
  top: "inception_4c/pool"
  pooling_param {
    pool: MAX
    kernel_size: 3
    stride: 1
    pad: 1
  }
}
layer {
  name: "inception_4c/pool_proj"
  type: "Convolution"
  bottom: "inception_4c/pool"
  top: "inception_4c/pool_proj"
  param {
    lr_mult: 1
    decay_mult: 1
  }
  param {
    lr_mult: 2
    decay_mult: 0
  }
  convolution_param {
    num_output: 64
    kernel_size: 1
    weight_filler {
      type: "xavier"
      std: 0.1
    }
    bias_filler {
      type: "constant"
      value: 0.2
    }
  }
}
layer {
  name: "inception_4c/relu_pool_proj"
  type: "ReLU"
  bottom: "inception_4c/pool_proj"
  top: "inception_4c/pool_proj"
}
layer {
  name: "inception_4c/output"
  type: "Concat"
  bottom: "inception_4c/1x1"
  bottom: "inception_4c/3x3"
  bottom: "inception_4c/5x5"
  bottom: "inception_4c/pool_proj"
  top: "inception_4c/output"
}
layer {
  name: "inception_4d/1x1"
  type: "Convolution"
  bottom: "inception_4c/output"
  top: "inception_4d/1x1"
  param {
    lr_mult: 1
    decay_mult: 1
  }
  param {
    lr_mult: 2
    decay_mult: 0
  }
  convolution_param {
    num_output: 112
    kernel_size: 1
    weight_filler {
      type: "xavier"
      std: 0.03
    }
    bias_filler {
      type: "constant"
      value: 0.2
    }
  }
}
layer {
  name: "inception_4d/relu_1x1"
  type: "ReLU"
  bottom: "inception_4d/1x1"
  top: "inception_4d/1x1"
}
layer {
  name: "inception_4d/3x3_reduce"
  type: "Convolution"
  bottom: "inception_4c/output"
  top: "inception_4d/3x3_reduce"
  param {
    lr_mult: 1
    decay_mult: 1
  }
  param {
    lr_mult: 2
    decay_mult: 0
  }
  convolution_param {
    num_output: 144
    kernel_size: 1
    weight_filler {
      type: "xavier"
      std: 0.09
    }
    bias_filler {
      type: "constant"
      value: 0.2
    }
  }
}
layer {
  name: "inception_4d/relu_3x3_reduce"
  type: "ReLU"
  bottom: "inception_4d/3x3_reduce"
  top: "inception_4d/3x3_reduce"
}
layer {
  name: "inception_4d/3x3"
  type: "Convolution"
  bottom: "inception_4d/3x3_reduce"
  top: "inception_4d/3x3"
  param {
    lr_mult: 1
    decay_mult: 1
  }
  param {
    lr_mult: 2
    decay_mult: 0
  }
  convolution_param {
    num_output: 288
    pad: 1
    kernel_size: 3
    weight_filler {
      type: "xavier"
      std: 0.03
    }
    bias_filler {
      type: "constant"
      value: 0.2
    }
  }
}
layer {
  name: "inception_4d/relu_3x3"
  type: "ReLU"
  bottom: "inception_4d/3x3"
  top: "inception_4d/3x3"
}
layer {
  name: "inception_4d/5x5_reduce"
  type: "Convolution"
  bottom: "inception_4c/output"
  top: "inception_4d/5x5_reduce"
  param {
    lr_mult: 1
    decay_mult: 1
  }
  param {
    lr_mult: 2
    decay_mult: 0
  }
  convolution_param {
    num_output: 32
    kernel_size: 1
    weight_filler {
      type: "xavier"
      std: 0.2
    }
    bias_filler {
      type: "constant"
      value: 0.2
    }
  }
}
layer {
  name: "inception_4d/relu_5x5_reduce"
  type: "ReLU"
  bottom: "inception_4d/5x5_reduce"
  top: "inception_4d/5x5_reduce"
}
layer {
  name: "inception_4d/5x5"
  type: "Convolution"
  bottom: "inception_4d/5x5_reduce"
  top: "inception_4d/5x5"
  param {
    lr_mult: 1
    decay_mult: 1
  }
  param {
    lr_mult: 2
    decay_mult: 0
  }
  convolution_param {
    num_output: 64
    pad: 2
    kernel_size: 5
    weight_filler {
      type: "xavier"
      std: 0.03
    }
    bias_filler {
      type: "constant"
      value: 0.2
    }
  }
}
layer {
  name: "inception_4d/relu_5x5"
  type: "ReLU"
  bottom: "inception_4d/5x5"
  top: "inception_4d/5x5"
}
layer {
  name: "inception_4d/pool"
  type: "Pooling"
  bottom: "inception_4c/output"
  top: "inception_4d/pool"
  pooling_param {
    pool: MAX
    kernel_size: 3
    stride: 1
    pad: 1
  }
}
layer {
  name: "inception_4d/pool_proj"
  type: "Convolution"
  bottom: "inception_4d/pool"
  top: "inception_4d/pool_proj"
  param {
    lr_mult: 1
    decay_mult: 1
  }
  param {
    lr_mult: 2
    decay_mult: 0
  }
  convolution_param {
    num_output: 64
    kernel_size: 1
    weight_filler {
      type: "xavier"
      std: 0.1
    }
    bias_filler {
      type: "constant"
      value: 0.2
    }
  }
}
layer {
  name: "inception_4d/relu_pool_proj"
  type: "ReLU"
  bottom: "inception_4d/pool_proj"
  top: "inception_4d/pool_proj"
}
layer {
  name: "inception_4d/output"
  type: "Concat"
  bottom: "inception_4d/1x1"
  bottom: "inception_4d/3x3"
  bottom: "inception_4d/5x5"
  bottom: "inception_4d/pool_proj"
  top: "inception_4d/output"
}
layer {
  name: "inception_4e/1x1"
  type: "Convolution"
  bottom: "inception_4d/output"
  top: "inception_4e/1x1"
  param {
    lr_mult: 1
    decay_mult: 1
  }
  param {
    lr_mult: 2
    decay_mult: 0
  }
  convolution_param {
    num_output: 256
    kernel_size: 1
    weight_filler {
      type: "xavier"
      std: 0.03
    }
    bias_filler {
      type: "constant"
      value: 0.2
    }
  }
}
layer {
  name: "inception_4e/relu_1x1"
  type: "ReLU"
  bottom: "inception_4e/1x1"
  top: "inception_4e/1x1"
}
layer {
  name: "inception_4e/3x3_reduce"
  type: "Convolution"
  bottom: "inception_4d/output"
  top: "inception_4e/3x3_reduce"
  param {
    lr_mult: 1
    decay_mult: 1
  }
  param {
    lr_mult: 2
    decay_mult: 0
  }
  convolution_param {
    num_output: 160
    kernel_size: 1
    weight_filler {
      type: "xavier"
      std: 0.09
    }
    bias_filler {
      type: "constant"
      value: 0.2
    }
  }
}
layer {
  name: "inception_4e/relu_3x3_reduce"
  type: "ReLU"
  bottom: "inception_4e/3x3_reduce"
  top: "inception_4e/3x3_reduce"
}
layer {
  name: "inception_4e/3x3"
  type: "Convolution"
  bottom: "inception_4e/3x3_reduce"
  top: "inception_4e/3x3"
  param {
    lr_mult: 1
    decay_mult: 1
  }
  param {
    lr_mult: 2
    decay_mult: 0
  }
  convolution_param {
    num_output: 320
    pad: 1
    kernel_size: 3
    weight_filler {
      type: "xavier"
      std: 0.03
    }
    bias_filler {
      type: "constant"
      value: 0.2
    }
  }
}
layer {
  name: "inception_4e/relu_3x3"
  type: "ReLU"
  bottom: "inception_4e/3x3"
  top: "inception_4e/3x3"
}
layer {
  name: "inception_4e/5x5_reduce"
  type: "Convolution"
  bottom: "inception_4d/output"
  top: "inception_4e/5x5_reduce"
  param {
    lr_mult: 1
    decay_mult: 1
  }
  param {
    lr_mult: 2
    decay_mult: 0
  }
  convolution_param {
    num_output: 32
    kernel_size: 1
    weight_filler {
      type: "xavier"
      std: 0.2
    }
    bias_filler {
      type: "constant"
      value: 0.2
    }
  }
}
layer {
  name: "inception_4e/relu_5x5_reduce"
  type: "ReLU"
  bottom: "inception_4e/5x5_reduce"
  top: "inception_4e/5x5_reduce"
}
layer {
  name: "inception_4e/5x5"
  type: "Convolution"
  bottom: "inception_4e/5x5_reduce"
  top: "inception_4e/5x5"
  param {
    lr_mult: 1
    decay_mult: 1
  }
  param {
    lr_mult: 2
    decay_mult: 0
  }
  convolution_param {
    num_output: 128
    pad: 2
    kernel_size: 5
    weight_filler {
      type: "xavier"
      std: 0.03
    }
    bias_filler {
      type: "constant"
      value: 0.2
    }
  }
}
layer {
  name: "inception_4e/relu_5x5"
  type: "ReLU"
  bottom: "inception_4e/5x5"
  top: "inception_4e/5x5"
}
layer {
  name: "inception_4e/pool"
  type: "Pooling"
  bottom: "inception_4d/output"
  top: "inception_4e/pool"
  pooling_param {
    pool: MAX
    kernel_size: 3
    stride: 1
    pad: 1
  }
}
layer {
  name: "inception_4e/pool_proj"
  type: "Convolution"
  bottom: "inception_4e/pool"
  top: "inception_4e/pool_proj"
  param {
    lr_mult: 1
    decay_mult: 1
  }
  param {
    lr_mult: 2
    decay_mult: 0
  }
  convolution_param {
    num_output: 128
    kernel_size: 1
    weight_filler {
      type: "xavier"
      std: 0.1
    }
    bias_filler {
      type: "constant"
      value: 0.2
    }
  }
}
layer {
  name: "inception_4e/relu_pool_proj"
  type: "ReLU"
  bottom: "inception_4e/pool_proj"
  top: "inception_4e/pool_proj"
}
layer {
  name: "inception_4e/output"
  type: "Concat"
  bottom: "inception_4e/1x1"
  bottom: "inception_4e/3x3"
  bottom: "inception_4e/5x5"
  bottom: "inception_4e/pool_proj"
  top: "inception_4e/output"
}
layer {
  name: "pool4/3x3_s2"
  type: "Pooling"
  bottom: "inception_4e/output"
  top: "pool4/3x3_s2"
  pooling_param {
    pool: MAX
    kernel_size: 3
    stride: 2
  }
}
layer {
  name: "inception_5a/1x1"
  type: "Convolution"
  bottom: "pool4/3x3_s2"
  top: "inception_5a/1x1"
  param {
    lr_mult: 1
    decay_mult: 1
  }
  param {
    lr_mult: 2
    decay_mult: 0
  }
  convolution_param {
    num_output: 256
    kernel_size: 1
    weight_filler {
      type: "xavier"
      std: 0.03
    }
    bias_filler {
      type: "constant"
      value: 0.2
    }
  }
}
layer {
  name: "inception_5a/relu_1x1"
  type: "ReLU"
  bottom: "inception_5a/1x1"
  top: "inception_5a/1x1"
}
layer {
  name: "inception_5a/3x3_reduce"
  type: "Convolution"
  bottom: "pool4/3x3_s2"
  top: "inception_5a/3x3_reduce"
  param {
    lr_mult: 1
    decay_mult: 1
  }
  param {
    lr_mult: 2
    decay_mult: 0
  }
  convolution_param {
    num_output: 160
    kernel_size: 1
    weight_filler {
      type: "xavier"
      std: 0.09
    }
    bias_filler {
      type: "constant"
      value: 0.2
    }
  }
}
layer {
  name: "inception_5a/relu_3x3_reduce"
  type: "ReLU"
  bottom: "inception_5a/3x3_reduce"
  top: "inception_5a/3x3_reduce"
}
layer {
  name: "inception_5a/3x3"
  type: "Convolution"
  bottom: "inception_5a/3x3_reduce"
  top: "inception_5a/3x3"
  param {
    lr_mult: 1
    decay_mult: 1
  }
  param {
    lr_mult: 2
    decay_mult: 0
  }
  convolution_param {
    num_output: 320
    pad: 1
    kernel_size: 3
    weight_filler {
      type: "xavier"
      std: 0.03
    }
    bias_filler {
      type: "constant"
      value: 0.2
    }
  }
}
layer {
  name: "inception_5a/relu_3x3"
  type: "ReLU"
  bottom: "inception_5a/3x3"
  top: "inception_5a/3x3"
}
layer {
  name: "inception_5a/5x5_reduce"
  type: "Convolution"
  bottom: "pool4/3x3_s2"
  top: "inception_5a/5x5_reduce"
  param {
    lr_mult: 1
    decay_mult: 1
  }
  param {
    lr_mult: 2
    decay_mult: 0
  }
  convolution_param {
    num_output: 32
    kernel_size: 1
    weight_filler {
      type: "xavier"
      std: 0.2
    }
    bias_filler {
      type: "constant"
      value: 0.2
    }
I0713 13:41:00.804708 27591 layer_factory.hpp:77] Creating layer data
I0713 13:41:00.804735 27591 net.cpp:91] Creating Layer data
I0713 13:41:00.804746 27591 net.cpp:399] data -> data
I0713 13:41:01.413738 27591 net.cpp:141] Setting up data
I0713 13:41:01.413826 27591 net.cpp:148] Top shape: 10 3 224 224 (1505280)
I0713 13:41:01.413833 27591 net.cpp:156] Memory required for data: 6021120
I0713 13:41:01.413861 27591 layer_factory.hpp:77] Creating layer conv1/7x7_s2
I0713 13:41:01.413909 27591 net.cpp:91] Creating Layer conv1/7x7_s2
I0713 13:41:01.413919 27591 net.cpp:425] conv1/7x7_s2 <- data
I0713 13:41:01.413936 27591 net.cpp:399] conv1/7x7_s2 -> conv1/7x7_s2
I0713 13:41:01.697576 27591 net.cpp:141] Setting up conv1/7x7_s2
I0713 13:41:01.697628 27591 net.cpp:148] Top shape: 10 64 112 112 (8028160)
I0713 13:41:01.697635 27591 net.cpp:156] Memory required for data: 38133760
I0713 13:41:01.697671 27591 layer_factory.hpp:77] Creating layer conv1/relu_7x7
I0713 13:41:01.697690 27591 net.cpp:91] Creating Layer conv1/relu_7x7
I0713 13:41:01.697696 27591 net.cpp:425] conv1/relu_7x7 <- conv1/7x7_s2
I0713 13:41:01.697705 27591 net.cpp:386] conv1/relu_7x7 -> conv1/7x7_s2 (in-place)
I0713 13:41:01.698492 27591 net.cpp:141] Setting up conv1/relu_7x7
I0713 13:41:01.698506 27591 net.cpp:148] Top shape: 10 64 112 112 (8028160)
I0713 13:41:01.698511 27591 net.cpp:156] Memory required for data: 70246400
I0713 13:41:01.698518 27591 layer_factory.hpp:77] Creating layer pool1/3x3_s2
I0713 13:41:01.698529 27591 net.cpp:91] Creating Layer pool1/3x3_s2
I0713 13:41:01.698535 27591 net.cpp:425] pool1/3x3_s2 <- conv1/7x7_s2
I0713 13:41:01.698546 27591 net.cpp:399] pool1/3x3_s2 -> pool1/3x3_s2
I0713 13:41:01.698637 27591 net.cpp:141] Setting up pool1/3x3_s2
I0713 13:41:01.698649 27591 net.cpp:148] Top shape: 10 64 56 56 (2007040)
I0713 13:41:01.698653 27591 net.cpp:156] Memory required for data: 78274560
I0713 13:41:01.698658 27591 layer_factory.hpp:77] Creating layer pool1/norm1
I0713 13:41:01.698680 27591 net.cpp:91] Creating Layer pool1/norm1
I0713 13:41:01.698699 27591 net.cpp:425] pool1/norm1 <- pool1/3x3_s2
I0713 13:41:01.698711 27591 net.cpp:399] pool1/norm1 -> pool1/norm1
I0713 13:41:01.699542 27591 net.cpp:141] Setting up pool1/norm1
I0713 13:41:01.699558 27591 net.cpp:148] Top shape: 10 64 56 56 (2007040)
I0713 13:41:01.699563 27591 net.cpp:156] Memory required for data: 86302720
I0713 13:41:01.699568 27591 layer_factory.hpp:77] Creating layer conv2/3x3_reduce
I0713 13:41:01.699590 27591 net.cpp:91] Creating Layer conv2/3x3_reduce
I0713 13:41:01.699596 27591 net.cpp:425] conv2/3x3_reduce <- pool1/norm1
I0713 13:41:01.699609 27591 net.cpp:399] conv2/3x3_reduce -> conv2/3x3_reduce
I0713 13:41:01.702496 27591 net.cpp:141] Setting up conv2/3x3_reduce
I0713 13:41:01.702517 27591 net.cpp:148] Top shape: 10 64 56 56 (2007040)
I0713 13:41:01.702523 27591 net.cpp:156] Memory required for data: 94330880
I0713 13:41:01.702535 27591 layer_factory.hpp:77] Creating layer conv2/relu_3x3_reduce
I0713 13:41:01.702549 27591 net.cpp:91] Creating Layer conv2/relu_3x3_reduce
I0713 13:41:01.702554 27591 net.cpp:425] conv2/relu_3x3_reduce <- conv2/3x3_reduce
I0713 13:41:01.702563 27591 net.cpp:386] conv2/relu_3x3_reduce -> conv2/3x3_reduce (in-place)
I0713 13:41:01.703351 27591 net.cpp:141] Setting up conv2/relu_3x3_reduce
I0713 13:41:01.703368 27591 net.cpp:148] Top shape: 10 64 56 56 (2007040)
I0713 13:41:01.703374 27591 net.cpp:156] Memory required for data: 102359040
I0713 13:41:01.703379 27591 layer_factory.hpp:77] Creating layer conv2/3x3
I0713 13:41:01.703400 27591 net.cpp:91] Creating Layer conv2/3x3
I0713 13:41:01.703407 27591 net.cpp:425] conv2/3x3 <- conv2/3x3_reduce
I0713 13:41:01.703415 27591 net.cpp:399] conv2/3x3 -> conv2/3x3
I0713 13:41:01.708395 27591 net.cpp:141] Setting up conv2/3x3
I0713 13:41:01.708415 27591 net.cpp:148] Top shape: 10 192 56 56 (6021120)
I0713 13:41:01.708421 27591 net.cpp:156] Memory required for data: 126443520
I0713 13:41:01.708434 27591 layer_factory.hpp:77] Creating layer conv2/relu_3x3
I0713 13:41:01.708448 27591 net.cpp:91] Creating Layer conv2/relu_3x3
I0713 13:41:01.708454 27591 net.cpp:425] conv2/relu_3x3 <- conv2/3x3
I0713 13:41:01.708461 27591 net.cpp:386] conv2/relu_3x3 -> conv2/3x3 (in-place)
I0713 13:41:01.708731 27591 net.cpp:141] Setting up conv2/relu_3x3
I0713 13:41:01.708745 27591 net.cpp:148] Top shape: 10 192 56 56 (6021120)
I0713 13:41:01.708750 27591 net.cpp:156] Memory required for data: 150528000
I0713 13:41:01.708755 27591 layer_factory.hpp:77] Creating layer conv2/norm2
I0713 13:41:01.708768 27591 net.cpp:91] Creating Layer conv2/norm2
I0713 13:41:01.708775 27591 net.cpp:425] conv2/norm2 <- conv2/3x3
I0713 13:41:01.708781 27591 net.cpp:399] conv2/norm2 -> conv2/norm2
I0713 13:41:01.709616 27591 net.cpp:141] Setting up conv2/norm2
I0713 13:41:01.709635 27591 net.cpp:148] Top shape: 10 192 56 56 (6021120)
I0713 13:41:01.709640 27591 net.cpp:156] Memory required for data: 174612480
I0713 13:41:01.709645 27591 layer_factory.hpp:77] Creating layer pool2/3x3_s2
I0713 13:41:01.709657 27591 net.cpp:91] Creating Layer pool2/3x3_s2
I0713 13:41:01.709662 27591 net.cpp:425] pool2/3x3_s2 <- conv2/norm2
I0713 13:41:01.709671 27591 net.cpp:399] pool2/3x3_s2 -> pool2/3x3_s2
I0713 13:41:01.709730 27591 net.cpp:141] Setting up pool2/3x3_s2
I0713 13:41:01.709740 27591 net.cpp:148] Top shape: 10 192 28 28 (1505280)
I0713 13:41:01.709744 27591 net.cpp:156] Memory required for data: 180633600
I0713 13:41:01.709749 27591 layer_factory.hpp:77] Creating layer pool2/3x3_s2_pool2/3x3_s2_0_split
I0713 13:41:01.709765 27591 net.cpp:91] Creating Layer pool2/3x3_s2_pool2/3x3_s2_0_split
I0713 13:41:01.709770 27591 net.cpp:425] pool2/3x3_s2_pool2/3x3_s2_0_split <- pool2/3x3_s2
I0713 13:41:01.709781 27591 net.cpp:399] pool2/3x3_s2_pool2/3x3_s2_0_split -> pool2/3x3_s2_pool2/3x3_s2_0_split_0
I0713 13:41:01.709792 27591 net.cpp:399] pool2/3x3_s2_pool2/3x3_s2_0_split -> pool2/3x3_s2_pool2/3x3_s2_0_split_1
I0713 13:41:01.709801 27591 net.cpp:399] pool2/3x3_s2_pool2/3x3_s2_0_split -> pool2/3x3_s2_pool2/3x3_s2_0_split_2
I0713 13:41:01.709810 27591 net.cpp:399] pool2/3x3_s2_pool2/3x3_s2_0_split -> pool2/3x3_s2_pool2/3x3_s2_0_split_3
I0713 13:41:01.709893 27591 net.cpp:141] Setting up pool2/3x3_s2_pool2/3x3_s2_0_split
I0713 13:41:01.709903 27591 net.cpp:148] Top shape: 10 192 28 28 (1505280)
I0713 13:41:01.709909 27591 net.cpp:148] Top shape: 10 192 28 28 (1505280)
I0713 13:41:01.709914 27591 net.cpp:148] Top shape: 10 192 28 28 (1505280)
I0713 13:41:01.709920 27591 net.cpp:148] Top shape: 10 192 28 28 (1505280)
I0713 13:41:01.709924 27591 net.cpp:156] Memory required for data: 204718080
I0713 13:41:01.709928 27591 layer_factory.hpp:77] Creating layer inception_3a/1x1
I0713 13:41:01.709949 27591 net.cpp:91] Creating Layer inception_3a/1x1
I0713 13:41:01.709955 27591 net.cpp:425] inception_3a/1x1 <- pool2/3x3_s2_pool2/3x3_s2_0_split_0
I0713 13:41:01.709980 27591 net.cpp:399] inception_3a/1x1 -> inception_3a/1x1
I0713 13:41:01.714263 27591 net.cpp:141] Setting up inception_3a/1x1
I0713 13:41:01.714287 27591 net.cpp:148] Top shape: 10 64 28 28 (501760)
I0713 13:41:01.714293 27591 net.cpp:156] Memory required for data: 206725120
I0713 13:41:01.714305 27591 layer_factory.hpp:77] Creating layer inception_3a/relu_1x1
I0713 13:41:01.714319 27591 net.cpp:91] Creating Layer inception_3a/relu_1x1
I0713 13:41:01.714325 27591 net.cpp:425] inception_3a/relu_1x1 <- inception_3a/1x1
I0713 13:41:01.714334 27591 net.cpp:386] inception_3a/relu_1x1 -> inception_3a/1x1 (in-place)
I0713 13:41:01.714622 27591 net.cpp:141] Setting up inception_3a/relu_1x1
I0713 13:41:01.714634 27591 net.cpp:148] Top shape: 10 64 28 28 (501760)
I0713 13:41:01.714639 27591 net.cpp:156] Memory required for data: 208732160
I0713 13:41:01.714644 27591 layer_factory.hpp:77] Creating layer inception_3a/3x3_reduce
I0713 13:41:01.714663 27591 net.cpp:91] Creating Layer inception_3a/3x3_reduce
I0713 13:41:01.714668 27591 net.cpp:425] inception_3a/3x3_reduce <- pool2/3x3_s2_pool2/3x3_s2_0_split_1
I0713 13:41:01.714704 27591 net.cpp:399] inception_3a/3x3_reduce -> inception_3a/3x3_reduce
I0713 13:41:01.718333 27591 net.cpp:141] Setting up inception_3a/3x3_reduce
I0713 13:41:01.718353 27591 net.cpp:148] Top shape: 10 96 28 28 (752640)
I0713 13:41:01.718359 27591 net.cpp:156] Memory required for data: 211742720
I0713 13:41:01.718372 27591 layer_factory.hpp:77] Creating layer inception_3a/relu_3x3_reduce
I0713 13:41:01.718382 27591 net.cpp:91] Creating Layer inception_3a/relu_3x3_reduce
I0713 13:41:01.718387 27591 net.cpp:425] inception_3a/relu_3x3_reduce <- inception_3a/3x3_reduce
I0713 13:41:01.718400 27591 net.cpp:386] inception_3a/relu_3x3_reduce -> inception_3a/3x3_reduce (in-place)
I0713 13:41:01.718659 27591 net.cpp:141] Setting up inception_3a/relu_3x3_reduce
I0713 13:41:01.718674 27591 net.cpp:148] Top shape: 10 96 28 28 (752640)
I0713 13:41:01.718679 27591 net.cpp:156] Memory required for data: 214753280
I0713 13:41:01.718684 27591 layer_factory.hpp:77] Creating layer inception_3a/3x3
I0713 13:41:01.718714 27591 net.cpp:91] Creating Layer inception_3a/3x3
I0713 13:41:01.718721 27591 net.cpp:425] inception_3a/3x3 <- inception_3a/3x3_reduce
I0713 13:41:01.718734 27591 net.cpp:399] inception_3a/3x3 -> inception_3a/3x3
I0713 13:41:01.721923 27591 net.cpp:141] Setting up inception_3a/3x3
I0713 13:41:01.721945 27591 net.cpp:148] Top shape: 10 128 28 28 (1003520)
I0713 13:41:01.721949 27591 net.cpp:156] Memory required for data: 218767360
I0713 13:41:01.721959 27591 layer_factory.hpp:77] Creating layer inception_3a/relu_3x3
I0713 13:41:01.721974 27591 net.cpp:91] Creating Layer inception_3a/relu_3x3
I0713 13:41:01.721982 27591 net.cpp:425] inception_3a/relu_3x3 <- inception_3a/3x3
I0713 13:41:01.721988 27591 net.cpp:386] inception_3a/relu_3x3 -> inception_3a/3x3 (in-place)
I0713 13:41:01.722815 27591 net.cpp:141] Setting up inception_3a/relu_3x3
I0713 13:41:01.722833 27591 net.cpp:148] Top shape: 10 128 28 28 (1003520)
I0713 13:41:01.722838 27591 net.cpp:156] Memory required for data: 222781440
I0713 13:41:01.722843 27591 layer_factory.hpp:77] Creating layer inception_3a/5x5_reduce
I0713 13:41:01.722864 27591 net.cpp:91] Creating Layer inception_3a/5x5_reduce
I0713 13:41:01.722872 27591 net.cpp:425] inception_3a/5x5_reduce <- pool2/3x3_s2_pool2/3x3_s2_0_split_2
I0713 13:41:01.722882 27591 net.cpp:399] inception_3a/5x5_reduce -> inception_3a/5x5_reduce
I0713 13:41:01.725167 27591 net.cpp:141] Setting up inception_3a/5x5_reduce
I0713 13:41:01.725185 27591 net.cpp:148] Top shape: 10 16 28 28 (125440)
I0713 13:41:01.725191 27591 net.cpp:156] Memory required for data: 223283200
I0713 13:41:01.725200 27591 layer_factory.hpp:77] Creating layer inception_3a/relu_5x5_reduce
I0713 13:41:01.725213 27591 net.cpp:91] Creating Layer inception_3a/relu_5x5_reduce
I0713 13:41:01.725219 27591 net.cpp:425] inception_3a/relu_5x5_reduce <- inception_3a/5x5_reduce
I0713 13:41:01.725225 27591 net.cpp:386] inception_3a/relu_5x5_reduce -> inception_3a/5x5_reduce (in-place)
I0713 13:41:01.725489 27591 net.cpp:141] Setting up inception_3a/relu_5x5_reduce
I0713 13:41:01.725502 27591 net.cpp:148] Top shape: 10 16 28 28 (125440)
I0713 13:41:01.725507 27591 net.cpp:156] Memory required for data: 223784960
I0713 13:41:01.725512 27591 layer_factory.hpp:77] Creating layer inception_3a/5x5
I0713 13:41:01.725528 27591 net.cpp:91] Creating Layer inception_3a/5x5
I0713 13:41:01.725534 27591 net.cpp:425] inception_3a/5x5 <- inception_3a/5x5_reduce
I0713 13:41:01.725544 27591 net.cpp:399] inception_3a/5x5 -> inception_3a/5x5
I0713 13:41:01.729149 27591 net.cpp:141] Setting up inception_3a/5x5
I0713 13:41:01.729169 27591 net.cpp:148] Top shape: 10 32 28 28 (250880)
I0713 13:41:01.729176 27591 net.cpp:156] Memory required for data: 224788480
I0713 13:41:01.729185 27591 layer_factory.hpp:77] Creating layer inception_3a/relu_5x5
I0713 13:41:01.729210 27591 net.cpp:91] Creating Layer inception_3a/relu_5x5
I0713 13:41:01.729217 27591 net.cpp:425] inception_3a/relu_5x5 <- inception_3a/5x5
I0713 13:41:01.729224 27591 net.cpp:386] inception_3a/relu_5x5 -> inception_3a/5x5 (in-place)
I0713 13:41:01.729497 27591 net.cpp:141] Setting up inception_3a/relu_5x5
I0713 13:41:01.729511 27591 net.cpp:148] Top shape: 10 32 28 28 (250880)
I0713 13:41:01.729514 27591 net.cpp:156] Memory required for data: 225792000
I0713 13:41:01.729519 27591 layer_factory.hpp:77] Creating layer inception_3a/pool
I0713 13:41:01.729533 27591 net.cpp:91] Creating Layer inception_3a/pool
I0713 13:41:01.729538 27591 net.cpp:425] inception_3a/pool <- pool2/3x3_s2_pool2/3x3_s2_0_split_3
I0713 13:41:01.729550 27591 net.cpp:399] inception_3a/pool -> inception_3a/pool
I0713 13:41:01.729617 27591 net.cpp:141] Setting up inception_3a/pool
I0713 13:41:01.729627 27591 net.cpp:148] Top shape: 10 192 28 28 (1505280)
I0713 13:41:01.729631 27591 net.cpp:156] Memory required for data: 231813120
I0713 13:41:01.729636 27591 layer_factory.hpp:77] Creating layer inception_3a/pool_proj
I0713 13:41:01.729652 27591 net.cpp:91] Creating Layer inception_3a/pool_proj
I0713 13:41:01.729658 27591 net.cpp:425] inception_3a/pool_proj <- inception_3a/pool
I0713 13:41:01.729671 27591 net.cpp:399] inception_3a/pool_proj -> inception_3a/pool_proj
I0713 13:41:01.731966 27591 net.cpp:141] Setting up inception_3a/pool_proj
I0713 13:41:01.731986 27591 net.cpp:148] Top shape: 10 32 28 28 (250880)
I0713 13:41:01.731992 27591 net.cpp:156] Memory required for data: 232816640
I0713 13:41:01.732005 27591 layer_factory.hpp:77] Creating layer inception_3a/relu_pool_proj
I0713 13:41:01.732015 27591 net.cpp:91] Creating Layer inception_3a/relu_pool_proj
I0713 13:41:01.732020 27591 net.cpp:425] inception_3a/relu_pool_proj <- inception_3a/pool_proj
I0713 13:41:01.732033 27591 net.cpp:386] inception_3a/relu_pool_proj -> inception_3a/pool_proj (in-place)
I0713 13:41:01.732846 27591 net.cpp:141] Setting up inception_3a/relu_pool_proj
I0713 13:41:01.732862 27591 net.cpp:148] Top shape: 10 32 28 28 (250880)
I0713 13:41:01.732867 27591 net.cpp:156] Memory required for data: 233820160
I0713 13:41:01.732872 27591 layer_factory.hpp:77] Creating layer inception_3a/output
I0713 13:41:01.732893 27591 net.cpp:91] Creating Layer inception_3a/output
I0713 13:41:01.732900 27591 net.cpp:425] inception_3a/output <- inception_3a/1x1
I0713 13:41:01.732908 27591 net.cpp:425] inception_3a/output <- inception_3a/3x3
I0713 13:41:01.732913 27591 net.cpp:425] inception_3a/output <- inception_3a/5x5
I0713 13:41:01.732918 27591 net.cpp:425] inception_3a/output <- inception_3a/pool_proj
I0713 13:41:01.732925 27591 net.cpp:399] inception_3a/output -> inception_3a/output
I0713 13:41:01.732974 27591 net.cpp:141] Setting up inception_3a/output
I0713 13:41:01.732983 27591 net.cpp:148] Top shape: 10 256 28 28 (2007040)
I0713 13:41:01.732987 27591 net.cpp:156] Memory required for data: 241848320
I0713 13:41:01.732992 27591 layer_factory.hpp:77] Creating layer inception_3a/output_inception_3a/output_0_split
I0713 13:41:01.733000 27591 net.cpp:91] Creating Layer inception_3a/output_inception_3a/output_0_split
I0713 13:41:01.733006 27591 net.cpp:425] inception_3a/output_inception_3a/output_0_split <- inception_3a/output
I0713 13:41:01.733017 27591 net.cpp:399] inception_3a/output_inception_3a/output_0_split -> inception_3a/output_inception_3a/output_0_split_0
I0713 13:41:01.733027 27591 net.cpp:399] inception_3a/output_inception_3a/output_0_split -> inception_3a/output_inception_3a/output_0_split_1
I0713 13:41:01.733036 27591 net.cpp:399] inception_3a/output_inception_3a/output_0_split -> inception_3a/output_inception_3a/output_0_split_2
I0713 13:41:01.733044 27591 net.cpp:399] inception_3a/output_inception_3a/output_0_split -> inception_3a/output_inception_3a/output_0_split_3
I0713 13:41:01.733140 27591 net.cpp:141] Setting up inception_3a/output_inception_3a/output_0_split
I0713 13:41:01.733150 27591 net.cpp:148] Top shape: 10 256 28 28 (2007040)
I0713 13:41:01.733156 27591 net.cpp:148] Top shape: 10 256 28 28 (2007040)
I0713 13:41:01.733161 27591 net.cpp:148] Top shape: 10 256 28 28 (2007040)
I0713 13:41:01.733167 27591 net.cpp:148] Top shape: 10 256 28 28 (2007040)
I0713 13:41:01.733171 27591 net.cpp:156] Memory required for data: 273960960
I0713 13:41:01.733176 27591 layer_factory.hpp:77] Creating layer inception_3b/1x1
I0713 13:41:01.733196 27591 net.cpp:91] Creating Layer inception_3b/1x1
I0713 13:41:01.733202 27591 net.cpp:425] inception_3b/1x1 <- inception_3a/output_inception_3a/output_0_split_0
I0713 13:41:01.733211 27591 net.cpp:399] inception_3b/1x1 -> inception_3b/1x1
I0713 13:41:01.735790 27591 net.cpp:141] Setting up inception_3b/1x1
I0713 13:41:01.735810 27591 net.cpp:148] Top shape: 10 128 28 28 (1003520)
I0713 13:41:01.735816 27591 net.cpp:156] Memory required for data: 277975040
I0713 13:41:01.735826 27591 layer_factory.hpp:77] Creating layer inception_3b/relu_1x1
I0713 13:41:01.735838 27591 net.cpp:91] Creating Layer inception_3b/relu_1x1
I0713 13:41:01.735846 27591 net.cpp:425] inception_3b/relu_1x1 <- inception_3b/1x1
I0713 13:41:01.735853 27591 net.cpp:386] inception_3b/relu_1x1 -> inception_3b/1x1 (in-place)
I0713 13:41:01.736114 27591 net.cpp:141] Setting up inception_3b/relu_1x1
I0713 13:41:01.736126 27591 net.cpp:148] Top shape: 10 128 28 28 (1003520)
I0713 13:41:01.736131 27591 net.cpp:156] Memory required for data: 281989120
I0713 13:41:01.736142 27591 layer_factory.hpp:77] Creating layer inception_3b/3x3_reduce
I0713 13:41:01.736163 27591 net.cpp:91] Creating Layer inception_3b/3x3_reduce
I0713 13:41:01.736169 27591 net.cpp:425] inception_3b/3x3_reduce <- inception_3a/output_inception_3a/output_0_split_1
I0713 13:41:01.736178 27591 net.cpp:399] inception_3b/3x3_reduce -> inception_3b/3x3_reduce
I0713 13:41:01.738788 27591 net.cpp:141] Setting up inception_3b/3x3_reduce
I0713 13:41:01.738807 27591 net.cpp:148] Top shape: 10 128 28 28 (1003520)
I0713 13:41:01.738813 27591 net.cpp:156] Memory required for data: 286003200
I0713 13:41:01.738824 27591 layer_factory.hpp:77] Creating layer inception_3b/relu_3x3_reduce
I0713 13:41:01.738837 27591 net.cpp:91] Creating Layer inception_3b/relu_3x3_reduce
I0713 13:41:01.738842 27591 net.cpp:425] inception_3b/relu_3x3_reduce <- inception_3b/3x3_reduce
I0713 13:41:01.738850 27591 net.cpp:386] inception_3b/relu_3x3_reduce -> inception_3b/3x3_reduce (in-place)
I0713 13:41:01.739118 27591 net.cpp:141] Setting up inception_3b/relu_3x3_reduce
I0713 13:41:01.739130 27591 net.cpp:148] Top shape: 10 128 28 28 (1003520)
I0713 13:41:01.739135 27591 net.cpp:156] Memory required for data: 290017280
I0713 13:41:01.739140 27591 layer_factory.hpp:77] Creating layer inception_3b/3x3
I0713 13:41:01.739161 27591 net.cpp:91] Creating Layer inception_3b/3x3
I0713 13:41:01.739166 27591 net.cpp:425] inception_3b/3x3 <- inception_3b/3x3_reduce
I0713 13:41:01.739176 27591 net.cpp:399] inception_3b/3x3 -> inception_3b/3x3
I0713 13:41:01.744643 27591 net.cpp:141] Setting up inception_3b/3x3
I0713 13:41:01.744668 27591 net.cpp:148] Top shape: 10 192 28 28 (1505280)
I0713 13:41:01.744673 27591 net.cpp:156] Memory required for data: 296038400
I0713 13:41:01.744683 27591 layer_factory.hpp:77] Creating layer inception_3b/relu_3x3
I0713 13:41:01.744710 27591 net.cpp:91] Creating Layer inception_3b/relu_3x3
I0713 13:41:01.744717 27591 net.cpp:425] inception_3b/relu_3x3 <- inception_3b/3x3
I0713 13:41:01.744725 27591 net.cpp:386] inception_3b/relu_3x3 -> inception_3b/3x3 (in-place)
I0713 13:41:01.745529 27591 net.cpp:141] Setting up inception_3b/relu_3x3
I0713 13:41:01.745546 27591 net.cpp:148] Top shape: 10 192 28 28 (1505280)
I0713 13:41:01.745553 27591 net.cpp:156] Memory required for data: 302059520
I0713 13:41:01.745558 27591 layer_factory.hpp:77] Creating layer inception_3b/5x5_reduce
I0713 13:41:01.745579 27591 net.cpp:91] Creating Layer inception_3b/5x5_reduce
I0713 13:41:01.745585 27591 net.cpp:425] inception_3b/5x5_reduce <- inception_3a/output_inception_3a/output_0_split_2
I0713 13:41:01.745595 27591 net.cpp:399] inception_3b/5x5_reduce -> inception_3b/5x5_reduce
I0713 13:41:01.747962 27591 net.cpp:141] Setting up inception_3b/5x5_reduce
I0713 13:41:01.747982 27591 net.cpp:148] Top shape: 10 32 28 28 (250880)
I0713 13:41:01.747988 27591 net.cpp:156] Memory required for data: 303063040
I0713 13:41:01.747997 27591 layer_factory.hpp:77] Creating layer inception_3b/relu_5x5_reduce
I0713 13:41:01.748009 27591 net.cpp:91] Creating Layer inception_3b/relu_5x5_reduce
I0713 13:41:01.748015 27591 net.cpp:425] inception_3b/relu_5x5_reduce <- inception_3b/5x5_reduce
I0713 13:41:01.748023 27591 net.cpp:386] inception_3b/relu_5x5_reduce -> inception_3b/5x5_reduce (in-place)
I0713 13:41:01.748294 27591 net.cpp:141] Setting up inception_3b/relu_5x5_reduce
I0713 13:41:01.748307 27591 net.cpp:148] Top shape: 10 32 28 28 (250880)
I0713 13:41:01.748311 27591 net.cpp:156] Memory required for data: 304066560
I0713 13:41:01.748317 27591 layer_factory.hpp:77] Creating layer inception_3b/5x5
I0713 13:41:01.748333 27591 net.cpp:91] Creating Layer inception_3b/5x5
I0713 13:41:01.748339 27591 net.cpp:425] inception_3b/5x5 <- inception_3b/5x5_reduce
I0713 13:41:01.748348 27591 net.cpp:399] inception_3b/5x5 -> inception_3b/5x5
I0713 13:41:01.752509 27591 net.cpp:141] Setting up inception_3b/5x5
I0713 13:41:01.752532 27591 net.cpp:148] Top shape: 10 96 28 28 (752640)
I0713 13:41:01.752537 27591 net.cpp:156] Memory required for data: 307077120
I0713 13:41:01.752548 27591 layer_factory.hpp:77] Creating layer inception_3b/relu_5x5
I0713 13:41:01.752562 27591 net.cpp:91] Creating Layer inception_3b/relu_5x5
I0713 13:41:01.752568 27591 net.cpp:425] inception_3b/relu_5x5 <- inception_3b/5x5
I0713 13:41:01.752576 27591 net.cpp:386] inception_3b/relu_5x5 -> inception_3b/5x5 (in-place)
I0713 13:41:01.752841 27591 net.cpp:141] Setting up inception_3b/relu_5x5
I0713 13:41:01.752854 27591 net.cpp:148] Top shape: 10 96 28 28 (752640)
I0713 13:41:01.752858 27591 net.cpp:156] Memory required for data: 310087680
I0713 13:41:01.752864 27591 layer_factory.hpp:77] Creating layer inception_3b/pool
I0713 13:41:01.752873 27591 net.cpp:91] Creating Layer inception_3b/pool
I0713 13:41:01.752879 27591 net.cpp:425] inception_3b/pool <- inception_3a/output_inception_3a/output_0_split_3
I0713 13:41:01.752892 27591 net.cpp:399] inception_3b/pool -> inception_3b/pool
I0713 13:41:01.752959 27591 net.cpp:141] Setting up inception_3b/pool
I0713 13:41:01.752969 27591 net.cpp:148] Top shape: 10 256 28 28 (2007040)
I0713 13:41:01.752972 27591 net.cpp:156] Memory required for data: 318115840
I0713 13:41:01.752977 27591 layer_factory.hpp:77] Creating layer inception_3b/pool_proj
I0713 13:41:01.752996 27591 net.cpp:91] Creating Layer inception_3b/pool_proj
I0713 13:41:01.753002 27591 net.cpp:425] inception_3b/pool_proj <- inception_3b/pool
I0713 13:41:01.753011 27591 net.cpp:399] inception_3b/pool_proj -> inception_3b/pool_proj
I0713 13:41:01.755561 27591 net.cpp:141] Setting up inception_3b/pool_proj
I0713 13:41:01.755583 27591 net.cpp:148] Top shape: 10 64 28 28 (501760)
I0713 13:41:01.755589 27591 net.cpp:156] Memory required for data: 320122880
I0713 13:41:01.755599 27591 layer_factory.hpp:77] Creating layer inception_3b/relu_pool_proj
I0713 13:41:01.755609 27591 net.cpp:91] Creating Layer inception_3b/relu_pool_proj
I0713 13:41:01.755615 27591 net.cpp:425] inception_3b/relu_pool_proj <- inception_3b/pool_proj
I0713 13:41:01.755626 27591 net.cpp:386] inception_3b/relu_pool_proj -> inception_3b/pool_proj (in-place)
I0713 13:41:01.756433 27591 net.cpp:141] Setting up inception_3b/relu_pool_proj
I0713 13:41:01.756450 27591 net.cpp:148] Top shape: 10 64 28 28 (501760)
I0713 13:41:01.756455 27591 net.cpp:156] Memory required for data: 322129920
I0713 13:41:01.756461 27591 layer_factory.hpp:77] Creating layer inception_3b/output
I0713 13:41:01.756471 27591 net.cpp:91] Creating Layer inception_3b/output
I0713 13:41:01.756477 27591 net.cpp:425] inception_3b/output <- inception_3b/1x1
I0713 13:41:01.756484 27591 net.cpp:425] inception_3b/output <- inception_3b/3x3
I0713 13:41:01.756494 27591 net.cpp:425] inception_3b/output <- inception_3b/5x5
I0713 13:41:01.756500 27591 net.cpp:425] inception_3b/output <- inception_3b/pool_proj
I0713 13:41:01.756506 27591 net.cpp:399] inception_3b/output -> inception_3b/output
I0713 13:41:01.756551 27591 net.cpp:141] Setting up inception_3b/output
I0713 13:41:01.756561 27591 net.cpp:148] Top shape: 10 480 28 28 (3763200)
I0713 13:41:01.756566 27591 net.cpp:156] Memory required for data: 337182720
I0713 13:41:01.756570 27591 layer_factory.hpp:77] Creating layer pool3/3x3_s2
I0713 13:41:01.756583 27591 net.cpp:91] Creating Layer pool3/3x3_s2
I0713 13:41:01.756589 27591 net.cpp:425] pool3/3x3_s2 <- inception_3b/output
I0713 13:41:01.756598 27591 net.cpp:399] pool3/3x3_s2 -> pool3/3x3_s2
I0713 13:41:01.756667 27591 net.cpp:141] Setting up pool3/3x3_s2
I0713 13:41:01.756678 27591 net.cpp:148] Top shape: 10 480 14 14 (940800)
I0713 13:41:01.756683 27591 net.cpp:156] Memory required for data: 340945920
I0713 13:41:01.756687 27591 layer_factory.hpp:77] Creating layer pool3/3x3_s2_pool3/3x3_s2_0_split
I0713 13:41:01.756696 27591 net.cpp:91] Creating Layer pool3/3x3_s2_pool3/3x3_s2_0_split
I0713 13:41:01.756701 27591 net.cpp:425] pool3/3x3_s2_pool3/3x3_s2_0_split <- pool3/3x3_s2
I0713 13:41:01.756708 27591 net.cpp:399] pool3/3x3_s2_pool3/3x3_s2_0_split -> pool3/3x3_s2_pool3/3x3_s2_0_split_0
I0713 13:41:01.756721 27591 net.cpp:399] pool3/3x3_s2_pool3/3x3_s2_0_split -> pool3/3x3_s2_pool3/3x3_s2_0_split_1
I0713 13:41:01.756731 27591 net.cpp:399] pool3/3x3_s2_pool3/3x3_s2_0_split -> pool3/3x3_s2_pool3/3x3_s2_0_split_2
I0713 13:41:01.756738 27591 net.cpp:399] pool3/3x3_s2_pool3/3x3_s2_0_split -> pool3/3x3_s2_pool3/3x3_s2_0_split_3
I0713 13:41:01.756831 27591 net.cpp:141] Setting up pool3/3x3_s2_pool3/3x3_s2_0_split
I0713 13:41:01.756840 27591 net.cpp:148] Top shape: 10 480 14 14 (940800)
I0713 13:41:01.756846 27591 net.cpp:148] Top shape: 10 480 14 14 (940800)
I0713 13:41:01.756852 27591 net.cpp:148] Top shape: 10 480 14 14 (940800)
I0713 13:41:01.756857 27591 net.cpp:148] Top shape: 10 480 14 14 (940800)
I0713 13:41:01.756861 27591 net.cpp:156] Memory required for data: 355998720
I0713 13:41:01.756866 27591 layer_factory.hpp:77] Creating layer inception_4a/1x1
I0713 13:41:01.756886 27591 net.cpp:91] Creating Layer inception_4a/1x1
I0713 13:41:01.756891 27591 net.cpp:425] inception_4a/1x1 <- pool3/3x3_s2_pool3/3x3_s2_0_split_0
I0713 13:41:01.756901 27591 net.cpp:399] inception_4a/1x1 -> inception_4a/1x1
I0713 13:41:01.760687 27591 net.cpp:141] Setting up inception_4a/1x1
I0713 13:41:01.760710 27591 net.cpp:148] Top shape: 10 192 14 14 (376320)
I0713 13:41:01.760716 27591 net.cpp:156] Memory required for data: 357504000
I0713 13:41:01.760726 27591 layer_factory.hpp:77] Creating layer inception_4a/relu_1x1
I0713 13:41:01.760736 27591 net.cpp:91] Creating Layer inception_4a/relu_1x1
I0713 13:41:01.760742 27591 net.cpp:425] inception_4a/relu_1x1 <- inception_4a/1x1
I0713 13:41:01.760754 27591 net.cpp:386] inception_4a/relu_1x1 -> inception_4a/1x1 (in-place)
I0713 13:41:01.761035 27591 net.cpp:141] Setting up inception_4a/relu_1x1
I0713 13:41:01.761047 27591 net.cpp:148] Top shape: 10 192 14 14 (376320)
I0713 13:41:01.761054 27591 net.cpp:156] Memory required for data: 359009280
I0713 13:41:01.761059 27591 layer_factory.hpp:77] Creating layer inception_4a/3x3_reduce
I0713 13:41:01.761073 27591 net.cpp:91] Creating Layer inception_4a/3x3_reduce
I0713 13:41:01.761080 27591 net.cpp:425] inception_4a/3x3_reduce <- pool3/3x3_s2_pool3/3x3_s2_0_split_1
I0713 13:41:01.761093 27591 net.cpp:399] inception_4a/3x3_reduce -> inception_4a/3x3_reduce
I0713 13:41:01.763816 27591 net.cpp:141] Setting up inception_4a/3x3_reduce
I0713 13:41:01.763835 27591 net.cpp:148] Top shape: 10 96 14 14 (188160)
I0713 13:41:01.763841 27591 net.cpp:156] Memory required for data: 359761920
I0713 13:41:01.763862 27591 layer_factory.hpp:77] Creating layer inception_4a/relu_3x3_reduce
I0713 13:41:01.763872 27591 net.cpp:91] Creating Layer inception_4a/relu_3x3_reduce
I0713 13:41:01.763878 27591 net.cpp:425] inception_4a/relu_3x3_reduce <- inception_4a/3x3_reduce
I0713 13:41:01.763888 27591 net.cpp:386] inception_4a/relu_3x3_reduce -> inception_4a/3x3_reduce (in-place)
I0713 13:41:01.764153 27591 net.cpp:141] Setting up inception_4a/relu_3x3_reduce
I0713 13:41:01.764164 27591 net.cpp:148] Top shape: 10 96 14 14 (188160)
I0713 13:41:01.764169 27591 net.cpp:156] Memory required for data: 360514560
I0713 13:41:01.764176 27591 layer_factory.hpp:77] Creating layer inception_4a/3x3
I0713 13:41:01.764204 27591 net.cpp:91] Creating Layer inception_4a/3x3
I0713 13:41:01.764215 27591 net.cpp:425] inception_4a/3x3 <- inception_4a/3x3_reduce
I0713 13:41:01.764225 27591 net.cpp:399] inception_4a/3x3 -> inception_4a/3x3
I0713 13:41:01.769209 27591 net.cpp:141] Setting up inception_4a/3x3
I0713 13:41:01.769230 27591 net.cpp:148] Top shape: 10 208 14 14 (407680)
I0713 13:41:01.769237 27591 net.cpp:156] Memory required for data: 362145280
I0713 13:41:01.769245 27591 layer_factory.hpp:77] Creating layer inception_4a/relu_3x3
I0713 13:41:01.769256 27591 net.cpp:91] Creating Layer inception_4a/relu_3x3
I0713 13:41:01.769263 27591 net.cpp:425] inception_4a/relu_3x3 <- inception_4a/3x3
I0713 13:41:01.769273 27591 net.cpp:386] inception_4a/relu_3x3 -> inception_4a/3x3 (in-place)
I0713 13:41:01.770073 27591 net.cpp:141] Setting up inception_4a/relu_3x3
I0713 13:41:01.770092 27591 net.cpp:148] Top shape: 10 208 14 14 (407680)
I0713 13:41:01.770097 27591 net.cpp:156] Memory required for data: 363776000
I0713 13:41:01.770103 27591 layer_factory.hpp:77] Creating layer inception_4a/5x5_reduce
I0713 13:41:01.770131 27591 net.cpp:91] Creating Layer inception_4a/5x5_reduce
I0713 13:41:01.770138 27591 net.cpp:425] inception_4a/5x5_reduce <- pool3/3x3_s2_pool3/3x3_s2_0_split_2
I0713 13:41:01.770148 27591 net.cpp:399] inception_4a/5x5_reduce -> inception_4a/5x5_reduce
I0713 13:41:01.772536 27591 net.cpp:141] Setting up inception_4a/5x5_reduce
I0713 13:41:01.772555 27591 net.cpp:148] Top shape: 10 16 14 14 (31360)
I0713 13:41:01.772562 27591 net.cpp:156] Memory required for data: 363901440
I0713 13:41:01.772570 27591 layer_factory.hpp:77] Creating layer inception_4a/relu_5x5_reduce
I0713 13:41:01.772583 27591 net.cpp:91] Creating Layer inception_4a/relu_5x5_reduce
I0713 13:41:01.772590 27591 net.cpp:425] inception_4a/relu_5x5_reduce <- inception_4a/5x5_reduce
I0713 13:41:01.772598 27591 net.cpp:386] inception_4a/relu_5x5_reduce -> inception_4a/5x5_reduce (in-place)
I0713 13:41:01.772861 27591 net.cpp:141] Setting up inception_4a/relu_5x5_reduce
I0713 13:41:01.772872 27591 net.cpp:148] Top shape: 10 16 14 14 (31360)
I0713 13:41:01.772877 27591 net.cpp:156] Memory required for data: 364026880
I0713 13:41:01.772883 27591 layer_factory.hpp:77] Creating layer inception_4a/5x5
I0713 13:41:01.772902 27591 net.cpp:91] Creating Layer inception_4a/5x5
I0713 13:41:01.772908 27591 net.cpp:425] inception_4a/5x5 <- inception_4a/5x5_reduce
I0713 13:41:01.772918 27591 net.cpp:399] inception_4a/5x5 -> inception_4a/5x5
I0713 13:41:01.775379 27591 net.cpp:141] Setting up inception_4a/5x5
I0713 13:41:01.775398 27591 net.cpp:148] Top shape: 10 48 14 14 (94080)
I0713 13:41:01.775403 27591 net.cpp:156] Memory required for data: 364403200
I0713 13:41:01.775413 27591 layer_factory.hpp:77] Creating layer inception_4a/relu_5x5
I0713 13:41:01.775426 27591 net.cpp:91] Creating Layer inception_4a/relu_5x5
I0713 13:41:01.775432 27591 net.cpp:425] inception_4a/relu_5x5 <- inception_4a/5x5
I0713 13:41:01.775440 27591 net.cpp:386] inception_4a/relu_5x5 -> inception_4a/5x5 (in-place)
I0713 13:41:01.775720 27591 net.cpp:141] Setting up inception_4a/relu_5x5
I0713 13:41:01.775732 27591 net.cpp:148] Top shape: 10 48 14 14 (94080)
I0713 13:41:01.775738 27591 net.cpp:156] Memory required for data: 364779520
I0713 13:41:01.775743 27591 layer_factory.hpp:77] Creating layer inception_4a/pool
I0713 13:41:01.775753 27591 net.cpp:91] Creating Layer inception_4a/pool
I0713 13:41:01.775758 27591 net.cpp:425] inception_4a/pool <- pool3/3x3_s2_pool3/3x3_s2_0_split_3
I0713 13:41:01.775770 27591 net.cpp:399] inception_4a/pool -> inception_4a/pool
I0713 13:41:01.775840 27591 net.cpp:141] Setting up inception_4a/pool
I0713 13:41:01.775849 27591 net.cpp:148] Top shape: 10 480 14 14 (940800)
I0713 13:41:01.775854 27591 net.cpp:156] Memory required for data: 368542720
I0713 13:41:01.775859 27591 layer_factory.hpp:77] Creating layer inception_4a/pool_proj
I0713 13:41:01.775882 27591 net.cpp:91] Creating Layer inception_4a/pool_proj
I0713 13:41:01.775888 27591 net.cpp:425] inception_4a/pool_proj <- inception_4a/pool
I0713 13:41:01.775897 27591 net.cpp:399] inception_4a/pool_proj -> inception_4a/pool_proj
I0713 13:41:01.778441 27591 net.cpp:141] Setting up inception_4a/pool_proj
I0713 13:41:01.778463 27591 net.cpp:148] Top shape: 10 64 14 14 (125440)
I0713 13:41:01.778468 27591 net.cpp:156] Memory required for data: 369044480
I0713 13:41:01.778477 27591 layer_factory.hpp:77] Creating layer inception_4a/relu_pool_proj
I0713 13:41:01.778486 27591 net.cpp:91] Creating Layer inception_4a/relu_pool_proj
I0713 13:41:01.778492 27591 net.cpp:425] inception_4a/relu_pool_proj <- inception_4a/pool_proj
I0713 13:41:01.778501 27591 net.cpp:386] inception_4a/relu_pool_proj -> inception_4a/pool_proj (in-place)
I0713 13:41:01.779307 27591 net.cpp:141] Setting up inception_4a/relu_pool_proj
I0713 13:41:01.779325 27591 net.cpp:148] Top shape: 10 64 14 14 (125440)
I0713 13:41:01.779330 27591 net.cpp:156] Memory required for data: 369546240
I0713 13:41:01.779336 27591 layer_factory.hpp:77] Creating layer inception_4a/output
I0713 13:41:01.779346 27591 net.cpp:91] Creating Layer inception_4a/output
I0713 13:41:01.779351 27591 net.cpp:425] inception_4a/output <- inception_4a/1x1
I0713 13:41:01.779358 27591 net.cpp:425] inception_4a/output <- inception_4a/3x3
I0713 13:41:01.779364 27591 net.cpp:425] inception_4a/output <- inception_4a/5x5
I0713 13:41:01.779369 27591 net.cpp:425] inception_4a/output <- inception_4a/pool_proj
I0713 13:41:01.779376 27591 net.cpp:399] inception_4a/output -> inception_4a/output
I0713 13:41:01.779427 27591 net.cpp:141] Setting up inception_4a/output
I0713 13:41:01.779436 27591 net.cpp:148] Top shape: 10 512 14 14 (1003520)
I0713 13:41:01.779440 27591 net.cpp:156] Memory required for data: 373560320
I0713 13:41:01.779445 27591 layer_factory.hpp:77] Creating layer inception_4a/output_inception_4a/output_0_split
I0713 13:41:01.779458 27591 net.cpp:91] Creating Layer inception_4a/output_inception_4a/output_0_split
I0713 13:41:01.779464 27591 net.cpp:425] inception_4a/output_inception_4a/output_0_split <- inception_4a/output
I0713 13:41:01.779470 27591 net.cpp:399] inception_4a/output_inception_4a/output_0_split -> inception_4a/output_inception_4a/output_0_split_0
I0713 13:41:01.779480 27591 net.cpp:399] inception_4a/output_inception_4a/output_0_split -> inception_4a/output_inception_4a/output_0_split_1
I0713 13:41:01.779489 27591 net.cpp:399] inception_4a/output_inception_4a/output_0_split -> inception_4a/output_inception_4a/output_0_split_2
I0713 13:41:01.779497 27591 net.cpp:399] inception_4a/output_inception_4a/output_0_split -> inception_4a/output_inception_4a/output_0_split_3
I0713 13:41:01.779595 27591 net.cpp:141] Setting up inception_4a/output_inception_4a/output_0_split
I0713 13:41:01.779604 27591 net.cpp:148] Top shape: 10 512 14 14 (1003520)
I0713 13:41:01.779610 27591 net.cpp:148] Top shape: 10 512 14 14 (1003520)
I0713 13:41:01.779616 27591 net.cpp:148] Top shape: 10 512 14 14 (1003520)
I0713 13:41:01.779621 27591 net.cpp:148] Top shape: 10 512 14 14 (1003520)
I0713 13:41:01.779625 27591 net.cpp:156] Memory required for data: 389616640
I0713 13:41:01.779630 27591 layer_factory.hpp:77] Creating layer inception_4b/1x1
I0713 13:41:01.779646 27591 net.cpp:91] Creating Layer inception_4b/1x1
I0713 13:41:01.779652 27591 net.cpp:425] inception_4b/1x1 <- inception_4a/output_inception_4a/output_0_split_0
I0713 13:41:01.779664 27591 net.cpp:399] inception_4b/1x1 -> inception_4b/1x1
I0713 13:41:01.782629 27591 net.cpp:141] Setting up inception_4b/1x1
I0713 13:41:01.782649 27591 net.cpp:148] Top shape: 10 160 14 14 (313600)
I0713 13:41:01.782655 27591 net.cpp:156] Memory required for data: 390871040
I0713 13:41:01.782665 27591 layer_factory.hpp:77] Creating layer inception_4b/relu_1x1
I0713 13:41:01.782673 27591 net.cpp:91] Creating Layer inception_4b/relu_1x1
I0713 13:41:01.782680 27591 net.cpp:425] inception_4b/relu_1x1 <- inception_4b/1x1
I0713 13:41:01.782699 27591 net.cpp:386] inception_4b/relu_1x1 -> inception_4b/1x1 (in-place)
I0713 13:41:01.782966 27591 net.cpp:141] Setting up inception_4b/relu_1x1
I0713 13:41:01.782979 27591 net.cpp:148] Top shape: 10 160 14 14 (313600)
I0713 13:41:01.782984 27591 net.cpp:156] Memory required for data: 392125440
I0713 13:41:01.782989 27591 layer_factory.hpp:77] Creating layer inception_4b/3x3_reduce
I0713 13:41:01.783007 27591 net.cpp:91] Creating Layer inception_4b/3x3_reduce
I0713 13:41:01.783013 27591 net.cpp:425] inception_4b/3x3_reduce <- inception_4a/output_inception_4a/output_0_split_1
I0713 13:41:01.783023 27591 net.cpp:399] inception_4b/3x3_reduce -> inception_4b/3x3_reduce
I0713 13:41:01.785820 27591 net.cpp:141] Setting up inception_4b/3x3_reduce
I0713 13:41:01.785838 27591 net.cpp:148] Top shape: 10 112 14 14 (219520)
I0713 13:41:01.785845 27591 net.cpp:156] Memory required for data: 393003520
I0713 13:41:01.785853 27591 layer_factory.hpp:77] Creating layer inception_4b/relu_3x3_reduce
I0713 13:41:01.785868 27591 net.cpp:91] Creating Layer inception_4b/relu_3x3_reduce
I0713 13:41:01.785876 27591 net.cpp:425] inception_4b/relu_3x3_reduce <- inception_4b/3x3_reduce
I0713 13:41:01.785886 27591 net.cpp:386] inception_4b/relu_3x3_reduce -> inception_4b/3x3_reduce (in-place)
I0713 13:41:01.786159 27591 net.cpp:141] Setting up inception_4b/relu_3x3_reduce
I0713 13:41:01.786171 27591 net.cpp:148] Top shape: 10 112 14 14 (219520)
I0713 13:41:01.786176 27591 net.cpp:156] Memory required for data: 393881600
I0713 13:41:01.786181 27591 layer_factory.hpp:77] Creating layer inception_4b/3x3
I0713 13:41:01.786198 27591 net.cpp:91] Creating Layer inception_4b/3x3
I0713 13:41:01.786204 27591 net.cpp:425] inception_4b/3x3 <- inception_4b/3x3_reduce
I0713 13:41:01.786222 27591 net.cpp:399] inception_4b/3x3 -> inception_4b/3x3
I0713 13:41:01.792242 27591 net.cpp:141] Setting up inception_4b/3x3
I0713 13:41:01.792263 27591 net.cpp:148] Top shape: 10 224 14 14 (439040)
I0713 13:41:01.792268 27591 net.cpp:156] Memory required for data: 395637760
I0713 13:41:01.792278 27591 layer_factory.hpp:77] Creating layer inception_4b/relu_3x3
I0713 13:41:01.792291 27591 net.cpp:91] Creating Layer inception_4b/relu_3x3
I0713 13:41:01.792299 27591 net.cpp:425] inception_4b/relu_3x3 <- inception_4b/3x3
I0713 13:41:01.792306 27591 net.cpp:386] inception_4b/relu_3x3 -> inception_4b/3x3 (in-place)
I0713 13:41:01.793118 27591 net.cpp:141] Setting up inception_4b/relu_3x3
I0713 13:41:01.793136 27591 net.cpp:148] Top shape: 10 224 14 14 (439040)
I0713 13:41:01.793141 27591 net.cpp:156] Memory required for data: 397393920
I0713 13:41:01.793148 27591 layer_factory.hpp:77] Creating layer inception_4b/5x5_reduce
I0713 13:41:01.793176 27591 net.cpp:91] Creating Layer inception_4b/5x5_reduce
I0713 13:41:01.793184 27591 net.cpp:425] inception_4b/5x5_reduce <- inception_4a/output_inception_4a/output_0_split_2
I0713 13:41:01.793197 27591 net.cpp:399] inception_4b/5x5_reduce -> inception_4b/5x5_reduce
I0713 13:41:01.795646 27591 net.cpp:141] Setting up inception_4b/5x5_reduce
I0713 13:41:01.795666 27591 net.cpp:148] Top shape: 10 24 14 14 (47040)
I0713 13:41:01.795672 27591 net.cpp:156] Memory required for data: 397582080
I0713 13:41:01.795682 27591 layer_factory.hpp:77] Creating layer inception_4b/relu_5x5_reduce
I0713 13:41:01.795692 27591 net.cpp:91] Creating Layer inception_4b/relu_5x5_reduce
I0713 13:41:01.795699 27591 net.cpp:425] inception_4b/relu_5x5_reduce <- inception_4b/5x5_reduce
I0713 13:41:01.795711 27591 net.cpp:386] inception_4b/relu_5x5_reduce -> inception_4b/5x5_reduce (in-place)
I0713 13:41:01.795984 27591 net.cpp:141] Setting up inception_4b/relu_5x5_reduce
I0713 13:41:01.795996 27591 net.cpp:148] Top shape: 10 24 14 14 (47040)
I0713 13:41:01.796000 27591 net.cpp:156] Memory required for data: 397770240
I0713 13:41:01.796006 27591 layer_factory.hpp:77] Creating layer inception_4b/5x5
I0713 13:41:01.796025 27591 net.cpp:91] Creating Layer inception_4b/5x5
I0713 13:41:01.796030 27591 net.cpp:425] inception_4b/5x5 <- inception_4b/5x5_reduce
I0713 13:41:01.796043 27591 net.cpp:399] inception_4b/5x5 -> inception_4b/5x5
I0713 13:41:01.799896 27591 net.cpp:141] Setting up inception_4b/5x5
I0713 13:41:01.799916 27591 net.cpp:148] Top shape: 10 64 14 14 (125440)
I0713 13:41:01.799921 27591 net.cpp:156] Memory required for data: 398272000
I0713 13:41:01.799932 27591 layer_factory.hpp:77] Creating layer inception_4b/relu_5x5
I0713 13:41:01.799945 27591 net.cpp:91] Creating Layer inception_4b/relu_5x5
I0713 13:41:01.799952 27591 net.cpp:425] inception_4b/relu_5x5 <- inception_4b/5x5
I0713 13:41:01.799959 27591 net.cpp:386] inception_4b/relu_5x5 -> inception_4b/5x5 (in-place)
I0713 13:41:01.800230 27591 net.cpp:141] Setting up inception_4b/relu_5x5
I0713 13:41:01.800242 27591 net.cpp:148] Top shape: 10 64 14 14 (125440)
I0713 13:41:01.800247 27591 net.cpp:156] Memory required for data: 398773760
I0713 13:41:01.800252 27591 layer_factory.hpp:77] Creating layer inception_4b/pool
I0713 13:41:01.800261 27591 net.cpp:91] Creating Layer inception_4b/pool
I0713 13:41:01.800267 27591 net.cpp:425] inception_4b/pool <- inception_4a/output_inception_4a/output_0_split_3
I0713 13:41:01.800279 27591 net.cpp:399] inception_4b/pool -> inception_4b/pool
I0713 13:41:01.800353 27591 net.cpp:141] Setting up inception_4b/pool
I0713 13:41:01.800362 27591 net.cpp:148] Top shape: 10 512 14 14 (1003520)
I0713 13:41:01.800367 27591 net.cpp:156] Memory required for data: 402787840
I0713 13:41:01.800372 27591 layer_factory.hpp:77] Creating layer inception_4b/pool_proj
I0713 13:41:01.800391 27591 net.cpp:91] Creating Layer inception_4b/pool_proj
I0713 13:41:01.800398 27591 net.cpp:425] inception_4b/pool_proj <- inception_4b/pool
I0713 13:41:01.800407 27591 net.cpp:399] inception_4b/pool_proj -> inception_4b/pool_proj
I0713 13:41:01.803009 27591 net.cpp:141] Setting up inception_4b/pool_proj
I0713 13:41:01.803028 27591 net.cpp:148] Top shape: 10 64 14 14 (125440)
I0713 13:41:01.803035 27591 net.cpp:156] Memory required for data: 403289600
I0713 13:41:01.803043 27591 layer_factory.hpp:77] Creating layer inception_4b/relu_pool_proj
I0713 13:41:01.803056 27591 net.cpp:91] Creating Layer inception_4b/relu_pool_proj
I0713 13:41:01.803062 27591 net.cpp:425] inception_4b/relu_pool_proj <- inception_4b/pool_proj
I0713 13:41:01.803071 27591 net.cpp:386] inception_4b/relu_pool_proj -> inception_4b/pool_proj (in-place)
I0713 13:41:01.803874 27591 net.cpp:141] Setting up inception_4b/relu_pool_proj
I0713 13:41:01.803894 27591 net.cpp:148] Top shape: 10 64 14 14 (125440)
I0713 13:41:01.803900 27591 net.cpp:156] Memory required for data: 403791360
I0713 13:41:01.803905 27591 layer_factory.hpp:77] Creating layer inception_4b/output
I0713 13:41:01.803915 27591 net.cpp:91] Creating Layer inception_4b/output
I0713 13:41:01.803920 27591 net.cpp:425] inception_4b/output <- inception_4b/1x1
I0713 13:41:01.803927 27591 net.cpp:425] inception_4b/output <- inception_4b/3x3
I0713 13:41:01.803932 27591 net.cpp:425] inception_4b/output <- inception_4b/5x5
I0713 13:41:01.803938 27591 net.cpp:425] inception_4b/output <- inception_4b/pool_proj
I0713 13:41:01.803944 27591 net.cpp:399] inception_4b/output -> inception_4b/output
I0713 13:41:01.803997 27591 net.cpp:141] Setting up inception_4b/output
I0713 13:41:01.804008 27591 net.cpp:148] Top shape: 10 512 14 14 (1003520)
I0713 13:41:01.804011 27591 net.cpp:156] Memory required for data: 407805440
I0713 13:41:01.804016 27591 layer_factory.hpp:77] Creating layer inception_4b/output_inception_4b/output_0_split
I0713 13:41:01.804028 27591 net.cpp:91] Creating Layer inception_4b/output_inception_4b/output_0_split
I0713 13:41:01.804033 27591 net.cpp:425] inception_4b/output_inception_4b/output_0_split <- inception_4b/output
I0713 13:41:01.804040 27591 net.cpp:399] inception_4b/output_inception_4b/output_0_split -> inception_4b/output_inception_4b/output_0_split_0
I0713 13:41:01.804049 27591 net.cpp:399] inception_4b/output_inception_4b/output_0_split -> inception_4b/output_inception_4b/output_0_split_1
I0713 13:41:01.804059 27591 net.cpp:399] inception_4b/output_inception_4b/output_0_split -> inception_4b/output_inception_4b/output_0_split_2
I0713 13:41:01.804066 27591 net.cpp:399] inception_4b/output_inception_4b/output_0_split -> inception_4b/output_inception_4b/output_0_split_3
I0713 13:41:01.804167 27591 net.cpp:141] Setting up inception_4b/output_inception_4b/output_0_split
I0713 13:41:01.804177 27591 net.cpp:148] Top shape: 10 512 14 14 (1003520)
I0713 13:41:01.804183 27591 net.cpp:148] Top shape: 10 512 14 14 (1003520)
I0713 13:41:01.804188 27591 net.cpp:148] Top shape: 10 512 14 14 (1003520)
I0713 13:41:01.804193 27591 net.cpp:148] Top shape: 10 512 14 14 (1003520)
I0713 13:41:01.804196 27591 net.cpp:156] Memory required for data: 423861760
I0713 13:41:01.804201 27591 layer_factory.hpp:77] Creating layer inception_4c/1x1
I0713 13:41:01.804217 27591 net.cpp:91] Creating Layer inception_4c/1x1
I0713 13:41:01.804224 27591 net.cpp:425] inception_4c/1x1 <- inception_4b/output_inception_4b/output_0_split_0
I0713 13:41:01.804235 27591 net.cpp:399] inception_4c/1x1 -> inception_4c/1x1
I0713 13:41:01.807334 27591 net.cpp:141] Setting up inception_4c/1x1
I0713 13:41:01.807361 27591 net.cpp:148] Top shape: 10 128 14 14 (250880)
I0713 13:41:01.807368 27591 net.cpp:156] Memory required for data: 424865280
I0713 13:41:01.807379 27591 layer_factory.hpp:77] Creating layer inception_4c/relu_1x1
I0713 13:41:01.807389 27591 net.cpp:91] Creating Layer inception_4c/relu_1x1
I0713 13:41:01.807394 27591 net.cpp:425] inception_4c/relu_1x1 <- inception_4c/1x1
I0713 13:41:01.807404 27591 net.cpp:386] inception_4c/relu_1x1 -> inception_4c/1x1 (in-place)
I0713 13:41:01.807682 27591 net.cpp:141] Setting up inception_4c/relu_1x1
I0713 13:41:01.807694 27591 net.cpp:148] Top shape: 10 128 14 14 (250880)
I0713 13:41:01.807698 27591 net.cpp:156] Memory required for data: 425868800
I0713 13:41:01.807704 27591 layer_factory.hpp:77] Creating layer inception_4c/3x3_reduce
I0713 13:41:01.807721 27591 net.cpp:91] Creating Layer inception_4c/3x3_reduce
I0713 13:41:01.807728 27591 net.cpp:425] inception_4c/3x3_reduce <- inception_4b/output_inception_4b/output_0_split_1
I0713 13:41:01.807745 27591 net.cpp:399] inception_4c/3x3_reduce -> inception_4c/3x3_reduce
I0713 13:41:01.810660 27591 net.cpp:141] Setting up inception_4c/3x3_reduce
I0713 13:41:01.810680 27591 net.cpp:148] Top shape: 10 128 14 14 (250880)
I0713 13:41:01.810695 27591 net.cpp:156] Memory required for data: 426872320
I0713 13:41:01.810708 27591 layer_factory.hpp:77] Creating layer inception_4c/relu_3x3_reduce
I0713 13:41:01.810717 27591 net.cpp:91] Creating Layer inception_4c/relu_3x3_reduce
I0713 13:41:01.810724 27591 net.cpp:425] inception_4c/relu_3x3_reduce <- inception_4c/3x3_reduce
I0713 13:41:01.810730 27591 net.cpp:386] inception_4c/relu_3x3_reduce -> inception_4c/3x3_reduce (in-place)
I0713 13:41:01.811018 27591 net.cpp:141] Setting up inception_4c/relu_3x3_reduce
I0713 13:41:01.811031 27591 net.cpp:148] Top shape: 10 128 14 14 (250880)
I0713 13:41:01.811036 27591 net.cpp:156] Memory required for data: 427875840
I0713 13:41:01.811043 27591 layer_factory.hpp:77] Creating layer inception_4c/3x3
I0713 13:41:01.811058 27591 net.cpp:91] Creating Layer inception_4c/3x3
I0713 13:41:01.811065 27591 net.cpp:425] inception_4c/3x3 <- inception_4c/3x3_reduce
I0713 13:41:01.811079 27591 net.cpp:399] inception_4c/3x3 -> inception_4c/3x3
I0713 13:41:01.817179 27591 net.cpp:141] Setting up inception_4c/3x3
I0713 13:41:01.817200 27591 net.cpp:148] Top shape: 10 256 14 14 (501760)
I0713 13:41:01.817206 27591 net.cpp:156] Memory required for data: 429882880
I0713 13:41:01.817216 27591 layer_factory.hpp:77] Creating layer inception_4c/relu_3x3
I0713 13:41:01.817230 27591 net.cpp:91] Creating Layer inception_4c/relu_3x3
I0713 13:41:01.817237 27591 net.cpp:425] inception_4c/relu_3x3 <- inception_4c/3x3
I0713 13:41:01.817245 27591 net.cpp:386] inception_4c/relu_3x3 -> inception_4c/3x3 (in-place)
I0713 13:41:01.818060 27591 net.cpp:141] Setting up inception_4c/relu_3x3
I0713 13:41:01.818078 27591 net.cpp:148] Top shape: 10 256 14 14 (501760)
I0713 13:41:01.818084 27591 net.cpp:156] Memory required for data: 431889920
I0713 13:41:01.818089 27591 layer_factory.hpp:77] Creating layer inception_4c/5x5_reduce
I0713 13:41:01.818110 27591 net.cpp:91] Creating Layer inception_4c/5x5_reduce
I0713 13:41:01.818117 27591 net.cpp:425] inception_4c/5x5_reduce <- inception_4b/output_inception_4b/output_0_split_2
I0713 13:41:01.818127 27591 net.cpp:399] inception_4c/5x5_reduce -> inception_4c/5x5_reduce
I0713 13:41:01.820616 27591 net.cpp:141] Setting up inception_4c/5x5_reduce
I0713 13:41:01.820636 27591 net.cpp:148] Top shape: 10 24 14 14 (47040)
I0713 13:41:01.820642 27591 net.cpp:156] Memory required for data: 432078080
I0713 13:41:01.820652 27591 layer_factory.hpp:77] Creating layer inception_4c/relu_5x5_reduce
I0713 13:41:01.820662 27591 net.cpp:91] Creating Layer inception_4c/relu_5x5_reduce
I0713 13:41:01.820667 27591 net.cpp:425] inception_4c/relu_5x5_reduce <- inception_4c/5x5_reduce
I0713 13:41:01.820674 27591 net.cpp:386] inception_4c/relu_5x5_reduce -> inception_4c/5x5_reduce (in-place)
I0713 13:41:01.820952 27591 net.cpp:141] Setting up inception_4c/relu_5x5_reduce
I0713 13:41:01.820966 27591 net.cpp:148] Top shape: 10 24 14 14 (47040)
I0713 13:41:01.820971 27591 net.cpp:156] Memory required for data: 432266240
I0713 13:41:01.820976 27591 layer_factory.hpp:77] Creating layer inception_4c/5x5
I0713 13:41:01.820991 27591 net.cpp:91] Creating Layer inception_4c/5x5
I0713 13:41:01.820999 27591 net.cpp:425] inception_4c/5x5 <- inception_4c/5x5_reduce
I0713 13:41:01.821022 27591 net.cpp:399] inception_4c/5x5 -> inception_4c/5x5
I0713 13:41:01.824331 27591 net.cpp:141] Setting up inception_4c/5x5
I0713 13:41:01.824352 27591 net.cpp:148] Top shape: 10 64 14 14 (125440)
I0713 13:41:01.824357 27591 net.cpp:156] Memory required for data: 432768000
I0713 13:41:01.824368 27591 layer_factory.hpp:77] Creating layer inception_4c/relu_5x5
I0713 13:41:01.824378 27591 net.cpp:91] Creating Layer inception_4c/relu_5x5
I0713 13:41:01.824384 27591 net.cpp:425] inception_4c/relu_5x5 <- inception_4c/5x5
I0713 13:41:01.824395 27591 net.cpp:386] inception_4c/relu_5x5 -> inception_4c/5x5 (in-place)
I0713 13:41:01.824672 27591 net.cpp:141] Setting up inception_4c/relu_5x5
I0713 13:41:01.824686 27591 net.cpp:148] Top shape: 10 64 14 14 (125440)
I0713 13:41:01.824689 27591 net.cpp:156] Memory required for data: 433269760
I0713 13:41:01.824695 27591 layer_factory.hpp:77] Creating layer inception_4c/pool
I0713 13:41:01.824704 27591 net.cpp:91] Creating Layer inception_4c/pool
I0713 13:41:01.824710 27591 net.cpp:425] inception_4c/pool <- inception_4b/output_inception_4b/output_0_split_3
I0713 13:41:01.824718 27591 net.cpp:399] inception_4c/pool -> inception_4c/pool
I0713 13:41:01.824798 27591 net.cpp:141] Setting up inception_4c/pool
I0713 13:41:01.824810 27591 net.cpp:148] Top shape: 10 512 14 14 (1003520)
I0713 13:41:01.824813 27591 net.cpp:156] Memory required for data: 437283840
I0713 13:41:01.824818 27591 layer_factory.hpp:77] Creating layer inception_4c/pool_proj
I0713 13:41:01.824836 27591 net.cpp:91] Creating Layer inception_4c/pool_proj
I0713 13:41:01.824843 27591 net.cpp:425] inception_4c/pool_proj <- inception_4c/pool
I0713 13:41:01.824852 27591 net.cpp:399] inception_4c/pool_proj -> inception_4c/pool_proj
I0713 13:41:01.828671 27591 net.cpp:141] Setting up inception_4c/pool_proj
I0713 13:41:01.828693 27591 net.cpp:148] Top shape: 10 64 14 14 (125440)
I0713 13:41:01.828699 27591 net.cpp:156] Memory required for data: 437785600
I0713 13:41:01.828728 27591 layer_factory.hpp:77] Creating layer inception_4c/relu_pool_proj
I0713 13:41:01.828742 27591 net.cpp:91] Creating Layer inception_4c/relu_pool_proj
I0713 13:41:01.828747 27591 net.cpp:425] inception_4c/relu_pool_proj <- inception_4c/pool_proj
I0713 13:41:01.828755 27591 net.cpp:386] inception_4c/relu_pool_proj -> inception_4c/pool_proj (in-place)
I0713 13:41:01.829574 27591 net.cpp:141] Setting up inception_4c/relu_pool_proj
I0713 13:41:01.829592 27591 net.cpp:148] Top shape: 10 64 14 14 (125440)
I0713 13:41:01.829598 27591 net.cpp:156] Memory required for data: 438287360
I0713 13:41:01.829603 27591 layer_factory.hpp:77] Creating layer inception_4c/output
I0713 13:41:01.829615 27591 net.cpp:91] Creating Layer inception_4c/output
I0713 13:41:01.829622 27591 net.cpp:425] inception_4c/output <- inception_4c/1x1
I0713 13:41:01.829628 27591 net.cpp:425] inception_4c/output <- inception_4c/3x3
I0713 13:41:01.829633 27591 net.cpp:425] inception_4c/output <- inception_4c/5x5
I0713 13:41:01.829639 27591 net.cpp:425] inception_4c/output <- inception_4c/pool_proj
I0713 13:41:01.829646 27591 net.cpp:399] inception_4c/output -> inception_4c/output
I0713 13:41:01.829697 27591 net.cpp:141] Setting up inception_4c/output
I0713 13:41:01.829712 27591 net.cpp:148] Top shape: 10 512 14 14 (1003520)
I0713 13:41:01.829717 27591 net.cpp:156] Memory required for data: 442301440
I0713 13:41:01.829722 27591 layer_factory.hpp:77] Creating layer inception_4c/output_inception_4c/output_0_split
I0713 13:41:01.829730 27591 net.cpp:91] Creating Layer inception_4c/output_inception_4c/output_0_split
I0713 13:41:01.829736 27591 net.cpp:425] inception_4c/output_inception_4c/output_0_split <- inception_4c/output
I0713 13:41:01.829746 27591 net.cpp:399] inception_4c/output_inception_4c/output_0_split -> inception_4c/output_inception_4c/output_0_split_0
I0713 13:41:01.829756 27591 net.cpp:399] inception_4c/output_inception_4c/output_0_split -> inception_4c/output_inception_4c/output_0_split_1
I0713 13:41:01.829769 27591 net.cpp:399] inception_4c/output_inception_4c/output_0_split -> inception_4c/output_inception_4c/output_0_split_2
I0713 13:41:01.829787 27591 net.cpp:399] inception_4c/output_inception_4c/output_0_split -> inception_4c/output_inception_4c/output_0_split_3
I0713 13:41:01.829898 27591 net.cpp:141] Setting up inception_4c/output_inception_4c/output_0_split
I0713 13:41:01.829911 27591 net.cpp:148] Top shape: 10 512 14 14 (1003520)
I0713 13:41:01.829917 27591 net.cpp:148] Top shape: 10 512 14 14 (1003520)
I0713 13:41:01.829923 27591 net.cpp:148] Top shape: 10 512 14 14 (1003520)
I0713 13:41:01.829928 27591 net.cpp:148] Top shape: 10 512 14 14 (1003520)
I0713 13:41:01.829933 27591 net.cpp:156] Memory required for data: 458357760
I0713 13:41:01.829938 27591 layer_factory.hpp:77] Creating layer inception_4d/1x1
I0713 13:41:01.829952 27591 net.cpp:91] Creating Layer inception_4d/1x1
I0713 13:41:01.829958 27591 net.cpp:425] inception_4d/1x1 <- inception_4c/output_inception_4c/output_0_split_0
I0713 13:41:01.829970 27591 net.cpp:399] inception_4d/1x1 -> inception_4d/1x1
I0713 13:41:01.832983 27591 net.cpp:141] Setting up inception_4d/1x1
I0713 13:41:01.833005 27591 net.cpp:148] Top shape: 10 112 14 14 (219520)
I0713 13:41:01.833010 27591 net.cpp:156] Memory required for data: 459235840
I0713 13:41:01.833021 27591 layer_factory.hpp:77] Creating layer inception_4d/relu_1x1
I0713 13:41:01.833030 27591 net.cpp:91] Creating Layer inception_4d/relu_1x1
I0713 13:41:01.833036 27591 net.cpp:425] inception_4d/relu_1x1 <- inception_4d/1x1
I0713 13:41:01.833050 27591 net.cpp:386] inception_4d/relu_1x1 -> inception_4d/1x1 (in-place)
I0713 13:41:01.833335 27591 net.cpp:141] Setting up inception_4d/relu_1x1
I0713 13:41:01.833348 27591 net.cpp:148] Top shape: 10 112 14 14 (219520)
I0713 13:41:01.833353 27591 net.cpp:156] Memory required for data: 460113920
I0713 13:41:01.833359 27591 layer_factory.hpp:77] Creating layer inception_4d/3x3_reduce
I0713 13:41:01.833375 27591 net.cpp:91] Creating Layer inception_4d/3x3_reduce
I0713 13:41:01.833381 27591 net.cpp:425] inception_4d/3x3_reduce <- inception_4c/output_inception_4c/output_0_split_1
I0713 13:41:01.833391 27591 net.cpp:399] inception_4d/3x3_reduce -> inception_4d/3x3_reduce
I0713 13:41:01.836470 27591 net.cpp:141] Setting up inception_4d/3x3_reduce
I0713 13:41:01.836490 27591 net.cpp:148] Top shape: 10 144 14 14 (282240)
I0713 13:41:01.836496 27591 net.cpp:156] Memory required for data: 461242880
I0713 13:41:01.836506 27591 layer_factory.hpp:77] Creating layer inception_4d/relu_3x3_reduce
I0713 13:41:01.836519 27591 net.cpp:91] Creating Layer inception_4d/relu_3x3_reduce
I0713 13:41:01.836526 27591 net.cpp:425] inception_4d/relu_3x3_reduce <- inception_4d/3x3_reduce
I0713 13:41:01.836534 27591 net.cpp:386] inception_4d/relu_3x3_reduce -> inception_4d/3x3_reduce (in-place)
I0713 13:41:01.836809 27591 net.cpp:141] Setting up inception_4d/relu_3x3_reduce
I0713 13:41:01.836822 27591 net.cpp:148] Top shape: 10 144 14 14 (282240)
I0713 13:41:01.836827 27591 net.cpp:156] Memory required for data: 462371840
I0713 13:41:01.836832 27591 layer_factory.hpp:77] Creating layer inception_4d/3x3
I0713 13:41:01.836848 27591 net.cpp:91] Creating Layer inception_4d/3x3
I0713 13:41:01.836855 27591 net.cpp:425] inception_4d/3x3 <- inception_4d/3x3_reduce
I0713 13:41:01.836868 27591 net.cpp:399] inception_4d/3x3 -> inception_4d/3x3
I0713 13:41:01.843849 27591 net.cpp:141] Setting up inception_4d/3x3
I0713 13:41:01.843870 27591 net.cpp:148] Top shape: 10 288 14 14 (564480)
I0713 13:41:01.843876 27591 net.cpp:156] Memory required for data: 464629760
I0713 13:41:01.843886 27591 layer_factory.hpp:77] Creating layer inception_4d/relu_3x3
I0713 13:41:01.843899 27591 net.cpp:91] Creating Layer inception_4d/relu_3x3
I0713 13:41:01.843906 27591 net.cpp:425] inception_4d/relu_3x3 <- inception_4d/3x3
I0713 13:41:01.843914 27591 net.cpp:386] inception_4d/relu_3x3 -> inception_4d/3x3 (in-place)
I0713 13:41:01.844733 27591 net.cpp:141] Setting up inception_4d/relu_3x3
I0713 13:41:01.844751 27591 net.cpp:148] Top shape: 10 288 14 14 (564480)
I0713 13:41:01.844756 27591 net.cpp:156] Memory required for data: 466887680
I0713 13:41:01.844761 27591 layer_factory.hpp:77] Creating layer inception_4d/5x5_reduce
I0713 13:41:01.844781 27591 net.cpp:91] Creating Layer inception_4d/5x5_reduce
I0713 13:41:01.844787 27591 net.cpp:425] inception_4d/5x5_reduce <- inception_4c/output_inception_4c/output_0_split_2
I0713 13:41:01.844801 27591 net.cpp:399] inception_4d/5x5_reduce -> inception_4d/5x5_reduce
I0713 13:41:01.847668 27591 net.cpp:141] Setting up inception_4d/5x5_reduce
I0713 13:41:01.847689 27591 net.cpp:148] Top shape: 10 32 14 14 (62720)
I0713 13:41:01.847695 27591 net.cpp:156] Memory required for data: 467138560
I0713 13:41:01.847705 27591 layer_factory.hpp:77] Creating layer inception_4d/relu_5x5_reduce
I0713 13:41:01.847714 27591 net.cpp:91] Creating Layer inception_4d/relu_5x5_reduce
I0713 13:41:01.847721 27591 net.cpp:425] inception_4d/relu_5x5_reduce <- inception_4d/5x5_reduce
I0713 13:41:01.847734 27591 net.cpp:386] inception_4d/relu_5x5_reduce -> inception_4d/5x5_reduce (in-place)
I0713 13:41:01.848036 27591 net.cpp:141] Setting up inception_4d/relu_5x5_reduce
I0713 13:41:01.848052 27591 net.cpp:148] Top shape: 10 32 14 14 (62720)
I0713 13:41:01.848055 27591 net.cpp:156] Memory required for data: 467389440
I0713 13:41:01.848062 27591 layer_factory.hpp:77] Creating layer inception_4d/5x5
I0713 13:41:01.848078 27591 net.cpp:91] Creating Layer inception_4d/5x5
I0713 13:41:01.848085 27591 net.cpp:425] inception_4d/5x5 <- inception_4d/5x5_reduce
I0713 13:41:01.848095 27591 net.cpp:399] inception_4d/5x5 -> inception_4d/5x5
I0713 13:41:01.850895 27591 net.cpp:141] Setting up inception_4d/5x5
I0713 13:41:01.850915 27591 net.cpp:148] Top shape: 10 64 14 14 (125440)
I0713 13:41:01.850920 27591 net.cpp:156] Memory required for data: 467891200
I0713 13:41:01.850930 27591 layer_factory.hpp:77] Creating layer inception_4d/relu_5x5
I0713 13:41:01.850939 27591 net.cpp:91] Creating Layer inception_4d/relu_5x5
I0713 13:41:01.850945 27591 net.cpp:425] inception_4d/relu_5x5 <- inception_4d/5x5
I0713 13:41:01.850957 27591 net.cpp:386] inception_4d/relu_5x5 -> inception_4d/5x5 (in-place)
I0713 13:41:01.851233 27591 net.cpp:141] Setting up inception_4d/relu_5x5
I0713 13:41:01.851251 27591 net.cpp:148] Top shape: 10 64 14 14 (125440)
I0713 13:41:01.851263 27591 net.cpp:156] Memory required for data: 468392960
I0713 13:41:01.851267 27591 layer_factory.hpp:77] Creating layer inception_4d/pool
I0713 13:41:01.851277 27591 net.cpp:91] Creating Layer inception_4d/pool
I0713 13:41:01.851284 27591 net.cpp:425] inception_4d/pool <- inception_4c/output_inception_4c/output_0_split_3
I0713 13:41:01.851291 27591 net.cpp:399] inception_4d/pool -> inception_4d/pool
I0713 13:41:01.851372 27591 net.cpp:141] Setting up inception_4d/pool
I0713 13:41:01.851383 27591 net.cpp:148] Top shape: 10 512 14 14 (1003520)
I0713 13:41:01.851388 27591 net.cpp:156] Memory required for data: 472407040
I0713 13:41:01.851393 27591 layer_factory.hpp:77] Creating layer inception_4d/pool_proj
I0713 13:41:01.851409 27591 net.cpp:91] Creating Layer inception_4d/pool_proj
I0713 13:41:01.851415 27591 net.cpp:425] inception_4d/pool_proj <- inception_4d/pool
I0713 13:41:01.851426 27591 net.cpp:399] inception_4d/pool_proj -> inception_4d/pool_proj
I0713 13:41:01.854110 27591 net.cpp:141] Setting up inception_4d/pool_proj
I0713 13:41:01.854130 27591 net.cpp:148] Top shape: 10 64 14 14 (125440)
I0713 13:41:01.854135 27591 net.cpp:156] Memory required for data: 472908800
I0713 13:41:01.854146 27591 layer_factory.hpp:77] Creating layer inception_4d/relu_pool_proj
I0713 13:41:01.854158 27591 net.cpp:91] Creating Layer inception_4d/relu_pool_proj
I0713 13:41:01.854166 27591 net.cpp:425] inception_4d/relu_pool_proj <- inception_4d/pool_proj
I0713 13:41:01.854173 27591 net.cpp:386] inception_4d/relu_pool_proj -> inception_4d/pool_proj (in-place)
I0713 13:41:01.855020 27591 net.cpp:141] Setting up inception_4d/relu_pool_proj
I0713 13:41:01.855037 27591 net.cpp:148] Top shape: 10 64 14 14 (125440)
I0713 13:41:01.855043 27591 net.cpp:156] Memory required for data: 473410560
I0713 13:41:01.855048 27591 layer_factory.hpp:77] Creating layer inception_4d/output
I0713 13:41:01.855062 27591 net.cpp:91] Creating Layer inception_4d/output
I0713 13:41:01.855068 27591 net.cpp:425] inception_4d/output <- inception_4d/1x1
I0713 13:41:01.855075 27591 net.cpp:425] inception_4d/output <- inception_4d/3x3
I0713 13:41:01.855082 27591 net.cpp:425] inception_4d/output <- inception_4d/5x5
I0713 13:41:01.855087 27591 net.cpp:425] inception_4d/output <- inception_4d/pool_proj
I0713 13:41:01.855095 27591 net.cpp:399] inception_4d/output -> inception_4d/output
I0713 13:41:01.855149 27591 net.cpp:141] Setting up inception_4d/output
I0713 13:41:01.855160 27591 net.cpp:148] Top shape: 10 528 14 14 (1034880)
I0713 13:41:01.855165 27591 net.cpp:156] Memory required for data: 477550080
I0713 13:41:01.855170 27591 layer_factory.hpp:77] Creating layer inception_4d/output_inception_4d/output_0_split
I0713 13:41:01.855178 27591 net.cpp:91] Creating Layer inception_4d/output_inception_4d/output_0_split
I0713 13:41:01.855183 27591 net.cpp:425] inception_4d/output_inception_4d/output_0_split <- inception_4d/output
I0713 13:41:01.855196 27591 net.cpp:399] inception_4d/output_inception_4d/output_0_split -> inception_4d/output_inception_4d/output_0_split_0
I0713 13:41:01.855206 27591 net.cpp:399] inception_4d/output_inception_4d/output_0_split -> inception_4d/output_inception_4d/output_0_split_1
I0713 13:41:01.855216 27591 net.cpp:399] inception_4d/output_inception_4d/output_0_split -> inception_4d/output_inception_4d/output_0_split_2
I0713 13:41:01.855224 27591 net.cpp:399] inception_4d/output_inception_4d/output_0_split -> inception_4d/output_inception_4d/output_0_split_3
I0713 13:41:01.855353 27591 net.cpp:141] Setting up inception_4d/output_inception_4d/output_0_split
I0713 13:41:01.855366 27591 net.cpp:148] Top shape: 10 528 14 14 (1034880)
I0713 13:41:01.855371 27591 net.cpp:148] Top shape: 10 528 14 14 (1034880)
I0713 13:41:01.855377 27591 net.cpp:148] Top shape: 10 528 14 14 (1034880)
I0713 13:41:01.855382 27591 net.cpp:148] Top shape: 10 528 14 14 (1034880)
I0713 13:41:01.855386 27591 net.cpp:156] Memory required for data: 494108160
I0713 13:41:01.855392 27591 layer_factory.hpp:77] Creating layer inception_4e/1x1
I0713 13:41:01.855412 27591 net.cpp:91] Creating Layer inception_4e/1x1
I0713 13:41:01.855418 27591 net.cpp:425] inception_4e/1x1 <- inception_4d/output_inception_4d/output_0_split_0
I0713 13:41:01.855428 27591 net.cpp:399] inception_4e/1x1 -> inception_4e/1x1
I0713 13:41:01.860786 27591 net.cpp:141] Setting up inception_4e/1x1
I0713 13:41:01.860806 27591 net.cpp:148] Top shape: 10 256 14 14 (501760)
I0713 13:41:01.860812 27591 net.cpp:156] Memory required for data: 496115200
I0713 13:41:01.860822 27591 layer_factory.hpp:77] Creating layer inception_4e/relu_1x1
I0713 13:41:01.860836 27591 net.cpp:91] Creating Layer inception_4e/relu_1x1
I0713 13:41:01.860842 27591 net.cpp:425] inception_4e/relu_1x1 <- inception_4e/1x1
I0713 13:41:01.860853 27591 net.cpp:386] inception_4e/relu_1x1 -> inception_4e/1x1 (in-place)
I0713 13:41:01.861141 27591 net.cpp:141] Setting up inception_4e/relu_1x1
I0713 13:41:01.861153 27591 net.cpp:148] Top shape: 10 256 14 14 (501760)
I0713 13:41:01.861158 27591 net.cpp:156] Memory required for data: 498122240
I0713 13:41:01.861163 27591 layer_factory.hpp:77] Creating layer inception_4e/3x3_reduce
I0713 13:41:01.861181 27591 net.cpp:91] Creating Layer inception_4e/3x3_reduce
I0713 13:41:01.861187 27591 net.cpp:425] inception_4e/3x3_reduce <- inception_4d/output_inception_4d/output_0_split_1
I0713 13:41:01.861199 27591 net.cpp:399] inception_4e/3x3_reduce -> inception_4e/3x3_reduce
I0713 13:41:01.864346 27591 net.cpp:141] Setting up inception_4e/3x3_reduce
I0713 13:41:01.864365 27591 net.cpp:148] Top shape: 10 160 14 14 (313600)
I0713 13:41:01.864370 27591 net.cpp:156] Memory required for data: 499376640
I0713 13:41:01.864380 27591 layer_factory.hpp:77] Creating layer inception_4e/relu_3x3_reduce
I0713 13:41:01.864393 27591 net.cpp:91] Creating Layer inception_4e/relu_3x3_reduce
I0713 13:41:01.864400 27591 net.cpp:425] inception_4e/relu_3x3_reduce <- inception_4e/3x3_reduce
I0713 13:41:01.864410 27591 net.cpp:386] inception_4e/relu_3x3_reduce -> inception_4e/3x3_reduce (in-place)
I0713 13:41:01.864689 27591 net.cpp:141] Setting up inception_4e/relu_3x3_reduce
I0713 13:41:01.864702 27591 net.cpp:148] Top shape: 10 160 14 14 (313600)
I0713 13:41:01.864706 27591 net.cpp:156] Memory required for data: 500631040
I0713 13:41:01.864712 27591 layer_factory.hpp:77] Creating layer inception_4e/3x3
I0713 13:41:01.864729 27591 net.cpp:91] Creating Layer inception_4e/3x3
I0713 13:41:01.864735 27591 net.cpp:425] inception_4e/3x3 <- inception_4e/3x3_reduce
I0713 13:41:01.864748 27591 net.cpp:399] inception_4e/3x3 -> inception_4e/3x3
I0713 13:41:01.872726 27591 net.cpp:141] Setting up inception_4e/3x3
I0713 13:41:01.872750 27591 net.cpp:148] Top shape: 10 320 14 14 (627200)
I0713 13:41:01.872756 27591 net.cpp:156] Memory required for data: 503139840
I0713 13:41:01.872766 27591 layer_factory.hpp:77] Creating layer inception_4e/relu_3x3
I0713 13:41:01.872776 27591 net.cpp:91] Creating Layer inception_4e/relu_3x3
I0713 13:41:01.872782 27591 net.cpp:425] inception_4e/relu_3x3 <- inception_4e/3x3
I0713 13:41:01.872789 27591 net.cpp:386] inception_4e/relu_3x3 -> inception_4e/3x3 (in-place)
I0713 13:41:01.873653 27591 net.cpp:141] Setting up inception_4e/relu_3x3
I0713 13:41:01.873672 27591 net.cpp:148] Top shape: 10 320 14 14 (627200)
I0713 13:41:01.873677 27591 net.cpp:156] Memory required for data: 505648640
I0713 13:41:01.873682 27591 layer_factory.hpp:77] Creating layer inception_4e/5x5_reduce
I0713 13:41:01.873703 27591 net.cpp:91] Creating Layer inception_4e/5x5_reduce
I0713 13:41:01.873710 27591 net.cpp:425] inception_4e/5x5_reduce <- inception_4d/output_inception_4d/output_0_split_2
I0713 13:41:01.873723 27591 net.cpp:399] inception_4e/5x5_reduce -> inception_4e/5x5_reduce
I0713 13:41:01.876366 27591 net.cpp:141] Setting up inception_4e/5x5_reduce
I0713 13:41:01.876386 27591 net.cpp:148] Top shape: 10 32 14 14 (62720)
I0713 13:41:01.876392 27591 net.cpp:156] Memory required for data: 505899520
I0713 13:41:01.876401 27591 layer_factory.hpp:77] Creating layer inception_4e/relu_5x5_reduce
I0713 13:41:01.876413 27591 net.cpp:91] Creating Layer inception_4e/relu_5x5_reduce
I0713 13:41:01.876423 27591 net.cpp:425] inception_4e/relu_5x5_reduce <- inception_4e/5x5_reduce
I0713 13:41:01.876431 27591 net.cpp:386] inception_4e/relu_5x5_reduce -> inception_4e/5x5_reduce (in-place)
I0713 13:41:01.876709 27591 net.cpp:141] Setting up inception_4e/relu_5x5_reduce
I0713 13:41:01.876723 27591 net.cpp:148] Top shape: 10 32 14 14 (62720)
I0713 13:41:01.876726 27591 net.cpp:156] Memory required for data: 506150400
I0713 13:41:01.876732 27591 layer_factory.hpp:77] Creating layer inception_4e/5x5
I0713 13:41:01.876757 27591 net.cpp:91] Creating Layer inception_4e/5x5
I0713 13:41:01.876765 27591 net.cpp:425] inception_4e/5x5 <- inception_4e/5x5_reduce
I0713 13:41:01.876773 27591 net.cpp:399] inception_4e/5x5 -> inception_4e/5x5
I0713 13:41:01.881263 27591 net.cpp:141] Setting up inception_4e/5x5
I0713 13:41:01.881283 27591 net.cpp:148] Top shape: 10 128 14 14 (250880)
I0713 13:41:01.881288 27591 net.cpp:156] Memory required for data: 507153920
I0713 13:41:01.881297 27591 layer_factory.hpp:77] Creating layer inception_4e/relu_5x5
I0713 13:41:01.881307 27591 net.cpp:91] Creating Layer inception_4e/relu_5x5
I0713 13:41:01.881317 27591 net.cpp:425] inception_4e/relu_5x5 <- inception_4e/5x5
I0713 13:41:01.881325 27591 net.cpp:386] inception_4e/relu_5x5 -> inception_4e/5x5 (in-place)
I0713 13:41:01.881603 27591 net.cpp:141] Setting up inception_4e/relu_5x5
I0713 13:41:01.881616 27591 net.cpp:148] Top shape: 10 128 14 14 (250880)
I0713 13:41:01.881621 27591 net.cpp:156] Memory required for data: 508157440
I0713 13:41:01.881626 27591 layer_factory.hpp:77] Creating layer inception_4e/pool
I0713 13:41:01.881640 27591 net.cpp:91] Creating Layer inception_4e/pool
I0713 13:41:01.881646 27591 net.cpp:425] inception_4e/pool <- inception_4d/output_inception_4d/output_0_split_3
I0713 13:41:01.881654 27591 net.cpp:399] inception_4e/pool -> inception_4e/pool
I0713 13:41:01.881738 27591 net.cpp:141] Setting up inception_4e/pool
I0713 13:41:01.881749 27591 net.cpp:148] Top shape: 10 528 14 14 (1034880)
I0713 13:41:01.881753 27591 net.cpp:156] Memory required for data: 512296960
I0713 13:41:01.881758 27591 layer_factory.hpp:77] Creating layer inception_4e/pool_proj
I0713 13:41:01.881773 27591 net.cpp:91] Creating Layer inception_4e/pool_proj
I0713 13:41:01.881780 27591 net.cpp:425] inception_4e/pool_proj <- inception_4e/pool
I0713 13:41:01.881793 27591 net.cpp:399] inception_4e/pool_proj -> inception_4e/pool_proj
I0713 13:41:01.885085 27591 net.cpp:141] Setting up inception_4e/pool_proj
I0713 13:41:01.885108 27591 net.cpp:148] Top shape: 10 128 14 14 (250880)
I0713 13:41:01.885114 27591 net.cpp:156] Memory required for data: 513300480
I0713 13:41:01.885124 27591 layer_factory.hpp:77] Creating layer inception_4e/relu_pool_proj
I0713 13:41:01.885134 27591 net.cpp:91] Creating Layer inception_4e/relu_pool_proj
I0713 13:41:01.885141 27591 net.cpp:425] inception_4e/relu_pool_proj <- inception_4e/pool_proj
I0713 13:41:01.885149 27591 net.cpp:386] inception_4e/relu_pool_proj -> inception_4e/pool_proj (in-place)
I0713 13:41:01.886003 27591 net.cpp:141] Setting up inception_4e/relu_pool_proj
I0713 13:41:01.886021 27591 net.cpp:148] Top shape: 10 128 14 14 (250880)
I0713 13:41:01.886026 27591 net.cpp:156] Memory required for data: 514304000
I0713 13:41:01.886032 27591 layer_factory.hpp:77] Creating layer inception_4e/output
I0713 13:41:01.886042 27591 net.cpp:91] Creating Layer inception_4e/output
I0713 13:41:01.886049 27591 net.cpp:425] inception_4e/output <- inception_4e/1x1
I0713 13:41:01.886055 27591 net.cpp:425] inception_4e/output <- inception_4e/3x3
I0713 13:41:01.886061 27591 net.cpp:425] inception_4e/output <- inception_4e/5x5
I0713 13:41:01.886067 27591 net.cpp:425] inception_4e/output <- inception_4e/pool_proj
I0713 13:41:01.886078 27591 net.cpp:399] inception_4e/output -> inception_4e/output
I0713 13:41:01.886132 27591 net.cpp:141] Setting up inception_4e/output
I0713 13:41:01.886147 27591 net.cpp:148] Top shape: 10 832 14 14 (1630720)
I0713 13:41:01.886152 27591 net.cpp:156] Memory required for data: 520826880
I0713 13:41:01.886157 27591 layer_factory.hpp:77] Creating layer pool4/3x3_s2
I0713 13:41:01.886165 27591 net.cpp:91] Creating Layer pool4/3x3_s2
I0713 13:41:01.886171 27591 net.cpp:425] pool4/3x3_s2 <- inception_4e/output
I0713 13:41:01.886179 27591 net.cpp:399] pool4/3x3_s2 -> pool4/3x3_s2
I0713 13:41:01.886255 27591 net.cpp:141] Setting up pool4/3x3_s2
I0713 13:41:01.886265 27591 net.cpp:148] Top shape: 10 832 7 7 (407680)
I0713 13:41:01.886270 27591 net.cpp:156] Memory required for data: 522457600
I0713 13:41:01.886274 27591 layer_factory.hpp:77] Creating layer pool4/3x3_s2_pool4/3x3_s2_0_split
I0713 13:41:01.886283 27591 net.cpp:91] Creating Layer pool4/3x3_s2_pool4/3x3_s2_0_split
I0713 13:41:01.886288 27591 net.cpp:425] pool4/3x3_s2_pool4/3x3_s2_0_split <- pool4/3x3_s2
I0713 13:41:01.886299 27591 net.cpp:399] pool4/3x3_s2_pool4/3x3_s2_0_split -> pool4/3x3_s2_pool4/3x3_s2_0_split_0
I0713 13:41:01.886308 27591 net.cpp:399] pool4/3x3_s2_pool4/3x3_s2_0_split -> pool4/3x3_s2_pool4/3x3_s2_0_split_1
I0713 13:41:01.886317 27591 net.cpp:399] pool4/3x3_s2_pool4/3x3_s2_0_split -> pool4/3x3_s2_pool4/3x3_s2_0_split_2
I0713 13:41:01.886327 27591 net.cpp:399] pool4/3x3_s2_pool4/3x3_s2_0_split -> pool4/3x3_s2_pool4/3x3_s2_0_split_3
I0713 13:41:01.886441 27591 net.cpp:141] Setting up pool4/3x3_s2_pool4/3x3_s2_0_split
I0713 13:41:01.886457 27591 net.cpp:148] Top shape: 10 832 7 7 (407680)
I0713 13:41:01.886469 27591 net.cpp:148] Top shape: 10 832 7 7 (407680)
I0713 13:41:01.886477 27591 net.cpp:148] Top shape: 10 832 7 7 (407680)
I0713 13:41:01.886482 27591 net.cpp:148] Top shape: 10 832 7 7 (407680)
I0713 13:41:01.886487 27591 net.cpp:156] Memory required for data: 528980480
I0713 13:41:01.886492 27591 layer_factory.hpp:77] Creating layer inception_5a/1x1
I0713 13:41:01.886508 27591 net.cpp:91] Creating Layer inception_5a/1x1
I0713 13:41:01.886515 27591 net.cpp:425] inception_5a/1x1 <- pool4/3x3_s2_pool4/3x3_s2_0_split_0
I0713 13:41:01.886526 27591 net.cpp:399] inception_5a/1x1 -> inception_5a/1x1
I0713 13:41:01.892107 27591 net.cpp:141] Setting up inception_5a/1x1
I0713 13:41:01.892130 27591 net.cpp:148] Top shape: 10 256 7 7 (125440)
I0713 13:41:01.892137 27591 net.cpp:156] Memory required for data: 529482240
I0713 13:41:01.892146 27591 layer_factory.hpp:77] Creating layer inception_5a/relu_1x1
I0713 13:41:01.892161 27591 net.cpp:91] Creating Layer inception_5a/relu_1x1
I0713 13:41:01.892168 27591 net.cpp:425] inception_5a/relu_1x1 <- inception_5a/1x1
I0713 13:41:01.892177 27591 net.cpp:386] inception_5a/relu_1x1 -> inception_5a/1x1 (in-place)
I0713 13:41:01.892465 27591 net.cpp:141] Setting up inception_5a/relu_1x1
I0713 13:41:01.892478 27591 net.cpp:148] Top shape: 10 256 7 7 (125440)
I0713 13:41:01.892482 27591 net.cpp:156] Memory required for data: 529984000
I0713 13:41:01.892488 27591 layer_factory.hpp:77] Creating layer inception_5a/3x3_reduce
I0713 13:41:01.892505 27591 net.cpp:91] Creating Layer inception_5a/3x3_reduce
I0713 13:41:01.892513 27591 net.cpp:425] inception_5a/3x3_reduce <- pool4/3x3_s2_pool4/3x3_s2_0_split_1
I0713 13:41:01.892525 27591 net.cpp:399] inception_5a/3x3_reduce -> inception_5a/3x3_reduce
I0713 13:41:01.897380 27591 net.cpp:141] Setting up inception_5a/3x3_reduce
I0713 13:41:01.897403 27591 net.cpp:148] Top shape: 10 160 7 7 (78400)
I0713 13:41:01.897408 27591 net.cpp:156] Memory required for data: 530297600
I0713 13:41:01.897418 27591 layer_factory.hpp:77] Creating layer inception_5a/relu_3x3_reduce
I0713 13:41:01.897430 27591 net.cpp:91] Creating Layer inception_5a/relu_3x3_reduce
I0713 13:41:01.897438 27591 net.cpp:425] inception_5a/relu_3x3_reduce <- inception_5a/3x3_reduce
I0713 13:41:01.897445 27591 net.cpp:386] inception_5a/relu_3x3_reduce -> inception_5a/3x3_reduce (in-place)
I0713 13:41:01.897737 27591 net.cpp:141] Setting up inception_5a/relu_3x3_reduce
I0713 13:41:01.897748 27591 net.cpp:148] Top shape: 10 160 7 7 (78400)
I0713 13:41:01.897753 27591 net.cpp:156] Memory required for data: 530611200
I0713 13:41:01.897758 27591 layer_factory.hpp:77] Creating layer inception_5a/3x3
I0713 13:41:01.897775 27591 net.cpp:91] Creating Layer inception_5a/3x3
I0713 13:41:01.897783 27591 net.cpp:425] inception_5a/3x3 <- inception_5a/3x3_reduce
I0713 13:41:01.897794 27591 net.cpp:399] inception_5a/3x3 -> inception_5a/3x3
I0713 13:41:01.907441 27591 net.cpp:141] Setting up inception_5a/3x3
I0713 13:41:01.907465 27591 net.cpp:148] Top shape: 10 320 7 7 (156800)
I0713 13:41:01.907471 27591 net.cpp:156] Memory required for data: 531238400
I0713 13:41:01.907482 27591 layer_factory.hpp:77] Creating layer inception_5a/relu_3x3
I0713 13:41:01.907492 27591 net.cpp:91] Creating Layer inception_5a/relu_3x3
I0713 13:41:01.907500 27591 net.cpp:425] inception_5a/relu_3x3 <- inception_5a/3x3
I0713 13:41:01.907511 27591 net.cpp:386] inception_5a/relu_3x3 -> inception_5a/3x3 (in-place)
I0713 13:41:01.908363 27591 net.cpp:141] Setting up inception_5a/relu_3x3
I0713 13:41:01.908386 27591 net.cpp:148] Top shape: 10 320 7 7 (156800)
I0713 13:41:01.908392 27591 net.cpp:156] Memory required for data: 531865600
I0713 13:41:01.908397 27591 layer_factory.hpp:77] Creating layer inception_5a/5x5_reduce
I0713 13:41:01.908416 27591 net.cpp:91] Creating Layer inception_5a/5x5_reduce
I0713 13:41:01.908423 27591 net.cpp:425] inception_5a/5x5_reduce <- pool4/3x3_s2_pool4/3x3_s2_0_split_2
I0713 13:41:01.908437 27591 net.cpp:399] inception_5a/5x5_reduce -> inception_5a/5x5_reduce
I0713 13:41:01.911219 27591 net.cpp:141] Setting up inception_5a/5x5_reduce
I0713 13:41:01.911240 27591 net.cpp:148] Top shape: 10 32 7 7 (15680)
I0713 13:41:01.911247 27591 net.cpp:156] Memory required for data: 531928320
I0713 13:41:01.911257 27591 layer_factory.hpp:77] Creating layer inception_5a/relu_5x5_reduce
I0713 13:41:01.911270 27591 net.cpp:91] Creating Layer inception_5a/relu_5x5_reduce
I0713 13:41:01.911278 27591 net.cpp:425] inception_5a/relu_5x5_reduce <- inception_5a/5x5_reduce
I0713 13:41:01.911288 27591 net.cpp:386] inception_5a/relu_5x5_reduce -> inception_5a/5x5_reduce (in-place)
I0713 13:41:01.911696 27591 net.cpp:141] Setting up inception_5a/relu_5x5_reduce
I0713 13:41:01.911718 27591 net.cpp:148] Top shape: 10 32 7 7 (15680)
I0713 13:41:01.911728 27591 net.cpp:156] Memory required for data: 531991040
I0713 13:41:01.911738 27591 layer_factory.hpp:77] Creating layer inception_5a/5x5
I0713 13:41:01.911767 27591 net.cpp:91] Creating Layer inception_5a/5x5
I0713 13:41:01.911779 27591 net.cpp:425] inception_5a/5x5 <- inception_5a/5x5_reduce
I0713 13:41:01.911801 27591 net.cpp:399] inception_5a/5x5 -> inception_5a/5x5
I0713 13:41:01.917388 27591 net.cpp:141] Setting up inception_5a/5x5
I0713 13:41:01.917426 27591 net.cpp:148] Top shape: 10 128 7 7 (62720)
I0713 13:41:01.917439 27591 net.cpp:156] Memory required for data: 532241920
I0713 13:41:01.917459 27591 layer_factory.hpp:77] Creating layer inception_5a/relu_5x5
I0713 13:41:01.917515 27591 net.cpp:91] Creating Layer inception_5a/relu_5x5
I0713 13:41:01.917532 27591 net.cpp:425] inception_5a/relu_5x5 <- inception_5a/5x5
I0713 13:41:01.917556 27591 net.cpp:386] inception_5a/relu_5x5 -> inception_5a/5x5 (in-place)
I0713 13:41:01.918035 27591 net.cpp:141] Setting up inception_5a/relu_5x5
I0713 13:41:01.918062 27591 net.cpp:148] Top shape: 10 128 7 7 (62720)
I0713 13:41:01.918073 27591 net.cpp:156] Memory required for data: 532492800
I0713 13:41:01.918084 27591 layer_factory.hpp:77] Creating layer inception_5a/pool
I0713 13:41:01.918108 27591 net.cpp:91] Creating Layer inception_5a/pool
I0713 13:41:01.918123 27591 net.cpp:425] inception_5a/pool <- pool4/3x3_s2_pool4/3x3_s2_0_split_3
I0713 13:41:01.918139 27591 net.cpp:399] inception_5a/pool -> inception_5a/pool
I0713 13:41:01.918293 27591 net.cpp:141] Setting up inception_5a/pool
I0713 13:41:01.918313 27591 net.cpp:148] Top shape: 10 832 7 7 (407680)
I0713 13:41:01.918323 27591 net.cpp:156] Memory required for data: 534123520
I0713 13:41:01.918332 27591 layer_factory.hpp:77] Creating layer inception_5a/pool_proj
I0713 13:41:01.918362 27591 net.cpp:91] Creating Layer inception_5a/pool_proj
I0713 13:41:01.918376 27591 net.cpp:425] inception_5a/pool_proj <- inception_5a/pool
I0713 13:41:01.918401 27591 net.cpp:399] inception_5a/pool_proj -> inception_5a/pool_proj
I0713 13:41:01.925542 27591 net.cpp:141] Setting up inception_5a/pool_proj
I0713 13:41:01.925576 27591 net.cpp:148] Top shape: 10 128 7 7 (62720)
I0713 13:41:01.925595 27591 net.cpp:156] Memory required for data: 534374400
I0713 13:41:01.925613 27591 layer_factory.hpp:77] Creating layer inception_5a/relu_pool_proj
I0713 13:41:01.925632 27591 net.cpp:91] Creating Layer inception_5a/relu_pool_proj
I0713 13:41:01.925644 27591 net.cpp:425] inception_5a/relu_pool_proj <- inception_5a/pool_proj
I0713 13:41:01.925659 27591 net.cpp:386] inception_5a/relu_pool_proj -> inception_5a/pool_proj (in-place)
I0713 13:41:01.926924 27591 net.cpp:141] Setting up inception_5a/relu_pool_proj
I0713 13:41:01.926956 27591 net.cpp:148] Top shape: 10 128 7 7 (62720)
I0713 13:41:01.926969 27591 net.cpp:156] Memory required for data: 534625280
I0713 13:41:01.926980 27591 layer_factory.hpp:77] Creating layer inception_5a/output
I0713 13:41:01.926995 27591 net.cpp:91] Creating Layer inception_5a/output
I0713 13:41:01.927008 27591 net.cpp:425] inception_5a/output <- inception_5a/1x1
I0713 13:41:01.927022 27591 net.cpp:425] inception_5a/output <- inception_5a/3x3
I0713 13:41:01.927034 27591 net.cpp:425] inception_5a/output <- inception_5a/5x5
I0713 13:41:01.927045 27591 net.cpp:425] inception_5a/output <- inception_5a/pool_proj
I0713 13:41:01.927062 27591 net.cpp:399] inception_5a/output -> inception_5a/output
I0713 13:41:01.927153 27591 net.cpp:141] Setting up inception_5a/output
I0713 13:41:01.927172 27591 net.cpp:148] Top shape: 10 832 7 7 (407680)
I0713 13:41:01.927181 27591 net.cpp:156] Memory required for data: 536256000
I0713 13:41:01.927191 27591 layer_factory.hpp:77] Creating layer inception_5a/output_inception_5a/output_0_split
I0713 13:41:01.927209 27591 net.cpp:91] Creating Layer inception_5a/output_inception_5a/output_0_split
I0713 13:41:01.927220 27591 net.cpp:425] inception_5a/output_inception_5a/output_0_split <- inception_5a/output
I0713 13:41:01.927235 27591 net.cpp:399] inception_5a/output_inception_5a/output_0_split -> inception_5a/output_inception_5a/output_0_split_0
I0713 13:41:01.927255 27591 net.cpp:399] inception_5a/output_inception_5a/output_0_split -> inception_5a/output_inception_5a/output_0_split_1
I0713 13:41:01.927275 27591 net.cpp:399] inception_5a/output_inception_5a/output_0_split -> inception_5a/output_inception_5a/output_0_split_2
I0713 13:41:01.927294 27591 net.cpp:399] inception_5a/output_inception_5a/output_0_split -> inception_5a/output_inception_5a/output_0_split_3
I0713 13:41:01.927541 27591 net.cpp:141] Setting up inception_5a/output_inception_5a/output_0_split
I0713 13:41:01.927562 27591 net.cpp:148] Top shape: 10 832 7 7 (407680)
I0713 13:41:01.927577 27591 net.cpp:148] Top shape: 10 832 7 7 (407680)
I0713 13:41:01.927588 27591 net.cpp:148] Top shape: 10 832 7 7 (407680)
I0713 13:41:01.927599 27591 net.cpp:148] Top shape: 10 832 7 7 (407680)
I0713 13:41:01.927608 27591 net.cpp:156] Memory required for data: 542778880
I0713 13:41:01.927618 27591 layer_factory.hpp:77] Creating layer inception_5b/1x1
I0713 13:41:01.927646 27591 net.cpp:91] Creating Layer inception_5b/1x1
I0713 13:41:01.927660 27591 net.cpp:425] inception_5b/1x1 <- inception_5a/output_inception_5a/output_0_split_0
I0713 13:41:01.927685 27591 net.cpp:399] inception_5b/1x1 -> inception_5b/1x1
I0713 13:41:01.937638 27591 net.cpp:141] Setting up inception_5b/1x1
I0713 13:41:01.937674 27591 net.cpp:148] Top shape: 10 384 7 7 (188160)
I0713 13:41:01.937685 27591 net.cpp:156] Memory required for data: 543531520
I0713 13:41:01.937705 27591 layer_factory.hpp:77] Creating layer inception_5b/relu_1x1
I0713 13:41:01.937728 27591 net.cpp:91] Creating Layer inception_5b/relu_1x1
I0713 13:41:01.937741 27591 net.cpp:425] inception_5b/relu_1x1 <- inception_5b/1x1
I0713 13:41:01.937762 27591 net.cpp:386] inception_5b/relu_1x1 -> inception_5b/1x1 (in-place)
I0713 13:41:01.938253 27591 net.cpp:141] Setting up inception_5b/relu_1x1
I0713 13:41:01.938276 27591 net.cpp:148] Top shape: 10 384 7 7 (188160)
I0713 13:41:01.938284 27591 net.cpp:156] Memory required for data: 544284160
I0713 13:41:01.938294 27591 layer_factory.hpp:77] Creating layer inception_5b/3x3_reduce
I0713 13:41:01.938326 27591 net.cpp:91] Creating Layer inception_5b/3x3_reduce
I0713 13:41:01.938340 27591 net.cpp:425] inception_5b/3x3_reduce <- inception_5a/output_inception_5a/output_0_split_1
I0713 13:41:01.938359 27591 net.cpp:399] inception_5b/3x3_reduce -> inception_5b/3x3_reduce
I0713 13:41:01.945925 27591 net.cpp:141] Setting up inception_5b/3x3_reduce
I0713 13:41:01.945957 27591 net.cpp:148] Top shape: 10 192 7 7 (94080)
I0713 13:41:01.945968 27591 net.cpp:156] Memory required for data: 544660480
I0713 13:41:01.945986 27591 layer_factory.hpp:77] Creating layer inception_5b/relu_3x3_reduce
I0713 13:41:01.946008 27591 net.cpp:91] Creating Layer inception_5b/relu_3x3_reduce
I0713 13:41:01.946020 27591 net.cpp:425] inception_5b/relu_3x3_reduce <- inception_5b/3x3_reduce
I0713 13:41:01.946035 27591 net.cpp:386] inception_5b/relu_3x3_reduce -> inception_5b/3x3_reduce (in-place)
I0713 13:41:01.946518 27591 net.cpp:141] Setting up inception_5b/relu_3x3_reduce
I0713 13:41:01.946545 27591 net.cpp:148] Top shape: 10 192 7 7 (94080)
I0713 13:41:01.946555 27591 net.cpp:156] Memory required for data: 545036800
I0713 13:41:01.946565 27591 layer_factory.hpp:77] Creating layer inception_5b/3x3
I0713 13:41:01.946601 27591 net.cpp:91] Creating Layer inception_5b/3x3
I0713 13:41:01.946615 27591 net.cpp:425] inception_5b/3x3 <- inception_5b/3x3_reduce
I0713 13:41:01.946643 27591 net.cpp:399] inception_5b/3x3 -> inception_5b/3x3
I0713 13:41:01.958380 27591 net.cpp:141] Setting up inception_5b/3x3
I0713 13:41:01.958420 27591 net.cpp:148] Top shape: 10 384 7 7 (188160)
I0713 13:41:01.958426 27591 net.cpp:156] Memory required for data: 545789440
I0713 13:41:01.958438 27591 layer_factory.hpp:77] Creating layer inception_5b/relu_3x3
I0713 13:41:01.958451 27591 net.cpp:91] Creating Layer inception_5b/relu_3x3
I0713 13:41:01.958458 27591 net.cpp:425] inception_5b/relu_3x3 <- inception_5b/3x3
I0713 13:41:01.958467 27591 net.cpp:386] inception_5b/relu_3x3 -> inception_5b/3x3 (in-place)
I0713 13:41:01.959342 27591 net.cpp:141] Setting up inception_5b/relu_3x3
I0713 13:41:01.959362 27591 net.cpp:148] Top shape: 10 384 7 7 (188160)
I0713 13:41:01.959367 27591 net.cpp:156] Memory required for data: 546542080
I0713 13:41:01.959372 27591 layer_factory.hpp:77] Creating layer inception_5b/5x5_reduce
I0713 13:41:01.959393 27591 net.cpp:91] Creating Layer inception_5b/5x5_reduce
I0713 13:41:01.959401 27591 net.cpp:425] inception_5b/5x5_reduce <- inception_5a/output_inception_5a/output_0_split_2
I0713 13:41:01.959414 27591 net.cpp:399] inception_5b/5x5_reduce -> inception_5b/5x5_reduce
I0713 13:41:01.962368 27591 net.cpp:141] Setting up inception_5b/5x5_reduce
I0713 13:41:01.962388 27591 net.cpp:148] Top shape: 10 48 7 7 (23520)
I0713 13:41:01.962394 27591 net.cpp:156] Memory required for data: 546636160
I0713 13:41:01.962405 27591 layer_factory.hpp:77] Creating layer inception_5b/relu_5x5_reduce
I0713 13:41:01.962420 27591 net.cpp:91] Creating Layer inception_5b/relu_5x5_reduce
I0713 13:41:01.962427 27591 net.cpp:425] inception_5b/relu_5x5_reduce <- inception_5b/5x5_reduce
I0713 13:41:01.962435 27591 net.cpp:386] inception_5b/relu_5x5_reduce -> inception_5b/5x5_reduce (in-place)
I0713 13:41:01.962728 27591 net.cpp:141] Setting up inception_5b/relu_5x5_reduce
I0713 13:41:01.962743 27591 net.cpp:148] Top shape: 10 48 7 7 (23520)
I0713 13:41:01.962749 27591 net.cpp:156] Memory required for data: 546730240
I0713 13:41:01.962754 27591 layer_factory.hpp:77] Creating layer inception_5b/5x5
I0713 13:41:01.962769 27591 net.cpp:91] Creating Layer inception_5b/5x5
I0713 13:41:01.962774 27591 net.cpp:425] inception_5b/5x5 <- inception_5b/5x5_reduce
I0713 13:41:01.962788 27591 net.cpp:399] inception_5b/5x5 -> inception_5b/5x5
I0713 13:41:01.967355 27591 net.cpp:141] Setting up inception_5b/5x5
I0713 13:41:01.967376 27591 net.cpp:148] Top shape: 10 128 7 7 (62720)
I0713 13:41:01.967382 27591 net.cpp:156] Memory required for data: 546981120
I0713 13:41:01.967392 27591 layer_factory.hpp:77] Creating layer inception_5b/relu_5x5
I0713 13:41:01.967406 27591 net.cpp:91] Creating Layer inception_5b/relu_5x5
I0713 13:41:01.967413 27591 net.cpp:425] inception_5b/relu_5x5 <- inception_5b/5x5
I0713 13:41:01.967422 27591 net.cpp:386] inception_5b/relu_5x5 -> inception_5b/5x5 (in-place)
I0713 13:41:01.967710 27591 net.cpp:141] Setting up inception_5b/relu_5x5
I0713 13:41:01.967723 27591 net.cpp:148] Top shape: 10 128 7 7 (62720)
I0713 13:41:01.967728 27591 net.cpp:156] Memory required for data: 547232000
I0713 13:41:01.967733 27591 layer_factory.hpp:77] Creating layer inception_5b/pool
I0713 13:41:01.967743 27591 net.cpp:91] Creating Layer inception_5b/pool
I0713 13:41:01.967749 27591 net.cpp:425] inception_5b/pool <- inception_5a/output_inception_5a/output_0_split_3
I0713 13:41:01.967761 27591 net.cpp:399] inception_5b/pool -> inception_5b/pool
I0713 13:41:01.967849 27591 net.cpp:141] Setting up inception_5b/pool
I0713 13:41:01.967860 27591 net.cpp:148] Top shape: 10 832 7 7 (407680)
I0713 13:41:01.967865 27591 net.cpp:156] Memory required for data: 548862720
I0713 13:41:01.967869 27591 layer_factory.hpp:77] Creating layer inception_5b/pool_proj
I0713 13:41:01.967891 27591 net.cpp:91] Creating Layer inception_5b/pool_proj
I0713 13:41:01.967898 27591 net.cpp:425] inception_5b/pool_proj <- inception_5b/pool
I0713 13:41:01.967907 27591 net.cpp:399] inception_5b/pool_proj -> inception_5b/pool_proj
I0713 13:41:01.972687 27591 net.cpp:141] Setting up inception_5b/pool_proj
I0713 13:41:01.972720 27591 net.cpp:148] Top shape: 10 128 7 7 (62720)
I0713 13:41:01.972726 27591 net.cpp:156] Memory required for data: 549113600
I0713 13:41:01.972738 27591 layer_factory.hpp:77] Creating layer inception_5b/relu_pool_proj
I0713 13:41:01.972748 27591 net.cpp:91] Creating Layer inception_5b/relu_pool_proj
I0713 13:41:01.972754 27591 net.cpp:425] inception_5b/relu_pool_proj <- inception_5b/pool_proj
I0713 13:41:01.972762 27591 net.cpp:386] inception_5b/relu_pool_proj -> inception_5b/pool_proj (in-place)
I0713 13:41:01.973628 27591 net.cpp:141] Setting up inception_5b/relu_pool_proj
I0713 13:41:01.973647 27591 net.cpp:148] Top shape: 10 128 7 7 (62720)
I0713 13:41:01.973652 27591 net.cpp:156] Memory required for data: 549364480
I0713 13:41:01.973659 27591 layer_factory.hpp:77] Creating layer inception_5b/output
I0713 13:41:01.973669 27591 net.cpp:91] Creating Layer inception_5b/output
I0713 13:41:01.973675 27591 net.cpp:425] inception_5b/output <- inception_5b/1x1
I0713 13:41:01.973681 27591 net.cpp:425] inception_5b/output <- inception_5b/3x3
I0713 13:41:01.973687 27591 net.cpp:425] inception_5b/output <- inception_5b/5x5
I0713 13:41:01.973692 27591 net.cpp:425] inception_5b/output <- inception_5b/pool_proj
I0713 13:41:01.973701 27591 net.cpp:399] inception_5b/output -> inception_5b/output
I0713 13:41:01.973764 27591 net.cpp:141] Setting up inception_5b/output
I0713 13:41:01.973775 27591 net.cpp:148] Top shape: 10 1024 7 7 (501760)
I0713 13:41:01.973779 27591 net.cpp:156] Memory required for data: 551371520
I0713 13:41:01.973784 27591 layer_factory.hpp:77] Creating layer pool5/7x7_s1
I0713 13:41:01.973795 27591 net.cpp:91] Creating Layer pool5/7x7_s1
I0713 13:41:01.973801 27591 net.cpp:425] pool5/7x7_s1 <- inception_5b/output
I0713 13:41:01.973809 27591 net.cpp:399] pool5/7x7_s1 -> pool5/7x7_s1
I0713 13:41:01.974162 27591 net.cpp:141] Setting up pool5/7x7_s1
I0713 13:41:01.974176 27591 net.cpp:148] Top shape: 10 1024 1 1 (10240)
I0713 13:41:01.974181 27591 net.cpp:156] Memory required for data: 551412480
I0713 13:41:01.974186 27591 layer_factory.hpp:77] Creating layer pool5/drop_7x7_s1
I0713 13:41:01.974202 27591 net.cpp:91] Creating Layer pool5/drop_7x7_s1
I0713 13:41:01.974208 27591 net.cpp:425] pool5/drop_7x7_s1 <- pool5/7x7_s1
I0713 13:41:01.974218 27591 net.cpp:386] pool5/drop_7x7_s1 -> pool5/7x7_s1 (in-place)
I0713 13:41:01.974275 27591 net.cpp:141] Setting up pool5/drop_7x7_s1
I0713 13:41:01.974288 27591 net.cpp:148] Top shape: 10 1024 1 1 (10240)
I0713 13:41:01.974293 27591 net.cpp:156] Memory required for data: 551453440
I0713 13:41:01.974298 27591 layer_factory.hpp:77] Creating layer loss3/classifier
I0713 13:41:01.974315 27591 net.cpp:91] Creating Layer loss3/classifier
I0713 13:41:01.974320 27591 net.cpp:425] loss3/classifier <- pool5/7x7_s1
I0713 13:41:01.974334 27591 net.cpp:399] loss3/classifier -> loss3/classifier
I0713 13:41:01.986140 27591 net.cpp:141] Setting up loss3/classifier
I0713 13:41:01.986171 27591 net.cpp:148] Top shape: 10 1000 (10000)
I0713 13:41:01.986177 27591 net.cpp:156] Memory required for data: 551493440
I0713 13:41:01.986188 27591 layer_factory.hpp:77] Creating layer prob
I0713 13:41:01.986201 27591 net.cpp:91] Creating Layer prob
I0713 13:41:01.986207 27591 net.cpp:425] prob <- loss3/classifier
I0713 13:41:01.986217 27591 net.cpp:399] prob -> prob
I0713 13:41:01.987624 27591 net.cpp:141] Setting up prob
I0713 13:41:01.987643 27591 net.cpp:148] Top shape: 10 1000 (10000)
I0713 13:41:01.987649 27591 net.cpp:156] Memory required for data: 551533440
I0713 13:41:01.987654 27591 net.cpp:219] prob does not need backward computation.
I0713 13:41:01.987660 27591 net.cpp:219] loss3/classifier does not need backward computation.
I0713 13:41:01.987665 27591 net.cpp:219] pool5/drop_7x7_s1 does not need backward computation.
I0713 13:41:01.987669 27591 net.cpp:219] pool5/7x7_s1 does not need backward computation.
…
