…
W0925 23:25:45.988523  2429 upgrade_proto.cpp:71] Note that future Caffe releases will only support input layers and not input fields.
I0925 23:25:45.988528  2423 upgrade_proto.cpp:69] Successfully upgraded file specified using deprecated input fields.
W0925 23:25:45.988539  2423 upgrade_proto.cpp:71] Note that future Caffe releases will only support input layers and not input fields.
I0925 23:25:45.988636  2415 net.cpp:49] Initializing net from parameters: 
name: "CaffeNet"
state {
  phase: TEST
}
layer {
  name: "data"
  type: "Input"
  top: "data"
  input_param {
    shape {
      dim: 10
      dim: 3
      dim: 227
      dim: 227
    }
  }
}
layer {
  name: "conv1"
  type: "Convolution"
  bottom: "data"
  top: "conv1"
  convolution_param {
    num_output: 96
    kernel_size: 11
    stride: 4
  }
}
layer {
  name: "relu1"
  type: "ReLU"
  bottom: "conv1"
  top: "conv1"
}
layer {
  name: "pool1"
  type: "Pooling"
  bottom: "conv1"
  top: "pool1"
  pooling_param {
    pool: MAX
    kernel_size: 3
    stride: 2
  }
}
layer {
  name: "norm1"
  type: "LRN"
  bottom: "pool1"
  top: "norm1"
  lrn_param {
    local_size: 5
    alpha: 0.0001
    beta: 0.75
  }
}
layer {
  name: "conv2"
  type: "Convolution"
  bottom: "norm1"
  top: "conv2"
  convolution_param {
    num_output: 256
    pad: 2
    kernel_size: 5
    group: 2
  }
}
layer {
  name: "relu2"
  type: "ReLU"
  bottom: "conv2"
  top: "conv2"
}
layer {
  name: "pool2"
  type: "Pooling"
  bottom: "conv2"
  top: "pool2"
  pooling_param {
    pool: MAX
    kernel_size: 3
    stride: 2
  }
}
layer {
  name: "norm2"
  type: "LRN"
  bottom: "pool2"
  top: "norm2"
  lrn_param {
    local_size: 5
    alpha: 0.0001
    beta: 0.75
  }
}
layer {
  name: "conv3"
  type: "Convolution"
  bottom: "norm2"
  top: "conv3"
  convolution_param {
    num_output: 384
    pad: 1
    kernel_size: 3
  }
}
layer {
  name: "relu3"
  type: "ReLU"
  bottom: "conv3"
  top: "conv3"
}
layer {
  name: "conv4"
  type: "Convolution"
  bottom: "conv3"
  top: "conv4"
  convolution_param {
    num_output: 384
    pad: 1
    kernel_size: 3
    group: 2
  }
}
layer {
  name: "relu4"
  type: "ReLU"
  bottom: "conv4"
  top: "conv4"
}
layer {
  name: "conv5"
  type: "Convolution"
  bottom: "conv4"
  top: "conv5"
  convolution_param {
    num_output: 256
    pad: 1
    kernel_size: 3
    group: 2
  }
}
layer {
  name: "relu5"
  type: "ReLU"
  bottom: "conv5"
  top: "conv5"
}
layer {
  name: "pool5"
  type: "Pooling"
  bottom: "conv5"
  top: "pool5"
  pooling_param {
    pool: MAX
    kernel_size: 3
    stride: 2
  }
}
layer {
  name: "fc6"
  type: "InnerProduct"
  bottom: "pool5"
  top: "fc6"
  inner_product_param {
    num_output: 4096
  }
}
layer {
  name: "relu6"
  type: "ReLU"
  bottom: "fc6"
  top: "fc6"
}
layer {
  name: "drop6"
  type: "Dropout"
  bottom: "fc6"
  top: "fc6"
  dropout_param {
    dropout_ratio: 0.5
  }
}
layer {
  name: "fc7"
  type: "InnerProduct"
  bottom: "fc6"
  top: "fc7"
  inner_product_param {
    num_output: 4096
  }
}
layer {
  name: "relu7"
  type: "ReLU"
  bottom: "fc7"
  top: "fc7"
}
layer {
  name: "drop7"
  type: "Dropout"
  bottom: "fc7"
  top: "fc7"
  dropout_param {
    dropout_ratio: 0.5
  }
}
layer {
  name: "fc8"
  type: "InnerProduct"
  bottom: "fc7"
  top: "fc8"
  inner_product_param {
    num_output: 1000
  }
}
layer {
  name: "prob"
  type: "Softmax"
  bottom: "fc8"
  top: "prob"
}
I0925 23:25:45.988813  2415 layer_factory.hpp:77] Creating layer data
I0925 23:25:45.988847  2415 net.cpp:91] Creating Layer data
I0925 23:25:45.988858  2415 net.cpp:399] data -> data
I0925 23:25:45.988869  2435 upgrade_proto.cpp:66] Attempting to upgrade input file specified using deprecated input fields: /home/peifeng/work/run/storm102/data/workers/c67f14cb-4adc-4bda-9b5f-e01828a1291e/tmp/cvld156029902723723420/s2vt.words_to_preds.prototxt
I0925 23:25:45.988894  2429 net.cpp:49] Initializing net from parameters: 
name: "s2vt:features_to_lstm"
state {
  phase: TEST
}
layer {
  name: "input"
  type: "Input"
  top: "frames_fc7"
  top: "cont_sentence"
  top: "input_sentence"
  top: "stage_indicator"
  input_param {
    shape {
      dim: 1
      dim: 4096
    }
    shape {
      dim: 1
      dim: 1
    }
    shape {
      dim: 1
      dim: 1
    }
    shape {
      dim: 1
      dim: 1
    }
  }
}
layer {
  name: "embed_encoder"
  type: "InnerProduct"
  bottom: "frames_fc7"
  top: "embedded_in_frames"
  param {
    lr_mult: 1
    decay_mult: 1
  }
  param {
    lr_mult: 2
    decay_mult: 0
  }
  inner_product_param {
    num_output: 500
    weight_filler {
      type: "xavier"
    }
    bias_filler {
      type: "constant"
      value: 0.2
    }
  }
}
layer {
  name: "reshape_frames"
  type: "Reshape"
  bottom: "embedded_in_frames"
  top: "embedded_input_frames"
  reshape_param {
    shape {
      dim: 1
      dim: 1
      dim: 500
    }
  }
}
layer {
  name: "reshape_stage_indicator"
  type: "Reshape"
  bottom: "stage_indicator"
  top: "reshaped_stage_indicator"
  reshape_param {
    shape {
      dim: 1
      dim: 1
      dim: 1
    }
  }
}
layer {
  name: "embedding"
  type: "Embed"
  bottom: "input_sentence"
  top: "embedded_input_sentence"
  param {
    lr_mult: 1
  }
  embed_param {
    num_output: 500
    input_dim: 46168
    bias_term: false
    weight_filler {
      type: "uniform"
      min: -0.08
      max: 0.08
    }
  }
}
layer {
  name: "lstm1"
  type: "LSTM"
  bottom: "embedded_input_frames"
  bottom: "cont_sentence"
  top: "lstm1"
  recurrent_param {
    num_output: 1000
    weight_filler {
      type: "uniform"
      min: -0.08
      max: 0.08
    }
    bias_filler {
      type: "constant"
      value: 0
    }
  }
}
layer {
  name: "concat"
  type: "Concat"
  bottom: "lstm1"
  bottom: "embedded_input_sentence"
  bottom: "reshaped_stage_indicator"
  top: "lstm1_video_sequence"
  concat_param {
    concat_dim: 2
  }
}
layer {
  name: "lstm2"
  type: "LSTM"
  bottom: "lstm1_video_sequence"
  bottom: "cont_sentence"
  top: "lstm2"
  recurrent_param {
    num_output: 1000
    weight_filler {
      type: "uniform"
      min: -0.08
      max: 0.08
    }
    bias_filler {
      type: "constant"
      value: 0
    }
  }
}
layer {
  name: "predict"
  type: "InnerProduct"
  bottom: "lstm2"
  top: "predict"
  param {
    lr_mult: 1
    decay_mult: 1
  }
  param {
    lr_mult: 2
    decay_mult: 0
  }
  inner_product_param {
    num_output: 46168
    weight_filler {
      type: "uniform"
      min: -0.08
      max: 0.08
    }
    bias_filler {
      type: "constant"
      value: 0
    }
    axis: 2
  }
}
layer {
  name: "probs"
  type: "Softmax"
  bottom: "predict"
  top: "probs"
  softmax_param {
    axis: 2
  }
}
I0925 23:25:45.988898  2457 net.cpp:49] Initializing net from parameters: 
name: "s2vt:features_to_lstm"
state {
  phase: TEST
}
layer {
  name: "input"
  type: "Input"
  top: "frames_fc7"
  top: "cont_sentence"
  top: "input_sentence"
  top: "stage_indicator"
  input_param {
    shape {
      dim: 1
      dim: 4096
    }
    shape {
      dim: 1
      dim: 1
    }
    shape {
      dim: 1
      dim: 1
    }
    shape {
      dim: 1
      dim: 1
    }
  }
}
layer {
  name: "embed_encoder"
  type: "InnerProduct"
  bottom: "frames_fc7"
  top: "embedded_in_frames"
  param {
    lr_mult: 1
    decay_mult: 1
  }
  param {
    lr_mult: 2
    decay_mult: 0
  }
  inner_product_param {
    num_output: 500
    weight_filler {
      type: "xavier"
    }
    bias_filler {
      type: "constant"
      value: 0.2
    }
  }
}
layer {
  name: "reshape_frames"
  type: "Reshape"
  bottom: "embedded_in_frames"
  top: "embedded_input_frames"
  reshape_param {
    shape {
      dim: 1
      dim: 1
      dim: 500
    }
  }
}
layer {
  name: "reshape_stage_indicator"
  type: "Reshape"
  bottom: "stage_indicator"
  top: "reshaped_stage_indicator"
  reshape_param {
    shape {
      dim: 1
      dim: 1
      dim: 1
    }
  }
}
layer {
  name: "embedding"
  type: "Embed"
  bottom: "input_sentence"
  top: "embedded_input_sentence"
  param {
    lr_mult: 1
  }
  embed_param {
    num_output: 500
    input_dim: 46168
    bias_term: false
    weight_filler {
      type: "uniform"
      min: -0.08
      max: 0.08
    }
  }
}
layer {
  name: "lstm1"
  type: "LSTM"
  bottom: "embedded_input_frames"
  bottom: "cont_sentence"
  top: "lstm1"
  recurrent_param {
    num_output: 1000
    weight_filler {
      type: "uniform"
      min: -0.08
      max: 0.08
    }
    bias_filler {
      type: "constant"
      value: 0
    }
  }
}
layer {
  name: "concat"
  type: "Concat"
  bottom: "lstm1"
  bottom: "embedded_input_sentence"
  bottom: "reshaped_stage_indicator"
  top: "lstm1_video_sequence"
  concat_param {
    concat_dim: 2
  }
}
layer {
  name: "lstm2"
  type: "LSTM"
  bottom: "lstm1_video_sequence"
  bottom: "cont_sentence"
  top: "lstm2"
  recurrent_param {
    num_output: 1000
    weight_filler {
      type: "uniform"
      min: -0.08
      max: 0.08
    }
    bias_filler {
      type: "constant"
      value: 0
    }
  }
}
layer {
  name: "predict"
  type: "InnerProduct"
  bottom: "lstm2"
  top: "predict"
  param {
    lr_mult: 1
    decay_mult: 1
  }
  param {
    lr_mult: 2
    decay_mult: 0
  }
  inner_product_param {
    num_output: 46168
    weight_filler {
      type: "uniform"
      min: -0.08
      max: 0.08
    }
    bias_filler {
      type: "constant"
      value: 0
    }
    axis: 2
  }
}
layer {
  name: "probs"
  type: "Softmax"
  bottom: "predict"
  top: "probs"
  softmax_param {
    axis: 2
  }
}
I0925 23:25:45.988896  2435 upgrade_proto.cpp:69] Successfully upgraded file specified using deprecated input fields.
I0925 23:25:45.988893  2413 net.cpp:49] Initializing net from parameters: 
name: "s2vt:features_to_lstm"
state {
  phase: TEST
}
layer {
  name: "input"
  type: "Input"
  top: "frames_fc7"
  top: "cont_sentence"
  top: "input_sentence"
  top: "stage_indicator"
  input_param {
    shape {
      dim: 1
      dim: 4096
    }
    shape {
      dim: 1
      dim: 1
    }
    shape {
      dim: 1
      dim: 1
    }
    shape {
      dim: 1
      dim: 1
    }
  }
}
layer {
  name: "embed_encoder"
  type: "InnerProduct"
  bottom: "frames_fc7"
  top: "embedded_in_frames"
  param {
    lr_mult: 1
    decay_mult: 1
  }
  param {
    lr_mult: 2
    decay_mult: 0
  }
  inner_product_param {
    num_output: 500
    weight_filler {
      type: "xavier"
    }
    bias_filler {
      type: "constant"
      value: 0.2
    }
  }
}
layer {
  name: "reshape_frames"
  type: "Reshape"
  bottom: "embedded_in_frames"
  top: "embedded_input_frames"
  reshape_param {
    shape {
      dim: 1
      dim: 1
      dim: 500
    }
  }
}
layer {
  name: "reshape_stage_indicator"
  type: "Reshape"
  bottom: "stage_indicator"
  top: "reshaped_stage_indicator"
  reshape_param {
    shape {
      dim: 1
      dim: 1
      dim: 1
    }
  }
}
layer {
  name: "embedding"
  type: "Embed"
  bottom: "input_sentence"
  top: "embedded_input_sentence"
  param {
    lr_mult: 1
  }
  embed_param {
    num_output: 500
    input_dim: 46168
    bias_term: false
    weight_filler {
      type: "uniform"
      min: -0.08
      max: 0.08
    }
  }
}
layer {
  name: "lstm1"
  type: "LSTM"
  bottom: "embedded_input_frames"
  bottom: "cont_sentence"
  top: "lstm1"
  recurrent_param {
    num_output: 1000
    weight_filler {
      type: "uniform"
      min: -0.08
      max: 0.08
    }
    bias_filler {
      type: "constant"
      value: 0
    }
  }
}
layer {
  name: "concat"
  type: "Concat"
  bottom: "lstm1"
  bottom: "embedded_input_sentence"
  bottom: "reshaped_stage_indicator"
  top: "lstm1_video_sequence"
  concat_param {
    concat_dim: 2
  }
}
layer {
  name: "lstm2"
  type: "LSTM"
  bottom: "lstm1_video_sequence"
  bottom: "cont_sentence"
  top: "lstm2"
  recurrent_param {
    num_output: 1000
    weight_filler {
      type: "uniform"
      min: -0.08
      max: 0.08
    }
    bias_filler {
      type: "constant"
      value: 0
    }
  }
}
layer {
  name: "predict"
  type: "InnerProduct"
  bottom: "lstm2"
  top: "predict"
  param {
    lr_mult: 1
    decay_mult: 1
  }
  param {
    lr_mult: 2
    decay_mult: 0
  }
  inner_product_param {
    num_output: 46168
    weight_filler {
      type: "uniform"
      min: -0.08
      max: 0.08
    }
    bias_filler {
      type: "constant"
      value: 0
    }
    axis: 2
  }
}
layer {
  name: "probs"
  type: "Softmax"
  bottom: "predict"
  top: "probs"
  softmax_param {
    axis: 2
  }
}
W0925 23:25:45.988925  2435 upgrade_proto.cpp:71] Note that future Caffe releases will only support input layers and not input fields.
I0925 23:25:45.988924  2423 net.cpp:49] Initializing net from parameters: 
name: "s2vt:features_to_lstm"
state {
  phase: TEST
}
layer {
  name: "input"
  type: "Input"
  top: "frames_fc7"
  top: "cont_sentence"
  top: "input_sentence"
  top: "stage_indicator"
  input_param {
    shape {
      dim: 1
      dim: 4096
    }
    shape {
      dim: 1
      dim: 1
    }
    shape {
      dim: 1
      dim: 1
    }
    shape {
      dim: 1
      dim: 1
    }
  }
}
layer {
  name: "embed_encoder"
  type: "InnerProduct"
  bottom: "frames_fc7"
  top: "embedded_in_frames"
  param {
    lr_mult: 1
    decay_mult: 1
  }
  param {
    lr_mult: 2
    decay_mult: 0
  }
  inner_product_param {
    num_output: 500
    weight_filler {
      type: "xavier"
    }
    bias_filler {
      type: "constant"
      value: 0.2
    }
  }
}
layer {
  name: "reshape_frames"
  type: "Reshape"
  bottom: "embedded_in_frames"
  top: "embedded_input_frames"
  reshape_param {
    shape {
      dim: 1
      dim: 1
      dim: 500
    }
  }
}
layer {
  name: "reshape_stage_indicator"
  type: "Reshape"
  bottom: "stage_indicator"
  top: "reshaped_stage_indicator"
  reshape_param {
    shape {
      dim: 1
      dim: 1
      dim: 1
    }
  }
}
layer {
  name: "embedding"
  type: "Embed"
  bottom: "input_sentence"
  top: "embedded_input_sentence"
  param {
    lr_mult: 1
  }
  embed_param {
    num_output: 500
    input_dim: 46168
    bias_term: false
    weight_filler {
      type: "uniform"
      min: -0.08
      max: 0.08
    }
  }
}
layer {
  name: "lstm1"
  type: "LSTM"
  bottom: "embedded_input_frames"
  bottom: "cont_sentence"
  top: "lstm1"
  recurrent_param {
    num_output: 1000
    weight_filler {
      type: "uniform"
      min: -0.08
      max: 0.08
    }
    bias_filler {
      type: "constant"
      value: 0
    }
  }
}
layer {
  name: "concat"
  type: "Concat"
  bottom: "lstm1"
  bottom: "embedded_input_sentence"
  bottom: "reshaped_stage_indicator"
  top: "lstm1_video_sequence"
  concat_param {
    concat_dim: 2
  }
}
layer {
  name: "lstm2"
  type: "LSTM"
  bottom: "lstm1_video_sequence"
  bottom: "cont_sentence"
  top: "lstm2"
  recurrent_param {
    num_output: 1000
    weight_filler {
      type: "uniform"
      min: -0.08
      max: 0.08
    }
    bias_filler {
      type: "constant"
      value: 0
    }
  }
}
layer {
  name: "predict"
  type: "InnerProduct"
  bottom: "lstm2"
  top: "predict"
  param {
    lr_mult: 1
    decay_mult: 1
  }
  param {
    lr_mult: 2
    decay_mult: 0
  }
  inner_product_param {
    num_output: 46168
    weight_filler {
      type: "uniform"
      min: -0.08
      max: 0.08
    }
    bias_filler {
      type: "constant"
      value: 0
    }
    axis: 2
  }
}
layer {
  name: "probs"
  type: "Softmax"
  bottom: "predict"
  top: "probs"
  softmax_param {
    axis: 2
  }
}
I0925 23:25:45.988939  2405 net.cpp:49] Initializing net from parameters: 
name: "s2vt:features_to_lstm"
state {
  phase: TEST
}
layer {
  name: "input"
  type: "Input"
  top: "frames_fc7"
  top: "cont_sentence"
  top: "input_sentence"
  top: "stage_indicator"
  input_param {
    shape {
      dim: 1
      dim: 4096
    }
    shape {
      dim: 1
      dim: 1
    }
    shape {
      dim: 1
      dim: 1
    }
    shape {
      dim: 1
      dim: 1
    }
  }
}
layer {
  name: "embed_encoder"
  type: "InnerProduct"
  bottom: "frames_fc7"
  top: "embedded_in_frames"
  param {
    lr_mult: 1
    decay_mult: 1
  }
  param {
    lr_mult: 2
    decay_mult: 0
  }
  inner_product_param {
    num_output: 500
    weight_filler {
      type: "xavier"
    }
    bias_filler {
      type: "constant"
      value: 0.2
    }
  }
}
layer {
  name: "reshape_frames"
  type: "Reshape"
  bottom: "embedded_in_frames"
  top: "embedded_input_frames"
  reshape_param {
    shape {
      dim: 1
      dim: 1
      dim: 500
    }
  }
}
layer {
  name: "reshape_stage_indicator"
  type: "Reshape"
  bottom: "stage_indicator"
  top: "reshaped_stage_indicator"
  reshape_param {
    shape {
      dim: 1
      dim: 1
      dim: 1
    }
  }
}
layer {
  name: "embedding"
  type: "Embed"
  bottom: "input_sentence"
  top: "embedded_input_sentence"
  param {
    lr_mult: 1
  }
  embed_param {
    num_output: 500
    input_dim: 46168
    bias_term: false
    weight_filler {
      type: "uniform"
      min: -0.08
      max: 0.08
    }
  }
}
layer {
  name: "lstm1"
  type: "LSTM"
  bottom: "embedded_input_frames"
  bottom: "cont_sentence"
  top: "lstm1"
  recurrent_param {
    num_output: 1000
    weight_filler {
      type: "uniform"
      min: -0.08
      max: 0.08
    }
    bias_filler {
      type: "constant"
      value: 0
    }
  }
}
layer {
  name: "concat"
  type: "Concat"
  bottom: "lstm1"
  bottom: "embedded_input_sentence"
  bottom: "reshaped_stage_indicator"
  top: "lstm1_video_sequence"
  concat_param {
    concat_dim: 2
  }
}
layer {
  name: "lstm2"
  type: "LSTM"
  bottom: "lstm1_video_sequence"
  bottom: "cont_sentence"
  top: "lstm2"
  recurrent_param {
    num_output: 1000
    weight_filler {
      type: "uniform"
      min: -0.08
      max: 0.08
    }
    bias_filler {
      type: "constant"
      value: 0
    }
  }
}
layer {
  name: "predict"
  type: "InnerProduct"
  bottom: "lstm2"
  top: "predict"
  param {
    lr_mult: 1
    decay_mult: 1
  }
  param {
    lr_mult: 2
    decay_mult: 0
  }
  inner_product_param {
    num_output: 46168
    weight_filler {
      type: "uniform"
      min: -0.08
      max: 0.08
    }
    bias_filler {
      type: "constant"
      value: 0
    }
    axis: 2
  }
}
layer {
  name: "probs"
  type: "Softmax"
  bottom: "predict"
  top: "probs"
  softmax_param {
    axis: 2
  }
}
I0925 23:25:45.989078  2429 layer_factory.hpp:77] Creating layer input
I0925 23:25:45.989086  2405 layer_factory.hpp:77] Creating layer input
I0925 23:25:45.989081  2457 layer_factory.hpp:77] Creating layer input
I0925 23:25:45.989100  2413 layer_factory.hpp:77] Creating layer input
I0925 23:25:45.989110  2405 net.cpp:91] Creating Layer input
…
I0925 23:25:45.989264  2423 net.cpp:399] input -> stage_indicator
I0925 23:25:45.989272  2457 net.cpp:399] input -> stage_indicator
I0925 23:25:45.989372  2435 net.cpp:49] Initializing net from parameters: 
name: "s2vt:features_to_lstm"
state {
  phase: TEST
}
layer {
  name: "input"
  type: "Input"
  top: "frames_fc7"
  top: "cont_sentence"
  top: "input_sentence"
  top: "stage_indicator"
  input_param {
    shape {
      dim: 1
      dim: 4096
    }
    shape {
      dim: 1
      dim: 1
    }
    shape {
      dim: 1
      dim: 1
    }
    shape {
      dim: 1
      dim: 1
    }
  }
}
layer {
  name: "embed_encoder"
  type: "InnerProduct"
  bottom: "frames_fc7"
  top: "embedded_in_frames"
  param {
    lr_mult: 1
    decay_mult: 1
  }
  param {
    lr_mult: 2
    decay_mult: 0
  }
  inner_product_param {
    num_output: 500
    weight_filler {
      type: "xavier"
    }
    bias_filler {
      type: "constant"
      value: 0.2
    }
  }
}
layer {
  name: "reshape_frames"
  type: "Reshape"
  bottom: "embedded_in_frames"
  top: "embedded_input_frames"
  reshape_param {
    shape {
      dim: 1
      dim: 1
      dim: 500
    }
  }
}
layer {
  name: "reshape_stage_indicator"
  type: "Reshape"
  bottom: "stage_indicator"
  top: "reshaped_stage_indicator"
  reshape_param {
    shape {
      dim: 1
      dim: 1
      dim: 1
    }
  }
}
layer {
  name: "embedding"
  type: "Embed"
  bottom: "input_sentence"
  top: "embedded_input_sentence"
  param {
    lr_mult: 1
  }
  embed_param {
    num_output: 500
    input_dim: 46168
    bias_term: false
    weight_filler {
      type: "uniform"
      min: -0.08
      max: 0.08
    }
  }
}
layer {
  name: "lstm1"
  type: "LSTM"
  bottom: "embedded_input_frames"
  bottom: "cont_sentence"
  top: "lstm1"
  recurrent_param {
    num_output: 1000
    weight_filler {
      type: "uniform"
      min: -0.08
      max: 0.08
    }
    bias_filler {
      type: "constant"
      value: 0
    }
  }
}
layer {
  name: "concat"
  type: "Concat"
  bottom: "lstm1"
  bottom: "embedded_input_sentence"
  bottom: "reshaped_stage_indicator"
  top: "lstm1_video_sequence"
  concat_param {
    concat_dim: 2
  }
}
layer {
  name: "lstm2"
  type: "LSTM"
  bottom: "lstm1_video_sequence"
  bottom: "cont_sentence"
  top: "lstm2"
  recurrent_param {
    num_output: 1000
    weight_filler {
      type: "uniform"
      min: -0.08
      max: 0.08
    }
    bias_filler {
      type: "constant"
      value: 0
    }
  }
}
layer {
  name: "predict"
  type: "InnerProduct"
  bottom: "lstm2"
  top: "predict"
  param {
    lr_mult: 1
    decay_mult: 1
  }
  param {
    lr_mult: 2
    decay_mult: 0
  }
  inner_product_param {
    num_output: 46168
    weight_filler {
      type: "uniform"
      min: -0.08
      max: 0.08
    }
    bias_filler {
      type: "constant"
      value: 0
    }
    axis: 2
  }
}
layer {
  name: "probs"
  type: "Softmax"
  bottom: "predict"
  top: "probs"
  softmax_param {
    axis: 2
  }
}
I0925 23:25:45.989459  2409 net.cpp:49] Initializing net from parameters: 
name: "s2vt:features_to_lstm"
state {
  phase: TEST
}
layer {
  name: "input"
  type: "Input"
  top: "frames_fc7"
  top: "cont_sentence"
  top: "input_sentence"
  top: "stage_indicator"
  input_param {
    shape {
      dim: 1
      dim: 4096
    }
    shape {
      dim: 1
      dim: 1
    }
    shape {
      dim: 1
      dim: 1
    }
    shape {
      dim: 1
      dim: 1
    }
  }
}
layer {
  name: "embed_encoder"
  type: "InnerProduct"
  bottom: "frames_fc7"
  top: "embedded_in_frames"
  param {
    lr_mult: 1
    decay_mult: 1
  }
  param {
    lr_mult: 2
    decay_mult: 0
  }
  inner_product_param {
    num_output: 500
    weight_filler {
      type: "xavier"
    }
    bias_filler {
      type: "constant"
      value: 0.2
    }
  }
}
layer {
  name: "reshape_frames"
  type: "Reshape"
  bottom: "embedded_in_frames"
  top: "embedded_input_frames"
  reshape_param {
    shape {
      dim: 1
      dim: 1
      dim: 500
    }
  }
}
layer {
  name: "reshape_stage_indicator"
  type: "Reshape"
  bottom: "stage_indicator"
  top: "reshaped_stage_indicator"
  reshape_param {
    shape {
      dim: 1
      dim: 1
      dim: 1
    }
  }
}
layer {
  name: "embedding"
  type: "Embed"
  bottom: "input_sentence"
  top: "embedded_input_sentence"
  param {
    lr_mult: 1
  }
  embed_param {
    num_output: 500
    input_dim: 46168
    bias_term: false
    weight_filler {
      type: "uniform"
      min: -0.08
      max: 0.08
    }
  }
}
layer {
  name: "lstm1"
  type: "LSTM"
  bottom: "embedded_input_frames"
  bottom: "cont_sentence"
  top: "lstm1"
  recurrent_param {
    num_output: 1000
    weight_filler {
      type: "uniform"
      min: -0.08
      max: 0.08
    }
    bias_filler {
      type: "constant"
      value: 0
    }
  }
}
layer {
  name: "concat"
  type: "Concat"
  bottom: "lstm1"
  bottom: "embedded_input_sentence"
  bottom: "reshaped_stage_indicator"
  top: "lstm1_video_sequence"
  concat_param {
    concat_dim: 2
  }
}
layer {
  name: "lstm2"
  type: "LSTM"
  bottom: "lstm1_video_sequence"
  bottom: "cont_sentence"
  top: "lstm2"
  recurrent_param {
    num_output: 1000
    weight_filler {
      type: "uniform"
      min: -0.08
      max: 0.08
    }
    bias_filler {
      type: "constant"
      value: 0
    }
  }
}
layer {
  name: "predict"
  type: "InnerProduct"
  bottom: "lstm2"
  top: "predict"
  param {
    lr_mult: 1
    decay_mult: 1
  }
  param {
    lr_mult: 2
    decay_mult: 0
  }
  inner_product_param {
    num_output: 46168
    weight_filler {
      type: "uniform"
      min: -0.08
      max: 0.08
    }
    bias_filler {
      type: "constant"
      value: 0
    }
    axis: 2
  }
}
layer {
  name: "probs"
  type: "Softmax"
  bottom: "predict"
  top: "probs"
  softmax_param {
    axis: 2
  }
}
I0925 23:25:45.989493  2435 layer_factory.hpp:77] Creating layer input
I0925 23:25:45.989511  2435 net.cpp:91] Creating Layer input
I0925 23:25:45.989527  2435 net.cpp:399] input -> frames_fc7
I0925 23:25:45.989544  2435 net.cpp:399] input -> cont_sentence
I0925 23:25:45.989552  2409 layer_factory.hpp:77] Creating layer input
I0925 23:25:45.989557  2435 net.cpp:399] input -> input_sentence
…
W0925 23:25:45.990039  2401 upgrade_proto.cpp:71] Note that future Caffe releases will only support input layers and not input fields.
I0925 23:25:45.990227  2401 net.cpp:49] Initializing net from parameters: 
name: "s2vt:features_to_lstm"
state {
  phase: TEST
}
layer {
  name: "input"
  type: "Input"
  top: "frames_fc7"
  top: "cont_sentence"
  top: "input_sentence"
  top: "stage_indicator"
  input_param {
    shape {
      dim: 1
      dim: 4096
    }
    shape {
      dim: 1
      dim: 1
    }
    shape {
      dim: 1
      dim: 1
    }
    shape {
      dim: 1
      dim: 1
    }
  }
}
layer {
  name: "embed_encoder"
  type: "InnerProduct"
  bottom: "frames_fc7"
  top: "embedded_in_frames"
  param {
    lr_mult: 1
    decay_mult: 1
  }
  param {
    lr_mult: 2
    decay_mult: 0
  }
  inner_product_param {
    num_output: 500
    weight_filler {
      type: "xavier"
    }
    bias_filler {
      type: "constant"
      value: 0.2
    }
  }
}
layer {
  name: "reshape_frames"
  type: "Reshape"
  bottom: "embedded_in_frames"
  top: "embedded_input_frames"
  reshape_param {
    shape {
      dim: 1
      dim: 1
      dim: 500
    }
  }
}
layer {
  name: "reshape_stage_indicator"
  type: "Reshape"
  bottom: "stage_indicator"
  top: "reshaped_stage_indicator"
  reshape_param {
    shape {
      dim: 1
      dim: 1
      dim: 1
    }
  }
}
layer {
  name: "embedding"
  type: "Embed"
  bottom: "input_sentence"
  top: "embedded_input_sentence"
  param {
    lr_mult: 1
  }
  embed_param {
    num_output: 500
    input_dim: 46168
    bias_term: false
    weight_filler {
      type: "uniform"
      min: -0.08
      max: 0.08
    }
  }
}
layer {
  name: "lstm1"
  type: "LSTM"
  bottom: "embedded_input_frames"
  bottom: "cont_sentence"
  top: "lstm1"
  recurrent_param {
    num_output: 1000
    weight_filler {
      type: "uniform"
      min: -0.08
      max: 0.08
    }
    bias_filler {
      type: "constant"
      value: 0
    }
  }
}
layer {
  name: "concat"
  type: "Concat"
  bottom: "lstm1"
  bottom: "embedded_input_sentence"
  bottom: "reshaped_stage_indicator"
  top: "lstm1_video_sequence"
  concat_param {
    concat_dim: 2
  }
}
layer {
  name: "lstm2"
  type: "LSTM"
  bottom: "lstm1_video_sequence"
  bottom: "cont_sentence"
  top: "lstm2"
  recurrent_param {
    num_output: 1000
    weight_filler {
      type: "uniform"
      min: -0.08
      max: 0.08
    }
    bias_filler {
      type: "constant"
      value: 0
    }
  }
}
layer {
  name: "predict"
  type: "InnerProduct"
  bottom: "lstm2"
  top: "predict"
  param {
    lr_mult: 1
    decay_mult: 1
  }
  param {
    lr_mult: 2
    decay_mult: 0
  }
  inner_product_param {
    num_output: 46168
    weight_filler {
      type: "uniform"
      min: -0.08
      max: 0.08
    }
    bias_filler {
      type: "constant"
      value: 0
    }
    axis: 2
  }
}
layer {
  name: "probs"
  type: "Softmax"
  bottom: "predict"
  top: "probs"
  softmax_param {
    axis: 2
  }
}
I0925 23:25:45.990308  2401 layer_factory.hpp:77] Creating layer input
I0925 23:25:45.990319  2401 net.cpp:91] Creating Layer input
I0925 23:25:45.990326  2401 net.cpp:399] input -> frames_fc7
I0925 23:25:45.990339  2401 net.cpp:399] input -> cont_sentence
I0925 23:25:45.990350  2401 net.cpp:399] input -> input_sentence
I0925 23:25:45.990362  2401 net.cpp:399] input -> stage_indicator
I0925 23:25:47.089227  2415 net.cpp:141] Setting up data
I0925 23:25:47.089313  2415 net.cpp:148] Top shape: 10 3 227 227 (1545870)
I0925 23:25:47.089325  2415 net.cpp:156] Memory required for data: 6183480
I0925 23:25:47.089345  2415 layer_factory.hpp:77] Creating layer conv1
I0925 23:25:47.089375  2415 net.cpp:91] Creating Layer conv1
I0925 23:25:47.089385  2415 net.cpp:425] conv1 <- data
I0925 23:25:47.089398  2429 net.cpp:141] Setting up input
I0925 23:25:47.089404  2415 net.cpp:399] conv1 -> conv1
I0925 23:25:47.089426  2429 net.cpp:148] Top shape: 1 4096 (4096)
I0925 23:25:47.089433  2429 net.cpp:148] Top shape: 1 1 (1)
I0925 23:25:47.089439  2429 net.cpp:148] Top shape: 1 1 (1)
I0925 23:25:47.089445  2429 net.cpp:148] Top shape: 1 1 (1)
I0925 23:25:47.089449  2429 net.cpp:156] Memory required for data: 16396
I0925 23:25:47.089455  2429 layer_factory.hpp:77] Creating layer cont_sentence_input_1_split
I0925 23:25:47.089505  2429 net.cpp:91] Creating Layer cont_sentence_input_1_split
I0925 23:25:47.089515  2429 net.cpp:425] cont_sentence_input_1_split <- cont_sentence
I0925 23:25:47.089545  2429 net.cpp:399] cont_sentence_input_1_split -> cont_sentence_input_1_split_0
I0925 23:25:47.089565  2429 net.cpp:399] cont_sentence_input_1_split -> cont_sentence_input_1_split_1
I0925 23:25:47.089623  2405 net.cpp:141] Setting up input
I0925 23:25:47.089638  2405 net.cpp:148] Top shape: 1 4096 (4096)
I0925 23:25:47.089645  2405 net.cpp:148] Top shape: 1 1 (1)
I0925 23:25:47.089650  2405 net.cpp:148] Top shape: 1 1 (1)
I0925 23:25:47.089656  2405 net.cpp:148] Top shape: 1 1 (1)
I0925 23:25:47.089660  2405 net.cpp:156] Memory required for data: 16396
I0925 23:25:47.089666  2405 layer_factory.hpp:77] Creating layer cont_sentence_input_1_split
I0925 23:25:47.089676  2405 net.cpp:91] Creating Layer cont_sentence_input_1_split
I0925 23:25:47.089682  2405 net.cpp:425] cont_sentence_input_1_split <- cont_sentence
I0925 23:25:47.089690  2405 net.cpp:399] cont_sentence_input_1_split -> cont_sentence_input_1_split_0
I0925 23:25:47.089701  2405 net.cpp:399] cont_sentence_input_1_split -> cont_sentence_input_1_split_1
I0925 23:25:47.090080  2449 net.cpp:141] Setting up input
I0925 23:25:47.090095  2449 net.cpp:148] Top shape: 1 4096 (4096)
I0925 23:25:47.090106  2449 net.cpp:148] Top shape: 1 1 (1)
I0925 23:25:47.090116  2449 net.cpp:148] Top shape: 1 1 (1)
I0925 23:25:47.090122  2449 net.cpp:148] Top shape: 1 1 (1)
I0925 23:25:47.090126  2449 net.cpp:156] Memory required for data: 16396
I0925 23:25:47.090137  2449 layer_factory.hpp:77] Creating layer cont_sentence_input_1_split
I0925 23:25:47.090148  2449 net.cpp:91] Creating Layer cont_sentence_input_1_split
I0925 23:25:47.090155  2449 net.cpp:425] cont_sentence_input_1_split <- cont_sentence
I0925 23:25:47.090168  2449 net.cpp:399] cont_sentence_input_1_split -> cont_sentence_input_1_split_0
I0925 23:25:47.090185  2449 net.cpp:399] cont_sentence_input_1_split -> cont_sentence_input_1_split_1
I0925 23:25:47.090230  2457 net.cpp:141] Setting up input
I0925 23:25:47.090245  2457 net.cpp:148] Top shape: 1 4096 (4096)
I0925 23:25:47.090252  2457 net.cpp:148] Top shape: 1 1 (1)
I0925 23:25:47.090253  2405 net.cpp:141] Setting up cont_sentence_input_1_split
I0925 23:25:47.090258  2457 net.cpp:148] Top shape: 1 1 (1)
I0925 23:25:47.090270  2405 net.cpp:148] Top shape: 1 1 (1)
I0925 23:25:47.090271  2457 net.cpp:148] Top shape: 1 1 (1)
I0925 23:25:47.090281  2405 net.cpp:148] Top shape: 1 1 (1)
I0925 23:25:47.090286  2405 net.cpp:156] Memory required for data: 16404
I0925 23:25:47.090286  2457 net.cpp:156] Memory required for data: 16396
I0925 23:25:47.090291  2405 layer_factory.hpp:77] Creating layer embed_encoder
I0925 23:25:47.090304  2457 layer_factory.hpp:77] Creating layer cont_sentence_input_1_split
I0925 23:25:47.090317  2457 net.cpp:91] Creating Layer cont_sentence_input_1_split
I0925 23:25:47.090322  2457 net.cpp:425] cont_sentence_input_1_split <- cont_sentence
I0925 23:25:47.090322  2405 net.cpp:91] Creating Layer embed_encoder
I0925 23:25:47.090330  2405 net.cpp:425] embed_encoder <- frames_fc7
I0925 23:25:47.090333  2457 net.cpp:399] cont_sentence_input_1_split -> cont_sentence_input_1_split_0
I0925 23:25:47.090344  2457 net.cpp:399] cont_sentence_input_1_split -> cont_sentence_input_1_split_1
I0925 23:25:47.090345  2405 net.cpp:399] embed_encoder -> embedded_in_frames
I0925 23:25:47.090370  2413 net.cpp:141] Setting up input
I0925 23:25:47.090389  2413 net.cpp:148] Top shape: 1 4096 (4096)
I0925 23:25:47.090402  2413 net.cpp:148] Top shape: 1 1 (1)
I0925 23:25:47.090414  2413 net.cpp:148] Top shape: 1 1 (1)
I0925 23:25:47.090423  2413 net.cpp:148] Top shape: 1 1 (1)
I0925 23:25:47.090431  2413 net.cpp:156] Memory required for data: 16396
I0925 23:25:47.090441  2413 layer_factory.hpp:77] Creating layer cont_sentence_input_1_split
I0925 23:25:47.090447  2429 net.cpp:141] Setting up cont_sentence_input_1_split
I0925 23:25:47.090457  2413 net.cpp:91] Creating Layer cont_sentence_input_1_split
I0925 23:25:47.090461  2429 net.cpp:148] Top shape: 1 1 (1)
I0925 23:25:47.090467  2413 net.cpp:425] cont_sentence_input_1_split <- cont_sentence
I0925 23:25:47.090471  2429 net.cpp:148] Top shape: 1 1 (1)
I0925 23:25:47.090478  2429 net.cpp:156] Memory required for data: 16404
I0925 23:25:47.090481  2413 net.cpp:399] cont_sentence_input_1_split -> cont_sentence_input_1_split_0
I0925 23:25:47.090487  2429 layer_factory.hpp:77] Creating layer embed_encoder
I0925 23:25:47.090497  2413 net.cpp:399] cont_sentence_input_1_split -> cont_sentence_input_1_split_1
I0925 23:25:47.090504  2429 net.cpp:91] Creating Layer embed_encoder
I0925 23:25:47.090513  2429 net.cpp:425] embed_encoder <- frames_fc7
I0925 23:25:47.090528  2429 net.cpp:399] embed_encoder -> embedded_in_frames
I0925 23:25:47.090633  2461 net.cpp:141] Setting up input
I0925 23:25:47.090657  2461 net.cpp:148] Top shape: 1 4096 (4096)
I0925 23:25:47.090670  2461 net.cpp:148] Top shape: 1 1 (1)
I0925 23:25:47.090680  2461 net.cpp:148] Top shape: 1 1 (1)
I0925 23:25:47.090690  2461 net.cpp:148] Top shape: 1 1 (1)
I0925 23:25:47.090698  2461 net.cpp:156] Memory required for data: 16396
I0925 23:25:47.090708  2461 layer_factory.hpp:77] Creating layer cont_sentence_input_1_split
I0925 23:25:47.090723  2461 net.cpp:91] Creating Layer cont_sentence_input_1_split
I0925 23:25:47.090734  2461 net.cpp:425] cont_sentence_input_1_split <- cont_sentence
I0925 23:25:47.090749  2461 net.cpp:399] cont_sentence_input_1_split -> cont_sentence_input_1_split_0
I0925 23:25:47.090767  2461 net.cpp:399] cont_sentence_input_1_split -> cont_sentence_input_1_split_1
I0925 23:25:47.095887  2413 net.cpp:141] Setting up cont_sentence_input_1_split
I0925 23:25:47.095933  2413 net.cpp:148] Top shape: 1 1 (1)
I0925 23:25:47.095947  2413 net.cpp:148] Top shape: 1 1 (1)
I0925 23:25:47.095954  2413 net.cpp:156] Memory required for data: 16404
I0925 23:25:47.095966  2413 layer_factory.hpp:77] Creating layer embed_encoder
I0925 23:25:47.095995  2413 net.cpp:91] Creating Layer embed_encoder
I0925 23:25:47.096006  2413 net.cpp:425] embed_encoder <- frames_fc7
I0925 23:25:47.096022  2413 net.cpp:399] embed_encoder -> embedded_in_frames
I0925 23:25:47.099994  2409 net.cpp:141] Setting up input
I0925 23:25:47.100013  2401 net.cpp:141] Setting up input
I0925 23:25:47.100045  2409 net.cpp:148] Top shape: 1 4096 (4096)
I0925 23:25:47.100045  2401 net.cpp:148] Top shape: 1 4096 (4096)
I0925 23:25:47.100056  2457 net.cpp:141] Setting up cont_sentence_input_1_split
I0925 23:25:47.100064  2409 net.cpp:148] Top shape: 1 1 (1)
I0925 23:25:47.100064  2401 net.cpp:148] Top shape: 1 1 (1)
I0925 23:25:47.100077  2457 net.cpp:148] Top shape: 1 1 (1)
I0925 23:25:47.100078  2409 net.cpp:148] Top shape: 1 1 (1)
I0925 23:25:47.100085  2457 net.cpp:148] Top shape: 1 1 (1)
I0925 23:25:47.100080  2401 net.cpp:148] Top shape: 1 1 (1)
I0925 23:25:47.100090  2457 net.cpp:156] Memory required for data: 16404
I0925 23:25:47.100093  2409 net.cpp:148] Top shape: 1 1 (1)
I0925 23:25:47.100100  2457 layer_factory.hpp:77] Creating layer embed_encoder
I0925 23:25:47.100096  2401 net.cpp:148] Top shape: 1 1 (1)
I0925 23:25:47.100106  2409 net.cpp:156] Memory required for data: 16396
I0925 23:25:47.100108  2401 net.cpp:156] Memory required for data: 16396
I0925 23:25:47.100121  2457 net.cpp:91] Creating Layer embed_encoder
I0925 23:25:47.100116  2401 layer_factory.hpp:77] Creating layer cont_sentence_input_1_split
I0925 23:25:47.100116  2409 layer_factory.hpp:77] Creating layer cont_sentence_input_1_split
I0925 23:25:47.100128  2457 net.cpp:425] embed_encoder <- frames_fc7
I0925 23:25:47.100139  2401 net.cpp:91] Creating Layer cont_sentence_input_1_split
I0925 23:25:47.100142  2461 net.cpp:141] Setting up cont_sentence_input_1_split
I0925 23:25:47.100150  2401 net.cpp:425] cont_sentence_input_1_split <- cont_sentence
I0925 23:25:47.100147  2409 net.cpp:91] Creating Layer cont_sentence_input_1_split
I0925 23:25:47.100164  2461 net.cpp:148] Top shape: 1 1 (1)
I0925 23:25:47.100149  2457 net.cpp:399] embed_encoder -> embedded_in_frames
I0925 23:25:47.100174  2461 net.cpp:148] Top shape: 1 1 (1)
I0925 23:25:47.100169  2409 net.cpp:425] cont_sentence_input_1_split <- cont_sentence
I0925 23:25:47.100185  2461 net.cpp:156] Memory required for data: 16404
I0925 23:25:47.100193  2461 layer_factory.hpp:77] Creating layer embed_encoder
I0925 23:25:47.100190  2409 net.cpp:399] cont_sentence_input_1_split -> cont_sentence_input_1_split_0
I0925 23:25:47.100208  2461 net.cpp:91] Creating Layer embed_encoder
I0925 23:25:47.100211  2409 net.cpp:399] cont_sentence_input_1_split -> cont_sentence_input_1_split_1
I0925 23:25:47.100214  2461 net.cpp:425] embed_encoder <- frames_fc7
I0925 23:25:47.100235  2461 net.cpp:399] embed_encoder -> embedded_in_frames
I0925 23:25:47.100236  2435 net.cpp:141] Setting up input
I0925 23:25:47.100255  2435 net.cpp:148] Top shape: 1 4096 (4096)
I0925 23:25:47.100263  2435 net.cpp:148] Top shape: 1 1 (1)
I0925 23:25:47.100270  2435 net.cpp:148] Top shape: 1 1 (1)
I0925 23:25:47.100277  2435 net.cpp:148] Top shape: 1 1 (1)
I0925 23:25:47.100281  2435 net.cpp:156] Memory required for data: 16396
I0925 23:25:47.100287  2435 layer_factory.hpp:77] Creating layer cont_sentence_input_1_split
I0925 23:25:47.100299  2435 net.cpp:91] Creating Layer cont_sentence_input_1_split
I0925 23:25:47.100307  2435 net.cpp:425] cont_sentence_input_1_split <- cont_sentence
I0925 23:25:47.100322  2435 net.cpp:399] cont_sentence_input_1_split -> cont_sentence_input_1_split_0
I0925 23:25:47.100340  2435 net.cpp:399] cont_sentence_input_1_split -> cont_sentence_input_1_split_1
I0925 23:25:47.100347  2449 net.cpp:141] Setting up cont_sentence_input_1_split
I0925 23:25:47.100169  2401 net.cpp:399] cont_sentence_input_1_split -> cont_sentence_input_1_split_0
I0925 23:25:47.100368  2449 net.cpp:148] Top shape: 1 1 (1)
I0925 23:25:47.100374  2401 net.cpp:399] cont_sentence_input_1_split -> cont_sentence_input_1_split_1
I0925 23:25:47.100376  2449 net.cpp:148] Top shape: 1 1 (1)
I0925 23:25:47.100395  2449 net.cpp:156] Memory required for data: 16404
I0925 23:25:47.100406  2449 layer_factory.hpp:77] Creating layer embed_encoder
I0925 23:25:47.100424  2449 net.cpp:91] Creating Layer embed_encoder
I0925 23:25:47.100430  2449 net.cpp:425] embed_encoder <- frames_fc7
I0925 23:25:47.100440  2449 net.cpp:399] embed_encoder -> embedded_in_frames
I0925 23:25:47.100442  2423 net.cpp:141] Setting up input
I0925 23:25:47.100463  2423 net.cpp:148] Top shape: 1 4096 (4096)
I0925 23:25:47.100474  2423 net.cpp:148] Top shape: 1 1 (1)
I0925 23:25:47.100483  2423 net.cpp:148] Top shape: 1 1 (1)
I0925 23:25:47.100492  2423 net.cpp:148] Top shape: 1 1 (1)
I0925 23:25:47.100499  2423 net.cpp:156] Memory required for data: 16396
I0925 23:25:47.100508  2423 layer_factory.hpp:77] Creating layer cont_sentence_input_1_split
I0925 23:25:47.100527  2423 net.cpp:91] Creating Layer cont_sentence_input_1_split
I0925 23:25:47.100538  2423 net.cpp:425] cont_sentence_input_1_split <- cont_sentence
I0925 23:25:47.100550  2423 net.cpp:399] cont_sentence_input_1_split -> cont_sentence_input_1_split_0
I0925 23:25:47.100566  2423 net.cpp:399] cont_sentence_input_1_split -> cont_sentence_input_1_split_1
I0925 23:25:47.104643  2435 net.cpp:141] Setting up cont_sentence_input_1_split
I0925 23:25:47.104688  2435 net.cpp:148] Top shape: 1 1 (1)
I0925 23:25:47.104699  2435 net.cpp:148] Top shape: 1 1 (1)
I0925 23:25:47.104706  2435 net.cpp:156] Memory required for data: 16404
I0925 23:25:47.104717  2435 layer_factory.hpp:77] Creating layer embed_encoder
I0925 23:25:47.104745  2435 net.cpp:91] Creating Layer embed_encoder
I0925 23:25:47.104754  2435 net.cpp:425] embed_encoder <- frames_fc7
I0925 23:25:47.104769  2435 net.cpp:399] embed_encoder -> embedded_in_frames
I0925 23:25:47.123204  2409 net.cpp:141] Setting up cont_sentence_input_1_split
I0925 23:25:47.123261  2409 net.cpp:148] Top shape: 1 1 (1)
I0925 23:25:47.123273  2409 net.cpp:148] Top shape: 1 1 (1)
I0925 23:25:47.123281  2409 net.cpp:156] Memory required for data: 16404
I0925 23:25:47.123291  2409 layer_factory.hpp:77] Creating layer embed_encoder
I0925 23:25:47.123320  2409 net.cpp:91] Creating Layer embed_encoder
I0925 23:25:47.123330  2409 net.cpp:425] embed_encoder <- frames_fc7
I0925 23:25:47.123347  2409 net.cpp:399] embed_encoder -> embedded_in_frames
I0925 23:25:47.134057  2405 net.cpp:141] Setting up embed_encoder
I0925 23:25:47.134106  2405 net.cpp:148] Top shape: 1 500 (500)
I0925 23:25:47.134114  2405 net.cpp:156] Memory required for data: 18404
I0925 23:25:47.134140  2405 layer_factory.hpp:77] Creating layer reshape_frames
I0925 23:25:47.134168  2405 net.cpp:91] Creating Layer reshape_frames
I0925 23:25:47.134176  2405 net.cpp:425] reshape_frames <- embedded_in_frames
I0925 23:25:47.134186  2405 net.cpp:399] reshape_frames -> embedded_input_frames
I0925 23:25:47.134234  2405 net.cpp:141] Setting up reshape_frames
I0925 23:25:47.134244  2405 net.cpp:148] Top shape: 1 1 500 (500)
I0925 23:25:47.134248  2405 net.cpp:156] Memory required for data: 20404
I0925 23:25:47.134253  2405 layer_factory.hpp:77] Creating layer reshape_stage_indicator
I0925 23:25:47.134265  2405 net.cpp:91] Creating Layer reshape_stage_indicator
I0925 23:25:47.134271  2405 net.cpp:425] reshape_stage_indicator <- stage_indicator
I0925 23:25:47.134279  2405 net.cpp:399] reshape_stage_indicator -> reshaped_stage_indicator
I0925 23:25:47.134315  2405 net.cpp:141] Setting up reshape_stage_indicator
I0925 23:25:47.134323  2405 net.cpp:148] Top shape: 1 1 1 (1)
I0925 23:25:47.134328  2405 net.cpp:156] Memory required for data: 20408
I0925 23:25:47.134332  2405 layer_factory.hpp:77] Creating layer embedding
I0925 23:25:47.134346  2405 net.cpp:91] Creating Layer embedding
I0925 23:25:47.134351  2405 net.cpp:425] embedding <- input_sentence
I0925 23:25:47.134359  2405 net.cpp:399] embedding -> embedded_input_sentence
I0925 23:25:47.181475  2429 net.cpp:141] Setting up embed_encoder
I0925 23:25:47.181529  2429 net.cpp:148] Top shape: 1 500 (500)
I0925 23:25:47.181535  2429 net.cpp:156] Memory required for data: 18404
I0925 23:25:47.181560  2429 layer_factory.hpp:77] Creating layer reshape_frames
I0925 23:25:47.181587  2429 net.cpp:91] Creating Layer reshape_frames
I0925 23:25:47.181601  2429 net.cpp:425] reshape_frames <- embedded_in_frames
I0925 23:25:47.181617  2429 net.cpp:399] reshape_frames -> embedded_input_frames
I0925 23:25:47.181915  2423 net.cpp:141] Setting up cont_sentence_input_1_split
I0925 23:25:47.181934  2423 net.cpp:148] Top shape: 1 1 (1)
I0925 23:25:47.181942  2423 net.cpp:148] Top shape: 1 1 (1)
I0925 23:25:47.181951  2423 net.cpp:156] Memory required for data: 16404
I0925 23:25:47.181952  2401 net.cpp:141] Setting up cont_sentence_input_1_split
I0925 23:25:47.181959  2423 layer_factory.hpp:77] Creating layer embed_encoder
I0925 23:25:47.181977  2401 net.cpp:148] Top shape: 1 1 (1)
I0925 23:25:47.181983  2401 net.cpp:148] Top shape: 1 1 (1)
I0925 23:25:47.181990  2401 net.cpp:156] Memory required for data: 16404
I0925 23:25:47.181995  2423 net.cpp:91] Creating Layer embed_encoder
I0925 23:25:47.181999  2401 layer_factory.hpp:77] Creating layer embed_encoder
I0925 23:25:47.182009  2423 net.cpp:425] embed_encoder <- frames_fc7
I0925 23:25:47.182021  2423 net.cpp:399] embed_encoder -> embedded_in_frames
I0925 23:25:47.182020  2401 net.cpp:91] Creating Layer embed_encoder
I0925 23:25:47.182039  2401 net.cpp:425] embed_encoder <- frames_fc7
I0925 23:25:47.182054  2401 net.cpp:399] embed_encoder -> embedded_in_frames
I0925 23:25:47.182343  2429 net.cpp:141] Setting up reshape_frames
I0925 23:25:47.182361  2429 net.cpp:148] Top shape: 1 1 500 (500)
I0925 23:25:47.182366  2429 net.cpp:156] Memory required for data: 20404
I0925 23:25:47.182373  2429 layer_factory.hpp:77] Creating layer reshape_stage_indicator
I0925 23:25:47.182385  2429 net.cpp:91] Creating Layer reshape_stage_indicator
I0925 23:25:47.182391  2429 net.cpp:425] reshape_stage_indicator <- stage_indicator
I0925 23:25:47.182406  2429 net.cpp:399] reshape_stage_indicator -> reshaped_stage_indicator
I0925 23:25:47.182449  2435 net.cpp:141] Setting up embed_encoder
I0925 23:25:47.182471  2435 net.cpp:148] Top shape: 1 500 (500)
I0925 23:25:47.182481  2435 net.cpp:156] Memory required for data: 18404
I0925 23:25:47.182504  2435 layer_factory.hpp:77] Creating layer reshape_frames
I0925 23:25:47.182524  2435 net.cpp:91] Creating Layer reshape_frames
I0925 23:25:47.182538  2435 net.cpp:425] reshape_frames <- embedded_in_frames
I0925 23:25:47.182554  2435 net.cpp:399] reshape_frames -> embedded_input_frames
I0925 23:25:47.188352  2429 net.cpp:141] Setting up reshape_stage_indicator
I0925 23:25:47.188410  2429 net.cpp:148] Top shape: 1 1 1 (1)
I0925 23:25:47.188416  2429 net.cpp:156] Memory required for data: 20408
I0925 23:25:47.188426  2429 layer_factory.hpp:77] Creating layer embedding
I0925 23:25:47.188447  2429 net.cpp:91] Creating Layer embedding
I0925 23:25:47.188457  2429 net.cpp:425] embedding <- input_sentence
I0925 23:25:47.188468  2429 net.cpp:399] embedding -> embedded_input_sentence
I0925 23:25:47.188463  2435 net.cpp:141] Setting up reshape_frames
I0925 23:25:47.188505  2435 net.cpp:148] Top shape: 1 1 500 (500)
I0925 23:25:47.188515  2435 net.cpp:156] Memory required for data: 20404
I0925 23:25:47.188525  2435 layer_factory.hpp:77] Creating layer reshape_stage_indicator
I0925 23:25:47.188550  2435 net.cpp:91] Creating Layer reshape_stage_indicator
I0925 23:25:47.188561  2435 net.cpp:425] reshape_stage_indicator <- stage_indicator
I0925 23:25:47.188603  2435 net.cpp:399] reshape_stage_indicator -> reshaped_stage_indicator
I0925 23:25:47.194857  2435 net.cpp:141] Setting up reshape_stage_indicator
I0925 23:25:47.194906  2435 net.cpp:148] Top shape: 1 1 1 (1)
I0925 23:25:47.194916  2435 net.cpp:156] Memory required for data: 20408
I0925 23:25:47.194927  2435 layer_factory.hpp:77] Creating layer embedding
I0925 23:25:47.194942  2461 net.cpp:141] Setting up embed_encoder
I0925 23:25:47.194950  2435 net.cpp:91] Creating Layer embedding
I0925 23:25:47.194988  2435 net.cpp:425] embedding <- input_sentence
I0925 23:25:47.194989  2461 net.cpp:148] Top shape: 1 500 (500)
I0925 23:25:47.195008  2461 net.cpp:156] Memory required for data: 18404
I0925 23:25:47.195011  2435 net.cpp:399] embedding -> embedded_input_sentence
I0925 23:25:47.195052  2461 layer_factory.hpp:77] Creating layer reshape_frames
I0925 23:25:47.195053  2413 net.cpp:141] Setting up embed_encoder
I0925 23:25:47.195086  2461 net.cpp:91] Creating Layer reshape_frames
I0925 23:25:47.195096  2413 net.cpp:148] Top shape: 1 500 (500)
I0925 23:25:47.195107  2413 net.cpp:156] Memory required for data: 18404
I0925 23:25:47.195107  2461 net.cpp:425] reshape_frames <- embedded_in_frames
I0925 23:25:47.195137  2413 layer_factory.hpp:77] Creating layer reshape_frames
I0925 23:25:47.195142  2461 net.cpp:399] reshape_frames -> embedded_input_frames
I0925 23:25:47.195161  2413 net.cpp:91] Creating Layer reshape_frames
I0925 23:25:47.195173  2413 net.cpp:425] reshape_frames <- embedded_in_frames
I0925 23:25:47.195188  2413 net.cpp:399] reshape_frames -> embedded_input_frames
I0925 23:25:47.246986  2409 net.cpp:141] Setting up embed_encoder
I0925 23:25:47.247048  2449 net.cpp:141] Setting up embed_encoder
I0925 23:25:47.247052  2409 net.cpp:148] Top shape: 1 500 (500)
I0925 23:25:47.247071  2449 net.cpp:148] Top shape: 1 500 (500)
I0925 23:25:47.247073  2409 net.cpp:156] Memory required for data: 18404
I0925 23:25:47.247076  2449 net.cpp:156] Memory required for data: 18404
I0925 23:25:47.247117  2449 layer_factory.hpp:77] Creating layer reshape_frames
I0925 23:25:47.247118  2409 layer_factory.hpp:77] Creating layer reshape_frames
I0925 23:25:47.247119  2461 net.cpp:141] Setting up reshape_frames
I0925 23:25:47.247138  2449 net.cpp:91] Creating Layer reshape_frames
I0925 23:25:47.247141  2409 net.cpp:91] Creating Layer reshape_frames
I0925 23:25:47.247146  2449 net.cpp:425] reshape_frames <- embedded_in_frames
I0925 23:25:47.247145  2461 net.cpp:148] Top shape: 1 1 500 (500)
I0925 23:25:47.247153  2409 net.cpp:425] reshape_frames <- embedded_in_frames
I0925 23:25:47.247159  2449 net.cpp:399] reshape_frames -> embedded_input_frames
I0925 23:25:47.247169  2409 net.cpp:399] reshape_frames -> embedded_input_frames
I0925 23:25:47.247158  2461 net.cpp:156] Memory required for data: 20404
I0925 23:25:47.247189  2461 layer_factory.hpp:77] Creating layer reshape_stage_indicator
I0925 23:25:47.247210  2461 net.cpp:91] Creating Layer reshape_stage_indicator
I0925 23:25:47.247222  2461 net.cpp:425] reshape_stage_indicator <- stage_indicator
I0925 23:25:47.247239  2461 net.cpp:399] reshape_stage_indicator -> reshaped_stage_indicator
I0925 23:25:47.247241  2413 net.cpp:141] Setting up reshape_frames
I0925 23:25:47.247294  2413 net.cpp:148] Top shape: 1 1 500 (500)
I0925 23:25:47.247306  2413 net.cpp:156] Memory required for data: 20404
I0925 23:25:47.247320  2413 layer_factory.hpp:77] Creating layer reshape_stage_indicator
I0925 23:25:47.247346  2457 net.cpp:141] Setting up embed_encoder
I0925 23:25:47.247350  2413 net.cpp:91] Creating Layer reshape_stage_indicator
I0925 23:25:47.247385  2457 net.cpp:148] Top shape: 1 500 (500)
I0925 23:25:47.247393  2413 net.cpp:425] reshape_stage_indicator <- stage_indicator
I0925 23:25:47.247396  2457 net.cpp:156] Memory required for data: 18404
I0925 23:25:47.247417  2413 net.cpp:399] reshape_stage_indicator -> reshaped_stage_indicator
I0925 23:25:47.247423  2457 layer_factory.hpp:77] Creating layer reshape_frames
I0925 23:25:47.247442  2457 net.cpp:91] Creating Layer reshape_frames
I0925 23:25:47.247452  2457 net.cpp:425] reshape_frames <- embedded_in_frames
I0925 23:25:47.247465  2457 net.cpp:399] reshape_frames -> embedded_input_frames
I0925 23:25:47.251159  2461 net.cpp:141] Setting up reshape_stage_indicator
I0925 23:25:47.251220  2461 net.cpp:148] Top shape: 1 1 1 (1)
I0925 23:25:47.251230  2461 net.cpp:156] Memory required for data: 20408
I0925 23:25:47.251242  2461 layer_factory.hpp:77] Creating layer embedding
I0925 23:25:47.251268  2461 net.cpp:91] Creating Layer embedding
I0925 23:25:47.251281  2413 net.cpp:141] Setting up reshape_stage_indicator
I0925 23:25:47.251281  2461 net.cpp:425] embedding <- input_sentence
I0925 23:25:47.251324  2413 net.cpp:148] Top shape: 1 1 1 (1)
I0925 23:25:47.251332  2413 net.cpp:156] Memory required for data: 20408
I0925 23:25:47.251338  2413 layer_factory.hpp:77] Creating layer embedding
I0925 23:25:47.251341  2461 net.cpp:399] embedding -> embedded_input_sentence
I0925 23:25:47.251354  2413 net.cpp:91] Creating Layer embedding
I0925 23:25:47.251353  2457 net.cpp:141] Setting up reshape_frames
I0925 23:25:47.251363  2413 net.cpp:425] embedding <- input_sentence
I0925 23:25:47.251385  2457 net.cpp:148] Top shape: 1 1 500 (500)
I0925 23:25:47.251385  2449 net.cpp:141] Setting up reshape_frames
I0925 23:25:47.251396  2457 net.cpp:156] Memory required for data: 20404
I0925 23:25:47.251390  2413 net.cpp:399] embedding -> embedded_input_sentence
I0925 23:25:47.251406  2457 layer_factory.hpp:77] Creating layer reshape_stage_indicator
I0925 23:25:47.251411  2449 net.cpp:148] Top shape: 1 1 500 (500)
I0925 23:25:47.251417  2449 net.cpp:156] Memory required for data: 20404
I0925 23:25:47.251423  2449 layer_factory.hpp:77] Creating layer reshape_stage_indicator
I0925 23:25:47.251436  2449 net.cpp:91] Creating Layer reshape_stage_indicator
I0925 23:25:47.251435  2457 net.cpp:91] Creating Layer reshape_stage_indicator
I0925 23:25:47.251443  2449 net.cpp:425] reshape_stage_indicator <- stage_indicator
I0925 23:25:47.251447  2457 net.cpp:425] reshape_stage_indicator <- stage_indicator
I0925 23:25:47.251452  2449 net.cpp:399] reshape_stage_indicator -> reshaped_stage_indicator
I0925 23:25:47.251463  2457 net.cpp:399] reshape_stage_indicator -> reshaped_stage_indicator
I0925 23:25:47.344053  2449 net.cpp:141] Setting up reshape_stage_indicator
I0925 23:25:47.344075  2457 net.cpp:141] Setting up reshape_stage_indicator
I0925 23:25:47.344121  2449 net.cpp:148] Top shape: 1 1 1 (1)
I0925 23:25:47.344128  2457 net.cpp:148] Top shape: 1 1 1 (1)
I0925 23:25:47.344132  2449 net.cpp:156] Memory required for data: 20408
I0925 23:25:47.344149  2457 net.cpp:156] Memory required for data: 20408
I0925 23:25:47.344173  2449 layer_factory.hpp:77] Creating layer embedding
I0925 23:25:47.344177  2457 layer_factory.hpp:77] Creating layer embedding
I0925 23:25:47.344200  2409 net.cpp:141] Setting up reshape_frames
I0925 23:25:47.344202  2449 net.cpp:91] Creating Layer embedding
I0925 23:25:47.344202  2457 net.cpp:91] Creating Layer embedding
I0925 23:25:47.344254  2449 net.cpp:425] embedding <- input_sentence
I0925 23:25:47.344255  2409 net.cpp:148] Top shape: 1 1 500 (500)
I0925 23:25:47.344259  2457 net.cpp:425] embedding <- input_sentence
I0925 23:25:47.344275  2449 net.cpp:399] embedding -> embedded_input_sentence
I0925 23:25:47.344282  2409 net.cpp:156] Memory required for data: 20404
I0925 23:25:47.344311  2457 net.cpp:399] embedding -> embedded_input_sentence
I0925 23:25:47.344348  2409 layer_factory.hpp:77] Creating layer reshape_stage_indicator
I0925 23:25:47.344398  2409 net.cpp:91] Creating Layer reshape_stage_indicator
I0925 23:25:47.344424  2409 net.cpp:425] reshape_stage_indicator <- stage_indicator
I0925 23:25:47.344470  2409 net.cpp:399] reshape_stage_indicator -> reshaped_stage_indicator
I0925 23:25:47.432584  2409 net.cpp:141] Setting up reshape_stage_indicator
I0925 23:25:47.432638  2409 net.cpp:148] Top shape: 1 1 1 (1)
I0925 23:25:47.432647  2409 net.cpp:156] Memory required for data: 20408
I0925 23:25:47.432657  2409 layer_factory.hpp:77] Creating layer embedding
I0925 23:25:47.432678  2409 net.cpp:91] Creating Layer embedding
I0925 23:25:47.432688  2409 net.cpp:425] embedding <- input_sentence
I0925 23:25:47.432709  2409 net.cpp:399] embedding -> embedded_input_sentence
I0925 23:25:47.432731  2401 net.cpp:141] Setting up embed_encoder
I0925 23:25:47.432749  2401 net.cpp:148] Top shape: 1 500 (500)
I0925 23:25:47.432755  2401 net.cpp:156] Memory required for data: 18404
I0925 23:25:47.432771  2401 layer_factory.hpp:77] Creating layer reshape_frames
I0925 23:25:47.432786  2401 net.cpp:91] Creating Layer reshape_frames
I0925 23:25:47.432792  2401 net.cpp:425] reshape_frames <- embedded_in_frames
I0925 23:25:47.432787  2429 net.cpp:141] Setting up embedding
I0925 23:25:47.432801  2401 net.cpp:399] reshape_frames -> embedded_input_frames
I0925 23:25:47.432811  2429 net.cpp:148] Top shape: 1 1 500 (500)
I0925 23:25:47.432822  2429 net.cpp:156] Memory required for data: 22408
I0925 23:25:47.432842  2429 layer_factory.hpp:77] Creating layer lstm1
I0925 23:25:47.432903  2429 net.cpp:91] Creating Layer lstm1
I0925 23:25:47.432916  2429 net.cpp:425] lstm1 <- embedded_input_frames
I0925 23:25:47.432934  2429 net.cpp:425] lstm1 <- cont_sentence_input_1_split_0
I0925 23:25:47.432948  2429 net.cpp:399] lstm1 -> lstm1
I0925 23:25:47.432978  2429 recurrent_layer.cpp:20] Initializing recurrent layer: assuming input batch contains 1 timesteps of 1 independent streams.
I0925 23:25:47.433341  2429 net.cpp:49] Initializing net from parameters: 
layer {
  name: "lstm1_"
  type: "Input"
  top: "x"
  top: "cont"
  input_param {
    shape {
      dim: 1
      dim: 1
      dim: 500
    }
    shape {
      dim: 1
      dim: 1
    }
  }
}
layer {
  name: "lstm1_"
  type: "Input"
  top: "c_0"
  top: "h_0"
  input_param {
    shape {
      dim: 1
      dim: 1
      dim: 1000
    }
    shape {
      dim: 1
      dim: 1
      dim: 1000
    }
  }
}
layer {
  name: "lstm1_cont_slice"
  type: "Slice"
  bottom: "cont"
  top: "cont_1"
  slice_param {
    axis: 0
  }
}
layer {
  name: "lstm1_x_transform"
  type: "InnerProduct"
  bottom: "x"
  top: "W_xc_x"
  param {
    name: "W_xc"
  }
  param {
    name: "b_c"
  }
  propagate_down: true
  inner_product_param {
    num_output: 4000
    bias_term: true
    weight_filler {
      type: "uniform"
      min: -0.08
      max: 0.08
    }
    bias_filler {
      type: "constant"
      value: 0
    }
    axis: 2
  }
}
layer {
  name: "lstm1_W_xc_x_slice"
  type: "Slice"
  bottom: "W_xc_x"
  top: "W_xc_x_1"
  slice_param {
    axis: 0
  }
}
layer {
  name: "lstm1_h_conted_0"
  type: "Scale"
  bottom: "h_0"
  bottom: "cont_1"
  top: "h_conted_0"
  scale_param {
    axis: 0
  }
}
layer {
  name: "lstm1_transform_1"
  type: "InnerProduct"
  bottom: "h_conted_0"
  top: "W_hc_h_0"
  param {
    name: "W_hc"
  }
  inner_product_param {
    num_output: 4000
    bias_term: false
    weight_filler {
      type: "uniform"
      min: -0.08
      max: 0.08
    }
    axis: 2
  }
}
layer {
  name: "lstm1_gate_input_1"
  type: "Eltwise"
  bottom: "W_hc_h_0"
  bottom: "W_xc_x_1"
  top: "gate_input_1"
  eltwise_param {
    operation: SUM
  }
}
layer {
  name: "lstm1_unit_1"
  type: "LSTMUnit"
  bottom: "c_0"
  bottom: "gate_input_1"
  bottom: "cont_1"
  top: "c_1"
  top: "h_1"
}
layer {
  name: "lstm1_"
  type: "Split"
  bottom: "c_1"
  top: "c_T"
}
layer {
  name: "lstm1_h_concat"
  type: "Concat"
  bottom: "h_1"
  top: "h"
  concat_param {
    axis: 0
  }
}
layer {
  name: "h_pseudoloss"
  type: "Reduction"
  bottom: "h"
  top: "h_pseudoloss"
  loss_weight: 1
}
I0925 23:25:47.433431  2429 layer_factory.hpp:77] Creating layer lstm1_
I0925 23:25:47.433446  2429 net.cpp:91] Creating Layer lstm1_
I0925 23:25:47.433454  2429 net.cpp:399] lstm1_ -> x
I0925 23:25:47.433465  2429 net.cpp:399] lstm1_ -> cont
I0925 23:25:47.482841  2405 net.cpp:141] Setting up embedding
I0925 23:25:47.482938  2405 net.cpp:148] Top shape: 1 1 500 (500)
I0925 23:25:47.482947  2405 net.cpp:156] Memory required for data: 22408
I0925 23:25:47.482991  2405 layer_factory.hpp:77] Creating layer lstm1
I0925 23:25:47.483034  2405 net.cpp:91] Creating Layer lstm1
I0925 23:25:47.483052  2405 net.cpp:425] lstm1 <- embedded_input_frames
I0925 23:25:47.483070  2405 net.cpp:425] lstm1 <- cont_sentence_input_1_split_0
I0925 23:25:47.487851  2405 net.cpp:399] lstm1 -> lstm1
I0925 23:25:47.488066  2405 recurrent_layer.cpp:20] Initializing recurrent layer: assuming input batch contains 1 timesteps of 1 independent streams.
I0925 23:25:47.488957  2405 net.cpp:49] Initializing net from parameters: 
layer {
  name: "lstm1_"
  type: "Input"
  top: "x"
  top: "cont"
  input_param {
    shape {
      dim: 1
      dim: 1
      dim: 500
    }
    shape {
      dim: 1
      dim: 1
    }
  }
}
layer {
  name: "lstm1_"
  type: "Input"
  top: "c_0"
  top: "h_0"
  input_param {
    shape {
      dim: 1
      dim: 1
      dim: 1000
    }
    shape {
      dim: 1
      dim: 1
      dim: 1000
    }
  }
}
layer {
  name: "lstm1_cont_slice"
  type: "Slice"
  bottom: "cont"
  top: "cont_1"
  slice_param {
    axis: 0
  }
}
layer {
  name: "lstm1_x_transform"
  type: "InnerProduct"
  bottom: "x"
  top: "W_xc_x"
  param {
    name: "W_xc"
  }
  param {
    name: "b_c"
  }
  propagate_down: true
  inner_product_param {
    num_output: 4000
    bias_term: true
    weight_filler {
      type: "uniform"
      min: -0.08
      max: 0.08
    }
    bias_filler {
      type: "constant"
      value: 0
    }
    axis: 2
  }
}
layer {
  name: "lstm1_W_xc_x_slice"
  type: "Slice"
  bottom: "W_xc_x"
  top: "W_xc_x_1"
  slice_param {
    axis: 0
  }
}
layer {
  name: "lstm1_h_conted_0"
  type: "Scale"
  bottom: "h_0"
  bottom: "cont_1"
  top: "h_conted_0"
  scale_param {
    axis: 0
  }
}
layer {
  name: "lstm1_transform_1"
  type: "InnerProduct"
  bottom: "h_conted_0"
  top: "W_hc_h_0"
  param {
    name: "W_hc"
  }
  inner_product_param {
    num_output: 4000
    bias_term: false
    weight_filler {
      type: "uniform"
      min: -0.08
      max: 0.08
    }
    axis: 2
  }
}
layer {
  name: "lstm1_gate_input_1"
  type: "Eltwise"
  bottom: "W_hc_h_0"
  bottom: "W_xc_x_1"
  top: "gate_input_1"
  eltwise_param {
    operation: SUM
  }
}
layer {
  name: "lstm1_unit_1"
  type: "LSTMUnit"
  bottom: "c_0"
  bottom: "gate_input_1"
  bottom: "cont_1"
  top: "c_1"
  top: "h_1"
}
layer {
  name: "lstm1_"
  type: "Split"
  bottom: "c_1"
  top: "c_T"
}
layer {
  name: "lstm1_h_concat"
  type: "Concat"
  bottom: "h_1"
  top: "h"
  concat_param {
    axis: 0
  }
}
layer {
  name: "h_pseudoloss"
  type: "Reduction"
  bottom: "h"
  top: "h_pseudoloss"
  loss_weight: 1
}
I0925 23:25:47.489168  2405 layer_factory.hpp:77] Creating layer lstm1_
I0925 23:25:47.489207  2405 net.cpp:91] Creating Layer lstm1_
I0925 23:25:47.489223  2405 net.cpp:399] lstm1_ -> x
I0925 23:25:47.489253  2405 net.cpp:399] lstm1_ -> cont
I0925 23:25:47.540884  2429 net.cpp:141] Setting up lstm1_
I0925 23:25:47.540940  2429 net.cpp:148] Top shape: 1 1 500 (500)
I0925 23:25:47.540937  2401 net.cpp:141] Setting up reshape_frames
I0925 23:25:47.540949  2429 net.cpp:148] Top shape: 1 1 (1)
I0925 23:25:47.540956  2429 net.cpp:156] Memory required for data: 2004
I0925 23:25:47.540962  2401 net.cpp:148] Top shape: 1 1 500 (500)
I0925 23:25:47.540966  2429 layer_factory.hpp:77] Creating layer lstm1_
I0925 23:25:47.540980  2401 net.cpp:156] Memory required for data: 20404
I0925 23:25:47.540977  2461 net.cpp:141] Setting up embedding
I0925 23:25:47.541010  2401 layer_factory.hpp:77] Creating layer reshape_stage_indicator
I0925 23:25:47.541020  2461 net.cpp:148] Top shape: 1 1 500 (500)
I0925 23:25:47.541029  2429 net.cpp:91] Creating Layer lstm1_
I0925 23:25:47.541030  2461 net.cpp:156] Memory required for data: 22408
I0925 23:25:47.541051  2429 net.cpp:399] lstm1_ -> c_0
I0925 23:25:47.541031  2401 net.cpp:91] Creating Layer reshape_stage_indicator
I0925 23:25:47.541065  2401 net.cpp:425] reshape_stage_indicator <- stage_indicator
I0925 23:25:47.541070  2461 layer_factory.hpp:77] Creating layer lstm1
I0925 23:25:47.541082  2401 net.cpp:399] reshape_stage_indicator -> reshaped_stage_indicator
I0925 23:25:47.541070  2423 net.cpp:141] Setting up embed_encoder
I0925 23:25:47.541092  2461 net.cpp:91] Creating Layer lstm1
I0925 23:25:47.541072  2429 net.cpp:399] lstm1_ -> h_0
I0925 23:25:47.541105  2461 net.cpp:425] lstm1 <- embedded_input_frames
I0925 23:25:47.541107  2423 net.cpp:148] Top shape: 1 500 (500)
I0925 23:25:47.541116  2423 net.cpp:156] Memory required for data: 18404
I0925 23:25:47.541117  2461 net.cpp:425] lstm1 <- cont_sentence_input_1_split_0
I0925 23:25:47.541133  2461 net.cpp:399] lstm1 -> lstm1
I0925 23:25:47.541131  2405 net.cpp:141] Setting up lstm1_
I0925 23:25:47.541137  2423 layer_factory.hpp:77] Creating layer reshape_frames
I0925 23:25:47.541164  2405 net.cpp:148] Top shape: 1 1 500 (500)
I0925 23:25:47.541154  2461 recurrent_layer.cpp:20] Initializing recurrent layer: assuming input batch contains 1 timesteps of 1 independent streams.
I0925 23:25:47.541177  2405 net.cpp:148] Top shape: 1 1 (1)
I0925 23:25:47.541182  2401 net.cpp:141] Setting up reshape_stage_indicator
I0925 23:25:47.541187  2405 net.cpp:156] Memory required for data: 2004
I0925 23:25:47.541196  2401 net.cpp:148] Top shape: 1 1 1 (1)
I0925 23:25:47.541188  2423 net.cpp:91] Creating Layer reshape_frames
I0925 23:25:47.541205  2401 net.cpp:156] Memory required for data: 20408
I0925 23:25:47.541206  2405 layer_factory.hpp:77] Creating layer lstm1_
I0925 23:25:47.541211  2423 net.cpp:425] reshape_frames <- embedded_in_frames
I0925 23:25:47.541214  2401 layer_factory.hpp:77] Creating layer embedding
I0925 23:25:47.541226  2423 net.cpp:399] reshape_frames -> embedded_input_frames
I0925 23:25:47.541231  2405 net.cpp:91] Creating Layer lstm1_
I0925 23:25:47.541235  2401 net.cpp:91] Creating Layer embedding
I0925 23:25:47.541234  2429 net.cpp:141] Setting up lstm1_
I0925 23:25:47.541256  2405 net.cpp:399] lstm1_ -> c_0
I0925 23:25:47.541246  2401 net.cpp:425] embedding <- input_sentence
I0925 23:25:47.541268  2429 net.cpp:148] Top shape: 1 1 1000 (1000)
I0925 23:25:47.541275  2429 net.cpp:148] Top shape: 1 1 1000 (1000)
I0925 23:25:47.541277  2405 net.cpp:399] lstm1_ -> h_0
I0925 23:25:47.541280  2429 net.cpp:156] Memory required for data: 10004
I0925 23:25:47.541277  2401 net.cpp:399] embedding -> embedded_input_sentence
I0925 23:25:47.541287  2423 net.cpp:141] Setting up reshape_frames
I0925 23:25:47.541297  2429 layer_factory.hpp:77] Creating layer lstm1_cont_slice
I0925 23:25:47.541322  2423 net.cpp:148] Top shape: 1 1 500 (500)
I0925 23:25:47.541328  2429 net.cpp:91] Creating Layer lstm1_cont_slice
I0925 23:25:47.541330  2423 net.cpp:156] Memory required for data: 20404
I0925 23:25:47.541334  2429 net.cpp:425] lstm1_cont_slice <- cont
I0925 23:25:47.541338  2423 layer_factory.hpp:77] Creating layer reshape_stage_indicator
I0925 23:25:47.541345  2429 net.cpp:399] lstm1_cont_slice -> cont_1
I0925 23:25:47.541352  2423 net.cpp:91] Creating Layer reshape_stage_indicator
I0925 23:25:47.541360  2423 net.cpp:425] reshape_stage_indicator <- stage_indicator
I0925 23:25:47.541373  2405 net.cpp:141] Setting up lstm1_
I0925 23:25:47.541376  2423 net.cpp:399] reshape_stage_indicator -> reshaped_stage_indicator
I0925 23:25:47.541388  2405 net.cpp:148] Top shape: 1 1 1000 (1000)
I0925 23:25:47.541390  2429 net.cpp:141] Setting up lstm1_cont_slice
I0925 23:25:47.541399  2405 net.cpp:148] Top shape: 1 1 1000 (1000)
I0925 23:25:47.541404  2429 net.cpp:148] Top shape: 1 1 (1)
I0925 23:25:47.541406  2405 net.cpp:156] Memory required for data: 10004
I0925 23:25:47.541409  2429 net.cpp:156] Memory required for data: 10008
I0925 23:25:47.541424  2405 layer_factory.hpp:77] Creating layer lstm1_cont_slice
I0925 23:25:47.541425  2429 layer_factory.hpp:77] Creating layer cont_1_lstm1_cont_slice_0_split
I0925 23:25:47.541434  2423 net.cpp:141] Setting up reshape_stage_indicator
I0925 23:25:47.541445  2429 net.cpp:91] Creating Layer cont_1_lstm1_cont_slice_0_split
I0925 23:25:47.541447  2423 net.cpp:148] Top shape: 1 1 1 (1)
I0925 23:25:47.541452  2429 net.cpp:425] cont_1_lstm1_cont_slice_0_split <- cont_1
I0925 23:25:47.541460  2429 net.cpp:399] cont_1_lstm1_cont_slice_0_split -> cont_1_lstm1_cont_slice_0_split_0
I0925 23:25:47.541445  2405 net.cpp:91] Creating Layer lstm1_cont_slice
I0925 23:25:47.541465  2423 net.cpp:156] Memory required for data: 20408
I0925 23:25:47.541470  2429 net.cpp:399] cont_1_lstm1_cont_slice_0_split -> cont_1_lstm1_cont_slice_0_split_1
I0925 23:25:47.541472  2405 net.cpp:425] lstm1_cont_slice <- cont
I0925 23:25:47.541473  2423 layer_factory.hpp:77] Creating layer embedding
I0925 23:25:47.541496  2405 net.cpp:399] lstm1_cont_slice -> cont_1
I0925 23:25:47.541501  2423 net.cpp:91] Creating Layer embedding
I0925 23:25:47.541510  2423 net.cpp:425] embedding <- input_sentence
I0925 23:25:47.541527  2423 net.cpp:399] embedding -> embedded_input_sentence
I0925 23:25:47.541555  2461 net.cpp:49] Initializing net from parameters: 
layer {
  name: "lstm1_"
  type: "Input"
  top: "x"
  top: "cont"
  input_param {
    shape {
      dim: 1
      dim: 1
      dim: 500
    }
    shape {
      dim: 1
      dim: 1
    }
  }
}
layer {
  name: "lstm1_"
  type: "Input"
  top: "c_0"
  top: "h_0"
  input_param {
    shape {
      dim: 1
      dim: 1
      dim: 1000
    }
    shape {
      dim: 1
      dim: 1
      dim: 1000
    }
  }
}
layer {
  name: "lstm1_cont_slice"
  type: "Slice"
  bottom: "cont"
  top: "cont_1"
  slice_param {
    axis: 0
  }
}
layer {
  name: "lstm1_x_transform"
  type: "InnerProduct"
  bottom: "x"
  top: "W_xc_x"
  param {
    name: "W_xc"
  }
  param {
    name: "b_c"
  }
  propagate_down: true
  inner_product_param {
    num_output: 4000
    bias_term: true
    weight_filler {
      type: "uniform"
      min: -0.08
      max: 0.08
    }
    bias_filler {
      type: "constant"
      value: 0
    }
    axis: 2
  }
}
layer {
  name: "lstm1_W_xc_x_slice"
  type: "Slice"
  bottom: "W_xc_x"
  top: "W_xc_x_1"
  slice_param {
    axis: 0
  }
}
layer {
  name: "lstm1_h_conted_0"
  type: "Scale"
  bottom: "h_0"
  bottom: "cont_1"
  top: "h_conted_0"
  scale_param {
    axis: 0
  }
}
layer {
  name: "lstm1_transform_1"
  type: "InnerProduct"
  bottom: "h_conted_0"
  top: "W_hc_h_0"
  param {
    name: "W_hc"
  }
  inner_product_param {
    num_output: 4000
    bias_term: false
    weight_filler {
      type: "uniform"
      min: -0.08
      max: 0.08
    }
    axis: 2
  }
}
layer {
  name: "lstm1_gate_input_1"
  type: "Eltwise"
  bottom: "W_hc_h_0"
  bottom: "W_xc_x_1"
  top: "gate_input_1"
  eltwise_param {
    operation: SUM
  }
}
layer {
  name: "lstm1_unit_1"
  type: "LSTMUnit"
  bottom: "c_0"
  bottom: "gate_input_1"
  bottom: "cont_1"
  top: "c_1"
  top: "h_1"
}
layer {
  name: "lstm1_"
  type: "Split"
  bottom: "c_1"
  top: "c_T"
}
layer {
  name: "lstm1_h_concat"
  type: "Concat"
  bottom: "h_1"
  top: "h"
  concat_param {
    axis: 0
  }
}
layer {
  name: "h_pseudoloss"
  type: "Reduction"
  bottom: "h"
  top: "h_pseudoloss"
  loss_weight: 1
}
I0925 23:25:47.541648  2461 layer_factory.hpp:77] Creating layer lstm1_
I0925 23:25:47.541661  2461 net.cpp:91] Creating Layer lstm1_
I0925 23:25:47.541666  2461 net.cpp:399] lstm1_ -> x
I0925 23:25:47.541678  2461 net.cpp:399] lstm1_ -> cont
I0925 23:25:47.598278  2405 net.cpp:141] Setting up lstm1_cont_slice
I0925 23:25:47.598378  2405 net.cpp:148] Top shape: 1 1 (1)
I0925 23:25:47.598394  2405 net.cpp:156] Memory required for data: 10008
I0925 23:25:47.598417  2405 layer_factory.hpp:77] Creating layer cont_1_lstm1_cont_slice_0_split
I0925 23:25:47.598460  2405 net.cpp:91] Creating Layer cont_1_lstm1_cont_slice_0_split
I0925 23:25:47.598479  2405 net.cpp:425] cont_1_lstm1_cont_slice_0_split <- cont_1
I0925 23:25:47.598510  2405 net.cpp:399] cont_1_lstm1_cont_slice_0_split -> cont_1_lstm1_cont_slice_0_split_0
I0925 23:25:47.598537  2405 net.cpp:399] cont_1_lstm1_cont_slice_0_split -> cont_1_lstm1_cont_slice_0_split_1
I0925 23:25:47.598546  2435 net.cpp:141] Setting up embedding
I0925 23:25:47.598572  2435 net.cpp:148] Top shape: 1 1 500 (500)
I0925 23:25:47.598582  2435 net.cpp:156] Memory required for data: 22408
I0925 23:25:47.598625  2435 layer_factory.hpp:77] Creating layer lstm1
I0925 23:25:47.598646  2435 net.cpp:91] Creating Layer lstm1
I0925 23:25:47.598659  2435 net.cpp:425] lstm1 <- embedded_input_frames
I0925 23:25:47.598670  2435 net.cpp:425] lstm1 <- cont_sentence_input_1_split_0
I0925 23:25:47.598680  2405 net.cpp:141] Setting up cont_1_lstm1_cont_slice_0_split
I0925 23:25:47.598686  2435 net.cpp:399] lstm1 -> lstm1
I0925 23:25:47.598721  2405 net.cpp:148] Top shape: 1 1 (1)
I0925 23:25:47.598736  2405 net.cpp:148] Top shape: 1 1 (1)
I0925 23:25:47.598737  2435 recurrent_layer.cpp:20] Initializing recurrent layer: assuming input batch contains 1 timesteps of 1 independent streams.
I0925 23:25:47.598747  2405 net.cpp:156] Memory required for data: 10016
I0925 23:25:47.598758  2405 layer_factory.hpp:77] Creating layer lstm1_x_transform
I0925 23:25:47.598789  2405 net.cpp:91] Creating Layer lstm1_x_transform
I0925 23:25:47.598799  2405 net.cpp:425] lstm1_x_transform <- x
I0925 23:25:47.598821  2405 net.cpp:399] lstm1_x_transform -> W_xc_x
I0925 23:25:47.599273  2435 net.cpp:49] Initializing net from parameters: 
layer {
  name: "lstm1_"
  type: "Input"
  top: "x"
  top: "cont"
  input_param {
    shape {
      dim: 1
      dim: 1
      dim: 500
    }
    shape {
      dim: 1
      dim: 1
    }
  }
}
layer {
  name: "lstm1_"
  type: "Input"
  top: "c_0"
  top: "h_0"
  input_param {
    shape {
      dim: 1
      dim: 1
      dim: 1000
    }
    shape {
      dim: 1
      dim: 1
      dim: 1000
    }
  }
}
layer {
  name: "lstm1_cont_slice"
  type: "Slice"
  bottom: "cont"
  top: "cont_1"
  slice_param {
    axis: 0
  }
}
layer {
  name: "lstm1_x_transform"
  type: "InnerProduct"
  bottom: "x"
  top: "W_xc_x"
  param {
    name: "W_xc"
  }
  param {
    name: "b_c"
  }
  propagate_down: true
  inner_product_param {
    num_output: 4000
    bias_term: true
    weight_filler {
      type: "uniform"
      min: -0.08
      max: 0.08
    }
    bias_filler {
      type: "constant"
      value: 0
    }
    axis: 2
  }
}
layer {
  name: "lstm1_W_xc_x_slice"
  type: "Slice"
  bottom: "W_xc_x"
  top: "W_xc_x_1"
  slice_param {
    axis: 0
  }
}
layer {
  name: "lstm1_h_conted_0"
  type: "Scale"
  bottom: "h_0"
  bottom: "cont_1"
  top: "h_conted_0"
  scale_param {
    axis: 0
  }
}
layer {
  name: "lstm1_transform_1"
  type: "InnerProduct"
  bottom: "h_conted_0"
  top: "W_hc_h_0"
  param {
    name: "W_hc"
  }
  inner_product_param {
    num_output: 4000
    bias_term: false
    weight_filler {
      type: "uniform"
      min: -0.08
      max: 0.08
    }
    axis: 2
  }
}
layer {
  name: "lstm1_gate_input_1"
  type: "Eltwise"
  bottom: "W_hc_h_0"
  bottom: "W_xc_x_1"
  top: "gate_input_1"
  eltwise_param {
    operation: SUM
  }
}
layer {
  name: "lstm1_unit_1"
  type: "LSTMUnit"
  bottom: "c_0"
  bottom: "gate_input_1"
  bottom: "cont_1"
  top: "c_1"
  top: "h_1"
}
layer {
  name: "lstm1_"
  type: "Split"
  bottom: "c_1"
  top: "c_T"
}
layer {
  name: "lstm1_h_concat"
  type: "Concat"
  bottom: "h_1"
  top: "h"
  concat_param {
    axis: 0
  }
}
layer {
  name: "h_pseudoloss"
  type: "Reduction"
  bottom: "h"
  top: "h_pseudoloss"
  loss_weight: 1
}
I0925 23:25:47.599421  2435 layer_factory.hpp:77] Creating layer lstm1_
I0925 23:25:47.599448  2435 net.cpp:91] Creating Layer lstm1_
I0925 23:25:47.599458  2435 net.cpp:399] lstm1_ -> x
I0925 23:25:47.599476  2435 net.cpp:399] lstm1_ -> cont
I0925 23:25:47.606302  2457 net.cpp:141] Setting up embedding
I0925 23:25:47.606356  2457 net.cpp:148] Top shape: 1 1 500 (500)
I0925 23:25:47.606364  2457 net.cpp:156] Memory required for data: 22408
I0925 23:25:47.606385  2457 layer_factory.hpp:77] Creating layer lstm1
I0925 23:25:47.606408  2457 net.cpp:91] Creating Layer lstm1
I0925 23:25:47.606417  2457 net.cpp:425] lstm1 <- embedded_input_frames
I0925 23:25:47.606428  2457 net.cpp:425] lstm1 <- cont_sentence_input_1_split_0
I0925 23:25:47.606438  2457 net.cpp:399] lstm1 -> lstm1
I0925 23:25:47.606459  2457 recurrent_layer.cpp:20] Initializing recurrent layer: assuming input batch contains 1 timesteps of 1 independent streams.
I0925 23:25:47.606766  2457 net.cpp:49] Initializing net from parameters: 
layer {
  name: "lstm1_"
  type: "Input"
  top: "x"
  top: "cont"
  input_param {
    shape {
      dim: 1
      dim: 1
      dim: 500
    }
    shape {
      dim: 1
      dim: 1
    }
  }
}
layer {
  name: "lstm1_"
  type: "Input"
  top: "c_0"
  top: "h_0"
  input_param {
    shape {
      dim: 1
      dim: 1
      dim: 1000
    }
    shape {
      dim: 1
      dim: 1
      dim: 1000
    }
  }
}
layer {
  name: "lstm1_cont_slice"
  type: "Slice"
  bottom: "cont"
  top: "cont_1"
  slice_param {
    axis: 0
  }
}
layer {
  name: "lstm1_x_transform"
  type: "InnerProduct"
  bottom: "x"
  top: "W_xc_x"
  param {
    name: "W_xc"
  }
  param {
    name: "b_c"
  }
  propagate_down: true
  inner_product_param {
    num_output: 4000
    bias_term: true
    weight_filler {
      type: "uniform"
      min: -0.08
      max: 0.08
    }
    bias_filler {
      type: "constant"
      value: 0
    }
    axis: 2
  }
}
layer {
  name: "lstm1_W_xc_x_slice"
  type: "Slice"
  bottom: "W_xc_x"
  top: "W_xc_x_1"
  slice_param {
    axis: 0
  }
}
layer {
  name: "lstm1_h_conted_0"
  type: "Scale"
  bottom: "h_0"
  bottom: "cont_1"
  top: "h_conted_0"
  scale_param {
    axis: 0
  }
}
layer {
  name: "lstm1_transform_1"
  type: "InnerProduct"
  bottom: "h_conted_0"
  top: "W_hc_h_0"
  param {
    name: "W_hc"
  }
  inner_product_param {
    num_output: 4000
    bias_term: false
    weight_filler {
      type: "uniform"
      min: -0.08
      max: 0.08
    }
    axis: 2
  }
}
layer {
  name: "lstm1_gate_input_1"
  type: "Eltwise"
  bottom: "W_hc_h_0"
  bottom: "W_xc_x_1"
  top: "gate_input_1"
  eltwise_param {
    operation: SUM
  }
}
layer {
  name: "lstm1_unit_1"
  type: "LSTMUnit"
  bottom: "c_0"
  bottom: "gate_input_1"
  bottom: "cont_1"
  top: "c_1"
  top: "h_1"
}
layer {
  name: "lstm1_"
  type: "Split"
  bottom: "c_1"
  top: "c_T"
}
layer {
  name: "lstm1_h_concat"
  type: "Concat"
  bottom: "h_1"
  top: "h"
  concat_param {
    axis: 0
  }
}
layer {
  name: "h_pseudoloss"
  type: "Reduction"
  bottom: "h"
  top: "h_pseudoloss"
  loss_weight: 1
}
I0925 23:25:47.606863  2457 layer_factory.hpp:77] Creating layer lstm1_
I0925 23:25:47.606876  2457 net.cpp:91] Creating Layer lstm1_
I0925 23:25:47.606884  2457 net.cpp:399] lstm1_ -> x
I0925 23:25:47.606895  2457 net.cpp:399] lstm1_ -> cont
I0925 23:25:47.649114  2461 net.cpp:141] Setting up lstm1_
I0925 23:25:47.649175  2461 net.cpp:148] Top shape: 1 1 500 (500)
I0925 23:25:47.649194  2461 net.cpp:148] Top shape: 1 1 (1)
I0925 23:25:47.649201  2461 net.cpp:156] Memory required for data: 2004
I0925 23:25:47.649214  2461 layer_factory.hpp:77] Creating layer lstm1_
I0925 23:25:47.649241  2461 net.cpp:91] Creating Layer lstm1_
I0925 23:25:47.649241  2429 net.cpp:141] Setting up cont_1_lstm1_cont_slice_0_split
I0925 23:25:47.649255  2461 net.cpp:399] lstm1_ -> c_0
I0925 23:25:47.649267  2429 net.cpp:148] Top shape: 1 1 (1)
I0925 23:25:47.649279  2429 net.cpp:148] Top shape: 1 1 (1)
I0925 23:25:47.649279  2461 net.cpp:399] lstm1_ -> h_0
I0925 23:25:47.649297  2429 net.cpp:156] Memory required for data: 10016
I0925 23:25:47.649307  2429 layer_factory.hpp:77] Creating layer lstm1_x_transform
I0925 23:25:47.649333  2429 net.cpp:91] Creating Layer lstm1_x_transform
I0925 23:25:47.649344  2429 net.cpp:425] lstm1_x_transform <- x
I0925 23:25:47.649360  2429 net.cpp:399] lstm1_x_transform -> W_xc_x
I0925 23:25:47.649377  2461 net.cpp:141] Setting up lstm1_
I0925 23:25:47.649392  2461 net.cpp:148] Top shape: 1 1 1000 (1000)
I0925 23:25:47.649402  2461 net.cpp:148] Top shape: 1 1 1000 (1000)
I0925 23:25:47.649410  2461 net.cpp:156] Memory required for data: 10004
I0925 23:25:47.649417  2461 layer_factory.hpp:77] Creating layer lstm1_cont_slice
I0925 23:25:47.649432  2461 net.cpp:91] Creating Layer lstm1_cont_slice
I0925 23:25:47.649441  2461 net.cpp:425] lstm1_cont_slice <- cont
I0925 23:25:47.649453  2461 net.cpp:399] lstm1_cont_slice -> cont_1
I0925 23:25:47.655473  2413 net.cpp:141] Setting up embedding
I0925 23:25:47.655536  2413 net.cpp:148] Top shape: 1 1 500 (500)
I0925 23:25:47.655549  2413 net.cpp:156] Memory required for data: 22408
I0925 23:25:47.655578  2413 layer_factory.hpp:77] Creating layer lstm1
I0925 23:25:47.655566  2435 net.cpp:141] Setting up lstm1_
I0925 23:25:47.655606  2413 net.cpp:91] Creating Layer lstm1
I0925 23:25:47.655613  2435 net.cpp:148] Top shape: 1 1 500 (500)
I0925 23:25:47.655621  2413 net.cpp:425] lstm1 <- embedded_input_frames
I0925 23:25:47.655627  2435 net.cpp:148] Top shape: 1 1 (1)
I0925 23:25:47.655616  2461 net.cpp:141] Setting up lstm1_cont_slice
I0925 23:25:47.655637  2435 net.cpp:156] Memory required for data: 2004
I0925 23:25:47.655664  2461 net.cpp:148] Top shape: 1 1 (1)
I0925 23:25:47.655642  2413 net.cpp:425] lstm1 <- cont_sentence_input_1_split_0
I0925 23:25:47.655671  2435 layer_factory.hpp:77] Creating layer lstm1_
I0925 23:25:47.655674  2461 net.cpp:156] Memory required for data: 10008
I0925 23:25:47.655685  2413 net.cpp:399] lstm1 -> lstm1
I0925 23:25:47.655686  2461 layer_factory.hpp:77] Creating layer cont_1_lstm1_cont_slice_0_split
I0925 23:25:47.655700  2435 net.cpp:91] Creating Layer lstm1_
…
I0925 23:25:47.655768  2461 net.cpp:399] cont_1_lstm1_cont_slice_0_split -> cont_1_lstm1_cont_slice_0_split_1
I0925 23:25:47.656090  2413 net.cpp:49] Initializing net from parameters: 
layer {
  name: "lstm1_"
  type: "Input"
  top: "x"
  top: "cont"
  input_param {
    shape {
      dim: 1
      dim: 1
      dim: 500
    }
    shape {
      dim: 1
      dim: 1
    }
  }
}
layer {
  name: "lstm1_"
  type: "Input"
  top: "c_0"
  top: "h_0"
  input_param {
    shape {
      dim: 1
      dim: 1
      dim: 1000
    }
    shape {
      dim: 1
      dim: 1
      dim: 1000
    }
  }
}
layer {
  name: "lstm1_cont_slice"
  type: "Slice"
  bottom: "cont"
  top: "cont_1"
  slice_param {
    axis: 0
  }
}
layer {
  name: "lstm1_x_transform"
  type: "InnerProduct"
  bottom: "x"
  top: "W_xc_x"
  param {
    name: "W_xc"
  }
  param {
    name: "b_c"
  }
  propagate_down: true
  inner_product_param {
    num_output: 4000
    bias_term: true
    weight_filler {
      type: "uniform"
      min: -0.08
      max: 0.08
    }
    bias_filler {
      type: "constant"
      value: 0
    }
    axis: 2
  }
}
layer {
  name: "lstm1_W_xc_x_slice"
  type: "Slice"
  bottom: "W_xc_x"
  top: "W_xc_x_1"
  slice_param {
    axis: 0
  }
}
layer {
  name: "lstm1_h_conted_0"
  type: "Scale"
  bottom: "h_0"
  bottom: "cont_1"
  top: "h_conted_0"
  scale_param {
    axis: 0
  }
}
layer {
  name: "lstm1_transform_1"
  type: "InnerProduct"
  bottom: "h_conted_0"
  top: "W_hc_h_0"
  param {
    name: "W_hc"
  }
  inner_product_param {
    num_output: 4000
    bias_term: false
    weight_filler {
      type: "uniform"
      min: -0.08
      max: 0.08
    }
    axis: 2
  }
}
layer {
  name: "lstm1_gate_input_1"
  type: "Eltwise"
  bottom: "W_hc_h_0"
  bottom: "W_xc_x_1"
  top: "gate_input_1"
  eltwise_param {
    operation: SUM
  }
}
layer {
  name: "lstm1_unit_1"
  type: "LSTMUnit"
  bottom: "c_0"
  bottom: "gate_input_1"
  bottom: "cont_1"
  top: "c_1"
  top: "h_1"
}
layer {
  name: "lstm1_"
  type: "Split"
  bottom: "c_1"
  top: "c_T"
}
layer {
  name: "lstm1_h_concat"
  type: "Concat"
  bottom: "h_1"
  top: "h"
  concat_param {
    axis: 0
  }
}
layer {
  name: "h_pseudoloss"
  type: "Reduction"
  bottom: "h"
  top: "h_pseudoloss"
  loss_weight: 1
}
I0925 23:25:47.656216  2413 layer_factory.hpp:77] Creating layer lstm1_
I0925 23:25:47.656232  2413 net.cpp:91] Creating Layer lstm1_
I0925 23:25:47.656239  2413 net.cpp:399] lstm1_ -> x
I0925 23:25:47.656258  2413 net.cpp:399] lstm1_ -> cont
I0925 23:25:47.657630  2435 net.cpp:141] Setting up lstm1_
I0925 23:25:47.657676  2435 net.cpp:148] Top shape: 1 1 1000 (1000)
I0925 23:25:47.657687  2435 net.cpp:148] Top shape: 1 1 1000 (1000)
I0925 23:25:47.657694  2435 net.cpp:156] Memory required for data: 10004
I0925 23:25:47.657704  2435 layer_factory.hpp:77] Creating layer lstm1_cont_slice
I0925 23:25:47.657733  2435 net.cpp:91] Creating Layer lstm1_cont_slice
I0925 23:25:47.657744  2435 net.cpp:425] lstm1_cont_slice <- cont
I0925 23:25:47.657760  2435 net.cpp:399] lstm1_cont_slice -> cont_1
I0925 23:25:47.657820  2435 net.cpp:141] Setting up lstm1_cont_slice
I0925 23:25:47.657835  2435 net.cpp:148] Top shape: 1 1 (1)
I0925 23:25:47.657841  2435 net.cpp:156] Memory required for data: 10008
I0925 23:25:47.657850  2435 layer_factory.hpp:77] Creating layer cont_1_lstm1_cont_slice_0_split
I0925 23:25:47.657862  2435 net.cpp:91] Creating Layer cont_1_lstm1_cont_slice_0_split
I0925 23:25:47.657871  2435 net.cpp:425] cont_1_lstm1_cont_slice_0_split <- cont_1
I0925 23:25:47.657883  2435 net.cpp:399] cont_1_lstm1_cont_slice_0_split -> cont_1_lstm1_cont_slice_0_split_0
I0925 23:25:47.657902  2435 net.cpp:399] cont_1_lstm1_cont_slice_0_split -> cont_1_lstm1_cont_slice_0_split_1
I0925 23:25:47.658165  2461 net.cpp:141] Setting up cont_1_lstm1_cont_slice_0_split
I0925 23:25:47.658185  2461 net.cpp:148] Top shape: 1 1 (1)
I0925 23:25:47.658191  2461 net.cpp:148] Top shape: 1 1 (1)
I0925 23:25:47.658196  2461 net.cpp:156] Memory required for data: 10016
I0925 23:25:47.658202  2461 layer_factory.hpp:77] Creating layer lstm1_x_transform
I0925 23:25:47.658216  2413 net.cpp:141] Setting up lstm1_
I0925 23:25:47.658229  2461 net.cpp:91] Creating Layer lstm1_x_transform
I0925 23:25:47.658244  2413 net.cpp:148] Top shape: 1 1 500 (500)
I0925 23:25:47.658246  2461 net.cpp:425] lstm1_x_transform <- x
I0925 23:25:47.658272  2413 net.cpp:148] Top shape: 1 1 (1)
I0925 23:25:47.658280  2413 net.cpp:156] Memory required for data: 2004
I0925 23:25:47.658291  2413 layer_factory.hpp:77] Creating layer lstm1_
I0925 23:25:47.658290  2461 net.cpp:399] lstm1_x_transform -> W_xc_x
I0925 23:25:47.658321  2413 net.cpp:91] Creating Layer lstm1_
I0925 23:25:47.658331  2413 net.cpp:399] lstm1_ -> c_0
I0925 23:25:47.658334  2435 net.cpp:141] Setting up cont_1_lstm1_cont_slice_0_split
I0925 23:25:47.658345  2413 net.cpp:399] lstm1_ -> h_0
I0925 23:25:47.658350  2435 net.cpp:148] Top shape: 1 1 (1)
I0925 23:25:47.658361  2435 net.cpp:148] Top shape: 1 1 (1)
I0925 23:25:47.658367  2435 net.cpp:156] Memory required for data: 10016
I0925 23:25:47.658375  2435 layer_factory.hpp:77] Creating layer lstm1_x_transform
I0925 23:25:47.658399  2435 net.cpp:91] Creating Layer lstm1_x_transform
I0925 23:25:47.658407  2435 net.cpp:425] lstm1_x_transform <- x
I0925 23:25:47.658421  2435 net.cpp:399] lstm1_x_transform -> W_xc_x
I0925 23:25:47.658452  2405 net.cpp:141] Setting up lstm1_x_transform
I0925 23:25:47.658468  2405 net.cpp:148] Top shape: 1 1 4000 (4000)
I0925 23:25:47.658473  2405 net.cpp:156] Memory required for data: 26016
I0925 23:25:47.658488  2405 layer_factory.hpp:77] Creating layer lstm1_W_xc_x_slice
I0925 23:25:47.658501  2405 net.cpp:91] Creating Layer lstm1_W_xc_x_slice
I0925 23:25:47.658509  2405 net.cpp:425] lstm1_W_xc_x_slice <- W_xc_x
I0925 23:25:47.658516  2405 net.cpp:399] lstm1_W_xc_x_slice -> W_xc_x_1
I0925 23:25:47.678185  2405 net.cpp:141] Setting up lstm1_W_xc_x_slice
I0925 23:25:47.678238  2405 net.cpp:148] Top shape: 1 1 4000 (4000)
I0925 23:25:47.678248  2405 net.cpp:156] Memory required for data: 42016
I0925 23:25:47.678261  2405 layer_factory.hpp:77] Creating layer lstm1_h_conted_0
I0925 23:25:47.678299  2405 net.cpp:91] Creating Layer lstm1_h_conted_0
I0925 23:25:47.678310  2405 net.cpp:425] lstm1_h_conted_0 <- h_0
I0925 23:25:47.678324  2405 net.cpp:425] lstm1_h_conted_0 <- cont_1_lstm1_cont_slice_0_split_0
I0925 23:25:47.678347  2405 net.cpp:399] lstm1_h_conted_0 -> h_conted_0
I0925 23:25:47.678329  2413 net.cpp:141] Setting up lstm1_
I0925 23:25:47.678381  2413 net.cpp:148] Top shape: 1 1 1000 (1000)
I0925 23:25:47.678395  2413 net.cpp:148] Top shape: 1 1 1000 (1000)
I0925 23:25:47.678411  2413 net.cpp:156] Memory required for data: 10004
I0925 23:25:47.678423  2413 layer_factory.hpp:77] Creating layer lstm1_cont_slice
I0925 23:25:47.678429  2457 net.cpp:141] Setting up lstm1_
I0925 23:25:47.678447  2413 net.cpp:91] Creating Layer lstm1_cont_slice
I0925 23:25:47.678453  2457 net.cpp:148] Top shape: 1 1 500 (500)
I0925 23:25:47.678467  2457 net.cpp:148] Top shape: 1 1 (1)
I0925 23:25:47.678468  2413 net.cpp:425] lstm1_cont_slice <- cont
I0925 23:25:47.678474  2457 net.cpp:156] Memory required for data: 2004
I0925 23:25:47.678485  2457 layer_factory.hpp:77] Creating layer lstm1_
I0925 23:25:47.678489  2413 net.cpp:399] lstm1_cont_slice -> cont_1
I0925 23:25:47.678513  2457 net.cpp:91] Creating Layer lstm1_
I0925 23:25:47.678529  2457 net.cpp:399] lstm1_ -> c_0
I0925 23:25:47.678550  2457 net.cpp:399] lstm1_ -> h_0
I0925 23:25:47.678629  2413 net.cpp:141] Setting up lstm1_cont_slice
I0925 23:25:47.678647  2413 net.cpp:148] Top shape: 1 1 (1)
I0925 23:25:47.678653  2413 net.cpp:156] Memory required for data: 10008
I0925 23:25:47.678661  2413 layer_factory.hpp:77] Creating layer cont_1_lstm1_cont_slice_0_split
I0925 23:25:47.678685  2413 net.cpp:91] Creating Layer cont_1_lstm1_cont_slice_0_split
I0925 23:25:47.678694  2413 net.cpp:425] cont_1_lstm1_cont_slice_0_split <- cont_1
I0925 23:25:47.678704  2413 net.cpp:399] cont_1_lstm1_cont_slice_0_split -> cont_1_lstm1_cont_slice_0_split_0
I0925 23:25:47.678731  2457 net.cpp:141] Setting up lstm1_
I0925 23:25:47.678735  2413 net.cpp:399] cont_1_lstm1_cont_slice_0_split -> cont_1_lstm1_cont_slice_0_split_1
I0925 23:25:47.678755  2457 net.cpp:148] Top shape: 1 1 1000 (1000)
I0925 23:25:47.678766  2457 net.cpp:148] Top shape: 1 1 1000 (1000)
I0925 23:25:47.678772  2457 net.cpp:156] Memory required for data: 10004
I0925 23:25:47.678781  2457 layer_factory.hpp:77] Creating layer lstm1_cont_slice
I0925 23:25:47.678799  2457 net.cpp:91] Creating Layer lstm1_cont_slice
I0925 23:25:47.678809  2457 net.cpp:425] lstm1_cont_slice <- cont
I0925 23:25:47.678822  2457 net.cpp:399] lstm1_cont_slice -> cont_1
I0925 23:25:47.679451  2457 net.cpp:141] Setting up lstm1_cont_slice
I0925 23:25:47.679471  2457 net.cpp:148] Top shape: 1 1 (1)
I0925 23:25:47.679478  2457 net.cpp:156] Memory required for data: 10008
I0925 23:25:47.679487  2457 layer_factory.hpp:77] Creating layer cont_1_lstm1_cont_slice_0_split
I0925 23:25:47.679500  2457 net.cpp:91] Creating Layer cont_1_lstm1_cont_slice_0_split
I0925 23:25:47.679513  2457 net.cpp:425] cont_1_lstm1_cont_slice_0_split <- cont_1
I0925 23:25:47.679528  2457 net.cpp:399] cont_1_lstm1_cont_slice_0_split -> cont_1_lstm1_cont_slice_0_split_0
I0925 23:25:47.679541  2413 net.cpp:141] Setting up cont_1_lstm1_cont_slice_0_split
I0925 23:25:47.679543  2457 net.cpp:399] cont_1_lstm1_cont_slice_0_split -> cont_1_lstm1_cont_slice_0_split_1
I0925 23:25:47.679574  2413 net.cpp:148] Top shape: 1 1 (1)
I0925 23:25:47.679585  2413 net.cpp:148] Top shape: 1 1 (1)
I0925 23:25:47.679592  2413 net.cpp:156] Memory required for data: 10016
I0925 23:25:47.679610  2413 layer_factory.hpp:77] Creating layer lstm1_x_transform
I0925 23:25:47.679636  2413 net.cpp:91] Creating Layer lstm1_x_transform
I0925 23:25:47.679644  2413 net.cpp:425] lstm1_x_transform <- x
I0925 23:25:47.679674  2413 net.cpp:399] lstm1_x_transform -> W_xc_x
I0925 23:25:47.679754  2457 net.cpp:141] Setting up cont_1_lstm1_cont_slice_0_split
I0925 23:25:47.679770  2457 net.cpp:148] Top shape: 1 1 (1)
I0925 23:25:47.679781  2457 net.cpp:148] Top shape: 1 1 (1)
I0925 23:25:47.679790  2457 net.cpp:156] Memory required for data: 10016
I0925 23:25:47.679796  2457 layer_factory.hpp:77] Creating layer lstm1_x_transform
I0925 23:25:47.679817  2457 net.cpp:91] Creating Layer lstm1_x_transform
I0925 23:25:47.679826  2457 net.cpp:425] lstm1_x_transform <- x
I0925 23:25:47.679842  2457 net.cpp:399] lstm1_x_transform -> W_xc_x
I0925 23:25:47.697882  2449 net.cpp:141] Setting up embedding
I0925 23:25:47.697882  2429 net.cpp:141] Setting up lstm1_x_transform
I0925 23:25:47.701184  2449 net.cpp:148] Top shape: 1 1 500 (500)
I0925 23:25:47.701201  2429 net.cpp:148] Top shape: 1 1 4000 (4000)
I0925 23:25:47.701210  2449 net.cpp:156] Memory required for data: 22408
I0925 23:25:47.701230  2429 net.cpp:156] Memory required for data: 26016
I0925 23:25:47.701272  2449 layer_factory.hpp:77] Creating layer lstm1
I0925 23:25:47.701279  2429 layer_factory.hpp:77] Creating layer lstm1_W_xc_x_slice
I0925 23:25:47.701302  2449 net.cpp:91] Creating Layer lstm1
I0925 23:25:47.701308  2429 net.cpp:91] Creating Layer lstm1_W_xc_x_slice
I0925 23:25:47.701315  2449 net.cpp:425] lstm1 <- embedded_input_frames
I0925 23:25:47.701321  2429 net.cpp:425] lstm1_W_xc_x_slice <- W_xc_x
I0925 23:25:47.701329  2449 net.cpp:425] lstm1 <- cont_sentence_input_1_split_0
I0925 23:25:47.701342  2429 net.cpp:399] lstm1_W_xc_x_slice -> W_xc_x_1
I0925 23:25:47.701347  2449 net.cpp:399] lstm1 -> lstm1
I0925 23:25:47.701372  2449 recurrent_layer.cpp:20] Initializing recurrent layer: assuming input batch contains 1 timesteps of 1 independent streams.
I0925 23:25:47.701791  2449 net.cpp:49] Initializing net from parameters: 
layer {
  name: "lstm1_"
  type: "Input"
  top: "x"
  top: "cont"
  input_param {
    shape {
      dim: 1
      dim: 1
      dim: 500
    }
    shape {
      dim: 1
      dim: 1
    }
  }
}
layer {
  name: "lstm1_"
  type: "Input"
  top: "c_0"
  top: "h_0"
  input_param {
    shape {
      dim: 1
      dim: 1
      dim: 1000
    }
    shape {
      dim: 1
      dim: 1
      dim: 1000
    }
  }
}
layer {
  name: "lstm1_cont_slice"
  type: "Slice"
  bottom: "cont"
  top: "cont_1"
  slice_param {
    axis: 0
  }
}
layer {
  name: "lstm1_x_transform"
  type: "InnerProduct"
  bottom: "x"
  top: "W_xc_x"
  param {
    name: "W_xc"
  }
  param {
    name: "b_c"
  }
  propagate_down: true
  inner_product_param {
    num_output: 4000
    bias_term: true
    weight_filler {
      type: "uniform"
      min: -0.08
      max: 0.08
    }
    bias_filler {
      type: "constant"
      value: 0
    }
    axis: 2
  }
}
layer {
  name: "lstm1_W_xc_x_slice"
  type: "Slice"
  bottom: "W_xc_x"
  top: "W_xc_x_1"
  slice_param {
    axis: 0
  }
}
layer {
  name: "lstm1_h_conted_0"
  type: "Scale"
  bottom: "h_0"
  bottom: "cont_1"
  top: "h_conted_0"
  scale_param {
    axis: 0
  }
}
layer {
  name: "lstm1_transform_1"
  type: "InnerProduct"
  bottom: "h_conted_0"
  top: "W_hc_h_0"
  param {
    name: "W_hc"
  }
  inner_product_param {
    num_output: 4000
    bias_term: false
    weight_filler {
      type: "uniform"
      min: -0.08
      max: 0.08
    }
    axis: 2
  }
}
layer {
  name: "lstm1_gate_input_1"
  type: "Eltwise"
  bottom: "W_hc_h_0"
  bottom: "W_xc_x_1"
  top: "gate_input_1"
  eltwise_param {
    operation: SUM
  }
}
layer {
  name: "lstm1_unit_1"
  type: "LSTMUnit"
  bottom: "c_0"
  bottom: "gate_input_1"
  bottom: "cont_1"
  top: "c_1"
  top: "h_1"
}
layer {
  name: "lstm1_"
  type: "Split"
  bottom: "c_1"
  top: "c_T"
}
layer {
  name: "lstm1_h_concat"
  type: "Concat"
  bottom: "h_1"
  top: "h"
  concat_param {
    axis: 0
  }
}
layer {
  name: "h_pseudoloss"
  type: "Reduction"
  bottom: "h"
  top: "h_pseudoloss"
  loss_weight: 1
}
I0925 23:25:47.701866  2429 net.cpp:141] Setting up lstm1_W_xc_x_slice
I0925 23:25:47.701884  2429 net.cpp:148] Top shape: 1 1 4000 (4000)
I0925 23:25:47.701889  2429 net.cpp:156] Memory required for data: 42016
I0925 23:25:47.701895  2429 layer_factory.hpp:77] Creating layer lstm1_h_conted_0
I0925 23:25:47.701905  2429 net.cpp:91] Creating Layer lstm1_h_conted_0
I0925 23:25:47.701911  2429 net.cpp:425] lstm1_h_conted_0 <- h_0
I0925 23:25:47.701918  2429 net.cpp:425] lstm1_h_conted_0 <- cont_1_lstm1_cont_slice_0_split_0
I0925 23:25:47.701925  2449 layer_factory.hpp:77] Creating layer lstm1_
I0925 23:25:47.701930  2429 net.cpp:399] lstm1_h_conted_0 -> h_conted_0
I0925 23:25:47.701934  2405 net.cpp:141] Setting up lstm1_h_conted_0
I0925 23:25:47.701948  2449 net.cpp:91] Creating Layer lstm1_
I0925 23:25:47.701959  2405 net.cpp:148] Top shape: 1 1 1000 (1000)
I0925 23:25:47.701961  2449 net.cpp:399] lstm1_ -> x
I0925 23:25:47.701989  2405 net.cpp:156] Memory required for data: 46016
I0925 23:25:47.702003  2405 layer_factory.hpp:77] Creating layer lstm1_transform_1
I0925 23:25:47.702009  2449 net.cpp:399] lstm1_ -> cont
I0925 23:25:47.702029  2405 net.cpp:91] Creating Layer lstm1_transform_1
I0925 23:25:47.702044  2405 net.cpp:425] lstm1_transform_1 <- h_conted_0
I0925 23:25:47.702061  2405 net.cpp:399] lstm1_transform_1 -> W_hc_h_0
I0925 23:25:47.702131  2429 net.cpp:141] Setting up lstm1_h_conted_0
I0925 23:25:47.702143  2429 net.cpp:148] Top shape: 1 1 1000 (1000)
I0925 23:25:47.702148  2429 net.cpp:156] Memory required for data: 46016
I0925 23:25:47.702153  2429 layer_factory.hpp:77] Creating layer lstm1_transform_1
I0925 23:25:47.702167  2429 net.cpp:91] Creating Layer lstm1_transform_1
I0925 23:25:47.702175  2429 net.cpp:425] lstm1_transform_1 <- h_conted_0
I0925 23:25:47.702188  2429 net.cpp:399] lstm1_transform_1 -> W_hc_h_0
I0925 23:25:47.702194  2435 net.cpp:141] Setting up lstm1_x_transform
I0925 23:25:47.702215  2435 net.cpp:148] Top shape: 1 1 4000 (4000)
I0925 23:25:47.702225  2435 net.cpp:156] Memory required for data: 26016
I0925 23:25:47.702244  2435 layer_factory.hpp:77] Creating layer lstm1_W_xc_x_slice
I0925 23:25:47.702260  2435 net.cpp:91] Creating Layer lstm1_W_xc_x_slice
I0925 23:25:47.702270  2435 net.cpp:425] lstm1_W_xc_x_slice <- W_xc_x
I0925 23:25:47.702283  2435 net.cpp:399] lstm1_W_xc_x_slice -> W_xc_x_1
I0925 23:25:47.702354  2461 net.cpp:141] Setting up lstm1_x_transform
I0925 23:25:47.702373  2461 net.cpp:148] Top shape: 1 1 4000 (4000)
I0925 23:25:47.702381  2461 net.cpp:156] Memory required for data: 26016
I0925 23:25:47.702399  2461 layer_factory.hpp:77] Creating layer lstm1_W_xc_x_slice
I0925 23:25:47.702410  2461 net.cpp:91] Creating Layer lstm1_W_xc_x_slice
I0925 23:25:47.702417  2461 net.cpp:425] lstm1_W_xc_x_slice <- W_xc_x
I0925 23:25:47.702451  2461 net.cpp:399] lstm1_W_xc_x_slice -> W_xc_x_1
I0925 23:25:47.713210  2435 net.cpp:141] Setting up lstm1_W_xc_x_slice
I0925 23:25:47.713258  2435 net.cpp:148] Top shape: 1 1 4000 (4000)
I0925 23:25:47.713265  2435 net.cpp:156] Memory required for data: 42016
I0925 23:25:47.713277  2435 layer_factory.hpp:77] Creating layer lstm1_h_conted_0
I0925 23:25:47.713307  2435 net.cpp:91] Creating Layer lstm1_h_conted_0
I0925 23:25:47.713318  2435 net.cpp:425] lstm1_h_conted_0 <- h_0
I0925 23:25:47.713331  2435 net.cpp:425] lstm1_h_conted_0 <- cont_1_lstm1_cont_slice_0_split_0
I0925 23:25:47.713343  2435 net.cpp:399] lstm1_h_conted_0 -> h_conted_0
I0925 23:25:47.713526  2435 net.cpp:141] Setting up lstm1_h_conted_0
I0925 23:25:47.713541  2435 net.cpp:148] Top shape: 1 1 1000 (1000)
I0925 23:25:47.713547  2435 net.cpp:156] Memory required for data: 46016
I0925 23:25:47.713556  2435 layer_factory.hpp:77] Creating layer lstm1_transform_1
I0925 23:25:47.713577  2435 net.cpp:91] Creating Layer lstm1_transform_1
I0925 23:25:47.713584  2435 net.cpp:425] lstm1_transform_1 <- h_conted_0
I0925 23:25:47.713598  2435 net.cpp:399] lstm1_transform_1 -> W_hc_h_0
I0925 23:25:47.726898  2461 net.cpp:141] Setting up lstm1_W_xc_x_slice
I0925 23:25:47.726954  2461 net.cpp:148] Top shape: 1 1 4000 (4000)
I0925 23:25:47.726963  2461 net.cpp:156] Memory required for data: 42016
I0925 23:25:47.726975  2461 layer_factory.hpp:77] Creating layer lstm1_h_conted_0
I0925 23:25:47.726999  2461 net.cpp:91] Creating Layer lstm1_h_conted_0
I0925 23:25:47.727010  2461 net.cpp:425] lstm1_h_conted_0 <- h_0
I0925 23:25:47.727022  2461 net.cpp:425] lstm1_h_conted_0 <- cont_1_lstm1_cont_slice_0_split_0
I0925 23:25:47.727043  2461 net.cpp:399] lstm1_h_conted_0 -> h_conted_0
I0925 23:25:47.740046  2409 net.cpp:141] Setting up embedding
I0925 23:25:47.740105  2409 net.cpp:148] Top shape: 1 1 500 (500)
I0925 23:25:47.740114  2409 net.cpp:156] Memory required for data: 22408
I0925 23:25:47.740136  2409 layer_factory.hpp:77] Creating layer lstm1
I0925 23:25:47.740161  2409 net.cpp:91] Creating Layer lstm1
I0925 23:25:47.740171  2409 net.cpp:425] lstm1 <- embedded_input_frames
I0925 23:25:47.740185  2409 net.cpp:425] lstm1 <- cont_sentence_input_1_split_0
I0925 23:25:47.740198  2409 net.cpp:399] lstm1 -> lstm1
I0925 23:25:47.740221  2409 recurrent_layer.cpp:20] Initializing recurrent layer: assuming input batch contains 1 timesteps of 1 independent streams.
I0925 23:25:47.740627  2409 net.cpp:49] Initializing net from parameters: 
layer {
  name: "lstm1_"
  type: "Input"
  top: "x"
  top: "cont"
  input_param {
    shape {
      dim: 1
      dim: 1
      dim: 500
    }
    shape {
      dim: 1
      dim: 1
    }
  }
}
layer {
  name: "lstm1_"
  type: "Input"
  top: "c_0"
  top: "h_0"
  input_param {
    shape {
      dim: 1
      dim: 1
      dim: 1000
    }
    shape {
      dim: 1
      dim: 1
      dim: 1000
    }
  }
}
layer {
  name: "lstm1_cont_slice"
  type: "Slice"
  bottom: "cont"
  top: "cont_1"
  slice_param {
    axis: 0
  }
}
layer {
  name: "lstm1_x_transform"
  type: "InnerProduct"
  bottom: "x"
  top: "W_xc_x"
  param {
    name: "W_xc"
  }
  param {
    name: "b_c"
  }
  propagate_down: true
  inner_product_param {
    num_output: 4000
    bias_term: true
    weight_filler {
      type: "uniform"
      min: -0.08
      max: 0.08
    }
    bias_filler {
      type: "constant"
      value: 0
    }
    axis: 2
  }
}
layer {
  name: "lstm1_W_xc_x_slice"
  type: "Slice"
  bottom: "W_xc_x"
  top: "W_xc_x_1"
  slice_param {
    axis: 0
  }
}
layer {
  name: "lstm1_h_conted_0"
  type: "Scale"
  bottom: "h_0"
  bottom: "cont_1"
  top: "h_conted_0"
  scale_param {
    axis: 0
  }
}
layer {
  name: "lstm1_transform_1"
  type: "InnerProduct"
  bottom: "h_conted_0"
  top: "W_hc_h_0"
  param {
    name: "W_hc"
  }
  inner_product_param {
    num_output: 4000
    bias_term: false
    weight_filler {
      type: "uniform"
      min: -0.08
      max: 0.08
    }
    axis: 2
  }
}
layer {
  name: "lstm1_gate_input_1"
  type: "Eltwise"
  bottom: "W_hc_h_0"
  bottom: "W_xc_x_1"
  top: "gate_input_1"
  eltwise_param {
    operation: SUM
  }
}
layer {
  name: "lstm1_unit_1"
  type: "LSTMUnit"
  bottom: "c_0"
  bottom: "gate_input_1"
  bottom: "cont_1"
  top: "c_1"
  top: "h_1"
}
layer {
  name: "lstm1_"
  type: "Split"
  bottom: "c_1"
  top: "c_T"
}
layer {
  name: "lstm1_h_concat"
  type: "Concat"
  bottom: "h_1"
  top: "h"
  concat_param {
    axis: 0
  }
}
layer {
  name: "h_pseudoloss"
  type: "Reduction"
  bottom: "h"
  top: "h_pseudoloss"
  loss_weight: 1
}
I0925 23:25:47.740754  2409 layer_factory.hpp:77] Creating layer lstm1_
I0925 23:25:47.740772  2409 net.cpp:91] Creating Layer lstm1_
I0925 23:25:47.740782  2409 net.cpp:399] lstm1_ -> x
I0925 23:25:47.740797  2409 net.cpp:399] lstm1_ -> cont
I0925 23:25:47.740880  2409 net.cpp:141] Setting up lstm1_
I0925 23:25:47.740893  2409 net.cpp:148] Top shape: 1 1 500 (500)
I0925 23:25:47.740903  2409 net.cpp:148] Top shape: 1 1 (1)
I0925 23:25:47.740909  2409 net.cpp:156] Memory required for data: 2004
I0925 23:25:47.740917  2409 layer_factory.hpp:77] Creating layer lstm1_
I0925 23:25:47.740934  2409 net.cpp:91] Creating Layer lstm1_
I0925 23:25:47.740944  2409 net.cpp:399] lstm1_ -> c_0
I0925 23:25:47.740958  2409 net.cpp:399] lstm1_ -> h_0
I0925 23:25:47.741039  2409 net.cpp:141] Setting up lstm1_
I0925 23:25:47.741053  2409 net.cpp:148] Top shape: 1 1 1000 (1000)
I0925 23:25:47.741062  2409 net.cpp:148] Top shape: 1 1 1000 (1000)
I0925 23:25:47.741068  2409 net.cpp:156] Memory required for data: 10004
I0925 23:25:47.741075  2409 layer_factory.hpp:77] Creating layer lstm1_cont_slice
I0925 23:25:47.741088  2409 net.cpp:91] Creating Layer lstm1_cont_slice
I0925 23:25:47.741096  2409 net.cpp:425] lstm1_cont_slice <- cont
I0925 23:25:47.741109  2409 net.cpp:399] lstm1_cont_slice -> cont_1
I0925 23:25:47.741155  2409 net.cpp:141] Setting up lstm1_cont_slice
I0925 23:25:47.741168  2409 net.cpp:148] Top shape: 1 1 (1)
I0925 23:25:47.741174  2409 net.cpp:156] Memory required for data: 10008
I0925 23:25:47.741183  2409 layer_factory.hpp:77] Creating layer cont_1_lstm1_cont_slice_0_split
I0925 23:25:47.741197  2409 net.cpp:91] Creating Layer cont_1_lstm1_cont_slice_0_split
I0925 23:25:47.741204  2409 net.cpp:425] cont_1_lstm1_cont_slice_0_split <- cont_1
I0925 23:25:47.741215  2409 net.cpp:399] cont_1_lstm1_cont_slice_0_split -> cont_1_lstm1_cont_slice_0_split_0
I0925 23:25:47.741233  2409 net.cpp:399] cont_1_lstm1_cont_slice_0_split -> cont_1_lstm1_cont_slice_0_split_1
I0925 23:25:47.741300  2409 net.cpp:141] Setting up cont_1_lstm1_cont_slice_0_split
I0925 23:25:47.741312  2409 net.cpp:148] Top shape: 1 1 (1)
I0925 23:25:47.741322  2409 net.cpp:148] Top shape: 1 1 (1)
I0925 23:25:47.741328  2409 net.cpp:156] Memory required for data: 10016
I0925 23:25:47.741335  2409 layer_factory.hpp:77] Creating layer lstm1_x_transform
I0925 23:25:47.741349  2409 net.cpp:91] Creating Layer lstm1_x_transform
I0925 23:25:47.741356  2409 net.cpp:425] lstm1_x_transform <- x
I0925 23:25:47.741369  2409 net.cpp:399] lstm1_x_transform -> W_xc_x
I0925 23:25:47.747107  2413 net.cpp:141] Setting up lstm1_x_transform
I0925 23:25:47.747153  2413 net.cpp:148] Top shape: 1 1 4000 (4000)
I0925 23:25:47.747159  2413 net.cpp:156] Memory required for data: 26016
I0925 23:25:47.747185  2413 layer_factory.hpp:77] Creating layer lstm1_W_xc_x_slice
I0925 23:25:47.747208  2413 net.cpp:91] Creating Layer lstm1_W_xc_x_slice
I0925 23:25:47.747215  2413 net.cpp:425] lstm1_W_xc_x_slice <- W_xc_x
I0925 23:25:47.747225  2413 net.cpp:399] lstm1_W_xc_x_slice -> W_xc_x_1
I0925 23:25:47.747243  2449 net.cpp:141] Setting up lstm1_
I0925 23:25:47.747264  2449 net.cpp:148] Top shape: 1 1 500 (500)
I0925 23:25:47.747272  2449 net.cpp:148] Top shape: 1 1 (1)
I0925 23:25:47.747277  2449 net.cpp:156] Memory required for data: 2004
I0925 23:25:47.747283  2449 layer_factory.hpp:77] Creating layer lstm1_
I0925 23:25:47.747301  2449 net.cpp:91] Creating Layer lstm1_
I0925 23:25:47.747310  2449 net.cpp:399] lstm1_ -> c_0
I0925 23:25:47.747326  2449 net.cpp:399] lstm1_ -> h_0
I0925 23:25:47.747395  2461 net.cpp:141] Setting up lstm1_h_conted_0
I0925 23:25:47.747440  2461 net.cpp:148] Top shape: 1 1 1000 (1000)
I0925 23:25:47.747448  2461 net.cpp:156] Memory required for data: 46016
I0925 23:25:47.747459  2461 layer_factory.hpp:77] Creating layer lstm1_transform_1
I0925 23:25:47.747483  2461 net.cpp:91] Creating Layer lstm1_transform_1
I0925 23:25:47.747493  2461 net.cpp:425] lstm1_transform_1 <- h_conted_0
I0925 23:25:47.747505  2413 net.cpp:141] Setting up lstm1_W_xc_x_slice
I0925 23:25:47.747510  2461 net.cpp:399] lstm1_transform_1 -> W_hc_h_0
I0925 23:25:47.747519  2413 net.cpp:148] Top shape: 1 1 4000 (4000)
I0925 23:25:47.747524  2413 net.cpp:156] Memory required for data: 42016
I0925 23:25:47.747529  2413 layer_factory.hpp:77] Creating layer lstm1_h_conted_0
I0925 23:25:47.747542  2413 net.cpp:91] Creating Layer lstm1_h_conted_0
I0925 23:25:47.747548  2413 net.cpp:425] lstm1_h_conted_0 <- h_0
I0925 23:25:47.747555  2413 net.cpp:425] lstm1_h_conted_0 <- cont_1_lstm1_cont_slice_0_split_0
I0925 23:25:47.747562  2413 net.cpp:399] lstm1_h_conted_0 -> h_conted_0
I0925 23:25:47.747603  2457 net.cpp:141] Setting up lstm1_x_transform
I0925 23:25:47.747623  2457 net.cpp:148] Top shape: 1 1 4000 (4000)
I0925 23:25:47.747629  2457 net.cpp:156] Memory required for data: 26016
I0925 23:25:47.747645  2457 layer_factory.hpp:77] Creating layer lstm1_W_xc_x_slice
I0925 23:25:47.747658  2457 net.cpp:91] Creating Layer lstm1_W_xc_x_slice
I0925 23:25:47.747663  2457 net.cpp:425] lstm1_W_xc_x_slice <- W_xc_x
I0925 23:25:47.747673  2457 net.cpp:399] lstm1_W_xc_x_slice -> W_xc_x_1
I0925 23:25:47.747689  2449 net.cpp:141] Setting up lstm1_
I0925 23:25:47.747700  2449 net.cpp:148] Top shape: 1 1 1000 (1000)
I0925 23:25:47.747707  2449 net.cpp:148] Top shape: 1 1 1000 (1000)
I0925 23:25:47.747711  2449 net.cpp:156] Memory required for data: 10004
I0925 23:25:47.747716  2449 layer_factory.hpp:77] Creating layer lstm1_cont_slice
I0925 23:25:47.747726  2449 net.cpp:91] Creating Layer lstm1_cont_slice
I0925 23:25:47.747731  2449 net.cpp:425] lstm1_cont_slice <- cont
I0925 23:25:47.747732  2457 net.cpp:141] Setting up lstm1_W_xc_x_slice
I0925 23:25:47.747741  2449 net.cpp:399] lstm1_cont_slice -> cont_1
I0925 23:25:47.747745  2457 net.cpp:148] Top shape: 1 1 4000 (4000)
I0925 23:25:47.747750  2457 net.cpp:156] Memory required for data: 42016
I0925 23:25:47.747755  2457 layer_factory.hpp:77] Creating layer lstm1_h_conted_0
I0925 23:25:47.747766  2457 net.cpp:91] Creating Layer lstm1_h_conted_0
I0925 23:25:47.747771  2457 net.cpp:425] lstm1_h_conted_0 <- h_0
I0925 23:25:47.747777  2457 net.cpp:425] lstm1_h_conted_0 <- cont_1_lstm1_cont_slice_0_split_0
I0925 23:25:47.747784  2457 net.cpp:399] lstm1_h_conted_0 -> h_conted_0
I0925 23:25:47.757912  2413 net.cpp:141] Setting up lstm1_h_conted_0
I0925 23:25:47.757961  2413 net.cpp:148] Top shape: 1 1 1000 (1000)
I0925 23:25:47.757971  2413 net.cpp:156] Memory required for data: 46016
I0925 23:25:47.757980  2413 layer_factory.hpp:77] Creating layer lstm1_transform_1
I0925 23:25:47.758009  2413 net.cpp:91] Creating Layer lstm1_transform_1
I0925 23:25:47.758019  2413 net.cpp:425] lstm1_transform_1 <- h_conted_0
I0925 23:25:47.758035  2413 net.cpp:399] lstm1_transform_1 -> W_hc_h_0
I0925 23:25:47.769011  2457 net.cpp:141] Setting up lstm1_h_conted_0
I0925 23:25:47.769050  2405 net.cpp:141] Setting up lstm1_transform_1
I0925 23:25:47.769062  2457 net.cpp:148] Top shape: 1 1 1000 (1000)
I0925 23:25:47.769084  2457 net.cpp:156] Memory required for data: 46016
I0925 23:25:47.769088  2405 net.cpp:148] Top shape: 1 1 4000 (4000)
I0925 23:25:47.769094  2457 layer_factory.hpp:77] Creating layer lstm1_transform_1
I0925 23:25:47.769099  2405 net.cpp:156] Memory required for data: 62016
I0925 23:25:47.769115  2457 net.cpp:91] Creating Layer lstm1_transform_1
I0925 23:25:47.769124  2457 net.cpp:425] lstm1_transform_1 <- h_conted_0
I0925 23:25:47.769122  2405 layer_factory.hpp:77] Creating layer lstm1_gate_input_1
I0925 23:25:47.769134  2457 net.cpp:399] lstm1_transform_1 -> W_hc_h_0
I0925 23:25:47.769147  2405 net.cpp:91] Creating Layer lstm1_gate_input_1
I0925 23:25:47.769157  2405 net.cpp:425] lstm1_gate_input_1 <- W_hc_h_0
I0925 23:25:47.769168  2405 net.cpp:425] lstm1_gate_input_1 <- W_xc_x_1
I0925 23:25:47.769182  2405 net.cpp:399] lstm1_gate_input_1 -> gate_input_1
I0925 23:25:47.771464  2405 net.cpp:141] Setting up lstm1_gate_input_1
I0925 23:25:47.771483  2405 net.cpp:148] Top shape: 1 1 4000 (4000)
I0925 23:25:47.771492  2405 net.cpp:156] Memory required for data: 78016
I0925 23:25:47.771499  2405 layer_factory.hpp:77] Creating layer lstm1_unit_1
I0925 23:25:47.771517  2405 net.cpp:91] Creating Layer lstm1_unit_1
I0925 23:25:47.771525  2405 net.cpp:425] lstm1_unit_1 <- c_0
I0925 23:25:47.771535  2405 net.cpp:425] lstm1_unit_1 <- gate_input_1
I0925 23:25:47.771545  2405 net.cpp:425] lstm1_unit_1 <- cont_1_lstm1_cont_slice_0_split_1
I0925 23:25:47.771548  2435 net.cpp:141] Setting up lstm1_transform_1
I0925 23:25:47.771556  2405 net.cpp:399] lstm1_unit_1 -> c_1
I0925 23:25:47.771569  2435 net.cpp:148] Top shape: 1 1 4000 (4000)
I0925 23:25:47.771571  2405 net.cpp:399] lstm1_unit_1 -> h_1
I0925 23:25:47.771574  2435 net.cpp:156] Memory required for data: 62016
I0925 23:25:47.771603  2435 layer_factory.hpp:77] Creating layer lstm1_gate_input_1
I0925 23:25:47.771620  2435 net.cpp:91] Creating Layer lstm1_gate_input_1
I0925 23:25:47.771627  2435 net.cpp:425] lstm1_gate_input_1 <- W_hc_h_0
I0925 23:25:47.771636  2435 net.cpp:425] lstm1_gate_input_1 <- W_xc_x_1
I0925 23:25:47.771646  2435 net.cpp:399] lstm1_gate_input_1 -> gate_input_1
I0925 23:25:47.771648  2449 net.cpp:141] Setting up lstm1_cont_slice
I0925 23:25:47.771690  2449 net.cpp:148] Top shape: 1 1 (1)
I0925 23:25:47.771697  2435 net.cpp:141] Setting up lstm1_gate_input_1
I0925 23:25:47.771702  2449 net.cpp:156] Memory required for data: 10008
I0925 23:25:47.771709  2435 net.cpp:148] Top shape: 1 1 4000 (4000)
I0925 23:25:47.771716  2435 net.cpp:156] Memory required for data: 78016
I0925 23:25:47.771715  2449 layer_factory.hpp:77] Creating layer cont_1_lstm1_cont_slice_0_split
I0925 23:25:47.771723  2435 layer_factory.hpp:77] Creating layer lstm1_unit_1
I0925 23:25:47.771733  2435 net.cpp:91] Creating Layer lstm1_unit_1
I0925 23:25:47.771739  2435 net.cpp:425] lstm1_unit_1 <- c_0
I0925 23:25:47.771740  2449 net.cpp:91] Creating Layer cont_1_lstm1_cont_slice_0_split
I0925 23:25:47.771745  2435 net.cpp:425] lstm1_unit_1 <- gate_input_1
I0925 23:25:47.771752  2435 net.cpp:425] lstm1_unit_1 <- cont_1_lstm1_cont_slice_0_split_1
I0925 23:25:47.771752  2449 net.cpp:425] cont_1_lstm1_cont_slice_0_split <- cont_1
I0925 23:25:47.771760  2435 net.cpp:399] lstm1_unit_1 -> c_1
I0925 23:25:47.771771  2435 net.cpp:399] lstm1_unit_1 -> h_1
I0925 23:25:47.771770  2449 net.cpp:399] cont_1_lstm1_cont_slice_0_split -> cont_1_lstm1_cont_slice_0_split_0
I0925 23:25:47.771791  2449 net.cpp:399] cont_1_lstm1_cont_slice_0_split -> cont_1_lstm1_cont_slice_0_split_1
I0925 23:25:47.771862  2435 net.cpp:141] Setting up lstm1_unit_1
I0925 23:25:47.771879  2435 net.cpp:148] Top shape: 1 1 1000 (1000)
I0925 23:25:47.771890  2435 net.cpp:148] Top shape: 1 1 1000 (1000)
I0925 23:25:47.771898  2435 net.cpp:156] Memory required for data: 86016
I0925 23:25:47.771908  2435 layer_factory.hpp:77] Creating layer lstm1_
I0925 23:25:47.771922  2435 net.cpp:91] Creating Layer lstm1_
I0925 23:25:47.771931  2435 net.cpp:425] lstm1_ <- c_1
I0925 23:25:47.771941  2435 net.cpp:399] lstm1_ -> c_T
I0925 23:25:47.772011  2405 net.cpp:141] Setting up lstm1_unit_1
I0925 23:25:47.772029  2405 net.cpp:148] Top shape: 1 1 1000 (1000)
I0925 23:25:47.772039  2405 net.cpp:148] Top shape: 1 1 1000 (1000)
I0925 23:25:47.772047  2405 net.cpp:156] Memory required for data: 86016
I0925 23:25:47.772054  2405 layer_factory.hpp:77] Creating layer lstm1_
I0925 23:25:47.772066  2405 net.cpp:91] Creating Layer lstm1_
I0925 23:25:47.772074  2405 net.cpp:425] lstm1_ <- c_1
I0925 23:25:47.772089  2405 net.cpp:399] lstm1_ -> c_T
I0925 23:25:47.779688  2435 net.cpp:141] Setting up lstm1_
I0925 23:25:47.779774  2429 net.cpp:141] Setting up lstm1_transform_1
I0925 23:25:47.779796  2429 net.cpp:148] Top shape: 1 1 4000 (4000)
I0925 23:25:47.779804  2429 net.cpp:156] Memory required for data: 62016
I0925 23:25:47.779830  2429 layer_factory.hpp:77] Creating layer lstm1_gate_input_1
I0925 23:25:47.779858  2429 net.cpp:91] Creating Layer lstm1_gate_input_1
I0925 23:25:47.779856  2435 net.cpp:148] Top shape: 1 1 1000 (1000)
I0925 23:25:47.779870  2429 net.cpp:425] lstm1_gate_input_1 <- W_hc_h_0
I0925 23:25:47.779880  2435 net.cpp:156] Memory required for data: 90016
I0925 23:25:47.779882  2429 net.cpp:425] lstm1_gate_input_1 <- W_xc_x_1
I0925 23:25:47.779911  2429 net.cpp:399] lstm1_gate_input_1 -> gate_input_1
I0925 23:25:47.779912  2449 net.cpp:141] Setting up cont_1_lstm1_cont_slice_0_split
I0925 23:25:47.779952  2449 net.cpp:148] Top shape: 1 1 (1)
I0925 23:25:47.779968  2449 net.cpp:148] Top shape: 1 1 (1)
I0925 23:25:47.779966  2405 net.cpp:141] Setting up lstm1_
I0925 23:25:47.780006  2405 net.cpp:148] Top shape: 1 1 1000 (1000)
I0925 23:25:47.780016  2405 net.cpp:156] Memory required for data: 90016
I0925 23:25:47.780025  2405 layer_factory.hpp:77] Creating layer lstm1_h_concat
I0925 23:25:47.779988  2449 net.cpp:156] Memory required for data: 10016
I0925 23:25:47.780040  2405 net.cpp:91] Creating Layer lstm1_h_concat
I0925 23:25:47.780050  2405 net.cpp:425] lstm1_h_concat <- h_1
I0925 23:25:47.780047  2449 layer_factory.hpp:77] Creating layer lstm1_x_transform
I0925 23:25:47.780062  2405 net.cpp:399] lstm1_h_concat -> h
I0925 23:25:47.780086  2449 net.cpp:91] Creating Layer lstm1_x_transform
I0925 23:25:47.780099  2449 net.cpp:425] lstm1_x_transform <- x
I0925 23:25:47.780110  2409 net.cpp:141] Setting up lstm1_x_transform
I0925 23:25:47.780135  2405 net.cpp:141] Setting up lstm1_h_concat
I0925 23:25:47.780150  2405 net.cpp:148] Top shape: 1 1 1000 (1000)
I0925 23:25:47.780149  2409 net.cpp:148] Top shape: 1 1 4000 (4000)
I0925 23:25:47.780159  2405 net.cpp:156] Memory required for data: 94016
I0925 23:25:47.780167  2405 layer_factory.hpp:77] Creating layer h_pseudoloss
I0925 23:25:47.780169  2409 net.cpp:156] Memory required for data: 26016
I0925 23:25:47.780194  2405 net.cpp:91] Creating Layer h_pseudoloss
I0925 23:25:47.780201  2405 net.cpp:425] h_pseudoloss <- h
I0925 23:25:47.780200  2409 layer_factory.hpp:77] Creating layer lstm1_W_xc_x_slice
I0925 23:25:47.780212  2405 net.cpp:399] h_pseudoloss -> h_pseudoloss
I0925 23:25:47.780226  2409 net.cpp:91] Creating Layer lstm1_W_xc_x_slice
I0925 23:25:47.780243  2409 net.cpp:425] lstm1_W_xc_x_slice <- W_xc_x
I0925 23:25:47.780267  2409 net.cpp:399] lstm1_W_xc_x_slice -> W_xc_x_1
I0925 23:25:47.779908  2435 layer_factory.hpp:77] Creating layer lstm1_h_concat
I0925 23:25:47.780333  2435 net.cpp:91] Creating Layer lstm1_h_concat
I0925 23:25:47.780352  2435 net.cpp:425] lstm1_h_concat <- h_1
I0925 23:25:47.780386  2435 net.cpp:399] lstm1_h_concat -> h
I0925 23:25:47.780118  2449 net.cpp:399] lstm1_x_transform -> W_xc_x
I0925 23:25:47.781337  2429 net.cpp:141] Setting up lstm1_gate_input_1
I0925 23:25:47.781357  2429 net.cpp:148] Top shape: 1 1 4000 (4000)
I0925 23:25:47.781364  2429 net.cpp:156] Memory required for data: 78016
I0925 23:25:47.781373  2429 layer_factory.hpp:77] Creating layer lstm1_unit_1
I0925 23:25:47.781386  2429 net.cpp:91] Creating Layer lstm1_unit_1
I0925 23:25:47.781394  2429 net.cpp:425] lstm1_unit_1 <- c_0
I0925 23:25:47.781404  2429 net.cpp:425] lstm1_unit_1 <- gate_input_1
I0925 23:25:47.781414  2429 net.cpp:425] lstm1_unit_1 <- cont_1_lstm1_cont_slice_0_split_1
…
I0925 23:25:47.781682  2405 net.cpp:219] lstm1_ does not need backward computation.
I0925 23:25:47.781688  2405 net.cpp:261] This network produces output c_T
I0925 23:25:47.781697  2405 net.cpp:261] This network produces output h_pseudoloss
I0925 23:25:47.781724  2405 net.cpp:274] Network initialization done.
I0925 23:25:47.781801  2405 recurrent_layer.cpp:150] Adding parameter 0: W_xc
I0925 23:25:47.781811  2405 recurrent_layer.cpp:150] Adding parameter 1: b_c
I0925 23:25:47.781818  2405 recurrent_layer.cpp:150] Adding parameter 2: W_hc
I0925 23:25:47.791128  2409 net.cpp:141] Setting up lstm1_W_xc_x_slice
I0925 23:25:47.791178  2409 net.cpp:148] Top shape: 1 1 4000 (4000)
I0925 23:25:47.791188  2409 net.cpp:156] Memory required for data: 42016
I0925 23:25:47.791199  2409 layer_factory.hpp:77] Creating layer lstm1_h_conted_0
I0925 23:25:47.791221  2409 net.cpp:91] Creating Layer lstm1_h_conted_0
I0925 23:25:47.791231  2409 net.cpp:425] lstm1_h_conted_0 <- h_0
I0925 23:25:47.791244  2409 net.cpp:425] lstm1_h_conted_0 <- cont_1_lstm1_cont_slice_0_split_0
I0925 23:25:47.791255  2409 net.cpp:399] lstm1_h_conted_0 -> h_conted_0
I0925 23:25:47.791419  2409 net.cpp:141] Setting up lstm1_h_conted_0
I0925 23:25:47.791434  2409 net.cpp:148] Top shape: 1 1 1000 (1000)
I0925 23:25:47.791440  2409 net.cpp:156] Memory required for data: 46016
I0925 23:25:47.791447  2409 layer_factory.hpp:77] Creating layer lstm1_transform_1
I0925 23:25:47.791465  2409 net.cpp:91] Creating Layer lstm1_transform_1
I0925 23:25:47.791473  2409 net.cpp:425] lstm1_transform_1 <- h_conted_0
I0925 23:25:47.791486  2409 net.cpp:399] lstm1_transform_1 -> W_hc_h_0
I0925 23:25:47.807183  2413 net.cpp:141] Setting up lstm1_transform_1
I0925 23:25:47.807314  2429 net.cpp:141] Setting up lstm1_unit_1
I0925 23:25:47.807678  2413 net.cpp:148] Top shape: 1 1 4000 (4000)
I0925 23:25:47.807687  2429 net.cpp:148] Top shape: 1 1 1000 (1000)
I0925 23:25:47.807693  2413 net.cpp:156] Memory required for data: 62016
I0925 23:25:47.807701  2429 net.cpp:148] Top shape: 1 1 1000 (1000)
I0925 23:25:47.807709  2429 net.cpp:156] Memory required for data: 86016
I0925 23:25:47.807720  2429 layer_factory.hpp:77] Creating layer lstm1_
I0925 23:25:47.807728  2413 layer_factory.hpp:77] Creating layer lstm1_gate_input_1
I0925 23:25:47.807739  2429 net.cpp:91] Creating Layer lstm1_
I0925 23:25:47.807749  2429 net.cpp:425] lstm1_ <- c_1
I0925 23:25:47.807754  2413 net.cpp:91] Creating Layer lstm1_gate_input_1
I0925 23:25:47.807765  2429 net.cpp:399] lstm1_ -> c_T
I0925 23:25:47.807833  2429 net.cpp:141] Setting up lstm1_
I0925 23:25:47.807847  2429 net.cpp:148] Top shape: 1 1 1000 (1000)
I0925 23:25:47.807855  2429 net.cpp:156] Memory required for data: 90016
I0925 23:25:47.807862  2429 layer_factory.hpp:77] Creating layer lstm1_h_concat
I0925 23:25:47.807878  2429 net.cpp:91] Creating Layer lstm1_h_concat
I0925 23:25:47.807884  2429 net.cpp:425] lstm1_h_concat <- h_1
I0925 23:25:47.807896  2429 net.cpp:399] lstm1_h_concat -> h
I0925 23:25:47.807950  2429 net.cpp:141] Setting up lstm1_h_concat
I0925 23:25:47.807963  2429 net.cpp:148] Top shape: 1 1 1000 (1000)
I0925 23:25:47.807971  2429 net.cpp:156] Memory required for data: 94016
I0925 23:25:47.807978  2429 layer_factory.hpp:77] Creating layer h_pseudoloss
I0925 23:25:47.807991  2429 net.cpp:91] Creating Layer h_pseudoloss
I0925 23:25:47.807999  2429 net.cpp:425] h_pseudoloss <- h
I0925 23:25:47.808010  2429 net.cpp:399] h_pseudoloss -> h_pseudoloss
I0925 23:25:47.808135  2429 net.cpp:141] Setting up h_pseudoloss
…
I0925 23:25:47.808295  2429 net.cpp:219] lstm1_ does not need backward computation.
I0925 23:25:47.808301  2429 net.cpp:261] This network produces output c_T
I0925 23:25:47.808310  2429 net.cpp:261] This network produces output h_pseudoloss
I0925 23:25:47.808334  2429 net.cpp:274] Network initialization done.
I0925 23:25:47.808398  2429 recurrent_layer.cpp:150] Adding parameter 0: W_xc
I0925 23:25:47.808408  2429 recurrent_layer.cpp:150] Adding parameter 1: b_c
I0925 23:25:47.808415  2429 recurrent_layer.cpp:150] Adding parameter 2: W_hc
I0925 23:25:47.808562  2429 net.cpp:141] Setting up lstm1
I0925 23:25:47.808578  2429 net.cpp:148] Top shape: 1 1 1000 (1000)
I0925 23:25:47.808584  2429 net.cpp:156] Memory required for data: 26408
I0925 23:25:47.808606  2429 layer_factory.hpp:77] Creating layer concat
I0925 23:25:47.808619  2429 net.cpp:91] Creating Layer concat
I0925 23:25:47.808627  2429 net.cpp:425] concat <- lstm1
I0925 23:25:47.808637  2429 net.cpp:425] concat <- embedded_input_sentence
I0925 23:25:47.808646  2429 net.cpp:425] concat <- reshaped_stage_indicator
I0925 23:25:47.808656  2429 net.cpp:399] concat -> lstm1_video_sequence
I0925 23:25:47.808703  2429 net.cpp:141] Setting up concat
I0925 23:25:47.808717  2429 net.cpp:148] Top shape: 1 1 1501 (1501)
I0925 23:25:47.808724  2429 net.cpp:156] Memory required for data: 32412
I0925 23:25:47.808732  2429 layer_factory.hpp:77] Creating layer lstm2
I0925 23:25:47.808749  2429 net.cpp:91] Creating Layer lstm2
I0925 23:25:47.808758  2429 net.cpp:425] lstm2 <- lstm1_video_sequence
I0925 23:25:47.808768  2429 net.cpp:425] lstm2 <- cont_sentence_input_1_split_1
I0925 23:25:47.808779  2429 net.cpp:399] lstm2 -> lstm2
I0925 23:25:47.808794  2429 recurrent_layer.cpp:20] Initializing recurrent layer: assuming input batch contains 1 timesteps of 1 independent streams.
I0925 23:25:47.809113  2435 net.cpp:141] Setting up lstm1_h_concat
I0925 23:25:47.809135  2435 net.cpp:148] Top shape: 1 1 1000 (1000)
I0925 23:25:47.809144  2435 net.cpp:156] Memory required for data: 94016
I0925 23:25:47.809154  2435 layer_factory.hpp:77] Creating layer h_pseudoloss
I0925 23:25:47.809170  2435 net.cpp:91] Creating Layer h_pseudoloss
I0925 23:25:47.809168  2429 net.cpp:49] Initializing net from parameters: 
layer {
  name: "lstm2_"
  type: "Input"
  top: "x"
  top: "cont"
  input_param {
    shape {
      dim: 1
      dim: 1
      dim: 1501
    }
    shape {
      dim: 1
      dim: 1
    }
  }
}
layer {
  name: "lstm2_"
  type: "Input"
  top: "c_0"
  top: "h_0"
  input_param {
    shape {
      dim: 1
      dim: 1
      dim: 1000
    }
    shape {
      dim: 1
      dim: 1
      dim: 1000
    }
  }
}
layer {
  name: "lstm2_cont_slice"
  type: "Slice"
  bottom: "cont"
  top: "cont_1"
  slice_param {
    axis: 0
  }
}
layer {
  name: "lstm2_x_transform"
  type: "InnerProduct"
  bottom: "x"
  top: "W_xc_x"
  param {
    name: "W_xc"
  }
  param {
    name: "b_c"
  }
  propagate_down: true
  inner_product_param {
    num_output: 4000
    bias_term: true
    weight_filler {
      type: "uniform"
      min: -0.08
      max: 0.08
    }
    bias_filler {
      type: "constant"
      value: 0
    }
    axis: 2
  }
}
layer {
  name: "lstm2_W_xc_x_slice"
  type: "Slice"
  bottom: "W_xc_x"
  top: "W_xc_x_1"
  slice_param {
    axis: 0
  }
}
layer {
  name: "lstm2_h_conted_0"
  type: "Scale"
  bottom: "h_0"
  bottom: "cont_1"
  top: "h_conted_0"
  scale_param {
    axis: 0
  }
}
layer {
  name: "lstm2_transform_1"
  type: "InnerProduct"
  bottom: "h_conted_0"
  top: "W_hc_h_0"
  param {
    name: "W_hc"
  }
  inner_product_param {
    num_output: 4000
    bias_term: false
    weight_filler {
      type: "uniform"
      min: -0.08
      max: 0.08
    }
    axis: 2
  }
}
layer {
  name: "lstm2_gate_input_1"
  type: "Eltwise"
  bottom: "W_hc_h_0"
  bottom: "W_xc_x_1"
  top: "gate_input_1"
  eltwise_param {
    operation: SUM
  }
}
layer {
  name: "lstm2_unit_1"
  type: "LSTMUnit"
  bottom: "c_0"
  bottom: "gate_input_1"
  bottom: "cont_1"
  top: "c_1"
  top: "h_1"
}
layer {
  name: "lstm2_"
  type: "Split"
  bottom: "c_1"
  top: "c_T"
}
layer {
  name: "lstm2_h_concat"
  type: "Concat"
  bottom: "h_1"
  top: "h"
  concat_param {
    axis: 0
  }
}
layer {
  name: "h_pseudoloss"
  type: "Reduction"
  bottom: "h"
  top: "h_pseudoloss"
  loss_weight: 1
}
I0925 23:25:47.809180  2435 net.cpp:425] h_pseudoloss <- h
I0925 23:25:47.809195  2435 net.cpp:399] h_pseudoloss -> h_pseudoloss
I0925 23:25:47.809296  2429 layer_factory.hpp:77] Creating layer lstm2_
I0925 23:25:47.809315  2429 net.cpp:91] Creating Layer lstm2_
I0925 23:25:47.809325  2429 net.cpp:399] lstm2_ -> x
I0925 23:25:47.809342  2429 net.cpp:399] lstm2_ -> cont
I0925 23:25:47.809551  2429 net.cpp:141] Setting up lstm2_
I0925 23:25:47.809567  2429 net.cpp:148] Top shape: 1 1 1501 (1501)
I0925 23:25:47.809579  2429 net.cpp:148] Top shape: 1 1 (1)
I0925 23:25:47.809587  2429 net.cpp:156] Memory required for data: 6008
I0925 23:25:47.809597  2429 layer_factory.hpp:77] Creating layer lstm2_
I0925 23:25:47.809610  2429 net.cpp:91] Creating Layer lstm2_
I0925 23:25:47.809624  2429 net.cpp:399] lstm2_ -> c_0
I0925 23:25:47.809640  2429 net.cpp:399] lstm2_ -> h_0
I0925 23:25:47.807766  2413 net.cpp:425] lstm1_gate_input_1 <- W_hc_h_0
I0925 23:25:47.810883  2413 net.cpp:425] lstm1_gate_input_1 <- W_xc_x_1
…
I0925 23:25:47.823945  2435 net.cpp:217] lstm1_h_concat needs backward computation.
I0925 23:25:47.823953  2435 net.cpp:219] lstm1_ does not need backward computation.
I0925 23:25:47.823962  2435 net.cpp:217] lstm1_unit_1 needs backward computation.
I0925 23:25:47.823974  2435 net.cpp:217] lstm1_gate_input_1 needs backward computation.
I0925 23:25:47.823984  2435 net.cpp:217] lstm1_transform_1 needs backward computation.
I0925 23:25:47.823981  2413 net.cpp:141] Setting up lstm1_gate_input_1
I0925 23:25:47.823994  2435 net.cpp:219] lstm1_h_conted_0 does not need backward computation.
I0925 23:25:47.824025  2413 net.cpp:148] Top shape: 1 1 4000 (4000)
I0925 23:25:47.824035  2413 net.cpp:156] Memory required for data: 78016
I0925 23:25:47.824033  2435 net.cpp:217] lstm1_W_xc_x_slice needs backward computation.
I0925 23:25:47.824046  2435 net.cpp:217] lstm1_x_transform needs backward computation.
I0925 23:25:47.824044  2461 net.cpp:141] Setting up lstm1_transform_1
I0925 23:25:47.824048  2413 layer_factory.hpp:77] Creating layer lstm1_unit_1
I0925 23:25:47.824054  2435 net.cpp:219] cont_1_lstm1_cont_slice_0_split does not need backward computation.
I0925 23:25:47.824072  2461 net.cpp:148] Top shape: 1 1 4000 (4000)
I0925 23:25:47.824102  2405 net.cpp:141] Setting up lstm1
I0925 23:25:47.824100  2413 net.cpp:91] Creating Layer lstm1_unit_1
I0925 23:25:47.824100  2461 net.cpp:156] Memory required for data: 62016
I0925 23:25:47.824100  2435 net.cpp:219] lstm1_cont_slice does not need backward computation.
I0925 23:25:47.824134  2413 net.cpp:425] lstm1_unit_1 <- c_0
I0925 23:25:47.824138  2435 net.cpp:219] lstm1_ does not need backward computation.
I0925 23:25:47.824146  2461 layer_factory.hpp:77] Creating layer lstm1_gate_input_1
I0925 23:25:47.824146  2435 net.cpp:219] lstm1_ does not need backward computation.
I0925 23:25:47.824136  2405 net.cpp:148] Top shape: 1 1 1000 (1000)
I0925 23:25:47.824174  2435 net.cpp:261] This network produces output c_T
I0925 23:25:47.824178  2461 net.cpp:91] Creating Layer lstm1_gate_input_1
I0925 23:25:47.824182  2405 net.cpp:156] Memory required for data: 26408
I0925 23:25:47.824185  2435 net.cpp:261] This network produces output h_pseudoloss
I0925 23:25:47.824188  2461 net.cpp:425] lstm1_gate_input_1 <- W_hc_h_0
I0925 23:25:47.824199  2461 net.cpp:425] lstm1_gate_input_1 <- W_xc_x_1
I0925 23:25:47.824203  2429 net.cpp:141] Setting up lstm2_
I0925 23:25:47.824213  2461 net.cpp:399] lstm1_gate_input_1 -> gate_input_1
I0925 23:25:47.824206  2405 layer_factory.hpp:77] Creating layer concat
I0925 23:25:47.824224  2429 net.cpp:148] Top shape: 1 1 1000 (1000)
I0925 23:25:47.824236  2429 net.cpp:148] Top shape: 1 1 1000 (1000)
I0925 23:25:47.824220  2435 net.cpp:274] Network initialization done.
I0925 23:25:47.824247  2405 net.cpp:91] Creating Layer concat
I0925 23:25:47.824250  2429 net.cpp:156] Memory required for data: 14008
I0925 23:25:47.824259  2405 net.cpp:425] concat <- lstm1
I0925 23:25:47.824260  2429 layer_factory.hpp:77] Creating layer lstm2_cont_slice
I0925 23:25:47.824268  2405 net.cpp:425] concat <- embedded_input_sentence
I0925 23:25:47.824276  2429 net.cpp:91] Creating Layer lstm2_cont_slice
I0925 23:25:47.824276  2461 net.cpp:141] Setting up lstm1_gate_input_1
I0925 23:25:47.824297  2429 net.cpp:425] lstm2_cont_slice <- cont
I0925 23:25:47.824278  2405 net.cpp:425] concat <- reshaped_stage_indicator
I0925 23:25:47.824309  2461 net.cpp:148] Top shape: 1 1 4000 (4000)
I0925 23:25:47.824316  2405 net.cpp:399] concat -> lstm1_video_sequence
I0925 23:25:47.824311  2429 net.cpp:399] lstm2_cont_slice -> cont_1
I0925 23:25:47.824326  2461 net.cpp:156] Memory required for data: 78016
I0925 23:25:47.824329  2435 recurrent_layer.cpp:150] Adding parameter 0: W_xc
I0925 23:25:47.824334  2461 layer_factory.hpp:77] Creating layer lstm1_unit_1
I0925 23:25:47.824340  2435 recurrent_layer.cpp:150] Adding parameter 1: b_c
I0925 23:25:47.824349  2435 recurrent_layer.cpp:150] Adding parameter 2: W_hc
I0925 23:25:47.824349  2461 net.cpp:91] Creating Layer lstm1_unit_1
I0925 23:25:47.824349  2413 net.cpp:425] lstm1_unit_1 <- gate_input_1
I0925 23:25:47.824365  2461 net.cpp:425] lstm1_unit_1 <- c_0
I0925 23:25:47.824374  2413 net.cpp:425] lstm1_unit_1 <- cont_1_lstm1_cont_slice_0_split_1
I0925 23:25:47.824379  2405 net.cpp:141] Setting up concat
I0925 23:25:47.824375  2461 net.cpp:425] lstm1_unit_1 <- gate_input_1
I0925 23:25:47.824394  2405 net.cpp:148] Top shape: 1 1 1501 (1501)
I0925 23:25:47.824396  2413 net.cpp:399] lstm1_unit_1 -> c_1
I0925 23:25:47.824403  2405 net.cpp:156] Memory required for data: 32412
I0925 23:25:47.824398  2461 net.cpp:425] lstm1_unit_1 <- cont_1_lstm1_cont_slice_0_split_1
I0925 23:25:47.824411  2405 layer_factory.hpp:77] Creating layer lstm2
I0925 23:25:47.824421  2461 net.cpp:399] lstm1_unit_1 -> c_1
I0925 23:25:47.824421  2413 net.cpp:399] lstm1_unit_1 -> h_1
I0925 23:25:47.824430  2405 net.cpp:91] Creating Layer lstm2
I0925 23:25:47.824424  2429 net.cpp:141] Setting up lstm2_cont_slice
I0925 23:25:47.824440  2405 net.cpp:425] lstm2 <- lstm1_video_sequence
I0925 23:25:47.824437  2461 net.cpp:399] lstm1_unit_1 -> h_1
I0925 23:25:47.824460  2429 net.cpp:148] Top shape: 1 1 (1)
I0925 23:25:47.824450  2405 net.cpp:425] lstm2 <- cont_sentence_input_1_split_1
I0925 23:25:47.824472  2429 net.cpp:156] Memory required for data: 14012
I0925 23:25:47.824481  2429 layer_factory.hpp:77] Creating layer cont_1_lstm2_cont_slice_0_split
I0925 23:25:47.824483  2405 net.cpp:399] lstm2 -> lstm2
I0925 23:25:47.824501  2405 recurrent_layer.cpp:20] Initializing recurrent layer: assuming input batch contains 1 timesteps of 1 independent streams.
I0925 23:25:47.824501  2429 net.cpp:91] Creating Layer cont_1_lstm2_cont_slice_0_split
I0925 23:25:47.824523  2429 net.cpp:425] cont_1_lstm2_cont_slice_0_split <- cont_1
I0925 23:25:47.824537  2429 net.cpp:399] cont_1_lstm2_cont_slice_0_split -> cont_1_lstm2_cont_slice_0_split_0
I0925 23:25:47.824553  2429 net.cpp:399] cont_1_lstm2_cont_slice_0_split -> cont_1_lstm2_cont_slice_0_split_1
I0925 23:25:47.824719  2461 net.cpp:141] Setting up lstm1_unit_1
I0925 23:25:47.824734  2461 net.cpp:148] Top shape: 1 1 1000 (1000)
I0925 23:25:47.824744  2461 net.cpp:148] Top shape: 1 1 1000 (1000)
I0925 23:25:47.824750  2461 net.cpp:156] Memory required for data: 86016
I0925 23:25:47.824759  2461 layer_factory.hpp:77] Creating layer lstm1_
I0925 23:25:47.824759  2429 net.cpp:141] Setting up cont_1_lstm2_cont_slice_0_split
I0925 23:25:47.824771  2461 net.cpp:91] Creating Layer lstm1_
I0925 23:25:47.824779  2429 net.cpp:148] Top shape: 1 1 (1)
I0925 23:25:47.824779  2461 net.cpp:425] lstm1_ <- c_1
I0925 23:25:47.824796  2429 net.cpp:148] Top shape: 1 1 (1)
I0925 23:25:47.824801  2461 net.cpp:399] lstm1_ -> c_T
I0925 23:25:47.824805  2429 net.cpp:156] Memory required for data: 14020
I0925 23:25:47.824813  2429 layer_factory.hpp:77] Creating layer lstm2_x_transform
I0925 23:25:47.824833  2413 net.cpp:141] Setting up lstm1_unit_1
I0925 23:25:47.824856  2413 net.cpp:148] Top shape: 1 1 1000 (1000)
I0925 23:25:47.824869  2413 net.cpp:148] Top shape: 1 1 1000 (1000)
I0925 23:25:47.824837  2429 net.cpp:91] Creating Layer lstm2_x_transform
I0925 23:25:47.824880  2413 net.cpp:156] Memory required for data: 86016
I0925 23:25:47.824894  2405 net.cpp:49] Initializing net from parameters: 
layer {
  name: "lstm2_"
  type: "Input"
  top: "x"
  top: "cont"
  input_param {
    shape {
      dim: 1
      dim: 1
      dim: 1501
    }
    shape {
      dim: 1
      dim: 1
    }
  }
}
layer {
  name: "lstm2_"
  type: "Input"
  top: "c_0"
  top: "h_0"
  input_param {
    shape {
      dim: 1
      dim: 1
      dim: 1000
    }
    shape {
      dim: 1
      dim: 1
      dim: 1000
    }
  }
}
layer {
  name: "lstm2_cont_slice"
  type: "Slice"
  bottom: "cont"
  top: "cont_1"
  slice_param {
    axis: 0
  }
}
layer {
  name: "lstm2_x_transform"
  type: "InnerProduct"
  bottom: "x"
  top: "W_xc_x"
  param {
    name: "W_xc"
  }
  param {
    name: "b_c"
  }
  propagate_down: true
  inner_product_param {
    num_output: 4000
    bias_term: true
    weight_filler {
      type: "uniform"
      min: -0.08
      max: 0.08
    }
    bias_filler {
      type: "constant"
      value: 0
    }
    axis: 2
  }
}
layer {
  name: "lstm2_W_xc_x_slice"
  type: "Slice"
  bottom: "W_xc_x"
  top: "W_xc_x_1"
  slice_param {
    axis: 0
  }
}
layer {
  name: "lstm2_h_conted_0"
  type: "Scale"
  bottom: "h_0"
  bottom: "cont_1"
  top: "h_conted_0"
  scale_param {
    axis: 0
  }
}
layer {
  name: "lstm2_transform_1"
  type: "InnerProduct"
  bottom: "h_conted_0"
  top: "W_hc_h_0"
  param {
    name: "W_hc"
  }
  inner_product_param {
    num_output: 4000
    bias_term: false
    weight_filler {
      type: "uniform"
      min: -0.08
      max: 0.08
    }
    axis: 2
  }
}
layer {
  name: "lstm2_gate_input_1"
  type: "Eltwise"
  bottom: "W_hc_h_0"
  bottom: "W_xc_x_1"
  top: "gate_input_1"
  eltwise_param {
    operation: SUM
  }
}
layer {
  name: "lstm2_unit_1"
  type: "LSTMUnit"
  bottom: "c_0"
  bottom: "gate_input_1"
  bottom: "cont_1"
  top: "c_1"
  top: "h_1"
}
layer {
  name: "lstm2_"
  type: "Split"
  bottom: "c_1"
  top: "c_T"
}
layer {
  name: "lstm2_h_concat"
  type: "Concat"
  bottom: "h_1"
  top: "h"
  concat_param {
    axis: 0
  }
}
layer {
  name: "h_pseudoloss"
  type: "Reduction"
  bottom: "h"
  top: "h_pseudoloss"
  loss_weight: 1
}
I0925 23:25:47.824915  2413 layer_factory.hpp:77] Creating layer lstm1_
I0925 23:25:47.824894  2429 net.cpp:425] lstm2_x_transform <- x
I0925 23:25:47.824939  2429 net.cpp:399] lstm2_x_transform -> W_xc_x
I0925 23:25:47.824944  2461 net.cpp:141] Setting up lstm1_
I0925 23:25:47.824959  2461 net.cpp:148] Top shape: 1 1 1000 (1000)
I0925 23:25:47.824966  2461 net.cpp:156] Memory required for data: 90016
I0925 23:25:47.824973  2461 layer_factory.hpp:77] Creating layer lstm1_h_concat
I0925 23:25:47.824985  2461 net.cpp:91] Creating Layer lstm1_h_concat
I0925 23:25:47.824993  2461 net.cpp:425] lstm1_h_concat <- h_1
I0925 23:25:47.825006  2461 net.cpp:399] lstm1_h_concat -> h
I0925 23:25:47.824933  2413 net.cpp:91] Creating Layer lstm1_
I0925 23:25:47.825033  2405 layer_factory.hpp:77] Creating layer lstm2_
I0925 23:25:47.825052  2413 net.cpp:425] lstm1_ <- c_1
I0925 23:25:47.825062  2405 net.cpp:91] Creating Layer lstm2_
I0925 23:25:47.825073  2405 net.cpp:399] lstm2_ -> x
I0925 23:25:47.825088  2405 net.cpp:399] lstm2_ -> cont
I0925 23:25:47.825088  2413 net.cpp:399] lstm1_ -> c_T
I0925 23:25:47.845837  2461 net.cpp:141] Setting up lstm1_h_concat
I0925 23:25:47.845882  2435 net.cpp:141] Setting up lstm1
I0925 23:25:47.845887  2461 net.cpp:148] Top shape: 1 1 1000 (1000)
I0925 23:25:47.845911  2435 net.cpp:148] Top shape: 1 1 1000 (1000)
I0925 23:25:47.845913  2461 net.cpp:156] Memory required for data: 94016
I0925 23:25:47.845916  2435 net.cpp:156] Memory required for data: 26408
I0925 23:25:47.845929  2461 layer_factory.hpp:77] Creating layer h_pseudoloss
I0925 23:25:47.845947  2435 layer_factory.hpp:77] Creating layer concat
I0925 23:25:47.845952  2461 net.cpp:91] Creating Layer h_pseudoloss
I0925 23:25:47.845962  2435 net.cpp:91] Creating Layer concat
I0925 23:25:47.845962  2461 net.cpp:425] h_pseudoloss <- h
I0925 23:25:47.845985  2435 net.cpp:425] concat <- lstm1
I0925 23:25:47.845989  2461 net.cpp:399] h_pseudoloss -> h_pseudoloss
I0925 23:25:47.845999  2435 net.cpp:425] concat <- embedded_input_sentence
I0925 23:25:47.846009  2435 net.cpp:425] concat <- reshaped_stage_indicator
I0925 23:25:47.846016  2435 net.cpp:399] concat -> lstm1_video_sequence
I0925 23:25:47.846024  2413 net.cpp:141] Setting up lstm1_
I0925 23:25:47.846060  2413 net.cpp:148] Top shape: 1 1 1000 (1000)
I0925 23:25:47.846072  2457 net.cpp:141] Setting up lstm1_transform_1
I0925 23:25:47.846076  2413 net.cpp:156] Memory required for data: 90016
I0925 23:25:47.846103  2457 net.cpp:148] Top shape: 1 1 4000 (4000)
I0925 23:25:47.846106  2413 layer_factory.hpp:77] Creating layer lstm1_h_concat
I0925 23:25:47.846112  2457 net.cpp:156] Memory required for data: 62016
I0925 23:25:47.846117  2413 net.cpp:91] Creating Layer lstm1_h_concat
I0925 23:25:47.846123  2413 net.cpp:425] lstm1_h_concat <- h_1
I0925 23:25:47.846129  2457 layer_factory.hpp:77] Creating layer lstm1_gate_input_1
I0925 23:25:47.846132  2413 net.cpp:399] lstm1_h_concat -> h
I0925 23:25:47.846149  2457 net.cpp:91] Creating Layer lstm1_gate_input_1
I0925 23:25:47.846159  2457 net.cpp:425] lstm1_gate_input_1 <- W_hc_h_0
I0925 23:25:47.846169  2457 net.cpp:425] lstm1_gate_input_1 <- W_xc_x_1
I0925 23:25:47.846180  2457 net.cpp:399] lstm1_gate_input_1 -> gate_input_1
I0925 23:25:47.846263  2401 net.cpp:141] Setting up embedding
I0925 23:25:47.846276  2401 net.cpp:148] Top shape: 1 1 500 (500)
I0925 23:25:47.846282  2401 net.cpp:156] Memory required for data: 22408
I0925 23:25:47.846292  2401 layer_factory.hpp:77] Creating layer lstm1
I0925 23:25:47.846305  2401 net.cpp:91] Creating Layer lstm1
I0925 23:25:47.846303  2405 net.cpp:141] Setting up lstm2_
I0925 23:25:47.846312  2401 net.cpp:425] lstm1 <- embedded_input_frames
I0925 23:25:47.846329  2405 net.cpp:148] Top shape: 1 1 1501 (1501)
I0925 23:25:47.846329  2401 net.cpp:425] lstm1 <- cont_sentence_input_1_split_0
I0925 23:25:47.846346  2405 net.cpp:148] Top shape: 1 1 (1)
I0925 23:25:47.846349  2401 net.cpp:399] lstm1 -> lstm1
I0925 23:25:47.846354  2405 net.cpp:156] Memory required for data: 6008
I0925 23:25:47.846364  2401 recurrent_layer.cpp:20] Initializing recurrent layer: assuming input batch contains 1 timesteps of 1 independent streams.
I0925 23:25:47.846364  2405 layer_factory.hpp:77] Creating layer lstm2_
I0925 23:25:47.846374  2435 net.cpp:141] Setting up concat
I0925 23:25:47.846390  2435 net.cpp:148] Top shape: 1 1 1501 (1501)
I0925 23:25:47.846397  2435 net.cpp:156] Memory required for data: 32412
I0925 23:25:47.846400  2405 net.cpp:91] Creating Layer lstm2_
I0925 23:25:47.846405  2435 layer_factory.hpp:77] Creating layer lstm2
I0925 23:25:47.846413  2405 net.cpp:399] lstm2_ -> c_0
I0925 23:25:47.846424  2435 net.cpp:91] Creating Layer lstm2
I0925 23:25:47.846432  2405 net.cpp:399] lstm2_ -> h_0
I0925 23:25:47.846484  2413 net.cpp:141] Setting up lstm1_h_concat
I0925 23:25:47.846498  2413 net.cpp:148] Top shape: 1 1 1000 (1000)
I0925 23:25:47.846505  2413 net.cpp:156] Memory required for data: 94016
I0925 23:25:47.846513  2413 layer_factory.hpp:77] Creating layer h_pseudoloss
I0925 23:25:47.846525  2413 net.cpp:91] Creating Layer h_pseudoloss
I0925 23:25:47.846534  2413 net.cpp:425] h_pseudoloss <- h
I0925 23:25:47.846544  2413 net.cpp:399] h_pseudoloss -> h_pseudoloss
I0925 23:25:47.846433  2435 net.cpp:425] lstm2 <- lstm1_video_sequence
I0925 23:25:47.846577  2435 net.cpp:425] lstm2 <- cont_sentence_input_1_split_1
I0925 23:25:47.846592  2435 net.cpp:399] lstm2 -> lstm2
I0925 23:25:47.846627  2435 recurrent_layer.cpp:20] Initializing recurrent layer: assuming input batch contains 1 timesteps of 1 independent streams.
I0925 23:25:47.846755  2401 net.cpp:49] Initializing net from parameters: 
layer {
  name: "lstm1_"
  type: "Input"
  top: "x"
  top: "cont"
  input_param {
    shape {
      dim: 1
      dim: 1
      dim: 500
    }
    shape {
      dim: 1
      dim: 1
    }
  }
}
layer {
  name: "lstm1_"
  type: "Input"
  top: "c_0"
  top: "h_0"
  input_param {
    shape {
      dim: 1
      dim: 1
      dim: 1000
    }
    shape {
      dim: 1
      dim: 1
      dim: 1000
    }
  }
}
layer {
  name: "lstm1_cont_slice"
  type: "Slice"
  bottom: "cont"
  top: "cont_1"
  slice_param {
    axis: 0
  }
}
layer {
  name: "lstm1_x_transform"
  type: "InnerProduct"
  bottom: "x"
  top: "W_xc_x"
  param {
    name: "W_xc"
  }
  param {
    name: "b_c"
  }
  propagate_down: true
  inner_product_param {
    num_output: 4000
    bias_term: true
    weight_filler {
      type: "uniform"
      min: -0.08
      max: 0.08
    }
    bias_filler {
      type: "constant"
      value: 0
    }
    axis: 2
  }
}
layer {
  name: "lstm1_W_xc_x_slice"
  type: "Slice"
  bottom: "W_xc_x"
  top: "W_xc_x_1"
  slice_param {
    axis: 0
  }
}
layer {
  name: "lstm1_h_conted_0"
  type: "Scale"
  bottom: "h_0"
  bottom: "cont_1"
  top: "h_conted_0"
  scale_param {
    axis: 0
  }
}
layer {
  name: "lstm1_transform_1"
  type: "InnerProduct"
  bottom: "h_conted_0"
  top: "W_hc_h_0"
  param {
    name: "W_hc"
  }
  inner_product_param {
    num_output: 4000
    bias_term: false
    weight_filler {
      type: "uniform"
      min: -0.08
      max: 0.08
    }
    axis: 2
  }
}
layer {
  name: "lstm1_gate_input_1"
  type: "Eltwise"
  bottom: "W_hc_h_0"
  bottom: "W_xc_x_1"
  top: "gate_input_1"
  eltwise_param {
    operation: SUM
  }
}
layer {
  name: "lstm1_unit_1"
  type: "LSTMUnit"
  bottom: "c_0"
  bottom: "gate_input_1"
  bottom: "cont_1"
  top: "c_1"
  top: "h_1"
}
layer {
  name: "lstm1_"
  type: "Split"
  bottom: "c_1"
  top: "c_T"
}
layer {
  name: "lstm1_h_concat"
  type: "Concat"
  bottom: "h_1"
  top: "h"
  concat_param {
    axis: 0
  }
}
layer {
  name: "h_pseudoloss"
  type: "Reduction"
  bottom: "h"
  top: "h_pseudoloss"
  loss_weight: 1
}
I0925 23:25:47.847167  2401 layer_factory.hpp:77] Creating layer lstm1_
I0925 23:25:47.847172  2435 net.cpp:49] Initializing net from parameters: 
layer {
  name: "lstm2_"
  type: "Input"
  top: "x"
  top: "cont"
  input_param {
    shape {
      dim: 1
      dim: 1
      dim: 1501
    }
    shape {
      dim: 1
      dim: 1
    }
  }
}
layer {
  name: "lstm2_"
  type: "Input"
  top: "c_0"
  top: "h_0"
  input_param {
    shape {
      dim: 1
      dim: 1
      dim: 1000
    }
    shape {
      dim: 1
      dim: 1
      dim: 1000
    }
  }
}
layer {
  name: "lstm2_cont_slice"
  type: "Slice"
  bottom: "cont"
  top: "cont_1"
  slice_param {
    axis: 0
  }
}
layer {
  name: "lstm2_x_transform"
  type: "InnerProduct"
  bottom: "x"
  top: "W_xc_x"
  param {
    name: "W_xc"
  }
  param {
    name: "b_c"
  }
  propagate_down: true
  inner_product_param {
    num_output: 4000
    bias_term: true
    weight_filler {
      type: "uniform"
      min: -0.08
      max: 0.08
    }
    bias_filler {
      type: "constant"
      value: 0
    }
    axis: 2
  }
}
layer {
  name: "lstm2_W_xc_x_slice"
  type: "Slice"
  bottom: "W_xc_x"
  top: "W_xc_x_1"
  slice_param {
    axis: 0
  }
}
layer {
  name: "lstm2_h_conted_0"
  type: "Scale"
  bottom: "h_0"
  bottom: "cont_1"
  top: "h_conted_0"
  scale_param {
    axis: 0
  }
}
layer {
  name: "lstm2_transform_1"
  type: "InnerProduct"
  bottom: "h_conted_0"
  top: "W_hc_h_0"
  param {
    name: "W_hc"
  }
  inner_product_param {
    num_output: 4000
    bias_term: false
    weight_filler {
      type: "uniform"
      min: -0.08
      max: 0.08
    }
    axis: 2
  }
}
layer {
  name: "lstm2_gate_input_1"
  type: "Eltwise"
  bottom: "W_hc_h_0"
  bottom: "W_xc_x_1"
  top: "gate_input_1"
  eltwise_param {
    operation: SUM
  }
}
layer {
  name: "lstm2_unit_1"
  type: "LSTMUnit"
  bottom: "c_0"
  bottom: "gate_input_1"
  bottom: "cont_1"
  top: "c_1"
  top: "h_1"
}
layer {
  name: "lstm2_"
  type: "Split"
  bottom: "c_1"
  top: "c_T"
}
layer {
  name: "lstm2_h_concat"
  type: "Concat"
  bottom: "h_1"
  top: "h"
  concat_param {
    axis: 0
  }
}
layer {
  name: "h_pseudoloss"
  type: "Reduction"
  bottom: "h"
  top: "h_pseudoloss"
  loss_weight: 1
}
I0925 23:25:47.847182  2401 net.cpp:91] Creating Layer lstm1_
I0925 23:25:47.847198  2401 net.cpp:399] lstm1_ -> x
I0925 23:25:47.847211  2401 net.cpp:399] lstm1_ -> cont
I0925 23:25:47.847296  2435 layer_factory.hpp:77] Creating layer lstm2_
I0925 23:25:47.847312  2435 net.cpp:91] Creating Layer lstm2_
I0925 23:25:47.847322  2435 net.cpp:399] lstm2_ -> x
I0925 23:25:47.847338  2435 net.cpp:399] lstm2_ -> cont
I0925 23:25:47.852252  2457 net.cpp:141] Setting up lstm1_gate_input_1
I0925 23:25:47.852303  2457 net.cpp:148] Top shape: 1 1 4000 (4000)
I0925 23:25:47.852311  2457 net.cpp:156] Memory required for data: 78016
I0925 23:25:47.852322  2457 layer_factory.hpp:77] Creating layer lstm1_unit_1
I0925 23:25:47.852344  2457 net.cpp:91] Creating Layer lstm1_unit_1
I0925 23:25:47.852354  2457 net.cpp:425] lstm1_unit_1 <- c_0
I0925 23:25:47.852366  2457 net.cpp:425] lstm1_unit_1 <- gate_input_1
I0925 23:25:47.852376  2457 net.cpp:425] lstm1_unit_1 <- cont_1_lstm1_cont_slice_0_split_1
…
I0925 23:25:47.852480  2413 net.cpp:217] lstm1_unit_1 needs backward computation.
I0925 23:25:47.852491  2413 net.cpp:217] lstm1_gate_input_1 needs backward computation.
I0925 23:25:47.852500  2413 net.cpp:217] lstm1_transform_1 needs backward computation.
I0925 23:25:47.852509  2413 net.cpp:219] lstm1_h_conted_0 does not need backward computation.
I0925 23:25:47.852520  2413 net.cpp:217] lstm1_W_xc_x_slice needs backward computation.
I0925 23:25:47.852522  2457 net.cpp:141] Setting up lstm1_unit_1
I0925 23:25:47.852530  2413 net.cpp:217] lstm1_x_transform needs backward computation.
I0925 23:25:47.852536  2457 net.cpp:148] Top shape: 1 1 1000 (1000)
I0925 23:25:47.852540  2413 net.cpp:219] cont_1_lstm1_cont_slice_0_split does not need backward computation.
I0925 23:25:47.852546  2457 net.cpp:148] Top shape: 1 1 1000 (1000)
I0925 23:25:47.852548  2413 net.cpp:219] lstm1_cont_slice does not need backward computation.
I0925 23:25:47.852555  2457 net.cpp:156] Memory required for data: 86016
I0925 23:25:47.852558  2413 net.cpp:219] lstm1_ does not need backward computation.
I0925 23:25:47.852562  2457 layer_factory.hpp:77] Creating layer lstm1_
I0925 23:25:47.852566  2413 net.cpp:219] lstm1_ does not need backward computation.
I0925 23:25:47.852572  2413 net.cpp:261] This network produces output c_T
I0925 23:25:47.852576  2457 net.cpp:91] Creating Layer lstm1_
I0925 23:25:47.852581  2413 net.cpp:261] This network produces output h_pseudoloss
I0925 23:25:47.852583  2457 net.cpp:425] lstm1_ <- c_1
I0925 23:25:47.852596  2457 net.cpp:399] lstm1_ -> c_T
I0925 23:25:47.852607  2413 net.cpp:274] Network initialization done.
I0925 23:25:47.852638  2457 net.cpp:141] Setting up lstm1_
I0925 23:25:47.852650  2457 net.cpp:148] Top shape: 1 1 1000 (1000)
I0925 23:25:47.852658  2457 net.cpp:156] Memory required for data: 90016
I0925 23:25:47.852665  2457 layer_factory.hpp:77] Creating layer lstm1_h_concat
I0925 23:25:47.852679  2457 net.cpp:91] Creating Layer lstm1_h_concat
I0925 23:25:47.852684  2413 recurrent_layer.cpp:150] Adding parameter 0: W_xc
I0925 23:25:47.852686  2457 net.cpp:425] lstm1_h_concat <- h_1
I0925 23:25:47.852692  2413 recurrent_layer.cpp:150] Adding parameter 1: b_c
I0925 23:25:47.852697  2457 net.cpp:399] lstm1_h_concat -> h
I0925 23:25:47.852700  2413 recurrent_layer.cpp:150] Adding parameter 2: W_hc
I0925 23:25:47.852859  2413 net.cpp:141] Setting up lstm1
I0925 23:25:47.852874  2413 net.cpp:148] Top shape: 1 1 1000 (1000)
I0925 23:25:47.852881  2413 net.cpp:156] Memory required for data: 26408
I0925 23:25:47.852903  2413 layer_factory.hpp:77] Creating layer concat
I0925 23:25:47.852917  2413 net.cpp:91] Creating Layer concat
I0925 23:25:47.852926  2413 net.cpp:425] concat <- lstm1
I0925 23:25:47.852937  2413 net.cpp:425] concat <- embedded_input_sentence
I0925 23:25:47.852946  2413 net.cpp:425] concat <- reshaped_stage_indicator
I0925 23:25:47.852957  2413 net.cpp:399] concat -> lstm1_video_sequence
I0925 23:25:47.853003  2413 net.cpp:141] Setting up concat
I0925 23:25:47.853016  2413 net.cpp:148] Top shape: 1 1 1501 (1501)
I0925 23:25:47.853024  2413 net.cpp:156] Memory required for data: 32412
I0925 23:25:47.853030  2413 layer_factory.hpp:77] Creating layer lstm2
I0925 23:25:47.853049  2413 net.cpp:91] Creating Layer lstm2
I0925 23:25:47.853056  2413 net.cpp:425] lstm2 <- lstm1_video_sequence
…
I0925 23:25:48.485414  2401 net.cpp:141] Setting up lstm2_
I0925 23:25:48.485424  2405 net.cpp:399] lstm2_ -> c_T
I0925 23:25:48.485429  2401 net.cpp:148] Top shape: 1 1 1501 (1501)
I0925 23:25:48.485440  2401 net.cpp:148] Top shape: 1 1 (1)
I0925 23:25:48.485448  2401 net.cpp:156] Memory required for data: 6008
I0925 23:25:48.485457  2401 layer_factory.hpp:77] Creating layer lstm2_
I0925 23:25:48.485476  2401 net.cpp:91] Creating Layer lstm2_
I0925 23:25:48.485494  2401 net.cpp:399] lstm2_ -> c_0
I0925 23:25:48.485509  2401 net.cpp:399] lstm2_ -> h_0
I0925 23:25:48.485517  2409 net.cpp:141] Setting up lstm2_gate_input_1
I0925 23:25:48.485543  2409 net.cpp:148] Top shape: 1 1 4000 (4000)
I0925 23:25:48.485558  2449 net.cpp:141] Setting up lstm2_gate_input_1
I0925 23:25:48.485558  2409 net.cpp:156] Memory required for data: 82020
I0925 23:25:48.485580  2449 net.cpp:148] Top shape: 1 1 4000 (4000)
I0925 23:25:48.485597  2449 net.cpp:156] Memory required for data: 82020
I0925 23:25:48.485602  2449 layer_factory.hpp:77] Creating layer lstm2_unit_1
I0925 23:25:48.485599  2409 layer_factory.hpp:77] Creating layer lstm2_unit_1
I0925 23:25:48.485610  2457 net.cpp:141] Setting up lstm2_h_concat
I0925 23:25:48.485613  2449 net.cpp:91] Creating Layer lstm2_unit_1
I0925 23:25:48.485626  2457 net.cpp:148] Top shape: 1 1 1000 (1000)
I0925 23:25:48.485631  2409 net.cpp:91] Creating Layer lstm2_unit_1
I0925 23:25:48.485636  2449 net.cpp:425] lstm2_unit_1 <- c_0
I0925 23:25:48.485641  2457 net.cpp:156] Memory required for data: 98020
I0925 23:25:48.485657  2409 net.cpp:425] lstm2_unit_1 <- c_0
I0925 23:25:48.485666  2457 layer_factory.hpp:77] Creating layer h_pseudoloss
I0925 23:25:48.485662  2449 net.cpp:425] lstm2_unit_1 <- gate_input_1
I0925 23:25:48.485680  2457 net.cpp:91] Creating Layer h_pseudoloss
I0925 23:25:48.485687  2457 net.cpp:425] h_pseudoloss <- h
I0925 23:25:48.485682  2409 net.cpp:425] lstm2_unit_1 <- gate_input_1
I0925 23:25:48.485694  2457 net.cpp:399] h_pseudoloss -> h_pseudoloss
I0925 23:25:48.485683  2449 net.cpp:425] lstm2_unit_1 <- cont_1_lstm2_cont_slice_0_split_1
I0925 23:25:48.485715  2409 net.cpp:425] lstm2_unit_1 <- cont_1_lstm2_cont_slice_0_split_1
I0925 23:25:48.485723  2449 net.cpp:399] lstm2_unit_1 -> c_1
I0925 23:25:48.485734  2449 net.cpp:399] lstm2_unit_1 -> h_1
I0925 23:25:48.485739  2409 net.cpp:399] lstm2_unit_1 -> c_1
I0925 23:25:48.485766  2409 net.cpp:399] lstm2_unit_1 -> h_1
I0925 23:25:48.488224  2405 net.cpp:141] Setting up lstm2_
I0925 23:25:48.488275  2405 net.cpp:148] Top shape: 1 1 1000 (1000)
I0925 23:25:48.488286  2405 net.cpp:156] Memory required for data: 94020
I0925 23:25:48.488296  2405 layer_factory.hpp:77] Creating layer lstm2_h_concat
I0925 23:25:48.488328  2405 net.cpp:91] Creating Layer lstm2_h_concat
I0925 23:25:48.488340  2405 net.cpp:425] lstm2_h_concat <- h_1
I0925 23:25:48.488353  2405 net.cpp:399] lstm2_h_concat -> h
I0925 23:25:48.488422  2449 net.cpp:141] Setting up lstm2_unit_1
I0925 23:25:48.488435  2449 net.cpp:148] Top shape: 1 1 1000 (1000)
I0925 23:25:48.488442  2449 net.cpp:148] Top shape: 1 1 1000 (1000)
I0925 23:25:48.488447  2449 net.cpp:156] Memory required for data: 90020
I0925 23:25:48.488452  2449 layer_factory.hpp:77] Creating layer lstm2_
I0925 23:25:48.488461  2449 net.cpp:91] Creating Layer lstm2_
I0925 23:25:48.488466  2449 net.cpp:425] lstm2_ <- c_1
I0925 23:25:48.488473  2449 net.cpp:399] lstm2_ -> c_T
I0925 23:25:48.488545  2423 net.cpp:141] Setting up lstm2_h_conted_0
I0925 23:25:48.488564  2423 net.cpp:148] Top shape: 1 1 1000 (1000)
I0925 23:25:48.488572  2423 net.cpp:156] Memory required for data: 50020
I0925 23:25:48.488581  2423 layer_factory.hpp:77] Creating layer lstm2_transform_1
I0925 23:25:48.488600  2423 net.cpp:91] Creating Layer lstm2_transform_1
I0925 23:25:48.488607  2423 net.cpp:425] lstm2_transform_1 <- h_conted_0
I0925 23:25:48.488612  2405 net.cpp:141] Setting up lstm2_h_concat
I0925 23:25:48.488620  2423 net.cpp:399] lstm2_transform_1 -> W_hc_h_0
I0925 23:25:48.488628  2405 net.cpp:148] Top shape: 1 1 1000 (1000)
I0925 23:25:48.488633  2405 net.cpp:156] Memory required for data: 98020
I0925 23:25:48.488639  2405 layer_factory.hpp:77] Creating layer h_pseudoloss
I0925 23:25:48.488649  2405 net.cpp:91] Creating Layer h_pseudoloss
I0925 23:25:48.488654  2405 net.cpp:425] h_pseudoloss <- h
I0925 23:25:48.488665  2405 net.cpp:399] h_pseudoloss -> h_pseudoloss
I0925 23:25:48.488783  2405 net.cpp:141] Setting up h_pseudoloss
…
I0925 23:25:48.488978  2457 net.cpp:217] lstm2_x_transform needs backward computation.
I0925 23:25:48.488984  2457 net.cpp:219] cont_1_lstm2_cont_slice_0_split does not need backward computation.
I0925 23:25:48.488992  2457 net.cpp:219] lstm2_cont_slice does not need backward computation.
I0925 23:25:48.488998  2457 net.cpp:219] lstm2_ does not need backward computation.
I0925 23:25:48.489004  2457 net.cpp:219] lstm2_ does not need backward computation.
I0925 23:25:48.489007  2449 net.cpp:141] Setting up lstm2_
I0925 23:25:48.489012  2457 net.cpp:261] This network produces output c_T
I0925 23:25:48.489020  2449 net.cpp:148] Top shape: 1 1 1000 (1000)
I0925 23:25:48.489025  2449 net.cpp:156] Memory required for data: 94020
I0925 23:25:48.489024  2457 net.cpp:261] This network produces output h_pseudoloss
I0925 23:25:48.489030  2449 layer_factory.hpp:77] Creating layer lstm2_h_concat
I0925 23:25:48.489033  2405 recurrent_layer.cpp:150] Adding parameter 0: W_xc
I0925 23:25:48.489047  2449 net.cpp:91] Creating Layer lstm2_h_concat
I0925 23:25:48.489051  2457 net.cpp:274] Network initialization done.
I0925 23:25:48.489058  2449 net.cpp:425] lstm2_h_concat <- h_1
I0925 23:25:48.489045  2405 recurrent_layer.cpp:150] Adding parameter 1: b_c
I0925 23:25:48.489066  2449 net.cpp:399] lstm2_h_concat -> h
I0925 23:25:48.489069  2405 recurrent_layer.cpp:150] Adding parameter 2: W_hc
I0925 23:25:48.489107  2457 recurrent_layer.cpp:150] Adding parameter 0: W_xc
I0925 23:25:48.489109  2401 net.cpp:141] Setting up lstm2_
I0925 23:25:48.489123  2457 recurrent_layer.cpp:150] Adding parameter 1: b_c
I0925 23:25:48.489132  2401 net.cpp:148] Top shape: 1 1 1000 (1000)
I0925 23:25:48.489132  2457 recurrent_layer.cpp:150] Adding parameter 2: W_hc
I0925 23:25:48.489145  2401 net.cpp:148] Top shape: 1 1 1000 (1000)
I0925 23:25:48.489150  2401 net.cpp:156] Memory required for data: 14008
I0925 23:25:48.489156  2401 layer_factory.hpp:77] Creating layer lstm2_cont_slice
I0925 23:25:48.489168  2401 net.cpp:91] Creating Layer lstm2_cont_slice
I0925 23:25:48.489174  2401 net.cpp:425] lstm2_cont_slice <- cont
I0925 23:25:48.489182  2401 net.cpp:399] lstm2_cont_slice -> cont_1
I0925 23:25:48.497494  2409 net.cpp:141] Setting up lstm2_unit_1
I0925 23:25:48.497552  2449 net.cpp:141] Setting up lstm2_h_concat
I0925 23:25:48.497560  2409 net.cpp:148] Top shape: 1 1 1000 (1000)
I0925 23:25:48.497570  2449 net.cpp:148] Top shape: 1 1 1000 (1000)
I0925 23:25:48.497576  2449 net.cpp:156] Memory required for data: 98020
I0925 23:25:48.497582  2449 layer_factory.hpp:77] Creating layer h_pseudoloss
I0925 23:25:48.497586  2409 net.cpp:148] Top shape: 1 1 1000 (1000)
I0925 23:25:48.497593  2449 net.cpp:91] Creating Layer h_pseudoloss
I0925 23:25:48.497614  2449 net.cpp:425] h_pseudoloss <- h
I0925 23:25:48.497612  2409 net.cpp:156] Memory required for data: 90020
I0925 23:25:48.497632  2449 net.cpp:399] h_pseudoloss -> h_pseudoloss
I0925 23:25:48.497634  2409 layer_factory.hpp:77] Creating layer lstm2_
I0925 23:25:48.497668  2409 net.cpp:91] Creating Layer lstm2_
I0925 23:25:48.497686  2409 net.cpp:425] lstm2_ <- c_1
I0925 23:25:48.497720  2409 net.cpp:399] lstm2_ -> c_T
I0925 23:25:48.497797  2405 net.cpp:141] Setting up lstm2
I0925 23:25:48.497817  2405 net.cpp:148] Top shape: 1 1 1000 (1000)
I0925 23:25:48.497825  2405 net.cpp:156] Memory required for data: 36412
I0925 23:25:48.497849  2401 net.cpp:141] Setting up lstm2_cont_slice
I0925 23:25:48.497892  2401 net.cpp:148] Top shape: 1 1 (1)
I0925 23:25:48.497901  2401 net.cpp:156] Memory required for data: 14012
I0925 23:25:48.497910  2401 layer_factory.hpp:77] Creating layer cont_1_lstm2_cont_slice_0_split
I0925 23:25:48.497853  2405 layer_factory.hpp:77] Creating layer predict
I0925 23:25:48.497936  2405 net.cpp:91] Creating Layer predict
I0925 23:25:48.497953  2405 net.cpp:425] predict <- lstm2
I0925 23:25:48.497938  2401 net.cpp:91] Creating Layer cont_1_lstm2_cont_slice_0_split
…
I0925 23:25:48.498118  2449 net.cpp:219] lstm2_ does not need backward computation.
I0925 23:25:48.498122  2449 net.cpp:261] This network produces output c_T
I0925 23:25:48.498126  2449 net.cpp:261] This network produces output h_pseudoloss
I0925 23:25:48.498177  2449 net.cpp:274] Network initialization done.
I0925 23:25:48.498234  2449 recurrent_layer.cpp:150] Adding parameter 0: W_xc
I0925 23:25:48.498239  2449 recurrent_layer.cpp:150] Adding parameter 1: b_c
I0925 23:25:48.498245  2449 recurrent_layer.cpp:150] Adding parameter 2: W_hc
I0925 23:25:48.577656  2409 net.cpp:141] Setting up lstm2_
I0925 23:25:48.577707  2409 net.cpp:148] Top shape: 1 1 1000 (1000)
I0925 23:25:48.577714  2409 net.cpp:156] Memory required for data: 94020
I0925 23:25:48.577725  2409 layer_factory.hpp:77] Creating layer lstm2_h_concat
I0925 23:25:48.577747  2409 net.cpp:91] Creating Layer lstm2_h_concat
I0925 23:25:48.577756  2409 net.cpp:425] lstm2_h_concat <- h_1
I0925 23:25:48.577772  2409 net.cpp:399] lstm2_h_concat -> h
I0925 23:25:48.577884  2423 net.cpp:141] Setting up lstm2_transform_1
I0925 23:25:48.577908  2423 net.cpp:148] Top shape: 1 1 4000 (4000)
I0925 23:25:48.577914  2423 net.cpp:156] Memory required for data: 66020
I0925 23:25:48.577929  2423 layer_factory.hpp:77] Creating layer lstm2_gate_input_1
I0925 23:25:48.577949  2423 net.cpp:91] Creating Layer lstm2_gate_input_1
I0925 23:25:48.577955  2423 net.cpp:425] lstm2_gate_input_1 <- W_hc_h_0
I0925 23:25:48.577962  2423 net.cpp:425] lstm2_gate_input_1 <- W_xc_x_1
I0925 23:25:48.577970  2423 net.cpp:399] lstm2_gate_input_1 -> gate_input_1
I0925 23:25:48.577986  2449 net.cpp:141] Setting up lstm2
I0925 23:25:48.578030  2449 net.cpp:148] Top shape: 1 1 1000 (1000)
I0925 23:25:48.578039  2449 net.cpp:156] Memory required for data: 36412
I0925 23:25:48.578068  2449 layer_factory.hpp:77] Creating layer predict
I0925 23:25:48.578088  2409 net.cpp:141] Setting up lstm2_h_concat
I0925 23:25:48.578093  2449 net.cpp:91] Creating Layer predict
I0925 23:25:48.578110  2409 net.cpp:148] Top shape: 1 1 1000 (1000)
I0925 23:25:48.578119  2409 net.cpp:156] Memory required for data: 98020
I0925 23:25:48.578120  2449 net.cpp:425] predict <- lstm2
I0925 23:25:48.578126  2409 layer_factory.hpp:77] Creating layer h_pseudoloss
I0925 23:25:48.578135  2449 net.cpp:399] predict -> predict
I0925 23:25:48.578141  2409 net.cpp:91] Creating Layer h_pseudoloss
I0925 23:25:48.578150  2409 net.cpp:425] h_pseudoloss <- h
I0925 23:25:48.578161  2409 net.cpp:399] h_pseudoloss -> h_pseudoloss
I0925 23:25:48.578199  2401 net.cpp:141] Setting up cont_1_lstm2_cont_slice_0_split
I0925 23:25:48.578219  2401 net.cpp:148] Top shape: 1 1 (1)
I0925 23:25:48.578227  2401 net.cpp:148] Top shape: 1 1 (1)
I0925 23:25:48.578224  2457 net.cpp:141] Setting up lstm2
I0925 23:25:48.578232  2401 net.cpp:156] Memory required for data: 14020
I0925 23:25:48.578243  2457 net.cpp:148] Top shape: 1 1 1000 (1000)
I0925 23:25:48.578245  2401 layer_factory.hpp:77] Creating layer lstm2_x_transform
I0925 23:25:48.578248  2457 net.cpp:156] Memory required for data: 36412
I0925 23:25:48.578265  2401 net.cpp:91] Creating Layer lstm2_x_transform
I0925 23:25:48.578266  2457 layer_factory.hpp:77] Creating layer predict
I0925 23:25:48.578277  2401 net.cpp:425] lstm2_x_transform <- x
I0925 23:25:48.578287  2457 net.cpp:91] Creating Layer predict
I0925 23:25:48.578287  2401 net.cpp:399] lstm2_x_transform -> W_xc_x
I0925 23:25:48.578297  2457 net.cpp:425] predict <- lstm2
I0925 23:25:48.578305  2457 net.cpp:399] predict -> predict
I0925 23:25:48.578588  2423 net.cpp:141] Setting up lstm2_gate_input_1
I0925 23:25:48.578618  2423 net.cpp:148] Top shape: 1 1 4000 (4000)
I0925 23:25:48.578622  2423 net.cpp:156] Memory required for data: 82020
I0925 23:25:48.578627  2423 layer_factory.hpp:77] Creating layer lstm2_unit_1
I0925 23:25:48.578636  2423 net.cpp:91] Creating Layer lstm2_unit_1
I0925 23:25:48.578641  2423 net.cpp:425] lstm2_unit_1 <- c_0
I0925 23:25:48.578649  2423 net.cpp:425] lstm2_unit_1 <- gate_input_1
I0925 23:25:48.578655  2423 net.cpp:425] lstm2_unit_1 <- cont_1_lstm2_cont_slice_0_split_1
I0925 23:25:48.578663  2423 net.cpp:399] lstm2_unit_1 -> c_1
I0925 23:25:48.578675  2423 net.cpp:399] lstm2_unit_1 -> h_1
I0925 23:25:48.578709  2429 net.cpp:141] Setting up predict
I0925 23:25:48.578728  2429 net.cpp:148] Top shape: 1 1 46168 (46168)
I0925 23:25:48.578733  2429 net.cpp:156] Memory required for data: 221084
I0925 23:25:48.578744  2429 layer_factory.hpp:77] Creating layer probs
I0925 23:25:48.578757  2429 net.cpp:91] Creating Layer probs
I0925 23:25:48.578763  2429 net.cpp:425] probs <- predict
I0925 23:25:48.578770  2429 net.cpp:399] probs -> probs
I0925 23:25:48.669345  2409 net.cpp:141] Setting up h_pseudoloss
…
I0925 23:25:48.669492  2409 net.cpp:217] lstm2_transform_1 needs backward computation.
I0925 23:25:48.669500  2409 net.cpp:219] lstm2_h_conted_0 does not need backward computation.
I0925 23:25:48.669510  2409 net.cpp:217] lstm2_W_xc_x_slice needs backward computation.
I0925 23:25:48.669518  2409 net.cpp:217] lstm2_x_transform needs backward computation.
I0925 23:25:48.669515  2423 net.cpp:141] Setting up lstm2_unit_1
I0925 23:25:48.669528  2409 net.cpp:219] cont_1_lstm2_cont_slice_0_split does not need backward computation.
I0925 23:25:48.669538  2409 net.cpp:219] lstm2_cont_slice does not need backward computation.
I0925 23:25:48.669541  2423 net.cpp:148] Top shape: 1 1 1000 (1000)
I0925 23:25:48.669548  2409 net.cpp:219] lstm2_ does not need backward computation.
I0925 23:25:48.669553  2423 net.cpp:148] Top shape: 1 1 1000 (1000)
I0925 23:25:48.669554  2409 net.cpp:219] lstm2_ does not need backward computation.
I0925 23:25:48.669569  2423 net.cpp:156] Memory required for data: 90020
I0925 23:25:48.669572  2409 net.cpp:261] This network produces output c_T
I0925 23:25:48.669579  2423 layer_factory.hpp:77] Creating layer lstm2_
I0925 23:25:48.669582  2409 net.cpp:261] This network produces output h_pseudoloss
I0925 23:25:48.669598  2423 net.cpp:91] Creating Layer lstm2_
I0925 23:25:48.669608  2409 net.cpp:274] Network initialization done.
I0925 23:25:48.669610  2423 net.cpp:425] lstm2_ <- c_1
I0925 23:25:48.669636  2423 net.cpp:399] lstm2_ -> c_T
I0925 23:25:48.669690  2409 recurrent_layer.cpp:150] Adding parameter 0: W_xc
I0925 23:25:48.669701  2409 recurrent_layer.cpp:150] Adding parameter 1: b_c
I0925 23:25:48.669708  2409 recurrent_layer.cpp:150] Adding parameter 2: W_hc
I0925 23:25:48.747850  2423 net.cpp:141] Setting up lstm2_
I0925 23:25:48.747920  2423 net.cpp:148] Top shape: 1 1 1000 (1000)
I0925 23:25:48.747937  2423 net.cpp:156] Memory required for data: 94020
I0925 23:25:48.747962  2423 layer_factory.hpp:77] Creating layer lstm2_h_concat
I0925 23:25:48.747994  2423 net.cpp:91] Creating Layer lstm2_h_concat
I0925 23:25:48.748014  2423 net.cpp:425] lstm2_h_concat <- h_1
I0925 23:25:48.748039  2423 net.cpp:399] lstm2_h_concat -> h
I0925 23:25:48.748055  2409 net.cpp:141] Setting up lstm2
I0925 23:25:48.748073  2409 net.cpp:148] Top shape: 1 1 1000 (1000)
I0925 23:25:48.748081  2409 net.cpp:156] Memory required for data: 36412
I0925 23:25:48.748106  2409 layer_factory.hpp:77] Creating layer predict
I0925 23:25:48.748123  2409 net.cpp:91] Creating Layer predict
I0925 23:25:48.748132  2409 net.cpp:425] predict <- lstm2
I0925 23:25:48.748144  2409 net.cpp:399] predict -> predict
I0925 23:25:48.750141  2423 net.cpp:141] Setting up lstm2_h_concat
I0925 23:25:48.750195  2423 net.cpp:148] Top shape: 1 1 1000 (1000)
I0925 23:25:48.750211  2423 net.cpp:156] Memory required for data: 98020
I0925 23:25:48.750226  2423 layer_factory.hpp:77] Creating layer h_pseudoloss
I0925 23:25:48.750254  2423 net.cpp:91] Creating Layer h_pseudoloss
I0925 23:25:48.750272  2423 net.cpp:425] h_pseudoloss <- h
I0925 23:25:48.750295  2423 net.cpp:399] h_pseudoloss -> h_pseudoloss
I0925 23:25:48.851279  2423 net.cpp:141] Setting up h_pseudoloss
…
I0925 23:25:48.851486  2423 net.cpp:219] lstm2_ does not need backward computation.
I0925 23:25:48.851492  2423 net.cpp:261] This network produces output c_T
I0925 23:25:48.851501  2423 net.cpp:261] This network produces output h_pseudoloss
I0925 23:25:48.851527  2423 net.cpp:274] Network initialization done.
I0925 23:25:48.851605  2423 recurrent_layer.cpp:150] Adding parameter 0: W_xc
I0925 23:25:48.851615  2423 recurrent_layer.cpp:150] Adding parameter 1: b_c
I0925 23:25:48.851624  2423 recurrent_layer.cpp:150] Adding parameter 2: W_hc
I0925 23:25:48.851754  2413 net.cpp:141] Setting up predict
I0925 23:25:48.851776  2413 net.cpp:148] Top shape: 1 1 46168 (46168)
I0925 23:25:48.851781  2413 net.cpp:156] Memory required for data: 221084
I0925 23:25:48.851795  2413 layer_factory.hpp:77] Creating layer probs
I0925 23:25:48.851812  2413 net.cpp:91] Creating Layer probs
I0925 23:25:48.851819  2413 net.cpp:425] probs <- predict
I0925 23:25:48.851832  2413 net.cpp:399] probs -> probs
I0925 23:25:48.852090  2461 net.cpp:141] Setting up predict
I0925 23:25:48.852109  2461 net.cpp:148] Top shape: 1 1 46168 (46168)
I0925 23:25:48.852115  2461 net.cpp:156] Memory required for data: 221084
I0925 23:25:48.852128  2461 layer_factory.hpp:77] Creating layer probs
I0925 23:25:48.852138  2461 net.cpp:91] Creating Layer probs
I0925 23:25:48.852144  2461 net.cpp:425] probs <- predict
I0925 23:25:48.852154  2461 net.cpp:399] probs -> probs
I0925 23:25:48.854526  2423 net.cpp:141] Setting up lstm2
I0925 23:25:48.854583  2423 net.cpp:148] Top shape: 1 1 1000 (1000)
I0925 23:25:48.854590  2423 net.cpp:156] Memory required for data: 36412
I0925 23:25:48.854641  2423 layer_factory.hpp:77] Creating layer predict
I0925 23:25:48.854634  2435 net.cpp:141] Setting up predict
I0925 23:25:48.854667  2423 net.cpp:91] Creating Layer predict
I0925 23:25:48.854677  2423 net.cpp:425] predict <- lstm2
I0925 23:25:48.854676  2435 net.cpp:148] Top shape: 1 1 46168 (46168)
I0925 23:25:48.854701  2423 net.cpp:399] predict -> predict
I0925 23:25:48.854709  2435 net.cpp:156] Memory required for data: 221084
I0925 23:25:48.854744  2435 layer_factory.hpp:77] Creating layer probs
I0925 23:25:48.854774  2435 net.cpp:91] Creating Layer probs
I0925 23:25:48.854792  2435 net.cpp:425] probs <- predict
I0925 23:25:48.854815  2435 net.cpp:399] probs -> probs
I0925 23:25:48.949028  2401 net.cpp:141] Setting up lstm2_x_transform
I0925 23:25:48.949092  2401 net.cpp:148] Top shape: 1 1 4000 (4000)
I0925 23:25:48.949100  2401 net.cpp:156] Memory required for data: 30020
I0925 23:25:48.949131  2401 layer_factory.hpp:77] Creating layer lstm2_W_xc_x_slice
I0925 23:25:48.949134  2405 net.cpp:141] Setting up predict
I0925 23:25:48.949154  2401 net.cpp:91] Creating Layer lstm2_W_xc_x_slice
I0925 23:25:48.949177  2405 net.cpp:148] Top shape: 1 1 46168 (46168)
I0925 23:25:48.949183  2405 net.cpp:156] Memory required for data: 221084
I0925 23:25:48.949182  2401 net.cpp:425] lstm2_W_xc_x_slice <- W_xc_x
I0925 23:25:48.949198  2405 layer_factory.hpp:77] Creating layer probs
I0925 23:25:48.949200  2401 net.cpp:399] lstm2_W_xc_x_slice -> W_xc_x_1
I0925 23:25:48.949215  2405 net.cpp:91] Creating Layer probs
I0925 23:25:48.949224  2405 net.cpp:425] probs <- predict
I0925 23:25:48.949234  2405 net.cpp:399] probs -> probs
I0925 23:25:48.953348  2401 net.cpp:141] Setting up lstm2_W_xc_x_slice
I0925 23:25:48.953399  2401 net.cpp:148] Top shape: 1 1 4000 (4000)
I0925 23:25:48.953408  2401 net.cpp:156] Memory required for data: 46020
I0925 23:25:48.953420  2401 layer_factory.hpp:77] Creating layer lstm2_h_conted_0
I0925 23:25:48.953443  2401 net.cpp:91] Creating Layer lstm2_h_conted_0
I0925 23:25:48.953454  2401 net.cpp:425] lstm2_h_conted_0 <- h_0
I0925 23:25:48.953467  2401 net.cpp:425] lstm2_h_conted_0 <- cont_1_lstm2_cont_slice_0_split_0
I0925 23:25:48.953481  2401 net.cpp:399] lstm2_h_conted_0 -> h_conted_0
I0925 23:25:48.955884  2401 net.cpp:141] Setting up lstm2_h_conted_0
I0925 23:25:48.955931  2401 net.cpp:148] Top shape: 1 1 1000 (1000)
I0925 23:25:48.955941  2401 net.cpp:156] Memory required for data: 50020
I0925 23:25:48.955955  2401 layer_factory.hpp:77] Creating layer lstm2_transform_1
I0925 23:25:48.955981  2401 net.cpp:91] Creating Layer lstm2_transform_1
I0925 23:25:48.955993  2401 net.cpp:425] lstm2_transform_1 <- h_conted_0
I0925 23:25:48.956012  2401 net.cpp:399] lstm2_transform_1 -> W_hc_h_0
I0925 23:25:49.014013  2401 net.cpp:141] Setting up lstm2_transform_1
I0925 23:25:49.014060  2401 net.cpp:148] Top shape: 1 1 4000 (4000)
I0925 23:25:49.014066  2401 net.cpp:156] Memory required for data: 66020
I0925 23:25:49.014084  2401 layer_factory.hpp:77] Creating layer lstm2_gate_input_1
I0925 23:25:49.014107  2401 net.cpp:91] Creating Layer lstm2_gate_input_1
I0925 23:25:49.014114  2401 net.cpp:425] lstm2_gate_input_1 <- W_hc_h_0
I0925 23:25:49.014123  2401 net.cpp:425] lstm2_gate_input_1 <- W_xc_x_1
I0925 23:25:49.014122  2449 net.cpp:141] Setting up predict
I0925 23:25:49.014133  2401 net.cpp:399] lstm2_gate_input_1 -> gate_input_1
I0925 23:25:49.014153  2449 net.cpp:148] Top shape: 1 1 46168 (46168)
I0925 23:25:49.014163  2449 net.cpp:156] Memory required for data: 221084
I0925 23:25:49.014178  2449 layer_factory.hpp:77] Creating layer probs
I0925 23:25:49.014191  2449 net.cpp:91] Creating Layer probs
I0925 23:25:49.014197  2449 net.cpp:425] probs <- predict
I0925 23:25:49.014204  2401 net.cpp:141] Setting up lstm2_gate_input_1
I0925 23:25:49.014206  2449 net.cpp:399] probs -> probs
I0925 23:25:49.014219  2401 net.cpp:148] Top shape: 1 1 4000 (4000)
I0925 23:25:49.014224  2401 net.cpp:156] Memory required for data: 82020
I0925 23:25:49.014228  2401 layer_factory.hpp:77] Creating layer lstm2_unit_1
I0925 23:25:49.014240  2401 net.cpp:91] Creating Layer lstm2_unit_1
I0925 23:25:49.014245  2401 net.cpp:425] lstm2_unit_1 <- c_0
I0925 23:25:49.014252  2401 net.cpp:425] lstm2_unit_1 <- gate_input_1
I0925 23:25:49.014257  2401 net.cpp:425] lstm2_unit_1 <- cont_1_lstm2_cont_slice_0_split_1
I0925 23:25:49.014264  2401 net.cpp:399] lstm2_unit_1 -> c_1
I0925 23:25:49.014273  2401 net.cpp:399] lstm2_unit_1 -> h_1
I0925 23:25:49.014364  2401 net.cpp:141] Setting up lstm2_unit_1
I0925 23:25:49.014375  2401 net.cpp:148] Top shape: 1 1 1000 (1000)
I0925 23:25:49.014381  2401 net.cpp:148] Top shape: 1 1 1000 (1000)
I0925 23:25:49.014386  2401 net.cpp:156] Memory required for data: 90020
I0925 23:25:49.014391  2401 layer_factory.hpp:77] Creating layer lstm2_
I0925 23:25:49.014403  2401 net.cpp:91] Creating Layer lstm2_
I0925 23:25:49.014408  2401 net.cpp:425] lstm2_ <- c_1
I0925 23:25:49.014415  2401 net.cpp:399] lstm2_ -> c_T
I0925 23:25:49.014477  2401 net.cpp:141] Setting up lstm2_
I0925 23:25:49.014487  2401 net.cpp:148] Top shape: 1 1 1000 (1000)
I0925 23:25:49.014492  2401 net.cpp:156] Memory required for data: 94020
I0925 23:25:49.014497  2401 layer_factory.hpp:77] Creating layer lstm2_h_concat
I0925 23:25:49.014511  2401 net.cpp:91] Creating Layer lstm2_h_concat
I0925 23:25:49.014516  2401 net.cpp:425] lstm2_h_concat <- h_1
I0925 23:25:49.014524  2401 net.cpp:399] lstm2_h_concat -> h
I0925 23:25:49.014571  2401 net.cpp:141] Setting up lstm2_h_concat
I0925 23:25:49.014581  2401 net.cpp:148] Top shape: 1 1 1000 (1000)
I0925 23:25:49.014586  2401 net.cpp:156] Memory required for data: 98020
I0925 23:25:49.014590  2401 layer_factory.hpp:77] Creating layer h_pseudoloss
I0925 23:25:49.014608  2401 net.cpp:91] Creating Layer h_pseudoloss
I0925 23:25:49.014614  2401 net.cpp:425] h_pseudoloss <- h
I0925 23:25:49.014626  2401 net.cpp:399] h_pseudoloss -> h_pseudoloss
I0925 23:25:49.018534  2401 net.cpp:141] Setting up h_pseudoloss
…
I0925 23:25:49.018651  2401 net.cpp:219] lstm2_ does not need backward computation.
I0925 23:25:49.018656  2401 net.cpp:261] This network produces output c_T
I0925 23:25:49.018661  2401 net.cpp:261] This network produces output h_pseudoloss
I0925 23:25:49.018683  2401 net.cpp:274] Network initialization done.
I0925 23:25:49.018738  2401 recurrent_layer.cpp:150] Adding parameter 0: W_xc
I0925 23:25:49.018743  2401 recurrent_layer.cpp:150] Adding parameter 1: b_c
I0925 23:25:49.018748  2401 recurrent_layer.cpp:150] Adding parameter 2: W_hc
I0925 23:25:49.021698  2401 net.cpp:141] Setting up lstm2
I0925 23:25:49.021714  2401 net.cpp:148] Top shape: 1 1 1000 (1000)
I0925 23:25:49.021719  2401 net.cpp:156] Memory required for data: 36412
I0925 23:25:49.021738  2401 layer_factory.hpp:77] Creating layer predict
I0925 23:25:49.021752  2401 net.cpp:91] Creating Layer predict
I0925 23:25:49.021760  2401 net.cpp:425] predict <- lstm2
I0925 23:25:49.021769  2401 net.cpp:399] predict -> predict
I0925 23:25:49.121961  2457 net.cpp:141] Setting up predict
I0925 23:25:49.122015  2457 net.cpp:148] Top shape: 1 1 46168 (46168)
I0925 23:25:49.122021  2457 net.cpp:156] Memory required for data: 221084
I0925 23:25:49.122035  2457 layer_factory.hpp:77] Creating layer probs
I0925 23:25:49.122052  2457 net.cpp:91] Creating Layer probs
I0925 23:25:49.122059  2457 net.cpp:425] probs <- predict
I0925 23:25:49.122069  2457 net.cpp:399] probs -> probs
I0925 23:25:49.215039  2449 net.cpp:141] Setting up probs
I0925 23:25:49.215093  2449 net.cpp:148] Top shape: 1 1 46168 (46168)
I0925 23:25:49.215102  2449 net.cpp:156] Memory required for data: 405756
I0925 23:25:49.215113  2449 net.cpp:219] probs does not need backward computation.
I0925 23:25:49.215123  2449 net.cpp:219] predict does not need backward computation.
I0925 23:25:49.215131  2449 net.cpp:219] lstm2 does not need backward computation.
I0925 23:25:49.215140  2449 net.cpp:219] concat does not need backward computation.
I0925 23:25:49.215149  2449 net.cpp:219] lstm1 does not need backward computation.
I0925 23:25:49.215159  2449 net.cpp:219] embedding does not need backward computation.
I0925 23:25:49.215167  2449 net.cpp:219] reshape_stage_indicator does not need backward computation.
I0925 23:25:49.215174  2449 net.cpp:219] reshape_frames does not need backward computation.
I0925 23:25:49.215181  2449 net.cpp:219] embed_encoder does not need backward computation.
I0925 23:25:49.215189  2449 net.cpp:219] cont_sentence_input_1_split does not need backward computation.
I0925 23:25:49.215198  2449 net.cpp:219] input does not need backward computation.
I0925 23:25:49.215204  2449 net.cpp:261] This network produces output probs
I0925 23:25:49.215234  2449 net.cpp:274] Network initialization done.
I0925 23:25:49.220091  2405 net.cpp:141] Setting up probs
I0925 23:25:49.220139  2405 net.cpp:148] Top shape: 1 1 46168 (46168)
I0925 23:25:49.220149  2405 net.cpp:156] Memory required for data: 405756
I0925 23:25:49.220160  2405 net.cpp:219] probs does not need backward computation.
I0925 23:25:49.220171  2405 net.cpp:219] predict does not need backward computation.
I0925 23:25:49.220180  2405 net.cpp:219] lstm2 does not need backward computation.
I0925 23:25:49.220190  2405 net.cpp:219] concat does not need backward computation.
I0925 23:25:49.220199  2405 net.cpp:219] lstm1 does not need backward computation.
I0925 23:25:49.220209  2405 net.cpp:219] embedding does not need backward computation.
I0925 23:25:49.220217  2405 net.cpp:219] reshape_stage_indicator does not need backward computation.
I0925 23:25:49.220226  2405 net.cpp:219] reshape_frames does not need backward computation.
I0925 23:25:49.220233  2405 net.cpp:219] embed_encoder does not need backward computation.
I0925 23:25:49.220242  2405 net.cpp:219] cont_sentence_input_1_split does not need backward computation.
I0925 23:25:49.220249  2405 net.cpp:219] input does not need backward computation.
I0925 23:25:49.220255  2405 net.cpp:261] This network produces output probs
I0925 23:25:49.220283  2405 net.cpp:274] Network initialization done.
I0925 23:25:49.225011  2415 net.cpp:141] Setting up conv1
I0925 23:25:49.225055  2415 net.cpp:148] Top shape: 10 96 55 55 (2904000)
I0925 23:25:49.225062  2415 net.cpp:156] Memory required for data: 17799480
I0925 23:25:49.225081  2415 layer_factory.hpp:77] Creating layer relu1
I0925 23:25:49.225102  2415 net.cpp:91] Creating Layer relu1
I0925 23:25:49.225109  2415 net.cpp:425] relu1 <- conv1
I0925 23:25:49.225117  2415 net.cpp:386] relu1 -> conv1 (in-place)
I0925 23:25:49.225713  2415 net.cpp:141] Setting up relu1
I0925 23:25:49.225726  2415 net.cpp:148] Top shape: 10 96 55 55 (2904000)
I0925 23:25:49.225731  2415 net.cpp:156] Memory required for data: 29415480
I0925 23:25:49.225738  2415 layer_factory.hpp:77] Creating layer pool1
I0925 23:25:49.225754  2415 net.cpp:91] Creating Layer pool1
I0925 23:25:49.225759  2415 net.cpp:425] pool1 <- conv1
I0925 23:25:49.225767  2415 net.cpp:399] pool1 -> pool1
I0925 23:25:49.225936  2415 net.cpp:141] Setting up pool1
I0925 23:25:49.225950  2415 net.cpp:148] Top shape: 10 96 27 27 (699840)
I0925 23:25:49.225955  2415 net.cpp:156] Memory required for data: 32214840
I0925 23:25:49.225960  2415 layer_factory.hpp:77] Creating layer norm1
I0925 23:25:49.226002  2415 net.cpp:91] Creating Layer norm1
I0925 23:25:49.226011  2415 net.cpp:425] norm1 <- pool1
I0925 23:25:49.226017  2415 net.cpp:399] norm1 -> norm1
I0925 23:25:49.226711  2415 net.cpp:141] Setting up norm1
I0925 23:25:49.226724  2415 net.cpp:148] Top shape: 10 96 27 27 (699840)
I0925 23:25:49.226732  2415 net.cpp:156] Memory required for data: 35014200
I0925 23:25:49.226742  2415 layer_factory.hpp:77] Creating layer conv2
I0925 23:25:49.226765  2415 net.cpp:91] Creating Layer conv2
I0925 23:25:49.226771  2415 net.cpp:425] conv2 <- norm1
I0925 23:25:49.226779  2415 net.cpp:399] conv2 -> conv2
I0925 23:25:49.230978  2413 net.cpp:141] Setting up probs
I0925 23:25:49.231027  2413 net.cpp:148] Top shape: 1 1 46168 (46168)
I0925 23:25:49.231036  2413 net.cpp:156] Memory required for data: 405756
I0925 23:25:49.231046  2413 net.cpp:219] probs does not need backward computation.
I0925 23:25:49.231056  2413 net.cpp:219] predict does not need backward computation.
I0925 23:25:49.231066  2413 net.cpp:219] lstm2 does not need backward computation.
I0925 23:25:49.231076  2413 net.cpp:219] concat does not need backward computation.
I0925 23:25:49.231088  2413 net.cpp:219] lstm1 does not need backward computation.
I0925 23:25:49.231098  2413 net.cpp:219] embedding does not need backward computation.
I0925 23:25:49.231107  2413 net.cpp:219] reshape_stage_indicator does not need backward computation.
I0925 23:25:49.231117  2413 net.cpp:219] reshape_frames does not need backward computation.
I0925 23:25:49.231124  2413 net.cpp:219] embed_encoder does not need backward computation.
I0925 23:25:49.231133  2413 net.cpp:219] cont_sentence_input_1_split does not need backward computation.
I0925 23:25:49.231143  2413 net.cpp:219] input does not need backward computation.
I0925 23:25:49.231150  2413 net.cpp:261] This network produces output probs
I0925 23:25:49.231178  2413 net.cpp:274] Network initialization done.
I0925 23:25:49.235245  2435 net.cpp:141] Setting up probs
I0925 23:25:49.235301  2435 net.cpp:148] Top shape: 1 1 46168 (46168)
I0925 23:25:49.235311  2435 net.cpp:156] Memory required for data: 405756
I0925 23:25:49.235324  2435 net.cpp:219] probs does not need backward computation.
I0925 23:25:49.235337  2435 net.cpp:219] predict does not need backward computation.
I0925 23:25:49.235347  2435 net.cpp:219] lstm2 does not need backward computation.
I0925 23:25:49.235358  2435 net.cpp:219] concat does not need backward computation.
I0925 23:25:49.235369  2435 net.cpp:219] lstm1 does not need backward computation.
I0925 23:25:49.235381  2435 net.cpp:219] embedding does not need backward computation.
I0925 23:25:49.235391  2435 net.cpp:219] reshape_stage_indicator does not need backward computation.
I0925 23:25:49.235401  2435 net.cpp:219] reshape_frames does not need backward computation.
I0925 23:25:49.235411  2435 net.cpp:219] embed_encoder does not need backward computation.
I0925 23:25:49.235420  2435 net.cpp:219] cont_sentence_input_1_split does not need backward computation.
I0925 23:25:49.235431  2435 net.cpp:219] input does not need backward computation.
I0925 23:25:49.235438  2435 net.cpp:261] This network produces output probs
I0925 23:25:49.235474  2435 net.cpp:274] Network initialization done.
I0925 23:25:49.237661  2429 net.cpp:141] Setting up probs
I0925 23:25:49.237704  2429 net.cpp:148] Top shape: 1 1 46168 (46168)
I0925 23:25:49.237710  2429 net.cpp:156] Memory required for data: 405756
I0925 23:25:49.237718  2429 net.cpp:219] probs does not need backward computation.
I0925 23:25:49.237725  2429 net.cpp:219] predict does not need backward computation.
I0925 23:25:49.237730  2429 net.cpp:219] lstm2 does not need backward computation.
I0925 23:25:49.237735  2429 net.cpp:219] concat does not need backward computation.
I0925 23:25:49.237746  2429 net.cpp:219] lstm1 does not need backward computation.
I0925 23:25:49.237756  2429 net.cpp:219] embedding does not need backward computation.
I0925 23:25:49.237761  2429 net.cpp:219] reshape_stage_indicator does not need backward computation.
I0925 23:25:49.237766  2429 net.cpp:219] reshape_frames does not need backward computation.
I0925 23:25:49.237771  2429 net.cpp:219] embed_encoder does not need backward computation.
I0925 23:25:49.237776  2429 net.cpp:219] cont_sentence_input_1_split does not need backward computation.
I0925 23:25:49.237782  2429 net.cpp:219] input does not need backward computation.
I0925 23:25:49.237787  2429 net.cpp:261] This network produces output probs
I0925 23:25:49.237808  2429 net.cpp:274] Network initialization done.
I0925 23:25:49.255198  2461 net.cpp:141] Setting up probs
I0925 23:25:49.255254  2461 net.cpp:148] Top shape: 1 1 46168 (46168)
I0925 23:25:49.255264  2461 net.cpp:156] Memory required for data: 405756
I0925 23:25:49.255275  2461 net.cpp:219] probs does not need backward computation.
I0925 23:25:49.255286  2461 net.cpp:219] predict does not need backward computation.
I0925 23:25:49.255295  2461 net.cpp:219] lstm2 does not need backward computation.
I0925 23:25:49.255306  2461 net.cpp:219] concat does not need backward computation.
I0925 23:25:49.255316  2461 net.cpp:219] lstm1 does not need backward computation.
I0925 23:25:49.255333  2461 net.cpp:219] embedding does not need backward computation.
I0925 23:25:49.255342  2461 net.cpp:219] reshape_stage_indicator does not need backward computation.
I0925 23:25:49.255352  2461 net.cpp:219] reshape_frames does not need backward computation.
I0925 23:25:49.255360  2461 net.cpp:219] embed_encoder does not need backward computation.
I0925 23:25:49.255369  2461 net.cpp:219] cont_sentence_input_1_split does not need backward computation.
I0925 23:25:49.255378  2461 net.cpp:219] input does not need backward computation.
I0925 23:25:49.255384  2461 net.cpp:261] This network produces output probs
I0925 23:25:49.255872  2461 net.cpp:274] Network initialization done.
I0925 23:25:49.258194  2409 net.cpp:141] Setting up predict
I0925 23:25:49.258582  2409 net.cpp:148] Top shape: 1 1 46168 (46168)
I0925 23:25:49.258747  2409 net.cpp:156] Memory required for data: 221084
I0925 23:25:49.258889  2409 layer_factory.hpp:77] Creating layer probs
I0925 23:25:49.259033  2409 net.cpp:91] Creating Layer probs
I0925 23:25:49.259198  2409 net.cpp:425] probs <- predict
I0925 23:25:49.259222  2409 net.cpp:399] probs -> probs
I0925 23:25:49.268292  2457 net.cpp:141] Setting up probs
I0925 23:25:49.268736  2457 net.cpp:148] Top shape: 1 1 46168 (46168)
I0925 23:25:49.268867  2457 net.cpp:156] Memory required for data: 405756
I0925 23:25:49.269002  2457 net.cpp:219] probs does not need backward computation.
I0925 23:25:49.269166  2457 net.cpp:219] predict does not need backward computation.
I0925 23:25:49.269294  2457 net.cpp:219] lstm2 does not need backward computation.
I0925 23:25:49.269424  2457 net.cpp:219] concat does not need backward computation.
I0925 23:25:49.269551  2457 net.cpp:219] lstm1 does not need backward computation.
I0925 23:25:49.269685  2457 net.cpp:219] embedding does not need backward computation.
I0925 23:25:49.269811  2457 net.cpp:219] reshape_stage_indicator does not need backward computation.
I0925 23:25:49.269827  2457 net.cpp:219] reshape_frames does not need backward computation.
I0925 23:25:49.269835  2457 net.cpp:219] embed_encoder does not need backward computation.
I0925 23:25:49.269845  2457 net.cpp:219] cont_sentence_input_1_split does not need backward computation.
I0925 23:25:49.269865  2457 net.cpp:219] input does not need backward computation.
I0925 23:25:49.269871  2457 net.cpp:261] This network produces output probs
I0925 23:25:49.269901  2457 net.cpp:274] Network initialization done.
I0925 23:25:49.282932  2409 net.cpp:141] Setting up probs
I0925 23:25:49.282994  2409 net.cpp:148] Top shape: 1 1 46168 (46168)
I0925 23:25:49.283002  2409 net.cpp:156] Memory required for data: 405756
I0925 23:25:49.283015  2409 net.cpp:219] probs does not need backward computation.
I0925 23:25:49.283025  2409 net.cpp:219] predict does not need backward computation.
I0925 23:25:49.283041  2409 net.cpp:219] lstm2 does not need backward computation.
I0925 23:25:49.283051  2409 net.cpp:219] concat does not need backward computation.
I0925 23:25:49.283061  2409 net.cpp:219] lstm1 does not need backward computation.
I0925 23:25:49.283069  2409 net.cpp:219] embedding does not need backward computation.
I0925 23:25:49.283077  2409 net.cpp:219] reshape_stage_indicator does not need backward computation.
I0925 23:25:49.283085  2409 net.cpp:219] reshape_frames does not need backward computation.
I0925 23:25:49.283093  2409 net.cpp:219] embed_encoder does not need backward computation.
I0925 23:25:49.283102  2409 net.cpp:219] cont_sentence_input_1_split does not need backward computation.
I0925 23:25:49.283109  2409 net.cpp:219] input does not need backward computation.
I0925 23:25:49.283115  2409 net.cpp:261] This network produces output probs
I0925 23:25:49.283143  2409 net.cpp:274] Network initialization done.
I0925 23:25:49.302412  2415 net.cpp:141] Setting up conv2
I0925 23:25:49.302492  2415 net.cpp:148] Top shape: 10 256 27 27 (1866240)
I0925 23:25:49.302506  2415 net.cpp:156] Memory required for data: 42479160
I0925 23:25:49.302546  2415 layer_factory.hpp:77] Creating layer relu2
I0925 23:25:49.303228  2415 net.cpp:91] Creating Layer relu2
I0925 23:25:49.303247  2415 net.cpp:425] relu2 <- conv2
I0925 23:25:49.303264  2415 net.cpp:386] relu2 -> conv2 (in-place)
I0925 23:25:49.305691  2415 net.cpp:141] Setting up relu2
I0925 23:25:49.305755  2415 net.cpp:148] Top shape: 10 256 27 27 (1866240)
I0925 23:25:49.305766  2415 net.cpp:156] Memory required for data: 49944120
I0925 23:25:49.305781  2415 layer_factory.hpp:77] Creating layer pool2
I0925 23:25:49.306628  2415 net.cpp:91] Creating Layer pool2
I0925 23:25:49.306654  2415 net.cpp:425] pool2 <- conv2
I0925 23:25:49.306675  2415 net.cpp:399] pool2 -> pool2
I0925 23:25:49.307350  2415 net.cpp:141] Setting up pool2
I0925 23:25:49.307379  2415 net.cpp:148] Top shape: 10 256 13 13 (432640)
I0925 23:25:49.307387  2415 net.cpp:156] Memory required for data: 51674680
I0925 23:25:49.307397  2415 layer_factory.hpp:77] Creating layer norm2
I0925 23:25:49.307423  2415 net.cpp:91] Creating Layer norm2
I0925 23:25:49.307435  2415 net.cpp:425] norm2 <- pool2
I0925 23:25:49.307446  2415 net.cpp:399] norm2 -> norm2
I0925 23:25:49.327520  2423 net.cpp:141] Setting up predict
I0925 23:25:49.328265  2423 net.cpp:148] Top shape: 1 1 46168 (46168)
I0925 23:25:49.328291  2423 net.cpp:156] Memory required for data: 221084
I0925 23:25:49.328321  2423 layer_factory.hpp:77] Creating layer probs
I0925 23:25:49.328352  2423 net.cpp:91] Creating Layer probs
I0925 23:25:49.328367  2423 net.cpp:425] probs <- predict
I0925 23:25:49.328385  2423 net.cpp:399] probs -> probs
I0925 23:25:49.336691  2423 net.cpp:141] Setting up probs
I0925 23:25:49.337299  2423 net.cpp:148] Top shape: 1 1 46168 (46168)
I0925 23:25:49.337486  2423 net.cpp:156] Memory required for data: 405756
I0925 23:25:49.337617  2423 net.cpp:219] probs does not need backward computation.
I0925 23:25:49.337750  2423 net.cpp:219] predict does not need backward computation.
I0925 23:25:49.337900  2423 net.cpp:219] lstm2 does not need backward computation.
I0925 23:25:49.338048  2423 net.cpp:219] concat does not need backward computation.
I0925 23:25:49.338241  2423 net.cpp:219] lstm1 does not need backward computation.
I0925 23:25:49.338290  2415 net.cpp:141] Setting up norm2
I0925 23:25:49.342689  2423 net.cpp:219] embedding does not need backward computation.
I0925 23:25:49.342722  2423 net.cpp:219] reshape_stage_indicator does not need backward computation.
I0925 23:25:49.342728  2423 net.cpp:219] reshape_frames does not need backward computation.
I0925 23:25:49.342722  2415 net.cpp:148] Top shape: 10 256 13 13 (432640)
I0925 23:25:49.342735  2423 net.cpp:219] embed_encoder does not need backward computation.
I0925 23:25:49.342751  2415 net.cpp:156] Memory required for data: 53405240
I0925 23:25:49.342754  2423 net.cpp:219] cont_sentence_input_1_split does not need backward computation.
I0925 23:25:49.342762  2423 net.cpp:219] input does not need backward computation.
I0925 23:25:49.342762  2415 layer_factory.hpp:77] Creating layer conv3
I0925 23:25:49.342768  2423 net.cpp:261] This network produces output probs
I0925 23:25:49.342792  2423 net.cpp:274] Network initialization done.
I0925 23:25:49.342794  2415 net.cpp:91] Creating Layer conv3
I0925 23:25:49.342803  2415 net.cpp:425] conv3 <- norm2
I0925 23:25:49.344300  2415 net.cpp:399] conv3 -> conv3
I0925 23:25:49.382545  2415 net.cpp:141] Setting up conv3
I0925 23:25:49.382642  2415 net.cpp:148] Top shape: 10 384 13 13 (648960)
I0925 23:25:49.382657  2415 net.cpp:156] Memory required for data: 56001080
I0925 23:25:49.382702  2415 layer_factory.hpp:77] Creating layer relu3
I0925 23:25:49.382735  2415 net.cpp:91] Creating Layer relu3
I0925 23:25:49.382750  2415 net.cpp:425] relu3 <- conv3
I0925 23:25:49.384781  2415 net.cpp:386] relu3 -> conv3 (in-place)
I0925 23:25:49.386422  2415 net.cpp:141] Setting up relu3
I0925 23:25:49.386489  2415 net.cpp:148] Top shape: 10 384 13 13 (648960)
I0925 23:25:49.386503  2415 net.cpp:156] Memory required for data: 58596920
I0925 23:25:49.386519  2415 layer_factory.hpp:77] Creating layer conv4
I0925 23:25:49.386559  2415 net.cpp:91] Creating Layer conv4
I0925 23:25:49.386572  2415 net.cpp:425] conv4 <- conv3
I0925 23:25:49.387256  2415 net.cpp:399] conv4 -> conv4
I0925 23:25:49.440037  2415 net.cpp:141] Setting up conv4
I0925 23:25:49.440117  2415 net.cpp:148] Top shape: 10 384 13 13 (648960)
I0925 23:25:49.440129  2415 net.cpp:156] Memory required for data: 61192760
I0925 23:25:49.440160  2415 layer_factory.hpp:77] Creating layer relu4
I0925 23:25:49.445560  2415 net.cpp:91] Creating Layer relu4
I0925 23:25:49.445621  2415 net.cpp:425] relu4 <- conv4
I0925 23:25:49.445650  2415 net.cpp:386] relu4 -> conv4 (in-place)
I0925 23:25:49.451973  2415 net.cpp:141] Setting up relu4
I0925 23:25:49.452337  2415 net.cpp:148] Top shape: 10 384 13 13 (648960)
I0925 23:25:49.452466  2415 net.cpp:156] Memory required for data: 63788600
I0925 23:25:49.452592  2415 layer_factory.hpp:77] Creating layer conv5
I0925 23:25:49.453349  2415 net.cpp:91] Creating Layer conv5
I0925 23:25:49.453373  2415 net.cpp:425] conv5 <- conv4
I0925 23:25:49.453394  2415 net.cpp:399] conv5 -> conv5
I0925 23:25:49.530506  2415 net.cpp:141] Setting up conv5
I0925 23:25:49.530585  2415 net.cpp:148] Top shape: 10 256 13 13 (432640)
I0925 23:25:49.530618  2415 net.cpp:156] Memory required for data: 65519160
I0925 23:25:49.530658  2415 layer_factory.hpp:77] Creating layer relu5
I0925 23:25:49.530886  2415 net.cpp:91] Creating Layer relu5
I0925 23:25:49.530902  2415 net.cpp:425] relu5 <- conv5
I0925 23:25:49.530920  2415 net.cpp:386] relu5 -> conv5 (in-place)
I0925 23:25:49.536953  2401 net.cpp:141] Setting up predict
I0925 23:25:49.537011  2401 net.cpp:148] Top shape: 1 1 46168 (46168)
I0925 23:25:49.537020  2401 net.cpp:156] Memory required for data: 221084
I0925 23:25:49.537040  2401 layer_factory.hpp:77] Creating layer probs
I0925 23:25:49.537063  2401 net.cpp:91] Creating Layer probs
I0925 23:25:49.537076  2401 net.cpp:425] probs <- predict
I0925 23:25:49.537091  2401 net.cpp:399] probs -> probs
I0925 23:25:49.539434  2415 net.cpp:141] Setting up relu5
I0925 23:25:49.539489  2415 net.cpp:148] Top shape: 10 256 13 13 (432640)
I0925 23:25:49.539499  2415 net.cpp:156] Memory required for data: 67249720
I0925 23:25:49.539511  2415 layer_factory.hpp:77] Creating layer pool5
I0925 23:25:49.540493  2415 net.cpp:91] Creating Layer pool5
I0925 23:25:49.540529  2415 net.cpp:425] pool5 <- conv5
I0925 23:25:49.540555  2415 net.cpp:399] pool5 -> pool5
I0925 23:25:49.541352  2415 net.cpp:141] Setting up pool5
I0925 23:25:49.541347  2401 net.cpp:141] Setting up probs
I0925 23:25:49.541383  2415 net.cpp:148] Top shape: 10 256 6 6 (92160)
I0925 23:25:49.541383  2401 net.cpp:148] Top shape: 1 1 46168 (46168)
I0925 23:25:49.541396  2415 net.cpp:156] Memory required for data: 67618360
I0925 23:25:49.541399  2401 net.cpp:156] Memory required for data: 405756
I0925 23:25:49.541409  2415 layer_factory.hpp:77] Creating layer fc6
I0925 23:25:49.541409  2401 net.cpp:219] probs does not need backward computation.
I0925 23:25:49.541427  2401 net.cpp:219] predict does not need backward computation.
…
I0925 23:25:49.542091  2401 net.cpp:219] reshape_frames does not need backward computation.
I0925 23:25:49.542100  2401 net.cpp:219] embed_encoder does not need backward computation.
I0925 23:25:49.542109  2401 net.cpp:219] cont_sentence_input_1_split does not need backward computation.
I0925 23:25:49.542119  2401 net.cpp:219] input does not need backward computation.
I0925 23:25:49.542125  2401 net.cpp:261] This network produces output probs
I0925 23:25:49.542151  2401 net.cpp:274] Network initialization done.
I0925 23:25:49.679864  2415 net.cpp:141] Setting up fc6
I0925 23:25:49.679934  2415 net.cpp:148] Top shape: 10 4096 (40960)
I0925 23:25:49.679947  2415 net.cpp:156] Memory required for data: 67782200
I0925 23:25:49.679976  2415 layer_factory.hpp:77] Creating layer relu6
I0925 23:25:49.680002  2415 net.cpp:91] Creating Layer relu6
I0925 23:25:49.680014  2415 net.cpp:425] relu6 <- fc6
I0925 23:25:49.680034  2415 net.cpp:386] relu6 -> fc6 (in-place)
I0925 23:25:49.688590  2415 net.cpp:141] Setting up relu6
I0925 23:25:49.688709  2415 net.cpp:148] Top shape: 10 4096 (40960)
I0925 23:25:49.688719  2415 net.cpp:156] Memory required for data: 67946040
I0925 23:25:49.688735  2415 layer_factory.hpp:77] Creating layer drop6
I0925 23:25:49.688776  2415 net.cpp:91] Creating Layer drop6
I0925 23:25:49.688802  2415 net.cpp:425] drop6 <- fc6
I0925 23:25:49.688827  2415 net.cpp:386] drop6 -> fc6 (in-place)
I0925 23:25:49.689092  2415 net.cpp:141] Setting up drop6
I0925 23:25:49.689116  2415 net.cpp:148] Top shape: 10 4096 (40960)
I0925 23:25:49.689127  2415 net.cpp:156] Memory required for data: 68109880
I0925 23:25:49.689138  2415 layer_factory.hpp:77] Creating layer fc7
I0925 23:25:49.690790  2415 net.cpp:91] Creating Layer fc7
I0925 23:25:49.690852  2415 net.cpp:425] fc7 <- fc6
I0925 23:25:49.690883  2415 net.cpp:399] fc7 -> fc7
I0925 23:25:49.778126  2415 net.cpp:141] Setting up fc7
I0925 23:25:49.778192  2415 net.cpp:148] Top shape: 10 4096 (40960)
I0925 23:25:49.778199  2415 net.cpp:156] Memory required for data: 68273720
I0925 23:25:49.778216  2415 layer_factory.hpp:77] Creating layer relu7
I0925 23:25:49.778235  2415 net.cpp:91] Creating Layer relu7
I0925 23:25:49.778244  2415 net.cpp:425] relu7 <- fc7
I0925 23:25:49.778252  2415 net.cpp:386] relu7 -> fc7 (in-place)
I0925 23:25:49.780052  2415 net.cpp:141] Setting up relu7
I0925 23:25:49.780143  2415 net.cpp:148] Top shape: 10 4096 (40960)
I0925 23:25:49.780164  2415 net.cpp:156] Memory required for data: 68437560
I0925 23:25:49.780187  2415 layer_factory.hpp:77] Creating layer drop7
I0925 23:25:49.780844  2415 net.cpp:91] Creating Layer drop7
I0925 23:25:49.780874  2415 net.cpp:425] drop7 <- fc7
I0925 23:25:49.780895  2415 net.cpp:386] drop7 -> fc7 (in-place)
I0925 23:25:49.781074  2415 net.cpp:141] Setting up drop7
I0925 23:25:49.781093  2415 net.cpp:148] Top shape: 10 4096 (40960)
I0925 23:25:49.781102  2415 net.cpp:156] Memory required for data: 68601400
I0925 23:25:49.781111  2415 layer_factory.hpp:77] Creating layer fc8
I0925 23:25:49.782212  2415 net.cpp:91] Creating Layer fc8
I0925 23:25:49.782279  2415 net.cpp:425] fc8 <- fc7
I0925 23:25:49.782308  2415 net.cpp:399] fc8 -> fc8
I0925 23:25:49.806030  2415 net.cpp:141] Setting up fc8
I0925 23:25:49.806097  2415 net.cpp:148] Top shape: 10 1000 (10000)
I0925 23:25:49.806108  2415 net.cpp:156] Memory required for data: 68641400
I0925 23:25:49.806133  2415 layer_factory.hpp:77] Creating layer prob
I0925 23:25:49.806161  2415 net.cpp:91] Creating Layer prob
I0925 23:25:49.806174  2415 net.cpp:425] prob <- fc8
I0925 23:25:49.806188  2415 net.cpp:399] prob -> prob
I0925 23:25:49.813635  2415 net.cpp:141] Setting up prob
I0925 23:25:49.813735  2415 net.cpp:148] Top shape: 10 1000 (10000)
I0925 23:25:49.813750  2415 net.cpp:156] Memory required for data: 68681400
I0925 23:25:49.813767  2415 net.cpp:219] prob does not need backward computation.
I0925 23:25:49.813796  2415 net.cpp:219] fc8 does not need backward computation.
I0925 23:25:49.813810  2415 net.cpp:219] drop7 does not need backward computation.
I0925 23:25:49.813822  2415 net.cpp:219] relu7 does not need backward computation.
…
