…
W0924 03:49:55.316557  8913 upgrade_proto.cpp:71] Note that future Caffe releases will only support input layers and not input fields.
I0924 03:49:55.316720  8921 net.cpp:49] Initializing net from parameters: 
name: "s2vt:features_to_lstm"
state {
  phase: TEST
}
layer {
  name: "input"
  type: "Input"
  top: "frames_fc7"
  top: "cont_sentence"
  top: "input_sentence"
  top: "stage_indicator"
  input_param {
    shape {
      dim: 1
      dim: 4096
    }
    shape {
      dim: 1
      dim: 1
    }
    shape {
      dim: 1
      dim: 1
    }
    shape {
      dim: 1
      dim: 1
    }
  }
}
layer {
  name: "embed_encoder"
  type: "InnerProduct"
  bottom: "frames_fc7"
  top: "embedded_in_frames"
  param {
    lr_mult: 1
    decay_mult: 1
  }
  param {
    lr_mult: 2
    decay_mult: 0
  }
  inner_product_param {
    num_output: 500
    weight_filler {
      type: "xavier"
    }
    bias_filler {
      type: "constant"
      value: 0.2
    }
  }
}
layer {
  name: "reshape_frames"
  type: "Reshape"
  bottom: "embedded_in_frames"
  top: "embedded_input_frames"
  reshape_param {
    shape {
      dim: 1
      dim: 1
      dim: 500
    }
  }
}
layer {
  name: "reshape_stage_indicator"
  type: "Reshape"
  bottom: "stage_indicator"
  top: "reshaped_stage_indicator"
  reshape_param {
    shape {
      dim: 1
      dim: 1
      dim: 1
    }
  }
}
layer {
  name: "embedding"
  type: "Embed"
  bottom: "input_sentence"
  top: "embedded_input_sentence"
  param {
    lr_mult: 1
  }
  embed_param {
    num_output: 500
    input_dim: 46168
    bias_term: false
    weight_filler {
      type: "uniform"
      min: -0.08
      max: 0.08
    }
  }
}
layer {
  name: "lstm1"
  type: "LSTM"
  bottom: "embedded_input_frames"
  bottom: "cont_sentence"
  top: "lstm1"
  recurrent_param {
    num_output: 1000
    weight_filler {
      type: "uniform"
      min: -0.08
      max: 0.08
    }
    bias_filler {
      type: "constant"
      value: 0
    }
  }
}
layer {
  name: "concat"
  type: "Concat"
  bottom: "lstm1"
  bottom: "embedded_input_sentence"
  bottom: "reshaped_stage_indicator"
  top: "lstm1_video_sequence"
  concat_param {
    concat_dim: 2
  }
}
layer {
  name: "lstm2"
  type: "LSTM"
  bottom: "lstm1_video_sequence"
  bottom: "cont_sentence"
  top: "lstm2"
  recurrent_param {
    num_output: 1000
    weight_filler {
      type: "uniform"
      min: -0.08
      max: 0.08
    }
    bias_filler {
      type: "constant"
      value: 0
    }
  }
}
layer {
  name: "predict"
  type: "InnerProduct"
  bottom: "lstm2"
  top: "predict"
  param {
    lr_mult: 1
    decay_mult: 1
  }
  param {
    lr_mult: 2
    decay_mult: 0
  }
  inner_product_param {
    num_output: 46168
    weight_filler {
      type: "uniform"
      min: -0.08
      max: 0.08
    }
    bias_filler {
      type: "constant"
      value: 0
    }
    axis: 2
  }
}
layer {
  name: "probs"
  type: "Softmax"
  bottom: "predict"
  top: "probs"
  softmax_param {
    axis: 2
  }
}
I0924 03:49:55.316714  8925 net.cpp:49] Initializing net from parameters: 
name: "s2vt:features_to_lstm"
state {
  phase: TEST
}
layer {
  name: "input"
  type: "Input"
  top: "frames_fc7"
  top: "cont_sentence"
  top: "input_sentence"
  top: "stage_indicator"
  input_param {
    shape {
      dim: 1
      dim: 4096
    }
    shape {
      dim: 1
      dim: 1
    }
    shape {
      dim: 1
      dim: 1
    }
    shape {
      dim: 1
      dim: 1
    }
  }
}
layer {
  name: "embed_encoder"
  type: "InnerProduct"
  bottom: "frames_fc7"
  top: "embedded_in_frames"
  param {
    lr_mult: 1
    decay_mult: 1
  }
  param {
    lr_mult: 2
    decay_mult: 0
  }
  inner_product_param {
    num_output: 500
    weight_filler {
      type: "xavier"
    }
    bias_filler {
      type: "constant"
      value: 0.2
    }
  }
}
layer {
  name: "reshape_frames"
  type: "Reshape"
  bottom: "embedded_in_frames"
  top: "embedded_input_frames"
  reshape_param {
    shape {
      dim: 1
      dim: 1
      dim: 500
    }
  }
}
layer {
  name: "reshape_stage_indicator"
  type: "Reshape"
  bottom: "stage_indicator"
  top: "reshaped_stage_indicator"
  reshape_param {
    shape {
      dim: 1
      dim: 1
      dim: 1
    }
  }
}
layer {
  name: "embedding"
  type: "Embed"
  bottom: "input_sentence"
  top: "embedded_input_sentence"
  param {
    lr_mult: 1
  }
  embed_param {
    num_output: 500
    input_dim: 46168
    bias_term: false
    weight_filler {
      type: "uniform"
      min: -0.08
      max: 0.08
    }
  }
}
layer {
  name: "lstm1"
  type: "LSTM"
  bottom: "embedded_input_frames"
  bottom: "cont_sentence"
  top: "lstm1"
  recurrent_param {
    num_output: 1000
    weight_filler {
      type: "uniform"
      min: -0.08
      max: 0.08
    }
    bias_filler {
      type: "constant"
      value: 0
    }
  }
}
layer {
  name: "concat"
  type: "Concat"
  bottom: "lstm1"
  bottom: "embedded_input_sentence"
  bottom: "reshaped_stage_indicator"
  top: "lstm1_video_sequence"
  concat_param {
    concat_dim: 2
  }
}
layer {
  name: "lstm2"
  type: "LSTM"
  bottom: "lstm1_video_sequence"
  bottom: "cont_sentence"
  top: "lstm2"
  recurrent_param {
    num_output: 1000
    weight_filler {
      type: "uniform"
      min: -0.08
      max: 0.08
    }
    bias_filler {
      type: "constant"
      value: 0
    }
  }
}
layer {
  name: "predict"
  type: "InnerProduct"
  bottom: "lstm2"
  top: "predict"
  param {
    lr_mult: 1
    decay_mult: 1
  }
  param {
    lr_mult: 2
    decay_mult: 0
  }
  inner_product_param {
    num_output: 46168
    weight_filler {
      type: "uniform"
      min: -0.08
      max: 0.08
    }
    bias_filler {
      type: "constant"
      value: 0
    }
    axis: 2
  }
}
layer {
  name: "probs"
  type: "Softmax"
  bottom: "predict"
  top: "probs"
  softmax_param {
    axis: 2
  }
}
I0924 03:49:55.316772  8903 net.cpp:49] Initializing net from parameters: 
name: "s2vt:features_to_lstm"
state {
  phase: TEST
}
layer {
  name: "input"
  type: "Input"
  top: "frames_fc7"
  top: "cont_sentence"
  top: "input_sentence"
  top: "stage_indicator"
  input_param {
    shape {
      dim: 1
      dim: 4096
    }
    shape {
      dim: 1
      dim: 1
    }
    shape {
      dim: 1
      dim: 1
    }
    shape {
      dim: 1
      dim: 1
    }
  }
}
layer {
  name: "embed_encoder"
  type: "InnerProduct"
  bottom: "frames_fc7"
  top: "embedded_in_frames"
  param {
    lr_mult: 1
    decay_mult: 1
  }
  param {
    lr_mult: 2
    decay_mult: 0
  }
  inner_product_param {
    num_output: 500
    weight_filler {
      type: "xavier"
    }
    bias_filler {
      type: "constant"
      value: 0.2
    }
  }
}
layer {
  name: "reshape_frames"
  type: "Reshape"
  bottom: "embedded_in_frames"
  top: "embedded_input_frames"
  reshape_param {
    shape {
      dim: 1
      dim: 1
      dim: 500
    }
  }
}
layer {
  name: "reshape_stage_indicator"
  type: "Reshape"
  bottom: "stage_indicator"
  top: "reshaped_stage_indicator"
  reshape_param {
    shape {
      dim: 1
      dim: 1
      dim: 1
    }
  }
}
layer {
  name: "embedding"
  type: "Embed"
  bottom: "input_sentence"
  top: "embedded_input_sentence"
  param {
    lr_mult: 1
  }
  embed_param {
    num_output: 500
    input_dim: 46168
    bias_term: false
    weight_filler {
      type: "uniform"
      min: -0.08
      max: 0.08
    }
  }
}
layer {
  name: "lstm1"
  type: "LSTM"
  bottom: "embedded_input_frames"
  bottom: "cont_sentence"
  top: "lstm1"
  recurrent_param {
    num_output: 1000
    weight_filler {
      type: "uniform"
      min: -0.08
      max: 0.08
    }
    bias_filler {
      type: "constant"
      value: 0
    }
  }
}
layer {
  name: "concat"
  type: "Concat"
  bottom: "lstm1"
  bottom: "embedded_input_sentence"
  bottom: "reshaped_stage_indicator"
  top: "lstm1_video_sequence"
  concat_param {
    concat_dim: 2
  }
}
layer {
  name: "lstm2"
  type: "LSTM"
  bottom: "lstm1_video_sequence"
  bottom: "cont_sentence"
  top: "lstm2"
  recurrent_param {
    num_output: 1000
    weight_filler {
      type: "uniform"
      min: -0.08
      max: 0.08
    }
    bias_filler {
      type: "constant"
      value: 0
    }
  }
}
layer {
  name: "predict"
  type: "InnerProduct"
  bottom: "lstm2"
  top: "predict"
  param {
    lr_mult: 1
    decay_mult: 1
  }
  param {
    lr_mult: 2
    decay_mult: 0
  }
  inner_product_param {
    num_output: 46168
    weight_filler {
      type: "uniform"
      min: -0.08
      max: 0.08
    }
    bias_filler {
      type: "constant"
      value: 0
    }
    axis: 2
  }
}
layer {
  name: "probs"
  type: "Softmax"
  bottom: "predict"
  top: "probs"
  softmax_param {
    axis: 2
  }
}
I0924 03:49:55.316850  8913 net.cpp:49] Initializing net from parameters: 
name: "s2vt:features_to_lstm"
state {
  phase: TEST
}
layer {
  name: "input"
  type: "Input"
  top: "frames_fc7"
  top: "cont_sentence"
  top: "input_sentence"
  top: "stage_indicator"
  input_param {
    shape {
      dim: 1
      dim: 4096
    }
    shape {
      dim: 1
      dim: 1
    }
    shape {
      dim: 1
      dim: 1
    }
    shape {
      dim: 1
      dim: 1
    }
  }
}
layer {
  name: "embed_encoder"
  type: "InnerProduct"
  bottom: "frames_fc7"
  top: "embedded_in_frames"
  param {
    lr_mult: 1
    decay_mult: 1
  }
  param {
    lr_mult: 2
    decay_mult: 0
  }
  inner_product_param {
    num_output: 500
    weight_filler {
      type: "xavier"
    }
    bias_filler {
      type: "constant"
      value: 0.2
    }
  }
}
layer {
  name: "reshape_frames"
  type: "Reshape"
  bottom: "embedded_in_frames"
  top: "embedded_input_frames"
  reshape_param {
    shape {
      dim: 1
      dim: 1
      dim: 500
    }
  }
}
layer {
  name: "reshape_stage_indicator"
  type: "Reshape"
  bottom: "stage_indicator"
  top: "reshaped_stage_indicator"
  reshape_param {
    shape {
      dim: 1
      dim: 1
      dim: 1
    }
  }
}
layer {
  name: "embedding"
  type: "Embed"
  bottom: "input_sentence"
  top: "embedded_input_sentence"
  param {
    lr_mult: 1
  }
  embed_param {
    num_output: 500
    input_dim: 46168
    bias_term: false
    weight_filler {
      type: "uniform"
      min: -0.08
      max: 0.08
    }
  }
}
layer {
  name: "lstm1"
  type: "LSTM"
  bottom: "embedded_input_frames"
  bottom: "cont_sentence"
  top: "lstm1"
  recurrent_param {
    num_output: 1000
    weight_filler {
      type: "uniform"
      min: -0.08
      max: 0.08
    }
    bias_filler {
      type: "constant"
      value: 0
    }
  }
}
layer {
  name: "concat"
  type: "Concat"
  bottom: "lstm1"
  bottom: "embedded_input_sentence"
  bottom: "reshaped_stage_indicator"
  top: "lstm1_video_sequence"
  concat_param {
    concat_dim: 2
  }
}
layer {
  name: "lstm2"
  type: "LSTM"
  bottom: "lstm1_video_sequence"
  bottom: "cont_sentence"
  top: "lstm2"
  recurrent_param {
    num_output: 1000
    weight_filler {
      type: "uniform"
      min: -0.08
      max: 0.08
    }
    bias_filler {
      type: "constant"
      value: 0
    }
  }
}
layer {
  name: "predict"
  type: "InnerProduct"
  bottom: "lstm2"
  top: "predict"
  param {
    lr_mult: 1
    decay_mult: 1
  }
  param {
    lr_mult: 2
    decay_mult: 0
  }
  inner_product_param {
    num_output: 46168
    weight_filler {
      type: "uniform"
      min: -0.08
      max: 0.08
    }
    bias_filler {
      type: "constant"
      value: 0
    }
    axis: 2
  }
}
layer {
  name: "probs"
  type: "Softmax"
  bottom: "predict"
  top: "probs"
  softmax_param {
    axis: 2
  }
}
I0924 03:49:55.316862  8925 layer_factory.hpp:77] Creating layer input
I0924 03:49:55.316849  8907 net.cpp:49] Initializing net from parameters: 
name: "s2vt:features_to_lstm"
state {
  phase: TEST
}
layer {
  name: "input"
  type: "Input"
  top: "frames_fc7"
  top: "cont_sentence"
  top: "input_sentence"
  top: "stage_indicator"
  input_param {
    shape {
      dim: 1
      dim: 4096
    }
    shape {
      dim: 1
      dim: 1
    }
    shape {
      dim: 1
      dim: 1
    }
    shape {
      dim: 1
      dim: 1
    }
  }
}
layer {
  name: "embed_encoder"
  type: "InnerProduct"
  bottom: "frames_fc7"
  top: "embedded_in_frames"
  param {
    lr_mult: 1
    decay_mult: 1
  }
  param {
    lr_mult: 2
    decay_mult: 0
  }
  inner_product_param {
    num_output: 500
    weight_filler {
      type: "xavier"
    }
    bias_filler {
      type: "constant"
      value: 0.2
    }
  }
}
layer {
  name: "reshape_frames"
  type: "Reshape"
  bottom: "embedded_in_frames"
  top: "embedded_input_frames"
  reshape_param {
    shape {
      dim: 1
      dim: 1
      dim: 500
    }
  }
}
layer {
  name: "reshape_stage_indicator"
  type: "Reshape"
  bottom: "stage_indicator"
  top: "reshaped_stage_indicator"
  reshape_param {
    shape {
      dim: 1
      dim: 1
      dim: 1
    }
  }
}
layer {
  name: "embedding"
  type: "Embed"
  bottom: "input_sentence"
  top: "embedded_input_sentence"
  param {
    lr_mult: 1
  }
  embed_param {
    num_output: 500
    input_dim: 46168
    bias_term: false
    weight_filler {
      type: "uniform"
      min: -0.08
      max: 0.08
    }
  }
}
layer {
  name: "lstm1"
  type: "LSTM"
  bottom: "embedded_input_frames"
  bottom: "cont_sentence"
  top: "lstm1"
  recurrent_param {
    num_output: 1000
    weight_filler {
      type: "uniform"
      min: -0.08
      max: 0.08
    }
    bias_filler {
      type: "constant"
      value: 0
    }
  }
}
layer {
  name: "concat"
  type: "Concat"
  bottom: "lstm1"
  bottom: "embedded_input_sentence"
  bottom: "reshaped_stage_indicator"
  top: "lstm1_video_sequence"
  concat_param {
    concat_dim: 2
  }
}
layer {
  name: "lstm2"
  type: "LSTM"
  bottom: "lstm1_video_sequence"
  bottom: "cont_sentence"
  top: "lstm2"
  recurrent_param {
    num_output: 1000
    weight_filler {
      type: "uniform"
      min: -0.08
      max: 0.08
    }
    bias_filler {
      type: "constant"
      value: 0
    }
  }
}
layer {
  name: "predict"
  type: "InnerProduct"
  bottom: "lstm2"
  top: "predict"
  param {
    lr_mult: 1
    decay_mult: 1
  }
  param {
    lr_mult: 2
    decay_mult: 0
  }
  inner_product_param {
    num_output: 46168
    weight_filler {
      type: "uniform"
      min: -0.08
      max: 0.08
    }
    bias_filler {
      type: "constant"
      value: 0
    }
    axis: 2
  }
}
layer {
  name: "probs"
  type: "Softmax"
  bottom: "predict"
  top: "probs"
  softmax_param {
    axis: 2
  }
}
I0924 03:49:55.316896  8903 layer_factory.hpp:77] Creating layer input
I0924 03:49:55.316906  8921 layer_factory.hpp:77] Creating layer input
I0924 03:49:55.316911  8951 net.cpp:49] Initializing net from parameters: 
name: "s2vt:features_to_lstm"
state {
  phase: TEST
}
layer {
  name: "input"
  type: "Input"
  top: "frames_fc7"
  top: "cont_sentence"
  top: "input_sentence"
  top: "stage_indicator"
  input_param {
    shape {
      dim: 1
      dim: 4096
    }
    shape {
      dim: 1
      dim: 1
    }
    shape {
      dim: 1
      dim: 1
    }
    shape {
      dim: 1
      dim: 1
    }
  }
}
layer {
  name: "embed_encoder"
  type: "InnerProduct"
  bottom: "frames_fc7"
  top: "embedded_in_frames"
  param {
    lr_mult: 1
    decay_mult: 1
  }
  param {
    lr_mult: 2
    decay_mult: 0
  }
  inner_product_param {
    num_output: 500
    weight_filler {
      type: "xavier"
    }
    bias_filler {
      type: "constant"
      value: 0.2
    }
  }
}
layer {
  name: "reshape_frames"
  type: "Reshape"
  bottom: "embedded_in_frames"
  top: "embedded_input_frames"
  reshape_param {
    shape {
      dim: 1
      dim: 1
      dim: 500
    }
  }
}
layer {
  name: "reshape_stage_indicator"
  type: "Reshape"
  bottom: "stage_indicator"
  top: "reshaped_stage_indicator"
  reshape_param {
    shape {
      dim: 1
      dim: 1
      dim: 1
    }
  }
}
layer {
  name: "embedding"
  type: "Embed"
  bottom: "input_sentence"
  top: "embedded_input_sentence"
  param {
    lr_mult: 1
  }
  embed_param {
    num_output: 500
    input_dim: 46168
    bias_term: false
    weight_filler {
      type: "uniform"
      min: -0.08
      max: 0.08
    }
  }
}
layer {
  name: "lstm1"
  type: "LSTM"
  bottom: "embedded_input_frames"
  bottom: "cont_sentence"
  top: "lstm1"
  recurrent_param {
    num_output: 1000
    weight_filler {
      type: "uniform"
      min: -0.08
      max: 0.08
    }
    bias_filler {
      type: "constant"
      value: 0
    }
  }
}
layer {
  name: "concat"
  type: "Concat"
  bottom: "lstm1"
  bottom: "embedded_input_sentence"
  bottom: "reshaped_stage_indicator"
  top: "lstm1_video_sequence"
  concat_param {
    concat_dim: 2
  }
}
layer {
  name: "lstm2"
  type: "LSTM"
  bottom: "lstm1_video_sequence"
  bottom: "cont_sentence"
  top: "lstm2"
  recurrent_param {
    num_output: 1000
    weight_filler {
      type: "uniform"
      min: -0.08
      max: 0.08
    }
    bias_filler {
      type: "constant"
      value: 0
    }
  }
}
layer {
  name: "predict"
  type: "InnerProduct"
  bottom: "lstm2"
  top: "predict"
  param {
    lr_mult: 1
    decay_mult: 1
  }
  param {
    lr_mult: 2
    decay_mult: 0
  }
  inner_product_param {
    num_output: 46168
    weight_filler {
      type: "uniform"
      min: -0.08
      max: 0.08
    }
    bias_filler {
      type: "constant"
      value: 0
    }
    axis: 2
  }
}
layer {
  name: "probs"
  type: "Softmax"
  bottom: "predict"
  top: "probs"
  softmax_param {
    axis: 2
  }
}
I0924 03:49:55.316922  8903 net.cpp:91] Creating Layer input
I0924 03:49:55.316925  8925 net.cpp:91] Creating Layer input
I0924 03:49:55.316910  8909 net.cpp:49] Initializing net from parameters: 
name: "s2vt:features_to_lstm"
state {
  phase: TEST
}
layer {
  name: "input"
  type: "Input"
  top: "frames_fc7"
  top: "cont_sentence"
  top: "input_sentence"
  top: "stage_indicator"
  input_param {
    shape {
      dim: 1
      dim: 4096
    }
    shape {
      dim: 1
      dim: 1
    }
    shape {
      dim: 1
      dim: 1
    }
    shape {
      dim: 1
      dim: 1
    }
  }
}
layer {
  name: "embed_encoder"
  type: "InnerProduct"
  bottom: "frames_fc7"
  top: "embedded_in_frames"
  param {
    lr_mult: 1
    decay_mult: 1
  }
  param {
    lr_mult: 2
    decay_mult: 0
  }
  inner_product_param {
    num_output: 500
    weight_filler {
      type: "xavier"
    }
    bias_filler {
      type: "constant"
      value: 0.2
    }
  }
}
layer {
  name: "reshape_frames"
  type: "Reshape"
  bottom: "embedded_in_frames"
  top: "embedded_input_frames"
  reshape_param {
    shape {
      dim: 1
      dim: 1
      dim: 500
    }
  }
}
layer {
  name: "reshape_stage_indicator"
  type: "Reshape"
  bottom: "stage_indicator"
  top: "reshaped_stage_indicator"
  reshape_param {
    shape {
      dim: 1
      dim: 1
      dim: 1
    }
  }
}
layer {
  name: "embedding"
  type: "Embed"
  bottom: "input_sentence"
  top: "embedded_input_sentence"
  param {
    lr_mult: 1
  }
  embed_param {
    num_output: 500
    input_dim: 46168
    bias_term: false
    weight_filler {
      type: "uniform"
      min: -0.08
      max: 0.08
    }
  }
}
layer {
  name: "lstm1"
  type: "LSTM"
  bottom: "embedded_input_frames"
  bottom: "cont_sentence"
  top: "lstm1"
  recurrent_param {
    num_output: 1000
    weight_filler {
      type: "uniform"
      min: -0.08
      max: 0.08
    }
    bias_filler {
      type: "constant"
      value: 0
    }
  }
}
layer {
  name: "concat"
  type: "Concat"
  bottom: "lstm1"
  bottom: "embedded_input_sentence"
  bottom: "reshaped_stage_indicator"
  top: "lstm1_video_sequence"
  concat_param {
    concat_dim: 2
  }
}
layer {
  name: "lstm2"
  type: "LSTM"
  bottom: "lstm1_video_sequence"
  bottom: "cont_sentence"
  top: "lstm2"
  recurrent_param {
    num_output: 1000
    weight_filler {
      type: "uniform"
      min: -0.08
      max: 0.08
    }
    bias_filler {
      type: "constant"
      value: 0
    }
  }
}
layer {
  name: "predict"
  type: "InnerProduct"
  bottom: "lstm2"
  top: "predict"
  param {
    lr_mult: 1
    decay_mult: 1
  }
  param {
    lr_mult: 2
    decay_mult: 0
  }
  inner_product_param {
    num_output: 46168
    weight_filler {
      type: "uniform"
      min: -0.08
      max: 0.08
    }
    bias_filler {
      type: "constant"
      value: 0
    }
    axis: 2
  }
}
layer {
  name: "probs"
  type: "Softmax"
  bottom: "predict"
  top: "probs"
  softmax_param {
    axis: 2
  }
}
I0924 03:49:55.316922  8921 net.cpp:91] Creating Layer input
I0924 03:49:55.316949  8925 net.cpp:399] input -> frames_fc7
I0924 03:49:55.316949  8903 net.cpp:399] input -> frames_fc7
I0924 03:49:55.316959  8921 net.cpp:399] input -> frames_fc7
I0924 03:49:55.316979  8907 layer_factory.hpp:77] Creating layer input
I0924 03:49:55.316988  8925 net.cpp:399] input -> cont_sentence
…
I0924 03:49:55.317148  8951 net.cpp:399] input -> input_sentence
I0924 03:49:55.317184  8909 net.cpp:399] input -> cont_sentence
I0924 03:49:55.317190  8951 net.cpp:399] input -> stage_indicator
I0924 03:49:55.317203  8909 net.cpp:399] input -> input_sentence
I0924 03:49:55.317219  8909 net.cpp:399] input -> stage_indicator
I0924 03:49:55.317391  8943 net.cpp:49] Initializing net from parameters: 
name: "CaffeNet"
state {
  phase: TEST
}
layer {
  name: "data"
  type: "Input"
  top: "data"
  input_param {
    shape {
      dim: 10
      dim: 3
      dim: 227
      dim: 227
    }
  }
}
layer {
  name: "conv1"
  type: "Convolution"
  bottom: "data"
  top: "conv1"
  convolution_param {
    num_output: 96
    kernel_size: 11
    stride: 4
  }
}
layer {
  name: "relu1"
  type: "ReLU"
  bottom: "conv1"
  top: "conv1"
}
layer {
  name: "pool1"
  type: "Pooling"
  bottom: "conv1"
  top: "pool1"
  pooling_param {
    pool: MAX
    kernel_size: 3
    stride: 2
  }
}
layer {
  name: "norm1"
  type: "LRN"
  bottom: "pool1"
  top: "norm1"
  lrn_param {
    local_size: 5
    alpha: 0.0001
    beta: 0.75
  }
}
layer {
  name: "conv2"
  type: "Convolution"
  bottom: "norm1"
  top: "conv2"
  convolution_param {
    num_output: 256
    pad: 2
    kernel_size: 5
    group: 2
  }
}
layer {
  name: "relu2"
  type: "ReLU"
  bottom: "conv2"
  top: "conv2"
}
layer {
  name: "pool2"
  type: "Pooling"
  bottom: "conv2"
  top: "pool2"
  pooling_param {
    pool: MAX
    kernel_size: 3
    stride: 2
  }
}
layer {
  name: "norm2"
  type: "LRN"
  bottom: "pool2"
  top: "norm2"
  lrn_param {
    local_size: 5
    alpha: 0.0001
    beta: 0.75
  }
}
layer {
  name: "conv3"
  type: "Convolution"
  bottom: "norm2"
  top: "conv3"
  convolution_param {
    num_output: 384
    pad: 1
    kernel_size: 3
  }
}
layer {
  name: "relu3"
  type: "ReLU"
  bottom: "conv3"
  top: "conv3"
}
layer {
  name: "conv4"
  type: "Convolution"
  bottom: "conv3"
  top: "conv4"
  convolution_param {
    num_output: 384
    pad: 1
    kernel_size: 3
    group: 2
  }
}
layer {
  name: "relu4"
  type: "ReLU"
  bottom: "conv4"
  top: "conv4"
}
layer {
  name: "conv5"
  type: "Convolution"
  bottom: "conv4"
  top: "conv5"
  convolution_param {
    num_output: 256
    pad: 1
    kernel_size: 3
    group: 2
  }
}
layer {
  name: "relu5"
  type: "ReLU"
  bottom: "conv5"
  top: "conv5"
}
layer {
  name: "pool5"
  type: "Pooling"
  bottom: "conv5"
  top: "pool5"
  pooling_param {
    pool: MAX
    kernel_size: 3
    stride: 2
  }
}
layer {
  name: "fc6"
  type: "InnerProduct"
  bottom: "pool5"
  top: "fc6"
  inner_product_param {
    num_output: 4096
  }
}
layer {
  name: "relu6"
  type: "ReLU"
  bottom: "fc6"
  top: "fc6"
}
layer {
  name: "drop6"
  type: "Dropout"
  bottom: "fc6"
  top: "fc6"
  dropout_param {
    dropout_ratio: 0.5
  }
}
layer {
  name: "fc7"
  type: "InnerProduct"
  bottom: "fc6"
  top: "fc7"
  inner_product_param {
    num_output: 4096
  }
}
layer {
  name: "relu7"
  type: "ReLU"
  bottom: "fc7"
  top: "fc7"
}
layer {
  name: "drop7"
  type: "Dropout"
  bottom: "fc7"
  top: "fc7"
  dropout_param {
    dropout_ratio: 0.5
  }
}
layer {
  name: "fc8"
  type: "InnerProduct"
  bottom: "fc7"
  top: "fc8"
  inner_product_param {
    num_output: 1000
  }
}
layer {
  name: "prob"
  type: "Softmax"
  bottom: "fc8"
  top: "prob"
}
I0924 03:49:55.317533  8943 layer_factory.hpp:77] Creating layer data
I0924 03:49:55.317550  8943 net.cpp:91] Creating Layer data
I0924 03:49:55.317561  8943 net.cpp:399] data -> data
I0924 03:49:55.316447  8941 upgrade_proto.cpp:66] Attempting to upgrade input file specified using deprecated input fields: /home/peifeng/work/run/storm102/data/workers/d4cd733d-a9bd-4741-9269-d7ae04dc01f6/tmp/cvld4282940463972774233/s2vt.words_to_preds.prototxt
I0924 03:49:55.317602  8941 upgrade_proto.cpp:69] Successfully upgraded file specified using deprecated input fields.
W0924 03:49:55.317610  8941 upgrade_proto.cpp:71] Note that future Caffe releases will only support input layers and not input fields.
I0924 03:49:55.317888  8941 net.cpp:49] Initializing net from parameters: 
name: "s2vt:features_to_lstm"
state {
  phase: TEST
}
layer {
  name: "input"
  type: "Input"
  top: "frames_fc7"
  top: "cont_sentence"
  top: "input_sentence"
  top: "stage_indicator"
  input_param {
    shape {
      dim: 1
      dim: 4096
    }
    shape {
      dim: 1
      dim: 1
    }
    shape {
      dim: 1
      dim: 1
    }
    shape {
      dim: 1
      dim: 1
    }
  }
}
layer {
  name: "embed_encoder"
  type: "InnerProduct"
  bottom: "frames_fc7"
  top: "embedded_in_frames"
  param {
    lr_mult: 1
    decay_mult: 1
  }
  param {
    lr_mult: 2
    decay_mult: 0
  }
  inner_product_param {
    num_output: 500
    weight_filler {
      type: "xavier"
    }
    bias_filler {
      type: "constant"
      value: 0.2
    }
  }
}
layer {
  name: "reshape_frames"
  type: "Reshape"
  bottom: "embedded_in_frames"
  top: "embedded_input_frames"
  reshape_param {
    shape {
      dim: 1
      dim: 1
      dim: 500
    }
  }
}
layer {
  name: "reshape_stage_indicator"
  type: "Reshape"
  bottom: "stage_indicator"
  top: "reshaped_stage_indicator"
  reshape_param {
    shape {
      dim: 1
      dim: 1
      dim: 1
    }
  }
}
layer {
  name: "embedding"
  type: "Embed"
  bottom: "input_sentence"
  top: "embedded_input_sentence"
  param {
    lr_mult: 1
  }
  embed_param {
    num_output: 500
    input_dim: 46168
    bias_term: false
    weight_filler {
      type: "uniform"
      min: -0.08
      max: 0.08
    }
  }
}
layer {
  name: "lstm1"
  type: "LSTM"
  bottom: "embedded_input_frames"
  bottom: "cont_sentence"
  top: "lstm1"
  recurrent_param {
    num_output: 1000
    weight_filler {
      type: "uniform"
      min: -0.08
      max: 0.08
    }
    bias_filler {
      type: "constant"
      value: 0
    }
  }
}
layer {
  name: "concat"
  type: "Concat"
  bottom: "lstm1"
  bottom: "embedded_input_sentence"
  bottom: "reshaped_stage_indicator"
  top: "lstm1_video_sequence"
  concat_param {
    concat_dim: 2
  }
}
layer {
  name: "lstm2"
  type: "LSTM"
  bottom: "lstm1_video_sequence"
  bottom: "cont_sentence"
  top: "lstm2"
  recurrent_param {
    num_output: 1000
    weight_filler {
      type: "uniform"
      min: -0.08
      max: 0.08
    }
    bias_filler {
      type: "constant"
      value: 0
    }
  }
}
layer {
  name: "predict"
  type: "InnerProduct"
  bottom: "lstm2"
  top: "predict"
  param {
    lr_mult: 1
    decay_mult: 1
  }
  param {
    lr_mult: 2
    decay_mult: 0
  }
  inner_product_param {
    num_output: 46168
    weight_filler {
      type: "uniform"
      min: -0.08
      max: 0.08
    }
    bias_filler {
      type: "constant"
      value: 0
    }
    axis: 2
  }
}
layer {
  name: "probs"
  type: "Softmax"
  bottom: "predict"
  top: "probs"
  softmax_param {
    axis: 2
  }
}
I0924 03:49:55.318003  8941 layer_factory.hpp:77] Creating layer input
I0924 03:49:55.318020  8941 net.cpp:91] Creating Layer input
I0924 03:49:55.318032  8941 net.cpp:399] input -> frames_fc7
I0924 03:49:55.318049  8941 net.cpp:399] input -> cont_sentence
I0924 03:49:55.318065  8941 net.cpp:399] input -> input_sentence
I0924 03:49:55.318084  8941 net.cpp:399] input -> stage_indicator
I0924 03:49:56.277930  8921 net.cpp:141] Setting up input
I0924 03:49:56.278134  8921 net.cpp:148] Top shape: 1 4096 (4096)
I0924 03:49:56.278146  8921 net.cpp:148] Top shape: 1 1 (1)
I0924 03:49:56.278151  8921 net.cpp:148] Top shape: 1 1 (1)
I0924 03:49:56.278157  8921 net.cpp:148] Top shape: 1 1 (1)
I0924 03:49:56.278162  8921 net.cpp:156] Memory required for data: 16396
I0924 03:49:56.278180  8921 layer_factory.hpp:77] Creating layer cont_sentence_input_1_split
I0924 03:49:56.278174  8943 net.cpp:141] Setting up data
I0924 03:49:56.278209  8921 net.cpp:91] Creating Layer cont_sentence_input_1_split
I0924 03:49:56.278220  8921 net.cpp:425] cont_sentence_input_1_split <- cont_sentence
I0924 03:49:56.278223  8943 net.cpp:148] Top shape: 10 3 227 227 (1545870)
I0924 03:49:56.278234  8943 net.cpp:156] Memory required for data: 6183480
I0924 03:49:56.278240  8921 net.cpp:399] cont_sentence_input_1_split -> cont_sentence_input_1_split_0
I0924 03:49:56.278252  8943 layer_factory.hpp:77] Creating layer conv1
I0924 03:49:56.278255  8921 net.cpp:399] cont_sentence_input_1_split -> cont_sentence_input_1_split_1
I0924 03:49:56.278313  8943 net.cpp:91] Creating Layer conv1
I0924 03:49:56.278329  8943 net.cpp:425] conv1 <- data
I0924 03:49:56.278354  8943 net.cpp:399] conv1 -> conv1
I0924 03:49:56.278373  8907 net.cpp:141] Setting up input
I0924 03:49:56.278393  8907 net.cpp:148] Top shape: 1 4096 (4096)
I0924 03:49:56.278401  8907 net.cpp:148] Top shape: 1 1 (1)
I0924 03:49:56.278408  8907 net.cpp:148] Top shape: 1 1 (1)
I0924 03:49:56.278412  8907 net.cpp:148] Top shape: 1 1 (1)
I0924 03:49:56.278416  8907 net.cpp:156] Memory required for data: 16396
I0924 03:49:56.278422  8907 layer_factory.hpp:77] Creating layer cont_sentence_input_1_split
I0924 03:49:56.278434  8907 net.cpp:91] Creating Layer cont_sentence_input_1_split
I0924 03:49:56.278440  8907 net.cpp:425] cont_sentence_input_1_split <- cont_sentence
I0924 03:49:56.278450  8907 net.cpp:399] cont_sentence_input_1_split -> cont_sentence_input_1_split_0
I0924 03:49:56.278478  8907 net.cpp:399] cont_sentence_input_1_split -> cont_sentence_input_1_split_1
I0924 03:49:56.278518  8921 net.cpp:141] Setting up cont_sentence_input_1_split
I0924 03:49:56.278533  8921 net.cpp:148] Top shape: 1 1 (1)
I0924 03:49:56.278539  8921 net.cpp:148] Top shape: 1 1 (1)
I0924 03:49:56.278543  8921 net.cpp:156] Memory required for data: 16404
I0924 03:49:56.278549  8921 layer_factory.hpp:77] Creating layer embed_encoder
I0924 03:49:56.278571  8921 net.cpp:91] Creating Layer embed_encoder
I0924 03:49:56.278576  8921 net.cpp:425] embed_encoder <- frames_fc7
I0924 03:49:56.278592  8921 net.cpp:399] embed_encoder -> embedded_in_frames
I0924 03:49:56.278808  8913 net.cpp:141] Setting up input
I0924 03:49:56.278836  8913 net.cpp:148] Top shape: 1 4096 (4096)
I0924 03:49:56.278849  8913 net.cpp:148] Top shape: 1 1 (1)
I0924 03:49:56.278861  8913 net.cpp:148] Top shape: 1 1 (1)
I0924 03:49:56.278872  8913 net.cpp:148] Top shape: 1 1 (1)
I0924 03:49:56.278882  8913 net.cpp:156] Memory required for data: 16396
I0924 03:49:56.278882  8907 net.cpp:141] Setting up cont_sentence_input_1_split
I0924 03:49:56.278892  8913 layer_factory.hpp:77] Creating layer cont_sentence_input_1_split
I0924 03:49:56.278895  8907 net.cpp:148] Top shape: 1 1 (1)
I0924 03:49:56.278903  8907 net.cpp:148] Top shape: 1 1 (1)
I0924 03:49:56.278908  8907 net.cpp:156] Memory required for data: 16404
I0924 03:49:56.278908  8913 net.cpp:91] Creating Layer cont_sentence_input_1_split
I0924 03:49:56.278913  8907 layer_factory.hpp:77] Creating layer embed_encoder
I0924 03:49:56.278918  8913 net.cpp:425] cont_sentence_input_1_split <- cont_sentence
I0924 03:49:56.278933  8907 net.cpp:91] Creating Layer embed_encoder
I0924 03:49:56.278934  8913 net.cpp:399] cont_sentence_input_1_split -> cont_sentence_input_1_split_0
I0924 03:49:56.278949  8907 net.cpp:425] embed_encoder <- frames_fc7
I0924 03:49:56.278964  8907 net.cpp:399] embed_encoder -> embedded_in_frames
I0924 03:49:56.278969  8913 net.cpp:399] cont_sentence_input_1_split -> cont_sentence_input_1_split_1
I0924 03:49:56.279052  8941 net.cpp:141] Setting up input
I0924 03:49:56.279067  8941 net.cpp:148] Top shape: 1 4096 (4096)
I0924 03:49:56.279073  8941 net.cpp:148] Top shape: 1 1 (1)
I0924 03:49:56.279079  8941 net.cpp:148] Top shape: 1 1 (1)
I0924 03:49:56.279084  8941 net.cpp:148] Top shape: 1 1 (1)
I0924 03:49:56.279088  8941 net.cpp:156] Memory required for data: 16396
I0924 03:49:56.279095  8941 layer_factory.hpp:77] Creating layer cont_sentence_input_1_split
I0924 03:49:56.279106  8941 net.cpp:91] Creating Layer cont_sentence_input_1_split
I0924 03:49:56.279112  8941 net.cpp:425] cont_sentence_input_1_split <- cont_sentence
I0924 03:49:56.279122  8941 net.cpp:399] cont_sentence_input_1_split -> cont_sentence_input_1_split_0
I0924 03:49:56.279134  8941 net.cpp:399] cont_sentence_input_1_split -> cont_sentence_input_1_split_1
I0924 03:49:56.279176  8941 net.cpp:141] Setting up cont_sentence_input_1_split
I0924 03:49:56.279186  8941 net.cpp:148] Top shape: 1 1 (1)
I0924 03:49:56.279192  8941 net.cpp:148] Top shape: 1 1 (1)
I0924 03:49:56.279197  8941 net.cpp:156] Memory required for data: 16404
I0924 03:49:56.279201  8941 layer_factory.hpp:77] Creating layer embed_encoder
I0924 03:49:56.279213  8941 net.cpp:91] Creating Layer embed_encoder
I0924 03:49:56.279218  8941 net.cpp:425] embed_encoder <- frames_fc7
I0924 03:49:56.279228  8941 net.cpp:399] embed_encoder -> embedded_in_frames
I0924 03:49:56.291582  8925 net.cpp:141] Setting up input
I0924 03:49:56.291630  8925 net.cpp:148] Top shape: 1 4096 (4096)
I0924 03:49:56.291638  8925 net.cpp:148] Top shape: 1 1 (1)
I0924 03:49:56.291646  8925 net.cpp:148] Top shape: 1 1 (1)
I0924 03:49:56.291651  8925 net.cpp:148] Top shape: 1 1 (1)
I0924 03:49:56.291656  8925 net.cpp:156] Memory required for data: 16396
I0924 03:49:56.291664  8925 layer_factory.hpp:77] Creating layer cont_sentence_input_1_split
I0924 03:49:56.291683  8925 net.cpp:91] Creating Layer cont_sentence_input_1_split
I0924 03:49:56.291692  8925 net.cpp:425] cont_sentence_input_1_split <- cont_sentence
I0924 03:49:56.291709  8925 net.cpp:399] cont_sentence_input_1_split -> cont_sentence_input_1_split_0
I0924 03:49:56.291690  8951 net.cpp:141] Setting up input
I0924 03:49:56.291724  8925 net.cpp:399] cont_sentence_input_1_split -> cont_sentence_input_1_split_1
I0924 03:49:56.291738  8951 net.cpp:148] Top shape: 1 4096 (4096)
I0924 03:49:56.291746  8951 net.cpp:148] Top shape: 1 1 (1)
I0924 03:49:56.291752  8951 net.cpp:148] Top shape: 1 1 (1)
I0924 03:49:56.291749  8909 net.cpp:141] Setting up input
I0924 03:49:56.291759  8951 net.cpp:148] Top shape: 1 1 (1)
I0924 03:49:56.291779  8951 net.cpp:156] Memory required for data: 16396
I0924 03:49:56.291779  8909 net.cpp:148] Top shape: 1 4096 (4096)
I0924 03:49:56.291800  8951 layer_factory.hpp:77] Creating layer cont_sentence_input_1_split
I0924 03:49:56.291803  8909 net.cpp:148] Top shape: 1 1 (1)
I0924 03:49:56.291811  8909 net.cpp:148] Top shape: 1 1 (1)
I0924 03:49:56.291817  8909 net.cpp:148] Top shape: 1 1 (1)
I0924 03:49:56.291821  8951 net.cpp:91] Creating Layer cont_sentence_input_1_split
I0924 03:49:56.291821  8909 net.cpp:156] Memory required for data: 16396
I0924 03:49:56.291836  8951 net.cpp:425] cont_sentence_input_1_split <- cont_sentence
I0924 03:49:56.291841  8909 layer_factory.hpp:77] Creating layer cont_sentence_input_1_split
I0924 03:49:56.291849  8951 net.cpp:399] cont_sentence_input_1_split -> cont_sentence_input_1_split_0
I0924 03:49:56.291894  8909 net.cpp:91] Creating Layer cont_sentence_input_1_split
I0924 03:49:56.291908  8909 net.cpp:425] cont_sentence_input_1_split <- cont_sentence
I0924 03:49:56.291919  8909 net.cpp:399] cont_sentence_input_1_split -> cont_sentence_input_1_split_0
I0924 03:49:56.291932  8909 net.cpp:399] cont_sentence_input_1_split -> cont_sentence_input_1_split_1
I0924 03:49:56.294664  8951 net.cpp:399] cont_sentence_input_1_split -> cont_sentence_input_1_split_1
I0924 03:49:56.297472  8903 net.cpp:141] Setting up input
I0924 03:49:56.297543  8903 net.cpp:148] Top shape: 1 4096 (4096)
I0924 03:49:56.297559  8903 net.cpp:148] Top shape: 1 1 (1)
I0924 03:49:56.297571  8903 net.cpp:148] Top shape: 1 1 (1)
I0924 03:49:56.297581  8903 net.cpp:148] Top shape: 1 1 (1)
I0924 03:49:56.297590  8903 net.cpp:156] Memory required for data: 16396
I0924 03:49:56.297607  8903 layer_factory.hpp:77] Creating layer cont_sentence_input_1_split
I0924 03:49:56.297633  8903 net.cpp:91] Creating Layer cont_sentence_input_1_split
I0924 03:49:56.297646  8903 net.cpp:425] cont_sentence_input_1_split <- cont_sentence
I0924 03:49:56.297664  8903 net.cpp:399] cont_sentence_input_1_split -> cont_sentence_input_1_split_0
I0924 03:49:56.297693  8903 net.cpp:399] cont_sentence_input_1_split -> cont_sentence_input_1_split_1
I0924 03:49:56.297801  8903 net.cpp:141] Setting up cont_sentence_input_1_split
I0924 03:49:56.297824  8903 net.cpp:148] Top shape: 1 1 (1)
I0924 03:49:56.297840  8903 net.cpp:148] Top shape: 1 1 (1)
I0924 03:49:56.297852  8903 net.cpp:156] Memory required for data: 16404
I0924 03:49:56.297864  8903 layer_factory.hpp:77] Creating layer embed_encoder
I0924 03:49:56.297896  8903 net.cpp:91] Creating Layer embed_encoder
I0924 03:49:56.297910  8903 net.cpp:425] embed_encoder <- frames_fc7
I0924 03:49:56.297935  8903 net.cpp:399] embed_encoder -> embedded_in_frames
I0924 03:49:56.305754  8951 net.cpp:141] Setting up cont_sentence_input_1_split
I0924 03:49:56.305801  8951 net.cpp:148] Top shape: 1 1 (1)
I0924 03:49:56.305814  8951 net.cpp:148] Top shape: 1 1 (1)
I0924 03:49:56.305824  8951 net.cpp:156] Memory required for data: 16404
I0924 03:49:56.305835  8951 layer_factory.hpp:77] Creating layer embed_encoder
I0924 03:49:56.305871  8951 net.cpp:91] Creating Layer embed_encoder
I0924 03:49:56.305881  8951 net.cpp:425] embed_encoder <- frames_fc7
I0924 03:49:56.305898  8951 net.cpp:399] embed_encoder -> embedded_in_frames
I0924 03:49:56.312896  8913 net.cpp:141] Setting up cont_sentence_input_1_split
I0924 03:49:56.312944  8913 net.cpp:148] Top shape: 1 1 (1)
I0924 03:49:56.312953  8913 net.cpp:148] Top shape: 1 1 (1)
I0924 03:49:56.312958  8913 net.cpp:156] Memory required for data: 16404
I0924 03:49:56.312968  8913 layer_factory.hpp:77] Creating layer embed_encoder
I0924 03:49:56.313000  8913 net.cpp:91] Creating Layer embed_encoder
I0924 03:49:56.313009  8913 net.cpp:425] embed_encoder <- frames_fc7
I0924 03:49:56.313031  8913 net.cpp:399] embed_encoder -> embedded_in_frames
I0924 03:49:56.313038  8909 net.cpp:141] Setting up cont_sentence_input_1_split
I0924 03:49:56.313056  8909 net.cpp:148] Top shape: 1 1 (1)
I0924 03:49:56.313067  8909 net.cpp:148] Top shape: 1 1 (1)
I0924 03:49:56.313076  8909 net.cpp:156] Memory required for data: 16404
I0924 03:49:56.313086  8909 layer_factory.hpp:77] Creating layer embed_encoder
I0924 03:49:56.313110  8909 net.cpp:91] Creating Layer embed_encoder
I0924 03:49:56.313122  8909 net.cpp:425] embed_encoder <- frames_fc7
I0924 03:49:56.313136  8909 net.cpp:399] embed_encoder -> embedded_in_frames
I0924 03:49:56.313215  8925 net.cpp:141] Setting up cont_sentence_input_1_split
I0924 03:49:56.313257  8925 net.cpp:148] Top shape: 1 1 (1)
I0924 03:49:56.313269  8925 net.cpp:148] Top shape: 1 1 (1)
I0924 03:49:56.313277  8925 net.cpp:156] Memory required for data: 16404
I0924 03:49:56.313288  8925 layer_factory.hpp:77] Creating layer embed_encoder
I0924 03:49:56.313314  8925 net.cpp:91] Creating Layer embed_encoder
I0924 03:49:56.313325  8925 net.cpp:425] embed_encoder <- frames_fc7
I0924 03:49:56.313341  8925 net.cpp:399] embed_encoder -> embedded_in_frames
I0924 03:49:56.335088  8941 net.cpp:141] Setting up embed_encoder
I0924 03:49:56.335144  8941 net.cpp:148] Top shape: 1 500 (500)
I0924 03:49:56.335155  8941 net.cpp:156] Memory required for data: 18404
I0924 03:49:56.335191  8941 layer_factory.hpp:77] Creating layer reshape_frames
I0924 03:49:56.335232  8941 net.cpp:91] Creating Layer reshape_frames
I0924 03:49:56.335243  8941 net.cpp:425] reshape_frames <- embedded_in_frames
I0924 03:49:56.335260  8941 net.cpp:399] reshape_frames -> embedded_input_frames
I0924 03:49:56.335331  8941 net.cpp:141] Setting up reshape_frames
I0924 03:49:56.335345  8941 net.cpp:148] Top shape: 1 1 500 (500)
I0924 03:49:56.335352  8941 net.cpp:156] Memory required for data: 20404
I0924 03:49:56.335362  8941 layer_factory.hpp:77] Creating layer reshape_stage_indicator
I0924 03:49:56.335381  8941 net.cpp:91] Creating Layer reshape_stage_indicator
I0924 03:49:56.335391  8941 net.cpp:425] reshape_stage_indicator <- stage_indicator
I0924 03:49:56.335404  8941 net.cpp:399] reshape_stage_indicator -> reshaped_stage_indicator
I0924 03:49:56.335463  8941 net.cpp:141] Setting up reshape_stage_indicator
I0924 03:49:56.335479  8941 net.cpp:148] Top shape: 1 1 1 (1)
I0924 03:49:56.335486  8941 net.cpp:156] Memory required for data: 20408
I0924 03:49:56.335495  8941 layer_factory.hpp:77] Creating layer embedding
I0924 03:49:56.335517  8941 net.cpp:91] Creating Layer embedding
I0924 03:49:56.335525  8941 net.cpp:425] embedding <- input_sentence
I0924 03:49:56.335539  8941 net.cpp:399] embedding -> embedded_input_sentence
I0924 03:49:56.384783  8921 net.cpp:141] Setting up embed_encoder
I0924 03:49:56.384837  8921 net.cpp:148] Top shape: 1 500 (500)
I0924 03:49:56.384843  8921 net.cpp:156] Memory required for data: 18404
I0924 03:49:56.384871  8921 layer_factory.hpp:77] Creating layer reshape_frames
I0924 03:49:56.384888  8921 net.cpp:91] Creating Layer reshape_frames
I0924 03:49:56.384896  8921 net.cpp:425] reshape_frames <- embedded_in_frames
I0924 03:49:56.384908  8921 net.cpp:399] reshape_frames -> embedded_input_frames
I0924 03:49:56.385390  8907 net.cpp:141] Setting up embed_encoder
I0924 03:49:56.385429  8907 net.cpp:148] Top shape: 1 500 (500)
I0924 03:49:56.385438  8907 net.cpp:156] Memory required for data: 18404
I0924 03:49:56.385462  8907 layer_factory.hpp:77] Creating layer reshape_frames
I0924 03:49:56.385476  8907 net.cpp:91] Creating Layer reshape_frames
I0924 03:49:56.385484  8907 net.cpp:425] reshape_frames <- embedded_in_frames
I0924 03:49:56.385495  8907 net.cpp:399] reshape_frames -> embedded_input_frames
I0924 03:49:56.385613  8921 net.cpp:141] Setting up reshape_frames
I0924 03:49:56.385632  8921 net.cpp:148] Top shape: 1 1 500 (500)
I0924 03:49:56.385637  8921 net.cpp:156] Memory required for data: 20404
I0924 03:49:56.385643  8921 layer_factory.hpp:77] Creating layer reshape_stage_indicator
I0924 03:49:56.385663  8921 net.cpp:91] Creating Layer reshape_stage_indicator
I0924 03:49:56.385669  8921 net.cpp:425] reshape_stage_indicator <- stage_indicator
I0924 03:49:56.385679  8921 net.cpp:399] reshape_stage_indicator -> reshaped_stage_indicator
I0924 03:49:56.386024  8907 net.cpp:141] Setting up reshape_frames
I0924 03:49:56.386037  8907 net.cpp:148] Top shape: 1 1 500 (500)
I0924 03:49:56.386042  8907 net.cpp:156] Memory required for data: 20404
I0924 03:49:56.386047  8907 layer_factory.hpp:77] Creating layer reshape_stage_indicator
I0924 03:49:56.386061  8907 net.cpp:91] Creating Layer reshape_stage_indicator
I0924 03:49:56.386066  8907 net.cpp:425] reshape_stage_indicator <- stage_indicator
I0924 03:49:56.386075  8907 net.cpp:399] reshape_stage_indicator -> reshaped_stage_indicator
I0924 03:49:56.386086  8951 net.cpp:141] Setting up embed_encoder
I0924 03:49:56.386119  8921 net.cpp:141] Setting up reshape_stage_indicator
I0924 03:49:56.386123  8951 net.cpp:148] Top shape: 1 500 (500)
I0924 03:49:56.386137  8921 net.cpp:148] Top shape: 1 1 1 (1)
I0924 03:49:56.386142  8951 net.cpp:156] Memory required for data: 18404
I0924 03:49:56.386142  8921 net.cpp:156] Memory required for data: 20408
I0924 03:49:56.386158  8921 layer_factory.hpp:77] Creating layer embedding
I0924 03:49:56.386167  8951 layer_factory.hpp:77] Creating layer reshape_frames
I0924 03:49:56.386173  8921 net.cpp:91] Creating Layer embedding
I0924 03:49:56.386179  8921 net.cpp:425] embedding <- input_sentence
I0924 03:49:56.386184  8951 net.cpp:91] Creating Layer reshape_frames
I0924 03:49:56.386193  8951 net.cpp:425] reshape_frames <- embedded_in_frames
I0924 03:49:56.386193  8921 net.cpp:399] embedding -> embedded_input_sentence
I0924 03:49:56.386206  8951 net.cpp:399] reshape_frames -> embedded_input_frames
I0924 03:49:56.386292  8907 net.cpp:141] Setting up reshape_stage_indicator
I0924 03:49:56.386306  8907 net.cpp:148] Top shape: 1 1 1 (1)
I0924 03:49:56.386309  8907 net.cpp:156] Memory required for data: 20408
I0924 03:49:56.386315  8907 layer_factory.hpp:77] Creating layer embedding
I0924 03:49:56.386327  8907 net.cpp:91] Creating Layer embedding
I0924 03:49:56.386332  8907 net.cpp:425] embedding <- input_sentence
I0924 03:49:56.386339  8907 net.cpp:399] embedding -> embedded_input_sentence
I0924 03:49:56.386441  8913 net.cpp:141] Setting up embed_encoder
I0924 03:49:56.386456  8913 net.cpp:148] Top shape: 1 500 (500)
I0924 03:49:56.386461  8913 net.cpp:156] Memory required for data: 18404
I0924 03:49:56.386477  8913 layer_factory.hpp:77] Creating layer reshape_frames
I0924 03:49:56.386489  8913 net.cpp:91] Creating Layer reshape_frames
I0924 03:49:56.386495  8913 net.cpp:425] reshape_frames <- embedded_in_frames
I0924 03:49:56.386504  8913 net.cpp:399] reshape_frames -> embedded_input_frames
I0924 03:49:56.386512  8951 net.cpp:141] Setting up reshape_frames
I0924 03:49:56.386533  8951 net.cpp:148] Top shape: 1 1 500 (500)
I0924 03:49:56.386543  8951 net.cpp:156] Memory required for data: 20404
I0924 03:49:56.386553  8951 layer_factory.hpp:77] Creating layer reshape_stage_indicator
I0924 03:49:56.386564  8903 net.cpp:141] Setting up embed_encoder
I0924 03:49:56.386574  8951 net.cpp:91] Creating Layer reshape_stage_indicator
I0924 03:49:56.386585  8951 net.cpp:425] reshape_stage_indicator <- stage_indicator
I0924 03:49:56.386587  8903 net.cpp:148] Top shape: 1 500 (500)
I0924 03:49:56.386610  8903 net.cpp:156] Memory required for data: 18404
I0924 03:49:56.386620  8951 net.cpp:399] reshape_stage_indicator -> reshaped_stage_indicator
I0924 03:49:56.386636  8903 layer_factory.hpp:77] Creating layer reshape_frames
I0924 03:49:56.386642  8909 net.cpp:141] Setting up embed_encoder
I0924 03:49:56.386653  8903 net.cpp:91] Creating Layer reshape_frames
I0924 03:49:56.386664  8903 net.cpp:425] reshape_frames <- embedded_in_frames
I0924 03:49:56.386667  8909 net.cpp:148] Top shape: 1 500 (500)
I0924 03:49:56.386677  8909 net.cpp:156] Memory required for data: 18404
I0924 03:49:56.386678  8903 net.cpp:399] reshape_frames -> embedded_input_frames
I0924 03:49:56.386709  8909 layer_factory.hpp:77] Creating layer reshape_frames
I0924 03:49:56.386740  8909 net.cpp:91] Creating Layer reshape_frames
I0924 03:49:56.386751  8909 net.cpp:425] reshape_frames <- embedded_in_frames
I0924 03:49:56.386765  8909 net.cpp:399] reshape_frames -> embedded_input_frames
I0924 03:49:56.435343  8913 net.cpp:141] Setting up reshape_frames
I0924 03:49:56.435420  8913 net.cpp:148] Top shape: 1 1 500 (500)
I0924 03:49:56.435433  8913 net.cpp:156] Memory required for data: 20404
I0924 03:49:56.435451  8913 layer_factory.hpp:77] Creating layer reshape_stage_indicator
I0924 03:49:56.435444  8951 net.cpp:141] Setting up reshape_stage_indicator
I0924 03:49:56.435482  8951 net.cpp:148] Top shape: 1 1 1 (1)
I0924 03:49:56.435489  8951 net.cpp:156] Memory required for data: 20408
I0924 03:49:56.435487  8913 net.cpp:91] Creating Layer reshape_stage_indicator
I0924 03:49:56.435500  8951 layer_factory.hpp:77] Creating layer embedding
I0924 03:49:56.435504  8913 net.cpp:425] reshape_stage_indicator <- stage_indicator
I0924 03:49:56.435523  8951 net.cpp:91] Creating Layer embedding
I0924 03:49:56.435531  8951 net.cpp:425] embedding <- input_sentence
I0924 03:49:56.435544  8951 net.cpp:399] embedding -> embedded_input_sentence
I0924 03:49:56.435572  8913 net.cpp:399] reshape_stage_indicator -> reshaped_stage_indicator
I0924 03:49:56.478349  8903 net.cpp:141] Setting up reshape_frames
I0924 03:49:56.478401  8903 net.cpp:148] Top shape: 1 1 500 (500)
I0924 03:49:56.478410  8903 net.cpp:156] Memory required for data: 20404
I0924 03:49:56.478421  8903 layer_factory.hpp:77] Creating layer reshape_stage_indicator
I0924 03:49:56.478446  8903 net.cpp:91] Creating Layer reshape_stage_indicator
I0924 03:49:56.478457  8903 net.cpp:425] reshape_stage_indicator <- stage_indicator
I0924 03:49:56.478474  8903 net.cpp:399] reshape_stage_indicator -> reshaped_stage_indicator
I0924 03:49:56.478544  8903 net.cpp:141] Setting up reshape_stage_indicator
I0924 03:49:56.478559  8903 net.cpp:148] Top shape: 1 1 1 (1)
I0924 03:49:56.478565  8903 net.cpp:156] Memory required for data: 20408
I0924 03:49:56.478572  8903 layer_factory.hpp:77] Creating layer embedding
I0924 03:49:56.478591  8903 net.cpp:91] Creating Layer embedding
I0924 03:49:56.478612  8903 net.cpp:425] embedding <- input_sentence
I0924 03:49:56.478627  8903 net.cpp:399] embedding -> embedded_input_sentence
I0924 03:49:56.478781  8909 net.cpp:141] Setting up reshape_frames
I0924 03:49:56.478826  8909 net.cpp:148] Top shape: 1 1 500 (500)
I0924 03:49:56.478835  8909 net.cpp:156] Memory required for data: 20404
I0924 03:49:56.478852  8909 layer_factory.hpp:77] Creating layer reshape_stage_indicator
I0924 03:49:56.478878  8909 net.cpp:91] Creating Layer reshape_stage_indicator
I0924 03:49:56.478889  8909 net.cpp:425] reshape_stage_indicator <- stage_indicator
I0924 03:49:56.478910  8909 net.cpp:399] reshape_stage_indicator -> reshaped_stage_indicator
I0924 03:49:56.478981  8909 net.cpp:141] Setting up reshape_stage_indicator
I0924 03:49:56.478996  8909 net.cpp:148] Top shape: 1 1 1 (1)
I0924 03:49:56.479002  8909 net.cpp:156] Memory required for data: 20408
I0924 03:49:56.479010  8909 layer_factory.hpp:77] Creating layer embedding
I0924 03:49:56.479032  8909 net.cpp:91] Creating Layer embedding
I0924 03:49:56.479039  8909 net.cpp:425] embedding <- input_sentence
I0924 03:49:56.479065  8909 net.cpp:399] embedding -> embedded_input_sentence
I0924 03:49:56.537118  8913 net.cpp:141] Setting up reshape_stage_indicator
I0924 03:49:56.537195  8913 net.cpp:148] Top shape: 1 1 1 (1)
I0924 03:49:56.537206  8913 net.cpp:156] Memory required for data: 20408
I0924 03:49:56.537220  8913 layer_factory.hpp:77] Creating layer embedding
I0924 03:49:56.537251  8913 net.cpp:91] Creating Layer embedding
I0924 03:49:56.537264  8913 net.cpp:425] embedding <- input_sentence
I0924 03:49:56.537282  8913 net.cpp:399] embedding -> embedded_input_sentence
I0924 03:49:56.639720  8925 net.cpp:141] Setting up embed_encoder
I0924 03:49:56.639793  8925 net.cpp:148] Top shape: 1 500 (500)
I0924 03:49:56.639802  8925 net.cpp:156] Memory required for data: 18404
I0924 03:49:56.639832  8925 layer_factory.hpp:77] Creating layer reshape_frames
I0924 03:49:56.639854  8925 net.cpp:91] Creating Layer reshape_frames
I0924 03:49:56.639865  8925 net.cpp:425] reshape_frames <- embedded_in_frames
I0924 03:49:56.639881  8925 net.cpp:399] reshape_frames -> embedded_input_frames
I0924 03:49:56.639943  8925 net.cpp:141] Setting up reshape_frames
I0924 03:49:56.639955  8925 net.cpp:148] Top shape: 1 1 500 (500)
I0924 03:49:56.639961  8925 net.cpp:156] Memory required for data: 20404
I0924 03:49:56.639969  8925 layer_factory.hpp:77] Creating layer reshape_stage_indicator
I0924 03:49:56.639986  8925 net.cpp:91] Creating Layer reshape_stage_indicator
I0924 03:49:56.639993  8925 net.cpp:425] reshape_stage_indicator <- stage_indicator
I0924 03:49:56.640005  8925 net.cpp:399] reshape_stage_indicator -> reshaped_stage_indicator
I0924 03:49:56.640056  8925 net.cpp:141] Setting up reshape_stage_indicator
I0924 03:49:56.640069  8925 net.cpp:148] Top shape: 1 1 1 (1)
I0924 03:49:56.640075  8925 net.cpp:156] Memory required for data: 20408
I0924 03:49:56.640084  8925 layer_factory.hpp:77] Creating layer embedding
I0924 03:49:56.640100  8925 net.cpp:91] Creating Layer embedding
I0924 03:49:56.640107  8925 net.cpp:425] embedding <- input_sentence
I0924 03:49:56.640120  8925 net.cpp:399] embedding -> embedded_input_sentence
I0924 03:49:56.743095  8941 net.cpp:141] Setting up embedding
I0924 03:49:56.743145  8921 net.cpp:141] Setting up embedding
I0924 03:49:56.743157  8941 net.cpp:148] Top shape: 1 1 500 (500)
I0924 03:49:56.743166  8941 net.cpp:156] Memory required for data: 22408
I0924 03:49:56.743170  8921 net.cpp:148] Top shape: 1 1 500 (500)
I0924 03:49:56.743180  8921 net.cpp:156] Memory required for data: 22408
I0924 03:49:56.743181  8907 net.cpp:141] Setting up embedding
I0924 03:49:56.743191  8941 layer_factory.hpp:77] Creating layer lstm1
I0924 03:49:56.743203  8921 layer_factory.hpp:77] Creating layer lstm1
I0924 03:49:56.743208  8907 net.cpp:148] Top shape: 1 1 500 (500)
I0924 03:49:56.743216  8907 net.cpp:156] Memory required for data: 22408
I0924 03:49:56.743228  8907 layer_factory.hpp:77] Creating layer lstm1
I0924 03:49:56.743228  8941 net.cpp:91] Creating Layer lstm1
I0924 03:49:56.743240  8907 net.cpp:91] Creating Layer lstm1
I0924 03:49:56.743240  8941 net.cpp:425] lstm1 <- embedded_input_frames
I0924 03:49:56.743238  8921 net.cpp:91] Creating Layer lstm1
…
I0924 03:49:56.743353  8921 recurrent_layer.cpp:20] Initializing recurrent layer: assuming input batch contains 1 timesteps of 1 independent streams.
I0924 03:49:56.743727  8907 net.cpp:49] Initializing net from parameters: 
layer {
  name: "lstm1_"
  type: "Input"
  top: "x"
  top: "cont"
  input_param {
    shape {
      dim: 1
      dim: 1
      dim: 500
    }
    shape {
      dim: 1
      dim: 1
    }
  }
}
layer {
  name: "lstm1_"
  type: "Input"
  top: "c_0"
  top: "h_0"
  input_param {
    shape {
      dim: 1
      dim: 1
      dim: 1000
    }
    shape {
      dim: 1
      dim: 1
      dim: 1000
    }
  }
}
layer {
  name: "lstm1_cont_slice"
  type: "Slice"
  bottom: "cont"
  top: "cont_1"
  slice_param {
    axis: 0
  }
}
layer {
  name: "lstm1_x_transform"
  type: "InnerProduct"
  bottom: "x"
  top: "W_xc_x"
  param {
    name: "W_xc"
  }
  param {
    name: "b_c"
  }
  propagate_down: true
  inner_product_param {
    num_output: 4000
    bias_term: true
    weight_filler {
      type: "uniform"
      min: -0.08
      max: 0.08
    }
    bias_filler {
      type: "constant"
      value: 0
    }
    axis: 2
  }
}
layer {
  name: "lstm1_W_xc_x_slice"
  type: "Slice"
  bottom: "W_xc_x"
  top: "W_xc_x_1"
  slice_param {
    axis: 0
  }
}
layer {
  name: "lstm1_h_conted_0"
  type: "Scale"
  bottom: "h_0"
  bottom: "cont_1"
  top: "h_conted_0"
  scale_param {
    axis: 0
  }
}
layer {
  name: "lstm1_transform_1"
  type: "InnerProduct"
  bottom: "h_conted_0"
  top: "W_hc_h_0"
  param {
    name: "W_hc"
  }
  inner_product_param {
    num_output: 4000
    bias_term: false
    weight_filler {
      type: "uniform"
      min: -0.08
      max: 0.08
    }
    axis: 2
  }
}
layer {
  name: "lstm1_gate_input_1"
  type: "Eltwise"
  bottom: "W_hc_h_0"
  bottom: "W_xc_x_1"
  top: "gate_input_1"
  eltwise_param {
    operation: SUM
  }
}
layer {
  name: "lstm1_unit_1"
  type: "LSTMUnit"
  bottom: "c_0"
  bottom: "gate_input_1"
  bottom: "cont_1"
  top: "c_1"
  top: "h_1"
}
layer {
  name: "lstm1_"
  type: "Split"
  bottom: "c_1"
  top: "c_T"
}
layer {
  name: "lstm1_h_concat"
  type: "Concat"
  bottom: "h_1"
  top: "h"
  concat_param {
    axis: 0
  }
}
layer {
  name: "h_pseudoloss"
  type: "Reduction"
  bottom: "h"
  top: "h_pseudoloss"
  loss_weight: 1
}
I0924 03:49:56.743768  8941 net.cpp:49] Initializing net from parameters: 
layer {
  name: "lstm1_"
  type: "Input"
  top: "x"
  top: "cont"
  input_param {
    shape {
      dim: 1
      dim: 1
      dim: 500
    }
    shape {
      dim: 1
      dim: 1
    }
  }
}
layer {
  name: "lstm1_"
  type: "Input"
  top: "c_0"
  top: "h_0"
  input_param {
    shape {
      dim: 1
      dim: 1
      dim: 1000
    }
    shape {
      dim: 1
      dim: 1
      dim: 1000
    }
  }
}
layer {
  name: "lstm1_cont_slice"
  type: "Slice"
  bottom: "cont"
  top: "cont_1"
  slice_param {
    axis: 0
  }
}
layer {
  name: "lstm1_x_transform"
  type: "InnerProduct"
  bottom: "x"
  top: "W_xc_x"
  param {
    name: "W_xc"
  }
  param {
    name: "b_c"
  }
  propagate_down: true
  inner_product_param {
    num_output: 4000
    bias_term: true
    weight_filler {
      type: "uniform"
      min: -0.08
      max: 0.08
    }
    bias_filler {
      type: "constant"
      value: 0
    }
    axis: 2
  }
}
layer {
  name: "lstm1_W_xc_x_slice"
  type: "Slice"
  bottom: "W_xc_x"
  top: "W_xc_x_1"
  slice_param {
    axis: 0
  }
}
layer {
  name: "lstm1_h_conted_0"
  type: "Scale"
  bottom: "h_0"
  bottom: "cont_1"
  top: "h_conted_0"
  scale_param {
    axis: 0
  }
}
layer {
  name: "lstm1_transform_1"
  type: "InnerProduct"
  bottom: "h_conted_0"
  top: "W_hc_h_0"
  param {
    name: "W_hc"
  }
  inner_product_param {
    num_output: 4000
    bias_term: false
    weight_filler {
      type: "uniform"
      min: -0.08
      max: 0.08
    }
    axis: 2
  }
}
layer {
  name: "lstm1_gate_input_1"
  type: "Eltwise"
  bottom: "W_hc_h_0"
  bottom: "W_xc_x_1"
  top: "gate_input_1"
  eltwise_param {
    operation: SUM
  }
}
layer {
  name: "lstm1_unit_1"
  type: "LSTMUnit"
  bottom: "c_0"
  bottom: "gate_input_1"
  bottom: "cont_1"
  top: "c_1"
  top: "h_1"
}
layer {
  name: "lstm1_"
  type: "Split"
  bottom: "c_1"
  top: "c_T"
}
layer {
  name: "lstm1_h_concat"
  type: "Concat"
  bottom: "h_1"
  top: "h"
  concat_param {
    axis: 0
  }
}
layer {
  name: "h_pseudoloss"
  type: "Reduction"
  bottom: "h"
  top: "h_pseudoloss"
  loss_weight: 1
}
I0924 03:49:56.743791  8921 net.cpp:49] Initializing net from parameters: 
layer {
  name: "lstm1_"
  type: "Input"
  top: "x"
  top: "cont"
  input_param {
    shape {
      dim: 1
      dim: 1
      dim: 500
    }
    shape {
      dim: 1
      dim: 1
    }
  }
}
layer {
  name: "lstm1_"
  type: "Input"
  top: "c_0"
  top: "h_0"
  input_param {
    shape {
      dim: 1
      dim: 1
      dim: 1000
    }
    shape {
      dim: 1
      dim: 1
      dim: 1000
    }
  }
}
layer {
  name: "lstm1_cont_slice"
  type: "Slice"
  bottom: "cont"
  top: "cont_1"
  slice_param {
    axis: 0
  }
}
layer {
  name: "lstm1_x_transform"
  type: "InnerProduct"
  bottom: "x"
  top: "W_xc_x"
  param {
    name: "W_xc"
  }
  param {
    name: "b_c"
  }
  propagate_down: true
  inner_product_param {
    num_output: 4000
    bias_term: true
    weight_filler {
      type: "uniform"
      min: -0.08
      max: 0.08
    }
    bias_filler {
      type: "constant"
      value: 0
    }
    axis: 2
  }
}
layer {
  name: "lstm1_W_xc_x_slice"
  type: "Slice"
  bottom: "W_xc_x"
  top: "W_xc_x_1"
  slice_param {
    axis: 0
  }
}
layer {
  name: "lstm1_h_conted_0"
  type: "Scale"
  bottom: "h_0"
  bottom: "cont_1"
  top: "h_conted_0"
  scale_param {
    axis: 0
  }
}
layer {
  name: "lstm1_transform_1"
  type: "InnerProduct"
  bottom: "h_conted_0"
  top: "W_hc_h_0"
  param {
    name: "W_hc"
  }
  inner_product_param {
    num_output: 4000
    bias_term: false
    weight_filler {
      type: "uniform"
      min: -0.08
      max: 0.08
    }
    axis: 2
  }
}
layer {
  name: "lstm1_gate_input_1"
  type: "Eltwise"
  bottom: "W_hc_h_0"
  bottom: "W_xc_x_1"
  top: "gate_input_1"
  eltwise_param {
    operation: SUM
  }
}
layer {
  name: "lstm1_unit_1"
  type: "LSTMUnit"
  bottom: "c_0"
  bottom: "gate_input_1"
  bottom: "cont_1"
  top: "c_1"
  top: "h_1"
}
layer {
  name: "lstm1_"
  type: "Split"
  bottom: "c_1"
  top: "c_T"
}
layer {
  name: "lstm1_h_concat"
  type: "Concat"
  bottom: "h_1"
  top: "h"
  concat_param {
    axis: 0
  }
}
layer {
  name: "h_pseudoloss"
  type: "Reduction"
  bottom: "h"
  top: "h_pseudoloss"
  loss_weight: 1
}
I0924 03:49:56.743824  8907 layer_factory.hpp:77] Creating layer lstm1_
I0924 03:49:56.743837  8907 net.cpp:91] Creating Layer lstm1_
I0924 03:49:56.743844  8907 net.cpp:399] lstm1_ -> x
I0924 03:49:56.743855  8907 net.cpp:399] lstm1_ -> cont
I0924 03:49:56.743904  8941 layer_factory.hpp:77] Creating layer lstm1_
I0924 03:49:56.743924  8941 net.cpp:91] Creating Layer lstm1_
I0924 03:49:56.743934  8921 layer_factory.hpp:77] Creating layer lstm1_
I0924 03:49:56.743934  8941 net.cpp:399] lstm1_ -> x
I0924 03:49:56.743963  8921 net.cpp:91] Creating Layer lstm1_
I0924 03:49:56.743968  8941 net.cpp:399] lstm1_ -> cont
I0924 03:49:56.743975  8921 net.cpp:399] lstm1_ -> x
I0924 03:49:56.743994  8921 net.cpp:399] lstm1_ -> cont
I0924 03:49:56.745592  8941 net.cpp:141] Setting up lstm1_
I0924 03:49:56.745611  8941 net.cpp:148] Top shape: 1 1 500 (500)
I0924 03:49:56.745621  8941 net.cpp:148] Top shape: 1 1 (1)
I0924 03:49:56.745628  8941 net.cpp:156] Memory required for data: 2004
I0924 03:49:56.745636  8941 layer_factory.hpp:77] Creating layer lstm1_
I0924 03:49:56.745656  8941 net.cpp:91] Creating Layer lstm1_
I0924 03:49:56.745666  8941 net.cpp:399] lstm1_ -> c_0
I0924 03:49:56.745682  8941 net.cpp:399] lstm1_ -> h_0
I0924 03:49:56.745755  8941 net.cpp:141] Setting up lstm1_
I0924 03:49:56.745769  8941 net.cpp:148] Top shape: 1 1 1000 (1000)
I0924 03:49:56.745779  8941 net.cpp:148] Top shape: 1 1 1000 (1000)
I0924 03:49:56.745784  8941 net.cpp:156] Memory required for data: 10004
I0924 03:49:56.745791  8941 layer_factory.hpp:77] Creating layer lstm1_cont_slice
I0924 03:49:56.745803  8941 net.cpp:91] Creating Layer lstm1_cont_slice
I0924 03:49:56.745810  8941 net.cpp:425] lstm1_cont_slice <- cont
I0924 03:49:56.745825  8941 net.cpp:399] lstm1_cont_slice -> cont_1
I0924 03:49:56.745868  8941 net.cpp:141] Setting up lstm1_cont_slice
I0924 03:49:56.745884  8941 net.cpp:148] Top shape: 1 1 (1)
I0924 03:49:56.745892  8941 net.cpp:156] Memory required for data: 10008
I0924 03:49:56.745898  8941 layer_factory.hpp:77] Creating layer cont_1_lstm1_cont_slice_0_split
I0924 03:49:56.745909  8941 net.cpp:91] Creating Layer cont_1_lstm1_cont_slice_0_split
I0924 03:49:56.745916  8941 net.cpp:425] cont_1_lstm1_cont_slice_0_split <- cont_1
I0924 03:49:56.745926  8941 net.cpp:399] cont_1_lstm1_cont_slice_0_split -> cont_1_lstm1_cont_slice_0_split_0
I0924 03:49:56.745939  8941 net.cpp:399] cont_1_lstm1_cont_slice_0_split -> cont_1_lstm1_cont_slice_0_split_1
I0924 03:49:56.746004  8941 net.cpp:141] Setting up cont_1_lstm1_cont_slice_0_split
I0924 03:49:56.746016  8941 net.cpp:148] Top shape: 1 1 (1)
I0924 03:49:56.746026  8941 net.cpp:148] Top shape: 1 1 (1)
I0924 03:49:56.746032  8941 net.cpp:156] Memory required for data: 10016
I0924 03:49:56.746039  8941 layer_factory.hpp:77] Creating layer lstm1_x_transform
I0924 03:49:56.746057  8941 net.cpp:91] Creating Layer lstm1_x_transform
I0924 03:49:56.746065  8941 net.cpp:425] lstm1_x_transform <- x
I0924 03:49:56.746078  8941 net.cpp:399] lstm1_x_transform -> W_xc_x
I0924 03:49:56.751767  8909 net.cpp:141] Setting up embedding
I0924 03:49:56.751823  8909 net.cpp:148] Top shape: 1 1 500 (500)
I0924 03:49:56.751833  8909 net.cpp:156] Memory required for data: 22408
I0924 03:49:56.751863  8909 layer_factory.hpp:77] Creating layer lstm1
I0924 03:49:56.751866  8907 net.cpp:141] Setting up lstm1_
I0924 03:49:56.751893  8909 net.cpp:91] Creating Layer lstm1
I0924 03:49:56.751906  8909 net.cpp:425] lstm1 <- embedded_input_frames
I0924 03:49:56.751910  8907 net.cpp:148] Top shape: 1 1 500 (500)
I0924 03:49:56.751919  8907 net.cpp:148] Top shape: 1 1 (1)
I0924 03:49:56.751924  8907 net.cpp:156] Memory required for data: 2004
I0924 03:49:56.751924  8909 net.cpp:425] lstm1 <- cont_sentence_input_1_split_0
I0924 03:49:56.751935  8907 layer_factory.hpp:77] Creating layer lstm1_
I0924 03:49:56.751941  8909 net.cpp:399] lstm1 -> lstm1
I0924 03:49:56.751951  8921 net.cpp:141] Setting up lstm1_
I0924 03:49:56.751958  8907 net.cpp:91] Creating Layer lstm1_
I0924 03:49:56.751981  8921 net.cpp:148] Top shape: 1 1 500 (500)
I0924 03:49:56.751993  8921 net.cpp:148] Top shape: 1 1 (1)
I0924 03:49:56.752002  8921 net.cpp:156] Memory required for data: 2004
I0924 03:49:56.752012  8921 layer_factory.hpp:77] Creating layer lstm1_
I0924 03:49:56.752020  8907 net.cpp:399] lstm1_ -> c_0
I0924 03:49:56.752045  8907 net.cpp:399] lstm1_ -> h_0
I0924 03:49:56.752050  8921 net.cpp:91] Creating Layer lstm1_
I0924 03:49:56.752065  8921 net.cpp:399] lstm1_ -> c_0
I0924 03:49:56.752089  8921 net.cpp:399] lstm1_ -> h_0
I0924 03:49:56.757067  8921 net.cpp:141] Setting up lstm1_
I0924 03:49:56.757081  8907 net.cpp:141] Setting up lstm1_
I0924 03:49:56.757107  8921 net.cpp:148] Top shape: 1 1 1000 (1000)
I0924 03:49:56.757110  8907 net.cpp:148] Top shape: 1 1 1000 (1000)
I0924 03:49:56.757118  8921 net.cpp:148] Top shape: 1 1 1000 (1000)
I0924 03:49:56.757120  8907 net.cpp:148] Top shape: 1 1 1000 (1000)
I0924 03:49:56.757129  8921 net.cpp:156] Memory required for data: 10004
I0924 03:49:56.757133  8907 net.cpp:156] Memory required for data: 10004
I0924 03:49:56.757139  8907 layer_factory.hpp:77] Creating layer lstm1_cont_slice
I0924 03:49:56.757139  8921 layer_factory.hpp:77] Creating layer lstm1_cont_slice
I0924 03:49:56.757158  8907 net.cpp:91] Creating Layer lstm1_cont_slice
I0924 03:49:56.757158  8921 net.cpp:91] Creating Layer lstm1_cont_slice
I0924 03:49:56.757164  8907 net.cpp:425] lstm1_cont_slice <- cont
I0924 03:49:56.757167  8921 net.cpp:425] lstm1_cont_slice <- cont
I0924 03:49:56.757174  8907 net.cpp:399] lstm1_cont_slice -> cont_1
I0924 03:49:56.757179  8921 net.cpp:399] lstm1_cont_slice -> cont_1
I0924 03:49:56.757222  8907 net.cpp:141] Setting up lstm1_cont_slice
I0924 03:49:56.757232  8907 net.cpp:148] Top shape: 1 1 (1)
I0924 03:49:56.757237  8907 net.cpp:156] Memory required for data: 10008
I0924 03:49:56.757242  8907 layer_factory.hpp:77] Creating layer cont_1_lstm1_cont_slice_0_split
I0924 03:49:56.757251  8907 net.cpp:91] Creating Layer cont_1_lstm1_cont_slice_0_split
I0924 03:49:56.757256  8907 net.cpp:425] cont_1_lstm1_cont_slice_0_split <- cont_1
I0924 03:49:56.757267  8907 net.cpp:399] cont_1_lstm1_cont_slice_0_split -> cont_1_lstm1_cont_slice_0_split_0
I0924 03:49:56.757283  8907 net.cpp:399] cont_1_lstm1_cont_slice_0_split -> cont_1_lstm1_cont_slice_0_split_1
I0924 03:49:56.757323  8921 net.cpp:141] Setting up lstm1_cont_slice
I0924 03:49:56.757341  8921 net.cpp:148] Top shape: 1 1 (1)
I0924 03:49:56.757349  8921 net.cpp:156] Memory required for data: 10008
I0924 03:49:56.757357  8921 layer_factory.hpp:77] Creating layer cont_1_lstm1_cont_slice_0_split
I0924 03:49:56.757369  8921 net.cpp:91] Creating Layer cont_1_lstm1_cont_slice_0_split
I0924 03:49:56.757378  8921 net.cpp:425] cont_1_lstm1_cont_slice_0_split <- cont_1
I0924 03:49:56.757393  8921 net.cpp:399] cont_1_lstm1_cont_slice_0_split -> cont_1_lstm1_cont_slice_0_split_0
I0924 03:49:56.757408  8921 net.cpp:399] cont_1_lstm1_cont_slice_0_split -> cont_1_lstm1_cont_slice_0_split_1
I0924 03:49:56.757419  8907 net.cpp:141] Setting up cont_1_lstm1_cont_slice_0_split
I0924 03:49:56.757432  8907 net.cpp:148] Top shape: 1 1 (1)
I0924 03:49:56.757442  8907 net.cpp:148] Top shape: 1 1 (1)
I0924 03:49:56.757452  8907 net.cpp:156] Memory required for data: 10016
I0924 03:49:56.757457  8907 layer_factory.hpp:77] Creating layer lstm1_x_transform
I0924 03:49:56.757477  8907 net.cpp:91] Creating Layer lstm1_x_transform
I0924 03:49:56.757482  8907 net.cpp:425] lstm1_x_transform <- x
I0924 03:49:56.757490  8907 net.cpp:399] lstm1_x_transform -> W_xc_x
I0924 03:49:56.757525  8921 net.cpp:141] Setting up cont_1_lstm1_cont_slice_0_split
I0924 03:49:56.757550  8921 net.cpp:148] Top shape: 1 1 (1)
I0924 03:49:56.757561  8921 net.cpp:148] Top shape: 1 1 (1)
I0924 03:49:56.757570  8921 net.cpp:156] Memory required for data: 10016
I0924 03:49:56.757577  8921 layer_factory.hpp:77] Creating layer lstm1_x_transform
I0924 03:49:56.757594  8921 net.cpp:91] Creating Layer lstm1_x_transform
I0924 03:49:56.757604  8921 net.cpp:425] lstm1_x_transform <- x
I0924 03:49:56.757627  8921 net.cpp:399] lstm1_x_transform -> W_xc_x
I0924 03:49:56.751971  8909 recurrent_layer.cpp:20] Initializing recurrent layer: assuming input batch contains 1 timesteps of 1 independent streams.
I0924 03:49:56.768676  8909 net.cpp:49] Initializing net from parameters: 
layer {
  name: "lstm1_"
  type: "Input"
  top: "x"
  top: "cont"
  input_param {
    shape {
      dim: 1
      dim: 1
      dim: 500
    }
    shape {
      dim: 1
      dim: 1
    }
  }
}
layer {
  name: "lstm1_"
  type: "Input"
  top: "c_0"
  top: "h_0"
  input_param {
    shape {
      dim: 1
      dim: 1
      dim: 1000
    }
    shape {
      dim: 1
      dim: 1
      dim: 1000
    }
  }
}
layer {
  name: "lstm1_cont_slice"
  type: "Slice"
  bottom: "cont"
  top: "cont_1"
  slice_param {
    axis: 0
  }
}
layer {
  name: "lstm1_x_transform"
  type: "InnerProduct"
  bottom: "x"
  top: "W_xc_x"
  param {
    name: "W_xc"
  }
  param {
    name: "b_c"
  }
  propagate_down: true
  inner_product_param {
    num_output: 4000
    bias_term: true
    weight_filler {
      type: "uniform"
      min: -0.08
      max: 0.08
    }
    bias_filler {
      type: "constant"
      value: 0
    }
    axis: 2
  }
}
layer {
  name: "lstm1_W_xc_x_slice"
  type: "Slice"
  bottom: "W_xc_x"
  top: "W_xc_x_1"
  slice_param {
    axis: 0
  }
}
layer {
  name: "lstm1_h_conted_0"
  type: "Scale"
  bottom: "h_0"
  bottom: "cont_1"
  top: "h_conted_0"
  scale_param {
    axis: 0
  }
}
layer {
  name: "lstm1_transform_1"
  type: "InnerProduct"
  bottom: "h_conted_0"
  top: "W_hc_h_0"
  param {
    name: "W_hc"
  }
  inner_product_param {
    num_output: 4000
    bias_term: false
    weight_filler {
      type: "uniform"
      min: -0.08
      max: 0.08
    }
    axis: 2
  }
}
layer {
  name: "lstm1_gate_input_1"
  type: "Eltwise"
  bottom: "W_hc_h_0"
  bottom: "W_xc_x_1"
  top: "gate_input_1"
  eltwise_param {
    operation: SUM
  }
}
layer {
  name: "lstm1_unit_1"
  type: "LSTMUnit"
  bottom: "c_0"
  bottom: "gate_input_1"
  bottom: "cont_1"
  top: "c_1"
  top: "h_1"
}
layer {
  name: "lstm1_"
  type: "Split"
  bottom: "c_1"
  top: "c_T"
}
layer {
  name: "lstm1_h_concat"
  type: "Concat"
  bottom: "h_1"
  top: "h"
  concat_param {
    axis: 0
  }
}
layer {
  name: "h_pseudoloss"
  type: "Reduction"
  bottom: "h"
  top: "h_pseudoloss"
  loss_weight: 1
}
I0924 03:49:56.768955  8909 layer_factory.hpp:77] Creating layer lstm1_
I0924 03:49:56.768996  8909 net.cpp:91] Creating Layer lstm1_
I0924 03:49:56.769011  8909 net.cpp:399] lstm1_ -> x
I0924 03:49:56.769037  8909 net.cpp:399] lstm1_ -> cont
I0924 03:49:56.769588  8909 net.cpp:141] Setting up lstm1_
I0924 03:49:56.769608  8909 net.cpp:148] Top shape: 1 1 500 (500)
I0924 03:49:56.769632  8909 net.cpp:148] Top shape: 1 1 (1)
I0924 03:49:56.769641  8909 net.cpp:156] Memory required for data: 2004
I0924 03:49:56.769649  8909 layer_factory.hpp:77] Creating layer lstm1_
I0924 03:49:56.769702  8909 net.cpp:91] Creating Layer lstm1_
I0924 03:49:56.769717  8909 net.cpp:399] lstm1_ -> c_0
I0924 03:49:56.769734  8909 net.cpp:399] lstm1_ -> h_0
I0924 03:49:56.803587  8941 net.cpp:141] Setting up lstm1_x_transform
I0924 03:49:56.803604  8951 net.cpp:141] Setting up embedding
I0924 03:49:56.803638  8941 net.cpp:148] Top shape: 1 1 4000 (4000)
I0924 03:49:56.803638  8951 net.cpp:148] Top shape: 1 1 500 (500)
I0924 03:49:56.803647  8941 net.cpp:156] Memory required for data: 26016
I0924 03:49:56.803650  8951 net.cpp:156] Memory required for data: 22408
I0924 03:49:56.803666  8951 layer_factory.hpp:77] Creating layer lstm1
I0924 03:49:56.803674  8941 layer_factory.hpp:77] Creating layer lstm1_W_xc_x_slice
I0924 03:49:56.803685  8951 net.cpp:91] Creating Layer lstm1
I0924 03:49:56.803689  8941 net.cpp:91] Creating Layer lstm1_W_xc_x_slice
I0924 03:49:56.803694  8951 net.cpp:425] lstm1 <- embedded_input_frames
I0924 03:49:56.803695  8941 net.cpp:425] lstm1_W_xc_x_slice <- W_xc_x
I0924 03:49:56.803701  8951 net.cpp:425] lstm1 <- cont_sentence_input_1_split_0
I0924 03:49:56.803705  8941 net.cpp:399] lstm1_W_xc_x_slice -> W_xc_x_1
I0924 03:49:56.803712  8951 net.cpp:399] lstm1 -> lstm1
I0924 03:49:56.803726  8951 recurrent_layer.cpp:20] Initializing recurrent layer: assuming input batch contains 1 timesteps of 1 independent streams.
I0924 03:49:56.803814  8909 net.cpp:141] Setting up lstm1_
I0924 03:49:56.803860  8909 net.cpp:148] Top shape: 1 1 1000 (1000)
I0924 03:49:56.803872  8909 net.cpp:148] Top shape: 1 1 1000 (1000)
I0924 03:49:56.803881  8909 net.cpp:156] Memory required for data: 10004
I0924 03:49:56.803894  8909 layer_factory.hpp:77] Creating layer lstm1_cont_slice
I0924 03:49:56.803915  8941 net.cpp:141] Setting up lstm1_W_xc_x_slice
I0924 03:49:56.803917  8909 net.cpp:91] Creating Layer lstm1_cont_slice
I0924 03:49:56.803943  8941 net.cpp:148] Top shape: 1 1 4000 (4000)
I0924 03:49:56.803959  8909 net.cpp:425] lstm1_cont_slice <- cont
I0924 03:49:56.803962  8941 net.cpp:156] Memory required for data: 42016
I0924 03:49:56.803979  8941 layer_factory.hpp:77] Creating layer lstm1_h_conted_0
I0924 03:49:56.803988  8909 net.cpp:399] lstm1_cont_slice -> cont_1
I0924 03:49:56.804004  8941 net.cpp:91] Creating Layer lstm1_h_conted_0
I0924 03:49:56.804011  8941 net.cpp:425] lstm1_h_conted_0 <- h_0
I0924 03:49:56.804013  8907 net.cpp:141] Setting up lstm1_x_transform
I0924 03:49:56.804018  8941 net.cpp:425] lstm1_h_conted_0 <- cont_1_lstm1_cont_slice_0_split_0
I0924 03:49:56.804033  8907 net.cpp:148] Top shape: 1 1 4000 (4000)
I0924 03:49:56.804035  8941 net.cpp:399] lstm1_h_conted_0 -> h_conted_0
I0924 03:49:56.804039  8907 net.cpp:156] Memory required for data: 26016
I0924 03:49:56.804056  8907 layer_factory.hpp:77] Creating layer lstm1_W_xc_x_slice
I0924 03:49:56.804061  8951 net.cpp:49] Initializing net from parameters: 
layer {
  name: "lstm1_"
  type: "Input"
  top: "x"
  top: "cont"
  input_param {
    shape {
      dim: 1
      dim: 1
      dim: 500
    }
    shape {
      dim: 1
      dim: 1
    }
  }
}
layer {
  name: "lstm1_"
  type: "Input"
  top: "c_0"
  top: "h_0"
  input_param {
    shape {
      dim: 1
      dim: 1
      dim: 1000
    }
    shape {
      dim: 1
      dim: 1
      dim: 1000
    }
  }
}
layer {
  name: "lstm1_cont_slice"
  type: "Slice"
  bottom: "cont"
  top: "cont_1"
  slice_param {
    axis: 0
  }
}
layer {
  name: "lstm1_x_transform"
  type: "InnerProduct"
  bottom: "x"
  top: "W_xc_x"
  param {
    name: "W_xc"
  }
  param {
    name: "b_c"
  }
  propagate_down: true
  inner_product_param {
    num_output: 4000
    bias_term: true
    weight_filler {
      type: "uniform"
      min: -0.08
      max: 0.08
    }
    bias_filler {
      type: "constant"
      value: 0
    }
    axis: 2
  }
}
layer {
  name: "lstm1_W_xc_x_slice"
  type: "Slice"
  bottom: "W_xc_x"
  top: "W_xc_x_1"
  slice_param {
    axis: 0
  }
}
layer {
  name: "lstm1_h_conted_0"
  type: "Scale"
  bottom: "h_0"
  bottom: "cont_1"
  top: "h_conted_0"
  scale_param {
    axis: 0
  }
}
layer {
  name: "lstm1_transform_1"
  type: "InnerProduct"
  bottom: "h_conted_0"
  top: "W_hc_h_0"
  param {
    name: "W_hc"
  }
  inner_product_param {
    num_output: 4000
    bias_term: false
    weight_filler {
      type: "uniform"
      min: -0.08
      max: 0.08
    }
    axis: 2
  }
}
layer {
  name: "lstm1_gate_input_1"
  type: "Eltwise"
  bottom: "W_hc_h_0"
  bottom: "W_xc_x_1"
  top: "gate_input_1"
  eltwise_param {
    operation: SUM
  }
}
layer {
  name: "lstm1_unit_1"
  type: "LSTMUnit"
  bottom: "c_0"
  bottom: "gate_input_1"
  bottom: "cont_1"
  top: "c_1"
  top: "h_1"
}
layer {
  name: "lstm1_"
  type: "Split"
  bottom: "c_1"
  top: "c_T"
}
layer {
  name: "lstm1_h_concat"
  type: "Concat"
  bottom: "h_1"
  top: "h"
  concat_param {
    axis: 0
  }
}
layer {
  name: "h_pseudoloss"
  type: "Reduction"
  bottom: "h"
  top: "h_pseudoloss"
  loss_weight: 1
}
I0924 03:49:56.804067  8907 net.cpp:91] Creating Layer lstm1_W_xc_x_slice
I0924 03:49:56.804090  8907 net.cpp:425] lstm1_W_xc_x_slice <- W_xc_x
I0924 03:49:56.804100  8907 net.cpp:399] lstm1_W_xc_x_slice -> W_xc_x_1
I0924 03:49:56.804146  8907 net.cpp:141] Setting up lstm1_W_xc_x_slice
I0924 03:49:56.804155  8907 net.cpp:148] Top shape: 1 1 4000 (4000)
I0924 03:49:56.804160  8907 net.cpp:156] Memory required for data: 42016
I0924 03:49:56.804165  8907 layer_factory.hpp:77] Creating layer lstm1_h_conted_0
I0924 03:49:56.804174  8951 layer_factory.hpp:77] Creating layer lstm1_
I0924 03:49:56.804178  8907 net.cpp:91] Creating Layer lstm1_h_conted_0
I0924 03:49:56.804184  8907 net.cpp:425] lstm1_h_conted_0 <- h_0
I0924 03:49:56.804188  8951 net.cpp:91] Creating Layer lstm1_
I0924 03:49:56.804190  8907 net.cpp:425] lstm1_h_conted_0 <- cont_1_lstm1_cont_slice_0_split_0
I0924 03:49:56.804194  8951 net.cpp:399] lstm1_ -> x
I0924 03:49:56.804199  8907 net.cpp:399] lstm1_h_conted_0 -> h_conted_0
I0924 03:49:56.804206  8951 net.cpp:399] lstm1_ -> cont
I0924 03:49:56.804214  8909 net.cpp:141] Setting up lstm1_cont_slice
I0924 03:49:56.804229  8909 net.cpp:148] Top shape: 1 1 (1)
I0924 03:49:56.804234  8909 net.cpp:156] Memory required for data: 10008
I0924 03:49:56.804239  8909 layer_factory.hpp:77] Creating layer cont_1_lstm1_cont_slice_0_split
I0924 03:49:56.804255  8909 net.cpp:91] Creating Layer cont_1_lstm1_cont_slice_0_split
I0924 03:49:56.804262  8909 net.cpp:425] cont_1_lstm1_cont_slice_0_split <- cont_1
I0924 03:49:56.804270  8909 net.cpp:399] cont_1_lstm1_cont_slice_0_split -> cont_1_lstm1_cont_slice_0_split_0
I0924 03:49:56.804282  8909 net.cpp:399] cont_1_lstm1_cont_slice_0_split -> cont_1_lstm1_cont_slice_0_split_1
I0924 03:49:56.804277  8921 net.cpp:141] Setting up lstm1_x_transform
I0924 03:49:56.804313  8921 net.cpp:148] Top shape: 1 1 4000 (4000)
I0924 03:49:56.804322  8921 net.cpp:156] Memory required for data: 26016
I0924 03:49:56.804342  8921 layer_factory.hpp:77] Creating layer lstm1_W_xc_x_slice
I0924 03:49:56.804357  8921 net.cpp:91] Creating Layer lstm1_W_xc_x_slice
I0924 03:49:56.804366  8921 net.cpp:425] lstm1_W_xc_x_slice <- W_xc_x
I0924 03:49:56.804379  8921 net.cpp:399] lstm1_W_xc_x_slice -> W_xc_x_1
I0924 03:49:56.804450  8921 net.cpp:141] Setting up lstm1_W_xc_x_slice
I0924 03:49:56.804466  8921 net.cpp:148] Top shape: 1 1 4000 (4000)
I0924 03:49:56.804472  8921 net.cpp:156] Memory required for data: 42016
I0924 03:49:56.804479  8907 net.cpp:141] Setting up lstm1_h_conted_0
I0924 03:49:56.804481  8921 layer_factory.hpp:77] Creating layer lstm1_h_conted_0
I0924 03:49:56.804497  8907 net.cpp:148] Top shape: 1 1 1000 (1000)
I0924 03:49:56.804502  8907 net.cpp:156] Memory required for data: 46016
I0924 03:49:56.804507  8907 layer_factory.hpp:77] Creating layer lstm1_transform_1
I0924 03:49:56.804507  8921 net.cpp:91] Creating Layer lstm1_h_conted_0
I0924 03:49:56.804517  8921 net.cpp:425] lstm1_h_conted_0 <- h_0
I0924 03:49:56.804518  8907 net.cpp:91] Creating Layer lstm1_transform_1
I0924 03:49:56.804533  8907 net.cpp:425] lstm1_transform_1 <- h_conted_0
I0924 03:49:56.804533  8921 net.cpp:425] lstm1_h_conted_0 <- cont_1_lstm1_cont_slice_0_split_0
I0924 03:49:56.804543  8907 net.cpp:399] lstm1_transform_1 -> W_hc_h_0
I0924 03:49:56.804548  8921 net.cpp:399] lstm1_h_conted_0 -> h_conted_0
I0924 03:49:56.804600  8941 net.cpp:141] Setting up lstm1_h_conted_0
I0924 03:49:56.804616  8941 net.cpp:148] Top shape: 1 1 1000 (1000)
I0924 03:49:56.804621  8941 net.cpp:156] Memory required for data: 46016
I0924 03:49:56.804623  8909 net.cpp:141] Setting up cont_1_lstm1_cont_slice_0_split
I0924 03:49:56.804626  8941 layer_factory.hpp:77] Creating layer lstm1_transform_1
I0924 03:49:56.804639  8909 net.cpp:148] Top shape: 1 1 (1)
I0924 03:49:56.804646  8941 net.cpp:91] Creating Layer lstm1_transform_1
I0924 03:49:56.804646  8909 net.cpp:148] Top shape: 1 1 (1)
I0924 03:49:56.804656  8909 net.cpp:156] Memory required for data: 10016
I0924 03:49:56.804646  8951 net.cpp:141] Setting up lstm1_
I0924 03:49:56.804652  8941 net.cpp:425] lstm1_transform_1 <- h_conted_0
I0924 03:49:56.804673  8951 net.cpp:148] Top shape: 1 1 500 (500)
I0924 03:49:56.804661  8909 layer_factory.hpp:77] Creating layer lstm1_x_transform
I0924 03:49:56.804684  8951 net.cpp:148] Top shape: 1 1 (1)
I0924 03:49:56.804683  8941 net.cpp:399] lstm1_transform_1 -> W_hc_h_0
I0924 03:49:56.804693  8951 net.cpp:156] Memory required for data: 2004
I0924 03:49:56.804695  8909 net.cpp:91] Creating Layer lstm1_x_transform
I0924 03:49:56.804699  8951 layer_factory.hpp:77] Creating layer lstm1_
I0924 03:49:56.804702  8909 net.cpp:425] lstm1_x_transform <- x
I0924 03:49:56.804710  8951 net.cpp:91] Creating Layer lstm1_
I0924 03:49:56.804713  8909 net.cpp:399] lstm1_x_transform -> W_xc_x
I0924 03:49:56.804723  8951 net.cpp:399] lstm1_ -> c_0
I0924 03:49:56.804735  8951 net.cpp:399] lstm1_ -> h_0
I0924 03:49:56.819820  8951 net.cpp:141] Setting up lstm1_
I0924 03:49:56.819886  8951 net.cpp:148] Top shape: 1 1 1000 (1000)
I0924 03:49:56.819898  8951 net.cpp:148] Top shape: 1 1 1000 (1000)
I0924 03:49:56.819906  8951 net.cpp:156] Memory required for data: 10004
I0924 03:49:56.819919  8951 layer_factory.hpp:77] Creating layer lstm1_cont_slice
I0924 03:49:56.819954  8951 net.cpp:91] Creating Layer lstm1_cont_slice
I0924 03:49:56.819968  8951 net.cpp:425] lstm1_cont_slice <- cont
I0924 03:49:56.819988  8951 net.cpp:399] lstm1_cont_slice -> cont_1
I0924 03:49:56.824736  8921 net.cpp:141] Setting up lstm1_h_conted_0
I0924 03:49:56.824789  8921 net.cpp:148] Top shape: 1 1 1000 (1000)
I0924 03:49:56.824800  8921 net.cpp:156] Memory required for data: 46016
I0924 03:49:56.824812  8921 layer_factory.hpp:77] Creating layer lstm1_transform_1
I0924 03:49:56.824842  8921 net.cpp:91] Creating Layer lstm1_transform_1
I0924 03:49:56.824856  8921 net.cpp:425] lstm1_transform_1 <- h_conted_0
I0924 03:49:56.824875  8921 net.cpp:399] lstm1_transform_1 -> W_hc_h_0
I0924 03:49:56.839978  8951 net.cpp:141] Setting up lstm1_cont_slice
I0924 03:49:56.840034  8951 net.cpp:148] Top shape: 1 1 (1)
I0924 03:49:56.840045  8951 net.cpp:156] Memory required for data: 10008
I0924 03:49:56.840059  8951 layer_factory.hpp:77] Creating layer cont_1_lstm1_cont_slice_0_split
I0924 03:49:56.840081  8951 net.cpp:91] Creating Layer cont_1_lstm1_cont_slice_0_split
I0924 03:49:56.840092  8951 net.cpp:425] cont_1_lstm1_cont_slice_0_split <- cont_1
I0924 03:49:56.840113  8951 net.cpp:399] cont_1_lstm1_cont_slice_0_split -> cont_1_lstm1_cont_slice_0_split_0
I0924 03:49:56.840137  8951 net.cpp:399] cont_1_lstm1_cont_slice_0_split -> cont_1_lstm1_cont_slice_0_split_1
I0924 03:49:56.840252  8951 net.cpp:141] Setting up cont_1_lstm1_cont_slice_0_split
I0924 03:49:56.840267  8951 net.cpp:148] Top shape: 1 1 (1)
I0924 03:49:56.840276  8951 net.cpp:148] Top shape: 1 1 (1)
I0924 03:49:56.840283  8951 net.cpp:156] Memory required for data: 10016
I0924 03:49:56.840291  8951 layer_factory.hpp:77] Creating layer lstm1_x_transform
I0924 03:49:56.840318  8951 net.cpp:91] Creating Layer lstm1_x_transform
I0924 03:49:56.840328  8951 net.cpp:425] lstm1_x_transform <- x
I0924 03:49:56.840343  8951 net.cpp:399] lstm1_x_transform -> W_xc_x
I0924 03:49:56.855532  8909 net.cpp:141] Setting up lstm1_x_transform
I0924 03:49:56.855588  8909 net.cpp:148] Top shape: 1 1 4000 (4000)
I0924 03:49:56.855597  8909 net.cpp:156] Memory required for data: 26016
I0924 03:49:56.855628  8909 layer_factory.hpp:77] Creating layer lstm1_W_xc_x_slice
I0924 03:49:56.855650  8909 net.cpp:91] Creating Layer lstm1_W_xc_x_slice
I0924 03:49:56.855661  8909 net.cpp:425] lstm1_W_xc_x_slice <- W_xc_x
I0924 03:49:56.855675  8909 net.cpp:399] lstm1_W_xc_x_slice -> W_xc_x_1
I0924 03:49:56.855744  8909 net.cpp:141] Setting up lstm1_W_xc_x_slice
I0924 03:49:56.855759  8909 net.cpp:148] Top shape: 1 1 4000 (4000)
I0924 03:49:56.855767  8909 net.cpp:156] Memory required for data: 42016
I0924 03:49:56.855774  8909 layer_factory.hpp:77] Creating layer lstm1_h_conted_0
I0924 03:49:56.855789  8909 net.cpp:91] Creating Layer lstm1_h_conted_0
I0924 03:49:56.855798  8909 net.cpp:425] lstm1_h_conted_0 <- h_0
I0924 03:49:56.855808  8909 net.cpp:425] lstm1_h_conted_0 <- cont_1_lstm1_cont_slice_0_split_0
I0924 03:49:56.855820  8909 net.cpp:399] lstm1_h_conted_0 -> h_conted_0
I0924 03:49:56.855953  8909 net.cpp:141] Setting up lstm1_h_conted_0
I0924 03:49:56.855968  8909 net.cpp:148] Top shape: 1 1 1000 (1000)
I0924 03:49:56.855975  8909 net.cpp:156] Memory required for data: 46016
I0924 03:49:56.855983  8909 layer_factory.hpp:77] Creating layer lstm1_transform_1
I0924 03:49:56.856001  8909 net.cpp:91] Creating Layer lstm1_transform_1
I0924 03:49:56.856010  8909 net.cpp:425] lstm1_transform_1 <- h_conted_0
I0924 03:49:56.856024  8909 net.cpp:399] lstm1_transform_1 -> W_hc_h_0
I0924 03:49:56.866482  8907 net.cpp:141] Setting up lstm1_transform_1
I0924 03:49:56.866519  8903 net.cpp:141] Setting up embedding
I0924 03:49:56.866540  8907 net.cpp:148] Top shape: 1 1 4000 (4000)
I0924 03:49:56.866540  8903 net.cpp:148] Top shape: 1 1 500 (500)
I0924 03:49:56.866560  8907 net.cpp:156] Memory required for data: 62016
I0924 03:49:56.866566  8903 net.cpp:156] Memory required for data: 22408
I0924 03:49:56.866586  8907 layer_factory.hpp:77] Creating layer lstm1_gate_input_1
I0924 03:49:56.866586  8903 layer_factory.hpp:77] Creating layer lstm1
I0924 03:49:56.866634  8903 net.cpp:91] Creating Layer lstm1
I0924 03:49:56.866636  8907 net.cpp:91] Creating Layer lstm1_gate_input_1
…
I0924 03:49:56.866698  8903 recurrent_layer.cpp:20] Initializing recurrent layer: assuming input batch contains 1 timesteps of 1 independent streams.
I0924 03:49:56.867094  8903 net.cpp:49] Initializing net from parameters: 
layer {
  name: "lstm1_"
  type: "Input"
  top: "x"
  top: "cont"
  input_param {
    shape {
      dim: 1
      dim: 1
      dim: 500
    }
    shape {
      dim: 1
      dim: 1
    }
  }
}
layer {
  name: "lstm1_"
  type: "Input"
  top: "c_0"
  top: "h_0"
  input_param {
    shape {
      dim: 1
      dim: 1
      dim: 1000
    }
    shape {
      dim: 1
      dim: 1
      dim: 1000
    }
  }
}
layer {
  name: "lstm1_cont_slice"
  type: "Slice"
  bottom: "cont"
  top: "cont_1"
  slice_param {
    axis: 0
  }
}
layer {
  name: "lstm1_x_transform"
  type: "InnerProduct"
  bottom: "x"
  top: "W_xc_x"
  param {
    name: "W_xc"
  }
  param {
    name: "b_c"
  }
  propagate_down: true
  inner_product_param {
    num_output: 4000
    bias_term: true
    weight_filler {
      type: "uniform"
      min: -0.08
      max: 0.08
    }
    bias_filler {
      type: "constant"
      value: 0
    }
    axis: 2
  }
}
layer {
  name: "lstm1_W_xc_x_slice"
  type: "Slice"
  bottom: "W_xc_x"
  top: "W_xc_x_1"
  slice_param {
    axis: 0
  }
}
layer {
  name: "lstm1_h_conted_0"
  type: "Scale"
  bottom: "h_0"
  bottom: "cont_1"
  top: "h_conted_0"
  scale_param {
    axis: 0
  }
}
layer {
  name: "lstm1_transform_1"
  type: "InnerProduct"
  bottom: "h_conted_0"
  top: "W_hc_h_0"
  param {
    name: "W_hc"
  }
  inner_product_param {
    num_output: 4000
    bias_term: false
    weight_filler {
      type: "uniform"
      min: -0.08
      max: 0.08
    }
    axis: 2
  }
}
layer {
  name: "lstm1_gate_input_1"
  type: "Eltwise"
  bottom: "W_hc_h_0"
  bottom: "W_xc_x_1"
  top: "gate_input_1"
  eltwise_param {
    operation: SUM
  }
}
layer {
  name: "lstm1_unit_1"
  type: "LSTMUnit"
  bottom: "c_0"
  bottom: "gate_input_1"
  bottom: "cont_1"
  top: "c_1"
  top: "h_1"
}
layer {
  name: "lstm1_"
  type: "Split"
  bottom: "c_1"
  top: "c_T"
}
layer {
  name: "lstm1_h_concat"
  type: "Concat"
  bottom: "h_1"
  top: "h"
  concat_param {
    axis: 0
  }
}
layer {
  name: "h_pseudoloss"
  type: "Reduction"
  bottom: "h"
  top: "h_pseudoloss"
  loss_weight: 1
}
I0924 03:49:56.867221  8903 layer_factory.hpp:77] Creating layer lstm1_
I0924 03:49:56.867238  8903 net.cpp:91] Creating Layer lstm1_
I0924 03:49:56.867249  8903 net.cpp:399] lstm1_ -> x
I0924 03:49:56.867265  8903 net.cpp:399] lstm1_ -> cont
I0924 03:49:56.867331  8907 net.cpp:141] Setting up lstm1_gate_input_1
I0924 03:49:56.867347  8907 net.cpp:148] Top shape: 1 1 4000 (4000)
I0924 03:49:56.867362  8907 net.cpp:156] Memory required for data: 78016
I0924 03:49:56.867369  8907 layer_factory.hpp:77] Creating layer lstm1_unit_1
I0924 03:49:56.867393  8907 net.cpp:91] Creating Layer lstm1_unit_1
I0924 03:49:56.867401  8907 net.cpp:425] lstm1_unit_1 <- c_0
I0924 03:49:56.867410  8907 net.cpp:425] lstm1_unit_1 <- gate_input_1
I0924 03:49:56.867420  8907 net.cpp:425] lstm1_unit_1 <- cont_1_lstm1_cont_slice_0_split_1
I0924 03:49:56.867431  8907 net.cpp:399] lstm1_unit_1 -> c_1
I0924 03:49:56.867444  8907 net.cpp:399] lstm1_unit_1 -> h_1
I0924 03:49:56.882983  8907 net.cpp:141] Setting up lstm1_unit_1
I0924 03:49:56.883030  8903 net.cpp:141] Setting up lstm1_
I0924 03:49:56.883038  8907 net.cpp:148] Top shape: 1 1 1000 (1000)
I0924 03:49:56.883064  8903 net.cpp:148] Top shape: 1 1 500 (500)
I0924 03:49:56.883067  8907 net.cpp:148] Top shape: 1 1 1000 (1000)
I0924 03:49:56.883075  8907 net.cpp:156] Memory required for data: 86016
I0924 03:49:56.883076  8903 net.cpp:148] Top shape: 1 1 (1)
I0924 03:49:56.883085  8903 net.cpp:156] Memory required for data: 2004
I0924 03:49:56.883086  8907 layer_factory.hpp:77] Creating layer lstm1_
I0924 03:49:56.883095  8903 layer_factory.hpp:77] Creating layer lstm1_
I0924 03:49:56.883110  8907 net.cpp:91] Creating Layer lstm1_
I0924 03:49:56.883116  8903 net.cpp:91] Creating Layer lstm1_
I0924 03:49:56.883119  8907 net.cpp:425] lstm1_ <- c_1
I0924 03:49:56.883131  8903 net.cpp:399] lstm1_ -> c_0
I0924 03:49:56.883133  8907 net.cpp:399] lstm1_ -> c_T
I0924 03:49:56.883152  8903 net.cpp:399] lstm1_ -> h_0
I0924 03:49:56.883186  8941 net.cpp:141] Setting up lstm1_transform_1
I0924 03:49:56.883206  8941 net.cpp:148] Top shape: 1 1 4000 (4000)
I0924 03:49:56.883214  8941 net.cpp:156] Memory required for data: 62016
I0924 03:49:56.883235  8903 net.cpp:141] Setting up lstm1_
I0924 03:49:56.883236  8941 layer_factory.hpp:77] Creating layer lstm1_gate_input_1
I0924 03:49:56.883265  8903 net.cpp:148] Top shape: 1 1 1000 (1000)
I0924 03:49:56.883272  8907 net.cpp:141] Setting up lstm1_
I0924 03:49:56.883276  8941 net.cpp:91] Creating Layer lstm1_gate_input_1
I0924 03:49:56.883287  8941 net.cpp:425] lstm1_gate_input_1 <- W_hc_h_0
I0924 03:49:56.883275  8903 net.cpp:148] Top shape: 1 1 1000 (1000)
I0924 03:49:56.883298  8941 net.cpp:425] lstm1_gate_input_1 <- W_xc_x_1
I0924 03:49:56.883299  8907 net.cpp:148] Top shape: 1 1 1000 (1000)
I0924 03:49:56.883311  8941 net.cpp:399] lstm1_gate_input_1 -> gate_input_1
I0924 03:49:56.883316  8907 net.cpp:156] Memory required for data: 90016
I0924 03:49:56.883299  8903 net.cpp:156] Memory required for data: 10004
I0924 03:49:56.883323  8907 layer_factory.hpp:77] Creating layer lstm1_h_concat
I0924 03:49:56.883342  8903 layer_factory.hpp:77] Creating layer lstm1_cont_slice
I0924 03:49:56.883354  8907 net.cpp:91] Creating Layer lstm1_h_concat
I0924 03:49:56.883357  8903 net.cpp:91] Creating Layer lstm1_cont_slice
I0924 03:49:56.883363  8907 net.cpp:425] lstm1_h_concat <- h_1
I0924 03:49:56.883364  8903 net.cpp:425] lstm1_cont_slice <- cont
I0924 03:49:56.883375  8903 net.cpp:399] lstm1_cont_slice -> cont_1
I0924 03:49:56.883378  8907 net.cpp:399] lstm1_h_concat -> h
I0924 03:49:56.883390  8941 net.cpp:141] Setting up lstm1_gate_input_1
I0924 03:49:56.883405  8941 net.cpp:148] Top shape: 1 1 4000 (4000)
I0924 03:49:56.883411  8941 net.cpp:156] Memory required for data: 78016
I0924 03:49:56.883419  8941 layer_factory.hpp:77] Creating layer lstm1_unit_1
I0924 03:49:56.883433  8941 net.cpp:91] Creating Layer lstm1_unit_1
I0924 03:49:56.883440  8941 net.cpp:425] lstm1_unit_1 <- c_0
I0924 03:49:56.883450  8941 net.cpp:425] lstm1_unit_1 <- gate_input_1
I0924 03:49:56.883458  8941 net.cpp:425] lstm1_unit_1 <- cont_1_lstm1_cont_slice_0_split_1
I0924 03:49:56.883469  8941 net.cpp:399] lstm1_unit_1 -> c_1
I0924 03:49:56.883488  8941 net.cpp:399] lstm1_unit_1 -> h_1
I0924 03:49:56.883559  8951 net.cpp:141] Setting up lstm1_x_transform
I0924 03:49:56.883594  8903 net.cpp:141] Setting up lstm1_cont_slice
I0924 03:49:56.883605  8951 net.cpp:148] Top shape: 1 1 4000 (4000)
I0924 03:49:56.883610  8903 net.cpp:148] Top shape: 1 1 (1)
I0924 03:49:56.883615  8951 net.cpp:156] Memory required for data: 26016
I0924 03:49:56.883618  8903 net.cpp:156] Memory required for data: 10008
I0924 03:49:56.883626  8903 layer_factory.hpp:77] Creating layer cont_1_lstm1_cont_slice_0_split
I0924 03:49:56.883638  8903 net.cpp:91] Creating Layer cont_1_lstm1_cont_slice_0_split
I0924 03:49:56.883648  8903 net.cpp:425] cont_1_lstm1_cont_slice_0_split <- cont_1
I0924 03:49:56.883656  8951 layer_factory.hpp:77] Creating layer lstm1_W_xc_x_slice
I0924 03:49:56.883661  8903 net.cpp:399] cont_1_lstm1_cont_slice_0_split -> cont_1_lstm1_cont_slice_0_split_0
I0924 03:49:56.883688  8903 net.cpp:399] cont_1_lstm1_cont_slice_0_split -> cont_1_lstm1_cont_slice_0_split_1
I0924 03:49:56.883695  8941 net.cpp:141] Setting up lstm1_unit_1
I0924 03:49:56.883708  8951 net.cpp:91] Creating Layer lstm1_W_xc_x_slice
I0924 03:49:56.883713  8941 net.cpp:148] Top shape: 1 1 1000 (1000)
I0924 03:49:56.883723  8951 net.cpp:425] lstm1_W_xc_x_slice <- W_xc_x
I0924 03:49:56.883723  8941 net.cpp:148] Top shape: 1 1 1000 (1000)
I0924 03:49:56.883752  8941 net.cpp:156] Memory required for data: 86016
I0924 03:49:56.883761  8941 layer_factory.hpp:77] Creating layer lstm1_
I0924 03:49:56.883761  8951 net.cpp:399] lstm1_W_xc_x_slice -> W_xc_x_1
I0924 03:49:56.883774  8903 net.cpp:141] Setting up cont_1_lstm1_cont_slice_0_split
I0924 03:49:56.883776  8941 net.cpp:91] Creating Layer lstm1_
I0924 03:49:56.883797  8903 net.cpp:148] Top shape: 1 1 (1)
I0924 03:49:56.883798  8941 net.cpp:425] lstm1_ <- c_1
I0924 03:49:56.883818  8903 net.cpp:148] Top shape: 1 1 (1)
I0924 03:49:56.883824  8941 net.cpp:399] lstm1_ -> c_T
I0924 03:49:56.883816  8907 net.cpp:141] Setting up lstm1_h_concat
I0924 03:49:56.883829  8903 net.cpp:156] Memory required for data: 10016
I0924 03:49:56.883846  8907 net.cpp:148] Top shape: 1 1 1000 (1000)
I0924 03:49:56.883847  8903 layer_factory.hpp:77] Creating layer lstm1_x_transform
I0924 03:49:56.883855  8907 net.cpp:156] Memory required for data: 94016
I0924 03:49:56.883862  8907 layer_factory.hpp:77] Creating layer h_pseudoloss
I0924 03:49:56.883868  8903 net.cpp:91] Creating Layer lstm1_x_transform
I0924 03:49:56.883877  8903 net.cpp:425] lstm1_x_transform <- x
I0924 03:49:56.883882  8907 net.cpp:91] Creating Layer h_pseudoloss
I0924 03:49:56.883889  8907 net.cpp:425] h_pseudoloss <- h
I0924 03:49:56.883893  8903 net.cpp:399] lstm1_x_transform -> W_xc_x
I0924 03:49:56.883901  8907 net.cpp:399] h_pseudoloss -> h_pseudoloss
I0924 03:49:56.886795  8941 net.cpp:141] Setting up lstm1_
I0924 03:49:56.886822  8941 net.cpp:148] Top shape: 1 1 1000 (1000)
I0924 03:49:56.886831  8941 net.cpp:156] Memory required for data: 90016
I0924 03:49:56.886838  8941 layer_factory.hpp:77] Creating layer lstm1_h_concat
I0924 03:49:56.886853  8941 net.cpp:91] Creating Layer lstm1_h_concat
I0924 03:49:56.886862  8941 net.cpp:425] lstm1_h_concat <- h_1
I0924 03:49:56.886879  8941 net.cpp:399] lstm1_h_concat -> h
I0924 03:49:56.886976  8907 net.cpp:141] Setting up h_pseudoloss
I0924 03:49:56.886992  8907 net.cpp:148] Top shape: (1)
I0924 03:49:56.886999  8907 net.cpp:151]     with loss weight 1
I0924 03:49:56.887051  8907 net.cpp:156] Memory required for data: 94020
I0924 03:49:56.887059  8907 net.cpp:217] h_pseudoloss needs backward computation.
I0924 03:49:56.887068  8907 net.cpp:217] lstm1_h_concat needs backward computation.
I0924 03:49:56.887075  8907 net.cpp:219] lstm1_ does not need backward computation.
I0924 03:49:56.887084  8907 net.cpp:217] lstm1_unit_1 needs backward computation.
I0924 03:49:56.887079  8951 net.cpp:141] Setting up lstm1_W_xc_x_slice
I0924 03:49:56.887094  8907 net.cpp:217] lstm1_gate_input_1 needs backward computation.
I0924 03:49:56.887116  8941 net.cpp:141] Setting up lstm1_h_concat
I0924 03:49:56.887126  8907 net.cpp:217] lstm1_transform_1 needs backward computation.
I0924 03:49:56.887130  8951 net.cpp:148] Top shape: 1 1 4000 (4000)
I0924 03:49:56.887137  8907 net.cpp:219] lstm1_h_conted_0 does not need backward computation.
I0924 03:49:56.887147  8907 net.cpp:217] lstm1_W_xc_x_slice needs backward computation.
I0924 03:49:56.887131  8941 net.cpp:148] Top shape: 1 1 1000 (1000)
I0924 03:49:56.887151  8951 net.cpp:156] Memory required for data: 42016
I0924 03:49:56.887156  8907 net.cpp:217] lstm1_x_transform needs backward computation.
I0924 03:49:56.887158  8941 net.cpp:156] Memory required for data: 94016
I0924 03:49:56.887164  8951 layer_factory.hpp:77] Creating layer lstm1_h_conted_0
I0924 03:49:56.887166  8907 net.cpp:219] cont_1_lstm1_cont_slice_0_split does not need backward computation.
…
I0924 03:49:56.892721  8941 net.cpp:219] lstm1_ does not need backward computation.
I0924 03:49:56.892729  8941 net.cpp:261] This network produces output c_T
I0924 03:49:56.892736  8941 net.cpp:261] This network produces output h_pseudoloss
I0924 03:49:56.892763  8941 net.cpp:274] Network initialization done.
I0924 03:49:56.892835  8941 recurrent_layer.cpp:150] Adding parameter 0: W_xc
I0924 03:49:56.892845  8941 recurrent_layer.cpp:150] Adding parameter 1: b_c
I0924 03:49:56.892853  8941 recurrent_layer.cpp:150] Adding parameter 2: W_hc
I0924 03:49:56.893004  8941 net.cpp:141] Setting up lstm1
I0924 03:49:56.893020  8941 net.cpp:148] Top shape: 1 1 1000 (1000)
I0924 03:49:56.893028  8941 net.cpp:156] Memory required for data: 26408
I0924 03:49:56.893049  8941 layer_factory.hpp:77] Creating layer concat
I0924 03:49:56.893069  8941 net.cpp:91] Creating Layer concat
I0924 03:49:56.893077  8941 net.cpp:425] concat <- lstm1
I0924 03:49:56.893088  8941 net.cpp:425] concat <- embedded_input_sentence
I0924 03:49:56.893096  8941 net.cpp:425] concat <- reshaped_stage_indicator
I0924 03:49:56.893107  8941 net.cpp:399] concat -> lstm1_video_sequence
I0924 03:49:56.893159  8941 net.cpp:141] Setting up concat
I0924 03:49:56.893172  8941 net.cpp:148] Top shape: 1 1 1501 (1501)
I0924 03:49:56.893178  8941 net.cpp:156] Memory required for data: 32412
I0924 03:49:56.893187  8941 layer_factory.hpp:77] Creating layer lstm2
I0924 03:49:56.893205  8941 net.cpp:91] Creating Layer lstm2
I0924 03:49:56.893213  8941 net.cpp:425] lstm2 <- lstm1_video_sequence
I0924 03:49:56.893223  8941 net.cpp:425] lstm2 <- cont_sentence_input_1_split_1
I0924 03:49:56.893234  8941 net.cpp:399] lstm2 -> lstm2
I0924 03:49:56.893252  8941 recurrent_layer.cpp:20] Initializing recurrent layer: assuming input batch contains 1 timesteps of 1 independent streams.
I0924 03:49:56.893604  8941 net.cpp:49] Initializing net from parameters: 
layer {
  name: "lstm2_"
  type: "Input"
  top: "x"
  top: "cont"
  input_param {
    shape {
      dim: 1
      dim: 1
      dim: 1501
    }
    shape {
      dim: 1
      dim: 1
    }
  }
}
layer {
  name: "lstm2_"
  type: "Input"
  top: "c_0"
  top: "h_0"
  input_param {
    shape {
      dim: 1
      dim: 1
      dim: 1000
    }
    shape {
      dim: 1
      dim: 1
      dim: 1000
    }
  }
}
layer {
  name: "lstm2_cont_slice"
  type: "Slice"
  bottom: "cont"
  top: "cont_1"
  slice_param {
    axis: 0
  }
}
layer {
  name: "lstm2_x_transform"
  type: "InnerProduct"
  bottom: "x"
  top: "W_xc_x"
  param {
    name: "W_xc"
  }
  param {
    name: "b_c"
  }
  propagate_down: true
  inner_product_param {
    num_output: 4000
    bias_term: true
    weight_filler {
      type: "uniform"
      min: -0.08
      max: 0.08
    }
    bias_filler {
      type: "constant"
      value: 0
    }
    axis: 2
  }
}
layer {
  name: "lstm2_W_xc_x_slice"
  type: "Slice"
  bottom: "W_xc_x"
  top: "W_xc_x_1"
  slice_param {
    axis: 0
  }
}
layer {
  name: "lstm2_h_conted_0"
  type: "Scale"
  bottom: "h_0"
  bottom: "cont_1"
  top: "h_conted_0"
  scale_param {
    axis: 0
  }
}
layer {
  name: "lstm2_transform_1"
  type: "InnerProduct"
  bottom: "h_conted_0"
  top: "W_hc_h_0"
  param {
    name: "W_hc"
  }
  inner_product_param {
    num_output: 4000
    bias_term: false
    weight_filler {
      type: "uniform"
      min: -0.08
      max: 0.08
    }
    axis: 2
  }
}
layer {
  name: "lstm2_gate_input_1"
  type: "Eltwise"
  bottom: "W_hc_h_0"
  bottom: "W_xc_x_1"
  top: "gate_input_1"
  eltwise_param {
    operation: SUM
  }
}
layer {
  name: "lstm2_unit_1"
  type: "LSTMUnit"
  bottom: "c_0"
  bottom: "gate_input_1"
  bottom: "cont_1"
  top: "c_1"
  top: "h_1"
}
layer {
  name: "lstm2_"
  type: "Split"
  bottom: "c_1"
  top: "c_T"
}
layer {
  name: "lstm2_h_concat"
  type: "Concat"
  bottom: "h_1"
  top: "h"
  concat_param {
    axis: 0
  }
}
layer {
  name: "h_pseudoloss"
  type: "Reduction"
  bottom: "h"
  top: "h_pseudoloss"
  loss_weight: 1
}
I0924 03:49:56.893736  8941 layer_factory.hpp:77] Creating layer lstm2_
I0924 03:49:56.893754  8941 net.cpp:91] Creating Layer lstm2_
I0924 03:49:56.893764  8941 net.cpp:399] lstm2_ -> x
I0924 03:49:56.893779  8941 net.cpp:399] lstm2_ -> cont
I0924 03:49:56.893859  8941 net.cpp:141] Setting up lstm2_
I0924 03:49:56.893873  8941 net.cpp:148] Top shape: 1 1 1501 (1501)
I0924 03:49:56.893883  8941 net.cpp:148] Top shape: 1 1 (1)
I0924 03:49:56.893889  8941 net.cpp:156] Memory required for data: 6008
I0924 03:49:56.893898  8941 layer_factory.hpp:77] Creating layer lstm2_
I0924 03:49:56.893910  8941 net.cpp:91] Creating Layer lstm2_
I0924 03:49:56.893923  8941 net.cpp:399] lstm2_ -> c_0
I0924 03:49:56.893944  8941 net.cpp:399] lstm2_ -> h_0
I0924 03:49:56.894024  8941 net.cpp:141] Setting up lstm2_
I0924 03:49:56.894038  8941 net.cpp:148] Top shape: 1 1 1000 (1000)
I0924 03:49:56.894048  8941 net.cpp:148] Top shape: 1 1 1000 (1000)
I0924 03:49:56.894054  8941 net.cpp:156] Memory required for data: 14008
I0924 03:49:56.894062  8941 layer_factory.hpp:77] Creating layer lstm2_cont_slice
I0924 03:49:56.894074  8941 net.cpp:91] Creating Layer lstm2_cont_slice
I0924 03:49:56.894081  8941 net.cpp:425] lstm2_cont_slice <- cont
I0924 03:49:56.894093  8941 net.cpp:399] lstm2_cont_slice -> cont_1
I0924 03:49:56.894145  8941 net.cpp:141] Setting up lstm2_cont_slice
I0924 03:49:56.894157  8941 net.cpp:148] Top shape: 1 1 (1)
I0924 03:49:56.894165  8941 net.cpp:156] Memory required for data: 14012
I0924 03:49:56.894171  8941 layer_factory.hpp:77] Creating layer cont_1_lstm2_cont_slice_0_split
I0924 03:49:56.894186  8941 net.cpp:91] Creating Layer cont_1_lstm2_cont_slice_0_split
I0924 03:49:56.894193  8941 net.cpp:425] cont_1_lstm2_cont_slice_0_split <- cont_1
I0924 03:49:56.894203  8941 net.cpp:399] cont_1_lstm2_cont_slice_0_split -> cont_1_lstm2_cont_slice_0_split_0
I0924 03:49:56.894218  8941 net.cpp:399] cont_1_lstm2_cont_slice_0_split -> cont_1_lstm2_cont_slice_0_split_1
I0924 03:49:56.894284  8941 net.cpp:141] Setting up cont_1_lstm2_cont_slice_0_split
I0924 03:49:56.894296  8941 net.cpp:148] Top shape: 1 1 (1)
I0924 03:49:56.894305  8941 net.cpp:148] Top shape: 1 1 (1)
I0924 03:49:56.894311  8941 net.cpp:156] Memory required for data: 14020
I0924 03:49:56.894320  8941 layer_factory.hpp:77] Creating layer lstm2_x_transform
I0924 03:49:56.894333  8941 net.cpp:91] Creating Layer lstm2_x_transform
I0924 03:49:56.894340  8941 net.cpp:425] lstm2_x_transform <- x
I0924 03:49:56.894356  8941 net.cpp:399] lstm2_x_transform -> W_xc_x
I0924 03:49:56.911118  8925 net.cpp:141] Setting up embedding
I0924 03:49:56.911178  8925 net.cpp:148] Top shape: 1 1 500 (500)
I0924 03:49:56.911190  8925 net.cpp:156] Memory required for data: 22408
I0924 03:49:56.911228  8925 layer_factory.hpp:77] Creating layer lstm1
I0924 03:49:56.911257  8925 net.cpp:91] Creating Layer lstm1
I0924 03:49:56.911269  8925 net.cpp:425] lstm1 <- embedded_input_frames
I0924 03:49:56.911281  8925 net.cpp:425] lstm1 <- cont_sentence_input_1_split_0
I0924 03:49:56.911298  8925 net.cpp:399] lstm1 -> lstm1
I0924 03:49:56.911325  8925 recurrent_layer.cpp:20] Initializing recurrent layer: assuming input batch contains 1 timesteps of 1 independent streams.
I0924 03:49:56.911417  8951 net.cpp:141] Setting up lstm1_h_conted_0
I0924 03:49:56.911456  8951 net.cpp:148] Top shape: 1 1 1000 (1000)
I0924 03:49:56.911466  8951 net.cpp:156] Memory required for data: 46016
I0924 03:49:56.911478  8951 layer_factory.hpp:77] Creating layer lstm1_transform_1
I0924 03:49:56.911502  8951 net.cpp:91] Creating Layer lstm1_transform_1
I0924 03:49:56.911514  8951 net.cpp:425] lstm1_transform_1 <- h_conted_0
I0924 03:49:56.911530  8951 net.cpp:399] lstm1_transform_1 -> W_hc_h_0
I0924 03:49:56.911777  8925 net.cpp:49] Initializing net from parameters: 
layer {
  name: "lstm1_"
  type: "Input"
  top: "x"
  top: "cont"
  input_param {
    shape {
      dim: 1
      dim: 1
      dim: 500
    }
    shape {
      dim: 1
      dim: 1
    }
  }
}
layer {
  name: "lstm1_"
  type: "Input"
  top: "c_0"
  top: "h_0"
  input_param {
    shape {
      dim: 1
      dim: 1
      dim: 1000
    }
    shape {
      dim: 1
      dim: 1
      dim: 1000
    }
  }
}
layer {
  name: "lstm1_cont_slice"
  type: "Slice"
  bottom: "cont"
  top: "cont_1"
  slice_param {
    axis: 0
  }
}
layer {
  name: "lstm1_x_transform"
  type: "InnerProduct"
  bottom: "x"
  top: "W_xc_x"
  param {
    name: "W_xc"
  }
  param {
    name: "b_c"
  }
  propagate_down: true
  inner_product_param {
    num_output: 4000
    bias_term: true
    weight_filler {
      type: "uniform"
      min: -0.08
      max: 0.08
    }
    bias_filler {
      type: "constant"
      value: 0
    }
    axis: 2
  }
}
layer {
  name: "lstm1_W_xc_x_slice"
  type: "Slice"
  bottom: "W_xc_x"
  top: "W_xc_x_1"
  slice_param {
    axis: 0
  }
}
layer {
  name: "lstm1_h_conted_0"
  type: "Scale"
  bottom: "h_0"
  bottom: "cont_1"
  top: "h_conted_0"
  scale_param {
    axis: 0
  }
}
layer {
  name: "lstm1_transform_1"
  type: "InnerProduct"
  bottom: "h_conted_0"
  top: "W_hc_h_0"
  param {
    name: "W_hc"
  }
  inner_product_param {
    num_output: 4000
    bias_term: false
    weight_filler {
      type: "uniform"
      min: -0.08
      max: 0.08
    }
    axis: 2
  }
}
layer {
  name: "lstm1_gate_input_1"
  type: "Eltwise"
  bottom: "W_hc_h_0"
  bottom: "W_xc_x_1"
  top: "gate_input_1"
  eltwise_param {
    operation: SUM
  }
}
layer {
  name: "lstm1_unit_1"
  type: "LSTMUnit"
  bottom: "c_0"
  bottom: "gate_input_1"
  bottom: "cont_1"
  top: "c_1"
  top: "h_1"
}
layer {
  name: "lstm1_"
  type: "Split"
  bottom: "c_1"
  top: "c_T"
}
layer {
  name: "lstm1_h_concat"
  type: "Concat"
  bottom: "h_1"
  top: "h"
  concat_param {
    axis: 0
  }
}
layer {
  name: "h_pseudoloss"
  type: "Reduction"
  bottom: "h"
  top: "h_pseudoloss"
  loss_weight: 1
}
I0924 03:49:56.911983  8925 layer_factory.hpp:77] Creating layer lstm1_
I0924 03:49:56.912005  8925 net.cpp:91] Creating Layer lstm1_
I0924 03:49:56.912019  8925 net.cpp:399] lstm1_ -> x
I0924 03:49:56.912041  8925 net.cpp:399] lstm1_ -> cont
I0924 03:49:56.911187  8921 net.cpp:141] Setting up lstm1_transform_1
I0924 03:49:56.914695  8921 net.cpp:148] Top shape: 1 1 4000 (4000)
I0924 03:49:56.914712  8921 net.cpp:156] Memory required for data: 62016
I0924 03:49:56.914737  8921 layer_factory.hpp:77] Creating layer lstm1_gate_input_1
I0924 03:49:56.914763  8921 net.cpp:91] Creating Layer lstm1_gate_input_1
I0924 03:49:56.914774  8921 net.cpp:425] lstm1_gate_input_1 <- W_hc_h_0
I0924 03:49:56.914785  8921 net.cpp:425] lstm1_gate_input_1 <- W_xc_x_1
I0924 03:49:56.920080  8921 net.cpp:399] lstm1_gate_input_1 -> gate_input_1
I0924 03:49:56.921761  8909 net.cpp:141] Setting up lstm1_transform_1
I0924 03:49:56.921823  8909 net.cpp:148] Top shape: 1 1 4000 (4000)
I0924 03:49:56.921835  8909 net.cpp:156] Memory required for data: 62016
I0924 03:49:56.921864  8909 layer_factory.hpp:77] Creating layer lstm1_gate_input_1
I0924 03:49:56.921897  8909 net.cpp:91] Creating Layer lstm1_gate_input_1
I0924 03:49:56.921910  8909 net.cpp:425] lstm1_gate_input_1 <- W_hc_h_0
I0924 03:49:56.921923  8909 net.cpp:425] lstm1_gate_input_1 <- W_xc_x_1
I0924 03:49:56.921937  8909 net.cpp:399] lstm1_gate_input_1 -> gate_input_1
I0924 03:49:56.922065  8921 net.cpp:141] Setting up lstm1_gate_input_1
I0924 03:49:56.922096  8921 net.cpp:148] Top shape: 1 1 4000 (4000)
I0924 03:49:56.922104  8921 net.cpp:156] Memory required for data: 78016
I0924 03:49:56.922114  8921 layer_factory.hpp:77] Creating layer lstm1_unit_1
I0924 03:49:56.922130  8921 net.cpp:91] Creating Layer lstm1_unit_1
I0924 03:49:56.922138  8921 net.cpp:425] lstm1_unit_1 <- c_0
I0924 03:49:56.922149  8921 net.cpp:425] lstm1_unit_1 <- gate_input_1
I0924 03:49:56.922158  8921 net.cpp:425] lstm1_unit_1 <- cont_1_lstm1_cont_slice_0_split_1
I0924 03:49:56.922169  8921 net.cpp:399] lstm1_unit_1 -> c_1
I0924 03:49:56.922184  8921 net.cpp:399] lstm1_unit_1 -> h_1
I0924 03:49:56.922497  8925 net.cpp:141] Setting up lstm1_
I0924 03:49:56.922520  8925 net.cpp:148] Top shape: 1 1 500 (500)
I0924 03:49:56.922533  8925 net.cpp:148] Top shape: 1 1 (1)
I0924 03:49:56.922540  8925 net.cpp:156] Memory required for data: 2004
I0924 03:49:56.922550  8925 layer_factory.hpp:77] Creating layer lstm1_
I0924 03:49:56.922574  8925 net.cpp:91] Creating Layer lstm1_
I0924 03:49:56.922593  8925 net.cpp:399] lstm1_ -> c_0
I0924 03:49:56.922688  8925 net.cpp:399] lstm1_ -> h_0
I0924 03:49:56.922794  8925 net.cpp:141] Setting up lstm1_
I0924 03:49:56.922812  8925 net.cpp:148] Top shape: 1 1 1000 (1000)
I0924 03:49:56.922823  8925 net.cpp:148] Top shape: 1 1 1000 (1000)
I0924 03:49:56.922832  8925 net.cpp:156] Memory required for data: 10004
I0924 03:49:56.922839  8925 layer_factory.hpp:77] Creating layer lstm1_cont_slice
I0924 03:49:56.922859  8925 net.cpp:91] Creating Layer lstm1_cont_slice
I0924 03:49:56.922868  8925 net.cpp:425] lstm1_cont_slice <- cont
I0924 03:49:56.922888  8925 net.cpp:399] lstm1_cont_slice -> cont_1
I0924 03:49:56.922967  8925 net.cpp:141] Setting up lstm1_cont_slice
I0924 03:49:56.922986  8925 net.cpp:148] Top shape: 1 1 (1)
I0924 03:49:56.922994  8925 net.cpp:156] Memory required for data: 10008
I0924 03:49:56.923002  8925 layer_factory.hpp:77] Creating layer cont_1_lstm1_cont_slice_0_split
I0924 03:49:56.923017  8925 net.cpp:91] Creating Layer cont_1_lstm1_cont_slice_0_split
I0924 03:49:56.923027  8925 net.cpp:425] cont_1_lstm1_cont_slice_0_split <- cont_1
I0924 03:49:56.923044  8925 net.cpp:399] cont_1_lstm1_cont_slice_0_split -> cont_1_lstm1_cont_slice_0_split_0
I0924 03:49:56.923065  8925 net.cpp:399] cont_1_lstm1_cont_slice_0_split -> cont_1_lstm1_cont_slice_0_split_1
I0924 03:49:56.923167  8925 net.cpp:141] Setting up cont_1_lstm1_cont_slice_0_split
I0924 03:49:56.923185  8925 net.cpp:148] Top shape: 1 1 (1)
I0924 03:49:56.923200  8925 net.cpp:148] Top shape: 1 1 (1)
I0924 03:49:56.923209  8925 net.cpp:156] Memory required for data: 10016
I0924 03:49:56.923220  8925 layer_factory.hpp:77] Creating layer lstm1_x_transform
I0924 03:49:56.923250  8925 net.cpp:91] Creating Layer lstm1_x_transform
I0924 03:49:56.923264  8925 net.cpp:425] lstm1_x_transform <- x
I0924 03:49:56.923280  8925 net.cpp:399] lstm1_x_transform -> W_xc_x
I0924 03:49:56.932513  8907 net.cpp:141] Setting up lstm1
I0924 03:49:56.932566  8907 net.cpp:148] Top shape: 1 1 1000 (1000)
I0924 03:49:56.932576  8907 net.cpp:156] Memory required for data: 26408
I0924 03:49:56.932611  8907 layer_factory.hpp:77] Creating layer concat
I0924 03:49:56.932711  8907 net.cpp:91] Creating Layer concat
I0924 03:49:56.932747  8907 net.cpp:425] concat <- lstm1
I0924 03:49:56.932761  8907 net.cpp:425] concat <- embedded_input_sentence
I0924 03:49:56.932771  8907 net.cpp:425] concat <- reshaped_stage_indicator
I0924 03:49:56.932785  8907 net.cpp:399] concat -> lstm1_video_sequence
I0924 03:49:56.932909  8907 net.cpp:141] Setting up concat
I0924 03:49:56.932929  8907 net.cpp:148] Top shape: 1 1 1501 (1501)
I0924 03:49:56.932936  8907 net.cpp:156] Memory required for data: 32412
I0924 03:49:56.932945  8907 layer_factory.hpp:77] Creating layer lstm2
I0924 03:49:56.932967  8907 net.cpp:91] Creating Layer lstm2
I0924 03:49:56.932976  8907 net.cpp:425] lstm2 <- lstm1_video_sequence
I0924 03:49:56.932986  8907 net.cpp:425] lstm2 <- cont_sentence_input_1_split_1
I0924 03:49:56.932998  8907 net.cpp:399] lstm2 -> lstm2
I0924 03:49:56.933018  8907 recurrent_layer.cpp:20] Initializing recurrent layer: assuming input batch contains 1 timesteps of 1 independent streams.
I0924 03:49:56.933400  8907 net.cpp:49] Initializing net from parameters: 
layer {
  name: "lstm2_"
  type: "Input"
  top: "x"
  top: "cont"
  input_param {
    shape {
      dim: 1
      dim: 1
      dim: 1501
    }
    shape {
      dim: 1
      dim: 1
    }
  }
}
layer {
  name: "lstm2_"
  type: "Input"
  top: "c_0"
  top: "h_0"
  input_param {
    shape {
      dim: 1
      dim: 1
      dim: 1000
    }
    shape {
      dim: 1
      dim: 1
      dim: 1000
    }
  }
}
layer {
  name: "lstm2_cont_slice"
  type: "Slice"
  bottom: "cont"
  top: "cont_1"
  slice_param {
    axis: 0
  }
}
layer {
  name: "lstm2_x_transform"
  type: "InnerProduct"
  bottom: "x"
  top: "W_xc_x"
  param {
    name: "W_xc"
  }
  param {
    name: "b_c"
  }
  propagate_down: true
  inner_product_param {
    num_output: 4000
    bias_term: true
    weight_filler {
      type: "uniform"
      min: -0.08
      max: 0.08
    }
    bias_filler {
      type: "constant"
      value: 0
    }
    axis: 2
  }
}
layer {
  name: "lstm2_W_xc_x_slice"
  type: "Slice"
  bottom: "W_xc_x"
  top: "W_xc_x_1"
  slice_param {
    axis: 0
  }
}
layer {
  name: "lstm2_h_conted_0"
  type: "Scale"
  bottom: "h_0"
  bottom: "cont_1"
  top: "h_conted_0"
  scale_param {
    axis: 0
  }
}
layer {
  name: "lstm2_transform_1"
  type: "InnerProduct"
  bottom: "h_conted_0"
  top: "W_hc_h_0"
  param {
    name: "W_hc"
  }
  inner_product_param {
    num_output: 4000
    bias_term: false
    weight_filler {
      type: "uniform"
      min: -0.08
      max: 0.08
    }
    axis: 2
  }
}
layer {
  name: "lstm2_gate_input_1"
  type: "Eltwise"
  bottom: "W_hc_h_0"
  bottom: "W_xc_x_1"
  top: "gate_input_1"
  eltwise_param {
    operation: SUM
  }
}
layer {
  name: "lstm2_unit_1"
  type: "LSTMUnit"
  bottom: "c_0"
  bottom: "gate_input_1"
  bottom: "cont_1"
  top: "c_1"
  top: "h_1"
}
layer {
  name: "lstm2_"
  type: "Split"
  bottom: "c_1"
  top: "c_T"
}
layer {
  name: "lstm2_h_concat"
  type: "Concat"
  bottom: "h_1"
  top: "h"
  concat_param {
    axis: 0
  }
}
layer {
  name: "h_pseudoloss"
  type: "Reduction"
  bottom: "h"
  top: "h_pseudoloss"
  loss_weight: 1
}
I0924 03:49:56.933531  8907 layer_factory.hpp:77] Creating layer lstm2_
I0924 03:49:56.933547  8907 net.cpp:91] Creating Layer lstm2_
I0924 03:49:56.933557  8907 net.cpp:399] lstm2_ -> x
I0924 03:49:56.933573  8907 net.cpp:399] lstm2_ -> cont
I0924 03:49:56.933665  8907 net.cpp:141] Setting up lstm2_
I0924 03:49:56.933679  8907 net.cpp:148] Top shape: 1 1 1501 (1501)
I0924 03:49:56.933689  8907 net.cpp:148] Top shape: 1 1 (1)
I0924 03:49:56.933696  8907 net.cpp:156] Memory required for data: 6008
I0924 03:49:56.933703  8907 layer_factory.hpp:77] Creating layer lstm2_
I0924 03:49:56.933717  8907 net.cpp:91] Creating Layer lstm2_
I0924 03:49:56.933729  8907 net.cpp:399] lstm2_ -> c_0
I0924 03:49:56.933744  8907 net.cpp:399] lstm2_ -> h_0
I0924 03:49:56.933822  8907 net.cpp:141] Setting up lstm2_
I0924 03:49:56.933835  8907 net.cpp:148] Top shape: 1 1 1000 (1000)
I0924 03:49:56.933845  8907 net.cpp:148] Top shape: 1 1 1000 (1000)
I0924 03:49:56.933851  8907 net.cpp:156] Memory required for data: 14008
I0924 03:49:56.933859  8907 layer_factory.hpp:77] Creating layer lstm2_cont_slice
I0924 03:49:56.933872  8907 net.cpp:91] Creating Layer lstm2_cont_slice
I0924 03:49:56.933879  8907 net.cpp:425] lstm2_cont_slice <- cont
I0924 03:49:56.933890  8907 net.cpp:399] lstm2_cont_slice -> cont_1
I0924 03:49:56.933940  8907 net.cpp:141] Setting up lstm2_cont_slice
I0924 03:49:56.933954  8907 net.cpp:148] Top shape: 1 1 (1)
I0924 03:49:56.933960  8907 net.cpp:156] Memory required for data: 14012
I0924 03:49:56.933967  8907 layer_factory.hpp:77] Creating layer cont_1_lstm2_cont_slice_0_split
I0924 03:49:56.933984  8907 net.cpp:91] Creating Layer cont_1_lstm2_cont_slice_0_split
I0924 03:49:56.933991  8907 net.cpp:425] cont_1_lstm2_cont_slice_0_split <- cont_1
I0924 03:49:56.934001  8907 net.cpp:399] cont_1_lstm2_cont_slice_0_split -> cont_1_lstm2_cont_slice_0_split_0
I0924 03:49:56.934015  8907 net.cpp:399] cont_1_lstm2_cont_slice_0_split -> cont_1_lstm2_cont_slice_0_split_1
I0924 03:49:56.934085  8907 net.cpp:141] Setting up cont_1_lstm2_cont_slice_0_split
I0924 03:49:56.934098  8907 net.cpp:148] Top shape: 1 1 (1)
I0924 03:49:56.934108  8907 net.cpp:148] Top shape: 1 1 (1)
I0924 03:49:56.934114  8907 net.cpp:156] Memory required for data: 14020
I0924 03:49:56.934121  8907 layer_factory.hpp:77] Creating layer lstm2_x_transform
I0924 03:49:56.934135  8907 net.cpp:91] Creating Layer lstm2_x_transform
I0924 03:49:56.934142  8907 net.cpp:425] lstm2_x_transform <- x
I0924 03:49:56.934159  8907 net.cpp:399] lstm2_x_transform -> W_xc_x
I0924 03:49:56.948709  8909 net.cpp:141] Setting up lstm1_gate_input_1
I0924 03:49:56.948765  8909 net.cpp:148] Top shape: 1 1 4000 (4000)
I0924 03:49:56.948777  8909 net.cpp:156] Memory required for data: 78016
I0924 03:49:56.948792  8909 layer_factory.hpp:77] Creating layer lstm1_unit_1
I0924 03:49:56.948825  8909 net.cpp:91] Creating Layer lstm1_unit_1
I0924 03:49:56.948840  8909 net.cpp:425] lstm1_unit_1 <- c_0
I0924 03:49:56.948858  8909 net.cpp:425] lstm1_unit_1 <- gate_input_1
I0924 03:49:56.948870  8909 net.cpp:425] lstm1_unit_1 <- cont_1_lstm1_cont_slice_0_split_1
I0924 03:49:56.948885  8909 net.cpp:399] lstm1_unit_1 -> c_1
I0924 03:49:56.948878  8903 net.cpp:141] Setting up lstm1_x_transform
I0924 03:49:56.948911  8909 net.cpp:399] lstm1_unit_1 -> h_1
I0924 03:49:56.948922  8903 net.cpp:148] Top shape: 1 1 4000 (4000)
I0924 03:49:56.948933  8903 net.cpp:156] Memory required for data: 26016
I0924 03:49:56.948961  8903 layer_factory.hpp:77] Creating layer lstm1_W_xc_x_slice
I0924 03:49:56.948981  8903 net.cpp:91] Creating Layer lstm1_W_xc_x_slice
I0924 03:49:56.948987  8903 net.cpp:425] lstm1_W_xc_x_slice <- W_xc_x
I0924 03:49:56.948997  8903 net.cpp:399] lstm1_W_xc_x_slice -> W_xc_x_1
I0924 03:49:56.949220  8921 net.cpp:141] Setting up lstm1_unit_1
I0924 03:49:56.949239  8921 net.cpp:148] Top shape: 1 1 1000 (1000)
I0924 03:49:56.949247  8921 net.cpp:148] Top shape: 1 1 1000 (1000)
I0924 03:49:56.949251  8921 net.cpp:156] Memory required for data: 86016
I0924 03:49:56.949257  8921 layer_factory.hpp:77] Creating layer lstm1_
I0924 03:49:56.949266  8921 net.cpp:91] Creating Layer lstm1_
I0924 03:49:56.949275  8921 net.cpp:425] lstm1_ <- c_1
I0924 03:49:56.949287  8921 net.cpp:399] lstm1_ -> c_T
I0924 03:49:56.949368  8903 net.cpp:141] Setting up lstm1_W_xc_x_slice
I0924 03:49:56.949379  8903 net.cpp:148] Top shape: 1 1 4000 (4000)
I0924 03:49:56.949384  8903 net.cpp:156] Memory required for data: 42016
I0924 03:49:56.949389  8903 layer_factory.hpp:77] Creating layer lstm1_h_conted_0
I0924 03:49:56.949399  8903 net.cpp:91] Creating Layer lstm1_h_conted_0
I0924 03:49:56.949405  8903 net.cpp:425] lstm1_h_conted_0 <- h_0
I0924 03:49:56.949411  8903 net.cpp:425] lstm1_h_conted_0 <- cont_1_lstm1_cont_slice_0_split_0
I0924 03:49:56.949419  8903 net.cpp:399] lstm1_h_conted_0 -> h_conted_0
I0924 03:49:56.949486  8909 net.cpp:141] Setting up lstm1_unit_1
I0924 03:49:56.949508  8909 net.cpp:148] Top shape: 1 1 1000 (1000)
I0924 03:49:56.949522  8909 net.cpp:148] Top shape: 1 1 1000 (1000)
I0924 03:49:56.949530  8909 net.cpp:156] Memory required for data: 86016
I0924 03:49:56.949540  8909 layer_factory.hpp:77] Creating layer lstm1_
I0924 03:49:56.949550  8925 net.cpp:141] Setting up lstm1_x_transform
I0924 03:49:56.949555  8909 net.cpp:91] Creating Layer lstm1_
I0924 03:49:56.949579  8925 net.cpp:148] Top shape: 1 1 4000 (4000)
I0924 03:49:56.949587  8909 net.cpp:425] lstm1_ <- c_1
I0924 03:49:56.949589  8925 net.cpp:156] Memory required for data: 26016
I0924 03:49:56.949609  8909 net.cpp:399] lstm1_ -> c_T
I0924 03:49:56.949621  8925 layer_factory.hpp:77] Creating layer lstm1_W_xc_x_slice
I0924 03:49:56.949643  8925 net.cpp:91] Creating Layer lstm1_W_xc_x_slice
I0924 03:49:56.949654  8925 net.cpp:425] lstm1_W_xc_x_slice <- W_xc_x
I0924 03:49:56.949666  8925 net.cpp:399] lstm1_W_xc_x_slice -> W_xc_x_1
I0924 03:49:56.949702  8909 net.cpp:141] Setting up lstm1_
I0924 03:49:56.949720  8909 net.cpp:148] Top shape: 1 1 1000 (1000)
I0924 03:49:56.949729  8909 net.cpp:156] Memory required for data: 90016
I0924 03:49:56.949739  8909 layer_factory.hpp:77] Creating layer lstm1_h_concat
I0924 03:49:56.949764  8909 net.cpp:91] Creating Layer lstm1_h_concat
I0924 03:49:56.949774  8909 net.cpp:425] lstm1_h_concat <- h_1
I0924 03:49:56.949787  8909 net.cpp:399] lstm1_h_concat -> h
I0924 03:49:56.950564  8903 net.cpp:141] Setting up lstm1_h_conted_0
I0924 03:49:56.950623  8921 net.cpp:141] Setting up lstm1_
I0924 03:49:56.950628  8903 net.cpp:148] Top shape: 1 1 1000 (1000)
I0924 03:49:56.950637  8903 net.cpp:156] Memory required for data: 46016
I0924 03:49:56.950639  8921 net.cpp:148] Top shape: 1 1 1000 (1000)
I0924 03:49:56.950647  8921 net.cpp:156] Memory required for data: 90016
I0924 03:49:56.950646  8903 layer_factory.hpp:77] Creating layer lstm1_transform_1
I0924 03:49:56.950660  8921 layer_factory.hpp:77] Creating layer lstm1_h_concat
I0924 03:49:56.950675  8903 net.cpp:91] Creating Layer lstm1_transform_1
I0924 03:49:56.950681  8921 net.cpp:91] Creating Layer lstm1_h_concat
I0924 03:49:56.950686  8903 net.cpp:425] lstm1_transform_1 <- h_conted_0
I0924 03:49:56.950690  8921 net.cpp:425] lstm1_h_concat <- h_1
I0924 03:49:56.950706  8921 net.cpp:399] lstm1_h_concat -> h
I0924 03:49:56.950706  8903 net.cpp:399] lstm1_transform_1 -> W_hc_h_0
I0924 03:49:56.950767  8921 net.cpp:141] Setting up lstm1_h_concat
I0924 03:49:56.950778  8921 net.cpp:148] Top shape: 1 1 1000 (1000)
I0924 03:49:56.950783  8921 net.cpp:156] Memory required for data: 94016
I0924 03:49:56.950788  8921 layer_factory.hpp:77] Creating layer h_pseudoloss
I0924 03:49:56.950809  8921 net.cpp:91] Creating Layer h_pseudoloss
I0924 03:49:56.950815  8921 net.cpp:425] h_pseudoloss <- h
I0924 03:49:56.950824  8921 net.cpp:399] h_pseudoloss -> h_pseudoloss
I0924 03:49:56.950856  8909 net.cpp:141] Setting up lstm1_h_concat
I0924 03:49:56.950881  8909 net.cpp:148] Top shape: 1 1 1000 (1000)
I0924 03:49:56.950891  8909 net.cpp:156] Memory required for data: 94016
I0924 03:49:56.950896  8925 net.cpp:141] Setting up lstm1_W_xc_x_slice
I0924 03:49:56.950899  8909 layer_factory.hpp:77] Creating layer h_pseudoloss
I0924 03:49:56.950920  8925 net.cpp:148] Top shape: 1 1 4000 (4000)
I0924 03:49:56.950938  8909 net.cpp:91] Creating Layer h_pseudoloss
I0924 03:49:56.950973  8909 net.cpp:425] h_pseudoloss <- h
I0924 03:49:56.950997  8909 net.cpp:399] h_pseudoloss -> h_pseudoloss
I0924 03:49:56.951086  8921 net.cpp:141] Setting up h_pseudoloss
I0924 03:49:56.951104  8921 net.cpp:148] Top shape: (1)
I0924 03:49:56.951112  8921 net.cpp:151]     with loss weight 1
I0924 03:49:56.951134  8921 net.cpp:156] Memory required for data: 94020
…
I0924 03:49:56.951678  8909 net.cpp:261] This network produces output h_pseudoloss
I0924 03:49:56.951683  8925 net.cpp:425] lstm1_h_conted_0 <- cont_1_lstm1_cont_slice_0_split_0
I0924 03:49:56.951711  8925 net.cpp:399] lstm1_h_conted_0 -> h_conted_0
I0924 03:49:56.951725  8909 net.cpp:274] Network initialization done.
I0924 03:49:56.951812  8909 recurrent_layer.cpp:150] Adding parameter 0: W_xc
I0924 03:49:56.951825  8909 recurrent_layer.cpp:150] Adding parameter 1: b_c
I0924 03:49:56.951834  8909 recurrent_layer.cpp:150] Adding parameter 2: W_hc
I0924 03:49:56.952618  8921 net.cpp:141] Setting up lstm1
I0924 03:49:56.952637  8921 net.cpp:148] Top shape: 1 1 1000 (1000)
I0924 03:49:56.952646  8921 net.cpp:156] Memory required for data: 26408
I0924 03:49:56.952672  8921 layer_factory.hpp:77] Creating layer concat
I0924 03:49:56.952685  8921 net.cpp:91] Creating Layer concat
I0924 03:49:56.952692  8921 net.cpp:425] concat <- lstm1
I0924 03:49:56.952699  8921 net.cpp:425] concat <- embedded_input_sentence
I0924 03:49:56.952705  8921 net.cpp:425] concat <- reshaped_stage_indicator
I0924 03:49:56.952711  8921 net.cpp:399] concat -> lstm1_video_sequence
I0924 03:49:56.952764  8921 net.cpp:141] Setting up concat
I0924 03:49:56.952778  8921 net.cpp:148] Top shape: 1 1 1501 (1501)
I0924 03:49:56.952786  8921 net.cpp:156] Memory required for data: 32412
I0924 03:49:56.952795  8921 layer_factory.hpp:77] Creating layer lstm2
I0924 03:49:56.952812  8921 net.cpp:91] Creating Layer lstm2
I0924 03:49:56.952822  8921 net.cpp:425] lstm2 <- lstm1_video_sequence
I0924 03:49:56.952832  8921 net.cpp:425] lstm2 <- cont_sentence_input_1_split_1
I0924 03:49:56.952846  8921 net.cpp:399] lstm2 -> lstm2
I0924 03:49:56.952862  8921 recurrent_layer.cpp:20] Initializing recurrent layer: assuming input batch contains 1 timesteps of 1 independent streams.
I0924 03:49:56.953254  8921 net.cpp:49] Initializing net from parameters: 
layer {
  name: "lstm2_"
  type: "Input"
  top: "x"
  top: "cont"
  input_param {
    shape {
      dim: 1
      dim: 1
      dim: 1501
    }
    shape {
      dim: 1
      dim: 1
    }
  }
}
layer {
  name: "lstm2_"
  type: "Input"
  top: "c_0"
  top: "h_0"
  input_param {
    shape {
      dim: 1
      dim: 1
      dim: 1000
    }
    shape {
      dim: 1
      dim: 1
      dim: 1000
    }
  }
}
layer {
  name: "lstm2_cont_slice"
  type: "Slice"
  bottom: "cont"
  top: "cont_1"
  slice_param {
    axis: 0
  }
}
layer {
  name: "lstm2_x_transform"
  type: "InnerProduct"
  bottom: "x"
  top: "W_xc_x"
  param {
    name: "W_xc"
  }
  param {
    name: "b_c"
  }
  propagate_down: true
  inner_product_param {
    num_output: 4000
    bias_term: true
    weight_filler {
      type: "uniform"
      min: -0.08
      max: 0.08
    }
    bias_filler {
      type: "constant"
      value: 0
    }
    axis: 2
  }
}
layer {
  name: "lstm2_W_xc_x_slice"
  type: "Slice"
  bottom: "W_xc_x"
  top: "W_xc_x_1"
  slice_param {
    axis: 0
  }
}
layer {
  name: "lstm2_h_conted_0"
  type: "Scale"
  bottom: "h_0"
  bottom: "cont_1"
  top: "h_conted_0"
  scale_param {
    axis: 0
  }
}
layer {
  name: "lstm2_transform_1"
  type: "InnerProduct"
  bottom: "h_conted_0"
  top: "W_hc_h_0"
  param {
    name: "W_hc"
  }
  inner_product_param {
    num_output: 4000
    bias_term: false
    weight_filler {
      type: "uniform"
      min: -0.08
      max: 0.08
    }
    axis: 2
  }
}
layer {
  name: "lstm2_gate_input_1"
  type: "Eltwise"
  bottom: "W_hc_h_0"
  bottom: "W_xc_x_1"
  top: "gate_input_1"
  eltwise_param {
    operation: SUM
  }
}
layer {
  name: "lstm2_unit_1"
  type: "LSTMUnit"
  bottom: "c_0"
  bottom: "gate_input_1"
  bottom: "cont_1"
  top: "c_1"
  top: "h_1"
}
layer {
  name: "lstm2_"
  type: "Split"
  bottom: "c_1"
  top: "c_T"
}
layer {
  name: "lstm2_h_concat"
  type: "Concat"
  bottom: "h_1"
  top: "h"
  concat_param {
    axis: 0
  }
}
layer {
  name: "h_pseudoloss"
  type: "Reduction"
  bottom: "h"
  top: "h_pseudoloss"
  loss_weight: 1
}
I0924 03:49:56.953402  8921 layer_factory.hpp:77] Creating layer lstm2_
I0924 03:49:56.953421  8921 net.cpp:91] Creating Layer lstm2_
I0924 03:49:56.953431  8921 net.cpp:399] lstm2_ -> x
I0924 03:49:56.953450  8921 net.cpp:399] lstm2_ -> cont
I0924 03:49:56.956029  8909 net.cpp:141] Setting up lstm1
I0924 03:49:56.956070  8909 net.cpp:148] Top shape: 1 1 1000 (1000)
I0924 03:49:56.956084  8909 net.cpp:156] Memory required for data: 26408
I0924 03:49:56.956115  8909 layer_factory.hpp:77] Creating layer concat
I0924 03:49:56.956146  8909 net.cpp:91] Creating Layer concat
I0924 03:49:56.956159  8909 net.cpp:425] concat <- lstm1
I0924 03:49:56.956173  8909 net.cpp:425] concat <- embedded_input_sentence
I0924 03:49:56.956185  8909 net.cpp:425] concat <- reshaped_stage_indicator
I0924 03:49:56.956200  8909 net.cpp:399] concat -> lstm1_video_sequence
I0924 03:49:56.956264  8909 net.cpp:141] Setting up concat
I0924 03:49:56.956282  8909 net.cpp:148] Top shape: 1 1 1501 (1501)
I0924 03:49:56.956291  8909 net.cpp:156] Memory required for data: 32412
I0924 03:49:56.956301  8909 layer_factory.hpp:77] Creating layer lstm2
I0924 03:49:56.956324  8909 net.cpp:91] Creating Layer lstm2
I0924 03:49:56.956336  8909 net.cpp:425] lstm2 <- lstm1_video_sequence
I0924 03:49:56.956348  8909 net.cpp:425] lstm2 <- cont_sentence_input_1_split_1
I0924 03:49:56.956364  8909 net.cpp:399] lstm2 -> lstm2
I0924 03:49:56.956384  8909 recurrent_layer.cpp:20] Initializing recurrent layer: assuming input batch contains 1 timesteps of 1 independent streams.
I0924 03:49:56.956851  8909 net.cpp:49] Initializing net from parameters: 
layer {
  name: "lstm2_"
  type: "Input"
  top: "x"
  top: "cont"
  input_param {
    shape {
      dim: 1
      dim: 1
      dim: 1501
    }
    shape {
      dim: 1
      dim: 1
    }
  }
}
layer {
  name: "lstm2_"
  type: "Input"
  top: "c_0"
  top: "h_0"
  input_param {
    shape {
      dim: 1
      dim: 1
      dim: 1000
    }
    shape {
      dim: 1
      dim: 1
      dim: 1000
    }
  }
}
layer {
  name: "lstm2_cont_slice"
  type: "Slice"
  bottom: "cont"
  top: "cont_1"
  slice_param {
    axis: 0
  }
}
layer {
  name: "lstm2_x_transform"
  type: "InnerProduct"
  bottom: "x"
  top: "W_xc_x"
  param {
    name: "W_xc"
  }
  param {
    name: "b_c"
  }
  propagate_down: true
  inner_product_param {
    num_output: 4000
    bias_term: true
    weight_filler {
      type: "uniform"
      min: -0.08
      max: 0.08
    }
    bias_filler {
      type: "constant"
      value: 0
    }
    axis: 2
  }
}
layer {
  name: "lstm2_W_xc_x_slice"
  type: "Slice"
  bottom: "W_xc_x"
  top: "W_xc_x_1"
  slice_param {
    axis: 0
  }
}
layer {
  name: "lstm2_h_conted_0"
  type: "Scale"
  bottom: "h_0"
  bottom: "cont_1"
  top: "h_conted_0"
  scale_param {
    axis: 0
  }
}
layer {
  name: "lstm2_transform_1"
  type: "InnerProduct"
  bottom: "h_conted_0"
  top: "W_hc_h_0"
  param {
    name: "W_hc"
  }
  inner_product_param {
    num_output: 4000
    bias_term: false
    weight_filler {
      type: "uniform"
      min: -0.08
      max: 0.08
    }
    axis: 2
  }
}
layer {
  name: "lstm2_gate_input_1"
  type: "Eltwise"
  bottom: "W_hc_h_0"
  bottom: "W_xc_x_1"
  top: "gate_input_1"
  eltwise_param {
    operation: SUM
  }
}
layer {
  name: "lstm2_unit_1"
  type: "LSTMUnit"
  bottom: "c_0"
  bottom: "gate_input_1"
  bottom: "cont_1"
  top: "c_1"
  top: "h_1"
}
layer {
  name: "lstm2_"
  type: "Split"
  bottom: "c_1"
  top: "c_T"
}
layer {
  name: "lstm2_h_concat"
  type: "Concat"
  bottom: "h_1"
  top: "h"
  concat_param {
    axis: 0
  }
}
layer {
  name: "h_pseudoloss"
  type: "Reduction"
  bottom: "h"
  top: "h_pseudoloss"
  loss_weight: 1
}
I0924 03:49:56.957015  8909 layer_factory.hpp:77] Creating layer lstm2_
I0924 03:49:56.957037  8909 net.cpp:91] Creating Layer lstm2_
I0924 03:49:56.957052  8909 net.cpp:399] lstm2_ -> x
I0924 03:49:56.957073  8909 net.cpp:399] lstm2_ -> cont
I0924 03:49:56.957173  8909 net.cpp:141] Setting up lstm2_
I0924 03:49:56.957191  8909 net.cpp:148] Top shape: 1 1 1501 (1501)
I0924 03:49:56.957206  8909 net.cpp:148] Top shape: 1 1 (1)
I0924 03:49:56.957214  8909 net.cpp:156] Memory required for data: 6008
I0924 03:49:56.957224  8909 layer_factory.hpp:77] Creating layer lstm2_
I0924 03:49:56.957240  8909 net.cpp:91] Creating Layer lstm2_
I0924 03:49:56.957255  8909 net.cpp:399] lstm2_ -> c_0
I0924 03:49:56.957275  8909 net.cpp:399] lstm2_ -> h_0
I0924 03:49:56.957387  8909 net.cpp:141] Setting up lstm2_
I0924 03:49:56.957406  8909 net.cpp:148] Top shape: 1 1 1000 (1000)
I0924 03:49:56.957418  8909 net.cpp:148] Top shape: 1 1 1000 (1000)
I0924 03:49:56.957427  8909 net.cpp:156] Memory required for data: 14008
I0924 03:49:56.957437  8909 layer_factory.hpp:77] Creating layer lstm2_cont_slice
I0924 03:49:56.957453  8909 net.cpp:91] Creating Layer lstm2_cont_slice
I0924 03:49:56.957463  8909 net.cpp:425] lstm2_cont_slice <- cont
I0924 03:49:56.957486  8909 net.cpp:399] lstm2_cont_slice -> cont_1
I0924 03:49:56.957547  8909 net.cpp:141] Setting up lstm2_cont_slice
I0924 03:49:56.957568  8909 net.cpp:148] Top shape: 1 1 (1)
I0924 03:49:56.957578  8909 net.cpp:156] Memory required for data: 14012
I0924 03:49:56.957587  8909 layer_factory.hpp:77] Creating layer cont_1_lstm2_cont_slice_0_split
I0924 03:49:56.957602  8909 net.cpp:91] Creating Layer cont_1_lstm2_cont_slice_0_split
I0924 03:49:56.957612  8909 net.cpp:425] cont_1_lstm2_cont_slice_0_split <- cont_1
I0924 03:49:56.957626  8909 net.cpp:399] cont_1_lstm2_cont_slice_0_split -> cont_1_lstm2_cont_slice_0_split_0
I0924 03:49:56.957644  8909 net.cpp:399] cont_1_lstm2_cont_slice_0_split -> cont_1_lstm2_cont_slice_0_split_1
I0924 03:49:56.957744  8909 net.cpp:141] Setting up cont_1_lstm2_cont_slice_0_split
I0924 03:49:56.957762  8909 net.cpp:148] Top shape: 1 1 (1)
I0924 03:49:56.957773  8909 net.cpp:148] Top shape: 1 1 (1)
I0924 03:49:56.957782  8909 net.cpp:156] Memory required for data: 14020
I0924 03:49:56.957792  8909 layer_factory.hpp:77] Creating layer lstm2_x_transform
I0924 03:49:56.957815  8909 net.cpp:91] Creating Layer lstm2_x_transform
I0924 03:49:56.957828  8909 net.cpp:425] lstm2_x_transform <- x
I0924 03:49:56.957846  8909 net.cpp:399] lstm2_x_transform -> W_xc_x
I0924 03:49:56.982880  8951 net.cpp:141] Setting up lstm1_transform_1
I0924 03:49:56.982938  8951 net.cpp:148] Top shape: 1 1 4000 (4000)
I0924 03:49:56.982950  8951 net.cpp:156] Memory required for data: 62016
I0924 03:49:56.982983  8951 layer_factory.hpp:77] Creating layer lstm1_gate_input_1
I0924 03:49:56.983024  8951 net.cpp:91] Creating Layer lstm1_gate_input_1
I0924 03:49:56.983039  8951 net.cpp:425] lstm1_gate_input_1 <- W_hc_h_0
I0924 03:49:56.983054  8951 net.cpp:425] lstm1_gate_input_1 <- W_xc_x_1
I0924 03:49:56.983072  8951 net.cpp:399] lstm1_gate_input_1 -> gate_input_1
I0924 03:49:56.983095  8941 net.cpp:141] Setting up lstm2_x_transform
I0924 03:49:56.983137  8941 net.cpp:148] Top shape: 1 1 4000 (4000)
I0924 03:49:56.983144  8941 net.cpp:156] Memory required for data: 30020
I0924 03:49:56.983163  8941 layer_factory.hpp:77] Creating layer lstm2_W_xc_x_slice
I0924 03:49:56.983180  8941 net.cpp:91] Creating Layer lstm2_W_xc_x_slice
I0924 03:49:56.983180  8951 net.cpp:141] Setting up lstm1_gate_input_1
I0924 03:49:56.983186  8941 net.cpp:425] lstm2_W_xc_x_slice <- W_xc_x
I0924 03:49:56.983198  8951 net.cpp:148] Top shape: 1 1 4000 (4000)
I0924 03:49:56.983229  8951 net.cpp:156] Memory required for data: 78016
I0924 03:49:56.983201  8941 net.cpp:399] lstm2_W_xc_x_slice -> W_xc_x_1
I0924 03:49:56.983242  8951 layer_factory.hpp:77] Creating layer lstm1_unit_1
I0924 03:49:56.983259  8951 net.cpp:91] Creating Layer lstm1_unit_1
I0924 03:49:56.983270  8951 net.cpp:425] lstm1_unit_1 <- c_0
I0924 03:49:56.983281  8951 net.cpp:425] lstm1_unit_1 <- gate_input_1
I0924 03:49:56.983292  8951 net.cpp:425] lstm1_unit_1 <- cont_1_lstm1_cont_slice_0_split_1
I0924 03:49:56.983307  8951 net.cpp:399] lstm1_unit_1 -> c_1
I0924 03:49:56.983311  8941 net.cpp:141] Setting up lstm2_W_xc_x_slice
I0924 03:49:56.983325  8941 net.cpp:148] Top shape: 1 1 4000 (4000)
I0924 03:49:56.983326  8951 net.cpp:399] lstm1_unit_1 -> h_1
I0924 03:49:56.983330  8941 net.cpp:156] Memory required for data: 46020
I0924 03:49:56.983356  8941 layer_factory.hpp:77] Creating layer lstm2_h_conted_0
I0924 03:49:56.983367  8941 net.cpp:91] Creating Layer lstm2_h_conted_0
I0924 03:49:56.983373  8941 net.cpp:425] lstm2_h_conted_0 <- h_0
I0924 03:49:56.983381  8941 net.cpp:425] lstm2_h_conted_0 <- cont_1_lstm2_cont_slice_0_split_0
I0924 03:49:56.983387  8941 net.cpp:399] lstm2_h_conted_0 -> h_conted_0
I0924 03:49:56.983502  8951 net.cpp:141] Setting up lstm1_unit_1
I0924 03:49:56.983520  8951 net.cpp:148] Top shape: 1 1 1000 (1000)
I0924 03:49:56.983533  8951 net.cpp:148] Top shape: 1 1 1000 (1000)
I0924 03:49:56.983541  8951 net.cpp:156] Memory required for data: 86016
I0924 03:49:56.983551  8951 layer_factory.hpp:77] Creating layer lstm1_
I0924 03:49:56.983570  8951 net.cpp:91] Creating Layer lstm1_
I0924 03:49:56.983577  8921 net.cpp:141] Setting up lstm2_
I0924 03:49:56.983633  8925 net.cpp:141] Setting up lstm1_h_conted_0
I0924 03:49:56.983583  8951 net.cpp:425] lstm1_ <- c_1
I0924 03:49:56.983664  8925 net.cpp:148] Top shape: 1 1 1000 (1000)
I0924 03:49:56.983675  8925 net.cpp:156] Memory required for data: 46016
I0924 03:49:56.983680  8951 net.cpp:399] lstm1_ -> c_T
I0924 03:49:56.983686  8925 layer_factory.hpp:77] Creating layer lstm1_transform_1
I0924 03:49:56.983717  8925 net.cpp:91] Creating Layer lstm1_transform_1
I0924 03:49:56.983731  8925 net.cpp:425] lstm1_transform_1 <- h_conted_0
I0924 03:49:56.983752  8925 net.cpp:399] lstm1_transform_1 -> W_hc_h_0
I0924 03:49:56.983758  8951 net.cpp:141] Setting up lstm1_
I0924 03:49:56.983769  8951 net.cpp:148] Top shape: 1 1 1000 (1000)
I0924 03:49:56.983775  8951 net.cpp:156] Memory required for data: 90016
I0924 03:49:56.983780  8951 layer_factory.hpp:77] Creating layer lstm1_h_concat
I0924 03:49:56.983793  8951 net.cpp:91] Creating Layer lstm1_h_concat
I0924 03:49:56.983798  8951 net.cpp:425] lstm1_h_concat <- h_1
I0924 03:49:56.983813  8951 net.cpp:399] lstm1_h_concat -> h
I0924 03:49:56.983909  8951 net.cpp:141] Setting up lstm1_h_concat
I0924 03:49:56.983921  8951 net.cpp:148] Top shape: 1 1 1000 (1000)
I0924 03:49:56.983925  8951 net.cpp:156] Memory required for data: 94016
I0924 03:49:56.983932  8951 layer_factory.hpp:77] Creating layer h_pseudoloss
I0924 03:49:56.983943  8951 net.cpp:91] Creating Layer h_pseudoloss
I0924 03:49:56.983948  8951 net.cpp:425] h_pseudoloss <- h
I0924 03:49:56.983957  8951 net.cpp:399] h_pseudoloss -> h_pseudoloss
I0924 03:49:56.983635  8921 net.cpp:148] Top shape: 1 1 1501 (1501)
I0924 03:49:56.986770  8921 net.cpp:148] Top shape: 1 1 (1)
I0924 03:49:56.986788  8921 net.cpp:156] Memory required for data: 6008
I0924 03:49:56.986801  8921 layer_factory.hpp:77] Creating layer lstm2_
I0924 03:49:56.986831  8921 net.cpp:91] Creating Layer lstm2_
I0924 03:49:56.986841  8921 net.cpp:399] lstm2_ -> c_0
I0924 03:49:56.993194  8921 net.cpp:399] lstm2_ -> h_0
I0924 03:49:56.994488  8941 net.cpp:141] Setting up lstm2_h_conted_0
I0924 03:49:56.994524  8913 net.cpp:141] Setting up embedding
I0924 03:49:56.994529  8941 net.cpp:148] Top shape: 1 1 1000 (1000)
I0924 03:49:56.994550  8941 net.cpp:156] Memory required for data: 50020
I0924 03:49:56.994551  8913 net.cpp:148] Top shape: 1 1 500 (500)
I0924 03:49:56.994577  8941 layer_factory.hpp:77] Creating layer lstm2_transform_1
I0924 03:49:56.994581  8913 net.cpp:156] Memory required for data: 22408
I0924 03:49:56.994611  8941 net.cpp:91] Creating Layer lstm2_transform_1
I0924 03:49:56.994611  8913 layer_factory.hpp:77] Creating layer lstm1
I0924 03:49:56.994635  8941 net.cpp:425] lstm2_transform_1 <- h_conted_0
I0924 03:49:56.994668  8941 net.cpp:399] lstm2_transform_1 -> W_hc_h_0
I0924 03:49:56.994668  8913 net.cpp:91] Creating Layer lstm1
I0924 03:49:56.994688  8913 net.cpp:425] lstm1 <- embedded_input_frames
I0924 03:49:56.994699  8913 net.cpp:425] lstm1 <- cont_sentence_input_1_split_0
I0924 03:49:56.994711  8913 net.cpp:399] lstm1 -> lstm1
I0924 03:49:56.994729  8913 recurrent_layer.cpp:20] Initializing recurrent layer: assuming input batch contains 1 timesteps of 1 independent streams.
I0924 03:49:56.995118  8913 net.cpp:49] Initializing net from parameters: 
layer {
  name: "lstm1_"
  type: "Input"
  top: "x"
  top: "cont"
  input_param {
    shape {
      dim: 1
      dim: 1
      dim: 500
    }
    shape {
      dim: 1
      dim: 1
    }
  }
}
layer {
  name: "lstm1_"
  type: "Input"
  top: "c_0"
  top: "h_0"
  input_param {
    shape {
      dim: 1
      dim: 1
      dim: 1000
    }
    shape {
      dim: 1
      dim: 1
      dim: 1000
    }
  }
}
layer {
  name: "lstm1_cont_slice"
  type: "Slice"
  bottom: "cont"
  top: "cont_1"
  slice_param {
    axis: 0
  }
}
layer {
  name: "lstm1_x_transform"
  type: "InnerProduct"
  bottom: "x"
  top: "W_xc_x"
  param {
    name: "W_xc"
  }
  param {
    name: "b_c"
  }
  propagate_down: true
  inner_product_param {
    num_output: 4000
    bias_term: true
    weight_filler {
      type: "uniform"
      min: -0.08
      max: 0.08
    }
    bias_filler {
      type: "constant"
      value: 0
    }
    axis: 2
  }
}
layer {
  name: "lstm1_W_xc_x_slice"
  type: "Slice"
  bottom: "W_xc_x"
  top: "W_xc_x_1"
  slice_param {
    axis: 0
  }
}
layer {
  name: "lstm1_h_conted_0"
  type: "Scale"
  bottom: "h_0"
  bottom: "cont_1"
  top: "h_conted_0"
  scale_param {
    axis: 0
  }
}
layer {
  name: "lstm1_transform_1"
  type: "InnerProduct"
  bottom: "h_conted_0"
  top: "W_hc_h_0"
  param {
    name: "W_hc"
  }
  inner_product_param {
    num_output: 4000
    bias_term: false
    weight_filler {
      type: "uniform"
      min: -0.08
      max: 0.08
    }
    axis: 2
  }
}
layer {
  name: "lstm1_gate_input_1"
  type: "Eltwise"
  bottom: "W_hc_h_0"
  bottom: "W_xc_x_1"
  top: "gate_input_1"
  eltwise_param {
    operation: SUM
  }
}
layer {
  name: "lstm1_unit_1"
  type: "LSTMUnit"
  bottom: "c_0"
  bottom: "gate_input_1"
  bottom: "cont_1"
  top: "c_1"
  top: "h_1"
}
layer {
  name: "lstm1_"
  type: "Split"
  bottom: "c_1"
  top: "c_T"
}
layer {
  name: "lstm1_h_concat"
  type: "Concat"
  bottom: "h_1"
  top: "h"
  concat_param {
    axis: 0
  }
}
layer {
  name: "h_pseudoloss"
  type: "Reduction"
  bottom: "h"
  top: "h_pseudoloss"
  loss_weight: 1
}
I0924 03:49:56.995252  8913 layer_factory.hpp:77] Creating layer lstm1_
I0924 03:49:56.995270  8913 net.cpp:91] Creating Layer lstm1_
I0924 03:49:56.995280  8913 net.cpp:399] lstm1_ -> x
I0924 03:49:56.995296  8913 net.cpp:399] lstm1_ -> cont
I0924 03:49:57.005673  8913 net.cpp:141] Setting up lstm1_
I0924 03:49:57.005718  8913 net.cpp:148] Top shape: 1 1 500 (500)
I0924 03:49:57.005729  8913 net.cpp:148] Top shape: 1 1 (1)
I0924 03:49:57.005736  8913 net.cpp:156] Memory required for data: 2004
I0924 03:49:57.005748  8913 layer_factory.hpp:77] Creating layer lstm1_
I0924 03:49:57.005923  8913 net.cpp:91] Creating Layer lstm1_
I0924 03:49:57.005939  8913 net.cpp:399] lstm1_ -> c_0
I0924 03:49:57.005966  8913 net.cpp:399] lstm1_ -> h_0
I0924 03:49:57.006072  8913 net.cpp:141] Setting up lstm1_
I0924 03:49:57.006088  8913 net.cpp:148] Top shape: 1 1 1000 (1000)
I0924 03:49:57.006096  8913 net.cpp:148] Top shape: 1 1 1000 (1000)
I0924 03:49:57.006103  8913 net.cpp:156] Memory required for data: 10004
I0924 03:49:57.006110  8913 layer_factory.hpp:77] Creating layer lstm1_cont_slice
I0924 03:49:57.006129  8913 net.cpp:91] Creating Layer lstm1_cont_slice
I0924 03:49:57.006136  8913 net.cpp:425] lstm1_cont_slice <- cont
I0924 03:49:57.006148  8913 net.cpp:399] lstm1_cont_slice -> cont_1
I0924 03:49:57.006228  8913 net.cpp:141] Setting up lstm1_cont_slice
I0924 03:49:57.006242  8913 net.cpp:148] Top shape: 1 1 (1)
I0924 03:49:57.006249  8913 net.cpp:156] Memory required for data: 10008
I0924 03:49:57.006256  8913 layer_factory.hpp:77] Creating layer cont_1_lstm1_cont_slice_0_split
I0924 03:49:57.006268  8913 net.cpp:91] Creating Layer cont_1_lstm1_cont_slice_0_split
I0924 03:49:57.006275  8913 net.cpp:425] cont_1_lstm1_cont_slice_0_split <- cont_1
I0924 03:49:57.006289  8913 net.cpp:399] cont_1_lstm1_cont_slice_0_split -> cont_1_lstm1_cont_slice_0_split_0
I0924 03:49:57.006304  8913 net.cpp:399] cont_1_lstm1_cont_slice_0_split -> cont_1_lstm1_cont_slice_0_split_1
I0924 03:49:57.006376  8913 net.cpp:141] Setting up cont_1_lstm1_cont_slice_0_split
I0924 03:49:57.006392  8913 net.cpp:148] Top shape: 1 1 (1)
I0924 03:49:57.006400  8913 net.cpp:148] Top shape: 1 1 (1)
I0924 03:49:57.006407  8913 net.cpp:156] Memory required for data: 10016
I0924 03:49:57.006415  8913 layer_factory.hpp:77] Creating layer lstm1_x_transform
I0924 03:49:57.006434  8913 net.cpp:91] Creating Layer lstm1_x_transform
I0924 03:49:57.006441  8913 net.cpp:425] lstm1_x_transform <- x
I0924 03:49:57.006482  8913 net.cpp:399] lstm1_x_transform -> W_xc_x
I0924 03:49:57.016991  8921 net.cpp:141] Setting up lstm2_
I0924 03:49:57.017045  8921 net.cpp:148] Top shape: 1 1 1000 (1000)
I0924 03:49:57.017058  8921 net.cpp:148] Top shape: 1 1 1000 (1000)
I0924 03:49:57.017066  8921 net.cpp:156] Memory required for data: 14008
I0924 03:49:57.017077  8921 layer_factory.hpp:77] Creating layer lstm2_cont_slice
I0924 03:49:57.017110  8921 net.cpp:91] Creating Layer lstm2_cont_slice
I0924 03:49:57.017122  8921 net.cpp:425] lstm2_cont_slice <- cont
I0924 03:49:57.017133  8921 net.cpp:399] lstm2_cont_slice -> cont_1
I0924 03:49:57.017202  8921 net.cpp:141] Setting up lstm2_cont_slice
I0924 03:49:57.017211  8921 net.cpp:148] Top shape: 1 1 (1)
I0924 03:49:57.017216  8921 net.cpp:156] Memory required for data: 14012
I0924 03:49:57.017221  8921 layer_factory.hpp:77] Creating layer cont_1_lstm2_cont_slice_0_split
I0924 03:49:57.017230  8921 net.cpp:91] Creating Layer cont_1_lstm2_cont_slice_0_split
I0924 03:49:57.017235  8921 net.cpp:425] cont_1_lstm2_cont_slice_0_split <- cont_1
I0924 03:49:57.017247  8921 net.cpp:399] cont_1_lstm2_cont_slice_0_split -> cont_1_lstm2_cont_slice_0_split_0
I0924 03:49:57.017257  8921 net.cpp:399] cont_1_lstm2_cont_slice_0_split -> cont_1_lstm2_cont_slice_0_split_1
I0924 03:49:57.017309  8921 net.cpp:141] Setting up cont_1_lstm2_cont_slice_0_split
I0924 03:49:57.017318  8921 net.cpp:148] Top shape: 1 1 (1)
I0924 03:49:57.017323  8921 net.cpp:148] Top shape: 1 1 (1)
I0924 03:49:57.017328  8921 net.cpp:156] Memory required for data: 14020
I0924 03:49:57.017333  8921 layer_factory.hpp:77] Creating layer lstm2_x_transform
I0924 03:49:57.017352  8921 net.cpp:91] Creating Layer lstm2_x_transform
I0924 03:49:57.017359  8921 net.cpp:425] lstm2_x_transform <- x
I0924 03:49:57.017366  8921 net.cpp:399] lstm2_x_transform -> W_xc_x
I0924 03:49:57.031082  8903 net.cpp:141] Setting up lstm1_transform_1
…
I0924 03:49:57.032065  8951 net.cpp:219] lstm1_ does not need backward computation.
I0924 03:49:57.032078  8951 net.cpp:261] This network produces output c_T
I0924 03:49:57.032097  8951 net.cpp:261] This network produces output h_pseudoloss
I0924 03:49:57.032131  8951 net.cpp:274] Network initialization done.
I0924 03:49:57.032254  8951 recurrent_layer.cpp:150] Adding parameter 0: W_xc
I0924 03:49:57.032274  8951 recurrent_layer.cpp:150] Adding parameter 1: b_c
I0924 03:49:57.032289  8951 recurrent_layer.cpp:150] Adding parameter 2: W_hc
I0924 03:49:57.032976  8951 net.cpp:141] Setting up lstm1
I0924 03:49:57.033005  8951 net.cpp:148] Top shape: 1 1 1000 (1000)
I0924 03:49:57.033022  8951 net.cpp:156] Memory required for data: 26408
I0924 03:49:57.033063  8951 layer_factory.hpp:77] Creating layer concat
I0924 03:49:57.033165  8951 net.cpp:91] Creating Layer concat
I0924 03:49:57.033201  8951 net.cpp:425] concat <- lstm1
I0924 03:49:57.033218  8951 net.cpp:425] concat <- embedded_input_sentence
I0924 03:49:57.033228  8951 net.cpp:425] concat <- reshaped_stage_indicator
I0924 03:49:57.033244  8951 net.cpp:399] concat -> lstm1_video_sequence
I0924 03:49:57.031438  8907 net.cpp:141] Setting up lstm2_x_transform
I0924 03:49:57.034310  8907 net.cpp:148] Top shape: 1 1 4000 (4000)
I0924 03:49:57.034324  8907 net.cpp:156] Memory required for data: 30020
I0924 03:49:57.034348  8907 layer_factory.hpp:77] Creating layer lstm2_W_xc_x_slice
I0924 03:49:57.034369  8907 net.cpp:91] Creating Layer lstm2_W_xc_x_slice
I0924 03:49:57.034379  8907 net.cpp:425] lstm2_W_xc_x_slice <- W_xc_x
I0924 03:49:57.034392  8907 net.cpp:399] lstm2_W_xc_x_slice -> W_xc_x_1
I0924 03:49:57.031283  8913 net.cpp:141] Setting up lstm1_x_transform
I0924 03:49:57.035009  8913 net.cpp:148] Top shape: 1 1 4000 (4000)
I0924 03:49:57.035019  8913 net.cpp:156] Memory required for data: 26016
I0924 03:49:57.035037  8913 layer_factory.hpp:77] Creating layer lstm1_W_xc_x_slice
I0924 03:49:57.035050  8913 net.cpp:91] Creating Layer lstm1_W_xc_x_slice
I0924 03:49:57.035058  8913 net.cpp:425] lstm1_W_xc_x_slice <- W_xc_x
I0924 03:49:57.035070  8913 net.cpp:399] lstm1_W_xc_x_slice -> W_xc_x_1
I0924 03:49:57.031724  8903 net.cpp:148] Top shape: 1 1 4000 (4000)
I0924 03:49:57.035681  8903 net.cpp:156] Memory required for data: 62016
I0924 03:49:57.035701  8903 layer_factory.hpp:77] Creating layer lstm1_gate_input_1
I0924 03:49:57.035720  8903 net.cpp:91] Creating Layer lstm1_gate_input_1
I0924 03:49:57.035729  8903 net.cpp:425] lstm1_gate_input_1 <- W_hc_h_0
I0924 03:49:57.035739  8903 net.cpp:425] lstm1_gate_input_1 <- W_xc_x_1
I0924 03:49:57.036272  8903 net.cpp:399] lstm1_gate_input_1 -> gate_input_1
I0924 03:49:57.037184  8951 net.cpp:141] Setting up concat
I0924 03:49:57.037227  8951 net.cpp:148] Top shape: 1 1 1501 (1501)
I0924 03:49:57.037237  8951 net.cpp:156] Memory required for data: 32412
I0924 03:49:57.037250  8951 layer_factory.hpp:77] Creating layer lstm2
I0924 03:49:57.037279  8951 net.cpp:91] Creating Layer lstm2
I0924 03:49:57.037279  8907 net.cpp:141] Setting up lstm2_W_xc_x_slice
I0924 03:49:57.037291  8951 net.cpp:425] lstm2 <- lstm1_video_sequence
I0924 03:49:57.037303  8907 net.cpp:148] Top shape: 1 1 4000 (4000)
I0924 03:49:57.037305  8951 net.cpp:425] lstm2 <- cont_sentence_input_1_split_1
I0924 03:49:57.037313  8907 net.cpp:156] Memory required for data: 46020
I0924 03:49:57.037322  8951 net.cpp:399] lstm2 -> lstm2
I0924 03:49:57.037356  8951 recurrent_layer.cpp:20] Initializing recurrent layer: assuming input batch contains 1 timesteps of 1 independent streams.
I0924 03:49:57.037426  8913 net.cpp:141] Setting up lstm1_W_xc_x_slice
…
I0924 03:50:57.440481  9285 net.cpp:141] Setting up lstm2_gate_input_1
I0924 03:50:57.440537  9237 net.cpp:141] Setting up lstm2_
I0924 03:50:57.440544  9285 net.cpp:148] Top shape: 1 1 4000 (4000)
I0924 03:50:57.440556  9285 net.cpp:156] Memory required for data: 82020
I0924 03:50:57.440558  9237 net.cpp:148] Top shape: 1 1 1501 (1501)
I0924 03:50:57.440567  9285 layer_factory.hpp:77] Creating layer lstm2_unit_1
I0924 03:50:57.440598  9285 net.cpp:91] Creating Layer lstm2_unit_1
I0924 03:50:57.440613  9285 net.cpp:425] lstm2_unit_1 <- c_0
I0924 03:50:57.440629  9285 net.cpp:425] lstm2_unit_1 <- gate_input_1
I0924 03:50:57.442654  9285 net.cpp:425] lstm2_unit_1 <- cont_1_lstm2_cont_slice_0_split_1
I0924 03:50:57.442730  9285 net.cpp:399] lstm2_unit_1 -> c_1
I0924 03:50:57.442756  9285 net.cpp:399] lstm2_unit_1 -> h_1
I0924 03:50:57.440626  9259 net.cpp:141] Setting up lstm2_gate_input_1
I0924 03:50:57.444000  9259 net.cpp:148] Top shape: 1 1 4000 (4000)
I0924 03:50:57.444018  9259 net.cpp:156] Memory required for data: 82020
I0924 03:50:57.444031  9259 layer_factory.hpp:77] Creating layer lstm2_unit_1
I0924 03:50:57.444049  9259 net.cpp:91] Creating Layer lstm2_unit_1
I0924 03:50:57.444061  9259 net.cpp:425] lstm2_unit_1 <- c_0
I0924 03:50:57.444074  9259 net.cpp:425] lstm2_unit_1 <- gate_input_1
I0924 03:50:57.444083  9259 net.cpp:425] lstm2_unit_1 <- cont_1_lstm2_cont_slice_0_split_1
I0924 03:50:57.444103  9259 net.cpp:399] lstm2_unit_1 -> c_1
I0924 03:50:57.444121  9259 net.cpp:399] lstm2_unit_1 -> h_1
I0924 03:50:57.440568  9237 net.cpp:148] Top shape: 1 1 (1)
I0924 03:50:57.444167  9237 net.cpp:156] Memory required for data: 6008
I0924 03:50:57.444177  9237 layer_factory.hpp:77] Creating layer lstm2_
I0924 03:50:57.444198  9237 net.cpp:91] Creating Layer lstm2_
I0924 03:50:57.444211  9237 net.cpp:399] lstm2_ -> c_0
I0924 03:50:57.444236  9237 net.cpp:399] lstm2_ -> h_0
I0924 03:50:57.526191  9247 net.cpp:141] Setting up lstm2_x_transform
I0924 03:50:57.526254  9247 net.cpp:148] Top shape: 1 1 4000 (4000)
I0924 03:50:57.526263  9247 net.cpp:156] Memory required for data: 30020
I0924 03:50:57.526294  9247 layer_factory.hpp:77] Creating layer lstm2_W_xc_x_slice
I0924 03:50:57.526316  9247 net.cpp:91] Creating Layer lstm2_W_xc_x_slice
I0924 03:50:57.526326  9247 net.cpp:425] lstm2_W_xc_x_slice <- W_xc_x
I0924 03:50:57.526341  9247 net.cpp:399] lstm2_W_xc_x_slice -> W_xc_x_1
I0924 03:50:57.526408  9247 net.cpp:141] Setting up lstm2_W_xc_x_slice
I0924 03:50:57.526425  9247 net.cpp:148] Top shape: 1 1 4000 (4000)
I0924 03:50:57.526432  9247 net.cpp:156] Memory required for data: 46020
I0924 03:50:57.526440  9247 layer_factory.hpp:77] Creating layer lstm2_h_conted_0
I0924 03:50:57.526468  9247 net.cpp:91] Creating Layer lstm2_h_conted_0
I0924 03:50:57.526478  9247 net.cpp:425] lstm2_h_conted_0 <- h_0
I0924 03:50:57.526486  9247 net.cpp:425] lstm2_h_conted_0 <- cont_1_lstm2_cont_slice_0_split_0
I0924 03:50:57.526499  9247 net.cpp:399] lstm2_h_conted_0 -> h_conted_0
I0924 03:50:57.526672  9247 net.cpp:141] Setting up lstm2_h_conted_0
I0924 03:50:57.526688  9247 net.cpp:148] Top shape: 1 1 1000 (1000)
I0924 03:50:57.526696  9247 net.cpp:156] Memory required for data: 50020
I0924 03:50:57.526705  9247 layer_factory.hpp:77] Creating layer lstm2_transform_1
I0924 03:50:57.526732  9247 net.cpp:91] Creating Layer lstm2_transform_1
I0924 03:50:57.526741  9247 net.cpp:425] lstm2_transform_1 <- h_conted_0
I0924 03:50:57.526754  9247 net.cpp:399] lstm2_transform_1 -> W_hc_h_0
I0924 03:50:57.526854  9285 net.cpp:141] Setting up lstm2_unit_1
I0924 03:50:57.526877  9285 net.cpp:148] Top shape: 1 1 1000 (1000)
I0924 03:50:57.526888  9285 net.cpp:148] Top shape: 1 1 1000 (1000)
I0924 03:50:57.526896  9285 net.cpp:156] Memory required for data: 90020
I0924 03:50:57.526906  9285 layer_factory.hpp:77] Creating layer lstm2_
I0924 03:50:57.526921  9285 net.cpp:91] Creating Layer lstm2_
I0924 03:50:57.526929  9285 net.cpp:425] lstm2_ <- c_1
I0924 03:50:57.526942  9285 net.cpp:399] lstm2_ -> c_T
I0924 03:50:57.527012  9285 net.cpp:141] Setting up lstm2_
I0924 03:50:57.527027  9285 net.cpp:148] Top shape: 1 1 1000 (1000)
I0924 03:50:57.527035  9285 net.cpp:156] Memory required for data: 94020
I0924 03:50:57.527045  9285 layer_factory.hpp:77] Creating layer lstm2_h_concat
I0924 03:50:57.527058  9285 net.cpp:91] Creating Layer lstm2_h_concat
I0924 03:50:57.527067  9285 net.cpp:425] lstm2_h_concat <- h_1
I0924 03:50:57.527079  9285 net.cpp:399] lstm2_h_concat -> h
I0924 03:50:57.527107  9237 net.cpp:141] Setting up lstm2_
I0924 03:50:57.527127  9237 net.cpp:148] Top shape: 1 1 1000 (1000)
I0924 03:50:57.527140  9237 net.cpp:148] Top shape: 1 1 1000 (1000)
I0924 03:50:57.527143  9285 net.cpp:141] Setting up lstm2_h_concat
I0924 03:50:57.527148  9237 net.cpp:156] Memory required for data: 14008
I0924 03:50:57.527159  9285 net.cpp:148] Top shape: 1 1 1000 (1000)
I0924 03:50:57.527176  9285 net.cpp:156] Memory required for data: 98020
I0924 03:50:57.527185  9285 layer_factory.hpp:77] Creating layer h_pseudoloss
I0924 03:50:57.527200  9285 net.cpp:91] Creating Layer h_pseudoloss
I0924 03:50:57.527209  9285 net.cpp:425] h_pseudoloss <- h
I0924 03:50:57.527220  9285 net.cpp:399] h_pseudoloss -> h_pseudoloss
I0924 03:50:57.527158  9237 layer_factory.hpp:77] Creating layer lstm2_cont_slice
I0924 03:50:57.527273  9237 net.cpp:91] Creating Layer lstm2_cont_slice
I0924 03:50:57.527284  9237 net.cpp:425] lstm2_cont_slice <- cont
I0924 03:50:57.527297  9237 net.cpp:399] lstm2_cont_slice -> cont_1
I0924 03:50:57.527315  9275 net.cpp:141] Setting up lstm2_x_transform
I0924 03:50:57.527334  9275 net.cpp:148] Top shape: 1 1 4000 (4000)
I0924 03:50:57.527343  9275 net.cpp:156] Memory required for data: 30020
I0924 03:50:57.527355  9237 net.cpp:141] Setting up lstm2_cont_slice
I0924 03:50:57.527361  9275 layer_factory.hpp:77] Creating layer lstm2_W_xc_x_slice
I0924 03:50:57.527371  9237 net.cpp:148] Top shape: 1 1 (1)
I0924 03:50:57.527377  9275 net.cpp:91] Creating Layer lstm2_W_xc_x_slice
I0924 03:50:57.527379  9237 net.cpp:156] Memory required for data: 14012
I0924 03:50:57.527387  9275 net.cpp:425] lstm2_W_xc_x_slice <- W_xc_x
I0924 03:50:57.527417  9275 net.cpp:399] lstm2_W_xc_x_slice -> W_xc_x_1
I0924 03:50:57.527389  9237 layer_factory.hpp:77] Creating layer cont_1_lstm2_cont_slice_0_split
I0924 03:50:57.527488  9237 net.cpp:91] Creating Layer cont_1_lstm2_cont_slice_0_split
…
I0924 03:50:57.542830  9285 net.cpp:219] lstm2_h_conted_0 does not need backward computation.
I0924 03:50:57.542848  9285 net.cpp:217] lstm2_W_xc_x_slice needs backward computation.
I0924 03:50:57.542863  9285 net.cpp:217] lstm2_x_transform needs backward computation.
I0924 03:50:57.542881  9285 net.cpp:219] cont_1_lstm2_cont_slice_0_split does not need backward computation.
I0924 03:50:57.542903  9285 net.cpp:219] lstm2_cont_slice does not need backward computation.
I0924 03:50:57.542902  9259 net.cpp:141] Setting up lstm2_unit_1
I0924 03:50:57.542925  9285 net.cpp:219] lstm2_ does not need backward computation.
I0924 03:50:57.542937  9259 net.cpp:148] Top shape: 1 1 1000 (1000)
I0924 03:50:57.542973  9259 net.cpp:148] Top shape: 1 1 1000 (1000)
I0924 03:50:57.542989  9259 net.cpp:156] Memory required for data: 90020
I0924 03:50:57.543006  9259 layer_factory.hpp:77] Creating layer lstm2_
I0924 03:50:57.543036  9259 net.cpp:91] Creating Layer lstm2_
I0924 03:50:57.543056  9259 net.cpp:425] lstm2_ <- c_1
I0924 03:50:57.543082  9259 net.cpp:399] lstm2_ -> c_T
I0924 03:50:57.543113  9237 net.cpp:141] Setting up cont_1_lstm2_cont_slice_0_split
I0924 03:50:57.543143  9237 net.cpp:148] Top shape: 1 1 (1)
I0924 03:50:57.543161  9237 net.cpp:148] Top shape: 1 1 (1)
I0924 03:50:57.543174  9237 net.cpp:156] Memory required for data: 14020
I0924 03:50:57.543190  9237 layer_factory.hpp:77] Creating layer lstm2_x_transform
I0924 03:50:57.543202  9259 net.cpp:141] Setting up lstm2_
I0924 03:50:57.543229  9259 net.cpp:148] Top shape: 1 1 1000 (1000)
I0924 03:50:57.543234  9237 net.cpp:91] Creating Layer lstm2_x_transform
I0924 03:50:57.543243  9259 net.cpp:156] Memory required for data: 94020
I0924 03:50:57.543257  9237 net.cpp:425] lstm2_x_transform <- x
I0924 03:50:57.543261  9259 layer_factory.hpp:77] Creating layer lstm2_h_concat
I0924 03:50:57.543285  9237 net.cpp:399] lstm2_x_transform -> W_xc_x
I0924 03:50:57.543287  9259 net.cpp:91] Creating Layer lstm2_h_concat
I0924 03:50:57.543395  9259 net.cpp:425] lstm2_h_concat <- h_1
I0924 03:50:57.543419  9259 net.cpp:399] lstm2_h_concat -> h
I0924 03:50:57.542939  9285 net.cpp:219] lstm2_ does not need backward computation.
I0924 03:50:57.546679  9285 net.cpp:261] This network produces output c_T
I0924 03:50:57.546711  9285 net.cpp:261] This network produces output h_pseudoloss
I0924 03:50:57.546746  9285 net.cpp:274] Network initialization done.
I0924 03:50:57.546841  9285 recurrent_layer.cpp:150] Adding parameter 0: W_xc
I0924 03:50:57.546852  9285 recurrent_layer.cpp:150] Adding parameter 1: b_c
I0924 03:50:57.546860  9285 recurrent_layer.cpp:150] Adding parameter 2: W_hc
I0924 03:50:57.558730  9275 net.cpp:141] Setting up lstm2_W_xc_x_slice
I0924 03:50:57.559172  9275 net.cpp:148] Top shape: 1 1 4000 (4000)
I0924 03:50:57.559355  9275 net.cpp:156] Memory required for data: 46020
I0924 03:50:57.559489  9275 layer_factory.hpp:77] Creating layer lstm2_h_conted_0
I0924 03:50:57.559628  9275 net.cpp:91] Creating Layer lstm2_h_conted_0
I0924 03:50:57.559754  9275 net.cpp:425] lstm2_h_conted_0 <- h_0
I0924 03:50:57.559880  9275 net.cpp:425] lstm2_h_conted_0 <- cont_1_lstm2_cont_slice_0_split_0
I0924 03:50:57.560025  9275 net.cpp:399] lstm2_h_conted_0 -> h_conted_0
I0924 03:50:57.558784  9259 net.cpp:141] Setting up lstm2_h_concat
I0924 03:50:57.560351  9259 net.cpp:148] Top shape: 1 1 1000 (1000)
I0924 03:50:57.560362  9259 net.cpp:156] Memory required for data: 98020
I0924 03:50:57.560371  9259 layer_factory.hpp:77] Creating layer h_pseudoloss
I0924 03:50:57.560386  9259 net.cpp:91] Creating Layer h_pseudoloss
I0924 03:50:57.560396  9259 net.cpp:425] h_pseudoloss <- h
I0924 03:50:57.560408  9259 net.cpp:399] h_pseudoloss -> h_pseudoloss
I0924 03:50:57.574712  9285 net.cpp:141] Setting up lstm2
I0924 03:50:57.574764  9285 net.cpp:148] Top shape: 1 1 1000 (1000)
I0924 03:50:57.574774  9285 net.cpp:156] Memory required for data: 36412
I0924 03:50:57.574800  9285 layer_factory.hpp:77] Creating layer predict
I0924 03:50:57.574822  9285 net.cpp:91] Creating Layer predict
I0924 03:50:57.574833  9285 net.cpp:425] predict <- lstm2
I0924 03:50:57.574846  9285 net.cpp:399] predict -> predict
I0924 03:50:57.668478  9275 net.cpp:141] Setting up lstm2_h_conted_0
I0924 03:50:57.668540  9275 net.cpp:148] Top shape: 1 1 1000 (1000)
I0924 03:50:57.668550  9275 net.cpp:156] Memory required for data: 50020
I0924 03:50:57.668563  9275 layer_factory.hpp:77] Creating layer lstm2_transform_1
I0924 03:50:57.668555  9259 net.cpp:141] Setting up h_pseudoloss
I0924 03:50:57.668611  9259 net.cpp:148] Top shape: (1)
I0924 03:50:57.668630  9275 net.cpp:91] Creating Layer lstm2_transform_1
I0924 03:50:57.668630  9247 net.cpp:141] Setting up lstm2_transform_1
I0924 03:50:57.668645  9275 net.cpp:425] lstm2_transform_1 <- h_conted_0
I0924 03:50:57.668628  9259 net.cpp:151]     with loss weight 1
I0924 03:50:57.668665  9275 net.cpp:399] lstm2_transform_1 -> W_hc_h_0
I0924 03:50:57.668684  9259 net.cpp:156] Memory required for data: 98024
I0924 03:50:57.668704  9259 net.cpp:217] h_pseudoloss needs backward computation.
I0924 03:50:57.668720  9259 net.cpp:217] lstm2_h_concat needs backward computation.
I0924 03:50:57.668658  9247 net.cpp:148] Top shape: 1 1 4000 (4000)
I0924 03:50:57.668735  9259 net.cpp:219] lstm2_ does not need backward computation.
I0924 03:50:57.668759  9247 net.cpp:156] Memory required for data: 66020
I0924 03:50:57.668769  9259 net.cpp:217] lstm2_unit_1 needs backward computation.
I0924 03:50:57.668783  9247 layer_factory.hpp:77] Creating layer lstm2_gate_input_1
I0924 03:50:57.668789  9259 net.cpp:217] lstm2_gate_input_1 needs backward computation.
…
I0924 03:50:57.668948  9259 net.cpp:219] lstm2_ does not need backward computation.
I0924 03:50:57.668961  9259 net.cpp:261] This network produces output c_T
I0924 03:50:57.668975  9259 net.cpp:261] This network produces output h_pseudoloss
I0924 03:50:57.669008  9259 net.cpp:274] Network initialization done.
I0924 03:50:57.669129  9259 recurrent_layer.cpp:150] Adding parameter 0: W_xc
I0924 03:50:57.669148  9259 recurrent_layer.cpp:150] Adding parameter 1: b_c
I0924 03:50:57.669162  9259 recurrent_layer.cpp:150] Adding parameter 2: W_hc
I0924 03:50:57.677721  9247 net.cpp:141] Setting up lstm2_gate_input_1
I0924 03:50:57.677781  9247 net.cpp:148] Top shape: 1 1 4000 (4000)
I0924 03:50:57.677789  9247 net.cpp:156] Memory required for data: 82020
I0924 03:50:57.677798  9247 layer_factory.hpp:77] Creating layer lstm2_unit_1
I0924 03:50:57.677814  9247 net.cpp:91] Creating Layer lstm2_unit_1
I0924 03:50:57.677820  9247 net.cpp:425] lstm2_unit_1 <- c_0
I0924 03:50:57.677830  9247 net.cpp:425] lstm2_unit_1 <- gate_input_1
I0924 03:50:57.677836  9247 net.cpp:425] lstm2_unit_1 <- cont_1_lstm2_cont_slice_0_split_1
I0924 03:50:57.677845  9247 net.cpp:399] lstm2_unit_1 -> c_1
I0924 03:50:57.677860  9247 net.cpp:399] lstm2_unit_1 -> h_1
I0924 03:50:57.678097  9247 net.cpp:141] Setting up lstm2_unit_1
I0924 03:50:57.678113  9247 net.cpp:148] Top shape: 1 1 1000 (1000)
I0924 03:50:57.678125  9247 net.cpp:148] Top shape: 1 1 1000 (1000)
I0924 03:50:57.678133  9247 net.cpp:156] Memory required for data: 90020
I0924 03:50:57.678138  9247 layer_factory.hpp:77] Creating layer lstm2_
I0924 03:50:57.678151  9247 net.cpp:91] Creating Layer lstm2_
I0924 03:50:57.678158  9247 net.cpp:425] lstm2_ <- c_1
I0924 03:50:57.678164  9247 net.cpp:399] lstm2_ -> c_T
I0924 03:50:57.678231  9237 net.cpp:141] Setting up lstm2_x_transform
I0924 03:50:57.678246  9237 net.cpp:148] Top shape: 1 1 4000 (4000)
I0924 03:50:57.678251  9237 net.cpp:156] Memory required for data: 30020
I0924 03:50:57.678268  9237 layer_factory.hpp:77] Creating layer lstm2_W_xc_x_slice
I0924 03:50:57.678272  9243 net.cpp:141] Setting up predict
I0924 03:50:57.678288  9243 net.cpp:148] Top shape: 1 1 46168 (46168)
I0924 03:50:57.678288  9237 net.cpp:91] Creating Layer lstm2_W_xc_x_slice
I0924 03:50:57.678294  9243 net.cpp:156] Memory required for data: 221084
I0924 03:50:57.678303  9237 net.cpp:425] lstm2_W_xc_x_slice <- W_xc_x
I0924 03:50:57.678308  9243 layer_factory.hpp:77] Creating layer probs
I0924 03:50:57.678313  9247 net.cpp:141] Setting up lstm2_
I0924 03:50:57.678316  9237 net.cpp:399] lstm2_W_xc_x_slice -> W_xc_x_1
I0924 03:50:57.678333  9247 net.cpp:148] Top shape: 1 1 1000 (1000)
I0924 03:50:57.678341  9247 net.cpp:156] Memory required for data: 94020
I0924 03:50:57.678325  9243 net.cpp:91] Creating Layer probs
I0924 03:50:57.678359  9247 layer_factory.hpp:77] Creating layer lstm2_h_concat
I0924 03:50:57.678365  9243 net.cpp:425] probs <- predict
I0924 03:50:57.678362  9259 net.cpp:141] Setting up lstm2
I0924 03:50:57.678375  9247 net.cpp:91] Creating Layer lstm2_h_concat
I0924 03:50:57.678395  9259 net.cpp:148] Top shape: 1 1 1000 (1000)
I0924 03:50:57.678385  9243 net.cpp:399] probs -> probs
I0924 03:50:57.678401  9237 net.cpp:141] Setting up lstm2_W_xc_x_slice
I0924 03:50:57.678405  9259 net.cpp:156] Memory required for data: 36412
I0924 03:50:57.678406  9247 net.cpp:425] lstm2_h_concat <- h_1
I0924 03:50:57.678417  9237 net.cpp:148] Top shape: 1 1 4000 (4000)
I0924 03:50:57.678424  9237 net.cpp:156] Memory required for data: 46020
I0924 03:50:57.678433  9237 layer_factory.hpp:77] Creating layer lstm2_h_conted_0
I0924 03:50:57.678436  9259 layer_factory.hpp:77] Creating layer predict
I0924 03:50:57.678434  9247 net.cpp:399] lstm2_h_concat -> h
I0924 03:50:57.678458  9259 net.cpp:91] Creating Layer predict
I0924 03:50:57.678458  9237 net.cpp:91] Creating Layer lstm2_h_conted_0
I0924 03:50:57.678467  9259 net.cpp:425] predict <- lstm2
I0924 03:50:57.678472  9237 net.cpp:425] lstm2_h_conted_0 <- h_0
I0924 03:50:57.678478  9259 net.cpp:399] predict -> predict
I0924 03:50:57.678481  9237 net.cpp:425] lstm2_h_conted_0 <- cont_1_lstm2_cont_slice_0_split_0
I0924 03:50:57.678494  9237 net.cpp:399] lstm2_h_conted_0 -> h_conted_0
I0924 03:50:57.678508  9247 net.cpp:141] Setting up lstm2_h_concat
I0924 03:50:57.678521  9247 net.cpp:148] Top shape: 1 1 1000 (1000)
I0924 03:50:57.678529  9247 net.cpp:156] Memory required for data: 98020
I0924 03:50:57.678534  9247 layer_factory.hpp:77] Creating layer h_pseudoloss
I0924 03:50:57.678544  9247 net.cpp:91] Creating Layer h_pseudoloss
I0924 03:50:57.678551  9247 net.cpp:425] h_pseudoloss <- h
I0924 03:50:57.678563  9247 net.cpp:399] h_pseudoloss -> h_pseudoloss
I0924 03:50:57.762943  9275 net.cpp:141] Setting up lstm2_transform_1
…
I0924 03:50:57.763705  9247 net.cpp:219] cont_1_lstm2_cont_slice_0_split does not need backward computation.
I0924 03:50:57.763715  9247 net.cpp:219] lstm2_cont_slice does not need backward computation.
I0924 03:50:57.763723  9247 net.cpp:219] lstm2_ does not need backward computation.
I0924 03:50:57.763731  9247 net.cpp:219] lstm2_ does not need backward computation.
I0924 03:50:57.763736  9247 net.cpp:261] This network produces output c_T
I0924 03:50:57.763747  9247 net.cpp:261] This network produces output h_pseudoloss
I0924 03:50:57.763772  9247 net.cpp:274] Network initialization done.
I0924 03:50:57.763036  9237 net.cpp:141] Setting up lstm2_h_conted_0
I0924 03:50:57.763846  9237 net.cpp:148] Top shape: 1 1 1000 (1000)
I0924 03:50:57.763854  9247 recurrent_layer.cpp:150] Adding parameter 0: W_xc
I0924 03:50:57.763859  9237 net.cpp:156] Memory required for data: 50020
I0924 03:50:57.763866  9247 recurrent_layer.cpp:150] Adding parameter 1: b_c
I0924 03:50:57.763870  9237 layer_factory.hpp:77] Creating layer lstm2_transform_1
I0924 03:50:57.763875  9247 recurrent_layer.cpp:150] Adding parameter 2: W_hc
I0924 03:50:57.763902  9237 net.cpp:91] Creating Layer lstm2_transform_1
I0924 03:50:57.763917  9237 net.cpp:425] lstm2_transform_1 <- h_conted_0
I0924 03:50:57.763938  9237 net.cpp:399] lstm2_transform_1 -> W_hc_h_0
I0924 03:50:57.768517  9275 net.cpp:148] Top shape: 1 1 4000 (4000)
I0924 03:50:57.768992  9275 net.cpp:156] Memory required for data: 66020
I0924 03:50:57.769032  9275 layer_factory.hpp:77] Creating layer lstm2_gate_input_1
I0924 03:50:57.769292  9275 net.cpp:91] Creating Layer lstm2_gate_input_1
I0924 03:50:57.769515  9275 net.cpp:425] lstm2_gate_input_1 <- W_hc_h_0
I0924 03:50:57.769660  9275 net.cpp:425] lstm2_gate_input_1 <- W_xc_x_1
I0924 03:50:57.770642  9275 net.cpp:399] lstm2_gate_input_1 -> gate_input_1
I0924 03:50:57.778650  9275 net.cpp:141] Setting up lstm2_gate_input_1
I0924 03:50:57.779117  9275 net.cpp:148] Top shape: 1 1 4000 (4000)
I0924 03:50:57.779309  9275 net.cpp:156] Memory required for data: 82020
I0924 03:50:57.779443  9275 layer_factory.hpp:77] Creating layer lstm2_unit_1
I0924 03:50:57.779665  9275 net.cpp:91] Creating Layer lstm2_unit_1
I0924 03:50:57.779849  9275 net.cpp:425] lstm2_unit_1 <- c_0
I0924 03:50:57.779976  9275 net.cpp:425] lstm2_unit_1 <- gate_input_1
I0924 03:50:57.780145  9275 net.cpp:425] lstm2_unit_1 <- cont_1_lstm2_cont_slice_0_split_1
I0924 03:50:57.780275  9275 net.cpp:399] lstm2_unit_1 -> c_1
I0924 03:50:57.780408  9275 net.cpp:399] lstm2_unit_1 -> h_1
I0924 03:50:57.791859  9247 net.cpp:141] Setting up lstm2
I0924 03:50:57.791908  9247 net.cpp:148] Top shape: 1 1 1000 (1000)
I0924 03:50:57.791915  9247 net.cpp:156] Memory required for data: 36412
I0924 03:50:57.791939  9247 layer_factory.hpp:77] Creating layer predict
I0924 03:50:57.791962  9247 net.cpp:91] Creating Layer predict
I0924 03:50:57.791970  9247 net.cpp:425] predict <- lstm2
I0924 03:50:57.791980  9247 net.cpp:399] predict -> predict
I0924 03:50:57.873555  9275 net.cpp:141] Setting up lstm2_unit_1
I0924 03:50:57.873641  9255 net.cpp:141] Setting up predict
I0924 03:50:57.874239  9275 net.cpp:148] Top shape: 1 1 1000 (1000)
I0924 03:50:57.874267  9275 net.cpp:148] Top shape: 1 1 1000 (1000)
I0924 03:50:57.874269  9255 net.cpp:148] Top shape: 1 1 46168 (46168)
I0924 03:50:57.874301  9275 net.cpp:156] Memory required for data: 90020
I0924 03:50:57.874306  9255 net.cpp:156] Memory required for data: 221084
I0924 03:50:57.874323  9275 layer_factory.hpp:77] Creating layer lstm2_
I0924 03:50:57.874333  9255 layer_factory.hpp:77] Creating layer probs
I0924 03:50:57.874359  9255 net.cpp:91] Creating Layer probs
I0924 03:50:57.874357  9275 net.cpp:91] Creating Layer lstm2_
I0924 03:50:57.874397  9255 net.cpp:425] probs <- predict
I0924 03:50:57.874409  9275 net.cpp:425] lstm2_ <- c_1
I0924 03:50:57.874420  9255 net.cpp:399] probs -> probs
I0924 03:50:57.874450  9275 net.cpp:399] lstm2_ -> c_T
I0924 03:50:57.875685  9275 net.cpp:141] Setting up lstm2_
I0924 03:50:57.875727  9275 net.cpp:148] Top shape: 1 1 1000 (1000)
I0924 03:50:57.875743  9275 net.cpp:156] Memory required for data: 94020
I0924 03:50:57.875761  9275 layer_factory.hpp:77] Creating layer lstm2_h_concat
I0924 03:50:57.875787  9275 net.cpp:91] Creating Layer lstm2_h_concat
I0924 03:50:57.875804  9275 net.cpp:425] lstm2_h_concat <- h_1
I0924 03:50:57.875828  9275 net.cpp:399] lstm2_h_concat -> h
I0924 03:50:57.876227  9275 net.cpp:141] Setting up lstm2_h_concat
I0924 03:50:57.876255  9275 net.cpp:148] Top shape: 1 1 1000 (1000)
I0924 03:50:57.876269  9275 net.cpp:156] Memory required for data: 98020
I0924 03:50:57.876284  9275 layer_factory.hpp:77] Creating layer h_pseudoloss
I0924 03:50:57.876309  9275 net.cpp:91] Creating Layer h_pseudoloss
I0924 03:50:57.876325  9275 net.cpp:425] h_pseudoloss <- h
I0924 03:50:57.876348  9275 net.cpp:399] h_pseudoloss -> h_pseudoloss
I0924 03:50:57.873749  9237 net.cpp:141] Setting up lstm2_transform_1
I0924 03:50:57.876641  9237 net.cpp:148] Top shape: 1 1 4000 (4000)
I0924 03:50:57.876651  9237 net.cpp:156] Memory required for data: 66020
I0924 03:50:57.876668  9237 layer_factory.hpp:77] Creating layer lstm2_gate_input_1
I0924 03:50:57.876693  9237 net.cpp:91] Creating Layer lstm2_gate_input_1
I0924 03:50:57.876703  9237 net.cpp:425] lstm2_gate_input_1 <- W_hc_h_0
I0924 03:50:57.876713  9237 net.cpp:425] lstm2_gate_input_1 <- W_xc_x_1
I0924 03:50:57.876724  9237 net.cpp:399] lstm2_gate_input_1 -> gate_input_1
I0924 03:50:57.879086  9237 net.cpp:141] Setting up lstm2_gate_input_1
I0924 03:50:57.879133  9237 net.cpp:148] Top shape: 1 1 4000 (4000)
I0924 03:50:57.879139  9237 net.cpp:156] Memory required for data: 82020
I0924 03:50:57.879148  9237 layer_factory.hpp:77] Creating layer lstm2_unit_1
I0924 03:50:57.879173  9237 net.cpp:91] Creating Layer lstm2_unit_1
I0924 03:50:57.879180  9237 net.cpp:425] lstm2_unit_1 <- c_0
I0924 03:50:57.879190  9237 net.cpp:425] lstm2_unit_1 <- gate_input_1
I0924 03:50:57.879196  9237 net.cpp:425] lstm2_unit_1 <- cont_1_lstm2_cont_slice_0_split_1
…
I0924 03:50:57.879514  9275 net.cpp:219] lstm2_ does not need backward computation.
I0924 03:50:57.879525  9275 net.cpp:261] This network produces output c_T
I0924 03:50:57.879539  9275 net.cpp:261] This network produces output h_pseudoloss
I0924 03:50:57.879572  9275 net.cpp:274] Network initialization done.
I0924 03:50:57.879688  9275 recurrent_layer.cpp:150] Adding parameter 0: W_xc
I0924 03:50:57.879706  9275 recurrent_layer.cpp:150] Adding parameter 1: b_c
I0924 03:50:57.879719  9275 recurrent_layer.cpp:150] Adding parameter 2: W_hc
I0924 03:50:57.890228  9237 net.cpp:141] Setting up lstm2_unit_1
I0924 03:50:57.890282  9237 net.cpp:148] Top shape: 1 1 1000 (1000)
I0924 03:50:57.890295  9237 net.cpp:148] Top shape: 1 1 1000 (1000)
I0924 03:50:57.890301  9237 net.cpp:156] Memory required for data: 90020
I0924 03:50:57.890311  9237 layer_factory.hpp:77] Creating layer lstm2_
I0924 03:50:57.890332  9237 net.cpp:91] Creating Layer lstm2_
I0924 03:50:57.890343  9237 net.cpp:425] lstm2_ <- c_1
I0924 03:50:57.890365  9237 net.cpp:399] lstm2_ -> c_T
I0924 03:50:57.890363  9275 net.cpp:141] Setting up lstm2
I0924 03:50:57.890395  9275 net.cpp:148] Top shape: 1 1 1000 (1000)
I0924 03:50:57.890408  9275 net.cpp:156] Memory required for data: 36412
I0924 03:50:57.890449  9275 layer_factory.hpp:77] Creating layer predict
I0924 03:50:57.890480  9275 net.cpp:91] Creating Layer predict
I0924 03:50:57.890497  9275 net.cpp:425] predict <- lstm2
I0924 03:50:57.890522  9275 net.cpp:399] predict -> predict
I0924 03:50:57.894934  9237 net.cpp:141] Setting up lstm2_
I0924 03:50:57.894987  9237 net.cpp:148] Top shape: 1 1 1000 (1000)
I0924 03:50:57.894997  9237 net.cpp:156] Memory required for data: 94020
I0924 03:50:57.895009  9237 layer_factory.hpp:77] Creating layer lstm2_h_concat
I0924 03:50:57.895030  9237 net.cpp:91] Creating Layer lstm2_h_concat
I0924 03:50:57.895040  9237 net.cpp:425] lstm2_h_concat <- h_1
I0924 03:50:57.895061  9237 net.cpp:399] lstm2_h_concat -> h
I0924 03:50:58.007774  9237 net.cpp:141] Setting up lstm2_h_concat
I0924 03:50:58.007820  9237 net.cpp:148] Top shape: 1 1 1000 (1000)
I0924 03:50:58.007827  9237 net.cpp:156] Memory required for data: 98020
I0924 03:50:58.007836  9237 layer_factory.hpp:77] Creating layer h_pseudoloss
I0924 03:50:58.007853  9237 net.cpp:91] Creating Layer h_pseudoloss
I0924 03:50:58.007861  9237 net.cpp:425] h_pseudoloss <- h
I0924 03:50:58.007874  9237 net.cpp:399] h_pseudoloss -> h_pseudoloss
I0924 03:50:58.008066  9237 net.cpp:141] Setting up h_pseudoloss
I0924 03:50:58.008080  9237 net.cpp:148] Top shape: (1)
I0924 03:50:58.008085  9237 net.cpp:151]     with loss weight 1
I0924 03:50:58.008097  9237 net.cpp:156] Memory required for data: 98024
I0924 03:50:58.008102  9237 net.cpp:217] h_pseudoloss needs backward computation.
I0924 03:50:58.008107  9237 net.cpp:217] lstm2_h_concat needs backward computation.
I0924 03:50:58.008112  9237 net.cpp:219] lstm2_ does not need backward computation.
I0924 03:50:58.008117  9237 net.cpp:217] lstm2_unit_1 needs backward computation.
I0924 03:50:58.008116  9241 net.cpp:141] Setting up predict
I0924 03:50:58.008124  9237 net.cpp:217] lstm2_gate_input_1 needs backward computation.
I0924 03:50:58.008142  9241 net.cpp:148] Top shape: 1 1 46168 (46168)
I0924 03:50:58.008143  9237 net.cpp:217] lstm2_transform_1 needs backward computation.
I0924 03:50:58.008153  9241 net.cpp:156] Memory required for data: 221084
I0924 03:50:58.008158  9237 net.cpp:219] lstm2_h_conted_0 does not need backward computation.
I0924 03:50:58.008164  9237 net.cpp:217] lstm2_W_xc_x_slice needs backward computation.
I0924 03:50:58.008165  9241 layer_factory.hpp:77] Creating layer probs
…
I0924 03:50:58.008193  9241 net.cpp:399] probs -> probs
I0924 03:50:58.008195  9237 net.cpp:261] This network produces output c_T
I0924 03:50:58.008200  9237 net.cpp:261] This network produces output h_pseudoloss
I0924 03:50:58.008216  9237 net.cpp:274] Network initialization done.
I0924 03:50:58.008271  9237 recurrent_layer.cpp:150] Adding parameter 0: W_xc
I0924 03:50:58.008277  9237 recurrent_layer.cpp:150] Adding parameter 1: b_c
I0924 03:50:58.008282  9237 recurrent_layer.cpp:150] Adding parameter 2: W_hc
I0924 03:50:58.013448  9237 net.cpp:141] Setting up lstm2
I0924 03:50:58.013509  9237 net.cpp:148] Top shape: 1 1 1000 (1000)
I0924 03:50:58.013517  9237 net.cpp:156] Memory required for data: 36412
I0924 03:50:58.013545  9237 layer_factory.hpp:77] Creating layer predict
I0924 03:50:58.013568  9237 net.cpp:91] Creating Layer predict
I0924 03:50:58.013578  9237 net.cpp:425] predict <- lstm2
I0924 03:50:58.013592  9237 net.cpp:399] predict -> predict
I0924 03:50:58.111654  9285 net.cpp:141] Setting up predict
I0924 03:50:58.112164  9285 net.cpp:148] Top shape: 1 1 46168 (46168)
I0924 03:50:58.112313  9285 net.cpp:156] Memory required for data: 221084
I0924 03:50:58.112344  9285 layer_factory.hpp:77] Creating layer probs
I0924 03:50:58.112371  9285 net.cpp:91] Creating Layer probs
I0924 03:50:58.112387  9285 net.cpp:425] probs <- predict
I0924 03:50:58.112406  9285 net.cpp:399] probs -> probs
I0924 03:50:58.183042  9259 net.cpp:141] Setting up predict
I0924 03:50:58.183094  9259 net.cpp:148] Top shape: 1 1 46168 (46168)
I0924 03:50:58.183102  9259 net.cpp:156] Memory required for data: 221084
I0924 03:50:58.183125  9259 layer_factory.hpp:77] Creating layer probs
I0924 03:50:58.183147  9259 net.cpp:91] Creating Layer probs
I0924 03:50:58.183159  9259 net.cpp:425] probs <- predict
I0924 03:50:58.183174  9259 net.cpp:399] probs -> probs
I0924 03:50:58.275058  9259 net.cpp:141] Setting up probs
I0924 03:50:58.275107  9259 net.cpp:148] Top shape: 1 1 46168 (46168)
I0924 03:50:58.275117  9259 net.cpp:156] Memory required for data: 405756
I0924 03:50:58.275130  9259 net.cpp:219] probs does not need backward computation.
I0924 03:50:58.275141  9259 net.cpp:219] predict does not need backward computation.
I0924 03:50:58.275159  9259 net.cpp:219] lstm2 does not need backward computation.
I0924 03:50:58.275169  9259 net.cpp:219] concat does not need backward computation.
I0924 03:50:58.275179  9259 net.cpp:219] lstm1 does not need backward computation.
I0924 03:50:58.275192  9259 net.cpp:219] embedding does not need backward computation.
I0924 03:50:58.275200  9259 net.cpp:219] reshape_stage_indicator does not need backward computation.
I0924 03:50:58.275209  9259 net.cpp:219] reshape_frames does not need backward computation.
I0924 03:50:58.275218  9259 net.cpp:219] embed_encoder does not need backward computation.
I0924 03:50:58.275225  9259 net.cpp:219] cont_sentence_input_1_split does not need backward computation.
I0924 03:50:58.275234  9259 net.cpp:219] input does not need backward computation.
I0924 03:50:58.275241  9259 net.cpp:261] This network produces output probs
I0924 03:50:58.275270  9259 net.cpp:274] Network initialization done.
I0924 03:50:58.275367  9285 net.cpp:141] Setting up probs
I0924 03:50:58.275388  9285 net.cpp:148] Top shape: 1 1 46168 (46168)
I0924 03:50:58.275393  9285 net.cpp:156] Memory required for data: 405756
I0924 03:50:58.275398  9285 net.cpp:219] probs does not need backward computation.
I0924 03:50:58.275404  9285 net.cpp:219] predict does not need backward computation.
I0924 03:50:58.275413  9285 net.cpp:219] lstm2 does not need backward computation.
I0924 03:50:58.275423  9285 net.cpp:219] concat does not need backward computation.
I0924 03:50:58.275434  9285 net.cpp:219] lstm1 does not need backward computation.
I0924 03:50:58.275441  9285 net.cpp:219] embedding does not need backward computation.
I0924 03:50:58.275446  9285 net.cpp:219] reshape_stage_indicator does not need backward computation.
I0924 03:50:58.275451  9285 net.cpp:219] reshape_frames does not need backward computation.
I0924 03:50:58.275456  9285 net.cpp:219] embed_encoder does not need backward computation.
I0924 03:50:58.275461  9285 net.cpp:219] cont_sentence_input_1_split does not need backward computation.
I0924 03:50:58.275466  9285 net.cpp:219] input does not need backward computation.
I0924 03:50:58.275470  9285 net.cpp:261] This network produces output probs
I0924 03:50:58.275486  9285 net.cpp:274] Network initialization done.
I0924 03:50:58.275707  9255 net.cpp:141] Setting up probs
I0924 03:50:58.275727  9255 net.cpp:148] Top shape: 1 1 46168 (46168)
I0924 03:50:58.275734  9255 net.cpp:156] Memory required for data: 405756
I0924 03:50:58.275743  9255 net.cpp:219] probs does not need backward computation.
I0924 03:50:58.275759  9255 net.cpp:219] predict does not need backward computation.
I0924 03:50:58.275768  9255 net.cpp:219] lstm2 does not need backward computation.
I0924 03:50:58.275777  9255 net.cpp:219] concat does not need backward computation.
I0924 03:50:58.275786  9255 net.cpp:219] lstm1 does not need backward computation.
I0924 03:50:58.275795  9255 net.cpp:219] embedding does not need backward computation.
I0924 03:50:58.275804  9255 net.cpp:219] reshape_stage_indicator does not need backward computation.
I0924 03:50:58.275811  9255 net.cpp:219] reshape_frames does not need backward computation.
I0924 03:50:58.275820  9255 net.cpp:219] embed_encoder does not need backward computation.
I0924 03:50:58.275827  9255 net.cpp:219] cont_sentence_input_1_split does not need backward computation.
I0924 03:50:58.275836  9255 net.cpp:219] input does not need backward computation.
I0924 03:50:58.275842  9255 net.cpp:261] This network produces output probs
I0924 03:50:58.275873  9255 net.cpp:274] Network initialization done.
I0924 03:50:58.276664  9243 net.cpp:141] Setting up probs
I0924 03:50:58.276681  9243 net.cpp:148] Top shape: 1 1 46168 (46168)
I0924 03:50:58.276687  9243 net.cpp:156] Memory required for data: 405756
I0924 03:50:58.276693  9243 net.cpp:219] probs does not need backward computation.
I0924 03:50:58.276700  9243 net.cpp:219] predict does not need backward computation.
I0924 03:50:58.276710  9243 net.cpp:219] lstm2 does not need backward computation.
I0924 03:50:58.276708  9241 net.cpp:141] Setting up probs
I0924 03:50:58.276720  9243 net.cpp:219] concat does not need backward computation.
I0924 03:50:58.276729  9241 net.cpp:148] Top shape: 1 1 46168 (46168)
I0924 03:50:58.276729  9243 net.cpp:219] lstm1 does not need backward computation.
I0924 03:50:58.276743  9241 net.cpp:156] Memory required for data: 405756
I0924 03:50:58.276751  9243 net.cpp:219] embedding does not need backward computation.
I0924 03:50:58.276754  9241 net.cpp:219] probs does not need backward computation.
I0924 03:50:58.276763  9243 net.cpp:219] reshape_stage_indicator does not need backward computation.
…
I0924 03:50:58.276834  9241 net.cpp:219] reshape_frames does not need backward computation.
I0924 03:50:58.276844  9241 net.cpp:219] embed_encoder does not need backward computation.
I0924 03:50:58.276849  9243 net.cpp:274] Network initialization done.
I0924 03:50:58.276851  9241 net.cpp:219] cont_sentence_input_1_split does not need backward computation.
I0924 03:50:58.276870  9241 net.cpp:219] input does not need backward computation.
I0924 03:50:58.276878  9241 net.cpp:261] This network produces output probs
I0924 03:50:58.276904  9241 net.cpp:274] Network initialization done.
I0924 03:50:58.278287  9277 net.cpp:141] Setting up conv1
I0924 03:50:58.278318  9277 net.cpp:148] Top shape: 10 96 55 55 (2904000)
I0924 03:50:58.278327  9277 net.cpp:156] Memory required for data: 17799480
I0924 03:50:58.278353  9277 layer_factory.hpp:77] Creating layer relu1
I0924 03:50:58.278376  9277 net.cpp:91] Creating Layer relu1
I0924 03:50:58.278388  9277 net.cpp:425] relu1 <- conv1
I0924 03:50:58.278400  9277 net.cpp:386] relu1 -> conv1 (in-place)
I0924 03:50:58.279037  9277 net.cpp:141] Setting up relu1
I0924 03:50:58.279058  9277 net.cpp:148] Top shape: 10 96 55 55 (2904000)
I0924 03:50:58.279067  9277 net.cpp:156] Memory required for data: 29415480
I0924 03:50:58.279076  9277 layer_factory.hpp:77] Creating layer pool1
I0924 03:50:58.279103  9277 net.cpp:91] Creating Layer pool1
I0924 03:50:58.279111  9277 net.cpp:425] pool1 <- conv1
I0924 03:50:58.279125  9277 net.cpp:399] pool1 -> pool1
I0924 03:50:58.279268  9277 net.cpp:141] Setting up pool1
I0924 03:50:58.279285  9277 net.cpp:148] Top shape: 10 96 27 27 (699840)
I0924 03:50:58.279294  9277 net.cpp:156] Memory required for data: 32214840
I0924 03:50:58.279301  9277 layer_factory.hpp:77] Creating layer norm1
I0924 03:50:58.279337  9277 net.cpp:91] Creating Layer norm1
I0924 03:50:58.279347  9277 net.cpp:425] norm1 <- pool1
I0924 03:50:58.279359  9277 net.cpp:399] norm1 -> norm1
I0924 03:50:58.279808  9277 net.cpp:141] Setting up norm1
I0924 03:50:58.279826  9277 net.cpp:148] Top shape: 10 96 27 27 (699840)
I0924 03:50:58.279835  9277 net.cpp:156] Memory required for data: 35014200
I0924 03:50:58.279844  9277 layer_factory.hpp:77] Creating layer conv2
I0924 03:50:58.279871  9277 net.cpp:91] Creating Layer conv2
I0924 03:50:58.279880  9277 net.cpp:425] conv2 <- norm1
I0924 03:50:58.279893  9277 net.cpp:399] conv2 -> conv2
I0924 03:50:58.287681  9247 net.cpp:141] Setting up predict
I0924 03:50:58.287730  9247 net.cpp:148] Top shape: 1 1 46168 (46168)
I0924 03:50:58.287736  9247 net.cpp:156] Memory required for data: 221084
I0924 03:50:58.287750  9247 layer_factory.hpp:77] Creating layer probs
I0924 03:50:58.287766  9247 net.cpp:91] Creating Layer probs
I0924 03:50:58.287775  9247 net.cpp:425] probs <- predict
I0924 03:50:58.287784  9247 net.cpp:399] probs -> probs
I0924 03:50:58.288630  9277 net.cpp:141] Setting up conv2
I0924 03:50:58.288674  9277 net.cpp:148] Top shape: 10 256 27 27 (1866240)
I0924 03:50:58.288686  9277 net.cpp:156] Memory required for data: 42479160
I0924 03:50:58.288717  9277 layer_factory.hpp:77] Creating layer relu2
I0924 03:50:58.288743  9277 net.cpp:91] Creating Layer relu2
I0924 03:50:58.288755  9277 net.cpp:425] relu2 <- conv2
I0924 03:50:58.288771  9277 net.cpp:386] relu2 -> conv2 (in-place)
I0924 03:50:58.288825  9247 net.cpp:141] Setting up probs
I0924 03:50:58.288841  9247 net.cpp:148] Top shape: 1 1 46168 (46168)
I0924 03:50:58.288846  9247 net.cpp:156] Memory required for data: 405756
I0924 03:50:58.288851  9247 net.cpp:219] probs does not need backward computation.
I0924 03:50:58.288856  9247 net.cpp:219] predict does not need backward computation.
I0924 03:50:58.288861  9247 net.cpp:219] lstm2 does not need backward computation.
I0924 03:50:58.288867  9247 net.cpp:219] concat does not need backward computation.
I0924 03:50:58.288873  9247 net.cpp:219] lstm1 does not need backward computation.
I0924 03:50:58.288880  9247 net.cpp:219] embedding does not need backward computation.
I0924 03:50:58.288885  9247 net.cpp:219] reshape_stage_indicator does not need backward computation.
I0924 03:50:58.288890  9247 net.cpp:219] reshape_frames does not need backward computation.
I0924 03:50:58.288895  9247 net.cpp:219] embed_encoder does not need backward computation.
I0924 03:50:58.288899  9247 net.cpp:219] cont_sentence_input_1_split does not need backward computation.
I0924 03:50:58.288904  9247 net.cpp:219] input does not need backward computation.
I0924 03:50:58.288909  9247 net.cpp:261] This network produces output probs
I0924 03:50:58.288924  9247 net.cpp:274] Network initialization done.
I0924 03:50:58.289629  9277 net.cpp:141] Setting up relu2
I0924 03:50:58.289657  9277 net.cpp:148] Top shape: 10 256 27 27 (1866240)
I0924 03:50:58.289666  9277 net.cpp:156] Memory required for data: 49944120
I0924 03:50:58.289676  9277 layer_factory.hpp:77] Creating layer pool2
I0924 03:50:58.289696  9277 net.cpp:91] Creating Layer pool2
I0924 03:50:58.289705  9277 net.cpp:425] pool2 <- conv2
I0924 03:50:58.289721  9277 net.cpp:399] pool2 -> pool2
I0924 03:50:58.289888  9277 net.cpp:141] Setting up pool2
I0924 03:50:58.289909  9277 net.cpp:148] Top shape: 10 256 13 13 (432640)
I0924 03:50:58.289918  9277 net.cpp:156] Memory required for data: 51674680
I0924 03:50:58.289929  9277 layer_factory.hpp:77] Creating layer norm2
I0924 03:50:58.289958  9277 net.cpp:91] Creating Layer norm2
I0924 03:50:58.289970  9277 net.cpp:425] norm2 <- pool2
I0924 03:50:58.289985  9277 net.cpp:399] norm2 -> norm2
I0924 03:50:58.290585  9277 net.cpp:141] Setting up norm2
I0924 03:50:58.290657  9277 net.cpp:148] Top shape: 10 256 13 13 (432640)
I0924 03:50:58.290668  9277 net.cpp:156] Memory required for data: 53405240
I0924 03:50:58.290683  9277 layer_factory.hpp:77] Creating layer conv3
I0924 03:50:58.290709  9277 net.cpp:91] Creating Layer conv3
I0924 03:50:58.290719  9277 net.cpp:425] conv3 <- norm2
I0924 03:50:58.290733  9277 net.cpp:399] conv3 -> conv3
I0924 03:50:58.325562  9277 net.cpp:141] Setting up conv3
I0924 03:50:58.325621  9277 net.cpp:148] Top shape: 10 384 13 13 (648960)
I0924 03:50:58.325631  9277 net.cpp:156] Memory required for data: 56001080
I0924 03:50:58.325661  9277 layer_factory.hpp:77] Creating layer relu3
I0924 03:50:58.326628  9277 net.cpp:91] Creating Layer relu3
I0924 03:50:58.326663  9277 net.cpp:425] relu3 <- conv3
I0924 03:50:58.326683  9277 net.cpp:386] relu3 -> conv3 (in-place)
I0924 03:50:58.328989  9277 net.cpp:141] Setting up relu3
I0924 03:50:58.329052  9277 net.cpp:148] Top shape: 10 384 13 13 (648960)
I0924 03:50:58.329061  9277 net.cpp:156] Memory required for data: 58596920
I0924 03:50:58.329073  9277 layer_factory.hpp:77] Creating layer conv4
I0924 03:50:58.330082  9277 net.cpp:91] Creating Layer conv4
I0924 03:50:58.330132  9277 net.cpp:425] conv4 <- conv3
I0924 03:50:58.330170  9277 net.cpp:399] conv4 -> conv4
I0924 03:50:58.369899  9277 net.cpp:141] Setting up conv4
I0924 03:50:58.369992  9277 net.cpp:148] Top shape: 10 384 13 13 (648960)
I0924 03:50:58.370002  9277 net.cpp:156] Memory required for data: 61192760
I0924 03:50:58.370030  9277 layer_factory.hpp:77] Creating layer relu4
I0924 03:50:58.370064  9277 net.cpp:91] Creating Layer relu4
I0924 03:50:58.370076  9277 net.cpp:425] relu4 <- conv4
I0924 03:50:58.370100  9277 net.cpp:386] relu4 -> conv4 (in-place)
I0924 03:50:58.373962  9277 net.cpp:141] Setting up relu4
I0924 03:50:58.374116  9277 net.cpp:148] Top shape: 10 384 13 13 (648960)
I0924 03:50:58.374143  9277 net.cpp:156] Memory required for data: 63788600
I0924 03:50:58.374197  9277 layer_factory.hpp:77] Creating layer conv5
I0924 03:50:58.374281  9277 net.cpp:91] Creating Layer conv5
I0924 03:50:58.374315  9277 net.cpp:425] conv5 <- conv4
I0924 03:50:58.374354  9277 net.cpp:399] conv5 -> conv5
I0924 03:50:58.389147  9277 net.cpp:141] Setting up conv5
I0924 03:50:58.389243  9277 net.cpp:148] Top shape: 10 256 13 13 (432640)
I0924 03:50:58.389256  9277 net.cpp:156] Memory required for data: 65519160
I0924 03:50:58.389341  9277 layer_factory.hpp:77] Creating layer relu5
I0924 03:50:58.389384  9277 net.cpp:91] Creating Layer relu5
I0924 03:50:58.389397  9277 net.cpp:425] relu5 <- conv5
I0924 03:50:58.389418  9277 net.cpp:386] relu5 -> conv5 (in-place)
I0924 03:50:58.398739  9277 net.cpp:141] Setting up relu5
I0924 03:50:58.398808  9277 net.cpp:148] Top shape: 10 256 13 13 (432640)
I0924 03:50:58.398818  9277 net.cpp:156] Memory required for data: 67249720
I0924 03:50:58.398833  9277 layer_factory.hpp:77] Creating layer pool5
I0924 03:50:58.398860  9277 net.cpp:91] Creating Layer pool5
I0924 03:50:58.398874  9277 net.cpp:425] pool5 <- conv5
I0924 03:50:58.398895  9277 net.cpp:399] pool5 -> pool5
I0924 03:50:58.399163  9277 net.cpp:141] Setting up pool5
I0924 03:50:58.399183  9277 net.cpp:148] Top shape: 10 256 6 6 (92160)
I0924 03:50:58.399190  9277 net.cpp:156] Memory required for data: 67618360
I0924 03:50:58.399199  9277 layer_factory.hpp:77] Creating layer fc6
I0924 03:50:58.399221  9277 net.cpp:91] Creating Layer fc6
I0924 03:50:58.399230  9277 net.cpp:425] fc6 <- pool5
I0924 03:50:58.399240  9277 net.cpp:399] fc6 -> fc6
I0924 03:50:58.478708  9275 net.cpp:141] Setting up predict
I0924 03:50:58.478801  9275 net.cpp:148] Top shape: 1 1 46168 (46168)
I0924 03:50:58.478814  9275 net.cpp:156] Memory required for data: 221084
I0924 03:50:58.478848  9275 layer_factory.hpp:77] Creating layer probs
I0924 03:50:58.478884  9275 net.cpp:91] Creating Layer probs
I0924 03:50:58.478900  9275 net.cpp:425] probs <- predict
I0924 03:50:58.478922  9275 net.cpp:399] probs -> probs
I0924 03:50:58.481035  9275 net.cpp:141] Setting up probs
I0924 03:50:58.481753  9275 net.cpp:148] Top shape: 1 1 46168 (46168)
I0924 03:50:58.482059  9275 net.cpp:156] Memory required for data: 405756
I0924 03:50:58.482077  9275 net.cpp:219] probs does not need backward computation.
I0924 03:50:58.482086  9275 net.cpp:219] predict does not need backward computation.
I0924 03:50:58.482094  9275 net.cpp:219] lstm2 does not need backward computation.
I0924 03:50:58.482100  9275 net.cpp:219] concat does not need backward computation.
I0924 03:50:58.482107  9275 net.cpp:219] lstm1 does not need backward computation.
I0924 03:50:58.482115  9275 net.cpp:219] embedding does not need backward computation.
I0924 03:50:58.482120  9275 net.cpp:219] reshape_stage_indicator does not need backward computation.
I0924 03:50:58.482125  9275 net.cpp:219] reshape_frames does not need backward computation.
I0924 03:50:58.482131  9275 net.cpp:219] embed_encoder does not need backward computation.
I0924 03:50:58.482136  9275 net.cpp:219] cont_sentence_input_1_split does not need backward computation.
I0924 03:50:58.482141  9275 net.cpp:219] input does not need backward computation.
I0924 03:50:58.482146  9275 net.cpp:261] This network produces output probs
I0924 03:50:58.482166  9275 net.cpp:274] Network initialization done.
I0924 03:50:58.530259  9277 net.cpp:141] Setting up fc6
I0924 03:50:58.530328  9277 net.cpp:148] Top shape: 10 4096 (40960)
I0924 03:50:58.530341  9277 net.cpp:156] Memory required for data: 67782200
I0924 03:50:58.530367  9277 layer_factory.hpp:77] Creating layer relu6
I0924 03:50:58.530400  9277 net.cpp:91] Creating Layer relu6
I0924 03:50:58.530411  9277 net.cpp:425] relu6 <- fc6
I0924 03:50:58.530427  9277 net.cpp:386] relu6 -> fc6 (in-place)
I0924 03:50:58.532447  9277 net.cpp:141] Setting up relu6
I0924 03:50:58.532528  9277 net.cpp:148] Top shape: 10 4096 (40960)
I0924 03:50:58.532539  9277 net.cpp:156] Memory required for data: 67946040
I0924 03:50:58.532563  9277 layer_factory.hpp:77] Creating layer drop6
I0924 03:50:58.532609  9277 net.cpp:91] Creating Layer drop6
I0924 03:50:58.532624  9277 net.cpp:425] drop6 <- fc6
I0924 03:50:58.532639  9277 net.cpp:386] drop6 -> fc6 (in-place)
I0924 03:50:58.532855  9277 net.cpp:141] Setting up drop6
I0924 03:50:58.532871  9277 net.cpp:148] Top shape: 10 4096 (40960)
I0924 03:50:58.532877  9277 net.cpp:156] Memory required for data: 68109880
I0924 03:50:58.532886  9277 layer_factory.hpp:77] Creating layer fc7
I0924 03:50:58.533362  9277 net.cpp:91] Creating Layer fc7
I0924 03:50:58.533385  9277 net.cpp:425] fc7 <- fc6
I0924 03:50:58.533408  9277 net.cpp:399] fc7 -> fc7
I0924 03:50:58.567167  9237 net.cpp:141] Setting up predict
I0924 03:50:58.567258  9237 net.cpp:148] Top shape: 1 1 46168 (46168)
I0924 03:50:58.567270  9237 net.cpp:156] Memory required for data: 221084
I0924 03:50:58.567296  9237 layer_factory.hpp:77] Creating layer probs
I0924 03:50:58.567332  9237 net.cpp:91] Creating Layer probs
I0924 03:50:58.567344  9237 net.cpp:425] probs <- predict
I0924 03:50:58.567363  9237 net.cpp:399] probs -> probs
I0924 03:50:58.568805  9237 net.cpp:141] Setting up probs
I0924 03:50:58.568881  9237 net.cpp:148] Top shape: 1 1 46168 (46168)
I0924 03:50:58.568891  9237 net.cpp:156] Memory required for data: 405756
I0924 03:50:58.568904  9237 net.cpp:219] probs does not need backward computation.
I0924 03:50:58.568917  9237 net.cpp:219] predict does not need backward computation.
I0924 03:50:58.568928  9237 net.cpp:219] lstm2 does not need backward computation.
I0924 03:50:58.568938  9237 net.cpp:219] concat does not need backward computation.
I0924 03:50:58.568949  9237 net.cpp:219] lstm1 does not need backward computation.
I0924 03:50:58.568960  9237 net.cpp:219] embedding does not need backward computation.
I0924 03:50:58.568974  9237 net.cpp:219] reshape_stage_indicator does not need backward computation.
I0924 03:50:58.568984  9237 net.cpp:219] reshape_frames does not need backward computation.
I0924 03:50:58.568994  9237 net.cpp:219] embed_encoder does not need backward computation.
I0924 03:50:58.569002  9237 net.cpp:219] cont_sentence_input_1_split does not need backward computation.
I0924 03:50:58.569011  9237 net.cpp:219] input does not need backward computation.
I0924 03:50:58.569020  9237 net.cpp:261] This network produces output probs
I0924 03:50:58.569049  9237 net.cpp:274] Network initialization done.
I0924 03:50:58.593600  9277 net.cpp:141] Setting up fc7
I0924 03:50:58.593664  9277 net.cpp:148] Top shape: 10 4096 (40960)
I0924 03:50:58.593673  9277 net.cpp:156] Memory required for data: 68273720
I0924 03:50:58.593698  9277 layer_factory.hpp:77] Creating layer relu7
I0924 03:50:58.593724  9277 net.cpp:91] Creating Layer relu7
I0924 03:50:58.593734  9277 net.cpp:425] relu7 <- fc7
I0924 03:50:58.593747  9277 net.cpp:386] relu7 -> fc7 (in-place)
I0924 03:50:58.595430  9277 net.cpp:141] Setting up relu7
I0924 03:50:58.595484  9277 net.cpp:148] Top shape: 10 4096 (40960)
I0924 03:50:58.595494  9277 net.cpp:156] Memory required for data: 68437560
I0924 03:50:58.595505  9277 layer_factory.hpp:77] Creating layer drop7
I0924 03:50:58.595526  9277 net.cpp:91] Creating Layer drop7
I0924 03:50:58.595536  9277 net.cpp:425] drop7 <- fc7
I0924 03:50:58.595557  9277 net.cpp:386] drop7 -> fc7 (in-place)
I0924 03:50:58.595719  9277 net.cpp:141] Setting up drop7
I0924 03:50:58.595736  9277 net.cpp:148] Top shape: 10 4096 (40960)
I0924 03:50:58.595743  9277 net.cpp:156] Memory required for data: 68601400
I0924 03:50:58.595751  9277 layer_factory.hpp:77] Creating layer fc8
I0924 03:50:58.596251  9277 net.cpp:91] Creating Layer fc8
I0924 03:50:58.596274  9277 net.cpp:425] fc8 <- fc7
I0924 03:50:58.596289  9277 net.cpp:399] fc8 -> fc8
I0924 03:50:58.615785  9277 net.cpp:141] Setting up fc8
I0924 03:50:58.615842  9277 net.cpp:148] Top shape: 10 1000 (10000)
I0924 03:50:58.615849  9277 net.cpp:156] Memory required for data: 68641400
I0924 03:50:58.615864  9277 layer_factory.hpp:77] Creating layer prob
I0924 03:50:58.615885  9277 net.cpp:91] Creating Layer prob
I0924 03:50:58.615891  9277 net.cpp:425] prob <- fc8
I0924 03:50:58.615901  9277 net.cpp:399] prob -> prob
I0924 03:50:58.618697  9277 net.cpp:141] Setting up prob
I0924 03:50:58.618749  9277 net.cpp:148] Top shape: 10 1000 (10000)
I0924 03:50:58.618758  9277 net.cpp:156] Memory required for data: 68681400
I0924 03:50:58.618767  9277 net.cpp:219] prob does not need backward computation.
I0924 03:50:58.618773  9277 net.cpp:219] fc8 does not need backward computation.
I0924 03:50:58.618779  9277 net.cpp:219] drop7 does not need backward computation.
I0924 03:50:58.618783  9277 net.cpp:219] relu7 does not need backward computation.
…
