…
Java HotSpot(TM) 64-Bit Server VM warning: You have loaded library /tmp/cvld1258557497884723117/libopencv_java310.xine1.so which might have disabled stack guard. The VM will try to fix the stack guard now.
It's highly recommended that you fix the library with 'execstack -c <libfile>', or link it with '-z noexecstack'.
WARNING: Logging before InitGoogleLogging() is written to STDERR
I0720 16:29:34.465291 30112 net.cpp:49] Initializing net from parameters: 
name: "CaffeNet"
state {
  phase: TEST
}
layer {
  name: "data"
  type: "Input"
  top: "data"
  input_param {
    shape {
      dim: 10
      dim: 3
      dim: 227
      dim: 227
    }
  }
}
layer {
  name: "conv1"
  type: "Convolution"
  bottom: "data"
  top: "conv1"
  convolution_param {
    num_output: 96
    kernel_size: 11
    stride: 4
  }
}
layer {
  name: "relu1"
  type: "ReLU"
  bottom: "conv1"
  top: "conv1"
}
layer {
  name: "pool1"
  type: "Pooling"
  bottom: "conv1"
  top: "pool1"
  pooling_param {
    pool: MAX
    kernel_size: 3
    stride: 2
  }
}
layer {
  name: "norm1"
  type: "LRN"
  bottom: "pool1"
  top: "norm1"
  lrn_param {
    local_size: 5
    alpha: 0.0001
    beta: 0.75
  }
}
layer {
  name: "conv2"
  type: "Convolution"
  bottom: "norm1"
  top: "conv2"
  convolution_param {
    num_output: 256
    pad: 2
    kernel_size: 5
    group: 2
  }
}
layer {
  name: "relu2"
  type: "ReLU"
  bottom: "conv2"
  top: "conv2"
}
layer {
  name: "pool2"
  type: "Pooling"
  bottom: "conv2"
  top: "pool2"
  pooling_param {
    pool: MAX
    kernel_size: 3
    stride: 2
  }
}
layer {
  name: "norm2"
  type: "LRN"
  bottom: "pool2"
  top: "norm2"
  lrn_param {
    local_size: 5
    alpha: 0.0001
    beta: 0.75
  }
}
layer {
  name: "conv3"
  type: "Convolution"
  bottom: "norm2"
  top: "conv3"
  convolution_param {
    num_output: 384
    pad: 1
    kernel_size: 3
  }
}
layer {
  name: "relu3"
  type: "ReLU"
  bottom: "conv3"
  top: "conv3"
}
layer {
  name: "conv4"
  type: "Convolution"
  bottom: "conv3"
  top: "conv4"
  convolution_param {
    num_output: 384
    pad: 1
    kernel_size: 3
    group: 2
  }
}
layer {
  name: "relu4"
  type: "ReLU"
  bottom: "conv4"
  top: "conv4"
}
layer {
  name: "conv5"
  type: "Convolution"
  bottom: "conv4"
  top: "conv5"
  convolution_param {
    num_output: 256
    pad: 1
    kernel_size: 3
    group: 2
  }
}
layer {
  name: "relu5"
  type: "ReLU"
  bottom: "conv5"
  top: "conv5"
}
layer {
  name: "pool5"
  type: "Pooling"
  bottom: "conv5"
  top: "pool5"
  pooling_param {
    pool: MAX
    kernel_size: 3
    stride: 2
  }
}
layer {
  name: "fc6"
  type: "InnerProduct"
  bottom: "pool5"
  top: "fc6"
  inner_product_param {
    num_output: 4096
  }
}
layer {
  name: "relu6"
  type: "ReLU"
  bottom: "fc6"
  top: "fc6"
}
layer {
  name: "drop6"
  type: "Dropout"
  bottom: "fc6"
  top: "fc6"
  dropout_param {
    dropout_ratio: 0.5
  }
}
layer {
  name: "fc7"
  type: "InnerProduct"
  bottom: "fc6"
  top: "fc7"
  inner_product_param {
    num_output: 4096
  }
}
layer {
  name: "relu7"
  type: "ReLU"
  bottom: "fc7"
  top: "fc7"
}
layer {
  name: "drop7"
  type: "Dropout"
  bottom: "fc7"
  top: "fc7"
  dropout_param {
    dropout_ratio: 0.5
  }
}
layer {
  name: "fc8"
  type: "InnerProduct"
  bottom: "fc7"
  top: "fc8"
  inner_product_param {
    num_output: 1000
  }
}
layer {
  name: "prob"
  type: "Softmax"
  bottom: "fc8"
  top: "prob"
}
I0720 16:29:34.465536 30112 layer_factory.hpp:77] Creating layer data
I0720 16:29:34.465574 30112 net.cpp:91] Creating Layer data
I0720 16:29:34.465587 30112 net.cpp:399] data -> data
I0720 16:29:34.471686 30106 net.cpp:49] Initializing net from parameters: 
name: "CaffeNet"
state {
  phase: TEST
}
layer {
  name: "data"
  type: "Input"
  top: "data"
  input_param {
    shape {
      dim: 10
      dim: 3
      dim: 227
      dim: 227
    }
  }
}
layer {
  name: "conv1"
  type: "Convolution"
  bottom: "data"
  top: "conv1"
  convolution_param {
    num_output: 96
    kernel_size: 11
    stride: 4
  }
}
layer {
  name: "relu1"
  type: "ReLU"
  bottom: "conv1"
  top: "conv1"
}
layer {
  name: "pool1"
  type: "Pooling"
  bottom: "conv1"
  top: "pool1"
  pooling_param {
    pool: MAX
    kernel_size: 3
    stride: 2
  }
}
layer {
  name: "norm1"
  type: "LRN"
  bottom: "pool1"
  top: "norm1"
  lrn_param {
    local_size: 5
    alpha: 0.0001
    beta: 0.75
  }
}
layer {
  name: "conv2"
  type: "Convolution"
  bottom: "norm1"
  top: "conv2"
  convolution_param {
    num_output: 256
    pad: 2
    kernel_size: 5
    group: 2
  }
}
layer {
  name: "relu2"
  type: "ReLU"
  bottom: "conv2"
  top: "conv2"
}
layer {
  name: "pool2"
  type: "Pooling"
  bottom: "conv2"
  top: "pool2"
  pooling_param {
    pool: MAX
    kernel_size: 3
    stride: 2
  }
}
layer {
  name: "norm2"
  type: "LRN"
  bottom: "pool2"
  top: "norm2"
  lrn_param {
    local_size: 5
    alpha: 0.0001
    beta: 0.75
  }
}
layer {
  name: "conv3"
  type: "Convolution"
  bottom: "norm2"
  top: "conv3"
  convolution_param {
    num_output: 384
    pad: 1
    kernel_size: 3
  }
}
layer {
  name: "relu3"
  type: "ReLU"
  bottom: "conv3"
  top: "conv3"
}
layer {
  name: "conv4"
  type: "Convolution"
  bottom: "conv3"
  top: "conv4"
  convolution_param {
    num_output: 384
    pad: 1
    kernel_size: 3
    group: 2
  }
}
layer {
  name: "relu4"
  type: "ReLU"
  bottom: "conv4"
  top: "conv4"
}
layer {
  name: "conv5"
  type: "Convolution"
  bottom: "conv4"
  top: "conv5"
  convolution_param {
    num_output: 256
    pad: 1
    kernel_size: 3
    group: 2
  }
}
layer {
  name: "relu5"
  type: "ReLU"
  bottom: "conv5"
  top: "conv5"
}
layer {
  name: "pool5"
  type: "Pooling"
  bottom: "conv5"
  top: "pool5"
  pooling_param {
    pool: MAX
    kernel_size: 3
    stride: 2
  }
}
layer {
  name: "fc6"
  type: "InnerProduct"
  bottom: "pool5"
  top: "fc6"
  inner_product_param {
    num_output: 4096
  }
}
layer {
  name: "relu6"
  type: "ReLU"
  bottom: "fc6"
  top: "fc6"
}
layer {
  name: "drop6"
  type: "Dropout"
  bottom: "fc6"
  top: "fc6"
  dropout_param {
    dropout_ratio: 0.5
  }
}
layer {
  name: "fc7"
  type: "InnerProduct"
  bottom: "fc6"
  top: "fc7"
  inner_product_param {
    num_output: 4096
  }
}
layer {
  name: "relu7"
  type: "ReLU"
  bottom: "fc7"
  top: "fc7"
}
layer {
  name: "drop7"
  type: "Dropout"
  bottom: "fc7"
  top: "fc7"
  dropout_param {
    dropout_ratio: 0.5
  }
}
layer {
  name: "fc8"
  type: "InnerProduct"
  bottom: "fc7"
  top: "fc8"
  inner_product_param {
    num_output: 1000
  }
}
layer {
  name: "prob"
  type: "Softmax"
  bottom: "fc8"
  top: "prob"
}
I0720 16:29:34.471807 30106 layer_factory.hpp:77] Creating layer data
I0720 16:29:34.471823 30106 net.cpp:91] Creating Layer data
I0720 16:29:34.471832 30106 net.cpp:399] data -> data
I0720 16:29:35.055924 30098 upgrade_proto.cpp:66] Attempting to upgrade input file specified using deprecated input fields: /tmp/cvld1258557497884723117/s2vt.words_to_preds.prototxt
I0720 16:29:35.055981 30098 upgrade_proto.cpp:69] Successfully upgraded file specified using deprecated input fields.
W0720 16:29:35.055990 30098 upgrade_proto.cpp:71] Note that future Caffe releases will only support input layers and not input fields.
I0720 16:29:35.056269 30098 net.cpp:49] Initializing net from parameters: 
name: "s2vt:features_to_lstm"
state {
  phase: TEST
}
layer {
  name: "input"
  type: "Input"
  top: "frames_fc7"
  top: "cont_sentence"
  top: "input_sentence"
  top: "stage_indicator"
  input_param {
    shape {
      dim: 1
      dim: 4096
    }
    shape {
      dim: 1
      dim: 1
    }
    shape {
      dim: 1
      dim: 1
    }
    shape {
      dim: 1
      dim: 1
    }
  }
}
layer {
  name: "embed_encoder"
  type: "InnerProduct"
  bottom: "frames_fc7"
  top: "embedded_in_frames"
  param {
    lr_mult: 1
    decay_mult: 1
  }
  param {
    lr_mult: 2
    decay_mult: 0
  }
  inner_product_param {
    num_output: 500
    weight_filler {
      type: "xavier"
    }
    bias_filler {
      type: "constant"
      value: 0.2
    }
  }
}
layer {
  name: "reshape_frames"
  type: "Reshape"
  bottom: "embedded_in_frames"
  top: "embedded_input_frames"
  reshape_param {
    shape {
      dim: 1
      dim: 1
      dim: 500
    }
  }
}
layer {
  name: "reshape_stage_indicator"
  type: "Reshape"
  bottom: "stage_indicator"
  top: "reshaped_stage_indicator"
  reshape_param {
    shape {
      dim: 1
      dim: 1
      dim: 1
    }
  }
}
layer {
  name: "embedding"
  type: "Embed"
  bottom: "input_sentence"
  top: "embedded_input_sentence"
  param {
    lr_mult: 1
  }
  embed_param {
    num_output: 500
    input_dim: 46168
    bias_term: false
    weight_filler {
      type: "uniform"
      min: -0.08
      max: 0.08
    }
  }
}
layer {
  name: "lstm1"
  type: "LSTM"
  bottom: "embedded_input_frames"
  bottom: "cont_sentence"
  top: "lstm1"
  recurrent_param {
    num_output: 1000
    weight_filler {
      type: "uniform"
      min: -0.08
      max: 0.08
    }
    bias_filler {
      type: "constant"
      value: 0
    }
  }
}
layer {
  name: "concat"
  type: "Concat"
  bottom: "lstm1"
  bottom: "embedded_input_sentence"
  bottom: "reshaped_stage_indicator"
  top: "lstm1_video_sequence"
  concat_param {
    concat_dim: 2
  }
}
layer {
  name: "lstm2"
  type: "LSTM"
  bottom: "lstm1_video_sequence"
  bottom: "cont_sentence"
  top: "lstm2"
  recurrent_param {
    num_output: 1000
    weight_filler {
      type: "uniform"
      min: -0.08
      max: 0.08
    }
    bias_filler {
      type: "constant"
      value: 0
    }
  }
}
layer {
  name: "predict"
  type: "InnerProduct"
  bottom: "lstm2"
  top: "predict"
  param {
    lr_mult: 1
    decay_mult: 1
  }
  param {
    lr_mult: 2
    decay_mult: 0
  }
  inner_product_param {
    num_output: 46168
    weight_filler {
      type: "uniform"
      min: -0.08
      max: 0.08
    }
    bias_filler {
      type: "constant"
      value: 0
    }
    axis: 2
  }
}
layer {
  name: "probs"
  type: "Softmax"
  bottom: "predict"
  top: "probs"
  softmax_param {
    axis: 2
  }
}
I0720 16:29:35.056407 30098 layer_factory.hpp:77] Creating layer input
I0720 16:29:35.056427 30098 net.cpp:91] Creating Layer input
I0720 16:29:35.056435 30098 net.cpp:399] input -> frames_fc7
I0720 16:29:35.056454 30098 net.cpp:399] input -> cont_sentence
I0720 16:29:35.056468 30098 net.cpp:399] input -> input_sentence
I0720 16:29:35.056480 30098 net.cpp:399] input -> stage_indicator
I0720 16:29:35.073663 30094 upgrade_proto.cpp:66] Attempting to upgrade input file specified using deprecated input fields: /tmp/cvld1258557497884723117/s2vt.words_to_preds.prototxt
I0720 16:29:35.073703 30094 upgrade_proto.cpp:69] Successfully upgraded file specified using deprecated input fields.
W0720 16:29:35.073709 30094 upgrade_proto.cpp:71] Note that future Caffe releases will only support input layers and not input fields.
I0720 16:29:35.073951 30094 net.cpp:49] Initializing net from parameters: 
name: "s2vt:features_to_lstm"
state {
  phase: TEST
}
layer {
  name: "input"
  type: "Input"
  top: "frames_fc7"
  top: "cont_sentence"
  top: "input_sentence"
  top: "stage_indicator"
  input_param {
    shape {
      dim: 1
      dim: 4096
    }
    shape {
      dim: 1
      dim: 1
    }
    shape {
      dim: 1
      dim: 1
    }
    shape {
      dim: 1
      dim: 1
    }
  }
}
layer {
  name: "embed_encoder"
  type: "InnerProduct"
  bottom: "frames_fc7"
  top: "embedded_in_frames"
  param {
    lr_mult: 1
    decay_mult: 1
  }
  param {
    lr_mult: 2
    decay_mult: 0
  }
  inner_product_param {
    num_output: 500
    weight_filler {
      type: "xavier"
    }
    bias_filler {
      type: "constant"
      value: 0.2
    }
  }
}
layer {
  name: "reshape_frames"
  type: "Reshape"
  bottom: "embedded_in_frames"
  top: "embedded_input_frames"
  reshape_param {
    shape {
      dim: 1
      dim: 1
      dim: 500
    }
  }
}
layer {
  name: "reshape_stage_indicator"
  type: "Reshape"
  bottom: "stage_indicator"
  top: "reshaped_stage_indicator"
  reshape_param {
    shape {
      dim: 1
      dim: 1
      dim: 1
    }
  }
}
layer {
  name: "embedding"
  type: "Embed"
  bottom: "input_sentence"
  top: "embedded_input_sentence"
  param {
    lr_mult: 1
  }
  embed_param {
    num_output: 500
    input_dim: 46168
    bias_term: false
    weight_filler {
      type: "uniform"
      min: -0.08
      max: 0.08
    }
  }
}
layer {
  name: "lstm1"
  type: "LSTM"
  bottom: "embedded_input_frames"
  bottom: "cont_sentence"
  top: "lstm1"
  recurrent_param {
    num_output: 1000
    weight_filler {
      type: "uniform"
      min: -0.08
      max: 0.08
    }
    bias_filler {
      type: "constant"
      value: 0
    }
  }
}
layer {
  name: "concat"
  type: "Concat"
  bottom: "lstm1"
  bottom: "embedded_input_sentence"
  bottom: "reshaped_stage_indicator"
  top: "lstm1_video_sequence"
  concat_param {
    concat_dim: 2
  }
}
layer {
  name: "lstm2"
  type: "LSTM"
  bottom: "lstm1_video_sequence"
  bottom: "cont_sentence"
  top: "lstm2"
  recurrent_param {
    num_output: 1000
    weight_filler {
      type: "uniform"
      min: -0.08
      max: 0.08
    }
    bias_filler {
      type: "constant"
      value: 0
    }
  }
}
layer {
  name: "predict"
  type: "InnerProduct"
  bottom: "lstm2"
  top: "predict"
  param {
    lr_mult: 1
    decay_mult: 1
  }
  param {
    lr_mult: 2
    decay_mult: 0
  }
  inner_product_param {
    num_output: 46168
    weight_filler {
      type: "uniform"
      min: -0.08
      max: 0.08
    }
    bias_filler {
      type: "constant"
      value: 0
    }
    axis: 2
  }
}
layer {
  name: "probs"
  type: "Softmax"
  bottom: "predict"
  top: "probs"
  softmax_param {
    axis: 2
  }
}
I0720 16:29:35.074050 30094 layer_factory.hpp:77] Creating layer input
I0720 16:29:35.074067 30094 net.cpp:91] Creating Layer input
I0720 16:29:35.074076 30094 net.cpp:399] input -> frames_fc7
I0720 16:29:35.074095 30094 net.cpp:399] input -> cont_sentence
I0720 16:29:35.074105 30094 net.cpp:399] input -> input_sentence
I0720 16:29:35.074116 30094 net.cpp:399] input -> stage_indicator
I0720 16:29:35.550911 30112 net.cpp:141] Setting up data
I0720 16:29:35.551012 30112 net.cpp:148] Top shape: 10 3 227 227 (1545870)
I0720 16:29:35.551020 30112 net.cpp:156] Memory required for data: 6183480
I0720 16:29:35.551043 30112 layer_factory.hpp:77] Creating layer conv1
I0720 16:29:35.551077 30112 net.cpp:91] Creating Layer conv1
I0720 16:29:35.551077 30094 net.cpp:141] Setting up input
I0720 16:29:35.551087 30112 net.cpp:425] conv1 <- data
I0720 16:29:35.551102 30094 net.cpp:148] Top shape: 1 4096 (4096)
I0720 16:29:35.551110 30094 net.cpp:148] Top shape: 1 1 (1)
I0720 16:29:35.551112 30112 net.cpp:399] conv1 -> conv1
I0720 16:29:35.551117 30094 net.cpp:148] Top shape: 1 1 (1)
I0720 16:29:35.551123 30094 net.cpp:148] Top shape: 1 1 (1)
I0720 16:29:35.551128 30094 net.cpp:156] Memory required for data: 16396
I0720 16:29:35.551134 30094 layer_factory.hpp:77] Creating layer cont_sentence_input_1_split
I0720 16:29:35.551158 30094 net.cpp:91] Creating Layer cont_sentence_input_1_split
I0720 16:29:35.551165 30094 net.cpp:425] cont_sentence_input_1_split <- cont_sentence
I0720 16:29:35.551189 30094 net.cpp:399] cont_sentence_input_1_split -> cont_sentence_input_1_split_0
I0720 16:29:35.551203 30094 net.cpp:399] cont_sentence_input_1_split -> cont_sentence_input_1_split_1
I0720 16:29:35.551358 30094 net.cpp:141] Setting up cont_sentence_input_1_split
I0720 16:29:35.551372 30094 net.cpp:148] Top shape: 1 1 (1)
I0720 16:29:35.551378 30094 net.cpp:148] Top shape: 1 1 (1)
I0720 16:29:35.551383 30094 net.cpp:156] Memory required for data: 16404
I0720 16:29:35.551388 30094 layer_factory.hpp:77] Creating layer embed_encoder
I0720 16:29:35.551410 30094 net.cpp:91] Creating Layer embed_encoder
I0720 16:29:35.551417 30094 net.cpp:425] embed_encoder <- frames_fc7
I0720 16:29:35.551427 30094 net.cpp:399] embed_encoder -> embedded_in_frames
I0720 16:29:35.572927 30106 net.cpp:141] Setting up data
I0720 16:29:35.572981 30106 net.cpp:148] Top shape: 10 3 227 227 (1545870)
I0720 16:29:35.572988 30106 net.cpp:156] Memory required for data: 6183480
I0720 16:29:35.572999 30106 layer_factory.hpp:77] Creating layer conv1
I0720 16:29:35.573026 30106 net.cpp:91] Creating Layer conv1
I0720 16:29:35.573034 30106 net.cpp:425] conv1 <- data
I0720 16:29:35.573045 30106 net.cpp:399] conv1 -> conv1
I0720 16:29:35.575213 30098 net.cpp:141] Setting up input
I0720 16:29:35.575261 30098 net.cpp:148] Top shape: 1 4096 (4096)
I0720 16:29:35.575270 30098 net.cpp:148] Top shape: 1 1 (1)
I0720 16:29:35.575276 30098 net.cpp:148] Top shape: 1 1 (1)
I0720 16:29:35.575283 30098 net.cpp:148] Top shape: 1 1 (1)
I0720 16:29:35.575287 30098 net.cpp:156] Memory required for data: 16396
I0720 16:29:35.575297 30098 layer_factory.hpp:77] Creating layer cont_sentence_input_1_split
I0720 16:29:35.575315 30098 net.cpp:91] Creating Layer cont_sentence_input_1_split
I0720 16:29:35.575322 30098 net.cpp:425] cont_sentence_input_1_split <- cont_sentence
I0720 16:29:35.575333 30098 net.cpp:399] cont_sentence_input_1_split -> cont_sentence_input_1_split_0
I0720 16:29:35.575350 30098 net.cpp:399] cont_sentence_input_1_split -> cont_sentence_input_1_split_1
I0720 16:29:35.579203 30098 net.cpp:141] Setting up cont_sentence_input_1_split
I0720 16:29:35.579231 30098 net.cpp:148] Top shape: 1 1 (1)
I0720 16:29:35.579238 30098 net.cpp:148] Top shape: 1 1 (1)
I0720 16:29:35.579242 30098 net.cpp:156] Memory required for data: 16404
I0720 16:29:35.579248 30098 layer_factory.hpp:77] Creating layer embed_encoder
I0720 16:29:35.579267 30098 net.cpp:91] Creating Layer embed_encoder
I0720 16:29:35.579272 30098 net.cpp:425] embed_encoder <- frames_fc7
I0720 16:29:35.579283 30098 net.cpp:399] embed_encoder -> embedded_in_frames
I0720 16:29:35.608909 30094 net.cpp:141] Setting up embed_encoder
I0720 16:29:35.608954 30094 net.cpp:148] Top shape: 1 500 (500)
I0720 16:29:35.608961 30094 net.cpp:156] Memory required for data: 18404
I0720 16:29:35.608989 30094 layer_factory.hpp:77] Creating layer reshape_frames
I0720 16:29:35.609021 30094 net.cpp:91] Creating Layer reshape_frames
I0720 16:29:35.609030 30094 net.cpp:425] reshape_frames <- embedded_in_frames
I0720 16:29:35.609055 30094 net.cpp:399] reshape_frames -> embedded_input_frames
I0720 16:29:35.612411 30094 net.cpp:141] Setting up reshape_frames
I0720 16:29:35.612427 30094 net.cpp:148] Top shape: 1 1 500 (500)
I0720 16:29:35.612433 30094 net.cpp:156] Memory required for data: 20404
I0720 16:29:35.612438 30094 layer_factory.hpp:77] Creating layer reshape_stage_indicator
I0720 16:29:35.612452 30094 net.cpp:91] Creating Layer reshape_stage_indicator
I0720 16:29:35.612457 30094 net.cpp:425] reshape_stage_indicator <- stage_indicator
I0720 16:29:35.612468 30094 net.cpp:399] reshape_stage_indicator -> reshaped_stage_indicator
I0720 16:29:35.627969 30094 net.cpp:141] Setting up reshape_stage_indicator
I0720 16:29:35.627997 30094 net.cpp:148] Top shape: 1 1 1 (1)
I0720 16:29:35.628003 30094 net.cpp:156] Memory required for data: 20408
I0720 16:29:35.628010 30094 layer_factory.hpp:77] Creating layer embedding
I0720 16:29:35.628031 30094 net.cpp:91] Creating Layer embedding
I0720 16:29:35.628038 30094 net.cpp:425] embedding <- input_sentence
I0720 16:29:35.628051 30094 net.cpp:399] embedding -> embedded_input_sentence
I0720 16:29:35.702570 30098 net.cpp:141] Setting up embed_encoder
I0720 16:29:35.702630 30098 net.cpp:148] Top shape: 1 500 (500)
I0720 16:29:35.702636 30098 net.cpp:156] Memory required for data: 18404
I0720 16:29:35.702663 30098 layer_factory.hpp:77] Creating layer reshape_frames
I0720 16:29:35.702699 30098 net.cpp:91] Creating Layer reshape_frames
I0720 16:29:35.702708 30098 net.cpp:425] reshape_frames <- embedded_in_frames
I0720 16:29:35.702721 30098 net.cpp:399] reshape_frames -> embedded_input_frames
I0720 16:29:35.707202 30098 net.cpp:141] Setting up reshape_frames
I0720 16:29:35.707232 30098 net.cpp:148] Top shape: 1 1 500 (500)
I0720 16:29:35.707238 30098 net.cpp:156] Memory required for data: 20404
I0720 16:29:35.707245 30098 layer_factory.hpp:77] Creating layer reshape_stage_indicator
I0720 16:29:35.707259 30098 net.cpp:91] Creating Layer reshape_stage_indicator
I0720 16:29:35.707267 30098 net.cpp:425] reshape_stage_indicator <- stage_indicator
I0720 16:29:35.707276 30098 net.cpp:399] reshape_stage_indicator -> reshaped_stage_indicator
I0720 16:29:35.714895 30098 net.cpp:141] Setting up reshape_stage_indicator
I0720 16:29:35.714926 30098 net.cpp:148] Top shape: 1 1 1 (1)
I0720 16:29:35.714932 30098 net.cpp:156] Memory required for data: 20408
I0720 16:29:35.714939 30098 layer_factory.hpp:77] Creating layer embedding
I0720 16:29:35.714956 30098 net.cpp:91] Creating Layer embedding
I0720 16:29:35.714962 30098 net.cpp:425] embedding <- input_sentence
I0720 16:29:35.714975 30098 net.cpp:399] embedding -> embedded_input_sentence
I0720 16:29:35.893875 30094 net.cpp:141] Setting up embedding
I0720 16:29:35.893929 30094 net.cpp:148] Top shape: 1 1 500 (500)
I0720 16:29:35.893935 30094 net.cpp:156] Memory required for data: 22408
I0720 16:29:35.893954 30094 layer_factory.hpp:77] Creating layer lstm1
I0720 16:29:35.893986 30094 net.cpp:91] Creating Layer lstm1
I0720 16:29:35.893996 30094 net.cpp:425] lstm1 <- embedded_input_frames
I0720 16:29:35.894004 30094 net.cpp:425] lstm1 <- cont_sentence_input_1_split_0
I0720 16:29:35.894014 30094 net.cpp:399] lstm1 -> lstm1
I0720 16:29:35.894042 30094 recurrent_layer.cpp:20] Initializing recurrent layer: assuming input batch contains 1 timesteps of 1 independent streams.
I0720 16:29:35.894426 30094 net.cpp:49] Initializing net from parameters: 
layer {
  name: "lstm1_"
  type: "Input"
  top: "x"
  top: "cont"
  input_param {
    shape {
      dim: 1
      dim: 1
      dim: 500
    }
    shape {
      dim: 1
      dim: 1
    }
  }
}
layer {
  name: "lstm1_"
  type: "Input"
  top: "c_0"
  top: "h_0"
  input_param {
    shape {
      dim: 1
      dim: 1
      dim: 1000
    }
    shape {
      dim: 1
      dim: 1
      dim: 1000
    }
  }
}
layer {
  name: "lstm1_cont_slice"
  type: "Slice"
  bottom: "cont"
  top: "cont_1"
  slice_param {
    axis: 0
  }
}
layer {
  name: "lstm1_x_transform"
  type: "InnerProduct"
  bottom: "x"
  top: "W_xc_x"
  param {
    name: "W_xc"
  }
  param {
    name: "b_c"
  }
  propagate_down: true
  inner_product_param {
    num_output: 4000
    bias_term: true
    weight_filler {
      type: "uniform"
      min: -0.08
      max: 0.08
    }
    bias_filler {
      type: "constant"
      value: 0
    }
    axis: 2
  }
}
layer {
  name: "lstm1_W_xc_x_slice"
  type: "Slice"
  bottom: "W_xc_x"
  top: "W_xc_x_1"
  slice_param {
    axis: 0
  }
}
layer {
  name: "lstm1_h_conted_0"
  type: "Scale"
  bottom: "h_0"
  bottom: "cont_1"
  top: "h_conted_0"
  scale_param {
    axis: 0
  }
}
layer {
  name: "lstm1_transform_1"
  type: "InnerProduct"
  bottom: "h_conted_0"
  top: "W_hc_h_0"
  param {
    name: "W_hc"
  }
  inner_product_param {
    num_output: 4000
    bias_term: false
    weight_filler {
      type: "uniform"
      min: -0.08
      max: 0.08
    }
    axis: 2
  }
}
layer {
  name: "lstm1_gate_input_1"
  type: "Eltwise"
  bottom: "W_hc_h_0"
  bottom: "W_xc_x_1"
  top: "gate_input_1"
  eltwise_param {
    operation: SUM
  }
}
layer {
  name: "lstm1_unit_1"
  type: "LSTMUnit"
  bottom: "c_0"
  bottom: "gate_input_1"
  bottom: "cont_1"
  top: "c_1"
  top: "h_1"
}
layer {
  name: "lstm1_"
  type: "Split"
  bottom: "c_1"
  top: "c_T"
}
layer {
  name: "lstm1_h_concat"
  type: "Concat"
  bottom: "h_1"
  top: "h"
  concat_param {
    axis: 0
  }
}
layer {
  name: "h_pseudoloss"
  type: "Reduction"
  bottom: "h"
  top: "h_pseudoloss"
  loss_weight: 1
}
I0720 16:29:35.894526 30094 layer_factory.hpp:77] Creating layer lstm1_
I0720 16:29:35.894541 30094 net.cpp:91] Creating Layer lstm1_
I0720 16:29:35.894548 30094 net.cpp:399] lstm1_ -> x
I0720 16:29:35.894562 30094 net.cpp:399] lstm1_ -> cont
I0720 16:29:35.910861 30094 net.cpp:141] Setting up lstm1_
I0720 16:29:35.910892 30094 net.cpp:148] Top shape: 1 1 500 (500)
I0720 16:29:35.910902 30094 net.cpp:148] Top shape: 1 1 (1)
I0720 16:29:35.910905 30094 net.cpp:156] Memory required for data: 2004
I0720 16:29:35.910913 30094 layer_factory.hpp:77] Creating layer lstm1_
I0720 16:29:35.910938 30094 net.cpp:91] Creating Layer lstm1_
I0720 16:29:35.910949 30094 net.cpp:399] lstm1_ -> c_0
I0720 16:29:35.910964 30094 net.cpp:399] lstm1_ -> h_0
I0720 16:29:35.923295 30094 net.cpp:141] Setting up lstm1_
I0720 16:29:35.923323 30094 net.cpp:148] Top shape: 1 1 1000 (1000)
I0720 16:29:35.923331 30094 net.cpp:148] Top shape: 1 1 1000 (1000)
I0720 16:29:35.923336 30094 net.cpp:156] Memory required for data: 10004
I0720 16:29:35.923342 30094 layer_factory.hpp:77] Creating layer lstm1_cont_slice
I0720 16:29:35.923359 30094 net.cpp:91] Creating Layer lstm1_cont_slice
I0720 16:29:35.923365 30094 net.cpp:425] lstm1_cont_slice <- cont
I0720 16:29:35.923375 30094 net.cpp:399] lstm1_cont_slice -> cont_1
I0720 16:29:35.924823 30094 net.cpp:141] Setting up lstm1_cont_slice
I0720 16:29:35.924845 30094 net.cpp:148] Top shape: 1 1 (1)
I0720 16:29:35.924851 30094 net.cpp:156] Memory required for data: 10008
I0720 16:29:35.924857 30094 layer_factory.hpp:77] Creating layer cont_1_lstm1_cont_slice_0_split
I0720 16:29:35.924867 30094 net.cpp:91] Creating Layer cont_1_lstm1_cont_slice_0_split
I0720 16:29:35.924873 30094 net.cpp:425] cont_1_lstm1_cont_slice_0_split <- cont_1
I0720 16:29:35.924881 30094 net.cpp:399] cont_1_lstm1_cont_slice_0_split -> cont_1_lstm1_cont_slice_0_split_0
I0720 16:29:35.924891 30094 net.cpp:399] cont_1_lstm1_cont_slice_0_split -> cont_1_lstm1_cont_slice_0_split_1
I0720 16:29:35.941575 30094 net.cpp:141] Setting up cont_1_lstm1_cont_slice_0_split
I0720 16:29:35.941606 30094 net.cpp:148] Top shape: 1 1 (1)
I0720 16:29:35.941614 30094 net.cpp:148] Top shape: 1 1 (1)
I0720 16:29:35.941619 30094 net.cpp:156] Memory required for data: 10016
I0720 16:29:35.941627 30094 layer_factory.hpp:77] Creating layer lstm1_x_transform
I0720 16:29:35.941650 30094 net.cpp:91] Creating Layer lstm1_x_transform
I0720 16:29:35.941658 30094 net.cpp:425] lstm1_x_transform <- x
I0720 16:29:35.941669 30094 net.cpp:399] lstm1_x_transform -> W_xc_x
I0720 16:29:35.986063 30098 net.cpp:141] Setting up embedding
I0720 16:29:35.986122 30098 net.cpp:148] Top shape: 1 1 500 (500)
I0720 16:29:35.986129 30098 net.cpp:156] Memory required for data: 22408
I0720 16:29:35.986152 30098 layer_factory.hpp:77] Creating layer lstm1
I0720 16:29:35.986177 30098 net.cpp:91] Creating Layer lstm1
I0720 16:29:35.986186 30098 net.cpp:425] lstm1 <- embedded_input_frames
I0720 16:29:35.986196 30098 net.cpp:425] lstm1 <- cont_sentence_input_1_split_0
I0720 16:29:35.986208 30098 net.cpp:399] lstm1 -> lstm1
I0720 16:29:35.986228 30098 recurrent_layer.cpp:20] Initializing recurrent layer: assuming input batch contains 1 timesteps of 1 independent streams.
I0720 16:29:35.986536 30098 net.cpp:49] Initializing net from parameters: 
layer {
  name: "lstm1_"
  type: "Input"
  top: "x"
  top: "cont"
  input_param {
    shape {
      dim: 1
      dim: 1
      dim: 500
    }
    shape {
      dim: 1
      dim: 1
    }
  }
}
layer {
  name: "lstm1_"
  type: "Input"
  top: "c_0"
  top: "h_0"
  input_param {
    shape {
      dim: 1
      dim: 1
      dim: 1000
    }
    shape {
      dim: 1
      dim: 1
      dim: 1000
    }
  }
}
layer {
  name: "lstm1_cont_slice"
  type: "Slice"
  bottom: "cont"
  top: "cont_1"
  slice_param {
    axis: 0
  }
}
layer {
  name: "lstm1_x_transform"
  type: "InnerProduct"
  bottom: "x"
  top: "W_xc_x"
  param {
    name: "W_xc"
  }
  param {
    name: "b_c"
  }
  propagate_down: true
  inner_product_param {
    num_output: 4000
    bias_term: true
    weight_filler {
      type: "uniform"
      min: -0.08
      max: 0.08
    }
    bias_filler {
      type: "constant"
      value: 0
    }
    axis: 2
  }
}
layer {
  name: "lstm1_W_xc_x_slice"
  type: "Slice"
  bottom: "W_xc_x"
  top: "W_xc_x_1"
  slice_param {
    axis: 0
  }
}
layer {
  name: "lstm1_h_conted_0"
  type: "Scale"
  bottom: "h_0"
  bottom: "cont_1"
  top: "h_conted_0"
  scale_param {
    axis: 0
  }
}
layer {
  name: "lstm1_transform_1"
  type: "InnerProduct"
  bottom: "h_conted_0"
  top: "W_hc_h_0"
  param {
    name: "W_hc"
  }
  inner_product_param {
    num_output: 4000
    bias_term: false
    weight_filler {
      type: "uniform"
      min: -0.08
      max: 0.08
    }
    axis: 2
  }
}
layer {
  name: "lstm1_gate_input_1"
  type: "Eltwise"
  bottom: "W_hc_h_0"
  bottom: "W_xc_x_1"
  top: "gate_input_1"
  eltwise_param {
    operation: SUM
  }
}
layer {
  name: "lstm1_unit_1"
  type: "LSTMUnit"
  bottom: "c_0"
  bottom: "gate_input_1"
  bottom: "cont_1"
  top: "c_1"
  top: "h_1"
}
layer {
  name: "lstm1_"
  type: "Split"
  bottom: "c_1"
  top: "c_T"
}
layer {
  name: "lstm1_h_concat"
  type: "Concat"
  bottom: "h_1"
  top: "h"
  concat_param {
    axis: 0
  }
}
layer {
  name: "h_pseudoloss"
  type: "Reduction"
  bottom: "h"
  top: "h_pseudoloss"
  loss_weight: 1
}
I0720 16:29:35.986641 30098 layer_factory.hpp:77] Creating layer lstm1_
I0720 16:29:35.986656 30098 net.cpp:91] Creating Layer lstm1_
I0720 16:29:35.986663 30098 net.cpp:399] lstm1_ -> x
I0720 16:29:35.986675 30098 net.cpp:399] lstm1_ -> cont
I0720 16:29:36.006398 30098 net.cpp:141] Setting up lstm1_
I0720 16:29:36.006454 30098 net.cpp:148] Top shape: 1 1 500 (500)
I0720 16:29:36.006464 30098 net.cpp:148] Top shape: 1 1 (1)
I0720 16:29:36.006469 30098 net.cpp:156] Memory required for data: 2004
I0720 16:29:36.006479 30098 layer_factory.hpp:77] Creating layer lstm1_
I0720 16:29:36.006505 30098 net.cpp:91] Creating Layer lstm1_
I0720 16:29:36.006516 30098 net.cpp:399] lstm1_ -> c_0
I0720 16:29:36.006538 30098 net.cpp:399] lstm1_ -> h_0
I0720 16:29:36.017524 30094 net.cpp:141] Setting up lstm1_x_transform
I0720 16:29:36.017596 30094 net.cpp:148] Top shape: 1 1 4000 (4000)
I0720 16:29:36.017607 30094 net.cpp:156] Memory required for data: 26016
I0720 16:29:36.017652 30094 layer_factory.hpp:77] Creating layer lstm1_W_xc_x_slice
I0720 16:29:36.017673 30094 net.cpp:91] Creating Layer lstm1_W_xc_x_slice
I0720 16:29:36.017681 30094 net.cpp:425] lstm1_W_xc_x_slice <- W_xc_x
I0720 16:29:36.017694 30094 net.cpp:399] lstm1_W_xc_x_slice -> W_xc_x_1
I0720 16:29:36.034001 30094 net.cpp:141] Setting up lstm1_W_xc_x_slice
I0720 16:29:36.034047 30094 net.cpp:148] Top shape: 1 1 4000 (4000)
I0720 16:29:36.034059 30094 net.cpp:156] Memory required for data: 42016
I0720 16:29:36.034070 30094 layer_factory.hpp:77] Creating layer lstm1_h_conted_0
I0720 16:29:36.034111 30094 net.cpp:91] Creating Layer lstm1_h_conted_0
I0720 16:29:36.034118 30094 net.cpp:425] lstm1_h_conted_0 <- h_0
I0720 16:29:36.034127 30094 net.cpp:425] lstm1_h_conted_0 <- cont_1_lstm1_cont_slice_0_split_0
I0720 16:29:36.034137 30094 net.cpp:399] lstm1_h_conted_0 -> h_conted_0
I0720 16:29:36.039171 30098 net.cpp:141] Setting up lstm1_
I0720 16:29:36.039225 30098 net.cpp:148] Top shape: 1 1 1000 (1000)
I0720 16:29:36.039234 30098 net.cpp:148] Top shape: 1 1 1000 (1000)
I0720 16:29:36.039239 30098 net.cpp:156] Memory required for data: 10004
I0720 16:29:36.039248 30098 layer_factory.hpp:77] Creating layer lstm1_cont_slice
I0720 16:29:36.039269 30098 net.cpp:91] Creating Layer lstm1_cont_slice
I0720 16:29:36.039278 30098 net.cpp:425] lstm1_cont_slice <- cont
I0720 16:29:36.039293 30098 net.cpp:399] lstm1_cont_slice -> cont_1
I0720 16:29:36.042103 30098 net.cpp:141] Setting up lstm1_cont_slice
I0720 16:29:36.042125 30098 net.cpp:148] Top shape: 1 1 (1)
I0720 16:29:36.042131 30098 net.cpp:156] Memory required for data: 10008
I0720 16:29:36.042137 30098 layer_factory.hpp:77] Creating layer cont_1_lstm1_cont_slice_0_split
I0720 16:29:36.042147 30098 net.cpp:91] Creating Layer cont_1_lstm1_cont_slice_0_split
I0720 16:29:36.042153 30098 net.cpp:425] cont_1_lstm1_cont_slice_0_split <- cont_1
I0720 16:29:36.042165 30098 net.cpp:399] cont_1_lstm1_cont_slice_0_split -> cont_1_lstm1_cont_slice_0_split_0
I0720 16:29:36.042176 30098 net.cpp:399] cont_1_lstm1_cont_slice_0_split -> cont_1_lstm1_cont_slice_0_split_1
I0720 16:29:36.048076 30098 net.cpp:141] Setting up cont_1_lstm1_cont_slice_0_split
I0720 16:29:36.048105 30098 net.cpp:148] Top shape: 1 1 (1)
I0720 16:29:36.048112 30098 net.cpp:148] Top shape: 1 1 (1)
I0720 16:29:36.048117 30098 net.cpp:156] Memory required for data: 10016
I0720 16:29:36.048123 30098 layer_factory.hpp:77] Creating layer lstm1_x_transform
I0720 16:29:36.048147 30098 net.cpp:91] Creating Layer lstm1_x_transform
I0720 16:29:36.048153 30098 net.cpp:425] lstm1_x_transform <- x
I0720 16:29:36.048164 30098 net.cpp:399] lstm1_x_transform -> W_xc_x
I0720 16:29:36.055776 30094 net.cpp:141] Setting up lstm1_h_conted_0
I0720 16:29:36.055801 30094 net.cpp:148] Top shape: 1 1 1000 (1000)
I0720 16:29:36.055807 30094 net.cpp:156] Memory required for data: 46016
I0720 16:29:36.055812 30094 layer_factory.hpp:77] Creating layer lstm1_transform_1
I0720 16:29:36.055831 30094 net.cpp:91] Creating Layer lstm1_transform_1
I0720 16:29:36.055837 30094 net.cpp:425] lstm1_transform_1 <- h_conted_0
I0720 16:29:36.055846 30094 net.cpp:399] lstm1_transform_1 -> W_hc_h_0
I0720 16:29:36.100421 30112 net.cpp:141] Setting up conv1
I0720 16:29:36.100486 30112 net.cpp:148] Top shape: 10 96 55 55 (2904000)
I0720 16:29:36.100495 30112 net.cpp:156] Memory required for data: 17799480
I0720 16:29:36.100522 30112 layer_factory.hpp:77] Creating layer relu1
I0720 16:29:36.100543 30112 net.cpp:91] Creating Layer relu1
I0720 16:29:36.100550 30112 net.cpp:425] relu1 <- conv1
I0720 16:29:36.100560 30112 net.cpp:386] relu1 -> conv1 (in-place)
I0720 16:29:36.101667 30112 net.cpp:141] Setting up relu1
I0720 16:29:36.101687 30112 net.cpp:148] Top shape: 10 96 55 55 (2904000)
I0720 16:29:36.101692 30112 net.cpp:156] Memory required for data: 29415480
I0720 16:29:36.101698 30112 layer_factory.hpp:77] Creating layer pool1
I0720 16:29:36.101713 30112 net.cpp:91] Creating Layer pool1
I0720 16:29:36.101719 30112 net.cpp:425] pool1 <- conv1
I0720 16:29:36.101728 30112 net.cpp:399] pool1 -> pool1
I0720 16:29:36.107625 30112 net.cpp:141] Setting up pool1
I0720 16:29:36.107655 30112 net.cpp:148] Top shape: 10 96 27 27 (699840)
I0720 16:29:36.107661 30112 net.cpp:156] Memory required for data: 32214840
I0720 16:29:36.107666 30112 layer_factory.hpp:77] Creating layer norm1
I0720 16:29:36.107691 30112 net.cpp:91] Creating Layer norm1
I0720 16:29:36.107697 30112 net.cpp:425] norm1 <- pool1
I0720 16:29:36.107707 30112 net.cpp:399] norm1 -> norm1
I0720 16:29:36.114068 30098 net.cpp:141] Setting up lstm1_x_transform
I0720 16:29:36.114099 30098 net.cpp:148] Top shape: 1 1 4000 (4000)
I0720 16:29:36.114095 30112 net.cpp:141] Setting up norm1
I0720 16:29:36.114105 30098 net.cpp:156] Memory required for data: 26016
I0720 16:29:36.114120 30112 net.cpp:148] Top shape: 10 96 27 27 (699840)
I0720 16:29:36.114126 30112 net.cpp:156] Memory required for data: 35014200
I0720 16:29:36.114132 30112 layer_factory.hpp:77] Creating layer conv2
I0720 16:29:36.114131 30098 layer_factory.hpp:77] Creating layer lstm1_W_xc_x_slice
I0720 16:29:36.114154 30112 net.cpp:91] Creating Layer conv2
I0720 16:29:36.114156 30098 net.cpp:91] Creating Layer lstm1_W_xc_x_slice
I0720 16:29:36.114161 30112 net.cpp:425] conv2 <- norm1
I0720 16:29:36.114163 30098 net.cpp:425] lstm1_W_xc_x_slice <- W_xc_x
I0720 16:29:36.114171 30112 net.cpp:399] conv2 -> conv2
I0720 16:29:36.114173 30098 net.cpp:399] lstm1_W_xc_x_slice -> W_xc_x_1
I0720 16:29:36.114352 30098 net.cpp:141] Setting up lstm1_W_xc_x_slice
I0720 16:29:36.114365 30098 net.cpp:148] Top shape: 1 1 4000 (4000)
I0720 16:29:36.114370 30098 net.cpp:156] Memory required for data: 42016
I0720 16:29:36.114375 30098 layer_factory.hpp:77] Creating layer lstm1_h_conted_0
I0720 16:29:36.114387 30098 net.cpp:91] Creating Layer lstm1_h_conted_0
I0720 16:29:36.114392 30098 net.cpp:425] lstm1_h_conted_0 <- h_0
I0720 16:29:36.114398 30098 net.cpp:425] lstm1_h_conted_0 <- cont_1_lstm1_cont_slice_0_split_0
I0720 16:29:36.114408 30098 net.cpp:399] lstm1_h_conted_0 -> h_conted_0
I0720 16:29:36.121728 30094 net.cpp:141] Setting up lstm1_transform_1
I0720 16:29:36.121752 30098 net.cpp:141] Setting up lstm1_h_conted_0
I0720 16:29:36.121779 30094 net.cpp:148] Top shape: 1 1 4000 (4000)
I0720 16:29:36.121786 30098 net.cpp:148] Top shape: 1 1 1000 (1000)
I0720 16:29:36.121795 30098 net.cpp:156] Memory required for data: 46016
I0720 16:29:36.121788 30094 net.cpp:156] Memory required for data: 62016
I0720 16:29:36.121803 30098 layer_factory.hpp:77] Creating layer lstm1_transform_1
I0720 16:29:36.121819 30098 net.cpp:91] Creating Layer lstm1_transform_1
I0720 16:29:36.121820 30094 layer_factory.hpp:77] Creating layer lstm1_gate_input_1
I0720 16:29:36.121825 30098 net.cpp:425] lstm1_transform_1 <- h_conted_0
I0720 16:29:36.121839 30098 net.cpp:399] lstm1_transform_1 -> W_hc_h_0
I0720 16:29:36.121842 30094 net.cpp:91] Creating Layer lstm1_gate_input_1
I0720 16:29:36.121851 30094 net.cpp:425] lstm1_gate_input_1 <- W_hc_h_0
I0720 16:29:36.121860 30094 net.cpp:425] lstm1_gate_input_1 <- W_xc_x_1
I0720 16:29:36.121868 30094 net.cpp:399] lstm1_gate_input_1 -> gate_input_1
I0720 16:29:36.131911 30094 net.cpp:141] Setting up lstm1_gate_input_1
I0720 16:29:36.131937 30094 net.cpp:148] Top shape: 1 1 4000 (4000)
I0720 16:29:36.131942 30094 net.cpp:156] Memory required for data: 78016
I0720 16:29:36.131948 30094 layer_factory.hpp:77] Creating layer lstm1_unit_1
I0720 16:29:36.131959 30094 net.cpp:91] Creating Layer lstm1_unit_1
I0720 16:29:36.131965 30094 net.cpp:425] lstm1_unit_1 <- c_0
I0720 16:29:36.131973 30094 net.cpp:425] lstm1_unit_1 <- gate_input_1
I0720 16:29:36.131978 30094 net.cpp:425] lstm1_unit_1 <- cont_1_lstm1_cont_slice_0_split_1
I0720 16:29:36.131985 30094 net.cpp:399] lstm1_unit_1 -> c_1
I0720 16:29:36.131997 30094 net.cpp:399] lstm1_unit_1 -> h_1
I0720 16:29:36.140386 30094 net.cpp:141] Setting up lstm1_unit_1
I0720 16:29:36.140414 30094 net.cpp:148] Top shape: 1 1 1000 (1000)
I0720 16:29:36.140424 30094 net.cpp:148] Top shape: 1 1 1000 (1000)
I0720 16:29:36.140427 30094 net.cpp:156] Memory required for data: 86016
I0720 16:29:36.140434 30094 layer_factory.hpp:77] Creating layer lstm1_
I0720 16:29:36.140450 30094 net.cpp:91] Creating Layer lstm1_
I0720 16:29:36.140455 30094 net.cpp:425] lstm1_ <- c_1
I0720 16:29:36.140465 30094 net.cpp:399] lstm1_ -> c_T
I0720 16:29:36.141965 30094 net.cpp:141] Setting up lstm1_
I0720 16:29:36.141979 30094 net.cpp:148] Top shape: 1 1 1000 (1000)
I0720 16:29:36.141984 30094 net.cpp:156] Memory required for data: 90016
I0720 16:29:36.141989 30094 layer_factory.hpp:77] Creating layer lstm1_h_concat
I0720 16:29:36.142004 30094 net.cpp:91] Creating Layer lstm1_h_concat
I0720 16:29:36.142010 30094 net.cpp:425] lstm1_h_concat <- h_1
I0720 16:29:36.142020 30094 net.cpp:399] lstm1_h_concat -> h
I0720 16:29:36.142452 30094 net.cpp:141] Setting up lstm1_h_concat
I0720 16:29:36.142464 30094 net.cpp:148] Top shape: 1 1 1000 (1000)
I0720 16:29:36.142468 30094 net.cpp:156] Memory required for data: 94016
I0720 16:29:36.142474 30094 layer_factory.hpp:77] Creating layer h_pseudoloss
I0720 16:29:36.142496 30094 net.cpp:91] Creating Layer h_pseudoloss
I0720 16:29:36.142503 30094 net.cpp:425] h_pseudoloss <- h
I0720 16:29:36.142513 30094 net.cpp:399] h_pseudoloss -> h_pseudoloss
I0720 16:29:36.143757 30094 net.cpp:141] Setting up h_pseudoloss
…
I0720 16:29:36.143889 30094 net.cpp:219] lstm1_ does not need backward computation.
I0720 16:29:36.143893 30094 net.cpp:261] This network produces output c_T
I0720 16:29:36.143898 30094 net.cpp:261] This network produces output h_pseudoloss
I0720 16:29:36.143918 30094 net.cpp:274] Network initialization done.
I0720 16:29:36.143980 30094 recurrent_layer.cpp:150] Adding parameter 0: W_xc
I0720 16:29:36.143987 30094 recurrent_layer.cpp:150] Adding parameter 1: b_c
I0720 16:29:36.143992 30094 recurrent_layer.cpp:150] Adding parameter 2: W_hc
I0720 16:29:36.144551 30106 net.cpp:141] Setting up conv1
I0720 16:29:36.144595 30106 net.cpp:148] Top shape: 10 96 55 55 (2904000)
I0720 16:29:36.144603 30106 net.cpp:156] Memory required for data: 17799480
I0720 16:29:36.144626 30106 layer_factory.hpp:77] Creating layer relu1
I0720 16:29:36.144644 30106 net.cpp:91] Creating Layer relu1
I0720 16:29:36.144651 30106 net.cpp:425] relu1 <- conv1
I0720 16:29:36.144662 30106 net.cpp:386] relu1 -> conv1 (in-place)
I0720 16:29:36.145841 30094 net.cpp:141] Setting up lstm1
I0720 16:29:36.145855 30094 net.cpp:148] Top shape: 1 1 1000 (1000)
I0720 16:29:36.145860 30094 net.cpp:156] Memory required for data: 26408
I0720 16:29:36.145875 30094 layer_factory.hpp:77] Creating layer concat
I0720 16:29:36.145885 30094 net.cpp:91] Creating Layer concat
I0720 16:29:36.145891 30094 net.cpp:425] concat <- lstm1
I0720 16:29:36.145900 30094 net.cpp:425] concat <- embedded_input_sentence
I0720 16:29:36.145905 30094 net.cpp:425] concat <- reshaped_stage_indicator
I0720 16:29:36.145912 30094 net.cpp:399] concat -> lstm1_video_sequence
I0720 16:29:36.145970 30106 net.cpp:141] Setting up relu1
I0720 16:29:36.145987 30106 net.cpp:148] Top shape: 10 96 55 55 (2904000)
I0720 16:29:36.145992 30106 net.cpp:156] Memory required for data: 29415480
I0720 16:29:36.145998 30106 layer_factory.hpp:77] Creating layer pool1
I0720 16:29:36.146010 30106 net.cpp:91] Creating Layer pool1
I0720 16:29:36.146016 30106 net.cpp:425] pool1 <- conv1
I0720 16:29:36.146024 30106 net.cpp:399] pool1 -> pool1
I0720 16:29:36.146028 30094 net.cpp:141] Setting up concat
I0720 16:29:36.146039 30094 net.cpp:148] Top shape: 1 1 1501 (1501)
I0720 16:29:36.146044 30094 net.cpp:156] Memory required for data: 32412
I0720 16:29:36.146049 30094 layer_factory.hpp:77] Creating layer lstm2
I0720 16:29:36.146064 30094 net.cpp:91] Creating Layer lstm2
I0720 16:29:36.146070 30094 net.cpp:425] lstm2 <- lstm1_video_sequence
I0720 16:29:36.146076 30094 net.cpp:425] lstm2 <- cont_sentence_input_1_split_1
I0720 16:29:36.146085 30094 net.cpp:399] lstm2 -> lstm2
I0720 16:29:36.146096 30094 recurrent_layer.cpp:20] Initializing recurrent layer: assuming input batch contains 1 timesteps of 1 independent streams.
I0720 16:29:36.146370 30094 net.cpp:49] Initializing net from parameters: 
layer {
  name: "lstm2_"
  type: "Input"
  top: "x"
  top: "cont"
  input_param {
    shape {
      dim: 1
      dim: 1
      dim: 1501
    }
    shape {
      dim: 1
      dim: 1
    }
  }
}
layer {
  name: "lstm2_"
  type: "Input"
  top: "c_0"
  top: "h_0"
  input_param {
    shape {
      dim: 1
      dim: 1
      dim: 1000
    }
    shape {
      dim: 1
      dim: 1
      dim: 1000
    }
  }
}
layer {
  name: "lstm2_cont_slice"
  type: "Slice"
  bottom: "cont"
  top: "cont_1"
  slice_param {
    axis: 0
  }
}
layer {
  name: "lstm2_x_transform"
  type: "InnerProduct"
  bottom: "x"
  top: "W_xc_x"
  param {
    name: "W_xc"
  }
  param {
    name: "b_c"
  }
  propagate_down: true
  inner_product_param {
    num_output: 4000
    bias_term: true
    weight_filler {
      type: "uniform"
      min: -0.08
      max: 0.08
    }
    bias_filler {
      type: "constant"
      value: 0
    }
    axis: 2
  }
}
layer {
  name: "lstm2_W_xc_x_slice"
  type: "Slice"
  bottom: "W_xc_x"
  top: "W_xc_x_1"
  slice_param {
    axis: 0
  }
}
layer {
  name: "lstm2_h_conted_0"
  type: "Scale"
  bottom: "h_0"
  bottom: "cont_1"
  top: "h_conted_0"
  scale_param {
    axis: 0
  }
}
layer {
  name: "lstm2_transform_1"
  type: "InnerProduct"
  bottom: "h_conted_0"
  top: "W_hc_h_0"
  param {
    name: "W_hc"
  }
  inner_product_param {
    num_output: 4000
    bias_term: false
    weight_filler {
      type: "uniform"
      min: -0.08
      max: 0.08
    }
    axis: 2
  }
}
layer {
  name: "lstm2_gate_input_1"
  type: "Eltwise"
  bottom: "W_hc_h_0"
  bottom: "W_xc_x_1"
  top: "gate_input_1"
  eltwise_param {
    operation: SUM
  }
}
layer {
  name: "lstm2_unit_1"
  type: "LSTMUnit"
  bottom: "c_0"
  bottom: "gate_input_1"
  bottom: "cont_1"
  top: "c_1"
  top: "h_1"
}
layer {
  name: "lstm2_"
  type: "Split"
  bottom: "c_1"
  top: "c_T"
}
layer {
  name: "lstm2_h_concat"
  type: "Concat"
  bottom: "h_1"
  top: "h"
  concat_param {
    axis: 0
  }
}
layer {
  name: "h_pseudoloss"
  type: "Reduction"
  bottom: "h"
  top: "h_pseudoloss"
  loss_weight: 1
}
I0720 16:29:36.146466 30094 layer_factory.hpp:77] Creating layer lstm2_
I0720 16:29:36.146481 30094 net.cpp:91] Creating Layer lstm2_
I0720 16:29:36.146487 30094 net.cpp:399] lstm2_ -> x
I0720 16:29:36.146498 30094 net.cpp:399] lstm2_ -> cont
I0720 16:29:36.146865 30106 net.cpp:141] Setting up pool1
I0720 16:29:36.146880 30106 net.cpp:148] Top shape: 10 96 27 27 (699840)
I0720 16:29:36.146886 30106 net.cpp:156] Memory required for data: 32214840
I0720 16:29:36.146891 30106 layer_factory.hpp:77] Creating layer norm1
I0720 16:29:36.146906 30106 net.cpp:91] Creating Layer norm1
I0720 16:29:36.146911 30106 net.cpp:425] norm1 <- pool1
I0720 16:29:36.146919 30106 net.cpp:399] norm1 -> norm1
I0720 16:29:36.146941 30094 net.cpp:141] Setting up lstm2_
I0720 16:29:36.146955 30094 net.cpp:148] Top shape: 1 1 1501 (1501)
I0720 16:29:36.146961 30094 net.cpp:148] Top shape: 1 1 (1)
I0720 16:29:36.146965 30094 net.cpp:156] Memory required for data: 6008
I0720 16:29:36.146971 30094 layer_factory.hpp:77] Creating layer lstm2_
I0720 16:29:36.146981 30094 net.cpp:91] Creating Layer lstm2_
I0720 16:29:36.146991 30094 net.cpp:399] lstm2_ -> c_0
I0720 16:29:36.147002 30094 net.cpp:399] lstm2_ -> h_0
I0720 16:29:36.147892 30094 net.cpp:141] Setting up lstm2_
I0720 16:29:36.147904 30094 net.cpp:148] Top shape: 1 1 1000 (1000)
I0720 16:29:36.147912 30094 net.cpp:148] Top shape: 1 1 1000 (1000)
I0720 16:29:36.147915 30094 net.cpp:156] Memory required for data: 14008
I0720 16:29:36.147920 30094 layer_factory.hpp:77] Creating layer lstm2_cont_slice
I0720 16:29:36.147930 30094 net.cpp:91] Creating Layer lstm2_cont_slice
I0720 16:29:36.147936 30094 net.cpp:425] lstm2_cont_slice <- cont
I0720 16:29:36.147946 30094 net.cpp:399] lstm2_cont_slice -> cont_1
I0720 16:29:36.148180 30094 net.cpp:141] Setting up lstm2_cont_slice
I0720 16:29:36.148192 30094 net.cpp:148] Top shape: 1 1 (1)
I0720 16:29:36.148197 30094 net.cpp:156] Memory required for data: 14012
I0720 16:29:36.148202 30094 layer_factory.hpp:77] Creating layer cont_1_lstm2_cont_slice_0_split
I0720 16:29:36.148210 30094 net.cpp:91] Creating Layer cont_1_lstm2_cont_slice_0_split
I0720 16:29:36.148214 30094 net.cpp:425] cont_1_lstm2_cont_slice_0_split <- cont_1
I0720 16:29:36.148224 30094 net.cpp:399] cont_1_lstm2_cont_slice_0_split -> cont_1_lstm2_cont_slice_0_split_0
I0720 16:29:36.148233 30094 net.cpp:399] cont_1_lstm2_cont_slice_0_split -> cont_1_lstm2_cont_slice_0_split_1
I0720 16:29:36.148269 30106 net.cpp:141] Setting up norm1
I0720 16:29:36.148286 30106 net.cpp:148] Top shape: 10 96 27 27 (699840)
I0720 16:29:36.148291 30106 net.cpp:156] Memory required for data: 35014200
I0720 16:29:36.148298 30106 layer_factory.hpp:77] Creating layer conv2
I0720 16:29:36.148315 30106 net.cpp:91] Creating Layer conv2
I0720 16:29:36.148321 30106 net.cpp:425] conv2 <- norm1
I0720 16:29:36.148330 30106 net.cpp:399] conv2 -> conv2
I0720 16:29:36.148421 30094 net.cpp:141] Setting up cont_1_lstm2_cont_slice_0_split
I0720 16:29:36.148432 30094 net.cpp:148] Top shape: 1 1 (1)
I0720 16:29:36.148438 30094 net.cpp:148] Top shape: 1 1 (1)
I0720 16:29:36.148443 30094 net.cpp:156] Memory required for data: 14020
I0720 16:29:36.148447 30094 layer_factory.hpp:77] Creating layer lstm2_x_transform
I0720 16:29:36.148461 30094 net.cpp:91] Creating Layer lstm2_x_transform
I0720 16:29:36.148468 30094 net.cpp:425] lstm2_x_transform <- x
I0720 16:29:36.148475 30094 net.cpp:399] lstm2_x_transform -> W_xc_x
I0720 16:29:36.162225 30112 net.cpp:141] Setting up conv2
I0720 16:29:36.162271 30112 net.cpp:148] Top shape: 10 256 27 27 (1866240)
I0720 16:29:36.162277 30112 net.cpp:156] Memory required for data: 42479160
I0720 16:29:36.162302 30112 layer_factory.hpp:77] Creating layer relu2
I0720 16:29:36.162322 30112 net.cpp:91] Creating Layer relu2
I0720 16:29:36.162330 30112 net.cpp:425] relu2 <- conv2
I0720 16:29:36.162339 30112 net.cpp:386] relu2 -> conv2 (in-place)
I0720 16:29:36.163825 30112 net.cpp:141] Setting up relu2
I0720 16:29:36.163858 30112 net.cpp:148] Top shape: 10 256 27 27 (1866240)
I0720 16:29:36.163864 30112 net.cpp:156] Memory required for data: 49944120
I0720 16:29:36.163873 30112 layer_factory.hpp:77] Creating layer pool2
I0720 16:29:36.163888 30112 net.cpp:91] Creating Layer pool2
I0720 16:29:36.163895 30112 net.cpp:425] pool2 <- conv2
I0720 16:29:36.163905 30112 net.cpp:399] pool2 -> pool2
I0720 16:29:36.165366 30112 net.cpp:141] Setting up pool2
I0720 16:29:36.165401 30112 net.cpp:148] Top shape: 10 256 13 13 (432640)
I0720 16:29:36.165407 30112 net.cpp:156] Memory required for data: 51674680
I0720 16:29:36.165416 30112 layer_factory.hpp:77] Creating layer norm2
I0720 16:29:36.165433 30112 net.cpp:91] Creating Layer norm2
I0720 16:29:36.165441 30112 net.cpp:425] norm2 <- pool2
I0720 16:29:36.165455 30112 net.cpp:399] norm2 -> norm2
I0720 16:29:36.166144 30112 net.cpp:141] Setting up norm2
I0720 16:29:36.166158 30112 net.cpp:148] Top shape: 10 256 13 13 (432640)
I0720 16:29:36.166163 30112 net.cpp:156] Memory required for data: 53405240
I0720 16:29:36.166169 30112 layer_factory.hpp:77] Creating layer conv3
I0720 16:29:36.166190 30112 net.cpp:91] Creating Layer conv3
I0720 16:29:36.166196 30112 net.cpp:425] conv3 <- norm2
I0720 16:29:36.166205 30112 net.cpp:399] conv3 -> conv3
I0720 16:29:36.171346 30098 net.cpp:141] Setting up lstm1_transform_1
I0720 16:29:36.171386 30098 net.cpp:148] Top shape: 1 1 4000 (4000)
I0720 16:29:36.171391 30098 net.cpp:156] Memory required for data: 62016
I0720 16:29:36.171408 30098 layer_factory.hpp:77] Creating layer lstm1_gate_input_1
I0720 16:29:36.171427 30098 net.cpp:91] Creating Layer lstm1_gate_input_1
I0720 16:29:36.171433 30098 net.cpp:425] lstm1_gate_input_1 <- W_hc_h_0
I0720 16:29:36.171444 30098 net.cpp:425] lstm1_gate_input_1 <- W_xc_x_1
I0720 16:29:36.171453 30098 net.cpp:399] lstm1_gate_input_1 -> gate_input_1
I0720 16:29:36.172562 30098 net.cpp:141] Setting up lstm1_gate_input_1
I0720 16:29:36.172585 30098 net.cpp:148] Top shape: 1 1 4000 (4000)
I0720 16:29:36.172590 30098 net.cpp:156] Memory required for data: 78016
I0720 16:29:36.172597 30098 layer_factory.hpp:77] Creating layer lstm1_unit_1
I0720 16:29:36.172613 30098 net.cpp:91] Creating Layer lstm1_unit_1
I0720 16:29:36.172619 30098 net.cpp:425] lstm1_unit_1 <- c_0
I0720 16:29:36.172627 30098 net.cpp:425] lstm1_unit_1 <- gate_input_1
I0720 16:29:36.172633 30098 net.cpp:425] lstm1_unit_1 <- cont_1_lstm1_cont_slice_0_split_1
I0720 16:29:36.172641 30098 net.cpp:399] lstm1_unit_1 -> c_1
I0720 16:29:36.172654 30098 net.cpp:399] lstm1_unit_1 -> h_1
I0720 16:29:36.173012 30098 net.cpp:141] Setting up lstm1_unit_1
I0720 16:29:36.173024 30098 net.cpp:148] Top shape: 1 1 1000 (1000)
I0720 16:29:36.173032 30098 net.cpp:148] Top shape: 1 1 1000 (1000)
I0720 16:29:36.173035 30098 net.cpp:156] Memory required for data: 86016
I0720 16:29:36.173041 30098 layer_factory.hpp:77] Creating layer lstm1_
I0720 16:29:36.173050 30098 net.cpp:91] Creating Layer lstm1_
I0720 16:29:36.173055 30098 net.cpp:425] lstm1_ <- c_1
I0720 16:29:36.173065 30098 net.cpp:399] lstm1_ -> c_T
I0720 16:29:36.173132 30098 net.cpp:141] Setting up lstm1_
I0720 16:29:36.173143 30098 net.cpp:148] Top shape: 1 1 1000 (1000)
I0720 16:29:36.173147 30098 net.cpp:156] Memory required for data: 90016
I0720 16:29:36.173152 30098 layer_factory.hpp:77] Creating layer lstm1_h_concat
I0720 16:29:36.173162 30098 net.cpp:91] Creating Layer lstm1_h_concat
I0720 16:29:36.173167 30098 net.cpp:425] lstm1_h_concat <- h_1
I0720 16:29:36.173178 30098 net.cpp:399] lstm1_h_concat -> h
I0720 16:29:36.173250 30098 net.cpp:141] Setting up lstm1_h_concat
I0720 16:29:36.173261 30098 net.cpp:148] Top shape: 1 1 1000 (1000)
I0720 16:29:36.173265 30098 net.cpp:156] Memory required for data: 94016
I0720 16:29:36.173270 30098 layer_factory.hpp:77] Creating layer h_pseudoloss
I0720 16:29:36.173282 30098 net.cpp:91] Creating Layer h_pseudoloss
I0720 16:29:36.173288 30098 net.cpp:425] h_pseudoloss <- h
I0720 16:29:36.173295 30098 net.cpp:399] h_pseudoloss -> h_pseudoloss
I0720 16:29:36.174463 30098 net.cpp:141] Setting up h_pseudoloss
…
I0720 16:29:36.174577 30098 net.cpp:219] lstm1_cont_slice does not need backward computation.
I0720 16:29:36.174582 30098 net.cpp:219] lstm1_ does not need backward computation.
I0720 16:29:36.174587 30098 net.cpp:219] lstm1_ does not need backward computation.
I0720 16:29:36.174590 30098 net.cpp:261] This network produces output c_T
I0720 16:29:36.174595 30098 net.cpp:261] This network produces output h_pseudoloss
I0720 16:29:36.174614 30098 net.cpp:274] Network initialization done.
I0720 16:29:36.174646 30106 net.cpp:141] Setting up conv2
I0720 16:29:36.174666 30098 recurrent_layer.cpp:150] Adding parameter 0: W_xc
I0720 16:29:36.174669 30106 net.cpp:148] Top shape: 10 256 27 27 (1866240)
I0720 16:29:36.174679 30098 recurrent_layer.cpp:150] Adding parameter 1: b_c
I0720 16:29:36.174681 30106 net.cpp:156] Memory required for data: 42479160
I0720 16:29:36.174684 30098 recurrent_layer.cpp:150] Adding parameter 2: W_hc
I0720 16:29:36.174712 30106 layer_factory.hpp:77] Creating layer relu2
I0720 16:29:36.174723 30106 net.cpp:91] Creating Layer relu2
I0720 16:29:36.174729 30106 net.cpp:425] relu2 <- conv2
I0720 16:29:36.174737 30106 net.cpp:386] relu2 -> conv2 (in-place)
I0720 16:29:36.176283 30098 net.cpp:141] Setting up lstm1
I0720 16:29:36.176297 30098 net.cpp:148] Top shape: 1 1 1000 (1000)
I0720 16:29:36.176303 30098 net.cpp:156] Memory required for data: 26408
I0720 16:29:36.176306 30106 net.cpp:141] Setting up relu2
I0720 16:29:36.176318 30098 layer_factory.hpp:77] Creating layer concat
I0720 16:29:36.176321 30106 net.cpp:148] Top shape: 10 256 27 27 (1866240)
I0720 16:29:36.176326 30106 net.cpp:156] Memory required for data: 49944120
I0720 16:29:36.176328 30098 net.cpp:91] Creating Layer concat
I0720 16:29:36.176332 30106 layer_factory.hpp:77] Creating layer pool2
I0720 16:29:36.176336 30098 net.cpp:425] concat <- lstm1
I0720 16:29:36.176343 30106 net.cpp:91] Creating Layer pool2
I0720 16:29:36.176343 30098 net.cpp:425] concat <- embedded_input_sentence
I0720 16:29:36.176353 30106 net.cpp:425] pool2 <- conv2
I0720 16:29:36.176360 30098 net.cpp:425] concat <- reshaped_stage_indicator
I0720 16:29:36.176367 30106 net.cpp:399] pool2 -> pool2
I0720 16:29:36.176369 30098 net.cpp:399] concat -> lstm1_video_sequence
I0720 16:29:36.176565 30098 net.cpp:141] Setting up concat
I0720 16:29:36.176576 30098 net.cpp:148] Top shape: 1 1 1501 (1501)
I0720 16:29:36.176581 30098 net.cpp:156] Memory required for data: 32412
I0720 16:29:36.176586 30098 layer_factory.hpp:77] Creating layer lstm2
I0720 16:29:36.176599 30098 net.cpp:91] Creating Layer lstm2
I0720 16:29:36.176605 30098 net.cpp:425] lstm2 <- lstm1_video_sequence
I0720 16:29:36.176612 30098 net.cpp:425] lstm2 <- cont_sentence_input_1_split_1
I0720 16:29:36.176617 30106 net.cpp:141] Setting up pool2
I0720 16:29:36.176620 30098 net.cpp:399] lstm2 -> lstm2
I0720 16:29:36.176632 30106 net.cpp:148] Top shape: 10 256 13 13 (432640)
I0720 16:29:36.176637 30106 net.cpp:156] Memory required for data: 51674680
I0720 16:29:36.176640 30098 recurrent_layer.cpp:20] Initializing recurrent layer: assuming input batch contains 1 timesteps of 1 independent streams.
I0720 16:29:36.176643 30106 layer_factory.hpp:77] Creating layer norm2
I0720 16:29:36.176667 30106 net.cpp:91] Creating Layer norm2
I0720 16:29:36.176673 30106 net.cpp:425] norm2 <- pool2
I0720 16:29:36.176681 30106 net.cpp:399] norm2 -> norm2
I0720 16:29:36.176945 30098 net.cpp:49] Initializing net from parameters: 
layer {
  name: "lstm2_"
  type: "Input"
  top: "x"
  top: "cont"
  input_param {
    shape {
      dim: 1
      dim: 1
      dim: 1501
    }
    shape {
      dim: 1
      dim: 1
    }
  }
}
layer {
  name: "lstm2_"
  type: "Input"
  top: "c_0"
  top: "h_0"
  input_param {
    shape {
      dim: 1
      dim: 1
      dim: 1000
    }
    shape {
      dim: 1
      dim: 1
      dim: 1000
    }
  }
}
layer {
  name: "lstm2_cont_slice"
  type: "Slice"
  bottom: "cont"
  top: "cont_1"
  slice_param {
    axis: 0
  }
}
layer {
  name: "lstm2_x_transform"
  type: "InnerProduct"
  bottom: "x"
  top: "W_xc_x"
  param {
    name: "W_xc"
  }
  param {
    name: "b_c"
  }
  propagate_down: true
  inner_product_param {
    num_output: 4000
    bias_term: true
    weight_filler {
      type: "uniform"
      min: -0.08
      max: 0.08
    }
    bias_filler {
      type: "constant"
      value: 0
    }
    axis: 2
  }
}
layer {
  name: "lstm2_W_xc_x_slice"
  type: "Slice"
  bottom: "W_xc_x"
  top: "W_xc_x_1"
  slice_param {
    axis: 0
  }
}
layer {
  name: "lstm2_h_conted_0"
  type: "Scale"
  bottom: "h_0"
  bottom: "cont_1"
  top: "h_conted_0"
  scale_param {
    axis: 0
  }
}
layer {
  name: "lstm2_transform_1"
  type: "InnerProduct"
  bottom: "h_conted_0"
  top: "W_hc_h_0"
  param {
    name: "W_hc"
  }
  inner_product_param {
    num_output: 4000
    bias_term: false
    weight_filler {
      type: "uniform"
      min: -0.08
      max: 0.08
    }
    axis: 2
  }
}
layer {
  name: "lstm2_gate_input_1"
  type: "Eltwise"
  bottom: "W_hc_h_0"
  bottom: "W_xc_x_1"
  top: "gate_input_1"
  eltwise_param {
    operation: SUM
  }
}
layer {
  name: "lstm2_unit_1"
  type: "LSTMUnit"
  bottom: "c_0"
  bottom: "gate_input_1"
  bottom: "cont_1"
  top: "c_1"
  top: "h_1"
}
layer {
  name: "lstm2_"
  type: "Split"
  bottom: "c_1"
  top: "c_T"
}
layer {
  name: "lstm2_h_concat"
  type: "Concat"
  bottom: "h_1"
  top: "h"
  concat_param {
    axis: 0
  }
}
layer {
  name: "h_pseudoloss"
  type: "Reduction"
  bottom: "h"
  top: "h_pseudoloss"
  loss_weight: 1
}
I0720 16:29:36.176970 30112 net.cpp:141] Setting up conv3
I0720 16:29:36.176993 30112 net.cpp:148] Top shape: 10 384 13 13 (648960)
I0720 16:29:36.177000 30112 net.cpp:156] Memory required for data: 56001080
I0720 16:29:36.177016 30112 layer_factory.hpp:77] Creating layer relu3
I0720 16:29:36.177026 30112 net.cpp:91] Creating Layer relu3
I0720 16:29:36.177032 30112 net.cpp:425] relu3 <- conv3
I0720 16:29:36.177039 30112 net.cpp:386] relu3 -> conv3 (in-place)
I0720 16:29:36.177049 30098 layer_factory.hpp:77] Creating layer lstm2_
I0720 16:29:36.177062 30098 net.cpp:91] Creating Layer lstm2_
I0720 16:29:36.177069 30098 net.cpp:399] lstm2_ -> x
I0720 16:29:36.177081 30098 net.cpp:399] lstm2_ -> cont
I0720 16:29:36.177819 30106 net.cpp:141] Setting up norm2
I0720 16:29:36.177832 30106 net.cpp:148] Top shape: 10 256 13 13 (432640)
I0720 16:29:36.177837 30106 net.cpp:156] Memory required for data: 53405240
I0720 16:29:36.177844 30106 layer_factory.hpp:77] Creating layer conv3
I0720 16:29:36.177858 30106 net.cpp:91] Creating Layer conv3
I0720 16:29:36.177863 30106 net.cpp:425] conv3 <- norm2
I0720 16:29:36.177871 30106 net.cpp:399] conv3 -> conv3
I0720 16:29:36.177907 30098 net.cpp:141] Setting up lstm2_
I0720 16:29:36.177922 30098 net.cpp:148] Top shape: 1 1 1501 (1501)
I0720 16:29:36.177927 30098 net.cpp:148] Top shape: 1 1 (1)
I0720 16:29:36.177932 30098 net.cpp:156] Memory required for data: 6008
I0720 16:29:36.177937 30098 layer_factory.hpp:77] Creating layer lstm2_
I0720 16:29:36.177947 30098 net.cpp:91] Creating Layer lstm2_
I0720 16:29:36.177954 30098 net.cpp:399] lstm2_ -> c_0
I0720 16:29:36.177965 30098 net.cpp:399] lstm2_ -> h_0
I0720 16:29:36.178095 30098 net.cpp:141] Setting up lstm2_
I0720 16:29:36.178107 30112 net.cpp:141] Setting up relu3
I0720 16:29:36.178110 30098 net.cpp:148] Top shape: 1 1 1000 (1000)
I0720 16:29:36.178124 30112 net.cpp:148] Top shape: 10 384 13 13 (648960)
I0720 16:29:36.178125 30098 net.cpp:148] Top shape: 1 1 1000 (1000)
I0720 16:29:36.178133 30112 net.cpp:156] Memory required for data: 58596920
I0720 16:29:36.178136 30098 net.cpp:156] Memory required for data: 14008
I0720 16:29:36.178139 30112 layer_factory.hpp:77] Creating layer conv4
I0720 16:29:36.178143 30098 layer_factory.hpp:77] Creating layer lstm2_cont_slice
I0720 16:29:36.178153 30098 net.cpp:91] Creating Layer lstm2_cont_slice
I0720 16:29:36.178153 30112 net.cpp:91] Creating Layer conv4
I0720 16:29:36.178158 30098 net.cpp:425] lstm2_cont_slice <- cont
I0720 16:29:36.178160 30112 net.cpp:425] conv4 <- conv3
I0720 16:29:36.178166 30098 net.cpp:399] lstm2_cont_slice -> cont_1
I0720 16:29:36.178171 30112 net.cpp:399] conv4 -> conv4
I0720 16:29:36.178339 30098 net.cpp:141] Setting up lstm2_cont_slice
I0720 16:29:36.178351 30098 net.cpp:148] Top shape: 1 1 (1)
I0720 16:29:36.178356 30098 net.cpp:156] Memory required for data: 14012
I0720 16:29:36.178361 30098 layer_factory.hpp:77] Creating layer cont_1_lstm2_cont_slice_0_split
I0720 16:29:36.178369 30098 net.cpp:91] Creating Layer cont_1_lstm2_cont_slice_0_split
I0720 16:29:36.178374 30098 net.cpp:425] cont_1_lstm2_cont_slice_0_split <- cont_1
I0720 16:29:36.178380 30098 net.cpp:399] cont_1_lstm2_cont_slice_0_split -> cont_1_lstm2_cont_slice_0_split_0
I0720 16:29:36.178390 30098 net.cpp:399] cont_1_lstm2_cont_slice_0_split -> cont_1_lstm2_cont_slice_0_split_1
I0720 16:29:36.178596 30098 net.cpp:141] Setting up cont_1_lstm2_cont_slice_0_split
I0720 16:29:36.178609 30098 net.cpp:148] Top shape: 1 1 (1)
I0720 16:29:36.178617 30098 net.cpp:148] Top shape: 1 1 (1)
I0720 16:29:36.178620 30098 net.cpp:156] Memory required for data: 14020
I0720 16:29:36.178625 30098 layer_factory.hpp:77] Creating layer lstm2_x_transform
I0720 16:29:36.178637 30098 net.cpp:91] Creating Layer lstm2_x_transform
I0720 16:29:36.178642 30098 net.cpp:425] lstm2_x_transform <- x
I0720 16:29:36.178653 30098 net.cpp:399] lstm2_x_transform -> W_xc_x
I0720 16:29:36.203035 30106 net.cpp:141] Setting up conv3
I0720 16:29:36.203090 30106 net.cpp:148] Top shape: 10 384 13 13 (648960)
I0720 16:29:36.203099 30106 net.cpp:156] Memory required for data: 56001080
I0720 16:29:36.203122 30106 layer_factory.hpp:77] Creating layer relu3
I0720 16:29:36.203141 30106 net.cpp:91] Creating Layer relu3
I0720 16:29:36.203150 30106 net.cpp:425] relu3 <- conv3
I0720 16:29:36.203160 30106 net.cpp:386] relu3 -> conv3 (in-place)
I0720 16:29:36.204078 30106 net.cpp:141] Setting up relu3
I0720 16:29:36.204097 30106 net.cpp:148] Top shape: 10 384 13 13 (648960)
I0720 16:29:36.204102 30106 net.cpp:156] Memory required for data: 58596920
I0720 16:29:36.204108 30106 layer_factory.hpp:77] Creating layer conv4
I0720 16:29:36.204125 30106 net.cpp:91] Creating Layer conv4
I0720 16:29:36.204131 30106 net.cpp:425] conv4 <- conv3
I0720 16:29:36.204145 30106 net.cpp:399] conv4 -> conv4
I0720 16:29:36.208868 30112 net.cpp:141] Setting up conv4
I0720 16:29:36.208905 30112 net.cpp:148] Top shape: 10 384 13 13 (648960)
I0720 16:29:36.208911 30112 net.cpp:156] Memory required for data: 61192760
I0720 16:29:36.208925 30112 layer_factory.hpp:77] Creating layer relu4
I0720 16:29:36.208937 30112 net.cpp:91] Creating Layer relu4
I0720 16:29:36.208943 30112 net.cpp:425] relu4 <- conv4
I0720 16:29:36.208955 30112 net.cpp:386] relu4 -> conv4 (in-place)
I0720 16:29:36.209959 30112 net.cpp:141] Setting up relu4
I0720 16:29:36.209977 30112 net.cpp:148] Top shape: 10 384 13 13 (648960)
I0720 16:29:36.209983 30112 net.cpp:156] Memory required for data: 63788600
I0720 16:29:36.209990 30112 layer_factory.hpp:77] Creating layer conv5
I0720 16:29:36.210006 30112 net.cpp:91] Creating Layer conv5
I0720 16:29:36.210012 30112 net.cpp:425] conv5 <- conv4
I0720 16:29:36.210021 30112 net.cpp:399] conv5 -> conv5
I0720 16:29:36.215915 30094 net.cpp:141] Setting up lstm2_x_transform
I0720 16:29:36.215961 30094 net.cpp:148] Top shape: 1 1 4000 (4000)
I0720 16:29:36.215968 30094 net.cpp:156] Memory required for data: 30020
I0720 16:29:36.215991 30094 layer_factory.hpp:77] Creating layer lstm2_W_xc_x_slice
I0720 16:29:36.216008 30094 net.cpp:91] Creating Layer lstm2_W_xc_x_slice
I0720 16:29:36.216017 30094 net.cpp:425] lstm2_W_xc_x_slice <- W_xc_x
I0720 16:29:36.216027 30094 net.cpp:399] lstm2_W_xc_x_slice -> W_xc_x_1
I0720 16:29:36.216847 30094 net.cpp:141] Setting up lstm2_W_xc_x_slice
I0720 16:29:36.216862 30094 net.cpp:148] Top shape: 1 1 4000 (4000)
I0720 16:29:36.216867 30094 net.cpp:156] Memory required for data: 46020
I0720 16:29:36.216872 30094 layer_factory.hpp:77] Creating layer lstm2_h_conted_0
I0720 16:29:36.216883 30094 net.cpp:91] Creating Layer lstm2_h_conted_0
I0720 16:29:36.216889 30094 net.cpp:425] lstm2_h_conted_0 <- h_0
I0720 16:29:36.216897 30094 net.cpp:425] lstm2_h_conted_0 <- cont_1_lstm2_cont_slice_0_split_0
I0720 16:29:36.216903 30094 net.cpp:399] lstm2_h_conted_0 -> h_conted_0
I0720 16:29:36.217635 30094 net.cpp:141] Setting up lstm2_h_conted_0
I0720 16:29:36.217653 30094 net.cpp:148] Top shape: 1 1 1000 (1000)
I0720 16:29:36.217658 30094 net.cpp:156] Memory required for data: 50020
I0720 16:29:36.217664 30094 layer_factory.hpp:77] Creating layer lstm2_transform_1
I0720 16:29:36.217676 30094 net.cpp:91] Creating Layer lstm2_transform_1
I0720 16:29:36.217682 30094 net.cpp:425] lstm2_transform_1 <- h_conted_0
I0720 16:29:36.217690 30094 net.cpp:399] lstm2_transform_1 -> W_hc_h_0
I0720 16:29:36.218538 30106 net.cpp:141] Setting up conv4
I0720 16:29:36.218582 30106 net.cpp:148] Top shape: 10 384 13 13 (648960)
I0720 16:29:36.218593 30106 net.cpp:156] Memory required for data: 61192760
I0720 16:29:36.218612 30106 layer_factory.hpp:77] Creating layer relu4
I0720 16:29:36.218631 30106 net.cpp:91] Creating Layer relu4
I0720 16:29:36.218641 30106 net.cpp:425] relu4 <- conv4
I0720 16:29:36.218659 30106 net.cpp:386] relu4 -> conv4 (in-place)
I0720 16:29:36.225636 30106 net.cpp:141] Setting up relu4
I0720 16:29:36.225668 30106 net.cpp:148] Top shape: 10 384 13 13 (648960)
I0720 16:29:36.225677 30106 net.cpp:156] Memory required for data: 63788600
I0720 16:29:36.225687 30106 layer_factory.hpp:77] Creating layer conv5
I0720 16:29:36.225714 30106 net.cpp:91] Creating Layer conv5
I0720 16:29:36.225724 30106 net.cpp:425] conv5 <- conv4
I0720 16:29:36.225739 30106 net.cpp:399] conv5 -> conv5
I0720 16:29:36.233237 30112 net.cpp:141] Setting up conv5
I0720 16:29:36.233269 30112 net.cpp:148] Top shape: 10 256 13 13 (432640)
I0720 16:29:36.233275 30112 net.cpp:156] Memory required for data: 65519160
I0720 16:29:36.233296 30112 layer_factory.hpp:77] Creating layer relu5
I0720 16:29:36.233311 30112 net.cpp:91] Creating Layer relu5
I0720 16:29:36.233319 30112 net.cpp:425] relu5 <- conv5
I0720 16:29:36.233326 30112 net.cpp:386] relu5 -> conv5 (in-place)
I0720 16:29:36.234233 30112 net.cpp:141] Setting up relu5
I0720 16:29:36.234252 30112 net.cpp:148] Top shape: 10 256 13 13 (432640)
I0720 16:29:36.234258 30112 net.cpp:156] Memory required for data: 67249720
I0720 16:29:36.234263 30112 layer_factory.hpp:77] Creating layer pool5
I0720 16:29:36.234278 30112 net.cpp:91] Creating Layer pool5
I0720 16:29:36.234283 30112 net.cpp:425] pool5 <- conv5
I0720 16:29:36.234292 30112 net.cpp:399] pool5 -> pool5
I0720 16:29:36.234791 30112 net.cpp:141] Setting up pool5
I0720 16:29:36.234804 30112 net.cpp:148] Top shape: 10 256 6 6 (92160)
I0720 16:29:36.234809 30112 net.cpp:156] Memory required for data: 67618360
I0720 16:29:36.234814 30112 layer_factory.hpp:77] Creating layer fc6
I0720 16:29:36.234833 30112 net.cpp:91] Creating Layer fc6
I0720 16:29:36.234838 30112 net.cpp:425] fc6 <- pool5
I0720 16:29:36.234845 30112 net.cpp:399] fc6 -> fc6
I0720 16:29:36.309072 30098 net.cpp:141] Setting up lstm2_x_transform
I0720 16:29:36.309134 30098 net.cpp:148] Top shape: 1 1 4000 (4000)
I0720 16:29:36.309140 30098 net.cpp:156] Memory required for data: 30020
I0720 16:29:36.309165 30098 layer_factory.hpp:77] Creating layer lstm2_W_xc_x_slice
I0720 16:29:36.309185 30098 net.cpp:91] Creating Layer lstm2_W_xc_x_slice
I0720 16:29:36.309192 30098 net.cpp:425] lstm2_W_xc_x_slice <- W_xc_x
I0720 16:29:36.309203 30098 net.cpp:399] lstm2_W_xc_x_slice -> W_xc_x_1
I0720 16:29:36.310463 30094 net.cpp:141] Setting up lstm2_transform_1
I0720 16:29:36.310497 30098 net.cpp:141] Setting up lstm2_W_xc_x_slice
I0720 16:29:36.310508 30094 net.cpp:148] Top shape: 1 1 4000 (4000)
I0720 16:29:36.310526 30094 net.cpp:156] Memory required for data: 66020
I0720 16:29:36.310529 30098 net.cpp:148] Top shape: 1 1 4000 (4000)
I0720 16:29:36.310541 30098 net.cpp:156] Memory required for data: 46020
I0720 16:29:36.310546 30094 layer_factory.hpp:77] Creating layer lstm2_gate_input_1
I0720 16:29:36.310550 30098 layer_factory.hpp:77] Creating layer lstm2_h_conted_0
I0720 16:29:36.310565 30098 net.cpp:91] Creating Layer lstm2_h_conted_0
I0720 16:29:36.310570 30094 net.cpp:91] Creating Layer lstm2_gate_input_1
I0720 16:29:36.310571 30098 net.cpp:425] lstm2_h_conted_0 <- h_0
I0720 16:29:36.310582 30094 net.cpp:425] lstm2_gate_input_1 <- W_hc_h_0
I0720 16:29:36.310595 30098 net.cpp:425] lstm2_h_conted_0 <- cont_1_lstm2_cont_slice_0_split_0
I0720 16:29:36.310602 30094 net.cpp:425] lstm2_gate_input_1 <- W_xc_x_1
I0720 16:29:36.310609 30098 net.cpp:399] lstm2_h_conted_0 -> h_conted_0
I0720 16:29:36.310611 30094 net.cpp:399] lstm2_gate_input_1 -> gate_input_1
I0720 16:29:36.311764 30094 net.cpp:141] Setting up lstm2_gate_input_1
I0720 16:29:36.311784 30094 net.cpp:148] Top shape: 1 1 4000 (4000)
I0720 16:29:36.311789 30094 net.cpp:156] Memory required for data: 82020
I0720 16:29:36.311795 30094 layer_factory.hpp:77] Creating layer lstm2_unit_1
I0720 16:29:36.311812 30094 net.cpp:91] Creating Layer lstm2_unit_1
I0720 16:29:36.311818 30094 net.cpp:425] lstm2_unit_1 <- c_0
I0720 16:29:36.311826 30094 net.cpp:425] lstm2_unit_1 <- gate_input_1
I0720 16:29:36.311832 30094 net.cpp:425] lstm2_unit_1 <- cont_1_lstm2_cont_slice_0_split_1
I0720 16:29:36.311843 30094 net.cpp:399] lstm2_unit_1 -> c_1
I0720 16:29:36.311854 30094 net.cpp:399] lstm2_unit_1 -> h_1
I0720 16:29:36.312433 30094 net.cpp:141] Setting up lstm2_unit_1
I0720 16:29:36.312445 30094 net.cpp:148] Top shape: 1 1 1000 (1000)
I0720 16:29:36.312453 30094 net.cpp:148] Top shape: 1 1 1000 (1000)
I0720 16:29:36.312456 30094 net.cpp:156] Memory required for data: 90020
I0720 16:29:36.312463 30094 layer_factory.hpp:77] Creating layer lstm2_
I0720 16:29:36.312472 30094 net.cpp:91] Creating Layer lstm2_
I0720 16:29:36.312477 30094 net.cpp:425] lstm2_ <- c_1
I0720 16:29:36.312469 30098 net.cpp:141] Setting up lstm2_h_conted_0
I0720 16:29:36.312492 30094 net.cpp:399] lstm2_ -> c_T
I0720 16:29:36.312510 30098 net.cpp:148] Top shape: 1 1 1000 (1000)
I0720 16:29:36.312516 30098 net.cpp:156] Memory required for data: 50020
I0720 16:29:36.312523 30098 layer_factory.hpp:77] Creating layer lstm2_transform_1
I0720 16:29:36.312551 30098 net.cpp:91] Creating Layer lstm2_transform_1
I0720 16:29:36.312557 30098 net.cpp:425] lstm2_transform_1 <- h_conted_0
I0720 16:29:36.312572 30098 net.cpp:399] lstm2_transform_1 -> W_hc_h_0
I0720 16:29:36.312670 30094 net.cpp:141] Setting up lstm2_
I0720 16:29:36.312682 30094 net.cpp:148] Top shape: 1 1 1000 (1000)
I0720 16:29:36.312687 30094 net.cpp:156] Memory required for data: 94020
I0720 16:29:36.312692 30094 layer_factory.hpp:77] Creating layer lstm2_h_concat
I0720 16:29:36.312708 30094 net.cpp:91] Creating Layer lstm2_h_concat
I0720 16:29:36.312713 30094 net.cpp:425] lstm2_h_concat <- h_1
I0720 16:29:36.312721 30094 net.cpp:399] lstm2_h_concat -> h
I0720 16:29:36.322300 30094 net.cpp:141] Setting up lstm2_h_concat
I0720 16:29:36.322320 30094 net.cpp:148] Top shape: 1 1 1000 (1000)
I0720 16:29:36.322325 30094 net.cpp:156] Memory required for data: 98020
I0720 16:29:36.322334 30094 layer_factory.hpp:77] Creating layer h_pseudoloss
I0720 16:29:36.322350 30094 net.cpp:91] Creating Layer h_pseudoloss
I0720 16:29:36.322357 30094 net.cpp:425] h_pseudoloss <- h
I0720 16:29:36.322370 30094 net.cpp:399] h_pseudoloss -> h_pseudoloss
I0720 16:29:36.324723 30094 net.cpp:141] Setting up h_pseudoloss
…
I0720 16:29:36.324806 30094 net.cpp:217] lstm2_gate_input_1 needs backward computation.
I0720 16:29:36.324812 30094 net.cpp:217] lstm2_transform_1 needs backward computation.
I0720 16:29:36.324820 30094 net.cpp:219] lstm2_h_conted_0 does not need backward computation.
I0720 16:29:36.324826 30094 net.cpp:217] lstm2_W_xc_x_slice needs backward computation.
I0720 16:29:36.324807 30106 net.cpp:141] Setting up conv5
I0720 16:29:36.324833 30094 net.cpp:217] lstm2_x_transform needs backward computation.
I0720 16:29:36.324862 30094 net.cpp:219] cont_1_lstm2_cont_slice_0_split does not need backward computation.
I0720 16:29:36.324863 30106 net.cpp:148] Top shape: 10 256 13 13 (432640)
I0720 16:29:36.324869 30094 net.cpp:219] lstm2_cont_slice does not need backward computation.
I0720 16:29:36.324872 30106 net.cpp:156] Memory required for data: 65519160
I0720 16:29:36.324877 30094 net.cpp:219] lstm2_ does not need backward computation.
I0720 16:29:36.324882 30094 net.cpp:219] lstm2_ does not need backward computation.
I0720 16:29:36.324885 30094 net.cpp:261] This network produces output c_T
I0720 16:29:36.324892 30094 net.cpp:261] This network produces output h_pseudoloss
I0720 16:29:36.324901 30106 layer_factory.hpp:77] Creating layer relu5
I0720 16:29:36.324913 30094 net.cpp:274] Network initialization done.
I0720 16:29:36.324925 30106 net.cpp:91] Creating Layer relu5
I0720 16:29:36.324935 30106 net.cpp:425] relu5 <- conv5
I0720 16:29:36.324947 30106 net.cpp:386] relu5 -> conv5 (in-place)
I0720 16:29:36.324971 30094 recurrent_layer.cpp:150] Adding parameter 0: W_xc
I0720 16:29:36.324980 30094 recurrent_layer.cpp:150] Adding parameter 1: b_c
I0720 16:29:36.324985 30094 recurrent_layer.cpp:150] Adding parameter 2: W_hc
I0720 16:29:36.327723 30094 net.cpp:141] Setting up lstm2
I0720 16:29:36.327742 30094 net.cpp:148] Top shape: 1 1 1000 (1000)
I0720 16:29:36.327747 30094 net.cpp:156] Memory required for data: 36412
I0720 16:29:36.327765 30094 layer_factory.hpp:77] Creating layer predict
I0720 16:29:36.327782 30094 net.cpp:91] Creating Layer predict
I0720 16:29:36.327790 30094 net.cpp:425] predict <- lstm2
I0720 16:29:36.327800 30094 net.cpp:399] predict -> predict
I0720 16:29:36.327878 30106 net.cpp:141] Setting up relu5
I0720 16:29:36.327919 30106 net.cpp:148] Top shape: 10 256 13 13 (432640)
I0720 16:29:36.327925 30106 net.cpp:156] Memory required for data: 67249720
I0720 16:29:36.327934 30106 layer_factory.hpp:77] Creating layer pool5
I0720 16:29:36.327958 30106 net.cpp:91] Creating Layer pool5
I0720 16:29:36.327966 30106 net.cpp:425] pool5 <- conv5
I0720 16:29:36.327977 30106 net.cpp:399] pool5 -> pool5
I0720 16:29:36.413491 30098 net.cpp:141] Setting up lstm2_transform_1
I0720 16:29:36.413544 30098 net.cpp:148] Top shape: 1 1 4000 (4000)
I0720 16:29:36.413552 30098 net.cpp:156] Memory required for data: 66020
I0720 16:29:36.413579 30098 layer_factory.hpp:77] Creating layer lstm2_gate_input_1
I0720 16:29:36.413602 30098 net.cpp:91] Creating Layer lstm2_gate_input_1
I0720 16:29:36.413610 30098 net.cpp:425] lstm2_gate_input_1 <- W_hc_h_0
I0720 16:29:36.413619 30098 net.cpp:425] lstm2_gate_input_1 <- W_xc_x_1
I0720 16:29:36.413630 30098 net.cpp:399] lstm2_gate_input_1 -> gate_input_1
I0720 16:29:36.417697 30106 net.cpp:141] Setting up pool5
I0720 16:29:36.417711 30098 net.cpp:141] Setting up lstm2_gate_input_1
I0720 16:29:36.417721 30106 net.cpp:148] Top shape: 10 256 6 6 (92160)
I0720 16:29:36.417727 30106 net.cpp:156] Memory required for data: 67618360
I0720 16:29:36.417731 30098 net.cpp:148] Top shape: 1 1 4000 (4000)
I0720 16:29:36.417737 30098 net.cpp:156] Memory required for data: 82020
I0720 16:29:36.417737 30106 layer_factory.hpp:77] Creating layer fc6
I0720 16:29:36.417742 30098 layer_factory.hpp:77] Creating layer lstm2_unit_1
I0720 16:29:36.417753 30098 net.cpp:91] Creating Layer lstm2_unit_1
I0720 16:29:36.417758 30106 net.cpp:91] Creating Layer fc6
I0720 16:29:36.417758 30098 net.cpp:425] lstm2_unit_1 <- c_0
I0720 16:29:36.417771 30106 net.cpp:425] fc6 <- pool5
I0720 16:29:36.417778 30098 net.cpp:425] lstm2_unit_1 <- gate_input_1
I0720 16:29:36.417781 30106 net.cpp:399] fc6 -> fc6
I0720 16:29:36.417784 30098 net.cpp:425] lstm2_unit_1 <- cont_1_lstm2_cont_slice_0_split_1
I0720 16:29:36.417793 30098 net.cpp:399] lstm2_unit_1 -> c_1
I0720 16:29:36.417804 30098 net.cpp:399] lstm2_unit_1 -> h_1
I0720 16:29:36.491132 30098 net.cpp:141] Setting up lstm2_unit_1
I0720 16:29:36.491147 30112 net.cpp:141] Setting up fc6
I0720 16:29:36.491194 30098 net.cpp:148] Top shape: 1 1 1000 (1000)
I0720 16:29:36.491199 30112 net.cpp:148] Top shape: 10 4096 (40960)
I0720 16:29:36.491204 30098 net.cpp:148] Top shape: 1 1 1000 (1000)
I0720 16:29:36.491214 30112 net.cpp:156] Memory required for data: 67782200
I0720 16:29:36.491217 30098 net.cpp:156] Memory required for data: 90020
I0720 16:29:36.491233 30098 layer_factory.hpp:77] Creating layer lstm2_
I0720 16:29:36.491245 30112 layer_factory.hpp:77] Creating layer relu6
I0720 16:29:36.491256 30098 net.cpp:91] Creating Layer lstm2_
I0720 16:29:36.491264 30098 net.cpp:425] lstm2_ <- c_1
I0720 16:29:36.491263 30112 net.cpp:91] Creating Layer relu6
I0720 16:29:36.491276 30112 net.cpp:425] relu6 <- fc6
I0720 16:29:36.491277 30098 net.cpp:399] lstm2_ -> c_T
I0720 16:29:36.491300 30112 net.cpp:386] relu6 -> fc6 (in-place)
I0720 16:29:36.491701 30098 net.cpp:141] Setting up lstm2_
I0720 16:29:36.491714 30098 net.cpp:148] Top shape: 1 1 1000 (1000)
I0720 16:29:36.491719 30098 net.cpp:156] Memory required for data: 94020
I0720 16:29:36.491724 30098 layer_factory.hpp:77] Creating layer lstm2_h_concat
I0720 16:29:36.491736 30098 net.cpp:91] Creating Layer lstm2_h_concat
I0720 16:29:36.491741 30098 net.cpp:425] lstm2_h_concat <- h_1
I0720 16:29:36.491752 30098 net.cpp:399] lstm2_h_concat -> h
I0720 16:29:36.491875 30098 net.cpp:141] Setting up lstm2_h_concat
I0720 16:29:36.491888 30098 net.cpp:148] Top shape: 1 1 1000 (1000)
I0720 16:29:36.491891 30098 net.cpp:156] Memory required for data: 98020
I0720 16:29:36.491896 30098 layer_factory.hpp:77] Creating layer h_pseudoloss
I0720 16:29:36.491907 30098 net.cpp:91] Creating Layer h_pseudoloss
I0720 16:29:36.491912 30098 net.cpp:425] h_pseudoloss <- h
I0720 16:29:36.491920 30098 net.cpp:399] h_pseudoloss -> h_pseudoloss
I0720 16:29:36.491986 30112 net.cpp:141] Setting up relu6
I0720 16:29:36.492008 30112 net.cpp:148] Top shape: 10 4096 (40960)
I0720 16:29:36.492024 30112 net.cpp:156] Memory required for data: 67946040
I0720 16:29:36.492036 30112 layer_factory.hpp:77] Creating layer drop6
I0720 16:29:36.492055 30112 net.cpp:91] Creating Layer drop6
I0720 16:29:36.492068 30112 net.cpp:425] drop6 <- fc6
I0720 16:29:36.492081 30112 net.cpp:386] drop6 -> fc6 (in-place)
I0720 16:29:36.492100 30098 net.cpp:141] Setting up h_pseudoloss
…
I0720 16:29:36.492199 30098 net.cpp:219] cont_1_lstm2_cont_slice_0_split does not need backward computation.
I0720 16:29:36.492204 30098 net.cpp:219] lstm2_cont_slice does not need backward computation.
I0720 16:29:36.492210 30098 net.cpp:219] lstm2_ does not need backward computation.
I0720 16:29:36.492214 30098 net.cpp:219] lstm2_ does not need backward computation.
I0720 16:29:36.492218 30098 net.cpp:261] This network produces output c_T
I0720 16:29:36.492213 30112 net.cpp:141] Setting up drop6
I0720 16:29:36.492223 30098 net.cpp:261] This network produces output h_pseudoloss
I0720 16:29:36.492238 30112 net.cpp:148] Top shape: 10 4096 (40960)
I0720 16:29:36.492244 30098 net.cpp:274] Network initialization done.
I0720 16:29:36.492249 30112 net.cpp:156] Memory required for data: 68109880
I0720 16:29:36.492259 30112 layer_factory.hpp:77] Creating layer fc7
I0720 16:29:36.492278 30112 net.cpp:91] Creating Layer fc7
I0720 16:29:36.492290 30112 net.cpp:425] fc7 <- fc6
I0720 16:29:36.492305 30098 recurrent_layer.cpp:150] Adding parameter 0: W_xc
I0720 16:29:36.492305 30112 net.cpp:399] fc7 -> fc7
I0720 16:29:36.492311 30098 recurrent_layer.cpp:150] Adding parameter 1: b_c
I0720 16:29:36.492316 30098 recurrent_layer.cpp:150] Adding parameter 2: W_hc
I0720 16:29:36.527927 30098 net.cpp:141] Setting up lstm2
I0720 16:29:36.527989 30098 net.cpp:148] Top shape: 1 1 1000 (1000)
I0720 16:29:36.527997 30098 net.cpp:156] Memory required for data: 36412
I0720 16:29:36.528024 30098 layer_factory.hpp:77] Creating layer predict
I0720 16:29:36.528049 30098 net.cpp:91] Creating Layer predict
I0720 16:29:36.528058 30098 net.cpp:425] predict <- lstm2
I0720 16:29:36.528069 30098 net.cpp:399] predict -> predict
I0720 16:29:36.626938 30112 net.cpp:141] Setting up fc7
I0720 16:29:36.626971 30106 net.cpp:141] Setting up fc6
I0720 16:29:36.626996 30106 net.cpp:148] Top shape: 10 4096 (40960)
I0720 16:29:36.626996 30112 net.cpp:148] Top shape: 10 4096 (40960)
I0720 16:29:36.627002 30106 net.cpp:156] Memory required for data: 67782200
I0720 16:29:36.627007 30112 net.cpp:156] Memory required for data: 68273720
I0720 16:29:36.627019 30106 layer_factory.hpp:77] Creating layer relu6
I0720 16:29:36.627025 30112 layer_factory.hpp:77] Creating layer relu7
I0720 16:29:36.627038 30106 net.cpp:91] Creating Layer relu6
I0720 16:29:36.627041 30112 net.cpp:91] Creating Layer relu7
I0720 16:29:36.627044 30106 net.cpp:425] relu6 <- fc6
I0720 16:29:36.627058 30112 net.cpp:425] relu7 <- fc7
I0720 16:29:36.627071 30106 net.cpp:386] relu6 -> fc6 (in-place)
I0720 16:29:36.627074 30112 net.cpp:386] relu7 -> fc7 (in-place)
I0720 16:29:36.627504 30106 net.cpp:141] Setting up relu6
I0720 16:29:36.627517 30106 net.cpp:148] Top shape: 10 4096 (40960)
I0720 16:29:36.627526 30106 net.cpp:156] Memory required for data: 67946040
I0720 16:29:36.627532 30106 layer_factory.hpp:77] Creating layer drop6
I0720 16:29:36.627544 30106 net.cpp:91] Creating Layer drop6
I0720 16:29:36.627549 30106 net.cpp:425] drop6 <- fc6
I0720 16:29:36.627557 30106 net.cpp:386] drop6 -> fc6 (in-place)
I0720 16:29:36.628516 30106 net.cpp:141] Setting up drop6
I0720 16:29:36.628531 30106 net.cpp:148] Top shape: 10 4096 (40960)
I0720 16:29:36.628536 30106 net.cpp:156] Memory required for data: 68109880
I0720 16:29:36.628541 30106 layer_factory.hpp:77] Creating layer fc7
I0720 16:29:36.628553 30106 net.cpp:91] Creating Layer fc7
I0720 16:29:36.628558 30106 net.cpp:425] fc7 <- fc6
I0720 16:29:36.628566 30106 net.cpp:399] fc7 -> fc7
I0720 16:29:36.657788 30112 net.cpp:141] Setting up relu7
I0720 16:29:36.657858 30112 net.cpp:148] Top shape: 10 4096 (40960)
I0720 16:29:36.657868 30112 net.cpp:156] Memory required for data: 68437560
I0720 16:29:36.657884 30112 layer_factory.hpp:77] Creating layer drop7
I0720 16:29:36.657917 30112 net.cpp:91] Creating Layer drop7
I0720 16:29:36.657932 30112 net.cpp:425] drop7 <- fc7
I0720 16:29:36.657953 30112 net.cpp:386] drop7 -> fc7 (in-place)
I0720 16:29:36.661389 30112 net.cpp:141] Setting up drop7
I0720 16:29:36.661417 30112 net.cpp:148] Top shape: 10 4096 (40960)
I0720 16:29:36.661428 30112 net.cpp:156] Memory required for data: 68601400
I0720 16:29:36.661439 30112 layer_factory.hpp:77] Creating layer fc8
I0720 16:29:36.661458 30112 net.cpp:91] Creating Layer fc8
I0720 16:29:36.661471 30112 net.cpp:425] fc8 <- fc7
I0720 16:29:36.661487 30112 net.cpp:399] fc8 -> fc8
I0720 16:29:36.681018 30112 net.cpp:141] Setting up fc8
I0720 16:29:36.681087 30112 net.cpp:148] Top shape: 10 1000 (10000)
I0720 16:29:36.681098 30112 net.cpp:156] Memory required for data: 68641400
I0720 16:29:36.681123 30112 layer_factory.hpp:77] Creating layer prob
I0720 16:29:36.681149 30112 net.cpp:91] Creating Layer prob
I0720 16:29:36.681161 30112 net.cpp:425] prob <- fc8
I0720 16:29:36.681181 30112 net.cpp:399] prob -> prob
I0720 16:29:36.682075 30112 net.cpp:141] Setting up prob
I0720 16:29:36.682096 30112 net.cpp:148] Top shape: 10 1000 (10000)
I0720 16:29:36.682104 30112 net.cpp:156] Memory required for data: 68681400
I0720 16:29:36.682114 30112 net.cpp:219] prob does not need backward computation.
I0720 16:29:36.682124 30112 net.cpp:219] fc8 does not need backward computation.
I0720 16:29:36.682135 30112 net.cpp:219] drop7 does not need backward computation.
I0720 16:29:36.682144 30112 net.cpp:219] relu7 does not need backward computation.
…
I0720 16:29:36.682307 30112 net.cpp:219] norm1 does not need backward computation.
I0720 16:29:36.682317 30112 net.cpp:219] pool1 does not need backward computation.
I0720 16:29:36.682327 30112 net.cpp:219] relu1 does not need backward computation.
I0720 16:29:36.682338 30112 net.cpp:219] conv1 does not need backward computation.
I0720 16:29:36.682356 30112 net.cpp:219] data does not need backward computation.
I0720 16:29:36.682366 30112 net.cpp:261] This network produces output prob
I0720 16:29:36.682404 30112 net.cpp:274] Network initialization done.
I0720 16:29:36.685264 30106 net.cpp:141] Setting up fc7
I0720 16:29:36.685322 30106 net.cpp:148] Top shape: 10 4096 (40960)
I0720 16:29:36.685334 30106 net.cpp:156] Memory required for data: 68273720
I0720 16:29:36.685361 30106 layer_factory.hpp:77] Creating layer relu7
I0720 16:29:36.685392 30106 net.cpp:91] Creating Layer relu7
I0720 16:29:36.685407 30106 net.cpp:425] relu7 <- fc7
I0720 16:29:36.685425 30106 net.cpp:386] relu7 -> fc7 (in-place)
I0720 16:29:36.687908 30106 net.cpp:141] Setting up relu7
I0720 16:29:36.687948 30106 net.cpp:148] Top shape: 10 4096 (40960)
I0720 16:29:36.687961 30106 net.cpp:156] Memory required for data: 68437560
I0720 16:29:36.687973 30106 layer_factory.hpp:77] Creating layer drop7
I0720 16:29:36.687995 30106 net.cpp:91] Creating Layer drop7
I0720 16:29:36.688007 30106 net.cpp:425] drop7 <- fc7
I0720 16:29:36.688022 30106 net.cpp:386] drop7 -> fc7 (in-place)
I0720 16:29:36.688158 30106 net.cpp:141] Setting up drop7
I0720 16:29:36.688175 30106 net.cpp:148] Top shape: 10 4096 (40960)
I0720 16:29:36.688185 30106 net.cpp:156] Memory required for data: 68601400
I0720 16:29:36.688196 30106 layer_factory.hpp:77] Creating layer fc8
I0720 16:29:36.688215 30106 net.cpp:91] Creating Layer fc8
I0720 16:29:36.688225 30106 net.cpp:425] fc8 <- fc7
I0720 16:29:36.688246 30106 net.cpp:399] fc8 -> fc8
I0720 16:29:36.707768 30106 net.cpp:141] Setting up fc8
I0720 16:29:36.707846 30106 net.cpp:148] Top shape: 10 1000 (10000)
I0720 16:29:36.707859 30106 net.cpp:156] Memory required for data: 68641400
I0720 16:29:36.707882 30106 layer_factory.hpp:77] Creating layer prob
I0720 16:29:36.707911 30106 net.cpp:91] Creating Layer prob
I0720 16:29:36.707922 30106 net.cpp:425] prob <- fc8
I0720 16:29:36.707947 30106 net.cpp:399] prob -> prob
I0720 16:29:36.709139 30106 net.cpp:141] Setting up prob
I0720 16:29:36.709163 30106 net.cpp:148] Top shape: 10 1000 (10000)
I0720 16:29:36.709172 30106 net.cpp:156] Memory required for data: 68681400
I0720 16:29:36.709182 30106 net.cpp:219] prob does not need backward computation.
I0720 16:29:36.709190 30106 net.cpp:219] fc8 does not need backward computation.
I0720 16:29:36.709198 30106 net.cpp:219] drop7 does not need backward computation.
I0720 16:29:36.709206 30106 net.cpp:219] relu7 does not need backward computation.
…
