…
2016-07-20 16:29:35.413 n.t.s.b.CVParticleBolt [INFO] [Timing] RequestID: 0 StreamID: home/peifeng/work/data/frame.320x240.jpg SequenceNr: 125 Entering scale: 1469046575413
2016-07-20 16:29:35.415 n.t.s.b.CVParticleBolt [INFO] [Timing] RequestID: 0 StreamID: home/peifeng/work/data/frame.320x240.jpg SequenceNr: 124 Leaving scale: 1469046575415 Size: 3530
2016-07-20 16:29:35.419 n.t.s.b.CVParticleBolt [INFO] [Timing] RequestID: 0 StreamID: home/peifeng/work/data/frame.320x240.jpg SequenceNr: 125 Leaving scale: 1469046575419 Size: 3530
2016-07-20 16:29:35.551 STDERR [INFO] I0720 16:29:35.550911 30112 net.cpp:141] Setting up data
2016-07-20 16:29:35.551 STDERR [INFO] I0720 16:29:35.551012 30112 net.cpp:148] Top shape: 10 3 227 227 (1545870)
2016-07-20 16:29:35.552 STDERR [INFO] I0720 16:29:35.551020 30112 net.cpp:156] Memory required for data: 6183480
2016-07-20 16:29:35.552 STDERR [INFO] I0720 16:29:35.551043 30112 layer_factory.hpp:77] Creating layer conv1
2016-07-20 16:29:35.552 STDERR [INFO] I0720 16:29:35.551077 30112 net.cpp:91] Creating Layer conv1
2016-07-20 16:29:35.552 STDERR [INFO] I0720 16:29:35.551077 30094 net.cpp:141] Setting up input
2016-07-20 16:29:35.552 STDERR [INFO] I0720 16:29:35.551087 30112 net.cpp:425] conv1 <- data
2016-07-20 16:29:35.552 STDERR [INFO] I0720 16:29:35.551102 30094 net.cpp:148] Top shape: 1 4096 (4096)
2016-07-20 16:29:35.552 STDERR [INFO] I0720 16:29:35.551110 30094 net.cpp:148] Top shape: 1 1 (1)
2016-07-20 16:29:35.553 STDERR [INFO] I0720 16:29:35.551112 30112 net.cpp:399] conv1 -> conv1
2016-07-20 16:29:35.553 STDERR [INFO] I0720 16:29:35.551117 30094 net.cpp:148] Top shape: 1 1 (1)
2016-07-20 16:29:35.553 STDERR [INFO] I0720 16:29:35.551123 30094 net.cpp:148] Top shape: 1 1 (1)
2016-07-20 16:29:35.553 STDERR [INFO] I0720 16:29:35.551128 30094 net.cpp:156] Memory required for data: 16396
2016-07-20 16:29:35.553 STDERR [INFO] I0720 16:29:35.551134 30094 layer_factory.hpp:77] Creating layer cont_sentence_input_1_split
2016-07-20 16:29:35.553 STDERR [INFO] I0720 16:29:35.551158 30094 net.cpp:91] Creating Layer cont_sentence_input_1_split
2016-07-20 16:29:35.553 STDERR [INFO] I0720 16:29:35.551165 30094 net.cpp:425] cont_sentence_input_1_split <- cont_sentence
2016-07-20 16:29:35.553 STDERR [INFO] I0720 16:29:35.551189 30094 net.cpp:399] cont_sentence_input_1_split -> cont_sentence_input_1_split_0
2016-07-20 16:29:35.553 STDERR [INFO] I0720 16:29:35.551203 30094 net.cpp:399] cont_sentence_input_1_split -> cont_sentence_input_1_split_1
2016-07-20 16:29:35.553 STDERR [INFO] I0720 16:29:35.551358 30094 net.cpp:141] Setting up cont_sentence_input_1_split
2016-07-20 16:29:35.553 STDERR [INFO] I0720 16:29:35.551372 30094 net.cpp:148] Top shape: 1 1 (1)
2016-07-20 16:29:35.553 STDERR [INFO] I0720 16:29:35.551378 30094 net.cpp:148] Top shape: 1 1 (1)
2016-07-20 16:29:35.554 STDERR [INFO] I0720 16:29:35.551383 30094 net.cpp:156] Memory required for data: 16404
2016-07-20 16:29:35.554 STDERR [INFO] I0720 16:29:35.551388 30094 layer_factory.hpp:77] Creating layer embed_encoder
2016-07-20 16:29:35.554 STDERR [INFO] I0720 16:29:35.551410 30094 net.cpp:91] Creating Layer embed_encoder
2016-07-20 16:29:35.554 STDERR [INFO] I0720 16:29:35.551417 30094 net.cpp:425] embed_encoder <- frames_fc7
2016-07-20 16:29:35.554 STDERR [INFO] I0720 16:29:35.551427 30094 net.cpp:399] embed_encoder -> embedded_in_frames
2016-07-20 16:29:35.573 STDERR [INFO] I0720 16:29:35.572927 30106 net.cpp:141] Setting up data
2016-07-20 16:29:35.573 STDERR [INFO] I0720 16:29:35.572981 30106 net.cpp:148] Top shape: 10 3 227 227 (1545870)
2016-07-20 16:29:35.573 STDERR [INFO] I0720 16:29:35.572988 30106 net.cpp:156] Memory required for data: 6183480
2016-07-20 16:29:35.573 STDERR [INFO] I0720 16:29:35.572999 30106 layer_factory.hpp:77] Creating layer conv1
2016-07-20 16:29:35.573 STDERR [INFO] I0720 16:29:35.573026 30106 net.cpp:91] Creating Layer conv1
2016-07-20 16:29:35.573 STDERR [INFO] I0720 16:29:35.573034 30106 net.cpp:425] conv1 <- data
2016-07-20 16:29:35.573 STDERR [INFO] I0720 16:29:35.573045 30106 net.cpp:399] conv1 -> conv1
2016-07-20 16:29:35.575 STDERR [INFO] I0720 16:29:35.575213 30098 net.cpp:141] Setting up input
2016-07-20 16:29:35.575 STDERR [INFO] I0720 16:29:35.575261 30098 net.cpp:148] Top shape: 1 4096 (4096)
2016-07-20 16:29:35.575 STDERR [INFO] I0720 16:29:35.575270 30098 net.cpp:148] Top shape: 1 1 (1)
2016-07-20 16:29:35.575 STDERR [INFO] I0720 16:29:35.575276 30098 net.cpp:148] Top shape: 1 1 (1)
2016-07-20 16:29:35.576 STDERR [INFO] I0720 16:29:35.575283 30098 net.cpp:148] Top shape: 1 1 (1)
2016-07-20 16:29:35.576 STDERR [INFO] I0720 16:29:35.575287 30098 net.cpp:156] Memory required for data: 16396
2016-07-20 16:29:35.576 STDERR [INFO] I0720 16:29:35.575297 30098 layer_factory.hpp:77] Creating layer cont_sentence_input_1_split
2016-07-20 16:29:35.576 STDERR [INFO] I0720 16:29:35.575315 30098 net.cpp:91] Creating Layer cont_sentence_input_1_split
2016-07-20 16:29:35.576 STDERR [INFO] I0720 16:29:35.575322 30098 net.cpp:425] cont_sentence_input_1_split <- cont_sentence
2016-07-20 16:29:35.576 STDERR [INFO] I0720 16:29:35.575333 30098 net.cpp:399] cont_sentence_input_1_split -> cont_sentence_input_1_split_0
2016-07-20 16:29:35.576 STDERR [INFO] I0720 16:29:35.575350 30098 net.cpp:399] cont_sentence_input_1_split -> cont_sentence_input_1_split_1
2016-07-20 16:29:35.579 STDERR [INFO] I0720 16:29:35.579203 30098 net.cpp:141] Setting up cont_sentence_input_1_split
2016-07-20 16:29:35.579 STDERR [INFO] I0720 16:29:35.579231 30098 net.cpp:148] Top shape: 1 1 (1)
2016-07-20 16:29:35.579 STDERR [INFO] I0720 16:29:35.579238 30098 net.cpp:148] Top shape: 1 1 (1)
2016-07-20 16:29:35.579 STDERR [INFO] I0720 16:29:35.579242 30098 net.cpp:156] Memory required for data: 16404
2016-07-20 16:29:35.579 STDERR [INFO] I0720 16:29:35.579248 30098 layer_factory.hpp:77] Creating layer embed_encoder
2016-07-20 16:29:35.579 STDERR [INFO] I0720 16:29:35.579267 30098 net.cpp:91] Creating Layer embed_encoder
2016-07-20 16:29:35.579 STDERR [INFO] I0720 16:29:35.579272 30098 net.cpp:425] embed_encoder <- frames_fc7
…
2016-07-20 16:29:35.907 STDERR [INFO] }
2016-07-20 16:29:35.907 STDERR [INFO] I0720 16:29:35.894526 30094 layer_factory.hpp:77] Creating layer lstm1_
2016-07-20 16:29:35.908 STDERR [INFO] I0720 16:29:35.894541 30094 net.cpp:91] Creating Layer lstm1_
2016-07-20 16:29:35.908 STDERR [INFO] I0720 16:29:35.894548 30094 net.cpp:399] lstm1_ -> x
2016-07-20 16:29:35.908 STDERR [INFO] I0720 16:29:35.894562 30094 net.cpp:399] lstm1_ -> cont
2016-07-20 16:29:35.910 STDERR [INFO] I0720 16:29:35.910861 30094 net.cpp:141] Setting up lstm1_
2016-07-20 16:29:35.911 STDERR [INFO] I0720 16:29:35.910892 30094 net.cpp:148] Top shape: 1 1 500 (500)
2016-07-20 16:29:35.911 STDERR [INFO] I0720 16:29:35.910902 30094 net.cpp:148] Top shape: 1 1 (1)
2016-07-20 16:29:35.911 STDERR [INFO] I0720 16:29:35.910905 30094 net.cpp:156] Memory required for data: 2004
2016-07-20 16:29:35.911 STDERR [INFO] I0720 16:29:35.910913 30094 layer_factory.hpp:77] Creating layer lstm1_
2016-07-20 16:29:35.911 STDERR [INFO] I0720 16:29:35.910938 30094 net.cpp:91] Creating Layer lstm1_
2016-07-20 16:29:35.911 STDERR [INFO] I0720 16:29:35.910949 30094 net.cpp:399] lstm1_ -> c_0
2016-07-20 16:29:35.911 STDERR [INFO] I0720 16:29:35.910964 30094 net.cpp:399] lstm1_ -> h_0
2016-07-20 16:29:35.923 STDERR [INFO] I0720 16:29:35.923295 30094 net.cpp:141] Setting up lstm1_
2016-07-20 16:29:35.923 STDERR [INFO] I0720 16:29:35.923323 30094 net.cpp:148] Top shape: 1 1 1000 (1000)
2016-07-20 16:29:35.923 STDERR [INFO] I0720 16:29:35.923331 30094 net.cpp:148] Top shape: 1 1 1000 (1000)
2016-07-20 16:29:35.923 STDERR [INFO] I0720 16:29:35.923336 30094 net.cpp:156] Memory required for data: 10004
2016-07-20 16:29:35.923 STDERR [INFO] I0720 16:29:35.923342 30094 layer_factory.hpp:77] Creating layer lstm1_cont_slice
2016-07-20 16:29:35.923 STDERR [INFO] I0720 16:29:35.923359 30094 net.cpp:91] Creating Layer lstm1_cont_slice
2016-07-20 16:29:35.924 STDERR [INFO] I0720 16:29:35.923365 30094 net.cpp:425] lstm1_cont_slice <- cont
2016-07-20 16:29:35.924 STDERR [INFO] I0720 16:29:35.923375 30094 net.cpp:399] lstm1_cont_slice -> cont_1
2016-07-20 16:29:35.924 STDERR [INFO] I0720 16:29:35.924823 30094 net.cpp:141] Setting up lstm1_cont_slice
2016-07-20 16:29:35.925 STDERR [INFO] I0720 16:29:35.924845 30094 net.cpp:148] Top shape: 1 1 (1)
2016-07-20 16:29:35.925 STDERR [INFO] I0720 16:29:35.924851 30094 net.cpp:156] Memory required for data: 10008
2016-07-20 16:29:35.925 STDERR [INFO] I0720 16:29:35.924857 30094 layer_factory.hpp:77] Creating layer cont_1_lstm1_cont_slice_0_split
2016-07-20 16:29:35.925 STDERR [INFO] I0720 16:29:35.924867 30094 net.cpp:91] Creating Layer cont_1_lstm1_cont_slice_0_split
2016-07-20 16:29:35.925 STDERR [INFO] I0720 16:29:35.924873 30094 net.cpp:425] cont_1_lstm1_cont_slice_0_split <- cont_1
2016-07-20 16:29:35.925 STDERR [INFO] I0720 16:29:35.924881 30094 net.cpp:399] cont_1_lstm1_cont_slice_0_split -> cont_1_lstm1_cont_slice_0_split_0
2016-07-20 16:29:35.925 STDERR [INFO] I0720 16:29:35.924891 30094 net.cpp:399] cont_1_lstm1_cont_slice_0_split -> cont_1_lstm1_cont_slice_0_split_1
2016-07-20 16:29:35.941 STDERR [INFO] I0720 16:29:35.941575 30094 net.cpp:141] Setting up cont_1_lstm1_cont_slice_0_split
2016-07-20 16:29:35.941 STDERR [INFO] I0720 16:29:35.941606 30094 net.cpp:148] Top shape: 1 1 (1)
2016-07-20 16:29:35.942 STDERR [INFO] I0720 16:29:35.941614 30094 net.cpp:148] Top shape: 1 1 (1)
2016-07-20 16:29:35.942 STDERR [INFO] I0720 16:29:35.941619 30094 net.cpp:156] Memory required for data: 10016
2016-07-20 16:29:35.942 STDERR [INFO] I0720 16:29:35.941627 30094 layer_factory.hpp:77] Creating layer lstm1_x_transform
2016-07-20 16:29:35.942 STDERR [INFO] I0720 16:29:35.941650 30094 net.cpp:91] Creating Layer lstm1_x_transform
2016-07-20 16:29:35.942 STDERR [INFO] I0720 16:29:35.941658 30094 net.cpp:425] lstm1_x_transform <- x
2016-07-20 16:29:35.943 STDERR [INFO] I0720 16:29:35.941669 30094 net.cpp:399] lstm1_x_transform -> W_xc_x
2016-07-20 16:29:35.986 STDERR [INFO] I0720 16:29:35.986063 30098 net.cpp:141] Setting up embedding
2016-07-20 16:29:35.986 STDERR [INFO] I0720 16:29:35.986122 30098 net.cpp:148] Top shape: 1 1 500 (500)
2016-07-20 16:29:35.986 STDERR [INFO] I0720 16:29:35.986129 30098 net.cpp:156] Memory required for data: 22408
2016-07-20 16:29:35.986 STDERR [INFO] I0720 16:29:35.986152 30098 layer_factory.hpp:77] Creating layer lstm1
2016-07-20 16:29:35.987 STDERR [INFO] I0720 16:29:35.986177 30098 net.cpp:91] Creating Layer lstm1
2016-07-20 16:29:35.987 STDERR [INFO] I0720 16:29:35.986186 30098 net.cpp:425] lstm1 <- embedded_input_frames
…
2016-07-20 16:29:36.013 n.t.s.s.CVParticleSpout [INFO] [Timing] RequestID: 0 StreamID: home/peifeng/work/data/frame.320x240.jpg SequenceNr: 134 Leaving fetcher: 1469046576013 Size: 8702
2016-07-20 16:29:36.013 n.t.s.b.CVParticleBolt [INFO] [Timing] RequestID: 0 StreamID: home/peifeng/work/data/frame.320x240.jpg SequenceNr: 134 Entering scale: 1469046576013
2016-07-20 16:29:36.014 n.t.s.b.CVParticleBolt [INFO] [Timing] RequestID: 0 StreamID: home/peifeng/work/data/frame.320x240.jpg SequenceNr: 133 Leaving scale: 1469046576014 Size: 3530
2016-07-20 16:29:36.017 STDERR [INFO] I0720 16:29:36.017524 30094 net.cpp:141] Setting up lstm1_x_transform
2016-07-20 16:29:36.018 STDERR [INFO] I0720 16:29:36.017596 30094 net.cpp:148] Top shape: 1 1 4000 (4000)
2016-07-20 16:29:36.018 STDERR [INFO] I0720 16:29:36.017607 30094 net.cpp:156] Memory required for data: 26016
2016-07-20 16:29:36.018 STDERR [INFO] I0720 16:29:36.017652 30094 layer_factory.hpp:77] Creating layer lstm1_W_xc_x_slice
2016-07-20 16:29:36.018 STDERR [INFO] I0720 16:29:36.017673 30094 net.cpp:91] Creating Layer lstm1_W_xc_x_slice
2016-07-20 16:29:36.018 STDERR [INFO] I0720 16:29:36.017681 30094 net.cpp:425] lstm1_W_xc_x_slice <- W_xc_x
2016-07-20 16:29:36.018 STDERR [INFO] I0720 16:29:36.017694 30094 net.cpp:399] lstm1_W_xc_x_slice -> W_xc_x_1
2016-07-20 16:29:36.021 n.t.s.b.CVParticleBolt [INFO] [Timing] RequestID: 0 StreamID: home/peifeng/work/data/frame.320x240.jpg SequenceNr: 134 Leaving scale: 1469046576021 Size: 3530
2016-07-20 16:29:36.034 STDERR [INFO] I0720 16:29:36.034001 30094 net.cpp:141] Setting up lstm1_W_xc_x_slice
2016-07-20 16:29:36.034 STDERR [INFO] I0720 16:29:36.034047 30094 net.cpp:148] Top shape: 1 1 4000 (4000)
2016-07-20 16:29:36.034 STDERR [INFO] I0720 16:29:36.034059 30094 net.cpp:156] Memory required for data: 42016
2016-07-20 16:29:36.034 STDERR [INFO] I0720 16:29:36.034070 30094 layer_factory.hpp:77] Creating layer lstm1_h_conted_0
2016-07-20 16:29:36.034 STDERR [INFO] I0720 16:29:36.034111 30094 net.cpp:91] Creating Layer lstm1_h_conted_0
2016-07-20 16:29:36.034 STDERR [INFO] I0720 16:29:36.034118 30094 net.cpp:425] lstm1_h_conted_0 <- h_0
2016-07-20 16:29:36.034 STDERR [INFO] I0720 16:29:36.034127 30094 net.cpp:425] lstm1_h_conted_0 <- cont_1_lstm1_cont_slice_0_split_0
2016-07-20 16:29:36.034 STDERR [INFO] I0720 16:29:36.034137 30094 net.cpp:399] lstm1_h_conted_0 -> h_conted_0
2016-07-20 16:29:36.039 STDERR [INFO] I0720 16:29:36.039171 30098 net.cpp:141] Setting up lstm1_
2016-07-20 16:29:36.039 STDERR [INFO] I0720 16:29:36.039225 30098 net.cpp:148] Top shape: 1 1 1000 (1000)
2016-07-20 16:29:36.039 STDERR [INFO] I0720 16:29:36.039234 30098 net.cpp:148] Top shape: 1 1 1000 (1000)
2016-07-20 16:29:36.039 STDERR [INFO] I0720 16:29:36.039239 30098 net.cpp:156] Memory required for data: 10004
2016-07-20 16:29:36.040 STDERR [INFO] I0720 16:29:36.039248 30098 layer_factory.hpp:77] Creating layer lstm1_cont_slice
2016-07-20 16:29:36.040 STDERR [INFO] I0720 16:29:36.039269 30098 net.cpp:91] Creating Layer lstm1_cont_slice
2016-07-20 16:29:36.040 STDERR [INFO] I0720 16:29:36.039278 30098 net.cpp:425] lstm1_cont_slice <- cont
2016-07-20 16:29:36.040 STDERR [INFO] I0720 16:29:36.039293 30098 net.cpp:399] lstm1_cont_slice -> cont_1
2016-07-20 16:29:36.042 STDERR [INFO] I0720 16:29:36.042103 30098 net.cpp:141] Setting up lstm1_cont_slice
2016-07-20 16:29:36.042 STDERR [INFO] I0720 16:29:36.042125 30098 net.cpp:148] Top shape: 1 1 (1)
2016-07-20 16:29:36.042 STDERR [INFO] I0720 16:29:36.042131 30098 net.cpp:156] Memory required for data: 10008
2016-07-20 16:29:36.042 STDERR [INFO] I0720 16:29:36.042137 30098 layer_factory.hpp:77] Creating layer cont_1_lstm1_cont_slice_0_split
2016-07-20 16:29:36.042 STDERR [INFO] I0720 16:29:36.042147 30098 net.cpp:91] Creating Layer cont_1_lstm1_cont_slice_0_split
2016-07-20 16:29:36.042 STDERR [INFO] I0720 16:29:36.042153 30098 net.cpp:425] cont_1_lstm1_cont_slice_0_split <- cont_1
2016-07-20 16:29:36.042 STDERR [INFO] I0720 16:29:36.042165 30098 net.cpp:399] cont_1_lstm1_cont_slice_0_split -> cont_1_lstm1_cont_slice_0_split_0
2016-07-20 16:29:36.043 STDERR [INFO] I0720 16:29:36.042176 30098 net.cpp:399] cont_1_lstm1_cont_slice_0_split -> cont_1_lstm1_cont_slice_0_split_1
2016-07-20 16:29:36.048 STDERR [INFO] I0720 16:29:36.048076 30098 net.cpp:141] Setting up cont_1_lstm1_cont_slice_0_split
2016-07-20 16:29:36.048 STDERR [INFO] I0720 16:29:36.048105 30098 net.cpp:148] Top shape: 1 1 (1)
2016-07-20 16:29:36.048 STDERR [INFO] I0720 16:29:36.048112 30098 net.cpp:148] Top shape: 1 1 (1)
2016-07-20 16:29:36.048 STDERR [INFO] I0720 16:29:36.048117 30098 net.cpp:156] Memory required for data: 10016
2016-07-20 16:29:36.048 STDERR [INFO] I0720 16:29:36.048123 30098 layer_factory.hpp:77] Creating layer lstm1_x_transform
2016-07-20 16:29:36.048 STDERR [INFO] I0720 16:29:36.048147 30098 net.cpp:91] Creating Layer lstm1_x_transform
2016-07-20 16:29:36.048 STDERR [INFO] I0720 16:29:36.048153 30098 net.cpp:425] lstm1_x_transform <- x
2016-07-20 16:29:36.048 STDERR [INFO] I0720 16:29:36.048164 30098 net.cpp:399] lstm1_x_transform -> W_xc_x
2016-07-20 16:29:36.055 STDERR [INFO] I0720 16:29:36.055776 30094 net.cpp:141] Setting up lstm1_h_conted_0
2016-07-20 16:29:36.056 STDERR [INFO] I0720 16:29:36.055801 30094 net.cpp:148] Top shape: 1 1 1000 (1000)
2016-07-20 16:29:36.056 STDERR [INFO] I0720 16:29:36.055807 30094 net.cpp:156] Memory required for data: 46016
2016-07-20 16:29:36.056 STDERR [INFO] I0720 16:29:36.055812 30094 layer_factory.hpp:77] Creating layer lstm1_transform_1
2016-07-20 16:29:36.056 STDERR [INFO] I0720 16:29:36.055831 30094 net.cpp:91] Creating Layer lstm1_transform_1
2016-07-20 16:29:36.056 STDERR [INFO] I0720 16:29:36.055837 30094 net.cpp:425] lstm1_transform_1 <- h_conted_0
2016-07-20 16:29:36.056 STDERR [INFO] I0720 16:29:36.055846 30094 net.cpp:399] lstm1_transform_1 -> W_hc_h_0
2016-07-20 16:29:36.100 STDERR [INFO] I0720 16:29:36.100421 30112 net.cpp:141] Setting up conv1
2016-07-20 16:29:36.101 STDERR [INFO] I0720 16:29:36.100486 30112 net.cpp:148] Top shape: 10 96 55 55 (2904000)
2016-07-20 16:29:36.101 STDERR [INFO] I0720 16:29:36.100495 30112 net.cpp:156] Memory required for data: 17799480
2016-07-20 16:29:36.101 STDERR [INFO] I0720 16:29:36.100522 30112 layer_factory.hpp:77] Creating layer relu1
2016-07-20 16:29:36.101 STDERR [INFO] I0720 16:29:36.100543 30112 net.cpp:91] Creating Layer relu1
2016-07-20 16:29:36.101 STDERR [INFO] I0720 16:29:36.100550 30112 net.cpp:425] relu1 <- conv1
2016-07-20 16:29:36.101 STDERR [INFO] I0720 16:29:36.100560 30112 net.cpp:386] relu1 -> conv1 (in-place)
2016-07-20 16:29:36.101 STDERR [INFO] I0720 16:29:36.101667 30112 net.cpp:141] Setting up relu1
2016-07-20 16:29:36.101 STDERR [INFO] I0720 16:29:36.101687 30112 net.cpp:148] Top shape: 10 96 55 55 (2904000)
2016-07-20 16:29:36.101 STDERR [INFO] I0720 16:29:36.101692 30112 net.cpp:156] Memory required for data: 29415480
2016-07-20 16:29:36.101 STDERR [INFO] I0720 16:29:36.101698 30112 layer_factory.hpp:77] Creating layer pool1
2016-07-20 16:29:36.102 STDERR [INFO] I0720 16:29:36.101713 30112 net.cpp:91] Creating Layer pool1
2016-07-20 16:29:36.102 STDERR [INFO] I0720 16:29:36.101719 30112 net.cpp:425] pool1 <- conv1
2016-07-20 16:29:36.102 STDERR [INFO] I0720 16:29:36.101728 30112 net.cpp:399] pool1 -> pool1
2016-07-20 16:29:36.107 STDERR [INFO] I0720 16:29:36.107625 30112 net.cpp:141] Setting up pool1
2016-07-20 16:29:36.107 STDERR [INFO] I0720 16:29:36.107655 30112 net.cpp:148] Top shape: 10 96 27 27 (699840)
2016-07-20 16:29:36.107 STDERR [INFO] I0720 16:29:36.107661 30112 net.cpp:156] Memory required for data: 32214840
2016-07-20 16:29:36.108 STDERR [INFO] I0720 16:29:36.107666 30112 layer_factory.hpp:77] Creating layer norm1
2016-07-20 16:29:36.108 STDERR [INFO] I0720 16:29:36.107691 30112 net.cpp:91] Creating Layer norm1
2016-07-20 16:29:36.108 STDERR [INFO] I0720 16:29:36.107697 30112 net.cpp:425] norm1 <- pool1
2016-07-20 16:29:36.108 STDERR [INFO] I0720 16:29:36.107707 30112 net.cpp:399] norm1 -> norm1
2016-07-20 16:29:36.114 STDERR [INFO] I0720 16:29:36.114068 30098 net.cpp:141] Setting up lstm1_x_transform
2016-07-20 16:29:36.114 STDERR [INFO] I0720 16:29:36.114099 30098 net.cpp:148] Top shape: 1 1 4000 (4000)
2016-07-20 16:29:36.114 STDERR [INFO] I0720 16:29:36.114095 30112 net.cpp:141] Setting up norm1
2016-07-20 16:29:36.114 STDERR [INFO] I0720 16:29:36.114105 30098 net.cpp:156] Memory required for data: 26016
2016-07-20 16:29:36.114 STDERR [INFO] I0720 16:29:36.114120 30112 net.cpp:148] Top shape: 10 96 27 27 (699840)
2016-07-20 16:29:36.114 STDERR [INFO] I0720 16:29:36.114126 30112 net.cpp:156] Memory required for data: 35014200
2016-07-20 16:29:36.114 STDERR [INFO] I0720 16:29:36.114132 30112 layer_factory.hpp:77] Creating layer conv2
2016-07-20 16:29:36.114 STDERR [INFO] I0720 16:29:36.114131 30098 layer_factory.hpp:77] Creating layer lstm1_W_xc_x_slice
2016-07-20 16:29:36.114 STDERR [INFO] I0720 16:29:36.114154 30112 net.cpp:91] Creating Layer conv2
2016-07-20 16:29:36.114 STDERR [INFO] I0720 16:29:36.114156 30098 net.cpp:91] Creating Layer lstm1_W_xc_x_slice
2016-07-20 16:29:36.115 STDERR [INFO] I0720 16:29:36.114161 30112 net.cpp:425] conv2 <- norm1
2016-07-20 16:29:36.115 STDERR [INFO] I0720 16:29:36.114163 30098 net.cpp:425] lstm1_W_xc_x_slice <- W_xc_x
2016-07-20 16:29:36.115 STDERR [INFO] I0720 16:29:36.114171 30112 net.cpp:399] conv2 -> conv2
2016-07-20 16:29:36.115 STDERR [INFO] I0720 16:29:36.114173 30098 net.cpp:399] lstm1_W_xc_x_slice -> W_xc_x_1
2016-07-20 16:29:36.115 STDERR [INFO] I0720 16:29:36.114352 30098 net.cpp:141] Setting up lstm1_W_xc_x_slice
2016-07-20 16:29:36.115 STDERR [INFO] I0720 16:29:36.114365 30098 net.cpp:148] Top shape: 1 1 4000 (4000)
2016-07-20 16:29:36.115 STDERR [INFO] I0720 16:29:36.114370 30098 net.cpp:156] Memory required for data: 42016
2016-07-20 16:29:36.115 STDERR [INFO] I0720 16:29:36.114375 30098 layer_factory.hpp:77] Creating layer lstm1_h_conted_0
2016-07-20 16:29:36.115 STDERR [INFO] I0720 16:29:36.114387 30098 net.cpp:91] Creating Layer lstm1_h_conted_0
2016-07-20 16:29:36.115 STDERR [INFO] I0720 16:29:36.114392 30098 net.cpp:425] lstm1_h_conted_0 <- h_0
2016-07-20 16:29:36.115 STDERR [INFO] I0720 16:29:36.114398 30098 net.cpp:425] lstm1_h_conted_0 <- cont_1_lstm1_cont_slice_0_split_0
2016-07-20 16:29:36.115 STDERR [INFO] I0720 16:29:36.114408 30098 net.cpp:399] lstm1_h_conted_0 -> h_conted_0
2016-07-20 16:29:36.121 STDERR [INFO] I0720 16:29:36.121728 30094 net.cpp:141] Setting up lstm1_transform_1
2016-07-20 16:29:36.122 STDERR [INFO] I0720 16:29:36.121752 30098 net.cpp:141] Setting up lstm1_h_conted_0
2016-07-20 16:29:36.122 STDERR [INFO] I0720 16:29:36.121779 30094 net.cpp:148] Top shape: 1 1 4000 (4000)
2016-07-20 16:29:36.122 STDERR [INFO] I0720 16:29:36.121786 30098 net.cpp:148] Top shape: 1 1 1000 (1000)
2016-07-20 16:29:36.122 STDERR [INFO] I0720 16:29:36.121795 30098 net.cpp:156] Memory required for data: 46016
2016-07-20 16:29:36.122 STDERR [INFO] I0720 16:29:36.121788 30094 net.cpp:156] Memory required for data: 62016
2016-07-20 16:29:36.122 STDERR [INFO] I0720 16:29:36.121803 30098 layer_factory.hpp:77] Creating layer lstm1_transform_1
2016-07-20 16:29:36.122 STDERR [INFO] I0720 16:29:36.121819 30098 net.cpp:91] Creating Layer lstm1_transform_1
2016-07-20 16:29:36.122 STDERR [INFO] I0720 16:29:36.121820 30094 layer_factory.hpp:77] Creating layer lstm1_gate_input_1
2016-07-20 16:29:36.123 STDERR [INFO] I0720 16:29:36.121825 30098 net.cpp:425] lstm1_transform_1 <- h_conted_0
2016-07-20 16:29:36.123 STDERR [INFO] I0720 16:29:36.121839 30098 net.cpp:399] lstm1_transform_1 -> W_hc_h_0
2016-07-20 16:29:36.123 STDERR [INFO] I0720 16:29:36.121842 30094 net.cpp:91] Creating Layer lstm1_gate_input_1
2016-07-20 16:29:36.123 STDERR [INFO] I0720 16:29:36.121851 30094 net.cpp:425] lstm1_gate_input_1 <- W_hc_h_0
2016-07-20 16:29:36.123 STDERR [INFO] I0720 16:29:36.121860 30094 net.cpp:425] lstm1_gate_input_1 <- W_xc_x_1
2016-07-20 16:29:36.123 STDERR [INFO] I0720 16:29:36.121868 30094 net.cpp:399] lstm1_gate_input_1 -> gate_input_1
2016-07-20 16:29:36.132 STDERR [INFO] I0720 16:29:36.131911 30094 net.cpp:141] Setting up lstm1_gate_input_1
2016-07-20 16:29:36.132 STDERR [INFO] I0720 16:29:36.131937 30094 net.cpp:148] Top shape: 1 1 4000 (4000)
2016-07-20 16:29:36.132 STDERR [INFO] I0720 16:29:36.131942 30094 net.cpp:156] Memory required for data: 78016
2016-07-20 16:29:36.132 STDERR [INFO] I0720 16:29:36.131948 30094 layer_factory.hpp:77] Creating layer lstm1_unit_1
2016-07-20 16:29:36.132 STDERR [INFO] I0720 16:29:36.131959 30094 net.cpp:91] Creating Layer lstm1_unit_1
2016-07-20 16:29:36.132 STDERR [INFO] I0720 16:29:36.131965 30094 net.cpp:425] lstm1_unit_1 <- c_0
2016-07-20 16:29:36.132 STDERR [INFO] I0720 16:29:36.131973 30094 net.cpp:425] lstm1_unit_1 <- gate_input_1
2016-07-20 16:29:36.132 STDERR [INFO] I0720 16:29:36.131978 30094 net.cpp:425] lstm1_unit_1 <- cont_1_lstm1_cont_slice_0_split_1
2016-07-20 16:29:36.132 STDERR [INFO] I0720 16:29:36.131985 30094 net.cpp:399] lstm1_unit_1 -> c_1
2016-07-20 16:29:36.133 STDERR [INFO] I0720 16:29:36.131997 30094 net.cpp:399] lstm1_unit_1 -> h_1
2016-07-20 16:29:36.140 STDERR [INFO] I0720 16:29:36.140386 30094 net.cpp:141] Setting up lstm1_unit_1
2016-07-20 16:29:36.140 STDERR [INFO] I0720 16:29:36.140414 30094 net.cpp:148] Top shape: 1 1 1000 (1000)
2016-07-20 16:29:36.140 STDERR [INFO] I0720 16:29:36.140424 30094 net.cpp:148] Top shape: 1 1 1000 (1000)
2016-07-20 16:29:36.140 STDERR [INFO] I0720 16:29:36.140427 30094 net.cpp:156] Memory required for data: 86016
2016-07-20 16:29:36.140 STDERR [INFO] I0720 16:29:36.140434 30094 layer_factory.hpp:77] Creating layer lstm1_
2016-07-20 16:29:36.141 STDERR [INFO] I0720 16:29:36.140450 30094 net.cpp:91] Creating Layer lstm1_
2016-07-20 16:29:36.141 STDERR [INFO] I0720 16:29:36.140455 30094 net.cpp:425] lstm1_ <- c_1
2016-07-20 16:29:36.141 STDERR [INFO] I0720 16:29:36.140465 30094 net.cpp:399] lstm1_ -> c_T
2016-07-20 16:29:36.142 STDERR [INFO] I0720 16:29:36.141965 30094 net.cpp:141] Setting up lstm1_
2016-07-20 16:29:36.142 STDERR [INFO] I0720 16:29:36.141979 30094 net.cpp:148] Top shape: 1 1 1000 (1000)
2016-07-20 16:29:36.142 STDERR [INFO] I0720 16:29:36.141984 30094 net.cpp:156] Memory required for data: 90016
2016-07-20 16:29:36.142 STDERR [INFO] I0720 16:29:36.141989 30094 layer_factory.hpp:77] Creating layer lstm1_h_concat
2016-07-20 16:29:36.142 STDERR [INFO] I0720 16:29:36.142004 30094 net.cpp:91] Creating Layer lstm1_h_concat
2016-07-20 16:29:36.142 STDERR [INFO] I0720 16:29:36.142010 30094 net.cpp:425] lstm1_h_concat <- h_1
2016-07-20 16:29:36.142 STDERR [INFO] I0720 16:29:36.142020 30094 net.cpp:399] lstm1_h_concat -> h
2016-07-20 16:29:36.142 STDERR [INFO] I0720 16:29:36.142452 30094 net.cpp:141] Setting up lstm1_h_concat
2016-07-20 16:29:36.142 STDERR [INFO] I0720 16:29:36.142464 30094 net.cpp:148] Top shape: 1 1 1000 (1000)
2016-07-20 16:29:36.142 STDERR [INFO] I0720 16:29:36.142468 30094 net.cpp:156] Memory required for data: 94016
2016-07-20 16:29:36.142 STDERR [INFO] I0720 16:29:36.142474 30094 layer_factory.hpp:77] Creating layer h_pseudoloss
2016-07-20 16:29:36.142 STDERR [INFO] I0720 16:29:36.142496 30094 net.cpp:91] Creating Layer h_pseudoloss
2016-07-20 16:29:36.143 STDERR [INFO] I0720 16:29:36.142503 30094 net.cpp:425] h_pseudoloss <- h
…
2016-07-20 16:29:36.159 STDERR [INFO] }
2016-07-20 16:29:36.159 STDERR [INFO] I0720 16:29:36.146466 30094 layer_factory.hpp:77] Creating layer lstm2_
2016-07-20 16:29:36.159 STDERR [INFO] I0720 16:29:36.146481 30094 net.cpp:91] Creating Layer lstm2_
2016-07-20 16:29:36.159 STDERR [INFO] I0720 16:29:36.146487 30094 net.cpp:399] lstm2_ -> x
2016-07-20 16:29:36.159 STDERR [INFO] I0720 16:29:36.146498 30094 net.cpp:399] lstm2_ -> cont
2016-07-20 16:29:36.159 STDERR [INFO] I0720 16:29:36.146865 30106 net.cpp:141] Setting up pool1
2016-07-20 16:29:36.159 STDERR [INFO] I0720 16:29:36.146880 30106 net.cpp:148] Top shape: 10 96 27 27 (699840)
2016-07-20 16:29:36.159 STDERR [INFO] I0720 16:29:36.146886 30106 net.cpp:156] Memory required for data: 32214840
2016-07-20 16:29:36.159 STDERR [INFO] I0720 16:29:36.146891 30106 layer_factory.hpp:77] Creating layer norm1
2016-07-20 16:29:36.159 STDERR [INFO] I0720 16:29:36.146906 30106 net.cpp:91] Creating Layer norm1
2016-07-20 16:29:36.159 STDERR [INFO] I0720 16:29:36.146911 30106 net.cpp:425] norm1 <- pool1
2016-07-20 16:29:36.160 STDERR [INFO] I0720 16:29:36.146919 30106 net.cpp:399] norm1 -> norm1
2016-07-20 16:29:36.160 STDERR [INFO] I0720 16:29:36.146941 30094 net.cpp:141] Setting up lstm2_
2016-07-20 16:29:36.160 STDERR [INFO] I0720 16:29:36.146955 30094 net.cpp:148] Top shape: 1 1 1501 (1501)
2016-07-20 16:29:36.160 STDERR [INFO] I0720 16:29:36.146961 30094 net.cpp:148] Top shape: 1 1 (1)
2016-07-20 16:29:36.160 STDERR [INFO] I0720 16:29:36.146965 30094 net.cpp:156] Memory required for data: 6008
2016-07-20 16:29:36.160 STDERR [INFO] I0720 16:29:36.146971 30094 layer_factory.hpp:77] Creating layer lstm2_
2016-07-20 16:29:36.160 STDERR [INFO] I0720 16:29:36.146981 30094 net.cpp:91] Creating Layer lstm2_
2016-07-20 16:29:36.160 STDERR [INFO] I0720 16:29:36.146991 30094 net.cpp:399] lstm2_ -> c_0
2016-07-20 16:29:36.160 STDERR [INFO] I0720 16:29:36.147002 30094 net.cpp:399] lstm2_ -> h_0
2016-07-20 16:29:36.161 STDERR [INFO] I0720 16:29:36.147892 30094 net.cpp:141] Setting up lstm2_
2016-07-20 16:29:36.161 STDERR [INFO] I0720 16:29:36.147904 30094 net.cpp:148] Top shape: 1 1 1000 (1000)
2016-07-20 16:29:36.161 STDERR [INFO] I0720 16:29:36.147912 30094 net.cpp:148] Top shape: 1 1 1000 (1000)
2016-07-20 16:29:36.161 STDERR [INFO] I0720 16:29:36.147915 30094 net.cpp:156] Memory required for data: 14008
2016-07-20 16:29:36.161 STDERR [INFO] I0720 16:29:36.147920 30094 layer_factory.hpp:77] Creating layer lstm2_cont_slice
2016-07-20 16:29:36.161 STDERR [INFO] I0720 16:29:36.147930 30094 net.cpp:91] Creating Layer lstm2_cont_slice
2016-07-20 16:29:36.161 STDERR [INFO] I0720 16:29:36.147936 30094 net.cpp:425] lstm2_cont_slice <- cont
2016-07-20 16:29:36.161 STDERR [INFO] I0720 16:29:36.147946 30094 net.cpp:399] lstm2_cont_slice -> cont_1
2016-07-20 16:29:36.161 STDERR [INFO] I0720 16:29:36.148180 30094 net.cpp:141] Setting up lstm2_cont_slice
2016-07-20 16:29:36.161 STDERR [INFO] I0720 16:29:36.148192 30094 net.cpp:148] Top shape: 1 1 (1)
2016-07-20 16:29:36.162 STDERR [INFO] I0720 16:29:36.148197 30094 net.cpp:156] Memory required for data: 14012
2016-07-20 16:29:36.162 STDERR [INFO] I0720 16:29:36.148202 30094 layer_factory.hpp:77] Creating layer cont_1_lstm2_cont_slice_0_split
2016-07-20 16:29:36.162 STDERR [INFO] I0720 16:29:36.148210 30094 net.cpp:91] Creating Layer cont_1_lstm2_cont_slice_0_split
2016-07-20 16:29:36.162 STDERR [INFO] I0720 16:29:36.148214 30094 net.cpp:425] cont_1_lstm2_cont_slice_0_split <- cont_1
2016-07-20 16:29:36.162 STDERR [INFO] I0720 16:29:36.148224 30094 net.cpp:399] cont_1_lstm2_cont_slice_0_split -> cont_1_lstm2_cont_slice_0_split_0
2016-07-20 16:29:36.162 STDERR [INFO] I0720 16:29:36.148233 30094 net.cpp:399] cont_1_lstm2_cont_slice_0_split -> cont_1_lstm2_cont_slice_0_split_1
2016-07-20 16:29:36.162 STDERR [INFO] I0720 16:29:36.148269 30106 net.cpp:141] Setting up norm1
2016-07-20 16:29:36.162 STDERR [INFO] I0720 16:29:36.148286 30106 net.cpp:148] Top shape: 10 96 27 27 (699840)
2016-07-20 16:29:36.162 STDERR [INFO] I0720 16:29:36.148291 30106 net.cpp:156] Memory required for data: 35014200
2016-07-20 16:29:36.162 STDERR [INFO] I0720 16:29:36.148298 30106 layer_factory.hpp:77] Creating layer conv2
2016-07-20 16:29:36.162 STDERR [INFO] I0720 16:29:36.148315 30106 net.cpp:91] Creating Layer conv2
2016-07-20 16:29:36.162 STDERR [INFO] I0720 16:29:36.148321 30106 net.cpp:425] conv2 <- norm1
2016-07-20 16:29:36.162 STDERR [INFO] I0720 16:29:36.148330 30106 net.cpp:399] conv2 -> conv2
2016-07-20 16:29:36.162 STDERR [INFO] I0720 16:29:36.148421 30094 net.cpp:141] Setting up cont_1_lstm2_cont_slice_0_split
2016-07-20 16:29:36.163 STDERR [INFO] I0720 16:29:36.148432 30094 net.cpp:148] Top shape: 1 1 (1)
2016-07-20 16:29:36.163 STDERR [INFO] I0720 16:29:36.148438 30094 net.cpp:148] Top shape: 1 1 (1)
2016-07-20 16:29:36.163 STDERR [INFO] I0720 16:29:36.148443 30094 net.cpp:156] Memory required for data: 14020
2016-07-20 16:29:36.163 STDERR [INFO] I0720 16:29:36.148447 30094 layer_factory.hpp:77] Creating layer lstm2_x_transform
2016-07-20 16:29:36.163 STDERR [INFO] I0720 16:29:36.148461 30094 net.cpp:91] Creating Layer lstm2_x_transform
2016-07-20 16:29:36.163 STDERR [INFO] I0720 16:29:36.148468 30094 net.cpp:425] lstm2_x_transform <- x
2016-07-20 16:29:36.163 STDERR [INFO] I0720 16:29:36.148475 30094 net.cpp:399] lstm2_x_transform -> W_xc_x
2016-07-20 16:29:36.163 STDERR [INFO] I0720 16:29:36.162225 30112 net.cpp:141] Setting up conv2
2016-07-20 16:29:36.163 STDERR [INFO] I0720 16:29:36.162271 30112 net.cpp:148] Top shape: 10 256 27 27 (1866240)
2016-07-20 16:29:36.163 STDERR [INFO] I0720 16:29:36.162277 30112 net.cpp:156] Memory required for data: 42479160
2016-07-20 16:29:36.163 STDERR [INFO] I0720 16:29:36.162302 30112 layer_factory.hpp:77] Creating layer relu2
2016-07-20 16:29:36.163 STDERR [INFO] I0720 16:29:36.162322 30112 net.cpp:91] Creating Layer relu2
2016-07-20 16:29:36.163 STDERR [INFO] I0720 16:29:36.162330 30112 net.cpp:425] relu2 <- conv2
2016-07-20 16:29:36.164 STDERR [INFO] I0720 16:29:36.162339 30112 net.cpp:386] relu2 -> conv2 (in-place)
2016-07-20 16:29:36.164 STDERR [INFO] I0720 16:29:36.163825 30112 net.cpp:141] Setting up relu2
2016-07-20 16:29:36.164 STDERR [INFO] I0720 16:29:36.163858 30112 net.cpp:148] Top shape: 10 256 27 27 (1866240)
2016-07-20 16:29:36.164 STDERR [INFO] I0720 16:29:36.163864 30112 net.cpp:156] Memory required for data: 49944120
2016-07-20 16:29:36.164 STDERR [INFO] I0720 16:29:36.163873 30112 layer_factory.hpp:77] Creating layer pool2
2016-07-20 16:29:36.164 STDERR [INFO] I0720 16:29:36.163888 30112 net.cpp:91] Creating Layer pool2
2016-07-20 16:29:36.164 STDERR [INFO] I0720 16:29:36.163895 30112 net.cpp:425] pool2 <- conv2
2016-07-20 16:29:36.164 STDERR [INFO] I0720 16:29:36.163905 30112 net.cpp:399] pool2 -> pool2
2016-07-20 16:29:36.165 STDERR [INFO] I0720 16:29:36.165366 30112 net.cpp:141] Setting up pool2
2016-07-20 16:29:36.165 STDERR [INFO] I0720 16:29:36.165401 30112 net.cpp:148] Top shape: 10 256 13 13 (432640)
2016-07-20 16:29:36.165 STDERR [INFO] I0720 16:29:36.165407 30112 net.cpp:156] Memory required for data: 51674680
2016-07-20 16:29:36.165 STDERR [INFO] I0720 16:29:36.165416 30112 layer_factory.hpp:77] Creating layer norm2
2016-07-20 16:29:36.165 STDERR [INFO] I0720 16:29:36.165433 30112 net.cpp:91] Creating Layer norm2
2016-07-20 16:29:36.165 STDERR [INFO] I0720 16:29:36.165441 30112 net.cpp:425] norm2 <- pool2
2016-07-20 16:29:36.166 STDERR [INFO] I0720 16:29:36.165455 30112 net.cpp:399] norm2 -> norm2
2016-07-20 16:29:36.166 STDERR [INFO] I0720 16:29:36.166144 30112 net.cpp:141] Setting up norm2
2016-07-20 16:29:36.166 STDERR [INFO] I0720 16:29:36.166158 30112 net.cpp:148] Top shape: 10 256 13 13 (432640)
2016-07-20 16:29:36.166 STDERR [INFO] I0720 16:29:36.166163 30112 net.cpp:156] Memory required for data: 53405240
2016-07-20 16:29:36.166 STDERR [INFO] I0720 16:29:36.166169 30112 layer_factory.hpp:77] Creating layer conv3
2016-07-20 16:29:36.166 STDERR [INFO] I0720 16:29:36.166190 30112 net.cpp:91] Creating Layer conv3
2016-07-20 16:29:36.166 STDERR [INFO] I0720 16:29:36.166196 30112 net.cpp:425] conv3 <- norm2
2016-07-20 16:29:36.166 STDERR [INFO] I0720 16:29:36.166205 30112 net.cpp:399] conv3 -> conv3
2016-07-20 16:29:36.171 STDERR [INFO] I0720 16:29:36.171346 30098 net.cpp:141] Setting up lstm1_transform_1
2016-07-20 16:29:36.171 STDERR [INFO] I0720 16:29:36.171386 30098 net.cpp:148] Top shape: 1 1 4000 (4000)
2016-07-20 16:29:36.172 STDERR [INFO] I0720 16:29:36.171391 30098 net.cpp:156] Memory required for data: 62016
2016-07-20 16:29:36.172 STDERR [INFO] I0720 16:29:36.171408 30098 layer_factory.hpp:77] Creating layer lstm1_gate_input_1
2016-07-20 16:29:36.172 STDERR [INFO] I0720 16:29:36.171427 30098 net.cpp:91] Creating Layer lstm1_gate_input_1
2016-07-20 16:29:36.172 STDERR [INFO] I0720 16:29:36.171433 30098 net.cpp:425] lstm1_gate_input_1 <- W_hc_h_0
2016-07-20 16:29:36.172 STDERR [INFO] I0720 16:29:36.171444 30098 net.cpp:425] lstm1_gate_input_1 <- W_xc_x_1
2016-07-20 16:29:36.172 STDERR [INFO] I0720 16:29:36.171453 30098 net.cpp:399] lstm1_gate_input_1 -> gate_input_1
2016-07-20 16:29:36.172 STDERR [INFO] I0720 16:29:36.172562 30098 net.cpp:141] Setting up lstm1_gate_input_1
2016-07-20 16:29:36.172 STDERR [INFO] I0720 16:29:36.172585 30098 net.cpp:148] Top shape: 1 1 4000 (4000)
2016-07-20 16:29:36.172 STDERR [INFO] I0720 16:29:36.172590 30098 net.cpp:156] Memory required for data: 78016
2016-07-20 16:29:36.172 STDERR [INFO] I0720 16:29:36.172597 30098 layer_factory.hpp:77] Creating layer lstm1_unit_1
2016-07-20 16:29:36.172 STDERR [INFO] I0720 16:29:36.172613 30098 net.cpp:91] Creating Layer lstm1_unit_1
2016-07-20 16:29:36.172 STDERR [INFO] I0720 16:29:36.172619 30098 net.cpp:425] lstm1_unit_1 <- c_0
2016-07-20 16:29:36.173 STDERR [INFO] I0720 16:29:36.172627 30098 net.cpp:425] lstm1_unit_1 <- gate_input_1
2016-07-20 16:29:36.173 STDERR [INFO] I0720 16:29:36.172633 30098 net.cpp:425] lstm1_unit_1 <- cont_1_lstm1_cont_slice_0_split_1
2016-07-20 16:29:36.173 STDERR [INFO] I0720 16:29:36.172641 30098 net.cpp:399] lstm1_unit_1 -> c_1
2016-07-20 16:29:36.173 STDERR [INFO] I0720 16:29:36.172654 30098 net.cpp:399] lstm1_unit_1 -> h_1
2016-07-20 16:29:36.173 STDERR [INFO] I0720 16:29:36.173012 30098 net.cpp:141] Setting up lstm1_unit_1
2016-07-20 16:29:36.173 STDERR [INFO] I0720 16:29:36.173024 30098 net.cpp:148] Top shape: 1 1 1000 (1000)
2016-07-20 16:29:36.173 STDERR [INFO] I0720 16:29:36.173032 30098 net.cpp:148] Top shape: 1 1 1000 (1000)
2016-07-20 16:29:36.173 STDERR [INFO] I0720 16:29:36.173035 30098 net.cpp:156] Memory required for data: 86016
2016-07-20 16:29:36.173 STDERR [INFO] I0720 16:29:36.173041 30098 layer_factory.hpp:77] Creating layer lstm1_
2016-07-20 16:29:36.173 STDERR [INFO] I0720 16:29:36.173050 30098 net.cpp:91] Creating Layer lstm1_
2016-07-20 16:29:36.173 STDERR [INFO] I0720 16:29:36.173055 30098 net.cpp:425] lstm1_ <- c_1
2016-07-20 16:29:36.173 STDERR [INFO] I0720 16:29:36.173065 30098 net.cpp:399] lstm1_ -> c_T
2016-07-20 16:29:36.174 STDERR [INFO] I0720 16:29:36.173132 30098 net.cpp:141] Setting up lstm1_
2016-07-20 16:29:36.174 STDERR [INFO] I0720 16:29:36.173143 30098 net.cpp:148] Top shape: 1 1 1000 (1000)
2016-07-20 16:29:36.174 STDERR [INFO] I0720 16:29:36.173147 30098 net.cpp:156] Memory required for data: 90016
2016-07-20 16:29:36.174 STDERR [INFO] I0720 16:29:36.173152 30098 layer_factory.hpp:77] Creating layer lstm1_h_concat
2016-07-20 16:29:36.174 STDERR [INFO] I0720 16:29:36.173162 30098 net.cpp:91] Creating Layer lstm1_h_concat
2016-07-20 16:29:36.174 STDERR [INFO] I0720 16:29:36.173167 30098 net.cpp:425] lstm1_h_concat <- h_1
2016-07-20 16:29:36.174 STDERR [INFO] I0720 16:29:36.173178 30098 net.cpp:399] lstm1_h_concat -> h
2016-07-20 16:29:36.174 STDERR [INFO] I0720 16:29:36.173250 30098 net.cpp:141] Setting up lstm1_h_concat
2016-07-20 16:29:36.174 STDERR [INFO] I0720 16:29:36.173261 30098 net.cpp:148] Top shape: 1 1 1000 (1000)
2016-07-20 16:29:36.174 STDERR [INFO] I0720 16:29:36.173265 30098 net.cpp:156] Memory required for data: 94016
2016-07-20 16:29:36.174 STDERR [INFO] I0720 16:29:36.173270 30098 layer_factory.hpp:77] Creating layer h_pseudoloss
2016-07-20 16:29:36.174 STDERR [INFO] I0720 16:29:36.173282 30098 net.cpp:91] Creating Layer h_pseudoloss
2016-07-20 16:29:36.174 STDERR [INFO] I0720 16:29:36.173288 30098 net.cpp:425] h_pseudoloss <- h
…
2016-07-20 16:29:36.176 STDERR [INFO] I0720 16:29:36.174590 30098 net.cpp:261] This network produces output c_T
2016-07-20 16:29:36.176 STDERR [INFO] I0720 16:29:36.174595 30098 net.cpp:261] This network produces output h_pseudoloss
2016-07-20 16:29:36.176 STDERR [INFO] I0720 16:29:36.174614 30098 net.cpp:274] Network initialization done.
2016-07-20 16:29:36.176 STDERR [INFO] I0720 16:29:36.174646 30106 net.cpp:141] Setting up conv2
2016-07-20 16:29:36.176 STDERR [INFO] I0720 16:29:36.174666 30098 recurrent_layer.cpp:150] Adding parameter 0: W_xc
2016-07-20 16:29:36.176 STDERR [INFO] I0720 16:29:36.174669 30106 net.cpp:148] Top shape: 10 256 27 27 (1866240)
2016-07-20 16:29:36.176 STDERR [INFO] I0720 16:29:36.174679 30098 recurrent_layer.cpp:150] Adding parameter 1: b_c
2016-07-20 16:29:36.176 STDERR [INFO] I0720 16:29:36.174681 30106 net.cpp:156] Memory required for data: 42479160
2016-07-20 16:29:36.176 STDERR [INFO] I0720 16:29:36.174684 30098 recurrent_layer.cpp:150] Adding parameter 2: W_hc
2016-07-20 16:29:36.176 STDERR [INFO] I0720 16:29:36.174712 30106 layer_factory.hpp:77] Creating layer relu2
2016-07-20 16:29:36.176 STDERR [INFO] I0720 16:29:36.174723 30106 net.cpp:91] Creating Layer relu2
2016-07-20 16:29:36.177 STDERR [INFO] I0720 16:29:36.174729 30106 net.cpp:425] relu2 <- conv2
2016-07-20 16:29:36.177 STDERR [INFO] I0720 16:29:36.174737 30106 net.cpp:386] relu2 -> conv2 (in-place)
2016-07-20 16:29:36.177 STDERR [INFO] I0720 16:29:36.176283 30098 net.cpp:141] Setting up lstm1
2016-07-20 16:29:36.177 STDERR [INFO] I0720 16:29:36.176297 30098 net.cpp:148] Top shape: 1 1 1000 (1000)
2016-07-20 16:29:36.177 STDERR [INFO] I0720 16:29:36.176303 30098 net.cpp:156] Memory required for data: 26408
2016-07-20 16:29:36.177 STDERR [INFO] I0720 16:29:36.176306 30106 net.cpp:141] Setting up relu2
2016-07-20 16:29:36.177 STDERR [INFO] I0720 16:29:36.176318 30098 layer_factory.hpp:77] Creating layer concat
2016-07-20 16:29:36.177 STDERR [INFO] I0720 16:29:36.176321 30106 net.cpp:148] Top shape: 10 256 27 27 (1866240)
2016-07-20 16:29:36.177 STDERR [INFO] I0720 16:29:36.176326 30106 net.cpp:156] Memory required for data: 49944120
2016-07-20 16:29:36.177 STDERR [INFO] I0720 16:29:36.176328 30098 net.cpp:91] Creating Layer concat
2016-07-20 16:29:36.177 STDERR [INFO] I0720 16:29:36.176332 30106 layer_factory.hpp:77] Creating layer pool2
2016-07-20 16:29:36.177 STDERR [INFO] I0720 16:29:36.176336 30098 net.cpp:425] concat <- lstm1
2016-07-20 16:29:36.177 STDERR [INFO] I0720 16:29:36.176343 30106 net.cpp:91] Creating Layer pool2
2016-07-20 16:29:36.177 STDERR [INFO] I0720 16:29:36.176343 30098 net.cpp:425] concat <- embedded_input_sentence
2016-07-20 16:29:36.178 STDERR [INFO] I0720 16:29:36.176353 30106 net.cpp:425] pool2 <- conv2
2016-07-20 16:29:36.178 STDERR [INFO] I0720 16:29:36.176360 30098 net.cpp:425] concat <- reshaped_stage_indicator
2016-07-20 16:29:36.178 STDERR [INFO] I0720 16:29:36.176367 30106 net.cpp:399] pool2 -> pool2
2016-07-20 16:29:36.178 STDERR [INFO] I0720 16:29:36.176369 30098 net.cpp:399] concat -> lstm1_video_sequence
2016-07-20 16:29:36.178 STDERR [INFO] I0720 16:29:36.176565 30098 net.cpp:141] Setting up concat
2016-07-20 16:29:36.178 STDERR [INFO] I0720 16:29:36.176576 30098 net.cpp:148] Top shape: 1 1 1501 (1501)
2016-07-20 16:29:36.178 STDERR [INFO] I0720 16:29:36.176581 30098 net.cpp:156] Memory required for data: 32412
2016-07-20 16:29:36.178 STDERR [INFO] I0720 16:29:36.176586 30098 layer_factory.hpp:77] Creating layer lstm2
2016-07-20 16:29:36.178 STDERR [INFO] I0720 16:29:36.176599 30098 net.cpp:91] Creating Layer lstm2
2016-07-20 16:29:36.178 STDERR [INFO] I0720 16:29:36.176605 30098 net.cpp:425] lstm2 <- lstm1_video_sequence
2016-07-20 16:29:36.178 STDERR [INFO] I0720 16:29:36.176612 30098 net.cpp:425] lstm2 <- cont_sentence_input_1_split_1
2016-07-20 16:29:36.178 STDERR [INFO] I0720 16:29:36.176617 30106 net.cpp:141] Setting up pool2
2016-07-20 16:29:36.178 STDERR [INFO] I0720 16:29:36.176620 30098 net.cpp:399] lstm2 -> lstm2
2016-07-20 16:29:36.178 STDERR [INFO] I0720 16:29:36.176632 30106 net.cpp:148] Top shape: 10 256 13 13 (432640)
2016-07-20 16:29:36.178 STDERR [INFO] I0720 16:29:36.176637 30106 net.cpp:156] Memory required for data: 51674680
2016-07-20 16:29:36.179 STDERR [INFO] I0720 16:29:36.176640 30098 recurrent_layer.cpp:20] Initializing recurrent layer: assuming input batch contains 1 timesteps of 1 independent streams.
2016-07-20 16:29:36.179 STDERR [INFO] I0720 16:29:36.176643 30106 layer_factory.hpp:77] Creating layer norm2
…
2016-07-20 16:29:36.190 STDERR [INFO]   }
2016-07-20 16:29:36.191 STDERR [INFO] }
2016-07-20 16:29:36.191 STDERR [INFO] layer {
2016-07-20 16:29:36.191 STDERR [INFO]   name: "h_pseudoloss"
2016-07-20 16:29:36.191 STDERR [INFO]   type: "Reduction"
2016-07-20 16:29:36.191 STDERR [INFO]   bottom: "h"
2016-07-20 16:29:36.191 STDERR [INFO]   top: "h_pseudoloss"
2016-07-20 16:29:36.191 STDERR [INFO]   loss_weight: 1
2016-07-20 16:29:36.191 STDERR [INFO] }
2016-07-20 16:29:36.191 STDERR [INFO] I0720 16:29:36.176970 30112 net.cpp:141] Setting up conv3
2016-07-20 16:29:36.191 STDERR [INFO] I0720 16:29:36.176993 30112 net.cpp:148] Top shape: 10 384 13 13 (648960)
2016-07-20 16:29:36.192 STDERR [INFO] I0720 16:29:36.177000 30112 net.cpp:156] Memory required for data: 56001080
2016-07-20 16:29:36.192 STDERR [INFO] I0720 16:29:36.177016 30112 layer_factory.hpp:77] Creating layer relu3
2016-07-20 16:29:36.192 STDERR [INFO] I0720 16:29:36.177026 30112 net.cpp:91] Creating Layer relu3
2016-07-20 16:29:36.192 STDERR [INFO] I0720 16:29:36.177032 30112 net.cpp:425] relu3 <- conv3
2016-07-20 16:29:36.192 STDERR [INFO] I0720 16:29:36.177039 30112 net.cpp:386] relu3 -> conv3 (in-place)
2016-07-20 16:29:36.192 STDERR [INFO] I0720 16:29:36.177049 30098 layer_factory.hpp:77] Creating layer lstm2_
2016-07-20 16:29:36.192 STDERR [INFO] I0720 16:29:36.177062 30098 net.cpp:91] Creating Layer lstm2_
2016-07-20 16:29:36.192 STDERR [INFO] I0720 16:29:36.177069 30098 net.cpp:399] lstm2_ -> x
2016-07-20 16:29:36.193 STDERR [INFO] I0720 16:29:36.177081 30098 net.cpp:399] lstm2_ -> cont
2016-07-20 16:29:36.193 STDERR [INFO] I0720 16:29:36.177819 30106 net.cpp:141] Setting up norm2
2016-07-20 16:29:36.193 STDERR [INFO] I0720 16:29:36.177832 30106 net.cpp:148] Top shape: 10 256 13 13 (432640)
2016-07-20 16:29:36.193 STDERR [INFO] I0720 16:29:36.177837 30106 net.cpp:156] Memory required for data: 53405240
2016-07-20 16:29:36.193 STDERR [INFO] I0720 16:29:36.177844 30106 layer_factory.hpp:77] Creating layer conv3
2016-07-20 16:29:36.193 STDERR [INFO] I0720 16:29:36.177858 30106 net.cpp:91] Creating Layer conv3
2016-07-20 16:29:36.193 STDERR [INFO] I0720 16:29:36.177863 30106 net.cpp:425] conv3 <- norm2
2016-07-20 16:29:36.193 STDERR [INFO] I0720 16:29:36.177871 30106 net.cpp:399] conv3 -> conv3
2016-07-20 16:29:36.194 STDERR [INFO] I0720 16:29:36.177907 30098 net.cpp:141] Setting up lstm2_
2016-07-20 16:29:36.194 STDERR [INFO] I0720 16:29:36.177922 30098 net.cpp:148] Top shape: 1 1 1501 (1501)
2016-07-20 16:29:36.194 STDERR [INFO] I0720 16:29:36.177927 30098 net.cpp:148] Top shape: 1 1 (1)
2016-07-20 16:29:36.194 STDERR [INFO] I0720 16:29:36.177932 30098 net.cpp:156] Memory required for data: 6008
2016-07-20 16:29:36.194 STDERR [INFO] I0720 16:29:36.177937 30098 layer_factory.hpp:77] Creating layer lstm2_
2016-07-20 16:29:36.194 STDERR [INFO] I0720 16:29:36.177947 30098 net.cpp:91] Creating Layer lstm2_
2016-07-20 16:29:36.194 STDERR [INFO] I0720 16:29:36.177954 30098 net.cpp:399] lstm2_ -> c_0
2016-07-20 16:29:36.194 STDERR [INFO] I0720 16:29:36.177965 30098 net.cpp:399] lstm2_ -> h_0
2016-07-20 16:29:36.195 STDERR [INFO] I0720 16:29:36.178095 30098 net.cpp:141] Setting up lstm2_
2016-07-20 16:29:36.195 STDERR [INFO] I0720 16:29:36.178107 30112 net.cpp:141] Setting up relu3
2016-07-20 16:29:36.195 STDERR [INFO] I0720 16:29:36.178110 30098 net.cpp:148] Top shape: 1 1 1000 (1000)
2016-07-20 16:29:36.195 STDERR [INFO] I0720 16:29:36.178124 30112 net.cpp:148] Top shape: 10 384 13 13 (648960)
2016-07-20 16:29:36.195 STDERR [INFO] I0720 16:29:36.178125 30098 net.cpp:148] Top shape: 1 1 1000 (1000)
2016-07-20 16:29:36.195 STDERR [INFO] I0720 16:29:36.178133 30112 net.cpp:156] Memory required for data: 58596920
2016-07-20 16:29:36.195 STDERR [INFO] I0720 16:29:36.178136 30098 net.cpp:156] Memory required for data: 14008
2016-07-20 16:29:36.195 STDERR [INFO] I0720 16:29:36.178139 30112 layer_factory.hpp:77] Creating layer conv4
2016-07-20 16:29:36.195 STDERR [INFO] I0720 16:29:36.178143 30098 layer_factory.hpp:77] Creating layer lstm2_cont_slice
2016-07-20 16:29:36.195 STDERR [INFO] I0720 16:29:36.178153 30098 net.cpp:91] Creating Layer lstm2_cont_slice
2016-07-20 16:29:36.196 STDERR [INFO] I0720 16:29:36.178153 30112 net.cpp:91] Creating Layer conv4
2016-07-20 16:29:36.196 STDERR [INFO] I0720 16:29:36.178158 30098 net.cpp:425] lstm2_cont_slice <- cont
2016-07-20 16:29:36.196 STDERR [INFO] I0720 16:29:36.178160 30112 net.cpp:425] conv4 <- conv3
2016-07-20 16:29:36.196 STDERR [INFO] I0720 16:29:36.178166 30098 net.cpp:399] lstm2_cont_slice -> cont_1
2016-07-20 16:29:36.196 STDERR [INFO] I0720 16:29:36.178171 30112 net.cpp:399] conv4 -> conv4
2016-07-20 16:29:36.196 STDERR [INFO] I0720 16:29:36.178339 30098 net.cpp:141] Setting up lstm2_cont_slice
2016-07-20 16:29:36.196 STDERR [INFO] I0720 16:29:36.178351 30098 net.cpp:148] Top shape: 1 1 (1)
2016-07-20 16:29:36.196 STDERR [INFO] I0720 16:29:36.178356 30098 net.cpp:156] Memory required for data: 14012
2016-07-20 16:29:36.196 STDERR [INFO] I0720 16:29:36.178361 30098 layer_factory.hpp:77] Creating layer cont_1_lstm2_cont_slice_0_split
2016-07-20 16:29:36.196 STDERR [INFO] I0720 16:29:36.178369 30098 net.cpp:91] Creating Layer cont_1_lstm2_cont_slice_0_split
2016-07-20 16:29:36.196 STDERR [INFO] I0720 16:29:36.178374 30098 net.cpp:425] cont_1_lstm2_cont_slice_0_split <- cont_1
2016-07-20 16:29:36.196 STDERR [INFO] I0720 16:29:36.178380 30098 net.cpp:399] cont_1_lstm2_cont_slice_0_split -> cont_1_lstm2_cont_slice_0_split_0
2016-07-20 16:29:36.197 STDERR [INFO] I0720 16:29:36.178390 30098 net.cpp:399] cont_1_lstm2_cont_slice_0_split -> cont_1_lstm2_cont_slice_0_split_1
2016-07-20 16:29:36.197 STDERR [INFO] I0720 16:29:36.178596 30098 net.cpp:141] Setting up cont_1_lstm2_cont_slice_0_split
2016-07-20 16:29:36.197 STDERR [INFO] I0720 16:29:36.178609 30098 net.cpp:148] Top shape: 1 1 (1)
2016-07-20 16:29:36.197 STDERR [INFO] I0720 16:29:36.178617 30098 net.cpp:148] Top shape: 1 1 (1)
2016-07-20 16:29:36.197 STDERR [INFO] I0720 16:29:36.178620 30098 net.cpp:156] Memory required for data: 14020
2016-07-20 16:29:36.197 STDERR [INFO] I0720 16:29:36.178625 30098 layer_factory.hpp:77] Creating layer lstm2_x_transform
2016-07-20 16:29:36.197 STDERR [INFO] I0720 16:29:36.178637 30098 net.cpp:91] Creating Layer lstm2_x_transform
2016-07-20 16:29:36.197 STDERR [INFO] I0720 16:29:36.178642 30098 net.cpp:425] lstm2_x_transform <- x
2016-07-20 16:29:36.197 STDERR [INFO] I0720 16:29:36.178653 30098 net.cpp:399] lstm2_x_transform -> W_xc_x
2016-07-20 16:29:36.200 n.t.s.f.RefreshingImageFetcher$ImageReader [INFO] [Timing] RequestID: 0 StreamID: home/peifeng/work/data/frame.320x240.jpg SequenceNr: 135 Entering queue: 1469046576200
2016-07-20 16:29:36.200 n.t.s.f.RefreshingImageFetcher$ImageReader [INFO] [Timing] RequestID: 0 StreamID: home/peifeng/work/data/frame.320x240.jpg SequenceNr: 136 Entering queue: 1469046576200
2016-07-20 16:29:36.200 n.t.s.f.RefreshingImageFetcher$ImageReader [INFO] [Timing] RequestID: 0 StreamID: home/peifeng/work/data/frame.320x240.jpg SequenceNr: 137 Entering queue: 1469046576200
2016-07-20 16:29:36.203 STDERR [INFO] I0720 16:29:36.203035 30106 net.cpp:141] Setting up conv3
2016-07-20 16:29:36.203 STDERR [INFO] I0720 16:29:36.203090 30106 net.cpp:148] Top shape: 10 384 13 13 (648960)
2016-07-20 16:29:36.203 STDERR [INFO] I0720 16:29:36.203099 30106 net.cpp:156] Memory required for data: 56001080
2016-07-20 16:29:36.203 STDERR [INFO] I0720 16:29:36.203122 30106 layer_factory.hpp:77] Creating layer relu3
2016-07-20 16:29:36.203 STDERR [INFO] I0720 16:29:36.203141 30106 net.cpp:91] Creating Layer relu3
2016-07-20 16:29:36.203 STDERR [INFO] I0720 16:29:36.203150 30106 net.cpp:425] relu3 <- conv3
2016-07-20 16:29:36.203 STDERR [INFO] I0720 16:29:36.203160 30106 net.cpp:386] relu3 -> conv3 (in-place)
2016-07-20 16:29:36.204 STDERR [INFO] I0720 16:29:36.204078 30106 net.cpp:141] Setting up relu3
2016-07-20 16:29:36.204 STDERR [INFO] I0720 16:29:36.204097 30106 net.cpp:148] Top shape: 10 384 13 13 (648960)
2016-07-20 16:29:36.204 STDERR [INFO] I0720 16:29:36.204102 30106 net.cpp:156] Memory required for data: 58596920
2016-07-20 16:29:36.204 STDERR [INFO] I0720 16:29:36.204108 30106 layer_factory.hpp:77] Creating layer conv4
2016-07-20 16:29:36.204 STDERR [INFO] I0720 16:29:36.204125 30106 net.cpp:91] Creating Layer conv4
2016-07-20 16:29:36.204 STDERR [INFO] I0720 16:29:36.204131 30106 net.cpp:425] conv4 <- conv3
2016-07-20 16:29:36.204 STDERR [INFO] I0720 16:29:36.204145 30106 net.cpp:399] conv4 -> conv4
2016-07-20 16:29:36.206 n.t.s.b.CVParticleBolt [INFO] [Timing] RequestID: 0 StreamID: home/peifeng/work/data/frame.320x240.jpg SequenceNr: 135 Entering scale: 1469046576206
2016-07-20 16:29:36.206 n.t.s.s.CVParticleSpout [INFO] [Timing] RequestID: 0 StreamID: home/peifeng/work/data/frame.320x240.jpg SequenceNr: 135 Leaving fetcher: 1469046576206 Size: 8702
2016-07-20 16:29:36.208 STDERR [INFO] I0720 16:29:36.208868 30112 net.cpp:141] Setting up conv4
2016-07-20 16:29:36.209 STDERR [INFO] I0720 16:29:36.208905 30112 net.cpp:148] Top shape: 10 384 13 13 (648960)
2016-07-20 16:29:36.209 STDERR [INFO] I0720 16:29:36.208911 30112 net.cpp:156] Memory required for data: 61192760
2016-07-20 16:29:36.209 STDERR [INFO] I0720 16:29:36.208925 30112 layer_factory.hpp:77] Creating layer relu4
2016-07-20 16:29:36.209 STDERR [INFO] I0720 16:29:36.208937 30112 net.cpp:91] Creating Layer relu4
2016-07-20 16:29:36.209 STDERR [INFO] I0720 16:29:36.208943 30112 net.cpp:425] relu4 <- conv4
2016-07-20 16:29:36.209 STDERR [INFO] I0720 16:29:36.208955 30112 net.cpp:386] relu4 -> conv4 (in-place)
2016-07-20 16:29:36.210 STDERR [INFO] I0720 16:29:36.209959 30112 net.cpp:141] Setting up relu4
2016-07-20 16:29:36.210 STDERR [INFO] I0720 16:29:36.209977 30112 net.cpp:148] Top shape: 10 384 13 13 (648960)
2016-07-20 16:29:36.210 STDERR [INFO] I0720 16:29:36.209983 30112 net.cpp:156] Memory required for data: 63788600
2016-07-20 16:29:36.210 STDERR [INFO] I0720 16:29:36.209990 30112 layer_factory.hpp:77] Creating layer conv5
2016-07-20 16:29:36.210 STDERR [INFO] I0720 16:29:36.210006 30112 net.cpp:91] Creating Layer conv5
2016-07-20 16:29:36.210 STDERR [INFO] I0720 16:29:36.210012 30112 net.cpp:425] conv5 <- conv4
2016-07-20 16:29:36.210 STDERR [INFO] I0720 16:29:36.210021 30112 net.cpp:399] conv5 -> conv5
2016-07-20 16:29:36.211 n.t.s.b.CVParticleBolt [INFO] [Timing] RequestID: 0 StreamID: home/peifeng/work/data/frame.320x240.jpg SequenceNr: 136 Entering scale: 1469046576211
2016-07-20 16:29:36.211 n.t.s.b.CVParticleBolt [INFO] [Timing] RequestID: 0 StreamID: home/peifeng/work/data/frame.320x240.jpg SequenceNr: 135 Leaving scale: 1469046576211 Size: 3530
2016-07-20 16:29:36.212 n.t.s.s.CVParticleSpout [INFO] [Timing] RequestID: 0 StreamID: home/peifeng/work/data/frame.320x240.jpg SequenceNr: 136 Leaving fetcher: 1469046576212 Size: 8702
2016-07-20 16:29:36.216 STDERR [INFO] I0720 16:29:36.215915 30094 net.cpp:141] Setting up lstm2_x_transform
2016-07-20 16:29:36.216 STDERR [INFO] I0720 16:29:36.215961 30094 net.cpp:148] Top shape: 1 1 4000 (4000)
2016-07-20 16:29:36.216 STDERR [INFO] I0720 16:29:36.215968 30094 net.cpp:156] Memory required for data: 30020
2016-07-20 16:29:36.216 STDERR [INFO] I0720 16:29:36.215991 30094 layer_factory.hpp:77] Creating layer lstm2_W_xc_x_slice
2016-07-20 16:29:36.216 STDERR [INFO] I0720 16:29:36.216008 30094 net.cpp:91] Creating Layer lstm2_W_xc_x_slice
2016-07-20 16:29:36.216 STDERR [INFO] I0720 16:29:36.216017 30094 net.cpp:425] lstm2_W_xc_x_slice <- W_xc_x
2016-07-20 16:29:36.216 STDERR [INFO] I0720 16:29:36.216027 30094 net.cpp:399] lstm2_W_xc_x_slice -> W_xc_x_1
2016-07-20 16:29:36.216 n.t.s.s.CVParticleSpout [INFO] [Timing] RequestID: 0 StreamID: home/peifeng/work/data/frame.320x240.jpg SequenceNr: 137 Leaving fetcher: 1469046576216 Size: 8702
2016-07-20 16:29:36.216 n.t.s.b.CVParticleBolt [INFO] [Timing] RequestID: 0 StreamID: home/peifeng/work/data/frame.320x240.jpg SequenceNr: 137 Entering scale: 1469046576216
2016-07-20 16:29:36.216 STDERR [INFO] I0720 16:29:36.216847 30094 net.cpp:141] Setting up lstm2_W_xc_x_slice
2016-07-20 16:29:36.216 STDERR [INFO] I0720 16:29:36.216862 30094 net.cpp:148] Top shape: 1 1 4000 (4000)
2016-07-20 16:29:36.217 STDERR [INFO] I0720 16:29:36.216867 30094 net.cpp:156] Memory required for data: 46020
2016-07-20 16:29:36.217 STDERR [INFO] I0720 16:29:36.216872 30094 layer_factory.hpp:77] Creating layer lstm2_h_conted_0
2016-07-20 16:29:36.217 STDERR [INFO] I0720 16:29:36.216883 30094 net.cpp:91] Creating Layer lstm2_h_conted_0
2016-07-20 16:29:36.217 STDERR [INFO] I0720 16:29:36.216889 30094 net.cpp:425] lstm2_h_conted_0 <- h_0
2016-07-20 16:29:36.217 STDERR [INFO] I0720 16:29:36.216897 30094 net.cpp:425] lstm2_h_conted_0 <- cont_1_lstm2_cont_slice_0_split_0
2016-07-20 16:29:36.217 STDERR [INFO] I0720 16:29:36.216903 30094 net.cpp:399] lstm2_h_conted_0 -> h_conted_0
2016-07-20 16:29:36.217 STDERR [INFO] I0720 16:29:36.217635 30094 net.cpp:141] Setting up lstm2_h_conted_0
2016-07-20 16:29:36.217 STDERR [INFO] I0720 16:29:36.217653 30094 net.cpp:148] Top shape: 1 1 1000 (1000)
2016-07-20 16:29:36.217 STDERR [INFO] I0720 16:29:36.217658 30094 net.cpp:156] Memory required for data: 50020
2016-07-20 16:29:36.218 STDERR [INFO] I0720 16:29:36.217664 30094 layer_factory.hpp:77] Creating layer lstm2_transform_1
2016-07-20 16:29:36.218 STDERR [INFO] I0720 16:29:36.217676 30094 net.cpp:91] Creating Layer lstm2_transform_1
2016-07-20 16:29:36.218 STDERR [INFO] I0720 16:29:36.217682 30094 net.cpp:425] lstm2_transform_1 <- h_conted_0
2016-07-20 16:29:36.218 STDERR [INFO] I0720 16:29:36.217690 30094 net.cpp:399] lstm2_transform_1 -> W_hc_h_0
2016-07-20 16:29:36.218 STDERR [INFO] I0720 16:29:36.218538 30106 net.cpp:141] Setting up conv4
2016-07-20 16:29:36.218 STDERR [INFO] I0720 16:29:36.218582 30106 net.cpp:148] Top shape: 10 384 13 13 (648960)
2016-07-20 16:29:36.218 STDERR [INFO] I0720 16:29:36.218593 30106 net.cpp:156] Memory required for data: 61192760
2016-07-20 16:29:36.218 STDERR [INFO] I0720 16:29:36.218612 30106 layer_factory.hpp:77] Creating layer relu4
2016-07-20 16:29:36.219 STDERR [INFO] I0720 16:29:36.218631 30106 net.cpp:91] Creating Layer relu4
2016-07-20 16:29:36.219 STDERR [INFO] I0720 16:29:36.218641 30106 net.cpp:425] relu4 <- conv4
2016-07-20 16:29:36.219 STDERR [INFO] I0720 16:29:36.218659 30106 net.cpp:386] relu4 -> conv4 (in-place)
2016-07-20 16:29:36.219 n.t.s.b.CVParticleBolt [INFO] [Timing] RequestID: 0 StreamID: home/peifeng/work/data/frame.320x240.jpg SequenceNr: 136 Leaving scale: 1469046576219 Size: 3530
2016-07-20 16:29:36.225 STDERR [INFO] I0720 16:29:36.225636 30106 net.cpp:141] Setting up relu4
2016-07-20 16:29:36.225 STDERR [INFO] I0720 16:29:36.225668 30106 net.cpp:148] Top shape: 10 384 13 13 (648960)
2016-07-20 16:29:36.225 STDERR [INFO] I0720 16:29:36.225677 30106 net.cpp:156] Memory required for data: 63788600
2016-07-20 16:29:36.226 STDERR [INFO] I0720 16:29:36.225687 30106 layer_factory.hpp:77] Creating layer conv5
2016-07-20 16:29:36.226 STDERR [INFO] I0720 16:29:36.225714 30106 net.cpp:91] Creating Layer conv5
2016-07-20 16:29:36.226 STDERR [INFO] I0720 16:29:36.225724 30106 net.cpp:425] conv5 <- conv4
2016-07-20 16:29:36.226 STDERR [INFO] I0720 16:29:36.225739 30106 net.cpp:399] conv5 -> conv5
2016-07-20 16:29:36.227 n.t.s.b.CVParticleBolt [INFO] [Timing] RequestID: 0 StreamID: home/peifeng/work/data/frame.320x240.jpg SequenceNr: 137 Leaving scale: 1469046576227 Size: 3530
2016-07-20 16:29:36.233 STDERR [INFO] I0720 16:29:36.233237 30112 net.cpp:141] Setting up conv5
2016-07-20 16:29:36.233 STDERR [INFO] I0720 16:29:36.233269 30112 net.cpp:148] Top shape: 10 256 13 13 (432640)
2016-07-20 16:29:36.233 STDERR [INFO] I0720 16:29:36.233275 30112 net.cpp:156] Memory required for data: 65519160
2016-07-20 16:29:36.233 STDERR [INFO] I0720 16:29:36.233296 30112 layer_factory.hpp:77] Creating layer relu5
2016-07-20 16:29:36.233 STDERR [INFO] I0720 16:29:36.233311 30112 net.cpp:91] Creating Layer relu5
2016-07-20 16:29:36.233 STDERR [INFO] I0720 16:29:36.233319 30112 net.cpp:425] relu5 <- conv5
2016-07-20 16:29:36.233 STDERR [INFO] I0720 16:29:36.233326 30112 net.cpp:386] relu5 -> conv5 (in-place)
2016-07-20 16:29:36.234 STDERR [INFO] I0720 16:29:36.234233 30112 net.cpp:141] Setting up relu5
2016-07-20 16:29:36.234 STDERR [INFO] I0720 16:29:36.234252 30112 net.cpp:148] Top shape: 10 256 13 13 (432640)
2016-07-20 16:29:36.234 STDERR [INFO] I0720 16:29:36.234258 30112 net.cpp:156] Memory required for data: 67249720
2016-07-20 16:29:36.234 STDERR [INFO] I0720 16:29:36.234263 30112 layer_factory.hpp:77] Creating layer pool5
2016-07-20 16:29:36.234 STDERR [INFO] I0720 16:29:36.234278 30112 net.cpp:91] Creating Layer pool5
2016-07-20 16:29:36.234 STDERR [INFO] I0720 16:29:36.234283 30112 net.cpp:425] pool5 <- conv5
2016-07-20 16:29:36.234 STDERR [INFO] I0720 16:29:36.234292 30112 net.cpp:399] pool5 -> pool5
2016-07-20 16:29:36.234 STDERR [INFO] I0720 16:29:36.234791 30112 net.cpp:141] Setting up pool5
2016-07-20 16:29:36.234 STDERR [INFO] I0720 16:29:36.234804 30112 net.cpp:148] Top shape: 10 256 6 6 (92160)
2016-07-20 16:29:36.235 STDERR [INFO] I0720 16:29:36.234809 30112 net.cpp:156] Memory required for data: 67618360
2016-07-20 16:29:36.235 STDERR [INFO] I0720 16:29:36.234814 30112 layer_factory.hpp:77] Creating layer fc6
2016-07-20 16:29:36.235 STDERR [INFO] I0720 16:29:36.234833 30112 net.cpp:91] Creating Layer fc6
2016-07-20 16:29:36.235 STDERR [INFO] I0720 16:29:36.234838 30112 net.cpp:425] fc6 <- pool5
2016-07-20 16:29:36.235 STDERR [INFO] I0720 16:29:36.234845 30112 net.cpp:399] fc6 -> fc6
2016-07-20 16:29:36.309 STDERR [INFO] I0720 16:29:36.309072 30098 net.cpp:141] Setting up lstm2_x_transform
2016-07-20 16:29:36.309 STDERR [INFO] I0720 16:29:36.309134 30098 net.cpp:148] Top shape: 1 1 4000 (4000)
2016-07-20 16:29:36.309 STDERR [INFO] I0720 16:29:36.309140 30098 net.cpp:156] Memory required for data: 30020
2016-07-20 16:29:36.309 STDERR [INFO] I0720 16:29:36.309165 30098 layer_factory.hpp:77] Creating layer lstm2_W_xc_x_slice
2016-07-20 16:29:36.309 STDERR [INFO] I0720 16:29:36.309185 30098 net.cpp:91] Creating Layer lstm2_W_xc_x_slice
2016-07-20 16:29:36.309 STDERR [INFO] I0720 16:29:36.309192 30098 net.cpp:425] lstm2_W_xc_x_slice <- W_xc_x
2016-07-20 16:29:36.309 STDERR [INFO] I0720 16:29:36.309203 30098 net.cpp:399] lstm2_W_xc_x_slice -> W_xc_x_1
2016-07-20 16:29:36.310 STDERR [INFO] I0720 16:29:36.310463 30094 net.cpp:141] Setting up lstm2_transform_1
2016-07-20 16:29:36.310 STDERR [INFO] I0720 16:29:36.310497 30098 net.cpp:141] Setting up lstm2_W_xc_x_slice
2016-07-20 16:29:36.311 STDERR [INFO] I0720 16:29:36.310508 30094 net.cpp:148] Top shape: 1 1 4000 (4000)
2016-07-20 16:29:36.311 STDERR [INFO] I0720 16:29:36.310526 30094 net.cpp:156] Memory required for data: 66020
2016-07-20 16:29:36.311 STDERR [INFO] I0720 16:29:36.310529 30098 net.cpp:148] Top shape: 1 1 4000 (4000)
2016-07-20 16:29:36.311 STDERR [INFO] I0720 16:29:36.310541 30098 net.cpp:156] Memory required for data: 46020
2016-07-20 16:29:36.311 STDERR [INFO] I0720 16:29:36.310546 30094 layer_factory.hpp:77] Creating layer lstm2_gate_input_1
2016-07-20 16:29:36.311 STDERR [INFO] I0720 16:29:36.310550 30098 layer_factory.hpp:77] Creating layer lstm2_h_conted_0
2016-07-20 16:29:36.311 STDERR [INFO] I0720 16:29:36.310565 30098 net.cpp:91] Creating Layer lstm2_h_conted_0
2016-07-20 16:29:36.311 STDERR [INFO] I0720 16:29:36.310570 30094 net.cpp:91] Creating Layer lstm2_gate_input_1
2016-07-20 16:29:36.311 STDERR [INFO] I0720 16:29:36.310571 30098 net.cpp:425] lstm2_h_conted_0 <- h_0
2016-07-20 16:29:36.311 STDERR [INFO] I0720 16:29:36.310582 30094 net.cpp:425] lstm2_gate_input_1 <- W_hc_h_0
2016-07-20 16:29:36.311 STDERR [INFO] I0720 16:29:36.310595 30098 net.cpp:425] lstm2_h_conted_0 <- cont_1_lstm2_cont_slice_0_split_0
2016-07-20 16:29:36.311 STDERR [INFO] I0720 16:29:36.310602 30094 net.cpp:425] lstm2_gate_input_1 <- W_xc_x_1
2016-07-20 16:29:36.311 STDERR [INFO] I0720 16:29:36.310609 30098 net.cpp:399] lstm2_h_conted_0 -> h_conted_0
2016-07-20 16:29:36.311 STDERR [INFO] I0720 16:29:36.310611 30094 net.cpp:399] lstm2_gate_input_1 -> gate_input_1
2016-07-20 16:29:36.311 STDERR [INFO] I0720 16:29:36.311764 30094 net.cpp:141] Setting up lstm2_gate_input_1
2016-07-20 16:29:36.312 STDERR [INFO] I0720 16:29:36.311784 30094 net.cpp:148] Top shape: 1 1 4000 (4000)
2016-07-20 16:29:36.312 STDERR [INFO] I0720 16:29:36.311789 30094 net.cpp:156] Memory required for data: 82020
2016-07-20 16:29:36.312 STDERR [INFO] I0720 16:29:36.311795 30094 layer_factory.hpp:77] Creating layer lstm2_unit_1
2016-07-20 16:29:36.312 STDERR [INFO] I0720 16:29:36.311812 30094 net.cpp:91] Creating Layer lstm2_unit_1
2016-07-20 16:29:36.312 STDERR [INFO] I0720 16:29:36.311818 30094 net.cpp:425] lstm2_unit_1 <- c_0
2016-07-20 16:29:36.312 STDERR [INFO] I0720 16:29:36.311826 30094 net.cpp:425] lstm2_unit_1 <- gate_input_1
2016-07-20 16:29:36.312 STDERR [INFO] I0720 16:29:36.311832 30094 net.cpp:425] lstm2_unit_1 <- cont_1_lstm2_cont_slice_0_split_1
2016-07-20 16:29:36.312 STDERR [INFO] I0720 16:29:36.311843 30094 net.cpp:399] lstm2_unit_1 -> c_1
2016-07-20 16:29:36.312 STDERR [INFO] I0720 16:29:36.311854 30094 net.cpp:399] lstm2_unit_1 -> h_1
2016-07-20 16:29:36.312 STDERR [INFO] I0720 16:29:36.312433 30094 net.cpp:141] Setting up lstm2_unit_1
2016-07-20 16:29:36.312 STDERR [INFO] I0720 16:29:36.312445 30094 net.cpp:148] Top shape: 1 1 1000 (1000)
2016-07-20 16:29:36.312 STDERR [INFO] I0720 16:29:36.312453 30094 net.cpp:148] Top shape: 1 1 1000 (1000)
2016-07-20 16:29:36.312 STDERR [INFO] I0720 16:29:36.312456 30094 net.cpp:156] Memory required for data: 90020
2016-07-20 16:29:36.312 STDERR [INFO] I0720 16:29:36.312463 30094 layer_factory.hpp:77] Creating layer lstm2_
2016-07-20 16:29:36.312 STDERR [INFO] I0720 16:29:36.312472 30094 net.cpp:91] Creating Layer lstm2_
2016-07-20 16:29:36.312 STDERR [INFO] I0720 16:29:36.312477 30094 net.cpp:425] lstm2_ <- c_1
2016-07-20 16:29:36.313 STDERR [INFO] I0720 16:29:36.312469 30098 net.cpp:141] Setting up lstm2_h_conted_0
2016-07-20 16:29:36.313 STDERR [INFO] I0720 16:29:36.312492 30094 net.cpp:399] lstm2_ -> c_T
2016-07-20 16:29:36.313 STDERR [INFO] I0720 16:29:36.312510 30098 net.cpp:148] Top shape: 1 1 1000 (1000)
2016-07-20 16:29:36.313 STDERR [INFO] I0720 16:29:36.312516 30098 net.cpp:156] Memory required for data: 50020
2016-07-20 16:29:36.313 STDERR [INFO] I0720 16:29:36.312523 30098 layer_factory.hpp:77] Creating layer lstm2_transform_1
2016-07-20 16:29:36.313 STDERR [INFO] I0720 16:29:36.312551 30098 net.cpp:91] Creating Layer lstm2_transform_1
2016-07-20 16:29:36.313 STDERR [INFO] I0720 16:29:36.312557 30098 net.cpp:425] lstm2_transform_1 <- h_conted_0
2016-07-20 16:29:36.313 STDERR [INFO] I0720 16:29:36.312572 30098 net.cpp:399] lstm2_transform_1 -> W_hc_h_0
2016-07-20 16:29:36.313 STDERR [INFO] I0720 16:29:36.312670 30094 net.cpp:141] Setting up lstm2_
2016-07-20 16:29:36.313 STDERR [INFO] I0720 16:29:36.312682 30094 net.cpp:148] Top shape: 1 1 1000 (1000)
2016-07-20 16:29:36.313 STDERR [INFO] I0720 16:29:36.312687 30094 net.cpp:156] Memory required for data: 94020
2016-07-20 16:29:36.313 STDERR [INFO] I0720 16:29:36.312692 30094 layer_factory.hpp:77] Creating layer lstm2_h_concat
2016-07-20 16:29:36.313 STDERR [INFO] I0720 16:29:36.312708 30094 net.cpp:91] Creating Layer lstm2_h_concat
2016-07-20 16:29:36.313 STDERR [INFO] I0720 16:29:36.312713 30094 net.cpp:425] lstm2_h_concat <- h_1
2016-07-20 16:29:36.313 STDERR [INFO] I0720 16:29:36.312721 30094 net.cpp:399] lstm2_h_concat -> h
2016-07-20 16:29:36.322 STDERR [INFO] I0720 16:29:36.322300 30094 net.cpp:141] Setting up lstm2_h_concat
2016-07-20 16:29:36.322 STDERR [INFO] I0720 16:29:36.322320 30094 net.cpp:148] Top shape: 1 1 1000 (1000)
2016-07-20 16:29:36.322 STDERR [INFO] I0720 16:29:36.322325 30094 net.cpp:156] Memory required for data: 98020
2016-07-20 16:29:36.323 STDERR [INFO] I0720 16:29:36.322334 30094 layer_factory.hpp:77] Creating layer h_pseudoloss
2016-07-20 16:29:36.323 STDERR [INFO] I0720 16:29:36.322350 30094 net.cpp:91] Creating Layer h_pseudoloss
2016-07-20 16:29:36.323 STDERR [INFO] I0720 16:29:36.322357 30094 net.cpp:425] h_pseudoloss <- h
…
2016-07-20 16:29:36.418 STDERR [INFO] I0720 16:29:36.417784 30098 net.cpp:425] lstm2_unit_1 <- cont_1_lstm2_cont_slice_0_split_1
2016-07-20 16:29:36.418 STDERR [INFO] I0720 16:29:36.417793 30098 net.cpp:399] lstm2_unit_1 -> c_1
2016-07-20 16:29:36.418 STDERR [INFO] I0720 16:29:36.417804 30098 net.cpp:399] lstm2_unit_1 -> h_1
2016-07-20 16:29:36.491 STDERR [INFO] I0720 16:29:36.491132 30098 net.cpp:141] Setting up lstm2_unit_1
2016-07-20 16:29:36.491 STDERR [INFO] I0720 16:29:36.491147 30112 net.cpp:141] Setting up fc6
2016-07-20 16:29:36.491 STDERR [INFO] I0720 16:29:36.491194 30098 net.cpp:148] Top shape: 1 1 1000 (1000)
2016-07-20 16:29:36.491 STDERR [INFO] I0720 16:29:36.491199 30112 net.cpp:148] Top shape: 10 4096 (40960)
2016-07-20 16:29:36.492 STDERR [INFO] I0720 16:29:36.491204 30098 net.cpp:148] Top shape: 1 1 1000 (1000)
2016-07-20 16:29:36.492 STDERR [INFO] I0720 16:29:36.491214 30112 net.cpp:156] Memory required for data: 67782200
2016-07-20 16:29:36.492 STDERR [INFO] I0720 16:29:36.491217 30098 net.cpp:156] Memory required for data: 90020
2016-07-20 16:29:36.492 STDERR [INFO] I0720 16:29:36.491233 30098 layer_factory.hpp:77] Creating layer lstm2_
2016-07-20 16:29:36.492 STDERR [INFO] I0720 16:29:36.491245 30112 layer_factory.hpp:77] Creating layer relu6
2016-07-20 16:29:36.492 STDERR [INFO] I0720 16:29:36.491256 30098 net.cpp:91] Creating Layer lstm2_
2016-07-20 16:29:36.492 STDERR [INFO] I0720 16:29:36.491264 30098 net.cpp:425] lstm2_ <- c_1
2016-07-20 16:29:36.492 STDERR [INFO] I0720 16:29:36.491263 30112 net.cpp:91] Creating Layer relu6
2016-07-20 16:29:36.492 STDERR [INFO] I0720 16:29:36.491276 30112 net.cpp:425] relu6 <- fc6
2016-07-20 16:29:36.493 STDERR [INFO] I0720 16:29:36.491277 30098 net.cpp:399] lstm2_ -> c_T
2016-07-20 16:29:36.493 STDERR [INFO] I0720 16:29:36.491300 30112 net.cpp:386] relu6 -> fc6 (in-place)
2016-07-20 16:29:36.493 STDERR [INFO] I0720 16:29:36.491701 30098 net.cpp:141] Setting up lstm2_
2016-07-20 16:29:36.493 STDERR [INFO] I0720 16:29:36.491714 30098 net.cpp:148] Top shape: 1 1 1000 (1000)
2016-07-20 16:29:36.493 STDERR [INFO] I0720 16:29:36.491719 30098 net.cpp:156] Memory required for data: 94020
2016-07-20 16:29:36.493 STDERR [INFO] I0720 16:29:36.491724 30098 layer_factory.hpp:77] Creating layer lstm2_h_concat
2016-07-20 16:29:36.493 STDERR [INFO] I0720 16:29:36.491736 30098 net.cpp:91] Creating Layer lstm2_h_concat
2016-07-20 16:29:36.493 STDERR [INFO] I0720 16:29:36.491741 30098 net.cpp:425] lstm2_h_concat <- h_1
2016-07-20 16:29:36.493 STDERR [INFO] I0720 16:29:36.491752 30098 net.cpp:399] lstm2_h_concat -> h
2016-07-20 16:29:36.493 STDERR [INFO] I0720 16:29:36.491875 30098 net.cpp:141] Setting up lstm2_h_concat
2016-07-20 16:29:36.494 STDERR [INFO] I0720 16:29:36.491888 30098 net.cpp:148] Top shape: 1 1 1000 (1000)
2016-07-20 16:29:36.494 STDERR [INFO] I0720 16:29:36.491891 30098 net.cpp:156] Memory required for data: 98020
2016-07-20 16:29:36.494 STDERR [INFO] I0720 16:29:36.491896 30098 layer_factory.hpp:77] Creating layer h_pseudoloss
2016-07-20 16:29:36.494 STDERR [INFO] I0720 16:29:36.491907 30098 net.cpp:91] Creating Layer h_pseudoloss
2016-07-20 16:29:36.494 STDERR [INFO] I0720 16:29:36.491912 30098 net.cpp:425] h_pseudoloss <- h
2016-07-20 16:29:36.494 STDERR [INFO] I0720 16:29:36.491920 30098 net.cpp:399] h_pseudoloss -> h_pseudoloss
2016-07-20 16:29:36.494 STDERR [INFO] I0720 16:29:36.491986 30112 net.cpp:141] Setting up relu6
2016-07-20 16:29:36.494 STDERR [INFO] I0720 16:29:36.492008 30112 net.cpp:148] Top shape: 10 4096 (40960)
2016-07-20 16:29:36.494 STDERR [INFO] I0720 16:29:36.492024 30112 net.cpp:156] Memory required for data: 67946040
2016-07-20 16:29:36.495 STDERR [INFO] I0720 16:29:36.492036 30112 layer_factory.hpp:77] Creating layer drop6
2016-07-20 16:29:36.495 STDERR [INFO] I0720 16:29:36.492055 30112 net.cpp:91] Creating Layer drop6
2016-07-20 16:29:36.495 STDERR [INFO] I0720 16:29:36.492068 30112 net.cpp:425] drop6 <- fc6
…
2016-07-20 16:29:36.618 n.t.s.b.CVParticleBolt [INFO] [Timing] RequestID: 0 StreamID: home/peifeng/work/data/frame.320x240.jpg SequenceNr: 142 Leaving scale: 1469046576618 Size: 3530
2016-07-20 16:29:36.620 n.t.s.b.CVParticleBolt [INFO] [Timing] RequestID: 0 StreamID: home/peifeng/work/data/frame.320x240.jpg SequenceNr: 143 Leaving scale: 1469046576620 Size: 3530
2016-07-20 16:29:36.627 STDERR [INFO] I0720 16:29:36.626938 30112 net.cpp:141] Setting up fc7
2016-07-20 16:29:36.627 STDERR [INFO] I0720 16:29:36.626971 30106 net.cpp:141] Setting up fc6
2016-07-20 16:29:36.627 STDERR [INFO] I0720 16:29:36.626996 30106 net.cpp:148] Top shape: 10 4096 (40960)
2016-07-20 16:29:36.627 STDERR [INFO] I0720 16:29:36.626996 30112 net.cpp:148] Top shape: 10 4096 (40960)
2016-07-20 16:29:36.628 STDERR [INFO] I0720 16:29:36.627002 30106 net.cpp:156] Memory required for data: 67782200
2016-07-20 16:29:36.628 STDERR [INFO] I0720 16:29:36.627007 30112 net.cpp:156] Memory required for data: 68273720
2016-07-20 16:29:36.628 STDERR [INFO] I0720 16:29:36.627019 30106 layer_factory.hpp:77] Creating layer relu6
2016-07-20 16:29:36.628 STDERR [INFO] I0720 16:29:36.627025 30112 layer_factory.hpp:77] Creating layer relu7
2016-07-20 16:29:36.628 STDERR [INFO] I0720 16:29:36.627038 30106 net.cpp:91] Creating Layer relu6
2016-07-20 16:29:36.628 STDERR [INFO] I0720 16:29:36.627041 30112 net.cpp:91] Creating Layer relu7
2016-07-20 16:29:36.628 STDERR [INFO] I0720 16:29:36.627044 30106 net.cpp:425] relu6 <- fc6
2016-07-20 16:29:36.628 STDERR [INFO] I0720 16:29:36.627058 30112 net.cpp:425] relu7 <- fc7
2016-07-20 16:29:36.628 STDERR [INFO] I0720 16:29:36.627071 30106 net.cpp:386] relu6 -> fc6 (in-place)
2016-07-20 16:29:36.628 STDERR [INFO] I0720 16:29:36.627074 30112 net.cpp:386] relu7 -> fc7 (in-place)
2016-07-20 16:29:36.629 STDERR [INFO] I0720 16:29:36.627504 30106 net.cpp:141] Setting up relu6
2016-07-20 16:29:36.629 STDERR [INFO] I0720 16:29:36.627517 30106 net.cpp:148] Top shape: 10 4096 (40960)
2016-07-20 16:29:36.629 STDERR [INFO] I0720 16:29:36.627526 30106 net.cpp:156] Memory required for data: 67946040
2016-07-20 16:29:36.629 STDERR [INFO] I0720 16:29:36.627532 30106 layer_factory.hpp:77] Creating layer drop6
2016-07-20 16:29:36.629 STDERR [INFO] I0720 16:29:36.627544 30106 net.cpp:91] Creating Layer drop6
2016-07-20 16:29:36.629 STDERR [INFO] I0720 16:29:36.627549 30106 net.cpp:425] drop6 <- fc6
2016-07-20 16:29:36.629 STDERR [INFO] I0720 16:29:36.627557 30106 net.cpp:386] drop6 -> fc6 (in-place)
2016-07-20 16:29:36.629 STDERR [INFO] I0720 16:29:36.628516 30106 net.cpp:141] Setting up drop6
2016-07-20 16:29:36.629 STDERR [INFO] I0720 16:29:36.628531 30106 net.cpp:148] Top shape: 10 4096 (40960)
2016-07-20 16:29:36.629 STDERR [INFO] I0720 16:29:36.628536 30106 net.cpp:156] Memory required for data: 68109880
2016-07-20 16:29:36.629 STDERR [INFO] I0720 16:29:36.628541 30106 layer_factory.hpp:77] Creating layer fc7
2016-07-20 16:29:36.629 STDERR [INFO] I0720 16:29:36.628553 30106 net.cpp:91] Creating Layer fc7
2016-07-20 16:29:36.629 STDERR [INFO] I0720 16:29:36.628558 30106 net.cpp:425] fc7 <- fc6
2016-07-20 16:29:36.629 STDERR [INFO] I0720 16:29:36.628566 30106 net.cpp:399] fc7 -> fc7
2016-07-20 16:29:36.657 STDERR [INFO] I0720 16:29:36.657788 30112 net.cpp:141] Setting up relu7
2016-07-20 16:29:36.658 STDERR [INFO] I0720 16:29:36.657858 30112 net.cpp:148] Top shape: 10 4096 (40960)
2016-07-20 16:29:36.658 STDERR [INFO] I0720 16:29:36.657868 30112 net.cpp:156] Memory required for data: 68437560
2016-07-20 16:29:36.658 STDERR [INFO] I0720 16:29:36.657884 30112 layer_factory.hpp:77] Creating layer drop7
2016-07-20 16:29:36.658 STDERR [INFO] I0720 16:29:36.657917 30112 net.cpp:91] Creating Layer drop7
2016-07-20 16:29:36.658 STDERR [INFO] I0720 16:29:36.657932 30112 net.cpp:425] drop7 <- fc7
2016-07-20 16:29:36.658 STDERR [INFO] I0720 16:29:36.657953 30112 net.cpp:386] drop7 -> fc7 (in-place)
2016-07-20 16:29:36.661 STDERR [INFO] I0720 16:29:36.661389 30112 net.cpp:141] Setting up drop7
2016-07-20 16:29:36.661 STDERR [INFO] I0720 16:29:36.661417 30112 net.cpp:148] Top shape: 10 4096 (40960)
2016-07-20 16:29:36.661 STDERR [INFO] I0720 16:29:36.661428 30112 net.cpp:156] Memory required for data: 68601400
2016-07-20 16:29:36.661 STDERR [INFO] I0720 16:29:36.661439 30112 layer_factory.hpp:77] Creating layer fc8
2016-07-20 16:29:36.661 STDERR [INFO] I0720 16:29:36.661458 30112 net.cpp:91] Creating Layer fc8
2016-07-20 16:29:36.661 STDERR [INFO] I0720 16:29:36.661471 30112 net.cpp:425] fc8 <- fc7
2016-07-20 16:29:36.661 STDERR [INFO] I0720 16:29:36.661487 30112 net.cpp:399] fc8 -> fc8
2016-07-20 16:29:36.681 STDERR [INFO] I0720 16:29:36.681018 30112 net.cpp:141] Setting up fc8
2016-07-20 16:29:36.681 STDERR [INFO] I0720 16:29:36.681087 30112 net.cpp:148] Top shape: 10 1000 (10000)
2016-07-20 16:29:36.681 STDERR [INFO] I0720 16:29:36.681098 30112 net.cpp:156] Memory required for data: 68641400
2016-07-20 16:29:36.681 STDERR [INFO] I0720 16:29:36.681123 30112 layer_factory.hpp:77] Creating layer prob
2016-07-20 16:29:36.681 STDERR [INFO] I0720 16:29:36.681149 30112 net.cpp:91] Creating Layer prob
2016-07-20 16:29:36.681 STDERR [INFO] I0720 16:29:36.681161 30112 net.cpp:425] prob <- fc8
2016-07-20 16:29:36.682 STDERR [INFO] I0720 16:29:36.681181 30112 net.cpp:399] prob -> prob
2016-07-20 16:29:36.682 STDERR [INFO] I0720 16:29:36.682075 30112 net.cpp:141] Setting up prob
2016-07-20 16:29:36.682 STDERR [INFO] I0720 16:29:36.682096 30112 net.cpp:148] Top shape: 10 1000 (10000)
2016-07-20 16:29:36.682 STDERR [INFO] I0720 16:29:36.682104 30112 net.cpp:156] Memory required for data: 68681400
2016-07-20 16:29:36.682 STDERR [INFO] I0720 16:29:36.682114 30112 net.cpp:219] prob does not need backward computation.
2016-07-20 16:29:36.682 STDERR [INFO] I0720 16:29:36.682124 30112 net.cpp:219] fc8 does not need backward computation.
2016-07-20 16:29:36.682 STDERR [INFO] I0720 16:29:36.682135 30112 net.cpp:219] drop7 does not need backward computation.
…
2016-07-20 16:29:36.684 STDERR [INFO] I0720 16:29:36.682338 30112 net.cpp:219] conv1 does not need backward computation.
2016-07-20 16:29:36.684 STDERR [INFO] I0720 16:29:36.682356 30112 net.cpp:219] data does not need backward computation.
2016-07-20 16:29:36.684 STDERR [INFO] I0720 16:29:36.682366 30112 net.cpp:261] This network produces output prob
2016-07-20 16:29:36.684 STDERR [INFO] I0720 16:29:36.682404 30112 net.cpp:274] Network initialization done.
2016-07-20 16:29:36.685 STDERR [INFO] I0720 16:29:36.685264 30106 net.cpp:141] Setting up fc7
2016-07-20 16:29:36.685 STDERR [INFO] I0720 16:29:36.685322 30106 net.cpp:148] Top shape: 10 4096 (40960)
2016-07-20 16:29:36.686 STDERR [INFO] I0720 16:29:36.685334 30106 net.cpp:156] Memory required for data: 68273720
2016-07-20 16:29:36.686 STDERR [INFO] I0720 16:29:36.685361 30106 layer_factory.hpp:77] Creating layer relu7
2016-07-20 16:29:36.686 STDERR [INFO] I0720 16:29:36.685392 30106 net.cpp:91] Creating Layer relu7
2016-07-20 16:29:36.686 STDERR [INFO] I0720 16:29:36.685407 30106 net.cpp:425] relu7 <- fc7
2016-07-20 16:29:36.686 STDERR [INFO] I0720 16:29:36.685425 30106 net.cpp:386] relu7 -> fc7 (in-place)
2016-07-20 16:29:36.687 STDERR [INFO] I0720 16:29:36.687908 30106 net.cpp:141] Setting up relu7
2016-07-20 16:29:36.688 STDERR [INFO] I0720 16:29:36.687948 30106 net.cpp:148] Top shape: 10 4096 (40960)
2016-07-20 16:29:36.688 STDERR [INFO] I0720 16:29:36.687961 30106 net.cpp:156] Memory required for data: 68437560
2016-07-20 16:29:36.688 STDERR [INFO] I0720 16:29:36.687973 30106 layer_factory.hpp:77] Creating layer drop7
2016-07-20 16:29:36.688 STDERR [INFO] I0720 16:29:36.687995 30106 net.cpp:91] Creating Layer drop7
2016-07-20 16:29:36.688 STDERR [INFO] I0720 16:29:36.688007 30106 net.cpp:425] drop7 <- fc7
2016-07-20 16:29:36.688 STDERR [INFO] I0720 16:29:36.688022 30106 net.cpp:386] drop7 -> fc7 (in-place)
2016-07-20 16:29:36.688 STDERR [INFO] I0720 16:29:36.688158 30106 net.cpp:141] Setting up drop7
2016-07-20 16:29:36.688 STDERR [INFO] I0720 16:29:36.688175 30106 net.cpp:148] Top shape: 10 4096 (40960)
2016-07-20 16:29:36.688 STDERR [INFO] I0720 16:29:36.688185 30106 net.cpp:156] Memory required for data: 68601400
2016-07-20 16:29:36.688 STDERR [INFO] I0720 16:29:36.688196 30106 layer_factory.hpp:77] Creating layer fc8
2016-07-20 16:29:36.688 STDERR [INFO] I0720 16:29:36.688215 30106 net.cpp:91] Creating Layer fc8
2016-07-20 16:29:36.689 STDERR [INFO] I0720 16:29:36.688225 30106 net.cpp:425] fc8 <- fc7
2016-07-20 16:29:36.689 STDERR [INFO] I0720 16:29:36.688246 30106 net.cpp:399] fc8 -> fc8
2016-07-20 16:29:36.707 STDERR [INFO] I0720 16:29:36.707768 30106 net.cpp:141] Setting up fc8
2016-07-20 16:29:36.708 STDERR [INFO] I0720 16:29:36.707846 30106 net.cpp:148] Top shape: 10 1000 (10000)
2016-07-20 16:29:36.708 STDERR [INFO] I0720 16:29:36.707859 30106 net.cpp:156] Memory required for data: 68641400
2016-07-20 16:29:36.708 STDERR [INFO] I0720 16:29:36.707882 30106 layer_factory.hpp:77] Creating layer prob
2016-07-20 16:29:36.708 STDERR [INFO] I0720 16:29:36.707911 30106 net.cpp:91] Creating Layer prob
2016-07-20 16:29:36.708 STDERR [INFO] I0720 16:29:36.707922 30106 net.cpp:425] prob <- fc8
2016-07-20 16:29:36.709 STDERR [INFO] I0720 16:29:36.707947 30106 net.cpp:399] prob -> prob
2016-07-20 16:29:36.709 STDERR [INFO] I0720 16:29:36.709139 30106 net.cpp:141] Setting up prob
2016-07-20 16:29:36.709 STDERR [INFO] I0720 16:29:36.709163 30106 net.cpp:148] Top shape: 10 1000 (10000)
2016-07-20 16:29:36.709 STDERR [INFO] I0720 16:29:36.709172 30106 net.cpp:156] Memory required for data: 68681400
2016-07-20 16:29:36.709 STDERR [INFO] I0720 16:29:36.709182 30106 net.cpp:219] prob does not need backward computation.
2016-07-20 16:29:36.709 STDERR [INFO] I0720 16:29:36.709190 30106 net.cpp:219] fc8 does not need backward computation.
2016-07-20 16:29:36.709 STDERR [INFO] I0720 16:29:36.709198 30106 net.cpp:219] drop7 does not need backward computation.
…
