…
Java HotSpot(TM) 64-Bit Server VM warning: You have loaded library /tmp/cvld2995130021277127022/libopencv_java310.xine1.so which might have disabled stack guard. The VM will try to fix the stack guard now.
It's highly recommended that you fix the library with 'execstack -c <libfile>', or link it with '-z noexecstack'.
WARNING: Logging before InitGoogleLogging() is written to STDERR
I0727 20:20:40.780622 28370 net.cpp:49] Initializing net from parameters: 
name: "GoogleNet"
state {
  phase: TEST
}
layer {
  name: "data"
  type: "Input"
  top: "data"
  input_param {
    shape {
      dim: 10
      dim: 3
      dim: 224
      dim: 224
    }
  }
}
layer {
  name: "conv1/7x7_s2"
  type: "Convolution"
  bottom: "data"
  top: "conv1/7x7_s2"
  param {
    lr_mult: 1
    decay_mult: 1
  }
  param {
    lr_mult: 2
    decay_mult: 0
  }
  convolution_param {
    num_output: 64
    pad: 3
    kernel_size: 7
    stride: 2
    weight_filler {
      type: "xavier"
      std: 0.1
    }
    bias_filler {
      type: "constant"
      value: 0.2
    }
  }
}
layer {
  name: "conv1/relu_7x7"
  type: "ReLU"
  bottom: "conv1/7x7_s2"
  top: "conv1/7x7_s2"
}
layer {
  name: "pool1/3x3_s2"
  type: "Pooling"
  bottom: "conv1/7x7_s2"
  top: "pool1/3x3_s2"
  pooling_param {
    pool: MAX
    kernel_size: 3
    stride: 2
  }
}
layer {
  name: "pool1/norm1"
  type: "LRN"
  bottom: "pool1/3x3_s2"
  top: "pool1/norm1"
  lrn_param {
    local_size: 5
    alpha: 0.0001
    beta: 0.75
  }
}
layer {
  name: "conv2/3x3_reduce"
  type: "Convolution"
  bottom: "pool1/norm1"
  top: "conv2/3x3_reduce"
  param {
    lr_mult: 1
    decay_mult: 1
  }
  param {
    lr_mult: 2
    decay_mult: 0
  }
  convolution_param {
    num_output: 64
    kernel_size: 1
    weight_filler {
      type: "xavier"
      std: 0.1
    }
    bias_filler {
      type: "constant"
      value: 0.2
    }
  }
}
layer {
  name: "conv2/relu_3x3_reduce"
  type: "ReLU"
  bottom: "conv2/3x3_reduce"
  top: "conv2/3x3_reduce"
}
layer {
  name: "conv2/3x3"
  type: "Convolution"
  bottom: "conv2/3x3_reduce"
  top: "conv2/3x3"
  param {
    lr_mult: 1
    decay_mult: 1
  }
  param {
    lr_mult: 2
    decay_mult: 0
  }
  convolution_param {
    num_output: 192
    pad: 1
    kernel_size: 3
    weight_filler {
      type: "xavier"
      std: 0.03
    }
    bias_filler {
      type: "constant"
      value: 0.2
    }
  }
}
layer {
  name: "conv2/relu_3x3"
  type: "ReLU"
  bottom: "conv2/3x3"
  top: "conv2/3x3"
}
layer {
  name: "conv2/norm2"
  type: "LRN"
  bottom: "conv2/3x3"
  top: "conv2/norm2"
  lrn_param {
    local_size: 5
    alpha: 0.0001
    beta: 0.75
  }
}
layer {
  name: "pool2/3x3_s2"
  type: "Pooling"
  bottom: "conv2/norm2"
  top: "pool2/3x3_s2"
  pooling_param {
    pool: MAX
    kernel_size: 3
    stride: 2
  }
}
layer {
  name: "inception_3a/1x1"
  type: "Convolution"
  bottom: "pool2/3x3_s2"
  top: "inception_3a/1x1"
  param {
    lr_mult: 1
    decay_mult: 1
  }
  param {
    lr_mult: 2
    decay_mult: 0
  }
  convolution_param {
    num_output: 64
    kernel_size: 1
    weight_filler {
      type: "xavier"
      std: 0.03
    }
    bias_filler {
      type: "constant"
      value: 0.2
    }
  }
}
layer {
  name: "inception_3a/relu_1x1"
  type: "ReLU"
  bottom: "inception_3a/1x1"
  top: "inception_3a/1x1"
}
layer {
  name: "inception_3a/3x3_reduce"
  type: "Convolution"
  bottom: "pool2/3x3_s2"
  top: "inception_3a/3x3_reduce"
  param {
    lr_mult: 1
    decay_mult: 1
  }
  param {
    lr_mult: 2
    decay_mult: 0
  }
  convolution_param {
    num_output: 96
    kernel_size: 1
    weight_filler {
      type: "xavier"
      std: 0.09
    }
    bias_filler {
      type: "constant"
      value: 0.2
    }
  }
}
layer {
  name: "inception_3a/relu_3x3_reduce"
  type: "ReLU"
  bottom: "inception_3a/3x3_reduce"
  top: "inception_3a/3x3_reduce"
}
layer {
  name: "inception_3a/3x3"
  type: "Convolution"
  bottom: "inception_3a/3x3_reduce"
  top: "inception_3a/3x3"
  param {
    lr_mult: 1
    decay_mult: 1
  }
  param {
    lr_mult: 2
    decay_mult: 0
  }
  convolution_param {
    num_output: 128
    pad: 1
    kernel_size: 3
    weight_filler {
      type: "xavier"
      std: 0.03
    }
    bias_filler {
      type: "constant"
      value: 0.2
    }
  }
}
layer {
  name: "inception_3a/relu_3x3"
  type: "ReLU"
  bottom: "inception_3a/3x3"
  top: "inception_3a/3x3"
}
layer {
  name: "inception_3a/5x5_reduce"
  type: "Convolution"
  bottom: "pool2/3x3_s2"
  top: "inception_3a/5x5_reduce"
  param {
    lr_mult: 1
    decay_mult: 1
  }
  param {
    lr_mult: 2
    decay_mult: 0
  }
  convolution_param {
    num_output: 16
    kernel_size: 1
    weight_filler {
      type: "xavier"
      std: 0.2
    }
    bias_filler {
      type: "constant"
      value: 0.2
    }
  }
}
layer {
  name: "inception_3a/relu_5x5_reduce"
  type: "ReLU"
  bottom: "inception_3a/5x5_reduce"
  top: "inception_3a/5x5_reduce"
}
layer {
  name: "inception_3a/5x5"
  type: "Convolution"
  bottom: "inception_3a/5x5_reduce"
  top: "inception_3a/5x5"
  param {
    lr_mult: 1
    decay_mult: 1
  }
  param {
    lr_mult: 2
    decay_mult: 0
  }
  convolution_param {
    num_output: 32
    pad: 2
    kernel_size: 5
    weight_filler {
      type: "xavier"
      std: 0.03
    }
    bias_filler {
      type: "constant"
      value: 0.2
    }
  }
}
layer {
  name: "inception_3a/relu_5x5"
  type: "ReLU"
  bottom: "inception_3a/5x5"
  top: "inception_3a/5x5"
}
layer {
  name: "inception_3a/pool"
  type: "Pooling"
  bottom: "pool2/3x3_s2"
  top: "inception_3a/pool"
  pooling_param {
    pool: MAX
    kernel_size: 3
    stride: 1
    pad: 1
  }
}
layer {
  name: "inception_3a/pool_proj"
  type: "Convolution"
  bottom: "inception_3a/pool"
  top: "inception_3a/pool_proj"
  param {
    lr_mult: 1
    decay_mult: 1
  }
  param {
    lr_mult: 2
    decay_mult: 0
  }
  convolution_param {
    num_output: 32
    kernel_size: 1
    weight_filler {
      type: "xavier"
      std: 0.1
    }
    bias_filler {
      type: "constant"
      value: 0.2
    }
  }
}
layer {
  name: "inception_3a/relu_pool_proj"
  type: "ReLU"
  bottom: "inception_3a/pool_proj"
  top: "inception_3a/pool_proj"
}
layer {
  name: "inception_3a/output"
  type: "Concat"
  bottom: "inception_3a/1x1"
  bottom: "inception_3a/3x3"
  bottom: "inception_3a/5x5"
  bottom: "inception_3a/pool_proj"
  top: "inception_3a/output"
}
layer {
  name: "inception_3b/1x1"
  type: "Convolution"
  bottom: "inception_3a/output"
  top: "inception_3b/1x1"
  param {
    lr_mult: 1
    decay_mult: 1
  }
  param {
    lr_mult: 2
    decay_mult: 0
  }
  convolution_param {
    num_output: 128
    kernel_size: 1
    weight_filler {
      type: "xavier"
      std: 0.03
    }
    bias_filler {
      type: "constant"
      value: 0.2
    }
  }
}
layer {
  name: "inception_3b/relu_1x1"
  type: "ReLU"
  bottom: "inception_3b/1x1"
  top: "inception_3b/1x1"
}
layer {
  name: "inception_3b/3x3_reduce"
  type: "Convolution"
  bottom: "inception_3a/output"
  top: "inception_3b/3x3_reduce"
  param {
    lr_mult: 1
    decay_mult: 1
  }
  param {
    lr_mult: 2
    decay_mult: 0
  }
  convolution_param {
    num_output: 128
    kernel_size: 1
    weight_filler {
      type: "xavier"
      std: 0.09
    }
    bias_filler {
      type: "constant"
      value: 0.2
    }
  }
}
layer {
  name: "inception_3b/relu_3x3_reduce"
  type: "ReLU"
  bottom: "inception_3b/3x3_reduce"
  top: "inception_3b/3x3_reduce"
}
layer {
  name: "inception_3b/3x3"
  type: "Convolution"
  bottom: "inception_3b/3x3_reduce"
  top: "inception_3b/3x3"
  param {
    lr_mult: 1
    decay_mult: 1
  }
  param {
    lr_mult: 2
    decay_mult: 0
  }
  convolution_param {
    num_output: 192
    pad: 1
    kernel_size: 3
    weight_filler {
      type: "xavier"
      std: 0.03
    }
    bias_filler {
      type: "constant"
      value: 0.2
    }
  }
}
layer {
  name: "inception_3b/relu_3x3"
  type: "ReLU"
  bottom: "inception_3b/3x3"
  top: "inception_3b/3x3"
}
layer {
  name: "inception_3b/5x5_reduce"
  type: "Convolution"
  bottom: "inception_3a/output"
  top: "inception_3b/5x5_reduce"
  param {
    lr_mult: 1
    decay_mult: 1
  }
  param {
    lr_mult: 2
    decay_mult: 0
  }
  convolution_param {
    num_output: 32
    kernel_size: 1
    weight_filler {
      type: "xavier"
      std: 0.2
    }
    bias_filler {
      type: "constant"
      value: 0.2
    }
  }
}
layer {
  name: "inception_3b/relu_5x5_reduce"
  type: "ReLU"
  bottom: "inception_3b/5x5_reduce"
  top: "inception_3b/5x5_reduce"
}
layer {
  name: "inception_3b/5x5"
  type: "Convolution"
  bottom: "inception_3b/5x5_reduce"
  top: "inception_3b/5x5"
  param {
    lr_mult: 1
    decay_mult: 1
  }
  param {
    lr_mult: 2
    decay_mult: 0
  }
  convolution_param {
    num_output: 96
    pad: 2
    kernel_size: 5
    weight_filler {
      type: "xavier"
      std: 0.03
    }
    bias_filler {
      type: "constant"
      value: 0.2
    }
  }
}
layer {
  name: "inception_3b/relu_5x5"
  type: "ReLU"
  bottom: "inception_3b/5x5"
  top: "inception_3b/5x5"
}
layer {
  name: "inception_3b/pool"
  type: "Pooling"
  bottom: "inception_3a/output"
  top: "inception_3b/pool"
  pooling_param {
    pool: MAX
    kernel_size: 3
    stride: 1
    pad: 1
  }
}
layer {
  name: "inception_3b/pool_proj"
  type: "Convolution"
  bottom: "inception_3b/pool"
  top: "inception_3b/pool_proj"
  param {
    lr_mult: 1
    decay_mult: 1
  }
  param {
    lr_mult: 2
    decay_mult: 0
  }
  convolution_param {
    num_output: 64
    kernel_size: 1
    weight_filler {
      type: "xavier"
      std: 0.1
    }
    bias_filler {
      type: "constant"
      value: 0.2
    }
  }
}
layer {
  name: "inception_3b/relu_pool_proj"
  type: "ReLU"
  bottom: "inception_3b/pool_proj"
  top: "inception_3b/pool_proj"
}
layer {
  name: "inception_3b/output"
  type: "Concat"
  bottom: "inception_3b/1x1"
  bottom: "inception_3b/3x3"
  bottom: "inception_3b/5x5"
  bottom: "inception_3b/pool_proj"
  top: "inception_3b/output"
}
layer {
  name: "pool3/3x3_s2"
  type: "Pooling"
  bottom: "inception_3b/output"
  top: "pool3/3x3_s2"
  pooling_param {
    pool: MAX
    kernel_size: 3
    stride: 2
  }
}
layer {
  name: "inception_4a/1x1"
  type: "Convolution"
  bottom: "pool3/3x3_s2"
  top: "inception_4a/1x1"
  param {
    lr_mult: 1
    decay_mult: 1
  }
  param {
    lr_mult: 2
    decay_mult: 0
  }
  convolution_param {
    num_output: 192
    kernel_size: 1
    weight_filler {
      type: "xavier"
      std: 0.03
    }
    bias_filler {
      type: "constant"
      value: 0.2
    }
  }
}
layer {
  name: "inception_4a/relu_1x1"
  type: "ReLU"
  bottom: "inception_4a/1x1"
  top: "inception_4a/1x1"
}
layer {
  name: "inception_4a/3x3_reduce"
  type: "Convolution"
  bottom: "pool3/3x3_s2"
  top: "inception_4a/3x3_reduce"
  param {
    lr_mult: 1
    decay_mult: 1
  }
  param {
    lr_mult: 2
    decay_mult: 0
  }
  convolution_param {
    num_output: 96
    kernel_size: 1
    weight_filler {
      type: "xavier"
      std: 0.09
    }
    bias_filler {
      type: "constant"
      value: 0.2
    }
  }
}
layer {
  name: "inception_4a/relu_3x3_reduce"
  type: "ReLU"
  bottom: "inception_4a/3x3_reduce"
  top: "inception_4a/3x3_reduce"
}
layer {
  name: "inception_4a/3x3"
  type: "Convolution"
  bottom: "inception_4a/3x3_reduce"
  top: "inception_4a/3x3"
  param {
    lr_mult: 1
    decay_mult: 1
  }
  param {
    lr_mult: 2
    decay_mult: 0
  }
  convolution_param {
    num_output: 208
    pad: 1
    kernel_size: 3
    weight_filler {
      type: "xavier"
      std: 0.03
    }
    bias_filler {
      type: "constant"
      value: 0.2
    }
  }
}
layer {
  name: "inception_4a/relu_3x3"
  type: "ReLU"
  bottom: "inception_4a/3x3"
  top: "inception_4a/3x3"
}
layer {
  name: "inception_4a/5x5_reduce"
  type: "Convolution"
  bottom: "pool3/3x3_s2"
  top: "inception_4a/5x5_reduce"
  param {
    lr_mult: 1
    decay_mult: 1
  }
  param {
    lr_mult: 2
    decay_mult: 0
  }
  convolution_param {
    num_output: 16
    kernel_size: 1
    weight_filler {
      type: "xavier"
      std: 0.2
    }
    bias_filler {
      type: "constant"
      value: 0.2
    }
  }
}
layer {
  name: "inception_4a/relu_5x5_reduce"
  type: "ReLU"
  bottom: "inception_4a/5x5_reduce"
  top: "inception_4a/5x5_reduce"
}
layer {
  name: "inception_4a/5x5"
  type: "Convolution"
  bottom: "inception_4a/5x5_reduce"
  top: "inception_4a/5x5"
  param {
    lr_mult: 1
    decay_mult: 1
  }
  param {
    lr_mult: 2
    decay_mult: 0
  }
  convolution_param {
    num_output: 48
    pad: 2
    kernel_size: 5
    weight_filler {
      type: "xavier"
      std: 0.03
    }
    bias_filler {
      type: "constant"
      value: 0.2
    }
  }
}
layer {
  name: "inception_4a/relu_5x5"
  type: "ReLU"
  bottom: "inception_4a/5x5"
  top: "inception_4a/5x5"
}
layer {
  name: "inception_4a/pool"
  type: "Pooling"
  bottom: "pool3/3x3_s2"
  top: "inception_4a/pool"
  pooling_param {
    pool: MAX
    kernel_size: 3
    stride: 1
    pad: 1
  }
}
layer {
  name: "inception_4a/pool_proj"
  type: "Convolution"
  bottom: "inception_4a/pool"
  top: "inception_4a/pool_proj"
  param {
    lr_mult: 1
    decay_mult: 1
  }
  param {
    lr_mult: 2
    decay_mult: 0
  }
  convolution_param {
    num_output: 64
    kernel_size: 1
    weight_filler {
      type: "xavier"
      std: 0.1
    }
    bias_filler {
      type: "constant"
      value: 0.2
    }
  }
}
layer {
  name: "inception_4a/relu_pool_proj"
  type: "ReLU"
  bottom: "inception_4a/pool_proj"
  top: "inception_4a/pool_proj"
}
layer {
  name: "inception_4a/output"
  type: "Concat"
  bottom: "inception_4a/1x1"
  bottom: "inception_4a/3x3"
  bottom: "inception_4a/5x5"
  bottom: "inception_4a/pool_proj"
  top: "inception_4a/output"
}
layer {
  name: "inception_4b/1x1"
  type: "Convolution"
  bottom: "inception_4a/output"
  top: "inception_4b/1x1"
  param {
    lr_mult: 1
    decay_mult: 1
  }
  param {
    lr_mult: 2
    decay_mult: 0
  }
  convolution_param {
    num_output: 160
    kernel_size: 1
    weight_filler {
      type: "xavier"
      std: 0.03
    }
    bias_filler {
      type: "constant"
      value: 0.2
    }
  }
}
layer {
  name: "inception_4b/relu_1x1"
  type: "ReLU"
  bottom: "inception_4b/1x1"
  top: "inception_4b/1x1"
}
layer {
  name: "inception_4b/3x3_reduce"
  type: "Convolution"
  bottom: "inception_4a/output"
  top: "inception_4b/3x3_reduce"
  param {
    lr_mult: 1
    decay_mult: 1
  }
  param {
    lr_mult: 2
    decay_mult: 0
  }
  convolution_param {
    num_output: 112
    kernel_size: 1
    weight_filler {
      type: "xavier"
      std: 0.09
    }
    bias_filler {
      type: "constant"
      value: 0.2
    }
  }
}
layer {
  name: "inception_4b/relu_3x3_reduce"
  type: "ReLU"
  bottom: "inception_4b/3x3_reduce"
  top: "inception_4b/3x3_reduce"
}
layer {
  name: "inception_4b/3x3"
  type: "Convolution"
  bottom: "inception_4b/3x3_reduce"
  top: "inception_4b/3x3"
  param {
    lr_mult: 1
    decay_mult: 1
  }
  param {
    lr_mult: 2
    decay_mult: 0
  }
  convolution_param {
    num_output: 224
    pad: 1
    kernel_size: 3
    weight_filler {
      type: "xavier"
      std: 0.03
    }
    bias_filler {
      type: "constant"
      value: 0.2
    }
  }
}
layer {
  name: "inception_4b/relu_3x3"
  type: "ReLU"
  bottom: "inception_4b/3x3"
  top: "inception_4b/3x3"
}
layer {
  name: "inception_4b/5x5_reduce"
  type: "Convolution"
  bottom: "inception_4a/output"
  top: "inception_4b/5x5_reduce"
  param {
    lr_mult: 1
    decay_mult: 1
  }
  param {
    lr_mult: 2
    decay_mult: 0
  }
  convolution_param {
    num_output: 24
    kernel_size: 1
    weight_filler {
      type: "xavier"
      std: 0.2
    }
    bias_filler {
      type: "constant"
      value: 0.2
    }
  }
}
layer {
  name: "inception_4b/relu_5x5_reduce"
  type: "ReLU"
  bottom: "inception_4b/5x5_reduce"
  top: "inception_4b/5x5_reduce"
}
layer {
  name: "inception_4b/5x5"
  type: "Convolution"
  bottom: "inception_4b/5x5_reduce"
  top: "inception_4b/5x5"
  param {
    lr_mult: 1
    decay_mult: 1
  }
  param {
    lr_mult: 2
    decay_mult: 0
  }
  convolution_param {
    num_output: 64
    pad: 2
    kernel_size: 5
    weight_filler {
      type: "xavier"
      std: 0.03
    }
    bias_filler {
      type: "constant"
      value: 0.2
    }
  }
}
layer {
  name: "inception_4b/relu_5x5"
  type: "ReLU"
  bottom: "inception_4b/5x5"
  top: "inception_4b/5x5"
}
layer {
  name: "inception_4b/pool"
  type: "Pooling"
  bottom: "inception_4a/output"
  top: "inception_4b/pool"
  pooling_param {
    pool: MAX
    kernel_size: 3
    stride: 1
    pad: 1
  }
}
layer {
  name: "inception_4b/pool_proj"
  type: "Convolution"
  bottom: "inception_4b/pool"
  top: "inception_4b/pool_proj"
  param {
    lr_mult: 1
    decay_mult: 1
  }
  param {
    lr_mult: 2
    decay_mult: 0
  }
  convolution_param {
    num_output: 64
    kernel_size: 1
    weight_filler {
      type: "xavier"
      std: 0.1
    }
    bias_filler {
      type: "constant"
      value: 0.2
    }
  }
}
layer {
  name: "inception_4b/relu_pool_proj"
  type: "ReLU"
  bottom: "inception_4b/pool_proj"
  top: "inception_4b/pool_proj"
}
layer {
  name: "inception_4b/output"
  type: "Concat"
  bottom: "inception_4b/1x1"
  bottom: "inception_4b/3x3"
  bottom: "inception_4b/5x5"
  bottom: "inception_4b/pool_proj"
  top: "inception_4b/output"
}
layer {
  name: "inception_4c/1x1"
  type: "Convolution"
  bottom: "inception_4b/output"
  top: "inception_4c/1x1"
  param {
    lr_mult: 1
    decay_mult: 1
  }
  param {
    lr_mult: 2
    decay_mult: 0
  }
  convolution_param {
    num_output: 128
    kernel_size: 1
    weight_filler {
      type: "xavier"
      std: 0.03
    }
    bias_filler {
      type: "constant"
      value: 0.2
    }
  }
}
layer {
  name: "inception_4c/relu_1x1"
  type: "ReLU"
  bottom: "inception_4c/1x1"
  top: "inception_4c/1x1"
}
layer {
  name: "inception_4c/3x3_reduce"
  type: "Convolution"
  bottom: "inception_4b/output"
  top: "inception_4c/3x3_reduce"
  param {
    lr_mult: 1
    decay_mult: 1
  }
  param {
    lr_mult: 2
    decay_mult: 0
  }
  convolution_param {
    num_output: 128
    kernel_size: 1
    weight_filler {
      type: "xavier"
      std: 0.09
    }
    bias_filler {
      type: "constant"
      value: 0.2
    }
  }
}
layer {
  name: "inception_4c/relu_3x3_reduce"
  type: "ReLU"
  bottom: "inception_4c/3x3_reduce"
  top: "inception_4c/3x3_reduce"
}
layer {
  name: "inception_4c/3x3"
  type: "Convolution"
  bottom: "inception_4c/3x3_reduce"
  top: "inception_4c/3x3"
  param {
    lr_mult: 1
    decay_mult: 1
  }
  param {
    lr_mult: 2
    decay_mult: 0
  }
  convolution_param {
    num_output: 256
    pad: 1
    kernel_size: 3
    weight_filler {
      type: "xavier"
      std: 0.03
    }
    bias_filler {
      type: "constant"
      value: 0.2
    }
  }
}
layer {
  name: "inception_4c/relu_3x3"
  type: "ReLU"
  bottom: "inception_4c/3x3"
  top: "inception_4c/3x3"
}
layer {
  name: "inception_4c/5x5_reduce"
  type: "Convolution"
  bottom: "inception_4b/output"
  top: "inception_4c/5x5_reduce"
  param {
    lr_mult: 1
    decay_mult: 1
  }
  param {
    lr_mult: 2
    decay_mult: 0
  }
  convolution_param {
    num_output: 24
    kernel_size: 1
    weight_filler {
      type: "xavier"
      std: 0.2
    }
    bias_filler {
      type: "constant"
      value: 0.2
    }
  }
}
layer {
  name: "inception_4c/relu_5x5_reduce"
  type: "ReLU"
  bottom: "inception_4c/5x5_reduce"
  top: "inception_4c/5x5_reduce"
}
layer {
  name: "inception_4c/5x5"
  type: "Convolution"
  bottom: "inception_4c/5x5_reduce"
  top: "inception_4c/5x5"
  param {
    lr_mult: 1
    decay_mult: 1
  }
  param {
    lr_mult: 2
    decay_mult: 0
  }
  convolution_param {
    num_output: 64
    pad: 2
    kernel_size: 5
    weight_filler {
      type: "xavier"
      std: 0.03
    }
    bias_filler {
      type: "constant"
      value: 0.2
    }
  }
}
layer {
  name: "inception_4c/relu_5x5"
  type: "ReLU"
  bottom: "inception_4c/5x5"
  top: "inception_4c/5x5"
}
layer {
  name: "inception_4c/pool"
  type: "Pooling"
  bottom: "inception_4b/output"
  top: "inception_4c/pool"
  pooling_param {
    pool: MAX
    kernel_size: 3
    stride: 1
    pad: 1
  }
}
layer {
  name: "inception_4c/pool_proj"
  type: "Convolution"
  bottom: "inception_4c/pool"
  top: "inception_4c/pool_proj"
  param {
    lr_mult: 1
    decay_mult: 1
  }
  param {
    lr_mult: 2
    decay_mult: 0
  }
  convolution_param {
    num_output: 64
    kernel_size: 1
    weight_filler {
      type: "xavier"
      std: 0.1
    }
    bias_filler {
      type: "constant"
      value: 0.2
    }
  }
}
layer {
  name: "inception_4c/relu_pool_proj"
  type: "ReLU"
  bottom: "inception_4c/pool_proj"
  top: "inception_4c/pool_proj"
}
layer {
  name: "inception_4c/output"
  type: "Concat"
  bottom: "inception_4c/1x1"
  bottom: "inception_4c/3x3"
  bottom: "inception_4c/5x5"
  bottom: "inception_4c/pool_proj"
  top: "inception_4c/output"
}
layer {
  name: "inception_4d/1x1"
  type: "Convolution"
  bottom: "inception_4c/output"
  top: "inception_4d/1x1"
  param {
    lr_mult: 1
    decay_mult: 1
  }
  param {
    lr_mult: 2
    decay_mult: 0
  }
  convolution_param {
    num_output: 112
    kernel_size: 1
    weight_filler {
      type: "xavier"
      std: 0.03
    }
    bias_filler {
      type: "constant"
      value: 0.2
    }
  }
}
layer {
  name: "inception_4d/relu_1x1"
  type: "ReLU"
  bottom: "inception_4d/1x1"
  top: "inception_4d/1x1"
}
layer {
  name: "inception_4d/3x3_reduce"
  type: "Convolution"
  bottom: "inception_4c/output"
  top: "inception_4d/3x3_reduce"
  param {
    lr_mult: 1
    decay_mult: 1
  }
  param {
    lr_mult: 2
    decay_mult: 0
  }
  convolution_param {
    num_output: 144
    kernel_size: 1
    weight_filler {
      type: "xavier"
      std: 0.09
    }
    bias_filler {
      type: "constant"
      value: 0.2
    }
  }
}
layer {
  name: "inception_4d/relu_3x3_reduce"
  type: "ReLU"
  bottom: "inception_4d/3x3_reduce"
  top: "inception_4d/3x3_reduce"
}
layer {
  name: "inception_4d/3x3"
  type: "Convolution"
  bottom: "inception_4d/3x3_reduce"
  top: "inception_4d/3x3"
  param {
    lr_mult: 1
    decay_mult: 1
  }
  param {
    lr_mult: 2
    decay_mult: 0
  }
  convolution_param {
    num_output: 288
    pad: 1
    kernel_size: 3
    weight_filler {
      type: "xavier"
      std: 0.03
    }
    bias_filler {
      type: "constant"
      value: 0.2
    }
  }
}
layer {
  name: "inception_4d/relu_3x3"
  type: "ReLU"
  bottom: "inception_4d/3x3"
  top: "inception_4d/3x3"
}
layer {
  name: "inception_4d/5x5_reduce"
  type: "Convolution"
  bottom: "inception_4c/output"
  top: "inception_4d/5x5_reduce"
  param {
    lr_mult: 1
    decay_mult: 1
  }
  param {
    lr_mult: 2
    decay_mult: 0
  }
  convolution_param {
    num_output: 32
    kernel_size: 1
    weight_filler {
      type: "xavier"
      std: 0.2
    }
    bias_filler {
      type: "constant"
      value: 0.2
    }
  }
}
layer {
  name: "inception_4d/relu_5x5_reduce"
  type: "ReLU"
  bottom: "inception_4d/5x5_reduce"
  top: "inception_4d/5x5_reduce"
}
layer {
  name: "inception_4d/5x5"
  type: "Convolution"
  bottom: "inception_4d/5x5_reduce"
  top: "inception_4d/5x5"
  param {
    lr_mult: 1
    decay_mult: 1
  }
  param {
    lr_mult: 2
    decay_mult: 0
  }
  convolution_param {
    num_output: 64
    pad: 2
    kernel_size: 5
    weight_filler {
      type: "xavier"
      std: 0.03
    }
    bias_filler {
      type: "constant"
      value: 0.2
    }
  }
}
layer {
  name: "inception_4d/relu_5x5"
  type: "ReLU"
  bottom: "inception_4d/5x5"
  top: "inception_4d/5x5"
}
layer {
  name: "inception_4d/pool"
  type: "Pooling"
  bottom: "inception_4c/output"
  top: "inception_4d/pool"
  pooling_param {
    pool: MAX
    kernel_size: 3
    stride: 1
    pad: 1
  }
}
layer {
  name: "inception_4d/pool_proj"
  type: "Convolution"
  bottom: "inception_4d/pool"
  top: "inception_4d/pool_proj"
  param {
    lr_mult: 1
    decay_mult: 1
  }
  param {
    lr_mult: 2
    decay_mult: 0
  }
  convolution_param {
    num_output: 64
    kernel_size: 1
    weight_filler {
      type: "xavier"
      std: 0.1
    }
    bias_filler {
      type: "constant"
      value: 0.2
    }
  }
}
layer {
  name: "inception_4d/relu_pool_proj"
  type: "ReLU"
  bottom: "inception_4d/pool_proj"
  top: "inception_4d/pool_proj"
}
layer {
  name: "inception_4d/output"
  type: "Concat"
  bottom: "inception_4d/1x1"
  bottom: "inception_4d/3x3"
  bottom: "inception_4d/5x5"
  bottom: "inception_4d/pool_proj"
  top: "inception_4d/output"
}
layer {
  name: "inception_4e/1x1"
  type: "Convolution"
  bottom: "inception_4d/output"
  top: "inception_4e/1x1"
  param {
    lr_mult: 1
    decay_mult: 1
  }
  param {
    lr_mult: 2
    decay_mult: 0
  }
  convolution_param {
    num_output: 256
    kernel_size: 1
    weight_filler {
      type: "xavier"
      std: 0.03
    }
    bias_filler {
      type: "constant"
      value: 0.2
    }
  }
}
layer {
  name: "inception_4e/relu_1x1"
  type: "ReLU"
  bottom: "inception_4e/1x1"
  top: "inception_4e/1x1"
}
layer {
  name: "inception_4e/3x3_reduce"
  type: "Convolution"
  bottom: "inception_4d/output"
  top: "inception_4e/3x3_reduce"
  param {
    lr_mult: 1
    decay_mult: 1
  }
  param {
    lr_mult: 2
    decay_mult: 0
  }
  convolution_param {
    num_output: 160
    kernel_size: 1
    weight_filler {
      type: "xavier"
      std: 0.09
    }
    bias_filler {
      type: "constant"
      value: 0.2
    }
  }
}
layer {
  name: "inception_4e/relu_3x3_reduce"
  type: "ReLU"
  bottom: "inception_4e/3x3_reduce"
  top: "inception_4e/3x3_reduce"
}
layer {
  name: "inception_4e/3x3"
  type: "Convolution"
  bottom: "inception_4e/3x3_reduce"
  top: "inception_4e/3x3"
  param {
    lr_mult: 1
    decay_mult: 1
  }
  param {
    lr_mult: 2
    decay_mult: 0
  }
  convolution_param {
    num_output: 320
    pad: 1
    kernel_size: 3
    weight_filler {
      type: "xavier"
      std: 0.03
    }
    bias_filler {
      type: "constant"
      value: 0.2
    }
  }
}
layer {
  name: "inception_4e/relu_3x3"
  type: "ReLU"
  bottom: "inception_4e/3x3"
  top: "inception_4e/3x3"
}
layer {
  name: "inception_4e/5x5_reduce"
  type: "Convolution"
  bottom: "inception_4d/output"
  top: "inception_4e/5x5_reduce"
  param {
    lr_mult: 1
    decay_mult: 1
  }
  param {
    lr_mult: 2
    decay_mult: 0
  }
  convolution_param {
    num_output: 32
    kernel_size: 1
    weight_filler {
      type: "xavier"
      std: 0.2
    }
    bias_filler {
      type: "constant"
      value: 0.2
    }
  }
}
layer {
  name: "inception_4e/relu_5x5_reduce"
  type: "ReLU"
  bottom: "inception_4e/5x5_reduce"
  top: "inception_4e/5x5_reduce"
}
layer {
  name: "inception_4e/5x5"
  type: "Convolution"
  bottom: "inception_4e/5x5_reduce"
  top: "inception_4e/5x5"
  param {
    lr_mult: 1
    decay_mult: 1
  }
  param {
    lr_mult: 2
    decay_mult: 0
  }
  convolution_param {
    num_output: 128
    pad: 2
    kernel_size: 5
    weight_filler {
      type: "xavier"
      std: 0.03
    }
    bias_filler {
      type: "constant"
      value: 0.2
    }
  }
}
layer {
  name: "inception_4e/relu_5x5"
  type: "ReLU"
  bottom: "inception_4e/5x5"
  top: "inception_4e/5x5"
}
layer {
  name: "inception_4e/pool"
  type: "Pooling"
  bottom: "inception_4d/output"
  top: "inception_4e/pool"
  pooling_param {
    pool: MAX
    kernel_size: 3
    stride: 1
    pad: 1
  }
}
layer {
  name: "inception_4e/pool_proj"
  type: "Convolution"
  bottom: "inception_4e/pool"
  top: "inception_4e/pool_proj"
  param {
    lr_mult: 1
    decay_mult: 1
  }
  param {
    lr_mult: 2
    decay_mult: 0
  }
  convolution_param {
    num_output: 128
    kernel_size: 1
    weight_filler {
      type: "xavier"
      std: 0.1
    }
    bias_filler {
      type: "constant"
      value: 0.2
    }
  }
}
layer {
  name: "inception_4e/relu_pool_proj"
  type: "ReLU"
  bottom: "inception_4e/pool_proj"
  top: "inception_4e/pool_proj"
}
layer {
  name: "inception_4e/output"
  type: "Concat"
  bottom: "inception_4e/1x1"
  bottom: "inception_4e/3x3"
  bottom: "inception_4e/5x5"
  bottom: "inception_4e/pool_proj"
  top: "inception_4e/output"
}
layer {
  name: "pool4/3x3_s2"
  type: "Pooling"
  bottom: "inception_4e/output"
  top: "pool4/3x3_s2"
  pooling_param {
    pool: MAX
    kernel_size: 3
    stride: 2
  }
}
layer {
  name: "inception_5a/1x1"
  type: "Convolution"
  bottom: "pool4/3x3_s2"
  top: "inception_5a/1x1"
  param {
    lr_mult: 1
    decay_mult: 1
  }
  param {
    lr_mult: 2
    decay_mult: 0
  }
  convolution_param {
    num_output: 256
    kernel_size: 1
    weight_filler {
      type: "xavier"
      std: 0.03
    }
    bias_filler {
      type: "constant"
      value: 0.2
    }
  }
}
layer {
  name: "inception_5a/relu_1x1"
  type: "ReLU"
  bottom: "inception_5a/1x1"
  top: "inception_5a/1x1"
}
layer {
  name: "inception_5a/3x3_reduce"
  type: "Convolution"
  bottom: "pool4/3x3_s2"
  top: "inception_5a/3x3_reduce"
  param {
    lr_mult: 1
    decay_mult: 1
  }
  param {
    lr_mult: 2
    decay_mult: 0
  }
  convolution_param {
    num_output: 160
    kernel_size: 1
    weight_filler {
      type: "xavier"
      std: 0.09
    }
    bias_filler {
      type: "constant"
      value: 0.2
    }
  }
}
layer {
  name: "inception_5a/relu_3x3_reduce"
  type: "ReLU"
  bottom: "inception_5a/3x3_reduce"
  top: "inception_5a/3x3_reduce"
}
layer {
  name: "inception_5a/3x3"
  type: "Convolution"
  bottom: "inception_5a/3x3_reduce"
  top: "inception_5a/3x3"
  param {
    lr_mult: 1
    decay_mult: 1
  }
  param {
    lr_mult: 2
    decay_mult: 0
  }
  convolution_param {
    num_output: 320
    pad: 1
    kernel_size: 3
    weight_filler {
      type: "xavier"
      std: 0.03
    }
    bias_filler {
      type: "constant"
      value: 0.2
    }
  }
}
layer {
  name: "inception_5a/relu_3x3"
  type: "ReLU"
  bottom: "inception_5a/3x3"
  top: "inception_5a/3x3"
}
layer {
  name: "inception_5a/5x5_reduce"
  type: "Convolution"
  bottom: "pool4/3x3_s2"
  top: "inception_5a/5x5_reduce"
  param {
    lr_mult: 1
    decay_mult: 1
  }
  param {
    lr_mult: 2
    decay_mult: 0
  }
  convolution_param {
    num_output: 32
    kernel_size: 1
    weight_filler {
      type: "xavier"
      std: 0.2
    }
    bias_filler {
      type: "constant"
      value: 0.2
    }
I0727 20:20:40.781556 28370 layer_factory.hpp:77] Creating layer data
I0727 20:20:40.781584 28370 net.cpp:91] Creating Layer data
I0727 20:20:40.781592 28370 net.cpp:399] data -> data
I0727 20:20:40.791623 28366 net.cpp:49] Initializing net from parameters: 
name: "GoogleNet"
state {
  phase: TEST
}
layer {
  name: "data"
  type: "Input"
  top: "data"
  input_param {
    shape {
      dim: 10
      dim: 3
      dim: 224
      dim: 224
    }
  }
}
layer {
  name: "conv1/7x7_s2"
  type: "Convolution"
  bottom: "data"
  top: "conv1/7x7_s2"
  param {
    lr_mult: 1
    decay_mult: 1
  }
  param {
    lr_mult: 2
    decay_mult: 0
  }
  convolution_param {
    num_output: 64
    pad: 3
    kernel_size: 7
    stride: 2
    weight_filler {
      type: "xavier"
      std: 0.1
    }
    bias_filler {
      type: "constant"
      value: 0.2
    }
  }
}
layer {
  name: "conv1/relu_7x7"
  type: "ReLU"
  bottom: "conv1/7x7_s2"
  top: "conv1/7x7_s2"
}
layer {
  name: "pool1/3x3_s2"
  type: "Pooling"
  bottom: "conv1/7x7_s2"
  top: "pool1/3x3_s2"
  pooling_param {
    pool: MAX
    kernel_size: 3
    stride: 2
  }
}
layer {
  name: "pool1/norm1"
  type: "LRN"
  bottom: "pool1/3x3_s2"
  top: "pool1/norm1"
  lrn_param {
    local_size: 5
    alpha: 0.0001
    beta: 0.75
  }
}
layer {
  name: "conv2/3x3_reduce"
  type: "Convolution"
  bottom: "pool1/norm1"
  top: "conv2/3x3_reduce"
  param {
    lr_mult: 1
    decay_mult: 1
  }
  param {
    lr_mult: 2
    decay_mult: 0
  }
  convolution_param {
    num_output: 64
    kernel_size: 1
    weight_filler {
      type: "xavier"
      std: 0.1
    }
    bias_filler {
      type: "constant"
      value: 0.2
    }
  }
}
layer {
  name: "conv2/relu_3x3_reduce"
  type: "ReLU"
  bottom: "conv2/3x3_reduce"
  top: "conv2/3x3_reduce"
}
layer {
  name: "conv2/3x3"
  type: "Convolution"
  bottom: "conv2/3x3_reduce"
  top: "conv2/3x3"
  param {
    lr_mult: 1
    decay_mult: 1
  }
  param {
    lr_mult: 2
    decay_mult: 0
  }
  convolution_param {
    num_output: 192
    pad: 1
    kernel_size: 3
    weight_filler {
      type: "xavier"
      std: 0.03
    }
    bias_filler {
      type: "constant"
      value: 0.2
    }
  }
}
layer {
  name: "conv2/relu_3x3"
  type: "ReLU"
  bottom: "conv2/3x3"
  top: "conv2/3x3"
}
layer {
  name: "conv2/norm2"
  type: "LRN"
  bottom: "conv2/3x3"
  top: "conv2/norm2"
  lrn_param {
    local_size: 5
    alpha: 0.0001
    beta: 0.75
  }
}
layer {
  name: "pool2/3x3_s2"
  type: "Pooling"
  bottom: "conv2/norm2"
  top: "pool2/3x3_s2"
  pooling_param {
    pool: MAX
    kernel_size: 3
    stride: 2
  }
}
layer {
  name: "inception_3a/1x1"
  type: "Convolution"
  bottom: "pool2/3x3_s2"
  top: "inception_3a/1x1"
  param {
    lr_mult: 1
    decay_mult: 1
  }
  param {
    lr_mult: 2
    decay_mult: 0
  }
  convolution_param {
    num_output: 64
    kernel_size: 1
    weight_filler {
      type: "xavier"
      std: 0.03
    }
    bias_filler {
      type: "constant"
      value: 0.2
    }
  }
}
layer {
  name: "inception_3a/relu_1x1"
  type: "ReLU"
  bottom: "inception_3a/1x1"
  top: "inception_3a/1x1"
}
layer {
  name: "inception_3a/3x3_reduce"
  type: "Convolution"
  bottom: "pool2/3x3_s2"
  top: "inception_3a/3x3_reduce"
  param {
    lr_mult: 1
    decay_mult: 1
  }
  param {
    lr_mult: 2
    decay_mult: 0
  }
  convolution_param {
    num_output: 96
    kernel_size: 1
    weight_filler {
      type: "xavier"
      std: 0.09
    }
    bias_filler {
      type: "constant"
      value: 0.2
    }
  }
}
layer {
  name: "inception_3a/relu_3x3_reduce"
  type: "ReLU"
  bottom: "inception_3a/3x3_reduce"
  top: "inception_3a/3x3_reduce"
}
layer {
  name: "inception_3a/3x3"
  type: "Convolution"
  bottom: "inception_3a/3x3_reduce"
  top: "inception_3a/3x3"
  param {
    lr_mult: 1
    decay_mult: 1
  }
  param {
    lr_mult: 2
    decay_mult: 0
  }
  convolution_param {
    num_output: 128
    pad: 1
    kernel_size: 3
    weight_filler {
      type: "xavier"
      std: 0.03
    }
    bias_filler {
      type: "constant"
      value: 0.2
    }
  }
}
layer {
  name: "inception_3a/relu_3x3"
  type: "ReLU"
  bottom: "inception_3a/3x3"
  top: "inception_3a/3x3"
}
layer {
  name: "inception_3a/5x5_reduce"
  type: "Convolution"
  bottom: "pool2/3x3_s2"
  top: "inception_3a/5x5_reduce"
  param {
    lr_mult: 1
    decay_mult: 1
  }
  param {
    lr_mult: 2
    decay_mult: 0
  }
  convolution_param {
    num_output: 16
    kernel_size: 1
    weight_filler {
      type: "xavier"
      std: 0.2
    }
    bias_filler {
      type: "constant"
      value: 0.2
    }
  }
}
layer {
  name: "inception_3a/relu_5x5_reduce"
  type: "ReLU"
  bottom: "inception_3a/5x5_reduce"
  top: "inception_3a/5x5_reduce"
}
layer {
  name: "inception_3a/5x5"
  type: "Convolution"
  bottom: "inception_3a/5x5_reduce"
  top: "inception_3a/5x5"
  param {
    lr_mult: 1
    decay_mult: 1
  }
  param {
    lr_mult: 2
    decay_mult: 0
  }
  convolution_param {
    num_output: 32
    pad: 2
    kernel_size: 5
    weight_filler {
      type: "xavier"
      std: 0.03
    }
    bias_filler {
      type: "constant"
      value: 0.2
    }
  }
}
layer {
  name: "inception_3a/relu_5x5"
  type: "ReLU"
  bottom: "inception_3a/5x5"
  top: "inception_3a/5x5"
}
layer {
  name: "inception_3a/pool"
  type: "Pooling"
  bottom: "pool2/3x3_s2"
  top: "inception_3a/pool"
  pooling_param {
    pool: MAX
    kernel_size: 3
    stride: 1
    pad: 1
  }
}
layer {
  name: "inception_3a/pool_proj"
  type: "Convolution"
  bottom: "inception_3a/pool"
  top: "inception_3a/pool_proj"
  param {
    lr_mult: 1
    decay_mult: 1
  }
  param {
    lr_mult: 2
    decay_mult: 0
  }
  convolution_param {
    num_output: 32
    kernel_size: 1
    weight_filler {
      type: "xavier"
      std: 0.1
    }
    bias_filler {
      type: "constant"
      value: 0.2
    }
  }
}
layer {
  name: "inception_3a/relu_pool_proj"
  type: "ReLU"
  bottom: "inception_3a/pool_proj"
  top: "inception_3a/pool_proj"
}
layer {
  name: "inception_3a/output"
  type: "Concat"
  bottom: "inception_3a/1x1"
  bottom: "inception_3a/3x3"
  bottom: "inception_3a/5x5"
  bottom: "inception_3a/pool_proj"
  top: "inception_3a/output"
}
layer {
  name: "inception_3b/1x1"
  type: "Convolution"
  bottom: "inception_3a/output"
  top: "inception_3b/1x1"
  param {
    lr_mult: 1
    decay_mult: 1
  }
  param {
    lr_mult: 2
    decay_mult: 0
  }
  convolution_param {
    num_output: 128
    kernel_size: 1
    weight_filler {
      type: "xavier"
      std: 0.03
    }
    bias_filler {
      type: "constant"
      value: 0.2
    }
  }
}
layer {
  name: "inception_3b/relu_1x1"
  type: "ReLU"
  bottom: "inception_3b/1x1"
  top: "inception_3b/1x1"
}
layer {
  name: "inception_3b/3x3_reduce"
  type: "Convolution"
  bottom: "inception_3a/output"
  top: "inception_3b/3x3_reduce"
  param {
    lr_mult: 1
    decay_mult: 1
  }
  param {
    lr_mult: 2
    decay_mult: 0
  }
  convolution_param {
    num_output: 128
    kernel_size: 1
    weight_filler {
      type: "xavier"
      std: 0.09
    }
    bias_filler {
      type: "constant"
      value: 0.2
    }
  }
}
layer {
  name: "inception_3b/relu_3x3_reduce"
  type: "ReLU"
  bottom: "inception_3b/3x3_reduce"
  top: "inception_3b/3x3_reduce"
}
layer {
  name: "inception_3b/3x3"
  type: "Convolution"
  bottom: "inception_3b/3x3_reduce"
  top: "inception_3b/3x3"
  param {
    lr_mult: 1
    decay_mult: 1
  }
  param {
    lr_mult: 2
    decay_mult: 0
  }
  convolution_param {
    num_output: 192
    pad: 1
    kernel_size: 3
    weight_filler {
      type: "xavier"
      std: 0.03
    }
    bias_filler {
      type: "constant"
      value: 0.2
    }
  }
}
layer {
  name: "inception_3b/relu_3x3"
  type: "ReLU"
  bottom: "inception_3b/3x3"
  top: "inception_3b/3x3"
}
layer {
  name: "inception_3b/5x5_reduce"
  type: "Convolution"
  bottom: "inception_3a/output"
  top: "inception_3b/5x5_reduce"
  param {
    lr_mult: 1
    decay_mult: 1
  }
  param {
    lr_mult: 2
    decay_mult: 0
  }
  convolution_param {
    num_output: 32
    kernel_size: 1
    weight_filler {
      type: "xavier"
      std: 0.2
    }
    bias_filler {
      type: "constant"
      value: 0.2
    }
  }
}
layer {
  name: "inception_3b/relu_5x5_reduce"
  type: "ReLU"
  bottom: "inception_3b/5x5_reduce"
  top: "inception_3b/5x5_reduce"
}
layer {
  name: "inception_3b/5x5"
  type: "Convolution"
  bottom: "inception_3b/5x5_reduce"
  top: "inception_3b/5x5"
  param {
    lr_mult: 1
    decay_mult: 1
  }
  param {
    lr_mult: 2
    decay_mult: 0
  }
  convolution_param {
    num_output: 96
    pad: 2
    kernel_size: 5
    weight_filler {
      type: "xavier"
      std: 0.03
    }
    bias_filler {
      type: "constant"
      value: 0.2
    }
  }
}
layer {
  name: "inception_3b/relu_5x5"
  type: "ReLU"
  bottom: "inception_3b/5x5"
  top: "inception_3b/5x5"
}
layer {
  name: "inception_3b/pool"
  type: "Pooling"
  bottom: "inception_3a/output"
  top: "inception_3b/pool"
  pooling_param {
    pool: MAX
    kernel_size: 3
    stride: 1
    pad: 1
  }
}
layer {
  name: "inception_3b/pool_proj"
  type: "Convolution"
  bottom: "inception_3b/pool"
  top: "inception_3b/pool_proj"
  param {
    lr_mult: 1
    decay_mult: 1
  }
  param {
    lr_mult: 2
    decay_mult: 0
  }
  convolution_param {
    num_output: 64
    kernel_size: 1
    weight_filler {
      type: "xavier"
      std: 0.1
    }
    bias_filler {
      type: "constant"
      value: 0.2
    }
  }
}
layer {
  name: "inception_3b/relu_pool_proj"
  type: "ReLU"
  bottom: "inception_3b/pool_proj"
  top: "inception_3b/pool_proj"
}
layer {
  name: "inception_3b/output"
  type: "Concat"
  bottom: "inception_3b/1x1"
  bottom: "inception_3b/3x3"
  bottom: "inception_3b/5x5"
  bottom: "inception_3b/pool_proj"
  top: "inception_3b/output"
}
layer {
  name: "pool3/3x3_s2"
  type: "Pooling"
  bottom: "inception_3b/output"
  top: "pool3/3x3_s2"
  pooling_param {
    pool: MAX
    kernel_size: 3
    stride: 2
  }
}
layer {
  name: "inception_4a/1x1"
  type: "Convolution"
  bottom: "pool3/3x3_s2"
  top: "inception_4a/1x1"
  param {
    lr_mult: 1
    decay_mult: 1
  }
  param {
    lr_mult: 2
    decay_mult: 0
  }
  convolution_param {
    num_output: 192
    kernel_size: 1
    weight_filler {
      type: "xavier"
      std: 0.03
    }
    bias_filler {
      type: "constant"
      value: 0.2
    }
  }
}
layer {
  name: "inception_4a/relu_1x1"
  type: "ReLU"
  bottom: "inception_4a/1x1"
  top: "inception_4a/1x1"
}
layer {
  name: "inception_4a/3x3_reduce"
  type: "Convolution"
  bottom: "pool3/3x3_s2"
  top: "inception_4a/3x3_reduce"
  param {
    lr_mult: 1
    decay_mult: 1
  }
  param {
    lr_mult: 2
    decay_mult: 0
  }
  convolution_param {
    num_output: 96
    kernel_size: 1
    weight_filler {
      type: "xavier"
      std: 0.09
    }
    bias_filler {
      type: "constant"
      value: 0.2
    }
  }
}
layer {
  name: "inception_4a/relu_3x3_reduce"
  type: "ReLU"
  bottom: "inception_4a/3x3_reduce"
  top: "inception_4a/3x3_reduce"
}
layer {
  name: "inception_4a/3x3"
  type: "Convolution"
  bottom: "inception_4a/3x3_reduce"
  top: "inception_4a/3x3"
  param {
    lr_mult: 1
    decay_mult: 1
  }
  param {
    lr_mult: 2
    decay_mult: 0
  }
  convolution_param {
    num_output: 208
    pad: 1
    kernel_size: 3
    weight_filler {
      type: "xavier"
      std: 0.03
    }
    bias_filler {
      type: "constant"
      value: 0.2
    }
  }
}
layer {
  name: "inception_4a/relu_3x3"
  type: "ReLU"
  bottom: "inception_4a/3x3"
  top: "inception_4a/3x3"
}
layer {
  name: "inception_4a/5x5_reduce"
  type: "Convolution"
  bottom: "pool3/3x3_s2"
  top: "inception_4a/5x5_reduce"
  param {
    lr_mult: 1
    decay_mult: 1
  }
  param {
    lr_mult: 2
    decay_mult: 0
  }
  convolution_param {
    num_output: 16
    kernel_size: 1
    weight_filler {
      type: "xavier"
      std: 0.2
    }
    bias_filler {
      type: "constant"
      value: 0.2
    }
  }
}
layer {
  name: "inception_4a/relu_5x5_reduce"
  type: "ReLU"
  bottom: "inception_4a/5x5_reduce"
  top: "inception_4a/5x5_reduce"
}
layer {
  name: "inception_4a/5x5"
  type: "Convolution"
  bottom: "inception_4a/5x5_reduce"
  top: "inception_4a/5x5"
  param {
    lr_mult: 1
    decay_mult: 1
  }
  param {
    lr_mult: 2
    decay_mult: 0
  }
  convolution_param {
    num_output: 48
    pad: 2
    kernel_size: 5
    weight_filler {
      type: "xavier"
      std: 0.03
    }
    bias_filler {
      type: "constant"
      value: 0.2
    }
  }
}
layer {
  name: "inception_4a/relu_5x5"
  type: "ReLU"
  bottom: "inception_4a/5x5"
  top: "inception_4a/5x5"
}
layer {
  name: "inception_4a/pool"
  type: "Pooling"
  bottom: "pool3/3x3_s2"
  top: "inception_4a/pool"
  pooling_param {
    pool: MAX
    kernel_size: 3
    stride: 1
    pad: 1
  }
}
layer {
  name: "inception_4a/pool_proj"
  type: "Convolution"
  bottom: "inception_4a/pool"
  top: "inception_4a/pool_proj"
  param {
    lr_mult: 1
    decay_mult: 1
  }
  param {
    lr_mult: 2
    decay_mult: 0
  }
  convolution_param {
    num_output: 64
    kernel_size: 1
    weight_filler {
      type: "xavier"
      std: 0.1
    }
    bias_filler {
      type: "constant"
      value: 0.2
    }
  }
}
layer {
  name: "inception_4a/relu_pool_proj"
  type: "ReLU"
  bottom: "inception_4a/pool_proj"
  top: "inception_4a/pool_proj"
}
layer {
  name: "inception_4a/output"
  type: "Concat"
  bottom: "inception_4a/1x1"
  bottom: "inception_4a/3x3"
  bottom: "inception_4a/5x5"
  bottom: "inception_4a/pool_proj"
  top: "inception_4a/output"
}
layer {
  name: "inception_4b/1x1"
  type: "Convolution"
  bottom: "inception_4a/output"
  top: "inception_4b/1x1"
  param {
    lr_mult: 1
    decay_mult: 1
  }
  param {
    lr_mult: 2
    decay_mult: 0
  }
  convolution_param {
    num_output: 160
    kernel_size: 1
    weight_filler {
      type: "xavier"
      std: 0.03
    }
    bias_filler {
      type: "constant"
      value: 0.2
    }
  }
}
layer {
  name: "inception_4b/relu_1x1"
  type: "ReLU"
  bottom: "inception_4b/1x1"
  top: "inception_4b/1x1"
}
layer {
  name: "inception_4b/3x3_reduce"
  type: "Convolution"
  bottom: "inception_4a/output"
  top: "inception_4b/3x3_reduce"
  param {
    lr_mult: 1
    decay_mult: 1
  }
  param {
    lr_mult: 2
    decay_mult: 0
  }
  convolution_param {
    num_output: 112
    kernel_size: 1
    weight_filler {
      type: "xavier"
      std: 0.09
    }
    bias_filler {
      type: "constant"
      value: 0.2
    }
  }
}
layer {
  name: "inception_4b/relu_3x3_reduce"
  type: "ReLU"
  bottom: "inception_4b/3x3_reduce"
  top: "inception_4b/3x3_reduce"
}
layer {
  name: "inception_4b/3x3"
  type: "Convolution"
  bottom: "inception_4b/3x3_reduce"
  top: "inception_4b/3x3"
  param {
    lr_mult: 1
    decay_mult: 1
  }
  param {
    lr_mult: 2
    decay_mult: 0
  }
  convolution_param {
    num_output: 224
    pad: 1
    kernel_size: 3
    weight_filler {
      type: "xavier"
      std: 0.03
    }
    bias_filler {
      type: "constant"
      value: 0.2
    }
  }
}
layer {
  name: "inception_4b/relu_3x3"
  type: "ReLU"
  bottom: "inception_4b/3x3"
  top: "inception_4b/3x3"
}
layer {
  name: "inception_4b/5x5_reduce"
  type: "Convolution"
  bottom: "inception_4a/output"
  top: "inception_4b/5x5_reduce"
  param {
    lr_mult: 1
    decay_mult: 1
  }
  param {
    lr_mult: 2
    decay_mult: 0
  }
  convolution_param {
    num_output: 24
    kernel_size: 1
    weight_filler {
      type: "xavier"
      std: 0.2
    }
    bias_filler {
      type: "constant"
      value: 0.2
    }
  }
}
layer {
  name: "inception_4b/relu_5x5_reduce"
  type: "ReLU"
  bottom: "inception_4b/5x5_reduce"
  top: "inception_4b/5x5_reduce"
}
layer {
  name: "inception_4b/5x5"
  type: "Convolution"
  bottom: "inception_4b/5x5_reduce"
  top: "inception_4b/5x5"
  param {
    lr_mult: 1
    decay_mult: 1
  }
  param {
    lr_mult: 2
    decay_mult: 0
  }
  convolution_param {
    num_output: 64
    pad: 2
    kernel_size: 5
    weight_filler {
      type: "xavier"
      std: 0.03
    }
    bias_filler {
      type: "constant"
      value: 0.2
    }
  }
}
layer {
  name: "inception_4b/relu_5x5"
  type: "ReLU"
  bottom: "inception_4b/5x5"
  top: "inception_4b/5x5"
}
layer {
  name: "inception_4b/pool"
  type: "Pooling"
  bottom: "inception_4a/output"
  top: "inception_4b/pool"
  pooling_param {
    pool: MAX
    kernel_size: 3
    stride: 1
    pad: 1
  }
}
layer {
  name: "inception_4b/pool_proj"
  type: "Convolution"
  bottom: "inception_4b/pool"
  top: "inception_4b/pool_proj"
  param {
    lr_mult: 1
    decay_mult: 1
  }
  param {
    lr_mult: 2
    decay_mult: 0
  }
  convolution_param {
    num_output: 64
    kernel_size: 1
    weight_filler {
      type: "xavier"
      std: 0.1
    }
    bias_filler {
      type: "constant"
      value: 0.2
    }
  }
}
layer {
  name: "inception_4b/relu_pool_proj"
  type: "ReLU"
  bottom: "inception_4b/pool_proj"
  top: "inception_4b/pool_proj"
}
layer {
  name: "inception_4b/output"
  type: "Concat"
  bottom: "inception_4b/1x1"
  bottom: "inception_4b/3x3"
  bottom: "inception_4b/5x5"
  bottom: "inception_4b/pool_proj"
  top: "inception_4b/output"
}
layer {
  name: "inception_4c/1x1"
  type: "Convolution"
  bottom: "inception_4b/output"
  top: "inception_4c/1x1"
  param {
    lr_mult: 1
    decay_mult: 1
  }
  param {
    lr_mult: 2
    decay_mult: 0
  }
  convolution_param {
    num_output: 128
    kernel_size: 1
    weight_filler {
      type: "xavier"
      std: 0.03
    }
    bias_filler {
      type: "constant"
      value: 0.2
    }
  }
}
layer {
  name: "inception_4c/relu_1x1"
  type: "ReLU"
  bottom: "inception_4c/1x1"
  top: "inception_4c/1x1"
}
layer {
  name: "inception_4c/3x3_reduce"
  type: "Convolution"
  bottom: "inception_4b/output"
  top: "inception_4c/3x3_reduce"
  param {
    lr_mult: 1
    decay_mult: 1
  }
  param {
    lr_mult: 2
    decay_mult: 0
  }
  convolution_param {
    num_output: 128
    kernel_size: 1
    weight_filler {
      type: "xavier"
      std: 0.09
    }
    bias_filler {
      type: "constant"
      value: 0.2
    }
  }
}
layer {
  name: "inception_4c/relu_3x3_reduce"
  type: "ReLU"
  bottom: "inception_4c/3x3_reduce"
  top: "inception_4c/3x3_reduce"
}
layer {
  name: "inception_4c/3x3"
  type: "Convolution"
  bottom: "inception_4c/3x3_reduce"
  top: "inception_4c/3x3"
  param {
    lr_mult: 1
    decay_mult: 1
  }
  param {
    lr_mult: 2
    decay_mult: 0
  }
  convolution_param {
    num_output: 256
    pad: 1
    kernel_size: 3
    weight_filler {
      type: "xavier"
      std: 0.03
    }
    bias_filler {
      type: "constant"
      value: 0.2
    }
  }
}
layer {
  name: "inception_4c/relu_3x3"
  type: "ReLU"
  bottom: "inception_4c/3x3"
  top: "inception_4c/3x3"
}
layer {
  name: "inception_4c/5x5_reduce"
  type: "Convolution"
  bottom: "inception_4b/output"
  top: "inception_4c/5x5_reduce"
  param {
    lr_mult: 1
    decay_mult: 1
  }
  param {
    lr_mult: 2
    decay_mult: 0
  }
  convolution_param {
    num_output: 24
    kernel_size: 1
    weight_filler {
      type: "xavier"
      std: 0.2
    }
    bias_filler {
      type: "constant"
      value: 0.2
    }
  }
}
layer {
  name: "inception_4c/relu_5x5_reduce"
  type: "ReLU"
  bottom: "inception_4c/5x5_reduce"
  top: "inception_4c/5x5_reduce"
}
layer {
  name: "inception_4c/5x5"
  type: "Convolution"
  bottom: "inception_4c/5x5_reduce"
  top: "inception_4c/5x5"
  param {
    lr_mult: 1
    decay_mult: 1
  }
  param {
    lr_mult: 2
    decay_mult: 0
  }
  convolution_param {
    num_output: 64
    pad: 2
    kernel_size: 5
    weight_filler {
      type: "xavier"
      std: 0.03
    }
    bias_filler {
      type: "constant"
      value: 0.2
    }
  }
}
layer {
  name: "inception_4c/relu_5x5"
  type: "ReLU"
  bottom: "inception_4c/5x5"
  top: "inception_4c/5x5"
}
layer {
  name: "inception_4c/pool"
  type: "Pooling"
  bottom: "inception_4b/output"
  top: "inception_4c/pool"
  pooling_param {
    pool: MAX
    kernel_size: 3
    stride: 1
    pad: 1
  }
}
layer {
  name: "inception_4c/pool_proj"
  type: "Convolution"
  bottom: "inception_4c/pool"
  top: "inception_4c/pool_proj"
  param {
    lr_mult: 1
    decay_mult: 1
  }
  param {
    lr_mult: 2
    decay_mult: 0
  }
  convolution_param {
    num_output: 64
    kernel_size: 1
    weight_filler {
      type: "xavier"
      std: 0.1
    }
    bias_filler {
      type: "constant"
      value: 0.2
    }
  }
}
layer {
  name: "inception_4c/relu_pool_proj"
  type: "ReLU"
  bottom: "inception_4c/pool_proj"
  top: "inception_4c/pool_proj"
}
layer {
  name: "inception_4c/output"
  type: "Concat"
  bottom: "inception_4c/1x1"
  bottom: "inception_4c/3x3"
  bottom: "inception_4c/5x5"
  bottom: "inception_4c/pool_proj"
  top: "inception_4c/output"
}
layer {
  name: "inception_4d/1x1"
  type: "Convolution"
  bottom: "inception_4c/output"
  top: "inception_4d/1x1"
  param {
    lr_mult: 1
    decay_mult: 1
  }
  param {
    lr_mult: 2
    decay_mult: 0
  }
  convolution_param {
    num_output: 112
    kernel_size: 1
    weight_filler {
      type: "xavier"
      std: 0.03
    }
    bias_filler {
      type: "constant"
      value: 0.2
    }
  }
}
layer {
  name: "inception_4d/relu_1x1"
  type: "ReLU"
  bottom: "inception_4d/1x1"
  top: "inception_4d/1x1"
}
layer {
  name: "inception_4d/3x3_reduce"
  type: "Convolution"
  bottom: "inception_4c/output"
  top: "inception_4d/3x3_reduce"
  param {
    lr_mult: 1
    decay_mult: 1
  }
  param {
    lr_mult: 2
    decay_mult: 0
  }
  convolution_param {
    num_output: 144
    kernel_size: 1
    weight_filler {
      type: "xavier"
      std: 0.09
    }
    bias_filler {
      type: "constant"
      value: 0.2
    }
  }
}
layer {
  name: "inception_4d/relu_3x3_reduce"
  type: "ReLU"
  bottom: "inception_4d/3x3_reduce"
  top: "inception_4d/3x3_reduce"
}
layer {
  name: "inception_4d/3x3"
  type: "Convolution"
  bottom: "inception_4d/3x3_reduce"
  top: "inception_4d/3x3"
  param {
    lr_mult: 1
    decay_mult: 1
  }
  param {
    lr_mult: 2
    decay_mult: 0
  }
  convolution_param {
    num_output: 288
    pad: 1
    kernel_size: 3
    weight_filler {
      type: "xavier"
      std: 0.03
    }
    bias_filler {
      type: "constant"
      value: 0.2
    }
  }
}
layer {
  name: "inception_4d/relu_3x3"
  type: "ReLU"
  bottom: "inception_4d/3x3"
  top: "inception_4d/3x3"
}
layer {
  name: "inception_4d/5x5_reduce"
  type: "Convolution"
  bottom: "inception_4c/output"
  top: "inception_4d/5x5_reduce"
  param {
    lr_mult: 1
    decay_mult: 1
  }
  param {
    lr_mult: 2
    decay_mult: 0
  }
  convolution_param {
    num_output: 32
    kernel_size: 1
    weight_filler {
      type: "xavier"
      std: 0.2
    }
    bias_filler {
      type: "constant"
      value: 0.2
    }
  }
}
layer {
  name: "inception_4d/relu_5x5_reduce"
  type: "ReLU"
  bottom: "inception_4d/5x5_reduce"
  top: "inception_4d/5x5_reduce"
}
layer {
  name: "inception_4d/5x5"
  type: "Convolution"
  bottom: "inception_4d/5x5_reduce"
  top: "inception_4d/5x5"
  param {
    lr_mult: 1
    decay_mult: 1
  }
  param {
    lr_mult: 2
    decay_mult: 0
  }
  convolution_param {
    num_output: 64
    pad: 2
    kernel_size: 5
    weight_filler {
      type: "xavier"
      std: 0.03
    }
    bias_filler {
      type: "constant"
      value: 0.2
    }
  }
}
layer {
  name: "inception_4d/relu_5x5"
  type: "ReLU"
  bottom: "inception_4d/5x5"
  top: "inception_4d/5x5"
}
layer {
  name: "inception_4d/pool"
  type: "Pooling"
  bottom: "inception_4c/output"
  top: "inception_4d/pool"
  pooling_param {
    pool: MAX
    kernel_size: 3
    stride: 1
    pad: 1
  }
}
layer {
  name: "inception_4d/pool_proj"
  type: "Convolution"
  bottom: "inception_4d/pool"
  top: "inception_4d/pool_proj"
  param {
    lr_mult: 1
    decay_mult: 1
  }
  param {
    lr_mult: 2
    decay_mult: 0
  }
  convolution_param {
    num_output: 64
    kernel_size: 1
    weight_filler {
      type: "xavier"
      std: 0.1
    }
    bias_filler {
      type: "constant"
      value: 0.2
    }
  }
}
layer {
  name: "inception_4d/relu_pool_proj"
  type: "ReLU"
  bottom: "inception_4d/pool_proj"
  top: "inception_4d/pool_proj"
}
layer {
  name: "inception_4d/output"
  type: "Concat"
  bottom: "inception_4d/1x1"
  bottom: "inception_4d/3x3"
  bottom: "inception_4d/5x5"
  bottom: "inception_4d/pool_proj"
  top: "inception_4d/output"
}
layer {
  name: "inception_4e/1x1"
  type: "Convolution"
  bottom: "inception_4d/output"
  top: "inception_4e/1x1"
  param {
    lr_mult: 1
    decay_mult: 1
  }
  param {
    lr_mult: 2
    decay_mult: 0
  }
  convolution_param {
    num_output: 256
    kernel_size: 1
    weight_filler {
      type: "xavier"
      std: 0.03
    }
    bias_filler {
      type: "constant"
      value: 0.2
    }
  }
}
layer {
  name: "inception_4e/relu_1x1"
  type: "ReLU"
  bottom: "inception_4e/1x1"
  top: "inception_4e/1x1"
}
layer {
  name: "inception_4e/3x3_reduce"
  type: "Convolution"
  bottom: "inception_4d/output"
  top: "inception_4e/3x3_reduce"
  param {
    lr_mult: 1
    decay_mult: 1
  }
  param {
    lr_mult: 2
    decay_mult: 0
  }
  convolution_param {
    num_output: 160
    kernel_size: 1
    weight_filler {
      type: "xavier"
      std: 0.09
    }
    bias_filler {
      type: "constant"
      value: 0.2
    }
  }
}
layer {
  name: "inception_4e/relu_3x3_reduce"
  type: "ReLU"
  bottom: "inception_4e/3x3_reduce"
  top: "inception_4e/3x3_reduce"
}
layer {
  name: "inception_4e/3x3"
  type: "Convolution"
  bottom: "inception_4e/3x3_reduce"
  top: "inception_4e/3x3"
  param {
    lr_mult: 1
    decay_mult: 1
  }
  param {
    lr_mult: 2
    decay_mult: 0
  }
  convolution_param {
    num_output: 320
    pad: 1
    kernel_size: 3
    weight_filler {
      type: "xavier"
      std: 0.03
    }
    bias_filler {
      type: "constant"
      value: 0.2
    }
  }
}
layer {
  name: "inception_4e/relu_3x3"
  type: "ReLU"
  bottom: "inception_4e/3x3"
  top: "inception_4e/3x3"
}
layer {
  name: "inception_4e/5x5_reduce"
  type: "Convolution"
  bottom: "inception_4d/output"
  top: "inception_4e/5x5_reduce"
  param {
    lr_mult: 1
    decay_mult: 1
  }
  param {
    lr_mult: 2
    decay_mult: 0
  }
  convolution_param {
    num_output: 32
    kernel_size: 1
    weight_filler {
      type: "xavier"
      std: 0.2
    }
    bias_filler {
      type: "constant"
      value: 0.2
    }
  }
}
layer {
  name: "inception_4e/relu_5x5_reduce"
  type: "ReLU"
  bottom: "inception_4e/5x5_reduce"
  top: "inception_4e/5x5_reduce"
}
layer {
  name: "inception_4e/5x5"
  type: "Convolution"
  bottom: "inception_4e/5x5_reduce"
  top: "inception_4e/5x5"
  param {
    lr_mult: 1
    decay_mult: 1
  }
  param {
    lr_mult: 2
    decay_mult: 0
  }
  convolution_param {
    num_output: 128
    pad: 2
    kernel_size: 5
    weight_filler {
      type: "xavier"
      std: 0.03
    }
    bias_filler {
      type: "constant"
      value: 0.2
    }
  }
}
layer {
  name: "inception_4e/relu_5x5"
  type: "ReLU"
  bottom: "inception_4e/5x5"
  top: "inception_4e/5x5"
}
layer {
  name: "inception_4e/pool"
  type: "Pooling"
  bottom: "inception_4d/output"
  top: "inception_4e/pool"
  pooling_param {
    pool: MAX
    kernel_size: 3
    stride: 1
    pad: 1
  }
}
layer {
  name: "inception_4e/pool_proj"
  type: "Convolution"
  bottom: "inception_4e/pool"
  top: "inception_4e/pool_proj"
  param {
    lr_mult: 1
    decay_mult: 1
  }
  param {
    lr_mult: 2
    decay_mult: 0
  }
  convolution_param {
    num_output: 128
    kernel_size: 1
    weight_filler {
      type: "xavier"
      std: 0.1
    }
    bias_filler {
      type: "constant"
      value: 0.2
    }
  }
}
layer {
  name: "inception_4e/relu_pool_proj"
  type: "ReLU"
  bottom: "inception_4e/pool_proj"
  top: "inception_4e/pool_proj"
}
layer {
  name: "inception_4e/output"
  type: "Concat"
  bottom: "inception_4e/1x1"
  bottom: "inception_4e/3x3"
  bottom: "inception_4e/5x5"
  bottom: "inception_4e/pool_proj"
  top: "inception_4e/output"
}
layer {
  name: "pool4/3x3_s2"
  type: "Pooling"
  bottom: "inception_4e/output"
  top: "pool4/3x3_s2"
  pooling_param {
    pool: MAX
    kernel_size: 3
    stride: 2
  }
}
layer {
  name: "inception_5a/1x1"
  type: "Convolution"
  bottom: "pool4/3x3_s2"
  top: "inception_5a/1x1"
  param {
    lr_mult: 1
    decay_mult: 1
  }
  param {
    lr_mult: 2
    decay_mult: 0
  }
  convolution_param {
    num_output: 256
    kernel_size: 1
    weight_filler {
      type: "xavier"
      std: 0.03
    }
    bias_filler {
      type: "constant"
      value: 0.2
    }
  }
}
layer {
  name: "inception_5a/relu_1x1"
  type: "ReLU"
  bottom: "inception_5a/1x1"
  top: "inception_5a/1x1"
}
layer {
  name: "inception_5a/3x3_reduce"
  type: "Convolution"
  bottom: "pool4/3x3_s2"
  top: "inception_5a/3x3_reduce"
  param {
    lr_mult: 1
    decay_mult: 1
  }
  param {
    lr_mult: 2
    decay_mult: 0
  }
  convolution_param {
    num_output: 160
    kernel_size: 1
    weight_filler {
      type: "xavier"
      std: 0.09
    }
    bias_filler {
      type: "constant"
      value: 0.2
    }
  }
}
layer {
  name: "inception_5a/relu_3x3_reduce"
  type: "ReLU"
  bottom: "inception_5a/3x3_reduce"
  top: "inception_5a/3x3_reduce"
}
layer {
  name: "inception_5a/3x3"
  type: "Convolution"
  bottom: "inception_5a/3x3_reduce"
  top: "inception_5a/3x3"
  param {
    lr_mult: 1
    decay_mult: 1
  }
  param {
    lr_mult: 2
    decay_mult: 0
  }
  convolution_param {
    num_output: 320
    pad: 1
    kernel_size: 3
    weight_filler {
      type: "xavier"
      std: 0.03
    }
    bias_filler {
      type: "constant"
      value: 0.2
    }
  }
}
layer {
  name: "inception_5a/relu_3x3"
  type: "ReLU"
  bottom: "inception_5a/3x3"
  top: "inception_5a/3x3"
}
layer {
  name: "inception_5a/5x5_reduce"
  type: "Convolution"
  bottom: "pool4/3x3_s2"
  top: "inception_5a/5x5_reduce"
  param {
    lr_mult: 1
    decay_mult: 1
  }
  param {
    lr_mult: 2
    decay_mult: 0
  }
  convolution_param {
    num_output: 32
    kernel_size: 1
    weight_filler {
      type: "xavier"
      std: 0.2
    }
    bias_filler {
      type: "constant"
      value: 0.2
    }
I0727 20:20:40.792466 28366 layer_factory.hpp:77] Creating layer data
I0727 20:20:40.792485 28366 net.cpp:91] Creating Layer data
I0727 20:20:40.792493 28366 net.cpp:399] data -> data
I0727 20:20:41.826283 28370 net.cpp:141] Setting up data
I0727 20:20:41.826356 28370 net.cpp:148] Top shape: 10 3 224 224 (1505280)
I0727 20:20:41.826364 28370 net.cpp:156] Memory required for data: 6021120
I0727 20:20:41.826381 28370 layer_factory.hpp:77] Creating layer conv1/7x7_s2
I0727 20:20:41.826421 28370 net.cpp:91] Creating Layer conv1/7x7_s2
I0727 20:20:41.826429 28370 net.cpp:425] conv1/7x7_s2 <- data
I0727 20:20:41.826442 28370 net.cpp:399] conv1/7x7_s2 -> conv1/7x7_s2
I0727 20:20:41.832480 28366 net.cpp:141] Setting up data
I0727 20:20:41.832504 28366 net.cpp:148] Top shape: 10 3 224 224 (1505280)
I0727 20:20:41.832509 28366 net.cpp:156] Memory required for data: 6021120
I0727 20:20:41.832516 28366 layer_factory.hpp:77] Creating layer conv1/7x7_s2
I0727 20:20:41.832537 28366 net.cpp:91] Creating Layer conv1/7x7_s2
I0727 20:20:41.832543 28366 net.cpp:425] conv1/7x7_s2 <- data
I0727 20:20:41.832551 28366 net.cpp:399] conv1/7x7_s2 -> conv1/7x7_s2
I0727 20:20:42.234681 28370 net.cpp:141] Setting up conv1/7x7_s2
I0727 20:20:42.234760 28370 net.cpp:148] Top shape: 10 64 112 112 (8028160)
I0727 20:20:42.234772 28370 net.cpp:156] Memory required for data: 38133760
I0727 20:20:42.234809 28370 layer_factory.hpp:77] Creating layer conv1/relu_7x7
I0727 20:20:42.234835 28370 net.cpp:91] Creating Layer conv1/relu_7x7
I0727 20:20:42.234845 28370 net.cpp:425] conv1/relu_7x7 <- conv1/7x7_s2
I0727 20:20:42.234863 28370 net.cpp:386] conv1/relu_7x7 -> conv1/7x7_s2 (in-place)
I0727 20:20:42.236351 28370 net.cpp:141] Setting up conv1/relu_7x7
I0727 20:20:42.236377 28370 net.cpp:148] Top shape: 10 64 112 112 (8028160)
I0727 20:20:42.236385 28370 net.cpp:156] Memory required for data: 70246400
I0727 20:20:42.236393 28370 layer_factory.hpp:77] Creating layer pool1/3x3_s2
I0727 20:20:42.236415 28370 net.cpp:91] Creating Layer pool1/3x3_s2
I0727 20:20:42.236424 28370 net.cpp:425] pool1/3x3_s2 <- conv1/7x7_s2
I0727 20:20:42.236439 28370 net.cpp:399] pool1/3x3_s2 -> pool1/3x3_s2
I0727 20:20:42.236461 28366 net.cpp:141] Setting up conv1/7x7_s2
I0727 20:20:42.236484 28366 net.cpp:148] Top shape: 10 64 112 112 (8028160)
I0727 20:20:42.236492 28366 net.cpp:156] Memory required for data: 38133760
I0727 20:20:42.236512 28366 layer_factory.hpp:77] Creating layer conv1/relu_7x7
I0727 20:20:42.236527 28366 net.cpp:91] Creating Layer conv1/relu_7x7
I0727 20:20:42.236537 28366 net.cpp:425] conv1/relu_7x7 <- conv1/7x7_s2
I0727 20:20:42.236548 28366 net.cpp:386] conv1/relu_7x7 -> conv1/7x7_s2 (in-place)
I0727 20:20:42.237273 28370 net.cpp:141] Setting up pool1/3x3_s2
I0727 20:20:42.237295 28370 net.cpp:148] Top shape: 10 64 56 56 (2007040)
I0727 20:20:42.237304 28370 net.cpp:156] Memory required for data: 78274560
I0727 20:20:42.237313 28370 layer_factory.hpp:77] Creating layer pool1/norm1
I0727 20:20:42.237342 28370 net.cpp:91] Creating Layer pool1/norm1
I0727 20:20:42.237354 28370 net.cpp:425] pool1/norm1 <- pool1/3x3_s2
I0727 20:20:42.237365 28370 net.cpp:399] pool1/norm1 -> pool1/norm1
I0727 20:20:42.237393 28366 net.cpp:141] Setting up conv1/relu_7x7
I0727 20:20:42.237411 28366 net.cpp:148] Top shape: 10 64 112 112 (8028160)
I0727 20:20:42.237418 28366 net.cpp:156] Memory required for data: 70246400
I0727 20:20:42.237426 28366 layer_factory.hpp:77] Creating layer pool1/3x3_s2
I0727 20:20:42.237440 28366 net.cpp:91] Creating Layer pool1/3x3_s2
I0727 20:20:42.237448 28366 net.cpp:425] pool1/3x3_s2 <- conv1/7x7_s2
I0727 20:20:42.237464 28366 net.cpp:399] pool1/3x3_s2 -> pool1/3x3_s2
I0727 20:20:42.238186 28366 net.cpp:141] Setting up pool1/3x3_s2
I0727 20:20:42.238209 28366 net.cpp:148] Top shape: 10 64 56 56 (2007040)
I0727 20:20:42.238216 28366 net.cpp:156] Memory required for data: 78274560
I0727 20:20:42.238225 28366 layer_factory.hpp:77] Creating layer pool1/norm1
I0727 20:20:42.238245 28366 net.cpp:91] Creating Layer pool1/norm1
I0727 20:20:42.238253 28366 net.cpp:425] pool1/norm1 <- pool1/3x3_s2
I0727 20:20:42.238265 28366 net.cpp:399] pool1/norm1 -> pool1/norm1
I0727 20:20:42.239085 28370 net.cpp:141] Setting up pool1/norm1
I0727 20:20:42.239109 28370 net.cpp:148] Top shape: 10 64 56 56 (2007040)
I0727 20:20:42.239116 28370 net.cpp:156] Memory required for data: 86302720
I0727 20:20:42.239125 28370 layer_factory.hpp:77] Creating layer conv2/3x3_reduce
I0727 20:20:42.239159 28370 net.cpp:91] Creating Layer conv2/3x3_reduce
I0727 20:20:42.239171 28370 net.cpp:425] conv2/3x3_reduce <- pool1/norm1
I0727 20:20:42.239184 28370 net.cpp:399] conv2/3x3_reduce -> conv2/3x3_reduce
I0727 20:20:42.239281 28366 net.cpp:141] Setting up pool1/norm1
I0727 20:20:42.239300 28366 net.cpp:148] Top shape: 10 64 56 56 (2007040)
I0727 20:20:42.239308 28366 net.cpp:156] Memory required for data: 86302720
I0727 20:20:42.239316 28366 layer_factory.hpp:77] Creating layer conv2/3x3_reduce
I0727 20:20:42.239339 28366 net.cpp:91] Creating Layer conv2/3x3_reduce
I0727 20:20:42.239349 28366 net.cpp:425] conv2/3x3_reduce <- pool1/norm1
I0727 20:20:42.239364 28366 net.cpp:399] conv2/3x3_reduce -> conv2/3x3_reduce
I0727 20:20:42.245584 28370 net.cpp:141] Setting up conv2/3x3_reduce
I0727 20:20:42.245618 28370 net.cpp:148] Top shape: 10 64 56 56 (2007040)
I0727 20:20:42.245628 28370 net.cpp:156] Memory required for data: 94330880
I0727 20:20:42.245652 28370 layer_factory.hpp:77] Creating layer conv2/relu_3x3_reduce
I0727 20:20:42.245669 28370 net.cpp:91] Creating Layer conv2/relu_3x3_reduce
I0727 20:20:42.245679 28370 net.cpp:425] conv2/relu_3x3_reduce <- conv2/3x3_reduce
I0727 20:20:42.245697 28370 net.cpp:386] conv2/relu_3x3_reduce -> conv2/3x3_reduce (in-place)
I0727 20:20:42.246662 28370 net.cpp:141] Setting up conv2/relu_3x3_reduce
I0727 20:20:42.246700 28370 net.cpp:148] Top shape: 10 64 56 56 (2007040)
I0727 20:20:42.246709 28370 net.cpp:156] Memory required for data: 102359040
I0727 20:20:42.246719 28370 layer_factory.hpp:77] Creating layer conv2/3x3
I0727 20:20:42.246757 28370 net.cpp:91] Creating Layer conv2/3x3
I0727 20:20:42.246769 28370 net.cpp:425] conv2/3x3 <- conv2/3x3_reduce
I0727 20:20:42.246779 28366 net.cpp:141] Setting up conv2/3x3_reduce
I0727 20:20:42.246789 28370 net.cpp:399] conv2/3x3 -> conv2/3x3
I0727 20:20:42.246796 28366 net.cpp:148] Top shape: 10 64 56 56 (2007040)
I0727 20:20:42.246803 28366 net.cpp:156] Memory required for data: 94330880
I0727 20:20:42.246821 28366 layer_factory.hpp:77] Creating layer conv2/relu_3x3_reduce
I0727 20:20:42.246834 28366 net.cpp:91] Creating Layer conv2/relu_3x3_reduce
I0727 20:20:42.246843 28366 net.cpp:425] conv2/relu_3x3_reduce <- conv2/3x3_reduce
I0727 20:20:42.246855 28366 net.cpp:386] conv2/relu_3x3_reduce -> conv2/3x3_reduce (in-place)
I0727 20:20:42.247826 28366 net.cpp:141] Setting up conv2/relu_3x3_reduce
I0727 20:20:42.247848 28366 net.cpp:148] Top shape: 10 64 56 56 (2007040)
I0727 20:20:42.247858 28366 net.cpp:156] Memory required for data: 102359040
I0727 20:20:42.247866 28366 layer_factory.hpp:77] Creating layer conv2/3x3
I0727 20:20:42.247890 28366 net.cpp:91] Creating Layer conv2/3x3
I0727 20:20:42.247900 28366 net.cpp:425] conv2/3x3 <- conv2/3x3_reduce
I0727 20:20:42.247918 28366 net.cpp:399] conv2/3x3 -> conv2/3x3
I0727 20:20:42.255568 28370 net.cpp:141] Setting up conv2/3x3
I0727 20:20:42.255600 28370 net.cpp:148] Top shape: 10 192 56 56 (6021120)
I0727 20:20:42.255609 28370 net.cpp:156] Memory required for data: 126443520
I0727 20:20:42.255630 28370 layer_factory.hpp:77] Creating layer conv2/relu_3x3
I0727 20:20:42.255648 28370 net.cpp:91] Creating Layer conv2/relu_3x3
I0727 20:20:42.255656 28370 net.cpp:425] conv2/relu_3x3 <- conv2/3x3
I0727 20:20:42.255667 28370 net.cpp:386] conv2/relu_3x3 -> conv2/3x3 (in-place)
I0727 20:20:42.256037 28370 net.cpp:141] Setting up conv2/relu_3x3
I0727 20:20:42.256054 28370 net.cpp:148] Top shape: 10 192 56 56 (6021120)
I0727 20:20:42.256062 28370 net.cpp:156] Memory required for data: 150528000
I0727 20:20:42.256072 28370 layer_factory.hpp:77] Creating layer conv2/norm2
I0727 20:20:42.256089 28370 net.cpp:91] Creating Layer conv2/norm2
I0727 20:20:42.256098 28370 net.cpp:425] conv2/norm2 <- conv2/3x3
I0727 20:20:42.256110 28370 net.cpp:399] conv2/norm2 -> conv2/norm2
I0727 20:20:42.257247 28370 net.cpp:141] Setting up conv2/norm2
I0727 20:20:42.257269 28370 net.cpp:148] Top shape: 10 192 56 56 (6021120)
I0727 20:20:42.257277 28370 net.cpp:156] Memory required for data: 174612480
I0727 20:20:42.257283 28370 layer_factory.hpp:77] Creating layer pool2/3x3_s2
I0727 20:20:42.257297 28370 net.cpp:91] Creating Layer pool2/3x3_s2
I0727 20:20:42.257308 28370 net.cpp:425] pool2/3x3_s2 <- conv2/norm2
I0727 20:20:42.257318 28370 net.cpp:399] pool2/3x3_s2 -> pool2/3x3_s2
I0727 20:20:42.257905 28366 net.cpp:141] Setting up conv2/3x3
I0727 20:20:42.257926 28366 net.cpp:148] Top shape: 10 192 56 56 (6021120)
I0727 20:20:42.257936 28366 net.cpp:156] Memory required for data: 126443520
I0727 20:20:42.257956 28366 layer_factory.hpp:77] Creating layer conv2/relu_3x3
I0727 20:20:42.257956 28370 net.cpp:141] Setting up pool2/3x3_s2
I0727 20:20:42.257979 28370 net.cpp:148] Top shape: 10 192 28 28 (1505280)
I0727 20:20:42.257982 28366 net.cpp:91] Creating Layer conv2/relu_3x3
I0727 20:20:42.257992 28370 net.cpp:156] Memory required for data: 180633600
I0727 20:20:42.257999 28366 net.cpp:425] conv2/relu_3x3 <- conv2/3x3
I0727 20:20:42.258003 28370 layer_factory.hpp:77] Creating layer pool2/3x3_s2_pool2/3x3_s2_0_split
I0727 20:20:42.258015 28366 net.cpp:386] conv2/relu_3x3 -> conv2/3x3 (in-place)
I0727 20:20:42.258025 28370 net.cpp:91] Creating Layer pool2/3x3_s2_pool2/3x3_s2_0_split
I0727 20:20:42.258034 28370 net.cpp:425] pool2/3x3_s2_pool2/3x3_s2_0_split <- pool2/3x3_s2
I0727 20:20:42.258049 28370 net.cpp:399] pool2/3x3_s2_pool2/3x3_s2_0_split -> pool2/3x3_s2_pool2/3x3_s2_0_split_0
I0727 20:20:42.258064 28370 net.cpp:399] pool2/3x3_s2_pool2/3x3_s2_0_split -> pool2/3x3_s2_pool2/3x3_s2_0_split_1
I0727 20:20:42.258080 28370 net.cpp:399] pool2/3x3_s2_pool2/3x3_s2_0_split -> pool2/3x3_s2_pool2/3x3_s2_0_split_2
I0727 20:20:42.258093 28370 net.cpp:399] pool2/3x3_s2_pool2/3x3_s2_0_split -> pool2/3x3_s2_pool2/3x3_s2_0_split_3
I0727 20:20:42.258479 28370 net.cpp:141] Setting up pool2/3x3_s2_pool2/3x3_s2_0_split
I0727 20:20:42.258494 28366 net.cpp:141] Setting up conv2/relu_3x3
I0727 20:20:42.258498 28370 net.cpp:148] Top shape: 10 192 28 28 (1505280)
I0727 20:20:42.258512 28366 net.cpp:148] Top shape: 10 192 56 56 (6021120)
I0727 20:20:42.258517 28370 net.cpp:148] Top shape: 10 192 28 28 (1505280)
I0727 20:20:42.258522 28366 net.cpp:156] Memory required for data: 150528000
I0727 20:20:42.258525 28370 net.cpp:148] Top shape: 10 192 28 28 (1505280)
I0727 20:20:42.258529 28366 layer_factory.hpp:77] Creating layer conv2/norm2
I0727 20:20:42.258534 28370 net.cpp:148] Top shape: 10 192 28 28 (1505280)
I0727 20:20:42.258540 28370 net.cpp:156] Memory required for data: 204718080
I0727 20:20:42.258548 28370 layer_factory.hpp:77] Creating layer inception_3a/1x1
I0727 20:20:42.258549 28366 net.cpp:91] Creating Layer conv2/norm2
I0727 20:20:42.258565 28366 net.cpp:425] conv2/norm2 <- conv2/3x3
I0727 20:20:42.258577 28366 net.cpp:399] conv2/norm2 -> conv2/norm2
I0727 20:20:42.258577 28370 net.cpp:91] Creating Layer inception_3a/1x1
I0727 20:20:42.258589 28370 net.cpp:425] inception_3a/1x1 <- pool2/3x3_s2_pool2/3x3_s2_0_split_0
I0727 20:20:42.258628 28370 net.cpp:399] inception_3a/1x1 -> inception_3a/1x1
I0727 20:20:42.259716 28366 net.cpp:141] Setting up conv2/norm2
I0727 20:20:42.259734 28366 net.cpp:148] Top shape: 10 192 56 56 (6021120)
I0727 20:20:42.259743 28366 net.cpp:156] Memory required for data: 174612480
I0727 20:20:42.259752 28366 layer_factory.hpp:77] Creating layer pool2/3x3_s2
I0727 20:20:42.259765 28366 net.cpp:91] Creating Layer pool2/3x3_s2
I0727 20:20:42.259774 28366 net.cpp:425] pool2/3x3_s2 <- conv2/norm2
I0727 20:20:42.259791 28366 net.cpp:399] pool2/3x3_s2 -> pool2/3x3_s2
I0727 20:20:42.259977 28366 net.cpp:141] Setting up pool2/3x3_s2
I0727 20:20:42.259996 28366 net.cpp:148] Top shape: 10 192 28 28 (1505280)
I0727 20:20:42.260004 28366 net.cpp:156] Memory required for data: 180633600
I0727 20:20:42.260011 28366 layer_factory.hpp:77] Creating layer pool2/3x3_s2_pool2/3x3_s2_0_split
I0727 20:20:42.260022 28366 net.cpp:91] Creating Layer pool2/3x3_s2_pool2/3x3_s2_0_split
I0727 20:20:42.260030 28366 net.cpp:425] pool2/3x3_s2_pool2/3x3_s2_0_split <- pool2/3x3_s2
I0727 20:20:42.260043 28366 net.cpp:399] pool2/3x3_s2_pool2/3x3_s2_0_split -> pool2/3x3_s2_pool2/3x3_s2_0_split_0
I0727 20:20:42.260057 28366 net.cpp:399] pool2/3x3_s2_pool2/3x3_s2_0_split -> pool2/3x3_s2_pool2/3x3_s2_0_split_1
I0727 20:20:42.260068 28366 net.cpp:399] pool2/3x3_s2_pool2/3x3_s2_0_split -> pool2/3x3_s2_pool2/3x3_s2_0_split_2
I0727 20:20:42.260079 28366 net.cpp:399] pool2/3x3_s2_pool2/3x3_s2_0_split -> pool2/3x3_s2_pool2/3x3_s2_0_split_3
I0727 20:20:42.260396 28366 net.cpp:141] Setting up pool2/3x3_s2_pool2/3x3_s2_0_split
I0727 20:20:42.260414 28366 net.cpp:148] Top shape: 10 192 28 28 (1505280)
I0727 20:20:42.260426 28366 net.cpp:148] Top shape: 10 192 28 28 (1505280)
I0727 20:20:42.260435 28366 net.cpp:148] Top shape: 10 192 28 28 (1505280)
I0727 20:20:42.260445 28366 net.cpp:148] Top shape: 10 192 28 28 (1505280)
I0727 20:20:42.260452 28366 net.cpp:156] Memory required for data: 204718080
I0727 20:20:42.260460 28366 layer_factory.hpp:77] Creating layer inception_3a/1x1
I0727 20:20:42.260483 28366 net.cpp:91] Creating Layer inception_3a/1x1
I0727 20:20:42.260493 28366 net.cpp:425] inception_3a/1x1 <- pool2/3x3_s2_pool2/3x3_s2_0_split_0
I0727 20:20:42.260514 28366 net.cpp:399] inception_3a/1x1 -> inception_3a/1x1
I0727 20:20:42.266748 28370 net.cpp:141] Setting up inception_3a/1x1
I0727 20:20:42.266793 28370 net.cpp:148] Top shape: 10 64 28 28 (501760)
I0727 20:20:42.266803 28370 net.cpp:156] Memory required for data: 206725120
I0727 20:20:42.266824 28370 layer_factory.hpp:77] Creating layer inception_3a/relu_1x1
I0727 20:20:42.266844 28370 net.cpp:91] Creating Layer inception_3a/relu_1x1
I0727 20:20:42.266855 28370 net.cpp:425] inception_3a/relu_1x1 <- inception_3a/1x1
I0727 20:20:42.266875 28370 net.cpp:386] inception_3a/relu_1x1 -> inception_3a/1x1 (in-place)
I0727 20:20:42.267621 28370 net.cpp:141] Setting up inception_3a/relu_1x1
I0727 20:20:42.267639 28370 net.cpp:148] Top shape: 10 64 28 28 (501760)
I0727 20:20:42.267647 28370 net.cpp:156] Memory required for data: 208732160
I0727 20:20:42.267654 28370 layer_factory.hpp:77] Creating layer inception_3a/3x3_reduce
I0727 20:20:42.267680 28370 net.cpp:91] Creating Layer inception_3a/3x3_reduce
I0727 20:20:42.267690 28370 net.cpp:425] inception_3a/3x3_reduce <- pool2/3x3_s2_pool2/3x3_s2_0_split_1
I0727 20:20:42.267710 28370 net.cpp:399] inception_3a/3x3_reduce -> inception_3a/3x3_reduce
I0727 20:20:42.269429 28366 net.cpp:141] Setting up inception_3a/1x1
I0727 20:20:42.269454 28366 net.cpp:148] Top shape: 10 64 28 28 (501760)
I0727 20:20:42.269462 28366 net.cpp:156] Memory required for data: 206725120
I0727 20:20:42.269489 28366 layer_factory.hpp:77] Creating layer inception_3a/relu_1x1
I0727 20:20:42.269505 28366 net.cpp:91] Creating Layer inception_3a/relu_1x1
I0727 20:20:42.269515 28366 net.cpp:425] inception_3a/relu_1x1 <- inception_3a/1x1
I0727 20:20:42.269529 28366 net.cpp:386] inception_3a/relu_1x1 -> inception_3a/1x1 (in-place)
I0727 20:20:42.270004 28366 net.cpp:141] Setting up inception_3a/relu_1x1
I0727 20:20:42.270022 28366 net.cpp:148] Top shape: 10 64 28 28 (501760)
I0727 20:20:42.270030 28366 net.cpp:156] Memory required for data: 208732160
I0727 20:20:42.270037 28366 layer_factory.hpp:77] Creating layer inception_3a/3x3_reduce
I0727 20:20:42.270081 28366 net.cpp:91] Creating Layer inception_3a/3x3_reduce
I0727 20:20:42.270097 28366 net.cpp:425] inception_3a/3x3_reduce <- pool2/3x3_s2_pool2/3x3_s2_0_split_1
I0727 20:20:42.270118 28366 net.cpp:399] inception_3a/3x3_reduce -> inception_3a/3x3_reduce
I0727 20:20:42.277603 28370 net.cpp:141] Setting up inception_3a/3x3_reduce
I0727 20:20:42.277658 28370 net.cpp:148] Top shape: 10 96 28 28 (752640)
I0727 20:20:42.277669 28370 net.cpp:156] Memory required for data: 211742720
I0727 20:20:42.277704 28370 layer_factory.hpp:77] Creating layer inception_3a/relu_3x3_reduce
I0727 20:20:42.277725 28370 net.cpp:91] Creating Layer inception_3a/relu_3x3_reduce
I0727 20:20:42.277739 28370 net.cpp:425] inception_3a/relu_3x3_reduce <- inception_3a/3x3_reduce
I0727 20:20:42.277755 28370 net.cpp:386] inception_3a/relu_3x3_reduce -> inception_3a/3x3_reduce (in-place)
I0727 20:20:42.278116 28370 net.cpp:141] Setting up inception_3a/relu_3x3_reduce
I0727 20:20:42.278133 28370 net.cpp:148] Top shape: 10 96 28 28 (752640)
I0727 20:20:42.278141 28370 net.cpp:156] Memory required for data: 214753280
I0727 20:20:42.278149 28370 layer_factory.hpp:77] Creating layer inception_3a/3x3
I0727 20:20:42.278183 28370 net.cpp:91] Creating Layer inception_3a/3x3
I0727 20:20:42.278193 28370 net.cpp:425] inception_3a/3x3 <- inception_3a/3x3_reduce
I0727 20:20:42.278213 28370 net.cpp:399] inception_3a/3x3 -> inception_3a/3x3
I0727 20:20:42.279350 28366 net.cpp:141] Setting up inception_3a/3x3_reduce
I0727 20:20:42.279372 28366 net.cpp:148] Top shape: 10 96 28 28 (752640)
I0727 20:20:42.279381 28366 net.cpp:156] Memory required for data: 211742720
I0727 20:20:42.279399 28366 layer_factory.hpp:77] Creating layer inception_3a/relu_3x3_reduce
I0727 20:20:42.279415 28366 net.cpp:91] Creating Layer inception_3a/relu_3x3_reduce
I0727 20:20:42.279424 28366 net.cpp:425] inception_3a/relu_3x3_reduce <- inception_3a/3x3_reduce
I0727 20:20:42.279434 28366 net.cpp:386] inception_3a/relu_3x3_reduce -> inception_3a/3x3_reduce (in-place)
I0727 20:20:42.279752 28366 net.cpp:141] Setting up inception_3a/relu_3x3_reduce
I0727 20:20:42.279767 28366 net.cpp:148] Top shape: 10 96 28 28 (752640)
I0727 20:20:42.279773 28366 net.cpp:156] Memory required for data: 214753280
I0727 20:20:42.279781 28366 layer_factory.hpp:77] Creating layer inception_3a/3x3
I0727 20:20:42.279804 28366 net.cpp:91] Creating Layer inception_3a/3x3
I0727 20:20:42.279813 28366 net.cpp:425] inception_3a/3x3 <- inception_3a/3x3_reduce
I0727 20:20:42.279827 28366 net.cpp:399] inception_3a/3x3 -> inception_3a/3x3
I0727 20:20:42.284204 28370 net.cpp:141] Setting up inception_3a/3x3
I0727 20:20:42.284230 28370 net.cpp:148] Top shape: 10 128 28 28 (1003520)
I0727 20:20:42.284240 28370 net.cpp:156] Memory required for data: 218767360
I0727 20:20:42.284257 28370 layer_factory.hpp:77] Creating layer inception_3a/relu_3x3
I0727 20:20:42.284292 28370 net.cpp:91] Creating Layer inception_3a/relu_3x3
I0727 20:20:42.284303 28370 net.cpp:425] inception_3a/relu_3x3 <- inception_3a/3x3
I0727 20:20:42.284318 28370 net.cpp:386] inception_3a/relu_3x3 -> inception_3a/3x3 (in-place)
I0727 20:20:42.285316 28370 net.cpp:141] Setting up inception_3a/relu_3x3
I0727 20:20:42.285337 28370 net.cpp:148] Top shape: 10 128 28 28 (1003520)
I0727 20:20:42.285346 28370 net.cpp:156] Memory required for data: 222781440
I0727 20:20:42.285354 28370 layer_factory.hpp:77] Creating layer inception_3a/5x5_reduce
I0727 20:20:42.285377 28370 net.cpp:91] Creating Layer inception_3a/5x5_reduce
I0727 20:20:42.285389 28370 net.cpp:425] inception_3a/5x5_reduce <- pool2/3x3_s2_pool2/3x3_s2_0_split_2
I0727 20:20:42.285392 28366 net.cpp:141] Setting up inception_3a/3x3
I0727 20:20:42.285405 28366 net.cpp:148] Top shape: 10 128 28 28 (1003520)
I0727 20:20:42.285409 28370 net.cpp:399] inception_3a/5x5_reduce -> inception_3a/5x5_reduce
I0727 20:20:42.285413 28366 net.cpp:156] Memory required for data: 218767360
I0727 20:20:42.285428 28366 layer_factory.hpp:77] Creating layer inception_3a/relu_3x3
I0727 20:20:42.285440 28366 net.cpp:91] Creating Layer inception_3a/relu_3x3
I0727 20:20:42.285449 28366 net.cpp:425] inception_3a/relu_3x3 <- inception_3a/3x3
I0727 20:20:42.285460 28366 net.cpp:386] inception_3a/relu_3x3 -> inception_3a/3x3 (in-place)
I0727 20:20:42.286468 28366 net.cpp:141] Setting up inception_3a/relu_3x3
I0727 20:20:42.286490 28366 net.cpp:148] Top shape: 10 128 28 28 (1003520)
I0727 20:20:42.286499 28366 net.cpp:156] Memory required for data: 222781440
I0727 20:20:42.286507 28366 layer_factory.hpp:77] Creating layer inception_3a/5x5_reduce
I0727 20:20:42.286531 28366 net.cpp:91] Creating Layer inception_3a/5x5_reduce
I0727 20:20:42.286542 28366 net.cpp:425] inception_3a/5x5_reduce <- pool2/3x3_s2_pool2/3x3_s2_0_split_2
I0727 20:20:42.286561 28366 net.cpp:399] inception_3a/5x5_reduce -> inception_3a/5x5_reduce
I0727 20:20:42.298840 28370 net.cpp:141] Setting up inception_3a/5x5_reduce
I0727 20:20:42.298908 28370 net.cpp:148] Top shape: 10 16 28 28 (125440)
I0727 20:20:42.298919 28370 net.cpp:156] Memory required for data: 223283200
I0727 20:20:42.298945 28370 layer_factory.hpp:77] Creating layer inception_3a/relu_5x5_reduce
I0727 20:20:42.298969 28370 net.cpp:91] Creating Layer inception_3a/relu_5x5_reduce
I0727 20:20:42.298980 28370 net.cpp:425] inception_3a/relu_5x5_reduce <- inception_3a/5x5_reduce
I0727 20:20:42.298996 28370 net.cpp:386] inception_3a/relu_5x5_reduce -> inception_3a/5x5_reduce (in-place)
I0727 20:20:42.299572 28370 net.cpp:141] Setting up inception_3a/relu_5x5_reduce
I0727 20:20:42.299589 28370 net.cpp:148] Top shape: 10 16 28 28 (125440)
I0727 20:20:42.299597 28370 net.cpp:156] Memory required for data: 223784960
I0727 20:20:42.299605 28370 layer_factory.hpp:77] Creating layer inception_3a/5x5
I0727 20:20:42.299638 28370 net.cpp:91] Creating Layer inception_3a/5x5
I0727 20:20:42.299649 28370 net.cpp:425] inception_3a/5x5 <- inception_3a/5x5_reduce
I0727 20:20:42.299651 28366 net.cpp:141] Setting up inception_3a/5x5_reduce
I0727 20:20:42.299664 28370 net.cpp:399] inception_3a/5x5 -> inception_3a/5x5
I0727 20:20:42.299667 28366 net.cpp:148] Top shape: 10 16 28 28 (125440)
I0727 20:20:42.299674 28366 net.cpp:156] Memory required for data: 223283200
I0727 20:20:42.299690 28366 layer_factory.hpp:77] Creating layer inception_3a/relu_5x5_reduce
I0727 20:20:42.299703 28366 net.cpp:91] Creating Layer inception_3a/relu_5x5_reduce
I0727 20:20:42.299712 28366 net.cpp:425] inception_3a/relu_5x5_reduce <- inception_3a/5x5_reduce
I0727 20:20:42.299731 28366 net.cpp:386] inception_3a/relu_5x5_reduce -> inception_3a/5x5_reduce (in-place)
I0727 20:20:42.300228 28366 net.cpp:141] Setting up inception_3a/relu_5x5_reduce
I0727 20:20:42.300249 28366 net.cpp:148] Top shape: 10 16 28 28 (125440)
I0727 20:20:42.300258 28366 net.cpp:156] Memory required for data: 223784960
I0727 20:20:42.300266 28366 layer_factory.hpp:77] Creating layer inception_3a/5x5
I0727 20:20:42.300293 28366 net.cpp:91] Creating Layer inception_3a/5x5
I0727 20:20:42.300304 28366 net.cpp:425] inception_3a/5x5 <- inception_3a/5x5_reduce
I0727 20:20:42.300319 28366 net.cpp:399] inception_3a/5x5 -> inception_3a/5x5
I0727 20:20:42.306491 28370 net.cpp:141] Setting up inception_3a/5x5
I0727 20:20:42.306524 28370 net.cpp:148] Top shape: 10 32 28 28 (250880)
I0727 20:20:42.306532 28370 net.cpp:156] Memory required for data: 224788480
I0727 20:20:42.306550 28370 layer_factory.hpp:77] Creating layer inception_3a/relu_5x5
I0727 20:20:42.306565 28370 net.cpp:91] Creating Layer inception_3a/relu_5x5
I0727 20:20:42.306576 28370 net.cpp:425] inception_3a/relu_5x5 <- inception_3a/5x5
I0727 20:20:42.306593 28370 net.cpp:386] inception_3a/relu_5x5 -> inception_3a/5x5 (in-place)
I0727 20:20:42.306969 28370 net.cpp:141] Setting up inception_3a/relu_5x5
I0727 20:20:42.306991 28370 net.cpp:148] Top shape: 10 32 28 28 (250880)
I0727 20:20:42.307000 28370 net.cpp:156] Memory required for data: 225792000
I0727 20:20:42.307008 28370 layer_factory.hpp:77] Creating layer inception_3a/pool
I0727 20:20:42.307021 28370 net.cpp:91] Creating Layer inception_3a/pool
I0727 20:20:42.307031 28370 net.cpp:425] inception_3a/pool <- pool2/3x3_s2_pool2/3x3_s2_0_split_3
I0727 20:20:42.307044 28370 net.cpp:399] inception_3a/pool -> inception_3a/pool
I0727 20:20:42.307566 28366 net.cpp:141] Setting up inception_3a/5x5
I0727 20:20:42.307586 28366 net.cpp:148] Top shape: 10 32 28 28 (250880)
I0727 20:20:42.307595 28366 net.cpp:156] Memory required for data: 224788480
I0727 20:20:42.307610 28366 layer_factory.hpp:77] Creating layer inception_3a/relu_5x5
I0727 20:20:42.307616 28370 net.cpp:141] Setting up inception_3a/pool
I0727 20:20:42.307624 28366 net.cpp:91] Creating Layer inception_3a/relu_5x5
I0727 20:20:42.307633 28366 net.cpp:425] inception_3a/relu_5x5 <- inception_3a/5x5
I0727 20:20:42.307633 28370 net.cpp:148] Top shape: 10 192 28 28 (1505280)
I0727 20:20:42.307651 28370 net.cpp:156] Memory required for data: 231813120
I0727 20:20:42.307653 28366 net.cpp:386] inception_3a/relu_5x5 -> inception_3a/5x5 (in-place)
I0727 20:20:42.307660 28370 layer_factory.hpp:77] Creating layer inception_3a/pool_proj
I0727 20:20:42.307682 28370 net.cpp:91] Creating Layer inception_3a/pool_proj
I0727 20:20:42.307693 28370 net.cpp:425] inception_3a/pool_proj <- inception_3a/pool
I0727 20:20:42.307710 28370 net.cpp:399] inception_3a/pool_proj -> inception_3a/pool_proj
I0727 20:20:42.308115 28366 net.cpp:141] Setting up inception_3a/relu_5x5
I0727 20:20:42.308132 28366 net.cpp:148] Top shape: 10 32 28 28 (250880)
I0727 20:20:42.308140 28366 net.cpp:156] Memory required for data: 225792000
I0727 20:20:42.308149 28366 layer_factory.hpp:77] Creating layer inception_3a/pool
I0727 20:20:42.308166 28366 net.cpp:91] Creating Layer inception_3a/pool
I0727 20:20:42.308176 28366 net.cpp:425] inception_3a/pool <- pool2/3x3_s2_pool2/3x3_s2_0_split_3
I0727 20:20:42.308189 28366 net.cpp:399] inception_3a/pool -> inception_3a/pool
I0727 20:20:42.308387 28366 net.cpp:141] Setting up inception_3a/pool
I0727 20:20:42.308404 28366 net.cpp:148] Top shape: 10 192 28 28 (1505280)
I0727 20:20:42.308411 28366 net.cpp:156] Memory required for data: 231813120
I0727 20:20:42.308419 28366 layer_factory.hpp:77] Creating layer inception_3a/pool_proj
I0727 20:20:42.308445 28366 net.cpp:91] Creating Layer inception_3a/pool_proj
I0727 20:20:42.308456 28366 net.cpp:425] inception_3a/pool_proj <- inception_3a/pool
I0727 20:20:42.308471 28366 net.cpp:399] inception_3a/pool_proj -> inception_3a/pool_proj
I0727 20:20:42.311904 28370 net.cpp:141] Setting up inception_3a/pool_proj
I0727 20:20:42.311929 28370 net.cpp:148] Top shape: 10 32 28 28 (250880)
I0727 20:20:42.311939 28370 net.cpp:156] Memory required for data: 232816640
I0727 20:20:42.311965 28370 layer_factory.hpp:77] Creating layer inception_3a/relu_pool_proj
I0727 20:20:42.311980 28370 net.cpp:91] Creating Layer inception_3a/relu_pool_proj
I0727 20:20:42.311990 28370 net.cpp:425] inception_3a/relu_pool_proj <- inception_3a/pool_proj
I0727 20:20:42.312001 28370 net.cpp:386] inception_3a/relu_pool_proj -> inception_3a/pool_proj (in-place)
I0727 20:20:42.313431 28370 net.cpp:141] Setting up inception_3a/relu_pool_proj
I0727 20:20:42.313458 28370 net.cpp:148] Top shape: 10 32 28 28 (250880)
I0727 20:20:42.313467 28370 net.cpp:156] Memory required for data: 233820160
I0727 20:20:42.313474 28370 layer_factory.hpp:77] Creating layer inception_3a/output
I0727 20:20:42.313511 28370 net.cpp:91] Creating Layer inception_3a/output
I0727 20:20:42.313522 28370 net.cpp:425] inception_3a/output <- inception_3a/1x1
I0727 20:20:42.313532 28370 net.cpp:425] inception_3a/output <- inception_3a/3x3
I0727 20:20:42.313542 28370 net.cpp:425] inception_3a/output <- inception_3a/5x5
I0727 20:20:42.313550 28370 net.cpp:425] inception_3a/output <- inception_3a/pool_proj
I0727 20:20:42.313561 28370 net.cpp:399] inception_3a/output -> inception_3a/output
I0727 20:20:42.313626 28366 net.cpp:141] Setting up inception_3a/pool_proj
I0727 20:20:42.313647 28366 net.cpp:148] Top shape: 10 32 28 28 (250880)
I0727 20:20:42.313654 28366 net.cpp:156] Memory required for data: 232816640
I0727 20:20:42.313673 28370 net.cpp:141] Setting up inception_3a/output
I0727 20:20:42.313676 28366 layer_factory.hpp:77] Creating layer inception_3a/relu_pool_proj
I0727 20:20:42.313685 28370 net.cpp:148] Top shape: 10 256 28 28 (2007040)
I0727 20:20:42.313693 28366 net.cpp:91] Creating Layer inception_3a/relu_pool_proj
I0727 20:20:42.313694 28370 net.cpp:156] Memory required for data: 241848320
I0727 20:20:42.313706 28366 net.cpp:425] inception_3a/relu_pool_proj <- inception_3a/pool_proj
I0727 20:20:42.313709 28370 layer_factory.hpp:77] Creating layer inception_3a/output_inception_3a/output_0_split
I0727 20:20:42.313719 28370 net.cpp:91] Creating Layer inception_3a/output_inception_3a/output_0_split
I0727 20:20:42.313719 28366 net.cpp:386] inception_3a/relu_pool_proj -> inception_3a/pool_proj (in-place)
I0727 20:20:42.313731 28370 net.cpp:425] inception_3a/output_inception_3a/output_0_split <- inception_3a/output
I0727 20:20:42.313748 28370 net.cpp:399] inception_3a/output_inception_3a/output_0_split -> inception_3a/output_inception_3a/output_0_split_0
I0727 20:20:42.313766 28370 net.cpp:399] inception_3a/output_inception_3a/output_0_split -> inception_3a/output_inception_3a/output_0_split_1
I0727 20:20:42.313781 28370 net.cpp:399] inception_3a/output_inception_3a/output_0_split -> inception_3a/output_inception_3a/output_0_split_2
I0727 20:20:42.313796 28370 net.cpp:399] inception_3a/output_inception_3a/output_0_split -> inception_3a/output_inception_3a/output_0_split_3
I0727 20:20:42.314713 28370 net.cpp:141] Setting up inception_3a/output_inception_3a/output_0_split
I0727 20:20:42.314718 28366 net.cpp:141] Setting up inception_3a/relu_pool_proj
I0727 20:20:42.314738 28370 net.cpp:148] Top shape: 10 256 28 28 (2007040)
I0727 20:20:42.314739 28366 net.cpp:148] Top shape: 10 32 28 28 (250880)
I0727 20:20:42.314749 28366 net.cpp:156] Memory required for data: 233820160
I0727 20:20:42.314749 28370 net.cpp:148] Top shape: 10 256 28 28 (2007040)
I0727 20:20:42.314761 28366 layer_factory.hpp:77] Creating layer inception_3a/output
I0727 20:20:42.314766 28370 net.cpp:148] Top shape: 10 256 28 28 (2007040)
I0727 20:20:42.314776 28370 net.cpp:148] Top shape: 10 256 28 28 (2007040)
I0727 20:20:42.314780 28366 net.cpp:91] Creating Layer inception_3a/output
I0727 20:20:42.314784 28370 net.cpp:156] Memory required for data: 273960960
I0727 20:20:42.314788 28366 net.cpp:425] inception_3a/output <- inception_3a/1x1
I0727 20:20:42.314790 28370 layer_factory.hpp:77] Creating layer inception_3b/1x1
I0727 20:20:42.314803 28366 net.cpp:425] inception_3a/output <- inception_3a/3x3
I0727 20:20:42.314813 28366 net.cpp:425] inception_3a/output <- inception_3a/5x5
I0727 20:20:42.314815 28370 net.cpp:91] Creating Layer inception_3b/1x1
I0727 20:20:42.314823 28370 net.cpp:425] inception_3b/1x1 <- inception_3a/output_inception_3a/output_0_split_0
I0727 20:20:42.314823 28366 net.cpp:425] inception_3a/output <- inception_3a/pool_proj
I0727 20:20:42.314849 28366 net.cpp:399] inception_3a/output -> inception_3a/output
I0727 20:20:42.314848 28370 net.cpp:399] inception_3b/1x1 -> inception_3b/1x1
I0727 20:20:42.314949 28366 net.cpp:141] Setting up inception_3a/output
I0727 20:20:42.314966 28366 net.cpp:148] Top shape: 10 256 28 28 (2007040)
I0727 20:20:42.314973 28366 net.cpp:156] Memory required for data: 241848320
I0727 20:20:42.314982 28366 layer_factory.hpp:77] Creating layer inception_3a/output_inception_3a/output_0_split
I0727 20:20:42.314995 28366 net.cpp:91] Creating Layer inception_3a/output_inception_3a/output_0_split
I0727 20:20:42.315002 28366 net.cpp:425] inception_3a/output_inception_3a/output_0_split <- inception_3a/output
I0727 20:20:42.315017 28366 net.cpp:399] inception_3a/output_inception_3a/output_0_split -> inception_3a/output_inception_3a/output_0_split_0
I0727 20:20:42.315032 28366 net.cpp:399] inception_3a/output_inception_3a/output_0_split -> inception_3a/output_inception_3a/output_0_split_1
I0727 20:20:42.315047 28366 net.cpp:399] inception_3a/output_inception_3a/output_0_split -> inception_3a/output_inception_3a/output_0_split_2
I0727 20:20:42.315059 28366 net.cpp:399] inception_3a/output_inception_3a/output_0_split -> inception_3a/output_inception_3a/output_0_split_3
I0727 20:20:42.315368 28366 net.cpp:141] Setting up inception_3a/output_inception_3a/output_0_split
I0727 20:20:42.315385 28366 net.cpp:148] Top shape: 10 256 28 28 (2007040)
I0727 20:20:42.315395 28366 net.cpp:148] Top shape: 10 256 28 28 (2007040)
I0727 20:20:42.315404 28366 net.cpp:148] Top shape: 10 256 28 28 (2007040)
I0727 20:20:42.315414 28366 net.cpp:148] Top shape: 10 256 28 28 (2007040)
I0727 20:20:42.315421 28366 net.cpp:156] Memory required for data: 273960960
I0727 20:20:42.315429 28366 layer_factory.hpp:77] Creating layer inception_3b/1x1
I0727 20:20:42.315454 28366 net.cpp:91] Creating Layer inception_3b/1x1
I0727 20:20:42.315464 28366 net.cpp:425] inception_3b/1x1 <- inception_3a/output_inception_3a/output_0_split_0
I0727 20:20:42.315481 28366 net.cpp:399] inception_3b/1x1 -> inception_3b/1x1
I0727 20:20:42.319496 28370 net.cpp:141] Setting up inception_3b/1x1
I0727 20:20:42.319542 28370 net.cpp:148] Top shape: 10 128 28 28 (1003520)
I0727 20:20:42.319548 28370 net.cpp:156] Memory required for data: 277975040
I0727 20:20:42.319560 28370 layer_factory.hpp:77] Creating layer inception_3b/relu_1x1
I0727 20:20:42.319569 28370 net.cpp:91] Creating Layer inception_3b/relu_1x1
I0727 20:20:42.319576 28370 net.cpp:425] inception_3b/relu_1x1 <- inception_3b/1x1
I0727 20:20:42.319586 28370 net.cpp:386] inception_3b/relu_1x1 -> inception_3b/1x1 (in-place)
I0727 20:20:42.319979 28370 net.cpp:141] Setting up inception_3b/relu_1x1
I0727 20:20:42.319990 28370 net.cpp:148] Top shape: 10 128 28 28 (1003520)
I0727 20:20:42.319995 28370 net.cpp:156] Memory required for data: 281989120
I0727 20:20:42.319999 28370 layer_factory.hpp:77] Creating layer inception_3b/3x3_reduce
I0727 20:20:42.320009 28366 net.cpp:141] Setting up inception_3b/1x1
I0727 20:20:42.320017 28370 net.cpp:91] Creating Layer inception_3b/3x3_reduce
I0727 20:20:42.320034 28370 net.cpp:425] inception_3b/3x3_reduce <- inception_3a/output_inception_3a/output_0_split_1
I0727 20:20:42.320037 28366 net.cpp:148] Top shape: 10 128 28 28 (1003520)
I0727 20:20:42.320044 28370 net.cpp:399] inception_3b/3x3_reduce -> inception_3b/3x3_reduce
I0727 20:20:42.320047 28366 net.cpp:156] Memory required for data: 277975040
I0727 20:20:42.320065 28366 layer_factory.hpp:77] Creating layer inception_3b/relu_1x1
I0727 20:20:42.320078 28366 net.cpp:91] Creating Layer inception_3b/relu_1x1
I0727 20:20:42.320087 28366 net.cpp:425] inception_3b/relu_1x1 <- inception_3b/1x1
I0727 20:20:42.320098 28366 net.cpp:386] inception_3b/relu_1x1 -> inception_3b/1x1 (in-place)
I0727 20:20:42.320626 28366 net.cpp:141] Setting up inception_3b/relu_1x1
I0727 20:20:42.320642 28366 net.cpp:148] Top shape: 10 128 28 28 (1003520)
I0727 20:20:42.320648 28366 net.cpp:156] Memory required for data: 281989120
I0727 20:20:42.320655 28366 layer_factory.hpp:77] Creating layer inception_3b/3x3_reduce
I0727 20:20:42.320674 28366 net.cpp:91] Creating Layer inception_3b/3x3_reduce
I0727 20:20:42.320683 28366 net.cpp:425] inception_3b/3x3_reduce <- inception_3a/output_inception_3a/output_0_split_1
I0727 20:20:42.320699 28366 net.cpp:399] inception_3b/3x3_reduce -> inception_3b/3x3_reduce
I0727 20:20:42.324561 28370 net.cpp:141] Setting up inception_3b/3x3_reduce
I0727 20:20:42.324596 28370 net.cpp:148] Top shape: 10 128 28 28 (1003520)
I0727 20:20:42.324601 28370 net.cpp:156] Memory required for data: 286003200
I0727 20:20:42.324611 28370 layer_factory.hpp:77] Creating layer inception_3b/relu_3x3_reduce
I0727 20:20:42.324621 28370 net.cpp:91] Creating Layer inception_3b/relu_3x3_reduce
I0727 20:20:42.324627 28370 net.cpp:425] inception_3b/relu_3x3_reduce <- inception_3b/3x3_reduce
I0727 20:20:42.324635 28370 net.cpp:386] inception_3b/relu_3x3_reduce -> inception_3b/3x3_reduce (in-place)
I0727 20:20:42.324965 28370 net.cpp:141] Setting up inception_3b/relu_3x3_reduce
I0727 20:20:42.324980 28370 net.cpp:148] Top shape: 10 128 28 28 (1003520)
I0727 20:20:42.324985 28370 net.cpp:156] Memory required for data: 290017280
I0727 20:20:42.324990 28370 layer_factory.hpp:77] Creating layer inception_3b/3x3
I0727 20:20:42.325002 28370 net.cpp:91] Creating Layer inception_3b/3x3
I0727 20:20:42.325008 28370 net.cpp:425] inception_3b/3x3 <- inception_3b/3x3_reduce
I0727 20:20:42.325021 28370 net.cpp:399] inception_3b/3x3 -> inception_3b/3x3
I0727 20:20:42.328665 28366 net.cpp:141] Setting up inception_3b/3x3_reduce
I0727 20:20:42.328708 28366 net.cpp:148] Top shape: 10 128 28 28 (1003520)
I0727 20:20:42.328717 28366 net.cpp:156] Memory required for data: 286003200
I0727 20:20:42.328733 28366 layer_factory.hpp:77] Creating layer inception_3b/relu_3x3_reduce
I0727 20:20:42.328752 28366 net.cpp:91] Creating Layer inception_3b/relu_3x3_reduce
I0727 20:20:42.328763 28366 net.cpp:425] inception_3b/relu_3x3_reduce <- inception_3b/3x3_reduce
I0727 20:20:42.328774 28366 net.cpp:386] inception_3b/relu_3x3_reduce -> inception_3b/3x3_reduce (in-place)
I0727 20:20:42.329111 28366 net.cpp:141] Setting up inception_3b/relu_3x3_reduce
I0727 20:20:42.329128 28366 net.cpp:148] Top shape: 10 128 28 28 (1003520)
I0727 20:20:42.329134 28366 net.cpp:156] Memory required for data: 290017280
I0727 20:20:42.329141 28366 layer_factory.hpp:77] Creating layer inception_3b/3x3
I0727 20:20:42.329164 28366 net.cpp:91] Creating Layer inception_3b/3x3
I0727 20:20:42.329172 28366 net.cpp:425] inception_3b/3x3 <- inception_3b/3x3_reduce
I0727 20:20:42.329188 28366 net.cpp:399] inception_3b/3x3 -> inception_3b/3x3
I0727 20:20:42.333499 28370 net.cpp:141] Setting up inception_3b/3x3
I0727 20:20:42.333533 28370 net.cpp:148] Top shape: 10 192 28 28 (1505280)
I0727 20:20:42.333539 28370 net.cpp:156] Memory required for data: 296038400
I0727 20:20:42.333549 28370 layer_factory.hpp:77] Creating layer inception_3b/relu_3x3
I0727 20:20:42.333569 28370 net.cpp:91] Creating Layer inception_3b/relu_3x3
I0727 20:20:42.333575 28370 net.cpp:425] inception_3b/relu_3x3 <- inception_3b/3x3
I0727 20:20:42.333581 28370 net.cpp:386] inception_3b/relu_3x3 -> inception_3b/3x3 (in-place)
I0727 20:20:42.334384 28370 net.cpp:141] Setting up inception_3b/relu_3x3
I0727 20:20:42.334399 28370 net.cpp:148] Top shape: 10 192 28 28 (1505280)
I0727 20:20:42.334416 28370 net.cpp:156] Memory required for data: 302059520
I0727 20:20:42.334421 28370 layer_factory.hpp:77] Creating layer inception_3b/5x5_reduce
I0727 20:20:42.334436 28370 net.cpp:91] Creating Layer inception_3b/5x5_reduce
I0727 20:20:42.334442 28370 net.cpp:425] inception_3b/5x5_reduce <- inception_3a/output_inception_3a/output_0_split_2
I0727 20:20:42.334455 28370 net.cpp:399] inception_3b/5x5_reduce -> inception_3b/5x5_reduce
I0727 20:20:42.343226 28366 net.cpp:141] Setting up inception_3b/3x3
I0727 20:20:42.343322 28366 net.cpp:148] Top shape: 10 192 28 28 (1505280)
I0727 20:20:42.343341 28366 net.cpp:156] Memory required for data: 296038400
I0727 20:20:42.343377 28366 layer_factory.hpp:77] Creating layer inception_3b/relu_3x3
I0727 20:20:42.343423 28366 net.cpp:91] Creating Layer inception_3b/relu_3x3
I0727 20:20:42.343435 28370 net.cpp:141] Setting up inception_3b/5x5_reduce
I0727 20:20:42.343444 28366 net.cpp:425] inception_3b/relu_3x3 <- inception_3b/3x3
I0727 20:20:42.343453 28370 net.cpp:148] Top shape: 10 32 28 28 (250880)
I0727 20:20:42.343459 28370 net.cpp:156] Memory required for data: 303063040
I0727 20:20:42.343469 28370 layer_factory.hpp:77] Creating layer inception_3b/relu_5x5_reduce
I0727 20:20:42.343482 28370 net.cpp:91] Creating Layer inception_3b/relu_5x5_reduce
I0727 20:20:42.343478 28366 net.cpp:386] inception_3b/relu_3x3 -> inception_3b/3x3 (in-place)
I0727 20:20:42.343488 28370 net.cpp:425] inception_3b/relu_5x5_reduce <- inception_3b/5x5_reduce
I0727 20:20:42.343495 28370 net.cpp:386] inception_3b/relu_5x5_reduce -> inception_3b/5x5_reduce (in-place)
I0727 20:20:42.343850 28370 net.cpp:141] Setting up inception_3b/relu_5x5_reduce
I0727 20:20:42.343863 28370 net.cpp:148] Top shape: 10 32 28 28 (250880)
I0727 20:20:42.343866 28370 net.cpp:156] Memory required for data: 304066560
I0727 20:20:42.343871 28370 layer_factory.hpp:77] Creating layer inception_3b/5x5
I0727 20:20:42.343896 28370 net.cpp:91] Creating Layer inception_3b/5x5
I0727 20:20:42.343901 28370 net.cpp:425] inception_3b/5x5 <- inception_3b/5x5_reduce
I0727 20:20:42.343910 28370 net.cpp:399] inception_3b/5x5 -> inception_3b/5x5
I0727 20:20:42.345047 28366 net.cpp:141] Setting up inception_3b/relu_3x3
I0727 20:20:42.345063 28366 net.cpp:148] Top shape: 10 192 28 28 (1505280)
I0727 20:20:42.345068 28366 net.cpp:156] Memory required for data: 302059520
I0727 20:20:42.345073 28366 layer_factory.hpp:77] Creating layer inception_3b/5x5_reduce
I0727 20:20:42.345089 28366 net.cpp:91] Creating Layer inception_3b/5x5_reduce
I0727 20:20:42.345095 28366 net.cpp:425] inception_3b/5x5_reduce <- inception_3a/output_inception_3a/output_0_split_2
I0727 20:20:42.345108 28366 net.cpp:399] inception_3b/5x5_reduce -> inception_3b/5x5_reduce
I0727 20:20:42.350862 28366 net.cpp:141] Setting up inception_3b/5x5_reduce
I0727 20:20:42.350885 28366 net.cpp:148] Top shape: 10 32 28 28 (250880)
I0727 20:20:42.350890 28366 net.cpp:156] Memory required for data: 303063040
I0727 20:20:42.350899 28366 layer_factory.hpp:77] Creating layer inception_3b/relu_5x5_reduce
I0727 20:20:42.350909 28366 net.cpp:91] Creating Layer inception_3b/relu_5x5_reduce
I0727 20:20:42.350915 28366 net.cpp:425] inception_3b/relu_5x5_reduce <- inception_3b/5x5_reduce
I0727 20:20:42.350926 28366 net.cpp:386] inception_3b/relu_5x5_reduce -> inception_3b/5x5_reduce (in-place)
I0727 20:20:42.351222 28366 net.cpp:141] Setting up inception_3b/relu_5x5_reduce
I0727 20:20:42.351234 28366 net.cpp:148] Top shape: 10 32 28 28 (250880)
I0727 20:20:42.351239 28366 net.cpp:156] Memory required for data: 304066560
I0727 20:20:42.351243 28366 layer_factory.hpp:77] Creating layer inception_3b/5x5
I0727 20:20:42.351260 28366 net.cpp:91] Creating Layer inception_3b/5x5
I0727 20:20:42.351266 28366 net.cpp:425] inception_3b/5x5 <- inception_3b/5x5_reduce
I0727 20:20:42.351274 28366 net.cpp:399] inception_3b/5x5 -> inception_3b/5x5
I0727 20:20:42.354406 28370 net.cpp:141] Setting up inception_3b/5x5
I0727 20:20:42.354434 28370 net.cpp:148] Top shape: 10 96 28 28 (752640)
I0727 20:20:42.354441 28370 net.cpp:156] Memory required for data: 307077120
I0727 20:20:42.354457 28370 layer_factory.hpp:77] Creating layer inception_3b/relu_5x5
I0727 20:20:42.354471 28370 net.cpp:91] Creating Layer inception_3b/relu_5x5
I0727 20:20:42.354482 28370 net.cpp:425] inception_3b/relu_5x5 <- inception_3b/5x5
I0727 20:20:42.354499 28370 net.cpp:386] inception_3b/relu_5x5 -> inception_3b/5x5 (in-place)
I0727 20:20:42.354897 28370 net.cpp:141] Setting up inception_3b/relu_5x5
I0727 20:20:42.354918 28370 net.cpp:148] Top shape: 10 96 28 28 (752640)
I0727 20:20:42.354924 28370 net.cpp:156] Memory required for data: 310087680
I0727 20:20:42.354933 28370 layer_factory.hpp:77] Creating layer inception_3b/pool
I0727 20:20:42.354946 28370 net.cpp:91] Creating Layer inception_3b/pool
I0727 20:20:42.354955 28370 net.cpp:425] inception_3b/pool <- inception_3a/output_inception_3a/output_0_split_3
I0727 20:20:42.354966 28370 net.cpp:399] inception_3b/pool -> inception_3b/pool
I0727 20:20:42.355780 28370 net.cpp:141] Setting up inception_3b/pool
I0727 20:20:42.355800 28370 net.cpp:148] Top shape: 10 256 28 28 (2007040)
I0727 20:20:42.355808 28370 net.cpp:156] Memory required for data: 318115840
I0727 20:20:42.355816 28370 layer_factory.hpp:77] Creating layer inception_3b/pool_proj
I0727 20:20:42.355839 28370 net.cpp:91] Creating Layer inception_3b/pool_proj
I0727 20:20:42.355847 28370 net.cpp:425] inception_3b/pool_proj <- inception_3b/pool
I0727 20:20:42.355860 28370 net.cpp:399] inception_3b/pool_proj -> inception_3b/pool_proj
I0727 20:20:42.357441 28366 net.cpp:141] Setting up inception_3b/5x5
I0727 20:20:42.357460 28366 net.cpp:148] Top shape: 10 96 28 28 (752640)
I0727 20:20:42.357465 28366 net.cpp:156] Memory required for data: 307077120
I0727 20:20:42.357473 28366 layer_factory.hpp:77] Creating layer inception_3b/relu_5x5
I0727 20:20:42.357484 28366 net.cpp:91] Creating Layer inception_3b/relu_5x5
I0727 20:20:42.357491 28366 net.cpp:425] inception_3b/relu_5x5 <- inception_3b/5x5
I0727 20:20:42.357496 28366 net.cpp:386] inception_3b/relu_5x5 -> inception_3b/5x5 (in-place)
I0727 20:20:42.357821 28366 net.cpp:141] Setting up inception_3b/relu_5x5
I0727 20:20:42.357833 28366 net.cpp:148] Top shape: 10 96 28 28 (752640)
I0727 20:20:42.357837 28366 net.cpp:156] Memory required for data: 310087680
I0727 20:20:42.357841 28366 layer_factory.hpp:77] Creating layer inception_3b/pool
I0727 20:20:42.357864 28366 net.cpp:91] Creating Layer inception_3b/pool
I0727 20:20:42.357872 28366 net.cpp:425] inception_3b/pool <- inception_3a/output_inception_3a/output_0_split_3
I0727 20:20:42.357882 28366 net.cpp:399] inception_3b/pool -> inception_3b/pool
I0727 20:20:42.359210 28366 net.cpp:141] Setting up inception_3b/pool
I0727 20:20:42.359241 28366 net.cpp:148] Top shape: 10 256 28 28 (2007040)
I0727 20:20:42.359252 28366 net.cpp:156] Memory required for data: 318115840
I0727 20:20:42.359262 28366 layer_factory.hpp:77] Creating layer inception_3b/pool_proj
I0727 20:20:42.359285 28366 net.cpp:91] Creating Layer inception_3b/pool_proj
I0727 20:20:42.359297 28366 net.cpp:425] inception_3b/pool_proj <- inception_3b/pool
I0727 20:20:42.359314 28366 net.cpp:399] inception_3b/pool_proj -> inception_3b/pool_proj
I0727 20:20:42.361660 28370 net.cpp:141] Setting up inception_3b/pool_proj
I0727 20:20:42.361685 28370 net.cpp:148] Top shape: 10 64 28 28 (501760)
I0727 20:20:42.361692 28370 net.cpp:156] Memory required for data: 320122880
I0727 20:20:42.361708 28370 layer_factory.hpp:77] Creating layer inception_3b/relu_pool_proj
I0727 20:20:42.361723 28370 net.cpp:91] Creating Layer inception_3b/relu_pool_proj
I0727 20:20:42.361733 28370 net.cpp:425] inception_3b/relu_pool_proj <- inception_3b/pool_proj
I0727 20:20:42.361745 28370 net.cpp:386] inception_3b/relu_pool_proj -> inception_3b/pool_proj (in-place)
I0727 20:20:42.363101 28370 net.cpp:141] Setting up inception_3b/relu_pool_proj
I0727 20:20:42.363126 28370 net.cpp:148] Top shape: 10 64 28 28 (501760)
I0727 20:20:42.363132 28370 net.cpp:156] Memory required for data: 322129920
I0727 20:20:42.363140 28370 layer_factory.hpp:77] Creating layer inception_3b/output
I0727 20:20:42.363155 28370 net.cpp:91] Creating Layer inception_3b/output
I0727 20:20:42.363165 28370 net.cpp:425] inception_3b/output <- inception_3b/1x1
I0727 20:20:42.363175 28370 net.cpp:425] inception_3b/output <- inception_3b/3x3
I0727 20:20:42.363183 28370 net.cpp:425] inception_3b/output <- inception_3b/5x5
I0727 20:20:42.363193 28370 net.cpp:425] inception_3b/output <- inception_3b/pool_proj
I0727 20:20:42.363203 28370 net.cpp:399] inception_3b/output -> inception_3b/output
I0727 20:20:42.363421 28370 net.cpp:141] Setting up inception_3b/output
I0727 20:20:42.363440 28370 net.cpp:148] Top shape: 10 480 28 28 (3763200)
I0727 20:20:42.363447 28370 net.cpp:156] Memory required for data: 337182720
I0727 20:20:42.363454 28370 layer_factory.hpp:77] Creating layer pool3/3x3_s2
I0727 20:20:42.363468 28370 net.cpp:91] Creating Layer pool3/3x3_s2
I0727 20:20:42.363476 28370 net.cpp:425] pool3/3x3_s2 <- inception_3b/output
I0727 20:20:42.363487 28370 net.cpp:399] pool3/3x3_s2 -> pool3/3x3_s2
I0727 20:20:42.363773 28370 net.cpp:141] Setting up pool3/3x3_s2
I0727 20:20:42.363790 28370 net.cpp:148] Top shape: 10 480 14 14 (940800)
I0727 20:20:42.363796 28370 net.cpp:156] Memory required for data: 340945920
I0727 20:20:42.363803 28370 layer_factory.hpp:77] Creating layer pool3/3x3_s2_pool3/3x3_s2_0_split
I0727 20:20:42.363816 28370 net.cpp:91] Creating Layer pool3/3x3_s2_pool3/3x3_s2_0_split
I0727 20:20:42.363824 28370 net.cpp:425] pool3/3x3_s2_pool3/3x3_s2_0_split <- pool3/3x3_s2
I0727 20:20:42.363834 28370 net.cpp:399] pool3/3x3_s2_pool3/3x3_s2_0_split -> pool3/3x3_s2_pool3/3x3_s2_0_split_0
I0727 20:20:42.363860 28370 net.cpp:399] pool3/3x3_s2_pool3/3x3_s2_0_split -> pool3/3x3_s2_pool3/3x3_s2_0_split_1
I0727 20:20:42.363876 28370 net.cpp:399] pool3/3x3_s2_pool3/3x3_s2_0_split -> pool3/3x3_s2_pool3/3x3_s2_0_split_2
I0727 20:20:42.363888 28370 net.cpp:399] pool3/3x3_s2_pool3/3x3_s2_0_split -> pool3/3x3_s2_pool3/3x3_s2_0_split_3
I0727 20:20:42.364300 28370 net.cpp:141] Setting up pool3/3x3_s2_pool3/3x3_s2_0_split
I0727 20:20:42.364305 28366 net.cpp:141] Setting up inception_3b/pool_proj
I0727 20:20:42.364315 28370 net.cpp:148] Top shape: 10 480 14 14 (940800)
I0727 20:20:42.364321 28366 net.cpp:148] Top shape: 10 64 28 28 (501760)
I0727 20:20:42.364325 28370 net.cpp:148] Top shape: 10 480 14 14 (940800)
I0727 20:20:42.364326 28366 net.cpp:156] Memory required for data: 320122880
I0727 20:20:42.364334 28370 net.cpp:148] Top shape: 10 480 14 14 (940800)
I0727 20:20:42.364337 28366 layer_factory.hpp:77] Creating layer inception_3b/relu_pool_proj
I0727 20:20:42.364343 28370 net.cpp:148] Top shape: 10 480 14 14 (940800)
I0727 20:20:42.364346 28366 net.cpp:91] Creating Layer inception_3b/relu_pool_proj
I0727 20:20:42.364351 28370 net.cpp:156] Memory required for data: 355998720
I0727 20:20:42.364351 28366 net.cpp:425] inception_3b/relu_pool_proj <- inception_3b/pool_proj
I0727 20:20:42.364361 28370 layer_factory.hpp:77] Creating layer inception_4a/1x1
I0727 20:20:42.364368 28366 net.cpp:386] inception_3b/relu_pool_proj -> inception_3b/pool_proj (in-place)
I0727 20:20:42.364379 28370 net.cpp:91] Creating Layer inception_4a/1x1
I0727 20:20:42.364388 28370 net.cpp:425] inception_4a/1x1 <- pool3/3x3_s2_pool3/3x3_s2_0_split_0
I0727 20:20:42.364414 28370 net.cpp:399] inception_4a/1x1 -> inception_4a/1x1
I0727 20:20:42.365263 28366 net.cpp:141] Setting up inception_3b/relu_pool_proj
I0727 20:20:42.365279 28366 net.cpp:148] Top shape: 10 64 28 28 (501760)
I0727 20:20:42.365283 28366 net.cpp:156] Memory required for data: 322129920
I0727 20:20:42.365288 28366 layer_factory.hpp:77] Creating layer inception_3b/output
I0727 20:20:42.365296 28366 net.cpp:91] Creating Layer inception_3b/output
I0727 20:20:42.365301 28366 net.cpp:425] inception_3b/output <- inception_3b/1x1
I0727 20:20:42.365309 28366 net.cpp:425] inception_3b/output <- inception_3b/3x3
I0727 20:20:42.365314 28366 net.cpp:425] inception_3b/output <- inception_3b/5x5
I0727 20:20:42.365319 28366 net.cpp:425] inception_3b/output <- inception_3b/pool_proj
I0727 20:20:42.365327 28366 net.cpp:399] inception_3b/output -> inception_3b/output
I0727 20:20:42.365430 28366 net.cpp:141] Setting up inception_3b/output
I0727 20:20:42.365442 28366 net.cpp:148] Top shape: 10 480 28 28 (3763200)
I0727 20:20:42.365445 28366 net.cpp:156] Memory required for data: 337182720
I0727 20:20:42.365450 28366 layer_factory.hpp:77] Creating layer pool3/3x3_s2
I0727 20:20:42.365463 28366 net.cpp:91] Creating Layer pool3/3x3_s2
I0727 20:20:42.365468 28366 net.cpp:425] pool3/3x3_s2 <- inception_3b/output
I0727 20:20:42.365474 28366 net.cpp:399] pool3/3x3_s2 -> pool3/3x3_s2
I0727 20:20:42.365674 28366 net.cpp:141] Setting up pool3/3x3_s2
I0727 20:20:42.365686 28366 net.cpp:148] Top shape: 10 480 14 14 (940800)
I0727 20:20:42.365690 28366 net.cpp:156] Memory required for data: 340945920
I0727 20:20:42.365695 28366 layer_factory.hpp:77] Creating layer pool3/3x3_s2_pool3/3x3_s2_0_split
I0727 20:20:42.365707 28366 net.cpp:91] Creating Layer pool3/3x3_s2_pool3/3x3_s2_0_split
I0727 20:20:42.365712 28366 net.cpp:425] pool3/3x3_s2_pool3/3x3_s2_0_split <- pool3/3x3_s2
I0727 20:20:42.365720 28366 net.cpp:399] pool3/3x3_s2_pool3/3x3_s2_0_split -> pool3/3x3_s2_pool3/3x3_s2_0_split_0
I0727 20:20:42.365728 28366 net.cpp:399] pool3/3x3_s2_pool3/3x3_s2_0_split -> pool3/3x3_s2_pool3/3x3_s2_0_split_1
I0727 20:20:42.365736 28366 net.cpp:399] pool3/3x3_s2_pool3/3x3_s2_0_split -> pool3/3x3_s2_pool3/3x3_s2_0_split_2
I0727 20:20:42.365742 28366 net.cpp:399] pool3/3x3_s2_pool3/3x3_s2_0_split -> pool3/3x3_s2_pool3/3x3_s2_0_split_3
I0727 20:20:42.365880 28366 net.cpp:141] Setting up pool3/3x3_s2_pool3/3x3_s2_0_split
I0727 20:20:42.365888 28366 net.cpp:148] Top shape: 10 480 14 14 (940800)
I0727 20:20:42.365893 28366 net.cpp:148] Top shape: 10 480 14 14 (940800)
I0727 20:20:42.365898 28366 net.cpp:148] Top shape: 10 480 14 14 (940800)
I0727 20:20:42.365903 28366 net.cpp:148] Top shape: 10 480 14 14 (940800)
I0727 20:20:42.365906 28366 net.cpp:156] Memory required for data: 355998720
I0727 20:20:42.365911 28366 layer_factory.hpp:77] Creating layer inception_4a/1x1
I0727 20:20:42.365926 28366 net.cpp:91] Creating Layer inception_4a/1x1
I0727 20:20:42.365931 28366 net.cpp:425] inception_4a/1x1 <- pool3/3x3_s2_pool3/3x3_s2_0_split_0
I0727 20:20:42.365939 28366 net.cpp:399] inception_4a/1x1 -> inception_4a/1x1
I0727 20:20:42.371963 28366 net.cpp:141] Setting up inception_4a/1x1
I0727 20:20:42.371968 28370 net.cpp:141] Setting up inception_4a/1x1
I0727 20:20:42.372017 28370 net.cpp:148] Top shape: 10 192 14 14 (376320)
I0727 20:20:42.372017 28366 net.cpp:148] Top shape: 10 192 14 14 (376320)
I0727 20:20:42.372030 28370 net.cpp:156] Memory required for data: 357504000
I0727 20:20:42.372035 28366 net.cpp:156] Memory required for data: 357504000
I0727 20:20:42.372051 28370 layer_factory.hpp:77] Creating layer inception_4a/relu_1x1
I0727 20:20:42.372054 28366 layer_factory.hpp:77] Creating layer inception_4a/relu_1x1
I0727 20:20:42.372071 28370 net.cpp:91] Creating Layer inception_4a/relu_1x1
I0727 20:20:42.372076 28366 net.cpp:91] Creating Layer inception_4a/relu_1x1
I0727 20:20:42.372082 28370 net.cpp:425] inception_4a/relu_1x1 <- inception_4a/1x1
I0727 20:20:42.372087 28366 net.cpp:425] inception_4a/relu_1x1 <- inception_4a/1x1
I0727 20:20:42.372108 28366 net.cpp:386] inception_4a/relu_1x1 -> inception_4a/1x1 (in-place)
I0727 20:20:42.372112 28370 net.cpp:386] inception_4a/relu_1x1 -> inception_4a/1x1 (in-place)
I0727 20:20:42.372607 28370 net.cpp:141] Setting up inception_4a/relu_1x1
I0727 20:20:42.372623 28370 net.cpp:148] Top shape: 10 192 14 14 (376320)
I0727 20:20:42.372624 28366 net.cpp:141] Setting up inception_4a/relu_1x1
I0727 20:20:42.372630 28370 net.cpp:156] Memory required for data: 359009280
I0727 20:20:42.372648 28370 layer_factory.hpp:77] Creating layer inception_4a/3x3_reduce
I0727 20:20:42.372648 28366 net.cpp:148] Top shape: 10 192 14 14 (376320)
I0727 20:20:42.372658 28366 net.cpp:156] Memory required for data: 359009280
I0727 20:20:42.372668 28366 layer_factory.hpp:77] Creating layer inception_4a/3x3_reduce
I0727 20:20:42.372676 28370 net.cpp:91] Creating Layer inception_4a/3x3_reduce
I0727 20:20:42.372686 28370 net.cpp:425] inception_4a/3x3_reduce <- pool3/3x3_s2_pool3/3x3_s2_0_split_1
I0727 20:20:42.372696 28366 net.cpp:91] Creating Layer inception_4a/3x3_reduce
I0727 20:20:42.372705 28370 net.cpp:399] inception_4a/3x3_reduce -> inception_4a/3x3_reduce
I0727 20:20:42.372709 28366 net.cpp:425] inception_4a/3x3_reduce <- pool3/3x3_s2_pool3/3x3_s2_0_split_1
I0727 20:20:42.372731 28366 net.cpp:399] inception_4a/3x3_reduce -> inception_4a/3x3_reduce
I0727 20:20:42.378995 28370 net.cpp:141] Setting up inception_4a/3x3_reduce
I0727 20:20:42.379034 28370 net.cpp:148] Top shape: 10 96 14 14 (188160)
I0727 20:20:42.379036 28366 net.cpp:141] Setting up inception_4a/3x3_reduce
I0727 20:20:42.379041 28370 net.cpp:156] Memory required for data: 359761920
I0727 20:20:42.379060 28366 net.cpp:148] Top shape: 10 96 14 14 (188160)
I0727 20:20:42.379070 28366 net.cpp:156] Memory required for data: 359761920
I0727 20:20:42.379082 28370 layer_factory.hpp:77] Creating layer inception_4a/relu_3x3_reduce
I0727 20:20:42.379097 28370 net.cpp:91] Creating Layer inception_4a/relu_3x3_reduce
I0727 20:20:42.379103 28366 layer_factory.hpp:77] Creating layer inception_4a/relu_3x3_reduce
I0727 20:20:42.379106 28370 net.cpp:425] inception_4a/relu_3x3_reduce <- inception_4a/3x3_reduce
I0727 20:20:42.379122 28366 net.cpp:91] Creating Layer inception_4a/relu_3x3_reduce
I0727 20:20:42.379130 28370 net.cpp:386] inception_4a/relu_3x3_reduce -> inception_4a/3x3_reduce (in-place)
I0727 20:20:42.379133 28366 net.cpp:425] inception_4a/relu_3x3_reduce <- inception_4a/3x3_reduce
I0727 20:20:42.379150 28366 net.cpp:386] inception_4a/relu_3x3_reduce -> inception_4a/3x3_reduce (in-place)
I0727 20:20:42.379580 28370 net.cpp:141] Setting up inception_4a/relu_3x3_reduce
I0727 20:20:42.379595 28370 net.cpp:148] Top shape: 10 96 14 14 (188160)
I0727 20:20:42.379602 28370 net.cpp:156] Memory required for data: 360514560
I0727 20:20:42.379611 28370 layer_factory.hpp:77] Creating layer inception_4a/3x3
I0727 20:20:42.379631 28370 net.cpp:91] Creating Layer inception_4a/3x3
I0727 20:20:42.379640 28370 net.cpp:425] inception_4a/3x3 <- inception_4a/3x3_reduce
I0727 20:20:42.379647 28366 net.cpp:141] Setting up inception_4a/relu_3x3_reduce
I0727 20:20:42.379657 28370 net.cpp:399] inception_4a/3x3 -> inception_4a/3x3
I0727 20:20:42.379667 28366 net.cpp:148] Top shape: 10 96 14 14 (188160)
I0727 20:20:42.379676 28366 net.cpp:156] Memory required for data: 360514560
I0727 20:20:42.379685 28366 layer_factory.hpp:77] Creating layer inception_4a/3x3
I0727 20:20:42.379714 28366 net.cpp:91] Creating Layer inception_4a/3x3
I0727 20:20:42.379726 28366 net.cpp:425] inception_4a/3x3 <- inception_4a/3x3_reduce
I0727 20:20:42.379743 28366 net.cpp:399] inception_4a/3x3 -> inception_4a/3x3
I0727 20:20:42.388649 28370 net.cpp:141] Setting up inception_4a/3x3
I0727 20:20:42.388706 28370 net.cpp:148] Top shape: 10 208 14 14 (407680)
I0727 20:20:42.388721 28370 net.cpp:156] Memory required for data: 362145280
I0727 20:20:42.388749 28370 layer_factory.hpp:77] Creating layer inception_4a/relu_3x3
I0727 20:20:42.388782 28370 net.cpp:91] Creating Layer inception_4a/relu_3x3
I0727 20:20:42.388797 28370 net.cpp:425] inception_4a/relu_3x3 <- inception_4a/3x3
I0727 20:20:42.388810 28370 net.cpp:386] inception_4a/relu_3x3 -> inception_4a/3x3 (in-place)
I0727 20:20:42.390214 28370 net.cpp:141] Setting up inception_4a/relu_3x3
I0727 20:20:42.390236 28370 net.cpp:148] Top shape: 10 208 14 14 (407680)
I0727 20:20:42.390247 28370 net.cpp:156] Memory required for data: 363776000
I0727 20:20:42.390256 28370 layer_factory.hpp:77] Creating layer inception_4a/5x5_reduce
I0727 20:20:42.390278 28370 net.cpp:91] Creating Layer inception_4a/5x5_reduce
I0727 20:20:42.390287 28370 net.cpp:425] inception_4a/5x5_reduce <- pool3/3x3_s2_pool3/3x3_s2_0_split_2
I0727 20:20:42.390311 28370 net.cpp:399] inception_4a/5x5_reduce -> inception_4a/5x5_reduce
I0727 20:20:42.390359 28366 net.cpp:141] Setting up inception_4a/3x3
I0727 20:20:42.390382 28366 net.cpp:148] Top shape: 10 208 14 14 (407680)
I0727 20:20:42.390391 28366 net.cpp:156] Memory required for data: 362145280
I0727 20:20:42.390408 28366 layer_factory.hpp:77] Creating layer inception_4a/relu_3x3
I0727 20:20:42.390424 28366 net.cpp:91] Creating Layer inception_4a/relu_3x3
I0727 20:20:42.390435 28366 net.cpp:425] inception_4a/relu_3x3 <- inception_4a/3x3
I0727 20:20:42.390460 28366 net.cpp:386] inception_4a/relu_3x3 -> inception_4a/3x3 (in-place)
I0727 20:20:42.391625 28366 net.cpp:141] Setting up inception_4a/relu_3x3
I0727 20:20:42.391644 28366 net.cpp:148] Top shape: 10 208 14 14 (407680)
I0727 20:20:42.391654 28366 net.cpp:156] Memory required for data: 363776000
I0727 20:20:42.391662 28366 layer_factory.hpp:77] Creating layer inception_4a/5x5_reduce
I0727 20:20:42.391695 28366 net.cpp:91] Creating Layer inception_4a/5x5_reduce
I0727 20:20:42.391710 28366 net.cpp:425] inception_4a/5x5_reduce <- pool3/3x3_s2_pool3/3x3_s2_0_split_2
I0727 20:20:42.391728 28366 net.cpp:399] inception_4a/5x5_reduce -> inception_4a/5x5_reduce
I0727 20:20:42.395829 28370 net.cpp:141] Setting up inception_4a/5x5_reduce
I0727 20:20:42.395858 28370 net.cpp:148] Top shape: 10 16 14 14 (31360)
I0727 20:20:42.395866 28370 net.cpp:156] Memory required for data: 363901440
I0727 20:20:42.395881 28370 layer_factory.hpp:77] Creating layer inception_4a/relu_5x5_reduce
I0727 20:20:42.395894 28370 net.cpp:91] Creating Layer inception_4a/relu_5x5_reduce
I0727 20:20:42.395903 28370 net.cpp:425] inception_4a/relu_5x5_reduce <- inception_4a/5x5_reduce
I0727 20:20:42.395915 28370 net.cpp:386] inception_4a/relu_5x5_reduce -> inception_4a/5x5_reduce (in-place)
I0727 20:20:42.395911 28366 net.cpp:141] Setting up inception_4a/5x5_reduce
I0727 20:20:42.395933 28366 net.cpp:148] Top shape: 10 16 14 14 (31360)
I0727 20:20:42.395942 28366 net.cpp:156] Memory required for data: 363901440
I0727 20:20:42.395959 28366 layer_factory.hpp:77] Creating layer inception_4a/relu_5x5_reduce
I0727 20:20:42.395979 28366 net.cpp:91] Creating Layer inception_4a/relu_5x5_reduce
I0727 20:20:42.395992 28366 net.cpp:425] inception_4a/relu_5x5_reduce <- inception_4a/5x5_reduce
I0727 20:20:42.396004 28366 net.cpp:386] inception_4a/relu_5x5_reduce -> inception_4a/5x5_reduce (in-place)
I0727 20:20:42.396291 28370 net.cpp:141] Setting up inception_4a/relu_5x5_reduce
I0727 20:20:42.396306 28370 net.cpp:148] Top shape: 10 16 14 14 (31360)
I0727 20:20:42.396312 28370 net.cpp:156] Memory required for data: 364026880
I0727 20:20:42.396320 28370 layer_factory.hpp:77] Creating layer inception_4a/5x5
I0727 20:20:42.396340 28370 net.cpp:91] Creating Layer inception_4a/5x5
I0727 20:20:42.396349 28370 net.cpp:425] inception_4a/5x5 <- inception_4a/5x5_reduce
I0727 20:20:42.396365 28370 net.cpp:399] inception_4a/5x5 -> inception_4a/5x5
I0727 20:20:42.396505 28366 net.cpp:141] Setting up inception_4a/relu_5x5_reduce
I0727 20:20:42.396525 28366 net.cpp:148] Top shape: 10 16 14 14 (31360)
I0727 20:20:42.396534 28366 net.cpp:156] Memory required for data: 364026880
I0727 20:20:42.396543 28366 layer_factory.hpp:77] Creating layer inception_4a/5x5
I0727 20:20:42.396569 28366 net.cpp:91] Creating Layer inception_4a/5x5
I0727 20:20:42.396581 28366 net.cpp:425] inception_4a/5x5 <- inception_4a/5x5_reduce
I0727 20:20:42.396605 28366 net.cpp:399] inception_4a/5x5 -> inception_4a/5x5
I0727 20:20:42.401049 28370 net.cpp:141] Setting up inception_4a/5x5
I0727 20:20:42.401073 28370 net.cpp:148] Top shape: 10 48 14 14 (94080)
I0727 20:20:42.401082 28370 net.cpp:156] Memory required for data: 364403200
I0727 20:20:42.401096 28370 layer_factory.hpp:77] Creating layer inception_4a/relu_5x5
I0727 20:20:42.401108 28370 net.cpp:91] Creating Layer inception_4a/relu_5x5
I0727 20:20:42.401116 28370 net.cpp:425] inception_4a/relu_5x5 <- inception_4a/5x5
I0727 20:20:42.401119 28366 net.cpp:141] Setting up inception_4a/5x5
I0727 20:20:42.401132 28370 net.cpp:386] inception_4a/relu_5x5 -> inception_4a/5x5 (in-place)
I0727 20:20:42.401139 28366 net.cpp:148] Top shape: 10 48 14 14 (94080)
I0727 20:20:42.401149 28366 net.cpp:156] Memory required for data: 364403200
I0727 20:20:42.401165 28366 layer_factory.hpp:77] Creating layer inception_4a/relu_5x5
I0727 20:20:42.401180 28366 net.cpp:91] Creating Layer inception_4a/relu_5x5
I0727 20:20:42.401190 28366 net.cpp:425] inception_4a/relu_5x5 <- inception_4a/5x5
I0727 20:20:42.401207 28366 net.cpp:386] inception_4a/relu_5x5 -> inception_4a/5x5 (in-place)
I0727 20:20:42.401538 28370 net.cpp:141] Setting up inception_4a/relu_5x5
I0727 20:20:42.401557 28370 net.cpp:148] Top shape: 10 48 14 14 (94080)
I0727 20:20:42.401564 28370 net.cpp:156] Memory required for data: 364779520
I0727 20:20:42.401572 28370 layer_factory.hpp:77] Creating layer inception_4a/pool
I0727 20:20:42.401587 28370 net.cpp:91] Creating Layer inception_4a/pool
I0727 20:20:42.401595 28370 net.cpp:425] inception_4a/pool <- pool3/3x3_s2_pool3/3x3_s2_0_split_3
I0727 20:20:42.401607 28370 net.cpp:399] inception_4a/pool -> inception_4a/pool
I0727 20:20:42.401716 28366 net.cpp:141] Setting up inception_4a/relu_5x5
I0727 20:20:42.401736 28366 net.cpp:148] Top shape: 10 48 14 14 (94080)
I0727 20:20:42.401744 28366 net.cpp:156] Memory required for data: 364779520
I0727 20:20:42.401753 28366 layer_factory.hpp:77] Creating layer inception_4a/pool
I0727 20:20:42.401757 28370 net.cpp:141] Setting up inception_4a/pool
I0727 20:20:42.401774 28366 net.cpp:91] Creating Layer inception_4a/pool
I0727 20:20:42.401775 28370 net.cpp:148] Top shape: 10 480 14 14 (940800)
I0727 20:20:42.401790 28366 net.cpp:425] inception_4a/pool <- pool3/3x3_s2_pool3/3x3_s2_0_split_3
I0727 20:20:42.401792 28370 net.cpp:156] Memory required for data: 368542720
I0727 20:20:42.401808 28370 layer_factory.hpp:77] Creating layer inception_4a/pool_proj
I0727 20:20:42.401809 28366 net.cpp:399] inception_4a/pool -> inception_4a/pool
I0727 20:20:42.401825 28370 net.cpp:91] Creating Layer inception_4a/pool_proj
I0727 20:20:42.401834 28370 net.cpp:425] inception_4a/pool_proj <- inception_4a/pool
I0727 20:20:42.401860 28370 net.cpp:399] inception_4a/pool_proj -> inception_4a/pool_proj
I0727 20:20:42.402149 28366 net.cpp:141] Setting up inception_4a/pool
I0727 20:20:42.402168 28366 net.cpp:148] Top shape: 10 480 14 14 (940800)
I0727 20:20:42.402180 28366 net.cpp:156] Memory required for data: 368542720
I0727 20:20:42.402189 28366 layer_factory.hpp:77] Creating layer inception_4a/pool_proj
I0727 20:20:42.402216 28366 net.cpp:91] Creating Layer inception_4a/pool_proj
I0727 20:20:42.402230 28366 net.cpp:425] inception_4a/pool_proj <- inception_4a/pool
I0727 20:20:42.402246 28366 net.cpp:399] inception_4a/pool_proj -> inception_4a/pool_proj
I0727 20:20:42.406929 28370 net.cpp:141] Setting up inception_4a/pool_proj
I0727 20:20:42.406963 28370 net.cpp:148] Top shape: 10 64 14 14 (125440)
I0727 20:20:42.406971 28370 net.cpp:156] Memory required for data: 369044480
I0727 20:20:42.406987 28370 layer_factory.hpp:77] Creating layer inception_4a/relu_pool_proj
I0727 20:20:42.407001 28370 net.cpp:91] Creating Layer inception_4a/relu_pool_proj
I0727 20:20:42.407009 28370 net.cpp:425] inception_4a/relu_pool_proj <- inception_4a/pool_proj
I0727 20:20:42.407021 28370 net.cpp:386] inception_4a/relu_pool_proj -> inception_4a/pool_proj (in-place)
I0727 20:20:42.407022 28366 net.cpp:141] Setting up inception_4a/pool_proj
I0727 20:20:42.407043 28366 net.cpp:148] Top shape: 10 64 14 14 (125440)
I0727 20:20:42.407052 28366 net.cpp:156] Memory required for data: 369044480
I0727 20:20:42.407069 28366 layer_factory.hpp:77] Creating layer inception_4a/relu_pool_proj
I0727 20:20:42.407091 28366 net.cpp:91] Creating Layer inception_4a/relu_pool_proj
I0727 20:20:42.407104 28366 net.cpp:425] inception_4a/relu_pool_proj <- inception_4a/pool_proj
I0727 20:20:42.407119 28366 net.cpp:386] inception_4a/relu_pool_proj -> inception_4a/pool_proj (in-place)
I0727 20:20:42.407996 28370 net.cpp:141] Setting up inception_4a/relu_pool_proj
I0727 20:20:42.408018 28370 net.cpp:148] Top shape: 10 64 14 14 (125440)
I0727 20:20:42.408026 28370 net.cpp:156] Memory required for data: 369546240
I0727 20:20:42.408033 28370 layer_factory.hpp:77] Creating layer inception_4a/output
I0727 20:20:42.408046 28370 net.cpp:91] Creating Layer inception_4a/output
I0727 20:20:42.408054 28370 net.cpp:425] inception_4a/output <- inception_4a/1x1
I0727 20:20:42.408064 28370 net.cpp:425] inception_4a/output <- inception_4a/3x3
I0727 20:20:42.408073 28370 net.cpp:425] inception_4a/output <- inception_4a/5x5
I0727 20:20:42.408082 28370 net.cpp:425] inception_4a/output <- inception_4a/pool_proj
I0727 20:20:42.408092 28370 net.cpp:399] inception_4a/output -> inception_4a/output
I0727 20:20:42.408494 28370 net.cpp:141] Setting up inception_4a/output
I0727 20:20:42.408511 28370 net.cpp:148] Top shape: 10 512 14 14 (1003520)
I0727 20:20:42.408517 28370 net.cpp:156] Memory required for data: 373560320
I0727 20:20:42.408525 28370 layer_factory.hpp:77] Creating layer inception_4a/output_inception_4a/output_0_split
I0727 20:20:42.408538 28370 net.cpp:91] Creating Layer inception_4a/output_inception_4a/output_0_split
I0727 20:20:42.408545 28370 net.cpp:425] inception_4a/output_inception_4a/output_0_split <- inception_4a/output
I0727 20:20:42.408560 28370 net.cpp:399] inception_4a/output_inception_4a/output_0_split -> inception_4a/output_inception_4a/output_0_split_0
I0727 20:20:42.408576 28370 net.cpp:399] inception_4a/output_inception_4a/output_0_split -> inception_4a/output_inception_4a/output_0_split_1
I0727 20:20:42.408587 28370 net.cpp:399] inception_4a/output_inception_4a/output_0_split -> inception_4a/output_inception_4a/output_0_split_2
I0727 20:20:42.408599 28370 net.cpp:399] inception_4a/output_inception_4a/output_0_split -> inception_4a/output_inception_4a/output_0_split_3
I0727 20:20:42.408639 28366 net.cpp:141] Setting up inception_4a/relu_pool_proj
I0727 20:20:42.408658 28366 net.cpp:148] Top shape: 10 64 14 14 (125440)
I0727 20:20:42.408668 28366 net.cpp:156] Memory required for data: 369546240
I0727 20:20:42.408679 28366 layer_factory.hpp:77] Creating layer inception_4a/output
I0727 20:20:42.408699 28366 net.cpp:91] Creating Layer inception_4a/output
I0727 20:20:42.408710 28366 net.cpp:425] inception_4a/output <- inception_4a/1x1
I0727 20:20:42.408722 28366 net.cpp:425] inception_4a/output <- inception_4a/3x3
I0727 20:20:42.408732 28366 net.cpp:425] inception_4a/output <- inception_4a/5x5
I0727 20:20:42.408743 28366 net.cpp:425] inception_4a/output <- inception_4a/pool_proj
I0727 20:20:42.408756 28366 net.cpp:399] inception_4a/output -> inception_4a/output
I0727 20:20:42.408865 28370 net.cpp:141] Setting up inception_4a/output_inception_4a/output_0_split
I0727 20:20:42.408881 28370 net.cpp:148] Top shape: 10 512 14 14 (1003520)
I0727 20:20:42.408891 28370 net.cpp:148] Top shape: 10 512 14 14 (1003520)
I0727 20:20:42.408900 28370 net.cpp:148] Top shape: 10 512 14 14 (1003520)
I0727 20:20:42.408901 28366 net.cpp:141] Setting up inception_4a/output
I0727 20:20:42.408908 28370 net.cpp:148] Top shape: 10 512 14 14 (1003520)
I0727 20:20:42.408915 28370 net.cpp:156] Memory required for data: 389616640
I0727 20:20:42.408920 28366 net.cpp:148] Top shape: 10 512 14 14 (1003520)
I0727 20:20:42.408922 28370 layer_factory.hpp:77] Creating layer inception_4b/1x1
I0727 20:20:42.408929 28366 net.cpp:156] Memory required for data: 373560320
I0727 20:20:42.408938 28366 layer_factory.hpp:77] Creating layer inception_4a/output_inception_4a/output_0_split
I0727 20:20:42.408944 28370 net.cpp:91] Creating Layer inception_4b/1x1
I0727 20:20:42.408952 28366 net.cpp:91] Creating Layer inception_4a/output_inception_4a/output_0_split
I0727 20:20:42.408953 28370 net.cpp:425] inception_4b/1x1 <- inception_4a/output_inception_4a/output_0_split_0
I0727 20:20:42.408968 28366 net.cpp:425] inception_4a/output_inception_4a/output_0_split <- inception_4a/output
I0727 20:20:42.408982 28370 net.cpp:399] inception_4b/1x1 -> inception_4b/1x1
I0727 20:20:42.408987 28366 net.cpp:399] inception_4a/output_inception_4a/output_0_split -> inception_4a/output_inception_4a/output_0_split_0
I0727 20:20:42.409006 28366 net.cpp:399] inception_4a/output_inception_4a/output_0_split -> inception_4a/output_inception_4a/output_0_split_1
I0727 20:20:42.409024 28366 net.cpp:399] inception_4a/output_inception_4a/output_0_split -> inception_4a/output_inception_4a/output_0_split_2
I0727 20:20:42.409041 28366 net.cpp:399] inception_4a/output_inception_4a/output_0_split -> inception_4a/output_inception_4a/output_0_split_3
I0727 20:20:42.409715 28366 net.cpp:141] Setting up inception_4a/output_inception_4a/output_0_split
I0727 20:20:42.409739 28366 net.cpp:148] Top shape: 10 512 14 14 (1003520)
I0727 20:20:42.409751 28366 net.cpp:148] Top shape: 10 512 14 14 (1003520)
I0727 20:20:42.409764 28366 net.cpp:148] Top shape: 10 512 14 14 (1003520)
I0727 20:20:42.409775 28366 net.cpp:148] Top shape: 10 512 14 14 (1003520)
I0727 20:20:42.409782 28366 net.cpp:156] Memory required for data: 389616640
I0727 20:20:42.409793 28366 layer_factory.hpp:77] Creating layer inception_4b/1x1
I0727 20:20:42.409821 28366 net.cpp:91] Creating Layer inception_4b/1x1
I0727 20:20:42.409832 28366 net.cpp:425] inception_4b/1x1 <- inception_4a/output_inception_4a/output_0_split_0
I0727 20:20:42.409853 28366 net.cpp:399] inception_4b/1x1 -> inception_4b/1x1
I0727 20:20:42.415163 28370 net.cpp:141] Setting up inception_4b/1x1
I0727 20:20:42.415189 28370 net.cpp:148] Top shape: 10 160 14 14 (313600)
I0727 20:20:42.415196 28370 net.cpp:156] Memory required for data: 390871040
I0727 20:20:42.415212 28370 layer_factory.hpp:77] Creating layer inception_4b/relu_1x1
I0727 20:20:42.415227 28370 net.cpp:91] Creating Layer inception_4b/relu_1x1
I0727 20:20:42.415236 28370 net.cpp:425] inception_4b/relu_1x1 <- inception_4b/1x1
I0727 20:20:42.415247 28370 net.cpp:386] inception_4b/relu_1x1 -> inception_4b/1x1 (in-place)
I0727 20:20:42.415699 28366 net.cpp:141] Setting up inception_4b/1x1
I0727 20:20:42.415719 28366 net.cpp:148] Top shape: 10 160 14 14 (313600)
I0727 20:20:42.415729 28366 net.cpp:156] Memory required for data: 390871040
I0727 20:20:42.415740 28370 net.cpp:141] Setting up inception_4b/relu_1x1
I0727 20:20:42.415746 28366 layer_factory.hpp:77] Creating layer inception_4b/relu_1x1
I0727 20:20:42.415756 28370 net.cpp:148] Top shape: 10 160 14 14 (313600)
I0727 20:20:42.415763 28370 net.cpp:156] Memory required for data: 392125440
I0727 20:20:42.415767 28366 net.cpp:91] Creating Layer inception_4b/relu_1x1
I0727 20:20:42.415771 28370 layer_factory.hpp:77] Creating layer inception_4b/3x3_reduce
I0727 20:20:42.415779 28366 net.cpp:425] inception_4b/relu_1x1 <- inception_4b/1x1
I0727 20:20:42.415793 28366 net.cpp:386] inception_4b/relu_1x1 -> inception_4b/1x1 (in-place)
I0727 20:20:42.415797 28370 net.cpp:91] Creating Layer inception_4b/3x3_reduce
I0727 20:20:42.415807 28370 net.cpp:425] inception_4b/3x3_reduce <- inception_4a/output_inception_4a/output_0_split_1
I0727 20:20:42.415822 28370 net.cpp:399] inception_4b/3x3_reduce -> inception_4b/3x3_reduce
I0727 20:20:42.416410 28366 net.cpp:141] Setting up inception_4b/relu_1x1
I0727 20:20:42.416429 28366 net.cpp:148] Top shape: 10 160 14 14 (313600)
I0727 20:20:42.416440 28366 net.cpp:156] Memory required for data: 392125440
I0727 20:20:42.416448 28366 layer_factory.hpp:77] Creating layer inception_4b/3x3_reduce
I0727 20:20:42.416476 28366 net.cpp:91] Creating Layer inception_4b/3x3_reduce
I0727 20:20:42.416488 28366 net.cpp:425] inception_4b/3x3_reduce <- inception_4a/output_inception_4a/output_0_split_1
I0727 20:20:42.416507 28366 net.cpp:399] inception_4b/3x3_reduce -> inception_4b/3x3_reduce
I0727 20:20:42.420786 28370 net.cpp:141] Setting up inception_4b/3x3_reduce
I0727 20:20:42.420806 28370 net.cpp:148] Top shape: 10 112 14 14 (219520)
I0727 20:20:42.420811 28370 net.cpp:156] Memory required for data: 393003520
I0727 20:20:42.420821 28370 layer_factory.hpp:77] Creating layer inception_4b/relu_3x3_reduce
I0727 20:20:42.420830 28370 net.cpp:91] Creating Layer inception_4b/relu_3x3_reduce
I0727 20:20:42.420836 28370 net.cpp:425] inception_4b/relu_3x3_reduce <- inception_4b/3x3_reduce
I0727 20:20:42.420846 28370 net.cpp:386] inception_4b/relu_3x3_reduce -> inception_4b/3x3_reduce (in-place)
I0727 20:20:42.421223 28370 net.cpp:141] Setting up inception_4b/relu_3x3_reduce
I0727 20:20:42.421236 28370 net.cpp:148] Top shape: 10 112 14 14 (219520)
I0727 20:20:42.421241 28370 net.cpp:156] Memory required for data: 393881600
I0727 20:20:42.421244 28370 layer_factory.hpp:77] Creating layer inception_4b/3x3
I0727 20:20:42.421241 28366 net.cpp:141] Setting up inception_4b/3x3_reduce
I0727 20:20:42.421260 28370 net.cpp:91] Creating Layer inception_4b/3x3
I0727 20:20:42.421262 28366 net.cpp:148] Top shape: 10 112 14 14 (219520)
I0727 20:20:42.421267 28370 net.cpp:425] inception_4b/3x3 <- inception_4b/3x3_reduce
I0727 20:20:42.421277 28366 net.cpp:156] Memory required for data: 393003520
I0727 20:20:42.421284 28370 net.cpp:399] inception_4b/3x3 -> inception_4b/3x3
I0727 20:20:42.421296 28366 layer_factory.hpp:77] Creating layer inception_4b/relu_3x3_reduce
I0727 20:20:42.421315 28366 net.cpp:91] Creating Layer inception_4b/relu_3x3_reduce
I0727 20:20:42.421327 28366 net.cpp:425] inception_4b/relu_3x3_reduce <- inception_4b/3x3_reduce
I0727 20:20:42.421341 28366 net.cpp:386] inception_4b/relu_3x3_reduce -> inception_4b/3x3_reduce (in-place)
I0727 20:20:42.421962 28366 net.cpp:141] Setting up inception_4b/relu_3x3_reduce
I0727 20:20:42.421980 28366 net.cpp:148] Top shape: 10 112 14 14 (219520)
I0727 20:20:42.421989 28366 net.cpp:156] Memory required for data: 393881600
I0727 20:20:42.421998 28366 layer_factory.hpp:77] Creating layer inception_4b/3x3
I0727 20:20:42.422026 28366 net.cpp:91] Creating Layer inception_4b/3x3
I0727 20:20:42.422039 28366 net.cpp:425] inception_4b/3x3 <- inception_4b/3x3_reduce
I0727 20:20:42.422057 28366 net.cpp:399] inception_4b/3x3 -> inception_4b/3x3
I0727 20:20:42.429533 28370 net.cpp:141] Setting up inception_4b/3x3
I0727 20:20:42.429554 28370 net.cpp:148] Top shape: 10 224 14 14 (439040)
I0727 20:20:42.429559 28370 net.cpp:156] Memory required for data: 395637760
I0727 20:20:42.429569 28370 layer_factory.hpp:77] Creating layer inception_4b/relu_3x3
I0727 20:20:42.429579 28370 net.cpp:91] Creating Layer inception_4b/relu_3x3
I0727 20:20:42.429584 28370 net.cpp:425] inception_4b/relu_3x3 <- inception_4b/3x3
I0727 20:20:42.429594 28370 net.cpp:386] inception_4b/relu_3x3 -> inception_4b/3x3 (in-place)
I0727 20:20:42.431037 28370 net.cpp:141] Setting up inception_4b/relu_3x3
I0727 20:20:42.431053 28370 net.cpp:148] Top shape: 10 224 14 14 (439040)
I0727 20:20:42.431058 28370 net.cpp:156] Memory required for data: 397393920
I0727 20:20:42.431063 28370 layer_factory.hpp:77] Creating layer inception_4b/5x5_reduce
I0727 20:20:42.431092 28370 net.cpp:91] Creating Layer inception_4b/5x5_reduce
I0727 20:20:42.431097 28370 net.cpp:425] inception_4b/5x5_reduce <- inception_4a/output_inception_4a/output_0_split_2
I0727 20:20:42.431109 28370 net.cpp:399] inception_4b/5x5_reduce -> inception_4b/5x5_reduce
I0727 20:20:42.431334 28366 net.cpp:141] Setting up inception_4b/3x3
I0727 20:20:42.431356 28366 net.cpp:148] Top shape: 10 224 14 14 (439040)
I0727 20:20:42.431365 28366 net.cpp:156] Memory required for data: 395637760
I0727 20:20:42.431383 28366 layer_factory.hpp:77] Creating layer inception_4b/relu_3x3
I0727 20:20:42.431401 28366 net.cpp:91] Creating Layer inception_4b/relu_3x3
I0727 20:20:42.431412 28366 net.cpp:425] inception_4b/relu_3x3 <- inception_4b/3x3
I0727 20:20:42.431426 28366 net.cpp:386] inception_4b/relu_3x3 -> inception_4b/3x3 (in-place)
I0727 20:20:42.432543 28366 net.cpp:141] Setting up inception_4b/relu_3x3
I0727 20:20:42.432564 28366 net.cpp:148] Top shape: 10 224 14 14 (439040)
I0727 20:20:42.432571 28366 net.cpp:156] Memory required for data: 397393920
I0727 20:20:42.432580 28366 layer_factory.hpp:77] Creating layer inception_4b/5x5_reduce
I0727 20:20:42.432622 28366 net.cpp:91] Creating Layer inception_4b/5x5_reduce
I0727 20:20:42.432636 28366 net.cpp:425] inception_4b/5x5_reduce <- inception_4a/output_inception_4a/output_0_split_2
I0727 20:20:42.432658 28366 net.cpp:399] inception_4b/5x5_reduce -> inception_4b/5x5_reduce
I0727 20:20:42.435416 28370 net.cpp:141] Setting up inception_4b/5x5_reduce
I0727 20:20:42.435433 28370 net.cpp:148] Top shape: 10 24 14 14 (47040)
I0727 20:20:42.435438 28370 net.cpp:156] Memory required for data: 397582080
I0727 20:20:42.435447 28370 layer_factory.hpp:77] Creating layer inception_4b/relu_5x5_reduce
I0727 20:20:42.435459 28370 net.cpp:91] Creating Layer inception_4b/relu_5x5_reduce
I0727 20:20:42.435466 28370 net.cpp:425] inception_4b/relu_5x5_reduce <- inception_4b/5x5_reduce
I0727 20:20:42.435472 28370 net.cpp:386] inception_4b/relu_5x5_reduce -> inception_4b/5x5_reduce (in-place)
I0727 20:20:42.435716 28370 net.cpp:141] Setting up inception_4b/relu_5x5_reduce
I0727 20:20:42.435727 28370 net.cpp:148] Top shape: 10 24 14 14 (47040)
I0727 20:20:42.435732 28370 net.cpp:156] Memory required for data: 397770240
I0727 20:20:42.435737 28370 layer_factory.hpp:77] Creating layer inception_4b/5x5
I0727 20:20:42.435752 28370 net.cpp:91] Creating Layer inception_4b/5x5
I0727 20:20:42.435757 28370 net.cpp:425] inception_4b/5x5 <- inception_4b/5x5_reduce
I0727 20:20:42.435767 28370 net.cpp:399] inception_4b/5x5 -> inception_4b/5x5
I0727 20:20:42.439196 28366 net.cpp:141] Setting up inception_4b/5x5_reduce
I0727 20:20:42.439219 28366 net.cpp:148] Top shape: 10 24 14 14 (47040)
I0727 20:20:42.439229 28366 net.cpp:156] Memory required for data: 397582080
I0727 20:20:42.439247 28366 layer_factory.hpp:77] Creating layer inception_4b/relu_5x5_reduce
I0727 20:20:42.439262 28366 net.cpp:91] Creating Layer inception_4b/relu_5x5_reduce
I0727 20:20:42.439273 28366 net.cpp:425] inception_4b/relu_5x5_reduce <- inception_4b/5x5_reduce
I0727 20:20:42.439285 28366 net.cpp:386] inception_4b/relu_5x5_reduce -> inception_4b/5x5_reduce (in-place)
I0727 20:20:42.439733 28366 net.cpp:141] Setting up inception_4b/relu_5x5_reduce
I0727 20:20:42.439751 28366 net.cpp:148] Top shape: 10 24 14 14 (47040)
I0727 20:20:42.439760 28366 net.cpp:156] Memory required for data: 397770240
I0727 20:20:42.439769 28366 layer_factory.hpp:77] Creating layer inception_4b/5x5
I0727 20:20:42.439795 28366 net.cpp:91] Creating Layer inception_4b/5x5
I0727 20:20:42.439808 28366 net.cpp:425] inception_4b/5x5 <- inception_4b/5x5_reduce
I0727 20:20:42.439831 28366 net.cpp:399] inception_4b/5x5 -> inception_4b/5x5
I0727 20:20:42.443011 28370 net.cpp:141] Setting up inception_4b/5x5
I0727 20:20:42.443037 28370 net.cpp:148] Top shape: 10 64 14 14 (125440)
I0727 20:20:42.443042 28370 net.cpp:156] Memory required for data: 398272000
I0727 20:20:42.443050 28370 layer_factory.hpp:77] Creating layer inception_4b/relu_5x5
I0727 20:20:42.443061 28370 net.cpp:91] Creating Layer inception_4b/relu_5x5
I0727 20:20:42.443066 28370 net.cpp:425] inception_4b/relu_5x5 <- inception_4b/5x5
I0727 20:20:42.443073 28370 net.cpp:386] inception_4b/relu_5x5 -> inception_4b/5x5 (in-place)
I0727 20:20:42.443457 28370 net.cpp:141] Setting up inception_4b/relu_5x5
I0727 20:20:42.443470 28370 net.cpp:148] Top shape: 10 64 14 14 (125440)
I0727 20:20:42.443473 28370 net.cpp:156] Memory required for data: 398773760
I0727 20:20:42.443478 28370 layer_factory.hpp:77] Creating layer inception_4b/pool
I0727 20:20:42.443487 28370 net.cpp:91] Creating Layer inception_4b/pool
I0727 20:20:42.443492 28370 net.cpp:425] inception_4b/pool <- inception_4a/output_inception_4a/output_0_split_3
I0727 20:20:42.443501 28370 net.cpp:399] inception_4b/pool -> inception_4b/pool
I0727 20:20:42.444401 28370 net.cpp:141] Setting up inception_4b/pool
I0727 20:20:42.444414 28370 net.cpp:148] Top shape: 10 512 14 14 (1003520)
I0727 20:20:42.444418 28370 net.cpp:156] Memory required for data: 402787840
I0727 20:20:42.444423 28370 layer_factory.hpp:77] Creating layer inception_4b/pool_proj
I0727 20:20:42.444437 28370 net.cpp:91] Creating Layer inception_4b/pool_proj
I0727 20:20:42.444443 28370 net.cpp:425] inception_4b/pool_proj <- inception_4b/pool
I0727 20:20:42.444452 28370 net.cpp:399] inception_4b/pool_proj -> inception_4b/pool_proj
I0727 20:20:42.448343 28366 net.cpp:141] Setting up inception_4b/5x5
I0727 20:20:42.448386 28366 net.cpp:148] Top shape: 10 64 14 14 (125440)
I0727 20:20:42.448395 28366 net.cpp:156] Memory required for data: 398272000
I0727 20:20:42.448415 28366 layer_factory.hpp:77] Creating layer inception_4b/relu_5x5
I0727 20:20:42.448457 28366 net.cpp:91] Creating Layer inception_4b/relu_5x5
I0727 20:20:42.448472 28366 net.cpp:425] inception_4b/relu_5x5 <- inception_4b/5x5
I0727 20:20:42.448489 28366 net.cpp:386] inception_4b/relu_5x5 -> inception_4b/5x5 (in-place)
I0727 20:20:42.448940 28366 net.cpp:141] Setting up inception_4b/relu_5x5
I0727 20:20:42.448959 28366 net.cpp:148] Top shape: 10 64 14 14 (125440)
I0727 20:20:42.448968 28366 net.cpp:156] Memory required for data: 398773760
I0727 20:20:42.448979 28366 layer_factory.hpp:77] Creating layer inception_4b/pool
I0727 20:20:42.448995 28366 net.cpp:91] Creating Layer inception_4b/pool
I0727 20:20:42.449007 28366 net.cpp:425] inception_4b/pool <- inception_4a/output_inception_4a/output_0_split_3
I0727 20:20:42.449028 28366 net.cpp:399] inception_4b/pool -> inception_4b/pool
I0727 20:20:42.449470 28366 net.cpp:141] Setting up inception_4b/pool
I0727 20:20:42.449489 28366 net.cpp:148] Top shape: 10 512 14 14 (1003520)
I0727 20:20:42.449499 28366 net.cpp:156] Memory required for data: 402787840
I0727 20:20:42.449508 28366 layer_factory.hpp:77] Creating layer inception_4b/pool_proj
I0727 20:20:42.449542 28366 net.cpp:91] Creating Layer inception_4b/pool_proj
I0727 20:20:42.449555 28366 net.cpp:425] inception_4b/pool_proj <- inception_4b/pool
I0727 20:20:42.449575 28366 net.cpp:399] inception_4b/pool_proj -> inception_4b/pool_proj
I0727 20:20:42.450822 28370 net.cpp:141] Setting up inception_4b/pool_proj
I0727 20:20:42.450847 28370 net.cpp:148] Top shape: 10 64 14 14 (125440)
I0727 20:20:42.450855 28370 net.cpp:156] Memory required for data: 403289600
I0727 20:20:42.450871 28370 layer_factory.hpp:77] Creating layer inception_4b/relu_pool_proj
I0727 20:20:42.450887 28370 net.cpp:91] Creating Layer inception_4b/relu_pool_proj
I0727 20:20:42.450898 28370 net.cpp:425] inception_4b/relu_pool_proj <- inception_4b/pool_proj
I0727 20:20:42.450913 28370 net.cpp:386] inception_4b/relu_pool_proj -> inception_4b/pool_proj (in-place)
I0727 20:20:42.451988 28370 net.cpp:141] Setting up inception_4b/relu_pool_proj
I0727 20:20:42.452010 28370 net.cpp:148] Top shape: 10 64 14 14 (125440)
I0727 20:20:42.452018 28370 net.cpp:156] Memory required for data: 403791360
I0727 20:20:42.452026 28370 layer_factory.hpp:77] Creating layer inception_4b/output
I0727 20:20:42.452039 28370 net.cpp:91] Creating Layer inception_4b/output
I0727 20:20:42.452047 28370 net.cpp:425] inception_4b/output <- inception_4b/1x1
I0727 20:20:42.452059 28370 net.cpp:425] inception_4b/output <- inception_4b/3x3
I0727 20:20:42.452066 28370 net.cpp:425] inception_4b/output <- inception_4b/5x5
I0727 20:20:42.452074 28370 net.cpp:425] inception_4b/output <- inception_4b/pool_proj
I0727 20:20:42.452086 28370 net.cpp:399] inception_4b/output -> inception_4b/output
I0727 20:20:42.452883 28370 net.cpp:141] Setting up inception_4b/output
I0727 20:20:42.452903 28370 net.cpp:148] Top shape: 10 512 14 14 (1003520)
I0727 20:20:42.452909 28370 net.cpp:156] Memory required for data: 407805440
I0727 20:20:42.452918 28370 layer_factory.hpp:77] Creating layer inception_4b/output_inception_4b/output_0_split
I0727 20:20:42.452930 28370 net.cpp:91] Creating Layer inception_4b/output_inception_4b/output_0_split
I0727 20:20:42.452937 28370 net.cpp:425] inception_4b/output_inception_4b/output_0_split <- inception_4b/output
I0727 20:20:42.452951 28370 net.cpp:399] inception_4b/output_inception_4b/output_0_split -> inception_4b/output_inception_4b/output_0_split_0
I0727 20:20:42.452966 28370 net.cpp:399] inception_4b/output_inception_4b/output_0_split -> inception_4b/output_inception_4b/output_0_split_1
I0727 20:20:42.452978 28370 net.cpp:399] inception_4b/output_inception_4b/output_0_split -> inception_4b/output_inception_4b/output_0_split_2
I0727 20:20:42.452991 28370 net.cpp:399] inception_4b/output_inception_4b/output_0_split -> inception_4b/output_inception_4b/output_0_split_3
I0727 20:20:42.454470 28370 net.cpp:141] Setting up inception_4b/output_inception_4b/output_0_split
I0727 20:20:42.454490 28370 net.cpp:148] Top shape: 10 512 14 14 (1003520)
I0727 20:20:42.454500 28370 net.cpp:148] Top shape: 10 512 14 14 (1003520)
I0727 20:20:42.454509 28370 net.cpp:148] Top shape: 10 512 14 14 (1003520)
I0727 20:20:42.454519 28370 net.cpp:148] Top shape: 10 512 14 14 (1003520)
I0727 20:20:42.454525 28370 net.cpp:156] Memory required for data: 423861760
I0727 20:20:42.454533 28370 layer_factory.hpp:77] Creating layer inception_4c/1x1
I0727 20:20:42.454560 28370 net.cpp:91] Creating Layer inception_4c/1x1
I0727 20:20:42.454573 28370 net.cpp:425] inception_4c/1x1 <- inception_4b/output_inception_4b/output_0_split_0
I0727 20:20:42.454588 28370 net.cpp:399] inception_4c/1x1 -> inception_4c/1x1
I0727 20:20:42.455791 28366 net.cpp:141] Setting up inception_4b/pool_proj
I0727 20:20:42.455812 28366 net.cpp:148] Top shape: 10 64 14 14 (125440)
I0727 20:20:42.455821 28366 net.cpp:156] Memory required for data: 403289600
I0727 20:20:42.455837 28366 layer_factory.hpp:77] Creating layer inception_4b/relu_pool_proj
I0727 20:20:42.455848 28366 net.cpp:91] Creating Layer inception_4b/relu_pool_proj
I0727 20:20:42.455857 28366 net.cpp:425] inception_4b/relu_pool_proj <- inception_4b/pool_proj
I0727 20:20:42.455869 28366 net.cpp:386] inception_4b/relu_pool_proj -> inception_4b/pool_proj (in-place)
I0727 20:20:42.456970 28366 net.cpp:141] Setting up inception_4b/relu_pool_proj
I0727 20:20:42.456990 28366 net.cpp:148] Top shape: 10 64 14 14 (125440)
I0727 20:20:42.457000 28366 net.cpp:156] Memory required for data: 403791360
I0727 20:20:42.457007 28366 layer_factory.hpp:77] Creating layer inception_4b/output
…
I0727 20:20:42.579073 28366 net.cpp:141] Setting up inception_4e/5x5_reduce
I0727 20:20:42.579089 28366 net.cpp:148] Top shape: 10 32 14 14 (62720)
I0727 20:20:42.579093 28366 net.cpp:156] Memory required for data: 505899520
I0727 20:20:42.579102 28366 layer_factory.hpp:77] Creating layer inception_4e/relu_5x5_reduce
I0727 20:20:42.579109 28366 net.cpp:91] Creating Layer inception_4e/relu_5x5_reduce
I0727 20:20:42.579115 28366 net.cpp:425] inception_4e/relu_5x5_reduce <- inception_4e/5x5_reduce
I0727 20:20:42.579121 28366 net.cpp:386] inception_4e/relu_5x5_reduce -> inception_4e/5x5_reduce (in-place)
I0727 20:20:42.579401 28366 net.cpp:141] Setting up inception_4e/relu_5x5_reduce
I0727 20:20:42.579412 28366 net.cpp:148] Top shape: 10 32 14 14 (62720)
I0727 20:20:42.579416 28366 net.cpp:156] Memory required for data: 506150400
I0727 20:20:42.579421 28366 layer_factory.hpp:77] Creating layer inception_4e/5x5
I0727 20:20:42.579435 28366 net.cpp:91] Creating Layer inception_4e/5x5
I0727 20:20:42.579440 28366 net.cpp:425] inception_4e/5x5 <- inception_4e/5x5_reduce
I0727 20:20:42.579452 28366 net.cpp:399] inception_4e/5x5 -> inception_4e/5x5
I0727 20:20:42.580298 28370 net.cpp:141] Setting up inception_4e/relu_3x3
I0727 20:20:42.580318 28370 net.cpp:148] Top shape: 10 320 14 14 (627200)
I0727 20:20:42.580328 28370 net.cpp:156] Memory required for data: 505648640
I0727 20:20:42.580338 28370 layer_factory.hpp:77] Creating layer inception_4e/5x5_reduce
I0727 20:20:42.580366 28370 net.cpp:91] Creating Layer inception_4e/5x5_reduce
I0727 20:20:42.580379 28370 net.cpp:425] inception_4e/5x5_reduce <- inception_4d/output_inception_4d/output_0_split_2
I0727 20:20:42.580399 28370 net.cpp:399] inception_4e/5x5_reduce -> inception_4e/5x5_reduce
I0727 20:20:42.585726 28370 net.cpp:141] Setting up inception_4e/5x5_reduce
I0727 20:20:42.585748 28370 net.cpp:148] Top shape: 10 32 14 14 (62720)
I0727 20:20:42.585757 28370 net.cpp:156] Memory required for data: 505899520
I0727 20:20:42.585772 28370 layer_factory.hpp:77] Creating layer inception_4e/relu_5x5_reduce
I0727 20:20:42.585805 28370 net.cpp:91] Creating Layer inception_4e/relu_5x5_reduce
I0727 20:20:42.585819 28370 net.cpp:425] inception_4e/relu_5x5_reduce <- inception_4e/5x5_reduce
I0727 20:20:42.585834 28370 net.cpp:386] inception_4e/relu_5x5_reduce -> inception_4e/5x5_reduce (in-place)
I0727 20:20:42.585878 28366 net.cpp:141] Setting up inception_4e/5x5
I0727 20:20:42.585893 28366 net.cpp:148] Top shape: 10 128 14 14 (250880)
I0727 20:20:42.585901 28366 net.cpp:156] Memory required for data: 507153920
I0727 20:20:42.585908 28366 layer_factory.hpp:77] Creating layer inception_4e/relu_5x5
I0727 20:20:42.585917 28366 net.cpp:91] Creating Layer inception_4e/relu_5x5
I0727 20:20:42.585923 28366 net.cpp:425] inception_4e/relu_5x5 <- inception_4e/5x5
I0727 20:20:42.585930 28366 net.cpp:386] inception_4e/relu_5x5 -> inception_4e/5x5 (in-place)
I0727 20:20:42.586310 28366 net.cpp:141] Setting up inception_4e/relu_5x5
I0727 20:20:42.586323 28366 net.cpp:148] Top shape: 10 128 14 14 (250880)
I0727 20:20:42.586326 28366 net.cpp:156] Memory required for data: 508157440
I0727 20:20:42.586331 28366 layer_factory.hpp:77] Creating layer inception_4e/pool
I0727 20:20:42.586340 28366 net.cpp:91] Creating Layer inception_4e/pool
I0727 20:20:42.586346 28366 net.cpp:425] inception_4e/pool <- inception_4d/output_inception_4d/output_0_split_3
I0727 20:20:42.586355 28366 net.cpp:399] inception_4e/pool -> inception_4e/pool
I0727 20:20:42.586374 28370 net.cpp:141] Setting up inception_4e/relu_5x5_reduce
I0727 20:20:42.586392 28370 net.cpp:148] Top shape: 10 32 14 14 (62720)
I0727 20:20:42.586401 28370 net.cpp:156] Memory required for data: 506150400
I0727 20:20:42.586411 28370 layer_factory.hpp:77] Creating layer inception_4e/5x5
I0727 20:20:42.586438 28370 net.cpp:91] Creating Layer inception_4e/5x5
I0727 20:20:42.586452 28370 net.cpp:425] inception_4e/5x5 <- inception_4e/5x5_reduce
I0727 20:20:42.586474 28370 net.cpp:399] inception_4e/5x5 -> inception_4e/5x5
I0727 20:20:42.586483 28366 net.cpp:141] Setting up inception_4e/pool
I0727 20:20:42.586493 28366 net.cpp:148] Top shape: 10 528 14 14 (1034880)
I0727 20:20:42.586498 28366 net.cpp:156] Memory required for data: 512296960
I0727 20:20:42.586501 28366 layer_factory.hpp:77] Creating layer inception_4e/pool_proj
I0727 20:20:42.586515 28366 net.cpp:91] Creating Layer inception_4e/pool_proj
I0727 20:20:42.586520 28366 net.cpp:425] inception_4e/pool_proj <- inception_4e/pool
I0727 20:20:42.586529 28366 net.cpp:399] inception_4e/pool_proj -> inception_4e/pool_proj
I0727 20:20:42.592136 28366 net.cpp:141] Setting up inception_4e/pool_proj
I0727 20:20:42.592154 28366 net.cpp:148] Top shape: 10 128 14 14 (250880)
I0727 20:20:42.592159 28366 net.cpp:156] Memory required for data: 513300480
I0727 20:20:42.592169 28366 layer_factory.hpp:77] Creating layer inception_4e/relu_pool_proj
I0727 20:20:42.592180 28366 net.cpp:91] Creating Layer inception_4e/relu_pool_proj
I0727 20:20:42.592185 28366 net.cpp:425] inception_4e/relu_pool_proj <- inception_4e/pool_proj
I0727 20:20:42.592192 28366 net.cpp:386] inception_4e/relu_pool_proj -> inception_4e/pool_proj (in-place)
I0727 20:20:42.593835 28366 net.cpp:141] Setting up inception_4e/relu_pool_proj
I0727 20:20:42.593852 28366 net.cpp:148] Top shape: 10 128 14 14 (250880)
I0727 20:20:42.593855 28366 net.cpp:156] Memory required for data: 514304000
I0727 20:20:42.593860 28366 layer_factory.hpp:77] Creating layer inception_4e/output
I0727 20:20:42.593873 28366 net.cpp:91] Creating Layer inception_4e/output
I0727 20:20:42.593878 28366 net.cpp:425] inception_4e/output <- inception_4e/1x1
I0727 20:20:42.593884 28366 net.cpp:425] inception_4e/output <- inception_4e/3x3
I0727 20:20:42.593889 28366 net.cpp:425] inception_4e/output <- inception_4e/5x5
I0727 20:20:42.593894 28366 net.cpp:425] inception_4e/output <- inception_4e/pool_proj
I0727 20:20:42.593901 28366 net.cpp:399] inception_4e/output -> inception_4e/output
I0727 20:20:42.594035 28366 net.cpp:141] Setting up inception_4e/output
I0727 20:20:42.594045 28366 net.cpp:148] Top shape: 10 832 14 14 (1630720)
I0727 20:20:42.594049 28366 net.cpp:156] Memory required for data: 520826880
I0727 20:20:42.594054 28366 layer_factory.hpp:77] Creating layer pool4/3x3_s2
I0727 20:20:42.594061 28366 net.cpp:91] Creating Layer pool4/3x3_s2
I0727 20:20:42.594068 28366 net.cpp:425] pool4/3x3_s2 <- inception_4e/output
I0727 20:20:42.594076 28366 net.cpp:399] pool4/3x3_s2 -> pool4/3x3_s2
I0727 20:20:42.594087 28370 net.cpp:141] Setting up inception_4e/5x5
I0727 20:20:42.594107 28370 net.cpp:148] Top shape: 10 128 14 14 (250880)
I0727 20:20:42.594118 28370 net.cpp:156] Memory required for data: 507153920
I0727 20:20:42.594135 28370 layer_factory.hpp:77] Creating layer inception_4e/relu_5x5
I0727 20:20:42.594156 28370 net.cpp:91] Creating Layer inception_4e/relu_5x5
I0727 20:20:42.594168 28370 net.cpp:425] inception_4e/relu_5x5 <- inception_4e/5x5
I0727 20:20:42.594182 28370 net.cpp:386] inception_4e/relu_5x5 -> inception_4e/5x5 (in-place)
I0727 20:20:42.594197 28366 net.cpp:141] Setting up pool4/3x3_s2
I0727 20:20:42.594207 28366 net.cpp:148] Top shape: 10 832 7 7 (407680)
I0727 20:20:42.594210 28366 net.cpp:156] Memory required for data: 522457600
I0727 20:20:42.594214 28366 layer_factory.hpp:77] Creating layer pool4/3x3_s2_pool4/3x3_s2_0_split
I0727 20:20:42.594226 28366 net.cpp:91] Creating Layer pool4/3x3_s2_pool4/3x3_s2_0_split
I0727 20:20:42.594230 28366 net.cpp:425] pool4/3x3_s2_pool4/3x3_s2_0_split <- pool4/3x3_s2
I0727 20:20:42.594239 28366 net.cpp:399] pool4/3x3_s2_pool4/3x3_s2_0_split -> pool4/3x3_s2_pool4/3x3_s2_0_split_0
I0727 20:20:42.594247 28366 net.cpp:399] pool4/3x3_s2_pool4/3x3_s2_0_split -> pool4/3x3_s2_pool4/3x3_s2_0_split_1
I0727 20:20:42.594254 28366 net.cpp:399] pool4/3x3_s2_pool4/3x3_s2_0_split -> pool4/3x3_s2_pool4/3x3_s2_0_split_2
I0727 20:20:42.594261 28366 net.cpp:399] pool4/3x3_s2_pool4/3x3_s2_0_split -> pool4/3x3_s2_pool4/3x3_s2_0_split_3
I0727 20:20:42.594790 28370 net.cpp:141] Setting up inception_4e/relu_5x5
I0727 20:20:42.594807 28366 net.cpp:141] Setting up pool4/3x3_s2_pool4/3x3_s2_0_split
I0727 20:20:42.594810 28370 net.cpp:148] Top shape: 10 128 14 14 (250880)
I0727 20:20:42.594825 28366 net.cpp:148] Top shape: 10 832 7 7 (407680)
I0727 20:20:42.594830 28366 net.cpp:148] Top shape: 10 832 7 7 (407680)
I0727 20:20:42.594830 28370 net.cpp:156] Memory required for data: 508157440
I0727 20:20:42.594836 28366 net.cpp:148] Top shape: 10 832 7 7 (407680)
I0727 20:20:42.594841 28366 net.cpp:148] Top shape: 10 832 7 7 (407680)
I0727 20:20:42.594842 28370 layer_factory.hpp:77] Creating layer inception_4e/pool
I0727 20:20:42.594846 28366 net.cpp:156] Memory required for data: 528980480
I0727 20:20:42.594857 28366 layer_factory.hpp:77] Creating layer inception_5a/1x1
I0727 20:20:42.594861 28370 net.cpp:91] Creating Layer inception_4e/pool
I0727 20:20:42.594874 28370 net.cpp:425] inception_4e/pool <- inception_4d/output_inception_4d/output_0_split_3
I0727 20:20:42.594876 28366 net.cpp:91] Creating Layer inception_5a/1x1
I0727 20:20:42.594889 28366 net.cpp:425] inception_5a/1x1 <- pool4/3x3_s2_pool4/3x3_s2_0_split_0
I0727 20:20:42.594898 28366 net.cpp:399] inception_5a/1x1 -> inception_5a/1x1
I0727 20:20:42.594899 28370 net.cpp:399] inception_4e/pool -> inception_4e/pool
I0727 20:20:42.595275 28370 net.cpp:141] Setting up inception_4e/pool
I0727 20:20:42.595294 28370 net.cpp:148] Top shape: 10 528 14 14 (1034880)
I0727 20:20:42.595304 28370 net.cpp:156] Memory required for data: 512296960
I0727 20:20:42.595312 28370 layer_factory.hpp:77] Creating layer inception_4e/pool_proj
I0727 20:20:42.595338 28370 net.cpp:91] Creating Layer inception_4e/pool_proj
I0727 20:20:42.595351 28370 net.cpp:425] inception_4e/pool_proj <- inception_4e/pool
I0727 20:20:42.595372 28370 net.cpp:399] inception_4e/pool_proj -> inception_4e/pool_proj
I0727 20:20:42.601326 28370 net.cpp:141] Setting up inception_4e/pool_proj
I0727 20:20:42.601347 28370 net.cpp:148] Top shape: 10 128 14 14 (250880)
I0727 20:20:42.601356 28370 net.cpp:156] Memory required for data: 513300480
I0727 20:20:42.601372 28370 layer_factory.hpp:77] Creating layer inception_4e/relu_pool_proj
I0727 20:20:42.601389 28370 net.cpp:91] Creating Layer inception_4e/relu_pool_proj
I0727 20:20:42.601399 28370 net.cpp:425] inception_4e/relu_pool_proj <- inception_4e/pool_proj
I0727 20:20:42.601413 28370 net.cpp:386] inception_4e/relu_pool_proj -> inception_4e/pool_proj (in-place)
I0727 20:20:42.602370 28366 net.cpp:141] Setting up inception_5a/1x1
I0727 20:20:42.602385 28366 net.cpp:148] Top shape: 10 256 7 7 (125440)
I0727 20:20:42.602391 28366 net.cpp:156] Memory required for data: 529482240
I0727 20:20:42.602399 28366 layer_factory.hpp:77] Creating layer inception_5a/relu_1x1
I0727 20:20:42.602409 28366 net.cpp:91] Creating Layer inception_5a/relu_1x1
I0727 20:20:42.602416 28366 net.cpp:425] inception_5a/relu_1x1 <- inception_5a/1x1
I0727 20:20:42.602421 28366 net.cpp:386] inception_5a/relu_1x1 -> inception_5a/1x1 (in-place)
I0727 20:20:42.602602 28370 net.cpp:141] Setting up inception_4e/relu_pool_proj
I0727 20:20:42.602625 28370 net.cpp:148] Top shape: 10 128 14 14 (250880)
I0727 20:20:42.602637 28370 net.cpp:156] Memory required for data: 514304000
I0727 20:20:42.602645 28370 layer_factory.hpp:77] Creating layer inception_4e/output
I0727 20:20:42.602659 28370 net.cpp:91] Creating Layer inception_4e/output
I0727 20:20:42.602669 28370 net.cpp:425] inception_4e/output <- inception_4e/1x1
I0727 20:20:42.602681 28370 net.cpp:425] inception_4e/output <- inception_4e/3x3
I0727 20:20:42.602701 28370 net.cpp:425] inception_4e/output <- inception_4e/5x5
I0727 20:20:42.602713 28370 net.cpp:425] inception_4e/output <- inception_4e/pool_proj
I0727 20:20:42.602725 28370 net.cpp:399] inception_4e/output -> inception_4e/output
I0727 20:20:42.602741 28366 net.cpp:141] Setting up inception_5a/relu_1x1
I0727 20:20:42.602758 28366 net.cpp:148] Top shape: 10 256 7 7 (125440)
I0727 20:20:42.602763 28366 net.cpp:156] Memory required for data: 529984000
I0727 20:20:42.602767 28366 layer_factory.hpp:77] Creating layer inception_5a/3x3_reduce
I0727 20:20:42.602782 28366 net.cpp:91] Creating Layer inception_5a/3x3_reduce
I0727 20:20:42.602788 28366 net.cpp:425] inception_5a/3x3_reduce <- pool4/3x3_s2_pool4/3x3_s2_0_split_1
I0727 20:20:42.602797 28366 net.cpp:399] inception_5a/3x3_reduce -> inception_5a/3x3_reduce
I0727 20:20:42.602849 28370 net.cpp:141] Setting up inception_4e/output
I0727 20:20:42.602865 28370 net.cpp:148] Top shape: 10 832 14 14 (1630720)
I0727 20:20:42.602874 28370 net.cpp:156] Memory required for data: 520826880
I0727 20:20:42.602883 28370 layer_factory.hpp:77] Creating layer pool4/3x3_s2
I0727 20:20:42.602896 28370 net.cpp:91] Creating Layer pool4/3x3_s2
I0727 20:20:42.602907 28370 net.cpp:425] pool4/3x3_s2 <- inception_4e/output
I0727 20:20:42.602926 28370 net.cpp:399] pool4/3x3_s2 -> pool4/3x3_s2
I0727 20:20:42.603309 28370 net.cpp:141] Setting up pool4/3x3_s2
I0727 20:20:42.603327 28370 net.cpp:148] Top shape: 10 832 7 7 (407680)
I0727 20:20:42.603337 28370 net.cpp:156] Memory required for data: 522457600
I0727 20:20:42.603345 28370 layer_factory.hpp:77] Creating layer pool4/3x3_s2_pool4/3x3_s2_0_split
I0727 20:20:42.603359 28370 net.cpp:91] Creating Layer pool4/3x3_s2_pool4/3x3_s2_0_split
I0727 20:20:42.603369 28370 net.cpp:425] pool4/3x3_s2_pool4/3x3_s2_0_split <- pool4/3x3_s2
I0727 20:20:42.603382 28370 net.cpp:399] pool4/3x3_s2_pool4/3x3_s2_0_split -> pool4/3x3_s2_pool4/3x3_s2_0_split_0
I0727 20:20:42.603404 28370 net.cpp:399] pool4/3x3_s2_pool4/3x3_s2_0_split -> pool4/3x3_s2_pool4/3x3_s2_0_split_1
I0727 20:20:42.603423 28370 net.cpp:399] pool4/3x3_s2_pool4/3x3_s2_0_split -> pool4/3x3_s2_pool4/3x3_s2_0_split_2
I0727 20:20:42.603440 28370 net.cpp:399] pool4/3x3_s2_pool4/3x3_s2_0_split -> pool4/3x3_s2_pool4/3x3_s2_0_split_3
I0727 20:20:42.605376 28370 net.cpp:141] Setting up pool4/3x3_s2_pool4/3x3_s2_0_split
I0727 20:20:42.605394 28370 net.cpp:148] Top shape: 10 832 7 7 (407680)
I0727 20:20:42.605406 28370 net.cpp:148] Top shape: 10 832 7 7 (407680)
I0727 20:20:42.605417 28370 net.cpp:148] Top shape: 10 832 7 7 (407680)
I0727 20:20:42.605427 28370 net.cpp:148] Top shape: 10 832 7 7 (407680)
I0727 20:20:42.605435 28370 net.cpp:156] Memory required for data: 528980480
I0727 20:20:42.605443 28370 layer_factory.hpp:77] Creating layer inception_5a/1x1
I0727 20:20:42.605463 28370 net.cpp:91] Creating Layer inception_5a/1x1
I0727 20:20:42.605476 28370 net.cpp:425] inception_5a/1x1 <- pool4/3x3_s2_pool4/3x3_s2_0_split_0
I0727 20:20:42.605500 28370 net.cpp:399] inception_5a/1x1 -> inception_5a/1x1
I0727 20:20:42.611336 28366 net.cpp:141] Setting up inception_5a/3x3_reduce
I0727 20:20:42.611356 28366 net.cpp:148] Top shape: 10 160 7 7 (78400)
I0727 20:20:42.611361 28366 net.cpp:156] Memory required for data: 530297600
I0727 20:20:42.611369 28366 layer_factory.hpp:77] Creating layer inception_5a/relu_3x3_reduce
I0727 20:20:42.611382 28366 net.cpp:91] Creating Layer inception_5a/relu_3x3_reduce
I0727 20:20:42.611387 28366 net.cpp:425] inception_5a/relu_3x3_reduce <- inception_5a/3x3_reduce
I0727 20:20:42.611394 28366 net.cpp:386] inception_5a/relu_3x3_reduce -> inception_5a/3x3_reduce (in-place)
I0727 20:20:42.611752 28366 net.cpp:141] Setting up inception_5a/relu_3x3_reduce
I0727 20:20:42.611764 28366 net.cpp:148] Top shape: 10 160 7 7 (78400)
I0727 20:20:42.611768 28366 net.cpp:156] Memory required for data: 530611200
I0727 20:20:42.611773 28366 layer_factory.hpp:77] Creating layer inception_5a/3x3
I0727 20:20:42.611788 28366 net.cpp:91] Creating Layer inception_5a/3x3
I0727 20:20:42.611794 28366 net.cpp:425] inception_5a/3x3 <- inception_5a/3x3_reduce
I0727 20:20:42.611806 28366 net.cpp:399] inception_5a/3x3 -> inception_5a/3x3
I0727 20:20:42.615087 28370 net.cpp:141] Setting up inception_5a/1x1
I0727 20:20:42.615109 28370 net.cpp:148] Top shape: 10 256 7 7 (125440)
I0727 20:20:42.615119 28370 net.cpp:156] Memory required for data: 529482240
I0727 20:20:42.615137 28370 layer_factory.hpp:77] Creating layer inception_5a/relu_1x1
I0727 20:20:42.615157 28370 net.cpp:91] Creating Layer inception_5a/relu_1x1
I0727 20:20:42.615170 28370 net.cpp:425] inception_5a/relu_1x1 <- inception_5a/1x1
I0727 20:20:42.615183 28370 net.cpp:386] inception_5a/relu_1x1 -> inception_5a/1x1 (in-place)
I0727 20:20:42.615629 28370 net.cpp:141] Setting up inception_5a/relu_1x1
I0727 20:20:42.615650 28370 net.cpp:148] Top shape: 10 256 7 7 (125440)
I0727 20:20:42.615659 28370 net.cpp:156] Memory required for data: 529984000
I0727 20:20:42.615669 28370 layer_factory.hpp:77] Creating layer inception_5a/3x3_reduce
I0727 20:20:42.615695 28370 net.cpp:91] Creating Layer inception_5a/3x3_reduce
I0727 20:20:42.615710 28370 net.cpp:425] inception_5a/3x3_reduce <- pool4/3x3_s2_pool4/3x3_s2_0_split_1
I0727 20:20:42.615731 28370 net.cpp:399] inception_5a/3x3_reduce -> inception_5a/3x3_reduce
I0727 20:20:42.622634 28366 net.cpp:141] Setting up inception_5a/3x3
I0727 20:20:42.622653 28366 net.cpp:148] Top shape: 10 320 7 7 (156800)
I0727 20:20:42.622658 28366 net.cpp:156] Memory required for data: 531238400
I0727 20:20:42.622668 28366 layer_factory.hpp:77] Creating layer inception_5a/relu_3x3
I0727 20:20:42.622676 28366 net.cpp:91] Creating Layer inception_5a/relu_3x3
I0727 20:20:42.622681 28366 net.cpp:425] inception_5a/relu_3x3 <- inception_5a/3x3
I0727 20:20:42.622704 28366 net.cpp:386] inception_5a/relu_3x3 -> inception_5a/3x3 (in-place)
I0727 20:20:42.623486 28370 net.cpp:141] Setting up inception_5a/3x3_reduce
I0727 20:20:42.623505 28370 net.cpp:148] Top shape: 10 160 7 7 (78400)
I0727 20:20:42.623514 28370 net.cpp:156] Memory required for data: 530297600
I0727 20:20:42.623531 28370 layer_factory.hpp:77] Creating layer inception_5a/relu_3x3_reduce
I0727 20:20:42.623550 28370 net.cpp:91] Creating Layer inception_5a/relu_3x3_reduce
I0727 20:20:42.623551 28366 net.cpp:141] Setting up inception_5a/relu_3x3
I0727 20:20:42.623564 28370 net.cpp:425] inception_5a/relu_3x3_reduce <- inception_5a/3x3_reduce
I0727 20:20:42.623565 28366 net.cpp:148] Top shape: 10 320 7 7 (156800)
I0727 20:20:42.623579 28366 net.cpp:156] Memory required for data: 531865600
I0727 20:20:42.623584 28366 layer_factory.hpp:77] Creating layer inception_5a/5x5_reduce
I0727 20:20:42.623581 28370 net.cpp:386] inception_5a/relu_3x3_reduce -> inception_5a/3x3_reduce (in-place)
I0727 20:20:42.623597 28366 net.cpp:91] Creating Layer inception_5a/5x5_reduce
I0727 20:20:42.623603 28366 net.cpp:425] inception_5a/5x5_reduce <- pool4/3x3_s2_pool4/3x3_s2_0_split_2
I0727 20:20:42.623616 28366 net.cpp:399] inception_5a/5x5_reduce -> inception_5a/5x5_reduce
I0727 20:20:42.624208 28370 net.cpp:141] Setting up inception_5a/relu_3x3_reduce
I0727 20:20:42.624228 28370 net.cpp:148] Top shape: 10 160 7 7 (78400)
I0727 20:20:42.624238 28370 net.cpp:156] Memory required for data: 530611200
I0727 20:20:42.624246 28370 layer_factory.hpp:77] Creating layer inception_5a/3x3
I0727 20:20:42.624275 28370 net.cpp:91] Creating Layer inception_5a/3x3
I0727 20:20:42.624289 28370 net.cpp:425] inception_5a/3x3 <- inception_5a/3x3_reduce
I0727 20:20:42.624306 28370 net.cpp:399] inception_5a/3x3 -> inception_5a/3x3
I0727 20:20:42.629096 28366 net.cpp:141] Setting up inception_5a/5x5_reduce
I0727 20:20:42.629115 28366 net.cpp:148] Top shape: 10 32 7 7 (15680)
I0727 20:20:42.629120 28366 net.cpp:156] Memory required for data: 531928320
I0727 20:20:42.629129 28366 layer_factory.hpp:77] Creating layer inception_5a/relu_5x5_reduce
I0727 20:20:42.629140 28366 net.cpp:91] Creating Layer inception_5a/relu_5x5_reduce
I0727 20:20:42.629146 28366 net.cpp:425] inception_5a/relu_5x5_reduce <- inception_5a/5x5_reduce
I0727 20:20:42.629155 28366 net.cpp:386] inception_5a/relu_5x5_reduce -> inception_5a/5x5_reduce (in-place)
I0727 20:20:42.629411 28366 net.cpp:141] Setting up inception_5a/relu_5x5_reduce
I0727 20:20:42.629422 28366 net.cpp:148] Top shape: 10 32 7 7 (15680)
I0727 20:20:42.629426 28366 net.cpp:156] Memory required for data: 531991040
I0727 20:20:42.629431 28366 layer_factory.hpp:77] Creating layer inception_5a/5x5
I0727 20:20:42.629446 28366 net.cpp:91] Creating Layer inception_5a/5x5
I0727 20:20:42.629452 28366 net.cpp:425] inception_5a/5x5 <- inception_5a/5x5_reduce
I0727 20:20:42.629462 28366 net.cpp:399] inception_5a/5x5 -> inception_5a/5x5
I0727 20:20:42.634472 28366 net.cpp:141] Setting up inception_5a/5x5
I0727 20:20:42.634490 28366 net.cpp:148] Top shape: 10 128 7 7 (62720)
I0727 20:20:42.634495 28366 net.cpp:156] Memory required for data: 532241920
I0727 20:20:42.634503 28366 layer_factory.hpp:77] Creating layer inception_5a/relu_5x5
I0727 20:20:42.634546 28366 net.cpp:91] Creating Layer inception_5a/relu_5x5
I0727 20:20:42.634553 28366 net.cpp:425] inception_5a/relu_5x5 <- inception_5a/5x5
I0727 20:20:42.634562 28366 net.cpp:386] inception_5a/relu_5x5 -> inception_5a/5x5 (in-place)
I0727 20:20:42.634946 28366 net.cpp:141] Setting up inception_5a/relu_5x5
I0727 20:20:42.634958 28366 net.cpp:148] Top shape: 10 128 7 7 (62720)
I0727 20:20:42.634963 28366 net.cpp:156] Memory required for data: 532492800
I0727 20:20:42.634968 28366 layer_factory.hpp:77] Creating layer inception_5a/pool
I0727 20:20:42.634980 28366 net.cpp:91] Creating Layer inception_5a/pool
I0727 20:20:42.634986 28366 net.cpp:425] inception_5a/pool <- pool4/3x3_s2_pool4/3x3_s2_0_split_3
I0727 20:20:42.634994 28366 net.cpp:399] inception_5a/pool -> inception_5a/pool
I0727 20:20:42.635221 28366 net.cpp:141] Setting up inception_5a/pool
I0727 20:20:42.635232 28366 net.cpp:148] Top shape: 10 832 7 7 (407680)
I0727 20:20:42.635236 28366 net.cpp:156] Memory required for data: 534123520
I0727 20:20:42.635241 28366 layer_factory.hpp:77] Creating layer inception_5a/pool_proj
I0727 20:20:42.635257 28366 net.cpp:91] Creating Layer inception_5a/pool_proj
I0727 20:20:42.635262 28366 net.cpp:425] inception_5a/pool_proj <- inception_5a/pool
I0727 20:20:42.635273 28366 net.cpp:399] inception_5a/pool_proj -> inception_5a/pool_proj
I0727 20:20:42.636592 28370 net.cpp:141] Setting up inception_5a/3x3
I0727 20:20:42.636613 28370 net.cpp:148] Top shape: 10 320 7 7 (156800)
I0727 20:20:42.636623 28370 net.cpp:156] Memory required for data: 531238400
I0727 20:20:42.636641 28370 layer_factory.hpp:77] Creating layer inception_5a/relu_3x3
I0727 20:20:42.636656 28370 net.cpp:91] Creating Layer inception_5a/relu_3x3
I0727 20:20:42.636667 28370 net.cpp:425] inception_5a/relu_3x3 <- inception_5a/3x3
I0727 20:20:42.636693 28370 net.cpp:386] inception_5a/relu_3x3 -> inception_5a/3x3 (in-place)
I0727 20:20:42.637926 28370 net.cpp:141] Setting up inception_5a/relu_3x3
I0727 20:20:42.637948 28370 net.cpp:148] Top shape: 10 320 7 7 (156800)
I0727 20:20:42.637956 28370 net.cpp:156] Memory required for data: 531865600
I0727 20:20:42.637965 28370 layer_factory.hpp:77] Creating layer inception_5a/5x5_reduce
I0727 20:20:42.637992 28370 net.cpp:91] Creating Layer inception_5a/5x5_reduce
I0727 20:20:42.638007 28370 net.cpp:425] inception_5a/5x5_reduce <- pool4/3x3_s2_pool4/3x3_s2_0_split_2
I0727 20:20:42.638031 28370 net.cpp:399] inception_5a/5x5_reduce -> inception_5a/5x5_reduce
I0727 20:20:42.642659 28366 net.cpp:141] Setting up inception_5a/pool_proj
I0727 20:20:42.642695 28366 net.cpp:148] Top shape: 10 128 7 7 (62720)
I0727 20:20:42.642701 28366 net.cpp:156] Memory required for data: 534374400
I0727 20:20:42.642712 28366 layer_factory.hpp:77] Creating layer inception_5a/relu_pool_proj
I0727 20:20:42.642722 28366 net.cpp:91] Creating Layer inception_5a/relu_pool_proj
I0727 20:20:42.642729 28366 net.cpp:425] inception_5a/relu_pool_proj <- inception_5a/pool_proj
I0727 20:20:42.642737 28366 net.cpp:386] inception_5a/relu_pool_proj -> inception_5a/pool_proj (in-place)
I0727 20:20:42.643592 28370 net.cpp:141] Setting up inception_5a/5x5_reduce
I0727 20:20:42.643612 28370 net.cpp:148] Top shape: 10 32 7 7 (15680)
I0727 20:20:42.643621 28370 net.cpp:156] Memory required for data: 531928320
I0727 20:20:42.643620 28366 net.cpp:141] Setting up inception_5a/relu_pool_proj
I0727 20:20:42.643636 28366 net.cpp:148] Top shape: 10 128 7 7 (62720)
I0727 20:20:42.643640 28366 net.cpp:156] Memory required for data: 534625280
I0727 20:20:42.643640 28370 layer_factory.hpp:77] Creating layer inception_5a/relu_5x5_reduce
I0727 20:20:42.643646 28366 layer_factory.hpp:77] Creating layer inception_5a/output
I0727 20:20:42.643662 28366 net.cpp:91] Creating Layer inception_5a/output
I0727 20:20:42.643661 28370 net.cpp:91] Creating Layer inception_5a/relu_5x5_reduce
I0727 20:20:42.643668 28366 net.cpp:425] inception_5a/output <- inception_5a/1x1
I0727 20:20:42.643676 28366 net.cpp:425] inception_5a/output <- inception_5a/3x3
I0727 20:20:42.643674 28370 net.cpp:425] inception_5a/relu_5x5_reduce <- inception_5a/5x5_reduce
I0727 20:20:42.643682 28366 net.cpp:425] inception_5a/output <- inception_5a/5x5
I0727 20:20:42.643687 28366 net.cpp:425] inception_5a/output <- inception_5a/pool_proj
I0727 20:20:42.643689 28370 net.cpp:386] inception_5a/relu_5x5_reduce -> inception_5a/5x5_reduce (in-place)
I0727 20:20:42.643692 28366 net.cpp:399] inception_5a/output -> inception_5a/output
I0727 20:20:42.644062 28366 net.cpp:141] Setting up inception_5a/output
I0727 20:20:42.644073 28366 net.cpp:148] Top shape: 10 832 7 7 (407680)
I0727 20:20:42.644078 28366 net.cpp:156] Memory required for data: 536256000
I0727 20:20:42.644081 28366 layer_factory.hpp:77] Creating layer inception_5a/output_inception_5a/output_0_split
I0727 20:20:42.644090 28366 net.cpp:91] Creating Layer inception_5a/output_inception_5a/output_0_split
I0727 20:20:42.644095 28366 net.cpp:425] inception_5a/output_inception_5a/output_0_split <- inception_5a/output
I0727 20:20:42.644105 28366 net.cpp:399] inception_5a/output_inception_5a/output_0_split -> inception_5a/output_inception_5a/output_0_split_0
I0727 20:20:42.644114 28366 net.cpp:399] inception_5a/output_inception_5a/output_0_split -> inception_5a/output_inception_5a/output_0_split_1
I0727 20:20:42.644122 28366 net.cpp:399] inception_5a/output_inception_5a/output_0_split -> inception_5a/output_inception_5a/output_0_split_2
I0727 20:20:42.644130 28366 net.cpp:399] inception_5a/output_inception_5a/output_0_split -> inception_5a/output_inception_5a/output_0_split_3
I0727 20:20:42.644287 28370 net.cpp:141] Setting up inception_5a/relu_5x5_reduce
I0727 20:20:42.644306 28370 net.cpp:148] Top shape: 10 32 7 7 (15680)
I0727 20:20:42.644316 28370 net.cpp:156] Memory required for data: 531991040
I0727 20:20:42.644325 28370 layer_factory.hpp:77] Creating layer inception_5a/5x5
I0727 20:20:42.644351 28370 net.cpp:91] Creating Layer inception_5a/5x5
I0727 20:20:42.644363 28370 net.cpp:425] inception_5a/5x5 <- inception_5a/5x5_reduce
I0727 20:20:42.644387 28370 net.cpp:399] inception_5a/5x5 -> inception_5a/5x5
I0727 20:20:42.644397 28366 net.cpp:141] Setting up inception_5a/output_inception_5a/output_0_split
I0727 20:20:42.644407 28366 net.cpp:148] Top shape: 10 832 7 7 (407680)
I0727 20:20:42.644412 28366 net.cpp:148] Top shape: 10 832 7 7 (407680)
I0727 20:20:42.644418 28366 net.cpp:148] Top shape: 10 832 7 7 (407680)
I0727 20:20:42.644423 28366 net.cpp:148] Top shape: 10 832 7 7 (407680)
I0727 20:20:42.644425 28366 net.cpp:156] Memory required for data: 542778880
I0727 20:20:42.644430 28366 layer_factory.hpp:77] Creating layer inception_5b/1x1
I0727 20:20:42.644445 28366 net.cpp:91] Creating Layer inception_5b/1x1
I0727 20:20:42.644450 28366 net.cpp:425] inception_5b/1x1 <- inception_5a/output_inception_5a/output_0_split_0
I0727 20:20:42.644462 28366 net.cpp:399] inception_5b/1x1 -> inception_5b/1x1
I0727 20:20:42.659682 28370 net.cpp:141] Setting up inception_5a/5x5
I0727 20:20:42.659741 28370 net.cpp:148] Top shape: 10 128 7 7 (62720)
I0727 20:20:42.659750 28370 net.cpp:156] Memory required for data: 532241920
I0727 20:20:42.659770 28370 layer_factory.hpp:77] Creating layer inception_5a/relu_5x5
I0727 20:20:42.659819 28370 net.cpp:91] Creating Layer inception_5a/relu_5x5
I0727 20:20:42.659832 28370 net.cpp:425] inception_5a/relu_5x5 <- inception_5a/5x5
I0727 20:20:42.659847 28370 net.cpp:386] inception_5a/relu_5x5 -> inception_5a/5x5 (in-place)
I0727 20:20:42.661056 28370 net.cpp:141] Setting up inception_5a/relu_5x5
I0727 20:20:42.661072 28370 net.cpp:148] Top shape: 10 128 7 7 (62720)
I0727 20:20:42.661077 28370 net.cpp:156] Memory required for data: 532492800
I0727 20:20:42.661089 28370 layer_factory.hpp:77] Creating layer inception_5a/pool
I0727 20:20:42.661103 28370 net.cpp:91] Creating Layer inception_5a/pool
I0727 20:20:42.661108 28370 net.cpp:425] inception_5a/pool <- pool4/3x3_s2_pool4/3x3_s2_0_split_3
I0727 20:20:42.661118 28370 net.cpp:399] inception_5a/pool -> inception_5a/pool
I0727 20:20:42.661308 28366 net.cpp:141] Setting up inception_5b/1x1
I0727 20:20:42.661324 28366 net.cpp:148] Top shape: 10 384 7 7 (188160)
I0727 20:20:42.661329 28366 net.cpp:156] Memory required for data: 543531520
I0727 20:20:42.661339 28366 layer_factory.hpp:77] Creating layer inception_5b/relu_1x1
I0727 20:20:42.661339 28370 net.cpp:141] Setting up inception_5a/pool
I0727 20:20:42.661350 28370 net.cpp:148] Top shape: 10 832 7 7 (407680)
I0727 20:20:42.661352 28366 net.cpp:91] Creating Layer inception_5b/relu_1x1
I0727 20:20:42.661355 28370 net.cpp:156] Memory required for data: 534123520
I0727 20:20:42.661360 28370 layer_factory.hpp:77] Creating layer inception_5a/pool_proj
I0727 20:20:42.661360 28366 net.cpp:425] inception_5b/relu_1x1 <- inception_5b/1x1
I0727 20:20:42.661375 28366 net.cpp:386] inception_5b/relu_1x1 -> inception_5b/1x1 (in-place)
I0727 20:20:42.661386 28370 net.cpp:91] Creating Layer inception_5a/pool_proj
I0727 20:20:42.661392 28370 net.cpp:425] inception_5a/pool_proj <- inception_5a/pool
I0727 20:20:42.661406 28370 net.cpp:399] inception_5a/pool_proj -> inception_5a/pool_proj
I0727 20:20:42.661792 28366 net.cpp:141] Setting up inception_5b/relu_1x1
I0727 20:20:42.661804 28366 net.cpp:148] Top shape: 10 384 7 7 (188160)
I0727 20:20:42.661808 28366 net.cpp:156] Memory required for data: 544284160
I0727 20:20:42.661813 28366 layer_factory.hpp:77] Creating layer inception_5b/3x3_reduce
I0727 20:20:42.661828 28366 net.cpp:91] Creating Layer inception_5b/3x3_reduce
I0727 20:20:42.661834 28366 net.cpp:425] inception_5b/3x3_reduce <- inception_5a/output_inception_5a/output_0_split_1
I0727 20:20:42.661845 28366 net.cpp:399] inception_5b/3x3_reduce -> inception_5b/3x3_reduce
I0727 20:20:42.668906 28370 net.cpp:141] Setting up inception_5a/pool_proj
I0727 20:20:42.668931 28370 net.cpp:148] Top shape: 10 128 7 7 (62720)
I0727 20:20:42.668936 28370 net.cpp:156] Memory required for data: 534374400
I0727 20:20:42.668946 28370 layer_factory.hpp:77] Creating layer inception_5a/relu_pool_proj
I0727 20:20:42.668959 28370 net.cpp:91] Creating Layer inception_5a/relu_pool_proj
I0727 20:20:42.668965 28370 net.cpp:425] inception_5a/relu_pool_proj <- inception_5a/pool_proj
I0727 20:20:42.668973 28370 net.cpp:386] inception_5a/relu_pool_proj -> inception_5a/pool_proj (in-place)
I0727 20:20:42.670219 28370 net.cpp:141] Setting up inception_5a/relu_pool_proj
I0727 20:20:42.670234 28370 net.cpp:148] Top shape: 10 128 7 7 (62720)
I0727 20:20:42.670238 28370 net.cpp:156] Memory required for data: 534625280
I0727 20:20:42.670243 28370 layer_factory.hpp:77] Creating layer inception_5a/output
I0727 20:20:42.670255 28370 net.cpp:91] Creating Layer inception_5a/output
I0727 20:20:42.670261 28370 net.cpp:425] inception_5a/output <- inception_5a/1x1
I0727 20:20:42.670267 28370 net.cpp:425] inception_5a/output <- inception_5a/3x3
I0727 20:20:42.670274 28370 net.cpp:425] inception_5a/output <- inception_5a/5x5
I0727 20:20:42.670277 28370 net.cpp:425] inception_5a/output <- inception_5a/pool_proj
I0727 20:20:42.670284 28370 net.cpp:399] inception_5a/output -> inception_5a/output
I0727 20:20:42.670408 28370 net.cpp:141] Setting up inception_5a/output
I0727 20:20:42.670418 28370 net.cpp:148] Top shape: 10 832 7 7 (407680)
I0727 20:20:42.670423 28370 net.cpp:156] Memory required for data: 536256000
I0727 20:20:42.670428 28370 layer_factory.hpp:77] Creating layer inception_5a/output_inception_5a/output_0_split
I0727 20:20:42.670435 28370 net.cpp:91] Creating Layer inception_5a/output_inception_5a/output_0_split
I0727 20:20:42.670440 28370 net.cpp:425] inception_5a/output_inception_5a/output_0_split <- inception_5a/output
I0727 20:20:42.670449 28370 net.cpp:399] inception_5a/output_inception_5a/output_0_split -> inception_5a/output_inception_5a/output_0_split_0
I0727 20:20:42.670447 28366 net.cpp:141] Setting up inception_5b/3x3_reduce
I0727 20:20:42.670459 28370 net.cpp:399] inception_5a/output_inception_5a/output_0_split -> inception_5a/output_inception_5a/output_0_split_1
I0727 20:20:42.670462 28366 net.cpp:148] Top shape: 10 192 7 7 (94080)
I0727 20:20:42.670466 28370 net.cpp:399] inception_5a/output_inception_5a/output_0_split -> inception_5a/output_inception_5a/output_0_split_2
I0727 20:20:42.670467 28366 net.cpp:156] Memory required for data: 544660480
I0727 20:20:42.670478 28370 net.cpp:399] inception_5a/output_inception_5a/output_0_split -> inception_5a/output_inception_5a/output_0_split_3
I0727 20:20:42.670485 28366 layer_factory.hpp:77] Creating layer inception_5b/relu_3x3_reduce
I0727 20:20:42.670492 28366 net.cpp:91] Creating Layer inception_5b/relu_3x3_reduce
I0727 20:20:42.670498 28366 net.cpp:425] inception_5b/relu_3x3_reduce <- inception_5b/3x3_reduce
I0727 20:20:42.670506 28366 net.cpp:386] inception_5b/relu_3x3_reduce -> inception_5b/3x3_reduce (in-place)
I0727 20:20:42.670902 28366 net.cpp:141] Setting up inception_5b/relu_3x3_reduce
I0727 20:20:42.670913 28366 net.cpp:148] Top shape: 10 192 7 7 (94080)
I0727 20:20:42.670917 28366 net.cpp:156] Memory required for data: 545036800
I0727 20:20:42.670922 28366 layer_factory.hpp:77] Creating layer inception_5b/3x3
I0727 20:20:42.670925 28370 net.cpp:141] Setting up inception_5a/output_inception_5a/output_0_split
I0727 20:20:42.670936 28370 net.cpp:148] Top shape: 10 832 7 7 (407680)
I0727 20:20:42.670938 28366 net.cpp:91] Creating Layer inception_5b/3x3
I0727 20:20:42.670943 28370 net.cpp:148] Top shape: 10 832 7 7 (407680)
I0727 20:20:42.670944 28366 net.cpp:425] inception_5b/3x3 <- inception_5b/3x3_reduce
I0727 20:20:42.670948 28370 net.cpp:148] Top shape: 10 832 7 7 (407680)
I0727 20:20:42.670953 28370 net.cpp:148] Top shape: 10 832 7 7 (407680)
I0727 20:20:42.670956 28370 net.cpp:156] Memory required for data: 542778880
I0727 20:20:42.670955 28366 net.cpp:399] inception_5b/3x3 -> inception_5b/3x3
I0727 20:20:42.670961 28370 layer_factory.hpp:77] Creating layer inception_5b/1x1
I0727 20:20:42.670977 28370 net.cpp:91] Creating Layer inception_5b/1x1
I0727 20:20:42.670982 28370 net.cpp:425] inception_5b/1x1 <- inception_5a/output_inception_5a/output_0_split_0
I0727 20:20:42.670995 28370 net.cpp:399] inception_5b/1x1 -> inception_5b/1x1
I0727 20:20:42.679174 28370 net.cpp:141] Setting up inception_5b/1x1
I0727 20:20:42.679208 28370 net.cpp:148] Top shape: 10 384 7 7 (188160)
I0727 20:20:42.679214 28370 net.cpp:156] Memory required for data: 543531520
I0727 20:20:42.679224 28370 layer_factory.hpp:77] Creating layer inception_5b/relu_1x1
I0727 20:20:42.679237 28370 net.cpp:91] Creating Layer inception_5b/relu_1x1
I0727 20:20:42.679244 28370 net.cpp:425] inception_5b/relu_1x1 <- inception_5b/1x1
I0727 20:20:42.679253 28370 net.cpp:386] inception_5b/relu_1x1 -> inception_5b/1x1 (in-place)
I0727 20:20:42.679518 28370 net.cpp:141] Setting up inception_5b/relu_1x1
I0727 20:20:42.679528 28370 net.cpp:148] Top shape: 10 384 7 7 (188160)
I0727 20:20:42.679533 28370 net.cpp:156] Memory required for data: 544284160
I0727 20:20:42.679538 28370 layer_factory.hpp:77] Creating layer inception_5b/3x3_reduce
I0727 20:20:42.679553 28370 net.cpp:91] Creating Layer inception_5b/3x3_reduce
I0727 20:20:42.679559 28370 net.cpp:425] inception_5b/3x3_reduce <- inception_5a/output_inception_5a/output_0_split_1
I0727 20:20:42.679568 28370 net.cpp:399] inception_5b/3x3_reduce -> inception_5b/3x3_reduce
I0727 20:20:42.684048 28366 net.cpp:141] Setting up inception_5b/3x3
I0727 20:20:42.684073 28366 net.cpp:148] Top shape: 10 384 7 7 (188160)
I0727 20:20:42.684078 28366 net.cpp:156] Memory required for data: 545789440
I0727 20:20:42.684088 28366 layer_factory.hpp:77] Creating layer inception_5b/relu_3x3
I0727 20:20:42.684103 28366 net.cpp:91] Creating Layer inception_5b/relu_3x3
I0727 20:20:42.684110 28366 net.cpp:425] inception_5b/relu_3x3 <- inception_5b/3x3
I0727 20:20:42.684118 28366 net.cpp:386] inception_5b/relu_3x3 -> inception_5b/3x3 (in-place)
I0727 20:20:42.685073 28366 net.cpp:141] Setting up inception_5b/relu_3x3
I0727 20:20:42.685088 28366 net.cpp:148] Top shape: 10 384 7 7 (188160)
I0727 20:20:42.685093 28366 net.cpp:156] Memory required for data: 546542080
I0727 20:20:42.685098 28366 layer_factory.hpp:77] Creating layer inception_5b/5x5_reduce
I0727 20:20:42.685117 28366 net.cpp:91] Creating Layer inception_5b/5x5_reduce
I0727 20:20:42.685123 28366 net.cpp:425] inception_5b/5x5_reduce <- inception_5a/output_inception_5a/output_0_split_2
I0727 20:20:42.685132 28366 net.cpp:399] inception_5b/5x5_reduce -> inception_5b/5x5_reduce
I0727 20:20:42.687700 28370 net.cpp:141] Setting up inception_5b/3x3_reduce
I0727 20:20:42.687717 28370 net.cpp:148] Top shape: 10 192 7 7 (94080)
I0727 20:20:42.687722 28370 net.cpp:156] Memory required for data: 544660480
I0727 20:20:42.687731 28370 layer_factory.hpp:77] Creating layer inception_5b/relu_3x3_reduce
I0727 20:20:42.687743 28370 net.cpp:91] Creating Layer inception_5b/relu_3x3_reduce
I0727 20:20:42.687749 28370 net.cpp:425] inception_5b/relu_3x3_reduce <- inception_5b/3x3_reduce
I0727 20:20:42.687758 28370 net.cpp:386] inception_5b/relu_3x3_reduce -> inception_5b/3x3_reduce (in-place)
I0727 20:20:42.688073 28370 net.cpp:141] Setting up inception_5b/relu_3x3_reduce
I0727 20:20:42.688086 28370 net.cpp:148] Top shape: 10 192 7 7 (94080)
I0727 20:20:42.688089 28370 net.cpp:156] Memory required for data: 545036800
I0727 20:20:42.688094 28370 layer_factory.hpp:77] Creating layer inception_5b/3x3
I0727 20:20:42.688109 28370 net.cpp:91] Creating Layer inception_5b/3x3
I0727 20:20:42.688115 28370 net.cpp:425] inception_5b/3x3 <- inception_5b/3x3_reduce
I0727 20:20:42.688125 28370 net.cpp:399] inception_5b/3x3 -> inception_5b/3x3
I0727 20:20:42.692623 28366 net.cpp:141] Setting up inception_5b/5x5_reduce
I0727 20:20:42.692646 28366 net.cpp:148] Top shape: 10 48 7 7 (23520)
I0727 20:20:42.692651 28366 net.cpp:156] Memory required for data: 546636160
I0727 20:20:42.692661 28366 layer_factory.hpp:77] Creating layer inception_5b/relu_5x5_reduce
I0727 20:20:42.692673 28366 net.cpp:91] Creating Layer inception_5b/relu_5x5_reduce
I0727 20:20:42.692679 28366 net.cpp:425] inception_5b/relu_5x5_reduce <- inception_5b/5x5_reduce
I0727 20:20:42.692687 28366 net.cpp:386] inception_5b/relu_5x5_reduce -> inception_5b/5x5_reduce (in-place)
I0727 20:20:42.692963 28366 net.cpp:141] Setting up inception_5b/relu_5x5_reduce
I0727 20:20:42.692976 28366 net.cpp:148] Top shape: 10 48 7 7 (23520)
I0727 20:20:42.692981 28366 net.cpp:156] Memory required for data: 546730240
I0727 20:20:42.692984 28366 layer_factory.hpp:77] Creating layer inception_5b/5x5
I0727 20:20:42.693001 28366 net.cpp:91] Creating Layer inception_5b/5x5
I0727 20:20:42.693006 28366 net.cpp:425] inception_5b/5x5 <- inception_5b/5x5_reduce
I0727 20:20:42.693014 28366 net.cpp:399] inception_5b/5x5 -> inception_5b/5x5
I0727 20:20:42.699709 28366 net.cpp:141] Setting up inception_5b/5x5
I0727 20:20:42.699751 28366 net.cpp:148] Top shape: 10 128 7 7 (62720)
I0727 20:20:42.699757 28366 net.cpp:156] Memory required for data: 546981120
I0727 20:20:42.699770 28366 layer_factory.hpp:77] Creating layer inception_5b/relu_5x5
I0727 20:20:42.699784 28366 net.cpp:91] Creating Layer inception_5b/relu_5x5
I0727 20:20:42.699792 28366 net.cpp:425] inception_5b/relu_5x5 <- inception_5b/5x5
I0727 20:20:42.699802 28366 net.cpp:386] inception_5b/relu_5x5 -> inception_5b/5x5 (in-place)
I0727 20:20:42.700163 28366 net.cpp:141] Setting up inception_5b/relu_5x5
I0727 20:20:42.700176 28366 net.cpp:148] Top shape: 10 128 7 7 (62720)
I0727 20:20:42.700181 28366 net.cpp:156] Memory required for data: 547232000
I0727 20:20:42.700184 28366 layer_factory.hpp:77] Creating layer inception_5b/pool
I0727 20:20:42.700193 28366 net.cpp:91] Creating Layer inception_5b/pool
I0727 20:20:42.700199 28366 net.cpp:425] inception_5b/pool <- inception_5a/output_inception_5a/output_0_split_3
I0727 20:20:42.700211 28366 net.cpp:399] inception_5b/pool -> inception_5b/pool
I0727 20:20:42.700485 28366 net.cpp:141] Setting up inception_5b/pool
I0727 20:20:42.700496 28366 net.cpp:148] Top shape: 10 832 7 7 (407680)
I0727 20:20:42.700500 28366 net.cpp:156] Memory required for data: 548862720
I0727 20:20:42.700505 28366 layer_factory.hpp:77] Creating layer inception_5b/pool_proj
I0727 20:20:42.700523 28366 net.cpp:91] Creating Layer inception_5b/pool_proj
I0727 20:20:42.700530 28366 net.cpp:425] inception_5b/pool_proj <- inception_5b/pool
I0727 20:20:42.700541 28366 net.cpp:399] inception_5b/pool_proj -> inception_5b/pool_proj
I0727 20:20:42.700744 28370 net.cpp:141] Setting up inception_5b/3x3
I0727 20:20:42.700762 28370 net.cpp:148] Top shape: 10 384 7 7 (188160)
I0727 20:20:42.700768 28370 net.cpp:156] Memory required for data: 545789440
I0727 20:20:42.700778 28370 layer_factory.hpp:77] Creating layer inception_5b/relu_3x3
I0727 20:20:42.700788 28370 net.cpp:91] Creating Layer inception_5b/relu_3x3
I0727 20:20:42.700794 28370 net.cpp:425] inception_5b/relu_3x3 <- inception_5b/3x3
I0727 20:20:42.700801 28370 net.cpp:386] inception_5b/relu_3x3 -> inception_5b/3x3 (in-place)
I0727 20:20:42.701833 28370 net.cpp:141] Setting up inception_5b/relu_3x3
I0727 20:20:42.701850 28370 net.cpp:148] Top shape: 10 384 7 7 (188160)
I0727 20:20:42.701855 28370 net.cpp:156] Memory required for data: 546542080
I0727 20:20:42.701860 28370 layer_factory.hpp:77] Creating layer inception_5b/5x5_reduce
I0727 20:20:42.701876 28370 net.cpp:91] Creating Layer inception_5b/5x5_reduce
I0727 20:20:42.701882 28370 net.cpp:425] inception_5b/5x5_reduce <- inception_5a/output_inception_5a/output_0_split_2
I0727 20:20:42.701891 28370 net.cpp:399] inception_5b/5x5_reduce -> inception_5b/5x5_reduce
I0727 20:20:42.707125 28366 net.cpp:141] Setting up inception_5b/pool_proj
I0727 20:20:42.707154 28366 net.cpp:148] Top shape: 10 128 7 7 (62720)
I0727 20:20:42.707159 28366 net.cpp:156] Memory required for data: 549113600
I0727 20:20:42.707170 28366 layer_factory.hpp:77] Creating layer inception_5b/relu_pool_proj
I0727 20:20:42.707180 28366 net.cpp:91] Creating Layer inception_5b/relu_pool_proj
I0727 20:20:42.707186 28366 net.cpp:425] inception_5b/relu_pool_proj <- inception_5b/pool_proj
I0727 20:20:42.707204 28366 net.cpp:386] inception_5b/relu_pool_proj -> inception_5b/pool_proj (in-place)
I0727 20:20:42.707286 28370 net.cpp:141] Setting up inception_5b/5x5_reduce
I0727 20:20:42.707301 28370 net.cpp:148] Top shape: 10 48 7 7 (23520)
I0727 20:20:42.707305 28370 net.cpp:156] Memory required for data: 546636160
I0727 20:20:42.707315 28370 layer_factory.hpp:77] Creating layer inception_5b/relu_5x5_reduce
I0727 20:20:42.707325 28370 net.cpp:91] Creating Layer inception_5b/relu_5x5_reduce
I0727 20:20:42.707331 28370 net.cpp:425] inception_5b/relu_5x5_reduce <- inception_5b/5x5_reduce
I0727 20:20:42.707340 28370 net.cpp:386] inception_5b/relu_5x5_reduce -> inception_5b/5x5_reduce (in-place)
I0727 20:20:42.707599 28370 net.cpp:141] Setting up inception_5b/relu_5x5_reduce
I0727 20:20:42.707610 28370 net.cpp:148] Top shape: 10 48 7 7 (23520)
I0727 20:20:42.707614 28370 net.cpp:156] Memory required for data: 546730240
I0727 20:20:42.707619 28370 layer_factory.hpp:77] Creating layer inception_5b/5x5
I0727 20:20:42.707636 28370 net.cpp:91] Creating Layer inception_5b/5x5
I0727 20:20:42.707643 28370 net.cpp:425] inception_5b/5x5 <- inception_5b/5x5_reduce
I0727 20:20:42.707651 28370 net.cpp:399] inception_5b/5x5 -> inception_5b/5x5
I0727 20:20:42.708201 28366 net.cpp:141] Setting up inception_5b/relu_pool_proj
I0727 20:20:42.708216 28366 net.cpp:148] Top shape: 10 128 7 7 (62720)
I0727 20:20:42.708221 28366 net.cpp:156] Memory required for data: 549364480
I0727 20:20:42.708225 28366 layer_factory.hpp:77] Creating layer inception_5b/output
I0727 20:20:42.708233 28366 net.cpp:91] Creating Layer inception_5b/output
I0727 20:20:42.708240 28366 net.cpp:425] inception_5b/output <- inception_5b/1x1
I0727 20:20:42.708245 28366 net.cpp:425] inception_5b/output <- inception_5b/3x3
I0727 20:20:42.708250 28366 net.cpp:425] inception_5b/output <- inception_5b/5x5
I0727 20:20:42.708256 28366 net.cpp:425] inception_5b/output <- inception_5b/pool_proj
I0727 20:20:42.708266 28366 net.cpp:399] inception_5b/output -> inception_5b/output
I0727 20:20:42.708389 28366 net.cpp:141] Setting up inception_5b/output
I0727 20:20:42.708400 28366 net.cpp:148] Top shape: 10 1024 7 7 (501760)
I0727 20:20:42.708405 28366 net.cpp:156] Memory required for data: 551371520
I0727 20:20:42.708408 28366 layer_factory.hpp:77] Creating layer pool5/7x7_s1
I0727 20:20:42.708423 28366 net.cpp:91] Creating Layer pool5/7x7_s1
I0727 20:20:42.708430 28366 net.cpp:425] pool5/7x7_s1 <- inception_5b/output
I0727 20:20:42.708436 28366 net.cpp:399] pool5/7x7_s1 -> pool5/7x7_s1
I0727 20:20:42.708914 28366 net.cpp:141] Setting up pool5/7x7_s1
I0727 20:20:42.708930 28366 net.cpp:148] Top shape: 10 1024 1 1 (10240)
I0727 20:20:42.708935 28366 net.cpp:156] Memory required for data: 551412480
I0727 20:20:42.708940 28366 layer_factory.hpp:77] Creating layer pool5/drop_7x7_s1
I0727 20:20:42.708956 28366 net.cpp:91] Creating Layer pool5/drop_7x7_s1
I0727 20:20:42.708961 28366 net.cpp:425] pool5/drop_7x7_s1 <- pool5/7x7_s1
I0727 20:20:42.708966 28366 net.cpp:386] pool5/drop_7x7_s1 -> pool5/7x7_s1 (in-place)
I0727 20:20:42.709051 28366 net.cpp:141] Setting up pool5/drop_7x7_s1
I0727 20:20:42.709061 28366 net.cpp:148] Top shape: 10 1024 1 1 (10240)
I0727 20:20:42.709065 28366 net.cpp:156] Memory required for data: 551453440
I0727 20:20:42.709069 28366 layer_factory.hpp:77] Creating layer loss3/classifier
I0727 20:20:42.709080 28366 net.cpp:91] Creating Layer loss3/classifier
I0727 20:20:42.709084 28366 net.cpp:425] loss3/classifier <- pool5/7x7_s1
I0727 20:20:42.709095 28366 net.cpp:399] loss3/classifier -> loss3/classifier
I0727 20:20:42.715236 28370 net.cpp:141] Setting up inception_5b/5x5
I0727 20:20:42.715263 28370 net.cpp:148] Top shape: 10 128 7 7 (62720)
I0727 20:20:42.715268 28370 net.cpp:156] Memory required for data: 546981120
I0727 20:20:42.715279 28370 layer_factory.hpp:77] Creating layer inception_5b/relu_5x5
I0727 20:20:42.715292 28370 net.cpp:91] Creating Layer inception_5b/relu_5x5
I0727 20:20:42.715299 28370 net.cpp:425] inception_5b/relu_5x5 <- inception_5b/5x5
I0727 20:20:42.715307 28370 net.cpp:386] inception_5b/relu_5x5 -> inception_5b/5x5 (in-place)
I0727 20:20:42.715567 28370 net.cpp:141] Setting up inception_5b/relu_5x5
I0727 20:20:42.715579 28370 net.cpp:148] Top shape: 10 128 7 7 (62720)
I0727 20:20:42.715582 28370 net.cpp:156] Memory required for data: 547232000
I0727 20:20:42.715587 28370 layer_factory.hpp:77] Creating layer inception_5b/pool
I0727 20:20:42.715595 28370 net.cpp:91] Creating Layer inception_5b/pool
I0727 20:20:42.715601 28370 net.cpp:425] inception_5b/pool <- inception_5a/output_inception_5a/output_0_split_3
I0727 20:20:42.715611 28370 net.cpp:399] inception_5b/pool -> inception_5b/pool
I0727 20:20:42.715751 28370 net.cpp:141] Setting up inception_5b/pool
I0727 20:20:42.715761 28370 net.cpp:148] Top shape: 10 832 7 7 (407680)
I0727 20:20:42.715764 28370 net.cpp:156] Memory required for data: 548862720
I0727 20:20:42.715770 28370 layer_factory.hpp:77] Creating layer inception_5b/pool_proj
I0727 20:20:42.715785 28370 net.cpp:91] Creating Layer inception_5b/pool_proj
I0727 20:20:42.715790 28370 net.cpp:425] inception_5b/pool_proj <- inception_5b/pool
I0727 20:20:42.715801 28370 net.cpp:399] inception_5b/pool_proj -> inception_5b/pool_proj
I0727 20:20:42.720787 28366 net.cpp:141] Setting up loss3/classifier
I0727 20:20:42.720809 28366 net.cpp:148] Top shape: 10 1000 (10000)
I0727 20:20:42.720814 28366 net.cpp:156] Memory required for data: 551493440
I0727 20:20:42.720824 28366 layer_factory.hpp:77] Creating layer prob
I0727 20:20:42.720834 28366 net.cpp:91] Creating Layer prob
I0727 20:20:42.720840 28366 net.cpp:425] prob <- loss3/classifier
I0727 20:20:42.720852 28366 net.cpp:399] prob -> prob
I0727 20:20:42.722070 28370 net.cpp:141] Setting up inception_5b/pool_proj
I0727 20:20:42.722087 28370 net.cpp:148] Top shape: 10 128 7 7 (62720)
I0727 20:20:42.722092 28370 net.cpp:156] Memory required for data: 549113600
I0727 20:20:42.722101 28370 layer_factory.hpp:77] Creating layer inception_5b/relu_pool_proj
I0727 20:20:42.722113 28370 net.cpp:91] Creating Layer inception_5b/relu_pool_proj
I0727 20:20:42.722121 28370 net.cpp:425] inception_5b/relu_pool_proj <- inception_5b/pool_proj
I0727 20:20:42.722129 28370 net.cpp:386] inception_5b/relu_pool_proj -> inception_5b/pool_proj (in-place)
I0727 20:20:42.722815 28366 net.cpp:141] Setting up prob
I0727 20:20:42.722829 28366 net.cpp:148] Top shape: 10 1000 (10000)
I0727 20:20:42.722833 28366 net.cpp:156] Memory required for data: 551533440
I0727 20:20:42.722838 28366 net.cpp:219] prob does not need backward computation.
I0727 20:20:42.722843 28366 net.cpp:219] loss3/classifier does not need backward computation.
I0727 20:20:42.722847 28366 net.cpp:219] pool5/drop_7x7_s1 does not need backward computation.
I0727 20:20:42.722851 28366 net.cpp:219] pool5/7x7_s1 does not need backward computation.
…
