…
2016-09-13 20:58:04.612 n.t.s.f.RefreshingImageFetcher$ImageReader [INFO] [Timing] RequestID: 0 StreamID: home_peifeng_work_data_frame_1080x1920_png SequenceNr: 130 Entering queue: 1473814684612
2016-09-13 20:58:04.612 n.t.s.f.RefreshingImageFetcher$ImageReader [INFO] [Timing] RequestID: 0 StreamID: home_peifeng_work_data_frame_1080x1920_png SequenceNr: 131 Entering queue: 1473814684612
2016-09-13 20:58:04.660 n.t.s.s.CVParticleSpout [INFO] [Timing] RequestID: 0 StreamID: home_peifeng_work_data_frame_1080x1920_png SequenceNr: 115 Leaving fetcher: 1473814684660 Size: 160423
2016-09-13 20:58:04.664 STDERR [INFO] I0913 20:58:04.664597  9754 net.cpp:141] Setting up conv1
2016-09-13 20:58:04.665 STDERR [INFO] I0913 20:58:04.664654  9754 net.cpp:148] Top shape: 10 96 55 55 (2904000)
2016-09-13 20:58:04.665 STDERR [INFO] I0913 20:58:04.664661  9754 net.cpp:156] Memory required for data: 17799480
2016-09-13 20:58:04.665 STDERR [INFO] I0913 20:58:04.664705  9754 layer_factory.hpp:77] Creating layer relu1
2016-09-13 20:58:04.665 STDERR [INFO] I0913 20:58:04.664736  9754 net.cpp:91] Creating Layer relu1
2016-09-13 20:58:04.665 STDERR [INFO] I0913 20:58:04.664744  9754 net.cpp:425] relu1 <- conv1
2016-09-13 20:58:04.665 STDERR [INFO] I0913 20:58:04.664753  9754 net.cpp:386] relu1 -> conv1 (in-place)
2016-09-13 20:58:04.665 STDERR [INFO] I0913 20:58:04.665169  9754 net.cpp:141] Setting up relu1
2016-09-13 20:58:04.666 STDERR [INFO] I0913 20:58:04.665189  9754 net.cpp:148] Top shape: 10 96 55 55 (2904000)
2016-09-13 20:58:04.666 STDERR [INFO] I0913 20:58:04.665194  9754 net.cpp:156] Memory required for data: 29415480
2016-09-13 20:58:04.666 STDERR [INFO] I0913 20:58:04.665199  9754 layer_factory.hpp:77] Creating layer pool1
2016-09-13 20:58:04.666 STDERR [INFO] I0913 20:58:04.665211  9754 net.cpp:91] Creating Layer pool1
2016-09-13 20:58:04.666 STDERR [INFO] I0913 20:58:04.665216  9754 net.cpp:425] pool1 <- conv1
2016-09-13 20:58:04.666 STDERR [INFO] I0913 20:58:04.665225  9754 net.cpp:399] pool1 -> pool1
2016-09-13 20:58:04.667 STDERR [INFO] I0913 20:58:04.665299  9754 net.cpp:141] Setting up pool1
2016-09-13 20:58:04.667 STDERR [INFO] I0913 20:58:04.665309  9754 net.cpp:148] Top shape: 10 96 27 27 (699840)
2016-09-13 20:58:04.667 STDERR [INFO] I0913 20:58:04.665314  9754 net.cpp:156] Memory required for data: 32214840
2016-09-13 20:58:04.668 STDERR [INFO] I0913 20:58:04.665319  9754 layer_factory.hpp:77] Creating layer norm1
2016-09-13 20:58:04.668 STDERR [INFO] I0913 20:58:04.665336  9754 net.cpp:91] Creating Layer norm1
2016-09-13 20:58:04.668 STDERR [INFO] I0913 20:58:04.665341  9754 net.cpp:425] norm1 <- pool1
2016-09-13 20:58:04.668 STDERR [INFO] I0913 20:58:04.665349  9754 net.cpp:399] norm1 -> norm1
2016-09-13 20:58:04.668 STDERR [INFO] I0913 20:58:04.665612  9754 net.cpp:141] Setting up norm1
2016-09-13 20:58:04.668 STDERR [INFO] I0913 20:58:04.665624  9754 net.cpp:148] Top shape: 10 96 27 27 (699840)
2016-09-13 20:58:04.669 STDERR [INFO] I0913 20:58:04.665628  9754 net.cpp:156] Memory required for data: 35014200
2016-09-13 20:58:04.669 STDERR [INFO] I0913 20:58:04.665633  9754 layer_factory.hpp:77] Creating layer conv2
2016-09-13 20:58:04.669 STDERR [INFO] I0913 20:58:04.665649  9754 net.cpp:91] Creating Layer conv2
2016-09-13 20:58:04.669 STDERR [INFO] I0913 20:58:04.665654  9754 net.cpp:425] conv2 <- norm1
2016-09-13 20:58:04.670 n.t.s.b.CVParticleBolt [INFO] [Timing] RequestID: 0 StreamID: home_peifeng_work_data_frame_1080x1920_png SequenceNr: 113 Leaving scale: 1473814684670 Size: 60165
2016-09-13 20:58:04.670 STDERR [INFO] I0913 20:58:04.665662  9754 net.cpp:399] conv2 -> conv2
2016-09-13 20:58:04.671 STDERR [INFO] I0913 20:58:04.671011  9754 net.cpp:141] Setting up conv2
2016-09-13 20:58:04.671 STDERR [INFO] I0913 20:58:04.671049  9754 net.cpp:148] Top shape: 10 256 27 27 (1866240)
2016-09-13 20:58:04.671 STDERR [INFO] I0913 20:58:04.671061  9754 net.cpp:156] Memory required for data: 42479160
2016-09-13 20:58:04.671 STDERR [INFO] I0913 20:58:04.671106  9754 layer_factory.hpp:77] Creating layer relu2
2016-09-13 20:58:04.671 STDERR [INFO] I0913 20:58:04.671139  9754 net.cpp:91] Creating Layer relu2
2016-09-13 20:58:04.672 STDERR [INFO] I0913 20:58:04.671151  9754 net.cpp:425] relu2 <- conv2
2016-09-13 20:58:04.672 STDERR [INFO] I0913 20:58:04.671164  9754 net.cpp:386] relu2 -> conv2 (in-place)
2016-09-13 20:58:04.672 STDERR [INFO] I0913 20:58:04.671813  9754 net.cpp:141] Setting up relu2
2016-09-13 20:58:04.672 STDERR [INFO] I0913 20:58:04.671833  9754 net.cpp:148] Top shape: 10 256 27 27 (1866240)
2016-09-13 20:58:04.672 STDERR [INFO] I0913 20:58:04.671843  9754 net.cpp:156] Memory required for data: 49944120
2016-09-13 20:58:04.673 STDERR [INFO] I0913 20:58:04.671851  9754 layer_factory.hpp:77] Creating layer pool2
2016-09-13 20:58:04.673 STDERR [INFO] I0913 20:58:04.671865  9754 net.cpp:91] Creating Layer pool2
2016-09-13 20:58:04.673 STDERR [INFO] I0913 20:58:04.671876  9754 net.cpp:425] pool2 <- conv2
2016-09-13 20:58:04.673 STDERR [INFO] I0913 20:58:04.671890  9754 net.cpp:399] pool2 -> pool2
2016-09-13 20:58:04.673 STDERR [INFO] I0913 20:58:04.671969  9754 net.cpp:141] Setting up pool2
2016-09-13 20:58:04.673 STDERR [INFO] I0913 20:58:04.671985  9754 net.cpp:148] Top shape: 10 256 13 13 (432640)
2016-09-13 20:58:04.673 STDERR [INFO] I0913 20:58:04.671993  9754 net.cpp:156] Memory required for data: 51674680
2016-09-13 20:58:04.674 STDERR [INFO] I0913 20:58:04.672003  9754 layer_factory.hpp:77] Creating layer norm2
2016-09-13 20:58:04.674 STDERR [INFO] I0913 20:58:04.672019  9754 net.cpp:91] Creating Layer norm2
2016-09-13 20:58:04.674 STDERR [INFO] I0913 20:58:04.672029  9754 net.cpp:425] norm2 <- pool2
2016-09-13 20:58:04.674 STDERR [INFO] I0913 20:58:04.672039  9754 net.cpp:399] norm2 -> norm2
2016-09-13 20:58:04.674 STDERR [INFO] I0913 20:58:04.672457  9754 net.cpp:141] Setting up norm2
2016-09-13 20:58:04.674 STDERR [INFO] I0913 20:58:04.672478  9754 net.cpp:148] Top shape: 10 256 13 13 (432640)
2016-09-13 20:58:04.674 STDERR [INFO] I0913 20:58:04.672487  9754 net.cpp:156] Memory required for data: 53405240
2016-09-13 20:58:04.675 STDERR [INFO] I0913 20:58:04.672497  9754 layer_factory.hpp:77] Creating layer conv3
2016-09-13 20:58:04.675 STDERR [INFO] I0913 20:58:04.672513  9754 net.cpp:91] Creating Layer conv3
2016-09-13 20:58:04.675 STDERR [INFO] I0913 20:58:04.672523  9754 net.cpp:425] conv3 <- norm2
2016-09-13 20:58:04.675 STDERR [INFO] I0913 20:58:04.672540  9754 net.cpp:399] conv3 -> conv3
2016-09-13 20:58:04.676 STDERR [INFO] I0913 20:58:04.676834  9754 net.cpp:141] Setting up conv3
2016-09-13 20:58:04.677 STDERR [INFO] I0913 20:58:04.676868  9754 net.cpp:148] Top shape: 10 384 13 13 (648960)
2016-09-13 20:58:04.677 STDERR [INFO] I0913 20:58:04.676874  9754 net.cpp:156] Memory required for data: 56001080
2016-09-13 20:58:04.677 STDERR [INFO] I0913 20:58:04.676890  9754 layer_factory.hpp:77] Creating layer relu3
2016-09-13 20:58:04.677 STDERR [INFO] I0913 20:58:04.676918  9754 net.cpp:91] Creating Layer relu3
2016-09-13 20:58:04.677 STDERR [INFO] I0913 20:58:04.676923  9754 net.cpp:425] relu3 <- conv3
2016-09-13 20:58:04.677 STDERR [INFO] I0913 20:58:04.676930  9754 net.cpp:386] relu3 -> conv3 (in-place)
2016-09-13 20:58:04.677 STDERR [INFO] I0913 20:58:04.677155  9754 net.cpp:141] Setting up relu3
2016-09-13 20:58:04.677 STDERR [INFO] I0913 20:58:04.677166  9754 net.cpp:148] Top shape: 10 384 13 13 (648960)
2016-09-13 20:58:04.677 STDERR [INFO] I0913 20:58:04.677170  9754 net.cpp:156] Memory required for data: 58596920
2016-09-13 20:58:04.678 STDERR [INFO] I0913 20:58:04.677175  9754 layer_factory.hpp:77] Creating layer conv4
2016-09-13 20:58:04.678 STDERR [INFO] I0913 20:58:04.677192  9754 net.cpp:91] Creating Layer conv4
2016-09-13 20:58:04.678 STDERR [INFO] I0913 20:58:04.677198  9754 net.cpp:425] conv4 <- conv3
2016-09-13 20:58:04.678 STDERR [INFO] I0913 20:58:04.677207  9754 net.cpp:399] conv4 -> conv4
2016-09-13 20:58:04.681 STDERR [INFO] I0913 20:58:04.681247  9754 net.cpp:141] Setting up conv4
2016-09-13 20:58:04.681 STDERR [INFO] I0913 20:58:04.681270  9754 net.cpp:148] Top shape: 10 384 13 13 (648960)
2016-09-13 20:58:04.681 STDERR [INFO] I0913 20:58:04.681275  9754 net.cpp:156] Memory required for data: 61192760
2016-09-13 20:58:04.681 STDERR [INFO] I0913 20:58:04.681285  9754 layer_factory.hpp:77] Creating layer relu4
2016-09-13 20:58:04.681 STDERR [INFO] I0913 20:58:04.681299  9754 net.cpp:91] Creating Layer relu4
2016-09-13 20:58:04.681 STDERR [INFO] I0913 20:58:04.681305  9754 net.cpp:425] relu4 <- conv4
2016-09-13 20:58:04.682 STDERR [INFO] I0913 20:58:04.681311  9754 net.cpp:386] relu4 -> conv4 (in-place)
2016-09-13 20:58:04.682 STDERR [INFO] I0913 20:58:04.681702  9754 net.cpp:141] Setting up relu4
2016-09-13 20:58:04.682 STDERR [INFO] I0913 20:58:04.681715  9754 net.cpp:148] Top shape: 10 384 13 13 (648960)
2016-09-13 20:58:04.682 STDERR [INFO] I0913 20:58:04.681720  9754 net.cpp:156] Memory required for data: 63788600
2016-09-13 20:58:04.682 STDERR [INFO] I0913 20:58:04.681725  9754 layer_factory.hpp:77] Creating layer conv5
2016-09-13 20:58:04.682 STDERR [INFO] I0913 20:58:04.681740  9754 net.cpp:91] Creating Layer conv5
2016-09-13 20:58:04.682 STDERR [INFO] I0913 20:58:04.681746  9754 net.cpp:425] conv5 <- conv4
2016-09-13 20:58:04.682 STDERR [INFO] I0913 20:58:04.681752  9754 net.cpp:399] conv5 -> conv5
2016-09-13 20:58:04.685 STDERR [INFO] I0913 20:58:04.685394  9754 net.cpp:141] Setting up conv5
2016-09-13 20:58:04.685 STDERR [INFO] I0913 20:58:04.685413  9754 net.cpp:148] Top shape: 10 256 13 13 (432640)
2016-09-13 20:58:04.685 STDERR [INFO] I0913 20:58:04.685418  9754 net.cpp:156] Memory required for data: 65519160
2016-09-13 20:58:04.685 STDERR [INFO] I0913 20:58:04.685431  9754 layer_factory.hpp:77] Creating layer relu5
2016-09-13 20:58:04.686 STDERR [INFO] I0913 20:58:04.685458  9754 net.cpp:91] Creating Layer relu5
2016-09-13 20:58:04.686 STDERR [INFO] I0913 20:58:04.685466  9754 net.cpp:425] relu5 <- conv5
2016-09-13 20:58:04.686 STDERR [INFO] I0913 20:58:04.685472  9754 net.cpp:386] relu5 -> conv5 (in-place)
2016-09-13 20:58:04.686 STDERR [INFO] I0913 20:58:04.685869  9754 net.cpp:141] Setting up relu5
2016-09-13 20:58:04.686 STDERR [INFO] I0913 20:58:04.685881  9754 net.cpp:148] Top shape: 10 256 13 13 (432640)
2016-09-13 20:58:04.686 STDERR [INFO] I0913 20:58:04.685886  9754 net.cpp:156] Memory required for data: 67249720
2016-09-13 20:58:04.686 STDERR [INFO] I0913 20:58:04.685909  9754 layer_factory.hpp:77] Creating layer pool5
2016-09-13 20:58:04.686 STDERR [INFO] I0913 20:58:04.685925  9754 net.cpp:91] Creating Layer pool5
2016-09-13 20:58:04.686 STDERR [INFO] I0913 20:58:04.685930  9754 net.cpp:425] pool5 <- conv5
2016-09-13 20:58:04.686 STDERR [INFO] I0913 20:58:04.685937  9754 net.cpp:399] pool5 -> pool5
2016-09-13 20:58:04.686 STDERR [INFO] I0913 20:58:04.686002  9754 net.cpp:141] Setting up pool5
2016-09-13 20:58:04.687 STDERR [INFO] I0913 20:58:04.686010  9754 net.cpp:148] Top shape: 10 256 6 6 (92160)
2016-09-13 20:58:04.687 STDERR [INFO] I0913 20:58:04.686015  9754 net.cpp:156] Memory required for data: 67618360
2016-09-13 20:58:04.687 STDERR [INFO] I0913 20:58:04.686019  9754 layer_factory.hpp:77] Creating layer fc6
2016-09-13 20:58:04.687 STDERR [INFO] I0913 20:58:04.686033  9754 net.cpp:91] Creating Layer fc6
2016-09-13 20:58:04.687 STDERR [INFO] I0913 20:58:04.686038  9754 net.cpp:425] fc6 <- pool5
…
2016-09-13 20:58:04.776 STDERR [INFO] I0913 20:58:04.761335  9744 net.cpp:91] Creating Layer input
2016-09-13 20:58:04.776 STDERR [INFO] I0913 20:58:04.761343  9744 net.cpp:399] input -> frames_fc7
2016-09-13 20:58:04.776 STDERR [INFO] I0913 20:58:04.761360  9744 net.cpp:399] input -> cont_sentence
2016-09-13 20:58:04.776 STDERR [INFO] I0913 20:58:04.761370  9744 net.cpp:399] input -> input_sentence
2016-09-13 20:58:04.777 STDERR [INFO] I0913 20:58:04.761379  9744 net.cpp:399] input -> stage_indicator
2016-09-13 20:58:04.777 STDERR [INFO] I0913 20:58:04.761497  9744 net.cpp:141] Setting up input
2016-09-13 20:58:04.777 STDERR [INFO] I0913 20:58:04.761508  9744 net.cpp:148] Top shape: 1 4096 (4096)
2016-09-13 20:58:04.777 STDERR [INFO] I0913 20:58:04.761514  9744 net.cpp:148] Top shape: 1 1 (1)
2016-09-13 20:58:04.777 STDERR [INFO] I0913 20:58:04.761519  9744 net.cpp:148] Top shape: 1 1 (1)
2016-09-13 20:58:04.777 STDERR [INFO] I0913 20:58:04.761525  9744 net.cpp:148] Top shape: 1 1 (1)
2016-09-13 20:58:04.777 STDERR [INFO] I0913 20:58:04.761529  9744 net.cpp:156] Memory required for data: 16396
2016-09-13 20:58:04.777 STDERR [INFO] I0913 20:58:04.761534  9744 layer_factory.hpp:77] Creating layer cont_sentence_input_1_split
2016-09-13 20:58:04.777 STDERR [INFO] I0913 20:58:04.761543  9744 net.cpp:91] Creating Layer cont_sentence_input_1_split
2016-09-13 20:58:04.777 STDERR [INFO] I0913 20:58:04.761548  9744 net.cpp:425] cont_sentence_input_1_split <- cont_sentence
2016-09-13 20:58:04.777 STDERR [INFO] I0913 20:58:04.761564  9744 net.cpp:399] cont_sentence_input_1_split -> cont_sentence_input_1_split_0
2016-09-13 20:58:04.777 STDERR [INFO] I0913 20:58:04.761574  9744 net.cpp:399] cont_sentence_input_1_split -> cont_sentence_input_1_split_1
2016-09-13 20:58:04.777 STDERR [INFO] I0913 20:58:04.761620  9744 net.cpp:141] Setting up cont_sentence_input_1_split
2016-09-13 20:58:04.778 STDERR [INFO] I0913 20:58:04.761631  9744 net.cpp:148] Top shape: 1 1 (1)
2016-09-13 20:58:04.778 STDERR [INFO] I0913 20:58:04.761636  9744 net.cpp:148] Top shape: 1 1 (1)
2016-09-13 20:58:04.778 STDERR [INFO] I0913 20:58:04.761641  9744 net.cpp:156] Memory required for data: 16404
2016-09-13 20:58:04.778 STDERR [INFO] I0913 20:58:04.761646  9744 layer_factory.hpp:77] Creating layer embed_encoder
2016-09-13 20:58:04.778 STDERR [INFO] I0913 20:58:04.761656  9744 net.cpp:91] Creating Layer embed_encoder
2016-09-13 20:58:04.778 STDERR [INFO] I0913 20:58:04.761662  9744 net.cpp:425] embed_encoder <- frames_fc7
2016-09-13 20:58:04.778 STDERR [INFO] I0913 20:58:04.761670  9744 net.cpp:399] embed_encoder -> embedded_in_frames
2016-09-13 20:58:04.781 STDERR [INFO] I0913 20:58:04.781726  9744 net.cpp:141] Setting up embed_encoder
2016-09-13 20:58:04.782 STDERR [INFO] I0913 20:58:04.781760  9744 net.cpp:148] Top shape: 1 500 (500)
2016-09-13 20:58:04.782 STDERR [INFO] I0913 20:58:04.781765  9744 net.cpp:156] Memory required for data: 18404
2016-09-13 20:58:04.782 STDERR [INFO] I0913 20:58:04.781781  9744 layer_factory.hpp:77] Creating layer reshape_frames
2016-09-13 20:58:04.782 STDERR [INFO] I0913 20:58:04.781803  9744 net.cpp:91] Creating Layer reshape_frames
2016-09-13 20:58:04.782 STDERR [INFO] I0913 20:58:04.781810  9744 net.cpp:425] reshape_frames <- embedded_in_frames
2016-09-13 20:58:04.782 STDERR [INFO] I0913 20:58:04.781819  9744 net.cpp:399] reshape_frames -> embedded_input_frames
2016-09-13 20:58:04.782 STDERR [INFO] I0913 20:58:04.781868  9744 net.cpp:141] Setting up reshape_frames
2016-09-13 20:58:04.782 STDERR [INFO] I0913 20:58:04.781877  9744 net.cpp:148] Top shape: 1 1 500 (500)
2016-09-13 20:58:04.782 STDERR [INFO] I0913 20:58:04.781882  9744 net.cpp:156] Memory required for data: 20404
2016-09-13 20:58:04.782 STDERR [INFO] I0913 20:58:04.781886  9744 layer_factory.hpp:77] Creating layer reshape_stage_indicator
2016-09-13 20:58:04.782 STDERR [INFO] I0913 20:58:04.781898  9744 net.cpp:91] Creating Layer reshape_stage_indicator
2016-09-13 20:58:04.783 STDERR [INFO] I0913 20:58:04.781903  9744 net.cpp:425] reshape_stage_indicator <- stage_indicator
2016-09-13 20:58:04.783 STDERR [INFO] I0913 20:58:04.781909  9744 net.cpp:399] reshape_stage_indicator -> reshaped_stage_indicator
2016-09-13 20:58:04.783 STDERR [INFO] I0913 20:58:04.781947  9744 net.cpp:141] Setting up reshape_stage_indicator
2016-09-13 20:58:04.783 STDERR [INFO] I0913 20:58:04.781955  9744 net.cpp:148] Top shape: 1 1 1 (1)
2016-09-13 20:58:04.783 STDERR [INFO] I0913 20:58:04.781960  9744 net.cpp:156] Memory required for data: 20408
2016-09-13 20:58:04.783 STDERR [INFO] I0913 20:58:04.781965  9744 layer_factory.hpp:77] Creating layer embedding
2016-09-13 20:58:04.783 STDERR [INFO] I0913 20:58:04.781976  9744 net.cpp:91] Creating Layer embedding
2016-09-13 20:58:04.783 STDERR [INFO] I0913 20:58:04.781981  9744 net.cpp:425] embedding <- input_sentence
…
2016-09-13 20:58:04.800 n.t.s.f.RefreshingImageFetcher$ImageReader [INFO] [Timing] RequestID: 0 StreamID: home_peifeng_work_data_frame_1080x1920_png SequenceNr: 133 Entering queue: 1473814684800
2016-09-13 20:58:04.800 n.t.s.f.RefreshingImageFetcher$ImageReader [INFO] [Timing] RequestID: 0 StreamID: home_peifeng_work_data_frame_1080x1920_png SequenceNr: 134 Entering queue: 1473814684800
2016-09-13 20:58:04.800 n.t.s.f.RefreshingImageFetcher$ImageReader [INFO] [Timing] RequestID: 0 StreamID: home_peifeng_work_data_frame_1080x1920_png SequenceNr: 135 Entering queue: 1473814684800
2016-09-13 20:58:04.824 STDERR [INFO] I0913 20:58:04.823256  9754 net.cpp:141] Setting up fc6
2016-09-13 20:58:04.824 STDERR [INFO] I0913 20:58:04.823362  9754 net.cpp:148] Top shape: 10 4096 (40960)
2016-09-13 20:58:04.824 STDERR [INFO] I0913 20:58:04.823376  9754 net.cpp:156] Memory required for data: 67782200
2016-09-13 20:58:04.824 STDERR [INFO] I0913 20:58:04.823413  9754 layer_factory.hpp:77] Creating layer relu6
2016-09-13 20:58:04.825 STDERR [INFO] I0913 20:58:04.823449  9754 net.cpp:91] Creating Layer relu6
2016-09-13 20:58:04.825 STDERR [INFO] I0913 20:58:04.823463  9754 net.cpp:425] relu6 <- fc6
2016-09-13 20:58:04.825 STDERR [INFO] I0913 20:58:04.823487  9754 net.cpp:386] relu6 -> fc6 (in-place)
2016-09-13 20:58:04.825 STDERR [INFO] I0913 20:58:04.824496  9754 net.cpp:141] Setting up relu6
2016-09-13 20:58:04.825 STDERR [INFO] I0913 20:58:04.824512  9754 net.cpp:148] Top shape: 10 4096 (40960)
2016-09-13 20:58:04.825 STDERR [INFO] I0913 20:58:04.824519  9754 net.cpp:156] Memory required for data: 67946040
2016-09-13 20:58:04.825 STDERR [INFO] I0913 20:58:04.824527  9754 layer_factory.hpp:77] Creating layer drop6
2016-09-13 20:58:04.825 STDERR [INFO] I0913 20:58:04.824630  9754 net.cpp:91] Creating Layer drop6
2016-09-13 20:58:04.825 STDERR [INFO] I0913 20:58:04.824638  9754 net.cpp:425] drop6 <- fc6
2016-09-13 20:58:04.825 STDERR [INFO] I0913 20:58:04.824648  9754 net.cpp:386] drop6 -> fc6 (in-place)
2016-09-13 20:58:04.826 STDERR [INFO] I0913 20:58:04.824736  9754 net.cpp:141] Setting up drop6
2016-09-13 20:58:04.826 STDERR [INFO] I0913 20:58:04.824748  9754 net.cpp:148] Top shape: 10 4096 (40960)
2016-09-13 20:58:04.826 STDERR [INFO] I0913 20:58:04.824755  9754 net.cpp:156] Memory required for data: 68109880
2016-09-13 20:58:04.826 STDERR [INFO] I0913 20:58:04.824762  9754 layer_factory.hpp:77] Creating layer fc7
2016-09-13 20:58:04.826 STDERR [INFO] I0913 20:58:04.824790  9754 net.cpp:91] Creating Layer fc7
2016-09-13 20:58:04.826 STDERR [INFO] I0913 20:58:04.824797  9754 net.cpp:425] fc7 <- fc6
2016-09-13 20:58:04.826 STDERR [INFO] I0913 20:58:04.824812  9754 net.cpp:399] fc7 -> fc7
2016-09-13 20:58:04.865 n.t.s.b.CVParticleBolt [INFO] [Timing] RequestID: 0 StreamID: home_peifeng_work_data_frame_1080x1920_png SequenceNr: 115 Leaving scale: 1473814684865 Size: 60165
2016-09-13 20:58:04.872 STDERR [INFO] I0913 20:58:04.872534  9754 net.cpp:141] Setting up fc7
2016-09-13 20:58:04.873 n.t.s.b.CVParticleBolt [INFO] [Timing] RequestID: 0 StreamID: home_peifeng_work_data_frame_1080x1920_png SequenceNr: 116 Leaving scale: 1473814684873 Size: 60165
2016-09-13 20:58:04.873 STDERR [INFO] I0913 20:58:04.872586  9754 net.cpp:148] Top shape: 10 4096 (40960)
2016-09-13 20:58:04.873 STDERR [INFO] I0913 20:58:04.872591  9754 net.cpp:156] Memory required for data: 68273720
2016-09-13 20:58:04.873 STDERR [INFO] I0913 20:58:04.872609  9754 layer_factory.hpp:77] Creating layer relu7
2016-09-13 20:58:04.873 STDERR [INFO] I0913 20:58:04.872634  9754 net.cpp:91] Creating Layer relu7
2016-09-13 20:58:04.873 STDERR [INFO] I0913 20:58:04.872643  9754 net.cpp:425] relu7 <- fc7
2016-09-13 20:58:04.873 n.t.s.b.CVParticleBolt [INFO] [Timing] RequestID: 0 StreamID: home_peifeng_work_data_frame_1080x1920_png SequenceNr: 117 Entering scale: 1473814684873
2016-09-13 20:58:04.873 STDERR [INFO] I0913 20:58:04.872653  9754 net.cpp:386] relu7 -> fc7 (in-place)
2016-09-13 20:58:04.873 STDERR [INFO] I0913 20:58:04.873402  9754 net.cpp:141] Setting up relu7
2016-09-13 20:58:04.873 STDERR [INFO] I0913 20:58:04.873415  9754 net.cpp:148] Top shape: 10 4096 (40960)
2016-09-13 20:58:04.873 STDERR [INFO] I0913 20:58:04.873420  9754 net.cpp:156] Memory required for data: 68437560
2016-09-13 20:58:04.873 STDERR [INFO] I0913 20:58:04.873425  9754 layer_factory.hpp:77] Creating layer drop7
2016-09-13 20:58:04.873 STDERR [INFO] I0913 20:58:04.873440  9754 net.cpp:91] Creating Layer drop7
2016-09-13 20:58:04.873 STDERR [INFO] I0913 20:58:04.873445  9754 net.cpp:425] drop7 <- fc7
2016-09-13 20:58:04.874 STDERR [INFO] I0913 20:58:04.873452  9754 net.cpp:386] drop7 -> fc7 (in-place)
2016-09-13 20:58:04.874 STDERR [INFO] I0913 20:58:04.873492  9754 net.cpp:141] Setting up drop7
2016-09-13 20:58:04.874 STDERR [INFO] I0913 20:58:04.873500  9754 net.cpp:148] Top shape: 10 4096 (40960)
2016-09-13 20:58:04.874 STDERR [INFO] I0913 20:58:04.873504  9754 net.cpp:156] Memory required for data: 68601400
2016-09-13 20:58:04.874 STDERR [INFO] I0913 20:58:04.873509  9754 layer_factory.hpp:77] Creating layer fc8
2016-09-13 20:58:04.874 STDERR [INFO] I0913 20:58:04.873520  9754 net.cpp:91] Creating Layer fc8
2016-09-13 20:58:04.874 STDERR [INFO] I0913 20:58:04.873525  9754 net.cpp:425] fc8 <- fc7
2016-09-13 20:58:04.874 STDERR [INFO] I0913 20:58:04.873534  9754 net.cpp:399] fc8 -> fc8
2016-09-13 20:58:04.881 n.t.s.s.CVParticleSpout [INFO] [Timing] RequestID: 0 StreamID: home_peifeng_work_data_frame_1080x1920_png SequenceNr: 118 Leaving fetcher: 1473814684881 Size: 160423
2016-09-13 20:58:04.883 n.t.s.b.CVParticleBolt [INFO] [Timing] RequestID: 0 StreamID: home_peifeng_work_data_frame_1080x1920_png SequenceNr: 118 Entering scale: 1473814684883
2016-09-13 20:58:04.885 STDERR [INFO] I0913 20:58:04.885505  9754 net.cpp:141] Setting up fc8
2016-09-13 20:58:04.886 STDERR [INFO] I0913 20:58:04.885553  9754 net.cpp:148] Top shape: 10 1000 (10000)
2016-09-13 20:58:04.886 STDERR [INFO] I0913 20:58:04.885560  9754 net.cpp:156] Memory required for data: 68641400
2016-09-13 20:58:04.886 STDERR [INFO] I0913 20:58:04.885573  9754 layer_factory.hpp:77] Creating layer prob
2016-09-13 20:58:04.886 STDERR [INFO] I0913 20:58:04.885594  9754 net.cpp:91] Creating Layer prob
2016-09-13 20:58:04.886 STDERR [INFO] I0913 20:58:04.885601  9754 net.cpp:425] prob <- fc8
2016-09-13 20:58:04.886 STDERR [INFO] I0913 20:58:04.885617  9754 net.cpp:399] prob -> prob
2016-09-13 20:58:04.886 STDERR [INFO] I0913 20:58:04.886049  9754 net.cpp:141] Setting up prob
2016-09-13 20:58:04.886 STDERR [INFO] I0913 20:58:04.886061  9754 net.cpp:148] Top shape: 10 1000 (10000)
2016-09-13 20:58:04.886 STDERR [INFO] I0913 20:58:04.886065  9754 net.cpp:156] Memory required for data: 68681400
2016-09-13 20:58:04.886 STDERR [INFO] I0913 20:58:04.886070  9754 net.cpp:219] prob does not need backward computation.
2016-09-13 20:58:04.886 STDERR [INFO] I0913 20:58:04.886075  9754 net.cpp:219] fc8 does not need backward computation.
2016-09-13 20:58:04.887 STDERR [INFO] I0913 20:58:04.886080  9754 net.cpp:219] drop7 does not need backward computation.
…
2016-09-13 20:58:05.006 STDERR [INFO] }
2016-09-13 20:58:05.007 STDERR [INFO] I0913 20:58:04.995321  9744 layer_factory.hpp:77] Creating layer lstm1_
2016-09-13 20:58:05.007 STDERR [INFO] I0913 20:58:04.995332  9744 net.cpp:91] Creating Layer lstm1_
2016-09-13 20:58:05.007 STDERR [INFO] I0913 20:58:04.995338  9744 net.cpp:399] lstm1_ -> x
2016-09-13 20:58:05.007 STDERR [INFO] I0913 20:58:04.995349  9744 net.cpp:399] lstm1_ -> cont
2016-09-13 20:58:05.007 STDERR [INFO] I0913 20:58:04.995415  9744 net.cpp:141] Setting up lstm1_
2016-09-13 20:58:05.007 STDERR [INFO] I0913 20:58:04.995425  9744 net.cpp:148] Top shape: 1 1 500 (500)
2016-09-13 20:58:05.007 STDERR [INFO] I0913 20:58:04.995431  9744 net.cpp:148] Top shape: 1 1 (1)
2016-09-13 20:58:05.007 STDERR [INFO] I0913 20:58:04.995436  9744 net.cpp:156] Memory required for data: 2004
2016-09-13 20:58:05.007 STDERR [INFO] I0913 20:58:04.995441  9744 layer_factory.hpp:77] Creating layer lstm1_
2016-09-13 20:58:05.007 STDERR [INFO] I0913 20:58:04.995450  9744 net.cpp:91] Creating Layer lstm1_
2016-09-13 20:58:05.007 STDERR [INFO] I0913 20:58:04.995457  9744 net.cpp:399] lstm1_ -> c_0
2016-09-13 20:58:05.007 STDERR [INFO] I0913 20:58:04.995466  9744 net.cpp:399] lstm1_ -> h_0
2016-09-13 20:58:05.007 STDERR [INFO] I0913 20:58:04.995514  9744 net.cpp:141] Setting up lstm1_
2016-09-13 20:58:05.008 STDERR [INFO] I0913 20:58:04.995525  9744 net.cpp:148] Top shape: 1 1 1000 (1000)
2016-09-13 20:58:05.008 STDERR [INFO] I0913 20:58:04.995532  9744 net.cpp:148] Top shape: 1 1 1000 (1000)
2016-09-13 20:58:05.008 STDERR [INFO] I0913 20:58:04.995535  9744 net.cpp:156] Memory required for data: 10004
2016-09-13 20:58:05.008 STDERR [INFO] I0913 20:58:04.995540  9744 layer_factory.hpp:77] Creating layer lstm1_cont_slice
2016-09-13 20:58:05.008 STDERR [INFO] I0913 20:58:04.995548  9744 net.cpp:91] Creating Layer lstm1_cont_slice
2016-09-13 20:58:05.008 STDERR [INFO] I0913 20:58:04.995553  9744 net.cpp:425] lstm1_cont_slice <- cont
2016-09-13 20:58:05.008 STDERR [INFO] I0913 20:58:04.995559  9744 net.cpp:399] lstm1_cont_slice -> cont_1
2016-09-13 20:58:05.008 STDERR [INFO] I0913 20:58:04.995599  9744 net.cpp:141] Setting up lstm1_cont_slice
2016-09-13 20:58:05.008 STDERR [INFO] I0913 20:58:04.995607  9744 net.cpp:148] Top shape: 1 1 (1)
2016-09-13 20:58:05.008 STDERR [INFO] I0913 20:58:04.995612  9744 net.cpp:156] Memory required for data: 10008
2016-09-13 20:58:05.008 STDERR [INFO] I0913 20:58:04.995616  9744 layer_factory.hpp:77] Creating layer cont_1_lstm1_cont_slice_0_split
2016-09-13 20:58:05.008 STDERR [INFO] I0913 20:58:04.995625  9744 net.cpp:91] Creating Layer cont_1_lstm1_cont_slice_0_split
2016-09-13 20:58:05.008 STDERR [INFO] I0913 20:58:04.995630  9744 net.cpp:425] cont_1_lstm1_cont_slice_0_split <- cont_1
2016-09-13 20:58:05.008 STDERR [INFO] I0913 20:58:04.995636  9744 net.cpp:399] cont_1_lstm1_cont_slice_0_split -> cont_1_lstm1_cont_slice_0_split_0
2016-09-13 20:58:05.009 STDERR [INFO] I0913 20:58:04.995645  9744 net.cpp:399] cont_1_lstm1_cont_slice_0_split -> cont_1_lstm1_cont_slice_0_split_1
2016-09-13 20:58:05.009 STDERR [INFO] I0913 20:58:04.995692  9744 net.cpp:141] Setting up cont_1_lstm1_cont_slice_0_split
2016-09-13 20:58:05.009 STDERR [INFO] I0913 20:58:04.995699  9744 net.cpp:148] Top shape: 1 1 (1)
2016-09-13 20:58:05.009 STDERR [INFO] I0913 20:58:04.995705  9744 net.cpp:148] Top shape: 1 1 (1)
2016-09-13 20:58:05.009 STDERR [INFO] I0913 20:58:04.995709  9744 net.cpp:156] Memory required for data: 10016
2016-09-13 20:58:05.009 STDERR [INFO] I0913 20:58:04.995713  9744 layer_factory.hpp:77] Creating layer lstm1_x_transform
2016-09-13 20:58:05.009 STDERR [INFO] I0913 20:58:04.995723  9744 net.cpp:91] Creating Layer lstm1_x_transform
2016-09-13 20:58:05.009 STDERR [INFO] I0913 20:58:04.995728  9744 net.cpp:425] lstm1_x_transform <- x
2016-09-13 20:58:05.009 STDERR [INFO] I0913 20:58:04.995736  9744 net.cpp:399] lstm1_x_transform -> W_xc_x
2016-09-13 20:58:05.015 STDERR [INFO] I0913 20:58:05.015014  9744 net.cpp:141] Setting up lstm1_x_transform
2016-09-13 20:58:05.015 STDERR [INFO] I0913 20:58:05.015072  9744 net.cpp:148] Top shape: 1 1 4000 (4000)
2016-09-13 20:58:05.015 STDERR [INFO] I0913 20:58:05.015079  9744 net.cpp:156] Memory required for data: 26016
2016-09-13 20:58:05.015 STDERR [INFO] I0913 20:58:05.015095  9744 layer_factory.hpp:77] Creating layer lstm1_W_xc_x_slice
2016-09-13 20:58:05.015 STDERR [INFO] I0913 20:58:05.015110  9744 net.cpp:91] Creating Layer lstm1_W_xc_x_slice
2016-09-13 20:58:05.016 STDERR [INFO] I0913 20:58:05.015116  9744 net.cpp:425] lstm1_W_xc_x_slice <- W_xc_x
2016-09-13 20:58:05.016 STDERR [INFO] I0913 20:58:05.015125  9744 net.cpp:399] lstm1_W_xc_x_slice -> W_xc_x_1
2016-09-13 20:58:05.016 STDERR [INFO] I0913 20:58:05.015168  9744 net.cpp:141] Setting up lstm1_W_xc_x_slice
2016-09-13 20:58:05.016 STDERR [INFO] I0913 20:58:05.015177  9744 net.cpp:148] Top shape: 1 1 4000 (4000)
2016-09-13 20:58:05.016 STDERR [INFO] I0913 20:58:05.015182  9744 net.cpp:156] Memory required for data: 42016
2016-09-13 20:58:05.016 STDERR [INFO] I0913 20:58:05.015187  9744 layer_factory.hpp:77] Creating layer lstm1_h_conted_0
2016-09-13 20:58:05.016 STDERR [INFO] I0913 20:58:05.015195  9744 net.cpp:91] Creating Layer lstm1_h_conted_0
2016-09-13 20:58:05.016 STDERR [INFO] I0913 20:58:05.015200  9744 net.cpp:425] lstm1_h_conted_0 <- h_0
2016-09-13 20:58:05.016 STDERR [INFO] I0913 20:58:05.015207  9744 net.cpp:425] lstm1_h_conted_0 <- cont_1_lstm1_cont_slice_0_split_0
2016-09-13 20:58:05.016 STDERR [INFO] I0913 20:58:05.015213  9744 net.cpp:399] lstm1_h_conted_0 -> h_conted_0
2016-09-13 20:58:05.016 STDERR [INFO] I0913 20:58:05.015316  9744 net.cpp:141] Setting up lstm1_h_conted_0
2016-09-13 20:58:05.016 STDERR [INFO] I0913 20:58:05.015326  9744 net.cpp:148] Top shape: 1 1 1000 (1000)
2016-09-13 20:58:05.016 STDERR [INFO] I0913 20:58:05.015329  9744 net.cpp:156] Memory required for data: 46016
2016-09-13 20:58:05.017 STDERR [INFO] I0913 20:58:05.015334  9744 layer_factory.hpp:77] Creating layer lstm1_transform_1
2016-09-13 20:58:05.017 STDERR [INFO] I0913 20:58:05.015346  9744 net.cpp:91] Creating Layer lstm1_transform_1
2016-09-13 20:58:05.017 STDERR [INFO] I0913 20:58:05.015350  9744 net.cpp:425] lstm1_transform_1 <- h_conted_0
2016-09-13 20:58:05.017 STDERR [INFO] I0913 20:58:05.015357  9744 net.cpp:399] lstm1_transform_1 -> W_hc_h_0
2016-09-13 20:58:05.032 n.t.s.s.CVParticleSpout [INFO] [Timing] RequestID: 0 StreamID: home_peifeng_work_data_frame_1080x1920_png SequenceNr: 121 Leaving fetcher: 1473814685032 Size: 160423
2016-09-13 20:58:05.034 n.t.s.b.CVParticleBolt [INFO] [Timing] RequestID: 0 StreamID: home_peifeng_work_data_frame_1080x1920_png SequenceNr: 121 Entering scale: 1473814685034
2016-09-13 20:58:05.051 n.t.s.b.CVParticleBolt [INFO] [Timing] RequestID: 0 StreamID: home_peifeng_work_data_frame_1080x1920_png SequenceNr: 119 Leaving scale: 1473814685050 Size: 60165
2016-09-13 20:58:05.053 STDERR [INFO] I0913 20:58:05.053309  9744 net.cpp:141] Setting up lstm1_transform_1
2016-09-13 20:58:05.054 STDERR [INFO] I0913 20:58:05.053364  9744 net.cpp:148] Top shape: 1 1 4000 (4000)
2016-09-13 20:58:05.054 STDERR [INFO] I0913 20:58:05.053371  9744 net.cpp:156] Memory required for data: 62016
2016-09-13 20:58:05.054 STDERR [INFO] I0913 20:58:05.053387  9744 layer_factory.hpp:77] Creating layer lstm1_gate_input_1
2016-09-13 20:58:05.054 STDERR [INFO] I0913 20:58:05.053405  9744 net.cpp:91] Creating Layer lstm1_gate_input_1
2016-09-13 20:58:05.054 STDERR [INFO] I0913 20:58:05.053411  9744 net.cpp:425] lstm1_gate_input_1 <- W_hc_h_0
2016-09-13 20:58:05.054 STDERR [INFO] I0913 20:58:05.053418  9744 net.cpp:425] lstm1_gate_input_1 <- W_xc_x_1
2016-09-13 20:58:05.054 STDERR [INFO] I0913 20:58:05.053428  9744 net.cpp:399] lstm1_gate_input_1 -> gate_input_1
2016-09-13 20:58:05.054 STDERR [INFO] I0913 20:58:05.053477  9744 net.cpp:141] Setting up lstm1_gate_input_1
2016-09-13 20:58:05.054 STDERR [INFO] I0913 20:58:05.053488  9744 net.cpp:148] Top shape: 1 1 4000 (4000)
2016-09-13 20:58:05.054 STDERR [INFO] I0913 20:58:05.053493  9744 net.cpp:156] Memory required for data: 78016
2016-09-13 20:58:05.054 STDERR [INFO] I0913 20:58:05.053498  9744 layer_factory.hpp:77] Creating layer lstm1_unit_1
2016-09-13 20:58:05.054 STDERR [INFO] I0913 20:58:05.053506  9744 net.cpp:91] Creating Layer lstm1_unit_1
2016-09-13 20:58:05.054 STDERR [INFO] I0913 20:58:05.053511  9744 net.cpp:425] lstm1_unit_1 <- c_0
2016-09-13 20:58:05.055 STDERR [INFO] I0913 20:58:05.053516  9744 net.cpp:425] lstm1_unit_1 <- gate_input_1
2016-09-13 20:58:05.055 STDERR [INFO] I0913 20:58:05.053521  9744 net.cpp:425] lstm1_unit_1 <- cont_1_lstm1_cont_slice_0_split_1
2016-09-13 20:58:05.055 STDERR [INFO] I0913 20:58:05.053529  9744 net.cpp:399] lstm1_unit_1 -> c_1
2016-09-13 20:58:05.055 STDERR [INFO] I0913 20:58:05.053536  9744 net.cpp:399] lstm1_unit_1 -> h_1
2016-09-13 20:58:05.055 STDERR [INFO] I0913 20:58:05.053596  9744 net.cpp:141] Setting up lstm1_unit_1
2016-09-13 20:58:05.055 STDERR [INFO] I0913 20:58:05.053606  9744 net.cpp:148] Top shape: 1 1 1000 (1000)
2016-09-13 20:58:05.055 STDERR [INFO] I0913 20:58:05.053611  9744 net.cpp:148] Top shape: 1 1 1000 (1000)
2016-09-13 20:58:05.056 STDERR [INFO] I0913 20:58:05.053614  9744 net.cpp:156] Memory required for data: 86016
2016-09-13 20:58:05.056 STDERR [INFO] I0913 20:58:05.053619  9744 layer_factory.hpp:77] Creating layer lstm1_
2016-09-13 20:58:05.056 STDERR [INFO] I0913 20:58:05.053627  9744 net.cpp:91] Creating Layer lstm1_
2016-09-13 20:58:05.056 STDERR [INFO] I0913 20:58:05.053632  9744 net.cpp:425] lstm1_ <- c_1
2016-09-13 20:58:05.056 STDERR [INFO] I0913 20:58:05.053637  9744 net.cpp:399] lstm1_ -> c_T
2016-09-13 20:58:05.056 STDERR [INFO] I0913 20:58:05.053665  9744 net.cpp:141] Setting up lstm1_
2016-09-13 20:58:05.056 STDERR [INFO] I0913 20:58:05.053673  9744 net.cpp:148] Top shape: 1 1 1000 (1000)
2016-09-13 20:58:05.056 STDERR [INFO] I0913 20:58:05.053678  9744 net.cpp:156] Memory required for data: 90016
2016-09-13 20:58:05.056 STDERR [INFO] I0913 20:58:05.053681  9744 layer_factory.hpp:77] Creating layer lstm1_h_concat
2016-09-13 20:58:05.056 STDERR [INFO] I0913 20:58:05.053701  9744 net.cpp:91] Creating Layer lstm1_h_concat
2016-09-13 20:58:05.056 STDERR [INFO] I0913 20:58:05.053706  9744 net.cpp:425] lstm1_h_concat <- h_1
2016-09-13 20:58:05.056 STDERR [INFO] I0913 20:58:05.053714  9744 net.cpp:399] lstm1_h_concat -> h
2016-09-13 20:58:05.056 STDERR [INFO] I0913 20:58:05.053746  9744 net.cpp:141] Setting up lstm1_h_concat
2016-09-13 20:58:05.057 STDERR [INFO] I0913 20:58:05.053755  9744 net.cpp:148] Top shape: 1 1 1000 (1000)
2016-09-13 20:58:05.057 STDERR [INFO] I0913 20:58:05.053758  9744 net.cpp:156] Memory required for data: 94016
2016-09-13 20:58:05.057 STDERR [INFO] I0913 20:58:05.053763  9744 layer_factory.hpp:77] Creating layer h_pseudoloss
2016-09-13 20:58:05.057 STDERR [INFO] I0913 20:58:05.053771  9744 net.cpp:91] Creating Layer h_pseudoloss
2016-09-13 20:58:05.057 STDERR [INFO] I0913 20:58:05.053776  9744 net.cpp:425] h_pseudoloss <- h
…
2016-09-13 20:58:05.070 STDERR [INFO] }
2016-09-13 20:58:05.070 STDERR [INFO] I0913 20:58:05.054627  9744 layer_factory.hpp:77] Creating layer lstm2_
2016-09-13 20:58:05.070 STDERR [INFO] I0913 20:58:05.054638  9744 net.cpp:91] Creating Layer lstm2_
2016-09-13 20:58:05.070 STDERR [INFO] I0913 20:58:05.054644  9744 net.cpp:399] lstm2_ -> x
2016-09-13 20:58:05.070 STDERR [INFO] I0913 20:58:05.054654  9744 net.cpp:399] lstm2_ -> cont
2016-09-13 20:58:05.070 STDERR [INFO] I0913 20:58:05.054707  9744 net.cpp:141] Setting up lstm2_
2016-09-13 20:58:05.070 STDERR [INFO] I0913 20:58:05.054715  9744 net.cpp:148] Top shape: 1 1 1501 (1501)
2016-09-13 20:58:05.071 STDERR [INFO] I0913 20:58:05.054721  9744 net.cpp:148] Top shape: 1 1 (1)
2016-09-13 20:58:05.071 STDERR [INFO] I0913 20:58:05.054725  9744 net.cpp:156] Memory required for data: 6008
2016-09-13 20:58:05.071 STDERR [INFO] I0913 20:58:05.054730  9744 layer_factory.hpp:77] Creating layer lstm2_
2016-09-13 20:58:05.071 STDERR [INFO] I0913 20:58:05.054738  9744 net.cpp:91] Creating Layer lstm2_
2016-09-13 20:58:05.071 STDERR [INFO] I0913 20:58:05.054744  9744 net.cpp:399] lstm2_ -> c_0
2016-09-13 20:58:05.071 STDERR [INFO] I0913 20:58:05.054755  9744 net.cpp:399] lstm2_ -> h_0
2016-09-13 20:58:05.071 STDERR [INFO] I0913 20:58:05.054797  9744 net.cpp:141] Setting up lstm2_
2016-09-13 20:58:05.071 STDERR [INFO] I0913 20:58:05.054805  9744 net.cpp:148] Top shape: 1 1 1000 (1000)
2016-09-13 20:58:05.071 STDERR [INFO] I0913 20:58:05.054811  9744 net.cpp:148] Top shape: 1 1 1000 (1000)
2016-09-13 20:58:05.071 STDERR [INFO] I0913 20:58:05.054816  9744 net.cpp:156] Memory required for data: 14008
2016-09-13 20:58:05.071 STDERR [INFO] I0913 20:58:05.054819  9744 layer_factory.hpp:77] Creating layer lstm2_cont_slice
2016-09-13 20:58:05.071 STDERR [INFO] I0913 20:58:05.054831  9744 net.cpp:91] Creating Layer lstm2_cont_slice
2016-09-13 20:58:05.071 STDERR [INFO] I0913 20:58:05.054836  9744 net.cpp:425] lstm2_cont_slice <- cont
2016-09-13 20:58:05.071 STDERR [INFO] I0913 20:58:05.054841  9744 net.cpp:399] lstm2_cont_slice -> cont_1
2016-09-13 20:58:05.071 STDERR [INFO] I0913 20:58:05.054872  9744 net.cpp:141] Setting up lstm2_cont_slice
2016-09-13 20:58:05.072 STDERR [INFO] I0913 20:58:05.054879  9744 net.cpp:148] Top shape: 1 1 (1)
2016-09-13 20:58:05.072 STDERR [INFO] I0913 20:58:05.054888  9744 net.cpp:156] Memory required for data: 14012
2016-09-13 20:58:05.072 STDERR [INFO] I0913 20:58:05.054893  9744 layer_factory.hpp:77] Creating layer cont_1_lstm2_cont_slice_0_split
2016-09-13 20:58:05.072 STDERR [INFO] I0913 20:58:05.054899  9744 net.cpp:91] Creating Layer cont_1_lstm2_cont_slice_0_split
2016-09-13 20:58:05.072 STDERR [INFO] I0913 20:58:05.054903  9744 net.cpp:425] cont_1_lstm2_cont_slice_0_split <- cont_1
2016-09-13 20:58:05.072 STDERR [INFO] I0913 20:58:05.054913  9744 net.cpp:399] cont_1_lstm2_cont_slice_0_split -> cont_1_lstm2_cont_slice_0_split_0
2016-09-13 20:58:05.072 STDERR [INFO] I0913 20:58:05.054919  9744 net.cpp:399] cont_1_lstm2_cont_slice_0_split -> cont_1_lstm2_cont_slice_0_split_1
2016-09-13 20:58:05.072 STDERR [INFO] I0913 20:58:05.054962  9744 net.cpp:141] Setting up cont_1_lstm2_cont_slice_0_split
2016-09-13 20:58:05.072 STDERR [INFO] I0913 20:58:05.054970  9744 net.cpp:148] Top shape: 1 1 (1)
2016-09-13 20:58:05.073 STDERR [INFO] I0913 20:58:05.054975  9744 net.cpp:148] Top shape: 1 1 (1)
2016-09-13 20:58:05.073 STDERR [INFO] I0913 20:58:05.054980  9744 net.cpp:156] Memory required for data: 14020
2016-09-13 20:58:05.073 STDERR [INFO] I0913 20:58:05.054985  9744 layer_factory.hpp:77] Creating layer lstm2_x_transform
2016-09-13 20:58:05.073 STDERR [INFO] I0913 20:58:05.054996  9744 net.cpp:91] Creating Layer lstm2_x_transform
2016-09-13 20:58:05.073 STDERR [INFO] I0913 20:58:05.055001  9744 net.cpp:425] lstm2_x_transform <- x
2016-09-13 20:58:05.073 STDERR [INFO] I0913 20:58:05.055007  9744 net.cpp:399] lstm2_x_transform -> W_xc_x
2016-09-13 20:58:05.077 n.t.s.s.CVParticleSpout [INFO] [Timing] RequestID: 0 StreamID: home_peifeng_work_data_frame_1080x1920_png SequenceNr: 122 Leaving fetcher: 1473814685077 Size: 160423
2016-09-13 20:58:05.078 n.t.s.b.CVParticleBolt [INFO] [Timing] RequestID: 0 StreamID: home_peifeng_work_data_frame_1080x1920_png SequenceNr: 122 Entering scale: 1473814685078
2016-09-13 20:58:05.111 STDERR [INFO] I0913 20:58:05.111701  9744 net.cpp:141] Setting up lstm2_x_transform
2016-09-13 20:58:05.112 STDERR [INFO] I0913 20:58:05.111743  9744 net.cpp:148] Top shape: 1 1 4000 (4000)
2016-09-13 20:58:05.112 STDERR [INFO] I0913 20:58:05.111749  9744 net.cpp:156] Memory required for data: 30020
2016-09-13 20:58:05.112 STDERR [INFO] I0913 20:58:05.111770  9744 layer_factory.hpp:77] Creating layer lstm2_W_xc_x_slice
2016-09-13 20:58:05.112 STDERR [INFO] I0913 20:58:05.111788  9744 net.cpp:91] Creating Layer lstm2_W_xc_x_slice
2016-09-13 20:58:05.112 STDERR [INFO] I0913 20:58:05.111794  9744 net.cpp:425] lstm2_W_xc_x_slice <- W_xc_x
2016-09-13 20:58:05.112 STDERR [INFO] I0913 20:58:05.111804  9744 net.cpp:399] lstm2_W_xc_x_slice -> W_xc_x_1
2016-09-13 20:58:05.112 STDERR [INFO] I0913 20:58:05.111845  9744 net.cpp:141] Setting up lstm2_W_xc_x_slice
2016-09-13 20:58:05.112 STDERR [INFO] I0913 20:58:05.111855  9744 net.cpp:148] Top shape: 1 1 4000 (4000)
2016-09-13 20:58:05.113 STDERR [INFO] I0913 20:58:05.111858  9744 net.cpp:156] Memory required for data: 46020
2016-09-13 20:58:05.113 STDERR [INFO] I0913 20:58:05.111862  9744 layer_factory.hpp:77] Creating layer lstm2_h_conted_0
2016-09-13 20:58:05.113 STDERR [INFO] I0913 20:58:05.111876  9744 net.cpp:91] Creating Layer lstm2_h_conted_0
2016-09-13 20:58:05.113 STDERR [INFO] I0913 20:58:05.111881  9744 net.cpp:425] lstm2_h_conted_0 <- h_0
2016-09-13 20:58:05.113 STDERR [INFO] I0913 20:58:05.111886  9744 net.cpp:425] lstm2_h_conted_0 <- cont_1_lstm2_cont_slice_0_split_0
2016-09-13 20:58:05.113 STDERR [INFO] I0913 20:58:05.111893  9744 net.cpp:399] lstm2_h_conted_0 -> h_conted_0
2016-09-13 20:58:05.113 STDERR [INFO] I0913 20:58:05.111984  9744 net.cpp:141] Setting up lstm2_h_conted_0
2016-09-13 20:58:05.113 STDERR [INFO] I0913 20:58:05.111992  9744 net.cpp:148] Top shape: 1 1 1000 (1000)
2016-09-13 20:58:05.113 STDERR [INFO] I0913 20:58:05.111996  9744 net.cpp:156] Memory required for data: 50020
2016-09-13 20:58:05.113 STDERR [INFO] I0913 20:58:05.112001  9744 layer_factory.hpp:77] Creating layer lstm2_transform_1
2016-09-13 20:58:05.113 STDERR [INFO] I0913 20:58:05.112015  9744 net.cpp:91] Creating Layer lstm2_transform_1
2016-09-13 20:58:05.113 STDERR [INFO] I0913 20:58:05.112020  9744 net.cpp:425] lstm2_transform_1 <- h_conted_0
…
2016-09-13 20:58:05.137 STDERR [INFO] W0913 20:58:05.136920  9754 upgrade_proto.cpp:48] Note that future Caffe releases will only support transform_param messages for transformation fields.
2016-09-13 20:58:05.137 STDERR [INFO] I0913 20:58:05.136925  9754 upgrade_proto.cpp:52] Attempting to upgrade input file specified using deprecated V1LayerParameter: /home/peifeng/work/run/storm102/data/workers/2847425c-45bf-4b10-89d4-e43d37ebdaf4/tmp/cvld4868851032268392937/bvlc_reference_caffenet.caffemodel
2016-09-13 20:58:05.149 STDERR [INFO] I0913 20:58:05.149736  9744 net.cpp:141] Setting up lstm2_transform_1
2016-09-13 20:58:05.150 STDERR [INFO] I0913 20:58:05.149776  9744 net.cpp:148] Top shape: 1 1 4000 (4000)
2016-09-13 20:58:05.150 STDERR [INFO] I0913 20:58:05.149782  9744 net.cpp:156] Memory required for data: 66020
2016-09-13 20:58:05.150 STDERR [INFO] I0913 20:58:05.149797  9744 layer_factory.hpp:77] Creating layer lstm2_gate_input_1
2016-09-13 20:58:05.150 STDERR [INFO] I0913 20:58:05.149816  9744 net.cpp:91] Creating Layer lstm2_gate_input_1
2016-09-13 20:58:05.150 STDERR [INFO] I0913 20:58:05.149823  9744 net.cpp:425] lstm2_gate_input_1 <- W_hc_h_0
2016-09-13 20:58:05.150 STDERR [INFO] I0913 20:58:05.149830  9744 net.cpp:425] lstm2_gate_input_1 <- W_xc_x_1
2016-09-13 20:58:05.150 STDERR [INFO] I0913 20:58:05.149838  9744 net.cpp:399] lstm2_gate_input_1 -> gate_input_1
2016-09-13 20:58:05.150 STDERR [INFO] I0913 20:58:05.149884  9744 net.cpp:141] Setting up lstm2_gate_input_1
2016-09-13 20:58:05.150 STDERR [INFO] I0913 20:58:05.149893  9744 net.cpp:148] Top shape: 1 1 4000 (4000)
2016-09-13 20:58:05.151 STDERR [INFO] I0913 20:58:05.149898  9744 net.cpp:156] Memory required for data: 82020
2016-09-13 20:58:05.151 STDERR [INFO] I0913 20:58:05.149901  9744 layer_factory.hpp:77] Creating layer lstm2_unit_1
2016-09-13 20:58:05.151 STDERR [INFO] I0913 20:58:05.149910  9744 net.cpp:91] Creating Layer lstm2_unit_1
2016-09-13 20:58:05.151 STDERR [INFO] I0913 20:58:05.149914  9744 net.cpp:425] lstm2_unit_1 <- c_0
2016-09-13 20:58:05.151 STDERR [INFO] I0913 20:58:05.149920  9744 net.cpp:425] lstm2_unit_1 <- gate_input_1
2016-09-13 20:58:05.151 STDERR [INFO] I0913 20:58:05.149925  9744 net.cpp:425] lstm2_unit_1 <- cont_1_lstm2_cont_slice_0_split_1
2016-09-13 20:58:05.151 STDERR [INFO] I0913 20:58:05.149931  9744 net.cpp:399] lstm2_unit_1 -> c_1
2016-09-13 20:58:05.151 STDERR [INFO] I0913 20:58:05.149940  9744 net.cpp:399] lstm2_unit_1 -> h_1
2016-09-13 20:58:05.151 STDERR [INFO] I0913 20:58:05.149998  9744 net.cpp:141] Setting up lstm2_unit_1
2016-09-13 20:58:05.151 STDERR [INFO] I0913 20:58:05.150007  9744 net.cpp:148] Top shape: 1 1 1000 (1000)
2016-09-13 20:58:05.151 STDERR [INFO] I0913 20:58:05.150012  9744 net.cpp:148] Top shape: 1 1 1000 (1000)
2016-09-13 20:58:05.151 STDERR [INFO] I0913 20:58:05.150017  9744 net.cpp:156] Memory required for data: 90020
2016-09-13 20:58:05.151 STDERR [INFO] I0913 20:58:05.150022  9744 layer_factory.hpp:77] Creating layer lstm2_
2016-09-13 20:58:05.151 STDERR [INFO] I0913 20:58:05.150030  9744 net.cpp:91] Creating Layer lstm2_
2016-09-13 20:58:05.152 STDERR [INFO] I0913 20:58:05.150035  9744 net.cpp:425] lstm2_ <- c_1
2016-09-13 20:58:05.152 STDERR [INFO] I0913 20:58:05.150043  9744 net.cpp:399] lstm2_ -> c_T
2016-09-13 20:58:05.152 STDERR [INFO] I0913 20:58:05.150070  9744 net.cpp:141] Setting up lstm2_
2016-09-13 20:58:05.152 STDERR [INFO] I0913 20:58:05.150079  9744 net.cpp:148] Top shape: 1 1 1000 (1000)
2016-09-13 20:58:05.152 STDERR [INFO] I0913 20:58:05.150082  9744 net.cpp:156] Memory required for data: 94020
2016-09-13 20:58:05.152 STDERR [INFO] I0913 20:58:05.150086  9744 layer_factory.hpp:77] Creating layer lstm2_h_concat
2016-09-13 20:58:05.152 STDERR [INFO] I0913 20:58:05.150095  9744 net.cpp:91] Creating Layer lstm2_h_concat
2016-09-13 20:58:05.152 STDERR [INFO] I0913 20:58:05.150099  9744 net.cpp:425] lstm2_h_concat <- h_1
2016-09-13 20:58:05.152 STDERR [INFO] I0913 20:58:05.150108  9744 net.cpp:399] lstm2_h_concat -> h
2016-09-13 20:58:05.152 STDERR [INFO] I0913 20:58:05.150140  9744 net.cpp:141] Setting up lstm2_h_concat
2016-09-13 20:58:05.152 STDERR [INFO] I0913 20:58:05.150147  9744 net.cpp:148] Top shape: 1 1 1000 (1000)
2016-09-13 20:58:05.152 STDERR [INFO] I0913 20:58:05.150152  9744 net.cpp:156] Memory required for data: 98020
2016-09-13 20:58:05.152 STDERR [INFO] I0913 20:58:05.150156  9744 layer_factory.hpp:77] Creating layer h_pseudoloss
2016-09-13 20:58:05.152 STDERR [INFO] I0913 20:58:05.150164  9744 net.cpp:91] Creating Layer h_pseudoloss
2016-09-13 20:58:05.153 STDERR [INFO] I0913 20:58:05.150169  9744 net.cpp:425] h_pseudoloss <- h
…
