…
Java HotSpot(TM) 64-Bit Server VM warning: You have loaded library /tmp/cvld8037576221469593126/libopencv_java310.xine1.so which might have disabled stack guard. The VM will try to fix the stack guard now.
It's highly recommended that you fix the library with 'execstack -c <libfile>', or link it with '-z noexecstack'.
WARNING: Logging before InitGoogleLogging() is written to STDERR
I0713 13:22:19.372030 16772 net.cpp:49] Initializing net from parameters: 
name: "GoogleNet"
state {
  phase: TEST
}
layer {
  name: "data"
  type: "Input"
  top: "data"
  input_param {
    shape {
      dim: 10
      dim: 3
      dim: 224
      dim: 224
    }
  }
}
layer {
  name: "conv1/7x7_s2"
  type: "Convolution"
  bottom: "data"
  top: "conv1/7x7_s2"
  param {
    lr_mult: 1
    decay_mult: 1
  }
  param {
    lr_mult: 2
    decay_mult: 0
  }
  convolution_param {
    num_output: 64
    pad: 3
    kernel_size: 7
    stride: 2
    weight_filler {
      type: "xavier"
      std: 0.1
    }
    bias_filler {
      type: "constant"
      value: 0.2
    }
  }
}
layer {
  name: "conv1/relu_7x7"
  type: "ReLU"
  bottom: "conv1/7x7_s2"
  top: "conv1/7x7_s2"
}
layer {
  name: "pool1/3x3_s2"
  type: "Pooling"
  bottom: "conv1/7x7_s2"
  top: "pool1/3x3_s2"
  pooling_param {
    pool: MAX
    kernel_size: 3
    stride: 2
  }
}
layer {
  name: "pool1/norm1"
  type: "LRN"
  bottom: "pool1/3x3_s2"
  top: "pool1/norm1"
  lrn_param {
    local_size: 5
    alpha: 0.0001
    beta: 0.75
  }
}
layer {
  name: "conv2/3x3_reduce"
  type: "Convolution"
  bottom: "pool1/norm1"
  top: "conv2/3x3_reduce"
  param {
    lr_mult: 1
    decay_mult: 1
  }
  param {
    lr_mult: 2
    decay_mult: 0
  }
  convolution_param {
    num_output: 64
    kernel_size: 1
    weight_filler {
      type: "xavier"
      std: 0.1
    }
    bias_filler {
      type: "constant"
      value: 0.2
    }
  }
}
layer {
  name: "conv2/relu_3x3_reduce"
  type: "ReLU"
  bottom: "conv2/3x3_reduce"
  top: "conv2/3x3_reduce"
}
layer {
  name: "conv2/3x3"
  type: "Convolution"
  bottom: "conv2/3x3_reduce"
  top: "conv2/3x3"
  param {
    lr_mult: 1
    decay_mult: 1
  }
  param {
    lr_mult: 2
    decay_mult: 0
  }
  convolution_param {
    num_output: 192
    pad: 1
    kernel_size: 3
    weight_filler {
      type: "xavier"
      std: 0.03
    }
    bias_filler {
      type: "constant"
      value: 0.2
    }
  }
}
layer {
  name: "conv2/relu_3x3"
  type: "ReLU"
  bottom: "conv2/3x3"
  top: "conv2/3x3"
}
layer {
  name: "conv2/norm2"
  type: "LRN"
  bottom: "conv2/3x3"
  top: "conv2/norm2"
  lrn_param {
    local_size: 5
    alpha: 0.0001
    beta: 0.75
  }
}
layer {
  name: "pool2/3x3_s2"
  type: "Pooling"
  bottom: "conv2/norm2"
  top: "pool2/3x3_s2"
  pooling_param {
    pool: MAX
    kernel_size: 3
    stride: 2
  }
}
layer {
  name: "inception_3a/1x1"
  type: "Convolution"
  bottom: "pool2/3x3_s2"
  top: "inception_3a/1x1"
  param {
    lr_mult: 1
    decay_mult: 1
  }
  param {
    lr_mult: 2
    decay_mult: 0
  }
  convolution_param {
    num_output: 64
    kernel_size: 1
    weight_filler {
      type: "xavier"
      std: 0.03
    }
    bias_filler {
      type: "constant"
      value: 0.2
    }
  }
}
layer {
  name: "inception_3a/relu_1x1"
  type: "ReLU"
  bottom: "inception_3a/1x1"
  top: "inception_3a/1x1"
}
layer {
  name: "inception_3a/3x3_reduce"
  type: "Convolution"
  bottom: "pool2/3x3_s2"
  top: "inception_3a/3x3_reduce"
  param {
    lr_mult: 1
    decay_mult: 1
  }
  param {
    lr_mult: 2
    decay_mult: 0
  }
  convolution_param {
    num_output: 96
    kernel_size: 1
    weight_filler {
      type: "xavier"
      std: 0.09
    }
    bias_filler {
      type: "constant"
      value: 0.2
    }
  }
}
layer {
  name: "inception_3a/relu_3x3_reduce"
  type: "ReLU"
  bottom: "inception_3a/3x3_reduce"
  top: "inception_3a/3x3_reduce"
}
layer {
  name: "inception_3a/3x3"
  type: "Convolution"
  bottom: "inception_3a/3x3_reduce"
  top: "inception_3a/3x3"
  param {
    lr_mult: 1
    decay_mult: 1
  }
  param {
    lr_mult: 2
    decay_mult: 0
  }
  convolution_param {
    num_output: 128
    pad: 1
    kernel_size: 3
    weight_filler {
      type: "xavier"
      std: 0.03
    }
    bias_filler {
      type: "constant"
      value: 0.2
    }
  }
}
layer {
  name: "inception_3a/relu_3x3"
  type: "ReLU"
  bottom: "inception_3a/3x3"
  top: "inception_3a/3x3"
}
layer {
  name: "inception_3a/5x5_reduce"
  type: "Convolution"
  bottom: "pool2/3x3_s2"
  top: "inception_3a/5x5_reduce"
  param {
    lr_mult: 1
    decay_mult: 1
  }
  param {
    lr_mult: 2
    decay_mult: 0
  }
  convolution_param {
    num_output: 16
    kernel_size: 1
    weight_filler {
      type: "xavier"
      std: 0.2
    }
    bias_filler {
      type: "constant"
      value: 0.2
    }
  }
}
layer {
  name: "inception_3a/relu_5x5_reduce"
  type: "ReLU"
  bottom: "inception_3a/5x5_reduce"
  top: "inception_3a/5x5_reduce"
}
layer {
  name: "inception_3a/5x5"
  type: "Convolution"
  bottom: "inception_3a/5x5_reduce"
  top: "inception_3a/5x5"
  param {
    lr_mult: 1
    decay_mult: 1
  }
  param {
    lr_mult: 2
    decay_mult: 0
  }
  convolution_param {
    num_output: 32
    pad: 2
    kernel_size: 5
    weight_filler {
      type: "xavier"
      std: 0.03
    }
    bias_filler {
      type: "constant"
      value: 0.2
    }
  }
}
layer {
  name: "inception_3a/relu_5x5"
  type: "ReLU"
  bottom: "inception_3a/5x5"
  top: "inception_3a/5x5"
}
layer {
  name: "inception_3a/pool"
  type: "Pooling"
  bottom: "pool2/3x3_s2"
  top: "inception_3a/pool"
  pooling_param {
    pool: MAX
    kernel_size: 3
    stride: 1
    pad: 1
  }
}
layer {
  name: "inception_3a/pool_proj"
  type: "Convolution"
  bottom: "inception_3a/pool"
  top: "inception_3a/pool_proj"
  param {
    lr_mult: 1
    decay_mult: 1
  }
  param {
    lr_mult: 2
    decay_mult: 0
  }
  convolution_param {
    num_output: 32
    kernel_size: 1
    weight_filler {
      type: "xavier"
      std: 0.1
    }
    bias_filler {
      type: "constant"
      value: 0.2
    }
  }
}
layer {
  name: "inception_3a/relu_pool_proj"
  type: "ReLU"
  bottom: "inception_3a/pool_proj"
  top: "inception_3a/pool_proj"
}
layer {
  name: "inception_3a/output"
  type: "Concat"
  bottom: "inception_3a/1x1"
  bottom: "inception_3a/3x3"
  bottom: "inception_3a/5x5"
  bottom: "inception_3a/pool_proj"
  top: "inception_3a/output"
}
layer {
  name: "inception_3b/1x1"
  type: "Convolution"
  bottom: "inception_3a/output"
  top: "inception_3b/1x1"
  param {
    lr_mult: 1
    decay_mult: 1
  }
  param {
    lr_mult: 2
    decay_mult: 0
  }
  convolution_param {
    num_output: 128
    kernel_size: 1
    weight_filler {
      type: "xavier"
      std: 0.03
    }
    bias_filler {
      type: "constant"
      value: 0.2
    }
  }
}
layer {
  name: "inception_3b/relu_1x1"
  type: "ReLU"
  bottom: "inception_3b/1x1"
  top: "inception_3b/1x1"
}
layer {
  name: "inception_3b/3x3_reduce"
  type: "Convolution"
  bottom: "inception_3a/output"
  top: "inception_3b/3x3_reduce"
  param {
    lr_mult: 1
    decay_mult: 1
  }
  param {
    lr_mult: 2
    decay_mult: 0
  }
  convolution_param {
    num_output: 128
    kernel_size: 1
    weight_filler {
      type: "xavier"
      std: 0.09
    }
    bias_filler {
      type: "constant"
      value: 0.2
    }
  }
}
layer {
  name: "inception_3b/relu_3x3_reduce"
  type: "ReLU"
  bottom: "inception_3b/3x3_reduce"
  top: "inception_3b/3x3_reduce"
}
layer {
  name: "inception_3b/3x3"
  type: "Convolution"
  bottom: "inception_3b/3x3_reduce"
  top: "inception_3b/3x3"
  param {
    lr_mult: 1
    decay_mult: 1
  }
  param {
    lr_mult: 2
    decay_mult: 0
  }
  convolution_param {
    num_output: 192
    pad: 1
    kernel_size: 3
    weight_filler {
      type: "xavier"
      std: 0.03
    }
    bias_filler {
      type: "constant"
      value: 0.2
    }
  }
}
layer {
  name: "inception_3b/relu_3x3"
  type: "ReLU"
  bottom: "inception_3b/3x3"
  top: "inception_3b/3x3"
}
layer {
  name: "inception_3b/5x5_reduce"
  type: "Convolution"
  bottom: "inception_3a/output"
  top: "inception_3b/5x5_reduce"
  param {
    lr_mult: 1
    decay_mult: 1
  }
  param {
    lr_mult: 2
    decay_mult: 0
  }
  convolution_param {
    num_output: 32
    kernel_size: 1
    weight_filler {
      type: "xavier"
      std: 0.2
    }
    bias_filler {
      type: "constant"
      value: 0.2
    }
  }
}
layer {
  name: "inception_3b/relu_5x5_reduce"
  type: "ReLU"
  bottom: "inception_3b/5x5_reduce"
  top: "inception_3b/5x5_reduce"
}
layer {
  name: "inception_3b/5x5"
  type: "Convolution"
  bottom: "inception_3b/5x5_reduce"
  top: "inception_3b/5x5"
  param {
    lr_mult: 1
    decay_mult: 1
  }
  param {
    lr_mult: 2
    decay_mult: 0
  }
  convolution_param {
    num_output: 96
    pad: 2
    kernel_size: 5
    weight_filler {
      type: "xavier"
      std: 0.03
    }
    bias_filler {
      type: "constant"
      value: 0.2
    }
  }
}
layer {
  name: "inception_3b/relu_5x5"
  type: "ReLU"
  bottom: "inception_3b/5x5"
  top: "inception_3b/5x5"
}
layer {
  name: "inception_3b/pool"
  type: "Pooling"
  bottom: "inception_3a/output"
  top: "inception_3b/pool"
  pooling_param {
    pool: MAX
    kernel_size: 3
    stride: 1
    pad: 1
  }
}
layer {
  name: "inception_3b/pool_proj"
  type: "Convolution"
  bottom: "inception_3b/pool"
  top: "inception_3b/pool_proj"
  param {
    lr_mult: 1
    decay_mult: 1
  }
  param {
    lr_mult: 2
    decay_mult: 0
  }
  convolution_param {
    num_output: 64
    kernel_size: 1
    weight_filler {
      type: "xavier"
      std: 0.1
    }
    bias_filler {
      type: "constant"
      value: 0.2
    }
  }
}
layer {
  name: "inception_3b/relu_pool_proj"
  type: "ReLU"
  bottom: "inception_3b/pool_proj"
  top: "inception_3b/pool_proj"
}
layer {
  name: "inception_3b/output"
  type: "Concat"
  bottom: "inception_3b/1x1"
  bottom: "inception_3b/3x3"
  bottom: "inception_3b/5x5"
  bottom: "inception_3b/pool_proj"
  top: "inception_3b/output"
}
layer {
  name: "pool3/3x3_s2"
  type: "Pooling"
  bottom: "inception_3b/output"
  top: "pool3/3x3_s2"
  pooling_param {
    pool: MAX
    kernel_size: 3
    stride: 2
  }
}
layer {
  name: "inception_4a/1x1"
  type: "Convolution"
  bottom: "pool3/3x3_s2"
  top: "inception_4a/1x1"
  param {
    lr_mult: 1
    decay_mult: 1
  }
  param {
    lr_mult: 2
    decay_mult: 0
  }
  convolution_param {
    num_output: 192
    kernel_size: 1
    weight_filler {
      type: "xavier"
      std: 0.03
    }
    bias_filler {
      type: "constant"
      value: 0.2
    }
  }
}
layer {
  name: "inception_4a/relu_1x1"
  type: "ReLU"
  bottom: "inception_4a/1x1"
  top: "inception_4a/1x1"
}
layer {
  name: "inception_4a/3x3_reduce"
  type: "Convolution"
  bottom: "pool3/3x3_s2"
  top: "inception_4a/3x3_reduce"
  param {
    lr_mult: 1
    decay_mult: 1
  }
  param {
    lr_mult: 2
    decay_mult: 0
  }
  convolution_param {
    num_output: 96
    kernel_size: 1
    weight_filler {
      type: "xavier"
      std: 0.09
    }
    bias_filler {
      type: "constant"
      value: 0.2
    }
  }
}
layer {
  name: "inception_4a/relu_3x3_reduce"
  type: "ReLU"
  bottom: "inception_4a/3x3_reduce"
  top: "inception_4a/3x3_reduce"
}
layer {
  name: "inception_4a/3x3"
  type: "Convolution"
  bottom: "inception_4a/3x3_reduce"
  top: "inception_4a/3x3"
  param {
    lr_mult: 1
    decay_mult: 1
  }
  param {
    lr_mult: 2
    decay_mult: 0
  }
  convolution_param {
    num_output: 208
    pad: 1
    kernel_size: 3
    weight_filler {
      type: "xavier"
      std: 0.03
    }
    bias_filler {
      type: "constant"
      value: 0.2
    }
  }
}
layer {
  name: "inception_4a/relu_3x3"
  type: "ReLU"
  bottom: "inception_4a/3x3"
  top: "inception_4a/3x3"
}
layer {
  name: "inception_4a/5x5_reduce"
  type: "Convolution"
  bottom: "pool3/3x3_s2"
  top: "inception_4a/5x5_reduce"
  param {
    lr_mult: 1
    decay_mult: 1
  }
  param {
    lr_mult: 2
    decay_mult: 0
  }
  convolution_param {
    num_output: 16
    kernel_size: 1
    weight_filler {
      type: "xavier"
      std: 0.2
    }
    bias_filler {
      type: "constant"
      value: 0.2
    }
  }
}
layer {
  name: "inception_4a/relu_5x5_reduce"
  type: "ReLU"
  bottom: "inception_4a/5x5_reduce"
  top: "inception_4a/5x5_reduce"
}
layer {
  name: "inception_4a/5x5"
  type: "Convolution"
  bottom: "inception_4a/5x5_reduce"
  top: "inception_4a/5x5"
  param {
    lr_mult: 1
    decay_mult: 1
  }
  param {
    lr_mult: 2
    decay_mult: 0
  }
  convolution_param {
    num_output: 48
    pad: 2
    kernel_size: 5
    weight_filler {
      type: "xavier"
      std: 0.03
    }
    bias_filler {
      type: "constant"
      value: 0.2
    }
  }
}
layer {
  name: "inception_4a/relu_5x5"
  type: "ReLU"
  bottom: "inception_4a/5x5"
  top: "inception_4a/5x5"
}
layer {
  name: "inception_4a/pool"
  type: "Pooling"
  bottom: "pool3/3x3_s2"
  top: "inception_4a/pool"
  pooling_param {
    pool: MAX
    kernel_size: 3
    stride: 1
    pad: 1
  }
}
layer {
  name: "inception_4a/pool_proj"
  type: "Convolution"
  bottom: "inception_4a/pool"
  top: "inception_4a/pool_proj"
  param {
    lr_mult: 1
    decay_mult: 1
  }
  param {
    lr_mult: 2
    decay_mult: 0
  }
  convolution_param {
    num_output: 64
    kernel_size: 1
    weight_filler {
      type: "xavier"
      std: 0.1
    }
    bias_filler {
      type: "constant"
      value: 0.2
    }
  }
}
layer {
  name: "inception_4a/relu_pool_proj"
  type: "ReLU"
  bottom: "inception_4a/pool_proj"
  top: "inception_4a/pool_proj"
}
layer {
  name: "inception_4a/output"
  type: "Concat"
  bottom: "inception_4a/1x1"
  bottom: "inception_4a/3x3"
  bottom: "inception_4a/5x5"
  bottom: "inception_4a/pool_proj"
  top: "inception_4a/output"
}
layer {
  name: "inception_4b/1x1"
  type: "Convolution"
  bottom: "inception_4a/output"
  top: "inception_4b/1x1"
  param {
    lr_mult: 1
    decay_mult: 1
  }
  param {
    lr_mult: 2
    decay_mult: 0
  }
  convolution_param {
    num_output: 160
    kernel_size: 1
    weight_filler {
      type: "xavier"
      std: 0.03
    }
    bias_filler {
      type: "constant"
      value: 0.2
    }
  }
}
layer {
  name: "inception_4b/relu_1x1"
  type: "ReLU"
  bottom: "inception_4b/1x1"
  top: "inception_4b/1x1"
}
layer {
  name: "inception_4b/3x3_reduce"
  type: "Convolution"
  bottom: "inception_4a/output"
  top: "inception_4b/3x3_reduce"
  param {
    lr_mult: 1
    decay_mult: 1
  }
  param {
    lr_mult: 2
    decay_mult: 0
  }
  convolution_param {
    num_output: 112
    kernel_size: 1
    weight_filler {
      type: "xavier"
      std: 0.09
    }
    bias_filler {
      type: "constant"
      value: 0.2
    }
  }
}
layer {
  name: "inception_4b/relu_3x3_reduce"
  type: "ReLU"
  bottom: "inception_4b/3x3_reduce"
  top: "inception_4b/3x3_reduce"
}
layer {
  name: "inception_4b/3x3"
  type: "Convolution"
  bottom: "inception_4b/3x3_reduce"
  top: "inception_4b/3x3"
  param {
    lr_mult: 1
    decay_mult: 1
  }
  param {
    lr_mult: 2
    decay_mult: 0
  }
  convolution_param {
    num_output: 224
    pad: 1
    kernel_size: 3
    weight_filler {
      type: "xavier"
      std: 0.03
    }
    bias_filler {
      type: "constant"
      value: 0.2
    }
  }
}
layer {
  name: "inception_4b/relu_3x3"
  type: "ReLU"
  bottom: "inception_4b/3x3"
  top: "inception_4b/3x3"
}
layer {
  name: "inception_4b/5x5_reduce"
  type: "Convolution"
  bottom: "inception_4a/output"
  top: "inception_4b/5x5_reduce"
  param {
    lr_mult: 1
    decay_mult: 1
  }
  param {
    lr_mult: 2
    decay_mult: 0
  }
  convolution_param {
    num_output: 24
    kernel_size: 1
    weight_filler {
      type: "xavier"
      std: 0.2
    }
    bias_filler {
      type: "constant"
      value: 0.2
    }
  }
}
layer {
  name: "inception_4b/relu_5x5_reduce"
  type: "ReLU"
  bottom: "inception_4b/5x5_reduce"
  top: "inception_4b/5x5_reduce"
}
layer {
  name: "inception_4b/5x5"
  type: "Convolution"
  bottom: "inception_4b/5x5_reduce"
  top: "inception_4b/5x5"
  param {
    lr_mult: 1
    decay_mult: 1
  }
  param {
    lr_mult: 2
    decay_mult: 0
  }
  convolution_param {
    num_output: 64
    pad: 2
    kernel_size: 5
    weight_filler {
      type: "xavier"
      std: 0.03
    }
    bias_filler {
      type: "constant"
      value: 0.2
    }
  }
}
layer {
  name: "inception_4b/relu_5x5"
  type: "ReLU"
  bottom: "inception_4b/5x5"
  top: "inception_4b/5x5"
}
layer {
  name: "inception_4b/pool"
  type: "Pooling"
  bottom: "inception_4a/output"
  top: "inception_4b/pool"
  pooling_param {
    pool: MAX
    kernel_size: 3
    stride: 1
    pad: 1
  }
}
layer {
  name: "inception_4b/pool_proj"
  type: "Convolution"
  bottom: "inception_4b/pool"
  top: "inception_4b/pool_proj"
  param {
    lr_mult: 1
    decay_mult: 1
  }
  param {
    lr_mult: 2
    decay_mult: 0
  }
  convolution_param {
    num_output: 64
    kernel_size: 1
    weight_filler {
      type: "xavier"
      std: 0.1
    }
    bias_filler {
      type: "constant"
      value: 0.2
    }
  }
}
layer {
  name: "inception_4b/relu_pool_proj"
  type: "ReLU"
  bottom: "inception_4b/pool_proj"
  top: "inception_4b/pool_proj"
}
layer {
  name: "inception_4b/output"
  type: "Concat"
  bottom: "inception_4b/1x1"
  bottom: "inception_4b/3x3"
  bottom: "inception_4b/5x5"
  bottom: "inception_4b/pool_proj"
  top: "inception_4b/output"
}
layer {
  name: "inception_4c/1x1"
  type: "Convolution"
  bottom: "inception_4b/output"
  top: "inception_4c/1x1"
  param {
    lr_mult: 1
    decay_mult: 1
  }
  param {
    lr_mult: 2
    decay_mult: 0
  }
  convolution_param {
    num_output: 128
    kernel_size: 1
    weight_filler {
      type: "xavier"
      std: 0.03
    }
    bias_filler {
      type: "constant"
      value: 0.2
    }
  }
}
layer {
  name: "inception_4c/relu_1x1"
  type: "ReLU"
  bottom: "inception_4c/1x1"
  top: "inception_4c/1x1"
}
layer {
  name: "inception_4c/3x3_reduce"
  type: "Convolution"
  bottom: "inception_4b/output"
  top: "inception_4c/3x3_reduce"
  param {
    lr_mult: 1
    decay_mult: 1
  }
  param {
    lr_mult: 2
    decay_mult: 0
  }
  convolution_param {
    num_output: 128
    kernel_size: 1
    weight_filler {
      type: "xavier"
      std: 0.09
    }
    bias_filler {
      type: "constant"
      value: 0.2
    }
  }
}
layer {
  name: "inception_4c/relu_3x3_reduce"
  type: "ReLU"
  bottom: "inception_4c/3x3_reduce"
  top: "inception_4c/3x3_reduce"
}
layer {
  name: "inception_4c/3x3"
  type: "Convolution"
  bottom: "inception_4c/3x3_reduce"
  top: "inception_4c/3x3"
  param {
    lr_mult: 1
    decay_mult: 1
  }
  param {
    lr_mult: 2
    decay_mult: 0
  }
  convolution_param {
    num_output: 256
    pad: 1
    kernel_size: 3
    weight_filler {
      type: "xavier"
      std: 0.03
    }
    bias_filler {
      type: "constant"
      value: 0.2
    }
  }
}
layer {
  name: "inception_4c/relu_3x3"
  type: "ReLU"
  bottom: "inception_4c/3x3"
  top: "inception_4c/3x3"
}
layer {
  name: "inception_4c/5x5_reduce"
  type: "Convolution"
  bottom: "inception_4b/output"
  top: "inception_4c/5x5_reduce"
  param {
    lr_mult: 1
    decay_mult: 1
  }
  param {
    lr_mult: 2
    decay_mult: 0
  }
  convolution_param {
    num_output: 24
    kernel_size: 1
    weight_filler {
      type: "xavier"
      std: 0.2
    }
    bias_filler {
      type: "constant"
      value: 0.2
    }
  }
}
layer {
  name: "inception_4c/relu_5x5_reduce"
  type: "ReLU"
  bottom: "inception_4c/5x5_reduce"
  top: "inception_4c/5x5_reduce"
}
layer {
  name: "inception_4c/5x5"
  type: "Convolution"
  bottom: "inception_4c/5x5_reduce"
  top: "inception_4c/5x5"
  param {
    lr_mult: 1
    decay_mult: 1
  }
  param {
    lr_mult: 2
    decay_mult: 0
  }
  convolution_param {
    num_output: 64
    pad: 2
    kernel_size: 5
    weight_filler {
      type: "xavier"
      std: 0.03
    }
    bias_filler {
      type: "constant"
      value: 0.2
    }
  }
}
layer {
  name: "inception_4c/relu_5x5"
  type: "ReLU"
  bottom: "inception_4c/5x5"
  top: "inception_4c/5x5"
}
layer {
  name: "inception_4c/pool"
  type: "Pooling"
  bottom: "inception_4b/output"
  top: "inception_4c/pool"
  pooling_param {
    pool: MAX
    kernel_size: 3
    stride: 1
    pad: 1
  }
}
layer {
  name: "inception_4c/pool_proj"
  type: "Convolution"
  bottom: "inception_4c/pool"
  top: "inception_4c/pool_proj"
  param {
    lr_mult: 1
    decay_mult: 1
  }
  param {
    lr_mult: 2
    decay_mult: 0
  }
  convolution_param {
    num_output: 64
    kernel_size: 1
    weight_filler {
      type: "xavier"
      std: 0.1
    }
    bias_filler {
      type: "constant"
      value: 0.2
    }
  }
}
layer {
  name: "inception_4c/relu_pool_proj"
  type: "ReLU"
  bottom: "inception_4c/pool_proj"
  top: "inception_4c/pool_proj"
}
layer {
  name: "inception_4c/output"
  type: "Concat"
  bottom: "inception_4c/1x1"
  bottom: "inception_4c/3x3"
  bottom: "inception_4c/5x5"
  bottom: "inception_4c/pool_proj"
  top: "inception_4c/output"
}
layer {
  name: "inception_4d/1x1"
  type: "Convolution"
  bottom: "inception_4c/output"
  top: "inception_4d/1x1"
  param {
    lr_mult: 1
    decay_mult: 1
  }
  param {
    lr_mult: 2
    decay_mult: 0
  }
  convolution_param {
    num_output: 112
    kernel_size: 1
    weight_filler {
      type: "xavier"
      std: 0.03
    }
    bias_filler {
      type: "constant"
      value: 0.2
    }
  }
}
layer {
  name: "inception_4d/relu_1x1"
  type: "ReLU"
  bottom: "inception_4d/1x1"
  top: "inception_4d/1x1"
}
layer {
  name: "inception_4d/3x3_reduce"
  type: "Convolution"
  bottom: "inception_4c/output"
  top: "inception_4d/3x3_reduce"
  param {
    lr_mult: 1
    decay_mult: 1
  }
  param {
    lr_mult: 2
    decay_mult: 0
  }
  convolution_param {
    num_output: 144
    kernel_size: 1
    weight_filler {
      type: "xavier"
      std: 0.09
    }
    bias_filler {
      type: "constant"
      value: 0.2
    }
  }
}
layer {
  name: "inception_4d/relu_3x3_reduce"
  type: "ReLU"
  bottom: "inception_4d/3x3_reduce"
  top: "inception_4d/3x3_reduce"
}
layer {
  name: "inception_4d/3x3"
  type: "Convolution"
  bottom: "inception_4d/3x3_reduce"
  top: "inception_4d/3x3"
  param {
    lr_mult: 1
    decay_mult: 1
  }
  param {
    lr_mult: 2
    decay_mult: 0
  }
  convolution_param {
    num_output: 288
    pad: 1
    kernel_size: 3
    weight_filler {
      type: "xavier"
      std: 0.03
    }
    bias_filler {
      type: "constant"
      value: 0.2
    }
  }
}
layer {
  name: "inception_4d/relu_3x3"
  type: "ReLU"
  bottom: "inception_4d/3x3"
  top: "inception_4d/3x3"
}
layer {
  name: "inception_4d/5x5_reduce"
  type: "Convolution"
  bottom: "inception_4c/output"
  top: "inception_4d/5x5_reduce"
  param {
    lr_mult: 1
    decay_mult: 1
  }
  param {
    lr_mult: 2
    decay_mult: 0
  }
  convolution_param {
    num_output: 32
    kernel_size: 1
    weight_filler {
      type: "xavier"
      std: 0.2
    }
    bias_filler {
      type: "constant"
      value: 0.2
    }
  }
}
layer {
  name: "inception_4d/relu_5x5_reduce"
  type: "ReLU"
  bottom: "inception_4d/5x5_reduce"
  top: "inception_4d/5x5_reduce"
}
layer {
  name: "inception_4d/5x5"
  type: "Convolution"
  bottom: "inception_4d/5x5_reduce"
  top: "inception_4d/5x5"
  param {
    lr_mult: 1
    decay_mult: 1
  }
  param {
    lr_mult: 2
    decay_mult: 0
  }
  convolution_param {
    num_output: 64
    pad: 2
    kernel_size: 5
    weight_filler {
      type: "xavier"
      std: 0.03
    }
    bias_filler {
      type: "constant"
      value: 0.2
    }
  }
}
layer {
  name: "inception_4d/relu_5x5"
  type: "ReLU"
  bottom: "inception_4d/5x5"
  top: "inception_4d/5x5"
}
layer {
  name: "inception_4d/pool"
  type: "Pooling"
  bottom: "inception_4c/output"
  top: "inception_4d/pool"
  pooling_param {
    pool: MAX
    kernel_size: 3
    stride: 1
    pad: 1
  }
}
layer {
  name: "inception_4d/pool_proj"
  type: "Convolution"
  bottom: "inception_4d/pool"
  top: "inception_4d/pool_proj"
  param {
    lr_mult: 1
    decay_mult: 1
  }
  param {
    lr_mult: 2
    decay_mult: 0
  }
  convolution_param {
    num_output: 64
    kernel_size: 1
    weight_filler {
      type: "xavier"
      std: 0.1
    }
    bias_filler {
      type: "constant"
      value: 0.2
    }
  }
}
layer {
  name: "inception_4d/relu_pool_proj"
  type: "ReLU"
  bottom: "inception_4d/pool_proj"
  top: "inception_4d/pool_proj"
}
layer {
  name: "inception_4d/output"
  type: "Concat"
  bottom: "inception_4d/1x1"
  bottom: "inception_4d/3x3"
  bottom: "inception_4d/5x5"
  bottom: "inception_4d/pool_proj"
  top: "inception_4d/output"
}
layer {
  name: "inception_4e/1x1"
  type: "Convolution"
  bottom: "inception_4d/output"
  top: "inception_4e/1x1"
  param {
    lr_mult: 1
    decay_mult: 1
  }
  param {
    lr_mult: 2
    decay_mult: 0
  }
  convolution_param {
    num_output: 256
    kernel_size: 1
    weight_filler {
      type: "xavier"
      std: 0.03
    }
    bias_filler {
      type: "constant"
      value: 0.2
    }
  }
}
layer {
  name: "inception_4e/relu_1x1"
  type: "ReLU"
  bottom: "inception_4e/1x1"
  top: "inception_4e/1x1"
}
layer {
  name: "inception_4e/3x3_reduce"
  type: "Convolution"
  bottom: "inception_4d/output"
  top: "inception_4e/3x3_reduce"
  param {
    lr_mult: 1
    decay_mult: 1
  }
  param {
    lr_mult: 2
    decay_mult: 0
  }
  convolution_param {
    num_output: 160
    kernel_size: 1
    weight_filler {
      type: "xavier"
      std: 0.09
    }
    bias_filler {
      type: "constant"
      value: 0.2
    }
  }
}
layer {
  name: "inception_4e/relu_3x3_reduce"
  type: "ReLU"
  bottom: "inception_4e/3x3_reduce"
  top: "inception_4e/3x3_reduce"
}
layer {
  name: "inception_4e/3x3"
  type: "Convolution"
  bottom: "inception_4e/3x3_reduce"
  top: "inception_4e/3x3"
  param {
    lr_mult: 1
    decay_mult: 1
  }
  param {
    lr_mult: 2
    decay_mult: 0
  }
  convolution_param {
    num_output: 320
    pad: 1
    kernel_size: 3
    weight_filler {
      type: "xavier"
      std: 0.03
    }
    bias_filler {
      type: "constant"
      value: 0.2
    }
  }
}
layer {
  name: "inception_4e/relu_3x3"
  type: "ReLU"
  bottom: "inception_4e/3x3"
  top: "inception_4e/3x3"
}
layer {
  name: "inception_4e/5x5_reduce"
  type: "Convolution"
  bottom: "inception_4d/output"
  top: "inception_4e/5x5_reduce"
  param {
    lr_mult: 1
    decay_mult: 1
  }
  param {
    lr_mult: 2
    decay_mult: 0
  }
  convolution_param {
    num_output: 32
    kernel_size: 1
    weight_filler {
      type: "xavier"
      std: 0.2
    }
    bias_filler {
      type: "constant"
      value: 0.2
    }
  }
}
layer {
  name: "inception_4e/relu_5x5_reduce"
  type: "ReLU"
  bottom: "inception_4e/5x5_reduce"
  top: "inception_4e/5x5_reduce"
}
layer {
  name: "inception_4e/5x5"
  type: "Convolution"
  bottom: "inception_4e/5x5_reduce"
  top: "inception_4e/5x5"
  param {
    lr_mult: 1
    decay_mult: 1
  }
  param {
    lr_mult: 2
    decay_mult: 0
  }
  convolution_param {
    num_output: 128
    pad: 2
    kernel_size: 5
    weight_filler {
      type: "xavier"
      std: 0.03
    }
    bias_filler {
      type: "constant"
      value: 0.2
    }
  }
}
layer {
  name: "inception_4e/relu_5x5"
  type: "ReLU"
  bottom: "inception_4e/5x5"
  top: "inception_4e/5x5"
}
layer {
  name: "inception_4e/pool"
  type: "Pooling"
  bottom: "inception_4d/output"
  top: "inception_4e/pool"
  pooling_param {
    pool: MAX
    kernel_size: 3
    stride: 1
    pad: 1
  }
}
layer {
  name: "inception_4e/pool_proj"
  type: "Convolution"
  bottom: "inception_4e/pool"
  top: "inception_4e/pool_proj"
  param {
    lr_mult: 1
    decay_mult: 1
  }
  param {
    lr_mult: 2
    decay_mult: 0
  }
  convolution_param {
    num_output: 128
    kernel_size: 1
    weight_filler {
      type: "xavier"
      std: 0.1
    }
    bias_filler {
      type: "constant"
      value: 0.2
    }
  }
}
layer {
  name: "inception_4e/relu_pool_proj"
  type: "ReLU"
  bottom: "inception_4e/pool_proj"
  top: "inception_4e/pool_proj"
}
layer {
  name: "inception_4e/output"
  type: "Concat"
  bottom: "inception_4e/1x1"
  bottom: "inception_4e/3x3"
  bottom: "inception_4e/5x5"
  bottom: "inception_4e/pool_proj"
  top: "inception_4e/output"
}
layer {
  name: "pool4/3x3_s2"
  type: "Pooling"
  bottom: "inception_4e/output"
  top: "pool4/3x3_s2"
  pooling_param {
    pool: MAX
    kernel_size: 3
    stride: 2
  }
}
layer {
  name: "inception_5a/1x1"
  type: "Convolution"
  bottom: "pool4/3x3_s2"
  top: "inception_5a/1x1"
  param {
    lr_mult: 1
    decay_mult: 1
  }
  param {
    lr_mult: 2
    decay_mult: 0
  }
  convolution_param {
    num_output: 256
    kernel_size: 1
    weight_filler {
      type: "xavier"
      std: 0.03
    }
    bias_filler {
      type: "constant"
      value: 0.2
    }
  }
}
layer {
  name: "inception_5a/relu_1x1"
  type: "ReLU"
  bottom: "inception_5a/1x1"
  top: "inception_5a/1x1"
}
layer {
  name: "inception_5a/3x3_reduce"
  type: "Convolution"
  bottom: "pool4/3x3_s2"
  top: "inception_5a/3x3_reduce"
  param {
    lr_mult: 1
    decay_mult: 1
  }
  param {
    lr_mult: 2
    decay_mult: 0
  }
  convolution_param {
    num_output: 160
    kernel_size: 1
    weight_filler {
      type: "xavier"
      std: 0.09
    }
    bias_filler {
      type: "constant"
      value: 0.2
    }
  }
}
layer {
  name: "inception_5a/relu_3x3_reduce"
  type: "ReLU"
  bottom: "inception_5a/3x3_reduce"
  top: "inception_5a/3x3_reduce"
}
layer {
  name: "inception_5a/3x3"
  type: "Convolution"
  bottom: "inception_5a/3x3_reduce"
  top: "inception_5a/3x3"
  param {
    lr_mult: 1
    decay_mult: 1
  }
  param {
    lr_mult: 2
    decay_mult: 0
  }
  convolution_param {
    num_output: 320
    pad: 1
    kernel_size: 3
    weight_filler {
      type: "xavier"
      std: 0.03
    }
    bias_filler {
      type: "constant"
      value: 0.2
    }
  }
}
layer {
  name: "inception_5a/relu_3x3"
  type: "ReLU"
  bottom: "inception_5a/3x3"
  top: "inception_5a/3x3"
}
layer {
  name: "inception_5a/5x5_reduce"
  type: "Convolution"
  bottom: "pool4/3x3_s2"
  top: "inception_5a/5x5_reduce"
  param {
    lr_mult: 1
    decay_mult: 1
  }
  param {
    lr_mult: 2
    decay_mult: 0
  }
  convolution_param {
    num_output: 32
    kernel_size: 1
    weight_filler {
      type: "xavier"
      std: 0.2
    }
    bias_filler {
      type: "constant"
      value: 0.2
    }
I0713 13:22:19.373103 16772 layer_factory.hpp:77] Creating layer data
I0713 13:22:19.373132 16772 net.cpp:91] Creating Layer data
I0713 13:22:19.373144 16772 net.cpp:399] data -> data
I0713 13:22:19.990746 16772 net.cpp:141] Setting up data
I0713 13:22:19.990823 16772 net.cpp:148] Top shape: 10 3 224 224 (1505280)
I0713 13:22:19.990833 16772 net.cpp:156] Memory required for data: 6021120
I0713 13:22:19.990854 16772 layer_factory.hpp:77] Creating layer conv1/7x7_s2
I0713 13:22:19.990891 16772 net.cpp:91] Creating Layer conv1/7x7_s2
I0713 13:22:19.990901 16772 net.cpp:425] conv1/7x7_s2 <- data
I0713 13:22:19.990916 16772 net.cpp:399] conv1/7x7_s2 -> conv1/7x7_s2
I0713 13:22:20.248174 16772 net.cpp:141] Setting up conv1/7x7_s2
I0713 13:22:20.248222 16772 net.cpp:148] Top shape: 10 64 112 112 (8028160)
I0713 13:22:20.248229 16772 net.cpp:156] Memory required for data: 38133760
I0713 13:22:20.248256 16772 layer_factory.hpp:77] Creating layer conv1/relu_7x7
I0713 13:22:20.248275 16772 net.cpp:91] Creating Layer conv1/relu_7x7
I0713 13:22:20.248282 16772 net.cpp:425] conv1/relu_7x7 <- conv1/7x7_s2
I0713 13:22:20.248291 16772 net.cpp:386] conv1/relu_7x7 -> conv1/7x7_s2 (in-place)
I0713 13:22:20.249042 16772 net.cpp:141] Setting up conv1/relu_7x7
I0713 13:22:20.249058 16772 net.cpp:148] Top shape: 10 64 112 112 (8028160)
I0713 13:22:20.249064 16772 net.cpp:156] Memory required for data: 70246400
I0713 13:22:20.249070 16772 layer_factory.hpp:77] Creating layer pool1/3x3_s2
I0713 13:22:20.249083 16772 net.cpp:91] Creating Layer pool1/3x3_s2
I0713 13:22:20.249089 16772 net.cpp:425] pool1/3x3_s2 <- conv1/7x7_s2
I0713 13:22:20.249097 16772 net.cpp:399] pool1/3x3_s2 -> pool1/3x3_s2
I0713 13:22:20.249181 16772 net.cpp:141] Setting up pool1/3x3_s2
I0713 13:22:20.249192 16772 net.cpp:148] Top shape: 10 64 56 56 (2007040)
I0713 13:22:20.249197 16772 net.cpp:156] Memory required for data: 78274560
I0713 13:22:20.249202 16772 layer_factory.hpp:77] Creating layer pool1/norm1
I0713 13:22:20.249219 16772 net.cpp:91] Creating Layer pool1/norm1
I0713 13:22:20.249225 16772 net.cpp:425] pool1/norm1 <- pool1/3x3_s2
I0713 13:22:20.249233 16772 net.cpp:399] pool1/norm1 -> pool1/norm1
I0713 13:22:20.250027 16772 net.cpp:141] Setting up pool1/norm1
I0713 13:22:20.250044 16772 net.cpp:148] Top shape: 10 64 56 56 (2007040)
I0713 13:22:20.250049 16772 net.cpp:156] Memory required for data: 86302720
I0713 13:22:20.250056 16772 layer_factory.hpp:77] Creating layer conv2/3x3_reduce
I0713 13:22:20.250075 16772 net.cpp:91] Creating Layer conv2/3x3_reduce
I0713 13:22:20.250082 16772 net.cpp:425] conv2/3x3_reduce <- pool1/norm1
I0713 13:22:20.250090 16772 net.cpp:399] conv2/3x3_reduce -> conv2/3x3_reduce
I0713 13:22:20.252825 16772 net.cpp:141] Setting up conv2/3x3_reduce
I0713 13:22:20.252845 16772 net.cpp:148] Top shape: 10 64 56 56 (2007040)
I0713 13:22:20.252851 16772 net.cpp:156] Memory required for data: 94330880
I0713 13:22:20.252863 16772 layer_factory.hpp:77] Creating layer conv2/relu_3x3_reduce
I0713 13:22:20.252877 16772 net.cpp:91] Creating Layer conv2/relu_3x3_reduce
I0713 13:22:20.252884 16772 net.cpp:425] conv2/relu_3x3_reduce <- conv2/3x3_reduce
I0713 13:22:20.252892 16772 net.cpp:386] conv2/relu_3x3_reduce -> conv2/3x3_reduce (in-place)
I0713 13:22:20.253659 16772 net.cpp:141] Setting up conv2/relu_3x3_reduce
I0713 13:22:20.253676 16772 net.cpp:148] Top shape: 10 64 56 56 (2007040)
I0713 13:22:20.253681 16772 net.cpp:156] Memory required for data: 102359040
I0713 13:22:20.253689 16772 layer_factory.hpp:77] Creating layer conv2/3x3
I0713 13:22:20.253710 16772 net.cpp:91] Creating Layer conv2/3x3
I0713 13:22:20.253716 16772 net.cpp:425] conv2/3x3 <- conv2/3x3_reduce
I0713 13:22:20.253726 16772 net.cpp:399] conv2/3x3 -> conv2/3x3
I0713 13:22:20.258577 16772 net.cpp:141] Setting up conv2/3x3
I0713 13:22:20.258599 16772 net.cpp:148] Top shape: 10 192 56 56 (6021120)
I0713 13:22:20.258605 16772 net.cpp:156] Memory required for data: 126443520
I0713 13:22:20.258621 16772 layer_factory.hpp:77] Creating layer conv2/relu_3x3
I0713 13:22:20.258632 16772 net.cpp:91] Creating Layer conv2/relu_3x3
I0713 13:22:20.258638 16772 net.cpp:425] conv2/relu_3x3 <- conv2/3x3
I0713 13:22:20.258646 16772 net.cpp:386] conv2/relu_3x3 -> conv2/3x3 (in-place)
I0713 13:22:20.258936 16772 net.cpp:141] Setting up conv2/relu_3x3
I0713 13:22:20.258950 16772 net.cpp:148] Top shape: 10 192 56 56 (6021120)
I0713 13:22:20.258955 16772 net.cpp:156] Memory required for data: 150528000
I0713 13:22:20.258961 16772 layer_factory.hpp:77] Creating layer conv2/norm2
I0713 13:22:20.258973 16772 net.cpp:91] Creating Layer conv2/norm2
I0713 13:22:20.258980 16772 net.cpp:425] conv2/norm2 <- conv2/3x3
I0713 13:22:20.258987 16772 net.cpp:399] conv2/norm2 -> conv2/norm2
I0713 13:22:20.259804 16772 net.cpp:141] Setting up conv2/norm2
I0713 13:22:20.259819 16772 net.cpp:148] Top shape: 10 192 56 56 (6021120)
I0713 13:22:20.259824 16772 net.cpp:156] Memory required for data: 174612480
I0713 13:22:20.259830 16772 layer_factory.hpp:77] Creating layer pool2/3x3_s2
I0713 13:22:20.259842 16772 net.cpp:91] Creating Layer pool2/3x3_s2
I0713 13:22:20.259848 16772 net.cpp:425] pool2/3x3_s2 <- conv2/norm2
I0713 13:22:20.259855 16772 net.cpp:399] pool2/3x3_s2 -> pool2/3x3_s2
I0713 13:22:20.259917 16772 net.cpp:141] Setting up pool2/3x3_s2
I0713 13:22:20.259927 16772 net.cpp:148] Top shape: 10 192 28 28 (1505280)
I0713 13:22:20.259932 16772 net.cpp:156] Memory required for data: 180633600
I0713 13:22:20.259938 16772 layer_factory.hpp:77] Creating layer pool2/3x3_s2_pool2/3x3_s2_0_split
I0713 13:22:20.259954 16772 net.cpp:91] Creating Layer pool2/3x3_s2_pool2/3x3_s2_0_split
I0713 13:22:20.259959 16772 net.cpp:425] pool2/3x3_s2_pool2/3x3_s2_0_split <- pool2/3x3_s2
I0713 13:22:20.259971 16772 net.cpp:399] pool2/3x3_s2_pool2/3x3_s2_0_split -> pool2/3x3_s2_pool2/3x3_s2_0_split_0
I0713 13:22:20.259984 16772 net.cpp:399] pool2/3x3_s2_pool2/3x3_s2_0_split -> pool2/3x3_s2_pool2/3x3_s2_0_split_1
I0713 13:22:20.259992 16772 net.cpp:399] pool2/3x3_s2_pool2/3x3_s2_0_split -> pool2/3x3_s2_pool2/3x3_s2_0_split_2
I0713 13:22:20.260000 16772 net.cpp:399] pool2/3x3_s2_pool2/3x3_s2_0_split -> pool2/3x3_s2_pool2/3x3_s2_0_split_3
I0713 13:22:20.260090 16772 net.cpp:141] Setting up pool2/3x3_s2_pool2/3x3_s2_0_split
I0713 13:22:20.260100 16772 net.cpp:148] Top shape: 10 192 28 28 (1505280)
I0713 13:22:20.260107 16772 net.cpp:148] Top shape: 10 192 28 28 (1505280)
I0713 13:22:20.260113 16772 net.cpp:148] Top shape: 10 192 28 28 (1505280)
I0713 13:22:20.260118 16772 net.cpp:148] Top shape: 10 192 28 28 (1505280)
I0713 13:22:20.260123 16772 net.cpp:156] Memory required for data: 204718080
I0713 13:22:20.260128 16772 layer_factory.hpp:77] Creating layer inception_3a/1x1
I0713 13:22:20.260143 16772 net.cpp:91] Creating Layer inception_3a/1x1
I0713 13:22:20.260149 16772 net.cpp:425] inception_3a/1x1 <- pool2/3x3_s2_pool2/3x3_s2_0_split_0
I0713 13:22:20.260179 16772 net.cpp:399] inception_3a/1x1 -> inception_3a/1x1
I0713 13:22:20.264178 16772 net.cpp:141] Setting up inception_3a/1x1
I0713 13:22:20.264199 16772 net.cpp:148] Top shape: 10 64 28 28 (501760)
I0713 13:22:20.264205 16772 net.cpp:156] Memory required for data: 206725120
I0713 13:22:20.264217 16772 layer_factory.hpp:77] Creating layer inception_3a/relu_1x1
I0713 13:22:20.264230 16772 net.cpp:91] Creating Layer inception_3a/relu_1x1
I0713 13:22:20.264235 16772 net.cpp:425] inception_3a/relu_1x1 <- inception_3a/1x1
I0713 13:22:20.264246 16772 net.cpp:386] inception_3a/relu_1x1 -> inception_3a/1x1 (in-place)
I0713 13:22:20.264521 16772 net.cpp:141] Setting up inception_3a/relu_1x1
I0713 13:22:20.264534 16772 net.cpp:148] Top shape: 10 64 28 28 (501760)
I0713 13:22:20.264539 16772 net.cpp:156] Memory required for data: 208732160
I0713 13:22:20.264544 16772 layer_factory.hpp:77] Creating layer inception_3a/3x3_reduce
I0713 13:22:20.264561 16772 net.cpp:91] Creating Layer inception_3a/3x3_reduce
I0713 13:22:20.264569 16772 net.cpp:425] inception_3a/3x3_reduce <- pool2/3x3_s2_pool2/3x3_s2_0_split_1
I0713 13:22:20.264581 16772 net.cpp:399] inception_3a/3x3_reduce -> inception_3a/3x3_reduce
I0713 13:22:20.268085 16772 net.cpp:141] Setting up inception_3a/3x3_reduce
I0713 13:22:20.268105 16772 net.cpp:148] Top shape: 10 96 28 28 (752640)
I0713 13:22:20.268111 16772 net.cpp:156] Memory required for data: 211742720
I0713 13:22:20.268126 16772 layer_factory.hpp:77] Creating layer inception_3a/relu_3x3_reduce
I0713 13:22:20.268134 16772 net.cpp:91] Creating Layer inception_3a/relu_3x3_reduce
I0713 13:22:20.268141 16772 net.cpp:425] inception_3a/relu_3x3_reduce <- inception_3a/3x3_reduce
I0713 13:22:20.268152 16772 net.cpp:386] inception_3a/relu_3x3_reduce -> inception_3a/3x3_reduce (in-place)
I0713 13:22:20.268415 16772 net.cpp:141] Setting up inception_3a/relu_3x3_reduce
I0713 13:22:20.268429 16772 net.cpp:148] Top shape: 10 96 28 28 (752640)
I0713 13:22:20.268434 16772 net.cpp:156] Memory required for data: 214753280
I0713 13:22:20.268440 16772 layer_factory.hpp:77] Creating layer inception_3a/3x3
I0713 13:22:20.268460 16772 net.cpp:91] Creating Layer inception_3a/3x3
I0713 13:22:20.268466 16772 net.cpp:425] inception_3a/3x3 <- inception_3a/3x3_reduce
I0713 13:22:20.268479 16772 net.cpp:399] inception_3a/3x3 -> inception_3a/3x3
I0713 13:22:20.274437 16772 net.cpp:141] Setting up inception_3a/3x3
I0713 13:22:20.274461 16772 net.cpp:148] Top shape: 10 128 28 28 (1003520)
I0713 13:22:20.274466 16772 net.cpp:156] Memory required for data: 218767360
I0713 13:22:20.274477 16772 layer_factory.hpp:77] Creating layer inception_3a/relu_3x3
I0713 13:22:20.274490 16772 net.cpp:91] Creating Layer inception_3a/relu_3x3
I0713 13:22:20.274498 16772 net.cpp:425] inception_3a/relu_3x3 <- inception_3a/3x3
I0713 13:22:20.274508 16772 net.cpp:386] inception_3a/relu_3x3 -> inception_3a/3x3 (in-place)
I0713 13:22:20.275380 16772 net.cpp:141] Setting up inception_3a/relu_3x3
I0713 13:22:20.275398 16772 net.cpp:148] Top shape: 10 128 28 28 (1003520)
I0713 13:22:20.275404 16772 net.cpp:156] Memory required for data: 222781440
I0713 13:22:20.275411 16772 layer_factory.hpp:77] Creating layer inception_3a/5x5_reduce
I0713 13:22:20.275436 16772 net.cpp:91] Creating Layer inception_3a/5x5_reduce
I0713 13:22:20.275444 16772 net.cpp:425] inception_3a/5x5_reduce <- pool2/3x3_s2_pool2/3x3_s2_0_split_2
I0713 13:22:20.275454 16772 net.cpp:399] inception_3a/5x5_reduce -> inception_3a/5x5_reduce
I0713 13:22:20.277736 16772 net.cpp:141] Setting up inception_3a/5x5_reduce
I0713 13:22:20.277757 16772 net.cpp:148] Top shape: 10 16 28 28 (125440)
I0713 13:22:20.277763 16772 net.cpp:156] Memory required for data: 223283200
I0713 13:22:20.277773 16772 layer_factory.hpp:77] Creating layer inception_3a/relu_5x5_reduce
I0713 13:22:20.277783 16772 net.cpp:91] Creating Layer inception_3a/relu_5x5_reduce
I0713 13:22:20.277789 16772 net.cpp:425] inception_3a/relu_5x5_reduce <- inception_3a/5x5_reduce
I0713 13:22:20.277797 16772 net.cpp:386] inception_3a/relu_5x5_reduce -> inception_3a/5x5_reduce (in-place)
I0713 13:22:20.278059 16772 net.cpp:141] Setting up inception_3a/relu_5x5_reduce
I0713 13:22:20.278071 16772 net.cpp:148] Top shape: 10 16 28 28 (125440)
I0713 13:22:20.278076 16772 net.cpp:156] Memory required for data: 223784960
I0713 13:22:20.278082 16772 layer_factory.hpp:77] Creating layer inception_3a/5x5
I0713 13:22:20.278100 16772 net.cpp:91] Creating Layer inception_3a/5x5
I0713 13:22:20.278105 16772 net.cpp:425] inception_3a/5x5 <- inception_3a/5x5_reduce
I0713 13:22:20.278120 16772 net.cpp:399] inception_3a/5x5 -> inception_3a/5x5
I0713 13:22:20.281685 16772 net.cpp:141] Setting up inception_3a/5x5
I0713 13:22:20.281707 16772 net.cpp:148] Top shape: 10 32 28 28 (250880)
I0713 13:22:20.281711 16772 net.cpp:156] Memory required for data: 224788480
I0713 13:22:20.281723 16772 layer_factory.hpp:77] Creating layer inception_3a/relu_5x5
I0713 13:22:20.281734 16772 net.cpp:91] Creating Layer inception_3a/relu_5x5
I0713 13:22:20.281740 16772 net.cpp:425] inception_3a/relu_5x5 <- inception_3a/5x5
I0713 13:22:20.281749 16772 net.cpp:386] inception_3a/relu_5x5 -> inception_3a/5x5 (in-place)
I0713 13:22:20.282021 16772 net.cpp:141] Setting up inception_3a/relu_5x5
I0713 13:22:20.282037 16772 net.cpp:148] Top shape: 10 32 28 28 (250880)
I0713 13:22:20.282042 16772 net.cpp:156] Memory required for data: 225792000
I0713 13:22:20.282047 16772 layer_factory.hpp:77] Creating layer inception_3a/pool
I0713 13:22:20.282057 16772 net.cpp:91] Creating Layer inception_3a/pool
I0713 13:22:20.282061 16772 net.cpp:425] inception_3a/pool <- pool2/3x3_s2_pool2/3x3_s2_0_split_3
I0713 13:22:20.282073 16772 net.cpp:399] inception_3a/pool -> inception_3a/pool
I0713 13:22:20.282138 16772 net.cpp:141] Setting up inception_3a/pool
I0713 13:22:20.282151 16772 net.cpp:148] Top shape: 10 192 28 28 (1505280)
I0713 13:22:20.282156 16772 net.cpp:156] Memory required for data: 231813120
I0713 13:22:20.282162 16772 layer_factory.hpp:77] Creating layer inception_3a/pool_proj
I0713 13:22:20.282176 16772 net.cpp:91] Creating Layer inception_3a/pool_proj
I0713 13:22:20.282181 16772 net.cpp:425] inception_3a/pool_proj <- inception_3a/pool
I0713 13:22:20.282193 16772 net.cpp:399] inception_3a/pool_proj -> inception_3a/pool_proj
I0713 13:22:20.284446 16772 net.cpp:141] Setting up inception_3a/pool_proj
I0713 13:22:20.284464 16772 net.cpp:148] Top shape: 10 32 28 28 (250880)
I0713 13:22:20.284471 16772 net.cpp:156] Memory required for data: 232816640
I0713 13:22:20.284487 16772 layer_factory.hpp:77] Creating layer inception_3a/relu_pool_proj
I0713 13:22:20.284502 16772 net.cpp:91] Creating Layer inception_3a/relu_pool_proj
I0713 13:22:20.284508 16772 net.cpp:425] inception_3a/relu_pool_proj <- inception_3a/pool_proj
I0713 13:22:20.284518 16772 net.cpp:386] inception_3a/relu_pool_proj -> inception_3a/pool_proj (in-place)
I0713 13:22:20.285302 16772 net.cpp:141] Setting up inception_3a/relu_pool_proj
I0713 13:22:20.285320 16772 net.cpp:148] Top shape: 10 32 28 28 (250880)
I0713 13:22:20.285326 16772 net.cpp:156] Memory required for data: 233820160
I0713 13:22:20.285331 16772 layer_factory.hpp:77] Creating layer inception_3a/output
I0713 13:22:20.285352 16772 net.cpp:91] Creating Layer inception_3a/output
I0713 13:22:20.285359 16772 net.cpp:425] inception_3a/output <- inception_3a/1x1
I0713 13:22:20.285367 16772 net.cpp:425] inception_3a/output <- inception_3a/3x3
I0713 13:22:20.285374 16772 net.cpp:425] inception_3a/output <- inception_3a/5x5
I0713 13:22:20.285382 16772 net.cpp:425] inception_3a/output <- inception_3a/pool_proj
I0713 13:22:20.285388 16772 net.cpp:399] inception_3a/output -> inception_3a/output
I0713 13:22:20.285436 16772 net.cpp:141] Setting up inception_3a/output
I0713 13:22:20.285446 16772 net.cpp:148] Top shape: 10 256 28 28 (2007040)
I0713 13:22:20.285451 16772 net.cpp:156] Memory required for data: 241848320
I0713 13:22:20.285456 16772 layer_factory.hpp:77] Creating layer inception_3a/output_inception_3a/output_0_split
I0713 13:22:20.285465 16772 net.cpp:91] Creating Layer inception_3a/output_inception_3a/output_0_split
I0713 13:22:20.285470 16772 net.cpp:425] inception_3a/output_inception_3a/output_0_split <- inception_3a/output
I0713 13:22:20.285482 16772 net.cpp:399] inception_3a/output_inception_3a/output_0_split -> inception_3a/output_inception_3a/output_0_split_0
I0713 13:22:20.285492 16772 net.cpp:399] inception_3a/output_inception_3a/output_0_split -> inception_3a/output_inception_3a/output_0_split_1
I0713 13:22:20.285501 16772 net.cpp:399] inception_3a/output_inception_3a/output_0_split -> inception_3a/output_inception_3a/output_0_split_2
I0713 13:22:20.285511 16772 net.cpp:399] inception_3a/output_inception_3a/output_0_split -> inception_3a/output_inception_3a/output_0_split_3
I0713 13:22:20.285604 16772 net.cpp:141] Setting up inception_3a/output_inception_3a/output_0_split
I0713 13:22:20.285616 16772 net.cpp:148] Top shape: 10 256 28 28 (2007040)
I0713 13:22:20.285624 16772 net.cpp:148] Top shape: 10 256 28 28 (2007040)
I0713 13:22:20.285629 16772 net.cpp:148] Top shape: 10 256 28 28 (2007040)
I0713 13:22:20.285634 16772 net.cpp:148] Top shape: 10 256 28 28 (2007040)
I0713 13:22:20.285640 16772 net.cpp:156] Memory required for data: 273960960
I0713 13:22:20.285645 16772 layer_factory.hpp:77] Creating layer inception_3b/1x1
I0713 13:22:20.285658 16772 net.cpp:91] Creating Layer inception_3b/1x1
I0713 13:22:20.285665 16772 net.cpp:425] inception_3b/1x1 <- inception_3a/output_inception_3a/output_0_split_0
I0713 13:22:20.285675 16772 net.cpp:399] inception_3b/1x1 -> inception_3b/1x1
I0713 13:22:20.288149 16772 net.cpp:141] Setting up inception_3b/1x1
I0713 13:22:20.288169 16772 net.cpp:148] Top shape: 10 128 28 28 (1003520)
I0713 13:22:20.288177 16772 net.cpp:156] Memory required for data: 277975040
I0713 13:22:20.288188 16772 layer_factory.hpp:77] Creating layer inception_3b/relu_1x1
I0713 13:22:20.288197 16772 net.cpp:91] Creating Layer inception_3b/relu_1x1
I0713 13:22:20.288203 16772 net.cpp:425] inception_3b/relu_1x1 <- inception_3b/1x1
I0713 13:22:20.288213 16772 net.cpp:386] inception_3b/relu_1x1 -> inception_3b/1x1 (in-place)
I0713 13:22:20.288473 16772 net.cpp:141] Setting up inception_3b/relu_1x1
I0713 13:22:20.288486 16772 net.cpp:148] Top shape: 10 128 28 28 (1003520)
I0713 13:22:20.288491 16772 net.cpp:156] Memory required for data: 281989120
I0713 13:22:20.288496 16772 layer_factory.hpp:77] Creating layer inception_3b/3x3_reduce
I0713 13:22:20.288512 16772 net.cpp:91] Creating Layer inception_3b/3x3_reduce
I0713 13:22:20.288518 16772 net.cpp:425] inception_3b/3x3_reduce <- inception_3a/output_inception_3a/output_0_split_1
I0713 13:22:20.288532 16772 net.cpp:399] inception_3b/3x3_reduce -> inception_3b/3x3_reduce
I0713 13:22:20.291057 16772 net.cpp:141] Setting up inception_3b/3x3_reduce
I0713 13:22:20.291077 16772 net.cpp:148] Top shape: 10 128 28 28 (1003520)
I0713 13:22:20.291082 16772 net.cpp:156] Memory required for data: 286003200
I0713 13:22:20.291092 16772 layer_factory.hpp:77] Creating layer inception_3b/relu_3x3_reduce
I0713 13:22:20.291105 16772 net.cpp:91] Creating Layer inception_3b/relu_3x3_reduce
I0713 13:22:20.291111 16772 net.cpp:425] inception_3b/relu_3x3_reduce <- inception_3b/3x3_reduce
I0713 13:22:20.291121 16772 net.cpp:386] inception_3b/relu_3x3_reduce -> inception_3b/3x3_reduce (in-place)
I0713 13:22:20.291379 16772 net.cpp:141] Setting up inception_3b/relu_3x3_reduce
I0713 13:22:20.291393 16772 net.cpp:148] Top shape: 10 128 28 28 (1003520)
I0713 13:22:20.291398 16772 net.cpp:156] Memory required for data: 290017280
I0713 13:22:20.291404 16772 layer_factory.hpp:77] Creating layer inception_3b/3x3
I0713 13:22:20.291419 16772 net.cpp:91] Creating Layer inception_3b/3x3
I0713 13:22:20.291425 16772 net.cpp:425] inception_3b/3x3 <- inception_3b/3x3_reduce
I0713 13:22:20.291435 16772 net.cpp:399] inception_3b/3x3 -> inception_3b/3x3
I0713 13:22:20.296614 16772 net.cpp:141] Setting up inception_3b/3x3
I0713 13:22:20.296634 16772 net.cpp:148] Top shape: 10 192 28 28 (1505280)
I0713 13:22:20.296640 16772 net.cpp:156] Memory required for data: 296038400
I0713 13:22:20.296650 16772 layer_factory.hpp:77] Creating layer inception_3b/relu_3x3
I0713 13:22:20.296670 16772 net.cpp:91] Creating Layer inception_3b/relu_3x3
I0713 13:22:20.296679 16772 net.cpp:425] inception_3b/relu_3x3 <- inception_3b/3x3
I0713 13:22:20.296700 16772 net.cpp:386] inception_3b/relu_3x3 -> inception_3b/3x3 (in-place)
I0713 13:22:20.297482 16772 net.cpp:141] Setting up inception_3b/relu_3x3
I0713 13:22:20.297502 16772 net.cpp:148] Top shape: 10 192 28 28 (1505280)
I0713 13:22:20.297508 16772 net.cpp:156] Memory required for data: 302059520
I0713 13:22:20.297514 16772 layer_factory.hpp:77] Creating layer inception_3b/5x5_reduce
I0713 13:22:20.297530 16772 net.cpp:91] Creating Layer inception_3b/5x5_reduce
I0713 13:22:20.297538 16772 net.cpp:425] inception_3b/5x5_reduce <- inception_3a/output_inception_3a/output_0_split_2
I0713 13:22:20.297547 16772 net.cpp:399] inception_3b/5x5_reduce -> inception_3b/5x5_reduce
I0713 13:22:20.299860 16772 net.cpp:141] Setting up inception_3b/5x5_reduce
I0713 13:22:20.299882 16772 net.cpp:148] Top shape: 10 32 28 28 (250880)
I0713 13:22:20.299888 16772 net.cpp:156] Memory required for data: 303063040
I0713 13:22:20.299898 16772 layer_factory.hpp:77] Creating layer inception_3b/relu_5x5_reduce
I0713 13:22:20.299908 16772 net.cpp:91] Creating Layer inception_3b/relu_5x5_reduce
I0713 13:22:20.299914 16772 net.cpp:425] inception_3b/relu_5x5_reduce <- inception_3b/5x5_reduce
I0713 13:22:20.299924 16772 net.cpp:386] inception_3b/relu_5x5_reduce -> inception_3b/5x5_reduce (in-place)
I0713 13:22:20.300186 16772 net.cpp:141] Setting up inception_3b/relu_5x5_reduce
I0713 13:22:20.300199 16772 net.cpp:148] Top shape: 10 32 28 28 (250880)
I0713 13:22:20.300204 16772 net.cpp:156] Memory required for data: 304066560
I0713 13:22:20.300209 16772 layer_factory.hpp:77] Creating layer inception_3b/5x5
I0713 13:22:20.300225 16772 net.cpp:91] Creating Layer inception_3b/5x5
I0713 13:22:20.300232 16772 net.cpp:425] inception_3b/5x5 <- inception_3b/5x5_reduce
I0713 13:22:20.300246 16772 net.cpp:399] inception_3b/5x5 -> inception_3b/5x5
I0713 13:22:20.304244 16772 net.cpp:141] Setting up inception_3b/5x5
I0713 13:22:20.304265 16772 net.cpp:148] Top shape: 10 96 28 28 (752640)
I0713 13:22:20.304270 16772 net.cpp:156] Memory required for data: 307077120
I0713 13:22:20.304280 16772 layer_factory.hpp:77] Creating layer inception_3b/relu_5x5
I0713 13:22:20.304293 16772 net.cpp:91] Creating Layer inception_3b/relu_5x5
I0713 13:22:20.304301 16772 net.cpp:425] inception_3b/relu_5x5 <- inception_3b/5x5
I0713 13:22:20.304308 16772 net.cpp:386] inception_3b/relu_5x5 -> inception_3b/5x5 (in-place)
I0713 13:22:20.304572 16772 net.cpp:141] Setting up inception_3b/relu_5x5
I0713 13:22:20.304585 16772 net.cpp:148] Top shape: 10 96 28 28 (752640)
I0713 13:22:20.304590 16772 net.cpp:156] Memory required for data: 310087680
I0713 13:22:20.304596 16772 layer_factory.hpp:77] Creating layer inception_3b/pool
I0713 13:22:20.304605 16772 net.cpp:91] Creating Layer inception_3b/pool
I0713 13:22:20.304610 16772 net.cpp:425] inception_3b/pool <- inception_3a/output_inception_3a/output_0_split_3
I0713 13:22:20.304623 16772 net.cpp:399] inception_3b/pool -> inception_3b/pool
I0713 13:22:20.304687 16772 net.cpp:141] Setting up inception_3b/pool
I0713 13:22:20.304698 16772 net.cpp:148] Top shape: 10 256 28 28 (2007040)
I0713 13:22:20.304703 16772 net.cpp:156] Memory required for data: 318115840
I0713 13:22:20.304708 16772 layer_factory.hpp:77] Creating layer inception_3b/pool_proj
I0713 13:22:20.304728 16772 net.cpp:91] Creating Layer inception_3b/pool_proj
I0713 13:22:20.304734 16772 net.cpp:425] inception_3b/pool_proj <- inception_3b/pool
I0713 13:22:20.304744 16772 net.cpp:399] inception_3b/pool_proj -> inception_3b/pool_proj
I0713 13:22:20.307132 16772 net.cpp:141] Setting up inception_3b/pool_proj
I0713 13:22:20.307152 16772 net.cpp:148] Top shape: 10 64 28 28 (501760)
I0713 13:22:20.307157 16772 net.cpp:156] Memory required for data: 320122880
I0713 13:22:20.307166 16772 layer_factory.hpp:77] Creating layer inception_3b/relu_pool_proj
I0713 13:22:20.307175 16772 net.cpp:91] Creating Layer inception_3b/relu_pool_proj
I0713 13:22:20.307185 16772 net.cpp:425] inception_3b/relu_pool_proj <- inception_3b/pool_proj
I0713 13:22:20.307195 16772 net.cpp:386] inception_3b/relu_pool_proj -> inception_3b/pool_proj (in-place)
I0713 13:22:20.307979 16772 net.cpp:141] Setting up inception_3b/relu_pool_proj
I0713 13:22:20.307996 16772 net.cpp:148] Top shape: 10 64 28 28 (501760)
I0713 13:22:20.308001 16772 net.cpp:156] Memory required for data: 322129920
I0713 13:22:20.308007 16772 layer_factory.hpp:77] Creating layer inception_3b/output
I0713 13:22:20.308019 16772 net.cpp:91] Creating Layer inception_3b/output
I0713 13:22:20.308025 16772 net.cpp:425] inception_3b/output <- inception_3b/1x1
I0713 13:22:20.308033 16772 net.cpp:425] inception_3b/output <- inception_3b/3x3
I0713 13:22:20.308039 16772 net.cpp:425] inception_3b/output <- inception_3b/5x5
I0713 13:22:20.308045 16772 net.cpp:425] inception_3b/output <- inception_3b/pool_proj
I0713 13:22:20.308053 16772 net.cpp:399] inception_3b/output -> inception_3b/output
I0713 13:22:20.308094 16772 net.cpp:141] Setting up inception_3b/output
I0713 13:22:20.308106 16772 net.cpp:148] Top shape: 10 480 28 28 (3763200)
I0713 13:22:20.308111 16772 net.cpp:156] Memory required for data: 337182720
I0713 13:22:20.308117 16772 layer_factory.hpp:77] Creating layer pool3/3x3_s2
I0713 13:22:20.308128 16772 net.cpp:91] Creating Layer pool3/3x3_s2
I0713 13:22:20.308135 16772 net.cpp:425] pool3/3x3_s2 <- inception_3b/output
I0713 13:22:20.308145 16772 net.cpp:399] pool3/3x3_s2 -> pool3/3x3_s2
I0713 13:22:20.308209 16772 net.cpp:141] Setting up pool3/3x3_s2
I0713 13:22:20.308220 16772 net.cpp:148] Top shape: 10 480 14 14 (940800)
I0713 13:22:20.308225 16772 net.cpp:156] Memory required for data: 340945920
I0713 13:22:20.308230 16772 layer_factory.hpp:77] Creating layer pool3/3x3_s2_pool3/3x3_s2_0_split
I0713 13:22:20.308238 16772 net.cpp:91] Creating Layer pool3/3x3_s2_pool3/3x3_s2_0_split
I0713 13:22:20.308244 16772 net.cpp:425] pool3/3x3_s2_pool3/3x3_s2_0_split <- pool3/3x3_s2
I0713 13:22:20.308255 16772 net.cpp:399] pool3/3x3_s2_pool3/3x3_s2_0_split -> pool3/3x3_s2_pool3/3x3_s2_0_split_0
I0713 13:22:20.308264 16772 net.cpp:399] pool3/3x3_s2_pool3/3x3_s2_0_split -> pool3/3x3_s2_pool3/3x3_s2_0_split_1
I0713 13:22:20.308274 16772 net.cpp:399] pool3/3x3_s2_pool3/3x3_s2_0_split -> pool3/3x3_s2_pool3/3x3_s2_0_split_2
I0713 13:22:20.308282 16772 net.cpp:399] pool3/3x3_s2_pool3/3x3_s2_0_split -> pool3/3x3_s2_pool3/3x3_s2_0_split_3
I0713 13:22:20.308372 16772 net.cpp:141] Setting up pool3/3x3_s2_pool3/3x3_s2_0_split
I0713 13:22:20.308382 16772 net.cpp:148] Top shape: 10 480 14 14 (940800)
I0713 13:22:20.308387 16772 net.cpp:148] Top shape: 10 480 14 14 (940800)
I0713 13:22:20.308393 16772 net.cpp:148] Top shape: 10 480 14 14 (940800)
I0713 13:22:20.308398 16772 net.cpp:148] Top shape: 10 480 14 14 (940800)
I0713 13:22:20.308403 16772 net.cpp:156] Memory required for data: 355998720
I0713 13:22:20.308408 16772 layer_factory.hpp:77] Creating layer inception_4a/1x1
I0713 13:22:20.308425 16772 net.cpp:91] Creating Layer inception_4a/1x1
I0713 13:22:20.308432 16772 net.cpp:425] inception_4a/1x1 <- pool3/3x3_s2_pool3/3x3_s2_0_split_0
I0713 13:22:20.308442 16772 net.cpp:399] inception_4a/1x1 -> inception_4a/1x1
I0713 13:22:20.312091 16772 net.cpp:141] Setting up inception_4a/1x1
I0713 13:22:20.312111 16772 net.cpp:148] Top shape: 10 192 14 14 (376320)
I0713 13:22:20.312117 16772 net.cpp:156] Memory required for data: 357504000
I0713 13:22:20.312126 16772 layer_factory.hpp:77] Creating layer inception_4a/relu_1x1
I0713 13:22:20.312136 16772 net.cpp:91] Creating Layer inception_4a/relu_1x1
I0713 13:22:20.312144 16772 net.cpp:425] inception_4a/relu_1x1 <- inception_4a/1x1
I0713 13:22:20.312155 16772 net.cpp:386] inception_4a/relu_1x1 -> inception_4a/1x1 (in-place)
I0713 13:22:20.312417 16772 net.cpp:141] Setting up inception_4a/relu_1x1
I0713 13:22:20.312433 16772 net.cpp:148] Top shape: 10 192 14 14 (376320)
I0713 13:22:20.312438 16772 net.cpp:156] Memory required for data: 359009280
I0713 13:22:20.312443 16772 layer_factory.hpp:77] Creating layer inception_4a/3x3_reduce
I0713 13:22:20.312459 16772 net.cpp:91] Creating Layer inception_4a/3x3_reduce
I0713 13:22:20.312466 16772 net.cpp:425] inception_4a/3x3_reduce <- pool3/3x3_s2_pool3/3x3_s2_0_split_1
I0713 13:22:20.312476 16772 net.cpp:399] inception_4a/3x3_reduce -> inception_4a/3x3_reduce
I0713 13:22:20.315171 16772 net.cpp:141] Setting up inception_4a/3x3_reduce
I0713 13:22:20.315189 16772 net.cpp:148] Top shape: 10 96 14 14 (188160)
I0713 13:22:20.315196 16772 net.cpp:156] Memory required for data: 359761920
I0713 13:22:20.315215 16772 layer_factory.hpp:77] Creating layer inception_4a/relu_3x3_reduce
I0713 13:22:20.315227 16772 net.cpp:91] Creating Layer inception_4a/relu_3x3_reduce
I0713 13:22:20.315233 16772 net.cpp:425] inception_4a/relu_3x3_reduce <- inception_4a/3x3_reduce
I0713 13:22:20.315244 16772 net.cpp:386] inception_4a/relu_3x3_reduce -> inception_4a/3x3_reduce (in-place)
I0713 13:22:20.315500 16772 net.cpp:141] Setting up inception_4a/relu_3x3_reduce
I0713 13:22:20.315513 16772 net.cpp:148] Top shape: 10 96 14 14 (188160)
I0713 13:22:20.315518 16772 net.cpp:156] Memory required for data: 360514560
I0713 13:22:20.315523 16772 layer_factory.hpp:77] Creating layer inception_4a/3x3
I0713 13:22:20.315543 16772 net.cpp:91] Creating Layer inception_4a/3x3
I0713 13:22:20.315551 16772 net.cpp:425] inception_4a/3x3 <- inception_4a/3x3_reduce
I0713 13:22:20.315560 16772 net.cpp:399] inception_4a/3x3 -> inception_4a/3x3
I0713 13:22:20.320447 16772 net.cpp:141] Setting up inception_4a/3x3
I0713 13:22:20.320467 16772 net.cpp:148] Top shape: 10 208 14 14 (407680)
I0713 13:22:20.320473 16772 net.cpp:156] Memory required for data: 362145280
I0713 13:22:20.320483 16772 layer_factory.hpp:77] Creating layer inception_4a/relu_3x3
I0713 13:22:20.320497 16772 net.cpp:91] Creating Layer inception_4a/relu_3x3
I0713 13:22:20.320504 16772 net.cpp:425] inception_4a/relu_3x3 <- inception_4a/3x3
I0713 13:22:20.320513 16772 net.cpp:386] inception_4a/relu_3x3 -> inception_4a/3x3 (in-place)
I0713 13:22:20.321297 16772 net.cpp:141] Setting up inception_4a/relu_3x3
I0713 13:22:20.321316 16772 net.cpp:148] Top shape: 10 208 14 14 (407680)
I0713 13:22:20.321321 16772 net.cpp:156] Memory required for data: 363776000
I0713 13:22:20.321326 16772 layer_factory.hpp:77] Creating layer inception_4a/5x5_reduce
I0713 13:22:20.321346 16772 net.cpp:91] Creating Layer inception_4a/5x5_reduce
I0713 13:22:20.321353 16772 net.cpp:425] inception_4a/5x5_reduce <- pool3/3x3_s2_pool3/3x3_s2_0_split_2
I0713 13:22:20.321363 16772 net.cpp:399] inception_4a/5x5_reduce -> inception_4a/5x5_reduce
I0713 13:22:20.323719 16772 net.cpp:141] Setting up inception_4a/5x5_reduce
I0713 13:22:20.323737 16772 net.cpp:148] Top shape: 10 16 14 14 (31360)
I0713 13:22:20.323743 16772 net.cpp:156] Memory required for data: 363901440
I0713 13:22:20.323753 16772 layer_factory.hpp:77] Creating layer inception_4a/relu_5x5_reduce
I0713 13:22:20.323765 16772 net.cpp:91] Creating Layer inception_4a/relu_5x5_reduce
I0713 13:22:20.323771 16772 net.cpp:425] inception_4a/relu_5x5_reduce <- inception_4a/5x5_reduce
I0713 13:22:20.323781 16772 net.cpp:386] inception_4a/relu_5x5_reduce -> inception_4a/5x5_reduce (in-place)
I0713 13:22:20.324041 16772 net.cpp:141] Setting up inception_4a/relu_5x5_reduce
I0713 13:22:20.324057 16772 net.cpp:148] Top shape: 10 16 14 14 (31360)
I0713 13:22:20.324064 16772 net.cpp:156] Memory required for data: 364026880
I0713 13:22:20.324069 16772 layer_factory.hpp:77] Creating layer inception_4a/5x5
I0713 13:22:20.324084 16772 net.cpp:91] Creating Layer inception_4a/5x5
I0713 13:22:20.324091 16772 net.cpp:425] inception_4a/5x5 <- inception_4a/5x5_reduce
I0713 13:22:20.324100 16772 net.cpp:399] inception_4a/5x5 -> inception_4a/5x5
I0713 13:22:20.326531 16772 net.cpp:141] Setting up inception_4a/5x5
I0713 13:22:20.326550 16772 net.cpp:148] Top shape: 10 48 14 14 (94080)
I0713 13:22:20.326555 16772 net.cpp:156] Memory required for data: 364403200
I0713 13:22:20.326565 16772 layer_factory.hpp:77] Creating layer inception_4a/relu_5x5
I0713 13:22:20.326580 16772 net.cpp:91] Creating Layer inception_4a/relu_5x5
I0713 13:22:20.326586 16772 net.cpp:425] inception_4a/relu_5x5 <- inception_4a/5x5
I0713 13:22:20.326594 16772 net.cpp:386] inception_4a/relu_5x5 -> inception_4a/5x5 (in-place)
I0713 13:22:20.326874 16772 net.cpp:141] Setting up inception_4a/relu_5x5
I0713 13:22:20.326887 16772 net.cpp:148] Top shape: 10 48 14 14 (94080)
I0713 13:22:20.326894 16772 net.cpp:156] Memory required for data: 364779520
I0713 13:22:20.326899 16772 layer_factory.hpp:77] Creating layer inception_4a/pool
I0713 13:22:20.326907 16772 net.cpp:91] Creating Layer inception_4a/pool
I0713 13:22:20.326913 16772 net.cpp:425] inception_4a/pool <- pool3/3x3_s2_pool3/3x3_s2_0_split_3
I0713 13:22:20.326925 16772 net.cpp:399] inception_4a/pool -> inception_4a/pool
I0713 13:22:20.326997 16772 net.cpp:141] Setting up inception_4a/pool
I0713 13:22:20.327008 16772 net.cpp:148] Top shape: 10 480 14 14 (940800)
I0713 13:22:20.327013 16772 net.cpp:156] Memory required for data: 368542720
I0713 13:22:20.327018 16772 layer_factory.hpp:77] Creating layer inception_4a/pool_proj
I0713 13:22:20.327033 16772 net.cpp:91] Creating Layer inception_4a/pool_proj
I0713 13:22:20.327039 16772 net.cpp:425] inception_4a/pool_proj <- inception_4a/pool
I0713 13:22:20.327049 16772 net.cpp:399] inception_4a/pool_proj -> inception_4a/pool_proj
I0713 13:22:20.329577 16772 net.cpp:141] Setting up inception_4a/pool_proj
I0713 13:22:20.329596 16772 net.cpp:148] Top shape: 10 64 14 14 (125440)
I0713 13:22:20.329602 16772 net.cpp:156] Memory required for data: 369044480
I0713 13:22:20.329612 16772 layer_factory.hpp:77] Creating layer inception_4a/relu_pool_proj
I0713 13:22:20.329622 16772 net.cpp:91] Creating Layer inception_4a/relu_pool_proj
I0713 13:22:20.329627 16772 net.cpp:425] inception_4a/relu_pool_proj <- inception_4a/pool_proj
I0713 13:22:20.329635 16772 net.cpp:386] inception_4a/relu_pool_proj -> inception_4a/pool_proj (in-place)
I0713 13:22:20.330433 16772 net.cpp:141] Setting up inception_4a/relu_pool_proj
I0713 13:22:20.330448 16772 net.cpp:148] Top shape: 10 64 14 14 (125440)
I0713 13:22:20.330453 16772 net.cpp:156] Memory required for data: 369546240
I0713 13:22:20.330459 16772 layer_factory.hpp:77] Creating layer inception_4a/output
I0713 13:22:20.330468 16772 net.cpp:91] Creating Layer inception_4a/output
I0713 13:22:20.330474 16772 net.cpp:425] inception_4a/output <- inception_4a/1x1
I0713 13:22:20.330482 16772 net.cpp:425] inception_4a/output <- inception_4a/3x3
I0713 13:22:20.330487 16772 net.cpp:425] inception_4a/output <- inception_4a/5x5
I0713 13:22:20.330495 16772 net.cpp:425] inception_4a/output <- inception_4a/pool_proj
I0713 13:22:20.330507 16772 net.cpp:399] inception_4a/output -> inception_4a/output
I0713 13:22:20.330551 16772 net.cpp:141] Setting up inception_4a/output
I0713 13:22:20.330565 16772 net.cpp:148] Top shape: 10 512 14 14 (1003520)
I0713 13:22:20.330570 16772 net.cpp:156] Memory required for data: 373560320
I0713 13:22:20.330575 16772 layer_factory.hpp:77] Creating layer inception_4a/output_inception_4a/output_0_split
I0713 13:22:20.330585 16772 net.cpp:91] Creating Layer inception_4a/output_inception_4a/output_0_split
I0713 13:22:20.330590 16772 net.cpp:425] inception_4a/output_inception_4a/output_0_split <- inception_4a/output
I0713 13:22:20.330597 16772 net.cpp:399] inception_4a/output_inception_4a/output_0_split -> inception_4a/output_inception_4a/output_0_split_0
I0713 13:22:20.330607 16772 net.cpp:399] inception_4a/output_inception_4a/output_0_split -> inception_4a/output_inception_4a/output_0_split_1
I0713 13:22:20.330616 16772 net.cpp:399] inception_4a/output_inception_4a/output_0_split -> inception_4a/output_inception_4a/output_0_split_2
I0713 13:22:20.330629 16772 net.cpp:399] inception_4a/output_inception_4a/output_0_split -> inception_4a/output_inception_4a/output_0_split_3
I0713 13:22:20.330747 16772 net.cpp:141] Setting up inception_4a/output_inception_4a/output_0_split
I0713 13:22:20.330759 16772 net.cpp:148] Top shape: 10 512 14 14 (1003520)
I0713 13:22:20.330765 16772 net.cpp:148] Top shape: 10 512 14 14 (1003520)
I0713 13:22:20.330770 16772 net.cpp:148] Top shape: 10 512 14 14 (1003520)
I0713 13:22:20.330776 16772 net.cpp:148] Top shape: 10 512 14 14 (1003520)
I0713 13:22:20.330781 16772 net.cpp:156] Memory required for data: 389616640
I0713 13:22:20.330786 16772 layer_factory.hpp:77] Creating layer inception_4b/1x1
I0713 13:22:20.330802 16772 net.cpp:91] Creating Layer inception_4b/1x1
I0713 13:22:20.330808 16772 net.cpp:425] inception_4b/1x1 <- inception_4a/output_inception_4a/output_0_split_0
I0713 13:22:20.330821 16772 net.cpp:399] inception_4b/1x1 -> inception_4b/1x1
I0713 13:22:20.333783 16772 net.cpp:141] Setting up inception_4b/1x1
I0713 13:22:20.333802 16772 net.cpp:148] Top shape: 10 160 14 14 (313600)
I0713 13:22:20.333807 16772 net.cpp:156] Memory required for data: 390871040
I0713 13:22:20.333817 16772 layer_factory.hpp:77] Creating layer inception_4b/relu_1x1
I0713 13:22:20.333829 16772 net.cpp:91] Creating Layer inception_4b/relu_1x1
I0713 13:22:20.333837 16772 net.cpp:425] inception_4b/relu_1x1 <- inception_4b/1x1
I0713 13:22:20.333844 16772 net.cpp:386] inception_4b/relu_1x1 -> inception_4b/1x1 (in-place)
I0713 13:22:20.334110 16772 net.cpp:141] Setting up inception_4b/relu_1x1
I0713 13:22:20.334121 16772 net.cpp:148] Top shape: 10 160 14 14 (313600)
I0713 13:22:20.334126 16772 net.cpp:156] Memory required for data: 392125440
I0713 13:22:20.334132 16772 layer_factory.hpp:77] Creating layer inception_4b/3x3_reduce
I0713 13:22:20.334151 16772 net.cpp:91] Creating Layer inception_4b/3x3_reduce
I0713 13:22:20.334157 16772 net.cpp:425] inception_4b/3x3_reduce <- inception_4a/output_inception_4a/output_0_split_1
I0713 13:22:20.334168 16772 net.cpp:399] inception_4b/3x3_reduce -> inception_4b/3x3_reduce
I0713 13:22:20.336941 16772 net.cpp:141] Setting up inception_4b/3x3_reduce
I0713 13:22:20.336964 16772 net.cpp:148] Top shape: 10 112 14 14 (219520)
I0713 13:22:20.336971 16772 net.cpp:156] Memory required for data: 393003520
I0713 13:22:20.336980 16772 layer_factory.hpp:77] Creating layer inception_4b/relu_3x3_reduce
I0713 13:22:20.336989 16772 net.cpp:91] Creating Layer inception_4b/relu_3x3_reduce
I0713 13:22:20.336997 16772 net.cpp:425] inception_4b/relu_3x3_reduce <- inception_4b/3x3_reduce
I0713 13:22:20.337007 16772 net.cpp:386] inception_4b/relu_3x3_reduce -> inception_4b/3x3_reduce (in-place)
I0713 13:22:20.337268 16772 net.cpp:141] Setting up inception_4b/relu_3x3_reduce
I0713 13:22:20.337281 16772 net.cpp:148] Top shape: 10 112 14 14 (219520)
I0713 13:22:20.337286 16772 net.cpp:156] Memory required for data: 393881600
I0713 13:22:20.337292 16772 layer_factory.hpp:77] Creating layer inception_4b/3x3
I0713 13:22:20.337311 16772 net.cpp:91] Creating Layer inception_4b/3x3
I0713 13:22:20.337317 16772 net.cpp:425] inception_4b/3x3 <- inception_4b/3x3_reduce
I0713 13:22:20.337327 16772 net.cpp:399] inception_4b/3x3 -> inception_4b/3x3
I0713 13:22:20.343209 16772 net.cpp:141] Setting up inception_4b/3x3
I0713 13:22:20.343230 16772 net.cpp:148] Top shape: 10 224 14 14 (439040)
I0713 13:22:20.343235 16772 net.cpp:156] Memory required for data: 395637760
I0713 13:22:20.343245 16772 layer_factory.hpp:77] Creating layer inception_4b/relu_3x3
I0713 13:22:20.343260 16772 net.cpp:91] Creating Layer inception_4b/relu_3x3
I0713 13:22:20.343266 16772 net.cpp:425] inception_4b/relu_3x3 <- inception_4b/3x3
I0713 13:22:20.343274 16772 net.cpp:386] inception_4b/relu_3x3 -> inception_4b/3x3 (in-place)
I0713 13:22:20.344074 16772 net.cpp:141] Setting up inception_4b/relu_3x3
I0713 13:22:20.344092 16772 net.cpp:148] Top shape: 10 224 14 14 (439040)
I0713 13:22:20.344099 16772 net.cpp:156] Memory required for data: 397393920
I0713 13:22:20.344104 16772 layer_factory.hpp:77] Creating layer inception_4b/5x5_reduce
I0713 13:22:20.344130 16772 net.cpp:91] Creating Layer inception_4b/5x5_reduce
I0713 13:22:20.344136 16772 net.cpp:425] inception_4b/5x5_reduce <- inception_4a/output_inception_4a/output_0_split_2
I0713 13:22:20.344151 16772 net.cpp:399] inception_4b/5x5_reduce -> inception_4b/5x5_reduce
I0713 13:22:20.346586 16772 net.cpp:141] Setting up inception_4b/5x5_reduce
I0713 13:22:20.346606 16772 net.cpp:148] Top shape: 10 24 14 14 (47040)
I0713 13:22:20.346611 16772 net.cpp:156] Memory required for data: 397582080
I0713 13:22:20.346622 16772 layer_factory.hpp:77] Creating layer inception_4b/relu_5x5_reduce
I0713 13:22:20.346633 16772 net.cpp:91] Creating Layer inception_4b/relu_5x5_reduce
I0713 13:22:20.346642 16772 net.cpp:425] inception_4b/relu_5x5_reduce <- inception_4b/5x5_reduce
I0713 13:22:20.346654 16772 net.cpp:386] inception_4b/relu_5x5_reduce -> inception_4b/5x5_reduce (in-place)
I0713 13:22:20.346940 16772 net.cpp:141] Setting up inception_4b/relu_5x5_reduce
I0713 13:22:20.346953 16772 net.cpp:148] Top shape: 10 24 14 14 (47040)
I0713 13:22:20.346961 16772 net.cpp:156] Memory required for data: 397770240
I0713 13:22:20.346967 16772 layer_factory.hpp:77] Creating layer inception_4b/5x5
I0713 13:22:20.346982 16772 net.cpp:91] Creating Layer inception_4b/5x5
I0713 13:22:20.346987 16772 net.cpp:425] inception_4b/5x5 <- inception_4b/5x5_reduce
I0713 13:22:20.347002 16772 net.cpp:399] inception_4b/5x5 -> inception_4b/5x5
I0713 13:22:20.351853 16772 net.cpp:141] Setting up inception_4b/5x5
I0713 13:22:20.351900 16772 net.cpp:148] Top shape: 10 64 14 14 (125440)
I0713 13:22:20.351907 16772 net.cpp:156] Memory required for data: 398272000
I0713 13:22:20.351924 16772 layer_factory.hpp:77] Creating layer inception_4b/relu_5x5
I0713 13:22:20.351948 16772 net.cpp:91] Creating Layer inception_4b/relu_5x5
I0713 13:22:20.351956 16772 net.cpp:425] inception_4b/relu_5x5 <- inception_4b/5x5
I0713 13:22:20.351969 16772 net.cpp:386] inception_4b/relu_5x5 -> inception_4b/5x5 (in-place)
I0713 13:22:20.352252 16772 net.cpp:141] Setting up inception_4b/relu_5x5
I0713 13:22:20.352264 16772 net.cpp:148] Top shape: 10 64 14 14 (125440)
I0713 13:22:20.352268 16772 net.cpp:156] Memory required for data: 398773760
I0713 13:22:20.352274 16772 layer_factory.hpp:77] Creating layer inception_4b/pool
I0713 13:22:20.352286 16772 net.cpp:91] Creating Layer inception_4b/pool
I0713 13:22:20.352293 16772 net.cpp:425] inception_4b/pool <- inception_4a/output_inception_4a/output_0_split_3
I0713 13:22:20.352305 16772 net.cpp:399] inception_4b/pool -> inception_4b/pool
I0713 13:22:20.352401 16772 net.cpp:141] Setting up inception_4b/pool
I0713 13:22:20.352412 16772 net.cpp:148] Top shape: 10 512 14 14 (1003520)
I0713 13:22:20.352416 16772 net.cpp:156] Memory required for data: 402787840
I0713 13:22:20.352421 16772 layer_factory.hpp:77] Creating layer inception_4b/pool_proj
I0713 13:22:20.352444 16772 net.cpp:91] Creating Layer inception_4b/pool_proj
I0713 13:22:20.352450 16772 net.cpp:425] inception_4b/pool_proj <- inception_4b/pool
I0713 13:22:20.352460 16772 net.cpp:399] inception_4b/pool_proj -> inception_4b/pool_proj
I0713 13:22:20.355291 16772 net.cpp:141] Setting up inception_4b/pool_proj
I0713 13:22:20.355317 16772 net.cpp:148] Top shape: 10 64 14 14 (125440)
I0713 13:22:20.355324 16772 net.cpp:156] Memory required for data: 403289600
I0713 13:22:20.355334 16772 layer_factory.hpp:77] Creating layer inception_4b/relu_pool_proj
I0713 13:22:20.355345 16772 net.cpp:91] Creating Layer inception_4b/relu_pool_proj
I0713 13:22:20.355351 16772 net.cpp:425] inception_4b/relu_pool_proj <- inception_4b/pool_proj
I0713 13:22:20.355360 16772 net.cpp:386] inception_4b/relu_pool_proj -> inception_4b/pool_proj (in-place)
I0713 13:22:20.356186 16772 net.cpp:141] Setting up inception_4b/relu_pool_proj
I0713 13:22:20.356207 16772 net.cpp:148] Top shape: 10 64 14 14 (125440)
I0713 13:22:20.356212 16772 net.cpp:156] Memory required for data: 403791360
I0713 13:22:20.356218 16772 layer_factory.hpp:77] Creating layer inception_4b/output
I0713 13:22:20.356230 16772 net.cpp:91] Creating Layer inception_4b/output
I0713 13:22:20.356236 16772 net.cpp:425] inception_4b/output <- inception_4b/1x1
I0713 13:22:20.356243 16772 net.cpp:425] inception_4b/output <- inception_4b/3x3
I0713 13:22:20.356250 16772 net.cpp:425] inception_4b/output <- inception_4b/5x5
I0713 13:22:20.356256 16772 net.cpp:425] inception_4b/output <- inception_4b/pool_proj
I0713 13:22:20.356263 16772 net.cpp:399] inception_4b/output -> inception_4b/output
I0713 13:22:20.356318 16772 net.cpp:141] Setting up inception_4b/output
I0713 13:22:20.356329 16772 net.cpp:148] Top shape: 10 512 14 14 (1003520)
I0713 13:22:20.356334 16772 net.cpp:156] Memory required for data: 407805440
I0713 13:22:20.356339 16772 layer_factory.hpp:77] Creating layer inception_4b/output_inception_4b/output_0_split
I0713 13:22:20.356351 16772 net.cpp:91] Creating Layer inception_4b/output_inception_4b/output_0_split
I0713 13:22:20.356358 16772 net.cpp:425] inception_4b/output_inception_4b/output_0_split <- inception_4b/output
I0713 13:22:20.356365 16772 net.cpp:399] inception_4b/output_inception_4b/output_0_split -> inception_4b/output_inception_4b/output_0_split_0
I0713 13:22:20.356375 16772 net.cpp:399] inception_4b/output_inception_4b/output_0_split -> inception_4b/output_inception_4b/output_0_split_1
I0713 13:22:20.356384 16772 net.cpp:399] inception_4b/output_inception_4b/output_0_split -> inception_4b/output_inception_4b/output_0_split_2
I0713 13:22:20.356394 16772 net.cpp:399] inception_4b/output_inception_4b/output_0_split -> inception_4b/output_inception_4b/output_0_split_3
I0713 13:22:20.356500 16772 net.cpp:141] Setting up inception_4b/output_inception_4b/output_0_split
I0713 13:22:20.356510 16772 net.cpp:148] Top shape: 10 512 14 14 (1003520)
I0713 13:22:20.356516 16772 net.cpp:148] Top shape: 10 512 14 14 (1003520)
I0713 13:22:20.356523 16772 net.cpp:148] Top shape: 10 512 14 14 (1003520)
I0713 13:22:20.356528 16772 net.cpp:148] Top shape: 10 512 14 14 (1003520)
I0713 13:22:20.356533 16772 net.cpp:156] Memory required for data: 423861760
I0713 13:22:20.356537 16772 layer_factory.hpp:77] Creating layer inception_4c/1x1
I0713 13:22:20.356556 16772 net.cpp:91] Creating Layer inception_4c/1x1
I0713 13:22:20.356562 16772 net.cpp:425] inception_4c/1x1 <- inception_4b/output_inception_4b/output_0_split_0
I0713 13:22:20.356575 16772 net.cpp:399] inception_4c/1x1 -> inception_4c/1x1
I0713 13:22:20.359683 16772 net.cpp:141] Setting up inception_4c/1x1
I0713 13:22:20.359707 16772 net.cpp:148] Top shape: 10 128 14 14 (250880)
I0713 13:22:20.359712 16772 net.cpp:156] Memory required for data: 424865280
I0713 13:22:20.359724 16772 layer_factory.hpp:77] Creating layer inception_4c/relu_1x1
I0713 13:22:20.359735 16772 net.cpp:91] Creating Layer inception_4c/relu_1x1
I0713 13:22:20.359740 16772 net.cpp:425] inception_4c/relu_1x1 <- inception_4c/1x1
I0713 13:22:20.359755 16772 net.cpp:386] inception_4c/relu_1x1 -> inception_4c/1x1 (in-place)
I0713 13:22:20.360023 16772 net.cpp:141] Setting up inception_4c/relu_1x1
I0713 13:22:20.360035 16772 net.cpp:148] Top shape: 10 128 14 14 (250880)
I0713 13:22:20.360040 16772 net.cpp:156] Memory required for data: 425868800
I0713 13:22:20.360045 16772 layer_factory.hpp:77] Creating layer inception_4c/3x3_reduce
I0713 13:22:20.360064 16772 net.cpp:91] Creating Layer inception_4c/3x3_reduce
I0713 13:22:20.360070 16772 net.cpp:425] inception_4c/3x3_reduce <- inception_4b/output_inception_4b/output_0_split_1
I0713 13:22:20.360085 16772 net.cpp:399] inception_4c/3x3_reduce -> inception_4c/3x3_reduce
I0713 13:22:20.363034 16772 net.cpp:141] Setting up inception_4c/3x3_reduce
I0713 13:22:20.363054 16772 net.cpp:148] Top shape: 10 128 14 14 (250880)
I0713 13:22:20.363059 16772 net.cpp:156] Memory required for data: 426872320
I0713 13:22:20.363070 16772 layer_factory.hpp:77] Creating layer inception_4c/relu_3x3_reduce
I0713 13:22:20.363080 16772 net.cpp:91] Creating Layer inception_4c/relu_3x3_reduce
I0713 13:22:20.363085 16772 net.cpp:425] inception_4c/relu_3x3_reduce <- inception_4c/3x3_reduce
I0713 13:22:20.363093 16772 net.cpp:386] inception_4c/relu_3x3_reduce -> inception_4c/3x3_reduce (in-place)
I0713 13:22:20.363364 16772 net.cpp:141] Setting up inception_4c/relu_3x3_reduce
I0713 13:22:20.363378 16772 net.cpp:148] Top shape: 10 128 14 14 (250880)
I0713 13:22:20.363382 16772 net.cpp:156] Memory required for data: 427875840
I0713 13:22:20.363389 16772 layer_factory.hpp:77] Creating layer inception_4c/3x3
I0713 13:22:20.363405 16772 net.cpp:91] Creating Layer inception_4c/3x3
I0713 13:22:20.363411 16772 net.cpp:425] inception_4c/3x3 <- inception_4c/3x3_reduce
I0713 13:22:20.363426 16772 net.cpp:399] inception_4c/3x3 -> inception_4c/3x3
I0713 13:22:20.369498 16772 net.cpp:141] Setting up inception_4c/3x3
I0713 13:22:20.369520 16772 net.cpp:148] Top shape: 10 256 14 14 (501760)
I0713 13:22:20.369525 16772 net.cpp:156] Memory required for data: 429882880
I0713 13:22:20.369536 16772 layer_factory.hpp:77] Creating layer inception_4c/relu_3x3
I0713 13:22:20.369550 16772 net.cpp:91] Creating Layer inception_4c/relu_3x3
I0713 13:22:20.369557 16772 net.cpp:425] inception_4c/relu_3x3 <- inception_4c/3x3
I0713 13:22:20.369565 16772 net.cpp:386] inception_4c/relu_3x3 -> inception_4c/3x3 (in-place)
I0713 13:22:20.370375 16772 net.cpp:141] Setting up inception_4c/relu_3x3
I0713 13:22:20.370393 16772 net.cpp:148] Top shape: 10 256 14 14 (501760)
I0713 13:22:20.370399 16772 net.cpp:156] Memory required for data: 431889920
I0713 13:22:20.370404 16772 layer_factory.hpp:77] Creating layer inception_4c/5x5_reduce
I0713 13:22:20.370430 16772 net.cpp:91] Creating Layer inception_4c/5x5_reduce
I0713 13:22:20.370437 16772 net.cpp:425] inception_4c/5x5_reduce <- inception_4b/output_inception_4b/output_0_split_2
I0713 13:22:20.370448 16772 net.cpp:399] inception_4c/5x5_reduce -> inception_4c/5x5_reduce
I0713 13:22:20.372959 16772 net.cpp:141] Setting up inception_4c/5x5_reduce
I0713 13:22:20.372980 16772 net.cpp:148] Top shape: 10 24 14 14 (47040)
I0713 13:22:20.372987 16772 net.cpp:156] Memory required for data: 432078080
I0713 13:22:20.372997 16772 layer_factory.hpp:77] Creating layer inception_4c/relu_5x5_reduce
I0713 13:22:20.373008 16772 net.cpp:91] Creating Layer inception_4c/relu_5x5_reduce
I0713 13:22:20.373013 16772 net.cpp:425] inception_4c/relu_5x5_reduce <- inception_4c/5x5_reduce
I0713 13:22:20.373025 16772 net.cpp:386] inception_4c/relu_5x5_reduce -> inception_4c/5x5_reduce (in-place)
I0713 13:22:20.373296 16772 net.cpp:141] Setting up inception_4c/relu_5x5_reduce
I0713 13:22:20.373309 16772 net.cpp:148] Top shape: 10 24 14 14 (47040)
I0713 13:22:20.373317 16772 net.cpp:156] Memory required for data: 432266240
I0713 13:22:20.373322 16772 layer_factory.hpp:77] Creating layer inception_4c/5x5
I0713 13:22:20.373337 16772 net.cpp:91] Creating Layer inception_4c/5x5
I0713 13:22:20.373343 16772 net.cpp:425] inception_4c/5x5 <- inception_4c/5x5_reduce
I0713 13:22:20.373358 16772 net.cpp:399] inception_4c/5x5 -> inception_4c/5x5
I0713 13:22:20.376673 16772 net.cpp:141] Setting up inception_4c/5x5
I0713 13:22:20.376693 16772 net.cpp:148] Top shape: 10 64 14 14 (125440)
I0713 13:22:20.376698 16772 net.cpp:156] Memory required for data: 432768000
I0713 13:22:20.376708 16772 layer_factory.hpp:77] Creating layer inception_4c/relu_5x5
I0713 13:22:20.376723 16772 net.cpp:91] Creating Layer inception_4c/relu_5x5
I0713 13:22:20.376729 16772 net.cpp:425] inception_4c/relu_5x5 <- inception_4c/5x5
I0713 13:22:20.376737 16772 net.cpp:386] inception_4c/relu_5x5 -> inception_4c/5x5 (in-place)
I0713 13:22:20.377010 16772 net.cpp:141] Setting up inception_4c/relu_5x5
I0713 13:22:20.377023 16772 net.cpp:148] Top shape: 10 64 14 14 (125440)
I0713 13:22:20.377028 16772 net.cpp:156] Memory required for data: 433269760
I0713 13:22:20.377034 16772 layer_factory.hpp:77] Creating layer inception_4c/pool
I0713 13:22:20.377045 16772 net.cpp:91] Creating Layer inception_4c/pool
I0713 13:22:20.377051 16772 net.cpp:425] inception_4c/pool <- inception_4b/output_inception_4b/output_0_split_3
I0713 13:22:20.377065 16772 net.cpp:399] inception_4c/pool -> inception_4c/pool
I0713 13:22:20.377142 16772 net.cpp:141] Setting up inception_4c/pool
I0713 13:22:20.377152 16772 net.cpp:148] Top shape: 10 512 14 14 (1003520)
I0713 13:22:20.377157 16772 net.cpp:156] Memory required for data: 437283840
I0713 13:22:20.377162 16772 layer_factory.hpp:77] Creating layer inception_4c/pool_proj
I0713 13:22:20.377187 16772 net.cpp:91] Creating Layer inception_4c/pool_proj
I0713 13:22:20.377194 16772 net.cpp:425] inception_4c/pool_proj <- inception_4c/pool
I0713 13:22:20.377203 16772 net.cpp:399] inception_4c/pool_proj -> inception_4c/pool_proj
I0713 13:22:20.381019 16772 net.cpp:141] Setting up inception_4c/pool_proj
I0713 13:22:20.381041 16772 net.cpp:148] Top shape: 10 64 14 14 (125440)
I0713 13:22:20.381045 16772 net.cpp:156] Memory required for data: 437785600
I0713 13:22:20.381186 16772 layer_factory.hpp:77] Creating layer inception_4c/relu_pool_proj
I0713 13:22:20.381227 16772 net.cpp:91] Creating Layer inception_4c/relu_pool_proj
I0713 13:22:20.381243 16772 net.cpp:425] inception_4c/relu_pool_proj <- inception_4c/pool_proj
I0713 13:22:20.381259 16772 net.cpp:386] inception_4c/relu_pool_proj -> inception_4c/pool_proj (in-place)
I0713 13:22:20.382899 16772 net.cpp:141] Setting up inception_4c/relu_pool_proj
I0713 13:22:20.382933 16772 net.cpp:148] Top shape: 10 64 14 14 (125440)
I0713 13:22:20.382943 16772 net.cpp:156] Memory required for data: 438287360
I0713 13:22:20.382953 16772 layer_factory.hpp:77] Creating layer inception_4c/output
I0713 13:22:20.382974 16772 net.cpp:91] Creating Layer inception_4c/output
I0713 13:22:20.382987 16772 net.cpp:425] inception_4c/output <- inception_4c/1x1
I0713 13:22:20.382999 16772 net.cpp:425] inception_4c/output <- inception_4c/3x3
I0713 13:22:20.383010 16772 net.cpp:425] inception_4c/output <- inception_4c/5x5
I0713 13:22:20.383021 16772 net.cpp:425] inception_4c/output <- inception_4c/pool_proj
I0713 13:22:20.383034 16772 net.cpp:399] inception_4c/output -> inception_4c/output
I0713 13:22:20.383157 16772 net.cpp:141] Setting up inception_4c/output
I0713 13:22:20.383175 16772 net.cpp:148] Top shape: 10 512 14 14 (1003520)
I0713 13:22:20.383183 16772 net.cpp:156] Memory required for data: 442301440
I0713 13:22:20.383193 16772 layer_factory.hpp:77] Creating layer inception_4c/output_inception_4c/output_0_split
I0713 13:22:20.383206 16772 net.cpp:91] Creating Layer inception_4c/output_inception_4c/output_0_split
I0713 13:22:20.383216 16772 net.cpp:425] inception_4c/output_inception_4c/output_0_split <- inception_4c/output
I0713 13:22:20.383234 16772 net.cpp:399] inception_4c/output_inception_4c/output_0_split -> inception_4c/output_inception_4c/output_0_split_0
I0713 13:22:20.383252 16772 net.cpp:399] inception_4c/output_inception_4c/output_0_split -> inception_4c/output_inception_4c/output_0_split_1
I0713 13:22:20.383268 16772 net.cpp:399] inception_4c/output_inception_4c/output_0_split -> inception_4c/output_inception_4c/output_0_split_2
I0713 13:22:20.383285 16772 net.cpp:399] inception_4c/output_inception_4c/output_0_split -> inception_4c/output_inception_4c/output_0_split_3
I0713 13:22:20.383476 16772 net.cpp:141] Setting up inception_4c/output_inception_4c/output_0_split
I0713 13:22:20.383497 16772 net.cpp:148] Top shape: 10 512 14 14 (1003520)
I0713 13:22:20.383509 16772 net.cpp:148] Top shape: 10 512 14 14 (1003520)
I0713 13:22:20.383519 16772 net.cpp:148] Top shape: 10 512 14 14 (1003520)
I0713 13:22:20.383528 16772 net.cpp:148] Top shape: 10 512 14 14 (1003520)
I0713 13:22:20.383536 16772 net.cpp:156] Memory required for data: 458357760
I0713 13:22:20.383545 16772 layer_factory.hpp:77] Creating layer inception_4d/1x1
I0713 13:22:20.383574 16772 net.cpp:91] Creating Layer inception_4d/1x1
I0713 13:22:20.383585 16772 net.cpp:425] inception_4d/1x1 <- inception_4c/output_inception_4c/output_0_split_0
I0713 13:22:20.383604 16772 net.cpp:399] inception_4d/1x1 -> inception_4d/1x1
I0713 13:22:20.388265 16772 net.cpp:141] Setting up inception_4d/1x1
I0713 13:22:20.388298 16772 net.cpp:148] Top shape: 10 112 14 14 (219520)
I0713 13:22:20.388306 16772 net.cpp:156] Memory required for data: 459235840
I0713 13:22:20.388320 16772 layer_factory.hpp:77] Creating layer inception_4d/relu_1x1
I0713 13:22:20.388341 16772 net.cpp:91] Creating Layer inception_4d/relu_1x1
I0713 13:22:20.388351 16772 net.cpp:425] inception_4d/relu_1x1 <- inception_4d/1x1
I0713 13:22:20.388363 16772 net.cpp:386] inception_4d/relu_1x1 -> inception_4d/1x1 (in-place)
I0713 13:22:20.388767 16772 net.cpp:141] Setting up inception_4d/relu_1x1
I0713 13:22:20.388787 16772 net.cpp:148] Top shape: 10 112 14 14 (219520)
I0713 13:22:20.388793 16772 net.cpp:156] Memory required for data: 460113920
I0713 13:22:20.388802 16772 layer_factory.hpp:77] Creating layer inception_4d/3x3_reduce
I0713 13:22:20.388826 16772 net.cpp:91] Creating Layer inception_4d/3x3_reduce
I0713 13:22:20.388836 16772 net.cpp:425] inception_4d/3x3_reduce <- inception_4c/output_inception_4c/output_0_split_1
I0713 13:22:20.388854 16772 net.cpp:399] inception_4d/3x3_reduce -> inception_4d/3x3_reduce
I0713 13:22:20.393261 16772 net.cpp:141] Setting up inception_4d/3x3_reduce
I0713 13:22:20.393292 16772 net.cpp:148] Top shape: 10 144 14 14 (282240)
I0713 13:22:20.393301 16772 net.cpp:156] Memory required for data: 461242880
I0713 13:22:20.393318 16772 layer_factory.hpp:77] Creating layer inception_4d/relu_3x3_reduce
I0713 13:22:20.393337 16772 net.cpp:91] Creating Layer inception_4d/relu_3x3_reduce
I0713 13:22:20.393348 16772 net.cpp:425] inception_4d/relu_3x3_reduce <- inception_4d/3x3_reduce
I0713 13:22:20.393360 16772 net.cpp:386] inception_4d/relu_3x3_reduce -> inception_4d/3x3_reduce (in-place)
I0713 13:22:20.393771 16772 net.cpp:141] Setting up inception_4d/relu_3x3_reduce
I0713 13:22:20.393790 16772 net.cpp:148] Top shape: 10 144 14 14 (282240)
I0713 13:22:20.393797 16772 net.cpp:156] Memory required for data: 462371840
I0713 13:22:20.393805 16772 layer_factory.hpp:77] Creating layer inception_4d/3x3
I0713 13:22:20.393831 16772 net.cpp:91] Creating Layer inception_4d/3x3
I0713 13:22:20.393841 16772 net.cpp:425] inception_4d/3x3 <- inception_4d/3x3_reduce
I0713 13:22:20.393859 16772 net.cpp:399] inception_4d/3x3 -> inception_4d/3x3
I0713 13:22:20.404063 16772 net.cpp:141] Setting up inception_4d/3x3
I0713 13:22:20.404094 16772 net.cpp:148] Top shape: 10 288 14 14 (564480)
I0713 13:22:20.404103 16772 net.cpp:156] Memory required for data: 464629760
I0713 13:22:20.404117 16772 layer_factory.hpp:77] Creating layer inception_4d/relu_3x3
I0713 13:22:20.404134 16772 net.cpp:91] Creating Layer inception_4d/relu_3x3
I0713 13:22:20.404145 16772 net.cpp:425] inception_4d/relu_3x3 <- inception_4d/3x3
I0713 13:22:20.404156 16772 net.cpp:386] inception_4d/relu_3x3 -> inception_4d/3x3 (in-place)
I0713 13:22:20.405287 16772 net.cpp:141] Setting up inception_4d/relu_3x3
I0713 13:22:20.405313 16772 net.cpp:148] Top shape: 10 288 14 14 (564480)
I0713 13:22:20.405319 16772 net.cpp:156] Memory required for data: 466887680
I0713 13:22:20.405328 16772 layer_factory.hpp:77] Creating layer inception_4d/5x5_reduce
I0713 13:22:20.405350 16772 net.cpp:91] Creating Layer inception_4d/5x5_reduce
I0713 13:22:20.405360 16772 net.cpp:425] inception_4d/5x5_reduce <- inception_4c/output_inception_4c/output_0_split_2
I0713 13:22:20.405381 16772 net.cpp:399] inception_4d/5x5_reduce -> inception_4d/5x5_reduce
I0713 13:22:20.408596 16772 net.cpp:141] Setting up inception_4d/5x5_reduce
I0713 13:22:20.408618 16772 net.cpp:148] Top shape: 10 32 14 14 (62720)
I0713 13:22:20.408623 16772 net.cpp:156] Memory required for data: 467138560
I0713 13:22:20.408634 16772 layer_factory.hpp:77] Creating layer inception_4d/relu_5x5_reduce
I0713 13:22:20.408648 16772 net.cpp:91] Creating Layer inception_4d/relu_5x5_reduce
I0713 13:22:20.408655 16772 net.cpp:425] inception_4d/relu_5x5_reduce <- inception_4d/5x5_reduce
I0713 13:22:20.408664 16772 net.cpp:386] inception_4d/relu_5x5_reduce -> inception_4d/5x5_reduce (in-place)
I0713 13:22:20.408941 16772 net.cpp:141] Setting up inception_4d/relu_5x5_reduce
I0713 13:22:20.408954 16772 net.cpp:148] Top shape: 10 32 14 14 (62720)
I0713 13:22:20.408959 16772 net.cpp:156] Memory required for data: 467389440
I0713 13:22:20.408964 16772 layer_factory.hpp:77] Creating layer inception_4d/5x5
I0713 13:22:20.408982 16772 net.cpp:91] Creating Layer inception_4d/5x5
I0713 13:22:20.408989 16772 net.cpp:425] inception_4d/5x5 <- inception_4d/5x5_reduce
I0713 13:22:20.409003 16772 net.cpp:399] inception_4d/5x5 -> inception_4d/5x5
I0713 13:22:20.411978 16772 net.cpp:141] Setting up inception_4d/5x5
I0713 13:22:20.412001 16772 net.cpp:148] Top shape: 10 64 14 14 (125440)
I0713 13:22:20.412006 16772 net.cpp:156] Memory required for data: 467891200
I0713 13:22:20.412017 16772 layer_factory.hpp:77] Creating layer inception_4d/relu_5x5
I0713 13:22:20.412029 16772 net.cpp:91] Creating Layer inception_4d/relu_5x5
I0713 13:22:20.412035 16772 net.cpp:425] inception_4d/relu_5x5 <- inception_4d/5x5
I0713 13:22:20.412048 16772 net.cpp:386] inception_4d/relu_5x5 -> inception_4d/5x5 (in-place)
I0713 13:22:20.412328 16772 net.cpp:141] Setting up inception_4d/relu_5x5
I0713 13:22:20.412343 16772 net.cpp:148] Top shape: 10 64 14 14 (125440)
I0713 13:22:20.412348 16772 net.cpp:156] Memory required for data: 468392960
I0713 13:22:20.412353 16772 layer_factory.hpp:77] Creating layer inception_4d/pool
I0713 13:22:20.412364 16772 net.cpp:91] Creating Layer inception_4d/pool
I0713 13:22:20.412369 16772 net.cpp:425] inception_4d/pool <- inception_4c/output_inception_4c/output_0_split_3
I0713 13:22:20.412379 16772 net.cpp:399] inception_4d/pool -> inception_4d/pool
I0713 13:22:20.412458 16772 net.cpp:141] Setting up inception_4d/pool
I0713 13:22:20.412469 16772 net.cpp:148] Top shape: 10 512 14 14 (1003520)
I0713 13:22:20.412474 16772 net.cpp:156] Memory required for data: 472407040
I0713 13:22:20.412479 16772 layer_factory.hpp:77] Creating layer inception_4d/pool_proj
I0713 13:22:20.412497 16772 net.cpp:91] Creating Layer inception_4d/pool_proj
I0713 13:22:20.412503 16772 net.cpp:425] inception_4d/pool_proj <- inception_4d/pool
I0713 13:22:20.412515 16772 net.cpp:399] inception_4d/pool_proj -> inception_4d/pool_proj
I0713 13:22:20.415271 16772 net.cpp:141] Setting up inception_4d/pool_proj
I0713 13:22:20.415292 16772 net.cpp:148] Top shape: 10 64 14 14 (125440)
I0713 13:22:20.415297 16772 net.cpp:156] Memory required for data: 472908800
I0713 13:22:20.415307 16772 layer_factory.hpp:77] Creating layer inception_4d/relu_pool_proj
I0713 13:22:20.415321 16772 net.cpp:91] Creating Layer inception_4d/relu_pool_proj
I0713 13:22:20.415328 16772 net.cpp:425] inception_4d/relu_pool_proj <- inception_4d/pool_proj
I0713 13:22:20.415336 16772 net.cpp:386] inception_4d/relu_pool_proj -> inception_4d/pool_proj (in-place)
I0713 13:22:20.416172 16772 net.cpp:141] Setting up inception_4d/relu_pool_proj
I0713 13:22:20.416188 16772 net.cpp:148] Top shape: 10 64 14 14 (125440)
I0713 13:22:20.416193 16772 net.cpp:156] Memory required for data: 473410560
I0713 13:22:20.416198 16772 layer_factory.hpp:77] Creating layer inception_4d/output
I0713 13:22:20.416213 16772 net.cpp:91] Creating Layer inception_4d/output
I0713 13:22:20.416219 16772 net.cpp:425] inception_4d/output <- inception_4d/1x1
I0713 13:22:20.416227 16772 net.cpp:425] inception_4d/output <- inception_4d/3x3
I0713 13:22:20.416234 16772 net.cpp:425] inception_4d/output <- inception_4d/5x5
I0713 13:22:20.416239 16772 net.cpp:425] inception_4d/output <- inception_4d/pool_proj
I0713 13:22:20.416246 16772 net.cpp:399] inception_4d/output -> inception_4d/output
I0713 13:22:20.416302 16772 net.cpp:141] Setting up inception_4d/output
I0713 13:22:20.416312 16772 net.cpp:148] Top shape: 10 528 14 14 (1034880)
I0713 13:22:20.416317 16772 net.cpp:156] Memory required for data: 477550080
I0713 13:22:20.416322 16772 layer_factory.hpp:77] Creating layer inception_4d/output_inception_4d/output_0_split
I0713 13:22:20.416332 16772 net.cpp:91] Creating Layer inception_4d/output_inception_4d/output_0_split
I0713 13:22:20.416337 16772 net.cpp:425] inception_4d/output_inception_4d/output_0_split <- inception_4d/output
I0713 13:22:20.416348 16772 net.cpp:399] inception_4d/output_inception_4d/output_0_split -> inception_4d/output_inception_4d/output_0_split_0
I0713 13:22:20.416359 16772 net.cpp:399] inception_4d/output_inception_4d/output_0_split -> inception_4d/output_inception_4d/output_0_split_1
I0713 13:22:20.416369 16772 net.cpp:399] inception_4d/output_inception_4d/output_0_split -> inception_4d/output_inception_4d/output_0_split_2
I0713 13:22:20.416378 16772 net.cpp:399] inception_4d/output_inception_4d/output_0_split -> inception_4d/output_inception_4d/output_0_split_3
I0713 13:22:20.416494 16772 net.cpp:141] Setting up inception_4d/output_inception_4d/output_0_split
I0713 13:22:20.416504 16772 net.cpp:148] Top shape: 10 528 14 14 (1034880)
I0713 13:22:20.416512 16772 net.cpp:148] Top shape: 10 528 14 14 (1034880)
I0713 13:22:20.416517 16772 net.cpp:148] Top shape: 10 528 14 14 (1034880)
I0713 13:22:20.416522 16772 net.cpp:148] Top shape: 10 528 14 14 (1034880)
I0713 13:22:20.416527 16772 net.cpp:156] Memory required for data: 494108160
I0713 13:22:20.416532 16772 layer_factory.hpp:77] Creating layer inception_4e/1x1
I0713 13:22:20.416548 16772 net.cpp:91] Creating Layer inception_4e/1x1
I0713 13:22:20.416553 16772 net.cpp:425] inception_4e/1x1 <- inception_4d/output_inception_4d/output_0_split_0
I0713 13:22:20.416563 16772 net.cpp:399] inception_4e/1x1 -> inception_4e/1x1
I0713 13:22:20.422078 16772 net.cpp:141] Setting up inception_4e/1x1
I0713 13:22:20.422106 16772 net.cpp:148] Top shape: 10 256 14 14 (501760)
I0713 13:22:20.422113 16772 net.cpp:156] Memory required for data: 496115200
I0713 13:22:20.422124 16772 layer_factory.hpp:77] Creating layer inception_4e/relu_1x1
I0713 13:22:20.422134 16772 net.cpp:91] Creating Layer inception_4e/relu_1x1
I0713 13:22:20.422142 16772 net.cpp:425] inception_4e/relu_1x1 <- inception_4e/1x1
I0713 13:22:20.422152 16772 net.cpp:386] inception_4e/relu_1x1 -> inception_4e/1x1 (in-place)
I0713 13:22:20.422436 16772 net.cpp:141] Setting up inception_4e/relu_1x1
I0713 13:22:20.422449 16772 net.cpp:148] Top shape: 10 256 14 14 (501760)
I0713 13:22:20.422454 16772 net.cpp:156] Memory required for data: 498122240
I0713 13:22:20.422459 16772 layer_factory.hpp:77] Creating layer inception_4e/3x3_reduce
I0713 13:22:20.422477 16772 net.cpp:91] Creating Layer inception_4e/3x3_reduce
I0713 13:22:20.422487 16772 net.cpp:425] inception_4e/3x3_reduce <- inception_4d/output_inception_4d/output_0_split_1
I0713 13:22:20.422497 16772 net.cpp:399] inception_4e/3x3_reduce -> inception_4e/3x3_reduce
I0713 13:22:20.425645 16772 net.cpp:141] Setting up inception_4e/3x3_reduce
I0713 13:22:20.425665 16772 net.cpp:148] Top shape: 10 160 14 14 (313600)
I0713 13:22:20.425671 16772 net.cpp:156] Memory required for data: 499376640
I0713 13:22:20.425680 16772 layer_factory.hpp:77] Creating layer inception_4e/relu_3x3_reduce
I0713 13:22:20.425695 16772 net.cpp:91] Creating Layer inception_4e/relu_3x3_reduce
I0713 13:22:20.425703 16772 net.cpp:425] inception_4e/relu_3x3_reduce <- inception_4e/3x3_reduce
I0713 13:22:20.425712 16772 net.cpp:386] inception_4e/relu_3x3_reduce -> inception_4e/3x3_reduce (in-place)
I0713 13:22:20.425986 16772 net.cpp:141] Setting up inception_4e/relu_3x3_reduce
I0713 13:22:20.425998 16772 net.cpp:148] Top shape: 10 160 14 14 (313600)
I0713 13:22:20.426003 16772 net.cpp:156] Memory required for data: 500631040
I0713 13:22:20.426008 16772 layer_factory.hpp:77] Creating layer inception_4e/3x3
I0713 13:22:20.426025 16772 net.cpp:91] Creating Layer inception_4e/3x3
I0713 13:22:20.426034 16772 net.cpp:425] inception_4e/3x3 <- inception_4e/3x3_reduce
I0713 13:22:20.426044 16772 net.cpp:399] inception_4e/3x3 -> inception_4e/3x3
I0713 13:22:20.434247 16772 net.cpp:141] Setting up inception_4e/3x3
I0713 13:22:20.434268 16772 net.cpp:148] Top shape: 10 320 14 14 (627200)
I0713 13:22:20.434274 16772 net.cpp:156] Memory required for data: 503139840
I0713 13:22:20.434284 16772 layer_factory.hpp:77] Creating layer inception_4e/relu_3x3
I0713 13:22:20.434294 16772 net.cpp:91] Creating Layer inception_4e/relu_3x3
I0713 13:22:20.434301 16772 net.cpp:425] inception_4e/relu_3x3 <- inception_4e/3x3
I0713 13:22:20.434314 16772 net.cpp:386] inception_4e/relu_3x3 -> inception_4e/3x3 (in-place)
I0713 13:22:20.435161 16772 net.cpp:141] Setting up inception_4e/relu_3x3
I0713 13:22:20.435179 16772 net.cpp:148] Top shape: 10 320 14 14 (627200)
I0713 13:22:20.435184 16772 net.cpp:156] Memory required for data: 505648640
I0713 13:22:20.435190 16772 layer_factory.hpp:77] Creating layer inception_4e/5x5_reduce
I0713 13:22:20.435209 16772 net.cpp:91] Creating Layer inception_4e/5x5_reduce
I0713 13:22:20.435216 16772 net.cpp:425] inception_4e/5x5_reduce <- inception_4d/output_inception_4d/output_0_split_2
I0713 13:22:20.435230 16772 net.cpp:399] inception_4e/5x5_reduce -> inception_4e/5x5_reduce
I0713 13:22:20.437788 16772 net.cpp:141] Setting up inception_4e/5x5_reduce
I0713 13:22:20.437806 16772 net.cpp:148] Top shape: 10 32 14 14 (62720)
I0713 13:22:20.437813 16772 net.cpp:156] Memory required for data: 505899520
I0713 13:22:20.437822 16772 layer_factory.hpp:77] Creating layer inception_4e/relu_5x5_reduce
I0713 13:22:20.437834 16772 net.cpp:91] Creating Layer inception_4e/relu_5x5_reduce
I0713 13:22:20.437840 16772 net.cpp:425] inception_4e/relu_5x5_reduce <- inception_4e/5x5_reduce
I0713 13:22:20.437849 16772 net.cpp:386] inception_4e/relu_5x5_reduce -> inception_4e/5x5_reduce (in-place)
I0713 13:22:20.438134 16772 net.cpp:141] Setting up inception_4e/relu_5x5_reduce
I0713 13:22:20.438148 16772 net.cpp:148] Top shape: 10 32 14 14 (62720)
I0713 13:22:20.438153 16772 net.cpp:156] Memory required for data: 506150400
I0713 13:22:20.438158 16772 layer_factory.hpp:77] Creating layer inception_4e/5x5
I0713 13:22:20.438176 16772 net.cpp:91] Creating Layer inception_4e/5x5
I0713 13:22:20.438184 16772 net.cpp:425] inception_4e/5x5 <- inception_4e/5x5_reduce
I0713 13:22:20.438194 16772 net.cpp:399] inception_4e/5x5 -> inception_4e/5x5
I0713 13:22:20.442600 16772 net.cpp:141] Setting up inception_4e/5x5
I0713 13:22:20.442620 16772 net.cpp:148] Top shape: 10 128 14 14 (250880)
I0713 13:22:20.442626 16772 net.cpp:156] Memory required for data: 507153920
I0713 13:22:20.442636 16772 layer_factory.hpp:77] Creating layer inception_4e/relu_5x5
I0713 13:22:20.442648 16772 net.cpp:91] Creating Layer inception_4e/relu_5x5
I0713 13:22:20.442656 16772 net.cpp:425] inception_4e/relu_5x5 <- inception_4e/5x5
I0713 13:22:20.442663 16772 net.cpp:386] inception_4e/relu_5x5 -> inception_4e/5x5 (in-place)
I0713 13:22:20.442951 16772 net.cpp:141] Setting up inception_4e/relu_5x5
I0713 13:22:20.442965 16772 net.cpp:148] Top shape: 10 128 14 14 (250880)
I0713 13:22:20.442970 16772 net.cpp:156] Memory required for data: 508157440
I0713 13:22:20.442975 16772 layer_factory.hpp:77] Creating layer inception_4e/pool
I0713 13:22:20.442989 16772 net.cpp:91] Creating Layer inception_4e/pool
I0713 13:22:20.442996 16772 net.cpp:425] inception_4e/pool <- inception_4d/output_inception_4d/output_0_split_3
I0713 13:22:20.443007 16772 net.cpp:399] inception_4e/pool -> inception_4e/pool
I0713 13:22:20.443091 16772 net.cpp:141] Setting up inception_4e/pool
I0713 13:22:20.443102 16772 net.cpp:148] Top shape: 10 528 14 14 (1034880)
I0713 13:22:20.443107 16772 net.cpp:156] Memory required for data: 512296960
I0713 13:22:20.443112 16772 layer_factory.hpp:77] Creating layer inception_4e/pool_proj
I0713 13:22:20.443128 16772 net.cpp:91] Creating Layer inception_4e/pool_proj
I0713 13:22:20.443135 16772 net.cpp:425] inception_4e/pool_proj <- inception_4e/pool
I0713 13:22:20.443148 16772 net.cpp:399] inception_4e/pool_proj -> inception_4e/pool_proj
I0713 13:22:20.446117 16772 net.cpp:141] Setting up inception_4e/pool_proj
I0713 13:22:20.446136 16772 net.cpp:148] Top shape: 10 128 14 14 (250880)
I0713 13:22:20.446141 16772 net.cpp:156] Memory required for data: 513300480
I0713 13:22:20.446151 16772 layer_factory.hpp:77] Creating layer inception_4e/relu_pool_proj
I0713 13:22:20.446161 16772 net.cpp:91] Creating Layer inception_4e/relu_pool_proj
I0713 13:22:20.446167 16772 net.cpp:425] inception_4e/relu_pool_proj <- inception_4e/pool_proj
I0713 13:22:20.446179 16772 net.cpp:386] inception_4e/relu_pool_proj -> inception_4e/pool_proj (in-place)
I0713 13:22:20.447010 16772 net.cpp:141] Setting up inception_4e/relu_pool_proj
I0713 13:22:20.447028 16772 net.cpp:148] Top shape: 10 128 14 14 (250880)
I0713 13:22:20.447033 16772 net.cpp:156] Memory required for data: 514304000
I0713 13:22:20.447039 16772 layer_factory.hpp:77] Creating layer inception_4e/output
I0713 13:22:20.447049 16772 net.cpp:91] Creating Layer inception_4e/output
I0713 13:22:20.447055 16772 net.cpp:425] inception_4e/output <- inception_4e/1x1
I0713 13:22:20.447062 16772 net.cpp:425] inception_4e/output <- inception_4e/3x3
I0713 13:22:20.447068 16772 net.cpp:425] inception_4e/output <- inception_4e/5x5
I0713 13:22:20.447074 16772 net.cpp:425] inception_4e/output <- inception_4e/pool_proj
I0713 13:22:20.447085 16772 net.cpp:399] inception_4e/output -> inception_4e/output
I0713 13:22:20.447139 16772 net.cpp:141] Setting up inception_4e/output
I0713 13:22:20.447154 16772 net.cpp:148] Top shape: 10 832 14 14 (1630720)
I0713 13:22:20.447159 16772 net.cpp:156] Memory required for data: 520826880
I0713 13:22:20.447163 16772 layer_factory.hpp:77] Creating layer pool4/3x3_s2
I0713 13:22:20.447171 16772 net.cpp:91] Creating Layer pool4/3x3_s2
I0713 13:22:20.447177 16772 net.cpp:425] pool4/3x3_s2 <- inception_4e/output
I0713 13:22:20.447185 16772 net.cpp:399] pool4/3x3_s2 -> pool4/3x3_s2
I0713 13:22:20.447259 16772 net.cpp:141] Setting up pool4/3x3_s2
I0713 13:22:20.447271 16772 net.cpp:148] Top shape: 10 832 7 7 (407680)
I0713 13:22:20.447275 16772 net.cpp:156] Memory required for data: 522457600
I0713 13:22:20.447280 16772 layer_factory.hpp:77] Creating layer pool4/3x3_s2_pool4/3x3_s2_0_split
I0713 13:22:20.447289 16772 net.cpp:91] Creating Layer pool4/3x3_s2_pool4/3x3_s2_0_split
I0713 13:22:20.447294 16772 net.cpp:425] pool4/3x3_s2_pool4/3x3_s2_0_split <- pool4/3x3_s2
I0713 13:22:20.447305 16772 net.cpp:399] pool4/3x3_s2_pool4/3x3_s2_0_split -> pool4/3x3_s2_pool4/3x3_s2_0_split_0
I0713 13:22:20.447316 16772 net.cpp:399] pool4/3x3_s2_pool4/3x3_s2_0_split -> pool4/3x3_s2_pool4/3x3_s2_0_split_1
I0713 13:22:20.447325 16772 net.cpp:399] pool4/3x3_s2_pool4/3x3_s2_0_split -> pool4/3x3_s2_pool4/3x3_s2_0_split_2
I0713 13:22:20.447336 16772 net.cpp:399] pool4/3x3_s2_pool4/3x3_s2_0_split -> pool4/3x3_s2_pool4/3x3_s2_0_split_3
I0713 13:22:20.447448 16772 net.cpp:141] Setting up pool4/3x3_s2_pool4/3x3_s2_0_split
I0713 13:22:20.447458 16772 net.cpp:148] Top shape: 10 832 7 7 (407680)
I0713 13:22:20.447464 16772 net.cpp:148] Top shape: 10 832 7 7 (407680)
I0713 13:22:20.447470 16772 net.cpp:148] Top shape: 10 832 7 7 (407680)
I0713 13:22:20.447475 16772 net.cpp:148] Top shape: 10 832 7 7 (407680)
I0713 13:22:20.447480 16772 net.cpp:156] Memory required for data: 528980480
I0713 13:22:20.447485 16772 layer_factory.hpp:77] Creating layer inception_5a/1x1
I0713 13:22:20.447500 16772 net.cpp:91] Creating Layer inception_5a/1x1
I0713 13:22:20.447506 16772 net.cpp:425] inception_5a/1x1 <- pool4/3x3_s2_pool4/3x3_s2_0_split_0
I0713 13:22:20.447520 16772 net.cpp:399] inception_5a/1x1 -> inception_5a/1x1
I0713 13:22:20.452898 16772 net.cpp:141] Setting up inception_5a/1x1
I0713 13:22:20.452920 16772 net.cpp:148] Top shape: 10 256 7 7 (125440)
I0713 13:22:20.452926 16772 net.cpp:156] Memory required for data: 529482240
I0713 13:22:20.452936 16772 layer_factory.hpp:77] Creating layer inception_5a/relu_1x1
I0713 13:22:20.452950 16772 net.cpp:91] Creating Layer inception_5a/relu_1x1
I0713 13:22:20.452957 16772 net.cpp:425] inception_5a/relu_1x1 <- inception_5a/1x1
I0713 13:22:20.452965 16772 net.cpp:386] inception_5a/relu_1x1 -> inception_5a/1x1 (in-place)
I0713 13:22:20.453245 16772 net.cpp:141] Setting up inception_5a/relu_1x1
I0713 13:22:20.453258 16772 net.cpp:148] Top shape: 10 256 7 7 (125440)
I0713 13:22:20.453263 16772 net.cpp:156] Memory required for data: 529984000
I0713 13:22:20.453269 16772 layer_factory.hpp:77] Creating layer inception_5a/3x3_reduce
I0713 13:22:20.453286 16772 net.cpp:91] Creating Layer inception_5a/3x3_reduce
I0713 13:22:20.453294 16772 net.cpp:425] inception_5a/3x3_reduce <- pool4/3x3_s2_pool4/3x3_s2_0_split_1
I0713 13:22:20.453306 16772 net.cpp:399] inception_5a/3x3_reduce -> inception_5a/3x3_reduce
I0713 13:22:20.458024 16772 net.cpp:141] Setting up inception_5a/3x3_reduce
I0713 13:22:20.458045 16772 net.cpp:148] Top shape: 10 160 7 7 (78400)
I0713 13:22:20.458053 16772 net.cpp:156] Memory required for data: 530297600
I0713 13:22:20.458063 16772 layer_factory.hpp:77] Creating layer inception_5a/relu_3x3_reduce
I0713 13:22:20.458073 16772 net.cpp:91] Creating Layer inception_5a/relu_3x3_reduce
I0713 13:22:20.458081 16772 net.cpp:425] inception_5a/relu_3x3_reduce <- inception_5a/3x3_reduce
I0713 13:22:20.458088 16772 net.cpp:386] inception_5a/relu_3x3_reduce -> inception_5a/3x3_reduce (in-place)
I0713 13:22:20.458377 16772 net.cpp:141] Setting up inception_5a/relu_3x3_reduce
I0713 13:22:20.458390 16772 net.cpp:148] Top shape: 10 160 7 7 (78400)
I0713 13:22:20.458395 16772 net.cpp:156] Memory required for data: 530611200
I0713 13:22:20.458400 16772 layer_factory.hpp:77] Creating layer inception_5a/3x3
I0713 13:22:20.458416 16772 net.cpp:91] Creating Layer inception_5a/3x3
I0713 13:22:20.458423 16772 net.cpp:425] inception_5a/3x3 <- inception_5a/3x3_reduce
I0713 13:22:20.458437 16772 net.cpp:399] inception_5a/3x3 -> inception_5a/3x3
I0713 13:22:20.467483 16772 net.cpp:141] Setting up inception_5a/3x3
I0713 13:22:20.467504 16772 net.cpp:148] Top shape: 10 320 7 7 (156800)
I0713 13:22:20.467509 16772 net.cpp:156] Memory required for data: 531238400
I0713 13:22:20.467520 16772 layer_factory.hpp:77] Creating layer inception_5a/relu_3x3
I0713 13:22:20.467530 16772 net.cpp:91] Creating Layer inception_5a/relu_3x3
I0713 13:22:20.467536 16772 net.cpp:425] inception_5a/relu_3x3 <- inception_5a/3x3
I0713 13:22:20.467550 16772 net.cpp:386] inception_5a/relu_3x3 -> inception_5a/3x3 (in-place)
I0713 13:22:20.468415 16772 net.cpp:141] Setting up inception_5a/relu_3x3
I0713 13:22:20.468432 16772 net.cpp:148] Top shape: 10 320 7 7 (156800)
I0713 13:22:20.468438 16772 net.cpp:156] Memory required for data: 531865600
I0713 13:22:20.468448 16772 layer_factory.hpp:77] Creating layer inception_5a/5x5_reduce
I0713 13:22:20.468469 16772 net.cpp:91] Creating Layer inception_5a/5x5_reduce
I0713 13:22:20.468477 16772 net.cpp:425] inception_5a/5x5_reduce <- pool4/3x3_s2_pool4/3x3_s2_0_split_2
I0713 13:22:20.468487 16772 net.cpp:399] inception_5a/5x5_reduce -> inception_5a/5x5_reduce
I0713 13:22:20.471205 16772 net.cpp:141] Setting up inception_5a/5x5_reduce
I0713 13:22:20.471225 16772 net.cpp:148] Top shape: 10 32 7 7 (15680)
I0713 13:22:20.471230 16772 net.cpp:156] Memory required for data: 531928320
I0713 13:22:20.471240 16772 layer_factory.hpp:77] Creating layer inception_5a/relu_5x5_reduce
I0713 13:22:20.471251 16772 net.cpp:91] Creating Layer inception_5a/relu_5x5_reduce
I0713 13:22:20.471256 16772 net.cpp:425] inception_5a/relu_5x5_reduce <- inception_5a/5x5_reduce
I0713 13:22:20.471267 16772 net.cpp:386] inception_5a/relu_5x5_reduce -> inception_5a/5x5_reduce (in-place)
I0713 13:22:20.471549 16772 net.cpp:141] Setting up inception_5a/relu_5x5_reduce
I0713 13:22:20.471561 16772 net.cpp:148] Top shape: 10 32 7 7 (15680)
I0713 13:22:20.471566 16772 net.cpp:156] Memory required for data: 531991040
I0713 13:22:20.471572 16772 layer_factory.hpp:77] Creating layer inception_5a/5x5
I0713 13:22:20.471591 16772 net.cpp:91] Creating Layer inception_5a/5x5
I0713 13:22:20.471597 16772 net.cpp:425] inception_5a/5x5 <- inception_5a/5x5_reduce
I0713 13:22:20.471607 16772 net.cpp:399] inception_5a/5x5 -> inception_5a/5x5
I0713 13:22:20.474956 16772 net.cpp:141] Setting up inception_5a/5x5
I0713 13:22:20.474977 16772 net.cpp:148] Top shape: 10 128 7 7 (62720)
I0713 13:22:20.474983 16772 net.cpp:156] Memory required for data: 532241920
I0713 13:22:20.474993 16772 layer_factory.hpp:77] Creating layer inception_5a/relu_5x5
I0713 13:22:20.475028 16772 net.cpp:91] Creating Layer inception_5a/relu_5x5
I0713 13:22:20.475036 16772 net.cpp:425] inception_5a/relu_5x5 <- inception_5a/5x5
I0713 13:22:20.475049 16772 net.cpp:386] inception_5a/relu_5x5 -> inception_5a/5x5 (in-place)
I0713 13:22:20.475327 16772 net.cpp:141] Setting up inception_5a/relu_5x5
I0713 13:22:20.475340 16772 net.cpp:148] Top shape: 10 128 7 7 (62720)
I0713 13:22:20.475344 16772 net.cpp:156] Memory required for data: 532492800
I0713 13:22:20.475352 16772 layer_factory.hpp:77] Creating layer inception_5a/pool
I0713 13:22:20.475364 16772 net.cpp:91] Creating Layer inception_5a/pool
I0713 13:22:20.475371 16772 net.cpp:425] inception_5a/pool <- pool4/3x3_s2_pool4/3x3_s2_0_split_3
I0713 13:22:20.475380 16772 net.cpp:399] inception_5a/pool -> inception_5a/pool
I0713 13:22:20.475466 16772 net.cpp:141] Setting up inception_5a/pool
I0713 13:22:20.475476 16772 net.cpp:148] Top shape: 10 832 7 7 (407680)
I0713 13:22:20.475481 16772 net.cpp:156] Memory required for data: 534123520
I0713 13:22:20.475486 16772 layer_factory.hpp:77] Creating layer inception_5a/pool_proj
I0713 13:22:20.475503 16772 net.cpp:91] Creating Layer inception_5a/pool_proj
I0713 13:22:20.475509 16772 net.cpp:425] inception_5a/pool_proj <- inception_5a/pool
I0713 13:22:20.475522 16772 net.cpp:399] inception_5a/pool_proj -> inception_5a/pool_proj
I0713 13:22:20.480020 16772 net.cpp:141] Setting up inception_5a/pool_proj
I0713 13:22:20.480042 16772 net.cpp:148] Top shape: 10 128 7 7 (62720)
I0713 13:22:20.480048 16772 net.cpp:156] Memory required for data: 534374400
I0713 13:22:20.480058 16772 layer_factory.hpp:77] Creating layer inception_5a/relu_pool_proj
I0713 13:22:20.480068 16772 net.cpp:91] Creating Layer inception_5a/relu_pool_proj
I0713 13:22:20.480075 16772 net.cpp:425] inception_5a/relu_pool_proj <- inception_5a/pool_proj
I0713 13:22:20.480083 16772 net.cpp:386] inception_5a/relu_pool_proj -> inception_5a/pool_proj (in-place)
I0713 13:22:20.480921 16772 net.cpp:141] Setting up inception_5a/relu_pool_proj
I0713 13:22:20.480939 16772 net.cpp:148] Top shape: 10 128 7 7 (62720)
I0713 13:22:20.480945 16772 net.cpp:156] Memory required for data: 534625280
I0713 13:22:20.480950 16772 layer_factory.hpp:77] Creating layer inception_5a/output
I0713 13:22:20.480960 16772 net.cpp:91] Creating Layer inception_5a/output
I0713 13:22:20.480967 16772 net.cpp:425] inception_5a/output <- inception_5a/1x1
I0713 13:22:20.480973 16772 net.cpp:425] inception_5a/output <- inception_5a/3x3
I0713 13:22:20.480979 16772 net.cpp:425] inception_5a/output <- inception_5a/5x5
I0713 13:22:20.480985 16772 net.cpp:425] inception_5a/output <- inception_5a/pool_proj
I0713 13:22:20.480993 16772 net.cpp:399] inception_5a/output -> inception_5a/output
I0713 13:22:20.481052 16772 net.cpp:141] Setting up inception_5a/output
I0713 13:22:20.481065 16772 net.cpp:148] Top shape: 10 832 7 7 (407680)
I0713 13:22:20.481068 16772 net.cpp:156] Memory required for data: 536256000
I0713 13:22:20.481073 16772 layer_factory.hpp:77] Creating layer inception_5a/output_inception_5a/output_0_split
I0713 13:22:20.481086 16772 net.cpp:91] Creating Layer inception_5a/output_inception_5a/output_0_split
I0713 13:22:20.481091 16772 net.cpp:425] inception_5a/output_inception_5a/output_0_split <- inception_5a/output
I0713 13:22:20.481098 16772 net.cpp:399] inception_5a/output_inception_5a/output_0_split -> inception_5a/output_inception_5a/output_0_split_0
I0713 13:22:20.481108 16772 net.cpp:399] inception_5a/output_inception_5a/output_0_split -> inception_5a/output_inception_5a/output_0_split_1
I0713 13:22:20.481117 16772 net.cpp:399] inception_5a/output_inception_5a/output_0_split -> inception_5a/output_inception_5a/output_0_split_2
I0713 13:22:20.481127 16772 net.cpp:399] inception_5a/output_inception_5a/output_0_split -> inception_5a/output_inception_5a/output_0_split_3
I0713 13:22:20.481248 16772 net.cpp:141] Setting up inception_5a/output_inception_5a/output_0_split
I0713 13:22:20.481259 16772 net.cpp:148] Top shape: 10 832 7 7 (407680)
I0713 13:22:20.481266 16772 net.cpp:148] Top shape: 10 832 7 7 (407680)
I0713 13:22:20.481271 16772 net.cpp:148] Top shape: 10 832 7 7 (407680)
I0713 13:22:20.481277 16772 net.cpp:148] Top shape: 10 832 7 7 (407680)
I0713 13:22:20.481282 16772 net.cpp:156] Memory required for data: 542778880
I0713 13:22:20.481287 16772 layer_factory.hpp:77] Creating layer inception_5b/1x1
I0713 13:22:20.481307 16772 net.cpp:91] Creating Layer inception_5b/1x1
I0713 13:22:20.481313 16772 net.cpp:425] inception_5b/1x1 <- inception_5a/output_inception_5a/output_0_split_0
I0713 13:22:20.481325 16772 net.cpp:399] inception_5b/1x1 -> inception_5b/1x1
I0713 13:22:20.487810 16772 net.cpp:141] Setting up inception_5b/1x1
I0713 13:22:20.487833 16772 net.cpp:148] Top shape: 10 384 7 7 (188160)
I0713 13:22:20.487838 16772 net.cpp:156] Memory required for data: 543531520
I0713 13:22:20.487848 16772 layer_factory.hpp:77] Creating layer inception_5b/relu_1x1
I0713 13:22:20.487860 16772 net.cpp:91] Creating Layer inception_5b/relu_1x1
I0713 13:22:20.487866 16772 net.cpp:425] inception_5b/relu_1x1 <- inception_5b/1x1
I0713 13:22:20.487875 16772 net.cpp:386] inception_5b/relu_1x1 -> inception_5b/1x1 (in-place)
I0713 13:22:20.488164 16772 net.cpp:141] Setting up inception_5b/relu_1x1
I0713 13:22:20.488178 16772 net.cpp:148] Top shape: 10 384 7 7 (188160)
I0713 13:22:20.488183 16772 net.cpp:156] Memory required for data: 544284160
I0713 13:22:20.488188 16772 layer_factory.hpp:77] Creating layer inception_5b/3x3_reduce
I0713 13:22:20.488204 16772 net.cpp:91] Creating Layer inception_5b/3x3_reduce
I0713 13:22:20.488210 16772 net.cpp:425] inception_5b/3x3_reduce <- inception_5a/output_inception_5a/output_0_split_1
I0713 13:22:20.488219 16772 net.cpp:399] inception_5b/3x3_reduce -> inception_5b/3x3_reduce
I0713 13:22:20.493181 16772 net.cpp:141] Setting up inception_5b/3x3_reduce
I0713 13:22:20.493201 16772 net.cpp:148] Top shape: 10 192 7 7 (94080)
I0713 13:22:20.493207 16772 net.cpp:156] Memory required for data: 544660480
I0713 13:22:20.493217 16772 layer_factory.hpp:77] Creating layer inception_5b/relu_3x3_reduce
I0713 13:22:20.493232 16772 net.cpp:91] Creating Layer inception_5b/relu_3x3_reduce
I0713 13:22:20.493238 16772 net.cpp:425] inception_5b/relu_3x3_reduce <- inception_5b/3x3_reduce
I0713 13:22:20.493248 16772 net.cpp:386] inception_5b/relu_3x3_reduce -> inception_5b/3x3_reduce (in-place)
I0713 13:22:20.493530 16772 net.cpp:141] Setting up inception_5b/relu_3x3_reduce
I0713 13:22:20.493543 16772 net.cpp:148] Top shape: 10 192 7 7 (94080)
I0713 13:22:20.493548 16772 net.cpp:156] Memory required for data: 545036800
I0713 13:22:20.493553 16772 layer_factory.hpp:77] Creating layer inception_5b/3x3
I0713 13:22:20.493571 16772 net.cpp:91] Creating Layer inception_5b/3x3
I0713 13:22:20.493577 16772 net.cpp:425] inception_5b/3x3 <- inception_5b/3x3_reduce
I0713 13:22:20.493589 16772 net.cpp:399] inception_5b/3x3 -> inception_5b/3x3
I0713 13:22:20.503490 16772 net.cpp:141] Setting up inception_5b/3x3
I0713 13:22:20.503511 16772 net.cpp:148] Top shape: 10 384 7 7 (188160)
I0713 13:22:20.503517 16772 net.cpp:156] Memory required for data: 545789440
I0713 13:22:20.503528 16772 layer_factory.hpp:77] Creating layer inception_5b/relu_3x3
I0713 13:22:20.503537 16772 net.cpp:91] Creating Layer inception_5b/relu_3x3
I0713 13:22:20.503545 16772 net.cpp:425] inception_5b/relu_3x3 <- inception_5b/3x3
I0713 13:22:20.503552 16772 net.cpp:386] inception_5b/relu_3x3 -> inception_5b/3x3 (in-place)
I0713 13:22:20.504395 16772 net.cpp:141] Setting up inception_5b/relu_3x3
I0713 13:22:20.504412 16772 net.cpp:148] Top shape: 10 384 7 7 (188160)
I0713 13:22:20.504417 16772 net.cpp:156] Memory required for data: 546542080
I0713 13:22:20.504423 16772 layer_factory.hpp:77] Creating layer inception_5b/5x5_reduce
I0713 13:22:20.504441 16772 net.cpp:91] Creating Layer inception_5b/5x5_reduce
I0713 13:22:20.504448 16772 net.cpp:425] inception_5b/5x5_reduce <- inception_5a/output_inception_5a/output_0_split_2
I0713 13:22:20.504465 16772 net.cpp:399] inception_5b/5x5_reduce -> inception_5b/5x5_reduce
I0713 13:22:20.507335 16772 net.cpp:141] Setting up inception_5b/5x5_reduce
I0713 13:22:20.507354 16772 net.cpp:148] Top shape: 10 48 7 7 (23520)
I0713 13:22:20.507360 16772 net.cpp:156] Memory required for data: 546636160
I0713 13:22:20.507370 16772 layer_factory.hpp:77] Creating layer inception_5b/relu_5x5_reduce
I0713 13:22:20.507383 16772 net.cpp:91] Creating Layer inception_5b/relu_5x5_reduce
I0713 13:22:20.507391 16772 net.cpp:425] inception_5b/relu_5x5_reduce <- inception_5b/5x5_reduce
I0713 13:22:20.507400 16772 net.cpp:386] inception_5b/relu_5x5_reduce -> inception_5b/5x5_reduce (in-place)
I0713 13:22:20.507679 16772 net.cpp:141] Setting up inception_5b/relu_5x5_reduce
I0713 13:22:20.507694 16772 net.cpp:148] Top shape: 10 48 7 7 (23520)
I0713 13:22:20.507699 16772 net.cpp:156] Memory required for data: 546730240
I0713 13:22:20.507705 16772 layer_factory.hpp:77] Creating layer inception_5b/5x5
I0713 13:22:20.507722 16772 net.cpp:91] Creating Layer inception_5b/5x5
I0713 13:22:20.507730 16772 net.cpp:425] inception_5b/5x5 <- inception_5b/5x5_reduce
I0713 13:22:20.507740 16772 net.cpp:399] inception_5b/5x5 -> inception_5b/5x5
I0713 13:22:20.512182 16772 net.cpp:141] Setting up inception_5b/5x5
I0713 13:22:20.512202 16772 net.cpp:148] Top shape: 10 128 7 7 (62720)
I0713 13:22:20.512208 16772 net.cpp:156] Memory required for data: 546981120
I0713 13:22:20.512218 16772 layer_factory.hpp:77] Creating layer inception_5b/relu_5x5
I0713 13:22:20.512233 16772 net.cpp:91] Creating Layer inception_5b/relu_5x5
I0713 13:22:20.512239 16772 net.cpp:425] inception_5b/relu_5x5 <- inception_5b/5x5
I0713 13:22:20.512420 16772 net.cpp:386] inception_5b/relu_5x5 -> inception_5b/5x5 (in-place)
I0713 13:22:20.512715 16772 net.cpp:141] Setting up inception_5b/relu_5x5
I0713 13:22:20.512732 16772 net.cpp:148] Top shape: 10 128 7 7 (62720)
I0713 13:22:20.512737 16772 net.cpp:156] Memory required for data: 547232000
I0713 13:22:20.512742 16772 layer_factory.hpp:77] Creating layer inception_5b/pool
I0713 13:22:20.512753 16772 net.cpp:91] Creating Layer inception_5b/pool
I0713 13:22:20.512758 16772 net.cpp:425] inception_5b/pool <- inception_5a/output_inception_5a/output_0_split_3
I0713 13:22:20.512771 16772 net.cpp:399] inception_5b/pool -> inception_5b/pool
I0713 13:22:20.512858 16772 net.cpp:141] Setting up inception_5b/pool
I0713 13:22:20.512869 16772 net.cpp:148] Top shape: 10 832 7 7 (407680)
I0713 13:22:20.512874 16772 net.cpp:156] Memory required for data: 548862720
I0713 13:22:20.512879 16772 layer_factory.hpp:77] Creating layer inception_5b/pool_proj
I0713 13:22:20.512902 16772 net.cpp:91] Creating Layer inception_5b/pool_proj
I0713 13:22:20.512909 16772 net.cpp:425] inception_5b/pool_proj <- inception_5b/pool
I0713 13:22:20.512919 16772 net.cpp:399] inception_5b/pool_proj -> inception_5b/pool_proj
I0713 13:22:20.517441 16772 net.cpp:141] Setting up inception_5b/pool_proj
I0713 13:22:20.517462 16772 net.cpp:148] Top shape: 10 128 7 7 (62720)
I0713 13:22:20.517467 16772 net.cpp:156] Memory required for data: 549113600
I0713 13:22:20.517477 16772 layer_factory.hpp:77] Creating layer inception_5b/relu_pool_proj
I0713 13:22:20.517487 16772 net.cpp:91] Creating Layer inception_5b/relu_pool_proj
I0713 13:22:20.517493 16772 net.cpp:425] inception_5b/relu_pool_proj <- inception_5b/pool_proj
I0713 13:22:20.517501 16772 net.cpp:386] inception_5b/relu_pool_proj -> inception_5b/pool_proj (in-place)
I0713 13:22:20.518373 16772 net.cpp:141] Setting up inception_5b/relu_pool_proj
I0713 13:22:20.518391 16772 net.cpp:148] Top shape: 10 128 7 7 (62720)
I0713 13:22:20.518396 16772 net.cpp:156] Memory required for data: 549364480
I0713 13:22:20.518402 16772 layer_factory.hpp:77] Creating layer inception_5b/output
I0713 13:22:20.518411 16772 net.cpp:91] Creating Layer inception_5b/output
I0713 13:22:20.518419 16772 net.cpp:425] inception_5b/output <- inception_5b/1x1
I0713 13:22:20.518425 16772 net.cpp:425] inception_5b/output <- inception_5b/3x3
I0713 13:22:20.518431 16772 net.cpp:425] inception_5b/output <- inception_5b/5x5
I0713 13:22:20.518437 16772 net.cpp:425] inception_5b/output <- inception_5b/pool_proj
I0713 13:22:20.518445 16772 net.cpp:399] inception_5b/output -> inception_5b/output
I0713 13:22:20.518512 16772 net.cpp:141] Setting up inception_5b/output
I0713 13:22:20.518528 16772 net.cpp:148] Top shape: 10 1024 7 7 (501760)
I0713 13:22:20.518533 16772 net.cpp:156] Memory required for data: 551371520
I0713 13:22:20.518539 16772 layer_factory.hpp:77] Creating layer pool5/7x7_s1
I0713 13:22:20.518548 16772 net.cpp:91] Creating Layer pool5/7x7_s1
I0713 13:22:20.518555 16772 net.cpp:425] pool5/7x7_s1 <- inception_5b/output
I0713 13:22:20.518563 16772 net.cpp:399] pool5/7x7_s1 -> pool5/7x7_s1
I0713 13:22:20.518940 16772 net.cpp:141] Setting up pool5/7x7_s1
I0713 13:22:20.518956 16772 net.cpp:148] Top shape: 10 1024 1 1 (10240)
I0713 13:22:20.518961 16772 net.cpp:156] Memory required for data: 551412480
I0713 13:22:20.518966 16772 layer_factory.hpp:77] Creating layer pool5/drop_7x7_s1
I0713 13:22:20.518985 16772 net.cpp:91] Creating Layer pool5/drop_7x7_s1
I0713 13:22:20.518990 16772 net.cpp:425] pool5/drop_7x7_s1 <- pool5/7x7_s1
I0713 13:22:20.519001 16772 net.cpp:386] pool5/drop_7x7_s1 -> pool5/7x7_s1 (in-place)
I0713 13:22:20.519064 16772 net.cpp:141] Setting up pool5/drop_7x7_s1
I0713 13:22:20.519076 16772 net.cpp:148] Top shape: 10 1024 1 1 (10240)
I0713 13:22:20.519081 16772 net.cpp:156] Memory required for data: 551453440
I0713 13:22:20.519088 16772 layer_factory.hpp:77] Creating layer loss3/classifier
I0713 13:22:20.519105 16772 net.cpp:91] Creating Layer loss3/classifier
I0713 13:22:20.519111 16772 net.cpp:425] loss3/classifier <- pool5/7x7_s1
I0713 13:22:20.519140 16772 net.cpp:399] loss3/classifier -> loss3/classifier
I0713 13:22:20.530877 16772 net.cpp:141] Setting up loss3/classifier
I0713 13:22:20.530900 16772 net.cpp:148] Top shape: 10 1000 (10000)
I0713 13:22:20.530905 16772 net.cpp:156] Memory required for data: 551493440
I0713 13:22:20.530915 16772 layer_factory.hpp:77] Creating layer prob
I0713 13:22:20.530927 16772 net.cpp:91] Creating Layer prob
I0713 13:22:20.530935 16772 net.cpp:425] prob <- loss3/classifier
I0713 13:22:20.530942 16772 net.cpp:399] prob -> prob
I0713 13:22:20.532060 16772 net.cpp:141] Setting up prob
I0713 13:22:20.532078 16772 net.cpp:148] Top shape: 10 1000 (10000)
I0713 13:22:20.532084 16772 net.cpp:156] Memory required for data: 551533440
I0713 13:22:20.532090 16772 net.cpp:219] prob does not need backward computation.
I0713 13:22:20.532095 16772 net.cpp:219] loss3/classifier does not need backward computation.
I0713 13:22:20.532100 16772 net.cpp:219] pool5/drop_7x7_s1 does not need backward computation.
I0713 13:22:20.532104 16772 net.cpp:219] pool5/7x7_s1 does not need backward computation.
…
