…
2016-07-13 13:22:20.210 n.t.s.b.CVParticleBolt [INFO] [Timing] RequestID: 0 StreamID: home/peifeng/work/data/frame.320x240.jpg SequenceNr: 46 Leaving scale: 1468430540210 Size: 3530
2016-07-13 13:22:20.210 n.t.s.b.CVParticleBolt [INFO] [Timing] RequestID: 0 StreamID: home/peifeng/work/data/frame.320x240.jpg SequenceNr: 47 Entering scale: 1468430540210
2016-07-13 13:22:20.215 n.t.s.b.CVParticleBolt [INFO] [Timing] RequestID: 0 StreamID: home/peifeng/work/data/frame.320x240.jpg SequenceNr: 47 Leaving scale: 1468430540215 Size: 3530
2016-07-13 13:22:20.248 STDERR [INFO] I0713 13:22:20.248174 16772 net.cpp:141] Setting up conv1/7x7_s2
2016-07-13 13:22:20.249 STDERR [INFO] I0713 13:22:20.248222 16772 net.cpp:148] Top shape: 10 64 112 112 (8028160)
2016-07-13 13:22:20.249 STDERR [INFO] I0713 13:22:20.248229 16772 net.cpp:156] Memory required for data: 38133760
2016-07-13 13:22:20.249 STDERR [INFO] I0713 13:22:20.248256 16772 layer_factory.hpp:77] Creating layer conv1/relu_7x7
2016-07-13 13:22:20.249 STDERR [INFO] I0713 13:22:20.248275 16772 net.cpp:91] Creating Layer conv1/relu_7x7
2016-07-13 13:22:20.249 STDERR [INFO] I0713 13:22:20.248282 16772 net.cpp:425] conv1/relu_7x7 <- conv1/7x7_s2
2016-07-13 13:22:20.249 STDERR [INFO] I0713 13:22:20.248291 16772 net.cpp:386] conv1/relu_7x7 -> conv1/7x7_s2 (in-place)
2016-07-13 13:22:20.250 STDERR [INFO] I0713 13:22:20.249042 16772 net.cpp:141] Setting up conv1/relu_7x7
2016-07-13 13:22:20.250 STDERR [INFO] I0713 13:22:20.249058 16772 net.cpp:148] Top shape: 10 64 112 112 (8028160)
2016-07-13 13:22:20.250 STDERR [INFO] I0713 13:22:20.249064 16772 net.cpp:156] Memory required for data: 70246400
2016-07-13 13:22:20.250 STDERR [INFO] I0713 13:22:20.249070 16772 layer_factory.hpp:77] Creating layer pool1/3x3_s2
2016-07-13 13:22:20.250 STDERR [INFO] I0713 13:22:20.249083 16772 net.cpp:91] Creating Layer pool1/3x3_s2
2016-07-13 13:22:20.250 STDERR [INFO] I0713 13:22:20.249089 16772 net.cpp:425] pool1/3x3_s2 <- conv1/7x7_s2
2016-07-13 13:22:20.250 STDERR [INFO] I0713 13:22:20.249097 16772 net.cpp:399] pool1/3x3_s2 -> pool1/3x3_s2
2016-07-13 13:22:20.250 STDERR [INFO] I0713 13:22:20.249181 16772 net.cpp:141] Setting up pool1/3x3_s2
2016-07-13 13:22:20.250 STDERR [INFO] I0713 13:22:20.249192 16772 net.cpp:148] Top shape: 10 64 56 56 (2007040)
2016-07-13 13:22:20.250 STDERR [INFO] I0713 13:22:20.249197 16772 net.cpp:156] Memory required for data: 78274560
2016-07-13 13:22:20.251 STDERR [INFO] I0713 13:22:20.249202 16772 layer_factory.hpp:77] Creating layer pool1/norm1
2016-07-13 13:22:20.251 STDERR [INFO] I0713 13:22:20.249219 16772 net.cpp:91] Creating Layer pool1/norm1
2016-07-13 13:22:20.251 STDERR [INFO] I0713 13:22:20.249225 16772 net.cpp:425] pool1/norm1 <- pool1/3x3_s2
2016-07-13 13:22:20.251 STDERR [INFO] I0713 13:22:20.249233 16772 net.cpp:399] pool1/norm1 -> pool1/norm1
2016-07-13 13:22:20.251 STDERR [INFO] I0713 13:22:20.250027 16772 net.cpp:141] Setting up pool1/norm1
2016-07-13 13:22:20.251 STDERR [INFO] I0713 13:22:20.250044 16772 net.cpp:148] Top shape: 10 64 56 56 (2007040)
2016-07-13 13:22:20.251 STDERR [INFO] I0713 13:22:20.250049 16772 net.cpp:156] Memory required for data: 86302720
2016-07-13 13:22:20.251 STDERR [INFO] I0713 13:22:20.250056 16772 layer_factory.hpp:77] Creating layer conv2/3x3_reduce
2016-07-13 13:22:20.251 STDERR [INFO] I0713 13:22:20.250075 16772 net.cpp:91] Creating Layer conv2/3x3_reduce
2016-07-13 13:22:20.251 STDERR [INFO] I0713 13:22:20.250082 16772 net.cpp:425] conv2/3x3_reduce <- pool1/norm1
2016-07-13 13:22:20.252 STDERR [INFO] I0713 13:22:20.250090 16772 net.cpp:399] conv2/3x3_reduce -> conv2/3x3_reduce
2016-07-13 13:22:20.252 STDERR [INFO] I0713 13:22:20.252825 16772 net.cpp:141] Setting up conv2/3x3_reduce
2016-07-13 13:22:20.253 STDERR [INFO] I0713 13:22:20.252845 16772 net.cpp:148] Top shape: 10 64 56 56 (2007040)
2016-07-13 13:22:20.253 STDERR [INFO] I0713 13:22:20.252851 16772 net.cpp:156] Memory required for data: 94330880
2016-07-13 13:22:20.253 STDERR [INFO] I0713 13:22:20.252863 16772 layer_factory.hpp:77] Creating layer conv2/relu_3x3_reduce
2016-07-13 13:22:20.253 STDERR [INFO] I0713 13:22:20.252877 16772 net.cpp:91] Creating Layer conv2/relu_3x3_reduce
2016-07-13 13:22:20.253 STDERR [INFO] I0713 13:22:20.252884 16772 net.cpp:425] conv2/relu_3x3_reduce <- conv2/3x3_reduce
2016-07-13 13:22:20.253 STDERR [INFO] I0713 13:22:20.252892 16772 net.cpp:386] conv2/relu_3x3_reduce -> conv2/3x3_reduce (in-place)
2016-07-13 13:22:20.253 STDERR [INFO] I0713 13:22:20.253659 16772 net.cpp:141] Setting up conv2/relu_3x3_reduce
2016-07-13 13:22:20.253 STDERR [INFO] I0713 13:22:20.253676 16772 net.cpp:148] Top shape: 10 64 56 56 (2007040)
2016-07-13 13:22:20.253 STDERR [INFO] I0713 13:22:20.253681 16772 net.cpp:156] Memory required for data: 102359040
2016-07-13 13:22:20.254 STDERR [INFO] I0713 13:22:20.253689 16772 layer_factory.hpp:77] Creating layer conv2/3x3
2016-07-13 13:22:20.254 STDERR [INFO] I0713 13:22:20.253710 16772 net.cpp:91] Creating Layer conv2/3x3
2016-07-13 13:22:20.254 STDERR [INFO] I0713 13:22:20.253716 16772 net.cpp:425] conv2/3x3 <- conv2/3x3_reduce
2016-07-13 13:22:20.254 STDERR [INFO] I0713 13:22:20.253726 16772 net.cpp:399] conv2/3x3 -> conv2/3x3
2016-07-13 13:22:20.258 STDERR [INFO] I0713 13:22:20.258577 16772 net.cpp:141] Setting up conv2/3x3
2016-07-13 13:22:20.259 STDERR [INFO] I0713 13:22:20.258599 16772 net.cpp:148] Top shape: 10 192 56 56 (6021120)
2016-07-13 13:22:20.259 STDERR [INFO] I0713 13:22:20.258605 16772 net.cpp:156] Memory required for data: 126443520
2016-07-13 13:22:20.259 STDERR [INFO] I0713 13:22:20.258621 16772 layer_factory.hpp:77] Creating layer conv2/relu_3x3
2016-07-13 13:22:20.259 STDERR [INFO] I0713 13:22:20.258632 16772 net.cpp:91] Creating Layer conv2/relu_3x3
2016-07-13 13:22:20.259 STDERR [INFO] I0713 13:22:20.258638 16772 net.cpp:425] conv2/relu_3x3 <- conv2/3x3
2016-07-13 13:22:20.259 STDERR [INFO] I0713 13:22:20.258646 16772 net.cpp:386] conv2/relu_3x3 -> conv2/3x3 (in-place)
2016-07-13 13:22:20.259 STDERR [INFO] I0713 13:22:20.258936 16772 net.cpp:141] Setting up conv2/relu_3x3
2016-07-13 13:22:20.259 STDERR [INFO] I0713 13:22:20.258950 16772 net.cpp:148] Top shape: 10 192 56 56 (6021120)
2016-07-13 13:22:20.259 STDERR [INFO] I0713 13:22:20.258955 16772 net.cpp:156] Memory required for data: 150528000
2016-07-13 13:22:20.260 STDERR [INFO] I0713 13:22:20.258961 16772 layer_factory.hpp:77] Creating layer conv2/norm2
2016-07-13 13:22:20.260 STDERR [INFO] I0713 13:22:20.258973 16772 net.cpp:91] Creating Layer conv2/norm2
2016-07-13 13:22:20.260 STDERR [INFO] I0713 13:22:20.258980 16772 net.cpp:425] conv2/norm2 <- conv2/3x3
2016-07-13 13:22:20.260 STDERR [INFO] I0713 13:22:20.258987 16772 net.cpp:399] conv2/norm2 -> conv2/norm2
2016-07-13 13:22:20.260 STDERR [INFO] I0713 13:22:20.259804 16772 net.cpp:141] Setting up conv2/norm2
2016-07-13 13:22:20.260 STDERR [INFO] I0713 13:22:20.259819 16772 net.cpp:148] Top shape: 10 192 56 56 (6021120)
2016-07-13 13:22:20.260 STDERR [INFO] I0713 13:22:20.259824 16772 net.cpp:156] Memory required for data: 174612480
2016-07-13 13:22:20.260 STDERR [INFO] I0713 13:22:20.259830 16772 layer_factory.hpp:77] Creating layer pool2/3x3_s2
2016-07-13 13:22:20.261 STDERR [INFO] I0713 13:22:20.259842 16772 net.cpp:91] Creating Layer pool2/3x3_s2
2016-07-13 13:22:20.261 STDERR [INFO] I0713 13:22:20.259848 16772 net.cpp:425] pool2/3x3_s2 <- conv2/norm2
2016-07-13 13:22:20.261 STDERR [INFO] I0713 13:22:20.259855 16772 net.cpp:399] pool2/3x3_s2 -> pool2/3x3_s2
2016-07-13 13:22:20.261 STDERR [INFO] I0713 13:22:20.259917 16772 net.cpp:141] Setting up pool2/3x3_s2
2016-07-13 13:22:20.261 STDERR [INFO] I0713 13:22:20.259927 16772 net.cpp:148] Top shape: 10 192 28 28 (1505280)
2016-07-13 13:22:20.261 STDERR [INFO] I0713 13:22:20.259932 16772 net.cpp:156] Memory required for data: 180633600
2016-07-13 13:22:20.261 STDERR [INFO] I0713 13:22:20.259938 16772 layer_factory.hpp:77] Creating layer pool2/3x3_s2_pool2/3x3_s2_0_split
2016-07-13 13:22:20.261 STDERR [INFO] I0713 13:22:20.259954 16772 net.cpp:91] Creating Layer pool2/3x3_s2_pool2/3x3_s2_0_split
2016-07-13 13:22:20.261 STDERR [INFO] I0713 13:22:20.259959 16772 net.cpp:425] pool2/3x3_s2_pool2/3x3_s2_0_split <- pool2/3x3_s2
2016-07-13 13:22:20.261 STDERR [INFO] I0713 13:22:20.259971 16772 net.cpp:399] pool2/3x3_s2_pool2/3x3_s2_0_split -> pool2/3x3_s2_pool2/3x3_s2_0_split_0
2016-07-13 13:22:20.261 STDERR [INFO] I0713 13:22:20.259984 16772 net.cpp:399] pool2/3x3_s2_pool2/3x3_s2_0_split -> pool2/3x3_s2_pool2/3x3_s2_0_split_1
2016-07-13 13:22:20.262 STDERR [INFO] I0713 13:22:20.259992 16772 net.cpp:399] pool2/3x3_s2_pool2/3x3_s2_0_split -> pool2/3x3_s2_pool2/3x3_s2_0_split_2
2016-07-13 13:22:20.262 STDERR [INFO] I0713 13:22:20.260000 16772 net.cpp:399] pool2/3x3_s2_pool2/3x3_s2_0_split -> pool2/3x3_s2_pool2/3x3_s2_0_split_3
2016-07-13 13:22:20.262 STDERR [INFO] I0713 13:22:20.260090 16772 net.cpp:141] Setting up pool2/3x3_s2_pool2/3x3_s2_0_split
2016-07-13 13:22:20.262 STDERR [INFO] I0713 13:22:20.260100 16772 net.cpp:148] Top shape: 10 192 28 28 (1505280)
2016-07-13 13:22:20.262 STDERR [INFO] I0713 13:22:20.260107 16772 net.cpp:148] Top shape: 10 192 28 28 (1505280)
2016-07-13 13:22:20.262 STDERR [INFO] I0713 13:22:20.260113 16772 net.cpp:148] Top shape: 10 192 28 28 (1505280)
2016-07-13 13:22:20.262 STDERR [INFO] I0713 13:22:20.260118 16772 net.cpp:148] Top shape: 10 192 28 28 (1505280)
2016-07-13 13:22:20.262 STDERR [INFO] I0713 13:22:20.260123 16772 net.cpp:156] Memory required for data: 204718080
2016-07-13 13:22:20.262 STDERR [INFO] I0713 13:22:20.260128 16772 layer_factory.hpp:77] Creating layer inception_3a/1x1
2016-07-13 13:22:20.262 STDERR [INFO] I0713 13:22:20.260143 16772 net.cpp:91] Creating Layer inception_3a/1x1
2016-07-13 13:22:20.262 STDERR [INFO] I0713 13:22:20.260149 16772 net.cpp:425] inception_3a/1x1 <- pool2/3x3_s2_pool2/3x3_s2_0_split_0
2016-07-13 13:22:20.262 STDERR [INFO] I0713 13:22:20.260179 16772 net.cpp:399] inception_3a/1x1 -> inception_3a/1x1
2016-07-13 13:22:20.264 STDERR [INFO] I0713 13:22:20.264178 16772 net.cpp:141] Setting up inception_3a/1x1
2016-07-13 13:22:20.264 STDERR [INFO] I0713 13:22:20.264199 16772 net.cpp:148] Top shape: 10 64 28 28 (501760)
2016-07-13 13:22:20.264 STDERR [INFO] I0713 13:22:20.264205 16772 net.cpp:156] Memory required for data: 206725120
2016-07-13 13:22:20.264 STDERR [INFO] I0713 13:22:20.264217 16772 layer_factory.hpp:77] Creating layer inception_3a/relu_1x1
2016-07-13 13:22:20.264 STDERR [INFO] I0713 13:22:20.264230 16772 net.cpp:91] Creating Layer inception_3a/relu_1x1
2016-07-13 13:22:20.264 STDERR [INFO] I0713 13:22:20.264235 16772 net.cpp:425] inception_3a/relu_1x1 <- inception_3a/1x1
2016-07-13 13:22:20.264 STDERR [INFO] I0713 13:22:20.264246 16772 net.cpp:386] inception_3a/relu_1x1 -> inception_3a/1x1 (in-place)
2016-07-13 13:22:20.264 STDERR [INFO] I0713 13:22:20.264521 16772 net.cpp:141] Setting up inception_3a/relu_1x1
2016-07-13 13:22:20.265 STDERR [INFO] I0713 13:22:20.264534 16772 net.cpp:148] Top shape: 10 64 28 28 (501760)
2016-07-13 13:22:20.265 STDERR [INFO] I0713 13:22:20.264539 16772 net.cpp:156] Memory required for data: 208732160
2016-07-13 13:22:20.265 STDERR [INFO] I0713 13:22:20.264544 16772 layer_factory.hpp:77] Creating layer inception_3a/3x3_reduce
2016-07-13 13:22:20.265 STDERR [INFO] I0713 13:22:20.264561 16772 net.cpp:91] Creating Layer inception_3a/3x3_reduce
2016-07-13 13:22:20.265 STDERR [INFO] I0713 13:22:20.264569 16772 net.cpp:425] inception_3a/3x3_reduce <- pool2/3x3_s2_pool2/3x3_s2_0_split_1
2016-07-13 13:22:20.265 STDERR [INFO] I0713 13:22:20.264581 16772 net.cpp:399] inception_3a/3x3_reduce -> inception_3a/3x3_reduce
2016-07-13 13:22:20.268 STDERR [INFO] I0713 13:22:20.268085 16772 net.cpp:141] Setting up inception_3a/3x3_reduce
2016-07-13 13:22:20.268 STDERR [INFO] I0713 13:22:20.268105 16772 net.cpp:148] Top shape: 10 96 28 28 (752640)
2016-07-13 13:22:20.268 STDERR [INFO] I0713 13:22:20.268111 16772 net.cpp:156] Memory required for data: 211742720
2016-07-13 13:22:20.268 STDERR [INFO] I0713 13:22:20.268126 16772 layer_factory.hpp:77] Creating layer inception_3a/relu_3x3_reduce
2016-07-13 13:22:20.268 STDERR [INFO] I0713 13:22:20.268134 16772 net.cpp:91] Creating Layer inception_3a/relu_3x3_reduce
2016-07-13 13:22:20.268 STDERR [INFO] I0713 13:22:20.268141 16772 net.cpp:425] inception_3a/relu_3x3_reduce <- inception_3a/3x3_reduce
2016-07-13 13:22:20.268 STDERR [INFO] I0713 13:22:20.268152 16772 net.cpp:386] inception_3a/relu_3x3_reduce -> inception_3a/3x3_reduce (in-place)
2016-07-13 13:22:20.268 STDERR [INFO] I0713 13:22:20.268415 16772 net.cpp:141] Setting up inception_3a/relu_3x3_reduce
2016-07-13 13:22:20.268 STDERR [INFO] I0713 13:22:20.268429 16772 net.cpp:148] Top shape: 10 96 28 28 (752640)
2016-07-13 13:22:20.269 STDERR [INFO] I0713 13:22:20.268434 16772 net.cpp:156] Memory required for data: 214753280
2016-07-13 13:22:20.269 STDERR [INFO] I0713 13:22:20.268440 16772 layer_factory.hpp:77] Creating layer inception_3a/3x3
2016-07-13 13:22:20.269 STDERR [INFO] I0713 13:22:20.268460 16772 net.cpp:91] Creating Layer inception_3a/3x3
2016-07-13 13:22:20.269 STDERR [INFO] I0713 13:22:20.268466 16772 net.cpp:425] inception_3a/3x3 <- inception_3a/3x3_reduce
2016-07-13 13:22:20.269 STDERR [INFO] I0713 13:22:20.268479 16772 net.cpp:399] inception_3a/3x3 -> inception_3a/3x3
2016-07-13 13:22:20.274 STDERR [INFO] I0713 13:22:20.274437 16772 net.cpp:141] Setting up inception_3a/3x3
2016-07-13 13:22:20.274 STDERR [INFO] I0713 13:22:20.274461 16772 net.cpp:148] Top shape: 10 128 28 28 (1003520)
2016-07-13 13:22:20.274 STDERR [INFO] I0713 13:22:20.274466 16772 net.cpp:156] Memory required for data: 218767360
2016-07-13 13:22:20.274 STDERR [INFO] I0713 13:22:20.274477 16772 layer_factory.hpp:77] Creating layer inception_3a/relu_3x3
2016-07-13 13:22:20.275 STDERR [INFO] I0713 13:22:20.274490 16772 net.cpp:91] Creating Layer inception_3a/relu_3x3
2016-07-13 13:22:20.275 STDERR [INFO] I0713 13:22:20.274498 16772 net.cpp:425] inception_3a/relu_3x3 <- inception_3a/3x3
2016-07-13 13:22:20.275 STDERR [INFO] I0713 13:22:20.274508 16772 net.cpp:386] inception_3a/relu_3x3 -> inception_3a/3x3 (in-place)
2016-07-13 13:22:20.275 STDERR [INFO] I0713 13:22:20.275380 16772 net.cpp:141] Setting up inception_3a/relu_3x3
2016-07-13 13:22:20.275 STDERR [INFO] I0713 13:22:20.275398 16772 net.cpp:148] Top shape: 10 128 28 28 (1003520)
2016-07-13 13:22:20.275 STDERR [INFO] I0713 13:22:20.275404 16772 net.cpp:156] Memory required for data: 222781440
2016-07-13 13:22:20.275 STDERR [INFO] I0713 13:22:20.275411 16772 layer_factory.hpp:77] Creating layer inception_3a/5x5_reduce
2016-07-13 13:22:20.275 STDERR [INFO] I0713 13:22:20.275436 16772 net.cpp:91] Creating Layer inception_3a/5x5_reduce
2016-07-13 13:22:20.275 STDERR [INFO] I0713 13:22:20.275444 16772 net.cpp:425] inception_3a/5x5_reduce <- pool2/3x3_s2_pool2/3x3_s2_0_split_2
2016-07-13 13:22:20.275 STDERR [INFO] I0713 13:22:20.275454 16772 net.cpp:399] inception_3a/5x5_reduce -> inception_3a/5x5_reduce
2016-07-13 13:22:20.277 STDERR [INFO] I0713 13:22:20.277736 16772 net.cpp:141] Setting up inception_3a/5x5_reduce
2016-07-13 13:22:20.278 STDERR [INFO] I0713 13:22:20.277757 16772 net.cpp:148] Top shape: 10 16 28 28 (125440)
2016-07-13 13:22:20.278 STDERR [INFO] I0713 13:22:20.277763 16772 net.cpp:156] Memory required for data: 223283200
2016-07-13 13:22:20.278 STDERR [INFO] I0713 13:22:20.277773 16772 layer_factory.hpp:77] Creating layer inception_3a/relu_5x5_reduce
2016-07-13 13:22:20.278 STDERR [INFO] I0713 13:22:20.277783 16772 net.cpp:91] Creating Layer inception_3a/relu_5x5_reduce
2016-07-13 13:22:20.278 STDERR [INFO] I0713 13:22:20.277789 16772 net.cpp:425] inception_3a/relu_5x5_reduce <- inception_3a/5x5_reduce
2016-07-13 13:22:20.278 STDERR [INFO] I0713 13:22:20.277797 16772 net.cpp:386] inception_3a/relu_5x5_reduce -> inception_3a/5x5_reduce (in-place)
2016-07-13 13:22:20.278 STDERR [INFO] I0713 13:22:20.278059 16772 net.cpp:141] Setting up inception_3a/relu_5x5_reduce
2016-07-13 13:22:20.278 STDERR [INFO] I0713 13:22:20.278071 16772 net.cpp:148] Top shape: 10 16 28 28 (125440)
2016-07-13 13:22:20.278 STDERR [INFO] I0713 13:22:20.278076 16772 net.cpp:156] Memory required for data: 223784960
2016-07-13 13:22:20.278 STDERR [INFO] I0713 13:22:20.278082 16772 layer_factory.hpp:77] Creating layer inception_3a/5x5
2016-07-13 13:22:20.278 STDERR [INFO] I0713 13:22:20.278100 16772 net.cpp:91] Creating Layer inception_3a/5x5
2016-07-13 13:22:20.278 STDERR [INFO] I0713 13:22:20.278105 16772 net.cpp:425] inception_3a/5x5 <- inception_3a/5x5_reduce
2016-07-13 13:22:20.278 STDERR [INFO] I0713 13:22:20.278120 16772 net.cpp:399] inception_3a/5x5 -> inception_3a/5x5
2016-07-13 13:22:20.281 STDERR [INFO] I0713 13:22:20.281685 16772 net.cpp:141] Setting up inception_3a/5x5
2016-07-13 13:22:20.282 STDERR [INFO] I0713 13:22:20.281707 16772 net.cpp:148] Top shape: 10 32 28 28 (250880)
2016-07-13 13:22:20.282 STDERR [INFO] I0713 13:22:20.281711 16772 net.cpp:156] Memory required for data: 224788480
2016-07-13 13:22:20.282 STDERR [INFO] I0713 13:22:20.281723 16772 layer_factory.hpp:77] Creating layer inception_3a/relu_5x5
2016-07-13 13:22:20.282 STDERR [INFO] I0713 13:22:20.281734 16772 net.cpp:91] Creating Layer inception_3a/relu_5x5
2016-07-13 13:22:20.282 STDERR [INFO] I0713 13:22:20.281740 16772 net.cpp:425] inception_3a/relu_5x5 <- inception_3a/5x5
2016-07-13 13:22:20.282 STDERR [INFO] I0713 13:22:20.281749 16772 net.cpp:386] inception_3a/relu_5x5 -> inception_3a/5x5 (in-place)
2016-07-13 13:22:20.282 STDERR [INFO] I0713 13:22:20.282021 16772 net.cpp:141] Setting up inception_3a/relu_5x5
2016-07-13 13:22:20.282 STDERR [INFO] I0713 13:22:20.282037 16772 net.cpp:148] Top shape: 10 32 28 28 (250880)
2016-07-13 13:22:20.282 STDERR [INFO] I0713 13:22:20.282042 16772 net.cpp:156] Memory required for data: 225792000
2016-07-13 13:22:20.282 STDERR [INFO] I0713 13:22:20.282047 16772 layer_factory.hpp:77] Creating layer inception_3a/pool
2016-07-13 13:22:20.282 STDERR [INFO] I0713 13:22:20.282057 16772 net.cpp:91] Creating Layer inception_3a/pool
2016-07-13 13:22:20.282 STDERR [INFO] I0713 13:22:20.282061 16772 net.cpp:425] inception_3a/pool <- pool2/3x3_s2_pool2/3x3_s2_0_split_3
2016-07-13 13:22:20.282 STDERR [INFO] I0713 13:22:20.282073 16772 net.cpp:399] inception_3a/pool -> inception_3a/pool
2016-07-13 13:22:20.283 STDERR [INFO] I0713 13:22:20.282138 16772 net.cpp:141] Setting up inception_3a/pool
2016-07-13 13:22:20.283 STDERR [INFO] I0713 13:22:20.282151 16772 net.cpp:148] Top shape: 10 192 28 28 (1505280)
2016-07-13 13:22:20.283 STDERR [INFO] I0713 13:22:20.282156 16772 net.cpp:156] Memory required for data: 231813120
2016-07-13 13:22:20.283 STDERR [INFO] I0713 13:22:20.282162 16772 layer_factory.hpp:77] Creating layer inception_3a/pool_proj
2016-07-13 13:22:20.283 STDERR [INFO] I0713 13:22:20.282176 16772 net.cpp:91] Creating Layer inception_3a/pool_proj
2016-07-13 13:22:20.283 STDERR [INFO] I0713 13:22:20.282181 16772 net.cpp:425] inception_3a/pool_proj <- inception_3a/pool
2016-07-13 13:22:20.283 STDERR [INFO] I0713 13:22:20.282193 16772 net.cpp:399] inception_3a/pool_proj -> inception_3a/pool_proj
2016-07-13 13:22:20.284 STDERR [INFO] I0713 13:22:20.284446 16772 net.cpp:141] Setting up inception_3a/pool_proj
2016-07-13 13:22:20.284 STDERR [INFO] I0713 13:22:20.284464 16772 net.cpp:148] Top shape: 10 32 28 28 (250880)
2016-07-13 13:22:20.284 STDERR [INFO] I0713 13:22:20.284471 16772 net.cpp:156] Memory required for data: 232816640
2016-07-13 13:22:20.284 STDERR [INFO] I0713 13:22:20.284487 16772 layer_factory.hpp:77] Creating layer inception_3a/relu_pool_proj
2016-07-13 13:22:20.284 STDERR [INFO] I0713 13:22:20.284502 16772 net.cpp:91] Creating Layer inception_3a/relu_pool_proj
2016-07-13 13:22:20.285 STDERR [INFO] I0713 13:22:20.284508 16772 net.cpp:425] inception_3a/relu_pool_proj <- inception_3a/pool_proj
2016-07-13 13:22:20.285 STDERR [INFO] I0713 13:22:20.284518 16772 net.cpp:386] inception_3a/relu_pool_proj -> inception_3a/pool_proj (in-place)
2016-07-13 13:22:20.285 STDERR [INFO] I0713 13:22:20.285302 16772 net.cpp:141] Setting up inception_3a/relu_pool_proj
2016-07-13 13:22:20.285 STDERR [INFO] I0713 13:22:20.285320 16772 net.cpp:148] Top shape: 10 32 28 28 (250880)
2016-07-13 13:22:20.285 STDERR [INFO] I0713 13:22:20.285326 16772 net.cpp:156] Memory required for data: 233820160
2016-07-13 13:22:20.285 STDERR [INFO] I0713 13:22:20.285331 16772 layer_factory.hpp:77] Creating layer inception_3a/output
2016-07-13 13:22:20.285 STDERR [INFO] I0713 13:22:20.285352 16772 net.cpp:91] Creating Layer inception_3a/output
2016-07-13 13:22:20.285 STDERR [INFO] I0713 13:22:20.285359 16772 net.cpp:425] inception_3a/output <- inception_3a/1x1
2016-07-13 13:22:20.285 STDERR [INFO] I0713 13:22:20.285367 16772 net.cpp:425] inception_3a/output <- inception_3a/3x3
2016-07-13 13:22:20.285 STDERR [INFO] I0713 13:22:20.285374 16772 net.cpp:425] inception_3a/output <- inception_3a/5x5
2016-07-13 13:22:20.285 STDERR [INFO] I0713 13:22:20.285382 16772 net.cpp:425] inception_3a/output <- inception_3a/pool_proj
2016-07-13 13:22:20.285 STDERR [INFO] I0713 13:22:20.285388 16772 net.cpp:399] inception_3a/output -> inception_3a/output
2016-07-13 13:22:20.286 STDERR [INFO] I0713 13:22:20.285436 16772 net.cpp:141] Setting up inception_3a/output
2016-07-13 13:22:20.286 STDERR [INFO] I0713 13:22:20.285446 16772 net.cpp:148] Top shape: 10 256 28 28 (2007040)
2016-07-13 13:22:20.286 STDERR [INFO] I0713 13:22:20.285451 16772 net.cpp:156] Memory required for data: 241848320
2016-07-13 13:22:20.286 STDERR [INFO] I0713 13:22:20.285456 16772 layer_factory.hpp:77] Creating layer inception_3a/output_inception_3a/output_0_split
2016-07-13 13:22:20.286 STDERR [INFO] I0713 13:22:20.285465 16772 net.cpp:91] Creating Layer inception_3a/output_inception_3a/output_0_split
…
2016-07-13 13:22:20.286 STDERR [INFO] I0713 13:22:20.285492 16772 net.cpp:399] inception_3a/output_inception_3a/output_0_split -> inception_3a/output_inception_3a/output_0_split_1
2016-07-13 13:22:20.286 STDERR [INFO] I0713 13:22:20.285501 16772 net.cpp:399] inception_3a/output_inception_3a/output_0_split -> inception_3a/output_inception_3a/output_0_split_2
2016-07-13 13:22:20.286 STDERR [INFO] I0713 13:22:20.285511 16772 net.cpp:399] inception_3a/output_inception_3a/output_0_split -> inception_3a/output_inception_3a/output_0_split_3
2016-07-13 13:22:20.286 STDERR [INFO] I0713 13:22:20.285604 16772 net.cpp:141] Setting up inception_3a/output_inception_3a/output_0_split
2016-07-13 13:22:20.287 STDERR [INFO] I0713 13:22:20.285616 16772 net.cpp:148] Top shape: 10 256 28 28 (2007040)
2016-07-13 13:22:20.287 STDERR [INFO] I0713 13:22:20.285624 16772 net.cpp:148] Top shape: 10 256 28 28 (2007040)
2016-07-13 13:22:20.287 STDERR [INFO] I0713 13:22:20.285629 16772 net.cpp:148] Top shape: 10 256 28 28 (2007040)
2016-07-13 13:22:20.287 STDERR [INFO] I0713 13:22:20.285634 16772 net.cpp:148] Top shape: 10 256 28 28 (2007040)
2016-07-13 13:22:20.287 STDERR [INFO] I0713 13:22:20.285640 16772 net.cpp:156] Memory required for data: 273960960
2016-07-13 13:22:20.287 STDERR [INFO] I0713 13:22:20.285645 16772 layer_factory.hpp:77] Creating layer inception_3b/1x1
2016-07-13 13:22:20.287 STDERR [INFO] I0713 13:22:20.285658 16772 net.cpp:91] Creating Layer inception_3b/1x1
2016-07-13 13:22:20.287 STDERR [INFO] I0713 13:22:20.285665 16772 net.cpp:425] inception_3b/1x1 <- inception_3a/output_inception_3a/output_0_split_0
2016-07-13 13:22:20.287 STDERR [INFO] I0713 13:22:20.285675 16772 net.cpp:399] inception_3b/1x1 -> inception_3b/1x1
2016-07-13 13:22:20.288 STDERR [INFO] I0713 13:22:20.288149 16772 net.cpp:141] Setting up inception_3b/1x1
2016-07-13 13:22:20.288 STDERR [INFO] I0713 13:22:20.288169 16772 net.cpp:148] Top shape: 10 128 28 28 (1003520)
2016-07-13 13:22:20.288 STDERR [INFO] I0713 13:22:20.288177 16772 net.cpp:156] Memory required for data: 277975040
2016-07-13 13:22:20.288 STDERR [INFO] I0713 13:22:20.288188 16772 layer_factory.hpp:77] Creating layer inception_3b/relu_1x1
2016-07-13 13:22:20.288 STDERR [INFO] I0713 13:22:20.288197 16772 net.cpp:91] Creating Layer inception_3b/relu_1x1
2016-07-13 13:22:20.288 STDERR [INFO] I0713 13:22:20.288203 16772 net.cpp:425] inception_3b/relu_1x1 <- inception_3b/1x1
2016-07-13 13:22:20.288 STDERR [INFO] I0713 13:22:20.288213 16772 net.cpp:386] inception_3b/relu_1x1 -> inception_3b/1x1 (in-place)
2016-07-13 13:22:20.288 STDERR [INFO] I0713 13:22:20.288473 16772 net.cpp:141] Setting up inception_3b/relu_1x1
2016-07-13 13:22:20.288 STDERR [INFO] I0713 13:22:20.288486 16772 net.cpp:148] Top shape: 10 128 28 28 (1003520)
2016-07-13 13:22:20.288 STDERR [INFO] I0713 13:22:20.288491 16772 net.cpp:156] Memory required for data: 281989120
2016-07-13 13:22:20.289 STDERR [INFO] I0713 13:22:20.288496 16772 layer_factory.hpp:77] Creating layer inception_3b/3x3_reduce
2016-07-13 13:22:20.289 STDERR [INFO] I0713 13:22:20.288512 16772 net.cpp:91] Creating Layer inception_3b/3x3_reduce
2016-07-13 13:22:20.289 STDERR [INFO] I0713 13:22:20.288518 16772 net.cpp:425] inception_3b/3x3_reduce <- inception_3a/output_inception_3a/output_0_split_1
2016-07-13 13:22:20.289 STDERR [INFO] I0713 13:22:20.288532 16772 net.cpp:399] inception_3b/3x3_reduce -> inception_3b/3x3_reduce
2016-07-13 13:22:20.291 STDERR [INFO] I0713 13:22:20.291057 16772 net.cpp:141] Setting up inception_3b/3x3_reduce
2016-07-13 13:22:20.291 STDERR [INFO] I0713 13:22:20.291077 16772 net.cpp:148] Top shape: 10 128 28 28 (1003520)
2016-07-13 13:22:20.291 STDERR [INFO] I0713 13:22:20.291082 16772 net.cpp:156] Memory required for data: 286003200
2016-07-13 13:22:20.291 STDERR [INFO] I0713 13:22:20.291092 16772 layer_factory.hpp:77] Creating layer inception_3b/relu_3x3_reduce
2016-07-13 13:22:20.291 STDERR [INFO] I0713 13:22:20.291105 16772 net.cpp:91] Creating Layer inception_3b/relu_3x3_reduce
2016-07-13 13:22:20.291 STDERR [INFO] I0713 13:22:20.291111 16772 net.cpp:425] inception_3b/relu_3x3_reduce <- inception_3b/3x3_reduce
2016-07-13 13:22:20.291 STDERR [INFO] I0713 13:22:20.291121 16772 net.cpp:386] inception_3b/relu_3x3_reduce -> inception_3b/3x3_reduce (in-place)
2016-07-13 13:22:20.291 STDERR [INFO] I0713 13:22:20.291379 16772 net.cpp:141] Setting up inception_3b/relu_3x3_reduce
2016-07-13 13:22:20.291 STDERR [INFO] I0713 13:22:20.291393 16772 net.cpp:148] Top shape: 10 128 28 28 (1003520)
2016-07-13 13:22:20.291 STDERR [INFO] I0713 13:22:20.291398 16772 net.cpp:156] Memory required for data: 290017280
2016-07-13 13:22:20.291 STDERR [INFO] I0713 13:22:20.291404 16772 layer_factory.hpp:77] Creating layer inception_3b/3x3
2016-07-13 13:22:20.292 STDERR [INFO] I0713 13:22:20.291419 16772 net.cpp:91] Creating Layer inception_3b/3x3
2016-07-13 13:22:20.292 STDERR [INFO] I0713 13:22:20.291425 16772 net.cpp:425] inception_3b/3x3 <- inception_3b/3x3_reduce
2016-07-13 13:22:20.292 STDERR [INFO] I0713 13:22:20.291435 16772 net.cpp:399] inception_3b/3x3 -> inception_3b/3x3
2016-07-13 13:22:20.296 STDERR [INFO] I0713 13:22:20.296614 16772 net.cpp:141] Setting up inception_3b/3x3
2016-07-13 13:22:20.296 STDERR [INFO] I0713 13:22:20.296634 16772 net.cpp:148] Top shape: 10 192 28 28 (1505280)
2016-07-13 13:22:20.297 STDERR [INFO] I0713 13:22:20.296640 16772 net.cpp:156] Memory required for data: 296038400
2016-07-13 13:22:20.297 STDERR [INFO] I0713 13:22:20.296650 16772 layer_factory.hpp:77] Creating layer inception_3b/relu_3x3
2016-07-13 13:22:20.297 STDERR [INFO] I0713 13:22:20.296670 16772 net.cpp:91] Creating Layer inception_3b/relu_3x3
2016-07-13 13:22:20.297 STDERR [INFO] I0713 13:22:20.296679 16772 net.cpp:425] inception_3b/relu_3x3 <- inception_3b/3x3
2016-07-13 13:22:20.297 STDERR [INFO] I0713 13:22:20.296700 16772 net.cpp:386] inception_3b/relu_3x3 -> inception_3b/3x3 (in-place)
2016-07-13 13:22:20.297 STDERR [INFO] I0713 13:22:20.297482 16772 net.cpp:141] Setting up inception_3b/relu_3x3
2016-07-13 13:22:20.297 STDERR [INFO] I0713 13:22:20.297502 16772 net.cpp:148] Top shape: 10 192 28 28 (1505280)
2016-07-13 13:22:20.297 STDERR [INFO] I0713 13:22:20.297508 16772 net.cpp:156] Memory required for data: 302059520
2016-07-13 13:22:20.297 STDERR [INFO] I0713 13:22:20.297514 16772 layer_factory.hpp:77] Creating layer inception_3b/5x5_reduce
2016-07-13 13:22:20.297 STDERR [INFO] I0713 13:22:20.297530 16772 net.cpp:91] Creating Layer inception_3b/5x5_reduce
2016-07-13 13:22:20.297 STDERR [INFO] I0713 13:22:20.297538 16772 net.cpp:425] inception_3b/5x5_reduce <- inception_3a/output_inception_3a/output_0_split_2
2016-07-13 13:22:20.297 STDERR [INFO] I0713 13:22:20.297547 16772 net.cpp:399] inception_3b/5x5_reduce -> inception_3b/5x5_reduce
2016-07-13 13:22:20.299 STDERR [INFO] I0713 13:22:20.299860 16772 net.cpp:141] Setting up inception_3b/5x5_reduce
2016-07-13 13:22:20.300 STDERR [INFO] I0713 13:22:20.299882 16772 net.cpp:148] Top shape: 10 32 28 28 (250880)
2016-07-13 13:22:20.300 STDERR [INFO] I0713 13:22:20.299888 16772 net.cpp:156] Memory required for data: 303063040
2016-07-13 13:22:20.300 STDERR [INFO] I0713 13:22:20.299898 16772 layer_factory.hpp:77] Creating layer inception_3b/relu_5x5_reduce
2016-07-13 13:22:20.300 STDERR [INFO] I0713 13:22:20.299908 16772 net.cpp:91] Creating Layer inception_3b/relu_5x5_reduce
2016-07-13 13:22:20.300 STDERR [INFO] I0713 13:22:20.299914 16772 net.cpp:425] inception_3b/relu_5x5_reduce <- inception_3b/5x5_reduce
2016-07-13 13:22:20.300 STDERR [INFO] I0713 13:22:20.299924 16772 net.cpp:386] inception_3b/relu_5x5_reduce -> inception_3b/5x5_reduce (in-place)
2016-07-13 13:22:20.300 STDERR [INFO] I0713 13:22:20.300186 16772 net.cpp:141] Setting up inception_3b/relu_5x5_reduce
2016-07-13 13:22:20.300 STDERR [INFO] I0713 13:22:20.300199 16772 net.cpp:148] Top shape: 10 32 28 28 (250880)
2016-07-13 13:22:20.300 STDERR [INFO] I0713 13:22:20.300204 16772 net.cpp:156] Memory required for data: 304066560
2016-07-13 13:22:20.300 STDERR [INFO] I0713 13:22:20.300209 16772 layer_factory.hpp:77] Creating layer inception_3b/5x5
2016-07-13 13:22:20.300 STDERR [INFO] I0713 13:22:20.300225 16772 net.cpp:91] Creating Layer inception_3b/5x5
2016-07-13 13:22:20.300 STDERR [INFO] I0713 13:22:20.300232 16772 net.cpp:425] inception_3b/5x5 <- inception_3b/5x5_reduce
2016-07-13 13:22:20.300 STDERR [INFO] I0713 13:22:20.300246 16772 net.cpp:399] inception_3b/5x5 -> inception_3b/5x5
2016-07-13 13:22:20.304 STDERR [INFO] I0713 13:22:20.304244 16772 net.cpp:141] Setting up inception_3b/5x5
2016-07-13 13:22:20.304 STDERR [INFO] I0713 13:22:20.304265 16772 net.cpp:148] Top shape: 10 96 28 28 (752640)
2016-07-13 13:22:20.304 STDERR [INFO] I0713 13:22:20.304270 16772 net.cpp:156] Memory required for data: 307077120
2016-07-13 13:22:20.304 STDERR [INFO] I0713 13:22:20.304280 16772 layer_factory.hpp:77] Creating layer inception_3b/relu_5x5
2016-07-13 13:22:20.304 STDERR [INFO] I0713 13:22:20.304293 16772 net.cpp:91] Creating Layer inception_3b/relu_5x5
2016-07-13 13:22:20.304 STDERR [INFO] I0713 13:22:20.304301 16772 net.cpp:425] inception_3b/relu_5x5 <- inception_3b/5x5
2016-07-13 13:22:20.304 STDERR [INFO] I0713 13:22:20.304308 16772 net.cpp:386] inception_3b/relu_5x5 -> inception_3b/5x5 (in-place)
2016-07-13 13:22:20.304 STDERR [INFO] I0713 13:22:20.304572 16772 net.cpp:141] Setting up inception_3b/relu_5x5
2016-07-13 13:22:20.304 STDERR [INFO] I0713 13:22:20.304585 16772 net.cpp:148] Top shape: 10 96 28 28 (752640)
2016-07-13 13:22:20.304 STDERR [INFO] I0713 13:22:20.304590 16772 net.cpp:156] Memory required for data: 310087680
2016-07-13 13:22:20.305 STDERR [INFO] I0713 13:22:20.304596 16772 layer_factory.hpp:77] Creating layer inception_3b/pool
2016-07-13 13:22:20.305 STDERR [INFO] I0713 13:22:20.304605 16772 net.cpp:91] Creating Layer inception_3b/pool
2016-07-13 13:22:20.305 STDERR [INFO] I0713 13:22:20.304610 16772 net.cpp:425] inception_3b/pool <- inception_3a/output_inception_3a/output_0_split_3
2016-07-13 13:22:20.305 STDERR [INFO] I0713 13:22:20.304623 16772 net.cpp:399] inception_3b/pool -> inception_3b/pool
2016-07-13 13:22:20.305 STDERR [INFO] I0713 13:22:20.304687 16772 net.cpp:141] Setting up inception_3b/pool
2016-07-13 13:22:20.305 STDERR [INFO] I0713 13:22:20.304698 16772 net.cpp:148] Top shape: 10 256 28 28 (2007040)
2016-07-13 13:22:20.305 STDERR [INFO] I0713 13:22:20.304703 16772 net.cpp:156] Memory required for data: 318115840
2016-07-13 13:22:20.305 STDERR [INFO] I0713 13:22:20.304708 16772 layer_factory.hpp:77] Creating layer inception_3b/pool_proj
2016-07-13 13:22:20.305 STDERR [INFO] I0713 13:22:20.304728 16772 net.cpp:91] Creating Layer inception_3b/pool_proj
2016-07-13 13:22:20.305 STDERR [INFO] I0713 13:22:20.304734 16772 net.cpp:425] inception_3b/pool_proj <- inception_3b/pool
2016-07-13 13:22:20.305 STDERR [INFO] I0713 13:22:20.304744 16772 net.cpp:399] inception_3b/pool_proj -> inception_3b/pool_proj
2016-07-13 13:22:20.307 STDERR [INFO] I0713 13:22:20.307132 16772 net.cpp:141] Setting up inception_3b/pool_proj
2016-07-13 13:22:20.307 STDERR [INFO] I0713 13:22:20.307152 16772 net.cpp:148] Top shape: 10 64 28 28 (501760)
2016-07-13 13:22:20.307 STDERR [INFO] I0713 13:22:20.307157 16772 net.cpp:156] Memory required for data: 320122880
2016-07-13 13:22:20.307 STDERR [INFO] I0713 13:22:20.307166 16772 layer_factory.hpp:77] Creating layer inception_3b/relu_pool_proj
2016-07-13 13:22:20.307 STDERR [INFO] I0713 13:22:20.307175 16772 net.cpp:91] Creating Layer inception_3b/relu_pool_proj
2016-07-13 13:22:20.307 STDERR [INFO] I0713 13:22:20.307185 16772 net.cpp:425] inception_3b/relu_pool_proj <- inception_3b/pool_proj
2016-07-13 13:22:20.307 STDERR [INFO] I0713 13:22:20.307195 16772 net.cpp:386] inception_3b/relu_pool_proj -> inception_3b/pool_proj (in-place)
2016-07-13 13:22:20.308 STDERR [INFO] I0713 13:22:20.307979 16772 net.cpp:141] Setting up inception_3b/relu_pool_proj
2016-07-13 13:22:20.308 STDERR [INFO] I0713 13:22:20.307996 16772 net.cpp:148] Top shape: 10 64 28 28 (501760)
2016-07-13 13:22:20.308 STDERR [INFO] I0713 13:22:20.308001 16772 net.cpp:156] Memory required for data: 322129920
2016-07-13 13:22:20.308 STDERR [INFO] I0713 13:22:20.308007 16772 layer_factory.hpp:77] Creating layer inception_3b/output
2016-07-13 13:22:20.308 STDERR [INFO] I0713 13:22:20.308019 16772 net.cpp:91] Creating Layer inception_3b/output
2016-07-13 13:22:20.308 STDERR [INFO] I0713 13:22:20.308025 16772 net.cpp:425] inception_3b/output <- inception_3b/1x1
2016-07-13 13:22:20.308 STDERR [INFO] I0713 13:22:20.308033 16772 net.cpp:425] inception_3b/output <- inception_3b/3x3
2016-07-13 13:22:20.308 STDERR [INFO] I0713 13:22:20.308039 16772 net.cpp:425] inception_3b/output <- inception_3b/5x5
2016-07-13 13:22:20.308 STDERR [INFO] I0713 13:22:20.308045 16772 net.cpp:425] inception_3b/output <- inception_3b/pool_proj
2016-07-13 13:22:20.308 STDERR [INFO] I0713 13:22:20.308053 16772 net.cpp:399] inception_3b/output -> inception_3b/output
2016-07-13 13:22:20.308 STDERR [INFO] I0713 13:22:20.308094 16772 net.cpp:141] Setting up inception_3b/output
2016-07-13 13:22:20.308 STDERR [INFO] I0713 13:22:20.308106 16772 net.cpp:148] Top shape: 10 480 28 28 (3763200)
2016-07-13 13:22:20.308 STDERR [INFO] I0713 13:22:20.308111 16772 net.cpp:156] Memory required for data: 337182720
2016-07-13 13:22:20.308 STDERR [INFO] I0713 13:22:20.308117 16772 layer_factory.hpp:77] Creating layer pool3/3x3_s2
2016-07-13 13:22:20.308 STDERR [INFO] I0713 13:22:20.308128 16772 net.cpp:91] Creating Layer pool3/3x3_s2
2016-07-13 13:22:20.309 STDERR [INFO] I0713 13:22:20.308135 16772 net.cpp:425] pool3/3x3_s2 <- inception_3b/output
2016-07-13 13:22:20.309 STDERR [INFO] I0713 13:22:20.308145 16772 net.cpp:399] pool3/3x3_s2 -> pool3/3x3_s2
2016-07-13 13:22:20.309 STDERR [INFO] I0713 13:22:20.308209 16772 net.cpp:141] Setting up pool3/3x3_s2
2016-07-13 13:22:20.309 STDERR [INFO] I0713 13:22:20.308220 16772 net.cpp:148] Top shape: 10 480 14 14 (940800)
2016-07-13 13:22:20.309 STDERR [INFO] I0713 13:22:20.308225 16772 net.cpp:156] Memory required for data: 340945920
2016-07-13 13:22:20.309 STDERR [INFO] I0713 13:22:20.308230 16772 layer_factory.hpp:77] Creating layer pool3/3x3_s2_pool3/3x3_s2_0_split
2016-07-13 13:22:20.309 STDERR [INFO] I0713 13:22:20.308238 16772 net.cpp:91] Creating Layer pool3/3x3_s2_pool3/3x3_s2_0_split
2016-07-13 13:22:20.309 STDERR [INFO] I0713 13:22:20.308244 16772 net.cpp:425] pool3/3x3_s2_pool3/3x3_s2_0_split <- pool3/3x3_s2
2016-07-13 13:22:20.309 STDERR [INFO] I0713 13:22:20.308255 16772 net.cpp:399] pool3/3x3_s2_pool3/3x3_s2_0_split -> pool3/3x3_s2_pool3/3x3_s2_0_split_0
2016-07-13 13:22:20.309 STDERR [INFO] I0713 13:22:20.308264 16772 net.cpp:399] pool3/3x3_s2_pool3/3x3_s2_0_split -> pool3/3x3_s2_pool3/3x3_s2_0_split_1
2016-07-13 13:22:20.309 STDERR [INFO] I0713 13:22:20.308274 16772 net.cpp:399] pool3/3x3_s2_pool3/3x3_s2_0_split -> pool3/3x3_s2_pool3/3x3_s2_0_split_2
2016-07-13 13:22:20.309 STDERR [INFO] I0713 13:22:20.308282 16772 net.cpp:399] pool3/3x3_s2_pool3/3x3_s2_0_split -> pool3/3x3_s2_pool3/3x3_s2_0_split_3
2016-07-13 13:22:20.309 STDERR [INFO] I0713 13:22:20.308372 16772 net.cpp:141] Setting up pool3/3x3_s2_pool3/3x3_s2_0_split
2016-07-13 13:22:20.309 STDERR [INFO] I0713 13:22:20.308382 16772 net.cpp:148] Top shape: 10 480 14 14 (940800)
2016-07-13 13:22:20.309 STDERR [INFO] I0713 13:22:20.308387 16772 net.cpp:148] Top shape: 10 480 14 14 (940800)
2016-07-13 13:22:20.309 STDERR [INFO] I0713 13:22:20.308393 16772 net.cpp:148] Top shape: 10 480 14 14 (940800)
2016-07-13 13:22:20.309 STDERR [INFO] I0713 13:22:20.308398 16772 net.cpp:148] Top shape: 10 480 14 14 (940800)
2016-07-13 13:22:20.309 STDERR [INFO] I0713 13:22:20.308403 16772 net.cpp:156] Memory required for data: 355998720
2016-07-13 13:22:20.309 STDERR [INFO] I0713 13:22:20.308408 16772 layer_factory.hpp:77] Creating layer inception_4a/1x1
2016-07-13 13:22:20.309 STDERR [INFO] I0713 13:22:20.308425 16772 net.cpp:91] Creating Layer inception_4a/1x1
2016-07-13 13:22:20.310 STDERR [INFO] I0713 13:22:20.308432 16772 net.cpp:425] inception_4a/1x1 <- pool3/3x3_s2_pool3/3x3_s2_0_split_0
2016-07-13 13:22:20.310 STDERR [INFO] I0713 13:22:20.308442 16772 net.cpp:399] inception_4a/1x1 -> inception_4a/1x1
2016-07-13 13:22:20.312 STDERR [INFO] I0713 13:22:20.312091 16772 net.cpp:141] Setting up inception_4a/1x1
2016-07-13 13:22:20.312 STDERR [INFO] I0713 13:22:20.312111 16772 net.cpp:148] Top shape: 10 192 14 14 (376320)
2016-07-13 13:22:20.312 STDERR [INFO] I0713 13:22:20.312117 16772 net.cpp:156] Memory required for data: 357504000
2016-07-13 13:22:20.312 STDERR [INFO] I0713 13:22:20.312126 16772 layer_factory.hpp:77] Creating layer inception_4a/relu_1x1
2016-07-13 13:22:20.313 STDERR [INFO] I0713 13:22:20.312136 16772 net.cpp:91] Creating Layer inception_4a/relu_1x1
2016-07-13 13:22:20.313 STDERR [INFO] I0713 13:22:20.312144 16772 net.cpp:425] inception_4a/relu_1x1 <- inception_4a/1x1
2016-07-13 13:22:20.313 STDERR [INFO] I0713 13:22:20.312155 16772 net.cpp:386] inception_4a/relu_1x1 -> inception_4a/1x1 (in-place)
2016-07-13 13:22:20.313 STDERR [INFO] I0713 13:22:20.312417 16772 net.cpp:141] Setting up inception_4a/relu_1x1
2016-07-13 13:22:20.313 STDERR [INFO] I0713 13:22:20.312433 16772 net.cpp:148] Top shape: 10 192 14 14 (376320)
2016-07-13 13:22:20.313 STDERR [INFO] I0713 13:22:20.312438 16772 net.cpp:156] Memory required for data: 359009280
2016-07-13 13:22:20.313 STDERR [INFO] I0713 13:22:20.312443 16772 layer_factory.hpp:77] Creating layer inception_4a/3x3_reduce
2016-07-13 13:22:20.313 STDERR [INFO] I0713 13:22:20.312459 16772 net.cpp:91] Creating Layer inception_4a/3x3_reduce
2016-07-13 13:22:20.313 STDERR [INFO] I0713 13:22:20.312466 16772 net.cpp:425] inception_4a/3x3_reduce <- pool3/3x3_s2_pool3/3x3_s2_0_split_1
2016-07-13 13:22:20.313 STDERR [INFO] I0713 13:22:20.312476 16772 net.cpp:399] inception_4a/3x3_reduce -> inception_4a/3x3_reduce
2016-07-13 13:22:20.315 STDERR [INFO] I0713 13:22:20.315171 16772 net.cpp:141] Setting up inception_4a/3x3_reduce
2016-07-13 13:22:20.315 STDERR [INFO] I0713 13:22:20.315189 16772 net.cpp:148] Top shape: 10 96 14 14 (188160)
2016-07-13 13:22:20.315 STDERR [INFO] I0713 13:22:20.315196 16772 net.cpp:156] Memory required for data: 359761920
2016-07-13 13:22:20.315 STDERR [INFO] I0713 13:22:20.315215 16772 layer_factory.hpp:77] Creating layer inception_4a/relu_3x3_reduce
2016-07-13 13:22:20.315 STDERR [INFO] I0713 13:22:20.315227 16772 net.cpp:91] Creating Layer inception_4a/relu_3x3_reduce
2016-07-13 13:22:20.315 STDERR [INFO] I0713 13:22:20.315233 16772 net.cpp:425] inception_4a/relu_3x3_reduce <- inception_4a/3x3_reduce
2016-07-13 13:22:20.315 STDERR [INFO] I0713 13:22:20.315244 16772 net.cpp:386] inception_4a/relu_3x3_reduce -> inception_4a/3x3_reduce (in-place)
2016-07-13 13:22:20.315 STDERR [INFO] I0713 13:22:20.315500 16772 net.cpp:141] Setting up inception_4a/relu_3x3_reduce
2016-07-13 13:22:20.315 STDERR [INFO] I0713 13:22:20.315513 16772 net.cpp:148] Top shape: 10 96 14 14 (188160)
2016-07-13 13:22:20.315 STDERR [INFO] I0713 13:22:20.315518 16772 net.cpp:156] Memory required for data: 360514560
2016-07-13 13:22:20.315 STDERR [INFO] I0713 13:22:20.315523 16772 layer_factory.hpp:77] Creating layer inception_4a/3x3
2016-07-13 13:22:20.315 STDERR [INFO] I0713 13:22:20.315543 16772 net.cpp:91] Creating Layer inception_4a/3x3
2016-07-13 13:22:20.315 STDERR [INFO] I0713 13:22:20.315551 16772 net.cpp:425] inception_4a/3x3 <- inception_4a/3x3_reduce
2016-07-13 13:22:20.316 STDERR [INFO] I0713 13:22:20.315560 16772 net.cpp:399] inception_4a/3x3 -> inception_4a/3x3
2016-07-13 13:22:20.320 STDERR [INFO] I0713 13:22:20.320447 16772 net.cpp:141] Setting up inception_4a/3x3
2016-07-13 13:22:20.320 STDERR [INFO] I0713 13:22:20.320467 16772 net.cpp:148] Top shape: 10 208 14 14 (407680)
2016-07-13 13:22:20.320 STDERR [INFO] I0713 13:22:20.320473 16772 net.cpp:156] Memory required for data: 362145280
2016-07-13 13:22:20.320 STDERR [INFO] I0713 13:22:20.320483 16772 layer_factory.hpp:77] Creating layer inception_4a/relu_3x3
2016-07-13 13:22:20.320 STDERR [INFO] I0713 13:22:20.320497 16772 net.cpp:91] Creating Layer inception_4a/relu_3x3
2016-07-13 13:22:20.320 STDERR [INFO] I0713 13:22:20.320504 16772 net.cpp:425] inception_4a/relu_3x3 <- inception_4a/3x3
2016-07-13 13:22:20.320 STDERR [INFO] I0713 13:22:20.320513 16772 net.cpp:386] inception_4a/relu_3x3 -> inception_4a/3x3 (in-place)
2016-07-13 13:22:20.321 STDERR [INFO] I0713 13:22:20.321297 16772 net.cpp:141] Setting up inception_4a/relu_3x3
2016-07-13 13:22:20.321 STDERR [INFO] I0713 13:22:20.321316 16772 net.cpp:148] Top shape: 10 208 14 14 (407680)
2016-07-13 13:22:20.321 STDERR [INFO] I0713 13:22:20.321321 16772 net.cpp:156] Memory required for data: 363776000
2016-07-13 13:22:20.321 STDERR [INFO] I0713 13:22:20.321326 16772 layer_factory.hpp:77] Creating layer inception_4a/5x5_reduce
2016-07-13 13:22:20.321 STDERR [INFO] I0713 13:22:20.321346 16772 net.cpp:91] Creating Layer inception_4a/5x5_reduce
2016-07-13 13:22:20.321 STDERR [INFO] I0713 13:22:20.321353 16772 net.cpp:425] inception_4a/5x5_reduce <- pool3/3x3_s2_pool3/3x3_s2_0_split_2
2016-07-13 13:22:20.321 STDERR [INFO] I0713 13:22:20.321363 16772 net.cpp:399] inception_4a/5x5_reduce -> inception_4a/5x5_reduce
2016-07-13 13:22:20.323 STDERR [INFO] I0713 13:22:20.323719 16772 net.cpp:141] Setting up inception_4a/5x5_reduce
2016-07-13 13:22:20.323 STDERR [INFO] I0713 13:22:20.323737 16772 net.cpp:148] Top shape: 10 16 14 14 (31360)
2016-07-13 13:22:20.324 STDERR [INFO] I0713 13:22:20.323743 16772 net.cpp:156] Memory required for data: 363901440
2016-07-13 13:22:20.324 STDERR [INFO] I0713 13:22:20.323753 16772 layer_factory.hpp:77] Creating layer inception_4a/relu_5x5_reduce
2016-07-13 13:22:20.324 STDERR [INFO] I0713 13:22:20.323765 16772 net.cpp:91] Creating Layer inception_4a/relu_5x5_reduce
2016-07-13 13:22:20.324 STDERR [INFO] I0713 13:22:20.323771 16772 net.cpp:425] inception_4a/relu_5x5_reduce <- inception_4a/5x5_reduce
2016-07-13 13:22:20.324 STDERR [INFO] I0713 13:22:20.323781 16772 net.cpp:386] inception_4a/relu_5x5_reduce -> inception_4a/5x5_reduce (in-place)
2016-07-13 13:22:20.324 STDERR [INFO] I0713 13:22:20.324041 16772 net.cpp:141] Setting up inception_4a/relu_5x5_reduce
2016-07-13 13:22:20.324 STDERR [INFO] I0713 13:22:20.324057 16772 net.cpp:148] Top shape: 10 16 14 14 (31360)
2016-07-13 13:22:20.324 STDERR [INFO] I0713 13:22:20.324064 16772 net.cpp:156] Memory required for data: 364026880
2016-07-13 13:22:20.324 STDERR [INFO] I0713 13:22:20.324069 16772 layer_factory.hpp:77] Creating layer inception_4a/5x5
2016-07-13 13:22:20.324 STDERR [INFO] I0713 13:22:20.324084 16772 net.cpp:91] Creating Layer inception_4a/5x5
2016-07-13 13:22:20.324 STDERR [INFO] I0713 13:22:20.324091 16772 net.cpp:425] inception_4a/5x5 <- inception_4a/5x5_reduce
2016-07-13 13:22:20.324 STDERR [INFO] I0713 13:22:20.324100 16772 net.cpp:399] inception_4a/5x5 -> inception_4a/5x5
2016-07-13 13:22:20.326 STDERR [INFO] I0713 13:22:20.326531 16772 net.cpp:141] Setting up inception_4a/5x5
2016-07-13 13:22:20.326 STDERR [INFO] I0713 13:22:20.326550 16772 net.cpp:148] Top shape: 10 48 14 14 (94080)
2016-07-13 13:22:20.327 STDERR [INFO] I0713 13:22:20.326555 16772 net.cpp:156] Memory required for data: 364403200
2016-07-13 13:22:20.327 STDERR [INFO] I0713 13:22:20.326565 16772 layer_factory.hpp:77] Creating layer inception_4a/relu_5x5
2016-07-13 13:22:20.327 STDERR [INFO] I0713 13:22:20.326580 16772 net.cpp:91] Creating Layer inception_4a/relu_5x5
2016-07-13 13:22:20.327 STDERR [INFO] I0713 13:22:20.326586 16772 net.cpp:425] inception_4a/relu_5x5 <- inception_4a/5x5
2016-07-13 13:22:20.327 STDERR [INFO] I0713 13:22:20.326594 16772 net.cpp:386] inception_4a/relu_5x5 -> inception_4a/5x5 (in-place)
2016-07-13 13:22:20.327 STDERR [INFO] I0713 13:22:20.326874 16772 net.cpp:141] Setting up inception_4a/relu_5x5
2016-07-13 13:22:20.327 STDERR [INFO] I0713 13:22:20.326887 16772 net.cpp:148] Top shape: 10 48 14 14 (94080)
2016-07-13 13:22:20.327 STDERR [INFO] I0713 13:22:20.326894 16772 net.cpp:156] Memory required for data: 364779520
2016-07-13 13:22:20.327 STDERR [INFO] I0713 13:22:20.326899 16772 layer_factory.hpp:77] Creating layer inception_4a/pool
2016-07-13 13:22:20.327 STDERR [INFO] I0713 13:22:20.326907 16772 net.cpp:91] Creating Layer inception_4a/pool
2016-07-13 13:22:20.328 STDERR [INFO] I0713 13:22:20.326913 16772 net.cpp:425] inception_4a/pool <- pool3/3x3_s2_pool3/3x3_s2_0_split_3
2016-07-13 13:22:20.328 STDERR [INFO] I0713 13:22:20.326925 16772 net.cpp:399] inception_4a/pool -> inception_4a/pool
2016-07-13 13:22:20.328 STDERR [INFO] I0713 13:22:20.326997 16772 net.cpp:141] Setting up inception_4a/pool
2016-07-13 13:22:20.328 STDERR [INFO] I0713 13:22:20.327008 16772 net.cpp:148] Top shape: 10 480 14 14 (940800)
2016-07-13 13:22:20.328 STDERR [INFO] I0713 13:22:20.327013 16772 net.cpp:156] Memory required for data: 368542720
2016-07-13 13:22:20.328 STDERR [INFO] I0713 13:22:20.327018 16772 layer_factory.hpp:77] Creating layer inception_4a/pool_proj
2016-07-13 13:22:20.328 STDERR [INFO] I0713 13:22:20.327033 16772 net.cpp:91] Creating Layer inception_4a/pool_proj
2016-07-13 13:22:20.328 STDERR [INFO] I0713 13:22:20.327039 16772 net.cpp:425] inception_4a/pool_proj <- inception_4a/pool
2016-07-13 13:22:20.328 STDERR [INFO] I0713 13:22:20.327049 16772 net.cpp:399] inception_4a/pool_proj -> inception_4a/pool_proj
2016-07-13 13:22:20.329 STDERR [INFO] I0713 13:22:20.329577 16772 net.cpp:141] Setting up inception_4a/pool_proj
2016-07-13 13:22:20.329 STDERR [INFO] I0713 13:22:20.329596 16772 net.cpp:148] Top shape: 10 64 14 14 (125440)
2016-07-13 13:22:20.330 STDERR [INFO] I0713 13:22:20.329602 16772 net.cpp:156] Memory required for data: 369044480
2016-07-13 13:22:20.330 STDERR [INFO] I0713 13:22:20.329612 16772 layer_factory.hpp:77] Creating layer inception_4a/relu_pool_proj
2016-07-13 13:22:20.330 STDERR [INFO] I0713 13:22:20.329622 16772 net.cpp:91] Creating Layer inception_4a/relu_pool_proj
2016-07-13 13:22:20.330 STDERR [INFO] I0713 13:22:20.329627 16772 net.cpp:425] inception_4a/relu_pool_proj <- inception_4a/pool_proj
2016-07-13 13:22:20.330 STDERR [INFO] I0713 13:22:20.329635 16772 net.cpp:386] inception_4a/relu_pool_proj -> inception_4a/pool_proj (in-place)
2016-07-13 13:22:20.330 STDERR [INFO] I0713 13:22:20.330433 16772 net.cpp:141] Setting up inception_4a/relu_pool_proj
2016-07-13 13:22:20.330 STDERR [INFO] I0713 13:22:20.330448 16772 net.cpp:148] Top shape: 10 64 14 14 (125440)
2016-07-13 13:22:20.330 STDERR [INFO] I0713 13:22:20.330453 16772 net.cpp:156] Memory required for data: 369546240
2016-07-13 13:22:20.330 STDERR [INFO] I0713 13:22:20.330459 16772 layer_factory.hpp:77] Creating layer inception_4a/output
2016-07-13 13:22:20.330 STDERR [INFO] I0713 13:22:20.330468 16772 net.cpp:91] Creating Layer inception_4a/output
2016-07-13 13:22:20.331 STDERR [INFO] I0713 13:22:20.330474 16772 net.cpp:425] inception_4a/output <- inception_4a/1x1
2016-07-13 13:22:20.331 STDERR [INFO] I0713 13:22:20.330482 16772 net.cpp:425] inception_4a/output <- inception_4a/3x3
2016-07-13 13:22:20.331 STDERR [INFO] I0713 13:22:20.330487 16772 net.cpp:425] inception_4a/output <- inception_4a/5x5
2016-07-13 13:22:20.331 STDERR [INFO] I0713 13:22:20.330495 16772 net.cpp:425] inception_4a/output <- inception_4a/pool_proj
2016-07-13 13:22:20.331 STDERR [INFO] I0713 13:22:20.330507 16772 net.cpp:399] inception_4a/output -> inception_4a/output
2016-07-13 13:22:20.331 STDERR [INFO] I0713 13:22:20.330551 16772 net.cpp:141] Setting up inception_4a/output
2016-07-13 13:22:20.331 STDERR [INFO] I0713 13:22:20.330565 16772 net.cpp:148] Top shape: 10 512 14 14 (1003520)
2016-07-13 13:22:20.331 STDERR [INFO] I0713 13:22:20.330570 16772 net.cpp:156] Memory required for data: 373560320
2016-07-13 13:22:20.331 STDERR [INFO] I0713 13:22:20.330575 16772 layer_factory.hpp:77] Creating layer inception_4a/output_inception_4a/output_0_split
2016-07-13 13:22:20.331 STDERR [INFO] I0713 13:22:20.330585 16772 net.cpp:91] Creating Layer inception_4a/output_inception_4a/output_0_split
…
2016-07-13 13:22:20.331 STDERR [INFO] I0713 13:22:20.330607 16772 net.cpp:399] inception_4a/output_inception_4a/output_0_split -> inception_4a/output_inception_4a/output_0_split_1
2016-07-13 13:22:20.331 STDERR [INFO] I0713 13:22:20.330616 16772 net.cpp:399] inception_4a/output_inception_4a/output_0_split -> inception_4a/output_inception_4a/output_0_split_2
2016-07-13 13:22:20.331 STDERR [INFO] I0713 13:22:20.330629 16772 net.cpp:399] inception_4a/output_inception_4a/output_0_split -> inception_4a/output_inception_4a/output_0_split_3
2016-07-13 13:22:20.332 STDERR [INFO] I0713 13:22:20.330747 16772 net.cpp:141] Setting up inception_4a/output_inception_4a/output_0_split
2016-07-13 13:22:20.332 STDERR [INFO] I0713 13:22:20.330759 16772 net.cpp:148] Top shape: 10 512 14 14 (1003520)
2016-07-13 13:22:20.332 STDERR [INFO] I0713 13:22:20.330765 16772 net.cpp:148] Top shape: 10 512 14 14 (1003520)
2016-07-13 13:22:20.332 STDERR [INFO] I0713 13:22:20.330770 16772 net.cpp:148] Top shape: 10 512 14 14 (1003520)
2016-07-13 13:22:20.332 STDERR [INFO] I0713 13:22:20.330776 16772 net.cpp:148] Top shape: 10 512 14 14 (1003520)
2016-07-13 13:22:20.332 STDERR [INFO] I0713 13:22:20.330781 16772 net.cpp:156] Memory required for data: 389616640
2016-07-13 13:22:20.332 STDERR [INFO] I0713 13:22:20.330786 16772 layer_factory.hpp:77] Creating layer inception_4b/1x1
2016-07-13 13:22:20.332 STDERR [INFO] I0713 13:22:20.330802 16772 net.cpp:91] Creating Layer inception_4b/1x1
2016-07-13 13:22:20.332 STDERR [INFO] I0713 13:22:20.330808 16772 net.cpp:425] inception_4b/1x1 <- inception_4a/output_inception_4a/output_0_split_0
2016-07-13 13:22:20.332 STDERR [INFO] I0713 13:22:20.330821 16772 net.cpp:399] inception_4b/1x1 -> inception_4b/1x1
2016-07-13 13:22:20.333 STDERR [INFO] I0713 13:22:20.333783 16772 net.cpp:141] Setting up inception_4b/1x1
2016-07-13 13:22:20.334 STDERR [INFO] I0713 13:22:20.333802 16772 net.cpp:148] Top shape: 10 160 14 14 (313600)
2016-07-13 13:22:20.334 STDERR [INFO] I0713 13:22:20.333807 16772 net.cpp:156] Memory required for data: 390871040
2016-07-13 13:22:20.334 STDERR [INFO] I0713 13:22:20.333817 16772 layer_factory.hpp:77] Creating layer inception_4b/relu_1x1
2016-07-13 13:22:20.334 STDERR [INFO] I0713 13:22:20.333829 16772 net.cpp:91] Creating Layer inception_4b/relu_1x1
2016-07-13 13:22:20.334 STDERR [INFO] I0713 13:22:20.333837 16772 net.cpp:425] inception_4b/relu_1x1 <- inception_4b/1x1
2016-07-13 13:22:20.334 STDERR [INFO] I0713 13:22:20.333844 16772 net.cpp:386] inception_4b/relu_1x1 -> inception_4b/1x1 (in-place)
2016-07-13 13:22:20.334 STDERR [INFO] I0713 13:22:20.334110 16772 net.cpp:141] Setting up inception_4b/relu_1x1
2016-07-13 13:22:20.334 STDERR [INFO] I0713 13:22:20.334121 16772 net.cpp:148] Top shape: 10 160 14 14 (313600)
2016-07-13 13:22:20.334 STDERR [INFO] I0713 13:22:20.334126 16772 net.cpp:156] Memory required for data: 392125440
2016-07-13 13:22:20.334 STDERR [INFO] I0713 13:22:20.334132 16772 layer_factory.hpp:77] Creating layer inception_4b/3x3_reduce
2016-07-13 13:22:20.334 STDERR [INFO] I0713 13:22:20.334151 16772 net.cpp:91] Creating Layer inception_4b/3x3_reduce
2016-07-13 13:22:20.334 STDERR [INFO] I0713 13:22:20.334157 16772 net.cpp:425] inception_4b/3x3_reduce <- inception_4a/output_inception_4a/output_0_split_1
2016-07-13 13:22:20.335 STDERR [INFO] I0713 13:22:20.334168 16772 net.cpp:399] inception_4b/3x3_reduce -> inception_4b/3x3_reduce
2016-07-13 13:22:20.337 STDERR [INFO] I0713 13:22:20.336941 16772 net.cpp:141] Setting up inception_4b/3x3_reduce
2016-07-13 13:22:20.337 STDERR [INFO] I0713 13:22:20.336964 16772 net.cpp:148] Top shape: 10 112 14 14 (219520)
2016-07-13 13:22:20.337 STDERR [INFO] I0713 13:22:20.336971 16772 net.cpp:156] Memory required for data: 393003520
2016-07-13 13:22:20.337 STDERR [INFO] I0713 13:22:20.336980 16772 layer_factory.hpp:77] Creating layer inception_4b/relu_3x3_reduce
2016-07-13 13:22:20.337 STDERR [INFO] I0713 13:22:20.336989 16772 net.cpp:91] Creating Layer inception_4b/relu_3x3_reduce
2016-07-13 13:22:20.337 STDERR [INFO] I0713 13:22:20.336997 16772 net.cpp:425] inception_4b/relu_3x3_reduce <- inception_4b/3x3_reduce
2016-07-13 13:22:20.337 STDERR [INFO] I0713 13:22:20.337007 16772 net.cpp:386] inception_4b/relu_3x3_reduce -> inception_4b/3x3_reduce (in-place)
2016-07-13 13:22:20.337 STDERR [INFO] I0713 13:22:20.337268 16772 net.cpp:141] Setting up inception_4b/relu_3x3_reduce
2016-07-13 13:22:20.337 STDERR [INFO] I0713 13:22:20.337281 16772 net.cpp:148] Top shape: 10 112 14 14 (219520)
2016-07-13 13:22:20.337 STDERR [INFO] I0713 13:22:20.337286 16772 net.cpp:156] Memory required for data: 393881600
2016-07-13 13:22:20.337 STDERR [INFO] I0713 13:22:20.337292 16772 layer_factory.hpp:77] Creating layer inception_4b/3x3
2016-07-13 13:22:20.337 STDERR [INFO] I0713 13:22:20.337311 16772 net.cpp:91] Creating Layer inception_4b/3x3
2016-07-13 13:22:20.337 STDERR [INFO] I0713 13:22:20.337317 16772 net.cpp:425] inception_4b/3x3 <- inception_4b/3x3_reduce
2016-07-13 13:22:20.337 STDERR [INFO] I0713 13:22:20.337327 16772 net.cpp:399] inception_4b/3x3 -> inception_4b/3x3
2016-07-13 13:22:20.343 STDERR [INFO] I0713 13:22:20.343209 16772 net.cpp:141] Setting up inception_4b/3x3
2016-07-13 13:22:20.343 STDERR [INFO] I0713 13:22:20.343230 16772 net.cpp:148] Top shape: 10 224 14 14 (439040)
2016-07-13 13:22:20.343 STDERR [INFO] I0713 13:22:20.343235 16772 net.cpp:156] Memory required for data: 395637760
2016-07-13 13:22:20.343 STDERR [INFO] I0713 13:22:20.343245 16772 layer_factory.hpp:77] Creating layer inception_4b/relu_3x3
2016-07-13 13:22:20.343 STDERR [INFO] I0713 13:22:20.343260 16772 net.cpp:91] Creating Layer inception_4b/relu_3x3
2016-07-13 13:22:20.343 STDERR [INFO] I0713 13:22:20.343266 16772 net.cpp:425] inception_4b/relu_3x3 <- inception_4b/3x3
2016-07-13 13:22:20.343 STDERR [INFO] I0713 13:22:20.343274 16772 net.cpp:386] inception_4b/relu_3x3 -> inception_4b/3x3 (in-place)
2016-07-13 13:22:20.344 STDERR [INFO] I0713 13:22:20.344074 16772 net.cpp:141] Setting up inception_4b/relu_3x3
2016-07-13 13:22:20.344 STDERR [INFO] I0713 13:22:20.344092 16772 net.cpp:148] Top shape: 10 224 14 14 (439040)
2016-07-13 13:22:20.344 STDERR [INFO] I0713 13:22:20.344099 16772 net.cpp:156] Memory required for data: 397393920
2016-07-13 13:22:20.344 STDERR [INFO] I0713 13:22:20.344104 16772 layer_factory.hpp:77] Creating layer inception_4b/5x5_reduce
2016-07-13 13:22:20.344 STDERR [INFO] I0713 13:22:20.344130 16772 net.cpp:91] Creating Layer inception_4b/5x5_reduce
2016-07-13 13:22:20.344 STDERR [INFO] I0713 13:22:20.344136 16772 net.cpp:425] inception_4b/5x5_reduce <- inception_4a/output_inception_4a/output_0_split_2
2016-07-13 13:22:20.344 STDERR [INFO] I0713 13:22:20.344151 16772 net.cpp:399] inception_4b/5x5_reduce -> inception_4b/5x5_reduce
2016-07-13 13:22:20.346 STDERR [INFO] I0713 13:22:20.346586 16772 net.cpp:141] Setting up inception_4b/5x5_reduce
2016-07-13 13:22:20.346 STDERR [INFO] I0713 13:22:20.346606 16772 net.cpp:148] Top shape: 10 24 14 14 (47040)
2016-07-13 13:22:20.346 STDERR [INFO] I0713 13:22:20.346611 16772 net.cpp:156] Memory required for data: 397582080
2016-07-13 13:22:20.347 STDERR [INFO] I0713 13:22:20.346622 16772 layer_factory.hpp:77] Creating layer inception_4b/relu_5x5_reduce
2016-07-13 13:22:20.347 STDERR [INFO] I0713 13:22:20.346633 16772 net.cpp:91] Creating Layer inception_4b/relu_5x5_reduce
2016-07-13 13:22:20.347 STDERR [INFO] I0713 13:22:20.346642 16772 net.cpp:425] inception_4b/relu_5x5_reduce <- inception_4b/5x5_reduce
2016-07-13 13:22:20.347 STDERR [INFO] I0713 13:22:20.346654 16772 net.cpp:386] inception_4b/relu_5x5_reduce -> inception_4b/5x5_reduce (in-place)
2016-07-13 13:22:20.347 STDERR [INFO] I0713 13:22:20.346940 16772 net.cpp:141] Setting up inception_4b/relu_5x5_reduce
2016-07-13 13:22:20.347 STDERR [INFO] I0713 13:22:20.346953 16772 net.cpp:148] Top shape: 10 24 14 14 (47040)
2016-07-13 13:22:20.347 STDERR [INFO] I0713 13:22:20.346961 16772 net.cpp:156] Memory required for data: 397770240
2016-07-13 13:22:20.347 STDERR [INFO] I0713 13:22:20.346967 16772 layer_factory.hpp:77] Creating layer inception_4b/5x5
2016-07-13 13:22:20.347 STDERR [INFO] I0713 13:22:20.346982 16772 net.cpp:91] Creating Layer inception_4b/5x5
2016-07-13 13:22:20.347 STDERR [INFO] I0713 13:22:20.346987 16772 net.cpp:425] inception_4b/5x5 <- inception_4b/5x5_reduce
2016-07-13 13:22:20.347 STDERR [INFO] I0713 13:22:20.347002 16772 net.cpp:399] inception_4b/5x5 -> inception_4b/5x5
2016-07-13 13:22:20.351 STDERR [INFO] I0713 13:22:20.351853 16772 net.cpp:141] Setting up inception_4b/5x5
2016-07-13 13:22:20.352 STDERR [INFO] I0713 13:22:20.351900 16772 net.cpp:148] Top shape: 10 64 14 14 (125440)
2016-07-13 13:22:20.352 STDERR [INFO] I0713 13:22:20.351907 16772 net.cpp:156] Memory required for data: 398272000
2016-07-13 13:22:20.352 STDERR [INFO] I0713 13:22:20.351924 16772 layer_factory.hpp:77] Creating layer inception_4b/relu_5x5
2016-07-13 13:22:20.352 STDERR [INFO] I0713 13:22:20.351948 16772 net.cpp:91] Creating Layer inception_4b/relu_5x5
2016-07-13 13:22:20.352 STDERR [INFO] I0713 13:22:20.351956 16772 net.cpp:425] inception_4b/relu_5x5 <- inception_4b/5x5
2016-07-13 13:22:20.352 STDERR [INFO] I0713 13:22:20.351969 16772 net.cpp:386] inception_4b/relu_5x5 -> inception_4b/5x5 (in-place)
2016-07-13 13:22:20.352 STDERR [INFO] I0713 13:22:20.352252 16772 net.cpp:141] Setting up inception_4b/relu_5x5
2016-07-13 13:22:20.352 STDERR [INFO] I0713 13:22:20.352264 16772 net.cpp:148] Top shape: 10 64 14 14 (125440)
2016-07-13 13:22:20.352 STDERR [INFO] I0713 13:22:20.352268 16772 net.cpp:156] Memory required for data: 398773760
2016-07-13 13:22:20.352 STDERR [INFO] I0713 13:22:20.352274 16772 layer_factory.hpp:77] Creating layer inception_4b/pool
2016-07-13 13:22:20.352 STDERR [INFO] I0713 13:22:20.352286 16772 net.cpp:91] Creating Layer inception_4b/pool
2016-07-13 13:22:20.352 STDERR [INFO] I0713 13:22:20.352293 16772 net.cpp:425] inception_4b/pool <- inception_4a/output_inception_4a/output_0_split_3
2016-07-13 13:22:20.352 STDERR [INFO] I0713 13:22:20.352305 16772 net.cpp:399] inception_4b/pool -> inception_4b/pool
2016-07-13 13:22:20.352 STDERR [INFO] I0713 13:22:20.352401 16772 net.cpp:141] Setting up inception_4b/pool
2016-07-13 13:22:20.353 STDERR [INFO] I0713 13:22:20.352412 16772 net.cpp:148] Top shape: 10 512 14 14 (1003520)
2016-07-13 13:22:20.353 STDERR [INFO] I0713 13:22:20.352416 16772 net.cpp:156] Memory required for data: 402787840
2016-07-13 13:22:20.353 STDERR [INFO] I0713 13:22:20.352421 16772 layer_factory.hpp:77] Creating layer inception_4b/pool_proj
2016-07-13 13:22:20.353 STDERR [INFO] I0713 13:22:20.352444 16772 net.cpp:91] Creating Layer inception_4b/pool_proj
2016-07-13 13:22:20.353 STDERR [INFO] I0713 13:22:20.352450 16772 net.cpp:425] inception_4b/pool_proj <- inception_4b/pool
2016-07-13 13:22:20.353 STDERR [INFO] I0713 13:22:20.352460 16772 net.cpp:399] inception_4b/pool_proj -> inception_4b/pool_proj
2016-07-13 13:22:20.355 STDERR [INFO] I0713 13:22:20.355291 16772 net.cpp:141] Setting up inception_4b/pool_proj
2016-07-13 13:22:20.355 STDERR [INFO] I0713 13:22:20.355317 16772 net.cpp:148] Top shape: 10 64 14 14 (125440)
2016-07-13 13:22:20.355 STDERR [INFO] I0713 13:22:20.355324 16772 net.cpp:156] Memory required for data: 403289600
2016-07-13 13:22:20.355 STDERR [INFO] I0713 13:22:20.355334 16772 layer_factory.hpp:77] Creating layer inception_4b/relu_pool_proj
2016-07-13 13:22:20.355 STDERR [INFO] I0713 13:22:20.355345 16772 net.cpp:91] Creating Layer inception_4b/relu_pool_proj
2016-07-13 13:22:20.355 STDERR [INFO] I0713 13:22:20.355351 16772 net.cpp:425] inception_4b/relu_pool_proj <- inception_4b/pool_proj
2016-07-13 13:22:20.355 STDERR [INFO] I0713 13:22:20.355360 16772 net.cpp:386] inception_4b/relu_pool_proj -> inception_4b/pool_proj (in-place)
2016-07-13 13:22:20.356 STDERR [INFO] I0713 13:22:20.356186 16772 net.cpp:141] Setting up inception_4b/relu_pool_proj
2016-07-13 13:22:20.356 STDERR [INFO] I0713 13:22:20.356207 16772 net.cpp:148] Top shape: 10 64 14 14 (125440)
2016-07-13 13:22:20.356 STDERR [INFO] I0713 13:22:20.356212 16772 net.cpp:156] Memory required for data: 403791360
2016-07-13 13:22:20.356 STDERR [INFO] I0713 13:22:20.356218 16772 layer_factory.hpp:77] Creating layer inception_4b/output
2016-07-13 13:22:20.356 STDERR [INFO] I0713 13:22:20.356230 16772 net.cpp:91] Creating Layer inception_4b/output
2016-07-13 13:22:20.356 STDERR [INFO] I0713 13:22:20.356236 16772 net.cpp:425] inception_4b/output <- inception_4b/1x1
2016-07-13 13:22:20.356 STDERR [INFO] I0713 13:22:20.356243 16772 net.cpp:425] inception_4b/output <- inception_4b/3x3
2016-07-13 13:22:20.356 STDERR [INFO] I0713 13:22:20.356250 16772 net.cpp:425] inception_4b/output <- inception_4b/5x5
2016-07-13 13:22:20.356 STDERR [INFO] I0713 13:22:20.356256 16772 net.cpp:425] inception_4b/output <- inception_4b/pool_proj
2016-07-13 13:22:20.356 STDERR [INFO] I0713 13:22:20.356263 16772 net.cpp:399] inception_4b/output -> inception_4b/output
2016-07-13 13:22:20.356 STDERR [INFO] I0713 13:22:20.356318 16772 net.cpp:141] Setting up inception_4b/output
2016-07-13 13:22:20.357 STDERR [INFO] I0713 13:22:20.356329 16772 net.cpp:148] Top shape: 10 512 14 14 (1003520)
2016-07-13 13:22:20.357 STDERR [INFO] I0713 13:22:20.356334 16772 net.cpp:156] Memory required for data: 407805440
2016-07-13 13:22:20.357 STDERR [INFO] I0713 13:22:20.356339 16772 layer_factory.hpp:77] Creating layer inception_4b/output_inception_4b/output_0_split
2016-07-13 13:22:20.357 STDERR [INFO] I0713 13:22:20.356351 16772 net.cpp:91] Creating Layer inception_4b/output_inception_4b/output_0_split
…
2016-07-13 13:22:20.357 STDERR [INFO] I0713 13:22:20.356375 16772 net.cpp:399] inception_4b/output_inception_4b/output_0_split -> inception_4b/output_inception_4b/output_0_split_1
2016-07-13 13:22:20.357 STDERR [INFO] I0713 13:22:20.356384 16772 net.cpp:399] inception_4b/output_inception_4b/output_0_split -> inception_4b/output_inception_4b/output_0_split_2
2016-07-13 13:22:20.357 STDERR [INFO] I0713 13:22:20.356394 16772 net.cpp:399] inception_4b/output_inception_4b/output_0_split -> inception_4b/output_inception_4b/output_0_split_3
2016-07-13 13:22:20.358 STDERR [INFO] I0713 13:22:20.356500 16772 net.cpp:141] Setting up inception_4b/output_inception_4b/output_0_split
2016-07-13 13:22:20.358 STDERR [INFO] I0713 13:22:20.356510 16772 net.cpp:148] Top shape: 10 512 14 14 (1003520)
2016-07-13 13:22:20.358 STDERR [INFO] I0713 13:22:20.356516 16772 net.cpp:148] Top shape: 10 512 14 14 (1003520)
2016-07-13 13:22:20.358 STDERR [INFO] I0713 13:22:20.356523 16772 net.cpp:148] Top shape: 10 512 14 14 (1003520)
2016-07-13 13:22:20.358 STDERR [INFO] I0713 13:22:20.356528 16772 net.cpp:148] Top shape: 10 512 14 14 (1003520)
2016-07-13 13:22:20.358 STDERR [INFO] I0713 13:22:20.356533 16772 net.cpp:156] Memory required for data: 423861760
2016-07-13 13:22:20.358 STDERR [INFO] I0713 13:22:20.356537 16772 layer_factory.hpp:77] Creating layer inception_4c/1x1
2016-07-13 13:22:20.358 STDERR [INFO] I0713 13:22:20.356556 16772 net.cpp:91] Creating Layer inception_4c/1x1
2016-07-13 13:22:20.358 STDERR [INFO] I0713 13:22:20.356562 16772 net.cpp:425] inception_4c/1x1 <- inception_4b/output_inception_4b/output_0_split_0
2016-07-13 13:22:20.358 STDERR [INFO] I0713 13:22:20.356575 16772 net.cpp:399] inception_4c/1x1 -> inception_4c/1x1
2016-07-13 13:22:20.359 STDERR [INFO] I0713 13:22:20.359683 16772 net.cpp:141] Setting up inception_4c/1x1
2016-07-13 13:22:20.359 STDERR [INFO] I0713 13:22:20.359707 16772 net.cpp:148] Top shape: 10 128 14 14 (250880)
2016-07-13 13:22:20.359 STDERR [INFO] I0713 13:22:20.359712 16772 net.cpp:156] Memory required for data: 424865280
2016-07-13 13:22:20.360 STDERR [INFO] I0713 13:22:20.359724 16772 layer_factory.hpp:77] Creating layer inception_4c/relu_1x1
2016-07-13 13:22:20.360 STDERR [INFO] I0713 13:22:20.359735 16772 net.cpp:91] Creating Layer inception_4c/relu_1x1
2016-07-13 13:22:20.360 STDERR [INFO] I0713 13:22:20.359740 16772 net.cpp:425] inception_4c/relu_1x1 <- inception_4c/1x1
2016-07-13 13:22:20.360 STDERR [INFO] I0713 13:22:20.359755 16772 net.cpp:386] inception_4c/relu_1x1 -> inception_4c/1x1 (in-place)
2016-07-13 13:22:20.360 STDERR [INFO] I0713 13:22:20.360023 16772 net.cpp:141] Setting up inception_4c/relu_1x1
2016-07-13 13:22:20.360 STDERR [INFO] I0713 13:22:20.360035 16772 net.cpp:148] Top shape: 10 128 14 14 (250880)
2016-07-13 13:22:20.360 STDERR [INFO] I0713 13:22:20.360040 16772 net.cpp:156] Memory required for data: 425868800
2016-07-13 13:22:20.360 STDERR [INFO] I0713 13:22:20.360045 16772 layer_factory.hpp:77] Creating layer inception_4c/3x3_reduce
2016-07-13 13:22:20.360 STDERR [INFO] I0713 13:22:20.360064 16772 net.cpp:91] Creating Layer inception_4c/3x3_reduce
2016-07-13 13:22:20.360 STDERR [INFO] I0713 13:22:20.360070 16772 net.cpp:425] inception_4c/3x3_reduce <- inception_4b/output_inception_4b/output_0_split_1
2016-07-13 13:22:20.360 STDERR [INFO] I0713 13:22:20.360085 16772 net.cpp:399] inception_4c/3x3_reduce -> inception_4c/3x3_reduce
2016-07-13 13:22:20.363 STDERR [INFO] I0713 13:22:20.363034 16772 net.cpp:141] Setting up inception_4c/3x3_reduce
2016-07-13 13:22:20.363 STDERR [INFO] I0713 13:22:20.363054 16772 net.cpp:148] Top shape: 10 128 14 14 (250880)
2016-07-13 13:22:20.363 STDERR [INFO] I0713 13:22:20.363059 16772 net.cpp:156] Memory required for data: 426872320
2016-07-13 13:22:20.363 STDERR [INFO] I0713 13:22:20.363070 16772 layer_factory.hpp:77] Creating layer inception_4c/relu_3x3_reduce
2016-07-13 13:22:20.363 STDERR [INFO] I0713 13:22:20.363080 16772 net.cpp:91] Creating Layer inception_4c/relu_3x3_reduce
2016-07-13 13:22:20.363 STDERR [INFO] I0713 13:22:20.363085 16772 net.cpp:425] inception_4c/relu_3x3_reduce <- inception_4c/3x3_reduce
2016-07-13 13:22:20.363 STDERR [INFO] I0713 13:22:20.363093 16772 net.cpp:386] inception_4c/relu_3x3_reduce -> inception_4c/3x3_reduce (in-place)
2016-07-13 13:22:20.363 STDERR [INFO] I0713 13:22:20.363364 16772 net.cpp:141] Setting up inception_4c/relu_3x3_reduce
2016-07-13 13:22:20.363 STDERR [INFO] I0713 13:22:20.363378 16772 net.cpp:148] Top shape: 10 128 14 14 (250880)
2016-07-13 13:22:20.363 STDERR [INFO] I0713 13:22:20.363382 16772 net.cpp:156] Memory required for data: 427875840
2016-07-13 13:22:20.363 STDERR [INFO] I0713 13:22:20.363389 16772 layer_factory.hpp:77] Creating layer inception_4c/3x3
2016-07-13 13:22:20.363 STDERR [INFO] I0713 13:22:20.363405 16772 net.cpp:91] Creating Layer inception_4c/3x3
2016-07-13 13:22:20.363 STDERR [INFO] I0713 13:22:20.363411 16772 net.cpp:425] inception_4c/3x3 <- inception_4c/3x3_reduce
2016-07-13 13:22:20.363 STDERR [INFO] I0713 13:22:20.363426 16772 net.cpp:399] inception_4c/3x3 -> inception_4c/3x3
2016-07-13 13:22:20.369 STDERR [INFO] I0713 13:22:20.369498 16772 net.cpp:141] Setting up inception_4c/3x3
2016-07-13 13:22:20.369 STDERR [INFO] I0713 13:22:20.369520 16772 net.cpp:148] Top shape: 10 256 14 14 (501760)
2016-07-13 13:22:20.369 STDERR [INFO] I0713 13:22:20.369525 16772 net.cpp:156] Memory required for data: 429882880
2016-07-13 13:22:20.369 STDERR [INFO] I0713 13:22:20.369536 16772 layer_factory.hpp:77] Creating layer inception_4c/relu_3x3
2016-07-13 13:22:20.369 STDERR [INFO] I0713 13:22:20.369550 16772 net.cpp:91] Creating Layer inception_4c/relu_3x3
2016-07-13 13:22:20.369 STDERR [INFO] I0713 13:22:20.369557 16772 net.cpp:425] inception_4c/relu_3x3 <- inception_4c/3x3
2016-07-13 13:22:20.369 STDERR [INFO] I0713 13:22:20.369565 16772 net.cpp:386] inception_4c/relu_3x3 -> inception_4c/3x3 (in-place)
2016-07-13 13:22:20.370 STDERR [INFO] I0713 13:22:20.370375 16772 net.cpp:141] Setting up inception_4c/relu_3x3
2016-07-13 13:22:20.370 STDERR [INFO] I0713 13:22:20.370393 16772 net.cpp:148] Top shape: 10 256 14 14 (501760)
2016-07-13 13:22:20.370 STDERR [INFO] I0713 13:22:20.370399 16772 net.cpp:156] Memory required for data: 431889920
2016-07-13 13:22:20.370 STDERR [INFO] I0713 13:22:20.370404 16772 layer_factory.hpp:77] Creating layer inception_4c/5x5_reduce
2016-07-13 13:22:20.370 STDERR [INFO] I0713 13:22:20.370430 16772 net.cpp:91] Creating Layer inception_4c/5x5_reduce
2016-07-13 13:22:20.370 STDERR [INFO] I0713 13:22:20.370437 16772 net.cpp:425] inception_4c/5x5_reduce <- inception_4b/output_inception_4b/output_0_split_2
2016-07-13 13:22:20.370 STDERR [INFO] I0713 13:22:20.370448 16772 net.cpp:399] inception_4c/5x5_reduce -> inception_4c/5x5_reduce
2016-07-13 13:22:20.373 STDERR [INFO] I0713 13:22:20.372959 16772 net.cpp:141] Setting up inception_4c/5x5_reduce
2016-07-13 13:22:20.373 STDERR [INFO] I0713 13:22:20.372980 16772 net.cpp:148] Top shape: 10 24 14 14 (47040)
2016-07-13 13:22:20.373 STDERR [INFO] I0713 13:22:20.372987 16772 net.cpp:156] Memory required for data: 432078080
2016-07-13 13:22:20.373 STDERR [INFO] I0713 13:22:20.372997 16772 layer_factory.hpp:77] Creating layer inception_4c/relu_5x5_reduce
2016-07-13 13:22:20.373 STDERR [INFO] I0713 13:22:20.373008 16772 net.cpp:91] Creating Layer inception_4c/relu_5x5_reduce
2016-07-13 13:22:20.373 STDERR [INFO] I0713 13:22:20.373013 16772 net.cpp:425] inception_4c/relu_5x5_reduce <- inception_4c/5x5_reduce
2016-07-13 13:22:20.373 STDERR [INFO] I0713 13:22:20.373025 16772 net.cpp:386] inception_4c/relu_5x5_reduce -> inception_4c/5x5_reduce (in-place)
2016-07-13 13:22:20.373 STDERR [INFO] I0713 13:22:20.373296 16772 net.cpp:141] Setting up inception_4c/relu_5x5_reduce
2016-07-13 13:22:20.373 STDERR [INFO] I0713 13:22:20.373309 16772 net.cpp:148] Top shape: 10 24 14 14 (47040)
2016-07-13 13:22:20.373 STDERR [INFO] I0713 13:22:20.373317 16772 net.cpp:156] Memory required for data: 432266240
2016-07-13 13:22:20.373 STDERR [INFO] I0713 13:22:20.373322 16772 layer_factory.hpp:77] Creating layer inception_4c/5x5
2016-07-13 13:22:20.373 STDERR [INFO] I0713 13:22:20.373337 16772 net.cpp:91] Creating Layer inception_4c/5x5
2016-07-13 13:22:20.373 STDERR [INFO] I0713 13:22:20.373343 16772 net.cpp:425] inception_4c/5x5 <- inception_4c/5x5_reduce
2016-07-13 13:22:20.373 STDERR [INFO] I0713 13:22:20.373358 16772 net.cpp:399] inception_4c/5x5 -> inception_4c/5x5
2016-07-13 13:22:20.376 STDERR [INFO] I0713 13:22:20.376673 16772 net.cpp:141] Setting up inception_4c/5x5
2016-07-13 13:22:20.376 STDERR [INFO] I0713 13:22:20.376693 16772 net.cpp:148] Top shape: 10 64 14 14 (125440)
2016-07-13 13:22:20.376 STDERR [INFO] I0713 13:22:20.376698 16772 net.cpp:156] Memory required for data: 432768000
2016-07-13 13:22:20.377 STDERR [INFO] I0713 13:22:20.376708 16772 layer_factory.hpp:77] Creating layer inception_4c/relu_5x5
2016-07-13 13:22:20.377 STDERR [INFO] I0713 13:22:20.376723 16772 net.cpp:91] Creating Layer inception_4c/relu_5x5
2016-07-13 13:22:20.377 STDERR [INFO] I0713 13:22:20.376729 16772 net.cpp:425] inception_4c/relu_5x5 <- inception_4c/5x5
2016-07-13 13:22:20.377 STDERR [INFO] I0713 13:22:20.376737 16772 net.cpp:386] inception_4c/relu_5x5 -> inception_4c/5x5 (in-place)
2016-07-13 13:22:20.377 STDERR [INFO] I0713 13:22:20.377010 16772 net.cpp:141] Setting up inception_4c/relu_5x5
2016-07-13 13:22:20.377 STDERR [INFO] I0713 13:22:20.377023 16772 net.cpp:148] Top shape: 10 64 14 14 (125440)
2016-07-13 13:22:20.377 STDERR [INFO] I0713 13:22:20.377028 16772 net.cpp:156] Memory required for data: 433269760
2016-07-13 13:22:20.377 STDERR [INFO] I0713 13:22:20.377034 16772 layer_factory.hpp:77] Creating layer inception_4c/pool
2016-07-13 13:22:20.377 STDERR [INFO] I0713 13:22:20.377045 16772 net.cpp:91] Creating Layer inception_4c/pool
2016-07-13 13:22:20.377 STDERR [INFO] I0713 13:22:20.377051 16772 net.cpp:425] inception_4c/pool <- inception_4b/output_inception_4b/output_0_split_3
2016-07-13 13:22:20.377 STDERR [INFO] I0713 13:22:20.377065 16772 net.cpp:399] inception_4c/pool -> inception_4c/pool
2016-07-13 13:22:20.377 STDERR [INFO] I0713 13:22:20.377142 16772 net.cpp:141] Setting up inception_4c/pool
2016-07-13 13:22:20.377 STDERR [INFO] I0713 13:22:20.377152 16772 net.cpp:148] Top shape: 10 512 14 14 (1003520)
2016-07-13 13:22:20.377 STDERR [INFO] I0713 13:22:20.377157 16772 net.cpp:156] Memory required for data: 437283840
2016-07-13 13:22:20.377 STDERR [INFO] I0713 13:22:20.377162 16772 layer_factory.hpp:77] Creating layer inception_4c/pool_proj
2016-07-13 13:22:20.377 STDERR [INFO] I0713 13:22:20.377187 16772 net.cpp:91] Creating Layer inception_4c/pool_proj
2016-07-13 13:22:20.377 STDERR [INFO] I0713 13:22:20.377194 16772 net.cpp:425] inception_4c/pool_proj <- inception_4c/pool
2016-07-13 13:22:20.377 STDERR [INFO] I0713 13:22:20.377203 16772 net.cpp:399] inception_4c/pool_proj -> inception_4c/pool_proj
2016-07-13 13:22:20.381 STDERR [INFO] I0713 13:22:20.381019 16772 net.cpp:141] Setting up inception_4c/pool_proj
2016-07-13 13:22:20.381 STDERR [INFO] I0713 13:22:20.381041 16772 net.cpp:148] Top shape: 10 64 14 14 (125440)
2016-07-13 13:22:20.381 STDERR [INFO] I0713 13:22:20.381045 16772 net.cpp:156] Memory required for data: 437785600
2016-07-13 13:22:20.381 STDERR [INFO] I0713 13:22:20.381186 16772 layer_factory.hpp:77] Creating layer inception_4c/relu_pool_proj
2016-07-13 13:22:20.381 STDERR [INFO] I0713 13:22:20.381227 16772 net.cpp:91] Creating Layer inception_4c/relu_pool_proj
2016-07-13 13:22:20.381 STDERR [INFO] I0713 13:22:20.381243 16772 net.cpp:425] inception_4c/relu_pool_proj <- inception_4c/pool_proj
2016-07-13 13:22:20.381 STDERR [INFO] I0713 13:22:20.381259 16772 net.cpp:386] inception_4c/relu_pool_proj -> inception_4c/pool_proj (in-place)
2016-07-13 13:22:20.383 STDERR [INFO] I0713 13:22:20.382899 16772 net.cpp:141] Setting up inception_4c/relu_pool_proj
2016-07-13 13:22:20.383 STDERR [INFO] I0713 13:22:20.382933 16772 net.cpp:148] Top shape: 10 64 14 14 (125440)
2016-07-13 13:22:20.383 STDERR [INFO] I0713 13:22:20.382943 16772 net.cpp:156] Memory required for data: 438287360
2016-07-13 13:22:20.383 STDERR [INFO] I0713 13:22:20.382953 16772 layer_factory.hpp:77] Creating layer inception_4c/output
2016-07-13 13:22:20.383 STDERR [INFO] I0713 13:22:20.382974 16772 net.cpp:91] Creating Layer inception_4c/output
2016-07-13 13:22:20.383 STDERR [INFO] I0713 13:22:20.382987 16772 net.cpp:425] inception_4c/output <- inception_4c/1x1
2016-07-13 13:22:20.383 STDERR [INFO] I0713 13:22:20.382999 16772 net.cpp:425] inception_4c/output <- inception_4c/3x3
2016-07-13 13:22:20.383 STDERR [INFO] I0713 13:22:20.383010 16772 net.cpp:425] inception_4c/output <- inception_4c/5x5
2016-07-13 13:22:20.384 STDERR [INFO] I0713 13:22:20.383021 16772 net.cpp:425] inception_4c/output <- inception_4c/pool_proj
2016-07-13 13:22:20.384 STDERR [INFO] I0713 13:22:20.383034 16772 net.cpp:399] inception_4c/output -> inception_4c/output
2016-07-13 13:22:20.384 STDERR [INFO] I0713 13:22:20.383157 16772 net.cpp:141] Setting up inception_4c/output
2016-07-13 13:22:20.384 STDERR [INFO] I0713 13:22:20.383175 16772 net.cpp:148] Top shape: 10 512 14 14 (1003520)
2016-07-13 13:22:20.384 STDERR [INFO] I0713 13:22:20.383183 16772 net.cpp:156] Memory required for data: 442301440
2016-07-13 13:22:20.384 STDERR [INFO] I0713 13:22:20.383193 16772 layer_factory.hpp:77] Creating layer inception_4c/output_inception_4c/output_0_split
2016-07-13 13:22:20.384 STDERR [INFO] I0713 13:22:20.383206 16772 net.cpp:91] Creating Layer inception_4c/output_inception_4c/output_0_split
…
2016-07-13 13:22:20.384 STDERR [INFO] I0713 13:22:20.383252 16772 net.cpp:399] inception_4c/output_inception_4c/output_0_split -> inception_4c/output_inception_4c/output_0_split_1
2016-07-13 13:22:20.384 STDERR [INFO] I0713 13:22:20.383268 16772 net.cpp:399] inception_4c/output_inception_4c/output_0_split -> inception_4c/output_inception_4c/output_0_split_2
2016-07-13 13:22:20.385 STDERR [INFO] I0713 13:22:20.383285 16772 net.cpp:399] inception_4c/output_inception_4c/output_0_split -> inception_4c/output_inception_4c/output_0_split_3
2016-07-13 13:22:20.385 STDERR [INFO] I0713 13:22:20.383476 16772 net.cpp:141] Setting up inception_4c/output_inception_4c/output_0_split
2016-07-13 13:22:20.385 STDERR [INFO] I0713 13:22:20.383497 16772 net.cpp:148] Top shape: 10 512 14 14 (1003520)
2016-07-13 13:22:20.385 STDERR [INFO] I0713 13:22:20.383509 16772 net.cpp:148] Top shape: 10 512 14 14 (1003520)
2016-07-13 13:22:20.385 STDERR [INFO] I0713 13:22:20.383519 16772 net.cpp:148] Top shape: 10 512 14 14 (1003520)
2016-07-13 13:22:20.385 STDERR [INFO] I0713 13:22:20.383528 16772 net.cpp:148] Top shape: 10 512 14 14 (1003520)
2016-07-13 13:22:20.385 STDERR [INFO] I0713 13:22:20.383536 16772 net.cpp:156] Memory required for data: 458357760
2016-07-13 13:22:20.385 STDERR [INFO] I0713 13:22:20.383545 16772 layer_factory.hpp:77] Creating layer inception_4d/1x1
2016-07-13 13:22:20.385 STDERR [INFO] I0713 13:22:20.383574 16772 net.cpp:91] Creating Layer inception_4d/1x1
2016-07-13 13:22:20.385 STDERR [INFO] I0713 13:22:20.383585 16772 net.cpp:425] inception_4d/1x1 <- inception_4c/output_inception_4c/output_0_split_0
2016-07-13 13:22:20.385 STDERR [INFO] I0713 13:22:20.383604 16772 net.cpp:399] inception_4d/1x1 -> inception_4d/1x1
2016-07-13 13:22:20.388 STDERR [INFO] I0713 13:22:20.388265 16772 net.cpp:141] Setting up inception_4d/1x1
2016-07-13 13:22:20.388 STDERR [INFO] I0713 13:22:20.388298 16772 net.cpp:148] Top shape: 10 112 14 14 (219520)
2016-07-13 13:22:20.388 STDERR [INFO] I0713 13:22:20.388306 16772 net.cpp:156] Memory required for data: 459235840
2016-07-13 13:22:20.388 STDERR [INFO] I0713 13:22:20.388320 16772 layer_factory.hpp:77] Creating layer inception_4d/relu_1x1
2016-07-13 13:22:20.388 STDERR [INFO] I0713 13:22:20.388341 16772 net.cpp:91] Creating Layer inception_4d/relu_1x1
2016-07-13 13:22:20.388 STDERR [INFO] I0713 13:22:20.388351 16772 net.cpp:425] inception_4d/relu_1x1 <- inception_4d/1x1
2016-07-13 13:22:20.388 STDERR [INFO] I0713 13:22:20.388363 16772 net.cpp:386] inception_4d/relu_1x1 -> inception_4d/1x1 (in-place)
2016-07-13 13:22:20.389 STDERR [INFO] I0713 13:22:20.388767 16772 net.cpp:141] Setting up inception_4d/relu_1x1
2016-07-13 13:22:20.389 STDERR [INFO] I0713 13:22:20.388787 16772 net.cpp:148] Top shape: 10 112 14 14 (219520)
2016-07-13 13:22:20.389 STDERR [INFO] I0713 13:22:20.388793 16772 net.cpp:156] Memory required for data: 460113920
2016-07-13 13:22:20.389 STDERR [INFO] I0713 13:22:20.388802 16772 layer_factory.hpp:77] Creating layer inception_4d/3x3_reduce
2016-07-13 13:22:20.389 STDERR [INFO] I0713 13:22:20.388826 16772 net.cpp:91] Creating Layer inception_4d/3x3_reduce
2016-07-13 13:22:20.389 STDERR [INFO] I0713 13:22:20.388836 16772 net.cpp:425] inception_4d/3x3_reduce <- inception_4c/output_inception_4c/output_0_split_1
2016-07-13 13:22:20.389 STDERR [INFO] I0713 13:22:20.388854 16772 net.cpp:399] inception_4d/3x3_reduce -> inception_4d/3x3_reduce
2016-07-13 13:22:20.393 STDERR [INFO] I0713 13:22:20.393261 16772 net.cpp:141] Setting up inception_4d/3x3_reduce
2016-07-13 13:22:20.393 STDERR [INFO] I0713 13:22:20.393292 16772 net.cpp:148] Top shape: 10 144 14 14 (282240)
2016-07-13 13:22:20.393 STDERR [INFO] I0713 13:22:20.393301 16772 net.cpp:156] Memory required for data: 461242880
2016-07-13 13:22:20.393 STDERR [INFO] I0713 13:22:20.393318 16772 layer_factory.hpp:77] Creating layer inception_4d/relu_3x3_reduce
2016-07-13 13:22:20.393 STDERR [INFO] I0713 13:22:20.393337 16772 net.cpp:91] Creating Layer inception_4d/relu_3x3_reduce
2016-07-13 13:22:20.393 STDERR [INFO] I0713 13:22:20.393348 16772 net.cpp:425] inception_4d/relu_3x3_reduce <- inception_4d/3x3_reduce
2016-07-13 13:22:20.394 STDERR [INFO] I0713 13:22:20.393360 16772 net.cpp:386] inception_4d/relu_3x3_reduce -> inception_4d/3x3_reduce (in-place)
2016-07-13 13:22:20.394 STDERR [INFO] I0713 13:22:20.393771 16772 net.cpp:141] Setting up inception_4d/relu_3x3_reduce
2016-07-13 13:22:20.394 STDERR [INFO] I0713 13:22:20.393790 16772 net.cpp:148] Top shape: 10 144 14 14 (282240)
2016-07-13 13:22:20.394 STDERR [INFO] I0713 13:22:20.393797 16772 net.cpp:156] Memory required for data: 462371840
2016-07-13 13:22:20.394 STDERR [INFO] I0713 13:22:20.393805 16772 layer_factory.hpp:77] Creating layer inception_4d/3x3
2016-07-13 13:22:20.394 STDERR [INFO] I0713 13:22:20.393831 16772 net.cpp:91] Creating Layer inception_4d/3x3
2016-07-13 13:22:20.394 STDERR [INFO] I0713 13:22:20.393841 16772 net.cpp:425] inception_4d/3x3 <- inception_4d/3x3_reduce
2016-07-13 13:22:20.394 STDERR [INFO] I0713 13:22:20.393859 16772 net.cpp:399] inception_4d/3x3 -> inception_4d/3x3
2016-07-13 13:22:20.400 n.t.s.f.RefreshingImageFetcher$ImageReader [INFO] [Timing] RequestID: 0 StreamID: home/peifeng/work/data/frame.320x240.jpg SequenceNr: 48 Entering queue: 1468430540400
2016-07-13 13:22:20.401 n.t.s.f.RefreshingImageFetcher$ImageReader [INFO] [Timing] RequestID: 0 StreamID: home/peifeng/work/data/frame.320x240.jpg SequenceNr: 49 Entering queue: 1468430540401
2016-07-13 13:22:20.404 STDERR [INFO] I0713 13:22:20.404063 16772 net.cpp:141] Setting up inception_4d/3x3
2016-07-13 13:22:20.404 STDERR [INFO] I0713 13:22:20.404094 16772 net.cpp:148] Top shape: 10 288 14 14 (564480)
2016-07-13 13:22:20.404 STDERR [INFO] I0713 13:22:20.404103 16772 net.cpp:156] Memory required for data: 464629760
2016-07-13 13:22:20.404 STDERR [INFO] I0713 13:22:20.404117 16772 layer_factory.hpp:77] Creating layer inception_4d/relu_3x3
2016-07-13 13:22:20.404 STDERR [INFO] I0713 13:22:20.404134 16772 net.cpp:91] Creating Layer inception_4d/relu_3x3
2016-07-13 13:22:20.404 STDERR [INFO] I0713 13:22:20.404145 16772 net.cpp:425] inception_4d/relu_3x3 <- inception_4d/3x3
2016-07-13 13:22:20.404 STDERR [INFO] I0713 13:22:20.404156 16772 net.cpp:386] inception_4d/relu_3x3 -> inception_4d/3x3 (in-place)
2016-07-13 13:22:20.405 STDERR [INFO] I0713 13:22:20.405287 16772 net.cpp:141] Setting up inception_4d/relu_3x3
2016-07-13 13:22:20.405 STDERR [INFO] I0713 13:22:20.405313 16772 net.cpp:148] Top shape: 10 288 14 14 (564480)
2016-07-13 13:22:20.405 STDERR [INFO] I0713 13:22:20.405319 16772 net.cpp:156] Memory required for data: 466887680
2016-07-13 13:22:20.405 STDERR [INFO] I0713 13:22:20.405328 16772 layer_factory.hpp:77] Creating layer inception_4d/5x5_reduce
2016-07-13 13:22:20.405 STDERR [INFO] I0713 13:22:20.405350 16772 net.cpp:91] Creating Layer inception_4d/5x5_reduce
2016-07-13 13:22:20.405 STDERR [INFO] I0713 13:22:20.405360 16772 net.cpp:425] inception_4d/5x5_reduce <- inception_4c/output_inception_4c/output_0_split_2
2016-07-13 13:22:20.405 STDERR [INFO] I0713 13:22:20.405381 16772 net.cpp:399] inception_4d/5x5_reduce -> inception_4d/5x5_reduce
2016-07-13 13:22:20.407 n.t.s.s.CVParticleSpout [INFO] [Timing] RequestID: 0 StreamID: home/peifeng/work/data/frame.320x240.jpg SequenceNr: 48 Leaving fetcher: 1468430540407 Size: 8702
2016-07-13 13:22:20.407 n.t.s.b.CVParticleBolt [INFO] [Timing] RequestID: 0 StreamID: home/peifeng/work/data/frame.320x240.jpg SequenceNr: 48 Entering scale: 1468430540407
2016-07-13 13:22:20.408 STDERR [INFO] I0713 13:22:20.408596 16772 net.cpp:141] Setting up inception_4d/5x5_reduce
2016-07-13 13:22:20.408 STDERR [INFO] I0713 13:22:20.408618 16772 net.cpp:148] Top shape: 10 32 14 14 (62720)
2016-07-13 13:22:20.408 STDERR [INFO] I0713 13:22:20.408623 16772 net.cpp:156] Memory required for data: 467138560
2016-07-13 13:22:20.408 STDERR [INFO] I0713 13:22:20.408634 16772 layer_factory.hpp:77] Creating layer inception_4d/relu_5x5_reduce
2016-07-13 13:22:20.408 STDERR [INFO] I0713 13:22:20.408648 16772 net.cpp:91] Creating Layer inception_4d/relu_5x5_reduce
2016-07-13 13:22:20.409 STDERR [INFO] I0713 13:22:20.408655 16772 net.cpp:425] inception_4d/relu_5x5_reduce <- inception_4d/5x5_reduce
2016-07-13 13:22:20.409 STDERR [INFO] I0713 13:22:20.408664 16772 net.cpp:386] inception_4d/relu_5x5_reduce -> inception_4d/5x5_reduce (in-place)
2016-07-13 13:22:20.409 STDERR [INFO] I0713 13:22:20.408941 16772 net.cpp:141] Setting up inception_4d/relu_5x5_reduce
2016-07-13 13:22:20.409 STDERR [INFO] I0713 13:22:20.408954 16772 net.cpp:148] Top shape: 10 32 14 14 (62720)
2016-07-13 13:22:20.409 STDERR [INFO] I0713 13:22:20.408959 16772 net.cpp:156] Memory required for data: 467389440
2016-07-13 13:22:20.409 STDERR [INFO] I0713 13:22:20.408964 16772 layer_factory.hpp:77] Creating layer inception_4d/5x5
2016-07-13 13:22:20.409 STDERR [INFO] I0713 13:22:20.408982 16772 net.cpp:91] Creating Layer inception_4d/5x5
2016-07-13 13:22:20.409 STDERR [INFO] I0713 13:22:20.408989 16772 net.cpp:425] inception_4d/5x5 <- inception_4d/5x5_reduce
2016-07-13 13:22:20.409 STDERR [INFO] I0713 13:22:20.409003 16772 net.cpp:399] inception_4d/5x5 -> inception_4d/5x5
2016-07-13 13:22:20.410 n.t.s.s.CVParticleSpout [INFO] [Timing] RequestID: 0 StreamID: home/peifeng/work/data/frame.320x240.jpg SequenceNr: 49 Leaving fetcher: 1468430540410 Size: 8702
2016-07-13 13:22:20.412 STDERR [INFO] I0713 13:22:20.411978 16772 net.cpp:141] Setting up inception_4d/5x5
2016-07-13 13:22:20.412 STDERR [INFO] I0713 13:22:20.412001 16772 net.cpp:148] Top shape: 10 64 14 14 (125440)
2016-07-13 13:22:20.412 STDERR [INFO] I0713 13:22:20.412006 16772 net.cpp:156] Memory required for data: 467891200
2016-07-13 13:22:20.412 STDERR [INFO] I0713 13:22:20.412017 16772 layer_factory.hpp:77] Creating layer inception_4d/relu_5x5
2016-07-13 13:22:20.412 STDERR [INFO] I0713 13:22:20.412029 16772 net.cpp:91] Creating Layer inception_4d/relu_5x5
2016-07-13 13:22:20.412 STDERR [INFO] I0713 13:22:20.412035 16772 net.cpp:425] inception_4d/relu_5x5 <- inception_4d/5x5
2016-07-13 13:22:20.412 STDERR [INFO] I0713 13:22:20.412048 16772 net.cpp:386] inception_4d/relu_5x5 -> inception_4d/5x5 (in-place)
2016-07-13 13:22:20.412 STDERR [INFO] I0713 13:22:20.412328 16772 net.cpp:141] Setting up inception_4d/relu_5x5
2016-07-13 13:22:20.412 STDERR [INFO] I0713 13:22:20.412343 16772 net.cpp:148] Top shape: 10 64 14 14 (125440)
2016-07-13 13:22:20.412 STDERR [INFO] I0713 13:22:20.412348 16772 net.cpp:156] Memory required for data: 468392960
2016-07-13 13:22:20.412 STDERR [INFO] I0713 13:22:20.412353 16772 layer_factory.hpp:77] Creating layer inception_4d/pool
2016-07-13 13:22:20.412 STDERR [INFO] I0713 13:22:20.412364 16772 net.cpp:91] Creating Layer inception_4d/pool
2016-07-13 13:22:20.412 n.t.s.b.CVParticleBolt [INFO] [Timing] RequestID: 0 StreamID: home/peifeng/work/data/frame.320x240.jpg SequenceNr: 48 Leaving scale: 1468430540412 Size: 3530
2016-07-13 13:22:20.412 STDERR [INFO] I0713 13:22:20.412369 16772 net.cpp:425] inception_4d/pool <- inception_4c/output_inception_4c/output_0_split_3
2016-07-13 13:22:20.412 STDERR [INFO] I0713 13:22:20.412379 16772 net.cpp:399] inception_4d/pool -> inception_4d/pool
2016-07-13 13:22:20.412 STDERR [INFO] I0713 13:22:20.412458 16772 net.cpp:141] Setting up inception_4d/pool
2016-07-13 13:22:20.412 STDERR [INFO] I0713 13:22:20.412469 16772 net.cpp:148] Top shape: 10 512 14 14 (1003520)
2016-07-13 13:22:20.412 STDERR [INFO] I0713 13:22:20.412474 16772 net.cpp:156] Memory required for data: 472407040
2016-07-13 13:22:20.413 STDERR [INFO] I0713 13:22:20.412479 16772 layer_factory.hpp:77] Creating layer inception_4d/pool_proj
2016-07-13 13:22:20.413 n.t.s.b.CVParticleBolt [INFO] [Timing] RequestID: 0 StreamID: home/peifeng/work/data/frame.320x240.jpg SequenceNr: 49 Entering scale: 1468430540413
2016-07-13 13:22:20.413 STDERR [INFO] I0713 13:22:20.412497 16772 net.cpp:91] Creating Layer inception_4d/pool_proj
2016-07-13 13:22:20.413 STDERR [INFO] I0713 13:22:20.412503 16772 net.cpp:425] inception_4d/pool_proj <- inception_4d/pool
2016-07-13 13:22:20.413 STDERR [INFO] I0713 13:22:20.412515 16772 net.cpp:399] inception_4d/pool_proj -> inception_4d/pool_proj
2016-07-13 13:22:20.415 STDERR [INFO] I0713 13:22:20.415271 16772 net.cpp:141] Setting up inception_4d/pool_proj
2016-07-13 13:22:20.415 STDERR [INFO] I0713 13:22:20.415292 16772 net.cpp:148] Top shape: 10 64 14 14 (125440)
2016-07-13 13:22:20.416 STDERR [INFO] I0713 13:22:20.415297 16772 net.cpp:156] Memory required for data: 472908800
2016-07-13 13:22:20.416 STDERR [INFO] I0713 13:22:20.415307 16772 layer_factory.hpp:77] Creating layer inception_4d/relu_pool_proj
2016-07-13 13:22:20.416 STDERR [INFO] I0713 13:22:20.415321 16772 net.cpp:91] Creating Layer inception_4d/relu_pool_proj
2016-07-13 13:22:20.416 STDERR [INFO] I0713 13:22:20.415328 16772 net.cpp:425] inception_4d/relu_pool_proj <- inception_4d/pool_proj
2016-07-13 13:22:20.416 STDERR [INFO] I0713 13:22:20.415336 16772 net.cpp:386] inception_4d/relu_pool_proj -> inception_4d/pool_proj (in-place)
2016-07-13 13:22:20.416 STDERR [INFO] I0713 13:22:20.416172 16772 net.cpp:141] Setting up inception_4d/relu_pool_proj
2016-07-13 13:22:20.416 STDERR [INFO] I0713 13:22:20.416188 16772 net.cpp:148] Top shape: 10 64 14 14 (125440)
2016-07-13 13:22:20.416 STDERR [INFO] I0713 13:22:20.416193 16772 net.cpp:156] Memory required for data: 473410560
2016-07-13 13:22:20.416 STDERR [INFO] I0713 13:22:20.416198 16772 layer_factory.hpp:77] Creating layer inception_4d/output
2016-07-13 13:22:20.416 STDERR [INFO] I0713 13:22:20.416213 16772 net.cpp:91] Creating Layer inception_4d/output
2016-07-13 13:22:20.416 STDERR [INFO] I0713 13:22:20.416219 16772 net.cpp:425] inception_4d/output <- inception_4d/1x1
2016-07-13 13:22:20.416 STDERR [INFO] I0713 13:22:20.416227 16772 net.cpp:425] inception_4d/output <- inception_4d/3x3
2016-07-13 13:22:20.416 STDERR [INFO] I0713 13:22:20.416234 16772 net.cpp:425] inception_4d/output <- inception_4d/5x5
2016-07-13 13:22:20.416 STDERR [INFO] I0713 13:22:20.416239 16772 net.cpp:425] inception_4d/output <- inception_4d/pool_proj
2016-07-13 13:22:20.416 STDERR [INFO] I0713 13:22:20.416246 16772 net.cpp:399] inception_4d/output -> inception_4d/output
2016-07-13 13:22:20.416 STDERR [INFO] I0713 13:22:20.416302 16772 net.cpp:141] Setting up inception_4d/output
2016-07-13 13:22:20.417 STDERR [INFO] I0713 13:22:20.416312 16772 net.cpp:148] Top shape: 10 528 14 14 (1034880)
2016-07-13 13:22:20.417 STDERR [INFO] I0713 13:22:20.416317 16772 net.cpp:156] Memory required for data: 477550080
2016-07-13 13:22:20.417 STDERR [INFO] I0713 13:22:20.416322 16772 layer_factory.hpp:77] Creating layer inception_4d/output_inception_4d/output_0_split
2016-07-13 13:22:20.417 STDERR [INFO] I0713 13:22:20.416332 16772 net.cpp:91] Creating Layer inception_4d/output_inception_4d/output_0_split
…
2016-07-13 13:22:20.417 STDERR [INFO] I0713 13:22:20.416359 16772 net.cpp:399] inception_4d/output_inception_4d/output_0_split -> inception_4d/output_inception_4d/output_0_split_1
2016-07-13 13:22:20.417 STDERR [INFO] I0713 13:22:20.416369 16772 net.cpp:399] inception_4d/output_inception_4d/output_0_split -> inception_4d/output_inception_4d/output_0_split_2
2016-07-13 13:22:20.417 STDERR [INFO] I0713 13:22:20.416378 16772 net.cpp:399] inception_4d/output_inception_4d/output_0_split -> inception_4d/output_inception_4d/output_0_split_3
2016-07-13 13:22:20.417 STDERR [INFO] I0713 13:22:20.416494 16772 net.cpp:141] Setting up inception_4d/output_inception_4d/output_0_split
2016-07-13 13:22:20.417 STDERR [INFO] I0713 13:22:20.416504 16772 net.cpp:148] Top shape: 10 528 14 14 (1034880)
2016-07-13 13:22:20.417 STDERR [INFO] I0713 13:22:20.416512 16772 net.cpp:148] Top shape: 10 528 14 14 (1034880)
2016-07-13 13:22:20.417 STDERR [INFO] I0713 13:22:20.416517 16772 net.cpp:148] Top shape: 10 528 14 14 (1034880)
2016-07-13 13:22:20.417 STDERR [INFO] I0713 13:22:20.416522 16772 net.cpp:148] Top shape: 10 528 14 14 (1034880)
2016-07-13 13:22:20.417 STDERR [INFO] I0713 13:22:20.416527 16772 net.cpp:156] Memory required for data: 494108160
2016-07-13 13:22:20.417 STDERR [INFO] I0713 13:22:20.416532 16772 layer_factory.hpp:77] Creating layer inception_4e/1x1
2016-07-13 13:22:20.417 STDERR [INFO] I0713 13:22:20.416548 16772 net.cpp:91] Creating Layer inception_4e/1x1
2016-07-13 13:22:20.417 STDERR [INFO] I0713 13:22:20.416553 16772 net.cpp:425] inception_4e/1x1 <- inception_4d/output_inception_4d/output_0_split_0
2016-07-13 13:22:20.417 STDERR [INFO] I0713 13:22:20.416563 16772 net.cpp:399] inception_4e/1x1 -> inception_4e/1x1
2016-07-13 13:22:20.418 n.t.s.b.CVParticleBolt [INFO] [Timing] RequestID: 0 StreamID: home/peifeng/work/data/frame.320x240.jpg SequenceNr: 49 Leaving scale: 1468430540418 Size: 3530
2016-07-13 13:22:20.422 STDERR [INFO] I0713 13:22:20.422078 16772 net.cpp:141] Setting up inception_4e/1x1
2016-07-13 13:22:20.422 STDERR [INFO] I0713 13:22:20.422106 16772 net.cpp:148] Top shape: 10 256 14 14 (501760)
2016-07-13 13:22:20.422 STDERR [INFO] I0713 13:22:20.422113 16772 net.cpp:156] Memory required for data: 496115200
2016-07-13 13:22:20.422 STDERR [INFO] I0713 13:22:20.422124 16772 layer_factory.hpp:77] Creating layer inception_4e/relu_1x1
2016-07-13 13:22:20.422 STDERR [INFO] I0713 13:22:20.422134 16772 net.cpp:91] Creating Layer inception_4e/relu_1x1
2016-07-13 13:22:20.422 STDERR [INFO] I0713 13:22:20.422142 16772 net.cpp:425] inception_4e/relu_1x1 <- inception_4e/1x1
2016-07-13 13:22:20.422 STDERR [INFO] I0713 13:22:20.422152 16772 net.cpp:386] inception_4e/relu_1x1 -> inception_4e/1x1 (in-place)
2016-07-13 13:22:20.422 STDERR [INFO] I0713 13:22:20.422436 16772 net.cpp:141] Setting up inception_4e/relu_1x1
2016-07-13 13:22:20.422 STDERR [INFO] I0713 13:22:20.422449 16772 net.cpp:148] Top shape: 10 256 14 14 (501760)
2016-07-13 13:22:20.422 STDERR [INFO] I0713 13:22:20.422454 16772 net.cpp:156] Memory required for data: 498122240
2016-07-13 13:22:20.422 STDERR [INFO] I0713 13:22:20.422459 16772 layer_factory.hpp:77] Creating layer inception_4e/3x3_reduce
2016-07-13 13:22:20.422 STDERR [INFO] I0713 13:22:20.422477 16772 net.cpp:91] Creating Layer inception_4e/3x3_reduce
2016-07-13 13:22:20.422 STDERR [INFO] I0713 13:22:20.422487 16772 net.cpp:425] inception_4e/3x3_reduce <- inception_4d/output_inception_4d/output_0_split_1
2016-07-13 13:22:20.422 STDERR [INFO] I0713 13:22:20.422497 16772 net.cpp:399] inception_4e/3x3_reduce -> inception_4e/3x3_reduce
2016-07-13 13:22:20.425 STDERR [INFO] I0713 13:22:20.425645 16772 net.cpp:141] Setting up inception_4e/3x3_reduce
2016-07-13 13:22:20.425 STDERR [INFO] I0713 13:22:20.425665 16772 net.cpp:148] Top shape: 10 160 14 14 (313600)
2016-07-13 13:22:20.425 STDERR [INFO] I0713 13:22:20.425671 16772 net.cpp:156] Memory required for data: 499376640
2016-07-13 13:22:20.425 STDERR [INFO] I0713 13:22:20.425680 16772 layer_factory.hpp:77] Creating layer inception_4e/relu_3x3_reduce
2016-07-13 13:22:20.426 STDERR [INFO] I0713 13:22:20.425695 16772 net.cpp:91] Creating Layer inception_4e/relu_3x3_reduce
2016-07-13 13:22:20.426 STDERR [INFO] I0713 13:22:20.425703 16772 net.cpp:425] inception_4e/relu_3x3_reduce <- inception_4e/3x3_reduce
2016-07-13 13:22:20.426 STDERR [INFO] I0713 13:22:20.425712 16772 net.cpp:386] inception_4e/relu_3x3_reduce -> inception_4e/3x3_reduce (in-place)
2016-07-13 13:22:20.426 STDERR [INFO] I0713 13:22:20.425986 16772 net.cpp:141] Setting up inception_4e/relu_3x3_reduce
2016-07-13 13:22:20.426 STDERR [INFO] I0713 13:22:20.425998 16772 net.cpp:148] Top shape: 10 160 14 14 (313600)
2016-07-13 13:22:20.426 STDERR [INFO] I0713 13:22:20.426003 16772 net.cpp:156] Memory required for data: 500631040
2016-07-13 13:22:20.426 STDERR [INFO] I0713 13:22:20.426008 16772 layer_factory.hpp:77] Creating layer inception_4e/3x3
2016-07-13 13:22:20.426 STDERR [INFO] I0713 13:22:20.426025 16772 net.cpp:91] Creating Layer inception_4e/3x3
2016-07-13 13:22:20.426 STDERR [INFO] I0713 13:22:20.426034 16772 net.cpp:425] inception_4e/3x3 <- inception_4e/3x3_reduce
2016-07-13 13:22:20.426 STDERR [INFO] I0713 13:22:20.426044 16772 net.cpp:399] inception_4e/3x3 -> inception_4e/3x3
2016-07-13 13:22:20.434 STDERR [INFO] I0713 13:22:20.434247 16772 net.cpp:141] Setting up inception_4e/3x3
2016-07-13 13:22:20.434 STDERR [INFO] I0713 13:22:20.434268 16772 net.cpp:148] Top shape: 10 320 14 14 (627200)
2016-07-13 13:22:20.434 STDERR [INFO] I0713 13:22:20.434274 16772 net.cpp:156] Memory required for data: 503139840
2016-07-13 13:22:20.434 STDERR [INFO] I0713 13:22:20.434284 16772 layer_factory.hpp:77] Creating layer inception_4e/relu_3x3
2016-07-13 13:22:20.434 STDERR [INFO] I0713 13:22:20.434294 16772 net.cpp:91] Creating Layer inception_4e/relu_3x3
2016-07-13 13:22:20.434 STDERR [INFO] I0713 13:22:20.434301 16772 net.cpp:425] inception_4e/relu_3x3 <- inception_4e/3x3
2016-07-13 13:22:20.434 STDERR [INFO] I0713 13:22:20.434314 16772 net.cpp:386] inception_4e/relu_3x3 -> inception_4e/3x3 (in-place)
2016-07-13 13:22:20.435 STDERR [INFO] I0713 13:22:20.435161 16772 net.cpp:141] Setting up inception_4e/relu_3x3
2016-07-13 13:22:20.435 STDERR [INFO] I0713 13:22:20.435179 16772 net.cpp:148] Top shape: 10 320 14 14 (627200)
2016-07-13 13:22:20.435 STDERR [INFO] I0713 13:22:20.435184 16772 net.cpp:156] Memory required for data: 505648640
2016-07-13 13:22:20.435 STDERR [INFO] I0713 13:22:20.435190 16772 layer_factory.hpp:77] Creating layer inception_4e/5x5_reduce
2016-07-13 13:22:20.435 STDERR [INFO] I0713 13:22:20.435209 16772 net.cpp:91] Creating Layer inception_4e/5x5_reduce
2016-07-13 13:22:20.435 STDERR [INFO] I0713 13:22:20.435216 16772 net.cpp:425] inception_4e/5x5_reduce <- inception_4d/output_inception_4d/output_0_split_2
2016-07-13 13:22:20.435 STDERR [INFO] I0713 13:22:20.435230 16772 net.cpp:399] inception_4e/5x5_reduce -> inception_4e/5x5_reduce
2016-07-13 13:22:20.437 STDERR [INFO] I0713 13:22:20.437788 16772 net.cpp:141] Setting up inception_4e/5x5_reduce
2016-07-13 13:22:20.438 STDERR [INFO] I0713 13:22:20.437806 16772 net.cpp:148] Top shape: 10 32 14 14 (62720)
2016-07-13 13:22:20.438 STDERR [INFO] I0713 13:22:20.437813 16772 net.cpp:156] Memory required for data: 505899520
2016-07-13 13:22:20.438 STDERR [INFO] I0713 13:22:20.437822 16772 layer_factory.hpp:77] Creating layer inception_4e/relu_5x5_reduce
2016-07-13 13:22:20.438 STDERR [INFO] I0713 13:22:20.437834 16772 net.cpp:91] Creating Layer inception_4e/relu_5x5_reduce
2016-07-13 13:22:20.438 STDERR [INFO] I0713 13:22:20.437840 16772 net.cpp:425] inception_4e/relu_5x5_reduce <- inception_4e/5x5_reduce
2016-07-13 13:22:20.438 STDERR [INFO] I0713 13:22:20.437849 16772 net.cpp:386] inception_4e/relu_5x5_reduce -> inception_4e/5x5_reduce (in-place)
2016-07-13 13:22:20.438 STDERR [INFO] I0713 13:22:20.438134 16772 net.cpp:141] Setting up inception_4e/relu_5x5_reduce
2016-07-13 13:22:20.438 STDERR [INFO] I0713 13:22:20.438148 16772 net.cpp:148] Top shape: 10 32 14 14 (62720)
2016-07-13 13:22:20.438 STDERR [INFO] I0713 13:22:20.438153 16772 net.cpp:156] Memory required for data: 506150400
2016-07-13 13:22:20.438 STDERR [INFO] I0713 13:22:20.438158 16772 layer_factory.hpp:77] Creating layer inception_4e/5x5
2016-07-13 13:22:20.438 STDERR [INFO] I0713 13:22:20.438176 16772 net.cpp:91] Creating Layer inception_4e/5x5
2016-07-13 13:22:20.438 STDERR [INFO] I0713 13:22:20.438184 16772 net.cpp:425] inception_4e/5x5 <- inception_4e/5x5_reduce
2016-07-13 13:22:20.438 STDERR [INFO] I0713 13:22:20.438194 16772 net.cpp:399] inception_4e/5x5 -> inception_4e/5x5
2016-07-13 13:22:20.442 STDERR [INFO] I0713 13:22:20.442600 16772 net.cpp:141] Setting up inception_4e/5x5
2016-07-13 13:22:20.442 STDERR [INFO] I0713 13:22:20.442620 16772 net.cpp:148] Top shape: 10 128 14 14 (250880)
2016-07-13 13:22:20.442 STDERR [INFO] I0713 13:22:20.442626 16772 net.cpp:156] Memory required for data: 507153920
2016-07-13 13:22:20.442 STDERR [INFO] I0713 13:22:20.442636 16772 layer_factory.hpp:77] Creating layer inception_4e/relu_5x5
2016-07-13 13:22:20.442 STDERR [INFO] I0713 13:22:20.442648 16772 net.cpp:91] Creating Layer inception_4e/relu_5x5
2016-07-13 13:22:20.443 STDERR [INFO] I0713 13:22:20.442656 16772 net.cpp:425] inception_4e/relu_5x5 <- inception_4e/5x5
2016-07-13 13:22:20.443 STDERR [INFO] I0713 13:22:20.442663 16772 net.cpp:386] inception_4e/relu_5x5 -> inception_4e/5x5 (in-place)
2016-07-13 13:22:20.443 STDERR [INFO] I0713 13:22:20.442951 16772 net.cpp:141] Setting up inception_4e/relu_5x5
2016-07-13 13:22:20.443 STDERR [INFO] I0713 13:22:20.442965 16772 net.cpp:148] Top shape: 10 128 14 14 (250880)
2016-07-13 13:22:20.443 STDERR [INFO] I0713 13:22:20.442970 16772 net.cpp:156] Memory required for data: 508157440
2016-07-13 13:22:20.443 STDERR [INFO] I0713 13:22:20.442975 16772 layer_factory.hpp:77] Creating layer inception_4e/pool
2016-07-13 13:22:20.443 STDERR [INFO] I0713 13:22:20.442989 16772 net.cpp:91] Creating Layer inception_4e/pool
2016-07-13 13:22:20.443 STDERR [INFO] I0713 13:22:20.442996 16772 net.cpp:425] inception_4e/pool <- inception_4d/output_inception_4d/output_0_split_3
2016-07-13 13:22:20.443 STDERR [INFO] I0713 13:22:20.443007 16772 net.cpp:399] inception_4e/pool -> inception_4e/pool
2016-07-13 13:22:20.443 STDERR [INFO] I0713 13:22:20.443091 16772 net.cpp:141] Setting up inception_4e/pool
2016-07-13 13:22:20.443 STDERR [INFO] I0713 13:22:20.443102 16772 net.cpp:148] Top shape: 10 528 14 14 (1034880)
2016-07-13 13:22:20.443 STDERR [INFO] I0713 13:22:20.443107 16772 net.cpp:156] Memory required for data: 512296960
2016-07-13 13:22:20.443 STDERR [INFO] I0713 13:22:20.443112 16772 layer_factory.hpp:77] Creating layer inception_4e/pool_proj
2016-07-13 13:22:20.443 STDERR [INFO] I0713 13:22:20.443128 16772 net.cpp:91] Creating Layer inception_4e/pool_proj
2016-07-13 13:22:20.443 STDERR [INFO] I0713 13:22:20.443135 16772 net.cpp:425] inception_4e/pool_proj <- inception_4e/pool
2016-07-13 13:22:20.443 STDERR [INFO] I0713 13:22:20.443148 16772 net.cpp:399] inception_4e/pool_proj -> inception_4e/pool_proj
2016-07-13 13:22:20.446 STDERR [INFO] I0713 13:22:20.446117 16772 net.cpp:141] Setting up inception_4e/pool_proj
2016-07-13 13:22:20.446 STDERR [INFO] I0713 13:22:20.446136 16772 net.cpp:148] Top shape: 10 128 14 14 (250880)
2016-07-13 13:22:20.446 STDERR [INFO] I0713 13:22:20.446141 16772 net.cpp:156] Memory required for data: 513300480
2016-07-13 13:22:20.446 STDERR [INFO] I0713 13:22:20.446151 16772 layer_factory.hpp:77] Creating layer inception_4e/relu_pool_proj
2016-07-13 13:22:20.446 STDERR [INFO] I0713 13:22:20.446161 16772 net.cpp:91] Creating Layer inception_4e/relu_pool_proj
2016-07-13 13:22:20.446 STDERR [INFO] I0713 13:22:20.446167 16772 net.cpp:425] inception_4e/relu_pool_proj <- inception_4e/pool_proj
2016-07-13 13:22:20.446 STDERR [INFO] I0713 13:22:20.446179 16772 net.cpp:386] inception_4e/relu_pool_proj -> inception_4e/pool_proj (in-place)
2016-07-13 13:22:20.447 STDERR [INFO] I0713 13:22:20.447010 16772 net.cpp:141] Setting up inception_4e/relu_pool_proj
2016-07-13 13:22:20.447 STDERR [INFO] I0713 13:22:20.447028 16772 net.cpp:148] Top shape: 10 128 14 14 (250880)
2016-07-13 13:22:20.447 STDERR [INFO] I0713 13:22:20.447033 16772 net.cpp:156] Memory required for data: 514304000
2016-07-13 13:22:20.447 STDERR [INFO] I0713 13:22:20.447039 16772 layer_factory.hpp:77] Creating layer inception_4e/output
2016-07-13 13:22:20.447 STDERR [INFO] I0713 13:22:20.447049 16772 net.cpp:91] Creating Layer inception_4e/output
2016-07-13 13:22:20.447 STDERR [INFO] I0713 13:22:20.447055 16772 net.cpp:425] inception_4e/output <- inception_4e/1x1
2016-07-13 13:22:20.447 STDERR [INFO] I0713 13:22:20.447062 16772 net.cpp:425] inception_4e/output <- inception_4e/3x3
2016-07-13 13:22:20.447 STDERR [INFO] I0713 13:22:20.447068 16772 net.cpp:425] inception_4e/output <- inception_4e/5x5
2016-07-13 13:22:20.447 STDERR [INFO] I0713 13:22:20.447074 16772 net.cpp:425] inception_4e/output <- inception_4e/pool_proj
2016-07-13 13:22:20.447 STDERR [INFO] I0713 13:22:20.447085 16772 net.cpp:399] inception_4e/output -> inception_4e/output
2016-07-13 13:22:20.447 STDERR [INFO] I0713 13:22:20.447139 16772 net.cpp:141] Setting up inception_4e/output
2016-07-13 13:22:20.447 STDERR [INFO] I0713 13:22:20.447154 16772 net.cpp:148] Top shape: 10 832 14 14 (1630720)
2016-07-13 13:22:20.447 STDERR [INFO] I0713 13:22:20.447159 16772 net.cpp:156] Memory required for data: 520826880
2016-07-13 13:22:20.447 STDERR [INFO] I0713 13:22:20.447163 16772 layer_factory.hpp:77] Creating layer pool4/3x3_s2
2016-07-13 13:22:20.447 STDERR [INFO] I0713 13:22:20.447171 16772 net.cpp:91] Creating Layer pool4/3x3_s2
2016-07-13 13:22:20.448 STDERR [INFO] I0713 13:22:20.447177 16772 net.cpp:425] pool4/3x3_s2 <- inception_4e/output
2016-07-13 13:22:20.448 STDERR [INFO] I0713 13:22:20.447185 16772 net.cpp:399] pool4/3x3_s2 -> pool4/3x3_s2
2016-07-13 13:22:20.448 STDERR [INFO] I0713 13:22:20.447259 16772 net.cpp:141] Setting up pool4/3x3_s2
2016-07-13 13:22:20.448 STDERR [INFO] I0713 13:22:20.447271 16772 net.cpp:148] Top shape: 10 832 7 7 (407680)
2016-07-13 13:22:20.448 STDERR [INFO] I0713 13:22:20.447275 16772 net.cpp:156] Memory required for data: 522457600
2016-07-13 13:22:20.448 STDERR [INFO] I0713 13:22:20.447280 16772 layer_factory.hpp:77] Creating layer pool4/3x3_s2_pool4/3x3_s2_0_split
2016-07-13 13:22:20.448 STDERR [INFO] I0713 13:22:20.447289 16772 net.cpp:91] Creating Layer pool4/3x3_s2_pool4/3x3_s2_0_split
2016-07-13 13:22:20.448 STDERR [INFO] I0713 13:22:20.447294 16772 net.cpp:425] pool4/3x3_s2_pool4/3x3_s2_0_split <- pool4/3x3_s2
2016-07-13 13:22:20.448 STDERR [INFO] I0713 13:22:20.447305 16772 net.cpp:399] pool4/3x3_s2_pool4/3x3_s2_0_split -> pool4/3x3_s2_pool4/3x3_s2_0_split_0
2016-07-13 13:22:20.448 STDERR [INFO] I0713 13:22:20.447316 16772 net.cpp:399] pool4/3x3_s2_pool4/3x3_s2_0_split -> pool4/3x3_s2_pool4/3x3_s2_0_split_1
2016-07-13 13:22:20.448 STDERR [INFO] I0713 13:22:20.447325 16772 net.cpp:399] pool4/3x3_s2_pool4/3x3_s2_0_split -> pool4/3x3_s2_pool4/3x3_s2_0_split_2
2016-07-13 13:22:20.448 STDERR [INFO] I0713 13:22:20.447336 16772 net.cpp:399] pool4/3x3_s2_pool4/3x3_s2_0_split -> pool4/3x3_s2_pool4/3x3_s2_0_split_3
2016-07-13 13:22:20.448 STDERR [INFO] I0713 13:22:20.447448 16772 net.cpp:141] Setting up pool4/3x3_s2_pool4/3x3_s2_0_split
2016-07-13 13:22:20.448 STDERR [INFO] I0713 13:22:20.447458 16772 net.cpp:148] Top shape: 10 832 7 7 (407680)
2016-07-13 13:22:20.448 STDERR [INFO] I0713 13:22:20.447464 16772 net.cpp:148] Top shape: 10 832 7 7 (407680)
2016-07-13 13:22:20.448 STDERR [INFO] I0713 13:22:20.447470 16772 net.cpp:148] Top shape: 10 832 7 7 (407680)
2016-07-13 13:22:20.448 STDERR [INFO] I0713 13:22:20.447475 16772 net.cpp:148] Top shape: 10 832 7 7 (407680)
2016-07-13 13:22:20.448 STDERR [INFO] I0713 13:22:20.447480 16772 net.cpp:156] Memory required for data: 528980480
2016-07-13 13:22:20.448 STDERR [INFO] I0713 13:22:20.447485 16772 layer_factory.hpp:77] Creating layer inception_5a/1x1
2016-07-13 13:22:20.449 STDERR [INFO] I0713 13:22:20.447500 16772 net.cpp:91] Creating Layer inception_5a/1x1
2016-07-13 13:22:20.449 STDERR [INFO] I0713 13:22:20.447506 16772 net.cpp:425] inception_5a/1x1 <- pool4/3x3_s2_pool4/3x3_s2_0_split_0
2016-07-13 13:22:20.449 STDERR [INFO] I0713 13:22:20.447520 16772 net.cpp:399] inception_5a/1x1 -> inception_5a/1x1
2016-07-13 13:22:20.452 STDERR [INFO] I0713 13:22:20.452898 16772 net.cpp:141] Setting up inception_5a/1x1
2016-07-13 13:22:20.453 STDERR [INFO] I0713 13:22:20.452920 16772 net.cpp:148] Top shape: 10 256 7 7 (125440)
2016-07-13 13:22:20.453 STDERR [INFO] I0713 13:22:20.452926 16772 net.cpp:156] Memory required for data: 529482240
2016-07-13 13:22:20.453 STDERR [INFO] I0713 13:22:20.452936 16772 layer_factory.hpp:77] Creating layer inception_5a/relu_1x1
2016-07-13 13:22:20.453 STDERR [INFO] I0713 13:22:20.452950 16772 net.cpp:91] Creating Layer inception_5a/relu_1x1
2016-07-13 13:22:20.453 STDERR [INFO] I0713 13:22:20.452957 16772 net.cpp:425] inception_5a/relu_1x1 <- inception_5a/1x1
2016-07-13 13:22:20.453 STDERR [INFO] I0713 13:22:20.452965 16772 net.cpp:386] inception_5a/relu_1x1 -> inception_5a/1x1 (in-place)
2016-07-13 13:22:20.453 STDERR [INFO] I0713 13:22:20.453245 16772 net.cpp:141] Setting up inception_5a/relu_1x1
2016-07-13 13:22:20.453 STDERR [INFO] I0713 13:22:20.453258 16772 net.cpp:148] Top shape: 10 256 7 7 (125440)
2016-07-13 13:22:20.453 STDERR [INFO] I0713 13:22:20.453263 16772 net.cpp:156] Memory required for data: 529984000
2016-07-13 13:22:20.453 STDERR [INFO] I0713 13:22:20.453269 16772 layer_factory.hpp:77] Creating layer inception_5a/3x3_reduce
2016-07-13 13:22:20.453 STDERR [INFO] I0713 13:22:20.453286 16772 net.cpp:91] Creating Layer inception_5a/3x3_reduce
2016-07-13 13:22:20.453 STDERR [INFO] I0713 13:22:20.453294 16772 net.cpp:425] inception_5a/3x3_reduce <- pool4/3x3_s2_pool4/3x3_s2_0_split_1
2016-07-13 13:22:20.453 STDERR [INFO] I0713 13:22:20.453306 16772 net.cpp:399] inception_5a/3x3_reduce -> inception_5a/3x3_reduce
2016-07-13 13:22:20.458 STDERR [INFO] I0713 13:22:20.458024 16772 net.cpp:141] Setting up inception_5a/3x3_reduce
2016-07-13 13:22:20.458 STDERR [INFO] I0713 13:22:20.458045 16772 net.cpp:148] Top shape: 10 160 7 7 (78400)
2016-07-13 13:22:20.458 STDERR [INFO] I0713 13:22:20.458053 16772 net.cpp:156] Memory required for data: 530297600
2016-07-13 13:22:20.458 STDERR [INFO] I0713 13:22:20.458063 16772 layer_factory.hpp:77] Creating layer inception_5a/relu_3x3_reduce
2016-07-13 13:22:20.458 STDERR [INFO] I0713 13:22:20.458073 16772 net.cpp:91] Creating Layer inception_5a/relu_3x3_reduce
2016-07-13 13:22:20.458 STDERR [INFO] I0713 13:22:20.458081 16772 net.cpp:425] inception_5a/relu_3x3_reduce <- inception_5a/3x3_reduce
2016-07-13 13:22:20.458 STDERR [INFO] I0713 13:22:20.458088 16772 net.cpp:386] inception_5a/relu_3x3_reduce -> inception_5a/3x3_reduce (in-place)
2016-07-13 13:22:20.458 STDERR [INFO] I0713 13:22:20.458377 16772 net.cpp:141] Setting up inception_5a/relu_3x3_reduce
2016-07-13 13:22:20.458 STDERR [INFO] I0713 13:22:20.458390 16772 net.cpp:148] Top shape: 10 160 7 7 (78400)
2016-07-13 13:22:20.458 STDERR [INFO] I0713 13:22:20.458395 16772 net.cpp:156] Memory required for data: 530611200
2016-07-13 13:22:20.458 STDERR [INFO] I0713 13:22:20.458400 16772 layer_factory.hpp:77] Creating layer inception_5a/3x3
2016-07-13 13:22:20.458 STDERR [INFO] I0713 13:22:20.458416 16772 net.cpp:91] Creating Layer inception_5a/3x3
2016-07-13 13:22:20.458 STDERR [INFO] I0713 13:22:20.458423 16772 net.cpp:425] inception_5a/3x3 <- inception_5a/3x3_reduce
2016-07-13 13:22:20.458 STDERR [INFO] I0713 13:22:20.458437 16772 net.cpp:399] inception_5a/3x3 -> inception_5a/3x3
2016-07-13 13:22:20.467 STDERR [INFO] I0713 13:22:20.467483 16772 net.cpp:141] Setting up inception_5a/3x3
2016-07-13 13:22:20.467 STDERR [INFO] I0713 13:22:20.467504 16772 net.cpp:148] Top shape: 10 320 7 7 (156800)
2016-07-13 13:22:20.467 STDERR [INFO] I0713 13:22:20.467509 16772 net.cpp:156] Memory required for data: 531238400
2016-07-13 13:22:20.467 STDERR [INFO] I0713 13:22:20.467520 16772 layer_factory.hpp:77] Creating layer inception_5a/relu_3x3
2016-07-13 13:22:20.467 STDERR [INFO] I0713 13:22:20.467530 16772 net.cpp:91] Creating Layer inception_5a/relu_3x3
2016-07-13 13:22:20.467 STDERR [INFO] I0713 13:22:20.467536 16772 net.cpp:425] inception_5a/relu_3x3 <- inception_5a/3x3
2016-07-13 13:22:20.468 STDERR [INFO] I0713 13:22:20.467550 16772 net.cpp:386] inception_5a/relu_3x3 -> inception_5a/3x3 (in-place)
2016-07-13 13:22:20.468 STDERR [INFO] I0713 13:22:20.468415 16772 net.cpp:141] Setting up inception_5a/relu_3x3
2016-07-13 13:22:20.468 STDERR [INFO] I0713 13:22:20.468432 16772 net.cpp:148] Top shape: 10 320 7 7 (156800)
2016-07-13 13:22:20.468 STDERR [INFO] I0713 13:22:20.468438 16772 net.cpp:156] Memory required for data: 531865600
2016-07-13 13:22:20.468 STDERR [INFO] I0713 13:22:20.468448 16772 layer_factory.hpp:77] Creating layer inception_5a/5x5_reduce
2016-07-13 13:22:20.468 STDERR [INFO] I0713 13:22:20.468469 16772 net.cpp:91] Creating Layer inception_5a/5x5_reduce
2016-07-13 13:22:20.468 STDERR [INFO] I0713 13:22:20.468477 16772 net.cpp:425] inception_5a/5x5_reduce <- pool4/3x3_s2_pool4/3x3_s2_0_split_2
2016-07-13 13:22:20.468 STDERR [INFO] I0713 13:22:20.468487 16772 net.cpp:399] inception_5a/5x5_reduce -> inception_5a/5x5_reduce
2016-07-13 13:22:20.471 STDERR [INFO] I0713 13:22:20.471205 16772 net.cpp:141] Setting up inception_5a/5x5_reduce
2016-07-13 13:22:20.471 STDERR [INFO] I0713 13:22:20.471225 16772 net.cpp:148] Top shape: 10 32 7 7 (15680)
2016-07-13 13:22:20.471 STDERR [INFO] I0713 13:22:20.471230 16772 net.cpp:156] Memory required for data: 531928320
2016-07-13 13:22:20.471 STDERR [INFO] I0713 13:22:20.471240 16772 layer_factory.hpp:77] Creating layer inception_5a/relu_5x5_reduce
2016-07-13 13:22:20.471 STDERR [INFO] I0713 13:22:20.471251 16772 net.cpp:91] Creating Layer inception_5a/relu_5x5_reduce
2016-07-13 13:22:20.471 STDERR [INFO] I0713 13:22:20.471256 16772 net.cpp:425] inception_5a/relu_5x5_reduce <- inception_5a/5x5_reduce
2016-07-13 13:22:20.471 STDERR [INFO] I0713 13:22:20.471267 16772 net.cpp:386] inception_5a/relu_5x5_reduce -> inception_5a/5x5_reduce (in-place)
2016-07-13 13:22:20.471 STDERR [INFO] I0713 13:22:20.471549 16772 net.cpp:141] Setting up inception_5a/relu_5x5_reduce
2016-07-13 13:22:20.471 STDERR [INFO] I0713 13:22:20.471561 16772 net.cpp:148] Top shape: 10 32 7 7 (15680)
2016-07-13 13:22:20.471 STDERR [INFO] I0713 13:22:20.471566 16772 net.cpp:156] Memory required for data: 531991040
2016-07-13 13:22:20.471 STDERR [INFO] I0713 13:22:20.471572 16772 layer_factory.hpp:77] Creating layer inception_5a/5x5
2016-07-13 13:22:20.472 STDERR [INFO] I0713 13:22:20.471591 16772 net.cpp:91] Creating Layer inception_5a/5x5
2016-07-13 13:22:20.472 STDERR [INFO] I0713 13:22:20.471597 16772 net.cpp:425] inception_5a/5x5 <- inception_5a/5x5_reduce
2016-07-13 13:22:20.472 STDERR [INFO] I0713 13:22:20.471607 16772 net.cpp:399] inception_5a/5x5 -> inception_5a/5x5
2016-07-13 13:22:20.475 STDERR [INFO] I0713 13:22:20.474956 16772 net.cpp:141] Setting up inception_5a/5x5
2016-07-13 13:22:20.475 STDERR [INFO] I0713 13:22:20.474977 16772 net.cpp:148] Top shape: 10 128 7 7 (62720)
2016-07-13 13:22:20.475 STDERR [INFO] I0713 13:22:20.474983 16772 net.cpp:156] Memory required for data: 532241920
2016-07-13 13:22:20.475 STDERR [INFO] I0713 13:22:20.474993 16772 layer_factory.hpp:77] Creating layer inception_5a/relu_5x5
2016-07-13 13:22:20.475 STDERR [INFO] I0713 13:22:20.475028 16772 net.cpp:91] Creating Layer inception_5a/relu_5x5
2016-07-13 13:22:20.475 STDERR [INFO] I0713 13:22:20.475036 16772 net.cpp:425] inception_5a/relu_5x5 <- inception_5a/5x5
2016-07-13 13:22:20.475 STDERR [INFO] I0713 13:22:20.475049 16772 net.cpp:386] inception_5a/relu_5x5 -> inception_5a/5x5 (in-place)
2016-07-13 13:22:20.475 STDERR [INFO] I0713 13:22:20.475327 16772 net.cpp:141] Setting up inception_5a/relu_5x5
2016-07-13 13:22:20.475 STDERR [INFO] I0713 13:22:20.475340 16772 net.cpp:148] Top shape: 10 128 7 7 (62720)
2016-07-13 13:22:20.475 STDERR [INFO] I0713 13:22:20.475344 16772 net.cpp:156] Memory required for data: 532492800
2016-07-13 13:22:20.475 STDERR [INFO] I0713 13:22:20.475352 16772 layer_factory.hpp:77] Creating layer inception_5a/pool
2016-07-13 13:22:20.475 STDERR [INFO] I0713 13:22:20.475364 16772 net.cpp:91] Creating Layer inception_5a/pool
2016-07-13 13:22:20.475 STDERR [INFO] I0713 13:22:20.475371 16772 net.cpp:425] inception_5a/pool <- pool4/3x3_s2_pool4/3x3_s2_0_split_3
2016-07-13 13:22:20.475 STDERR [INFO] I0713 13:22:20.475380 16772 net.cpp:399] inception_5a/pool -> inception_5a/pool
2016-07-13 13:22:20.475 STDERR [INFO] I0713 13:22:20.475466 16772 net.cpp:141] Setting up inception_5a/pool
2016-07-13 13:22:20.475 STDERR [INFO] I0713 13:22:20.475476 16772 net.cpp:148] Top shape: 10 832 7 7 (407680)
2016-07-13 13:22:20.475 STDERR [INFO] I0713 13:22:20.475481 16772 net.cpp:156] Memory required for data: 534123520
2016-07-13 13:22:20.475 STDERR [INFO] I0713 13:22:20.475486 16772 layer_factory.hpp:77] Creating layer inception_5a/pool_proj
2016-07-13 13:22:20.476 STDERR [INFO] I0713 13:22:20.475503 16772 net.cpp:91] Creating Layer inception_5a/pool_proj
2016-07-13 13:22:20.476 STDERR [INFO] I0713 13:22:20.475509 16772 net.cpp:425] inception_5a/pool_proj <- inception_5a/pool
2016-07-13 13:22:20.476 STDERR [INFO] I0713 13:22:20.475522 16772 net.cpp:399] inception_5a/pool_proj -> inception_5a/pool_proj
2016-07-13 13:22:20.480 STDERR [INFO] I0713 13:22:20.480020 16772 net.cpp:141] Setting up inception_5a/pool_proj
2016-07-13 13:22:20.480 STDERR [INFO] I0713 13:22:20.480042 16772 net.cpp:148] Top shape: 10 128 7 7 (62720)
2016-07-13 13:22:20.480 STDERR [INFO] I0713 13:22:20.480048 16772 net.cpp:156] Memory required for data: 534374400
2016-07-13 13:22:20.480 STDERR [INFO] I0713 13:22:20.480058 16772 layer_factory.hpp:77] Creating layer inception_5a/relu_pool_proj
2016-07-13 13:22:20.480 STDERR [INFO] I0713 13:22:20.480068 16772 net.cpp:91] Creating Layer inception_5a/relu_pool_proj
2016-07-13 13:22:20.480 STDERR [INFO] I0713 13:22:20.480075 16772 net.cpp:425] inception_5a/relu_pool_proj <- inception_5a/pool_proj
2016-07-13 13:22:20.480 STDERR [INFO] I0713 13:22:20.480083 16772 net.cpp:386] inception_5a/relu_pool_proj -> inception_5a/pool_proj (in-place)
2016-07-13 13:22:20.480 STDERR [INFO] I0713 13:22:20.480921 16772 net.cpp:141] Setting up inception_5a/relu_pool_proj
2016-07-13 13:22:20.481 STDERR [INFO] I0713 13:22:20.480939 16772 net.cpp:148] Top shape: 10 128 7 7 (62720)
2016-07-13 13:22:20.481 STDERR [INFO] I0713 13:22:20.480945 16772 net.cpp:156] Memory required for data: 534625280
2016-07-13 13:22:20.481 STDERR [INFO] I0713 13:22:20.480950 16772 layer_factory.hpp:77] Creating layer inception_5a/output
2016-07-13 13:22:20.481 STDERR [INFO] I0713 13:22:20.480960 16772 net.cpp:91] Creating Layer inception_5a/output
2016-07-13 13:22:20.481 STDERR [INFO] I0713 13:22:20.480967 16772 net.cpp:425] inception_5a/output <- inception_5a/1x1
2016-07-13 13:22:20.481 STDERR [INFO] I0713 13:22:20.480973 16772 net.cpp:425] inception_5a/output <- inception_5a/3x3
2016-07-13 13:22:20.481 STDERR [INFO] I0713 13:22:20.480979 16772 net.cpp:425] inception_5a/output <- inception_5a/5x5
2016-07-13 13:22:20.481 STDERR [INFO] I0713 13:22:20.480985 16772 net.cpp:425] inception_5a/output <- inception_5a/pool_proj
2016-07-13 13:22:20.481 STDERR [INFO] I0713 13:22:20.480993 16772 net.cpp:399] inception_5a/output -> inception_5a/output
2016-07-13 13:22:20.481 STDERR [INFO] I0713 13:22:20.481052 16772 net.cpp:141] Setting up inception_5a/output
2016-07-13 13:22:20.481 STDERR [INFO] I0713 13:22:20.481065 16772 net.cpp:148] Top shape: 10 832 7 7 (407680)
2016-07-13 13:22:20.481 STDERR [INFO] I0713 13:22:20.481068 16772 net.cpp:156] Memory required for data: 536256000
2016-07-13 13:22:20.481 STDERR [INFO] I0713 13:22:20.481073 16772 layer_factory.hpp:77] Creating layer inception_5a/output_inception_5a/output_0_split
2016-07-13 13:22:20.481 STDERR [INFO] I0713 13:22:20.481086 16772 net.cpp:91] Creating Layer inception_5a/output_inception_5a/output_0_split
…
2016-07-13 13:22:20.481 STDERR [INFO] I0713 13:22:20.481108 16772 net.cpp:399] inception_5a/output_inception_5a/output_0_split -> inception_5a/output_inception_5a/output_0_split_1
2016-07-13 13:22:20.481 STDERR [INFO] I0713 13:22:20.481117 16772 net.cpp:399] inception_5a/output_inception_5a/output_0_split -> inception_5a/output_inception_5a/output_0_split_2
2016-07-13 13:22:20.481 STDERR [INFO] I0713 13:22:20.481127 16772 net.cpp:399] inception_5a/output_inception_5a/output_0_split -> inception_5a/output_inception_5a/output_0_split_3
2016-07-13 13:22:20.481 STDERR [INFO] I0713 13:22:20.481248 16772 net.cpp:141] Setting up inception_5a/output_inception_5a/output_0_split
2016-07-13 13:22:20.482 STDERR [INFO] I0713 13:22:20.481259 16772 net.cpp:148] Top shape: 10 832 7 7 (407680)
2016-07-13 13:22:20.482 STDERR [INFO] I0713 13:22:20.481266 16772 net.cpp:148] Top shape: 10 832 7 7 (407680)
2016-07-13 13:22:20.482 STDERR [INFO] I0713 13:22:20.481271 16772 net.cpp:148] Top shape: 10 832 7 7 (407680)
2016-07-13 13:22:20.482 STDERR [INFO] I0713 13:22:20.481277 16772 net.cpp:148] Top shape: 10 832 7 7 (407680)
2016-07-13 13:22:20.482 STDERR [INFO] I0713 13:22:20.481282 16772 net.cpp:156] Memory required for data: 542778880
2016-07-13 13:22:20.482 STDERR [INFO] I0713 13:22:20.481287 16772 layer_factory.hpp:77] Creating layer inception_5b/1x1
2016-07-13 13:22:20.482 STDERR [INFO] I0713 13:22:20.481307 16772 net.cpp:91] Creating Layer inception_5b/1x1
2016-07-13 13:22:20.482 STDERR [INFO] I0713 13:22:20.481313 16772 net.cpp:425] inception_5b/1x1 <- inception_5a/output_inception_5a/output_0_split_0
2016-07-13 13:22:20.482 STDERR [INFO] I0713 13:22:20.481325 16772 net.cpp:399] inception_5b/1x1 -> inception_5b/1x1
2016-07-13 13:22:20.487 STDERR [INFO] I0713 13:22:20.487810 16772 net.cpp:141] Setting up inception_5b/1x1
2016-07-13 13:22:20.488 STDERR [INFO] I0713 13:22:20.487833 16772 net.cpp:148] Top shape: 10 384 7 7 (188160)
2016-07-13 13:22:20.488 STDERR [INFO] I0713 13:22:20.487838 16772 net.cpp:156] Memory required for data: 543531520
2016-07-13 13:22:20.488 STDERR [INFO] I0713 13:22:20.487848 16772 layer_factory.hpp:77] Creating layer inception_5b/relu_1x1
2016-07-13 13:22:20.488 STDERR [INFO] I0713 13:22:20.487860 16772 net.cpp:91] Creating Layer inception_5b/relu_1x1
2016-07-13 13:22:20.488 STDERR [INFO] I0713 13:22:20.487866 16772 net.cpp:425] inception_5b/relu_1x1 <- inception_5b/1x1
2016-07-13 13:22:20.488 STDERR [INFO] I0713 13:22:20.487875 16772 net.cpp:386] inception_5b/relu_1x1 -> inception_5b/1x1 (in-place)
2016-07-13 13:22:20.488 STDERR [INFO] I0713 13:22:20.488164 16772 net.cpp:141] Setting up inception_5b/relu_1x1
2016-07-13 13:22:20.488 STDERR [INFO] I0713 13:22:20.488178 16772 net.cpp:148] Top shape: 10 384 7 7 (188160)
2016-07-13 13:22:20.488 STDERR [INFO] I0713 13:22:20.488183 16772 net.cpp:156] Memory required for data: 544284160
2016-07-13 13:22:20.488 STDERR [INFO] I0713 13:22:20.488188 16772 layer_factory.hpp:77] Creating layer inception_5b/3x3_reduce
2016-07-13 13:22:20.488 STDERR [INFO] I0713 13:22:20.488204 16772 net.cpp:91] Creating Layer inception_5b/3x3_reduce
2016-07-13 13:22:20.488 STDERR [INFO] I0713 13:22:20.488210 16772 net.cpp:425] inception_5b/3x3_reduce <- inception_5a/output_inception_5a/output_0_split_1
2016-07-13 13:22:20.488 STDERR [INFO] I0713 13:22:20.488219 16772 net.cpp:399] inception_5b/3x3_reduce -> inception_5b/3x3_reduce
2016-07-13 13:22:20.493 STDERR [INFO] I0713 13:22:20.493181 16772 net.cpp:141] Setting up inception_5b/3x3_reduce
2016-07-13 13:22:20.493 STDERR [INFO] I0713 13:22:20.493201 16772 net.cpp:148] Top shape: 10 192 7 7 (94080)
2016-07-13 13:22:20.493 STDERR [INFO] I0713 13:22:20.493207 16772 net.cpp:156] Memory required for data: 544660480
2016-07-13 13:22:20.493 STDERR [INFO] I0713 13:22:20.493217 16772 layer_factory.hpp:77] Creating layer inception_5b/relu_3x3_reduce
2016-07-13 13:22:20.493 STDERR [INFO] I0713 13:22:20.493232 16772 net.cpp:91] Creating Layer inception_5b/relu_3x3_reduce
2016-07-13 13:22:20.493 STDERR [INFO] I0713 13:22:20.493238 16772 net.cpp:425] inception_5b/relu_3x3_reduce <- inception_5b/3x3_reduce
2016-07-13 13:22:20.493 STDERR [INFO] I0713 13:22:20.493248 16772 net.cpp:386] inception_5b/relu_3x3_reduce -> inception_5b/3x3_reduce (in-place)
2016-07-13 13:22:20.493 STDERR [INFO] I0713 13:22:20.493530 16772 net.cpp:141] Setting up inception_5b/relu_3x3_reduce
2016-07-13 13:22:20.493 STDERR [INFO] I0713 13:22:20.493543 16772 net.cpp:148] Top shape: 10 192 7 7 (94080)
2016-07-13 13:22:20.493 STDERR [INFO] I0713 13:22:20.493548 16772 net.cpp:156] Memory required for data: 545036800
2016-07-13 13:22:20.493 STDERR [INFO] I0713 13:22:20.493553 16772 layer_factory.hpp:77] Creating layer inception_5b/3x3
2016-07-13 13:22:20.493 STDERR [INFO] I0713 13:22:20.493571 16772 net.cpp:91] Creating Layer inception_5b/3x3
2016-07-13 13:22:20.493 STDERR [INFO] I0713 13:22:20.493577 16772 net.cpp:425] inception_5b/3x3 <- inception_5b/3x3_reduce
2016-07-13 13:22:20.493 STDERR [INFO] I0713 13:22:20.493589 16772 net.cpp:399] inception_5b/3x3 -> inception_5b/3x3
2016-07-13 13:22:20.503 STDERR [INFO] I0713 13:22:20.503490 16772 net.cpp:141] Setting up inception_5b/3x3
2016-07-13 13:22:20.503 STDERR [INFO] I0713 13:22:20.503511 16772 net.cpp:148] Top shape: 10 384 7 7 (188160)
2016-07-13 13:22:20.503 STDERR [INFO] I0713 13:22:20.503517 16772 net.cpp:156] Memory required for data: 545789440
2016-07-13 13:22:20.503 STDERR [INFO] I0713 13:22:20.503528 16772 layer_factory.hpp:77] Creating layer inception_5b/relu_3x3
2016-07-13 13:22:20.503 STDERR [INFO] I0713 13:22:20.503537 16772 net.cpp:91] Creating Layer inception_5b/relu_3x3
2016-07-13 13:22:20.503 STDERR [INFO] I0713 13:22:20.503545 16772 net.cpp:425] inception_5b/relu_3x3 <- inception_5b/3x3
2016-07-13 13:22:20.503 STDERR [INFO] I0713 13:22:20.503552 16772 net.cpp:386] inception_5b/relu_3x3 -> inception_5b/3x3 (in-place)
2016-07-13 13:22:20.504 STDERR [INFO] I0713 13:22:20.504395 16772 net.cpp:141] Setting up inception_5b/relu_3x3
2016-07-13 13:22:20.504 STDERR [INFO] I0713 13:22:20.504412 16772 net.cpp:148] Top shape: 10 384 7 7 (188160)
2016-07-13 13:22:20.504 STDERR [INFO] I0713 13:22:20.504417 16772 net.cpp:156] Memory required for data: 546542080
2016-07-13 13:22:20.504 STDERR [INFO] I0713 13:22:20.504423 16772 layer_factory.hpp:77] Creating layer inception_5b/5x5_reduce
2016-07-13 13:22:20.504 STDERR [INFO] I0713 13:22:20.504441 16772 net.cpp:91] Creating Layer inception_5b/5x5_reduce
2016-07-13 13:22:20.504 STDERR [INFO] I0713 13:22:20.504448 16772 net.cpp:425] inception_5b/5x5_reduce <- inception_5a/output_inception_5a/output_0_split_2
2016-07-13 13:22:20.504 STDERR [INFO] I0713 13:22:20.504465 16772 net.cpp:399] inception_5b/5x5_reduce -> inception_5b/5x5_reduce
2016-07-13 13:22:20.507 STDERR [INFO] I0713 13:22:20.507335 16772 net.cpp:141] Setting up inception_5b/5x5_reduce
2016-07-13 13:22:20.507 STDERR [INFO] I0713 13:22:20.507354 16772 net.cpp:148] Top shape: 10 48 7 7 (23520)
2016-07-13 13:22:20.507 STDERR [INFO] I0713 13:22:20.507360 16772 net.cpp:156] Memory required for data: 546636160
2016-07-13 13:22:20.507 STDERR [INFO] I0713 13:22:20.507370 16772 layer_factory.hpp:77] Creating layer inception_5b/relu_5x5_reduce
2016-07-13 13:22:20.507 STDERR [INFO] I0713 13:22:20.507383 16772 net.cpp:91] Creating Layer inception_5b/relu_5x5_reduce
2016-07-13 13:22:20.507 STDERR [INFO] I0713 13:22:20.507391 16772 net.cpp:425] inception_5b/relu_5x5_reduce <- inception_5b/5x5_reduce
2016-07-13 13:22:20.507 STDERR [INFO] I0713 13:22:20.507400 16772 net.cpp:386] inception_5b/relu_5x5_reduce -> inception_5b/5x5_reduce (in-place)
2016-07-13 13:22:20.507 STDERR [INFO] I0713 13:22:20.507679 16772 net.cpp:141] Setting up inception_5b/relu_5x5_reduce
2016-07-13 13:22:20.507 STDERR [INFO] I0713 13:22:20.507694 16772 net.cpp:148] Top shape: 10 48 7 7 (23520)
2016-07-13 13:22:20.508 STDERR [INFO] I0713 13:22:20.507699 16772 net.cpp:156] Memory required for data: 546730240
2016-07-13 13:22:20.508 STDERR [INFO] I0713 13:22:20.507705 16772 layer_factory.hpp:77] Creating layer inception_5b/5x5
2016-07-13 13:22:20.508 STDERR [INFO] I0713 13:22:20.507722 16772 net.cpp:91] Creating Layer inception_5b/5x5
2016-07-13 13:22:20.508 STDERR [INFO] I0713 13:22:20.507730 16772 net.cpp:425] inception_5b/5x5 <- inception_5b/5x5_reduce
2016-07-13 13:22:20.508 STDERR [INFO] I0713 13:22:20.507740 16772 net.cpp:399] inception_5b/5x5 -> inception_5b/5x5
2016-07-13 13:22:20.512 STDERR [INFO] I0713 13:22:20.512182 16772 net.cpp:141] Setting up inception_5b/5x5
2016-07-13 13:22:20.512 STDERR [INFO] I0713 13:22:20.512202 16772 net.cpp:148] Top shape: 10 128 7 7 (62720)
2016-07-13 13:22:20.512 STDERR [INFO] I0713 13:22:20.512208 16772 net.cpp:156] Memory required for data: 546981120
2016-07-13 13:22:20.512 STDERR [INFO] I0713 13:22:20.512218 16772 layer_factory.hpp:77] Creating layer inception_5b/relu_5x5
2016-07-13 13:22:20.512 STDERR [INFO] I0713 13:22:20.512233 16772 net.cpp:91] Creating Layer inception_5b/relu_5x5
2016-07-13 13:22:20.512 STDERR [INFO] I0713 13:22:20.512239 16772 net.cpp:425] inception_5b/relu_5x5 <- inception_5b/5x5
2016-07-13 13:22:20.512 STDERR [INFO] I0713 13:22:20.512420 16772 net.cpp:386] inception_5b/relu_5x5 -> inception_5b/5x5 (in-place)
2016-07-13 13:22:20.512 STDERR [INFO] I0713 13:22:20.512715 16772 net.cpp:141] Setting up inception_5b/relu_5x5
2016-07-13 13:22:20.512 STDERR [INFO] I0713 13:22:20.512732 16772 net.cpp:148] Top shape: 10 128 7 7 (62720)
2016-07-13 13:22:20.512 STDERR [INFO] I0713 13:22:20.512737 16772 net.cpp:156] Memory required for data: 547232000
2016-07-13 13:22:20.512 STDERR [INFO] I0713 13:22:20.512742 16772 layer_factory.hpp:77] Creating layer inception_5b/pool
2016-07-13 13:22:20.512 STDERR [INFO] I0713 13:22:20.512753 16772 net.cpp:91] Creating Layer inception_5b/pool
2016-07-13 13:22:20.512 STDERR [INFO] I0713 13:22:20.512758 16772 net.cpp:425] inception_5b/pool <- inception_5a/output_inception_5a/output_0_split_3
2016-07-13 13:22:20.513 STDERR [INFO] I0713 13:22:20.512771 16772 net.cpp:399] inception_5b/pool -> inception_5b/pool
2016-07-13 13:22:20.513 STDERR [INFO] I0713 13:22:20.512858 16772 net.cpp:141] Setting up inception_5b/pool
2016-07-13 13:22:20.513 STDERR [INFO] I0713 13:22:20.512869 16772 net.cpp:148] Top shape: 10 832 7 7 (407680)
2016-07-13 13:22:20.513 STDERR [INFO] I0713 13:22:20.512874 16772 net.cpp:156] Memory required for data: 548862720
2016-07-13 13:22:20.513 STDERR [INFO] I0713 13:22:20.512879 16772 layer_factory.hpp:77] Creating layer inception_5b/pool_proj
2016-07-13 13:22:20.513 STDERR [INFO] I0713 13:22:20.512902 16772 net.cpp:91] Creating Layer inception_5b/pool_proj
2016-07-13 13:22:20.513 STDERR [INFO] I0713 13:22:20.512909 16772 net.cpp:425] inception_5b/pool_proj <- inception_5b/pool
2016-07-13 13:22:20.513 STDERR [INFO] I0713 13:22:20.512919 16772 net.cpp:399] inception_5b/pool_proj -> inception_5b/pool_proj
2016-07-13 13:22:20.517 STDERR [INFO] I0713 13:22:20.517441 16772 net.cpp:141] Setting up inception_5b/pool_proj
2016-07-13 13:22:20.517 STDERR [INFO] I0713 13:22:20.517462 16772 net.cpp:148] Top shape: 10 128 7 7 (62720)
2016-07-13 13:22:20.517 STDERR [INFO] I0713 13:22:20.517467 16772 net.cpp:156] Memory required for data: 549113600
2016-07-13 13:22:20.517 STDERR [INFO] I0713 13:22:20.517477 16772 layer_factory.hpp:77] Creating layer inception_5b/relu_pool_proj
2016-07-13 13:22:20.517 STDERR [INFO] I0713 13:22:20.517487 16772 net.cpp:91] Creating Layer inception_5b/relu_pool_proj
2016-07-13 13:22:20.517 STDERR [INFO] I0713 13:22:20.517493 16772 net.cpp:425] inception_5b/relu_pool_proj <- inception_5b/pool_proj
2016-07-13 13:22:20.517 STDERR [INFO] I0713 13:22:20.517501 16772 net.cpp:386] inception_5b/relu_pool_proj -> inception_5b/pool_proj (in-place)
2016-07-13 13:22:20.518 STDERR [INFO] I0713 13:22:20.518373 16772 net.cpp:141] Setting up inception_5b/relu_pool_proj
2016-07-13 13:22:20.518 STDERR [INFO] I0713 13:22:20.518391 16772 net.cpp:148] Top shape: 10 128 7 7 (62720)
2016-07-13 13:22:20.518 STDERR [INFO] I0713 13:22:20.518396 16772 net.cpp:156] Memory required for data: 549364480
2016-07-13 13:22:20.518 STDERR [INFO] I0713 13:22:20.518402 16772 layer_factory.hpp:77] Creating layer inception_5b/output
2016-07-13 13:22:20.518 STDERR [INFO] I0713 13:22:20.518411 16772 net.cpp:91] Creating Layer inception_5b/output
2016-07-13 13:22:20.518 STDERR [INFO] I0713 13:22:20.518419 16772 net.cpp:425] inception_5b/output <- inception_5b/1x1
2016-07-13 13:22:20.518 STDERR [INFO] I0713 13:22:20.518425 16772 net.cpp:425] inception_5b/output <- inception_5b/3x3
2016-07-13 13:22:20.518 STDERR [INFO] I0713 13:22:20.518431 16772 net.cpp:425] inception_5b/output <- inception_5b/5x5
2016-07-13 13:22:20.518 STDERR [INFO] I0713 13:22:20.518437 16772 net.cpp:425] inception_5b/output <- inception_5b/pool_proj
2016-07-13 13:22:20.518 STDERR [INFO] I0713 13:22:20.518445 16772 net.cpp:399] inception_5b/output -> inception_5b/output
2016-07-13 13:22:20.519 STDERR [INFO] I0713 13:22:20.518512 16772 net.cpp:141] Setting up inception_5b/output
2016-07-13 13:22:20.519 STDERR [INFO] I0713 13:22:20.518528 16772 net.cpp:148] Top shape: 10 1024 7 7 (501760)
2016-07-13 13:22:20.519 STDERR [INFO] I0713 13:22:20.518533 16772 net.cpp:156] Memory required for data: 551371520
2016-07-13 13:22:20.519 STDERR [INFO] I0713 13:22:20.518539 16772 layer_factory.hpp:77] Creating layer pool5/7x7_s1
2016-07-13 13:22:20.519 STDERR [INFO] I0713 13:22:20.518548 16772 net.cpp:91] Creating Layer pool5/7x7_s1
2016-07-13 13:22:20.519 STDERR [INFO] I0713 13:22:20.518555 16772 net.cpp:425] pool5/7x7_s1 <- inception_5b/output
2016-07-13 13:22:20.519 STDERR [INFO] I0713 13:22:20.518563 16772 net.cpp:399] pool5/7x7_s1 -> pool5/7x7_s1
2016-07-13 13:22:20.519 STDERR [INFO] I0713 13:22:20.518940 16772 net.cpp:141] Setting up pool5/7x7_s1
2016-07-13 13:22:20.519 STDERR [INFO] I0713 13:22:20.518956 16772 net.cpp:148] Top shape: 10 1024 1 1 (10240)
2016-07-13 13:22:20.519 STDERR [INFO] I0713 13:22:20.518961 16772 net.cpp:156] Memory required for data: 551412480
2016-07-13 13:22:20.519 STDERR [INFO] I0713 13:22:20.518966 16772 layer_factory.hpp:77] Creating layer pool5/drop_7x7_s1
2016-07-13 13:22:20.519 STDERR [INFO] I0713 13:22:20.518985 16772 net.cpp:91] Creating Layer pool5/drop_7x7_s1
2016-07-13 13:22:20.519 STDERR [INFO] I0713 13:22:20.518990 16772 net.cpp:425] pool5/drop_7x7_s1 <- pool5/7x7_s1
2016-07-13 13:22:20.519 STDERR [INFO] I0713 13:22:20.519001 16772 net.cpp:386] pool5/drop_7x7_s1 -> pool5/7x7_s1 (in-place)
2016-07-13 13:22:20.519 STDERR [INFO] I0713 13:22:20.519064 16772 net.cpp:141] Setting up pool5/drop_7x7_s1
2016-07-13 13:22:20.519 STDERR [INFO] I0713 13:22:20.519076 16772 net.cpp:148] Top shape: 10 1024 1 1 (10240)
2016-07-13 13:22:20.519 STDERR [INFO] I0713 13:22:20.519081 16772 net.cpp:156] Memory required for data: 551453440
2016-07-13 13:22:20.519 STDERR [INFO] I0713 13:22:20.519088 16772 layer_factory.hpp:77] Creating layer loss3/classifier
2016-07-13 13:22:20.519 STDERR [INFO] I0713 13:22:20.519105 16772 net.cpp:91] Creating Layer loss3/classifier
2016-07-13 13:22:20.519 STDERR [INFO] I0713 13:22:20.519111 16772 net.cpp:425] loss3/classifier <- pool5/7x7_s1
2016-07-13 13:22:20.519 STDERR [INFO] I0713 13:22:20.519140 16772 net.cpp:399] loss3/classifier -> loss3/classifier
2016-07-13 13:22:20.530 STDERR [INFO] I0713 13:22:20.530877 16772 net.cpp:141] Setting up loss3/classifier
2016-07-13 13:22:20.531 STDERR [INFO] I0713 13:22:20.530900 16772 net.cpp:148] Top shape: 10 1000 (10000)
2016-07-13 13:22:20.531 STDERR [INFO] I0713 13:22:20.530905 16772 net.cpp:156] Memory required for data: 551493440
2016-07-13 13:22:20.531 STDERR [INFO] I0713 13:22:20.530915 16772 layer_factory.hpp:77] Creating layer prob
2016-07-13 13:22:20.531 STDERR [INFO] I0713 13:22:20.530927 16772 net.cpp:91] Creating Layer prob
2016-07-13 13:22:20.531 STDERR [INFO] I0713 13:22:20.530935 16772 net.cpp:425] prob <- loss3/classifier
2016-07-13 13:22:20.531 STDERR [INFO] I0713 13:22:20.530942 16772 net.cpp:399] prob -> prob
2016-07-13 13:22:20.532 STDERR [INFO] I0713 13:22:20.532060 16772 net.cpp:141] Setting up prob
2016-07-13 13:22:20.532 STDERR [INFO] I0713 13:22:20.532078 16772 net.cpp:148] Top shape: 10 1000 (10000)
2016-07-13 13:22:20.532 STDERR [INFO] I0713 13:22:20.532084 16772 net.cpp:156] Memory required for data: 551533440
2016-07-13 13:22:20.532 STDERR [INFO] I0713 13:22:20.532090 16772 net.cpp:219] prob does not need backward computation.
2016-07-13 13:22:20.532 STDERR [INFO] I0713 13:22:20.532095 16772 net.cpp:219] loss3/classifier does not need backward computation.
2016-07-13 13:22:20.532 STDERR [INFO] I0713 13:22:20.532100 16772 net.cpp:219] pool5/drop_7x7_s1 does not need backward computation.
…
