…
Java HotSpot(TM) 64-Bit Server VM warning: You have loaded library /tmp/cvld8204641347077976706/libopencv_java310.xine1.so which might have disabled stack guard. The VM will try to fix the stack guard now.
It's highly recommended that you fix the library with 'execstack -c <libfile>', or link it with '-z noexecstack'.
WARNING: Logging before InitGoogleLogging() is written to STDERR
I0730 11:25:04.666062 10639 net.cpp:49] Initializing net from parameters: 
name: "CaffeNet"
state {
  phase: TEST
}
layer {
  name: "data"
  type: "Input"
  top: "data"
  input_param {
    shape {
      dim: 10
      dim: 3
      dim: 227
      dim: 227
    }
  }
}
layer {
  name: "conv1"
  type: "Convolution"
  bottom: "data"
  top: "conv1"
  convolution_param {
    num_output: 96
    kernel_size: 11
    stride: 4
  }
}
layer {
  name: "relu1"
  type: "ReLU"
  bottom: "conv1"
  top: "conv1"
}
layer {
  name: "pool1"
  type: "Pooling"
  bottom: "conv1"
  top: "pool1"
  pooling_param {
    pool: MAX
    kernel_size: 3
    stride: 2
  }
}
layer {
  name: "norm1"
  type: "LRN"
  bottom: "pool1"
  top: "norm1"
  lrn_param {
    local_size: 5
    alpha: 0.0001
    beta: 0.75
  }
}
layer {
  name: "conv2"
  type: "Convolution"
  bottom: "norm1"
  top: "conv2"
  convolution_param {
    num_output: 256
    pad: 2
    kernel_size: 5
    group: 2
  }
}
layer {
  name: "relu2"
  type: "ReLU"
  bottom: "conv2"
  top: "conv2"
}
layer {
  name: "pool2"
  type: "Pooling"
  bottom: "conv2"
  top: "pool2"
  pooling_param {
    pool: MAX
    kernel_size: 3
    stride: 2
  }
}
layer {
  name: "norm2"
  type: "LRN"
  bottom: "pool2"
  top: "norm2"
  lrn_param {
    local_size: 5
    alpha: 0.0001
    beta: 0.75
  }
}
layer {
  name: "conv3"
  type: "Convolution"
  bottom: "norm2"
  top: "conv3"
  convolution_param {
    num_output: 384
    pad: 1
    kernel_size: 3
  }
}
layer {
  name: "relu3"
  type: "ReLU"
  bottom: "conv3"
  top: "conv3"
}
layer {
  name: "conv4"
  type: "Convolution"
  bottom: "conv3"
  top: "conv4"
  convolution_param {
    num_output: 384
    pad: 1
    kernel_size: 3
    group: 2
  }
}
layer {
  name: "relu4"
  type: "ReLU"
  bottom: "conv4"
  top: "conv4"
}
layer {
  name: "conv5"
  type: "Convolution"
  bottom: "conv4"
  top: "conv5"
  convolution_param {
    num_output: 256
    pad: 1
    kernel_size: 3
    group: 2
  }
}
layer {
  name: "relu5"
  type: "ReLU"
  bottom: "conv5"
  top: "conv5"
}
layer {
  name: "pool5"
  type: "Pooling"
  bottom: "conv5"
  top: "pool5"
  pooling_param {
    pool: MAX
    kernel_size: 3
    stride: 2
  }
}
layer {
  name: "fc6"
  type: "InnerProduct"
  bottom: "pool5"
  top: "fc6"
  inner_product_param {
    num_output: 4096
  }
}
layer {
  name: "relu6"
  type: "ReLU"
  bottom: "fc6"
  top: "fc6"
}
layer {
  name: "drop6"
  type: "Dropout"
  bottom: "fc6"
  top: "fc6"
  dropout_param {
    dropout_ratio: 0.5
  }
}
layer {
  name: "fc7"
  type: "InnerProduct"
  bottom: "fc6"
  top: "fc7"
  inner_product_param {
    num_output: 4096
  }
}
layer {
  name: "relu7"
  type: "ReLU"
  bottom: "fc7"
  top: "fc7"
}
layer {
  name: "drop7"
  type: "Dropout"
  bottom: "fc7"
  top: "fc7"
  dropout_param {
    dropout_ratio: 0.5
  }
}
layer {
  name: "fc8"
  type: "InnerProduct"
  bottom: "fc7"
  top: "fc8"
  inner_product_param {
    num_output: 1000
  }
}
layer {
  name: "prob"
  type: "Softmax"
  bottom: "fc8"
  top: "prob"
}
I0730 11:25:04.666434 10639 layer_factory.hpp:77] Creating layer data
I0730 11:25:04.666465 10639 net.cpp:91] Creating Layer data
I0730 11:25:04.666474 10639 net.cpp:399] data -> data
I0730 11:25:05.086823 10629 upgrade_proto.cpp:66] Attempting to upgrade input file specified using deprecated input fields: /tmp/cvld8204641347077976706/s2vt.words_to_preds.prototxt
I0730 11:25:05.086871 10629 upgrade_proto.cpp:69] Successfully upgraded file specified using deprecated input fields.
W0730 11:25:05.086879 10629 upgrade_proto.cpp:71] Note that future Caffe releases will only support input layers and not input fields.
I0730 11:25:05.087126 10629 net.cpp:49] Initializing net from parameters: 
name: "s2vt:features_to_lstm"
state {
  phase: TEST
}
layer {
  name: "input"
  type: "Input"
  top: "frames_fc7"
  top: "cont_sentence"
  top: "input_sentence"
  top: "stage_indicator"
  input_param {
    shape {
      dim: 1
      dim: 4096
    }
    shape {
      dim: 1
      dim: 1
    }
    shape {
      dim: 1
      dim: 1
    }
    shape {
      dim: 1
      dim: 1
    }
  }
}
layer {
  name: "embed_encoder"
  type: "InnerProduct"
  bottom: "frames_fc7"
  top: "embedded_in_frames"
  param {
    lr_mult: 1
    decay_mult: 1
  }
  param {
    lr_mult: 2
    decay_mult: 0
  }
  inner_product_param {
    num_output: 500
    weight_filler {
      type: "xavier"
    }
    bias_filler {
      type: "constant"
      value: 0.2
    }
  }
}
layer {
  name: "reshape_frames"
  type: "Reshape"
  bottom: "embedded_in_frames"
  top: "embedded_input_frames"
  reshape_param {
    shape {
      dim: 1
      dim: 1
      dim: 500
    }
  }
}
layer {
  name: "reshape_stage_indicator"
  type: "Reshape"
  bottom: "stage_indicator"
  top: "reshaped_stage_indicator"
  reshape_param {
    shape {
      dim: 1
      dim: 1
      dim: 1
    }
  }
}
layer {
  name: "embedding"
  type: "Embed"
  bottom: "input_sentence"
  top: "embedded_input_sentence"
  param {
    lr_mult: 1
  }
  embed_param {
    num_output: 500
    input_dim: 46168
    bias_term: false
    weight_filler {
      type: "uniform"
      min: -0.08
      max: 0.08
    }
  }
}
layer {
  name: "lstm1"
  type: "LSTM"
  bottom: "embedded_input_frames"
  bottom: "cont_sentence"
  top: "lstm1"
  recurrent_param {
    num_output: 1000
    weight_filler {
      type: "uniform"
      min: -0.08
      max: 0.08
    }
    bias_filler {
      type: "constant"
      value: 0
    }
  }
}
layer {
  name: "concat"
  type: "Concat"
  bottom: "lstm1"
  bottom: "embedded_input_sentence"
  bottom: "reshaped_stage_indicator"
  top: "lstm1_video_sequence"
  concat_param {
    concat_dim: 2
  }
}
layer {
  name: "lstm2"
  type: "LSTM"
  bottom: "lstm1_video_sequence"
  bottom: "cont_sentence"
  top: "lstm2"
  recurrent_param {
    num_output: 1000
    weight_filler {
      type: "uniform"
      min: -0.08
      max: 0.08
    }
    bias_filler {
      type: "constant"
      value: 0
    }
  }
}
layer {
  name: "predict"
  type: "InnerProduct"
  bottom: "lstm2"
  top: "predict"
  param {
    lr_mult: 1
    decay_mult: 1
  }
  param {
    lr_mult: 2
    decay_mult: 0
  }
  inner_product_param {
    num_output: 46168
    weight_filler {
      type: "uniform"
      min: -0.08
      max: 0.08
    }
    bias_filler {
      type: "constant"
      value: 0
    }
    axis: 2
  }
}
layer {
  name: "probs"
  type: "Softmax"
  bottom: "predict"
  top: "probs"
  softmax_param {
    axis: 2
  }
}
I0730 11:25:05.087247 10629 layer_factory.hpp:77] Creating layer input
I0730 11:25:05.087262 10629 net.cpp:91] Creating Layer input
I0730 11:25:05.087270 10629 net.cpp:399] input -> frames_fc7
I0730 11:25:05.087286 10629 net.cpp:399] input -> cont_sentence
I0730 11:25:05.087299 10629 net.cpp:399] input -> input_sentence
I0730 11:25:05.087308 10629 net.cpp:399] input -> stage_indicator
I0730 11:25:05.190102 10639 net.cpp:141] Setting up data
I0730 11:25:05.190171 10639 net.cpp:148] Top shape: 10 3 227 227 (1545870)
I0730 11:25:05.190178 10629 net.cpp:141] Setting up input
I0730 11:25:05.190179 10639 net.cpp:156] Memory required for data: 6183480
I0730 11:25:05.190204 10629 net.cpp:148] Top shape: 1 4096 (4096)
I0730 11:25:05.190212 10629 net.cpp:148] Top shape: 1 1 (1)
I0730 11:25:05.190213 10639 layer_factory.hpp:77] Creating layer conv1
I0730 11:25:05.190217 10629 net.cpp:148] Top shape: 1 1 (1)
I0730 11:25:05.190223 10629 net.cpp:148] Top shape: 1 1 (1)
I0730 11:25:05.190227 10629 net.cpp:156] Memory required for data: 16396
I0730 11:25:05.190233 10629 layer_factory.hpp:77] Creating layer cont_sentence_input_1_split
I0730 11:25:05.190240 10639 net.cpp:91] Creating Layer conv1
I0730 11:25:05.190250 10639 net.cpp:425] conv1 <- data
I0730 11:25:05.190253 10629 net.cpp:91] Creating Layer cont_sentence_input_1_split
I0730 11:25:05.190259 10629 net.cpp:425] cont_sentence_input_1_split <- cont_sentence
I0730 11:25:05.190263 10639 net.cpp:399] conv1 -> conv1
I0730 11:25:05.190280 10629 net.cpp:399] cont_sentence_input_1_split -> cont_sentence_input_1_split_0
I0730 11:25:05.190291 10629 net.cpp:399] cont_sentence_input_1_split -> cont_sentence_input_1_split_1
I0730 11:25:05.190402 10629 net.cpp:141] Setting up cont_sentence_input_1_split
I0730 11:25:05.190415 10629 net.cpp:148] Top shape: 1 1 (1)
I0730 11:25:05.190421 10629 net.cpp:148] Top shape: 1 1 (1)
I0730 11:25:05.190425 10629 net.cpp:156] Memory required for data: 16404
I0730 11:25:05.190430 10629 layer_factory.hpp:77] Creating layer embed_encoder
I0730 11:25:05.190451 10629 net.cpp:91] Creating Layer embed_encoder
I0730 11:25:05.190456 10629 net.cpp:425] embed_encoder <- frames_fc7
I0730 11:25:05.190464 10629 net.cpp:399] embed_encoder -> embedded_in_frames
I0730 11:25:05.214857 10629 net.cpp:141] Setting up embed_encoder
I0730 11:25:05.214900 10629 net.cpp:148] Top shape: 1 500 (500)
I0730 11:25:05.214906 10629 net.cpp:156] Memory required for data: 18404
I0730 11:25:05.214931 10629 layer_factory.hpp:77] Creating layer reshape_frames
I0730 11:25:05.214961 10629 net.cpp:91] Creating Layer reshape_frames
I0730 11:25:05.214974 10629 net.cpp:425] reshape_frames <- embedded_in_frames
I0730 11:25:05.214989 10629 net.cpp:399] reshape_frames -> embedded_input_frames
I0730 11:25:05.215086 10629 net.cpp:141] Setting up reshape_frames
I0730 11:25:05.215097 10629 net.cpp:148] Top shape: 1 1 500 (500)
I0730 11:25:05.215101 10629 net.cpp:156] Memory required for data: 20404
I0730 11:25:05.215106 10629 layer_factory.hpp:77] Creating layer reshape_stage_indicator
I0730 11:25:05.215117 10629 net.cpp:91] Creating Layer reshape_stage_indicator
I0730 11:25:05.215122 10629 net.cpp:425] reshape_stage_indicator <- stage_indicator
I0730 11:25:05.215131 10629 net.cpp:399] reshape_stage_indicator -> reshaped_stage_indicator
I0730 11:25:05.215266 10629 net.cpp:141] Setting up reshape_stage_indicator
I0730 11:25:05.215277 10629 net.cpp:148] Top shape: 1 1 1 (1)
I0730 11:25:05.215281 10629 net.cpp:156] Memory required for data: 20408
I0730 11:25:05.215286 10629 layer_factory.hpp:77] Creating layer embedding
I0730 11:25:05.215297 10629 net.cpp:91] Creating Layer embedding
I0730 11:25:05.215302 10629 net.cpp:425] embedding <- input_sentence
I0730 11:25:05.215311 10629 net.cpp:399] embedding -> embedded_input_sentence
I0730 11:25:05.435995 10629 net.cpp:141] Setting up embedding
I0730 11:25:05.436043 10629 net.cpp:148] Top shape: 1 1 500 (500)
I0730 11:25:05.436048 10629 net.cpp:156] Memory required for data: 22408
I0730 11:25:05.436065 10629 layer_factory.hpp:77] Creating layer lstm1
I0730 11:25:05.436082 10629 net.cpp:91] Creating Layer lstm1
I0730 11:25:05.436090 10629 net.cpp:425] lstm1 <- embedded_input_frames
I0730 11:25:05.436099 10629 net.cpp:425] lstm1 <- cont_sentence_input_1_split_0
I0730 11:25:05.436110 10629 net.cpp:399] lstm1 -> lstm1
I0730 11:25:05.436146 10629 recurrent_layer.cpp:20] Initializing recurrent layer: assuming input batch contains 1 timesteps of 1 independent streams.
I0730 11:25:05.436497 10629 net.cpp:49] Initializing net from parameters: 
layer {
  name: "lstm1_"
  type: "Input"
  top: "x"
  top: "cont"
  input_param {
    shape {
      dim: 1
      dim: 1
      dim: 500
    }
    shape {
      dim: 1
      dim: 1
    }
  }
}
layer {
  name: "lstm1_"
  type: "Input"
  top: "c_0"
  top: "h_0"
  input_param {
    shape {
      dim: 1
      dim: 1
      dim: 1000
    }
    shape {
      dim: 1
      dim: 1
      dim: 1000
    }
  }
}
layer {
  name: "lstm1_cont_slice"
  type: "Slice"
  bottom: "cont"
  top: "cont_1"
  slice_param {
    axis: 0
  }
}
layer {
  name: "lstm1_x_transform"
  type: "InnerProduct"
  bottom: "x"
  top: "W_xc_x"
  param {
    name: "W_xc"
  }
  param {
    name: "b_c"
  }
  propagate_down: true
  inner_product_param {
    num_output: 4000
    bias_term: true
    weight_filler {
      type: "uniform"
      min: -0.08
      max: 0.08
    }
    bias_filler {
      type: "constant"
      value: 0
    }
    axis: 2
  }
}
layer {
  name: "lstm1_W_xc_x_slice"
  type: "Slice"
  bottom: "W_xc_x"
  top: "W_xc_x_1"
  slice_param {
    axis: 0
  }
}
layer {
  name: "lstm1_h_conted_0"
  type: "Scale"
  bottom: "h_0"
  bottom: "cont_1"
  top: "h_conted_0"
  scale_param {
    axis: 0
  }
}
layer {
  name: "lstm1_transform_1"
  type: "InnerProduct"
  bottom: "h_conted_0"
  top: "W_hc_h_0"
  param {
    name: "W_hc"
  }
  inner_product_param {
    num_output: 4000
    bias_term: false
    weight_filler {
      type: "uniform"
      min: -0.08
      max: 0.08
    }
    axis: 2
  }
}
layer {
  name: "lstm1_gate_input_1"
  type: "Eltwise"
  bottom: "W_hc_h_0"
  bottom: "W_xc_x_1"
  top: "gate_input_1"
  eltwise_param {
    operation: SUM
  }
}
layer {
  name: "lstm1_unit_1"
  type: "LSTMUnit"
  bottom: "c_0"
  bottom: "gate_input_1"
  bottom: "cont_1"
  top: "c_1"
  top: "h_1"
}
layer {
  name: "lstm1_"
  type: "Split"
  bottom: "c_1"
  top: "c_T"
}
layer {
  name: "lstm1_h_concat"
  type: "Concat"
  bottom: "h_1"
  top: "h"
  concat_param {
    axis: 0
  }
}
layer {
  name: "h_pseudoloss"
  type: "Reduction"
  bottom: "h"
  top: "h_pseudoloss"
  loss_weight: 1
}
I0730 11:25:05.436590 10629 layer_factory.hpp:77] Creating layer lstm1_
I0730 11:25:05.436602 10629 net.cpp:91] Creating Layer lstm1_
I0730 11:25:05.436609 10629 net.cpp:399] lstm1_ -> x
I0730 11:25:05.436620 10629 net.cpp:399] lstm1_ -> cont
I0730 11:25:05.437371 10629 net.cpp:141] Setting up lstm1_
I0730 11:25:05.437389 10629 net.cpp:148] Top shape: 1 1 500 (500)
I0730 11:25:05.437396 10629 net.cpp:148] Top shape: 1 1 (1)
I0730 11:25:05.437399 10629 net.cpp:156] Memory required for data: 2004
I0730 11:25:05.437405 10629 layer_factory.hpp:77] Creating layer lstm1_
I0730 11:25:05.437415 10629 net.cpp:91] Creating Layer lstm1_
I0730 11:25:05.437427 10629 net.cpp:399] lstm1_ -> c_0
I0730 11:25:05.437439 10629 net.cpp:399] lstm1_ -> h_0
I0730 11:25:05.439826 10629 net.cpp:141] Setting up lstm1_
I0730 11:25:05.439846 10629 net.cpp:148] Top shape: 1 1 1000 (1000)
I0730 11:25:05.439852 10629 net.cpp:148] Top shape: 1 1 1000 (1000)
I0730 11:25:05.439857 10629 net.cpp:156] Memory required for data: 10004
I0730 11:25:05.439862 10629 layer_factory.hpp:77] Creating layer lstm1_cont_slice
I0730 11:25:05.439874 10629 net.cpp:91] Creating Layer lstm1_cont_slice
I0730 11:25:05.439880 10629 net.cpp:425] lstm1_cont_slice <- cont
I0730 11:25:05.439888 10629 net.cpp:399] lstm1_cont_slice -> cont_1
I0730 11:25:05.439988 10629 net.cpp:141] Setting up lstm1_cont_slice
I0730 11:25:05.439999 10629 net.cpp:148] Top shape: 1 1 (1)
I0730 11:25:05.440003 10629 net.cpp:156] Memory required for data: 10008
I0730 11:25:05.440008 10629 layer_factory.hpp:77] Creating layer cont_1_lstm1_cont_slice_0_split
I0730 11:25:05.440016 10629 net.cpp:91] Creating Layer cont_1_lstm1_cont_slice_0_split
I0730 11:25:05.440021 10629 net.cpp:425] cont_1_lstm1_cont_slice_0_split <- cont_1
I0730 11:25:05.440032 10629 net.cpp:399] cont_1_lstm1_cont_slice_0_split -> cont_1_lstm1_cont_slice_0_split_0
I0730 11:25:05.440039 10629 net.cpp:399] cont_1_lstm1_cont_slice_0_split -> cont_1_lstm1_cont_slice_0_split_1
I0730 11:25:05.445107 10629 net.cpp:141] Setting up cont_1_lstm1_cont_slice_0_split
I0730 11:25:05.445137 10629 net.cpp:148] Top shape: 1 1 (1)
I0730 11:25:05.445142 10629 net.cpp:148] Top shape: 1 1 (1)
I0730 11:25:05.445147 10629 net.cpp:156] Memory required for data: 10016
I0730 11:25:05.445153 10629 layer_factory.hpp:77] Creating layer lstm1_x_transform
I0730 11:25:05.445178 10629 net.cpp:91] Creating Layer lstm1_x_transform
I0730 11:25:05.445188 10629 net.cpp:425] lstm1_x_transform <- x
I0730 11:25:05.445199 10629 net.cpp:399] lstm1_x_transform -> W_xc_x
I0730 11:25:05.472308 10629 net.cpp:141] Setting up lstm1_x_transform
I0730 11:25:05.472349 10629 net.cpp:148] Top shape: 1 1 4000 (4000)
I0730 11:25:05.472354 10629 net.cpp:156] Memory required for data: 26016
I0730 11:25:05.472373 10629 layer_factory.hpp:77] Creating layer lstm1_W_xc_x_slice
I0730 11:25:05.472388 10629 net.cpp:91] Creating Layer lstm1_W_xc_x_slice
I0730 11:25:05.472394 10629 net.cpp:425] lstm1_W_xc_x_slice <- W_xc_x
I0730 11:25:05.472404 10629 net.cpp:399] lstm1_W_xc_x_slice -> W_xc_x_1
I0730 11:25:05.472667 10629 net.cpp:141] Setting up lstm1_W_xc_x_slice
I0730 11:25:05.472678 10629 net.cpp:148] Top shape: 1 1 4000 (4000)
I0730 11:25:05.472683 10629 net.cpp:156] Memory required for data: 42016
I0730 11:25:05.472687 10629 layer_factory.hpp:77] Creating layer lstm1_h_conted_0
I0730 11:25:05.472707 10629 net.cpp:91] Creating Layer lstm1_h_conted_0
I0730 11:25:05.472712 10629 net.cpp:425] lstm1_h_conted_0 <- h_0
I0730 11:25:05.472718 10629 net.cpp:425] lstm1_h_conted_0 <- cont_1_lstm1_cont_slice_0_split_0
I0730 11:25:05.472724 10629 net.cpp:399] lstm1_h_conted_0 -> h_conted_0
I0730 11:25:05.473058 10629 net.cpp:141] Setting up lstm1_h_conted_0
I0730 11:25:05.473069 10629 net.cpp:148] Top shape: 1 1 1000 (1000)
I0730 11:25:05.473073 10629 net.cpp:156] Memory required for data: 46016
I0730 11:25:05.473078 10629 layer_factory.hpp:77] Creating layer lstm1_transform_1
I0730 11:25:05.473090 10629 net.cpp:91] Creating Layer lstm1_transform_1
I0730 11:25:05.473095 10629 net.cpp:425] lstm1_transform_1 <- h_conted_0
I0730 11:25:05.473106 10629 net.cpp:399] lstm1_transform_1 -> W_hc_h_0
I0730 11:25:05.483443 10639 net.cpp:141] Setting up conv1
I0730 11:25:05.483494 10639 net.cpp:148] Top shape: 10 96 55 55 (2904000)
I0730 11:25:05.483505 10639 net.cpp:156] Memory required for data: 17799480
I0730 11:25:05.483535 10639 layer_factory.hpp:77] Creating layer relu1
I0730 11:25:05.483557 10639 net.cpp:91] Creating Layer relu1
I0730 11:25:05.483571 10639 net.cpp:425] relu1 <- conv1
I0730 11:25:05.483585 10639 net.cpp:386] relu1 -> conv1 (in-place)
I0730 11:25:05.484669 10639 net.cpp:141] Setting up relu1
I0730 11:25:05.484691 10639 net.cpp:148] Top shape: 10 96 55 55 (2904000)
I0730 11:25:05.484702 10639 net.cpp:156] Memory required for data: 29415480
I0730 11:25:05.484711 10639 layer_factory.hpp:77] Creating layer pool1
I0730 11:25:05.484733 10639 net.cpp:91] Creating Layer pool1
I0730 11:25:05.484745 10639 net.cpp:425] pool1 <- conv1
I0730 11:25:05.484760 10639 net.cpp:399] pool1 -> pool1
I0730 11:25:05.484879 10639 net.cpp:141] Setting up pool1
I0730 11:25:05.484896 10639 net.cpp:148] Top shape: 10 96 27 27 (699840)
I0730 11:25:05.484905 10639 net.cpp:156] Memory required for data: 32214840
I0730 11:25:05.484916 10639 layer_factory.hpp:77] Creating layer norm1
I0730 11:25:05.484943 10639 net.cpp:91] Creating Layer norm1
I0730 11:25:05.484953 10639 net.cpp:425] norm1 <- pool1
I0730 11:25:05.484968 10639 net.cpp:399] norm1 -> norm1
I0730 11:25:05.486085 10639 net.cpp:141] Setting up norm1
I0730 11:25:05.486107 10639 net.cpp:148] Top shape: 10 96 27 27 (699840)
I0730 11:25:05.486116 10639 net.cpp:156] Memory required for data: 35014200
I0730 11:25:05.486127 10639 layer_factory.hpp:77] Creating layer conv2
I0730 11:25:05.486150 10639 net.cpp:91] Creating Layer conv2
I0730 11:25:05.486162 10639 net.cpp:425] conv2 <- norm1
I0730 11:25:05.486178 10639 net.cpp:399] conv2 -> conv2
I0730 11:25:05.491022 10639 net.cpp:141] Setting up conv2
I0730 11:25:05.491060 10639 net.cpp:148] Top shape: 10 256 27 27 (1866240)
I0730 11:25:05.491070 10639 net.cpp:156] Memory required for data: 42479160
I0730 11:25:05.491094 10639 layer_factory.hpp:77] Creating layer relu2
I0730 11:25:05.491112 10639 net.cpp:91] Creating Layer relu2
I0730 11:25:05.491123 10639 net.cpp:425] relu2 <- conv2
I0730 11:25:05.491137 10639 net.cpp:386] relu2 -> conv2 (in-place)
I0730 11:25:05.492130 10639 net.cpp:141] Setting up relu2
I0730 11:25:05.492151 10639 net.cpp:148] Top shape: 10 256 27 27 (1866240)
I0730 11:25:05.492161 10639 net.cpp:156] Memory required for data: 49944120
I0730 11:25:05.492171 10639 layer_factory.hpp:77] Creating layer pool2
I0730 11:25:05.492187 10639 net.cpp:91] Creating Layer pool2
I0730 11:25:05.492197 10639 net.cpp:425] pool2 <- conv2
I0730 11:25:05.492213 10639 net.cpp:399] pool2 -> pool2
I0730 11:25:05.492305 10639 net.cpp:141] Setting up pool2
I0730 11:25:05.492324 10639 net.cpp:148] Top shape: 10 256 13 13 (432640)
I0730 11:25:05.492333 10639 net.cpp:156] Memory required for data: 51674680
I0730 11:25:05.492342 10639 layer_factory.hpp:77] Creating layer norm2
I0730 11:25:05.492363 10639 net.cpp:91] Creating Layer norm2
I0730 11:25:05.492375 10639 net.cpp:425] norm2 <- pool2
I0730 11:25:05.492390 10639 net.cpp:399] norm2 -> norm2
I0730 11:25:05.492851 10639 net.cpp:141] Setting up norm2
I0730 11:25:05.492871 10639 net.cpp:148] Top shape: 10 256 13 13 (432640)
I0730 11:25:05.492882 10639 net.cpp:156] Memory required for data: 53405240
I0730 11:25:05.492903 10639 layer_factory.hpp:77] Creating layer conv3
I0730 11:25:05.492923 10639 net.cpp:91] Creating Layer conv3
I0730 11:25:05.492934 10639 net.cpp:425] conv3 <- norm2
I0730 11:25:05.492950 10639 net.cpp:399] conv3 -> conv3
I0730 11:25:05.498241 10639 net.cpp:141] Setting up conv3
I0730 11:25:05.498267 10639 net.cpp:148] Top shape: 10 384 13 13 (648960)
I0730 11:25:05.498276 10639 net.cpp:156] Memory required for data: 56001080
I0730 11:25:05.498299 10639 layer_factory.hpp:77] Creating layer relu3
I0730 11:25:05.498320 10639 net.cpp:91] Creating Layer relu3
I0730 11:25:05.498332 10639 net.cpp:425] relu3 <- conv3
I0730 11:25:05.498344 10639 net.cpp:386] relu3 -> conv3 (in-place)
I0730 11:25:05.499475 10639 net.cpp:141] Setting up relu3
I0730 11:25:05.499500 10639 net.cpp:148] Top shape: 10 384 13 13 (648960)
I0730 11:25:05.499510 10639 net.cpp:156] Memory required for data: 58596920
I0730 11:25:05.499521 10639 layer_factory.hpp:77] Creating layer conv4
I0730 11:25:05.499546 10639 net.cpp:91] Creating Layer conv4
I0730 11:25:05.499557 10639 net.cpp:425] conv4 <- conv3
I0730 11:25:05.499583 10639 net.cpp:399] conv4 -> conv4
I0730 11:25:05.505342 10639 net.cpp:141] Setting up conv4
I0730 11:25:05.505373 10639 net.cpp:148] Top shape: 10 384 13 13 (648960)
I0730 11:25:05.505383 10639 net.cpp:156] Memory required for data: 61192760
I0730 11:25:05.505401 10639 layer_factory.hpp:77] Creating layer relu4
I0730 11:25:05.505417 10639 net.cpp:91] Creating Layer relu4
I0730 11:25:05.505427 10639 net.cpp:425] relu4 <- conv4
I0730 11:25:05.505439 10639 net.cpp:386] relu4 -> conv4 (in-place)
I0730 11:25:05.506455 10639 net.cpp:141] Setting up relu4
I0730 11:25:05.506475 10639 net.cpp:148] Top shape: 10 384 13 13 (648960)
I0730 11:25:05.506485 10639 net.cpp:156] Memory required for data: 63788600
I0730 11:25:05.506494 10639 layer_factory.hpp:77] Creating layer conv5
I0730 11:25:05.506512 10639 net.cpp:91] Creating Layer conv5
I0730 11:25:05.506523 10639 net.cpp:425] conv5 <- conv4
I0730 11:25:05.506541 10639 net.cpp:399] conv5 -> conv5
I0730 11:25:05.511979 10629 net.cpp:141] Setting up lstm1_transform_1
I0730 11:25:05.511999 10629 net.cpp:148] Top shape: 1 1 4000 (4000)
I0730 11:25:05.512004 10629 net.cpp:156] Memory required for data: 62016
I0730 11:25:05.512015 10629 layer_factory.hpp:77] Creating layer lstm1_gate_input_1
I0730 11:25:05.512028 10629 net.cpp:91] Creating Layer lstm1_gate_input_1
I0730 11:25:05.512034 10629 net.cpp:425] lstm1_gate_input_1 <- W_hc_h_0
I0730 11:25:05.512042 10629 net.cpp:425] lstm1_gate_input_1 <- W_xc_x_1
I0730 11:25:05.512051 10629 net.cpp:399] lstm1_gate_input_1 -> gate_input_1
I0730 11:25:05.512109 10629 net.cpp:141] Setting up lstm1_gate_input_1
I0730 11:25:05.512121 10629 net.cpp:148] Top shape: 1 1 4000 (4000)
I0730 11:25:05.512126 10629 net.cpp:156] Memory required for data: 78016
I0730 11:25:05.512130 10629 layer_factory.hpp:77] Creating layer lstm1_unit_1
I0730 11:25:05.512138 10629 net.cpp:91] Creating Layer lstm1_unit_1
I0730 11:25:05.512143 10629 net.cpp:425] lstm1_unit_1 <- c_0
I0730 11:25:05.512148 10629 net.cpp:425] lstm1_unit_1 <- gate_input_1
I0730 11:25:05.512153 10629 net.cpp:425] lstm1_unit_1 <- cont_1_lstm1_cont_slice_0_split_1
I0730 11:25:05.512159 10629 net.cpp:399] lstm1_unit_1 -> c_1
I0730 11:25:05.512167 10629 net.cpp:399] lstm1_unit_1 -> h_1
I0730 11:25:05.512250 10629 net.cpp:141] Setting up lstm1_unit_1
I0730 11:25:05.512260 10629 net.cpp:148] Top shape: 1 1 1000 (1000)
I0730 11:25:05.512266 10629 net.cpp:148] Top shape: 1 1 1000 (1000)
I0730 11:25:05.512270 10629 net.cpp:156] Memory required for data: 86016
I0730 11:25:05.512274 10629 layer_factory.hpp:77] Creating layer lstm1_
I0730 11:25:05.512282 10629 net.cpp:91] Creating Layer lstm1_
I0730 11:25:05.512286 10629 net.cpp:425] lstm1_ <- c_1
I0730 11:25:05.512293 10629 net.cpp:399] lstm1_ -> c_T
I0730 11:25:05.512348 10629 net.cpp:141] Setting up lstm1_
I0730 11:25:05.512357 10629 net.cpp:148] Top shape: 1 1 1000 (1000)
I0730 11:25:05.512362 10629 net.cpp:156] Memory required for data: 90016
I0730 11:25:05.512367 10629 layer_factory.hpp:77] Creating layer lstm1_h_concat
I0730 11:25:05.512378 10629 net.cpp:91] Creating Layer lstm1_h_concat
I0730 11:25:05.512383 10629 net.cpp:425] lstm1_h_concat <- h_1
I0730 11:25:05.512390 10629 net.cpp:399] lstm1_h_concat -> h
I0730 11:25:05.512436 10629 net.cpp:141] Setting up lstm1_h_concat
I0730 11:25:05.512437 10639 net.cpp:141] Setting up conv5
I0730 11:25:05.512444 10629 net.cpp:148] Top shape: 1 1 1000 (1000)
I0730 11:25:05.512472 10629 net.cpp:156] Memory required for data: 94016
I0730 11:25:05.512478 10629 layer_factory.hpp:77] Creating layer h_pseudoloss
I0730 11:25:05.512475 10639 net.cpp:148] Top shape: 10 256 13 13 (432640)
I0730 11:25:05.512495 10629 net.cpp:91] Creating Layer h_pseudoloss
I0730 11:25:05.512497 10639 net.cpp:156] Memory required for data: 65519160
I0730 11:25:05.512501 10629 net.cpp:425] h_pseudoloss <- h
I0730 11:25:05.512518 10629 net.cpp:399] h_pseudoloss -> h_pseudoloss
I0730 11:25:05.512526 10639 layer_factory.hpp:77] Creating layer relu5
I0730 11:25:05.512544 10639 net.cpp:91] Creating Layer relu5
…
I0730 11:25:05.512701 10629 net.cpp:219] lstm1_ does not need backward computation.
I0730 11:25:05.512706 10629 net.cpp:261] This network produces output c_T
I0730 11:25:05.512711 10629 net.cpp:261] This network produces output h_pseudoloss
I0730 11:25:05.512729 10629 net.cpp:274] Network initialization done.
I0730 11:25:05.512795 10629 recurrent_layer.cpp:150] Adding parameter 0: W_xc
I0730 11:25:05.512802 10629 recurrent_layer.cpp:150] Adding parameter 1: b_c
I0730 11:25:05.512806 10629 recurrent_layer.cpp:150] Adding parameter 2: W_hc
I0730 11:25:05.513584 10629 net.cpp:141] Setting up lstm1
I0730 11:25:05.513597 10629 net.cpp:148] Top shape: 1 1 1000 (1000)
I0730 11:25:05.513602 10629 net.cpp:156] Memory required for data: 26408
I0730 11:25:05.513614 10629 layer_factory.hpp:77] Creating layer concat
I0730 11:25:05.513623 10629 net.cpp:91] Creating Layer concat
I0730 11:25:05.513629 10629 net.cpp:425] concat <- lstm1
I0730 11:25:05.513635 10629 net.cpp:425] concat <- embedded_input_sentence
I0730 11:25:05.513640 10629 net.cpp:425] concat <- reshaped_stage_indicator
I0730 11:25:05.513646 10629 net.cpp:399] concat -> lstm1_video_sequence
I0730 11:25:05.513705 10629 net.cpp:141] Setting up concat
I0730 11:25:05.513715 10629 net.cpp:148] Top shape: 1 1 1501 (1501)
I0730 11:25:05.513720 10629 net.cpp:156] Memory required for data: 32412
I0730 11:25:05.513723 10629 layer_factory.hpp:77] Creating layer lstm2
I0730 11:25:05.513736 10629 net.cpp:91] Creating Layer lstm2
I0730 11:25:05.513741 10629 net.cpp:425] lstm2 <- lstm1_video_sequence
I0730 11:25:05.513746 10629 net.cpp:425] lstm2 <- cont_sentence_input_1_split_1
I0730 11:25:05.513753 10629 net.cpp:399] lstm2 -> lstm2
I0730 11:25:05.513757 10639 net.cpp:141] Setting up relu5
I0730 11:25:05.513763 10629 recurrent_layer.cpp:20] Initializing recurrent layer: assuming input batch contains 1 timesteps of 1 independent streams.
I0730 11:25:05.513783 10639 net.cpp:148] Top shape: 10 256 13 13 (432640)
I0730 11:25:05.513793 10639 net.cpp:156] Memory required for data: 67249720
I0730 11:25:05.513803 10639 layer_factory.hpp:77] Creating layer pool5
I0730 11:25:05.513821 10639 net.cpp:91] Creating Layer pool5
I0730 11:25:05.513844 10639 net.cpp:425] pool5 <- conv5
I0730 11:25:05.513865 10639 net.cpp:399] pool5 -> pool5
I0730 11:25:05.513963 10639 net.cpp:141] Setting up pool5
I0730 11:25:05.513980 10639 net.cpp:148] Top shape: 10 256 6 6 (92160)
I0730 11:25:05.513988 10639 net.cpp:156] Memory required for data: 67618360
I0730 11:25:05.513998 10639 layer_factory.hpp:77] Creating layer fc6
I0730 11:25:05.514032 10639 net.cpp:91] Creating Layer fc6
I0730 11:25:05.514034 10629 net.cpp:49] Initializing net from parameters: 
layer {
  name: "lstm2_"
  type: "Input"
  top: "x"
  top: "cont"
  input_param {
    shape {
      dim: 1
      dim: 1
      dim: 1501
    }
    shape {
      dim: 1
      dim: 1
    }
  }
}
layer {
  name: "lstm2_"
  type: "Input"
  top: "c_0"
  top: "h_0"
  input_param {
    shape {
      dim: 1
      dim: 1
      dim: 1000
    }
    shape {
      dim: 1
      dim: 1
      dim: 1000
    }
  }
}
layer {
  name: "lstm2_cont_slice"
  type: "Slice"
  bottom: "cont"
  top: "cont_1"
  slice_param {
    axis: 0
  }
}
layer {
  name: "lstm2_x_transform"
  type: "InnerProduct"
  bottom: "x"
  top: "W_xc_x"
  param {
    name: "W_xc"
  }
  param {
    name: "b_c"
  }
  propagate_down: true
  inner_product_param {
    num_output: 4000
    bias_term: true
    weight_filler {
      type: "uniform"
      min: -0.08
      max: 0.08
    }
    bias_filler {
      type: "constant"
      value: 0
    }
    axis: 2
  }
}
layer {
  name: "lstm2_W_xc_x_slice"
  type: "Slice"
  bottom: "W_xc_x"
  top: "W_xc_x_1"
  slice_param {
    axis: 0
  }
}
layer {
  name: "lstm2_h_conted_0"
  type: "Scale"
  bottom: "h_0"
  bottom: "cont_1"
  top: "h_conted_0"
  scale_param {
    axis: 0
  }
}
layer {
  name: "lstm2_transform_1"
  type: "InnerProduct"
  bottom: "h_conted_0"
  top: "W_hc_h_0"
  param {
    name: "W_hc"
  }
  inner_product_param {
    num_output: 4000
    bias_term: false
    weight_filler {
      type: "uniform"
      min: -0.08
      max: 0.08
    }
    axis: 2
  }
}
layer {
  name: "lstm2_gate_input_1"
  type: "Eltwise"
  bottom: "W_hc_h_0"
  bottom: "W_xc_x_1"
  top: "gate_input_1"
  eltwise_param {
    operation: SUM
  }
}
layer {
  name: "lstm2_unit_1"
  type: "LSTMUnit"
  bottom: "c_0"
  bottom: "gate_input_1"
  bottom: "cont_1"
  top: "c_1"
  top: "h_1"
}
layer {
  name: "lstm2_"
  type: "Split"
  bottom: "c_1"
  top: "c_T"
}
layer {
  name: "lstm2_h_concat"
  type: "Concat"
  bottom: "h_1"
  top: "h"
  concat_param {
    axis: 0
  }
}
layer {
  name: "h_pseudoloss"
  type: "Reduction"
  bottom: "h"
  top: "h_pseudoloss"
  loss_weight: 1
}
I0730 11:25:05.514050 10639 net.cpp:425] fc6 <- pool5
I0730 11:25:05.514070 10639 net.cpp:399] fc6 -> fc6
I0730 11:25:05.514127 10629 layer_factory.hpp:77] Creating layer lstm2_
I0730 11:25:05.514138 10629 net.cpp:91] Creating Layer lstm2_
I0730 11:25:05.514144 10629 net.cpp:399] lstm2_ -> x
I0730 11:25:05.514154 10629 net.cpp:399] lstm2_ -> cont
I0730 11:25:05.588836 10629 net.cpp:141] Setting up lstm2_
I0730 11:25:05.588887 10629 net.cpp:148] Top shape: 1 1 1501 (1501)
I0730 11:25:05.588896 10629 net.cpp:148] Top shape: 1 1 (1)
I0730 11:25:05.588899 10629 net.cpp:156] Memory required for data: 6008
I0730 11:25:05.588908 10629 layer_factory.hpp:77] Creating layer lstm2_
I0730 11:25:05.588930 10629 net.cpp:91] Creating Layer lstm2_
I0730 11:25:05.588939 10629 net.cpp:399] lstm2_ -> c_0
I0730 11:25:05.588956 10629 net.cpp:399] lstm2_ -> h_0
I0730 11:25:05.589015 10629 net.cpp:141] Setting up lstm2_
I0730 11:25:05.589025 10629 net.cpp:148] Top shape: 1 1 1000 (1000)
I0730 11:25:05.589031 10629 net.cpp:148] Top shape: 1 1 1000 (1000)
I0730 11:25:05.589035 10629 net.cpp:156] Memory required for data: 14008
I0730 11:25:05.589040 10629 layer_factory.hpp:77] Creating layer lstm2_cont_slice
I0730 11:25:05.589051 10629 net.cpp:91] Creating Layer lstm2_cont_slice
I0730 11:25:05.589056 10629 net.cpp:425] lstm2_cont_slice <- cont
I0730 11:25:05.589069 10629 net.cpp:399] lstm2_cont_slice -> cont_1
I0730 11:25:05.589107 10629 net.cpp:141] Setting up lstm2_cont_slice
I0730 11:25:05.589117 10629 net.cpp:148] Top shape: 1 1 (1)
I0730 11:25:05.589121 10629 net.cpp:156] Memory required for data: 14012
I0730 11:25:05.589125 10629 layer_factory.hpp:77] Creating layer cont_1_lstm2_cont_slice_0_split
I0730 11:25:05.589133 10629 net.cpp:91] Creating Layer cont_1_lstm2_cont_slice_0_split
I0730 11:25:05.589138 10629 net.cpp:425] cont_1_lstm2_cont_slice_0_split <- cont_1
I0730 11:25:05.589145 10629 net.cpp:399] cont_1_lstm2_cont_slice_0_split -> cont_1_lstm2_cont_slice_0_split_0
I0730 11:25:05.589153 10629 net.cpp:399] cont_1_lstm2_cont_slice_0_split -> cont_1_lstm2_cont_slice_0_split_1
I0730 11:25:05.589201 10629 net.cpp:141] Setting up cont_1_lstm2_cont_slice_0_split
I0730 11:25:05.589210 10629 net.cpp:148] Top shape: 1 1 (1)
I0730 11:25:05.589215 10629 net.cpp:148] Top shape: 1 1 (1)
I0730 11:25:05.589220 10629 net.cpp:156] Memory required for data: 14020
I0730 11:25:05.589224 10629 layer_factory.hpp:77] Creating layer lstm2_x_transform
I0730 11:25:05.589241 10629 net.cpp:91] Creating Layer lstm2_x_transform
I0730 11:25:05.589246 10629 net.cpp:425] lstm2_x_transform <- x
I0730 11:25:05.589253 10629 net.cpp:399] lstm2_x_transform -> W_xc_x
I0730 11:25:05.630642 10639 net.cpp:141] Setting up fc6
I0730 11:25:05.630704 10639 net.cpp:148] Top shape: 10 4096 (40960)
I0730 11:25:05.630713 10639 net.cpp:156] Memory required for data: 67782200
I0730 11:25:05.630735 10639 layer_factory.hpp:77] Creating layer relu6
I0730 11:25:05.630762 10639 net.cpp:91] Creating Layer relu6
I0730 11:25:05.630774 10639 net.cpp:425] relu6 <- fc6
I0730 11:25:05.630789 10639 net.cpp:386] relu6 -> fc6 (in-place)
I0730 11:25:05.631271 10639 net.cpp:141] Setting up relu6
I0730 11:25:05.631291 10639 net.cpp:148] Top shape: 10 4096 (40960)
I0730 11:25:05.631300 10639 net.cpp:156] Memory required for data: 67946040
I0730 11:25:05.631310 10639 layer_factory.hpp:77] Creating layer drop6
I0730 11:25:05.631341 10639 net.cpp:91] Creating Layer drop6
I0730 11:25:05.631352 10639 net.cpp:425] drop6 <- fc6
I0730 11:25:05.631373 10639 net.cpp:386] drop6 -> fc6 (in-place)
I0730 11:25:05.631445 10639 net.cpp:141] Setting up drop6
I0730 11:25:05.631467 10639 net.cpp:148] Top shape: 10 4096 (40960)
I0730 11:25:05.631489 10639 net.cpp:156] Memory required for data: 68109880
I0730 11:25:05.631500 10639 layer_factory.hpp:77] Creating layer fc7
I0730 11:25:05.631520 10639 net.cpp:91] Creating Layer fc7
I0730 11:25:05.631531 10639 net.cpp:425] fc7 <- fc6
I0730 11:25:05.631544 10639 net.cpp:399] fc7 -> fc7
I0730 11:25:05.662010 10629 net.cpp:141] Setting up lstm2_x_transform
I0730 11:25:05.662062 10629 net.cpp:148] Top shape: 1 1 4000 (4000)
I0730 11:25:05.662067 10629 net.cpp:156] Memory required for data: 30020
I0730 11:25:05.662087 10629 layer_factory.hpp:77] Creating layer lstm2_W_xc_x_slice
I0730 11:25:05.662103 10629 net.cpp:91] Creating Layer lstm2_W_xc_x_slice
I0730 11:25:05.662109 10629 net.cpp:425] lstm2_W_xc_x_slice <- W_xc_x
I0730 11:25:05.662118 10629 net.cpp:399] lstm2_W_xc_x_slice -> W_xc_x_1
I0730 11:25:05.662165 10629 net.cpp:141] Setting up lstm2_W_xc_x_slice
I0730 11:25:05.662175 10629 net.cpp:148] Top shape: 1 1 4000 (4000)
I0730 11:25:05.662179 10629 net.cpp:156] Memory required for data: 46020
I0730 11:25:05.662184 10629 layer_factory.hpp:77] Creating layer lstm2_h_conted_0
I0730 11:25:05.662195 10629 net.cpp:91] Creating Layer lstm2_h_conted_0
I0730 11:25:05.662201 10629 net.cpp:425] lstm2_h_conted_0 <- h_0
I0730 11:25:05.662206 10629 net.cpp:425] lstm2_h_conted_0 <- cont_1_lstm2_cont_slice_0_split_0
I0730 11:25:05.662214 10629 net.cpp:399] lstm2_h_conted_0 -> h_conted_0
I0730 11:25:05.662307 10629 net.cpp:141] Setting up lstm2_h_conted_0
I0730 11:25:05.662315 10629 net.cpp:148] Top shape: 1 1 1000 (1000)
I0730 11:25:05.662319 10629 net.cpp:156] Memory required for data: 50020
I0730 11:25:05.662323 10629 layer_factory.hpp:77] Creating layer lstm2_transform_1
I0730 11:25:05.662335 10629 net.cpp:91] Creating Layer lstm2_transform_1
I0730 11:25:05.662340 10629 net.cpp:425] lstm2_transform_1 <- h_conted_0
I0730 11:25:05.662350 10629 net.cpp:399] lstm2_transform_1 -> W_hc_h_0
I0730 11:25:05.680326 10639 net.cpp:141] Setting up fc7
I0730 11:25:05.680374 10639 net.cpp:148] Top shape: 10 4096 (40960)
I0730 11:25:05.680383 10639 net.cpp:156] Memory required for data: 68273720
I0730 11:25:05.680405 10639 layer_factory.hpp:77] Creating layer relu7
I0730 11:25:05.680425 10639 net.cpp:91] Creating Layer relu7
I0730 11:25:05.680436 10639 net.cpp:425] relu7 <- fc7
I0730 11:25:05.680452 10639 net.cpp:386] relu7 -> fc7 (in-place)
I0730 11:25:05.682155 10639 net.cpp:141] Setting up relu7
I0730 11:25:05.682175 10639 net.cpp:148] Top shape: 10 4096 (40960)
I0730 11:25:05.682184 10639 net.cpp:156] Memory required for data: 68437560
I0730 11:25:05.682194 10639 layer_factory.hpp:77] Creating layer drop7
I0730 11:25:05.682219 10639 net.cpp:91] Creating Layer drop7
I0730 11:25:05.682230 10639 net.cpp:425] drop7 <- fc7
I0730 11:25:05.682243 10639 net.cpp:386] drop7 -> fc7 (in-place)
I0730 11:25:05.682301 10639 net.cpp:141] Setting up drop7
I0730 11:25:05.682324 10639 net.cpp:148] Top shape: 10 4096 (40960)
I0730 11:25:05.682334 10639 net.cpp:156] Memory required for data: 68601400
I0730 11:25:05.682345 10639 layer_factory.hpp:77] Creating layer fc8
I0730 11:25:05.682364 10639 net.cpp:91] Creating Layer fc8
I0730 11:25:05.682374 10639 net.cpp:425] fc8 <- fc7
I0730 11:25:05.682391 10639 net.cpp:399] fc8 -> fc8
I0730 11:25:05.695359 10639 net.cpp:141] Setting up fc8
I0730 11:25:05.695406 10639 net.cpp:148] Top shape: 10 1000 (10000)
I0730 11:25:05.695415 10639 net.cpp:156] Memory required for data: 68641400
I0730 11:25:05.695436 10639 layer_factory.hpp:77] Creating layer prob
I0730 11:25:05.695466 10639 net.cpp:91] Creating Layer prob
I0730 11:25:05.695479 10639 net.cpp:425] prob <- fc8
I0730 11:25:05.695497 10639 net.cpp:399] prob -> prob
I0730 11:25:05.696137 10639 net.cpp:141] Setting up prob
I0730 11:25:05.696161 10639 net.cpp:148] Top shape: 10 1000 (10000)
I0730 11:25:05.696171 10639 net.cpp:156] Memory required for data: 68681400
I0730 11:25:05.696182 10639 net.cpp:219] prob does not need backward computation.
I0730 11:25:05.696190 10639 net.cpp:219] fc8 does not need backward computation.
I0730 11:25:05.696200 10639 net.cpp:219] drop7 does not need backward computation.
I0730 11:25:05.696208 10639 net.cpp:219] relu7 does not need backward computation.
…
I0730 11:25:05.696349 10639 net.cpp:219] norm1 does not need backward computation.
I0730 11:25:05.696358 10639 net.cpp:219] pool1 does not need backward computation.
I0730 11:25:05.696369 10639 net.cpp:219] relu1 does not need backward computation.
I0730 11:25:05.696378 10639 net.cpp:219] conv1 does not need backward computation.
I0730 11:25:05.696387 10639 net.cpp:219] data does not need backward computation.
I0730 11:25:05.696394 10639 net.cpp:261] This network produces output prob
I0730 11:25:05.696425 10639 net.cpp:274] Network initialization done.
I0730 11:25:05.702411 10629 net.cpp:141] Setting up lstm2_transform_1
I0730 11:25:05.702436 10629 net.cpp:148] Top shape: 1 1 4000 (4000)
I0730 11:25:05.702442 10629 net.cpp:156] Memory required for data: 66020
I0730 11:25:05.702455 10629 layer_factory.hpp:77] Creating layer lstm2_gate_input_1
I0730 11:25:05.702471 10629 net.cpp:91] Creating Layer lstm2_gate_input_1
I0730 11:25:05.702478 10629 net.cpp:425] lstm2_gate_input_1 <- W_hc_h_0
I0730 11:25:05.702498 10629 net.cpp:425] lstm2_gate_input_1 <- W_xc_x_1
I0730 11:25:05.702508 10629 net.cpp:399] lstm2_gate_input_1 -> gate_input_1
I0730 11:25:05.702554 10629 net.cpp:141] Setting up lstm2_gate_input_1
I0730 11:25:05.702564 10629 net.cpp:148] Top shape: 1 1 4000 (4000)
I0730 11:25:05.702567 10629 net.cpp:156] Memory required for data: 82020
I0730 11:25:05.702572 10629 layer_factory.hpp:77] Creating layer lstm2_unit_1
I0730 11:25:05.702579 10629 net.cpp:91] Creating Layer lstm2_unit_1
I0730 11:25:05.702584 10629 net.cpp:425] lstm2_unit_1 <- c_0
I0730 11:25:05.702589 10629 net.cpp:425] lstm2_unit_1 <- gate_input_1
I0730 11:25:05.702594 10629 net.cpp:425] lstm2_unit_1 <- cont_1_lstm2_cont_slice_0_split_1
I0730 11:25:05.702600 10629 net.cpp:399] lstm2_unit_1 -> c_1
I0730 11:25:05.702611 10629 net.cpp:399] lstm2_unit_1 -> h_1
I0730 11:25:05.702684 10629 net.cpp:141] Setting up lstm2_unit_1
I0730 11:25:05.702702 10629 net.cpp:148] Top shape: 1 1 1000 (1000)
I0730 11:25:05.702708 10629 net.cpp:148] Top shape: 1 1 1000 (1000)
I0730 11:25:05.702711 10629 net.cpp:156] Memory required for data: 90020
I0730 11:25:05.702715 10629 layer_factory.hpp:77] Creating layer lstm2_
I0730 11:25:05.702724 10629 net.cpp:91] Creating Layer lstm2_
I0730 11:25:05.702729 10629 net.cpp:425] lstm2_ <- c_1
I0730 11:25:05.702736 10629 net.cpp:399] lstm2_ -> c_T
I0730 11:25:05.702772 10629 net.cpp:141] Setting up lstm2_
I0730 11:25:05.702781 10629 net.cpp:148] Top shape: 1 1 1000 (1000)
I0730 11:25:05.702785 10629 net.cpp:156] Memory required for data: 94020
I0730 11:25:05.702790 10629 layer_factory.hpp:77] Creating layer lstm2_h_concat
I0730 11:25:05.702800 10629 net.cpp:91] Creating Layer lstm2_h_concat
I0730 11:25:05.702805 10629 net.cpp:425] lstm2_h_concat <- h_1
I0730 11:25:05.702812 10629 net.cpp:399] lstm2_h_concat -> h
I0730 11:25:05.702847 10629 net.cpp:141] Setting up lstm2_h_concat
I0730 11:25:05.702855 10629 net.cpp:148] Top shape: 1 1 1000 (1000)
I0730 11:25:05.702859 10629 net.cpp:156] Memory required for data: 98020
I0730 11:25:05.702863 10629 layer_factory.hpp:77] Creating layer h_pseudoloss
I0730 11:25:05.702874 10629 net.cpp:91] Creating Layer h_pseudoloss
I0730 11:25:05.702879 10629 net.cpp:425] h_pseudoloss <- h
I0730 11:25:05.702886 10629 net.cpp:399] h_pseudoloss -> h_pseudoloss
I0730 11:25:05.702965 10629 net.cpp:141] Setting up h_pseudoloss
…
