…
W0924 03:38:49.052311  2029 upgrade_proto.cpp:71] Note that future Caffe releases will only support input layers and not input fields.
I0924 03:38:49.052335  2047 upgrade_proto.cpp:69] Successfully upgraded file specified using deprecated input fields.
W0924 03:38:49.052346  2047 upgrade_proto.cpp:71] Note that future Caffe releases will only support input layers and not input fields.
I0924 03:38:49.052508  2065 net.cpp:49] Initializing net from parameters: 
name: "CaffeNet"
state {
  phase: TEST
}
layer {
  name: "data"
  type: "Input"
  top: "data"
  input_param {
    shape {
      dim: 10
      dim: 3
      dim: 227
      dim: 227
    }
  }
}
layer {
  name: "conv1"
  type: "Convolution"
  bottom: "data"
  top: "conv1"
  convolution_param {
    num_output: 96
    kernel_size: 11
    stride: 4
  }
}
layer {
  name: "relu1"
  type: "ReLU"
  bottom: "conv1"
  top: "conv1"
}
layer {
  name: "pool1"
  type: "Pooling"
  bottom: "conv1"
  top: "pool1"
  pooling_param {
    pool: MAX
    kernel_size: 3
    stride: 2
  }
}
layer {
  name: "norm1"
  type: "LRN"
  bottom: "pool1"
  top: "norm1"
  lrn_param {
    local_size: 5
    alpha: 0.0001
    beta: 0.75
  }
}
layer {
  name: "conv2"
  type: "Convolution"
  bottom: "norm1"
  top: "conv2"
  convolution_param {
    num_output: 256
    pad: 2
    kernel_size: 5
    group: 2
  }
}
layer {
  name: "relu2"
  type: "ReLU"
  bottom: "conv2"
  top: "conv2"
}
layer {
  name: "pool2"
  type: "Pooling"
  bottom: "conv2"
  top: "pool2"
  pooling_param {
    pool: MAX
    kernel_size: 3
    stride: 2
  }
}
layer {
  name: "norm2"
  type: "LRN"
  bottom: "pool2"
  top: "norm2"
  lrn_param {
    local_size: 5
    alpha: 0.0001
    beta: 0.75
  }
}
layer {
  name: "conv3"
  type: "Convolution"
  bottom: "norm2"
  top: "conv3"
  convolution_param {
    num_output: 384
    pad: 1
    kernel_size: 3
  }
}
layer {
  name: "relu3"
  type: "ReLU"
  bottom: "conv3"
  top: "conv3"
}
layer {
  name: "conv4"
  type: "Convolution"
  bottom: "conv3"
  top: "conv4"
  convolution_param {
    num_output: 384
    pad: 1
    kernel_size: 3
    group: 2
  }
}
layer {
  name: "relu4"
  type: "ReLU"
  bottom: "conv4"
  top: "conv4"
}
layer {
  name: "conv5"
  type: "Convolution"
  bottom: "conv4"
  top: "conv5"
  convolution_param {
    num_output: 256
    pad: 1
    kernel_size: 3
    group: 2
  }
}
layer {
  name: "relu5"
  type: "ReLU"
  bottom: "conv5"
  top: "conv5"
}
layer {
  name: "pool5"
  type: "Pooling"
  bottom: "conv5"
  top: "pool5"
  pooling_param {
    pool: MAX
    kernel_size: 3
    stride: 2
  }
}
layer {
  name: "fc6"
  type: "InnerProduct"
  bottom: "pool5"
  top: "fc6"
  inner_product_param {
    num_output: 4096
  }
}
layer {
  name: "relu6"
  type: "ReLU"
  bottom: "fc6"
  top: "fc6"
}
layer {
  name: "drop6"
  type: "Dropout"
  bottom: "fc6"
  top: "fc6"
  dropout_param {
    dropout_ratio: 0.5
  }
}
layer {
  name: "fc7"
  type: "InnerProduct"
  bottom: "fc6"
  top: "fc7"
  inner_product_param {
    num_output: 4096
  }
}
layer {
  name: "relu7"
  type: "ReLU"
  bottom: "fc7"
  top: "fc7"
}
layer {
  name: "drop7"
  type: "Dropout"
  bottom: "fc7"
  top: "fc7"
  dropout_param {
    dropout_ratio: 0.5
  }
}
layer {
  name: "fc8"
  type: "InnerProduct"
  bottom: "fc7"
  top: "fc8"
  inner_product_param {
    num_output: 1000
  }
}
layer {
  name: "prob"
  type: "Softmax"
  bottom: "fc8"
  top: "prob"
}
I0924 03:38:49.052523  2035 net.cpp:49] Initializing net from parameters: 
name: "s2vt:features_to_lstm"
state {
  phase: TEST
}
layer {
  name: "input"
  type: "Input"
  top: "frames_fc7"
  top: "cont_sentence"
  top: "input_sentence"
  top: "stage_indicator"
  input_param {
    shape {
      dim: 1
      dim: 4096
    }
    shape {
      dim: 1
      dim: 1
    }
    shape {
      dim: 1
      dim: 1
    }
    shape {
      dim: 1
      dim: 1
    }
  }
}
layer {
  name: "embed_encoder"
  type: "InnerProduct"
  bottom: "frames_fc7"
  top: "embedded_in_frames"
  param {
    lr_mult: 1
    decay_mult: 1
  }
  param {
    lr_mult: 2
    decay_mult: 0
  }
  inner_product_param {
    num_output: 500
    weight_filler {
      type: "xavier"
    }
    bias_filler {
      type: "constant"
      value: 0.2
    }
  }
}
layer {
  name: "reshape_frames"
  type: "Reshape"
  bottom: "embedded_in_frames"
  top: "embedded_input_frames"
  reshape_param {
    shape {
      dim: 1
      dim: 1
      dim: 500
    }
  }
}
layer {
  name: "reshape_stage_indicator"
  type: "Reshape"
  bottom: "stage_indicator"
  top: "reshaped_stage_indicator"
  reshape_param {
    shape {
      dim: 1
      dim: 1
      dim: 1
    }
  }
}
layer {
  name: "embedding"
  type: "Embed"
  bottom: "input_sentence"
  top: "embedded_input_sentence"
  param {
    lr_mult: 1
  }
  embed_param {
    num_output: 500
    input_dim: 46168
    bias_term: false
    weight_filler {
      type: "uniform"
      min: -0.08
      max: 0.08
    }
  }
}
layer {
  name: "lstm1"
  type: "LSTM"
  bottom: "embedded_input_frames"
  bottom: "cont_sentence"
  top: "lstm1"
  recurrent_param {
    num_output: 1000
    weight_filler {
      type: "uniform"
      min: -0.08
      max: 0.08
    }
    bias_filler {
      type: "constant"
      value: 0
    }
  }
}
layer {
  name: "concat"
  type: "Concat"
  bottom: "lstm1"
  bottom: "embedded_input_sentence"
  bottom: "reshaped_stage_indicator"
  top: "lstm1_video_sequence"
  concat_param {
    concat_dim: 2
  }
}
layer {
  name: "lstm2"
  type: "LSTM"
  bottom: "lstm1_video_sequence"
  bottom: "cont_sentence"
  top: "lstm2"
  recurrent_param {
    num_output: 1000
    weight_filler {
      type: "uniform"
      min: -0.08
      max: 0.08
    }
    bias_filler {
      type: "constant"
      value: 0
    }
  }
}
layer {
  name: "predict"
  type: "InnerProduct"
  bottom: "lstm2"
  top: "predict"
  param {
    lr_mult: 1
    decay_mult: 1
  }
  param {
    lr_mult: 2
    decay_mult: 0
  }
  inner_product_param {
    num_output: 46168
    weight_filler {
      type: "uniform"
      min: -0.08
      max: 0.08
    }
    bias_filler {
      type: "constant"
      value: 0
    }
    axis: 2
  }
}
layer {
  name: "probs"
  type: "Softmax"
  bottom: "predict"
  top: "probs"
  softmax_param {
    axis: 2
  }
}
I0924 03:38:49.052525  2025 net.cpp:49] Initializing net from parameters: 
name: "s2vt:features_to_lstm"
state {
  phase: TEST
}
layer {
  name: "input"
  type: "Input"
  top: "frames_fc7"
  top: "cont_sentence"
  top: "input_sentence"
  top: "stage_indicator"
  input_param {
    shape {
      dim: 1
      dim: 4096
    }
    shape {
      dim: 1
      dim: 1
    }
    shape {
      dim: 1
      dim: 1
    }
    shape {
      dim: 1
      dim: 1
    }
  }
}
layer {
  name: "embed_encoder"
  type: "InnerProduct"
  bottom: "frames_fc7"
  top: "embedded_in_frames"
  param {
    lr_mult: 1
    decay_mult: 1
  }
  param {
    lr_mult: 2
    decay_mult: 0
  }
  inner_product_param {
    num_output: 500
    weight_filler {
      type: "xavier"
    }
    bias_filler {
      type: "constant"
      value: 0.2
    }
  }
}
layer {
  name: "reshape_frames"
  type: "Reshape"
  bottom: "embedded_in_frames"
  top: "embedded_input_frames"
  reshape_param {
    shape {
      dim: 1
      dim: 1
      dim: 500
    }
  }
}
layer {
  name: "reshape_stage_indicator"
  type: "Reshape"
  bottom: "stage_indicator"
  top: "reshaped_stage_indicator"
  reshape_param {
    shape {
      dim: 1
      dim: 1
      dim: 1
    }
  }
}
layer {
  name: "embedding"
  type: "Embed"
  bottom: "input_sentence"
  top: "embedded_input_sentence"
  param {
    lr_mult: 1
  }
  embed_param {
    num_output: 500
    input_dim: 46168
    bias_term: false
    weight_filler {
      type: "uniform"
      min: -0.08
      max: 0.08
    }
  }
}
layer {
  name: "lstm1"
  type: "LSTM"
  bottom: "embedded_input_frames"
  bottom: "cont_sentence"
  top: "lstm1"
  recurrent_param {
    num_output: 1000
    weight_filler {
      type: "uniform"
      min: -0.08
      max: 0.08
    }
    bias_filler {
      type: "constant"
      value: 0
    }
  }
}
layer {
  name: "concat"
  type: "Concat"
  bottom: "lstm1"
  bottom: "embedded_input_sentence"
  bottom: "reshaped_stage_indicator"
  top: "lstm1_video_sequence"
  concat_param {
    concat_dim: 2
  }
}
layer {
  name: "lstm2"
  type: "LSTM"
  bottom: "lstm1_video_sequence"
  bottom: "cont_sentence"
  top: "lstm2"
  recurrent_param {
    num_output: 1000
    weight_filler {
      type: "uniform"
      min: -0.08
      max: 0.08
    }
    bias_filler {
      type: "constant"
      value: 0
    }
  }
}
layer {
  name: "predict"
  type: "InnerProduct"
  bottom: "lstm2"
  top: "predict"
  param {
    lr_mult: 1
    decay_mult: 1
  }
  param {
    lr_mult: 2
    decay_mult: 0
  }
  inner_product_param {
    num_output: 46168
    weight_filler {
      type: "uniform"
      min: -0.08
      max: 0.08
    }
    bias_filler {
      type: "constant"
      value: 0
    }
    axis: 2
  }
}
layer {
  name: "probs"
  type: "Softmax"
  bottom: "predict"
  top: "probs"
  softmax_param {
    axis: 2
  }
}
I0924 03:38:49.052526  2031 net.cpp:49] Initializing net from parameters: 
name: "s2vt:features_to_lstm"
state {
  phase: TEST
}
layer {
  name: "input"
  type: "Input"
  top: "frames_fc7"
  top: "cont_sentence"
  top: "input_sentence"
  top: "stage_indicator"
  input_param {
    shape {
      dim: 1
      dim: 4096
    }
    shape {
      dim: 1
      dim: 1
    }
    shape {
      dim: 1
      dim: 1
    }
    shape {
      dim: 1
      dim: 1
    }
  }
}
layer {
  name: "embed_encoder"
  type: "InnerProduct"
  bottom: "frames_fc7"
  top: "embedded_in_frames"
  param {
    lr_mult: 1
    decay_mult: 1
  }
  param {
    lr_mult: 2
    decay_mult: 0
  }
  inner_product_param {
    num_output: 500
    weight_filler {
      type: "xavier"
    }
    bias_filler {
      type: "constant"
      value: 0.2
    }
  }
}
layer {
  name: "reshape_frames"
  type: "Reshape"
  bottom: "embedded_in_frames"
  top: "embedded_input_frames"
  reshape_param {
    shape {
      dim: 1
      dim: 1
      dim: 500
    }
  }
}
layer {
  name: "reshape_stage_indicator"
  type: "Reshape"
  bottom: "stage_indicator"
  top: "reshaped_stage_indicator"
  reshape_param {
    shape {
      dim: 1
      dim: 1
      dim: 1
    }
  }
}
layer {
  name: "embedding"
  type: "Embed"
  bottom: "input_sentence"
  top: "embedded_input_sentence"
  param {
    lr_mult: 1
  }
  embed_param {
    num_output: 500
    input_dim: 46168
    bias_term: false
    weight_filler {
      type: "uniform"
      min: -0.08
      max: 0.08
    }
  }
}
layer {
  name: "lstm1"
  type: "LSTM"
  bottom: "embedded_input_frames"
  bottom: "cont_sentence"
  top: "lstm1"
  recurrent_param {
    num_output: 1000
    weight_filler {
      type: "uniform"
      min: -0.08
      max: 0.08
    }
    bias_filler {
      type: "constant"
      value: 0
    }
  }
}
layer {
  name: "concat"
  type: "Concat"
  bottom: "lstm1"
  bottom: "embedded_input_sentence"
  bottom: "reshaped_stage_indicator"
  top: "lstm1_video_sequence"
  concat_param {
    concat_dim: 2
  }
}
layer {
  name: "lstm2"
  type: "LSTM"
  bottom: "lstm1_video_sequence"
  bottom: "cont_sentence"
  top: "lstm2"
  recurrent_param {
    num_output: 1000
    weight_filler {
      type: "uniform"
      min: -0.08
      max: 0.08
    }
    bias_filler {
      type: "constant"
      value: 0
    }
  }
}
layer {
  name: "predict"
  type: "InnerProduct"
  bottom: "lstm2"
  top: "predict"
  param {
    lr_mult: 1
    decay_mult: 1
  }
  param {
    lr_mult: 2
    decay_mult: 0
  }
  inner_product_param {
    num_output: 46168
    weight_filler {
      type: "uniform"
      min: -0.08
      max: 0.08
    }
    bias_filler {
      type: "constant"
      value: 0
    }
    axis: 2
  }
}
layer {
  name: "probs"
  type: "Softmax"
  bottom: "predict"
  top: "probs"
  softmax_param {
    axis: 2
  }
}
I0924 03:38:49.052631  2029 net.cpp:49] Initializing net from parameters: 
name: "s2vt:features_to_lstm"
state {
  phase: TEST
}
layer {
  name: "input"
  type: "Input"
  top: "frames_fc7"
  top: "cont_sentence"
  top: "input_sentence"
  top: "stage_indicator"
  input_param {
    shape {
      dim: 1
      dim: 4096
    }
    shape {
      dim: 1
      dim: 1
    }
    shape {
      dim: 1
      dim: 1
    }
    shape {
      dim: 1
      dim: 1
    }
  }
}
layer {
  name: "embed_encoder"
  type: "InnerProduct"
  bottom: "frames_fc7"
  top: "embedded_in_frames"
  param {
    lr_mult: 1
    decay_mult: 1
  }
  param {
    lr_mult: 2
    decay_mult: 0
  }
  inner_product_param {
    num_output: 500
    weight_filler {
      type: "xavier"
    }
    bias_filler {
      type: "constant"
      value: 0.2
    }
  }
}
layer {
  name: "reshape_frames"
  type: "Reshape"
  bottom: "embedded_in_frames"
  top: "embedded_input_frames"
  reshape_param {
    shape {
      dim: 1
      dim: 1
      dim: 500
    }
  }
}
layer {
  name: "reshape_stage_indicator"
  type: "Reshape"
  bottom: "stage_indicator"
  top: "reshaped_stage_indicator"
  reshape_param {
    shape {
      dim: 1
      dim: 1
      dim: 1
    }
  }
}
layer {
  name: "embedding"
  type: "Embed"
  bottom: "input_sentence"
  top: "embedded_input_sentence"
  param {
    lr_mult: 1
  }
  embed_param {
    num_output: 500
    input_dim: 46168
    bias_term: false
    weight_filler {
      type: "uniform"
      min: -0.08
      max: 0.08
    }
  }
}
layer {
  name: "lstm1"
  type: "LSTM"
  bottom: "embedded_input_frames"
  bottom: "cont_sentence"
  top: "lstm1"
  recurrent_param {
    num_output: 1000
    weight_filler {
      type: "uniform"
      min: -0.08
      max: 0.08
    }
    bias_filler {
      type: "constant"
      value: 0
    }
  }
}
layer {
  name: "concat"
  type: "Concat"
  bottom: "lstm1"
  bottom: "embedded_input_sentence"
  bottom: "reshaped_stage_indicator"
  top: "lstm1_video_sequence"
  concat_param {
    concat_dim: 2
  }
}
layer {
  name: "lstm2"
  type: "LSTM"
  bottom: "lstm1_video_sequence"
  bottom: "cont_sentence"
  top: "lstm2"
  recurrent_param {
    num_output: 1000
    weight_filler {
      type: "uniform"
      min: -0.08
      max: 0.08
    }
    bias_filler {
      type: "constant"
      value: 0
    }
  }
}
layer {
  name: "predict"
  type: "InnerProduct"
  bottom: "lstm2"
  top: "predict"
  param {
    lr_mult: 1
    decay_mult: 1
  }
  param {
    lr_mult: 2
    decay_mult: 0
  }
  inner_product_param {
    num_output: 46168
    weight_filler {
      type: "uniform"
      min: -0.08
      max: 0.08
    }
    bias_filler {
      type: "constant"
      value: 0
    }
    axis: 2
  }
}
layer {
  name: "probs"
  type: "Softmax"
  bottom: "predict"
  top: "probs"
  softmax_param {
    axis: 2
  }
}
I0924 03:38:49.052631  2063 net.cpp:49] Initializing net from parameters: 
name: "s2vt:features_to_lstm"
state {
  phase: TEST
}
layer {
  name: "input"
  type: "Input"
  top: "frames_fc7"
  top: "cont_sentence"
  top: "input_sentence"
  top: "stage_indicator"
  input_param {
    shape {
      dim: 1
      dim: 4096
    }
    shape {
      dim: 1
      dim: 1
    }
    shape {
      dim: 1
      dim: 1
    }
    shape {
      dim: 1
      dim: 1
    }
  }
}
layer {
  name: "embed_encoder"
  type: "InnerProduct"
  bottom: "frames_fc7"
  top: "embedded_in_frames"
  param {
    lr_mult: 1
    decay_mult: 1
  }
  param {
    lr_mult: 2
    decay_mult: 0
  }
  inner_product_param {
    num_output: 500
    weight_filler {
      type: "xavier"
    }
    bias_filler {
      type: "constant"
      value: 0.2
    }
  }
}
layer {
  name: "reshape_frames"
  type: "Reshape"
  bottom: "embedded_in_frames"
  top: "embedded_input_frames"
  reshape_param {
    shape {
      dim: 1
      dim: 1
      dim: 500
    }
  }
}
layer {
  name: "reshape_stage_indicator"
  type: "Reshape"
  bottom: "stage_indicator"
  top: "reshaped_stage_indicator"
  reshape_param {
    shape {
      dim: 1
      dim: 1
      dim: 1
    }
  }
}
layer {
  name: "embedding"
  type: "Embed"
  bottom: "input_sentence"
  top: "embedded_input_sentence"
  param {
    lr_mult: 1
  }
  embed_param {
    num_output: 500
    input_dim: 46168
    bias_term: false
    weight_filler {
      type: "uniform"
      min: -0.08
      max: 0.08
    }
  }
}
layer {
  name: "lstm1"
  type: "LSTM"
  bottom: "embedded_input_frames"
  bottom: "cont_sentence"
  top: "lstm1"
  recurrent_param {
    num_output: 1000
    weight_filler {
      type: "uniform"
      min: -0.08
      max: 0.08
    }
    bias_filler {
      type: "constant"
      value: 0
    }
  }
}
layer {
  name: "concat"
  type: "Concat"
  bottom: "lstm1"
  bottom: "embedded_input_sentence"
  bottom: "reshaped_stage_indicator"
  top: "lstm1_video_sequence"
  concat_param {
    concat_dim: 2
  }
}
layer {
  name: "lstm2"
  type: "LSTM"
  bottom: "lstm1_video_sequence"
  bottom: "cont_sentence"
  top: "lstm2"
  recurrent_param {
    num_output: 1000
    weight_filler {
      type: "uniform"
      min: -0.08
      max: 0.08
    }
    bias_filler {
      type: "constant"
      value: 0
    }
  }
}
layer {
  name: "predict"
  type: "InnerProduct"
  bottom: "lstm2"
  top: "predict"
  param {
    lr_mult: 1
    decay_mult: 1
  }
  param {
    lr_mult: 2
    decay_mult: 0
  }
  inner_product_param {
    num_output: 46168
    weight_filler {
      type: "uniform"
      min: -0.08
      max: 0.08
    }
    bias_filler {
      type: "constant"
      value: 0
    }
    axis: 2
  }
}
layer {
  name: "probs"
  type: "Softmax"
  bottom: "predict"
  top: "probs"
  softmax_param {
    axis: 2
  }
}
I0924 03:38:49.052633  2065 layer_factory.hpp:77] Creating layer data
I0924 03:38:49.052654  2035 layer_factory.hpp:77] Creating layer input
I0924 03:38:49.052675  2047 net.cpp:49] Initializing net from parameters: 
name: "s2vt:features_to_lstm"
state {
  phase: TEST
}
layer {
  name: "input"
  type: "Input"
  top: "frames_fc7"
  top: "cont_sentence"
  top: "input_sentence"
  top: "stage_indicator"
  input_param {
    shape {
      dim: 1
      dim: 4096
    }
    shape {
      dim: 1
      dim: 1
    }
    shape {
      dim: 1
      dim: 1
    }
    shape {
      dim: 1
      dim: 1
    }
  }
}
layer {
  name: "embed_encoder"
  type: "InnerProduct"
  bottom: "frames_fc7"
  top: "embedded_in_frames"
  param {
    lr_mult: 1
    decay_mult: 1
  }
  param {
    lr_mult: 2
    decay_mult: 0
  }
  inner_product_param {
    num_output: 500
    weight_filler {
      type: "xavier"
    }
    bias_filler {
      type: "constant"
      value: 0.2
    }
  }
}
layer {
  name: "reshape_frames"
  type: "Reshape"
  bottom: "embedded_in_frames"
  top: "embedded_input_frames"
  reshape_param {
    shape {
      dim: 1
      dim: 1
      dim: 500
    }
  }
}
layer {
  name: "reshape_stage_indicator"
  type: "Reshape"
  bottom: "stage_indicator"
  top: "reshaped_stage_indicator"
  reshape_param {
    shape {
      dim: 1
      dim: 1
      dim: 1
    }
  }
}
layer {
  name: "embedding"
  type: "Embed"
  bottom: "input_sentence"
  top: "embedded_input_sentence"
  param {
    lr_mult: 1
  }
  embed_param {
    num_output: 500
    input_dim: 46168
    bias_term: false
    weight_filler {
      type: "uniform"
      min: -0.08
      max: 0.08
    }
  }
}
layer {
  name: "lstm1"
  type: "LSTM"
  bottom: "embedded_input_frames"
  bottom: "cont_sentence"
  top: "lstm1"
  recurrent_param {
    num_output: 1000
    weight_filler {
      type: "uniform"
      min: -0.08
      max: 0.08
    }
    bias_filler {
      type: "constant"
      value: 0
    }
  }
}
layer {
  name: "concat"
  type: "Concat"
  bottom: "lstm1"
  bottom: "embedded_input_sentence"
  bottom: "reshaped_stage_indicator"
  top: "lstm1_video_sequence"
  concat_param {
    concat_dim: 2
  }
}
layer {
  name: "lstm2"
  type: "LSTM"
  bottom: "lstm1_video_sequence"
  bottom: "cont_sentence"
  top: "lstm2"
  recurrent_param {
    num_output: 1000
    weight_filler {
      type: "uniform"
      min: -0.08
      max: 0.08
    }
    bias_filler {
      type: "constant"
      value: 0
    }
  }
}
layer {
  name: "predict"
  type: "InnerProduct"
  bottom: "lstm2"
  top: "predict"
  param {
    lr_mult: 1
    decay_mult: 1
  }
  param {
    lr_mult: 2
    decay_mult: 0
  }
  inner_product_param {
    num_output: 46168
    weight_filler {
      type: "uniform"
      min: -0.08
      max: 0.08
    }
    bias_filler {
      type: "constant"
      value: 0
    }
    axis: 2
  }
}
layer {
  name: "probs"
  type: "Softmax"
  bottom: "predict"
  top: "probs"
  softmax_param {
    axis: 2
  }
}
I0924 03:38:49.052657  2031 layer_factory.hpp:77] Creating layer input
I0924 03:38:49.052700  2035 net.cpp:91] Creating Layer input
I0924 03:38:49.052656  2025 layer_factory.hpp:77] Creating layer input
I0924 03:38:49.052712  2031 net.cpp:91] Creating Layer input
I0924 03:38:49.052700  2065 net.cpp:91] Creating Layer data
I0924 03:38:49.052722  2031 net.cpp:399] input -> frames_fc7
…
I0924 03:38:49.052943  2047 net.cpp:399] input -> input_sentence
I0924 03:38:49.052964  2047 net.cpp:399] input -> stage_indicator
I0924 03:38:49.053113  2077 net.cpp:49] Initializing net from parameters: 
name: "s2vt:features_to_lstm"
state {
  phase: TEST
}
layer {
  name: "input"
  type: "Input"
  top: "frames_fc7"
  top: "cont_sentence"
  top: "input_sentence"
  top: "stage_indicator"
  input_param {
    shape {
      dim: 1
      dim: 4096
    }
    shape {
      dim: 1
      dim: 1
    }
    shape {
      dim: 1
      dim: 1
    }
    shape {
      dim: 1
      dim: 1
    }
  }
}
layer {
  name: "embed_encoder"
  type: "InnerProduct"
  bottom: "frames_fc7"
  top: "embedded_in_frames"
  param {
    lr_mult: 1
    decay_mult: 1
  }
  param {
    lr_mult: 2
    decay_mult: 0
  }
  inner_product_param {
    num_output: 500
    weight_filler {
      type: "xavier"
    }
    bias_filler {
      type: "constant"
      value: 0.2
    }
  }
}
layer {
  name: "reshape_frames"
  type: "Reshape"
  bottom: "embedded_in_frames"
  top: "embedded_input_frames"
  reshape_param {
    shape {
      dim: 1
      dim: 1
      dim: 500
    }
  }
}
layer {
  name: "reshape_stage_indicator"
  type: "Reshape"
  bottom: "stage_indicator"
  top: "reshaped_stage_indicator"
  reshape_param {
    shape {
      dim: 1
      dim: 1
      dim: 1
    }
  }
}
layer {
  name: "embedding"
  type: "Embed"
  bottom: "input_sentence"
  top: "embedded_input_sentence"
  param {
    lr_mult: 1
  }
  embed_param {
    num_output: 500
    input_dim: 46168
    bias_term: false
    weight_filler {
      type: "uniform"
      min: -0.08
      max: 0.08
    }
  }
}
layer {
  name: "lstm1"
  type: "LSTM"
  bottom: "embedded_input_frames"
  bottom: "cont_sentence"
  top: "lstm1"
  recurrent_param {
    num_output: 1000
    weight_filler {
      type: "uniform"
      min: -0.08
      max: 0.08
    }
    bias_filler {
      type: "constant"
      value: 0
    }
  }
}
layer {
  name: "concat"
  type: "Concat"
  bottom: "lstm1"
  bottom: "embedded_input_sentence"
  bottom: "reshaped_stage_indicator"
  top: "lstm1_video_sequence"
  concat_param {
    concat_dim: 2
  }
}
layer {
  name: "lstm2"
  type: "LSTM"
  bottom: "lstm1_video_sequence"
  bottom: "cont_sentence"
  top: "lstm2"
  recurrent_param {
    num_output: 1000
    weight_filler {
      type: "uniform"
      min: -0.08
      max: 0.08
    }
    bias_filler {
      type: "constant"
      value: 0
    }
  }
}
layer {
  name: "predict"
  type: "InnerProduct"
  bottom: "lstm2"
  top: "predict"
  param {
    lr_mult: 1
    decay_mult: 1
  }
  param {
    lr_mult: 2
    decay_mult: 0
  }
  inner_product_param {
    num_output: 46168
    weight_filler {
      type: "uniform"
      min: -0.08
      max: 0.08
    }
    bias_filler {
      type: "constant"
      value: 0
    }
    axis: 2
  }
}
layer {
  name: "probs"
  type: "Softmax"
  bottom: "predict"
  top: "probs"
  softmax_param {
    axis: 2
  }
}
I0924 03:38:49.053154  2043 net.cpp:49] Initializing net from parameters: 
name: "s2vt:features_to_lstm"
state {
  phase: TEST
}
layer {
  name: "input"
  type: "Input"
  top: "frames_fc7"
  top: "cont_sentence"
  top: "input_sentence"
  top: "stage_indicator"
  input_param {
    shape {
      dim: 1
      dim: 4096
    }
    shape {
      dim: 1
      dim: 1
    }
    shape {
      dim: 1
      dim: 1
    }
    shape {
      dim: 1
      dim: 1
    }
  }
}
layer {
  name: "embed_encoder"
  type: "InnerProduct"
  bottom: "frames_fc7"
  top: "embedded_in_frames"
  param {
    lr_mult: 1
    decay_mult: 1
  }
  param {
    lr_mult: 2
    decay_mult: 0
  }
  inner_product_param {
    num_output: 500
    weight_filler {
      type: "xavier"
    }
    bias_filler {
      type: "constant"
      value: 0.2
    }
  }
}
layer {
  name: "reshape_frames"
  type: "Reshape"
  bottom: "embedded_in_frames"
  top: "embedded_input_frames"
  reshape_param {
    shape {
      dim: 1
      dim: 1
      dim: 500
    }
  }
}
layer {
  name: "reshape_stage_indicator"
  type: "Reshape"
  bottom: "stage_indicator"
  top: "reshaped_stage_indicator"
  reshape_param {
    shape {
      dim: 1
      dim: 1
      dim: 1
    }
  }
}
layer {
  name: "embedding"
  type: "Embed"
  bottom: "input_sentence"
  top: "embedded_input_sentence"
  param {
    lr_mult: 1
  }
  embed_param {
    num_output: 500
    input_dim: 46168
    bias_term: false
    weight_filler {
      type: "uniform"
      min: -0.08
      max: 0.08
    }
  }
}
layer {
  name: "lstm1"
  type: "LSTM"
  bottom: "embedded_input_frames"
  bottom: "cont_sentence"
  top: "lstm1"
  recurrent_param {
    num_output: 1000
    weight_filler {
      type: "uniform"
      min: -0.08
      max: 0.08
    }
    bias_filler {
      type: "constant"
      value: 0
    }
  }
}
layer {
  name: "concat"
  type: "Concat"
  bottom: "lstm1"
  bottom: "embedded_input_sentence"
  bottom: "reshaped_stage_indicator"
  top: "lstm1_video_sequence"
  concat_param {
    concat_dim: 2
  }
}
layer {
  name: "lstm2"
  type: "LSTM"
  bottom: "lstm1_video_sequence"
  bottom: "cont_sentence"
  top: "lstm2"
  recurrent_param {
    num_output: 1000
    weight_filler {
      type: "uniform"
      min: -0.08
      max: 0.08
    }
    bias_filler {
      type: "constant"
      value: 0
    }
  }
}
layer {
  name: "predict"
  type: "InnerProduct"
  bottom: "lstm2"
  top: "predict"
  param {
    lr_mult: 1
    decay_mult: 1
  }
  param {
    lr_mult: 2
    decay_mult: 0
  }
  inner_product_param {
    num_output: 46168
    weight_filler {
      type: "uniform"
      min: -0.08
      max: 0.08
    }
    bias_filler {
      type: "constant"
      value: 0
    }
    axis: 2
  }
}
layer {
  name: "probs"
  type: "Softmax"
  bottom: "predict"
  top: "probs"
  softmax_param {
    axis: 2
  }
}
I0924 03:38:49.053196  2077 layer_factory.hpp:77] Creating layer input
I0924 03:38:49.053208  2077 net.cpp:91] Creating Layer input
I0924 03:38:49.053217  2077 net.cpp:399] input -> frames_fc7
I0924 03:38:49.053230  2077 net.cpp:399] input -> cont_sentence
I0924 03:38:49.053241  2077 net.cpp:399] input -> input_sentence
I0924 03:38:49.053251  2077 net.cpp:399] input -> stage_indicator
I0924 03:38:49.053268  2043 layer_factory.hpp:77] Creating layer input
I0924 03:38:49.053284  2043 net.cpp:91] Creating Layer input
I0924 03:38:49.053295  2043 net.cpp:399] input -> frames_fc7
I0924 03:38:49.053310  2043 net.cpp:399] input -> cont_sentence
I0924 03:38:49.053325  2043 net.cpp:399] input -> input_sentence
I0924 03:38:49.053339  2043 net.cpp:399] input -> stage_indicator
I0924 03:38:49.850189  2065 net.cpp:141] Setting up data
I0924 03:38:49.850298  2065 net.cpp:148] Top shape: 10 3 227 227 (1545870)
I0924 03:38:49.850309  2065 net.cpp:156] Memory required for data: 6183480
I0924 03:38:49.850335  2065 layer_factory.hpp:77] Creating layer conv1
I0924 03:38:49.850378  2065 net.cpp:91] Creating Layer conv1
I0924 03:38:49.850389  2065 net.cpp:425] conv1 <- data
I0924 03:38:49.850409  2065 net.cpp:399] conv1 -> conv1
I0924 03:38:49.850405  2035 net.cpp:141] Setting up input
I0924 03:38:49.850445  2035 net.cpp:148] Top shape: 1 4096 (4096)
I0924 03:38:49.850457  2035 net.cpp:148] Top shape: 1 1 (1)
I0924 03:38:49.850466  2035 net.cpp:148] Top shape: 1 1 (1)
I0924 03:38:49.850473  2035 net.cpp:148] Top shape: 1 1 (1)
I0924 03:38:49.850471  2063 net.cpp:141] Setting up input
I0924 03:38:49.850478  2035 net.cpp:156] Memory required for data: 16396
I0924 03:38:49.850494  2063 net.cpp:148] Top shape: 1 4096 (4096)
I0924 03:38:49.850497  2035 layer_factory.hpp:77] Creating layer cont_sentence_input_1_split
I0924 03:38:49.850503  2063 net.cpp:148] Top shape: 1 1 (1)
I0924 03:38:49.850510  2063 net.cpp:148] Top shape: 1 1 (1)
I0924 03:38:49.850517  2063 net.cpp:148] Top shape: 1 1 (1)
I0924 03:38:49.850520  2063 net.cpp:156] Memory required for data: 16396
I0924 03:38:49.850525  2035 net.cpp:91] Creating Layer cont_sentence_input_1_split
I0924 03:38:49.850528  2063 layer_factory.hpp:77] Creating layer cont_sentence_input_1_split
I0924 03:38:49.850533  2035 net.cpp:425] cont_sentence_input_1_split <- cont_sentence
I0924 03:38:49.850538  2063 net.cpp:91] Creating Layer cont_sentence_input_1_split
I0924 03:38:49.850543  2063 net.cpp:425] cont_sentence_input_1_split <- cont_sentence
I0924 03:38:49.850564  2063 net.cpp:399] cont_sentence_input_1_split -> cont_sentence_input_1_split_0
I0924 03:38:49.850564  2035 net.cpp:399] cont_sentence_input_1_split -> cont_sentence_input_1_split_0
I0924 03:38:49.850584  2063 net.cpp:399] cont_sentence_input_1_split -> cont_sentence_input_1_split_1
I0924 03:38:49.850587  2035 net.cpp:399] cont_sentence_input_1_split -> cont_sentence_input_1_split_1
I0924 03:38:49.850873  2047 net.cpp:141] Setting up input
I0924 03:38:49.850893  2047 net.cpp:148] Top shape: 1 4096 (4096)
I0924 03:38:49.850900  2047 net.cpp:148] Top shape: 1 1 (1)
I0924 03:38:49.850906  2047 net.cpp:148] Top shape: 1 1 (1)
I0924 03:38:49.850913  2047 net.cpp:148] Top shape: 1 1 (1)
I0924 03:38:49.850916  2047 net.cpp:156] Memory required for data: 16396
I0924 03:38:49.850924  2047 layer_factory.hpp:77] Creating layer cont_sentence_input_1_split
I0924 03:38:49.850935  2047 net.cpp:91] Creating Layer cont_sentence_input_1_split
I0924 03:38:49.850941  2047 net.cpp:425] cont_sentence_input_1_split <- cont_sentence
I0924 03:38:49.850950  2047 net.cpp:399] cont_sentence_input_1_split -> cont_sentence_input_1_split_0
I0924 03:38:49.850963  2047 net.cpp:399] cont_sentence_input_1_split -> cont_sentence_input_1_split_1
I0924 03:38:49.851117  2025 net.cpp:141] Setting up input
I0924 03:38:49.851142  2025 net.cpp:148] Top shape: 1 4096 (4096)
I0924 03:38:49.851155  2025 net.cpp:148] Top shape: 1 1 (1)
I0924 03:38:49.851164  2025 net.cpp:148] Top shape: 1 1 (1)
I0924 03:38:49.851173  2025 net.cpp:148] Top shape: 1 1 (1)
I0924 03:38:49.851181  2025 net.cpp:156] Memory required for data: 16396
I0924 03:38:49.851188  2025 layer_factory.hpp:77] Creating layer cont_sentence_input_1_split
I0924 03:38:49.851202  2025 net.cpp:91] Creating Layer cont_sentence_input_1_split
I0924 03:38:49.851210  2025 net.cpp:425] cont_sentence_input_1_split <- cont_sentence
I0924 03:38:49.851222  2025 net.cpp:399] cont_sentence_input_1_split -> cont_sentence_input_1_split_0
I0924 03:38:49.851236  2025 net.cpp:399] cont_sentence_input_1_split -> cont_sentence_input_1_split_1
I0924 03:38:49.851321  2025 net.cpp:141] Setting up cont_sentence_input_1_split
I0924 03:38:49.851335  2025 net.cpp:148] Top shape: 1 1 (1)
I0924 03:38:49.851344  2025 net.cpp:148] Top shape: 1 1 (1)
I0924 03:38:49.851351  2025 net.cpp:156] Memory required for data: 16404
I0924 03:38:49.851358  2025 layer_factory.hpp:77] Creating layer embed_encoder
I0924 03:38:49.851385  2025 net.cpp:91] Creating Layer embed_encoder
I0924 03:38:49.851393  2025 net.cpp:425] embed_encoder <- frames_fc7
I0924 03:38:49.851405  2025 net.cpp:399] embed_encoder -> embedded_in_frames
I0924 03:38:49.852520  2031 net.cpp:141] Setting up input
I0924 03:38:49.852541  2031 net.cpp:148] Top shape: 1 4096 (4096)
I0924 03:38:49.852550  2031 net.cpp:148] Top shape: 1 1 (1)
I0924 03:38:49.852555  2031 net.cpp:148] Top shape: 1 1 (1)
I0924 03:38:49.852561  2031 net.cpp:148] Top shape: 1 1 (1)
I0924 03:38:49.852566  2031 net.cpp:156] Memory required for data: 16396
I0924 03:38:49.852571  2031 layer_factory.hpp:77] Creating layer cont_sentence_input_1_split
I0924 03:38:49.852586  2031 net.cpp:91] Creating Layer cont_sentence_input_1_split
I0924 03:38:49.852592  2031 net.cpp:425] cont_sentence_input_1_split <- cont_sentence
I0924 03:38:49.852602  2031 net.cpp:399] cont_sentence_input_1_split -> cont_sentence_input_1_split_0
I0924 03:38:49.852612  2031 net.cpp:399] cont_sentence_input_1_split -> cont_sentence_input_1_split_1
I0924 03:38:49.852649  2077 net.cpp:141] Setting up input
I0924 03:38:49.852666  2077 net.cpp:148] Top shape: 1 4096 (4096)
I0924 03:38:49.852674  2077 net.cpp:148] Top shape: 1 1 (1)
I0924 03:38:49.852680  2077 net.cpp:148] Top shape: 1 1 (1)
I0924 03:38:49.852686  2077 net.cpp:148] Top shape: 1 1 (1)
I0924 03:38:49.852690  2077 net.cpp:156] Memory required for data: 16396
I0924 03:38:49.852696  2077 layer_factory.hpp:77] Creating layer cont_sentence_input_1_split
I0924 03:38:49.852710  2077 net.cpp:91] Creating Layer cont_sentence_input_1_split
I0924 03:38:49.852721  2077 net.cpp:425] cont_sentence_input_1_split <- cont_sentence
I0924 03:38:49.852732  2077 net.cpp:399] cont_sentence_input_1_split -> cont_sentence_input_1_split_0
I0924 03:38:49.852728  2035 net.cpp:141] Setting up cont_sentence_input_1_split
I0924 03:38:49.852746  2077 net.cpp:399] cont_sentence_input_1_split -> cont_sentence_input_1_split_1
I0924 03:38:49.852751  2035 net.cpp:148] Top shape: 1 1 (1)
I0924 03:38:49.852761  2035 net.cpp:148] Top shape: 1 1 (1)
I0924 03:38:49.852767  2035 net.cpp:156] Memory required for data: 16404
I0924 03:38:49.852776  2035 layer_factory.hpp:77] Creating layer embed_encoder
I0924 03:38:49.852794  2035 net.cpp:91] Creating Layer embed_encoder
I0924 03:38:49.852802  2035 net.cpp:425] embed_encoder <- frames_fc7
I0924 03:38:49.852815  2035 net.cpp:399] embed_encoder -> embedded_in_frames
I0924 03:38:49.852860  2029 net.cpp:141] Setting up input
I0924 03:38:49.852883  2029 net.cpp:148] Top shape: 1 4096 (4096)
I0924 03:38:49.852897  2029 net.cpp:148] Top shape: 1 1 (1)
I0924 03:38:49.852901  2063 net.cpp:141] Setting up cont_sentence_input_1_split
I0924 03:38:49.852908  2029 net.cpp:148] Top shape: 1 1 (1)
I0924 03:38:49.852915  2063 net.cpp:148] Top shape: 1 1 (1)
I0924 03:38:49.852921  2063 net.cpp:148] Top shape: 1 1 (1)
I0924 03:38:49.852921  2029 net.cpp:148] Top shape: 1 1 (1)
I0924 03:38:49.852927  2063 net.cpp:156] Memory required for data: 16404
I0924 03:38:49.852931  2029 net.cpp:156] Memory required for data: 16396
I0924 03:38:49.852933  2063 layer_factory.hpp:77] Creating layer embed_encoder
I0924 03:38:49.852947  2029 layer_factory.hpp:77] Creating layer cont_sentence_input_1_split
I0924 03:38:49.852955  2063 net.cpp:91] Creating Layer embed_encoder
I0924 03:38:49.852962  2063 net.cpp:425] embed_encoder <- frames_fc7
I0924 03:38:49.852964  2029 net.cpp:91] Creating Layer cont_sentence_input_1_split
I0924 03:38:49.852974  2029 net.cpp:425] cont_sentence_input_1_split <- cont_sentence
I0924 03:38:49.852977  2063 net.cpp:399] embed_encoder -> embedded_in_frames
I0924 03:38:49.852995  2029 net.cpp:399] cont_sentence_input_1_split -> cont_sentence_input_1_split_0
I0924 03:38:49.853015  2029 net.cpp:399] cont_sentence_input_1_split -> cont_sentence_input_1_split_1
I0924 03:38:49.853039  2043 net.cpp:141] Setting up input
I0924 03:38:49.853060  2047 net.cpp:141] Setting up cont_sentence_input_1_split
I0924 03:38:49.853063  2043 net.cpp:148] Top shape: 1 4096 (4096)
I0924 03:38:49.853080  2047 net.cpp:148] Top shape: 1 1 (1)
I0924 03:38:49.853082  2043 net.cpp:148] Top shape: 1 1 (1)
I0924 03:38:49.853096  2047 net.cpp:148] Top shape: 1 1 (1)
I0924 03:38:49.853097  2043 net.cpp:148] Top shape: 1 1 (1)
I0924 03:38:49.853107  2047 net.cpp:156] Memory required for data: 16404
I0924 03:38:49.853116  2043 net.cpp:148] Top shape: 1 1 (1)
I0924 03:38:49.853117  2047 layer_factory.hpp:77] Creating layer embed_encoder
I0924 03:38:49.853128  2043 net.cpp:156] Memory required for data: 16396
I0924 03:38:49.853138  2043 layer_factory.hpp:77] Creating layer cont_sentence_input_1_split
I0924 03:38:49.853137  2077 net.cpp:141] Setting up cont_sentence_input_1_split
I0924 03:38:49.853145  2047 net.cpp:91] Creating Layer embed_encoder
I0924 03:38:49.853152  2043 net.cpp:91] Creating Layer cont_sentence_input_1_split
I0924 03:38:49.853155  2047 net.cpp:425] embed_encoder <- frames_fc7
I0924 03:38:49.853158  2077 net.cpp:148] Top shape: 1 1 (1)
I0924 03:38:49.853162  2043 net.cpp:425] cont_sentence_input_1_split <- cont_sentence
I0924 03:38:49.853168  2047 net.cpp:399] embed_encoder -> embedded_in_frames
I0924 03:38:49.853176  2043 net.cpp:399] cont_sentence_input_1_split -> cont_sentence_input_1_split_0
I0924 03:38:49.853170  2077 net.cpp:148] Top shape: 1 1 (1)
I0924 03:38:49.853189  2077 net.cpp:156] Memory required for data: 16404
I0924 03:38:49.853191  2043 net.cpp:399] cont_sentence_input_1_split -> cont_sentence_input_1_split_1
I0924 03:38:49.853199  2077 layer_factory.hpp:77] Creating layer embed_encoder
I0924 03:38:49.853219  2077 net.cpp:91] Creating Layer embed_encoder
I0924 03:38:49.853229  2077 net.cpp:425] embed_encoder <- frames_fc7
I0924 03:38:49.853245  2077 net.cpp:399] embed_encoder -> embedded_in_frames
I0924 03:38:49.857328  2031 net.cpp:141] Setting up cont_sentence_input_1_split
I0924 03:38:49.857375  2031 net.cpp:148] Top shape: 1 1 (1)
I0924 03:38:49.857389  2031 net.cpp:148] Top shape: 1 1 (1)
I0924 03:38:49.857396  2031 net.cpp:156] Memory required for data: 16404
I0924 03:38:49.857409  2031 layer_factory.hpp:77] Creating layer embed_encoder
I0924 03:38:49.857437  2031 net.cpp:91] Creating Layer embed_encoder
I0924 03:38:49.857450  2031 net.cpp:425] embed_encoder <- frames_fc7
I0924 03:38:49.857465  2031 net.cpp:399] embed_encoder -> embedded_in_frames
I0924 03:38:49.868732  2029 net.cpp:141] Setting up cont_sentence_input_1_split
I0924 03:38:49.868788  2029 net.cpp:148] Top shape: 1 1 (1)
I0924 03:38:49.868800  2029 net.cpp:148] Top shape: 1 1 (1)
I0924 03:38:49.868808  2029 net.cpp:156] Memory required for data: 16404
I0924 03:38:49.868821  2029 layer_factory.hpp:77] Creating layer embed_encoder
I0924 03:38:49.868857  2029 net.cpp:91] Creating Layer embed_encoder
I0924 03:38:49.868870  2029 net.cpp:425] embed_encoder <- frames_fc7
I0924 03:38:49.868887  2029 net.cpp:399] embed_encoder -> embedded_in_frames
I0924 03:38:49.884526  2043 net.cpp:141] Setting up cont_sentence_input_1_split
I0924 03:38:49.884585  2043 net.cpp:148] Top shape: 1 1 (1)
I0924 03:38:49.884598  2043 net.cpp:148] Top shape: 1 1 (1)
I0924 03:38:49.884606  2043 net.cpp:156] Memory required for data: 16404
I0924 03:38:49.884619  2043 layer_factory.hpp:77] Creating layer embed_encoder
I0924 03:38:49.884654  2043 net.cpp:91] Creating Layer embed_encoder
I0924 03:38:49.884665  2043 net.cpp:425] embed_encoder <- frames_fc7
I0924 03:38:49.885632  2043 net.cpp:399] embed_encoder -> embedded_in_frames
I0924 03:38:49.910713  2035 net.cpp:141] Setting up embed_encoder
I0924 03:38:49.910764  2035 net.cpp:148] Top shape: 1 500 (500)
I0924 03:38:49.910771  2035 net.cpp:156] Memory required for data: 18404
I0924 03:38:49.910800  2035 layer_factory.hpp:77] Creating layer reshape_frames
I0924 03:38:49.910831  2035 net.cpp:91] Creating Layer reshape_frames
I0924 03:38:49.910840  2035 net.cpp:425] reshape_frames <- embedded_in_frames
I0924 03:38:49.910859  2035 net.cpp:399] reshape_frames -> embedded_input_frames
I0924 03:38:49.910902  2029 net.cpp:141] Setting up embed_encoder
I0924 03:38:49.910938  2029 net.cpp:148] Top shape: 1 500 (500)
I0924 03:38:49.910944  2029 net.cpp:156] Memory required for data: 18404
I0924 03:38:49.910939  2035 net.cpp:141] Setting up reshape_frames
I0924 03:38:49.910958  2035 net.cpp:148] Top shape: 1 1 500 (500)
I0924 03:38:49.910962  2035 net.cpp:156] Memory required for data: 20404
I0924 03:38:49.910965  2029 layer_factory.hpp:77] Creating layer reshape_frames
I0924 03:38:49.910967  2035 layer_factory.hpp:77] Creating layer reshape_stage_indicator
I0924 03:38:49.910980  2035 net.cpp:91] Creating Layer reshape_stage_indicator
I0924 03:38:49.910984  2029 net.cpp:91] Creating Layer reshape_frames
I0924 03:38:49.910987  2035 net.cpp:425] reshape_stage_indicator <- stage_indicator
I0924 03:38:49.910992  2029 net.cpp:425] reshape_frames <- embedded_in_frames
I0924 03:38:49.911002  2035 net.cpp:399] reshape_stage_indicator -> reshaped_stage_indicator
I0924 03:38:49.911006  2029 net.cpp:399] reshape_frames -> embedded_input_frames
I0924 03:38:49.911015  2025 net.cpp:141] Setting up embed_encoder
I0924 03:38:49.911033  2025 net.cpp:148] Top shape: 1 500 (500)
I0924 03:38:49.911039  2025 net.cpp:156] Memory required for data: 18404
I0924 03:38:49.911054  2025 layer_factory.hpp:77] Creating layer reshape_frames
I0924 03:38:49.911067  2025 net.cpp:91] Creating Layer reshape_frames
I0924 03:38:49.911072  2025 net.cpp:425] reshape_frames <- embedded_in_frames
I0924 03:38:49.911087  2025 net.cpp:399] reshape_frames -> embedded_input_frames
I0924 03:38:49.911154  2077 net.cpp:141] Setting up embed_encoder
I0924 03:38:49.911172  2035 net.cpp:141] Setting up reshape_stage_indicator
I0924 03:38:49.911185  2077 net.cpp:148] Top shape: 1 500 (500)
I0924 03:38:49.911211  2029 net.cpp:141] Setting up reshape_frames
I0924 03:38:49.911185  2035 net.cpp:148] Top shape: 1 1 1 (1)
I0924 03:38:49.911222  2029 net.cpp:148] Top shape: 1 1 500 (500)
I0924 03:38:49.911226  2035 net.cpp:156] Memory required for data: 20408
I0924 03:38:49.911237  2035 layer_factory.hpp:77] Creating layer embedding
I0924 03:38:49.911243  2029 net.cpp:156] Memory required for data: 20404
I0924 03:38:49.911221  2077 net.cpp:156] Memory required for data: 18404
I0924 03:38:49.911249  2029 layer_factory.hpp:77] Creating layer reshape_stage_indicator
I0924 03:38:49.911257  2035 net.cpp:91] Creating Layer embedding
I0924 03:38:49.911262  2029 net.cpp:91] Creating Layer reshape_stage_indicator
I0924 03:38:49.911269  2029 net.cpp:425] reshape_stage_indicator <- stage_indicator
I0924 03:38:49.911269  2035 net.cpp:425] embedding <- input_sentence
I0924 03:38:49.911273  2077 layer_factory.hpp:77] Creating layer reshape_frames
I0924 03:38:49.911278  2029 net.cpp:399] reshape_stage_indicator -> reshaped_stage_indicator
I0924 03:38:49.911284  2035 net.cpp:399] embedding -> embedded_input_sentence
I0924 03:38:49.911291  2077 net.cpp:91] Creating Layer reshape_frames
I0924 03:38:49.911303  2077 net.cpp:425] reshape_frames <- embedded_in_frames
I0924 03:38:49.911316  2077 net.cpp:399] reshape_frames -> embedded_input_frames
I0924 03:38:49.911376  2077 net.cpp:141] Setting up reshape_frames
I0924 03:38:49.911391  2077 net.cpp:148] Top shape: 1 1 500 (500)
I0924 03:38:49.911397  2077 net.cpp:156] Memory required for data: 20404
I0924 03:38:49.911406  2077 layer_factory.hpp:77] Creating layer reshape_stage_indicator
I0924 03:38:49.911420  2077 net.cpp:91] Creating Layer reshape_stage_indicator
I0924 03:38:49.911420  2029 net.cpp:141] Setting up reshape_stage_indicator
I0924 03:38:49.911439  2077 net.cpp:425] reshape_stage_indicator <- stage_indicator
I0924 03:38:49.911449  2029 net.cpp:148] Top shape: 1 1 1 (1)
I0924 03:38:49.911455  2029 net.cpp:156] Memory required for data: 20408
I0924 03:38:49.911456  2077 net.cpp:399] reshape_stage_indicator -> reshaped_stage_indicator
I0924 03:38:49.911461  2029 layer_factory.hpp:77] Creating layer embedding
I0924 03:38:49.911474  2029 net.cpp:91] Creating Layer embedding
I0924 03:38:49.911481  2029 net.cpp:425] embedding <- input_sentence
I0924 03:38:49.911484  2047 net.cpp:141] Setting up embed_encoder
I0924 03:38:49.911489  2029 net.cpp:399] embedding -> embedded_input_sentence
I0924 03:38:49.911507  2047 net.cpp:148] Top shape: 1 500 (500)
I0924 03:38:49.911514  2047 net.cpp:156] Memory required for data: 18404
I0924 03:38:49.911512  2077 net.cpp:141] Setting up reshape_stage_indicator
I0924 03:38:49.911527  2047 layer_factory.hpp:77] Creating layer reshape_frames
I0924 03:38:49.911528  2077 net.cpp:148] Top shape: 1 1 1 (1)
I0924 03:38:49.911536  2077 net.cpp:156] Memory required for data: 20408
I0924 03:38:49.911540  2047 net.cpp:91] Creating Layer reshape_frames
I0924 03:38:49.911545  2077 layer_factory.hpp:77] Creating layer embedding
I0924 03:38:49.911548  2047 net.cpp:425] reshape_frames <- embedded_in_frames
I0924 03:38:49.911558  2025 net.cpp:141] Setting up reshape_frames
I0924 03:38:49.911569  2047 net.cpp:399] reshape_frames -> embedded_input_frames
I0924 03:38:49.911572  2025 net.cpp:148] Top shape: 1 1 500 (500)
I0924 03:38:49.911578  2025 net.cpp:156] Memory required for data: 20404
I0924 03:38:49.911567  2077 net.cpp:91] Creating Layer embedding
I0924 03:38:49.911584  2025 layer_factory.hpp:77] Creating layer reshape_stage_indicator
I0924 03:38:49.911590  2077 net.cpp:425] embedding <- input_sentence
I0924 03:38:49.911595  2025 net.cpp:91] Creating Layer reshape_stage_indicator
I0924 03:38:49.911602  2025 net.cpp:425] reshape_stage_indicator <- stage_indicator
I0924 03:38:49.911608  2077 net.cpp:399] embedding -> embedded_input_sentence
I0924 03:38:49.911610  2025 net.cpp:399] reshape_stage_indicator -> reshaped_stage_indicator
I0924 03:38:49.956153  2047 net.cpp:141] Setting up reshape_frames
I0924 03:38:49.956241  2047 net.cpp:148] Top shape: 1 1 500 (500)
I0924 03:38:49.956259  2047 net.cpp:156] Memory required for data: 20404
I0924 03:38:49.956277  2047 layer_factory.hpp:77] Creating layer reshape_stage_indicator
I0924 03:38:49.956318  2047 net.cpp:91] Creating Layer reshape_stage_indicator
I0924 03:38:49.956338  2047 net.cpp:425] reshape_stage_indicator <- stage_indicator
I0924 03:38:49.956375  2047 net.cpp:399] reshape_stage_indicator -> reshaped_stage_indicator
I0924 03:38:50.001555  2031 net.cpp:141] Setting up embed_encoder
I0924 03:38:50.001613  2031 net.cpp:148] Top shape: 1 500 (500)
I0924 03:38:50.001624  2031 net.cpp:156] Memory required for data: 18404
I0924 03:38:50.001654  2031 layer_factory.hpp:77] Creating layer reshape_frames
I0924 03:38:50.001687  2031 net.cpp:91] Creating Layer reshape_frames
I0924 03:38:50.001698  2031 net.cpp:425] reshape_frames <- embedded_in_frames
I0924 03:38:50.001714  2031 net.cpp:399] reshape_frames -> embedded_input_frames
I0924 03:38:50.001760  2025 net.cpp:141] Setting up reshape_stage_indicator
I0924 03:38:50.001801  2031 net.cpp:141] Setting up reshape_frames
I0924 03:38:50.001806  2025 net.cpp:148] Top shape: 1 1 1 (1)
I0924 03:38:50.001818  2025 net.cpp:156] Memory required for data: 20408
I0924 03:38:50.001818  2031 net.cpp:148] Top shape: 1 1 500 (500)
I0924 03:38:50.001840  2025 layer_factory.hpp:77] Creating layer embedding
I0924 03:38:50.001847  2031 net.cpp:156] Memory required for data: 20404
I0924 03:38:50.001857  2031 layer_factory.hpp:77] Creating layer reshape_stage_indicator
I0924 03:38:50.001865  2025 net.cpp:91] Creating Layer embedding
I0924 03:38:50.001873  2031 net.cpp:91] Creating Layer reshape_stage_indicator
I0924 03:38:50.001878  2025 net.cpp:425] embedding <- input_sentence
I0924 03:38:50.001883  2031 net.cpp:425] reshape_stage_indicator <- stage_indicator
I0924 03:38:50.001894  2025 net.cpp:399] embedding -> embedded_input_sentence
I0924 03:38:50.001901  2031 net.cpp:399] reshape_stage_indicator -> reshaped_stage_indicator
I0924 03:38:50.052361  2047 net.cpp:141] Setting up reshape_stage_indicator
I0924 03:38:50.052422  2047 net.cpp:148] Top shape: 1 1 1 (1)
I0924 03:38:50.052430  2047 net.cpp:156] Memory required for data: 20408
I0924 03:38:50.052443  2047 layer_factory.hpp:77] Creating layer embedding
I0924 03:38:50.052471  2047 net.cpp:91] Creating Layer embedding
I0924 03:38:50.052481  2047 net.cpp:425] embedding <- input_sentence
I0924 03:38:50.052510  2047 net.cpp:399] embedding -> embedded_input_sentence
I0924 03:38:50.052534  2031 net.cpp:141] Setting up reshape_stage_indicator
I0924 03:38:50.052556  2031 net.cpp:148] Top shape: 1 1 1 (1)
I0924 03:38:50.052561  2031 net.cpp:156] Memory required for data: 20408
I0924 03:38:50.052567  2031 layer_factory.hpp:77] Creating layer embedding
I0924 03:38:50.052580  2031 net.cpp:91] Creating Layer embedding
I0924 03:38:50.052587  2031 net.cpp:425] embedding <- input_sentence
I0924 03:38:50.052597  2031 net.cpp:399] embedding -> embedded_input_sentence
I0924 03:38:50.162951  2063 net.cpp:141] Setting up embed_encoder
I0924 03:38:50.163102  2063 net.cpp:148] Top shape: 1 500 (500)
I0924 03:38:50.163131  2063 net.cpp:156] Memory required for data: 18404
I0924 03:38:50.163211  2063 layer_factory.hpp:77] Creating layer reshape_frames
I0924 03:38:50.163301  2063 net.cpp:91] Creating Layer reshape_frames
I0924 03:38:50.163339  2063 net.cpp:425] reshape_frames <- embedded_in_frames
I0924 03:38:50.163379  2063 net.cpp:399] reshape_frames -> embedded_input_frames
I0924 03:38:50.205588  2063 net.cpp:141] Setting up reshape_frames
I0924 03:38:50.205633  2043 net.cpp:141] Setting up embed_encoder
I0924 03:38:50.205643  2063 net.cpp:148] Top shape: 1 1 500 (500)
I0924 03:38:50.205670  2043 net.cpp:148] Top shape: 1 500 (500)
I0924 03:38:50.205670  2063 net.cpp:156] Memory required for data: 20404
I0924 03:38:50.205684  2043 net.cpp:156] Memory required for data: 18404
I0924 03:38:50.205693  2063 layer_factory.hpp:77] Creating layer reshape_stage_indicator
I0924 03:38:50.205716  2043 layer_factory.hpp:77] Creating layer reshape_frames
I0924 03:38:50.205727  2035 net.cpp:141] Setting up embedding
I0924 03:38:50.205732  2063 net.cpp:91] Creating Layer reshape_stage_indicator
I0924 03:38:50.205734  2043 net.cpp:91] Creating Layer reshape_frames
I0924 03:38:50.205751  2077 net.cpp:141] Setting up embedding
I0924 03:38:50.205763  2043 net.cpp:425] reshape_frames <- embedded_in_frames
I0924 03:38:50.205759  2063 net.cpp:425] reshape_stage_indicator <- stage_indicator
I0924 03:38:50.205757  2035 net.cpp:148] Top shape: 1 1 500 (500)
I0924 03:38:50.205777  2077 net.cpp:148] Top shape: 1 1 500 (500)
I0924 03:38:50.205788  2043 net.cpp:399] reshape_frames -> embedded_input_frames
I0924 03:38:50.205792  2035 net.cpp:156] Memory required for data: 22408
I0924 03:38:50.205797  2077 net.cpp:156] Memory required for data: 22408
I0924 03:38:50.205792  2063 net.cpp:399] reshape_stage_indicator -> reshaped_stage_indicator
I0924 03:38:50.205816  2035 layer_factory.hpp:77] Creating layer lstm1
…
I0924 03:38:50.205930  2035 recurrent_layer.cpp:20] Initializing recurrent layer: assuming input batch contains 1 timesteps of 1 independent streams.
I0924 03:38:50.206437  2077 net.cpp:49] Initializing net from parameters: 
layer {
  name: "lstm1_"
  type: "Input"
  top: "x"
  top: "cont"
  input_param {
    shape {
      dim: 1
      dim: 1
      dim: 500
    }
    shape {
      dim: 1
      dim: 1
    }
  }
}
layer {
  name: "lstm1_"
  type: "Input"
  top: "c_0"
  top: "h_0"
  input_param {
    shape {
      dim: 1
      dim: 1
      dim: 1000
    }
    shape {
      dim: 1
      dim: 1
      dim: 1000
    }
  }
}
layer {
  name: "lstm1_cont_slice"
  type: "Slice"
  bottom: "cont"
  top: "cont_1"
  slice_param {
    axis: 0
  }
}
layer {
  name: "lstm1_x_transform"
  type: "InnerProduct"
  bottom: "x"
  top: "W_xc_x"
  param {
    name: "W_xc"
  }
  param {
    name: "b_c"
  }
  propagate_down: true
  inner_product_param {
    num_output: 4000
    bias_term: true
    weight_filler {
      type: "uniform"
      min: -0.08
      max: 0.08
    }
    bias_filler {
      type: "constant"
      value: 0
    }
    axis: 2
  }
}
layer {
  name: "lstm1_W_xc_x_slice"
  type: "Slice"
  bottom: "W_xc_x"
  top: "W_xc_x_1"
  slice_param {
    axis: 0
  }
}
layer {
  name: "lstm1_h_conted_0"
  type: "Scale"
  bottom: "h_0"
  bottom: "cont_1"
  top: "h_conted_0"
  scale_param {
    axis: 0
  }
}
layer {
  name: "lstm1_transform_1"
  type: "InnerProduct"
  bottom: "h_conted_0"
  top: "W_hc_h_0"
  param {
    name: "W_hc"
  }
  inner_product_param {
    num_output: 4000
    bias_term: false
    weight_filler {
      type: "uniform"
      min: -0.08
      max: 0.08
    }
    axis: 2
  }
}
layer {
  name: "lstm1_gate_input_1"
  type: "Eltwise"
  bottom: "W_hc_h_0"
  bottom: "W_xc_x_1"
  top: "gate_input_1"
  eltwise_param {
    operation: SUM
  }
}
layer {
  name: "lstm1_unit_1"
  type: "LSTMUnit"
  bottom: "c_0"
  bottom: "gate_input_1"
  bottom: "cont_1"
  top: "c_1"
  top: "h_1"
}
layer {
  name: "lstm1_"
  type: "Split"
  bottom: "c_1"
  top: "c_T"
}
layer {
  name: "lstm1_h_concat"
  type: "Concat"
  bottom: "h_1"
  top: "h"
  concat_param {
    axis: 0
  }
}
layer {
  name: "h_pseudoloss"
  type: "Reduction"
  bottom: "h"
  top: "h_pseudoloss"
  loss_weight: 1
}
I0924 03:38:50.206573  2077 layer_factory.hpp:77] Creating layer lstm1_
I0924 03:38:50.206590  2077 net.cpp:91] Creating Layer lstm1_
I0924 03:38:50.206573  2035 net.cpp:49] Initializing net from parameters: 
layer {
  name: "lstm1_"
  type: "Input"
  top: "x"
  top: "cont"
  input_param {
    shape {
      dim: 1
      dim: 1
      dim: 500
    }
    shape {
      dim: 1
      dim: 1
    }
  }
}
layer {
  name: "lstm1_"
  type: "Input"
  top: "c_0"
  top: "h_0"
  input_param {
    shape {
      dim: 1
      dim: 1
      dim: 1000
    }
    shape {
      dim: 1
      dim: 1
      dim: 1000
    }
  }
}
layer {
  name: "lstm1_cont_slice"
  type: "Slice"
  bottom: "cont"
  top: "cont_1"
  slice_param {
    axis: 0
  }
}
layer {
  name: "lstm1_x_transform"
  type: "InnerProduct"
  bottom: "x"
  top: "W_xc_x"
  param {
    name: "W_xc"
  }
  param {
    name: "b_c"
  }
  propagate_down: true
  inner_product_param {
    num_output: 4000
    bias_term: true
    weight_filler {
      type: "uniform"
      min: -0.08
      max: 0.08
    }
    bias_filler {
      type: "constant"
      value: 0
    }
    axis: 2
  }
}
layer {
  name: "lstm1_W_xc_x_slice"
  type: "Slice"
  bottom: "W_xc_x"
  top: "W_xc_x_1"
  slice_param {
    axis: 0
  }
}
layer {
  name: "lstm1_h_conted_0"
  type: "Scale"
  bottom: "h_0"
  bottom: "cont_1"
  top: "h_conted_0"
  scale_param {
    axis: 0
  }
}
layer {
  name: "lstm1_transform_1"
  type: "InnerProduct"
  bottom: "h_conted_0"
  top: "W_hc_h_0"
  param {
    name: "W_hc"
  }
  inner_product_param {
    num_output: 4000
    bias_term: false
    weight_filler {
      type: "uniform"
      min: -0.08
      max: 0.08
    }
    axis: 2
  }
}
layer {
  name: "lstm1_gate_input_1"
  type: "Eltwise"
  bottom: "W_hc_h_0"
  bottom: "W_xc_x_1"
  top: "gate_input_1"
  eltwise_param {
    operation: SUM
  }
}
layer {
  name: "lstm1_unit_1"
  type: "LSTMUnit"
  bottom: "c_0"
  bottom: "gate_input_1"
  bottom: "cont_1"
  top: "c_1"
  top: "h_1"
}
layer {
  name: "lstm1_"
  type: "Split"
  bottom: "c_1"
  top: "c_T"
}
layer {
  name: "lstm1_h_concat"
  type: "Concat"
  bottom: "h_1"
  top: "h"
  concat_param {
    axis: 0
  }
}
layer {
  name: "h_pseudoloss"
  type: "Reduction"
  bottom: "h"
  top: "h_pseudoloss"
  loss_weight: 1
}
I0924 03:38:50.206617  2077 net.cpp:399] lstm1_ -> x
I0924 03:38:50.206652  2077 net.cpp:399] lstm1_ -> cont
I0924 03:38:50.206802  2035 layer_factory.hpp:77] Creating layer lstm1_
I0924 03:38:50.206822  2035 net.cpp:91] Creating Layer lstm1_
I0924 03:38:50.206832  2035 net.cpp:399] lstm1_ -> x
I0924 03:38:50.206864  2035 net.cpp:399] lstm1_ -> cont
I0924 03:38:50.209223  2063 net.cpp:141] Setting up reshape_stage_indicator
I0924 03:38:50.209239  2063 net.cpp:148] Top shape: 1 1 1 (1)
I0924 03:38:50.209247  2063 net.cpp:156] Memory required for data: 20408
I0924 03:38:50.209255  2063 layer_factory.hpp:77] Creating layer embedding
I0924 03:38:50.209278  2063 net.cpp:91] Creating Layer embedding
I0924 03:38:50.209287  2063 net.cpp:425] embedding <- input_sentence
I0924 03:38:50.209300  2063 net.cpp:399] embedding -> embedded_input_sentence
I0924 03:38:50.209368  2035 net.cpp:141] Setting up lstm1_
I0924 03:38:50.209400  2035 net.cpp:148] Top shape: 1 1 500 (500)
I0924 03:38:50.209414  2035 net.cpp:148] Top shape: 1 1 (1)
I0924 03:38:50.209421  2035 net.cpp:156] Memory required for data: 2004
I0924 03:38:50.209429  2035 layer_factory.hpp:77] Creating layer lstm1_
I0924 03:38:50.209456  2035 net.cpp:91] Creating Layer lstm1_
I0924 03:38:50.209470  2035 net.cpp:399] lstm1_ -> c_0
I0924 03:38:50.209492  2035 net.cpp:399] lstm1_ -> h_0
I0924 03:38:50.209597  2035 net.cpp:141] Setting up lstm1_
I0924 03:38:50.209614  2035 net.cpp:148] Top shape: 1 1 1000 (1000)
I0924 03:38:50.209637  2035 net.cpp:148] Top shape: 1 1 1000 (1000)
I0924 03:38:50.209645  2035 net.cpp:156] Memory required for data: 10004
I0924 03:38:50.209652  2035 layer_factory.hpp:77] Creating layer lstm1_cont_slice
I0924 03:38:50.209671  2035 net.cpp:91] Creating Layer lstm1_cont_slice
I0924 03:38:50.209702  2035 net.cpp:425] lstm1_cont_slice <- cont
I0924 03:38:50.209714  2035 net.cpp:399] lstm1_cont_slice -> cont_1
I0924 03:38:50.209777  2035 net.cpp:141] Setting up lstm1_cont_slice
I0924 03:38:50.209816  2035 net.cpp:148] Top shape: 1 1 (1)
I0924 03:38:50.209825  2035 net.cpp:156] Memory required for data: 10008
I0924 03:38:50.209832  2035 layer_factory.hpp:77] Creating layer cont_1_lstm1_cont_slice_0_split
I0924 03:38:50.209843  2035 net.cpp:91] Creating Layer cont_1_lstm1_cont_slice_0_split
I0924 03:38:50.209863  2035 net.cpp:425] cont_1_lstm1_cont_slice_0_split <- cont_1
I0924 03:38:50.209895  2035 net.cpp:399] cont_1_lstm1_cont_slice_0_split -> cont_1_lstm1_cont_slice_0_split_0
I0924 03:38:50.209923  2035 net.cpp:399] cont_1_lstm1_cont_slice_0_split -> cont_1_lstm1_cont_slice_0_split_1
I0924 03:38:50.210017  2035 net.cpp:141] Setting up cont_1_lstm1_cont_slice_0_split
I0924 03:38:50.210044  2035 net.cpp:148] Top shape: 1 1 (1)
I0924 03:38:50.210055  2035 net.cpp:148] Top shape: 1 1 (1)
I0924 03:38:50.210062  2035 net.cpp:156] Memory required for data: 10016
I0924 03:38:50.210070  2035 layer_factory.hpp:77] Creating layer lstm1_x_transform
I0924 03:38:50.210103  2035 net.cpp:91] Creating Layer lstm1_x_transform
I0924 03:38:50.210114  2035 net.cpp:425] lstm1_x_transform <- x
I0924 03:38:50.210127  2035 net.cpp:399] lstm1_x_transform -> W_xc_x
I0924 03:38:50.224261  2043 net.cpp:141] Setting up reshape_frames
I0924 03:38:50.224318  2043 net.cpp:148] Top shape: 1 1 500 (500)
I0924 03:38:50.224330  2043 net.cpp:156] Memory required for data: 20404
I0924 03:38:50.224345  2043 layer_factory.hpp:77] Creating layer reshape_stage_indicator
I0924 03:38:50.224387  2043 net.cpp:91] Creating Layer reshape_stage_indicator
I0924 03:38:50.224403  2043 net.cpp:425] reshape_stage_indicator <- stage_indicator
I0924 03:38:50.224426  2043 net.cpp:399] reshape_stage_indicator -> reshaped_stage_indicator
I0924 03:38:50.224508  2043 net.cpp:141] Setting up reshape_stage_indicator
I0924 03:38:50.224526  2043 net.cpp:148] Top shape: 1 1 1 (1)
I0924 03:38:50.224536  2043 net.cpp:156] Memory required for data: 20408
I0924 03:38:50.224545  2043 layer_factory.hpp:77] Creating layer embedding
I0924 03:38:50.224573  2043 net.cpp:91] Creating Layer embedding
I0924 03:38:50.224586  2043 net.cpp:425] embedding <- input_sentence
I0924 03:38:50.224604  2043 net.cpp:399] embedding -> embedded_input_sentence
I0924 03:38:50.328528  2077 net.cpp:141] Setting up lstm1_
I0924 03:38:50.328583  2077 net.cpp:148] Top shape: 1 1 500 (500)
I0924 03:38:50.328594  2077 net.cpp:148] Top shape: 1 1 (1)
I0924 03:38:50.328603  2077 net.cpp:156] Memory required for data: 2004
I0924 03:38:50.328618  2077 layer_factory.hpp:77] Creating layer lstm1_
I0924 03:38:50.328647  2077 net.cpp:91] Creating Layer lstm1_
I0924 03:38:50.328670  2077 net.cpp:399] lstm1_ -> c_0
I0924 03:38:50.328675  2029 net.cpp:141] Setting up embedding
I0924 03:38:50.328698  2077 net.cpp:399] lstm1_ -> h_0
I0924 03:38:50.328732  2029 net.cpp:148] Top shape: 1 1 500 (500)
I0924 03:38:50.328743  2029 net.cpp:156] Memory required for data: 22408
I0924 03:38:50.328750  2047 net.cpp:141] Setting up embedding
I0924 03:38:50.328769  2029 layer_factory.hpp:77] Creating layer lstm1
I0924 03:38:50.328773  2047 net.cpp:148] Top shape: 1 1 500 (500)
I0924 03:38:50.328784  2047 net.cpp:156] Memory required for data: 22408
I0924 03:38:50.328804  2029 net.cpp:91] Creating Layer lstm1
I0924 03:38:50.328804  2047 layer_factory.hpp:77] Creating layer lstm1
I0924 03:38:50.328833  2029 net.cpp:425] lstm1 <- embedded_input_frames
I0924 03:38:50.328848  2047 net.cpp:91] Creating Layer lstm1
I0924 03:38:50.328892  2047 net.cpp:425] lstm1 <- embedded_input_frames
I0924 03:38:50.328904  2047 net.cpp:425] lstm1 <- cont_sentence_input_1_split_0
I0924 03:38:50.328923  2047 net.cpp:399] lstm1 -> lstm1
I0924 03:38:50.328943  2047 recurrent_layer.cpp:20] Initializing recurrent layer: assuming input batch contains 1 timesteps of 1 independent streams.
I0924 03:38:50.329368  2047 net.cpp:49] Initializing net from parameters: 
layer {
  name: "lstm1_"
  type: "Input"
  top: "x"
  top: "cont"
  input_param {
    shape {
      dim: 1
      dim: 1
      dim: 500
    }
    shape {
      dim: 1
      dim: 1
    }
  }
}
layer {
  name: "lstm1_"
  type: "Input"
  top: "c_0"
  top: "h_0"
  input_param {
    shape {
      dim: 1
      dim: 1
      dim: 1000
    }
    shape {
      dim: 1
      dim: 1
      dim: 1000
    }
  }
}
layer {
  name: "lstm1_cont_slice"
  type: "Slice"
  bottom: "cont"
  top: "cont_1"
  slice_param {
    axis: 0
  }
}
layer {
  name: "lstm1_x_transform"
  type: "InnerProduct"
  bottom: "x"
  top: "W_xc_x"
  param {
    name: "W_xc"
  }
  param {
    name: "b_c"
  }
  propagate_down: true
  inner_product_param {
    num_output: 4000
    bias_term: true
    weight_filler {
      type: "uniform"
      min: -0.08
      max: 0.08
    }
    bias_filler {
      type: "constant"
      value: 0
    }
    axis: 2
  }
}
layer {
  name: "lstm1_W_xc_x_slice"
  type: "Slice"
  bottom: "W_xc_x"
  top: "W_xc_x_1"
  slice_param {
    axis: 0
  }
}
layer {
  name: "lstm1_h_conted_0"
  type: "Scale"
  bottom: "h_0"
  bottom: "cont_1"
  top: "h_conted_0"
  scale_param {
    axis: 0
  }
}
layer {
  name: "lstm1_transform_1"
  type: "InnerProduct"
  bottom: "h_conted_0"
  top: "W_hc_h_0"
  param {
    name: "W_hc"
  }
  inner_product_param {
    num_output: 4000
    bias_term: false
    weight_filler {
      type: "uniform"
      min: -0.08
      max: 0.08
    }
    axis: 2
  }
}
layer {
  name: "lstm1_gate_input_1"
  type: "Eltwise"
  bottom: "W_hc_h_0"
  bottom: "W_xc_x_1"
  top: "gate_input_1"
  eltwise_param {
    operation: SUM
  }
}
layer {
  name: "lstm1_unit_1"
  type: "LSTMUnit"
  bottom: "c_0"
  bottom: "gate_input_1"
  bottom: "cont_1"
  top: "c_1"
  top: "h_1"
}
layer {
  name: "lstm1_"
  type: "Split"
  bottom: "c_1"
  top: "c_T"
}
layer {
  name: "lstm1_h_concat"
  type: "Concat"
  bottom: "h_1"
  top: "h"
  concat_param {
    axis: 0
  }
}
layer {
  name: "h_pseudoloss"
  type: "Reduction"
  bottom: "h"
  top: "h_pseudoloss"
  loss_weight: 1
}
I0924 03:38:50.329506  2047 layer_factory.hpp:77] Creating layer lstm1_
I0924 03:38:50.329524  2047 net.cpp:91] Creating Layer lstm1_
I0924 03:38:50.329535  2047 net.cpp:399] lstm1_ -> x
I0924 03:38:50.329551  2047 net.cpp:399] lstm1_ -> cont
I0924 03:38:50.329985  2047 net.cpp:141] Setting up lstm1_
I0924 03:38:50.330003  2047 net.cpp:148] Top shape: 1 1 500 (500)
I0924 03:38:50.330013  2047 net.cpp:148] Top shape: 1 1 (1)
I0924 03:38:50.330020  2047 net.cpp:156] Memory required for data: 2004
I0924 03:38:50.330029  2047 layer_factory.hpp:77] Creating layer lstm1_
I0924 03:38:50.330044  2047 net.cpp:91] Creating Layer lstm1_
I0924 03:38:50.330057  2047 net.cpp:399] lstm1_ -> c_0
I0924 03:38:50.330075  2047 net.cpp:399] lstm1_ -> h_0
I0924 03:38:50.330152  2047 net.cpp:141] Setting up lstm1_
I0924 03:38:50.330168  2047 net.cpp:148] Top shape: 1 1 1000 (1000)
I0924 03:38:50.330178  2047 net.cpp:148] Top shape: 1 1 1000 (1000)
I0924 03:38:50.330185  2047 net.cpp:156] Memory required for data: 10004
I0924 03:38:50.330193  2047 layer_factory.hpp:77] Creating layer lstm1_cont_slice
I0924 03:38:50.330207  2047 net.cpp:91] Creating Layer lstm1_cont_slice
I0924 03:38:50.330215  2047 net.cpp:425] lstm1_cont_slice <- cont
I0924 03:38:50.330230  2047 net.cpp:399] lstm1_cont_slice -> cont_1
I0924 03:38:50.330370  2077 net.cpp:141] Setting up lstm1_
I0924 03:38:50.330390  2077 net.cpp:148] Top shape: 1 1 1000 (1000)
I0924 03:38:50.330404  2077 net.cpp:148] Top shape: 1 1 1000 (1000)
I0924 03:38:50.330405  2047 net.cpp:141] Setting up lstm1_cont_slice
I0924 03:38:50.330411  2077 net.cpp:156] Memory required for data: 10004
I0924 03:38:50.330432  2047 net.cpp:148] Top shape: 1 1 (1)
I0924 03:38:50.330432  2077 layer_factory.hpp:77] Creating layer lstm1_cont_slice
I0924 03:38:50.330446  2047 net.cpp:156] Memory required for data: 10008
I0924 03:38:50.330456  2047 layer_factory.hpp:77] Creating layer cont_1_lstm1_cont_slice_0_split
I0924 03:38:50.330456  2077 net.cpp:91] Creating Layer lstm1_cont_slice
I0924 03:38:50.330466  2077 net.cpp:425] lstm1_cont_slice <- cont
I0924 03:38:50.330471  2047 net.cpp:91] Creating Layer cont_1_lstm1_cont_slice_0_split
I0924 03:38:50.330481  2047 net.cpp:425] cont_1_lstm1_cont_slice_0_split <- cont_1
I0924 03:38:50.330482  2077 net.cpp:399] lstm1_cont_slice -> cont_1
I0924 03:38:50.330492  2047 net.cpp:399] cont_1_lstm1_cont_slice_0_split -> cont_1_lstm1_cont_slice_0_split_0
I0924 03:38:50.330508  2047 net.cpp:399] cont_1_lstm1_cont_slice_0_split -> cont_1_lstm1_cont_slice_0_split_1
I0924 03:38:50.328850  2029 net.cpp:425] lstm1 <- cont_sentence_input_1_split_0
I0924 03:38:50.330690  2029 net.cpp:399] lstm1 -> lstm1
I0924 03:38:50.330730  2029 recurrent_layer.cpp:20] Initializing recurrent layer: assuming input batch contains 1 timesteps of 1 independent streams.
I0924 03:38:50.330835  2077 net.cpp:141] Setting up lstm1_cont_slice
I0924 03:38:50.330852  2077 net.cpp:148] Top shape: 1 1 (1)
I0924 03:38:50.330859  2077 net.cpp:156] Memory required for data: 10008
I0924 03:38:50.330868  2077 layer_factory.hpp:77] Creating layer cont_1_lstm1_cont_slice_0_split
I0924 03:38:50.330883  2077 net.cpp:91] Creating Layer cont_1_lstm1_cont_slice_0_split
I0924 03:38:50.330893  2077 net.cpp:425] cont_1_lstm1_cont_slice_0_split <- cont_1
I0924 03:38:50.330904  2077 net.cpp:399] cont_1_lstm1_cont_slice_0_split -> cont_1_lstm1_cont_slice_0_split_0
I0924 03:38:50.330907  2047 net.cpp:141] Setting up cont_1_lstm1_cont_slice_0_split
I0924 03:38:50.330916  2077 net.cpp:399] cont_1_lstm1_cont_slice_0_split -> cont_1_lstm1_cont_slice_0_split_1
I0924 03:38:50.330924  2047 net.cpp:148] Top shape: 1 1 (1)
I0924 03:38:50.330935  2047 net.cpp:148] Top shape: 1 1 (1)
I0924 03:38:50.330941  2047 net.cpp:156] Memory required for data: 10016
I0924 03:38:50.330950  2047 layer_factory.hpp:77] Creating layer lstm1_x_transform
I0924 03:38:50.330965  2047 net.cpp:91] Creating Layer lstm1_x_transform
I0924 03:38:50.330972  2047 net.cpp:425] lstm1_x_transform <- x
I0924 03:38:50.330986  2047 net.cpp:399] lstm1_x_transform -> W_xc_x
I0924 03:38:50.331153  2029 net.cpp:49] Initializing net from parameters: 
layer {
  name: "lstm1_"
  type: "Input"
  top: "x"
  top: "cont"
  input_param {
    shape {
      dim: 1
      dim: 1
      dim: 500
    }
    shape {
      dim: 1
      dim: 1
    }
  }
}
layer {
  name: "lstm1_"
  type: "Input"
  top: "c_0"
  top: "h_0"
  input_param {
    shape {
      dim: 1
      dim: 1
      dim: 1000
    }
    shape {
      dim: 1
      dim: 1
      dim: 1000
    }
  }
}
layer {
  name: "lstm1_cont_slice"
  type: "Slice"
  bottom: "cont"
  top: "cont_1"
  slice_param {
    axis: 0
  }
}
layer {
  name: "lstm1_x_transform"
  type: "InnerProduct"
  bottom: "x"
  top: "W_xc_x"
  param {
    name: "W_xc"
  }
  param {
    name: "b_c"
  }
  propagate_down: true
  inner_product_param {
    num_output: 4000
    bias_term: true
    weight_filler {
      type: "uniform"
      min: -0.08
      max: 0.08
    }
    bias_filler {
      type: "constant"
      value: 0
    }
    axis: 2
  }
}
layer {
  name: "lstm1_W_xc_x_slice"
  type: "Slice"
  bottom: "W_xc_x"
  top: "W_xc_x_1"
  slice_param {
    axis: 0
  }
}
layer {
  name: "lstm1_h_conted_0"
  type: "Scale"
  bottom: "h_0"
  bottom: "cont_1"
  top: "h_conted_0"
  scale_param {
    axis: 0
  }
}
layer {
  name: "lstm1_transform_1"
  type: "InnerProduct"
  bottom: "h_conted_0"
  top: "W_hc_h_0"
  param {
    name: "W_hc"
  }
  inner_product_param {
    num_output: 4000
    bias_term: false
    weight_filler {
      type: "uniform"
      min: -0.08
      max: 0.08
    }
    axis: 2
  }
}
layer {
  name: "lstm1_gate_input_1"
  type: "Eltwise"
  bottom: "W_hc_h_0"
  bottom: "W_xc_x_1"
  top: "gate_input_1"
  eltwise_param {
    operation: SUM
  }
}
layer {
  name: "lstm1_unit_1"
  type: "LSTMUnit"
  bottom: "c_0"
  bottom: "gate_input_1"
  bottom: "cont_1"
  top: "c_1"
  top: "h_1"
}
layer {
  name: "lstm1_"
  type: "Split"
  bottom: "c_1"
  top: "c_T"
}
layer {
  name: "lstm1_h_concat"
  type: "Concat"
  bottom: "h_1"
  top: "h"
  concat_param {
    axis: 0
  }
}
layer {
  name: "h_pseudoloss"
  type: "Reduction"
  bottom: "h"
  top: "h_pseudoloss"
  loss_weight: 1
}
I0924 03:38:50.331290  2029 layer_factory.hpp:77] Creating layer lstm1_
I0924 03:38:50.331310  2029 net.cpp:91] Creating Layer lstm1_
I0924 03:38:50.331321  2029 net.cpp:399] lstm1_ -> x
I0924 03:38:50.331339  2029 net.cpp:399] lstm1_ -> cont
I0924 03:38:50.342334  2035 net.cpp:141] Setting up lstm1_x_transform
I0924 03:38:50.342381  2035 net.cpp:148] Top shape: 1 1 4000 (4000)
I0924 03:38:50.342387  2035 net.cpp:156] Memory required for data: 26016
I0924 03:38:50.342412  2035 layer_factory.hpp:77] Creating layer lstm1_W_xc_x_slice
I0924 03:38:50.342430  2035 net.cpp:91] Creating Layer lstm1_W_xc_x_slice
I0924 03:38:50.342438  2035 net.cpp:425] lstm1_W_xc_x_slice <- W_xc_x
I0924 03:38:50.342448  2035 net.cpp:399] lstm1_W_xc_x_slice -> W_xc_x_1
I0924 03:38:50.342509  2035 net.cpp:141] Setting up lstm1_W_xc_x_slice
I0924 03:38:50.342520  2035 net.cpp:148] Top shape: 1 1 4000 (4000)
I0924 03:38:50.342525  2035 net.cpp:156] Memory required for data: 42016
I0924 03:38:50.342530  2035 layer_factory.hpp:77] Creating layer lstm1_h_conted_0
I0924 03:38:50.342555  2035 net.cpp:91] Creating Layer lstm1_h_conted_0
I0924 03:38:50.342564  2035 net.cpp:425] lstm1_h_conted_0 <- h_0
I0924 03:38:50.342576  2035 net.cpp:425] lstm1_h_conted_0 <- cont_1_lstm1_cont_slice_0_split_0
I0924 03:38:50.342587  2035 net.cpp:399] lstm1_h_conted_0 -> h_conted_0
I0924 03:38:50.342759  2035 net.cpp:141] Setting up lstm1_h_conted_0
I0924 03:38:50.342772  2035 net.cpp:148] Top shape: 1 1 1000 (1000)
I0924 03:38:50.342777  2035 net.cpp:156] Memory required for data: 46016
I0924 03:38:50.342782  2035 layer_factory.hpp:77] Creating layer lstm1_transform_1
I0924 03:38:50.342797  2035 net.cpp:91] Creating Layer lstm1_transform_1
I0924 03:38:50.342802  2035 net.cpp:425] lstm1_transform_1 <- h_conted_0
I0924 03:38:50.342810  2035 net.cpp:399] lstm1_transform_1 -> W_hc_h_0
I0924 03:38:50.352761  2077 net.cpp:141] Setting up cont_1_lstm1_cont_slice_0_split
I0924 03:38:50.352809  2077 net.cpp:148] Top shape: 1 1 (1)
I0924 03:38:50.352821  2077 net.cpp:148] Top shape: 1 1 (1)
I0924 03:38:50.352828  2077 net.cpp:156] Memory required for data: 10016
I0924 03:38:50.352841  2077 layer_factory.hpp:77] Creating layer lstm1_x_transform
I0924 03:38:50.352872  2077 net.cpp:91] Creating Layer lstm1_x_transform
I0924 03:38:50.352882  2077 net.cpp:425] lstm1_x_transform <- x
I0924 03:38:50.352900  2077 net.cpp:399] lstm1_x_transform -> W_xc_x
I0924 03:38:50.366164  2029 net.cpp:141] Setting up lstm1_
I0924 03:38:50.366212  2029 net.cpp:148] Top shape: 1 1 500 (500)
I0924 03:38:50.366221  2029 net.cpp:148] Top shape: 1 1 (1)
I0924 03:38:50.366226  2029 net.cpp:156] Memory required for data: 2004
I0924 03:38:50.366236  2029 layer_factory.hpp:77] Creating layer lstm1_
I0924 03:38:50.366260  2029 net.cpp:91] Creating Layer lstm1_
I0924 03:38:50.366267  2029 net.cpp:399] lstm1_ -> c_0
I0924 03:38:50.366289  2029 net.cpp:399] lstm1_ -> h_0
I0924 03:38:50.366369  2029 net.cpp:141] Setting up lstm1_
I0924 03:38:50.366379  2029 net.cpp:148] Top shape: 1 1 1000 (1000)
I0924 03:38:50.366386  2029 net.cpp:148] Top shape: 1 1 1000 (1000)
I0924 03:38:50.366390  2029 net.cpp:156] Memory required for data: 10004
I0924 03:38:50.366395  2029 layer_factory.hpp:77] Creating layer lstm1_cont_slice
I0924 03:38:50.366410  2029 net.cpp:91] Creating Layer lstm1_cont_slice
I0924 03:38:50.366415  2029 net.cpp:425] lstm1_cont_slice <- cont
I0924 03:38:50.366423  2029 net.cpp:399] lstm1_cont_slice -> cont_1
I0924 03:38:50.368198  2029 net.cpp:141] Setting up lstm1_cont_slice
I0924 03:38:50.368232  2029 net.cpp:148] Top shape: 1 1 (1)
I0924 03:38:50.368243  2029 net.cpp:156] Memory required for data: 10008
I0924 03:38:50.368255  2029 layer_factory.hpp:77] Creating layer cont_1_lstm1_cont_slice_0_split
I0924 03:38:50.368275  2029 net.cpp:91] Creating Layer cont_1_lstm1_cont_slice_0_split
I0924 03:38:50.368288  2029 net.cpp:425] cont_1_lstm1_cont_slice_0_split <- cont_1
I0924 03:38:50.368312  2029 net.cpp:399] cont_1_lstm1_cont_slice_0_split -> cont_1_lstm1_cont_slice_0_split_0
I0924 03:38:50.368335  2029 net.cpp:399] cont_1_lstm1_cont_slice_0_split -> cont_1_lstm1_cont_slice_0_split_1
I0924 03:38:50.370885  2029 net.cpp:141] Setting up cont_1_lstm1_cont_slice_0_split
I0924 03:38:50.370947  2029 net.cpp:148] Top shape: 1 1 (1)
I0924 03:38:50.370962  2029 net.cpp:148] Top shape: 1 1 (1)
I0924 03:38:50.370973  2029 net.cpp:156] Memory required for data: 10016
I0924 03:38:50.370988  2029 layer_factory.hpp:77] Creating layer lstm1_x_transform
I0924 03:38:50.371033  2029 net.cpp:91] Creating Layer lstm1_x_transform
I0924 03:38:50.371047  2029 net.cpp:425] lstm1_x_transform <- x
I0924 03:38:50.371070  2029 net.cpp:399] lstm1_x_transform -> W_xc_x
I0924 03:38:50.378093  2031 net.cpp:141] Setting up embedding
I0924 03:38:50.378145  2031 net.cpp:148] Top shape: 1 1 500 (500)
I0924 03:38:50.378154  2031 net.cpp:156] Memory required for data: 22408
I0924 03:38:50.378175  2031 layer_factory.hpp:77] Creating layer lstm1
I0924 03:38:50.378199  2031 net.cpp:91] Creating Layer lstm1
I0924 03:38:50.378211  2031 net.cpp:425] lstm1 <- embedded_input_frames
I0924 03:38:50.378223  2031 net.cpp:425] lstm1 <- cont_sentence_input_1_split_0
I0924 03:38:50.378239  2031 net.cpp:399] lstm1 -> lstm1
I0924 03:38:50.378262  2031 recurrent_layer.cpp:20] Initializing recurrent layer: assuming input batch contains 1 timesteps of 1 independent streams.
I0924 03:38:50.378679  2031 net.cpp:49] Initializing net from parameters: 
layer {
  name: "lstm1_"
  type: "Input"
  top: "x"
  top: "cont"
  input_param {
    shape {
      dim: 1
      dim: 1
      dim: 500
    }
    shape {
      dim: 1
      dim: 1
    }
  }
}
layer {
  name: "lstm1_"
  type: "Input"
  top: "c_0"
  top: "h_0"
  input_param {
    shape {
      dim: 1
      dim: 1
      dim: 1000
    }
    shape {
      dim: 1
      dim: 1
      dim: 1000
    }
  }
}
layer {
  name: "lstm1_cont_slice"
  type: "Slice"
  bottom: "cont"
  top: "cont_1"
  slice_param {
    axis: 0
  }
}
layer {
  name: "lstm1_x_transform"
  type: "InnerProduct"
  bottom: "x"
  top: "W_xc_x"
  param {
    name: "W_xc"
  }
  param {
    name: "b_c"
  }
  propagate_down: true
  inner_product_param {
    num_output: 4000
    bias_term: true
    weight_filler {
      type: "uniform"
      min: -0.08
      max: 0.08
    }
    bias_filler {
      type: "constant"
      value: 0
    }
    axis: 2
  }
}
layer {
  name: "lstm1_W_xc_x_slice"
  type: "Slice"
  bottom: "W_xc_x"
  top: "W_xc_x_1"
  slice_param {
    axis: 0
  }
}
layer {
  name: "lstm1_h_conted_0"
  type: "Scale"
  bottom: "h_0"
  bottom: "cont_1"
  top: "h_conted_0"
  scale_param {
    axis: 0
  }
}
layer {
  name: "lstm1_transform_1"
  type: "InnerProduct"
  bottom: "h_conted_0"
  top: "W_hc_h_0"
  param {
    name: "W_hc"
  }
  inner_product_param {
    num_output: 4000
    bias_term: false
    weight_filler {
      type: "uniform"
      min: -0.08
      max: 0.08
    }
    axis: 2
  }
}
layer {
  name: "lstm1_gate_input_1"
  type: "Eltwise"
  bottom: "W_hc_h_0"
  bottom: "W_xc_x_1"
  top: "gate_input_1"
  eltwise_param {
    operation: SUM
  }
}
layer {
  name: "lstm1_unit_1"
  type: "LSTMUnit"
  bottom: "c_0"
  bottom: "gate_input_1"
  bottom: "cont_1"
  top: "c_1"
  top: "h_1"
}
layer {
  name: "lstm1_"
  type: "Split"
  bottom: "c_1"
  top: "c_T"
}
layer {
  name: "lstm1_h_concat"
  type: "Concat"
  bottom: "h_1"
  top: "h"
  concat_param {
    axis: 0
  }
}
layer {
  name: "h_pseudoloss"
  type: "Reduction"
  bottom: "h"
  top: "h_pseudoloss"
  loss_weight: 1
}
I0924 03:38:50.378806  2031 layer_factory.hpp:77] Creating layer lstm1_
I0924 03:38:50.378823  2031 net.cpp:91] Creating Layer lstm1_
I0924 03:38:50.378834  2031 net.cpp:399] lstm1_ -> x
I0924 03:38:50.378850  2031 net.cpp:399] lstm1_ -> cont
I0924 03:38:50.378931  2031 net.cpp:141] Setting up lstm1_
I0924 03:38:50.378945  2031 net.cpp:148] Top shape: 1 1 500 (500)
I0924 03:38:50.378955  2031 net.cpp:148] Top shape: 1 1 (1)
I0924 03:38:50.378962  2031 net.cpp:156] Memory required for data: 2004
I0924 03:38:50.378969  2031 layer_factory.hpp:77] Creating layer lstm1_
I0924 03:38:50.378983  2031 net.cpp:91] Creating Layer lstm1_
I0924 03:38:50.378995  2031 net.cpp:399] lstm1_ -> c_0
I0924 03:38:50.379010  2031 net.cpp:399] lstm1_ -> h_0
I0924 03:38:50.379077  2031 net.cpp:141] Setting up lstm1_
I0924 03:38:50.379091  2031 net.cpp:148] Top shape: 1 1 1000 (1000)
I0924 03:38:50.379101  2031 net.cpp:148] Top shape: 1 1 1000 (1000)
I0924 03:38:50.379108  2031 net.cpp:156] Memory required for data: 10004
I0924 03:38:50.379115  2031 layer_factory.hpp:77] Creating layer lstm1_cont_slice
I0924 03:38:50.379132  2031 net.cpp:91] Creating Layer lstm1_cont_slice
I0924 03:38:50.379139  2031 net.cpp:425] lstm1_cont_slice <- cont
I0924 03:38:50.379153  2031 net.cpp:399] lstm1_cont_slice -> cont_1
I0924 03:38:50.379197  2031 net.cpp:141] Setting up lstm1_cont_slice
I0924 03:38:50.379210  2031 net.cpp:148] Top shape: 1 1 (1)
I0924 03:38:50.379217  2031 net.cpp:156] Memory required for data: 10008
I0924 03:38:50.379225  2031 layer_factory.hpp:77] Creating layer cont_1_lstm1_cont_slice_0_split
I0924 03:38:50.379235  2031 net.cpp:91] Creating Layer cont_1_lstm1_cont_slice_0_split
I0924 03:38:50.379242  2031 net.cpp:425] cont_1_lstm1_cont_slice_0_split <- cont_1
I0924 03:38:50.379256  2031 net.cpp:399] cont_1_lstm1_cont_slice_0_split -> cont_1_lstm1_cont_slice_0_split_0
I0924 03:38:50.379268  2031 net.cpp:399] cont_1_lstm1_cont_slice_0_split -> cont_1_lstm1_cont_slice_0_split_1
I0924 03:38:50.379335  2031 net.cpp:141] Setting up cont_1_lstm1_cont_slice_0_split
I0924 03:38:50.379348  2031 net.cpp:148] Top shape: 1 1 (1)
I0924 03:38:50.379357  2031 net.cpp:148] Top shape: 1 1 (1)
I0924 03:38:50.379364  2031 net.cpp:156] Memory required for data: 10016
I0924 03:38:50.379371  2031 layer_factory.hpp:77] Creating layer lstm1_x_transform
I0924 03:38:50.379386  2031 net.cpp:91] Creating Layer lstm1_x_transform
I0924 03:38:50.379393  2031 net.cpp:425] lstm1_x_transform <- x
I0924 03:38:50.379405  2031 net.cpp:399] lstm1_x_transform -> W_xc_x
I0924 03:38:50.384896  2077 net.cpp:141] Setting up lstm1_x_transform
I0924 03:38:50.384948  2077 net.cpp:148] Top shape: 1 1 4000 (4000)
I0924 03:38:50.384954  2077 net.cpp:156] Memory required for data: 26016
I0924 03:38:50.384960  2035 net.cpp:141] Setting up lstm1_transform_1
I0924 03:38:50.384984  2077 layer_factory.hpp:77] Creating layer lstm1_W_xc_x_slice
I0924 03:38:50.384984  2035 net.cpp:148] Top shape: 1 1 4000 (4000)
I0924 03:38:50.385016  2035 net.cpp:156] Memory required for data: 62016
I0924 03:38:50.385020  2077 net.cpp:91] Creating Layer lstm1_W_xc_x_slice
I0924 03:38:50.385032  2077 net.cpp:425] lstm1_W_xc_x_slice <- W_xc_x
I0924 03:38:50.385040  2035 layer_factory.hpp:77] Creating layer lstm1_gate_input_1
I0924 03:38:50.385045  2077 net.cpp:399] lstm1_W_xc_x_slice -> W_xc_x_1
I0924 03:38:50.385087  2035 net.cpp:91] Creating Layer lstm1_gate_input_1
I0924 03:38:50.385102  2035 net.cpp:425] lstm1_gate_input_1 <- W_hc_h_0
I0924 03:38:50.385114  2035 net.cpp:425] lstm1_gate_input_1 <- W_xc_x_1
I0924 03:38:50.385131  2035 net.cpp:399] lstm1_gate_input_1 -> gate_input_1
I0924 03:38:50.399060  2035 net.cpp:141] Setting up lstm1_gate_input_1
I0924 03:38:50.399113  2035 net.cpp:148] Top shape: 1 1 4000 (4000)
I0924 03:38:50.399127  2035 net.cpp:156] Memory required for data: 78016
I0924 03:38:50.399140  2035 layer_factory.hpp:77] Creating layer lstm1_unit_1
I0924 03:38:50.399188  2035 net.cpp:91] Creating Layer lstm1_unit_1
I0924 03:38:50.399204  2035 net.cpp:425] lstm1_unit_1 <- c_0
I0924 03:38:50.399221  2035 net.cpp:425] lstm1_unit_1 <- gate_input_1
I0924 03:38:50.399235  2035 net.cpp:425] lstm1_unit_1 <- cont_1_lstm1_cont_slice_0_split_1
I0924 03:38:50.399250  2035 net.cpp:399] lstm1_unit_1 -> c_1
I0924 03:38:50.399274  2035 net.cpp:399] lstm1_unit_1 -> h_1
I0924 03:38:50.399320  2029 net.cpp:141] Setting up lstm1_x_transform
I0924 03:38:50.399361  2029 net.cpp:148] Top shape: 1 1 4000 (4000)
I0924 03:38:50.399370  2029 net.cpp:156] Memory required for data: 26016
I0924 03:38:50.399395  2029 layer_factory.hpp:77] Creating layer lstm1_W_xc_x_slice
I0924 03:38:50.399420  2029 net.cpp:91] Creating Layer lstm1_W_xc_x_slice
I0924 03:38:50.399430  2029 net.cpp:425] lstm1_W_xc_x_slice <- W_xc_x
I0924 03:38:50.399444  2029 net.cpp:399] lstm1_W_xc_x_slice -> W_xc_x_1
I0924 03:38:50.399446  2035 net.cpp:141] Setting up lstm1_unit_1
I0924 03:38:50.399466  2035 net.cpp:148] Top shape: 1 1 1000 (1000)
I0924 03:38:50.399479  2035 net.cpp:148] Top shape: 1 1 1000 (1000)
I0924 03:38:50.399488  2035 net.cpp:156] Memory required for data: 86016
I0924 03:38:50.399497  2035 layer_factory.hpp:77] Creating layer lstm1_
I0924 03:38:50.399513  2035 net.cpp:91] Creating Layer lstm1_
I0924 03:38:50.399518  2029 net.cpp:141] Setting up lstm1_W_xc_x_slice
I0924 03:38:50.399524  2035 net.cpp:425] lstm1_ <- c_1
I0924 03:38:50.399533  2029 net.cpp:148] Top shape: 1 1 4000 (4000)
I0924 03:38:50.399540  2035 net.cpp:399] lstm1_ -> c_T
I0924 03:38:50.399541  2029 net.cpp:156] Memory required for data: 42016
I0924 03:38:50.399565  2029 layer_factory.hpp:77] Creating layer lstm1_h_conted_0
I0924 03:38:50.399585  2029 net.cpp:91] Creating Layer lstm1_h_conted_0
I0924 03:38:50.399595  2029 net.cpp:425] lstm1_h_conted_0 <- h_0
I0924 03:38:50.399605  2029 net.cpp:425] lstm1_h_conted_0 <- cont_1_lstm1_cont_slice_0_split_0
I0924 03:38:50.399616  2029 net.cpp:399] lstm1_h_conted_0 -> h_conted_0
I0924 03:38:50.399621  2035 net.cpp:141] Setting up lstm1_
I0924 03:38:50.399639  2035 net.cpp:148] Top shape: 1 1 1000 (1000)
I0924 03:38:50.399649  2035 net.cpp:156] Memory required for data: 90016
I0924 03:38:50.399659  2035 layer_factory.hpp:77] Creating layer lstm1_h_concat
I0924 03:38:50.399683  2035 net.cpp:91] Creating Layer lstm1_h_concat
I0924 03:38:50.399695  2035 net.cpp:425] lstm1_h_concat <- h_1
I0924 03:38:50.399710  2035 net.cpp:399] lstm1_h_concat -> h
I0924 03:38:50.399775  2029 net.cpp:141] Setting up lstm1_h_conted_0
I0924 03:38:50.399791  2029 net.cpp:148] Top shape: 1 1 1000 (1000)
I0924 03:38:50.399799  2029 net.cpp:156] Memory required for data: 46016
I0924 03:38:50.399807  2029 layer_factory.hpp:77] Creating layer lstm1_transform_1
I0924 03:38:50.399827  2029 net.cpp:91] Creating Layer lstm1_transform_1
I0924 03:38:50.399837  2029 net.cpp:425] lstm1_transform_1 <- h_conted_0
I0924 03:38:50.399849  2029 net.cpp:399] lstm1_transform_1 -> W_hc_h_0
I0924 03:38:50.410269  2035 net.cpp:141] Setting up lstm1_h_concat
I0924 03:38:50.410322  2035 net.cpp:148] Top shape: 1 1 1000 (1000)
I0924 03:38:50.410332  2035 net.cpp:156] Memory required for data: 94016
I0924 03:38:50.410336  2077 net.cpp:141] Setting up lstm1_W_xc_x_slice
I0924 03:38:50.410346  2035 layer_factory.hpp:77] Creating layer h_pseudoloss
I0924 03:38:50.410356  2077 net.cpp:148] Top shape: 1 1 4000 (4000)
I0924 03:38:50.410364  2077 net.cpp:156] Memory required for data: 42016
I0924 03:38:50.410373  2077 layer_factory.hpp:77] Creating layer lstm1_h_conted_0
I0924 03:38:50.410385  2035 net.cpp:91] Creating Layer h_pseudoloss
I0924 03:38:50.410389  2077 net.cpp:91] Creating Layer lstm1_h_conted_0
I0924 03:38:50.410398  2077 net.cpp:425] lstm1_h_conted_0 <- h_0
I0924 03:38:50.410398  2035 net.cpp:425] h_pseudoloss <- h
I0924 03:38:50.410413  2077 net.cpp:425] lstm1_h_conted_0 <- cont_1_lstm1_cont_slice_0_split_0
I0924 03:38:50.410425  2077 net.cpp:399] lstm1_h_conted_0 -> h_conted_0
I0924 03:38:50.410429  2035 net.cpp:399] h_pseudoloss -> h_pseudoloss
I0924 03:38:50.410683  2047 net.cpp:141] Setting up lstm1_x_transform
I0924 03:38:50.410704  2047 net.cpp:148] Top shape: 1 1 4000 (4000)
I0924 03:38:50.410713  2047 net.cpp:156] Memory required for data: 26016
I0924 03:38:50.410734  2047 layer_factory.hpp:77] Creating layer lstm1_W_xc_x_slice
I0924 03:38:50.410749  2047 net.cpp:91] Creating Layer lstm1_W_xc_x_slice
I0924 03:38:50.410758  2047 net.cpp:425] lstm1_W_xc_x_slice <- W_xc_x
I0924 03:38:50.410770  2047 net.cpp:399] lstm1_W_xc_x_slice -> W_xc_x_1
I0924 03:38:50.410806  2035 net.cpp:141] Setting up h_pseudoloss
I0924 03:38:50.410830  2035 net.cpp:148] Top shape: (1)
I0924 03:38:50.410831  2047 net.cpp:141] Setting up lstm1_W_xc_x_slice
I0924 03:38:50.410846  2047 net.cpp:148] Top shape: 1 1 4000 (4000)
I0924 03:38:50.410853  2047 net.cpp:156] Memory required for data: 42016
I0924 03:38:50.410861  2047 layer_factory.hpp:77] Creating layer lstm1_h_conted_0
I0924 03:38:50.410874  2047 net.cpp:91] Creating Layer lstm1_h_conted_0
I0924 03:38:50.410840  2035 net.cpp:151]     with loss weight 1
I0924 03:38:50.410882  2047 net.cpp:425] lstm1_h_conted_0 <- h_0
I0924 03:38:50.410907  2035 net.cpp:156] Memory required for data: 94020
…
I0924 03:38:50.411011  2035 net.cpp:219] cont_1_lstm1_cont_slice_0_split does not need backward computation.
I0924 03:38:50.411022  2035 net.cpp:219] lstm1_cont_slice does not need backward computation.
I0924 03:38:50.411032  2035 net.cpp:219] lstm1_ does not need backward computation.
I0924 03:38:50.411041  2035 net.cpp:219] lstm1_ does not need backward computation.
I0924 03:38:50.411049  2035 net.cpp:261] This network produces output c_T
I0924 03:38:50.411051  2047 net.cpp:141] Setting up lstm1_h_conted_0
I0924 03:38:50.411059  2035 net.cpp:261] This network produces output h_pseudoloss
I0924 03:38:50.411065  2047 net.cpp:148] Top shape: 1 1 1000 (1000)
I0924 03:38:50.411072  2047 net.cpp:156] Memory required for data: 46016
I0924 03:38:50.411080  2047 layer_factory.hpp:77] Creating layer lstm1_transform_1
I0924 03:38:50.411095  2035 net.cpp:274] Network initialization done.
I0924 03:38:50.411098  2047 net.cpp:91] Creating Layer lstm1_transform_1
I0924 03:38:50.411124  2047 net.cpp:425] lstm1_transform_1 <- h_conted_0
I0924 03:38:50.411139  2047 net.cpp:399] lstm1_transform_1 -> W_hc_h_0
I0924 03:38:50.411201  2035 recurrent_layer.cpp:150] Adding parameter 0: W_xc
I0924 03:38:50.411216  2035 recurrent_layer.cpp:150] Adding parameter 1: b_c
I0924 03:38:50.411224  2035 recurrent_layer.cpp:150] Adding parameter 2: W_hc
I0924 03:38:50.421926  2025 net.cpp:141] Setting up embedding
I0924 03:38:50.421998  2025 net.cpp:148] Top shape: 1 1 500 (500)
I0924 03:38:50.422010  2025 net.cpp:156] Memory required for data: 22408
I0924 03:38:50.422031  2031 net.cpp:141] Setting up lstm1_x_transform
I0924 03:38:50.422056  2031 net.cpp:148] Top shape: 1 1 4000 (4000)
I0924 03:38:50.422063  2031 net.cpp:156] Memory required for data: 26016
I0924 03:38:50.422087  2031 layer_factory.hpp:77] Creating layer lstm1_W_xc_x_slice
I0924 03:38:50.422063  2025 layer_factory.hpp:77] Creating layer lstm1
I0924 03:38:50.422111  2031 net.cpp:91] Creating Layer lstm1_W_xc_x_slice
I0924 03:38:50.422111  2025 net.cpp:91] Creating Layer lstm1
I0924 03:38:50.422137  2031 net.cpp:425] lstm1_W_xc_x_slice <- W_xc_x
I0924 03:38:50.422144  2025 net.cpp:425] lstm1 <- embedded_input_frames
I0924 03:38:50.422152  2031 net.cpp:399] lstm1_W_xc_x_slice -> W_xc_x_1
I0924 03:38:50.422188  2077 net.cpp:141] Setting up lstm1_h_conted_0
I0924 03:38:50.422225  2077 net.cpp:148] Top shape: 1 1 1000 (1000)
I0924 03:38:50.422231  2077 net.cpp:156] Memory required for data: 46016
I0924 03:38:50.422238  2077 layer_factory.hpp:77] Creating layer lstm1_transform_1
I0924 03:38:50.422257  2077 net.cpp:91] Creating Layer lstm1_transform_1
I0924 03:38:50.422266  2077 net.cpp:425] lstm1_transform_1 <- h_conted_0
I0924 03:38:50.422277  2077 net.cpp:399] lstm1_transform_1 -> W_hc_h_0
I0924 03:38:50.422155  2025 net.cpp:425] lstm1 <- cont_sentence_input_1_split_0
I0924 03:38:50.425012  2025 net.cpp:399] lstm1 -> lstm1
I0924 03:38:50.425050  2025 recurrent_layer.cpp:20] Initializing recurrent layer: assuming input batch contains 1 timesteps of 1 independent streams.
I0924 03:38:50.427175  2025 net.cpp:49] Initializing net from parameters: 
layer {
  name: "lstm1_"
  type: "Input"
  top: "x"
  top: "cont"
  input_param {
    shape {
      dim: 1
      dim: 1
      dim: 500
    }
    shape {
      dim: 1
      dim: 1
    }
  }
}
layer {
  name: "lstm1_"
  type: "Input"
  top: "c_0"
  top: "h_0"
  input_param {
    shape {
      dim: 1
      dim: 1
      dim: 1000
    }
    shape {
      dim: 1
      dim: 1
      dim: 1000
    }
  }
}
layer {
  name: "lstm1_cont_slice"
  type: "Slice"
  bottom: "cont"
  top: "cont_1"
  slice_param {
    axis: 0
  }
}
layer {
  name: "lstm1_x_transform"
  type: "InnerProduct"
  bottom: "x"
  top: "W_xc_x"
  param {
    name: "W_xc"
  }
  param {
    name: "b_c"
  }
  propagate_down: true
  inner_product_param {
    num_output: 4000
    bias_term: true
    weight_filler {
      type: "uniform"
      min: -0.08
      max: 0.08
    }
    bias_filler {
      type: "constant"
      value: 0
    }
    axis: 2
  }
}
layer {
  name: "lstm1_W_xc_x_slice"
  type: "Slice"
  bottom: "W_xc_x"
  top: "W_xc_x_1"
  slice_param {
    axis: 0
  }
}
layer {
  name: "lstm1_h_conted_0"
  type: "Scale"
  bottom: "h_0"
  bottom: "cont_1"
  top: "h_conted_0"
  scale_param {
    axis: 0
  }
}
layer {
  name: "lstm1_transform_1"
  type: "InnerProduct"
  bottom: "h_conted_0"
  top: "W_hc_h_0"
  param {
    name: "W_hc"
  }
  inner_product_param {
    num_output: 4000
    bias_term: false
    weight_filler {
      type: "uniform"
      min: -0.08
      max: 0.08
    }
    axis: 2
  }
}
layer {
  name: "lstm1_gate_input_1"
  type: "Eltwise"
  bottom: "W_hc_h_0"
  bottom: "W_xc_x_1"
  top: "gate_input_1"
  eltwise_param {
    operation: SUM
  }
}
layer {
  name: "lstm1_unit_1"
  type: "LSTMUnit"
  bottom: "c_0"
  bottom: "gate_input_1"
  bottom: "cont_1"
  top: "c_1"
  top: "h_1"
}
layer {
  name: "lstm1_"
  type: "Split"
  bottom: "c_1"
  top: "c_T"
}
layer {
  name: "lstm1_h_concat"
  type: "Concat"
  bottom: "h_1"
  top: "h"
  concat_param {
    axis: 0
  }
}
layer {
  name: "h_pseudoloss"
  type: "Reduction"
  bottom: "h"
  top: "h_pseudoloss"
  loss_weight: 1
}
I0924 03:38:50.427319  2025 layer_factory.hpp:77] Creating layer lstm1_
I0924 03:38:50.427338  2025 net.cpp:91] Creating Layer lstm1_
I0924 03:38:50.427348  2025 net.cpp:399] lstm1_ -> x
I0924 03:38:50.427366  2025 net.cpp:399] lstm1_ -> cont
I0924 03:38:50.430117  2035 net.cpp:141] Setting up lstm1
I0924 03:38:50.430137  2031 net.cpp:141] Setting up lstm1_W_xc_x_slice
I0924 03:38:50.430166  2031 net.cpp:148] Top shape: 1 1 4000 (4000)
I0924 03:38:50.430166  2035 net.cpp:148] Top shape: 1 1 1000 (1000)
I0924 03:38:50.430181  2031 net.cpp:156] Memory required for data: 42016
I0924 03:38:50.430183  2035 net.cpp:156] Memory required for data: 26408
I0924 03:38:50.430197  2031 layer_factory.hpp:77] Creating layer lstm1_h_conted_0
I0924 03:38:50.430217  2035 layer_factory.hpp:77] Creating layer concat
I0924 03:38:50.430233  2035 net.cpp:91] Creating Layer concat
I0924 03:38:50.430233  2031 net.cpp:91] Creating Layer lstm1_h_conted_0
I0924 03:38:50.430249  2035 net.cpp:425] concat <- lstm1
I0924 03:38:50.430255  2031 net.cpp:425] lstm1_h_conted_0 <- h_0
I0924 03:38:50.430263  2035 net.cpp:425] concat <- embedded_input_sentence
I0924 03:38:50.430266  2031 net.cpp:425] lstm1_h_conted_0 <- cont_1_lstm1_cont_slice_0_split_0
I0924 03:38:50.430274  2035 net.cpp:425] concat <- reshaped_stage_indicator
I0924 03:38:50.430279  2031 net.cpp:399] lstm1_h_conted_0 -> h_conted_0
I0924 03:38:50.430284  2035 net.cpp:399] concat -> lstm1_video_sequence
I0924 03:38:50.430429  2031 net.cpp:141] Setting up lstm1_h_conted_0
I0924 03:38:50.430443  2031 net.cpp:148] Top shape: 1 1 1000 (1000)
I0924 03:38:50.430446  2031 net.cpp:156] Memory required for data: 46016
I0924 03:38:50.430452  2031 layer_factory.hpp:77] Creating layer lstm1_transform_1
I0924 03:38:50.430466  2031 net.cpp:91] Creating Layer lstm1_transform_1
I0924 03:38:50.430472  2031 net.cpp:425] lstm1_transform_1 <- h_conted_0
I0924 03:38:50.430481  2031 net.cpp:399] lstm1_transform_1 -> W_hc_h_0
I0924 03:38:50.430526  2025 net.cpp:141] Setting up lstm1_
I0924 03:38:50.430549  2025 net.cpp:148] Top shape: 1 1 500 (500)
I0924 03:38:50.430557  2025 net.cpp:148] Top shape: 1 1 (1)
I0924 03:38:50.430562  2025 net.cpp:156] Memory required for data: 2004
I0924 03:38:50.430567  2025 layer_factory.hpp:77] Creating layer lstm1_
I0924 03:38:50.430582  2025 net.cpp:91] Creating Layer lstm1_
I0924 03:38:50.430588  2025 net.cpp:399] lstm1_ -> c_0
I0924 03:38:50.430626  2025 net.cpp:399] lstm1_ -> h_0
I0924 03:38:50.444391  2035 net.cpp:141] Setting up concat
I0924 03:38:50.444453  2035 net.cpp:148] Top shape: 1 1 1501 (1501)
I0924 03:38:50.444464  2035 net.cpp:156] Memory required for data: 32412
I0924 03:38:50.444478  2035 layer_factory.hpp:77] Creating layer lstm2
I0924 03:38:50.444510  2035 net.cpp:91] Creating Layer lstm2
I0924 03:38:50.444520  2035 net.cpp:425] lstm2 <- lstm1_video_sequence
I0924 03:38:50.444530  2035 net.cpp:425] lstm2 <- cont_sentence_input_1_split_1
I0924 03:38:50.444540  2035 net.cpp:399] lstm2 -> lstm2
I0924 03:38:50.444562  2035 recurrent_layer.cpp:20] Initializing recurrent layer: assuming input batch contains 1 timesteps of 1 independent streams.
I0924 03:38:50.444708  2025 net.cpp:141] Setting up lstm1_
I0924 03:38:50.444746  2025 net.cpp:148] Top shape: 1 1 1000 (1000)
I0924 03:38:50.444753  2025 net.cpp:148] Top shape: 1 1 1000 (1000)
I0924 03:38:50.444758  2025 net.cpp:156] Memory required for data: 10004
I0924 03:38:50.444766  2025 layer_factory.hpp:77] Creating layer lstm1_cont_slice
I0924 03:38:50.444793  2025 net.cpp:91] Creating Layer lstm1_cont_slice
I0924 03:38:50.444802  2025 net.cpp:425] lstm1_cont_slice <- cont
I0924 03:38:50.444813  2025 net.cpp:399] lstm1_cont_slice -> cont_1
I0924 03:38:50.457864  2035 net.cpp:49] Initializing net from parameters: 
layer {
  name: "lstm2_"
  type: "Input"
  top: "x"
  top: "cont"
  input_param {
    shape {
      dim: 1
      dim: 1
      dim: 1501
    }
    shape {
      dim: 1
      dim: 1
    }
  }
}
layer {
  name: "lstm2_"
  type: "Input"
  top: "c_0"
  top: "h_0"
  input_param {
    shape {
      dim: 1
      dim: 1
      dim: 1000
    }
    shape {
      dim: 1
      dim: 1
      dim: 1000
    }
  }
}
layer {
  name: "lstm2_cont_slice"
  type: "Slice"
  bottom: "cont"
  top: "cont_1"
  slice_param {
    axis: 0
  }
}
layer {
  name: "lstm2_x_transform"
  type: "InnerProduct"
  bottom: "x"
  top: "W_xc_x"
  param {
    name: "W_xc"
  }
  param {
    name: "b_c"
  }
  propagate_down: true
  inner_product_param {
    num_output: 4000
    bias_term: true
    weight_filler {
      type: "uniform"
      min: -0.08
      max: 0.08
    }
    bias_filler {
      type: "constant"
      value: 0
    }
    axis: 2
  }
}
layer {
  name: "lstm2_W_xc_x_slice"
  type: "Slice"
  bottom: "W_xc_x"
  top: "W_xc_x_1"
  slice_param {
    axis: 0
  }
}
layer {
  name: "lstm2_h_conted_0"
  type: "Scale"
  bottom: "h_0"
  bottom: "cont_1"
  top: "h_conted_0"
  scale_param {
    axis: 0
  }
}
layer {
  name: "lstm2_transform_1"
  type: "InnerProduct"
  bottom: "h_conted_0"
  top: "W_hc_h_0"
  param {
    name: "W_hc"
  }
  inner_product_param {
    num_output: 4000
    bias_term: false
    weight_filler {
      type: "uniform"
      min: -0.08
      max: 0.08
    }
    axis: 2
  }
}
layer {
  name: "lstm2_gate_input_1"
  type: "Eltwise"
  bottom: "W_hc_h_0"
  bottom: "W_xc_x_1"
  top: "gate_input_1"
  eltwise_param {
    operation: SUM
  }
}
layer {
  name: "lstm2_unit_1"
  type: "LSTMUnit"
  bottom: "c_0"
  bottom: "gate_input_1"
  bottom: "cont_1"
  top: "c_1"
  top: "h_1"
}
layer {
  name: "lstm2_"
  type: "Split"
  bottom: "c_1"
  top: "c_T"
}
layer {
  name: "lstm2_h_concat"
  type: "Concat"
  bottom: "h_1"
  top: "h"
  concat_param {
    axis: 0
  }
}
layer {
  name: "h_pseudoloss"
  type: "Reduction"
  bottom: "h"
  top: "h_pseudoloss"
  loss_weight: 1
}
I0924 03:38:50.458055  2035 layer_factory.hpp:77] Creating layer lstm2_
I0924 03:38:50.458073  2035 net.cpp:91] Creating Layer lstm2_
I0924 03:38:50.458086  2035 net.cpp:399] lstm2_ -> x
I0924 03:38:50.458114  2035 net.cpp:399] lstm2_ -> cont
I0924 03:38:50.460726  2025 net.cpp:141] Setting up lstm1_cont_slice
I0924 03:38:50.460780  2025 net.cpp:148] Top shape: 1 1 (1)
I0924 03:38:50.460789  2025 net.cpp:156] Memory required for data: 10008
I0924 03:38:50.460803  2025 layer_factory.hpp:77] Creating layer cont_1_lstm1_cont_slice_0_split
I0924 03:38:50.460826  2025 net.cpp:91] Creating Layer cont_1_lstm1_cont_slice_0_split
I0924 03:38:50.460836  2025 net.cpp:425] cont_1_lstm1_cont_slice_0_split <- cont_1
I0924 03:38:50.460856  2025 net.cpp:399] cont_1_lstm1_cont_slice_0_split -> cont_1_lstm1_cont_slice_0_split_0
I0924 03:38:50.460875  2025 net.cpp:399] cont_1_lstm1_cont_slice_0_split -> cont_1_lstm1_cont_slice_0_split_1
I0924 03:38:50.460974  2025 net.cpp:141] Setting up cont_1_lstm1_cont_slice_0_split
I0924 03:38:50.460990  2025 net.cpp:148] Top shape: 1 1 (1)
I0924 03:38:50.461000  2025 net.cpp:148] Top shape: 1 1 (1)
I0924 03:38:50.461007  2025 net.cpp:156] Memory required for data: 10016
I0924 03:38:50.461016  2025 layer_factory.hpp:77] Creating layer lstm1_x_transform
I0924 03:38:50.461043  2025 net.cpp:91] Creating Layer lstm1_x_transform
I0924 03:38:50.461052  2025 net.cpp:425] lstm1_x_transform <- x
I0924 03:38:50.461066  2025 net.cpp:399] lstm1_x_transform -> W_xc_x
I0924 03:38:50.476228  2047 net.cpp:141] Setting up lstm1_transform_1
I0924 03:38:50.476289  2047 net.cpp:148] Top shape: 1 1 4000 (4000)
I0924 03:38:50.476299  2047 net.cpp:156] Memory required for data: 62016
I0924 03:38:50.476328  2047 layer_factory.hpp:77] Creating layer lstm1_gate_input_1
I0924 03:38:50.476356  2047 net.cpp:91] Creating Layer lstm1_gate_input_1
I0924 03:38:50.476346  2029 net.cpp:141] Setting up lstm1_transform_1
I0924 03:38:50.476366  2047 net.cpp:425] lstm1_gate_input_1 <- W_hc_h_0
I0924 03:38:50.476392  2029 net.cpp:148] Top shape: 1 1 4000 (4000)
I0924 03:38:50.476397  2047 net.cpp:425] lstm1_gate_input_1 <- W_xc_x_1
I0924 03:38:50.476392  2035 net.cpp:141] Setting up lstm2_
I0924 03:38:50.476419  2047 net.cpp:399] lstm1_gate_input_1 -> gate_input_1
I0924 03:38:50.476399  2029 net.cpp:156] Memory required for data: 62016
I0924 03:38:50.476431  2035 net.cpp:148] Top shape: 1 1 1501 (1501)
I0924 03:38:50.476444  2035 net.cpp:148] Top shape: 1 1 (1)
I0924 03:38:50.476449  2029 layer_factory.hpp:77] Creating layer lstm1_gate_input_1
I0924 03:38:50.476452  2035 net.cpp:156] Memory required for data: 6008
I0924 03:38:50.476462  2035 layer_factory.hpp:77] Creating layer lstm2_
I0924 03:38:50.476471  2029 net.cpp:91] Creating Layer lstm1_gate_input_1
I0924 03:38:50.476480  2029 net.cpp:425] lstm1_gate_input_1 <- W_hc_h_0
I0924 03:38:50.476485  2035 net.cpp:91] Creating Layer lstm2_
I0924 03:38:50.476487  2029 net.cpp:425] lstm1_gate_input_1 <- W_xc_x_1
I0924 03:38:50.476495  2047 net.cpp:141] Setting up lstm1_gate_input_1
I0924 03:38:50.476498  2029 net.cpp:399] lstm1_gate_input_1 -> gate_input_1
I0924 03:38:50.476516  2047 net.cpp:148] Top shape: 1 1 4000 (4000)
I0924 03:38:50.476498  2035 net.cpp:399] lstm2_ -> c_0
I0924 03:38:50.476524  2047 net.cpp:156] Memory required for data: 78016
I0924 03:38:50.476533  2047 layer_factory.hpp:77] Creating layer lstm1_unit_1
I0924 03:38:50.476542  2035 net.cpp:399] lstm2_ -> h_0
I0924 03:38:50.476549  2047 net.cpp:91] Creating Layer lstm1_unit_1
I0924 03:38:50.476558  2047 net.cpp:425] lstm1_unit_1 <- c_0
I0924 03:38:50.476567  2047 net.cpp:425] lstm1_unit_1 <- gate_input_1
I0924 03:38:50.476577  2047 net.cpp:425] lstm1_unit_1 <- cont_1_lstm1_cont_slice_0_split_1
I0924 03:38:50.476584  2029 net.cpp:141] Setting up lstm1_gate_input_1
I0924 03:38:50.476588  2047 net.cpp:399] lstm1_unit_1 -> c_1
I0924 03:38:50.476595  2029 net.cpp:148] Top shape: 1 1 4000 (4000)
I0924 03:38:50.476601  2029 net.cpp:156] Memory required for data: 78016
I0924 03:38:50.476603  2047 net.cpp:399] lstm1_unit_1 -> h_1
I0924 03:38:50.476606  2029 layer_factory.hpp:77] Creating layer lstm1_unit_1
I0924 03:38:50.476629  2029 net.cpp:91] Creating Layer lstm1_unit_1
I0924 03:38:50.476635  2029 net.cpp:425] lstm1_unit_1 <- c_0
I0924 03:38:50.476642  2029 net.cpp:425] lstm1_unit_1 <- gate_input_1
I0924 03:38:50.476647  2029 net.cpp:425] lstm1_unit_1 <- cont_1_lstm1_cont_slice_0_split_1
I0924 03:38:50.476655  2029 net.cpp:399] lstm1_unit_1 -> c_1
I0924 03:38:50.476665  2029 net.cpp:399] lstm1_unit_1 -> h_1
I0924 03:38:50.476757  2029 net.cpp:141] Setting up lstm1_unit_1
I0924 03:38:50.476766  2029 net.cpp:148] Top shape: 1 1 1000 (1000)
I0924 03:38:50.476773  2029 net.cpp:148] Top shape: 1 1 1000 (1000)
I0924 03:38:50.476778  2029 net.cpp:156] Memory required for data: 86016
I0924 03:38:50.476783  2029 layer_factory.hpp:77] Creating layer lstm1_
I0924 03:38:50.476791  2029 net.cpp:91] Creating Layer lstm1_
I0924 03:38:50.476796  2029 net.cpp:425] lstm1_ <- c_1
I0924 03:38:50.476806  2029 net.cpp:399] lstm1_ -> c_T
I0924 03:38:50.476836  2035 net.cpp:141] Setting up lstm2_
I0924 03:38:50.476855  2035 net.cpp:148] Top shape: 1 1 1000 (1000)
I0924 03:38:50.476866  2035 net.cpp:148] Top shape: 1 1 1000 (1000)
I0924 03:38:50.476872  2035 net.cpp:156] Memory required for data: 14008
I0924 03:38:50.476881  2035 layer_factory.hpp:77] Creating layer lstm2_cont_slice
I0924 03:38:50.476897  2035 net.cpp:91] Creating Layer lstm2_cont_slice
I0924 03:38:50.476898  2029 net.cpp:141] Setting up lstm1_
I0924 03:38:50.476905  2035 net.cpp:425] lstm2_cont_slice <- cont
I0924 03:38:50.476917  2029 net.cpp:148] Top shape: 1 1 1000 (1000)
I0924 03:38:50.476923  2029 net.cpp:156] Memory required for data: 90016
I0924 03:38:50.476928  2029 layer_factory.hpp:77] Creating layer lstm1_h_concat
I0924 03:38:50.476938  2029 net.cpp:91] Creating Layer lstm1_h_concat
I0924 03:38:50.476944  2029 net.cpp:425] lstm1_h_concat <- h_1
I0924 03:38:50.476944  2035 net.cpp:399] lstm2_cont_slice -> cont_1
I0924 03:38:50.476953  2047 net.cpp:141] Setting up lstm1_unit_1
I0924 03:38:50.476956  2029 net.cpp:399] lstm1_h_concat -> h
I0924 03:38:50.476974  2047 net.cpp:148] Top shape: 1 1 1000 (1000)
I0924 03:38:50.476986  2047 net.cpp:148] Top shape: 1 1 1000 (1000)
I0924 03:38:50.476994  2047 net.cpp:156] Memory required for data: 86016
I0924 03:38:50.477001  2047 layer_factory.hpp:77] Creating layer lstm1_
I0924 03:38:50.477010  2035 net.cpp:141] Setting up lstm2_cont_slice
I0924 03:38:50.477012  2047 net.cpp:91] Creating Layer lstm1_
I0924 03:38:50.477032  2035 net.cpp:148] Top shape: 1 1 (1)
I0924 03:38:50.477033  2047 net.cpp:425] lstm1_ <- c_1
I0924 03:38:50.477046  2035 net.cpp:156] Memory required for data: 14012
I0924 03:38:50.477054  2029 net.cpp:141] Setting up lstm1_h_concat
I0924 03:38:50.477056  2047 net.cpp:399] lstm1_ -> c_T
I0924 03:38:50.477054  2035 layer_factory.hpp:77] Creating layer cont_1_lstm2_cont_slice_0_split
I0924 03:38:50.477071  2029 net.cpp:148] Top shape: 1 1 1000 (1000)
I0924 03:38:50.477093  2035 net.cpp:91] Creating Layer cont_1_lstm2_cont_slice_0_split
I0924 03:38:50.477097  2029 net.cpp:156] Memory required for data: 94016
I0924 03:38:50.477107  2035 net.cpp:425] cont_1_lstm2_cont_slice_0_split <- cont_1
I0924 03:38:50.477111  2029 layer_factory.hpp:77] Creating layer h_pseudoloss
I0924 03:38:50.477118  2035 net.cpp:399] cont_1_lstm2_cont_slice_0_split -> cont_1_lstm2_cont_slice_0_split_0
I0924 03:38:50.477123  2029 net.cpp:91] Creating Layer h_pseudoloss
I0924 03:38:50.477128  2029 net.cpp:425] h_pseudoloss <- h
I0924 03:38:50.477136  2029 net.cpp:399] h_pseudoloss -> h_pseudoloss
I0924 03:38:50.477138  2047 net.cpp:141] Setting up lstm1_
I0924 03:38:50.477135  2035 net.cpp:399] cont_1_lstm2_cont_slice_0_split -> cont_1_lstm2_cont_slice_0_split_1
I0924 03:38:50.477152  2047 net.cpp:148] Top shape: 1 1 1000 (1000)
I0924 03:38:50.477160  2047 net.cpp:156] Memory required for data: 90016
I0924 03:38:50.477167  2047 layer_factory.hpp:77] Creating layer lstm1_h_concat
I0924 03:38:50.477185  2047 net.cpp:91] Creating Layer lstm1_h_concat
I0924 03:38:50.477193  2047 net.cpp:425] lstm1_h_concat <- h_1
I0924 03:38:50.477205  2047 net.cpp:399] lstm1_h_concat -> h
I0924 03:38:50.477267  2029 net.cpp:141] Setting up h_pseudoloss
I0924 03:38:50.477278  2029 net.cpp:148] Top shape: (1)
I0924 03:38:50.477283  2029 net.cpp:151]     with loss weight 1
I0924 03:38:50.477304  2029 net.cpp:156] Memory required for data: 94020
I0924 03:38:50.477309  2029 net.cpp:217] h_pseudoloss needs backward computation.
I0924 03:38:50.477314  2029 net.cpp:217] lstm1_h_concat needs backward computation.
I0924 03:38:50.477319  2029 net.cpp:219] lstm1_ does not need backward computation.
I0924 03:38:50.477324  2029 net.cpp:217] lstm1_unit_1 needs backward computation.
I0924 03:38:50.477331  2029 net.cpp:217] lstm1_gate_input_1 needs backward computation.
I0924 03:38:50.477329  2047 net.cpp:141] Setting up lstm1_h_concat
I0924 03:38:50.477336  2029 net.cpp:217] lstm1_transform_1 needs backward computation.
I0924 03:38:50.477342  2029 net.cpp:219] lstm1_h_conted_0 does not need backward computation.
I0924 03:38:50.477345  2047 net.cpp:148] Top shape: 1 1 1000 (1000)
I0924 03:38:50.477349  2029 net.cpp:217] lstm1_W_xc_x_slice needs backward computation.
I0924 03:38:50.477355  2047 net.cpp:156] Memory required for data: 94016
I0924 03:38:50.477357  2029 net.cpp:217] lstm1_x_transform needs backward computation.
I0924 03:38:50.477363  2047 layer_factory.hpp:77] Creating layer h_pseudoloss
I0924 03:38:50.477367  2029 net.cpp:219] cont_1_lstm1_cont_slice_0_split does not need backward computation.
I0924 03:38:50.477377  2047 net.cpp:91] Creating Layer h_pseudoloss
I0924 03:38:50.477380  2029 net.cpp:219] lstm1_cont_slice does not need backward computation.
I0924 03:38:50.477401  2035 net.cpp:141] Setting up cont_1_lstm2_cont_slice_0_split
I0924 03:38:50.477408  2029 net.cpp:219] lstm1_ does not need backward computation.
I0924 03:38:50.477416  2029 net.cpp:219] lstm1_ does not need backward computation.
I0924 03:38:50.477424  2029 net.cpp:261] This network produces output c_T
I0924 03:38:50.477423  2035 net.cpp:148] Top shape: 1 1 (1)
I0924 03:38:50.477432  2029 net.cpp:261] This network produces output h_pseudoloss
I0924 03:38:50.477437  2035 net.cpp:148] Top shape: 1 1 (1)
I0924 03:38:50.477447  2035 net.cpp:156] Memory required for data: 14020
I0924 03:38:50.477449  2029 net.cpp:274] Network initialization done.
I0924 03:38:50.477455  2035 layer_factory.hpp:77] Creating layer lstm2_x_transform
I0924 03:38:50.477393  2047 net.cpp:425] h_pseudoloss <- h
I0924 03:38:50.477480  2035 net.cpp:91] Creating Layer lstm2_x_transform
I0924 03:38:50.477486  2047 net.cpp:399] h_pseudoloss -> h_pseudoloss
…
I0924 03:38:50.477919  2047 net.cpp:219] lstm1_ does not need backward computation.
I0924 03:38:50.477926  2047 net.cpp:261] This network produces output c_T
I0924 03:38:50.477933  2047 net.cpp:261] This network produces output h_pseudoloss
I0924 03:38:50.477960  2047 net.cpp:274] Network initialization done.
I0924 03:38:50.478019  2047 recurrent_layer.cpp:150] Adding parameter 0: W_xc
I0924 03:38:50.478029  2047 recurrent_layer.cpp:150] Adding parameter 1: b_c
I0924 03:38:50.478037  2047 recurrent_layer.cpp:150] Adding parameter 2: W_hc
I0924 03:38:50.509748  2029 net.cpp:141] Setting up lstm1
I0924 03:38:50.509794  2029 net.cpp:148] Top shape: 1 1 1000 (1000)
I0924 03:38:50.509801  2029 net.cpp:156] Memory required for data: 26408
I0924 03:38:50.509822  2029 layer_factory.hpp:77] Creating layer concat
I0924 03:38:50.509841  2029 net.cpp:91] Creating Layer concat
I0924 03:38:50.509850  2029 net.cpp:425] concat <- lstm1
I0924 03:38:50.509857  2029 net.cpp:425] concat <- embedded_input_sentence
I0924 03:38:50.509863  2029 net.cpp:425] concat <- reshaped_stage_indicator
I0924 03:38:50.509873  2029 net.cpp:399] concat -> lstm1_video_sequence
I0924 03:38:50.510006  2077 net.cpp:141] Setting up lstm1_transform_1
I0924 03:38:50.510025  2077 net.cpp:148] Top shape: 1 1 4000 (4000)
I0924 03:38:50.510030  2077 net.cpp:156] Memory required for data: 62016
I0924 03:38:50.510046  2077 layer_factory.hpp:77] Creating layer lstm1_gate_input_1
I0924 03:38:50.510042  2031 net.cpp:141] Setting up lstm1_transform_1
I0924 03:38:50.510062  2031 net.cpp:148] Top shape: 1 1 4000 (4000)
I0924 03:38:50.510063  2077 net.cpp:91] Creating Layer lstm1_gate_input_1
I0924 03:38:50.510068  2031 net.cpp:156] Memory required for data: 62016
I0924 03:38:50.510072  2077 net.cpp:425] lstm1_gate_input_1 <- W_hc_h_0
I0924 03:38:50.510079  2077 net.cpp:425] lstm1_gate_input_1 <- W_xc_x_1
I0924 03:38:50.510082  2031 layer_factory.hpp:77] Creating layer lstm1_gate_input_1
I0924 03:38:50.510084  2029 net.cpp:141] Setting up concat
I0924 03:38:50.510097  2031 net.cpp:91] Creating Layer lstm1_gate_input_1
I0924 03:38:50.510087  2077 net.cpp:399] lstm1_gate_input_1 -> gate_input_1
I0924 03:38:50.510105  2031 net.cpp:425] lstm1_gate_input_1 <- W_hc_h_0
I0924 03:38:50.510105  2029 net.cpp:148] Top shape: 1 1 1501 (1501)
I0924 03:38:50.510123  2031 net.cpp:425] lstm1_gate_input_1 <- W_xc_x_1
I0924 03:38:50.510124  2029 net.cpp:156] Memory required for data: 32412
I0924 03:38:50.510130  2031 net.cpp:399] lstm1_gate_input_1 -> gate_input_1
I0924 03:38:50.510131  2029 layer_factory.hpp:77] Creating layer lstm2
I0924 03:38:50.510149  2077 net.cpp:141] Setting up lstm1_gate_input_1
I0924 03:38:50.510155  2029 net.cpp:91] Creating Layer lstm2
I0924 03:38:50.510159  2077 net.cpp:148] Top shape: 1 1 4000 (4000)
I0924 03:38:50.510162  2029 net.cpp:425] lstm2 <- lstm1_video_sequence
I0924 03:38:50.510164  2077 net.cpp:156] Memory required for data: 78016
I0924 03:38:50.510169  2029 net.cpp:425] lstm2 <- cont_sentence_input_1_split_1
I0924 03:38:50.510170  2077 layer_factory.hpp:77] Creating layer lstm1_unit_1
I0924 03:38:50.510179  2029 net.cpp:399] lstm2 -> lstm2
I0924 03:38:50.510180  2077 net.cpp:91] Creating Layer lstm1_unit_1
I0924 03:38:50.510181  2031 net.cpp:141] Setting up lstm1_gate_input_1
I0924 03:38:50.510186  2077 net.cpp:425] lstm1_unit_1 <- c_0
I0924 03:38:50.510191  2029 recurrent_layer.cpp:20] Initializing recurrent layer: assuming input batch contains 1 timesteps of 1 independent streams.
I0924 03:38:50.510192  2077 net.cpp:425] lstm1_unit_1 <- gate_input_1
I0924 03:38:50.510200  2077 net.cpp:425] lstm1_unit_1 <- cont_1_lstm1_cont_slice_0_split_1
I0924 03:38:50.510192  2031 net.cpp:148] Top shape: 1 1 4000 (4000)
I0924 03:38:50.510206  2077 net.cpp:399] lstm1_unit_1 -> c_1
I0924 03:38:50.510211  2031 net.cpp:156] Memory required for data: 78016
I0924 03:38:50.510216  2077 net.cpp:399] lstm1_unit_1 -> h_1
I0924 03:38:50.510216  2031 layer_factory.hpp:77] Creating layer lstm1_unit_1
I0924 03:38:50.510238  2031 net.cpp:91] Creating Layer lstm1_unit_1
I0924 03:38:50.510244  2031 net.cpp:425] lstm1_unit_1 <- c_0
I0924 03:38:50.510251  2031 net.cpp:425] lstm1_unit_1 <- gate_input_1
I0924 03:38:50.510257  2031 net.cpp:425] lstm1_unit_1 <- cont_1_lstm1_cont_slice_0_split_1
I0924 03:38:50.510264  2031 net.cpp:399] lstm1_unit_1 -> c_1
I0924 03:38:50.510273  2031 net.cpp:399] lstm1_unit_1 -> h_1
I0924 03:38:50.510296  2077 net.cpp:141] Setting up lstm1_unit_1
I0924 03:38:50.510308  2077 net.cpp:148] Top shape: 1 1 1000 (1000)
I0924 03:38:50.510313  2077 net.cpp:148] Top shape: 1 1 1000 (1000)
I0924 03:38:50.510318  2077 net.cpp:156] Memory required for data: 86016
I0924 03:38:50.510324  2077 layer_factory.hpp:77] Creating layer lstm1_
I0924 03:38:50.510334  2077 net.cpp:91] Creating Layer lstm1_
I0924 03:38:50.510340  2077 net.cpp:425] lstm1_ <- c_1
I0924 03:38:50.510349  2077 net.cpp:399] lstm1_ -> c_T
I0924 03:38:50.510404  2077 net.cpp:141] Setting up lstm1_
I0924 03:38:50.510387  2047 net.cpp:141] Setting up lstm1
I0924 03:38:50.510414  2077 net.cpp:148] Top shape: 1 1 1000 (1000)
I0924 03:38:50.510438  2077 net.cpp:156] Memory required for data: 90016
I0924 03:38:50.510444  2077 layer_factory.hpp:77] Creating layer lstm1_h_concat
I0924 03:38:50.510448  2047 net.cpp:148] Top shape: 1 1 1000 (1000)
I0924 03:38:50.510455  2077 net.cpp:91] Creating Layer lstm1_h_concat
I0924 03:38:50.510474  2047 net.cpp:156] Memory required for data: 26408
I0924 03:38:50.510479  2029 net.cpp:49] Initializing net from parameters: 
layer {
  name: "lstm2_"
  type: "Input"
  top: "x"
  top: "cont"
  input_param {
    shape {
      dim: 1
      dim: 1
      dim: 1501
    }
    shape {
      dim: 1
      dim: 1
    }
  }
}
layer {
  name: "lstm2_"
  type: "Input"
  top: "c_0"
  top: "h_0"
  input_param {
    shape {
      dim: 1
      dim: 1
      dim: 1000
    }
    shape {
      dim: 1
      dim: 1
      dim: 1000
    }
  }
}
layer {
  name: "lstm2_cont_slice"
  type: "Slice"
  bottom: "cont"
  top: "cont_1"
  slice_param {
    axis: 0
  }
}
layer {
  name: "lstm2_x_transform"
  type: "InnerProduct"
  bottom: "x"
  top: "W_xc_x"
  param {
    name: "W_xc"
  }
  param {
    name: "b_c"
  }
  propagate_down: true
  inner_product_param {
    num_output: 4000
    bias_term: true
    weight_filler {
      type: "uniform"
      min: -0.08
      max: 0.08
    }
    bias_filler {
      type: "constant"
      value: 0
    }
    axis: 2
  }
}
layer {
  name: "lstm2_W_xc_x_slice"
  type: "Slice"
  bottom: "W_xc_x"
  top: "W_xc_x_1"
  slice_param {
    axis: 0
  }
}
layer {
  name: "lstm2_h_conted_0"
  type: "Scale"
  bottom: "h_0"
  bottom: "cont_1"
  top: "h_conted_0"
  scale_param {
    axis: 0
  }
}
layer {
  name: "lstm2_transform_1"
  type: "InnerProduct"
  bottom: "h_conted_0"
  top: "W_hc_h_0"
  param {
    name: "W_hc"
  }
  inner_product_param {
    num_output: 4000
    bias_term: false
    weight_filler {
      type: "uniform"
      min: -0.08
      max: 0.08
    }
    axis: 2
  }
}
layer {
  name: "lstm2_gate_input_1"
  type: "Eltwise"
  bottom: "W_hc_h_0"
  bottom: "W_xc_x_1"
  top: "gate_input_1"
  eltwise_param {
    operation: SUM
  }
}
layer {
  name: "lstm2_unit_1"
  type: "LSTMUnit"
  bottom: "c_0"
  bottom: "gate_input_1"
  bottom: "cont_1"
  top: "c_1"
  top: "h_1"
}
layer {
  name: "lstm2_"
  type: "Split"
  bottom: "c_1"
  top: "c_T"
}
layer {
  name: "lstm2_h_concat"
  type: "Concat"
  bottom: "h_1"
  top: "h"
  concat_param {
    axis: 0
  }
}
layer {
  name: "h_pseudoloss"
  type: "Reduction"
  bottom: "h"
  top: "h_pseudoloss"
  loss_weight: 1
}
I0924 03:38:50.510478  2077 net.cpp:425] lstm1_h_concat <- h_1
I0924 03:38:50.510506  2077 net.cpp:399] lstm1_h_concat -> h
I0924 03:38:50.510519  2047 layer_factory.hpp:77] Creating layer concat
I0924 03:38:50.510551  2047 net.cpp:91] Creating Layer concat
I0924 03:38:50.510566  2047 net.cpp:425] concat <- lstm1
I0924 03:38:50.510573  2029 layer_factory.hpp:77] Creating layer lstm2_
I0924 03:38:50.510583  2047 net.cpp:425] concat <- embedded_input_sentence
I0924 03:38:50.510588  2025 net.cpp:141] Setting up lstm1_x_transform
I0924 03:38:50.510586  2029 net.cpp:91] Creating Layer lstm2_
I0924 03:38:50.510620  2047 net.cpp:425] concat <- reshaped_stage_indicator
I0924 03:38:50.510623  2029 net.cpp:399] lstm2_ -> x
I0924 03:38:50.510624  2025 net.cpp:148] Top shape: 1 1 4000 (4000)
I0924 03:38:50.510650  2047 net.cpp:399] concat -> lstm1_video_sequence
I0924 03:38:50.510658  2025 net.cpp:156] Memory required for data: 26016
I0924 03:38:50.510655  2029 net.cpp:399] lstm2_ -> cont
I0924 03:38:50.510673  2025 layer_factory.hpp:77] Creating layer lstm1_W_xc_x_slice
I0924 03:38:50.510681  2077 net.cpp:141] Setting up lstm1_h_concat
I0924 03:38:50.510687  2025 net.cpp:91] Creating Layer lstm1_W_xc_x_slice
I0924 03:38:50.510692  2077 net.cpp:148] Top shape: 1 1 1000 (1000)
I0924 03:38:50.510694  2025 net.cpp:425] lstm1_W_xc_x_slice <- W_xc_x
I0924 03:38:50.510697  2077 net.cpp:156] Memory required for data: 94016
I0924 03:38:50.510702  2025 net.cpp:399] lstm1_W_xc_x_slice -> W_xc_x_1
I0924 03:38:50.510702  2077 layer_factory.hpp:77] Creating layer h_pseudoloss
I0924 03:38:50.510722  2077 net.cpp:91] Creating Layer h_pseudoloss
I0924 03:38:50.510727  2077 net.cpp:425] h_pseudoloss <- h
I0924 03:38:50.510736  2077 net.cpp:399] h_pseudoloss -> h_pseudoloss
I0924 03:38:50.510846  2047 net.cpp:141] Setting up concat
I0924 03:38:50.510867  2047 net.cpp:148] Top shape: 1 1 1501 (1501)
I0924 03:38:50.510877  2047 net.cpp:156] Memory required for data: 32412
I0924 03:38:50.510887  2047 layer_factory.hpp:77] Creating layer lstm2
I0924 03:38:50.510890  2029 net.cpp:141] Setting up lstm2_
I0924 03:38:50.510911  2029 net.cpp:148] Top shape: 1 1 1501 (1501)
I0924 03:38:50.510920  2029 net.cpp:148] Top shape: 1 1 (1)
I0924 03:38:50.510920  2047 net.cpp:91] Creating Layer lstm2
I0924 03:38:50.510924  2029 net.cpp:156] Memory required for data: 6008
I0924 03:38:50.510933  2031 net.cpp:141] Setting up lstm1_unit_1
I0924 03:38:50.510943  2029 layer_factory.hpp:77] Creating layer lstm2_
I0924 03:38:50.510938  2047 net.cpp:425] lstm2 <- lstm1_video_sequence
I0924 03:38:50.510959  2029 net.cpp:91] Creating Layer lstm2_
I0924 03:38:50.510958  2043 net.cpp:141] Setting up embedding
I0924 03:38:50.510965  2025 net.cpp:141] Setting up lstm1_W_xc_x_slice
I0924 03:38:50.510968  2029 net.cpp:399] lstm2_ -> c_0
I0924 03:38:50.510973  2047 net.cpp:425] lstm2 <- cont_sentence_input_1_split_1
I0924 03:38:50.510964  2031 net.cpp:148] Top shape: 1 1 1000 (1000)
I0924 03:38:50.510987  2029 net.cpp:399] lstm2_ -> h_0
I0924 03:38:50.510987  2025 net.cpp:148] Top shape: 1 1 4000 (4000)
I0924 03:38:50.510994  2031 net.cpp:148] Top shape: 1 1 1000 (1000)
I0924 03:38:50.510994  2047 net.cpp:399] lstm2 -> lstm2
I0924 03:38:50.510988  2043 net.cpp:148] Top shape: 1 1 500 (500)
I0924 03:38:50.511016  2031 net.cpp:156] Memory required for data: 86016
I0924 03:38:50.511016  2025 net.cpp:156] Memory required for data: 42016
I0924 03:38:50.511030  2043 net.cpp:156] Memory required for data: 22408
I0924 03:38:50.511032  2025 layer_factory.hpp:77] Creating layer lstm1_h_conted_0
I0924 03:38:50.511031  2031 layer_factory.hpp:77] Creating layer lstm1_
I0924 03:38:50.511031  2047 recurrent_layer.cpp:20] Initializing recurrent layer: assuming input batch contains 1 timesteps of 1 independent streams.
I0924 03:38:50.511055  2029 net.cpp:141] Setting up lstm2_
I0924 03:38:50.511061  2031 net.cpp:91] Creating Layer lstm1_
I0924 03:38:50.511061  2025 net.cpp:91] Creating Layer lstm1_h_conted_0
I0924 03:38:50.511078  2031 net.cpp:425] lstm1_ <- c_1
I0924 03:38:50.511080  2025 net.cpp:425] lstm1_h_conted_0 <- h_0
I0924 03:38:50.511054  2043 layer_factory.hpp:77] Creating layer lstm1
I0924 03:38:50.511095  2025 net.cpp:425] lstm1_h_conted_0 <- cont_1_lstm1_cont_slice_0_split_0
I0924 03:38:50.511096  2031 net.cpp:399] lstm1_ -> c_T
I0924 03:38:50.511080  2029 net.cpp:148] Top shape: 1 1 1000 (1000)
I0924 03:38:50.511112  2025 net.cpp:399] lstm1_h_conted_0 -> h_conted_0
I0924 03:38:50.511116  2043 net.cpp:91] Creating Layer lstm1
I0924 03:38:50.511122  2029 net.cpp:148] Top shape: 1 1 1000 (1000)
I0924 03:38:50.511129  2029 net.cpp:156] Memory required for data: 14008
I0924 03:38:50.511132  2043 net.cpp:425] lstm1 <- embedded_input_frames
I0924 03:38:50.511134  2029 layer_factory.hpp:77] Creating layer lstm2_cont_slice
I0924 03:38:50.511152  2043 net.cpp:425] lstm1 <- cont_sentence_input_1_split_0
I0924 03:38:50.511157  2029 net.cpp:91] Creating Layer lstm2_cont_slice
I0924 03:38:50.511164  2029 net.cpp:425] lstm2_cont_slice <- cont
I0924 03:38:50.511162  2031 net.cpp:141] Setting up lstm1_
I0924 03:38:50.511173  2029 net.cpp:399] lstm2_cont_slice -> cont_1
I0924 03:38:50.511173  2043 net.cpp:399] lstm1 -> lstm1
I0924 03:38:50.511180  2031 net.cpp:148] Top shape: 1 1 1000 (1000)
I0924 03:38:50.511190  2031 net.cpp:156] Memory required for data: 90016
I0924 03:38:50.511198  2043 recurrent_layer.cpp:20] Initializing recurrent layer: assuming input batch contains 1 timesteps of 1 independent streams.
I0924 03:38:50.511199  2031 layer_factory.hpp:77] Creating layer lstm1_h_concat
I0924 03:38:50.511222  2029 net.cpp:141] Setting up lstm2_cont_slice
I0924 03:38:50.511226  2031 net.cpp:91] Creating Layer lstm1_h_concat
I0924 03:38:50.511232  2029 net.cpp:148] Top shape: 1 1 (1)
I0924 03:38:50.511234  2031 net.cpp:425] lstm1_h_concat <- h_1
I0924 03:38:50.511237  2029 net.cpp:156] Memory required for data: 14012
I0924 03:38:50.511242  2029 layer_factory.hpp:77] Creating layer cont_1_lstm2_cont_slice_0_split
I0924 03:38:50.511246  2031 net.cpp:399] lstm1_h_concat -> h
I0924 03:38:50.511250  2029 net.cpp:91] Creating Layer cont_1_lstm2_cont_slice_0_split
I0924 03:38:50.511255  2029 net.cpp:425] cont_1_lstm2_cont_slice_0_split <- cont_1
…
I0924 03:38:50.511371  2077 net.cpp:217] lstm1_unit_1 needs backward computation.
I0924 03:38:50.511375  2047 net.cpp:49] Initializing net from parameters: 
layer {
  name: "lstm2_"
  type: "Input"
  top: "x"
  top: "cont"
  input_param {
    shape {
      dim: 1
      dim: 1
      dim: 1501
    }
    shape {
      dim: 1
      dim: 1
    }
  }
}
layer {
  name: "lstm2_"
  type: "Input"
  top: "c_0"
  top: "h_0"
  input_param {
    shape {
      dim: 1
      dim: 1
      dim: 1000
    }
    shape {
      dim: 1
      dim: 1
      dim: 1000
    }
  }
}
layer {
  name: "lstm2_cont_slice"
  type: "Slice"
  bottom: "cont"
  top: "cont_1"
  slice_param {
    axis: 0
  }
}
layer {
  name: "lstm2_x_transform"
  type: "InnerProduct"
  bottom: "x"
  top: "W_xc_x"
  param {
    name: "W_xc"
  }
  param {
    name: "b_c"
  }
  propagate_down: true
  inner_product_param {
    num_output: 4000
    bias_term: true
    weight_filler {
      type: "uniform"
      min: -0.08
      max: 0.08
    }
    bias_filler {
      type: "constant"
      value: 0
    }
    axis: 2
  }
}
layer {
  name: "lstm2_W_xc_x_slice"
  type: "Slice"
  bottom: "W_xc_x"
  top: "W_xc_x_1"
  slice_param {
    axis: 0
  }
}
layer {
  name: "lstm2_h_conted_0"
  type: "Scale"
  bottom: "h_0"
  bottom: "cont_1"
  top: "h_conted_0"
  scale_param {
    axis: 0
  }
}
layer {
  name: "lstm2_transform_1"
  type: "InnerProduct"
  bottom: "h_conted_0"
  top: "W_hc_h_0"
  param {
    name: "W_hc"
  }
  inner_product_param {
    num_output: 4000
    bias_term: false
    weight_filler {
      type: "uniform"
      min: -0.08
      max: 0.08
    }
    axis: 2
  }
}
layer {
  name: "lstm2_gate_input_1"
  type: "Eltwise"
  bottom: "W_hc_h_0"
  bottom: "W_xc_x_1"
  top: "gate_input_1"
  eltwise_param {
    operation: SUM
  }
}
layer {
  name: "lstm2_unit_1"
  type: "LSTMUnit"
  bottom: "c_0"
  bottom: "gate_input_1"
  bottom: "cont_1"
  top: "c_1"
  top: "h_1"
}
layer {
  name: "lstm2_"
  type: "Split"
  bottom: "c_1"
  top: "c_T"
}
layer {
  name: "lstm2_h_concat"
  type: "Concat"
  bottom: "h_1"
  top: "h"
  concat_param {
    axis: 0
  }
}
layer {
  name: "h_pseudoloss"
  type: "Reduction"
  bottom: "h"
  top: "h_pseudoloss"
  loss_weight: 1
}
I0924 03:38:50.511384  2077 net.cpp:217] lstm1_gate_input_1 needs backward computation.
I0924 03:38:50.511381  2025 net.cpp:148] Top shape: 1 1 1000 (1000)
I0924 03:38:50.511394  2077 net.cpp:217] lstm1_transform_1 needs backward computation.
I0924 03:38:50.511396  2025 net.cpp:156] Memory required for data: 46016
I0924 03:38:50.511409  2025 layer_factory.hpp:77] Creating layer lstm1_transform_1
I0924 03:38:50.511407  2077 net.cpp:219] lstm1_h_conted_0 does not need backward computation.
I0924 03:38:50.511415  2029 net.cpp:141] Setting up cont_1_lstm2_cont_slice_0_split
I0924 03:38:50.511425  2077 net.cpp:217] lstm1_W_xc_x_slice needs backward computation.
I0924 03:38:50.511431  2029 net.cpp:148] Top shape: 1 1 (1)
I0924 03:38:50.511432  2025 net.cpp:91] Creating Layer lstm1_transform_1
I0924 03:38:50.511438  2029 net.cpp:148] Top shape: 1 1 (1)
I0924 03:38:50.511443  2029 net.cpp:156] Memory required for data: 14020
I0924 03:38:50.511448  2029 layer_factory.hpp:77] Creating layer lstm2_x_transform
I0924 03:38:50.511433  2077 net.cpp:217] lstm1_x_transform needs backward computation.
I0924 03:38:50.511456  2025 net.cpp:425] lstm1_transform_1 <- h_conted_0
I0924 03:38:50.511461  2029 net.cpp:91] Creating Layer lstm2_x_transform
I0924 03:38:50.511462  2077 net.cpp:219] cont_1_lstm1_cont_slice_0_split does not need backward computation.
I0924 03:38:50.511458  2031 net.cpp:141] Setting up lstm1_h_concat
I0924 03:38:50.511474  2077 net.cpp:219] lstm1_cont_slice does not need backward computation.
I0924 03:38:50.511471  2029 net.cpp:425] lstm2_x_transform <- x
I0924 03:38:50.511471  2025 net.cpp:399] lstm1_transform_1 -> W_hc_h_0
I0924 03:38:50.511487  2031 net.cpp:148] Top shape: 1 1 1000 (1000)
I0924 03:38:50.511490  2077 net.cpp:219] lstm1_ does not need backward computation.
I0924 03:38:50.511495  2031 net.cpp:156] Memory required for data: 94016
I0924 03:38:50.511492  2029 net.cpp:399] lstm2_x_transform -> W_xc_x
I0924 03:38:50.511502  2077 net.cpp:219] lstm1_ does not need backward computation.
I0924 03:38:50.511503  2031 layer_factory.hpp:77] Creating layer h_pseudoloss
…
I0924 03:38:50.511633  2077 recurrent_layer.cpp:150] Adding parameter 2: W_hc
I0924 03:38:50.511687  2043 net.cpp:49] Initializing net from parameters: 
layer {
  name: "lstm1_"
  type: "Input"
  top: "x"
  top: "cont"
  input_param {
    shape {
      dim: 1
      dim: 1
      dim: 500
    }
    shape {
      dim: 1
      dim: 1
    }
  }
}
layer {
  name: "lstm1_"
  type: "Input"
  top: "c_0"
  top: "h_0"
  input_param {
    shape {
      dim: 1
      dim: 1
      dim: 1000
    }
    shape {
      dim: 1
      dim: 1
      dim: 1000
    }
  }
}
layer {
  name: "lstm1_cont_slice"
  type: "Slice"
  bottom: "cont"
  top: "cont_1"
  slice_param {
    axis: 0
  }
}
layer {
  name: "lstm1_x_transform"
  type: "InnerProduct"
  bottom: "x"
  top: "W_xc_x"
  param {
    name: "W_xc"
  }
  param {
    name: "b_c"
  }
  propagate_down: true
  inner_product_param {
    num_output: 4000
    bias_term: true
    weight_filler {
      type: "uniform"
      min: -0.08
      max: 0.08
    }
    bias_filler {
      type: "constant"
      value: 0
    }
    axis: 2
  }
}
layer {
  name: "lstm1_W_xc_x_slice"
  type: "Slice"
  bottom: "W_xc_x"
  top: "W_xc_x_1"
  slice_param {
    axis: 0
  }
}
layer {
  name: "lstm1_h_conted_0"
  type: "Scale"
  bottom: "h_0"
  bottom: "cont_1"
  top: "h_conted_0"
  scale_param {
    axis: 0
  }
}
layer {
  name: "lstm1_transform_1"
  type: "InnerProduct"
  bottom: "h_conted_0"
  top: "W_hc_h_0"
  param {
    name: "W_hc"
  }
  inner_product_param {
    num_output: 4000
    bias_term: false
    weight_filler {
      type: "uniform"
      min: -0.08
      max: 0.08
    }
    axis: 2
  }
}
layer {
  name: "lstm1_gate_input_1"
  type: "Eltwise"
  bottom: "W_hc_h_0"
  bottom: "W_xc_x_1"
  top: "gate_input_1"
  eltwise_param {
    operation: SUM
  }
}
layer {
  name: "lstm1_unit_1"
  type: "LSTMUnit"
  bottom: "c_0"
  bottom: "gate_input_1"
  bottom: "cont_1"
  top: "c_1"
  top: "h_1"
}
layer {
  name: "lstm1_"
  type: "Split"
  bottom: "c_1"
  top: "c_T"
}
layer {
  name: "lstm1_h_concat"
  type: "Concat"
  bottom: "h_1"
  top: "h"
  concat_param {
    axis: 0
  }
}
layer {
  name: "h_pseudoloss"
  type: "Reduction"
  bottom: "h"
  top: "h_pseudoloss"
  loss_weight: 1
}
I0924 03:38:50.511761  2031 net.cpp:141] Setting up h_pseudoloss
I0924 03:38:50.511776  2031 net.cpp:148] Top shape: (1)
I0924 03:38:50.511782  2031 net.cpp:151]     with loss weight 1
I0924 03:38:50.511795  2031 net.cpp:156] Memory required for data: 94020
I0924 03:38:50.511803  2031 net.cpp:217] h_pseudoloss needs backward computation.
I0924 03:38:50.511811  2031 net.cpp:217] lstm1_h_concat needs backward computation.
…
I0924 03:38:50.511936  2031 net.cpp:261] This network produces output c_T
I0924 03:38:50.511942  2031 net.cpp:261] This network produces output h_pseudoloss
I0924 03:38:50.511955  2043 net.cpp:399] lstm1_ -> cont
I0924 03:38:50.511957  2031 net.cpp:274] Network initialization done.
I0924 03:38:50.512017  2031 recurrent_layer.cpp:150] Adding parameter 0: W_xc
I0924 03:38:50.512023  2031 recurrent_layer.cpp:150] Adding parameter 1: b_c
I0924 03:38:50.512029  2031 recurrent_layer.cpp:150] Adding parameter 2: W_hc
I0924 03:38:50.522924  2047 net.cpp:141] Setting up lstm2_
I0924 03:38:50.522974  2047 net.cpp:148] Top shape: 1 1 1501 (1501)
I0924 03:38:50.522984  2047 net.cpp:148] Top shape: 1 1 (1)
I0924 03:38:50.522991  2047 net.cpp:156] Memory required for data: 6008
I0924 03:38:50.523003  2047 layer_factory.hpp:77] Creating layer lstm2_
I0924 03:38:50.523030  2047 net.cpp:91] Creating Layer lstm2_
I0924 03:38:50.523042  2047 net.cpp:399] lstm2_ -> c_0
I0924 03:38:50.523066  2047 net.cpp:399] lstm2_ -> h_0
I0924 03:38:50.523149  2047 net.cpp:141] Setting up lstm2_
I0924 03:38:50.523164  2047 net.cpp:148] Top shape: 1 1 1000 (1000)
I0924 03:38:50.523174  2047 net.cpp:148] Top shape: 1 1 1000 (1000)
I0924 03:38:50.523180  2047 net.cpp:156] Memory required for data: 14008
I0924 03:38:50.523187  2047 layer_factory.hpp:77] Creating layer lstm2_cont_slice
I0924 03:38:50.523203  2047 net.cpp:91] Creating Layer lstm2_cont_slice
I0924 03:38:50.523211  2047 net.cpp:425] lstm2_cont_slice <- cont
I0924 03:38:50.523226  2047 net.cpp:399] lstm2_cont_slice -> cont_1
I0924 03:38:50.523273  2047 net.cpp:141] Setting up lstm2_cont_slice
I0924 03:38:50.523286  2047 net.cpp:148] Top shape: 1 1 (1)
I0924 03:38:50.523293  2047 net.cpp:156] Memory required for data: 14012
I0924 03:38:50.523300  2047 layer_factory.hpp:77] Creating layer cont_1_lstm2_cont_slice_0_split
I0924 03:38:50.523311  2047 net.cpp:91] Creating Layer cont_1_lstm2_cont_slice_0_split
I0924 03:38:50.523319  2047 net.cpp:425] cont_1_lstm2_cont_slice_0_split <- cont_1
I0924 03:38:50.523329  2047 net.cpp:399] cont_1_lstm2_cont_slice_0_split -> cont_1_lstm2_cont_slice_0_split_0
I0924 03:38:50.523341  2047 net.cpp:399] cont_1_lstm2_cont_slice_0_split -> cont_1_lstm2_cont_slice_0_split_1
I0924 03:38:50.523409  2047 net.cpp:141] Setting up cont_1_lstm2_cont_slice_0_split
I0924 03:38:50.523422  2047 net.cpp:148] Top shape: 1 1 (1)
I0924 03:38:50.523432  2047 net.cpp:148] Top shape: 1 1 (1)
I0924 03:38:50.523437  2047 net.cpp:156] Memory required for data: 14020
I0924 03:38:50.523445  2047 layer_factory.hpp:77] Creating layer lstm2_x_transform
I0924 03:38:50.523466  2047 net.cpp:91] Creating Layer lstm2_x_transform
I0924 03:38:50.523474  2047 net.cpp:425] lstm2_x_transform <- x
I0924 03:38:50.523486  2047 net.cpp:399] lstm2_x_transform -> W_xc_x
I0924 03:38:50.546567  2077 net.cpp:141] Setting up lstm1
I0924 03:38:50.546628  2077 net.cpp:148] Top shape: 1 1 1000 (1000)
I0924 03:38:50.546638  2077 net.cpp:156] Memory required for data: 26408
I0924 03:38:50.546666  2077 layer_factory.hpp:77] Creating layer concat
I0924 03:38:50.546690  2077 net.cpp:91] Creating Layer concat
I0924 03:38:50.546701  2077 net.cpp:425] concat <- lstm1
I0924 03:38:50.546712  2077 net.cpp:425] concat <- embedded_input_sentence
I0924 03:38:50.546721  2077 net.cpp:425] concat <- reshaped_stage_indicator
I0924 03:38:50.546733  2077 net.cpp:399] concat -> lstm1_video_sequence
I0924 03:38:50.546887  2077 net.cpp:141] Setting up concat
I0924 03:38:50.546903  2077 net.cpp:148] Top shape: 1 1 1501 (1501)
I0924 03:38:50.546911  2077 net.cpp:156] Memory required for data: 32412
I0924 03:38:50.546918  2077 layer_factory.hpp:77] Creating layer lstm2
I0924 03:38:50.546939  2077 net.cpp:91] Creating Layer lstm2
I0924 03:38:50.546947  2077 net.cpp:425] lstm2 <- lstm1_video_sequence
I0924 03:38:50.546957  2043 net.cpp:141] Setting up lstm1_
I0924 03:38:50.546957  2077 net.cpp:425] lstm2 <- cont_sentence_input_1_split_1
I0924 03:38:50.547005  2043 net.cpp:148] Top shape: 1 1 500 (500)
I0924 03:38:50.547029  2077 net.cpp:399] lstm2 -> lstm2
I0924 03:38:50.547034  2043 net.cpp:148] Top shape: 1 1 (1)
I0924 03:38:50.547044  2043 net.cpp:156] Memory required for data: 2004
I0924 03:38:50.547049  2077 recurrent_layer.cpp:20] Initializing recurrent layer: assuming input batch contains 1 timesteps of 1 independent streams.
I0924 03:38:50.547055  2043 layer_factory.hpp:77] Creating layer lstm1_
I0924 03:38:50.547065  2031 net.cpp:141] Setting up lstm1
I0924 03:38:50.547093  2043 net.cpp:91] Creating Layer lstm1_
I0924 03:38:50.547102  2031 net.cpp:148] Top shape: 1 1 1000 (1000)
I0924 03:38:50.547111  2043 net.cpp:399] lstm1_ -> c_0
I0924 03:38:50.547119  2031 net.cpp:156] Memory required for data: 26408
I0924 03:38:50.547137  2043 net.cpp:399] lstm1_ -> h_0
I0924 03:38:50.547161  2031 layer_factory.hpp:77] Creating layer concat
I0924 03:38:50.547188  2031 net.cpp:91] Creating Layer concat
I0924 03:38:50.547206  2031 net.cpp:425] concat <- lstm1
I0924 03:38:50.547225  2031 net.cpp:425] concat <- embedded_input_sentence
I0924 03:38:50.547245  2031 net.cpp:425] concat <- reshaped_stage_indicator
I0924 03:38:50.547266  2031 net.cpp:399] concat -> lstm1_video_sequence
I0924 03:38:50.547447  2077 net.cpp:49] Initializing net from parameters: 
layer {
  name: "lstm2_"
  type: "Input"
  top: "x"
  top: "cont"
  input_param {
    shape {
      dim: 1
      dim: 1
      dim: 1501
    }
    shape {
      dim: 1
      dim: 1
    }
  }
}
layer {
  name: "lstm2_"
  type: "Input"
  top: "c_0"
  top: "h_0"
  input_param {
    shape {
      dim: 1
      dim: 1
      dim: 1000
    }
    shape {
      dim: 1
      dim: 1
      dim: 1000
    }
  }
}
layer {
  name: "lstm2_cont_slice"
  type: "Slice"
  bottom: "cont"
  top: "cont_1"
  slice_param {
    axis: 0
  }
}
layer {
  name: "lstm2_x_transform"
  type: "InnerProduct"
  bottom: "x"
  top: "W_xc_x"
  param {
    name: "W_xc"
  }
  param {
    name: "b_c"
  }
  propagate_down: true
  inner_product_param {
    num_output: 4000
    bias_term: true
    weight_filler {
      type: "uniform"
      min: -0.08
      max: 0.08
    }
    bias_filler {
      type: "constant"
      value: 0
    }
    axis: 2
  }
}
layer {
  name: "lstm2_W_xc_x_slice"
  type: "Slice"
  bottom: "W_xc_x"
  top: "W_xc_x_1"
  slice_param {
    axis: 0
  }
}
layer {
  name: "lstm2_h_conted_0"
  type: "Scale"
  bottom: "h_0"
  bottom: "cont_1"
  top: "h_conted_0"
  scale_param {
    axis: 0
  }
}
layer {
  name: "lstm2_transform_1"
  type: "InnerProduct"
  bottom: "h_conted_0"
  top: "W_hc_h_0"
  param {
    name: "W_hc"
  }
  inner_product_param {
    num_output: 4000
    bias_term: false
    weight_filler {
      type: "uniform"
      min: -0.08
      max: 0.08
    }
    axis: 2
  }
}
layer {
  name: "lstm2_gate_input_1"
  type: "Eltwise"
  bottom: "W_hc_h_0"
  bottom: "W_xc_x_1"
  top: "gate_input_1"
  eltwise_param {
    operation: SUM
  }
}
layer {
  name: "lstm2_unit_1"
  type: "LSTMUnit"
  bottom: "c_0"
  bottom: "gate_input_1"
  bottom: "cont_1"
  top: "c_1"
  top: "h_1"
}
layer {
  name: "lstm2_"
  type: "Split"
  bottom: "c_1"
  top: "c_T"
}
layer {
  name: "lstm2_h_concat"
  type: "Concat"
  bottom: "h_1"
  top: "h"
  concat_param {
    axis: 0
  }
}
layer {
  name: "h_pseudoloss"
  type: "Reduction"
  bottom: "h"
  top: "h_pseudoloss"
  loss_weight: 1
}
I0924 03:38:50.547607  2077 layer_factory.hpp:77] Creating layer lstm2_
I0924 03:38:50.547626  2077 net.cpp:91] Creating Layer lstm2_
I0924 03:38:50.547636  2077 net.cpp:399] lstm2_ -> x
I0924 03:38:50.547652  2077 net.cpp:399] lstm2_ -> cont
I0924 03:38:50.548411  2043 net.cpp:141] Setting up lstm1_
I0924 03:38:50.548429  2043 net.cpp:148] Top shape: 1 1 1000 (1000)
I0924 03:38:50.548440  2043 net.cpp:148] Top shape: 1 1 1000 (1000)
I0924 03:38:50.548449  2043 net.cpp:156] Memory required for data: 10004
I0924 03:38:50.548456  2043 layer_factory.hpp:77] Creating layer lstm1_cont_slice
I0924 03:38:50.548475  2043 net.cpp:91] Creating Layer lstm1_cont_slice
I0924 03:38:50.548485  2043 net.cpp:425] lstm1_cont_slice <- cont
I0924 03:38:50.548496  2043 net.cpp:399] lstm1_cont_slice -> cont_1
I0924 03:38:50.548568  2031 net.cpp:141] Setting up concat
I0924 03:38:50.548604  2031 net.cpp:148] Top shape: 1 1 1501 (1501)
I0924 03:38:50.548619  2031 net.cpp:156] Memory required for data: 32412
I0924 03:38:50.548636  2031 layer_factory.hpp:77] Creating layer lstm2
I0924 03:38:50.548668  2031 net.cpp:91] Creating Layer lstm2
I0924 03:38:50.548673  2043 net.cpp:141] Setting up lstm1_cont_slice
I0924 03:38:50.548698  2031 net.cpp:425] lstm2 <- lstm1_video_sequence
I0924 03:38:50.548705  2043 net.cpp:148] Top shape: 1 1 (1)
I0924 03:38:50.548714  2043 net.cpp:156] Memory required for data: 10008
I0924 03:38:50.548722  2043 layer_factory.hpp:77] Creating layer cont_1_lstm1_cont_slice_0_split
I0924 03:38:50.548722  2031 net.cpp:425] lstm2 <- cont_sentence_input_1_split_1
I0924 03:38:50.548730  2077 net.cpp:141] Setting up lstm2_
I0924 03:38:50.548738  2043 net.cpp:91] Creating Layer cont_1_lstm1_cont_slice_0_split
I0924 03:38:50.548748  2043 net.cpp:425] cont_1_lstm1_cont_slice_0_split <- cont_1
I0924 03:38:50.548750  2077 net.cpp:148] Top shape: 1 1 1501 (1501)
I0924 03:38:50.548751  2031 net.cpp:399] lstm2 -> lstm2
I0924 03:38:50.548761  2077 net.cpp:148] Top shape: 1 1 (1)
I0924 03:38:50.548764  2043 net.cpp:399] cont_1_lstm1_cont_slice_0_split -> cont_1_lstm1_cont_slice_0_split_0
I0924 03:38:50.548769  2077 net.cpp:156] Memory required for data: 6008
I0924 03:38:50.548779  2077 layer_factory.hpp:77] Creating layer lstm2_
I0924 03:38:50.548779  2043 net.cpp:399] cont_1_lstm1_cont_slice_0_split -> cont_1_lstm1_cont_slice_0_split_1
I0924 03:38:50.548785  2031 recurrent_layer.cpp:20] Initializing recurrent layer: assuming input batch contains 1 timesteps of 1 independent streams.
I0924 03:38:50.548796  2077 net.cpp:91] Creating Layer lstm2_
I0924 03:38:50.548821  2077 net.cpp:399] lstm2_ -> c_0
I0924 03:38:50.548838  2077 net.cpp:399] lstm2_ -> h_0
I0924 03:38:50.549206  2031 net.cpp:49] Initializing net from parameters: 
layer {
  name: "lstm2_"
  type: "Input"
  top: "x"
  top: "cont"
  input_param {
    shape {
      dim: 1
      dim: 1
      dim: 1501
    }
    shape {
      dim: 1
      dim: 1
    }
  }
}
layer {
  name: "lstm2_"
  type: "Input"
  top: "c_0"
  top: "h_0"
  input_param {
    shape {
      dim: 1
      dim: 1
      dim: 1000
    }
    shape {
      dim: 1
      dim: 1
      dim: 1000
    }
  }
}
layer {
  name: "lstm2_cont_slice"
  type: "Slice"
  bottom: "cont"
  top: "cont_1"
  slice_param {
    axis: 0
  }
}
layer {
  name: "lstm2_x_transform"
  type: "InnerProduct"
  bottom: "x"
  top: "W_xc_x"
  param {
    name: "W_xc"
  }
  param {
    name: "b_c"
  }
  propagate_down: true
  inner_product_param {
    num_output: 4000
    bias_term: true
    weight_filler {
      type: "uniform"
      min: -0.08
      max: 0.08
    }
    bias_filler {
      type: "constant"
      value: 0
    }
    axis: 2
  }
}
layer {
  name: "lstm2_W_xc_x_slice"
  type: "Slice"
  bottom: "W_xc_x"
  top: "W_xc_x_1"
  slice_param {
    axis: 0
  }
}
layer {
  name: "lstm2_h_conted_0"
  type: "Scale"
  bottom: "h_0"
  bottom: "cont_1"
  top: "h_conted_0"
  scale_param {
    axis: 0
  }
}
layer {
  name: "lstm2_transform_1"
  type: "InnerProduct"
  bottom: "h_conted_0"
  top: "W_hc_h_0"
  param {
    name: "W_hc"
  }
  inner_product_param {
    num_output: 4000
    bias_term: false
    weight_filler {
      type: "uniform"
      min: -0.08
      max: 0.08
    }
    axis: 2
  }
}
layer {
  name: "lstm2_gate_input_1"
  type: "Eltwise"
  bottom: "W_hc_h_0"
  bottom: "W_xc_x_1"
  top: "gate_input_1"
  eltwise_param {
    operation: SUM
  }
}
layer {
  name: "lstm2_unit_1"
  type: "LSTMUnit"
  bottom: "c_0"
  bottom: "gate_input_1"
  bottom: "cont_1"
  top: "c_1"
  top: "h_1"
}
layer {
  name: "lstm2_"
  type: "Split"
  bottom: "c_1"
  top: "c_T"
}
layer {
  name: "lstm2_h_concat"
  type: "Concat"
  bottom: "h_1"
  top: "h"
  concat_param {
    axis: 0
  }
}
layer {
  name: "h_pseudoloss"
  type: "Reduction"
  bottom: "h"
  top: "h_pseudoloss"
  loss_weight: 1
}
I0924 03:38:50.549326  2031 layer_factory.hpp:77] Creating layer lstm2_
I0924 03:38:50.549341  2031 net.cpp:91] Creating Layer lstm2_
I0924 03:38:50.549351  2031 net.cpp:399] lstm2_ -> x
I0924 03:38:50.549367  2031 net.cpp:399] lstm2_ -> cont
I0924 03:38:50.550226  2043 net.cpp:141] Setting up cont_1_lstm1_cont_slice_0_split
I0924 03:38:50.550247  2043 net.cpp:148] Top shape: 1 1 (1)
I0924 03:38:50.550259  2043 net.cpp:148] Top shape: 1 1 (1)
I0924 03:38:50.550266  2043 net.cpp:156] Memory required for data: 10016
I0924 03:38:50.550276  2043 layer_factory.hpp:77] Creating layer lstm1_x_transform
I0924 03:38:50.550294  2043 net.cpp:91] Creating Layer lstm1_x_transform
I0924 03:38:50.550302  2043 net.cpp:425] lstm1_x_transform <- x
I0924 03:38:50.550318  2043 net.cpp:399] lstm1_x_transform -> W_xc_x
I0924 03:38:50.550330  2031 net.cpp:141] Setting up lstm2_
I0924 03:38:50.550348  2031 net.cpp:148] Top shape: 1 1 1501 (1501)
I0924 03:38:50.550359  2031 net.cpp:148] Top shape: 1 1 (1)
I0924 03:38:50.550365  2031 net.cpp:156] Memory required for data: 6008
I0924 03:38:50.550374  2031 layer_factory.hpp:77] Creating layer lstm2_
I0924 03:38:50.550387  2031 net.cpp:91] Creating Layer lstm2_
I0924 03:38:50.550400  2031 net.cpp:399] lstm2_ -> c_0
I0924 03:38:50.550415  2031 net.cpp:399] lstm2_ -> h_0
I0924 03:38:50.551617  2077 net.cpp:141] Setting up lstm2_
I0924 03:38:50.551640  2077 net.cpp:148] Top shape: 1 1 1000 (1000)
I0924 03:38:50.551650  2077 net.cpp:148] Top shape: 1 1 1000 (1000)
I0924 03:38:50.551656  2077 net.cpp:156] Memory required for data: 14008
I0924 03:38:50.551664  2077 layer_factory.hpp:77] Creating layer lstm2_cont_slice
I0924 03:38:50.551681  2077 net.cpp:91] Creating Layer lstm2_cont_slice
I0924 03:38:50.551688  2077 net.cpp:425] lstm2_cont_slice <- cont
I0924 03:38:50.551700  2077 net.cpp:399] lstm2_cont_slice -> cont_1
I0924 03:38:50.551758  2077 net.cpp:141] Setting up lstm2_cont_slice
I0924 03:38:50.551771  2077 net.cpp:148] Top shape: 1 1 (1)
I0924 03:38:50.551779  2077 net.cpp:156] Memory required for data: 14012
I0924 03:38:50.551785  2077 layer_factory.hpp:77] Creating layer cont_1_lstm2_cont_slice_0_split
I0924 03:38:50.551800  2077 net.cpp:91] Creating Layer cont_1_lstm2_cont_slice_0_split
I0924 03:38:50.551808  2077 net.cpp:425] cont_1_lstm2_cont_slice_0_split <- cont_1
I0924 03:38:50.551818  2077 net.cpp:399] cont_1_lstm2_cont_slice_0_split -> cont_1_lstm2_cont_slice_0_split_0
I0924 03:38:50.551831  2077 net.cpp:399] cont_1_lstm2_cont_slice_0_split -> cont_1_lstm2_cont_slice_0_split_1
I0924 03:38:50.551900  2077 net.cpp:141] Setting up cont_1_lstm2_cont_slice_0_split
I0924 03:38:50.551913  2077 net.cpp:148] Top shape: 1 1 (1)
I0924 03:38:50.551923  2077 net.cpp:148] Top shape: 1 1 (1)
I0924 03:38:50.551930  2077 net.cpp:156] Memory required for data: 14020
I0924 03:38:50.551937  2077 layer_factory.hpp:77] Creating layer lstm2_x_transform
I0924 03:38:50.551957  2077 net.cpp:91] Creating Layer lstm2_x_transform
I0924 03:38:50.551965  2077 net.cpp:425] lstm2_x_transform <- x
I0924 03:38:50.551978  2077 net.cpp:399] lstm2_x_transform -> W_xc_x
I0924 03:38:50.571727  2031 net.cpp:141] Setting up lstm2_
I0924 03:38:50.571777  2031 net.cpp:148] Top shape: 1 1 1000 (1000)
I0924 03:38:50.571789  2031 net.cpp:148] Top shape: 1 1 1000 (1000)
I0924 03:38:50.571795  2031 net.cpp:156] Memory required for data: 14008
I0924 03:38:50.571806  2031 layer_factory.hpp:77] Creating layer lstm2_cont_slice
I0924 03:38:50.571831  2031 net.cpp:91] Creating Layer lstm2_cont_slice
I0924 03:38:50.571841  2031 net.cpp:425] lstm2_cont_slice <- cont
I0924 03:38:50.571856  2031 net.cpp:399] lstm2_cont_slice -> cont_1
I0924 03:38:50.571961  2031 net.cpp:141] Setting up lstm2_cont_slice
I0924 03:38:50.571975  2031 net.cpp:148] Top shape: 1 1 (1)
I0924 03:38:50.571982  2031 net.cpp:156] Memory required for data: 14012
I0924 03:38:50.571990  2031 layer_factory.hpp:77] Creating layer cont_1_lstm2_cont_slice_0_split
I0924 03:38:50.572005  2031 net.cpp:91] Creating Layer cont_1_lstm2_cont_slice_0_split
I0924 03:38:50.572013  2031 net.cpp:425] cont_1_lstm2_cont_slice_0_split <- cont_1
I0924 03:38:50.572024  2031 net.cpp:399] cont_1_lstm2_cont_slice_0_split -> cont_1_lstm2_cont_slice_0_split_0
I0924 03:38:50.572037  2031 net.cpp:399] cont_1_lstm2_cont_slice_0_split -> cont_1_lstm2_cont_slice_0_split_1
I0924 03:38:50.572206  2031 net.cpp:141] Setting up cont_1_lstm2_cont_slice_0_split
I0924 03:38:50.572221  2031 net.cpp:148] Top shape: 1 1 (1)
I0924 03:38:50.572230  2031 net.cpp:148] Top shape: 1 1 (1)
I0924 03:38:50.572237  2031 net.cpp:156] Memory required for data: 14020
I0924 03:38:50.572245  2031 layer_factory.hpp:77] Creating layer lstm2_x_transform
I0924 03:38:50.572268  2031 net.cpp:91] Creating Layer lstm2_x_transform
I0924 03:38:50.572276  2031 net.cpp:425] lstm2_x_transform <- x
I0924 03:38:50.572288  2031 net.cpp:399] lstm2_x_transform -> W_xc_x
I0924 03:38:50.588752  2035 net.cpp:141] Setting up lstm2_x_transform
I0924 03:38:50.588807  2035 net.cpp:148] Top shape: 1 1 4000 (4000)
I0924 03:38:50.588819  2035 net.cpp:156] Memory required for data: 30020
I0924 03:38:50.588835  2063 net.cpp:141] Setting up embedding
I0924 03:38:50.588853  2035 layer_factory.hpp:77] Creating layer lstm2_W_xc_x_slice
I0924 03:38:50.588886  2063 net.cpp:148] Top shape: 1 1 500 (500)
I0924 03:38:50.588896  2063 net.cpp:156] Memory required for data: 22408
I0924 03:38:50.588915  2035 net.cpp:91] Creating Layer lstm2_W_xc_x_slice
I0924 03:38:50.588920  2063 layer_factory.hpp:77] Creating layer lstm1
I0924 03:38:50.588933  2035 net.cpp:425] lstm2_W_xc_x_slice <- W_xc_x
I0924 03:38:50.588953  2035 net.cpp:399] lstm2_W_xc_x_slice -> W_xc_x_1
I0924 03:38:50.588959  2063 net.cpp:91] Creating Layer lstm1
I0924 03:38:50.588973  2063 net.cpp:425] lstm1 <- embedded_input_frames
I0924 03:38:50.588984  2063 net.cpp:425] lstm1 <- cont_sentence_input_1_split_0
I0924 03:38:50.589001  2063 net.cpp:399] lstm1 -> lstm1
I0924 03:38:50.589025  2063 recurrent_layer.cpp:20] Initializing recurrent layer: assuming input batch contains 1 timesteps of 1 independent streams.
I0924 03:38:50.589154  2035 net.cpp:141] Setting up lstm2_W_xc_x_slice
I0924 03:38:50.589169  2035 net.cpp:148] Top shape: 1 1 4000 (4000)
I0924 03:38:50.589174  2035 net.cpp:156] Memory required for data: 46020
I0924 03:38:50.589179  2035 layer_factory.hpp:77] Creating layer lstm2_h_conted_0
I0924 03:38:50.589190  2035 net.cpp:91] Creating Layer lstm2_h_conted_0
I0924 03:38:50.589195  2035 net.cpp:425] lstm2_h_conted_0 <- h_0
I0924 03:38:50.589201  2035 net.cpp:425] lstm2_h_conted_0 <- cont_1_lstm2_cont_slice_0_split_0
I0924 03:38:50.589220  2035 net.cpp:399] lstm2_h_conted_0 -> h_conted_0
I0924 03:38:50.589432  2063 net.cpp:49] Initializing net from parameters: 
layer {
  name: "lstm1_"
  type: "Input"
  top: "x"
  top: "cont"
  input_param {
    shape {
      dim: 1
      dim: 1
      dim: 500
    }
    shape {
      dim: 1
      dim: 1
    }
  }
}
layer {
  name: "lstm1_"
  type: "Input"
  top: "c_0"
  top: "h_0"
  input_param {
    shape {
      dim: 1
      dim: 1
      dim: 1000
    }
    shape {
      dim: 1
      dim: 1
      dim: 1000
    }
  }
}
layer {
  name: "lstm1_cont_slice"
  type: "Slice"
  bottom: "cont"
  top: "cont_1"
  slice_param {
    axis: 0
  }
}
layer {
  name: "lstm1_x_transform"
  type: "InnerProduct"
  bottom: "x"
  top: "W_xc_x"
  param {
    name: "W_xc"
  }
  param {
    name: "b_c"
  }
  propagate_down: true
  inner_product_param {
    num_output: 4000
    bias_term: true
    weight_filler {
      type: "uniform"
      min: -0.08
      max: 0.08
    }
    bias_filler {
      type: "constant"
      value: 0
    }
    axis: 2
  }
}
layer {
  name: "lstm1_W_xc_x_slice"
  type: "Slice"
  bottom: "W_xc_x"
  top: "W_xc_x_1"
  slice_param {
    axis: 0
  }
}
layer {
  name: "lstm1_h_conted_0"
  type: "Scale"
  bottom: "h_0"
  bottom: "cont_1"
  top: "h_conted_0"
  scale_param {
    axis: 0
  }
}
layer {
  name: "lstm1_transform_1"
  type: "InnerProduct"
  bottom: "h_conted_0"
  top: "W_hc_h_0"
  param {
    name: "W_hc"
  }
  inner_product_param {
    num_output: 4000
    bias_term: false
    weight_filler {
      type: "uniform"
      min: -0.08
      max: 0.08
    }
    axis: 2
  }
}
layer {
  name: "lstm1_gate_input_1"
  type: "Eltwise"
  bottom: "W_hc_h_0"
  bottom: "W_xc_x_1"
  top: "gate_input_1"
  eltwise_param {
    operation: SUM
  }
}
layer {
  name: "lstm1_unit_1"
  type: "LSTMUnit"
  bottom: "c_0"
  bottom: "gate_input_1"
  bottom: "cont_1"
  top: "c_1"
  top: "h_1"
}
layer {
  name: "lstm1_"
  type: "Split"
  bottom: "c_1"
  top: "c_T"
}
layer {
  name: "lstm1_h_concat"
  type: "Concat"
  bottom: "h_1"
  top: "h"
  concat_param {
    axis: 0
  }
}
layer {
  name: "h_pseudoloss"
…
  }
}
layer {
  name: "lstm2_transform_1"
  type: "InnerProduct"
  bottom: "h_conted_0"
  top: "W_hc_h_0"
  param {
    name: "W_hc"
  }
  inner_product_param {
    num_output: 4000
    bias_term: false
    weight_filler {
      type: "uniform"
      min: -0.08
      max: 0.08
    }
    axis: 2
  }
}
layer {
  name: "lstm2_gate_input_1"
  type: "Eltwise"
  bottom: "W_hc_h_0"
  bottom: "W_xc_x_1"
  top: "gate_input_1"
  eltwise_param {
    operation: SUM
  }
}
layer {
  name: "lstm2_unit_1"
  type: "LSTMUnit"
  bottom: "c_0"
  bottom: "gate_input_1"
  bottom: "cont_1"
  top: "c_1"
  top: "h_1"
}
layer {
  name: "lstm2_"
  type: "Split"
  bottom: "c_1"
  top: "c_T"
}
layer {
  name: "lstm2_h_concat"
  type: "Concat"
  bottom: "h_1"
  top: "h"
  concat_param {
    axis: 0
  }
}
layer {
  name: "h_pseudoloss"
  type: "Reduction"
  bottom: "h"
  top: "h_pseudoloss"
  loss_weight: 1
}
I0924 03:40:30.959332  2367 layer_factory.hpp:77] Creating layer lstm2_
I0924 03:40:30.959348  2367 net.cpp:91] Creating Layer lstm2_
I0924 03:40:30.959358  2367 net.cpp:399] lstm2_ -> x
I0924 03:40:30.959373  2367 net.cpp:399] lstm2_ -> cont
I0924 03:40:30.969355  2405 net.cpp:141] Setting up lstm1
I0924 03:40:30.969403  2405 net.cpp:148] Top shape: 1 1 1000 (1000)
I0924 03:40:30.969408  2405 net.cpp:156] Memory required for data: 26408
I0924 03:40:30.969429  2405 layer_factory.hpp:77] Creating layer concat
I0924 03:40:30.969454  2405 net.cpp:91] Creating Layer concat
I0924 03:40:30.969461  2405 net.cpp:425] concat <- lstm1
I0924 03:40:30.969470  2405 net.cpp:425] concat <- embedded_input_sentence
I0924 03:40:30.969476  2405 net.cpp:425] concat <- reshaped_stage_indicator
I0924 03:40:30.969483  2405 net.cpp:399] concat -> lstm1_video_sequence
I0924 03:40:31.049042  2367 net.cpp:141] Setting up lstm2_
I0924 03:40:31.049103  2367 net.cpp:148] Top shape: 1 1 1501 (1501)
I0924 03:40:31.049115  2367 net.cpp:148] Top shape: 1 1 (1)
I0924 03:40:31.049123  2367 net.cpp:156] Memory required for data: 6008
I0924 03:40:31.049135  2367 layer_factory.hpp:77] Creating layer lstm2_
I0924 03:40:31.049175  2367 net.cpp:91] Creating Layer lstm2_
I0924 03:40:31.049190  2367 net.cpp:399] lstm2_ -> c_0
I0924 03:40:31.049216  2367 net.cpp:399] lstm2_ -> h_0
I0924 03:40:31.057147  2405 net.cpp:141] Setting up concat
I0924 03:40:31.057234  2405 net.cpp:148] Top shape: 1 1 1501 (1501)
I0924 03:40:31.057253  2405 net.cpp:156] Memory required for data: 32412
I0924 03:40:31.057273  2405 layer_factory.hpp:77] Creating layer lstm2
I0924 03:40:31.057320  2405 net.cpp:91] Creating Layer lstm2
I0924 03:40:31.057330  2371 net.cpp:141] Setting up h_pseudoloss
I0924 03:40:31.057343  2405 net.cpp:425] lstm2 <- lstm1_video_sequence
I0924 03:40:31.057355  2371 net.cpp:148] Top shape: (1)
I0924 03:40:31.057368  2405 net.cpp:425] lstm2 <- cont_sentence_input_1_split_1
I0924 03:40:31.057364  2371 net.cpp:151]     with loss weight 1
I0924 03:40:31.057389  2371 net.cpp:156] Memory required for data: 98024
I0924 03:40:31.057394  2367 net.cpp:141] Setting up lstm2_
I0924 03:40:31.057395  2405 net.cpp:399] lstm2 -> lstm2
I0924 03:40:31.057412  2367 net.cpp:148] Top shape: 1 1 1000 (1000)
I0924 03:40:31.057399  2371 net.cpp:217] h_pseudoloss needs backward computation.
I0924 03:40:31.057422  2367 net.cpp:148] Top shape: 1 1 1000 (1000)
I0924 03:40:31.057427  2371 net.cpp:217] lstm2_h_concat needs backward computation.
I0924 03:40:31.057430  2367 net.cpp:156] Memory required for data: 14008
I0924 03:40:31.057448  2371 net.cpp:219] lstm2_ does not need backward computation.
I0924 03:40:31.057453  2367 layer_factory.hpp:77] Creating layer lstm2_cont_slice
I0924 03:40:31.057451  2405 recurrent_layer.cpp:20] Initializing recurrent layer: assuming input batch contains 1 timesteps of 1 independent streams.
…
I0924 03:40:31.057756  2371 recurrent_layer.cpp:150] Adding parameter 2: W_hc
I0924 03:40:31.058082  2405 net.cpp:49] Initializing net from parameters: 
layer {
  name: "lstm2_"
  type: "Input"
  top: "x"
  top: "cont"
  input_param {
    shape {
      dim: 1
      dim: 1
      dim: 1501
    }
    shape {
      dim: 1
      dim: 1
    }
  }
}
layer {
  name: "lstm2_"
  type: "Input"
  top: "c_0"
  top: "h_0"
  input_param {
    shape {
      dim: 1
      dim: 1
      dim: 1000
    }
    shape {
      dim: 1
      dim: 1
      dim: 1000
    }
  }
}
layer {
  name: "lstm2_cont_slice"
  type: "Slice"
  bottom: "cont"
  top: "cont_1"
  slice_param {
    axis: 0
  }
}
layer {
  name: "lstm2_x_transform"
  type: "InnerProduct"
  bottom: "x"
  top: "W_xc_x"
  param {
    name: "W_xc"
  }
  param {
    name: "b_c"
  }
  propagate_down: true
  inner_product_param {
    num_output: 4000
    bias_term: true
    weight_filler {
      type: "uniform"
      min: -0.08
      max: 0.08
    }
    bias_filler {
      type: "constant"
      value: 0
    }
    axis: 2
  }
}
layer {
  name: "lstm2_W_xc_x_slice"
  type: "Slice"
  bottom: "W_xc_x"
  top: "W_xc_x_1"
  slice_param {
    axis: 0
  }
}
layer {
  name: "lstm2_h_conted_0"
  type: "Scale"
  bottom: "h_0"
  bottom: "cont_1"
  top: "h_conted_0"
  scale_param {
    axis: 0
  }
}
layer {
  name: "lstm2_transform_1"
  type: "InnerProduct"
  bottom: "h_conted_0"
  top: "W_hc_h_0"
  param {
    name: "W_hc"
  }
  inner_product_param {
    num_output: 4000
    bias_term: false
    weight_filler {
      type: "uniform"
      min: -0.08
      max: 0.08
    }
    axis: 2
  }
}
layer {
  name: "lstm2_gate_input_1"
  type: "Eltwise"
  bottom: "W_hc_h_0"
  bottom: "W_xc_x_1"
  top: "gate_input_1"
  eltwise_param {
    operation: SUM
  }
}
layer {
  name: "lstm2_unit_1"
  type: "LSTMUnit"
  bottom: "c_0"
  bottom: "gate_input_1"
  bottom: "cont_1"
  top: "c_1"
  top: "h_1"
}
layer {
  name: "lstm2_"
  type: "Split"
  bottom: "c_1"
  top: "c_T"
}
layer {
  name: "lstm2_h_concat"
  type: "Concat"
  bottom: "h_1"
  top: "h"
  concat_param {
    axis: 0
  }
}
layer {
  name: "h_pseudoloss"
  type: "Reduction"
  bottom: "h"
  top: "h_pseudoloss"
  loss_weight: 1
}
I0924 03:40:31.058305  2405 layer_factory.hpp:77] Creating layer lstm2_
I0924 03:40:31.058341  2405 net.cpp:91] Creating Layer lstm2_
I0924 03:40:31.058362  2405 net.cpp:399] lstm2_ -> x
I0924 03:40:31.058396  2405 net.cpp:399] lstm2_ -> cont
I0924 03:40:31.057586  2367 net.cpp:148] Top shape: 1 1 (1)
I0924 03:40:31.058789  2367 net.cpp:156] Memory required for data: 14012
I0924 03:40:31.058802  2367 layer_factory.hpp:77] Creating layer cont_1_lstm2_cont_slice_0_split
I0924 03:40:31.058823  2367 net.cpp:91] Creating Layer cont_1_lstm2_cont_slice_0_split
I0924 03:40:31.058833  2367 net.cpp:425] cont_1_lstm2_cont_slice_0_split <- cont_1
I0924 03:40:31.058846  2367 net.cpp:399] cont_1_lstm2_cont_slice_0_split -> cont_1_lstm2_cont_slice_0_split_0
I0924 03:40:31.058863  2367 net.cpp:399] cont_1_lstm2_cont_slice_0_split -> cont_1_lstm2_cont_slice_0_split_1
I0924 03:40:31.059044  2405 net.cpp:141] Setting up lstm2_
I0924 03:40:31.059075  2405 net.cpp:148] Top shape: 1 1 1501 (1501)
I0924 03:40:31.059098  2405 net.cpp:148] Top shape: 1 1 (1)
I0924 03:40:31.059109  2405 net.cpp:156] Memory required for data: 6008
I0924 03:40:31.059123  2405 layer_factory.hpp:77] Creating layer lstm2_
I0924 03:40:31.059150  2405 net.cpp:91] Creating Layer lstm2_
I0924 03:40:31.059186  2405 net.cpp:399] lstm2_ -> c_0
I0924 03:40:31.059219  2405 net.cpp:399] lstm2_ -> h_0
I0924 03:40:31.060056  2371 net.cpp:141] Setting up lstm2
I0924 03:40:31.060081  2371 net.cpp:148] Top shape: 1 1 1000 (1000)
I0924 03:40:31.060091  2371 net.cpp:156] Memory required for data: 36412
I0924 03:40:31.060122  2371 layer_factory.hpp:77] Creating layer predict
I0924 03:40:31.060133  2405 net.cpp:141] Setting up lstm2_
I0924 03:40:31.060147  2371 net.cpp:91] Creating Layer predict
I0924 03:40:31.060149  2405 net.cpp:148] Top shape: 1 1 1000 (1000)
I0924 03:40:31.060166  2371 net.cpp:425] predict <- lstm2
I0924 03:40:31.060171  2405 net.cpp:148] Top shape: 1 1 1000 (1000)
I0924 03:40:31.060178  2405 net.cpp:156] Memory required for data: 14008
I0924 03:40:31.060180  2367 net.cpp:141] Setting up cont_1_lstm2_cont_slice_0_split
I0924 03:40:31.060186  2405 layer_factory.hpp:77] Creating layer lstm2_cont_slice
I0924 03:40:31.060206  2367 net.cpp:148] Top shape: 1 1 (1)
I0924 03:40:31.060185  2371 net.cpp:399] predict -> predict
I0924 03:40:31.060214  2367 net.cpp:148] Top shape: 1 1 (1)
I0924 03:40:31.060220  2367 net.cpp:156] Memory required for data: 14020
I0924 03:40:31.060220  2405 net.cpp:91] Creating Layer lstm2_cont_slice
I0924 03:40:31.060227  2367 layer_factory.hpp:77] Creating layer lstm2_x_transform
I0924 03:40:31.060228  2405 net.cpp:425] lstm2_cont_slice <- cont
I0924 03:40:31.060241  2405 net.cpp:399] lstm2_cont_slice -> cont_1
I0924 03:40:31.060247  2367 net.cpp:91] Creating Layer lstm2_x_transform
I0924 03:40:31.060258  2367 net.cpp:425] lstm2_x_transform <- x
I0924 03:40:31.060269  2367 net.cpp:399] lstm2_x_transform -> W_xc_x
I0924 03:40:31.060544  2405 net.cpp:141] Setting up lstm2_cont_slice
I0924 03:40:31.060560  2405 net.cpp:148] Top shape: 1 1 (1)
I0924 03:40:31.060567  2405 net.cpp:156] Memory required for data: 14012
I0924 03:40:31.060575  2405 layer_factory.hpp:77] Creating layer cont_1_lstm2_cont_slice_0_split
I0924 03:40:31.060592  2405 net.cpp:91] Creating Layer cont_1_lstm2_cont_slice_0_split
I0924 03:40:31.060600  2405 net.cpp:425] cont_1_lstm2_cont_slice_0_split <- cont_1
I0924 03:40:31.060611  2405 net.cpp:399] cont_1_lstm2_cont_slice_0_split -> cont_1_lstm2_cont_slice_0_split_0
I0924 03:40:31.060627  2405 net.cpp:399] cont_1_lstm2_cont_slice_0_split -> cont_1_lstm2_cont_slice_0_split_1
I0924 03:40:31.162984  2405 net.cpp:141] Setting up cont_1_lstm2_cont_slice_0_split
I0924 03:40:31.163024  2373 net.cpp:141] Setting up lstm2_transform_1
I0924 03:40:31.163060  2405 net.cpp:148] Top shape: 1 1 (1)
I0924 03:40:31.163069  2373 net.cpp:148] Top shape: 1 1 4000 (4000)
I0924 03:40:31.163075  2405 net.cpp:148] Top shape: 1 1 (1)
I0924 03:40:31.163077  2373 net.cpp:156] Memory required for data: 66020
I0924 03:40:31.163084  2405 net.cpp:156] Memory required for data: 14020
I0924 03:40:31.163094  2405 layer_factory.hpp:77] Creating layer lstm2_x_transform
I0924 03:40:31.163106  2373 layer_factory.hpp:77] Creating layer lstm2_gate_input_1
I0924 03:40:31.163128  2373 net.cpp:91] Creating Layer lstm2_gate_input_1
I0924 03:40:31.163128  2405 net.cpp:91] Creating Layer lstm2_x_transform
I0924 03:40:31.163156  2373 net.cpp:425] lstm2_gate_input_1 <- W_hc_h_0
I0924 03:40:31.163157  2405 net.cpp:425] lstm2_x_transform <- x
I0924 03:40:31.163169  2373 net.cpp:425] lstm2_gate_input_1 <- W_xc_x_1
I0924 03:40:31.163173  2405 net.cpp:399] lstm2_x_transform -> W_xc_x
I0924 03:40:31.163182  2373 net.cpp:399] lstm2_gate_input_1 -> gate_input_1
I0924 03:40:31.168637  2373 net.cpp:141] Setting up lstm2_gate_input_1
I0924 03:40:31.168704  2373 net.cpp:148] Top shape: 1 1 4000 (4000)
I0924 03:40:31.168715  2373 net.cpp:156] Memory required for data: 82020
I0924 03:40:31.168730  2373 layer_factory.hpp:77] Creating layer lstm2_unit_1
I0924 03:40:31.168773  2373 net.cpp:91] Creating Layer lstm2_unit_1
I0924 03:40:31.168787  2373 net.cpp:425] lstm2_unit_1 <- c_0
I0924 03:40:31.168805  2373 net.cpp:425] lstm2_unit_1 <- gate_input_1
I0924 03:40:31.168817  2373 net.cpp:425] lstm2_unit_1 <- cont_1_lstm2_cont_slice_0_split_1
I0924 03:40:31.168833  2373 net.cpp:399] lstm2_unit_1 -> c_1
I0924 03:40:31.168854  2373 net.cpp:399] lstm2_unit_1 -> h_1
I0924 03:40:31.180668  2415 net.cpp:141] Setting up predict
I0924 03:40:31.180738  2415 net.cpp:148] Top shape: 1 1 46168 (46168)
I0924 03:40:31.180745  2415 net.cpp:156] Memory required for data: 221084
I0924 03:40:31.180763  2415 layer_factory.hpp:77] Creating layer probs
I0924 03:40:31.180786  2415 net.cpp:91] Creating Layer probs
I0924 03:40:31.180799  2415 net.cpp:425] probs <- predict
I0924 03:40:31.180810  2415 net.cpp:399] probs -> probs
I0924 03:40:31.180858  2373 net.cpp:141] Setting up lstm2_unit_1
I0924 03:40:31.180930  2373 net.cpp:148] Top shape: 1 1 1000 (1000)
I0924 03:40:31.180953  2373 net.cpp:148] Top shape: 1 1 1000 (1000)
I0924 03:40:31.180970  2373 net.cpp:156] Memory required for data: 90020
I0924 03:40:31.180991  2373 layer_factory.hpp:77] Creating layer lstm2_
I0924 03:40:31.181023  2373 net.cpp:91] Creating Layer lstm2_
I0924 03:40:31.181047  2373 net.cpp:425] lstm2_ <- c_1
I0924 03:40:31.181076  2373 net.cpp:399] lstm2_ -> c_T
I0924 03:40:31.181749  2373 net.cpp:141] Setting up lstm2_
I0924 03:40:31.181777  2373 net.cpp:148] Top shape: 1 1 1000 (1000)
I0924 03:40:31.181792  2373 net.cpp:156] Memory required for data: 94020
I0924 03:40:31.181807  2373 layer_factory.hpp:77] Creating layer lstm2_h_concat
I0924 03:40:31.181854  2373 net.cpp:91] Creating Layer lstm2_h_concat
I0924 03:40:31.181874  2373 net.cpp:425] lstm2_h_concat <- h_1
I0924 03:40:31.181897  2373 net.cpp:399] lstm2_h_concat -> h
I0924 03:40:31.186883  2373 net.cpp:141] Setting up lstm2_h_concat
I0924 03:40:31.186949  2373 net.cpp:148] Top shape: 1 1 1000 (1000)
I0924 03:40:31.186956  2373 net.cpp:156] Memory required for data: 98020
I0924 03:40:31.186969  2373 layer_factory.hpp:77] Creating layer h_pseudoloss
I0924 03:40:31.186992  2373 net.cpp:91] Creating Layer h_pseudoloss
I0924 03:40:31.187003  2373 net.cpp:425] h_pseudoloss <- h
I0924 03:40:31.187036  2373 net.cpp:399] h_pseudoloss -> h_pseudoloss
I0924 03:40:31.188896  2373 net.cpp:141] Setting up h_pseudoloss
…
I0924 03:40:31.189067  2373 net.cpp:219] lstm2_ does not need backward computation.
I0924 03:40:31.189074  2373 net.cpp:261] This network produces output c_T
I0924 03:40:31.189081  2373 net.cpp:261] This network produces output h_pseudoloss
I0924 03:40:31.189116  2373 net.cpp:274] Network initialization done.
I0924 03:40:31.189190  2373 recurrent_layer.cpp:150] Adding parameter 0: W_xc
I0924 03:40:31.189199  2373 recurrent_layer.cpp:150] Adding parameter 1: b_c
I0924 03:40:31.189208  2373 recurrent_layer.cpp:150] Adding parameter 2: W_hc
I0924 03:40:31.190248  2373 net.cpp:141] Setting up lstm2
I0924 03:40:31.190263  2373 net.cpp:148] Top shape: 1 1 1000 (1000)
I0924 03:40:31.190270  2373 net.cpp:156] Memory required for data: 36412
I0924 03:40:31.190294  2373 layer_factory.hpp:77] Creating layer predict
I0924 03:40:31.190315  2373 net.cpp:91] Creating Layer predict
I0924 03:40:31.190325  2373 net.cpp:425] predict <- lstm2
I0924 03:40:31.190336  2373 net.cpp:399] predict -> predict
I0924 03:40:31.287529  2367 net.cpp:141] Setting up lstm2_x_transform
I0924 03:40:31.287581  2367 net.cpp:148] Top shape: 1 1 4000 (4000)
I0924 03:40:31.287587  2367 net.cpp:156] Memory required for data: 30020
I0924 03:40:31.287612  2367 layer_factory.hpp:77] Creating layer lstm2_W_xc_x_slice
I0924 03:40:31.287631  2367 net.cpp:91] Creating Layer lstm2_W_xc_x_slice
I0924 03:40:31.287638  2367 net.cpp:425] lstm2_W_xc_x_slice <- W_xc_x
I0924 03:40:31.287649  2367 net.cpp:399] lstm2_W_xc_x_slice -> W_xc_x_1
I0924 03:40:31.287731  2405 net.cpp:141] Setting up lstm2_x_transform
I0924 03:40:31.287750  2405 net.cpp:148] Top shape: 1 1 4000 (4000)
I0924 03:40:31.287755  2405 net.cpp:156] Memory required for data: 30020
I0924 03:40:31.287756  2385 net.cpp:141] Setting up predict
I0924 03:40:31.287770  2405 layer_factory.hpp:77] Creating layer lstm2_W_xc_x_slice
I0924 03:40:31.287775  2385 net.cpp:148] Top shape: 1 1 46168 (46168)
I0924 03:40:31.287781  2385 net.cpp:156] Memory required for data: 221084
I0924 03:40:31.287786  2405 net.cpp:91] Creating Layer lstm2_W_xc_x_slice
I0924 03:40:31.287791  2367 net.cpp:141] Setting up lstm2_W_xc_x_slice
I0924 03:40:31.287793  2385 layer_factory.hpp:77] Creating layer probs
I0924 03:40:31.287806  2367 net.cpp:148] Top shape: 1 1 4000 (4000)
I0924 03:40:31.287794  2405 net.cpp:425] lstm2_W_xc_x_slice <- W_xc_x
I0924 03:40:31.287811  2367 net.cpp:156] Memory required for data: 46020
I0924 03:40:31.287817  2367 layer_factory.hpp:77] Creating layer lstm2_h_conted_0
I0924 03:40:31.287817  2385 net.cpp:91] Creating Layer probs
I0924 03:40:31.287820  2405 net.cpp:399] lstm2_W_xc_x_slice -> W_xc_x_1
I0924 03:40:31.287825  2385 net.cpp:425] probs <- predict
I0924 03:40:31.287828  2367 net.cpp:91] Creating Layer lstm2_h_conted_0
I0924 03:40:31.287834  2367 net.cpp:425] lstm2_h_conted_0 <- h_0
I0924 03:40:31.287835  2385 net.cpp:399] probs -> probs
I0924 03:40:31.287842  2367 net.cpp:425] lstm2_h_conted_0 <- cont_1_lstm2_cont_slice_0_split_0
I0924 03:40:31.287848  2367 net.cpp:399] lstm2_h_conted_0 -> h_conted_0
I0924 03:40:31.289994  2405 net.cpp:141] Setting up lstm2_W_xc_x_slice
I0924 03:40:31.290009  2405 net.cpp:148] Top shape: 1 1 4000 (4000)
I0924 03:40:31.290016  2405 net.cpp:156] Memory required for data: 46020
I0924 03:40:31.290025  2405 layer_factory.hpp:77] Creating layer lstm2_h_conted_0
I0924 03:40:31.290035  2405 net.cpp:91] Creating Layer lstm2_h_conted_0
I0924 03:40:31.290041  2405 net.cpp:425] lstm2_h_conted_0 <- h_0
I0924 03:40:31.290047  2405 net.cpp:425] lstm2_h_conted_0 <- cont_1_lstm2_cont_slice_0_split_0
I0924 03:40:31.290055  2405 net.cpp:399] lstm2_h_conted_0 -> h_conted_0
I0924 03:40:31.290096  2367 net.cpp:141] Setting up lstm2_h_conted_0
I0924 03:40:31.290108  2367 net.cpp:148] Top shape: 1 1 1000 (1000)
I0924 03:40:31.290113  2367 net.cpp:156] Memory required for data: 50020
I0924 03:40:31.290118  2367 layer_factory.hpp:77] Creating layer lstm2_transform_1
I0924 03:40:31.290132  2367 net.cpp:91] Creating Layer lstm2_transform_1
I0924 03:40:31.290138  2367 net.cpp:425] lstm2_transform_1 <- h_conted_0
I0924 03:40:31.290145  2367 net.cpp:399] lstm2_transform_1 -> W_hc_h_0
I0924 03:40:31.297791  2405 net.cpp:141] Setting up lstm2_h_conted_0
I0924 03:40:31.297847  2405 net.cpp:148] Top shape: 1 1 1000 (1000)
I0924 03:40:31.297857  2405 net.cpp:156] Memory required for data: 50020
I0924 03:40:31.297868  2405 layer_factory.hpp:77] Creating layer lstm2_transform_1
I0924 03:40:31.297894  2405 net.cpp:91] Creating Layer lstm2_transform_1
I0924 03:40:31.297904  2405 net.cpp:425] lstm2_transform_1 <- h_conted_0
I0924 03:40:31.297924  2405 net.cpp:399] lstm2_transform_1 -> W_hc_h_0
I0924 03:40:31.329483  2367 net.cpp:141] Setting up lstm2_transform_1
I0924 03:40:31.329540  2367 net.cpp:148] Top shape: 1 1 4000 (4000)
I0924 03:40:31.329546  2367 net.cpp:156] Memory required for data: 66020
I0924 03:40:31.329569  2367 layer_factory.hpp:77] Creating layer lstm2_gate_input_1
I0924 03:40:31.329593  2367 net.cpp:91] Creating Layer lstm2_gate_input_1
I0924 03:40:31.329601  2367 net.cpp:425] lstm2_gate_input_1 <- W_hc_h_0
I0924 03:40:31.329609  2367 net.cpp:425] lstm2_gate_input_1 <- W_xc_x_1
I0924 03:40:31.329617  2367 net.cpp:399] lstm2_gate_input_1 -> gate_input_1
I0924 03:40:31.336519  2367 net.cpp:141] Setting up lstm2_gate_input_1
I0924 03:40:31.336555  2367 net.cpp:148] Top shape: 1 1 4000 (4000)
I0924 03:40:31.336560  2367 net.cpp:156] Memory required for data: 82020
I0924 03:40:31.336567  2367 layer_factory.hpp:77] Creating layer lstm2_unit_1
I0924 03:40:31.336585  2367 net.cpp:91] Creating Layer lstm2_unit_1
I0924 03:40:31.336592  2367 net.cpp:425] lstm2_unit_1 <- c_0
I0924 03:40:31.336601  2367 net.cpp:425] lstm2_unit_1 <- gate_input_1
I0924 03:40:31.336608  2367 net.cpp:425] lstm2_unit_1 <- cont_1_lstm2_cont_slice_0_split_1
I0924 03:40:31.336616  2367 net.cpp:399] lstm2_unit_1 -> c_1
I0924 03:40:31.336628  2367 net.cpp:399] lstm2_unit_1 -> h_1
I0924 03:40:31.336630  2377 net.cpp:141] Setting up predict
I0924 03:40:31.336678  2377 net.cpp:148] Top shape: 1 1 46168 (46168)
I0924 03:40:31.336684  2377 net.cpp:156] Memory required for data: 221084
I0924 03:40:31.336700  2377 layer_factory.hpp:77] Creating layer probs
I0924 03:40:31.336719  2377 net.cpp:91] Creating Layer probs
I0924 03:40:31.336726  2377 net.cpp:425] probs <- predict
I0924 03:40:31.336737  2377 net.cpp:399] probs -> probs
I0924 03:40:31.338119  2367 net.cpp:141] Setting up lstm2_unit_1
I0924 03:40:31.338137  2367 net.cpp:148] Top shape: 1 1 1000 (1000)
I0924 03:40:31.338145  2367 net.cpp:148] Top shape: 1 1 1000 (1000)
I0924 03:40:31.338150  2367 net.cpp:156] Memory required for data: 90020
I0924 03:40:31.338155  2367 layer_factory.hpp:77] Creating layer lstm2_
I0924 03:40:31.338165  2367 net.cpp:91] Creating Layer lstm2_
I0924 03:40:31.338170  2367 net.cpp:425] lstm2_ <- c_1
I0924 03:40:31.338177  2367 net.cpp:399] lstm2_ -> c_T
I0924 03:40:31.348630  2367 net.cpp:141] Setting up lstm2_
I0924 03:40:31.348664  2367 net.cpp:148] Top shape: 1 1 1000 (1000)
I0924 03:40:31.348670  2367 net.cpp:156] Memory required for data: 94020
I0924 03:40:31.348676  2367 layer_factory.hpp:77] Creating layer lstm2_h_concat
I0924 03:40:31.348677  2405 net.cpp:141] Setting up lstm2_transform_1
I0924 03:40:31.348696  2405 net.cpp:148] Top shape: 1 1 4000 (4000)
I0924 03:40:31.348697  2367 net.cpp:91] Creating Layer lstm2_h_concat
I0924 03:40:31.348711  2405 net.cpp:156] Memory required for data: 66020
I0924 03:40:31.348713  2367 net.cpp:425] lstm2_h_concat <- h_1
I0924 03:40:31.348731  2367 net.cpp:399] lstm2_h_concat -> h
I0924 03:40:31.348733  2405 layer_factory.hpp:77] Creating layer lstm2_gate_input_1
I0924 03:40:31.348749  2405 net.cpp:91] Creating Layer lstm2_gate_input_1
I0924 03:40:31.348757  2405 net.cpp:425] lstm2_gate_input_1 <- W_hc_h_0
I0924 03:40:31.348765  2405 net.cpp:425] lstm2_gate_input_1 <- W_xc_x_1
I0924 03:40:31.348778  2405 net.cpp:399] lstm2_gate_input_1 -> gate_input_1
I0924 03:40:31.348788  2367 net.cpp:141] Setting up lstm2_h_concat
I0924 03:40:31.348798  2367 net.cpp:148] Top shape: 1 1 1000 (1000)
I0924 03:40:31.348803  2367 net.cpp:156] Memory required for data: 98020
I0924 03:40:31.348808  2367 layer_factory.hpp:77] Creating layer h_pseudoloss
I0924 03:40:31.348817  2367 net.cpp:91] Creating Layer h_pseudoloss
I0924 03:40:31.348822  2367 net.cpp:425] h_pseudoloss <- h
I0924 03:40:31.348836  2367 net.cpp:399] h_pseudoloss -> h_pseudoloss
I0924 03:40:31.348845  2405 net.cpp:141] Setting up lstm2_gate_input_1
I0924 03:40:31.348857  2405 net.cpp:148] Top shape: 1 1 4000 (4000)
I0924 03:40:31.348861  2405 net.cpp:156] Memory required for data: 82020
I0924 03:40:31.348866  2405 layer_factory.hpp:77] Creating layer lstm2_unit_1
I0924 03:40:31.348879  2405 net.cpp:91] Creating Layer lstm2_unit_1
I0924 03:40:31.348888  2405 net.cpp:425] lstm2_unit_1 <- c_0
I0924 03:40:31.348898  2405 net.cpp:425] lstm2_unit_1 <- gate_input_1
I0924 03:40:31.348906  2405 net.cpp:425] lstm2_unit_1 <- cont_1_lstm2_cont_slice_0_split_1
…
I0924 03:40:31.349006  2367 net.cpp:217] lstm2_transform_1 needs backward computation.
I0924 03:40:31.349012  2367 net.cpp:219] lstm2_h_conted_0 does not need backward computation.
I0924 03:40:31.349019  2367 net.cpp:217] lstm2_W_xc_x_slice needs backward computation.
I0924 03:40:31.349023  2367 net.cpp:217] lstm2_x_transform needs backward computation.
I0924 03:40:31.349028  2367 net.cpp:219] cont_1_lstm2_cont_slice_0_split does not need backward computation.
I0924 03:40:31.349028  2405 net.cpp:141] Setting up lstm2_unit_1
I0924 03:40:31.349036  2367 net.cpp:219] lstm2_cont_slice does not need backward computation.
I0924 03:40:31.349041  2405 net.cpp:148] Top shape: 1 1 1000 (1000)
I0924 03:40:31.349042  2367 net.cpp:219] lstm2_ does not need backward computation.
I0924 03:40:31.349052  2405 net.cpp:148] Top shape: 1 1 1000 (1000)
I0924 03:40:31.349055  2367 net.cpp:219] lstm2_ does not need backward computation.
I0924 03:40:31.349059  2405 net.cpp:156] Memory required for data: 90020
I0924 03:40:31.349059  2367 net.cpp:261] This network produces output c_T
I0924 03:40:31.349076  2405 layer_factory.hpp:77] Creating layer lstm2_
I0924 03:40:31.349078  2367 net.cpp:261] This network produces output h_pseudoloss
I0924 03:40:31.349086  2405 net.cpp:91] Creating Layer lstm2_
I0924 03:40:31.349092  2405 net.cpp:425] lstm2_ <- c_1
I0924 03:40:31.349097  2367 net.cpp:274] Network initialization done.
I0924 03:40:31.349098  2405 net.cpp:399] lstm2_ -> c_T
I0924 03:40:31.349154  2367 recurrent_layer.cpp:150] Adding parameter 0: W_xc
I0924 03:40:31.349154  2405 net.cpp:141] Setting up lstm2_
I0924 03:40:31.349161  2367 recurrent_layer.cpp:150] Adding parameter 1: b_c
I0924 03:40:31.349166  2405 net.cpp:148] Top shape: 1 1 1000 (1000)
I0924 03:40:31.349166  2367 recurrent_layer.cpp:150] Adding parameter 2: W_hc
I0924 03:40:31.349175  2405 net.cpp:156] Memory required for data: 94020
I0924 03:40:31.349184  2405 layer_factory.hpp:77] Creating layer lstm2_h_concat
I0924 03:40:31.349201  2405 net.cpp:91] Creating Layer lstm2_h_concat
I0924 03:40:31.349208  2405 net.cpp:425] lstm2_h_concat <- h_1
I0924 03:40:31.349216  2405 net.cpp:399] lstm2_h_concat -> h
I0924 03:40:31.349287  2405 net.cpp:141] Setting up lstm2_h_concat
I0924 03:40:31.349303  2405 net.cpp:148] Top shape: 1 1 1000 (1000)
I0924 03:40:31.349310  2405 net.cpp:156] Memory required for data: 98020
I0924 03:40:31.349316  2405 layer_factory.hpp:77] Creating layer h_pseudoloss
I0924 03:40:31.349325  2405 net.cpp:91] Creating Layer h_pseudoloss
I0924 03:40:31.349330  2405 net.cpp:425] h_pseudoloss <- h
I0924 03:40:31.349329  2367 net.cpp:141] Setting up lstm2
I0924 03:40:31.349342  2367 net.cpp:148] Top shape: 1 1 1000 (1000)
I0924 03:40:31.349344  2405 net.cpp:399] h_pseudoloss -> h_pseudoloss
I0924 03:40:31.349346  2367 net.cpp:156] Memory required for data: 36412
I0924 03:40:31.349361  2367 layer_factory.hpp:77] Creating layer predict
I0924 03:40:31.349375  2367 net.cpp:91] Creating Layer predict
I0924 03:40:31.349381  2367 net.cpp:425] predict <- lstm2
I0924 03:40:31.349388  2367 net.cpp:399] predict -> predict
…
I0924 03:40:31.349575  2405 net.cpp:219] lstm2_ does not need backward computation.
I0924 03:40:31.349580  2405 net.cpp:261] This network produces output c_T
I0924 03:40:31.349583  2405 net.cpp:261] This network produces output h_pseudoloss
I0924 03:40:31.349612  2405 net.cpp:274] Network initialization done.
I0924 03:40:31.349663  2405 recurrent_layer.cpp:150] Adding parameter 0: W_xc
I0924 03:40:31.349670  2405 recurrent_layer.cpp:150] Adding parameter 1: b_c
I0924 03:40:31.349675  2405 recurrent_layer.cpp:150] Adding parameter 2: W_hc
I0924 03:40:31.428287  2405 net.cpp:141] Setting up lstm2
I0924 03:40:31.428339  2405 net.cpp:148] Top shape: 1 1 1000 (1000)
I0924 03:40:31.428345  2405 net.cpp:156] Memory required for data: 36412
I0924 03:40:31.428369  2389 net.cpp:141] Setting up predict
I0924 03:40:31.428374  2405 layer_factory.hpp:77] Creating layer predict
I0924 03:40:31.428390  2389 net.cpp:148] Top shape: 1 1 46168 (46168)
I0924 03:40:31.428396  2389 net.cpp:156] Memory required for data: 221084
I0924 03:40:31.428407  2405 net.cpp:91] Creating Layer predict
I0924 03:40:31.428408  2389 layer_factory.hpp:77] Creating layer probs
I0924 03:40:31.428422  2405 net.cpp:425] predict <- lstm2
I0924 03:40:31.428429  2389 net.cpp:91] Creating Layer probs
I0924 03:40:31.428437  2389 net.cpp:425] probs <- predict
I0924 03:40:31.428439  2405 net.cpp:399] predict -> predict
I0924 03:40:31.428445  2389 net.cpp:399] probs -> probs
I0924 03:40:31.572312  2371 net.cpp:141] Setting up predict
I0924 03:40:31.572371  2371 net.cpp:148] Top shape: 1 1 46168 (46168)
I0924 03:40:31.572378  2371 net.cpp:156] Memory required for data: 221084
I0924 03:40:31.572394  2371 layer_factory.hpp:77] Creating layer probs
I0924 03:40:31.572413  2371 net.cpp:91] Creating Layer probs
I0924 03:40:31.572422  2371 net.cpp:425] probs <- predict
I0924 03:40:31.572433  2371 net.cpp:399] probs -> probs
I0924 03:40:31.575649  2377 net.cpp:141] Setting up probs
I0924 03:40:31.575675  2377 net.cpp:148] Top shape: 1 1 46168 (46168)
I0924 03:40:31.575685  2377 net.cpp:156] Memory required for data: 405756
I0924 03:40:31.575695  2377 net.cpp:219] probs does not need backward computation.
I0924 03:40:31.575703  2377 net.cpp:219] predict does not need backward computation.
I0924 03:40:31.575711  2377 net.cpp:219] lstm2 does not need backward computation.
I0924 03:40:31.575717  2377 net.cpp:219] concat does not need backward computation.
I0924 03:40:31.575726  2377 net.cpp:219] lstm1 does not need backward computation.
I0924 03:40:31.575732  2377 net.cpp:219] embedding does not need backward computation.
I0924 03:40:31.575738  2377 net.cpp:219] reshape_stage_indicator does not need backward computation.
I0924 03:40:31.575745  2377 net.cpp:219] reshape_frames does not need backward computation.
I0924 03:40:31.575752  2377 net.cpp:219] embed_encoder does not need backward computation.
I0924 03:40:31.575757  2377 net.cpp:219] cont_sentence_input_1_split does not need backward computation.
I0924 03:40:31.575763  2377 net.cpp:219] input does not need backward computation.
I0924 03:40:31.575768  2377 net.cpp:261] This network produces output probs
I0924 03:40:31.575788  2377 net.cpp:274] Network initialization done.
I0924 03:40:31.577069  2389 net.cpp:141] Setting up probs
I0924 03:40:31.577113  2389 net.cpp:148] Top shape: 1 1 46168 (46168)
I0924 03:40:31.577121  2389 net.cpp:156] Memory required for data: 405756
I0924 03:40:31.577129  2389 net.cpp:219] probs does not need backward computation.
I0924 03:40:31.577136  2389 net.cpp:219] predict does not need backward computation.
I0924 03:40:31.577142  2389 net.cpp:219] lstm2 does not need backward computation.
I0924 03:40:31.577147  2389 net.cpp:219] concat does not need backward computation.
I0924 03:40:31.577154  2389 net.cpp:219] lstm1 does not need backward computation.
I0924 03:40:31.577160  2389 net.cpp:219] embedding does not need backward computation.
I0924 03:40:31.577165  2389 net.cpp:219] reshape_stage_indicator does not need backward computation.
I0924 03:40:31.577172  2389 net.cpp:219] reshape_frames does not need backward computation.
I0924 03:40:31.577177  2389 net.cpp:219] embed_encoder does not need backward computation.
I0924 03:40:31.577181  2389 net.cpp:219] cont_sentence_input_1_split does not need backward computation.
I0924 03:40:31.577188  2389 net.cpp:219] input does not need backward computation.
I0924 03:40:31.577191  2389 net.cpp:261] This network produces output probs
I0924 03:40:31.577211  2389 net.cpp:274] Network initialization done.
I0924 03:40:31.577371  2385 net.cpp:141] Setting up probs
I0924 03:40:31.577391  2385 net.cpp:148] Top shape: 1 1 46168 (46168)
I0924 03:40:31.577396  2385 net.cpp:156] Memory required for data: 405756
I0924 03:40:31.577402  2385 net.cpp:219] probs does not need backward computation.
I0924 03:40:31.577409  2385 net.cpp:219] predict does not need backward computation.
I0924 03:40:31.577414  2385 net.cpp:219] lstm2 does not need backward computation.
I0924 03:40:31.577419  2385 net.cpp:219] concat does not need backward computation.
I0924 03:40:31.577425  2385 net.cpp:219] lstm1 does not need backward computation.
I0924 03:40:31.577431  2385 net.cpp:219] embedding does not need backward computation.
I0924 03:40:31.577436  2385 net.cpp:219] reshape_stage_indicator does not need backward computation.
I0924 03:40:31.577441  2385 net.cpp:219] reshape_frames does not need backward computation.
I0924 03:40:31.577446  2385 net.cpp:219] embed_encoder does not need backward computation.
I0924 03:40:31.577451  2385 net.cpp:219] cont_sentence_input_1_split does not need backward computation.
I0924 03:40:31.577457  2385 net.cpp:219] input does not need backward computation.
I0924 03:40:31.577461  2385 net.cpp:261] This network produces output probs
I0924 03:40:31.577476  2385 net.cpp:274] Network initialization done.
I0924 03:40:31.582842  2371 net.cpp:141] Setting up probs
I0924 03:40:31.582902  2371 net.cpp:148] Top shape: 1 1 46168 (46168)
I0924 03:40:31.582913  2371 net.cpp:156] Memory required for data: 405756
I0924 03:40:31.582928  2371 net.cpp:219] probs does not need backward computation.
I0924 03:40:31.582940  2371 net.cpp:219] predict does not need backward computation.
I0924 03:40:31.582949  2371 net.cpp:219] lstm2 does not need backward computation.
I0924 03:40:31.582959  2371 net.cpp:219] concat does not need backward computation.
I0924 03:40:31.582969  2371 net.cpp:219] lstm1 does not need backward computation.
I0924 03:40:31.582981  2371 net.cpp:219] embedding does not need backward computation.
I0924 03:40:31.582993  2371 net.cpp:219] reshape_stage_indicator does not need backward computation.
I0924 03:40:31.583003  2371 net.cpp:219] reshape_frames does not need backward computation.
I0924 03:40:31.583012  2371 net.cpp:219] embed_encoder does not need backward computation.
I0924 03:40:31.583024  2371 net.cpp:219] cont_sentence_input_1_split does not need backward computation.
I0924 03:40:31.583034  2371 net.cpp:219] input does not need backward computation.
I0924 03:40:31.583044  2371 net.cpp:261] This network produces output probs
I0924 03:40:31.583076  2371 net.cpp:274] Network initialization done.
I0924 03:40:31.584789  2415 net.cpp:141] Setting up probs
I0924 03:40:31.584841  2415 net.cpp:148] Top shape: 1 1 46168 (46168)
I0924 03:40:31.584851  2415 net.cpp:156] Memory required for data: 405756
I0924 03:40:31.584866  2415 net.cpp:219] probs does not need backward computation.
I0924 03:40:31.584877  2415 net.cpp:219] predict does not need backward computation.
I0924 03:40:31.584887  2415 net.cpp:219] lstm2 does not need backward computation.
I0924 03:40:31.584898  2415 net.cpp:219] concat does not need backward computation.
I0924 03:40:31.584908  2415 net.cpp:219] lstm1 does not need backward computation.
I0924 03:40:31.584919  2415 net.cpp:219] embedding does not need backward computation.
I0924 03:40:31.584929  2415 net.cpp:219] reshape_stage_indicator does not need backward computation.
I0924 03:40:31.584939  2415 net.cpp:219] reshape_frames does not need backward computation.
I0924 03:40:31.584949  2415 net.cpp:219] embed_encoder does not need backward computation.
I0924 03:40:31.584959  2415 net.cpp:219] cont_sentence_input_1_split does not need backward computation.
I0924 03:40:31.584969  2415 net.cpp:219] input does not need backward computation.
I0924 03:40:31.584975  2415 net.cpp:261] This network produces output probs
I0924 03:40:31.585005  2415 net.cpp:274] Network initialization done.
I0924 03:40:31.588011  2407 net.cpp:141] Setting up conv1
I0924 03:40:31.588066  2407 net.cpp:148] Top shape: 10 96 55 55 (2904000)
I0924 03:40:31.588078  2407 net.cpp:156] Memory required for data: 17799480
I0924 03:40:31.588110  2407 layer_factory.hpp:77] Creating layer relu1
I0924 03:40:31.588138  2407 net.cpp:91] Creating Layer relu1
I0924 03:40:31.588150  2407 net.cpp:425] relu1 <- conv1
I0924 03:40:31.588165  2407 net.cpp:386] relu1 -> conv1 (in-place)
I0924 03:40:31.588861  2407 net.cpp:141] Setting up relu1
I0924 03:40:31.588886  2407 net.cpp:148] Top shape: 10 96 55 55 (2904000)
I0924 03:40:31.588896  2407 net.cpp:156] Memory required for data: 29415480
I0924 03:40:31.588906  2407 layer_factory.hpp:77] Creating layer pool1
I0924 03:40:31.588927  2407 net.cpp:91] Creating Layer pool1
I0924 03:40:31.588938  2407 net.cpp:425] pool1 <- conv1
I0924 03:40:31.588953  2407 net.cpp:399] pool1 -> pool1
I0924 03:40:31.589112  2407 net.cpp:141] Setting up pool1
I0924 03:40:31.589128  2407 net.cpp:148] Top shape: 10 96 27 27 (699840)
I0924 03:40:31.589138  2407 net.cpp:156] Memory required for data: 32214840
I0924 03:40:31.589146  2407 layer_factory.hpp:77] Creating layer norm1
I0924 03:40:31.589174  2407 net.cpp:91] Creating Layer norm1
I0924 03:40:31.589184  2407 net.cpp:425] norm1 <- pool1
I0924 03:40:31.589196  2407 net.cpp:399] norm1 -> norm1
I0924 03:40:31.589658  2407 net.cpp:141] Setting up norm1
I0924 03:40:31.589676  2407 net.cpp:148] Top shape: 10 96 27 27 (699840)
I0924 03:40:31.589684  2407 net.cpp:156] Memory required for data: 35014200
I0924 03:40:31.589694  2407 layer_factory.hpp:77] Creating layer conv2
I0924 03:40:31.589720  2407 net.cpp:91] Creating Layer conv2
I0924 03:40:31.589728  2407 net.cpp:425] conv2 <- norm1
I0924 03:40:31.589742  2407 net.cpp:399] conv2 -> conv2
I0924 03:40:31.621160  2407 net.cpp:141] Setting up conv2
I0924 03:40:31.621752  2407 net.cpp:148] Top shape: 10 256 27 27 (1866240)
I0924 03:40:31.621923  2407 net.cpp:156] Memory required for data: 42479160
I0924 03:40:31.622079  2407 layer_factory.hpp:77] Creating layer relu2
I0924 03:40:31.622339  2407 net.cpp:91] Creating Layer relu2
I0924 03:40:31.622509  2407 net.cpp:425] relu2 <- conv2
I0924 03:40:31.623247  2407 net.cpp:386] relu2 -> conv2 (in-place)
I0924 03:40:31.624297  2407 net.cpp:141] Setting up relu2
I0924 03:40:31.624698  2407 net.cpp:148] Top shape: 10 256 27 27 (1866240)
I0924 03:40:31.624850  2407 net.cpp:156] Memory required for data: 49944120
I0924 03:40:31.624979  2407 layer_factory.hpp:77] Creating layer pool2
I0924 03:40:31.625171  2407 net.cpp:91] Creating Layer pool2
I0924 03:40:31.625300  2407 net.cpp:425] pool2 <- conv2
I0924 03:40:31.625460  2407 net.cpp:399] pool2 -> pool2
I0924 03:40:31.626387  2407 net.cpp:141] Setting up pool2
I0924 03:40:31.626798  2407 net.cpp:148] Top shape: 10 256 13 13 (432640)
I0924 03:40:31.626947  2407 net.cpp:156] Memory required for data: 51674680
I0924 03:40:31.627079  2407 layer_factory.hpp:77] Creating layer norm2
I0924 03:40:31.627429  2407 net.cpp:91] Creating Layer norm2
I0924 03:40:31.627594  2407 net.cpp:425] norm2 <- pool2
I0924 03:40:31.627758  2407 net.cpp:399] norm2 -> norm2
I0924 03:40:31.630161  2407 net.cpp:141] Setting up norm2
I0924 03:40:31.630650  2407 net.cpp:148] Top shape: 10 256 13 13 (432640)
I0924 03:40:31.630815  2407 net.cpp:156] Memory required for data: 53405240
I0924 03:40:31.630975  2407 layer_factory.hpp:77] Creating layer conv3
I0924 03:40:31.631719  2407 net.cpp:91] Creating Layer conv3
I0924 03:40:31.631914  2407 net.cpp:425] conv3 <- norm2
I0924 03:40:31.632143  2407 net.cpp:399] conv3 -> conv3
I0924 03:40:31.655117  2407 net.cpp:141] Setting up conv3
I0924 03:40:31.655781  2407 net.cpp:148] Top shape: 10 384 13 13 (648960)
I0924 03:40:31.655946  2407 net.cpp:156] Memory required for data: 56001080
I0924 03:40:31.656119  2407 layer_factory.hpp:77] Creating layer relu3
I0924 03:40:31.656524  2407 net.cpp:91] Creating Layer relu3
I0924 03:40:31.656831  2407 net.cpp:425] relu3 <- conv3
I0924 03:40:31.657133  2407 net.cpp:386] relu3 -> conv3 (in-place)
I0924 03:40:31.659418  2407 net.cpp:141] Setting up relu3
I0924 03:40:31.660297  2407 net.cpp:148] Top shape: 10 384 13 13 (648960)
I0924 03:40:31.660694  2407 net.cpp:156] Memory required for data: 58596920
I0924 03:40:31.661002  2407 layer_factory.hpp:77] Creating layer conv4
I0924 03:40:31.661456  2407 net.cpp:91] Creating Layer conv4
I0924 03:40:31.661883  2407 net.cpp:425] conv4 <- conv3
I0924 03:40:31.662228  2407 net.cpp:399] conv4 -> conv4
I0924 03:40:31.679868  2407 net.cpp:141] Setting up conv4
I0924 03:40:31.680551  2407 net.cpp:148] Top shape: 10 384 13 13 (648960)
I0924 03:40:31.680737  2407 net.cpp:156] Memory required for data: 61192760
I0924 03:40:31.680907  2407 layer_factory.hpp:77] Creating layer relu4
I0924 03:40:31.681099  2407 net.cpp:91] Creating Layer relu4
I0924 03:40:31.681356  2407 net.cpp:425] relu4 <- conv4
I0924 03:40:31.681515  2407 net.cpp:386] relu4 -> conv4 (in-place)
I0924 03:40:31.682344  2407 net.cpp:141] Setting up relu4
I0924 03:40:31.682751  2407 net.cpp:148] Top shape: 10 384 13 13 (648960)
I0924 03:40:31.682963  2407 net.cpp:156] Memory required for data: 63788600
I0924 03:40:31.683120  2407 layer_factory.hpp:77] Creating layer conv5
I0924 03:40:31.683364  2407 net.cpp:91] Creating Layer conv5
I0924 03:40:31.683547  2407 net.cpp:425] conv5 <- conv4
I0924 03:40:31.683728  2407 net.cpp:399] conv5 -> conv5
I0924 03:40:31.692322  2407 net.cpp:141] Setting up conv5
I0924 03:40:31.692971  2407 net.cpp:148] Top shape: 10 256 13 13 (432640)
I0924 03:40:31.693193  2407 net.cpp:156] Memory required for data: 65519160
I0924 03:40:31.693382  2407 layer_factory.hpp:77] Creating layer relu5
I0924 03:40:31.693549  2407 net.cpp:91] Creating Layer relu5
I0924 03:40:31.693697  2407 net.cpp:425] relu5 <- conv5
I0924 03:40:31.693872  2407 net.cpp:386] relu5 -> conv5 (in-place)
I0924 03:40:31.694670  2407 net.cpp:141] Setting up relu5
I0924 03:40:31.695045  2407 net.cpp:148] Top shape: 10 256 13 13 (432640)
I0924 03:40:31.695240  2407 net.cpp:156] Memory required for data: 67249720
I0924 03:40:31.695394  2407 layer_factory.hpp:77] Creating layer pool5
I0924 03:40:31.695590  2407 net.cpp:91] Creating Layer pool5
I0924 03:40:31.695737  2407 net.cpp:425] pool5 <- conv5
I0924 03:40:31.695895  2407 net.cpp:399] pool5 -> pool5
I0924 03:40:31.696307  2407 net.cpp:141] Setting up pool5
I0924 03:40:31.696671  2407 net.cpp:148] Top shape: 10 256 6 6 (92160)
I0924 03:40:31.696837  2407 net.cpp:156] Memory required for data: 67618360
I0924 03:40:31.696986  2407 layer_factory.hpp:77] Creating layer fc6
I0924 03:40:31.697213  2407 net.cpp:91] Creating Layer fc6
I0924 03:40:31.697360  2407 net.cpp:425] fc6 <- pool5
I0924 03:40:31.697512  2407 net.cpp:399] fc6 -> fc6
I0924 03:40:31.775678  2373 net.cpp:141] Setting up predict
I0924 03:40:31.775743  2373 net.cpp:148] Top shape: 1 1 46168 (46168)
I0924 03:40:31.775753  2373 net.cpp:156] Memory required for data: 221084
I0924 03:40:31.775770  2373 layer_factory.hpp:77] Creating layer probs
I0924 03:40:31.775790  2373 net.cpp:91] Creating Layer probs
I0924 03:40:31.775799  2373 net.cpp:425] probs <- predict
I0924 03:40:31.775812  2373 net.cpp:399] probs -> probs
I0924 03:40:31.776875  2373 net.cpp:141] Setting up probs
I0924 03:40:31.776932  2373 net.cpp:148] Top shape: 1 1 46168 (46168)
I0924 03:40:31.776938  2373 net.cpp:156] Memory required for data: 405756
I0924 03:40:31.776950  2373 net.cpp:219] probs does not need backward computation.
I0924 03:40:31.776960  2373 net.cpp:219] predict does not need backward computation.
I0924 03:40:31.776968  2373 net.cpp:219] lstm2 does not need backward computation.
I0924 03:40:31.776974  2373 net.cpp:219] concat does not need backward computation.
I0924 03:40:31.776981  2373 net.cpp:219] lstm1 does not need backward computation.
I0924 03:40:31.776988  2373 net.cpp:219] embedding does not need backward computation.
I0924 03:40:31.776994  2373 net.cpp:219] reshape_stage_indicator does not need backward computation.
I0924 03:40:31.777000  2373 net.cpp:219] reshape_frames does not need backward computation.
I0924 03:40:31.777007  2373 net.cpp:219] embed_encoder does not need backward computation.
I0924 03:40:31.777012  2373 net.cpp:219] cont_sentence_input_1_split does not need backward computation.
I0924 03:40:31.777019  2373 net.cpp:219] input does not need backward computation.
I0924 03:40:31.777024  2373 net.cpp:261] This network produces output probs
I0924 03:40:31.777045  2373 net.cpp:274] Network initialization done.
I0924 03:40:31.781484  2367 net.cpp:141] Setting up predict
I0924 03:40:31.781548  2367 net.cpp:148] Top shape: 1 1 46168 (46168)
I0924 03:40:31.781554  2367 net.cpp:156] Memory required for data: 221084
I0924 03:40:31.781570  2367 layer_factory.hpp:77] Creating layer probs
I0924 03:40:31.781591  2367 net.cpp:91] Creating Layer probs
I0924 03:40:31.781600  2367 net.cpp:425] probs <- predict
I0924 03:40:31.781611  2367 net.cpp:399] probs -> probs
I0924 03:40:31.782124  2367 net.cpp:141] Setting up probs
I0924 03:40:31.782136  2367 net.cpp:148] Top shape: 1 1 46168 (46168)
I0924 03:40:31.782142  2367 net.cpp:156] Memory required for data: 405756
I0924 03:40:31.782148  2367 net.cpp:219] probs does not need backward computation.
I0924 03:40:31.782153  2367 net.cpp:219] predict does not need backward computation.
I0924 03:40:31.782158  2367 net.cpp:219] lstm2 does not need backward computation.
I0924 03:40:31.782166  2367 net.cpp:219] concat does not need backward computation.
I0924 03:40:31.782172  2367 net.cpp:219] lstm1 does not need backward computation.
I0924 03:40:31.782178  2367 net.cpp:219] embedding does not need backward computation.
I0924 03:40:31.782183  2367 net.cpp:219] reshape_stage_indicator does not need backward computation.
I0924 03:40:31.782189  2367 net.cpp:219] reshape_frames does not need backward computation.
I0924 03:40:31.782194  2367 net.cpp:219] embed_encoder does not need backward computation.
I0924 03:40:31.782201  2367 net.cpp:219] cont_sentence_input_1_split does not need backward computation.
I0924 03:40:31.782205  2367 net.cpp:219] input does not need backward computation.
I0924 03:40:31.782209  2367 net.cpp:261] This network produces output probs
I0924 03:40:31.782228  2367 net.cpp:274] Network initialization done.
I0924 03:40:31.851289  2407 net.cpp:141] Setting up fc6
I0924 03:40:31.851361  2407 net.cpp:148] Top shape: 10 4096 (40960)
I0924 03:40:31.851369  2407 net.cpp:156] Memory required for data: 67782200
I0924 03:40:31.851387  2407 layer_factory.hpp:77] Creating layer relu6
I0924 03:40:31.851413  2407 net.cpp:91] Creating Layer relu6
I0924 03:40:31.851426  2407 net.cpp:425] relu6 <- fc6
I0924 03:40:31.851444  2407 net.cpp:386] relu6 -> fc6 (in-place)
I0924 03:40:31.852385  2407 net.cpp:141] Setting up relu6
I0924 03:40:31.852406  2407 net.cpp:148] Top shape: 10 4096 (40960)
I0924 03:40:31.852412  2407 net.cpp:156] Memory required for data: 67946040
I0924 03:40:31.852418  2407 layer_factory.hpp:77] Creating layer drop6
I0924 03:40:31.852452  2407 net.cpp:91] Creating Layer drop6
I0924 03:40:31.852461  2407 net.cpp:425] drop6 <- fc6
I0924 03:40:31.852480  2407 net.cpp:386] drop6 -> fc6 (in-place)
I0924 03:40:31.852565  2407 net.cpp:141] Setting up drop6
I0924 03:40:31.852577  2407 net.cpp:148] Top shape: 10 4096 (40960)
I0924 03:40:31.852586  2407 net.cpp:156] Memory required for data: 68109880
I0924 03:40:31.852593  2407 layer_factory.hpp:77] Creating layer fc7
I0924 03:40:31.852629  2407 net.cpp:91] Creating Layer fc7
I0924 03:40:31.852636  2407 net.cpp:425] fc7 <- fc6
I0924 03:40:31.852645  2407 net.cpp:399] fc7 -> fc7
I0924 03:40:31.887406  2405 net.cpp:141] Setting up predict
I0924 03:40:31.887488  2405 net.cpp:148] Top shape: 1 1 46168 (46168)
I0924 03:40:31.887501  2405 net.cpp:156] Memory required for data: 221084
I0924 03:40:31.887531  2405 layer_factory.hpp:77] Creating layer probs
I0924 03:40:31.887569  2405 net.cpp:91] Creating Layer probs
I0924 03:40:31.887585  2405 net.cpp:425] probs <- predict
I0924 03:40:31.887603  2405 net.cpp:399] probs -> probs
I0924 03:40:31.889390  2405 net.cpp:141] Setting up probs
I0924 03:40:31.889462  2405 net.cpp:148] Top shape: 1 1 46168 (46168)
I0924 03:40:31.889473  2405 net.cpp:156] Memory required for data: 405756
I0924 03:40:31.889492  2405 net.cpp:219] probs does not need backward computation.
I0924 03:40:31.889506  2405 net.cpp:219] predict does not need backward computation.
I0924 03:40:31.889518  2405 net.cpp:219] lstm2 does not need backward computation.
I0924 03:40:31.889531  2405 net.cpp:219] concat does not need backward computation.
I0924 03:40:31.889544  2405 net.cpp:219] lstm1 does not need backward computation.
I0924 03:40:31.889557  2405 net.cpp:219] embedding does not need backward computation.
I0924 03:40:31.889569  2405 net.cpp:219] reshape_stage_indicator does not need backward computation.
I0924 03:40:31.889580  2405 net.cpp:219] reshape_frames does not need backward computation.
I0924 03:40:31.889590  2405 net.cpp:219] embed_encoder does not need backward computation.
I0924 03:40:31.889602  2405 net.cpp:219] cont_sentence_input_1_split does not need backward computation.
I0924 03:40:31.889614  2405 net.cpp:219] input does not need backward computation.
I0924 03:40:31.889623  2405 net.cpp:261] This network produces output probs
I0924 03:40:31.889654  2405 net.cpp:274] Network initialization done.
I0924 03:40:31.904503  2407 net.cpp:141] Setting up fc7
I0924 03:40:31.904568  2407 net.cpp:148] Top shape: 10 4096 (40960)
I0924 03:40:31.904577  2407 net.cpp:156] Memory required for data: 68273720
I0924 03:40:31.904595  2407 layer_factory.hpp:77] Creating layer relu7
I0924 03:40:31.905665  2407 net.cpp:91] Creating Layer relu7
I0924 03:40:31.905690  2407 net.cpp:425] relu7 <- fc7
I0924 03:40:31.905704  2407 net.cpp:386] relu7 -> fc7 (in-place)
I0924 03:40:31.907207  2407 net.cpp:141] Setting up relu7
I0924 03:40:31.907232  2407 net.cpp:148] Top shape: 10 4096 (40960)
I0924 03:40:31.907239  2407 net.cpp:156] Memory required for data: 68437560
I0924 03:40:31.907246  2407 layer_factory.hpp:77] Creating layer drop7
I0924 03:40:31.907259  2407 net.cpp:91] Creating Layer drop7
I0924 03:40:31.907265  2407 net.cpp:425] drop7 <- fc7
I0924 03:40:31.907274  2407 net.cpp:386] drop7 -> fc7 (in-place)
I0924 03:40:31.907831  2407 net.cpp:141] Setting up drop7
I0924 03:40:31.907855  2407 net.cpp:148] Top shape: 10 4096 (40960)
I0924 03:40:31.907862  2407 net.cpp:156] Memory required for data: 68601400
I0924 03:40:31.907868  2407 layer_factory.hpp:77] Creating layer fc8
I0924 03:40:31.907884  2407 net.cpp:91] Creating Layer fc8
I0924 03:40:31.907891  2407 net.cpp:425] fc8 <- fc7
I0924 03:40:31.907901  2407 net.cpp:399] fc8 -> fc8
I0924 03:40:31.922176  2407 net.cpp:141] Setting up fc8
I0924 03:40:31.922243  2407 net.cpp:148] Top shape: 10 1000 (10000)
I0924 03:40:31.922251  2407 net.cpp:156] Memory required for data: 68641400
I0924 03:40:31.922269  2407 layer_factory.hpp:77] Creating layer prob
I0924 03:40:31.922751  2407 net.cpp:91] Creating Layer prob
I0924 03:40:31.922772  2407 net.cpp:425] prob <- fc8
I0924 03:40:31.922787  2407 net.cpp:399] prob -> prob
I0924 03:40:31.925802  2407 net.cpp:141] Setting up prob
I0924 03:40:31.925834  2407 net.cpp:148] Top shape: 10 1000 (10000)
I0924 03:40:31.925842  2407 net.cpp:156] Memory required for data: 68681400
I0924 03:40:31.925849  2407 net.cpp:219] prob does not need backward computation.
I0924 03:40:31.925856  2407 net.cpp:219] fc8 does not need backward computation.
I0924 03:40:31.925863  2407 net.cpp:219] drop7 does not need backward computation.
I0924 03:40:31.925868  2407 net.cpp:219] relu7 does not need backward computation.
…
