…
2016-07-30 10:49:00.411 STDERR [INFO] I0730 10:49:00.387456 19322 net.cpp:91] Creating Layer input
2016-07-30 10:49:00.411 STDERR [INFO] I0730 10:49:00.387466 19322 net.cpp:399] input -> frames_fc7
2016-07-30 10:49:00.411 STDERR [INFO] I0730 10:49:00.387488 19322 net.cpp:399] input -> cont_sentence
2016-07-30 10:49:00.411 STDERR [INFO] I0730 10:49:00.387501 19322 net.cpp:399] input -> input_sentence
2016-07-30 10:49:00.412 STDERR [INFO] I0730 10:49:00.387514 19322 net.cpp:399] input -> stage_indicator
2016-07-30 10:49:00.412 STDERR [INFO] I0730 10:49:00.387804 19322 net.cpp:141] Setting up input
2016-07-30 10:49:00.412 STDERR [INFO] I0730 10:49:00.387821 19322 net.cpp:148] Top shape: 1 4096 (4096)
2016-07-30 10:49:00.412 STDERR [INFO] I0730 10:49:00.387830 19322 net.cpp:148] Top shape: 1 1 (1)
2016-07-30 10:49:00.412 STDERR [INFO] I0730 10:49:00.387836 19322 net.cpp:148] Top shape: 1 1 (1)
2016-07-30 10:49:00.412 STDERR [INFO] I0730 10:49:00.387843 19322 net.cpp:148] Top shape: 1 1 (1)
2016-07-30 10:49:00.412 STDERR [INFO] I0730 10:49:00.387847 19322 net.cpp:156] Memory required for data: 16396
2016-07-30 10:49:00.412 STDERR [INFO] I0730 10:49:00.387854 19322 layer_factory.hpp:77] Creating layer cont_sentence_input_1_split
2016-07-30 10:49:00.412 STDERR [INFO] I0730 10:49:00.387874 19322 net.cpp:91] Creating Layer cont_sentence_input_1_split
2016-07-30 10:49:00.412 STDERR [INFO] I0730 10:49:00.387881 19322 net.cpp:425] cont_sentence_input_1_split <- cont_sentence
2016-07-30 10:49:00.413 STDERR [INFO] I0730 10:49:00.387905 19322 net.cpp:399] cont_sentence_input_1_split -> cont_sentence_input_1_split_0
2016-07-30 10:49:00.413 STDERR [INFO] I0730 10:49:00.387919 19322 net.cpp:399] cont_sentence_input_1_split -> cont_sentence_input_1_split_1
2016-07-30 10:49:00.413 STDERR [INFO] I0730 10:49:00.395021 19322 net.cpp:141] Setting up cont_sentence_input_1_split
2016-07-30 10:49:00.413 STDERR [INFO] I0730 10:49:00.395086 19322 net.cpp:148] Top shape: 1 1 (1)
2016-07-30 10:49:00.413 STDERR [INFO] I0730 10:49:00.395102 19322 net.cpp:148] Top shape: 1 1 (1)
2016-07-30 10:49:00.413 STDERR [INFO] I0730 10:49:00.395107 19322 net.cpp:156] Memory required for data: 16404
2016-07-30 10:49:00.413 STDERR [INFO] I0730 10:49:00.395118 19322 layer_factory.hpp:77] Creating layer embed_encoder
2016-07-30 10:49:00.413 STDERR [INFO] I0730 10:49:00.395154 19322 net.cpp:91] Creating Layer embed_encoder
2016-07-30 10:49:00.413 STDERR [INFO] I0730 10:49:00.395164 19322 net.cpp:425] embed_encoder <- frames_fc7
2016-07-30 10:49:00.413 STDERR [INFO] I0730 10:49:00.395179 19322 net.cpp:399] embed_encoder -> embedded_in_frames
2016-07-30 10:49:00.428 STDERR [INFO] I0730 10:49:00.427737 19322 net.cpp:141] Setting up embed_encoder
2016-07-30 10:49:00.428 STDERR [INFO] I0730 10:49:00.427795 19322 net.cpp:148] Top shape: 1 500 (500)
2016-07-30 10:49:00.428 STDERR [INFO] I0730 10:49:00.427803 19322 net.cpp:156] Memory required for data: 18404
2016-07-30 10:49:00.428 STDERR [INFO] I0730 10:49:00.427840 19322 layer_factory.hpp:77] Creating layer reshape_frames
2016-07-30 10:49:00.428 STDERR [INFO] I0730 10:49:00.427875 19322 net.cpp:91] Creating Layer reshape_frames
2016-07-30 10:49:00.428 STDERR [INFO] I0730 10:49:00.427886 19322 net.cpp:425] reshape_frames <- embedded_in_frames
2016-07-30 10:49:00.429 STDERR [INFO] I0730 10:49:00.427899 19322 net.cpp:399] reshape_frames -> embedded_input_frames
2016-07-30 10:49:00.430 STDERR [INFO] I0730 10:49:00.430354 19322 net.cpp:141] Setting up reshape_frames
2016-07-30 10:49:00.430 STDERR [INFO] I0730 10:49:00.430411 19322 net.cpp:148] Top shape: 1 1 500 (500)
2016-07-30 10:49:00.430 STDERR [INFO] I0730 10:49:00.430419 19322 net.cpp:156] Memory required for data: 20404
2016-07-30 10:49:00.430 STDERR [INFO] I0730 10:49:00.430431 19322 layer_factory.hpp:77] Creating layer reshape_stage_indicator
2016-07-30 10:49:00.431 STDERR [INFO] I0730 10:49:00.430466 19322 net.cpp:91] Creating Layer reshape_stage_indicator
2016-07-30 10:49:00.431 STDERR [INFO] I0730 10:49:00.430475 19322 net.cpp:425] reshape_stage_indicator <- stage_indicator
2016-07-30 10:49:00.431 STDERR [INFO] I0730 10:49:00.430490 19322 net.cpp:399] reshape_stage_indicator -> reshaped_stage_indicator
2016-07-30 10:49:00.431 STDERR [INFO] I0730 10:49:00.430665 19322 net.cpp:141] Setting up reshape_stage_indicator
2016-07-30 10:49:00.432 STDERR [INFO] I0730 10:49:00.430697 19322 net.cpp:148] Top shape: 1 1 1 (1)
2016-07-30 10:49:00.432 STDERR [INFO] I0730 10:49:00.430704 19322 net.cpp:156] Memory required for data: 20408
2016-07-30 10:49:00.432 STDERR [INFO] I0730 10:49:00.430711 19322 layer_factory.hpp:77] Creating layer embedding
2016-07-30 10:49:00.432 STDERR [INFO] I0730 10:49:00.430730 19322 net.cpp:91] Creating Layer embedding
2016-07-30 10:49:00.432 STDERR [INFO] I0730 10:49:00.430737 19322 net.cpp:425] embedding <- input_sentence
2016-07-30 10:49:00.432 STDERR [INFO] I0730 10:49:00.430747 19322 net.cpp:399] embedding -> embedded_input_sentence
2016-07-30 10:49:00.561 STDERR [INFO] I0730 10:49:00.561120 19333 net.cpp:141] Setting up conv1
2016-07-30 10:49:00.860 STDERR [INFO] I0730 10:49:00.561182 19333 net.cpp:148] Top shape: 10 96 55 55 (2904000)
2016-07-30 10:49:00.860 STDERR [INFO] I0730 10:49:00.561189 19333 net.cpp:156] Memory required for data: 17799480
2016-07-30 10:49:00.860 STDERR [INFO] I0730 10:49:00.561211 19333 layer_factory.hpp:77] Creating layer relu1
2016-07-30 10:49:00.860 STDERR [INFO] I0730 10:49:00.561226 19333 net.cpp:91] Creating Layer relu1
2016-07-30 10:49:00.860 STDERR [INFO] I0730 10:49:00.561233 19333 net.cpp:425] relu1 <- conv1
2016-07-30 10:49:00.860 STDERR [INFO] I0730 10:49:00.561241 19333 net.cpp:386] relu1 -> conv1 (in-place)
2016-07-30 10:49:00.860 STDERR [INFO] I0730 10:49:00.561902 19333 net.cpp:141] Setting up relu1
2016-07-30 10:49:00.861 STDERR [INFO] I0730 10:49:00.561916 19333 net.cpp:148] Top shape: 10 96 55 55 (2904000)
2016-07-30 10:49:00.861 STDERR [INFO] I0730 10:49:00.561921 19333 net.cpp:156] Memory required for data: 29415480
2016-07-30 10:49:00.861 STDERR [INFO] I0730 10:49:00.561926 19333 layer_factory.hpp:77] Creating layer pool1
2016-07-30 10:49:00.861 STDERR [INFO] I0730 10:49:00.561939 19333 net.cpp:91] Creating Layer pool1
2016-07-30 10:49:00.861 STDERR [INFO] I0730 10:49:00.561944 19333 net.cpp:425] pool1 <- conv1
2016-07-30 10:49:00.861 STDERR [INFO] I0730 10:49:00.561951 19333 net.cpp:399] pool1 -> pool1
2016-07-30 10:49:00.861 STDERR [INFO] I0730 10:49:00.562013 19333 net.cpp:141] Setting up pool1
2016-07-30 10:49:00.861 STDERR [INFO] I0730 10:49:00.562024 19333 net.cpp:148] Top shape: 10 96 27 27 (699840)
2016-07-30 10:49:00.861 STDERR [INFO] I0730 10:49:00.562029 19333 net.cpp:156] Memory required for data: 32214840
2016-07-30 10:49:00.861 STDERR [INFO] I0730 10:49:00.562034 19333 layer_factory.hpp:77] Creating layer norm1
2016-07-30 10:49:00.861 STDERR [INFO] I0730 10:49:00.562050 19333 net.cpp:91] Creating Layer norm1
2016-07-30 10:49:00.861 STDERR [INFO] I0730 10:49:00.562055 19333 net.cpp:425] norm1 <- pool1
2016-07-30 10:49:00.861 STDERR [INFO] I0730 10:49:00.562062 19333 net.cpp:399] norm1 -> norm1
2016-07-30 10:49:00.861 STDERR [INFO] I0730 10:49:00.562775 19333 net.cpp:141] Setting up norm1
2016-07-30 10:49:00.862 STDERR [INFO] I0730 10:49:00.562789 19333 net.cpp:148] Top shape: 10 96 27 27 (699840)
2016-07-30 10:49:00.862 STDERR [INFO] I0730 10:49:00.562794 19333 net.cpp:156] Memory required for data: 35014200
2016-07-30 10:49:00.862 STDERR [INFO] I0730 10:49:00.562800 19333 layer_factory.hpp:77] Creating layer conv2
2016-07-30 10:49:00.862 STDERR [INFO] I0730 10:49:00.562814 19333 net.cpp:91] Creating Layer conv2
2016-07-30 10:49:00.862 STDERR [INFO] I0730 10:49:00.562820 19333 net.cpp:425] conv2 <- norm1
2016-07-30 10:49:00.862 STDERR [INFO] I0730 10:49:00.562829 19333 net.cpp:399] conv2 -> conv2
2016-07-30 10:49:00.862 STDERR [INFO] I0730 10:49:00.567090 19333 net.cpp:141] Setting up conv2
2016-07-30 10:49:00.862 STDERR [INFO] I0730 10:49:00.567109 19333 net.cpp:148] Top shape: 10 256 27 27 (1866240)
2016-07-30 10:49:00.862 STDERR [INFO] I0730 10:49:00.567114 19333 net.cpp:156] Memory required for data: 42479160
2016-07-30 10:49:00.862 STDERR [INFO] I0730 10:49:00.567128 19333 layer_factory.hpp:77] Creating layer relu2
2016-07-30 10:49:00.862 STDERR [INFO] I0730 10:49:00.567142 19333 net.cpp:91] Creating Layer relu2
2016-07-30 10:49:00.862 STDERR [INFO] I0730 10:49:00.567147 19333 net.cpp:425] relu2 <- conv2
2016-07-30 10:49:00.863 STDERR [INFO] I0730 10:49:00.567154 19333 net.cpp:386] relu2 -> conv2 (in-place)
2016-07-30 10:49:00.863 STDERR [INFO] I0730 10:49:00.567890 19333 net.cpp:141] Setting up relu2
2016-07-30 10:49:00.863 STDERR [INFO] I0730 10:49:00.567903 19333 net.cpp:148] Top shape: 10 256 27 27 (1866240)
2016-07-30 10:49:00.863 STDERR [INFO] I0730 10:49:00.567909 19333 net.cpp:156] Memory required for data: 49944120
2016-07-30 10:49:00.863 STDERR [INFO] I0730 10:49:00.567914 19333 layer_factory.hpp:77] Creating layer pool2
2016-07-30 10:49:00.863 STDERR [INFO] I0730 10:49:00.567926 19333 net.cpp:91] Creating Layer pool2
2016-07-30 10:49:00.863 STDERR [INFO] I0730 10:49:00.567931 19333 net.cpp:425] pool2 <- conv2
2016-07-30 10:49:00.863 STDERR [INFO] I0730 10:49:00.567941 19333 net.cpp:399] pool2 -> pool2
2016-07-30 10:49:00.863 STDERR [INFO] I0730 10:49:00.567996 19333 net.cpp:141] Setting up pool2
2016-07-30 10:49:00.863 STDERR [INFO] I0730 10:49:00.568006 19333 net.cpp:148] Top shape: 10 256 13 13 (432640)
2016-07-30 10:49:00.863 STDERR [INFO] I0730 10:49:00.568011 19333 net.cpp:156] Memory required for data: 51674680
2016-07-30 10:49:00.863 STDERR [INFO] I0730 10:49:00.568014 19333 layer_factory.hpp:77] Creating layer norm2
2016-07-30 10:49:00.864 STDERR [INFO] I0730 10:49:00.568027 19333 net.cpp:91] Creating Layer norm2
2016-07-30 10:49:00.864 STDERR [INFO] I0730 10:49:00.568032 19333 net.cpp:425] norm2 <- pool2
2016-07-30 10:49:00.864 STDERR [INFO] I0730 10:49:00.568038 19333 net.cpp:399] norm2 -> norm2
2016-07-30 10:49:00.864 STDERR [INFO] I0730 10:49:00.568307 19333 net.cpp:141] Setting up norm2
2016-07-30 10:49:00.864 STDERR [INFO] I0730 10:49:00.568320 19333 net.cpp:148] Top shape: 10 256 13 13 (432640)
2016-07-30 10:49:00.864 STDERR [INFO] I0730 10:49:00.568325 19333 net.cpp:156] Memory required for data: 53405240
2016-07-30 10:49:00.864 STDERR [INFO] I0730 10:49:00.568331 19333 layer_factory.hpp:77] Creating layer conv3
2016-07-30 10:49:00.864 STDERR [INFO] I0730 10:49:00.568343 19333 net.cpp:91] Creating Layer conv3
2016-07-30 10:49:00.864 STDERR [INFO] I0730 10:49:00.568349 19333 net.cpp:425] conv3 <- norm2
2016-07-30 10:49:00.864 STDERR [INFO] I0730 10:49:00.568356 19333 net.cpp:399] conv3 -> conv3
2016-07-30 10:49:00.864 STDERR [INFO] I0730 10:49:00.573415 19333 net.cpp:141] Setting up conv3
2016-07-30 10:49:00.864 STDERR [INFO] I0730 10:49:00.573446 19333 net.cpp:148] Top shape: 10 384 13 13 (648960)
2016-07-30 10:49:00.864 STDERR [INFO] I0730 10:49:00.573451 19333 net.cpp:156] Memory required for data: 56001080
2016-07-30 10:49:00.864 STDERR [INFO] I0730 10:49:00.573467 19333 layer_factory.hpp:77] Creating layer relu3
2016-07-30 10:49:00.865 STDERR [INFO] I0730 10:49:00.573483 19333 net.cpp:91] Creating Layer relu3
2016-07-30 10:49:00.865 STDERR [INFO] I0730 10:49:00.573489 19333 net.cpp:425] relu3 <- conv3
2016-07-30 10:49:00.865 STDERR [INFO] I0730 10:49:00.573498 19333 net.cpp:386] relu3 -> conv3 (in-place)
2016-07-30 10:49:00.865 STDERR [INFO] I0730 10:49:00.574235 19333 net.cpp:141] Setting up relu3
2016-07-30 10:49:00.865 STDERR [INFO] I0730 10:49:00.574250 19333 net.cpp:148] Top shape: 10 384 13 13 (648960)
2016-07-30 10:49:00.865 STDERR [INFO] I0730 10:49:00.574255 19333 net.cpp:156] Memory required for data: 58596920
2016-07-30 10:49:00.865 STDERR [INFO] I0730 10:49:00.574260 19333 layer_factory.hpp:77] Creating layer conv4
2016-07-30 10:49:00.865 STDERR [INFO] I0730 10:49:00.574277 19333 net.cpp:91] Creating Layer conv4
2016-07-30 10:49:00.865 STDERR [INFO] I0730 10:49:00.574282 19333 net.cpp:425] conv4 <- conv3
2016-07-30 10:49:00.865 STDERR [INFO] I0730 10:49:00.574292 19333 net.cpp:399] conv4 -> conv4
2016-07-30 10:49:00.865 STDERR [INFO] I0730 10:49:00.580008 19333 net.cpp:141] Setting up conv4
2016-07-30 10:49:00.865 STDERR [INFO] I0730 10:49:00.580041 19333 net.cpp:148] Top shape: 10 384 13 13 (648960)
2016-07-30 10:49:00.866 STDERR [INFO] I0730 10:49:00.580047 19333 net.cpp:156] Memory required for data: 61192760
2016-07-30 10:49:00.866 STDERR [INFO] I0730 10:49:00.580060 19333 layer_factory.hpp:77] Creating layer relu4
2016-07-30 10:49:00.866 STDERR [INFO] I0730 10:49:00.580071 19333 net.cpp:91] Creating Layer relu4
2016-07-30 10:49:00.866 STDERR [INFO] I0730 10:49:00.580077 19333 net.cpp:425] relu4 <- conv4
2016-07-30 10:49:00.866 STDERR [INFO] I0730 10:49:00.580085 19333 net.cpp:386] relu4 -> conv4 (in-place)
2016-07-30 10:49:00.866 STDERR [INFO] I0730 10:49:00.580849 19333 net.cpp:141] Setting up relu4
2016-07-30 10:49:00.866 STDERR [INFO] I0730 10:49:00.580868 19333 net.cpp:148] Top shape: 10 384 13 13 (648960)
2016-07-30 10:49:00.866 STDERR [INFO] I0730 10:49:00.580878 19333 net.cpp:156] Memory required for data: 63788600
2016-07-30 10:49:00.866 STDERR [INFO] I0730 10:49:00.580883 19333 layer_factory.hpp:77] Creating layer conv5
2016-07-30 10:49:00.866 STDERR [INFO] I0730 10:49:00.580896 19333 net.cpp:91] Creating Layer conv5
2016-07-30 10:49:00.866 STDERR [INFO] I0730 10:49:00.580902 19333 net.cpp:425] conv5 <- conv4
2016-07-30 10:49:00.866 STDERR [INFO] I0730 10:49:00.580919 19333 net.cpp:399] conv5 -> conv5
2016-07-30 10:49:00.867 STDERR [INFO] I0730 10:49:00.586436 19333 net.cpp:141] Setting up conv5
2016-07-30 10:49:00.867 STDERR [INFO] I0730 10:49:00.586458 19333 net.cpp:148] Top shape: 10 256 13 13 (432640)
2016-07-30 10:49:00.867 STDERR [INFO] I0730 10:49:00.586465 19333 net.cpp:156] Memory required for data: 65519160
2016-07-30 10:49:00.867 STDERR [INFO] I0730 10:49:00.586480 19333 layer_factory.hpp:77] Creating layer relu5
2016-07-30 10:49:00.867 STDERR [INFO] I0730 10:49:00.586491 19333 net.cpp:91] Creating Layer relu5
2016-07-30 10:49:00.867 STDERR [INFO] I0730 10:49:00.586496 19333 net.cpp:425] relu5 <- conv5
2016-07-30 10:49:00.867 STDERR [INFO] I0730 10:49:00.586503 19333 net.cpp:386] relu5 -> conv5 (in-place)
2016-07-30 10:49:00.867 STDERR [INFO] I0730 10:49:00.587249 19333 net.cpp:141] Setting up relu5
2016-07-30 10:49:00.867 STDERR [INFO] I0730 10:49:00.587262 19333 net.cpp:148] Top shape: 10 256 13 13 (432640)
2016-07-30 10:49:00.867 STDERR [INFO] I0730 10:49:00.587267 19333 net.cpp:156] Memory required for data: 67249720
2016-07-30 10:49:00.867 STDERR [INFO] I0730 10:49:00.587272 19333 layer_factory.hpp:77] Creating layer pool5
2016-07-30 10:49:00.867 STDERR [INFO] I0730 10:49:00.587281 19333 net.cpp:91] Creating Layer pool5
2016-07-30 10:49:00.867 STDERR [INFO] I0730 10:49:00.587287 19333 net.cpp:425] pool5 <- conv5
2016-07-30 10:49:00.868 STDERR [INFO] I0730 10:49:00.587297 19333 net.cpp:399] pool5 -> pool5
2016-07-30 10:49:00.868 STDERR [INFO] I0730 10:49:00.587359 19333 net.cpp:141] Setting up pool5
2016-07-30 10:49:00.868 STDERR [INFO] I0730 10:49:00.587368 19333 net.cpp:148] Top shape: 10 256 6 6 (92160)
2016-07-30 10:49:00.868 STDERR [INFO] I0730 10:49:00.587373 19333 net.cpp:156] Memory required for data: 67618360
2016-07-30 10:49:00.868 STDERR [INFO] I0730 10:49:00.587378 19333 layer_factory.hpp:77] Creating layer fc6
2016-07-30 10:49:00.868 STDERR [INFO] I0730 10:49:00.587394 19333 net.cpp:91] Creating Layer fc6
2016-07-30 10:49:00.868 STDERR [INFO] I0730 10:49:00.587399 19333 net.cpp:425] fc6 <- pool5
2016-07-30 10:49:00.868 STDERR [INFO] I0730 10:49:00.587409 19333 net.cpp:399] fc6 -> fc6
2016-07-30 10:49:00.868 STDERR [INFO] I0730 10:49:00.662106 19322 net.cpp:141] Setting up embedding
2016-07-30 10:49:00.868 STDERR [INFO] I0730 10:49:00.662156 19322 net.cpp:148] Top shape: 1 1 500 (500)
2016-07-30 10:49:00.868 STDERR [INFO] I0730 10:49:00.662161 19322 net.cpp:156] Memory required for data: 22408
2016-07-30 10:49:00.869 STDERR [INFO] I0730 10:49:00.662179 19322 layer_factory.hpp:77] Creating layer lstm1
2016-07-30 10:49:00.869 STDERR [INFO] I0730 10:49:00.662200 19322 net.cpp:91] Creating Layer lstm1
2016-07-30 10:49:00.869 STDERR [INFO] I0730 10:49:00.662209 19322 net.cpp:425] lstm1 <- embedded_input_frames
…
2016-07-30 10:49:00.881 STDERR [INFO] }
2016-07-30 10:49:00.881 STDERR [INFO] I0730 10:49:00.662740 19322 layer_factory.hpp:77] Creating layer lstm1_
2016-07-30 10:49:00.881 STDERR [INFO] I0730 10:49:00.662753 19322 net.cpp:91] Creating Layer lstm1_
2016-07-30 10:49:00.881 STDERR [INFO] I0730 10:49:00.662760 19322 net.cpp:399] lstm1_ -> x
2016-07-30 10:49:00.881 STDERR [INFO] I0730 10:49:00.662772 19322 net.cpp:399] lstm1_ -> cont
2016-07-30 10:49:00.881 STDERR [INFO] I0730 10:49:00.662833 19322 net.cpp:141] Setting up lstm1_
2016-07-30 10:49:00.881 STDERR [INFO] I0730 10:49:00.662844 19322 net.cpp:148] Top shape: 1 1 500 (500)
2016-07-30 10:49:00.881 STDERR [INFO] I0730 10:49:00.662850 19322 net.cpp:148] Top shape: 1 1 (1)
2016-07-30 10:49:00.882 STDERR [INFO] I0730 10:49:00.662855 19322 net.cpp:156] Memory required for data: 2004
2016-07-30 10:49:00.882 STDERR [INFO] I0730 10:49:00.662859 19322 layer_factory.hpp:77] Creating layer lstm1_
2016-07-30 10:49:00.882 STDERR [INFO] I0730 10:49:00.662871 19322 net.cpp:91] Creating Layer lstm1_
2016-07-30 10:49:00.882 STDERR [INFO] I0730 10:49:00.662879 19322 net.cpp:399] lstm1_ -> c_0
2016-07-30 10:49:00.882 STDERR [INFO] I0730 10:49:00.662889 19322 net.cpp:399] lstm1_ -> h_0
2016-07-30 10:49:00.882 STDERR [INFO] I0730 10:49:00.662940 19322 net.cpp:141] Setting up lstm1_
2016-07-30 10:49:00.882 STDERR [INFO] I0730 10:49:00.662948 19322 net.cpp:148] Top shape: 1 1 1000 (1000)
2016-07-30 10:49:00.883 STDERR [INFO] I0730 10:49:00.662955 19322 net.cpp:148] Top shape: 1 1 1000 (1000)
2016-07-30 10:49:00.883 STDERR [INFO] I0730 10:49:00.662960 19322 net.cpp:156] Memory required for data: 10004
2016-07-30 10:49:00.883 STDERR [INFO] I0730 10:49:00.662963 19322 layer_factory.hpp:77] Creating layer lstm1_cont_slice
2016-07-30 10:49:00.883 STDERR [INFO] I0730 10:49:00.662974 19322 net.cpp:91] Creating Layer lstm1_cont_slice
2016-07-30 10:49:00.883 STDERR [INFO] I0730 10:49:00.662979 19322 net.cpp:425] lstm1_cont_slice <- cont
2016-07-30 10:49:00.883 STDERR [INFO] I0730 10:49:00.662986 19322 net.cpp:399] lstm1_cont_slice -> cont_1
2016-07-30 10:49:00.883 STDERR [INFO] I0730 10:49:00.663023 19322 net.cpp:141] Setting up lstm1_cont_slice
2016-07-30 10:49:00.883 STDERR [INFO] I0730 10:49:00.663033 19322 net.cpp:148] Top shape: 1 1 (1)
2016-07-30 10:49:00.883 STDERR [INFO] I0730 10:49:00.663038 19322 net.cpp:156] Memory required for data: 10008
2016-07-30 10:49:00.883 STDERR [INFO] I0730 10:49:00.663043 19322 layer_factory.hpp:77] Creating layer cont_1_lstm1_cont_slice_0_split
2016-07-30 10:49:00.883 STDERR [INFO] I0730 10:49:00.663049 19322 net.cpp:91] Creating Layer cont_1_lstm1_cont_slice_0_split
2016-07-30 10:49:00.883 STDERR [INFO] I0730 10:49:00.663054 19322 net.cpp:425] cont_1_lstm1_cont_slice_0_split <- cont_1
2016-07-30 10:49:00.883 STDERR [INFO] I0730 10:49:00.663074 19322 net.cpp:399] cont_1_lstm1_cont_slice_0_split -> cont_1_lstm1_cont_slice_0_split_0
2016-07-30 10:49:00.884 STDERR [INFO] I0730 10:49:00.663084 19322 net.cpp:399] cont_1_lstm1_cont_slice_0_split -> cont_1_lstm1_cont_slice_0_split_1
2016-07-30 10:49:00.884 STDERR [INFO] I0730 10:49:00.663128 19322 net.cpp:141] Setting up cont_1_lstm1_cont_slice_0_split
2016-07-30 10:49:00.884 STDERR [INFO] I0730 10:49:00.663139 19322 net.cpp:148] Top shape: 1 1 (1)
2016-07-30 10:49:00.884 STDERR [INFO] I0730 10:49:00.663146 19322 net.cpp:148] Top shape: 1 1 (1)
2016-07-30 10:49:00.884 STDERR [INFO] I0730 10:49:00.663149 19322 net.cpp:156] Memory required for data: 10016
2016-07-30 10:49:00.884 STDERR [INFO] I0730 10:49:00.663153 19322 layer_factory.hpp:77] Creating layer lstm1_x_transform
2016-07-30 10:49:00.884 STDERR [INFO] I0730 10:49:00.663163 19322 net.cpp:91] Creating Layer lstm1_x_transform
2016-07-30 10:49:00.884 STDERR [INFO] I0730 10:49:00.663168 19322 net.cpp:425] lstm1_x_transform <- x
2016-07-30 10:49:00.884 STDERR [INFO] I0730 10:49:00.663177 19322 net.cpp:399] lstm1_x_transform -> W_xc_x
2016-07-30 10:49:00.884 STDERR [INFO] I0730 10:49:00.683377 19322 net.cpp:141] Setting up lstm1_x_transform
2016-07-30 10:49:00.884 STDERR [INFO] I0730 10:49:00.683423 19322 net.cpp:148] Top shape: 1 1 4000 (4000)
2016-07-30 10:49:00.884 STDERR [INFO] I0730 10:49:00.683429 19322 net.cpp:156] Memory required for data: 26016
2016-07-30 10:49:00.884 STDERR [INFO] I0730 10:49:00.683449 19322 layer_factory.hpp:77] Creating layer lstm1_W_xc_x_slice
2016-07-30 10:49:00.884 STDERR [INFO] I0730 10:49:00.683465 19322 net.cpp:91] Creating Layer lstm1_W_xc_x_slice
2016-07-30 10:49:00.885 STDERR [INFO] I0730 10:49:00.683471 19322 net.cpp:425] lstm1_W_xc_x_slice <- W_xc_x
2016-07-30 10:49:00.885 STDERR [INFO] I0730 10:49:00.683481 19322 net.cpp:399] lstm1_W_xc_x_slice -> W_xc_x_1
2016-07-30 10:49:00.885 STDERR [INFO] I0730 10:49:00.683528 19322 net.cpp:141] Setting up lstm1_W_xc_x_slice
2016-07-30 10:49:00.885 STDERR [INFO] I0730 10:49:00.683538 19322 net.cpp:148] Top shape: 1 1 4000 (4000)
2016-07-30 10:49:00.885 STDERR [INFO] I0730 10:49:00.683543 19322 net.cpp:156] Memory required for data: 42016
2016-07-30 10:49:00.885 STDERR [INFO] I0730 10:49:00.683547 19322 layer_factory.hpp:77] Creating layer lstm1_h_conted_0
2016-07-30 10:49:00.885 STDERR [INFO] I0730 10:49:00.683558 19322 net.cpp:91] Creating Layer lstm1_h_conted_0
2016-07-30 10:49:00.885 STDERR [INFO] I0730 10:49:00.683563 19322 net.cpp:425] lstm1_h_conted_0 <- h_0
2016-07-30 10:49:00.885 STDERR [INFO] I0730 10:49:00.683568 19322 net.cpp:425] lstm1_h_conted_0 <- cont_1_lstm1_cont_slice_0_split_0
2016-07-30 10:49:00.885 STDERR [INFO] I0730 10:49:00.683575 19322 net.cpp:399] lstm1_h_conted_0 -> h_conted_0
2016-07-30 10:49:00.885 STDERR [INFO] I0730 10:49:00.683663 19322 net.cpp:141] Setting up lstm1_h_conted_0
2016-07-30 10:49:00.885 STDERR [INFO] I0730 10:49:00.683673 19322 net.cpp:148] Top shape: 1 1 1000 (1000)
2016-07-30 10:49:00.885 STDERR [INFO] I0730 10:49:00.683677 19322 net.cpp:156] Memory required for data: 46016
2016-07-30 10:49:00.885 STDERR [INFO] I0730 10:49:00.683682 19322 layer_factory.hpp:77] Creating layer lstm1_transform_1
2016-07-30 10:49:00.886 STDERR [INFO] I0730 10:49:00.683694 19322 net.cpp:91] Creating Layer lstm1_transform_1
2016-07-30 10:49:00.886 STDERR [INFO] I0730 10:49:00.683699 19322 net.cpp:425] lstm1_transform_1 <- h_conted_0
2016-07-30 10:49:00.886 STDERR [INFO] I0730 10:49:00.683707 19322 net.cpp:399] lstm1_transform_1 -> W_hc_h_0
2016-07-30 10:49:00.886 STDERR [INFO] I0730 10:49:00.692242 19333 net.cpp:141] Setting up fc6
2016-07-30 10:49:00.886 STDERR [INFO] I0730 10:49:00.692291 19333 net.cpp:148] Top shape: 10 4096 (40960)
2016-07-30 10:49:00.886 STDERR [INFO] I0730 10:49:00.692297 19333 net.cpp:156] Memory required for data: 67782200
2016-07-30 10:49:00.886 STDERR [INFO] I0730 10:49:00.692312 19333 layer_factory.hpp:77] Creating layer relu6
2016-07-30 10:49:00.886 STDERR [INFO] I0730 10:49:00.692328 19333 net.cpp:91] Creating Layer relu6
2016-07-30 10:49:00.886 STDERR [INFO] I0730 10:49:00.692334 19333 net.cpp:425] relu6 <- fc6
2016-07-30 10:49:00.886 STDERR [INFO] I0730 10:49:00.692348 19333 net.cpp:386] relu6 -> fc6 (in-place)
2016-07-30 10:49:00.886 STDERR [INFO] I0730 10:49:00.692667 19333 net.cpp:141] Setting up relu6
2016-07-30 10:49:00.886 STDERR [INFO] I0730 10:49:00.692678 19333 net.cpp:148] Top shape: 10 4096 (40960)
2016-07-30 10:49:00.887 STDERR [INFO] I0730 10:49:00.692682 19333 net.cpp:156] Memory required for data: 67946040
2016-07-30 10:49:00.887 STDERR [INFO] I0730 10:49:00.692687 19333 layer_factory.hpp:77] Creating layer drop6
2016-07-30 10:49:00.887 STDERR [INFO] I0730 10:49:00.692708 19333 net.cpp:91] Creating Layer drop6
2016-07-30 10:49:00.887 STDERR [INFO] I0730 10:49:00.692714 19333 net.cpp:425] drop6 <- fc6
2016-07-30 10:49:00.887 STDERR [INFO] I0730 10:49:00.692721 19333 net.cpp:386] drop6 -> fc6 (in-place)
2016-07-30 10:49:00.887 STDERR [INFO] I0730 10:49:00.692773 19333 net.cpp:141] Setting up drop6
2016-07-30 10:49:00.887 STDERR [INFO] I0730 10:49:00.692782 19333 net.cpp:148] Top shape: 10 4096 (40960)
2016-07-30 10:49:00.887 STDERR [INFO] I0730 10:49:00.692787 19333 net.cpp:156] Memory required for data: 68109880
2016-07-30 10:49:00.887 STDERR [INFO] I0730 10:49:00.692791 19333 layer_factory.hpp:77] Creating layer fc7
2016-07-30 10:49:00.887 STDERR [INFO] I0730 10:49:00.692805 19333 net.cpp:91] Creating Layer fc7
2016-07-30 10:49:00.887 STDERR [INFO] I0730 10:49:00.692809 19333 net.cpp:425] fc7 <- fc6
2016-07-30 10:49:00.887 STDERR [INFO] I0730 10:49:00.692816 19333 net.cpp:399] fc7 -> fc7
2016-07-30 10:49:00.887 STDERR [INFO] I0730 10:49:00.722396 19322 net.cpp:141] Setting up lstm1_transform_1
2016-07-30 10:49:00.888 STDERR [INFO] I0730 10:49:00.722443 19322 net.cpp:148] Top shape: 1 1 4000 (4000)
2016-07-30 10:49:00.888 STDERR [INFO] I0730 10:49:00.722450 19322 net.cpp:156] Memory required for data: 62016
2016-07-30 10:49:00.888 STDERR [INFO] I0730 10:49:00.722466 19322 layer_factory.hpp:77] Creating layer lstm1_gate_input_1
2016-07-30 10:49:00.888 STDERR [INFO] I0730 10:49:00.722486 19322 net.cpp:91] Creating Layer lstm1_gate_input_1
2016-07-30 10:49:00.888 STDERR [INFO] I0730 10:49:00.722492 19322 net.cpp:425] lstm1_gate_input_1 <- W_hc_h_0
2016-07-30 10:49:00.888 STDERR [INFO] I0730 10:49:00.722501 19322 net.cpp:425] lstm1_gate_input_1 <- W_xc_x_1
2016-07-30 10:49:00.888 STDERR [INFO] I0730 10:49:00.722509 19322 net.cpp:399] lstm1_gate_input_1 -> gate_input_1
2016-07-30 10:49:00.888 STDERR [INFO] I0730 10:49:00.722580 19322 net.cpp:141] Setting up lstm1_gate_input_1
2016-07-30 10:49:00.888 STDERR [INFO] I0730 10:49:00.722590 19322 net.cpp:148] Top shape: 1 1 4000 (4000)
2016-07-30 10:49:00.888 STDERR [INFO] I0730 10:49:00.722594 19322 net.cpp:156] Memory required for data: 78016
2016-07-30 10:49:00.888 STDERR [INFO] I0730 10:49:00.722599 19322 layer_factory.hpp:77] Creating layer lstm1_unit_1
2016-07-30 10:49:00.888 STDERR [INFO] I0730 10:49:00.722610 19322 net.cpp:91] Creating Layer lstm1_unit_1
2016-07-30 10:49:00.889 STDERR [INFO] I0730 10:49:00.722616 19322 net.cpp:425] lstm1_unit_1 <- c_0
2016-07-30 10:49:00.889 STDERR [INFO] I0730 10:49:00.722622 19322 net.cpp:425] lstm1_unit_1 <- gate_input_1
2016-07-30 10:49:00.889 STDERR [INFO] I0730 10:49:00.722627 19322 net.cpp:425] lstm1_unit_1 <- cont_1_lstm1_cont_slice_0_split_1
2016-07-30 10:49:00.889 STDERR [INFO] I0730 10:49:00.722635 19322 net.cpp:399] lstm1_unit_1 -> c_1
2016-07-30 10:49:00.889 STDERR [INFO] I0730 10:49:00.722643 19322 net.cpp:399] lstm1_unit_1 -> h_1
2016-07-30 10:49:00.889 STDERR [INFO] I0730 10:49:00.722718 19322 net.cpp:141] Setting up lstm1_unit_1
2016-07-30 10:49:00.889 STDERR [INFO] I0730 10:49:00.722728 19322 net.cpp:148] Top shape: 1 1 1000 (1000)
2016-07-30 10:49:00.889 STDERR [INFO] I0730 10:49:00.722735 19322 net.cpp:148] Top shape: 1 1 1000 (1000)
2016-07-30 10:49:00.889 STDERR [INFO] I0730 10:49:00.722739 19322 net.cpp:156] Memory required for data: 86016
2016-07-30 10:49:00.889 STDERR [INFO] I0730 10:49:00.722744 19322 layer_factory.hpp:77] Creating layer lstm1_
2016-07-30 10:49:00.890 STDERR [INFO] I0730 10:49:00.722753 19322 net.cpp:91] Creating Layer lstm1_
2016-07-30 10:49:00.890 STDERR [INFO] I0730 10:49:00.722757 19322 net.cpp:425] lstm1_ <- c_1
2016-07-30 10:49:00.890 STDERR [INFO] I0730 10:49:00.722764 19322 net.cpp:399] lstm1_ -> c_T
2016-07-30 10:49:00.890 STDERR [INFO] I0730 10:49:00.722795 19322 net.cpp:141] Setting up lstm1_
2016-07-30 10:49:00.890 STDERR [INFO] I0730 10:49:00.722803 19322 net.cpp:148] Top shape: 1 1 1000 (1000)
2016-07-30 10:49:00.890 STDERR [INFO] I0730 10:49:00.722807 19322 net.cpp:156] Memory required for data: 90016
2016-07-30 10:49:00.890 STDERR [INFO] I0730 10:49:00.722811 19322 layer_factory.hpp:77] Creating layer lstm1_h_concat
2016-07-30 10:49:00.890 STDERR [INFO] I0730 10:49:00.722825 19322 net.cpp:91] Creating Layer lstm1_h_concat
2016-07-30 10:49:00.890 STDERR [INFO] I0730 10:49:00.722829 19322 net.cpp:425] lstm1_h_concat <- h_1
2016-07-30 10:49:00.890 STDERR [INFO] I0730 10:49:00.722836 19322 net.cpp:399] lstm1_h_concat -> h
2016-07-30 10:49:00.890 STDERR [INFO] I0730 10:49:00.722873 19322 net.cpp:141] Setting up lstm1_h_concat
2016-07-30 10:49:00.890 STDERR [INFO] I0730 10:49:00.722882 19322 net.cpp:148] Top shape: 1 1 1000 (1000)
2016-07-30 10:49:00.891 STDERR [INFO] I0730 10:49:00.722887 19322 net.cpp:156] Memory required for data: 94016
2016-07-30 10:49:00.891 STDERR [INFO] I0730 10:49:00.722892 19322 layer_factory.hpp:77] Creating layer h_pseudoloss
2016-07-30 10:49:00.891 STDERR [INFO] I0730 10:49:00.722908 19322 net.cpp:91] Creating Layer h_pseudoloss
2016-07-30 10:49:00.891 STDERR [INFO] I0730 10:49:00.722913 19322 net.cpp:425] h_pseudoloss <- h
…
2016-07-30 10:49:00.905 STDERR [INFO] }
2016-07-30 10:49:00.905 STDERR [INFO] I0730 10:49:00.723806 19322 layer_factory.hpp:77] Creating layer lstm2_
2016-07-30 10:49:00.905 STDERR [INFO] I0730 10:49:00.723819 19322 net.cpp:91] Creating Layer lstm2_
2016-07-30 10:49:00.905 STDERR [INFO] I0730 10:49:00.723824 19322 net.cpp:399] lstm2_ -> x
2016-07-30 10:49:00.905 STDERR [INFO] I0730 10:49:00.723834 19322 net.cpp:399] lstm2_ -> cont
2016-07-30 10:49:00.905 STDERR [INFO] I0730 10:49:00.723884 19322 net.cpp:141] Setting up lstm2_
2016-07-30 10:49:00.906 STDERR [INFO] I0730 10:49:00.723893 19322 net.cpp:148] Top shape: 1 1 1501 (1501)
2016-07-30 10:49:00.906 STDERR [INFO] I0730 10:49:00.723899 19322 net.cpp:148] Top shape: 1 1 (1)
2016-07-30 10:49:00.906 STDERR [INFO] I0730 10:49:00.723903 19322 net.cpp:156] Memory required for data: 6008
2016-07-30 10:49:00.906 STDERR [INFO] I0730 10:49:00.723909 19322 layer_factory.hpp:77] Creating layer lstm2_
2016-07-30 10:49:00.906 STDERR [INFO] I0730 10:49:00.723917 19322 net.cpp:91] Creating Layer lstm2_
2016-07-30 10:49:00.906 STDERR [INFO] I0730 10:49:00.723923 19322 net.cpp:399] lstm2_ -> c_0
2016-07-30 10:49:00.906 STDERR [INFO] I0730 10:49:00.723932 19322 net.cpp:399] lstm2_ -> h_0
2016-07-30 10:49:00.906 STDERR [INFO] I0730 10:49:00.723978 19322 net.cpp:141] Setting up lstm2_
2016-07-30 10:49:00.906 STDERR [INFO] I0730 10:49:00.723987 19322 net.cpp:148] Top shape: 1 1 1000 (1000)
2016-07-30 10:49:00.906 STDERR [INFO] I0730 10:49:00.723994 19322 net.cpp:148] Top shape: 1 1 1000 (1000)
2016-07-30 10:49:00.906 STDERR [INFO] I0730 10:49:00.723997 19322 net.cpp:156] Memory required for data: 14008
2016-07-30 10:49:00.906 STDERR [INFO] I0730 10:49:00.724001 19322 layer_factory.hpp:77] Creating layer lstm2_cont_slice
2016-07-30 10:49:00.906 STDERR [INFO] I0730 10:49:00.724009 19322 net.cpp:91] Creating Layer lstm2_cont_slice
2016-07-30 10:49:00.907 STDERR [INFO] I0730 10:49:00.724014 19322 net.cpp:425] lstm2_cont_slice <- cont
2016-07-30 10:49:00.907 STDERR [INFO] I0730 10:49:00.724022 19322 net.cpp:399] lstm2_cont_slice -> cont_1
2016-07-30 10:49:00.907 STDERR [INFO] I0730 10:49:00.724055 19322 net.cpp:141] Setting up lstm2_cont_slice
2016-07-30 10:49:00.907 STDERR [INFO] I0730 10:49:00.724063 19322 net.cpp:148] Top shape: 1 1 (1)
2016-07-30 10:49:00.907 STDERR [INFO] I0730 10:49:00.724067 19322 net.cpp:156] Memory required for data: 14012
2016-07-30 10:49:00.907 STDERR [INFO] I0730 10:49:00.724071 19322 layer_factory.hpp:77] Creating layer cont_1_lstm2_cont_slice_0_split
2016-07-30 10:49:00.907 STDERR [INFO] I0730 10:49:00.724078 19322 net.cpp:91] Creating Layer cont_1_lstm2_cont_slice_0_split
2016-07-30 10:49:00.907 STDERR [INFO] I0730 10:49:00.724082 19322 net.cpp:425] cont_1_lstm2_cont_slice_0_split <- cont_1
2016-07-30 10:49:00.907 STDERR [INFO] I0730 10:49:00.724088 19322 net.cpp:399] cont_1_lstm2_cont_slice_0_split -> cont_1_lstm2_cont_slice_0_split_0
2016-07-30 10:49:00.908 STDERR [INFO] I0730 10:49:00.724097 19322 net.cpp:399] cont_1_lstm2_cont_slice_0_split -> cont_1_lstm2_cont_slice_0_split_1
2016-07-30 10:49:00.908 STDERR [INFO] I0730 10:49:00.724141 19322 net.cpp:141] Setting up cont_1_lstm2_cont_slice_0_split
2016-07-30 10:49:00.908 STDERR [INFO] I0730 10:49:00.724149 19322 net.cpp:148] Top shape: 1 1 (1)
2016-07-30 10:49:00.908 STDERR [INFO] I0730 10:49:00.724155 19322 net.cpp:148] Top shape: 1 1 (1)
2016-07-30 10:49:00.908 STDERR [INFO] I0730 10:49:00.724159 19322 net.cpp:156] Memory required for data: 14020
2016-07-30 10:49:00.908 STDERR [INFO] I0730 10:49:00.724164 19322 layer_factory.hpp:77] Creating layer lstm2_x_transform
2016-07-30 10:49:00.908 STDERR [INFO] I0730 10:49:00.724176 19322 net.cpp:91] Creating Layer lstm2_x_transform
2016-07-30 10:49:00.908 STDERR [INFO] I0730 10:49:00.724180 19322 net.cpp:425] lstm2_x_transform <- x
2016-07-30 10:49:00.908 STDERR [INFO] I0730 10:49:00.724189 19322 net.cpp:399] lstm2_x_transform -> W_xc_x
2016-07-30 10:49:00.908 STDERR [INFO] I0730 10:49:00.739758 19333 net.cpp:141] Setting up fc7
2016-07-30 10:49:00.908 STDERR [INFO] I0730 10:49:00.739801 19333 net.cpp:148] Top shape: 10 4096 (40960)
2016-07-30 10:49:00.908 STDERR [INFO] I0730 10:49:00.739806 19333 net.cpp:156] Memory required for data: 68273720
2016-07-30 10:49:00.908 STDERR [INFO] I0730 10:49:00.739820 19333 layer_factory.hpp:77] Creating layer relu7
2016-07-30 10:49:00.908 STDERR [INFO] I0730 10:49:00.739838 19333 net.cpp:91] Creating Layer relu7
2016-07-30 10:49:00.909 STDERR [INFO] I0730 10:49:00.739845 19333 net.cpp:425] relu7 <- fc7
2016-07-30 10:49:00.909 STDERR [INFO] I0730 10:49:00.739855 19333 net.cpp:386] relu7 -> fc7 (in-place)
2016-07-30 10:49:00.909 STDERR [INFO] I0730 10:49:00.741279 19333 net.cpp:141] Setting up relu7
2016-07-30 10:49:00.909 STDERR [INFO] I0730 10:49:00.741291 19333 net.cpp:148] Top shape: 10 4096 (40960)
2016-07-30 10:49:00.909 STDERR [INFO] I0730 10:49:00.741297 19333 net.cpp:156] Memory required for data: 68437560
2016-07-30 10:49:00.909 STDERR [INFO] I0730 10:49:00.741302 19333 layer_factory.hpp:77] Creating layer drop7
2016-07-30 10:49:00.909 STDERR [INFO] I0730 10:49:00.741314 19333 net.cpp:91] Creating Layer drop7
2016-07-30 10:49:00.909 STDERR [INFO] I0730 10:49:00.741319 19333 net.cpp:425] drop7 <- fc7
2016-07-30 10:49:00.909 STDERR [INFO] I0730 10:49:00.741328 19333 net.cpp:386] drop7 -> fc7 (in-place)
2016-07-30 10:49:00.909 STDERR [INFO] I0730 10:49:00.741364 19333 net.cpp:141] Setting up drop7
2016-07-30 10:49:00.909 STDERR [INFO] I0730 10:49:00.741372 19333 net.cpp:148] Top shape: 10 4096 (40960)
2016-07-30 10:49:00.909 STDERR [INFO] I0730 10:49:00.741377 19333 net.cpp:156] Memory required for data: 68601400
2016-07-30 10:49:00.909 STDERR [INFO] I0730 10:49:00.741381 19333 layer_factory.hpp:77] Creating layer fc8
2016-07-30 10:49:00.910 STDERR [INFO] I0730 10:49:00.741391 19333 net.cpp:91] Creating Layer fc8
2016-07-30 10:49:00.910 STDERR [INFO] I0730 10:49:00.741395 19333 net.cpp:425] fc8 <- fc7
2016-07-30 10:49:00.910 STDERR [INFO] I0730 10:49:00.741406 19333 net.cpp:399] fc8 -> fc8
2016-07-30 10:49:00.910 STDERR [INFO] I0730 10:49:00.753702 19333 net.cpp:141] Setting up fc8
2016-07-30 10:49:00.910 STDERR [INFO] I0730 10:49:00.753746 19333 net.cpp:148] Top shape: 10 1000 (10000)
2016-07-30 10:49:00.910 STDERR [INFO] I0730 10:49:00.753751 19333 net.cpp:156] Memory required for data: 68641400
2016-07-30 10:49:00.910 STDERR [INFO] I0730 10:49:00.753764 19333 layer_factory.hpp:77] Creating layer prob
2016-07-30 10:49:00.910 STDERR [INFO] I0730 10:49:00.753780 19333 net.cpp:91] Creating Layer prob
2016-07-30 10:49:00.910 STDERR [INFO] I0730 10:49:00.753787 19333 net.cpp:425] prob <- fc8
2016-07-30 10:49:00.910 STDERR [INFO] I0730 10:49:00.753795 19333 net.cpp:399] prob -> prob
2016-07-30 10:49:00.910 STDERR [INFO] I0730 10:49:00.754184 19333 net.cpp:141] Setting up prob
2016-07-30 10:49:00.910 STDERR [INFO] I0730 10:49:00.754196 19333 net.cpp:148] Top shape: 10 1000 (10000)
2016-07-30 10:49:00.910 STDERR [INFO] I0730 10:49:00.754201 19333 net.cpp:156] Memory required for data: 68681400
2016-07-30 10:49:00.910 STDERR [INFO] I0730 10:49:00.754206 19333 net.cpp:219] prob does not need backward computation.
2016-07-30 10:49:00.911 STDERR [INFO] I0730 10:49:00.754212 19333 net.cpp:219] fc8 does not need backward computation.
2016-07-30 10:49:00.911 STDERR [INFO] I0730 10:49:00.754216 19333 net.cpp:219] drop7 does not need backward computation.
…
2016-07-30 10:49:00.912 STDERR [INFO] I0730 10:49:00.754299 19333 net.cpp:219] conv1 does not need backward computation.
2016-07-30 10:49:00.912 STDERR [INFO] I0730 10:49:00.754303 19333 net.cpp:219] data does not need backward computation.
2016-07-30 10:49:00.912 STDERR [INFO] I0730 10:49:00.754307 19333 net.cpp:261] This network produces output prob
2016-07-30 10:49:00.912 STDERR [INFO] I0730 10:49:00.754324 19333 net.cpp:274] Network initialization done.
2016-07-30 10:49:00.912 STDERR [INFO] I0730 10:49:00.781507 19322 net.cpp:141] Setting up lstm2_x_transform
2016-07-30 10:49:00.912 STDERR [INFO] I0730 10:49:00.781550 19322 net.cpp:148] Top shape: 1 1 4000 (4000)
2016-07-30 10:49:00.912 STDERR [INFO] I0730 10:49:00.781556 19322 net.cpp:156] Memory required for data: 30020
2016-07-30 10:49:00.913 STDERR [INFO] I0730 10:49:00.781574 19322 layer_factory.hpp:77] Creating layer lstm2_W_xc_x_slice
2016-07-30 10:49:00.913 STDERR [INFO] I0730 10:49:00.781589 19322 net.cpp:91] Creating Layer lstm2_W_xc_x_slice
2016-07-30 10:49:00.913 STDERR [INFO] I0730 10:49:00.781595 19322 net.cpp:425] lstm2_W_xc_x_slice <- W_xc_x
2016-07-30 10:49:00.913 STDERR [INFO] I0730 10:49:00.781607 19322 net.cpp:399] lstm2_W_xc_x_slice -> W_xc_x_1
2016-07-30 10:49:00.913 STDERR [INFO] I0730 10:49:00.781651 19322 net.cpp:141] Setting up lstm2_W_xc_x_slice
2016-07-30 10:49:00.913 STDERR [INFO] I0730 10:49:00.781661 19322 net.cpp:148] Top shape: 1 1 4000 (4000)
2016-07-30 10:49:00.913 STDERR [INFO] I0730 10:49:00.781666 19322 net.cpp:156] Memory required for data: 46020
2016-07-30 10:49:00.913 STDERR [INFO] I0730 10:49:00.781672 19322 layer_factory.hpp:77] Creating layer lstm2_h_conted_0
2016-07-30 10:49:00.913 STDERR [INFO] I0730 10:49:00.781682 19322 net.cpp:91] Creating Layer lstm2_h_conted_0
2016-07-30 10:49:00.913 STDERR [INFO] I0730 10:49:00.781687 19322 net.cpp:425] lstm2_h_conted_0 <- h_0
2016-07-30 10:49:00.913 STDERR [INFO] I0730 10:49:00.781692 19322 net.cpp:425] lstm2_h_conted_0 <- cont_1_lstm2_cont_slice_0_split_0
2016-07-30 10:49:00.913 STDERR [INFO] I0730 10:49:00.781699 19322 net.cpp:399] lstm2_h_conted_0 -> h_conted_0
2016-07-30 10:49:00.913 STDERR [INFO] I0730 10:49:00.781790 19322 net.cpp:141] Setting up lstm2_h_conted_0
2016-07-30 10:49:00.913 STDERR [INFO] I0730 10:49:00.781800 19322 net.cpp:148] Top shape: 1 1 1000 (1000)
2016-07-30 10:49:00.914 STDERR [INFO] I0730 10:49:00.781805 19322 net.cpp:156] Memory required for data: 50020
2016-07-30 10:49:00.914 STDERR [INFO] I0730 10:49:00.781810 19322 layer_factory.hpp:77] Creating layer lstm2_transform_1
2016-07-30 10:49:00.914 STDERR [INFO] I0730 10:49:00.781821 19322 net.cpp:91] Creating Layer lstm2_transform_1
2016-07-30 10:49:00.914 STDERR [INFO] I0730 10:49:00.781827 19322 net.cpp:425] lstm2_transform_1 <- h_conted_0
2016-07-30 10:49:00.914 STDERR [INFO] I0730 10:49:00.781837 19322 net.cpp:399] lstm2_transform_1 -> W_hc_h_0
2016-07-30 10:49:00.914 STDERR [INFO] I0730 10:49:00.843531 19322 net.cpp:141] Setting up lstm2_transform_1
2016-07-30 10:49:00.914 STDERR [INFO] I0730 10:49:00.843591 19322 net.cpp:148] Top shape: 1 1 4000 (4000)
2016-07-30 10:49:00.914 STDERR [INFO] I0730 10:49:00.843598 19322 net.cpp:156] Memory required for data: 66020
2016-07-30 10:49:00.914 STDERR [INFO] I0730 10:49:00.843627 19322 layer_factory.hpp:77] Creating layer lstm2_gate_input_1
2016-07-30 10:49:00.914 STDERR [INFO] I0730 10:49:00.843654 19322 net.cpp:91] Creating Layer lstm2_gate_input_1
2016-07-30 10:49:00.914 STDERR [INFO] I0730 10:49:00.843664 19322 net.cpp:425] lstm2_gate_input_1 <- W_hc_h_0
2016-07-30 10:49:00.914 STDERR [INFO] I0730 10:49:00.843677 19322 net.cpp:425] lstm2_gate_input_1 <- W_xc_x_1
2016-07-30 10:49:00.914 STDERR [INFO] I0730 10:49:00.843690 19322 net.cpp:399] lstm2_gate_input_1 -> gate_input_1
2016-07-30 10:49:00.914 STDERR [INFO] I0730 10:49:00.843760 19322 net.cpp:141] Setting up lstm2_gate_input_1
2016-07-30 10:49:00.915 STDERR [INFO] I0730 10:49:00.843772 19322 net.cpp:148] Top shape: 1 1 4000 (4000)
2016-07-30 10:49:00.915 STDERR [INFO] I0730 10:49:00.843778 19322 net.cpp:156] Memory required for data: 82020
2016-07-30 10:49:00.915 STDERR [INFO] I0730 10:49:00.843785 19322 layer_factory.hpp:77] Creating layer lstm2_unit_1
2016-07-30 10:49:00.915 STDERR [INFO] I0730 10:49:00.843796 19322 net.cpp:91] Creating Layer lstm2_unit_1
2016-07-30 10:49:00.915 STDERR [INFO] I0730 10:49:00.843802 19322 net.cpp:425] lstm2_unit_1 <- c_0
2016-07-30 10:49:00.915 STDERR [INFO] I0730 10:49:00.843811 19322 net.cpp:425] lstm2_unit_1 <- gate_input_1
2016-07-30 10:49:00.915 STDERR [INFO] I0730 10:49:00.843817 19322 net.cpp:425] lstm2_unit_1 <- cont_1_lstm2_cont_slice_0_split_1
2016-07-30 10:49:00.915 STDERR [INFO] I0730 10:49:00.843827 19322 net.cpp:399] lstm2_unit_1 -> c_1
2016-07-30 10:49:00.915 STDERR [INFO] I0730 10:49:00.843842 19322 net.cpp:399] lstm2_unit_1 -> h_1
2016-07-30 10:49:00.915 STDERR [INFO] I0730 10:49:00.843922 19322 net.cpp:141] Setting up lstm2_unit_1
2016-07-30 10:49:00.915 STDERR [INFO] I0730 10:49:00.843935 19322 net.cpp:148] Top shape: 1 1 1000 (1000)
2016-07-30 10:49:00.915 STDERR [INFO] I0730 10:49:00.843942 19322 net.cpp:148] Top shape: 1 1 1000 (1000)
2016-07-30 10:49:00.915 STDERR [INFO] I0730 10:49:00.843947 19322 net.cpp:156] Memory required for data: 90020
2016-07-30 10:49:00.915 STDERR [INFO] I0730 10:49:00.843953 19322 layer_factory.hpp:77] Creating layer lstm2_
2016-07-30 10:49:00.915 STDERR [INFO] I0730 10:49:00.843964 19322 net.cpp:91] Creating Layer lstm2_
2016-07-30 10:49:00.916 STDERR [INFO] I0730 10:49:00.843971 19322 net.cpp:425] lstm2_ <- c_1
2016-07-30 10:49:00.916 STDERR [INFO] I0730 10:49:00.843979 19322 net.cpp:399] lstm2_ -> c_T
2016-07-30 10:49:00.916 STDERR [INFO] I0730 10:49:00.844023 19322 net.cpp:141] Setting up lstm2_
2016-07-30 10:49:00.916 STDERR [INFO] I0730 10:49:00.844035 19322 net.cpp:148] Top shape: 1 1 1000 (1000)
2016-07-30 10:49:00.916 STDERR [INFO] I0730 10:49:00.844041 19322 net.cpp:156] Memory required for data: 94020
2016-07-30 10:49:00.916 STDERR [INFO] I0730 10:49:00.844048 19322 layer_factory.hpp:77] Creating layer lstm2_h_concat
2016-07-30 10:49:00.916 STDERR [INFO] I0730 10:49:00.844061 19322 net.cpp:91] Creating Layer lstm2_h_concat
2016-07-30 10:49:00.916 STDERR [INFO] I0730 10:49:00.844068 19322 net.cpp:425] lstm2_h_concat <- h_1
2016-07-30 10:49:00.916 STDERR [INFO] I0730 10:49:00.844079 19322 net.cpp:399] lstm2_h_concat -> h
2016-07-30 10:49:00.916 STDERR [INFO] I0730 10:49:00.844122 19322 net.cpp:141] Setting up lstm2_h_concat
2016-07-30 10:49:00.916 STDERR [INFO] I0730 10:49:00.844133 19322 net.cpp:148] Top shape: 1 1 1000 (1000)
2016-07-30 10:49:00.916 STDERR [INFO] I0730 10:49:00.844138 19322 net.cpp:156] Memory required for data: 98020
2016-07-30 10:49:00.916 STDERR [INFO] I0730 10:49:00.844144 19322 layer_factory.hpp:77] Creating layer h_pseudoloss
2016-07-30 10:49:00.917 STDERR [INFO] I0730 10:49:00.844161 19322 net.cpp:91] Creating Layer h_pseudoloss
2016-07-30 10:49:00.917 STDERR [INFO] I0730 10:49:00.844168 19322 net.cpp:425] h_pseudoloss <- h
…
