…
Java HotSpot(TM) 64-Bit Server VM warning: You have loaded library /tmp/cvld474354638583776448/libopencv_java310.xine1.so which might have disabled stack guard. The VM will try to fix the stack guard now.
It's highly recommended that you fix the library with 'execstack -c <libfile>', or link it with '-z noexecstack'.
WARNING: Logging before InitGoogleLogging() is written to STDERR
I0730 10:48:59.765395 19333 net.cpp:49] Initializing net from parameters: 
name: "CaffeNet"
state {
  phase: TEST
}
layer {
  name: "data"
  type: "Input"
  top: "data"
  input_param {
    shape {
      dim: 10
      dim: 3
      dim: 227
      dim: 227
    }
  }
}
layer {
  name: "conv1"
  type: "Convolution"
  bottom: "data"
  top: "conv1"
  convolution_param {
    num_output: 96
    kernel_size: 11
    stride: 4
  }
}
layer {
  name: "relu1"
  type: "ReLU"
  bottom: "conv1"
  top: "conv1"
}
layer {
  name: "pool1"
  type: "Pooling"
  bottom: "conv1"
  top: "pool1"
  pooling_param {
    pool: MAX
    kernel_size: 3
    stride: 2
  }
}
layer {
  name: "norm1"
  type: "LRN"
  bottom: "pool1"
  top: "norm1"
  lrn_param {
    local_size: 5
    alpha: 0.0001
    beta: 0.75
  }
}
layer {
  name: "conv2"
  type: "Convolution"
  bottom: "norm1"
  top: "conv2"
  convolution_param {
    num_output: 256
    pad: 2
    kernel_size: 5
    group: 2
  }
}
layer {
  name: "relu2"
  type: "ReLU"
  bottom: "conv2"
  top: "conv2"
}
layer {
  name: "pool2"
  type: "Pooling"
  bottom: "conv2"
  top: "pool2"
  pooling_param {
    pool: MAX
    kernel_size: 3
    stride: 2
  }
}
layer {
  name: "norm2"
  type: "LRN"
  bottom: "pool2"
  top: "norm2"
  lrn_param {
    local_size: 5
    alpha: 0.0001
    beta: 0.75
  }
}
layer {
  name: "conv3"
  type: "Convolution"
  bottom: "norm2"
  top: "conv3"
  convolution_param {
    num_output: 384
    pad: 1
    kernel_size: 3
  }
}
layer {
  name: "relu3"
  type: "ReLU"
  bottom: "conv3"
  top: "conv3"
}
layer {
  name: "conv4"
  type: "Convolution"
  bottom: "conv3"
  top: "conv4"
  convolution_param {
    num_output: 384
    pad: 1
    kernel_size: 3
    group: 2
  }
}
layer {
  name: "relu4"
  type: "ReLU"
  bottom: "conv4"
  top: "conv4"
}
layer {
  name: "conv5"
  type: "Convolution"
  bottom: "conv4"
  top: "conv5"
  convolution_param {
    num_output: 256
    pad: 1
    kernel_size: 3
    group: 2
  }
}
layer {
  name: "relu5"
  type: "ReLU"
  bottom: "conv5"
  top: "conv5"
}
layer {
  name: "pool5"
  type: "Pooling"
  bottom: "conv5"
  top: "pool5"
  pooling_param {
    pool: MAX
    kernel_size: 3
    stride: 2
  }
}
layer {
  name: "fc6"
  type: "InnerProduct"
  bottom: "pool5"
  top: "fc6"
  inner_product_param {
    num_output: 4096
  }
}
layer {
  name: "relu6"
  type: "ReLU"
  bottom: "fc6"
  top: "fc6"
}
layer {
  name: "drop6"
  type: "Dropout"
  bottom: "fc6"
  top: "fc6"
  dropout_param {
    dropout_ratio: 0.5
  }
}
layer {
  name: "fc7"
  type: "InnerProduct"
  bottom: "fc6"
  top: "fc7"
  inner_product_param {
    num_output: 4096
  }
}
layer {
  name: "relu7"
  type: "ReLU"
  bottom: "fc7"
  top: "fc7"
}
layer {
  name: "drop7"
  type: "Dropout"
  bottom: "fc7"
  top: "fc7"
  dropout_param {
    dropout_ratio: 0.5
  }
}
layer {
  name: "fc8"
  type: "InnerProduct"
  bottom: "fc7"
  top: "fc8"
  inner_product_param {
    num_output: 1000
  }
}
layer {
  name: "prob"
  type: "Softmax"
  bottom: "fc8"
  top: "prob"
}
I0730 10:48:59.765586 19333 layer_factory.hpp:77] Creating layer data
I0730 10:48:59.765611 19333 net.cpp:91] Creating Layer data
I0730 10:48:59.765621 19333 net.cpp:399] data -> data
I0730 10:49:00.278584 19333 net.cpp:141] Setting up data
I0730 10:49:00.278671 19333 net.cpp:148] Top shape: 10 3 227 227 (1545870)
I0730 10:49:00.278678 19333 net.cpp:156] Memory required for data: 6183480
I0730 10:49:00.278715 19333 layer_factory.hpp:77] Creating layer conv1
I0730 10:49:00.278743 19333 net.cpp:91] Creating Layer conv1
I0730 10:49:00.278751 19333 net.cpp:425] conv1 <- data
I0730 10:49:00.278764 19333 net.cpp:399] conv1 -> conv1
I0730 10:49:00.386931 19322 upgrade_proto.cpp:66] Attempting to upgrade input file specified using deprecated input fields: /tmp/cvld474354638583776448/s2vt.words_to_preds.prototxt
I0730 10:49:00.386998 19322 upgrade_proto.cpp:69] Successfully upgraded file specified using deprecated input fields.
W0730 10:49:00.387007 19322 upgrade_proto.cpp:71] Note that future Caffe releases will only support input layers and not input fields.
I0730 10:49:00.387321 19322 net.cpp:49] Initializing net from parameters: 
name: "s2vt:features_to_lstm"
state {
  phase: TEST
}
layer {
  name: "input"
  type: "Input"
  top: "frames_fc7"
  top: "cont_sentence"
  top: "input_sentence"
  top: "stage_indicator"
  input_param {
    shape {
      dim: 1
      dim: 4096
    }
    shape {
      dim: 1
      dim: 1
    }
    shape {
      dim: 1
      dim: 1
    }
    shape {
      dim: 1
      dim: 1
    }
  }
}
layer {
  name: "embed_encoder"
  type: "InnerProduct"
  bottom: "frames_fc7"
  top: "embedded_in_frames"
  param {
    lr_mult: 1
    decay_mult: 1
  }
  param {
    lr_mult: 2
    decay_mult: 0
  }
  inner_product_param {
    num_output: 500
    weight_filler {
      type: "xavier"
    }
    bias_filler {
      type: "constant"
      value: 0.2
    }
  }
}
layer {
  name: "reshape_frames"
  type: "Reshape"
  bottom: "embedded_in_frames"
  top: "embedded_input_frames"
  reshape_param {
    shape {
      dim: 1
      dim: 1
      dim: 500
    }
  }
}
layer {
  name: "reshape_stage_indicator"
  type: "Reshape"
  bottom: "stage_indicator"
  top: "reshaped_stage_indicator"
  reshape_param {
    shape {
      dim: 1
      dim: 1
      dim: 1
    }
  }
}
layer {
  name: "embedding"
  type: "Embed"
  bottom: "input_sentence"
  top: "embedded_input_sentence"
  param {
    lr_mult: 1
  }
  embed_param {
    num_output: 500
    input_dim: 46168
    bias_term: false
    weight_filler {
      type: "uniform"
      min: -0.08
      max: 0.08
    }
  }
}
layer {
  name: "lstm1"
  type: "LSTM"
  bottom: "embedded_input_frames"
  bottom: "cont_sentence"
  top: "lstm1"
  recurrent_param {
    num_output: 1000
    weight_filler {
      type: "uniform"
      min: -0.08
      max: 0.08
    }
    bias_filler {
      type: "constant"
      value: 0
    }
  }
}
layer {
  name: "concat"
  type: "Concat"
  bottom: "lstm1"
  bottom: "embedded_input_sentence"
  bottom: "reshaped_stage_indicator"
  top: "lstm1_video_sequence"
  concat_param {
    concat_dim: 2
  }
}
layer {
  name: "lstm2"
  type: "LSTM"
  bottom: "lstm1_video_sequence"
  bottom: "cont_sentence"
  top: "lstm2"
  recurrent_param {
    num_output: 1000
    weight_filler {
      type: "uniform"
      min: -0.08
      max: 0.08
    }
    bias_filler {
      type: "constant"
      value: 0
    }
  }
}
layer {
  name: "predict"
  type: "InnerProduct"
  bottom: "lstm2"
  top: "predict"
  param {
    lr_mult: 1
    decay_mult: 1
  }
  param {
    lr_mult: 2
    decay_mult: 0
  }
  inner_product_param {
    num_output: 46168
    weight_filler {
      type: "uniform"
      min: -0.08
      max: 0.08
    }
    bias_filler {
      type: "constant"
      value: 0
    }
    axis: 2
  }
}
layer {
  name: "probs"
  type: "Softmax"
  bottom: "predict"
  top: "probs"
  softmax_param {
    axis: 2
  }
}
I0730 10:49:00.387439 19322 layer_factory.hpp:77] Creating layer input
I0730 10:49:00.387456 19322 net.cpp:91] Creating Layer input
I0730 10:49:00.387466 19322 net.cpp:399] input -> frames_fc7
I0730 10:49:00.387488 19322 net.cpp:399] input -> cont_sentence
I0730 10:49:00.387501 19322 net.cpp:399] input -> input_sentence
I0730 10:49:00.387514 19322 net.cpp:399] input -> stage_indicator
I0730 10:49:00.387804 19322 net.cpp:141] Setting up input
I0730 10:49:00.387821 19322 net.cpp:148] Top shape: 1 4096 (4096)
I0730 10:49:00.387830 19322 net.cpp:148] Top shape: 1 1 (1)
I0730 10:49:00.387836 19322 net.cpp:148] Top shape: 1 1 (1)
I0730 10:49:00.387843 19322 net.cpp:148] Top shape: 1 1 (1)
I0730 10:49:00.387847 19322 net.cpp:156] Memory required for data: 16396
I0730 10:49:00.387854 19322 layer_factory.hpp:77] Creating layer cont_sentence_input_1_split
I0730 10:49:00.387874 19322 net.cpp:91] Creating Layer cont_sentence_input_1_split
I0730 10:49:00.387881 19322 net.cpp:425] cont_sentence_input_1_split <- cont_sentence
I0730 10:49:00.387905 19322 net.cpp:399] cont_sentence_input_1_split -> cont_sentence_input_1_split_0
I0730 10:49:00.387919 19322 net.cpp:399] cont_sentence_input_1_split -> cont_sentence_input_1_split_1
I0730 10:49:00.395021 19322 net.cpp:141] Setting up cont_sentence_input_1_split
I0730 10:49:00.395086 19322 net.cpp:148] Top shape: 1 1 (1)
I0730 10:49:00.395102 19322 net.cpp:148] Top shape: 1 1 (1)
I0730 10:49:00.395107 19322 net.cpp:156] Memory required for data: 16404
I0730 10:49:00.395118 19322 layer_factory.hpp:77] Creating layer embed_encoder
I0730 10:49:00.395154 19322 net.cpp:91] Creating Layer embed_encoder
I0730 10:49:00.395164 19322 net.cpp:425] embed_encoder <- frames_fc7
I0730 10:49:00.395179 19322 net.cpp:399] embed_encoder -> embedded_in_frames
I0730 10:49:00.427737 19322 net.cpp:141] Setting up embed_encoder
I0730 10:49:00.427795 19322 net.cpp:148] Top shape: 1 500 (500)
I0730 10:49:00.427803 19322 net.cpp:156] Memory required for data: 18404
I0730 10:49:00.427840 19322 layer_factory.hpp:77] Creating layer reshape_frames
I0730 10:49:00.427875 19322 net.cpp:91] Creating Layer reshape_frames
I0730 10:49:00.427886 19322 net.cpp:425] reshape_frames <- embedded_in_frames
I0730 10:49:00.427899 19322 net.cpp:399] reshape_frames -> embedded_input_frames
I0730 10:49:00.430354 19322 net.cpp:141] Setting up reshape_frames
I0730 10:49:00.430411 19322 net.cpp:148] Top shape: 1 1 500 (500)
I0730 10:49:00.430419 19322 net.cpp:156] Memory required for data: 20404
I0730 10:49:00.430431 19322 layer_factory.hpp:77] Creating layer reshape_stage_indicator
I0730 10:49:00.430466 19322 net.cpp:91] Creating Layer reshape_stage_indicator
I0730 10:49:00.430475 19322 net.cpp:425] reshape_stage_indicator <- stage_indicator
I0730 10:49:00.430490 19322 net.cpp:399] reshape_stage_indicator -> reshaped_stage_indicator
I0730 10:49:00.430665 19322 net.cpp:141] Setting up reshape_stage_indicator
I0730 10:49:00.430697 19322 net.cpp:148] Top shape: 1 1 1 (1)
I0730 10:49:00.430704 19322 net.cpp:156] Memory required for data: 20408
I0730 10:49:00.430711 19322 layer_factory.hpp:77] Creating layer embedding
I0730 10:49:00.430730 19322 net.cpp:91] Creating Layer embedding
I0730 10:49:00.430737 19322 net.cpp:425] embedding <- input_sentence
I0730 10:49:00.430747 19322 net.cpp:399] embedding -> embedded_input_sentence
I0730 10:49:00.561120 19333 net.cpp:141] Setting up conv1
I0730 10:49:00.561182 19333 net.cpp:148] Top shape: 10 96 55 55 (2904000)
I0730 10:49:00.561189 19333 net.cpp:156] Memory required for data: 17799480
I0730 10:49:00.561211 19333 layer_factory.hpp:77] Creating layer relu1
I0730 10:49:00.561226 19333 net.cpp:91] Creating Layer relu1
I0730 10:49:00.561233 19333 net.cpp:425] relu1 <- conv1
I0730 10:49:00.561241 19333 net.cpp:386] relu1 -> conv1 (in-place)
I0730 10:49:00.561902 19333 net.cpp:141] Setting up relu1
I0730 10:49:00.561916 19333 net.cpp:148] Top shape: 10 96 55 55 (2904000)
I0730 10:49:00.561921 19333 net.cpp:156] Memory required for data: 29415480
I0730 10:49:00.561926 19333 layer_factory.hpp:77] Creating layer pool1
I0730 10:49:00.561939 19333 net.cpp:91] Creating Layer pool1
I0730 10:49:00.561944 19333 net.cpp:425] pool1 <- conv1
I0730 10:49:00.561951 19333 net.cpp:399] pool1 -> pool1
I0730 10:49:00.562013 19333 net.cpp:141] Setting up pool1
I0730 10:49:00.562024 19333 net.cpp:148] Top shape: 10 96 27 27 (699840)
I0730 10:49:00.562029 19333 net.cpp:156] Memory required for data: 32214840
I0730 10:49:00.562034 19333 layer_factory.hpp:77] Creating layer norm1
I0730 10:49:00.562050 19333 net.cpp:91] Creating Layer norm1
I0730 10:49:00.562055 19333 net.cpp:425] norm1 <- pool1
I0730 10:49:00.562062 19333 net.cpp:399] norm1 -> norm1
I0730 10:49:00.562775 19333 net.cpp:141] Setting up norm1
I0730 10:49:00.562789 19333 net.cpp:148] Top shape: 10 96 27 27 (699840)
I0730 10:49:00.562794 19333 net.cpp:156] Memory required for data: 35014200
I0730 10:49:00.562800 19333 layer_factory.hpp:77] Creating layer conv2
I0730 10:49:00.562814 19333 net.cpp:91] Creating Layer conv2
I0730 10:49:00.562820 19333 net.cpp:425] conv2 <- norm1
I0730 10:49:00.562829 19333 net.cpp:399] conv2 -> conv2
I0730 10:49:00.567090 19333 net.cpp:141] Setting up conv2
I0730 10:49:00.567109 19333 net.cpp:148] Top shape: 10 256 27 27 (1866240)
I0730 10:49:00.567114 19333 net.cpp:156] Memory required for data: 42479160
I0730 10:49:00.567128 19333 layer_factory.hpp:77] Creating layer relu2
I0730 10:49:00.567142 19333 net.cpp:91] Creating Layer relu2
I0730 10:49:00.567147 19333 net.cpp:425] relu2 <- conv2
I0730 10:49:00.567154 19333 net.cpp:386] relu2 -> conv2 (in-place)
I0730 10:49:00.567890 19333 net.cpp:141] Setting up relu2
I0730 10:49:00.567903 19333 net.cpp:148] Top shape: 10 256 27 27 (1866240)
I0730 10:49:00.567909 19333 net.cpp:156] Memory required for data: 49944120
I0730 10:49:00.567914 19333 layer_factory.hpp:77] Creating layer pool2
I0730 10:49:00.567926 19333 net.cpp:91] Creating Layer pool2
I0730 10:49:00.567931 19333 net.cpp:425] pool2 <- conv2
I0730 10:49:00.567941 19333 net.cpp:399] pool2 -> pool2
I0730 10:49:00.567996 19333 net.cpp:141] Setting up pool2
I0730 10:49:00.568006 19333 net.cpp:148] Top shape: 10 256 13 13 (432640)
I0730 10:49:00.568011 19333 net.cpp:156] Memory required for data: 51674680
I0730 10:49:00.568014 19333 layer_factory.hpp:77] Creating layer norm2
I0730 10:49:00.568027 19333 net.cpp:91] Creating Layer norm2
I0730 10:49:00.568032 19333 net.cpp:425] norm2 <- pool2
I0730 10:49:00.568038 19333 net.cpp:399] norm2 -> norm2
I0730 10:49:00.568307 19333 net.cpp:141] Setting up norm2
I0730 10:49:00.568320 19333 net.cpp:148] Top shape: 10 256 13 13 (432640)
I0730 10:49:00.568325 19333 net.cpp:156] Memory required for data: 53405240
I0730 10:49:00.568331 19333 layer_factory.hpp:77] Creating layer conv3
I0730 10:49:00.568343 19333 net.cpp:91] Creating Layer conv3
I0730 10:49:00.568349 19333 net.cpp:425] conv3 <- norm2
I0730 10:49:00.568356 19333 net.cpp:399] conv3 -> conv3
I0730 10:49:00.573415 19333 net.cpp:141] Setting up conv3
I0730 10:49:00.573446 19333 net.cpp:148] Top shape: 10 384 13 13 (648960)
I0730 10:49:00.573451 19333 net.cpp:156] Memory required for data: 56001080
I0730 10:49:00.573467 19333 layer_factory.hpp:77] Creating layer relu3
I0730 10:49:00.573483 19333 net.cpp:91] Creating Layer relu3
I0730 10:49:00.573489 19333 net.cpp:425] relu3 <- conv3
I0730 10:49:00.573498 19333 net.cpp:386] relu3 -> conv3 (in-place)
I0730 10:49:00.574235 19333 net.cpp:141] Setting up relu3
I0730 10:49:00.574250 19333 net.cpp:148] Top shape: 10 384 13 13 (648960)
I0730 10:49:00.574255 19333 net.cpp:156] Memory required for data: 58596920
I0730 10:49:00.574260 19333 layer_factory.hpp:77] Creating layer conv4
I0730 10:49:00.574277 19333 net.cpp:91] Creating Layer conv4
I0730 10:49:00.574282 19333 net.cpp:425] conv4 <- conv3
I0730 10:49:00.574292 19333 net.cpp:399] conv4 -> conv4
I0730 10:49:00.580008 19333 net.cpp:141] Setting up conv4
I0730 10:49:00.580041 19333 net.cpp:148] Top shape: 10 384 13 13 (648960)
I0730 10:49:00.580047 19333 net.cpp:156] Memory required for data: 61192760
I0730 10:49:00.580060 19333 layer_factory.hpp:77] Creating layer relu4
I0730 10:49:00.580071 19333 net.cpp:91] Creating Layer relu4
I0730 10:49:00.580077 19333 net.cpp:425] relu4 <- conv4
I0730 10:49:00.580085 19333 net.cpp:386] relu4 -> conv4 (in-place)
I0730 10:49:00.580849 19333 net.cpp:141] Setting up relu4
I0730 10:49:00.580868 19333 net.cpp:148] Top shape: 10 384 13 13 (648960)
I0730 10:49:00.580878 19333 net.cpp:156] Memory required for data: 63788600
I0730 10:49:00.580883 19333 layer_factory.hpp:77] Creating layer conv5
I0730 10:49:00.580896 19333 net.cpp:91] Creating Layer conv5
I0730 10:49:00.580902 19333 net.cpp:425] conv5 <- conv4
I0730 10:49:00.580919 19333 net.cpp:399] conv5 -> conv5
I0730 10:49:00.586436 19333 net.cpp:141] Setting up conv5
I0730 10:49:00.586458 19333 net.cpp:148] Top shape: 10 256 13 13 (432640)
I0730 10:49:00.586465 19333 net.cpp:156] Memory required for data: 65519160
I0730 10:49:00.586480 19333 layer_factory.hpp:77] Creating layer relu5
I0730 10:49:00.586491 19333 net.cpp:91] Creating Layer relu5
I0730 10:49:00.586496 19333 net.cpp:425] relu5 <- conv5
I0730 10:49:00.586503 19333 net.cpp:386] relu5 -> conv5 (in-place)
I0730 10:49:00.587249 19333 net.cpp:141] Setting up relu5
I0730 10:49:00.587262 19333 net.cpp:148] Top shape: 10 256 13 13 (432640)
I0730 10:49:00.587267 19333 net.cpp:156] Memory required for data: 67249720
I0730 10:49:00.587272 19333 layer_factory.hpp:77] Creating layer pool5
I0730 10:49:00.587281 19333 net.cpp:91] Creating Layer pool5
I0730 10:49:00.587287 19333 net.cpp:425] pool5 <- conv5
I0730 10:49:00.587297 19333 net.cpp:399] pool5 -> pool5
I0730 10:49:00.587359 19333 net.cpp:141] Setting up pool5
I0730 10:49:00.587368 19333 net.cpp:148] Top shape: 10 256 6 6 (92160)
I0730 10:49:00.587373 19333 net.cpp:156] Memory required for data: 67618360
I0730 10:49:00.587378 19333 layer_factory.hpp:77] Creating layer fc6
I0730 10:49:00.587394 19333 net.cpp:91] Creating Layer fc6
I0730 10:49:00.587399 19333 net.cpp:425] fc6 <- pool5
I0730 10:49:00.587409 19333 net.cpp:399] fc6 -> fc6
I0730 10:49:00.662106 19322 net.cpp:141] Setting up embedding
I0730 10:49:00.662156 19322 net.cpp:148] Top shape: 1 1 500 (500)
I0730 10:49:00.662161 19322 net.cpp:156] Memory required for data: 22408
I0730 10:49:00.662179 19322 layer_factory.hpp:77] Creating layer lstm1
I0730 10:49:00.662200 19322 net.cpp:91] Creating Layer lstm1
I0730 10:49:00.662209 19322 net.cpp:425] lstm1 <- embedded_input_frames
I0730 10:49:00.662219 19322 net.cpp:425] lstm1 <- cont_sentence_input_1_split_0
I0730 10:49:00.662230 19322 net.cpp:399] lstm1 -> lstm1
I0730 10:49:00.662256 19322 recurrent_layer.cpp:20] Initializing recurrent layer: assuming input batch contains 1 timesteps of 1 independent streams.
I0730 10:49:00.662618 19322 net.cpp:49] Initializing net from parameters: 
layer {
  name: "lstm1_"
  type: "Input"
  top: "x"
  top: "cont"
  input_param {
    shape {
      dim: 1
      dim: 1
      dim: 500
    }
    shape {
      dim: 1
      dim: 1
    }
  }
}
layer {
  name: "lstm1_"
  type: "Input"
  top: "c_0"
  top: "h_0"
  input_param {
    shape {
      dim: 1
      dim: 1
      dim: 1000
    }
    shape {
      dim: 1
      dim: 1
      dim: 1000
    }
  }
}
layer {
  name: "lstm1_cont_slice"
  type: "Slice"
  bottom: "cont"
  top: "cont_1"
  slice_param {
    axis: 0
  }
}
layer {
  name: "lstm1_x_transform"
  type: "InnerProduct"
  bottom: "x"
  top: "W_xc_x"
  param {
    name: "W_xc"
  }
  param {
    name: "b_c"
  }
  propagate_down: true
  inner_product_param {
    num_output: 4000
    bias_term: true
    weight_filler {
      type: "uniform"
      min: -0.08
      max: 0.08
    }
    bias_filler {
      type: "constant"
      value: 0
    }
    axis: 2
  }
}
layer {
  name: "lstm1_W_xc_x_slice"
  type: "Slice"
  bottom: "W_xc_x"
  top: "W_xc_x_1"
  slice_param {
    axis: 0
  }
}
layer {
  name: "lstm1_h_conted_0"
  type: "Scale"
  bottom: "h_0"
  bottom: "cont_1"
  top: "h_conted_0"
  scale_param {
    axis: 0
  }
}
layer {
  name: "lstm1_transform_1"
  type: "InnerProduct"
  bottom: "h_conted_0"
  top: "W_hc_h_0"
  param {
    name: "W_hc"
  }
  inner_product_param {
    num_output: 4000
    bias_term: false
    weight_filler {
      type: "uniform"
      min: -0.08
      max: 0.08
    }
    axis: 2
  }
}
layer {
  name: "lstm1_gate_input_1"
  type: "Eltwise"
  bottom: "W_hc_h_0"
  bottom: "W_xc_x_1"
  top: "gate_input_1"
  eltwise_param {
    operation: SUM
  }
}
layer {
  name: "lstm1_unit_1"
  type: "LSTMUnit"
  bottom: "c_0"
  bottom: "gate_input_1"
  bottom: "cont_1"
  top: "c_1"
  top: "h_1"
}
layer {
  name: "lstm1_"
  type: "Split"
  bottom: "c_1"
  top: "c_T"
}
layer {
  name: "lstm1_h_concat"
  type: "Concat"
  bottom: "h_1"
  top: "h"
  concat_param {
    axis: 0
  }
}
layer {
  name: "h_pseudoloss"
  type: "Reduction"
  bottom: "h"
  top: "h_pseudoloss"
  loss_weight: 1
}
I0730 10:49:00.662740 19322 layer_factory.hpp:77] Creating layer lstm1_
I0730 10:49:00.662753 19322 net.cpp:91] Creating Layer lstm1_
I0730 10:49:00.662760 19322 net.cpp:399] lstm1_ -> x
I0730 10:49:00.662772 19322 net.cpp:399] lstm1_ -> cont
I0730 10:49:00.662833 19322 net.cpp:141] Setting up lstm1_
I0730 10:49:00.662844 19322 net.cpp:148] Top shape: 1 1 500 (500)
I0730 10:49:00.662850 19322 net.cpp:148] Top shape: 1 1 (1)
I0730 10:49:00.662855 19322 net.cpp:156] Memory required for data: 2004
I0730 10:49:00.662859 19322 layer_factory.hpp:77] Creating layer lstm1_
I0730 10:49:00.662871 19322 net.cpp:91] Creating Layer lstm1_
I0730 10:49:00.662879 19322 net.cpp:399] lstm1_ -> c_0
I0730 10:49:00.662889 19322 net.cpp:399] lstm1_ -> h_0
I0730 10:49:00.662940 19322 net.cpp:141] Setting up lstm1_
I0730 10:49:00.662948 19322 net.cpp:148] Top shape: 1 1 1000 (1000)
I0730 10:49:00.662955 19322 net.cpp:148] Top shape: 1 1 1000 (1000)
I0730 10:49:00.662960 19322 net.cpp:156] Memory required for data: 10004
I0730 10:49:00.662963 19322 layer_factory.hpp:77] Creating layer lstm1_cont_slice
I0730 10:49:00.662974 19322 net.cpp:91] Creating Layer lstm1_cont_slice
I0730 10:49:00.662979 19322 net.cpp:425] lstm1_cont_slice <- cont
I0730 10:49:00.662986 19322 net.cpp:399] lstm1_cont_slice -> cont_1
I0730 10:49:00.663023 19322 net.cpp:141] Setting up lstm1_cont_slice
I0730 10:49:00.663033 19322 net.cpp:148] Top shape: 1 1 (1)
I0730 10:49:00.663038 19322 net.cpp:156] Memory required for data: 10008
I0730 10:49:00.663043 19322 layer_factory.hpp:77] Creating layer cont_1_lstm1_cont_slice_0_split
I0730 10:49:00.663049 19322 net.cpp:91] Creating Layer cont_1_lstm1_cont_slice_0_split
I0730 10:49:00.663054 19322 net.cpp:425] cont_1_lstm1_cont_slice_0_split <- cont_1
I0730 10:49:00.663074 19322 net.cpp:399] cont_1_lstm1_cont_slice_0_split -> cont_1_lstm1_cont_slice_0_split_0
I0730 10:49:00.663084 19322 net.cpp:399] cont_1_lstm1_cont_slice_0_split -> cont_1_lstm1_cont_slice_0_split_1
I0730 10:49:00.663128 19322 net.cpp:141] Setting up cont_1_lstm1_cont_slice_0_split
I0730 10:49:00.663139 19322 net.cpp:148] Top shape: 1 1 (1)
I0730 10:49:00.663146 19322 net.cpp:148] Top shape: 1 1 (1)
I0730 10:49:00.663149 19322 net.cpp:156] Memory required for data: 10016
I0730 10:49:00.663153 19322 layer_factory.hpp:77] Creating layer lstm1_x_transform
I0730 10:49:00.663163 19322 net.cpp:91] Creating Layer lstm1_x_transform
I0730 10:49:00.663168 19322 net.cpp:425] lstm1_x_transform <- x
I0730 10:49:00.663177 19322 net.cpp:399] lstm1_x_transform -> W_xc_x
I0730 10:49:00.683377 19322 net.cpp:141] Setting up lstm1_x_transform
I0730 10:49:00.683423 19322 net.cpp:148] Top shape: 1 1 4000 (4000)
I0730 10:49:00.683429 19322 net.cpp:156] Memory required for data: 26016
I0730 10:49:00.683449 19322 layer_factory.hpp:77] Creating layer lstm1_W_xc_x_slice
I0730 10:49:00.683465 19322 net.cpp:91] Creating Layer lstm1_W_xc_x_slice
I0730 10:49:00.683471 19322 net.cpp:425] lstm1_W_xc_x_slice <- W_xc_x
I0730 10:49:00.683481 19322 net.cpp:399] lstm1_W_xc_x_slice -> W_xc_x_1
I0730 10:49:00.683528 19322 net.cpp:141] Setting up lstm1_W_xc_x_slice
I0730 10:49:00.683538 19322 net.cpp:148] Top shape: 1 1 4000 (4000)
I0730 10:49:00.683543 19322 net.cpp:156] Memory required for data: 42016
I0730 10:49:00.683547 19322 layer_factory.hpp:77] Creating layer lstm1_h_conted_0
I0730 10:49:00.683558 19322 net.cpp:91] Creating Layer lstm1_h_conted_0
I0730 10:49:00.683563 19322 net.cpp:425] lstm1_h_conted_0 <- h_0
I0730 10:49:00.683568 19322 net.cpp:425] lstm1_h_conted_0 <- cont_1_lstm1_cont_slice_0_split_0
I0730 10:49:00.683575 19322 net.cpp:399] lstm1_h_conted_0 -> h_conted_0
I0730 10:49:00.683663 19322 net.cpp:141] Setting up lstm1_h_conted_0
I0730 10:49:00.683673 19322 net.cpp:148] Top shape: 1 1 1000 (1000)
I0730 10:49:00.683677 19322 net.cpp:156] Memory required for data: 46016
I0730 10:49:00.683682 19322 layer_factory.hpp:77] Creating layer lstm1_transform_1
I0730 10:49:00.683694 19322 net.cpp:91] Creating Layer lstm1_transform_1
I0730 10:49:00.683699 19322 net.cpp:425] lstm1_transform_1 <- h_conted_0
I0730 10:49:00.683707 19322 net.cpp:399] lstm1_transform_1 -> W_hc_h_0
I0730 10:49:00.692242 19333 net.cpp:141] Setting up fc6
I0730 10:49:00.692291 19333 net.cpp:148] Top shape: 10 4096 (40960)
I0730 10:49:00.692297 19333 net.cpp:156] Memory required for data: 67782200
I0730 10:49:00.692312 19333 layer_factory.hpp:77] Creating layer relu6
I0730 10:49:00.692328 19333 net.cpp:91] Creating Layer relu6
I0730 10:49:00.692334 19333 net.cpp:425] relu6 <- fc6
I0730 10:49:00.692348 19333 net.cpp:386] relu6 -> fc6 (in-place)
I0730 10:49:00.692667 19333 net.cpp:141] Setting up relu6
I0730 10:49:00.692678 19333 net.cpp:148] Top shape: 10 4096 (40960)
I0730 10:49:00.692682 19333 net.cpp:156] Memory required for data: 67946040
I0730 10:49:00.692687 19333 layer_factory.hpp:77] Creating layer drop6
I0730 10:49:00.692708 19333 net.cpp:91] Creating Layer drop6
I0730 10:49:00.692714 19333 net.cpp:425] drop6 <- fc6
I0730 10:49:00.692721 19333 net.cpp:386] drop6 -> fc6 (in-place)
I0730 10:49:00.692773 19333 net.cpp:141] Setting up drop6
I0730 10:49:00.692782 19333 net.cpp:148] Top shape: 10 4096 (40960)
I0730 10:49:00.692787 19333 net.cpp:156] Memory required for data: 68109880
I0730 10:49:00.692791 19333 layer_factory.hpp:77] Creating layer fc7
I0730 10:49:00.692805 19333 net.cpp:91] Creating Layer fc7
I0730 10:49:00.692809 19333 net.cpp:425] fc7 <- fc6
I0730 10:49:00.692816 19333 net.cpp:399] fc7 -> fc7
I0730 10:49:00.722396 19322 net.cpp:141] Setting up lstm1_transform_1
I0730 10:49:00.722443 19322 net.cpp:148] Top shape: 1 1 4000 (4000)
I0730 10:49:00.722450 19322 net.cpp:156] Memory required for data: 62016
I0730 10:49:00.722466 19322 layer_factory.hpp:77] Creating layer lstm1_gate_input_1
I0730 10:49:00.722486 19322 net.cpp:91] Creating Layer lstm1_gate_input_1
I0730 10:49:00.722492 19322 net.cpp:425] lstm1_gate_input_1 <- W_hc_h_0
I0730 10:49:00.722501 19322 net.cpp:425] lstm1_gate_input_1 <- W_xc_x_1
I0730 10:49:00.722509 19322 net.cpp:399] lstm1_gate_input_1 -> gate_input_1
I0730 10:49:00.722580 19322 net.cpp:141] Setting up lstm1_gate_input_1
I0730 10:49:00.722590 19322 net.cpp:148] Top shape: 1 1 4000 (4000)
I0730 10:49:00.722594 19322 net.cpp:156] Memory required for data: 78016
I0730 10:49:00.722599 19322 layer_factory.hpp:77] Creating layer lstm1_unit_1
I0730 10:49:00.722610 19322 net.cpp:91] Creating Layer lstm1_unit_1
I0730 10:49:00.722616 19322 net.cpp:425] lstm1_unit_1 <- c_0
I0730 10:49:00.722622 19322 net.cpp:425] lstm1_unit_1 <- gate_input_1
I0730 10:49:00.722627 19322 net.cpp:425] lstm1_unit_1 <- cont_1_lstm1_cont_slice_0_split_1
I0730 10:49:00.722635 19322 net.cpp:399] lstm1_unit_1 -> c_1
I0730 10:49:00.722643 19322 net.cpp:399] lstm1_unit_1 -> h_1
I0730 10:49:00.722718 19322 net.cpp:141] Setting up lstm1_unit_1
I0730 10:49:00.722728 19322 net.cpp:148] Top shape: 1 1 1000 (1000)
I0730 10:49:00.722735 19322 net.cpp:148] Top shape: 1 1 1000 (1000)
I0730 10:49:00.722739 19322 net.cpp:156] Memory required for data: 86016
I0730 10:49:00.722744 19322 layer_factory.hpp:77] Creating layer lstm1_
I0730 10:49:00.722753 19322 net.cpp:91] Creating Layer lstm1_
I0730 10:49:00.722757 19322 net.cpp:425] lstm1_ <- c_1
I0730 10:49:00.722764 19322 net.cpp:399] lstm1_ -> c_T
I0730 10:49:00.722795 19322 net.cpp:141] Setting up lstm1_
I0730 10:49:00.722803 19322 net.cpp:148] Top shape: 1 1 1000 (1000)
I0730 10:49:00.722807 19322 net.cpp:156] Memory required for data: 90016
I0730 10:49:00.722811 19322 layer_factory.hpp:77] Creating layer lstm1_h_concat
I0730 10:49:00.722825 19322 net.cpp:91] Creating Layer lstm1_h_concat
I0730 10:49:00.722829 19322 net.cpp:425] lstm1_h_concat <- h_1
I0730 10:49:00.722836 19322 net.cpp:399] lstm1_h_concat -> h
I0730 10:49:00.722873 19322 net.cpp:141] Setting up lstm1_h_concat
I0730 10:49:00.722882 19322 net.cpp:148] Top shape: 1 1 1000 (1000)
I0730 10:49:00.722887 19322 net.cpp:156] Memory required for data: 94016
I0730 10:49:00.722892 19322 layer_factory.hpp:77] Creating layer h_pseudoloss
I0730 10:49:00.722908 19322 net.cpp:91] Creating Layer h_pseudoloss
I0730 10:49:00.722913 19322 net.cpp:425] h_pseudoloss <- h
I0730 10:49:00.722923 19322 net.cpp:399] h_pseudoloss -> h_pseudoloss
I0730 10:49:00.723024 19322 net.cpp:141] Setting up h_pseudoloss
…
I0730 10:49:00.723140 19322 net.cpp:219] lstm1_ does not need backward computation.
I0730 10:49:00.723145 19322 net.cpp:261] This network produces output c_T
I0730 10:49:00.723148 19322 net.cpp:261] This network produces output h_pseudoloss
I0730 10:49:00.723166 19322 net.cpp:274] Network initialization done.
I0730 10:49:00.723225 19322 recurrent_layer.cpp:150] Adding parameter 0: W_xc
I0730 10:49:00.723232 19322 recurrent_layer.cpp:150] Adding parameter 1: b_c
I0730 10:49:00.723237 19322 recurrent_layer.cpp:150] Adding parameter 2: W_hc
I0730 10:49:00.723343 19322 net.cpp:141] Setting up lstm1
I0730 10:49:00.723354 19322 net.cpp:148] Top shape: 1 1 1000 (1000)
I0730 10:49:00.723359 19322 net.cpp:156] Memory required for data: 26408
I0730 10:49:00.723371 19322 layer_factory.hpp:77] Creating layer concat
I0730 10:49:00.723381 19322 net.cpp:91] Creating Layer concat
I0730 10:49:00.723387 19322 net.cpp:425] concat <- lstm1
I0730 10:49:00.723393 19322 net.cpp:425] concat <- embedded_input_sentence
I0730 10:49:00.723398 19322 net.cpp:425] concat <- reshaped_stage_indicator
I0730 10:49:00.723404 19322 net.cpp:399] concat -> lstm1_video_sequence
I0730 10:49:00.723436 19322 net.cpp:141] Setting up concat
I0730 10:49:00.723444 19322 net.cpp:148] Top shape: 1 1 1501 (1501)
I0730 10:49:00.723448 19322 net.cpp:156] Memory required for data: 32412
I0730 10:49:00.723453 19322 layer_factory.hpp:77] Creating layer lstm2
I0730 10:49:00.723464 19322 net.cpp:91] Creating Layer lstm2
I0730 10:49:00.723469 19322 net.cpp:425] lstm2 <- lstm1_video_sequence
I0730 10:49:00.723475 19322 net.cpp:425] lstm2 <- cont_sentence_input_1_split_1
I0730 10:49:00.723482 19322 net.cpp:399] lstm2 -> lstm2
I0730 10:49:00.723492 19322 recurrent_layer.cpp:20] Initializing recurrent layer: assuming input batch contains 1 timesteps of 1 independent streams.
I0730 10:49:00.723724 19322 net.cpp:49] Initializing net from parameters: 
layer {
  name: "lstm2_"
  type: "Input"
  top: "x"
  top: "cont"
  input_param {
    shape {
      dim: 1
      dim: 1
      dim: 1501
    }
    shape {
      dim: 1
      dim: 1
    }
  }
}
layer {
  name: "lstm2_"
  type: "Input"
  top: "c_0"
  top: "h_0"
  input_param {
    shape {
      dim: 1
      dim: 1
      dim: 1000
    }
    shape {
      dim: 1
      dim: 1
      dim: 1000
    }
  }
}
layer {
  name: "lstm2_cont_slice"
  type: "Slice"
  bottom: "cont"
  top: "cont_1"
  slice_param {
    axis: 0
  }
}
layer {
  name: "lstm2_x_transform"
  type: "InnerProduct"
  bottom: "x"
  top: "W_xc_x"
  param {
    name: "W_xc"
  }
  param {
    name: "b_c"
  }
  propagate_down: true
  inner_product_param {
    num_output: 4000
    bias_term: true
    weight_filler {
      type: "uniform"
      min: -0.08
      max: 0.08
    }
    bias_filler {
      type: "constant"
      value: 0
    }
    axis: 2
  }
}
layer {
  name: "lstm2_W_xc_x_slice"
  type: "Slice"
  bottom: "W_xc_x"
  top: "W_xc_x_1"
  slice_param {
    axis: 0
  }
}
layer {
  name: "lstm2_h_conted_0"
  type: "Scale"
  bottom: "h_0"
  bottom: "cont_1"
  top: "h_conted_0"
  scale_param {
    axis: 0
  }
}
layer {
  name: "lstm2_transform_1"
  type: "InnerProduct"
  bottom: "h_conted_0"
  top: "W_hc_h_0"
  param {
    name: "W_hc"
  }
  inner_product_param {
    num_output: 4000
    bias_term: false
    weight_filler {
      type: "uniform"
      min: -0.08
      max: 0.08
    }
    axis: 2
  }
}
layer {
  name: "lstm2_gate_input_1"
  type: "Eltwise"
  bottom: "W_hc_h_0"
  bottom: "W_xc_x_1"
  top: "gate_input_1"
  eltwise_param {
    operation: SUM
  }
}
layer {
  name: "lstm2_unit_1"
  type: "LSTMUnit"
  bottom: "c_0"
  bottom: "gate_input_1"
  bottom: "cont_1"
  top: "c_1"
  top: "h_1"
}
layer {
  name: "lstm2_"
  type: "Split"
  bottom: "c_1"
  top: "c_T"
}
layer {
  name: "lstm2_h_concat"
  type: "Concat"
  bottom: "h_1"
  top: "h"
  concat_param {
    axis: 0
  }
}
layer {
  name: "h_pseudoloss"
  type: "Reduction"
  bottom: "h"
  top: "h_pseudoloss"
  loss_weight: 1
}
I0730 10:49:00.723806 19322 layer_factory.hpp:77] Creating layer lstm2_
I0730 10:49:00.723819 19322 net.cpp:91] Creating Layer lstm2_
I0730 10:49:00.723824 19322 net.cpp:399] lstm2_ -> x
I0730 10:49:00.723834 19322 net.cpp:399] lstm2_ -> cont
I0730 10:49:00.723884 19322 net.cpp:141] Setting up lstm2_
I0730 10:49:00.723893 19322 net.cpp:148] Top shape: 1 1 1501 (1501)
I0730 10:49:00.723899 19322 net.cpp:148] Top shape: 1 1 (1)
I0730 10:49:00.723903 19322 net.cpp:156] Memory required for data: 6008
I0730 10:49:00.723909 19322 layer_factory.hpp:77] Creating layer lstm2_
I0730 10:49:00.723917 19322 net.cpp:91] Creating Layer lstm2_
I0730 10:49:00.723923 19322 net.cpp:399] lstm2_ -> c_0
I0730 10:49:00.723932 19322 net.cpp:399] lstm2_ -> h_0
I0730 10:49:00.723978 19322 net.cpp:141] Setting up lstm2_
I0730 10:49:00.723987 19322 net.cpp:148] Top shape: 1 1 1000 (1000)
I0730 10:49:00.723994 19322 net.cpp:148] Top shape: 1 1 1000 (1000)
I0730 10:49:00.723997 19322 net.cpp:156] Memory required for data: 14008
I0730 10:49:00.724001 19322 layer_factory.hpp:77] Creating layer lstm2_cont_slice
I0730 10:49:00.724009 19322 net.cpp:91] Creating Layer lstm2_cont_slice
I0730 10:49:00.724014 19322 net.cpp:425] lstm2_cont_slice <- cont
I0730 10:49:00.724022 19322 net.cpp:399] lstm2_cont_slice -> cont_1
I0730 10:49:00.724055 19322 net.cpp:141] Setting up lstm2_cont_slice
I0730 10:49:00.724063 19322 net.cpp:148] Top shape: 1 1 (1)
I0730 10:49:00.724067 19322 net.cpp:156] Memory required for data: 14012
I0730 10:49:00.724071 19322 layer_factory.hpp:77] Creating layer cont_1_lstm2_cont_slice_0_split
I0730 10:49:00.724078 19322 net.cpp:91] Creating Layer cont_1_lstm2_cont_slice_0_split
I0730 10:49:00.724082 19322 net.cpp:425] cont_1_lstm2_cont_slice_0_split <- cont_1
I0730 10:49:00.724088 19322 net.cpp:399] cont_1_lstm2_cont_slice_0_split -> cont_1_lstm2_cont_slice_0_split_0
I0730 10:49:00.724097 19322 net.cpp:399] cont_1_lstm2_cont_slice_0_split -> cont_1_lstm2_cont_slice_0_split_1
I0730 10:49:00.724141 19322 net.cpp:141] Setting up cont_1_lstm2_cont_slice_0_split
I0730 10:49:00.724149 19322 net.cpp:148] Top shape: 1 1 (1)
I0730 10:49:00.724155 19322 net.cpp:148] Top shape: 1 1 (1)
I0730 10:49:00.724159 19322 net.cpp:156] Memory required for data: 14020
I0730 10:49:00.724164 19322 layer_factory.hpp:77] Creating layer lstm2_x_transform
I0730 10:49:00.724176 19322 net.cpp:91] Creating Layer lstm2_x_transform
I0730 10:49:00.724180 19322 net.cpp:425] lstm2_x_transform <- x
I0730 10:49:00.724189 19322 net.cpp:399] lstm2_x_transform -> W_xc_x
I0730 10:49:00.739758 19333 net.cpp:141] Setting up fc7
I0730 10:49:00.739801 19333 net.cpp:148] Top shape: 10 4096 (40960)
I0730 10:49:00.739806 19333 net.cpp:156] Memory required for data: 68273720
I0730 10:49:00.739820 19333 layer_factory.hpp:77] Creating layer relu7
I0730 10:49:00.739838 19333 net.cpp:91] Creating Layer relu7
I0730 10:49:00.739845 19333 net.cpp:425] relu7 <- fc7
I0730 10:49:00.739855 19333 net.cpp:386] relu7 -> fc7 (in-place)
I0730 10:49:00.741279 19333 net.cpp:141] Setting up relu7
I0730 10:49:00.741291 19333 net.cpp:148] Top shape: 10 4096 (40960)
I0730 10:49:00.741297 19333 net.cpp:156] Memory required for data: 68437560
I0730 10:49:00.741302 19333 layer_factory.hpp:77] Creating layer drop7
I0730 10:49:00.741314 19333 net.cpp:91] Creating Layer drop7
I0730 10:49:00.741319 19333 net.cpp:425] drop7 <- fc7
I0730 10:49:00.741328 19333 net.cpp:386] drop7 -> fc7 (in-place)
I0730 10:49:00.741364 19333 net.cpp:141] Setting up drop7
I0730 10:49:00.741372 19333 net.cpp:148] Top shape: 10 4096 (40960)
I0730 10:49:00.741377 19333 net.cpp:156] Memory required for data: 68601400
I0730 10:49:00.741381 19333 layer_factory.hpp:77] Creating layer fc8
I0730 10:49:00.741391 19333 net.cpp:91] Creating Layer fc8
I0730 10:49:00.741395 19333 net.cpp:425] fc8 <- fc7
I0730 10:49:00.741406 19333 net.cpp:399] fc8 -> fc8
I0730 10:49:00.753702 19333 net.cpp:141] Setting up fc8
I0730 10:49:00.753746 19333 net.cpp:148] Top shape: 10 1000 (10000)
I0730 10:49:00.753751 19333 net.cpp:156] Memory required for data: 68641400
I0730 10:49:00.753764 19333 layer_factory.hpp:77] Creating layer prob
I0730 10:49:00.753780 19333 net.cpp:91] Creating Layer prob
I0730 10:49:00.753787 19333 net.cpp:425] prob <- fc8
I0730 10:49:00.753795 19333 net.cpp:399] prob -> prob
I0730 10:49:00.754184 19333 net.cpp:141] Setting up prob
I0730 10:49:00.754196 19333 net.cpp:148] Top shape: 10 1000 (10000)
I0730 10:49:00.754201 19333 net.cpp:156] Memory required for data: 68681400
I0730 10:49:00.754206 19333 net.cpp:219] prob does not need backward computation.
I0730 10:49:00.754212 19333 net.cpp:219] fc8 does not need backward computation.
I0730 10:49:00.754216 19333 net.cpp:219] drop7 does not need backward computation.
I0730 10:49:00.754220 19333 net.cpp:219] relu7 does not need backward computation.
…
I0730 10:49:00.754287 19333 net.cpp:219] norm1 does not need backward computation.
I0730 10:49:00.754292 19333 net.cpp:219] pool1 does not need backward computation.
I0730 10:49:00.754295 19333 net.cpp:219] relu1 does not need backward computation.
I0730 10:49:00.754299 19333 net.cpp:219] conv1 does not need backward computation.
I0730 10:49:00.754303 19333 net.cpp:219] data does not need backward computation.
I0730 10:49:00.754307 19333 net.cpp:261] This network produces output prob
I0730 10:49:00.754324 19333 net.cpp:274] Network initialization done.
I0730 10:49:00.781507 19322 net.cpp:141] Setting up lstm2_x_transform
I0730 10:49:00.781550 19322 net.cpp:148] Top shape: 1 1 4000 (4000)
I0730 10:49:00.781556 19322 net.cpp:156] Memory required for data: 30020
I0730 10:49:00.781574 19322 layer_factory.hpp:77] Creating layer lstm2_W_xc_x_slice
I0730 10:49:00.781589 19322 net.cpp:91] Creating Layer lstm2_W_xc_x_slice
I0730 10:49:00.781595 19322 net.cpp:425] lstm2_W_xc_x_slice <- W_xc_x
I0730 10:49:00.781607 19322 net.cpp:399] lstm2_W_xc_x_slice -> W_xc_x_1
I0730 10:49:00.781651 19322 net.cpp:141] Setting up lstm2_W_xc_x_slice
I0730 10:49:00.781661 19322 net.cpp:148] Top shape: 1 1 4000 (4000)
I0730 10:49:00.781666 19322 net.cpp:156] Memory required for data: 46020
I0730 10:49:00.781672 19322 layer_factory.hpp:77] Creating layer lstm2_h_conted_0
I0730 10:49:00.781682 19322 net.cpp:91] Creating Layer lstm2_h_conted_0
I0730 10:49:00.781687 19322 net.cpp:425] lstm2_h_conted_0 <- h_0
I0730 10:49:00.781692 19322 net.cpp:425] lstm2_h_conted_0 <- cont_1_lstm2_cont_slice_0_split_0
I0730 10:49:00.781699 19322 net.cpp:399] lstm2_h_conted_0 -> h_conted_0
I0730 10:49:00.781790 19322 net.cpp:141] Setting up lstm2_h_conted_0
I0730 10:49:00.781800 19322 net.cpp:148] Top shape: 1 1 1000 (1000)
I0730 10:49:00.781805 19322 net.cpp:156] Memory required for data: 50020
I0730 10:49:00.781810 19322 layer_factory.hpp:77] Creating layer lstm2_transform_1
I0730 10:49:00.781821 19322 net.cpp:91] Creating Layer lstm2_transform_1
I0730 10:49:00.781827 19322 net.cpp:425] lstm2_transform_1 <- h_conted_0
I0730 10:49:00.781837 19322 net.cpp:399] lstm2_transform_1 -> W_hc_h_0
I0730 10:49:00.843531 19322 net.cpp:141] Setting up lstm2_transform_1
I0730 10:49:00.843591 19322 net.cpp:148] Top shape: 1 1 4000 (4000)
I0730 10:49:00.843598 19322 net.cpp:156] Memory required for data: 66020
I0730 10:49:00.843627 19322 layer_factory.hpp:77] Creating layer lstm2_gate_input_1
I0730 10:49:00.843654 19322 net.cpp:91] Creating Layer lstm2_gate_input_1
I0730 10:49:00.843664 19322 net.cpp:425] lstm2_gate_input_1 <- W_hc_h_0
I0730 10:49:00.843677 19322 net.cpp:425] lstm2_gate_input_1 <- W_xc_x_1
I0730 10:49:00.843690 19322 net.cpp:399] lstm2_gate_input_1 -> gate_input_1
I0730 10:49:00.843760 19322 net.cpp:141] Setting up lstm2_gate_input_1
I0730 10:49:00.843772 19322 net.cpp:148] Top shape: 1 1 4000 (4000)
I0730 10:49:00.843778 19322 net.cpp:156] Memory required for data: 82020
I0730 10:49:00.843785 19322 layer_factory.hpp:77] Creating layer lstm2_unit_1
I0730 10:49:00.843796 19322 net.cpp:91] Creating Layer lstm2_unit_1
I0730 10:49:00.843802 19322 net.cpp:425] lstm2_unit_1 <- c_0
I0730 10:49:00.843811 19322 net.cpp:425] lstm2_unit_1 <- gate_input_1
I0730 10:49:00.843817 19322 net.cpp:425] lstm2_unit_1 <- cont_1_lstm2_cont_slice_0_split_1
I0730 10:49:00.843827 19322 net.cpp:399] lstm2_unit_1 -> c_1
I0730 10:49:00.843842 19322 net.cpp:399] lstm2_unit_1 -> h_1
I0730 10:49:00.843922 19322 net.cpp:141] Setting up lstm2_unit_1
I0730 10:49:00.843935 19322 net.cpp:148] Top shape: 1 1 1000 (1000)
I0730 10:49:00.843942 19322 net.cpp:148] Top shape: 1 1 1000 (1000)
I0730 10:49:00.843947 19322 net.cpp:156] Memory required for data: 90020
I0730 10:49:00.843953 19322 layer_factory.hpp:77] Creating layer lstm2_
I0730 10:49:00.843964 19322 net.cpp:91] Creating Layer lstm2_
I0730 10:49:00.843971 19322 net.cpp:425] lstm2_ <- c_1
I0730 10:49:00.843979 19322 net.cpp:399] lstm2_ -> c_T
I0730 10:49:00.844023 19322 net.cpp:141] Setting up lstm2_
I0730 10:49:00.844035 19322 net.cpp:148] Top shape: 1 1 1000 (1000)
I0730 10:49:00.844041 19322 net.cpp:156] Memory required for data: 94020
I0730 10:49:00.844048 19322 layer_factory.hpp:77] Creating layer lstm2_h_concat
I0730 10:49:00.844061 19322 net.cpp:91] Creating Layer lstm2_h_concat
I0730 10:49:00.844068 19322 net.cpp:425] lstm2_h_concat <- h_1
I0730 10:49:00.844079 19322 net.cpp:399] lstm2_h_concat -> h
I0730 10:49:00.844122 19322 net.cpp:141] Setting up lstm2_h_concat
I0730 10:49:00.844133 19322 net.cpp:148] Top shape: 1 1 1000 (1000)
I0730 10:49:00.844138 19322 net.cpp:156] Memory required for data: 98020
I0730 10:49:00.844144 19322 layer_factory.hpp:77] Creating layer h_pseudoloss
I0730 10:49:00.844161 19322 net.cpp:91] Creating Layer h_pseudoloss
I0730 10:49:00.844168 19322 net.cpp:425] h_pseudoloss <- h
I0730 10:49:00.844177 19322 net.cpp:399] h_pseudoloss -> h_pseudoloss
I0730 10:49:00.844298 19322 net.cpp:141] Setting up h_pseudoloss
…
