…
W0924 03:13:06.463418 18668 upgrade_proto.cpp:71] Note that future Caffe releases will only support input layers and not input fields.
I0924 03:13:06.463754 18672 net.cpp:49] Initializing net from parameters: 
name: "s2vt:features_to_lstm"
state {
  phase: TEST
}
layer {
  name: "input"
  type: "Input"
  top: "frames_fc7"
  top: "cont_sentence"
  top: "input_sentence"
  top: "stage_indicator"
  input_param {
    shape {
      dim: 1
      dim: 4096
    }
    shape {
      dim: 1
      dim: 1
    }
    shape {
      dim: 1
      dim: 1
    }
    shape {
      dim: 1
      dim: 1
    }
  }
}
layer {
  name: "embed_encoder"
  type: "InnerProduct"
  bottom: "frames_fc7"
  top: "embedded_in_frames"
  param {
    lr_mult: 1
    decay_mult: 1
  }
  param {
    lr_mult: 2
    decay_mult: 0
  }
  inner_product_param {
    num_output: 500
    weight_filler {
      type: "xavier"
    }
    bias_filler {
      type: "constant"
      value: 0.2
    }
  }
}
layer {
  name: "reshape_frames"
  type: "Reshape"
  bottom: "embedded_in_frames"
  top: "embedded_input_frames"
  reshape_param {
    shape {
      dim: 1
      dim: 1
      dim: 500
    }
  }
}
layer {
  name: "reshape_stage_indicator"
  type: "Reshape"
  bottom: "stage_indicator"
  top: "reshaped_stage_indicator"
  reshape_param {
    shape {
      dim: 1
      dim: 1
      dim: 1
    }
  }
}
layer {
  name: "embedding"
  type: "Embed"
  bottom: "input_sentence"
  top: "embedded_input_sentence"
  param {
    lr_mult: 1
  }
  embed_param {
    num_output: 500
    input_dim: 46168
    bias_term: false
    weight_filler {
      type: "uniform"
      min: -0.08
      max: 0.08
    }
  }
}
layer {
  name: "lstm1"
  type: "LSTM"
  bottom: "embedded_input_frames"
  bottom: "cont_sentence"
  top: "lstm1"
  recurrent_param {
    num_output: 1000
    weight_filler {
      type: "uniform"
      min: -0.08
      max: 0.08
    }
    bias_filler {
      type: "constant"
      value: 0
    }
  }
}
layer {
  name: "concat"
  type: "Concat"
  bottom: "lstm1"
  bottom: "embedded_input_sentence"
  bottom: "reshaped_stage_indicator"
  top: "lstm1_video_sequence"
  concat_param {
    concat_dim: 2
  }
}
layer {
  name: "lstm2"
  type: "LSTM"
  bottom: "lstm1_video_sequence"
  bottom: "cont_sentence"
  top: "lstm2"
  recurrent_param {
    num_output: 1000
    weight_filler {
      type: "uniform"
      min: -0.08
      max: 0.08
    }
    bias_filler {
      type: "constant"
      value: 0
    }
  }
}
layer {
  name: "predict"
  type: "InnerProduct"
  bottom: "lstm2"
  top: "predict"
  param {
    lr_mult: 1
    decay_mult: 1
  }
  param {
    lr_mult: 2
    decay_mult: 0
  }
  inner_product_param {
    num_output: 46168
    weight_filler {
      type: "uniform"
      min: -0.08
      max: 0.08
    }
    bias_filler {
      type: "constant"
      value: 0
    }
    axis: 2
  }
}
layer {
  name: "probs"
  type: "Softmax"
  bottom: "predict"
  top: "probs"
  softmax_param {
    axis: 2
  }
}
I0924 03:13:06.463769 18696 net.cpp:49] Initializing net from parameters: 
name: "s2vt:features_to_lstm"
state {
  phase: TEST
}
layer {
  name: "input"
  type: "Input"
  top: "frames_fc7"
  top: "cont_sentence"
  top: "input_sentence"
  top: "stage_indicator"
  input_param {
    shape {
      dim: 1
      dim: 4096
    }
    shape {
      dim: 1
      dim: 1
    }
    shape {
      dim: 1
      dim: 1
    }
    shape {
      dim: 1
      dim: 1
    }
  }
}
layer {
  name: "embed_encoder"
  type: "InnerProduct"
  bottom: "frames_fc7"
  top: "embedded_in_frames"
  param {
    lr_mult: 1
    decay_mult: 1
  }
  param {
    lr_mult: 2
    decay_mult: 0
  }
  inner_product_param {
    num_output: 500
    weight_filler {
      type: "xavier"
    }
    bias_filler {
      type: "constant"
      value: 0.2
    }
  }
}
layer {
  name: "reshape_frames"
  type: "Reshape"
  bottom: "embedded_in_frames"
  top: "embedded_input_frames"
  reshape_param {
    shape {
      dim: 1
      dim: 1
      dim: 500
    }
  }
}
layer {
  name: "reshape_stage_indicator"
  type: "Reshape"
  bottom: "stage_indicator"
  top: "reshaped_stage_indicator"
  reshape_param {
    shape {
      dim: 1
      dim: 1
      dim: 1
    }
  }
}
layer {
  name: "embedding"
  type: "Embed"
  bottom: "input_sentence"
  top: "embedded_input_sentence"
  param {
    lr_mult: 1
  }
  embed_param {
    num_output: 500
    input_dim: 46168
    bias_term: false
    weight_filler {
      type: "uniform"
      min: -0.08
      max: 0.08
    }
  }
}
layer {
  name: "lstm1"
  type: "LSTM"
  bottom: "embedded_input_frames"
  bottom: "cont_sentence"
  top: "lstm1"
  recurrent_param {
    num_output: 1000
    weight_filler {
      type: "uniform"
      min: -0.08
      max: 0.08
    }
    bias_filler {
      type: "constant"
      value: 0
    }
  }
}
layer {
  name: "concat"
  type: "Concat"
  bottom: "lstm1"
  bottom: "embedded_input_sentence"
  bottom: "reshaped_stage_indicator"
  top: "lstm1_video_sequence"
  concat_param {
    concat_dim: 2
  }
}
layer {
  name: "lstm2"
  type: "LSTM"
  bottom: "lstm1_video_sequence"
  bottom: "cont_sentence"
  top: "lstm2"
  recurrent_param {
    num_output: 1000
    weight_filler {
      type: "uniform"
      min: -0.08
      max: 0.08
    }
    bias_filler {
      type: "constant"
      value: 0
    }
  }
}
layer {
  name: "predict"
  type: "InnerProduct"
  bottom: "lstm2"
  top: "predict"
  param {
    lr_mult: 1
    decay_mult: 1
  }
  param {
    lr_mult: 2
    decay_mult: 0
  }
  inner_product_param {
    num_output: 46168
    weight_filler {
      type: "uniform"
      min: -0.08
      max: 0.08
    }
    bias_filler {
      type: "constant"
      value: 0
    }
    axis: 2
  }
}
layer {
  name: "probs"
  type: "Softmax"
  bottom: "predict"
  top: "probs"
  softmax_param {
    axis: 2
  }
}
I0924 03:13:06.463755 18678 net.cpp:49] Initializing net from parameters: 
name: "s2vt:features_to_lstm"
state {
  phase: TEST
}
layer {
  name: "input"
  type: "Input"
  top: "frames_fc7"
  top: "cont_sentence"
  top: "input_sentence"
  top: "stage_indicator"
  input_param {
    shape {
      dim: 1
      dim: 4096
    }
    shape {
      dim: 1
      dim: 1
    }
    shape {
      dim: 1
      dim: 1
    }
    shape {
      dim: 1
      dim: 1
    }
  }
}
layer {
  name: "embed_encoder"
  type: "InnerProduct"
  bottom: "frames_fc7"
  top: "embedded_in_frames"
  param {
    lr_mult: 1
    decay_mult: 1
  }
  param {
    lr_mult: 2
    decay_mult: 0
  }
  inner_product_param {
    num_output: 500
    weight_filler {
      type: "xavier"
    }
    bias_filler {
      type: "constant"
      value: 0.2
    }
  }
}
layer {
  name: "reshape_frames"
  type: "Reshape"
  bottom: "embedded_in_frames"
  top: "embedded_input_frames"
  reshape_param {
    shape {
      dim: 1
      dim: 1
      dim: 500
    }
  }
}
layer {
  name: "reshape_stage_indicator"
  type: "Reshape"
  bottom: "stage_indicator"
  top: "reshaped_stage_indicator"
  reshape_param {
    shape {
      dim: 1
      dim: 1
      dim: 1
    }
  }
}
layer {
  name: "embedding"
  type: "Embed"
  bottom: "input_sentence"
  top: "embedded_input_sentence"
  param {
    lr_mult: 1
  }
  embed_param {
    num_output: 500
    input_dim: 46168
    bias_term: false
    weight_filler {
      type: "uniform"
      min: -0.08
      max: 0.08
    }
  }
}
layer {
  name: "lstm1"
  type: "LSTM"
  bottom: "embedded_input_frames"
  bottom: "cont_sentence"
  top: "lstm1"
  recurrent_param {
    num_output: 1000
    weight_filler {
      type: "uniform"
      min: -0.08
      max: 0.08
    }
    bias_filler {
      type: "constant"
      value: 0
    }
  }
}
layer {
  name: "concat"
  type: "Concat"
  bottom: "lstm1"
  bottom: "embedded_input_sentence"
  bottom: "reshaped_stage_indicator"
  top: "lstm1_video_sequence"
  concat_param {
    concat_dim: 2
  }
}
layer {
  name: "lstm2"
  type: "LSTM"
  bottom: "lstm1_video_sequence"
  bottom: "cont_sentence"
  top: "lstm2"
  recurrent_param {
    num_output: 1000
    weight_filler {
      type: "uniform"
      min: -0.08
      max: 0.08
    }
    bias_filler {
      type: "constant"
      value: 0
    }
  }
}
layer {
  name: "predict"
  type: "InnerProduct"
  bottom: "lstm2"
  top: "predict"
  param {
    lr_mult: 1
    decay_mult: 1
  }
  param {
    lr_mult: 2
    decay_mult: 0
  }
  inner_product_param {
    num_output: 46168
    weight_filler {
      type: "uniform"
      min: -0.08
      max: 0.08
    }
    bias_filler {
      type: "constant"
      value: 0
    }
    axis: 2
  }
}
layer {
  name: "probs"
  type: "Softmax"
  bottom: "predict"
  top: "probs"
  softmax_param {
    axis: 2
  }
}
I0924 03:13:06.463801 18702 net.cpp:49] Initializing net from parameters: 
name: "s2vt:features_to_lstm"
state {
  phase: TEST
}
layer {
  name: "input"
  type: "Input"
  top: "frames_fc7"
  top: "cont_sentence"
  top: "input_sentence"
  top: "stage_indicator"
  input_param {
    shape {
      dim: 1
      dim: 4096
    }
    shape {
      dim: 1
      dim: 1
    }
    shape {
      dim: 1
      dim: 1
    }
    shape {
      dim: 1
      dim: 1
    }
  }
}
layer {
  name: "embed_encoder"
  type: "InnerProduct"
  bottom: "frames_fc7"
  top: "embedded_in_frames"
  param {
    lr_mult: 1
    decay_mult: 1
  }
  param {
    lr_mult: 2
    decay_mult: 0
  }
  inner_product_param {
    num_output: 500
    weight_filler {
      type: "xavier"
    }
    bias_filler {
      type: "constant"
      value: 0.2
    }
  }
}
layer {
  name: "reshape_frames"
  type: "Reshape"
  bottom: "embedded_in_frames"
  top: "embedded_input_frames"
  reshape_param {
    shape {
      dim: 1
      dim: 1
      dim: 500
    }
  }
}
layer {
  name: "reshape_stage_indicator"
  type: "Reshape"
  bottom: "stage_indicator"
  top: "reshaped_stage_indicator"
  reshape_param {
    shape {
      dim: 1
      dim: 1
      dim: 1
    }
  }
}
layer {
  name: "embedding"
  type: "Embed"
  bottom: "input_sentence"
  top: "embedded_input_sentence"
  param {
    lr_mult: 1
  }
  embed_param {
    num_output: 500
    input_dim: 46168
    bias_term: false
    weight_filler {
      type: "uniform"
      min: -0.08
      max: 0.08
    }
  }
}
layer {
  name: "lstm1"
  type: "LSTM"
  bottom: "embedded_input_frames"
  bottom: "cont_sentence"
  top: "lstm1"
  recurrent_param {
    num_output: 1000
    weight_filler {
      type: "uniform"
      min: -0.08
      max: 0.08
    }
    bias_filler {
      type: "constant"
      value: 0
    }
  }
}
layer {
  name: "concat"
  type: "Concat"
  bottom: "lstm1"
  bottom: "embedded_input_sentence"
  bottom: "reshaped_stage_indicator"
  top: "lstm1_video_sequence"
  concat_param {
    concat_dim: 2
  }
}
layer {
  name: "lstm2"
  type: "LSTM"
  bottom: "lstm1_video_sequence"
  bottom: "cont_sentence"
  top: "lstm2"
  recurrent_param {
    num_output: 1000
    weight_filler {
      type: "uniform"
      min: -0.08
      max: 0.08
    }
    bias_filler {
      type: "constant"
      value: 0
    }
  }
}
layer {
  name: "predict"
  type: "InnerProduct"
  bottom: "lstm2"
  top: "predict"
  param {
    lr_mult: 1
    decay_mult: 1
  }
  param {
    lr_mult: 2
    decay_mult: 0
  }
  inner_product_param {
    num_output: 46168
    weight_filler {
      type: "uniform"
      min: -0.08
      max: 0.08
    }
    bias_filler {
      type: "constant"
      value: 0
    }
    axis: 2
  }
}
layer {
  name: "probs"
  type: "Softmax"
  bottom: "predict"
  top: "probs"
  softmax_param {
    axis: 2
  }
}
I0924 03:13:06.463806 18668 net.cpp:49] Initializing net from parameters: 
name: "s2vt:features_to_lstm"
state {
  phase: TEST
}
layer {
  name: "input"
  type: "Input"
  top: "frames_fc7"
  top: "cont_sentence"
  top: "input_sentence"
  top: "stage_indicator"
  input_param {
    shape {
      dim: 1
      dim: 4096
    }
    shape {
      dim: 1
      dim: 1
    }
    shape {
      dim: 1
      dim: 1
    }
    shape {
      dim: 1
      dim: 1
    }
  }
}
layer {
  name: "embed_encoder"
  type: "InnerProduct"
  bottom: "frames_fc7"
  top: "embedded_in_frames"
  param {
    lr_mult: 1
    decay_mult: 1
  }
  param {
    lr_mult: 2
    decay_mult: 0
  }
  inner_product_param {
    num_output: 500
    weight_filler {
      type: "xavier"
    }
    bias_filler {
      type: "constant"
      value: 0.2
    }
  }
}
layer {
  name: "reshape_frames"
  type: "Reshape"
  bottom: "embedded_in_frames"
  top: "embedded_input_frames"
  reshape_param {
    shape {
      dim: 1
      dim: 1
      dim: 500
    }
  }
}
layer {
  name: "reshape_stage_indicator"
  type: "Reshape"
  bottom: "stage_indicator"
  top: "reshaped_stage_indicator"
  reshape_param {
    shape {
      dim: 1
      dim: 1
      dim: 1
    }
  }
}
layer {
  name: "embedding"
  type: "Embed"
  bottom: "input_sentence"
  top: "embedded_input_sentence"
  param {
    lr_mult: 1
  }
  embed_param {
    num_output: 500
    input_dim: 46168
    bias_term: false
    weight_filler {
      type: "uniform"
      min: -0.08
      max: 0.08
    }
  }
}
layer {
  name: "lstm1"
  type: "LSTM"
  bottom: "embedded_input_frames"
  bottom: "cont_sentence"
  top: "lstm1"
  recurrent_param {
    num_output: 1000
    weight_filler {
      type: "uniform"
      min: -0.08
      max: 0.08
    }
    bias_filler {
      type: "constant"
      value: 0
    }
  }
}
layer {
  name: "concat"
  type: "Concat"
  bottom: "lstm1"
  bottom: "embedded_input_sentence"
  bottom: "reshaped_stage_indicator"
  top: "lstm1_video_sequence"
  concat_param {
    concat_dim: 2
  }
}
layer {
  name: "lstm2"
  type: "LSTM"
  bottom: "lstm1_video_sequence"
  bottom: "cont_sentence"
  top: "lstm2"
  recurrent_param {
    num_output: 1000
    weight_filler {
      type: "uniform"
      min: -0.08
      max: 0.08
    }
    bias_filler {
      type: "constant"
      value: 0
    }
  }
}
layer {
  name: "predict"
  type: "InnerProduct"
  bottom: "lstm2"
  top: "predict"
  param {
    lr_mult: 1
    decay_mult: 1
  }
  param {
    lr_mult: 2
    decay_mult: 0
  }
  inner_product_param {
    num_output: 46168
    weight_filler {
      type: "uniform"
      min: -0.08
      max: 0.08
    }
    bias_filler {
      type: "constant"
      value: 0
    }
    axis: 2
  }
}
layer {
  name: "probs"
  type: "Softmax"
  bottom: "predict"
  top: "probs"
  softmax_param {
    axis: 2
  }
}
I0924 03:13:06.463825 18670 net.cpp:49] Initializing net from parameters: 
name: "s2vt:features_to_lstm"
state {
  phase: TEST
}
layer {
  name: "input"
  type: "Input"
  top: "frames_fc7"
  top: "cont_sentence"
  top: "input_sentence"
  top: "stage_indicator"
  input_param {
    shape {
      dim: 1
      dim: 4096
    }
    shape {
      dim: 1
      dim: 1
    }
    shape {
      dim: 1
      dim: 1
    }
    shape {
      dim: 1
      dim: 1
    }
  }
}
layer {
  name: "embed_encoder"
  type: "InnerProduct"
  bottom: "frames_fc7"
  top: "embedded_in_frames"
  param {
    lr_mult: 1
    decay_mult: 1
  }
  param {
    lr_mult: 2
    decay_mult: 0
  }
  inner_product_param {
    num_output: 500
    weight_filler {
      type: "xavier"
    }
    bias_filler {
      type: "constant"
      value: 0.2
    }
  }
}
layer {
  name: "reshape_frames"
  type: "Reshape"
  bottom: "embedded_in_frames"
  top: "embedded_input_frames"
  reshape_param {
    shape {
      dim: 1
      dim: 1
      dim: 500
    }
  }
}
layer {
  name: "reshape_stage_indicator"
  type: "Reshape"
  bottom: "stage_indicator"
  top: "reshaped_stage_indicator"
  reshape_param {
    shape {
      dim: 1
      dim: 1
      dim: 1
    }
  }
}
layer {
  name: "embedding"
  type: "Embed"
  bottom: "input_sentence"
  top: "embedded_input_sentence"
  param {
    lr_mult: 1
  }
  embed_param {
    num_output: 500
    input_dim: 46168
    bias_term: false
    weight_filler {
      type: "uniform"
      min: -0.08
      max: 0.08
    }
  }
}
layer {
  name: "lstm1"
  type: "LSTM"
  bottom: "embedded_input_frames"
  bottom: "cont_sentence"
  top: "lstm1"
  recurrent_param {
    num_output: 1000
    weight_filler {
      type: "uniform"
      min: -0.08
      max: 0.08
    }
    bias_filler {
      type: "constant"
      value: 0
    }
  }
}
layer {
  name: "concat"
  type: "Concat"
  bottom: "lstm1"
  bottom: "embedded_input_sentence"
  bottom: "reshaped_stage_indicator"
  top: "lstm1_video_sequence"
  concat_param {
    concat_dim: 2
  }
}
layer {
  name: "lstm2"
  type: "LSTM"
  bottom: "lstm1_video_sequence"
  bottom: "cont_sentence"
  top: "lstm2"
  recurrent_param {
    num_output: 1000
    weight_filler {
      type: "uniform"
      min: -0.08
      max: 0.08
    }
    bias_filler {
      type: "constant"
      value: 0
    }
  }
}
layer {
  name: "predict"
  type: "InnerProduct"
  bottom: "lstm2"
  top: "predict"
  param {
    lr_mult: 1
    decay_mult: 1
  }
  param {
    lr_mult: 2
    decay_mult: 0
  }
  inner_product_param {
    num_output: 46168
    weight_filler {
      type: "uniform"
      min: -0.08
      max: 0.08
    }
    bias_filler {
      type: "constant"
      value: 0
    }
    axis: 2
  }
}
layer {
  name: "probs"
  type: "Softmax"
  bottom: "predict"
  top: "probs"
  softmax_param {
    axis: 2
  }
}
I0924 03:13:06.463886 18694 net.cpp:49] Initializing net from parameters: 
name: "CaffeNet"
state {
  phase: TEST
}
layer {
  name: "data"
  type: "Input"
  top: "data"
  input_param {
    shape {
      dim: 10
      dim: 3
      dim: 227
      dim: 227
    }
  }
}
layer {
  name: "conv1"
  type: "Convolution"
  bottom: "data"
  top: "conv1"
  convolution_param {
    num_output: 96
    kernel_size: 11
    stride: 4
  }
}
layer {
  name: "relu1"
  type: "ReLU"
  bottom: "conv1"
  top: "conv1"
}
layer {
  name: "pool1"
  type: "Pooling"
  bottom: "conv1"
  top: "pool1"
  pooling_param {
    pool: MAX
    kernel_size: 3
    stride: 2
  }
}
layer {
  name: "norm1"
  type: "LRN"
  bottom: "pool1"
  top: "norm1"
  lrn_param {
    local_size: 5
    alpha: 0.0001
    beta: 0.75
  }
}
layer {
  name: "conv2"
  type: "Convolution"
  bottom: "norm1"
  top: "conv2"
  convolution_param {
    num_output: 256
    pad: 2
    kernel_size: 5
    group: 2
  }
}
layer {
  name: "relu2"
  type: "ReLU"
  bottom: "conv2"
  top: "conv2"
}
layer {
  name: "pool2"
  type: "Pooling"
  bottom: "conv2"
  top: "pool2"
  pooling_param {
    pool: MAX
    kernel_size: 3
    stride: 2
  }
}
layer {
  name: "norm2"
  type: "LRN"
  bottom: "pool2"
  top: "norm2"
  lrn_param {
    local_size: 5
    alpha: 0.0001
    beta: 0.75
  }
}
layer {
  name: "conv3"
  type: "Convolution"
  bottom: "norm2"
  top: "conv3"
  convolution_param {
    num_output: 384
    pad: 1
    kernel_size: 3
  }
}
layer {
  name: "relu3"
  type: "ReLU"
  bottom: "conv3"
  top: "conv3"
}
layer {
  name: "conv4"
  type: "Convolution"
  bottom: "conv3"
  top: "conv4"
  convolution_param {
    num_output: 384
    pad: 1
    kernel_size: 3
    group: 2
  }
}
layer {
  name: "relu4"
  type: "ReLU"
  bottom: "conv4"
  top: "conv4"
}
layer {
  name: "conv5"
  type: "Convolution"
  bottom: "conv4"
  top: "conv5"
  convolution_param {
    num_output: 256
    pad: 1
    kernel_size: 3
    group: 2
  }
}
layer {
  name: "relu5"
  type: "ReLU"
  bottom: "conv5"
  top: "conv5"
}
layer {
  name: "pool5"
  type: "Pooling"
  bottom: "conv5"
  top: "pool5"
  pooling_param {
    pool: MAX
    kernel_size: 3
    stride: 2
  }
}
layer {
  name: "fc6"
  type: "InnerProduct"
  bottom: "pool5"
  top: "fc6"
  inner_product_param {
    num_output: 4096
  }
}
layer {
  name: "relu6"
  type: "ReLU"
  bottom: "fc6"
  top: "fc6"
}
layer {
  name: "drop6"
  type: "Dropout"
  bottom: "fc6"
  top: "fc6"
  dropout_param {
    dropout_ratio: 0.5
  }
}
layer {
  name: "fc7"
  type: "InnerProduct"
  bottom: "fc6"
  top: "fc7"
  inner_product_param {
    num_output: 4096
  }
}
layer {
  name: "relu7"
  type: "ReLU"
  bottom: "fc7"
  top: "fc7"
}
layer {
  name: "drop7"
  type: "Dropout"
  bottom: "fc7"
  top: "fc7"
  dropout_param {
    dropout_ratio: 0.5
  }
}
layer {
  name: "fc8"
  type: "InnerProduct"
  bottom: "fc7"
  top: "fc8"
  inner_product_param {
    num_output: 1000
  }
}
layer {
  name: "prob"
  type: "Softmax"
  bottom: "fc8"
  top: "prob"
}
I0924 03:13:06.463918 18678 layer_factory.hpp:77] Creating layer input
I0924 03:13:06.463919 18702 layer_factory.hpp:77] Creating layer input
I0924 03:13:06.463918 18696 layer_factory.hpp:77] Creating layer input
I0924 03:13:06.463919 18672 layer_factory.hpp:77] Creating layer input
I0924 03:13:06.463927 18668 layer_factory.hpp:77] Creating layer input
I0924 03:13:06.463958 18670 layer_factory.hpp:77] Creating layer input
…
I0924 03:13:06.464099 18672 net.cpp:399] input -> stage_indicator
I0924 03:13:06.464097 18668 net.cpp:399] input -> stage_indicator
I0924 03:13:06.464094 18678 net.cpp:399] input -> stage_indicator
I0924 03:13:06.464109 18702 net.cpp:399] input -> stage_indicator
I0924 03:13:06.464092 18694 net.cpp:399] data -> data
I0924 03:13:06.464120 18670 net.cpp:399] input -> input_sentence
I0924 03:13:06.464118 18696 net.cpp:399] input -> stage_indicator
I0924 03:13:06.464141 18670 net.cpp:399] input -> stage_indicator
I0924 03:13:07.124667 18694 net.cpp:141] Setting up data
I0924 03:13:07.124737 18694 net.cpp:148] Top shape: 10 3 227 227 (1545870)
I0924 03:13:07.124744 18694 net.cpp:156] Memory required for data: 6183480
I0924 03:13:07.124765 18694 layer_factory.hpp:77] Creating layer conv1
I0924 03:13:07.124770 18678 net.cpp:141] Setting up input
I0924 03:13:07.124801 18694 net.cpp:91] Creating Layer conv1
I0924 03:13:07.124809 18678 net.cpp:148] Top shape: 1 4096 (4096)
I0924 03:13:07.124812 18694 net.cpp:425] conv1 <- data
I0924 03:13:07.124819 18678 net.cpp:148] Top shape: 1 1 (1)
I0924 03:13:07.124825 18678 net.cpp:148] Top shape: 1 1 (1)
I0924 03:13:07.124826 18694 net.cpp:399] conv1 -> conv1
I0924 03:13:07.124831 18678 net.cpp:148] Top shape: 1 1 (1)
I0924 03:13:07.124836 18678 net.cpp:156] Memory required for data: 16396
I0924 03:13:07.124845 18678 layer_factory.hpp:77] Creating layer cont_sentence_input_1_split
I0924 03:13:07.124876 18678 net.cpp:91] Creating Layer cont_sentence_input_1_split
I0924 03:13:07.124882 18678 net.cpp:425] cont_sentence_input_1_split <- cont_sentence
I0924 03:13:07.124914 18678 net.cpp:399] cont_sentence_input_1_split -> cont_sentence_input_1_split_0
I0924 03:13:07.124929 18678 net.cpp:399] cont_sentence_input_1_split -> cont_sentence_input_1_split_1
I0924 03:13:07.125089 18672 net.cpp:141] Setting up input
I0924 03:13:07.125108 18672 net.cpp:148] Top shape: 1 4096 (4096)
I0924 03:13:07.125115 18672 net.cpp:148] Top shape: 1 1 (1)
I0924 03:13:07.125121 18672 net.cpp:148] Top shape: 1 1 (1)
I0924 03:13:07.125126 18672 net.cpp:148] Top shape: 1 1 (1)
I0924 03:13:07.125131 18672 net.cpp:156] Memory required for data: 16396
I0924 03:13:07.125129 18678 net.cpp:141] Setting up cont_sentence_input_1_split
I0924 03:13:07.125141 18672 layer_factory.hpp:77] Creating layer cont_sentence_input_1_split
I0924 03:13:07.125149 18678 net.cpp:148] Top shape: 1 1 (1)
I0924 03:13:07.125151 18672 net.cpp:91] Creating Layer cont_sentence_input_1_split
I0924 03:13:07.125154 18678 net.cpp:148] Top shape: 1 1 (1)
I0924 03:13:07.125159 18672 net.cpp:425] cont_sentence_input_1_split <- cont_sentence
I0924 03:13:07.125159 18678 net.cpp:156] Memory required for data: 16404
I0924 03:13:07.125165 18678 layer_factory.hpp:77] Creating layer embed_encoder
I0924 03:13:07.125166 18672 net.cpp:399] cont_sentence_input_1_split -> cont_sentence_input_1_split_0
I0924 03:13:07.125177 18672 net.cpp:399] cont_sentence_input_1_split -> cont_sentence_input_1_split_1
I0924 03:13:07.125187 18678 net.cpp:91] Creating Layer embed_encoder
I0924 03:13:07.125193 18678 net.cpp:425] embed_encoder <- frames_fc7
I0924 03:13:07.125205 18678 net.cpp:399] embed_encoder -> embedded_in_frames
I0924 03:13:07.125383 18672 net.cpp:141] Setting up cont_sentence_input_1_split
I0924 03:13:07.125396 18672 net.cpp:148] Top shape: 1 1 (1)
I0924 03:13:07.125401 18672 net.cpp:148] Top shape: 1 1 (1)
I0924 03:13:07.125406 18672 net.cpp:156] Memory required for data: 16404
I0924 03:13:07.125411 18672 layer_factory.hpp:77] Creating layer embed_encoder
I0924 03:13:07.125428 18672 net.cpp:91] Creating Layer embed_encoder
I0924 03:13:07.125434 18672 net.cpp:425] embed_encoder <- frames_fc7
I0924 03:13:07.125444 18672 net.cpp:399] embed_encoder -> embedded_in_frames
I0924 03:13:07.131103 18670 net.cpp:141] Setting up input
I0924 03:13:07.131152 18670 net.cpp:148] Top shape: 1 4096 (4096)
I0924 03:13:07.131166 18670 net.cpp:148] Top shape: 1 1 (1)
I0924 03:13:07.131177 18670 net.cpp:148] Top shape: 1 1 (1)
I0924 03:13:07.131189 18670 net.cpp:148] Top shape: 1 1 (1)
I0924 03:13:07.131197 18670 net.cpp:156] Memory required for data: 16396
I0924 03:13:07.131211 18670 layer_factory.hpp:77] Creating layer cont_sentence_input_1_split
I0924 03:13:07.131238 18670 net.cpp:91] Creating Layer cont_sentence_input_1_split
I0924 03:13:07.131250 18670 net.cpp:425] cont_sentence_input_1_split <- cont_sentence
I0924 03:13:07.131252 18696 net.cpp:141] Setting up input
I0924 03:13:07.131270 18670 net.cpp:399] cont_sentence_input_1_split -> cont_sentence_input_1_split_0
I0924 03:13:07.131285 18696 net.cpp:148] Top shape: 1 4096 (4096)
I0924 03:13:07.131294 18696 net.cpp:148] Top shape: 1 1 (1)
I0924 03:13:07.131296 18670 net.cpp:399] cont_sentence_input_1_split -> cont_sentence_input_1_split_1
I0924 03:13:07.131301 18696 net.cpp:148] Top shape: 1 1 (1)
I0924 03:13:07.131309 18696 net.cpp:148] Top shape: 1 1 (1)
I0924 03:13:07.131314 18696 net.cpp:156] Memory required for data: 16396
I0924 03:13:07.131322 18696 layer_factory.hpp:77] Creating layer cont_sentence_input_1_split
I0924 03:13:07.131340 18696 net.cpp:91] Creating Layer cont_sentence_input_1_split
I0924 03:13:07.131346 18696 net.cpp:425] cont_sentence_input_1_split <- cont_sentence
I0924 03:13:07.131357 18696 net.cpp:399] cont_sentence_input_1_split -> cont_sentence_input_1_split_0
I0924 03:13:07.131371 18696 net.cpp:399] cont_sentence_input_1_split -> cont_sentence_input_1_split_1
I0924 03:13:07.132236 18668 net.cpp:141] Setting up input
I0924 03:13:07.132261 18668 net.cpp:148] Top shape: 1 4096 (4096)
I0924 03:13:07.132271 18668 net.cpp:148] Top shape: 1 1 (1)
I0924 03:13:07.132277 18668 net.cpp:148] Top shape: 1 1 (1)
I0924 03:13:07.132282 18668 net.cpp:148] Top shape: 1 1 (1)
I0924 03:13:07.132279 18702 net.cpp:141] Setting up input
I0924 03:13:07.132287 18668 net.cpp:156] Memory required for data: 16396
I0924 03:13:07.132310 18668 layer_factory.hpp:77] Creating layer cont_sentence_input_1_split
I0924 03:13:07.132311 18702 net.cpp:148] Top shape: 1 4096 (4096)
I0924 03:13:07.132323 18668 net.cpp:91] Creating Layer cont_sentence_input_1_split
I0924 03:13:07.132324 18702 net.cpp:148] Top shape: 1 1 (1)
I0924 03:13:07.132329 18668 net.cpp:425] cont_sentence_input_1_split <- cont_sentence
I0924 03:13:07.132335 18702 net.cpp:148] Top shape: 1 1 (1)
I0924 03:13:07.132345 18702 net.cpp:148] Top shape: 1 1 (1)
I0924 03:13:07.132352 18702 net.cpp:156] Memory required for data: 16396
I0924 03:13:07.132362 18702 layer_factory.hpp:77] Creating layer cont_sentence_input_1_split
I0924 03:13:07.132376 18702 net.cpp:91] Creating Layer cont_sentence_input_1_split
I0924 03:13:07.132386 18702 net.cpp:425] cont_sentence_input_1_split <- cont_sentence
I0924 03:13:07.132398 18702 net.cpp:399] cont_sentence_input_1_split -> cont_sentence_input_1_split_0
I0924 03:13:07.132405 18668 net.cpp:399] cont_sentence_input_1_split -> cont_sentence_input_1_split_0
I0924 03:13:07.132416 18702 net.cpp:399] cont_sentence_input_1_split -> cont_sentence_input_1_split_1
I0924 03:13:07.132418 18668 net.cpp:399] cont_sentence_input_1_split -> cont_sentence_input_1_split_1
I0924 03:13:07.136602 18670 net.cpp:141] Setting up cont_sentence_input_1_split
I0924 03:13:07.136637 18696 net.cpp:141] Setting up cont_sentence_input_1_split
I0924 03:13:07.136646 18670 net.cpp:148] Top shape: 1 1 (1)
I0924 03:13:07.136658 18696 net.cpp:148] Top shape: 1 1 (1)
I0924 03:13:07.136662 18670 net.cpp:148] Top shape: 1 1 (1)
I0924 03:13:07.136670 18696 net.cpp:148] Top shape: 1 1 (1)
I0924 03:13:07.136673 18670 net.cpp:156] Memory required for data: 16404
I0924 03:13:07.136680 18696 net.cpp:156] Memory required for data: 16404
I0924 03:13:07.136687 18670 layer_factory.hpp:77] Creating layer embed_encoder
I0924 03:13:07.136690 18696 layer_factory.hpp:77] Creating layer embed_encoder
I0924 03:13:07.136703 18668 net.cpp:141] Setting up cont_sentence_input_1_split
I0924 03:13:07.136714 18696 net.cpp:91] Creating Layer embed_encoder
I0924 03:13:07.136719 18668 net.cpp:148] Top shape: 1 1 (1)
I0924 03:13:07.136725 18696 net.cpp:425] embed_encoder <- frames_fc7
I0924 03:13:07.136719 18670 net.cpp:91] Creating Layer embed_encoder
I0924 03:13:07.136740 18696 net.cpp:399] embed_encoder -> embedded_in_frames
I0924 03:13:07.136742 18702 net.cpp:141] Setting up cont_sentence_input_1_split
I0924 03:13:07.136739 18668 net.cpp:148] Top shape: 1 1 (1)
I0924 03:13:07.136757 18670 net.cpp:425] embed_encoder <- frames_fc7
I0924 03:13:07.136765 18702 net.cpp:148] Top shape: 1 1 (1)
I0924 03:13:07.136765 18668 net.cpp:156] Memory required for data: 16404
I0924 03:13:07.136780 18670 net.cpp:399] embed_encoder -> embedded_in_frames
I0924 03:13:07.136783 18702 net.cpp:148] Top shape: 1 1 (1)
I0924 03:13:07.136783 18668 layer_factory.hpp:77] Creating layer embed_encoder
I0924 03:13:07.136807 18702 net.cpp:156] Memory required for data: 16404
I0924 03:13:07.136818 18702 layer_factory.hpp:77] Creating layer embed_encoder
I0924 03:13:07.136819 18668 net.cpp:91] Creating Layer embed_encoder
I0924 03:13:07.136832 18668 net.cpp:425] embed_encoder <- frames_fc7
I0924 03:13:07.136840 18702 net.cpp:91] Creating Layer embed_encoder
I0924 03:13:07.136842 18668 net.cpp:399] embed_encoder -> embedded_in_frames
I0924 03:13:07.136853 18702 net.cpp:425] embed_encoder <- frames_fc7
I0924 03:13:07.136869 18702 net.cpp:399] embed_encoder -> embedded_in_frames
I0924 03:13:07.158731 18678 net.cpp:141] Setting up embed_encoder
I0924 03:13:07.158797 18678 net.cpp:148] Top shape: 1 500 (500)
I0924 03:13:07.158805 18678 net.cpp:156] Memory required for data: 18404
I0924 03:13:07.158834 18678 layer_factory.hpp:77] Creating layer reshape_frames
I0924 03:13:07.158865 18678 net.cpp:91] Creating Layer reshape_frames
I0924 03:13:07.158874 18678 net.cpp:425] reshape_frames <- embedded_in_frames
I0924 03:13:07.158885 18678 net.cpp:399] reshape_frames -> embedded_input_frames
I0924 03:13:07.160719 18678 net.cpp:141] Setting up reshape_frames
I0924 03:13:07.160748 18678 net.cpp:148] Top shape: 1 1 500 (500)
I0924 03:13:07.160760 18678 net.cpp:156] Memory required for data: 20404
I0924 03:13:07.160773 18678 layer_factory.hpp:77] Creating layer reshape_stage_indicator
I0924 03:13:07.160797 18678 net.cpp:91] Creating Layer reshape_stage_indicator
I0924 03:13:07.160809 18678 net.cpp:425] reshape_stage_indicator <- stage_indicator
I0924 03:13:07.160828 18678 net.cpp:399] reshape_stage_indicator -> reshaped_stage_indicator
I0924 03:13:07.160831 18672 net.cpp:141] Setting up embed_encoder
I0924 03:13:07.160848 18672 net.cpp:148] Top shape: 1 500 (500)
I0924 03:13:07.160853 18672 net.cpp:156] Memory required for data: 18404
I0924 03:13:07.160868 18672 layer_factory.hpp:77] Creating layer reshape_frames
I0924 03:13:07.160878 18672 net.cpp:91] Creating Layer reshape_frames
I0924 03:13:07.160886 18672 net.cpp:425] reshape_frames <- embedded_in_frames
I0924 03:13:07.160894 18672 net.cpp:399] reshape_frames -> embedded_input_frames
I0924 03:13:07.161504 18678 net.cpp:141] Setting up reshape_stage_indicator
I0924 03:13:07.161526 18678 net.cpp:148] Top shape: 1 1 1 (1)
I0924 03:13:07.161536 18678 net.cpp:156] Memory required for data: 20408
I0924 03:13:07.161548 18678 layer_factory.hpp:77] Creating layer embedding
I0924 03:13:07.161563 18672 net.cpp:141] Setting up reshape_frames
I0924 03:13:07.161571 18678 net.cpp:91] Creating Layer embedding
I0924 03:13:07.161581 18672 net.cpp:148] Top shape: 1 1 500 (500)
I0924 03:13:07.161587 18672 net.cpp:156] Memory required for data: 20404
I0924 03:13:07.161586 18678 net.cpp:425] embedding <- input_sentence
I0924 03:13:07.161593 18672 layer_factory.hpp:77] Creating layer reshape_stage_indicator
I0924 03:13:07.161605 18672 net.cpp:91] Creating Layer reshape_stage_indicator
I0924 03:13:07.161607 18678 net.cpp:399] embedding -> embedded_input_sentence
I0924 03:13:07.161612 18672 net.cpp:425] reshape_stage_indicator <- stage_indicator
I0924 03:13:07.161622 18672 net.cpp:399] reshape_stage_indicator -> reshaped_stage_indicator
I0924 03:13:07.166637 18672 net.cpp:141] Setting up reshape_stage_indicator
I0924 03:13:07.166683 18672 net.cpp:148] Top shape: 1 1 1 (1)
I0924 03:13:07.166689 18672 net.cpp:156] Memory required for data: 20408
I0924 03:13:07.166699 18672 layer_factory.hpp:77] Creating layer embedding
I0924 03:13:07.166718 18672 net.cpp:91] Creating Layer embedding
I0924 03:13:07.166725 18672 net.cpp:425] embedding <- input_sentence
I0924 03:13:07.166736 18672 net.cpp:399] embedding -> embedded_input_sentence
I0924 03:13:07.258323 18696 net.cpp:141] Setting up embed_encoder
I0924 03:13:07.259382 18696 net.cpp:148] Top shape: 1 500 (500)
I0924 03:13:07.259665 18696 net.cpp:156] Memory required for data: 18404
I0924 03:13:07.259846 18696 layer_factory.hpp:77] Creating layer reshape_frames
I0924 03:13:07.260033 18696 net.cpp:91] Creating Layer reshape_frames
I0924 03:13:07.260277 18696 net.cpp:425] reshape_frames <- embedded_in_frames
I0924 03:13:07.260475 18696 net.cpp:399] reshape_frames -> embedded_input_frames
I0924 03:13:07.260713 18696 net.cpp:141] Setting up reshape_frames
I0924 03:13:07.260735 18696 net.cpp:148] Top shape: 1 1 500 (500)
I0924 03:13:07.260741 18696 net.cpp:156] Memory required for data: 20404
I0924 03:13:07.260747 18696 layer_factory.hpp:77] Creating layer reshape_stage_indicator
I0924 03:13:07.260761 18696 net.cpp:91] Creating Layer reshape_stage_indicator
I0924 03:13:07.260766 18696 net.cpp:425] reshape_stage_indicator <- stage_indicator
I0924 03:13:07.260778 18696 net.cpp:399] reshape_stage_indicator -> reshaped_stage_indicator
I0924 03:13:07.260793 18670 net.cpp:141] Setting up embed_encoder
I0924 03:13:07.260835 18670 net.cpp:148] Top shape: 1 500 (500)
I0924 03:13:07.260841 18670 net.cpp:156] Memory required for data: 18404
I0924 03:13:07.260864 18670 layer_factory.hpp:77] Creating layer reshape_frames
I0924 03:13:07.260882 18670 net.cpp:91] Creating Layer reshape_frames
I0924 03:13:07.260890 18670 net.cpp:425] reshape_frames <- embedded_in_frames
I0924 03:13:07.260890 18702 net.cpp:141] Setting up embed_encoder
I0924 03:13:07.260903 18670 net.cpp:399] reshape_frames -> embedded_input_frames
I0924 03:13:07.260911 18702 net.cpp:148] Top shape: 1 500 (500)
I0924 03:13:07.260917 18702 net.cpp:156] Memory required for data: 18404
I0924 03:13:07.260933 18702 layer_factory.hpp:77] Creating layer reshape_frames
I0924 03:13:07.260946 18696 net.cpp:141] Setting up reshape_stage_indicator
I0924 03:13:07.260946 18702 net.cpp:91] Creating Layer reshape_frames
I0924 03:13:07.260962 18696 net.cpp:148] Top shape: 1 1 1 (1)
I0924 03:13:07.260967 18696 net.cpp:156] Memory required for data: 20408
I0924 03:13:07.260968 18702 net.cpp:425] reshape_frames <- embedded_in_frames
I0924 03:13:07.260972 18696 layer_factory.hpp:77] Creating layer embedding
I0924 03:13:07.260979 18702 net.cpp:399] reshape_frames -> embedded_input_frames
I0924 03:13:07.260985 18696 net.cpp:91] Creating Layer embedding
I0924 03:13:07.260990 18696 net.cpp:425] embedding <- input_sentence
I0924 03:13:07.260987 18668 net.cpp:141] Setting up embed_encoder
I0924 03:13:07.261004 18696 net.cpp:399] embedding -> embedded_input_sentence
I0924 03:13:07.261010 18668 net.cpp:148] Top shape: 1 500 (500)
I0924 03:13:07.261016 18668 net.cpp:156] Memory required for data: 18404
I0924 03:13:07.261029 18670 net.cpp:141] Setting up reshape_frames
I0924 03:13:07.261031 18668 layer_factory.hpp:77] Creating layer reshape_frames
I0924 03:13:07.261042 18670 net.cpp:148] Top shape: 1 1 500 (500)
I0924 03:13:07.261049 18670 net.cpp:156] Memory required for data: 20404
I0924 03:13:07.261051 18668 net.cpp:91] Creating Layer reshape_frames
I0924 03:13:07.261054 18670 layer_factory.hpp:77] Creating layer reshape_stage_indicator
I0924 03:13:07.261060 18668 net.cpp:425] reshape_frames <- embedded_in_frames
I0924 03:13:07.261066 18670 net.cpp:91] Creating Layer reshape_stage_indicator
I0924 03:13:07.261071 18668 net.cpp:399] reshape_frames -> embedded_input_frames
I0924 03:13:07.261073 18670 net.cpp:425] reshape_stage_indicator <- stage_indicator
I0924 03:13:07.261083 18670 net.cpp:399] reshape_stage_indicator -> reshaped_stage_indicator
I0924 03:13:07.261093 18702 net.cpp:141] Setting up reshape_frames
I0924 03:13:07.261106 18702 net.cpp:148] Top shape: 1 1 500 (500)
I0924 03:13:07.261111 18702 net.cpp:156] Memory required for data: 20404
I0924 03:13:07.261116 18702 layer_factory.hpp:77] Creating layer reshape_stage_indicator
I0924 03:13:07.261116 18668 net.cpp:141] Setting up reshape_frames
I0924 03:13:07.261132 18702 net.cpp:91] Creating Layer reshape_stage_indicator
I0924 03:13:07.261134 18668 net.cpp:148] Top shape: 1 1 500 (500)
I0924 03:13:07.261138 18702 net.cpp:425] reshape_stage_indicator <- stage_indicator
I0924 03:13:07.261139 18668 net.cpp:156] Memory required for data: 20404
I0924 03:13:07.261150 18668 layer_factory.hpp:77] Creating layer reshape_stage_indicator
I0924 03:13:07.261152 18702 net.cpp:399] reshape_stage_indicator -> reshaped_stage_indicator
I0924 03:13:07.261165 18668 net.cpp:91] Creating Layer reshape_stage_indicator
I0924 03:13:07.261171 18668 net.cpp:425] reshape_stage_indicator <- stage_indicator
I0924 03:13:07.261180 18668 net.cpp:399] reshape_stage_indicator -> reshaped_stage_indicator
I0924 03:13:07.302000 18670 net.cpp:141] Setting up reshape_stage_indicator
I0924 03:13:07.302042 18702 net.cpp:141] Setting up reshape_stage_indicator
I0924 03:13:07.302059 18670 net.cpp:148] Top shape: 1 1 1 (1)
I0924 03:13:07.302085 18702 net.cpp:148] Top shape: 1 1 1 (1)
I0924 03:13:07.302085 18670 net.cpp:156] Memory required for data: 20408
I0924 03:13:07.302101 18668 net.cpp:141] Setting up reshape_stage_indicator
I0924 03:13:07.302098 18702 net.cpp:156] Memory required for data: 20408
I0924 03:13:07.302124 18668 net.cpp:148] Top shape: 1 1 1 (1)
I0924 03:13:07.302130 18702 layer_factory.hpp:77] Creating layer embedding
I0924 03:13:07.302134 18668 net.cpp:156] Memory required for data: 20408
I0924 03:13:07.302114 18670 layer_factory.hpp:77] Creating layer embedding
I0924 03:13:07.302153 18702 net.cpp:91] Creating Layer embedding
I0924 03:13:07.302145 18668 layer_factory.hpp:77] Creating layer embedding
I0924 03:13:07.302163 18702 net.cpp:425] embedding <- input_sentence
I0924 03:13:07.302170 18668 net.cpp:91] Creating Layer embedding
I0924 03:13:07.302175 18670 net.cpp:91] Creating Layer embedding
I0924 03:13:07.302177 18702 net.cpp:399] embedding -> embedded_input_sentence
I0924 03:13:07.302192 18670 net.cpp:425] embedding <- input_sentence
I0924 03:13:07.302178 18668 net.cpp:425] embedding <- input_sentence
I0924 03:13:07.302211 18668 net.cpp:399] embedding -> embedded_input_sentence
I0924 03:13:07.302212 18670 net.cpp:399] embedding -> embedded_input_sentence
I0924 03:13:07.446357 18678 net.cpp:141] Setting up embedding
I0924 03:13:07.446415 18678 net.cpp:148] Top shape: 1 1 500 (500)
I0924 03:13:07.446424 18678 net.cpp:156] Memory required for data: 22408
I0924 03:13:07.446450 18678 layer_factory.hpp:77] Creating layer lstm1
I0924 03:13:07.446503 18678 net.cpp:91] Creating Layer lstm1
I0924 03:13:07.446518 18678 net.cpp:425] lstm1 <- embedded_input_frames
I0924 03:13:07.446532 18678 net.cpp:425] lstm1 <- cont_sentence_input_1_split_0
I0924 03:13:07.446544 18678 net.cpp:399] lstm1 -> lstm1
I0924 03:13:07.446583 18678 recurrent_layer.cpp:20] Initializing recurrent layer: assuming input batch contains 1 timesteps of 1 independent streams.
I0924 03:13:07.447166 18678 net.cpp:49] Initializing net from parameters: 
layer {
  name: "lstm1_"
  type: "Input"
  top: "x"
  top: "cont"
  input_param {
    shape {
      dim: 1
      dim: 1
      dim: 500
    }
    shape {
      dim: 1
      dim: 1
    }
  }
}
layer {
  name: "lstm1_"
  type: "Input"
  top: "c_0"
  top: "h_0"
  input_param {
    shape {
      dim: 1
      dim: 1
      dim: 1000
    }
    shape {
      dim: 1
      dim: 1
      dim: 1000
    }
  }
}
layer {
  name: "lstm1_cont_slice"
  type: "Slice"
  bottom: "cont"
  top: "cont_1"
  slice_param {
    axis: 0
  }
}
layer {
  name: "lstm1_x_transform"
  type: "InnerProduct"
  bottom: "x"
  top: "W_xc_x"
  param {
    name: "W_xc"
  }
  param {
    name: "b_c"
  }
  propagate_down: true
  inner_product_param {
    num_output: 4000
    bias_term: true
    weight_filler {
      type: "uniform"
      min: -0.08
      max: 0.08
    }
    bias_filler {
      type: "constant"
      value: 0
    }
    axis: 2
  }
}
layer {
  name: "lstm1_W_xc_x_slice"
  type: "Slice"
  bottom: "W_xc_x"
  top: "W_xc_x_1"
  slice_param {
    axis: 0
  }
}
layer {
  name: "lstm1_h_conted_0"
  type: "Scale"
  bottom: "h_0"
  bottom: "cont_1"
  top: "h_conted_0"
  scale_param {
    axis: 0
  }
}
layer {
  name: "lstm1_transform_1"
  type: "InnerProduct"
  bottom: "h_conted_0"
  top: "W_hc_h_0"
  param {
    name: "W_hc"
  }
  inner_product_param {
    num_output: 4000
    bias_term: false
    weight_filler {
      type: "uniform"
      min: -0.08
      max: 0.08
    }
    axis: 2
  }
}
layer {
  name: "lstm1_gate_input_1"
  type: "Eltwise"
  bottom: "W_hc_h_0"
  bottom: "W_xc_x_1"
  top: "gate_input_1"
  eltwise_param {
    operation: SUM
  }
}
layer {
  name: "lstm1_unit_1"
  type: "LSTMUnit"
  bottom: "c_0"
  bottom: "gate_input_1"
  bottom: "cont_1"
  top: "c_1"
  top: "h_1"
}
layer {
  name: "lstm1_"
  type: "Split"
  bottom: "c_1"
  top: "c_T"
}
layer {
  name: "lstm1_h_concat"
  type: "Concat"
  bottom: "h_1"
  top: "h"
  concat_param {
    axis: 0
  }
}
layer {
  name: "h_pseudoloss"
  type: "Reduction"
  bottom: "h"
  top: "h_pseudoloss"
  loss_weight: 1
}
I0924 03:13:07.447326 18678 layer_factory.hpp:77] Creating layer lstm1_
I0924 03:13:07.447352 18678 net.cpp:91] Creating Layer lstm1_
I0924 03:13:07.447367 18678 net.cpp:399] lstm1_ -> x
I0924 03:13:07.447389 18678 net.cpp:399] lstm1_ -> cont
I0924 03:13:07.448349 18672 net.cpp:141] Setting up embedding
I0924 03:13:07.448375 18672 net.cpp:148] Top shape: 1 1 500 (500)
I0924 03:13:07.448386 18672 net.cpp:156] Memory required for data: 22408
I0924 03:13:07.448410 18672 layer_factory.hpp:77] Creating layer lstm1
I0924 03:13:07.448437 18672 net.cpp:91] Creating Layer lstm1
I0924 03:13:07.448451 18672 net.cpp:425] lstm1 <- embedded_input_frames
I0924 03:13:07.448465 18672 net.cpp:425] lstm1 <- cont_sentence_input_1_split_0
I0924 03:13:07.448482 18672 net.cpp:399] lstm1 -> lstm1
I0924 03:13:07.448504 18672 recurrent_layer.cpp:20] Initializing recurrent layer: assuming input batch contains 1 timesteps of 1 independent streams.
I0924 03:13:07.448627 18678 net.cpp:141] Setting up lstm1_
I0924 03:13:07.448653 18678 net.cpp:148] Top shape: 1 1 500 (500)
I0924 03:13:07.448665 18678 net.cpp:148] Top shape: 1 1 (1)
I0924 03:13:07.448673 18678 net.cpp:156] Memory required for data: 2004
I0924 03:13:07.448681 18678 layer_factory.hpp:77] Creating layer lstm1_
I0924 03:13:07.448698 18678 net.cpp:91] Creating Layer lstm1_
I0924 03:13:07.448709 18678 net.cpp:399] lstm1_ -> c_0
I0924 03:13:07.448726 18678 net.cpp:399] lstm1_ -> h_0
I0924 03:13:07.448947 18672 net.cpp:49] Initializing net from parameters: 
layer {
  name: "lstm1_"
  type: "Input"
  top: "x"
  top: "cont"
  input_param {
    shape {
      dim: 1
      dim: 1
      dim: 500
    }
    shape {
      dim: 1
      dim: 1
    }
  }
}
layer {
  name: "lstm1_"
  type: "Input"
  top: "c_0"
  top: "h_0"
  input_param {
    shape {
      dim: 1
      dim: 1
      dim: 1000
    }
    shape {
      dim: 1
      dim: 1
      dim: 1000
    }
  }
}
layer {
  name: "lstm1_cont_slice"
  type: "Slice"
  bottom: "cont"
  top: "cont_1"
  slice_param {
    axis: 0
  }
}
layer {
  name: "lstm1_x_transform"
  type: "InnerProduct"
  bottom: "x"
  top: "W_xc_x"
  param {
    name: "W_xc"
  }
  param {
    name: "b_c"
  }
  propagate_down: true
  inner_product_param {
    num_output: 4000
    bias_term: true
    weight_filler {
      type: "uniform"
      min: -0.08
      max: 0.08
    }
    bias_filler {
      type: "constant"
      value: 0
    }
    axis: 2
  }
}
layer {
  name: "lstm1_W_xc_x_slice"
  type: "Slice"
  bottom: "W_xc_x"
  top: "W_xc_x_1"
  slice_param {
    axis: 0
  }
}
layer {
  name: "lstm1_h_conted_0"
  type: "Scale"
  bottom: "h_0"
  bottom: "cont_1"
  top: "h_conted_0"
  scale_param {
    axis: 0
  }
}
layer {
  name: "lstm1_transform_1"
  type: "InnerProduct"
  bottom: "h_conted_0"
  top: "W_hc_h_0"
  param {
    name: "W_hc"
  }
  inner_product_param {
    num_output: 4000
    bias_term: false
    weight_filler {
      type: "uniform"
      min: -0.08
      max: 0.08
    }
    axis: 2
  }
}
layer {
  name: "lstm1_gate_input_1"
  type: "Eltwise"
  bottom: "W_hc_h_0"
  bottom: "W_xc_x_1"
  top: "gate_input_1"
  eltwise_param {
    operation: SUM
  }
}
layer {
  name: "lstm1_unit_1"
  type: "LSTMUnit"
  bottom: "c_0"
  bottom: "gate_input_1"
  bottom: "cont_1"
  top: "c_1"
  top: "h_1"
}
layer {
  name: "lstm1_"
  type: "Split"
  bottom: "c_1"
  top: "c_T"
}
layer {
  name: "lstm1_h_concat"
  type: "Concat"
  bottom: "h_1"
  top: "h"
  concat_param {
    axis: 0
  }
}
layer {
  name: "h_pseudoloss"
  type: "Reduction"
  bottom: "h"
  top: "h_pseudoloss"
  loss_weight: 1
}
I0924 03:13:07.448982 18678 net.cpp:141] Setting up lstm1_
I0924 03:13:07.448998 18678 net.cpp:148] Top shape: 1 1 1000 (1000)
I0924 03:13:07.449007 18678 net.cpp:148] Top shape: 1 1 1000 (1000)
I0924 03:13:07.449014 18678 net.cpp:156] Memory required for data: 10004
I0924 03:13:07.449023 18678 layer_factory.hpp:77] Creating layer lstm1_cont_slice
I0924 03:13:07.449038 18678 net.cpp:91] Creating Layer lstm1_cont_slice
I0924 03:13:07.449045 18678 net.cpp:425] lstm1_cont_slice <- cont
I0924 03:13:07.449061 18678 net.cpp:399] lstm1_cont_slice -> cont_1
I0924 03:13:07.449113 18672 layer_factory.hpp:77] Creating layer lstm1_
I0924 03:13:07.449136 18672 net.cpp:91] Creating Layer lstm1_
I0924 03:13:07.449149 18672 net.cpp:399] lstm1_ -> x
I0924 03:13:07.449168 18672 net.cpp:399] lstm1_ -> cont
I0924 03:13:07.454066 18678 net.cpp:141] Setting up lstm1_cont_slice
I0924 03:13:07.454113 18678 net.cpp:148] Top shape: 1 1 (1)
I0924 03:13:07.454123 18678 net.cpp:156] Memory required for data: 10008
I0924 03:13:07.454134 18678 layer_factory.hpp:77] Creating layer cont_1_lstm1_cont_slice_0_split
I0924 03:13:07.454155 18678 net.cpp:91] Creating Layer cont_1_lstm1_cont_slice_0_split
I0924 03:13:07.454161 18672 net.cpp:141] Setting up lstm1_
I0924 03:13:07.454165 18678 net.cpp:425] cont_1_lstm1_cont_slice_0_split <- cont_1
I0924 03:13:07.454187 18672 net.cpp:148] Top shape: 1 1 500 (500)
I0924 03:13:07.454193 18678 net.cpp:399] cont_1_lstm1_cont_slice_0_split -> cont_1_lstm1_cont_slice_0_split_0
I0924 03:13:07.454203 18672 net.cpp:148] Top shape: 1 1 (1)
I0924 03:13:07.454212 18672 net.cpp:156] Memory required for data: 2004
I0924 03:13:07.454218 18678 net.cpp:399] cont_1_lstm1_cont_slice_0_split -> cont_1_lstm1_cont_slice_0_split_1
I0924 03:13:07.454223 18672 layer_factory.hpp:77] Creating layer lstm1_
I0924 03:13:07.454254 18672 net.cpp:91] Creating Layer lstm1_
I0924 03:13:07.454272 18672 net.cpp:399] lstm1_ -> c_0
I0924 03:13:07.454295 18672 net.cpp:399] lstm1_ -> h_0
I0924 03:13:07.454303 18678 net.cpp:141] Setting up cont_1_lstm1_cont_slice_0_split
I0924 03:13:07.454319 18678 net.cpp:148] Top shape: 1 1 (1)
I0924 03:13:07.454329 18678 net.cpp:148] Top shape: 1 1 (1)
I0924 03:13:07.454335 18678 net.cpp:156] Memory required for data: 10016
I0924 03:13:07.454344 18678 layer_factory.hpp:77] Creating layer lstm1_x_transform
I0924 03:13:07.454368 18678 net.cpp:91] Creating Layer lstm1_x_transform
I0924 03:13:07.454376 18678 net.cpp:425] lstm1_x_transform <- x
I0924 03:13:07.454416 18678 net.cpp:399] lstm1_x_transform -> W_xc_x
I0924 03:13:07.456667 18672 net.cpp:141] Setting up lstm1_
I0924 03:13:07.456693 18672 net.cpp:148] Top shape: 1 1 1000 (1000)
I0924 03:13:07.456707 18672 net.cpp:148] Top shape: 1 1 1000 (1000)
I0924 03:13:07.456715 18672 net.cpp:156] Memory required for data: 10004
I0924 03:13:07.456725 18672 layer_factory.hpp:77] Creating layer lstm1_cont_slice
I0924 03:13:07.456745 18672 net.cpp:91] Creating Layer lstm1_cont_slice
I0924 03:13:07.456758 18672 net.cpp:425] lstm1_cont_slice <- cont
I0924 03:13:07.456779 18672 net.cpp:399] lstm1_cont_slice -> cont_1
I0924 03:13:07.470697 18672 net.cpp:141] Setting up lstm1_cont_slice
I0924 03:13:07.470754 18672 net.cpp:148] Top shape: 1 1 (1)
I0924 03:13:07.470767 18672 net.cpp:156] Memory required for data: 10008
I0924 03:13:07.470782 18672 layer_factory.hpp:77] Creating layer cont_1_lstm1_cont_slice_0_split
I0924 03:13:07.470809 18672 net.cpp:91] Creating Layer cont_1_lstm1_cont_slice_0_split
I0924 03:13:07.470824 18672 net.cpp:425] cont_1_lstm1_cont_slice_0_split <- cont_1
I0924 03:13:07.470844 18672 net.cpp:399] cont_1_lstm1_cont_slice_0_split -> cont_1_lstm1_cont_slice_0_split_0
I0924 03:13:07.470868 18672 net.cpp:399] cont_1_lstm1_cont_slice_0_split -> cont_1_lstm1_cont_slice_0_split_1
I0924 03:13:07.473927 18672 net.cpp:141] Setting up cont_1_lstm1_cont_slice_0_split
I0924 03:13:07.473968 18672 net.cpp:148] Top shape: 1 1 (1)
I0924 03:13:07.473984 18672 net.cpp:148] Top shape: 1 1 (1)
I0924 03:13:07.473994 18672 net.cpp:156] Memory required for data: 10016
I0924 03:13:07.474006 18672 layer_factory.hpp:77] Creating layer lstm1_x_transform
I0924 03:13:07.474050 18672 net.cpp:91] Creating Layer lstm1_x_transform
I0924 03:13:07.474064 18672 net.cpp:425] lstm1_x_transform <- x
I0924 03:13:07.474083 18672 net.cpp:399] lstm1_x_transform -> W_xc_x
I0924 03:13:07.496948 18696 net.cpp:141] Setting up embedding
I0924 03:13:07.497000 18696 net.cpp:148] Top shape: 1 1 500 (500)
I0924 03:13:07.497010 18696 net.cpp:156] Memory required for data: 22408
I0924 03:13:07.497032 18696 layer_factory.hpp:77] Creating layer lstm1
I0924 03:13:07.497056 18696 net.cpp:91] Creating Layer lstm1
I0924 03:13:07.497068 18696 net.cpp:425] lstm1 <- embedded_input_frames
I0924 03:13:07.497081 18696 net.cpp:425] lstm1 <- cont_sentence_input_1_split_0
I0924 03:13:07.497098 18696 net.cpp:399] lstm1 -> lstm1
I0924 03:13:07.497120 18696 recurrent_layer.cpp:20] Initializing recurrent layer: assuming input batch contains 1 timesteps of 1 independent streams.
I0924 03:13:07.497511 18696 net.cpp:49] Initializing net from parameters: 
layer {
  name: "lstm1_"
  type: "Input"
  top: "x"
  top: "cont"
  input_param {
    shape {
      dim: 1
      dim: 1
      dim: 500
    }
    shape {
      dim: 1
      dim: 1
    }
  }
}
layer {
  name: "lstm1_"
  type: "Input"
  top: "c_0"
  top: "h_0"
  input_param {
    shape {
      dim: 1
      dim: 1
      dim: 1000
    }
    shape {
      dim: 1
      dim: 1
      dim: 1000
    }
  }
}
layer {
  name: "lstm1_cont_slice"
  type: "Slice"
  bottom: "cont"
  top: "cont_1"
  slice_param {
    axis: 0
  }
}
layer {
  name: "lstm1_x_transform"
  type: "InnerProduct"
  bottom: "x"
  top: "W_xc_x"
  param {
    name: "W_xc"
  }
  param {
    name: "b_c"
  }
  propagate_down: true
  inner_product_param {
    num_output: 4000
    bias_term: true
    weight_filler {
      type: "uniform"
      min: -0.08
      max: 0.08
    }
    bias_filler {
      type: "constant"
      value: 0
    }
    axis: 2
  }
}
layer {
  name: "lstm1_W_xc_x_slice"
  type: "Slice"
  bottom: "W_xc_x"
  top: "W_xc_x_1"
  slice_param {
    axis: 0
  }
}
layer {
  name: "lstm1_h_conted_0"
  type: "Scale"
  bottom: "h_0"
  bottom: "cont_1"
  top: "h_conted_0"
  scale_param {
    axis: 0
  }
}
layer {
  name: "lstm1_transform_1"
  type: "InnerProduct"
  bottom: "h_conted_0"
  top: "W_hc_h_0"
  param {
    name: "W_hc"
  }
  inner_product_param {
    num_output: 4000
    bias_term: false
    weight_filler {
      type: "uniform"
      min: -0.08
      max: 0.08
    }
    axis: 2
  }
}
layer {
  name: "lstm1_gate_input_1"
  type: "Eltwise"
  bottom: "W_hc_h_0"
  bottom: "W_xc_x_1"
  top: "gate_input_1"
  eltwise_param {
    operation: SUM
  }
}
layer {
  name: "lstm1_unit_1"
  type: "LSTMUnit"
  bottom: "c_0"
  bottom: "gate_input_1"
  bottom: "cont_1"
  top: "c_1"
  top: "h_1"
}
layer {
  name: "lstm1_"
  type: "Split"
  bottom: "c_1"
  top: "c_T"
}
layer {
  name: "lstm1_h_concat"
  type: "Concat"
  bottom: "h_1"
  top: "h"
  concat_param {
    axis: 0
  }
}
layer {
  name: "h_pseudoloss"
  type: "Reduction"
  bottom: "h"
  top: "h_pseudoloss"
  loss_weight: 1
}
I0924 03:13:07.497639 18696 layer_factory.hpp:77] Creating layer lstm1_
I0924 03:13:07.497656 18696 net.cpp:91] Creating Layer lstm1_
I0924 03:13:07.497668 18696 net.cpp:399] lstm1_ -> x
I0924 03:13:07.497684 18696 net.cpp:399] lstm1_ -> cont
I0924 03:13:07.497997 18696 net.cpp:141] Setting up lstm1_
I0924 03:13:07.498013 18696 net.cpp:148] Top shape: 1 1 500 (500)
I0924 03:13:07.498023 18696 net.cpp:148] Top shape: 1 1 (1)
I0924 03:13:07.498031 18696 net.cpp:156] Memory required for data: 2004
I0924 03:13:07.498039 18696 layer_factory.hpp:77] Creating layer lstm1_
I0924 03:13:07.498054 18696 net.cpp:91] Creating Layer lstm1_
I0924 03:13:07.498069 18696 net.cpp:399] lstm1_ -> c_0
I0924 03:13:07.498085 18696 net.cpp:399] lstm1_ -> h_0
I0924 03:13:07.498275 18696 net.cpp:141] Setting up lstm1_
I0924 03:13:07.498291 18696 net.cpp:148] Top shape: 1 1 1000 (1000)
I0924 03:13:07.498301 18696 net.cpp:148] Top shape: 1 1 1000 (1000)
I0924 03:13:07.498307 18696 net.cpp:156] Memory required for data: 10004
I0924 03:13:07.498316 18696 layer_factory.hpp:77] Creating layer lstm1_cont_slice
I0924 03:13:07.498328 18696 net.cpp:91] Creating Layer lstm1_cont_slice
I0924 03:13:07.498337 18696 net.cpp:425] lstm1_cont_slice <- cont
I0924 03:13:07.498350 18696 net.cpp:399] lstm1_cont_slice -> cont_1
I0924 03:13:07.498522 18696 net.cpp:141] Setting up lstm1_cont_slice
I0924 03:13:07.498538 18696 net.cpp:148] Top shape: 1 1 (1)
I0924 03:13:07.498545 18696 net.cpp:156] Memory required for data: 10008
I0924 03:13:07.498553 18696 layer_factory.hpp:77] Creating layer cont_1_lstm1_cont_slice_0_split
I0924 03:13:07.498574 18696 net.cpp:91] Creating Layer cont_1_lstm1_cont_slice_0_split
I0924 03:13:07.498582 18696 net.cpp:425] cont_1_lstm1_cont_slice_0_split <- cont_1
I0924 03:13:07.498594 18696 net.cpp:399] cont_1_lstm1_cont_slice_0_split -> cont_1_lstm1_cont_slice_0_split_0
I0924 03:13:07.498628 18696 net.cpp:399] cont_1_lstm1_cont_slice_0_split -> cont_1_lstm1_cont_slice_0_split_1
I0924 03:13:07.498699 18696 net.cpp:141] Setting up cont_1_lstm1_cont_slice_0_split
I0924 03:13:07.498714 18696 net.cpp:148] Top shape: 1 1 (1)
I0924 03:13:07.498723 18696 net.cpp:148] Top shape: 1 1 (1)
I0924 03:13:07.498731 18696 net.cpp:156] Memory required for data: 10016
I0924 03:13:07.498739 18696 layer_factory.hpp:77] Creating layer lstm1_x_transform
I0924 03:13:07.498754 18696 net.cpp:91] Creating Layer lstm1_x_transform
I0924 03:13:07.498761 18696 net.cpp:425] lstm1_x_transform <- x
I0924 03:13:07.498775 18696 net.cpp:399] lstm1_x_transform -> W_xc_x
I0924 03:13:07.506453 18678 net.cpp:141] Setting up lstm1_x_transform
I0924 03:13:07.506497 18678 net.cpp:148] Top shape: 1 1 4000 (4000)
I0924 03:13:07.506503 18678 net.cpp:156] Memory required for data: 26016
I0924 03:13:07.506527 18678 layer_factory.hpp:77] Creating layer lstm1_W_xc_x_slice
I0924 03:13:07.506546 18678 net.cpp:91] Creating Layer lstm1_W_xc_x_slice
I0924 03:13:07.506552 18678 net.cpp:425] lstm1_W_xc_x_slice <- W_xc_x
I0924 03:13:07.506562 18678 net.cpp:399] lstm1_W_xc_x_slice -> W_xc_x_1
I0924 03:13:07.510325 18678 net.cpp:141] Setting up lstm1_W_xc_x_slice
I0924 03:13:07.510365 18678 net.cpp:148] Top shape: 1 1 4000 (4000)
I0924 03:13:07.510375 18678 net.cpp:156] Memory required for data: 42016
I0924 03:13:07.510385 18678 layer_factory.hpp:77] Creating layer lstm1_h_conted_0
I0924 03:13:07.510421 18678 net.cpp:91] Creating Layer lstm1_h_conted_0
I0924 03:13:07.510432 18678 net.cpp:425] lstm1_h_conted_0 <- h_0
I0924 03:13:07.510445 18678 net.cpp:425] lstm1_h_conted_0 <- cont_1_lstm1_cont_slice_0_split_0
I0924 03:13:07.510460 18678 net.cpp:399] lstm1_h_conted_0 -> h_conted_0
I0924 03:13:07.510501 18672 net.cpp:141] Setting up lstm1_x_transform
I0924 03:13:07.510521 18672 net.cpp:148] Top shape: 1 1 4000 (4000)
I0924 03:13:07.510530 18672 net.cpp:156] Memory required for data: 26016
I0924 03:13:07.510550 18672 layer_factory.hpp:77] Creating layer lstm1_W_xc_x_slice
I0924 03:13:07.510565 18672 net.cpp:91] Creating Layer lstm1_W_xc_x_slice
I0924 03:13:07.510576 18672 net.cpp:425] lstm1_W_xc_x_slice <- W_xc_x
I0924 03:13:07.510607 18672 net.cpp:399] lstm1_W_xc_x_slice -> W_xc_x_1
I0924 03:13:07.510666 18678 net.cpp:141] Setting up lstm1_h_conted_0
I0924 03:13:07.510686 18678 net.cpp:148] Top shape: 1 1 1000 (1000)
I0924 03:13:07.510696 18678 net.cpp:156] Memory required for data: 46016
I0924 03:13:07.510706 18678 layer_factory.hpp:77] Creating layer lstm1_transform_1
I0924 03:13:07.510730 18678 net.cpp:91] Creating Layer lstm1_transform_1
I0924 03:13:07.510742 18678 net.cpp:425] lstm1_transform_1 <- h_conted_0
I0924 03:13:07.510761 18678 net.cpp:399] lstm1_transform_1 -> W_hc_h_0
I0924 03:13:07.522220 18672 net.cpp:141] Setting up lstm1_W_xc_x_slice
I0924 03:13:07.522275 18672 net.cpp:148] Top shape: 1 1 4000 (4000)
I0924 03:13:07.522282 18672 net.cpp:156] Memory required for data: 42016
I0924 03:13:07.522292 18672 layer_factory.hpp:77] Creating layer lstm1_h_conted_0
I0924 03:13:07.522313 18672 net.cpp:91] Creating Layer lstm1_h_conted_0
I0924 03:13:07.522320 18672 net.cpp:425] lstm1_h_conted_0 <- h_0
I0924 03:13:07.522330 18672 net.cpp:425] lstm1_h_conted_0 <- cont_1_lstm1_cont_slice_0_split_0
I0924 03:13:07.522354 18672 net.cpp:399] lstm1_h_conted_0 -> h_conted_0
I0924 03:13:07.522506 18672 net.cpp:141] Setting up lstm1_h_conted_0
I0924 03:13:07.522517 18672 net.cpp:148] Top shape: 1 1 1000 (1000)
I0924 03:13:07.522522 18672 net.cpp:156] Memory required for data: 46016
I0924 03:13:07.522527 18672 layer_factory.hpp:77] Creating layer lstm1_transform_1
I0924 03:13:07.522545 18672 net.cpp:91] Creating Layer lstm1_transform_1
I0924 03:13:07.522550 18672 net.cpp:425] lstm1_transform_1 <- h_conted_0
I0924 03:13:07.522559 18672 net.cpp:399] lstm1_transform_1 -> W_hc_h_0
I0924 03:13:07.522613 18696 net.cpp:141] Setting up lstm1_x_transform
I0924 03:13:07.522660 18696 net.cpp:148] Top shape: 1 1 4000 (4000)
I0924 03:13:07.522668 18696 net.cpp:156] Memory required for data: 26016
I0924 03:13:07.522689 18696 layer_factory.hpp:77] Creating layer lstm1_W_xc_x_slice
I0924 03:13:07.522703 18696 net.cpp:91] Creating Layer lstm1_W_xc_x_slice
I0924 03:13:07.522711 18696 net.cpp:425] lstm1_W_xc_x_slice <- W_xc_x
I0924 03:13:07.522721 18696 net.cpp:399] lstm1_W_xc_x_slice -> W_xc_x_1
I0924 03:13:07.530822 18696 net.cpp:141] Setting up lstm1_W_xc_x_slice
I0924 03:13:07.530884 18696 net.cpp:148] Top shape: 1 1 4000 (4000)
I0924 03:13:07.530894 18696 net.cpp:156] Memory required for data: 42016
I0924 03:13:07.530907 18696 layer_factory.hpp:77] Creating layer lstm1_h_conted_0
I0924 03:13:07.530931 18696 net.cpp:91] Creating Layer lstm1_h_conted_0
I0924 03:13:07.530942 18696 net.cpp:425] lstm1_h_conted_0 <- h_0
I0924 03:13:07.530956 18696 net.cpp:425] lstm1_h_conted_0 <- cont_1_lstm1_cont_slice_0_split_0
I0924 03:13:07.530971 18696 net.cpp:399] lstm1_h_conted_0 -> h_conted_0
I0924 03:13:07.533298 18696 net.cpp:141] Setting up lstm1_h_conted_0
I0924 03:13:07.533326 18696 net.cpp:148] Top shape: 1 1 1000 (1000)
I0924 03:13:07.533334 18696 net.cpp:156] Memory required for data: 46016
I0924 03:13:07.533344 18696 layer_factory.hpp:77] Creating layer lstm1_transform_1
I0924 03:13:07.533362 18696 net.cpp:91] Creating Layer lstm1_transform_1
I0924 03:13:07.533371 18696 net.cpp:425] lstm1_transform_1 <- h_conted_0
I0924 03:13:07.533385 18696 net.cpp:399] lstm1_transform_1 -> W_hc_h_0
I0924 03:13:07.560861 18668 net.cpp:141] Setting up embedding
I0924 03:13:07.560919 18668 net.cpp:148] Top shape: 1 1 500 (500)
I0924 03:13:07.560928 18668 net.cpp:156] Memory required for data: 22408
I0924 03:13:07.560953 18668 layer_factory.hpp:77] Creating layer lstm1
I0924 03:13:07.560981 18668 net.cpp:91] Creating Layer lstm1
I0924 03:13:07.560993 18668 net.cpp:425] lstm1 <- embedded_input_frames
I0924 03:13:07.561005 18668 net.cpp:425] lstm1 <- cont_sentence_input_1_split_0
I0924 03:13:07.561019 18668 net.cpp:399] lstm1 -> lstm1
I0924 03:13:07.561043 18668 recurrent_layer.cpp:20] Initializing recurrent layer: assuming input batch contains 1 timesteps of 1 independent streams.
I0924 03:13:07.561435 18668 net.cpp:49] Initializing net from parameters: 
layer {
  name: "lstm1_"
  type: "Input"
  top: "x"
  top: "cont"
  input_param {
    shape {
      dim: 1
      dim: 1
      dim: 500
    }
    shape {
      dim: 1
      dim: 1
    }
  }
}
layer {
  name: "lstm1_"
  type: "Input"
  top: "c_0"
  top: "h_0"
  input_param {
    shape {
      dim: 1
      dim: 1
      dim: 1000
    }
    shape {
      dim: 1
      dim: 1
      dim: 1000
    }
  }
}
layer {
  name: "lstm1_cont_slice"
  type: "Slice"
  bottom: "cont"
  top: "cont_1"
  slice_param {
    axis: 0
  }
}
layer {
  name: "lstm1_x_transform"
  type: "InnerProduct"
  bottom: "x"
  top: "W_xc_x"
  param {
    name: "W_xc"
  }
  param {
    name: "b_c"
  }
  propagate_down: true
  inner_product_param {
    num_output: 4000
    bias_term: true
    weight_filler {
      type: "uniform"
      min: -0.08
      max: 0.08
    }
    bias_filler {
      type: "constant"
      value: 0
    }
    axis: 2
  }
}
layer {
  name: "lstm1_W_xc_x_slice"
  type: "Slice"
  bottom: "W_xc_x"
  top: "W_xc_x_1"
  slice_param {
    axis: 0
  }
}
layer {
  name: "lstm1_h_conted_0"
  type: "Scale"
  bottom: "h_0"
  bottom: "cont_1"
  top: "h_conted_0"
  scale_param {
    axis: 0
  }
}
layer {
  name: "lstm1_transform_1"
  type: "InnerProduct"
  bottom: "h_conted_0"
  top: "W_hc_h_0"
  param {
    name: "W_hc"
  }
  inner_product_param {
    num_output: 4000
    bias_term: false
    weight_filler {
      type: "uniform"
      min: -0.08
      max: 0.08
    }
    axis: 2
  }
}
layer {
  name: "lstm1_gate_input_1"
  type: "Eltwise"
  bottom: "W_hc_h_0"
  bottom: "W_xc_x_1"
  top: "gate_input_1"
  eltwise_param {
    operation: SUM
  }
}
layer {
  name: "lstm1_unit_1"
  type: "LSTMUnit"
  bottom: "c_0"
  bottom: "gate_input_1"
  bottom: "cont_1"
  top: "c_1"
  top: "h_1"
}
layer {
  name: "lstm1_"
  type: "Split"
  bottom: "c_1"
  top: "c_T"
}
layer {
  name: "lstm1_h_concat"
  type: "Concat"
  bottom: "h_1"
  top: "h"
  concat_param {
    axis: 0
  }
}
layer {
  name: "h_pseudoloss"
  type: "Reduction"
  bottom: "h"
  top: "h_pseudoloss"
  loss_weight: 1
}
I0924 03:13:07.561563 18668 layer_factory.hpp:77] Creating layer lstm1_
I0924 03:13:07.561583 18668 net.cpp:91] Creating Layer lstm1_
I0924 03:13:07.561594 18668 net.cpp:399] lstm1_ -> x
I0924 03:13:07.561612 18668 net.cpp:399] lstm1_ -> cont
I0924 03:13:07.568447 18678 net.cpp:141] Setting up lstm1_transform_1
I0924 03:13:07.568483 18668 net.cpp:141] Setting up lstm1_
I0924 03:13:07.568529 18668 net.cpp:148] Top shape: 1 1 500 (500)
I0924 03:13:07.568496 18678 net.cpp:148] Top shape: 1 1 4000 (4000)
I0924 03:13:07.568542 18668 net.cpp:148] Top shape: 1 1 (1)
I0924 03:13:07.568544 18678 net.cpp:156] Memory required for data: 62016
I0924 03:13:07.568550 18668 net.cpp:156] Memory required for data: 2004
I0924 03:13:07.568563 18668 layer_factory.hpp:77] Creating layer lstm1_
I0924 03:13:07.568573 18678 layer_factory.hpp:77] Creating layer lstm1_gate_input_1
I0924 03:13:07.568590 18668 net.cpp:91] Creating Layer lstm1_
I0924 03:13:07.568603 18668 net.cpp:399] lstm1_ -> c_0
I0924 03:13:07.568626 18678 net.cpp:91] Creating Layer lstm1_gate_input_1
I0924 03:13:07.568631 18668 net.cpp:399] lstm1_ -> h_0
I0924 03:13:07.568639 18678 net.cpp:425] lstm1_gate_input_1 <- W_hc_h_0
I0924 03:13:07.568651 18678 net.cpp:425] lstm1_gate_input_1 <- W_xc_x_1
I0924 03:13:07.568663 18678 net.cpp:399] lstm1_gate_input_1 -> gate_input_1
I0924 03:13:07.571610 18668 net.cpp:141] Setting up lstm1_
I0924 03:13:07.571640 18668 net.cpp:148] Top shape: 1 1 1000 (1000)
I0924 03:13:07.571650 18668 net.cpp:148] Top shape: 1 1 1000 (1000)
I0924 03:13:07.571658 18668 net.cpp:156] Memory required for data: 10004
I0924 03:13:07.571667 18668 layer_factory.hpp:77] Creating layer lstm1_cont_slice
I0924 03:13:07.571671 18678 net.cpp:141] Setting up lstm1_gate_input_1
I0924 03:13:07.571689 18678 net.cpp:148] Top shape: 1 1 4000 (4000)
I0924 03:13:07.571689 18668 net.cpp:91] Creating Layer lstm1_cont_slice
I0924 03:13:07.571697 18678 net.cpp:156] Memory required for data: 78016
I0924 03:13:07.571702 18668 net.cpp:425] lstm1_cont_slice <- cont
I0924 03:13:07.571707 18678 layer_factory.hpp:77] Creating layer lstm1_unit_1
I0924 03:13:07.571715 18668 net.cpp:399] lstm1_cont_slice -> cont_1
I0924 03:13:07.571755 18672 net.cpp:141] Setting up lstm1_transform_1
I0924 03:13:07.571775 18672 net.cpp:148] Top shape: 1 1 4000 (4000)
I0924 03:13:07.571775 18678 net.cpp:91] Creating Layer lstm1_unit_1
I0924 03:13:07.571790 18672 net.cpp:156] Memory required for data: 62016
I0924 03:13:07.571795 18678 net.cpp:425] lstm1_unit_1 <- c_0
I0924 03:13:07.571797 18668 net.cpp:141] Setting up lstm1_cont_slice
I0924 03:13:07.571806 18678 net.cpp:425] lstm1_unit_1 <- gate_input_1
I0924 03:13:07.571815 18668 net.cpp:148] Top shape: 1 1 (1)
I0924 03:13:07.571807 18672 layer_factory.hpp:77] Creating layer lstm1_gate_input_1
I0924 03:13:07.571828 18678 net.cpp:425] lstm1_unit_1 <- cont_1_lstm1_cont_slice_0_split_1
I0924 03:13:07.571823 18668 net.cpp:156] Memory required for data: 10008
I0924 03:13:07.571851 18668 layer_factory.hpp:77] Creating layer cont_1_lstm1_cont_slice_0_split
I0924 03:13:07.571851 18678 net.cpp:399] lstm1_unit_1 -> c_1
I0924 03:13:07.571868 18668 net.cpp:91] Creating Layer cont_1_lstm1_cont_slice_0_split
I0924 03:13:07.571879 18678 net.cpp:399] lstm1_unit_1 -> h_1
I0924 03:13:07.571867 18672 net.cpp:91] Creating Layer lstm1_gate_input_1
I0924 03:13:07.571887 18668 net.cpp:425] cont_1_lstm1_cont_slice_0_split <- cont_1
I0924 03:13:07.571903 18672 net.cpp:425] lstm1_gate_input_1 <- W_hc_h_0
I0924 03:13:07.571915 18672 net.cpp:425] lstm1_gate_input_1 <- W_xc_x_1
I0924 03:13:07.571918 18668 net.cpp:399] cont_1_lstm1_cont_slice_0_split -> cont_1_lstm1_cont_slice_0_split_0
I0924 03:13:07.571928 18672 net.cpp:399] lstm1_gate_input_1 -> gate_input_1
I0924 03:13:07.571934 18668 net.cpp:399] cont_1_lstm1_cont_slice_0_split -> cont_1_lstm1_cont_slice_0_split_1
I0924 03:13:07.572031 18678 net.cpp:141] Setting up lstm1_unit_1
I0924 03:13:07.572047 18678 net.cpp:148] Top shape: 1 1 1000 (1000)
I0924 03:13:07.572057 18678 net.cpp:148] Top shape: 1 1 1000 (1000)
I0924 03:13:07.572063 18678 net.cpp:156] Memory required for data: 86016
I0924 03:13:07.572072 18678 layer_factory.hpp:77] Creating layer lstm1_
I0924 03:13:07.572072 18672 net.cpp:141] Setting up lstm1_gate_input_1
I0924 03:13:07.572087 18678 net.cpp:91] Creating Layer lstm1_
I0924 03:13:07.572088 18672 net.cpp:148] Top shape: 1 1 4000 (4000)
I0924 03:13:07.572101 18678 net.cpp:425] lstm1_ <- c_1
I0924 03:13:07.572108 18672 net.cpp:156] Memory required for data: 78016
I0924 03:13:07.572113 18678 net.cpp:399] lstm1_ -> c_T
I0924 03:13:07.572116 18672 layer_factory.hpp:77] Creating layer lstm1_unit_1
I0924 03:13:07.572135 18672 net.cpp:91] Creating Layer lstm1_unit_1
I0924 03:13:07.572144 18672 net.cpp:425] lstm1_unit_1 <- c_0
I0924 03:13:07.572154 18672 net.cpp:425] lstm1_unit_1 <- gate_input_1
I0924 03:13:07.572162 18672 net.cpp:425] lstm1_unit_1 <- cont_1_lstm1_cont_slice_0_split_1
I0924 03:13:07.572173 18672 net.cpp:399] lstm1_unit_1 -> c_1
I0924 03:13:07.572187 18672 net.cpp:399] lstm1_unit_1 -> h_1
I0924 03:13:07.572367 18668 net.cpp:141] Setting up cont_1_lstm1_cont_slice_0_split
I0924 03:13:07.572384 18668 net.cpp:148] Top shape: 1 1 (1)
I0924 03:13:07.572393 18668 net.cpp:148] Top shape: 1 1 (1)
I0924 03:13:07.572401 18668 net.cpp:156] Memory required for data: 10016
I0924 03:13:07.572408 18668 layer_factory.hpp:77] Creating layer lstm1_x_transform
I0924 03:13:07.572432 18668 net.cpp:91] Creating Layer lstm1_x_transform
I0924 03:13:07.572441 18668 net.cpp:425] lstm1_x_transform <- x
I0924 03:13:07.572455 18668 net.cpp:399] lstm1_x_transform -> W_xc_x
I0924 03:13:07.572494 18672 net.cpp:141] Setting up lstm1_unit_1
I0924 03:13:07.572511 18672 net.cpp:148] Top shape: 1 1 1000 (1000)
I0924 03:13:07.572521 18672 net.cpp:148] Top shape: 1 1 1000 (1000)
I0924 03:13:07.572525 18678 net.cpp:141] Setting up lstm1_
I0924 03:13:07.572528 18672 net.cpp:156] Memory required for data: 86016
I0924 03:13:07.572546 18678 net.cpp:148] Top shape: 1 1 1000 (1000)
I0924 03:13:07.572548 18672 layer_factory.hpp:77] Creating layer lstm1_
I0924 03:13:07.572554 18678 net.cpp:156] Memory required for data: 90016
I0924 03:13:07.572561 18672 net.cpp:91] Creating Layer lstm1_
I0924 03:13:07.572562 18678 layer_factory.hpp:77] Creating layer lstm1_h_concat
I0924 03:13:07.572576 18672 net.cpp:425] lstm1_ <- c_1
I0924 03:13:07.572588 18672 net.cpp:399] lstm1_ -> c_T
I0924 03:13:07.572590 18678 net.cpp:91] Creating Layer lstm1_h_concat
I0924 03:13:07.572598 18678 net.cpp:425] lstm1_h_concat <- h_1
I0924 03:13:07.572610 18678 net.cpp:399] lstm1_h_concat -> h
I0924 03:13:07.572834 18672 net.cpp:141] Setting up lstm1_
I0924 03:13:07.572849 18672 net.cpp:148] Top shape: 1 1 1000 (1000)
I0924 03:13:07.572857 18672 net.cpp:156] Memory required for data: 90016
I0924 03:13:07.572865 18672 layer_factory.hpp:77] Creating layer lstm1_h_concat
I0924 03:13:07.572877 18672 net.cpp:91] Creating Layer lstm1_h_concat
I0924 03:13:07.572885 18672 net.cpp:425] lstm1_h_concat <- h_1
I0924 03:13:07.572897 18672 net.cpp:399] lstm1_h_concat -> h
I0924 03:13:07.572897 18678 net.cpp:141] Setting up lstm1_h_concat
I0924 03:13:07.572912 18678 net.cpp:148] Top shape: 1 1 1000 (1000)
I0924 03:13:07.572932 18678 net.cpp:156] Memory required for data: 94016
I0924 03:13:07.572938 18678 layer_factory.hpp:77] Creating layer h_pseudoloss
I0924 03:13:07.572958 18678 net.cpp:91] Creating Layer h_pseudoloss
I0924 03:13:07.572968 18678 net.cpp:425] h_pseudoloss <- h
I0924 03:13:07.572991 18678 net.cpp:399] h_pseudoloss -> h_pseudoloss
I0924 03:13:07.582901 18672 net.cpp:141] Setting up lstm1_h_concat
I0924 03:13:07.582947 18672 net.cpp:148] Top shape: 1 1 1000 (1000)
I0924 03:13:07.582952 18672 net.cpp:156] Memory required for data: 94016
I0924 03:13:07.582962 18672 layer_factory.hpp:77] Creating layer h_pseudoloss
I0924 03:13:07.582981 18672 net.cpp:91] Creating Layer h_pseudoloss
I0924 03:13:07.582989 18672 net.cpp:425] h_pseudoloss <- h
I0924 03:13:07.583001 18672 net.cpp:399] h_pseudoloss -> h_pseudoloss
I0924 03:13:07.583009 18678 net.cpp:141] Setting up h_pseudoloss
…
I0924 03:13:07.583276 18678 net.cpp:274] Network initialization done.
I0924 03:13:07.583338 18672 recurrent_layer.cpp:150] Adding parameter 0: W_xc
I0924 03:13:07.583341 18678 recurrent_layer.cpp:150] Adding parameter 0: W_xc
I0924 03:13:07.583345 18672 recurrent_layer.cpp:150] Adding parameter 1: b_c
I0924 03:13:07.583350 18672 recurrent_layer.cpp:150] Adding parameter 2: W_hc
I0924 03:13:07.583350 18678 recurrent_layer.cpp:150] Adding parameter 1: b_c
I0924 03:13:07.583359 18678 recurrent_layer.cpp:150] Adding parameter 2: W_hc
I0924 03:13:07.583508 18672 net.cpp:141] Setting up lstm1
I0924 03:13:07.583518 18672 net.cpp:148] Top shape: 1 1 1000 (1000)
I0924 03:13:07.583523 18672 net.cpp:156] Memory required for data: 26408
I0924 03:13:07.583539 18672 layer_factory.hpp:77] Creating layer concat
I0924 03:13:07.583551 18672 net.cpp:91] Creating Layer concat
I0924 03:13:07.583549 18678 net.cpp:141] Setting up lstm1
I0924 03:13:07.583557 18672 net.cpp:425] concat <- lstm1
I0924 03:13:07.583565 18678 net.cpp:148] Top shape: 1 1 1000 (1000)
I0924 03:13:07.583566 18672 net.cpp:425] concat <- embedded_input_sentence
I0924 03:13:07.583580 18678 net.cpp:156] Memory required for data: 26408
I0924 03:13:07.583590 18672 net.cpp:425] concat <- reshaped_stage_indicator
I0924 03:13:07.583602 18672 net.cpp:399] concat -> lstm1_video_sequence
I0924 03:13:07.583606 18678 layer_factory.hpp:77] Creating layer concat
I0924 03:13:07.583618 18678 net.cpp:91] Creating Layer concat
I0924 03:13:07.583627 18678 net.cpp:425] concat <- lstm1
I0924 03:13:07.583637 18678 net.cpp:425] concat <- embedded_input_sentence
I0924 03:13:07.583643 18672 net.cpp:141] Setting up concat
I0924 03:13:07.583647 18678 net.cpp:425] concat <- reshaped_stage_indicator
I0924 03:13:07.583652 18672 net.cpp:148] Top shape: 1 1 1501 (1501)
I0924 03:13:07.583657 18672 net.cpp:156] Memory required for data: 32412
I0924 03:13:07.583657 18678 net.cpp:399] concat -> lstm1_video_sequence
I0924 03:13:07.583670 18672 layer_factory.hpp:77] Creating layer lstm2
I0924 03:13:07.583689 18672 net.cpp:91] Creating Layer lstm2
I0924 03:13:07.583698 18672 net.cpp:425] lstm2 <- lstm1_video_sequence
I0924 03:13:07.583709 18672 net.cpp:425] lstm2 <- cont_sentence_input_1_split_1
I0924 03:13:07.583716 18678 net.cpp:141] Setting up concat
I0924 03:13:07.583722 18672 net.cpp:399] lstm2 -> lstm2
I0924 03:13:07.583729 18678 net.cpp:148] Top shape: 1 1 1501 (1501)
I0924 03:13:07.583736 18678 net.cpp:156] Memory required for data: 32412
I0924 03:13:07.583739 18672 recurrent_layer.cpp:20] Initializing recurrent layer: assuming input batch contains 1 timesteps of 1 independent streams.
I0924 03:13:07.583745 18678 layer_factory.hpp:77] Creating layer lstm2
I0924 03:13:07.583760 18678 net.cpp:91] Creating Layer lstm2
I0924 03:13:07.583768 18678 net.cpp:425] lstm2 <- lstm1_video_sequence
I0924 03:13:07.583777 18678 net.cpp:425] lstm2 <- cont_sentence_input_1_split_1
I0924 03:13:07.583788 18678 net.cpp:399] lstm2 -> lstm2
I0924 03:13:07.583802 18678 recurrent_layer.cpp:20] Initializing recurrent layer: assuming input batch contains 1 timesteps of 1 independent streams.
I0924 03:13:07.584054 18672 net.cpp:49] Initializing net from parameters: 
layer {
  name: "lstm2_"
  type: "Input"
  top: "x"
  top: "cont"
  input_param {
    shape {
      dim: 1
      dim: 1
      dim: 1501
    }
    shape {
      dim: 1
      dim: 1
    }
  }
}
layer {
  name: "lstm2_"
  type: "Input"
  top: "c_0"
  top: "h_0"
  input_param {
    shape {
      dim: 1
      dim: 1
      dim: 1000
    }
    shape {
      dim: 1
      dim: 1
      dim: 1000
    }
  }
}
layer {
  name: "lstm2_cont_slice"
  type: "Slice"
  bottom: "cont"
  top: "cont_1"
  slice_param {
    axis: 0
  }
}
layer {
  name: "lstm2_x_transform"
  type: "InnerProduct"
  bottom: "x"
  top: "W_xc_x"
  param {
    name: "W_xc"
  }
  param {
    name: "b_c"
  }
  propagate_down: true
  inner_product_param {
    num_output: 4000
    bias_term: true
    weight_filler {
      type: "uniform"
      min: -0.08
      max: 0.08
    }
    bias_filler {
      type: "constant"
      value: 0
    }
    axis: 2
  }
}
layer {
  name: "lstm2_W_xc_x_slice"
  type: "Slice"
  bottom: "W_xc_x"
  top: "W_xc_x_1"
  slice_param {
    axis: 0
  }
}
layer {
  name: "lstm2_h_conted_0"
  type: "Scale"
  bottom: "h_0"
  bottom: "cont_1"
  top: "h_conted_0"
  scale_param {
    axis: 0
  }
}
layer {
  name: "lstm2_transform_1"
  type: "InnerProduct"
  bottom: "h_conted_0"
  top: "W_hc_h_0"
  param {
    name: "W_hc"
  }
  inner_product_param {
    num_output: 4000
    bias_term: false
    weight_filler {
      type: "uniform"
      min: -0.08
      max: 0.08
    }
    axis: 2
  }
}
layer {
  name: "lstm2_gate_input_1"
  type: "Eltwise"
  bottom: "W_hc_h_0"
  bottom: "W_xc_x_1"
  top: "gate_input_1"
  eltwise_param {
    operation: SUM
  }
}
layer {
  name: "lstm2_unit_1"
  type: "LSTMUnit"
  bottom: "c_0"
  bottom: "gate_input_1"
  bottom: "cont_1"
  top: "c_1"
  top: "h_1"
}
layer {
  name: "lstm2_"
  type: "Split"
  bottom: "c_1"
  top: "c_T"
}
layer {
  name: "lstm2_h_concat"
  type: "Concat"
  bottom: "h_1"
  top: "h"
  concat_param {
    axis: 0
  }
}
layer {
  name: "h_pseudoloss"
  type: "Reduction"
  bottom: "h"
  top: "h_pseudoloss"
  loss_weight: 1
}
I0924 03:13:07.584152 18678 net.cpp:49] Initializing net from parameters: 
layer {
  name: "lstm2_"
  type: "Input"
  top: "x"
  top: "cont"
  input_param {
    shape {
      dim: 1
      dim: 1
      dim: 1501
    }
    shape {
      dim: 1
      dim: 1
    }
  }
}
layer {
  name: "lstm2_"
  type: "Input"
  top: "c_0"
  top: "h_0"
  input_param {
    shape {
      dim: 1
      dim: 1
      dim: 1000
    }
    shape {
      dim: 1
      dim: 1
      dim: 1000
    }
  }
}
layer {
  name: "lstm2_cont_slice"
  type: "Slice"
  bottom: "cont"
  top: "cont_1"
  slice_param {
    axis: 0
  }
}
layer {
  name: "lstm2_x_transform"
  type: "InnerProduct"
  bottom: "x"
  top: "W_xc_x"
  param {
    name: "W_xc"
  }
  param {
    name: "b_c"
  }
  propagate_down: true
  inner_product_param {
    num_output: 4000
    bias_term: true
    weight_filler {
      type: "uniform"
      min: -0.08
      max: 0.08
    }
    bias_filler {
      type: "constant"
      value: 0
    }
    axis: 2
  }
}
layer {
  name: "lstm2_W_xc_x_slice"
  type: "Slice"
  bottom: "W_xc_x"
  top: "W_xc_x_1"
  slice_param {
    axis: 0
  }
}
layer {
  name: "lstm2_h_conted_0"
  type: "Scale"
  bottom: "h_0"
  bottom: "cont_1"
  top: "h_conted_0"
  scale_param {
    axis: 0
  }
}
layer {
  name: "lstm2_transform_1"
  type: "InnerProduct"
  bottom: "h_conted_0"
  top: "W_hc_h_0"
  param {
    name: "W_hc"
  }
  inner_product_param {
    num_output: 4000
    bias_term: false
    weight_filler {
      type: "uniform"
      min: -0.08
      max: 0.08
    }
    axis: 2
  }
}
layer {
  name: "lstm2_gate_input_1"
  type: "Eltwise"
  bottom: "W_hc_h_0"
  bottom: "W_xc_x_1"
  top: "gate_input_1"
  eltwise_param {
    operation: SUM
  }
}
layer {
  name: "lstm2_unit_1"
  type: "LSTMUnit"
  bottom: "c_0"
  bottom: "gate_input_1"
  bottom: "cont_1"
  top: "c_1"
  top: "h_1"
}
layer {
  name: "lstm2_"
  type: "Split"
  bottom: "c_1"
  top: "c_T"
}
layer {
  name: "lstm2_h_concat"
  type: "Concat"
  bottom: "h_1"
  top: "h"
  concat_param {
    axis: 0
  }
}
layer {
  name: "h_pseudoloss"
  type: "Reduction"
  bottom: "h"
  top: "h_pseudoloss"
  loss_weight: 1
}
I0924 03:13:07.584858 18678 layer_factory.hpp:77] Creating layer lstm2_
I0924 03:13:07.584862 18672 layer_factory.hpp:77] Creating layer lstm2_
I0924 03:13:07.584883 18678 net.cpp:91] Creating Layer lstm2_
I0924 03:13:07.584884 18672 net.cpp:91] Creating Layer lstm2_
I0924 03:13:07.584892 18678 net.cpp:399] lstm2_ -> x
I0924 03:13:07.584892 18672 net.cpp:399] lstm2_ -> x
I0924 03:13:07.584904 18678 net.cpp:399] lstm2_ -> cont
I0924 03:13:07.584905 18672 net.cpp:399] lstm2_ -> cont
I0924 03:13:07.590111 18696 net.cpp:141] Setting up lstm1_transform_1
I0924 03:13:07.590149 18696 net.cpp:148] Top shape: 1 1 4000 (4000)
I0924 03:13:07.590157 18696 net.cpp:156] Memory required for data: 62016
I0924 03:13:07.590178 18672 net.cpp:141] Setting up lstm2_
I0924 03:13:07.590184 18696 layer_factory.hpp:77] Creating layer lstm1_gate_input_1
I0924 03:13:07.590210 18672 net.cpp:148] Top shape: 1 1 1501 (1501)
I0924 03:13:07.590217 18672 net.cpp:148] Top shape: 1 1 (1)
I0924 03:13:07.590222 18672 net.cpp:156] Memory required for data: 6008
I0924 03:13:07.590229 18672 layer_factory.hpp:77] Creating layer lstm2_
I0924 03:13:07.590229 18696 net.cpp:91] Creating Layer lstm1_gate_input_1
I0924 03:13:07.590242 18672 net.cpp:91] Creating Layer lstm2_
I0924 03:13:07.590242 18696 net.cpp:425] lstm1_gate_input_1 <- W_hc_h_0
I0924 03:13:07.590255 18696 net.cpp:425] lstm1_gate_input_1 <- W_xc_x_1
I0924 03:13:07.590260 18672 net.cpp:399] lstm2_ -> c_0
I0924 03:13:07.590270 18696 net.cpp:399] lstm1_gate_input_1 -> gate_input_1
I0924 03:13:07.590273 18678 net.cpp:141] Setting up lstm2_
I0924 03:13:07.590276 18672 net.cpp:399] lstm2_ -> h_0
I0924 03:13:07.590301 18678 net.cpp:148] Top shape: 1 1 1501 (1501)
I0924 03:13:07.590313 18678 net.cpp:148] Top shape: 1 1 (1)
I0924 03:13:07.590322 18678 net.cpp:156] Memory required for data: 6008
I0924 03:13:07.590330 18678 layer_factory.hpp:77] Creating layer lstm2_
I0924 03:13:07.590330 18696 net.cpp:141] Setting up lstm1_gate_input_1
I0924 03:13:07.590358 18696 net.cpp:148] Top shape: 1 1 4000 (4000)
I0924 03:13:07.590358 18678 net.cpp:91] Creating Layer lstm2_
I0924 03:13:07.590378 18696 net.cpp:156] Memory required for data: 78016
I0924 03:13:07.590385 18678 net.cpp:399] lstm2_ -> c_0
I0924 03:13:07.590385 18696 layer_factory.hpp:77] Creating layer lstm1_unit_1
I0924 03:13:07.590405 18678 net.cpp:399] lstm2_ -> h_0
I0924 03:13:07.590406 18672 net.cpp:141] Setting up lstm2_
I0924 03:13:07.590409 18696 net.cpp:91] Creating Layer lstm1_unit_1
I0924 03:13:07.590425 18672 net.cpp:148] Top shape: 1 1 1000 (1000)
I0924 03:13:07.590431 18672 net.cpp:148] Top shape: 1 1 1000 (1000)
I0924 03:13:07.590430 18696 net.cpp:425] lstm1_unit_1 <- c_0
I0924 03:13:07.590440 18672 net.cpp:156] Memory required for data: 14008
I0924 03:13:07.590452 18696 net.cpp:425] lstm1_unit_1 <- gate_input_1
I0924 03:13:07.590452 18672 layer_factory.hpp:77] Creating layer lstm2_cont_slice
I0924 03:13:07.590462 18696 net.cpp:425] lstm1_unit_1 <- cont_1_lstm1_cont_slice_0_split_1
I0924 03:13:07.590471 18696 net.cpp:399] lstm1_unit_1 -> c_1
I0924 03:13:07.590472 18672 net.cpp:91] Creating Layer lstm2_cont_slice
I0924 03:13:07.590478 18672 net.cpp:425] lstm2_cont_slice <- cont
I0924 03:13:07.590481 18696 net.cpp:399] lstm1_unit_1 -> h_1
I0924 03:13:07.590487 18672 net.cpp:399] lstm2_cont_slice -> cont_1
I0924 03:13:07.592630 18696 net.cpp:141] Setting up lstm1_unit_1
I0924 03:13:07.592654 18696 net.cpp:148] Top shape: 1 1 1000 (1000)
I0924 03:13:07.592666 18696 net.cpp:148] Top shape: 1 1 1000 (1000)
I0924 03:13:07.592674 18696 net.cpp:156] Memory required for data: 86016
I0924 03:13:07.592674 18678 net.cpp:141] Setting up lstm2_
I0924 03:13:07.592694 18696 layer_factory.hpp:77] Creating layer lstm1_
I0924 03:13:07.592705 18678 net.cpp:148] Top shape: 1 1 1000 (1000)
I0924 03:13:07.592708 18672 net.cpp:141] Setting up lstm2_cont_slice
I0924 03:13:07.592711 18696 net.cpp:91] Creating Layer lstm1_
I0924 03:13:07.592736 18672 net.cpp:148] Top shape: 1 1 (1)
I0924 03:13:07.592715 18678 net.cpp:148] Top shape: 1 1 1000 (1000)
I0924 03:13:07.592741 18672 net.cpp:156] Memory required for data: 14012
I0924 03:13:07.592743 18696 net.cpp:425] lstm1_ <- c_1
I0924 03:13:07.592746 18678 net.cpp:156] Memory required for data: 14008
I0924 03:13:07.592748 18672 layer_factory.hpp:77] Creating layer cont_1_lstm2_cont_slice_0_split
I0924 03:13:07.592758 18696 net.cpp:399] lstm1_ -> c_T
I0924 03:13:07.592759 18678 layer_factory.hpp:77] Creating layer lstm2_cont_slice
I0924 03:13:07.592773 18672 net.cpp:91] Creating Layer cont_1_lstm2_cont_slice_0_split
I0924 03:13:07.592782 18672 net.cpp:425] cont_1_lstm2_cont_slice_0_split <- cont_1
I0924 03:13:07.592779 18678 net.cpp:91] Creating Layer lstm2_cont_slice
I0924 03:13:07.592789 18672 net.cpp:399] cont_1_lstm2_cont_slice_0_split -> cont_1_lstm2_cont_slice_0_split_0
I0924 03:13:07.592792 18678 net.cpp:425] lstm2_cont_slice <- cont
I0924 03:13:07.592802 18672 net.cpp:399] cont_1_lstm2_cont_slice_0_split -> cont_1_lstm2_cont_slice_0_split_1
I0924 03:13:07.592804 18678 net.cpp:399] lstm2_cont_slice -> cont_1
I0924 03:13:07.592895 18696 net.cpp:141] Setting up lstm1_
I0924 03:13:07.592906 18696 net.cpp:148] Top shape: 1 1 1000 (1000)
I0924 03:13:07.592912 18696 net.cpp:156] Memory required for data: 90016
I0924 03:13:07.592917 18696 layer_factory.hpp:77] Creating layer lstm1_h_concat
I0924 03:13:07.592936 18696 net.cpp:91] Creating Layer lstm1_h_concat
I0924 03:13:07.592947 18696 net.cpp:425] lstm1_h_concat <- h_1
I0924 03:13:07.592959 18696 net.cpp:399] lstm1_h_concat -> h
I0924 03:13:07.592967 18678 net.cpp:141] Setting up lstm2_cont_slice
I0924 03:13:07.592980 18678 net.cpp:148] Top shape: 1 1 (1)
I0924 03:13:07.592989 18678 net.cpp:156] Memory required for data: 14012
I0924 03:13:07.592996 18678 layer_factory.hpp:77] Creating layer cont_1_lstm2_cont_slice_0_split
I0924 03:13:07.593003 18672 net.cpp:141] Setting up cont_1_lstm2_cont_slice_0_split
I0924 03:13:07.593005 18678 net.cpp:91] Creating Layer cont_1_lstm2_cont_slice_0_split
I0924 03:13:07.593016 18672 net.cpp:148] Top shape: 1 1 (1)
I0924 03:13:07.593024 18672 net.cpp:148] Top shape: 1 1 (1)
I0924 03:13:07.593021 18678 net.cpp:425] cont_1_lstm2_cont_slice_0_split <- cont_1
I0924 03:13:07.593031 18672 net.cpp:156] Memory required for data: 14020
I0924 03:13:07.593037 18672 layer_factory.hpp:77] Creating layer lstm2_x_transform
I0924 03:13:07.593040 18678 net.cpp:399] cont_1_lstm2_cont_slice_0_split -> cont_1_lstm2_cont_slice_0_split_0
I0924 03:13:07.593050 18678 net.cpp:399] cont_1_lstm2_cont_slice_0_split -> cont_1_lstm2_cont_slice_0_split_1
I0924 03:13:07.593055 18672 net.cpp:91] Creating Layer lstm2_x_transform
I0924 03:13:07.593060 18672 net.cpp:425] lstm2_x_transform <- x
I0924 03:13:07.593070 18672 net.cpp:399] lstm2_x_transform -> W_xc_x
I0924 03:13:07.594264 18696 net.cpp:141] Setting up lstm1_h_concat
I0924 03:13:07.594285 18696 net.cpp:148] Top shape: 1 1 1000 (1000)
I0924 03:13:07.594293 18696 net.cpp:156] Memory required for data: 94016
I0924 03:13:07.594303 18696 layer_factory.hpp:77] Creating layer h_pseudoloss
I0924 03:13:07.594318 18696 net.cpp:91] Creating Layer h_pseudoloss
I0924 03:13:07.594327 18696 net.cpp:425] h_pseudoloss <- h
I0924 03:13:07.594343 18696 net.cpp:399] h_pseudoloss -> h_pseudoloss
I0924 03:13:07.605592 18696 net.cpp:141] Setting up h_pseudoloss
…
I0924 03:13:07.605787 18696 net.cpp:219] lstm1_ does not need backward computation.
I0924 03:13:07.605790 18696 net.cpp:219] lstm1_ does not need backward computation.
I0924 03:13:07.605794 18696 net.cpp:261] This network produces output c_T
I0924 03:13:07.605803 18696 net.cpp:261] This network produces output h_pseudoloss
I0924 03:13:07.605823 18696 net.cpp:274] Network initialization done.
I0924 03:13:07.605876 18678 net.cpp:141] Setting up cont_1_lstm2_cont_slice_0_split
I0924 03:13:07.605890 18696 recurrent_layer.cpp:150] Adding parameter 0: W_xc
I0924 03:13:07.605898 18696 recurrent_layer.cpp:150] Adding parameter 1: b_c
I0924 03:13:07.605900 18678 net.cpp:148] Top shape: 1 1 (1)
I0924 03:13:07.605903 18696 recurrent_layer.cpp:150] Adding parameter 2: W_hc
I0924 03:13:07.605911 18678 net.cpp:148] Top shape: 1 1 (1)
I0924 03:13:07.605919 18678 net.cpp:156] Memory required for data: 14020
I0924 03:13:07.605928 18678 layer_factory.hpp:77] Creating layer lstm2_x_transform
I0924 03:13:07.605962 18678 net.cpp:91] Creating Layer lstm2_x_transform
I0924 03:13:07.605973 18678 net.cpp:425] lstm2_x_transform <- x
I0924 03:13:07.605991 18678 net.cpp:399] lstm2_x_transform -> W_xc_x
I0924 03:13:07.605993 18702 net.cpp:141] Setting up embedding
I0924 03:13:07.606037 18702 net.cpp:148] Top shape: 1 1 500 (500)
I0924 03:13:07.606047 18702 net.cpp:156] Memory required for data: 22408
I0924 03:13:07.606067 18702 layer_factory.hpp:77] Creating layer lstm1
I0924 03:13:07.606086 18702 net.cpp:91] Creating Layer lstm1
I0924 03:13:07.606094 18702 net.cpp:425] lstm1 <- embedded_input_frames
I0924 03:13:07.606103 18702 net.cpp:425] lstm1 <- cont_sentence_input_1_split_0
I0924 03:13:07.606112 18702 net.cpp:399] lstm1 -> lstm1
I0924 03:13:07.606132 18702 recurrent_layer.cpp:20] Initializing recurrent layer: assuming input batch contains 1 timesteps of 1 independent streams.
I0924 03:13:07.617462 18696 net.cpp:141] Setting up lstm1
I0924 03:13:07.617542 18696 net.cpp:148] Top shape: 1 1 1000 (1000)
I0924 03:13:07.617560 18696 net.cpp:156] Memory required for data: 26408
I0924 03:13:07.617609 18696 layer_factory.hpp:77] Creating layer concat
I0924 03:13:07.617647 18696 net.cpp:91] Creating Layer concat
I0924 03:13:07.617667 18696 net.cpp:425] concat <- lstm1
I0924 03:13:07.617689 18696 net.cpp:425] concat <- embedded_input_sentence
I0924 03:13:07.617709 18696 net.cpp:425] concat <- reshaped_stage_indicator
I0924 03:13:07.617733 18696 net.cpp:399] concat -> lstm1_video_sequence
I0924 03:13:07.617723 18702 net.cpp:49] Initializing net from parameters: 
layer {
  name: "lstm1_"
  type: "Input"
  top: "x"
  top: "cont"
  input_param {
    shape {
      dim: 1
      dim: 1
      dim: 500
    }
    shape {
      dim: 1
      dim: 1
    }
  }
}
layer {
  name: "lstm1_"
  type: "Input"
  top: "c_0"
  top: "h_0"
  input_param {
    shape {
      dim: 1
      dim: 1
      dim: 1000
    }
    shape {
      dim: 1
      dim: 1
      dim: 1000
    }
  }
}
layer {
  name: "lstm1_cont_slice"
  type: "Slice"
  bottom: "cont"
  top: "cont_1"
  slice_param {
    axis: 0
  }
}
layer {
  name: "lstm1_x_transform"
  type: "InnerProduct"
  bottom: "x"
  top: "W_xc_x"
  param {
    name: "W_xc"
  }
  param {
    name: "b_c"
  }
  propagate_down: true
  inner_product_param {
    num_output: 4000
    bias_term: true
    weight_filler {
      type: "uniform"
      min: -0.08
      max: 0.08
    }
    bias_filler {
      type: "constant"
      value: 0
    }
    axis: 2
  }
}
layer {
  name: "lstm1_W_xc_x_slice"
  type: "Slice"
  bottom: "W_xc_x"
  top: "W_xc_x_1"
  slice_param {
    axis: 0
  }
}
layer {
  name: "lstm1_h_conted_0"
  type: "Scale"
  bottom: "h_0"
  bottom: "cont_1"
  top: "h_conted_0"
  scale_param {
    axis: 0
  }
}
layer {
  name: "lstm1_transform_1"
  type: "InnerProduct"
  bottom: "h_conted_0"
  top: "W_hc_h_0"
  param {
    name: "W_hc"
  }
  inner_product_param {
    num_output: 4000
    bias_term: false
    weight_filler {
      type: "uniform"
      min: -0.08
      max: 0.08
    }
    axis: 2
  }
}
layer {
  name: "lstm1_gate_input_1"
  type: "Eltwise"
  bottom: "W_hc_h_0"
  bottom: "W_xc_x_1"
  top: "gate_input_1"
  eltwise_param {
    operation: SUM
  }
}
layer {
  name: "lstm1_unit_1"
  type: "LSTMUnit"
  bottom: "c_0"
  bottom: "gate_input_1"
  bottom: "cont_1"
  top: "c_1"
  top: "h_1"
}
layer {
  name: "lstm1_"
  type: "Split"
  bottom: "c_1"
  top: "c_T"
}
layer {
  name: "lstm1_h_concat"
  type: "Concat"
  bottom: "h_1"
  top: "h"
  concat_param {
    axis: 0
  }
}
layer {
  name: "h_pseudoloss"
  type: "Reduction"
  bottom: "h"
  top: "h_pseudoloss"
  loss_weight: 1
}
I0924 03:13:07.617858 18696 net.cpp:141] Setting up concat
I0924 03:13:07.617887 18696 net.cpp:148] Top shape: 1 1 1501 (1501)
I0924 03:13:07.617902 18696 net.cpp:156] Memory required for data: 32412
I0924 03:13:07.617914 18702 layer_factory.hpp:77] Creating layer lstm1_
I0924 03:13:07.617916 18696 layer_factory.hpp:77] Creating layer lstm2
I0924 03:13:07.617959 18702 net.cpp:91] Creating Layer lstm1_
I0924 03:13:07.617972 18702 net.cpp:399] lstm1_ -> x
I0924 03:13:07.617986 18696 net.cpp:91] Creating Layer lstm2
I0924 03:13:07.617995 18702 net.cpp:399] lstm1_ -> cont
I0924 03:13:07.618008 18696 net.cpp:425] lstm2 <- lstm1_video_sequence
I0924 03:13:07.618028 18696 net.cpp:425] lstm2 <- cont_sentence_input_1_split_1
I0924 03:13:07.618053 18696 net.cpp:399] lstm2 -> lstm2
I0924 03:13:07.618085 18696 recurrent_layer.cpp:20] Initializing recurrent layer: assuming input batch contains 1 timesteps of 1 independent streams.
I0924 03:13:07.618721 18696 net.cpp:49] Initializing net from parameters: 
layer {
  name: "lstm2_"
  type: "Input"
  top: "x"
  top: "cont"
  input_param {
    shape {
      dim: 1
      dim: 1
      dim: 1501
    }
    shape {
      dim: 1
      dim: 1
    }
  }
}
layer {
  name: "lstm2_"
  type: "Input"
  top: "c_0"
  top: "h_0"
  input_param {
    shape {
      dim: 1
      dim: 1
      dim: 1000
    }
    shape {
      dim: 1
      dim: 1
      dim: 1000
    }
  }
}
layer {
  name: "lstm2_cont_slice"
  type: "Slice"
  bottom: "cont"
  top: "cont_1"
  slice_param {
    axis: 0
  }
}
layer {
  name: "lstm2_x_transform"
  type: "InnerProduct"
  bottom: "x"
  top: "W_xc_x"
  param {
    name: "W_xc"
  }
  param {
    name: "b_c"
  }
  propagate_down: true
  inner_product_param {
    num_output: 4000
    bias_term: true
    weight_filler {
      type: "uniform"
      min: -0.08
      max: 0.08
    }
    bias_filler {
      type: "constant"
      value: 0
    }
    axis: 2
  }
}
layer {
  name: "lstm2_W_xc_x_slice"
  type: "Slice"
  bottom: "W_xc_x"
  top: "W_xc_x_1"
  slice_param {
    axis: 0
  }
}
layer {
  name: "lstm2_h_conted_0"
  type: "Scale"
  bottom: "h_0"
  bottom: "cont_1"
  top: "h_conted_0"
  scale_param {
    axis: 0
  }
}
layer {
  name: "lstm2_transform_1"
  type: "InnerProduct"
  bottom: "h_conted_0"
  top: "W_hc_h_0"
  param {
    name: "W_hc"
  }
  inner_product_param {
    num_output: 4000
    bias_term: false
    weight_filler {
      type: "uniform"
      min: -0.08
      max: 0.08
    }
    axis: 2
  }
}
layer {
  name: "lstm2_gate_input_1"
  type: "Eltwise"
  bottom: "W_hc_h_0"
  bottom: "W_xc_x_1"
  top: "gate_input_1"
  eltwise_param {
    operation: SUM
  }
}
layer {
  name: "lstm2_unit_1"
  type: "LSTMUnit"
  bottom: "c_0"
  bottom: "gate_input_1"
  bottom: "cont_1"
  top: "c_1"
  top: "h_1"
}
layer {
  name: "lstm2_"
  type: "Split"
  bottom: "c_1"
  top: "c_T"
}
layer {
  name: "lstm2_h_concat"
  type: "Concat"
  bottom: "h_1"
  top: "h"
  concat_param {
    axis: 0
  }
}
layer {
  name: "h_pseudoloss"
  type: "Reduction"
  bottom: "h"
  top: "h_pseudoloss"
  loss_weight: 1
}
I0924 03:13:07.618917 18696 layer_factory.hpp:77] Creating layer lstm2_
I0924 03:13:07.618948 18696 net.cpp:91] Creating Layer lstm2_
I0924 03:13:07.618969 18696 net.cpp:399] lstm2_ -> x
I0924 03:13:07.618999 18696 net.cpp:399] lstm2_ -> cont
I0924 03:13:07.625444 18668 net.cpp:141] Setting up lstm1_x_transform
I0924 03:13:07.625469 18702 net.cpp:141] Setting up lstm1_
I0924 03:13:07.625502 18668 net.cpp:148] Top shape: 1 1 4000 (4000)
I0924 03:13:07.625511 18702 net.cpp:148] Top shape: 1 1 500 (500)
I0924 03:13:07.625515 18668 net.cpp:156] Memory required for data: 26016
I0924 03:13:07.625524 18702 net.cpp:148] Top shape: 1 1 (1)
I0924 03:13:07.625533 18702 net.cpp:156] Memory required for data: 2004
I0924 03:13:07.625547 18702 layer_factory.hpp:77] Creating layer lstm1_
I0924 03:13:07.625558 18696 net.cpp:141] Setting up lstm2_
I0924 03:13:07.625581 18702 net.cpp:91] Creating Layer lstm1_
I0924 03:13:07.625597 18696 net.cpp:148] Top shape: 1 1 1501 (1501)
I0924 03:13:07.625615 18696 net.cpp:148] Top shape: 1 1 (1)
I0924 03:13:07.625622 18696 net.cpp:156] Memory required for data: 6008
I0924 03:13:07.625633 18696 layer_factory.hpp:77] Creating layer lstm2_
I0924 03:13:07.625658 18696 net.cpp:91] Creating Layer lstm2_
I0924 03:13:07.625670 18696 net.cpp:399] lstm2_ -> c_0
I0924 03:13:07.625694 18696 net.cpp:399] lstm2_ -> h_0
I0924 03:13:07.625597 18702 net.cpp:399] lstm1_ -> c_0
I0924 03:13:07.625741 18702 net.cpp:399] lstm1_ -> h_0
I0924 03:13:07.625785 18696 net.cpp:141] Setting up lstm2_
I0924 03:13:07.625800 18696 net.cpp:148] Top shape: 1 1 1000 (1000)
I0924 03:13:07.625810 18696 net.cpp:148] Top shape: 1 1 1000 (1000)
I0924 03:13:07.625816 18696 net.cpp:156] Memory required for data: 14008
I0924 03:13:07.625824 18696 layer_factory.hpp:77] Creating layer lstm2_cont_slice
I0924 03:13:07.625841 18696 net.cpp:91] Creating Layer lstm2_cont_slice
I0924 03:13:07.625849 18696 net.cpp:425] lstm2_cont_slice <- cont
I0924 03:13:07.625867 18696 net.cpp:399] lstm2_cont_slice -> cont_1
I0924 03:13:07.625869 18702 net.cpp:141] Setting up lstm1_
I0924 03:13:07.625887 18702 net.cpp:148] Top shape: 1 1 1000 (1000)
I0924 03:13:07.625897 18702 net.cpp:148] Top shape: 1 1 1000 (1000)
I0924 03:13:07.625905 18702 net.cpp:156] Memory required for data: 10004
I0924 03:13:07.625913 18702 layer_factory.hpp:77] Creating layer lstm1_cont_slice
I0924 03:13:07.625928 18702 net.cpp:91] Creating Layer lstm1_cont_slice
I0924 03:13:07.625933 18696 net.cpp:141] Setting up lstm2_cont_slice
I0924 03:13:07.625938 18702 net.cpp:425] lstm1_cont_slice <- cont
I0924 03:13:07.625948 18696 net.cpp:148] Top shape: 1 1 (1)
I0924 03:13:07.625957 18696 net.cpp:156] Memory required for data: 14012
I0924 03:13:07.625960 18702 net.cpp:399] lstm1_cont_slice -> cont_1
I0924 03:13:07.625964 18696 layer_factory.hpp:77] Creating layer cont_1_lstm2_cont_slice_0_split
I0924 03:13:07.625977 18696 net.cpp:91] Creating Layer cont_1_lstm2_cont_slice_0_split
I0924 03:13:07.625985 18696 net.cpp:425] cont_1_lstm2_cont_slice_0_split <- cont_1
I0924 03:13:07.625996 18696 net.cpp:399] cont_1_lstm2_cont_slice_0_split -> cont_1_lstm2_cont_slice_0_split_0
I0924 03:13:07.626008 18696 net.cpp:399] cont_1_lstm2_cont_slice_0_split -> cont_1_lstm2_cont_slice_0_split_1
I0924 03:13:07.625546 18668 layer_factory.hpp:77] Creating layer lstm1_W_xc_x_slice
I0924 03:13:07.626045 18702 net.cpp:141] Setting up lstm1_cont_slice
I0924 03:13:07.626072 18702 net.cpp:148] Top shape: 1 1 (1)
I0924 03:13:07.626080 18702 net.cpp:156] Memory required for data: 10008
I0924 03:13:07.626078 18668 net.cpp:91] Creating Layer lstm1_W_xc_x_slice
I0924 03:13:07.626098 18702 layer_factory.hpp:77] Creating layer cont_1_lstm1_cont_slice_0_split
I0924 03:13:07.626102 18668 net.cpp:425] lstm1_W_xc_x_slice <- W_xc_x
I0924 03:13:07.626111 18702 net.cpp:91] Creating Layer cont_1_lstm1_cont_slice_0_split
I0924 03:13:07.626118 18668 net.cpp:399] lstm1_W_xc_x_slice -> W_xc_x_1
I0924 03:13:07.626124 18696 net.cpp:141] Setting up cont_1_lstm2_cont_slice_0_split
I0924 03:13:07.626140 18696 net.cpp:148] Top shape: 1 1 (1)
I0924 03:13:07.626121 18702 net.cpp:425] cont_1_lstm1_cont_slice_0_split <- cont_1
I0924 03:13:07.626149 18696 net.cpp:148] Top shape: 1 1 (1)
I0924 03:13:07.626175 18696 net.cpp:156] Memory required for data: 14020
I0924 03:13:07.626174 18702 net.cpp:399] cont_1_lstm1_cont_slice_0_split -> cont_1_lstm1_cont_slice_0_split_0
I0924 03:13:07.626212 18668 net.cpp:141] Setting up lstm1_W_xc_x_slice
I0924 03:13:07.626224 18702 net.cpp:399] cont_1_lstm1_cont_slice_0_split -> cont_1_lstm1_cont_slice_0_split_1
I0924 03:13:07.626199 18696 layer_factory.hpp:77] Creating layer lstm2_x_transform
I0924 03:13:07.626238 18668 net.cpp:148] Top shape: 1 1 4000 (4000)
I0924 03:13:07.626248 18668 net.cpp:156] Memory required for data: 42016
I0924 03:13:07.626257 18668 layer_factory.hpp:77] Creating layer lstm1_h_conted_0
I0924 03:13:07.626260 18696 net.cpp:91] Creating Layer lstm2_x_transform
I0924 03:13:07.626269 18696 net.cpp:425] lstm2_x_transform <- x
I0924 03:13:07.626279 18668 net.cpp:91] Creating Layer lstm1_h_conted_0
I0924 03:13:07.626283 18696 net.cpp:399] lstm2_x_transform -> W_xc_x
I0924 03:13:07.626291 18668 net.cpp:425] lstm1_h_conted_0 <- h_0
I0924 03:13:07.626303 18668 net.cpp:425] lstm1_h_conted_0 <- cont_1_lstm1_cont_slice_0_split_0
I0924 03:13:07.626309 18702 net.cpp:141] Setting up cont_1_lstm1_cont_slice_0_split
I0924 03:13:07.626317 18668 net.cpp:399] lstm1_h_conted_0 -> h_conted_0
I0924 03:13:07.626323 18702 net.cpp:148] Top shape: 1 1 (1)
I0924 03:13:07.626333 18702 net.cpp:148] Top shape: 1 1 (1)
I0924 03:13:07.626340 18702 net.cpp:156] Memory required for data: 10016
I0924 03:13:07.626348 18702 layer_factory.hpp:77] Creating layer lstm1_x_transform
I0924 03:13:07.626374 18702 net.cpp:91] Creating Layer lstm1_x_transform
I0924 03:13:07.626384 18702 net.cpp:425] lstm1_x_transform <- x
I0924 03:13:07.626399 18702 net.cpp:399] lstm1_x_transform -> W_xc_x
I0924 03:13:07.641360 18668 net.cpp:141] Setting up lstm1_h_conted_0
I0924 03:13:07.641412 18668 net.cpp:148] Top shape: 1 1 1000 (1000)
I0924 03:13:07.641420 18668 net.cpp:156] Memory required for data: 46016
I0924 03:13:07.641432 18668 layer_factory.hpp:77] Creating layer lstm1_transform_1
I0924 03:13:07.641461 18668 net.cpp:91] Creating Layer lstm1_transform_1
I0924 03:13:07.641472 18668 net.cpp:425] lstm1_transform_1 <- h_conted_0
I0924 03:13:07.641489 18668 net.cpp:399] lstm1_transform_1 -> W_hc_h_0
I0924 03:13:07.671589 18670 net.cpp:141] Setting up embedding
I0924 03:13:07.671648 18670 net.cpp:148] Top shape: 1 1 500 (500)
I0924 03:13:07.671661 18670 net.cpp:156] Memory required for data: 22408
I0924 03:13:07.671689 18670 layer_factory.hpp:77] Creating layer lstm1
I0924 03:13:07.671710 18672 net.cpp:141] Setting up lstm2_x_transform
I0924 03:13:07.671720 18670 net.cpp:91] Creating Layer lstm1
I0924 03:13:07.671727 18672 net.cpp:148] Top shape: 1 1 4000 (4000)
I0924 03:13:07.671733 18672 net.cpp:156] Memory required for data: 30020
I0924 03:13:07.671735 18670 net.cpp:425] lstm1 <- embedded_input_frames
I0924 03:13:07.671748 18672 layer_factory.hpp:77] Creating layer lstm2_W_xc_x_slice
I0924 03:13:07.671749 18670 net.cpp:425] lstm1 <- cont_sentence_input_1_split_0
I0924 03:13:07.671761 18672 net.cpp:91] Creating Layer lstm2_W_xc_x_slice
I0924 03:13:07.671767 18672 net.cpp:425] lstm2_W_xc_x_slice <- W_xc_x
I0924 03:13:07.671772 18670 net.cpp:399] lstm1 -> lstm1
I0924 03:13:07.671775 18672 net.cpp:399] lstm2_W_xc_x_slice -> W_xc_x_1
I0924 03:13:07.671804 18670 recurrent_layer.cpp:20] Initializing recurrent layer: assuming input batch contains 1 timesteps of 1 independent streams.
I0924 03:13:07.671859 18672 net.cpp:141] Setting up lstm2_W_xc_x_slice
I0924 03:13:07.671870 18672 net.cpp:148] Top shape: 1 1 4000 (4000)
I0924 03:13:07.671877 18672 net.cpp:156] Memory required for data: 46020
I0924 03:13:07.671882 18672 layer_factory.hpp:77] Creating layer lstm2_h_conted_0
I0924 03:13:07.671892 18672 net.cpp:91] Creating Layer lstm2_h_conted_0
I0924 03:13:07.671897 18672 net.cpp:425] lstm2_h_conted_0 <- h_0
I0924 03:13:07.671905 18672 net.cpp:425] lstm2_h_conted_0 <- cont_1_lstm2_cont_slice_0_split_0
I0924 03:13:07.671911 18672 net.cpp:399] lstm2_h_conted_0 -> h_conted_0
I0924 03:13:07.672338 18670 net.cpp:49] Initializing net from parameters: 
layer {
  name: "lstm1_"
  type: "Input"
  top: "x"
  top: "cont"
  input_param {
    shape {
      dim: 1
      dim: 1
      dim: 500
    }
    shape {
      dim: 1
      dim: 1
    }
  }
}
layer {
  name: "lstm1_"
  type: "Input"
  top: "c_0"
  top: "h_0"
  input_param {
    shape {
      dim: 1
      dim: 1
      dim: 1000
    }
    shape {
      dim: 1
      dim: 1
      dim: 1000
    }
  }
}
layer {
  name: "lstm1_cont_slice"
  type: "Slice"
  bottom: "cont"
  top: "cont_1"
  slice_param {
    axis: 0
  }
}
layer {
  name: "lstm1_x_transform"
  type: "InnerProduct"
  bottom: "x"
  top: "W_xc_x"
  param {
    name: "W_xc"
  }
  param {
    name: "b_c"
  }
  propagate_down: true
  inner_product_param {
    num_output: 4000
    bias_term: true
    weight_filler {
      type: "uniform"
      min: -0.08
      max: 0.08
    }
    bias_filler {
      type: "constant"
      value: 0
    }
    axis: 2
  }
}
layer {
  name: "lstm1_W_xc_x_slice"
  type: "Slice"
  bottom: "W_xc_x"
  top: "W_xc_x_1"
  slice_param {
    axis: 0
  }
}
layer {
  name: "lstm1_h_conted_0"
  type: "Scale"
  bottom: "h_0"
  bottom: "cont_1"
  top: "h_conted_0"
  scale_param {
    axis: 0
  }
}
layer {
  name: "lstm1_transform_1"
  type: "InnerProduct"
  bottom: "h_conted_0"
  top: "W_hc_h_0"
  param {
    name: "W_hc"
  }
  inner_product_param {
    num_output: 4000
    bias_term: false
    weight_filler {
      type: "uniform"
      min: -0.08
      max: 0.08
    }
    axis: 2
  }
}
layer {
  name: "lstm1_gate_input_1"
  type: "Eltwise"
  bottom: "W_hc_h_0"
  bottom: "W_xc_x_1"
  top: "gate_input_1"
  eltwise_param {
    operation: SUM
  }
}
layer {
  name: "lstm1_unit_1"
  type: "LSTMUnit"
  bottom: "c_0"
  bottom: "gate_input_1"
  bottom: "cont_1"
  top: "c_1"
  top: "h_1"
}
layer {
  name: "lstm1_"
  type: "Split"
  bottom: "c_1"
  top: "c_T"
}
layer {
  name: "lstm1_h_concat"
  type: "Concat"
  bottom: "h_1"
  top: "h"
  concat_param {
    axis: 0
  }
}
layer {
  name: "h_pseudoloss"
  type: "Reduction"
  bottom: "h"
  top: "h_pseudoloss"
  loss_weight: 1
}
I0924 03:13:07.672518 18670 layer_factory.hpp:77] Creating layer lstm1_
I0924 03:13:07.672544 18670 net.cpp:91] Creating Layer lstm1_
I0924 03:13:07.672559 18670 net.cpp:399] lstm1_ -> x
I0924 03:13:07.672580 18670 net.cpp:399] lstm1_ -> cont
I0924 03:13:07.672763 18670 net.cpp:141] Setting up lstm1_
I0924 03:13:07.672783 18670 net.cpp:148] Top shape: 1 1 500 (500)
I0924 03:13:07.672797 18670 net.cpp:148] Top shape: 1 1 (1)
I0924 03:13:07.672806 18670 net.cpp:156] Memory required for data: 2004
I0924 03:13:07.672816 18670 layer_factory.hpp:77] Creating layer lstm1_
I0924 03:13:07.672832 18670 net.cpp:91] Creating Layer lstm1_
I0924 03:13:07.672852 18670 net.cpp:399] lstm1_ -> c_0
I0924 03:13:07.672873 18670 net.cpp:399] lstm1_ -> h_0
I0924 03:13:07.672968 18670 net.cpp:141] Setting up lstm1_
I0924 03:13:07.672986 18670 net.cpp:148] Top shape: 1 1 1000 (1000)
I0924 03:13:07.672999 18670 net.cpp:148] Top shape: 1 1 1000 (1000)
I0924 03:13:07.673008 18670 net.cpp:156] Memory required for data: 10004
I0924 03:13:07.673017 18670 layer_factory.hpp:77] Creating layer lstm1_cont_slice
I0924 03:13:07.673038 18670 net.cpp:91] Creating Layer lstm1_cont_slice
I0924 03:13:07.673048 18670 net.cpp:425] lstm1_cont_slice <- cont
I0924 03:13:07.673063 18670 net.cpp:399] lstm1_cont_slice -> cont_1
I0924 03:13:07.673125 18670 net.cpp:141] Setting up lstm1_cont_slice
I0924 03:13:07.673143 18670 net.cpp:148] Top shape: 1 1 (1)
I0924 03:13:07.673152 18670 net.cpp:156] Memory required for data: 10008
I0924 03:13:07.673161 18670 layer_factory.hpp:77] Creating layer cont_1_lstm1_cont_slice_0_split
I0924 03:13:07.673177 18670 net.cpp:91] Creating Layer cont_1_lstm1_cont_slice_0_split
I0924 03:13:07.673187 18670 net.cpp:425] cont_1_lstm1_cont_slice_0_split <- cont_1
I0924 03:13:07.673207 18670 net.cpp:399] cont_1_lstm1_cont_slice_0_split -> cont_1_lstm1_cont_slice_0_split_0
I0924 03:13:07.673224 18670 net.cpp:399] cont_1_lstm1_cont_slice_0_split -> cont_1_lstm1_cont_slice_0_split_1
I0924 03:13:07.673318 18670 net.cpp:141] Setting up cont_1_lstm1_cont_slice_0_split
I0924 03:13:07.673336 18670 net.cpp:148] Top shape: 1 1 (1)
I0924 03:13:07.673349 18670 net.cpp:148] Top shape: 1 1 (1)
I0924 03:13:07.673358 18670 net.cpp:156] Memory required for data: 10016
I0924 03:13:07.673368 18670 layer_factory.hpp:77] Creating layer lstm1_x_transform
I0924 03:13:07.673396 18670 net.cpp:91] Creating Layer lstm1_x_transform
I0924 03:13:07.673408 18670 net.cpp:425] lstm1_x_transform <- x
I0924 03:13:07.673425 18670 net.cpp:399] lstm1_x_transform -> W_xc_x
I0924 03:13:07.680516 18702 net.cpp:141] Setting up lstm1_x_transform
I0924 03:13:07.680567 18702 net.cpp:148] Top shape: 1 1 4000 (4000)
I0924 03:13:07.680577 18702 net.cpp:156] Memory required for data: 26016
I0924 03:13:07.680603 18702 layer_factory.hpp:77] Creating layer lstm1_W_xc_x_slice
I0924 03:13:07.680626 18702 net.cpp:91] Creating Layer lstm1_W_xc_x_slice
I0924 03:13:07.680639 18702 net.cpp:425] lstm1_W_xc_x_slice <- W_xc_x
I0924 03:13:07.680655 18702 net.cpp:399] lstm1_W_xc_x_slice -> W_xc_x_1
I0924 03:13:07.680718 18702 net.cpp:141] Setting up lstm1_W_xc_x_slice
I0924 03:13:07.680733 18702 net.cpp:148] Top shape: 1 1 4000 (4000)
I0924 03:13:07.680742 18702 net.cpp:156] Memory required for data: 42016
I0924 03:13:07.680749 18702 layer_factory.hpp:77] Creating layer lstm1_h_conted_0
I0924 03:13:07.680765 18702 net.cpp:91] Creating Layer lstm1_h_conted_0
I0924 03:13:07.680773 18702 net.cpp:425] lstm1_h_conted_0 <- h_0
I0924 03:13:07.680783 18702 net.cpp:425] lstm1_h_conted_0 <- cont_1_lstm1_cont_slice_0_split_0
I0924 03:13:07.680801 18702 net.cpp:399] lstm1_h_conted_0 -> h_conted_0
I0924 03:13:07.680958 18702 net.cpp:141] Setting up lstm1_h_conted_0
I0924 03:13:07.680972 18702 net.cpp:148] Top shape: 1 1 1000 (1000)
I0924 03:13:07.680979 18702 net.cpp:156] Memory required for data: 46016
I0924 03:13:07.680989 18702 layer_factory.hpp:77] Creating layer lstm1_transform_1
I0924 03:13:07.681010 18702 net.cpp:91] Creating Layer lstm1_transform_1
I0924 03:13:07.681020 18702 net.cpp:425] lstm1_transform_1 <- h_conted_0
I0924 03:13:07.681032 18702 net.cpp:399] lstm1_transform_1 -> W_hc_h_0
I0924 03:13:07.691162 18672 net.cpp:141] Setting up lstm2_h_conted_0
I0924 03:13:07.691211 18672 net.cpp:148] Top shape: 1 1 1000 (1000)
I0924 03:13:07.691227 18672 net.cpp:156] Memory required for data: 50020
I0924 03:13:07.691241 18672 layer_factory.hpp:77] Creating layer lstm2_transform_1
I0924 03:13:07.691270 18672 net.cpp:91] Creating Layer lstm2_transform_1
I0924 03:13:07.691282 18672 net.cpp:425] lstm2_transform_1 <- h_conted_0
I0924 03:13:07.691300 18672 net.cpp:399] lstm2_transform_1 -> W_hc_h_0
I0924 03:13:07.702639 18668 net.cpp:141] Setting up lstm1_transform_1
I0924 03:13:07.702690 18668 net.cpp:148] Top shape: 1 1 4000 (4000)
I0924 03:13:07.702699 18668 net.cpp:156] Memory required for data: 62016
I0924 03:13:07.702723 18668 layer_factory.hpp:77] Creating layer lstm1_gate_input_1
I0924 03:13:07.702747 18668 net.cpp:91] Creating Layer lstm1_gate_input_1
I0924 03:13:07.702759 18668 net.cpp:425] lstm1_gate_input_1 <- W_hc_h_0
I0924 03:13:07.702769 18668 net.cpp:425] lstm1_gate_input_1 <- W_xc_x_1
I0924 03:13:07.702785 18668 net.cpp:399] lstm1_gate_input_1 -> gate_input_1
I0924 03:13:07.715242 18668 net.cpp:141] Setting up lstm1_gate_input_1
I0924 03:13:07.715302 18668 net.cpp:148] Top shape: 1 1 4000 (4000)
I0924 03:13:07.715312 18668 net.cpp:156] Memory required for data: 78016
I0924 03:13:07.715324 18668 layer_factory.hpp:77] Creating layer lstm1_unit_1
I0924 03:13:07.715350 18668 net.cpp:91] Creating Layer lstm1_unit_1
I0924 03:13:07.715361 18668 net.cpp:425] lstm1_unit_1 <- c_0
I0924 03:13:07.715374 18668 net.cpp:425] lstm1_unit_1 <- gate_input_1
I0924 03:13:07.715384 18668 net.cpp:425] lstm1_unit_1 <- cont_1_lstm1_cont_slice_0_split_1
I0924 03:13:07.715395 18678 net.cpp:141] Setting up lstm2_x_transform
I0924 03:13:07.715443 18678 net.cpp:148] Top shape: 1 1 4000 (4000)
I0924 03:13:07.715451 18678 net.cpp:156] Memory required for data: 30020
I0924 03:13:07.715478 18678 layer_factory.hpp:77] Creating layer lstm2_W_xc_x_slice
I0924 03:13:07.715495 18678 net.cpp:91] Creating Layer lstm2_W_xc_x_slice
I0924 03:13:07.715502 18678 net.cpp:425] lstm2_W_xc_x_slice <- W_xc_x
I0924 03:13:07.715518 18678 net.cpp:399] lstm2_W_xc_x_slice -> W_xc_x_1
I0924 03:13:07.715576 18678 net.cpp:141] Setting up lstm2_W_xc_x_slice
I0924 03:13:07.715593 18678 net.cpp:148] Top shape: 1 1 4000 (4000)
I0924 03:13:07.715600 18678 net.cpp:156] Memory required for data: 46020
I0924 03:13:07.715605 18678 layer_factory.hpp:77] Creating layer lstm2_h_conted_0
I0924 03:13:07.715616 18678 net.cpp:91] Creating Layer lstm2_h_conted_0
I0924 03:13:07.715622 18678 net.cpp:425] lstm2_h_conted_0 <- h_0
I0924 03:13:07.715628 18678 net.cpp:425] lstm2_h_conted_0 <- cont_1_lstm2_cont_slice_0_split_0
I0924 03:13:07.715642 18678 net.cpp:399] lstm2_h_conted_0 -> h_conted_0
I0924 03:13:07.715777 18678 net.cpp:141] Setting up lstm2_h_conted_0
I0924 03:13:07.715790 18678 net.cpp:148] Top shape: 1 1 1000 (1000)
I0924 03:13:07.715793 18678 net.cpp:156] Memory required for data: 50020
I0924 03:13:07.715800 18678 layer_factory.hpp:77] Creating layer lstm2_transform_1
I0924 03:13:07.715817 18678 net.cpp:91] Creating Layer lstm2_transform_1
I0924 03:13:07.715826 18678 net.cpp:425] lstm2_transform_1 <- h_conted_0
I0924 03:13:07.715837 18678 net.cpp:399] lstm2_transform_1 -> W_hc_h_0
I0924 03:13:07.715396 18668 net.cpp:399] lstm1_unit_1 -> c_1
I0924 03:13:07.718305 18668 net.cpp:399] lstm1_unit_1 -> h_1
I0924 03:13:07.725880 18696 net.cpp:141] Setting up lstm2_x_transform
I0924 03:13:07.725950 18696 net.cpp:148] Top shape: 1 1 4000 (4000)
I0924 03:13:07.725971 18696 net.cpp:156] Memory required for data: 30020
I0924 03:13:07.726004 18696 layer_factory.hpp:77] Creating layer lstm2_W_xc_x_slice
I0924 03:13:07.726040 18696 net.cpp:91] Creating Layer lstm2_W_xc_x_slice
I0924 03:13:07.726052 18696 net.cpp:425] lstm2_W_xc_x_slice <- W_xc_x
I0924 03:13:07.726083 18696 net.cpp:399] lstm2_W_xc_x_slice -> W_xc_x_1
I0924 03:13:07.726166 18696 net.cpp:141] Setting up lstm2_W_xc_x_slice
I0924 03:13:07.726182 18696 net.cpp:148] Top shape: 1 1 4000 (4000)
I0924 03:13:07.726204 18696 net.cpp:156] Memory required for data: 46020
I0924 03:13:07.726213 18696 layer_factory.hpp:77] Creating layer lstm2_h_conted_0
I0924 03:13:07.726229 18696 net.cpp:91] Creating Layer lstm2_h_conted_0
I0924 03:13:07.726239 18696 net.cpp:425] lstm2_h_conted_0 <- h_0
I0924 03:13:07.726261 18696 net.cpp:425] lstm2_h_conted_0 <- cont_1_lstm2_cont_slice_0_split_0
I0924 03:13:07.726280 18696 net.cpp:399] lstm2_h_conted_0 -> h_conted_0
I0924 03:13:07.729056 18696 net.cpp:141] Setting up lstm2_h_conted_0
I0924 03:13:07.729238 18696 net.cpp:148] Top shape: 1 1 1000 (1000)
I0924 03:13:07.729249 18696 net.cpp:156] Memory required for data: 50020
I0924 03:13:07.729389 18696 layer_factory.hpp:77] Creating layer lstm2_transform_1
I0924 03:13:07.729429 18696 net.cpp:91] Creating Layer lstm2_transform_1
I0924 03:13:07.729663 18696 net.cpp:425] lstm2_transform_1 <- h_conted_0
I0924 03:13:07.729686 18696 net.cpp:399] lstm2_transform_1 -> W_hc_h_0
I0924 03:13:07.730015 18670 net.cpp:141] Setting up lstm1_x_transform
I0924 03:13:07.730037 18670 net.cpp:148] Top shape: 1 1 4000 (4000)
I0924 03:13:07.730047 18670 net.cpp:156] Memory required for data: 26016
I0924 03:13:07.730109 18670 layer_factory.hpp:77] Creating layer lstm1_W_xc_x_slice
I0924 03:13:07.730129 18670 net.cpp:91] Creating Layer lstm1_W_xc_x_slice
I0924 03:13:07.730139 18670 net.cpp:425] lstm1_W_xc_x_slice <- W_xc_x
I0924 03:13:07.730154 18670 net.cpp:399] lstm1_W_xc_x_slice -> W_xc_x_1
I0924 03:13:07.737388 18670 net.cpp:141] Setting up lstm1_W_xc_x_slice
I0924 03:13:07.737443 18670 net.cpp:148] Top shape: 1 1 4000 (4000)
I0924 03:13:07.737452 18670 net.cpp:156] Memory required for data: 42016
I0924 03:13:07.737464 18670 layer_factory.hpp:77] Creating layer lstm1_h_conted_0
I0924 03:13:07.737501 18670 net.cpp:91] Creating Layer lstm1_h_conted_0
I0924 03:13:07.737514 18670 net.cpp:425] lstm1_h_conted_0 <- h_0
I0924 03:13:07.737529 18670 net.cpp:425] lstm1_h_conted_0 <- cont_1_lstm1_cont_slice_0_split_0
I0924 03:13:07.737543 18670 net.cpp:399] lstm1_h_conted_0 -> h_conted_0
I0924 03:13:07.737730 18670 net.cpp:141] Setting up lstm1_h_conted_0
I0924 03:13:07.737747 18670 net.cpp:148] Top shape: 1 1 1000 (1000)
I0924 03:13:07.737756 18670 net.cpp:156] Memory required for data: 46016
I0924 03:13:07.737763 18670 layer_factory.hpp:77] Creating layer lstm1_transform_1
I0924 03:13:07.737784 18670 net.cpp:91] Creating Layer lstm1_transform_1
I0924 03:13:07.737794 18670 net.cpp:425] lstm1_transform_1 <- h_conted_0
I0924 03:13:07.737808 18670 net.cpp:399] lstm1_transform_1 -> W_hc_h_0
I0924 03:13:07.746229 18702 net.cpp:141] Setting up lstm1_transform_1
I0924 03:13:07.746294 18702 net.cpp:148] Top shape: 1 1 4000 (4000)
I0924 03:13:07.746306 18702 net.cpp:156] Memory required for data: 62016
I0924 03:13:07.746332 18702 layer_factory.hpp:77] Creating layer lstm1_gate_input_1
I0924 03:13:07.746377 18702 net.cpp:91] Creating Layer lstm1_gate_input_1
I0924 03:13:07.746392 18702 net.cpp:425] lstm1_gate_input_1 <- W_hc_h_0
I0924 03:13:07.746402 18702 net.cpp:425] lstm1_gate_input_1 <- W_xc_x_1
I0924 03:13:07.746392 18672 net.cpp:141] Setting up lstm2_transform_1
I0924 03:13:07.746423 18702 net.cpp:399] lstm1_gate_input_1 -> gate_input_1
I0924 03:13:07.746434 18668 net.cpp:141] Setting up lstm1_unit_1
I0924 03:13:07.746448 18672 net.cpp:148] Top shape: 1 1 4000 (4000)
I0924 03:13:07.746454 18668 net.cpp:148] Top shape: 1 1 1000 (1000)
I0924 03:13:07.746457 18672 net.cpp:156] Memory required for data: 66020
I0924 03:13:07.746461 18668 net.cpp:148] Top shape: 1 1 1000 (1000)
I0924 03:13:07.746466 18668 net.cpp:156] Memory required for data: 86016
I0924 03:13:07.746474 18668 layer_factory.hpp:77] Creating layer lstm1_
I0924 03:13:07.746482 18672 layer_factory.hpp:77] Creating layer lstm2_gate_input_1
I0924 03:13:07.746490 18668 net.cpp:91] Creating Layer lstm1_
I0924 03:13:07.746497 18668 net.cpp:425] lstm1_ <- c_1
I0924 03:13:07.746503 18672 net.cpp:91] Creating Layer lstm2_gate_input_1
I0924 03:13:07.746510 18668 net.cpp:399] lstm1_ -> c_T
I0924 03:13:07.746515 18672 net.cpp:425] lstm2_gate_input_1 <- W_hc_h_0
I0924 03:13:07.746520 18702 net.cpp:141] Setting up lstm1_gate_input_1
I0924 03:13:07.746526 18672 net.cpp:425] lstm2_gate_input_1 <- W_xc_x_1
I0924 03:13:07.746548 18702 net.cpp:148] Top shape: 1 1 4000 (4000)
I0924 03:13:07.746558 18702 net.cpp:156] Memory required for data: 78016
I0924 03:13:07.746559 18672 net.cpp:399] lstm2_gate_input_1 -> gate_input_1
I0924 03:13:07.746567 18702 layer_factory.hpp:77] Creating layer lstm1_unit_1
I0924 03:13:07.746587 18668 net.cpp:141] Setting up lstm1_
I0924 03:13:07.746613 18668 net.cpp:148] Top shape: 1 1 1000 (1000)
I0924 03:13:07.746636 18668 net.cpp:156] Memory required for data: 90016
I0924 03:13:07.746587 18702 net.cpp:91] Creating Layer lstm1_unit_1
I0924 03:13:07.746645 18672 net.cpp:141] Setting up lstm2_gate_input_1
I0924 03:13:07.746642 18668 layer_factory.hpp:77] Creating layer lstm1_h_concat
I0924 03:13:07.746657 18702 net.cpp:425] lstm1_unit_1 <- c_0
I0924 03:13:07.746665 18672 net.cpp:148] Top shape: 1 1 4000 (4000)
I0924 03:13:07.746671 18702 net.cpp:425] lstm1_unit_1 <- gate_input_1
I0924 03:13:07.746677 18672 net.cpp:156] Memory required for data: 82020
I0924 03:13:07.746665 18668 net.cpp:91] Creating Layer lstm1_h_concat
I0924 03:13:07.746686 18702 net.cpp:425] lstm1_unit_1 <- cont_1_lstm1_cont_slice_0_split_1
I0924 03:13:07.746692 18668 net.cpp:425] lstm1_h_concat <- h_1
I0924 03:13:07.746687 18672 layer_factory.hpp:77] Creating layer lstm2_unit_1
I0924 03:13:07.746703 18668 net.cpp:399] lstm1_h_concat -> h
I0924 03:13:07.746708 18702 net.cpp:399] lstm1_unit_1 -> c_1
I0924 03:13:07.746728 18672 net.cpp:91] Creating Layer lstm2_unit_1
I0924 03:13:07.746729 18702 net.cpp:399] lstm1_unit_1 -> h_1
I0924 03:13:07.746755 18672 net.cpp:425] lstm2_unit_1 <- c_0
I0924 03:13:07.746767 18668 net.cpp:141] Setting up lstm1_h_concat
I0924 03:13:07.746768 18672 net.cpp:425] lstm2_unit_1 <- gate_input_1
I0924 03:13:07.746783 18668 net.cpp:148] Top shape: 1 1 1000 (1000)
I0924 03:13:07.746788 18668 net.cpp:156] Memory required for data: 94016
I0924 03:13:07.746790 18672 net.cpp:425] lstm2_unit_1 <- cont_1_lstm2_cont_slice_0_split_1
I0924 03:13:07.746793 18668 layer_factory.hpp:77] Creating layer h_pseudoloss
I0924 03:13:07.746803 18672 net.cpp:399] lstm2_unit_1 -> c_1
I0924 03:13:07.746809 18668 net.cpp:91] Creating Layer h_pseudoloss
I0924 03:13:07.746819 18668 net.cpp:425] h_pseudoloss <- h
…
I0924 03:13:07.747272 18668 net.cpp:219] lstm1_ does not need backward computation.
I0924 03:13:07.747279 18668 net.cpp:261] This network produces output c_T
I0924 03:13:07.747287 18668 net.cpp:261] This network produces output h_pseudoloss
I0924 03:13:07.747313 18668 net.cpp:274] Network initialization done.
I0924 03:13:07.747391 18668 recurrent_layer.cpp:150] Adding parameter 0: W_xc
I0924 03:13:07.747403 18668 recurrent_layer.cpp:150] Adding parameter 1: b_c
I0924 03:13:07.747411 18668 recurrent_layer.cpp:150] Adding parameter 2: W_hc
I0924 03:13:07.747594 18668 net.cpp:141] Setting up lstm1
I0924 03:13:07.747611 18668 net.cpp:148] Top shape: 1 1 1000 (1000)
I0924 03:13:07.747618 18668 net.cpp:156] Memory required for data: 26408
I0924 03:13:07.747642 18668 layer_factory.hpp:77] Creating layer concat
I0924 03:13:07.747658 18668 net.cpp:91] Creating Layer concat
I0924 03:13:07.747668 18668 net.cpp:425] concat <- lstm1
I0924 03:13:07.747664 18672 net.cpp:141] Setting up lstm2_unit_1
I0924 03:13:07.747686 18668 net.cpp:425] concat <- embedded_input_sentence
I0924 03:13:07.747696 18668 net.cpp:425] concat <- reshaped_stage_indicator
I0924 03:13:07.747699 18672 net.cpp:148] Top shape: 1 1 1000 (1000)
I0924 03:13:07.747709 18668 net.cpp:399] concat -> lstm1_video_sequence
I0924 03:13:07.747712 18672 net.cpp:148] Top shape: 1 1 1000 (1000)
I0924 03:13:07.747721 18672 net.cpp:156] Memory required for data: 90020
I0924 03:13:07.747731 18672 layer_factory.hpp:77] Creating layer lstm2_
I0924 03:13:07.747746 18672 net.cpp:91] Creating Layer lstm2_
I0924 03:13:07.747758 18672 net.cpp:425] lstm2_ <- c_1
I0924 03:13:07.747764 18668 net.cpp:141] Setting up concat
I0924 03:13:07.747772 18672 net.cpp:399] lstm2_ -> c_T
I0924 03:13:07.747778 18668 net.cpp:148] Top shape: 1 1 1501 (1501)
I0924 03:13:07.747786 18668 net.cpp:156] Memory required for data: 32412
I0924 03:13:07.747794 18668 layer_factory.hpp:77] Creating layer lstm2
I0924 03:13:07.747813 18668 net.cpp:91] Creating Layer lstm2
I0924 03:13:07.747822 18668 net.cpp:425] lstm2 <- lstm1_video_sequence
I0924 03:13:07.747831 18668 net.cpp:425] lstm2 <- cont_sentence_input_1_split_1
I0924 03:13:07.747840 18672 net.cpp:141] Setting up lstm2_
I0924 03:13:07.747843 18668 net.cpp:399] lstm2 -> lstm2
I0924 03:13:07.747864 18672 net.cpp:148] Top shape: 1 1 1000 (1000)
I0924 03:13:07.747874 18672 net.cpp:156] Memory required for data: 94020
I0924 03:13:07.747874 18668 recurrent_layer.cpp:20] Initializing recurrent layer: assuming input batch contains 1 timesteps of 1 independent streams.
I0924 03:13:07.747889 18672 layer_factory.hpp:77] Creating layer lstm2_h_concat
I0924 03:13:07.747912 18672 net.cpp:91] Creating Layer lstm2_h_concat
I0924 03:13:07.747925 18672 net.cpp:425] lstm2_h_concat <- h_1
I0924 03:13:07.747939 18672 net.cpp:399] lstm2_h_concat -> h
I0924 03:13:07.748288 18668 net.cpp:49] Initializing net from parameters: 
layer {
  name: "lstm2_"
  type: "Input"
  top: "x"
  top: "cont"
  input_param {
    shape {
      dim: 1
      dim: 1
      dim: 1501
    }
    shape {
      dim: 1
      dim: 1
    }
  }
}
layer {
  name: "lstm2_"
  type: "Input"
  top: "c_0"
  top: "h_0"
  input_param {
    shape {
      dim: 1
      dim: 1
      dim: 1000
    }
    shape {
      dim: 1
      dim: 1
      dim: 1000
    }
  }
}
layer {
  name: "lstm2_cont_slice"
  type: "Slice"
  bottom: "cont"
  top: "cont_1"
  slice_param {
    axis: 0
  }
}
layer {
  name: "lstm2_x_transform"
  type: "InnerProduct"
  bottom: "x"
  top: "W_xc_x"
  param {
    name: "W_xc"
  }
  param {
    name: "b_c"
  }
  propagate_down: true
  inner_product_param {
    num_output: 4000
    bias_term: true
    weight_filler {
      type: "uniform"
      min: -0.08
      max: 0.08
    }
    bias_filler {
      type: "constant"
      value: 0
    }
    axis: 2
  }
}
layer {
  name: "lstm2_W_xc_x_slice"
  type: "Slice"
  bottom: "W_xc_x"
  top: "W_xc_x_1"
  slice_param {
    axis: 0
  }
}
layer {
  name: "lstm2_h_conted_0"
  type: "Scale"
  bottom: "h_0"
  bottom: "cont_1"
  top: "h_conted_0"
  scale_param {
    axis: 0
  }
}
layer {
  name: "lstm2_transform_1"
  type: "InnerProduct"
  bottom: "h_conted_0"
  top: "W_hc_h_0"
  param {
    name: "W_hc"
  }
  inner_product_param {
    num_output: 4000
    bias_term: false
    weight_filler {
      type: "uniform"
      min: -0.08
      max: 0.08
    }
    axis: 2
  }
}
layer {
  name: "lstm2_gate_input_1"
  type: "Eltwise"
  bottom: "W_hc_h_0"
  bottom: "W_xc_x_1"
  top: "gate_input_1"
  eltwise_param {
    operation: SUM
  }
}
layer {
  name: "lstm2_unit_1"
  type: "LSTMUnit"
  bottom: "c_0"
  bottom: "gate_input_1"
  bottom: "cont_1"
  top: "c_1"
  top: "h_1"
}
layer {
  name: "lstm2_"
  type: "Split"
  bottom: "c_1"
  top: "c_T"
}
layer {
  name: "lstm2_h_concat"
  type: "Concat"
  bottom: "h_1"
  top: "h"
  concat_param {
    axis: 0
  }
}
layer {
  name: "h_pseudoloss"
  type: "Reduction"
  bottom: "h"
  top: "h_pseudoloss"
  loss_weight: 1
}
I0924 03:13:07.748430 18668 layer_factory.hpp:77] Creating layer lstm2_
I0924 03:13:07.748450 18668 net.cpp:91] Creating Layer lstm2_
I0924 03:13:07.748459 18668 net.cpp:399] lstm2_ -> x
I0924 03:13:07.748476 18668 net.cpp:399] lstm2_ -> cont
I0924 03:13:07.751634 18672 net.cpp:141] Setting up lstm2_h_concat
I0924 03:13:07.751657 18672 net.cpp:148] Top shape: 1 1 1000 (1000)
I0924 03:13:07.751668 18672 net.cpp:156] Memory required for data: 98020
I0924 03:13:07.751678 18672 layer_factory.hpp:77] Creating layer h_pseudoloss
I0924 03:13:07.751695 18672 net.cpp:91] Creating Layer h_pseudoloss
I0924 03:13:07.751708 18672 net.cpp:425] h_pseudoloss <- h
I0924 03:13:07.751716 18668 net.cpp:141] Setting up lstm2_
I0924 03:13:07.751730 18672 net.cpp:399] h_pseudoloss -> h_pseudoloss
I0924 03:13:07.751736 18668 net.cpp:148] Top shape: 1 1 1501 (1501)
I0924 03:13:07.751747 18668 net.cpp:148] Top shape: 1 1 (1)
I0924 03:13:07.751754 18668 net.cpp:156] Memory required for data: 6008
I0924 03:13:07.751762 18668 layer_factory.hpp:77] Creating layer lstm2_
I0924 03:13:07.751785 18668 net.cpp:91] Creating Layer lstm2_
I0924 03:13:07.751796 18668 net.cpp:399] lstm2_ -> c_0
I0924 03:13:07.751814 18668 net.cpp:399] lstm2_ -> h_0
I0924 03:13:07.751922 18672 net.cpp:141] Setting up h_pseudoloss
I0924 03:13:07.751945 18672 net.cpp:148] Top shape: (1)
…
I0924 03:13:07.752112 18672 net.cpp:219] lstm2_ does not need backward computation.
I0924 03:13:07.752120 18672 net.cpp:261] This network produces output c_T
I0924 03:13:07.752130 18672 net.cpp:261] This network produces output h_pseudoloss
I0924 03:13:07.752161 18672 net.cpp:274] Network initialization done.
I0924 03:13:07.752234 18672 recurrent_layer.cpp:150] Adding parameter 0: W_xc
I0924 03:13:07.752249 18672 recurrent_layer.cpp:150] Adding parameter 1: b_c
I0924 03:13:07.752259 18672 recurrent_layer.cpp:150] Adding parameter 2: W_hc
I0924 03:13:07.752894 18668 net.cpp:141] Setting up lstm2_
I0924 03:13:07.752912 18668 net.cpp:148] Top shape: 1 1 1000 (1000)
I0924 03:13:07.752921 18668 net.cpp:148] Top shape: 1 1 1000 (1000)
I0924 03:13:07.752928 18668 net.cpp:156] Memory required for data: 14008
I0924 03:13:07.752936 18668 layer_factory.hpp:77] Creating layer lstm2_cont_slice
I0924 03:13:07.752951 18668 net.cpp:91] Creating Layer lstm2_cont_slice
I0924 03:13:07.752959 18668 net.cpp:425] lstm2_cont_slice <- cont
I0924 03:13:07.752971 18668 net.cpp:399] lstm2_cont_slice -> cont_1
I0924 03:13:07.753033 18668 net.cpp:141] Setting up lstm2_cont_slice
I0924 03:13:07.753048 18668 net.cpp:148] Top shape: 1 1 (1)
I0924 03:13:07.753056 18668 net.cpp:156] Memory required for data: 14012
I0924 03:13:07.753062 18668 layer_factory.hpp:77] Creating layer cont_1_lstm2_cont_slice_0_split
I0924 03:13:07.753074 18668 net.cpp:91] Creating Layer cont_1_lstm2_cont_slice_0_split
I0924 03:13:07.753082 18668 net.cpp:425] cont_1_lstm2_cont_slice_0_split <- cont_1
I0924 03:13:07.753092 18702 net.cpp:141] Setting up lstm1_unit_1
I0924 03:13:07.753096 18668 net.cpp:399] cont_1_lstm2_cont_slice_0_split -> cont_1_lstm2_cont_slice_0_split_0
I0924 03:13:07.753120 18702 net.cpp:148] Top shape: 1 1 1000 (1000)
I0924 03:13:07.753124 18668 net.cpp:399] cont_1_lstm2_cont_slice_0_split -> cont_1_lstm2_cont_slice_0_split_1
I0924 03:13:07.753144 18702 net.cpp:148] Top shape: 1 1 1000 (1000)
I0924 03:13:07.753154 18702 net.cpp:156] Memory required for data: 86016
I0924 03:13:07.753163 18702 layer_factory.hpp:77] Creating layer lstm1_
I0924 03:13:07.753178 18702 net.cpp:91] Creating Layer lstm1_
I0924 03:13:07.753190 18702 net.cpp:425] lstm1_ <- c_1
I0924 03:13:07.753221 18702 net.cpp:399] lstm1_ -> c_T
I0924 03:13:07.753221 18668 net.cpp:141] Setting up cont_1_lstm2_cont_slice_0_split
I0924 03:13:07.753247 18668 net.cpp:148] Top shape: 1 1 (1)
I0924 03:13:07.753257 18668 net.cpp:148] Top shape: 1 1 (1)
I0924 03:13:07.753264 18668 net.cpp:156] Memory required for data: 14020
I0924 03:13:07.753271 18668 layer_factory.hpp:77] Creating layer lstm2_x_transform
I0924 03:13:07.753288 18668 net.cpp:91] Creating Layer lstm2_x_transform
I0924 03:13:07.753289 18702 net.cpp:141] Setting up lstm1_
I0924 03:13:07.753296 18668 net.cpp:425] lstm2_x_transform <- x
I0924 03:13:07.753307 18702 net.cpp:148] Top shape: 1 1 1000 (1000)
I0924 03:13:07.753312 18668 net.cpp:399] lstm2_x_transform -> W_xc_x
I0924 03:13:07.753317 18702 net.cpp:156] Memory required for data: 90016
I0924 03:13:07.753327 18702 layer_factory.hpp:77] Creating layer lstm1_h_concat
I0924 03:13:07.753345 18702 net.cpp:91] Creating Layer lstm1_h_concat
I0924 03:13:07.753355 18702 net.cpp:425] lstm1_h_concat <- h_1
I0924 03:13:07.753371 18702 net.cpp:399] lstm1_h_concat -> h
I0924 03:13:07.768054 18702 net.cpp:141] Setting up lstm1_h_concat
I0924 03:13:07.768116 18702 net.cpp:148] Top shape: 1 1 1000 (1000)
I0924 03:13:07.768138 18702 net.cpp:156] Memory required for data: 94016
I0924 03:13:07.768154 18702 layer_factory.hpp:77] Creating layer h_pseudoloss
I0924 03:13:07.768194 18702 net.cpp:91] Creating Layer h_pseudoloss
I0924 03:13:07.768209 18702 net.cpp:425] h_pseudoloss <- h
I0924 03:13:07.768227 18702 net.cpp:399] h_pseudoloss -> h_pseudoloss
I0924 03:13:07.768455 18702 net.cpp:141] Setting up h_pseudoloss
…
I0924 03:13:07.768733 18702 net.cpp:219] lstm1_ does not need backward computation.
I0924 03:13:07.768740 18702 net.cpp:261] This network produces output c_T
I0924 03:13:07.768748 18702 net.cpp:261] This network produces output h_pseudoloss
I0924 03:13:07.768784 18702 net.cpp:274] Network initialization done.
I0924 03:13:07.768889 18702 recurrent_layer.cpp:150] Adding parameter 0: W_xc
I0924 03:13:07.768901 18702 recurrent_layer.cpp:150] Adding parameter 1: b_c
I0924 03:13:07.768908 18702 recurrent_layer.cpp:150] Adding parameter 2: W_hc
I0924 03:13:07.769129 18702 net.cpp:141] Setting up lstm1
I0924 03:13:07.769146 18702 net.cpp:148] Top shape: 1 1 1000 (1000)
I0924 03:13:07.769155 18702 net.cpp:156] Memory required for data: 26408
I0924 03:13:07.769191 18702 layer_factory.hpp:77] Creating layer concat
I0924 03:13:07.769209 18702 net.cpp:91] Creating Layer concat
I0924 03:13:07.769233 18702 net.cpp:425] concat <- lstm1
I0924 03:13:07.769245 18702 net.cpp:425] concat <- embedded_input_sentence
I0924 03:13:07.769254 18702 net.cpp:425] concat <- reshaped_stage_indicator
I0924 03:13:07.769265 18702 net.cpp:399] concat -> lstm1_video_sequence
I0924 03:13:07.769343 18702 net.cpp:141] Setting up concat
I0924 03:13:07.769358 18702 net.cpp:148] Top shape: 1 1 1501 (1501)
I0924 03:13:07.769366 18702 net.cpp:156] Memory required for data: 32412
I0924 03:13:07.769374 18702 layer_factory.hpp:77] Creating layer lstm2
I0924 03:13:07.769469 18702 net.cpp:91] Creating Layer lstm2
I0924 03:13:07.769481 18702 net.cpp:425] lstm2 <- lstm1_video_sequence
I0924 03:13:07.769491 18702 net.cpp:425] lstm2 <- cont_sentence_input_1_split_1
I0924 03:13:07.769505 18702 net.cpp:399] lstm2 -> lstm2
I0924 03:13:07.769706 18702 recurrent_layer.cpp:20] Initializing recurrent layer: assuming input batch contains 1 timesteps of 1 independent streams.
I0924 03:13:07.771175 18702 net.cpp:49] Initializing net from parameters: 
layer {
  name: "lstm2_"
  type: "Input"
  top: "x"
  top: "cont"
  input_param {
    shape {
      dim: 1
      dim: 1
      dim: 1501
    }
    shape {
      dim: 1
      dim: 1
    }
  }
}
layer {
  name: "lstm2_"
  type: "Input"
  top: "c_0"
  top: "h_0"
  input_param {
    shape {
      dim: 1
      dim: 1
      dim: 1000
    }
    shape {
      dim: 1
      dim: 1
      dim: 1000
    }
  }
}
layer {
  name: "lstm2_cont_slice"
  type: "Slice"
  bottom: "cont"
  top: "cont_1"
  slice_param {
    axis: 0
  }
}
layer {
  name: "lstm2_x_transform"
  type: "InnerProduct"
  bottom: "x"
  top: "W_xc_x"
  param {
    name: "W_xc"
  }
  param {
    name: "b_c"
  }
  propagate_down: true
  inner_product_param {
    num_output: 4000
    bias_term: true
    weight_filler {
      type: "uniform"
      min: -0.08
      max: 0.08
    }
    bias_filler {
      type: "constant"
      value: 0
    }
    axis: 2
  }
}
layer {
  name: "lstm2_W_xc_x_slice"
  type: "Slice"
  bottom: "W_xc_x"
  top: "W_xc_x_1"
  slice_param {
    axis: 0
  }
}
layer {
  name: "lstm2_h_conted_0"
  type: "Scale"
  bottom: "h_0"
  bottom: "cont_1"
  top: "h_conted_0"
  scale_param {
    axis: 0
  }
}
layer {
  name: "lstm2_transform_1"
  type: "InnerProduct"
  bottom: "h_conted_0"
  top: "W_hc_h_0"
  param {
    name: "W_hc"
  }
  inner_product_param {
    num_output: 4000
    bias_term: false
    weight_filler {
      type: "uniform"
      min: -0.08
      max: 0.08
    }
    axis: 2
  }
}
layer {
  name: "lstm2_gate_input_1"
  type: "Eltwise"
  bottom: "W_hc_h_0"
  bottom: "W_xc_x_1"
  top: "gate_input_1"
  eltwise_param {
    operation: SUM
  }
}
layer {
  name: "lstm2_unit_1"
  type: "LSTMUnit"
  bottom: "c_0"
  bottom: "gate_input_1"
  bottom: "cont_1"
  top: "c_1"
  top: "h_1"
}
layer {
  name: "lstm2_"
  type: "Split"
  bottom: "c_1"
  top: "c_T"
}
layer {
  name: "lstm2_h_concat"
  type: "Concat"
  bottom: "h_1"
  top: "h"
  concat_param {
    axis: 0
  }
}
layer {
  name: "h_pseudoloss"
  type: "Reduction"
  bottom: "h"
  top: "h_pseudoloss"
  loss_weight: 1
}
I0924 03:13:07.771656 18702 layer_factory.hpp:77] Creating layer lstm2_
I0924 03:13:07.771661 18678 net.cpp:141] Setting up lstm2_transform_1
I0924 03:13:07.771683 18702 net.cpp:91] Creating Layer lstm2_
I0924 03:13:07.771713 18678 net.cpp:148] Top shape: 1 1 4000 (4000)
I0924 03:13:07.771723 18678 net.cpp:156] Memory required for data: 66020
I0924 03:13:07.771725 18702 net.cpp:399] lstm2_ -> x
I0924 03:13:07.771749 18702 net.cpp:399] lstm2_ -> cont
I0924 03:13:07.771749 18678 layer_factory.hpp:77] Creating layer lstm2_gate_input_1
I0924 03:13:07.771780 18678 net.cpp:91] Creating Layer lstm2_gate_input_1
I0924 03:13:07.771792 18678 net.cpp:425] lstm2_gate_input_1 <- W_hc_h_0
I0924 03:13:07.771805 18678 net.cpp:425] lstm2_gate_input_1 <- W_xc_x_1
I0924 03:13:07.771818 18678 net.cpp:399] lstm2_gate_input_1 -> gate_input_1
I0924 03:13:07.772687 18678 net.cpp:141] Setting up lstm2_gate_input_1
I0924 03:13:07.772701 18678 net.cpp:148] Top shape: 1 1 4000 (4000)
I0924 03:13:07.772706 18678 net.cpp:156] Memory required for data: 82020
I0924 03:13:07.772712 18678 layer_factory.hpp:77] Creating layer lstm2_unit_1
I0924 03:13:07.772722 18678 net.cpp:91] Creating Layer lstm2_unit_1
I0924 03:13:07.772727 18678 net.cpp:425] lstm2_unit_1 <- c_0
I0924 03:13:07.772737 18678 net.cpp:425] lstm2_unit_1 <- gate_input_1
I0924 03:13:07.772743 18678 net.cpp:425] lstm2_unit_1 <- cont_1_lstm2_cont_slice_0_split_1
I0924 03:13:07.772750 18678 net.cpp:399] lstm2_unit_1 -> c_1
I0924 03:13:07.772760 18678 net.cpp:399] lstm2_unit_1 -> h_1
I0924 03:13:07.772766 18672 net.cpp:141] Setting up lstm2
I0924 03:13:07.772783 18672 net.cpp:148] Top shape: 1 1 1000 (1000)
I0924 03:13:07.772789 18672 net.cpp:156] Memory required for data: 36412
I0924 03:13:07.772806 18672 layer_factory.hpp:77] Creating layer predict
I0924 03:13:07.772821 18672 net.cpp:91] Creating Layer predict
I0924 03:13:07.772828 18672 net.cpp:425] predict <- lstm2
I0924 03:13:07.772836 18672 net.cpp:399] predict -> predict
I0924 03:13:07.772855 18678 net.cpp:141] Setting up lstm2_unit_1
I0924 03:13:07.772866 18678 net.cpp:148] Top shape: 1 1 1000 (1000)
I0924 03:13:07.772872 18678 net.cpp:148] Top shape: 1 1 1000 (1000)
I0924 03:13:07.772877 18678 net.cpp:156] Memory required for data: 90020
I0924 03:13:07.772882 18678 layer_factory.hpp:77] Creating layer lstm2_
I0924 03:13:07.772893 18678 net.cpp:91] Creating Layer lstm2_
I0924 03:13:07.772902 18678 net.cpp:425] lstm2_ <- c_1
I0924 03:13:07.772914 18678 net.cpp:399] lstm2_ -> c_T
I0924 03:13:07.772979 18702 net.cpp:141] Setting up lstm2_
I0924 03:13:07.772991 18702 net.cpp:148] Top shape: 1 1 1501 (1501)
I0924 03:13:07.772999 18702 net.cpp:148] Top shape: 1 1 (1)
I0924 03:13:07.773003 18702 net.cpp:156] Memory required for data: 6008
I0924 03:13:07.773012 18702 layer_factory.hpp:77] Creating layer lstm2_
I0924 03:13:07.773022 18678 net.cpp:141] Setting up lstm2_
I0924 03:13:07.773035 18678 net.cpp:148] Top shape: 1 1 1000 (1000)
I0924 03:13:07.773039 18678 net.cpp:156] Memory required for data: 94020
I0924 03:13:07.773039 18702 net.cpp:91] Creating Layer lstm2_
I0924 03:13:07.773046 18678 layer_factory.hpp:77] Creating layer lstm2_h_concat
I0924 03:13:07.773054 18702 net.cpp:399] lstm2_ -> c_0
I0924 03:13:07.773057 18678 net.cpp:91] Creating Layer lstm2_h_concat
I0924 03:13:07.773063 18678 net.cpp:425] lstm2_h_concat <- h_1
I0924 03:13:07.773072 18678 net.cpp:399] lstm2_h_concat -> h
I0924 03:13:07.773073 18702 net.cpp:399] lstm2_ -> h_0
I0924 03:13:07.857223 18678 net.cpp:141] Setting up lstm2_h_concat
I0924 03:13:07.857271 18678 net.cpp:148] Top shape: 1 1 1000 (1000)
I0924 03:13:07.857278 18678 net.cpp:156] Memory required for data: 98020
I0924 03:13:07.857287 18678 layer_factory.hpp:77] Creating layer h_pseudoloss
I0924 03:13:07.857306 18678 net.cpp:91] Creating Layer h_pseudoloss
I0924 03:13:07.857316 18678 net.cpp:425] h_pseudoloss <- h
I0924 03:13:07.857327 18678 net.cpp:399] h_pseudoloss -> h_pseudoloss
I0924 03:13:07.857364 18696 net.cpp:141] Setting up lstm2_transform_1
I0924 03:13:07.857411 18696 net.cpp:148] Top shape: 1 1 4000 (4000)
I0924 03:13:07.857422 18696 net.cpp:156] Memory required for data: 66020
I0924 03:13:07.857419 18670 net.cpp:141] Setting up lstm1_transform_1
I0924 03:13:07.857460 18670 net.cpp:148] Top shape: 1 1 4000 (4000)
I0924 03:13:07.857465 18696 layer_factory.hpp:77] Creating layer lstm2_gate_input_1
I0924 03:13:07.857470 18670 net.cpp:156] Memory required for data: 62016
I0924 03:13:07.857492 18696 net.cpp:91] Creating Layer lstm2_gate_input_1
I0924 03:13:07.857501 18696 net.cpp:425] lstm2_gate_input_1 <- W_hc_h_0
I0924 03:13:07.857509 18696 net.cpp:425] lstm2_gate_input_1 <- W_xc_x_1
I0924 03:13:07.857520 18696 net.cpp:399] lstm2_gate_input_1 -> gate_input_1
I0924 03:13:07.857527 18670 layer_factory.hpp:77] Creating layer lstm1_gate_input_1
I0924 03:13:07.857553 18670 net.cpp:91] Creating Layer lstm1_gate_input_1
I0924 03:13:07.857563 18670 net.cpp:425] lstm1_gate_input_1 <- W_hc_h_0
I0924 03:13:07.857573 18670 net.cpp:425] lstm1_gate_input_1 <- W_xc_x_1
I0924 03:13:07.857585 18670 net.cpp:399] lstm1_gate_input_1 -> gate_input_1
I0924 03:13:07.857677 18670 net.cpp:141] Setting up lstm1_gate_input_1
I0924 03:13:07.857693 18670 net.cpp:148] Top shape: 1 1 4000 (4000)
I0924 03:13:07.857700 18670 net.cpp:156] Memory required for data: 78016
I0924 03:13:07.857708 18670 layer_factory.hpp:77] Creating layer lstm1_unit_1
I0924 03:13:07.857722 18670 net.cpp:91] Creating Layer lstm1_unit_1
I0924 03:13:07.857730 18670 net.cpp:425] lstm1_unit_1 <- c_0
I0924 03:13:07.857740 18670 net.cpp:425] lstm1_unit_1 <- gate_input_1
I0924 03:13:07.857774 18670 net.cpp:425] lstm1_unit_1 <- cont_1_lstm1_cont_slice_0_split_1
I0924 03:13:07.857806 18670 net.cpp:399] lstm1_unit_1 -> c_1
I0924 03:13:07.857825 18670 net.cpp:399] lstm1_unit_1 -> h_1
I0924 03:13:07.857936 18702 net.cpp:141] Setting up lstm2_
I0924 03:13:07.857974 18696 net.cpp:141] Setting up lstm2_gate_input_1
I0924 03:13:07.857990 18702 net.cpp:148] Top shape: 1 1 1000 (1000)
I0924 03:13:07.857995 18696 net.cpp:148] Top shape: 1 1 4000 (4000)
I0924 03:13:07.858024 18696 net.cpp:156] Memory required for data: 82020
I0924 03:13:07.858026 18702 net.cpp:148] Top shape: 1 1 1000 (1000)
I0924 03:13:07.858034 18696 layer_factory.hpp:77] Creating layer lstm2_unit_1
I0924 03:13:07.858043 18702 net.cpp:156] Memory required for data: 14008
I0924 03:13:07.858055 18696 net.cpp:91] Creating Layer lstm2_unit_1
I0924 03:13:07.858067 18696 net.cpp:425] lstm2_unit_1 <- c_0
I0924 03:13:07.858065 18702 layer_factory.hpp:77] Creating layer lstm2_cont_slice
I0924 03:13:07.858080 18696 net.cpp:425] lstm2_unit_1 <- gate_input_1
I0924 03:13:07.858091 18696 net.cpp:425] lstm2_unit_1 <- cont_1_lstm2_cont_slice_0_split_1
I0924 03:13:07.858103 18696 net.cpp:399] lstm2_unit_1 -> c_1
I0924 03:13:07.858103 18702 net.cpp:91] Creating Layer lstm2_cont_slice
I0924 03:13:07.858132 18696 net.cpp:399] lstm2_unit_1 -> h_1
I0924 03:13:07.858139 18702 net.cpp:425] lstm2_cont_slice <- cont
I0924 03:13:07.858142 18668 net.cpp:141] Setting up lstm2_x_transform
I0924 03:13:07.858161 18702 net.cpp:399] lstm2_cont_slice -> cont_1
I0924 03:13:07.858171 18668 net.cpp:148] Top shape: 1 1 4000 (4000)
I0924 03:13:07.858181 18668 net.cpp:156] Memory required for data: 30020
I0924 03:13:07.858202 18668 layer_factory.hpp:77] Creating layer lstm2_W_xc_x_slice
I0924 03:13:07.858223 18668 net.cpp:91] Creating Layer lstm2_W_xc_x_slice
I0924 03:13:07.858234 18668 net.cpp:425] lstm2_W_xc_x_slice <- W_xc_x
I0924 03:13:07.858247 18670 net.cpp:141] Setting up lstm1_unit_1
I0924 03:13:07.858249 18668 net.cpp:399] lstm2_W_xc_x_slice -> W_xc_x_1
I0924 03:13:07.858276 18670 net.cpp:148] Top shape: 1 1 1000 (1000)
I0924 03:13:07.858286 18670 net.cpp:148] Top shape: 1 1 1000 (1000)
I0924 03:13:07.858294 18670 net.cpp:156] Memory required for data: 86016
I0924 03:13:07.858301 18670 layer_factory.hpp:77] Creating layer lstm1_
I0924 03:13:07.858319 18670 net.cpp:91] Creating Layer lstm1_
I0924 03:13:07.858326 18670 net.cpp:425] lstm1_ <- c_1
I0924 03:13:07.858337 18670 net.cpp:399] lstm1_ -> c_T
I0924 03:13:07.858348 18696 net.cpp:141] Setting up lstm2_unit_1
I0924 03:13:07.858364 18696 net.cpp:148] Top shape: 1 1 1000 (1000)
I0924 03:13:07.858374 18696 net.cpp:148] Top shape: 1 1 1000 (1000)
I0924 03:13:07.858381 18696 net.cpp:156] Memory required for data: 90020
I0924 03:13:07.858388 18696 layer_factory.hpp:77] Creating layer lstm2_
I0924 03:13:07.858400 18696 net.cpp:91] Creating Layer lstm2_
I0924 03:13:07.858408 18696 net.cpp:425] lstm2_ <- c_1
I0924 03:13:07.858423 18696 net.cpp:399] lstm2_ -> c_T
I0924 03:13:07.858430 18678 net.cpp:141] Setting up h_pseudoloss
I0924 03:13:07.858455 18678 net.cpp:148] Top shape: (1)
I0924 03:13:07.858464 18678 net.cpp:151]     with loss weight 1
I0924 03:13:07.858485 18696 net.cpp:141] Setting up lstm2_
I0924 03:13:07.858492 18678 net.cpp:156] Memory required for data: 98024
I0924 03:13:07.858501 18696 net.cpp:148] Top shape: 1 1 1000 (1000)
I0924 03:13:07.858505 18678 net.cpp:217] h_pseudoloss needs backward computation.
I0924 03:13:07.858510 18696 net.cpp:156] Memory required for data: 94020
I0924 03:13:07.858516 18678 net.cpp:217] lstm2_h_concat needs backward computation.
I0924 03:13:07.858520 18696 layer_factory.hpp:77] Creating layer lstm2_h_concat
I0924 03:13:07.858527 18678 net.cpp:219] lstm2_ does not need backward computation.
I0924 03:13:07.858537 18696 net.cpp:91] Creating Layer lstm2_h_concat
I0924 03:13:07.858538 18678 net.cpp:217] lstm2_unit_1 needs backward computation.
I0924 03:13:07.858547 18696 net.cpp:425] lstm2_h_concat <- h_1
I0924 03:13:07.858552 18678 net.cpp:217] lstm2_gate_input_1 needs backward computation.
I0924 03:13:07.858559 18696 net.cpp:399] lstm2_h_concat -> h
I0924 03:13:07.858564 18678 net.cpp:217] lstm2_transform_1 needs backward computation.
I0924 03:13:07.858579 18678 net.cpp:219] lstm2_h_conted_0 does not need backward computation.
I0924 03:13:07.858609 18678 net.cpp:217] lstm2_W_xc_x_slice needs backward computation.
I0924 03:13:07.858621 18678 net.cpp:217] lstm2_x_transform needs backward computation.
I0924 03:13:07.858631 18678 net.cpp:219] cont_1_lstm2_cont_slice_0_split does not need backward computation.
I0924 03:13:07.858636 18696 net.cpp:141] Setting up lstm2_h_concat
I0924 03:13:07.858642 18678 net.cpp:219] lstm2_cont_slice does not need backward computation.
I0924 03:13:07.858652 18696 net.cpp:148] Top shape: 1 1 1000 (1000)
I0924 03:13:07.858652 18678 net.cpp:219] lstm2_ does not need backward computation.
I0924 03:13:07.858661 18696 net.cpp:156] Memory required for data: 98020
I0924 03:13:07.858664 18678 net.cpp:219] lstm2_ does not need backward computation.
I0924 03:13:07.858671 18696 layer_factory.hpp:77] Creating layer h_pseudoloss
I0924 03:13:07.858674 18678 net.cpp:261] This network produces output c_T
I0924 03:13:07.858698 18696 net.cpp:91] Creating Layer h_pseudoloss
I0924 03:13:07.858702 18678 net.cpp:261] This network produces output h_pseudoloss
I0924 03:13:07.858707 18696 net.cpp:425] h_pseudoloss <- h
I0924 03:13:07.858721 18696 net.cpp:399] h_pseudoloss -> h_pseudoloss
I0924 03:13:07.858733 18678 net.cpp:274] Network initialization done.
I0924 03:13:07.858824 18678 recurrent_layer.cpp:150] Adding parameter 0: W_xc
I0924 03:13:07.858834 18678 recurrent_layer.cpp:150] Adding parameter 1: b_c
I0924 03:13:07.858842 18678 recurrent_layer.cpp:150] Adding parameter 2: W_hc
I0924 03:13:07.858935 18668 net.cpp:141] Setting up lstm2_W_xc_x_slice
I0924 03:13:07.858955 18668 net.cpp:148] Top shape: 1 1 4000 (4000)
I0924 03:13:07.858964 18668 net.cpp:156] Memory required for data: 46020
I0924 03:13:07.858973 18668 layer_factory.hpp:77] Creating layer lstm2_h_conted_0
I0924 03:13:07.858991 18668 net.cpp:91] Creating Layer lstm2_h_conted_0
I0924 03:13:07.859000 18668 net.cpp:425] lstm2_h_conted_0 <- h_0
I0924 03:13:07.858999 18702 net.cpp:141] Setting up lstm2_cont_slice
I0924 03:13:07.859021 18668 net.cpp:425] lstm2_h_conted_0 <- cont_1_lstm2_cont_slice_0_split_0
I0924 03:13:07.859037 18668 net.cpp:399] lstm2_h_conted_0 -> h_conted_0
I0924 03:13:07.859037 18702 net.cpp:148] Top shape: 1 1 (1)
I0924 03:13:07.859050 18702 net.cpp:156] Memory required for data: 14012
I0924 03:13:07.859058 18702 layer_factory.hpp:77] Creating layer cont_1_lstm2_cont_slice_0_split
I0924 03:13:07.859058 18670 net.cpp:141] Setting up lstm1_
I0924 03:13:07.859076 18670 net.cpp:148] Top shape: 1 1 1000 (1000)
I0924 03:13:07.859084 18670 net.cpp:156] Memory required for data: 90016
I0924 03:13:07.859094 18670 layer_factory.hpp:77] Creating layer lstm1_h_concat
I0924 03:13:07.859096 18702 net.cpp:91] Creating Layer cont_1_lstm2_cont_slice_0_split
I0924 03:13:07.859107 18702 net.cpp:425] cont_1_lstm2_cont_slice_0_split <- cont_1
I0924 03:13:07.859107 18670 net.cpp:91] Creating Layer lstm1_h_concat
…
I0924 03:13:08.031908 18670 net.cpp:219] lstm1_ does not need backward computation.
I0924 03:13:08.031915 18670 net.cpp:261] This network produces output c_T
I0924 03:13:08.031927 18670 net.cpp:261] This network produces output h_pseudoloss
I0924 03:13:08.031955 18670 net.cpp:274] Network initialization done.
I0924 03:13:08.032044 18670 recurrent_layer.cpp:150] Adding parameter 0: W_xc
I0924 03:13:08.032055 18670 recurrent_layer.cpp:150] Adding parameter 1: b_c
I0924 03:13:08.032064 18670 recurrent_layer.cpp:150] Adding parameter 2: W_hc
I0924 03:13:08.042136 18702 net.cpp:141] Setting up cont_1_lstm2_cont_slice_0_split
I0924 03:13:08.042191 18702 net.cpp:148] Top shape: 1 1 (1)
I0924 03:13:08.042206 18702 net.cpp:148] Top shape: 1 1 (1)
I0924 03:13:08.042214 18702 net.cpp:156] Memory required for data: 14020
I0924 03:13:08.042227 18702 layer_factory.hpp:77] Creating layer lstm2_x_transform
I0924 03:13:08.042270 18702 net.cpp:91] Creating Layer lstm2_x_transform
I0924 03:13:08.042282 18702 net.cpp:425] lstm2_x_transform <- x
I0924 03:13:08.042307 18702 net.cpp:399] lstm2_x_transform -> W_xc_x
I0924 03:13:08.043757 18670 net.cpp:141] Setting up lstm1
I0924 03:13:08.043817 18670 net.cpp:148] Top shape: 1 1 1000 (1000)
I0924 03:13:08.043826 18670 net.cpp:156] Memory required for data: 26408
I0924 03:13:08.043856 18670 layer_factory.hpp:77] Creating layer concat
I0924 03:13:08.043886 18670 net.cpp:91] Creating Layer concat
I0924 03:13:08.043897 18670 net.cpp:425] concat <- lstm1
I0924 03:13:08.043910 18670 net.cpp:425] concat <- embedded_input_sentence
I0924 03:13:08.043918 18670 net.cpp:425] concat <- reshaped_stage_indicator
I0924 03:13:08.043931 18670 net.cpp:399] concat -> lstm1_video_sequence
I0924 03:13:08.058567 18670 net.cpp:141] Setting up concat
I0924 03:13:08.058629 18670 net.cpp:148] Top shape: 1 1 1501 (1501)
I0924 03:13:08.058640 18670 net.cpp:156] Memory required for data: 32412
I0924 03:13:08.058650 18670 layer_factory.hpp:77] Creating layer lstm2
I0924 03:13:08.058678 18670 net.cpp:91] Creating Layer lstm2
I0924 03:13:08.058691 18670 net.cpp:425] lstm2 <- lstm1_video_sequence
I0924 03:13:08.058701 18670 net.cpp:425] lstm2 <- cont_sentence_input_1_split_1
I0924 03:13:08.058712 18670 net.cpp:399] lstm2 -> lstm2
I0924 03:13:08.058737 18670 recurrent_layer.cpp:20] Initializing recurrent layer: assuming input batch contains 1 timesteps of 1 independent streams.
I0924 03:13:08.059126 18670 net.cpp:49] Initializing net from parameters: 
layer {
  name: "lstm2_"
  type: "Input"
  top: "x"
  top: "cont"
  input_param {
    shape {
      dim: 1
      dim: 1
      dim: 1501
    }
    shape {
      dim: 1
      dim: 1
    }
  }
}
layer {
  name: "lstm2_"
  type: "Input"
  top: "c_0"
  top: "h_0"
  input_param {
    shape {
      dim: 1
      dim: 1
      dim: 1000
    }
    shape {
      dim: 1
      dim: 1
      dim: 1000
    }
  }
}
layer {
  name: "lstm2_cont_slice"
  type: "Slice"
  bottom: "cont"
  top: "cont_1"
  slice_param {
    axis: 0
  }
}
layer {
  name: "lstm2_x_transform"
  type: "InnerProduct"
  bottom: "x"
  top: "W_xc_x"
  param {
    name: "W_xc"
  }
  param {
    name: "b_c"
  }
  propagate_down: true
  inner_product_param {
    num_output: 4000
    bias_term: true
    weight_filler {
      type: "uniform"
      min: -0.08
      max: 0.08
    }
    bias_filler {
      type: "constant"
      value: 0
    }
    axis: 2
  }
}
layer {
  name: "lstm2_W_xc_x_slice"
  type: "Slice"
  bottom: "W_xc_x"
  top: "W_xc_x_1"
  slice_param {
    axis: 0
  }
}
layer {
  name: "lstm2_h_conted_0"
  type: "Scale"
  bottom: "h_0"
  bottom: "cont_1"
  top: "h_conted_0"
  scale_param {
    axis: 0
  }
}
layer {
  name: "lstm2_transform_1"
  type: "InnerProduct"
  bottom: "h_conted_0"
  top: "W_hc_h_0"
  param {
    name: "W_hc"
  }
  inner_product_param {
    num_output: 4000
    bias_term: false
    weight_filler {
      type: "uniform"
      min: -0.08
      max: 0.08
    }
    axis: 2
  }
}
layer {
  name: "lstm2_gate_input_1"
  type: "Eltwise"
  bottom: "W_hc_h_0"
  bottom: "W_xc_x_1"
  top: "gate_input_1"
  eltwise_param {
    operation: SUM
  }
}
layer {
  name: "lstm2_unit_1"
  type: "LSTMUnit"
  bottom: "c_0"
  bottom: "gate_input_1"
  bottom: "cont_1"
  top: "c_1"
  top: "h_1"
}
layer {
  name: "lstm2_"
  type: "Split"
  bottom: "c_1"
  top: "c_T"
}
layer {
  name: "lstm2_h_concat"
  type: "Concat"
  bottom: "h_1"
  top: "h"
  concat_param {
    axis: 0
  }
}
layer {
  name: "h_pseudoloss"
  type: "Reduction"
  bottom: "h"
  top: "h_pseudoloss"
  loss_weight: 1
}
I0924 03:13:08.059238 18670 layer_factory.hpp:77] Creating layer lstm2_
I0924 03:13:08.059258 18670 net.cpp:91] Creating Layer lstm2_
I0924 03:13:08.059270 18670 net.cpp:399] lstm2_ -> x
I0924 03:13:08.059289 18670 net.cpp:399] lstm2_ -> cont
I0924 03:13:08.065002 18670 net.cpp:141] Setting up lstm2_
I0924 03:13:08.065062 18670 net.cpp:148] Top shape: 1 1 1501 (1501)
I0924 03:13:08.065081 18670 net.cpp:148] Top shape: 1 1 (1)
I0924 03:13:08.065093 18670 net.cpp:156] Memory required for data: 6008
I0924 03:13:08.065114 18670 layer_factory.hpp:77] Creating layer lstm2_
I0924 03:13:08.065156 18670 net.cpp:91] Creating Layer lstm2_
I0924 03:13:08.065183 18670 net.cpp:399] lstm2_ -> c_0
I0924 03:13:08.065225 18670 net.cpp:399] lstm2_ -> h_0
I0924 03:13:08.066642 18670 net.cpp:141] Setting up lstm2_
I0924 03:13:08.066676 18670 net.cpp:148] Top shape: 1 1 1000 (1000)
I0924 03:13:08.066691 18670 net.cpp:148] Top shape: 1 1 1000 (1000)
I0924 03:13:08.066702 18670 net.cpp:156] Memory required for data: 14008
I0924 03:13:08.066715 18670 layer_factory.hpp:77] Creating layer lstm2_cont_slice
I0924 03:13:08.066740 18670 net.cpp:91] Creating Layer lstm2_cont_slice
I0924 03:13:08.066756 18670 net.cpp:425] lstm2_cont_slice <- cont
I0924 03:13:08.066774 18670 net.cpp:399] lstm2_cont_slice -> cont_1
I0924 03:13:08.066866 18670 net.cpp:141] Setting up lstm2_cont_slice
I0924 03:13:08.066885 18670 net.cpp:148] Top shape: 1 1 (1)
I0924 03:13:08.066896 18670 net.cpp:156] Memory required for data: 14012
I0924 03:13:08.066907 18670 layer_factory.hpp:77] Creating layer cont_1_lstm2_cont_slice_0_split
I0924 03:13:08.066931 18670 net.cpp:91] Creating Layer cont_1_lstm2_cont_slice_0_split
I0924 03:13:08.066943 18670 net.cpp:425] cont_1_lstm2_cont_slice_0_split <- cont_1
I0924 03:13:08.066957 18670 net.cpp:399] cont_1_lstm2_cont_slice_0_split -> cont_1_lstm2_cont_slice_0_split_0
I0924 03:13:08.066975 18670 net.cpp:399] cont_1_lstm2_cont_slice_0_split -> cont_1_lstm2_cont_slice_0_split_1
I0924 03:13:08.084451 18670 net.cpp:141] Setting up cont_1_lstm2_cont_slice_0_split
I0924 03:13:08.084522 18670 net.cpp:148] Top shape: 1 1 (1)
I0924 03:13:08.084540 18670 net.cpp:148] Top shape: 1 1 (1)
I0924 03:13:08.084549 18670 net.cpp:156] Memory required for data: 14020
I0924 03:13:08.084566 18670 layer_factory.hpp:77] Creating layer lstm2_x_transform
I0924 03:13:08.084609 18670 net.cpp:91] Creating Layer lstm2_x_transform
I0924 03:13:08.084625 18670 net.cpp:425] lstm2_x_transform <- x
I0924 03:13:08.084655 18670 net.cpp:399] lstm2_x_transform -> W_xc_x
I0924 03:13:08.098430 18668 net.cpp:141] Setting up lstm2_transform_1
I0924 03:13:08.098512 18668 net.cpp:148] Top shape: 1 1 4000 (4000)
I0924 03:13:08.098537 18668 net.cpp:156] Memory required for data: 66020
I0924 03:13:08.098587 18668 layer_factory.hpp:77] Creating layer lstm2_gate_input_1
I0924 03:13:08.098711 18668 net.cpp:91] Creating Layer lstm2_gate_input_1
I0924 03:13:08.098748 18668 net.cpp:425] lstm2_gate_input_1 <- W_hc_h_0
I0924 03:13:08.098764 18668 net.cpp:425] lstm2_gate_input_1 <- W_xc_x_1
I0924 03:13:08.098788 18668 net.cpp:399] lstm2_gate_input_1 -> gate_input_1
I0924 03:13:08.110776 18668 net.cpp:141] Setting up lstm2_gate_input_1
I0924 03:13:08.110827 18668 net.cpp:148] Top shape: 1 1 4000 (4000)
I0924 03:13:08.110833 18668 net.cpp:156] Memory required for data: 82020
I0924 03:13:08.110842 18668 layer_factory.hpp:77] Creating layer lstm2_unit_1
I0924 03:13:08.110859 18668 net.cpp:91] Creating Layer lstm2_unit_1
I0924 03:13:08.110867 18668 net.cpp:425] lstm2_unit_1 <- c_0
I0924 03:13:08.110878 18668 net.cpp:425] lstm2_unit_1 <- gate_input_1
I0924 03:13:08.110884 18668 net.cpp:425] lstm2_unit_1 <- cont_1_lstm2_cont_slice_0_split_1
I0924 03:13:08.110893 18668 net.cpp:399] lstm2_unit_1 -> c_1
I0924 03:13:08.110911 18668 net.cpp:399] lstm2_unit_1 -> h_1
I0924 03:13:08.111229 18668 net.cpp:141] Setting up lstm2_unit_1
I0924 03:13:08.111241 18668 net.cpp:148] Top shape: 1 1 1000 (1000)
I0924 03:13:08.111248 18668 net.cpp:148] Top shape: 1 1 1000 (1000)
I0924 03:13:08.111251 18668 net.cpp:156] Memory required for data: 90020
I0924 03:13:08.111258 18668 layer_factory.hpp:77] Creating layer lstm2_
I0924 03:13:08.111265 18668 net.cpp:91] Creating Layer lstm2_
I0924 03:13:08.111270 18668 net.cpp:425] lstm2_ <- c_1
I0924 03:13:08.111279 18668 net.cpp:399] lstm2_ -> c_T
I0924 03:13:08.119370 18668 net.cpp:141] Setting up lstm2_
I0924 03:13:08.119428 18668 net.cpp:148] Top shape: 1 1 1000 (1000)
I0924 03:13:08.119438 18668 net.cpp:156] Memory required for data: 94020
I0924 03:13:08.119451 18668 layer_factory.hpp:77] Creating layer lstm2_h_concat
I0924 03:13:08.119472 18668 net.cpp:91] Creating Layer lstm2_h_concat
I0924 03:13:08.119483 18668 net.cpp:425] lstm2_h_concat <- h_1
I0924 03:13:08.119503 18668 net.cpp:399] lstm2_h_concat -> h
I0924 03:13:08.119576 18668 net.cpp:141] Setting up lstm2_h_concat
I0924 03:13:08.119590 18668 net.cpp:148] Top shape: 1 1 1000 (1000)
I0924 03:13:08.119598 18668 net.cpp:156] Memory required for data: 98020
I0924 03:13:08.119606 18668 layer_factory.hpp:77] Creating layer h_pseudoloss
I0924 03:13:08.119624 18668 net.cpp:91] Creating Layer h_pseudoloss
I0924 03:13:08.119633 18668 net.cpp:425] h_pseudoloss <- h
I0924 03:13:08.119643 18668 net.cpp:399] h_pseudoloss -> h_pseudoloss
I0924 03:13:08.119873 18668 net.cpp:141] Setting up h_pseudoloss
…
I0924 03:13:08.120030 18668 net.cpp:219] lstm2_ does not need backward computation.
I0924 03:13:08.120038 18668 net.cpp:261] This network produces output c_T
I0924 03:13:08.120045 18668 net.cpp:261] This network produces output h_pseudoloss
I0924 03:13:08.120071 18668 net.cpp:274] Network initialization done.
I0924 03:13:08.120142 18668 recurrent_layer.cpp:150] Adding parameter 0: W_xc
I0924 03:13:08.120152 18668 recurrent_layer.cpp:150] Adding parameter 1: b_c
I0924 03:13:08.120159 18668 recurrent_layer.cpp:150] Adding parameter 2: W_hc
I0924 03:13:08.123710 18702 net.cpp:141] Setting up lstm2_x_transform
I0924 03:13:08.123738 18702 net.cpp:148] Top shape: 1 1 4000 (4000)
I0924 03:13:08.123750 18668 net.cpp:141] Setting up lstm2
I0924 03:13:08.123754 18702 net.cpp:156] Memory required for data: 30020
I0924 03:13:08.123775 18668 net.cpp:148] Top shape: 1 1 1000 (1000)
I0924 03:13:08.123793 18668 net.cpp:156] Memory required for data: 36412
I0924 03:13:08.123805 18702 layer_factory.hpp:77] Creating layer lstm2_W_xc_x_slice
I0924 03:13:08.123816 18668 layer_factory.hpp:77] Creating layer predict
I0924 03:13:08.123826 18702 net.cpp:91] Creating Layer lstm2_W_xc_x_slice
I0924 03:13:08.123833 18668 net.cpp:91] Creating Layer predict
I0924 03:13:08.123839 18702 net.cpp:425] lstm2_W_xc_x_slice <- W_xc_x
I0924 03:13:08.123843 18668 net.cpp:425] predict <- lstm2
I0924 03:13:08.123855 18702 net.cpp:399] lstm2_W_xc_x_slice -> W_xc_x_1
I0924 03:13:08.123855 18668 net.cpp:399] predict -> predict
I0924 03:13:08.224299 18702 net.cpp:141] Setting up lstm2_W_xc_x_slice
I0924 03:13:08.224365 18702 net.cpp:148] Top shape: 1 1 4000 (4000)
I0924 03:13:08.224377 18702 net.cpp:156] Memory required for data: 46020
I0924 03:13:08.224390 18702 layer_factory.hpp:77] Creating layer lstm2_h_conted_0
I0924 03:13:08.224418 18702 net.cpp:91] Creating Layer lstm2_h_conted_0
I0924 03:13:08.224431 18702 net.cpp:425] lstm2_h_conted_0 <- h_0
I0924 03:13:08.224447 18702 net.cpp:425] lstm2_h_conted_0 <- cont_1_lstm2_cont_slice_0_split_0
I0924 03:13:08.224462 18702 net.cpp:399] lstm2_h_conted_0 -> h_conted_0
I0924 03:13:08.224802 18672 net.cpp:141] Setting up predict
I0924 03:13:08.224848 18670 net.cpp:141] Setting up lstm2_x_transform
I0924 03:13:08.224853 18672 net.cpp:148] Top shape: 1 1 46168 (46168)
I0924 03:13:08.224876 18670 net.cpp:148] Top shape: 1 1 4000 (4000)
I0924 03:13:08.224879 18672 net.cpp:156] Memory required for data: 221084
I0924 03:13:08.224896 18670 net.cpp:156] Memory required for data: 30020
I0924 03:13:08.224922 18672 layer_factory.hpp:77] Creating layer probs
I0924 03:13:08.224928 18670 layer_factory.hpp:77] Creating layer lstm2_W_xc_x_slice
I0924 03:13:08.224956 18672 net.cpp:91] Creating Layer probs
I0924 03:13:08.224956 18670 net.cpp:91] Creating Layer lstm2_W_xc_x_slice
I0924 03:13:08.224974 18672 net.cpp:425] probs <- predict
I0924 03:13:08.224974 18670 net.cpp:425] lstm2_W_xc_x_slice <- W_xc_x
I0924 03:13:08.226653 18672 net.cpp:399] probs -> probs
I0924 03:13:08.226653 18670 net.cpp:399] lstm2_W_xc_x_slice -> W_xc_x_1
I0924 03:13:08.239068 18670 net.cpp:141] Setting up lstm2_W_xc_x_slice
I0924 03:13:08.239171 18670 net.cpp:148] Top shape: 1 1 4000 (4000)
I0924 03:13:08.239182 18670 net.cpp:156] Memory required for data: 46020
I0924 03:13:08.239195 18670 layer_factory.hpp:77] Creating layer lstm2_h_conted_0
I0924 03:13:08.239224 18670 net.cpp:91] Creating Layer lstm2_h_conted_0
I0924 03:13:08.239235 18670 net.cpp:425] lstm2_h_conted_0 <- h_0
I0924 03:13:08.239250 18670 net.cpp:425] lstm2_h_conted_0 <- cont_1_lstm2_cont_slice_0_split_0
I0924 03:13:08.239265 18670 net.cpp:399] lstm2_h_conted_0 -> h_conted_0
I0924 03:13:08.239289 18702 net.cpp:141] Setting up lstm2_h_conted_0
I0924 03:13:08.239332 18702 net.cpp:148] Top shape: 1 1 1000 (1000)
I0924 03:13:08.239341 18702 net.cpp:156] Memory required for data: 50020
I0924 03:13:08.239352 18702 layer_factory.hpp:77] Creating layer lstm2_transform_1
I0924 03:13:08.239378 18702 net.cpp:91] Creating Layer lstm2_transform_1
I0924 03:13:08.239392 18702 net.cpp:425] lstm2_transform_1 <- h_conted_0
I0924 03:13:08.239410 18702 net.cpp:399] lstm2_transform_1 -> W_hc_h_0
I0924 03:13:08.239488 18670 net.cpp:141] Setting up lstm2_h_conted_0
I0924 03:13:08.239506 18670 net.cpp:148] Top shape: 1 1 1000 (1000)
I0924 03:13:08.239514 18670 net.cpp:156] Memory required for data: 50020
I0924 03:13:08.239522 18670 layer_factory.hpp:77] Creating layer lstm2_transform_1
I0924 03:13:08.239542 18670 net.cpp:91] Creating Layer lstm2_transform_1
I0924 03:13:08.239550 18670 net.cpp:425] lstm2_transform_1 <- h_conted_0
I0924 03:13:08.239567 18670 net.cpp:399] lstm2_transform_1 -> W_hc_h_0
I0924 03:13:08.290184 18670 net.cpp:141] Setting up lstm2_transform_1
I0924 03:13:08.290794 18670 net.cpp:148] Top shape: 1 1 4000 (4000)
I0924 03:13:08.290948 18670 net.cpp:156] Memory required for data: 66020
I0924 03:13:08.291185 18670 layer_factory.hpp:77] Creating layer lstm2_gate_input_1
I0924 03:13:08.291352 18670 net.cpp:91] Creating Layer lstm2_gate_input_1
I0924 03:13:08.291497 18670 net.cpp:425] lstm2_gate_input_1 <- W_hc_h_0
I0924 03:13:08.291641 18670 net.cpp:425] lstm2_gate_input_1 <- W_xc_x_1
I0924 03:13:08.291784 18670 net.cpp:399] lstm2_gate_input_1 -> gate_input_1
I0924 03:13:08.291843 18702 net.cpp:141] Setting up lstm2_transform_1
I0924 03:13:08.292083 18670 net.cpp:141] Setting up lstm2_gate_input_1
I0924 03:13:08.292090 18702 net.cpp:148] Top shape: 1 1 4000 (4000)
I0924 03:13:08.292285 18670 net.cpp:148] Top shape: 1 1 4000 (4000)
I0924 03:13:08.292410 18702 net.cpp:156] Memory required for data: 66020
I0924 03:13:08.292578 18670 net.cpp:156] Memory required for data: 82020
I0924 03:13:08.292721 18702 layer_factory.hpp:77] Creating layer lstm2_gate_input_1
I0924 03:13:08.292850 18670 layer_factory.hpp:77] Creating layer lstm2_unit_1
I0924 03:13:08.292994 18702 net.cpp:91] Creating Layer lstm2_gate_input_1
I0924 03:13:08.293169 18670 net.cpp:91] Creating Layer lstm2_unit_1
I0924 03:13:08.293341 18702 net.cpp:425] lstm2_gate_input_1 <- W_hc_h_0
I0924 03:13:08.293469 18670 net.cpp:425] lstm2_unit_1 <- c_0
I0924 03:13:08.293594 18702 net.cpp:425] lstm2_gate_input_1 <- W_xc_x_1
I0924 03:13:08.293728 18670 net.cpp:425] lstm2_unit_1 <- gate_input_1
I0924 03:13:08.293856 18702 net.cpp:399] lstm2_gate_input_1 -> gate_input_1
I0924 03:13:08.293992 18670 net.cpp:425] lstm2_unit_1 <- cont_1_lstm2_cont_slice_0_split_1
I0924 03:13:08.294308 18670 net.cpp:399] lstm2_unit_1 -> c_1
I0924 03:13:08.294466 18670 net.cpp:399] lstm2_unit_1 -> h_1
I0924 03:13:08.297641 18702 net.cpp:141] Setting up lstm2_gate_input_1
I0924 03:13:08.297757 18670 net.cpp:141] Setting up lstm2_unit_1
I0924 03:13:08.297950 18702 net.cpp:148] Top shape: 1 1 4000 (4000)
I0924 03:13:08.298096 18670 net.cpp:148] Top shape: 1 1 1000 (1000)
I0924 03:13:08.298300 18702 net.cpp:156] Memory required for data: 82020
I0924 03:13:08.298446 18670 net.cpp:148] Top shape: 1 1 1000 (1000)
I0924 03:13:08.298579 18702 layer_factory.hpp:77] Creating layer lstm2_unit_1
I0924 03:13:08.298717 18670 net.cpp:156] Memory required for data: 90020
I0924 03:13:08.298861 18702 net.cpp:91] Creating Layer lstm2_unit_1
I0924 03:13:08.298976 18670 layer_factory.hpp:77] Creating layer lstm2_
I0924 03:13:08.299100 18702 net.cpp:425] lstm2_unit_1 <- c_0
I0924 03:13:08.299296 18670 net.cpp:91] Creating Layer lstm2_
I0924 03:13:08.299413 18702 net.cpp:425] lstm2_unit_1 <- gate_input_1
I0924 03:13:08.299536 18670 net.cpp:425] lstm2_ <- c_1
I0924 03:13:08.299666 18702 net.cpp:425] lstm2_unit_1 <- cont_1_lstm2_cont_slice_0_split_1
I0924 03:13:08.299800 18670 net.cpp:399] lstm2_ -> c_T
I0924 03:13:08.299923 18702 net.cpp:399] lstm2_unit_1 -> c_1
I0924 03:13:08.300252 18702 net.cpp:399] lstm2_unit_1 -> h_1
I0924 03:13:08.304208 18670 net.cpp:141] Setting up lstm2_
I0924 03:13:08.304395 18702 net.cpp:141] Setting up lstm2_unit_1
I0924 03:13:08.304518 18670 net.cpp:148] Top shape: 1 1 1000 (1000)
I0924 03:13:08.304644 18702 net.cpp:148] Top shape: 1 1 1000 (1000)
I0924 03:13:08.304780 18670 net.cpp:156] Memory required for data: 94020
I0924 03:13:08.304963 18702 net.cpp:148] Top shape: 1 1 1000 (1000)
I0924 03:13:08.305094 18670 layer_factory.hpp:77] Creating layer lstm2_h_concat
I0924 03:13:08.305258 18702 net.cpp:156] Memory required for data: 90020
I0924 03:13:08.305405 18670 net.cpp:91] Creating Layer lstm2_h_concat
I0924 03:13:08.305513 18702 layer_factory.hpp:77] Creating layer lstm2_
I0924 03:13:08.305639 18670 net.cpp:425] lstm2_h_concat <- h_1
I0924 03:13:08.305773 18702 net.cpp:91] Creating Layer lstm2_
I0924 03:13:08.305909 18670 net.cpp:399] lstm2_h_concat -> h
I0924 03:13:08.306133 18702 net.cpp:425] lstm2_ <- c_1
I0924 03:13:08.306443 18702 net.cpp:399] lstm2_ -> c_T
I0924 03:13:08.307294 18670 net.cpp:141] Setting up lstm2_h_concat
I0924 03:13:08.307337 18702 net.cpp:141] Setting up lstm2_
I0924 03:13:08.307492 18670 net.cpp:148] Top shape: 1 1 1000 (1000)
I0924 03:13:08.307620 18702 net.cpp:148] Top shape: 1 1 1000 (1000)
I0924 03:13:08.307760 18670 net.cpp:156] Memory required for data: 98020
I0924 03:13:08.307878 18702 net.cpp:156] Memory required for data: 94020
I0924 03:13:08.308169 18670 layer_factory.hpp:77] Creating layer h_pseudoloss
I0924 03:13:08.308336 18702 layer_factory.hpp:77] Creating layer lstm2_h_concat
I0924 03:13:08.308589 18670 net.cpp:91] Creating Layer h_pseudoloss
I0924 03:13:08.308706 18702 net.cpp:91] Creating Layer lstm2_h_concat
I0924 03:13:08.308831 18670 net.cpp:425] h_pseudoloss <- h
I0924 03:13:08.308949 18702 net.cpp:425] lstm2_h_concat <- h_1
I0924 03:13:08.308967 18702 net.cpp:399] lstm2_h_concat -> h
I0924 03:13:08.308967 18670 net.cpp:399] h_pseudoloss -> h_pseudoloss
I0924 03:13:08.309301 18702 net.cpp:141] Setting up lstm2_h_concat
I0924 03:13:08.309319 18702 net.cpp:148] Top shape: 1 1 1000 (1000)
I0924 03:13:08.309325 18702 net.cpp:156] Memory required for data: 98020
I0924 03:13:08.309334 18702 layer_factory.hpp:77] Creating layer h_pseudoloss
I0924 03:13:08.309346 18702 net.cpp:91] Creating Layer h_pseudoloss
I0924 03:13:08.309355 18702 net.cpp:425] h_pseudoloss <- h
I0924 03:13:08.309372 18702 net.cpp:399] h_pseudoloss -> h_pseudoloss
I0924 03:13:08.309521 18702 net.cpp:141] Setting up h_pseudoloss
…
I0924 03:13:08.396087 18670 net.cpp:261] This network produces output c_T
I0924 03:13:08.396096 18670 net.cpp:261] This network produces output h_pseudoloss
I0924 03:13:08.396155 18696 net.cpp:425] probs <- predict
I0924 03:13:08.396163 18670 net.cpp:274] Network initialization done.
I0924 03:13:08.396178 18696 net.cpp:399] probs -> probs
I0924 03:13:08.396265 18670 recurrent_layer.cpp:150] Adding parameter 0: W_xc
I0924 03:13:08.396281 18670 recurrent_layer.cpp:150] Adding parameter 1: b_c
I0924 03:13:08.396289 18670 recurrent_layer.cpp:150] Adding parameter 2: W_hc
I0924 03:13:08.405938 18670 net.cpp:141] Setting up lstm2
I0924 03:13:08.405993 18670 net.cpp:148] Top shape: 1 1 1000 (1000)
I0924 03:13:08.406003 18670 net.cpp:156] Memory required for data: 36412
I0924 03:13:08.406038 18670 layer_factory.hpp:77] Creating layer predict
I0924 03:13:08.406035 18678 net.cpp:141] Setting up predict
I0924 03:13:08.406057 18678 net.cpp:148] Top shape: 1 1 46168 (46168)
I0924 03:13:08.406064 18678 net.cpp:156] Memory required for data: 221084
I0924 03:13:08.406064 18670 net.cpp:91] Creating Layer predict
I0924 03:13:08.406075 18670 net.cpp:425] predict <- lstm2
I0924 03:13:08.406076 18678 layer_factory.hpp:77] Creating layer probs
I0924 03:13:08.406090 18678 net.cpp:91] Creating Layer probs
I0924 03:13:08.406090 18670 net.cpp:399] predict -> predict
I0924 03:13:08.406111 18678 net.cpp:425] probs <- predict
I0924 03:13:08.406122 18678 net.cpp:399] probs -> probs
I0924 03:13:08.577332 18678 net.cpp:141] Setting up probs
I0924 03:13:08.577383 18678 net.cpp:148] Top shape: 1 1 46168 (46168)
I0924 03:13:08.577389 18678 net.cpp:156] Memory required for data: 405756
I0924 03:13:08.577399 18678 net.cpp:219] probs does not need backward computation.
I0924 03:13:08.577407 18678 net.cpp:219] predict does not need backward computation.
I0924 03:13:08.577415 18678 net.cpp:219] lstm2 does not need backward computation.
I0924 03:13:08.577421 18678 net.cpp:219] concat does not need backward computation.
I0924 03:13:08.577428 18678 net.cpp:219] lstm1 does not need backward computation.
I0924 03:13:08.577435 18678 net.cpp:219] embedding does not need backward computation.
I0924 03:13:08.577440 18678 net.cpp:219] reshape_stage_indicator does not need backward computation.
I0924 03:13:08.577447 18678 net.cpp:219] reshape_frames does not need backward computation.
I0924 03:13:08.577452 18678 net.cpp:219] embed_encoder does not need backward computation.
I0924 03:13:08.577457 18678 net.cpp:219] cont_sentence_input_1_split does not need backward computation.
I0924 03:13:08.577464 18678 net.cpp:219] input does not need backward computation.
I0924 03:13:08.577468 18678 net.cpp:261] This network produces output probs
I0924 03:13:08.577488 18678 net.cpp:274] Network initialization done.
I0924 03:13:08.584179 18672 net.cpp:141] Setting up probs
I0924 03:13:08.584240 18672 net.cpp:148] Top shape: 1 1 46168 (46168)
I0924 03:13:08.584249 18672 net.cpp:156] Memory required for data: 405756
I0924 03:13:08.584264 18672 net.cpp:219] probs does not need backward computation.
I0924 03:13:08.584273 18672 net.cpp:219] predict does not need backward computation.
I0924 03:13:08.584286 18672 net.cpp:219] lstm2 does not need backward computation.
I0924 03:13:08.584296 18672 net.cpp:219] concat does not need backward computation.
I0924 03:13:08.584306 18672 net.cpp:219] lstm1 does not need backward computation.
I0924 03:13:08.584316 18672 net.cpp:219] embedding does not need backward computation.
I0924 03:13:08.584323 18672 net.cpp:219] reshape_stage_indicator does not need backward computation.
I0924 03:13:08.584332 18672 net.cpp:219] reshape_frames does not need backward computation.
I0924 03:13:08.584341 18672 net.cpp:219] embed_encoder does not need backward computation.
I0924 03:13:08.584348 18672 net.cpp:219] cont_sentence_input_1_split does not need backward computation.
I0924 03:13:08.584357 18672 net.cpp:219] input does not need backward computation.
I0924 03:13:08.584364 18672 net.cpp:261] This network produces output probs
I0924 03:13:08.584391 18672 net.cpp:274] Network initialization done.
I0924 03:13:08.591658 18696 net.cpp:141] Setting up probs
I0924 03:13:08.591717 18696 net.cpp:148] Top shape: 1 1 46168 (46168)
I0924 03:13:08.591725 18696 net.cpp:156] Memory required for data: 405756
I0924 03:13:08.591737 18696 net.cpp:219] probs does not need backward computation.
I0924 03:13:08.591747 18696 net.cpp:219] predict does not need backward computation.
I0924 03:13:08.591773 18696 net.cpp:219] lstm2 does not need backward computation.
I0924 03:13:08.591784 18696 net.cpp:219] concat does not need backward computation.
I0924 03:13:08.591792 18696 net.cpp:219] lstm1 does not need backward computation.
I0924 03:13:08.591801 18696 net.cpp:219] embedding does not need backward computation.
I0924 03:13:08.591809 18696 net.cpp:219] reshape_stage_indicator does not need backward computation.
I0924 03:13:08.591816 18696 net.cpp:219] reshape_frames does not need backward computation.
I0924 03:13:08.591825 18696 net.cpp:219] embed_encoder does not need backward computation.
I0924 03:13:08.591832 18696 net.cpp:219] cont_sentence_input_1_split does not need backward computation.
I0924 03:13:08.591840 18696 net.cpp:219] input does not need backward computation.
I0924 03:13:08.591846 18696 net.cpp:261] This network produces output probs
I0924 03:13:08.591871 18696 net.cpp:274] Network initialization done.
I0924 03:13:08.595974 18694 net.cpp:141] Setting up conv1
I0924 03:13:08.596002 18694 net.cpp:148] Top shape: 10 96 55 55 (2904000)
I0924 03:13:08.596012 18694 net.cpp:156] Memory required for data: 17799480
I0924 03:13:08.596040 18694 layer_factory.hpp:77] Creating layer relu1
I0924 03:13:08.596061 18694 net.cpp:91] Creating Layer relu1
I0924 03:13:08.596073 18694 net.cpp:425] relu1 <- conv1
I0924 03:13:08.596086 18694 net.cpp:386] relu1 -> conv1 (in-place)
I0924 03:13:08.596691 18694 net.cpp:141] Setting up relu1
I0924 03:13:08.596712 18694 net.cpp:148] Top shape: 10 96 55 55 (2904000)
I0924 03:13:08.596721 18694 net.cpp:156] Memory required for data: 29415480
I0924 03:13:08.596732 18694 layer_factory.hpp:77] Creating layer pool1
I0924 03:13:08.596753 18694 net.cpp:91] Creating Layer pool1
I0924 03:13:08.596762 18694 net.cpp:425] pool1 <- conv1
I0924 03:13:08.596777 18694 net.cpp:399] pool1 -> pool1
I0924 03:13:08.596921 18694 net.cpp:141] Setting up pool1
I0924 03:13:08.596942 18694 net.cpp:148] Top shape: 10 96 27 27 (699840)
I0924 03:13:08.596953 18694 net.cpp:156] Memory required for data: 32214840
I0924 03:13:08.596968 18694 layer_factory.hpp:77] Creating layer norm1
I0924 03:13:08.596998 18694 net.cpp:91] Creating Layer norm1
I0924 03:13:08.597008 18694 net.cpp:425] norm1 <- pool1
I0924 03:13:08.597024 18694 net.cpp:399] norm1 -> norm1
I0924 03:13:08.597517 18694 net.cpp:141] Setting up norm1
I0924 03:13:08.597533 18694 net.cpp:148] Top shape: 10 96 27 27 (699840)
I0924 03:13:08.597542 18694 net.cpp:156] Memory required for data: 35014200
I0924 03:13:08.597549 18694 layer_factory.hpp:77] Creating layer conv2
I0924 03:13:08.597570 18694 net.cpp:91] Creating Layer conv2
I0924 03:13:08.597579 18694 net.cpp:425] conv2 <- norm1
I0924 03:13:08.597591 18694 net.cpp:399] conv2 -> conv2
I0924 03:13:08.602818 18694 net.cpp:141] Setting up conv2
I0924 03:13:08.602864 18694 net.cpp:148] Top shape: 10 256 27 27 (1866240)
I0924 03:13:08.602876 18694 net.cpp:156] Memory required for data: 42479160
I0924 03:13:08.602905 18694 layer_factory.hpp:77] Creating layer relu2
I0924 03:13:08.602928 18694 net.cpp:91] Creating Layer relu2
I0924 03:13:08.602941 18694 net.cpp:425] relu2 <- conv2
I0924 03:13:08.602957 18694 net.cpp:386] relu2 -> conv2 (in-place)
I0924 03:13:08.603404 18694 net.cpp:141] Setting up relu2
I0924 03:13:08.603421 18694 net.cpp:148] Top shape: 10 256 27 27 (1866240)
I0924 03:13:08.603430 18694 net.cpp:156] Memory required for data: 49944120
I0924 03:13:08.603437 18694 layer_factory.hpp:77] Creating layer pool2
I0924 03:13:08.603454 18694 net.cpp:91] Creating Layer pool2
I0924 03:13:08.603462 18694 net.cpp:425] pool2 <- conv2
I0924 03:13:08.603476 18694 net.cpp:399] pool2 -> pool2
I0924 03:13:08.603566 18694 net.cpp:141] Setting up pool2
I0924 03:13:08.603582 18694 net.cpp:148] Top shape: 10 256 13 13 (432640)
I0924 03:13:08.603590 18694 net.cpp:156] Memory required for data: 51674680
I0924 03:13:08.603598 18694 layer_factory.hpp:77] Creating layer norm2
I0924 03:13:08.603618 18694 net.cpp:91] Creating Layer norm2
I0924 03:13:08.603626 18694 net.cpp:425] norm2 <- pool2
I0924 03:13:08.603638 18694 net.cpp:399] norm2 -> norm2
I0924 03:13:08.604372 18694 net.cpp:141] Setting up norm2
I0924 03:13:08.604392 18694 net.cpp:148] Top shape: 10 256 13 13 (432640)
I0924 03:13:08.604399 18694 net.cpp:156] Memory required for data: 53405240
I0924 03:13:08.604413 18694 layer_factory.hpp:77] Creating layer conv3
I0924 03:13:08.604434 18694 net.cpp:91] Creating Layer conv3
I0924 03:13:08.604444 18694 net.cpp:425] conv3 <- norm2
I0924 03:13:08.604456 18694 net.cpp:399] conv3 -> conv3
I0924 03:13:08.608494 18668 net.cpp:141] Setting up predict
I0924 03:13:08.608551 18668 net.cpp:148] Top shape: 1 1 46168 (46168)
I0924 03:13:08.608557 18668 net.cpp:156] Memory required for data: 221084
I0924 03:13:08.608575 18668 layer_factory.hpp:77] Creating layer probs
I0924 03:13:08.608597 18668 net.cpp:91] Creating Layer probs
I0924 03:13:08.608615 18668 net.cpp:425] probs <- predict
I0924 03:13:08.608628 18668 net.cpp:399] probs -> probs
I0924 03:13:08.610281 18668 net.cpp:141] Setting up probs
I0924 03:13:08.610327 18668 net.cpp:148] Top shape: 1 1 46168 (46168)
I0924 03:13:08.610334 18668 net.cpp:156] Memory required for data: 405756
I0924 03:13:08.610344 18668 net.cpp:219] probs does not need backward computation.
I0924 03:13:08.610352 18668 net.cpp:219] predict does not need backward computation.
I0924 03:13:08.610378 18668 net.cpp:219] lstm2 does not need backward computation.
I0924 03:13:08.610384 18668 net.cpp:219] concat does not need backward computation.
I0924 03:13:08.610391 18668 net.cpp:219] lstm1 does not need backward computation.
I0924 03:13:08.610399 18668 net.cpp:219] embedding does not need backward computation.
I0924 03:13:08.610404 18668 net.cpp:219] reshape_stage_indicator does not need backward computation.
I0924 03:13:08.610410 18668 net.cpp:219] reshape_frames does not need backward computation.
I0924 03:13:08.610419 18668 net.cpp:219] embed_encoder does not need backward computation.
I0924 03:13:08.610425 18668 net.cpp:219] cont_sentence_input_1_split does not need backward computation.
I0924 03:13:08.610431 18668 net.cpp:219] input does not need backward computation.
I0924 03:13:08.610436 18668 net.cpp:261] This network produces output probs
I0924 03:13:08.610466 18668 net.cpp:274] Network initialization done.
I0924 03:13:08.611843 18694 net.cpp:141] Setting up conv3
I0924 03:13:08.611894 18694 net.cpp:148] Top shape: 10 384 13 13 (648960)
I0924 03:13:08.611907 18694 net.cpp:156] Memory required for data: 56001080
I0924 03:13:08.611937 18694 layer_factory.hpp:77] Creating layer relu3
I0924 03:13:08.611968 18694 net.cpp:91] Creating Layer relu3
I0924 03:13:08.611979 18694 net.cpp:425] relu3 <- conv3
I0924 03:13:08.611994 18694 net.cpp:386] relu3 -> conv3 (in-place)
I0924 03:13:08.612697 18694 net.cpp:141] Setting up relu3
I0924 03:13:08.612722 18694 net.cpp:148] Top shape: 10 384 13 13 (648960)
I0924 03:13:08.612730 18694 net.cpp:156] Memory required for data: 58596920
I0924 03:13:08.612740 18694 layer_factory.hpp:77] Creating layer conv4
I0924 03:13:08.612761 18694 net.cpp:91] Creating Layer conv4
I0924 03:13:08.612772 18694 net.cpp:425] conv4 <- conv3
I0924 03:13:08.612787 18694 net.cpp:399] conv4 -> conv4
I0924 03:13:08.642387 18694 net.cpp:141] Setting up conv4
I0924 03:13:08.642453 18694 net.cpp:148] Top shape: 10 384 13 13 (648960)
I0924 03:13:08.642465 18694 net.cpp:156] Memory required for data: 61192760
I0924 03:13:08.642485 18694 layer_factory.hpp:77] Creating layer relu4
I0924 03:13:08.642511 18694 net.cpp:91] Creating Layer relu4
I0924 03:13:08.642524 18694 net.cpp:425] relu4 <- conv4
I0924 03:13:08.642536 18694 net.cpp:386] relu4 -> conv4 (in-place)
I0924 03:13:08.643440 18694 net.cpp:141] Setting up relu4
I0924 03:13:08.643461 18694 net.cpp:148] Top shape: 10 384 13 13 (648960)
I0924 03:13:08.643471 18694 net.cpp:156] Memory required for data: 63788600
I0924 03:13:08.643482 18694 layer_factory.hpp:77] Creating layer conv5
I0924 03:13:08.643508 18694 net.cpp:91] Creating Layer conv5
I0924 03:13:08.643518 18694 net.cpp:425] conv5 <- conv4
I0924 03:13:08.643530 18694 net.cpp:399] conv5 -> conv5
I0924 03:13:08.652945 18694 net.cpp:141] Setting up conv5
I0924 03:13:08.653017 18694 net.cpp:148] Top shape: 10 256 13 13 (432640)
I0924 03:13:08.653026 18694 net.cpp:156] Memory required for data: 65519160
I0924 03:13:08.653058 18694 layer_factory.hpp:77] Creating layer relu5
I0924 03:13:08.653082 18694 net.cpp:91] Creating Layer relu5
I0924 03:13:08.653093 18694 net.cpp:425] relu5 <- conv5
I0924 03:13:08.653115 18694 net.cpp:386] relu5 -> conv5 (in-place)
I0924 03:13:08.654002 18694 net.cpp:141] Setting up relu5
I0924 03:13:08.654024 18694 net.cpp:148] Top shape: 10 256 13 13 (432640)
I0924 03:13:08.654036 18694 net.cpp:156] Memory required for data: 67249720
I0924 03:13:08.654048 18694 layer_factory.hpp:77] Creating layer pool5
I0924 03:13:08.654070 18694 net.cpp:91] Creating Layer pool5
I0924 03:13:08.654079 18694 net.cpp:425] pool5 <- conv5
I0924 03:13:08.654093 18694 net.cpp:399] pool5 -> pool5
I0924 03:13:08.654618 18694 net.cpp:141] Setting up pool5
I0924 03:13:08.654642 18694 net.cpp:148] Top shape: 10 256 6 6 (92160)
I0924 03:13:08.654652 18694 net.cpp:156] Memory required for data: 67618360
I0924 03:13:08.654664 18694 layer_factory.hpp:77] Creating layer fc6
I0924 03:13:08.654687 18694 net.cpp:91] Creating Layer fc6
I0924 03:13:08.654698 18694 net.cpp:425] fc6 <- pool5
I0924 03:13:08.654726 18694 net.cpp:399] fc6 -> fc6
I0924 03:13:08.768769 18694 net.cpp:141] Setting up fc6
I0924 03:13:08.768826 18694 net.cpp:148] Top shape: 10 4096 (40960)
I0924 03:13:08.768838 18694 net.cpp:156] Memory required for data: 67782200
I0924 03:13:08.768859 18694 layer_factory.hpp:77] Creating layer relu6
I0924 03:13:08.768892 18694 net.cpp:91] Creating Layer relu6
I0924 03:13:08.768903 18694 net.cpp:425] relu6 <- fc6
I0924 03:13:08.768918 18694 net.cpp:386] relu6 -> fc6 (in-place)
I0924 03:13:08.771709 18694 net.cpp:141] Setting up relu6
I0924 03:13:08.771745 18694 net.cpp:148] Top shape: 10 4096 (40960)
I0924 03:13:08.771756 18694 net.cpp:156] Memory required for data: 67946040
I0924 03:13:08.771767 18694 layer_factory.hpp:77] Creating layer drop6
I0924 03:13:08.772325 18694 net.cpp:91] Creating Layer drop6
I0924 03:13:08.772346 18694 net.cpp:425] drop6 <- fc6
I0924 03:13:08.772364 18694 net.cpp:386] drop6 -> fc6 (in-place)
I0924 03:13:08.772485 18694 net.cpp:141] Setting up drop6
I0924 03:13:08.772503 18694 net.cpp:148] Top shape: 10 4096 (40960)
I0924 03:13:08.772512 18694 net.cpp:156] Memory required for data: 68109880
I0924 03:13:08.772521 18694 layer_factory.hpp:77] Creating layer fc7
I0924 03:13:08.773074 18694 net.cpp:91] Creating Layer fc7
I0924 03:13:08.773094 18694 net.cpp:425] fc7 <- fc6
I0924 03:13:08.773110 18694 net.cpp:399] fc7 -> fc7
I0924 03:13:08.811108 18702 net.cpp:141] Setting up predict
I0924 03:13:08.811194 18702 net.cpp:148] Top shape: 1 1 46168 (46168)
I0924 03:13:08.811214 18702 net.cpp:156] Memory required for data: 221084
I0924 03:13:08.811250 18702 layer_factory.hpp:77] Creating layer probs
I0924 03:13:08.811286 18702 net.cpp:91] Creating Layer probs
I0924 03:13:08.811307 18702 net.cpp:425] probs <- predict
I0924 03:13:08.811334 18702 net.cpp:399] probs -> probs
I0924 03:13:08.816025 18702 net.cpp:141] Setting up probs
I0924 03:13:08.816126 18702 net.cpp:148] Top shape: 1 1 46168 (46168)
I0924 03:13:08.816138 18702 net.cpp:156] Memory required for data: 405756
I0924 03:13:08.816157 18702 net.cpp:219] probs does not need backward computation.
I0924 03:13:08.816174 18702 net.cpp:219] predict does not need backward computation.
I0924 03:13:08.816184 18702 net.cpp:219] lstm2 does not need backward computation.
I0924 03:13:08.816200 18702 net.cpp:219] concat does not need backward computation.
I0924 03:13:08.816211 18702 net.cpp:219] lstm1 does not need backward computation.
I0924 03:13:08.816222 18702 net.cpp:219] embedding does not need backward computation.
I0924 03:13:08.816231 18702 net.cpp:219] reshape_stage_indicator does not need backward computation.
I0924 03:13:08.816241 18702 net.cpp:219] reshape_frames does not need backward computation.
I0924 03:13:08.816412 18702 net.cpp:219] embed_encoder does not need backward computation.
I0924 03:13:08.816457 18702 net.cpp:219] cont_sentence_input_1_split does not need backward computation.
I0924 03:13:08.816483 18702 net.cpp:219] input does not need backward computation.
I0924 03:13:08.816495 18702 net.cpp:261] This network produces output probs
I0924 03:13:08.816541 18702 net.cpp:274] Network initialization done.
I0924 03:13:08.832021 18694 net.cpp:141] Setting up fc7
I0924 03:13:08.832089 18694 net.cpp:148] Top shape: 10 4096 (40960)
I0924 03:13:08.832100 18694 net.cpp:156] Memory required for data: 68273720
I0924 03:13:08.832126 18694 layer_factory.hpp:77] Creating layer relu7
I0924 03:13:08.832154 18694 net.cpp:91] Creating Layer relu7
I0924 03:13:08.832167 18694 net.cpp:425] relu7 <- fc7
I0924 03:13:08.832180 18694 net.cpp:386] relu7 -> fc7 (in-place)
I0924 03:13:08.833672 18694 net.cpp:141] Setting up relu7
I0924 03:13:08.833719 18694 net.cpp:148] Top shape: 10 4096 (40960)
I0924 03:13:08.833729 18694 net.cpp:156] Memory required for data: 68437560
I0924 03:13:08.833746 18694 layer_factory.hpp:77] Creating layer drop7
I0924 03:13:08.838739 18694 net.cpp:91] Creating Layer drop7
I0924 03:13:08.838785 18694 net.cpp:425] drop7 <- fc7
I0924 03:13:08.838806 18694 net.cpp:386] drop7 -> fc7 (in-place)
I0924 03:13:08.839285 18694 net.cpp:141] Setting up drop7
I0924 03:13:08.839309 18694 net.cpp:148] Top shape: 10 4096 (40960)
I0924 03:13:08.839319 18694 net.cpp:156] Memory required for data: 68601400
I0924 03:13:08.839329 18694 layer_factory.hpp:77] Creating layer fc8
I0924 03:13:08.839347 18694 net.cpp:91] Creating Layer fc8
I0924 03:13:08.839357 18694 net.cpp:425] fc8 <- fc7
I0924 03:13:08.839406 18694 net.cpp:399] fc8 -> fc8
I0924 03:13:08.853785 18670 net.cpp:141] Setting up predict
I0924 03:13:08.853847 18670 net.cpp:148] Top shape: 1 1 46168 (46168)
I0924 03:13:08.853853 18670 net.cpp:156] Memory required for data: 221084
I0924 03:13:08.853870 18670 layer_factory.hpp:77] Creating layer probs
I0924 03:13:08.853899 18670 net.cpp:91] Creating Layer probs
I0924 03:13:08.853906 18670 net.cpp:425] probs <- predict
I0924 03:13:08.853916 18670 net.cpp:399] probs -> probs
I0924 03:13:08.854818 18670 net.cpp:141] Setting up probs
I0924 03:13:08.854848 18670 net.cpp:148] Top shape: 1 1 46168 (46168)
I0924 03:13:08.854854 18670 net.cpp:156] Memory required for data: 405756
I0924 03:13:08.854863 18670 net.cpp:219] probs does not need backward computation.
I0924 03:13:08.854869 18670 net.cpp:219] predict does not need backward computation.
I0924 03:13:08.854874 18670 net.cpp:219] lstm2 does not need backward computation.
I0924 03:13:08.854881 18670 net.cpp:219] concat does not need backward computation.
I0924 03:13:08.854887 18670 net.cpp:219] lstm1 does not need backward computation.
I0924 03:13:08.854895 18670 net.cpp:219] embedding does not need backward computation.
I0924 03:13:08.854900 18670 net.cpp:219] reshape_stage_indicator does not need backward computation.
I0924 03:13:08.854907 18670 net.cpp:219] reshape_frames does not need backward computation.
I0924 03:13:08.854912 18670 net.cpp:219] embed_encoder does not need backward computation.
I0924 03:13:08.854918 18670 net.cpp:219] cont_sentence_input_1_split does not need backward computation.
I0924 03:13:08.854923 18670 net.cpp:219] input does not need backward computation.
I0924 03:13:08.854928 18670 net.cpp:261] This network produces output probs
I0924 03:13:08.854944 18670 net.cpp:274] Network initialization done.
I0924 03:13:08.855404 18694 net.cpp:141] Setting up fc8
I0924 03:13:08.855448 18694 net.cpp:148] Top shape: 10 1000 (10000)
I0924 03:13:08.855460 18694 net.cpp:156] Memory required for data: 68641400
I0924 03:13:08.855481 18694 layer_factory.hpp:77] Creating layer prob
I0924 03:13:08.855514 18694 net.cpp:91] Creating Layer prob
I0924 03:13:08.855528 18694 net.cpp:425] prob <- fc8
I0924 03:13:08.855548 18694 net.cpp:399] prob -> prob
I0924 03:13:08.857462 18694 net.cpp:141] Setting up prob
I0924 03:13:08.857506 18694 net.cpp:148] Top shape: 10 1000 (10000)
I0924 03:13:08.857518 18694 net.cpp:156] Memory required for data: 68681400
I0924 03:13:08.857533 18694 net.cpp:219] prob does not need backward computation.
I0924 03:13:08.857545 18694 net.cpp:219] fc8 does not need backward computation.
I0924 03:13:08.857556 18694 net.cpp:219] drop7 does not need backward computation.
I0924 03:13:08.857589 18694 net.cpp:219] relu7 does not need backward computation.
…
