…
W0925 21:34:37.910287 32426 upgrade_proto.cpp:71] Note that future Caffe releases will only support input layers and not input fields.
W0925 21:34:37.910295 32422 upgrade_proto.cpp:71] Note that future Caffe releases will only support input layers and not input fields.
W0925 21:34:37.910321 32440 upgrade_proto.cpp:71] Note that future Caffe releases will only support input layers and not input fields.
I0925 21:34:37.910809 32448 net.cpp:49] Initializing net from parameters: 
name: "CaffeNet"
state {
  phase: TEST
}
layer {
  name: "data"
  type: "Input"
  top: "data"
  input_param {
    shape {
      dim: 10
      dim: 3
      dim: 227
      dim: 227
    }
  }
}
layer {
  name: "conv1"
  type: "Convolution"
  bottom: "data"
  top: "conv1"
  convolution_param {
    num_output: 96
    kernel_size: 11
    stride: 4
  }
}
layer {
  name: "relu1"
  type: "ReLU"
  bottom: "conv1"
  top: "conv1"
}
layer {
  name: "pool1"
  type: "Pooling"
  bottom: "conv1"
  top: "pool1"
  pooling_param {
    pool: MAX
    kernel_size: 3
    stride: 2
  }
}
layer {
  name: "norm1"
  type: "LRN"
  bottom: "pool1"
  top: "norm1"
  lrn_param {
    local_size: 5
    alpha: 0.0001
    beta: 0.75
  }
}
layer {
  name: "conv2"
  type: "Convolution"
  bottom: "norm1"
  top: "conv2"
  convolution_param {
    num_output: 256
    pad: 2
    kernel_size: 5
    group: 2
  }
}
layer {
  name: "relu2"
  type: "ReLU"
  bottom: "conv2"
  top: "conv2"
}
layer {
  name: "pool2"
  type: "Pooling"
  bottom: "conv2"
  top: "pool2"
  pooling_param {
    pool: MAX
    kernel_size: 3
    stride: 2
  }
}
layer {
  name: "norm2"
  type: "LRN"
  bottom: "pool2"
  top: "norm2"
  lrn_param {
    local_size: 5
    alpha: 0.0001
    beta: 0.75
  }
}
layer {
  name: "conv3"
  type: "Convolution"
  bottom: "norm2"
  top: "conv3"
  convolution_param {
    num_output: 384
    pad: 1
    kernel_size: 3
  }
}
layer {
  name: "relu3"
  type: "ReLU"
  bottom: "conv3"
  top: "conv3"
}
layer {
  name: "conv4"
  type: "Convolution"
  bottom: "conv3"
  top: "conv4"
  convolution_param {
    num_output: 384
    pad: 1
    kernel_size: 3
    group: 2
  }
}
layer {
  name: "relu4"
  type: "ReLU"
  bottom: "conv4"
  top: "conv4"
}
layer {
  name: "conv5"
  type: "Convolution"
  bottom: "conv4"
  top: "conv5"
  convolution_param {
    num_output: 256
    pad: 1
    kernel_size: 3
    group: 2
  }
}
layer {
  name: "relu5"
  type: "ReLU"
  bottom: "conv5"
  top: "conv5"
}
layer {
  name: "pool5"
  type: "Pooling"
  bottom: "conv5"
  top: "pool5"
  pooling_param {
    pool: MAX
    kernel_size: 3
    stride: 2
  }
}
layer {
  name: "fc6"
  type: "InnerProduct"
  bottom: "pool5"
  top: "fc6"
  inner_product_param {
    num_output: 4096
  }
}
layer {
  name: "relu6"
  type: "ReLU"
  bottom: "fc6"
  top: "fc6"
}
layer {
  name: "drop6"
  type: "Dropout"
  bottom: "fc6"
  top: "fc6"
  dropout_param {
    dropout_ratio: 0.5
  }
}
layer {
  name: "fc7"
  type: "InnerProduct"
  bottom: "fc6"
  top: "fc7"
  inner_product_param {
    num_output: 4096
  }
}
layer {
  name: "relu7"
  type: "ReLU"
  bottom: "fc7"
  top: "fc7"
}
layer {
  name: "drop7"
  type: "Dropout"
  bottom: "fc7"
  top: "fc7"
  dropout_param {
    dropout_ratio: 0.5
  }
}
layer {
  name: "fc8"
  type: "InnerProduct"
  bottom: "fc7"
  top: "fc8"
  inner_product_param {
    num_output: 1000
  }
}
layer {
  name: "prob"
  type: "Softmax"
  bottom: "fc8"
  top: "prob"
}
I0925 21:34:37.910825 32422 net.cpp:49] Initializing net from parameters: 
name: "s2vt:features_to_lstm"
state {
  phase: TEST
}
layer {
  name: "input"
  type: "Input"
  top: "frames_fc7"
  top: "cont_sentence"
  top: "input_sentence"
  top: "stage_indicator"
  input_param {
    shape {
      dim: 1
      dim: 4096
    }
    shape {
      dim: 1
      dim: 1
    }
    shape {
      dim: 1
      dim: 1
    }
    shape {
      dim: 1
      dim: 1
    }
  }
}
layer {
  name: "embed_encoder"
  type: "InnerProduct"
  bottom: "frames_fc7"
  top: "embedded_in_frames"
  param {
    lr_mult: 1
    decay_mult: 1
  }
  param {
    lr_mult: 2
    decay_mult: 0
  }
  inner_product_param {
    num_output: 500
    weight_filler {
      type: "xavier"
    }
    bias_filler {
      type: "constant"
      value: 0.2
    }
  }
}
layer {
  name: "reshape_frames"
  type: "Reshape"
  bottom: "embedded_in_frames"
  top: "embedded_input_frames"
  reshape_param {
    shape {
      dim: 1
      dim: 1
      dim: 500
    }
  }
}
layer {
  name: "reshape_stage_indicator"
  type: "Reshape"
  bottom: "stage_indicator"
  top: "reshaped_stage_indicator"
  reshape_param {
    shape {
      dim: 1
      dim: 1
      dim: 1
    }
  }
}
layer {
  name: "embedding"
  type: "Embed"
  bottom: "input_sentence"
  top: "embedded_input_sentence"
  param {
    lr_mult: 1
  }
  embed_param {
    num_output: 500
    input_dim: 46168
    bias_term: false
    weight_filler {
      type: "uniform"
      min: -0.08
      max: 0.08
    }
  }
}
layer {
  name: "lstm1"
  type: "LSTM"
  bottom: "embedded_input_frames"
  bottom: "cont_sentence"
  top: "lstm1"
  recurrent_param {
    num_output: 1000
    weight_filler {
      type: "uniform"
      min: -0.08
      max: 0.08
    }
    bias_filler {
      type: "constant"
      value: 0
    }
  }
}
layer {
  name: "concat"
  type: "Concat"
  bottom: "lstm1"
  bottom: "embedded_input_sentence"
  bottom: "reshaped_stage_indicator"
  top: "lstm1_video_sequence"
  concat_param {
    concat_dim: 2
  }
}
layer {
  name: "lstm2"
  type: "LSTM"
  bottom: "lstm1_video_sequence"
  bottom: "cont_sentence"
  top: "lstm2"
  recurrent_param {
    num_output: 1000
    weight_filler {
      type: "uniform"
      min: -0.08
      max: 0.08
    }
    bias_filler {
      type: "constant"
      value: 0
    }
  }
}
layer {
  name: "predict"
  type: "InnerProduct"
  bottom: "lstm2"
  top: "predict"
  param {
    lr_mult: 1
    decay_mult: 1
  }
  param {
    lr_mult: 2
    decay_mult: 0
  }
  inner_product_param {
    num_output: 46168
    weight_filler {
      type: "uniform"
      min: -0.08
      max: 0.08
    }
    bias_filler {
      type: "constant"
      value: 0
    }
    axis: 2
  }
}
layer {
  name: "probs"
  type: "Softmax"
  bottom: "predict"
  top: "probs"
  softmax_param {
    axis: 2
  }
}
I0925 21:34:37.910836 32426 net.cpp:49] Initializing net from parameters: 
name: "s2vt:features_to_lstm"
state {
  phase: TEST
}
layer {
  name: "input"
  type: "Input"
  top: "frames_fc7"
  top: "cont_sentence"
  top: "input_sentence"
  top: "stage_indicator"
  input_param {
    shape {
      dim: 1
      dim: 4096
    }
    shape {
      dim: 1
      dim: 1
    }
    shape {
      dim: 1
      dim: 1
    }
    shape {
      dim: 1
      dim: 1
    }
  }
}
layer {
  name: "embed_encoder"
  type: "InnerProduct"
  bottom: "frames_fc7"
  top: "embedded_in_frames"
  param {
    lr_mult: 1
    decay_mult: 1
  }
  param {
    lr_mult: 2
    decay_mult: 0
  }
  inner_product_param {
    num_output: 500
    weight_filler {
      type: "xavier"
    }
    bias_filler {
      type: "constant"
      value: 0.2
    }
  }
}
layer {
  name: "reshape_frames"
  type: "Reshape"
  bottom: "embedded_in_frames"
  top: "embedded_input_frames"
  reshape_param {
    shape {
      dim: 1
      dim: 1
      dim: 500
    }
  }
}
layer {
  name: "reshape_stage_indicator"
  type: "Reshape"
  bottom: "stage_indicator"
  top: "reshaped_stage_indicator"
  reshape_param {
    shape {
      dim: 1
      dim: 1
      dim: 1
    }
  }
}
layer {
  name: "embedding"
  type: "Embed"
  bottom: "input_sentence"
  top: "embedded_input_sentence"
  param {
    lr_mult: 1
  }
  embed_param {
    num_output: 500
    input_dim: 46168
    bias_term: false
    weight_filler {
      type: "uniform"
      min: -0.08
      max: 0.08
    }
  }
}
layer {
  name: "lstm1"
  type: "LSTM"
  bottom: "embedded_input_frames"
  bottom: "cont_sentence"
  top: "lstm1"
  recurrent_param {
    num_output: 1000
    weight_filler {
      type: "uniform"
      min: -0.08
      max: 0.08
    }
    bias_filler {
      type: "constant"
      value: 0
    }
  }
}
layer {
  name: "concat"
  type: "Concat"
  bottom: "lstm1"
  bottom: "embedded_input_sentence"
  bottom: "reshaped_stage_indicator"
  top: "lstm1_video_sequence"
  concat_param {
    concat_dim: 2
  }
}
layer {
  name: "lstm2"
  type: "LSTM"
  bottom: "lstm1_video_sequence"
  bottom: "cont_sentence"
  top: "lstm2"
  recurrent_param {
    num_output: 1000
    weight_filler {
      type: "uniform"
      min: -0.08
      max: 0.08
    }
    bias_filler {
      type: "constant"
      value: 0
    }
  }
}
layer {
  name: "predict"
  type: "InnerProduct"
  bottom: "lstm2"
  top: "predict"
  param {
    lr_mult: 1
    decay_mult: 1
  }
  param {
    lr_mult: 2
    decay_mult: 0
  }
  inner_product_param {
    num_output: 46168
    weight_filler {
      type: "uniform"
      min: -0.08
      max: 0.08
    }
    bias_filler {
      type: "constant"
      value: 0
    }
    axis: 2
  }
}
layer {
  name: "probs"
  type: "Softmax"
  bottom: "predict"
  top: "probs"
  softmax_param {
    axis: 2
  }
}
I0925 21:34:37.910881 32446 net.cpp:49] Initializing net from parameters: 
name: "s2vt:features_to_lstm"
state {
  phase: TEST
}
layer {
  name: "input"
  type: "Input"
  top: "frames_fc7"
  top: "cont_sentence"
  top: "input_sentence"
  top: "stage_indicator"
  input_param {
    shape {
      dim: 1
      dim: 4096
    }
    shape {
      dim: 1
      dim: 1
    }
    shape {
      dim: 1
      dim: 1
    }
    shape {
      dim: 1
      dim: 1
    }
  }
}
layer {
  name: "embed_encoder"
  type: "InnerProduct"
  bottom: "frames_fc7"
  top: "embedded_in_frames"
  param {
    lr_mult: 1
    decay_mult: 1
  }
  param {
    lr_mult: 2
    decay_mult: 0
  }
  inner_product_param {
    num_output: 500
    weight_filler {
      type: "xavier"
    }
    bias_filler {
      type: "constant"
      value: 0.2
    }
  }
}
layer {
  name: "reshape_frames"
  type: "Reshape"
  bottom: "embedded_in_frames"
  top: "embedded_input_frames"
  reshape_param {
    shape {
      dim: 1
      dim: 1
      dim: 500
    }
  }
}
layer {
  name: "reshape_stage_indicator"
  type: "Reshape"
  bottom: "stage_indicator"
  top: "reshaped_stage_indicator"
  reshape_param {
    shape {
      dim: 1
      dim: 1
      dim: 1
    }
  }
}
layer {
  name: "embedding"
  type: "Embed"
  bottom: "input_sentence"
  top: "embedded_input_sentence"
  param {
    lr_mult: 1
  }
  embed_param {
    num_output: 500
    input_dim: 46168
    bias_term: false
    weight_filler {
      type: "uniform"
      min: -0.08
      max: 0.08
    }
  }
}
layer {
  name: "lstm1"
  type: "LSTM"
  bottom: "embedded_input_frames"
  bottom: "cont_sentence"
  top: "lstm1"
  recurrent_param {
    num_output: 1000
    weight_filler {
      type: "uniform"
      min: -0.08
      max: 0.08
    }
    bias_filler {
      type: "constant"
      value: 0
    }
  }
}
layer {
  name: "concat"
  type: "Concat"
  bottom: "lstm1"
  bottom: "embedded_input_sentence"
  bottom: "reshaped_stage_indicator"
  top: "lstm1_video_sequence"
  concat_param {
    concat_dim: 2
  }
}
layer {
  name: "lstm2"
  type: "LSTM"
  bottom: "lstm1_video_sequence"
  bottom: "cont_sentence"
  top: "lstm2"
  recurrent_param {
    num_output: 1000
    weight_filler {
      type: "uniform"
      min: -0.08
      max: 0.08
    }
    bias_filler {
      type: "constant"
      value: 0
    }
  }
}
layer {
  name: "predict"
  type: "InnerProduct"
  bottom: "lstm2"
  top: "predict"
  param {
    lr_mult: 1
    decay_mult: 1
  }
  param {
    lr_mult: 2
    decay_mult: 0
  }
  inner_product_param {
    num_output: 46168
    weight_filler {
      type: "uniform"
      min: -0.08
      max: 0.08
    }
    bias_filler {
      type: "constant"
      value: 0
    }
    axis: 2
  }
}
layer {
  name: "probs"
  type: "Softmax"
  bottom: "predict"
  top: "probs"
  softmax_param {
    axis: 2
  }
}
I0925 21:34:37.910913 32440 net.cpp:49] Initializing net from parameters: 
name: "s2vt:features_to_lstm"
state {
  phase: TEST
}
layer {
  name: "input"
  type: "Input"
  top: "frames_fc7"
  top: "cont_sentence"
  top: "input_sentence"
  top: "stage_indicator"
  input_param {
    shape {
      dim: 1
      dim: 4096
    }
    shape {
      dim: 1
      dim: 1
    }
    shape {
      dim: 1
      dim: 1
    }
    shape {
      dim: 1
      dim: 1
    }
  }
}
layer {
  name: "embed_encoder"
  type: "InnerProduct"
  bottom: "frames_fc7"
  top: "embedded_in_frames"
  param {
    lr_mult: 1
    decay_mult: 1
  }
  param {
    lr_mult: 2
    decay_mult: 0
  }
  inner_product_param {
    num_output: 500
    weight_filler {
      type: "xavier"
    }
    bias_filler {
      type: "constant"
      value: 0.2
    }
  }
}
layer {
  name: "reshape_frames"
  type: "Reshape"
  bottom: "embedded_in_frames"
  top: "embedded_input_frames"
  reshape_param {
    shape {
      dim: 1
      dim: 1
      dim: 500
    }
  }
}
layer {
  name: "reshape_stage_indicator"
  type: "Reshape"
  bottom: "stage_indicator"
  top: "reshaped_stage_indicator"
  reshape_param {
    shape {
      dim: 1
      dim: 1
      dim: 1
    }
  }
}
layer {
  name: "embedding"
  type: "Embed"
  bottom: "input_sentence"
  top: "embedded_input_sentence"
  param {
    lr_mult: 1
  }
  embed_param {
    num_output: 500
    input_dim: 46168
    bias_term: false
    weight_filler {
      type: "uniform"
      min: -0.08
      max: 0.08
    }
  }
}
layer {
  name: "lstm1"
  type: "LSTM"
  bottom: "embedded_input_frames"
  bottom: "cont_sentence"
  top: "lstm1"
  recurrent_param {
    num_output: 1000
    weight_filler {
      type: "uniform"
      min: -0.08
      max: 0.08
    }
    bias_filler {
      type: "constant"
      value: 0
    }
  }
}
layer {
  name: "concat"
  type: "Concat"
  bottom: "lstm1"
  bottom: "embedded_input_sentence"
  bottom: "reshaped_stage_indicator"
  top: "lstm1_video_sequence"
  concat_param {
    concat_dim: 2
  }
}
layer {
  name: "lstm2"
  type: "LSTM"
  bottom: "lstm1_video_sequence"
  bottom: "cont_sentence"
  top: "lstm2"
  recurrent_param {
    num_output: 1000
    weight_filler {
      type: "uniform"
      min: -0.08
      max: 0.08
    }
    bias_filler {
      type: "constant"
      value: 0
    }
  }
}
layer {
  name: "predict"
  type: "InnerProduct"
  bottom: "lstm2"
  top: "predict"
  param {
    lr_mult: 1
    decay_mult: 1
  }
  param {
    lr_mult: 2
    decay_mult: 0
  }
  inner_product_param {
    num_output: 46168
    weight_filler {
      type: "uniform"
      min: -0.08
      max: 0.08
    }
    bias_filler {
      type: "constant"
      value: 0
    }
    axis: 2
  }
}
layer {
  name: "probs"
  type: "Softmax"
  bottom: "predict"
  top: "probs"
  softmax_param {
    axis: 2
  }
}
I0925 21:34:37.910966 32448 layer_factory.hpp:77] Creating layer data
I0925 21:34:37.910981 32422 layer_factory.hpp:77] Creating layer input
I0925 21:34:37.911001 32422 net.cpp:91] Creating Layer input
I0925 21:34:37.911002 32448 net.cpp:91] Creating Layer data
I0925 21:34:37.911006 32426 layer_factory.hpp:77] Creating layer input
I0925 21:34:37.911015 32448 net.cpp:399] data -> data
…
I0925 21:34:37.911114 32440 net.cpp:399] input -> frames_fc7
I0925 21:34:37.911118 32422 net.cpp:399] input -> stage_indicator
I0925 21:34:37.911134 32446 net.cpp:399] input -> cont_sentence
I0925 21:34:37.911146 32440 net.cpp:399] input -> cont_sentence
I0925 21:34:37.911154 32446 net.cpp:399] input -> input_sentence
I0925 21:34:37.911167 32440 net.cpp:399] input -> input_sentence
I0925 21:34:37.911172 32446 net.cpp:399] input -> stage_indicator
I0925 21:34:37.911187 32440 net.cpp:399] input -> stage_indicator
I0925 21:34:38.697525 32448 net.cpp:141] Setting up data
I0925 21:34:38.697633 32448 net.cpp:148] Top shape: 10 3 227 227 (1545870)
I0925 21:34:38.697641 32448 net.cpp:156] Memory required for data: 6183480
I0925 21:34:38.697666 32448 layer_factory.hpp:77] Creating layer conv1
I0925 21:34:38.697687 32422 net.cpp:141] Setting up input
I0925 21:34:38.697705 32448 net.cpp:91] Creating Layer conv1
I0925 21:34:38.697708 32422 net.cpp:148] Top shape: 1 4096 (4096)
I0925 21:34:38.697716 32448 net.cpp:425] conv1 <- data
I0925 21:34:38.697717 32422 net.cpp:148] Top shape: 1 1 (1)
I0925 21:34:38.697726 32422 net.cpp:148] Top shape: 1 1 (1)
I0925 21:34:38.697731 32422 net.cpp:148] Top shape: 1 1 (1)
I0925 21:34:38.697734 32448 net.cpp:399] conv1 -> conv1
I0925 21:34:38.697736 32422 net.cpp:156] Memory required for data: 16396
I0925 21:34:38.697754 32422 layer_factory.hpp:77] Creating layer cont_sentence_input_1_split
I0925 21:34:38.697780 32422 net.cpp:91] Creating Layer cont_sentence_input_1_split
I0925 21:34:38.697788 32422 net.cpp:425] cont_sentence_input_1_split <- cont_sentence
I0925 21:34:38.697820 32422 net.cpp:399] cont_sentence_input_1_split -> cont_sentence_input_1_split_0
I0925 21:34:38.697834 32422 net.cpp:399] cont_sentence_input_1_split -> cont_sentence_input_1_split_1
I0925 21:34:38.697902 32426 net.cpp:141] Setting up input
I0925 21:34:38.697923 32426 net.cpp:148] Top shape: 1 4096 (4096)
I0925 21:34:38.697932 32426 net.cpp:148] Top shape: 1 1 (1)
I0925 21:34:38.697938 32426 net.cpp:148] Top shape: 1 1 (1)
I0925 21:34:38.697944 32426 net.cpp:148] Top shape: 1 1 (1)
I0925 21:34:38.697948 32426 net.cpp:156] Memory required for data: 16396
I0925 21:34:38.697955 32426 layer_factory.hpp:77] Creating layer cont_sentence_input_1_split
I0925 21:34:38.697970 32426 net.cpp:91] Creating Layer cont_sentence_input_1_split
I0925 21:34:38.697978 32426 net.cpp:425] cont_sentence_input_1_split <- cont_sentence
I0925 21:34:38.697985 32426 net.cpp:399] cont_sentence_input_1_split -> cont_sentence_input_1_split_0
I0925 21:34:38.697999 32426 net.cpp:399] cont_sentence_input_1_split -> cont_sentence_input_1_split_1
I0925 21:34:38.698076 32426 net.cpp:141] Setting up cont_sentence_input_1_split
I0925 21:34:38.698088 32426 net.cpp:148] Top shape: 1 1 (1)
I0925 21:34:38.698096 32426 net.cpp:148] Top shape: 1 1 (1)
I0925 21:34:38.698101 32426 net.cpp:156] Memory required for data: 16404
I0925 21:34:38.698106 32426 layer_factory.hpp:77] Creating layer embed_encoder
I0925 21:34:38.698129 32422 net.cpp:141] Setting up cont_sentence_input_1_split
I0925 21:34:38.698132 32426 net.cpp:91] Creating Layer embed_encoder
I0925 21:34:38.698153 32422 net.cpp:148] Top shape: 1 1 (1)
I0925 21:34:38.698153 32426 net.cpp:425] embed_encoder <- frames_fc7
I0925 21:34:38.698160 32422 net.cpp:148] Top shape: 1 1 (1)
I0925 21:34:38.698165 32426 net.cpp:399] embed_encoder -> embedded_in_frames
I0925 21:34:38.698165 32422 net.cpp:156] Memory required for data: 16404
I0925 21:34:38.698184 32422 layer_factory.hpp:77] Creating layer embed_encoder
I0925 21:34:38.698200 32422 net.cpp:91] Creating Layer embed_encoder
I0925 21:34:38.698207 32422 net.cpp:425] embed_encoder <- frames_fc7
I0925 21:34:38.698194 32440 net.cpp:141] Setting up input
I0925 21:34:38.698216 32422 net.cpp:399] embed_encoder -> embedded_in_frames
I0925 21:34:38.698246 32440 net.cpp:148] Top shape: 1 4096 (4096)
I0925 21:34:38.698261 32440 net.cpp:148] Top shape: 1 1 (1)
I0925 21:34:38.698273 32440 net.cpp:148] Top shape: 1 1 (1)
I0925 21:34:38.698284 32440 net.cpp:148] Top shape: 1 1 (1)
I0925 21:34:38.698292 32440 net.cpp:156] Memory required for data: 16396
I0925 21:34:38.698305 32440 layer_factory.hpp:77] Creating layer cont_sentence_input_1_split
I0925 21:34:38.698330 32440 net.cpp:91] Creating Layer cont_sentence_input_1_split
I0925 21:34:38.698344 32440 net.cpp:425] cont_sentence_input_1_split <- cont_sentence
I0925 21:34:38.698361 32440 net.cpp:399] cont_sentence_input_1_split -> cont_sentence_input_1_split_0
I0925 21:34:38.698384 32440 net.cpp:399] cont_sentence_input_1_split -> cont_sentence_input_1_split_1
I0925 21:34:38.708014 32440 net.cpp:141] Setting up cont_sentence_input_1_split
I0925 21:34:38.708046 32440 net.cpp:148] Top shape: 1 1 (1)
I0925 21:34:38.708055 32440 net.cpp:148] Top shape: 1 1 (1)
I0925 21:34:38.708061 32440 net.cpp:156] Memory required for data: 16404
I0925 21:34:38.708058 32446 net.cpp:141] Setting up input
I0925 21:34:38.708068 32440 layer_factory.hpp:77] Creating layer embed_encoder
I0925 21:34:38.708087 32446 net.cpp:148] Top shape: 1 4096 (4096)
I0925 21:34:38.708097 32440 net.cpp:91] Creating Layer embed_encoder
I0925 21:34:38.708107 32440 net.cpp:425] embed_encoder <- frames_fc7
I0925 21:34:38.708106 32446 net.cpp:148] Top shape: 1 1 (1)
I0925 21:34:38.708127 32440 net.cpp:399] embed_encoder -> embedded_in_frames
I0925 21:34:38.708130 32446 net.cpp:148] Top shape: 1 1 (1)
I0925 21:34:38.708143 32446 net.cpp:148] Top shape: 1 1 (1)
I0925 21:34:38.708151 32446 net.cpp:156] Memory required for data: 16396
I0925 21:34:38.708161 32446 layer_factory.hpp:77] Creating layer cont_sentence_input_1_split
I0925 21:34:38.708178 32446 net.cpp:91] Creating Layer cont_sentence_input_1_split
I0925 21:34:38.708186 32446 net.cpp:425] cont_sentence_input_1_split <- cont_sentence
I0925 21:34:38.708200 32446 net.cpp:399] cont_sentence_input_1_split -> cont_sentence_input_1_split_0
I0925 21:34:38.708221 32446 net.cpp:399] cont_sentence_input_1_split -> cont_sentence_input_1_split_1
I0925 21:34:38.713204 32446 net.cpp:141] Setting up cont_sentence_input_1_split
I0925 21:34:38.713256 32446 net.cpp:148] Top shape: 1 1 (1)
I0925 21:34:38.713269 32446 net.cpp:148] Top shape: 1 1 (1)
I0925 21:34:38.713277 32446 net.cpp:156] Memory required for data: 16404
I0925 21:34:38.713289 32446 layer_factory.hpp:77] Creating layer embed_encoder
I0925 21:34:38.713320 32446 net.cpp:91] Creating Layer embed_encoder
I0925 21:34:38.713331 32446 net.cpp:425] embed_encoder <- frames_fc7
I0925 21:34:38.713352 32446 net.cpp:399] embed_encoder -> embedded_in_frames
I0925 21:34:38.731531 32422 net.cpp:141] Setting up embed_encoder
I0925 21:34:38.731588 32422 net.cpp:148] Top shape: 1 500 (500)
I0925 21:34:38.731596 32422 net.cpp:156] Memory required for data: 18404
I0925 21:34:38.731631 32422 layer_factory.hpp:77] Creating layer reshape_frames
I0925 21:34:38.731663 32422 net.cpp:91] Creating Layer reshape_frames
I0925 21:34:38.731673 32422 net.cpp:425] reshape_frames <- embedded_in_frames
I0925 21:34:38.731684 32422 net.cpp:399] reshape_frames -> embedded_input_frames
I0925 21:34:38.731701 32426 net.cpp:141] Setting up embed_encoder
I0925 21:34:38.731725 32426 net.cpp:148] Top shape: 1 500 (500)
I0925 21:34:38.731736 32426 net.cpp:156] Memory required for data: 18404
I0925 21:34:38.731755 32426 layer_factory.hpp:77] Creating layer reshape_frames
I0925 21:34:38.731772 32426 net.cpp:91] Creating Layer reshape_frames
I0925 21:34:38.731781 32426 net.cpp:425] reshape_frames <- embedded_in_frames
I0925 21:34:38.731789 32426 net.cpp:399] reshape_frames -> embedded_input_frames
I0925 21:34:38.731899 32422 net.cpp:141] Setting up reshape_frames
I0925 21:34:38.731911 32422 net.cpp:148] Top shape: 1 1 500 (500)
I0925 21:34:38.731917 32422 net.cpp:156] Memory required for data: 20404
I0925 21:34:38.731923 32422 layer_factory.hpp:77] Creating layer reshape_stage_indicator
I0925 21:34:38.731928 32426 net.cpp:141] Setting up reshape_frames
I0925 21:34:38.731940 32422 net.cpp:91] Creating Layer reshape_stage_indicator
I0925 21:34:38.731941 32426 net.cpp:148] Top shape: 1 1 500 (500)
I0925 21:34:38.731946 32422 net.cpp:425] reshape_stage_indicator <- stage_indicator
I0925 21:34:38.731946 32426 net.cpp:156] Memory required for data: 20404
I0925 21:34:38.731967 32422 net.cpp:399] reshape_stage_indicator -> reshaped_stage_indicator
I0925 21:34:38.731968 32426 layer_factory.hpp:77] Creating layer reshape_stage_indicator
I0925 21:34:38.731986 32426 net.cpp:91] Creating Layer reshape_stage_indicator
I0925 21:34:38.731993 32426 net.cpp:425] reshape_stage_indicator <- stage_indicator
I0925 21:34:38.732009 32426 net.cpp:399] reshape_stage_indicator -> reshaped_stage_indicator
I0925 21:34:38.733681 32422 net.cpp:141] Setting up reshape_stage_indicator
I0925 21:34:38.733702 32422 net.cpp:148] Top shape: 1 1 1 (1)
I0925 21:34:38.733707 32422 net.cpp:156] Memory required for data: 20408
I0925 21:34:38.733713 32422 layer_factory.hpp:77] Creating layer embedding
I0925 21:34:38.733728 32422 net.cpp:91] Creating Layer embedding
I0925 21:34:38.733736 32422 net.cpp:425] embedding <- input_sentence
I0925 21:34:38.733752 32422 net.cpp:399] embedding -> embedded_input_sentence
I0925 21:34:38.733750 32426 net.cpp:141] Setting up reshape_stage_indicator
I0925 21:34:38.733772 32426 net.cpp:148] Top shape: 1 1 1 (1)
I0925 21:34:38.733777 32426 net.cpp:156] Memory required for data: 20408
I0925 21:34:38.733783 32426 layer_factory.hpp:77] Creating layer embedding
I0925 21:34:38.733795 32426 net.cpp:91] Creating Layer embedding
I0925 21:34:38.733803 32426 net.cpp:425] embedding <- input_sentence
I0925 21:34:38.733819 32426 net.cpp:399] embedding -> embedded_input_sentence
I0925 21:34:38.824059 32446 net.cpp:141] Setting up embed_encoder
I0925 21:34:38.824110 32446 net.cpp:148] Top shape: 1 500 (500)
I0925 21:34:38.824117 32446 net.cpp:156] Memory required for data: 18404
I0925 21:34:38.824142 32446 layer_factory.hpp:77] Creating layer reshape_frames
I0925 21:34:38.824165 32446 net.cpp:91] Creating Layer reshape_frames
I0925 21:34:38.824173 32446 net.cpp:425] reshape_frames <- embedded_in_frames
I0925 21:34:38.824185 32446 net.cpp:399] reshape_frames -> embedded_input_frames
I0925 21:34:38.824237 32446 net.cpp:141] Setting up reshape_frames
I0925 21:34:38.824249 32446 net.cpp:148] Top shape: 1 1 500 (500)
I0925 21:34:38.824254 32446 net.cpp:156] Memory required for data: 20404
I0925 21:34:38.824259 32446 layer_factory.hpp:77] Creating layer reshape_stage_indicator
I0925 21:34:38.824270 32446 net.cpp:91] Creating Layer reshape_stage_indicator
I0925 21:34:38.824276 32446 net.cpp:425] reshape_stage_indicator <- stage_indicator
I0925 21:34:38.824286 32446 net.cpp:399] reshape_stage_indicator -> reshaped_stage_indicator
I0925 21:34:38.824450 32446 net.cpp:141] Setting up reshape_stage_indicator
I0925 21:34:38.824462 32446 net.cpp:148] Top shape: 1 1 1 (1)
I0925 21:34:38.824467 32446 net.cpp:156] Memory required for data: 20408
I0925 21:34:38.824473 32446 layer_factory.hpp:77] Creating layer embedding
I0925 21:34:38.824487 32446 net.cpp:91] Creating Layer embedding
I0925 21:34:38.824494 32446 net.cpp:425] embedding <- input_sentence
I0925 21:34:38.824503 32446 net.cpp:399] embedding -> embedded_input_sentence
I0925 21:34:38.874421 32440 net.cpp:141] Setting up embed_encoder
I0925 21:34:38.874477 32440 net.cpp:148] Top shape: 1 500 (500)
I0925 21:34:38.874485 32440 net.cpp:156] Memory required for data: 18404
I0925 21:34:38.874511 32440 layer_factory.hpp:77] Creating layer reshape_frames
I0925 21:34:38.874536 32440 net.cpp:91] Creating Layer reshape_frames
I0925 21:34:38.874546 32440 net.cpp:425] reshape_frames <- embedded_in_frames
I0925 21:34:38.874557 32440 net.cpp:399] reshape_frames -> embedded_input_frames
I0925 21:34:38.875871 32440 net.cpp:141] Setting up reshape_frames
I0925 21:34:38.875887 32440 net.cpp:148] Top shape: 1 1 500 (500)
I0925 21:34:38.875893 32440 net.cpp:156] Memory required for data: 20404
I0925 21:34:38.875900 32440 layer_factory.hpp:77] Creating layer reshape_stage_indicator
I0925 21:34:38.875916 32440 net.cpp:91] Creating Layer reshape_stage_indicator
I0925 21:34:38.875922 32440 net.cpp:425] reshape_stage_indicator <- stage_indicator
I0925 21:34:38.875932 32440 net.cpp:399] reshape_stage_indicator -> reshaped_stage_indicator
I0925 21:34:38.878000 32440 net.cpp:141] Setting up reshape_stage_indicator
I0925 21:34:38.878018 32440 net.cpp:148] Top shape: 1 1 1 (1)
I0925 21:34:38.878024 32440 net.cpp:156] Memory required for data: 20408
I0925 21:34:38.878031 32440 layer_factory.hpp:77] Creating layer embedding
I0925 21:34:38.878046 32440 net.cpp:91] Creating Layer embedding
I0925 21:34:38.878051 32440 net.cpp:425] embedding <- input_sentence
I0925 21:34:38.878064 32440 net.cpp:399] embedding -> embedded_input_sentence
I0925 21:34:39.003716 32422 net.cpp:141] Setting up embedding
I0925 21:34:39.003765 32422 net.cpp:148] Top shape: 1 1 500 (500)
I0925 21:34:39.003772 32422 net.cpp:156] Memory required for data: 22408
I0925 21:34:39.003795 32422 layer_factory.hpp:77] Creating layer lstm1
I0925 21:34:39.003820 32422 net.cpp:91] Creating Layer lstm1
I0925 21:34:39.003831 32422 net.cpp:425] lstm1 <- embedded_input_frames
I0925 21:34:39.003842 32422 net.cpp:425] lstm1 <- cont_sentence_input_1_split_0
I0925 21:34:39.003852 32422 net.cpp:399] lstm1 -> lstm1
I0925 21:34:39.003978 32422 recurrent_layer.cpp:20] Initializing recurrent layer: assuming input batch contains 1 timesteps of 1 independent streams.
I0925 21:34:39.004636 32422 net.cpp:49] Initializing net from parameters: 
layer {
  name: "lstm1_"
  type: "Input"
  top: "x"
  top: "cont"
  input_param {
    shape {
      dim: 1
      dim: 1
      dim: 500
    }
    shape {
      dim: 1
      dim: 1
    }
  }
}
layer {
  name: "lstm1_"
  type: "Input"
  top: "c_0"
  top: "h_0"
  input_param {
    shape {
      dim: 1
      dim: 1
      dim: 1000
    }
    shape {
      dim: 1
      dim: 1
      dim: 1000
    }
  }
}
layer {
  name: "lstm1_cont_slice"
  type: "Slice"
  bottom: "cont"
  top: "cont_1"
  slice_param {
    axis: 0
  }
}
layer {
  name: "lstm1_x_transform"
  type: "InnerProduct"
  bottom: "x"
  top: "W_xc_x"
  param {
    name: "W_xc"
  }
  param {
    name: "b_c"
  }
  propagate_down: true
  inner_product_param {
    num_output: 4000
    bias_term: true
    weight_filler {
      type: "uniform"
      min: -0.08
      max: 0.08
    }
    bias_filler {
      type: "constant"
      value: 0
    }
    axis: 2
  }
}
layer {
  name: "lstm1_W_xc_x_slice"
  type: "Slice"
  bottom: "W_xc_x"
  top: "W_xc_x_1"
  slice_param {
    axis: 0
  }
}
layer {
  name: "lstm1_h_conted_0"
  type: "Scale"
  bottom: "h_0"
  bottom: "cont_1"
  top: "h_conted_0"
  scale_param {
    axis: 0
  }
}
layer {
  name: "lstm1_transform_1"
  type: "InnerProduct"
  bottom: "h_conted_0"
  top: "W_hc_h_0"
  param {
    name: "W_hc"
  }
  inner_product_param {
    num_output: 4000
    bias_term: false
    weight_filler {
      type: "uniform"
      min: -0.08
      max: 0.08
    }
    axis: 2
  }
}
layer {
  name: "lstm1_gate_input_1"
  type: "Eltwise"
  bottom: "W_hc_h_0"
  bottom: "W_xc_x_1"
  top: "gate_input_1"
  eltwise_param {
    operation: SUM
  }
}
layer {
  name: "lstm1_unit_1"
  type: "LSTMUnit"
  bottom: "c_0"
  bottom: "gate_input_1"
  bottom: "cont_1"
  top: "c_1"
  top: "h_1"
}
layer {
  name: "lstm1_"
  type: "Split"
  bottom: "c_1"
  top: "c_T"
}
layer {
  name: "lstm1_h_concat"
  type: "Concat"
  bottom: "h_1"
  top: "h"
  concat_param {
    axis: 0
  }
}
layer {
  name: "h_pseudoloss"
  type: "Reduction"
  bottom: "h"
  top: "h_pseudoloss"
  loss_weight: 1
}
I0925 21:34:39.004787 32422 layer_factory.hpp:77] Creating layer lstm1_
I0925 21:34:39.004809 32422 net.cpp:91] Creating Layer lstm1_
I0925 21:34:39.004820 32422 net.cpp:399] lstm1_ -> x
I0925 21:34:39.004842 32422 net.cpp:399] lstm1_ -> cont
I0925 21:34:39.006758 32422 net.cpp:141] Setting up lstm1_
I0925 21:34:39.006778 32422 net.cpp:148] Top shape: 1 1 500 (500)
I0925 21:34:39.006789 32422 net.cpp:148] Top shape: 1 1 (1)
I0925 21:34:39.006796 32422 net.cpp:156] Memory required for data: 2004
I0925 21:34:39.006805 32422 layer_factory.hpp:77] Creating layer lstm1_
I0925 21:34:39.006826 32422 net.cpp:91] Creating Layer lstm1_
I0925 21:34:39.006837 32422 net.cpp:399] lstm1_ -> c_0
I0925 21:34:39.006857 32422 net.cpp:399] lstm1_ -> h_0
I0925 21:34:39.007200 32422 net.cpp:141] Setting up lstm1_
I0925 21:34:39.007216 32422 net.cpp:148] Top shape: 1 1 1000 (1000)
I0925 21:34:39.007227 32422 net.cpp:148] Top shape: 1 1 1000 (1000)
I0925 21:34:39.007235 32422 net.cpp:156] Memory required for data: 10004
I0925 21:34:39.007242 32422 layer_factory.hpp:77] Creating layer lstm1_cont_slice
I0925 21:34:39.007259 32422 net.cpp:91] Creating Layer lstm1_cont_slice
I0925 21:34:39.007268 32422 net.cpp:425] lstm1_cont_slice <- cont
I0925 21:34:39.007282 32422 net.cpp:399] lstm1_cont_slice -> cont_1
I0925 21:34:39.007532 32422 net.cpp:141] Setting up lstm1_cont_slice
I0925 21:34:39.007549 32422 net.cpp:148] Top shape: 1 1 (1)
I0925 21:34:39.007555 32422 net.cpp:156] Memory required for data: 10008
I0925 21:34:39.007563 32422 layer_factory.hpp:77] Creating layer cont_1_lstm1_cont_slice_0_split
I0925 21:34:39.007576 32422 net.cpp:91] Creating Layer cont_1_lstm1_cont_slice_0_split
I0925 21:34:39.007585 32422 net.cpp:425] cont_1_lstm1_cont_slice_0_split <- cont_1
I0925 21:34:39.007606 32422 net.cpp:399] cont_1_lstm1_cont_slice_0_split -> cont_1_lstm1_cont_slice_0_split_0
I0925 21:34:39.007621 32422 net.cpp:399] cont_1_lstm1_cont_slice_0_split -> cont_1_lstm1_cont_slice_0_split_1
I0925 21:34:39.010354 32422 net.cpp:141] Setting up cont_1_lstm1_cont_slice_0_split
I0925 21:34:39.010372 32422 net.cpp:148] Top shape: 1 1 (1)
I0925 21:34:39.010383 32422 net.cpp:148] Top shape: 1 1 (1)
I0925 21:34:39.010390 32422 net.cpp:156] Memory required for data: 10016
I0925 21:34:39.010398 32422 layer_factory.hpp:77] Creating layer lstm1_x_transform
I0925 21:34:39.010414 32422 net.cpp:91] Creating Layer lstm1_x_transform
I0925 21:34:39.010423 32422 net.cpp:425] lstm1_x_transform <- x
I0925 21:34:39.010442 32422 net.cpp:399] lstm1_x_transform -> W_xc_x
I0925 21:34:39.040796 32426 net.cpp:141] Setting up embedding
I0925 21:34:39.040853 32426 net.cpp:148] Top shape: 1 1 500 (500)
I0925 21:34:39.040859 32426 net.cpp:156] Memory required for data: 22408
I0925 21:34:39.040881 32426 layer_factory.hpp:77] Creating layer lstm1
I0925 21:34:39.040902 32426 net.cpp:91] Creating Layer lstm1
I0925 21:34:39.040912 32426 net.cpp:425] lstm1 <- embedded_input_frames
I0925 21:34:39.040921 32426 net.cpp:425] lstm1 <- cont_sentence_input_1_split_0
I0925 21:34:39.040935 32426 net.cpp:399] lstm1 -> lstm1
I0925 21:34:39.040956 32426 recurrent_layer.cpp:20] Initializing recurrent layer: assuming input batch contains 1 timesteps of 1 independent streams.
I0925 21:34:39.041286 32426 net.cpp:49] Initializing net from parameters: 
layer {
  name: "lstm1_"
  type: "Input"
  top: "x"
  top: "cont"
  input_param {
    shape {
      dim: 1
      dim: 1
      dim: 500
    }
    shape {
      dim: 1
      dim: 1
    }
  }
}
layer {
  name: "lstm1_"
  type: "Input"
  top: "c_0"
  top: "h_0"
  input_param {
    shape {
      dim: 1
      dim: 1
      dim: 1000
    }
    shape {
      dim: 1
      dim: 1
      dim: 1000
    }
  }
}
layer {
  name: "lstm1_cont_slice"
  type: "Slice"
  bottom: "cont"
  top: "cont_1"
  slice_param {
    axis: 0
  }
}
layer {
  name: "lstm1_x_transform"
  type: "InnerProduct"
  bottom: "x"
  top: "W_xc_x"
  param {
    name: "W_xc"
  }
  param {
    name: "b_c"
  }
  propagate_down: true
  inner_product_param {
    num_output: 4000
    bias_term: true
    weight_filler {
      type: "uniform"
      min: -0.08
      max: 0.08
    }
    bias_filler {
      type: "constant"
      value: 0
    }
    axis: 2
  }
}
layer {
  name: "lstm1_W_xc_x_slice"
  type: "Slice"
  bottom: "W_xc_x"
  top: "W_xc_x_1"
  slice_param {
    axis: 0
  }
}
layer {
  name: "lstm1_h_conted_0"
  type: "Scale"
  bottom: "h_0"
  bottom: "cont_1"
  top: "h_conted_0"
  scale_param {
    axis: 0
  }
}
layer {
  name: "lstm1_transform_1"
  type: "InnerProduct"
  bottom: "h_conted_0"
  top: "W_hc_h_0"
  param {
    name: "W_hc"
  }
  inner_product_param {
    num_output: 4000
    bias_term: false
    weight_filler {
      type: "uniform"
      min: -0.08
      max: 0.08
    }
    axis: 2
  }
}
layer {
  name: "lstm1_gate_input_1"
  type: "Eltwise"
  bottom: "W_hc_h_0"
  bottom: "W_xc_x_1"
  top: "gate_input_1"
  eltwise_param {
    operation: SUM
  }
}
layer {
  name: "lstm1_unit_1"
  type: "LSTMUnit"
  bottom: "c_0"
  bottom: "gate_input_1"
  bottom: "cont_1"
  top: "c_1"
  top: "h_1"
}
layer {
  name: "lstm1_"
  type: "Split"
  bottom: "c_1"
  top: "c_T"
}
layer {
  name: "lstm1_h_concat"
  type: "Concat"
  bottom: "h_1"
  top: "h"
  concat_param {
    axis: 0
  }
}
layer {
  name: "h_pseudoloss"
  type: "Reduction"
  bottom: "h"
  top: "h_pseudoloss"
  loss_weight: 1
}
I0925 21:34:39.041395 32426 layer_factory.hpp:77] Creating layer lstm1_
I0925 21:34:39.041409 32426 net.cpp:91] Creating Layer lstm1_
I0925 21:34:39.041416 32426 net.cpp:399] lstm1_ -> x
I0925 21:34:39.041430 32426 net.cpp:399] lstm1_ -> cont
I0925 21:34:39.041803 32422 net.cpp:141] Setting up lstm1_x_transform
I0925 21:34:39.041824 32422 net.cpp:148] Top shape: 1 1 4000 (4000)
I0925 21:34:39.041831 32422 net.cpp:156] Memory required for data: 26016
I0925 21:34:39.041846 32422 layer_factory.hpp:77] Creating layer lstm1_W_xc_x_slice
I0925 21:34:39.041857 32422 net.cpp:91] Creating Layer lstm1_W_xc_x_slice
I0925 21:34:39.041858 32426 net.cpp:141] Setting up lstm1_
I0925 21:34:39.041864 32422 net.cpp:425] lstm1_W_xc_x_slice <- W_xc_x
I0925 21:34:39.041874 32426 net.cpp:148] Top shape: 1 1 500 (500)
I0925 21:34:39.041880 32422 net.cpp:399] lstm1_W_xc_x_slice -> W_xc_x_1
I0925 21:34:39.041882 32426 net.cpp:148] Top shape: 1 1 (1)
I0925 21:34:39.041931 32426 net.cpp:156] Memory required for data: 2004
I0925 21:34:39.041949 32426 layer_factory.hpp:77] Creating layer lstm1_
I0925 21:34:39.041960 32422 net.cpp:141] Setting up lstm1_W_xc_x_slice
I0925 21:34:39.041966 32426 net.cpp:91] Creating Layer lstm1_
I0925 21:34:39.041970 32422 net.cpp:148] Top shape: 1 1 4000 (4000)
I0925 21:34:39.041976 32422 net.cpp:156] Memory required for data: 42016
I0925 21:34:39.041981 32422 layer_factory.hpp:77] Creating layer lstm1_h_conted_0
I0925 21:34:39.041981 32426 net.cpp:399] lstm1_ -> c_0
I0925 21:34:39.041997 32426 net.cpp:399] lstm1_ -> h_0
I0925 21:34:39.042003 32422 net.cpp:91] Creating Layer lstm1_h_conted_0
I0925 21:34:39.042011 32422 net.cpp:425] lstm1_h_conted_0 <- h_0
I0925 21:34:39.042017 32422 net.cpp:425] lstm1_h_conted_0 <- cont_1_lstm1_cont_slice_0_split_0
I0925 21:34:39.042042 32422 net.cpp:399] lstm1_h_conted_0 -> h_conted_0
I0925 21:34:39.042682 32426 net.cpp:141] Setting up lstm1_
I0925 21:34:39.042703 32426 net.cpp:148] Top shape: 1 1 1000 (1000)
I0925 21:34:39.042711 32426 net.cpp:148] Top shape: 1 1 1000 (1000)
I0925 21:34:39.042716 32426 net.cpp:156] Memory required for data: 10004
I0925 21:34:39.042721 32426 layer_factory.hpp:77] Creating layer lstm1_cont_slice
I0925 21:34:39.042732 32426 net.cpp:91] Creating Layer lstm1_cont_slice
I0925 21:34:39.042738 32426 net.cpp:425] lstm1_cont_slice <- cont
I0925 21:34:39.042750 32426 net.cpp:399] lstm1_cont_slice -> cont_1
I0925 21:34:39.042816 32426 net.cpp:141] Setting up lstm1_cont_slice
I0925 21:34:39.042829 32426 net.cpp:148] Top shape: 1 1 (1)
I0925 21:34:39.042835 32426 net.cpp:156] Memory required for data: 10008
I0925 21:34:39.042840 32426 layer_factory.hpp:77] Creating layer cont_1_lstm1_cont_slice_0_split
I0925 21:34:39.042853 32426 net.cpp:91] Creating Layer cont_1_lstm1_cont_slice_0_split
I0925 21:34:39.042860 32426 net.cpp:425] cont_1_lstm1_cont_slice_0_split <- cont_1
I0925 21:34:39.042866 32422 net.cpp:141] Setting up lstm1_h_conted_0
I0925 21:34:39.042867 32426 net.cpp:399] cont_1_lstm1_cont_slice_0_split -> cont_1_lstm1_cont_slice_0_split_0
I0925 21:34:39.042896 32422 net.cpp:148] Top shape: 1 1 1000 (1000)
I0925 21:34:39.042902 32422 net.cpp:156] Memory required for data: 46016
I0925 21:34:39.042906 32426 net.cpp:399] cont_1_lstm1_cont_slice_0_split -> cont_1_lstm1_cont_slice_0_split_1
I0925 21:34:39.042908 32422 layer_factory.hpp:77] Creating layer lstm1_transform_1
I0925 21:34:39.042934 32422 net.cpp:91] Creating Layer lstm1_transform_1
I0925 21:34:39.042943 32422 net.cpp:425] lstm1_transform_1 <- h_conted_0
I0925 21:34:39.042953 32422 net.cpp:399] lstm1_transform_1 -> W_hc_h_0
I0925 21:34:39.054796 32426 net.cpp:141] Setting up cont_1_lstm1_cont_slice_0_split
I0925 21:34:39.054844 32426 net.cpp:148] Top shape: 1 1 (1)
I0925 21:34:39.054857 32426 net.cpp:148] Top shape: 1 1 (1)
I0925 21:34:39.054867 32426 net.cpp:156] Memory required for data: 10016
I0925 21:34:39.054878 32426 layer_factory.hpp:77] Creating layer lstm1_x_transform
I0925 21:34:39.054909 32426 net.cpp:91] Creating Layer lstm1_x_transform
I0925 21:34:39.054921 32426 net.cpp:425] lstm1_x_transform <- x
I0925 21:34:39.054940 32426 net.cpp:399] lstm1_x_transform -> W_xc_x
I0925 21:34:39.097527 32426 net.cpp:141] Setting up lstm1_x_transform
I0925 21:34:39.097589 32426 net.cpp:148] Top shape: 1 1 4000 (4000)
I0925 21:34:39.097604 32426 net.cpp:156] Memory required for data: 26016
I0925 21:34:39.097638 32426 layer_factory.hpp:77] Creating layer lstm1_W_xc_x_slice
I0925 21:34:39.097666 32426 net.cpp:91] Creating Layer lstm1_W_xc_x_slice
I0925 21:34:39.097681 32426 net.cpp:425] lstm1_W_xc_x_slice <- W_xc_x
I0925 21:34:39.097698 32426 net.cpp:399] lstm1_W_xc_x_slice -> W_xc_x_1
I0925 21:34:39.098073 32426 net.cpp:141] Setting up lstm1_W_xc_x_slice
I0925 21:34:39.098095 32426 net.cpp:148] Top shape: 1 1 4000 (4000)
I0925 21:34:39.098105 32426 net.cpp:156] Memory required for data: 42016
I0925 21:34:39.098115 32426 layer_factory.hpp:77] Creating layer lstm1_h_conted_0
I0925 21:34:39.098135 32426 net.cpp:91] Creating Layer lstm1_h_conted_0
I0925 21:34:39.098146 32426 net.cpp:425] lstm1_h_conted_0 <- h_0
I0925 21:34:39.098160 32426 net.cpp:425] lstm1_h_conted_0 <- cont_1_lstm1_cont_slice_0_split_0
I0925 21:34:39.098176 32426 net.cpp:399] lstm1_h_conted_0 -> h_conted_0
I0925 21:34:39.104779 32426 net.cpp:141] Setting up lstm1_h_conted_0
I0925 21:34:39.104835 32426 net.cpp:148] Top shape: 1 1 1000 (1000)
I0925 21:34:39.104846 32426 net.cpp:156] Memory required for data: 46016
I0925 21:34:39.104858 32426 layer_factory.hpp:77] Creating layer lstm1_transform_1
I0925 21:34:39.104888 32426 net.cpp:91] Creating Layer lstm1_transform_1
I0925 21:34:39.104902 32426 net.cpp:425] lstm1_transform_1 <- h_conted_0
I0925 21:34:39.104925 32426 net.cpp:399] lstm1_transform_1 -> W_hc_h_0
I0925 21:34:39.118119 32446 net.cpp:141] Setting up embedding
I0925 21:34:39.118185 32446 net.cpp:148] Top shape: 1 1 500 (500)
I0925 21:34:39.118196 32446 net.cpp:156] Memory required for data: 22408
I0925 21:34:39.118224 32446 layer_factory.hpp:77] Creating layer lstm1
I0925 21:34:39.118260 32446 net.cpp:91] Creating Layer lstm1
I0925 21:34:39.118259 32422 net.cpp:141] Setting up lstm1_transform_1
I0925 21:34:39.118330 32446 net.cpp:425] lstm1 <- embedded_input_frames
I0925 21:34:39.118368 32422 net.cpp:148] Top shape: 1 1 4000 (4000)
I0925 21:34:39.118371 32446 net.cpp:425] lstm1 <- cont_sentence_input_1_split_0
I0925 21:34:39.118393 32422 net.cpp:156] Memory required for data: 62016
I0925 21:34:39.118412 32446 net.cpp:399] lstm1 -> lstm1
I0925 21:34:39.118423 32422 layer_factory.hpp:77] Creating layer lstm1_gate_input_1
I0925 21:34:39.118444 32446 recurrent_layer.cpp:20] Initializing recurrent layer: assuming input batch contains 1 timesteps of 1 independent streams.
I0925 21:34:39.118489 32422 net.cpp:91] Creating Layer lstm1_gate_input_1
I0925 21:34:39.118505 32422 net.cpp:425] lstm1_gate_input_1 <- W_hc_h_0
I0925 21:34:39.118516 32422 net.cpp:425] lstm1_gate_input_1 <- W_xc_x_1
I0925 21:34:39.118533 32422 net.cpp:399] lstm1_gate_input_1 -> gate_input_1
I0925 21:34:39.118965 32446 net.cpp:49] Initializing net from parameters: 
layer {
  name: "lstm1_"
  type: "Input"
  top: "x"
  top: "cont"
  input_param {
    shape {
      dim: 1
      dim: 1
      dim: 500
    }
    shape {
      dim: 1
      dim: 1
    }
  }
}
layer {
  name: "lstm1_"
  type: "Input"
  top: "c_0"
  top: "h_0"
  input_param {
    shape {
      dim: 1
      dim: 1
      dim: 1000
    }
    shape {
      dim: 1
      dim: 1
      dim: 1000
    }
  }
}
layer {
  name: "lstm1_cont_slice"
  type: "Slice"
  bottom: "cont"
  top: "cont_1"
  slice_param {
    axis: 0
  }
}
layer {
  name: "lstm1_x_transform"
  type: "InnerProduct"
  bottom: "x"
  top: "W_xc_x"
  param {
    name: "W_xc"
  }
  param {
    name: "b_c"
  }
  propagate_down: true
  inner_product_param {
    num_output: 4000
    bias_term: true
    weight_filler {
      type: "uniform"
      min: -0.08
      max: 0.08
    }
    bias_filler {
      type: "constant"
      value: 0
    }
    axis: 2
  }
}
layer {
  name: "lstm1_W_xc_x_slice"
  type: "Slice"
  bottom: "W_xc_x"
  top: "W_xc_x_1"
  slice_param {
    axis: 0
  }
}
layer {
  name: "lstm1_h_conted_0"
  type: "Scale"
  bottom: "h_0"
  bottom: "cont_1"
  top: "h_conted_0"
  scale_param {
    axis: 0
  }
}
layer {
  name: "lstm1_transform_1"
  type: "InnerProduct"
  bottom: "h_conted_0"
  top: "W_hc_h_0"
  param {
    name: "W_hc"
  }
  inner_product_param {
    num_output: 4000
    bias_term: false
    weight_filler {
      type: "uniform"
      min: -0.08
      max: 0.08
    }
    axis: 2
  }
}
layer {
  name: "lstm1_gate_input_1"
  type: "Eltwise"
  bottom: "W_hc_h_0"
  bottom: "W_xc_x_1"
  top: "gate_input_1"
  eltwise_param {
    operation: SUM
  }
}
layer {
  name: "lstm1_unit_1"
  type: "LSTMUnit"
  bottom: "c_0"
  bottom: "gate_input_1"
  bottom: "cont_1"
  top: "c_1"
  top: "h_1"
}
layer {
  name: "lstm1_"
  type: "Split"
  bottom: "c_1"
  top: "c_T"
}
layer {
  name: "lstm1_h_concat"
  type: "Concat"
  bottom: "h_1"
  top: "h"
  concat_param {
    axis: 0
  }
}
layer {
  name: "h_pseudoloss"
  type: "Reduction"
  bottom: "h"
  top: "h_pseudoloss"
  loss_weight: 1
}
I0925 21:34:39.119227 32446 layer_factory.hpp:77] Creating layer lstm1_
I0925 21:34:39.119256 32446 net.cpp:91] Creating Layer lstm1_
I0925 21:34:39.119271 32446 net.cpp:399] lstm1_ -> x
I0925 21:34:39.119297 32446 net.cpp:399] lstm1_ -> cont
I0925 21:34:39.120295 32422 net.cpp:141] Setting up lstm1_gate_input_1
I0925 21:34:39.120334 32422 net.cpp:148] Top shape: 1 1 4000 (4000)
I0925 21:34:39.120344 32422 net.cpp:156] Memory required for data: 78016
I0925 21:34:39.120357 32422 layer_factory.hpp:77] Creating layer lstm1_unit_1
I0925 21:34:39.120390 32422 net.cpp:91] Creating Layer lstm1_unit_1
I0925 21:34:39.120401 32422 net.cpp:425] lstm1_unit_1 <- c_0
I0925 21:34:39.120429 32422 net.cpp:425] lstm1_unit_1 <- gate_input_1
I0925 21:34:39.120441 32422 net.cpp:425] lstm1_unit_1 <- cont_1_lstm1_cont_slice_0_split_1
I0925 21:34:39.120455 32422 net.cpp:399] lstm1_unit_1 -> c_1
I0925 21:34:39.120466 32446 net.cpp:141] Setting up lstm1_
I0925 21:34:39.120473 32422 net.cpp:399] lstm1_unit_1 -> h_1
I0925 21:34:39.120514 32446 net.cpp:148] Top shape: 1 1 500 (500)
I0925 21:34:39.120532 32446 net.cpp:148] Top shape: 1 1 (1)
I0925 21:34:39.120543 32446 net.cpp:156] Memory required for data: 2004
I0925 21:34:39.120553 32446 layer_factory.hpp:77] Creating layer lstm1_
I0925 21:34:39.120579 32446 net.cpp:91] Creating Layer lstm1_
I0925 21:34:39.120595 32446 net.cpp:399] lstm1_ -> c_0
I0925 21:34:39.120620 32446 net.cpp:399] lstm1_ -> h_0
I0925 21:34:39.122968 32422 net.cpp:141] Setting up lstm1_unit_1
I0925 21:34:39.122992 32422 net.cpp:148] Top shape: 1 1 1000 (1000)
I0925 21:34:39.123004 32422 net.cpp:148] Top shape: 1 1 1000 (1000)
I0925 21:34:39.123013 32422 net.cpp:156] Memory required for data: 86016
I0925 21:34:39.123023 32422 layer_factory.hpp:77] Creating layer lstm1_
I0925 21:34:39.123039 32422 net.cpp:91] Creating Layer lstm1_
I0925 21:34:39.123047 32422 net.cpp:425] lstm1_ <- c_1
I0925 21:34:39.123060 32422 net.cpp:399] lstm1_ -> c_T
I0925 21:34:39.123090 32446 net.cpp:141] Setting up lstm1_
I0925 21:34:39.123114 32446 net.cpp:148] Top shape: 1 1 1000 (1000)
I0925 21:34:39.123129 32446 net.cpp:148] Top shape: 1 1 1000 (1000)
I0925 21:34:39.123139 32446 net.cpp:156] Memory required for data: 10004
I0925 21:34:39.123144 32422 net.cpp:141] Setting up lstm1_
I0925 21:34:39.123150 32446 layer_factory.hpp:77] Creating layer lstm1_cont_slice
I0925 21:34:39.123165 32422 net.cpp:148] Top shape: 1 1 1000 (1000)
I0925 21:34:39.123172 32446 net.cpp:91] Creating Layer lstm1_cont_slice
I0925 21:34:39.123175 32422 net.cpp:156] Memory required for data: 90016
I0925 21:34:39.123208 32446 net.cpp:425] lstm1_cont_slice <- cont
I0925 21:34:39.123214 32422 layer_factory.hpp:77] Creating layer lstm1_h_concat
I0925 21:34:39.123234 32422 net.cpp:91] Creating Layer lstm1_h_concat
I0925 21:34:39.123234 32446 net.cpp:399] lstm1_cont_slice -> cont_1
I0925 21:34:39.123242 32422 net.cpp:425] lstm1_h_concat <- h_1
I0925 21:34:39.123257 32422 net.cpp:399] lstm1_h_concat -> h
I0925 21:34:39.123607 32422 net.cpp:141] Setting up lstm1_h_concat
I0925 21:34:39.123625 32422 net.cpp:148] Top shape: 1 1 1000 (1000)
I0925 21:34:39.123634 32422 net.cpp:156] Memory required for data: 94016
I0925 21:34:39.123643 32422 layer_factory.hpp:77] Creating layer h_pseudoloss
I0925 21:34:39.123666 32422 net.cpp:91] Creating Layer h_pseudoloss
I0925 21:34:39.123675 32422 net.cpp:425] h_pseudoloss <- h
I0925 21:34:39.123680 32446 net.cpp:141] Setting up lstm1_cont_slice
I0925 21:34:39.123688 32422 net.cpp:399] h_pseudoloss -> h_pseudoloss
I0925 21:34:39.123704 32446 net.cpp:148] Top shape: 1 1 (1)
I0925 21:34:39.123715 32446 net.cpp:156] Memory required for data: 10008
I0925 21:34:39.123725 32446 layer_factory.hpp:77] Creating layer cont_1_lstm1_cont_slice_0_split
I0925 21:34:39.123741 32446 net.cpp:91] Creating Layer cont_1_lstm1_cont_slice_0_split
I0925 21:34:39.123754 32446 net.cpp:425] cont_1_lstm1_cont_slice_0_split <- cont_1
I0925 21:34:39.123769 32446 net.cpp:399] cont_1_lstm1_cont_slice_0_split -> cont_1_lstm1_cont_slice_0_split_0
I0925 21:34:39.123793 32446 net.cpp:399] cont_1_lstm1_cont_slice_0_split -> cont_1_lstm1_cont_slice_0_split_1
I0925 21:34:39.125180 32422 net.cpp:141] Setting up h_pseudoloss
I0925 21:34:39.125201 32422 net.cpp:148] Top shape: (1)
I0925 21:34:39.125211 32422 net.cpp:151]     with loss weight 1
I0925 21:34:39.125248 32446 net.cpp:141] Setting up cont_1_lstm1_cont_slice_0_split
I0925 21:34:39.125272 32422 net.cpp:156] Memory required for data: 94020
I0925 21:34:39.125306 32446 net.cpp:148] Top shape: 1 1 (1)
I0925 21:34:39.125308 32422 net.cpp:217] h_pseudoloss needs backward computation.
I0925 21:34:39.125334 32446 net.cpp:148] Top shape: 1 1 (1)
I0925 21:34:39.125337 32422 net.cpp:217] lstm1_h_concat needs backward computation.
I0925 21:34:39.125354 32446 net.cpp:156] Memory required for data: 10016
I0925 21:34:39.125361 32422 net.cpp:219] lstm1_ does not need backward computation.
I0925 21:34:39.125367 32446 layer_factory.hpp:77] Creating layer lstm1_x_transform
I0925 21:34:39.125372 32422 net.cpp:217] lstm1_unit_1 needs backward computation.
…
I0925 21:34:39.125491 32422 net.cpp:219] lstm1_ does not need backward computation.
I0925 21:34:39.125499 32422 net.cpp:261] This network produces output c_T
I0925 21:34:39.125507 32422 net.cpp:261] This network produces output h_pseudoloss
I0925 21:34:39.125538 32422 net.cpp:274] Network initialization done.
I0925 21:34:39.125629 32422 recurrent_layer.cpp:150] Adding parameter 0: W_xc
I0925 21:34:39.125640 32422 recurrent_layer.cpp:150] Adding parameter 1: b_c
I0925 21:34:39.125649 32422 recurrent_layer.cpp:150] Adding parameter 2: W_hc
I0925 21:34:39.142870 32422 net.cpp:141] Setting up lstm1
I0925 21:34:39.142936 32422 net.cpp:148] Top shape: 1 1 1000 (1000)
I0925 21:34:39.142951 32422 net.cpp:156] Memory required for data: 26408
I0925 21:34:39.142992 32422 layer_factory.hpp:77] Creating layer concat
I0925 21:34:39.143023 32422 net.cpp:91] Creating Layer concat
I0925 21:34:39.143039 32422 net.cpp:425] concat <- lstm1
I0925 21:34:39.143056 32422 net.cpp:425] concat <- embedded_input_sentence
I0925 21:34:39.143069 32422 net.cpp:425] concat <- reshaped_stage_indicator
I0925 21:34:39.143087 32422 net.cpp:399] concat -> lstm1_video_sequence
I0925 21:34:39.143199 32422 net.cpp:141] Setting up concat
I0925 21:34:39.143221 32422 net.cpp:148] Top shape: 1 1 1501 (1501)
I0925 21:34:39.143231 32422 net.cpp:156] Memory required for data: 32412
I0925 21:34:39.143244 32422 layer_factory.hpp:77] Creating layer lstm2
I0925 21:34:39.143272 32422 net.cpp:91] Creating Layer lstm2
I0925 21:34:39.143285 32422 net.cpp:425] lstm2 <- lstm1_video_sequence
I0925 21:34:39.143298 32422 net.cpp:425] lstm2 <- cont_sentence_input_1_split_1
I0925 21:34:39.143314 32422 net.cpp:399] lstm2 -> lstm2
I0925 21:34:39.143337 32422 recurrent_layer.cpp:20] Initializing recurrent layer: assuming input batch contains 1 timesteps of 1 independent streams.
I0925 21:34:39.143862 32422 net.cpp:49] Initializing net from parameters: 
layer {
  name: "lstm2_"
  type: "Input"
  top: "x"
  top: "cont"
  input_param {
    shape {
      dim: 1
      dim: 1
      dim: 1501
    }
    shape {
      dim: 1
      dim: 1
    }
  }
}
layer {
  name: "lstm2_"
  type: "Input"
  top: "c_0"
  top: "h_0"
  input_param {
    shape {
      dim: 1
      dim: 1
      dim: 1000
    }
    shape {
      dim: 1
      dim: 1
      dim: 1000
    }
  }
}
layer {
  name: "lstm2_cont_slice"
  type: "Slice"
  bottom: "cont"
  top: "cont_1"
  slice_param {
    axis: 0
  }
}
layer {
  name: "lstm2_x_transform"
  type: "InnerProduct"
  bottom: "x"
  top: "W_xc_x"
  param {
    name: "W_xc"
  }
  param {
    name: "b_c"
  }
  propagate_down: true
  inner_product_param {
    num_output: 4000
    bias_term: true
    weight_filler {
      type: "uniform"
      min: -0.08
      max: 0.08
    }
    bias_filler {
      type: "constant"
      value: 0
    }
    axis: 2
  }
}
layer {
  name: "lstm2_W_xc_x_slice"
  type: "Slice"
  bottom: "W_xc_x"
  top: "W_xc_x_1"
  slice_param {
    axis: 0
  }
}
layer {
  name: "lstm2_h_conted_0"
  type: "Scale"
  bottom: "h_0"
  bottom: "cont_1"
  top: "h_conted_0"
  scale_param {
    axis: 0
  }
}
layer {
  name: "lstm2_transform_1"
  type: "InnerProduct"
  bottom: "h_conted_0"
  top: "W_hc_h_0"
  param {
    name: "W_hc"
  }
  inner_product_param {
    num_output: 4000
    bias_term: false
    weight_filler {
      type: "uniform"
      min: -0.08
      max: 0.08
    }
    axis: 2
  }
}
layer {
  name: "lstm2_gate_input_1"
  type: "Eltwise"
  bottom: "W_hc_h_0"
  bottom: "W_xc_x_1"
  top: "gate_input_1"
  eltwise_param {
    operation: SUM
  }
}
layer {
  name: "lstm2_unit_1"
  type: "LSTMUnit"
  bottom: "c_0"
  bottom: "gate_input_1"
  bottom: "cont_1"
  top: "c_1"
  top: "h_1"
}
layer {
  name: "lstm2_"
  type: "Split"
  bottom: "c_1"
  top: "c_T"
}
layer {
  name: "lstm2_h_concat"
  type: "Concat"
  bottom: "h_1"
  top: "h"
  concat_param {
    axis: 0
  }
}
layer {
  name: "h_pseudoloss"
  type: "Reduction"
  bottom: "h"
  top: "h_pseudoloss"
  loss_weight: 1
}
I0925 21:34:39.144073 32422 layer_factory.hpp:77] Creating layer lstm2_
I0925 21:34:39.144095 32422 net.cpp:91] Creating Layer lstm2_
I0925 21:34:39.144107 32422 net.cpp:399] lstm2_ -> x
I0925 21:34:39.144135 32422 net.cpp:399] lstm2_ -> cont
I0925 21:34:39.149739 32422 net.cpp:141] Setting up lstm2_
I0925 21:34:39.149801 32422 net.cpp:148] Top shape: 1 1 1501 (1501)
I0925 21:34:39.149812 32422 net.cpp:148] Top shape: 1 1 (1)
I0925 21:34:39.149821 32422 net.cpp:156] Memory required for data: 6008
I0925 21:34:39.149838 32422 layer_factory.hpp:77] Creating layer lstm2_
I0925 21:34:39.149873 32422 net.cpp:91] Creating Layer lstm2_
I0925 21:34:39.149917 32422 net.cpp:399] lstm2_ -> c_0
I0925 21:34:39.149950 32422 net.cpp:399] lstm2_ -> h_0
I0925 21:34:39.155153 32422 net.cpp:141] Setting up lstm2_
I0925 21:34:39.155184 32422 net.cpp:148] Top shape: 1 1 1000 (1000)
I0925 21:34:39.155200 32422 net.cpp:148] Top shape: 1 1 1000 (1000)
I0925 21:34:39.155208 32422 net.cpp:156] Memory required for data: 14008
I0925 21:34:39.155216 32422 layer_factory.hpp:77] Creating layer lstm2_cont_slice
I0925 21:34:39.155236 32422 net.cpp:91] Creating Layer lstm2_cont_slice
I0925 21:34:39.155242 32422 net.cpp:425] lstm2_cont_slice <- cont
I0925 21:34:39.155256 32422 net.cpp:399] lstm2_cont_slice -> cont_1
I0925 21:34:39.155334 32422 net.cpp:141] Setting up lstm2_cont_slice
I0925 21:34:39.155349 32422 net.cpp:148] Top shape: 1 1 (1)
I0925 21:34:39.155354 32422 net.cpp:156] Memory required for data: 14012
I0925 21:34:39.155359 32422 layer_factory.hpp:77] Creating layer cont_1_lstm2_cont_slice_0_split
I0925 21:34:39.155385 32422 net.cpp:91] Creating Layer cont_1_lstm2_cont_slice_0_split
I0925 21:34:39.155395 32422 net.cpp:425] cont_1_lstm2_cont_slice_0_split <- cont_1
I0925 21:34:39.155405 32422 net.cpp:399] cont_1_lstm2_cont_slice_0_split -> cont_1_lstm2_cont_slice_0_split_0
I0925 21:34:39.155416 32422 net.cpp:399] cont_1_lstm2_cont_slice_0_split -> cont_1_lstm2_cont_slice_0_split_1
I0925 21:34:39.160071 32422 net.cpp:141] Setting up cont_1_lstm2_cont_slice_0_split
I0925 21:34:39.160125 32422 net.cpp:148] Top shape: 1 1 (1)
I0925 21:34:39.160142 32422 net.cpp:148] Top shape: 1 1 (1)
I0925 21:34:39.160152 32422 net.cpp:156] Memory required for data: 14020
I0925 21:34:39.160166 32422 layer_factory.hpp:77] Creating layer lstm2_x_transform
I0925 21:34:39.160209 32422 net.cpp:91] Creating Layer lstm2_x_transform
I0925 21:34:39.160225 32422 net.cpp:425] lstm2_x_transform <- x
I0925 21:34:39.160249 32422 net.cpp:399] lstm2_x_transform -> W_xc_x
I0925 21:34:39.175731 32426 net.cpp:141] Setting up lstm1_transform_1
I0925 21:34:39.175792 32426 net.cpp:148] Top shape: 1 1 4000 (4000)
I0925 21:34:39.175799 32426 net.cpp:156] Memory required for data: 62016
I0925 21:34:39.175825 32426 layer_factory.hpp:77] Creating layer lstm1_gate_input_1
I0925 21:34:39.175850 32426 net.cpp:91] Creating Layer lstm1_gate_input_1
I0925 21:34:39.175859 32426 net.cpp:425] lstm1_gate_input_1 <- W_hc_h_0
I0925 21:34:39.175868 32426 net.cpp:425] lstm1_gate_input_1 <- W_xc_x_1
I0925 21:34:39.175879 32426 net.cpp:399] lstm1_gate_input_1 -> gate_input_1
I0925 21:34:39.175894 32446 net.cpp:141] Setting up lstm1_x_transform
I0925 21:34:39.175935 32446 net.cpp:148] Top shape: 1 1 4000 (4000)
I0925 21:34:39.175943 32446 net.cpp:156] Memory required for data: 26016
I0925 21:34:39.175958 32426 net.cpp:141] Setting up lstm1_gate_input_1
I0925 21:34:39.175967 32446 layer_factory.hpp:77] Creating layer lstm1_W_xc_x_slice
I0925 21:34:39.175971 32426 net.cpp:148] Top shape: 1 1 4000 (4000)
I0925 21:34:39.175977 32426 net.cpp:156] Memory required for data: 78016
I0925 21:34:39.175982 32426 layer_factory.hpp:77] Creating layer lstm1_unit_1
I0925 21:34:39.175989 32446 net.cpp:91] Creating Layer lstm1_W_xc_x_slice
I0925 21:34:39.175997 32426 net.cpp:91] Creating Layer lstm1_unit_1
I0925 21:34:39.175998 32446 net.cpp:425] lstm1_W_xc_x_slice <- W_xc_x
I0925 21:34:39.176003 32426 net.cpp:425] lstm1_unit_1 <- c_0
I0925 21:34:39.176010 32446 net.cpp:399] lstm1_W_xc_x_slice -> W_xc_x_1
I0925 21:34:39.176012 32426 net.cpp:425] lstm1_unit_1 <- gate_input_1
I0925 21:34:39.176034 32426 net.cpp:425] lstm1_unit_1 <- cont_1_lstm1_cont_slice_0_split_1
I0925 21:34:39.176043 32426 net.cpp:399] lstm1_unit_1 -> c_1
I0925 21:34:39.176053 32426 net.cpp:399] lstm1_unit_1 -> h_1
I0925 21:34:39.176280 32446 net.cpp:141] Setting up lstm1_W_xc_x_slice
I0925 21:34:39.176295 32446 net.cpp:148] Top shape: 1 1 4000 (4000)
I0925 21:34:39.176301 32446 net.cpp:156] Memory required for data: 42016
I0925 21:34:39.176306 32446 layer_factory.hpp:77] Creating layer lstm1_h_conted_0
I0925 21:34:39.176317 32446 net.cpp:91] Creating Layer lstm1_h_conted_0
I0925 21:34:39.176324 32446 net.cpp:425] lstm1_h_conted_0 <- h_0
I0925 21:34:39.176331 32446 net.cpp:425] lstm1_h_conted_0 <- cont_1_lstm1_cont_slice_0_split_0
I0925 21:34:39.176344 32446 net.cpp:399] lstm1_h_conted_0 -> h_conted_0
I0925 21:34:39.176376 32426 net.cpp:141] Setting up lstm1_unit_1
I0925 21:34:39.176389 32426 net.cpp:148] Top shape: 1 1 1000 (1000)
I0925 21:34:39.176396 32426 net.cpp:148] Top shape: 1 1 1000 (1000)
I0925 21:34:39.176401 32426 net.cpp:156] Memory required for data: 86016
I0925 21:34:39.176408 32426 layer_factory.hpp:77] Creating layer lstm1_
I0925 21:34:39.176417 32426 net.cpp:91] Creating Layer lstm1_
I0925 21:34:39.176422 32426 net.cpp:425] lstm1_ <- c_1
I0925 21:34:39.176430 32426 net.cpp:399] lstm1_ -> c_T
I0925 21:34:39.176496 32446 net.cpp:141] Setting up lstm1_h_conted_0
I0925 21:34:39.176508 32446 net.cpp:148] Top shape: 1 1 1000 (1000)
I0925 21:34:39.176513 32446 net.cpp:156] Memory required for data: 46016
I0925 21:34:39.176518 32446 layer_factory.hpp:77] Creating layer lstm1_transform_1
I0925 21:34:39.176537 32446 net.cpp:91] Creating Layer lstm1_transform_1
I0925 21:34:39.176544 32446 net.cpp:425] lstm1_transform_1 <- h_conted_0
I0925 21:34:39.176542 32426 net.cpp:141] Setting up lstm1_
I0925 21:34:39.176558 32446 net.cpp:399] lstm1_transform_1 -> W_hc_h_0
I0925 21:34:39.176565 32426 net.cpp:148] Top shape: 1 1 1000 (1000)
I0925 21:34:39.176571 32426 net.cpp:156] Memory required for data: 90016
I0925 21:34:39.176578 32426 layer_factory.hpp:77] Creating layer lstm1_h_concat
I0925 21:34:39.176591 32426 net.cpp:91] Creating Layer lstm1_h_concat
I0925 21:34:39.176599 32426 net.cpp:425] lstm1_h_concat <- h_1
I0925 21:34:39.176606 32426 net.cpp:399] lstm1_h_concat -> h
I0925 21:34:39.193781 32440 net.cpp:141] Setting up embedding
I0925 21:34:39.193846 32440 net.cpp:148] Top shape: 1 1 500 (500)
I0925 21:34:39.193858 32440 net.cpp:156] Memory required for data: 22408
I0925 21:34:39.193888 32440 layer_factory.hpp:77] Creating layer lstm1
I0925 21:34:39.193900 32426 net.cpp:141] Setting up lstm1_h_concat
I0925 21:34:39.193922 32440 net.cpp:91] Creating Layer lstm1
I0925 21:34:39.193939 32440 net.cpp:425] lstm1 <- embedded_input_frames
I0925 21:34:39.193944 32426 net.cpp:148] Top shape: 1 1 1000 (1000)
I0925 21:34:39.193953 32426 net.cpp:156] Memory required for data: 94016
I0925 21:34:39.193954 32440 net.cpp:425] lstm1 <- cont_sentence_input_1_split_0
I0925 21:34:39.193963 32426 layer_factory.hpp:77] Creating layer h_pseudoloss
I0925 21:34:39.193972 32440 net.cpp:399] lstm1 -> lstm1
I0925 21:34:39.193984 32426 net.cpp:91] Creating Layer h_pseudoloss
I0925 21:34:39.193996 32426 net.cpp:425] h_pseudoloss <- h
I0925 21:34:39.194001 32440 recurrent_layer.cpp:20] Initializing recurrent layer: assuming input batch contains 1 timesteps of 1 independent streams.
I0925 21:34:39.194017 32426 net.cpp:399] h_pseudoloss -> h_pseudoloss
I0925 21:34:39.194473 32440 net.cpp:49] Initializing net from parameters: 
layer {
  name: "lstm1_"
  type: "Input"
  top: "x"
  top: "cont"
  input_param {
    shape {
      dim: 1
      dim: 1
      dim: 500
    }
    shape {
      dim: 1
      dim: 1
    }
  }
}
layer {
  name: "lstm1_"
  type: "Input"
  top: "c_0"
  top: "h_0"
  input_param {
    shape {
      dim: 1
      dim: 1
      dim: 1000
    }
    shape {
      dim: 1
      dim: 1
      dim: 1000
    }
  }
}
layer {
  name: "lstm1_cont_slice"
  type: "Slice"
  bottom: "cont"
  top: "cont_1"
  slice_param {
    axis: 0
  }
}
layer {
  name: "lstm1_x_transform"
  type: "InnerProduct"
  bottom: "x"
  top: "W_xc_x"
  param {
    name: "W_xc"
  }
  param {
    name: "b_c"
  }
  propagate_down: true
  inner_product_param {
    num_output: 4000
    bias_term: true
    weight_filler {
      type: "uniform"
      min: -0.08
      max: 0.08
    }
    bias_filler {
      type: "constant"
      value: 0
    }
    axis: 2
  }
}
layer {
  name: "lstm1_W_xc_x_slice"
  type: "Slice"
  bottom: "W_xc_x"
  top: "W_xc_x_1"
  slice_param {
    axis: 0
  }
}
layer {
  name: "lstm1_h_conted_0"
  type: "Scale"
  bottom: "h_0"
  bottom: "cont_1"
  top: "h_conted_0"
  scale_param {
    axis: 0
  }
}
layer {
  name: "lstm1_transform_1"
  type: "InnerProduct"
  bottom: "h_conted_0"
  top: "W_hc_h_0"
  param {
    name: "W_hc"
  }
  inner_product_param {
    num_output: 4000
    bias_term: false
    weight_filler {
      type: "uniform"
      min: -0.08
      max: 0.08
    }
    axis: 2
  }
}
layer {
  name: "lstm1_gate_input_1"
  type: "Eltwise"
  bottom: "W_hc_h_0"
  bottom: "W_xc_x_1"
  top: "gate_input_1"
  eltwise_param {
    operation: SUM
  }
}
layer {
  name: "lstm1_unit_1"
  type: "LSTMUnit"
  bottom: "c_0"
  bottom: "gate_input_1"
  bottom: "cont_1"
  top: "c_1"
  top: "h_1"
}
layer {
  name: "lstm1_"
  type: "Split"
  bottom: "c_1"
  top: "c_T"
}
layer {
  name: "lstm1_h_concat"
  type: "Concat"
  bottom: "h_1"
  top: "h"
  concat_param {
    axis: 0
  }
}
layer {
  name: "h_pseudoloss"
  type: "Reduction"
  bottom: "h"
  top: "h_pseudoloss"
  loss_weight: 1
}
I0925 21:34:39.194648 32440 layer_factory.hpp:77] Creating layer lstm1_
I0925 21:34:39.194671 32440 net.cpp:91] Creating Layer lstm1_
I0925 21:34:39.194684 32440 net.cpp:399] lstm1_ -> x
I0925 21:34:39.194705 32440 net.cpp:399] lstm1_ -> cont
I0925 21:34:39.197439 32426 net.cpp:141] Setting up h_pseudoloss
I0925 21:34:39.197470 32426 net.cpp:148] Top shape: (1)
…
I0925 21:34:39.197569 32426 net.cpp:219] cont_1_lstm1_cont_slice_0_split does not need backward computation.
I0925 21:34:39.197577 32426 net.cpp:219] lstm1_cont_slice does not need backward computation.
I0925 21:34:39.197589 32426 net.cpp:219] lstm1_ does not need backward computation.
I0925 21:34:39.197597 32426 net.cpp:219] lstm1_ does not need backward computation.
I0925 21:34:39.197600 32426 net.cpp:261] This network produces output c_T
I0925 21:34:39.197607 32426 net.cpp:261] This network produces output h_pseudoloss
I0925 21:34:39.197629 32426 net.cpp:274] Network initialization done.
I0925 21:34:39.197616 32440 net.cpp:141] Setting up lstm1_
I0925 21:34:39.197680 32440 net.cpp:148] Top shape: 1 1 500 (500)
I0925 21:34:39.197695 32440 net.cpp:148] Top shape: 1 1 (1)
I0925 21:34:39.197703 32440 net.cpp:156] Memory required for data: 2004
I0925 21:34:39.197712 32426 recurrent_layer.cpp:150] Adding parameter 0: W_xc
I0925 21:34:39.197716 32440 layer_factory.hpp:77] Creating layer lstm1_
I0925 21:34:39.197724 32426 recurrent_layer.cpp:150] Adding parameter 1: b_c
I0925 21:34:39.197731 32426 recurrent_layer.cpp:150] Adding parameter 2: W_hc
I0925 21:34:39.197752 32440 net.cpp:91] Creating Layer lstm1_
I0925 21:34:39.197768 32440 net.cpp:399] lstm1_ -> c_0
I0925 21:34:39.197794 32440 net.cpp:399] lstm1_ -> h_0
I0925 21:34:39.203166 32440 net.cpp:141] Setting up lstm1_
I0925 21:34:39.203248 32426 net.cpp:141] Setting up lstm1
I0925 21:34:39.203270 32440 net.cpp:148] Top shape: 1 1 1000 (1000)
I0925 21:34:39.203289 32440 net.cpp:148] Top shape: 1 1 1000 (1000)
I0925 21:34:39.203289 32426 net.cpp:148] Top shape: 1 1 1000 (1000)
I0925 21:34:39.203296 32440 net.cpp:156] Memory required for data: 10004
I0925 21:34:39.203304 32426 net.cpp:156] Memory required for data: 26408
I0925 21:34:39.203310 32440 layer_factory.hpp:77] Creating layer lstm1_cont_slice
I0925 21:34:39.203333 32440 net.cpp:91] Creating Layer lstm1_cont_slice
I0925 21:34:39.203341 32426 layer_factory.hpp:77] Creating layer concat
I0925 21:34:39.203346 32440 net.cpp:425] lstm1_cont_slice <- cont
I0925 21:34:39.203388 32426 net.cpp:91] Creating Layer concat
I0925 21:34:39.203397 32440 net.cpp:399] lstm1_cont_slice -> cont_1
I0925 21:34:39.203407 32426 net.cpp:425] concat <- lstm1
I0925 21:34:39.203423 32426 net.cpp:425] concat <- embedded_input_sentence
I0925 21:34:39.203438 32426 net.cpp:425] concat <- reshaped_stage_indicator
I0925 21:34:39.203456 32426 net.cpp:399] concat -> lstm1_video_sequence
I0925 21:34:39.203663 32440 net.cpp:141] Setting up lstm1_cont_slice
I0925 21:34:39.203681 32440 net.cpp:148] Top shape: 1 1 (1)
I0925 21:34:39.203691 32440 net.cpp:156] Memory required for data: 10008
I0925 21:34:39.203699 32440 layer_factory.hpp:77] Creating layer cont_1_lstm1_cont_slice_0_split
I0925 21:34:39.203717 32440 net.cpp:91] Creating Layer cont_1_lstm1_cont_slice_0_split
I0925 21:34:39.203727 32440 net.cpp:425] cont_1_lstm1_cont_slice_0_split <- cont_1
I0925 21:34:39.203735 32426 net.cpp:141] Setting up concat
I0925 21:34:39.203740 32440 net.cpp:399] cont_1_lstm1_cont_slice_0_split -> cont_1_lstm1_cont_slice_0_split_0
I0925 21:34:39.203765 32426 net.cpp:148] Top shape: 1 1 1501 (1501)
I0925 21:34:39.203779 32426 net.cpp:156] Memory required for data: 32412
I0925 21:34:39.203779 32440 net.cpp:399] cont_1_lstm1_cont_slice_0_split -> cont_1_lstm1_cont_slice_0_split_1
I0925 21:34:39.203799 32426 layer_factory.hpp:77] Creating layer lstm2
I0925 21:34:39.203829 32426 net.cpp:91] Creating Layer lstm2
I0925 21:34:39.203843 32426 net.cpp:425] lstm2 <- lstm1_video_sequence
I0925 21:34:39.203856 32426 net.cpp:425] lstm2 <- cont_sentence_input_1_split_1
I0925 21:34:39.203874 32426 net.cpp:399] lstm2 -> lstm2
I0925 21:34:39.203898 32426 recurrent_layer.cpp:20] Initializing recurrent layer: assuming input batch contains 1 timesteps of 1 independent streams.
I0925 21:34:39.204416 32426 net.cpp:49] Initializing net from parameters: 
layer {
  name: "lstm2_"
  type: "Input"
  top: "x"
  top: "cont"
  input_param {
    shape {
      dim: 1
      dim: 1
      dim: 1501
    }
    shape {
      dim: 1
      dim: 1
    }
  }
}
layer {
  name: "lstm2_"
  type: "Input"
  top: "c_0"
  top: "h_0"
  input_param {
    shape {
      dim: 1
      dim: 1
      dim: 1000
    }
    shape {
      dim: 1
      dim: 1
      dim: 1000
    }
  }
}
layer {
  name: "lstm2_cont_slice"
  type: "Slice"
  bottom: "cont"
  top: "cont_1"
  slice_param {
    axis: 0
  }
}
layer {
  name: "lstm2_x_transform"
  type: "InnerProduct"
  bottom: "x"
  top: "W_xc_x"
  param {
    name: "W_xc"
  }
  param {
    name: "b_c"
  }
  propagate_down: true
  inner_product_param {
    num_output: 4000
    bias_term: true
    weight_filler {
      type: "uniform"
      min: -0.08
      max: 0.08
    }
    bias_filler {
      type: "constant"
      value: 0
    }
    axis: 2
  }
}
layer {
  name: "lstm2_W_xc_x_slice"
  type: "Slice"
  bottom: "W_xc_x"
  top: "W_xc_x_1"
  slice_param {
    axis: 0
  }
}
layer {
  name: "lstm2_h_conted_0"
  type: "Scale"
  bottom: "h_0"
  bottom: "cont_1"
  top: "h_conted_0"
  scale_param {
    axis: 0
  }
}
layer {
  name: "lstm2_transform_1"
  type: "InnerProduct"
  bottom: "h_conted_0"
  top: "W_hc_h_0"
  param {
    name: "W_hc"
  }
  inner_product_param {
    num_output: 4000
    bias_term: false
    weight_filler {
      type: "uniform"
      min: -0.08
      max: 0.08
    }
    axis: 2
  }
}
layer {
  name: "lstm2_gate_input_1"
  type: "Eltwise"
  bottom: "W_hc_h_0"
  bottom: "W_xc_x_1"
  top: "gate_input_1"
  eltwise_param {
    operation: SUM
  }
}
layer {
  name: "lstm2_unit_1"
  type: "LSTMUnit"
  bottom: "c_0"
  bottom: "gate_input_1"
  bottom: "cont_1"
  top: "c_1"
  top: "h_1"
}
layer {
  name: "lstm2_"
  type: "Split"
  bottom: "c_1"
  top: "c_T"
}
layer {
  name: "lstm2_h_concat"
  type: "Concat"
  bottom: "h_1"
  top: "h"
  concat_param {
    axis: 0
  }
}
layer {
  name: "h_pseudoloss"
  type: "Reduction"
  bottom: "h"
  top: "h_pseudoloss"
  loss_weight: 1
}
I0925 21:34:39.204593 32426 layer_factory.hpp:77] Creating layer lstm2_
I0925 21:34:39.204618 32426 net.cpp:91] Creating Layer lstm2_
I0925 21:34:39.204635 32426 net.cpp:399] lstm2_ -> x
I0925 21:34:39.204658 32426 net.cpp:399] lstm2_ -> cont
I0925 21:34:39.206356 32440 net.cpp:141] Setting up cont_1_lstm1_cont_slice_0_split
I0925 21:34:39.206377 32440 net.cpp:148] Top shape: 1 1 (1)
I0925 21:34:39.206388 32440 net.cpp:148] Top shape: 1 1 (1)
I0925 21:34:39.206398 32440 net.cpp:156] Memory required for data: 10016
I0925 21:34:39.206406 32440 layer_factory.hpp:77] Creating layer lstm1_x_transform
I0925 21:34:39.206509 32440 net.cpp:91] Creating Layer lstm1_x_transform
I0925 21:34:39.206523 32440 net.cpp:425] lstm1_x_transform <- x
I0925 21:34:39.206544 32440 net.cpp:399] lstm1_x_transform -> W_xc_x
I0925 21:34:39.208652 32426 net.cpp:141] Setting up lstm2_
I0925 21:34:39.208693 32426 net.cpp:148] Top shape: 1 1 1501 (1501)
I0925 21:34:39.208706 32426 net.cpp:148] Top shape: 1 1 (1)
I0925 21:34:39.208714 32426 net.cpp:156] Memory required for data: 6008
I0925 21:34:39.208727 32426 layer_factory.hpp:77] Creating layer lstm2_
I0925 21:34:39.208755 32426 net.cpp:91] Creating Layer lstm2_
I0925 21:34:39.208767 32426 net.cpp:399] lstm2_ -> c_0
I0925 21:34:39.208791 32426 net.cpp:399] lstm2_ -> h_0
I0925 21:34:39.218869 32426 net.cpp:141] Setting up lstm2_
I0925 21:34:39.218935 32426 net.cpp:148] Top shape: 1 1 1000 (1000)
I0925 21:34:39.218955 32426 net.cpp:148] Top shape: 1 1 1000 (1000)
I0925 21:34:39.218964 32426 net.cpp:156] Memory required for data: 14008
I0925 21:34:39.218981 32426 layer_factory.hpp:77] Creating layer lstm2_cont_slice
I0925 21:34:39.219015 32426 net.cpp:91] Creating Layer lstm2_cont_slice
I0925 21:34:39.219032 32426 net.cpp:425] lstm2_cont_slice <- cont
I0925 21:34:39.219061 32426 net.cpp:399] lstm2_cont_slice -> cont_1
I0925 21:34:39.222008 32426 net.cpp:141] Setting up lstm2_cont_slice
I0925 21:34:39.222033 32426 net.cpp:148] Top shape: 1 1 (1)
I0925 21:34:39.222043 32426 net.cpp:156] Memory required for data: 14012
I0925 21:34:39.222054 32426 layer_factory.hpp:77] Creating layer cont_1_lstm2_cont_slice_0_split
I0925 21:34:39.222072 32426 net.cpp:91] Creating Layer cont_1_lstm2_cont_slice_0_split
I0925 21:34:39.222084 32426 net.cpp:425] cont_1_lstm2_cont_slice_0_split <- cont_1
I0925 21:34:39.222100 32426 net.cpp:399] cont_1_lstm2_cont_slice_0_split -> cont_1_lstm2_cont_slice_0_split_0
I0925 21:34:39.222120 32426 net.cpp:399] cont_1_lstm2_cont_slice_0_split -> cont_1_lstm2_cont_slice_0_split_1
I0925 21:34:39.223187 32426 net.cpp:141] Setting up cont_1_lstm2_cont_slice_0_split
I0925 21:34:39.223212 32426 net.cpp:148] Top shape: 1 1 (1)
I0925 21:34:39.223225 32426 net.cpp:148] Top shape: 1 1 (1)
I0925 21:34:39.223237 32426 net.cpp:156] Memory required for data: 14020
I0925 21:34:39.223247 32426 layer_factory.hpp:77] Creating layer lstm2_x_transform
I0925 21:34:39.223280 32426 net.cpp:91] Creating Layer lstm2_x_transform
I0925 21:34:39.223294 32426 net.cpp:425] lstm2_x_transform <- x
I0925 21:34:39.223315 32426 net.cpp:399] lstm2_x_transform -> W_xc_x
I0925 21:34:39.243589 32422 net.cpp:141] Setting up lstm2_x_transform
I0925 21:34:39.243657 32422 net.cpp:148] Top shape: 1 1 4000 (4000)
I0925 21:34:39.243669 32422 net.cpp:156] Memory required for data: 30020
I0925 21:34:39.243705 32422 layer_factory.hpp:77] Creating layer lstm2_W_xc_x_slice
I0925 21:34:39.243733 32422 net.cpp:91] Creating Layer lstm2_W_xc_x_slice
I0925 21:34:39.243747 32422 net.cpp:425] lstm2_W_xc_x_slice <- W_xc_x
I0925 21:34:39.243764 32422 net.cpp:399] lstm2_W_xc_x_slice -> W_xc_x_1
I0925 21:34:39.243882 32422 net.cpp:141] Setting up lstm2_W_xc_x_slice
I0925 21:34:39.243906 32422 net.cpp:148] Top shape: 1 1 4000 (4000)
I0925 21:34:39.243916 32422 net.cpp:156] Memory required for data: 46020
I0925 21:34:39.243927 32422 layer_factory.hpp:77] Creating layer lstm2_h_conted_0
I0925 21:34:39.243945 32422 net.cpp:91] Creating Layer lstm2_h_conted_0
I0925 21:34:39.243957 32422 net.cpp:425] lstm2_h_conted_0 <- h_0
I0925 21:34:39.243968 32422 net.cpp:425] lstm2_h_conted_0 <- cont_1_lstm2_cont_slice_0_split_0
I0925 21:34:39.243983 32422 net.cpp:399] lstm2_h_conted_0 -> h_conted_0
I0925 21:34:39.244009 32446 net.cpp:141] Setting up lstm1_transform_1
I0925 21:34:39.244053 32446 net.cpp:148] Top shape: 1 1 4000 (4000)
I0925 21:34:39.244062 32446 net.cpp:156] Memory required for data: 62016
I0925 21:34:39.244088 32446 layer_factory.hpp:77] Creating layer lstm1_gate_input_1
I0925 21:34:39.244120 32446 net.cpp:91] Creating Layer lstm1_gate_input_1
I0925 21:34:39.244133 32446 net.cpp:425] lstm1_gate_input_1 <- W_hc_h_0
I0925 21:34:39.244146 32446 net.cpp:425] lstm1_gate_input_1 <- W_xc_x_1
I0925 21:34:39.244165 32446 net.cpp:399] lstm1_gate_input_1 -> gate_input_1
I0925 21:34:39.244369 32440 net.cpp:141] Setting up lstm1_x_transform
I0925 21:34:39.244392 32440 net.cpp:148] Top shape: 1 1 4000 (4000)
I0925 21:34:39.244402 32440 net.cpp:156] Memory required for data: 26016
I0925 21:34:39.244424 32440 layer_factory.hpp:77] Creating layer lstm1_W_xc_x_slice
I0925 21:34:39.244442 32440 net.cpp:91] Creating Layer lstm1_W_xc_x_slice
I0925 21:34:39.244454 32440 net.cpp:425] lstm1_W_xc_x_slice <- W_xc_x
I0925 21:34:39.244469 32440 net.cpp:399] lstm1_W_xc_x_slice -> W_xc_x_1
I0925 21:34:39.244547 32422 net.cpp:141] Setting up lstm2_h_conted_0
I0925 21:34:39.244570 32422 net.cpp:148] Top shape: 1 1 1000 (1000)
I0925 21:34:39.244580 32422 net.cpp:156] Memory required for data: 50020
I0925 21:34:39.244590 32422 layer_factory.hpp:77] Creating layer lstm2_transform_1
I0925 21:34:39.244604 32446 net.cpp:141] Setting up lstm1_gate_input_1
I0925 21:34:39.244612 32422 net.cpp:91] Creating Layer lstm2_transform_1
I0925 21:34:39.244626 32422 net.cpp:425] lstm2_transform_1 <- h_conted_0
I0925 21:34:39.244629 32446 net.cpp:148] Top shape: 1 1 4000 (4000)
I0925 21:34:39.244639 32446 net.cpp:156] Memory required for data: 78016
I0925 21:34:39.244643 32422 net.cpp:399] lstm2_transform_1 -> W_hc_h_0
I0925 21:34:39.244649 32446 layer_factory.hpp:77] Creating layer lstm1_unit_1
I0925 21:34:39.244671 32446 net.cpp:91] Creating Layer lstm1_unit_1
I0925 21:34:39.244683 32446 net.cpp:425] lstm1_unit_1 <- c_0
I0925 21:34:39.244695 32446 net.cpp:425] lstm1_unit_1 <- gate_input_1
I0925 21:34:39.244706 32446 net.cpp:425] lstm1_unit_1 <- cont_1_lstm1_cont_slice_0_split_1
I0925 21:34:39.244721 32446 net.cpp:399] lstm1_unit_1 -> c_1
I0925 21:34:39.244740 32446 net.cpp:399] lstm1_unit_1 -> h_1
I0925 21:34:39.244906 32446 net.cpp:141] Setting up lstm1_unit_1
I0925 21:34:39.244927 32446 net.cpp:148] Top shape: 1 1 1000 (1000)
I0925 21:34:39.244940 32446 net.cpp:148] Top shape: 1 1 1000 (1000)
I0925 21:34:39.244948 32446 net.cpp:156] Memory required for data: 86016
I0925 21:34:39.244957 32446 layer_factory.hpp:77] Creating layer lstm1_
I0925 21:34:39.244973 32446 net.cpp:91] Creating Layer lstm1_
I0925 21:34:39.244982 32446 net.cpp:425] lstm1_ <- c_1
I0925 21:34:39.245028 32446 net.cpp:399] lstm1_ -> c_T
I0925 21:34:39.257529 32440 net.cpp:141] Setting up lstm1_W_xc_x_slice
I0925 21:34:39.257594 32440 net.cpp:148] Top shape: 1 1 4000 (4000)
I0925 21:34:39.257604 32440 net.cpp:156] Memory required for data: 42016
I0925 21:34:39.257616 32440 layer_factory.hpp:77] Creating layer lstm1_h_conted_0
I0925 21:34:39.257624 32446 net.cpp:141] Setting up lstm1_
I0925 21:34:39.257645 32440 net.cpp:91] Creating Layer lstm1_h_conted_0
I0925 21:34:39.257683 32446 net.cpp:148] Top shape: 1 1 1000 (1000)
I0925 21:34:39.257691 32440 net.cpp:425] lstm1_h_conted_0 <- h_0
I0925 21:34:39.257693 32446 net.cpp:156] Memory required for data: 90016
I0925 21:34:39.257716 32440 net.cpp:425] lstm1_h_conted_0 <- cont_1_lstm1_cont_slice_0_split_0
I0925 21:34:39.257725 32446 layer_factory.hpp:77] Creating layer lstm1_h_concat
I0925 21:34:39.257730 32440 net.cpp:399] lstm1_h_conted_0 -> h_conted_0
I0925 21:34:39.257750 32446 net.cpp:91] Creating Layer lstm1_h_concat
I0925 21:34:39.257761 32446 net.cpp:425] lstm1_h_concat <- h_1
I0925 21:34:39.257778 32446 net.cpp:399] lstm1_h_concat -> h
I0925 21:34:39.266105 32446 net.cpp:141] Setting up lstm1_h_concat
I0925 21:34:39.266151 32446 net.cpp:148] Top shape: 1 1 1000 (1000)
I0925 21:34:39.266161 32446 net.cpp:156] Memory required for data: 94016
I0925 21:34:39.266175 32446 layer_factory.hpp:77] Creating layer h_pseudoloss
I0925 21:34:39.266201 32446 net.cpp:91] Creating Layer h_pseudoloss
I0925 21:34:39.266212 32446 net.cpp:425] h_pseudoloss <- h
I0925 21:34:39.266228 32446 net.cpp:399] h_pseudoloss -> h_pseudoloss
I0925 21:34:39.266270 32440 net.cpp:141] Setting up lstm1_h_conted_0
I0925 21:34:39.266312 32440 net.cpp:148] Top shape: 1 1 1000 (1000)
I0925 21:34:39.266319 32440 net.cpp:156] Memory required for data: 46016
I0925 21:34:39.266332 32440 layer_factory.hpp:77] Creating layer lstm1_transform_1
I0925 21:34:39.266358 32440 net.cpp:91] Creating Layer lstm1_transform_1
I0925 21:34:39.266367 32440 net.cpp:425] lstm1_transform_1 <- h_conted_0
I0925 21:34:39.266383 32440 net.cpp:399] lstm1_transform_1 -> W_hc_h_0
I0925 21:34:39.266443 32446 net.cpp:141] Setting up h_pseudoloss
…
I0925 21:34:39.266669 32446 net.cpp:219] lstm1_ does not need backward computation.
I0925 21:34:39.266677 32446 net.cpp:261] This network produces output c_T
I0925 21:34:39.266687 32446 net.cpp:261] This network produces output h_pseudoloss
I0925 21:34:39.266717 32446 net.cpp:274] Network initialization done.
I0925 21:34:39.266814 32446 recurrent_layer.cpp:150] Adding parameter 0: W_xc
I0925 21:34:39.266831 32446 recurrent_layer.cpp:150] Adding parameter 1: b_c
I0925 21:34:39.266840 32446 recurrent_layer.cpp:150] Adding parameter 2: W_hc
I0925 21:34:39.275259 32446 net.cpp:141] Setting up lstm1
I0925 21:34:39.275286 32446 net.cpp:148] Top shape: 1 1 1000 (1000)
I0925 21:34:39.275297 32446 net.cpp:156] Memory required for data: 26408
I0925 21:34:39.275326 32446 layer_factory.hpp:77] Creating layer concat
I0925 21:34:39.275348 32446 net.cpp:91] Creating Layer concat
I0925 21:34:39.275362 32446 net.cpp:425] concat <- lstm1
I0925 21:34:39.275374 32446 net.cpp:425] concat <- embedded_input_sentence
I0925 21:34:39.275387 32446 net.cpp:425] concat <- reshaped_stage_indicator
I0925 21:34:39.275401 32446 net.cpp:399] concat -> lstm1_video_sequence
I0925 21:34:39.275480 32446 net.cpp:141] Setting up concat
I0925 21:34:39.275501 32446 net.cpp:148] Top shape: 1 1 1501 (1501)
I0925 21:34:39.275511 32446 net.cpp:156] Memory required for data: 32412
I0925 21:34:39.275521 32446 layer_factory.hpp:77] Creating layer lstm2
I0925 21:34:39.275544 32446 net.cpp:91] Creating Layer lstm2
I0925 21:34:39.275557 32446 net.cpp:425] lstm2 <- lstm1_video_sequence
I0925 21:34:39.275569 32446 net.cpp:425] lstm2 <- cont_sentence_input_1_split_1
I0925 21:34:39.275588 32446 net.cpp:399] lstm2 -> lstm2
I0925 21:34:39.275609 32446 recurrent_layer.cpp:20] Initializing recurrent layer: assuming input batch contains 1 timesteps of 1 independent streams.
I0925 21:34:39.276087 32446 net.cpp:49] Initializing net from parameters: 
layer {
  name: "lstm2_"
  type: "Input"
  top: "x"
  top: "cont"
  input_param {
    shape {
      dim: 1
      dim: 1
      dim: 1501
    }
    shape {
      dim: 1
      dim: 1
    }
  }
}
layer {
  name: "lstm2_"
  type: "Input"
  top: "c_0"
  top: "h_0"
  input_param {
    shape {
      dim: 1
      dim: 1
      dim: 1000
    }
    shape {
      dim: 1
      dim: 1
      dim: 1000
    }
  }
}
layer {
  name: "lstm2_cont_slice"
  type: "Slice"
  bottom: "cont"
  top: "cont_1"
  slice_param {
    axis: 0
  }
}
layer {
  name: "lstm2_x_transform"
  type: "InnerProduct"
  bottom: "x"
  top: "W_xc_x"
  param {
    name: "W_xc"
  }
  param {
    name: "b_c"
  }
  propagate_down: true
  inner_product_param {
    num_output: 4000
    bias_term: true
    weight_filler {
      type: "uniform"
      min: -0.08
      max: 0.08
    }
    bias_filler {
      type: "constant"
      value: 0
    }
    axis: 2
  }
}
layer {
  name: "lstm2_W_xc_x_slice"
  type: "Slice"
  bottom: "W_xc_x"
  top: "W_xc_x_1"
  slice_param {
    axis: 0
  }
}
layer {
  name: "lstm2_h_conted_0"
  type: "Scale"
  bottom: "h_0"
  bottom: "cont_1"
  top: "h_conted_0"
  scale_param {
    axis: 0
  }
}
layer {
  name: "lstm2_transform_1"
  type: "InnerProduct"
  bottom: "h_conted_0"
  top: "W_hc_h_0"
  param {
    name: "W_hc"
  }
  inner_product_param {
    num_output: 4000
    bias_term: false
    weight_filler {
      type: "uniform"
      min: -0.08
      max: 0.08
    }
    axis: 2
  }
}
layer {
  name: "lstm2_gate_input_1"
  type: "Eltwise"
  bottom: "W_hc_h_0"
  bottom: "W_xc_x_1"
  top: "gate_input_1"
  eltwise_param {
    operation: SUM
  }
}
layer {
  name: "lstm2_unit_1"
  type: "LSTMUnit"
  bottom: "c_0"
  bottom: "gate_input_1"
  bottom: "cont_1"
  top: "c_1"
  top: "h_1"
}
layer {
  name: "lstm2_"
  type: "Split"
  bottom: "c_1"
  top: "c_T"
}
layer {
  name: "lstm2_h_concat"
  type: "Concat"
  bottom: "h_1"
  top: "h"
  concat_param {
    axis: 0
  }
}
layer {
  name: "h_pseudoloss"
  type: "Reduction"
  bottom: "h"
  top: "h_pseudoloss"
  loss_weight: 1
}
I0925 21:34:39.276264 32446 layer_factory.hpp:77] Creating layer lstm2_
I0925 21:34:39.276290 32446 net.cpp:91] Creating Layer lstm2_
I0925 21:34:39.276306 32446 net.cpp:399] lstm2_ -> x
I0925 21:34:39.276329 32446 net.cpp:399] lstm2_ -> cont
I0925 21:34:39.277123 32446 net.cpp:141] Setting up lstm2_
I0925 21:34:39.277144 32446 net.cpp:148] Top shape: 1 1 1501 (1501)
I0925 21:34:39.277159 32446 net.cpp:148] Top shape: 1 1 (1)
I0925 21:34:39.277169 32446 net.cpp:156] Memory required for data: 6008
I0925 21:34:39.277180 32446 layer_factory.hpp:77] Creating layer lstm2_
I0925 21:34:39.277204 32446 net.cpp:91] Creating Layer lstm2_
I0925 21:34:39.277221 32446 net.cpp:399] lstm2_ -> c_0
I0925 21:34:39.277245 32446 net.cpp:399] lstm2_ -> h_0
I0925 21:34:39.277500 32446 net.cpp:141] Setting up lstm2_
I0925 21:34:39.277523 32446 net.cpp:148] Top shape: 1 1 1000 (1000)
I0925 21:34:39.277539 32446 net.cpp:148] Top shape: 1 1 1000 (1000)
I0925 21:34:39.277547 32446 net.cpp:156] Memory required for data: 14008
I0925 21:34:39.277557 32446 layer_factory.hpp:77] Creating layer lstm2_cont_slice
I0925 21:34:39.277575 32446 net.cpp:91] Creating Layer lstm2_cont_slice
I0925 21:34:39.277587 32446 net.cpp:425] lstm2_cont_slice <- cont
I0925 21:34:39.277602 32446 net.cpp:399] lstm2_cont_slice -> cont_1
I0925 21:34:39.299451 32446 net.cpp:141] Setting up lstm2_cont_slice
I0925 21:34:39.299480 32446 net.cpp:148] Top shape: 1 1 (1)
I0925 21:34:39.299491 32446 net.cpp:156] Memory required for data: 14012
I0925 21:34:39.299502 32446 layer_factory.hpp:77] Creating layer cont_1_lstm2_cont_slice_0_split
I0925 21:34:39.299518 32446 net.cpp:91] Creating Layer cont_1_lstm2_cont_slice_0_split
I0925 21:34:39.299530 32446 net.cpp:425] cont_1_lstm2_cont_slice_0_split <- cont_1
I0925 21:34:39.299532 32422 net.cpp:141] Setting up lstm2_transform_1
I0925 21:34:39.299551 32446 net.cpp:399] cont_1_lstm2_cont_slice_0_split -> cont_1_lstm2_cont_slice_0_split_0
I0925 21:34:39.299590 32422 net.cpp:148] Top shape: 1 1 4000 (4000)
I0925 21:34:39.299597 32446 net.cpp:399] cont_1_lstm2_cont_slice_0_split -> cont_1_lstm2_cont_slice_0_split_1
I0925 21:34:39.299603 32422 net.cpp:156] Memory required for data: 66020
I0925 21:34:39.299633 32422 layer_factory.hpp:77] Creating layer lstm2_gate_input_1
I0925 21:34:39.299659 32422 net.cpp:91] Creating Layer lstm2_gate_input_1
I0925 21:34:39.299671 32422 net.cpp:425] lstm2_gate_input_1 <- W_hc_h_0
I0925 21:34:39.299684 32422 net.cpp:425] lstm2_gate_input_1 <- W_xc_x_1
I0925 21:34:39.299697 32422 net.cpp:399] lstm2_gate_input_1 -> gate_input_1
I0925 21:34:39.304028 32422 net.cpp:141] Setting up lstm2_gate_input_1
I0925 21:34:39.304067 32422 net.cpp:148] Top shape: 1 1 4000 (4000)
I0925 21:34:39.304075 32422 net.cpp:156] Memory required for data: 82020
I0925 21:34:39.304083 32422 layer_factory.hpp:77] Creating layer lstm2_unit_1
I0925 21:34:39.304105 32422 net.cpp:91] Creating Layer lstm2_unit_1
I0925 21:34:39.304116 32422 net.cpp:425] lstm2_unit_1 <- c_0
I0925 21:34:39.304127 32422 net.cpp:425] lstm2_unit_1 <- gate_input_1
I0925 21:34:39.304134 32422 net.cpp:425] lstm2_unit_1 <- cont_1_lstm2_cont_slice_0_split_1
I0925 21:34:39.304143 32422 net.cpp:399] lstm2_unit_1 -> c_1
I0925 21:34:39.304162 32422 net.cpp:399] lstm2_unit_1 -> h_1
I0925 21:34:39.304163 32446 net.cpp:141] Setting up cont_1_lstm2_cont_slice_0_split
I0925 21:34:39.304193 32446 net.cpp:148] Top shape: 1 1 (1)
I0925 21:34:39.304206 32446 net.cpp:148] Top shape: 1 1 (1)
I0925 21:34:39.304215 32446 net.cpp:156] Memory required for data: 14020
I0925 21:34:39.304225 32446 layer_factory.hpp:77] Creating layer lstm2_x_transform
I0925 21:34:39.304257 32446 net.cpp:91] Creating Layer lstm2_x_transform
I0925 21:34:39.304271 32446 net.cpp:425] lstm2_x_transform <- x
I0925 21:34:39.304294 32446 net.cpp:399] lstm2_x_transform -> W_xc_x
I0925 21:34:39.305439 32422 net.cpp:141] Setting up lstm2_unit_1
I0925 21:34:39.305464 32422 net.cpp:148] Top shape: 1 1 1000 (1000)
I0925 21:34:39.305471 32422 net.cpp:148] Top shape: 1 1 1000 (1000)
I0925 21:34:39.305476 32422 net.cpp:156] Memory required for data: 90020
I0925 21:34:39.305482 32422 layer_factory.hpp:77] Creating layer lstm2_
I0925 21:34:39.305492 32422 net.cpp:91] Creating Layer lstm2_
I0925 21:34:39.305500 32422 net.cpp:425] lstm2_ <- c_1
I0925 21:34:39.305513 32422 net.cpp:399] lstm2_ -> c_T
I0925 21:34:39.318083 32422 net.cpp:141] Setting up lstm2_
I0925 21:34:39.318141 32422 net.cpp:148] Top shape: 1 1 1000 (1000)
I0925 21:34:39.318148 32422 net.cpp:156] Memory required for data: 94020
I0925 21:34:39.318157 32422 layer_factory.hpp:77] Creating layer lstm2_h_concat
I0925 21:34:39.318188 32422 net.cpp:91] Creating Layer lstm2_h_concat
I0925 21:34:39.318197 32422 net.cpp:425] lstm2_h_concat <- h_1
I0925 21:34:39.318212 32422 net.cpp:399] lstm2_h_concat -> h
I0925 21:34:39.318280 32422 net.cpp:141] Setting up lstm2_h_concat
I0925 21:34:39.318297 32422 net.cpp:148] Top shape: 1 1 1000 (1000)
I0925 21:34:39.318306 32422 net.cpp:156] Memory required for data: 98020
I0925 21:34:39.318315 32422 layer_factory.hpp:77] Creating layer h_pseudoloss
I0925 21:34:39.318327 32422 net.cpp:91] Creating Layer h_pseudoloss
I0925 21:34:39.318333 32422 net.cpp:425] h_pseudoloss <- h
I0925 21:34:39.318347 32422 net.cpp:399] h_pseudoloss -> h_pseudoloss
I0925 21:34:39.318379 32426 net.cpp:141] Setting up lstm2_x_transform
I0925 21:34:39.318405 32426 net.cpp:148] Top shape: 1 1 4000 (4000)
I0925 21:34:39.318414 32426 net.cpp:156] Memory required for data: 30020
I0925 21:34:39.318439 32426 layer_factory.hpp:77] Creating layer lstm2_W_xc_x_slice
I0925 21:34:39.318457 32426 net.cpp:91] Creating Layer lstm2_W_xc_x_slice
I0925 21:34:39.318467 32426 net.cpp:425] lstm2_W_xc_x_slice <- W_xc_x
I0925 21:34:39.318486 32422 net.cpp:141] Setting up h_pseudoloss
I0925 21:34:39.318487 32426 net.cpp:399] lstm2_W_xc_x_slice -> W_xc_x_1
…
I0925 21:34:39.318660 32422 net.cpp:219] lstm2_cont_slice does not need backward computation.
I0925 21:34:39.318672 32422 net.cpp:219] lstm2_ does not need backward computation.
I0925 21:34:39.318682 32422 net.cpp:219] lstm2_ does not need backward computation.
I0925 21:34:39.318708 32422 net.cpp:261] This network produces output c_T
I0925 21:34:39.318714 32422 net.cpp:261] This network produces output h_pseudoloss
I0925 21:34:39.318678 32440 net.cpp:141] Setting up lstm1_transform_1
I0925 21:34:39.318732 32426 net.cpp:141] Setting up lstm2_W_xc_x_slice
I0925 21:34:39.318781 32426 net.cpp:148] Top shape: 1 1 4000 (4000)
I0925 21:34:39.318792 32426 net.cpp:156] Memory required for data: 46020
I0925 21:34:39.318802 32426 layer_factory.hpp:77] Creating layer lstm2_h_conted_0
I0925 21:34:39.318821 32426 net.cpp:91] Creating Layer lstm2_h_conted_0
I0925 21:34:39.318836 32426 net.cpp:425] lstm2_h_conted_0 <- h_0
I0925 21:34:39.318850 32426 net.cpp:425] lstm2_h_conted_0 <- cont_1_lstm2_cont_slice_0_split_0
I0925 21:34:39.320363 32426 net.cpp:399] lstm2_h_conted_0 -> h_conted_0
I0925 21:34:39.320365 32422 net.cpp:274] Network initialization done.
I0925 21:34:39.320379 32440 net.cpp:148] Top shape: 1 1 4000 (4000)
I0925 21:34:39.320421 32440 net.cpp:156] Memory required for data: 62016
I0925 21:34:39.320446 32440 layer_factory.hpp:77] Creating layer lstm1_gate_input_1
I0925 21:34:39.320464 32422 recurrent_layer.cpp:150] Adding parameter 0: W_xc
I0925 21:34:39.320468 32440 net.cpp:91] Creating Layer lstm1_gate_input_1
I0925 21:34:39.320480 32422 recurrent_layer.cpp:150] Adding parameter 1: b_c
I0925 21:34:39.320492 32440 net.cpp:425] lstm1_gate_input_1 <- W_hc_h_0
I0925 21:34:39.320497 32422 recurrent_layer.cpp:150] Adding parameter 2: W_hc
I0925 21:34:39.320502 32440 net.cpp:425] lstm1_gate_input_1 <- W_xc_x_1
I0925 21:34:39.320513 32440 net.cpp:399] lstm1_gate_input_1 -> gate_input_1
I0925 21:34:39.320746 32440 net.cpp:141] Setting up lstm1_gate_input_1
I0925 21:34:39.320762 32440 net.cpp:148] Top shape: 1 1 4000 (4000)
I0925 21:34:39.320767 32440 net.cpp:156] Memory required for data: 78016
I0925 21:34:39.320773 32440 layer_factory.hpp:77] Creating layer lstm1_unit_1
I0925 21:34:39.320787 32440 net.cpp:91] Creating Layer lstm1_unit_1
I0925 21:34:39.320793 32440 net.cpp:425] lstm1_unit_1 <- c_0
I0925 21:34:39.320801 32440 net.cpp:425] lstm1_unit_1 <- gate_input_1
I0925 21:34:39.320806 32440 net.cpp:425] lstm1_unit_1 <- cont_1_lstm1_cont_slice_0_split_1
I0925 21:34:39.320814 32440 net.cpp:399] lstm1_unit_1 -> c_1
I0925 21:34:39.320825 32440 net.cpp:399] lstm1_unit_1 -> h_1
I0925 21:34:39.320917 32426 net.cpp:141] Setting up lstm2_h_conted_0
I0925 21:34:39.320940 32426 net.cpp:148] Top shape: 1 1 1000 (1000)
I0925 21:34:39.320948 32426 net.cpp:156] Memory required for data: 50020
I0925 21:34:39.320958 32426 layer_factory.hpp:77] Creating layer lstm2_transform_1
I0925 21:34:39.320982 32426 net.cpp:91] Creating Layer lstm2_transform_1
I0925 21:34:39.320993 32426 net.cpp:425] lstm2_transform_1 <- h_conted_0
I0925 21:34:39.321018 32426 net.cpp:399] lstm2_transform_1 -> W_hc_h_0
I0925 21:34:39.321035 32440 net.cpp:141] Setting up lstm1_unit_1
I0925 21:34:39.321053 32440 net.cpp:148] Top shape: 1 1 1000 (1000)
I0925 21:34:39.321060 32440 net.cpp:148] Top shape: 1 1 1000 (1000)
I0925 21:34:39.321065 32440 net.cpp:156] Memory required for data: 86016
I0925 21:34:39.321071 32440 layer_factory.hpp:77] Creating layer lstm1_
I0925 21:34:39.321080 32440 net.cpp:91] Creating Layer lstm1_
I0925 21:34:39.321086 32440 net.cpp:425] lstm1_ <- c_1
I0925 21:34:39.321094 32440 net.cpp:399] lstm1_ -> c_T
I0925 21:34:39.321100 32422 net.cpp:141] Setting up lstm2
I0925 21:34:39.321118 32422 net.cpp:148] Top shape: 1 1 1000 (1000)
I0925 21:34:39.321123 32422 net.cpp:156] Memory required for data: 36412
I0925 21:34:39.321141 32422 layer_factory.hpp:77] Creating layer predict
I0925 21:34:39.321157 32422 net.cpp:91] Creating Layer predict
I0925 21:34:39.321169 32422 net.cpp:425] predict <- lstm2
I0925 21:34:39.321182 32422 net.cpp:399] predict -> predict
I0925 21:34:39.321213 32440 net.cpp:141] Setting up lstm1_
I0925 21:34:39.321225 32440 net.cpp:148] Top shape: 1 1 1000 (1000)
I0925 21:34:39.321230 32440 net.cpp:156] Memory required for data: 90016
I0925 21:34:39.321235 32440 layer_factory.hpp:77] Creating layer lstm1_h_concat
I0925 21:34:39.321250 32440 net.cpp:91] Creating Layer lstm1_h_concat
I0925 21:34:39.321256 32440 net.cpp:425] lstm1_h_concat <- h_1
I0925 21:34:39.321265 32440 net.cpp:399] lstm1_h_concat -> h
I0925 21:34:39.431699 32440 net.cpp:141] Setting up lstm1_h_concat
I0925 21:34:39.431746 32440 net.cpp:148] Top shape: 1 1 1000 (1000)
I0925 21:34:39.431752 32440 net.cpp:156] Memory required for data: 94016
I0925 21:34:39.431763 32440 layer_factory.hpp:77] Creating layer h_pseudoloss
I0925 21:34:39.431780 32440 net.cpp:91] Creating Layer h_pseudoloss
I0925 21:34:39.431788 32440 net.cpp:425] h_pseudoloss <- h
I0925 21:34:39.431805 32440 net.cpp:399] h_pseudoloss -> h_pseudoloss
I0925 21:34:39.431991 32446 net.cpp:141] Setting up lstm2_x_transform
I0925 21:34:39.432013 32446 net.cpp:148] Top shape: 1 1 4000 (4000)
I0925 21:34:39.432018 32446 net.cpp:156] Memory required for data: 30020
I0925 21:34:39.432035 32446 layer_factory.hpp:77] Creating layer lstm2_W_xc_x_slice
I0925 21:34:39.432047 32446 net.cpp:91] Creating Layer lstm2_W_xc_x_slice
I0925 21:34:39.432055 32446 net.cpp:425] lstm2_W_xc_x_slice <- W_xc_x
I0925 21:34:39.432065 32446 net.cpp:399] lstm2_W_xc_x_slice -> W_xc_x_1
I0925 21:34:39.432070 32426 net.cpp:141] Setting up lstm2_transform_1
I0925 21:34:39.432091 32426 net.cpp:148] Top shape: 1 1 4000 (4000)
I0925 21:34:39.432097 32426 net.cpp:156] Memory required for data: 66020
I0925 21:34:39.432113 32426 layer_factory.hpp:77] Creating layer lstm2_gate_input_1
I0925 21:34:39.432132 32426 net.cpp:91] Creating Layer lstm2_gate_input_1
I0925 21:34:39.432140 32426 net.cpp:425] lstm2_gate_input_1 <- W_hc_h_0
I0925 21:34:39.432148 32426 net.cpp:425] lstm2_gate_input_1 <- W_xc_x_1
I0925 21:34:39.432159 32426 net.cpp:399] lstm2_gate_input_1 -> gate_input_1
I0925 21:34:39.432175 32440 net.cpp:141] Setting up h_pseudoloss
I0925 21:34:39.432193 32440 net.cpp:148] Top shape: (1)
I0925 21:34:39.432198 32440 net.cpp:151]     with loss weight 1
I0925 21:34:39.432211 32440 net.cpp:156] Memory required for data: 94020
I0925 21:34:39.432215 32426 net.cpp:141] Setting up lstm2_gate_input_1
I0925 21:34:39.432217 32440 net.cpp:217] h_pseudoloss needs backward computation.
I0925 21:34:39.432237 32426 net.cpp:148] Top shape: 1 1 4000 (4000)
I0925 21:34:39.432240 32440 net.cpp:217] lstm1_h_concat needs backward computation.
I0925 21:34:39.432242 32426 net.cpp:156] Memory required for data: 82020
I0925 21:34:39.432245 32440 net.cpp:219] lstm1_ does not need backward computation.
I0925 21:34:39.432248 32426 layer_factory.hpp:77] Creating layer lstm2_unit_1
I0925 21:34:39.432251 32440 net.cpp:217] lstm1_unit_1 needs backward computation.
I0925 21:34:39.432260 32440 net.cpp:217] lstm1_gate_input_1 needs backward computation.
I0925 21:34:39.432260 32446 net.cpp:141] Setting up lstm2_W_xc_x_slice
I0925 21:34:39.432265 32440 net.cpp:217] lstm1_transform_1 needs backward computation.
I0925 21:34:39.432263 32426 net.cpp:91] Creating Layer lstm2_unit_1
I0925 21:34:39.432281 32440 net.cpp:219] lstm1_h_conted_0 does not need backward computation.
I0925 21:34:39.432286 32446 net.cpp:148] Top shape: 1 1 4000 (4000)
I0925 21:34:39.432288 32440 net.cpp:217] lstm1_W_xc_x_slice needs backward computation.
I0925 21:34:39.432286 32426 net.cpp:425] lstm2_unit_1 <- c_0
I0925 21:34:39.432297 32446 net.cpp:156] Memory required for data: 46020
I0925 21:34:39.432306 32426 net.cpp:425] lstm2_unit_1 <- gate_input_1
I0925 21:34:39.432298 32440 net.cpp:217] lstm1_x_transform needs backward computation.
I0925 21:34:39.432312 32446 layer_factory.hpp:77] Creating layer lstm2_h_conted_0
…
I0925 21:34:39.432361 32446 net.cpp:399] lstm2_h_conted_0 -> h_conted_0
I0925 21:34:39.432364 32440 net.cpp:261] This network produces output c_T
I0925 21:34:39.432371 32440 net.cpp:261] This network produces output h_pseudoloss
I0925 21:34:39.432394 32440 net.cpp:274] Network initialization done.
I0925 21:34:39.432448 32440 recurrent_layer.cpp:150] Adding parameter 0: W_xc
I0925 21:34:39.432456 32440 recurrent_layer.cpp:150] Adding parameter 1: b_c
I0925 21:34:39.432461 32440 recurrent_layer.cpp:150] Adding parameter 2: W_hc
I0925 21:34:39.433331 32446 net.cpp:141] Setting up lstm2_h_conted_0
I0925 21:34:39.433351 32446 net.cpp:148] Top shape: 1 1 1000 (1000)
I0925 21:34:39.433357 32446 net.cpp:156] Memory required for data: 50020
I0925 21:34:39.433362 32446 layer_factory.hpp:77] Creating layer lstm2_transform_1
I0925 21:34:39.433377 32446 net.cpp:91] Creating Layer lstm2_transform_1
I0925 21:34:39.433383 32446 net.cpp:425] lstm2_transform_1 <- h_conted_0
I0925 21:34:39.433393 32446 net.cpp:399] lstm2_transform_1 -> W_hc_h_0
I0925 21:34:39.433477 32426 net.cpp:141] Setting up lstm2_unit_1
I0925 21:34:39.433498 32426 net.cpp:148] Top shape: 1 1 1000 (1000)
I0925 21:34:39.433506 32426 net.cpp:148] Top shape: 1 1 1000 (1000)
I0925 21:34:39.433511 32426 net.cpp:156] Memory required for data: 90020
I0925 21:34:39.433517 32426 layer_factory.hpp:77] Creating layer lstm2_
I0925 21:34:39.433527 32426 net.cpp:91] Creating Layer lstm2_
I0925 21:34:39.433533 32426 net.cpp:425] lstm2_ <- c_1
I0925 21:34:39.433543 32426 net.cpp:399] lstm2_ -> c_T
I0925 21:34:39.443119 32440 net.cpp:141] Setting up lstm1
I0925 21:34:39.443173 32440 net.cpp:148] Top shape: 1 1 1000 (1000)
I0925 21:34:39.443183 32440 net.cpp:156] Memory required for data: 26408
I0925 21:34:39.443217 32440 layer_factory.hpp:77] Creating layer concat
I0925 21:34:39.443243 32440 net.cpp:91] Creating Layer concat
I0925 21:34:39.443253 32440 net.cpp:425] concat <- lstm1
I0925 21:34:39.443267 32440 net.cpp:425] concat <- embedded_input_sentence
I0925 21:34:39.443277 32440 net.cpp:425] concat <- reshaped_stage_indicator
I0925 21:34:39.443291 32440 net.cpp:399] concat -> lstm1_video_sequence
I0925 21:34:39.443375 32440 net.cpp:141] Setting up concat
I0925 21:34:39.443392 32440 net.cpp:148] Top shape: 1 1 1501 (1501)
I0925 21:34:39.443399 32440 net.cpp:156] Memory required for data: 32412
I0925 21:34:39.443408 32440 layer_factory.hpp:77] Creating layer lstm2
I0925 21:34:39.443431 32440 net.cpp:91] Creating Layer lstm2
I0925 21:34:39.443441 32440 net.cpp:425] lstm2 <- lstm1_video_sequence
I0925 21:34:39.443452 32440 net.cpp:425] lstm2 <- cont_sentence_input_1_split_1
I0925 21:34:39.443467 32440 net.cpp:399] lstm2 -> lstm2
I0925 21:34:39.443487 32440 recurrent_layer.cpp:20] Initializing recurrent layer: assuming input batch contains 1 timesteps of 1 independent streams.
I0925 21:34:39.443933 32440 net.cpp:49] Initializing net from parameters: 
layer {
  name: "lstm2_"
  type: "Input"
  top: "x"
  top: "cont"
  input_param {
    shape {
      dim: 1
      dim: 1
      dim: 1501
    }
    shape {
      dim: 1
      dim: 1
    }
  }
}
layer {
  name: "lstm2_"
  type: "Input"
  top: "c_0"
  top: "h_0"
  input_param {
    shape {
      dim: 1
      dim: 1
      dim: 1000
    }
    shape {
      dim: 1
      dim: 1
      dim: 1000
    }
  }
}
layer {
  name: "lstm2_cont_slice"
  type: "Slice"
  bottom: "cont"
  top: "cont_1"
  slice_param {
    axis: 0
  }
}
layer {
  name: "lstm2_x_transform"
  type: "InnerProduct"
  bottom: "x"
  top: "W_xc_x"
  param {
    name: "W_xc"
  }
  param {
    name: "b_c"
  }
  propagate_down: true
  inner_product_param {
    num_output: 4000
    bias_term: true
    weight_filler {
      type: "uniform"
      min: -0.08
      max: 0.08
    }
    bias_filler {
      type: "constant"
      value: 0
    }
    axis: 2
  }
}
layer {
  name: "lstm2_W_xc_x_slice"
  type: "Slice"
  bottom: "W_xc_x"
  top: "W_xc_x_1"
  slice_param {
    axis: 0
  }
}
layer {
  name: "lstm2_h_conted_0"
  type: "Scale"
  bottom: "h_0"
  bottom: "cont_1"
  top: "h_conted_0"
  scale_param {
    axis: 0
  }
}
layer {
  name: "lstm2_transform_1"
  type: "InnerProduct"
  bottom: "h_conted_0"
  top: "W_hc_h_0"
  param {
    name: "W_hc"
  }
  inner_product_param {
    num_output: 4000
    bias_term: false
    weight_filler {
      type: "uniform"
      min: -0.08
      max: 0.08
    }
    axis: 2
  }
}
layer {
  name: "lstm2_gate_input_1"
  type: "Eltwise"
  bottom: "W_hc_h_0"
  bottom: "W_xc_x_1"
  top: "gate_input_1"
  eltwise_param {
    operation: SUM
  }
}
layer {
  name: "lstm2_unit_1"
  type: "LSTMUnit"
  bottom: "c_0"
  bottom: "gate_input_1"
  bottom: "cont_1"
  top: "c_1"
  top: "h_1"
}
layer {
  name: "lstm2_"
  type: "Split"
  bottom: "c_1"
  top: "c_T"
}
layer {
  name: "lstm2_h_concat"
  type: "Concat"
  bottom: "h_1"
  top: "h"
  concat_param {
    axis: 0
  }
}
layer {
  name: "h_pseudoloss"
  type: "Reduction"
  bottom: "h"
  top: "h_pseudoloss"
  loss_weight: 1
}
I0925 21:34:39.444080 32440 layer_factory.hpp:77] Creating layer lstm2_
I0925 21:34:39.444100 32440 net.cpp:91] Creating Layer lstm2_
I0925 21:34:39.444113 32440 net.cpp:399] lstm2_ -> x
I0925 21:34:39.444133 32440 net.cpp:399] lstm2_ -> cont
I0925 21:34:39.444226 32440 net.cpp:141] Setting up lstm2_
I0925 21:34:39.444242 32440 net.cpp:148] Top shape: 1 1 1501 (1501)
I0925 21:34:39.444254 32440 net.cpp:148] Top shape: 1 1 (1)
I0925 21:34:39.444262 32440 net.cpp:156] Memory required for data: 6008
I0925 21:34:39.444272 32440 layer_factory.hpp:77] Creating layer lstm2_
I0925 21:34:39.444288 32440 net.cpp:91] Creating Layer lstm2_
I0925 21:34:39.444299 32440 net.cpp:399] lstm2_ -> c_0
I0925 21:34:39.444319 32440 net.cpp:399] lstm2_ -> h_0
I0925 21:34:39.444404 32440 net.cpp:141] Setting up lstm2_
I0925 21:34:39.444420 32440 net.cpp:148] Top shape: 1 1 1000 (1000)
I0925 21:34:39.444432 32440 net.cpp:148] Top shape: 1 1 1000 (1000)
I0925 21:34:39.444439 32440 net.cpp:156] Memory required for data: 14008
I0925 21:34:39.444448 32440 layer_factory.hpp:77] Creating layer lstm2_cont_slice
I0925 21:34:39.444463 32440 net.cpp:91] Creating Layer lstm2_cont_slice
I0925 21:34:39.444471 32440 net.cpp:425] lstm2_cont_slice <- cont
I0925 21:34:39.444489 32440 net.cpp:399] lstm2_cont_slice -> cont_1
I0925 21:34:39.444545 32440 net.cpp:141] Setting up lstm2_cont_slice
I0925 21:34:39.444560 32440 net.cpp:148] Top shape: 1 1 (1)
I0925 21:34:39.444567 32440 net.cpp:156] Memory required for data: 14012
I0925 21:34:39.444576 32440 layer_factory.hpp:77] Creating layer cont_1_lstm2_cont_slice_0_split
I0925 21:34:39.444591 32440 net.cpp:91] Creating Layer cont_1_lstm2_cont_slice_0_split
I0925 21:34:39.444598 32440 net.cpp:425] cont_1_lstm2_cont_slice_0_split <- cont_1
I0925 21:34:39.444610 32440 net.cpp:399] cont_1_lstm2_cont_slice_0_split -> cont_1_lstm2_cont_slice_0_split_0
I0925 21:34:39.444624 32440 net.cpp:399] cont_1_lstm2_cont_slice_0_split -> cont_1_lstm2_cont_slice_0_split_1
I0925 21:34:39.444723 32440 net.cpp:141] Setting up cont_1_lstm2_cont_slice_0_split
I0925 21:34:39.444738 32440 net.cpp:148] Top shape: 1 1 (1)
I0925 21:34:39.444749 32440 net.cpp:148] Top shape: 1 1 (1)
I0925 21:34:39.444757 32440 net.cpp:156] Memory required for data: 14020
I0925 21:34:39.444767 32440 layer_factory.hpp:77] Creating layer lstm2_x_transform
I0925 21:34:39.444792 32440 net.cpp:91] Creating Layer lstm2_x_transform
I0925 21:34:39.444802 32440 net.cpp:425] lstm2_x_transform <- x
I0925 21:34:39.444816 32440 net.cpp:399] lstm2_x_transform -> W_xc_x
I0925 21:34:39.461416 32426 net.cpp:141] Setting up lstm2_
I0925 21:34:39.461469 32426 net.cpp:148] Top shape: 1 1 1000 (1000)
I0925 21:34:39.461477 32426 net.cpp:156] Memory required for data: 94020
I0925 21:34:39.461488 32426 layer_factory.hpp:77] Creating layer lstm2_h_concat
I0925 21:34:39.461508 32426 net.cpp:91] Creating Layer lstm2_h_concat
I0925 21:34:39.461516 32426 net.cpp:425] lstm2_h_concat <- h_1
I0925 21:34:39.461530 32426 net.cpp:399] lstm2_h_concat -> h
I0925 21:34:39.461645 32426 net.cpp:141] Setting up lstm2_h_concat
I0925 21:34:39.461658 32426 net.cpp:148] Top shape: 1 1 1000 (1000)
I0925 21:34:39.461663 32426 net.cpp:156] Memory required for data: 98020
I0925 21:34:39.461669 32426 layer_factory.hpp:77] Creating layer h_pseudoloss
I0925 21:34:39.461681 32426 net.cpp:91] Creating Layer h_pseudoloss
I0925 21:34:39.461686 32426 net.cpp:425] h_pseudoloss <- h
I0925 21:34:39.461695 32426 net.cpp:399] h_pseudoloss -> h_pseudoloss
I0925 21:34:39.461869 32426 net.cpp:141] Setting up h_pseudoloss
…
I0925 21:34:39.461997 32426 net.cpp:219] lstm2_ does not need backward computation.
I0925 21:34:39.462000 32426 net.cpp:261] This network produces output c_T
I0925 21:34:39.462007 32426 net.cpp:261] This network produces output h_pseudoloss
I0925 21:34:39.462025 32426 net.cpp:274] Network initialization done.
I0925 21:34:39.462090 32426 recurrent_layer.cpp:150] Adding parameter 0: W_xc
I0925 21:34:39.462097 32426 recurrent_layer.cpp:150] Adding parameter 1: b_c
I0925 21:34:39.462102 32426 recurrent_layer.cpp:150] Adding parameter 2: W_hc
I0925 21:34:39.462949 32426 net.cpp:141] Setting up lstm2
I0925 21:34:39.462968 32426 net.cpp:148] Top shape: 1 1 1000 (1000)
I0925 21:34:39.462973 32426 net.cpp:156] Memory required for data: 36412
I0925 21:34:39.462992 32426 layer_factory.hpp:77] Creating layer predict
I0925 21:34:39.463009 32426 net.cpp:91] Creating Layer predict
I0925 21:34:39.463017 32426 net.cpp:425] predict <- lstm2
I0925 21:34:39.463027 32426 net.cpp:399] predict -> predict
I0925 21:34:39.582893 32446 net.cpp:141] Setting up lstm2_transform_1
I0925 21:34:39.582953 32446 net.cpp:148] Top shape: 1 1 4000 (4000)
I0925 21:34:39.582960 32446 net.cpp:156] Memory required for data: 66020
I0925 21:34:39.582983 32446 layer_factory.hpp:77] Creating layer lstm2_gate_input_1
I0925 21:34:39.583005 32446 net.cpp:91] Creating Layer lstm2_gate_input_1
I0925 21:34:39.583014 32446 net.cpp:425] lstm2_gate_input_1 <- W_hc_h_0
I0925 21:34:39.583024 32446 net.cpp:425] lstm2_gate_input_1 <- W_xc_x_1
I0925 21:34:39.583035 32446 net.cpp:399] lstm2_gate_input_1 -> gate_input_1
I0925 21:34:39.583104 32446 net.cpp:141] Setting up lstm2_gate_input_1
I0925 21:34:39.583119 32446 net.cpp:148] Top shape: 1 1 4000 (4000)
I0925 21:34:39.583125 32446 net.cpp:156] Memory required for data: 82020
I0925 21:34:39.583130 32446 layer_factory.hpp:77] Creating layer lstm2_unit_1
I0925 21:34:39.583142 32446 net.cpp:91] Creating Layer lstm2_unit_1
I0925 21:34:39.583147 32446 net.cpp:425] lstm2_unit_1 <- c_0
I0925 21:34:39.583155 32446 net.cpp:425] lstm2_unit_1 <- gate_input_1
I0925 21:34:39.583161 32446 net.cpp:425] lstm2_unit_1 <- cont_1_lstm2_cont_slice_0_split_1
I0925 21:34:39.583169 32446 net.cpp:399] lstm2_unit_1 -> c_1
I0925 21:34:39.583179 32446 net.cpp:399] lstm2_unit_1 -> h_1
I0925 21:34:39.583446 32440 net.cpp:141] Setting up lstm2_x_transform
I0925 21:34:39.583467 32440 net.cpp:148] Top shape: 1 1 4000 (4000)
I0925 21:34:39.583473 32440 net.cpp:156] Memory required for data: 30020
I0925 21:34:39.583488 32440 layer_factory.hpp:77] Creating layer lstm2_W_xc_x_slice
I0925 21:34:39.583505 32440 net.cpp:91] Creating Layer lstm2_W_xc_x_slice
I0925 21:34:39.583513 32440 net.cpp:425] lstm2_W_xc_x_slice <- W_xc_x
I0925 21:34:39.583514 32446 net.cpp:141] Setting up lstm2_unit_1
I0925 21:34:39.583523 32440 net.cpp:399] lstm2_W_xc_x_slice -> W_xc_x_1
I0925 21:34:39.583528 32446 net.cpp:148] Top shape: 1 1 1000 (1000)
I0925 21:34:39.583535 32446 net.cpp:148] Top shape: 1 1 1000 (1000)
I0925 21:34:39.583540 32446 net.cpp:156] Memory required for data: 90020
I0925 21:34:39.583545 32446 layer_factory.hpp:77] Creating layer lstm2_
I0925 21:34:39.583555 32446 net.cpp:91] Creating Layer lstm2_
I0925 21:34:39.583560 32446 net.cpp:425] lstm2_ <- c_1
I0925 21:34:39.583570 32446 net.cpp:399] lstm2_ -> c_T
I0925 21:34:39.583675 32440 net.cpp:141] Setting up lstm2_W_xc_x_slice
I0925 21:34:39.583688 32440 net.cpp:148] Top shape: 1 1 4000 (4000)
I0925 21:34:39.583694 32440 net.cpp:156] Memory required for data: 46020
I0925 21:34:39.583699 32440 layer_factory.hpp:77] Creating layer lstm2_h_conted_0
I0925 21:34:39.583711 32440 net.cpp:91] Creating Layer lstm2_h_conted_0
I0925 21:34:39.583719 32440 net.cpp:425] lstm2_h_conted_0 <- h_0
I0925 21:34:39.583725 32440 net.cpp:425] lstm2_h_conted_0 <- cont_1_lstm2_cont_slice_0_split_0
I0925 21:34:39.583742 32440 net.cpp:399] lstm2_h_conted_0 -> h_conted_0
I0925 21:34:39.583818 32446 net.cpp:141] Setting up lstm2_
I0925 21:34:39.583830 32446 net.cpp:148] Top shape: 1 1 1000 (1000)
I0925 21:34:39.583835 32446 net.cpp:156] Memory required for data: 94020
I0925 21:34:39.583842 32446 layer_factory.hpp:77] Creating layer lstm2_h_concat
I0925 21:34:39.583855 32446 net.cpp:91] Creating Layer lstm2_h_concat
I0925 21:34:39.583861 32446 net.cpp:425] lstm2_h_concat <- h_1
I0925 21:34:39.583869 32446 net.cpp:399] lstm2_h_concat -> h
I0925 21:34:39.583945 32440 net.cpp:141] Setting up lstm2_h_conted_0
I0925 21:34:39.583958 32440 net.cpp:148] Top shape: 1 1 1000 (1000)
I0925 21:34:39.583963 32440 net.cpp:156] Memory required for data: 50020
I0925 21:34:39.583968 32440 layer_factory.hpp:77] Creating layer lstm2_transform_1
I0925 21:34:39.583978 32446 net.cpp:141] Setting up lstm2_h_concat
I0925 21:34:39.583984 32440 net.cpp:91] Creating Layer lstm2_transform_1
I0925 21:34:39.583991 32446 net.cpp:148] Top shape: 1 1 1000 (1000)
I0925 21:34:39.583992 32440 net.cpp:425] lstm2_transform_1 <- h_conted_0
I0925 21:34:39.584002 32446 net.cpp:156] Memory required for data: 98020
I0925 21:34:39.584008 32446 layer_factory.hpp:77] Creating layer h_pseudoloss
I0925 21:34:39.584010 32440 net.cpp:399] lstm2_transform_1 -> W_hc_h_0
I0925 21:34:39.584019 32446 net.cpp:91] Creating Layer h_pseudoloss
I0925 21:34:39.584024 32446 net.cpp:425] h_pseudoloss <- h
…
I0925 21:34:39.593446 32446 net.cpp:219] lstm2_ does not need backward computation.
I0925 21:34:39.593453 32446 net.cpp:261] This network produces output c_T
I0925 21:34:39.593464 32446 net.cpp:261] This network produces output h_pseudoloss
I0925 21:34:39.593495 32446 net.cpp:274] Network initialization done.
I0925 21:34:39.593578 32446 recurrent_layer.cpp:150] Adding parameter 0: W_xc
I0925 21:34:39.593590 32446 recurrent_layer.cpp:150] Adding parameter 1: b_c
I0925 21:34:39.593598 32446 recurrent_layer.cpp:150] Adding parameter 2: W_hc
I0925 21:34:39.593933 32448 net.cpp:141] Setting up conv1
I0925 21:34:39.593983 32448 net.cpp:148] Top shape: 10 96 55 55 (2904000)
I0925 21:34:39.593991 32448 net.cpp:156] Memory required for data: 17799480
I0925 21:34:39.594018 32448 layer_factory.hpp:77] Creating layer relu1
I0925 21:34:39.594041 32448 net.cpp:91] Creating Layer relu1
I0925 21:34:39.594050 32448 net.cpp:425] relu1 <- conv1
I0925 21:34:39.594060 32448 net.cpp:386] relu1 -> conv1 (in-place)
I0925 21:34:39.594110 32446 net.cpp:141] Setting up lstm2
I0925 21:34:39.594131 32446 net.cpp:148] Top shape: 1 1 1000 (1000)
I0925 21:34:39.594139 32446 net.cpp:156] Memory required for data: 36412
I0925 21:34:39.594166 32446 layer_factory.hpp:77] Creating layer predict
I0925 21:34:39.594192 32446 net.cpp:91] Creating Layer predict
I0925 21:34:39.594203 32446 net.cpp:425] predict <- lstm2
I0925 21:34:39.594218 32446 net.cpp:399] predict -> predict
I0925 21:34:39.699425 32440 net.cpp:141] Setting up lstm2_transform_1
I0925 21:34:39.699488 32440 net.cpp:148] Top shape: 1 1 4000 (4000)
I0925 21:34:39.699499 32440 net.cpp:156] Memory required for data: 66020
I0925 21:34:39.699528 32440 layer_factory.hpp:77] Creating layer lstm2_gate_input_1
I0925 21:34:39.699563 32440 net.cpp:91] Creating Layer lstm2_gate_input_1
I0925 21:34:39.699574 32440 net.cpp:425] lstm2_gate_input_1 <- W_hc_h_0
I0925 21:34:39.699587 32440 net.cpp:425] lstm2_gate_input_1 <- W_xc_x_1
I0925 21:34:39.699632 32440 net.cpp:399] lstm2_gate_input_1 -> gate_input_1
I0925 21:34:39.699633 32448 net.cpp:141] Setting up relu1
I0925 21:34:39.699678 32448 net.cpp:148] Top shape: 10 96 55 55 (2904000)
I0925 21:34:39.699689 32448 net.cpp:156] Memory required for data: 29415480
I0925 21:34:39.699702 32448 layer_factory.hpp:77] Creating layer pool1
I0925 21:34:39.699728 32440 net.cpp:141] Setting up lstm2_gate_input_1
I0925 21:34:39.699746 32440 net.cpp:148] Top shape: 1 1 4000 (4000)
I0925 21:34:39.699754 32440 net.cpp:156] Memory required for data: 82020
I0925 21:34:39.699764 32448 net.cpp:91] Creating Layer pool1
I0925 21:34:39.699787 32448 net.cpp:425] pool1 <- conv1
I0925 21:34:39.699807 32448 net.cpp:399] pool1 -> pool1
I0925 21:34:39.699764 32440 layer_factory.hpp:77] Creating layer lstm2_unit_1
I0925 21:34:39.699846 32440 net.cpp:91] Creating Layer lstm2_unit_1
I0925 21:34:39.699858 32440 net.cpp:425] lstm2_unit_1 <- c_0
I0925 21:34:39.699868 32440 net.cpp:425] lstm2_unit_1 <- gate_input_1
I0925 21:34:39.699878 32440 net.cpp:425] lstm2_unit_1 <- cont_1_lstm2_cont_slice_0_split_1
I0925 21:34:39.699892 32440 net.cpp:399] lstm2_unit_1 -> c_1
I0925 21:34:39.699908 32440 net.cpp:399] lstm2_unit_1 -> h_1
I0925 21:34:39.700072 32440 net.cpp:141] Setting up lstm2_unit_1
I0925 21:34:39.700088 32440 net.cpp:148] Top shape: 1 1 1000 (1000)
I0925 21:34:39.700099 32440 net.cpp:148] Top shape: 1 1 1000 (1000)
I0925 21:34:39.700108 32440 net.cpp:156] Memory required for data: 90020
I0925 21:34:39.700116 32440 layer_factory.hpp:77] Creating layer lstm2_
I0925 21:34:39.700130 32440 net.cpp:91] Creating Layer lstm2_
I0925 21:34:39.700139 32440 net.cpp:425] lstm2_ <- c_1
I0925 21:34:39.700146 32448 net.cpp:141] Setting up pool1
I0925 21:34:39.700157 32440 net.cpp:399] lstm2_ -> c_T
I0925 21:34:39.700167 32448 net.cpp:148] Top shape: 10 96 27 27 (699840)
I0925 21:34:39.700173 32448 net.cpp:156] Memory required for data: 32214840
I0925 21:34:39.700182 32448 layer_factory.hpp:77] Creating layer norm1
I0925 21:34:39.700212 32448 net.cpp:91] Creating Layer norm1
I0925 21:34:39.700223 32448 net.cpp:425] norm1 <- pool1
I0925 21:34:39.700227 32440 net.cpp:141] Setting up lstm2_
I0925 21:34:39.700232 32448 net.cpp:399] norm1 -> norm1
I0925 21:34:39.700243 32440 net.cpp:148] Top shape: 1 1 1000 (1000)
I0925 21:34:39.700253 32440 net.cpp:156] Memory required for data: 94020
I0925 21:34:39.700261 32440 layer_factory.hpp:77] Creating layer lstm2_h_concat
I0925 21:34:39.700278 32440 net.cpp:91] Creating Layer lstm2_h_concat
I0925 21:34:39.700285 32440 net.cpp:425] lstm2_h_concat <- h_1
I0925 21:34:39.700299 32440 net.cpp:399] lstm2_h_concat -> h
I0925 21:34:39.700373 32440 net.cpp:141] Setting up lstm2_h_concat
I0925 21:34:39.700388 32440 net.cpp:148] Top shape: 1 1 1000 (1000)
I0925 21:34:39.700397 32440 net.cpp:156] Memory required for data: 98020
I0925 21:34:39.700404 32440 layer_factory.hpp:77] Creating layer h_pseudoloss
I0925 21:34:39.700419 32440 net.cpp:91] Creating Layer h_pseudoloss
I0925 21:34:39.700428 32440 net.cpp:425] h_pseudoloss <- h
I0925 21:34:39.700440 32440 net.cpp:399] h_pseudoloss -> h_pseudoloss
I0925 21:34:39.700724 32440 net.cpp:141] Setting up h_pseudoloss
…
I0925 21:34:39.700881 32440 net.cpp:219] cont_1_lstm2_cont_slice_0_split does not need backward computation.
I0925 21:34:39.700891 32440 net.cpp:219] lstm2_cont_slice does not need backward computation.
I0925 21:34:39.700901 32440 net.cpp:219] lstm2_ does not need backward computation.
I0925 21:34:39.700911 32440 net.cpp:219] lstm2_ does not need backward computation.
I0925 21:34:39.700918 32440 net.cpp:261] This network produces output c_T
I0925 21:34:39.700927 32440 net.cpp:261] This network produces output h_pseudoloss
I0925 21:34:39.700953 32440 net.cpp:274] Network initialization done.
I0925 21:34:39.700971 32448 net.cpp:141] Setting up norm1
I0925 21:34:39.700989 32448 net.cpp:148] Top shape: 10 96 27 27 (699840)
I0925 21:34:39.700994 32448 net.cpp:156] Memory required for data: 35014200
I0925 21:34:39.701000 32448 layer_factory.hpp:77] Creating layer conv2
I0925 21:34:39.701025 32448 net.cpp:91] Creating Layer conv2
I0925 21:34:39.701030 32440 recurrent_layer.cpp:150] Adding parameter 0: W_xc
I0925 21:34:39.701036 32448 net.cpp:425] conv2 <- norm1
I0925 21:34:39.701042 32440 recurrent_layer.cpp:150] Adding parameter 1: b_c
I0925 21:34:39.701046 32448 net.cpp:399] conv2 -> conv2
I0925 21:34:39.701051 32440 recurrent_layer.cpp:150] Adding parameter 2: W_hc
I0925 21:34:39.701508 32440 net.cpp:141] Setting up lstm2
I0925 21:34:39.701527 32440 net.cpp:148] Top shape: 1 1 1000 (1000)
I0925 21:34:39.701536 32440 net.cpp:156] Memory required for data: 36412
I0925 21:34:39.701561 32440 layer_factory.hpp:77] Creating layer predict
I0925 21:34:39.701582 32440 net.cpp:91] Creating Layer predict
I0925 21:34:39.701593 32440 net.cpp:425] predict <- lstm2
I0925 21:34:39.701606 32440 net.cpp:399] predict -> predict
I0925 21:34:39.793751 32448 net.cpp:141] Setting up conv2
I0925 21:34:39.793817 32448 net.cpp:148] Top shape: 10 256 27 27 (1866240)
I0925 21:34:39.793828 32448 net.cpp:156] Memory required for data: 42479160
I0925 21:34:39.793864 32448 layer_factory.hpp:77] Creating layer relu2
I0925 21:34:39.793931 32448 net.cpp:91] Creating Layer relu2
I0925 21:34:39.793946 32448 net.cpp:425] relu2 <- conv2
I0925 21:34:39.793959 32448 net.cpp:386] relu2 -> conv2 (in-place)
I0925 21:34:39.794535 32448 net.cpp:141] Setting up relu2
I0925 21:34:39.794558 32448 net.cpp:148] Top shape: 10 256 27 27 (1866240)
I0925 21:34:39.794565 32448 net.cpp:156] Memory required for data: 49944120
I0925 21:34:39.794574 32448 layer_factory.hpp:77] Creating layer pool2
I0925 21:34:39.794605 32448 net.cpp:91] Creating Layer pool2
I0925 21:34:39.794618 32448 net.cpp:425] pool2 <- conv2
I0925 21:34:39.794631 32448 net.cpp:399] pool2 -> pool2
I0925 21:34:39.794730 32448 net.cpp:141] Setting up pool2
I0925 21:34:39.794746 32448 net.cpp:148] Top shape: 10 256 13 13 (432640)
I0925 21:34:39.794754 32448 net.cpp:156] Memory required for data: 51674680
I0925 21:34:39.794764 32448 layer_factory.hpp:77] Creating layer norm2
I0925 21:34:39.794790 32448 net.cpp:91] Creating Layer norm2
I0925 21:34:39.794800 32448 net.cpp:425] norm2 <- pool2
I0925 21:34:39.794812 32448 net.cpp:399] norm2 -> norm2
I0925 21:34:39.795219 32448 net.cpp:141] Setting up norm2
I0925 21:34:39.795236 32448 net.cpp:148] Top shape: 10 256 13 13 (432640)
I0925 21:34:39.795244 32448 net.cpp:156] Memory required for data: 53405240
I0925 21:34:39.795253 32448 layer_factory.hpp:77] Creating layer conv3
I0925 21:34:39.795279 32448 net.cpp:91] Creating Layer conv3
I0925 21:34:39.795289 32448 net.cpp:425] conv3 <- norm2
I0925 21:34:39.795300 32448 net.cpp:399] conv3 -> conv3
I0925 21:34:39.800626 32448 net.cpp:141] Setting up conv3
I0925 21:34:39.800669 32448 net.cpp:148] Top shape: 10 384 13 13 (648960)
I0925 21:34:39.800679 32448 net.cpp:156] Memory required for data: 56001080
I0925 21:34:39.800704 32448 layer_factory.hpp:77] Creating layer relu3
I0925 21:34:39.800731 32448 net.cpp:91] Creating Layer relu3
I0925 21:34:39.800742 32448 net.cpp:425] relu3 <- conv3
I0925 21:34:39.800755 32448 net.cpp:386] relu3 -> conv3 (in-place)
I0925 21:34:39.801101 32448 net.cpp:141] Setting up relu3
I0925 21:34:39.801123 32448 net.cpp:148] Top shape: 10 384 13 13 (648960)
I0925 21:34:39.801132 32448 net.cpp:156] Memory required for data: 58596920
I0925 21:34:39.801141 32448 layer_factory.hpp:77] Creating layer conv4
I0925 21:34:39.801159 32448 net.cpp:91] Creating Layer conv4
I0925 21:34:39.801168 32448 net.cpp:425] conv4 <- conv3
I0925 21:34:39.801185 32448 net.cpp:399] conv4 -> conv4
I0925 21:34:39.811997 32448 net.cpp:141] Setting up conv4
I0925 21:34:39.812057 32448 net.cpp:148] Top shape: 10 384 13 13 (648960)
I0925 21:34:39.812067 32448 net.cpp:156] Memory required for data: 61192760
I0925 21:34:39.812088 32448 layer_factory.hpp:77] Creating layer relu4
I0925 21:34:39.812124 32448 net.cpp:91] Creating Layer relu4
I0925 21:34:39.812135 32448 net.cpp:425] relu4 <- conv4
I0925 21:34:39.812155 32448 net.cpp:386] relu4 -> conv4 (in-place)
I0925 21:34:39.812705 32448 net.cpp:141] Setting up relu4
I0925 21:34:39.812724 32448 net.cpp:148] Top shape: 10 384 13 13 (648960)
I0925 21:34:39.812732 32448 net.cpp:156] Memory required for data: 63788600
I0925 21:34:39.812741 32448 layer_factory.hpp:77] Creating layer conv5
I0925 21:34:39.812767 32448 net.cpp:91] Creating Layer conv5
I0925 21:34:39.812777 32448 net.cpp:425] conv5 <- conv4
I0925 21:34:39.812791 32448 net.cpp:399] conv5 -> conv5
I0925 21:34:39.818114 32448 net.cpp:141] Setting up conv5
I0925 21:34:39.818145 32448 net.cpp:148] Top shape: 10 256 13 13 (432640)
I0925 21:34:39.818155 32448 net.cpp:156] Memory required for data: 65519160
I0925 21:34:39.818179 32448 layer_factory.hpp:77] Creating layer relu5
I0925 21:34:39.818202 32448 net.cpp:91] Creating Layer relu5
I0925 21:34:39.818212 32448 net.cpp:425] relu5 <- conv5
I0925 21:34:39.818223 32448 net.cpp:386] relu5 -> conv5 (in-place)
I0925 21:34:39.821609 32448 net.cpp:141] Setting up relu5
I0925 21:34:39.821640 32448 net.cpp:148] Top shape: 10 256 13 13 (432640)
I0925 21:34:39.821651 32448 net.cpp:156] Memory required for data: 67249720
I0925 21:34:39.821662 32448 layer_factory.hpp:77] Creating layer pool5
I0925 21:34:39.821686 32448 net.cpp:91] Creating Layer pool5
I0925 21:34:39.821696 32448 net.cpp:425] pool5 <- conv5
I0925 21:34:39.821710 32448 net.cpp:399] pool5 -> pool5
I0925 21:34:39.821841 32448 net.cpp:141] Setting up pool5
I0925 21:34:39.821859 32448 net.cpp:148] Top shape: 10 256 6 6 (92160)
I0925 21:34:39.821869 32448 net.cpp:156] Memory required for data: 67618360
I0925 21:34:39.821879 32448 layer_factory.hpp:77] Creating layer fc6
I0925 21:34:39.821902 32448 net.cpp:91] Creating Layer fc6
I0925 21:34:39.821913 32448 net.cpp:425] fc6 <- pool5
I0925 21:34:39.821933 32448 net.cpp:399] fc6 -> fc6
I0925 21:34:39.915457 32422 net.cpp:141] Setting up predict
I0925 21:34:39.915529 32422 net.cpp:148] Top shape: 1 1 46168 (46168)
I0925 21:34:39.915536 32422 net.cpp:156] Memory required for data: 221084
I0925 21:34:39.915557 32422 layer_factory.hpp:77] Creating layer probs
I0925 21:34:39.915582 32422 net.cpp:91] Creating Layer probs
I0925 21:34:39.915594 32422 net.cpp:425] probs <- predict
I0925 21:34:39.915607 32422 net.cpp:399] probs -> probs
I0925 21:34:39.916224 32422 net.cpp:141] Setting up probs
I0925 21:34:39.916240 32422 net.cpp:148] Top shape: 1 1 46168 (46168)
I0925 21:34:39.916245 32422 net.cpp:156] Memory required for data: 405756
I0925 21:34:39.916252 32422 net.cpp:219] probs does not need backward computation.
I0925 21:34:39.916259 32422 net.cpp:219] predict does not need backward computation.
I0925 21:34:39.916266 32422 net.cpp:219] lstm2 does not need backward computation.
I0925 21:34:39.916275 32422 net.cpp:219] concat does not need backward computation.
I0925 21:34:39.916281 32422 net.cpp:219] lstm1 does not need backward computation.
I0925 21:34:39.916290 32422 net.cpp:219] embedding does not need backward computation.
I0925 21:34:39.916296 32422 net.cpp:219] reshape_stage_indicator does not need backward computation.
I0925 21:34:39.916301 32422 net.cpp:219] reshape_frames does not need backward computation.
I0925 21:34:39.916307 32422 net.cpp:219] embed_encoder does not need backward computation.
I0925 21:34:39.916314 32422 net.cpp:219] cont_sentence_input_1_split does not need backward computation.
I0925 21:34:39.916321 32422 net.cpp:219] input does not need backward computation.
I0925 21:34:39.916324 32422 net.cpp:261] This network produces output probs
I0925 21:34:39.916345 32422 net.cpp:274] Network initialization done.
I0925 21:34:39.948024 32448 net.cpp:141] Setting up fc6
I0925 21:34:39.948089 32448 net.cpp:148] Top shape: 10 4096 (40960)
I0925 21:34:39.948097 32448 net.cpp:156] Memory required for data: 67782200
I0925 21:34:39.948117 32448 layer_factory.hpp:77] Creating layer relu6
I0925 21:34:39.948137 32448 net.cpp:91] Creating Layer relu6
I0925 21:34:39.948145 32448 net.cpp:425] relu6 <- fc6
I0925 21:34:39.948155 32448 net.cpp:386] relu6 -> fc6 (in-place)
I0925 21:34:39.948930 32448 net.cpp:141] Setting up relu6
I0925 21:34:39.948952 32448 net.cpp:148] Top shape: 10 4096 (40960)
I0925 21:34:39.948959 32448 net.cpp:156] Memory required for data: 67946040
I0925 21:34:39.948966 32448 layer_factory.hpp:77] Creating layer drop6
I0925 21:34:39.948981 32448 net.cpp:91] Creating Layer drop6
I0925 21:34:39.948987 32448 net.cpp:425] drop6 <- fc6
I0925 21:34:39.948994 32448 net.cpp:386] drop6 -> fc6 (in-place)
I0925 21:34:39.949069 32448 net.cpp:141] Setting up drop6
I0925 21:34:39.949080 32448 net.cpp:148] Top shape: 10 4096 (40960)
I0925 21:34:39.949085 32448 net.cpp:156] Memory required for data: 68109880
I0925 21:34:39.949091 32448 layer_factory.hpp:77] Creating layer fc7
I0925 21:34:39.949105 32448 net.cpp:91] Creating Layer fc7
I0925 21:34:39.949110 32448 net.cpp:425] fc7 <- fc6
I0925 21:34:39.949118 32448 net.cpp:399] fc7 -> fc7
I0925 21:34:40.003026 32448 net.cpp:141] Setting up fc7
I0925 21:34:40.003085 32448 net.cpp:148] Top shape: 10 4096 (40960)
I0925 21:34:40.003093 32448 net.cpp:156] Memory required for data: 68273720
I0925 21:34:40.003110 32448 layer_factory.hpp:77] Creating layer relu7
I0925 21:34:40.003131 32448 net.cpp:91] Creating Layer relu7
I0925 21:34:40.003139 32448 net.cpp:425] relu7 <- fc7
I0925 21:34:40.003154 32448 net.cpp:386] relu7 -> fc7 (in-place)
I0925 21:34:40.003540 32448 net.cpp:141] Setting up relu7
I0925 21:34:40.003553 32448 net.cpp:148] Top shape: 10 4096 (40960)
I0925 21:34:40.003559 32448 net.cpp:156] Memory required for data: 68437560
I0925 21:34:40.003566 32448 layer_factory.hpp:77] Creating layer drop7
I0925 21:34:40.003585 32448 net.cpp:91] Creating Layer drop7
I0925 21:34:40.003592 32448 net.cpp:425] drop7 <- fc7
I0925 21:34:40.003599 32448 net.cpp:386] drop7 -> fc7 (in-place)
I0925 21:34:40.003667 32448 net.cpp:141] Setting up drop7
I0925 21:34:40.003679 32448 net.cpp:148] Top shape: 10 4096 (40960)
I0925 21:34:40.003684 32448 net.cpp:156] Memory required for data: 68601400
I0925 21:34:40.003690 32448 layer_factory.hpp:77] Creating layer fc8
I0925 21:34:40.003702 32448 net.cpp:91] Creating Layer fc8
I0925 21:34:40.003707 32448 net.cpp:425] fc8 <- fc7
I0925 21:34:40.003718 32448 net.cpp:399] fc8 -> fc8
I0925 21:34:40.017298 32448 net.cpp:141] Setting up fc8
I0925 21:34:40.017361 32448 net.cpp:148] Top shape: 10 1000 (10000)
I0925 21:34:40.017369 32448 net.cpp:156] Memory required for data: 68641400
I0925 21:34:40.017385 32448 layer_factory.hpp:77] Creating layer prob
I0925 21:34:40.017405 32448 net.cpp:91] Creating Layer prob
I0925 21:34:40.017413 32448 net.cpp:425] prob <- fc8
I0925 21:34:40.017431 32448 net.cpp:399] prob -> prob
I0925 21:34:40.018245 32448 net.cpp:141] Setting up prob
I0925 21:34:40.018268 32448 net.cpp:148] Top shape: 10 1000 (10000)
I0925 21:34:40.018275 32448 net.cpp:156] Memory required for data: 68681400
I0925 21:34:40.018281 32448 net.cpp:219] prob does not need backward computation.
I0925 21:34:40.018287 32448 net.cpp:219] fc8 does not need backward computation.
I0925 21:34:40.018293 32448 net.cpp:219] drop7 does not need backward computation.
I0925 21:34:40.018298 32448 net.cpp:219] relu7 does not need backward computation.
…
I0925 21:34:40.018383 32448 net.cpp:219] norm1 does not need backward computation.
I0925 21:34:40.018388 32448 net.cpp:219] pool1 does not need backward computation.
I0925 21:34:40.018394 32448 net.cpp:219] relu1 does not need backward computation.
I0925 21:34:40.018399 32448 net.cpp:219] conv1 does not need backward computation.
I0925 21:34:40.018404 32448 net.cpp:219] data does not need backward computation.
I0925 21:34:40.018409 32448 net.cpp:261] This network produces output prob
I0925 21:34:40.018431 32448 net.cpp:274] Network initialization done.
I0925 21:34:40.025830 32426 net.cpp:141] Setting up predict
I0925 21:34:40.025890 32426 net.cpp:148] Top shape: 1 1 46168 (46168)
I0925 21:34:40.025898 32426 net.cpp:156] Memory required for data: 221084
I0925 21:34:40.025915 32426 layer_factory.hpp:77] Creating layer probs
I0925 21:34:40.025938 32426 net.cpp:91] Creating Layer probs
I0925 21:34:40.025949 32426 net.cpp:425] probs <- predict
I0925 21:34:40.025961 32426 net.cpp:399] probs -> probs
I0925 21:34:40.026504 32426 net.cpp:141] Setting up probs
I0925 21:34:40.026520 32426 net.cpp:148] Top shape: 1 1 46168 (46168)
I0925 21:34:40.026525 32426 net.cpp:156] Memory required for data: 405756
I0925 21:34:40.026531 32426 net.cpp:219] probs does not need backward computation.
I0925 21:34:40.026537 32426 net.cpp:219] predict does not need backward computation.
I0925 21:34:40.026543 32426 net.cpp:219] lstm2 does not need backward computation.
I0925 21:34:40.026551 32426 net.cpp:219] concat does not need backward computation.
I0925 21:34:40.026557 32426 net.cpp:219] lstm1 does not need backward computation.
I0925 21:34:40.026564 32426 net.cpp:219] embedding does not need backward computation.
I0925 21:34:40.026571 32426 net.cpp:219] reshape_stage_indicator does not need backward computation.
I0925 21:34:40.026576 32426 net.cpp:219] reshape_frames does not need backward computation.
I0925 21:34:40.026582 32426 net.cpp:219] embed_encoder does not need backward computation.
I0925 21:34:40.026588 32426 net.cpp:219] cont_sentence_input_1_split does not need backward computation.
I0925 21:34:40.026612 32426 net.cpp:219] input does not need backward computation.
I0925 21:34:40.026618 32426 net.cpp:261] This network produces output probs
I0925 21:34:40.026638 32426 net.cpp:274] Network initialization done.
I0925 21:34:40.174057 32446 net.cpp:141] Setting up predict
I0925 21:34:40.174121 32446 net.cpp:148] Top shape: 1 1 46168 (46168)
I0925 21:34:40.174134 32446 net.cpp:156] Memory required for data: 221084
I0925 21:34:40.174160 32446 layer_factory.hpp:77] Creating layer probs
I0925 21:34:40.174187 32446 net.cpp:91] Creating Layer probs
I0925 21:34:40.174203 32446 net.cpp:425] probs <- predict
I0925 21:34:40.174221 32446 net.cpp:399] probs -> probs
I0925 21:34:40.175225 32446 net.cpp:141] Setting up probs
I0925 21:34:40.175251 32446 net.cpp:148] Top shape: 1 1 46168 (46168)
I0925 21:34:40.175261 32446 net.cpp:156] Memory required for data: 405756
I0925 21:34:40.175271 32446 net.cpp:219] probs does not need backward computation.
I0925 21:34:40.175279 32446 net.cpp:219] predict does not need backward computation.
I0925 21:34:40.175292 32446 net.cpp:219] lstm2 does not need backward computation.
I0925 21:34:40.175303 32446 net.cpp:219] concat does not need backward computation.
I0925 21:34:40.175313 32446 net.cpp:219] lstm1 does not need backward computation.
I0925 21:34:40.175324 32446 net.cpp:219] embedding does not need backward computation.
I0925 21:34:40.175335 32446 net.cpp:219] reshape_stage_indicator does not need backward computation.
I0925 21:34:40.175345 32446 net.cpp:219] reshape_frames does not need backward computation.
I0925 21:34:40.175355 32446 net.cpp:219] embed_encoder does not need backward computation.
I0925 21:34:40.175367 32446 net.cpp:219] cont_sentence_input_1_split does not need backward computation.
I0925 21:34:40.175379 32446 net.cpp:219] input does not need backward computation.
I0925 21:34:40.175385 32446 net.cpp:261] This network produces output probs
I0925 21:34:40.175411 32446 net.cpp:274] Network initialization done.
I0925 21:34:40.239089 32440 net.cpp:141] Setting up predict
I0925 21:34:40.239159 32440 net.cpp:148] Top shape: 1 1 46168 (46168)
I0925 21:34:40.239171 32440 net.cpp:156] Memory required for data: 221084
I0925 21:34:40.239203 32440 layer_factory.hpp:77] Creating layer probs
I0925 21:34:40.239233 32440 net.cpp:91] Creating Layer probs
I0925 21:34:40.239250 32440 net.cpp:425] probs <- predict
I0925 21:34:40.239269 32440 net.cpp:399] probs -> probs
I0925 21:34:40.240185 32440 net.cpp:141] Setting up probs
I0925 21:34:40.240244 32440 net.cpp:148] Top shape: 1 1 46168 (46168)
I0925 21:34:40.240254 32440 net.cpp:156] Memory required for data: 405756
I0925 21:34:40.240268 32440 net.cpp:219] probs does not need backward computation.
I0925 21:34:40.240279 32440 net.cpp:219] predict does not need backward computation.
I0925 21:34:40.240291 32440 net.cpp:219] lstm2 does not need backward computation.
I0925 21:34:40.240305 32440 net.cpp:219] concat does not need backward computation.
…
