…
Java HotSpot(TM) 64-Bit Server VM warning: You have loaded library /tmp/cvld5797002418844899729/libopencv_java310.so which might have disabled stack guard. The VM will try to fix the stack guard now.
It's highly recommended that you fix the library with 'execstack -c <libfile>', or link it with '-z noexecstack'.
WARNING: Logging before InitGoogleLogging() is written to STDERR
I0707 16:12:31.853269 15061 net.cpp:50] Initializing net from parameters: 
name: "GoogleNet"
input: "data"
input_dim: 10
input_dim: 3
input_dim: 224
input_dim: 224
state {
  phase: TEST
}
layer {
  name: "conv1/7x7_s2"
  type: "Convolution"
  bottom: "data"
  top: "conv1/7x7_s2"
  param {
    lr_mult: 1
    decay_mult: 1
  }
  param {
    lr_mult: 2
    decay_mult: 0
  }
  convolution_param {
    num_output: 64
    pad: 3
    kernel_size: 7
    stride: 2
    weight_filler {
      type: "xavier"
      std: 0.1
    }
    bias_filler {
      type: "constant"
      value: 0.2
    }
  }
}
layer {
  name: "conv1/relu_7x7"
  type: "ReLU"
  bottom: "conv1/7x7_s2"
  top: "conv1/7x7_s2"
}
layer {
  name: "pool1/3x3_s2"
  type: "Pooling"
  bottom: "conv1/7x7_s2"
  top: "pool1/3x3_s2"
  pooling_param {
    pool: MAX
    kernel_size: 3
    stride: 2
  }
}
layer {
  name: "pool1/norm1"
  type: "LRN"
  bottom: "pool1/3x3_s2"
  top: "pool1/norm1"
  lrn_param {
    local_size: 5
    alpha: 0.0001
    beta: 0.75
  }
}
layer {
  name: "conv2/3x3_reduce"
  type: "Convolution"
  bottom: "pool1/norm1"
  top: "conv2/3x3_reduce"
  param {
    lr_mult: 1
    decay_mult: 1
  }
  param {
    lr_mult: 2
    decay_mult: 0
  }
  convolution_param {
    num_output: 64
    kernel_size: 1
    weight_filler {
      type: "xavier"
      std: 0.1
    }
    bias_filler {
      type: "constant"
      value: 0.2
    }
  }
}
layer {
  name: "conv2/relu_3x3_reduce"
  type: "ReLU"
  bottom: "conv2/3x3_reduce"
  top: "conv2/3x3_reduce"
}
layer {
  name: "conv2/3x3"
  type: "Convolution"
  bottom: "conv2/3x3_reduce"
  top: "conv2/3x3"
  param {
    lr_mult: 1
    decay_mult: 1
  }
  param {
    lr_mult: 2
    decay_mult: 0
  }
  convolution_param {
    num_output: 192
    pad: 1
    kernel_size: 3
    weight_filler {
      type: "xavier"
      std: 0.03
    }
    bias_filler {
      type: "constant"
      value: 0.2
    }
  }
}
layer {
  name: "conv2/relu_3x3"
  type: "ReLU"
  bottom: "conv2/3x3"
  top: "conv2/3x3"
}
layer {
  name: "conv2/norm2"
  type: "LRN"
  bottom: "conv2/3x3"
  top: "conv2/norm2"
  lrn_param {
    local_size: 5
    alpha: 0.0001
    beta: 0.75
  }
}
layer {
  name: "pool2/3x3_s2"
  type: "Pooling"
  bottom: "conv2/norm2"
  top: "pool2/3x3_s2"
  pooling_param {
    pool: MAX
    kernel_size: 3
    stride: 2
  }
}
layer {
  name: "inception_3a/1x1"
  type: "Convolution"
  bottom: "pool2/3x3_s2"
  top: "inception_3a/1x1"
  param {
    lr_mult: 1
    decay_mult: 1
  }
  param {
    lr_mult: 2
    decay_mult: 0
  }
  convolution_param {
    num_output: 64
    kernel_size: 1
    weight_filler {
      type: "xavier"
      std: 0.03
    }
    bias_filler {
      type: "constant"
      value: 0.2
    }
  }
}
layer {
  name: "inception_3a/relu_1x1"
  type: "ReLU"
  bottom: "inception_3a/1x1"
  top: "inception_3a/1x1"
}
layer {
  name: "inception_3a/3x3_reduce"
  type: "Convolution"
  bottom: "pool2/3x3_s2"
  top: "inception_3a/3x3_reduce"
  param {
    lr_mult: 1
    decay_mult: 1
  }
  param {
    lr_mult: 2
    decay_mult: 0
  }
  convolution_param {
    num_output: 96
    kernel_size: 1
    weight_filler {
      type: "xavier"
      std: 0.09
    }
    bias_filler {
      type: "constant"
      value: 0.2
    }
  }
}
layer {
  name: "inception_3a/relu_3x3_reduce"
  type: "ReLU"
  bottom: "inception_3a/3x3_reduce"
  top: "inception_3a/3x3_reduce"
}
layer {
  name: "inception_3a/3x3"
  type: "Convolution"
  bottom: "inception_3a/3x3_reduce"
  top: "inception_3a/3x3"
  param {
    lr_mult: 1
    decay_mult: 1
  }
  param {
    lr_mult: 2
    decay_mult: 0
  }
  convolution_param {
    num_output: 128
    pad: 1
    kernel_size: 3
    weight_filler {
      type: "xavier"
      std: 0.03
    }
    bias_filler {
      type: "constant"
      value: 0.2
    }
  }
}
layer {
  name: "inception_3a/relu_3x3"
  type: "ReLU"
  bottom: "inception_3a/3x3"
  top: "inception_3a/3x3"
}
layer {
  name: "inception_3a/5x5_reduce"
  type: "Convolution"
  bottom: "pool2/3x3_s2"
  top: "inception_3a/5x5_reduce"
  param {
    lr_mult: 1
    decay_mult: 1
  }
  param {
    lr_mult: 2
    decay_mult: 0
  }
  convolution_param {
    num_output: 16
    kernel_size: 1
    weight_filler {
      type: "xavier"
      std: 0.2
    }
    bias_filler {
      type: "constant"
      value: 0.2
    }
  }
}
layer {
  name: "inception_3a/relu_5x5_reduce"
  type: "ReLU"
  bottom: "inception_3a/5x5_reduce"
  top: "inception_3a/5x5_reduce"
}
layer {
  name: "inception_3a/5x5"
  type: "Convolution"
  bottom: "inception_3a/5x5_reduce"
  top: "inception_3a/5x5"
  param {
    lr_mult: 1
    decay_mult: 1
  }
  param {
    lr_mult: 2
    decay_mult: 0
  }
  convolution_param {
    num_output: 32
    pad: 2
    kernel_size: 5
    weight_filler {
      type: "xavier"
      std: 0.03
    }
    bias_filler {
      type: "constant"
      value: 0.2
    }
  }
}
layer {
  name: "inception_3a/relu_5x5"
  type: "ReLU"
  bottom: "inception_3a/5x5"
  top: "inception_3a/5x5"
}
layer {
  name: "inception_3a/pool"
  type: "Pooling"
  bottom: "pool2/3x3_s2"
  top: "inception_3a/pool"
  pooling_param {
    pool: MAX
    kernel_size: 3
    stride: 1
    pad: 1
  }
}
layer {
  name: "inception_3a/pool_proj"
  type: "Convolution"
  bottom: "inception_3a/pool"
  top: "inception_3a/pool_proj"
  param {
    lr_mult: 1
    decay_mult: 1
  }
  param {
    lr_mult: 2
    decay_mult: 0
  }
  convolution_param {
    num_output: 32
    kernel_size: 1
    weight_filler {
      type: "xavier"
      std: 0.1
    }
    bias_filler {
      type: "constant"
      value: 0.2
    }
  }
}
layer {
  name: "inception_3a/relu_pool_proj"
  type: "ReLU"
  bottom: "inception_3a/pool_proj"
  top: "inception_3a/pool_proj"
}
layer {
  name: "inception_3a/output"
  type: "Concat"
  bottom: "inception_3a/1x1"
  bottom: "inception_3a/3x3"
  bottom: "inception_3a/5x5"
  bottom: "inception_3a/pool_proj"
  top: "inception_3a/output"
}
layer {
  name: "inception_3b/1x1"
  type: "Convolution"
  bottom: "inception_3a/output"
  top: "inception_3b/1x1"
  param {
    lr_mult: 1
    decay_mult: 1
  }
  param {
    lr_mult: 2
    decay_mult: 0
  }
  convolution_param {
    num_output: 128
    kernel_size: 1
    weight_filler {
      type: "xavier"
      std: 0.03
    }
    bias_filler {
      type: "constant"
      value: 0.2
    }
  }
}
layer {
  name: "inception_3b/relu_1x1"
  type: "ReLU"
  bottom: "inception_3b/1x1"
  top: "inception_3b/1x1"
}
layer {
  name: "inception_3b/3x3_reduce"
  type: "Convolution"
  bottom: "inception_3a/output"
  top: "inception_3b/3x3_reduce"
  param {
    lr_mult: 1
    decay_mult: 1
  }
  param {
    lr_mult: 2
    decay_mult: 0
  }
  convolution_param {
    num_output: 128
    kernel_size: 1
    weight_filler {
      type: "xavier"
      std: 0.09
    }
    bias_filler {
      type: "constant"
      value: 0.2
    }
  }
}
layer {
  name: "inception_3b/relu_3x3_reduce"
  type: "ReLU"
  bottom: "inception_3b/3x3_reduce"
  top: "inception_3b/3x3_reduce"
}
layer {
  name: "inception_3b/3x3"
  type: "Convolution"
  bottom: "inception_3b/3x3_reduce"
  top: "inception_3b/3x3"
  param {
    lr_mult: 1
    decay_mult: 1
  }
  param {
    lr_mult: 2
    decay_mult: 0
  }
  convolution_param {
    num_output: 192
    pad: 1
    kernel_size: 3
    weight_filler {
      type: "xavier"
      std: 0.03
    }
    bias_filler {
      type: "constant"
      value: 0.2
    }
  }
}
layer {
  name: "inception_3b/relu_3x3"
  type: "ReLU"
  bottom: "inception_3b/3x3"
  top: "inception_3b/3x3"
}
layer {
  name: "inception_3b/5x5_reduce"
  type: "Convolution"
  bottom: "inception_3a/output"
  top: "inception_3b/5x5_reduce"
  param {
    lr_mult: 1
    decay_mult: 1
  }
  param {
    lr_mult: 2
    decay_mult: 0
  }
  convolution_param {
    num_output: 32
    kernel_size: 1
    weight_filler {
      type: "xavier"
      std: 0.2
    }
    bias_filler {
      type: "constant"
      value: 0.2
    }
  }
}
layer {
  name: "inception_3b/relu_5x5_reduce"
  type: "ReLU"
  bottom: "inception_3b/5x5_reduce"
  top: "inception_3b/5x5_reduce"
}
layer {
  name: "inception_3b/5x5"
  type: "Convolution"
  bottom: "inception_3b/5x5_reduce"
  top: "inception_3b/5x5"
  param {
    lr_mult: 1
    decay_mult: 1
  }
  param {
    lr_mult: 2
    decay_mult: 0
  }
  convolution_param {
    num_output: 96
    pad: 2
    kernel_size: 5
    weight_filler {
      type: "xavier"
      std: 0.03
    }
    bias_filler {
      type: "constant"
      value: 0.2
    }
  }
}
layer {
  name: "inception_3b/relu_5x5"
  type: "ReLU"
  bottom: "inception_3b/5x5"
  top: "inception_3b/5x5"
}
layer {
  name: "inception_3b/pool"
  type: "Pooling"
  bottom: "inception_3a/output"
  top: "inception_3b/pool"
  pooling_param {
    pool: MAX
    kernel_size: 3
    stride: 1
    pad: 1
  }
}
layer {
  name: "inception_3b/pool_proj"
  type: "Convolution"
  bottom: "inception_3b/pool"
  top: "inception_3b/pool_proj"
  param {
    lr_mult: 1
    decay_mult: 1
  }
  param {
    lr_mult: 2
    decay_mult: 0
  }
  convolution_param {
    num_output: 64
    kernel_size: 1
    weight_filler {
      type: "xavier"
      std: 0.1
    }
    bias_filler {
      type: "constant"
      value: 0.2
    }
  }
}
layer {
  name: "inception_3b/relu_pool_proj"
  type: "ReLU"
  bottom: "inception_3b/pool_proj"
  top: "inception_3b/pool_proj"
}
layer {
  name: "inception_3b/output"
  type: "Concat"
  bottom: "inception_3b/1x1"
  bottom: "inception_3b/3x3"
  bottom: "inception_3b/5x5"
  bottom: "inception_3b/pool_proj"
  top: "inception_3b/output"
}
layer {
  name: "pool3/3x3_s2"
  type: "Pooling"
  bottom: "inception_3b/output"
  top: "pool3/3x3_s2"
  pooling_param {
    pool: MAX
    kernel_size: 3
    stride: 2
  }
}
layer {
  name: "inception_4a/1x1"
  type: "Convolution"
  bottom: "pool3/3x3_s2"
  top: "inception_4a/1x1"
  param {
    lr_mult: 1
    decay_mult: 1
  }
  param {
    lr_mult: 2
    decay_mult: 0
  }
  convolution_param {
    num_output: 192
    kernel_size: 1
    weight_filler {
      type: "xavier"
      std: 0.03
    }
    bias_filler {
      type: "constant"
      value: 0.2
    }
  }
}
layer {
  name: "inception_4a/relu_1x1"
  type: "ReLU"
  bottom: "inception_4a/1x1"
  top: "inception_4a/1x1"
}
layer {
  name: "inception_4a/3x3_reduce"
  type: "Convolution"
  bottom: "pool3/3x3_s2"
  top: "inception_4a/3x3_reduce"
  param {
    lr_mult: 1
    decay_mult: 1
  }
  param {
    lr_mult: 2
    decay_mult: 0
  }
  convolution_param {
    num_output: 96
    kernel_size: 1
    weight_filler {
      type: "xavier"
      std: 0.09
    }
    bias_filler {
      type: "constant"
      value: 0.2
    }
  }
}
layer {
  name: "inception_4a/relu_3x3_reduce"
  type: "ReLU"
  bottom: "inception_4a/3x3_reduce"
  top: "inception_4a/3x3_reduce"
}
layer {
  name: "inception_4a/3x3"
  type: "Convolution"
  bottom: "inception_4a/3x3_reduce"
  top: "inception_4a/3x3"
  param {
    lr_mult: 1
    decay_mult: 1
  }
  param {
    lr_mult: 2
    decay_mult: 0
  }
  convolution_param {
    num_output: 208
    pad: 1
    kernel_size: 3
    weight_filler {
      type: "xavier"
      std: 0.03
    }
    bias_filler {
      type: "constant"
      value: 0.2
    }
  }
}
layer {
  name: "inception_4a/relu_3x3"
  type: "ReLU"
  bottom: "inception_4a/3x3"
  top: "inception_4a/3x3"
}
layer {
  name: "inception_4a/5x5_reduce"
  type: "Convolution"
  bottom: "pool3/3x3_s2"
  top: "inception_4a/5x5_reduce"
  param {
    lr_mult: 1
    decay_mult: 1
  }
  param {
    lr_mult: 2
    decay_mult: 0
  }
  convolution_param {
    num_output: 16
    kernel_size: 1
    weight_filler {
      type: "xavier"
      std: 0.2
    }
    bias_filler {
      type: "constant"
      value: 0.2
    }
  }
}
layer {
  name: "inception_4a/relu_5x5_reduce"
  type: "ReLU"
  bottom: "inception_4a/5x5_reduce"
  top: "inception_4a/5x5_reduce"
}
layer {
  name: "inception_4a/5x5"
  type: "Convolution"
  bottom: "inception_4a/5x5_reduce"
  top: "inception_4a/5x5"
  param {
    lr_mult: 1
    decay_mult: 1
  }
  param {
    lr_mult: 2
    decay_mult: 0
  }
  convolution_param {
    num_output: 48
    pad: 2
    kernel_size: 5
    weight_filler {
      type: "xavier"
      std: 0.03
    }
    bias_filler {
      type: "constant"
      value: 0.2
    }
  }
}
layer {
  name: "inception_4a/relu_5x5"
  type: "ReLU"
  bottom: "inception_4a/5x5"
  top: "inception_4a/5x5"
}
layer {
  name: "inception_4a/pool"
  type: "Pooling"
  bottom: "pool3/3x3_s2"
  top: "inception_4a/pool"
  pooling_param {
    pool: MAX
    kernel_size: 3
    stride: 1
    pad: 1
  }
}
layer {
  name: "inception_4a/pool_proj"
  type: "Convolution"
  bottom: "inception_4a/pool"
  top: "inception_4a/pool_proj"
  param {
    lr_mult: 1
    decay_mult: 1
  }
  param {
    lr_mult: 2
    decay_mult: 0
  }
  convolution_param {
    num_output: 64
    kernel_size: 1
    weight_filler {
      type: "xavier"
      std: 0.1
    }
    bias_filler {
      type: "constant"
      value: 0.2
    }
  }
}
layer {
  name: "inception_4a/relu_pool_proj"
  type: "ReLU"
  bottom: "inception_4a/pool_proj"
  top: "inception_4a/pool_proj"
}
layer {
  name: "inception_4a/output"
  type: "Concat"
  bottom: "inception_4a/1x1"
  bottom: "inception_4a/3x3"
  bottom: "inception_4a/5x5"
  bottom: "inception_4a/pool_proj"
  top: "inception_4a/output"
}
layer {
  name: "inception_4b/1x1"
  type: "Convolution"
  bottom: "inception_4a/output"
  top: "inception_4b/1x1"
  param {
    lr_mult: 1
    decay_mult: 1
  }
  param {
    lr_mult: 2
    decay_mult: 0
  }
  convolution_param {
    num_output: 160
    kernel_size: 1
    weight_filler {
      type: "xavier"
      std: 0.03
    }
    bias_filler {
      type: "constant"
      value: 0.2
    }
  }
}
layer {
  name: "inception_4b/relu_1x1"
  type: "ReLU"
  bottom: "inception_4b/1x1"
  top: "inception_4b/1x1"
}
layer {
  name: "inception_4b/3x3_reduce"
  type: "Convolution"
  bottom: "inception_4a/output"
  top: "inception_4b/3x3_reduce"
  param {
    lr_mult: 1
    decay_mult: 1
  }
  param {
    lr_mult: 2
    decay_mult: 0
  }
  convolution_param {
    num_output: 112
    kernel_size: 1
    weight_filler {
      type: "xavier"
      std: 0.09
    }
    bias_filler {
      type: "constant"
      value: 0.2
    }
  }
}
layer {
  name: "inception_4b/relu_3x3_reduce"
  type: "ReLU"
  bottom: "inception_4b/3x3_reduce"
  top: "inception_4b/3x3_reduce"
}
layer {
  name: "inception_4b/3x3"
  type: "Convolution"
  bottom: "inception_4b/3x3_reduce"
  top: "inception_4b/3x3"
  param {
    lr_mult: 1
    decay_mult: 1
  }
  param {
    lr_mult: 2
    decay_mult: 0
  }
  convolution_param {
    num_output: 224
    pad: 1
    kernel_size: 3
    weight_filler {
      type: "xavier"
      std: 0.03
    }
    bias_filler {
      type: "constant"
      value: 0.2
    }
  }
}
layer {
  name: "inception_4b/relu_3x3"
  type: "ReLU"
  bottom: "inception_4b/3x3"
  top: "inception_4b/3x3"
}
layer {
  name: "inception_4b/5x5_reduce"
  type: "Convolution"
  bottom: "inception_4a/output"
  top: "inception_4b/5x5_reduce"
  param {
    lr_mult: 1
    decay_mult: 1
  }
  param {
    lr_mult: 2
    decay_mult: 0
  }
  convolution_param {
    num_output: 24
    kernel_size: 1
    weight_filler {
      type: "xavier"
      std: 0.2
    }
    bias_filler {
      type: "constant"
      value: 0.2
    }
  }
}
layer {
  name: "inception_4b/relu_5x5_reduce"
  type: "ReLU"
  bottom: "inception_4b/5x5_reduce"
  top: "inception_4b/5x5_reduce"
}
layer {
  name: "inception_4b/5x5"
  type: "Convolution"
  bottom: "inception_4b/5x5_reduce"
  top: "inception_4b/5x5"
  param {
    lr_mult: 1
    decay_mult: 1
  }
  param {
    lr_mult: 2
    decay_mult: 0
  }
  convolution_param {
    num_output: 64
    pad: 2
    kernel_size: 5
    weight_filler {
      type: "xavier"
      std: 0.03
    }
    bias_filler {
      type: "constant"
      value: 0.2
    }
  }
}
layer {
  name: "inception_4b/relu_5x5"
  type: "ReLU"
  bottom: "inception_4b/5x5"
  top: "inception_4b/5x5"
}
layer {
  name: "inception_4b/pool"
  type: "Pooling"
  bottom: "inception_4a/output"
  top: "inception_4b/pool"
  pooling_param {
    pool: MAX
    kernel_size: 3
    stride: 1
    pad: 1
  }
}
layer {
  name: "inception_4b/pool_proj"
  type: "Convolution"
  bottom: "inception_4b/pool"
  top: "inception_4b/pool_proj"
  param {
    lr_mult: 1
    decay_mult: 1
  }
  param {
    lr_mult: 2
    decay_mult: 0
  }
  convolution_param {
    num_output: 64
    kernel_size: 1
    weight_filler {
      type: "xavier"
      std: 0.1
    }
    bias_filler {
      type: "constant"
      value: 0.2
    }
  }
}
layer {
  name: "inception_4b/relu_pool_proj"
  type: "ReLU"
  bottom: "inception_4b/pool_proj"
  top: "inception_4b/pool_proj"
}
layer {
  name: "inception_4b/output"
  type: "Concat"
  bottom: "inception_4b/1x1"
  bottom: "inception_4b/3x3"
  bottom: "inception_4b/5x5"
  bottom: "inception_4b/pool_proj"
  top: "inception_4b/output"
}
layer {
  name: "inception_4c/1x1"
  type: "Convolution"
  bottom: "inception_4b/output"
  top: "inception_4c/1x1"
  param {
    lr_mult: 1
    decay_mult: 1
  }
  param {
    lr_mult: 2
    decay_mult: 0
  }
  convolution_param {
    num_output: 128
    kernel_size: 1
    weight_filler {
      type: "xavier"
      std: 0.03
    }
    bias_filler {
      type: "constant"
      value: 0.2
    }
  }
}
layer {
  name: "inception_4c/relu_1x1"
  type: "ReLU"
  bottom: "inception_4c/1x1"
  top: "inception_4c/1x1"
}
layer {
  name: "inception_4c/3x3_reduce"
  type: "Convolution"
  bottom: "inception_4b/output"
  top: "inception_4c/3x3_reduce"
  param {
    lr_mult: 1
    decay_mult: 1
  }
  param {
    lr_mult: 2
    decay_mult: 0
  }
  convolution_param {
    num_output: 128
    kernel_size: 1
    weight_filler {
      type: "xavier"
      std: 0.09
    }
    bias_filler {
      type: "constant"
      value: 0.2
    }
  }
}
layer {
  name: "inception_4c/relu_3x3_reduce"
  type: "ReLU"
  bottom: "inception_4c/3x3_reduce"
  top: "inception_4c/3x3_reduce"
}
layer {
  name: "inception_4c/3x3"
  type: "Convolution"
  bottom: "inception_4c/3x3_reduce"
  top: "inception_4c/3x3"
  param {
    lr_mult: 1
    decay_mult: 1
  }
  param {
    lr_mult: 2
    decay_mult: 0
  }
  convolution_param {
    num_output: 256
    pad: 1
    kernel_size: 3
    weight_filler {
      type: "xavier"
      std: 0.03
    }
    bias_filler {
      type: "constant"
      value: 0.2
    }
  }
}
layer {
  name: "inception_4c/relu_3x3"
  type: "ReLU"
  bottom: "inception_4c/3x3"
  top: "inception_4c/3x3"
}
layer {
  name: "inception_4c/5x5_reduce"
  type: "Convolution"
  bottom: "inception_4b/output"
  top: "inception_4c/5x5_reduce"
  param {
    lr_mult: 1
    decay_mult: 1
  }
  param {
    lr_mult: 2
    decay_mult: 0
  }
  convolution_param {
    num_output: 24
    kernel_size: 1
    weight_filler {
      type: "xavier"
      std: 0.2
    }
    bias_filler {
      type: "constant"
      value: 0.2
    }
  }
}
layer {
  name: "inception_4c/relu_5x5_reduce"
  type: "ReLU"
  bottom: "inception_4c/5x5_reduce"
  top: "inception_4c/5x5_reduce"
}
layer {
  name: "inception_4c/5x5"
  type: "Convolution"
  bottom: "inception_4c/5x5_reduce"
  top: "inception_4c/5x5"
  param {
    lr_mult: 1
    decay_mult: 1
  }
  param {
    lr_mult: 2
    decay_mult: 0
  }
  convolution_param {
    num_output: 64
    pad: 2
    kernel_size: 5
    weight_filler {
      type: "xavier"
      std: 0.03
    }
    bias_filler {
      type: "constant"
      value: 0.2
    }
  }
}
layer {
  name: "inception_4c/relu_5x5"
  type: "ReLU"
  bottom: "inception_4c/5x5"
  top: "inception_4c/5x5"
}
layer {
  name: "inception_4c/pool"
  type: "Pooling"
  bottom: "inception_4b/output"
  top: "inception_4c/pool"
  pooling_param {
    pool: MAX
    kernel_size: 3
    stride: 1
    pad: 1
  }
}
layer {
  name: "inception_4c/pool_proj"
  type: "Convolution"
  bottom: "inception_4c/pool"
  top: "inception_4c/pool_proj"
  param {
    lr_mult: 1
    decay_mult: 1
  }
  param {
    lr_mult: 2
    decay_mult: 0
  }
  convolution_param {
    num_output: 64
    kernel_size: 1
    weight_filler {
      type: "xavier"
      std: 0.1
    }
    bias_filler {
      type: "constant"
      value: 0.2
    }
  }
}
layer {
  name: "inception_4c/relu_pool_proj"
  type: "ReLU"
  bottom: "inception_4c/pool_proj"
  top: "inception_4c/pool_proj"
}
layer {
  name: "inception_4c/output"
  type: "Concat"
  bottom: "inception_4c/1x1"
  bottom: "inception_4c/3x3"
  bottom: "inception_4c/5x5"
  bottom: "inception_4c/pool_proj"
  top: "inception_4c/output"
}
layer {
  name: "inception_4d/1x1"
  type: "Convolution"
  bottom: "inception_4c/output"
  top: "inception_4d/1x1"
  param {
    lr_mult: 1
    decay_mult: 1
  }
  param {
    lr_mult: 2
    decay_mult: 0
  }
  convolution_param {
    num_output: 112
    kernel_size: 1
    weight_filler {
      type: "xavier"
      std: 0.03
    }
    bias_filler {
      type: "constant"
      value: 0.2
    }
  }
}
layer {
  name: "inception_4d/relu_1x1"
  type: "ReLU"
  bottom: "inception_4d/1x1"
  top: "inception_4d/1x1"
}
layer {
  name: "inception_4d/3x3_reduce"
  type: "Convolution"
  bottom: "inception_4c/output"
  top: "inception_4d/3x3_reduce"
  param {
    lr_mult: 1
    decay_mult: 1
  }
  param {
    lr_mult: 2
    decay_mult: 0
  }
  convolution_param {
    num_output: 144
    kernel_size: 1
    weight_filler {
      type: "xavier"
      std: 0.09
    }
    bias_filler {
      type: "constant"
      value: 0.2
    }
  }
}
layer {
  name: "inception_4d/relu_3x3_reduce"
  type: "ReLU"
  bottom: "inception_4d/3x3_reduce"
  top: "inception_4d/3x3_reduce"
}
layer {
  name: "inception_4d/3x3"
  type: "Convolution"
  bottom: "inception_4d/3x3_reduce"
  top: "inception_4d/3x3"
  param {
    lr_mult: 1
    decay_mult: 1
  }
  param {
    lr_mult: 2
    decay_mult: 0
  }
  convolution_param {
    num_output: 288
    pad: 1
    kernel_size: 3
    weight_filler {
      type: "xavier"
      std: 0.03
    }
    bias_filler {
      type: "constant"
      value: 0.2
    }
  }
}
layer {
  name: "inception_4d/relu_3x3"
  type: "ReLU"
  bottom: "inception_4d/3x3"
  top: "inception_4d/3x3"
}
layer {
  name: "inception_4d/5x5_reduce"
  type: "Convolution"
  bottom: "inception_4c/output"
  top: "inception_4d/5x5_reduce"
  param {
    lr_mult: 1
    decay_mult: 1
  }
  param {
    lr_mult: 2
    decay_mult: 0
  }
  convolution_param {
    num_output: 32
    kernel_size: 1
    weight_filler {
      type: "xavier"
      std: 0.2
    }
    bias_filler {
      type: "constant"
      value: 0.2
    }
  }
}
layer {
  name: "inception_4d/relu_5x5_reduce"
  type: "ReLU"
  bottom: "inception_4d/5x5_reduce"
  top: "inception_4d/5x5_reduce"
}
layer {
  name: "inception_4d/5x5"
  type: "Convolution"
  bottom: "inception_4d/5x5_reduce"
  top: "inception_4d/5x5"
  param {
    lr_mult: 1
    decay_mult: 1
  }
  param {
    lr_mult: 2
    decay_mult: 0
  }
  convolution_param {
    num_output: 64
    pad: 2
    kernel_size: 5
    weight_filler {
      type: "xavier"
      std: 0.03
    }
    bias_filler {
      type: "constant"
      value: 0.2
    }
  }
}
layer {
  name: "inception_4d/relu_5x5"
  type: "ReLU"
  bottom: "inception_4d/5x5"
  top: "inception_4d/5x5"
}
layer {
  name: "inception_4d/pool"
  type: "Pooling"
  bottom: "inception_4c/output"
  top: "inception_4d/pool"
  pooling_param {
    pool: MAX
    kernel_size: 3
    stride: 1
    pad: 1
  }
}
layer {
  name: "inception_4d/pool_proj"
  type: "Convolution"
  bottom: "inception_4d/pool"
  top: "inception_4d/pool_proj"
  param {
    lr_mult: 1
    decay_mult: 1
  }
  param {
    lr_mult: 2
    decay_mult: 0
  }
  convolution_param {
    num_output: 64
    kernel_size: 1
    weight_filler {
      type: "xavier"
      std: 0.1
    }
    bias_filler {
      type: "constant"
      value: 0.2
    }
  }
}
layer {
  name: "inception_4d/relu_pool_proj"
  type: "ReLU"
  bottom: "inception_4d/pool_proj"
  top: "inception_4d/pool_proj"
}
layer {
  name: "inception_4d/output"
  type: "Concat"
  bottom: "inception_4d/1x1"
  bottom: "inception_4d/3x3"
  bottom: "inception_4d/5x5"
  bottom: "inception_4d/pool_proj"
  top: "inception_4d/output"
}
layer {
  name: "inception_4e/1x1"
  type: "Convolution"
  bottom: "inception_4d/output"
  top: "inception_4e/1x1"
  param {
    lr_mult: 1
    decay_mult: 1
  }
  param {
    lr_mult: 2
    decay_mult: 0
  }
  convolution_param {
    num_output: 256
    kernel_size: 1
    weight_filler {
      type: "xavier"
      std: 0.03
    }
    bias_filler {
      type: "constant"
      value: 0.2
    }
  }
}
layer {
  name: "inception_4e/relu_1x1"
  type: "ReLU"
  bottom: "inception_4e/1x1"
  top: "inception_4e/1x1"
}
layer {
  name: "inception_4e/3x3_reduce"
  type: "Convolution"
  bottom: "inception_4d/output"
  top: "inception_4e/3x3_reduce"
  param {
    lr_mult: 1
    decay_mult: 1
  }
  param {
    lr_mult: 2
    decay_mult: 0
  }
  convolution_param {
    num_output: 160
    kernel_size: 1
    weight_filler {
      type: "xavier"
      std: 0.09
    }
    bias_filler {
      type: "constant"
      value: 0.2
    }
  }
}
layer {
  name: "inception_4e/relu_3x3_reduce"
  type: "ReLU"
  bottom: "inception_4e/3x3_reduce"
  top: "inception_4e/3x3_reduce"
}
layer {
  name: "inception_4e/3x3"
  type: "Convolution"
  bottom: "inception_4e/3x3_reduce"
  top: "inception_4e/3x3"
  param {
    lr_mult: 1
    decay_mult: 1
  }
  param {
    lr_mult: 2
    decay_mult: 0
  }
  convolution_param {
    num_output: 320
    pad: 1
    kernel_size: 3
    weight_filler {
      type: "xavier"
      std: 0.03
    }
    bias_filler {
      type: "constant"
      value: 0.2
    }
  }
}
layer {
  name: "inception_4e/relu_3x3"
  type: "ReLU"
  bottom: "inception_4e/3x3"
  top: "inception_4e/3x3"
}
layer {
  name: "inception_4e/5x5_reduce"
  type: "Convolution"
  bottom: "inception_4d/output"
  top: "inception_4e/5x5_reduce"
  param {
    lr_mult: 1
    decay_mult: 1
  }
  param {
    lr_mult: 2
    decay_mult: 0
  }
  convolution_param {
    num_output: 32
    kernel_size: 1
    weight_filler {
      type: "xavier"
      std: 0.2
    }
    bias_filler {
      type: "constant"
      value: 0.2
    }
  }
}
layer {
  name: "inception_4e/relu_5x5_reduce"
  type: "ReLU"
  bottom: "inception_4e/5x5_reduce"
  top: "inception_4e/5x5_reduce"
}
layer {
  name: "inception_4e/5x5"
  type: "Convolution"
  bottom: "inception_4e/5x5_reduce"
  top: "inception_4e/5x5"
  param {
    lr_mult: 1
    decay_mult: 1
  }
  param {
    lr_mult: 2
    decay_mult: 0
  }
  convolution_param {
    num_output: 128
    pad: 2
    kernel_size: 5
    weight_filler {
      type: "xavier"
      std: 0.03
    }
    bias_filler {
      type: "constant"
      value: 0.2
    }
  }
}
layer {
  name: "inception_4e/relu_5x5"
  type: "ReLU"
  bottom: "inception_4e/5x5"
  top: "inception_4e/5x5"
}
layer {
  name: "inception_4e/pool"
  type: "Pooling"
  bottom: "inception_4d/output"
  top: "inception_4e/pool"
  pooling_param {
    pool: MAX
    kernel_size: 3
    stride: 1
    pad: 1
  }
}
layer {
  name: "inception_4e/pool_proj"
  type: "Convolution"
  bottom: "inception_4e/pool"
  top: "inception_4e/pool_proj"
  param {
    lr_mult: 1
    decay_mult: 1
  }
  param {
    lr_mult: 2
    decay_mult: 0
  }
  convolution_param {
    num_output: 128
    kernel_size: 1
    weight_filler {
      type: "xavier"
      std: 0.1
    }
    bias_filler {
      type: "constant"
      value: 0.2
    }
  }
}
layer {
  name: "inception_4e/relu_pool_proj"
  type: "ReLU"
  bottom: "inception_4e/pool_proj"
  top: "inception_4e/pool_proj"
}
layer {
  name: "inception_4e/output"
  type: "Concat"
  bottom: "inception_4e/1x1"
  bottom: "inception_4e/3x3"
  bottom: "inception_4e/5x5"
  bottom: "inception_4e/pool_proj"
  top: "inception_4e/output"
}
layer {
  name: "pool4/3x3_s2"
  type: "Pooling"
  bottom: "inception_4e/output"
  top: "pool4/3x3_s2"
  pooling_param {
    pool: MAX
    kernel_size: 3
    stride: 2
  }
}
layer {
  name: "inception_5a/1x1"
  type: "Convolution"
  bottom: "pool4/3x3_s2"
  top: "inception_5a/1x1"
  param {
    lr_mult: 1
    decay_mult: 1
  }
  param {
    lr_mult: 2
    decay_mult: 0
  }
  convolution_param {
    num_output: 256
    kernel_size: 1
    weight_filler {
      type: "xavier"
      std: 0.03
    }
    bias_filler {
      type: "constant"
      value: 0.2
    }
  }
}
layer {
  name: "inception_5a/relu_1x1"
  type: "ReLU"
  bottom: "inception_5a/1x1"
  top: "inception_5a/1x1"
}
layer {
  name: "inception_5a/3x3_reduce"
  type: "Convolution"
  bottom: "pool4/3x3_s2"
  top: "inception_5a/3x3_reduce"
  param {
    lr_mult: 1
    decay_mult: 1
  }
  param {
    lr_mult: 2
    decay_mult: 0
  }
  convolution_param {
    num_output: 160
    kernel_size: 1
    weight_filler {
      type: "xavier"
      std: 0.09
    }
    bias_filler {
      type: "constant"
      value: 0.2
    }
  }
}
layer {
  name: "inception_5a/relu_3x3_reduce"
  type: "ReLU"
  bottom: "inception_5a/3x3_reduce"
  top: "inception_5a/3x3_reduce"
}
layer {
  name: "inception_5a/3x3"
  type: "Convolution"
  bottom: "inception_5a/3x3_reduce"
  top: "inception_5a/3x3"
  param {
    lr_mult: 1
    decay_mult: 1
  }
  param {
    lr_mult: 2
    decay_mult: 0
  }
  convolution_param {
    num_output: 320
    pad: 1
    kernel_size: 3
    weight_filler {
      type: "xavier"
      std: 0.03
    }
    bias_filler {
      type: "constant"
      value: 0.2
    }
  }
}
layer {
  name: "inception_5a/relu_3x3"
  type: "ReLU"
  bottom: "inception_5a/3x3"
  top: "inception_5a/3x3"
}
layer {
  name: "inception_5a/5x5_reduce"
  type: "Convolution"
  bottom: "pool4/3x3_s2"
  top: "inception_5a/5x5_reduce"
  param {
    lr_mult: 1
    decay_mult: 1
  }
  param {
    lr_mult: 2
    decay_mult: 0
  }
  convolution_param {
    num_output: 32
    kernel_size: 1
    weight_filler {
      type: "xavier"
      std: 0.2
    }
    bias_filler {
      type: "constant"
      value: 0.2
    }
  }
}
layer {
  name: "inception_5a/relu_5x5_reduce"
  type: "ReLU"
  bottom: "
I0707 16:12:31.854097 15061 net.cpp:435] Input 0 -> data
I0707 16:12:31.854168 15061 layer_factory.hpp:76] Creating layer conv1/7x7_s2
I0707 16:12:31.854187 15061 net.cpp:110] Creating Layer conv1/7x7_s2
I0707 16:12:31.854195 15061 net.cpp:477] conv1/7x7_s2 <- data
I0707 16:12:31.854209 15061 net.cpp:433] conv1/7x7_s2 -> conv1/7x7_s2
I0707 16:12:32.484622 15061 net.cpp:155] Setting up conv1/7x7_s2
I0707 16:12:32.484694 15061 net.cpp:163] Top shape: 10 64 112 112 (8028160)
I0707 16:12:32.484735 15061 layer_factory.hpp:76] Creating layer conv1/relu_7x7
I0707 16:12:32.484758 15061 net.cpp:110] Creating Layer conv1/relu_7x7
I0707 16:12:32.484766 15061 net.cpp:477] conv1/relu_7x7 <- conv1/7x7_s2
I0707 16:12:32.484776 15061 net.cpp:419] conv1/relu_7x7 -> conv1/7x7_s2 (in-place)
I0707 16:12:32.485394 15061 net.cpp:155] Setting up conv1/relu_7x7
I0707 16:12:32.485407 15061 net.cpp:163] Top shape: 10 64 112 112 (8028160)
I0707 16:12:32.485414 15061 layer_factory.hpp:76] Creating layer pool1/3x3_s2
I0707 16:12:32.485433 15061 net.cpp:110] Creating Layer pool1/3x3_s2
I0707 16:12:32.485438 15061 net.cpp:477] pool1/3x3_s2 <- conv1/7x7_s2
I0707 16:12:32.485446 15061 net.cpp:433] pool1/3x3_s2 -> pool1/3x3_s2
I0707 16:12:32.485555 15061 net.cpp:155] Setting up pool1/3x3_s2
I0707 16:12:32.485566 15061 net.cpp:163] Top shape: 10 64 56 56 (2007040)
I0707 16:12:32.485572 15061 layer_factory.hpp:76] Creating layer pool1/norm1
I0707 16:12:32.485589 15061 net.cpp:110] Creating Layer pool1/norm1
I0707 16:12:32.485594 15061 net.cpp:477] pool1/norm1 <- pool1/3x3_s2
I0707 16:12:32.485601 15061 net.cpp:433] pool1/norm1 -> pool1/norm1
I0707 16:12:32.485613 15061 net.cpp:155] Setting up pool1/norm1
I0707 16:12:32.485620 15061 net.cpp:163] Top shape: 10 64 56 56 (2007040)
I0707 16:12:32.485626 15061 layer_factory.hpp:76] Creating layer conv2/3x3_reduce
I0707 16:12:32.485643 15061 net.cpp:110] Creating Layer conv2/3x3_reduce
I0707 16:12:32.485648 15061 net.cpp:477] conv2/3x3_reduce <- pool1/norm1
I0707 16:12:32.485656 15061 net.cpp:433] conv2/3x3_reduce -> conv2/3x3_reduce
I0707 16:12:32.487505 15061 net.cpp:155] Setting up conv2/3x3_reduce
I0707 16:12:32.487524 15061 net.cpp:163] Top shape: 10 64 56 56 (2007040)
I0707 16:12:32.487537 15061 layer_factory.hpp:76] Creating layer conv2/relu_3x3_reduce
I0707 16:12:32.487550 15061 net.cpp:110] Creating Layer conv2/relu_3x3_reduce
I0707 16:12:32.487555 15061 net.cpp:477] conv2/relu_3x3_reduce <- conv2/3x3_reduce
I0707 16:12:32.487563 15061 net.cpp:419] conv2/relu_3x3_reduce -> conv2/3x3_reduce (in-place)
I0707 16:12:32.487639 15061 net.cpp:155] Setting up conv2/relu_3x3_reduce
I0707 16:12:32.487648 15061 net.cpp:163] Top shape: 10 64 56 56 (2007040)
I0707 16:12:32.487653 15061 layer_factory.hpp:76] Creating layer conv2/3x3
I0707 16:12:32.487663 15061 net.cpp:110] Creating Layer conv2/3x3
I0707 16:12:32.487668 15061 net.cpp:477] conv2/3x3 <- conv2/3x3_reduce
I0707 16:12:32.487676 15061 net.cpp:433] conv2/3x3 -> conv2/3x3
I0707 16:12:32.490499 15061 net.cpp:155] Setting up conv2/3x3
I0707 16:12:32.490530 15061 net.cpp:163] Top shape: 10 192 56 56 (6021120)
I0707 16:12:32.490546 15061 layer_factory.hpp:76] Creating layer conv2/relu_3x3
I0707 16:12:32.490562 15061 net.cpp:110] Creating Layer conv2/relu_3x3
I0707 16:12:32.490568 15061 net.cpp:477] conv2/relu_3x3 <- conv2/3x3
I0707 16:12:32.490577 15061 net.cpp:419] conv2/relu_3x3 -> conv2/3x3 (in-place)
I0707 16:12:32.490667 15061 net.cpp:155] Setting up conv2/relu_3x3
I0707 16:12:32.490676 15061 net.cpp:163] Top shape: 10 192 56 56 (6021120)
I0707 16:12:32.490684 15061 layer_factory.hpp:76] Creating layer conv2/norm2
I0707 16:12:32.490715 15061 net.cpp:110] Creating Layer conv2/norm2
I0707 16:12:32.490722 15061 net.cpp:477] conv2/norm2 <- conv2/3x3
I0707 16:12:32.490731 15061 net.cpp:433] conv2/norm2 -> conv2/norm2
I0707 16:12:32.490742 15061 net.cpp:155] Setting up conv2/norm2
I0707 16:12:32.490749 15061 net.cpp:163] Top shape: 10 192 56 56 (6021120)
I0707 16:12:32.490756 15061 layer_factory.hpp:76] Creating layer pool2/3x3_s2
I0707 16:12:32.490767 15061 net.cpp:110] Creating Layer pool2/3x3_s2
I0707 16:12:32.490770 15061 net.cpp:477] pool2/3x3_s2 <- conv2/norm2
I0707 16:12:32.490778 15061 net.cpp:433] pool2/3x3_s2 -> pool2/3x3_s2
I0707 16:12:32.491334 15061 net.cpp:155] Setting up pool2/3x3_s2
I0707 16:12:32.491346 15061 net.cpp:163] Top shape: 10 192 28 28 (1505280)
I0707 16:12:32.491353 15061 layer_factory.hpp:76] Creating layer pool2/3x3_s2_pool2/3x3_s2_0_split
I0707 16:12:32.491371 15061 net.cpp:110] Creating Layer pool2/3x3_s2_pool2/3x3_s2_0_split
I0707 16:12:32.491377 15061 net.cpp:477] pool2/3x3_s2_pool2/3x3_s2_0_split <- pool2/3x3_s2
I0707 16:12:32.491384 15061 net.cpp:433] pool2/3x3_s2_pool2/3x3_s2_0_split -> pool2/3x3_s2_pool2/3x3_s2_0_split_0
I0707 16:12:32.491394 15061 net.cpp:433] pool2/3x3_s2_pool2/3x3_s2_0_split -> pool2/3x3_s2_pool2/3x3_s2_0_split_1
I0707 16:12:32.491402 15061 net.cpp:433] pool2/3x3_s2_pool2/3x3_s2_0_split -> pool2/3x3_s2_pool2/3x3_s2_0_split_2
I0707 16:12:32.491410 15061 net.cpp:433] pool2/3x3_s2_pool2/3x3_s2_0_split -> pool2/3x3_s2_pool2/3x3_s2_0_split_3
I0707 16:12:32.491418 15061 net.cpp:155] Setting up pool2/3x3_s2_pool2/3x3_s2_0_split
I0707 16:12:32.491425 15061 net.cpp:163] Top shape: 10 192 28 28 (1505280)
I0707 16:12:32.491430 15061 net.cpp:163] Top shape: 10 192 28 28 (1505280)
I0707 16:12:32.491436 15061 net.cpp:163] Top shape: 10 192 28 28 (1505280)
I0707 16:12:32.491441 15061 net.cpp:163] Top shape: 10 192 28 28 (1505280)
I0707 16:12:32.491446 15061 layer_factory.hpp:76] Creating layer inception_3a/1x1
I0707 16:12:32.491458 15061 net.cpp:110] Creating Layer inception_3a/1x1
I0707 16:12:32.491463 15061 net.cpp:477] inception_3a/1x1 <- pool2/3x3_s2_pool2/3x3_s2_0_split_0
I0707 16:12:32.491493 15061 net.cpp:433] inception_3a/1x1 -> inception_3a/1x1
I0707 16:12:32.493363 15061 net.cpp:155] Setting up inception_3a/1x1
I0707 16:12:32.493381 15061 net.cpp:163] Top shape: 10 64 28 28 (501760)
I0707 16:12:32.493396 15061 layer_factory.hpp:76] Creating layer inception_3a/relu_1x1
I0707 16:12:32.493405 15061 net.cpp:110] Creating Layer inception_3a/relu_1x1
I0707 16:12:32.493410 15061 net.cpp:477] inception_3a/relu_1x1 <- inception_3a/1x1
I0707 16:12:32.493418 15061 net.cpp:419] inception_3a/relu_1x1 -> inception_3a/1x1 (in-place)
I0707 16:12:32.493502 15061 net.cpp:155] Setting up inception_3a/relu_1x1
I0707 16:12:32.493511 15061 net.cpp:163] Top shape: 10 64 28 28 (501760)
I0707 16:12:32.493517 15061 layer_factory.hpp:76] Creating layer inception_3a/3x3_reduce
I0707 16:12:32.493527 15061 net.cpp:110] Creating Layer inception_3a/3x3_reduce
I0707 16:12:32.493532 15061 net.cpp:477] inception_3a/3x3_reduce <- pool2/3x3_s2_pool2/3x3_s2_0_split_1
I0707 16:12:32.493541 15061 net.cpp:433] inception_3a/3x3_reduce -> inception_3a/3x3_reduce
I0707 16:12:32.495450 15061 net.cpp:155] Setting up inception_3a/3x3_reduce
I0707 16:12:32.495467 15061 net.cpp:163] Top shape: 10 96 28 28 (752640)
I0707 16:12:32.495481 15061 layer_factory.hpp:76] Creating layer inception_3a/relu_3x3_reduce
I0707 16:12:32.495492 15061 net.cpp:110] Creating Layer inception_3a/relu_3x3_reduce
I0707 16:12:32.495497 15061 net.cpp:477] inception_3a/relu_3x3_reduce <- inception_3a/3x3_reduce
I0707 16:12:32.495507 15061 net.cpp:419] inception_3a/relu_3x3_reduce -> inception_3a/3x3_reduce (in-place)
I0707 16:12:32.495585 15061 net.cpp:155] Setting up inception_3a/relu_3x3_reduce
I0707 16:12:32.495594 15061 net.cpp:163] Top shape: 10 96 28 28 (752640)
I0707 16:12:32.495600 15061 layer_factory.hpp:76] Creating layer inception_3a/3x3
I0707 16:12:32.495615 15061 net.cpp:110] Creating Layer inception_3a/3x3
I0707 16:12:32.495620 15061 net.cpp:477] inception_3a/3x3 <- inception_3a/3x3_reduce
I0707 16:12:32.495628 15061 net.cpp:433] inception_3a/3x3 -> inception_3a/3x3
I0707 16:12:32.497220 15061 net.cpp:155] Setting up inception_3a/3x3
I0707 16:12:32.497237 15061 net.cpp:163] Top shape: 10 128 28 28 (1003520)
I0707 16:12:32.497249 15061 layer_factory.hpp:76] Creating layer inception_3a/relu_3x3
I0707 16:12:32.497261 15061 net.cpp:110] Creating Layer inception_3a/relu_3x3
I0707 16:12:32.497267 15061 net.cpp:477] inception_3a/relu_3x3 <- inception_3a/3x3
I0707 16:12:32.497273 15061 net.cpp:419] inception_3a/relu_3x3 -> inception_3a/3x3 (in-place)
I0707 16:12:32.497809 15061 net.cpp:155] Setting up inception_3a/relu_3x3
I0707 16:12:32.497824 15061 net.cpp:163] Top shape: 10 128 28 28 (1003520)
I0707 16:12:32.497830 15061 layer_factory.hpp:76] Creating layer inception_3a/5x5_reduce
I0707 16:12:32.497841 15061 net.cpp:110] Creating Layer inception_3a/5x5_reduce
I0707 16:12:32.497848 15061 net.cpp:477] inception_3a/5x5_reduce <- pool2/3x3_s2_pool2/3x3_s2_0_split_2
I0707 16:12:32.497858 15061 net.cpp:433] inception_3a/5x5_reduce -> inception_3a/5x5_reduce
I0707 16:12:32.498667 15061 net.cpp:155] Setting up inception_3a/5x5_reduce
I0707 16:12:32.498682 15061 net.cpp:163] Top shape: 10 16 28 28 (125440)
I0707 16:12:32.498705 15061 layer_factory.hpp:76] Creating layer inception_3a/relu_5x5_reduce
I0707 16:12:32.498719 15061 net.cpp:110] Creating Layer inception_3a/relu_5x5_reduce
I0707 16:12:32.498726 15061 net.cpp:477] inception_3a/relu_5x5_reduce <- inception_3a/5x5_reduce
I0707 16:12:32.498733 15061 net.cpp:419] inception_3a/relu_5x5_reduce -> inception_3a/5x5_reduce (in-place)
I0707 16:12:32.498826 15061 net.cpp:155] Setting up inception_3a/relu_5x5_reduce
I0707 16:12:32.498836 15061 net.cpp:163] Top shape: 10 16 28 28 (125440)
I0707 16:12:32.498842 15061 layer_factory.hpp:76] Creating layer inception_3a/5x5
I0707 16:12:32.498854 15061 net.cpp:110] Creating Layer inception_3a/5x5
I0707 16:12:32.498860 15061 net.cpp:477] inception_3a/5x5 <- inception_3a/5x5_reduce
I0707 16:12:32.498867 15061 net.cpp:433] inception_3a/5x5 -> inception_3a/5x5
I0707 16:12:32.499771 15061 net.cpp:155] Setting up inception_3a/5x5
I0707 16:12:32.499786 15061 net.cpp:163] Top shape: 10 32 28 28 (250880)
I0707 16:12:32.499799 15061 layer_factory.hpp:76] Creating layer inception_3a/relu_5x5
I0707 16:12:32.499807 15061 net.cpp:110] Creating Layer inception_3a/relu_5x5
I0707 16:12:32.499821 15061 net.cpp:477] inception_3a/relu_5x5 <- inception_3a/5x5
I0707 16:12:32.499827 15061 net.cpp:419] inception_3a/relu_5x5 -> inception_3a/5x5 (in-place)
I0707 16:12:32.499917 15061 net.cpp:155] Setting up inception_3a/relu_5x5
I0707 16:12:32.499925 15061 net.cpp:163] Top shape: 10 32 28 28 (250880)
I0707 16:12:32.499930 15061 layer_factory.hpp:76] Creating layer inception_3a/pool
I0707 16:12:32.499938 15061 layer_factory.cpp:60] CUDNN does not support padding or multiple tops. Using Caffe's own pooling layer.
I0707 16:12:32.499946 15061 net.cpp:110] Creating Layer inception_3a/pool
I0707 16:12:32.499951 15061 net.cpp:477] inception_3a/pool <- pool2/3x3_s2_pool2/3x3_s2_0_split_3
I0707 16:12:32.499958 15061 net.cpp:433] inception_3a/pool -> inception_3a/pool
I0707 16:12:32.499969 15061 net.cpp:155] Setting up inception_3a/pool
I0707 16:12:32.499975 15061 net.cpp:163] Top shape: 10 192 28 28 (1505280)
I0707 16:12:32.499980 15061 layer_factory.hpp:76] Creating layer inception_3a/pool_proj
I0707 16:12:32.499992 15061 net.cpp:110] Creating Layer inception_3a/pool_proj
I0707 16:12:32.499997 15061 net.cpp:477] inception_3a/pool_proj <- inception_3a/pool
I0707 16:12:32.500007 15061 net.cpp:433] inception_3a/pool_proj -> inception_3a/pool_proj
I0707 16:12:32.500846 15061 net.cpp:155] Setting up inception_3a/pool_proj
I0707 16:12:32.500859 15061 net.cpp:163] Top shape: 10 32 28 28 (250880)
I0707 16:12:32.500874 15061 layer_factory.hpp:76] Creating layer inception_3a/relu_pool_proj
I0707 16:12:32.500883 15061 net.cpp:110] Creating Layer inception_3a/relu_pool_proj
I0707 16:12:32.500888 15061 net.cpp:477] inception_3a/relu_pool_proj <- inception_3a/pool_proj
I0707 16:12:32.500897 15061 net.cpp:419] inception_3a/relu_pool_proj -> inception_3a/pool_proj (in-place)
I0707 16:12:32.500984 15061 net.cpp:155] Setting up inception_3a/relu_pool_proj
I0707 16:12:32.500993 15061 net.cpp:163] Top shape: 10 32 28 28 (250880)
I0707 16:12:32.500998 15061 layer_factory.hpp:76] Creating layer inception_3a/output
I0707 16:12:32.501020 15061 net.cpp:110] Creating Layer inception_3a/output
I0707 16:12:32.501025 15061 net.cpp:477] inception_3a/output <- inception_3a/1x1
I0707 16:12:32.501031 15061 net.cpp:477] inception_3a/output <- inception_3a/3x3
I0707 16:12:32.501037 15061 net.cpp:477] inception_3a/output <- inception_3a/5x5
I0707 16:12:32.501042 15061 net.cpp:477] inception_3a/output <- inception_3a/pool_proj
I0707 16:12:32.501049 15061 net.cpp:433] inception_3a/output -> inception_3a/output
I0707 16:12:32.501065 15061 net.cpp:155] Setting up inception_3a/output
I0707 16:12:32.501072 15061 net.cpp:163] Top shape: 10 256 28 28 (2007040)
I0707 16:12:32.501077 15061 layer_factory.hpp:76] Creating layer inception_3a/output_inception_3a/output_0_split
I0707 16:12:32.501087 15061 net.cpp:110] Creating Layer inception_3a/output_inception_3a/output_0_split
I0707 16:12:32.501092 15061 net.cpp:477] inception_3a/output_inception_3a/output_0_split <- inception_3a/output
I0707 16:12:32.501098 15061 net.cpp:433] inception_3a/output_inception_3a/output_0_split -> inception_3a/output_inception_3a/output_0_split_0
I0707 16:12:32.501106 15061 net.cpp:433] inception_3a/output_inception_3a/output_0_split -> inception_3a/output_inception_3a/output_0_split_1
I0707 16:12:32.501114 15061 net.cpp:433] inception_3a/output_inception_3a/output_0_split -> inception_3a/output_inception_3a/output_0_split_2
I0707 16:12:32.501121 15061 net.cpp:433] inception_3a/output_inception_3a/output_0_split -> inception_3a/output_inception_3a/output_0_split_3
I0707 16:12:32.501129 15061 net.cpp:155] Setting up inception_3a/output_inception_3a/output_0_split
I0707 16:12:32.501134 15061 net.cpp:163] Top shape: 10 256 28 28 (2007040)
I0707 16:12:32.501140 15061 net.cpp:163] Top shape: 10 256 28 28 (2007040)
I0707 16:12:32.501145 15061 net.cpp:163] Top shape: 10 256 28 28 (2007040)
I0707 16:12:32.501150 15061 net.cpp:163] Top shape: 10 256 28 28 (2007040)
I0707 16:12:32.501154 15061 layer_factory.hpp:76] Creating layer inception_3b/1x1
I0707 16:12:32.501166 15061 net.cpp:110] Creating Layer inception_3b/1x1
I0707 16:12:32.501171 15061 net.cpp:477] inception_3b/1x1 <- inception_3a/output_inception_3a/output_0_split_0
I0707 16:12:32.501181 15061 net.cpp:433] inception_3b/1x1 -> inception_3b/1x1
I0707 16:12:32.502213 15061 net.cpp:155] Setting up inception_3b/1x1
I0707 16:12:32.502226 15061 net.cpp:163] Top shape: 10 128 28 28 (1003520)
I0707 16:12:32.502235 15061 layer_factory.hpp:76] Creating layer inception_3b/relu_1x1
I0707 16:12:32.502245 15061 net.cpp:110] Creating Layer inception_3b/relu_1x1
I0707 16:12:32.502251 15061 net.cpp:477] inception_3b/relu_1x1 <- inception_3b/1x1
I0707 16:12:32.502259 15061 net.cpp:419] inception_3b/relu_1x1 -> inception_3b/1x1 (in-place)
I0707 16:12:32.502831 15061 net.cpp:155] Setting up inception_3b/relu_1x1
I0707 16:12:32.502846 15061 net.cpp:163] Top shape: 10 128 28 28 (1003520)
I0707 16:12:32.502853 15061 layer_factory.hpp:76] Creating layer inception_3b/3x3_reduce
I0707 16:12:32.502864 15061 net.cpp:110] Creating Layer inception_3b/3x3_reduce
I0707 16:12:32.502869 15061 net.cpp:477] inception_3b/3x3_reduce <- inception_3a/output_inception_3a/output_0_split_1
I0707 16:12:32.502900 15061 net.cpp:433] inception_3b/3x3_reduce -> inception_3b/3x3_reduce
I0707 16:12:32.503945 15061 net.cpp:155] Setting up inception_3b/3x3_reduce
I0707 16:12:32.503960 15061 net.cpp:163] Top shape: 10 128 28 28 (1003520)
I0707 16:12:32.503970 15061 layer_factory.hpp:76] Creating layer inception_3b/relu_3x3_reduce
I0707 16:12:32.503980 15061 net.cpp:110] Creating Layer inception_3b/relu_3x3_reduce
I0707 16:12:32.503986 15061 net.cpp:477] inception_3b/relu_3x3_reduce <- inception_3b/3x3_reduce
I0707 16:12:32.503995 15061 net.cpp:419] inception_3b/relu_3x3_reduce -> inception_3b/3x3_reduce (in-place)
I0707 16:12:32.504081 15061 net.cpp:155] Setting up inception_3b/relu_3x3_reduce
I0707 16:12:32.504091 15061 net.cpp:163] Top shape: 10 128 28 28 (1003520)
I0707 16:12:32.504097 15061 layer_factory.hpp:76] Creating layer inception_3b/3x3
I0707 16:12:32.504106 15061 net.cpp:110] Creating Layer inception_3b/3x3
I0707 16:12:32.504112 15061 net.cpp:477] inception_3b/3x3 <- inception_3b/3x3_reduce
I0707 16:12:32.504123 15061 net.cpp:433] inception_3b/3x3 -> inception_3b/3x3
I0707 16:12:32.507586 15061 net.cpp:155] Setting up inception_3b/3x3
I0707 16:12:32.507606 15061 net.cpp:163] Top shape: 10 192 28 28 (1505280)
I0707 16:12:32.507616 15061 layer_factory.hpp:76] Creating layer inception_3b/relu_3x3
I0707 16:12:32.507628 15061 net.cpp:110] Creating Layer inception_3b/relu_3x3
I0707 16:12:32.507634 15061 net.cpp:477] inception_3b/relu_3x3 <- inception_3b/3x3
I0707 16:12:32.507645 15061 net.cpp:419] inception_3b/relu_3x3 -> inception_3b/3x3 (in-place)
I0707 16:12:32.507737 15061 net.cpp:155] Setting up inception_3b/relu_3x3
I0707 16:12:32.507746 15061 net.cpp:163] Top shape: 10 192 28 28 (1505280)
I0707 16:12:32.507753 15061 layer_factory.hpp:76] Creating layer inception_3b/5x5_reduce
I0707 16:12:32.507769 15061 net.cpp:110] Creating Layer inception_3b/5x5_reduce
I0707 16:12:32.507776 15061 net.cpp:477] inception_3b/5x5_reduce <- inception_3a/output_inception_3a/output_0_split_2
I0707 16:12:32.507786 15061 net.cpp:433] inception_3b/5x5_reduce -> inception_3b/5x5_reduce
I0707 16:12:32.508661 15061 net.cpp:155] Setting up inception_3b/5x5_reduce
I0707 16:12:32.508674 15061 net.cpp:163] Top shape: 10 32 28 28 (250880)
I0707 16:12:32.508683 15061 layer_factory.hpp:76] Creating layer inception_3b/relu_5x5_reduce
I0707 16:12:32.508692 15061 net.cpp:110] Creating Layer inception_3b/relu_5x5_reduce
I0707 16:12:32.508697 15061 net.cpp:477] inception_3b/relu_5x5_reduce <- inception_3b/5x5_reduce
I0707 16:12:32.508704 15061 net.cpp:419] inception_3b/relu_5x5_reduce -> inception_3b/5x5_reduce (in-place)
I0707 16:12:32.508790 15061 net.cpp:155] Setting up inception_3b/relu_5x5_reduce
I0707 16:12:32.508800 15061 net.cpp:163] Top shape: 10 32 28 28 (250880)
I0707 16:12:32.508805 15061 layer_factory.hpp:76] Creating layer inception_3b/5x5
I0707 16:12:32.508817 15061 net.cpp:110] Creating Layer inception_3b/5x5
I0707 16:12:32.508822 15061 net.cpp:477] inception_3b/5x5 <- inception_3b/5x5_reduce
I0707 16:12:32.508832 15061 net.cpp:433] inception_3b/5x5 -> inception_3b/5x5
I0707 16:12:32.511273 15061 net.cpp:155] Setting up inception_3b/5x5
I0707 16:12:32.511291 15061 net.cpp:163] Top shape: 10 96 28 28 (752640)
I0707 16:12:32.511301 15061 layer_factory.hpp:76] Creating layer inception_3b/relu_5x5
I0707 16:12:32.511315 15061 net.cpp:110] Creating Layer inception_3b/relu_5x5
I0707 16:12:32.511322 15061 net.cpp:477] inception_3b/relu_5x5 <- inception_3b/5x5
I0707 16:12:32.511329 15061 net.cpp:419] inception_3b/relu_5x5 -> inception_3b/5x5 (in-place)
I0707 16:12:32.511874 15061 net.cpp:155] Setting up inception_3b/relu_5x5
I0707 16:12:32.511889 15061 net.cpp:163] Top shape: 10 96 28 28 (752640)
I0707 16:12:32.511898 15061 layer_factory.hpp:76] Creating layer inception_3b/pool
I0707 16:12:32.511904 15061 layer_factory.cpp:60] CUDNN does not support padding or multiple tops. Using Caffe's own pooling layer.
I0707 16:12:32.511914 15061 net.cpp:110] Creating Layer inception_3b/pool
I0707 16:12:32.511920 15061 net.cpp:477] inception_3b/pool <- inception_3a/output_inception_3a/output_0_split_3
I0707 16:12:32.511929 15061 net.cpp:433] inception_3b/pool -> inception_3b/pool
I0707 16:12:32.511940 15061 net.cpp:155] Setting up inception_3b/pool
I0707 16:12:32.511947 15061 net.cpp:163] Top shape: 10 256 28 28 (2007040)
I0707 16:12:32.511952 15061 layer_factory.hpp:76] Creating layer inception_3b/pool_proj
I0707 16:12:32.511965 15061 net.cpp:110] Creating Layer inception_3b/pool_proj
I0707 16:12:32.511970 15061 net.cpp:477] inception_3b/pool_proj <- inception_3b/pool
I0707 16:12:32.511976 15061 net.cpp:433] inception_3b/pool_proj -> inception_3b/pool_proj
I0707 16:12:32.512903 15061 net.cpp:155] Setting up inception_3b/pool_proj
I0707 16:12:32.512918 15061 net.cpp:163] Top shape: 10 64 28 28 (501760)
I0707 16:12:32.512928 15061 layer_factory.hpp:76] Creating layer inception_3b/relu_pool_proj
I0707 16:12:32.512940 15061 net.cpp:110] Creating Layer inception_3b/relu_pool_proj
I0707 16:12:32.512946 15061 net.cpp:477] inception_3b/relu_pool_proj <- inception_3b/pool_proj
I0707 16:12:32.512953 15061 net.cpp:419] inception_3b/relu_pool_proj -> inception_3b/pool_proj (in-place)
I0707 16:12:32.513044 15061 net.cpp:155] Setting up inception_3b/relu_pool_proj
I0707 16:12:32.513053 15061 net.cpp:163] Top shape: 10 64 28 28 (501760)
I0707 16:12:32.513058 15061 layer_factory.hpp:76] Creating layer inception_3b/output
I0707 16:12:32.513067 15061 net.cpp:110] Creating Layer inception_3b/output
I0707 16:12:32.513072 15061 net.cpp:477] inception_3b/output <- inception_3b/1x1
I0707 16:12:32.513077 15061 net.cpp:477] inception_3b/output <- inception_3b/3x3
I0707 16:12:32.513082 15061 net.cpp:477] inception_3b/output <- inception_3b/5x5
I0707 16:12:32.513088 15061 net.cpp:477] inception_3b/output <- inception_3b/pool_proj
I0707 16:12:32.513097 15061 net.cpp:433] inception_3b/output -> inception_3b/output
I0707 16:12:32.513108 15061 net.cpp:155] Setting up inception_3b/output
I0707 16:12:32.513114 15061 net.cpp:163] Top shape: 10 480 28 28 (3763200)
I0707 16:12:32.513120 15061 layer_factory.hpp:76] Creating layer pool3/3x3_s2
I0707 16:12:32.513128 15061 net.cpp:110] Creating Layer pool3/3x3_s2
I0707 16:12:32.513134 15061 net.cpp:477] pool3/3x3_s2 <- inception_3b/output
I0707 16:12:32.513140 15061 net.cpp:433] pool3/3x3_s2 -> pool3/3x3_s2
I0707 16:12:32.513232 15061 net.cpp:155] Setting up pool3/3x3_s2
I0707 16:12:32.513245 15061 net.cpp:163] Top shape: 10 480 14 14 (940800)
I0707 16:12:32.513250 15061 layer_factory.hpp:76] Creating layer pool3/3x3_s2_pool3/3x3_s2_0_split
I0707 16:12:32.513259 15061 net.cpp:110] Creating Layer pool3/3x3_s2_pool3/3x3_s2_0_split
I0707 16:12:32.513264 15061 net.cpp:477] pool3/3x3_s2_pool3/3x3_s2_0_split <- pool3/3x3_s2
I0707 16:12:32.513273 15061 net.cpp:433] pool3/3x3_s2_pool3/3x3_s2_0_split -> pool3/3x3_s2_pool3/3x3_s2_0_split_0
I0707 16:12:32.513280 15061 net.cpp:433] pool3/3x3_s2_pool3/3x3_s2_0_split -> pool3/3x3_s2_pool3/3x3_s2_0_split_1
I0707 16:12:32.513288 15061 net.cpp:433] pool3/3x3_s2_pool3/3x3_s2_0_split -> pool3/3x3_s2_pool3/3x3_s2_0_split_2
I0707 16:12:32.513295 15061 net.cpp:433] pool3/3x3_s2_pool3/3x3_s2_0_split -> pool3/3x3_s2_pool3/3x3_s2_0_split_3
I0707 16:12:32.513303 15061 net.cpp:155] Setting up pool3/3x3_s2_pool3/3x3_s2_0_split
I0707 16:12:32.513309 15061 net.cpp:163] Top shape: 10 480 14 14 (940800)
I0707 16:12:32.513315 15061 net.cpp:163] Top shape: 10 480 14 14 (940800)
I0707 16:12:32.513320 15061 net.cpp:163] Top shape: 10 480 14 14 (940800)
I0707 16:12:32.513325 15061 net.cpp:163] Top shape: 10 480 14 14 (940800)
I0707 16:12:32.513329 15061 layer_factory.hpp:76] Creating layer inception_4a/1x1
I0707 16:12:32.513345 15061 net.cpp:110] Creating Layer inception_4a/1x1
I0707 16:12:32.513350 15061 net.cpp:477] inception_4a/1x1 <- pool3/3x3_s2_pool3/3x3_s2_0_split_0
I0707 16:12:32.513360 15061 net.cpp:433] inception_4a/1x1 -> inception_4a/1x1
I0707 16:12:32.514843 15061 net.cpp:155] Setting up inception_4a/1x1
I0707 16:12:32.514856 15061 net.cpp:163] Top shape: 10 192 14 14 (376320)
I0707 16:12:32.514865 15061 layer_factory.hpp:76] Creating layer inception_4a/relu_1x1
I0707 16:12:32.514875 15061 net.cpp:110] Creating Layer inception_4a/relu_1x1
I0707 16:12:32.514881 15061 net.cpp:477] inception_4a/relu_1x1 <- inception_4a/1x1
I0707 16:12:32.514892 15061 net.cpp:419] inception_4a/relu_1x1 -> inception_4a/1x1 (in-place)
I0707 16:12:32.514982 15061 net.cpp:155] Setting up inception_4a/relu_1x1
I0707 16:12:32.514991 15061 net.cpp:163] Top shape: 10 192 14 14 (376320)
I0707 16:12:32.514998 15061 layer_factory.hpp:76] Creating layer inception_4a/3x3_reduce
I0707 16:12:32.515010 15061 net.cpp:110] Creating Layer inception_4a/3x3_reduce
I0707 16:12:32.515017 15061 net.cpp:477] inception_4a/3x3_reduce <- pool3/3x3_s2_pool3/3x3_s2_0_split_1
I0707 16:12:32.515024 15061 net.cpp:433] inception_4a/3x3_reduce -> inception_4a/3x3_reduce
I0707 16:12:32.516170 15061 net.cpp:155] Setting up inception_4a/3x3_reduce
I0707 16:12:32.516185 15061 net.cpp:163] Top shape: 10 96 14 14 (188160)
I0707 16:12:32.516206 15061 layer_factory.hpp:76] Creating layer inception_4a/relu_3x3_reduce
I0707 16:12:32.516213 15061 net.cpp:110] Creating Layer inception_4a/relu_3x3_reduce
I0707 16:12:32.516218 15061 net.cpp:477] inception_4a/relu_3x3_reduce <- inception_4a/3x3_reduce
I0707 16:12:32.516228 15061 net.cpp:419] inception_4a/relu_3x3_reduce -> inception_4a/3x3_reduce (in-place)
I0707 16:12:32.516778 15061 net.cpp:155] Setting up inception_4a/relu_3x3_reduce
I0707 16:12:32.516793 15061 net.cpp:163] Top shape: 10 96 14 14 (188160)
I0707 16:12:32.516799 15061 layer_factory.hpp:76] Creating layer inception_4a/3x3
I0707 16:12:32.516810 15061 net.cpp:110] Creating Layer inception_4a/3x3
I0707 16:12:32.516815 15061 net.cpp:477] inception_4a/3x3 <- inception_4a/3x3_reduce
I0707 16:12:32.516827 15061 net.cpp:433] inception_4a/3x3 -> inception_4a/3x3
I0707 16:12:32.519945 15061 net.cpp:155] Setting up inception_4a/3x3
I0707 16:12:32.519963 15061 net.cpp:163] Top shape: 10 208 14 14 (407680)
I0707 16:12:32.519973 15061 layer_factory.hpp:76] Creating layer inception_4a/relu_3x3
I0707 16:12:32.519985 15061 net.cpp:110] Creating Layer inception_4a/relu_3x3
I0707 16:12:32.519991 15061 net.cpp:477] inception_4a/relu_3x3 <- inception_4a/3x3
I0707 16:12:32.519999 15061 net.cpp:419] inception_4a/relu_3x3 -> inception_4a/3x3 (in-place)
I0707 16:12:32.520089 15061 net.cpp:155] Setting up inception_4a/relu_3x3
I0707 16:12:32.520098 15061 net.cpp:163] Top shape: 10 208 14 14 (407680)
I0707 16:12:32.520105 15061 layer_factory.hpp:76] Creating layer inception_4a/5x5_reduce
I0707 16:12:32.520117 15061 net.cpp:110] Creating Layer inception_4a/5x5_reduce
I0707 16:12:32.520123 15061 net.cpp:477] inception_4a/5x5_reduce <- pool3/3x3_s2_pool3/3x3_s2_0_split_2
I0707 16:12:32.520131 15061 net.cpp:433] inception_4a/5x5_reduce -> inception_4a/5x5_reduce
I0707 16:12:32.520992 15061 net.cpp:155] Setting up inception_4a/5x5_reduce
I0707 16:12:32.521011 15061 net.cpp:163] Top shape: 10 16 14 14 (31360)
I0707 16:12:32.521021 15061 layer_factory.hpp:76] Creating layer inception_4a/relu_5x5_reduce
I0707 16:12:32.521031 15061 net.cpp:110] Creating Layer inception_4a/relu_5x5_reduce
I0707 16:12:32.521036 15061 net.cpp:477] inception_4a/relu_5x5_reduce <- inception_4a/5x5_reduce
I0707 16:12:32.521046 15061 net.cpp:419] inception_4a/relu_5x5_reduce -> inception_4a/5x5_reduce (in-place)
I0707 16:12:32.521134 15061 net.cpp:155] Setting up inception_4a/relu_5x5_reduce
I0707 16:12:32.521143 15061 net.cpp:163] Top shape: 10 16 14 14 (31360)
I0707 16:12:32.521148 15061 layer_factory.hpp:76] Creating layer inception_4a/5x5
I0707 16:12:32.521160 15061 net.cpp:110] Creating Layer inception_4a/5x5
I0707 16:12:32.521167 15061 net.cpp:477] inception_4a/5x5 <- inception_4a/5x5_reduce
I0707 16:12:32.521176 15061 net.cpp:433] inception_4a/5x5 -> inception_4a/5x5
I0707 16:12:32.522111 15061 net.cpp:155] Setting up inception_4a/5x5
I0707 16:12:32.522126 15061 net.cpp:163] Top shape: 10 48 14 14 (94080)
I0707 16:12:32.522136 15061 layer_factory.hpp:76] Creating layer inception_4a/relu_5x5
I0707 16:12:32.522147 15061 net.cpp:110] Creating Layer inception_4a/relu_5x5
I0707 16:12:32.522153 15061 net.cpp:477] inception_4a/relu_5x5 <- inception_4a/5x5
I0707 16:12:32.522161 15061 net.cpp:419] inception_4a/relu_5x5 -> inception_4a/5x5 (in-place)
I0707 16:12:32.522722 15061 net.cpp:155] Setting up inception_4a/relu_5x5
I0707 16:12:32.522740 15061 net.cpp:163] Top shape: 10 48 14 14 (94080)
I0707 16:12:32.522748 15061 layer_factory.hpp:76] Creating layer inception_4a/pool
I0707 16:12:32.522755 15061 layer_factory.cpp:60] CUDNN does not support padding or multiple tops. Using Caffe's own pooling layer.
I0707 16:12:32.522763 15061 net.cpp:110] Creating Layer inception_4a/pool
I0707 16:12:32.522768 15061 net.cpp:477] inception_4a/pool <- pool3/3x3_s2_pool3/3x3_s2_0_split_3
I0707 16:12:32.522776 15061 net.cpp:433] inception_4a/pool -> inception_4a/pool
I0707 16:12:32.522788 15061 net.cpp:155] Setting up inception_4a/pool
I0707 16:12:32.522794 15061 net.cpp:163] Top shape: 10 480 14 14 (940800)
I0707 16:12:32.522799 15061 layer_factory.hpp:76] Creating layer inception_4a/pool_proj
I0707 16:12:32.522812 15061 net.cpp:110] Creating Layer inception_4a/pool_proj
I0707 16:12:32.522819 15061 net.cpp:477] inception_4a/pool_proj <- inception_4a/pool
I0707 16:12:32.522828 15061 net.cpp:433] inception_4a/pool_proj -> inception_4a/pool_proj
I0707 16:12:32.523871 15061 net.cpp:155] Setting up inception_4a/pool_proj
I0707 16:12:32.523886 15061 net.cpp:163] Top shape: 10 64 14 14 (125440)
I0707 16:12:32.523896 15061 layer_factory.hpp:76] Creating layer inception_4a/relu_pool_proj
I0707 16:12:32.523907 15061 net.cpp:110] Creating Layer inception_4a/relu_pool_proj
I0707 16:12:32.523915 15061 net.cpp:477] inception_4a/relu_pool_proj <- inception_4a/pool_proj
I0707 16:12:32.523921 15061 net.cpp:419] inception_4a/relu_pool_proj -> inception_4a/pool_proj (in-place)
I0707 16:12:32.524013 15061 net.cpp:155] Setting up inception_4a/relu_pool_proj
I0707 16:12:32.524022 15061 net.cpp:163] Top shape: 10 64 14 14 (125440)
I0707 16:12:32.524029 15061 layer_factory.hpp:76] Creating layer inception_4a/output
I0707 16:12:32.524037 15061 net.cpp:110] Creating Layer inception_4a/output
I0707 16:12:32.524042 15061 net.cpp:477] inception_4a/output <- inception_4a/1x1
I0707 16:12:32.524049 15061 net.cpp:477] inception_4a/output <- inception_4a/3x3
I0707 16:12:32.524054 15061 net.cpp:477] inception_4a/output <- inception_4a/5x5
I0707 16:12:32.524060 15061 net.cpp:477] inception_4a/output <- inception_4a/pool_proj
I0707 16:12:32.524076 15061 net.cpp:433] inception_4a/output -> inception_4a/output
I0707 16:12:32.524086 15061 net.cpp:155] Setting up inception_4a/output
I0707 16:12:32.524094 15061 net.cpp:163] Top shape: 10 512 14 14 (1003520)
I0707 16:12:32.524101 15061 layer_factory.hpp:76] Creating layer inception_4a/output_inception_4a/output_0_split
I0707 16:12:32.524109 15061 net.cpp:110] Creating Layer inception_4a/output_inception_4a/output_0_split
I0707 16:12:32.524113 15061 net.cpp:477] inception_4a/output_inception_4a/output_0_split <- inception_4a/output
I0707 16:12:32.524122 15061 net.cpp:433] inception_4a/output_inception_4a/output_0_split -> inception_4a/output_inception_4a/output_0_split_0
I0707 16:12:32.524130 15061 net.cpp:433] inception_4a/output_inception_4a/output_0_split -> inception_4a/output_inception_4a/output_0_split_1
I0707 16:12:32.524138 15061 net.cpp:433] inception_4a/output_inception_4a/output_0_split -> inception_4a/output_inception_4a/output_0_split_2
I0707 16:12:32.524145 15061 net.cpp:433] inception_4a/output_inception_4a/output_0_split -> inception_4a/output_inception_4a/output_0_split_3
I0707 16:12:32.524153 15061 net.cpp:155] Setting up inception_4a/output_inception_4a/output_0_split
I0707 16:12:32.524159 15061 net.cpp:163] Top shape: 10 512 14 14 (1003520)
I0707 16:12:32.524165 15061 net.cpp:163] Top shape: 10 512 14 14 (1003520)
I0707 16:12:32.524170 15061 net.cpp:163] Top shape: 10 512 14 14 (1003520)
I0707 16:12:32.524175 15061 net.cpp:163] Top shape: 10 512 14 14 (1003520)
I0707 16:12:32.524180 15061 layer_factory.hpp:76] Creating layer inception_4b/1x1
I0707 16:12:32.524191 15061 net.cpp:110] Creating Layer inception_4b/1x1
I0707 16:12:32.524196 15061 net.cpp:477] inception_4b/1x1 <- inception_4a/output_inception_4a/output_0_split_0
I0707 16:12:32.524206 15061 net.cpp:433] inception_4b/1x1 -> inception_4b/1x1
I0707 16:12:32.525631 15061 net.cpp:155] Setting up inception_4b/1x1
I0707 16:12:32.525645 15061 net.cpp:163] Top shape: 10 160 14 14 (313600)
I0707 16:12:32.525653 15061 layer_factory.hpp:76] Creating layer inception_4b/relu_1x1
I0707 16:12:32.525665 15061 net.cpp:110] Creating Layer inception_4b/relu_1x1
I0707 16:12:32.525671 15061 net.cpp:477] inception_4b/relu_1x1 <- inception_4b/1x1
I0707 16:12:32.525679 15061 net.cpp:419] inception_4b/relu_1x1 -> inception_4b/1x1 (in-place)
I0707 16:12:32.525768 15061 net.cpp:155] Setting up inception_4b/relu_1x1
I0707 16:12:32.525775 15061 net.cpp:163] Top shape: 10 160 14 14 (313600)
I0707 16:12:32.525781 15061 layer_factory.hpp:76] Creating layer inception_4b/3x3_reduce
I0707 16:12:32.525794 15061 net.cpp:110] Creating Layer inception_4b/3x3_reduce
I0707 16:12:32.525799 15061 net.cpp:477] inception_4b/3x3_reduce <- inception_4a/output_inception_4a/output_0_split_1
I0707 16:12:32.525810 15061 net.cpp:433] inception_4b/3x3_reduce -> inception_4b/3x3_reduce
I0707 16:12:32.527081 15061 net.cpp:155] Setting up inception_4b/3x3_reduce
I0707 16:12:32.527097 15061 net.cpp:163] Top shape: 10 112 14 14 (219520)
I0707 16:12:32.527108 15061 layer_factory.hpp:76] Creating layer inception_4b/relu_3x3_reduce
I0707 16:12:32.527120 15061 net.cpp:110] Creating Layer inception_4b/relu_3x3_reduce
I0707 16:12:32.527127 15061 net.cpp:477] inception_4b/relu_3x3_reduce <- inception_4b/3x3_reduce
I0707 16:12:32.527134 15061 net.cpp:419] inception_4b/relu_3x3_reduce -> inception_4b/3x3_reduce (in-place)
I0707 16:12:32.527222 15061 net.cpp:155] Setting up inception_4b/relu_3x3_reduce
I0707 16:12:32.527231 15061 net.cpp:163] Top shape: 10 112 14 14 (219520)
I0707 16:12:32.527236 15061 layer_factory.hpp:76] Creating layer inception_4b/3x3
I0707 16:12:32.527250 15061 net.cpp:110] Creating Layer inception_4b/3x3
I0707 16:12:32.527254 15061 net.cpp:477] inception_4b/3x3 <- inception_4b/3x3_reduce
I0707 16:12:32.527268 15061 net.cpp:433] inception_4b/3x3 -> inception_4b/3x3
I0707 16:12:32.530778 15061 net.cpp:155] Setting up inception_4b/3x3
I0707 16:12:32.530799 15061 net.cpp:163] Top shape: 10 224 14 14 (439040)
I0707 16:12:32.530810 15061 layer_factory.hpp:76] Creating layer inception_4b/relu_3x3
I0707 16:12:32.530822 15061 net.cpp:110] Creating Layer inception_4b/relu_3x3
I0707 16:12:32.530827 15061 net.cpp:477] inception_4b/relu_3x3 <- inception_4b/3x3
I0707 16:12:32.530834 15061 net.cpp:419] inception_4b/relu_3x3 -> inception_4b/3x3 (in-place)
I0707 16:12:32.531409 15061 net.cpp:155] Setting up inception_4b/relu_3x3
I0707 16:12:32.531424 15061 net.cpp:163] Top shape: 10 224 14 14 (439040)
I0707 16:12:32.531430 15061 layer_factory.hpp:76] Creating layer inception_4b/5x5_reduce
I0707 16:12:32.531443 15061 net.cpp:110] Creating Layer inception_4b/5x5_reduce
I0707 16:12:32.531450 15061 net.cpp:477] inception_4b/5x5_reduce <- inception_4a/output_inception_4a/output_0_split_2
I0707 16:12:32.531458 15061 net.cpp:433] inception_4b/5x5_reduce -> inception_4b/5x5_reduce
I0707 16:12:32.532377 15061 net.cpp:155] Setting up inception_4b/5x5_reduce
I0707 16:12:32.532392 15061 net.cpp:163] Top shape: 10 24 14 14 (47040)
I0707 16:12:32.532402 15061 layer_factory.hpp:76] Creating layer inception_4b/relu_5x5_reduce
I0707 16:12:32.532423 15061 net.cpp:110] Creating Layer inception_4b/relu_5x5_reduce
I0707 16:12:32.532431 15061 net.cpp:477] inception_4b/relu_5x5_reduce <- inception_4b/5x5_reduce
I0707 16:12:32.532438 15061 net.cpp:419] inception_4b/relu_5x5_reduce -> inception_4b/5x5_reduce (in-place)
I0707 16:12:32.532524 15061 net.cpp:155] Setting up inception_4b/relu_5x5_reduce
I0707 16:12:32.532533 15061 net.cpp:163] Top shape: 10 24 14 14 (47040)
I0707 16:12:32.532539 15061 layer_factory.hpp:76] Creating layer inception_4b/5x5
I0707 16:12:32.532552 15061 net.cpp:110] Creating Layer inception_4b/5x5
I0707 16:12:32.532557 15061 net.cpp:477] inception_4b/5x5 <- inception_4b/5x5_reduce
I0707 16:12:32.532564 15061 net.cpp:433] inception_4b/5x5 -> inception_4b/5x5
I0707 16:12:32.534693 15061 net.cpp:155] Setting up inception_4b/5x5
I0707 16:12:32.534716 15061 net.cpp:163] Top shape: 10 64 14 14 (125440)
I0707 16:12:32.534729 15061 layer_factory.hpp:76] Creating layer inception_4b/relu_5x5
I0707 16:12:32.534736 15061 net.cpp:110] Creating Layer inception_4b/relu_5x5
I0707 16:12:32.534750 15061 net.cpp:477] inception_4b/relu_5x5 <- inception_4b/5x5
I0707 16:12:32.534761 15061 net.cpp:419] inception_4b/relu_5x5 -> inception_4b/5x5 (in-place)
I0707 16:12:32.534855 15061 net.cpp:155] Setting up inception_4b/relu_5x5
I0707 16:12:32.534864 15061 net.cpp:163] Top shape: 10 64 14 14 (125440)
I0707 16:12:32.534869 15061 layer_factory.hpp:76] Creating layer inception_4b/pool
I0707 16:12:32.534876 15061 layer_factory.cpp:60] CUDNN does not support padding or multiple tops. Using Caffe's own pooling layer.
I0707 16:12:32.534883 15061 net.cpp:110] Creating Layer inception_4b/pool
I0707 16:12:32.534888 15061 net.cpp:477] inception_4b/pool <- inception_4a/output_inception_4a/output_0_split_3
I0707 16:12:32.534899 15061 net.cpp:433] inception_4b/pool -> inception_4b/pool
I0707 16:12:32.534911 15061 net.cpp:155] Setting up inception_4b/pool
I0707 16:12:32.534919 15061 net.cpp:163] Top shape: 10 512 14 14 (1003520)
I0707 16:12:32.534925 15061 layer_factory.hpp:76] Creating layer inception_4b/pool_proj
I0707 16:12:32.534936 15061 net.cpp:110] Creating Layer inception_4b/pool_proj
I0707 16:12:32.534942 15061 net.cpp:477] inception_4b/pool_proj <- inception_4b/pool
I0707 16:12:32.534950 15061 net.cpp:433] inception_4b/pool_proj -> inception_4b/pool_proj
I0707 16:12:32.536005 15061 net.cpp:155] Setting up inception_4b/pool_proj
I0707 16:12:32.536021 15061 net.cpp:163] Top shape: 10 64 14 14 (125440)
I0707 16:12:32.536031 15061 layer_factory.hpp:76] Creating layer inception_4b/relu_pool_proj
I0707 16:12:32.536042 15061 net.cpp:110] Creating Layer inception_4b/relu_pool_proj
I0707 16:12:32.536048 15061 net.cpp:477] inception_4b/relu_pool_proj <- inception_4b/pool_proj
I0707 16:12:32.536056 15061 net.cpp:419] inception_4b/relu_pool_proj -> inception_4b/pool_proj (in-place)
I0707 16:12:32.536146 15061 net.cpp:155] Setting up inception_4b/relu_pool_proj
I0707 16:12:32.536155 15061 net.cpp:163] Top shape: 10 64 14 14 (125440)
I0707 16:12:32.536161 15061 layer_factory.hpp:76] Creating layer inception_4b/output
I0707 16:12:32.536170 15061 net.cpp:110] Creating Layer inception_4b/output
I0707 16:12:32.536175 15061 net.cpp:477] inception_4b/output <- inception_4b/1x1
I0707 16:12:32.536180 15061 net.cpp:477] inception_4b/output <- inception_4b/3x3
I0707 16:12:32.536185 15061 net.cpp:477] inception_4b/output <- inception_4b/5x5
I0707 16:12:32.536190 15061 net.cpp:477] inception_4b/output <- inception_4b/pool_proj
I0707 16:12:32.536200 15061 net.cpp:433] inception_4b/output -> inception_4b/output
I0707 16:12:32.536211 15061 net.cpp:155] Setting up inception_4b/output
I0707 16:12:32.536216 15061 net.cpp:163] Top shape: 10 512 14 14 (1003520)
I0707 16:12:32.536221 15061 layer_factory.hpp:76] Creating layer inception_4b/output_inception_4b/output_0_split
I0707 16:12:32.536229 15061 net.cpp:110] Creating Layer inception_4b/output_inception_4b/output_0_split
I0707 16:12:32.536234 15061 net.cpp:477] inception_4b/output_inception_4b/output_0_split <- inception_4b/output
I0707 16:12:32.536242 15061 net.cpp:433] inception_4b/output_inception_4b/output_0_split -> inception_4b/output_inception_4b/output_0_split_0
I0707 16:12:32.536249 15061 net.cpp:433] inception_4b/output_inception_4b/output_0_split -> inception_4b/output_inception_4b/output_0_split_1
I0707 16:12:32.536260 15061 net.cpp:433] inception_4b/output_inception_4b/output_0_split -> inception_4b/output_inception_4b/output_0_split_2
I0707 16:12:32.536268 15061 net.cpp:433] inception_4b/output_inception_4b/output_0_split -> inception_4b/output_inception_4b/output_0_split_3
I0707 16:12:32.536276 15061 net.cpp:155] Setting up inception_4b/output_inception_4b/output_0_split
I0707 16:12:32.536283 15061 net.cpp:163] Top shape: 10 512 14 14 (1003520)
I0707 16:12:32.536288 15061 net.cpp:163] Top shape: 10 512 14 14 (1003520)
I0707 16:12:32.536293 15061 net.cpp:163] Top shape: 10 512 14 14 (1003520)
I0707 16:12:32.536298 15061 net.cpp:163] Top shape: 10 512 14 14 (1003520)
I0707 16:12:32.536304 15061 layer_factory.hpp:76] Creating layer inception_4c/1x1
I0707 16:12:32.536315 15061 net.cpp:110] Creating Layer inception_4c/1x1
I0707 16:12:32.536320 15061 net.cpp:477] inception_4c/1x1 <- inception_4b/output_inception_4b/output_0_split_0
I0707 16:12:32.536327 15061 net.cpp:433] inception_4c/1x1 -> inception_4c/1x1
I0707 16:12:32.537609 15061 net.cpp:155] Setting up inception_4c/1x1
I0707 16:12:32.537621 15061 net.cpp:163] Top shape: 10 128 14 14 (250880)
I0707 16:12:32.537798 15061 layer_factory.hpp:76] Creating layer inception_4c/relu_1x1
I0707 16:12:32.537816 15061 net.cpp:110] Creating Layer inception_4c/relu_1x1
I0707 16:12:32.537822 15061 net.cpp:477] inception_4c/relu_1x1 <- inception_4c/1x1
I0707 16:12:32.537832 15061 net.cpp:419] inception_4c/relu_1x1 -> inception_4c/1x1 (in-place)
I0707 16:12:32.538379 15061 net.cpp:155] Setting up inception_4c/relu_1x1
I0707 16:12:32.538396 15061 net.cpp:163] Top shape: 10 128 14 14 (250880)
I0707 16:12:32.538403 15061 layer_factory.hpp:76] Creating layer inception_4c/3x3_reduce
I0707 16:12:32.538413 15061 net.cpp:110] Creating Layer inception_4c/3x3_reduce
I0707 16:12:32.538417 15061 net.cpp:477] inception_4c/3x3_reduce <- inception_4b/output_inception_4b/output_0_split_1
I0707 16:12:32.538429 15061 net.cpp:433] inception_4c/3x3_reduce -> inception_4c/3x3_reduce
I0707 16:12:32.539746 15061 net.cpp:155] Setting up inception_4c/3x3_reduce
I0707 16:12:32.539772 15061 net.cpp:163] Top shape: 10 128 14 14 (250880)
I0707 16:12:32.539783 15061 layer_factory.hpp:76] Creating layer inception_4c/relu_3x3_reduce
I0707 16:12:32.539793 15061 net.cpp:110] Creating Layer inception_4c/relu_3x3_reduce
I0707 16:12:32.539799 15061 net.cpp:477] inception_4c/relu_3x3_reduce <- inception_4c/3x3_reduce
I0707 16:12:32.539806 15061 net.cpp:419] inception_4c/relu_3x3_reduce -> inception_4c/3x3_reduce (in-place)
I0707 16:12:32.539896 15061 net.cpp:155] Setting up inception_4c/relu_3x3_reduce
I0707 16:12:32.539906 15061 net.cpp:163] Top shape: 10 128 14 14 (250880)
I0707 16:12:32.539911 15061 layer_factory.hpp:76] Creating layer inception_4c/3x3
I0707 16:12:32.539923 15061 net.cpp:110] Creating Layer inception_4c/3x3
I0707 16:12:32.539929 15061 net.cpp:477] inception_4c/3x3 <- inception_4c/3x3_reduce
I0707 16:12:32.539937 15061 net.cpp:433] inception_4c/3x3 -> inception_4c/3x3
I0707 16:12:32.544031 15061 net.cpp:155] Setting up inception_4c/3x3
I0707 16:12:32.544065 15061 net.cpp:163] Top shape: 10 256 14 14 (501760)
I0707 16:12:32.544077 15061 layer_factory.hpp:76] Creating layer inception_4c/relu_3x3
I0707 16:12:32.544086 15061 net.cpp:110] Creating Layer inception_4c/relu_3x3
I0707 16:12:32.544092 15061 net.cpp:477] inception_4c/relu_3x3 <- inception_4c/3x3
I0707 16:12:32.544103 15061 net.cpp:419] inception_4c/relu_3x3 -> inception_4c/3x3 (in-place)
I0707 16:12:32.544198 15061 net.cpp:155] Setting up inception_4c/relu_3x3
I0707 16:12:32.544208 15061 net.cpp:163] Top shape: 10 256 14 14 (501760)
I0707 16:12:32.544212 15061 layer_factory.hpp:76] Creating layer inception_4c/5x5_reduce
I0707 16:12:32.544221 15061 net.cpp:110] Creating Layer inception_4c/5x5_reduce
I0707 16:12:32.544227 15061 net.cpp:477] inception_4c/5x5_reduce <- inception_4b/output_inception_4b/output_0_split_2
I0707 16:12:32.544239 15061 net.cpp:433] inception_4c/5x5_reduce -> inception_4c/5x5_reduce
I0707 16:12:32.545157 15061 net.cpp:155] Setting up inception_4c/5x5_reduce
I0707 16:12:32.545186 15061 net.cpp:163] Top shape: 10 24 14 14 (47040)
I0707 16:12:32.545200 15061 layer_factory.hpp:76] Creating layer inception_4c/relu_5x5_reduce
I0707 16:12:32.545212 15061 net.cpp:110] Creating Layer inception_4c/relu_5x5_reduce
I0707 16:12:32.545217 15061 net.cpp:477] inception_4c/relu_5x5_reduce <- inception_4c/5x5_reduce
I0707 16:12:32.545224 15061 net.cpp:419] inception_4c/relu_5x5_reduce -> inception_4c/5x5_reduce (in-place)
I0707 16:12:32.545315 15061 net.cpp:155] Setting up inception_4c/relu_5x5_reduce
I0707 16:12:32.545325 15061 net.cpp:163] Top shape: 10 24 14 14 (47040)
I0707 16:12:32.545331 15061 layer_factory.hpp:76] Creating layer inception_4c/5x5
I0707 16:12:32.545343 15061 net.cpp:110] Creating Layer inception_4c/5x5
I0707 16:12:32.545348 15061 net.cpp:477] inception_4c/5x5 <- inception_4c/5x5_reduce
I0707 16:12:32.545356 15061 net.cpp:433] inception_4c/5x5 -> inception_4c/5x5
I0707 16:12:32.546445 15061 net.cpp:155] Setting up inception_4c/5x5
I0707 16:12:32.546473 15061 net.cpp:163] Top shape: 10 64 14 14 (125440)
I0707 16:12:32.546483 15061 layer_factory.hpp:76] Creating layer inception_4c/relu_5x5
I0707 16:12:32.546490 15061 net.cpp:110] Creating Layer inception_4c/relu_5x5
I0707 16:12:32.546496 15061 net.cpp:477] inception_4c/relu_5x5 <- inception_4c/5x5
I0707 16:12:32.546506 15061 net.cpp:419] inception_4c/relu_5x5 -> inception_4c/5x5 (in-place)
I0707 16:12:32.547081 15061 net.cpp:155] Setting up inception_4c/relu_5x5
I0707 16:12:32.547097 15061 net.cpp:163] Top shape: 10 64 14 14 (125440)
I0707 16:12:32.547103 15061 layer_factory.hpp:76] Creating layer inception_4c/pool
I0707 16:12:32.547111 15061 layer_factory.cpp:60] CUDNN does not support padding or multiple tops. Using Caffe's own pooling layer.
I0707 16:12:32.547121 15061 net.cpp:110] Creating Layer inception_4c/pool
I0707 16:12:32.547127 15061 net.cpp:477] inception_4c/pool <- inception_4b/output_inception_4b/output_0_split_3
I0707 16:12:32.547133 15061 net.cpp:433] inception_4c/pool -> inception_4c/pool
I0707 16:12:32.547144 15061 net.cpp:155] Setting up inception_4c/pool
I0707 16:12:32.547152 15061 net.cpp:163] Top shape: 10 512 14 14 (1003520)
I0707 16:12:32.547157 15061 layer_factory.hpp:76] Creating layer inception_4c/pool_proj
I0707 16:12:32.547168 15061 net.cpp:110] Creating Layer inception_4c/pool_proj
I0707 16:12:32.547174 15061 net.cpp:477] inception_4c/pool_proj <- inception_4c/pool
I0707 16:12:32.547183 15061 net.cpp:433] inception_4c/pool_proj -> inception_4c/pool_proj
I0707 16:12:32.549216 15061 net.cpp:155] Setting up inception_4c/pool_proj
I0707 16:12:32.549232 15061 net.cpp:163] Top shape: 10 64 14 14 (125440)
I0707 16:12:32.549259 15061 layer_factory.hpp:76] Creating layer inception_4c/relu_pool_proj
I0707 16:12:32.549271 15061 net.cpp:110] Creating Layer inception_4c/relu_pool_proj
I0707 16:12:32.549278 15061 net.cpp:477] inception_4c/relu_pool_proj <- inception_4c/pool_proj
I0707 16:12:32.549286 15061 net.cpp:419] inception_4c/relu_pool_proj -> inception_4c/pool_proj (in-place)
I0707 16:12:32.549377 15061 net.cpp:155] Setting up inception_4c/relu_pool_proj
I0707 16:12:32.549386 15061 net.cpp:163] Top shape: 10 64 14 14 (125440)
I0707 16:12:32.549391 15061 layer_factory.hpp:76] Creating layer inception_4c/output
I0707 16:12:32.549401 15061 net.cpp:110] Creating Layer inception_4c/output
I0707 16:12:32.549407 15061 net.cpp:477] inception_4c/output <- inception_4c/1x1
I0707 16:12:32.549412 15061 net.cpp:477] inception_4c/output <- inception_4c/3x3
I0707 16:12:32.549417 15061 net.cpp:477] inception_4c/output <- inception_4c/5x5
I0707 16:12:32.549423 15061 net.cpp:477] inception_4c/output <- inception_4c/pool_proj
I0707 16:12:32.549432 15061 net.cpp:433] inception_4c/output -> inception_4c/output
I0707 16:12:32.549443 15061 net.cpp:155] Setting up inception_4c/output
I0707 16:12:32.549448 15061 net.cpp:163] Top shape: 10 512 14 14 (1003520)
I0707 16:12:32.549453 15061 layer_factory.hpp:76] Creating layer inception_4c/output_inception_4c/output_0_split
I0707 16:12:32.549461 15061 net.cpp:110] Creating Layer inception_4c/output_inception_4c/output_0_split
I0707 16:12:32.549465 15061 net.cpp:477] inception_4c/output_inception_4c/output_0_split <- inception_4c/output
I0707 16:12:32.549473 15061 net.cpp:433] inception_4c/output_inception_4c/output_0_split -> inception_4c/output_inception_4c/output_0_split_0
I0707 16:12:32.549480 15061 net.cpp:433] inception_4c/output_inception_4c/output_0_split -> inception_4c/output_inception_4c/output_0_split_1
I0707 16:12:32.549492 15061 net.cpp:433] inception_4c/output_inception_4c/output_0_split -> inception_4c/output_inception_4c/output_0_split_2
I0707 16:12:32.549501 15061 net.cpp:433] inception_4c/output_inception_4c/output_0_split -> inception_4c/output_inception_4c/output_0_split_3
I0707 16:12:32.549510 15061 net.cpp:155] Setting up inception_4c/output_inception_4c/output_0_split
I0707 16:12:32.549515 15061 net.cpp:163] Top shape: 10 512 14 14 (1003520)
I0707 16:12:32.549520 15061 net.cpp:163] Top shape: 10 512 14 14 (1003520)
I0707 16:12:32.549525 15061 net.cpp:163] Top shape: 10 512 14 14 (1003520)
I0707 16:12:32.549530 15061 net.cpp:163] Top shape: 10 512 14 14 (1003520)
I0707 16:12:32.549535 15061 layer_factory.hpp:76] Creating layer inception_4d/1x1
I0707 16:12:32.549546 15061 net.cpp:110] Creating Layer inception_4d/1x1
I0707 16:12:32.549551 15061 net.cpp:477] inception_4d/1x1 <- inception_4c/output_inception_4c/output_0_split_0
I0707 16:12:32.549558 15061 net.cpp:433] inception_4d/1x1 -> inception_4d/1x1
I0707 16:12:32.550782 15061 net.cpp:155] Setting up inception_4d/1x1
I0707 16:12:32.550796 15061 net.cpp:163] Top shape: 10 112 14 14 (219520)
I0707 16:12:32.550806 15061 layer_factory.hpp:76] Creating layer inception_4d/relu_1x1
I0707 16:12:32.550814 15061 net.cpp:110] Creating Layer inception_4d/relu_1x1
I0707 16:12:32.550822 15061 net.cpp:477] inception_4d/relu_1x1 <- inception_4d/1x1
I0707 16:12:32.550829 15061 net.cpp:419] inception_4d/relu_1x1 -> inception_4d/1x1 (in-place)
I0707 16:12:32.550915 15061 net.cpp:155] Setting up inception_4d/relu_1x1
I0707 16:12:32.550923 15061 net.cpp:163] Top shape: 10 112 14 14 (219520)
I0707 16:12:32.550928 15061 layer_factory.hpp:76] Creating layer inception_4d/3x3_reduce
I0707 16:12:32.550940 15061 net.cpp:110] Creating Layer inception_4d/3x3_reduce
I0707 16:12:32.550945 15061 net.cpp:477] inception_4d/3x3_reduce <- inception_4c/output_inception_4c/output_0_split_1
I0707 16:12:32.550954 15061 net.cpp:433] inception_4d/3x3_reduce -> inception_4d/3x3_reduce
I0707 16:12:32.552325 15061 net.cpp:155] Setting up inception_4d/3x3_reduce
I0707 16:12:32.552340 15061 net.cpp:163] Top shape: 10 144 14 14 (282240)
I0707 16:12:32.552350 15061 layer_factory.hpp:76] Creating layer inception_4d/relu_3x3_reduce
I0707 16:12:32.552361 15061 net.cpp:110] Creating Layer inception_4d/relu_3x3_reduce
I0707 16:12:32.552366 15061 net.cpp:477] inception_4d/relu_3x3_reduce <- inception_4d/3x3_reduce
I0707 16:12:32.552373 15061 net.cpp:419] inception_4d/relu_3x3_reduce -> inception_4d/3x3_reduce (in-place)
I0707 16:12:32.552925 15061 net.cpp:155] Setting up inception_4d/relu_3x3_reduce
I0707 16:12:32.552940 15061 net.cpp:163] Top shape: 10 144 14 14 (282240)
I0707 16:12:32.552945 15061 layer_factory.hpp:76] Creating layer inception_4d/3x3
I0707 16:12:32.552955 15061 net.cpp:110] Creating Layer inception_4d/3x3
I0707 16:12:32.552960 15061 net.cpp:477] inception_4d/3x3 <- inception_4d/3x3_reduce
I0707 16:12:32.552973 15061 net.cpp:433] inception_4d/3x3 -> inception_4d/3x3
I0707 16:12:32.557679 15061 net.cpp:155] Setting up inception_4d/3x3
I0707 16:12:32.557698 15061 net.cpp:163] Top shape: 10 288 14 14 (564480)
I0707 16:12:32.557708 15061 layer_factory.hpp:76] Creating layer inception_4d/relu_3x3
I0707 16:12:32.557723 15061 net.cpp:110] Creating Layer inception_4d/relu_3x3
I0707 16:12:32.557729 15061 net.cpp:477] inception_4d/relu_3x3 <- inception_4d/3x3
I0707 16:12:32.557736 15061 net.cpp:419] inception_4d/relu_3x3 -> inception_4d/3x3 (in-place)
I0707 16:12:32.557829 15061 net.cpp:155] Setting up inception_4d/relu_3x3
I0707 16:12:32.557838 15061 net.cpp:163] Top shape: 10 288 14 14 (564480)
I0707 16:12:32.557844 15061 layer_factory.hpp:76] Creating layer inception_4d/5x5_reduce
I0707 16:12:32.557855 15061 net.cpp:110] Creating Layer inception_4d/5x5_reduce
I0707 16:12:32.557860 15061 net.cpp:477] inception_4d/5x5_reduce <- inception_4c/output_inception_4c/output_0_split_2
I0707 16:12:32.557868 15061 net.cpp:433] inception_4d/5x5_reduce -> inception_4d/5x5_reduce
I0707 16:12:32.558826 15061 net.cpp:155] Setting up inception_4d/5x5_reduce
I0707 16:12:32.558842 15061 net.cpp:163] Top shape: 10 32 14 14 (62720)
I0707 16:12:32.558856 15061 layer_factory.hpp:76] Creating layer inception_4d/relu_5x5_reduce
I0707 16:12:32.558863 15061 net.cpp:110] Creating Layer inception_4d/relu_5x5_reduce
I0707 16:12:32.558869 15061 net.cpp:477] inception_4d/relu_5x5_reduce <- inception_4d/5x5_reduce
I0707 16:12:32.558879 15061 net.cpp:419] inception_4d/relu_5x5_reduce -> inception_4d/5x5_reduce (in-place)
I0707 16:12:32.558967 15061 net.cpp:155] Setting up inception_4d/relu_5x5_reduce
I0707 16:12:32.558976 15061 net.cpp:163] Top shape: 10 32 14 14 (62720)
I0707 16:12:32.558982 15061 layer_factory.hpp:76] Creating layer inception_4d/5x5
I0707 16:12:32.558996 15061 net.cpp:110] Creating Layer inception_4d/5x5
I0707 16:12:32.559001 15061 net.cpp:477] inception_4d/5x5 <- inception_4d/5x5_reduce
I0707 16:12:32.559011 15061 net.cpp:433] inception_4d/5x5 -> inception_4d/5x5
I0707 16:12:32.560192 15061 net.cpp:155] Setting up inception_4d/5x5
I0707 16:12:32.560220 15061 net.cpp:163] Top shape: 10 64 14 14 (125440)
I0707 16:12:32.560230 15061 layer_factory.hpp:76] Creating layer inception_4d/relu_5x5
I0707 16:12:32.560240 15061 net.cpp:110] Creating Layer inception_4d/relu_5x5
I0707 16:12:32.560246 15061 net.cpp:477] inception_4d/relu_5x5 <- inception_4d/5x5
I0707 16:12:32.560256 15061 net.cpp:419] inception_4d/relu_5x5 -> inception_4d/5x5 (in-place)
I0707 16:12:32.560345 15061 net.cpp:155] Setting up inception_4d/relu_5x5
I0707 16:12:32.560355 15061 net.cpp:163] Top shape: 10 64 14 14 (125440)
I0707 16:12:32.560361 15061 layer_factory.hpp:76] Creating layer inception_4d/pool
I0707 16:12:32.560366 15061 layer_factory.cpp:60] CUDNN does not support padding or multiple tops. Using Caffe's own pooling layer.
I0707 16:12:32.560375 15061 net.cpp:110] Creating Layer inception_4d/pool
I0707 16:12:32.560380 15061 net.cpp:477] inception_4d/pool <- inception_4c/output_inception_4c/output_0_split_3
I0707 16:12:32.560390 15061 net.cpp:433] inception_4d/pool -> inception_4d/pool
I0707 16:12:32.560400 15061 net.cpp:155] Setting up inception_4d/pool
I0707 16:12:32.560407 15061 net.cpp:163] Top shape: 10 512 14 14 (1003520)
I0707 16:12:32.560412 15061 layer_factory.hpp:76] Creating layer inception_4d/pool_proj
I0707 16:12:32.560420 15061 net.cpp:110] Creating Layer inception_4d/pool_proj
I0707 16:12:32.560425 15061 net.cpp:477] inception_4d/pool_proj <- inception_4d/pool
I0707 16:12:32.560436 15061 net.cpp:433] inception_4d/pool_proj -> inception_4d/pool_proj
I0707 16:12:32.561494 15061 net.cpp:155] Setting up inception_4d/pool_proj
I0707 16:12:32.561507 15061 net.cpp:163] Top shape: 10 64 14 14 (125440)
I0707 16:12:32.561517 15061 layer_factory.hpp:76] Creating layer inception_4d/relu_pool_proj
I0707 16:12:32.561525 15061 net.cpp:110] Creating Layer inception_4d/relu_pool_proj
I0707 16:12:32.561532 15061 net.cpp:477] inception_4d/relu_pool_proj <- inception_4d/pool_proj
I0707 16:12:32.561538 15061 net.cpp:419] inception_4d/relu_pool_proj -> inception_4d/pool_proj (in-place)
I0707 16:12:32.562136 15061 net.cpp:155] Setting up inception_4d/relu_pool_proj
I0707 16:12:32.562149 15061 net.cpp:163] Top shape: 10 64 14 14 (125440)
I0707 16:12:32.562155 15061 layer_factory.hpp:76] Creating layer inception_4d/output
I0707 16:12:32.562168 15061 net.cpp:110] Creating Layer inception_4d/output
I0707 16:12:32.562175 15061 net.cpp:477] inception_4d/output <- inception_4d/1x1
I0707 16:12:32.562181 15061 net.cpp:477] inception_4d/output <- inception_4d/3x3
I0707 16:12:32.562187 15061 net.cpp:477] inception_4d/output <- inception_4d/5x5
I0707 16:12:32.562192 15061 net.cpp:477] inception_4d/output <- inception_4d/pool_proj
I0707 16:12:32.562199 15061 net.cpp:433] inception_4d/output -> inception_4d/output
I0707 16:12:32.562209 15061 net.cpp:155] Setting up inception_4d/output
I0707 16:12:32.562216 15061 net.cpp:163] Top shape: 10 528 14 14 (1034880)
I0707 16:12:32.562222 15061 layer_factory.hpp:76] Creating layer inception_4d/output_inception_4d/output_0_split
I0707 16:12:32.562232 15061 net.cpp:110] Creating Layer inception_4d/output_inception_4d/output_0_split
I0707 16:12:32.562240 15061 net.cpp:477] inception_4d/output_inception_4d/output_0_split <- inception_4d/output
I0707 16:12:32.562253 15061 net.cpp:433] inception_4d/output_inception_4d/output_0_split -> inception_4d/output_inception_4d/output_0_split_0
I0707 16:12:32.562264 15061 net.cpp:433] inception_4d/output_inception_4d/output_0_split -> inception_4d/output_inception_4d/output_0_split_1
I0707 16:12:32.562273 15061 net.cpp:433] inception_4d/output_inception_4d/output_0_split -> inception_4d/output_inception_4d/output_0_split_2
I0707 16:12:32.562279 15061 net.cpp:433] inception_4d/output_inception_4d/output_0_split -> inception_4d/output_inception_4d/output_0_split_3
I0707 16:12:32.562288 15061 net.cpp:155] Setting up inception_4d/output_inception_4d/output_0_split
I0707 16:12:32.562294 15061 net.cpp:163] Top shape: 10 528 14 14 (1034880)
I0707 16:12:32.562299 15061 net.cpp:163] Top shape: 10 528 14 14 (1034880)
I0707 16:12:32.562304 15061 net.cpp:163] Top shape: 10 528 14 14 (1034880)
I0707 16:12:32.562310 15061 net.cpp:163] Top shape: 10 528 14 14 (1034880)
I0707 16:12:32.562314 15061 layer_factory.hpp:76] Creating layer inception_4e/1x1
I0707 16:12:32.562328 15061 net.cpp:110] Creating Layer inception_4e/1x1
I0707 16:12:32.562335 15061 net.cpp:477] inception_4e/1x1 <- inception_4d/output_inception_4d/output_0_split_0
I0707 16:12:32.562345 15061 net.cpp:433] inception_4e/1x1 -> inception_4e/1x1
I0707 16:12:32.565145 15061 net.cpp:155] Setting up inception_4e/1x1
I0707 16:12:32.565163 15061 net.cpp:163] Top shape: 10 256 14 14 (501760)
I0707 16:12:32.565173 15061 layer_factory.hpp:76] Creating layer inception_4e/relu_1x1
I0707 16:12:32.565189 15061 net.cpp:110] Creating Layer inception_4e/relu_1x1
I0707 16:12:32.565196 15061 net.cpp:477] inception_4e/relu_1x1 <- inception_4e/1x1
I0707 16:12:32.565202 15061 net.cpp:419] inception_4e/relu_1x1 -> inception_4e/1x1 (in-place)
I0707 16:12:32.565294 15061 net.cpp:155] Setting up inception_4e/relu_1x1
I0707 16:12:32.565304 15061 net.cpp:163] Top shape: 10 256 14 14 (501760)
I0707 16:12:32.565309 15061 layer_factory.hpp:76] Creating layer inception_4e/3x3_reduce
I0707 16:12:32.565321 15061 net.cpp:110] Creating Layer inception_4e/3x3_reduce
I0707 16:12:32.565327 15061 net.cpp:477] inception_4e/3x3_reduce <- inception_4d/output_inception_4d/output_0_split_1
I0707 16:12:32.565335 15061 net.cpp:433] inception_4e/3x3_reduce -> inception_4e/3x3_reduce
I0707 16:12:32.566789 15061 net.cpp:155] Setting up inception_4e/3x3_reduce
I0707 16:12:32.566805 15061 net.cpp:163] Top shape: 10 160 14 14 (313600)
I0707 16:12:32.566815 15061 layer_factory.hpp:76] Creating layer inception_4e/relu_3x3_reduce
I0707 16:12:32.566825 15061 net.cpp:110] Creating Layer inception_4e/relu_3x3_reduce
I0707 16:12:32.566831 15061 net.cpp:477] inception_4e/relu_3x3_reduce <- inception_4e/3x3_reduce
I0707 16:12:32.566838 15061 net.cpp:419] inception_4e/relu_3x3_reduce -> inception_4e/3x3_reduce (in-place)
I0707 16:12:32.566925 15061 net.cpp:155] Setting up inception_4e/relu_3x3_reduce
I0707 16:12:32.566933 15061 net.cpp:163] Top shape: 10 160 14 14 (313600)
I0707 16:12:32.566939 15061 layer_factory.hpp:76] Creating layer inception_4e/3x3
I0707 16:12:32.566951 15061 net.cpp:110] Creating Layer inception_4e/3x3
I0707 16:12:32.566957 15061 net.cpp:477] inception_4e/3x3 <- inception_4e/3x3_reduce
I0707 16:12:32.566967 15061 net.cpp:433] inception_4e/3x3 -> inception_4e/3x3
I0707 16:12:32.572438 15061 net.cpp:155] Setting up inception_4e/3x3
I0707 16:12:32.572454 15061 net.cpp:163] Top shape: 10 320 14 14 (627200)
I0707 16:12:32.572477 15061 layer_factory.hpp:76] Creating layer inception_4e/relu_3x3
I0707 16:12:32.572485 15061 net.cpp:110] Creating Layer inception_4e/relu_3x3
I0707 16:12:32.572491 15061 net.cpp:477] inception_4e/relu_3x3 <- inception_4e/3x3
I0707 16:12:32.572504 15061 net.cpp:419] inception_4e/relu_3x3 -> inception_4e/3x3 (in-place)
I0707 16:12:32.572592 15061 net.cpp:155] Setting up inception_4e/relu_3x3
I0707 16:12:32.572600 15061 net.cpp:163] Top shape: 10 320 14 14 (627200)
I0707 16:12:32.572607 15061 layer_factory.hpp:76] Creating layer inception_4e/5x5_reduce
I0707 16:12:32.572618 15061 net.cpp:110] Creating Layer inception_4e/5x5_reduce
I0707 16:12:32.572623 15061 net.cpp:477] inception_4e/5x5_reduce <- inception_4d/output_inception_4d/output_0_split_2
I0707 16:12:32.572634 15061 net.cpp:433] inception_4e/5x5_reduce -> inception_4e/5x5_reduce
I0707 16:12:32.573576 15061 net.cpp:155] Setting up inception_4e/5x5_reduce
I0707 16:12:32.573592 15061 net.cpp:163] Top shape: 10 32 14 14 (62720)
I0707 16:12:32.573606 15061 layer_factory.hpp:76] Creating layer inception_4e/relu_5x5_reduce
I0707 16:12:32.573617 15061 net.cpp:110] Creating Layer inception_4e/relu_5x5_reduce
I0707 16:12:32.573624 15061 net.cpp:477] inception_4e/relu_5x5_reduce <- inception_4e/5x5_reduce
I0707 16:12:32.573632 15061 net.cpp:419] inception_4e/relu_5x5_reduce -> inception_4e/5x5_reduce (in-place)
I0707 16:12:32.574187 15061 net.cpp:155] Setting up inception_4e/relu_5x5_reduce
I0707 16:12:32.574203 15061 net.cpp:163] Top shape: 10 32 14 14 (62720)
I0707 16:12:32.574208 15061 layer_factory.hpp:76] Creating layer inception_4e/5x5
I0707 16:12:32.574220 15061 net.cpp:110] Creating Layer inception_4e/5x5
I0707 16:12:32.574226 15061 net.cpp:477] inception_4e/5x5 <- inception_4e/5x5_reduce
I0707 16:12:32.574234 15061 net.cpp:433] inception_4e/5x5 -> inception_4e/5x5
I0707 16:12:32.576778 15061 net.cpp:155] Setting up inception_4e/5x5
I0707 16:12:32.576795 15061 net.cpp:163] Top shape: 10 128 14 14 (250880)
I0707 16:12:32.576807 15061 layer_factory.hpp:76] Creating layer inception_4e/relu_5x5
I0707 16:12:32.576817 15061 net.cpp:110] Creating Layer inception_4e/relu_5x5
I0707 16:12:32.576822 15061 net.cpp:477] inception_4e/relu_5x5 <- inception_4e/5x5
I0707 16:12:32.576829 15061 net.cpp:419] inception_4e/relu_5x5 -> inception_4e/5x5 (in-place)
I0707 16:12:32.576918 15061 net.cpp:155] Setting up inception_4e/relu_5x5
I0707 16:12:32.576928 15061 net.cpp:163] Top shape: 10 128 14 14 (250880)
I0707 16:12:32.576933 15061 layer_factory.hpp:76] Creating layer inception_4e/pool
I0707 16:12:32.576939 15061 layer_factory.cpp:60] CUDNN does not support padding or multiple tops. Using Caffe's own pooling layer.
I0707 16:12:32.576946 15061 net.cpp:110] Creating Layer inception_4e/pool
I0707 16:12:32.576951 15061 net.cpp:477] inception_4e/pool <- inception_4d/output_inception_4d/output_0_split_3
I0707 16:12:32.576958 15061 net.cpp:433] inception_4e/pool -> inception_4e/pool
I0707 16:12:32.576970 15061 net.cpp:155] Setting up inception_4e/pool
I0707 16:12:32.576977 15061 net.cpp:163] Top shape: 10 528 14 14 (1034880)
I0707 16:12:32.576983 15061 layer_factory.hpp:76] Creating layer inception_4e/pool_proj
I0707 16:12:32.576997 15061 net.cpp:110] Creating Layer inception_4e/pool_proj
I0707 16:12:32.577002 15061 net.cpp:477] inception_4e/pool_proj <- inception_4e/pool
I0707 16:12:32.577011 15061 net.cpp:433] inception_4e/pool_proj -> inception_4e/pool_proj
I0707 16:12:32.578313 15061 net.cpp:155] Setting up inception_4e/pool_proj
I0707 16:12:32.578330 15061 net.cpp:163] Top shape: 10 128 14 14 (250880)
I0707 16:12:32.578338 15061 layer_factory.hpp:76] Creating layer inception_4e/relu_pool_proj
I0707 16:12:32.578351 15061 net.cpp:110] Creating Layer inception_4e/relu_pool_proj
I0707 16:12:32.578356 15061 net.cpp:477] inception_4e/relu_pool_proj <- inception_4e/pool_proj
I0707 16:12:32.578363 15061 net.cpp:419] inception_4e/relu_pool_proj -> inception_4e/pool_proj (in-place)
I0707 16:12:32.578454 15061 net.cpp:155] Setting up inception_4e/relu_pool_proj
I0707 16:12:32.578464 15061 net.cpp:163] Top shape: 10 128 14 14 (250880)
I0707 16:12:32.578469 15061 layer_factory.hpp:76] Creating layer inception_4e/output
I0707 16:12:32.578476 15061 net.cpp:110] Creating Layer inception_4e/output
I0707 16:12:32.578481 15061 net.cpp:477] inception_4e/output <- inception_4e/1x1
I0707 16:12:32.578487 15061 net.cpp:477] inception_4e/output <- inception_4e/3x3
I0707 16:12:32.578493 15061 net.cpp:477] inception_4e/output <- inception_4e/5x5
I0707 16:12:32.578498 15061 net.cpp:477] inception_4e/output <- inception_4e/pool_proj
I0707 16:12:32.578508 15061 net.cpp:433] inception_4e/output -> inception_4e/output
I0707 16:12:32.578519 15061 net.cpp:155] Setting up inception_4e/output
I0707 16:12:32.578526 15061 net.cpp:163] Top shape: 10 832 14 14 (1630720)
I0707 16:12:32.578531 15061 layer_factory.hpp:76] Creating layer pool4/3x3_s2
I0707 16:12:32.578541 15061 net.cpp:110] Creating Layer pool4/3x3_s2
I0707 16:12:32.578547 15061 net.cpp:477] pool4/3x3_s2 <- inception_4e/output
I0707 16:12:32.578555 15061 net.cpp:433] pool4/3x3_s2 -> pool4/3x3_s2
I0707 16:12:32.578649 15061 net.cpp:155] Setting up pool4/3x3_s2
I0707 16:12:32.578657 15061 net.cpp:163] Top shape: 10 832 7 7 (407680)
I0707 16:12:32.578665 15061 layer_factory.hpp:76] Creating layer pool4/3x3_s2_pool4/3x3_s2_0_split
I0707 16:12:32.578672 15061 net.cpp:110] Creating Layer pool4/3x3_s2_pool4/3x3_s2_0_split
I0707 16:12:32.578677 15061 net.cpp:477] pool4/3x3_s2_pool4/3x3_s2_0_split <- pool4/3x3_s2
I0707 16:12:32.578683 15061 net.cpp:433] pool4/3x3_s2_pool4/3x3_s2_0_split -> pool4/3x3_s2_pool4/3x3_s2_0_split_0
I0707 16:12:32.578701 15061 net.cpp:433] pool4/3x3_s2_pool4/3x3_s2_0_split -> pool4/3x3_s2_pool4/3x3_s2_0_split_1
I0707 16:12:32.578708 15061 net.cpp:433] pool4/3x3_s2_pool4/3x3_s2_0_split -> pool4/3x3_s2_pool4/3x3_s2_0_split_2
I0707 16:12:32.578721 15061 net.cpp:433] pool4/3x3_s2_pool4/3x3_s2_0_split -> pool4/3x3_s2_pool4/3x3_s2_0_split_3
I0707 16:12:32.578729 15061 net.cpp:155] Setting up pool4/3x3_s2_pool4/3x3_s2_0_split
I0707 16:12:32.578737 15061 net.cpp:163] Top shape: 10 832 7 7 (407680)
I0707 16:12:32.578742 15061 net.cpp:163] Top shape: 10 832 7 7 (407680)
I0707 16:12:32.578747 15061 net.cpp:163] Top shape: 10 832 7 7 (407680)
I0707 16:12:32.578752 15061 net.cpp:163] Top shape: 10 832 7 7 (407680)
I0707 16:12:32.578757 15061 layer_factory.hpp:76] Creating layer inception_5a/1x1
I0707 16:12:32.578768 15061 net.cpp:110] Creating Layer inception_5a/1x1
I0707 16:12:32.578773 15061 net.cpp:477] inception_5a/1x1 <- pool4/3x3_s2_pool4/3x3_s2_0_split_0
I0707 16:12:32.578780 15061 net.cpp:433] inception_5a/1x1 -> inception_5a/1x1
I0707 16:12:32.582109 15061 net.cpp:155] Setting up inception_5a/1x1
I0707 16:12:32.582141 15061 net.cpp:163] Top shape: 10 256 7 7 (125440)
I0707 16:12:32.582152 15061 layer_factory.hpp:76] Creating layer inception_5a/relu_1x1
I0707 16:12:32.582160 15061 net.cpp:110] Creating Layer inception_5a/relu_1x1
I0707 16:12:32.582166 15061 net.cpp:477] inception_5a/relu_1x1 <- inception_5a/1x1
I0707 16:12:32.582173 15061 net.cpp:419] inception_5a/relu_1x1 -> inception_5a/1x1 (in-place)
I0707 16:12:32.582726 15061 net.cpp:155] Setting up inception_5a/relu_1x1
I0707 16:12:32.582741 15061 net.cpp:163] Top shape: 10 256 7 7 (125440)
I0707 16:12:32.582747 15061 layer_factory.hpp:76] Creating layer inception_5a/3x3_reduce
I0707 16:12:32.582763 15061 net.cpp:110] Creating Layer inception_5a/3x3_reduce
I0707 16:12:32.582769 15061 net.cpp:477] inception_5a/3x3_reduce <- pool4/3x3_s2_pool4/3x3_s2_0_split_1
I0707 16:12:32.582780 15061 net.cpp:433] inception_5a/3x3_reduce -> inception_5a/3x3_reduce
I0707 16:12:32.585572 15061 net.cpp:155] Setting up inception_5a/3x3_reduce
I0707 16:12:32.585589 15061 net.cpp:163] Top shape: 10 160 7 7 (78400)
I0707 16:12:32.585602 15061 layer_factory.hpp:76] Creating layer inception_5a/relu_3x3_reduce
I0707 16:12:32.585613 15061 net.cpp:110] Creating Layer inception_5a/relu_3x3_reduce
I0707 16:12:32.585618 15061 net.cpp:477] inception_5a/relu_3x3_reduce <- inception_5a/3x3_reduce
I0707 16:12:32.585626 15061 net.cpp:419] inception_5a/relu_3x3_reduce -> inception_5a/3x3_reduce (in-place)
I0707 16:12:32.585716 15061 net.cpp:155] Setting up inception_5a/relu_3x3_reduce
I0707 16:12:32.585726 15061 net.cpp:163] Top shape: 10 160 7 7 (78400)
I0707 16:12:32.585731 15061 layer_factory.hpp:76] Creating layer inception_5a/3x3
I0707 16:12:32.585743 15061 net.cpp:110] Creating Layer inception_5a/3x3
I0707 16:12:32.585748 15061 net.cpp:477] inception_5a/3x3 <- inception_5a/3x3_reduce
I0707 16:12:32.585757 15061 net.cpp:433] inception_5a/3x3 -> inception_5a/3x3
I0707 16:12:32.591251 15061 net.cpp:155] Setting up inception_5a/3x3
I0707 16:12:32.591269 15061 net.cpp:163] Top shape: 10 320 7 7 (156800)
I0707 16:12:32.591279 15061 layer_factory.hpp:76] Creating layer inception_5a/relu_3x3
I0707 16:12:32.591289 15061 net.cpp:110] Creating Layer inception_5a/relu_3x3
I0707 16:12:32.591306 15061 net.cpp:477] inception_5a/relu_3x3 <- inception_5a/3x3
I0707 16:12:32.591317 15061 net.cpp:419] inception_5a/relu_3x3 -> inception_5a/3x3 (in-place)
I0707 16:12:32.591445 15061 net.cpp:155] Setting up inception_5a/relu_3x3
I0707 16:12:32.591461 15061 net.cpp:163] Top shape: 10 320 7 7 (156800)
I0707 16:12:32.591470 15061 layer_factory.hpp:76] Creating layer inception_5a/5x5_reduce
I0707 16:12:32.591492 15061 net.cpp:110] Creating Layer inception_5a/5x5_reduce
I0707 16:12:32.591503 15061 net.cpp:477] inception_5a/5x5_reduce <- pool4/3x3_s2_pool4/3x3_s2_0_split_2
I0707 16:12:32.591521 15061 net.cpp:433] inception_5a/5x5_reduce -> inception_5a/5x5_reduce
I0707 16:12:32.593067 15061 net.cpp:155] Setting up inception_5a/5x5_reduce
I0707 16:12:32.593094 15061 net.cpp:163] Top shape: 10 32 7 7 (15680)
I0707 16:12:32.593117 15061 layer_factory.hpp:76] Creating layer inception_5a/relu_5x5_reduce
I0707 16:12:32.593133 15061 net.cpp:110] Creating Layer inception_5a/relu_5x5_reduce
I0707 16:12:32.593144 15061 net.cpp:477] inception_5a/relu_5x5_reduce <- inception_5a/5x5_reduce
I0707 16:12:32.593163 15061 net.cpp:419] inception_5a/relu_5x5_reduce -> inception_5a/5x5_reduce (in-place)
I0707 16:12:32.593971 15061 net.cpp:155] Setting up inception_5a/relu_5x5_reduce
I0707 16:12:32.593993 15061 net.cpp:163] Top shape: 10 32 7 7 (15680)
I0707 16:12:32.594005 15061 layer_factory.hpp:76] Creating layer inception_5a/5x5
I0707 16:12:32.594029 15061 net.cpp:110] Creating Layer inception_5a/5x5
I0707 16:12:32.594039 15061 net.cpp:477] inception_5a/5x5 <- inception_5a/5x5_reduce
I0707 16:12:32.594056 15061 net.cpp:433] inception_5a/5x5 -> inception_5a/5x5
I0707 16:12:32.596437 15061 net.cpp:155] Setting up inception_5a/5x5
I0707 16:12:32.596462 15061 net.cpp:163] Top shape: 10 128 7 7 (62720)
I0707 16:12:32.596478 15061 layer_factory.hpp:76] Creating layer inception_5a/relu_5x5
I0707 16:12:32.596496 15061 net.cpp:110] Creating Layer inception_5a/relu_5x5
I0707 16:12:32.596506 15061 net.cpp:477] inception_5a/relu_5x5 <- inception_5a/5x5
I0707 16:12:32.596523 15061 net.cpp:419] inception_5a/relu_5x5 -> inception_5a/5x5 (in-place)
I0707 16:12:32.596665 15061 net.cpp:155] Setting up inception_5a/relu_5x5
I0707 16:12:32.596680 15061 net.cpp:163] Top shape: 10 128 7 7 (62720)
I0707 16:12:32.596690 15061 layer_factory.hpp:76] Creating layer inception_5a/pool
I0707 16:12:32.596700 15061 layer_factory.cpp:60] CUDNN does not support padding or multiple tops. Using Caffe's own pooling layer.
I0707 16:12:32.596742 15061 net.cpp:110] Creating Layer inception_5a/pool
I0707 16:12:32.596753 15061 net.cpp:477] inception_5a/pool <- pool4/3x3_s2_pool4/3x3_s2_0_split_3
I0707 16:12:32.596771 15061 net.cpp:433] inception_5a/pool -> inception_5a/pool
I0707 16:12:32.596792 15061 net.cpp:155] Setting up inception_5a/pool
I0707 16:12:32.596806 15061 net.cpp:163] Top shape: 10 832 7 7 (407680)
I0707 16:12:32.596818 15061 layer_factory.hpp:76] Creating layer inception_5a/pool_proj
I0707 16:12:32.596837 15061 net.cpp:110] Creating Layer inception_5a/pool_proj
I0707 16:12:32.596848 15061 net.cpp:477] inception_5a/pool_proj <- inception_5a/pool
I0707 16:12:32.596863 15061 net.cpp:433] inception_5a/pool_proj -> inception_5a/pool_proj
I0707 16:12:32.600726 15061 net.cpp:155] Setting up inception_5a/pool_proj
I0707 16:12:32.600759 15061 net.cpp:163] Top shape: 10 128 7 7 (62720)
I0707 16:12:32.600780 15061 layer_factory.hpp:76] Creating layer inception_5a/relu_pool_proj
I0707 16:12:32.600797 15061 net.cpp:110] Creating Layer inception_5a/relu_pool_proj
I0707 16:12:32.600808 15061 net.cpp:477] inception_5a/relu_pool_proj <- inception_5a/pool_proj
I0707 16:12:32.600821 15061 net.cpp:419] inception_5a/relu_pool_proj -> inception_5a/pool_proj (in-place)
I0707 16:12:32.600966 15061 net.cpp:155] Setting up inception_5a/relu_pool_proj
I0707 16:12:32.600982 15061 net.cpp:163] Top shape: 10 128 7 7 (62720)
I0707 16:12:32.600991 15061 layer_factory.hpp:76] Creating layer inception_5a/output
I0707 16:12:32.601004 15061 net.cpp:110] Creating Layer inception_5a/output
I0707 16:12:32.601014 15061 net.cpp:477] inception_5a/output <- inception_5a/1x1
I0707 16:12:32.601032 15061 net.cpp:477] inception_5a/output <- inception_5a/3x3
I0707 16:12:32.601042 15061 net.cpp:477] inception_5a/output <- inception_5a/5x5
I0707 16:12:32.601052 15061 net.cpp:477] inception_5a/output <- inception_5a/pool_proj
I0707 16:12:32.601063 15061 net.cpp:433] inception_5a/output -> inception_5a/output
I0707 16:12:32.601080 15061 net.cpp:155] Setting up inception_5a/output
I0707 16:12:32.601092 15061 net.cpp:163] Top shape: 10 832 7 7 (407680)
I0707 16:12:32.601100 15061 layer_factory.hpp:76] Creating layer inception_5a/output_inception_5a/output_0_split
I0707 16:12:32.601119 15061 net.cpp:110] Creating Layer inception_5a/output_inception_5a/output_0_split
I0707 16:12:32.601127 15061 net.cpp:477] inception_5a/output_inception_5a/output_0_split <- inception_5a/output
I0707 16:12:32.601140 15061 net.cpp:433] inception_5a/output_inception_5a/output_0_split -> inception_5a/output_inception_5a/output_0_split_0
I0707 16:12:32.601156 15061 net.cpp:433] inception_5a/output_inception_5a/output_0_split -> inception_5a/output_inception_5a/output_0_split_1
I0707 16:12:32.601171 15061 net.cpp:433] inception_5a/output_inception_5a/output_0_split -> inception_5a/output_inception_5a/output_0_split_2
I0707 16:12:32.601186 15061 net.cpp:433] inception_5a/output_inception_5a/output_0_split -> inception_5a/output_inception_5a/output_0_split_3
I0707 16:12:32.601199 15061 net.cpp:155] Setting up inception_5a/output_inception_5a/output_0_split
I0707 16:12:32.601212 15061 net.cpp:163] Top shape: 10 832 7 7 (407680)
I0707 16:12:32.601222 15061 net.cpp:163] Top shape: 10 832 7 7 (407680)
I0707 16:12:32.601233 15061 net.cpp:163] Top shape: 10 832 7 7 (407680)
I0707 16:12:32.601243 15061 net.cpp:163] Top shape: 10 832 7 7 (407680)
I0707 16:12:32.601253 15061 layer_factory.hpp:76] Creating layer inception_5b/1x1
I0707 16:12:32.601271 15061 net.cpp:110] Creating Layer inception_5b/1x1
I0707 16:12:32.601281 15061 net.cpp:477] inception_5b/1x1 <- inception_5a/output_inception_5a/output_0_split_0
I0707 16:12:32.601294 15061 net.cpp:433] inception_5b/1x1 -> inception_5b/1x1
I0707 16:12:32.607981 15061 net.cpp:155] Setting up inception_5b/1x1
I0707 16:12:32.608024 15061 net.cpp:163] Top shape: 10 384 7 7 (188160)
I0707 16:12:32.608041 15061 layer_factory.hpp:76] Creating layer inception_5b/relu_1x1
I0707 16:12:32.608059 15061 net.cpp:110] Creating Layer inception_5b/relu_1x1
I0707 16:12:32.608067 15061 net.cpp:477] inception_5b/relu_1x1 <- inception_5b/1x1
I0707 16:12:32.608080 15061 net.cpp:419] inception_5b/relu_1x1 -> inception_5b/1x1 (in-place)
I0707 16:12:32.608176 15061 net.cpp:155] Setting up inception_5b/relu_1x1
I0707 16:12:32.608186 15061 net.cpp:163] Top shape: 10 384 7 7 (188160)
I0707 16:12:32.608191 15061 layer_factory.hpp:76] Creating layer inception_5b/3x3_reduce
I0707 16:12:32.608206 15061 net.cpp:110] Creating Layer inception_5b/3x3_reduce
I0707 16:12:32.608212 15061 net.cpp:477] inception_5b/3x3_reduce <- inception_5a/output_inception_5a/output_0_split_1
I0707 16:12:32.608223 15061 net.cpp:433] inception_5b/3x3_reduce -> inception_5b/3x3_reduce
I0707 16:12:32.611397 15061 net.cpp:155] Setting up inception_5b/3x3_reduce
I0707 16:12:32.611415 15061 net.cpp:163] Top shape: 10 192 7 7 (94080)
I0707 16:12:32.611428 15061 layer_factory.hpp:76] Creating layer inception_5b/relu_3x3_reduce
I0707 16:12:32.611436 15061 net.cpp:110] Creating Layer inception_5b/relu_3x3_reduce
I0707 16:12:32.611443 15061 net.cpp:477] inception_5b/relu_3x3_reduce <- inception_5b/3x3_reduce
I0707 16:12:32.611449 15061 net.cpp:419] inception_5b/relu_3x3_reduce -> inception_5b/3x3_reduce (in-place)
I0707 16:12:32.612038 15061 net.cpp:155] Setting up inception_5b/relu_3x3_reduce
I0707 16:12:32.612053 15061 net.cpp:163] Top shape: 10 192 7 7 (94080)
I0707 16:12:32.612063 15061 layer_factory.hpp:76] Creating layer inception_5b/3x3
I0707 16:12:32.612076 15061 net.cpp:110] Creating Layer inception_5b/3x3
I0707 16:12:32.612083 15061 net.cpp:477] inception_5b/3x3 <- inception_5b/3x3_reduce
I0707 16:12:32.612092 15061 net.cpp:433] inception_5b/3x3 -> inception_5b/3x3
I0707 16:12:32.619371 15061 net.cpp:155] Setting up inception_5b/3x3
I0707 16:12:32.619401 15061 net.cpp:163] Top shape: 10 384 7 7 (188160)
I0707 16:12:32.619413 15061 layer_factory.hpp:76] Creating layer inception_5b/relu_3x3
I0707 16:12:32.619426 15061 net.cpp:110] Creating Layer inception_5b/relu_3x3
I0707 16:12:32.619431 15061 net.cpp:477] inception_5b/relu_3x3 <- inception_5b/3x3
I0707 16:12:32.619442 15061 net.cpp:419] inception_5b/relu_3x3 -> inception_5b/3x3 (in-place)
I0707 16:12:32.619530 15061 net.cpp:155] Setting up inception_5b/relu_3x3
I0707 16:12:32.619539 15061 net.cpp:163] Top shape: 10 384 7 7 (188160)
I0707 16:12:32.619544 15061 layer_factory.hpp:76] Creating layer inception_5b/5x5_reduce
I0707 16:12:32.619557 15061 net.cpp:110] Creating Layer inception_5b/5x5_reduce
I0707 16:12:32.619563 15061 net.cpp:477] inception_5b/5x5_reduce <- inception_5a/output_inception_5a/output_0_split_2
I0707 16:12:32.619572 15061 net.cpp:433] inception_5b/5x5_reduce -> inception_5b/5x5_reduce
I0707 16:12:32.620715 15061 net.cpp:155] Setting up inception_5b/5x5_reduce
I0707 16:12:32.620743 15061 net.cpp:163] Top shape: 10 48 7 7 (23520)
I0707 16:12:32.620754 15061 layer_factory.hpp:76] Creating layer inception_5b/relu_5x5_reduce
I0707 16:12:32.620764 15061 net.cpp:110] Creating Layer inception_5b/relu_5x5_reduce
I0707 16:12:32.620770 15061 net.cpp:477] inception_5b/relu_5x5_reduce <- inception_5b/5x5_reduce
I0707 16:12:32.620777 15061 net.cpp:419] inception_5b/relu_5x5_reduce -> inception_5b/5x5_reduce (in-place)
I0707 16:12:32.620869 15061 net.cpp:155] Setting up inception_5b/relu_5x5_reduce
I0707 16:12:32.620878 15061 net.cpp:163] Top shape: 10 48 7 7 (23520)
I0707 16:12:32.620884 15061 layer_factory.hpp:76] Creating layer inception_5b/5x5
I0707 16:12:32.620895 15061 net.cpp:110] Creating Layer inception_5b/5x5
I0707 16:12:32.620900 15061 net.cpp:477] inception_5b/5x5 <- inception_5b/5x5_reduce
I0707 16:12:32.620908 15061 net.cpp:433] inception_5b/5x5 -> inception_5b/5x5
I0707 16:12:32.622911 15061 net.cpp:155] Setting up inception_5b/5x5
I0707 16:12:32.622927 15061 net.cpp:163] Top shape: 10 128 7 7 (62720)
I0707 16:12:32.622937 15061 layer_factory.hpp:76] Creating layer inception_5b/relu_5x5
I0707 16:12:32.622951 15061 net.cpp:110] Creating Layer inception_5b/relu_5x5
I0707 16:12:32.622957 15061 net.cpp:477] inception_5b/relu_5x5 <- inception_5b/5x5
I0707 16:12:32.622964 15061 net.cpp:419] inception_5b/relu_5x5 -> inception_5b/5x5 (in-place)
I0707 16:12:32.623056 15061 net.cpp:155] Setting up inception_5b/relu_5x5
I0707 16:12:32.623065 15061 net.cpp:163] Top shape: 10 128 7 7 (62720)
I0707 16:12:32.623070 15061 layer_factory.hpp:76] Creating layer inception_5b/pool
I0707 16:12:32.623078 15061 layer_factory.cpp:60] CUDNN does not support padding or multiple tops. Using Caffe's own pooling layer.
I0707 16:12:32.623086 15061 net.cpp:110] Creating Layer inception_5b/pool
I0707 16:12:32.623092 15061 net.cpp:477] inception_5b/pool <- inception_5a/output_inception_5a/output_0_split_3
I0707 16:12:32.623103 15061 net.cpp:433] inception_5b/pool -> inception_5b/pool
I0707 16:12:32.623117 15061 net.cpp:155] Setting up inception_5b/pool
I0707 16:12:32.623123 15061 net.cpp:163] Top shape: 10 832 7 7 (407680)
I0707 16:12:32.623128 15061 layer_factory.hpp:76] Creating layer inception_5b/pool_proj
I0707 16:12:32.623137 15061 net.cpp:110] Creating Layer inception_5b/pool_proj
I0707 16:12:32.623143 15061 net.cpp:477] inception_5b/pool_proj <- inception_5b/pool
I0707 16:12:32.623162 15061 net.cpp:433] inception_5b/pool_proj -> inception_5b/pool_proj
I0707 16:12:32.626785 15061 net.cpp:155] Setting up inception_5b/pool_proj
I0707 16:12:32.626817 15061 net.cpp:163] Top shape: 10 128 7 7 (62720)
I0707 16:12:32.626837 15061 layer_factory.hpp:76] Creating layer inception_5b/relu_pool_proj
I0707 16:12:32.626864 15061 net.cpp:110] Creating Layer inception_5b/relu_pool_proj
I0707 16:12:32.626878 15061 net.cpp:477] inception_5b/relu_pool_proj <- inception_5b/pool_proj
I0707 16:12:32.626891 15061 net.cpp:419] inception_5b/relu_pool_proj -> inception_5b/pool_proj (in-place)
I0707 16:12:32.627718 15061 net.cpp:155] Setting up inception_5b/relu_pool_proj
I0707 16:12:32.627743 15061 net.cpp:163] Top shape: 10 128 7 7 (62720)
I0707 16:12:32.627754 15061 layer_factory.hpp:76] Creating layer inception_5b/output
I0707 16:12:32.627769 15061 net.cpp:110] Creating Layer inception_5b/output
I0707 16:12:32.627779 15061 net.cpp:477] inception_5b/output <- inception_5b/1x1
I0707 16:12:32.627790 15061 net.cpp:477] inception_5b/output <- inception_5b/3x3
I0707 16:12:32.627800 15061 net.cpp:477] inception_5b/output <- inception_5b/5x5
I0707 16:12:32.627810 15061 net.cpp:477] inception_5b/output <- inception_5b/pool_proj
I0707 16:12:32.627828 15061 net.cpp:433] inception_5b/output -> inception_5b/output
I0707 16:12:32.627849 15061 net.cpp:155] Setting up inception_5b/output
I0707 16:12:32.627863 15061 net.cpp:163] Top shape: 10 1024 7 7 (501760)
I0707 16:12:32.627873 15061 layer_factory.hpp:76] Creating layer pool5/7x7_s1
I0707 16:12:32.627887 15061 net.cpp:110] Creating Layer pool5/7x7_s1
I0707 16:12:32.627897 15061 net.cpp:477] pool5/7x7_s1 <- inception_5b/output
I0707 16:12:32.627912 15061 net.cpp:433] pool5/7x7_s1 -> pool5/7x7_s1
I0707 16:12:32.628070 15061 net.cpp:155] Setting up pool5/7x7_s1
I0707 16:12:32.628089 15061 net.cpp:163] Top shape: 10 1024 1 1 (10240)
I0707 16:12:32.628100 15061 layer_factory.hpp:76] Creating layer pool5/drop_7x7_s1
I0707 16:12:32.628116 15061 net.cpp:110] Creating Layer pool5/drop_7x7_s1
I0707 16:12:32.628126 15061 net.cpp:477] pool5/drop_7x7_s1 <- pool5/7x7_s1
I0707 16:12:32.628145 15061 net.cpp:419] pool5/drop_7x7_s1 -> pool5/7x7_s1 (in-place)
I0707 16:12:32.628181 15061 net.cpp:155] Setting up pool5/drop_7x7_s1
I0707 16:12:32.628196 15061 net.cpp:163] Top shape: 10 1024 1 1 (10240)
I0707 16:12:32.628206 15061 layer_factory.hpp:76] Creating layer loss3/classifier
I0707 16:12:32.628231 15061 net.cpp:110] Creating Layer loss3/classifier
I0707 16:12:32.628245 15061 net.cpp:477] loss3/classifier <- pool5/7x7_s1
I0707 16:12:32.628259 15061 net.cpp:433] loss3/classifier -> loss3/classifier
I0707 16:12:32.642058 15061 net.cpp:155] Setting up loss3/classifier
I0707 16:12:32.642107 15061 net.cpp:163] Top shape: 10 1000 (10000)
I0707 16:12:32.642128 15061 layer_factory.hpp:76] Creating layer prob
I0707 16:12:32.642148 15061 net.cpp:110] Creating Layer prob
I0707 16:12:32.642158 15061 net.cpp:477] prob <- loss3/classifier
I0707 16:12:32.642173 15061 net.cpp:433] prob -> prob
I0707 16:12:32.642434 15061 net.cpp:155] Setting up prob
I0707 16:12:32.642452 15061 net.cpp:163] Top shape: 10 1000 (10000)
I0707 16:12:32.642464 15061 net.cpp:240] prob does not need backward computation.
I0707 16:12:32.642475 15061 net.cpp:240] loss3/classifier does not need backward computation.
I0707 16:12:32.642483 15061 net.cpp:240] pool5/drop_7x7_s1 does not need backward computation.
I0707 16:12:32.642493 15061 net.cpp:240] pool5/7x7_s1 does not need backward computation.
I0707 16:12:32.642501 15061 net.cpp:240] inception_5b/output does not need backward computation.
…
