…
I0802 08:18:21.368749  5702 upgrade_proto.cpp:66] Attempting to upgrade input file specified using deprecated input fields: /tmp/cvld249764420391836871/s2vt.words_to_preds.prototxt
I0802 08:18:21.368887  5702 upgrade_proto.cpp:69] Successfully upgraded file specified using deprecated input fields.
W0802 08:18:21.368901  5702 upgrade_proto.cpp:71] Note that future Caffe releases will only support input layers and not input fields.
I0802 08:18:21.369153  5712 net.cpp:49] Initializing net from parameters: 
name: "CaffeNet"
state {
  phase: TEST
}
layer {
  name: "data"
  type: "Input"
  top: "data"
  input_param {
    shape {
      dim: 10
      dim: 3
      dim: 227
      dim: 227
    }
  }
}
layer {
  name: "conv1"
  type: "Convolution"
  bottom: "data"
  top: "conv1"
  convolution_param {
    num_output: 96
    kernel_size: 11
    stride: 4
  }
}
layer {
  name: "relu1"
  type: "ReLU"
  bottom: "conv1"
  top: "conv1"
}
layer {
  name: "pool1"
  type: "Pooling"
  bottom: "conv1"
  top: "pool1"
  pooling_param {
    pool: MAX
    kernel_size: 3
    stride: 2
  }
}
layer {
  name: "norm1"
  type: "LRN"
  bottom: "pool1"
  top: "norm1"
  lrn_param {
    local_size: 5
    alpha: 0.0001
    beta: 0.75
  }
}
layer {
  name: "conv2"
  type: "Convolution"
  bottom: "norm1"
  top: "conv2"
  convolution_param {
    num_output: 256
    pad: 2
    kernel_size: 5
    group: 2
  }
}
layer {
  name: "relu2"
  type: "ReLU"
  bottom: "conv2"
  top: "conv2"
}
layer {
  name: "pool2"
  type: "Pooling"
  bottom: "conv2"
  top: "pool2"
  pooling_param {
    pool: MAX
    kernel_size: 3
    stride: 2
  }
}
layer {
  name: "norm2"
  type: "LRN"
  bottom: "pool2"
  top: "norm2"
  lrn_param {
    local_size: 5
    alpha: 0.0001
    beta: 0.75
  }
}
layer {
  name: "conv3"
  type: "Convolution"
  bottom: "norm2"
  top: "conv3"
  convolution_param {
    num_output: 384
    pad: 1
    kernel_size: 3
  }
}
layer {
  name: "relu3"
  type: "ReLU"
  bottom: "conv3"
  top: "conv3"
}
layer {
  name: "conv4"
  type: "Convolution"
  bottom: "conv3"
  top: "conv4"
  convolution_param {
    num_output: 384
    pad: 1
    kernel_size: 3
    group: 2
  }
}
layer {
  name: "relu4"
  type: "ReLU"
  bottom: "conv4"
  top: "conv4"
}
layer {
  name: "conv5"
  type: "Convolution"
  bottom: "conv4"
  top: "conv5"
  convolution_param {
    num_output: 256
    pad: 1
    kernel_size: 3
    group: 2
  }
}
layer {
  name: "relu5"
  type: "ReLU"
  bottom: "conv5"
  top: "conv5"
}
layer {
  name: "pool5"
  type: "Pooling"
  bottom: "conv5"
  top: "pool5"
  pooling_param {
    pool: MAX
    kernel_size: 3
    stride: 2
  }
}
layer {
  name: "fc6"
  type: "InnerProduct"
  bottom: "pool5"
  top: "fc6"
  inner_product_param {
    num_output: 4096
  }
}
layer {
  name: "relu6"
  type: "ReLU"
  bottom: "fc6"
  top: "fc6"
}
layer {
  name: "drop6"
  type: "Dropout"
  bottom: "fc6"
  top: "fc6"
  dropout_param {
    dropout_ratio: 0.5
  }
}
layer {
  name: "fc7"
  type: "InnerProduct"
  bottom: "fc6"
  top: "fc7"
  inner_product_param {
    num_output: 4096
  }
}
layer {
  name: "relu7"
  type: "ReLU"
  bottom: "fc7"
  top: "fc7"
}
layer {
  name: "drop7"
  type: "Dropout"
  bottom: "fc7"
  top: "fc7"
  dropout_param {
    dropout_ratio: 0.5
  }
}
layer {
  name: "fc8"
  type: "InnerProduct"
  bottom: "fc7"
  top: "fc8"
  inner_product_param {
    num_output: 1000
  }
}
layer {
  name: "prob"
  type: "Softmax"
  bottom: "fc8"
  top: "prob"
}
I0802 08:18:21.369258  5702 net.cpp:49] Initializing net from parameters: 
name: "s2vt:features_to_lstm"
state {
  phase: TEST
}
layer {
  name: "input"
  type: "Input"
  top: "frames_fc7"
  top: "cont_sentence"
  top: "input_sentence"
  top: "stage_indicator"
  input_param {
    shape {
      dim: 1
      dim: 4096
    }
    shape {
      dim: 1
      dim: 1
    }
    shape {
      dim: 1
      dim: 1
    }
    shape {
      dim: 1
      dim: 1
    }
  }
}
layer {
  name: "embed_encoder"
  type: "InnerProduct"
  bottom: "frames_fc7"
  top: "embedded_in_frames"
  param {
    lr_mult: 1
    decay_mult: 1
  }
  param {
    lr_mult: 2
    decay_mult: 0
  }
  inner_product_param {
    num_output: 500
    weight_filler {
      type: "xavier"
    }
    bias_filler {
      type: "constant"
      value: 0.2
    }
  }
}
layer {
  name: "reshape_frames"
  type: "Reshape"
  bottom: "embedded_in_frames"
  top: "embedded_input_frames"
  reshape_param {
    shape {
      dim: 1
      dim: 1
      dim: 500
    }
  }
}
layer {
  name: "reshape_stage_indicator"
  type: "Reshape"
  bottom: "stage_indicator"
  top: "reshaped_stage_indicator"
  reshape_param {
    shape {
      dim: 1
      dim: 1
      dim: 1
    }
  }
}
layer {
  name: "embedding"
  type: "Embed"
  bottom: "input_sentence"
  top: "embedded_input_sentence"
  param {
    lr_mult: 1
  }
  embed_param {
    num_output: 500
    input_dim: 46168
    bias_term: false
    weight_filler {
      type: "uniform"
      min: -0.08
      max: 0.08
    }
  }
}
layer {
  name: "lstm1"
  type: "LSTM"
  bottom: "embedded_input_frames"
  bottom: "cont_sentence"
  top: "lstm1"
  recurrent_param {
    num_output: 1000
    weight_filler {
      type: "uniform"
      min: -0.08
      max: 0.08
    }
    bias_filler {
      type: "constant"
      value: 0
    }
  }
}
layer {
  name: "concat"
  type: "Concat"
  bottom: "lstm1"
  bottom: "embedded_input_sentence"
  bottom: "reshaped_stage_indicator"
  top: "lstm1_video_sequence"
  concat_param {
    concat_dim: 2
  }
}
layer {
  name: "lstm2"
  type: "LSTM"
  bottom: "lstm1_video_sequence"
  bottom: "cont_sentence"
  top: "lstm2"
  recurrent_param {
    num_output: 1000
    weight_filler {
      type: "uniform"
      min: -0.08
      max: 0.08
    }
    bias_filler {
      type: "constant"
      value: 0
    }
  }
}
layer {
  name: "predict"
  type: "InnerProduct"
  bottom: "lstm2"
  top: "predict"
  param {
    lr_mult: 1
    decay_mult: 1
  }
  param {
    lr_mult: 2
    decay_mult: 0
  }
  inner_product_param {
    num_output: 46168
    weight_filler {
      type: "uniform"
      min: -0.08
      max: 0.08
    }
    bias_filler {
      type: "constant"
      value: 0
    }
    axis: 2
  }
}
layer {
  name: "probs"
  type: "Softmax"
  bottom: "predict"
  top: "probs"
  softmax_param {
    axis: 2
  }
}
I0802 08:18:21.369285  5712 layer_factory.hpp:77] Creating layer data
I0802 08:18:21.369351  5712 net.cpp:91] Creating Layer data
I0802 08:18:21.369362  5712 net.cpp:399] data -> data
I0802 08:18:21.369424  5702 layer_factory.hpp:77] Creating layer input
I0802 08:18:21.369447  5702 net.cpp:91] Creating Layer input
I0802 08:18:21.369459  5702 net.cpp:399] input -> frames_fc7
I0802 08:18:21.369484  5702 net.cpp:399] input -> cont_sentence
I0802 08:18:21.369511  5702 net.cpp:399] input -> input_sentence
I0802 08:18:21.369532  5702 net.cpp:399] input -> stage_indicator
I0802 08:18:21.857069  5712 net.cpp:141] Setting up data
I0802 08:18:21.857156  5712 net.cpp:148] Top shape: 10 3 227 227 (1545870)
I0802 08:18:21.857166  5712 net.cpp:156] Memory required for data: 6183480
I0802 08:18:21.857187  5712 layer_factory.hpp:77] Creating layer conv1
I0802 08:18:21.857189  5702 net.cpp:141] Setting up input
I0802 08:18:21.857219  5712 net.cpp:91] Creating Layer conv1
I0802 08:18:21.857228  5702 net.cpp:148] Top shape: 1 4096 (4096)
I0802 08:18:21.857230  5712 net.cpp:425] conv1 <- data
I0802 08:18:21.857236  5702 net.cpp:148] Top shape: 1 1 (1)
I0802 08:18:21.857242  5702 net.cpp:148] Top shape: 1 1 (1)
I0802 08:18:21.857246  5712 net.cpp:399] conv1 -> conv1
I0802 08:18:21.857249  5702 net.cpp:148] Top shape: 1 1 (1)
I0802 08:18:21.857254  5702 net.cpp:156] Memory required for data: 16396
I0802 08:18:21.857264  5702 layer_factory.hpp:77] Creating layer cont_sentence_input_1_split
I0802 08:18:21.857291  5702 net.cpp:91] Creating Layer cont_sentence_input_1_split
I0802 08:18:21.857298  5702 net.cpp:425] cont_sentence_input_1_split <- cont_sentence
I0802 08:18:21.857331  5702 net.cpp:399] cont_sentence_input_1_split -> cont_sentence_input_1_split_0
I0802 08:18:21.857345  5702 net.cpp:399] cont_sentence_input_1_split -> cont_sentence_input_1_split_1
I0802 08:18:21.857491  5702 net.cpp:141] Setting up cont_sentence_input_1_split
I0802 08:18:21.857502  5702 net.cpp:148] Top shape: 1 1 (1)
I0802 08:18:21.857509  5702 net.cpp:148] Top shape: 1 1 (1)
I0802 08:18:21.857513  5702 net.cpp:156] Memory required for data: 16404
I0802 08:18:21.857518  5702 layer_factory.hpp:77] Creating layer embed_encoder
I0802 08:18:21.857538  5702 net.cpp:91] Creating Layer embed_encoder
I0802 08:18:21.857544  5702 net.cpp:425] embed_encoder <- frames_fc7
I0802 08:18:21.857553  5702 net.cpp:399] embed_encoder -> embedded_in_frames
I0802 08:18:21.879225  5702 net.cpp:141] Setting up embed_encoder
I0802 08:18:21.879274  5702 net.cpp:148] Top shape: 1 500 (500)
I0802 08:18:21.879281  5702 net.cpp:156] Memory required for data: 18404
I0802 08:18:21.879310  5702 layer_factory.hpp:77] Creating layer reshape_frames
I0802 08:18:21.879340  5702 net.cpp:91] Creating Layer reshape_frames
I0802 08:18:21.879348  5702 net.cpp:425] reshape_frames <- embedded_in_frames
I0802 08:18:21.879359  5702 net.cpp:399] reshape_frames -> embedded_input_frames
I0802 08:18:21.881794  5702 net.cpp:141] Setting up reshape_frames
I0802 08:18:21.881814  5702 net.cpp:148] Top shape: 1 1 500 (500)
I0802 08:18:21.881820  5702 net.cpp:156] Memory required for data: 20404
I0802 08:18:21.881825  5702 layer_factory.hpp:77] Creating layer reshape_stage_indicator
I0802 08:18:21.881839  5702 net.cpp:91] Creating Layer reshape_stage_indicator
I0802 08:18:21.881844  5702 net.cpp:425] reshape_stage_indicator <- stage_indicator
I0802 08:18:21.881855  5702 net.cpp:399] reshape_stage_indicator -> reshaped_stage_indicator
I0802 08:18:21.882069  5702 net.cpp:141] Setting up reshape_stage_indicator
I0802 08:18:21.882081  5702 net.cpp:148] Top shape: 1 1 1 (1)
I0802 08:18:21.882086  5702 net.cpp:156] Memory required for data: 20408
I0802 08:18:21.882091  5702 layer_factory.hpp:77] Creating layer embedding
I0802 08:18:21.882103  5702 net.cpp:91] Creating Layer embedding
I0802 08:18:21.882108  5702 net.cpp:425] embedding <- input_sentence
I0802 08:18:21.882117  5702 net.cpp:399] embedding -> embedded_input_sentence
I0802 08:18:22.100386  5712 net.cpp:141] Setting up conv1
I0802 08:18:22.100453  5712 net.cpp:148] Top shape: 10 96 55 55 (2904000)
I0802 08:18:22.100460  5712 net.cpp:156] Memory required for data: 17799480
I0802 08:18:22.100484  5712 layer_factory.hpp:77] Creating layer relu1
I0802 08:18:22.100504  5712 net.cpp:91] Creating Layer relu1
I0802 08:18:22.100512  5712 net.cpp:425] relu1 <- conv1
I0802 08:18:22.100519  5712 net.cpp:386] relu1 -> conv1 (in-place)
I0802 08:18:22.100946  5712 net.cpp:141] Setting up relu1
I0802 08:18:22.100960  5712 net.cpp:148] Top shape: 10 96 55 55 (2904000)
I0802 08:18:22.100965  5712 net.cpp:156] Memory required for data: 29415480
I0802 08:18:22.100970  5712 layer_factory.hpp:77] Creating layer pool1
I0802 08:18:22.100983  5712 net.cpp:91] Creating Layer pool1
I0802 08:18:22.100988  5712 net.cpp:425] pool1 <- conv1
I0802 08:18:22.100996  5712 net.cpp:399] pool1 -> pool1
I0802 08:18:22.101063  5712 net.cpp:141] Setting up pool1
I0802 08:18:22.101073  5712 net.cpp:148] Top shape: 10 96 27 27 (699840)
I0802 08:18:22.101078  5712 net.cpp:156] Memory required for data: 32214840
I0802 08:18:22.101083  5712 layer_factory.hpp:77] Creating layer norm1
I0802 08:18:22.101099  5712 net.cpp:91] Creating Layer norm1
I0802 08:18:22.101104  5712 net.cpp:425] norm1 <- pool1
I0802 08:18:22.101110  5712 net.cpp:399] norm1 -> norm1
I0802 08:18:22.101577  5712 net.cpp:141] Setting up norm1
I0802 08:18:22.101590  5712 net.cpp:148] Top shape: 10 96 27 27 (699840)
I0802 08:18:22.101595  5712 net.cpp:156] Memory required for data: 35014200
I0802 08:18:22.101600  5712 layer_factory.hpp:77] Creating layer conv2
I0802 08:18:22.101618  5712 net.cpp:91] Creating Layer conv2
I0802 08:18:22.101622  5712 net.cpp:425] conv2 <- norm1
I0802 08:18:22.101629  5712 net.cpp:399] conv2 -> conv2
I0802 08:18:22.104718  5712 net.cpp:141] Setting up conv2
I0802 08:18:22.104750  5712 net.cpp:148] Top shape: 10 256 27 27 (1866240)
I0802 08:18:22.104758  5712 net.cpp:156] Memory required for data: 42479160
I0802 08:18:22.104769  5712 layer_factory.hpp:77] Creating layer relu2
I0802 08:18:22.104779  5712 net.cpp:91] Creating Layer relu2
I0802 08:18:22.104784  5712 net.cpp:425] relu2 <- conv2
I0802 08:18:22.104791  5712 net.cpp:386] relu2 -> conv2 (in-place)
I0802 08:18:22.105214  5712 net.cpp:141] Setting up relu2
I0802 08:18:22.105227  5712 net.cpp:148] Top shape: 10 256 27 27 (1866240)
I0802 08:18:22.105232  5712 net.cpp:156] Memory required for data: 49944120
I0802 08:18:22.105238  5712 layer_factory.hpp:77] Creating layer pool2
I0802 08:18:22.105247  5712 net.cpp:91] Creating Layer pool2
I0802 08:18:22.105252  5712 net.cpp:425] pool2 <- conv2
I0802 08:18:22.105259  5712 net.cpp:399] pool2 -> pool2
I0802 08:18:22.105309  5712 net.cpp:141] Setting up pool2
I0802 08:18:22.105317  5712 net.cpp:148] Top shape: 10 256 13 13 (432640)
I0802 08:18:22.105321  5712 net.cpp:156] Memory required for data: 51674680
I0802 08:18:22.105326  5712 layer_factory.hpp:77] Creating layer norm2
I0802 08:18:22.105335  5712 net.cpp:91] Creating Layer norm2
I0802 08:18:22.105340  5712 net.cpp:425] norm2 <- pool2
I0802 08:18:22.105347  5712 net.cpp:399] norm2 -> norm2
I0802 08:18:22.105576  5712 net.cpp:141] Setting up norm2
I0802 08:18:22.105588  5712 net.cpp:148] Top shape: 10 256 13 13 (432640)
I0802 08:18:22.105593  5712 net.cpp:156] Memory required for data: 53405240
I0802 08:18:22.105597  5712 layer_factory.hpp:77] Creating layer conv3
I0802 08:18:22.105608  5712 net.cpp:91] Creating Layer conv3
I0802 08:18:22.105613  5712 net.cpp:425] conv3 <- norm2
I0802 08:18:22.105620  5712 net.cpp:399] conv3 -> conv3
I0802 08:18:22.109293  5712 net.cpp:141] Setting up conv3
I0802 08:18:22.109313  5712 net.cpp:148] Top shape: 10 384 13 13 (648960)
I0802 08:18:22.109319  5712 net.cpp:156] Memory required for data: 56001080
I0802 08:18:22.109331  5712 layer_factory.hpp:77] Creating layer relu3
I0802 08:18:22.109344  5712 net.cpp:91] Creating Layer relu3
I0802 08:18:22.109349  5712 net.cpp:425] relu3 <- conv3
I0802 08:18:22.109356  5712 net.cpp:386] relu3 -> conv3 (in-place)
I0802 08:18:22.109797  5712 net.cpp:141] Setting up relu3
I0802 08:18:22.109810  5712 net.cpp:148] Top shape: 10 384 13 13 (648960)
I0802 08:18:22.109814  5712 net.cpp:156] Memory required for data: 58596920
I0802 08:18:22.109820  5712 layer_factory.hpp:77] Creating layer conv4
I0802 08:18:22.109833  5712 net.cpp:91] Creating Layer conv4
I0802 08:18:22.109840  5712 net.cpp:425] conv4 <- conv3
I0802 08:18:22.109848  5712 net.cpp:399] conv4 -> conv4
I0802 08:18:22.113833  5712 net.cpp:141] Setting up conv4
I0802 08:18:22.113852  5712 net.cpp:148] Top shape: 10 384 13 13 (648960)
I0802 08:18:22.113870  5712 net.cpp:156] Memory required for data: 61192760
I0802 08:18:22.113879  5712 layer_factory.hpp:77] Creating layer relu4
I0802 08:18:22.113888  5712 net.cpp:91] Creating Layer relu4
I0802 08:18:22.113893  5712 net.cpp:425] relu4 <- conv4
I0802 08:18:22.113899  5712 net.cpp:386] relu4 -> conv4 (in-place)
I0802 08:18:22.114352  5712 net.cpp:141] Setting up relu4
I0802 08:18:22.114365  5712 net.cpp:148] Top shape: 10 384 13 13 (648960)
I0802 08:18:22.114370  5712 net.cpp:156] Memory required for data: 63788600
I0802 08:18:22.114375  5712 layer_factory.hpp:77] Creating layer conv5
I0802 08:18:22.114388  5712 net.cpp:91] Creating Layer conv5
I0802 08:18:22.114394  5712 net.cpp:425] conv5 <- conv4
I0802 08:18:22.114401  5712 net.cpp:399] conv5 -> conv5
I0802 08:18:22.118255  5712 net.cpp:141] Setting up conv5
I0802 08:18:22.118288  5712 net.cpp:148] Top shape: 10 256 13 13 (432640)
I0802 08:18:22.118294  5712 net.cpp:156] Memory required for data: 65519160
I0802 08:18:22.118306  5712 layer_factory.hpp:77] Creating layer relu5
I0802 08:18:22.118315  5712 net.cpp:91] Creating Layer relu5
I0802 08:18:22.118320  5712 net.cpp:425] relu5 <- conv5
I0802 08:18:22.118326  5712 net.cpp:386] relu5 -> conv5 (in-place)
I0802 08:18:22.118351  5702 net.cpp:141] Setting up embedding
I0802 08:18:22.118397  5702 net.cpp:148] Top shape: 1 1 500 (500)
I0802 08:18:22.118404  5702 net.cpp:156] Memory required for data: 22408
I0802 08:18:22.118424  5702 layer_factory.hpp:77] Creating layer lstm1
I0802 08:18:22.118445  5702 net.cpp:91] Creating Layer lstm1
I0802 08:18:22.118454  5702 net.cpp:425] lstm1 <- embedded_input_frames
I0802 08:18:22.118464  5702 net.cpp:425] lstm1 <- cont_sentence_input_1_split_0
I0802 08:18:22.118474  5702 net.cpp:399] lstm1 -> lstm1
I0802 08:18:22.118500  5702 recurrent_layer.cpp:20] Initializing recurrent layer: assuming input batch contains 1 timesteps of 1 independent streams.
I0802 08:18:22.118809  5712 net.cpp:141] Setting up relu5
I0802 08:18:22.118823  5712 net.cpp:148] Top shape: 10 256 13 13 (432640)
I0802 08:18:22.118826  5712 net.cpp:156] Memory required for data: 67249720
I0802 08:18:22.118832  5712 layer_factory.hpp:77] Creating layer pool5
I0802 08:18:22.118841  5712 net.cpp:91] Creating Layer pool5
I0802 08:18:22.118846  5712 net.cpp:425] pool5 <- conv5
I0802 08:18:22.118857  5712 net.cpp:399] pool5 -> pool5
I0802 08:18:22.118918  5702 net.cpp:49] Initializing net from parameters: 
layer {
  name: "lstm1_"
  type: "Input"
  top: "x"
  top: "cont"
  input_param {
    shape {
      dim: 1
      dim: 1
      dim: 500
    }
    shape {
      dim: 1
      dim: 1
    }
  }
}
layer {
  name: "lstm1_"
  type: "Input"
  top: "c_0"
  top: "h_0"
  input_param {
    shape {
      dim: 1
      dim: 1
      dim: 1000
    }
    shape {
      dim: 1
      dim: 1
      dim: 1000
    }
  }
}
layer {
  name: "lstm1_cont_slice"
  type: "Slice"
  bottom: "cont"
  top: "cont_1"
  slice_param {
    axis: 0
  }
}
layer {
  name: "lstm1_x_transform"
  type: "InnerProduct"
  bottom: "x"
  top: "W_xc_x"
  param {
    name: "W_xc"
  }
  param {
    name: "b_c"
  }
  propagate_down: true
  inner_product_param {
    num_output: 4000
    bias_term: true
    weight_filler {
      type: "uniform"
      min: -0.08
      max: 0.08
    }
    bias_filler {
      type: "constant"
      value: 0
    }
    axis: 2
  }
}
layer {
  name: "lstm1_W_xc_x_slice"
  type: "Slice"
  bottom: "W_xc_x"
  top: "W_xc_x_1"
  slice_param {
    axis: 0
  }
}
layer {
  name: "lstm1_h_conted_0"
  type: "Scale"
  bottom: "h_0"
  bottom: "cont_1"
  top: "h_conted_0"
  scale_param {
    axis: 0
  }
}
layer {
  name: "lstm1_transform_1"
  type: "InnerProduct"
  bottom: "h_conted_0"
  top: "W_hc_h_0"
  param {
    name: "W_hc"
  }
  inner_product_param {
    num_output: 4000
    bias_term: false
    weight_filler {
      type: "uniform"
      min: -0.08
      max: 0.08
    }
    axis: 2
  }
}
layer {
  name: "lstm1_gate_input_1"
  type: "Eltwise"
  bottom: "W_hc_h_0"
  bottom: "W_xc_x_1"
  top: "gate_input_1"
  eltwise_param {
    operation: SUM
  }
}
layer {
  name: "lstm1_unit_1"
  type: "LSTMUnit"
  bottom: "c_0"
  bottom: "gate_input_1"
  bottom: "cont_1"
  top: "c_1"
  top: "h_1"
}
layer {
  name: "lstm1_"
  type: "Split"
  bottom: "c_1"
  top: "c_T"
}
layer {
  name: "lstm1_h_concat"
  type: "Concat"
  bottom: "h_1"
  top: "h"
  concat_param {
    axis: 0
  }
}
layer {
  name: "h_pseudoloss"
  type: "Reduction"
  bottom: "h"
  top: "h_pseudoloss"
  loss_weight: 1
}
I0802 08:18:22.118943  5712 net.cpp:141] Setting up pool5
I0802 08:18:22.118954  5712 net.cpp:148] Top shape: 10 256 6 6 (92160)
I0802 08:18:22.118958  5712 net.cpp:156] Memory required for data: 67618360
I0802 08:18:22.118963  5712 layer_factory.hpp:77] Creating layer fc6
I0802 08:18:22.118980  5712 net.cpp:91] Creating Layer fc6
I0802 08:18:22.118986  5712 net.cpp:425] fc6 <- pool5
I0802 08:18:22.118995  5712 net.cpp:399] fc6 -> fc6
I0802 08:18:22.119019  5702 layer_factory.hpp:77] Creating layer lstm1_
I0802 08:18:22.119035  5702 net.cpp:91] Creating Layer lstm1_
I0802 08:18:22.119041  5702 net.cpp:399] lstm1_ -> x
I0802 08:18:22.119055  5702 net.cpp:399] lstm1_ -> cont
I0802 08:18:22.201869  5702 net.cpp:141] Setting up lstm1_
I0802 08:18:22.201925  5702 net.cpp:148] Top shape: 1 1 500 (500)
I0802 08:18:22.201934  5702 net.cpp:148] Top shape: 1 1 (1)
I0802 08:18:22.201941  5702 net.cpp:156] Memory required for data: 2004
I0802 08:18:22.201951  5702 layer_factory.hpp:77] Creating layer lstm1_
I0802 08:18:22.201979  5702 net.cpp:91] Creating Layer lstm1_
I0802 08:18:22.201989  5702 net.cpp:399] lstm1_ -> c_0
I0802 08:18:22.202010  5702 net.cpp:399] lstm1_ -> h_0
I0802 08:18:22.202069  5702 net.cpp:141] Setting up lstm1_
I0802 08:18:22.202080  5702 net.cpp:148] Top shape: 1 1 1000 (1000)
I0802 08:18:22.202086  5702 net.cpp:148] Top shape: 1 1 1000 (1000)
I0802 08:18:22.202091  5702 net.cpp:156] Memory required for data: 10004
I0802 08:18:22.202096  5702 layer_factory.hpp:77] Creating layer lstm1_cont_slice
I0802 08:18:22.202111  5702 net.cpp:91] Creating Layer lstm1_cont_slice
I0802 08:18:22.202116  5702 net.cpp:425] lstm1_cont_slice <- cont
I0802 08:18:22.202141  5702 net.cpp:399] lstm1_cont_slice -> cont_1
I0802 08:18:22.202188  5702 net.cpp:141] Setting up lstm1_cont_slice
I0802 08:18:22.202198  5702 net.cpp:148] Top shape: 1 1 (1)
I0802 08:18:22.202203  5702 net.cpp:156] Memory required for data: 10008
I0802 08:18:22.202208  5702 layer_factory.hpp:77] Creating layer cont_1_lstm1_cont_slice_0_split
I0802 08:18:22.202219  5702 net.cpp:91] Creating Layer cont_1_lstm1_cont_slice_0_split
I0802 08:18:22.202224  5702 net.cpp:425] cont_1_lstm1_cont_slice_0_split <- cont_1
I0802 08:18:22.202231  5702 net.cpp:399] cont_1_lstm1_cont_slice_0_split -> cont_1_lstm1_cont_slice_0_split_0
I0802 08:18:22.202246  5702 net.cpp:399] cont_1_lstm1_cont_slice_0_split -> cont_1_lstm1_cont_slice_0_split_1
I0802 08:18:22.202298  5702 net.cpp:141] Setting up cont_1_lstm1_cont_slice_0_split
I0802 08:18:22.202307  5702 net.cpp:148] Top shape: 1 1 (1)
I0802 08:18:22.202314  5702 net.cpp:148] Top shape: 1 1 (1)
I0802 08:18:22.202319  5702 net.cpp:156] Memory required for data: 10016
I0802 08:18:22.202324  5702 layer_factory.hpp:77] Creating layer lstm1_x_transform
I0802 08:18:22.202345  5702 net.cpp:91] Creating Layer lstm1_x_transform
I0802 08:18:22.202350  5702 net.cpp:425] lstm1_x_transform <- x
I0802 08:18:22.202363  5702 net.cpp:399] lstm1_x_transform -> W_xc_x
I0802 08:18:22.225925  5702 net.cpp:141] Setting up lstm1_x_transform
I0802 08:18:22.225975  5702 net.cpp:148] Top shape: 1 1 4000 (4000)
I0802 08:18:22.225982  5702 net.cpp:156] Memory required for data: 26016
I0802 08:18:22.226006  5702 layer_factory.hpp:77] Creating layer lstm1_W_xc_x_slice
I0802 08:18:22.226023  5702 net.cpp:91] Creating Layer lstm1_W_xc_x_slice
I0802 08:18:22.226032  5702 net.cpp:425] lstm1_W_xc_x_slice <- W_xc_x
I0802 08:18:22.226047  5702 net.cpp:399] lstm1_W_xc_x_slice -> W_xc_x_1
I0802 08:18:22.226096  5702 net.cpp:141] Setting up lstm1_W_xc_x_slice
I0802 08:18:22.226107  5702 net.cpp:148] Top shape: 1 1 4000 (4000)
I0802 08:18:22.226112  5702 net.cpp:156] Memory required for data: 42016
I0802 08:18:22.226117  5702 layer_factory.hpp:77] Creating layer lstm1_h_conted_0
I0802 08:18:22.226130  5702 net.cpp:91] Creating Layer lstm1_h_conted_0
I0802 08:18:22.226135  5702 net.cpp:425] lstm1_h_conted_0 <- h_0
I0802 08:18:22.226142  5702 net.cpp:425] lstm1_h_conted_0 <- cont_1_lstm1_cont_slice_0_split_0
I0802 08:18:22.226155  5702 net.cpp:399] lstm1_h_conted_0 -> h_conted_0
I0802 08:18:22.226260  5702 net.cpp:141] Setting up lstm1_h_conted_0
I0802 08:18:22.226271  5702 net.cpp:148] Top shape: 1 1 1000 (1000)
I0802 08:18:22.226276  5702 net.cpp:156] Memory required for data: 46016
I0802 08:18:22.226282  5702 layer_factory.hpp:77] Creating layer lstm1_transform_1
I0802 08:18:22.226296  5702 net.cpp:91] Creating Layer lstm1_transform_1
I0802 08:18:22.226302  5702 net.cpp:425] lstm1_transform_1 <- h_conted_0
I0802 08:18:22.226315  5702 net.cpp:399] lstm1_transform_1 -> W_hc_h_0
I0802 08:18:22.248997  5712 net.cpp:141] Setting up fc6
I0802 08:18:22.249053  5712 net.cpp:148] Top shape: 10 4096 (40960)
I0802 08:18:22.249060  5712 net.cpp:156] Memory required for data: 67782200
I0802 08:18:22.249078  5712 layer_factory.hpp:77] Creating layer relu6
I0802 08:18:22.249100  5712 net.cpp:91] Creating Layer relu6
I0802 08:18:22.249109  5712 net.cpp:425] relu6 <- fc6
I0802 08:18:22.249119  5712 net.cpp:386] relu6 -> fc6 (in-place)
I0802 08:18:22.249510  5712 net.cpp:141] Setting up relu6
I0802 08:18:22.249523  5712 net.cpp:148] Top shape: 10 4096 (40960)
I0802 08:18:22.249528  5712 net.cpp:156] Memory required for data: 67946040
I0802 08:18:22.249534  5712 layer_factory.hpp:77] Creating layer drop6
I0802 08:18:22.249555  5712 net.cpp:91] Creating Layer drop6
I0802 08:18:22.249562  5712 net.cpp:425] drop6 <- fc6
I0802 08:18:22.249573  5712 net.cpp:386] drop6 -> fc6 (in-place)
I0802 08:18:22.249626  5712 net.cpp:141] Setting up drop6
I0802 08:18:22.249636  5712 net.cpp:148] Top shape: 10 4096 (40960)
I0802 08:18:22.249644  5712 net.cpp:156] Memory required for data: 68109880
I0802 08:18:22.249650  5712 layer_factory.hpp:77] Creating layer fc7
I0802 08:18:22.249662  5712 net.cpp:91] Creating Layer fc7
I0802 08:18:22.249667  5712 net.cpp:425] fc7 <- fc6
I0802 08:18:22.249675  5712 net.cpp:399] fc7 -> fc7
I0802 08:18:22.281085  5702 net.cpp:141] Setting up lstm1_transform_1
I0802 08:18:22.281141  5702 net.cpp:148] Top shape: 1 1 4000 (4000)
I0802 08:18:22.281147  5702 net.cpp:156] Memory required for data: 62016
I0802 08:18:22.281173  5702 layer_factory.hpp:77] Creating layer lstm1_gate_input_1
I0802 08:18:22.281208  5702 net.cpp:91] Creating Layer lstm1_gate_input_1
I0802 08:18:22.281216  5702 net.cpp:425] lstm1_gate_input_1 <- W_hc_h_0
I0802 08:18:22.281226  5702 net.cpp:425] lstm1_gate_input_1 <- W_xc_x_1
I0802 08:18:22.281235  5702 net.cpp:399] lstm1_gate_input_1 -> gate_input_1
I0802 08:18:22.281309  5702 net.cpp:141] Setting up lstm1_gate_input_1
I0802 08:18:22.281321  5702 net.cpp:148] Top shape: 1 1 4000 (4000)
I0802 08:18:22.281325  5702 net.cpp:156] Memory required for data: 78016
I0802 08:18:22.281330  5702 layer_factory.hpp:77] Creating layer lstm1_unit_1
I0802 08:18:22.281342  5702 net.cpp:91] Creating Layer lstm1_unit_1
I0802 08:18:22.281347  5702 net.cpp:425] lstm1_unit_1 <- c_0
I0802 08:18:22.281354  5702 net.cpp:425] lstm1_unit_1 <- gate_input_1
I0802 08:18:22.281360  5702 net.cpp:425] lstm1_unit_1 <- cont_1_lstm1_cont_slice_0_split_1
I0802 08:18:22.281373  5702 net.cpp:399] lstm1_unit_1 -> c_1
I0802 08:18:22.281384  5702 net.cpp:399] lstm1_unit_1 -> h_1
I0802 08:18:22.281455  5702 net.cpp:141] Setting up lstm1_unit_1
I0802 08:18:22.281466  5702 net.cpp:148] Top shape: 1 1 1000 (1000)
I0802 08:18:22.281473  5702 net.cpp:148] Top shape: 1 1 1000 (1000)
I0802 08:18:22.281477  5702 net.cpp:156] Memory required for data: 86016
I0802 08:18:22.281483  5702 layer_factory.hpp:77] Creating layer lstm1_
I0802 08:18:22.281492  5702 net.cpp:91] Creating Layer lstm1_
I0802 08:18:22.281498  5702 net.cpp:425] lstm1_ <- c_1
I0802 08:18:22.281507  5702 net.cpp:399] lstm1_ -> c_T
I0802 08:18:22.281544  5702 net.cpp:141] Setting up lstm1_
I0802 08:18:22.281554  5702 net.cpp:148] Top shape: 1 1 1000 (1000)
I0802 08:18:22.281558  5702 net.cpp:156] Memory required for data: 90016
I0802 08:18:22.281564  5702 layer_factory.hpp:77] Creating layer lstm1_h_concat
I0802 08:18:22.281575  5702 net.cpp:91] Creating Layer lstm1_h_concat
I0802 08:18:22.281580  5702 net.cpp:425] lstm1_h_concat <- h_1
I0802 08:18:22.281589  5702 net.cpp:399] lstm1_h_concat -> h
I0802 08:18:22.281630  5702 net.cpp:141] Setting up lstm1_h_concat
I0802 08:18:22.281641  5702 net.cpp:148] Top shape: 1 1 1000 (1000)
I0802 08:18:22.281646  5702 net.cpp:156] Memory required for data: 94016
I0802 08:18:22.281651  5702 layer_factory.hpp:77] Creating layer h_pseudoloss
I0802 08:18:22.281666  5702 net.cpp:91] Creating Layer h_pseudoloss
I0802 08:18:22.281672  5702 net.cpp:425] h_pseudoloss <- h
I0802 08:18:22.281678  5702 net.cpp:399] h_pseudoloss -> h_pseudoloss
I0802 08:18:22.281785  5702 net.cpp:141] Setting up h_pseudoloss
…
I0802 08:18:22.281944  5702 net.cpp:219] lstm1_ does not need backward computation.
I0802 08:18:22.281947  5702 net.cpp:261] This network produces output c_T
I0802 08:18:22.281954  5702 net.cpp:261] This network produces output h_pseudoloss
I0802 08:18:22.281973  5702 net.cpp:274] Network initialization done.
I0802 08:18:22.282042  5702 recurrent_layer.cpp:150] Adding parameter 0: W_xc
I0802 08:18:22.282049  5702 recurrent_layer.cpp:150] Adding parameter 1: b_c
I0802 08:18:22.282054  5702 recurrent_layer.cpp:150] Adding parameter 2: W_hc
I0802 08:18:22.282187  5702 net.cpp:141] Setting up lstm1
I0802 08:18:22.282202  5702 net.cpp:148] Top shape: 1 1 1000 (1000)
I0802 08:18:22.282208  5702 net.cpp:156] Memory required for data: 26408
I0802 08:18:22.282224  5702 layer_factory.hpp:77] Creating layer concat
I0802 08:18:22.282239  5702 net.cpp:91] Creating Layer concat
I0802 08:18:22.282253  5702 net.cpp:425] concat <- lstm1
I0802 08:18:22.282265  5702 net.cpp:425] concat <- embedded_input_sentence
I0802 08:18:22.282276  5702 net.cpp:425] concat <- reshaped_stage_indicator
I0802 08:18:22.282291  5702 net.cpp:399] concat -> lstm1_video_sequence
I0802 08:18:22.282351  5702 net.cpp:141] Setting up concat
I0802 08:18:22.282371  5702 net.cpp:148] Top shape: 1 1 1501 (1501)
I0802 08:18:22.282380  5702 net.cpp:156] Memory required for data: 32412
I0802 08:18:22.282390  5702 layer_factory.hpp:77] Creating layer lstm2
I0802 08:18:22.282410  5702 net.cpp:91] Creating Layer lstm2
I0802 08:18:22.282423  5702 net.cpp:425] lstm2 <- lstm1_video_sequence
I0802 08:18:22.282434  5702 net.cpp:425] lstm2 <- cont_sentence_input_1_split_1
I0802 08:18:22.282449  5702 net.cpp:399] lstm2 -> lstm2
I0802 08:18:22.282469  5702 recurrent_layer.cpp:20] Initializing recurrent layer: assuming input batch contains 1 timesteps of 1 independent streams.
I0802 08:18:22.282821  5702 net.cpp:49] Initializing net from parameters: 
layer {
  name: "lstm2_"
  type: "Input"
  top: "x"
  top: "cont"
  input_param {
    shape {
      dim: 1
      dim: 1
      dim: 1501
    }
    shape {
      dim: 1
      dim: 1
    }
  }
}
layer {
  name: "lstm2_"
  type: "Input"
  top: "c_0"
  top: "h_0"
  input_param {
    shape {
      dim: 1
      dim: 1
      dim: 1000
    }
    shape {
      dim: 1
      dim: 1
      dim: 1000
    }
  }
}
layer {
  name: "lstm2_cont_slice"
  type: "Slice"
  bottom: "cont"
  top: "cont_1"
  slice_param {
    axis: 0
  }
}
layer {
  name: "lstm2_x_transform"
  type: "InnerProduct"
  bottom: "x"
  top: "W_xc_x"
  param {
    name: "W_xc"
  }
  param {
    name: "b_c"
  }
  propagate_down: true
  inner_product_param {
    num_output: 4000
    bias_term: true
    weight_filler {
      type: "uniform"
      min: -0.08
      max: 0.08
    }
    bias_filler {
      type: "constant"
      value: 0
    }
    axis: 2
  }
}
layer {
  name: "lstm2_W_xc_x_slice"
  type: "Slice"
  bottom: "W_xc_x"
  top: "W_xc_x_1"
  slice_param {
    axis: 0
  }
}
layer {
  name: "lstm2_h_conted_0"
  type: "Scale"
  bottom: "h_0"
  bottom: "cont_1"
  top: "h_conted_0"
  scale_param {
    axis: 0
  }
}
layer {
  name: "lstm2_transform_1"
  type: "InnerProduct"
  bottom: "h_conted_0"
  top: "W_hc_h_0"
  param {
    name: "W_hc"
  }
  inner_product_param {
    num_output: 4000
    bias_term: false
    weight_filler {
      type: "uniform"
      min: -0.08
      max: 0.08
    }
    axis: 2
  }
}
layer {
  name: "lstm2_gate_input_1"
  type: "Eltwise"
  bottom: "W_hc_h_0"
  bottom: "W_xc_x_1"
  top: "gate_input_1"
  eltwise_param {
    operation: SUM
  }
}
layer {
  name: "lstm2_unit_1"
  type: "LSTMUnit"
  bottom: "c_0"
  bottom: "gate_input_1"
  bottom: "cont_1"
  top: "c_1"
  top: "h_1"
}
layer {
  name: "lstm2_"
  type: "Split"
  bottom: "c_1"
  top: "c_T"
}
layer {
  name: "lstm2_h_concat"
  type: "Concat"
  bottom: "h_1"
  top: "h"
  concat_param {
    axis: 0
  }
}
layer {
  name: "h_pseudoloss"
  type: "Reduction"
  bottom: "h"
  top: "h_pseudoloss"
  loss_weight: 1
}
I0802 08:18:22.282922  5702 layer_factory.hpp:77] Creating layer lstm2_
I0802 08:18:22.282937  5702 net.cpp:91] Creating Layer lstm2_
I0802 08:18:22.282943  5702 net.cpp:399] lstm2_ -> x
I0802 08:18:22.282955  5702 net.cpp:399] lstm2_ -> cont
I0802 08:18:22.283016  5702 net.cpp:141] Setting up lstm2_
I0802 08:18:22.283027  5702 net.cpp:148] Top shape: 1 1 1501 (1501)
I0802 08:18:22.283035  5702 net.cpp:148] Top shape: 1 1 (1)
I0802 08:18:22.283040  5702 net.cpp:156] Memory required for data: 6008
I0802 08:18:22.283044  5702 layer_factory.hpp:77] Creating layer lstm2_
I0802 08:18:22.283054  5702 net.cpp:91] Creating Layer lstm2_
I0802 08:18:22.283066  5702 net.cpp:399] lstm2_ -> c_0
I0802 08:18:22.283078  5702 net.cpp:399] lstm2_ -> h_0
I0802 08:18:22.283134  5702 net.cpp:141] Setting up lstm2_
I0802 08:18:22.283145  5702 net.cpp:148] Top shape: 1 1 1000 (1000)
I0802 08:18:22.283152  5702 net.cpp:148] Top shape: 1 1 1000 (1000)
I0802 08:18:22.283156  5702 net.cpp:156] Memory required for data: 14008
I0802 08:18:22.283161  5702 layer_factory.hpp:77] Creating layer lstm2_cont_slice
I0802 08:18:22.283171  5702 net.cpp:91] Creating Layer lstm2_cont_slice
I0802 08:18:22.283177  5702 net.cpp:425] lstm2_cont_slice <- cont
I0802 08:18:22.283185  5702 net.cpp:399] lstm2_cont_slice -> cont_1
I0802 08:18:22.283221  5702 net.cpp:141] Setting up lstm2_cont_slice
I0802 08:18:22.283231  5702 net.cpp:148] Top shape: 1 1 (1)
I0802 08:18:22.283236  5702 net.cpp:156] Memory required for data: 14012
I0802 08:18:22.283241  5702 layer_factory.hpp:77] Creating layer cont_1_lstm2_cont_slice_0_split
I0802 08:18:22.283253  5702 net.cpp:91] Creating Layer cont_1_lstm2_cont_slice_0_split
I0802 08:18:22.283258  5702 net.cpp:425] cont_1_lstm2_cont_slice_0_split <- cont_1
I0802 08:18:22.283267  5702 net.cpp:399] cont_1_lstm2_cont_slice_0_split -> cont_1_lstm2_cont_slice_0_split_0
I0802 08:18:22.283275  5702 net.cpp:399] cont_1_lstm2_cont_slice_0_split -> cont_1_lstm2_cont_slice_0_split_1
I0802 08:18:22.283350  5702 net.cpp:141] Setting up cont_1_lstm2_cont_slice_0_split
I0802 08:18:22.283370  5702 net.cpp:148] Top shape: 1 1 (1)
I0802 08:18:22.283377  5702 net.cpp:148] Top shape: 1 1 (1)
I0802 08:18:22.283382  5702 net.cpp:156] Memory required for data: 14020
I0802 08:18:22.283387  5702 layer_factory.hpp:77] Creating layer lstm2_x_transform
I0802 08:18:22.283401  5702 net.cpp:91] Creating Layer lstm2_x_transform
I0802 08:18:22.283407  5702 net.cpp:425] lstm2_x_transform <- x
I0802 08:18:22.283417  5702 net.cpp:399] lstm2_x_transform -> W_xc_x
I0802 08:18:22.304126  5712 net.cpp:141] Setting up fc7
I0802 08:18:22.304175  5712 net.cpp:148] Top shape: 10 4096 (40960)
I0802 08:18:22.304182  5712 net.cpp:156] Memory required for data: 68273720
I0802 08:18:22.304198  5712 layer_factory.hpp:77] Creating layer relu7
I0802 08:18:22.304217  5712 net.cpp:91] Creating Layer relu7
I0802 08:18:22.304224  5712 net.cpp:425] relu7 <- fc7
I0802 08:18:22.304235  5712 net.cpp:386] relu7 -> fc7 (in-place)
I0802 08:18:22.305023  5712 net.cpp:141] Setting up relu7
I0802 08:18:22.305035  5712 net.cpp:148] Top shape: 10 4096 (40960)
I0802 08:18:22.305040  5712 net.cpp:156] Memory required for data: 68437560
I0802 08:18:22.305045  5712 layer_factory.hpp:77] Creating layer drop7
I0802 08:18:22.305057  5712 net.cpp:91] Creating Layer drop7
I0802 08:18:22.305060  5712 net.cpp:425] drop7 <- fc7
I0802 08:18:22.305073  5712 net.cpp:386] drop7 -> fc7 (in-place)
I0802 08:18:22.305109  5712 net.cpp:141] Setting up drop7
I0802 08:18:22.305117  5712 net.cpp:148] Top shape: 10 4096 (40960)
I0802 08:18:22.305121  5712 net.cpp:156] Memory required for data: 68601400
I0802 08:18:22.305126  5712 layer_factory.hpp:77] Creating layer fc8
I0802 08:18:22.305140  5712 net.cpp:91] Creating Layer fc8
I0802 08:18:22.305145  5712 net.cpp:425] fc8 <- fc7
I0802 08:18:22.305152  5712 net.cpp:399] fc8 -> fc8
I0802 08:18:22.315965  5712 net.cpp:141] Setting up fc8
I0802 08:18:22.316052  5712 net.cpp:148] Top shape: 10 1000 (10000)
I0802 08:18:22.316058  5712 net.cpp:156] Memory required for data: 68641400
I0802 08:18:22.316074  5712 layer_factory.hpp:77] Creating layer prob
I0802 08:18:22.316092  5712 net.cpp:91] Creating Layer prob
I0802 08:18:22.316099  5712 net.cpp:425] prob <- fc8
I0802 08:18:22.316118  5712 net.cpp:399] prob -> prob
I0802 08:18:22.316527  5712 net.cpp:141] Setting up prob
I0802 08:18:22.316540  5712 net.cpp:148] Top shape: 10 1000 (10000)
I0802 08:18:22.316545  5712 net.cpp:156] Memory required for data: 68681400
I0802 08:18:22.316550  5712 net.cpp:219] prob does not need backward computation.
I0802 08:18:22.316555  5712 net.cpp:219] fc8 does not need backward computation.
I0802 08:18:22.316560  5712 net.cpp:219] drop7 does not need backward computation.
I0802 08:18:22.316563  5712 net.cpp:219] relu7 does not need backward computation.
…
I0802 08:18:22.316632  5712 net.cpp:219] norm1 does not need backward computation.
I0802 08:18:22.316637  5712 net.cpp:219] pool1 does not need backward computation.
I0802 08:18:22.316642  5712 net.cpp:219] relu1 does not need backward computation.
I0802 08:18:22.316646  5712 net.cpp:219] conv1 does not need backward computation.
I0802 08:18:22.316650  5712 net.cpp:219] data does not need backward computation.
I0802 08:18:22.316654  5712 net.cpp:261] This network produces output prob
I0802 08:18:22.316673  5712 net.cpp:274] Network initialization done.
I0802 08:18:22.349280  5702 net.cpp:141] Setting up lstm2_x_transform
I0802 08:18:22.349337  5702 net.cpp:148] Top shape: 1 1 4000 (4000)
I0802 08:18:22.349345  5702 net.cpp:156] Memory required for data: 30020
I0802 08:18:22.349370  5702 layer_factory.hpp:77] Creating layer lstm2_W_xc_x_slice
I0802 08:18:22.349393  5702 net.cpp:91] Creating Layer lstm2_W_xc_x_slice
I0802 08:18:22.349401  5702 net.cpp:425] lstm2_W_xc_x_slice <- W_xc_x
I0802 08:18:22.349413  5702 net.cpp:399] lstm2_W_xc_x_slice -> W_xc_x_1
I0802 08:18:22.349473  5702 net.cpp:141] Setting up lstm2_W_xc_x_slice
I0802 08:18:22.349485  5702 net.cpp:148] Top shape: 1 1 4000 (4000)
I0802 08:18:22.349490  5702 net.cpp:156] Memory required for data: 46020
I0802 08:18:22.349495  5702 layer_factory.hpp:77] Creating layer lstm2_h_conted_0
I0802 08:18:22.349512  5702 net.cpp:91] Creating Layer lstm2_h_conted_0
I0802 08:18:22.349519  5702 net.cpp:425] lstm2_h_conted_0 <- h_0
I0802 08:18:22.349526  5702 net.cpp:425] lstm2_h_conted_0 <- cont_1_lstm2_cont_slice_0_split_0
I0802 08:18:22.349534  5702 net.cpp:399] lstm2_h_conted_0 -> h_conted_0
I0802 08:18:22.350107  5702 net.cpp:141] Setting up lstm2_h_conted_0
I0802 08:18:22.350128  5702 net.cpp:148] Top shape: 1 1 1000 (1000)
I0802 08:18:22.350134  5702 net.cpp:156] Memory required for data: 50020
I0802 08:18:22.350139  5702 layer_factory.hpp:77] Creating layer lstm2_transform_1
I0802 08:18:22.350159  5702 net.cpp:91] Creating Layer lstm2_transform_1
I0802 08:18:22.350167  5702 net.cpp:425] lstm2_transform_1 <- h_conted_0
I0802 08:18:22.350177  5702 net.cpp:399] lstm2_transform_1 -> W_hc_h_0
I0802 08:18:22.392477  5702 net.cpp:141] Setting up lstm2_transform_1
I0802 08:18:22.392529  5702 net.cpp:148] Top shape: 1 1 4000 (4000)
I0802 08:18:22.392535  5702 net.cpp:156] Memory required for data: 66020
I0802 08:18:22.392556  5702 layer_factory.hpp:77] Creating layer lstm2_gate_input_1
I0802 08:18:22.392578  5702 net.cpp:91] Creating Layer lstm2_gate_input_1
I0802 08:18:22.392586  5702 net.cpp:425] lstm2_gate_input_1 <- W_hc_h_0
I0802 08:18:22.392596  5702 net.cpp:425] lstm2_gate_input_1 <- W_xc_x_1
I0802 08:18:22.392608  5702 net.cpp:399] lstm2_gate_input_1 -> gate_input_1
I0802 08:18:22.392673  5702 net.cpp:141] Setting up lstm2_gate_input_1
I0802 08:18:22.392683  5702 net.cpp:148] Top shape: 1 1 4000 (4000)
I0802 08:18:22.392688  5702 net.cpp:156] Memory required for data: 82020
I0802 08:18:22.392693  5702 layer_factory.hpp:77] Creating layer lstm2_unit_1
I0802 08:18:22.392707  5702 net.cpp:91] Creating Layer lstm2_unit_1
I0802 08:18:22.392714  5702 net.cpp:425] lstm2_unit_1 <- c_0
I0802 08:18:22.392720  5702 net.cpp:425] lstm2_unit_1 <- gate_input_1
I0802 08:18:22.392726  5702 net.cpp:425] lstm2_unit_1 <- cont_1_lstm2_cont_slice_0_split_1
I0802 08:18:22.392735  5702 net.cpp:399] lstm2_unit_1 -> c_1
I0802 08:18:22.392745  5702 net.cpp:399] lstm2_unit_1 -> h_1
I0802 08:18:22.392817  5702 net.cpp:141] Setting up lstm2_unit_1
I0802 08:18:22.392827  5702 net.cpp:148] Top shape: 1 1 1000 (1000)
I0802 08:18:22.392834  5702 net.cpp:148] Top shape: 1 1 1000 (1000)
I0802 08:18:22.392838  5702 net.cpp:156] Memory required for data: 90020
I0802 08:18:22.392844  5702 layer_factory.hpp:77] Creating layer lstm2_
I0802 08:18:22.392853  5702 net.cpp:91] Creating Layer lstm2_
I0802 08:18:22.392859  5702 net.cpp:425] lstm2_ <- c_1
I0802 08:18:22.392870  5702 net.cpp:399] lstm2_ -> c_T
I0802 08:18:22.392904  5702 net.cpp:141] Setting up lstm2_
I0802 08:18:22.392915  5702 net.cpp:148] Top shape: 1 1 1000 (1000)
I0802 08:18:22.392920  5702 net.cpp:156] Memory required for data: 94020
I0802 08:18:22.392925  5702 layer_factory.hpp:77] Creating layer lstm2_h_concat
I0802 08:18:22.392935  5702 net.cpp:91] Creating Layer lstm2_h_concat
I0802 08:18:22.392940  5702 net.cpp:425] lstm2_h_concat <- h_1
I0802 08:18:22.392948  5702 net.cpp:399] lstm2_h_concat -> h
I0802 08:18:22.392989  5702 net.cpp:141] Setting up lstm2_h_concat
I0802 08:18:22.392999  5702 net.cpp:148] Top shape: 1 1 1000 (1000)
I0802 08:18:22.393004  5702 net.cpp:156] Memory required for data: 98020
I0802 08:18:22.393009  5702 layer_factory.hpp:77] Creating layer h_pseudoloss
I0802 08:18:22.393020  5702 net.cpp:91] Creating Layer h_pseudoloss
I0802 08:18:22.393025  5702 net.cpp:425] h_pseudoloss <- h
I0802 08:18:22.393033  5702 net.cpp:399] h_pseudoloss -> h_pseudoloss
I0802 08:18:22.393141  5702 net.cpp:141] Setting up h_pseudoloss
…
