…
Java HotSpot(TM) 64-Bit Server VM warning: You have loaded library /tmp/cvld3109718415486538421/libopencv_java310.xine1.so which might have disabled stack guard. The VM will try to fix the stack guard now.
It's highly recommended that you fix the library with 'execstack -c <libfile>', or link it with '-z noexecstack'.
WARNING: Logging before InitGoogleLogging() is written to STDERR
I0714 21:40:15.736392  4802 net.cpp:49] Initializing net from parameters: 
name: "GoogleNet"
state {
  phase: TEST
}
layer {
  name: "data"
  type: "Input"
  top: "data"
  input_param {
    shape {
      dim: 10
      dim: 3
      dim: 224
      dim: 224
    }
  }
}
layer {
  name: "conv1/7x7_s2"
  type: "Convolution"
  bottom: "data"
  top: "conv1/7x7_s2"
  param {
    lr_mult: 1
    decay_mult: 1
  }
  param {
    lr_mult: 2
    decay_mult: 0
  }
  convolution_param {
    num_output: 64
    pad: 3
    kernel_size: 7
    stride: 2
    weight_filler {
      type: "xavier"
      std: 0.1
    }
    bias_filler {
      type: "constant"
      value: 0.2
    }
  }
}
layer {
  name: "conv1/relu_7x7"
  type: "ReLU"
  bottom: "conv1/7x7_s2"
  top: "conv1/7x7_s2"
}
layer {
  name: "pool1/3x3_s2"
  type: "Pooling"
  bottom: "conv1/7x7_s2"
  top: "pool1/3x3_s2"
  pooling_param {
    pool: MAX
    kernel_size: 3
    stride: 2
  }
}
layer {
  name: "pool1/norm1"
  type: "LRN"
  bottom: "pool1/3x3_s2"
  top: "pool1/norm1"
  lrn_param {
    local_size: 5
    alpha: 0.0001
    beta: 0.75
  }
}
layer {
  name: "conv2/3x3_reduce"
  type: "Convolution"
  bottom: "pool1/norm1"
  top: "conv2/3x3_reduce"
  param {
    lr_mult: 1
    decay_mult: 1
  }
  param {
    lr_mult: 2
    decay_mult: 0
  }
  convolution_param {
    num_output: 64
    kernel_size: 1
    weight_filler {
      type: "xavier"
      std: 0.1
    }
    bias_filler {
      type: "constant"
      value: 0.2
    }
  }
}
layer {
  name: "conv2/relu_3x3_reduce"
  type: "ReLU"
  bottom: "conv2/3x3_reduce"
  top: "conv2/3x3_reduce"
}
layer {
  name: "conv2/3x3"
  type: "Convolution"
  bottom: "conv2/3x3_reduce"
  top: "conv2/3x3"
  param {
    lr_mult: 1
    decay_mult: 1
  }
  param {
    lr_mult: 2
    decay_mult: 0
  }
  convolution_param {
    num_output: 192
    pad: 1
    kernel_size: 3
    weight_filler {
      type: "xavier"
      std: 0.03
    }
    bias_filler {
      type: "constant"
      value: 0.2
    }
  }
}
layer {
  name: "conv2/relu_3x3"
  type: "ReLU"
  bottom: "conv2/3x3"
  top: "conv2/3x3"
}
layer {
  name: "conv2/norm2"
  type: "LRN"
  bottom: "conv2/3x3"
  top: "conv2/norm2"
  lrn_param {
    local_size: 5
    alpha: 0.0001
    beta: 0.75
  }
}
layer {
  name: "pool2/3x3_s2"
  type: "Pooling"
  bottom: "conv2/norm2"
  top: "pool2/3x3_s2"
  pooling_param {
    pool: MAX
    kernel_size: 3
    stride: 2
  }
}
layer {
  name: "inception_3a/1x1"
  type: "Convolution"
  bottom: "pool2/3x3_s2"
  top: "inception_3a/1x1"
  param {
    lr_mult: 1
    decay_mult: 1
  }
  param {
    lr_mult: 2
    decay_mult: 0
  }
  convolution_param {
    num_output: 64
    kernel_size: 1
    weight_filler {
      type: "xavier"
      std: 0.03
    }
    bias_filler {
      type: "constant"
      value: 0.2
    }
  }
}
layer {
  name: "inception_3a/relu_1x1"
  type: "ReLU"
  bottom: "inception_3a/1x1"
  top: "inception_3a/1x1"
}
layer {
  name: "inception_3a/3x3_reduce"
  type: "Convolution"
  bottom: "pool2/3x3_s2"
  top: "inception_3a/3x3_reduce"
  param {
    lr_mult: 1
    decay_mult: 1
  }
  param {
    lr_mult: 2
    decay_mult: 0
  }
  convolution_param {
    num_output: 96
    kernel_size: 1
    weight_filler {
      type: "xavier"
      std: 0.09
    }
    bias_filler {
      type: "constant"
      value: 0.2
    }
  }
}
layer {
  name: "inception_3a/relu_3x3_reduce"
  type: "ReLU"
  bottom: "inception_3a/3x3_reduce"
  top: "inception_3a/3x3_reduce"
}
layer {
  name: "inception_3a/3x3"
  type: "Convolution"
  bottom: "inception_3a/3x3_reduce"
  top: "inception_3a/3x3"
  param {
    lr_mult: 1
    decay_mult: 1
  }
  param {
    lr_mult: 2
    decay_mult: 0
  }
  convolution_param {
    num_output: 128
    pad: 1
    kernel_size: 3
    weight_filler {
      type: "xavier"
      std: 0.03
    }
    bias_filler {
      type: "constant"
      value: 0.2
    }
  }
}
layer {
  name: "inception_3a/relu_3x3"
  type: "ReLU"
  bottom: "inception_3a/3x3"
  top: "inception_3a/3x3"
}
layer {
  name: "inception_3a/5x5_reduce"
  type: "Convolution"
  bottom: "pool2/3x3_s2"
  top: "inception_3a/5x5_reduce"
  param {
    lr_mult: 1
    decay_mult: 1
  }
  param {
    lr_mult: 2
    decay_mult: 0
  }
  convolution_param {
    num_output: 16
    kernel_size: 1
    weight_filler {
      type: "xavier"
      std: 0.2
    }
    bias_filler {
      type: "constant"
      value: 0.2
    }
  }
}
layer {
  name: "inception_3a/relu_5x5_reduce"
  type: "ReLU"
  bottom: "inception_3a/5x5_reduce"
  top: "inception_3a/5x5_reduce"
}
layer {
  name: "inception_3a/5x5"
  type: "Convolution"
  bottom: "inception_3a/5x5_reduce"
  top: "inception_3a/5x5"
  param {
    lr_mult: 1
    decay_mult: 1
  }
  param {
    lr_mult: 2
    decay_mult: 0
  }
  convolution_param {
    num_output: 32
    pad: 2
    kernel_size: 5
    weight_filler {
      type: "xavier"
      std: 0.03
    }
    bias_filler {
      type: "constant"
      value: 0.2
    }
  }
}
layer {
  name: "inception_3a/relu_5x5"
  type: "ReLU"
  bottom: "inception_3a/5x5"
  top: "inception_3a/5x5"
}
layer {
  name: "inception_3a/pool"
  type: "Pooling"
  bottom: "pool2/3x3_s2"
  top: "inception_3a/pool"
  pooling_param {
    pool: MAX
    kernel_size: 3
    stride: 1
    pad: 1
  }
}
layer {
  name: "inception_3a/pool_proj"
  type: "Convolution"
  bottom: "inception_3a/pool"
  top: "inception_3a/pool_proj"
  param {
    lr_mult: 1
    decay_mult: 1
  }
  param {
    lr_mult: 2
    decay_mult: 0
  }
  convolution_param {
    num_output: 32
    kernel_size: 1
    weight_filler {
      type: "xavier"
      std: 0.1
    }
    bias_filler {
      type: "constant"
      value: 0.2
    }
  }
}
layer {
  name: "inception_3a/relu_pool_proj"
  type: "ReLU"
  bottom: "inception_3a/pool_proj"
  top: "inception_3a/pool_proj"
}
layer {
  name: "inception_3a/output"
  type: "Concat"
  bottom: "inception_3a/1x1"
  bottom: "inception_3a/3x3"
  bottom: "inception_3a/5x5"
  bottom: "inception_3a/pool_proj"
  top: "inception_3a/output"
}
layer {
  name: "inception_3b/1x1"
  type: "Convolution"
  bottom: "inception_3a/output"
  top: "inception_3b/1x1"
  param {
    lr_mult: 1
    decay_mult: 1
  }
  param {
    lr_mult: 2
    decay_mult: 0
  }
  convolution_param {
    num_output: 128
    kernel_size: 1
    weight_filler {
      type: "xavier"
      std: 0.03
    }
    bias_filler {
      type: "constant"
      value: 0.2
    }
  }
}
layer {
  name: "inception_3b/relu_1x1"
  type: "ReLU"
  bottom: "inception_3b/1x1"
  top: "inception_3b/1x1"
}
layer {
  name: "inception_3b/3x3_reduce"
  type: "Convolution"
  bottom: "inception_3a/output"
  top: "inception_3b/3x3_reduce"
  param {
    lr_mult: 1
    decay_mult: 1
  }
  param {
    lr_mult: 2
    decay_mult: 0
  }
  convolution_param {
    num_output: 128
    kernel_size: 1
    weight_filler {
      type: "xavier"
      std: 0.09
    }
    bias_filler {
      type: "constant"
      value: 0.2
    }
  }
}
layer {
  name: "inception_3b/relu_3x3_reduce"
  type: "ReLU"
  bottom: "inception_3b/3x3_reduce"
  top: "inception_3b/3x3_reduce"
}
layer {
  name: "inception_3b/3x3"
  type: "Convolution"
  bottom: "inception_3b/3x3_reduce"
  top: "inception_3b/3x3"
  param {
    lr_mult: 1
    decay_mult: 1
  }
  param {
    lr_mult: 2
    decay_mult: 0
  }
  convolution_param {
    num_output: 192
    pad: 1
    kernel_size: 3
    weight_filler {
      type: "xavier"
      std: 0.03
    }
    bias_filler {
      type: "constant"
      value: 0.2
    }
  }
}
layer {
  name: "inception_3b/relu_3x3"
  type: "ReLU"
  bottom: "inception_3b/3x3"
  top: "inception_3b/3x3"
}
layer {
  name: "inception_3b/5x5_reduce"
  type: "Convolution"
  bottom: "inception_3a/output"
  top: "inception_3b/5x5_reduce"
  param {
    lr_mult: 1
    decay_mult: 1
  }
  param {
    lr_mult: 2
    decay_mult: 0
  }
  convolution_param {
    num_output: 32
    kernel_size: 1
    weight_filler {
      type: "xavier"
      std: 0.2
    }
    bias_filler {
      type: "constant"
      value: 0.2
    }
  }
}
layer {
  name: "inception_3b/relu_5x5_reduce"
  type: "ReLU"
  bottom: "inception_3b/5x5_reduce"
  top: "inception_3b/5x5_reduce"
}
layer {
  name: "inception_3b/5x5"
  type: "Convolution"
  bottom: "inception_3b/5x5_reduce"
  top: "inception_3b/5x5"
  param {
    lr_mult: 1
    decay_mult: 1
  }
  param {
    lr_mult: 2
    decay_mult: 0
  }
  convolution_param {
    num_output: 96
    pad: 2
    kernel_size: 5
    weight_filler {
      type: "xavier"
      std: 0.03
    }
    bias_filler {
      type: "constant"
      value: 0.2
    }
  }
}
layer {
  name: "inception_3b/relu_5x5"
  type: "ReLU"
  bottom: "inception_3b/5x5"
  top: "inception_3b/5x5"
}
layer {
  name: "inception_3b/pool"
  type: "Pooling"
  bottom: "inception_3a/output"
  top: "inception_3b/pool"
  pooling_param {
    pool: MAX
    kernel_size: 3
    stride: 1
    pad: 1
  }
}
layer {
  name: "inception_3b/pool_proj"
  type: "Convolution"
  bottom: "inception_3b/pool"
  top: "inception_3b/pool_proj"
  param {
    lr_mult: 1
    decay_mult: 1
  }
  param {
    lr_mult: 2
    decay_mult: 0
  }
  convolution_param {
    num_output: 64
    kernel_size: 1
    weight_filler {
      type: "xavier"
      std: 0.1
    }
    bias_filler {
      type: "constant"
      value: 0.2
    }
  }
}
layer {
  name: "inception_3b/relu_pool_proj"
  type: "ReLU"
  bottom: "inception_3b/pool_proj"
  top: "inception_3b/pool_proj"
}
layer {
  name: "inception_3b/output"
  type: "Concat"
  bottom: "inception_3b/1x1"
  bottom: "inception_3b/3x3"
  bottom: "inception_3b/5x5"
  bottom: "inception_3b/pool_proj"
  top: "inception_3b/output"
}
layer {
  name: "pool3/3x3_s2"
  type: "Pooling"
  bottom: "inception_3b/output"
  top: "pool3/3x3_s2"
  pooling_param {
    pool: MAX
    kernel_size: 3
    stride: 2
  }
}
layer {
  name: "inception_4a/1x1"
  type: "Convolution"
  bottom: "pool3/3x3_s2"
  top: "inception_4a/1x1"
  param {
    lr_mult: 1
    decay_mult: 1
  }
  param {
    lr_mult: 2
    decay_mult: 0
  }
  convolution_param {
    num_output: 192
    kernel_size: 1
    weight_filler {
      type: "xavier"
      std: 0.03
    }
    bias_filler {
      type: "constant"
      value: 0.2
    }
  }
}
layer {
  name: "inception_4a/relu_1x1"
  type: "ReLU"
  bottom: "inception_4a/1x1"
  top: "inception_4a/1x1"
}
layer {
  name: "inception_4a/3x3_reduce"
  type: "Convolution"
  bottom: "pool3/3x3_s2"
  top: "inception_4a/3x3_reduce"
  param {
    lr_mult: 1
    decay_mult: 1
  }
  param {
    lr_mult: 2
    decay_mult: 0
  }
  convolution_param {
    num_output: 96
    kernel_size: 1
    weight_filler {
      type: "xavier"
      std: 0.09
    }
    bias_filler {
      type: "constant"
      value: 0.2
    }
  }
}
layer {
  name: "inception_4a/relu_3x3_reduce"
  type: "ReLU"
  bottom: "inception_4a/3x3_reduce"
  top: "inception_4a/3x3_reduce"
}
layer {
  name: "inception_4a/3x3"
  type: "Convolution"
  bottom: "inception_4a/3x3_reduce"
  top: "inception_4a/3x3"
  param {
    lr_mult: 1
    decay_mult: 1
  }
  param {
    lr_mult: 2
    decay_mult: 0
  }
  convolution_param {
    num_output: 208
    pad: 1
    kernel_size: 3
    weight_filler {
      type: "xavier"
      std: 0.03
    }
    bias_filler {
      type: "constant"
      value: 0.2
    }
  }
}
layer {
  name: "inception_4a/relu_3x3"
  type: "ReLU"
  bottom: "inception_4a/3x3"
  top: "inception_4a/3x3"
}
layer {
  name: "inception_4a/5x5_reduce"
  type: "Convolution"
  bottom: "pool3/3x3_s2"
  top: "inception_4a/5x5_reduce"
  param {
    lr_mult: 1
    decay_mult: 1
  }
  param {
    lr_mult: 2
    decay_mult: 0
  }
  convolution_param {
    num_output: 16
    kernel_size: 1
    weight_filler {
      type: "xavier"
      std: 0.2
    }
    bias_filler {
      type: "constant"
      value: 0.2
    }
  }
}
layer {
  name: "inception_4a/relu_5x5_reduce"
  type: "ReLU"
  bottom: "inception_4a/5x5_reduce"
  top: "inception_4a/5x5_reduce"
}
layer {
  name: "inception_4a/5x5"
  type: "Convolution"
  bottom: "inception_4a/5x5_reduce"
  top: "inception_4a/5x5"
  param {
    lr_mult: 1
    decay_mult: 1
  }
  param {
    lr_mult: 2
    decay_mult: 0
  }
  convolution_param {
    num_output: 48
    pad: 2
    kernel_size: 5
    weight_filler {
      type: "xavier"
      std: 0.03
    }
    bias_filler {
      type: "constant"
      value: 0.2
    }
  }
}
layer {
  name: "inception_4a/relu_5x5"
  type: "ReLU"
  bottom: "inception_4a/5x5"
  top: "inception_4a/5x5"
}
layer {
  name: "inception_4a/pool"
  type: "Pooling"
  bottom: "pool3/3x3_s2"
  top: "inception_4a/pool"
  pooling_param {
    pool: MAX
    kernel_size: 3
    stride: 1
    pad: 1
  }
}
layer {
  name: "inception_4a/pool_proj"
  type: "Convolution"
  bottom: "inception_4a/pool"
  top: "inception_4a/pool_proj"
  param {
    lr_mult: 1
    decay_mult: 1
  }
  param {
    lr_mult: 2
    decay_mult: 0
  }
  convolution_param {
    num_output: 64
    kernel_size: 1
    weight_filler {
      type: "xavier"
      std: 0.1
    }
    bias_filler {
      type: "constant"
      value: 0.2
    }
  }
}
layer {
  name: "inception_4a/relu_pool_proj"
  type: "ReLU"
  bottom: "inception_4a/pool_proj"
  top: "inception_4a/pool_proj"
}
layer {
  name: "inception_4a/output"
  type: "Concat"
  bottom: "inception_4a/1x1"
  bottom: "inception_4a/3x3"
  bottom: "inception_4a/5x5"
  bottom: "inception_4a/pool_proj"
  top: "inception_4a/output"
}
layer {
  name: "inception_4b/1x1"
  type: "Convolution"
  bottom: "inception_4a/output"
  top: "inception_4b/1x1"
  param {
    lr_mult: 1
    decay_mult: 1
  }
  param {
    lr_mult: 2
    decay_mult: 0
  }
  convolution_param {
    num_output: 160
    kernel_size: 1
    weight_filler {
      type: "xavier"
      std: 0.03
    }
    bias_filler {
      type: "constant"
      value: 0.2
    }
  }
}
layer {
  name: "inception_4b/relu_1x1"
  type: "ReLU"
  bottom: "inception_4b/1x1"
  top: "inception_4b/1x1"
}
layer {
  name: "inception_4b/3x3_reduce"
  type: "Convolution"
  bottom: "inception_4a/output"
  top: "inception_4b/3x3_reduce"
  param {
    lr_mult: 1
    decay_mult: 1
  }
  param {
    lr_mult: 2
    decay_mult: 0
  }
  convolution_param {
    num_output: 112
    kernel_size: 1
    weight_filler {
      type: "xavier"
      std: 0.09
    }
    bias_filler {
      type: "constant"
      value: 0.2
    }
  }
}
layer {
  name: "inception_4b/relu_3x3_reduce"
  type: "ReLU"
  bottom: "inception_4b/3x3_reduce"
  top: "inception_4b/3x3_reduce"
}
layer {
  name: "inception_4b/3x3"
  type: "Convolution"
  bottom: "inception_4b/3x3_reduce"
  top: "inception_4b/3x3"
  param {
    lr_mult: 1
    decay_mult: 1
  }
  param {
    lr_mult: 2
    decay_mult: 0
  }
  convolution_param {
    num_output: 224
    pad: 1
    kernel_size: 3
    weight_filler {
      type: "xavier"
      std: 0.03
    }
    bias_filler {
      type: "constant"
      value: 0.2
    }
  }
}
layer {
  name: "inception_4b/relu_3x3"
  type: "ReLU"
  bottom: "inception_4b/3x3"
  top: "inception_4b/3x3"
}
layer {
  name: "inception_4b/5x5_reduce"
  type: "Convolution"
  bottom: "inception_4a/output"
  top: "inception_4b/5x5_reduce"
  param {
    lr_mult: 1
    decay_mult: 1
  }
  param {
    lr_mult: 2
    decay_mult: 0
  }
  convolution_param {
    num_output: 24
    kernel_size: 1
    weight_filler {
      type: "xavier"
      std: 0.2
    }
    bias_filler {
      type: "constant"
      value: 0.2
    }
  }
}
layer {
  name: "inception_4b/relu_5x5_reduce"
  type: "ReLU"
  bottom: "inception_4b/5x5_reduce"
  top: "inception_4b/5x5_reduce"
}
layer {
  name: "inception_4b/5x5"
  type: "Convolution"
  bottom: "inception_4b/5x5_reduce"
  top: "inception_4b/5x5"
  param {
    lr_mult: 1
    decay_mult: 1
  }
  param {
    lr_mult: 2
    decay_mult: 0
  }
  convolution_param {
    num_output: 64
    pad: 2
    kernel_size: 5
    weight_filler {
      type: "xavier"
      std: 0.03
    }
    bias_filler {
      type: "constant"
      value: 0.2
    }
  }
}
layer {
  name: "inception_4b/relu_5x5"
  type: "ReLU"
  bottom: "inception_4b/5x5"
  top: "inception_4b/5x5"
}
layer {
  name: "inception_4b/pool"
  type: "Pooling"
  bottom: "inception_4a/output"
  top: "inception_4b/pool"
  pooling_param {
    pool: MAX
    kernel_size: 3
    stride: 1
    pad: 1
  }
}
layer {
  name: "inception_4b/pool_proj"
  type: "Convolution"
  bottom: "inception_4b/pool"
  top: "inception_4b/pool_proj"
  param {
    lr_mult: 1
    decay_mult: 1
  }
  param {
    lr_mult: 2
    decay_mult: 0
  }
  convolution_param {
    num_output: 64
    kernel_size: 1
    weight_filler {
      type: "xavier"
      std: 0.1
    }
    bias_filler {
      type: "constant"
      value: 0.2
    }
  }
}
layer {
  name: "inception_4b/relu_pool_proj"
  type: "ReLU"
  bottom: "inception_4b/pool_proj"
  top: "inception_4b/pool_proj"
}
layer {
  name: "inception_4b/output"
  type: "Concat"
  bottom: "inception_4b/1x1"
  bottom: "inception_4b/3x3"
  bottom: "inception_4b/5x5"
  bottom: "inception_4b/pool_proj"
  top: "inception_4b/output"
}
layer {
  name: "inception_4c/1x1"
  type: "Convolution"
  bottom: "inception_4b/output"
  top: "inception_4c/1x1"
  param {
    lr_mult: 1
    decay_mult: 1
  }
  param {
    lr_mult: 2
    decay_mult: 0
  }
  convolution_param {
    num_output: 128
    kernel_size: 1
    weight_filler {
      type: "xavier"
      std: 0.03
    }
    bias_filler {
      type: "constant"
      value: 0.2
    }
  }
}
layer {
  name: "inception_4c/relu_1x1"
  type: "ReLU"
  bottom: "inception_4c/1x1"
  top: "inception_4c/1x1"
}
layer {
  name: "inception_4c/3x3_reduce"
  type: "Convolution"
  bottom: "inception_4b/output"
  top: "inception_4c/3x3_reduce"
  param {
    lr_mult: 1
    decay_mult: 1
  }
  param {
    lr_mult: 2
    decay_mult: 0
  }
  convolution_param {
    num_output: 128
    kernel_size: 1
    weight_filler {
      type: "xavier"
      std: 0.09
    }
    bias_filler {
      type: "constant"
      value: 0.2
    }
  }
}
layer {
  name: "inception_4c/relu_3x3_reduce"
  type: "ReLU"
  bottom: "inception_4c/3x3_reduce"
  top: "inception_4c/3x3_reduce"
}
layer {
  name: "inception_4c/3x3"
  type: "Convolution"
  bottom: "inception_4c/3x3_reduce"
  top: "inception_4c/3x3"
  param {
    lr_mult: 1
    decay_mult: 1
  }
  param {
    lr_mult: 2
    decay_mult: 0
  }
  convolution_param {
    num_output: 256
    pad: 1
    kernel_size: 3
    weight_filler {
      type: "xavier"
      std: 0.03
    }
    bias_filler {
      type: "constant"
      value: 0.2
    }
  }
}
layer {
  name: "inception_4c/relu_3x3"
  type: "ReLU"
  bottom: "inception_4c/3x3"
  top: "inception_4c/3x3"
}
layer {
  name: "inception_4c/5x5_reduce"
  type: "Convolution"
  bottom: "inception_4b/output"
  top: "inception_4c/5x5_reduce"
  param {
    lr_mult: 1
    decay_mult: 1
  }
  param {
    lr_mult: 2
    decay_mult: 0
  }
  convolution_param {
    num_output: 24
    kernel_size: 1
    weight_filler {
      type: "xavier"
      std: 0.2
    }
    bias_filler {
      type: "constant"
      value: 0.2
    }
  }
}
layer {
  name: "inception_4c/relu_5x5_reduce"
  type: "ReLU"
  bottom: "inception_4c/5x5_reduce"
  top: "inception_4c/5x5_reduce"
}
layer {
  name: "inception_4c/5x5"
  type: "Convolution"
  bottom: "inception_4c/5x5_reduce"
  top: "inception_4c/5x5"
  param {
    lr_mult: 1
    decay_mult: 1
  }
  param {
    lr_mult: 2
    decay_mult: 0
  }
  convolution_param {
    num_output: 64
    pad: 2
    kernel_size: 5
    weight_filler {
      type: "xavier"
      std: 0.03
    }
    bias_filler {
      type: "constant"
      value: 0.2
    }
  }
}
layer {
  name: "inception_4c/relu_5x5"
  type: "ReLU"
  bottom: "inception_4c/5x5"
  top: "inception_4c/5x5"
}
layer {
  name: "inception_4c/pool"
  type: "Pooling"
  bottom: "inception_4b/output"
  top: "inception_4c/pool"
  pooling_param {
    pool: MAX
    kernel_size: 3
    stride: 1
    pad: 1
  }
}
layer {
  name: "inception_4c/pool_proj"
  type: "Convolution"
  bottom: "inception_4c/pool"
  top: "inception_4c/pool_proj"
  param {
    lr_mult: 1
    decay_mult: 1
  }
  param {
    lr_mult: 2
    decay_mult: 0
  }
  convolution_param {
    num_output: 64
    kernel_size: 1
    weight_filler {
      type: "xavier"
      std: 0.1
    }
    bias_filler {
      type: "constant"
      value: 0.2
    }
  }
}
layer {
  name: "inception_4c/relu_pool_proj"
  type: "ReLU"
  bottom: "inception_4c/pool_proj"
  top: "inception_4c/pool_proj"
}
layer {
  name: "inception_4c/output"
  type: "Concat"
  bottom: "inception_4c/1x1"
  bottom: "inception_4c/3x3"
  bottom: "inception_4c/5x5"
  bottom: "inception_4c/pool_proj"
  top: "inception_4c/output"
}
layer {
  name: "inception_4d/1x1"
  type: "Convolution"
  bottom: "inception_4c/output"
  top: "inception_4d/1x1"
  param {
    lr_mult: 1
    decay_mult: 1
  }
  param {
    lr_mult: 2
    decay_mult: 0
  }
  convolution_param {
    num_output: 112
    kernel_size: 1
    weight_filler {
      type: "xavier"
      std: 0.03
    }
    bias_filler {
      type: "constant"
      value: 0.2
    }
  }
}
layer {
  name: "inception_4d/relu_1x1"
  type: "ReLU"
  bottom: "inception_4d/1x1"
  top: "inception_4d/1x1"
}
layer {
  name: "inception_4d/3x3_reduce"
  type: "Convolution"
  bottom: "inception_4c/output"
  top: "inception_4d/3x3_reduce"
  param {
    lr_mult: 1
    decay_mult: 1
  }
  param {
    lr_mult: 2
    decay_mult: 0
  }
  convolution_param {
    num_output: 144
    kernel_size: 1
    weight_filler {
      type: "xavier"
      std: 0.09
    }
    bias_filler {
      type: "constant"
      value: 0.2
    }
  }
}
layer {
  name: "inception_4d/relu_3x3_reduce"
  type: "ReLU"
  bottom: "inception_4d/3x3_reduce"
  top: "inception_4d/3x3_reduce"
}
layer {
  name: "inception_4d/3x3"
  type: "Convolution"
  bottom: "inception_4d/3x3_reduce"
  top: "inception_4d/3x3"
  param {
    lr_mult: 1
    decay_mult: 1
  }
  param {
    lr_mult: 2
    decay_mult: 0
  }
  convolution_param {
    num_output: 288
    pad: 1
    kernel_size: 3
    weight_filler {
      type: "xavier"
      std: 0.03
    }
    bias_filler {
      type: "constant"
      value: 0.2
    }
  }
}
layer {
  name: "inception_4d/relu_3x3"
  type: "ReLU"
  bottom: "inception_4d/3x3"
  top: "inception_4d/3x3"
}
layer {
  name: "inception_4d/5x5_reduce"
  type: "Convolution"
  bottom: "inception_4c/output"
  top: "inception_4d/5x5_reduce"
  param {
    lr_mult: 1
    decay_mult: 1
  }
  param {
    lr_mult: 2
    decay_mult: 0
  }
  convolution_param {
    num_output: 32
    kernel_size: 1
    weight_filler {
      type: "xavier"
      std: 0.2
    }
    bias_filler {
      type: "constant"
      value: 0.2
    }
  }
}
layer {
  name: "inception_4d/relu_5x5_reduce"
  type: "ReLU"
  bottom: "inception_4d/5x5_reduce"
  top: "inception_4d/5x5_reduce"
}
layer {
  name: "inception_4d/5x5"
  type: "Convolution"
  bottom: "inception_4d/5x5_reduce"
  top: "inception_4d/5x5"
  param {
    lr_mult: 1
    decay_mult: 1
  }
  param {
    lr_mult: 2
    decay_mult: 0
  }
  convolution_param {
    num_output: 64
    pad: 2
    kernel_size: 5
    weight_filler {
      type: "xavier"
      std: 0.03
    }
    bias_filler {
      type: "constant"
      value: 0.2
    }
  }
}
layer {
  name: "inception_4d/relu_5x5"
  type: "ReLU"
  bottom: "inception_4d/5x5"
  top: "inception_4d/5x5"
}
layer {
  name: "inception_4d/pool"
  type: "Pooling"
  bottom: "inception_4c/output"
  top: "inception_4d/pool"
  pooling_param {
    pool: MAX
    kernel_size: 3
    stride: 1
    pad: 1
  }
}
layer {
  name: "inception_4d/pool_proj"
  type: "Convolution"
  bottom: "inception_4d/pool"
  top: "inception_4d/pool_proj"
  param {
    lr_mult: 1
    decay_mult: 1
  }
  param {
    lr_mult: 2
    decay_mult: 0
  }
  convolution_param {
    num_output: 64
    kernel_size: 1
    weight_filler {
      type: "xavier"
      std: 0.1
    }
    bias_filler {
      type: "constant"
      value: 0.2
    }
  }
}
layer {
  name: "inception_4d/relu_pool_proj"
  type: "ReLU"
  bottom: "inception_4d/pool_proj"
  top: "inception_4d/pool_proj"
}
layer {
  name: "inception_4d/output"
  type: "Concat"
  bottom: "inception_4d/1x1"
  bottom: "inception_4d/3x3"
  bottom: "inception_4d/5x5"
  bottom: "inception_4d/pool_proj"
  top: "inception_4d/output"
}
layer {
  name: "inception_4e/1x1"
  type: "Convolution"
  bottom: "inception_4d/output"
  top: "inception_4e/1x1"
  param {
    lr_mult: 1
    decay_mult: 1
  }
  param {
    lr_mult: 2
    decay_mult: 0
  }
  convolution_param {
    num_output: 256
    kernel_size: 1
    weight_filler {
      type: "xavier"
      std: 0.03
    }
    bias_filler {
      type: "constant"
      value: 0.2
    }
  }
}
layer {
  name: "inception_4e/relu_1x1"
  type: "ReLU"
  bottom: "inception_4e/1x1"
  top: "inception_4e/1x1"
}
layer {
  name: "inception_4e/3x3_reduce"
  type: "Convolution"
  bottom: "inception_4d/output"
  top: "inception_4e/3x3_reduce"
  param {
    lr_mult: 1
    decay_mult: 1
  }
  param {
    lr_mult: 2
    decay_mult: 0
  }
  convolution_param {
    num_output: 160
    kernel_size: 1
    weight_filler {
      type: "xavier"
      std: 0.09
    }
    bias_filler {
      type: "constant"
      value: 0.2
    }
  }
}
layer {
  name: "inception_4e/relu_3x3_reduce"
  type: "ReLU"
  bottom: "inception_4e/3x3_reduce"
  top: "inception_4e/3x3_reduce"
}
layer {
  name: "inception_4e/3x3"
  type: "Convolution"
  bottom: "inception_4e/3x3_reduce"
  top: "inception_4e/3x3"
  param {
    lr_mult: 1
    decay_mult: 1
  }
  param {
    lr_mult: 2
    decay_mult: 0
  }
  convolution_param {
    num_output: 320
    pad: 1
    kernel_size: 3
    weight_filler {
      type: "xavier"
      std: 0.03
    }
    bias_filler {
      type: "constant"
      value: 0.2
    }
  }
}
layer {
  name: "inception_4e/relu_3x3"
  type: "ReLU"
  bottom: "inception_4e/3x3"
  top: "inception_4e/3x3"
}
layer {
  name: "inception_4e/5x5_reduce"
  type: "Convolution"
  bottom: "inception_4d/output"
  top: "inception_4e/5x5_reduce"
  param {
    lr_mult: 1
    decay_mult: 1
  }
  param {
    lr_mult: 2
    decay_mult: 0
  }
  convolution_param {
    num_output: 32
    kernel_size: 1
    weight_filler {
      type: "xavier"
      std: 0.2
    }
    bias_filler {
      type: "constant"
      value: 0.2
    }
  }
}
layer {
  name: "inception_4e/relu_5x5_reduce"
  type: "ReLU"
  bottom: "inception_4e/5x5_reduce"
  top: "inception_4e/5x5_reduce"
}
layer {
  name: "inception_4e/5x5"
  type: "Convolution"
  bottom: "inception_4e/5x5_reduce"
  top: "inception_4e/5x5"
  param {
    lr_mult: 1
    decay_mult: 1
  }
  param {
    lr_mult: 2
    decay_mult: 0
  }
  convolution_param {
    num_output: 128
    pad: 2
    kernel_size: 5
    weight_filler {
      type: "xavier"
      std: 0.03
    }
    bias_filler {
      type: "constant"
      value: 0.2
    }
  }
}
layer {
  name: "inception_4e/relu_5x5"
  type: "ReLU"
  bottom: "inception_4e/5x5"
  top: "inception_4e/5x5"
}
layer {
  name: "inception_4e/pool"
  type: "Pooling"
  bottom: "inception_4d/output"
  top: "inception_4e/pool"
  pooling_param {
    pool: MAX
    kernel_size: 3
    stride: 1
    pad: 1
  }
}
layer {
  name: "inception_4e/pool_proj"
  type: "Convolution"
  bottom: "inception_4e/pool"
  top: "inception_4e/pool_proj"
  param {
    lr_mult: 1
    decay_mult: 1
  }
  param {
    lr_mult: 2
    decay_mult: 0
  }
  convolution_param {
    num_output: 128
    kernel_size: 1
    weight_filler {
      type: "xavier"
      std: 0.1
    }
    bias_filler {
      type: "constant"
      value: 0.2
    }
  }
}
layer {
  name: "inception_4e/relu_pool_proj"
  type: "ReLU"
  bottom: "inception_4e/pool_proj"
  top: "inception_4e/pool_proj"
}
layer {
  name: "inception_4e/output"
  type: "Concat"
  bottom: "inception_4e/1x1"
  bottom: "inception_4e/3x3"
  bottom: "inception_4e/5x5"
  bottom: "inception_4e/pool_proj"
  top: "inception_4e/output"
}
layer {
  name: "pool4/3x3_s2"
  type: "Pooling"
  bottom: "inception_4e/output"
  top: "pool4/3x3_s2"
  pooling_param {
    pool: MAX
    kernel_size: 3
    stride: 2
  }
}
layer {
  name: "inception_5a/1x1"
  type: "Convolution"
  bottom: "pool4/3x3_s2"
  top: "inception_5a/1x1"
  param {
    lr_mult: 1
    decay_mult: 1
  }
  param {
    lr_mult: 2
    decay_mult: 0
  }
  convolution_param {
    num_output: 256
    kernel_size: 1
    weight_filler {
      type: "xavier"
      std: 0.03
    }
    bias_filler {
      type: "constant"
      value: 0.2
    }
  }
}
layer {
  name: "inception_5a/relu_1x1"
  type: "ReLU"
  bottom: "inception_5a/1x1"
  top: "inception_5a/1x1"
}
layer {
  name: "inception_5a/3x3_reduce"
  type: "Convolution"
  bottom: "pool4/3x3_s2"
  top: "inception_5a/3x3_reduce"
  param {
    lr_mult: 1
    decay_mult: 1
  }
  param {
    lr_mult: 2
    decay_mult: 0
  }
  convolution_param {
    num_output: 160
    kernel_size: 1
    weight_filler {
      type: "xavier"
      std: 0.09
    }
    bias_filler {
      type: "constant"
      value: 0.2
    }
  }
}
layer {
  name: "inception_5a/relu_3x3_reduce"
  type: "ReLU"
  bottom: "inception_5a/3x3_reduce"
  top: "inception_5a/3x3_reduce"
}
layer {
  name: "inception_5a/3x3"
  type: "Convolution"
  bottom: "inception_5a/3x3_reduce"
  top: "inception_5a/3x3"
  param {
    lr_mult: 1
    decay_mult: 1
  }
  param {
    lr_mult: 2
    decay_mult: 0
  }
  convolution_param {
    num_output: 320
    pad: 1
    kernel_size: 3
    weight_filler {
      type: "xavier"
      std: 0.03
    }
    bias_filler {
      type: "constant"
      value: 0.2
    }
  }
}
layer {
  name: "inception_5a/relu_3x3"
  type: "ReLU"
  bottom: "inception_5a/3x3"
  top: "inception_5a/3x3"
}
layer {
  name: "inception_5a/5x5_reduce"
  type: "Convolution"
  bottom: "pool4/3x3_s2"
  top: "inception_5a/5x5_reduce"
  param {
    lr_mult: 1
    decay_mult: 1
  }
  param {
    lr_mult: 2
    decay_mult: 0
  }
  convolution_param {
    num_output: 32
    kernel_size: 1
    weight_filler {
      type: "xavier"
      std: 0.2
    }
    bias_filler {
      type: "constant"
      value: 0.2
    }
I0714 21:40:15.737411  4802 layer_factory.hpp:77] Creating layer data
I0714 21:40:15.737449  4802 net.cpp:91] Creating Layer data
I0714 21:40:15.737462  4802 net.cpp:399] data -> data
I0714 21:40:15.744526  4798 net.cpp:49] Initializing net from parameters: 
name: "GoogleNet"
state {
  phase: TEST
}
layer {
  name: "data"
  type: "Input"
  top: "data"
  input_param {
    shape {
      dim: 10
      dim: 3
      dim: 224
      dim: 224
    }
  }
}
layer {
  name: "conv1/7x7_s2"
  type: "Convolution"
  bottom: "data"
  top: "conv1/7x7_s2"
  param {
    lr_mult: 1
    decay_mult: 1
  }
  param {
    lr_mult: 2
    decay_mult: 0
  }
  convolution_param {
    num_output: 64
    pad: 3
    kernel_size: 7
    stride: 2
    weight_filler {
      type: "xavier"
      std: 0.1
    }
    bias_filler {
      type: "constant"
      value: 0.2
    }
  }
}
layer {
  name: "conv1/relu_7x7"
  type: "ReLU"
  bottom: "conv1/7x7_s2"
  top: "conv1/7x7_s2"
}
layer {
  name: "pool1/3x3_s2"
  type: "Pooling"
  bottom: "conv1/7x7_s2"
  top: "pool1/3x3_s2"
  pooling_param {
    pool: MAX
    kernel_size: 3
    stride: 2
  }
}
layer {
  name: "pool1/norm1"
  type: "LRN"
  bottom: "pool1/3x3_s2"
  top: "pool1/norm1"
  lrn_param {
    local_size: 5
    alpha: 0.0001
    beta: 0.75
  }
}
layer {
  name: "conv2/3x3_reduce"
  type: "Convolution"
  bottom: "pool1/norm1"
  top: "conv2/3x3_reduce"
  param {
    lr_mult: 1
    decay_mult: 1
  }
  param {
    lr_mult: 2
    decay_mult: 0
  }
  convolution_param {
    num_output: 64
    kernel_size: 1
    weight_filler {
      type: "xavier"
      std: 0.1
    }
    bias_filler {
      type: "constant"
      value: 0.2
    }
  }
}
layer {
  name: "conv2/relu_3x3_reduce"
  type: "ReLU"
  bottom: "conv2/3x3_reduce"
  top: "conv2/3x3_reduce"
}
layer {
  name: "conv2/3x3"
  type: "Convolution"
  bottom: "conv2/3x3_reduce"
  top: "conv2/3x3"
  param {
    lr_mult: 1
    decay_mult: 1
  }
  param {
    lr_mult: 2
    decay_mult: 0
  }
  convolution_param {
    num_output: 192
    pad: 1
    kernel_size: 3
    weight_filler {
      type: "xavier"
      std: 0.03
    }
    bias_filler {
      type: "constant"
      value: 0.2
    }
  }
}
layer {
  name: "conv2/relu_3x3"
  type: "ReLU"
  bottom: "conv2/3x3"
  top: "conv2/3x3"
}
layer {
  name: "conv2/norm2"
  type: "LRN"
  bottom: "conv2/3x3"
  top: "conv2/norm2"
  lrn_param {
    local_size: 5
    alpha: 0.0001
    beta: 0.75
  }
}
layer {
  name: "pool2/3x3_s2"
  type: "Pooling"
  bottom: "conv2/norm2"
  top: "pool2/3x3_s2"
  pooling_param {
    pool: MAX
    kernel_size: 3
    stride: 2
  }
}
layer {
  name: "inception_3a/1x1"
  type: "Convolution"
  bottom: "pool2/3x3_s2"
  top: "inception_3a/1x1"
  param {
    lr_mult: 1
    decay_mult: 1
  }
  param {
    lr_mult: 2
    decay_mult: 0
  }
  convolution_param {
    num_output: 64
    kernel_size: 1
    weight_filler {
      type: "xavier"
      std: 0.03
    }
    bias_filler {
      type: "constant"
      value: 0.2
    }
  }
}
layer {
  name: "inception_3a/relu_1x1"
  type: "ReLU"
  bottom: "inception_3a/1x1"
  top: "inception_3a/1x1"
}
layer {
  name: "inception_3a/3x3_reduce"
  type: "Convolution"
  bottom: "pool2/3x3_s2"
  top: "inception_3a/3x3_reduce"
  param {
    lr_mult: 1
    decay_mult: 1
  }
  param {
    lr_mult: 2
    decay_mult: 0
  }
  convolution_param {
    num_output: 96
    kernel_size: 1
    weight_filler {
      type: "xavier"
      std: 0.09
    }
    bias_filler {
      type: "constant"
      value: 0.2
    }
  }
}
layer {
  name: "inception_3a/relu_3x3_reduce"
  type: "ReLU"
  bottom: "inception_3a/3x3_reduce"
  top: "inception_3a/3x3_reduce"
}
layer {
  name: "inception_3a/3x3"
  type: "Convolution"
  bottom: "inception_3a/3x3_reduce"
  top: "inception_3a/3x3"
  param {
    lr_mult: 1
    decay_mult: 1
  }
  param {
    lr_mult: 2
    decay_mult: 0
  }
  convolution_param {
    num_output: 128
    pad: 1
    kernel_size: 3
    weight_filler {
      type: "xavier"
      std: 0.03
    }
    bias_filler {
      type: "constant"
      value: 0.2
    }
  }
}
layer {
  name: "inception_3a/relu_3x3"
  type: "ReLU"
  bottom: "inception_3a/3x3"
  top: "inception_3a/3x3"
}
layer {
  name: "inception_3a/5x5_reduce"
  type: "Convolution"
  bottom: "pool2/3x3_s2"
  top: "inception_3a/5x5_reduce"
  param {
    lr_mult: 1
    decay_mult: 1
  }
  param {
    lr_mult: 2
    decay_mult: 0
  }
  convolution_param {
    num_output: 16
    kernel_size: 1
    weight_filler {
      type: "xavier"
      std: 0.2
    }
    bias_filler {
      type: "constant"
      value: 0.2
    }
  }
}
layer {
  name: "inception_3a/relu_5x5_reduce"
  type: "ReLU"
  bottom: "inception_3a/5x5_reduce"
  top: "inception_3a/5x5_reduce"
}
layer {
  name: "inception_3a/5x5"
  type: "Convolution"
  bottom: "inception_3a/5x5_reduce"
  top: "inception_3a/5x5"
  param {
    lr_mult: 1
    decay_mult: 1
  }
  param {
    lr_mult: 2
    decay_mult: 0
  }
  convolution_param {
    num_output: 32
    pad: 2
    kernel_size: 5
    weight_filler {
      type: "xavier"
      std: 0.03
    }
    bias_filler {
      type: "constant"
      value: 0.2
    }
  }
}
layer {
  name: "inception_3a/relu_5x5"
  type: "ReLU"
  bottom: "inception_3a/5x5"
  top: "inception_3a/5x5"
}
layer {
  name: "inception_3a/pool"
  type: "Pooling"
  bottom: "pool2/3x3_s2"
  top: "inception_3a/pool"
  pooling_param {
    pool: MAX
    kernel_size: 3
    stride: 1
    pad: 1
  }
}
layer {
  name: "inception_3a/pool_proj"
  type: "Convolution"
  bottom: "inception_3a/pool"
  top: "inception_3a/pool_proj"
  param {
    lr_mult: 1
    decay_mult: 1
  }
  param {
    lr_mult: 2
    decay_mult: 0
  }
  convolution_param {
    num_output: 32
    kernel_size: 1
    weight_filler {
      type: "xavier"
      std: 0.1
    }
    bias_filler {
      type: "constant"
      value: 0.2
    }
  }
}
layer {
  name: "inception_3a/relu_pool_proj"
  type: "ReLU"
  bottom: "inception_3a/pool_proj"
  top: "inception_3a/pool_proj"
}
layer {
  name: "inception_3a/output"
  type: "Concat"
  bottom: "inception_3a/1x1"
  bottom: "inception_3a/3x3"
  bottom: "inception_3a/5x5"
  bottom: "inception_3a/pool_proj"
  top: "inception_3a/output"
}
layer {
  name: "inception_3b/1x1"
  type: "Convolution"
  bottom: "inception_3a/output"
  top: "inception_3b/1x1"
  param {
    lr_mult: 1
    decay_mult: 1
  }
  param {
    lr_mult: 2
    decay_mult: 0
  }
  convolution_param {
    num_output: 128
    kernel_size: 1
    weight_filler {
      type: "xavier"
      std: 0.03
    }
    bias_filler {
      type: "constant"
      value: 0.2
    }
  }
}
layer {
  name: "inception_3b/relu_1x1"
  type: "ReLU"
  bottom: "inception_3b/1x1"
  top: "inception_3b/1x1"
}
layer {
  name: "inception_3b/3x3_reduce"
  type: "Convolution"
  bottom: "inception_3a/output"
  top: "inception_3b/3x3_reduce"
  param {
    lr_mult: 1
    decay_mult: 1
  }
  param {
    lr_mult: 2
    decay_mult: 0
  }
  convolution_param {
    num_output: 128
    kernel_size: 1
    weight_filler {
      type: "xavier"
      std: 0.09
    }
    bias_filler {
      type: "constant"
      value: 0.2
    }
  }
}
layer {
  name: "inception_3b/relu_3x3_reduce"
  type: "ReLU"
  bottom: "inception_3b/3x3_reduce"
  top: "inception_3b/3x3_reduce"
}
layer {
  name: "inception_3b/3x3"
  type: "Convolution"
  bottom: "inception_3b/3x3_reduce"
  top: "inception_3b/3x3"
  param {
    lr_mult: 1
    decay_mult: 1
  }
  param {
    lr_mult: 2
    decay_mult: 0
  }
  convolution_param {
    num_output: 192
    pad: 1
    kernel_size: 3
    weight_filler {
      type: "xavier"
      std: 0.03
    }
    bias_filler {
      type: "constant"
      value: 0.2
    }
  }
}
layer {
  name: "inception_3b/relu_3x3"
  type: "ReLU"
  bottom: "inception_3b/3x3"
  top: "inception_3b/3x3"
}
layer {
  name: "inception_3b/5x5_reduce"
  type: "Convolution"
  bottom: "inception_3a/output"
  top: "inception_3b/5x5_reduce"
  param {
    lr_mult: 1
    decay_mult: 1
  }
  param {
    lr_mult: 2
    decay_mult: 0
  }
  convolution_param {
    num_output: 32
    kernel_size: 1
    weight_filler {
      type: "xavier"
      std: 0.2
    }
    bias_filler {
      type: "constant"
      value: 0.2
    }
  }
}
layer {
  name: "inception_3b/relu_5x5_reduce"
  type: "ReLU"
  bottom: "inception_3b/5x5_reduce"
  top: "inception_3b/5x5_reduce"
}
layer {
  name: "inception_3b/5x5"
  type: "Convolution"
  bottom: "inception_3b/5x5_reduce"
  top: "inception_3b/5x5"
  param {
    lr_mult: 1
    decay_mult: 1
  }
  param {
    lr_mult: 2
    decay_mult: 0
  }
  convolution_param {
    num_output: 96
    pad: 2
    kernel_size: 5
    weight_filler {
      type: "xavier"
      std: 0.03
    }
    bias_filler {
      type: "constant"
      value: 0.2
    }
  }
}
layer {
  name: "inception_3b/relu_5x5"
  type: "ReLU"
  bottom: "inception_3b/5x5"
  top: "inception_3b/5x5"
}
layer {
  name: "inception_3b/pool"
  type: "Pooling"
  bottom: "inception_3a/output"
  top: "inception_3b/pool"
  pooling_param {
    pool: MAX
    kernel_size: 3
    stride: 1
    pad: 1
  }
}
layer {
  name: "inception_3b/pool_proj"
  type: "Convolution"
  bottom: "inception_3b/pool"
  top: "inception_3b/pool_proj"
  param {
    lr_mult: 1
    decay_mult: 1
  }
  param {
    lr_mult: 2
    decay_mult: 0
  }
  convolution_param {
    num_output: 64
    kernel_size: 1
    weight_filler {
      type: "xavier"
      std: 0.1
    }
    bias_filler {
      type: "constant"
      value: 0.2
    }
  }
}
layer {
  name: "inception_3b/relu_pool_proj"
  type: "ReLU"
  bottom: "inception_3b/pool_proj"
  top: "inception_3b/pool_proj"
}
layer {
  name: "inception_3b/output"
  type: "Concat"
  bottom: "inception_3b/1x1"
  bottom: "inception_3b/3x3"
  bottom: "inception_3b/5x5"
  bottom: "inception_3b/pool_proj"
  top: "inception_3b/output"
}
layer {
  name: "pool3/3x3_s2"
  type: "Pooling"
  bottom: "inception_3b/output"
  top: "pool3/3x3_s2"
  pooling_param {
    pool: MAX
    kernel_size: 3
    stride: 2
  }
}
layer {
  name: "inception_4a/1x1"
  type: "Convolution"
  bottom: "pool3/3x3_s2"
  top: "inception_4a/1x1"
  param {
    lr_mult: 1
    decay_mult: 1
  }
  param {
    lr_mult: 2
    decay_mult: 0
  }
  convolution_param {
    num_output: 192
    kernel_size: 1
    weight_filler {
      type: "xavier"
      std: 0.03
    }
    bias_filler {
      type: "constant"
      value: 0.2
    }
  }
}
layer {
  name: "inception_4a/relu_1x1"
  type: "ReLU"
  bottom: "inception_4a/1x1"
  top: "inception_4a/1x1"
}
layer {
  name: "inception_4a/3x3_reduce"
  type: "Convolution"
  bottom: "pool3/3x3_s2"
  top: "inception_4a/3x3_reduce"
  param {
    lr_mult: 1
    decay_mult: 1
  }
  param {
    lr_mult: 2
    decay_mult: 0
  }
  convolution_param {
    num_output: 96
    kernel_size: 1
    weight_filler {
      type: "xavier"
      std: 0.09
    }
    bias_filler {
      type: "constant"
      value: 0.2
    }
  }
}
layer {
  name: "inception_4a/relu_3x3_reduce"
  type: "ReLU"
  bottom: "inception_4a/3x3_reduce"
  top: "inception_4a/3x3_reduce"
}
layer {
  name: "inception_4a/3x3"
  type: "Convolution"
  bottom: "inception_4a/3x3_reduce"
  top: "inception_4a/3x3"
  param {
    lr_mult: 1
    decay_mult: 1
  }
  param {
    lr_mult: 2
    decay_mult: 0
  }
  convolution_param {
    num_output: 208
    pad: 1
    kernel_size: 3
    weight_filler {
      type: "xavier"
      std: 0.03
    }
    bias_filler {
      type: "constant"
      value: 0.2
    }
  }
}
layer {
  name: "inception_4a/relu_3x3"
  type: "ReLU"
  bottom: "inception_4a/3x3"
  top: "inception_4a/3x3"
}
layer {
  name: "inception_4a/5x5_reduce"
  type: "Convolution"
  bottom: "pool3/3x3_s2"
  top: "inception_4a/5x5_reduce"
  param {
    lr_mult: 1
    decay_mult: 1
  }
  param {
    lr_mult: 2
    decay_mult: 0
  }
  convolution_param {
    num_output: 16
    kernel_size: 1
    weight_filler {
      type: "xavier"
      std: 0.2
    }
    bias_filler {
      type: "constant"
      value: 0.2
    }
  }
}
layer {
  name: "inception_4a/relu_5x5_reduce"
  type: "ReLU"
  bottom: "inception_4a/5x5_reduce"
  top: "inception_4a/5x5_reduce"
}
layer {
  name: "inception_4a/5x5"
  type: "Convolution"
  bottom: "inception_4a/5x5_reduce"
  top: "inception_4a/5x5"
  param {
    lr_mult: 1
    decay_mult: 1
  }
  param {
    lr_mult: 2
    decay_mult: 0
  }
  convolution_param {
    num_output: 48
    pad: 2
    kernel_size: 5
    weight_filler {
      type: "xavier"
      std: 0.03
    }
    bias_filler {
      type: "constant"
      value: 0.2
    }
  }
}
layer {
  name: "inception_4a/relu_5x5"
  type: "ReLU"
  bottom: "inception_4a/5x5"
  top: "inception_4a/5x5"
}
layer {
  name: "inception_4a/pool"
  type: "Pooling"
  bottom: "pool3/3x3_s2"
  top: "inception_4a/pool"
  pooling_param {
    pool: MAX
    kernel_size: 3
    stride: 1
    pad: 1
  }
}
layer {
  name: "inception_4a/pool_proj"
  type: "Convolution"
  bottom: "inception_4a/pool"
  top: "inception_4a/pool_proj"
  param {
    lr_mult: 1
    decay_mult: 1
  }
  param {
    lr_mult: 2
    decay_mult: 0
  }
  convolution_param {
    num_output: 64
    kernel_size: 1
    weight_filler {
      type: "xavier"
      std: 0.1
    }
    bias_filler {
      type: "constant"
      value: 0.2
    }
  }
}
layer {
  name: "inception_4a/relu_pool_proj"
  type: "ReLU"
  bottom: "inception_4a/pool_proj"
  top: "inception_4a/pool_proj"
}
layer {
  name: "inception_4a/output"
  type: "Concat"
  bottom: "inception_4a/1x1"
  bottom: "inception_4a/3x3"
  bottom: "inception_4a/5x5"
  bottom: "inception_4a/pool_proj"
  top: "inception_4a/output"
}
layer {
  name: "inception_4b/1x1"
  type: "Convolution"
  bottom: "inception_4a/output"
  top: "inception_4b/1x1"
  param {
    lr_mult: 1
    decay_mult: 1
  }
  param {
    lr_mult: 2
    decay_mult: 0
  }
  convolution_param {
    num_output: 160
    kernel_size: 1
    weight_filler {
      type: "xavier"
      std: 0.03
    }
    bias_filler {
      type: "constant"
      value: 0.2
    }
  }
}
layer {
  name: "inception_4b/relu_1x1"
  type: "ReLU"
  bottom: "inception_4b/1x1"
  top: "inception_4b/1x1"
}
layer {
  name: "inception_4b/3x3_reduce"
  type: "Convolution"
  bottom: "inception_4a/output"
  top: "inception_4b/3x3_reduce"
  param {
    lr_mult: 1
    decay_mult: 1
  }
  param {
    lr_mult: 2
    decay_mult: 0
  }
  convolution_param {
    num_output: 112
    kernel_size: 1
    weight_filler {
      type: "xavier"
      std: 0.09
    }
    bias_filler {
      type: "constant"
      value: 0.2
    }
  }
}
layer {
  name: "inception_4b/relu_3x3_reduce"
  type: "ReLU"
  bottom: "inception_4b/3x3_reduce"
  top: "inception_4b/3x3_reduce"
}
layer {
  name: "inception_4b/3x3"
  type: "Convolution"
  bottom: "inception_4b/3x3_reduce"
  top: "inception_4b/3x3"
  param {
    lr_mult: 1
    decay_mult: 1
  }
  param {
    lr_mult: 2
    decay_mult: 0
  }
  convolution_param {
    num_output: 224
    pad: 1
    kernel_size: 3
    weight_filler {
      type: "xavier"
      std: 0.03
    }
    bias_filler {
      type: "constant"
      value: 0.2
    }
  }
}
layer {
  name: "inception_4b/relu_3x3"
  type: "ReLU"
  bottom: "inception_4b/3x3"
  top: "inception_4b/3x3"
}
layer {
  name: "inception_4b/5x5_reduce"
  type: "Convolution"
  bottom: "inception_4a/output"
  top: "inception_4b/5x5_reduce"
  param {
    lr_mult: 1
    decay_mult: 1
  }
  param {
    lr_mult: 2
    decay_mult: 0
  }
  convolution_param {
    num_output: 24
    kernel_size: 1
    weight_filler {
      type: "xavier"
      std: 0.2
    }
    bias_filler {
      type: "constant"
      value: 0.2
    }
  }
}
layer {
  name: "inception_4b/relu_5x5_reduce"
  type: "ReLU"
  bottom: "inception_4b/5x5_reduce"
  top: "inception_4b/5x5_reduce"
}
layer {
  name: "inception_4b/5x5"
  type: "Convolution"
  bottom: "inception_4b/5x5_reduce"
  top: "inception_4b/5x5"
  param {
    lr_mult: 1
    decay_mult: 1
  }
  param {
    lr_mult: 2
    decay_mult: 0
  }
  convolution_param {
    num_output: 64
    pad: 2
    kernel_size: 5
    weight_filler {
      type: "xavier"
      std: 0.03
    }
    bias_filler {
      type: "constant"
      value: 0.2
    }
  }
}
layer {
  name: "inception_4b/relu_5x5"
  type: "ReLU"
  bottom: "inception_4b/5x5"
  top: "inception_4b/5x5"
}
layer {
  name: "inception_4b/pool"
  type: "Pooling"
  bottom: "inception_4a/output"
  top: "inception_4b/pool"
  pooling_param {
    pool: MAX
    kernel_size: 3
    stride: 1
    pad: 1
  }
}
layer {
  name: "inception_4b/pool_proj"
  type: "Convolution"
  bottom: "inception_4b/pool"
  top: "inception_4b/pool_proj"
  param {
    lr_mult: 1
    decay_mult: 1
  }
  param {
    lr_mult: 2
    decay_mult: 0
  }
  convolution_param {
    num_output: 64
    kernel_size: 1
    weight_filler {
      type: "xavier"
      std: 0.1
    }
    bias_filler {
      type: "constant"
      value: 0.2
    }
  }
}
layer {
  name: "inception_4b/relu_pool_proj"
  type: "ReLU"
  bottom: "inception_4b/pool_proj"
  top: "inception_4b/pool_proj"
}
layer {
  name: "inception_4b/output"
  type: "Concat"
  bottom: "inception_4b/1x1"
  bottom: "inception_4b/3x3"
  bottom: "inception_4b/5x5"
  bottom: "inception_4b/pool_proj"
  top: "inception_4b/output"
}
layer {
  name: "inception_4c/1x1"
  type: "Convolution"
  bottom: "inception_4b/output"
  top: "inception_4c/1x1"
  param {
    lr_mult: 1
    decay_mult: 1
  }
  param {
    lr_mult: 2
    decay_mult: 0
  }
  convolution_param {
    num_output: 128
    kernel_size: 1
    weight_filler {
      type: "xavier"
      std: 0.03
    }
    bias_filler {
      type: "constant"
      value: 0.2
    }
  }
}
layer {
  name: "inception_4c/relu_1x1"
  type: "ReLU"
  bottom: "inception_4c/1x1"
  top: "inception_4c/1x1"
}
layer {
  name: "inception_4c/3x3_reduce"
  type: "Convolution"
  bottom: "inception_4b/output"
  top: "inception_4c/3x3_reduce"
  param {
    lr_mult: 1
    decay_mult: 1
  }
  param {
    lr_mult: 2
    decay_mult: 0
  }
  convolution_param {
    num_output: 128
    kernel_size: 1
    weight_filler {
      type: "xavier"
      std: 0.09
    }
    bias_filler {
      type: "constant"
      value: 0.2
    }
  }
}
layer {
  name: "inception_4c/relu_3x3_reduce"
  type: "ReLU"
  bottom: "inception_4c/3x3_reduce"
  top: "inception_4c/3x3_reduce"
}
layer {
  name: "inception_4c/3x3"
  type: "Convolution"
  bottom: "inception_4c/3x3_reduce"
  top: "inception_4c/3x3"
  param {
    lr_mult: 1
    decay_mult: 1
  }
  param {
    lr_mult: 2
    decay_mult: 0
  }
  convolution_param {
    num_output: 256
    pad: 1
    kernel_size: 3
    weight_filler {
      type: "xavier"
      std: 0.03
    }
    bias_filler {
      type: "constant"
      value: 0.2
    }
  }
}
layer {
  name: "inception_4c/relu_3x3"
  type: "ReLU"
  bottom: "inception_4c/3x3"
  top: "inception_4c/3x3"
}
layer {
  name: "inception_4c/5x5_reduce"
  type: "Convolution"
  bottom: "inception_4b/output"
  top: "inception_4c/5x5_reduce"
  param {
    lr_mult: 1
    decay_mult: 1
  }
  param {
    lr_mult: 2
    decay_mult: 0
  }
  convolution_param {
    num_output: 24
    kernel_size: 1
    weight_filler {
      type: "xavier"
      std: 0.2
    }
    bias_filler {
      type: "constant"
      value: 0.2
    }
  }
}
layer {
  name: "inception_4c/relu_5x5_reduce"
  type: "ReLU"
  bottom: "inception_4c/5x5_reduce"
  top: "inception_4c/5x5_reduce"
}
layer {
  name: "inception_4c/5x5"
  type: "Convolution"
  bottom: "inception_4c/5x5_reduce"
  top: "inception_4c/5x5"
  param {
    lr_mult: 1
    decay_mult: 1
  }
  param {
    lr_mult: 2
    decay_mult: 0
  }
  convolution_param {
    num_output: 64
    pad: 2
    kernel_size: 5
    weight_filler {
      type: "xavier"
      std: 0.03
    }
    bias_filler {
      type: "constant"
      value: 0.2
    }
  }
}
layer {
  name: "inception_4c/relu_5x5"
  type: "ReLU"
  bottom: "inception_4c/5x5"
  top: "inception_4c/5x5"
}
layer {
  name: "inception_4c/pool"
  type: "Pooling"
  bottom: "inception_4b/output"
  top: "inception_4c/pool"
  pooling_param {
    pool: MAX
    kernel_size: 3
    stride: 1
    pad: 1
  }
}
layer {
  name: "inception_4c/pool_proj"
  type: "Convolution"
  bottom: "inception_4c/pool"
  top: "inception_4c/pool_proj"
  param {
    lr_mult: 1
    decay_mult: 1
  }
  param {
    lr_mult: 2
    decay_mult: 0
  }
  convolution_param {
    num_output: 64
    kernel_size: 1
    weight_filler {
      type: "xavier"
      std: 0.1
    }
    bias_filler {
      type: "constant"
      value: 0.2
    }
  }
}
layer {
  name: "inception_4c/relu_pool_proj"
  type: "ReLU"
  bottom: "inception_4c/pool_proj"
  top: "inception_4c/pool_proj"
}
layer {
  name: "inception_4c/output"
  type: "Concat"
  bottom: "inception_4c/1x1"
  bottom: "inception_4c/3x3"
  bottom: "inception_4c/5x5"
  bottom: "inception_4c/pool_proj"
  top: "inception_4c/output"
}
layer {
  name: "inception_4d/1x1"
  type: "Convolution"
  bottom: "inception_4c/output"
  top: "inception_4d/1x1"
  param {
    lr_mult: 1
    decay_mult: 1
  }
  param {
    lr_mult: 2
    decay_mult: 0
  }
  convolution_param {
    num_output: 112
    kernel_size: 1
    weight_filler {
      type: "xavier"
      std: 0.03
    }
    bias_filler {
      type: "constant"
      value: 0.2
    }
  }
}
layer {
  name: "inception_4d/relu_1x1"
  type: "ReLU"
  bottom: "inception_4d/1x1"
  top: "inception_4d/1x1"
}
layer {
  name: "inception_4d/3x3_reduce"
  type: "Convolution"
  bottom: "inception_4c/output"
  top: "inception_4d/3x3_reduce"
  param {
    lr_mult: 1
    decay_mult: 1
  }
  param {
    lr_mult: 2
    decay_mult: 0
  }
  convolution_param {
    num_output: 144
    kernel_size: 1
    weight_filler {
      type: "xavier"
      std: 0.09
    }
    bias_filler {
      type: "constant"
      value: 0.2
    }
  }
}
layer {
  name: "inception_4d/relu_3x3_reduce"
  type: "ReLU"
  bottom: "inception_4d/3x3_reduce"
  top: "inception_4d/3x3_reduce"
}
layer {
  name: "inception_4d/3x3"
  type: "Convolution"
  bottom: "inception_4d/3x3_reduce"
  top: "inception_4d/3x3"
  param {
    lr_mult: 1
    decay_mult: 1
  }
  param {
    lr_mult: 2
    decay_mult: 0
  }
  convolution_param {
    num_output: 288
    pad: 1
    kernel_size: 3
    weight_filler {
      type: "xavier"
      std: 0.03
    }
    bias_filler {
      type: "constant"
      value: 0.2
    }
  }
}
layer {
  name: "inception_4d/relu_3x3"
  type: "ReLU"
  bottom: "inception_4d/3x3"
  top: "inception_4d/3x3"
}
layer {
  name: "inception_4d/5x5_reduce"
  type: "Convolution"
  bottom: "inception_4c/output"
  top: "inception_4d/5x5_reduce"
  param {
    lr_mult: 1
    decay_mult: 1
  }
  param {
    lr_mult: 2
    decay_mult: 0
  }
  convolution_param {
    num_output: 32
    kernel_size: 1
    weight_filler {
      type: "xavier"
      std: 0.2
    }
    bias_filler {
      type: "constant"
      value: 0.2
    }
  }
}
layer {
  name: "inception_4d/relu_5x5_reduce"
  type: "ReLU"
  bottom: "inception_4d/5x5_reduce"
  top: "inception_4d/5x5_reduce"
}
layer {
  name: "inception_4d/5x5"
  type: "Convolution"
  bottom: "inception_4d/5x5_reduce"
  top: "inception_4d/5x5"
  param {
    lr_mult: 1
    decay_mult: 1
  }
  param {
    lr_mult: 2
    decay_mult: 0
  }
  convolution_param {
    num_output: 64
    pad: 2
    kernel_size: 5
    weight_filler {
      type: "xavier"
      std: 0.03
    }
    bias_filler {
      type: "constant"
      value: 0.2
    }
  }
}
layer {
  name: "inception_4d/relu_5x5"
  type: "ReLU"
  bottom: "inception_4d/5x5"
  top: "inception_4d/5x5"
}
layer {
  name: "inception_4d/pool"
  type: "Pooling"
  bottom: "inception_4c/output"
  top: "inception_4d/pool"
  pooling_param {
    pool: MAX
    kernel_size: 3
    stride: 1
    pad: 1
  }
}
layer {
  name: "inception_4d/pool_proj"
  type: "Convolution"
  bottom: "inception_4d/pool"
  top: "inception_4d/pool_proj"
  param {
    lr_mult: 1
    decay_mult: 1
  }
  param {
    lr_mult: 2
    decay_mult: 0
  }
  convolution_param {
    num_output: 64
    kernel_size: 1
    weight_filler {
      type: "xavier"
      std: 0.1
    }
    bias_filler {
      type: "constant"
      value: 0.2
    }
  }
}
layer {
  name: "inception_4d/relu_pool_proj"
  type: "ReLU"
  bottom: "inception_4d/pool_proj"
  top: "inception_4d/pool_proj"
}
layer {
  name: "inception_4d/output"
  type: "Concat"
  bottom: "inception_4d/1x1"
  bottom: "inception_4d/3x3"
  bottom: "inception_4d/5x5"
  bottom: "inception_4d/pool_proj"
  top: "inception_4d/output"
}
layer {
  name: "inception_4e/1x1"
  type: "Convolution"
  bottom: "inception_4d/output"
  top: "inception_4e/1x1"
  param {
    lr_mult: 1
    decay_mult: 1
  }
  param {
    lr_mult: 2
    decay_mult: 0
  }
  convolution_param {
    num_output: 256
    kernel_size: 1
    weight_filler {
      type: "xavier"
      std: 0.03
    }
    bias_filler {
      type: "constant"
      value: 0.2
    }
  }
}
layer {
  name: "inception_4e/relu_1x1"
  type: "ReLU"
  bottom: "inception_4e/1x1"
  top: "inception_4e/1x1"
}
layer {
  name: "inception_4e/3x3_reduce"
  type: "Convolution"
  bottom: "inception_4d/output"
  top: "inception_4e/3x3_reduce"
  param {
    lr_mult: 1
    decay_mult: 1
  }
  param {
    lr_mult: 2
    decay_mult: 0
  }
  convolution_param {
    num_output: 160
    kernel_size: 1
    weight_filler {
      type: "xavier"
      std: 0.09
    }
    bias_filler {
      type: "constant"
      value: 0.2
    }
  }
}
layer {
  name: "inception_4e/relu_3x3_reduce"
  type: "ReLU"
  bottom: "inception_4e/3x3_reduce"
  top: "inception_4e/3x3_reduce"
}
layer {
  name: "inception_4e/3x3"
  type: "Convolution"
  bottom: "inception_4e/3x3_reduce"
  top: "inception_4e/3x3"
  param {
    lr_mult: 1
    decay_mult: 1
  }
  param {
    lr_mult: 2
    decay_mult: 0
  }
  convolution_param {
    num_output: 320
    pad: 1
    kernel_size: 3
    weight_filler {
      type: "xavier"
      std: 0.03
    }
    bias_filler {
      type: "constant"
      value: 0.2
    }
  }
}
layer {
  name: "inception_4e/relu_3x3"
  type: "ReLU"
  bottom: "inception_4e/3x3"
  top: "inception_4e/3x3"
}
layer {
  name: "inception_4e/5x5_reduce"
  type: "Convolution"
  bottom: "inception_4d/output"
  top: "inception_4e/5x5_reduce"
  param {
    lr_mult: 1
    decay_mult: 1
  }
  param {
    lr_mult: 2
    decay_mult: 0
  }
  convolution_param {
    num_output: 32
    kernel_size: 1
    weight_filler {
      type: "xavier"
      std: 0.2
    }
    bias_filler {
      type: "constant"
      value: 0.2
    }
  }
}
layer {
  name: "inception_4e/relu_5x5_reduce"
  type: "ReLU"
  bottom: "inception_4e/5x5_reduce"
  top: "inception_4e/5x5_reduce"
}
layer {
  name: "inception_4e/5x5"
  type: "Convolution"
  bottom: "inception_4e/5x5_reduce"
  top: "inception_4e/5x5"
  param {
    lr_mult: 1
    decay_mult: 1
  }
  param {
    lr_mult: 2
    decay_mult: 0
  }
  convolution_param {
    num_output: 128
    pad: 2
    kernel_size: 5
    weight_filler {
      type: "xavier"
      std: 0.03
    }
    bias_filler {
      type: "constant"
      value: 0.2
    }
  }
}
layer {
  name: "inception_4e/relu_5x5"
  type: "ReLU"
  bottom: "inception_4e/5x5"
  top: "inception_4e/5x5"
}
layer {
  name: "inception_4e/pool"
  type: "Pooling"
  bottom: "inception_4d/output"
  top: "inception_4e/pool"
  pooling_param {
    pool: MAX
    kernel_size: 3
    stride: 1
    pad: 1
  }
}
layer {
  name: "inception_4e/pool_proj"
  type: "Convolution"
  bottom: "inception_4e/pool"
  top: "inception_4e/pool_proj"
  param {
    lr_mult: 1
    decay_mult: 1
  }
  param {
    lr_mult: 2
    decay_mult: 0
  }
  convolution_param {
    num_output: 128
    kernel_size: 1
    weight_filler {
      type: "xavier"
      std: 0.1
    }
    bias_filler {
      type: "constant"
      value: 0.2
    }
  }
}
layer {
  name: "inception_4e/relu_pool_proj"
  type: "ReLU"
  bottom: "inception_4e/pool_proj"
  top: "inception_4e/pool_proj"
}
layer {
  name: "inception_4e/output"
  type: "Concat"
  bottom: "inception_4e/1x1"
  bottom: "inception_4e/3x3"
  bottom: "inception_4e/5x5"
  bottom: "inception_4e/pool_proj"
  top: "inception_4e/output"
}
layer {
  name: "pool4/3x3_s2"
  type: "Pooling"
  bottom: "inception_4e/output"
  top: "pool4/3x3_s2"
  pooling_param {
    pool: MAX
    kernel_size: 3
    stride: 2
  }
}
layer {
  name: "inception_5a/1x1"
  type: "Convolution"
  bottom: "pool4/3x3_s2"
  top: "inception_5a/1x1"
  param {
    lr_mult: 1
    decay_mult: 1
  }
  param {
    lr_mult: 2
    decay_mult: 0
  }
  convolution_param {
    num_output: 256
    kernel_size: 1
    weight_filler {
      type: "xavier"
      std: 0.03
    }
    bias_filler {
      type: "constant"
      value: 0.2
    }
  }
}
layer {
  name: "inception_5a/relu_1x1"
  type: "ReLU"
  bottom: "inception_5a/1x1"
  top: "inception_5a/1x1"
}
layer {
  name: "inception_5a/3x3_reduce"
  type: "Convolution"
  bottom: "pool4/3x3_s2"
  top: "inception_5a/3x3_reduce"
  param {
    lr_mult: 1
    decay_mult: 1
  }
  param {
    lr_mult: 2
    decay_mult: 0
  }
  convolution_param {
    num_output: 160
    kernel_size: 1
    weight_filler {
      type: "xavier"
      std: 0.09
    }
    bias_filler {
      type: "constant"
      value: 0.2
    }
  }
}
layer {
  name: "inception_5a/relu_3x3_reduce"
  type: "ReLU"
  bottom: "inception_5a/3x3_reduce"
  top: "inception_5a/3x3_reduce"
}
layer {
  name: "inception_5a/3x3"
  type: "Convolution"
  bottom: "inception_5a/3x3_reduce"
  top: "inception_5a/3x3"
  param {
    lr_mult: 1
    decay_mult: 1
  }
  param {
    lr_mult: 2
    decay_mult: 0
  }
  convolution_param {
    num_output: 320
    pad: 1
    kernel_size: 3
    weight_filler {
      type: "xavier"
      std: 0.03
    }
    bias_filler {
      type: "constant"
      value: 0.2
    }
  }
}
layer {
  name: "inception_5a/relu_3x3"
  type: "ReLU"
  bottom: "inception_5a/3x3"
  top: "inception_5a/3x3"
}
layer {
  name: "inception_5a/5x5_reduce"
  type: "Convolution"
  bottom: "pool4/3x3_s2"
  top: "inception_5a/5x5_reduce"
  param {
    lr_mult: 1
    decay_mult: 1
  }
  param {
    lr_mult: 2
    decay_mult: 0
  }
  convolution_param {
    num_output: 32
    kernel_size: 1
    weight_filler {
      type: "xavier"
      std: 0.2
    }
    bias_filler {
      type: "constant"
      value: 0.2
    }
I0714 21:40:15.745431  4798 layer_factory.hpp:77] Creating layer data
I0714 21:40:15.745453  4798 net.cpp:91] Creating Layer data
I0714 21:40:15.745462  4798 net.cpp:399] data -> data
I0714 21:40:16.808353  4802 net.cpp:141] Setting up data
I0714 21:40:16.808429  4802 net.cpp:148] Top shape: 10 3 224 224 (1505280)
I0714 21:40:16.808436  4802 net.cpp:156] Memory required for data: 6021120
I0714 21:40:16.808459  4802 layer_factory.hpp:77] Creating layer conv1/7x7_s2
I0714 21:40:16.808498  4802 net.cpp:91] Creating Layer conv1/7x7_s2
I0714 21:40:16.808508  4802 net.cpp:425] conv1/7x7_s2 <- data
I0714 21:40:16.808523  4802 net.cpp:399] conv1/7x7_s2 -> conv1/7x7_s2
I0714 21:40:16.812643  4798 net.cpp:141] Setting up data
I0714 21:40:16.812687  4798 net.cpp:148] Top shape: 10 3 224 224 (1505280)
I0714 21:40:16.812700  4798 net.cpp:156] Memory required for data: 6021120
I0714 21:40:16.812712  4798 layer_factory.hpp:77] Creating layer conv1/7x7_s2
I0714 21:40:16.812743  4798 net.cpp:91] Creating Layer conv1/7x7_s2
I0714 21:40:16.812754  4798 net.cpp:425] conv1/7x7_s2 <- data
I0714 21:40:16.812770  4798 net.cpp:399] conv1/7x7_s2 -> conv1/7x7_s2
I0714 21:40:17.242771  4802 net.cpp:141] Setting up conv1/7x7_s2
I0714 21:40:17.242821  4802 net.cpp:148] Top shape: 10 64 112 112 (8028160)
I0714 21:40:17.242828  4802 net.cpp:156] Memory required for data: 38133760
I0714 21:40:17.242858  4802 layer_factory.hpp:77] Creating layer conv1/relu_7x7
I0714 21:40:17.242877  4802 net.cpp:91] Creating Layer conv1/relu_7x7
I0714 21:40:17.242885  4802 net.cpp:425] conv1/relu_7x7 <- conv1/7x7_s2
I0714 21:40:17.242898  4802 net.cpp:386] conv1/relu_7x7 -> conv1/7x7_s2 (in-place)
I0714 21:40:17.243899  4802 net.cpp:141] Setting up conv1/relu_7x7
I0714 21:40:17.243918  4802 net.cpp:148] Top shape: 10 64 112 112 (8028160)
I0714 21:40:17.243924  4802 net.cpp:156] Memory required for data: 70246400
I0714 21:40:17.243930  4802 layer_factory.hpp:77] Creating layer pool1/3x3_s2
I0714 21:40:17.243948  4802 net.cpp:91] Creating Layer pool1/3x3_s2
I0714 21:40:17.243954  4802 net.cpp:425] pool1/3x3_s2 <- conv1/7x7_s2
I0714 21:40:17.243963  4802 net.cpp:399] pool1/3x3_s2 -> pool1/3x3_s2
I0714 21:40:17.249397  4802 net.cpp:141] Setting up pool1/3x3_s2
I0714 21:40:17.249420  4802 net.cpp:148] Top shape: 10 64 56 56 (2007040)
I0714 21:40:17.249426  4802 net.cpp:156] Memory required for data: 78274560
I0714 21:40:17.249433  4802 layer_factory.hpp:77] Creating layer pool1/norm1
I0714 21:40:17.249457  4802 net.cpp:91] Creating Layer pool1/norm1
I0714 21:40:17.249464  4802 net.cpp:425] pool1/norm1 <- pool1/3x3_s2
I0714 21:40:17.249475  4802 net.cpp:399] pool1/norm1 -> pool1/norm1
I0714 21:40:17.253762  4802 net.cpp:141] Setting up pool1/norm1
I0714 21:40:17.253785  4802 net.cpp:148] Top shape: 10 64 56 56 (2007040)
I0714 21:40:17.253790  4802 net.cpp:156] Memory required for data: 86302720
I0714 21:40:17.253798  4802 layer_factory.hpp:77] Creating layer conv2/3x3_reduce
I0714 21:40:17.253826  4802 net.cpp:91] Creating Layer conv2/3x3_reduce
I0714 21:40:17.253834  4802 net.cpp:425] conv2/3x3_reduce <- pool1/norm1
I0714 21:40:17.253846  4802 net.cpp:399] conv2/3x3_reduce -> conv2/3x3_reduce
I0714 21:40:17.261785  4798 net.cpp:141] Setting up conv1/7x7_s2
I0714 21:40:17.261816  4798 net.cpp:148] Top shape: 10 64 112 112 (8028160)
I0714 21:40:17.261822  4798 net.cpp:156] Memory required for data: 38133760
I0714 21:40:17.261842  4798 layer_factory.hpp:77] Creating layer conv1/relu_7x7
I0714 21:40:17.261859  4798 net.cpp:91] Creating Layer conv1/relu_7x7
I0714 21:40:17.261867  4798 net.cpp:425] conv1/relu_7x7 <- conv1/7x7_s2
I0714 21:40:17.261874  4798 net.cpp:386] conv1/relu_7x7 -> conv1/7x7_s2 (in-place)
I0714 21:40:17.262670  4798 net.cpp:141] Setting up conv1/relu_7x7
I0714 21:40:17.262697  4798 net.cpp:148] Top shape: 10 64 112 112 (8028160)
I0714 21:40:17.262703  4798 net.cpp:156] Memory required for data: 70246400
I0714 21:40:17.262709  4798 layer_factory.hpp:77] Creating layer pool1/3x3_s2
I0714 21:40:17.262724  4798 net.cpp:91] Creating Layer pool1/3x3_s2
I0714 21:40:17.262730  4798 net.cpp:425] pool1/3x3_s2 <- conv1/7x7_s2
I0714 21:40:17.262740  4798 net.cpp:399] pool1/3x3_s2 -> pool1/3x3_s2
I0714 21:40:17.263135  4798 net.cpp:141] Setting up pool1/3x3_s2
I0714 21:40:17.263150  4798 net.cpp:148] Top shape: 10 64 56 56 (2007040)
I0714 21:40:17.263156  4798 net.cpp:156] Memory required for data: 78274560
I0714 21:40:17.263162  4798 layer_factory.hpp:77] Creating layer pool1/norm1
I0714 21:40:17.263180  4798 net.cpp:91] Creating Layer pool1/norm1
I0714 21:40:17.263190  4798 net.cpp:425] pool1/norm1 <- pool1/3x3_s2
I0714 21:40:17.263196  4798 net.cpp:399] pool1/norm1 -> pool1/norm1
I0714 21:40:17.264360  4802 net.cpp:141] Setting up conv2/3x3_reduce
I0714 21:40:17.264376  4798 net.cpp:141] Setting up pool1/norm1
I0714 21:40:17.264384  4802 net.cpp:148] Top shape: 10 64 56 56 (2007040)
I0714 21:40:17.264390  4802 net.cpp:156] Memory required for data: 94330880
I0714 21:40:17.264391  4798 net.cpp:148] Top shape: 10 64 56 56 (2007040)
I0714 21:40:17.264399  4798 net.cpp:156] Memory required for data: 86302720
I0714 21:40:17.264405  4798 layer_factory.hpp:77] Creating layer conv2/3x3_reduce
I0714 21:40:17.264407  4802 layer_factory.hpp:77] Creating layer conv2/relu_3x3_reduce
I0714 21:40:17.264421  4802 net.cpp:91] Creating Layer conv2/relu_3x3_reduce
I0714 21:40:17.264427  4802 net.cpp:425] conv2/relu_3x3_reduce <- conv2/3x3_reduce
I0714 21:40:17.264430  4798 net.cpp:91] Creating Layer conv2/3x3_reduce
I0714 21:40:17.264436  4802 net.cpp:386] conv2/relu_3x3_reduce -> conv2/3x3_reduce (in-place)
I0714 21:40:17.264436  4798 net.cpp:425] conv2/3x3_reduce <- pool1/norm1
I0714 21:40:17.264453  4798 net.cpp:399] conv2/3x3_reduce -> conv2/3x3_reduce
I0714 21:40:17.265475  4802 net.cpp:141] Setting up conv2/relu_3x3_reduce
I0714 21:40:17.265491  4802 net.cpp:148] Top shape: 10 64 56 56 (2007040)
I0714 21:40:17.265497  4802 net.cpp:156] Memory required for data: 102359040
I0714 21:40:17.265503  4802 layer_factory.hpp:77] Creating layer conv2/3x3
I0714 21:40:17.265522  4802 net.cpp:91] Creating Layer conv2/3x3
I0714 21:40:17.265528  4802 net.cpp:425] conv2/3x3 <- conv2/3x3_reduce
I0714 21:40:17.265542  4802 net.cpp:399] conv2/3x3 -> conv2/3x3
I0714 21:40:17.271101  4798 net.cpp:141] Setting up conv2/3x3_reduce
I0714 21:40:17.271126  4798 net.cpp:148] Top shape: 10 64 56 56 (2007040)
I0714 21:40:17.271132  4798 net.cpp:156] Memory required for data: 94330880
I0714 21:40:17.271147  4798 layer_factory.hpp:77] Creating layer conv2/relu_3x3_reduce
I0714 21:40:17.271162  4798 net.cpp:91] Creating Layer conv2/relu_3x3_reduce
I0714 21:40:17.271168  4798 net.cpp:425] conv2/relu_3x3_reduce <- conv2/3x3_reduce
I0714 21:40:17.271176  4798 net.cpp:386] conv2/relu_3x3_reduce -> conv2/3x3_reduce (in-place)
I0714 21:40:17.272083  4798 net.cpp:141] Setting up conv2/relu_3x3_reduce
I0714 21:40:17.272099  4798 net.cpp:148] Top shape: 10 64 56 56 (2007040)
I0714 21:40:17.272104  4798 net.cpp:156] Memory required for data: 102359040
I0714 21:40:17.272110  4798 layer_factory.hpp:77] Creating layer conv2/3x3
I0714 21:40:17.272133  4798 net.cpp:91] Creating Layer conv2/3x3
I0714 21:40:17.272140  4798 net.cpp:425] conv2/3x3 <- conv2/3x3_reduce
I0714 21:40:17.272150  4798 net.cpp:399] conv2/3x3 -> conv2/3x3
I0714 21:40:17.276820  4802 net.cpp:141] Setting up conv2/3x3
I0714 21:40:17.276844  4802 net.cpp:148] Top shape: 10 192 56 56 (6021120)
I0714 21:40:17.276854  4802 net.cpp:156] Memory required for data: 126443520
I0714 21:40:17.276876  4802 layer_factory.hpp:77] Creating layer conv2/relu_3x3
I0714 21:40:17.276890  4802 net.cpp:91] Creating Layer conv2/relu_3x3
I0714 21:40:17.276896  4802 net.cpp:425] conv2/relu_3x3 <- conv2/3x3
I0714 21:40:17.276909  4802 net.cpp:386] conv2/relu_3x3 -> conv2/3x3 (in-place)
I0714 21:40:17.277256  4802 net.cpp:141] Setting up conv2/relu_3x3
I0714 21:40:17.277272  4802 net.cpp:148] Top shape: 10 192 56 56 (6021120)
I0714 21:40:17.277277  4802 net.cpp:156] Memory required for data: 150528000
I0714 21:40:17.277283  4802 layer_factory.hpp:77] Creating layer conv2/norm2
I0714 21:40:17.277294  4802 net.cpp:91] Creating Layer conv2/norm2
I0714 21:40:17.277300  4802 net.cpp:425] conv2/norm2 <- conv2/3x3
I0714 21:40:17.277312  4802 net.cpp:399] conv2/norm2 -> conv2/norm2
I0714 21:40:17.278916  4802 net.cpp:141] Setting up conv2/norm2
I0714 21:40:17.278934  4802 net.cpp:148] Top shape: 10 192 56 56 (6021120)
I0714 21:40:17.278939  4802 net.cpp:156] Memory required for data: 174612480
I0714 21:40:17.278945  4802 layer_factory.hpp:77] Creating layer pool2/3x3_s2
I0714 21:40:17.278959  4802 net.cpp:91] Creating Layer pool2/3x3_s2
I0714 21:40:17.278964  4802 net.cpp:425] pool2/3x3_s2 <- conv2/norm2
I0714 21:40:17.278973  4802 net.cpp:399] pool2/3x3_s2 -> pool2/3x3_s2
I0714 21:40:17.279165  4802 net.cpp:141] Setting up pool2/3x3_s2
I0714 21:40:17.279177  4802 net.cpp:148] Top shape: 10 192 28 28 (1505280)
I0714 21:40:17.279183  4802 net.cpp:156] Memory required for data: 180633600
I0714 21:40:17.279189  4802 layer_factory.hpp:77] Creating layer pool2/3x3_s2_pool2/3x3_s2_0_split
I0714 21:40:17.279214  4802 net.cpp:91] Creating Layer pool2/3x3_s2_pool2/3x3_s2_0_split
I0714 21:40:17.279220  4802 net.cpp:425] pool2/3x3_s2_pool2/3x3_s2_0_split <- pool2/3x3_s2
I0714 21:40:17.279228  4802 net.cpp:399] pool2/3x3_s2_pool2/3x3_s2_0_split -> pool2/3x3_s2_pool2/3x3_s2_0_split_0
I0714 21:40:17.279239  4802 net.cpp:399] pool2/3x3_s2_pool2/3x3_s2_0_split -> pool2/3x3_s2_pool2/3x3_s2_0_split_1
I0714 21:40:17.279248  4802 net.cpp:399] pool2/3x3_s2_pool2/3x3_s2_0_split -> pool2/3x3_s2_pool2/3x3_s2_0_split_2
I0714 21:40:17.279258  4802 net.cpp:399] pool2/3x3_s2_pool2/3x3_s2_0_split -> pool2/3x3_s2_pool2/3x3_s2_0_split_3
I0714 21:40:17.280027  4798 net.cpp:141] Setting up conv2/3x3
I0714 21:40:17.280047  4798 net.cpp:148] Top shape: 10 192 56 56 (6021120)
I0714 21:40:17.280053  4798 net.cpp:156] Memory required for data: 126443520
I0714 21:40:17.280069  4798 layer_factory.hpp:77] Creating layer conv2/relu_3x3
I0714 21:40:17.280082  4798 net.cpp:91] Creating Layer conv2/relu_3x3
I0714 21:40:17.280088  4798 net.cpp:425] conv2/relu_3x3 <- conv2/3x3
I0714 21:40:17.280095  4798 net.cpp:386] conv2/relu_3x3 -> conv2/3x3 (in-place)
I0714 21:40:17.280095  4802 net.cpp:141] Setting up pool2/3x3_s2_pool2/3x3_s2_0_split
I0714 21:40:17.280114  4802 net.cpp:148] Top shape: 10 192 28 28 (1505280)
I0714 21:40:17.280122  4802 net.cpp:148] Top shape: 10 192 28 28 (1505280)
I0714 21:40:17.280128  4802 net.cpp:148] Top shape: 10 192 28 28 (1505280)
I0714 21:40:17.280134  4802 net.cpp:148] Top shape: 10 192 28 28 (1505280)
I0714 21:40:17.280138  4802 net.cpp:156] Memory required for data: 204718080
I0714 21:40:17.280143  4802 layer_factory.hpp:77] Creating layer inception_3a/1x1
I0714 21:40:17.280165  4802 net.cpp:91] Creating Layer inception_3a/1x1
I0714 21:40:17.280172  4802 net.cpp:425] inception_3a/1x1 <- pool2/3x3_s2_pool2/3x3_s2_0_split_0
I0714 21:40:17.280202  4802 net.cpp:399] inception_3a/1x1 -> inception_3a/1x1
I0714 21:40:17.280522  4798 net.cpp:141] Setting up conv2/relu_3x3
I0714 21:40:17.280536  4798 net.cpp:148] Top shape: 10 192 56 56 (6021120)
I0714 21:40:17.280541  4798 net.cpp:156] Memory required for data: 150528000
I0714 21:40:17.280547  4798 layer_factory.hpp:77] Creating layer conv2/norm2
I0714 21:40:17.280560  4798 net.cpp:91] Creating Layer conv2/norm2
I0714 21:40:17.280565  4798 net.cpp:425] conv2/norm2 <- conv2/3x3
I0714 21:40:17.280573  4798 net.cpp:399] conv2/norm2 -> conv2/norm2
I0714 21:40:17.281946  4798 net.cpp:141] Setting up conv2/norm2
I0714 21:40:17.281963  4798 net.cpp:148] Top shape: 10 192 56 56 (6021120)
I0714 21:40:17.281968  4798 net.cpp:156] Memory required for data: 174612480
I0714 21:40:17.281976  4798 layer_factory.hpp:77] Creating layer pool2/3x3_s2
I0714 21:40:17.281991  4798 net.cpp:91] Creating Layer pool2/3x3_s2
I0714 21:40:17.281999  4798 net.cpp:425] pool2/3x3_s2 <- conv2/norm2
I0714 21:40:17.282009  4798 net.cpp:399] pool2/3x3_s2 -> pool2/3x3_s2
I0714 21:40:17.282338  4798 net.cpp:141] Setting up pool2/3x3_s2
I0714 21:40:17.282351  4798 net.cpp:148] Top shape: 10 192 28 28 (1505280)
I0714 21:40:17.282356  4798 net.cpp:156] Memory required for data: 180633600
I0714 21:40:17.282361  4798 layer_factory.hpp:77] Creating layer pool2/3x3_s2_pool2/3x3_s2_0_split
I0714 21:40:17.282374  4798 net.cpp:91] Creating Layer pool2/3x3_s2_pool2/3x3_s2_0_split
I0714 21:40:17.282379  4798 net.cpp:425] pool2/3x3_s2_pool2/3x3_s2_0_split <- pool2/3x3_s2
I0714 21:40:17.282387  4798 net.cpp:399] pool2/3x3_s2_pool2/3x3_s2_0_split -> pool2/3x3_s2_pool2/3x3_s2_0_split_0
I0714 21:40:17.282399  4798 net.cpp:399] pool2/3x3_s2_pool2/3x3_s2_0_split -> pool2/3x3_s2_pool2/3x3_s2_0_split_1
I0714 21:40:17.282408  4798 net.cpp:399] pool2/3x3_s2_pool2/3x3_s2_0_split -> pool2/3x3_s2_pool2/3x3_s2_0_split_2
I0714 21:40:17.282418  4798 net.cpp:399] pool2/3x3_s2_pool2/3x3_s2_0_split -> pool2/3x3_s2_pool2/3x3_s2_0_split_3
I0714 21:40:17.283407  4798 net.cpp:141] Setting up pool2/3x3_s2_pool2/3x3_s2_0_split
I0714 21:40:17.283422  4798 net.cpp:148] Top shape: 10 192 28 28 (1505280)
I0714 21:40:17.283429  4798 net.cpp:148] Top shape: 10 192 28 28 (1505280)
I0714 21:40:17.283435  4798 net.cpp:148] Top shape: 10 192 28 28 (1505280)
I0714 21:40:17.283442  4798 net.cpp:148] Top shape: 10 192 28 28 (1505280)
I0714 21:40:17.283447  4798 net.cpp:156] Memory required for data: 204718080
I0714 21:40:17.283452  4798 layer_factory.hpp:77] Creating layer inception_3a/1x1
I0714 21:40:17.283471  4798 net.cpp:91] Creating Layer inception_3a/1x1
I0714 21:40:17.283483  4798 net.cpp:425] inception_3a/1x1 <- pool2/3x3_s2_pool2/3x3_s2_0_split_0
I0714 21:40:17.283493  4798 net.cpp:399] inception_3a/1x1 -> inception_3a/1x1
I0714 21:40:17.287509  4802 net.cpp:141] Setting up inception_3a/1x1
I0714 21:40:17.287530  4802 net.cpp:148] Top shape: 10 64 28 28 (501760)
I0714 21:40:17.287536  4802 net.cpp:156] Memory required for data: 206725120
I0714 21:40:17.287549  4802 layer_factory.hpp:77] Creating layer inception_3a/relu_1x1
I0714 21:40:17.287559  4802 net.cpp:91] Creating Layer inception_3a/relu_1x1
I0714 21:40:17.287564  4802 net.cpp:425] inception_3a/relu_1x1 <- inception_3a/1x1
I0714 21:40:17.287576  4802 net.cpp:386] inception_3a/relu_1x1 -> inception_3a/1x1 (in-place)
I0714 21:40:17.287989  4802 net.cpp:141] Setting up inception_3a/relu_1x1
I0714 21:40:17.288003  4802 net.cpp:148] Top shape: 10 64 28 28 (501760)
I0714 21:40:17.288009  4802 net.cpp:156] Memory required for data: 208732160
I0714 21:40:17.288014  4802 layer_factory.hpp:77] Creating layer inception_3a/3x3_reduce
I0714 21:40:17.288034  4802 net.cpp:91] Creating Layer inception_3a/3x3_reduce
I0714 21:40:17.288041  4802 net.cpp:425] inception_3a/3x3_reduce <- pool2/3x3_s2_pool2/3x3_s2_0_split_1
I0714 21:40:17.288051  4802 net.cpp:399] inception_3a/3x3_reduce -> inception_3a/3x3_reduce
I0714 21:40:17.294353  4798 net.cpp:141] Setting up inception_3a/1x1
I0714 21:40:17.294383  4798 net.cpp:148] Top shape: 10 64 28 28 (501760)
I0714 21:40:17.294389  4798 net.cpp:156] Memory required for data: 206725120
I0714 21:40:17.294399  4798 layer_factory.hpp:77] Creating layer inception_3a/relu_1x1
I0714 21:40:17.294410  4798 net.cpp:91] Creating Layer inception_3a/relu_1x1
I0714 21:40:17.294416  4798 net.cpp:425] inception_3a/relu_1x1 <- inception_3a/1x1
I0714 21:40:17.294425  4798 net.cpp:386] inception_3a/relu_1x1 -> inception_3a/1x1 (in-place)
I0714 21:40:17.294752  4798 net.cpp:141] Setting up inception_3a/relu_1x1
I0714 21:40:17.294766  4798 net.cpp:148] Top shape: 10 64 28 28 (501760)
I0714 21:40:17.294771  4798 net.cpp:156] Memory required for data: 208732160
I0714 21:40:17.294777  4798 layer_factory.hpp:77] Creating layer inception_3a/3x3_reduce
I0714 21:40:17.294796  4798 net.cpp:91] Creating Layer inception_3a/3x3_reduce
I0714 21:40:17.294803  4798 net.cpp:425] inception_3a/3x3_reduce <- pool2/3x3_s2_pool2/3x3_s2_0_split_1
I0714 21:40:17.294816  4798 net.cpp:399] inception_3a/3x3_reduce -> inception_3a/3x3_reduce
I0714 21:40:17.299540  4802 net.cpp:141] Setting up inception_3a/3x3_reduce
I0714 21:40:17.299563  4802 net.cpp:148] Top shape: 10 96 28 28 (752640)
I0714 21:40:17.299569  4802 net.cpp:156] Memory required for data: 211742720
I0714 21:40:17.299585  4802 layer_factory.hpp:77] Creating layer inception_3a/relu_3x3_reduce
I0714 21:40:17.299595  4802 net.cpp:91] Creating Layer inception_3a/relu_3x3_reduce
I0714 21:40:17.299602  4802 net.cpp:425] inception_3a/relu_3x3_reduce <- inception_3a/3x3_reduce
I0714 21:40:17.299609  4802 net.cpp:386] inception_3a/relu_3x3_reduce -> inception_3a/3x3_reduce (in-place)
I0714 21:40:17.300004  4802 net.cpp:141] Setting up inception_3a/relu_3x3_reduce
I0714 21:40:17.300016  4802 net.cpp:148] Top shape: 10 96 28 28 (752640)
I0714 21:40:17.300021  4802 net.cpp:156] Memory required for data: 214753280
I0714 21:40:17.300027  4802 layer_factory.hpp:77] Creating layer inception_3a/3x3
I0714 21:40:17.300052  4802 net.cpp:91] Creating Layer inception_3a/3x3
I0714 21:40:17.300060  4802 net.cpp:425] inception_3a/3x3 <- inception_3a/3x3_reduce
I0714 21:40:17.300068  4802 net.cpp:399] inception_3a/3x3 -> inception_3a/3x3
I0714 21:40:17.301391  4798 net.cpp:141] Setting up inception_3a/3x3_reduce
I0714 21:40:17.301412  4798 net.cpp:148] Top shape: 10 96 28 28 (752640)
I0714 21:40:17.301419  4798 net.cpp:156] Memory required for data: 211742720
I0714 21:40:17.301435  4798 layer_factory.hpp:77] Creating layer inception_3a/relu_3x3_reduce
I0714 21:40:17.301448  4798 net.cpp:91] Creating Layer inception_3a/relu_3x3_reduce
I0714 21:40:17.301457  4798 net.cpp:425] inception_3a/relu_3x3_reduce <- inception_3a/3x3_reduce
I0714 21:40:17.301465  4798 net.cpp:386] inception_3a/relu_3x3_reduce -> inception_3a/3x3_reduce (in-place)
I0714 21:40:17.301745  4798 net.cpp:141] Setting up inception_3a/relu_3x3_reduce
I0714 21:40:17.301759  4798 net.cpp:148] Top shape: 10 96 28 28 (752640)
I0714 21:40:17.301764  4798 net.cpp:156] Memory required for data: 214753280
I0714 21:40:17.301769  4798 layer_factory.hpp:77] Creating layer inception_3a/3x3
I0714 21:40:17.301794  4798 net.cpp:91] Creating Layer inception_3a/3x3
I0714 21:40:17.301800  4798 net.cpp:425] inception_3a/3x3 <- inception_3a/3x3_reduce
I0714 21:40:17.301810  4798 net.cpp:399] inception_3a/3x3 -> inception_3a/3x3
I0714 21:40:17.305402  4802 net.cpp:141] Setting up inception_3a/3x3
I0714 21:40:17.305421  4802 net.cpp:148] Top shape: 10 128 28 28 (1003520)
I0714 21:40:17.305426  4802 net.cpp:156] Memory required for data: 218767360
I0714 21:40:17.305438  4802 layer_factory.hpp:77] Creating layer inception_3a/relu_3x3
I0714 21:40:17.305449  4802 net.cpp:91] Creating Layer inception_3a/relu_3x3
I0714 21:40:17.305457  4802 net.cpp:425] inception_3a/relu_3x3 <- inception_3a/3x3
I0714 21:40:17.305465  4802 net.cpp:386] inception_3a/relu_3x3 -> inception_3a/3x3 (in-place)
I0714 21:40:17.306504  4802 net.cpp:141] Setting up inception_3a/relu_3x3
I0714 21:40:17.306509  4798 net.cpp:141] Setting up inception_3a/3x3
I0714 21:40:17.306520  4802 net.cpp:148] Top shape: 10 128 28 28 (1003520)
I0714 21:40:17.306525  4802 net.cpp:156] Memory required for data: 222781440
I0714 21:40:17.306526  4798 net.cpp:148] Top shape: 10 128 28 28 (1003520)
I0714 21:40:17.306531  4802 layer_factory.hpp:77] Creating layer inception_3a/5x5_reduce
I0714 21:40:17.306532  4798 net.cpp:156] Memory required for data: 218767360
I0714 21:40:17.306550  4798 layer_factory.hpp:77] Creating layer inception_3a/relu_3x3
I0714 21:40:17.306557  4802 net.cpp:91] Creating Layer inception_3a/5x5_reduce
I0714 21:40:17.306563  4798 net.cpp:91] Creating Layer inception_3a/relu_3x3
I0714 21:40:17.306566  4802 net.cpp:425] inception_3a/5x5_reduce <- pool2/3x3_s2_pool2/3x3_s2_0_split_2
I0714 21:40:17.306571  4798 net.cpp:425] inception_3a/relu_3x3 <- inception_3a/3x3
I0714 21:40:17.306578  4798 net.cpp:386] inception_3a/relu_3x3 -> inception_3a/3x3 (in-place)
I0714 21:40:17.306581  4802 net.cpp:399] inception_3a/5x5_reduce -> inception_3a/5x5_reduce
I0714 21:40:17.307607  4798 net.cpp:141] Setting up inception_3a/relu_3x3
I0714 21:40:17.307624  4798 net.cpp:148] Top shape: 10 128 28 28 (1003520)
I0714 21:40:17.307631  4798 net.cpp:156] Memory required for data: 222781440
I0714 21:40:17.307636  4798 layer_factory.hpp:77] Creating layer inception_3a/5x5_reduce
I0714 21:40:17.307658  4798 net.cpp:91] Creating Layer inception_3a/5x5_reduce
I0714 21:40:17.307665  4798 net.cpp:425] inception_3a/5x5_reduce <- pool2/3x3_s2_pool2/3x3_s2_0_split_2
I0714 21:40:17.307675  4798 net.cpp:399] inception_3a/5x5_reduce -> inception_3a/5x5_reduce
I0714 21:40:17.312013  4802 net.cpp:141] Setting up inception_3a/5x5_reduce
I0714 21:40:17.312032  4802 net.cpp:148] Top shape: 10 16 28 28 (125440)
I0714 21:40:17.312038  4802 net.cpp:156] Memory required for data: 223283200
I0714 21:40:17.312048  4802 layer_factory.hpp:77] Creating layer inception_3a/relu_5x5_reduce
I0714 21:40:17.312058  4802 net.cpp:91] Creating Layer inception_3a/relu_5x5_reduce
I0714 21:40:17.312065  4802 net.cpp:425] inception_3a/relu_5x5_reduce <- inception_3a/5x5_reduce
I0714 21:40:17.312073  4802 net.cpp:386] inception_3a/relu_5x5_reduce -> inception_3a/5x5_reduce (in-place)
I0714 21:40:17.312485  4802 net.cpp:141] Setting up inception_3a/relu_5x5_reduce
I0714 21:40:17.312500  4802 net.cpp:148] Top shape: 10 16 28 28 (125440)
I0714 21:40:17.312505  4802 net.cpp:156] Memory required for data: 223784960
I0714 21:40:17.312510  4802 layer_factory.hpp:77] Creating layer inception_3a/5x5
I0714 21:40:17.312528  4802 net.cpp:91] Creating Layer inception_3a/5x5
I0714 21:40:17.312536  4802 net.cpp:425] inception_3a/5x5 <- inception_3a/5x5_reduce
I0714 21:40:17.312546  4802 net.cpp:399] inception_3a/5x5 -> inception_3a/5x5
I0714 21:40:17.312649  4798 net.cpp:141] Setting up inception_3a/5x5_reduce
I0714 21:40:17.312665  4798 net.cpp:148] Top shape: 10 16 28 28 (125440)
I0714 21:40:17.312670  4798 net.cpp:156] Memory required for data: 223283200
I0714 21:40:17.312680  4798 layer_factory.hpp:77] Creating layer inception_3a/relu_5x5_reduce
I0714 21:40:17.312693  4798 net.cpp:91] Creating Layer inception_3a/relu_5x5_reduce
I0714 21:40:17.312700  4798 net.cpp:425] inception_3a/relu_5x5_reduce <- inception_3a/5x5_reduce
I0714 21:40:17.312711  4798 net.cpp:386] inception_3a/relu_5x5_reduce -> inception_3a/5x5_reduce (in-place)
I0714 21:40:17.313123  4798 net.cpp:141] Setting up inception_3a/relu_5x5_reduce
I0714 21:40:17.313136  4798 net.cpp:148] Top shape: 10 16 28 28 (125440)
I0714 21:40:17.313141  4798 net.cpp:156] Memory required for data: 223784960
I0714 21:40:17.313148  4798 layer_factory.hpp:77] Creating layer inception_3a/5x5
I0714 21:40:17.313166  4798 net.cpp:91] Creating Layer inception_3a/5x5
I0714 21:40:17.313174  4798 net.cpp:425] inception_3a/5x5 <- inception_3a/5x5_reduce
I0714 21:40:17.313185  4798 net.cpp:399] inception_3a/5x5 -> inception_3a/5x5
I0714 21:40:17.318832  4802 net.cpp:141] Setting up inception_3a/5x5
I0714 21:40:17.318853  4802 net.cpp:148] Top shape: 10 32 28 28 (250880)
I0714 21:40:17.318859  4802 net.cpp:156] Memory required for data: 224788480
I0714 21:40:17.318869  4802 layer_factory.hpp:77] Creating layer inception_3a/relu_5x5
I0714 21:40:17.318884  4802 net.cpp:91] Creating Layer inception_3a/relu_5x5
I0714 21:40:17.318891  4802 net.cpp:425] inception_3a/relu_5x5 <- inception_3a/5x5
I0714 21:40:17.318899  4802 net.cpp:386] inception_3a/relu_5x5 -> inception_3a/5x5 (in-place)
I0714 21:40:17.319299  4802 net.cpp:141] Setting up inception_3a/relu_5x5
I0714 21:40:17.319313  4802 net.cpp:148] Top shape: 10 32 28 28 (250880)
I0714 21:40:17.319317  4802 net.cpp:156] Memory required for data: 225792000
I0714 21:40:17.319324  4802 layer_factory.hpp:77] Creating layer inception_3a/pool
I0714 21:40:17.319335  4802 net.cpp:91] Creating Layer inception_3a/pool
I0714 21:40:17.319341  4802 net.cpp:425] inception_3a/pool <- pool2/3x3_s2_pool2/3x3_s2_0_split_3
I0714 21:40:17.319355  4802 net.cpp:399] inception_3a/pool -> inception_3a/pool
I0714 21:40:17.319954  4798 net.cpp:141] Setting up inception_3a/5x5
I0714 21:40:17.319974  4798 net.cpp:148] Top shape: 10 32 28 28 (250880)
I0714 21:40:17.319980  4798 net.cpp:156] Memory required for data: 224788480
I0714 21:40:17.319991  4798 layer_factory.hpp:77] Creating layer inception_3a/relu_5x5
I0714 21:40:17.319993  4802 net.cpp:141] Setting up inception_3a/pool
I0714 21:40:17.320001  4798 net.cpp:91] Creating Layer inception_3a/relu_5x5
I0714 21:40:17.320006  4802 net.cpp:148] Top shape: 10 192 28 28 (1505280)
I0714 21:40:17.320008  4798 net.cpp:425] inception_3a/relu_5x5 <- inception_3a/5x5
I0714 21:40:17.320013  4802 net.cpp:156] Memory required for data: 231813120
I0714 21:40:17.320019  4802 layer_factory.hpp:77] Creating layer inception_3a/pool_proj
I0714 21:40:17.320020  4798 net.cpp:386] inception_3a/relu_5x5 -> inception_3a/5x5 (in-place)
I0714 21:40:17.320037  4802 net.cpp:91] Creating Layer inception_3a/pool_proj
I0714 21:40:17.320044  4802 net.cpp:425] inception_3a/pool_proj <- inception_3a/pool
I0714 21:40:17.320056  4802 net.cpp:399] inception_3a/pool_proj -> inception_3a/pool_proj
I0714 21:40:17.320411  4798 net.cpp:141] Setting up inception_3a/relu_5x5
I0714 21:40:17.320425  4798 net.cpp:148] Top shape: 10 32 28 28 (250880)
I0714 21:40:17.320430  4798 net.cpp:156] Memory required for data: 225792000
I0714 21:40:17.320436  4798 layer_factory.hpp:77] Creating layer inception_3a/pool
I0714 21:40:17.320449  4798 net.cpp:91] Creating Layer inception_3a/pool
I0714 21:40:17.320454  4798 net.cpp:425] inception_3a/pool <- pool2/3x3_s2_pool2/3x3_s2_0_split_3
I0714 21:40:17.320463  4798 net.cpp:399] inception_3a/pool -> inception_3a/pool
I0714 21:40:17.320680  4798 net.cpp:141] Setting up inception_3a/pool
I0714 21:40:17.320693  4798 net.cpp:148] Top shape: 10 192 28 28 (1505280)
I0714 21:40:17.320698  4798 net.cpp:156] Memory required for data: 231813120
I0714 21:40:17.320703  4798 layer_factory.hpp:77] Creating layer inception_3a/pool_proj
I0714 21:40:17.320719  4798 net.cpp:91] Creating Layer inception_3a/pool_proj
I0714 21:40:17.320726  4798 net.cpp:425] inception_3a/pool_proj <- inception_3a/pool
I0714 21:40:17.320739  4798 net.cpp:399] inception_3a/pool_proj -> inception_3a/pool_proj
I0714 21:40:17.324760  4802 net.cpp:141] Setting up inception_3a/pool_proj
I0714 21:40:17.324782  4802 net.cpp:148] Top shape: 10 32 28 28 (250880)
I0714 21:40:17.324787  4802 net.cpp:156] Memory required for data: 232816640
I0714 21:40:17.324803  4802 layer_factory.hpp:77] Creating layer inception_3a/relu_pool_proj
I0714 21:40:17.324813  4802 net.cpp:91] Creating Layer inception_3a/relu_pool_proj
I0714 21:40:17.324820  4802 net.cpp:425] inception_3a/relu_pool_proj <- inception_3a/pool_proj
I0714 21:40:17.324832  4802 net.cpp:386] inception_3a/relu_pool_proj -> inception_3a/pool_proj (in-place)
I0714 21:40:17.325811  4802 net.cpp:141] Setting up inception_3a/relu_pool_proj
I0714 21:40:17.325827  4802 net.cpp:148] Top shape: 10 32 28 28 (250880)
I0714 21:40:17.325834  4802 net.cpp:156] Memory required for data: 233820160
I0714 21:40:17.325839  4802 layer_factory.hpp:77] Creating layer inception_3a/output
I0714 21:40:17.325858  4802 net.cpp:91] Creating Layer inception_3a/output
I0714 21:40:17.325865  4802 net.cpp:425] inception_3a/output <- inception_3a/1x1
I0714 21:40:17.325872  4802 net.cpp:425] inception_3a/output <- inception_3a/3x3
I0714 21:40:17.325878  4802 net.cpp:425] inception_3a/output <- inception_3a/5x5
I0714 21:40:17.325884  4802 net.cpp:425] inception_3a/output <- inception_3a/pool_proj
I0714 21:40:17.325896  4802 net.cpp:399] inception_3a/output -> inception_3a/output
I0714 21:40:17.325940  4798 net.cpp:141] Setting up inception_3a/pool_proj
I0714 21:40:17.325956  4798 net.cpp:148] Top shape: 10 32 28 28 (250880)
I0714 21:40:17.325963  4798 net.cpp:156] Memory required for data: 232816640
I0714 21:40:17.325975  4802 net.cpp:141] Setting up inception_3a/output
I0714 21:40:17.325979  4798 layer_factory.hpp:77] Creating layer inception_3a/relu_pool_proj
I0714 21:40:17.325986  4802 net.cpp:148] Top shape: 10 256 28 28 (2007040)
I0714 21:40:17.325990  4798 net.cpp:91] Creating Layer inception_3a/relu_pool_proj
I0714 21:40:17.325992  4802 net.cpp:156] Memory required for data: 241848320
I0714 21:40:17.325996  4798 net.cpp:425] inception_3a/relu_pool_proj <- inception_3a/pool_proj
I0714 21:40:17.325999  4802 layer_factory.hpp:77] Creating layer inception_3a/output_inception_3a/output_0_split
I0714 21:40:17.326004  4798 net.cpp:386] inception_3a/relu_pool_proj -> inception_3a/pool_proj (in-place)
I0714 21:40:17.326014  4802 net.cpp:91] Creating Layer inception_3a/output_inception_3a/output_0_split
I0714 21:40:17.326020  4802 net.cpp:425] inception_3a/output_inception_3a/output_0_split <- inception_3a/output
I0714 21:40:17.326028  4802 net.cpp:399] inception_3a/output_inception_3a/output_0_split -> inception_3a/output_inception_3a/output_0_split_0
I0714 21:40:17.326037  4802 net.cpp:399] inception_3a/output_inception_3a/output_0_split -> inception_3a/output_inception_3a/output_0_split_1
I0714 21:40:17.326050  4802 net.cpp:399] inception_3a/output_inception_3a/output_0_split -> inception_3a/output_inception_3a/output_0_split_2
I0714 21:40:17.326058  4802 net.cpp:399] inception_3a/output_inception_3a/output_0_split -> inception_3a/output_inception_3a/output_0_split_3
I0714 21:40:17.326913  4802 net.cpp:141] Setting up inception_3a/output_inception_3a/output_0_split
I0714 21:40:17.326928  4802 net.cpp:148] Top shape: 10 256 28 28 (2007040)
I0714 21:40:17.326936  4802 net.cpp:148] Top shape: 10 256 28 28 (2007040)
I0714 21:40:17.326941  4802 net.cpp:148] Top shape: 10 256 28 28 (2007040)
I0714 21:40:17.326947  4802 net.cpp:148] Top shape: 10 256 28 28 (2007040)
I0714 21:40:17.326946  4798 net.cpp:141] Setting up inception_3a/relu_pool_proj
I0714 21:40:17.326951  4802 net.cpp:156] Memory required for data: 273960960
I0714 21:40:17.326964  4802 layer_factory.hpp:77] Creating layer inception_3b/1x1
I0714 21:40:17.326967  4798 net.cpp:148] Top shape: 10 32 28 28 (250880)
I0714 21:40:17.326972  4798 net.cpp:156] Memory required for data: 233820160
I0714 21:40:17.326978  4798 layer_factory.hpp:77] Creating layer inception_3a/output
I0714 21:40:17.326983  4802 net.cpp:91] Creating Layer inception_3b/1x1
I0714 21:40:17.326987  4798 net.cpp:91] Creating Layer inception_3a/output
I0714 21:40:17.326990  4802 net.cpp:425] inception_3b/1x1 <- inception_3a/output_inception_3a/output_0_split_0
I0714 21:40:17.326993  4798 net.cpp:425] inception_3a/output <- inception_3a/1x1
I0714 21:40:17.327000  4802 net.cpp:399] inception_3b/1x1 -> inception_3b/1x1
I0714 21:40:17.327002  4798 net.cpp:425] inception_3a/output <- inception_3a/3x3
I0714 21:40:17.327016  4798 net.cpp:425] inception_3a/output <- inception_3a/5x5
I0714 21:40:17.327023  4798 net.cpp:425] inception_3a/output <- inception_3a/pool_proj
I0714 21:40:17.327031  4798 net.cpp:399] inception_3a/output -> inception_3a/output
I0714 21:40:17.327167  4798 net.cpp:141] Setting up inception_3a/output
I0714 21:40:17.327180  4798 net.cpp:148] Top shape: 10 256 28 28 (2007040)
I0714 21:40:17.327185  4798 net.cpp:156] Memory required for data: 241848320
I0714 21:40:17.327190  4798 layer_factory.hpp:77] Creating layer inception_3a/output_inception_3a/output_0_split
I0714 21:40:17.327200  4798 net.cpp:91] Creating Layer inception_3a/output_inception_3a/output_0_split
I0714 21:40:17.327206  4798 net.cpp:425] inception_3a/output_inception_3a/output_0_split <- inception_3a/output
I0714 21:40:17.327214  4798 net.cpp:399] inception_3a/output_inception_3a/output_0_split -> inception_3a/output_inception_3a/output_0_split_0
I0714 21:40:17.327227  4798 net.cpp:399] inception_3a/output_inception_3a/output_0_split -> inception_3a/output_inception_3a/output_0_split_1
I0714 21:40:17.327236  4798 net.cpp:399] inception_3a/output_inception_3a/output_0_split -> inception_3a/output_inception_3a/output_0_split_2
I0714 21:40:17.327245  4798 net.cpp:399] inception_3a/output_inception_3a/output_0_split -> inception_3a/output_inception_3a/output_0_split_3
I0714 21:40:17.327626  4798 net.cpp:141] Setting up inception_3a/output_inception_3a/output_0_split
I0714 21:40:17.327639  4798 net.cpp:148] Top shape: 10 256 28 28 (2007040)
I0714 21:40:17.327646  4798 net.cpp:148] Top shape: 10 256 28 28 (2007040)
I0714 21:40:17.327651  4798 net.cpp:148] Top shape: 10 256 28 28 (2007040)
I0714 21:40:17.327657  4798 net.cpp:148] Top shape: 10 256 28 28 (2007040)
I0714 21:40:17.327661  4798 net.cpp:156] Memory required for data: 273960960
I0714 21:40:17.327667  4798 layer_factory.hpp:77] Creating layer inception_3b/1x1
I0714 21:40:17.327683  4798 net.cpp:91] Creating Layer inception_3b/1x1
I0714 21:40:17.327690  4798 net.cpp:425] inception_3b/1x1 <- inception_3a/output_inception_3a/output_0_split_0
I0714 21:40:17.327703  4798 net.cpp:399] inception_3b/1x1 -> inception_3b/1x1
I0714 21:40:17.331904  4802 net.cpp:141] Setting up inception_3b/1x1
I0714 21:40:17.331923  4802 net.cpp:148] Top shape: 10 128 28 28 (1003520)
I0714 21:40:17.331929  4802 net.cpp:156] Memory required for data: 277975040
I0714 21:40:17.331939  4802 layer_factory.hpp:77] Creating layer inception_3b/relu_1x1
I0714 21:40:17.331951  4802 net.cpp:91] Creating Layer inception_3b/relu_1x1
I0714 21:40:17.331959  4802 net.cpp:425] inception_3b/relu_1x1 <- inception_3b/1x1
I0714 21:40:17.331966  4802 net.cpp:386] inception_3b/relu_1x1 -> inception_3b/1x1 (in-place)
I0714 21:40:17.332365  4802 net.cpp:141] Setting up inception_3b/relu_1x1
I0714 21:40:17.332378  4802 net.cpp:148] Top shape: 10 128 28 28 (1003520)
I0714 21:40:17.332383  4802 net.cpp:156] Memory required for data: 281989120
I0714 21:40:17.332391  4802 layer_factory.hpp:77] Creating layer inception_3b/3x3_reduce
I0714 21:40:17.332412  4802 net.cpp:91] Creating Layer inception_3b/3x3_reduce
I0714 21:40:17.332419  4802 net.cpp:425] inception_3b/3x3_reduce <- inception_3a/output_inception_3a/output_0_split_1
I0714 21:40:17.332428  4802 net.cpp:399] inception_3b/3x3_reduce -> inception_3b/3x3_reduce
I0714 21:40:17.332492  4798 net.cpp:141] Setting up inception_3b/1x1
I0714 21:40:17.332509  4798 net.cpp:148] Top shape: 10 128 28 28 (1003520)
I0714 21:40:17.332515  4798 net.cpp:156] Memory required for data: 277975040
I0714 21:40:17.332525  4798 layer_factory.hpp:77] Creating layer inception_3b/relu_1x1
I0714 21:40:17.332537  4798 net.cpp:91] Creating Layer inception_3b/relu_1x1
I0714 21:40:17.332545  4798 net.cpp:425] inception_3b/relu_1x1 <- inception_3b/1x1
I0714 21:40:17.332552  4798 net.cpp:386] inception_3b/relu_1x1 -> inception_3b/1x1 (in-place)
I0714 21:40:17.332936  4798 net.cpp:141] Setting up inception_3b/relu_1x1
I0714 21:40:17.332949  4798 net.cpp:148] Top shape: 10 128 28 28 (1003520)
I0714 21:40:17.332954  4798 net.cpp:156] Memory required for data: 281989120
I0714 21:40:17.332959  4798 layer_factory.hpp:77] Creating layer inception_3b/3x3_reduce
I0714 21:40:17.332978  4798 net.cpp:91] Creating Layer inception_3b/3x3_reduce
I0714 21:40:17.332984  4798 net.cpp:425] inception_3b/3x3_reduce <- inception_3a/output_inception_3a/output_0_split_1
I0714 21:40:17.332996  4798 net.cpp:399] inception_3b/3x3_reduce -> inception_3b/3x3_reduce
I0714 21:40:17.336774  4802 net.cpp:141] Setting up inception_3b/3x3_reduce
I0714 21:40:17.336794  4802 net.cpp:148] Top shape: 10 128 28 28 (1003520)
I0714 21:40:17.336801  4802 net.cpp:156] Memory required for data: 286003200
I0714 21:40:17.336812  4802 layer_factory.hpp:77] Creating layer inception_3b/relu_3x3_reduce
I0714 21:40:17.336822  4802 net.cpp:91] Creating Layer inception_3b/relu_3x3_reduce
I0714 21:40:17.336827  4802 net.cpp:425] inception_3b/relu_3x3_reduce <- inception_3b/3x3_reduce
I0714 21:40:17.336848  4802 net.cpp:386] inception_3b/relu_3x3_reduce -> inception_3b/3x3_reduce (in-place)
I0714 21:40:17.337174  4798 net.cpp:141] Setting up inception_3b/3x3_reduce
I0714 21:40:17.337193  4798 net.cpp:148] Top shape: 10 128 28 28 (1003520)
I0714 21:40:17.337198  4798 net.cpp:156] Memory required for data: 286003200
I0714 21:40:17.337208  4798 layer_factory.hpp:77] Creating layer inception_3b/relu_3x3_reduce
I0714 21:40:17.337213  4802 net.cpp:141] Setting up inception_3b/relu_3x3_reduce
I0714 21:40:17.337218  4798 net.cpp:91] Creating Layer inception_3b/relu_3x3_reduce
I0714 21:40:17.337231  4802 net.cpp:148] Top shape: 10 128 28 28 (1003520)
I0714 21:40:17.337234  4798 net.cpp:425] inception_3b/relu_3x3_reduce <- inception_3b/3x3_reduce
I0714 21:40:17.337237  4802 net.cpp:156] Memory required for data: 290017280
I0714 21:40:17.337242  4802 layer_factory.hpp:77] Creating layer inception_3b/3x3
I0714 21:40:17.337244  4798 net.cpp:386] inception_3b/relu_3x3_reduce -> inception_3b/3x3_reduce (in-place)
I0714 21:40:17.337262  4802 net.cpp:91] Creating Layer inception_3b/3x3
I0714 21:40:17.337270  4802 net.cpp:425] inception_3b/3x3 <- inception_3b/3x3_reduce
I0714 21:40:17.337280  4802 net.cpp:399] inception_3b/3x3 -> inception_3b/3x3
I0714 21:40:17.337672  4798 net.cpp:141] Setting up inception_3b/relu_3x3_reduce
I0714 21:40:17.337685  4798 net.cpp:148] Top shape: 10 128 28 28 (1003520)
I0714 21:40:17.337690  4798 net.cpp:156] Memory required for data: 290017280
I0714 21:40:17.337697  4798 layer_factory.hpp:77] Creating layer inception_3b/3x3
I0714 21:40:17.337716  4798 net.cpp:91] Creating Layer inception_3b/3x3
I0714 21:40:17.337723  4798 net.cpp:425] inception_3b/3x3 <- inception_3b/3x3_reduce
I0714 21:40:17.337736  4798 net.cpp:399] inception_3b/3x3 -> inception_3b/3x3
I0714 21:40:17.345691  4802 net.cpp:141] Setting up inception_3b/3x3
I0714 21:40:17.345712  4802 net.cpp:148] Top shape: 10 192 28 28 (1505280)
I0714 21:40:17.345718  4802 net.cpp:156] Memory required for data: 296038400
I0714 21:40:17.345729  4802 layer_factory.hpp:77] Creating layer inception_3b/relu_3x3
I0714 21:40:17.345748  4802 net.cpp:91] Creating Layer inception_3b/relu_3x3
I0714 21:40:17.345755  4802 net.cpp:425] inception_3b/relu_3x3 <- inception_3b/3x3
I0714 21:40:17.345764  4802 net.cpp:386] inception_3b/relu_3x3 -> inception_3b/3x3 (in-place)
I0714 21:40:17.346807  4802 net.cpp:141] Setting up inception_3b/relu_3x3
I0714 21:40:17.346827  4802 net.cpp:148] Top shape: 10 192 28 28 (1505280)
I0714 21:40:17.346833  4802 net.cpp:156] Memory required for data: 302059520
I0714 21:40:17.346839  4802 layer_factory.hpp:77] Creating layer inception_3b/5x5_reduce
I0714 21:40:17.346859  4802 net.cpp:91] Creating Layer inception_3b/5x5_reduce
I0714 21:40:17.346866  4802 net.cpp:425] inception_3b/5x5_reduce <- inception_3a/output_inception_3a/output_0_split_2
I0714 21:40:17.346876  4802 net.cpp:399] inception_3b/5x5_reduce -> inception_3b/5x5_reduce
I0714 21:40:17.346946  4798 net.cpp:141] Setting up inception_3b/3x3
I0714 21:40:17.346963  4798 net.cpp:148] Top shape: 10 192 28 28 (1505280)
I0714 21:40:17.346969  4798 net.cpp:156] Memory required for data: 296038400
I0714 21:40:17.346979  4798 layer_factory.hpp:77] Creating layer inception_3b/relu_3x3
I0714 21:40:17.347007  4798 net.cpp:91] Creating Layer inception_3b/relu_3x3
I0714 21:40:17.347014  4798 net.cpp:425] inception_3b/relu_3x3 <- inception_3b/3x3
I0714 21:40:17.347025  4798 net.cpp:386] inception_3b/relu_3x3 -> inception_3b/3x3 (in-place)
I0714 21:40:17.348065  4798 net.cpp:141] Setting up inception_3b/relu_3x3
I0714 21:40:17.348083  4798 net.cpp:148] Top shape: 10 192 28 28 (1505280)
I0714 21:40:17.348088  4798 net.cpp:156] Memory required for data: 302059520
I0714 21:40:17.348094  4798 layer_factory.hpp:77] Creating layer inception_3b/5x5_reduce
I0714 21:40:17.348114  4798 net.cpp:91] Creating Layer inception_3b/5x5_reduce
I0714 21:40:17.348121  4798 net.cpp:425] inception_3b/5x5_reduce <- inception_3a/output_inception_3a/output_0_split_2
I0714 21:40:17.348135  4798 net.cpp:399] inception_3b/5x5_reduce -> inception_3b/5x5_reduce
I0714 21:40:17.352349  4802 net.cpp:141] Setting up inception_3b/5x5_reduce
I0714 21:40:17.352371  4802 net.cpp:148] Top shape: 10 32 28 28 (250880)
I0714 21:40:17.352377  4802 net.cpp:156] Memory required for data: 303063040
I0714 21:40:17.352387  4802 layer_factory.hpp:77] Creating layer inception_3b/relu_5x5_reduce
I0714 21:40:17.352397  4802 net.cpp:91] Creating Layer inception_3b/relu_5x5_reduce
I0714 21:40:17.352404  4802 net.cpp:425] inception_3b/relu_5x5_reduce <- inception_3b/5x5_reduce
I0714 21:40:17.352412  4802 net.cpp:386] inception_3b/relu_5x5_reduce -> inception_3b/5x5_reduce (in-place)
I0714 21:40:17.352869  4802 net.cpp:141] Setting up inception_3b/relu_5x5_reduce
I0714 21:40:17.352885  4802 net.cpp:148] Top shape: 10 32 28 28 (250880)
I0714 21:40:17.352890  4802 net.cpp:156] Memory required for data: 304066560
I0714 21:40:17.352895  4802 layer_factory.hpp:77] Creating layer inception_3b/5x5
I0714 21:40:17.352918  4802 net.cpp:91] Creating Layer inception_3b/5x5
I0714 21:40:17.352926  4802 net.cpp:425] inception_3b/5x5 <- inception_3b/5x5_reduce
I0714 21:40:17.352939  4802 net.cpp:399] inception_3b/5x5 -> inception_3b/5x5
I0714 21:40:17.352982  4798 net.cpp:141] Setting up inception_3b/5x5_reduce
I0714 21:40:17.352998  4798 net.cpp:148] Top shape: 10 32 28 28 (250880)
I0714 21:40:17.353003  4798 net.cpp:156] Memory required for data: 303063040
I0714 21:40:17.353013  4798 layer_factory.hpp:77] Creating layer inception_3b/relu_5x5_reduce
I0714 21:40:17.353027  4798 net.cpp:91] Creating Layer inception_3b/relu_5x5_reduce
I0714 21:40:17.353034  4798 net.cpp:425] inception_3b/relu_5x5_reduce <- inception_3b/5x5_reduce
I0714 21:40:17.353045  4798 net.cpp:386] inception_3b/relu_5x5_reduce -> inception_3b/5x5_reduce (in-place)
I0714 21:40:17.353436  4798 net.cpp:141] Setting up inception_3b/relu_5x5_reduce
I0714 21:40:17.353449  4798 net.cpp:148] Top shape: 10 32 28 28 (250880)
I0714 21:40:17.353454  4798 net.cpp:156] Memory required for data: 304066560
I0714 21:40:17.353459  4798 layer_factory.hpp:77] Creating layer inception_3b/5x5
I0714 21:40:17.353482  4798 net.cpp:91] Creating Layer inception_3b/5x5
I0714 21:40:17.353488  4798 net.cpp:425] inception_3b/5x5 <- inception_3b/5x5_reduce
I0714 21:40:17.353497  4798 net.cpp:399] inception_3b/5x5 -> inception_3b/5x5
I0714 21:40:17.360677  4802 net.cpp:141] Setting up inception_3b/5x5
I0714 21:40:17.360699  4802 net.cpp:148] Top shape: 10 96 28 28 (752640)
I0714 21:40:17.360705  4802 net.cpp:156] Memory required for data: 307077120
I0714 21:40:17.360715  4802 layer_factory.hpp:77] Creating layer inception_3b/relu_5x5
I0714 21:40:17.360730  4802 net.cpp:91] Creating Layer inception_3b/relu_5x5
I0714 21:40:17.360738  4802 net.cpp:425] inception_3b/relu_5x5 <- inception_3b/5x5
I0714 21:40:17.360746  4802 net.cpp:386] inception_3b/relu_5x5 -> inception_3b/5x5 (in-place)
I0714 21:40:17.361054  4798 net.cpp:141] Setting up inception_3b/5x5
I0714 21:40:17.361070  4798 net.cpp:148] Top shape: 10 96 28 28 (752640)
I0714 21:40:17.361076  4798 net.cpp:156] Memory required for data: 307077120
I0714 21:40:17.361086  4798 layer_factory.hpp:77] Creating layer inception_3b/relu_5x5
I0714 21:40:17.361096  4798 net.cpp:91] Creating Layer inception_3b/relu_5x5
I0714 21:40:17.361104  4798 net.cpp:425] inception_3b/relu_5x5 <- inception_3b/5x5
I0714 21:40:17.361115  4798 net.cpp:386] inception_3b/relu_5x5 -> inception_3b/5x5 (in-place)
I0714 21:40:17.361122  4802 net.cpp:141] Setting up inception_3b/relu_5x5
I0714 21:40:17.361135  4802 net.cpp:148] Top shape: 10 96 28 28 (752640)
I0714 21:40:17.361140  4802 net.cpp:156] Memory required for data: 310087680
I0714 21:40:17.361146  4802 layer_factory.hpp:77] Creating layer inception_3b/pool
I0714 21:40:17.361157  4802 net.cpp:91] Creating Layer inception_3b/pool
I0714 21:40:17.361165  4802 net.cpp:425] inception_3b/pool <- inception_3a/output_inception_3a/output_0_split_3
I0714 21:40:17.361176  4802 net.cpp:399] inception_3b/pool -> inception_3b/pool
I0714 21:40:17.361428  4802 net.cpp:141] Setting up inception_3b/pool
I0714 21:40:17.361440  4802 net.cpp:148] Top shape: 10 256 28 28 (2007040)
I0714 21:40:17.361444  4802 net.cpp:156] Memory required for data: 318115840
I0714 21:40:17.361450  4802 layer_factory.hpp:77] Creating layer inception_3b/pool_proj
I0714 21:40:17.361469  4802 net.cpp:91] Creating Layer inception_3b/pool_proj
I0714 21:40:17.361476  4802 net.cpp:425] inception_3b/pool_proj <- inception_3b/pool
I0714 21:40:17.361488  4802 net.cpp:399] inception_3b/pool_proj -> inception_3b/pool_proj
I0714 21:40:17.361490  4798 net.cpp:141] Setting up inception_3b/relu_5x5
I0714 21:40:17.361505  4798 net.cpp:148] Top shape: 10 96 28 28 (752640)
I0714 21:40:17.361510  4798 net.cpp:156] Memory required for data: 310087680
I0714 21:40:17.361515  4798 layer_factory.hpp:77] Creating layer inception_3b/pool
I0714 21:40:17.361527  4798 net.cpp:91] Creating Layer inception_3b/pool
I0714 21:40:17.361533  4798 net.cpp:425] inception_3b/pool <- inception_3a/output_inception_3a/output_0_split_3
I0714 21:40:17.361541  4798 net.cpp:399] inception_3b/pool -> inception_3b/pool
I0714 21:40:17.361794  4798 net.cpp:141] Setting up inception_3b/pool
I0714 21:40:17.361806  4798 net.cpp:148] Top shape: 10 256 28 28 (2007040)
I0714 21:40:17.361811  4798 net.cpp:156] Memory required for data: 318115840
I0714 21:40:17.361819  4798 layer_factory.hpp:77] Creating layer inception_3b/pool_proj
I0714 21:40:17.361835  4798 net.cpp:91] Creating Layer inception_3b/pool_proj
I0714 21:40:17.361842  4798 net.cpp:425] inception_3b/pool_proj <- inception_3b/pool
I0714 21:40:17.361855  4798 net.cpp:399] inception_3b/pool_proj -> inception_3b/pool_proj
I0714 21:40:17.365644  4802 net.cpp:141] Setting up inception_3b/pool_proj
I0714 21:40:17.365667  4802 net.cpp:148] Top shape: 10 64 28 28 (501760)
I0714 21:40:17.365674  4802 net.cpp:156] Memory required for data: 320122880
I0714 21:40:17.365684  4802 layer_factory.hpp:77] Creating layer inception_3b/relu_pool_proj
I0714 21:40:17.365694  4802 net.cpp:91] Creating Layer inception_3b/relu_pool_proj
I0714 21:40:17.365700  4802 net.cpp:425] inception_3b/relu_pool_proj <- inception_3b/pool_proj
I0714 21:40:17.365707  4802 net.cpp:386] inception_3b/relu_pool_proj -> inception_3b/pool_proj (in-place)
I0714 21:40:17.366768  4802 net.cpp:141] Setting up inception_3b/relu_pool_proj
I0714 21:40:17.366786  4802 net.cpp:148] Top shape: 10 64 28 28 (501760)
I0714 21:40:17.366792  4802 net.cpp:156] Memory required for data: 322129920
I0714 21:40:17.366798  4802 layer_factory.hpp:77] Creating layer inception_3b/output
I0714 21:40:17.366811  4802 net.cpp:91] Creating Layer inception_3b/output
I0714 21:40:17.366816  4802 net.cpp:425] inception_3b/output <- inception_3b/1x1
I0714 21:40:17.366824  4802 net.cpp:425] inception_3b/output <- inception_3b/3x3
I0714 21:40:17.366830  4802 net.cpp:425] inception_3b/output <- inception_3b/5x5
I0714 21:40:17.366837  4802 net.cpp:425] inception_3b/output <- inception_3b/pool_proj
I0714 21:40:17.366843  4802 net.cpp:399] inception_3b/output -> inception_3b/output
I0714 21:40:17.366861  4798 net.cpp:141] Setting up inception_3b/pool_proj
I0714 21:40:17.366878  4798 net.cpp:148] Top shape: 10 64 28 28 (501760)
I0714 21:40:17.366883  4798 net.cpp:156] Memory required for data: 320122880
I0714 21:40:17.366894  4798 layer_factory.hpp:77] Creating layer inception_3b/relu_pool_proj
I0714 21:40:17.366904  4798 net.cpp:91] Creating Layer inception_3b/relu_pool_proj
I0714 21:40:17.366909  4798 net.cpp:425] inception_3b/relu_pool_proj <- inception_3b/pool_proj
I0714 21:40:17.366925  4798 net.cpp:386] inception_3b/relu_pool_proj -> inception_3b/pool_proj (in-place)
I0714 21:40:17.366930  4802 net.cpp:141] Setting up inception_3b/output
I0714 21:40:17.366941  4802 net.cpp:148] Top shape: 10 480 28 28 (3763200)
I0714 21:40:17.366945  4802 net.cpp:156] Memory required for data: 337182720
I0714 21:40:17.366951  4802 layer_factory.hpp:77] Creating layer pool3/3x3_s2
I0714 21:40:17.366961  4802 net.cpp:91] Creating Layer pool3/3x3_s2
I0714 21:40:17.366966  4802 net.cpp:425] pool3/3x3_s2 <- inception_3b/output
I0714 21:40:17.366991  4802 net.cpp:399] pool3/3x3_s2 -> pool3/3x3_s2
I0714 21:40:17.367878  4802 net.cpp:141] Setting up pool3/3x3_s2
I0714 21:40:17.367892  4802 net.cpp:148] Top shape: 10 480 14 14 (940800)
I0714 21:40:17.367897  4802 net.cpp:156] Memory required for data: 340945920
I0714 21:40:17.367903  4802 layer_factory.hpp:77] Creating layer pool3/3x3_s2_pool3/3x3_s2_0_split
I0714 21:40:17.367913  4802 net.cpp:91] Creating Layer pool3/3x3_s2_pool3/3x3_s2_0_split
I0714 21:40:17.367918  4802 net.cpp:425] pool3/3x3_s2_pool3/3x3_s2_0_split <- pool3/3x3_s2
I0714 21:40:17.367930  4802 net.cpp:399] pool3/3x3_s2_pool3/3x3_s2_0_split -> pool3/3x3_s2_pool3/3x3_s2_0_split_0
I0714 21:40:17.367940  4802 net.cpp:399] pool3/3x3_s2_pool3/3x3_s2_0_split -> pool3/3x3_s2_pool3/3x3_s2_0_split_1
I0714 21:40:17.367949  4802 net.cpp:399] pool3/3x3_s2_pool3/3x3_s2_0_split -> pool3/3x3_s2_pool3/3x3_s2_0_split_2
I0714 21:40:17.367957  4802 net.cpp:399] pool3/3x3_s2_pool3/3x3_s2_0_split -> pool3/3x3_s2_pool3/3x3_s2_0_split_3
I0714 21:40:17.367980  4798 net.cpp:141] Setting up inception_3b/relu_pool_proj
I0714 21:40:17.367996  4798 net.cpp:148] Top shape: 10 64 28 28 (501760)
I0714 21:40:17.368002  4798 net.cpp:156] Memory required for data: 322129920
I0714 21:40:17.368007  4798 layer_factory.hpp:77] Creating layer inception_3b/output
I0714 21:40:17.368018  4798 net.cpp:91] Creating Layer inception_3b/output
I0714 21:40:17.368024  4798 net.cpp:425] inception_3b/output <- inception_3b/1x1
I0714 21:40:17.368031  4798 net.cpp:425] inception_3b/output <- inception_3b/3x3
I0714 21:40:17.368037  4798 net.cpp:425] inception_3b/output <- inception_3b/5x5
I0714 21:40:17.368043  4798 net.cpp:425] inception_3b/output <- inception_3b/pool_proj
I0714 21:40:17.368053  4798 net.cpp:399] inception_3b/output -> inception_3b/output
I0714 21:40:17.368193  4798 net.cpp:141] Setting up inception_3b/output
I0714 21:40:17.368206  4798 net.cpp:148] Top shape: 10 480 28 28 (3763200)
I0714 21:40:17.368211  4798 net.cpp:156] Memory required for data: 337182720
I0714 21:40:17.368212  4802 net.cpp:141] Setting up pool3/3x3_s2_pool3/3x3_s2_0_split
I0714 21:40:17.368217  4798 layer_factory.hpp:77] Creating layer pool3/3x3_s2
I0714 21:40:17.368224  4802 net.cpp:148] Top shape: 10 480 14 14 (940800)
I0714 21:40:17.368230  4798 net.cpp:91] Creating Layer pool3/3x3_s2
I0714 21:40:17.368232  4802 net.cpp:148] Top shape: 10 480 14 14 (940800)
I0714 21:40:17.368237  4798 net.cpp:425] pool3/3x3_s2 <- inception_3b/output
I0714 21:40:17.368238  4802 net.cpp:148] Top shape: 10 480 14 14 (940800)
I0714 21:40:17.368244  4802 net.cpp:148] Top shape: 10 480 14 14 (940800)
I0714 21:40:17.368245  4798 net.cpp:399] pool3/3x3_s2 -> pool3/3x3_s2
I0714 21:40:17.368249  4802 net.cpp:156] Memory required for data: 355998720
I0714 21:40:17.368255  4802 layer_factory.hpp:77] Creating layer inception_4a/1x1
I0714 21:40:17.368271  4802 net.cpp:91] Creating Layer inception_4a/1x1
I0714 21:40:17.368278  4802 net.cpp:425] inception_4a/1x1 <- pool3/3x3_s2_pool3/3x3_s2_0_split_0
I0714 21:40:17.368290  4802 net.cpp:399] inception_4a/1x1 -> inception_4a/1x1
I0714 21:40:17.368389  4798 net.cpp:141] Setting up pool3/3x3_s2
I0714 21:40:17.368404  4798 net.cpp:148] Top shape: 10 480 14 14 (940800)
I0714 21:40:17.368409  4798 net.cpp:156] Memory required for data: 340945920
I0714 21:40:17.368417  4798 layer_factory.hpp:77] Creating layer pool3/3x3_s2_pool3/3x3_s2_0_split
I0714 21:40:17.368427  4798 net.cpp:91] Creating Layer pool3/3x3_s2_pool3/3x3_s2_0_split
I0714 21:40:17.368432  4798 net.cpp:425] pool3/3x3_s2_pool3/3x3_s2_0_split <- pool3/3x3_s2
I0714 21:40:17.368440  4798 net.cpp:399] pool3/3x3_s2_pool3/3x3_s2_0_split -> pool3/3x3_s2_pool3/3x3_s2_0_split_0
I0714 21:40:17.368449  4798 net.cpp:399] pool3/3x3_s2_pool3/3x3_s2_0_split -> pool3/3x3_s2_pool3/3x3_s2_0_split_1
I0714 21:40:17.368461  4798 net.cpp:399] pool3/3x3_s2_pool3/3x3_s2_0_split -> pool3/3x3_s2_pool3/3x3_s2_0_split_2
I0714 21:40:17.368470  4798 net.cpp:399] pool3/3x3_s2_pool3/3x3_s2_0_split -> pool3/3x3_s2_pool3/3x3_s2_0_split_3
I0714 21:40:17.368849  4798 net.cpp:141] Setting up pool3/3x3_s2_pool3/3x3_s2_0_split
I0714 21:40:17.368865  4798 net.cpp:148] Top shape: 10 480 14 14 (940800)
I0714 21:40:17.368871  4798 net.cpp:148] Top shape: 10 480 14 14 (940800)
I0714 21:40:17.368877  4798 net.cpp:148] Top shape: 10 480 14 14 (940800)
I0714 21:40:17.368885  4798 net.cpp:148] Top shape: 10 480 14 14 (940800)
I0714 21:40:17.368888  4798 net.cpp:156] Memory required for data: 355998720
I0714 21:40:17.368893  4798 layer_factory.hpp:77] Creating layer inception_4a/1x1
I0714 21:40:17.368907  4798 net.cpp:91] Creating Layer inception_4a/1x1
I0714 21:40:17.368913  4798 net.cpp:425] inception_4a/1x1 <- pool3/3x3_s2_pool3/3x3_s2_0_split_0
I0714 21:40:17.368923  4798 net.cpp:399] inception_4a/1x1 -> inception_4a/1x1
I0714 21:40:17.374207  4802 net.cpp:141] Setting up inception_4a/1x1
I0714 21:40:17.374230  4802 net.cpp:148] Top shape: 10 192 14 14 (376320)
I0714 21:40:17.374236  4802 net.cpp:156] Memory required for data: 357504000
I0714 21:40:17.374248  4802 layer_factory.hpp:77] Creating layer inception_4a/relu_1x1
I0714 21:40:17.374263  4802 net.cpp:91] Creating Layer inception_4a/relu_1x1
I0714 21:40:17.374270  4802 net.cpp:425] inception_4a/relu_1x1 <- inception_4a/1x1
I0714 21:40:17.374279  4802 net.cpp:386] inception_4a/relu_1x1 -> inception_4a/1x1 (in-place)
I0714 21:40:17.374635  4798 net.cpp:141] Setting up inception_4a/1x1
I0714 21:40:17.374655  4798 net.cpp:148] Top shape: 10 192 14 14 (376320)
I0714 21:40:17.374660  4798 net.cpp:156] Memory required for data: 357504000
I0714 21:40:17.374670  4802 net.cpp:141] Setting up inception_4a/relu_1x1
I0714 21:40:17.374671  4798 layer_factory.hpp:77] Creating layer inception_4a/relu_1x1
I0714 21:40:17.374694  4802 net.cpp:148] Top shape: 10 192 14 14 (376320)
I0714 21:40:17.374701  4802 net.cpp:156] Memory required for data: 359009280
I0714 21:40:17.374703  4798 net.cpp:91] Creating Layer inception_4a/relu_1x1
I0714 21:40:17.374707  4802 layer_factory.hpp:77] Creating layer inception_4a/3x3_reduce
I0714 21:40:17.374711  4798 net.cpp:425] inception_4a/relu_1x1 <- inception_4a/1x1
I0714 21:40:17.374719  4798 net.cpp:386] inception_4a/relu_1x1 -> inception_4a/1x1 (in-place)
I0714 21:40:17.374728  4802 net.cpp:91] Creating Layer inception_4a/3x3_reduce
I0714 21:40:17.374735  4802 net.cpp:425] inception_4a/3x3_reduce <- pool3/3x3_s2_pool3/3x3_s2_0_split_1
I0714 21:40:17.374748  4802 net.cpp:399] inception_4a/3x3_reduce -> inception_4a/3x3_reduce
I0714 21:40:17.375174  4798 net.cpp:141] Setting up inception_4a/relu_1x1
I0714 21:40:17.375187  4798 net.cpp:148] Top shape: 10 192 14 14 (376320)
I0714 21:40:17.375192  4798 net.cpp:156] Memory required for data: 359009280
I0714 21:40:17.375197  4798 layer_factory.hpp:77] Creating layer inception_4a/3x3_reduce
I0714 21:40:17.375216  4798 net.cpp:91] Creating Layer inception_4a/3x3_reduce
I0714 21:40:17.375222  4798 net.cpp:425] inception_4a/3x3_reduce <- pool3/3x3_s2_pool3/3x3_s2_0_split_1
I0714 21:40:17.375236  4798 net.cpp:399] inception_4a/3x3_reduce -> inception_4a/3x3_reduce
I0714 21:40:17.379245  4802 net.cpp:141] Setting up inception_4a/3x3_reduce
I0714 21:40:17.379267  4802 net.cpp:148] Top shape: 10 96 14 14 (188160)
I0714 21:40:17.379273  4802 net.cpp:156] Memory required for data: 359761920
I0714 21:40:17.379292  4802 layer_factory.hpp:77] Creating layer inception_4a/relu_3x3_reduce
I0714 21:40:17.379307  4802 net.cpp:91] Creating Layer inception_4a/relu_3x3_reduce
I0714 21:40:17.379313  4802 net.cpp:425] inception_4a/relu_3x3_reduce <- inception_4a/3x3_reduce
I0714 21:40:17.379322  4802 net.cpp:386] inception_4a/relu_3x3_reduce -> inception_4a/3x3_reduce (in-place)
I0714 21:40:17.379659  4798 net.cpp:141] Setting up inception_4a/3x3_reduce
I0714 21:40:17.379675  4798 net.cpp:148] Top shape: 10 96 14 14 (188160)
I0714 21:40:17.379681  4798 net.cpp:156] Memory required for data: 359761920
I0714 21:40:17.379693  4802 net.cpp:141] Setting up inception_4a/relu_3x3_reduce
I0714 21:40:17.379708  4802 net.cpp:148] Top shape: 10 96 14 14 (188160)
I0714 21:40:17.379706  4798 layer_factory.hpp:77] Creating layer inception_4a/relu_3x3_reduce
I0714 21:40:17.379716  4802 net.cpp:156] Memory required for data: 360514560
I0714 21:40:17.379722  4802 layer_factory.hpp:77] Creating layer inception_4a/3x3
I0714 21:40:17.379725  4798 net.cpp:91] Creating Layer inception_4a/relu_3x3_reduce
I0714 21:40:17.379732  4798 net.cpp:425] inception_4a/relu_3x3_reduce <- inception_4a/3x3_reduce
I0714 21:40:17.379740  4798 net.cpp:386] inception_4a/relu_3x3_reduce -> inception_4a/3x3_reduce (in-place)
I0714 21:40:17.379742  4802 net.cpp:91] Creating Layer inception_4a/3x3
I0714 21:40:17.379750  4802 net.cpp:425] inception_4a/3x3 <- inception_4a/3x3_reduce
I0714 21:40:17.379762  4802 net.cpp:399] inception_4a/3x3 -> inception_4a/3x3
I0714 21:40:17.380173  4798 net.cpp:141] Setting up inception_4a/relu_3x3_reduce
I0714 21:40:17.380187  4798 net.cpp:148] Top shape: 10 96 14 14 (188160)
I0714 21:40:17.380192  4798 net.cpp:156] Memory required for data: 360514560
I0714 21:40:17.380197  4798 layer_factory.hpp:77] Creating layer inception_4a/3x3
I0714 21:40:17.380214  4798 net.cpp:91] Creating Layer inception_4a/3x3
I0714 21:40:17.380221  4798 net.cpp:425] inception_4a/3x3 <- inception_4a/3x3_reduce
I0714 21:40:17.380234  4798 net.cpp:399] inception_4a/3x3 -> inception_4a/3x3
I0714 21:40:17.391755  4802 net.cpp:141] Setting up inception_4a/3x3
I0714 21:40:17.391819  4802 net.cpp:148] Top shape: 10 208 14 14 (407680)
I0714 21:40:17.391831  4802 net.cpp:156] Memory required for data: 362145280
I0714 21:40:17.391856  4802 layer_factory.hpp:77] Creating layer inception_4a/relu_3x3
I0714 21:40:17.391880  4802 net.cpp:91] Creating Layer inception_4a/relu_3x3
I0714 21:40:17.391890  4798 net.cpp:141] Setting up inception_4a/3x3
I0714 21:40:17.391894  4802 net.cpp:425] inception_4a/relu_3x3 <- inception_4a/3x3
I0714 21:40:17.391912  4798 net.cpp:148] Top shape: 10 208 14 14 (407680)
I0714 21:40:17.391929  4798 net.cpp:156] Memory required for data: 362145280
I0714 21:40:17.391934  4802 net.cpp:386] inception_4a/relu_3x3 -> inception_4a/3x3 (in-place)
I0714 21:40:17.391942  4798 layer_factory.hpp:77] Creating layer inception_4a/relu_3x3
I0714 21:40:17.391953  4798 net.cpp:91] Creating Layer inception_4a/relu_3x3
I0714 21:40:17.391959  4798 net.cpp:425] inception_4a/relu_3x3 <- inception_4a/3x3
I0714 21:40:17.391971  4798 net.cpp:386] inception_4a/relu_3x3 -> inception_4a/3x3 (in-place)
I0714 21:40:17.393064  4798 net.cpp:141] Setting up inception_4a/relu_3x3
I0714 21:40:17.393079  4798 net.cpp:148] Top shape: 10 208 14 14 (407680)
I0714 21:40:17.393085  4798 net.cpp:156] Memory required for data: 363776000
I0714 21:40:17.393091  4798 layer_factory.hpp:77] Creating layer inception_4a/5x5_reduce
I0714 21:40:17.393110  4798 net.cpp:91] Creating Layer inception_4a/5x5_reduce
I0714 21:40:17.393117  4798 net.cpp:425] inception_4a/5x5_reduce <- pool3/3x3_s2_pool3/3x3_s2_0_split_2
I0714 21:40:17.393131  4798 net.cpp:399] inception_4a/5x5_reduce -> inception_4a/5x5_reduce
I0714 21:40:17.393988  4802 net.cpp:141] Setting up inception_4a/relu_3x3
I0714 21:40:17.394006  4802 net.cpp:148] Top shape: 10 208 14 14 (407680)
I0714 21:40:17.394012  4802 net.cpp:156] Memory required for data: 363776000
I0714 21:40:17.394018  4802 layer_factory.hpp:77] Creating layer inception_4a/5x5_reduce
I0714 21:40:17.394042  4802 net.cpp:91] Creating Layer inception_4a/5x5_reduce
I0714 21:40:17.394049  4802 net.cpp:425] inception_4a/5x5_reduce <- pool3/3x3_s2_pool3/3x3_s2_0_split_2
I0714 21:40:17.394063  4802 net.cpp:399] inception_4a/5x5_reduce -> inception_4a/5x5_reduce
I0714 21:40:17.398949  4798 net.cpp:141] Setting up inception_4a/5x5_reduce
I0714 21:40:17.398972  4798 net.cpp:148] Top shape: 10 16 14 14 (31360)
I0714 21:40:17.398978  4798 net.cpp:156] Memory required for data: 363901440
I0714 21:40:17.398988  4798 layer_factory.hpp:77] Creating layer inception_4a/relu_5x5_reduce
I0714 21:40:17.399001  4798 net.cpp:91] Creating Layer inception_4a/relu_5x5_reduce
I0714 21:40:17.399008  4798 net.cpp:425] inception_4a/relu_5x5_reduce <- inception_4a/5x5_reduce
I0714 21:40:17.399016  4798 net.cpp:386] inception_4a/relu_5x5_reduce -> inception_4a/5x5_reduce (in-place)
I0714 21:40:17.399544  4798 net.cpp:141] Setting up inception_4a/relu_5x5_reduce
I0714 21:40:17.399559  4798 net.cpp:148] Top shape: 10 16 14 14 (31360)
I0714 21:40:17.399564  4798 net.cpp:156] Memory required for data: 364026880
I0714 21:40:17.399569  4798 layer_factory.hpp:77] Creating layer inception_4a/5x5
I0714 21:40:17.399595  4798 net.cpp:91] Creating Layer inception_4a/5x5
I0714 21:40:17.399610  4798 net.cpp:425] inception_4a/5x5 <- inception_4a/5x5_reduce
I0714 21:40:17.399626  4798 net.cpp:399] inception_4a/5x5 -> inception_4a/5x5
I0714 21:40:17.399680  4802 net.cpp:141] Setting up inception_4a/5x5_reduce
I0714 21:40:17.399704  4802 net.cpp:148] Top shape: 10 16 14 14 (31360)
I0714 21:40:17.399716  4802 net.cpp:156] Memory required for data: 363901440
I0714 21:40:17.399735  4802 layer_factory.hpp:77] Creating layer inception_4a/relu_5x5_reduce
I0714 21:40:17.399751  4802 net.cpp:91] Creating Layer inception_4a/relu_5x5_reduce
I0714 21:40:17.399762  4802 net.cpp:425] inception_4a/relu_5x5_reduce <- inception_4a/5x5_reduce
I0714 21:40:17.399785  4802 net.cpp:386] inception_4a/relu_5x5_reduce -> inception_4a/5x5_reduce (in-place)
I0714 21:40:17.400490  4802 net.cpp:141] Setting up inception_4a/relu_5x5_reduce
I0714 21:40:17.400511  4802 net.cpp:148] Top shape: 10 16 14 14 (31360)
I0714 21:40:17.400517  4802 net.cpp:156] Memory required for data: 364026880
I0714 21:40:17.400523  4802 layer_factory.hpp:77] Creating layer inception_4a/5x5
I0714 21:40:17.400542  4802 net.cpp:91] Creating Layer inception_4a/5x5
I0714 21:40:17.400550  4802 net.cpp:425] inception_4a/5x5 <- inception_4a/5x5_reduce
I0714 21:40:17.400560  4802 net.cpp:399] inception_4a/5x5 -> inception_4a/5x5
I0714 21:40:17.404556  4798 net.cpp:141] Setting up inception_4a/5x5
I0714 21:40:17.404579  4798 net.cpp:148] Top shape: 10 48 14 14 (94080)
I0714 21:40:17.404587  4798 net.cpp:156] Memory required for data: 364403200
I0714 21:40:17.404597  4798 layer_factory.hpp:77] Creating layer inception_4a/relu_5x5
I0714 21:40:17.404608  4798 net.cpp:91] Creating Layer inception_4a/relu_5x5
I0714 21:40:17.404614  4798 net.cpp:425] inception_4a/relu_5x5 <- inception_4a/5x5
I0714 21:40:17.404623  4798 net.cpp:386] inception_4a/relu_5x5 -> inception_4a/5x5 (in-place)
I0714 21:40:17.404963  4798 net.cpp:141] Setting up inception_4a/relu_5x5
I0714 21:40:17.404976  4798 net.cpp:148] Top shape: 10 48 14 14 (94080)
I0714 21:40:17.404981  4798 net.cpp:156] Memory required for data: 364779520
I0714 21:40:17.404988  4798 layer_factory.hpp:77] Creating layer inception_4a/pool
I0714 21:40:17.405004  4798 net.cpp:91] Creating Layer inception_4a/pool
I0714 21:40:17.405010  4798 net.cpp:425] inception_4a/pool <- pool3/3x3_s2_pool3/3x3_s2_0_split_3
I0714 21:40:17.405019  4798 net.cpp:399] inception_4a/pool -> inception_4a/pool
I0714 21:40:17.405514  4798 net.cpp:141] Setting up inception_4a/pool
I0714 21:40:17.405529  4798 net.cpp:148] Top shape: 10 480 14 14 (940800)
I0714 21:40:17.405534  4798 net.cpp:156] Memory required for data: 368542720
I0714 21:40:17.405539  4798 layer_factory.hpp:77] Creating layer inception_4a/pool_proj
I0714 21:40:17.405557  4798 net.cpp:91] Creating Layer inception_4a/pool_proj
I0714 21:40:17.405565  4798 net.cpp:425] inception_4a/pool_proj <- inception_4a/pool
I0714 21:40:17.405597  4798 net.cpp:399] inception_4a/pool_proj -> inception_4a/pool_proj
I0714 21:40:17.406389  4802 net.cpp:141] Setting up inception_4a/5x5
I0714 21:40:17.406410  4802 net.cpp:148] Top shape: 10 48 14 14 (94080)
I0714 21:40:17.406417  4802 net.cpp:156] Memory required for data: 364403200
I0714 21:40:17.406427  4802 layer_factory.hpp:77] Creating layer inception_4a/relu_5x5
I0714 21:40:17.406442  4802 net.cpp:91] Creating Layer inception_4a/relu_5x5
I0714 21:40:17.406450  4802 net.cpp:425] inception_4a/relu_5x5 <- inception_4a/5x5
I0714 21:40:17.406458  4802 net.cpp:386] inception_4a/relu_5x5 -> inception_4a/5x5 (in-place)
I0714 21:40:17.406916  4802 net.cpp:141] Setting up inception_4a/relu_5x5
I0714 21:40:17.406930  4802 net.cpp:148] Top shape: 10 48 14 14 (94080)
I0714 21:40:17.406935  4802 net.cpp:156] Memory required for data: 364779520
I0714 21:40:17.406941  4802 layer_factory.hpp:77] Creating layer inception_4a/pool
I0714 21:40:17.406952  4802 net.cpp:91] Creating Layer inception_4a/pool
I0714 21:40:17.406958  4802 net.cpp:425] inception_4a/pool <- pool3/3x3_s2_pool3/3x3_s2_0_split_3
I0714 21:40:17.406971  4802 net.cpp:399] inception_4a/pool -> inception_4a/pool
I0714 21:40:17.407157  4802 net.cpp:141] Setting up inception_4a/pool
I0714 21:40:17.407169  4802 net.cpp:148] Top shape: 10 480 14 14 (940800)
I0714 21:40:17.407174  4802 net.cpp:156] Memory required for data: 368542720
I0714 21:40:17.407181  4802 layer_factory.hpp:77] Creating layer inception_4a/pool_proj
I0714 21:40:17.407197  4802 net.cpp:91] Creating Layer inception_4a/pool_proj
I0714 21:40:17.407204  4802 net.cpp:425] inception_4a/pool_proj <- inception_4a/pool
I0714 21:40:17.407217  4802 net.cpp:399] inception_4a/pool_proj -> inception_4a/pool_proj
I0714 21:40:17.412780  4798 net.cpp:141] Setting up inception_4a/pool_proj
I0714 21:40:17.412811  4798 net.cpp:148] Top shape: 10 64 14 14 (125440)
I0714 21:40:17.412818  4798 net.cpp:156] Memory required for data: 369044480
I0714 21:40:17.412832  4798 layer_factory.hpp:77] Creating layer inception_4a/relu_pool_proj
I0714 21:40:17.412847  4798 net.cpp:91] Creating Layer inception_4a/relu_pool_proj
I0714 21:40:17.412855  4798 net.cpp:425] inception_4a/relu_pool_proj <- inception_4a/pool_proj
I0714 21:40:17.412865  4798 net.cpp:386] inception_4a/relu_pool_proj -> inception_4a/pool_proj (in-place)
I0714 21:40:17.414130  4798 net.cpp:141] Setting up inception_4a/relu_pool_proj
I0714 21:40:17.414150  4798 net.cpp:148] Top shape: 10 64 14 14 (125440)
I0714 21:40:17.414155  4798 net.cpp:156] Memory required for data: 369546240
I0714 21:40:17.414161  4798 layer_factory.hpp:77] Creating layer inception_4a/output
I0714 21:40:17.414175  4798 net.cpp:91] Creating Layer inception_4a/output
I0714 21:40:17.414182  4798 net.cpp:425] inception_4a/output <- inception_4a/1x1
I0714 21:40:17.414191  4798 net.cpp:425] inception_4a/output <- inception_4a/3x3
I0714 21:40:17.414197  4798 net.cpp:425] inception_4a/output <- inception_4a/5x5
I0714 21:40:17.414204  4798 net.cpp:425] inception_4a/output <- inception_4a/pool_proj
I0714 21:40:17.414211  4798 net.cpp:399] inception_4a/output -> inception_4a/output
I0714 21:40:17.414355  4798 net.cpp:141] Setting up inception_4a/output
I0714 21:40:17.414371  4798 net.cpp:148] Top shape: 10 512 14 14 (1003520)
I0714 21:40:17.414376  4798 net.cpp:156] Memory required for data: 373560320
I0714 21:40:17.414381  4798 layer_factory.hpp:77] Creating layer inception_4a/output_inception_4a/output_0_split
I0714 21:40:17.414392  4798 net.cpp:91] Creating Layer inception_4a/output_inception_4a/output_0_split
I0714 21:40:17.414397  4798 net.cpp:425] inception_4a/output_inception_4a/output_0_split <- inception_4a/output
I0714 21:40:17.414405  4798 net.cpp:399] inception_4a/output_inception_4a/output_0_split -> inception_4a/output_inception_4a/output_0_split_0
I0714 21:40:17.414415  4798 net.cpp:399] inception_4a/output_inception_4a/output_0_split -> inception_4a/output_inception_4a/output_0_split_1
I0714 21:40:17.414429  4798 net.cpp:399] inception_4a/output_inception_4a/output_0_split -> inception_4a/output_inception_4a/output_0_split_2
I0714 21:40:17.414439  4798 net.cpp:399] inception_4a/output_inception_4a/output_0_split -> inception_4a/output_inception_4a/output_0_split_3
I0714 21:40:17.414458  4802 net.cpp:141] Setting up inception_4a/pool_proj
I0714 21:40:17.414479  4802 net.cpp:148] Top shape: 10 64 14 14 (125440)
I0714 21:40:17.414485  4802 net.cpp:156] Memory required for data: 369044480
I0714 21:40:17.414497  4802 layer_factory.hpp:77] Creating layer inception_4a/relu_pool_proj
I0714 21:40:17.414507  4802 net.cpp:91] Creating Layer inception_4a/relu_pool_proj
I0714 21:40:17.414516  4802 net.cpp:425] inception_4a/relu_pool_proj <- inception_4a/pool_proj
I0714 21:40:17.414530  4802 net.cpp:386] inception_4a/relu_pool_proj -> inception_4a/pool_proj (in-place)
I0714 21:40:17.415527  4798 net.cpp:141] Setting up inception_4a/output_inception_4a/output_0_split
I0714 21:40:17.415544  4798 net.cpp:148] Top shape: 10 512 14 14 (1003520)
I0714 21:40:17.415551  4798 net.cpp:148] Top shape: 10 512 14 14 (1003520)
I0714 21:40:17.415557  4798 net.cpp:148] Top shape: 10 512 14 14 (1003520)
I0714 21:40:17.415563  4798 net.cpp:148] Top shape: 10 512 14 14 (1003520)
I0714 21:40:17.415567  4798 net.cpp:156] Memory required for data: 389616640
I0714 21:40:17.415573  4798 layer_factory.hpp:77] Creating layer inception_4b/1x1
I0714 21:40:17.415592  4798 net.cpp:91] Creating Layer inception_4b/1x1
I0714 21:40:17.415598  4798 net.cpp:425] inception_4b/1x1 <- inception_4a/output_inception_4a/output_0_split_0
I0714 21:40:17.415608  4798 net.cpp:399] inception_4b/1x1 -> inception_4b/1x1
I0714 21:40:17.415654  4802 net.cpp:141] Setting up inception_4a/relu_pool_proj
I0714 21:40:17.415670  4802 net.cpp:148] Top shape: 10 64 14 14 (125440)
I0714 21:40:17.415675  4802 net.cpp:156] Memory required for data: 369546240
I0714 21:40:17.415680  4802 layer_factory.hpp:77] Creating layer inception_4a/output
I0714 21:40:17.415690  4802 net.cpp:91] Creating Layer inception_4a/output
I0714 21:40:17.415698  4802 net.cpp:425] inception_4a/output <- inception_4a/1x1
I0714 21:40:17.415705  4802 net.cpp:425] inception_4a/output <- inception_4a/3x3
I0714 21:40:17.415711  4802 net.cpp:425] inception_4a/output <- inception_4a/5x5
I0714 21:40:17.415717  4802 net.cpp:425] inception_4a/output <- inception_4a/pool_proj
I0714 21:40:17.415729  4802 net.cpp:399] inception_4a/output -> inception_4a/output
I0714 21:40:17.415880  4802 net.cpp:141] Setting up inception_4a/output
I0714 21:40:17.415892  4802 net.cpp:148] Top shape: 10 512 14 14 (1003520)
I0714 21:40:17.415897  4802 net.cpp:156] Memory required for data: 373560320
I0714 21:40:17.415904  4802 layer_factory.hpp:77] Creating layer inception_4a/output_inception_4a/output_0_split
I0714 21:40:17.415920  4802 net.cpp:91] Creating Layer inception_4a/output_inception_4a/output_0_split
I0714 21:40:17.415925  4802 net.cpp:425] inception_4a/output_inception_4a/output_0_split <- inception_4a/output
I0714 21:40:17.415933  4802 net.cpp:399] inception_4a/output_inception_4a/output_0_split -> inception_4a/output_inception_4a/output_0_split_0
I0714 21:40:17.415943  4802 net.cpp:399] inception_4a/output_inception_4a/output_0_split -> inception_4a/output_inception_4a/output_0_split_1
I0714 21:40:17.415956  4802 net.cpp:399] inception_4a/output_inception_4a/output_0_split -> inception_4a/output_inception_4a/output_0_split_2
I0714 21:40:17.415964  4802 net.cpp:399] inception_4a/output_inception_4a/output_0_split -> inception_4a/output_inception_4a/output_0_split_3
I0714 21:40:17.416332  4802 net.cpp:141] Setting up inception_4a/output_inception_4a/output_0_split
I0714 21:40:17.416347  4802 net.cpp:148] Top shape: 10 512 14 14 (1003520)
I0714 21:40:17.416353  4802 net.cpp:148] Top shape: 10 512 14 14 (1003520)
I0714 21:40:17.416360  4802 net.cpp:148] Top shape: 10 512 14 14 (1003520)
I0714 21:40:17.416365  4802 net.cpp:148] Top shape: 10 512 14 14 (1003520)
I0714 21:40:17.416370  4802 net.cpp:156] Memory required for data: 389616640
I0714 21:40:17.416375  4802 layer_factory.hpp:77] Creating layer inception_4b/1x1
I0714 21:40:17.416394  4802 net.cpp:91] Creating Layer inception_4b/1x1
I0714 21:40:17.416401  4802 net.cpp:425] inception_4b/1x1 <- inception_4a/output_inception_4a/output_0_split_0
I0714 21:40:17.416410  4802 net.cpp:399] inception_4b/1x1 -> inception_4b/1x1
I0714 21:40:17.421095  4798 net.cpp:141] Setting up inception_4b/1x1
I0714 21:40:17.421118  4798 net.cpp:148] Top shape: 10 160 14 14 (313600)
I0714 21:40:17.421123  4798 net.cpp:156] Memory required for data: 390871040
I0714 21:40:17.421134  4798 layer_factory.hpp:77] Creating layer inception_4b/relu_1x1
I0714 21:40:17.421145  4798 net.cpp:91] Creating Layer inception_4b/relu_1x1
I0714 21:40:17.421151  4798 net.cpp:425] inception_4b/relu_1x1 <- inception_4b/1x1
I0714 21:40:17.421162  4798 net.cpp:386] inception_4b/relu_1x1 -> inception_4b/1x1 (in-place)
I0714 21:40:17.421617  4798 net.cpp:141] Setting up inception_4b/relu_1x1
I0714 21:40:17.421630  4798 net.cpp:148] Top shape: 10 160 14 14 (313600)
I0714 21:40:17.421635  4798 net.cpp:156] Memory required for data: 392125440
I0714 21:40:17.421641  4798 layer_factory.hpp:77] Creating layer inception_4b/3x3_reduce
I0714 21:40:17.421663  4798 net.cpp:91] Creating Layer inception_4b/3x3_reduce
I0714 21:40:17.421670  4798 net.cpp:425] inception_4b/3x3_reduce <- inception_4a/output_inception_4a/output_0_split_1
I0714 21:40:17.421680  4798 net.cpp:399] inception_4b/3x3_reduce -> inception_4b/3x3_reduce
I0714 21:40:17.421737  4802 net.cpp:141] Setting up inception_4b/1x1
I0714 21:40:17.421754  4802 net.cpp:148] Top shape: 10 160 14 14 (313600)
I0714 21:40:17.421761  4802 net.cpp:156] Memory required for data: 390871040
I0714 21:40:17.421771  4802 layer_factory.hpp:77] Creating layer inception_4b/relu_1x1
I0714 21:40:17.421782  4802 net.cpp:91] Creating Layer inception_4b/relu_1x1
I0714 21:40:17.421787  4802 net.cpp:425] inception_4b/relu_1x1 <- inception_4b/1x1
I0714 21:40:17.421795  4802 net.cpp:386] inception_4b/relu_1x1 -> inception_4b/1x1 (in-place)
I0714 21:40:17.422216  4802 net.cpp:141] Setting up inception_4b/relu_1x1
I0714 21:40:17.422230  4802 net.cpp:148] Top shape: 10 160 14 14 (313600)
I0714 21:40:17.422235  4802 net.cpp:156] Memory required for data: 392125440
I0714 21:40:17.422241  4802 layer_factory.hpp:77] Creating layer inception_4b/3x3_reduce
I0714 21:40:17.422266  4802 net.cpp:91] Creating Layer inception_4b/3x3_reduce
I0714 21:40:17.422272  4802 net.cpp:425] inception_4b/3x3_reduce <- inception_4a/output_inception_4a/output_0_split_1
I0714 21:40:17.422286  4802 net.cpp:399] inception_4b/3x3_reduce -> inception_4b/3x3_reduce
I0714 21:40:17.426308  4798 net.cpp:141] Setting up inception_4b/3x3_reduce
I0714 21:40:17.426329  4798 net.cpp:148] Top shape: 10 112 14 14 (219520)
I0714 21:40:17.426336  4798 net.cpp:156] Memory required for data: 393003520
I0714 21:40:17.426344  4798 layer_factory.hpp:77] Creating layer inception_4b/relu_3x3_reduce
I0714 21:40:17.426354  4798 net.cpp:91] Creating Layer inception_4b/relu_3x3_reduce
I0714 21:40:17.426362  4798 net.cpp:425] inception_4b/relu_3x3_reduce <- inception_4b/3x3_reduce
I0714 21:40:17.426373  4798 net.cpp:386] inception_4b/relu_3x3_reduce -> inception_4b/3x3_reduce (in-place)
I0714 21:40:17.426726  4802 net.cpp:141] Setting up inception_4b/3x3_reduce
I0714 21:40:17.426743  4802 net.cpp:148] Top shape: 10 112 14 14 (219520)
I0714 21:40:17.426749  4802 net.cpp:156] Memory required for data: 393003520
I0714 21:40:17.426759  4802 layer_factory.hpp:77] Creating layer inception_4b/relu_3x3_reduce
I0714 21:40:17.426764  4798 net.cpp:141] Setting up inception_4b/relu_3x3_reduce
I0714 21:40:17.426772  4802 net.cpp:91] Creating Layer inception_4b/relu_3x3_reduce
I0714 21:40:17.426777  4798 net.cpp:148] Top shape: 10 112 14 14 (219520)
I0714 21:40:17.426780  4802 net.cpp:425] inception_4b/relu_3x3_reduce <- inception_4b/3x3_reduce
I0714 21:40:17.426784  4798 net.cpp:156] Memory required for data: 393881600
I0714 21:40:17.426789  4798 layer_factory.hpp:77] Creating layer inception_4b/3x3
I0714 21:40:17.426791  4802 net.cpp:386] inception_4b/relu_3x3_reduce -> inception_4b/3x3_reduce (in-place)
I0714 21:40:17.426807  4798 net.cpp:91] Creating Layer inception_4b/3x3
I0714 21:40:17.426815  4798 net.cpp:425] inception_4b/3x3 <- inception_4b/3x3_reduce
I0714 21:40:17.426826  4798 net.cpp:399] inception_4b/3x3 -> inception_4b/3x3
I0714 21:40:17.427211  4802 net.cpp:141] Setting up inception_4b/relu_3x3_reduce
I0714 21:40:17.427224  4802 net.cpp:148] Top shape: 10 112 14 14 (219520)
I0714 21:40:17.427229  4802 net.cpp:156] Memory required for data: 393881600
I0714 21:40:17.427235  4802 layer_factory.hpp:77] Creating layer inception_4b/3x3
I0714 21:40:17.427254  4802 net.cpp:91] Creating Layer inception_4b/3x3
I0714 21:40:17.427261  4802 net.cpp:425] inception_4b/3x3 <- inception_4b/3x3_reduce
I0714 21:40:17.427273  4802 net.cpp:399] inception_4b/3x3 -> inception_4b/3x3
I0714 21:40:17.435765  4798 net.cpp:141] Setting up inception_4b/3x3
I0714 21:40:17.435786  4798 net.cpp:148] Top shape: 10 224 14 14 (439040)
I0714 21:40:17.435791  4798 net.cpp:156] Memory required for data: 395637760
I0714 21:40:17.435801  4798 layer_factory.hpp:77] Creating layer inception_4b/relu_3x3
I0714 21:40:17.435812  4798 net.cpp:91] Creating Layer inception_4b/relu_3x3
I0714 21:40:17.435818  4798 net.cpp:425] inception_4b/relu_3x3 <- inception_4b/3x3
I0714 21:40:17.435827  4798 net.cpp:386] inception_4b/relu_3x3 -> inception_4b/3x3 (in-place)
I0714 21:40:17.437284  4798 net.cpp:141] Setting up inception_4b/relu_3x3
I0714 21:40:17.437301  4798 net.cpp:148] Top shape: 10 224 14 14 (439040)
I0714 21:40:17.437307  4798 net.cpp:156] Memory required for data: 397393920
I0714 21:40:17.437312  4798 layer_factory.hpp:77] Creating layer inception_4b/5x5_reduce
I0714 21:40:17.437345  4798 net.cpp:91] Creating Layer inception_4b/5x5_reduce
I0714 21:40:17.437352  4798 net.cpp:425] inception_4b/5x5_reduce <- inception_4a/output_inception_4a/output_0_split_2
I0714 21:40:17.437363  4798 net.cpp:399] inception_4b/5x5_reduce -> inception_4b/5x5_reduce
I0714 21:40:17.437435  4802 net.cpp:141] Setting up inception_4b/3x3
I0714 21:40:17.437453  4802 net.cpp:148] Top shape: 10 224 14 14 (439040)
I0714 21:40:17.437458  4802 net.cpp:156] Memory required for data: 395637760
I0714 21:40:17.437469  4802 layer_factory.hpp:77] Creating layer inception_4b/relu_3x3
I0714 21:40:17.437482  4802 net.cpp:91] Creating Layer inception_4b/relu_3x3
I0714 21:40:17.437490  4802 net.cpp:425] inception_4b/relu_3x3 <- inception_4b/3x3
I0714 21:40:17.437499  4802 net.cpp:386] inception_4b/relu_3x3 -> inception_4b/3x3 (in-place)
I0714 21:40:17.438513  4802 net.cpp:141] Setting up inception_4b/relu_3x3
I0714 21:40:17.438529  4802 net.cpp:148] Top shape: 10 224 14 14 (439040)
I0714 21:40:17.438534  4802 net.cpp:156] Memory required for data: 397393920
I0714 21:40:17.438540  4802 layer_factory.hpp:77] Creating layer inception_4b/5x5_reduce
I0714 21:40:17.438571  4802 net.cpp:91] Creating Layer inception_4b/5x5_reduce
I0714 21:40:17.438580  4802 net.cpp:425] inception_4b/5x5_reduce <- inception_4a/output_inception_4a/output_0_split_2
I0714 21:40:17.438593  4802 net.cpp:399] inception_4b/5x5_reduce -> inception_4b/5x5_reduce
I0714 21:40:17.443028  4798 net.cpp:141] Setting up inception_4b/5x5_reduce
I0714 21:40:17.443048  4798 net.cpp:148] Top shape: 10 24 14 14 (47040)
I0714 21:40:17.443053  4798 net.cpp:156] Memory required for data: 397582080
I0714 21:40:17.443063  4798 layer_factory.hpp:77] Creating layer inception_4b/relu_5x5_reduce
I0714 21:40:17.443078  4798 net.cpp:91] Creating Layer inception_4b/relu_5x5_reduce
I0714 21:40:17.443084  4798 net.cpp:425] inception_4b/relu_5x5_reduce <- inception_4b/5x5_reduce
I0714 21:40:17.443092  4798 net.cpp:386] inception_4b/relu_5x5_reduce -> inception_4b/5x5_reduce (in-place)
I0714 21:40:17.443548  4798 net.cpp:141] Setting up inception_4b/relu_5x5_reduce
I0714 21:40:17.443563  4798 net.cpp:148] Top shape: 10 24 14 14 (47040)
I0714 21:40:17.443568  4798 net.cpp:156] Memory required for data: 397770240
I0714 21:40:17.443574  4798 layer_factory.hpp:77] Creating layer inception_4b/5x5
I0714 21:40:17.443594  4798 net.cpp:91] Creating Layer inception_4b/5x5
I0714 21:40:17.443600  4798 net.cpp:425] inception_4b/5x5 <- inception_4b/5x5_reduce
I0714 21:40:17.443614  4798 net.cpp:399] inception_4b/5x5 -> inception_4b/5x5
I0714 21:40:17.443655  4802 net.cpp:141] Setting up inception_4b/5x5_reduce
I0714 21:40:17.443670  4802 net.cpp:148] Top shape: 10 24 14 14 (47040)
I0714 21:40:17.443676  4802 net.cpp:156] Memory required for data: 397582080
I0714 21:40:17.443687  4802 layer_factory.hpp:77] Creating layer inception_4b/relu_5x5_reduce
I0714 21:40:17.443706  4802 net.cpp:91] Creating Layer inception_4b/relu_5x5_reduce
I0714 21:40:17.443711  4802 net.cpp:425] inception_4b/relu_5x5_reduce <- inception_4b/5x5_reduce
I0714 21:40:17.443719  4802 net.cpp:386] inception_4b/relu_5x5_reduce -> inception_4b/5x5_reduce (in-place)
I0714 21:40:17.444237  4802 net.cpp:141] Setting up inception_4b/relu_5x5_reduce
I0714 21:40:17.444257  4802 net.cpp:148] Top shape: 10 24 14 14 (47040)
I0714 21:40:17.444267  4802 net.cpp:156] Memory required for data: 397770240
I0714 21:40:17.444277  4802 layer_factory.hpp:77] Creating layer inception_4b/5x5
I0714 21:40:17.444305  4802 net.cpp:91] Creating Layer inception_4b/5x5
I0714 21:40:17.444317  4802 net.cpp:425] inception_4b/5x5 <- inception_4b/5x5_reduce
I0714 21:40:17.444334  4802 net.cpp:399] inception_4b/5x5 -> inception_4b/5x5
I0714 21:40:17.451645  4798 net.cpp:141] Setting up inception_4b/5x5
I0714 21:40:17.451666  4798 net.cpp:148] Top shape: 10 64 14 14 (125440)
I0714 21:40:17.451671  4798 net.cpp:156] Memory required for data: 398272000
I0714 21:40:17.451683  4798 layer_factory.hpp:77] Creating layer inception_4b/relu_5x5
I0714 21:40:17.451696  4798 net.cpp:91] Creating Layer inception_4b/relu_5x5
I0714 21:40:17.451704  4798 net.cpp:425] inception_4b/relu_5x5 <- inception_4b/5x5
I0714 21:40:17.451711  4798 net.cpp:386] inception_4b/relu_5x5 -> inception_4b/5x5 (in-place)
I0714 21:40:17.452111  4802 net.cpp:141] Setting up inception_4b/5x5
I0714 21:40:17.452128  4802 net.cpp:148] Top shape: 10 64 14 14 (125440)
I0714 21:40:17.452134  4802 net.cpp:156] Memory required for data: 398272000
I0714 21:40:17.452132  4798 net.cpp:141] Setting up inception_4b/relu_5x5
I0714 21:40:17.452147  4802 layer_factory.hpp:77] Creating layer inception_4b/relu_5x5
I0714 21:40:17.452147  4798 net.cpp:148] Top shape: 10 64 14 14 (125440)
I0714 21:40:17.452160  4798 net.cpp:156] Memory required for data: 398773760
I0714 21:40:17.452162  4802 net.cpp:91] Creating Layer inception_4b/relu_5x5
I0714 21:40:17.452167  4798 layer_factory.hpp:77] Creating layer inception_4b/pool
I0714 21:40:17.452168  4802 net.cpp:425] inception_4b/relu_5x5 <- inception_4b/5x5
I0714 21:40:17.452186  4798 net.cpp:91] Creating Layer inception_4b/pool
I0714 21:40:17.452188  4802 net.cpp:386] inception_4b/relu_5x5 -> inception_4b/5x5 (in-place)
I0714 21:40:17.452194  4798 net.cpp:425] inception_4b/pool <- inception_4a/output_inception_4a/output_0_split_3
I0714 21:40:17.452206  4798 net.cpp:399] inception_4b/pool -> inception_4b/pool
I0714 21:40:17.452519  4798 net.cpp:141] Setting up inception_4b/pool
I0714 21:40:17.452533  4798 net.cpp:148] Top shape: 10 512 14 14 (1003520)
I0714 21:40:17.452538  4798 net.cpp:156] Memory required for data: 402787840
I0714 21:40:17.452543  4798 layer_factory.hpp:77] Creating layer inception_4b/pool_proj
I0714 21:40:17.452564  4798 net.cpp:91] Creating Layer inception_4b/pool_proj
I0714 21:40:17.452571  4798 net.cpp:425] inception_4b/pool_proj <- inception_4b/pool
I0714 21:40:17.452580  4798 net.cpp:399] inception_4b/pool_proj -> inception_4b/pool_proj
I0714 21:40:17.452590  4802 net.cpp:141] Setting up inception_4b/relu_5x5
I0714 21:40:17.452603  4802 net.cpp:148] Top shape: 10 64 14 14 (125440)
I0714 21:40:17.452610  4802 net.cpp:156] Memory required for data: 398773760
I0714 21:40:17.452615  4802 layer_factory.hpp:77] Creating layer inception_4b/pool
I0714 21:40:17.452628  4802 net.cpp:91] Creating Layer inception_4b/pool
I0714 21:40:17.452636  4802 net.cpp:425] inception_4b/pool <- inception_4a/output_inception_4a/output_0_split_3
I0714 21:40:17.452643  4802 net.cpp:399] inception_4b/pool -> inception_4b/pool
I0714 21:40:17.452867  4802 net.cpp:141] Setting up inception_4b/pool
I0714 21:40:17.452879  4802 net.cpp:148] Top shape: 10 512 14 14 (1003520)
I0714 21:40:17.452884  4802 net.cpp:156] Memory required for data: 402787840
I0714 21:40:17.452889  4802 layer_factory.hpp:77] Creating layer inception_4b/pool_proj
I0714 21:40:17.452910  4802 net.cpp:91] Creating Layer inception_4b/pool_proj
I0714 21:40:17.452916  4802 net.cpp:425] inception_4b/pool_proj <- inception_4b/pool
I0714 21:40:17.452929  4802 net.cpp:399] inception_4b/pool_proj -> inception_4b/pool_proj
I0714 21:40:17.456885  4798 net.cpp:141] Setting up inception_4b/pool_proj
I0714 21:40:17.456904  4798 net.cpp:148] Top shape: 10 64 14 14 (125440)
I0714 21:40:17.456910  4798 net.cpp:156] Memory required for data: 403289600
I0714 21:40:17.456920  4798 layer_factory.hpp:77] Creating layer inception_4b/relu_pool_proj
I0714 21:40:17.456934  4798 net.cpp:91] Creating Layer inception_4b/relu_pool_proj
I0714 21:40:17.456941  4798 net.cpp:425] inception_4b/relu_pool_proj <- inception_4b/pool_proj
I0714 21:40:17.456949  4798 net.cpp:386] inception_4b/relu_pool_proj -> inception_4b/pool_proj (in-place)
I0714 21:40:17.457950  4798 net.cpp:141] Setting up inception_4b/relu_pool_proj
I0714 21:40:17.457967  4798 net.cpp:148] Top shape: 10 64 14 14 (125440)
I0714 21:40:17.457973  4798 net.cpp:156] Memory required for data: 403791360
I0714 21:40:17.457978  4798 layer_factory.hpp:77] Creating layer inception_4b/output
I0714 21:40:17.457993  4798 net.cpp:91] Creating Layer inception_4b/output
I0714 21:40:17.457999  4798 net.cpp:425] inception_4b/output <- inception_4b/1x1
I0714 21:40:17.458006  4798 net.cpp:425] inception_4b/output <- inception_4b/3x3
I0714 21:40:17.458012  4798 net.cpp:425] inception_4b/output <- inception_4b/5x5
I0714 21:40:17.458019  4798 net.cpp:425] inception_4b/output <- inception_4b/pool_proj
I0714 21:40:17.458026  4798 net.cpp:399] inception_4b/output -> inception_4b/output
I0714 21:40:17.458050  4802 net.cpp:141] Setting up inception_4b/pool_proj
I0714 21:40:17.458066  4802 net.cpp:148] Top shape: 10 64 14 14 (125440)
I0714 21:40:17.458071  4802 net.cpp:156] Memory required for data: 403289600
I0714 21:40:17.458081  4802 layer_factory.hpp:77] Creating layer inception_4b/relu_pool_proj
I0714 21:40:17.458094  4802 net.cpp:91] Creating Layer inception_4b/relu_pool_proj
I0714 21:40:17.458101  4802 net.cpp:425] inception_4b/relu_pool_proj <- inception_4b/pool_proj
I0714 21:40:17.458106  4798 net.cpp:141] Setting up inception_4b/output
I0714 21:40:17.458109  4802 net.cpp:386] inception_4b/relu_pool_proj -> inception_4b/pool_proj (in-place)
I0714 21:40:17.458122  4798 net.cpp:148] Top shape: 10 512 14 14 (1003520)
I0714 21:40:17.458127  4798 net.cpp:156] Memory required for data: 407805440
I0714 21:40:17.458133  4798 layer_factory.hpp:77] Creating layer inception_4b/output_inception_4b/output_0_split
I0714 21:40:17.458148  4798 net.cpp:91] Creating Layer inception_4b/output_inception_4b/output_0_split
I0714 21:40:17.458153  4798 net.cpp:425] inception_4b/output_inception_4b/output_0_split <- inception_4b/output
I0714 21:40:17.458163  4798 net.cpp:399] inception_4b/output_inception_4b/output_0_split -> inception_4b/output_inception_4b/output_0_split_0
I0714 21:40:17.458174  4798 net.cpp:399] inception_4b/output_inception_4b/output_0_split -> inception_4b/output_inception_4b/output_0_split_1
I0714 21:40:17.458184  4798 net.cpp:399] inception_4b/output_inception_4b/output_0_split -> inception_4b/output_inception_4b/output_0_split_2
I0714 21:40:17.458191  4798 net.cpp:399] inception_4b/output_inception_4b/output_0_split -> inception_4b/output_inception_4b/output_0_split_3
I0714 21:40:17.459120  4798 net.cpp:141] Setting up inception_4b/output_inception_4b/output_0_split
I0714 21:40:17.459133  4798 net.cpp:148] Top shape: 10 512 14 14 (1003520)
I0714 21:40:17.459131  4802 net.cpp:141] Setting up inception_4b/relu_pool_proj
I0714 21:40:17.459141  4798 net.cpp:148] Top shape: 10 512 14 14 (1003520)
I0714 21:40:17.459146  4802 net.cpp:148] Top shape: 10 64 14 14 (125440)
I0714 21:40:17.459147  4798 net.cpp:148] Top shape: 10 512 14 14 (1003520)
I0714 21:40:17.459156  4802 net.cpp:156] Memory required for data: 403791360
I0714 21:40:17.459161  4798 net.cpp:148] Top shape: 10 512 14 14 (1003520)
I0714 21:40:17.459162  4802 layer_factory.hpp:77] Creating layer inception_4b/output
I0714 21:40:17.459167  4798 net.cpp:156] Memory required for data: 423861760
I0714 21:40:17.459172  4798 layer_factory.hpp:77] Creating layer inception_4c/1x1
I0714 21:40:17.459175  4802 net.cpp:91] Creating Layer inception_4b/output
I0714 21:40:17.459182  4802 net.cpp:425] inception_4b/output <- inception_4b/1x1
I0714 21:40:17.459190  4802 net.cpp:425] inception_4b/output <- inception_4b/3x3
I0714 21:40:17.459190  4798 net.cpp:91] Creating Layer inception_4c/1x1
…
I0714 21:40:17.596483  4798 net.cpp:141] Setting up inception_4e/5x5
I0714 21:40:17.596500  4798 net.cpp:148] Top shape: 10 128 14 14 (250880)
I0714 21:40:17.596506  4798 net.cpp:156] Memory required for data: 507153920
I0714 21:40:17.596516  4798 layer_factory.hpp:77] Creating layer inception_4e/relu_5x5
I0714 21:40:17.596540  4798 net.cpp:91] Creating Layer inception_4e/relu_5x5
I0714 21:40:17.596547  4798 net.cpp:425] inception_4e/relu_5x5 <- inception_4e/5x5
I0714 21:40:17.596561  4798 net.cpp:386] inception_4e/relu_5x5 -> inception_4e/5x5 (in-place)
I0714 21:40:17.596832  4802 net.cpp:141] Setting up inception_4e/relu_5x5_reduce
I0714 21:40:17.596848  4802 net.cpp:148] Top shape: 10 32 14 14 (62720)
I0714 21:40:17.596853  4802 net.cpp:156] Memory required for data: 506150400
I0714 21:40:17.596858  4802 layer_factory.hpp:77] Creating layer inception_4e/5x5
I0714 21:40:17.596886  4802 net.cpp:91] Creating Layer inception_4e/5x5
I0714 21:40:17.596894  4802 net.cpp:425] inception_4e/5x5 <- inception_4e/5x5_reduce
I0714 21:40:17.596904  4802 net.cpp:399] inception_4e/5x5 -> inception_4e/5x5
I0714 21:40:17.596923  4798 net.cpp:141] Setting up inception_4e/relu_5x5
I0714 21:40:17.596941  4798 net.cpp:148] Top shape: 10 128 14 14 (250880)
I0714 21:40:17.596946  4798 net.cpp:156] Memory required for data: 508157440
I0714 21:40:17.596953  4798 layer_factory.hpp:77] Creating layer inception_4e/pool
I0714 21:40:17.596963  4798 net.cpp:91] Creating Layer inception_4e/pool
I0714 21:40:17.596971  4798 net.cpp:425] inception_4e/pool <- inception_4d/output_inception_4d/output_0_split_3
I0714 21:40:17.596978  4798 net.cpp:399] inception_4e/pool -> inception_4e/pool
I0714 21:40:17.597234  4798 net.cpp:141] Setting up inception_4e/pool
I0714 21:40:17.597247  4798 net.cpp:148] Top shape: 10 528 14 14 (1034880)
I0714 21:40:17.597252  4798 net.cpp:156] Memory required for data: 512296960
I0714 21:40:17.597270  4798 layer_factory.hpp:77] Creating layer inception_4e/pool_proj
I0714 21:40:17.597285  4798 net.cpp:91] Creating Layer inception_4e/pool_proj
I0714 21:40:17.597292  4798 net.cpp:425] inception_4e/pool_proj <- inception_4e/pool
I0714 21:40:17.597307  4798 net.cpp:399] inception_4e/pool_proj -> inception_4e/pool_proj
I0714 21:40:17.603687  4798 net.cpp:141] Setting up inception_4e/pool_proj
I0714 21:40:17.603711  4798 net.cpp:148] Top shape: 10 128 14 14 (250880)
I0714 21:40:17.603718  4798 net.cpp:156] Memory required for data: 513300480
I0714 21:40:17.603729  4798 layer_factory.hpp:77] Creating layer inception_4e/relu_pool_proj
I0714 21:40:17.603756  4798 net.cpp:91] Creating Layer inception_4e/relu_pool_proj
I0714 21:40:17.603763  4798 net.cpp:425] inception_4e/relu_pool_proj <- inception_4e/pool_proj
I0714 21:40:17.603775  4798 net.cpp:386] inception_4e/relu_pool_proj -> inception_4e/pool_proj (in-place)
I0714 21:40:17.604699  4802 net.cpp:141] Setting up inception_4e/5x5
I0714 21:40:17.604720  4802 net.cpp:148] Top shape: 10 128 14 14 (250880)
I0714 21:40:17.604727  4802 net.cpp:156] Memory required for data: 507153920
I0714 21:40:17.604737  4802 layer_factory.hpp:77] Creating layer inception_4e/relu_5x5
I0714 21:40:17.604761  4802 net.cpp:91] Creating Layer inception_4e/relu_5x5
I0714 21:40:17.604770  4802 net.cpp:425] inception_4e/relu_5x5 <- inception_4e/5x5
I0714 21:40:17.604778  4798 net.cpp:141] Setting up inception_4e/relu_pool_proj
I0714 21:40:17.604781  4802 net.cpp:386] inception_4e/relu_5x5 -> inception_4e/5x5 (in-place)
I0714 21:40:17.604794  4798 net.cpp:148] Top shape: 10 128 14 14 (250880)
I0714 21:40:17.604799  4798 net.cpp:156] Memory required for data: 514304000
I0714 21:40:17.604805  4798 layer_factory.hpp:77] Creating layer inception_4e/output
I0714 21:40:17.604816  4798 net.cpp:91] Creating Layer inception_4e/output
I0714 21:40:17.604823  4798 net.cpp:425] inception_4e/output <- inception_4e/1x1
I0714 21:40:17.604830  4798 net.cpp:425] inception_4e/output <- inception_4e/3x3
I0714 21:40:17.604836  4798 net.cpp:425] inception_4e/output <- inception_4e/5x5
I0714 21:40:17.604842  4798 net.cpp:425] inception_4e/output <- inception_4e/pool_proj
I0714 21:40:17.604849  4798 net.cpp:399] inception_4e/output -> inception_4e/output
I0714 21:40:17.605098  4798 net.cpp:141] Setting up inception_4e/output
I0714 21:40:17.605121  4798 net.cpp:148] Top shape: 10 832 14 14 (1630720)
I0714 21:40:17.605131  4798 net.cpp:156] Memory required for data: 520826880
I0714 21:40:17.605140  4798 layer_factory.hpp:77] Creating layer pool4/3x3_s2
I0714 21:40:17.605180  4798 net.cpp:91] Creating Layer pool4/3x3_s2
I0714 21:40:17.605187  4802 net.cpp:141] Setting up inception_4e/relu_5x5
I0714 21:40:17.605192  4798 net.cpp:425] pool4/3x3_s2 <- inception_4e/output
I0714 21:40:17.605201  4802 net.cpp:148] Top shape: 10 128 14 14 (250880)
I0714 21:40:17.605207  4802 net.cpp:156] Memory required for data: 508157440
I0714 21:40:17.605209  4798 net.cpp:399] pool4/3x3_s2 -> pool4/3x3_s2
I0714 21:40:17.605212  4802 layer_factory.hpp:77] Creating layer inception_4e/pool
I0714 21:40:17.605237  4802 net.cpp:91] Creating Layer inception_4e/pool
I0714 21:40:17.605244  4802 net.cpp:425] inception_4e/pool <- inception_4d/output_inception_4d/output_0_split_3
I0714 21:40:17.605253  4802 net.cpp:399] inception_4e/pool -> inception_4e/pool
I0714 21:40:17.605526  4802 net.cpp:141] Setting up inception_4e/pool
I0714 21:40:17.605541  4802 net.cpp:148] Top shape: 10 528 14 14 (1034880)
I0714 21:40:17.605546  4802 net.cpp:156] Memory required for data: 512296960
I0714 21:40:17.605552  4802 layer_factory.hpp:77] Creating layer inception_4e/pool_proj
I0714 21:40:17.605577  4802 net.cpp:91] Creating Layer inception_4e/pool_proj
I0714 21:40:17.605586  4802 net.cpp:425] inception_4e/pool_proj <- inception_4e/pool
I0714 21:40:17.605584  4798 net.cpp:141] Setting up pool4/3x3_s2
I0714 21:40:17.605599  4802 net.cpp:399] inception_4e/pool_proj -> inception_4e/pool_proj
I0714 21:40:17.605607  4798 net.cpp:148] Top shape: 10 832 7 7 (407680)
I0714 21:40:17.605618  4798 net.cpp:156] Memory required for data: 522457600
I0714 21:40:17.605631  4798 layer_factory.hpp:77] Creating layer pool4/3x3_s2_pool4/3x3_s2_0_split
I0714 21:40:17.605655  4798 net.cpp:91] Creating Layer pool4/3x3_s2_pool4/3x3_s2_0_split
I0714 21:40:17.605669  4798 net.cpp:425] pool4/3x3_s2_pool4/3x3_s2_0_split <- pool4/3x3_s2
I0714 21:40:17.605684  4798 net.cpp:399] pool4/3x3_s2_pool4/3x3_s2_0_split -> pool4/3x3_s2_pool4/3x3_s2_0_split_0
I0714 21:40:17.605703  4798 net.cpp:399] pool4/3x3_s2_pool4/3x3_s2_0_split -> pool4/3x3_s2_pool4/3x3_s2_0_split_1
I0714 21:40:17.605720  4798 net.cpp:399] pool4/3x3_s2_pool4/3x3_s2_0_split -> pool4/3x3_s2_pool4/3x3_s2_0_split_2
I0714 21:40:17.605734  4798 net.cpp:399] pool4/3x3_s2_pool4/3x3_s2_0_split -> pool4/3x3_s2_pool4/3x3_s2_0_split_3
I0714 21:40:17.606487  4798 net.cpp:141] Setting up pool4/3x3_s2_pool4/3x3_s2_0_split
I0714 21:40:17.606505  4798 net.cpp:148] Top shape: 10 832 7 7 (407680)
I0714 21:40:17.606518  4798 net.cpp:148] Top shape: 10 832 7 7 (407680)
I0714 21:40:17.606528  4798 net.cpp:148] Top shape: 10 832 7 7 (407680)
I0714 21:40:17.606539  4798 net.cpp:148] Top shape: 10 832 7 7 (407680)
I0714 21:40:17.606546  4798 net.cpp:156] Memory required for data: 528980480
I0714 21:40:17.606555  4798 layer_factory.hpp:77] Creating layer inception_5a/1x1
I0714 21:40:17.606597  4798 net.cpp:91] Creating Layer inception_5a/1x1
I0714 21:40:17.606609  4798 net.cpp:425] inception_5a/1x1 <- pool4/3x3_s2_pool4/3x3_s2_0_split_0
I0714 21:40:17.606626  4798 net.cpp:399] inception_5a/1x1 -> inception_5a/1x1
I0714 21:40:17.614845  4802 net.cpp:141] Setting up inception_4e/pool_proj
I0714 21:40:17.614904  4802 net.cpp:148] Top shape: 10 128 14 14 (250880)
I0714 21:40:17.614917  4802 net.cpp:156] Memory required for data: 513300480
I0714 21:40:17.614950  4802 layer_factory.hpp:77] Creating layer inception_4e/relu_pool_proj
I0714 21:40:17.614975  4802 net.cpp:91] Creating Layer inception_4e/relu_pool_proj
I0714 21:40:17.615000  4802 net.cpp:425] inception_4e/relu_pool_proj <- inception_4e/pool_proj
I0714 21:40:17.615020  4802 net.cpp:386] inception_4e/relu_pool_proj -> inception_4e/pool_proj (in-place)
I0714 21:40:17.616958  4802 net.cpp:141] Setting up inception_4e/relu_pool_proj
I0714 21:40:17.616988  4802 net.cpp:148] Top shape: 10 128 14 14 (250880)
I0714 21:40:17.616999  4802 net.cpp:156] Memory required for data: 514304000
I0714 21:40:17.617010  4802 layer_factory.hpp:77] Creating layer inception_4e/output
I0714 21:40:17.617028  4802 net.cpp:91] Creating Layer inception_4e/output
I0714 21:40:17.617043  4802 net.cpp:425] inception_4e/output <- inception_4e/1x1
I0714 21:40:17.617058  4802 net.cpp:425] inception_4e/output <- inception_4e/3x3
I0714 21:40:17.617069  4802 net.cpp:425] inception_4e/output <- inception_4e/5x5
I0714 21:40:17.617079  4802 net.cpp:425] inception_4e/output <- inception_4e/pool_proj
I0714 21:40:17.617120  4802 net.cpp:399] inception_4e/output -> inception_4e/output
I0714 21:40:17.617293  4802 net.cpp:141] Setting up inception_4e/output
I0714 21:40:17.617312  4802 net.cpp:148] Top shape: 10 832 14 14 (1630720)
I0714 21:40:17.617321  4802 net.cpp:156] Memory required for data: 520826880
I0714 21:40:17.617331  4802 layer_factory.hpp:77] Creating layer pool4/3x3_s2
I0714 21:40:17.617347  4802 net.cpp:91] Creating Layer pool4/3x3_s2
I0714 21:40:17.617358  4802 net.cpp:425] pool4/3x3_s2 <- inception_4e/output
I0714 21:40:17.617383  4802 net.cpp:399] pool4/3x3_s2 -> pool4/3x3_s2
I0714 21:40:17.618648  4802 net.cpp:141] Setting up pool4/3x3_s2
I0714 21:40:17.618675  4802 net.cpp:148] Top shape: 10 832 7 7 (407680)
I0714 21:40:17.618698  4802 net.cpp:156] Memory required for data: 522457600
I0714 21:40:17.618715  4802 layer_factory.hpp:77] Creating layer pool4/3x3_s2_pool4/3x3_s2_0_split
I0714 21:40:17.618731  4802 net.cpp:91] Creating Layer pool4/3x3_s2_pool4/3x3_s2_0_split
I0714 21:40:17.618742  4802 net.cpp:425] pool4/3x3_s2_pool4/3x3_s2_0_split <- pool4/3x3_s2
I0714 21:40:17.618763  4802 net.cpp:399] pool4/3x3_s2_pool4/3x3_s2_0_split -> pool4/3x3_s2_pool4/3x3_s2_0_split_0
I0714 21:40:17.618784  4802 net.cpp:399] pool4/3x3_s2_pool4/3x3_s2_0_split -> pool4/3x3_s2_pool4/3x3_s2_0_split_1
I0714 21:40:17.618804  4802 net.cpp:399] pool4/3x3_s2_pool4/3x3_s2_0_split -> pool4/3x3_s2_pool4/3x3_s2_0_split_2
I0714 21:40:17.618823  4802 net.cpp:399] pool4/3x3_s2_pool4/3x3_s2_0_split -> pool4/3x3_s2_pool4/3x3_s2_0_split_3
I0714 21:40:17.619798  4802 net.cpp:141] Setting up pool4/3x3_s2_pool4/3x3_s2_0_split
I0714 21:40:17.619817  4802 net.cpp:148] Top shape: 10 832 7 7 (407680)
I0714 21:40:17.619824  4802 net.cpp:148] Top shape: 10 832 7 7 (407680)
I0714 21:40:17.619830  4802 net.cpp:148] Top shape: 10 832 7 7 (407680)
I0714 21:40:17.619837  4802 net.cpp:148] Top shape: 10 832 7 7 (407680)
I0714 21:40:17.619842  4802 net.cpp:156] Memory required for data: 528980480
I0714 21:40:17.619846  4802 layer_factory.hpp:77] Creating layer inception_5a/1x1
I0714 21:40:17.619866  4802 net.cpp:91] Creating Layer inception_5a/1x1
I0714 21:40:17.619874  4802 net.cpp:425] inception_5a/1x1 <- pool4/3x3_s2_pool4/3x3_s2_0_split_0
I0714 21:40:17.619889  4802 net.cpp:399] inception_5a/1x1 -> inception_5a/1x1
I0714 21:40:17.620594  4798 net.cpp:141] Setting up inception_5a/1x1
I0714 21:40:17.620617  4798 net.cpp:148] Top shape: 10 256 7 7 (125440)
I0714 21:40:17.620623  4798 net.cpp:156] Memory required for data: 529482240
I0714 21:40:17.620635  4798 layer_factory.hpp:77] Creating layer inception_5a/relu_1x1
I0714 21:40:17.620646  4798 net.cpp:91] Creating Layer inception_5a/relu_1x1
I0714 21:40:17.620654  4798 net.cpp:425] inception_5a/relu_1x1 <- inception_5a/1x1
I0714 21:40:17.620671  4798 net.cpp:386] inception_5a/relu_1x1 -> inception_5a/1x1 (in-place)
I0714 21:40:17.621096  4798 net.cpp:141] Setting up inception_5a/relu_1x1
I0714 21:40:17.621111  4798 net.cpp:148] Top shape: 10 256 7 7 (125440)
I0714 21:40:17.621117  4798 net.cpp:156] Memory required for data: 529984000
I0714 21:40:17.621134  4798 layer_factory.hpp:77] Creating layer inception_5a/3x3_reduce
I0714 21:40:17.621151  4798 net.cpp:91] Creating Layer inception_5a/3x3_reduce
I0714 21:40:17.621158  4798 net.cpp:425] inception_5a/3x3_reduce <- pool4/3x3_s2_pool4/3x3_s2_0_split_1
I0714 21:40:17.621587  4798 net.cpp:399] inception_5a/3x3_reduce -> inception_5a/3x3_reduce
I0714 21:40:17.629523  4802 net.cpp:141] Setting up inception_5a/1x1
I0714 21:40:17.629547  4802 net.cpp:148] Top shape: 10 256 7 7 (125440)
I0714 21:40:17.629554  4802 net.cpp:156] Memory required for data: 529482240
I0714 21:40:17.629567  4802 layer_factory.hpp:77] Creating layer inception_5a/relu_1x1
I0714 21:40:17.629582  4802 net.cpp:91] Creating Layer inception_5a/relu_1x1
I0714 21:40:17.629590  4802 net.cpp:425] inception_5a/relu_1x1 <- inception_5a/1x1
I0714 21:40:17.629600  4802 net.cpp:386] inception_5a/relu_1x1 -> inception_5a/1x1 (in-place)
I0714 21:40:17.629684  4798 net.cpp:141] Setting up inception_5a/3x3_reduce
I0714 21:40:17.629703  4798 net.cpp:148] Top shape: 10 160 7 7 (78400)
I0714 21:40:17.629709  4798 net.cpp:156] Memory required for data: 530297600
I0714 21:40:17.629724  4798 layer_factory.hpp:77] Creating layer inception_5a/relu_3x3_reduce
I0714 21:40:17.629745  4798 net.cpp:91] Creating Layer inception_5a/relu_3x3_reduce
I0714 21:40:17.629752  4798 net.cpp:425] inception_5a/relu_3x3_reduce <- inception_5a/3x3_reduce
I0714 21:40:17.629762  4798 net.cpp:386] inception_5a/relu_3x3_reduce -> inception_5a/3x3_reduce (in-place)
I0714 21:40:17.629952  4802 net.cpp:141] Setting up inception_5a/relu_1x1
I0714 21:40:17.629966  4802 net.cpp:148] Top shape: 10 256 7 7 (125440)
I0714 21:40:17.629971  4802 net.cpp:156] Memory required for data: 529984000
I0714 21:40:17.629981  4802 layer_factory.hpp:77] Creating layer inception_5a/3x3_reduce
I0714 21:40:17.630000  4802 net.cpp:91] Creating Layer inception_5a/3x3_reduce
I0714 21:40:17.630009  4802 net.cpp:425] inception_5a/3x3_reduce <- pool4/3x3_s2_pool4/3x3_s2_0_split_1
I0714 21:40:17.630030  4802 net.cpp:399] inception_5a/3x3_reduce -> inception_5a/3x3_reduce
I0714 21:40:17.630086  4798 net.cpp:141] Setting up inception_5a/relu_3x3_reduce
I0714 21:40:17.630100  4798 net.cpp:148] Top shape: 10 160 7 7 (78400)
I0714 21:40:17.630105  4798 net.cpp:156] Memory required for data: 530611200
I0714 21:40:17.630110  4798 layer_factory.hpp:77] Creating layer inception_5a/3x3
I0714 21:40:17.630127  4798 net.cpp:91] Creating Layer inception_5a/3x3
I0714 21:40:17.630137  4798 net.cpp:425] inception_5a/3x3 <- inception_5a/3x3_reduce
I0714 21:40:17.630147  4798 net.cpp:399] inception_5a/3x3 -> inception_5a/3x3
I0714 21:40:17.637897  4802 net.cpp:141] Setting up inception_5a/3x3_reduce
I0714 21:40:17.637925  4802 net.cpp:148] Top shape: 10 160 7 7 (78400)
I0714 21:40:17.637933  4802 net.cpp:156] Memory required for data: 530297600
I0714 21:40:17.637943  4802 layer_factory.hpp:77] Creating layer inception_5a/relu_3x3_reduce
I0714 21:40:17.637958  4802 net.cpp:91] Creating Layer inception_5a/relu_3x3_reduce
I0714 21:40:17.637965  4802 net.cpp:425] inception_5a/relu_3x3_reduce <- inception_5a/3x3_reduce
I0714 21:40:17.637974  4802 net.cpp:386] inception_5a/relu_3x3_reduce -> inception_5a/3x3_reduce (in-place)
I0714 21:40:17.638280  4802 net.cpp:141] Setting up inception_5a/relu_3x3_reduce
I0714 21:40:17.638293  4802 net.cpp:148] Top shape: 10 160 7 7 (78400)
I0714 21:40:17.638298  4802 net.cpp:156] Memory required for data: 530611200
I0714 21:40:17.638304  4802 layer_factory.hpp:77] Creating layer inception_5a/3x3
I0714 21:40:17.638322  4802 net.cpp:91] Creating Layer inception_5a/3x3
I0714 21:40:17.638329  4802 net.cpp:425] inception_5a/3x3 <- inception_5a/3x3_reduce
I0714 21:40:17.638342  4802 net.cpp:399] inception_5a/3x3 -> inception_5a/3x3
I0714 21:40:17.645122  4798 net.cpp:141] Setting up inception_5a/3x3
I0714 21:40:17.645150  4798 net.cpp:148] Top shape: 10 320 7 7 (156800)
I0714 21:40:17.645160  4798 net.cpp:156] Memory required for data: 531238400
I0714 21:40:17.645172  4798 layer_factory.hpp:77] Creating layer inception_5a/relu_3x3
I0714 21:40:17.645184  4798 net.cpp:91] Creating Layer inception_5a/relu_3x3
I0714 21:40:17.645190  4798 net.cpp:425] inception_5a/relu_3x3 <- inception_5a/3x3
I0714 21:40:17.645198  4798 net.cpp:386] inception_5a/relu_3x3 -> inception_5a/3x3 (in-place)
I0714 21:40:17.646136  4798 net.cpp:141] Setting up inception_5a/relu_3x3
I0714 21:40:17.646157  4798 net.cpp:148] Top shape: 10 320 7 7 (156800)
I0714 21:40:17.646162  4798 net.cpp:156] Memory required for data: 531865600
I0714 21:40:17.646183  4798 layer_factory.hpp:77] Creating layer inception_5a/5x5_reduce
I0714 21:40:17.646210  4798 net.cpp:91] Creating Layer inception_5a/5x5_reduce
I0714 21:40:17.646219  4798 net.cpp:425] inception_5a/5x5_reduce <- pool4/3x3_s2_pool4/3x3_s2_0_split_2
I0714 21:40:17.646229  4798 net.cpp:399] inception_5a/5x5_reduce -> inception_5a/5x5_reduce
I0714 21:40:17.651604  4802 net.cpp:141] Setting up inception_5a/3x3
I0714 21:40:17.651626  4802 net.cpp:148] Top shape: 10 320 7 7 (156800)
I0714 21:40:17.651633  4802 net.cpp:156] Memory required for data: 531238400
I0714 21:40:17.651644  4802 layer_factory.hpp:77] Creating layer inception_5a/relu_3x3
I0714 21:40:17.651655  4802 net.cpp:91] Creating Layer inception_5a/relu_3x3
I0714 21:40:17.651662  4802 net.cpp:425] inception_5a/relu_3x3 <- inception_5a/3x3
I0714 21:40:17.651676  4802 net.cpp:386] inception_5a/relu_3x3 -> inception_5a/3x3 (in-place)
I0714 21:40:17.652672  4802 net.cpp:141] Setting up inception_5a/relu_3x3
I0714 21:40:17.652689  4802 net.cpp:148] Top shape: 10 320 7 7 (156800)
I0714 21:40:17.652695  4802 net.cpp:156] Memory required for data: 531865600
I0714 21:40:17.652704  4802 layer_factory.hpp:77] Creating layer inception_5a/5x5_reduce
I0714 21:40:17.652727  4802 net.cpp:91] Creating Layer inception_5a/5x5_reduce
I0714 21:40:17.652735  4802 net.cpp:425] inception_5a/5x5_reduce <- pool4/3x3_s2_pool4/3x3_s2_0_split_2
I0714 21:40:17.652746  4802 net.cpp:399] inception_5a/5x5_reduce -> inception_5a/5x5_reduce
I0714 21:40:17.657066  4798 net.cpp:141] Setting up inception_5a/5x5_reduce
I0714 21:40:17.657142  4798 net.cpp:148] Top shape: 10 32 7 7 (15680)
I0714 21:40:17.657165  4798 net.cpp:156] Memory required for data: 531928320
I0714 21:40:17.657205  4798 layer_factory.hpp:77] Creating layer inception_5a/relu_5x5_reduce
I0714 21:40:17.657248  4798 net.cpp:91] Creating Layer inception_5a/relu_5x5_reduce
I0714 21:40:17.657277  4798 net.cpp:425] inception_5a/relu_5x5_reduce <- inception_5a/5x5_reduce
I0714 21:40:17.657306  4798 net.cpp:386] inception_5a/relu_5x5_reduce -> inception_5a/5x5_reduce (in-place)
I0714 21:40:17.658314  4798 net.cpp:141] Setting up inception_5a/relu_5x5_reduce
I0714 21:40:17.658366  4798 net.cpp:148] Top shape: 10 32 7 7 (15680)
I0714 21:40:17.658385  4798 net.cpp:156] Memory required for data: 531991040
I0714 21:40:17.658401  4798 layer_factory.hpp:77] Creating layer inception_5a/5x5
I0714 21:40:17.658449  4798 net.cpp:91] Creating Layer inception_5a/5x5
I0714 21:40:17.658471  4798 net.cpp:425] inception_5a/5x5 <- inception_5a/5x5_reduce
I0714 21:40:17.658501  4798 net.cpp:399] inception_5a/5x5 -> inception_5a/5x5
I0714 21:40:17.660405  4802 net.cpp:141] Setting up inception_5a/5x5_reduce
I0714 21:40:17.660429  4802 net.cpp:148] Top shape: 10 32 7 7 (15680)
I0714 21:40:17.660435  4802 net.cpp:156] Memory required for data: 531928320
I0714 21:40:17.660446  4802 layer_factory.hpp:77] Creating layer inception_5a/relu_5x5_reduce
I0714 21:40:17.660457  4802 net.cpp:91] Creating Layer inception_5a/relu_5x5_reduce
I0714 21:40:17.660465  4802 net.cpp:425] inception_5a/relu_5x5_reduce <- inception_5a/5x5_reduce
I0714 21:40:17.660476  4802 net.cpp:386] inception_5a/relu_5x5_reduce -> inception_5a/5x5_reduce (in-place)
I0714 21:40:17.660958  4802 net.cpp:141] Setting up inception_5a/relu_5x5_reduce
I0714 21:40:17.660977  4802 net.cpp:148] Top shape: 10 32 7 7 (15680)
I0714 21:40:17.660984  4802 net.cpp:156] Memory required for data: 531991040
I0714 21:40:17.660989  4802 layer_factory.hpp:77] Creating layer inception_5a/5x5
I0714 21:40:17.661010  4802 net.cpp:91] Creating Layer inception_5a/5x5
I0714 21:40:17.661017  4802 net.cpp:425] inception_5a/5x5 <- inception_5a/5x5_reduce
I0714 21:40:17.661027  4802 net.cpp:399] inception_5a/5x5 -> inception_5a/5x5
I0714 21:40:17.667557  4802 net.cpp:141] Setting up inception_5a/5x5
I0714 21:40:17.667577  4802 net.cpp:148] Top shape: 10 128 7 7 (62720)
I0714 21:40:17.667582  4802 net.cpp:156] Memory required for data: 532241920
I0714 21:40:17.667593  4802 layer_factory.hpp:77] Creating layer inception_5a/relu_5x5
I0714 21:40:17.667675  4802 net.cpp:91] Creating Layer inception_5a/relu_5x5
I0714 21:40:17.667683  4802 net.cpp:425] inception_5a/relu_5x5 <- inception_5a/5x5
I0714 21:40:17.667692  4802 net.cpp:386] inception_5a/relu_5x5 -> inception_5a/5x5 (in-place)
I0714 21:40:17.668052  4802 net.cpp:141] Setting up inception_5a/relu_5x5
I0714 21:40:17.668071  4802 net.cpp:148] Top shape: 10 128 7 7 (62720)
I0714 21:40:17.668076  4802 net.cpp:156] Memory required for data: 532492800
I0714 21:40:17.668084  4802 layer_factory.hpp:77] Creating layer inception_5a/pool
I0714 21:40:17.668097  4802 net.cpp:91] Creating Layer inception_5a/pool
I0714 21:40:17.668103  4802 net.cpp:425] inception_5a/pool <- pool4/3x3_s2_pool4/3x3_s2_0_split_3
I0714 21:40:17.668112  4802 net.cpp:399] inception_5a/pool -> inception_5a/pool
I0714 21:40:17.669383  4802 net.cpp:141] Setting up inception_5a/pool
I0714 21:40:17.669400  4802 net.cpp:148] Top shape: 10 832 7 7 (407680)
I0714 21:40:17.669405  4802 net.cpp:156] Memory required for data: 534123520
I0714 21:40:17.669411  4802 layer_factory.hpp:77] Creating layer inception_5a/pool_proj
I0714 21:40:17.669428  4802 net.cpp:91] Creating Layer inception_5a/pool_proj
I0714 21:40:17.669435  4802 net.cpp:425] inception_5a/pool_proj <- inception_5a/pool
I0714 21:40:17.669451  4802 net.cpp:399] inception_5a/pool_proj -> inception_5a/pool_proj
I0714 21:40:17.672948  4798 net.cpp:141] Setting up inception_5a/5x5
I0714 21:40:17.672993  4798 net.cpp:148] Top shape: 10 128 7 7 (62720)
I0714 21:40:17.673008  4798 net.cpp:156] Memory required for data: 532241920
I0714 21:40:17.673033  4798 layer_factory.hpp:77] Creating layer inception_5a/relu_5x5
I0714 21:40:17.673161  4798 net.cpp:91] Creating Layer inception_5a/relu_5x5
I0714 21:40:17.673174  4798 net.cpp:425] inception_5a/relu_5x5 <- inception_5a/5x5
I0714 21:40:17.673183  4798 net.cpp:386] inception_5a/relu_5x5 -> inception_5a/5x5 (in-place)
I0714 21:40:17.673555  4798 net.cpp:141] Setting up inception_5a/relu_5x5
I0714 21:40:17.673568  4798 net.cpp:148] Top shape: 10 128 7 7 (62720)
I0714 21:40:17.673573  4798 net.cpp:156] Memory required for data: 532492800
I0714 21:40:17.673580  4798 layer_factory.hpp:77] Creating layer inception_5a/pool
I0714 21:40:17.673593  4798 net.cpp:91] Creating Layer inception_5a/pool
I0714 21:40:17.673600  4798 net.cpp:425] inception_5a/pool <- pool4/3x3_s2_pool4/3x3_s2_0_split_3
I0714 21:40:17.673611  4798 net.cpp:399] inception_5a/pool -> inception_5a/pool
I0714 21:40:17.673820  4798 net.cpp:141] Setting up inception_5a/pool
I0714 21:40:17.673833  4798 net.cpp:148] Top shape: 10 832 7 7 (407680)
I0714 21:40:17.673838  4798 net.cpp:156] Memory required for data: 534123520
I0714 21:40:17.673845  4798 layer_factory.hpp:77] Creating layer inception_5a/pool_proj
I0714 21:40:17.673876  4798 net.cpp:91] Creating Layer inception_5a/pool_proj
I0714 21:40:17.673883  4798 net.cpp:425] inception_5a/pool_proj <- inception_5a/pool
I0714 21:40:17.673893  4798 net.cpp:399] inception_5a/pool_proj -> inception_5a/pool_proj
I0714 21:40:17.683116  4802 net.cpp:141] Setting up inception_5a/pool_proj
I0714 21:40:17.683164  4802 net.cpp:148] Top shape: 10 128 7 7 (62720)
I0714 21:40:17.683178  4802 net.cpp:156] Memory required for data: 534374400
I0714 21:40:17.683203  4802 layer_factory.hpp:77] Creating layer inception_5a/relu_pool_proj
I0714 21:40:17.683245  4802 net.cpp:91] Creating Layer inception_5a/relu_pool_proj
I0714 21:40:17.683264  4802 net.cpp:425] inception_5a/relu_pool_proj <- inception_5a/pool_proj
I0714 21:40:17.683289  4802 net.cpp:386] inception_5a/relu_pool_proj -> inception_5a/pool_proj (in-place)
I0714 21:40:17.685084  4798 net.cpp:141] Setting up inception_5a/pool_proj
I0714 21:40:17.685109  4798 net.cpp:148] Top shape: 10 128 7 7 (62720)
I0714 21:40:17.685116  4798 net.cpp:156] Memory required for data: 534374400
I0714 21:40:17.685116  4802 net.cpp:141] Setting up inception_5a/relu_pool_proj
I0714 21:40:17.685145  4798 layer_factory.hpp:77] Creating layer inception_5a/relu_pool_proj
I0714 21:40:17.685169  4802 net.cpp:148] Top shape: 10 128 7 7 (62720)
I0714 21:40:17.685175  4798 net.cpp:91] Creating Layer inception_5a/relu_pool_proj
I0714 21:40:17.685189  4802 net.cpp:156] Memory required for data: 534625280
I0714 21:40:17.685192  4798 net.cpp:425] inception_5a/relu_pool_proj <- inception_5a/pool_proj
I0714 21:40:17.685209  4802 layer_factory.hpp:77] Creating layer inception_5a/output
I0714 21:40:17.685216  4798 net.cpp:386] inception_5a/relu_pool_proj -> inception_5a/pool_proj (in-place)
I0714 21:40:17.685232  4802 net.cpp:91] Creating Layer inception_5a/output
I0714 21:40:17.685247  4802 net.cpp:425] inception_5a/output <- inception_5a/1x1
I0714 21:40:17.685264  4802 net.cpp:425] inception_5a/output <- inception_5a/3x3
I0714 21:40:17.685278  4802 net.cpp:425] inception_5a/output <- inception_5a/5x5
I0714 21:40:17.685293  4802 net.cpp:425] inception_5a/output <- inception_5a/pool_proj
I0714 21:40:17.685315  4802 net.cpp:399] inception_5a/output -> inception_5a/output
I0714 21:40:17.686085  4802 net.cpp:141] Setting up inception_5a/output
I0714 21:40:17.686117  4802 net.cpp:148] Top shape: 10 832 7 7 (407680)
I0714 21:40:17.686128  4802 net.cpp:156] Memory required for data: 536256000
I0714 21:40:17.686143  4802 layer_factory.hpp:77] Creating layer inception_5a/output_inception_5a/output_0_split
I0714 21:40:17.686167  4802 net.cpp:91] Creating Layer inception_5a/output_inception_5a/output_0_split
I0714 21:40:17.686179  4802 net.cpp:425] inception_5a/output_inception_5a/output_0_split <- inception_5a/output
I0714 21:40:17.686197  4802 net.cpp:399] inception_5a/output_inception_5a/output_0_split -> inception_5a/output_inception_5a/output_0_split_0
I0714 21:40:17.686203  4798 net.cpp:141] Setting up inception_5a/relu_pool_proj
I0714 21:40:17.686220  4798 net.cpp:148] Top shape: 10 128 7 7 (62720)
I0714 21:40:17.686220  4802 net.cpp:399] inception_5a/output_inception_5a/output_0_split -> inception_5a/output_inception_5a/output_0_split_1
I0714 21:40:17.686226  4798 net.cpp:156] Memory required for data: 534625280
I0714 21:40:17.686251  4802 net.cpp:399] inception_5a/output_inception_5a/output_0_split -> inception_5a/output_inception_5a/output_0_split_2
I0714 21:40:17.686255  4798 layer_factory.hpp:77] Creating layer inception_5a/output
I0714 21:40:17.686275  4798 net.cpp:91] Creating Layer inception_5a/output
I0714 21:40:17.686276  4802 net.cpp:399] inception_5a/output_inception_5a/output_0_split -> inception_5a/output_inception_5a/output_0_split_3
I0714 21:40:17.686281  4798 net.cpp:425] inception_5a/output <- inception_5a/1x1
I0714 21:40:17.686298  4798 net.cpp:425] inception_5a/output <- inception_5a/3x3
I0714 21:40:17.686305  4798 net.cpp:425] inception_5a/output <- inception_5a/5x5
I0714 21:40:17.686312  4798 net.cpp:425] inception_5a/output <- inception_5a/pool_proj
I0714 21:40:17.686326  4798 net.cpp:399] inception_5a/output -> inception_5a/output
I0714 21:40:17.686525  4798 net.cpp:141] Setting up inception_5a/output
I0714 21:40:17.686542  4798 net.cpp:148] Top shape: 10 832 7 7 (407680)
I0714 21:40:17.686547  4798 net.cpp:156] Memory required for data: 536256000
I0714 21:40:17.686553  4798 layer_factory.hpp:77] Creating layer inception_5a/output_inception_5a/output_0_split
I0714 21:40:17.686568  4798 net.cpp:91] Creating Layer inception_5a/output_inception_5a/output_0_split
I0714 21:40:17.686575  4798 net.cpp:425] inception_5a/output_inception_5a/output_0_split <- inception_5a/output
I0714 21:40:17.686583  4798 net.cpp:399] inception_5a/output_inception_5a/output_0_split -> inception_5a/output_inception_5a/output_0_split_0
I0714 21:40:17.686594  4798 net.cpp:399] inception_5a/output_inception_5a/output_0_split -> inception_5a/output_inception_5a/output_0_split_1
I0714 21:40:17.686607  4798 net.cpp:399] inception_5a/output_inception_5a/output_0_split -> inception_5a/output_inception_5a/output_0_split_2
I0714 21:40:17.686617  4798 net.cpp:399] inception_5a/output_inception_5a/output_0_split -> inception_5a/output_inception_5a/output_0_split_3
I0714 21:40:17.687198  4802 net.cpp:141] Setting up inception_5a/output_inception_5a/output_0_split
I0714 21:40:17.687222  4802 net.cpp:148] Top shape: 10 832 7 7 (407680)
I0714 21:40:17.687225  4798 net.cpp:141] Setting up inception_5a/output_inception_5a/output_0_split
I0714 21:40:17.687239  4798 net.cpp:148] Top shape: 10 832 7 7 (407680)
I0714 21:40:17.687238  4802 net.cpp:148] Top shape: 10 832 7 7 (407680)
I0714 21:40:17.687249  4798 net.cpp:148] Top shape: 10 832 7 7 (407680)
I0714 21:40:17.687258  4798 net.cpp:148] Top shape: 10 832 7 7 (407680)
I0714 21:40:17.687258  4802 net.cpp:148] Top shape: 10 832 7 7 (407680)
I0714 21:40:17.687264  4798 net.cpp:148] Top shape: 10 832 7 7 (407680)
I0714 21:40:17.687269  4798 net.cpp:156] Memory required for data: 542778880
I0714 21:40:17.687275  4798 layer_factory.hpp:77] Creating layer inception_5b/1x1
I0714 21:40:17.687274  4802 net.cpp:148] Top shape: 10 832 7 7 (407680)
I0714 21:40:17.687286  4802 net.cpp:156] Memory required for data: 542778880
I0714 21:40:17.687294  4798 net.cpp:91] Creating Layer inception_5b/1x1
I0714 21:40:17.687301  4798 net.cpp:425] inception_5b/1x1 <- inception_5a/output_inception_5a/output_0_split_0
I0714 21:40:17.687299  4802 layer_factory.hpp:77] Creating layer inception_5b/1x1
I0714 21:40:17.687319  4798 net.cpp:399] inception_5b/1x1 -> inception_5b/1x1
I0714 21:40:17.687356  4802 net.cpp:91] Creating Layer inception_5b/1x1
I0714 21:40:17.687372  4802 net.cpp:425] inception_5b/1x1 <- inception_5a/output_inception_5a/output_0_split_0
I0714 21:40:17.687391  4802 net.cpp:399] inception_5b/1x1 -> inception_5b/1x1
I0714 21:40:17.695902  4798 net.cpp:141] Setting up inception_5b/1x1
I0714 21:40:17.695927  4798 net.cpp:148] Top shape: 10 384 7 7 (188160)
I0714 21:40:17.695933  4798 net.cpp:156] Memory required for data: 543531520
I0714 21:40:17.695945  4798 layer_factory.hpp:77] Creating layer inception_5b/relu_1x1
I0714 21:40:17.695976  4798 net.cpp:91] Creating Layer inception_5b/relu_1x1
I0714 21:40:17.695983  4798 net.cpp:425] inception_5b/relu_1x1 <- inception_5b/1x1
I0714 21:40:17.695994  4798 net.cpp:386] inception_5b/relu_1x1 -> inception_5b/1x1 (in-place)
I0714 21:40:17.696313  4798 net.cpp:141] Setting up inception_5b/relu_1x1
I0714 21:40:17.696327  4798 net.cpp:148] Top shape: 10 384 7 7 (188160)
I0714 21:40:17.696332  4798 net.cpp:156] Memory required for data: 544284160
I0714 21:40:17.696349  4798 layer_factory.hpp:77] Creating layer inception_5b/3x3_reduce
I0714 21:40:17.696369  4798 net.cpp:91] Creating Layer inception_5b/3x3_reduce
I0714 21:40:17.696377  4798 net.cpp:425] inception_5b/3x3_reduce <- inception_5a/output_inception_5a/output_0_split_1
I0714 21:40:17.696387  4798 net.cpp:399] inception_5b/3x3_reduce -> inception_5b/3x3_reduce
I0714 21:40:17.701395  4802 net.cpp:141] Setting up inception_5b/1x1
I0714 21:40:17.701424  4802 net.cpp:148] Top shape: 10 384 7 7 (188160)
I0714 21:40:17.701431  4802 net.cpp:156] Memory required for data: 543531520
I0714 21:40:17.701444  4802 layer_factory.hpp:77] Creating layer inception_5b/relu_1x1
I0714 21:40:17.701469  4802 net.cpp:91] Creating Layer inception_5b/relu_1x1
I0714 21:40:17.701478  4802 net.cpp:425] inception_5b/relu_1x1 <- inception_5b/1x1
I0714 21:40:17.701488  4802 net.cpp:386] inception_5b/relu_1x1 -> inception_5b/1x1 (in-place)
I0714 21:40:17.701849  4802 net.cpp:141] Setting up inception_5b/relu_1x1
I0714 21:40:17.701864  4802 net.cpp:148] Top shape: 10 384 7 7 (188160)
I0714 21:40:17.701869  4802 net.cpp:156] Memory required for data: 544284160
I0714 21:40:17.701875  4802 layer_factory.hpp:77] Creating layer inception_5b/3x3_reduce
I0714 21:40:17.701896  4802 net.cpp:91] Creating Layer inception_5b/3x3_reduce
I0714 21:40:17.701905  4802 net.cpp:425] inception_5b/3x3_reduce <- inception_5a/output_inception_5a/output_0_split_1
I0714 21:40:17.701920  4802 net.cpp:399] inception_5b/3x3_reduce -> inception_5b/3x3_reduce
I0714 21:40:17.706969  4798 net.cpp:141] Setting up inception_5b/3x3_reduce
I0714 21:40:17.706995  4798 net.cpp:148] Top shape: 10 192 7 7 (94080)
I0714 21:40:17.707001  4798 net.cpp:156] Memory required for data: 544660480
I0714 21:40:17.707011  4798 layer_factory.hpp:77] Creating layer inception_5b/relu_3x3_reduce
I0714 21:40:17.707026  4798 net.cpp:91] Creating Layer inception_5b/relu_3x3_reduce
I0714 21:40:17.707032  4798 net.cpp:425] inception_5b/relu_3x3_reduce <- inception_5b/3x3_reduce
I0714 21:40:17.707041  4798 net.cpp:386] inception_5b/relu_3x3_reduce -> inception_5b/3x3_reduce (in-place)
I0714 21:40:17.707353  4798 net.cpp:141] Setting up inception_5b/relu_3x3_reduce
I0714 21:40:17.707366  4798 net.cpp:148] Top shape: 10 192 7 7 (94080)
I0714 21:40:17.707371  4798 net.cpp:156] Memory required for data: 545036800
I0714 21:40:17.707376  4798 layer_factory.hpp:77] Creating layer inception_5b/3x3
I0714 21:40:17.707411  4798 net.cpp:91] Creating Layer inception_5b/3x3
I0714 21:40:17.707417  4798 net.cpp:425] inception_5b/3x3 <- inception_5b/3x3_reduce
I0714 21:40:17.707430  4798 net.cpp:399] inception_5b/3x3 -> inception_5b/3x3
I0714 21:40:17.713788  4802 net.cpp:141] Setting up inception_5b/3x3_reduce
I0714 21:40:17.713824  4802 net.cpp:148] Top shape: 10 192 7 7 (94080)
I0714 21:40:17.713830  4802 net.cpp:156] Memory required for data: 544660480
I0714 21:40:17.713845  4802 layer_factory.hpp:77] Creating layer inception_5b/relu_3x3_reduce
I0714 21:40:17.713856  4802 net.cpp:91] Creating Layer inception_5b/relu_3x3_reduce
I0714 21:40:17.713882  4802 net.cpp:425] inception_5b/relu_3x3_reduce <- inception_5b/3x3_reduce
I0714 21:40:17.713891  4802 net.cpp:386] inception_5b/relu_3x3_reduce -> inception_5b/3x3_reduce (in-place)
I0714 21:40:17.714197  4802 net.cpp:141] Setting up inception_5b/relu_3x3_reduce
I0714 21:40:17.714210  4802 net.cpp:148] Top shape: 10 192 7 7 (94080)
I0714 21:40:17.714215  4802 net.cpp:156] Memory required for data: 545036800
I0714 21:40:17.714221  4802 layer_factory.hpp:77] Creating layer inception_5b/3x3
I0714 21:40:17.714295  4802 net.cpp:91] Creating Layer inception_5b/3x3
I0714 21:40:17.714318  4802 net.cpp:425] inception_5b/3x3 <- inception_5b/3x3_reduce
I0714 21:40:17.714330  4802 net.cpp:399] inception_5b/3x3 -> inception_5b/3x3
I0714 21:40:17.720588  4798 net.cpp:141] Setting up inception_5b/3x3
I0714 21:40:17.720614  4798 net.cpp:148] Top shape: 10 384 7 7 (188160)
I0714 21:40:17.720620  4798 net.cpp:156] Memory required for data: 545789440
I0714 21:40:17.720633  4798 layer_factory.hpp:77] Creating layer inception_5b/relu_3x3
I0714 21:40:17.720696  4798 net.cpp:91] Creating Layer inception_5b/relu_3x3
I0714 21:40:17.720718  4798 net.cpp:425] inception_5b/relu_3x3 <- inception_5b/3x3
I0714 21:40:17.720729  4798 net.cpp:386] inception_5b/relu_3x3 -> inception_5b/3x3 (in-place)
I0714 21:40:17.721699  4798 net.cpp:141] Setting up inception_5b/relu_3x3
I0714 21:40:17.721720  4798 net.cpp:148] Top shape: 10 384 7 7 (188160)
I0714 21:40:17.721726  4798 net.cpp:156] Memory required for data: 546542080
I0714 21:40:17.721740  4798 layer_factory.hpp:77] Creating layer inception_5b/5x5_reduce
I0714 21:40:17.721760  4798 net.cpp:91] Creating Layer inception_5b/5x5_reduce
I0714 21:40:17.721767  4798 net.cpp:425] inception_5b/5x5_reduce <- inception_5a/output_inception_5a/output_0_split_2
I0714 21:40:17.721781  4798 net.cpp:399] inception_5b/5x5_reduce -> inception_5b/5x5_reduce
I0714 21:40:17.727095  4798 net.cpp:141] Setting up inception_5b/5x5_reduce
I0714 21:40:17.727120  4798 net.cpp:148] Top shape: 10 48 7 7 (23520)
I0714 21:40:17.727126  4798 net.cpp:156] Memory required for data: 546636160
I0714 21:40:17.727138  4798 layer_factory.hpp:77] Creating layer inception_5b/relu_5x5_reduce
I0714 21:40:17.727149  4798 net.cpp:91] Creating Layer inception_5b/relu_5x5_reduce
I0714 21:40:17.727155  4798 net.cpp:425] inception_5b/relu_5x5_reduce <- inception_5b/5x5_reduce
I0714 21:40:17.727169  4798 net.cpp:386] inception_5b/relu_5x5_reduce -> inception_5b/5x5_reduce (in-place)
I0714 21:40:17.727721  4798 net.cpp:141] Setting up inception_5b/relu_5x5_reduce
I0714 21:40:17.727737  4798 net.cpp:148] Top shape: 10 48 7 7 (23520)
I0714 21:40:17.727743  4798 net.cpp:156] Memory required for data: 546730240
I0714 21:40:17.727748  4798 layer_factory.hpp:77] Creating layer inception_5b/5x5
I0714 21:40:17.727789  4798 net.cpp:91] Creating Layer inception_5b/5x5
I0714 21:40:17.727798  4798 net.cpp:425] inception_5b/5x5 <- inception_5b/5x5_reduce
I0714 21:40:17.727810  4798 net.cpp:399] inception_5b/5x5 -> inception_5b/5x5
I0714 21:40:17.727916  4802 net.cpp:141] Setting up inception_5b/3x3
I0714 21:40:17.727937  4802 net.cpp:148] Top shape: 10 384 7 7 (188160)
I0714 21:40:17.727943  4802 net.cpp:156] Memory required for data: 545789440
I0714 21:40:17.727955  4802 layer_factory.hpp:77] Creating layer inception_5b/relu_3x3
I0714 21:40:17.727965  4802 net.cpp:91] Creating Layer inception_5b/relu_3x3
I0714 21:40:17.727974  4802 net.cpp:425] inception_5b/relu_3x3 <- inception_5b/3x3
I0714 21:40:17.727983  4802 net.cpp:386] inception_5b/relu_3x3 -> inception_5b/3x3 (in-place)
I0714 21:40:17.729071  4802 net.cpp:141] Setting up inception_5b/relu_3x3
I0714 21:40:17.729091  4802 net.cpp:148] Top shape: 10 384 7 7 (188160)
I0714 21:40:17.729096  4802 net.cpp:156] Memory required for data: 546542080
I0714 21:40:17.729104  4802 layer_factory.hpp:77] Creating layer inception_5b/5x5_reduce
I0714 21:40:17.729136  4802 net.cpp:91] Creating Layer inception_5b/5x5_reduce
I0714 21:40:17.729145  4802 net.cpp:425] inception_5b/5x5_reduce <- inception_5a/output_inception_5a/output_0_split_2
I0714 21:40:17.729158  4802 net.cpp:399] inception_5b/5x5_reduce -> inception_5b/5x5_reduce
I0714 21:40:17.734824  4802 net.cpp:141] Setting up inception_5b/5x5_reduce
I0714 21:40:17.734850  4802 net.cpp:148] Top shape: 10 48 7 7 (23520)
I0714 21:40:17.734856  4802 net.cpp:156] Memory required for data: 546636160
I0714 21:40:17.734868  4802 layer_factory.hpp:77] Creating layer inception_5b/relu_5x5_reduce
I0714 21:40:17.734877  4802 net.cpp:91] Creating Layer inception_5b/relu_5x5_reduce
I0714 21:40:17.734884  4802 net.cpp:425] inception_5b/relu_5x5_reduce <- inception_5b/5x5_reduce
I0714 21:40:17.734894  4802 net.cpp:386] inception_5b/relu_5x5_reduce -> inception_5b/5x5_reduce (in-place)
I0714 21:40:17.735225  4802 net.cpp:141] Setting up inception_5b/relu_5x5_reduce
I0714 21:40:17.735241  4802 net.cpp:148] Top shape: 10 48 7 7 (23520)
I0714 21:40:17.735246  4802 net.cpp:156] Memory required for data: 546730240
I0714 21:40:17.735252  4802 layer_factory.hpp:77] Creating layer inception_5b/5x5
I0714 21:40:17.735270  4802 net.cpp:91] Creating Layer inception_5b/5x5
I0714 21:40:17.735277  4802 net.cpp:425] inception_5b/5x5 <- inception_5b/5x5_reduce
I0714 21:40:17.735287  4802 net.cpp:399] inception_5b/5x5 -> inception_5b/5x5
I0714 21:40:17.736807  4798 net.cpp:141] Setting up inception_5b/5x5
I0714 21:40:17.736830  4798 net.cpp:148] Top shape: 10 128 7 7 (62720)
I0714 21:40:17.736836  4798 net.cpp:156] Memory required for data: 546981120
I0714 21:40:17.736847  4798 layer_factory.hpp:77] Creating layer inception_5b/relu_5x5
I0714 21:40:17.736856  4798 net.cpp:91] Creating Layer inception_5b/relu_5x5
I0714 21:40:17.736863  4798 net.cpp:425] inception_5b/relu_5x5 <- inception_5b/5x5
I0714 21:40:17.736876  4798 net.cpp:386] inception_5b/relu_5x5 -> inception_5b/5x5 (in-place)
I0714 21:40:17.737200  4798 net.cpp:141] Setting up inception_5b/relu_5x5
I0714 21:40:17.737212  4798 net.cpp:148] Top shape: 10 128 7 7 (62720)
I0714 21:40:17.737221  4798 net.cpp:156] Memory required for data: 547232000
I0714 21:40:17.737226  4798 layer_factory.hpp:77] Creating layer inception_5b/pool
I0714 21:40:17.737253  4798 net.cpp:91] Creating Layer inception_5b/pool
I0714 21:40:17.737262  4798 net.cpp:425] inception_5b/pool <- inception_5a/output_inception_5a/output_0_split_3
I0714 21:40:17.737270  4798 net.cpp:399] inception_5b/pool -> inception_5b/pool
I0714 21:40:17.737452  4798 net.cpp:141] Setting up inception_5b/pool
I0714 21:40:17.737464  4798 net.cpp:148] Top shape: 10 832 7 7 (407680)
I0714 21:40:17.737469  4798 net.cpp:156] Memory required for data: 548862720
I0714 21:40:17.737475  4798 layer_factory.hpp:77] Creating layer inception_5b/pool_proj
I0714 21:40:17.737503  4798 net.cpp:91] Creating Layer inception_5b/pool_proj
I0714 21:40:17.737510  4798 net.cpp:425] inception_5b/pool_proj <- inception_5b/pool
I0714 21:40:17.737524  4798 net.cpp:399] inception_5b/pool_proj -> inception_5b/pool_proj
I0714 21:40:17.744495  4802 net.cpp:141] Setting up inception_5b/5x5
I0714 21:40:17.744518  4802 net.cpp:148] Top shape: 10 128 7 7 (62720)
I0714 21:40:17.744524  4802 net.cpp:156] Memory required for data: 546981120
I0714 21:40:17.744535  4802 layer_factory.hpp:77] Creating layer inception_5b/relu_5x5
I0714 21:40:17.744560  4802 net.cpp:91] Creating Layer inception_5b/relu_5x5
I0714 21:40:17.744567  4802 net.cpp:425] inception_5b/relu_5x5 <- inception_5b/5x5
I0714 21:40:17.744578  4802 net.cpp:386] inception_5b/relu_5x5 -> inception_5b/5x5 (in-place)
I0714 21:40:17.745117  4802 net.cpp:141] Setting up inception_5b/relu_5x5
I0714 21:40:17.745132  4802 net.cpp:148] Top shape: 10 128 7 7 (62720)
I0714 21:40:17.745138  4802 net.cpp:156] Memory required for data: 547232000
I0714 21:40:17.745147  4802 layer_factory.hpp:77] Creating layer inception_5b/pool
I0714 21:40:17.745158  4802 net.cpp:91] Creating Layer inception_5b/pool
I0714 21:40:17.745164  4802 net.cpp:425] inception_5b/pool <- inception_5a/output_inception_5a/output_0_split_3
I0714 21:40:17.745187  4802 net.cpp:399] inception_5b/pool -> inception_5b/pool
I0714 21:40:17.745219  4798 net.cpp:141] Setting up inception_5b/pool_proj
I0714 21:40:17.745241  4798 net.cpp:148] Top shape: 10 128 7 7 (62720)
I0714 21:40:17.745247  4798 net.cpp:156] Memory required for data: 549113600
I0714 21:40:17.745257  4798 layer_factory.hpp:77] Creating layer inception_5b/relu_pool_proj
I0714 21:40:17.745271  4798 net.cpp:91] Creating Layer inception_5b/relu_pool_proj
I0714 21:40:17.745280  4798 net.cpp:425] inception_5b/relu_pool_proj <- inception_5b/pool_proj
I0714 21:40:17.745288  4798 net.cpp:386] inception_5b/relu_pool_proj -> inception_5b/pool_proj (in-place)
I0714 21:40:17.746140  4802 net.cpp:141] Setting up inception_5b/pool
I0714 21:40:17.746155  4802 net.cpp:148] Top shape: 10 832 7 7 (407680)
I0714 21:40:17.746160  4802 net.cpp:156] Memory required for data: 548862720
I0714 21:40:17.746165  4802 layer_factory.hpp:77] Creating layer inception_5b/pool_proj
I0714 21:40:17.746182  4802 net.cpp:91] Creating Layer inception_5b/pool_proj
I0714 21:40:17.746189  4802 net.cpp:425] inception_5b/pool_proj <- inception_5b/pool
I0714 21:40:17.746202  4802 net.cpp:399] inception_5b/pool_proj -> inception_5b/pool_proj
I0714 21:40:17.746269  4798 net.cpp:141] Setting up inception_5b/relu_pool_proj
I0714 21:40:17.746285  4798 net.cpp:148] Top shape: 10 128 7 7 (62720)
I0714 21:40:17.746290  4798 net.cpp:156] Memory required for data: 549364480
I0714 21:40:17.746296  4798 layer_factory.hpp:77] Creating layer inception_5b/output
I0714 21:40:17.746309  4798 net.cpp:91] Creating Layer inception_5b/output
I0714 21:40:17.746316  4798 net.cpp:425] inception_5b/output <- inception_5b/1x1
I0714 21:40:17.746323  4798 net.cpp:425] inception_5b/output <- inception_5b/3x3
I0714 21:40:17.746330  4798 net.cpp:425] inception_5b/output <- inception_5b/5x5
I0714 21:40:17.746335  4798 net.cpp:425] inception_5b/output <- inception_5b/pool_proj
I0714 21:40:17.746343  4798 net.cpp:399] inception_5b/output -> inception_5b/output
I0714 21:40:17.746556  4798 net.cpp:141] Setting up inception_5b/output
I0714 21:40:17.746569  4798 net.cpp:148] Top shape: 10 1024 7 7 (501760)
I0714 21:40:17.746574  4798 net.cpp:156] Memory required for data: 551371520
I0714 21:40:17.746580  4798 layer_factory.hpp:77] Creating layer pool5/7x7_s1
I0714 21:40:17.746594  4798 net.cpp:91] Creating Layer pool5/7x7_s1
I0714 21:40:17.746600  4798 net.cpp:425] pool5/7x7_s1 <- inception_5b/output
I0714 21:40:17.746611  4798 net.cpp:399] pool5/7x7_s1 -> pool5/7x7_s1
I0714 21:40:17.748397  4798 net.cpp:141] Setting up pool5/7x7_s1
I0714 21:40:17.748415  4798 net.cpp:148] Top shape: 10 1024 1 1 (10240)
I0714 21:40:17.748421  4798 net.cpp:156] Memory required for data: 551412480
I0714 21:40:17.748426  4798 layer_factory.hpp:77] Creating layer pool5/drop_7x7_s1
I0714 21:40:17.748461  4798 net.cpp:91] Creating Layer pool5/drop_7x7_s1
I0714 21:40:17.748468  4798 net.cpp:425] pool5/drop_7x7_s1 <- pool5/7x7_s1
I0714 21:40:17.748479  4798 net.cpp:386] pool5/drop_7x7_s1 -> pool5/7x7_s1 (in-place)
I0714 21:40:17.749104  4798 net.cpp:141] Setting up pool5/drop_7x7_s1
I0714 21:40:17.749119  4798 net.cpp:148] Top shape: 10 1024 1 1 (10240)
I0714 21:40:17.749125  4798 net.cpp:156] Memory required for data: 551453440
I0714 21:40:17.749130  4798 layer_factory.hpp:77] Creating layer loss3/classifier
I0714 21:40:17.749153  4798 net.cpp:91] Creating Layer loss3/classifier
I0714 21:40:17.749161  4798 net.cpp:425] loss3/classifier <- pool5/7x7_s1
I0714 21:40:17.749169  4798 net.cpp:399] loss3/classifier -> loss3/classifier
I0714 21:40:17.759374  4802 net.cpp:141] Setting up inception_5b/pool_proj
I0714 21:40:17.759400  4802 net.cpp:148] Top shape: 10 128 7 7 (62720)
I0714 21:40:17.759408  4802 net.cpp:156] Memory required for data: 549113600
I0714 21:40:17.759448  4802 layer_factory.hpp:77] Creating layer inception_5b/relu_pool_proj
I0714 21:40:17.759528  4802 net.cpp:91] Creating Layer inception_5b/relu_pool_proj
I0714 21:40:17.759541  4802 net.cpp:425] inception_5b/relu_pool_proj <- inception_5b/pool_proj
I0714 21:40:17.759551  4802 net.cpp:386] inception_5b/relu_pool_proj -> inception_5b/pool_proj (in-place)
I0714 21:40:17.760660  4802 net.cpp:141] Setting up inception_5b/relu_pool_proj
I0714 21:40:17.760677  4802 net.cpp:148] Top shape: 10 128 7 7 (62720)
I0714 21:40:17.760684  4802 net.cpp:156] Memory required for data: 549364480
I0714 21:40:17.760689  4802 layer_factory.hpp:77] Creating layer inception_5b/output
I0714 21:40:17.760722  4802 net.cpp:91] Creating Layer inception_5b/output
I0714 21:40:17.760730  4802 net.cpp:425] inception_5b/output <- inception_5b/1x1
I0714 21:40:17.760737  4802 net.cpp:425] inception_5b/output <- inception_5b/3x3
I0714 21:40:17.760743  4802 net.cpp:425] inception_5b/output <- inception_5b/5x5
I0714 21:40:17.760751  4802 net.cpp:425] inception_5b/output <- inception_5b/pool_proj
I0714 21:40:17.760757  4802 net.cpp:399] inception_5b/output -> inception_5b/output
I0714 21:40:17.760860  4802 net.cpp:141] Setting up inception_5b/output
I0714 21:40:17.760872  4802 net.cpp:148] Top shape: 10 1024 7 7 (501760)
I0714 21:40:17.760879  4802 net.cpp:156] Memory required for data: 551371520
I0714 21:40:17.760885  4802 layer_factory.hpp:77] Creating layer pool5/7x7_s1
I0714 21:40:17.760895  4802 net.cpp:91] Creating Layer pool5/7x7_s1
I0714 21:40:17.760900  4802 net.cpp:425] pool5/7x7_s1 <- inception_5b/output
I0714 21:40:17.760908  4802 net.cpp:399] pool5/7x7_s1 -> pool5/7x7_s1
I0714 21:40:17.761306  4802 net.cpp:141] Setting up pool5/7x7_s1
I0714 21:40:17.761318  4802 net.cpp:148] Top shape: 10 1024 1 1 (10240)
I0714 21:40:17.761325  4802 net.cpp:156] Memory required for data: 551412480
I0714 21:40:17.761332  4802 layer_factory.hpp:77] Creating layer pool5/drop_7x7_s1
I0714 21:40:17.761351  4802 net.cpp:91] Creating Layer pool5/drop_7x7_s1
I0714 21:40:17.761358  4802 net.cpp:425] pool5/drop_7x7_s1 <- pool5/7x7_s1
I0714 21:40:17.761368  4802 net.cpp:386] pool5/drop_7x7_s1 -> pool5/7x7_s1 (in-place)
I0714 21:40:17.761454  4802 net.cpp:141] Setting up pool5/drop_7x7_s1
I0714 21:40:17.761466  4802 net.cpp:148] Top shape: 10 1024 1 1 (10240)
I0714 21:40:17.761471  4802 net.cpp:156] Memory required for data: 551453440
I0714 21:40:17.761476  4802 layer_factory.hpp:77] Creating layer loss3/classifier
I0714 21:40:17.761488  4802 net.cpp:91] Creating Layer loss3/classifier
I0714 21:40:17.761497  4802 net.cpp:425] loss3/classifier <- pool5/7x7_s1
I0714 21:40:17.761507  4802 net.cpp:399] loss3/classifier -> loss3/classifier
I0714 21:40:17.765846  4798 net.cpp:141] Setting up loss3/classifier
I0714 21:40:17.765887  4798 net.cpp:148] Top shape: 10 1000 (10000)
I0714 21:40:17.765892  4798 net.cpp:156] Memory required for data: 551493440
I0714 21:40:17.765907  4798 layer_factory.hpp:77] Creating layer prob
I0714 21:40:17.765928  4798 net.cpp:91] Creating Layer prob
I0714 21:40:17.765936  4798 net.cpp:425] prob <- loss3/classifier
I0714 21:40:17.765946  4798 net.cpp:399] prob -> prob
I0714 21:40:17.767834  4798 net.cpp:141] Setting up prob
I0714 21:40:17.767855  4798 net.cpp:148] Top shape: 10 1000 (10000)
I0714 21:40:17.767860  4798 net.cpp:156] Memory required for data: 551533440
I0714 21:40:17.767868  4798 net.cpp:219] prob does not need backward computation.
I0714 21:40:17.767873  4798 net.cpp:219] loss3/classifier does not need backward computation.
I0714 21:40:17.767879  4798 net.cpp:219] pool5/drop_7x7_s1 does not need backward computation.
I0714 21:40:17.767884  4798 net.cpp:219] pool5/7x7_s1 does not need backward computation.
…
