…
I0924 03:24:13.108176 25179 upgrade_proto.cpp:66] Attempting to upgrade input file specified using deprecated input fields: /home/peifeng/work/run/storm102/data/workers/e1ce087b-768a-49a3-94cb-614908e9eb5d/tmp/cvld8054709695384315995/s2vt.words_to_preds.prototxt
I0924 03:24:13.108201 25179 upgrade_proto.cpp:69] Successfully upgraded file specified using deprecated input fields.
W0924 03:24:13.108209 25179 upgrade_proto.cpp:71] Note that future Caffe releases will only support input layers and not input fields.
I0924 03:24:13.108255 25173 net.cpp:49] Initializing net from parameters: 
name: "CaffeNet"
state {
  phase: TEST
}
layer {
  name: "data"
  type: "Input"
  top: "data"
  input_param {
    shape {
      dim: 10
      dim: 3
      dim: 227
      dim: 227
    }
  }
}
layer {
  name: "conv1"
  type: "Convolution"
  bottom: "data"
  top: "conv1"
  convolution_param {
    num_output: 96
    kernel_size: 11
    stride: 4
  }
}
layer {
  name: "relu1"
  type: "ReLU"
  bottom: "conv1"
  top: "conv1"
}
layer {
  name: "pool1"
  type: "Pooling"
  bottom: "conv1"
  top: "pool1"
  pooling_param {
    pool: MAX
    kernel_size: 3
    stride: 2
  }
}
layer {
  name: "norm1"
  type: "LRN"
  bottom: "pool1"
  top: "norm1"
  lrn_param {
    local_size: 5
    alpha: 0.0001
    beta: 0.75
  }
}
layer {
  name: "conv2"
  type: "Convolution"
  bottom: "norm1"
  top: "conv2"
  convolution_param {
    num_output: 256
    pad: 2
    kernel_size: 5
    group: 2
  }
}
layer {
  name: "relu2"
  type: "ReLU"
  bottom: "conv2"
  top: "conv2"
}
layer {
  name: "pool2"
  type: "Pooling"
  bottom: "conv2"
  top: "pool2"
  pooling_param {
    pool: MAX
    kernel_size: 3
    stride: 2
  }
}
layer {
  name: "norm2"
  type: "LRN"
  bottom: "pool2"
  top: "norm2"
  lrn_param {
    local_size: 5
    alpha: 0.0001
    beta: 0.75
  }
}
layer {
  name: "conv3"
  type: "Convolution"
  bottom: "norm2"
  top: "conv3"
  convolution_param {
    num_output: 384
    pad: 1
    kernel_size: 3
  }
}
layer {
  name: "relu3"
  type: "ReLU"
  bottom: "conv3"
  top: "conv3"
}
layer {
  name: "conv4"
  type: "Convolution"
  bottom: "conv3"
  top: "conv4"
  convolution_param {
    num_output: 384
    pad: 1
    kernel_size: 3
    group: 2
  }
}
layer {
  name: "relu4"
  type: "ReLU"
  bottom: "conv4"
  top: "conv4"
}
layer {
  name: "conv5"
  type: "Convolution"
  bottom: "conv4"
  top: "conv5"
  convolution_param {
    num_output: 256
    pad: 1
    kernel_size: 3
    group: 2
  }
}
layer {
  name: "relu5"
  type: "ReLU"
  bottom: "conv5"
  top: "conv5"
}
layer {
  name: "pool5"
  type: "Pooling"
  bottom: "conv5"
  top: "pool5"
  pooling_param {
    pool: MAX
    kernel_size: 3
    stride: 2
  }
}
layer {
  name: "fc6"
  type: "InnerProduct"
  bottom: "pool5"
  top: "fc6"
  inner_product_param {
    num_output: 4096
  }
}
layer {
  name: "relu6"
  type: "ReLU"
  bottom: "fc6"
  top: "fc6"
}
layer {
  name: "drop6"
  type: "Dropout"
  bottom: "fc6"
  top: "fc6"
  dropout_param {
    dropout_ratio: 0.5
  }
}
layer {
  name: "fc7"
  type: "InnerProduct"
  bottom: "fc6"
  top: "fc7"
  inner_product_param {
    num_output: 4096
  }
}
layer {
  name: "relu7"
  type: "ReLU"
  bottom: "fc7"
  top: "fc7"
}
layer {
  name: "drop7"
  type: "Dropout"
  bottom: "fc7"
  top: "fc7"
  dropout_param {
    dropout_ratio: 0.5
  }
}
layer {
  name: "fc8"
  type: "InnerProduct"
  bottom: "fc7"
  top: "fc8"
  inner_product_param {
    num_output: 1000
  }
}
layer {
  name: "prob"
  type: "Softmax"
  bottom: "fc8"
  top: "prob"
}
I0924 03:24:13.108290 25161 net.cpp:49] Initializing net from parameters: 
name: "s2vt:features_to_lstm"
state {
  phase: TEST
}
layer {
  name: "input"
  type: "Input"
  top: "frames_fc7"
  top: "cont_sentence"
  top: "input_sentence"
  top: "stage_indicator"
  input_param {
    shape {
      dim: 1
      dim: 4096
    }
    shape {
      dim: 1
      dim: 1
    }
    shape {
      dim: 1
      dim: 1
    }
    shape {
      dim: 1
      dim: 1
    }
  }
}
layer {
  name: "embed_encoder"
  type: "InnerProduct"
  bottom: "frames_fc7"
  top: "embedded_in_frames"
  param {
    lr_mult: 1
    decay_mult: 1
  }
  param {
    lr_mult: 2
    decay_mult: 0
  }
  inner_product_param {
    num_output: 500
    weight_filler {
      type: "xavier"
    }
    bias_filler {
      type: "constant"
      value: 0.2
    }
  }
}
layer {
  name: "reshape_frames"
  type: "Reshape"
  bottom: "embedded_in_frames"
  top: "embedded_input_frames"
  reshape_param {
    shape {
      dim: 1
      dim: 1
      dim: 500
    }
  }
}
layer {
  name: "reshape_stage_indicator"
  type: "Reshape"
  bottom: "stage_indicator"
  top: "reshaped_stage_indicator"
  reshape_param {
    shape {
      dim: 1
      dim: 1
      dim: 1
    }
  }
}
layer {
  name: "embedding"
  type: "Embed"
  bottom: "input_sentence"
  top: "embedded_input_sentence"
  param {
    lr_mult: 1
  }
  embed_param {
    num_output: 500
    input_dim: 46168
    bias_term: false
    weight_filler {
      type: "uniform"
      min: -0.08
      max: 0.08
    }
  }
}
layer {
  name: "lstm1"
  type: "LSTM"
  bottom: "embedded_input_frames"
  bottom: "cont_sentence"
  top: "lstm1"
  recurrent_param {
    num_output: 1000
    weight_filler {
      type: "uniform"
      min: -0.08
      max: 0.08
    }
    bias_filler {
      type: "constant"
      value: 0
    }
  }
}
layer {
  name: "concat"
  type: "Concat"
  bottom: "lstm1"
  bottom: "embedded_input_sentence"
  bottom: "reshaped_stage_indicator"
  top: "lstm1_video_sequence"
  concat_param {
    concat_dim: 2
  }
}
layer {
  name: "lstm2"
  type: "LSTM"
  bottom: "lstm1_video_sequence"
  bottom: "cont_sentence"
  top: "lstm2"
  recurrent_param {
    num_output: 1000
    weight_filler {
      type: "uniform"
      min: -0.08
      max: 0.08
    }
    bias_filler {
      type: "constant"
      value: 0
    }
  }
}
layer {
  name: "predict"
  type: "InnerProduct"
  bottom: "lstm2"
  top: "predict"
  param {
    lr_mult: 1
    decay_mult: 1
  }
  param {
    lr_mult: 2
    decay_mult: 0
  }
  inner_product_param {
    num_output: 46168
    weight_filler {
      type: "uniform"
      min: -0.08
      max: 0.08
    }
    bias_filler {
      type: "constant"
      value: 0
    }
    axis: 2
  }
}
layer {
  name: "probs"
  type: "Softmax"
  bottom: "predict"
  top: "probs"
  softmax_param {
    axis: 2
  }
}
I0924 03:24:13.108417 25171 net.cpp:49] Initializing net from parameters: 
name: "s2vt:features_to_lstm"
state {
  phase: TEST
}
layer {
  name: "input"
  type: "Input"
  top: "frames_fc7"
  top: "cont_sentence"
  top: "input_sentence"
  top: "stage_indicator"
  input_param {
    shape {
      dim: 1
      dim: 4096
    }
    shape {
      dim: 1
      dim: 1
    }
    shape {
      dim: 1
      dim: 1
    }
    shape {
      dim: 1
      dim: 1
    }
  }
}
layer {
  name: "embed_encoder"
  type: "InnerProduct"
  bottom: "frames_fc7"
  top: "embedded_in_frames"
  param {
    lr_mult: 1
    decay_mult: 1
  }
  param {
    lr_mult: 2
    decay_mult: 0
  }
  inner_product_param {
    num_output: 500
    weight_filler {
      type: "xavier"
    }
    bias_filler {
      type: "constant"
      value: 0.2
    }
  }
}
layer {
  name: "reshape_frames"
  type: "Reshape"
  bottom: "embedded_in_frames"
  top: "embedded_input_frames"
  reshape_param {
    shape {
      dim: 1
      dim: 1
      dim: 500
    }
  }
}
layer {
  name: "reshape_stage_indicator"
  type: "Reshape"
  bottom: "stage_indicator"
  top: "reshaped_stage_indicator"
  reshape_param {
    shape {
      dim: 1
      dim: 1
      dim: 1
    }
  }
}
layer {
  name: "embedding"
  type: "Embed"
  bottom: "input_sentence"
  top: "embedded_input_sentence"
  param {
    lr_mult: 1
  }
  embed_param {
    num_output: 500
    input_dim: 46168
    bias_term: false
    weight_filler {
      type: "uniform"
      min: -0.08
      max: 0.08
    }
  }
}
layer {
  name: "lstm1"
  type: "LSTM"
  bottom: "embedded_input_frames"
  bottom: "cont_sentence"
  top: "lstm1"
  recurrent_param {
    num_output: 1000
    weight_filler {
      type: "uniform"
      min: -0.08
      max: 0.08
    }
    bias_filler {
      type: "constant"
      value: 0
    }
  }
}
layer {
  name: "concat"
  type: "Concat"
  bottom: "lstm1"
  bottom: "embedded_input_sentence"
  bottom: "reshaped_stage_indicator"
  top: "lstm1_video_sequence"
  concat_param {
    concat_dim: 2
  }
}
layer {
  name: "lstm2"
  type: "LSTM"
  bottom: "lstm1_video_sequence"
  bottom: "cont_sentence"
  top: "lstm2"
  recurrent_param {
    num_output: 1000
    weight_filler {
      type: "uniform"
      min: -0.08
      max: 0.08
    }
    bias_filler {
      type: "constant"
      value: 0
    }
  }
}
layer {
  name: "predict"
  type: "InnerProduct"
  bottom: "lstm2"
  top: "predict"
  param {
    lr_mult: 1
    decay_mult: 1
  }
  param {
    lr_mult: 2
    decay_mult: 0
  }
  inner_product_param {
    num_output: 46168
    weight_filler {
      type: "uniform"
      min: -0.08
      max: 0.08
    }
    bias_filler {
      type: "constant"
      value: 0
    }
    axis: 2
  }
}
layer {
  name: "probs"
  type: "Softmax"
  bottom: "predict"
  top: "probs"
  softmax_param {
    axis: 2
  }
}
I0924 03:24:13.108443 25173 layer_factory.hpp:77] Creating layer data
I0924 03:24:13.108472 25161 layer_factory.hpp:77] Creating layer input
I0924 03:24:13.108480 25173 net.cpp:91] Creating Layer data
I0924 03:24:13.108494 25161 net.cpp:91] Creating Layer input
I0924 03:24:13.108503 25179 net.cpp:49] Initializing net from parameters: 
name: "s2vt:features_to_lstm"
state {
  phase: TEST
}
layer {
  name: "input"
  type: "Input"
  top: "frames_fc7"
  top: "cont_sentence"
  top: "input_sentence"
  top: "stage_indicator"
  input_param {
    shape {
      dim: 1
      dim: 4096
    }
    shape {
      dim: 1
      dim: 1
    }
    shape {
      dim: 1
      dim: 1
    }
    shape {
      dim: 1
      dim: 1
    }
  }
}
layer {
  name: "embed_encoder"
  type: "InnerProduct"
  bottom: "frames_fc7"
  top: "embedded_in_frames"
  param {
    lr_mult: 1
    decay_mult: 1
  }
  param {
    lr_mult: 2
    decay_mult: 0
  }
  inner_product_param {
    num_output: 500
    weight_filler {
      type: "xavier"
    }
    bias_filler {
      type: "constant"
      value: 0.2
    }
  }
}
layer {
  name: "reshape_frames"
  type: "Reshape"
  bottom: "embedded_in_frames"
  top: "embedded_input_frames"
  reshape_param {
    shape {
      dim: 1
      dim: 1
      dim: 500
    }
  }
}
layer {
  name: "reshape_stage_indicator"
  type: "Reshape"
  bottom: "stage_indicator"
  top: "reshaped_stage_indicator"
  reshape_param {
    shape {
      dim: 1
      dim: 1
      dim: 1
    }
  }
}
layer {
  name: "embedding"
  type: "Embed"
  bottom: "input_sentence"
  top: "embedded_input_sentence"
  param {
    lr_mult: 1
  }
  embed_param {
    num_output: 500
    input_dim: 46168
    bias_term: false
    weight_filler {
      type: "uniform"
      min: -0.08
      max: 0.08
    }
  }
}
layer {
  name: "lstm1"
  type: "LSTM"
  bottom: "embedded_input_frames"
  bottom: "cont_sentence"
  top: "lstm1"
  recurrent_param {
    num_output: 1000
    weight_filler {
      type: "uniform"
      min: -0.08
      max: 0.08
    }
    bias_filler {
      type: "constant"
      value: 0
    }
  }
}
layer {
  name: "concat"
  type: "Concat"
  bottom: "lstm1"
  bottom: "embedded_input_sentence"
  bottom: "reshaped_stage_indicator"
  top: "lstm1_video_sequence"
  concat_param {
    concat_dim: 2
  }
}
layer {
  name: "lstm2"
  type: "LSTM"
  bottom: "lstm1_video_sequence"
  bottom: "cont_sentence"
  top: "lstm2"
  recurrent_param {
    num_output: 1000
    weight_filler {
      type: "uniform"
      min: -0.08
      max: 0.08
    }
    bias_filler {
      type: "constant"
      value: 0
    }
  }
}
layer {
  name: "predict"
  type: "InnerProduct"
  bottom: "lstm2"
  top: "predict"
  param {
    lr_mult: 1
    decay_mult: 1
  }
  param {
    lr_mult: 2
    decay_mult: 0
  }
  inner_product_param {
    num_output: 46168
    weight_filler {
      type: "uniform"
      min: -0.08
      max: 0.08
    }
    bias_filler {
      type: "constant"
      value: 0
    }
    axis: 2
  }
}
layer {
  name: "probs"
  type: "Softmax"
  bottom: "predict"
  top: "probs"
  softmax_param {
    axis: 2
  }
}
I0924 03:24:13.108499 25173 net.cpp:399] data -> data
I0924 03:24:13.108526 25161 net.cpp:399] input -> frames_fc7
I0924 03:24:13.108566 25161 net.cpp:399] input -> cont_sentence
I0924 03:24:13.108589 25161 net.cpp:399] input -> input_sentence
I0924 03:24:13.108608 25161 net.cpp:399] input -> stage_indicator
I0924 03:24:13.108618 25179 layer_factory.hpp:77] Creating layer input
I0924 03:24:13.108639 25179 net.cpp:91] Creating Layer input
I0924 03:24:13.108650 25179 net.cpp:399] input -> frames_fc7
I0924 03:24:13.108669 25179 net.cpp:399] input -> cont_sentence
I0924 03:24:13.108685 25179 net.cpp:399] input -> input_sentence
I0924 03:24:13.108700 25179 net.cpp:399] input -> stage_indicator
I0924 03:24:13.108927 25165 net.cpp:49] Initializing net from parameters: 
name: "s2vt:features_to_lstm"
state {
  phase: TEST
}
layer {
  name: "input"
  type: "Input"
  top: "frames_fc7"
  top: "cont_sentence"
  top: "input_sentence"
  top: "stage_indicator"
  input_param {
    shape {
      dim: 1
      dim: 4096
    }
    shape {
      dim: 1
      dim: 1
    }
    shape {
      dim: 1
      dim: 1
    }
    shape {
      dim: 1
      dim: 1
    }
  }
}
layer {
  name: "embed_encoder"
  type: "InnerProduct"
  bottom: "frames_fc7"
  top: "embedded_in_frames"
  param {
    lr_mult: 1
    decay_mult: 1
  }
  param {
    lr_mult: 2
    decay_mult: 0
  }
  inner_product_param {
    num_output: 500
    weight_filler {
      type: "xavier"
    }
    bias_filler {
      type: "constant"
      value: 0.2
    }
  }
}
layer {
  name: "reshape_frames"
  type: "Reshape"
  bottom: "embedded_in_frames"
  top: "embedded_input_frames"
  reshape_param {
    shape {
      dim: 1
      dim: 1
      dim: 500
    }
  }
}
layer {
  name: "reshape_stage_indicator"
  type: "Reshape"
  bottom: "stage_indicator"
  top: "reshaped_stage_indicator"
  reshape_param {
    shape {
      dim: 1
      dim: 1
      dim: 1
    }
  }
}
layer {
  name: "embedding"
  type: "Embed"
  bottom: "input_sentence"
  top: "embedded_input_sentence"
  param {
    lr_mult: 1
  }
  embed_param {
    num_output: 500
    input_dim: 46168
    bias_term: false
    weight_filler {
      type: "uniform"
      min: -0.08
      max: 0.08
    }
  }
}
layer {
  name: "lstm1"
  type: "LSTM"
  bottom: "embedded_input_frames"
  bottom: "cont_sentence"
  top: "lstm1"
  recurrent_param {
    num_output: 1000
    weight_filler {
      type: "uniform"
      min: -0.08
      max: 0.08
    }
    bias_filler {
      type: "constant"
      value: 0
    }
  }
}
layer {
  name: "concat"
  type: "Concat"
  bottom: "lstm1"
  bottom: "embedded_input_sentence"
  bottom: "reshaped_stage_indicator"
  top: "lstm1_video_sequence"
  concat_param {
    concat_dim: 2
  }
}
layer {
  name: "lstm2"
  type: "LSTM"
  bottom: "lstm1_video_sequence"
  bottom: "cont_sentence"
  top: "lstm2"
  recurrent_param {
    num_output: 1000
    weight_filler {
      type: "uniform"
      min: -0.08
      max: 0.08
    }
    bias_filler {
      type: "constant"
      value: 0
    }
  }
}
layer {
  name: "predict"
  type: "InnerProduct"
  bottom: "lstm2"
  top: "predict"
  param {
    lr_mult: 1
    decay_mult: 1
  }
  param {
    lr_mult: 2
    decay_mult: 0
  }
  inner_product_param {
    num_output: 46168
    weight_filler {
      type: "uniform"
      min: -0.08
      max: 0.08
    }
    bias_filler {
      type: "constant"
      value: 0
    }
    axis: 2
  }
}
layer {
  name: "probs"
  type: "Softmax"
  bottom: "predict"
  top: "probs"
  softmax_param {
    axis: 2
  }
}
I0924 03:24:13.109063 25165 layer_factory.hpp:77] Creating layer input
I0924 03:24:13.109079 25205 upgrade_proto.cpp:66] Attempting to upgrade input file specified using deprecated input fields: /home/peifeng/work/run/storm102/data/workers/e1ce087b-768a-49a3-94cb-614908e9eb5d/tmp/cvld8054709695384315995/s2vt.words_to_preds.prototxt
I0924 03:24:13.109086 25165 net.cpp:91] Creating Layer input
…
W0924 03:24:13.107830 25199 upgrade_proto.cpp:71] Note that future Caffe releases will only support input layers and not input fields.
I0924 03:24:13.109398 25205 net.cpp:49] Initializing net from parameters: 
name: "s2vt:features_to_lstm"
state {
  phase: TEST
}
layer {
  name: "input"
  type: "Input"
  top: "frames_fc7"
  top: "cont_sentence"
  top: "input_sentence"
  top: "stage_indicator"
  input_param {
    shape {
      dim: 1
      dim: 4096
    }
    shape {
      dim: 1
      dim: 1
    }
    shape {
      dim: 1
      dim: 1
    }
    shape {
      dim: 1
      dim: 1
    }
  }
}
layer {
  name: "embed_encoder"
  type: "InnerProduct"
  bottom: "frames_fc7"
  top: "embedded_in_frames"
  param {
    lr_mult: 1
    decay_mult: 1
  }
  param {
    lr_mult: 2
    decay_mult: 0
  }
  inner_product_param {
    num_output: 500
    weight_filler {
      type: "xavier"
    }
    bias_filler {
      type: "constant"
      value: 0.2
    }
  }
}
layer {
  name: "reshape_frames"
  type: "Reshape"
  bottom: "embedded_in_frames"
  top: "embedded_input_frames"
  reshape_param {
    shape {
      dim: 1
      dim: 1
      dim: 500
    }
  }
}
layer {
  name: "reshape_stage_indicator"
  type: "Reshape"
  bottom: "stage_indicator"
  top: "reshaped_stage_indicator"
  reshape_param {
    shape {
      dim: 1
      dim: 1
      dim: 1
    }
  }
}
layer {
  name: "embedding"
  type: "Embed"
  bottom: "input_sentence"
  top: "embedded_input_sentence"
  param {
    lr_mult: 1
  }
  embed_param {
    num_output: 500
    input_dim: 46168
    bias_term: false
    weight_filler {
      type: "uniform"
      min: -0.08
      max: 0.08
    }
  }
}
layer {
  name: "lstm1"
  type: "LSTM"
  bottom: "embedded_input_frames"
  bottom: "cont_sentence"
  top: "lstm1"
  recurrent_param {
    num_output: 1000
    weight_filler {
      type: "uniform"
      min: -0.08
      max: 0.08
    }
    bias_filler {
      type: "constant"
      value: 0
    }
  }
}
layer {
  name: "concat"
  type: "Concat"
  bottom: "lstm1"
  bottom: "embedded_input_sentence"
  bottom: "reshaped_stage_indicator"
  top: "lstm1_video_sequence"
  concat_param {
    concat_dim: 2
  }
}
layer {
  name: "lstm2"
  type: "LSTM"
  bottom: "lstm1_video_sequence"
  bottom: "cont_sentence"
  top: "lstm2"
  recurrent_param {
    num_output: 1000
    weight_filler {
      type: "uniform"
      min: -0.08
      max: 0.08
    }
    bias_filler {
      type: "constant"
      value: 0
    }
  }
}
layer {
  name: "predict"
  type: "InnerProduct"
  bottom: "lstm2"
  top: "predict"
  param {
    lr_mult: 1
    decay_mult: 1
  }
  param {
    lr_mult: 2
    decay_mult: 0
  }
  inner_product_param {
    num_output: 46168
    weight_filler {
      type: "uniform"
      min: -0.08
      max: 0.08
    }
    bias_filler {
      type: "constant"
      value: 0
    }
    axis: 2
  }
}
layer {
  name: "probs"
  type: "Softmax"
  bottom: "predict"
  top: "probs"
  softmax_param {
    axis: 2
  }
}
I0924 03:24:13.109511 25205 layer_factory.hpp:77] Creating layer input
I0924 03:24:13.109530 25205 net.cpp:91] Creating Layer input
I0924 03:24:13.109542 25205 net.cpp:399] input -> frames_fc7
I0924 03:24:13.109560 25205 net.cpp:399] input -> cont_sentence
I0924 03:24:13.109577 25205 net.cpp:399] input -> input_sentence
I0924 03:24:13.109594 25205 net.cpp:399] input -> stage_indicator
I0924 03:24:13.109589 25199 net.cpp:49] Initializing net from parameters: 
name: "s2vt:features_to_lstm"
state {
  phase: TEST
}
layer {
  name: "input"
  type: "Input"
  top: "frames_fc7"
  top: "cont_sentence"
  top: "input_sentence"
  top: "stage_indicator"
  input_param {
    shape {
      dim: 1
      dim: 4096
    }
    shape {
      dim: 1
      dim: 1
    }
    shape {
      dim: 1
      dim: 1
    }
    shape {
      dim: 1
      dim: 1
    }
  }
}
layer {
  name: "embed_encoder"
  type: "InnerProduct"
  bottom: "frames_fc7"
  top: "embedded_in_frames"
  param {
    lr_mult: 1
    decay_mult: 1
  }
  param {
    lr_mult: 2
    decay_mult: 0
  }
  inner_product_param {
    num_output: 500
    weight_filler {
      type: "xavier"
    }
    bias_filler {
      type: "constant"
      value: 0.2
    }
  }
}
layer {
  name: "reshape_frames"
  type: "Reshape"
  bottom: "embedded_in_frames"
  top: "embedded_input_frames"
  reshape_param {
    shape {
      dim: 1
      dim: 1
      dim: 500
    }
  }
}
layer {
  name: "reshape_stage_indicator"
  type: "Reshape"
  bottom: "stage_indicator"
  top: "reshaped_stage_indicator"
  reshape_param {
    shape {
      dim: 1
      dim: 1
      dim: 1
    }
  }
}
layer {
  name: "embedding"
  type: "Embed"
  bottom: "input_sentence"
  top: "embedded_input_sentence"
  param {
    lr_mult: 1
  }
  embed_param {
    num_output: 500
    input_dim: 46168
    bias_term: false
    weight_filler {
      type: "uniform"
      min: -0.08
      max: 0.08
    }
  }
}
layer {
  name: "lstm1"
  type: "LSTM"
  bottom: "embedded_input_frames"
  bottom: "cont_sentence"
  top: "lstm1"
  recurrent_param {
    num_output: 1000
    weight_filler {
      type: "uniform"
      min: -0.08
      max: 0.08
    }
    bias_filler {
      type: "constant"
      value: 0
    }
  }
}
layer {
  name: "concat"
  type: "Concat"
  bottom: "lstm1"
  bottom: "embedded_input_sentence"
  bottom: "reshaped_stage_indicator"
  top: "lstm1_video_sequence"
  concat_param {
    concat_dim: 2
  }
}
layer {
  name: "lstm2"
  type: "LSTM"
  bottom: "lstm1_video_sequence"
  bottom: "cont_sentence"
  top: "lstm2"
  recurrent_param {
    num_output: 1000
    weight_filler {
      type: "uniform"
      min: -0.08
      max: 0.08
    }
    bias_filler {
      type: "constant"
      value: 0
    }
  }
}
layer {
  name: "predict"
  type: "InnerProduct"
  bottom: "lstm2"
  top: "predict"
  param {
    lr_mult: 1
    decay_mult: 1
  }
  param {
    lr_mult: 2
    decay_mult: 0
  }
  inner_product_param {
    num_output: 46168
    weight_filler {
      type: "uniform"
      min: -0.08
      max: 0.08
    }
    bias_filler {
      type: "constant"
      value: 0
    }
    axis: 2
  }
}
layer {
  name: "probs"
  type: "Softmax"
  bottom: "predict"
  top: "probs"
  softmax_param {
    axis: 2
  }
}
I0924 03:24:13.108527 25171 layer_factory.hpp:77] Creating layer input
I0924 03:24:13.109659 25171 net.cpp:91] Creating Layer input
I0924 03:24:13.109673 25171 net.cpp:399] input -> frames_fc7
I0924 03:24:13.109688 25171 net.cpp:399] input -> cont_sentence
I0924 03:24:13.109704 25171 net.cpp:399] input -> input_sentence
I0924 03:24:13.109719 25171 net.cpp:399] input -> stage_indicator
…
W0924 03:24:13.111306 25167 upgrade_proto.cpp:71] Note that future Caffe releases will only support input layers and not input fields.
I0924 03:24:13.111618 25167 net.cpp:49] Initializing net from parameters: 
name: "s2vt:features_to_lstm"
state {
  phase: TEST
}
layer {
  name: "input"
  type: "Input"
  top: "frames_fc7"
  top: "cont_sentence"
  top: "input_sentence"
  top: "stage_indicator"
  input_param {
    shape {
      dim: 1
      dim: 4096
    }
    shape {
      dim: 1
      dim: 1
    }
    shape {
      dim: 1
      dim: 1
    }
    shape {
      dim: 1
      dim: 1
    }
  }
}
layer {
  name: "embed_encoder"
  type: "InnerProduct"
  bottom: "frames_fc7"
  top: "embedded_in_frames"
  param {
    lr_mult: 1
    decay_mult: 1
  }
  param {
    lr_mult: 2
    decay_mult: 0
  }
  inner_product_param {
    num_output: 500
    weight_filler {
      type: "xavier"
    }
    bias_filler {
      type: "constant"
      value: 0.2
    }
  }
}
layer {
  name: "reshape_frames"
  type: "Reshape"
  bottom: "embedded_in_frames"
  top: "embedded_input_frames"
  reshape_param {
    shape {
      dim: 1
      dim: 1
      dim: 500
    }
  }
}
layer {
  name: "reshape_stage_indicator"
  type: "Reshape"
  bottom: "stage_indicator"
  top: "reshaped_stage_indicator"
  reshape_param {
    shape {
      dim: 1
      dim: 1
      dim: 1
    }
  }
}
layer {
  name: "embedding"
  type: "Embed"
  bottom: "input_sentence"
  top: "embedded_input_sentence"
  param {
    lr_mult: 1
  }
  embed_param {
    num_output: 500
    input_dim: 46168
    bias_term: false
    weight_filler {
      type: "uniform"
      min: -0.08
      max: 0.08
    }
  }
}
layer {
  name: "lstm1"
  type: "LSTM"
  bottom: "embedded_input_frames"
  bottom: "cont_sentence"
  top: "lstm1"
  recurrent_param {
    num_output: 1000
    weight_filler {
      type: "uniform"
      min: -0.08
      max: 0.08
    }
    bias_filler {
      type: "constant"
      value: 0
    }
  }
}
layer {
  name: "concat"
  type: "Concat"
  bottom: "lstm1"
  bottom: "embedded_input_sentence"
  bottom: "reshaped_stage_indicator"
  top: "lstm1_video_sequence"
  concat_param {
    concat_dim: 2
  }
}
layer {
  name: "lstm2"
  type: "LSTM"
  bottom: "lstm1_video_sequence"
  bottom: "cont_sentence"
  top: "lstm2"
  recurrent_param {
    num_output: 1000
    weight_filler {
      type: "uniform"
      min: -0.08
      max: 0.08
    }
    bias_filler {
      type: "constant"
      value: 0
    }
  }
}
layer {
  name: "predict"
  type: "InnerProduct"
  bottom: "lstm2"
  top: "predict"
  param {
    lr_mult: 1
    decay_mult: 1
  }
  param {
    lr_mult: 2
    decay_mult: 0
  }
  inner_product_param {
    num_output: 46168
    weight_filler {
      type: "uniform"
      min: -0.08
      max: 0.08
    }
    bias_filler {
      type: "constant"
      value: 0
    }
    axis: 2
  }
}
layer {
  name: "probs"
  type: "Softmax"
  bottom: "predict"
  top: "probs"
  softmax_param {
    axis: 2
  }
}
I0924 03:24:13.111737 25167 layer_factory.hpp:77] Creating layer input
I0924 03:24:13.111757 25167 net.cpp:91] Creating Layer input
I0924 03:24:13.111771 25167 net.cpp:399] input -> frames_fc7
I0924 03:24:13.111793 25167 net.cpp:399] input -> cont_sentence
I0924 03:24:13.111814 25167 net.cpp:399] input -> input_sentence
I0924 03:24:13.111834 25167 net.cpp:399] input -> stage_indicator
I0924 03:24:13.973937 25173 net.cpp:141] Setting up data
I0924 03:24:13.974030 25173 net.cpp:148] Top shape: 10 3 227 227 (1545870)
I0924 03:24:13.974045 25173 net.cpp:156] Memory required for data: 6183480
I0924 03:24:13.974081 25173 layer_factory.hpp:77] Creating layer conv1
I0924 03:24:13.974107 25179 net.cpp:141] Setting up input
I0924 03:24:13.974123 25179 net.cpp:148] Top shape: 1 4096 (4096)
I0924 03:24:13.974134 25179 net.cpp:148] Top shape: 1 1 (1)
I0924 03:24:13.974134 25173 net.cpp:91] Creating Layer conv1
I0924 03:24:13.974155 25179 net.cpp:148] Top shape: 1 1 (1)
I0924 03:24:13.974162 25173 net.cpp:425] conv1 <- data
I0924 03:24:13.974166 25179 net.cpp:148] Top shape: 1 1 (1)
I0924 03:24:13.974172 25179 net.cpp:156] Memory required for data: 16396
I0924 03:24:13.974182 25179 layer_factory.hpp:77] Creating layer cont_sentence_input_1_split
I0924 03:24:13.974184 25173 net.cpp:399] conv1 -> conv1
I0924 03:24:13.974207 25179 net.cpp:91] Creating Layer cont_sentence_input_1_split
I0924 03:24:13.974218 25179 net.cpp:425] cont_sentence_input_1_split <- cont_sentence
I0924 03:24:13.974246 25179 net.cpp:399] cont_sentence_input_1_split -> cont_sentence_input_1_split_0
I0924 03:24:13.974266 25179 net.cpp:399] cont_sentence_input_1_split -> cont_sentence_input_1_split_1
I0924 03:24:13.974366 25161 net.cpp:141] Setting up input
I0924 03:24:13.974380 25161 net.cpp:148] Top shape: 1 4096 (4096)
I0924 03:24:13.974386 25161 net.cpp:148] Top shape: 1 1 (1)
I0924 03:24:13.974392 25161 net.cpp:148] Top shape: 1 1 (1)
I0924 03:24:13.974397 25161 net.cpp:148] Top shape: 1 1 (1)
I0924 03:24:13.974401 25161 net.cpp:156] Memory required for data: 16396
I0924 03:24:13.974407 25161 layer_factory.hpp:77] Creating layer cont_sentence_input_1_split
I0924 03:24:13.974417 25161 net.cpp:91] Creating Layer cont_sentence_input_1_split
I0924 03:24:13.974422 25161 net.cpp:425] cont_sentence_input_1_split <- cont_sentence
I0924 03:24:13.974431 25161 net.cpp:399] cont_sentence_input_1_split -> cont_sentence_input_1_split_0
I0924 03:24:13.974442 25161 net.cpp:399] cont_sentence_input_1_split -> cont_sentence_input_1_split_1
I0924 03:24:13.974691 25161 net.cpp:141] Setting up cont_sentence_input_1_split
I0924 03:24:13.974704 25161 net.cpp:148] Top shape: 1 1 (1)
I0924 03:24:13.974710 25161 net.cpp:148] Top shape: 1 1 (1)
I0924 03:24:13.974715 25161 net.cpp:156] Memory required for data: 16404
I0924 03:24:13.974720 25161 layer_factory.hpp:77] Creating layer embed_encoder
I0924 03:24:13.974743 25161 net.cpp:91] Creating Layer embed_encoder
I0924 03:24:13.974750 25161 net.cpp:425] embed_encoder <- frames_fc7
I0924 03:24:13.974759 25161 net.cpp:399] embed_encoder -> embedded_in_frames
I0924 03:24:13.974839 25179 net.cpp:141] Setting up cont_sentence_input_1_split
I0924 03:24:13.974853 25179 net.cpp:148] Top shape: 1 1 (1)
I0924 03:24:13.974858 25179 net.cpp:148] Top shape: 1 1 (1)
I0924 03:24:13.974864 25179 net.cpp:156] Memory required for data: 16404
I0924 03:24:13.974869 25179 layer_factory.hpp:77] Creating layer embed_encoder
I0924 03:24:13.974874 25165 net.cpp:141] Setting up input
I0924 03:24:13.974879 25179 net.cpp:91] Creating Layer embed_encoder
I0924 03:24:13.974895 25179 net.cpp:425] embed_encoder <- frames_fc7
I0924 03:24:13.974895 25165 net.cpp:148] Top shape: 1 4096 (4096)
I0924 03:24:13.974903 25179 net.cpp:399] embed_encoder -> embedded_in_frames
I0924 03:24:13.974908 25165 net.cpp:148] Top shape: 1 1 (1)
I0924 03:24:13.974920 25165 net.cpp:148] Top shape: 1 1 (1)
I0924 03:24:13.974930 25165 net.cpp:148] Top shape: 1 1 (1)
I0924 03:24:13.974936 25165 net.cpp:156] Memory required for data: 16396
I0924 03:24:13.974941 25165 layer_factory.hpp:77] Creating layer cont_sentence_input_1_split
I0924 03:24:13.974936 25171 net.cpp:141] Setting up input
I0924 03:24:13.974956 25165 net.cpp:91] Creating Layer cont_sentence_input_1_split
I0924 03:24:13.974962 25165 net.cpp:425] cont_sentence_input_1_split <- cont_sentence
I0924 03:24:13.974962 25171 net.cpp:148] Top shape: 1 4096 (4096)
I0924 03:24:13.974973 25165 net.cpp:399] cont_sentence_input_1_split -> cont_sentence_input_1_split_0
I0924 03:24:13.974977 25171 net.cpp:148] Top shape: 1 1 (1)
I0924 03:24:13.974962 25199 net.cpp:141] Setting up input
I0924 03:24:13.974985 25165 net.cpp:399] cont_sentence_input_1_split -> cont_sentence_input_1_split_1
I0924 03:24:13.974985 25171 net.cpp:148] Top shape: 1 1 (1)
I0924 03:24:13.974993 25199 net.cpp:148] Top shape: 1 4096 (4096)
I0924 03:24:13.975008 25171 net.cpp:148] Top shape: 1 1 (1)
I0924 03:24:13.975010 25199 net.cpp:148] Top shape: 1 1 (1)
I0924 03:24:13.975015 25171 net.cpp:156] Memory required for data: 16396
I0924 03:24:13.975018 25199 net.cpp:148] Top shape: 1 1 (1)
I0924 03:24:13.975021 25171 layer_factory.hpp:77] Creating layer cont_sentence_input_1_split
I0924 03:24:13.975023 25199 net.cpp:148] Top shape: 1 1 (1)
I0924 03:24:13.975028 25199 net.cpp:156] Memory required for data: 16396
I0924 03:24:13.975033 25171 net.cpp:91] Creating Layer cont_sentence_input_1_split
I0924 03:24:13.975033 25199 layer_factory.hpp:77] Creating layer cont_sentence_input_1_split
I0924 03:24:13.975039 25171 net.cpp:425] cont_sentence_input_1_split <- cont_sentence
I0924 03:24:13.975044 25199 net.cpp:91] Creating Layer cont_sentence_input_1_split
I0924 03:24:13.975047 25171 net.cpp:399] cont_sentence_input_1_split -> cont_sentence_input_1_split_0
I0924 03:24:13.975051 25199 net.cpp:425] cont_sentence_input_1_split <- cont_sentence
I0924 03:24:13.975059 25171 net.cpp:399] cont_sentence_input_1_split -> cont_sentence_input_1_split_1
I0924 03:24:13.975064 25199 net.cpp:399] cont_sentence_input_1_split -> cont_sentence_input_1_split_0
I0924 03:24:13.975088 25199 net.cpp:399] cont_sentence_input_1_split -> cont_sentence_input_1_split_1
I0924 03:24:13.979038 25167 net.cpp:141] Setting up input
I0924 03:24:13.979082 25167 net.cpp:148] Top shape: 1 4096 (4096)
I0924 03:24:13.979095 25167 net.cpp:148] Top shape: 1 1 (1)
I0924 03:24:13.979105 25167 net.cpp:148] Top shape: 1 1 (1)
I0924 03:24:13.979115 25167 net.cpp:148] Top shape: 1 1 (1)
I0924 03:24:13.979121 25167 net.cpp:156] Memory required for data: 16396
I0924 03:24:13.979132 25167 layer_factory.hpp:77] Creating layer cont_sentence_input_1_split
I0924 03:24:13.979152 25167 net.cpp:91] Creating Layer cont_sentence_input_1_split
I0924 03:24:13.979163 25167 net.cpp:425] cont_sentence_input_1_split <- cont_sentence
I0924 03:24:13.979177 25167 net.cpp:399] cont_sentence_input_1_split -> cont_sentence_input_1_split_0
I0924 03:24:13.979197 25167 net.cpp:399] cont_sentence_input_1_split -> cont_sentence_input_1_split_1
I0924 03:24:13.979210 25171 net.cpp:141] Setting up cont_sentence_input_1_split
I0924 03:24:13.979234 25171 net.cpp:148] Top shape: 1 1 (1)
I0924 03:24:13.979245 25171 net.cpp:148] Top shape: 1 1 (1)
I0924 03:24:13.979254 25171 net.cpp:156] Memory required for data: 16404
I0924 03:24:13.979288 25171 layer_factory.hpp:77] Creating layer embed_encoder
I0924 03:24:13.979315 25171 net.cpp:91] Creating Layer embed_encoder
I0924 03:24:13.979327 25171 net.cpp:425] embed_encoder <- frames_fc7
I0924 03:24:13.979346 25171 net.cpp:399] embed_encoder -> embedded_in_frames
I0924 03:24:13.983304 25165 net.cpp:141] Setting up cont_sentence_input_1_split
I0924 03:24:13.983363 25165 net.cpp:148] Top shape: 1 1 (1)
I0924 03:24:13.983378 25165 net.cpp:148] Top shape: 1 1 (1)
I0924 03:24:13.983386 25165 net.cpp:156] Memory required for data: 16404
I0924 03:24:13.983398 25165 layer_factory.hpp:77] Creating layer embed_encoder
I0924 03:24:13.983428 25165 net.cpp:91] Creating Layer embed_encoder
I0924 03:24:13.983444 25165 net.cpp:425] embed_encoder <- frames_fc7
I0924 03:24:13.983463 25165 net.cpp:399] embed_encoder -> embedded_in_frames
I0924 03:24:13.994499 25199 net.cpp:141] Setting up cont_sentence_input_1_split
I0924 03:24:13.994560 25199 net.cpp:148] Top shape: 1 1 (1)
I0924 03:24:13.994573 25199 net.cpp:148] Top shape: 1 1 (1)
I0924 03:24:13.994581 25199 net.cpp:156] Memory required for data: 16404
I0924 03:24:13.994611 25199 layer_factory.hpp:77] Creating layer embed_encoder
I0924 03:24:13.994652 25199 net.cpp:91] Creating Layer embed_encoder
I0924 03:24:13.994665 25199 net.cpp:425] embed_encoder <- frames_fc7
I0924 03:24:13.994688 25199 net.cpp:399] embed_encoder -> embedded_in_frames
I0924 03:24:14.000527 25205 net.cpp:141] Setting up input
I0924 03:24:14.000588 25205 net.cpp:148] Top shape: 1 4096 (4096)
I0924 03:24:14.000604 25205 net.cpp:148] Top shape: 1 1 (1)
I0924 03:24:14.000615 25205 net.cpp:148] Top shape: 1 1 (1)
I0924 03:24:14.000625 25205 net.cpp:148] Top shape: 1 1 (1)
I0924 03:24:14.000633 25205 net.cpp:156] Memory required for data: 16396
I0924 03:24:14.000650 25205 layer_factory.hpp:77] Creating layer cont_sentence_input_1_split
I0924 03:24:14.000684 25205 net.cpp:91] Creating Layer cont_sentence_input_1_split
I0924 03:24:14.000697 25205 net.cpp:425] cont_sentence_input_1_split <- cont_sentence
I0924 03:24:14.000716 25205 net.cpp:399] cont_sentence_input_1_split -> cont_sentence_input_1_split_0
I0924 03:24:14.000738 25205 net.cpp:399] cont_sentence_input_1_split -> cont_sentence_input_1_split_1
I0924 03:24:14.000839 25205 net.cpp:141] Setting up cont_sentence_input_1_split
I0924 03:24:14.000859 25205 net.cpp:148] Top shape: 1 1 (1)
I0924 03:24:14.000869 25205 net.cpp:148] Top shape: 1 1 (1)
I0924 03:24:14.000877 25205 net.cpp:156] Memory required for data: 16404
I0924 03:24:14.000885 25205 layer_factory.hpp:77] Creating layer embed_encoder
I0924 03:24:14.000910 25205 net.cpp:91] Creating Layer embed_encoder
I0924 03:24:14.000918 25205 net.cpp:425] embed_encoder <- frames_fc7
I0924 03:24:14.000933 25205 net.cpp:399] embed_encoder -> embedded_in_frames
I0924 03:24:14.010789 25179 net.cpp:141] Setting up embed_encoder
I0924 03:24:14.010838 25179 net.cpp:148] Top shape: 1 500 (500)
I0924 03:24:14.010846 25179 net.cpp:156] Memory required for data: 18404
I0924 03:24:14.010888 25179 layer_factory.hpp:77] Creating layer reshape_frames
I0924 03:24:14.010931 25179 net.cpp:91] Creating Layer reshape_frames
I0924 03:24:14.010941 25179 net.cpp:425] reshape_frames <- embedded_in_frames
I0924 03:24:14.010957 25179 net.cpp:399] reshape_frames -> embedded_input_frames
I0924 03:24:14.011025 25179 net.cpp:141] Setting up reshape_frames
I0924 03:24:14.011040 25179 net.cpp:148] Top shape: 1 1 500 (500)
I0924 03:24:14.011047 25179 net.cpp:156] Memory required for data: 20404
I0924 03:24:14.011056 25179 layer_factory.hpp:77] Creating layer reshape_stage_indicator
I0924 03:24:14.011072 25179 net.cpp:91] Creating Layer reshape_stage_indicator
I0924 03:24:14.011082 25179 net.cpp:425] reshape_stage_indicator <- stage_indicator
I0924 03:24:14.011098 25179 net.cpp:399] reshape_stage_indicator -> reshaped_stage_indicator
I0924 03:24:14.011152 25179 net.cpp:141] Setting up reshape_stage_indicator
I0924 03:24:14.011169 25179 net.cpp:148] Top shape: 1 1 1 (1)
I0924 03:24:14.011176 25179 net.cpp:156] Memory required for data: 20408
I0924 03:24:14.011184 25179 layer_factory.hpp:77] Creating layer embedding
I0924 03:24:14.011200 25179 net.cpp:91] Creating Layer embedding
I0924 03:24:14.011209 25179 net.cpp:425] embedding <- input_sentence
I0924 03:24:14.011221 25179 net.cpp:399] embedding -> embedded_input_sentence
I0924 03:24:14.060292 25167 net.cpp:141] Setting up cont_sentence_input_1_split
I0924 03:24:14.060341 25167 net.cpp:148] Top shape: 1 1 (1)
I0924 03:24:14.060350 25167 net.cpp:148] Top shape: 1 1 (1)
I0924 03:24:14.060354 25167 net.cpp:156] Memory required for data: 16404
I0924 03:24:14.060366 25167 layer_factory.hpp:77] Creating layer embed_encoder
I0924 03:24:14.060400 25167 net.cpp:91] Creating Layer embed_encoder
I0924 03:24:14.060410 25167 net.cpp:425] embed_encoder <- frames_fc7
I0924 03:24:14.060423 25167 net.cpp:399] embed_encoder -> embedded_in_frames
I0924 03:24:14.060794 25171 net.cpp:141] Setting up embed_encoder
I0924 03:24:14.060863 25171 net.cpp:148] Top shape: 1 500 (500)
I0924 03:24:14.060871 25171 net.cpp:156] Memory required for data: 18404
I0924 03:24:14.060894 25171 layer_factory.hpp:77] Creating layer reshape_frames
I0924 03:24:14.060907 25199 net.cpp:141] Setting up embed_encoder
I0924 03:24:14.060912 25171 net.cpp:91] Creating Layer reshape_frames
I0924 03:24:14.060932 25199 net.cpp:148] Top shape: 1 500 (500)
I0924 03:24:14.060935 25171 net.cpp:425] reshape_frames <- embedded_in_frames
I0924 03:24:14.060938 25199 net.cpp:156] Memory required for data: 18404
I0924 03:24:14.060945 25171 net.cpp:399] reshape_frames -> embedded_input_frames
I0924 03:24:14.060956 25199 layer_factory.hpp:77] Creating layer reshape_frames
I0924 03:24:14.060972 25199 net.cpp:91] Creating Layer reshape_frames
I0924 03:24:14.060982 25199 net.cpp:425] reshape_frames <- embedded_in_frames
I0924 03:24:14.060997 25199 net.cpp:399] reshape_frames -> embedded_input_frames
I0924 03:24:14.061028 25205 net.cpp:141] Setting up embed_encoder
I0924 03:24:14.061053 25205 net.cpp:148] Top shape: 1 500 (500)
I0924 03:24:14.061060 25205 net.cpp:156] Memory required for data: 18404
I0924 03:24:14.061060 25199 net.cpp:141] Setting up reshape_frames
I0924 03:24:14.061094 25199 net.cpp:148] Top shape: 1 1 500 (500)
I0924 03:24:14.061095 25205 layer_factory.hpp:77] Creating layer reshape_frames
I0924 03:24:14.061105 25199 net.cpp:156] Memory required for data: 20404
I0924 03:24:14.061113 25199 layer_factory.hpp:77] Creating layer reshape_stage_indicator
I0924 03:24:14.061120 25205 net.cpp:91] Creating Layer reshape_frames
I0924 03:24:14.061126 25199 net.cpp:91] Creating Layer reshape_stage_indicator
I0924 03:24:14.061131 25205 net.cpp:425] reshape_frames <- embedded_in_frames
I0924 03:24:14.061134 25171 net.cpp:141] Setting up reshape_frames
I0924 03:24:14.061133 25199 net.cpp:425] reshape_stage_indicator <- stage_indicator
I0924 03:24:14.061151 25205 net.cpp:399] reshape_frames -> embedded_input_frames
I0924 03:24:14.061152 25171 net.cpp:148] Top shape: 1 1 500 (500)
I0924 03:24:14.061156 25199 net.cpp:399] reshape_stage_indicator -> reshaped_stage_indicator
I0924 03:24:14.061178 25171 net.cpp:156] Memory required for data: 20404
I0924 03:24:14.061185 25171 layer_factory.hpp:77] Creating layer reshape_stage_indicator
I0924 03:24:14.061197 25171 net.cpp:91] Creating Layer reshape_stage_indicator
I0924 03:24:14.061202 25171 net.cpp:425] reshape_stage_indicator <- stage_indicator
I0924 03:24:14.061209 25171 net.cpp:399] reshape_stage_indicator -> reshaped_stage_indicator
I0924 03:24:14.066687 25161 net.cpp:141] Setting up embed_encoder
I0924 03:24:14.066742 25161 net.cpp:148] Top shape: 1 500 (500)
I0924 03:24:14.066748 25161 net.cpp:156] Memory required for data: 18404
I0924 03:24:14.066773 25161 layer_factory.hpp:77] Creating layer reshape_frames
I0924 03:24:14.066764 25205 net.cpp:141] Setting up reshape_frames
I0924 03:24:14.066797 25161 net.cpp:91] Creating Layer reshape_frames
I0924 03:24:14.066800 25205 net.cpp:148] Top shape: 1 1 500 (500)
I0924 03:24:14.066807 25161 net.cpp:425] reshape_frames <- embedded_in_frames
I0924 03:24:14.066807 25205 net.cpp:156] Memory required for data: 20404
I0924 03:24:14.066828 25199 net.cpp:141] Setting up reshape_stage_indicator
I0924 03:24:14.066838 25161 net.cpp:399] reshape_frames -> embedded_input_frames
I0924 03:24:14.066838 25205 layer_factory.hpp:77] Creating layer reshape_stage_indicator
I0924 03:24:14.066869 25199 net.cpp:148] Top shape: 1 1 1 (1)
I0924 03:24:14.066874 25205 net.cpp:91] Creating Layer reshape_stage_indicator
I0924 03:24:14.066884 25205 net.cpp:425] reshape_stage_indicator <- stage_indicator
I0924 03:24:14.066867 25171 net.cpp:141] Setting up reshape_stage_indicator
I0924 03:24:14.066903 25205 net.cpp:399] reshape_stage_indicator -> reshaped_stage_indicator
I0924 03:24:14.066895 25199 net.cpp:156] Memory required for data: 20408
I0924 03:24:14.066926 25171 net.cpp:148] Top shape: 1 1 1 (1)
I0924 03:24:14.066936 25171 net.cpp:156] Memory required for data: 20408
I0924 03:24:14.066934 25199 layer_factory.hpp:77] Creating layer embedding
I0924 03:24:14.066942 25171 layer_factory.hpp:77] Creating layer embedding
I0924 03:24:14.066959 25171 net.cpp:91] Creating Layer embedding
I0924 03:24:14.066958 25199 net.cpp:91] Creating Layer embedding
I0924 03:24:14.066967 25171 net.cpp:425] embedding <- input_sentence
I0924 03:24:14.066969 25199 net.cpp:425] embedding <- input_sentence
I0924 03:24:14.066975 25171 net.cpp:399] embedding -> embedded_input_sentence
I0924 03:24:14.066985 25199 net.cpp:399] embedding -> embedded_input_sentence
I0924 03:24:14.072756 25161 net.cpp:141] Setting up reshape_frames
I0924 03:24:14.072808 25161 net.cpp:148] Top shape: 1 1 500 (500)
I0924 03:24:14.072818 25161 net.cpp:156] Memory required for data: 20404
I0924 03:24:14.072832 25161 layer_factory.hpp:77] Creating layer reshape_stage_indicator
I0924 03:24:14.072844 25205 net.cpp:141] Setting up reshape_stage_indicator
I0924 03:24:14.072866 25161 net.cpp:91] Creating Layer reshape_stage_indicator
I0924 03:24:14.072906 25205 net.cpp:148] Top shape: 1 1 1 (1)
I0924 03:24:14.072906 25161 net.cpp:425] reshape_stage_indicator <- stage_indicator
I0924 03:24:14.072927 25205 net.cpp:156] Memory required for data: 20408
I0924 03:24:14.072965 25161 net.cpp:399] reshape_stage_indicator -> reshaped_stage_indicator
I0924 03:24:14.072967 25205 layer_factory.hpp:77] Creating layer embedding
I0924 03:24:14.073011 25205 net.cpp:91] Creating Layer embedding
I0924 03:24:14.073024 25205 net.cpp:425] embedding <- input_sentence
I0924 03:24:14.073050 25205 net.cpp:399] embedding -> embedded_input_sentence
I0924 03:24:14.073067 25161 net.cpp:141] Setting up reshape_stage_indicator
I0924 03:24:14.073086 25161 net.cpp:148] Top shape: 1 1 1 (1)
I0924 03:24:14.073094 25161 net.cpp:156] Memory required for data: 20408
I0924 03:24:14.073102 25161 layer_factory.hpp:77] Creating layer embedding
I0924 03:24:14.073122 25161 net.cpp:91] Creating Layer embedding
I0924 03:24:14.073132 25161 net.cpp:425] embedding <- input_sentence
I0924 03:24:14.073148 25161 net.cpp:399] embedding -> embedded_input_sentence
I0924 03:24:14.215013 25165 net.cpp:141] Setting up embed_encoder
I0924 03:24:14.215088 25165 net.cpp:148] Top shape: 1 500 (500)
I0924 03:24:14.215106 25165 net.cpp:156] Memory required for data: 18404
I0924 03:24:14.215152 25165 layer_factory.hpp:77] Creating layer reshape_frames
I0924 03:24:14.215191 25165 net.cpp:91] Creating Layer reshape_frames
I0924 03:24:14.215211 25165 net.cpp:425] reshape_frames <- embedded_in_frames
I0924 03:24:14.215245 25165 net.cpp:399] reshape_frames -> embedded_input_frames
I0924 03:24:14.215577 25167 net.cpp:141] Setting up embed_encoder
I0924 03:24:14.215618 25167 net.cpp:148] Top shape: 1 500 (500)
I0924 03:24:14.215627 25167 net.cpp:156] Memory required for data: 18404
I0924 03:24:14.215652 25167 layer_factory.hpp:77] Creating layer reshape_frames
I0924 03:24:14.215678 25167 net.cpp:91] Creating Layer reshape_frames
I0924 03:24:14.215689 25167 net.cpp:425] reshape_frames <- embedded_in_frames
I0924 03:24:14.215703 25167 net.cpp:399] reshape_frames -> embedded_input_frames
I0924 03:24:14.215760 25167 net.cpp:141] Setting up reshape_frames
I0924 03:24:14.215773 25167 net.cpp:148] Top shape: 1 1 500 (500)
I0924 03:24:14.215780 25167 net.cpp:156] Memory required for data: 20404
I0924 03:24:14.215788 25167 layer_factory.hpp:77] Creating layer reshape_stage_indicator
I0924 03:24:14.215803 25167 net.cpp:91] Creating Layer reshape_stage_indicator
I0924 03:24:14.215812 25167 net.cpp:425] reshape_stage_indicator <- stage_indicator
I0924 03:24:14.215824 25167 net.cpp:399] reshape_stage_indicator -> reshaped_stage_indicator
I0924 03:24:14.215881 25167 net.cpp:141] Setting up reshape_stage_indicator
I0924 03:24:14.215894 25167 net.cpp:148] Top shape: 1 1 1 (1)
I0924 03:24:14.215901 25167 net.cpp:156] Memory required for data: 20408
I0924 03:24:14.215909 25167 layer_factory.hpp:77] Creating layer embedding
I0924 03:24:14.215926 25167 net.cpp:91] Creating Layer embedding
I0924 03:24:14.215934 25167 net.cpp:425] embedding <- input_sentence
I0924 03:24:14.215946 25167 net.cpp:399] embedding -> embedded_input_sentence
I0924 03:24:14.318812 25165 net.cpp:141] Setting up reshape_frames
I0924 03:24:14.318877 25165 net.cpp:148] Top shape: 1 1 500 (500)
I0924 03:24:14.318887 25165 net.cpp:156] Memory required for data: 20404
I0924 03:24:14.318900 25165 layer_factory.hpp:77] Creating layer reshape_stage_indicator
I0924 03:24:14.318902 25179 net.cpp:141] Setting up embedding
I0924 03:24:14.318941 25165 net.cpp:91] Creating Layer reshape_stage_indicator
I0924 03:24:14.318946 25179 net.cpp:148] Top shape: 1 1 500 (500)
I0924 03:24:14.318953 25165 net.cpp:425] reshape_stage_indicator <- stage_indicator
I0924 03:24:14.318965 25179 net.cpp:156] Memory required for data: 22408
I0924 03:24:14.318974 25165 net.cpp:399] reshape_stage_indicator -> reshaped_stage_indicator
I0924 03:24:14.319010 25179 layer_factory.hpp:77] Creating layer lstm1
I0924 03:24:14.319070 25179 net.cpp:91] Creating Layer lstm1
I0924 03:24:14.319097 25179 net.cpp:425] lstm1 <- embedded_input_frames
I0924 03:24:14.319119 25179 net.cpp:425] lstm1 <- cont_sentence_input_1_split_0
I0924 03:24:14.319149 25179 net.cpp:399] lstm1 -> lstm1
I0924 03:24:14.319209 25179 recurrent_layer.cpp:20] Initializing recurrent layer: assuming input batch contains 1 timesteps of 1 independent streams.
I0924 03:24:14.320191 25179 net.cpp:49] Initializing net from parameters: 
layer {
  name: "lstm1_"
  type: "Input"
  top: "x"
  top: "cont"
  input_param {
    shape {
      dim: 1
      dim: 1
      dim: 500
    }
    shape {
      dim: 1
      dim: 1
    }
  }
}
layer {
  name: "lstm1_"
  type: "Input"
  top: "c_0"
  top: "h_0"
  input_param {
    shape {
      dim: 1
      dim: 1
      dim: 1000
    }
    shape {
      dim: 1
      dim: 1
      dim: 1000
    }
  }
}
layer {
  name: "lstm1_cont_slice"
  type: "Slice"
  bottom: "cont"
  top: "cont_1"
  slice_param {
    axis: 0
  }
}
layer {
  name: "lstm1_x_transform"
  type: "InnerProduct"
  bottom: "x"
  top: "W_xc_x"
  param {
    name: "W_xc"
  }
  param {
    name: "b_c"
  }
  propagate_down: true
  inner_product_param {
    num_output: 4000
    bias_term: true
    weight_filler {
      type: "uniform"
      min: -0.08
      max: 0.08
    }
    bias_filler {
      type: "constant"
      value: 0
    }
    axis: 2
  }
}
layer {
  name: "lstm1_W_xc_x_slice"
  type: "Slice"
  bottom: "W_xc_x"
  top: "W_xc_x_1"
  slice_param {
    axis: 0
  }
}
layer {
  name: "lstm1_h_conted_0"
  type: "Scale"
  bottom: "h_0"
  bottom: "cont_1"
  top: "h_conted_0"
  scale_param {
    axis: 0
  }
}
layer {
  name: "lstm1_transform_1"
  type: "InnerProduct"
  bottom: "h_conted_0"
  top: "W_hc_h_0"
  param {
    name: "W_hc"
  }
  inner_product_param {
    num_output: 4000
    bias_term: false
    weight_filler {
      type: "uniform"
      min: -0.08
      max: 0.08
    }
    axis: 2
  }
}
layer {
  name: "lstm1_gate_input_1"
  type: "Eltwise"
  bottom: "W_hc_h_0"
  bottom: "W_xc_x_1"
  top: "gate_input_1"
  eltwise_param {
    operation: SUM
  }
}
layer {
  name: "lstm1_unit_1"
  type: "LSTMUnit"
  bottom: "c_0"
  bottom: "gate_input_1"
  bottom: "cont_1"
  top: "c_1"
  top: "h_1"
}
layer {
  name: "lstm1_"
  type: "Split"
  bottom: "c_1"
  top: "c_T"
}
layer {
  name: "lstm1_h_concat"
  type: "Concat"
  bottom: "h_1"
  top: "h"
  concat_param {
    axis: 0
  }
}
layer {
  name: "h_pseudoloss"
  type: "Reduction"
  bottom: "h"
  top: "h_pseudoloss"
  loss_weight: 1
}
I0924 03:24:14.320399 25179 layer_factory.hpp:77] Creating layer lstm1_
I0924 03:24:14.320435 25179 net.cpp:91] Creating Layer lstm1_
I0924 03:24:14.320458 25179 net.cpp:399] lstm1_ -> x
I0924 03:24:14.320492 25179 net.cpp:399] lstm1_ -> cont
I0924 03:24:14.325410 25179 net.cpp:141] Setting up lstm1_
I0924 03:24:14.325456 25179 net.cpp:148] Top shape: 1 1 500 (500)
I0924 03:24:14.325467 25179 net.cpp:148] Top shape: 1 1 (1)
I0924 03:24:14.325474 25179 net.cpp:156] Memory required for data: 2004
I0924 03:24:14.325486 25179 layer_factory.hpp:77] Creating layer lstm1_
I0924 03:24:14.325512 25179 net.cpp:91] Creating Layer lstm1_
I0924 03:24:14.325536 25179 net.cpp:399] lstm1_ -> c_0
I0924 03:24:14.325561 25179 net.cpp:399] lstm1_ -> h_0
I0924 03:24:14.325953 25179 net.cpp:141] Setting up lstm1_
I0924 03:24:14.325968 25179 net.cpp:148] Top shape: 1 1 1000 (1000)
I0924 03:24:14.325978 25179 net.cpp:148] Top shape: 1 1 1000 (1000)
I0924 03:24:14.325984 25179 net.cpp:156] Memory required for data: 10004
I0924 03:24:14.325992 25179 layer_factory.hpp:77] Creating layer lstm1_cont_slice
I0924 03:24:14.326009 25179 net.cpp:91] Creating Layer lstm1_cont_slice
I0924 03:24:14.326019 25179 net.cpp:425] lstm1_cont_slice <- cont
I0924 03:24:14.326033 25179 net.cpp:399] lstm1_cont_slice -> cont_1
I0924 03:24:14.326154 25179 net.cpp:141] Setting up lstm1_cont_slice
I0924 03:24:14.326169 25179 net.cpp:148] Top shape: 1 1 (1)
I0924 03:24:14.326176 25179 net.cpp:156] Memory required for data: 10008
I0924 03:24:14.326184 25179 layer_factory.hpp:77] Creating layer cont_1_lstm1_cont_slice_0_split
I0924 03:24:14.326200 25179 net.cpp:91] Creating Layer cont_1_lstm1_cont_slice_0_split
I0924 03:24:14.326207 25179 net.cpp:425] cont_1_lstm1_cont_slice_0_split <- cont_1
I0924 03:24:14.326220 25179 net.cpp:399] cont_1_lstm1_cont_slice_0_split -> cont_1_lstm1_cont_slice_0_split_0
I0924 03:24:14.326231 25179 net.cpp:399] cont_1_lstm1_cont_slice_0_split -> cont_1_lstm1_cont_slice_0_split_1
I0924 03:24:14.327091 25165 net.cpp:141] Setting up reshape_stage_indicator
I0924 03:24:14.327112 25165 net.cpp:148] Top shape: 1 1 1 (1)
I0924 03:24:14.327121 25165 net.cpp:156] Memory required for data: 20408
I0924 03:24:14.327119 25179 net.cpp:141] Setting up cont_1_lstm1_cont_slice_0_split
I0924 03:24:14.327131 25165 layer_factory.hpp:77] Creating layer embedding
I0924 03:24:14.327137 25179 net.cpp:148] Top shape: 1 1 (1)
I0924 03:24:14.327147 25179 net.cpp:148] Top shape: 1 1 (1)
I0924 03:24:14.327152 25165 net.cpp:91] Creating Layer embedding
I0924 03:24:14.327153 25179 net.cpp:156] Memory required for data: 10016
I0924 03:24:14.327162 25165 net.cpp:425] embedding <- input_sentence
I0924 03:24:14.327162 25179 layer_factory.hpp:77] Creating layer lstm1_x_transform
I0924 03:24:14.327183 25165 net.cpp:399] embedding -> embedded_input_sentence
I0924 03:24:14.327204 25179 net.cpp:91] Creating Layer lstm1_x_transform
I0924 03:24:14.327214 25179 net.cpp:425] lstm1_x_transform <- x
I0924 03:24:14.327226 25179 net.cpp:399] lstm1_x_transform -> W_xc_x
I0924 03:24:14.336639 25205 net.cpp:141] Setting up embedding
I0924 03:24:14.336690 25205 net.cpp:148] Top shape: 1 1 500 (500)
I0924 03:24:14.336696 25205 net.cpp:156] Memory required for data: 22408
I0924 03:24:14.336765 25205 layer_factory.hpp:77] Creating layer lstm1
I0924 03:24:14.336791 25205 net.cpp:91] Creating Layer lstm1
I0924 03:24:14.336799 25205 net.cpp:425] lstm1 <- embedded_input_frames
I0924 03:24:14.336810 25205 net.cpp:425] lstm1 <- cont_sentence_input_1_split_0
I0924 03:24:14.336829 25205 net.cpp:399] lstm1 -> lstm1
I0924 03:24:14.336850 25205 recurrent_layer.cpp:20] Initializing recurrent layer: assuming input batch contains 1 timesteps of 1 independent streams.
I0924 03:24:14.337185 25205 net.cpp:49] Initializing net from parameters: 
layer {
  name: "lstm1_"
  type: "Input"
  top: "x"
  top: "cont"
  input_param {
    shape {
      dim: 1
      dim: 1
      dim: 500
    }
    shape {
      dim: 1
      dim: 1
    }
  }
}
layer {
  name: "lstm1_"
  type: "Input"
  top: "c_0"
  top: "h_0"
  input_param {
    shape {
      dim: 1
      dim: 1
      dim: 1000
    }
    shape {
      dim: 1
      dim: 1
      dim: 1000
    }
  }
}
layer {
  name: "lstm1_cont_slice"
  type: "Slice"
  bottom: "cont"
  top: "cont_1"
  slice_param {
    axis: 0
  }
}
layer {
  name: "lstm1_x_transform"
  type: "InnerProduct"
  bottom: "x"
  top: "W_xc_x"
  param {
    name: "W_xc"
  }
  param {
    name: "b_c"
  }
  propagate_down: true
  inner_product_param {
    num_output: 4000
    bias_term: true
    weight_filler {
      type: "uniform"
      min: -0.08
      max: 0.08
    }
    bias_filler {
      type: "constant"
      value: 0
    }
    axis: 2
  }
}
layer {
  name: "lstm1_W_xc_x_slice"
  type: "Slice"
  bottom: "W_xc_x"
  top: "W_xc_x_1"
  slice_param {
    axis: 0
  }
}
layer {
  name: "lstm1_h_conted_0"
  type: "Scale"
  bottom: "h_0"
  bottom: "cont_1"
  top: "h_conted_0"
  scale_param {
    axis: 0
  }
}
layer {
  name: "lstm1_transform_1"
  type: "InnerProduct"
  bottom: "h_conted_0"
  top: "W_hc_h_0"
  param {
    name: "W_hc"
  }
  inner_product_param {
    num_output: 4000
    bias_term: false
    weight_filler {
      type: "uniform"
      min: -0.08
      max: 0.08
    }
    axis: 2
  }
}
layer {
  name: "lstm1_gate_input_1"
  type: "Eltwise"
  bottom: "W_hc_h_0"
  bottom: "W_xc_x_1"
  top: "gate_input_1"
  eltwise_param {
    operation: SUM
  }
}
layer {
  name: "lstm1_unit_1"
  type: "LSTMUnit"
  bottom: "c_0"
  bottom: "gate_input_1"
  bottom: "cont_1"
  top: "c_1"
  top: "h_1"
}
layer {
  name: "lstm1_"
  type: "Split"
  bottom: "c_1"
  top: "c_T"
}
layer {
  name: "lstm1_h_concat"
  type: "Concat"
  bottom: "h_1"
  top: "h"
  concat_param {
    axis: 0
  }
}
layer {
  name: "h_pseudoloss"
  type: "Reduction"
  bottom: "h"
  top: "h_pseudoloss"
  loss_weight: 1
}
I0924 03:24:14.337301 25205 layer_factory.hpp:77] Creating layer lstm1_
I0924 03:24:14.337317 25205 net.cpp:91] Creating Layer lstm1_
I0924 03:24:14.337324 25205 net.cpp:399] lstm1_ -> x
I0924 03:24:14.337337 25205 net.cpp:399] lstm1_ -> cont
I0924 03:24:14.389168 25205 net.cpp:141] Setting up lstm1_
I0924 03:24:14.389225 25205 net.cpp:148] Top shape: 1 1 500 (500)
I0924 03:24:14.389238 25205 net.cpp:148] Top shape: 1 1 (1)
I0924 03:24:14.389245 25205 net.cpp:156] Memory required for data: 2004
I0924 03:24:14.389258 25205 layer_factory.hpp:77] Creating layer lstm1_
I0924 03:24:14.389287 25205 net.cpp:91] Creating Layer lstm1_
I0924 03:24:14.389309 25205 net.cpp:399] lstm1_ -> c_0
I0924 03:24:14.389335 25205 net.cpp:399] lstm1_ -> h_0
I0924 03:24:14.389410 25205 net.cpp:141] Setting up lstm1_
I0924 03:24:14.389422 25205 net.cpp:148] Top shape: 1 1 1000 (1000)
I0924 03:24:14.389431 25205 net.cpp:148] Top shape: 1 1 1000 (1000)
I0924 03:24:14.389437 25205 net.cpp:156] Memory required for data: 10004
I0924 03:24:14.389444 25205 layer_factory.hpp:77] Creating layer lstm1_cont_slice
I0924 03:24:14.389458 25205 net.cpp:91] Creating Layer lstm1_cont_slice
I0924 03:24:14.389467 25205 net.cpp:425] lstm1_cont_slice <- cont
I0924 03:24:14.389480 25205 net.cpp:399] lstm1_cont_slice -> cont_1
I0924 03:24:14.389524 25205 net.cpp:141] Setting up lstm1_cont_slice
I0924 03:24:14.389536 25205 net.cpp:148] Top shape: 1 1 (1)
I0924 03:24:14.389544 25205 net.cpp:156] Memory required for data: 10008
I0924 03:24:14.389549 25205 layer_factory.hpp:77] Creating layer cont_1_lstm1_cont_slice_0_split
I0924 03:24:14.389564 25205 net.cpp:91] Creating Layer cont_1_lstm1_cont_slice_0_split
I0924 03:24:14.389571 25205 net.cpp:425] cont_1_lstm1_cont_slice_0_split <- cont_1
I0924 03:24:14.389581 25205 net.cpp:399] cont_1_lstm1_cont_slice_0_split -> cont_1_lstm1_cont_slice_0_split_0
I0924 03:24:14.389593 25205 net.cpp:399] cont_1_lstm1_cont_slice_0_split -> cont_1_lstm1_cont_slice_0_split_1
I0924 03:24:14.389655 25205 net.cpp:141] Setting up cont_1_lstm1_cont_slice_0_split
I0924 03:24:14.389667 25205 net.cpp:148] Top shape: 1 1 (1)
I0924 03:24:14.389677 25205 net.cpp:148] Top shape: 1 1 (1)
I0924 03:24:14.389683 25205 net.cpp:156] Memory required for data: 10016
I0924 03:24:14.389689 25205 layer_factory.hpp:77] Creating layer lstm1_x_transform
I0924 03:24:14.389708 25205 net.cpp:91] Creating Layer lstm1_x_transform
I0924 03:24:14.389715 25205 net.cpp:425] lstm1_x_transform <- x
I0924 03:24:14.389727 25205 net.cpp:399] lstm1_x_transform -> W_xc_x
I0924 03:24:14.395146 25199 net.cpp:141] Setting up embedding
I0924 03:24:14.395212 25199 net.cpp:148] Top shape: 1 1 500 (500)
I0924 03:24:14.395220 25199 net.cpp:156] Memory required for data: 22408
I0924 03:24:14.395253 25199 layer_factory.hpp:77] Creating layer lstm1
I0924 03:24:14.395285 25199 net.cpp:91] Creating Layer lstm1
I0924 03:24:14.395298 25199 net.cpp:425] lstm1 <- embedded_input_frames
I0924 03:24:14.395311 25199 net.cpp:425] lstm1 <- cont_sentence_input_1_split_0
I0924 03:24:14.395325 25199 net.cpp:399] lstm1 -> lstm1
I0924 03:24:14.395349 25199 recurrent_layer.cpp:20] Initializing recurrent layer: assuming input batch contains 1 timesteps of 1 independent streams.
I0924 03:24:14.395786 25199 net.cpp:49] Initializing net from parameters: 
layer {
  name: "lstm1_"
  type: "Input"
  top: "x"
  top: "cont"
  input_param {
    shape {
      dim: 1
      dim: 1
      dim: 500
    }
    shape {
      dim: 1
      dim: 1
    }
  }
}
layer {
  name: "lstm1_"
  type: "Input"
  top: "c_0"
  top: "h_0"
  input_param {
    shape {
      dim: 1
      dim: 1
      dim: 1000
    }
    shape {
      dim: 1
      dim: 1
      dim: 1000
    }
  }
}
layer {
  name: "lstm1_cont_slice"
  type: "Slice"
  bottom: "cont"
  top: "cont_1"
  slice_param {
    axis: 0
  }
}
layer {
  name: "lstm1_x_transform"
  type: "InnerProduct"
  bottom: "x"
  top: "W_xc_x"
  param {
    name: "W_xc"
  }
  param {
    name: "b_c"
  }
  propagate_down: true
  inner_product_param {
    num_output: 4000
    bias_term: true
    weight_filler {
      type: "uniform"
      min: -0.08
      max: 0.08
    }
    bias_filler {
      type: "constant"
      value: 0
    }
    axis: 2
  }
}
layer {
  name: "lstm1_W_xc_x_slice"
  type: "Slice"
  bottom: "W_xc_x"
  top: "W_xc_x_1"
  slice_param {
    axis: 0
  }
}
layer {
  name: "lstm1_h_conted_0"
  type: "Scale"
  bottom: "h_0"
  bottom: "cont_1"
  top: "h_conted_0"
  scale_param {
    axis: 0
  }
}
layer {
  name: "lstm1_transform_1"
  type: "InnerProduct"
  bottom: "h_conted_0"
  top: "W_hc_h_0"
  param {
    name: "W_hc"
  }
  inner_product_param {
    num_output: 4000
    bias_term: false
    weight_filler {
      type: "uniform"
      min: -0.08
      max: 0.08
    }
    axis: 2
  }
}
layer {
  name: "lstm1_gate_input_1"
  type: "Eltwise"
  bottom: "W_hc_h_0"
  bottom: "W_xc_x_1"
  top: "gate_input_1"
  eltwise_param {
    operation: SUM
  }
}
layer {
  name: "lstm1_unit_1"
  type: "LSTMUnit"
  bottom: "c_0"
  bottom: "gate_input_1"
  bottom: "cont_1"
  top: "c_1"
  top: "h_1"
}
layer {
  name: "lstm1_"
  type: "Split"
  bottom: "c_1"
  top: "c_T"
}
layer {
  name: "lstm1_h_concat"
  type: "Concat"
  bottom: "h_1"
  top: "h"
  concat_param {
    axis: 0
  }
}
layer {
  name: "h_pseudoloss"
  type: "Reduction"
  bottom: "h"
  top: "h_pseudoloss"
  loss_weight: 1
}
I0924 03:24:14.395912 25199 layer_factory.hpp:77] Creating layer lstm1_
I0924 03:24:14.395931 25199 net.cpp:91] Creating Layer lstm1_
I0924 03:24:14.395941 25199 net.cpp:399] lstm1_ -> x
I0924 03:24:14.395956 25199 net.cpp:399] lstm1_ -> cont
I0924 03:24:14.399847 25199 net.cpp:141] Setting up lstm1_
I0924 03:24:14.399893 25199 net.cpp:148] Top shape: 1 1 500 (500)
I0924 03:24:14.399902 25199 net.cpp:148] Top shape: 1 1 (1)
I0924 03:24:14.399909 25199 net.cpp:156] Memory required for data: 2004
I0924 03:24:14.399921 25199 layer_factory.hpp:77] Creating layer lstm1_
I0924 03:24:14.399950 25199 net.cpp:91] Creating Layer lstm1_
I0924 03:24:14.399961 25199 net.cpp:399] lstm1_ -> c_0
I0924 03:24:14.399984 25199 net.cpp:399] lstm1_ -> h_0
I0924 03:24:14.400056 25199 net.cpp:141] Setting up lstm1_
I0924 03:24:14.400069 25199 net.cpp:148] Top shape: 1 1 1000 (1000)
I0924 03:24:14.400079 25199 net.cpp:148] Top shape: 1 1 1000 (1000)
I0924 03:24:14.400084 25199 net.cpp:156] Memory required for data: 10004
I0924 03:24:14.400091 25199 layer_factory.hpp:77] Creating layer lstm1_cont_slice
I0924 03:24:14.400105 25199 net.cpp:91] Creating Layer lstm1_cont_slice
I0924 03:24:14.400113 25199 net.cpp:425] lstm1_cont_slice <- cont
I0924 03:24:14.400127 25199 net.cpp:399] lstm1_cont_slice -> cont_1
I0924 03:24:14.400173 25199 net.cpp:141] Setting up lstm1_cont_slice
I0924 03:24:14.400185 25199 net.cpp:148] Top shape: 1 1 (1)
I0924 03:24:14.400192 25199 net.cpp:156] Memory required for data: 10008
I0924 03:24:14.400198 25199 layer_factory.hpp:77] Creating layer cont_1_lstm1_cont_slice_0_split
I0924 03:24:14.400209 25199 net.cpp:91] Creating Layer cont_1_lstm1_cont_slice_0_split
I0924 03:24:14.400216 25199 net.cpp:425] cont_1_lstm1_cont_slice_0_split <- cont_1
I0924 03:24:14.400226 25199 net.cpp:399] cont_1_lstm1_cont_slice_0_split -> cont_1_lstm1_cont_slice_0_split_0
I0924 03:24:14.400243 25199 net.cpp:399] cont_1_lstm1_cont_slice_0_split -> cont_1_lstm1_cont_slice_0_split_1
I0924 03:24:14.400302 25199 net.cpp:141] Setting up cont_1_lstm1_cont_slice_0_split
I0924 03:24:14.400315 25199 net.cpp:148] Top shape: 1 1 (1)
I0924 03:24:14.400322 25199 net.cpp:148] Top shape: 1 1 (1)
I0924 03:24:14.400329 25199 net.cpp:156] Memory required for data: 10016
I0924 03:24:14.400336 25199 layer_factory.hpp:77] Creating layer lstm1_x_transform
I0924 03:24:14.400355 25199 net.cpp:91] Creating Layer lstm1_x_transform
I0924 03:24:14.400362 25199 net.cpp:425] lstm1_x_transform <- x
I0924 03:24:14.400374 25199 net.cpp:399] lstm1_x_transform -> W_xc_x
I0924 03:24:14.417564 25205 net.cpp:141] Setting up lstm1_x_transform
I0924 03:24:14.417608 25205 net.cpp:148] Top shape: 1 1 4000 (4000)
I0924 03:24:14.417613 25205 net.cpp:156] Memory required for data: 26016
I0924 03:24:14.417635 25205 layer_factory.hpp:77] Creating layer lstm1_W_xc_x_slice
I0924 03:24:14.417654 25205 net.cpp:91] Creating Layer lstm1_W_xc_x_slice
I0924 03:24:14.417660 25205 net.cpp:425] lstm1_W_xc_x_slice <- W_xc_x
I0924 03:24:14.417670 25205 net.cpp:399] lstm1_W_xc_x_slice -> W_xc_x_1
I0924 03:24:14.417695 25179 net.cpp:141] Setting up lstm1_x_transform
I0924 03:24:14.417735 25205 net.cpp:141] Setting up lstm1_W_xc_x_slice
I0924 03:24:14.417737 25179 net.cpp:148] Top shape: 1 1 4000 (4000)
I0924 03:24:14.417747 25205 net.cpp:148] Top shape: 1 1 4000 (4000)
I0924 03:24:14.417749 25179 net.cpp:156] Memory required for data: 26016
I0924 03:24:14.417753 25205 net.cpp:156] Memory required for data: 42016
I0924 03:24:14.417776 25205 layer_factory.hpp:77] Creating layer lstm1_h_conted_0
I0924 03:24:14.417789 25179 layer_factory.hpp:77] Creating layer lstm1_W_xc_x_slice
I0924 03:24:14.417796 25205 net.cpp:91] Creating Layer lstm1_h_conted_0
I0924 03:24:14.417804 25205 net.cpp:425] lstm1_h_conted_0 <- h_0
I0924 03:24:14.417809 25205 net.cpp:425] lstm1_h_conted_0 <- cont_1_lstm1_cont_slice_0_split_0
I0924 03:24:14.417812 25179 net.cpp:91] Creating Layer lstm1_W_xc_x_slice
I0924 03:24:14.417816 25205 net.cpp:399] lstm1_h_conted_0 -> h_conted_0
I0924 03:24:14.417824 25179 net.cpp:425] lstm1_W_xc_x_slice <- W_xc_x
I0924 03:24:14.417840 25179 net.cpp:399] lstm1_W_xc_x_slice -> W_xc_x_1
I0924 03:24:14.422785 25179 net.cpp:141] Setting up lstm1_W_xc_x_slice
I0924 03:24:14.422827 25179 net.cpp:148] Top shape: 1 1 4000 (4000)
I0924 03:24:14.422834 25179 net.cpp:156] Memory required for data: 42016
I0924 03:24:14.422848 25179 layer_factory.hpp:77] Creating layer lstm1_h_conted_0
I0924 03:24:14.422869 25179 net.cpp:91] Creating Layer lstm1_h_conted_0
I0924 03:24:14.422878 25179 net.cpp:425] lstm1_h_conted_0 <- h_0
I0924 03:24:14.422891 25179 net.cpp:425] lstm1_h_conted_0 <- cont_1_lstm1_cont_slice_0_split_0
I0924 03:24:14.422904 25179 net.cpp:399] lstm1_h_conted_0 -> h_conted_0
I0924 03:24:14.422899 25205 net.cpp:141] Setting up lstm1_h_conted_0
I0924 03:24:14.422936 25205 net.cpp:148] Top shape: 1 1 1000 (1000)
I0924 03:24:14.422941 25205 net.cpp:156] Memory required for data: 46016
I0924 03:24:14.422950 25205 layer_factory.hpp:77] Creating layer lstm1_transform_1
I0924 03:24:14.422968 25205 net.cpp:91] Creating Layer lstm1_transform_1
I0924 03:24:14.422976 25205 net.cpp:425] lstm1_transform_1 <- h_conted_0
I0924 03:24:14.422991 25205 net.cpp:399] lstm1_transform_1 -> W_hc_h_0
I0924 03:24:14.431236 25179 net.cpp:141] Setting up lstm1_h_conted_0
I0924 03:24:14.431298 25179 net.cpp:148] Top shape: 1 1 1000 (1000)
I0924 03:24:14.431306 25179 net.cpp:156] Memory required for data: 46016
I0924 03:24:14.431319 25179 layer_factory.hpp:77] Creating layer lstm1_transform_1
I0924 03:24:14.431349 25179 net.cpp:91] Creating Layer lstm1_transform_1
I0924 03:24:14.431361 25179 net.cpp:425] lstm1_transform_1 <- h_conted_0
I0924 03:24:14.431380 25179 net.cpp:399] lstm1_transform_1 -> W_hc_h_0
I0924 03:24:14.431401 25199 net.cpp:141] Setting up lstm1_x_transform
I0924 03:24:14.431448 25199 net.cpp:148] Top shape: 1 1 4000 (4000)
I0924 03:24:14.431457 25199 net.cpp:156] Memory required for data: 26016
I0924 03:24:14.431488 25199 layer_factory.hpp:77] Creating layer lstm1_W_xc_x_slice
I0924 03:24:14.431516 25199 net.cpp:91] Creating Layer lstm1_W_xc_x_slice
I0924 03:24:14.431529 25199 net.cpp:425] lstm1_W_xc_x_slice <- W_xc_x
I0924 03:24:14.431546 25199 net.cpp:399] lstm1_W_xc_x_slice -> W_xc_x_1
I0924 03:24:14.442112 25199 net.cpp:141] Setting up lstm1_W_xc_x_slice
I0924 03:24:14.442175 25199 net.cpp:148] Top shape: 1 1 4000 (4000)
I0924 03:24:14.442186 25199 net.cpp:156] Memory required for data: 42016
I0924 03:24:14.442199 25199 layer_factory.hpp:77] Creating layer lstm1_h_conted_0
I0924 03:24:14.442224 25199 net.cpp:91] Creating Layer lstm1_h_conted_0
I0924 03:24:14.442235 25199 net.cpp:425] lstm1_h_conted_0 <- h_0
I0924 03:24:14.442250 25199 net.cpp:425] lstm1_h_conted_0 <- cont_1_lstm1_cont_slice_0_split_0
I0924 03:24:14.442275 25199 net.cpp:399] lstm1_h_conted_0 -> h_conted_0
I0924 03:24:14.442836 25161 net.cpp:141] Setting up embedding
I0924 03:24:14.442880 25161 net.cpp:148] Top shape: 1 1 500 (500)
I0924 03:24:14.442888 25161 net.cpp:156] Memory required for data: 22408
I0924 03:24:14.442939 25161 layer_factory.hpp:77] Creating layer lstm1
I0924 03:24:14.442961 25161 net.cpp:91] Creating Layer lstm1
I0924 03:24:14.442994 25161 net.cpp:425] lstm1 <- embedded_input_frames
I0924 03:24:14.442997 25199 net.cpp:141] Setting up lstm1_h_conted_0
I0924 03:24:14.443006 25161 net.cpp:425] lstm1 <- cont_sentence_input_1_split_0
I0924 03:24:14.443019 25199 net.cpp:148] Top shape: 1 1 1000 (1000)
I0924 03:24:14.443022 25161 net.cpp:399] lstm1 -> lstm1
I0924 03:24:14.443029 25199 net.cpp:156] Memory required for data: 46016
I0924 03:24:14.443039 25199 layer_factory.hpp:77] Creating layer lstm1_transform_1
I0924 03:24:14.443042 25161 recurrent_layer.cpp:20] Initializing recurrent layer: assuming input batch contains 1 timesteps of 1 independent streams.
I0924 03:24:14.443063 25199 net.cpp:91] Creating Layer lstm1_transform_1
I0924 03:24:14.443076 25199 net.cpp:425] lstm1_transform_1 <- h_conted_0
I0924 03:24:14.443094 25199 net.cpp:399] lstm1_transform_1 -> W_hc_h_0
I0924 03:24:14.443466 25161 net.cpp:49] Initializing net from parameters: 
layer {
  name: "lstm1_"
  type: "Input"
  top: "x"
  top: "cont"
  input_param {
    shape {
      dim: 1
      dim: 1
      dim: 500
    }
    shape {
      dim: 1
      dim: 1
    }
  }
}
layer {
  name: "lstm1_"
  type: "Input"
  top: "c_0"
  top: "h_0"
  input_param {
    shape {
      dim: 1
      dim: 1
      dim: 1000
    }
    shape {
      dim: 1
      dim: 1
      dim: 1000
    }
  }
}
layer {
  name: "lstm1_cont_slice"
  type: "Slice"
  bottom: "cont"
  top: "cont_1"
  slice_param {
    axis: 0
  }
}
layer {
  name: "lstm1_x_transform"
  type: "InnerProduct"
  bottom: "x"
  top: "W_xc_x"
  param {
    name: "W_xc"
  }
  param {
    name: "b_c"
  }
  propagate_down: true
  inner_product_param {
    num_output: 4000
    bias_term: true
    weight_filler {
      type: "uniform"
      min: -0.08
      max: 0.08
    }
    bias_filler {
      type: "constant"
      value: 0
    }
    axis: 2
  }
}
layer {
  name: "lstm1_W_xc_x_slice"
  type: "Slice"
  bottom: "W_xc_x"
  top: "W_xc_x_1"
  slice_param {
    axis: 0
  }
}
layer {
  name: "lstm1_h_conted_0"
  type: "Scale"
  bottom: "h_0"
  bottom: "cont_1"
  top: "h_conted_0"
  scale_param {
    axis: 0
  }
}
layer {
  name: "lstm1_transform_1"
  type: "InnerProduct"
  bottom: "h_conted_0"
  top: "W_hc_h_0"
  param {
    name: "W_hc"
  }
  inner_product_param {
    num_output: 4000
    bias_term: false
    weight_filler {
      type: "uniform"
      min: -0.08
      max: 0.08
    }
    axis: 2
  }
}
layer {
  name: "lstm1_gate_input_1"
  type: "Eltwise"
  bottom: "W_hc_h_0"
  bottom: "W_xc_x_1"
  top: "gate_input_1"
  eltwise_param {
    operation: SUM
  }
}
layer {
  name: "lstm1_unit_1"
  type: "LSTMUnit"
  bottom: "c_0"
  bottom: "gate_input_1"
  bottom: "cont_1"
  top: "c_1"
  top: "h_1"
}
layer {
  name: "lstm1_"
  type: "Split"
  bottom: "c_1"
  top: "c_T"
}
layer {
  name: "lstm1_h_concat"
  type: "Concat"
  bottom: "h_1"
  top: "h"
  concat_param {
    axis: 0
  }
}
layer {
  name: "h_pseudoloss"
  type: "Reduction"
  bottom: "h"
  top: "h_pseudoloss"
  loss_weight: 1
}
I0924 03:24:14.443598 25161 layer_factory.hpp:77] Creating layer lstm1_
I0924 03:24:14.443617 25161 net.cpp:91] Creating Layer lstm1_
I0924 03:24:14.443627 25161 net.cpp:399] lstm1_ -> x
I0924 03:24:14.443645 25161 net.cpp:399] lstm1_ -> cont
I0924 03:24:14.463102 25161 net.cpp:141] Setting up lstm1_
I0924 03:24:14.463170 25161 net.cpp:148] Top shape: 1 1 500 (500)
I0924 03:24:14.463183 25161 net.cpp:148] Top shape: 1 1 (1)
I0924 03:24:14.463191 25161 net.cpp:156] Memory required for data: 2004
I0924 03:24:14.463205 25161 layer_factory.hpp:77] Creating layer lstm1_
I0924 03:24:14.463251 25161 net.cpp:91] Creating Layer lstm1_
I0924 03:24:14.463268 25161 net.cpp:399] lstm1_ -> c_0
I0924 03:24:14.463297 25161 net.cpp:399] lstm1_ -> h_0
I0924 03:24:14.472700 25161 net.cpp:141] Setting up lstm1_
I0924 03:24:14.472757 25161 net.cpp:148] Top shape: 1 1 1000 (1000)
I0924 03:24:14.472771 25161 net.cpp:148] Top shape: 1 1 1000 (1000)
I0924 03:24:14.472779 25161 net.cpp:156] Memory required for data: 10004
I0924 03:24:14.472791 25161 layer_factory.hpp:77] Creating layer lstm1_cont_slice
I0924 03:24:14.472817 25161 net.cpp:91] Creating Layer lstm1_cont_slice
I0924 03:24:14.472828 25161 net.cpp:425] lstm1_cont_slice <- cont
I0924 03:24:14.472848 25161 net.cpp:399] lstm1_cont_slice -> cont_1
I0924 03:24:14.472914 25161 net.cpp:141] Setting up lstm1_cont_slice
I0924 03:24:14.472929 25161 net.cpp:148] Top shape: 1 1 (1)
I0924 03:24:14.472936 25161 net.cpp:156] Memory required for data: 10008
I0924 03:24:14.472944 25161 layer_factory.hpp:77] Creating layer cont_1_lstm1_cont_slice_0_split
I0924 03:24:14.472955 25161 net.cpp:91] Creating Layer cont_1_lstm1_cont_slice_0_split
I0924 03:24:14.472964 25161 net.cpp:425] cont_1_lstm1_cont_slice_0_split <- cont_1
I0924 03:24:14.472973 25161 net.cpp:399] cont_1_lstm1_cont_slice_0_split -> cont_1_lstm1_cont_slice_0_split_0
I0924 03:24:14.472987 25161 net.cpp:399] cont_1_lstm1_cont_slice_0_split -> cont_1_lstm1_cont_slice_0_split_1
I0924 03:24:14.473058 25161 net.cpp:141] Setting up cont_1_lstm1_cont_slice_0_split
I0924 03:24:14.473073 25161 net.cpp:148] Top shape: 1 1 (1)
I0924 03:24:14.473083 25161 net.cpp:148] Top shape: 1 1 (1)
I0924 03:24:14.473090 25161 net.cpp:156] Memory required for data: 10016
I0924 03:24:14.473098 25161 layer_factory.hpp:77] Creating layer lstm1_x_transform
I0924 03:24:14.473121 25161 net.cpp:91] Creating Layer lstm1_x_transform
I0924 03:24:14.473131 25161 net.cpp:425] lstm1_x_transform <- x
I0924 03:24:14.473145 25161 net.cpp:399] lstm1_x_transform -> W_xc_x
I0924 03:24:14.478714 25167 net.cpp:141] Setting up embedding
I0924 03:24:14.478765 25205 net.cpp:141] Setting up lstm1_transform_1
I0924 03:24:14.478771 25167 net.cpp:148] Top shape: 1 1 500 (500)
I0924 03:24:14.478802 25205 net.cpp:148] Top shape: 1 1 4000 (4000)
I0924 03:24:14.478803 25167 net.cpp:156] Memory required for data: 22408
I0924 03:24:14.478816 25205 net.cpp:156] Memory required for data: 62016
I0924 03:24:14.478839 25205 layer_factory.hpp:77] Creating layer lstm1_gate_input_1
I0924 03:24:14.478840 25167 layer_factory.hpp:77] Creating layer lstm1
I0924 03:24:14.478870 25205 net.cpp:91] Creating Layer lstm1_gate_input_1
I0924 03:24:14.478873 25167 net.cpp:91] Creating Layer lstm1
I0924 03:24:14.478886 25205 net.cpp:425] lstm1_gate_input_1 <- W_hc_h_0
I0924 03:24:14.478890 25167 net.cpp:425] lstm1 <- embedded_input_frames
I0924 03:24:14.478899 25205 net.cpp:425] lstm1_gate_input_1 <- W_xc_x_1
I0924 03:24:14.478904 25167 net.cpp:425] lstm1 <- cont_sentence_input_1_split_0
I0924 03:24:14.478916 25205 net.cpp:399] lstm1_gate_input_1 -> gate_input_1
I0924 03:24:14.478919 25167 net.cpp:399] lstm1 -> lstm1
I0924 03:24:14.478940 25167 recurrent_layer.cpp:20] Initializing recurrent layer: assuming input batch contains 1 timesteps of 1 independent streams.
I0924 03:24:14.479179 25179 net.cpp:141] Setting up lstm1_transform_1
I0924 03:24:14.479225 25179 net.cpp:148] Top shape: 1 1 4000 (4000)
I0924 03:24:14.479225 25205 net.cpp:141] Setting up lstm1_gate_input_1
I0924 03:24:14.479249 25179 net.cpp:156] Memory required for data: 62016
I0924 03:24:14.479274 25205 net.cpp:148] Top shape: 1 1 4000 (4000)
I0924 03:24:14.479284 25205 net.cpp:156] Memory required for data: 78016
I0924 03:24:14.479291 25205 layer_factory.hpp:77] Creating layer lstm1_unit_1
I0924 03:24:14.479296 25179 layer_factory.hpp:77] Creating layer lstm1_gate_input_1
I0924 03:24:14.479305 25205 net.cpp:91] Creating Layer lstm1_unit_1
I0924 03:24:14.479315 25205 net.cpp:425] lstm1_unit_1 <- c_0
I0924 03:24:14.479324 25179 net.cpp:91] Creating Layer lstm1_gate_input_1
I0924 03:24:14.479326 25205 net.cpp:425] lstm1_unit_1 <- gate_input_1
I0924 03:24:14.479341 25179 net.cpp:425] lstm1_gate_input_1 <- W_hc_h_0
I0924 03:24:14.479351 25205 net.cpp:425] lstm1_unit_1 <- cont_1_lstm1_cont_slice_0_split_1
I0924 03:24:14.479356 25179 net.cpp:425] lstm1_gate_input_1 <- W_xc_x_1
I0924 03:24:14.479368 25205 net.cpp:399] lstm1_unit_1 -> c_1
I0924 03:24:14.479369 25179 net.cpp:399] lstm1_gate_input_1 -> gate_input_1
I0924 03:24:14.479398 25205 net.cpp:399] lstm1_unit_1 -> h_1
I0924 03:24:14.479434 25167 net.cpp:49] Initializing net from parameters: 
layer {
  name: "lstm1_"
  type: "Input"
  top: "x"
  top: "cont"
  input_param {
    shape {
      dim: 1
      dim: 1
      dim: 500
    }
    shape {
      dim: 1
      dim: 1
    }
  }
}
layer {
  name: "lstm1_"
  type: "Input"
  top: "c_0"
  top: "h_0"
  input_param {
    shape {
      dim: 1
      dim: 1
      dim: 1000
    }
    shape {
      dim: 1
      dim: 1
      dim: 1000
    }
  }
}
layer {
  name: "lstm1_cont_slice"
  type: "Slice"
  bottom: "cont"
  top: "cont_1"
  slice_param {
    axis: 0
  }
}
layer {
  name: "lstm1_x_transform"
  type: "InnerProduct"
  bottom: "x"
  top: "W_xc_x"
  param {
    name: "W_xc"
  }
  param {
    name: "b_c"
  }
  propagate_down: true
  inner_product_param {
    num_output: 4000
    bias_term: true
    weight_filler {
      type: "uniform"
      min: -0.08
      max: 0.08
    }
    bias_filler {
      type: "constant"
      value: 0
    }
    axis: 2
  }
}
layer {
  name: "lstm1_W_xc_x_slice"
  type: "Slice"
  bottom: "W_xc_x"
  top: "W_xc_x_1"
  slice_param {
    axis: 0
  }
}
layer {
  name: "lstm1_h_conted_0"
  type: "Scale"
  bottom: "h_0"
  bottom: "cont_1"
  top: "h_conted_0"
  scale_param {
    axis: 0
  }
}
layer {
  name: "lstm1_transform_1"
  type: "InnerProduct"
  bottom: "h_conted_0"
  top: "W_hc_h_0"
  param {
    name: "W_hc"
  }
  inner_product_param {
    num_output: 4000
    bias_term: false
    weight_filler {
      type: "uniform"
      min: -0.08
      max: 0.08
    }
    axis: 2
  }
}
layer {
  name: "lstm1_gate_input_1"
  type: "Eltwise"
  bottom: "W_hc_h_0"
  bottom: "W_xc_x_1"
  top: "gate_input_1"
  eltwise_param {
    operation: SUM
  }
}
layer {
  name: "lstm1_unit_1"
  type: "LSTMUnit"
  bottom: "c_0"
  bottom: "gate_input_1"
  bottom: "cont_1"
  top: "c_1"
  top: "h_1"
}
layer {
  name: "lstm1_"
  type: "Split"
  bottom: "c_1"
  top: "c_T"
}
layer {
  name: "lstm1_h_concat"
  type: "Concat"
  bottom: "h_1"
  top: "h"
  concat_param {
    axis: 0
  }
}
layer {
  name: "h_pseudoloss"
  type: "Reduction"
  bottom: "h"
  top: "h_pseudoloss"
  loss_weight: 1
}
I0924 03:24:14.479552 25205 net.cpp:141] Setting up lstm1_unit_1
I0924 03:24:14.479568 25205 net.cpp:148] Top shape: 1 1 1000 (1000)
I0924 03:24:14.479578 25205 net.cpp:148] Top shape: 1 1 1000 (1000)
I0924 03:24:14.479585 25205 net.cpp:156] Memory required for data: 86016
I0924 03:24:14.479586 25167 layer_factory.hpp:77] Creating layer lstm1_
I0924 03:24:14.479593 25205 layer_factory.hpp:77] Creating layer lstm1_
I0924 03:24:14.479606 25205 net.cpp:91] Creating Layer lstm1_
I0924 03:24:14.479609 25167 net.cpp:91] Creating Layer lstm1_
I0924 03:24:14.479615 25205 net.cpp:425] lstm1_ <- c_1
I0924 03:24:14.479614 25179 net.cpp:141] Setting up lstm1_gate_input_1
I0924 03:24:14.479629 25205 net.cpp:399] lstm1_ -> c_T
I0924 03:24:14.479636 25179 net.cpp:148] Top shape: 1 1 4000 (4000)
I0924 03:24:14.479619 25167 net.cpp:399] lstm1_ -> x
I0924 03:24:14.479648 25179 net.cpp:156] Memory required for data: 78016
I0924 03:24:14.479671 25179 layer_factory.hpp:77] Creating layer lstm1_unit_1
I0924 03:24:14.479672 25167 net.cpp:399] lstm1_ -> cont
I0924 03:24:14.479696 25179 net.cpp:91] Creating Layer lstm1_unit_1
I0924 03:24:14.479706 25179 net.cpp:425] lstm1_unit_1 <- c_0
I0924 03:24:14.479715 25179 net.cpp:425] lstm1_unit_1 <- gate_input_1
I0924 03:24:14.479724 25179 net.cpp:425] lstm1_unit_1 <- cont_1_lstm1_cont_slice_0_split_1
I0924 03:24:14.479735 25179 net.cpp:399] lstm1_unit_1 -> c_1
I0924 03:24:14.479749 25179 net.cpp:399] lstm1_unit_1 -> h_1
I0924 03:24:14.480496 25205 net.cpp:141] Setting up lstm1_
I0924 03:24:14.480512 25205 net.cpp:148] Top shape: 1 1 1000 (1000)
I0924 03:24:14.480520 25205 net.cpp:156] Memory required for data: 90016
I0924 03:24:14.480528 25205 layer_factory.hpp:77] Creating layer lstm1_h_concat
I0924 03:24:14.480541 25205 net.cpp:91] Creating Layer lstm1_h_concat
I0924 03:24:14.480550 25205 net.cpp:425] lstm1_h_concat <- h_1
I0924 03:24:14.480564 25205 net.cpp:399] lstm1_h_concat -> h
I0924 03:24:14.480564 25167 net.cpp:141] Setting up lstm1_
I0924 03:24:14.480582 25167 net.cpp:148] Top shape: 1 1 500 (500)
I0924 03:24:14.480592 25167 net.cpp:148] Top shape: 1 1 (1)
I0924 03:24:14.480599 25167 net.cpp:156] Memory required for data: 2004
I0924 03:24:14.480607 25167 layer_factory.hpp:77] Creating layer lstm1_
I0924 03:24:14.480624 25167 net.cpp:91] Creating Layer lstm1_
I0924 03:24:14.480634 25167 net.cpp:399] lstm1_ -> c_0
I0924 03:24:14.480649 25167 net.cpp:399] lstm1_ -> h_0
I0924 03:24:14.480696 25179 net.cpp:141] Setting up lstm1_unit_1
I0924 03:24:14.480715 25179 net.cpp:148] Top shape: 1 1 1000 (1000)
I0924 03:24:14.480726 25179 net.cpp:148] Top shape: 1 1 1000 (1000)
I0924 03:24:14.480732 25179 net.cpp:156] Memory required for data: 86016
I0924 03:24:14.480741 25179 layer_factory.hpp:77] Creating layer lstm1_
I0924 03:24:14.480749 25205 net.cpp:141] Setting up lstm1_h_concat
I0924 03:24:14.480756 25179 net.cpp:91] Creating Layer lstm1_
I0924 03:24:14.480764 25205 net.cpp:148] Top shape: 1 1 1000 (1000)
I0924 03:24:14.480767 25179 net.cpp:425] lstm1_ <- c_1
I0924 03:24:14.480780 25205 net.cpp:156] Memory required for data: 94016
I0924 03:24:14.480798 25179 net.cpp:399] lstm1_ -> c_T
I0924 03:24:14.480804 25205 layer_factory.hpp:77] Creating layer h_pseudoloss
I0924 03:24:14.480831 25205 net.cpp:91] Creating Layer h_pseudoloss
I0924 03:24:14.480834 25167 net.cpp:141] Setting up lstm1_
I0924 03:24:14.480841 25205 net.cpp:425] h_pseudoloss <- h
I0924 03:24:14.480849 25167 net.cpp:148] Top shape: 1 1 1000 (1000)
I0924 03:24:14.480852 25205 net.cpp:399] h_pseudoloss -> h_pseudoloss
I0924 03:24:14.480859 25167 net.cpp:148] Top shape: 1 1 1000 (1000)
I0924 03:24:14.480865 25167 net.cpp:156] Memory required for data: 10004
I0924 03:24:14.480865 25179 net.cpp:141] Setting up lstm1_
I0924 03:24:14.480880 25167 layer_factory.hpp:77] Creating layer lstm1_cont_slice
I0924 03:24:14.480895 25179 net.cpp:148] Top shape: 1 1 1000 (1000)
I0924 03:24:14.480904 25167 net.cpp:91] Creating Layer lstm1_cont_slice
I0924 03:24:14.480906 25179 net.cpp:156] Memory required for data: 90016
I0924 03:24:14.480917 25167 net.cpp:425] lstm1_cont_slice <- cont
I0924 03:24:14.480926 25179 layer_factory.hpp:77] Creating layer lstm1_h_concat
I0924 03:24:14.480945 25179 net.cpp:91] Creating Layer lstm1_h_concat
I0924 03:24:14.480945 25167 net.cpp:399] lstm1_cont_slice -> cont_1
I0924 03:24:14.480960 25179 net.cpp:425] lstm1_h_concat <- h_1
I0924 03:24:14.480988 25179 net.cpp:399] lstm1_h_concat -> h
I0924 03:24:14.484946 25179 net.cpp:141] Setting up lstm1_h_concat
I0924 03:24:14.484979 25179 net.cpp:148] Top shape: 1 1 1000 (1000)
I0924 03:24:14.484987 25179 net.cpp:156] Memory required for data: 94016
I0924 03:24:14.484997 25179 layer_factory.hpp:77] Creating layer h_pseudoloss
I0924 03:24:14.485016 25179 net.cpp:91] Creating Layer h_pseudoloss
I0924 03:24:14.485025 25179 net.cpp:425] h_pseudoloss <- h
I0924 03:24:14.485044 25179 net.cpp:399] h_pseudoloss -> h_pseudoloss
I0924 03:24:14.485036 25205 net.cpp:141] Setting up h_pseudoloss
…
I0924 03:24:14.486166 25179 net.cpp:219] lstm1_ does not need backward computation.
I0924 03:24:14.486172 25179 net.cpp:261] This network produces output c_T
I0924 03:24:14.486181 25179 net.cpp:261] This network produces output h_pseudoloss
I0924 03:24:14.486207 25179 net.cpp:274] Network initialization done.
I0924 03:24:14.486282 25179 recurrent_layer.cpp:150] Adding parameter 0: W_xc
I0924 03:24:14.486294 25179 recurrent_layer.cpp:150] Adding parameter 1: b_c
I0924 03:24:14.486300 25179 recurrent_layer.cpp:150] Adding parameter 2: W_hc
I0924 03:24:14.486466 25179 net.cpp:141] Setting up lstm1
I0924 03:24:14.486484 25179 net.cpp:148] Top shape: 1 1 1000 (1000)
I0924 03:24:14.486491 25179 net.cpp:156] Memory required for data: 26408
I0924 03:24:14.486515 25179 layer_factory.hpp:77] Creating layer concat
I0924 03:24:14.486582 25179 net.cpp:91] Creating Layer concat
I0924 03:24:14.486613 25179 net.cpp:425] concat <- lstm1
I0924 03:24:14.486629 25179 net.cpp:425] concat <- embedded_input_sentence
I0924 03:24:14.486641 25179 net.cpp:425] concat <- reshaped_stage_indicator
I0924 03:24:14.486659 25179 net.cpp:399] concat -> lstm1_video_sequence
I0924 03:24:14.486734 25179 net.cpp:141] Setting up concat
I0924 03:24:14.486749 25179 net.cpp:148] Top shape: 1 1 1501 (1501)
I0924 03:24:14.486757 25179 net.cpp:156] Memory required for data: 32412
I0924 03:24:14.486764 25179 layer_factory.hpp:77] Creating layer lstm2
I0924 03:24:14.486788 25179 net.cpp:91] Creating Layer lstm2
I0924 03:24:14.486796 25179 net.cpp:425] lstm2 <- lstm1_video_sequence
I0924 03:24:14.486805 25179 net.cpp:425] lstm2 <- cont_sentence_input_1_split_1
I0924 03:24:14.486821 25179 net.cpp:399] lstm2 -> lstm2
I0924 03:24:14.486838 25179 recurrent_layer.cpp:20] Initializing recurrent layer: assuming input batch contains 1 timesteps of 1 independent streams.
I0924 03:24:14.487216 25179 net.cpp:49] Initializing net from parameters: 
layer {
  name: "lstm2_"
  type: "Input"
  top: "x"
  top: "cont"
  input_param {
    shape {
      dim: 1
      dim: 1
      dim: 1501
    }
    shape {
      dim: 1
      dim: 1
    }
  }
}
layer {
  name: "lstm2_"
  type: "Input"
  top: "c_0"
  top: "h_0"
  input_param {
    shape {
      dim: 1
      dim: 1
      dim: 1000
    }
    shape {
      dim: 1
      dim: 1
      dim: 1000
    }
  }
}
layer {
  name: "lstm2_cont_slice"
  type: "Slice"
  bottom: "cont"
  top: "cont_1"
  slice_param {
    axis: 0
  }
}
layer {
  name: "lstm2_x_transform"
  type: "InnerProduct"
  bottom: "x"
  top: "W_xc_x"
  param {
    name: "W_xc"
  }
  param {
    name: "b_c"
  }
  propagate_down: true
  inner_product_param {
    num_output: 4000
    bias_term: true
    weight_filler {
      type: "uniform"
      min: -0.08
      max: 0.08
    }
    bias_filler {
      type: "constant"
      value: 0
    }
    axis: 2
  }
}
layer {
  name: "lstm2_W_xc_x_slice"
  type: "Slice"
  bottom: "W_xc_x"
  top: "W_xc_x_1"
  slice_param {
    axis: 0
  }
}
layer {
  name: "lstm2_h_conted_0"
  type: "Scale"
  bottom: "h_0"
  bottom: "cont_1"
  top: "h_conted_0"
  scale_param {
    axis: 0
  }
}
layer {
  name: "lstm2_transform_1"
  type: "InnerProduct"
  bottom: "h_conted_0"
  top: "W_hc_h_0"
  param {
    name: "W_hc"
  }
  inner_product_param {
    num_output: 4000
    bias_term: false
    weight_filler {
      type: "uniform"
      min: -0.08
      max: 0.08
    }
    axis: 2
  }
}
layer {
  name: "lstm2_gate_input_1"
  type: "Eltwise"
  bottom: "W_hc_h_0"
  bottom: "W_xc_x_1"
  top: "gate_input_1"
  eltwise_param {
    operation: SUM
  }
}
layer {
  name: "lstm2_unit_1"
  type: "LSTMUnit"
  bottom: "c_0"
  bottom: "gate_input_1"
  bottom: "cont_1"
  top: "c_1"
  top: "h_1"
}
layer {
  name: "lstm2_"
  type: "Split"
  bottom: "c_1"
  top: "c_T"
}
layer {
  name: "lstm2_h_concat"
  type: "Concat"
  bottom: "h_1"
  top: "h"
  concat_param {
    axis: 0
  }
}
layer {
  name: "h_pseudoloss"
  type: "Reduction"
  bottom: "h"
  top: "h_pseudoloss"
  loss_weight: 1
}
I0924 03:24:14.487342 25179 layer_factory.hpp:77] Creating layer lstm2_
I0924 03:24:14.487365 25179 net.cpp:91] Creating Layer lstm2_
I0924 03:24:14.487376 25179 net.cpp:399] lstm2_ -> x
I0924 03:24:14.487391 25179 net.cpp:399] lstm2_ -> cont
I0924 03:24:14.487465 25179 net.cpp:141] Setting up lstm2_
I0924 03:24:14.487479 25179 net.cpp:148] Top shape: 1 1 1501 (1501)
I0924 03:24:14.487489 25179 net.cpp:148] Top shape: 1 1 (1)
I0924 03:24:14.487495 25179 net.cpp:156] Memory required for data: 6008
I0924 03:24:14.487504 25179 layer_factory.hpp:77] Creating layer lstm2_
I0924 03:24:14.487515 25179 net.cpp:91] Creating Layer lstm2_
I0924 03:24:14.487525 25179 net.cpp:399] lstm2_ -> c_0
I0924 03:24:14.487540 25179 net.cpp:399] lstm2_ -> h_0
I0924 03:24:14.487615 25179 net.cpp:141] Setting up lstm2_
I0924 03:24:14.487628 25179 net.cpp:148] Top shape: 1 1 1000 (1000)
I0924 03:24:14.487637 25179 net.cpp:148] Top shape: 1 1 1000 (1000)
I0924 03:24:14.487644 25179 net.cpp:156] Memory required for data: 14008
I0924 03:24:14.487651 25179 layer_factory.hpp:77] Creating layer lstm2_cont_slice
I0924 03:24:14.487663 25179 net.cpp:91] Creating Layer lstm2_cont_slice
I0924 03:24:14.487670 25179 net.cpp:425] lstm2_cont_slice <- cont
I0924 03:24:14.487690 25179 net.cpp:399] lstm2_cont_slice -> cont_1
I0924 03:24:14.487740 25179 net.cpp:141] Setting up lstm2_cont_slice
I0924 03:24:14.487752 25179 net.cpp:148] Top shape: 1 1 (1)
I0924 03:24:14.487761 25179 net.cpp:156] Memory required for data: 14012
I0924 03:24:14.487767 25179 layer_factory.hpp:77] Creating layer cont_1_lstm2_cont_slice_0_split
I0924 03:24:14.487779 25179 net.cpp:91] Creating Layer cont_1_lstm2_cont_slice_0_split
I0924 03:24:14.487787 25179 net.cpp:425] cont_1_lstm2_cont_slice_0_split <- cont_1
I0924 03:24:14.487797 25179 net.cpp:399] cont_1_lstm2_cont_slice_0_split -> cont_1_lstm2_cont_slice_0_split_0
I0924 03:24:14.487808 25179 net.cpp:399] cont_1_lstm2_cont_slice_0_split -> cont_1_lstm2_cont_slice_0_split_1
I0924 03:24:14.487877 25179 net.cpp:141] Setting up cont_1_lstm2_cont_slice_0_split
I0924 03:24:14.487890 25179 net.cpp:148] Top shape: 1 1 (1)
I0924 03:24:14.487898 25179 net.cpp:148] Top shape: 1 1 (1)
I0924 03:24:14.487905 25179 net.cpp:156] Memory required for data: 14020
I0924 03:24:14.487911 25179 layer_factory.hpp:77] Creating layer lstm2_x_transform
I0924 03:24:14.487929 25179 net.cpp:91] Creating Layer lstm2_x_transform
I0924 03:24:14.487936 25179 net.cpp:425] lstm2_x_transform <- x
I0924 03:24:14.487952 25179 net.cpp:399] lstm2_x_transform -> W_xc_x
I0924 03:24:14.501618 25167 net.cpp:141] Setting up lstm1_cont_slice
I0924 03:24:14.501667 25167 net.cpp:148] Top shape: 1 1 (1)
I0924 03:24:14.501667 25199 net.cpp:141] Setting up lstm1_transform_1
I0924 03:24:14.501675 25167 net.cpp:156] Memory required for data: 10008
I0924 03:24:14.501694 25167 layer_factory.hpp:77] Creating layer cont_1_lstm1_cont_slice_0_split
I0924 03:24:14.501693 25199 net.cpp:148] Top shape: 1 1 4000 (4000)
I0924 03:24:14.501704 25199 net.cpp:156] Memory required for data: 62016
I0924 03:24:14.501713 25167 net.cpp:91] Creating Layer cont_1_lstm1_cont_slice_0_split
I0924 03:24:14.501720 25167 net.cpp:425] cont_1_lstm1_cont_slice_0_split <- cont_1
I0924 03:24:14.501730 25167 net.cpp:399] cont_1_lstm1_cont_slice_0_split -> cont_1_lstm1_cont_slice_0_split_0
I0924 03:24:14.501730 25199 layer_factory.hpp:77] Creating layer lstm1_gate_input_1
I0924 03:24:14.501744 25167 net.cpp:399] cont_1_lstm1_cont_slice_0_split -> cont_1_lstm1_cont_slice_0_split_1
I0924 03:24:14.501759 25199 net.cpp:91] Creating Layer lstm1_gate_input_1
I0924 03:24:14.501770 25199 net.cpp:425] lstm1_gate_input_1 <- W_hc_h_0
I0924 03:24:14.501782 25199 net.cpp:425] lstm1_gate_input_1 <- W_xc_x_1
I0924 03:24:14.501799 25199 net.cpp:399] lstm1_gate_input_1 -> gate_input_1
I0924 03:24:14.501852 25167 net.cpp:141] Setting up cont_1_lstm1_cont_slice_0_split
I0924 03:24:14.501864 25167 net.cpp:148] Top shape: 1 1 (1)
I0924 03:24:14.501871 25167 net.cpp:148] Top shape: 1 1 (1)
I0924 03:24:14.501875 25167 net.cpp:156] Memory required for data: 10016
I0924 03:24:14.501880 25167 layer_factory.hpp:77] Creating layer lstm1_x_transform
I0924 03:24:14.501900 25167 net.cpp:91] Creating Layer lstm1_x_transform
I0924 03:24:14.501906 25167 net.cpp:425] lstm1_x_transform <- x
I0924 03:24:14.501914 25167 net.cpp:399] lstm1_x_transform -> W_xc_x
I0924 03:24:14.501960 25161 net.cpp:141] Setting up lstm1_x_transform
I0924 03:24:14.501982 25161 net.cpp:148] Top shape: 1 1 4000 (4000)
I0924 03:24:14.501991 25161 net.cpp:156] Memory required for data: 26016
I0924 03:24:14.502008 25161 layer_factory.hpp:77] Creating layer lstm1_W_xc_x_slice
I0924 03:24:14.502023 25161 net.cpp:91] Creating Layer lstm1_W_xc_x_slice
I0924 03:24:14.502032 25161 net.cpp:425] lstm1_W_xc_x_slice <- W_xc_x
I0924 03:24:14.502048 25161 net.cpp:399] lstm1_W_xc_x_slice -> W_xc_x_1
I0924 03:24:14.502045 25199 net.cpp:141] Setting up lstm1_gate_input_1
I0924 03:24:14.502084 25199 net.cpp:148] Top shape: 1 1 4000 (4000)
I0924 03:24:14.502081 25205 net.cpp:141] Setting up lstm1
I0924 03:24:14.502100 25199 net.cpp:156] Memory required for data: 78016
I0924 03:24:14.502125 25205 net.cpp:148] Top shape: 1 1 1000 (1000)
I0924 03:24:14.502126 25199 layer_factory.hpp:77] Creating layer lstm1_unit_1
I0924 03:24:14.502131 25205 net.cpp:156] Memory required for data: 26408
I0924 03:24:14.502146 25199 net.cpp:91] Creating Layer lstm1_unit_1
I0924 03:24:14.502151 25161 net.cpp:141] Setting up lstm1_W_xc_x_slice
I0924 03:24:14.502148 25205 layer_factory.hpp:77] Creating layer concat
I0924 03:24:14.502164 25199 net.cpp:425] lstm1_unit_1 <- c_0
I0924 03:24:14.502167 25161 net.cpp:148] Top shape: 1 1 4000 (4000)
I0924 03:24:14.502172 25205 net.cpp:91] Creating Layer concat
I0924 03:24:14.502176 25161 net.cpp:156] Memory required for data: 42016
I0924 03:24:14.502177 25199 net.cpp:425] lstm1_unit_1 <- gate_input_1
I0924 03:24:14.502183 25161 layer_factory.hpp:77] Creating layer lstm1_h_conted_0
I0924 03:24:14.502182 25205 net.cpp:425] concat <- lstm1
I0924 03:24:14.502194 25199 net.cpp:425] lstm1_unit_1 <- cont_1_lstm1_cont_slice_0_split_1
I0924 03:24:14.502198 25205 net.cpp:425] concat <- embedded_input_sentence
I0924 03:24:14.502199 25161 net.cpp:91] Creating Layer lstm1_h_conted_0
I0924 03:24:14.502205 25205 net.cpp:425] concat <- reshaped_stage_indicator
I0924 03:24:14.502207 25161 net.cpp:425] lstm1_h_conted_0 <- h_0
I0924 03:24:14.502208 25199 net.cpp:399] lstm1_unit_1 -> c_1
I0924 03:24:14.502213 25205 net.cpp:399] concat -> lstm1_video_sequence
I0924 03:24:14.502220 25161 net.cpp:425] lstm1_h_conted_0 <- cont_1_lstm1_cont_slice_0_split_0
I0924 03:24:14.502226 25199 net.cpp:399] lstm1_unit_1 -> h_1
I0924 03:24:14.502239 25161 net.cpp:399] lstm1_h_conted_0 -> h_conted_0
I0924 03:24:14.502259 25205 net.cpp:141] Setting up concat
I0924 03:24:14.502271 25205 net.cpp:148] Top shape: 1 1 1501 (1501)
I0924 03:24:14.502276 25205 net.cpp:156] Memory required for data: 32412
I0924 03:24:14.502282 25205 layer_factory.hpp:77] Creating layer lstm2
I0924 03:24:14.502300 25205 net.cpp:91] Creating Layer lstm2
I0924 03:24:14.502305 25205 net.cpp:425] lstm2 <- lstm1_video_sequence
I0924 03:24:14.502311 25205 net.cpp:425] lstm2 <- cont_sentence_input_1_split_1
I0924 03:24:14.502321 25205 net.cpp:399] lstm2 -> lstm2
I0924 03:24:14.502341 25205 recurrent_layer.cpp:20] Initializing recurrent layer: assuming input batch contains 1 timesteps of 1 independent streams.
I0924 03:24:14.502385 25161 net.cpp:141] Setting up lstm1_h_conted_0
I0924 03:24:14.502401 25161 net.cpp:148] Top shape: 1 1 1000 (1000)
I0924 03:24:14.502408 25161 net.cpp:156] Memory required for data: 46016
I0924 03:24:14.502418 25161 layer_factory.hpp:77] Creating layer lstm1_transform_1
I0924 03:24:14.502439 25161 net.cpp:91] Creating Layer lstm1_transform_1
I0924 03:24:14.502446 25161 net.cpp:425] lstm1_transform_1 <- h_conted_0
I0924 03:24:14.502471 25161 net.cpp:399] lstm1_transform_1 -> W_hc_h_0
I0924 03:24:14.506721 25205 net.cpp:49] Initializing net from parameters: 
layer {
  name: "lstm2_"
  type: "Input"
  top: "x"
  top: "cont"
  input_param {
    shape {
      dim: 1
      dim: 1
      dim: 1501
    }
    shape {
      dim: 1
      dim: 1
    }
  }
}
layer {
  name: "lstm2_"
  type: "Input"
  top: "c_0"
  top: "h_0"
  input_param {
    shape {
      dim: 1
      dim: 1
      dim: 1000
    }
    shape {
      dim: 1
      dim: 1
      dim: 1000
    }
  }
}
layer {
  name: "lstm2_cont_slice"
  type: "Slice"
  bottom: "cont"
  top: "cont_1"
  slice_param {
    axis: 0
  }
}
layer {
  name: "lstm2_x_transform"
  type: "InnerProduct"
  bottom: "x"
  top: "W_xc_x"
  param {
    name: "W_xc"
  }
  param {
    name: "b_c"
  }
  propagate_down: true
  inner_product_param {
    num_output: 4000
    bias_term: true
    weight_filler {
      type: "uniform"
      min: -0.08
      max: 0.08
    }
    bias_filler {
      type: "constant"
      value: 0
    }
    axis: 2
  }
}
layer {
  name: "lstm2_W_xc_x_slice"
  type: "Slice"
  bottom: "W_xc_x"
  top: "W_xc_x_1"
  slice_param {
    axis: 0
  }
}
layer {
  name: "lstm2_h_conted_0"
  type: "Scale"
  bottom: "h_0"
  bottom: "cont_1"
  top: "h_conted_0"
  scale_param {
    axis: 0
  }
}
layer {
  name: "lstm2_transform_1"
  type: "InnerProduct"
  bottom: "h_conted_0"
  top: "W_hc_h_0"
  param {
    name: "W_hc"
  }
  inner_product_param {
    num_output: 4000
    bias_term: false
    weight_filler {
      type: "uniform"
      min: -0.08
      max: 0.08
    }
    axis: 2
  }
}
layer {
  name: "lstm2_gate_input_1"
  type: "Eltwise"
  bottom: "W_hc_h_0"
  bottom: "W_xc_x_1"
  top: "gate_input_1"
  eltwise_param {
    operation: SUM
  }
}
layer {
  name: "lstm2_unit_1"
  type: "LSTMUnit"
  bottom: "c_0"
  bottom: "gate_input_1"
  bottom: "cont_1"
  top: "c_1"
  top: "h_1"
}
layer {
  name: "lstm2_"
  type: "Split"
  bottom: "c_1"
  top: "c_T"
}
layer {
  name: "lstm2_h_concat"
  type: "Concat"
  bottom: "h_1"
  top: "h"
  concat_param {
    axis: 0
  }
}
layer {
  name: "h_pseudoloss"
  type: "Reduction"
  bottom: "h"
  top: "h_pseudoloss"
  loss_weight: 1
}
I0924 03:24:14.506968 25205 layer_factory.hpp:77] Creating layer lstm2_
I0924 03:24:14.506994 25205 net.cpp:91] Creating Layer lstm2_
I0924 03:24:14.507009 25205 net.cpp:399] lstm2_ -> x
I0924 03:24:14.507037 25205 net.cpp:399] lstm2_ -> cont
I0924 03:24:14.522202 25199 net.cpp:141] Setting up lstm1_unit_1
I0924 03:24:14.522244 25199 net.cpp:148] Top shape: 1 1 1000 (1000)
I0924 03:24:14.522251 25199 net.cpp:148] Top shape: 1 1 1000 (1000)
I0924 03:24:14.522256 25199 net.cpp:156] Memory required for data: 86016
I0924 03:24:14.522266 25199 layer_factory.hpp:77] Creating layer lstm1_
I0924 03:24:14.522284 25199 net.cpp:91] Creating Layer lstm1_
I0924 03:24:14.522291 25199 net.cpp:425] lstm1_ <- c_1
I0924 03:24:14.522306 25199 net.cpp:399] lstm1_ -> c_T
I0924 03:24:14.522347 25199 net.cpp:141] Setting up lstm1_
I0924 03:24:14.522357 25199 net.cpp:148] Top shape: 1 1 1000 (1000)
I0924 03:24:14.522361 25199 net.cpp:156] Memory required for data: 90016
I0924 03:24:14.522367 25199 layer_factory.hpp:77] Creating layer lstm1_h_concat
I0924 03:24:14.522377 25199 net.cpp:91] Creating Layer lstm1_h_concat
I0924 03:24:14.522382 25199 net.cpp:425] lstm1_h_concat <- h_1
I0924 03:24:14.522389 25199 net.cpp:399] lstm1_h_concat -> h
I0924 03:24:14.522428 25199 net.cpp:141] Setting up lstm1_h_concat
I0924 03:24:14.522438 25199 net.cpp:148] Top shape: 1 1 1000 (1000)
I0924 03:24:14.522441 25199 net.cpp:156] Memory required for data: 94016
I0924 03:24:14.522446 25199 layer_factory.hpp:77] Creating layer h_pseudoloss
I0924 03:24:14.522456 25199 net.cpp:91] Creating Layer h_pseudoloss
I0924 03:24:14.522460 25199 net.cpp:425] h_pseudoloss <- h
I0924 03:24:14.522469 25199 net.cpp:399] h_pseudoloss -> h_pseudoloss
I0924 03:24:14.522557 25199 net.cpp:141] Setting up h_pseudoloss
…
I0924 03:24:14.522701 25199 net.cpp:219] lstm1_ does not need backward computation.
I0924 03:24:14.522708 25199 net.cpp:261] This network produces output c_T
I0924 03:24:14.522716 25199 net.cpp:261] This network produces output h_pseudoloss
I0924 03:24:14.522739 25199 net.cpp:274] Network initialization done.
I0924 03:24:14.522804 25199 recurrent_layer.cpp:150] Adding parameter 0: W_xc
I0924 03:24:14.522814 25199 recurrent_layer.cpp:150] Adding parameter 1: b_c
I0924 03:24:14.522819 25199 recurrent_layer.cpp:150] Adding parameter 2: W_hc
I0924 03:24:14.522959 25199 net.cpp:141] Setting up lstm1
I0924 03:24:14.522974 25199 net.cpp:148] Top shape: 1 1 1000 (1000)
I0924 03:24:14.522981 25199 net.cpp:156] Memory required for data: 26408
I0924 03:24:14.523002 25199 layer_factory.hpp:77] Creating layer concat
I0924 03:24:14.523017 25199 net.cpp:91] Creating Layer concat
I0924 03:24:14.523026 25199 net.cpp:425] concat <- lstm1
I0924 03:24:14.523036 25199 net.cpp:425] concat <- embedded_input_sentence
I0924 03:24:14.523044 25199 net.cpp:425] concat <- reshaped_stage_indicator
I0924 03:24:14.523053 25199 net.cpp:399] concat -> lstm1_video_sequence
I0924 03:24:14.523098 25199 net.cpp:141] Setting up concat
I0924 03:24:14.523111 25199 net.cpp:148] Top shape: 1 1 1501 (1501)
I0924 03:24:14.523118 25199 net.cpp:156] Memory required for data: 32412
I0924 03:24:14.523126 25199 layer_factory.hpp:77] Creating layer lstm2
I0924 03:24:14.523144 25199 net.cpp:91] Creating Layer lstm2
I0924 03:24:14.523151 25199 net.cpp:425] lstm2 <- lstm1_video_sequence
I0924 03:24:14.523160 25199 net.cpp:425] lstm2 <- cont_sentence_input_1_split_1
I0924 03:24:14.523170 25199 net.cpp:399] lstm2 -> lstm2
I0924 03:24:14.523185 25199 recurrent_layer.cpp:20] Initializing recurrent layer: assuming input batch contains 1 timesteps of 1 independent streams.
I0924 03:24:14.523555 25199 net.cpp:49] Initializing net from parameters: 
layer {
  name: "lstm2_"
  type: "Input"
  top: "x"
  top: "cont"
  input_param {
    shape {
      dim: 1
      dim: 1
      dim: 1501
    }
    shape {
      dim: 1
      dim: 1
    }
  }
}
layer {
  name: "lstm2_"
  type: "Input"
  top: "c_0"
  top: "h_0"
  input_param {
    shape {
      dim: 1
      dim: 1
      dim: 1000
    }
    shape {
      dim: 1
      dim: 1
      dim: 1000
    }
  }
}
layer {
  name: "lstm2_cont_slice"
  type: "Slice"
  bottom: "cont"
  top: "cont_1"
  slice_param {
    axis: 0
  }
}
layer {
  name: "lstm2_x_transform"
  type: "InnerProduct"
  bottom: "x"
  top: "W_xc_x"
  param {
    name: "W_xc"
  }
  param {
    name: "b_c"
  }
  propagate_down: true
  inner_product_param {
    num_output: 4000
    bias_term: true
    weight_filler {
      type: "uniform"
      min: -0.08
      max: 0.08
    }
    bias_filler {
      type: "constant"
      value: 0
    }
    axis: 2
  }
}
layer {
  name: "lstm2_W_xc_x_slice"
  type: "Slice"
  bottom: "W_xc_x"
  top: "W_xc_x_1"
  slice_param {
    axis: 0
  }
}
layer {
  name: "lstm2_h_conted_0"
  type: "Scale"
  bottom: "h_0"
  bottom: "cont_1"
  top: "h_conted_0"
  scale_param {
    axis: 0
  }
}
layer {
  name: "lstm2_transform_1"
  type: "InnerProduct"
  bottom: "h_conted_0"
  top: "W_hc_h_0"
  param {
    name: "W_hc"
  }
  inner_product_param {
    num_output: 4000
    bias_term: false
    weight_filler {
      type: "uniform"
      min: -0.08
      max: 0.08
    }
    axis: 2
  }
}
layer {
  name: "lstm2_gate_input_1"
  type: "Eltwise"
  bottom: "W_hc_h_0"
  bottom: "W_xc_x_1"
  top: "gate_input_1"
  eltwise_param {
    operation: SUM
  }
}
layer {
  name: "lstm2_unit_1"
  type: "LSTMUnit"
  bottom: "c_0"
  bottom: "gate_input_1"
  bottom: "cont_1"
  top: "c_1"
  top: "h_1"
}
layer {
  name: "lstm2_"
  type: "Split"
  bottom: "c_1"
  top: "c_T"
}
layer {
  name: "lstm2_h_concat"
  type: "Concat"
  bottom: "h_1"
  top: "h"
  concat_param {
    axis: 0
  }
}
layer {
  name: "h_pseudoloss"
  type: "Reduction"
  bottom: "h"
  top: "h_pseudoloss"
  loss_weight: 1
}
I0924 03:24:14.523679 25199 layer_factory.hpp:77] Creating layer lstm2_
I0924 03:24:14.523697 25199 net.cpp:91] Creating Layer lstm2_
I0924 03:24:14.523707 25199 net.cpp:399] lstm2_ -> x
I0924 03:24:14.523722 25199 net.cpp:399] lstm2_ -> cont
I0924 03:24:14.523800 25199 net.cpp:141] Setting up lstm2_
I0924 03:24:14.523816 25199 net.cpp:148] Top shape: 1 1 1501 (1501)
I0924 03:24:14.523826 25199 net.cpp:148] Top shape: 1 1 (1)
I0924 03:24:14.523833 25199 net.cpp:156] Memory required for data: 6008
I0924 03:24:14.523841 25199 layer_factory.hpp:77] Creating layer lstm2_
I0924 03:24:14.523864 25199 net.cpp:91] Creating Layer lstm2_
I0924 03:24:14.523876 25199 net.cpp:399] lstm2_ -> c_0
I0924 03:24:14.523893 25199 net.cpp:399] lstm2_ -> h_0
I0924 03:24:14.523998 25199 net.cpp:141] Setting up lstm2_
I0924 03:24:14.524015 25199 net.cpp:148] Top shape: 1 1 1000 (1000)
I0924 03:24:14.524026 25199 net.cpp:148] Top shape: 1 1 1000 (1000)
I0924 03:24:14.524035 25199 net.cpp:156] Memory required for data: 14008
I0924 03:24:14.524045 25199 layer_factory.hpp:77] Creating layer lstm2_cont_slice
I0924 03:24:14.524063 25199 net.cpp:91] Creating Layer lstm2_cont_slice
I0924 03:24:14.524075 25199 net.cpp:425] lstm2_cont_slice <- cont
I0924 03:24:14.524090 25199 net.cpp:399] lstm2_cont_slice -> cont_1
I0924 03:24:14.524164 25199 net.cpp:141] Setting up lstm2_cont_slice
I0924 03:24:14.524183 25199 net.cpp:148] Top shape: 1 1 (1)
I0924 03:24:14.524193 25199 net.cpp:156] Memory required for data: 14012
I0924 03:24:14.524202 25199 layer_factory.hpp:77] Creating layer cont_1_lstm2_cont_slice_0_split
I0924 03:24:14.524217 25199 net.cpp:91] Creating Layer cont_1_lstm2_cont_slice_0_split
I0924 03:24:14.524227 25199 net.cpp:425] cont_1_lstm2_cont_slice_0_split <- cont_1
I0924 03:24:14.524245 25199 net.cpp:399] cont_1_lstm2_cont_slice_0_split -> cont_1_lstm2_cont_slice_0_split_0
I0924 03:24:14.524261 25199 net.cpp:399] cont_1_lstm2_cont_slice_0_split -> cont_1_lstm2_cont_slice_0_split_1
I0924 03:24:14.524350 25199 net.cpp:141] Setting up cont_1_lstm2_cont_slice_0_split
I0924 03:24:14.524369 25199 net.cpp:148] Top shape: 1 1 (1)
I0924 03:24:14.524379 25199 net.cpp:148] Top shape: 1 1 (1)
I0924 03:24:14.524389 25199 net.cpp:156] Memory required for data: 14020
I0924 03:24:14.524399 25199 layer_factory.hpp:77] Creating layer lstm2_x_transform
I0924 03:24:14.524421 25199 net.cpp:91] Creating Layer lstm2_x_transform
I0924 03:24:14.524431 25199 net.cpp:425] lstm2_x_transform <- x
I0924 03:24:14.524451 25199 net.cpp:399] lstm2_x_transform -> W_xc_x
I0924 03:24:14.539841 25171 net.cpp:141] Setting up embedding
I0924 03:24:14.539871 25205 net.cpp:141] Setting up lstm2_
I0924 03:24:14.539897 25171 net.cpp:148] Top shape: 1 1 500 (500)
I0924 03:24:14.539897 25205 net.cpp:148] Top shape: 1 1 1501 (1501)
I0924 03:24:14.539912 25171 net.cpp:156] Memory required for data: 22408
I0924 03:24:14.539922 25205 net.cpp:148] Top shape: 1 1 (1)
I0924 03:24:14.539927 25205 net.cpp:156] Memory required for data: 6008
I0924 03:24:14.539937 25205 layer_factory.hpp:77] Creating layer lstm2_
I0924 03:24:14.539938 25171 layer_factory.hpp:77] Creating layer lstm1
I0924 03:24:14.539960 25205 net.cpp:91] Creating Layer lstm2_
I0924 03:24:14.539963 25171 net.cpp:91] Creating Layer lstm1
I0924 03:24:14.539976 25205 net.cpp:399] lstm2_ -> c_0
I0924 03:24:14.539985 25171 net.cpp:425] lstm1 <- embedded_input_frames
I0924 03:24:14.539995 25205 net.cpp:399] lstm2_ -> h_0
I0924 03:24:14.539999 25171 net.cpp:425] lstm1 <- cont_sentence_input_1_split_0
I0924 03:24:14.540012 25171 net.cpp:399] lstm1 -> lstm1
I0924 03:24:14.540030 25171 recurrent_layer.cpp:20] Initializing recurrent layer: assuming input batch contains 1 timesteps of 1 independent streams.
I0924 03:24:14.540462 25171 net.cpp:49] Initializing net from parameters: 
layer {
  name: "lstm1_"
  type: "Input"
  top: "x"
  top: "cont"
  input_param {
    shape {
      dim: 1
      dim: 1
      dim: 500
    }
    shape {
      dim: 1
      dim: 1
    }
  }
}
layer {
  name: "lstm1_"
  type: "Input"
  top: "c_0"
  top: "h_0"
  input_param {
    shape {
      dim: 1
      dim: 1
      dim: 1000
    }
    shape {
      dim: 1
      dim: 1
      dim: 1000
    }
  }
}
layer {
  name: "lstm1_cont_slice"
  type: "Slice"
  bottom: "cont"
  top: "cont_1"
  slice_param {
    axis: 0
  }
}
layer {
  name: "lstm1_x_transform"
  type: "InnerProduct"
  bottom: "x"
  top: "W_xc_x"
  param {
    name: "W_xc"
  }
  param {
    name: "b_c"
  }
  propagate_down: true
  inner_product_param {
    num_output: 4000
    bias_term: true
    weight_filler {
      type: "uniform"
      min: -0.08
      max: 0.08
    }
    bias_filler {
      type: "constant"
      value: 0
    }
    axis: 2
  }
}
layer {
  name: "lstm1_W_xc_x_slice"
  type: "Slice"
  bottom: "W_xc_x"
  top: "W_xc_x_1"
  slice_param {
    axis: 0
  }
}
layer {
  name: "lstm1_h_conted_0"
  type: "Scale"
  bottom: "h_0"
  bottom: "cont_1"
  top: "h_conted_0"
  scale_param {
    axis: 0
  }
}
layer {
  name: "lstm1_transform_1"
  type: "InnerProduct"
  bottom: "h_conted_0"
  top: "W_hc_h_0"
  param {
    name: "W_hc"
  }
  inner_product_param {
    num_output: 4000
    bias_term: false
    weight_filler {
      type: "uniform"
      min: -0.08
      max: 0.08
    }
    axis: 2
  }
}
layer {
  name: "lstm1_gate_input_1"
  type: "Eltwise"
  bottom: "W_hc_h_0"
  bottom: "W_xc_x_1"
  top: "gate_input_1"
  eltwise_param {
    operation: SUM
  }
}
layer {
  name: "lstm1_unit_1"
  type: "LSTMUnit"
  bottom: "c_0"
  bottom: "gate_input_1"
  bottom: "cont_1"
  top: "c_1"
  top: "h_1"
}
layer {
  name: "lstm1_"
  type: "Split"
  bottom: "c_1"
  top: "c_T"
}
layer {
  name: "lstm1_h_concat"
  type: "Concat"
  bottom: "h_1"
  top: "h"
  concat_param {
    axis: 0
  }
}
layer {
  name: "h_pseudoloss"
  type: "Reduction"
  bottom: "h"
  top: "h_pseudoloss"
  loss_weight: 1
}
I0924 03:24:14.540597 25171 layer_factory.hpp:77] Creating layer lstm1_
I0924 03:24:14.540613 25171 net.cpp:91] Creating Layer lstm1_
I0924 03:24:14.540623 25171 net.cpp:399] lstm1_ -> x
I0924 03:24:14.540639 25171 net.cpp:399] lstm1_ -> cont
I0924 03:24:14.542017 25171 net.cpp:141] Setting up lstm1_
I0924 03:24:14.542042 25205 net.cpp:141] Setting up lstm2_
I0924 03:24:14.542052 25171 net.cpp:148] Top shape: 1 1 500 (500)
I0924 03:24:14.542078 25205 net.cpp:148] Top shape: 1 1 1000 (1000)
I0924 03:24:14.542078 25171 net.cpp:148] Top shape: 1 1 (1)
I0924 03:24:14.542099 25171 net.cpp:156] Memory required for data: 2004
I0924 03:24:14.542101 25205 net.cpp:148] Top shape: 1 1 1000 (1000)
I0924 03:24:14.542109 25171 layer_factory.hpp:77] Creating layer lstm1_
I0924 03:24:14.542110 25205 net.cpp:156] Memory required for data: 14008
I0924 03:24:14.542132 25205 layer_factory.hpp:77] Creating layer lstm2_cont_slice
I0924 03:24:14.542145 25171 net.cpp:91] Creating Layer lstm1_
I0924 03:24:14.542158 25205 net.cpp:91] Creating Layer lstm2_cont_slice
I0924 03:24:14.542160 25171 net.cpp:399] lstm1_ -> c_0
I0924 03:24:14.542181 25205 net.cpp:425] lstm2_cont_slice <- cont
I0924 03:24:14.542196 25171 net.cpp:399] lstm1_ -> h_0
I0924 03:24:14.542196 25205 net.cpp:399] lstm2_cont_slice -> cont_1
I0924 03:24:14.542197 25167 net.cpp:141] Setting up lstm1_x_transform
I0924 03:24:14.542223 25167 net.cpp:148] Top shape: 1 1 4000 (4000)
I0924 03:24:14.542232 25167 net.cpp:156] Memory required for data: 26016
I0924 03:24:14.542253 25167 layer_factory.hpp:77] Creating layer lstm1_W_xc_x_slice
I0924 03:24:14.542265 25167 net.cpp:91] Creating Layer lstm1_W_xc_x_slice
I0924 03:24:14.542273 25167 net.cpp:425] lstm1_W_xc_x_slice <- W_xc_x
I0924 03:24:14.542279 25171 net.cpp:141] Setting up lstm1_
I0924 03:24:14.542294 25171 net.cpp:148] Top shape: 1 1 1000 (1000)
I0924 03:24:14.542292 25167 net.cpp:399] lstm1_W_xc_x_slice -> W_xc_x_1
I0924 03:24:14.542306 25171 net.cpp:148] Top shape: 1 1 1000 (1000)
I0924 03:24:14.542313 25171 net.cpp:156] Memory required for data: 10004
I0924 03:24:14.542320 25171 layer_factory.hpp:77] Creating layer lstm1_cont_slice
I0924 03:24:14.542335 25171 net.cpp:91] Creating Layer lstm1_cont_slice
I0924 03:24:14.542342 25171 net.cpp:425] lstm1_cont_slice <- cont
I0924 03:24:14.542352 25171 net.cpp:399] lstm1_cont_slice -> cont_1
I0924 03:24:14.542362 25167 net.cpp:141] Setting up lstm1_W_xc_x_slice
I0924 03:24:14.542379 25167 net.cpp:148] Top shape: 1 1 4000 (4000)
I0924 03:24:14.542387 25167 net.cpp:156] Memory required for data: 42016
I0924 03:24:14.542394 25167 layer_factory.hpp:77] Creating layer lstm1_h_conted_0
I0924 03:24:14.542410 25167 net.cpp:91] Creating Layer lstm1_h_conted_0
I0924 03:24:14.542419 25167 net.cpp:425] lstm1_h_conted_0 <- h_0
I0924 03:24:14.542429 25167 net.cpp:425] lstm1_h_conted_0 <- cont_1_lstm1_cont_slice_0_split_0
I0924 03:24:14.542448 25167 net.cpp:399] lstm1_h_conted_0 -> h_conted_0
I0924 03:24:14.542716 25205 net.cpp:141] Setting up lstm2_cont_slice
I0924 03:24:14.542732 25205 net.cpp:148] Top shape: 1 1 (1)
I0924 03:24:14.542737 25205 net.cpp:156] Memory required for data: 14012
I0924 03:24:14.542742 25205 layer_factory.hpp:77] Creating layer cont_1_lstm2_cont_slice_0_split
I0924 03:24:14.542752 25205 net.cpp:91] Creating Layer cont_1_lstm2_cont_slice_0_split
I0924 03:24:14.542760 25171 net.cpp:141] Setting up lstm1_cont_slice
I0924 03:24:14.542760 25205 net.cpp:425] cont_1_lstm2_cont_slice_0_split <- cont_1
I0924 03:24:14.542780 25171 net.cpp:148] Top shape: 1 1 (1)
I0924 03:24:14.542788 25171 net.cpp:156] Memory required for data: 10008
I0924 03:24:14.542795 25171 layer_factory.hpp:77] Creating layer cont_1_lstm1_cont_slice_0_split
I0924 03:24:14.542794 25205 net.cpp:399] cont_1_lstm2_cont_slice_0_split -> cont_1_lstm2_cont_slice_0_split_0
I0924 03:24:14.542809 25171 net.cpp:91] Creating Layer cont_1_lstm1_cont_slice_0_split
I0924 03:24:14.542817 25171 net.cpp:425] cont_1_lstm1_cont_slice_0_split <- cont_1
I0924 03:24:14.542821 25205 net.cpp:399] cont_1_lstm2_cont_slice_0_split -> cont_1_lstm2_cont_slice_0_split_1
I0924 03:24:14.542834 25171 net.cpp:399] cont_1_lstm1_cont_slice_0_split -> cont_1_lstm1_cont_slice_0_split_0
I0924 03:24:14.542846 25171 net.cpp:399] cont_1_lstm1_cont_slice_0_split -> cont_1_lstm1_cont_slice_0_split_1
I0924 03:24:14.548094 25205 net.cpp:141] Setting up cont_1_lstm2_cont_slice_0_split
I0924 03:24:14.548125 25205 net.cpp:148] Top shape: 1 1 (1)
I0924 03:24:14.548131 25205 net.cpp:148] Top shape: 1 1 (1)
I0924 03:24:14.548135 25205 net.cpp:156] Memory required for data: 14020
I0924 03:24:14.548141 25205 layer_factory.hpp:77] Creating layer lstm2_x_transform
I0924 03:24:14.548166 25205 net.cpp:91] Creating Layer lstm2_x_transform
I0924 03:24:14.548172 25205 net.cpp:425] lstm2_x_transform <- x
I0924 03:24:14.548187 25205 net.cpp:399] lstm2_x_transform -> W_xc_x
I0924 03:24:14.548213 25171 net.cpp:141] Setting up cont_1_lstm1_cont_slice_0_split
I0924 03:24:14.548230 25171 net.cpp:148] Top shape: 1 1 (1)
I0924 03:24:14.548239 25171 net.cpp:148] Top shape: 1 1 (1)
I0924 03:24:14.548246 25171 net.cpp:156] Memory required for data: 10016
I0924 03:24:14.548254 25171 layer_factory.hpp:77] Creating layer lstm1_x_transform
I0924 03:24:14.548269 25171 net.cpp:91] Creating Layer lstm1_x_transform
I0924 03:24:14.548276 25171 net.cpp:425] lstm1_x_transform <- x
I0924 03:24:14.548303 25171 net.cpp:399] lstm1_x_transform -> W_xc_x
I0924 03:24:14.576717 25179 net.cpp:141] Setting up lstm2_x_transform
I0924 03:24:14.576771 25179 net.cpp:148] Top shape: 1 1 4000 (4000)
I0924 03:24:14.576778 25179 net.cpp:156] Memory required for data: 30020
I0924 03:24:14.576807 25179 layer_factory.hpp:77] Creating layer lstm2_W_xc_x_slice
I0924 03:24:14.576828 25179 net.cpp:91] Creating Layer lstm2_W_xc_x_slice
I0924 03:24:14.576838 25179 net.cpp:425] lstm2_W_xc_x_slice <- W_xc_x
I0924 03:24:14.576856 25179 net.cpp:399] lstm2_W_xc_x_slice -> W_xc_x_1
I0924 03:24:14.576915 25179 net.cpp:141] Setting up lstm2_W_xc_x_slice
I0924 03:24:14.576930 25179 net.cpp:148] Top shape: 1 1 4000 (4000)
I0924 03:24:14.576936 25179 net.cpp:156] Memory required for data: 46020
I0924 03:24:14.576944 25179 layer_factory.hpp:77] Creating layer lstm2_h_conted_0
I0924 03:24:14.576958 25179 net.cpp:91] Creating Layer lstm2_h_conted_0
I0924 03:24:14.576967 25179 net.cpp:425] lstm2_h_conted_0 <- h_0
I0924 03:24:14.576974 25179 net.cpp:425] lstm2_h_conted_0 <- cont_1_lstm2_cont_slice_0_split_0
I0924 03:24:14.576989 25179 net.cpp:399] lstm2_h_conted_0 -> h_conted_0
I0924 03:24:14.577117 25179 net.cpp:141] Setting up lstm2_h_conted_0
I0924 03:24:14.577131 25179 net.cpp:148] Top shape: 1 1 1000 (1000)
I0924 03:24:14.577138 25179 net.cpp:156] Memory required for data: 50020
I0924 03:24:14.577145 25179 layer_factory.hpp:77] Creating layer lstm2_transform_1
I0924 03:24:14.577165 25179 net.cpp:91] Creating Layer lstm2_transform_1
I0924 03:24:14.577172 25179 net.cpp:425] lstm2_transform_1 <- h_conted_0
I0924 03:24:14.577184 25179 net.cpp:399] lstm2_transform_1 -> W_hc_h_0
I0924 03:24:14.586987 25161 net.cpp:141] Setting up lstm1_transform_1
I0924 03:24:14.587043 25161 net.cpp:148] Top shape: 1 1 4000 (4000)
I0924 03:24:14.587051 25161 net.cpp:156] Memory required for data: 62016
I0924 03:24:14.587080 25161 layer_factory.hpp:77] Creating layer lstm1_gate_input_1
I0924 03:24:14.587107 25161 net.cpp:91] Creating Layer lstm1_gate_input_1
I0924 03:24:14.587118 25161 net.cpp:425] lstm1_gate_input_1 <- W_hc_h_0
I0924 03:24:14.587131 25161 net.cpp:425] lstm1_gate_input_1 <- W_xc_x_1
I0924 03:24:14.587144 25161 net.cpp:399] lstm1_gate_input_1 -> gate_input_1
I0924 03:24:14.587215 25161 net.cpp:141] Setting up lstm1_gate_input_1
I0924 03:24:14.587229 25161 net.cpp:148] Top shape: 1 1 4000 (4000)
I0924 03:24:14.587235 25161 net.cpp:156] Memory required for data: 78016
I0924 03:24:14.587242 25161 layer_factory.hpp:77] Creating layer lstm1_unit_1
I0924 03:24:14.587258 25161 net.cpp:91] Creating Layer lstm1_unit_1
I0924 03:24:14.587265 25161 net.cpp:425] lstm1_unit_1 <- c_0
I0924 03:24:14.587275 25161 net.cpp:425] lstm1_unit_1 <- gate_input_1
I0924 03:24:14.587282 25161 net.cpp:425] lstm1_unit_1 <- cont_1_lstm1_cont_slice_0_split_1
I0924 03:24:14.587291 25161 net.cpp:399] lstm1_unit_1 -> c_1
I0924 03:24:14.587304 25161 net.cpp:399] lstm1_unit_1 -> h_1
I0924 03:24:14.587390 25161 net.cpp:141] Setting up lstm1_unit_1
I0924 03:24:14.587404 25161 net.cpp:148] Top shape: 1 1 1000 (1000)
I0924 03:24:14.587412 25161 net.cpp:148] Top shape: 1 1 1000 (1000)
I0924 03:24:14.587419 25161 net.cpp:156] Memory required for data: 86016
I0924 03:24:14.587426 25161 layer_factory.hpp:77] Creating layer lstm1_
I0924 03:24:14.587437 25161 net.cpp:91] Creating Layer lstm1_
I0924 03:24:14.587445 25161 net.cpp:425] lstm1_ <- c_1
I0924 03:24:14.587457 25161 net.cpp:399] lstm1_ -> c_T
I0924 03:24:14.587498 25161 net.cpp:141] Setting up lstm1_
I0924 03:24:14.587510 25161 net.cpp:148] Top shape: 1 1 1000 (1000)
I0924 03:24:14.587517 25161 net.cpp:156] Memory required for data: 90016
I0924 03:24:14.587523 25161 layer_factory.hpp:77] Creating layer lstm1_h_concat
I0924 03:24:14.587538 25161 net.cpp:91] Creating Layer lstm1_h_concat
I0924 03:24:14.587544 25161 net.cpp:425] lstm1_h_concat <- h_1
I0924 03:24:14.587554 25161 net.cpp:399] lstm1_h_concat -> h
I0924 03:24:14.587602 25161 net.cpp:141] Setting up lstm1_h_concat
I0924 03:24:14.587615 25161 net.cpp:148] Top shape: 1 1 1000 (1000)
I0924 03:24:14.587621 25161 net.cpp:156] Memory required for data: 94016
I0924 03:24:14.587628 25161 layer_factory.hpp:77] Creating layer h_pseudoloss
I0924 03:24:14.587641 25161 net.cpp:91] Creating Layer h_pseudoloss
I0924 03:24:14.587647 25161 net.cpp:425] h_pseudoloss <- h
I0924 03:24:14.587657 25161 net.cpp:399] h_pseudoloss -> h_pseudoloss
I0924 03:24:14.587769 25161 net.cpp:141] Setting up h_pseudoloss
…
I0924 03:24:14.587954 25161 net.cpp:219] lstm1_ does not need backward computation.
I0924 03:24:14.587960 25161 net.cpp:261] This network produces output c_T
I0924 03:24:14.587966 25161 net.cpp:261] This network produces output h_pseudoloss
I0924 03:24:14.587990 25161 net.cpp:274] Network initialization done.
I0924 03:24:14.588050 25161 recurrent_layer.cpp:150] Adding parameter 0: W_xc
I0924 03:24:14.588059 25161 recurrent_layer.cpp:150] Adding parameter 1: b_c
I0924 03:24:14.588066 25161 recurrent_layer.cpp:150] Adding parameter 2: W_hc
I0924 03:24:14.588202 25161 net.cpp:141] Setting up lstm1
I0924 03:24:14.588217 25161 net.cpp:148] Top shape: 1 1 1000 (1000)
I0924 03:24:14.588223 25161 net.cpp:156] Memory required for data: 26408
I0924 03:24:14.588243 25161 layer_factory.hpp:77] Creating layer concat
I0924 03:24:14.588270 25161 net.cpp:91] Creating Layer concat
I0924 03:24:14.588280 25161 net.cpp:425] concat <- lstm1
I0924 03:24:14.588290 25161 net.cpp:425] concat <- embedded_input_sentence
I0924 03:24:14.588299 25161 net.cpp:425] concat <- reshaped_stage_indicator
I0924 03:24:14.588310 25161 net.cpp:399] concat -> lstm1_video_sequence
I0924 03:24:14.588354 25161 net.cpp:141] Setting up concat
I0924 03:24:14.588366 25161 net.cpp:148] Top shape: 1 1 1501 (1501)
I0924 03:24:14.588372 25161 net.cpp:156] Memory required for data: 32412
I0924 03:24:14.588379 25161 layer_factory.hpp:77] Creating layer lstm2
I0924 03:24:14.588397 25161 net.cpp:91] Creating Layer lstm2
I0924 03:24:14.588404 25161 net.cpp:425] lstm2 <- lstm1_video_sequence
I0924 03:24:14.588413 25161 net.cpp:425] lstm2 <- cont_sentence_input_1_split_1
I0924 03:24:14.588424 25161 net.cpp:399] lstm2 -> lstm2
I0924 03:24:14.588439 25161 recurrent_layer.cpp:20] Initializing recurrent layer: assuming input batch contains 1 timesteps of 1 independent streams.
I0924 03:24:14.588798 25161 net.cpp:49] Initializing net from parameters: 
layer {
  name: "lstm2_"
  type: "Input"
  top: "x"
  top: "cont"
  input_param {
    shape {
      dim: 1
      dim: 1
      dim: 1501
    }
    shape {
      dim: 1
      dim: 1
    }
  }
}
layer {
  name: "lstm2_"
  type: "Input"
  top: "c_0"
  top: "h_0"
  input_param {
    shape {
      dim: 1
      dim: 1
      dim: 1000
    }
    shape {
      dim: 1
      dim: 1
      dim: 1000
    }
  }
}
layer {
  name: "lstm2_cont_slice"
  type: "Slice"
  bottom: "cont"
  top: "cont_1"
  slice_param {
    axis: 0
  }
}
layer {
  name: "lstm2_x_transform"
  type: "InnerProduct"
  bottom: "x"
  top: "W_xc_x"
  param {
    name: "W_xc"
  }
  param {
    name: "b_c"
  }
  propagate_down: true
  inner_product_param {
    num_output: 4000
    bias_term: true
    weight_filler {
      type: "uniform"
      min: -0.08
      max: 0.08
    }
    bias_filler {
      type: "constant"
      value: 0
    }
    axis: 2
  }
}
layer {
  name: "lstm2_W_xc_x_slice"
  type: "Slice"
  bottom: "W_xc_x"
  top: "W_xc_x_1"
  slice_param {
    axis: 0
  }
}
layer {
  name: "lstm2_h_conted_0"
  type: "Scale"
  bottom: "h_0"
  bottom: "cont_1"
  top: "h_conted_0"
  scale_param {
    axis: 0
  }
}
layer {
  name: "lstm2_transform_1"
  type: "InnerProduct"
  bottom: "h_conted_0"
  top: "W_hc_h_0"
  param {
    name: "W_hc"
  }
  inner_product_param {
    num_output: 4000
    bias_term: false
    weight_filler {
      type: "uniform"
      min: -0.08
      max: 0.08
    }
    axis: 2
  }
}
layer {
  name: "lstm2_gate_input_1"
  type: "Eltwise"
  bottom: "W_hc_h_0"
  bottom: "W_xc_x_1"
  top: "gate_input_1"
  eltwise_param {
    operation: SUM
  }
}
layer {
  name: "lstm2_unit_1"
  type: "LSTMUnit"
  bottom: "c_0"
  bottom: "gate_input_1"
  bottom: "cont_1"
  top: "c_1"
  top: "h_1"
}
layer {
  name: "lstm2_"
  type: "Split"
  bottom: "c_1"
  top: "c_T"
}
layer {
  name: "lstm2_h_concat"
  type: "Concat"
  bottom: "h_1"
  top: "h"
  concat_param {
    axis: 0
  }
}
layer {
  name: "h_pseudoloss"
  type: "Reduction"
  bottom: "h"
  top: "h_pseudoloss"
  loss_weight: 1
}
I0924 03:24:14.588924 25161 layer_factory.hpp:77] Creating layer lstm2_
I0924 03:24:14.588942 25161 net.cpp:91] Creating Layer lstm2_
I0924 03:24:14.588950 25161 net.cpp:399] lstm2_ -> x
I0924 03:24:14.588965 25161 net.cpp:399] lstm2_ -> cont
I0924 03:24:14.589038 25161 net.cpp:141] Setting up lstm2_
I0924 03:24:14.589051 25161 net.cpp:148] Top shape: 1 1 1501 (1501)
I0924 03:24:14.589061 25161 net.cpp:148] Top shape: 1 1 (1)
I0924 03:24:14.589066 25161 net.cpp:156] Memory required for data: 6008
I0924 03:24:14.589074 25161 layer_factory.hpp:77] Creating layer lstm2_
I0924 03:24:14.589089 25161 net.cpp:91] Creating Layer lstm2_
I0924 03:24:14.589098 25161 net.cpp:399] lstm2_ -> c_0
I0924 03:24:14.589112 25161 net.cpp:399] lstm2_ -> h_0
I0924 03:24:14.589182 25161 net.cpp:141] Setting up lstm2_
I0924 03:24:14.589195 25161 net.cpp:148] Top shape: 1 1 1000 (1000)
I0924 03:24:14.589205 25161 net.cpp:148] Top shape: 1 1 1000 (1000)
I0924 03:24:14.589210 25161 net.cpp:156] Memory required for data: 14008
I0924 03:24:14.589216 25161 layer_factory.hpp:77] Creating layer lstm2_cont_slice
I0924 03:24:14.589228 25161 net.cpp:91] Creating Layer lstm2_cont_slice
I0924 03:24:14.589236 25161 net.cpp:425] lstm2_cont_slice <- cont
I0924 03:24:14.589246 25161 net.cpp:399] lstm2_cont_slice -> cont_1
I0924 03:24:14.589288 25161 net.cpp:141] Setting up lstm2_cont_slice
I0924 03:24:14.589300 25161 net.cpp:148] Top shape: 1 1 (1)
I0924 03:24:14.589308 25161 net.cpp:156] Memory required for data: 14012
I0924 03:24:14.589313 25161 layer_factory.hpp:77] Creating layer cont_1_lstm2_cont_slice_0_split
I0924 03:24:14.589328 25161 net.cpp:91] Creating Layer cont_1_lstm2_cont_slice_0_split
I0924 03:24:14.589335 25161 net.cpp:425] cont_1_lstm2_cont_slice_0_split <- cont_1
I0924 03:24:14.589344 25161 net.cpp:399] cont_1_lstm2_cont_slice_0_split -> cont_1_lstm2_cont_slice_0_split_0
I0924 03:24:14.589359 25161 net.cpp:399] cont_1_lstm2_cont_slice_0_split -> cont_1_lstm2_cont_slice_0_split_1
I0924 03:24:14.589421 25161 net.cpp:141] Setting up cont_1_lstm2_cont_slice_0_split
I0924 03:24:14.589432 25161 net.cpp:148] Top shape: 1 1 (1)
I0924 03:24:14.589440 25161 net.cpp:148] Top shape: 1 1 (1)
I0924 03:24:14.589447 25161 net.cpp:156] Memory required for data: 14020
I0924 03:24:14.589453 25161 layer_factory.hpp:77] Creating layer lstm2_x_transform
I0924 03:24:14.589470 25161 net.cpp:91] Creating Layer lstm2_x_transform
I0924 03:24:14.589478 25161 net.cpp:425] lstm2_x_transform <- x
I0924 03:24:14.589491 25161 net.cpp:399] lstm2_x_transform -> W_xc_x
I0924 03:24:14.602712 25171 net.cpp:141] Setting up lstm1_x_transform
I0924 03:24:14.602762 25171 net.cpp:148] Top shape: 1 1 4000 (4000)
I0924 03:24:14.602771 25171 net.cpp:156] Memory required for data: 26016
I0924 03:24:14.602779 25167 net.cpp:141] Setting up lstm1_h_conted_0
I0924 03:24:14.602798 25171 layer_factory.hpp:77] Creating layer lstm1_W_xc_x_slice
I0924 03:24:14.602803 25167 net.cpp:148] Top shape: 1 1 1000 (1000)
I0924 03:24:14.602813 25167 net.cpp:156] Memory required for data: 46016
I0924 03:24:14.602820 25171 net.cpp:91] Creating Layer lstm1_W_xc_x_slice
I0924 03:24:14.602823 25167 layer_factory.hpp:77] Creating layer lstm1_transform_1
I0924 03:24:14.602831 25171 net.cpp:425] lstm1_W_xc_x_slice <- W_xc_x
I0924 03:24:14.602844 25171 net.cpp:399] lstm1_W_xc_x_slice -> W_xc_x_1
I0924 03:24:14.602857 25167 net.cpp:91] Creating Layer lstm1_transform_1
I0924 03:24:14.602871 25167 net.cpp:425] lstm1_transform_1 <- h_conted_0
I0924 03:24:14.602871 25199 net.cpp:141] Setting up lstm2_x_transform
I0924 03:24:14.602887 25199 net.cpp:148] Top shape: 1 1 4000 (4000)
I0924 03:24:14.602887 25167 net.cpp:399] lstm1_transform_1 -> W_hc_h_0
I0924 03:24:14.602901 25199 net.cpp:156] Memory required for data: 30020
I0924 03:24:14.602918 25199 layer_factory.hpp:77] Creating layer lstm2_W_xc_x_slice
I0924 03:24:14.602933 25199 net.cpp:91] Creating Layer lstm2_W_xc_x_slice
I0924 03:24:14.602941 25199 net.cpp:425] lstm2_W_xc_x_slice <- W_xc_x
I0924 03:24:14.602948 25199 net.cpp:399] lstm2_W_xc_x_slice -> W_xc_x_1
I0924 03:24:14.605331 25171 net.cpp:141] Setting up lstm1_W_xc_x_slice
I0924 03:24:14.605379 25171 net.cpp:148] Top shape: 1 1 4000 (4000)
I0924 03:24:14.605387 25171 net.cpp:156] Memory required for data: 42016
I0924 03:24:14.605399 25171 layer_factory.hpp:77] Creating layer lstm1_h_conted_0
I0924 03:24:14.605422 25171 net.cpp:91] Creating Layer lstm1_h_conted_0
I0924 03:24:14.605433 25171 net.cpp:425] lstm1_h_conted_0 <- h_0
I0924 03:24:14.605445 25171 net.cpp:425] lstm1_h_conted_0 <- cont_1_lstm1_cont_slice_0_split_0
I0924 03:24:14.605458 25171 net.cpp:399] lstm1_h_conted_0 -> h_conted_0
I0924 03:24:14.615931 25199 net.cpp:141] Setting up lstm2_W_xc_x_slice
I0924 03:24:14.615991 25199 net.cpp:148] Top shape: 1 1 4000 (4000)
I0924 03:24:14.616003 25199 net.cpp:156] Memory required for data: 46020
I0924 03:24:14.616017 25199 layer_factory.hpp:77] Creating layer lstm2_h_conted_0
I0924 03:24:14.616044 25199 net.cpp:91] Creating Layer lstm2_h_conted_0
I0924 03:24:14.616058 25199 net.cpp:425] lstm2_h_conted_0 <- h_0
I0924 03:24:14.616075 25199 net.cpp:425] lstm2_h_conted_0 <- cont_1_lstm2_cont_slice_0_split_0
I0924 03:24:14.616091 25199 net.cpp:399] lstm2_h_conted_0 -> h_conted_0
I0924 03:24:14.620492 25171 net.cpp:141] Setting up lstm1_h_conted_0
I0924 03:24:14.620537 25171 net.cpp:148] Top shape: 1 1 1000 (1000)
I0924 03:24:14.620544 25171 net.cpp:156] Memory required for data: 46016
I0924 03:24:14.620553 25171 layer_factory.hpp:77] Creating layer lstm1_transform_1
I0924 03:24:14.620568 25205 net.cpp:141] Setting up lstm2_x_transform
I0924 03:24:14.620579 25171 net.cpp:91] Creating Layer lstm1_transform_1
I0924 03:24:14.620596 25205 net.cpp:148] Top shape: 1 1 4000 (4000)
I0924 03:24:14.620599 25171 net.cpp:425] lstm1_transform_1 <- h_conted_0
I0924 03:24:14.620604 25205 net.cpp:156] Memory required for data: 30020
I0924 03:24:14.620622 25205 layer_factory.hpp:77] Creating layer lstm2_W_xc_x_slice
I0924 03:24:14.620627 25171 net.cpp:399] lstm1_transform_1 -> W_hc_h_0
I0924 03:24:14.620636 25205 net.cpp:91] Creating Layer lstm2_W_xc_x_slice
I0924 03:24:14.620643 25205 net.cpp:425] lstm2_W_xc_x_slice <- W_xc_x
I0924 03:24:14.620651 25205 net.cpp:399] lstm2_W_xc_x_slice -> W_xc_x_1
I0924 03:24:14.620721 25165 net.cpp:141] Setting up embedding
I0924 03:24:14.620749 25165 net.cpp:148] Top shape: 1 1 500 (500)
I0924 03:24:14.620759 25165 net.cpp:156] Memory required for data: 22408
I0924 03:24:14.620784 25165 layer_factory.hpp:77] Creating layer lstm1
I0924 03:24:14.620801 25165 net.cpp:91] Creating Layer lstm1
I0924 03:24:14.620815 25165 net.cpp:425] lstm1 <- embedded_input_frames
I0924 03:24:14.620826 25165 net.cpp:425] lstm1 <- cont_sentence_input_1_split_0
I0924 03:24:14.620842 25165 net.cpp:399] lstm1 -> lstm1
I0924 03:24:14.620862 25165 recurrent_layer.cpp:20] Initializing recurrent layer: assuming input batch contains 1 timesteps of 1 independent streams.
I0924 03:24:14.620882 25205 net.cpp:141] Setting up lstm2_W_xc_x_slice
I0924 03:24:14.620899 25205 net.cpp:148] Top shape: 1 1 4000 (4000)
I0924 03:24:14.620905 25205 net.cpp:156] Memory required for data: 46020
I0924 03:24:14.620911 25205 layer_factory.hpp:77] Creating layer lstm2_h_conted_0
I0924 03:24:14.620924 25205 net.cpp:91] Creating Layer lstm2_h_conted_0
I0924 03:24:14.620930 25205 net.cpp:425] lstm2_h_conted_0 <- h_0
I0924 03:24:14.620936 25205 net.cpp:425] lstm2_h_conted_0 <- cont_1_lstm2_cont_slice_0_split_0
I0924 03:24:14.620944 25205 net.cpp:399] lstm2_h_conted_0 -> h_conted_0
I0924 03:24:14.621333 25165 net.cpp:49] Initializing net from parameters: 
layer {
  name: "lstm1_"
  type: "Input"
  top: "x"
  top: "cont"
  input_param {
    shape {
      dim: 1
      dim: 1
      dim: 500
    }
    shape {
      dim: 1
      dim: 1
    }
  }
}
layer {
  name: "lstm1_"
  type: "Input"
  top: "c_0"
  top: "h_0"
  input_param {
    shape {
      dim: 1
      dim: 1
      dim: 1000
    }
    shape {
      dim: 1
      dim: 1
      dim: 1000
    }
  }
}
layer {
  name: "lstm1_cont_slice"
  type: "Slice"
  bottom: "cont"
  top: "cont_1"
  slice_param {
    axis: 0
  }
}
layer {
  name: "lstm1_x_transform"
  type: "InnerProduct"
  bottom: "x"
  top: "W_xc_x"
  param {
    name: "W_xc"
  }
  param {
    name: "b_c"
  }
  propagate_down: true
  inner_product_param {
    num_output: 4000
    bias_term: true
    weight_filler {
      type: "uniform"
      min: -0.08
      max: 0.08
    }
    bias_filler {
      type: "constant"
      value: 0
    }
    axis: 2
  }
}
layer {
  name: "lstm1_W_xc_x_slice"
  type: "Slice"
  bottom: "W_xc_x"
  top: "W_xc_x_1"
  slice_param {
    axis: 0
  }
}
layer {
  name: "lstm1_h_conted_0"
  type: "Scale"
  bottom: "h_0"
  bottom: "cont_1"
  top: "h_conted_0"
  scale_param {
    axis: 0
  }
}
layer {
  name: "lstm1_transform_1"
  type: "InnerProduct"
  bottom: "h_conted_0"
  top: "W_hc_h_0"
  param {
    name: "W_hc"
  }
  inner_product_param {
    num_output: 4000
    bias_term: false
    weight_filler {
      type: "uniform"
      min: -0.08
      max: 0.08
    }
    axis: 2
  }
}
layer {
  name: "lstm1_gate_input_1"
  type: "Eltwise"
  bottom: "W_hc_h_0"
  bottom: "W_xc_x_1"
  top: "gate_input_1"
  eltwise_param {
    operation: SUM
  }
}
layer {
  name: "lstm1_unit_1"
  type: "LSTMUnit"
  bottom: "c_0"
  bottom: "gate_input_1"
  bottom: "cont_1"
  top: "c_1"
  top: "h_1"
}
layer {
  name: "lstm1_"
  type: "Split"
  bottom: "c_1"
  top: "c_T"
}
layer {
  name: "lstm1_h_concat"
  type: "Concat"
  bottom: "h_1"
  top: "h"
  concat_param {
    axis: 0
  }
}
layer {
  name: "h_pseudoloss"
  type: "Reduction"
  bottom: "h"
  top: "h_pseudoloss"
  loss_weight: 1
}
I0924 03:24:14.621493 25165 layer_factory.hpp:77] Creating layer lstm1_
I0924 03:24:14.621516 25165 net.cpp:91] Creating Layer lstm1_
I0924 03:24:14.621531 25165 net.cpp:399] lstm1_ -> x
I0924 03:24:14.621551 25165 net.cpp:399] lstm1_ -> cont
I0924 03:24:14.629513 25199 net.cpp:141] Setting up lstm2_h_conted_0
I0924 03:24:14.629565 25199 net.cpp:148] Top shape: 1 1 1000 (1000)
I0924 03:24:14.629575 25199 net.cpp:156] Memory required for data: 50020
I0924 03:24:14.629590 25199 layer_factory.hpp:77] Creating layer lstm2_transform_1
I0924 03:24:14.629619 25199 net.cpp:91] Creating Layer lstm2_transform_1
I0924 03:24:14.629636 25199 net.cpp:425] lstm2_transform_1 <- h_conted_0
I0924 03:24:14.629655 25199 net.cpp:399] lstm2_transform_1 -> W_hc_h_0
I0924 03:24:14.629762 25179 net.cpp:141] Setting up lstm2_transform_1
I0924 03:24:14.629822 25179 net.cpp:148] Top shape: 1 1 4000 (4000)
I0924 03:24:14.629840 25179 net.cpp:156] Memory required for data: 66020
I0924 03:24:14.629851 25205 net.cpp:141] Setting up lstm2_h_conted_0
I0924 03:24:14.629873 25205 net.cpp:148] Top shape: 1 1 1000 (1000)
I0924 03:24:14.629879 25179 layer_factory.hpp:77] Creating layer lstm2_gate_input_1
I0924 03:24:14.629902 25165 net.cpp:141] Setting up lstm1_
I0924 03:24:14.629879 25205 net.cpp:156] Memory required for data: 50020
I0924 03:24:14.629936 25205 layer_factory.hpp:77] Creating layer lstm2_transform_1
I0924 03:24:14.629937 25165 net.cpp:148] Top shape: 1 1 500 (500)
I0924 03:24:14.629948 25179 net.cpp:91] Creating Layer lstm2_gate_input_1
I0924 03:24:14.629964 25205 net.cpp:91] Creating Layer lstm2_transform_1
I0924 03:24:14.629977 25205 net.cpp:425] lstm2_transform_1 <- h_conted_0
I0924 03:24:14.629956 25165 net.cpp:148] Top shape: 1 1 (1)
I0924 03:24:14.629987 25179 net.cpp:425] lstm2_gate_input_1 <- W_hc_h_0
I0924 03:24:14.629992 25165 net.cpp:156] Memory required for data: 2004
I0924 03:24:14.629993 25205 net.cpp:399] lstm2_transform_1 -> W_hc_h_0
I0924 03:24:14.630024 25179 net.cpp:425] lstm2_gate_input_1 <- W_xc_x_1
I0924 03:24:14.630033 25165 layer_factory.hpp:77] Creating layer lstm1_
I0924 03:24:14.630059 25165 net.cpp:91] Creating Layer lstm1_
I0924 03:24:14.630053 25179 net.cpp:399] lstm2_gate_input_1 -> gate_input_1
I0924 03:24:14.630100 25165 net.cpp:399] lstm1_ -> c_0
I0924 03:24:14.630134 25165 net.cpp:399] lstm1_ -> h_0
I0924 03:24:14.639948 25179 net.cpp:141] Setting up lstm2_gate_input_1
I0924 03:24:14.639999 25179 net.cpp:148] Top shape: 1 1 4000 (4000)
I0924 03:24:14.640007 25179 net.cpp:156] Memory required for data: 82020
I0924 03:24:14.640019 25179 layer_factory.hpp:77] Creating layer lstm2_unit_1
I0924 03:24:14.640045 25179 net.cpp:91] Creating Layer lstm2_unit_1
I0924 03:24:14.640055 25179 net.cpp:425] lstm2_unit_1 <- c_0
I0924 03:24:14.640069 25179 net.cpp:425] lstm2_unit_1 <- gate_input_1
I0924 03:24:14.640079 25179 net.cpp:425] lstm2_unit_1 <- cont_1_lstm2_cont_slice_0_split_1
I0924 03:24:14.640090 25179 net.cpp:399] lstm2_unit_1 -> c_1
I0924 03:24:14.640107 25179 net.cpp:399] lstm2_unit_1 -> h_1
I0924 03:24:14.647388 25165 net.cpp:141] Setting up lstm1_
I0924 03:24:14.647450 25165 net.cpp:148] Top shape: 1 1 1000 (1000)
I0924 03:24:14.647461 25165 net.cpp:148] Top shape: 1 1 1000 (1000)
I0924 03:24:14.647469 25165 net.cpp:156] Memory required for data: 10004
I0924 03:24:14.647480 25165 layer_factory.hpp:77] Creating layer lstm1_cont_slice
I0924 03:24:14.647510 25165 net.cpp:91] Creating Layer lstm1_cont_slice
I0924 03:24:14.647519 25165 net.cpp:425] lstm1_cont_slice <- cont
I0924 03:24:14.647536 25165 net.cpp:399] lstm1_cont_slice -> cont_1
I0924 03:24:14.658273 25179 net.cpp:141] Setting up lstm2_unit_1
I0924 03:24:14.658329 25179 net.cpp:148] Top shape: 1 1 1000 (1000)
I0924 03:24:14.658341 25179 net.cpp:148] Top shape: 1 1 1000 (1000)
I0924 03:24:14.658347 25179 net.cpp:156] Memory required for data: 90020
I0924 03:24:14.658360 25179 layer_factory.hpp:77] Creating layer lstm2_
I0924 03:24:14.658380 25179 net.cpp:91] Creating Layer lstm2_
I0924 03:24:14.658390 25179 net.cpp:425] lstm2_ <- c_1
I0924 03:24:14.658406 25179 net.cpp:399] lstm2_ -> c_T
I0924 03:24:14.658464 25179 net.cpp:141] Setting up lstm2_
I0924 03:24:14.658478 25179 net.cpp:148] Top shape: 1 1 1000 (1000)
I0924 03:24:14.658484 25179 net.cpp:156] Memory required for data: 94020
I0924 03:24:14.658491 25179 layer_factory.hpp:77] Creating layer lstm2_h_concat
I0924 03:24:14.658504 25179 net.cpp:91] Creating Layer lstm2_h_concat
I0924 03:24:14.658512 25179 net.cpp:425] lstm2_h_concat <- h_1
I0924 03:24:14.658524 25179 net.cpp:399] lstm2_h_concat -> h
I0924 03:24:14.658576 25179 net.cpp:141] Setting up lstm2_h_concat
I0924 03:24:14.658588 25179 net.cpp:148] Top shape: 1 1 1000 (1000)
I0924 03:24:14.658615 25179 net.cpp:156] Memory required for data: 98020
I0924 03:24:14.658625 25179 layer_factory.hpp:77] Creating layer h_pseudoloss
I0924 03:24:14.658638 25179 net.cpp:91] Creating Layer h_pseudoloss
I0924 03:24:14.658645 25179 net.cpp:425] h_pseudoloss <- h
I0924 03:24:14.658656 25179 net.cpp:399] h_pseudoloss -> h_pseudoloss
I0924 03:24:14.658781 25179 net.cpp:141] Setting up h_pseudoloss
…
I0924 03:24:14.658941 25179 net.cpp:219] lstm2_ does not need backward computation.
I0924 03:24:14.658947 25179 net.cpp:261] This network produces output c_T
I0924 03:24:14.658954 25179 net.cpp:261] This network produces output h_pseudoloss
I0924 03:24:14.658978 25179 net.cpp:274] Network initialization done.
I0924 03:24:14.659049 25179 recurrent_layer.cpp:150] Adding parameter 0: W_xc
I0924 03:24:14.659057 25179 recurrent_layer.cpp:150] Adding parameter 1: b_c
I0924 03:24:14.659065 25179 recurrent_layer.cpp:150] Adding parameter 2: W_hc
I0924 03:24:14.659207 25179 net.cpp:141] Setting up lstm2
I0924 03:24:14.659221 25179 net.cpp:148] Top shape: 1 1 1000 (1000)
I0924 03:24:14.659229 25179 net.cpp:156] Memory required for data: 36412
I0924 03:24:14.659250 25179 layer_factory.hpp:77] Creating layer predict
I0924 03:24:14.659268 25179 net.cpp:91] Creating Layer predict
I0924 03:24:14.659276 25179 net.cpp:425] predict <- lstm2
I0924 03:24:14.659288 25179 net.cpp:399] predict -> predict
I0924 03:24:14.741683 25165 net.cpp:141] Setting up lstm1_cont_slice
I0924 03:24:14.741739 25165 net.cpp:148] Top shape: 1 1 (1)
I0924 03:24:14.741746 25165 net.cpp:156] Memory required for data: 10008
I0924 03:24:14.741756 25165 layer_factory.hpp:77] Creating layer cont_1_lstm1_cont_slice_0_split
I0924 03:24:14.741777 25165 net.cpp:91] Creating Layer cont_1_lstm1_cont_slice_0_split
I0924 03:24:14.741789 25165 net.cpp:425] cont_1_lstm1_cont_slice_0_split <- cont_1
I0924 03:24:14.741822 25165 net.cpp:399] cont_1_lstm1_cont_slice_0_split -> cont_1_lstm1_cont_slice_0_split_0
I0924 03:24:14.741852 25165 net.cpp:399] cont_1_lstm1_cont_slice_0_split -> cont_1_lstm1_cont_slice_0_split_1
I0924 03:24:14.742127 25171 net.cpp:141] Setting up lstm1_transform_1
I0924 03:24:14.742166 25171 net.cpp:148] Top shape: 1 1 4000 (4000)
I0924 03:24:14.742172 25171 net.cpp:156] Memory required for data: 62016
I0924 03:24:14.742192 25171 layer_factory.hpp:77] Creating layer lstm1_gate_input_1
I0924 03:24:14.742214 25199 net.cpp:141] Setting up lstm2_transform_1
I0924 03:24:14.742223 25171 net.cpp:91] Creating Layer lstm1_gate_input_1
I0924 03:24:14.742249 25199 net.cpp:148] Top shape: 1 1 4000 (4000)
I0924 03:24:14.742254 25171 net.cpp:425] lstm1_gate_input_1 <- W_hc_h_0
I0924 03:24:14.742260 25199 net.cpp:156] Memory required for data: 66020
I0924 03:24:14.742270 25171 net.cpp:425] lstm1_gate_input_1 <- W_xc_x_1
I0924 03:24:14.742283 25205 net.cpp:141] Setting up lstm2_transform_1
I0924 03:24:14.742285 25199 layer_factory.hpp:77] Creating layer lstm2_gate_input_1
I0924 03:24:14.742316 25171 net.cpp:399] lstm1_gate_input_1 -> gate_input_1
I0924 03:24:14.742321 25205 net.cpp:148] Top shape: 1 1 4000 (4000)
I0924 03:24:14.742332 25205 net.cpp:156] Memory required for data: 66020
I0924 03:24:14.742338 25199 net.cpp:91] Creating Layer lstm2_gate_input_1
I0924 03:24:14.742350 25205 layer_factory.hpp:77] Creating layer lstm2_gate_input_1
I0924 03:24:14.742352 25199 net.cpp:425] lstm2_gate_input_1 <- W_hc_h_0
I0924 03:24:14.742385 25199 net.cpp:425] lstm2_gate_input_1 <- W_xc_x_1
I0924 03:24:14.742385 25205 net.cpp:91] Creating Layer lstm2_gate_input_1
I0924 03:24:14.742419 25199 net.cpp:399] lstm2_gate_input_1 -> gate_input_1
I0924 03:24:14.742429 25205 net.cpp:425] lstm2_gate_input_1 <- W_hc_h_0
I0924 03:24:14.742442 25205 net.cpp:425] lstm2_gate_input_1 <- W_xc_x_1
I0924 03:24:14.742408 25165 net.cpp:141] Setting up cont_1_lstm1_cont_slice_0_split
I0924 03:24:14.742451 25205 net.cpp:399] lstm2_gate_input_1 -> gate_input_1
I0924 03:24:14.742461 25165 net.cpp:148] Top shape: 1 1 (1)
I0924 03:24:14.742477 25165 net.cpp:148] Top shape: 1 1 (1)
I0924 03:24:14.742493 25165 net.cpp:156] Memory required for data: 10016
I0924 03:24:14.742504 25165 layer_factory.hpp:77] Creating layer lstm1_x_transform
I0924 03:24:14.742516 25205 net.cpp:141] Setting up lstm2_gate_input_1
I0924 03:24:14.742530 25205 net.cpp:148] Top shape: 1 1 4000 (4000)
I0924 03:24:14.742537 25205 net.cpp:156] Memory required for data: 82020
I0924 03:24:14.742535 25165 net.cpp:91] Creating Layer lstm1_x_transform
I0924 03:24:14.742545 25205 layer_factory.hpp:77] Creating layer lstm2_unit_1
I0924 03:24:14.742550 25165 net.cpp:425] lstm1_x_transform <- x
I0924 03:24:14.742561 25205 net.cpp:91] Creating Layer lstm2_unit_1
I0924 03:24:14.742573 25205 net.cpp:425] lstm2_unit_1 <- c_0
I0924 03:24:14.742573 25199 net.cpp:141] Setting up lstm2_gate_input_1
I0924 03:24:14.742578 25165 net.cpp:399] lstm1_x_transform -> W_xc_x
I0924 03:24:14.742583 25205 net.cpp:425] lstm2_unit_1 <- gate_input_1
I0924 03:24:14.742594 25199 net.cpp:148] Top shape: 1 1 4000 (4000)
I0924 03:24:14.742612 25205 net.cpp:425] lstm2_unit_1 <- cont_1_lstm2_cont_slice_0_split_1
I0924 03:24:14.742621 25199 net.cpp:156] Memory required for data: 82020
I0924 03:24:14.742630 25205 net.cpp:399] lstm2_unit_1 -> c_1
I0924 03:24:14.742631 25199 layer_factory.hpp:77] Creating layer lstm2_unit_1
I0924 03:24:14.742661 25205 net.cpp:399] lstm2_unit_1 -> h_1
I0924 03:24:14.742667 25199 net.cpp:91] Creating Layer lstm2_unit_1
I0924 03:24:14.742677 25199 net.cpp:425] lstm2_unit_1 <- c_0
I0924 03:24:14.742678 25171 net.cpp:141] Setting up lstm1_gate_input_1
I0924 03:24:14.742687 25199 net.cpp:425] lstm2_unit_1 <- gate_input_1
I0924 03:24:14.742696 25171 net.cpp:148] Top shape: 1 1 4000 (4000)
I0924 03:24:14.742728 25171 net.cpp:156] Memory required for data: 78016
I0924 03:24:14.742697 25199 net.cpp:425] lstm2_unit_1 <- cont_1_lstm2_cont_slice_0_split_1
I0924 03:24:14.742738 25171 layer_factory.hpp:77] Creating layer lstm1_unit_1
I0924 03:24:14.742744 25199 net.cpp:399] lstm2_unit_1 -> c_1
I0924 03:24:14.742753 25171 net.cpp:91] Creating Layer lstm1_unit_1
I0924 03:24:14.742759 25199 net.cpp:399] lstm2_unit_1 -> h_1
I0924 03:24:14.742763 25171 net.cpp:425] lstm1_unit_1 <- c_0
I0924 03:24:14.742776 25171 net.cpp:425] lstm1_unit_1 <- gate_input_1
I0924 03:24:14.742785 25171 net.cpp:425] lstm1_unit_1 <- cont_1_lstm1_cont_slice_0_split_1
I0924 03:24:14.742796 25171 net.cpp:399] lstm1_unit_1 -> c_1
I0924 03:24:14.742830 25171 net.cpp:399] lstm1_unit_1 -> h_1
I0924 03:24:14.744029 25161 net.cpp:141] Setting up lstm2_x_transform
I0924 03:24:14.744057 25161 net.cpp:148] Top shape: 1 1 4000 (4000)
I0924 03:24:14.744065 25161 net.cpp:156] Memory required for data: 30020
I0924 03:24:14.744088 25161 layer_factory.hpp:77] Creating layer lstm2_W_xc_x_slice
I0924 03:24:14.744107 25161 net.cpp:91] Creating Layer lstm2_W_xc_x_slice
I0924 03:24:14.744117 25161 net.cpp:425] lstm2_W_xc_x_slice <- W_xc_x
I0924 03:24:14.744132 25161 net.cpp:399] lstm2_W_xc_x_slice -> W_xc_x_1
I0924 03:24:14.744227 25205 net.cpp:141] Setting up lstm2_unit_1
I0924 03:24:14.744245 25205 net.cpp:148] Top shape: 1 1 1000 (1000)
I0924 03:24:14.744251 25205 net.cpp:148] Top shape: 1 1 1000 (1000)
I0924 03:24:14.744256 25205 net.cpp:156] Memory required for data: 90020
I0924 03:24:14.744261 25205 layer_factory.hpp:77] Creating layer lstm2_
I0924 03:24:14.744274 25205 net.cpp:91] Creating Layer lstm2_
I0924 03:24:14.744280 25205 net.cpp:425] lstm2_ <- c_1
I0924 03:24:14.744288 25205 net.cpp:399] lstm2_ -> c_T
I0924 03:24:14.744346 25199 net.cpp:141] Setting up lstm2_unit_1
I0924 03:24:14.744369 25199 net.cpp:148] Top shape: 1 1 1000 (1000)
I0924 03:24:14.744380 25199 net.cpp:148] Top shape: 1 1 1000 (1000)
I0924 03:24:14.744388 25199 net.cpp:156] Memory required for data: 90020
I0924 03:24:14.744398 25199 layer_factory.hpp:77] Creating layer lstm2_
I0924 03:24:14.744412 25199 net.cpp:91] Creating Layer lstm2_
I0924 03:24:14.744423 25199 net.cpp:425] lstm2_ <- c_1
I0924 03:24:14.744443 25199 net.cpp:399] lstm2_ -> c_T
I0924 03:24:14.750211 25161 net.cpp:141] Setting up lstm2_W_xc_x_slice
I0924 03:24:14.750288 25161 net.cpp:148] Top shape: 1 1 4000 (4000)
I0924 03:24:14.750299 25161 net.cpp:156] Memory required for data: 46020
I0924 03:24:14.750313 25161 layer_factory.hpp:77] Creating layer lstm2_h_conted_0
I0924 03:24:14.750350 25161 net.cpp:91] Creating Layer lstm2_h_conted_0
I0924 03:24:14.750363 25161 net.cpp:425] lstm2_h_conted_0 <- h_0
I0924 03:24:14.750377 25161 net.cpp:425] lstm2_h_conted_0 <- cont_1_lstm2_cont_slice_0_split_0
I0924 03:24:14.750391 25161 net.cpp:399] lstm2_h_conted_0 -> h_conted_0
I0924 03:24:14.750442 25167 net.cpp:141] Setting up lstm1_transform_1
I0924 03:24:14.750493 25167 net.cpp:148] Top shape: 1 1 4000 (4000)
I0924 03:24:14.750504 25167 net.cpp:156] Memory required for data: 62016
I0924 03:24:14.750532 25167 layer_factory.hpp:77] Creating layer lstm1_gate_input_1
I0924 03:24:14.750571 25167 net.cpp:91] Creating Layer lstm1_gate_input_1
I0924 03:24:14.750587 25167 net.cpp:425] lstm1_gate_input_1 <- W_hc_h_0
I0924 03:24:14.750615 25167 net.cpp:425] lstm1_gate_input_1 <- W_xc_x_1
I0924 03:24:14.750638 25167 net.cpp:399] lstm1_gate_input_1 -> gate_input_1
I0924 03:24:14.750656 25161 net.cpp:141] Setting up lstm2_h_conted_0
I0924 03:24:14.750677 25161 net.cpp:148] Top shape: 1 1 1000 (1000)
I0924 03:24:14.750686 25161 net.cpp:156] Memory required for data: 50020
I0924 03:24:14.750695 25161 layer_factory.hpp:77] Creating layer lstm2_transform_1
I0924 03:24:14.750717 25161 net.cpp:91] Creating Layer lstm2_transform_1
I0924 03:24:14.750732 25161 net.cpp:425] lstm2_transform_1 <- h_conted_0
I0924 03:24:14.750741 25167 net.cpp:141] Setting up lstm1_gate_input_1
I0924 03:24:14.750751 25161 net.cpp:399] lstm2_transform_1 -> W_hc_h_0
I0924 03:24:14.750761 25167 net.cpp:148] Top shape: 1 1 4000 (4000)
I0924 03:24:14.750771 25167 net.cpp:156] Memory required for data: 78016
I0924 03:24:14.750780 25167 layer_factory.hpp:77] Creating layer lstm1_unit_1
I0924 03:24:14.750828 25167 net.cpp:91] Creating Layer lstm1_unit_1
I0924 03:24:14.750839 25167 net.cpp:425] lstm1_unit_1 <- c_0
I0924 03:24:14.750854 25167 net.cpp:425] lstm1_unit_1 <- gate_input_1
I0924 03:24:14.750864 25167 net.cpp:425] lstm1_unit_1 <- cont_1_lstm1_cont_slice_0_split_1
I0924 03:24:14.750876 25167 net.cpp:399] lstm1_unit_1 -> c_1
I0924 03:24:14.750893 25167 net.cpp:399] lstm1_unit_1 -> h_1
I0924 03:24:14.750242 25171 net.cpp:141] Setting up lstm1_unit_1
I0924 03:24:14.752025 25171 net.cpp:148] Top shape: 1 1 1000 (1000)
I0924 03:24:14.752043 25171 net.cpp:148] Top shape: 1 1 1000 (1000)
I0924 03:24:14.752053 25171 net.cpp:156] Memory required for data: 86016
I0924 03:24:14.752063 25171 layer_factory.hpp:77] Creating layer lstm1_
I0924 03:24:14.752081 25171 net.cpp:91] Creating Layer lstm1_
I0924 03:24:14.752094 25171 net.cpp:425] lstm1_ <- c_1
I0924 03:24:14.752109 25171 net.cpp:399] lstm1_ -> c_T
I0924 03:24:14.759416 25199 net.cpp:141] Setting up lstm2_
I0924 03:24:14.759466 25199 net.cpp:148] Top shape: 1 1 1000 (1000)
I0924 03:24:14.759475 25199 net.cpp:156] Memory required for data: 94020
I0924 03:24:14.759488 25199 layer_factory.hpp:77] Creating layer lstm2_h_concat
I0924 03:24:14.759518 25199 net.cpp:91] Creating Layer lstm2_h_concat
I0924 03:24:14.759529 25199 net.cpp:425] lstm2_h_concat <- h_1
I0924 03:24:14.759546 25199 net.cpp:399] lstm2_h_concat -> h
I0924 03:24:14.793520 25171 net.cpp:141] Setting up lstm1_
I0924 03:24:14.793571 25171 net.cpp:148] Top shape: 1 1 1000 (1000)
I0924 03:24:14.793581 25171 net.cpp:156] Memory required for data: 90016
I0924 03:24:14.793592 25171 layer_factory.hpp:77] Creating layer lstm1_h_concat
I0924 03:24:14.793615 25171 net.cpp:91] Creating Layer lstm1_h_concat
I0924 03:24:14.793625 25171 net.cpp:425] lstm1_h_concat <- h_1
I0924 03:24:14.793645 25171 net.cpp:399] lstm1_h_concat -> h
I0924 03:24:14.793715 25171 net.cpp:141] Setting up lstm1_h_concat
I0924 03:24:14.793728 25171 net.cpp:148] Top shape: 1 1 1000 (1000)
I0924 03:24:14.793735 25171 net.cpp:156] Memory required for data: 94016
I0924 03:24:14.793742 25171 layer_factory.hpp:77] Creating layer h_pseudoloss
…
I0924 03:25:59.642560 25525 net.cpp:217] lstm2_x_transform needs backward computation.
I0924 03:25:59.642582 25570 net.cpp:148] Top shape: 1 1 1000 (1000)
I0924 03:25:59.642585 25525 net.cpp:219] cont_1_lstm2_cont_slice_0_split does not need backward computation.
I0924 03:25:59.642591 25570 net.cpp:156] Memory required for data: 50020
I0924 03:25:59.642612 25525 net.cpp:219] lstm2_cont_slice does not need backward computation.
I0924 03:25:59.642617 25570 layer_factory.hpp:77] Creating layer lstm2_transform_1
I0924 03:25:59.642624 25525 net.cpp:219] lstm2_ does not need backward computation.
…
I0924 03:25:59.657706 25543 net.cpp:219] lstm2_ does not need backward computation.
I0924 03:25:59.657709 25543 net.cpp:261] This network produces output c_T
I0924 03:25:59.657716 25543 net.cpp:261] This network produces output h_pseudoloss
I0924 03:25:59.657738 25543 net.cpp:274] Network initialization done.
I0924 03:25:59.657806 25543 recurrent_layer.cpp:150] Adding parameter 0: W_xc
I0924 03:25:59.657814 25543 recurrent_layer.cpp:150] Adding parameter 1: b_c
I0924 03:25:59.657819 25543 recurrent_layer.cpp:150] Adding parameter 2: W_hc
I0924 03:25:59.659198 25564 net.cpp:141] Setting up lstm2_W_xc_x_slice
I0924 03:25:59.659217 25564 net.cpp:148] Top shape: 1 1 4000 (4000)
I0924 03:25:59.659224 25564 net.cpp:156] Memory required for data: 46020
I0924 03:25:59.659229 25564 layer_factory.hpp:77] Creating layer lstm2_h_conted_0
I0924 03:25:59.659247 25564 net.cpp:91] Creating Layer lstm2_h_conted_0
I0924 03:25:59.659253 25564 net.cpp:425] lstm2_h_conted_0 <- h_0
I0924 03:25:59.659260 25564 net.cpp:425] lstm2_h_conted_0 <- cont_1_lstm2_cont_slice_0_split_0
I0924 03:25:59.659271 25564 net.cpp:399] lstm2_h_conted_0 -> h_conted_0
I0924 03:25:59.659318 25529 net.cpp:141] Setting up concat
I0924 03:25:59.659337 25529 net.cpp:148] Top shape: 1 1 1501 (1501)
I0924 03:25:59.659343 25529 net.cpp:156] Memory required for data: 32412
I0924 03:25:59.659351 25529 layer_factory.hpp:77] Creating layer lstm2
I0924 03:25:59.659381 25529 net.cpp:91] Creating Layer lstm2
I0924 03:25:59.659390 25529 net.cpp:425] lstm2 <- lstm1_video_sequence
I0924 03:25:59.659401 25529 net.cpp:425] lstm2 <- cont_sentence_input_1_split_1
I0924 03:25:59.659413 25529 net.cpp:399] lstm2 -> lstm2
I0924 03:25:59.659431 25529 recurrent_layer.cpp:20] Initializing recurrent layer: assuming input batch contains 1 timesteps of 1 independent streams.
I0924 03:25:59.742081 25529 net.cpp:49] Initializing net from parameters: 
layer {
  name: "lstm2_"
  type: "Input"
  top: "x"
  top: "cont"
  input_param {
    shape {
      dim: 1
      dim: 1
      dim: 1501
    }
    shape {
      dim: 1
      dim: 1
    }
  }
}
layer {
  name: "lstm2_"
  type: "Input"
  top: "c_0"
  top: "h_0"
  input_param {
    shape {
      dim: 1
      dim: 1
      dim: 1000
    }
    shape {
      dim: 1
      dim: 1
      dim: 1000
    }
  }
}
layer {
  name: "lstm2_cont_slice"
  type: "Slice"
  bottom: "cont"
  top: "cont_1"
  slice_param {
    axis: 0
  }
}
layer {
  name: "lstm2_x_transform"
  type: "InnerProduct"
  bottom: "x"
  top: "W_xc_x"
  param {
    name: "W_xc"
  }
  param {
    name: "b_c"
  }
  propagate_down: true
  inner_product_param {
    num_output: 4000
    bias_term: true
    weight_filler {
      type: "uniform"
      min: -0.08
      max: 0.08
    }
    bias_filler {
      type: "constant"
      value: 0
    }
    axis: 2
  }
}
layer {
  name: "lstm2_W_xc_x_slice"
  type: "Slice"
  bottom: "W_xc_x"
  top: "W_xc_x_1"
  slice_param {
    axis: 0
  }
}
layer {
  name: "lstm2_h_conted_0"
  type: "Scale"
  bottom: "h_0"
  bottom: "cont_1"
  top: "h_conted_0"
  scale_param {
    axis: 0
  }
}
layer {
  name: "lstm2_transform_1"
  type: "InnerProduct"
  bottom: "h_conted_0"
  top: "W_hc_h_0"
  param {
    name: "W_hc"
  }
  inner_product_param {
    num_output: 4000
    bias_term: false
    weight_filler {
      type: "uniform"
      min: -0.08
      max: 0.08
    }
    axis: 2
  }
}
layer {
  name: "lstm2_gate_input_1"
  type: "Eltwise"
  bottom: "W_hc_h_0"
  bottom: "W_xc_x_1"
  top: "gate_input_1"
  eltwise_param {
    operation: SUM
  }
}
layer {
  name: "lstm2_unit_1"
  type: "LSTMUnit"
  bottom: "c_0"
  bottom: "gate_input_1"
  bottom: "cont_1"
  top: "c_1"
  top: "h_1"
}
layer {
  name: "lstm2_"
  type: "Split"
  bottom: "c_1"
  top: "c_T"
}
layer {
  name: "lstm2_h_concat"
  type: "Concat"
  bottom: "h_1"
  top: "h"
  concat_param {
    axis: 0
  }
}
layer {
  name: "h_pseudoloss"
  type: "Reduction"
  bottom: "h"
  top: "h_pseudoloss"
  loss_weight: 1
}
I0924 03:25:59.742319 25529 layer_factory.hpp:77] Creating layer lstm2_
I0924 03:25:59.742338 25529 net.cpp:91] Creating Layer lstm2_
I0924 03:25:59.742347 25529 net.cpp:399] lstm2_ -> x
I0924 03:25:59.742368 25529 net.cpp:399] lstm2_ -> cont
I0924 03:25:59.749840 25535 net.cpp:141] Setting up lstm2_transform_1
I0924 03:25:59.749877 25535 net.cpp:148] Top shape: 1 1 4000 (4000)
I0924 03:25:59.749882 25535 net.cpp:156] Memory required for data: 66020
I0924 03:25:59.749903 25535 layer_factory.hpp:77] Creating layer lstm2_gate_input_1
I0924 03:25:59.749913 25570 net.cpp:141] Setting up lstm2_transform_1
I0924 03:25:59.749928 25535 net.cpp:91] Creating Layer lstm2_gate_input_1
I0924 03:25:59.749935 25535 net.cpp:425] lstm2_gate_input_1 <- W_hc_h_0
I0924 03:25:59.749940 25570 net.cpp:148] Top shape: 1 1 4000 (4000)
I0924 03:25:59.749944 25535 net.cpp:425] lstm2_gate_input_1 <- W_xc_x_1
I0924 03:25:59.749966 25570 net.cpp:156] Memory required for data: 66020
I0924 03:25:59.749972 25535 net.cpp:399] lstm2_gate_input_1 -> gate_input_1
I0924 03:25:59.749989 25570 layer_factory.hpp:77] Creating layer lstm2_gate_input_1
I0924 03:25:59.750016 25570 net.cpp:91] Creating Layer lstm2_gate_input_1
I0924 03:25:59.750030 25570 net.cpp:425] lstm2_gate_input_1 <- W_hc_h_0
I0924 03:25:59.750041 25570 net.cpp:425] lstm2_gate_input_1 <- W_xc_x_1
I0924 03:25:59.750057 25570 net.cpp:399] lstm2_gate_input_1 -> gate_input_1
I0924 03:25:59.750138 25529 net.cpp:141] Setting up lstm2_
I0924 03:25:59.750155 25529 net.cpp:148] Top shape: 1 1 1501 (1501)
I0924 03:25:59.750167 25529 net.cpp:148] Top shape: 1 1 (1)
I0924 03:25:59.750175 25529 net.cpp:156] Memory required for data: 6008
I0924 03:25:59.750185 25529 layer_factory.hpp:77] Creating layer lstm2_
I0924 03:25:59.750217 25529 net.cpp:91] Creating Layer lstm2_
I0924 03:25:59.750214 25543 net.cpp:141] Setting up lstm2
I0924 03:25:59.750231 25529 net.cpp:399] lstm2_ -> c_0
I0924 03:25:59.750238 25543 net.cpp:148] Top shape: 1 1 1000 (1000)
I0924 03:25:59.750253 25543 net.cpp:156] Memory required for data: 36412
I0924 03:25:59.750260 25529 net.cpp:399] lstm2_ -> h_0
I0924 03:25:59.750286 25543 layer_factory.hpp:77] Creating layer predict
I0924 03:25:59.750309 25543 net.cpp:91] Creating Layer predict
I0924 03:25:59.750324 25543 net.cpp:425] predict <- lstm2
I0924 03:25:59.750341 25543 net.cpp:399] predict -> predict
I0924 03:25:59.750342 25564 net.cpp:141] Setting up lstm2_h_conted_0
I0924 03:25:59.750362 25535 net.cpp:141] Setting up lstm2_gate_input_1
I0924 03:25:59.750378 25535 net.cpp:148] Top shape: 1 1 4000 (4000)
I0924 03:25:59.750382 25564 net.cpp:148] Top shape: 1 1 1000 (1000)
I0924 03:25:59.750388 25535 net.cpp:156] Memory required for data: 82020
I0924 03:25:59.750411 25564 net.cpp:156] Memory required for data: 50020
I0924 03:25:59.750416 25535 layer_factory.hpp:77] Creating layer lstm2_unit_1
I0924 03:25:59.750444 25564 layer_factory.hpp:77] Creating layer lstm2_transform_1
I0924 03:25:59.750450 25535 net.cpp:91] Creating Layer lstm2_unit_1
I0924 03:25:59.750470 25535 net.cpp:425] lstm2_unit_1 <- c_0
I0924 03:25:59.750478 25535 net.cpp:425] lstm2_unit_1 <- gate_input_1
I0924 03:25:59.750484 25535 net.cpp:425] lstm2_unit_1 <- cont_1_lstm2_cont_slice_0_split_1
I0924 03:25:59.750481 25564 net.cpp:91] Creating Layer lstm2_transform_1
I0924 03:25:59.750493 25535 net.cpp:399] lstm2_unit_1 -> c_1
I0924 03:25:59.750504 25535 net.cpp:399] lstm2_unit_1 -> h_1
I0924 03:25:59.750504 25564 net.cpp:425] lstm2_transform_1 <- h_conted_0
I0924 03:25:59.750533 25564 net.cpp:399] lstm2_transform_1 -> W_hc_h_0
I0924 03:25:59.750566 25570 net.cpp:141] Setting up lstm2_gate_input_1
I0924 03:25:59.750587 25570 net.cpp:148] Top shape: 1 1 4000 (4000)
I0924 03:25:59.750612 25570 net.cpp:156] Memory required for data: 82020
I0924 03:25:59.750634 25570 layer_factory.hpp:77] Creating layer lstm2_unit_1
I0924 03:25:59.750650 25570 net.cpp:91] Creating Layer lstm2_unit_1
I0924 03:25:59.750661 25570 net.cpp:425] lstm2_unit_1 <- c_0
I0924 03:25:59.750674 25570 net.cpp:425] lstm2_unit_1 <- gate_input_1
I0924 03:25:59.750684 25570 net.cpp:425] lstm2_unit_1 <- cont_1_lstm2_cont_slice_0_split_1
I0924 03:25:59.750704 25570 net.cpp:399] lstm2_unit_1 -> c_1
I0924 03:25:59.750721 25570 net.cpp:399] lstm2_unit_1 -> h_1
I0924 03:25:59.846205 25531 net.cpp:141] Setting up lstm2_x_transform
I0924 03:25:59.846292 25531 net.cpp:148] Top shape: 1 1 4000 (4000)
I0924 03:25:59.846302 25531 net.cpp:156] Memory required for data: 30020
I0924 03:25:59.846344 25531 layer_factory.hpp:77] Creating layer lstm2_W_xc_x_slice
I0924 03:25:59.846362 25531 net.cpp:91] Creating Layer lstm2_W_xc_x_slice
I0924 03:25:59.846369 25531 net.cpp:425] lstm2_W_xc_x_slice <- W_xc_x
I0924 03:25:59.846382 25531 net.cpp:399] lstm2_W_xc_x_slice -> W_xc_x_1
I0924 03:25:59.858321 25529 net.cpp:141] Setting up lstm2_
I0924 03:25:59.858409 25529 net.cpp:148] Top shape: 1 1 1000 (1000)
I0924 03:25:59.858410 25535 net.cpp:141] Setting up lstm2_unit_1
I0924 03:25:59.858451 25535 net.cpp:148] Top shape: 1 1 1000 (1000)
I0924 03:25:59.858448 25529 net.cpp:148] Top shape: 1 1 1000 (1000)
I0924 03:25:59.858459 25535 net.cpp:148] Top shape: 1 1 1000 (1000)
I0924 03:25:59.858464 25535 net.cpp:156] Memory required for data: 90020
I0924 03:25:59.858467 25529 net.cpp:156] Memory required for data: 14008
I0924 03:25:59.858474 25535 layer_factory.hpp:77] Creating layer lstm2_
I0924 03:25:59.858485 25529 layer_factory.hpp:77] Creating layer lstm2_cont_slice
I0924 03:25:59.858496 25535 net.cpp:91] Creating Layer lstm2_
I0924 03:25:59.858505 25535 net.cpp:425] lstm2_ <- c_1
I0924 03:25:59.858517 25535 net.cpp:399] lstm2_ -> c_T
I0924 03:25:59.858520 25529 net.cpp:91] Creating Layer lstm2_cont_slice
I0924 03:25:59.858538 25529 net.cpp:425] lstm2_cont_slice <- cont
I0924 03:25:59.858575 25535 net.cpp:141] Setting up lstm2_
I0924 03:25:59.858562 25529 net.cpp:399] lstm2_cont_slice -> cont_1
I0924 03:25:59.858587 25535 net.cpp:148] Top shape: 1 1 1000 (1000)
I0924 03:25:59.858592 25535 net.cpp:156] Memory required for data: 94020
I0924 03:25:59.858562 25570 net.cpp:141] Setting up lstm2_unit_1
I0924 03:25:59.858621 25535 layer_factory.hpp:77] Creating layer lstm2_h_concat
I0924 03:25:59.858646 25535 net.cpp:91] Creating Layer lstm2_h_concat
I0924 03:25:59.858645 25570 net.cpp:148] Top shape: 1 1 1000 (1000)
I0924 03:25:59.858652 25535 net.cpp:425] lstm2_h_concat <- h_1
I0924 03:25:59.858660 25570 net.cpp:148] Top shape: 1 1 1000 (1000)
I0924 03:25:59.858666 25535 net.cpp:399] lstm2_h_concat -> h
I0924 03:25:59.858669 25570 net.cpp:156] Memory required for data: 90020
I0924 03:25:59.858680 25570 layer_factory.hpp:77] Creating layer lstm2_
I0924 03:25:59.858695 25570 net.cpp:91] Creating Layer lstm2_
I0924 03:25:59.858705 25570 net.cpp:425] lstm2_ <- c_1
I0924 03:25:59.858718 25570 net.cpp:399] lstm2_ -> c_T
I0924 03:25:59.858711 25531 net.cpp:141] Setting up lstm2_W_xc_x_slice
I0924 03:25:59.858767 25531 net.cpp:148] Top shape: 1 1 4000 (4000)
I0924 03:25:59.858777 25531 net.cpp:156] Memory required for data: 46020
I0924 03:25:59.858786 25531 layer_factory.hpp:77] Creating layer lstm2_h_conted_0
I0924 03:25:59.858806 25531 net.cpp:91] Creating Layer lstm2_h_conted_0
I0924 03:25:59.858816 25531 net.cpp:425] lstm2_h_conted_0 <- h_0
I0924 03:25:59.858829 25531 net.cpp:425] lstm2_h_conted_0 <- cont_1_lstm2_cont_slice_0_split_0
I0924 03:25:59.858834 25570 net.cpp:141] Setting up lstm2_
I0924 03:25:59.858853 25570 net.cpp:148] Top shape: 1 1 1000 (1000)
I0924 03:25:59.858868 25535 net.cpp:141] Setting up lstm2_h_concat
I0924 03:25:59.858872 25570 net.cpp:156] Memory required for data: 94020
I0924 03:25:59.858883 25570 layer_factory.hpp:77] Creating layer lstm2_h_concat
I0924 03:25:59.858886 25535 net.cpp:148] Top shape: 1 1 1000 (1000)
I0924 03:25:59.858904 25535 net.cpp:156] Memory required for data: 98020
I0924 03:25:59.858853 25531 net.cpp:399] lstm2_h_conted_0 -> h_conted_0
I0924 03:25:59.858906 25570 net.cpp:91] Creating Layer lstm2_h_concat
I0924 03:25:59.858911 25535 layer_factory.hpp:77] Creating layer h_pseudoloss
I0924 03:25:59.858943 25570 net.cpp:425] lstm2_h_concat <- h_1
I0924 03:25:59.858952 25535 net.cpp:91] Creating Layer h_pseudoloss
I0924 03:25:59.858958 25535 net.cpp:425] h_pseudoloss <- h
I0924 03:25:59.858961 25570 net.cpp:399] lstm2_h_concat -> h
I0924 03:25:59.858965 25535 net.cpp:399] h_pseudoloss -> h_pseudoloss
I0924 03:25:59.859019 25529 net.cpp:141] Setting up lstm2_cont_slice
I0924 03:25:59.859052 25529 net.cpp:148] Top shape: 1 1 (1)
I0924 03:25:59.859064 25570 net.cpp:141] Setting up lstm2_h_concat
I0924 03:25:59.859068 25529 net.cpp:156] Memory required for data: 14012
I0924 03:25:59.859097 25570 net.cpp:148] Top shape: 1 1 1000 (1000)
I0924 03:25:59.859124 25529 layer_factory.hpp:77] Creating layer cont_1_lstm2_cont_slice_0_split
I0924 03:25:59.859128 25570 net.cpp:156] Memory required for data: 98020
I0924 03:25:59.859160 25570 layer_factory.hpp:77] Creating layer h_pseudoloss
I0924 03:25:59.859160 25529 net.cpp:91] Creating Layer cont_1_lstm2_cont_slice_0_split
I0924 03:25:59.859192 25570 net.cpp:91] Creating Layer h_pseudoloss
I0924 03:25:59.859200 25529 net.cpp:425] cont_1_lstm2_cont_slice_0_split <- cont_1
I0924 03:25:59.859205 25570 net.cpp:425] h_pseudoloss <- h
I0924 03:25:59.859238 25570 net.cpp:399] h_pseudoloss -> h_pseudoloss
I0924 03:25:59.859261 25529 net.cpp:399] cont_1_lstm2_cont_slice_0_split -> cont_1_lstm2_cont_slice_0_split_0
I0924 03:25:59.859302 25529 net.cpp:399] cont_1_lstm2_cont_slice_0_split -> cont_1_lstm2_cont_slice_0_split_1
I0924 03:25:59.859303 25531 net.cpp:141] Setting up lstm2_h_conted_0
I0924 03:25:59.859334 25531 net.cpp:148] Top shape: 1 1 1000 (1000)
I0924 03:25:59.859340 25531 net.cpp:156] Memory required for data: 50020
I0924 03:25:59.859345 25531 layer_factory.hpp:77] Creating layer lstm2_transform_1
I0924 03:25:59.859362 25531 net.cpp:91] Creating Layer lstm2_transform_1
I0924 03:25:59.859369 25531 net.cpp:425] lstm2_transform_1 <- h_conted_0
I0924 03:25:59.859380 25531 net.cpp:399] lstm2_transform_1 -> W_hc_h_0
I0924 03:25:59.859424 25535 net.cpp:141] Setting up h_pseudoloss
…
I0924 03:25:59.859977 25570 net.cpp:219] lstm2_ does not need backward computation.
I0924 03:25:59.859987 25570 net.cpp:261] This network produces output c_T
I0924 03:25:59.859997 25570 net.cpp:261] This network produces output h_pseudoloss
I0924 03:25:59.860023 25570 net.cpp:274] Network initialization done.
I0924 03:25:59.860113 25570 recurrent_layer.cpp:150] Adding parameter 0: W_xc
I0924 03:25:59.860128 25570 recurrent_layer.cpp:150] Adding parameter 1: b_c
I0924 03:25:59.860138 25570 recurrent_layer.cpp:150] Adding parameter 2: W_hc
I0924 03:25:59.872189 25529 net.cpp:141] Setting up cont_1_lstm2_cont_slice_0_split
I0924 03:25:59.872272 25529 net.cpp:148] Top shape: 1 1 (1)
I0924 03:25:59.872303 25529 net.cpp:148] Top shape: 1 1 (1)
I0924 03:25:59.872318 25529 net.cpp:156] Memory required for data: 14020
I0924 03:25:59.872333 25529 layer_factory.hpp:77] Creating layer lstm2_x_transform
I0924 03:25:59.872365 25529 net.cpp:91] Creating Layer lstm2_x_transform
I0924 03:25:59.872376 25529 net.cpp:425] lstm2_x_transform <- x
I0924 03:25:59.872395 25535 net.cpp:141] Setting up lstm2
I0924 03:25:59.872403 25529 net.cpp:399] lstm2_x_transform -> W_xc_x
I0924 03:25:59.872409 25535 net.cpp:148] Top shape: 1 1 1000 (1000)
I0924 03:25:59.872414 25535 net.cpp:156] Memory required for data: 36412
I0924 03:25:59.872436 25535 layer_factory.hpp:77] Creating layer predict
I0924 03:25:59.872447 25535 net.cpp:91] Creating Layer predict
I0924 03:25:59.872453 25535 net.cpp:425] predict <- lstm2
I0924 03:25:59.872462 25535 net.cpp:399] predict -> predict
I0924 03:25:59.872478 25570 net.cpp:141] Setting up lstm2
I0924 03:25:59.872503 25570 net.cpp:148] Top shape: 1 1 1000 (1000)
I0924 03:25:59.872511 25570 net.cpp:156] Memory required for data: 36412
I0924 03:25:59.872539 25570 layer_factory.hpp:77] Creating layer predict
I0924 03:25:59.872557 25570 net.cpp:91] Creating Layer predict
I0924 03:25:59.872570 25570 net.cpp:425] predict <- lstm2
I0924 03:25:59.872584 25570 net.cpp:399] predict -> predict
I0924 03:26:00.049469 25531 net.cpp:141] Setting up lstm2_transform_1
I0924 03:26:00.049536 25531 net.cpp:148] Top shape: 1 1 4000 (4000)
I0924 03:26:00.049543 25531 net.cpp:156] Memory required for data: 66020
I0924 03:26:00.049567 25531 layer_factory.hpp:77] Creating layer lstm2_gate_input_1
I0924 03:26:00.049662 25531 net.cpp:91] Creating Layer lstm2_gate_input_1
I0924 03:26:00.049710 25531 net.cpp:425] lstm2_gate_input_1 <- W_hc_h_0
I0924 03:26:00.049724 25531 net.cpp:425] lstm2_gate_input_1 <- W_xc_x_1
I0924 03:26:00.049743 25531 net.cpp:399] lstm2_gate_input_1 -> gate_input_1
I0924 03:26:00.065825 25564 net.cpp:141] Setting up lstm2_transform_1
I0924 03:26:00.065850 25531 net.cpp:141] Setting up lstm2_gate_input_1
I0924 03:26:00.065894 25564 net.cpp:148] Top shape: 1 1 4000 (4000)
I0924 03:26:00.065901 25564 net.cpp:156] Memory required for data: 66020
I0924 03:26:00.065906 25531 net.cpp:148] Top shape: 1 1 4000 (4000)
I0924 03:26:00.065917 25531 net.cpp:156] Memory required for data: 82020
I0924 03:26:00.065928 25564 layer_factory.hpp:77] Creating layer lstm2_gate_input_1
I0924 03:26:00.065929 25531 layer_factory.hpp:77] Creating layer lstm2_unit_1
I0924 03:26:00.065948 25531 net.cpp:91] Creating Layer lstm2_unit_1
I0924 03:26:00.065955 25564 net.cpp:91] Creating Layer lstm2_gate_input_1
I0924 03:26:00.065963 25564 net.cpp:425] lstm2_gate_input_1 <- W_hc_h_0
I0924 03:26:00.065961 25531 net.cpp:425] lstm2_unit_1 <- c_0
I0924 03:26:00.065973 25564 net.cpp:425] lstm2_gate_input_1 <- W_xc_x_1
I0924 03:26:00.065976 25531 net.cpp:425] lstm2_unit_1 <- gate_input_1
I0924 03:26:00.065981 25564 net.cpp:399] lstm2_gate_input_1 -> gate_input_1
I0924 03:26:00.065989 25531 net.cpp:425] lstm2_unit_1 <- cont_1_lstm2_cont_slice_0_split_1
I0924 03:26:00.066009 25531 net.cpp:399] lstm2_unit_1 -> c_1
I0924 03:26:00.066027 25531 net.cpp:399] lstm2_unit_1 -> h_1
I0924 03:26:00.066202 25564 net.cpp:141] Setting up lstm2_gate_input_1
I0924 03:26:00.066215 25564 net.cpp:148] Top shape: 1 1 4000 (4000)
I0924 03:26:00.066220 25564 net.cpp:156] Memory required for data: 82020
I0924 03:26:00.066225 25564 layer_factory.hpp:77] Creating layer lstm2_unit_1
I0924 03:26:00.066232 25564 net.cpp:91] Creating Layer lstm2_unit_1
I0924 03:26:00.066237 25564 net.cpp:425] lstm2_unit_1 <- c_0
I0924 03:26:00.066243 25564 net.cpp:425] lstm2_unit_1 <- gate_input_1
I0924 03:26:00.066249 25564 net.cpp:425] lstm2_unit_1 <- cont_1_lstm2_cont_slice_0_split_1
I0924 03:26:00.066256 25564 net.cpp:399] lstm2_unit_1 -> c_1
I0924 03:26:00.066267 25564 net.cpp:399] lstm2_unit_1 -> h_1
I0924 03:26:00.066351 25531 net.cpp:141] Setting up lstm2_unit_1
I0924 03:26:00.066373 25531 net.cpp:148] Top shape: 1 1 1000 (1000)
I0924 03:26:00.066386 25531 net.cpp:148] Top shape: 1 1 1000 (1000)
I0924 03:26:00.066396 25531 net.cpp:156] Memory required for data: 90020
I0924 03:26:00.066406 25531 layer_factory.hpp:77] Creating layer lstm2_
I0924 03:26:00.066424 25531 net.cpp:91] Creating Layer lstm2_
I0924 03:26:00.066432 25564 net.cpp:141] Setting up lstm2_unit_1
I0924 03:26:00.066436 25531 net.cpp:425] lstm2_ <- c_1
I0924 03:26:00.066444 25564 net.cpp:148] Top shape: 1 1 1000 (1000)
I0924 03:26:00.066450 25564 net.cpp:148] Top shape: 1 1 1000 (1000)
I0924 03:26:00.066455 25564 net.cpp:156] Memory required for data: 90020
I0924 03:26:00.066452 25531 net.cpp:399] lstm2_ -> c_T
I0924 03:26:00.066462 25564 layer_factory.hpp:77] Creating layer lstm2_
I0924 03:26:00.066471 25564 net.cpp:91] Creating Layer lstm2_
I0924 03:26:00.066476 25564 net.cpp:425] lstm2_ <- c_1
I0924 03:26:00.066484 25564 net.cpp:399] lstm2_ -> c_T
I0924 03:26:00.067420 25531 net.cpp:141] Setting up lstm2_
I0924 03:26:00.067451 25531 net.cpp:148] Top shape: 1 1 1000 (1000)
I0924 03:26:00.067462 25531 net.cpp:156] Memory required for data: 94020
I0924 03:26:00.067476 25531 layer_factory.hpp:77] Creating layer lstm2_h_concat
I0924 03:26:00.067482 25564 net.cpp:141] Setting up lstm2_
I0924 03:26:00.067497 25531 net.cpp:91] Creating Layer lstm2_h_concat
I0924 03:26:00.067503 25564 net.cpp:148] Top shape: 1 1 1000 (1000)
I0924 03:26:00.067508 25564 net.cpp:156] Memory required for data: 94020
I0924 03:26:00.067510 25531 net.cpp:425] lstm2_h_concat <- h_1
I0924 03:26:00.067514 25564 layer_factory.hpp:77] Creating layer lstm2_h_concat
I0924 03:26:00.067538 25564 net.cpp:91] Creating Layer lstm2_h_concat
I0924 03:26:00.067539 25531 net.cpp:399] lstm2_h_concat -> h
I0924 03:26:00.067545 25564 net.cpp:425] lstm2_h_concat <- h_1
I0924 03:26:00.067569 25564 net.cpp:399] lstm2_h_concat -> h
I0924 03:26:00.070359 25531 net.cpp:141] Setting up lstm2_h_concat
I0924 03:26:00.070390 25564 net.cpp:141] Setting up lstm2_h_concat
I0924 03:26:00.070412 25564 net.cpp:148] Top shape: 1 1 1000 (1000)
I0924 03:26:00.070415 25531 net.cpp:148] Top shape: 1 1 1000 (1000)
I0924 03:26:00.070420 25564 net.cpp:156] Memory required for data: 98020
I0924 03:26:00.070432 25531 net.cpp:156] Memory required for data: 98020
I0924 03:26:00.070438 25564 layer_factory.hpp:77] Creating layer h_pseudoloss
I0924 03:26:00.070444 25531 layer_factory.hpp:77] Creating layer h_pseudoloss
I0924 03:26:00.070457 25564 net.cpp:91] Creating Layer h_pseudoloss
I0924 03:26:00.070462 25531 net.cpp:91] Creating Layer h_pseudoloss
…
I0924 03:26:00.075211 25531 net.cpp:219] lstm2_ does not need backward computation.
I0924 03:26:00.075218 25531 net.cpp:261] This network produces output c_T
I0924 03:26:00.075228 25531 net.cpp:261] This network produces output h_pseudoloss
I0924 03:26:00.075259 25531 net.cpp:274] Network initialization done.
I0924 03:26:00.075353 25531 recurrent_layer.cpp:150] Adding parameter 0: W_xc
I0924 03:26:00.075369 25531 recurrent_layer.cpp:150] Adding parameter 1: b_c
I0924 03:26:00.075379 25531 recurrent_layer.cpp:150] Adding parameter 2: W_hc
I0924 03:26:00.079268 25564 net.cpp:141] Setting up lstm2
I0924 03:26:00.079305 25564 net.cpp:148] Top shape: 1 1 1000 (1000)
I0924 03:26:00.079311 25564 net.cpp:156] Memory required for data: 36412
I0924 03:26:00.079332 25564 layer_factory.hpp:77] Creating layer predict
I0924 03:26:00.079355 25564 net.cpp:91] Creating Layer predict
I0924 03:26:00.079362 25564 net.cpp:425] predict <- lstm2
I0924 03:26:00.079373 25564 net.cpp:399] predict -> predict
I0924 03:26:00.080337 25531 net.cpp:141] Setting up lstm2
I0924 03:26:00.080366 25531 net.cpp:148] Top shape: 1 1 1000 (1000)
I0924 03:26:00.080375 25531 net.cpp:156] Memory required for data: 36412
I0924 03:26:00.080446 25531 layer_factory.hpp:77] Creating layer predict
I0924 03:26:00.080468 25531 net.cpp:91] Creating Layer predict
I0924 03:26:00.080479 25531 net.cpp:425] predict <- lstm2
I0924 03:26:00.080494 25531 net.cpp:399] predict -> predict
I0924 03:26:00.262300 25529 net.cpp:141] Setting up lstm2_x_transform
I0924 03:26:00.262358 25529 net.cpp:148] Top shape: 1 1 4000 (4000)
I0924 03:26:00.262365 25529 net.cpp:156] Memory required for data: 30020
I0924 03:26:00.262392 25529 layer_factory.hpp:77] Creating layer lstm2_W_xc_x_slice
I0924 03:26:00.262410 25529 net.cpp:91] Creating Layer lstm2_W_xc_x_slice
I0924 03:26:00.262418 25529 net.cpp:425] lstm2_W_xc_x_slice <- W_xc_x
I0924 03:26:00.262429 25529 net.cpp:399] lstm2_W_xc_x_slice -> W_xc_x_1
I0924 03:26:00.263090 25529 net.cpp:141] Setting up lstm2_W_xc_x_slice
I0924 03:26:00.263145 25529 net.cpp:148] Top shape: 1 1 4000 (4000)
I0924 03:26:00.263159 25529 net.cpp:156] Memory required for data: 46020
I0924 03:26:00.263171 25529 layer_factory.hpp:77] Creating layer lstm2_h_conted_0
I0924 03:26:00.263186 25525 net.cpp:141] Setting up predict
I0924 03:26:00.263196 25529 net.cpp:91] Creating Layer lstm2_h_conted_0
I0924 03:26:00.263206 25525 net.cpp:148] Top shape: 1 1 46168 (46168)
I0924 03:26:00.263207 25529 net.cpp:425] lstm2_h_conted_0 <- h_0
I0924 03:26:00.263216 25525 net.cpp:156] Memory required for data: 221084
I0924 03:26:00.263222 25529 net.cpp:425] lstm2_h_conted_0 <- cont_1_lstm2_cont_slice_0_split_0
I0924 03:26:00.263234 25525 layer_factory.hpp:77] Creating layer probs
I0924 03:26:00.263237 25529 net.cpp:399] lstm2_h_conted_0 -> h_conted_0
I0924 03:26:00.263252 25525 net.cpp:91] Creating Layer probs
I0924 03:26:00.263262 25525 net.cpp:425] probs <- predict
I0924 03:26:00.263278 25525 net.cpp:399] probs -> probs
I0924 03:26:00.263463 25529 net.cpp:141] Setting up lstm2_h_conted_0
I0924 03:26:00.263484 25529 net.cpp:148] Top shape: 1 1 1000 (1000)
I0924 03:26:00.263492 25529 net.cpp:156] Memory required for data: 50020
I0924 03:26:00.263502 25529 layer_factory.hpp:77] Creating layer lstm2_transform_1
I0924 03:26:00.263525 25529 net.cpp:91] Creating Layer lstm2_transform_1
I0924 03:26:00.263533 25529 net.cpp:425] lstm2_transform_1 <- h_conted_0
I0924 03:26:00.263550 25529 net.cpp:399] lstm2_transform_1 -> W_hc_h_0
I0924 03:26:00.278295 25543 net.cpp:141] Setting up predict
I0924 03:26:00.278357 25543 net.cpp:148] Top shape: 1 1 46168 (46168)
I0924 03:26:00.278368 25543 net.cpp:156] Memory required for data: 221084
I0924 03:26:00.278390 25543 layer_factory.hpp:77] Creating layer probs
I0924 03:26:00.278415 25543 net.cpp:91] Creating Layer probs
I0924 03:26:00.278429 25543 net.cpp:425] probs <- predict
I0924 03:26:00.278446 25543 net.cpp:399] probs -> probs
I0924 03:26:00.316335 25529 net.cpp:141] Setting up lstm2_transform_1
I0924 03:26:00.316395 25529 net.cpp:148] Top shape: 1 1 4000 (4000)
I0924 03:26:00.316401 25529 net.cpp:156] Memory required for data: 66020
I0924 03:26:00.316454 25529 layer_factory.hpp:77] Creating layer lstm2_gate_input_1
I0924 03:26:00.316475 25529 net.cpp:91] Creating Layer lstm2_gate_input_1
I0924 03:26:00.316483 25529 net.cpp:425] lstm2_gate_input_1 <- W_hc_h_0
I0924 03:26:00.316491 25529 net.cpp:425] lstm2_gate_input_1 <- W_xc_x_1
I0924 03:26:00.316519 25529 net.cpp:399] lstm2_gate_input_1 -> gate_input_1
I0924 03:26:00.322334 25529 net.cpp:141] Setting up lstm2_gate_input_1
I0924 03:26:00.322394 25529 net.cpp:148] Top shape: 1 1 4000 (4000)
I0924 03:26:00.322401 25529 net.cpp:156] Memory required for data: 82020
I0924 03:26:00.322409 25529 layer_factory.hpp:77] Creating layer lstm2_unit_1
I0924 03:26:00.322427 25529 net.cpp:91] Creating Layer lstm2_unit_1
I0924 03:26:00.322435 25529 net.cpp:425] lstm2_unit_1 <- c_0
I0924 03:26:00.322445 25529 net.cpp:425] lstm2_unit_1 <- gate_input_1
I0924 03:26:00.322451 25529 net.cpp:425] lstm2_unit_1 <- cont_1_lstm2_cont_slice_0_split_1
I0924 03:26:00.322459 25529 net.cpp:399] lstm2_unit_1 -> c_1
I0924 03:26:00.322473 25529 net.cpp:399] lstm2_unit_1 -> h_1
I0924 03:26:00.326673 25529 net.cpp:141] Setting up lstm2_unit_1
I0924 03:26:00.326697 25529 net.cpp:148] Top shape: 1 1 1000 (1000)
I0924 03:26:00.326705 25529 net.cpp:148] Top shape: 1 1 1000 (1000)
I0924 03:26:00.326709 25529 net.cpp:156] Memory required for data: 90020
I0924 03:26:00.326715 25529 layer_factory.hpp:77] Creating layer lstm2_
I0924 03:26:00.326727 25529 net.cpp:91] Creating Layer lstm2_
I0924 03:26:00.326732 25529 net.cpp:425] lstm2_ <- c_1
I0924 03:26:00.326741 25529 net.cpp:399] lstm2_ -> c_T
I0924 03:26:00.328961 25529 net.cpp:141] Setting up lstm2_
I0924 03:26:00.328984 25529 net.cpp:148] Top shape: 1 1 1000 (1000)
I0924 03:26:00.328990 25529 net.cpp:156] Memory required for data: 94020
I0924 03:26:00.328996 25529 layer_factory.hpp:77] Creating layer lstm2_h_concat
I0924 03:26:00.329017 25529 net.cpp:91] Creating Layer lstm2_h_concat
I0924 03:26:00.329023 25529 net.cpp:425] lstm2_h_concat <- h_1
I0924 03:26:00.329035 25529 net.cpp:399] lstm2_h_concat -> h
I0924 03:26:00.329257 25529 net.cpp:141] Setting up lstm2_h_concat
I0924 03:26:00.329267 25529 net.cpp:148] Top shape: 1 1 1000 (1000)
I0924 03:26:00.329272 25529 net.cpp:156] Memory required for data: 98020
I0924 03:26:00.329277 25529 layer_factory.hpp:77] Creating layer h_pseudoloss
I0924 03:26:00.329288 25529 net.cpp:91] Creating Layer h_pseudoloss
I0924 03:26:00.329293 25529 net.cpp:425] h_pseudoloss <- h
I0924 03:26:00.329306 25529 net.cpp:399] h_pseudoloss -> h_pseudoloss
I0924 03:26:00.329504 25529 net.cpp:141] Setting up h_pseudoloss
…
I0924 03:26:00.329607 25529 net.cpp:219] lstm2_ does not need backward computation.
I0924 03:26:00.329610 25529 net.cpp:261] This network produces output c_T
I0924 03:26:00.329615 25529 net.cpp:261] This network produces output h_pseudoloss
I0924 03:26:00.329637 25529 net.cpp:274] Network initialization done.
I0924 03:26:00.329695 25529 recurrent_layer.cpp:150] Adding parameter 0: W_xc
I0924 03:26:00.329701 25529 recurrent_layer.cpp:150] Adding parameter 1: b_c
I0924 03:26:00.329706 25529 recurrent_layer.cpp:150] Adding parameter 2: W_hc
I0924 03:26:00.338680 25529 net.cpp:141] Setting up lstm2
I0924 03:26:00.338706 25529 net.cpp:148] Top shape: 1 1 1000 (1000)
I0924 03:26:00.338711 25529 net.cpp:156] Memory required for data: 36412
I0924 03:26:00.338728 25529 layer_factory.hpp:77] Creating layer predict
I0924 03:26:00.338743 25529 net.cpp:91] Creating Layer predict
I0924 03:26:00.338750 25529 net.cpp:425] predict <- lstm2
I0924 03:26:00.338758 25529 net.cpp:399] predict -> predict
I0924 03:26:00.431195 25535 net.cpp:141] Setting up predict
I0924 03:26:00.431255 25535 net.cpp:148] Top shape: 1 1 46168 (46168)
I0924 03:26:00.431262 25535 net.cpp:156] Memory required for data: 221084
I0924 03:26:00.431277 25535 layer_factory.hpp:77] Creating layer probs
I0924 03:26:00.431296 25535 net.cpp:91] Creating Layer probs
I0924 03:26:00.431303 25535 net.cpp:425] probs <- predict
I0924 03:26:00.431314 25535 net.cpp:399] probs -> probs
I0924 03:26:00.433605 25535 net.cpp:141] Setting up probs
I0924 03:26:00.433622 25535 net.cpp:148] Top shape: 1 1 46168 (46168)
I0924 03:26:00.433626 25535 net.cpp:156] Memory required for data: 405756
I0924 03:26:00.433631 25535 net.cpp:219] probs does not need backward computation.
I0924 03:26:00.433636 25535 net.cpp:219] predict does not need backward computation.
I0924 03:26:00.433640 25535 net.cpp:219] lstm2 does not need backward computation.
I0924 03:26:00.433646 25535 net.cpp:219] concat does not need backward computation.
I0924 03:26:00.433651 25535 net.cpp:219] lstm1 does not need backward computation.
I0924 03:26:00.433656 25535 net.cpp:219] embedding does not need backward computation.
I0924 03:26:00.433663 25535 net.cpp:219] reshape_stage_indicator does not need backward computation.
I0924 03:26:00.433668 25535 net.cpp:219] reshape_frames does not need backward computation.
I0924 03:26:00.433673 25535 net.cpp:219] embed_encoder does not need backward computation.
I0924 03:26:00.433677 25535 net.cpp:219] cont_sentence_input_1_split does not need backward computation.
I0924 03:26:00.433682 25535 net.cpp:219] input does not need backward computation.
I0924 03:26:00.433686 25535 net.cpp:261] This network produces output probs
I0924 03:26:00.433701 25535 net.cpp:274] Network initialization done.
I0924 03:26:00.434525 25525 net.cpp:141] Setting up probs
I0924 03:26:00.434551 25525 net.cpp:148] Top shape: 1 1 46168 (46168)
I0924 03:26:00.434561 25525 net.cpp:156] Memory required for data: 405756
I0924 03:26:00.434569 25525 net.cpp:219] probs does not need backward computation.
I0924 03:26:00.434578 25525 net.cpp:219] predict does not need backward computation.
I0924 03:26:00.434587 25525 net.cpp:219] lstm2 does not need backward computation.
I0924 03:26:00.434607 25525 net.cpp:219] concat does not need backward computation.
I0924 03:26:00.434615 25525 net.cpp:219] lstm1 does not need backward computation.
I0924 03:26:00.434623 25525 net.cpp:219] embedding does not need backward computation.
I0924 03:26:00.434631 25525 net.cpp:219] reshape_stage_indicator does not need backward computation.
I0924 03:26:00.434636 25525 net.cpp:219] reshape_frames does not need backward computation.
I0924 03:26:00.434641 25525 net.cpp:219] embed_encoder does not need backward computation.
I0924 03:26:00.434646 25525 net.cpp:219] cont_sentence_input_1_split does not need backward computation.
I0924 03:26:00.434651 25525 net.cpp:219] input does not need backward computation.
I0924 03:26:00.434659 25525 net.cpp:261] This network produces output probs
I0924 03:26:00.434677 25525 net.cpp:274] Network initialization done.
I0924 03:26:00.435228 25543 net.cpp:141] Setting up probs
I0924 03:26:00.435248 25543 net.cpp:148] Top shape: 1 1 46168 (46168)
I0924 03:26:00.435256 25543 net.cpp:156] Memory required for data: 405756
I0924 03:26:00.435266 25543 net.cpp:219] probs does not need backward computation.
I0924 03:26:00.435274 25543 net.cpp:219] predict does not need backward computation.
I0924 03:26:00.435283 25543 net.cpp:219] lstm2 does not need backward computation.
I0924 03:26:00.435292 25543 net.cpp:219] concat does not need backward computation.
I0924 03:26:00.435302 25543 net.cpp:219] lstm1 does not need backward computation.
I0924 03:26:00.435312 25543 net.cpp:219] embedding does not need backward computation.
I0924 03:26:00.435322 25543 net.cpp:219] reshape_stage_indicator does not need backward computation.
I0924 03:26:00.435329 25543 net.cpp:219] reshape_frames does not need backward computation.
I0924 03:26:00.435338 25543 net.cpp:219] embed_encoder does not need backward computation.
I0924 03:26:00.435366 25543 net.cpp:219] cont_sentence_input_1_split does not need backward computation.
I0924 03:26:00.435375 25543 net.cpp:219] input does not need backward computation.
I0924 03:26:00.435382 25543 net.cpp:261] This network produces output probs
I0924 03:26:00.435405 25543 net.cpp:274] Network initialization done.
I0924 03:26:00.435641 25537 net.cpp:141] Setting up conv1
I0924 03:26:00.435662 25537 net.cpp:148] Top shape: 10 96 55 55 (2904000)
I0924 03:26:00.435667 25537 net.cpp:156] Memory required for data: 17799480
I0924 03:26:00.435691 25537 layer_factory.hpp:77] Creating layer relu1
I0924 03:26:00.435706 25537 net.cpp:91] Creating Layer relu1
I0924 03:26:00.435712 25537 net.cpp:425] relu1 <- conv1
I0924 03:26:00.435719 25537 net.cpp:386] relu1 -> conv1 (in-place)
I0924 03:26:00.436131 25537 net.cpp:141] Setting up relu1
I0924 03:26:00.436146 25537 net.cpp:148] Top shape: 10 96 55 55 (2904000)
I0924 03:26:00.436151 25537 net.cpp:156] Memory required for data: 29415480
I0924 03:26:00.436156 25537 layer_factory.hpp:77] Creating layer pool1
I0924 03:26:00.436172 25537 net.cpp:91] Creating Layer pool1
I0924 03:26:00.436178 25537 net.cpp:425] pool1 <- conv1
I0924 03:26:00.436187 25537 net.cpp:399] pool1 -> pool1
I0924 03:26:00.436269 25537 net.cpp:141] Setting up pool1
I0924 03:26:00.436280 25537 net.cpp:148] Top shape: 10 96 27 27 (699840)
I0924 03:26:00.436283 25537 net.cpp:156] Memory required for data: 32214840
I0924 03:26:00.436288 25537 layer_factory.hpp:77] Creating layer norm1
I0924 03:26:00.436306 25537 net.cpp:91] Creating Layer norm1
I0924 03:26:00.436311 25537 net.cpp:425] norm1 <- pool1
I0924 03:26:00.436318 25537 net.cpp:399] norm1 -> norm1
I0924 03:26:00.436597 25537 net.cpp:141] Setting up norm1
I0924 03:26:00.436609 25537 net.cpp:148] Top shape: 10 96 27 27 (699840)
I0924 03:26:00.436614 25537 net.cpp:156] Memory required for data: 35014200
I0924 03:26:00.436619 25537 layer_factory.hpp:77] Creating layer conv2
I0924 03:26:00.436635 25537 net.cpp:91] Creating Layer conv2
I0924 03:26:00.436640 25537 net.cpp:425] conv2 <- norm1
I0924 03:26:00.436646 25537 net.cpp:399] conv2 -> conv2
I0924 03:26:00.440109 25537 net.cpp:141] Setting up conv2
I0924 03:26:00.440166 25537 net.cpp:148] Top shape: 10 256 27 27 (1866240)
I0924 03:26:00.440173 25537 net.cpp:156] Memory required for data: 42479160
I0924 03:26:00.440196 25537 layer_factory.hpp:77] Creating layer relu2
I0924 03:26:00.440215 25537 net.cpp:91] Creating Layer relu2
I0924 03:26:00.440223 25537 net.cpp:425] relu2 <- conv2
I0924 03:26:00.440232 25537 net.cpp:386] relu2 -> conv2 (in-place)
I0924 03:26:00.440476 25537 net.cpp:141] Setting up relu2
I0924 03:26:00.440488 25537 net.cpp:148] Top shape: 10 256 27 27 (1866240)
I0924 03:26:00.440493 25537 net.cpp:156] Memory required for data: 49944120
I0924 03:26:00.440502 25537 layer_factory.hpp:77] Creating layer pool2
I0924 03:26:00.440515 25537 net.cpp:91] Creating Layer pool2
I0924 03:26:00.440521 25537 net.cpp:425] pool2 <- conv2
I0924 03:26:00.440528 25537 net.cpp:399] pool2 -> pool2
I0924 03:26:00.440594 25537 net.cpp:141] Setting up pool2
I0924 03:26:00.440604 25537 net.cpp:148] Top shape: 10 256 13 13 (432640)
I0924 03:26:00.440608 25537 net.cpp:156] Memory required for data: 51674680
I0924 03:26:00.440613 25537 layer_factory.hpp:77] Creating layer norm2
I0924 03:26:00.440628 25537 net.cpp:91] Creating Layer norm2
I0924 03:26:00.440632 25537 net.cpp:425] norm2 <- pool2
I0924 03:26:00.440639 25537 net.cpp:399] norm2 -> norm2
I0924 03:26:00.441133 25537 net.cpp:141] Setting up norm2
I0924 03:26:00.441148 25537 net.cpp:148] Top shape: 10 256 13 13 (432640)
I0924 03:26:00.441154 25537 net.cpp:156] Memory required for data: 53405240
I0924 03:26:00.441159 25537 layer_factory.hpp:77] Creating layer conv3
I0924 03:26:00.441174 25537 net.cpp:91] Creating Layer conv3
I0924 03:26:00.441179 25537 net.cpp:425] conv3 <- norm2
I0924 03:26:00.441187 25537 net.cpp:399] conv3 -> conv3
I0924 03:26:00.445760 25537 net.cpp:141] Setting up conv3
I0924 03:26:00.445821 25537 net.cpp:148] Top shape: 10 384 13 13 (648960)
I0924 03:26:00.445827 25537 net.cpp:156] Memory required for data: 56001080
I0924 03:26:00.445849 25537 layer_factory.hpp:77] Creating layer relu3
I0924 03:26:00.445875 25537 net.cpp:91] Creating Layer relu3
I0924 03:26:00.445883 25537 net.cpp:425] relu3 <- conv3
I0924 03:26:00.445890 25537 net.cpp:386] relu3 -> conv3 (in-place)
I0924 03:26:00.446455 25537 net.cpp:141] Setting up relu3
I0924 03:26:00.446470 25537 net.cpp:148] Top shape: 10 384 13 13 (648960)
I0924 03:26:00.446475 25537 net.cpp:156] Memory required for data: 58596920
I0924 03:26:00.446480 25537 layer_factory.hpp:77] Creating layer conv4
I0924 03:26:00.446499 25537 net.cpp:91] Creating Layer conv4
I0924 03:26:00.446504 25537 net.cpp:425] conv4 <- conv3
I0924 03:26:00.446511 25537 net.cpp:399] conv4 -> conv4
I0924 03:26:00.455240 25570 net.cpp:141] Setting up predict
I0924 03:26:00.455302 25570 net.cpp:148] Top shape: 1 1 46168 (46168)
I0924 03:26:00.455308 25570 net.cpp:156] Memory required for data: 221084
I0924 03:26:00.455325 25570 layer_factory.hpp:77] Creating layer probs
I0924 03:26:00.455346 25570 net.cpp:91] Creating Layer probs
I0924 03:26:00.455355 25570 net.cpp:425] probs <- predict
I0924 03:26:00.455365 25570 net.cpp:399] probs -> probs
I0924 03:26:00.461608 25570 net.cpp:141] Setting up probs
I0924 03:26:00.461634 25570 net.cpp:148] Top shape: 1 1 46168 (46168)
I0924 03:26:00.461640 25570 net.cpp:156] Memory required for data: 405756
I0924 03:26:00.461647 25570 net.cpp:219] probs does not need backward computation.
I0924 03:26:00.461652 25570 net.cpp:219] predict does not need backward computation.
I0924 03:26:00.461659 25570 net.cpp:219] lstm2 does not need backward computation.
I0924 03:26:00.461666 25570 net.cpp:219] concat does not need backward computation.
I0924 03:26:00.461673 25570 net.cpp:219] lstm1 does not need backward computation.
I0924 03:26:00.461679 25570 net.cpp:219] embedding does not need backward computation.
I0924 03:26:00.461684 25570 net.cpp:219] reshape_stage_indicator does not need backward computation.
I0924 03:26:00.461689 25570 net.cpp:219] reshape_frames does not need backward computation.
I0924 03:26:00.461694 25570 net.cpp:219] embed_encoder does not need backward computation.
I0924 03:26:00.461699 25570 net.cpp:219] cont_sentence_input_1_split does not need backward computation.
I0924 03:26:00.461705 25570 net.cpp:219] input does not need backward computation.
I0924 03:26:00.461709 25570 net.cpp:261] This network produces output probs
I0924 03:26:00.461725 25570 net.cpp:274] Network initialization done.
I0924 03:26:00.463529 25537 net.cpp:141] Setting up conv4
I0924 03:26:00.463580 25537 net.cpp:148] Top shape: 10 384 13 13 (648960)
I0924 03:26:00.463587 25537 net.cpp:156] Memory required for data: 61192760
I0924 03:26:00.463601 25537 layer_factory.hpp:77] Creating layer relu4
I0924 03:26:00.464058 25537 net.cpp:91] Creating Layer relu4
I0924 03:26:00.464079 25537 net.cpp:425] relu4 <- conv4
I0924 03:26:00.464090 25537 net.cpp:386] relu4 -> conv4 (in-place)
I0924 03:26:00.465191 25537 net.cpp:141] Setting up relu4
I0924 03:26:00.465219 25537 net.cpp:148] Top shape: 10 384 13 13 (648960)
I0924 03:26:00.465224 25537 net.cpp:156] Memory required for data: 63788600
I0924 03:26:00.465229 25537 layer_factory.hpp:77] Creating layer conv5
I0924 03:26:00.465257 25537 net.cpp:91] Creating Layer conv5
I0924 03:26:00.465263 25537 net.cpp:425] conv5 <- conv4
I0924 03:26:00.465273 25537 net.cpp:399] conv5 -> conv5
I0924 03:26:00.481912 25537 net.cpp:141] Setting up conv5
I0924 03:26:00.481969 25537 net.cpp:148] Top shape: 10 256 13 13 (432640)
I0924 03:26:00.481976 25537 net.cpp:156] Memory required for data: 65519160
I0924 03:26:00.481998 25537 layer_factory.hpp:77] Creating layer relu5
I0924 03:26:00.482785 25537 net.cpp:91] Creating Layer relu5
I0924 03:26:00.482807 25537 net.cpp:425] relu5 <- conv5
I0924 03:26:00.482820 25537 net.cpp:386] relu5 -> conv5 (in-place)
I0924 03:26:00.485838 25537 net.cpp:141] Setting up relu5
I0924 03:26:00.485887 25537 net.cpp:148] Top shape: 10 256 13 13 (432640)
I0924 03:26:00.485898 25537 net.cpp:156] Memory required for data: 67249720
I0924 03:26:00.485908 25537 layer_factory.hpp:77] Creating layer pool5
I0924 03:26:00.485937 25537 net.cpp:91] Creating Layer pool5
I0924 03:26:00.485949 25537 net.cpp:425] pool5 <- conv5
I0924 03:26:00.485963 25537 net.cpp:399] pool5 -> pool5
I0924 03:26:00.486547 25537 net.cpp:141] Setting up pool5
I0924 03:26:00.486568 25537 net.cpp:148] Top shape: 10 256 6 6 (92160)
I0924 03:26:00.486577 25537 net.cpp:156] Memory required for data: 67618360
I0924 03:26:00.486593 25537 layer_factory.hpp:77] Creating layer fc6
I0924 03:26:00.486640 25537 net.cpp:91] Creating Layer fc6
I0924 03:26:00.486654 25537 net.cpp:425] fc6 <- pool5
I0924 03:26:00.486667 25537 net.cpp:399] fc6 -> fc6
I0924 03:26:00.565260 25564 net.cpp:141] Setting up predict
I0924 03:26:00.565443 25564 net.cpp:148] Top shape: 1 1 46168 (46168)
I0924 03:26:00.565451 25564 net.cpp:156] Memory required for data: 221084
I0924 03:26:00.565469 25564 layer_factory.hpp:77] Creating layer probs
I0924 03:26:00.565487 25564 net.cpp:91] Creating Layer probs
I0924 03:26:00.565497 25564 net.cpp:425] probs <- predict
I0924 03:26:00.565508 25564 net.cpp:399] probs -> probs
I0924 03:26:00.567435 25564 net.cpp:141] Setting up probs
I0924 03:26:00.567494 25564 net.cpp:148] Top shape: 1 1 46168 (46168)
I0924 03:26:00.567500 25564 net.cpp:156] Memory required for data: 405756
I0924 03:26:00.567512 25564 net.cpp:219] probs does not need backward computation.
I0924 03:26:00.567519 25564 net.cpp:219] predict does not need backward computation.
I0924 03:26:00.567526 25564 net.cpp:219] lstm2 does not need backward computation.
I0924 03:26:00.567533 25564 net.cpp:219] concat does not need backward computation.
I0924 03:26:00.567538 25564 net.cpp:219] lstm1 does not need backward computation.
I0924 03:26:00.567544 25564 net.cpp:219] embedding does not need backward computation.
I0924 03:26:00.567549 25564 net.cpp:219] reshape_stage_indicator does not need backward computation.
I0924 03:26:00.567554 25564 net.cpp:219] reshape_frames does not need backward computation.
I0924 03:26:00.567559 25564 net.cpp:219] embed_encoder does not need backward computation.
I0924 03:26:00.567564 25564 net.cpp:219] cont_sentence_input_1_split does not need backward computation.
I0924 03:26:00.567569 25564 net.cpp:219] input does not need backward computation.
I0924 03:26:00.567574 25564 net.cpp:261] This network produces output probs
I0924 03:26:00.567594 25564 net.cpp:274] Network initialization done.
I0924 03:26:00.609661 25537 net.cpp:141] Setting up fc6
I0924 03:26:00.609742 25537 net.cpp:148] Top shape: 10 4096 (40960)
I0924 03:26:00.609751 25537 net.cpp:156] Memory required for data: 67782200
I0924 03:26:00.609779 25537 layer_factory.hpp:77] Creating layer relu6
I0924 03:26:00.609818 25537 net.cpp:91] Creating Layer relu6
I0924 03:26:00.609866 25537 net.cpp:425] relu6 <- fc6
I0924 03:26:00.609889 25537 net.cpp:386] relu6 -> fc6 (in-place)
I0924 03:26:00.612097 25537 net.cpp:141] Setting up relu6
I0924 03:26:00.612159 25537 net.cpp:148] Top shape: 10 4096 (40960)
I0924 03:26:00.612169 25537 net.cpp:156] Memory required for data: 67946040
I0924 03:26:00.612181 25537 layer_factory.hpp:77] Creating layer drop6
I0924 03:26:00.613188 25537 net.cpp:91] Creating Layer drop6
I0924 03:26:00.613219 25537 net.cpp:425] drop6 <- fc6
I0924 03:26:00.613243 25537 net.cpp:386] drop6 -> fc6 (in-place)
I0924 03:26:00.613445 25537 net.cpp:141] Setting up drop6
I0924 03:26:00.613471 25537 net.cpp:148] Top shape: 10 4096 (40960)
I0924 03:26:00.613481 25537 net.cpp:156] Memory required for data: 68109880
I0924 03:26:00.613493 25537 layer_factory.hpp:77] Creating layer fc7
I0924 03:26:00.613788 25537 net.cpp:91] Creating Layer fc7
I0924 03:26:00.613806 25537 net.cpp:425] fc7 <- fc6
I0924 03:26:00.613821 25537 net.cpp:399] fc7 -> fc7
I0924 03:26:00.646648 25531 net.cpp:141] Setting up predict
I0924 03:26:00.646723 25531 net.cpp:148] Top shape: 1 1 46168 (46168)
I0924 03:26:00.646730 25531 net.cpp:156] Memory required for data: 221084
I0924 03:26:00.646757 25531 layer_factory.hpp:77] Creating layer probs
I0924 03:26:00.646780 25531 net.cpp:91] Creating Layer probs
I0924 03:26:00.646800 25531 net.cpp:425] probs <- predict
I0924 03:26:00.646811 25531 net.cpp:399] probs -> probs
I0924 03:26:00.647496 25531 net.cpp:141] Setting up probs
I0924 03:26:00.647511 25531 net.cpp:148] Top shape: 1 1 46168 (46168)
I0924 03:26:00.647516 25531 net.cpp:156] Memory required for data: 405756
I0924 03:26:00.647521 25531 net.cpp:219] probs does not need backward computation.
I0924 03:26:00.647526 25531 net.cpp:219] predict does not need backward computation.
I0924 03:26:00.647543 25531 net.cpp:219] lstm2 does not need backward computation.
I0924 03:26:00.647552 25531 net.cpp:219] concat does not need backward computation.
I0924 03:26:00.647557 25531 net.cpp:219] lstm1 does not need backward computation.
I0924 03:26:00.647564 25531 net.cpp:219] embedding does not need backward computation.
I0924 03:26:00.647569 25531 net.cpp:219] reshape_stage_indicator does not need backward computation.
I0924 03:26:00.647574 25531 net.cpp:219] reshape_frames does not need backward computation.
I0924 03:26:00.647581 25531 net.cpp:219] embed_encoder does not need backward computation.
I0924 03:26:00.647586 25531 net.cpp:219] cont_sentence_input_1_split does not need backward computation.
I0924 03:26:00.647591 25531 net.cpp:219] input does not need backward computation.
I0924 03:26:00.647595 25531 net.cpp:261] This network produces output probs
I0924 03:26:00.647624 25531 net.cpp:274] Network initialization done.
I0924 03:26:00.667762 25537 net.cpp:141] Setting up fc7
I0924 03:26:00.667829 25537 net.cpp:148] Top shape: 10 4096 (40960)
I0924 03:26:00.667840 25537 net.cpp:156] Memory required for data: 68273720
I0924 03:26:00.667861 25537 layer_factory.hpp:77] Creating layer relu7
I0924 03:26:00.667891 25537 net.cpp:91] Creating Layer relu7
I0924 03:26:00.667901 25537 net.cpp:425] relu7 <- fc7
I0924 03:26:00.667914 25537 net.cpp:386] relu7 -> fc7 (in-place)
I0924 03:26:00.669940 25537 net.cpp:141] Setting up relu7
I0924 03:26:00.670002 25537 net.cpp:148] Top shape: 10 4096 (40960)
I0924 03:26:00.670012 25537 net.cpp:156] Memory required for data: 68437560
I0924 03:26:00.670032 25537 layer_factory.hpp:77] Creating layer drop7
I0924 03:26:00.670058 25537 net.cpp:91] Creating Layer drop7
I0924 03:26:00.670069 25537 net.cpp:425] drop7 <- fc7
I0924 03:26:00.670085 25537 net.cpp:386] drop7 -> fc7 (in-place)
I0924 03:26:00.670439 25537 net.cpp:141] Setting up drop7
I0924 03:26:00.670459 25537 net.cpp:148] Top shape: 10 4096 (40960)
I0924 03:26:00.670466 25537 net.cpp:156] Memory required for data: 68601400
I0924 03:26:00.670476 25537 layer_factory.hpp:77] Creating layer fc8
I0924 03:26:00.670493 25537 net.cpp:91] Creating Layer fc8
I0924 03:26:00.670503 25537 net.cpp:425] fc8 <- fc7
I0924 03:26:00.670522 25537 net.cpp:399] fc8 -> fc8
I0924 03:26:00.684393 25537 net.cpp:141] Setting up fc8
I0924 03:26:00.684453 25537 net.cpp:148] Top shape: 10 1000 (10000)
I0924 03:26:00.684463 25537 net.cpp:156] Memory required for data: 68641400
I0924 03:26:00.684511 25537 layer_factory.hpp:77] Creating layer prob
I0924 03:26:00.684536 25537 net.cpp:91] Creating Layer prob
I0924 03:26:00.684546 25537 net.cpp:425] prob <- fc8
I0924 03:26:00.684900 25537 net.cpp:399] prob -> prob
I0924 03:26:00.686990 25537 net.cpp:141] Setting up prob
I0924 03:26:00.687055 25537 net.cpp:148] Top shape: 10 1000 (10000)
I0924 03:26:00.687065 25537 net.cpp:156] Memory required for data: 68681400
I0924 03:26:00.687079 25537 net.cpp:219] prob does not need backward computation.
I0924 03:26:00.687090 25537 net.cpp:219] fc8 does not need backward computation.
I0924 03:26:00.687098 25537 net.cpp:219] drop7 does not need backward computation.
I0924 03:26:00.687106 25537 net.cpp:219] relu7 does not need backward computation.
…
