…
W0925 23:18:21.845495 29950 upgrade_proto.cpp:71] Note that future Caffe releases will only support input layers and not input fields.
I0925 23:18:21.845726 29980 net.cpp:49] Initializing net from parameters: 
name: "s2vt:features_to_lstm"
state {
  phase: TEST
}
layer {
  name: "input"
  type: "Input"
  top: "frames_fc7"
  top: "cont_sentence"
  top: "input_sentence"
  top: "stage_indicator"
  input_param {
    shape {
      dim: 1
      dim: 4096
    }
    shape {
      dim: 1
      dim: 1
    }
    shape {
      dim: 1
      dim: 1
    }
    shape {
      dim: 1
      dim: 1
    }
  }
}
layer {
  name: "embed_encoder"
  type: "InnerProduct"
  bottom: "frames_fc7"
  top: "embedded_in_frames"
  param {
    lr_mult: 1
    decay_mult: 1
  }
  param {
    lr_mult: 2
    decay_mult: 0
  }
  inner_product_param {
    num_output: 500
    weight_filler {
      type: "xavier"
    }
    bias_filler {
      type: "constant"
      value: 0.2
    }
  }
}
layer {
  name: "reshape_frames"
  type: "Reshape"
  bottom: "embedded_in_frames"
  top: "embedded_input_frames"
  reshape_param {
    shape {
      dim: 1
      dim: 1
      dim: 500
    }
  }
}
layer {
  name: "reshape_stage_indicator"
  type: "Reshape"
  bottom: "stage_indicator"
  top: "reshaped_stage_indicator"
  reshape_param {
    shape {
      dim: 1
      dim: 1
      dim: 1
    }
  }
}
layer {
  name: "embedding"
  type: "Embed"
  bottom: "input_sentence"
  top: "embedded_input_sentence"
  param {
    lr_mult: 1
  }
  embed_param {
    num_output: 500
    input_dim: 46168
    bias_term: false
    weight_filler {
      type: "uniform"
      min: -0.08
      max: 0.08
    }
  }
}
layer {
  name: "lstm1"
  type: "LSTM"
  bottom: "embedded_input_frames"
  bottom: "cont_sentence"
  top: "lstm1"
  recurrent_param {
    num_output: 1000
    weight_filler {
      type: "uniform"
      min: -0.08
      max: 0.08
    }
    bias_filler {
      type: "constant"
      value: 0
    }
  }
}
layer {
  name: "concat"
  type: "Concat"
  bottom: "lstm1"
  bottom: "embedded_input_sentence"
  bottom: "reshaped_stage_indicator"
  top: "lstm1_video_sequence"
  concat_param {
    concat_dim: 2
  }
}
layer {
  name: "lstm2"
  type: "LSTM"
  bottom: "lstm1_video_sequence"
  bottom: "cont_sentence"
  top: "lstm2"
  recurrent_param {
    num_output: 1000
    weight_filler {
      type: "uniform"
      min: -0.08
      max: 0.08
    }
    bias_filler {
      type: "constant"
      value: 0
    }
  }
}
layer {
  name: "predict"
  type: "InnerProduct"
  bottom: "lstm2"
  top: "predict"
  param {
    lr_mult: 1
    decay_mult: 1
  }
  param {
    lr_mult: 2
    decay_mult: 0
  }
  inner_product_param {
    num_output: 46168
    weight_filler {
      type: "uniform"
      min: -0.08
      max: 0.08
    }
    bias_filler {
      type: "constant"
      value: 0
    }
    axis: 2
  }
}
layer {
  name: "probs"
  type: "Softmax"
  bottom: "predict"
  top: "probs"
  softmax_param {
    axis: 2
  }
}
I0925 23:18:21.845728 30006 net.cpp:49] Initializing net from parameters: 
name: "s2vt:features_to_lstm"
state {
  phase: TEST
}
layer {
  name: "input"
  type: "Input"
  top: "frames_fc7"
  top: "cont_sentence"
  top: "input_sentence"
  top: "stage_indicator"
  input_param {
    shape {
      dim: 1
      dim: 4096
    }
    shape {
      dim: 1
      dim: 1
    }
    shape {
      dim: 1
      dim: 1
    }
    shape {
      dim: 1
      dim: 1
    }
  }
}
layer {
  name: "embed_encoder"
  type: "InnerProduct"
  bottom: "frames_fc7"
  top: "embedded_in_frames"
  param {
    lr_mult: 1
    decay_mult: 1
  }
  param {
    lr_mult: 2
    decay_mult: 0
  }
  inner_product_param {
    num_output: 500
    weight_filler {
      type: "xavier"
    }
    bias_filler {
      type: "constant"
      value: 0.2
    }
  }
}
layer {
  name: "reshape_frames"
  type: "Reshape"
  bottom: "embedded_in_frames"
  top: "embedded_input_frames"
  reshape_param {
    shape {
      dim: 1
      dim: 1
      dim: 500
    }
  }
}
layer {
  name: "reshape_stage_indicator"
  type: "Reshape"
  bottom: "stage_indicator"
  top: "reshaped_stage_indicator"
  reshape_param {
    shape {
      dim: 1
      dim: 1
      dim: 1
    }
  }
}
layer {
  name: "embedding"
  type: "Embed"
  bottom: "input_sentence"
  top: "embedded_input_sentence"
  param {
    lr_mult: 1
  }
  embed_param {
    num_output: 500
    input_dim: 46168
    bias_term: false
    weight_filler {
      type: "uniform"
      min: -0.08
      max: 0.08
    }
  }
}
layer {
  name: "lstm1"
  type: "LSTM"
  bottom: "embedded_input_frames"
  bottom: "cont_sentence"
  top: "lstm1"
  recurrent_param {
    num_output: 1000
    weight_filler {
      type: "uniform"
      min: -0.08
      max: 0.08
    }
    bias_filler {
      type: "constant"
      value: 0
    }
  }
}
layer {
  name: "concat"
  type: "Concat"
  bottom: "lstm1"
  bottom: "embedded_input_sentence"
  bottom: "reshaped_stage_indicator"
  top: "lstm1_video_sequence"
  concat_param {
    concat_dim: 2
  }
}
layer {
  name: "lstm2"
  type: "LSTM"
  bottom: "lstm1_video_sequence"
  bottom: "cont_sentence"
  top: "lstm2"
  recurrent_param {
    num_output: 1000
    weight_filler {
      type: "uniform"
      min: -0.08
      max: 0.08
    }
    bias_filler {
      type: "constant"
      value: 0
    }
  }
}
layer {
  name: "predict"
  type: "InnerProduct"
  bottom: "lstm2"
  top: "predict"
  param {
    lr_mult: 1
    decay_mult: 1
  }
  param {
    lr_mult: 2
    decay_mult: 0
  }
  inner_product_param {
    num_output: 46168
    weight_filler {
      type: "uniform"
      min: -0.08
      max: 0.08
    }
    bias_filler {
      type: "constant"
      value: 0
    }
    axis: 2
  }
}
layer {
  name: "probs"
  type: "Softmax"
  bottom: "predict"
  top: "probs"
  softmax_param {
    axis: 2
  }
}
I0925 23:18:21.845728 29974 net.cpp:49] Initializing net from parameters: 
name: "s2vt:features_to_lstm"
state {
  phase: TEST
}
layer {
  name: "input"
  type: "Input"
  top: "frames_fc7"
  top: "cont_sentence"
  top: "input_sentence"
  top: "stage_indicator"
  input_param {
    shape {
      dim: 1
      dim: 4096
    }
    shape {
      dim: 1
      dim: 1
    }
    shape {
      dim: 1
      dim: 1
    }
    shape {
      dim: 1
      dim: 1
    }
  }
}
layer {
  name: "embed_encoder"
  type: "InnerProduct"
  bottom: "frames_fc7"
  top: "embedded_in_frames"
  param {
    lr_mult: 1
    decay_mult: 1
  }
  param {
    lr_mult: 2
    decay_mult: 0
  }
  inner_product_param {
    num_output: 500
    weight_filler {
      type: "xavier"
    }
    bias_filler {
      type: "constant"
      value: 0.2
    }
  }
}
layer {
  name: "reshape_frames"
  type: "Reshape"
  bottom: "embedded_in_frames"
  top: "embedded_input_frames"
  reshape_param {
    shape {
      dim: 1
      dim: 1
      dim: 500
    }
  }
}
layer {
  name: "reshape_stage_indicator"
  type: "Reshape"
  bottom: "stage_indicator"
  top: "reshaped_stage_indicator"
  reshape_param {
    shape {
      dim: 1
      dim: 1
      dim: 1
    }
  }
}
layer {
  name: "embedding"
  type: "Embed"
  bottom: "input_sentence"
  top: "embedded_input_sentence"
  param {
    lr_mult: 1
  }
  embed_param {
    num_output: 500
    input_dim: 46168
    bias_term: false
    weight_filler {
      type: "uniform"
      min: -0.08
      max: 0.08
    }
  }
}
layer {
  name: "lstm1"
  type: "LSTM"
  bottom: "embedded_input_frames"
  bottom: "cont_sentence"
  top: "lstm1"
  recurrent_param {
    num_output: 1000
    weight_filler {
      type: "uniform"
      min: -0.08
      max: 0.08
    }
    bias_filler {
      type: "constant"
      value: 0
    }
  }
}
layer {
  name: "concat"
  type: "Concat"
  bottom: "lstm1"
  bottom: "embedded_input_sentence"
  bottom: "reshaped_stage_indicator"
  top: "lstm1_video_sequence"
  concat_param {
    concat_dim: 2
  }
}
layer {
  name: "lstm2"
  type: "LSTM"
  bottom: "lstm1_video_sequence"
  bottom: "cont_sentence"
  top: "lstm2"
  recurrent_param {
    num_output: 1000
    weight_filler {
      type: "uniform"
      min: -0.08
      max: 0.08
    }
    bias_filler {
      type: "constant"
      value: 0
    }
  }
}
layer {
  name: "predict"
  type: "InnerProduct"
  bottom: "lstm2"
  top: "predict"
  param {
    lr_mult: 1
    decay_mult: 1
  }
  param {
    lr_mult: 2
    decay_mult: 0
  }
  inner_product_param {
    num_output: 46168
    weight_filler {
      type: "uniform"
      min: -0.08
      max: 0.08
    }
    bias_filler {
      type: "constant"
      value: 0
    }
    axis: 2
  }
}
layer {
  name: "probs"
  type: "Softmax"
  bottom: "predict"
  top: "probs"
  softmax_param {
    axis: 2
  }
}
I0925 23:18:21.845752 29968 net.cpp:49] Initializing net from parameters: 
name: "s2vt:features_to_lstm"
state {
  phase: TEST
}
layer {
  name: "input"
  type: "Input"
  top: "frames_fc7"
  top: "cont_sentence"
  top: "input_sentence"
  top: "stage_indicator"
  input_param {
    shape {
      dim: 1
      dim: 4096
    }
    shape {
      dim: 1
      dim: 1
    }
    shape {
      dim: 1
      dim: 1
    }
    shape {
      dim: 1
      dim: 1
    }
  }
}
layer {
  name: "embed_encoder"
  type: "InnerProduct"
  bottom: "frames_fc7"
  top: "embedded_in_frames"
  param {
    lr_mult: 1
    decay_mult: 1
  }
  param {
    lr_mult: 2
    decay_mult: 0
  }
  inner_product_param {
    num_output: 500
    weight_filler {
      type: "xavier"
    }
    bias_filler {
      type: "constant"
      value: 0.2
    }
  }
}
layer {
  name: "reshape_frames"
  type: "Reshape"
  bottom: "embedded_in_frames"
  top: "embedded_input_frames"
  reshape_param {
    shape {
      dim: 1
      dim: 1
      dim: 500
    }
  }
}
layer {
  name: "reshape_stage_indicator"
  type: "Reshape"
  bottom: "stage_indicator"
  top: "reshaped_stage_indicator"
  reshape_param {
    shape {
      dim: 1
      dim: 1
      dim: 1
    }
  }
}
layer {
  name: "embedding"
  type: "Embed"
  bottom: "input_sentence"
  top: "embedded_input_sentence"
  param {
    lr_mult: 1
  }
  embed_param {
    num_output: 500
    input_dim: 46168
    bias_term: false
    weight_filler {
      type: "uniform"
      min: -0.08
      max: 0.08
    }
  }
}
layer {
  name: "lstm1"
  type: "LSTM"
  bottom: "embedded_input_frames"
  bottom: "cont_sentence"
  top: "lstm1"
  recurrent_param {
    num_output: 1000
    weight_filler {
      type: "uniform"
      min: -0.08
      max: 0.08
    }
    bias_filler {
      type: "constant"
      value: 0
    }
  }
}
layer {
  name: "concat"
  type: "Concat"
  bottom: "lstm1"
  bottom: "embedded_input_sentence"
  bottom: "reshaped_stage_indicator"
  top: "lstm1_video_sequence"
  concat_param {
    concat_dim: 2
  }
}
layer {
  name: "lstm2"
  type: "LSTM"
  bottom: "lstm1_video_sequence"
  bottom: "cont_sentence"
  top: "lstm2"
  recurrent_param {
    num_output: 1000
    weight_filler {
      type: "uniform"
      min: -0.08
      max: 0.08
    }
    bias_filler {
      type: "constant"
      value: 0
    }
  }
}
layer {
  name: "predict"
  type: "InnerProduct"
  bottom: "lstm2"
  top: "predict"
  param {
    lr_mult: 1
    decay_mult: 1
  }
  param {
    lr_mult: 2
    decay_mult: 0
  }
  inner_product_param {
    num_output: 46168
    weight_filler {
      type: "uniform"
      min: -0.08
      max: 0.08
    }
    bias_filler {
      type: "constant"
      value: 0
    }
    axis: 2
  }
}
layer {
  name: "probs"
  type: "Softmax"
  bottom: "predict"
  top: "probs"
  softmax_param {
    axis: 2
  }
}
I0925 23:18:21.845762 29960 net.cpp:49] Initializing net from parameters: 
name: "CaffeNet"
state {
  phase: TEST
}
layer {
  name: "data"
  type: "Input"
  top: "data"
  input_param {
    shape {
      dim: 10
      dim: 3
      dim: 227
      dim: 227
    }
  }
}
layer {
  name: "conv1"
  type: "Convolution"
  bottom: "data"
  top: "conv1"
  convolution_param {
    num_output: 96
    kernel_size: 11
    stride: 4
  }
}
layer {
  name: "relu1"
  type: "ReLU"
  bottom: "conv1"
  top: "conv1"
}
layer {
  name: "pool1"
  type: "Pooling"
  bottom: "conv1"
  top: "pool1"
  pooling_param {
    pool: MAX
    kernel_size: 3
    stride: 2
  }
}
layer {
  name: "norm1"
  type: "LRN"
  bottom: "pool1"
  top: "norm1"
  lrn_param {
    local_size: 5
    alpha: 0.0001
    beta: 0.75
  }
}
layer {
  name: "conv2"
  type: "Convolution"
  bottom: "norm1"
  top: "conv2"
  convolution_param {
    num_output: 256
    pad: 2
    kernel_size: 5
    group: 2
  }
}
layer {
  name: "relu2"
  type: "ReLU"
  bottom: "conv2"
  top: "conv2"
}
layer {
  name: "pool2"
  type: "Pooling"
  bottom: "conv2"
  top: "pool2"
  pooling_param {
    pool: MAX
    kernel_size: 3
    stride: 2
  }
}
layer {
  name: "norm2"
  type: "LRN"
  bottom: "pool2"
  top: "norm2"
  lrn_param {
    local_size: 5
    alpha: 0.0001
    beta: 0.75
  }
}
layer {
  name: "conv3"
  type: "Convolution"
  bottom: "norm2"
  top: "conv3"
  convolution_param {
    num_output: 384
    pad: 1
    kernel_size: 3
  }
}
layer {
  name: "relu3"
  type: "ReLU"
  bottom: "conv3"
  top: "conv3"
}
layer {
  name: "conv4"
  type: "Convolution"
  bottom: "conv3"
  top: "conv4"
  convolution_param {
    num_output: 384
    pad: 1
    kernel_size: 3
    group: 2
  }
}
layer {
  name: "relu4"
  type: "ReLU"
  bottom: "conv4"
  top: "conv4"
}
layer {
  name: "conv5"
  type: "Convolution"
  bottom: "conv4"
  top: "conv5"
  convolution_param {
    num_output: 256
    pad: 1
    kernel_size: 3
    group: 2
  }
}
layer {
  name: "relu5"
  type: "ReLU"
  bottom: "conv5"
  top: "conv5"
}
layer {
  name: "pool5"
  type: "Pooling"
  bottom: "conv5"
  top: "pool5"
  pooling_param {
    pool: MAX
    kernel_size: 3
    stride: 2
  }
}
layer {
  name: "fc6"
  type: "InnerProduct"
  bottom: "pool5"
  top: "fc6"
  inner_product_param {
    num_output: 4096
  }
}
layer {
  name: "relu6"
  type: "ReLU"
  bottom: "fc6"
  top: "fc6"
}
layer {
  name: "drop6"
  type: "Dropout"
  bottom: "fc6"
  top: "fc6"
  dropout_param {
    dropout_ratio: 0.5
  }
}
layer {
  name: "fc7"
  type: "InnerProduct"
  bottom: "fc6"
  top: "fc7"
  inner_product_param {
    num_output: 4096
  }
}
layer {
  name: "relu7"
  type: "ReLU"
  bottom: "fc7"
  top: "fc7"
}
layer {
  name: "drop7"
  type: "Dropout"
  bottom: "fc7"
  top: "fc7"
  dropout_param {
    dropout_ratio: 0.5
  }
}
layer {
  name: "fc8"
  type: "InnerProduct"
  bottom: "fc7"
  top: "fc8"
  inner_product_param {
    num_output: 1000
  }
}
layer {
  name: "prob"
  type: "Softmax"
  bottom: "fc8"
  top: "prob"
}
I0925 23:18:21.845729 29958 net.cpp:49] Initializing net from parameters: 
name: "s2vt:features_to_lstm"
state {
  phase: TEST
}
layer {
  name: "input"
  type: "Input"
  top: "frames_fc7"
  top: "cont_sentence"
  top: "input_sentence"
  top: "stage_indicator"
  input_param {
    shape {
      dim: 1
      dim: 4096
    }
    shape {
      dim: 1
      dim: 1
    }
    shape {
      dim: 1
      dim: 1
    }
    shape {
      dim: 1
      dim: 1
    }
  }
}
layer {
  name: "embed_encoder"
  type: "InnerProduct"
  bottom: "frames_fc7"
  top: "embedded_in_frames"
  param {
    lr_mult: 1
    decay_mult: 1
  }
  param {
    lr_mult: 2
    decay_mult: 0
  }
  inner_product_param {
    num_output: 500
    weight_filler {
      type: "xavier"
    }
    bias_filler {
      type: "constant"
      value: 0.2
    }
  }
}
layer {
  name: "reshape_frames"
  type: "Reshape"
  bottom: "embedded_in_frames"
  top: "embedded_input_frames"
  reshape_param {
    shape {
      dim: 1
      dim: 1
      dim: 500
    }
  }
}
layer {
  name: "reshape_stage_indicator"
  type: "Reshape"
  bottom: "stage_indicator"
  top: "reshaped_stage_indicator"
  reshape_param {
    shape {
      dim: 1
      dim: 1
      dim: 1
    }
  }
}
layer {
  name: "embedding"
  type: "Embed"
  bottom: "input_sentence"
  top: "embedded_input_sentence"
  param {
    lr_mult: 1
  }
  embed_param {
    num_output: 500
    input_dim: 46168
    bias_term: false
    weight_filler {
      type: "uniform"
      min: -0.08
      max: 0.08
    }
  }
}
layer {
  name: "lstm1"
  type: "LSTM"
  bottom: "embedded_input_frames"
  bottom: "cont_sentence"
  top: "lstm1"
  recurrent_param {
    num_output: 1000
    weight_filler {
      type: "uniform"
      min: -0.08
      max: 0.08
    }
    bias_filler {
      type: "constant"
      value: 0
    }
  }
}
layer {
  name: "concat"
  type: "Concat"
  bottom: "lstm1"
  bottom: "embedded_input_sentence"
  bottom: "reshaped_stage_indicator"
  top: "lstm1_video_sequence"
  concat_param {
    concat_dim: 2
  }
}
layer {
  name: "lstm2"
  type: "LSTM"
  bottom: "lstm1_video_sequence"
  bottom: "cont_sentence"
  top: "lstm2"
  recurrent_param {
    num_output: 1000
    weight_filler {
      type: "uniform"
      min: -0.08
      max: 0.08
    }
    bias_filler {
      type: "constant"
      value: 0
    }
  }
}
layer {
  name: "predict"
  type: "InnerProduct"
  bottom: "lstm2"
  top: "predict"
  param {
    lr_mult: 1
    decay_mult: 1
  }
  param {
    lr_mult: 2
    decay_mult: 0
  }
  inner_product_param {
    num_output: 46168
    weight_filler {
      type: "uniform"
      min: -0.08
      max: 0.08
    }
    bias_filler {
      type: "constant"
      value: 0
    }
    axis: 2
  }
}
layer {
  name: "probs"
  type: "Softmax"
  bottom: "predict"
  top: "probs"
  softmax_param {
    axis: 2
  }
}
I0925 23:18:21.845728 29994 net.cpp:49] Initializing net from parameters: 
name: "s2vt:features_to_lstm"
state {
  phase: TEST
}
layer {
  name: "input"
  type: "Input"
  top: "frames_fc7"
  top: "cont_sentence"
  top: "input_sentence"
  top: "stage_indicator"
  input_param {
    shape {
      dim: 1
      dim: 4096
    }
    shape {
      dim: 1
      dim: 1
    }
    shape {
      dim: 1
      dim: 1
    }
    shape {
      dim: 1
      dim: 1
    }
  }
}
layer {
  name: "embed_encoder"
  type: "InnerProduct"
  bottom: "frames_fc7"
  top: "embedded_in_frames"
  param {
    lr_mult: 1
    decay_mult: 1
  }
  param {
    lr_mult: 2
    decay_mult: 0
  }
  inner_product_param {
    num_output: 500
    weight_filler {
      type: "xavier"
    }
    bias_filler {
      type: "constant"
      value: 0.2
    }
  }
}
layer {
  name: "reshape_frames"
  type: "Reshape"
  bottom: "embedded_in_frames"
  top: "embedded_input_frames"
  reshape_param {
    shape {
      dim: 1
      dim: 1
      dim: 500
    }
  }
}
layer {
  name: "reshape_stage_indicator"
  type: "Reshape"
  bottom: "stage_indicator"
  top: "reshaped_stage_indicator"
  reshape_param {
    shape {
      dim: 1
      dim: 1
      dim: 1
    }
  }
}
layer {
  name: "embedding"
  type: "Embed"
  bottom: "input_sentence"
  top: "embedded_input_sentence"
  param {
    lr_mult: 1
  }
  embed_param {
    num_output: 500
    input_dim: 46168
    bias_term: false
    weight_filler {
      type: "uniform"
      min: -0.08
      max: 0.08
    }
  }
}
layer {
  name: "lstm1"
  type: "LSTM"
  bottom: "embedded_input_frames"
  bottom: "cont_sentence"
  top: "lstm1"
  recurrent_param {
    num_output: 1000
    weight_filler {
      type: "uniform"
      min: -0.08
      max: 0.08
    }
    bias_filler {
      type: "constant"
      value: 0
    }
  }
}
layer {
  name: "concat"
  type: "Concat"
  bottom: "lstm1"
  bottom: "embedded_input_sentence"
  bottom: "reshaped_stage_indicator"
  top: "lstm1_video_sequence"
  concat_param {
    concat_dim: 2
  }
}
layer {
  name: "lstm2"
  type: "LSTM"
  bottom: "lstm1_video_sequence"
  bottom: "cont_sentence"
  top: "lstm2"
  recurrent_param {
    num_output: 1000
    weight_filler {
      type: "uniform"
      min: -0.08
      max: 0.08
    }
    bias_filler {
      type: "constant"
      value: 0
    }
  }
}
layer {
  name: "predict"
  type: "InnerProduct"
  bottom: "lstm2"
  top: "predict"
  param {
    lr_mult: 1
    decay_mult: 1
  }
  param {
    lr_mult: 2
    decay_mult: 0
  }
  inner_product_param {
    num_output: 46168
    weight_filler {
      type: "uniform"
      min: -0.08
      max: 0.08
    }
    bias_filler {
      type: "constant"
      value: 0
    }
    axis: 2
  }
}
layer {
  name: "probs"
  type: "Softmax"
  bottom: "predict"
  top: "probs"
  softmax_param {
    axis: 2
  }
}
I0925 23:18:21.845788 30002 net.cpp:49] Initializing net from parameters: 
name: "s2vt:features_to_lstm"
state {
  phase: TEST
}
layer {
  name: "input"
  type: "Input"
  top: "frames_fc7"
  top: "cont_sentence"
  top: "input_sentence"
  top: "stage_indicator"
  input_param {
    shape {
      dim: 1
      dim: 4096
    }
    shape {
      dim: 1
      dim: 1
    }
    shape {
      dim: 1
      dim: 1
    }
    shape {
      dim: 1
      dim: 1
    }
  }
}
layer {
  name: "embed_encoder"
  type: "InnerProduct"
  bottom: "frames_fc7"
  top: "embedded_in_frames"
  param {
    lr_mult: 1
    decay_mult: 1
  }
  param {
    lr_mult: 2
    decay_mult: 0
  }
  inner_product_param {
    num_output: 500
    weight_filler {
      type: "xavier"
    }
    bias_filler {
      type: "constant"
      value: 0.2
    }
  }
}
layer {
  name: "reshape_frames"
  type: "Reshape"
  bottom: "embedded_in_frames"
  top: "embedded_input_frames"
  reshape_param {
    shape {
      dim: 1
      dim: 1
      dim: 500
    }
  }
}
layer {
  name: "reshape_stage_indicator"
  type: "Reshape"
  bottom: "stage_indicator"
  top: "reshaped_stage_indicator"
  reshape_param {
    shape {
      dim: 1
      dim: 1
      dim: 1
    }
  }
}
layer {
  name: "embedding"
  type: "Embed"
  bottom: "input_sentence"
  top: "embedded_input_sentence"
  param {
    lr_mult: 1
  }
  embed_param {
    num_output: 500
    input_dim: 46168
    bias_term: false
    weight_filler {
      type: "uniform"
      min: -0.08
      max: 0.08
    }
  }
}
layer {
  name: "lstm1"
  type: "LSTM"
  bottom: "embedded_input_frames"
  bottom: "cont_sentence"
  top: "lstm1"
  recurrent_param {
    num_output: 1000
    weight_filler {
      type: "uniform"
      min: -0.08
      max: 0.08
    }
    bias_filler {
      type: "constant"
      value: 0
    }
  }
}
layer {
  name: "concat"
  type: "Concat"
  bottom: "lstm1"
  bottom: "embedded_input_sentence"
  bottom: "reshaped_stage_indicator"
  top: "lstm1_video_sequence"
  concat_param {
    concat_dim: 2
  }
}
layer {
  name: "lstm2"
  type: "LSTM"
  bottom: "lstm1_video_sequence"
  bottom: "cont_sentence"
  top: "lstm2"
  recurrent_param {
    num_output: 1000
    weight_filler {
      type: "uniform"
      min: -0.08
      max: 0.08
    }
    bias_filler {
      type: "constant"
      value: 0
    }
  }
}
layer {
  name: "predict"
  type: "InnerProduct"
  bottom: "lstm2"
  top: "predict"
  param {
    lr_mult: 1
    decay_mult: 1
  }
  param {
    lr_mult: 2
    decay_mult: 0
  }
  inner_product_param {
    num_output: 46168
    weight_filler {
      type: "uniform"
      min: -0.08
      max: 0.08
    }
    bias_filler {
      type: "constant"
      value: 0
    }
    axis: 2
  }
}
layer {
  name: "probs"
  type: "Softmax"
  bottom: "predict"
  top: "probs"
  softmax_param {
    axis: 2
  }
}
I0925 23:18:21.845772 29946 net.cpp:49] Initializing net from parameters: 
name: "s2vt:features_to_lstm"
state {
  phase: TEST
}
layer {
  name: "input"
  type: "Input"
  top: "frames_fc7"
  top: "cont_sentence"
  top: "input_sentence"
  top: "stage_indicator"
  input_param {
    shape {
      dim: 1
      dim: 4096
    }
    shape {
      dim: 1
      dim: 1
    }
    shape {
      dim: 1
      dim: 1
    }
    shape {
      dim: 1
      dim: 1
    }
  }
}
layer {
  name: "embed_encoder"
  type: "InnerProduct"
  bottom: "frames_fc7"
  top: "embedded_in_frames"
  param {
    lr_mult: 1
    decay_mult: 1
  }
  param {
    lr_mult: 2
    decay_mult: 0
  }
  inner_product_param {
    num_output: 500
    weight_filler {
      type: "xavier"
    }
    bias_filler {
      type: "constant"
      value: 0.2
    }
  }
}
layer {
  name: "reshape_frames"
  type: "Reshape"
  bottom: "embedded_in_frames"
  top: "embedded_input_frames"
  reshape_param {
    shape {
      dim: 1
      dim: 1
      dim: 500
    }
  }
}
layer {
  name: "reshape_stage_indicator"
  type: "Reshape"
  bottom: "stage_indicator"
  top: "reshaped_stage_indicator"
  reshape_param {
    shape {
      dim: 1
      dim: 1
      dim: 1
    }
  }
}
layer {
  name: "embedding"
  type: "Embed"
  bottom: "input_sentence"
  top: "embedded_input_sentence"
  param {
    lr_mult: 1
  }
  embed_param {
    num_output: 500
    input_dim: 46168
    bias_term: false
    weight_filler {
      type: "uniform"
      min: -0.08
      max: 0.08
    }
  }
}
layer {
  name: "lstm1"
  type: "LSTM"
  bottom: "embedded_input_frames"
  bottom: "cont_sentence"
  top: "lstm1"
  recurrent_param {
    num_output: 1000
    weight_filler {
      type: "uniform"
      min: -0.08
      max: 0.08
    }
    bias_filler {
      type: "constant"
      value: 0
    }
  }
}
layer {
  name: "concat"
  type: "Concat"
  bottom: "lstm1"
  bottom: "embedded_input_sentence"
  bottom: "reshaped_stage_indicator"
  top: "lstm1_video_sequence"
  concat_param {
    concat_dim: 2
  }
}
layer {
  name: "lstm2"
  type: "LSTM"
  bottom: "lstm1_video_sequence"
  bottom: "cont_sentence"
  top: "lstm2"
  recurrent_param {
    num_output: 1000
    weight_filler {
      type: "uniform"
      min: -0.08
      max: 0.08
    }
    bias_filler {
      type: "constant"
      value: 0
    }
  }
}
layer {
  name: "predict"
  type: "InnerProduct"
  bottom: "lstm2"
  top: "predict"
  param {
    lr_mult: 1
    decay_mult: 1
  }
  param {
    lr_mult: 2
    decay_mult: 0
  }
  inner_product_param {
    num_output: 46168
    weight_filler {
      type: "uniform"
      min: -0.08
      max: 0.08
    }
    bias_filler {
      type: "constant"
      value: 0
    }
    axis: 2
  }
}
layer {
  name: "probs"
  type: "Softmax"
  bottom: "predict"
  top: "probs"
  softmax_param {
    axis: 2
  }
}
I0925 23:18:21.845854 29950 net.cpp:49] Initializing net from parameters: 
name: "s2vt:features_to_lstm"
state {
  phase: TEST
}
layer {
  name: "input"
  type: "Input"
  top: "frames_fc7"
  top: "cont_sentence"
  top: "input_sentence"
  top: "stage_indicator"
  input_param {
    shape {
      dim: 1
      dim: 4096
    }
    shape {
      dim: 1
      dim: 1
    }
    shape {
      dim: 1
      dim: 1
    }
    shape {
      dim: 1
      dim: 1
    }
  }
}
layer {
  name: "embed_encoder"
  type: "InnerProduct"
  bottom: "frames_fc7"
  top: "embedded_in_frames"
  param {
    lr_mult: 1
    decay_mult: 1
  }
  param {
    lr_mult: 2
    decay_mult: 0
  }
  inner_product_param {
    num_output: 500
    weight_filler {
      type: "xavier"
    }
    bias_filler {
      type: "constant"
      value: 0.2
    }
  }
}
layer {
  name: "reshape_frames"
  type: "Reshape"
  bottom: "embedded_in_frames"
  top: "embedded_input_frames"
  reshape_param {
    shape {
      dim: 1
      dim: 1
      dim: 500
    }
  }
}
layer {
  name: "reshape_stage_indicator"
  type: "Reshape"
  bottom: "stage_indicator"
  top: "reshaped_stage_indicator"
  reshape_param {
    shape {
      dim: 1
      dim: 1
      dim: 1
    }
  }
}
layer {
  name: "embedding"
  type: "Embed"
  bottom: "input_sentence"
  top: "embedded_input_sentence"
  param {
    lr_mult: 1
  }
  embed_param {
    num_output: 500
    input_dim: 46168
    bias_term: false
    weight_filler {
      type: "uniform"
      min: -0.08
      max: 0.08
    }
  }
}
layer {
  name: "lstm1"
  type: "LSTM"
  bottom: "embedded_input_frames"
  bottom: "cont_sentence"
  top: "lstm1"
  recurrent_param {
    num_output: 1000
    weight_filler {
      type: "uniform"
      min: -0.08
      max: 0.08
    }
    bias_filler {
      type: "constant"
      value: 0
    }
  }
}
layer {
  name: "concat"
  type: "Concat"
  bottom: "lstm1"
  bottom: "embedded_input_sentence"
  bottom: "reshaped_stage_indicator"
  top: "lstm1_video_sequence"
  concat_param {
    concat_dim: 2
  }
}
layer {
  name: "lstm2"
  type: "LSTM"
  bottom: "lstm1_video_sequence"
  bottom: "cont_sentence"
  top: "lstm2"
  recurrent_param {
    num_output: 1000
    weight_filler {
      type: "uniform"
      min: -0.08
      max: 0.08
    }
    bias_filler {
      type: "constant"
      value: 0
    }
  }
}
layer {
  name: "predict"
  type: "InnerProduct"
  bottom: "lstm2"
  top: "predict"
  param {
    lr_mult: 1
    decay_mult: 1
  }
  param {
    lr_mult: 2
    decay_mult: 0
  }
  inner_product_param {
    num_output: 46168
    weight_filler {
      type: "uniform"
      min: -0.08
      max: 0.08
    }
    bias_filler {
      type: "constant"
      value: 0
    }
    axis: 2
  }
}
layer {
  name: "probs"
  type: "Softmax"
  bottom: "predict"
  top: "probs"
  softmax_param {
    axis: 2
  }
}
I0925 23:18:21.845878 29980 layer_factory.hpp:77] Creating layer input
I0925 23:18:21.845880 29958 layer_factory.hpp:77] Creating layer input
I0925 23:18:21.845880 29974 layer_factory.hpp:77] Creating layer input
I0925 23:18:21.845891 29960 layer_factory.hpp:77] Creating layer data
I0925 23:18:21.845902 29946 layer_factory.hpp:77] Creating layer input
…
I0925 23:18:21.846086 30006 net.cpp:399] input -> stage_indicator
I0925 23:18:21.846097 29968 net.cpp:399] input -> stage_indicator
I0925 23:18:21.846099 30002 net.cpp:399] input -> input_sentence
I0925 23:18:21.846107 29950 net.cpp:399] input -> input_sentence
I0925 23:18:21.846101 29994 net.cpp:399] input -> stage_indicator
I0925 23:18:21.846122 29950 net.cpp:399] input -> stage_indicator
I0925 23:18:21.846122 30002 net.cpp:399] input -> stage_indicator
I0925 23:18:22.447582 29960 net.cpp:141] Setting up data
I0925 23:18:22.447649 29980 net.cpp:141] Setting up input
I0925 23:18:22.447649 29960 net.cpp:148] Top shape: 10 3 227 227 (1545870)
I0925 23:18:22.447677 29980 net.cpp:148] Top shape: 1 4096 (4096)
I0925 23:18:22.447693 29980 net.cpp:148] Top shape: 1 1 (1)
I0925 23:18:22.447679 29960 net.cpp:156] Memory required for data: 6183480
I0925 23:18:22.447703 29980 net.cpp:148] Top shape: 1 1 (1)
I0925 23:18:22.447708 29980 net.cpp:148] Top shape: 1 1 (1)
I0925 23:18:22.447713 29980 net.cpp:156] Memory required for data: 16396
I0925 23:18:22.447720 29980 layer_factory.hpp:77] Creating layer cont_sentence_input_1_split
I0925 23:18:22.447717 29960 layer_factory.hpp:77] Creating layer conv1
I0925 23:18:22.447757 29960 net.cpp:91] Creating Layer conv1
I0925 23:18:22.447763 29980 net.cpp:91] Creating Layer cont_sentence_input_1_split
I0925 23:18:22.447772 29980 net.cpp:425] cont_sentence_input_1_split <- cont_sentence
I0925 23:18:22.447770 29960 net.cpp:425] conv1 <- data
I0925 23:18:22.447788 29958 net.cpp:141] Setting up input
I0925 23:18:22.447798 29980 net.cpp:399] cont_sentence_input_1_split -> cont_sentence_input_1_split_0
I0925 23:18:22.447794 29960 net.cpp:399] conv1 -> conv1
I0925 23:18:22.447813 29980 net.cpp:399] cont_sentence_input_1_split -> cont_sentence_input_1_split_1
I0925 23:18:22.447813 29958 net.cpp:148] Top shape: 1 4096 (4096)
I0925 23:18:22.447830 29958 net.cpp:148] Top shape: 1 1 (1)
I0925 23:18:22.447836 29958 net.cpp:148] Top shape: 1 1 (1)
I0925 23:18:22.447841 29958 net.cpp:148] Top shape: 1 1 (1)
I0925 23:18:22.447845 29958 net.cpp:156] Memory required for data: 16396
I0925 23:18:22.447851 29958 layer_factory.hpp:77] Creating layer cont_sentence_input_1_split
I0925 23:18:22.447867 29958 net.cpp:91] Creating Layer cont_sentence_input_1_split
I0925 23:18:22.447875 29958 net.cpp:425] cont_sentence_input_1_split <- cont_sentence
I0925 23:18:22.447883 29958 net.cpp:399] cont_sentence_input_1_split -> cont_sentence_input_1_split_0
I0925 23:18:22.447882 29968 net.cpp:141] Setting up input
I0925 23:18:22.447895 29958 net.cpp:399] cont_sentence_input_1_split -> cont_sentence_input_1_split_1
I0925 23:18:22.447901 29968 net.cpp:148] Top shape: 1 4096 (4096)
I0925 23:18:22.447907 29968 net.cpp:148] Top shape: 1 1 (1)
I0925 23:18:22.447913 29968 net.cpp:148] Top shape: 1 1 (1)
I0925 23:18:22.447918 29968 net.cpp:148] Top shape: 1 1 (1)
I0925 23:18:22.447922 29968 net.cpp:156] Memory required for data: 16396
I0925 23:18:22.447928 29968 layer_factory.hpp:77] Creating layer cont_sentence_input_1_split
I0925 23:18:22.447937 29968 net.cpp:91] Creating Layer cont_sentence_input_1_split
I0925 23:18:22.447952 29968 net.cpp:425] cont_sentence_input_1_split <- cont_sentence
I0925 23:18:22.447960 29968 net.cpp:399] cont_sentence_input_1_split -> cont_sentence_input_1_split_0
I0925 23:18:22.447970 29968 net.cpp:399] cont_sentence_input_1_split -> cont_sentence_input_1_split_1
I0925 23:18:22.448035 29968 net.cpp:141] Setting up cont_sentence_input_1_split
I0925 23:18:22.448045 29968 net.cpp:148] Top shape: 1 1 (1)
I0925 23:18:22.448050 29968 net.cpp:148] Top shape: 1 1 (1)
I0925 23:18:22.448055 29968 net.cpp:156] Memory required for data: 16404
I0925 23:18:22.448058 29968 layer_factory.hpp:77] Creating layer embed_encoder
I0925 23:18:22.448076 29968 net.cpp:91] Creating Layer embed_encoder
I0925 23:18:22.448081 29968 net.cpp:425] embed_encoder <- frames_fc7
I0925 23:18:22.448096 29968 net.cpp:399] embed_encoder -> embedded_in_frames
I0925 23:18:22.448355 29958 net.cpp:141] Setting up cont_sentence_input_1_split
I0925 23:18:22.448366 29958 net.cpp:148] Top shape: 1 1 (1)
I0925 23:18:22.448374 29958 net.cpp:148] Top shape: 1 1 (1)
I0925 23:18:22.448377 29958 net.cpp:156] Memory required for data: 16404
I0925 23:18:22.448382 29958 layer_factory.hpp:77] Creating layer embed_encoder
I0925 23:18:22.448395 29958 net.cpp:91] Creating Layer embed_encoder
I0925 23:18:22.448400 29958 net.cpp:425] embed_encoder <- frames_fc7
I0925 23:18:22.448408 29958 net.cpp:399] embed_encoder -> embedded_in_frames
I0925 23:18:22.448493 29980 net.cpp:141] Setting up cont_sentence_input_1_split
I0925 23:18:22.448518 29980 net.cpp:148] Top shape: 1 1 (1)
I0925 23:18:22.448526 29980 net.cpp:148] Top shape: 1 1 (1)
I0925 23:18:22.448530 29980 net.cpp:156] Memory required for data: 16404
I0925 23:18:22.448536 29980 layer_factory.hpp:77] Creating layer embed_encoder
I0925 23:18:22.448550 29980 net.cpp:91] Creating Layer embed_encoder
I0925 23:18:22.448556 29980 net.cpp:425] embed_encoder <- frames_fc7
I0925 23:18:22.448567 29980 net.cpp:399] embed_encoder -> embedded_in_frames
I0925 23:18:22.448783 29946 net.cpp:141] Setting up input
I0925 23:18:22.448796 29946 net.cpp:148] Top shape: 1 4096 (4096)
I0925 23:18:22.448802 29946 net.cpp:148] Top shape: 1 1 (1)
I0925 23:18:22.448808 29946 net.cpp:148] Top shape: 1 1 (1)
I0925 23:18:22.448815 29946 net.cpp:148] Top shape: 1 1 (1)
I0925 23:18:22.448822 29946 net.cpp:156] Memory required for data: 16396
I0925 23:18:22.448834 29946 layer_factory.hpp:77] Creating layer cont_sentence_input_1_split
I0925 23:18:22.448834 30006 net.cpp:141] Setting up input
I0925 23:18:22.448846 29946 net.cpp:91] Creating Layer cont_sentence_input_1_split
I0925 23:18:22.448853 30006 net.cpp:148] Top shape: 1 4096 (4096)
I0925 23:18:22.448854 29946 net.cpp:425] cont_sentence_input_1_split <- cont_sentence
I0925 23:18:22.448861 30006 net.cpp:148] Top shape: 1 1 (1)
I0925 23:18:22.448863 29946 net.cpp:399] cont_sentence_input_1_split -> cont_sentence_input_1_split_0
I0925 23:18:22.448868 30006 net.cpp:148] Top shape: 1 1 (1)
I0925 23:18:22.448874 30006 net.cpp:148] Top shape: 1 1 (1)
I0925 23:18:22.448873 30002 net.cpp:141] Setting up input
I0925 23:18:22.448879 30006 net.cpp:156] Memory required for data: 16396
I0925 23:18:22.448897 30002 net.cpp:148] Top shape: 1 4096 (4096)
I0925 23:18:22.448878 29946 net.cpp:399] cont_sentence_input_1_split -> cont_sentence_input_1_split_1
I0925 23:18:22.448904 30006 layer_factory.hpp:77] Creating layer cont_sentence_input_1_split
I0925 23:18:22.448906 30002 net.cpp:148] Top shape: 1 1 (1)
I0925 23:18:22.448927 30002 net.cpp:148] Top shape: 1 1 (1)
I0925 23:18:22.448933 30002 net.cpp:148] Top shape: 1 1 (1)
I0925 23:18:22.448937 30006 net.cpp:91] Creating Layer cont_sentence_input_1_split
I0925 23:18:22.448938 30002 net.cpp:156] Memory required for data: 16396
I0925 23:18:22.448946 30006 net.cpp:425] cont_sentence_input_1_split <- cont_sentence
I0925 23:18:22.448951 30002 layer_factory.hpp:77] Creating layer cont_sentence_input_1_split
I0925 23:18:22.448956 30006 net.cpp:399] cont_sentence_input_1_split -> cont_sentence_input_1_split_0
I0925 23:18:22.448961 30002 net.cpp:91] Creating Layer cont_sentence_input_1_split
I0925 23:18:22.448966 30006 net.cpp:399] cont_sentence_input_1_split -> cont_sentence_input_1_split_1
I0925 23:18:22.448966 30002 net.cpp:425] cont_sentence_input_1_split <- cont_sentence
I0925 23:18:22.448979 30002 net.cpp:399] cont_sentence_input_1_split -> cont_sentence_input_1_split_0
I0925 23:18:22.448990 30002 net.cpp:399] cont_sentence_input_1_split -> cont_sentence_input_1_split_1
I0925 23:18:22.455787 29950 net.cpp:141] Setting up input
I0925 23:18:22.455829 29950 net.cpp:148] Top shape: 1 4096 (4096)
I0925 23:18:22.455852 29950 net.cpp:148] Top shape: 1 1 (1)
I0925 23:18:22.455863 29950 net.cpp:148] Top shape: 1 1 (1)
I0925 23:18:22.455873 29950 net.cpp:148] Top shape: 1 1 (1)
I0925 23:18:22.455881 29950 net.cpp:156] Memory required for data: 16396
I0925 23:18:22.455893 29950 layer_factory.hpp:77] Creating layer cont_sentence_input_1_split
I0925 23:18:22.455911 29950 net.cpp:91] Creating Layer cont_sentence_input_1_split
I0925 23:18:22.455921 29950 net.cpp:425] cont_sentence_input_1_split <- cont_sentence
I0925 23:18:22.455936 29950 net.cpp:399] cont_sentence_input_1_split -> cont_sentence_input_1_split_0
I0925 23:18:22.455956 29950 net.cpp:399] cont_sentence_input_1_split -> cont_sentence_input_1_split_1
I0925 23:18:22.462020 29974 net.cpp:141] Setting up input
I0925 23:18:22.462069 29974 net.cpp:148] Top shape: 1 4096 (4096)
I0925 23:18:22.462077 29974 net.cpp:148] Top shape: 1 1 (1)
I0925 23:18:22.462083 29974 net.cpp:148] Top shape: 1 1 (1)
I0925 23:18:22.462088 29974 net.cpp:148] Top shape: 1 1 (1)
I0925 23:18:22.462092 29974 net.cpp:156] Memory required for data: 16396
I0925 23:18:22.462098 29974 layer_factory.hpp:77] Creating layer cont_sentence_input_1_split
I0925 23:18:22.462111 29974 net.cpp:91] Creating Layer cont_sentence_input_1_split
I0925 23:18:22.462117 29974 net.cpp:425] cont_sentence_input_1_split <- cont_sentence
I0925 23:18:22.462128 29974 net.cpp:399] cont_sentence_input_1_split -> cont_sentence_input_1_split_0
I0925 23:18:22.462139 29974 net.cpp:399] cont_sentence_input_1_split -> cont_sentence_input_1_split_1
I0925 23:18:22.467358 29994 net.cpp:141] Setting up input
I0925 23:18:22.467377 29994 net.cpp:148] Top shape: 1 4096 (4096)
I0925 23:18:22.467384 29994 net.cpp:148] Top shape: 1 1 (1)
I0925 23:18:22.467391 29994 net.cpp:148] Top shape: 1 1 (1)
I0925 23:18:22.467396 29994 net.cpp:148] Top shape: 1 1 (1)
I0925 23:18:22.467401 29994 net.cpp:156] Memory required for data: 16396
I0925 23:18:22.467406 29994 layer_factory.hpp:77] Creating layer cont_sentence_input_1_split
I0925 23:18:22.467419 29994 net.cpp:91] Creating Layer cont_sentence_input_1_split
I0925 23:18:22.467429 29994 net.cpp:425] cont_sentence_input_1_split <- cont_sentence
I0925 23:18:22.467438 29994 net.cpp:399] cont_sentence_input_1_split -> cont_sentence_input_1_split_0
I0925 23:18:22.467449 29994 net.cpp:399] cont_sentence_input_1_split -> cont_sentence_input_1_split_1
I0925 23:18:22.467463 29946 net.cpp:141] Setting up cont_sentence_input_1_split
I0925 23:18:22.467481 29946 net.cpp:148] Top shape: 1 1 (1)
I0925 23:18:22.467489 29946 net.cpp:148] Top shape: 1 1 (1)
I0925 23:18:22.467494 29946 net.cpp:156] Memory required for data: 16404
I0925 23:18:22.467499 29946 layer_factory.hpp:77] Creating layer embed_encoder
I0925 23:18:22.467515 29946 net.cpp:91] Creating Layer embed_encoder
I0925 23:18:22.467519 29994 net.cpp:141] Setting up cont_sentence_input_1_split
I0925 23:18:22.467521 29946 net.cpp:425] embed_encoder <- frames_fc7
I0925 23:18:22.467538 29994 net.cpp:148] Top shape: 1 1 (1)
I0925 23:18:22.467541 29946 net.cpp:399] embed_encoder -> embedded_in_frames
I0925 23:18:22.467552 29994 net.cpp:148] Top shape: 1 1 (1)
I0925 23:18:22.467557 29994 net.cpp:156] Memory required for data: 16404
I0925 23:18:22.467562 29994 layer_factory.hpp:77] Creating layer embed_encoder
I0925 23:18:22.467576 29994 net.cpp:91] Creating Layer embed_encoder
I0925 23:18:22.467581 29994 net.cpp:425] embed_encoder <- frames_fc7
I0925 23:18:22.467592 29994 net.cpp:399] embed_encoder -> embedded_in_frames
I0925 23:18:22.471984 29950 net.cpp:141] Setting up cont_sentence_input_1_split
I0925 23:18:22.471995 29974 net.cpp:141] Setting up cont_sentence_input_1_split
I0925 23:18:22.472043 29974 net.cpp:148] Top shape: 1 1 (1)
I0925 23:18:22.472043 29950 net.cpp:148] Top shape: 1 1 (1)
I0925 23:18:22.472060 29974 net.cpp:148] Top shape: 1 1 (1)
I0925 23:18:22.472064 29950 net.cpp:148] Top shape: 1 1 (1)
I0925 23:18:22.472069 29974 net.cpp:156] Memory required for data: 16404
I0925 23:18:22.472070 29950 net.cpp:156] Memory required for data: 16404
I0925 23:18:22.472085 29974 layer_factory.hpp:77] Creating layer embed_encoder
I0925 23:18:22.472086 29950 layer_factory.hpp:77] Creating layer embed_encoder
I0925 23:18:22.472091 30006 net.cpp:141] Setting up cont_sentence_input_1_split
I0925 23:18:22.472120 30006 net.cpp:148] Top shape: 1 1 (1)
I0925 23:18:22.472126 30006 net.cpp:148] Top shape: 1 1 (1)
I0925 23:18:22.472128 29974 net.cpp:91] Creating Layer embed_encoder
I0925 23:18:22.472138 29950 net.cpp:91] Creating Layer embed_encoder
I0925 23:18:22.472146 29974 net.cpp:425] embed_encoder <- frames_fc7
I0925 23:18:22.472152 29950 net.cpp:425] embed_encoder <- frames_fc7
I0925 23:18:22.472132 30006 net.cpp:156] Memory required for data: 16404
I0925 23:18:22.472144 30002 net.cpp:141] Setting up cont_sentence_input_1_split
I0925 23:18:22.472168 29974 net.cpp:399] embed_encoder -> embedded_in_frames
I0925 23:18:22.472168 30006 layer_factory.hpp:77] Creating layer embed_encoder
I0925 23:18:22.472179 29950 net.cpp:399] embed_encoder -> embedded_in_frames
I0925 23:18:22.472179 30002 net.cpp:148] Top shape: 1 1 (1)
I0925 23:18:22.472195 30002 net.cpp:148] Top shape: 1 1 (1)
I0925 23:18:22.472200 30002 net.cpp:156] Memory required for data: 16404
I0925 23:18:22.472203 30006 net.cpp:91] Creating Layer embed_encoder
I0925 23:18:22.472206 30002 layer_factory.hpp:77] Creating layer embed_encoder
I0925 23:18:22.472219 30006 net.cpp:425] embed_encoder <- frames_fc7
I0925 23:18:22.472229 30002 net.cpp:91] Creating Layer embed_encoder
I0925 23:18:22.472229 30006 net.cpp:399] embed_encoder -> embedded_in_frames
I0925 23:18:22.472239 30002 net.cpp:425] embed_encoder <- frames_fc7
I0925 23:18:22.472249 30002 net.cpp:399] embed_encoder -> embedded_in_frames
I0925 23:18:22.497159 29980 net.cpp:141] Setting up embed_encoder
I0925 23:18:22.497201 29980 net.cpp:148] Top shape: 1 500 (500)
I0925 23:18:22.497208 29980 net.cpp:156] Memory required for data: 18404
I0925 23:18:22.497238 29980 layer_factory.hpp:77] Creating layer reshape_frames
I0925 23:18:22.497268 29980 net.cpp:91] Creating Layer reshape_frames
I0925 23:18:22.497277 29980 net.cpp:425] reshape_frames <- embedded_in_frames
I0925 23:18:22.497289 29980 net.cpp:399] reshape_frames -> embedded_input_frames
I0925 23:18:22.497352 29980 net.cpp:141] Setting up reshape_frames
I0925 23:18:22.497362 29980 net.cpp:148] Top shape: 1 1 500 (500)
I0925 23:18:22.497367 29980 net.cpp:156] Memory required for data: 20404
I0925 23:18:22.497373 29980 layer_factory.hpp:77] Creating layer reshape_stage_indicator
I0925 23:18:22.497386 29980 net.cpp:91] Creating Layer reshape_stage_indicator
I0925 23:18:22.497391 29980 net.cpp:425] reshape_stage_indicator <- stage_indicator
I0925 23:18:22.497401 29980 net.cpp:399] reshape_stage_indicator -> reshaped_stage_indicator
I0925 23:18:22.497416 29968 net.cpp:141] Setting up embed_encoder
I0925 23:18:22.497433 29968 net.cpp:148] Top shape: 1 500 (500)
I0925 23:18:22.497442 29968 net.cpp:156] Memory required for data: 18404
I0925 23:18:22.497478 29968 layer_factory.hpp:77] Creating layer reshape_frames
I0925 23:18:22.497494 29968 net.cpp:91] Creating Layer reshape_frames
I0925 23:18:22.497505 29968 net.cpp:425] reshape_frames <- embedded_in_frames
I0925 23:18:22.497515 29968 net.cpp:399] reshape_frames -> embedded_input_frames
I0925 23:18:22.497799 29980 net.cpp:141] Setting up reshape_stage_indicator
I0925 23:18:22.497817 29980 net.cpp:148] Top shape: 1 1 1 (1)
I0925 23:18:22.497822 29980 net.cpp:156] Memory required for data: 20408
I0925 23:18:22.497828 29980 layer_factory.hpp:77] Creating layer embedding
I0925 23:18:22.497843 29980 net.cpp:91] Creating Layer embedding
I0925 23:18:22.497848 29980 net.cpp:425] embedding <- input_sentence
I0925 23:18:22.497858 29980 net.cpp:399] embedding -> embedded_input_sentence
I0925 23:18:22.498029 29946 net.cpp:141] Setting up embed_encoder
I0925 23:18:22.498069 29946 net.cpp:148] Top shape: 1 500 (500)
I0925 23:18:22.498075 29946 net.cpp:156] Memory required for data: 18404
I0925 23:18:22.498076 29968 net.cpp:141] Setting up reshape_frames
I0925 23:18:22.498093 29946 layer_factory.hpp:77] Creating layer reshape_frames
I0925 23:18:22.498096 29958 net.cpp:141] Setting up embed_encoder
I0925 23:18:22.498100 29968 net.cpp:148] Top shape: 1 1 500 (500)
I0925 23:18:22.498116 29958 net.cpp:148] Top shape: 1 500 (500)
I0925 23:18:22.498117 29968 net.cpp:156] Memory required for data: 20404
I0925 23:18:22.498127 29958 net.cpp:156] Memory required for data: 18404
I0925 23:18:22.498131 29968 layer_factory.hpp:77] Creating layer reshape_stage_indicator
I0925 23:18:22.498127 29946 net.cpp:91] Creating Layer reshape_frames
I0925 23:18:22.498148 29946 net.cpp:425] reshape_frames <- embedded_in_frames
I0925 23:18:22.498153 29958 layer_factory.hpp:77] Creating layer reshape_frames
I0925 23:18:22.498162 29946 net.cpp:399] reshape_frames -> embedded_input_frames
I0925 23:18:22.498153 29968 net.cpp:91] Creating Layer reshape_stage_indicator
I0925 23:18:22.498178 29958 net.cpp:91] Creating Layer reshape_frames
I0925 23:18:22.498183 29968 net.cpp:425] reshape_stage_indicator <- stage_indicator
I0925 23:18:22.498189 29958 net.cpp:425] reshape_frames <- embedded_in_frames
I0925 23:18:22.498195 29968 net.cpp:399] reshape_stage_indicator -> reshaped_stage_indicator
I0925 23:18:22.498203 29958 net.cpp:399] reshape_frames -> embedded_input_frames
I0925 23:18:22.538381 29946 net.cpp:141] Setting up reshape_frames
I0925 23:18:22.538400 29946 net.cpp:148] Top shape: 1 1 500 (500)
I0925 23:18:22.538405 29946 net.cpp:156] Memory required for data: 20404
I0925 23:18:22.538410 29946 layer_factory.hpp:77] Creating layer reshape_stage_indicator
I0925 23:18:22.538424 29946 net.cpp:91] Creating Layer reshape_stage_indicator
I0925 23:18:22.538429 29946 net.cpp:425] reshape_stage_indicator <- stage_indicator
I0925 23:18:22.538441 29946 net.cpp:399] reshape_stage_indicator -> reshaped_stage_indicator
I0925 23:18:22.538496 29946 net.cpp:141] Setting up reshape_stage_indicator
I0925 23:18:22.538516 29946 net.cpp:148] Top shape: 1 1 1 (1)
I0925 23:18:22.538519 29946 net.cpp:156] Memory required for data: 20408
I0925 23:18:22.538525 29946 layer_factory.hpp:77] Creating layer embedding
I0925 23:18:22.538537 29946 net.cpp:91] Creating Layer embedding
I0925 23:18:22.538542 29946 net.cpp:425] embedding <- input_sentence
I0925 23:18:22.538530 29968 net.cpp:141] Setting up reshape_stage_indicator
I0925 23:18:22.538552 29946 net.cpp:399] embedding -> embedded_input_sentence
I0925 23:18:22.538580 29968 net.cpp:148] Top shape: 1 1 1 (1)
I0925 23:18:22.538588 29968 net.cpp:156] Memory required for data: 20408
I0925 23:18:22.538610 29968 layer_factory.hpp:77] Creating layer embedding
I0925 23:18:22.538630 29968 net.cpp:91] Creating Layer embedding
I0925 23:18:22.538636 29968 net.cpp:425] embedding <- input_sentence
I0925 23:18:22.538647 29968 net.cpp:399] embedding -> embedded_input_sentence
I0925 23:18:22.542130 29958 net.cpp:141] Setting up reshape_frames
I0925 23:18:22.542186 29958 net.cpp:148] Top shape: 1 1 500 (500)
I0925 23:18:22.542192 29958 net.cpp:156] Memory required for data: 20404
I0925 23:18:22.542201 29958 layer_factory.hpp:77] Creating layer reshape_stage_indicator
I0925 23:18:22.542222 29958 net.cpp:91] Creating Layer reshape_stage_indicator
I0925 23:18:22.542228 29958 net.cpp:425] reshape_stage_indicator <- stage_indicator
I0925 23:18:22.542249 29958 net.cpp:399] reshape_stage_indicator -> reshaped_stage_indicator
I0925 23:18:22.642441 29994 net.cpp:141] Setting up embed_encoder
I0925 23:18:22.642485 29994 net.cpp:148] Top shape: 1 500 (500)
I0925 23:18:22.642491 29994 net.cpp:156] Memory required for data: 18404
I0925 23:18:22.642514 29994 layer_factory.hpp:77] Creating layer reshape_frames
I0925 23:18:22.642534 29994 net.cpp:91] Creating Layer reshape_frames
I0925 23:18:22.642542 29994 net.cpp:425] reshape_frames <- embedded_in_frames
I0925 23:18:22.642554 29994 net.cpp:399] reshape_frames -> embedded_input_frames
I0925 23:18:22.642801 30002 net.cpp:141] Setting up embed_encoder
I0925 23:18:22.642849 30002 net.cpp:148] Top shape: 1 500 (500)
I0925 23:18:22.642856 30002 net.cpp:156] Memory required for data: 18404
I0925 23:18:22.642879 30002 layer_factory.hpp:77] Creating layer reshape_frames
I0925 23:18:22.642876 29974 net.cpp:141] Setting up embed_encoder
I0925 23:18:22.642900 29974 net.cpp:148] Top shape: 1 500 (500)
I0925 23:18:22.642901 30002 net.cpp:91] Creating Layer reshape_frames
I0925 23:18:22.642909 29974 net.cpp:156] Memory required for data: 18404
I0925 23:18:22.642912 30002 net.cpp:425] reshape_frames <- embedded_in_frames
I0925 23:18:22.642925 30002 net.cpp:399] reshape_frames -> embedded_input_frames
I0925 23:18:22.642927 29974 layer_factory.hpp:77] Creating layer reshape_frames
I0925 23:18:22.642941 29974 net.cpp:91] Creating Layer reshape_frames
I0925 23:18:22.642949 29974 net.cpp:425] reshape_frames <- embedded_in_frames
I0925 23:18:22.642963 29974 net.cpp:399] reshape_frames -> embedded_input_frames
I0925 23:18:22.642982 29958 net.cpp:141] Setting up reshape_stage_indicator
I0925 23:18:22.643028 29958 net.cpp:148] Top shape: 1 1 1 (1)
I0925 23:18:22.643049 29958 net.cpp:156] Memory required for data: 20408
I0925 23:18:22.643067 29958 layer_factory.hpp:77] Creating layer embedding
I0925 23:18:22.643092 29950 net.cpp:141] Setting up embed_encoder
I0925 23:18:22.643105 29958 net.cpp:91] Creating Layer embedding
I0925 23:18:22.643117 29950 net.cpp:148] Top shape: 1 500 (500)
I0925 23:18:22.643124 29950 net.cpp:156] Memory required for data: 18404
I0925 23:18:22.643129 29958 net.cpp:425] embedding <- input_sentence
I0925 23:18:22.643156 29950 layer_factory.hpp:77] Creating layer reshape_frames
I0925 23:18:22.643170 29950 net.cpp:91] Creating Layer reshape_frames
I0925 23:18:22.643178 29950 net.cpp:425] reshape_frames <- embedded_in_frames
I0925 23:18:22.643172 29958 net.cpp:399] embedding -> embedded_input_sentence
I0925 23:18:22.643190 29950 net.cpp:399] reshape_frames -> embedded_input_frames
I0925 23:18:22.647786 29994 net.cpp:141] Setting up reshape_frames
I0925 23:18:22.647819 29994 net.cpp:148] Top shape: 1 1 500 (500)
I0925 23:18:22.647825 29994 net.cpp:156] Memory required for data: 20404
I0925 23:18:22.647830 29994 layer_factory.hpp:77] Creating layer reshape_stage_indicator
I0925 23:18:22.647843 29994 net.cpp:91] Creating Layer reshape_stage_indicator
I0925 23:18:22.647850 29994 net.cpp:425] reshape_stage_indicator <- stage_indicator
I0925 23:18:22.647864 29994 net.cpp:399] reshape_stage_indicator -> reshaped_stage_indicator
I0925 23:18:22.648021 29950 net.cpp:141] Setting up reshape_frames
I0925 23:18:22.701263 29974 net.cpp:141] Setting up reshape_frames
I0925 23:18:23.564244 29950 net.cpp:148] Top shape: 1 1 500 (500)
I0925 23:18:22.701386 29994 net.cpp:141] Setting up reshape_stage_indicator
I0925 23:18:22.701429 30002 net.cpp:141] Setting up reshape_frames
I0925 23:18:22.701561 30006 net.cpp:141] Setting up embed_encoder
I0925 23:18:22.763933 29946 net.cpp:141] Setting up embedding
I0925 23:18:22.841622 29968 net.cpp:141] Setting up embedding
I0925 23:18:22.871812 29960 net.cpp:141] Setting up conv1
I0925 23:18:22.873428 29958 net.cpp:141] Setting up embedding
I0925 23:18:23.557715 29954 upgrade_proto.cpp:66] Attempting to upgrade input file specified using deprecated input fields: /home/peifeng/work/run/storm102/data/workers/b9fd4330-d9b8-4623-aab3-e7c28eaf93fe/tmp/cvld4348477291173817192/s2vt.words_to_preds.prototxt
I0925 23:18:23.564273 29950 net.cpp:156] Memory required for data: 20404
I0925 23:18:23.564296 29974 net.cpp:148] Top shape: 1 1 500 (500)
I0925 23:18:22.722084 29980 net.cpp:141] Setting up embedding
I0925 23:18:23.564363 30002 net.cpp:148] Top shape: 1 1 500 (500)
I0925 23:18:23.564379 30006 net.cpp:148] Top shape: 1 500 (500)
I0925 23:18:23.564559 29954 upgrade_proto.cpp:69] Successfully upgraded file specified using deprecated input fields.
I0925 23:18:23.564390 29994 net.cpp:148] Top shape: 1 1 1 (1)
I0925 23:18:23.564440 29946 net.cpp:148] Top shape: 1 1 500 (500)
I0925 23:18:23.564576 30006 net.cpp:156] Memory required for data: 18404
I0925 23:18:23.564468 29960 net.cpp:148] Top shape: 10 96 55 55 (2904000)
W0925 23:18:23.564580 29954 upgrade_proto.cpp:71] Note that future Caffe releases will only support input layers and not input fields.
I0925 23:18:23.564468 29968 net.cpp:148] Top shape: 1 1 500 (500)
I0925 23:18:23.564541 29950 layer_factory.hpp:77] Creating layer reshape_stage_indicator
I0925 23:18:23.564481 29958 net.cpp:148] Top shape: 1 1 500 (500)
I0925 23:18:23.564604 29994 net.cpp:156] Memory required for data: 20408
I0925 23:18:23.564566 30002 net.cpp:156] Memory required for data: 20404
I0925 23:18:23.564610 29968 net.cpp:156] Memory required for data: 22408
I0925 23:18:23.564599 29960 net.cpp:156] Memory required for data: 17799480
I0925 23:18:23.564621 30006 layer_factory.hpp:77] Creating layer reshape_frames
I0925 23:18:23.564625 29958 net.cpp:156] Memory required for data: 22408
…
I0925 23:18:23.564810 29968 recurrent_layer.cpp:20] Initializing recurrent layer: assuming input batch contains 1 timesteps of 1 independent streams.
I0925 23:18:23.564831 29946 net.cpp:425] lstm1 <- cont_sentence_input_1_split_0
I0925 23:18:23.564823 29958 recurrent_layer.cpp:20] Initializing recurrent layer: assuming input batch contains 1 timesteps of 1 independent streams.
I0925 23:18:23.564852 29946 net.cpp:399] lstm1 -> lstm1
I0925 23:18:23.564870 29946 recurrent_layer.cpp:20] Initializing recurrent layer: assuming input batch contains 1 timesteps of 1 independent streams.
I0925 23:18:23.564901 30002 net.cpp:141] Setting up reshape_stage_indicator
I0925 23:18:23.564919 30002 net.cpp:148] Top shape: 1 1 1 (1)
I0925 23:18:23.564929 30002 net.cpp:156] Memory required for data: 20408
I0925 23:18:23.564936 30002 layer_factory.hpp:77] Creating layer embedding
I0925 23:18:23.564935 30006 net.cpp:141] Setting up reshape_frames
I0925 23:18:23.564962 30002 net.cpp:91] Creating Layer embedding
I0925 23:18:23.564965 30006 net.cpp:148] Top shape: 1 1 500 (500)
I0925 23:18:23.564983 30002 net.cpp:425] embedding <- input_sentence
I0925 23:18:23.564985 29950 net.cpp:141] Setting up reshape_stage_indicator
I0925 23:18:23.564986 30006 net.cpp:156] Memory required for data: 20404
I0925 23:18:23.565004 29950 net.cpp:148] Top shape: 1 1 1 (1)
I0925 23:18:23.564999 30002 net.cpp:399] embedding -> embedded_input_sentence
I0925 23:18:23.565021 29950 net.cpp:156] Memory required for data: 20408
I0925 23:18:23.564993 29954 net.cpp:49] Initializing net from parameters: 
name: "s2vt:features_to_lstm"
state {
  phase: TEST
}
layer {
  name: "input"
  type: "Input"
  top: "frames_fc7"
  top: "cont_sentence"
  top: "input_sentence"
  top: "stage_indicator"
  input_param {
    shape {
      dim: 1
      dim: 4096
    }
    shape {
      dim: 1
      dim: 1
    }
    shape {
      dim: 1
      dim: 1
    }
    shape {
      dim: 1
      dim: 1
    }
  }
}
layer {
  name: "embed_encoder"
  type: "InnerProduct"
  bottom: "frames_fc7"
  top: "embedded_in_frames"
  param {
    lr_mult: 1
    decay_mult: 1
  }
  param {
    lr_mult: 2
    decay_mult: 0
  }
  inner_product_param {
    num_output: 500
    weight_filler {
      type: "xavier"
    }
    bias_filler {
      type: "constant"
      value: 0.2
    }
  }
}
layer {
  name: "reshape_frames"
  type: "Reshape"
  bottom: "embedded_in_frames"
  top: "embedded_input_frames"
  reshape_param {
    shape {
      dim: 1
      dim: 1
      dim: 500
    }
  }
}
layer {
  name: "reshape_stage_indicator"
  type: "Reshape"
  bottom: "stage_indicator"
  top: "reshaped_stage_indicator"
  reshape_param {
    shape {
      dim: 1
      dim: 1
      dim: 1
    }
  }
}
layer {
  name: "embedding"
  type: "Embed"
  bottom: "input_sentence"
  top: "embedded_input_sentence"
  param {
    lr_mult: 1
  }
  embed_param {
    num_output: 500
    input_dim: 46168
    bias_term: false
    weight_filler {
      type: "uniform"
      min: -0.08
      max: 0.08
    }
  }
}
layer {
  name: "lstm1"
  type: "LSTM"
  bottom: "embedded_input_frames"
  bottom: "cont_sentence"
  top: "lstm1"
  recurrent_param {
    num_output: 1000
    weight_filler {
      type: "uniform"
      min: -0.08
      max: 0.08
    }
    bias_filler {
      type: "constant"
      value: 0
    }
  }
}
layer {
  name: "concat"
  type: "Concat"
  bottom: "lstm1"
  bottom: "embedded_input_sentence"
  bottom: "reshaped_stage_indicator"
  top: "lstm1_video_sequence"
  concat_param {
    concat_dim: 2
  }
}
layer {
  name: "lstm2"
  type: "LSTM"
  bottom: "lstm1_video_sequence"
  bottom: "cont_sentence"
  top: "lstm2"
  recurrent_param {
    num_output: 1000
    weight_filler {
      type: "uniform"
      min: -0.08
      max: 0.08
    }
    bias_filler {
      type: "constant"
      value: 0
    }
  }
}
layer {
  name: "predict"
  type: "InnerProduct"
  bottom: "lstm2"
  top: "predict"
  param {
    lr_mult: 1
    decay_mult: 1
  }
  param {
    lr_mult: 2
    decay_mult: 0
  }
  inner_product_param {
    num_output: 46168
    weight_filler {
      type: "uniform"
      min: -0.08
      max: 0.08
    }
    bias_filler {
      type: "constant"
      value: 0
    }
    axis: 2
  }
}
layer {
  name: "probs"
  type: "Softmax"
  bottom: "predict"
  top: "probs"
  softmax_param {
    axis: 2
  }
}
I0925 23:18:23.565021 30006 layer_factory.hpp:77] Creating layer reshape_stage_indicator
I0925 23:18:23.565040 29950 layer_factory.hpp:77] Creating layer embedding
I0925 23:18:23.564543 29974 net.cpp:156] Memory required for data: 20404
I0925 23:18:23.669042 29950 net.cpp:91] Creating Layer embedding
I0925 23:18:23.565482 29980 net.cpp:148] Top shape: 1 1 500 (500)
I0925 23:18:23.669075 29950 net.cpp:425] embedding <- input_sentence
I0925 23:18:23.565985 29968 net.cpp:49] Initializing net from parameters: 
layer {
  name: "lstm1_"
  type: "Input"
  top: "x"
  top: "cont"
  input_param {
    shape {
      dim: 1
      dim: 1
      dim: 500
    }
    shape {
      dim: 1
      dim: 1
    }
  }
}
layer {
  name: "lstm1_"
  type: "Input"
  top: "c_0"
  top: "h_0"
  input_param {
    shape {
      dim: 1
      dim: 1
      dim: 1000
    }
    shape {
      dim: 1
      dim: 1
      dim: 1000
    }
  }
}
layer {
  name: "lstm1_cont_slice"
  type: "Slice"
  bottom: "cont"
  top: "cont_1"
  slice_param {
    axis: 0
  }
}
layer {
  name: "lstm1_x_transform"
  type: "InnerProduct"
  bottom: "x"
  top: "W_xc_x"
  param {
    name: "W_xc"
  }
  param {
    name: "b_c"
  }
  propagate_down: true
  inner_product_param {
    num_output: 4000
    bias_term: true
    weight_filler {
      type: "uniform"
      min: -0.08
      max: 0.08
    }
    bias_filler {
      type: "constant"
      value: 0
    }
    axis: 2
  }
}
layer {
  name: "lstm1_W_xc_x_slice"
  type: "Slice"
  bottom: "W_xc_x"
  top: "W_xc_x_1"
  slice_param {
    axis: 0
  }
}
layer {
  name: "lstm1_h_conted_0"
  type: "Scale"
  bottom: "h_0"
  bottom: "cont_1"
  top: "h_conted_0"
  scale_param {
    axis: 0
  }
}
layer {
  name: "lstm1_transform_1"
  type: "InnerProduct"
  bottom: "h_conted_0"
  top: "W_hc_h_0"
  param {
    name: "W_hc"
  }
  inner_product_param {
    num_output: 4000
    bias_term: false
    weight_filler {
      type: "uniform"
      min: -0.08
      max: 0.08
    }
    axis: 2
  }
}
layer {
  name: "lstm1_gate_input_1"
  type: "Eltwise"
  bottom: "W_hc_h_0"
  bottom: "W_xc_x_1"
  top: "gate_input_1"
  eltwise_param {
    operation: SUM
  }
}
layer {
  name: "lstm1_unit_1"
  type: "LSTMUnit"
  bottom: "c_0"
  bottom: "gate_input_1"
  bottom: "cont_1"
  top: "c_1"
  top: "h_1"
}
layer {
  name: "lstm1_"
  type: "Split"
  bottom: "c_1"
  top: "c_T"
}
layer {
  name: "lstm1_h_concat"
  type: "Concat"
  bottom: "h_1"
  top: "h"
  concat_param {
    axis: 0
  }
}
layer {
  name: "h_pseudoloss"
  type: "Reduction"
  bottom: "h"
  top: "h_pseudoloss"
  loss_weight: 1
}
I0925 23:18:23.669098 29980 net.cpp:156] Memory required for data: 22408
I0925 23:18:23.566025 29958 net.cpp:49] Initializing net from parameters: 
layer {
  name: "lstm1_"
  type: "Input"
  top: "x"
  top: "cont"
  input_param {
    shape {
      dim: 1
      dim: 1
      dim: 500
    }
    shape {
      dim: 1
      dim: 1
    }
  }
}
layer {
  name: "lstm1_"
  type: "Input"
  top: "c_0"
  top: "h_0"
  input_param {
    shape {
      dim: 1
      dim: 1
      dim: 1000
    }
    shape {
      dim: 1
      dim: 1
      dim: 1000
    }
  }
}
layer {
  name: "lstm1_cont_slice"
  type: "Slice"
  bottom: "cont"
  top: "cont_1"
  slice_param {
    axis: 0
  }
}
layer {
  name: "lstm1_x_transform"
  type: "InnerProduct"
  bottom: "x"
  top: "W_xc_x"
  param {
    name: "W_xc"
  }
  param {
    name: "b_c"
  }
  propagate_down: true
  inner_product_param {
    num_output: 4000
    bias_term: true
    weight_filler {
      type: "uniform"
      min: -0.08
      max: 0.08
    }
    bias_filler {
      type: "constant"
      value: 0
    }
    axis: 2
  }
}
layer {
  name: "lstm1_W_xc_x_slice"
  type: "Slice"
  bottom: "W_xc_x"
  top: "W_xc_x_1"
  slice_param {
    axis: 0
  }
}
layer {
  name: "lstm1_h_conted_0"
  type: "Scale"
  bottom: "h_0"
  bottom: "cont_1"
  top: "h_conted_0"
  scale_param {
    axis: 0
  }
}
layer {
  name: "lstm1_transform_1"
  type: "InnerProduct"
  bottom: "h_conted_0"
  top: "W_hc_h_0"
  param {
    name: "W_hc"
  }
  inner_product_param {
    num_output: 4000
    bias_term: false
    weight_filler {
      type: "uniform"
      min: -0.08
      max: 0.08
    }
    axis: 2
  }
}
layer {
  name: "lstm1_gate_input_1"
  type: "Eltwise"
  bottom: "W_hc_h_0"
  bottom: "W_xc_x_1"
  top: "gate_input_1"
  eltwise_param {
    operation: SUM
  }
}
layer {
  name: "lstm1_unit_1"
  type: "LSTMUnit"
  bottom: "c_0"
  bottom: "gate_input_1"
  bottom: "cont_1"
  top: "c_1"
  top: "h_1"
}
layer {
  name: "lstm1_"
  type: "Split"
  bottom: "c_1"
  top: "c_T"
}
layer {
  name: "lstm1_h_concat"
  type: "Concat"
  bottom: "h_1"
  top: "h"
  concat_param {
    axis: 0
  }
}
layer {
  name: "h_pseudoloss"
  type: "Reduction"
  bottom: "h"
  top: "h_pseudoloss"
  loss_weight: 1
}
I0925 23:18:23.566025 29946 net.cpp:49] Initializing net from parameters: 
layer {
  name: "lstm1_"
  type: "Input"
  top: "x"
  top: "cont"
  input_param {
    shape {
      dim: 1
      dim: 1
      dim: 500
    }
    shape {
      dim: 1
      dim: 1
    }
  }
}
layer {
  name: "lstm1_"
  type: "Input"
  top: "c_0"
  top: "h_0"
  input_param {
    shape {
      dim: 1
      dim: 1
      dim: 1000
    }
    shape {
      dim: 1
      dim: 1
      dim: 1000
    }
  }
}
layer {
  name: "lstm1_cont_slice"
  type: "Slice"
  bottom: "cont"
  top: "cont_1"
  slice_param {
    axis: 0
  }
}
layer {
  name: "lstm1_x_transform"
  type: "InnerProduct"
  bottom: "x"
  top: "W_xc_x"
  param {
    name: "W_xc"
  }
  param {
    name: "b_c"
  }
  propagate_down: true
  inner_product_param {
    num_output: 4000
    bias_term: true
    weight_filler {
      type: "uniform"
      min: -0.08
      max: 0.08
    }
    bias_filler {
      type: "constant"
      value: 0
    }
    axis: 2
  }
}
layer {
  name: "lstm1_W_xc_x_slice"
  type: "Slice"
  bottom: "W_xc_x"
  top: "W_xc_x_1"
  slice_param {
    axis: 0
  }
}
layer {
  name: "lstm1_h_conted_0"
  type: "Scale"
  bottom: "h_0"
  bottom: "cont_1"
  top: "h_conted_0"
  scale_param {
    axis: 0
  }
}
layer {
  name: "lstm1_transform_1"
  type: "InnerProduct"
  bottom: "h_conted_0"
  top: "W_hc_h_0"
  param {
    name: "W_hc"
  }
  inner_product_param {
    num_output: 4000
    bias_term: false
    weight_filler {
      type: "uniform"
      min: -0.08
      max: 0.08
    }
    axis: 2
  }
}
layer {
  name: "lstm1_gate_input_1"
  type: "Eltwise"
  bottom: "W_hc_h_0"
  bottom: "W_xc_x_1"
  top: "gate_input_1"
  eltwise_param {
    operation: SUM
  }
}
layer {
  name: "lstm1_unit_1"
  type: "LSTMUnit"
  bottom: "c_0"
  bottom: "gate_input_1"
  bottom: "cont_1"
  top: "c_1"
  top: "h_1"
}
layer {
  name: "lstm1_"
  type: "Split"
  bottom: "c_1"
  top: "c_T"
}
layer {
  name: "lstm1_h_concat"
  type: "Concat"
  bottom: "h_1"
  top: "h"
  concat_param {
    axis: 0
  }
}
layer {
  name: "h_pseudoloss"
  type: "Reduction"
  bottom: "h"
  top: "h_pseudoloss"
  loss_weight: 1
}
I0925 23:18:23.672652 30006 net.cpp:91] Creating Layer reshape_stage_indicator
I0925 23:18:23.672684 29950 net.cpp:399] embedding -> embedded_input_sentence
I0925 23:18:23.672746 29980 layer_factory.hpp:77] Creating layer lstm1
I0925 23:18:23.672754 29954 layer_factory.hpp:77] Creating layer input
I0925 23:18:23.728519 30006 net.cpp:425] reshape_stage_indicator <- stage_indicator
I0925 23:18:23.672755 29974 layer_factory.hpp:77] Creating layer reshape_stage_indicator
I0925 23:18:23.672783 29968 layer_factory.hpp:77] Creating layer lstm1_
I0925 23:18:23.728564 29954 net.cpp:91] Creating Layer input
I0925 23:18:23.728565 29980 net.cpp:91] Creating Layer lstm1
I0925 23:18:23.672781 29958 layer_factory.hpp:77] Creating layer lstm1_
I0925 23:18:23.728577 30006 net.cpp:399] reshape_stage_indicator -> reshaped_stage_indicator
I0925 23:18:23.678544 29960 net.cpp:141] Setting up relu1
I0925 23:18:23.728601 29974 net.cpp:91] Creating Layer reshape_stage_indicator
I0925 23:18:23.728641 29958 net.cpp:91] Creating Layer lstm1_
I0925 23:18:23.728649 29960 net.cpp:148] Top shape: 10 96 55 55 (2904000)
I0925 23:18:23.728651 29946 layer_factory.hpp:77] Creating layer lstm1_
I0925 23:18:23.728597 29954 net.cpp:399] input -> frames_fc7
I0925 23:18:23.728664 29960 net.cpp:156] Memory required for data: 29415480
I0925 23:18:23.728610 29968 net.cpp:91] Creating Layer lstm1_
I0925 23:18:23.728660 29974 net.cpp:425] reshape_stage_indicator <- stage_indicator
I0925 23:18:23.728679 29946 net.cpp:91] Creating Layer lstm1_
…
I0925 23:18:23.728736 29968 net.cpp:399] lstm1_ -> cont
I0925 23:18:23.728742 29980 net.cpp:399] lstm1 -> lstm1
I0925 23:18:23.728749 29954 net.cpp:399] input -> stage_indicator
I0925 23:18:23.728752 29946 net.cpp:399] lstm1_ -> cont
I0925 23:18:23.728744 29960 net.cpp:425] pool1 <- conv1
I0925 23:18:23.728765 30006 net.cpp:141] Setting up reshape_stage_indicator
I0925 23:18:23.728775 29980 recurrent_layer.cpp:20] Initializing recurrent layer: assuming input batch contains 1 timesteps of 1 independent streams.
I0925 23:18:23.728788 29960 net.cpp:399] pool1 -> pool1
I0925 23:18:23.728793 30006 net.cpp:148] Top shape: 1 1 1 (1)
I0925 23:18:23.728803 30006 net.cpp:156] Memory required for data: 20408
I0925 23:18:23.728842 30006 layer_factory.hpp:77] Creating layer embedding
I0925 23:18:23.728863 30006 net.cpp:91] Creating Layer embedding
I0925 23:18:23.728873 30006 net.cpp:425] embedding <- input_sentence
I0925 23:18:23.728888 30006 net.cpp:399] embedding -> embedded_input_sentence
I0925 23:18:23.785172 29980 net.cpp:49] Initializing net from parameters: 
layer {
  name: "lstm1_"
  type: "Input"
  top: "x"
  top: "cont"
  input_param {
    shape {
      dim: 1
      dim: 1
      dim: 500
    }
    shape {
      dim: 1
      dim: 1
    }
  }
}
layer {
  name: "lstm1_"
  type: "Input"
  top: "c_0"
  top: "h_0"
  input_param {
    shape {
      dim: 1
      dim: 1
      dim: 1000
    }
    shape {
      dim: 1
      dim: 1
      dim: 1000
    }
  }
}
layer {
  name: "lstm1_cont_slice"
  type: "Slice"
  bottom: "cont"
  top: "cont_1"
  slice_param {
    axis: 0
  }
}
layer {
  name: "lstm1_x_transform"
  type: "InnerProduct"
  bottom: "x"
  top: "W_xc_x"
  param {
    name: "W_xc"
  }
  param {
    name: "b_c"
  }
  propagate_down: true
  inner_product_param {
    num_output: 4000
    bias_term: true
    weight_filler {
      type: "uniform"
      min: -0.08
      max: 0.08
    }
    bias_filler {
      type: "constant"
      value: 0
    }
    axis: 2
  }
}
layer {
  name: "lstm1_W_xc_x_slice"
  type: "Slice"
  bottom: "W_xc_x"
  top: "W_xc_x_1"
  slice_param {
    axis: 0
  }
}
layer {
  name: "lstm1_h_conted_0"
  type: "Scale"
  bottom: "h_0"
  bottom: "cont_1"
  top: "h_conted_0"
  scale_param {
    axis: 0
  }
}
layer {
  name: "lstm1_transform_1"
  type: "InnerProduct"
  bottom: "h_conted_0"
  top: "W_hc_h_0"
  param {
    name: "W_hc"
  }
  inner_product_param {
    num_output: 4000
    bias_term: false
    weight_filler {
      type: "uniform"
      min: -0.08
      max: 0.08
    }
    axis: 2
  }
}
layer {
  name: "lstm1_gate_input_1"
  type: "Eltwise"
  bottom: "W_hc_h_0"
  bottom: "W_xc_x_1"
  top: "gate_input_1"
  eltwise_param {
    operation: SUM
  }
}
layer {
  name: "lstm1_unit_1"
  type: "LSTMUnit"
  bottom: "c_0"
  bottom: "gate_input_1"
  bottom: "cont_1"
  top: "c_1"
  top: "h_1"
}
layer {
  name: "lstm1_"
  type: "Split"
  bottom: "c_1"
  top: "c_T"
}
layer {
  name: "lstm1_h_concat"
  type: "Concat"
  bottom: "h_1"
  top: "h"
  concat_param {
    axis: 0
  }
}
layer {
  name: "h_pseudoloss"
  type: "Reduction"
  bottom: "h"
  top: "h_pseudoloss"
  loss_weight: 1
}
I0925 23:18:23.785514 29980 layer_factory.hpp:77] Creating layer lstm1_
I0925 23:18:23.785547 29980 net.cpp:91] Creating Layer lstm1_
I0925 23:18:23.785560 29980 net.cpp:399] lstm1_ -> x
I0925 23:18:23.785583 29980 net.cpp:399] lstm1_ -> cont
I0925 23:18:23.798919 29974 net.cpp:141] Setting up reshape_stage_indicator
I0925 23:18:23.799015 29974 net.cpp:148] Top shape: 1 1 1 (1)
I0925 23:18:23.799036 29974 net.cpp:156] Memory required for data: 20408
I0925 23:18:23.799063 29974 layer_factory.hpp:77] Creating layer embedding
I0925 23:18:23.799110 29974 net.cpp:91] Creating Layer embedding
I0925 23:18:23.799134 29974 net.cpp:425] embedding <- input_sentence
I0925 23:18:23.799168 29974 net.cpp:399] embedding -> embedded_input_sentence
I0925 23:18:23.864231 29946 net.cpp:141] Setting up lstm1_
I0925 23:18:23.864287 29946 net.cpp:148] Top shape: 1 1 500 (500)
I0925 23:18:23.864300 29946 net.cpp:148] Top shape: 1 1 (1)
I0925 23:18:23.864307 29946 net.cpp:156] Memory required for data: 2004
I0925 23:18:23.864320 29946 layer_factory.hpp:77] Creating layer lstm1_
I0925 23:18:23.864347 29946 net.cpp:91] Creating Layer lstm1_
I0925 23:18:23.864372 29946 net.cpp:399] lstm1_ -> c_0
I0925 23:18:23.864377 29954 net.cpp:141] Setting up input
I0925 23:18:23.864398 29946 net.cpp:399] lstm1_ -> h_0
I0925 23:18:23.864403 29954 net.cpp:148] Top shape: 1 4096 (4096)
I0925 23:18:23.864414 29954 net.cpp:148] Top shape: 1 1 (1)
I0925 23:18:23.864424 29954 net.cpp:148] Top shape: 1 1 (1)
I0925 23:18:23.864434 29954 net.cpp:148] Top shape: 1 1 (1)
I0925 23:18:23.864440 29954 net.cpp:156] Memory required for data: 16396
I0925 23:18:23.864449 29954 layer_factory.hpp:77] Creating layer cont_sentence_input_1_split
I0925 23:18:23.864466 29954 net.cpp:91] Creating Layer cont_sentence_input_1_split
I0925 23:18:23.864475 29954 net.cpp:425] cont_sentence_input_1_split <- cont_sentence
I0925 23:18:23.864491 29954 net.cpp:399] cont_sentence_input_1_split -> cont_sentence_input_1_split_0
I0925 23:18:23.864508 29954 net.cpp:399] cont_sentence_input_1_split -> cont_sentence_input_1_split_1
I0925 23:18:23.914701 29958 net.cpp:141] Setting up lstm1_
I0925 23:18:23.914779 29958 net.cpp:148] Top shape: 1 1 500 (500)
I0925 23:18:23.914801 29958 net.cpp:148] Top shape: 1 1 (1)
I0925 23:18:23.914826 29958 net.cpp:156] Memory required for data: 2004
I0925 23:18:23.914847 29958 layer_factory.hpp:77] Creating layer lstm1_
I0925 23:18:23.914890 29958 net.cpp:91] Creating Layer lstm1_
I0925 23:18:23.914924 29958 net.cpp:399] lstm1_ -> c_0
I0925 23:18:23.914966 29958 net.cpp:399] lstm1_ -> h_0
I0925 23:18:23.915097 29958 net.cpp:141] Setting up lstm1_
I0925 23:18:23.915120 29958 net.cpp:148] Top shape: 1 1 1000 (1000)
I0925 23:18:23.915136 29958 net.cpp:148] Top shape: 1 1 1000 (1000)
I0925 23:18:23.915146 29958 net.cpp:156] Memory required for data: 10004
I0925 23:18:23.915155 29958 layer_factory.hpp:77] Creating layer lstm1_cont_slice
I0925 23:18:23.915174 29958 net.cpp:91] Creating Layer lstm1_cont_slice
I0925 23:18:23.915184 29958 net.cpp:425] lstm1_cont_slice <- cont
I0925 23:18:23.915204 29958 net.cpp:399] lstm1_cont_slice -> cont_1
I0925 23:18:23.915266 29958 net.cpp:141] Setting up lstm1_cont_slice
I0925 23:18:23.915280 29958 net.cpp:148] Top shape: 1 1 (1)
I0925 23:18:23.915290 29958 net.cpp:156] Memory required for data: 10008
I0925 23:18:23.915302 29958 layer_factory.hpp:77] Creating layer cont_1_lstm1_cont_slice_0_split
I0925 23:18:23.915318 29958 net.cpp:91] Creating Layer cont_1_lstm1_cont_slice_0_split
I0925 23:18:23.915328 29958 net.cpp:425] cont_1_lstm1_cont_slice_0_split <- cont_1
I0925 23:18:23.915339 29958 net.cpp:399] cont_1_lstm1_cont_slice_0_split -> cont_1_lstm1_cont_slice_0_split_0
I0925 23:18:23.915354 29958 net.cpp:399] cont_1_lstm1_cont_slice_0_split -> cont_1_lstm1_cont_slice_0_split_1
I0925 23:18:23.915436 29958 net.cpp:141] Setting up cont_1_lstm1_cont_slice_0_split
I0925 23:18:23.915451 29958 net.cpp:148] Top shape: 1 1 (1)
I0925 23:18:23.915460 29958 net.cpp:148] Top shape: 1 1 (1)
I0925 23:18:23.915469 29958 net.cpp:156] Memory required for data: 10016
I0925 23:18:23.915477 29958 layer_factory.hpp:77] Creating layer lstm1_x_transform
I0925 23:18:23.915500 29958 net.cpp:91] Creating Layer lstm1_x_transform
I0925 23:18:23.915508 29958 net.cpp:425] lstm1_x_transform <- x
I0925 23:18:23.915523 29958 net.cpp:399] lstm1_x_transform -> W_xc_x
I0925 23:18:23.922565 29968 net.cpp:141] Setting up lstm1_
I0925 23:18:23.922641 29968 net.cpp:148] Top shape: 1 1 500 (500)
I0925 23:18:23.922658 29968 net.cpp:148] Top shape: 1 1 (1)
I0925 23:18:23.922668 29968 net.cpp:156] Memory required for data: 2004
I0925 23:18:23.922683 29968 layer_factory.hpp:77] Creating layer lstm1_
I0925 23:18:23.922731 29968 net.cpp:91] Creating Layer lstm1_
I0925 23:18:23.922746 29968 net.cpp:399] lstm1_ -> c_0
I0925 23:18:23.922776 29968 net.cpp:399] lstm1_ -> h_0
I0925 23:18:23.922821 29960 net.cpp:141] Setting up pool1
I0925 23:18:23.922869 29960 net.cpp:148] Top shape: 10 96 27 27 (699840)
I0925 23:18:23.922879 29960 net.cpp:156] Memory required for data: 32214840
I0925 23:18:23.922914 29968 net.cpp:141] Setting up lstm1_
I0925 23:18:23.922925 29960 layer_factory.hpp:77] Creating layer norm1
I0925 23:18:23.922935 29968 net.cpp:148] Top shape: 1 1 1000 (1000)
I0925 23:18:23.922947 29968 net.cpp:148] Top shape: 1 1 1000 (1000)
I0925 23:18:23.922960 29968 net.cpp:156] Memory required for data: 10004
I0925 23:18:23.922967 29968 layer_factory.hpp:77] Creating layer lstm1_cont_slice
I0925 23:18:23.922979 29960 net.cpp:91] Creating Layer norm1
I0925 23:18:23.922986 29968 net.cpp:91] Creating Layer lstm1_cont_slice
I0925 23:18:23.922994 29960 net.cpp:425] norm1 <- pool1
I0925 23:18:23.922998 29968 net.cpp:425] lstm1_cont_slice <- cont
I0925 23:18:23.923017 29960 net.cpp:399] norm1 -> norm1
I0925 23:18:23.923017 29968 net.cpp:399] lstm1_cont_slice -> cont_1
I0925 23:18:23.923858 29994 net.cpp:141] Setting up embedding
I0925 23:18:23.923887 29994 net.cpp:148] Top shape: 1 1 500 (500)
I0925 23:18:23.923897 29994 net.cpp:156] Memory required for data: 22408
I0925 23:18:23.923912 29946 net.cpp:141] Setting up lstm1_
I0925 23:18:23.923918 29994 layer_factory.hpp:77] Creating layer lstm1
I0925 23:18:23.923952 29946 net.cpp:148] Top shape: 1 1 1000 (1000)
I0925 23:18:23.923964 29994 net.cpp:91] Creating Layer lstm1
I0925 23:18:23.923986 29994 net.cpp:425] lstm1 <- embedded_input_frames
I0925 23:18:23.924002 29994 net.cpp:425] lstm1 <- cont_sentence_input_1_split_0
I0925 23:18:23.924021 29994 net.cpp:399] lstm1 -> lstm1
I0925 23:18:23.924046 29994 recurrent_layer.cpp:20] Initializing recurrent layer: assuming input batch contains 1 timesteps of 1 independent streams.
I0925 23:18:23.923965 29946 net.cpp:148] Top shape: 1 1 1000 (1000)
I0925 23:18:23.924088 29946 net.cpp:156] Memory required for data: 10004
I0925 23:18:23.924100 29946 layer_factory.hpp:77] Creating layer lstm1_cont_slice
I0925 23:18:23.924123 29946 net.cpp:91] Creating Layer lstm1_cont_slice
I0925 23:18:23.924134 29946 net.cpp:425] lstm1_cont_slice <- cont
I0925 23:18:23.924152 29946 net.cpp:399] lstm1_cont_slice -> cont_1
I0925 23:18:23.924211 29968 net.cpp:141] Setting up lstm1_cont_slice
I0925 23:18:23.924228 29946 net.cpp:141] Setting up lstm1_cont_slice
I0925 23:18:23.924274 29968 net.cpp:148] Top shape: 1 1 (1)
I0925 23:18:23.924275 29946 net.cpp:148] Top shape: 1 1 (1)
I0925 23:18:23.924305 29968 net.cpp:156] Memory required for data: 10008
I0925 23:18:23.924307 29946 net.cpp:156] Memory required for data: 10008
I0925 23:18:23.924332 29968 layer_factory.hpp:77] Creating layer cont_1_lstm1_cont_slice_0_split
I0925 23:18:23.924340 29946 layer_factory.hpp:77] Creating layer cont_1_lstm1_cont_slice_0_split
I0925 23:18:23.924360 29968 net.cpp:91] Creating Layer cont_1_lstm1_cont_slice_0_split
…
I0925 23:18:23.924438 29968 net.cpp:399] cont_1_lstm1_cont_slice_0_split -> cont_1_lstm1_cont_slice_0_split_1
I0925 23:18:23.924521 29994 net.cpp:49] Initializing net from parameters: 
layer {
  name: "lstm1_"
  type: "Input"
  top: "x"
  top: "cont"
  input_param {
    shape {
      dim: 1
      dim: 1
      dim: 500
    }
    shape {
      dim: 1
      dim: 1
    }
  }
}
layer {
  name: "lstm1_"
  type: "Input"
  top: "c_0"
  top: "h_0"
  input_param {
    shape {
      dim: 1
      dim: 1
      dim: 1000
    }
    shape {
      dim: 1
      dim: 1
      dim: 1000
    }
  }
}
layer {
  name: "lstm1_cont_slice"
  type: "Slice"
  bottom: "cont"
  top: "cont_1"
  slice_param {
    axis: 0
  }
}
layer {
  name: "lstm1_x_transform"
  type: "InnerProduct"
  bottom: "x"
  top: "W_xc_x"
  param {
    name: "W_xc"
  }
  param {
    name: "b_c"
  }
  propagate_down: true
  inner_product_param {
    num_output: 4000
    bias_term: true
    weight_filler {
      type: "uniform"
      min: -0.08
      max: 0.08
    }
    bias_filler {
      type: "constant"
      value: 0
    }
    axis: 2
  }
}
layer {
  name: "lstm1_W_xc_x_slice"
  type: "Slice"
  bottom: "W_xc_x"
  top: "W_xc_x_1"
  slice_param {
    axis: 0
  }
}
layer {
  name: "lstm1_h_conted_0"
  type: "Scale"
  bottom: "h_0"
  bottom: "cont_1"
  top: "h_conted_0"
  scale_param {
    axis: 0
  }
}
layer {
  name: "lstm1_transform_1"
  type: "InnerProduct"
  bottom: "h_conted_0"
  top: "W_hc_h_0"
  param {
    name: "W_hc"
  }
  inner_product_param {
    num_output: 4000
    bias_term: false
    weight_filler {
      type: "uniform"
      min: -0.08
      max: 0.08
    }
    axis: 2
  }
}
layer {
  name: "lstm1_gate_input_1"
  type: "Eltwise"
  bottom: "W_hc_h_0"
  bottom: "W_xc_x_1"
  top: "gate_input_1"
  eltwise_param {
    operation: SUM
  }
}
layer {
  name: "lstm1_unit_1"
  type: "LSTMUnit"
  bottom: "c_0"
  bottom: "gate_input_1"
  bottom: "cont_1"
  top: "c_1"
  top: "h_1"
}
layer {
  name: "lstm1_"
  type: "Split"
  bottom: "c_1"
  top: "c_T"
}
layer {
  name: "lstm1_h_concat"
  type: "Concat"
  bottom: "h_1"
  top: "h"
  concat_param {
    axis: 0
  }
}
layer {
  name: "h_pseudoloss"
  type: "Reduction"
  bottom: "h"
  top: "h_pseudoloss"
  loss_weight: 1
}
I0925 23:18:23.924533 29946 net.cpp:141] Setting up cont_1_lstm1_cont_slice_0_split
I0925 23:18:23.924551 29946 net.cpp:148] Top shape: 1 1 (1)
I0925 23:18:23.924561 29946 net.cpp:148] Top shape: 1 1 (1)
I0925 23:18:23.924569 29946 net.cpp:156] Memory required for data: 10016
I0925 23:18:23.924578 29946 layer_factory.hpp:77] Creating layer lstm1_x_transform
I0925 23:18:23.924599 29946 net.cpp:91] Creating Layer lstm1_x_transform
I0925 23:18:23.924609 29946 net.cpp:425] lstm1_x_transform <- x
I0925 23:18:23.924625 29946 net.cpp:399] lstm1_x_transform -> W_xc_x
I0925 23:18:23.924676 29994 layer_factory.hpp:77] Creating layer lstm1_
I0925 23:18:23.924696 29994 net.cpp:91] Creating Layer lstm1_
I0925 23:18:23.924710 29994 net.cpp:399] lstm1_ -> x
I0925 23:18:23.924731 29994 net.cpp:399] lstm1_ -> cont
I0925 23:18:23.930315 29954 net.cpp:141] Setting up cont_sentence_input_1_split
I0925 23:18:23.930369 29954 net.cpp:148] Top shape: 1 1 (1)
I0925 23:18:23.930372 29980 net.cpp:141] Setting up lstm1_
I0925 23:18:23.930383 29954 net.cpp:148] Top shape: 1 1 (1)
I0925 23:18:23.930407 29954 net.cpp:156] Memory required for data: 16404
I0925 23:18:23.930408 29980 net.cpp:148] Top shape: 1 1 500 (500)
I0925 23:18:23.930430 29954 layer_factory.hpp:77] Creating layer embed_encoder
I0925 23:18:23.930433 29980 net.cpp:148] Top shape: 1 1 (1)
I0925 23:18:23.930455 29980 net.cpp:156] Memory required for data: 2004
I0925 23:18:23.930469 29980 layer_factory.hpp:77] Creating layer lstm1_
I0925 23:18:23.930475 29954 net.cpp:91] Creating Layer embed_encoder
I0925 23:18:23.930486 29980 net.cpp:91] Creating Layer lstm1_
I0925 23:18:23.930488 29954 net.cpp:425] embed_encoder <- frames_fc7
I0925 23:18:23.930500 29980 net.cpp:399] lstm1_ -> c_0
I0925 23:18:23.930510 29954 net.cpp:399] embed_encoder -> embedded_in_frames
I0925 23:18:23.930526 29980 net.cpp:399] lstm1_ -> h_0
I0925 23:18:23.930542 29968 net.cpp:141] Setting up cont_1_lstm1_cont_slice_0_split
I0925 23:18:23.930585 29968 net.cpp:148] Top shape: 1 1 (1)
I0925 23:18:23.930610 29968 net.cpp:148] Top shape: 1 1 (1)
I0925 23:18:23.930620 29968 net.cpp:156] Memory required for data: 10016
I0925 23:18:23.930632 29968 layer_factory.hpp:77] Creating layer lstm1_x_transform
I0925 23:18:23.930666 29968 net.cpp:91] Creating Layer lstm1_x_transform
I0925 23:18:23.930677 29968 net.cpp:425] lstm1_x_transform <- x
I0925 23:18:23.930696 29968 net.cpp:399] lstm1_x_transform -> W_xc_x
I0925 23:18:23.947466 30002 net.cpp:141] Setting up embedding
I0925 23:18:23.947527 29994 net.cpp:141] Setting up lstm1_
I0925 23:18:23.947583 29994 net.cpp:148] Top shape: 1 1 500 (500)
I0925 23:18:23.947598 29994 net.cpp:148] Top shape: 1 1 (1)
I0925 23:18:23.947607 29994 net.cpp:156] Memory required for data: 2004
I0925 23:18:23.947623 29994 layer_factory.hpp:77] Creating layer lstm1_
I0925 23:18:23.947652 29994 net.cpp:91] Creating Layer lstm1_
I0925 23:18:23.947528 30002 net.cpp:148] Top shape: 1 1 500 (500)
I0925 23:18:23.947685 30002 net.cpp:156] Memory required for data: 22408
I0925 23:18:23.947708 30002 layer_factory.hpp:77] Creating layer lstm1
I0925 23:18:23.947731 30002 net.cpp:91] Creating Layer lstm1
I0925 23:18:23.947746 30002 net.cpp:425] lstm1 <- embedded_input_frames
I0925 23:18:23.947762 30002 net.cpp:425] lstm1 <- cont_sentence_input_1_split_0
I0925 23:18:23.947777 30002 net.cpp:399] lstm1 -> lstm1
I0925 23:18:23.947803 30002 recurrent_layer.cpp:20] Initializing recurrent layer: assuming input batch contains 1 timesteps of 1 independent streams.
I0925 23:18:23.949558 29994 net.cpp:399] lstm1_ -> c_0
I0925 23:18:23.949568 29980 net.cpp:141] Setting up lstm1_
I0925 23:18:23.949612 29980 net.cpp:148] Top shape: 1 1 1000 (1000)
I0925 23:18:23.949617 29994 net.cpp:399] lstm1_ -> h_0
I0925 23:18:23.949625 29980 net.cpp:148] Top shape: 1 1 1000 (1000)
I0925 23:18:23.949635 29980 net.cpp:156] Memory required for data: 10004
I0925 23:18:23.949645 29980 layer_factory.hpp:77] Creating layer lstm1_cont_slice
I0925 23:18:23.949662 29980 net.cpp:91] Creating Layer lstm1_cont_slice
I0925 23:18:23.949672 29980 net.cpp:425] lstm1_cont_slice <- cont
I0925 23:18:23.949687 29980 net.cpp:399] lstm1_cont_slice -> cont_1
I0925 23:18:23.951544 29980 net.cpp:141] Setting up lstm1_cont_slice
I0925 23:18:23.951565 29980 net.cpp:148] Top shape: 1 1 (1)
I0925 23:18:23.951572 29980 net.cpp:156] Memory required for data: 10008
I0925 23:18:23.951581 29980 layer_factory.hpp:77] Creating layer cont_1_lstm1_cont_slice_0_split
I0925 23:18:23.951599 29980 net.cpp:91] Creating Layer cont_1_lstm1_cont_slice_0_split
I0925 23:18:23.951609 29980 net.cpp:425] cont_1_lstm1_cont_slice_0_split <- cont_1
I0925 23:18:23.951622 29980 net.cpp:399] cont_1_lstm1_cont_slice_0_split -> cont_1_lstm1_cont_slice_0_split_0
I0925 23:18:23.951637 29980 net.cpp:399] cont_1_lstm1_cont_slice_0_split -> cont_1_lstm1_cont_slice_0_split_1
I0925 23:18:23.951699 29960 net.cpp:141] Setting up norm1
I0925 23:18:23.951717 29960 net.cpp:148] Top shape: 10 96 27 27 (699840)
I0925 23:18:23.951725 29960 net.cpp:156] Memory required for data: 35014200
I0925 23:18:23.951735 29960 layer_factory.hpp:77] Creating layer conv2
I0925 23:18:23.951812 29994 net.cpp:141] Setting up lstm1_
I0925 23:18:23.951830 29994 net.cpp:148] Top shape: 1 1 1000 (1000)
I0925 23:18:23.951843 29994 net.cpp:148] Top shape: 1 1 1000 (1000)
I0925 23:18:23.951850 29994 net.cpp:156] Memory required for data: 10004
I0925 23:18:23.951860 29994 layer_factory.hpp:77] Creating layer lstm1_cont_slice
I0925 23:18:23.954066 29960 net.cpp:91] Creating Layer conv2
I0925 23:18:23.954088 29960 net.cpp:425] conv2 <- norm1
I0925 23:18:23.954113 29994 net.cpp:91] Creating Layer lstm1_cont_slice
I0925 23:18:23.954138 29994 net.cpp:425] lstm1_cont_slice <- cont
I0925 23:18:23.954159 29994 net.cpp:399] lstm1_cont_slice -> cont_1
I0925 23:18:23.956567 29980 net.cpp:141] Setting up cont_1_lstm1_cont_slice_0_split
I0925 23:18:23.956599 29980 net.cpp:148] Top shape: 1 1 (1)
I0925 23:18:23.956614 29980 net.cpp:148] Top shape: 1 1 (1)
I0925 23:18:23.956622 29980 net.cpp:156] Memory required for data: 10016
I0925 23:18:23.956634 29980 layer_factory.hpp:77] Creating layer lstm1_x_transform
I0925 23:18:23.956660 29980 net.cpp:91] Creating Layer lstm1_x_transform
I0925 23:18:23.956672 29980 net.cpp:425] lstm1_x_transform <- x
I0925 23:18:23.956706 29960 net.cpp:399] conv2 -> conv2
I0925 23:18:23.956814 29994 net.cpp:141] Setting up lstm1_cont_slice
I0925 23:18:23.956836 29994 net.cpp:148] Top shape: 1 1 (1)
I0925 23:18:23.956847 29994 net.cpp:156] Memory required for data: 10008
I0925 23:18:23.956858 29994 layer_factory.hpp:77] Creating layer cont_1_lstm1_cont_slice_0_split
I0925 23:18:23.956876 29994 net.cpp:91] Creating Layer cont_1_lstm1_cont_slice_0_split
I0925 23:18:23.956889 29994 net.cpp:425] cont_1_lstm1_cont_slice_0_split <- cont_1
I0925 23:18:23.957753 29980 net.cpp:399] lstm1_x_transform -> W_xc_x
I0925 23:18:23.957803 29994 net.cpp:399] cont_1_lstm1_cont_slice_0_split -> cont_1_lstm1_cont_slice_0_split_0
I0925 23:18:23.957763 30002 net.cpp:49] Initializing net from parameters: 
layer {
  name: "lstm1_"
  type: "Input"
  top: "x"
  top: "cont"
  input_param {
    shape {
      dim: 1
      dim: 1
      dim: 500
    }
    shape {
      dim: 1
      dim: 1
    }
  }
}
layer {
  name: "lstm1_"
  type: "Input"
  top: "c_0"
  top: "h_0"
  input_param {
    shape {
      dim: 1
      dim: 1
      dim: 1000
    }
    shape {
      dim: 1
      dim: 1
      dim: 1000
    }
  }
}
layer {
  name: "lstm1_cont_slice"
  type: "Slice"
  bottom: "cont"
  top: "cont_1"
  slice_param {
    axis: 0
  }
}
layer {
  name: "lstm1_x_transform"
  type: "InnerProduct"
  bottom: "x"
  top: "W_xc_x"
  param {
    name: "W_xc"
  }
  param {
    name: "b_c"
  }
  propagate_down: true
  inner_product_param {
    num_output: 4000
    bias_term: true
    weight_filler {
      type: "uniform"
      min: -0.08
      max: 0.08
    }
    bias_filler {
      type: "constant"
      value: 0
    }
    axis: 2
  }
}
layer {
  name: "lstm1_W_xc_x_slice"
  type: "Slice"
  bottom: "W_xc_x"
  top: "W_xc_x_1"
  slice_param {
    axis: 0
  }
}
layer {
  name: "lstm1_h_conted_0"
  type: "Scale"
  bottom: "h_0"
  bottom: "cont_1"
  top: "h_conted_0"
  scale_param {
    axis: 0
  }
}
layer {
  name: "lstm1_transform_1"
  type: "InnerProduct"
  bottom: "h_conted_0"
  top: "W_hc_h_0"
  param {
    name: "W_hc"
  }
  inner_product_param {
    num_output: 4000
    bias_term: false
    weight_filler {
      type: "uniform"
      min: -0.08
      max: 0.08
    }
    axis: 2
  }
}
layer {
  name: "lstm1_gate_input_1"
  type: "Eltwise"
  bottom: "W_hc_h_0"
  bottom: "W_xc_x_1"
  top: "gate_input_1"
  eltwise_param {
    operation: SUM
  }
}
layer {
  name: "lstm1_unit_1"
  type: "LSTMUnit"
  bottom: "c_0"
  bottom: "gate_input_1"
  bottom: "cont_1"
  top: "c_1"
  top: "h_1"
}
layer {
  name: "lstm1_"
  type: "Split"
  bottom: "c_1"
  top: "c_T"
}
layer {
  name: "lstm1_h_concat"
  type: "Concat"
  bottom: "h_1"
  top: "h"
  concat_param {
    axis: 0
  }
}
layer {
  name: "h_pseudoloss"
  type: "Reduction"
  bottom: "h"
  top: "h_pseudoloss"
  loss_weight: 1
}
I0925 23:18:23.957828 29994 net.cpp:399] cont_1_lstm1_cont_slice_0_split -> cont_1_lstm1_cont_slice_0_split_1
I0925 23:18:23.958003 30002 layer_factory.hpp:77] Creating layer lstm1_
I0925 23:18:23.958021 30002 net.cpp:91] Creating Layer lstm1_
I0925 23:18:23.958029 30002 net.cpp:399] lstm1_ -> x
I0925 23:18:23.958047 30002 net.cpp:399] lstm1_ -> cont
I0925 23:18:23.967650 30002 net.cpp:141] Setting up lstm1_
I0925 23:18:23.967701 30002 net.cpp:148] Top shape: 1 1 500 (500)
I0925 23:18:23.967716 30002 net.cpp:148] Top shape: 1 1 (1)
I0925 23:18:23.967725 30002 net.cpp:156] Memory required for data: 2004
I0925 23:18:23.967739 30002 layer_factory.hpp:77] Creating layer lstm1_
I0925 23:18:23.967769 30002 net.cpp:91] Creating Layer lstm1_
I0925 23:18:23.967907 30002 net.cpp:399] lstm1_ -> c_0
I0925 23:18:23.967950 30002 net.cpp:399] lstm1_ -> h_0
I0925 23:18:23.968263 29994 net.cpp:141] Setting up cont_1_lstm1_cont_slice_0_split
I0925 23:18:23.968288 29994 net.cpp:148] Top shape: 1 1 (1)
I0925 23:18:23.968303 29994 net.cpp:148] Top shape: 1 1 (1)
I0925 23:18:23.968310 29994 net.cpp:156] Memory required for data: 10016
I0925 23:18:23.968318 29994 layer_factory.hpp:77] Creating layer lstm1_x_transform
I0925 23:18:23.968340 29994 net.cpp:91] Creating Layer lstm1_x_transform
I0925 23:18:23.968349 29994 net.cpp:425] lstm1_x_transform <- x
I0925 23:18:23.968361 29994 net.cpp:399] lstm1_x_transform -> W_xc_x
I0925 23:18:23.968576 29946 net.cpp:141] Setting up lstm1_x_transform
I0925 23:18:23.968601 29946 net.cpp:148] Top shape: 1 1 4000 (4000)
I0925 23:18:23.968611 29946 net.cpp:156] Memory required for data: 26016
I0925 23:18:23.968633 29946 layer_factory.hpp:77] Creating layer lstm1_W_xc_x_slice
I0925 23:18:23.968650 29946 net.cpp:91] Creating Layer lstm1_W_xc_x_slice
I0925 23:18:23.968662 29946 net.cpp:425] lstm1_W_xc_x_slice <- W_xc_x
I0925 23:18:23.968675 29946 net.cpp:399] lstm1_W_xc_x_slice -> W_xc_x_1
I0925 23:18:23.968834 30002 net.cpp:141] Setting up lstm1_
I0925 23:18:23.968834 29958 net.cpp:141] Setting up lstm1_x_transform
I0925 23:18:23.968875 30002 net.cpp:148] Top shape: 1 1 1000 (1000)
I0925 23:18:23.968880 29958 net.cpp:148] Top shape: 1 1 4000 (4000)
I0925 23:18:23.968884 30002 net.cpp:148] Top shape: 1 1 1000 (1000)
I0925 23:18:23.968888 29958 net.cpp:156] Memory required for data: 26016
I0925 23:18:23.968889 30002 net.cpp:156] Memory required for data: 10004
I0925 23:18:23.968899 30002 layer_factory.hpp:77] Creating layer lstm1_cont_slice
I0925 23:18:23.968909 29958 layer_factory.hpp:77] Creating layer lstm1_W_xc_x_slice
I0925 23:18:23.968915 30002 net.cpp:91] Creating Layer lstm1_cont_slice
I0925 23:18:23.968920 29958 net.cpp:91] Creating Layer lstm1_W_xc_x_slice
I0925 23:18:23.968922 30002 net.cpp:425] lstm1_cont_slice <- cont
I0925 23:18:23.968927 29958 net.cpp:425] lstm1_W_xc_x_slice <- W_xc_x
I0925 23:18:23.968936 29958 net.cpp:399] lstm1_W_xc_x_slice -> W_xc_x_1
I0925 23:18:23.968961 30002 net.cpp:399] lstm1_cont_slice -> cont_1
I0925 23:18:23.974987 30002 net.cpp:141] Setting up lstm1_cont_slice
I0925 23:18:23.975049 30002 net.cpp:148] Top shape: 1 1 (1)
I0925 23:18:23.975064 30002 net.cpp:156] Memory required for data: 10008
I0925 23:18:23.975082 30002 layer_factory.hpp:77] Creating layer cont_1_lstm1_cont_slice_0_split
I0925 23:18:23.976155 29958 net.cpp:141] Setting up lstm1_W_xc_x_slice
I0925 23:18:23.976186 30002 net.cpp:91] Creating Layer cont_1_lstm1_cont_slice_0_split
I0925 23:18:23.976199 29958 net.cpp:148] Top shape: 1 1 4000 (4000)
I0925 23:18:23.976207 30002 net.cpp:425] cont_1_lstm1_cont_slice_0_split <- cont_1
I0925 23:18:23.976214 29958 net.cpp:156] Memory required for data: 42016
I0925 23:18:23.976227 29958 layer_factory.hpp:77] Creating layer lstm1_h_conted_0
I0925 23:18:23.976229 30002 net.cpp:399] cont_1_lstm1_cont_slice_0_split -> cont_1_lstm1_cont_slice_0_split_0
I0925 23:18:23.976253 29958 net.cpp:91] Creating Layer lstm1_h_conted_0
I0925 23:18:23.976258 30002 net.cpp:399] cont_1_lstm1_cont_slice_0_split -> cont_1_lstm1_cont_slice_0_split_1
I0925 23:18:23.976266 29958 net.cpp:425] lstm1_h_conted_0 <- h_0
I0925 23:18:23.976282 29958 net.cpp:425] lstm1_h_conted_0 <- cont_1_lstm1_cont_slice_0_split_0
I0925 23:18:23.976300 29958 net.cpp:399] lstm1_h_conted_0 -> h_conted_0
I0925 23:18:23.979799 29954 net.cpp:141] Setting up embed_encoder
I0925 23:18:23.979823 29954 net.cpp:148] Top shape: 1 500 (500)
I0925 23:18:23.979830 29954 net.cpp:156] Memory required for data: 18404
I0925 23:18:23.979851 29954 layer_factory.hpp:77] Creating layer reshape_frames
I0925 23:18:23.979868 29954 net.cpp:91] Creating Layer reshape_frames
I0925 23:18:23.979876 29954 net.cpp:425] reshape_frames <- embedded_in_frames
I0925 23:18:23.979898 29954 net.cpp:399] reshape_frames -> embedded_input_frames
I0925 23:18:23.979954 29954 net.cpp:141] Setting up reshape_frames
I0925 23:18:23.979964 29954 net.cpp:148] Top shape: 1 1 500 (500)
I0925 23:18:23.979969 29954 net.cpp:156] Memory required for data: 20404
I0925 23:18:23.979974 29954 layer_factory.hpp:77] Creating layer reshape_stage_indicator
I0925 23:18:23.979989 29954 net.cpp:91] Creating Layer reshape_stage_indicator
I0925 23:18:23.979995 29954 net.cpp:425] reshape_stage_indicator <- stage_indicator
I0925 23:18:23.980005 29954 net.cpp:399] reshape_stage_indicator -> reshaped_stage_indicator
I0925 23:18:23.980973 30002 net.cpp:141] Setting up cont_1_lstm1_cont_slice_0_split
I0925 23:18:23.980988 29958 net.cpp:141] Setting up lstm1_h_conted_0
I0925 23:18:23.981031 30002 net.cpp:148] Top shape: 1 1 (1)
I0925 23:18:23.981032 29958 net.cpp:148] Top shape: 1 1 1000 (1000)
I0925 23:18:23.981050 30002 net.cpp:148] Top shape: 1 1 (1)
I0925 23:18:23.981053 29958 net.cpp:156] Memory required for data: 46016
I0925 23:18:23.981060 30002 net.cpp:156] Memory required for data: 10016
I0925 23:18:23.981061 29958 layer_factory.hpp:77] Creating layer lstm1_transform_1
I0925 23:18:23.981079 30002 layer_factory.hpp:77] Creating layer lstm1_x_transform
I0925 23:18:23.981091 29958 net.cpp:91] Creating Layer lstm1_transform_1
I0925 23:18:23.981099 29958 net.cpp:425] lstm1_transform_1 <- h_conted_0
I0925 23:18:23.981109 29958 net.cpp:399] lstm1_transform_1 -> W_hc_h_0
I0925 23:18:23.981112 30002 net.cpp:91] Creating Layer lstm1_x_transform
I0925 23:18:23.981123 30002 net.cpp:425] lstm1_x_transform <- x
I0925 23:18:23.981140 30002 net.cpp:399] lstm1_x_transform -> W_xc_x
I0925 23:18:23.989570 29946 net.cpp:141] Setting up lstm1_W_xc_x_slice
I0925 23:18:23.989639 29946 net.cpp:148] Top shape: 1 1 4000 (4000)
I0925 23:18:23.989648 29946 net.cpp:156] Memory required for data: 42016
I0925 23:18:23.989661 29946 layer_factory.hpp:77] Creating layer lstm1_h_conted_0
I0925 23:18:23.989696 29946 net.cpp:91] Creating Layer lstm1_h_conted_0
I0925 23:18:23.989706 29946 net.cpp:425] lstm1_h_conted_0 <- h_0
I0925 23:18:23.989720 29946 net.cpp:425] lstm1_h_conted_0 <- cont_1_lstm1_cont_slice_0_split_0
I0925 23:18:23.989735 29946 net.cpp:399] lstm1_h_conted_0 -> h_conted_0
I0925 23:18:23.989814 29954 net.cpp:141] Setting up reshape_stage_indicator
I0925 23:18:23.989841 29954 net.cpp:148] Top shape: 1 1 1 (1)
I0925 23:18:23.989850 29954 net.cpp:156] Memory required for data: 20408
I0925 23:18:23.989859 29954 layer_factory.hpp:77] Creating layer embedding
I0925 23:18:23.989881 29954 net.cpp:91] Creating Layer embedding
I0925 23:18:23.989891 29954 net.cpp:425] embedding <- input_sentence
I0925 23:18:23.989907 29954 net.cpp:399] embedding -> embedded_input_sentence
I0925 23:18:23.989989 29946 net.cpp:141] Setting up lstm1_h_conted_0
I0925 23:18:23.990005 29946 net.cpp:148] Top shape: 1 1 1000 (1000)
I0925 23:18:23.990012 29946 net.cpp:156] Memory required for data: 46016
I0925 23:18:23.990020 29946 layer_factory.hpp:77] Creating layer lstm1_transform_1
I0925 23:18:23.990038 29946 net.cpp:91] Creating Layer lstm1_transform_1
I0925 23:18:23.990047 29946 net.cpp:425] lstm1_transform_1 <- h_conted_0
I0925 23:18:23.990061 29946 net.cpp:399] lstm1_transform_1 -> W_hc_h_0
I0925 23:18:24.067561 29958 net.cpp:141] Setting up lstm1_transform_1
I0925 23:18:24.067659 29958 net.cpp:148] Top shape: 1 1 4000 (4000)
I0925 23:18:24.067680 29958 net.cpp:156] Memory required for data: 62016
I0925 23:18:24.067680 29946 net.cpp:141] Setting up lstm1_transform_1
I0925 23:18:24.067728 29958 layer_factory.hpp:77] Creating layer lstm1_gate_input_1
I0925 23:18:24.067733 29946 net.cpp:148] Top shape: 1 1 4000 (4000)
I0925 23:18:24.067770 29946 net.cpp:156] Memory required for data: 62016
I0925 23:18:24.067800 29946 layer_factory.hpp:77] Creating layer lstm1_gate_input_1
I0925 23:18:24.073115 29946 net.cpp:91] Creating Layer lstm1_gate_input_1
I0925 23:18:24.073117 29958 net.cpp:91] Creating Layer lstm1_gate_input_1
I0925 23:18:24.073196 29946 net.cpp:425] lstm1_gate_input_1 <- W_hc_h_0
I0925 23:18:24.073211 29958 net.cpp:425] lstm1_gate_input_1 <- W_hc_h_0
I0925 23:18:24.073218 29946 net.cpp:425] lstm1_gate_input_1 <- W_xc_x_1
I0925 23:18:24.073232 29958 net.cpp:425] lstm1_gate_input_1 <- W_xc_x_1
I0925 23:18:24.073240 29946 net.cpp:399] lstm1_gate_input_1 -> gate_input_1
I0925 23:18:24.073253 29958 net.cpp:399] lstm1_gate_input_1 -> gate_input_1
I0925 23:18:24.079627 29946 net.cpp:141] Setting up lstm1_gate_input_1
I0925 23:18:24.079653 29958 net.cpp:141] Setting up lstm1_gate_input_1
I0925 23:18:24.079710 29958 net.cpp:148] Top shape: 1 1 4000 (4000)
I0925 23:18:24.079720 29958 net.cpp:156] Memory required for data: 78016
I0925 23:18:24.079715 29946 net.cpp:148] Top shape: 1 1 4000 (4000)
I0925 23:18:24.079730 29958 layer_factory.hpp:77] Creating layer lstm1_unit_1
I0925 23:18:24.079742 29946 net.cpp:156] Memory required for data: 78016
I0925 23:18:24.079749 29958 net.cpp:91] Creating Layer lstm1_unit_1
I0925 23:18:24.079777 29958 net.cpp:425] lstm1_unit_1 <- c_0
I0925 23:18:24.079779 29946 layer_factory.hpp:77] Creating layer lstm1_unit_1
I0925 23:18:24.079792 29958 net.cpp:425] lstm1_unit_1 <- gate_input_1
I0925 23:18:24.079802 29958 net.cpp:425] lstm1_unit_1 <- cont_1_lstm1_cont_slice_0_split_1
I0925 23:18:24.079814 29958 net.cpp:399] lstm1_unit_1 -> c_1
I0925 23:18:24.079814 29946 net.cpp:91] Creating Layer lstm1_unit_1
I0925 23:18:24.079833 29958 net.cpp:399] lstm1_unit_1 -> h_1
I0925 23:18:24.079841 29946 net.cpp:425] lstm1_unit_1 <- c_0
I0925 23:18:24.079870 29946 net.cpp:425] lstm1_unit_1 <- gate_input_1
I0925 23:18:24.079891 29946 net.cpp:425] lstm1_unit_1 <- cont_1_lstm1_cont_slice_0_split_1
I0925 23:18:24.079906 29946 net.cpp:399] lstm1_unit_1 -> c_1
I0925 23:18:24.079922 29946 net.cpp:399] lstm1_unit_1 -> h_1
I0925 23:18:24.087054 29968 net.cpp:141] Setting up lstm1_x_transform
I0925 23:18:24.087113 29968 net.cpp:148] Top shape: 1 1 4000 (4000)
I0925 23:18:24.087124 29968 net.cpp:156] Memory required for data: 26016
I0925 23:18:24.087157 29968 layer_factory.hpp:77] Creating layer lstm1_W_xc_x_slice
I0925 23:18:24.087185 29968 net.cpp:91] Creating Layer lstm1_W_xc_x_slice
I0925 23:18:24.087198 29968 net.cpp:425] lstm1_W_xc_x_slice <- W_xc_x
I0925 23:18:24.087214 29968 net.cpp:399] lstm1_W_xc_x_slice -> W_xc_x_1
I0925 23:18:24.089057 29946 net.cpp:141] Setting up lstm1_unit_1
I0925 23:18:24.089090 29946 net.cpp:148] Top shape: 1 1 1000 (1000)
I0925 23:18:24.089102 29946 net.cpp:148] Top shape: 1 1 1000 (1000)
I0925 23:18:24.089110 29946 net.cpp:156] Memory required for data: 86016
I0925 23:18:24.089119 29946 layer_factory.hpp:77] Creating layer lstm1_
I0925 23:18:24.089143 29946 net.cpp:91] Creating Layer lstm1_
I0925 23:18:24.089153 29946 net.cpp:425] lstm1_ <- c_1
I0925 23:18:24.089166 29946 net.cpp:399] lstm1_ -> c_T
I0925 23:18:24.089309 29968 net.cpp:141] Setting up lstm1_W_xc_x_slice
I0925 23:18:24.089344 29968 net.cpp:148] Top shape: 1 1 4000 (4000)
I0925 23:18:24.089352 29968 net.cpp:156] Memory required for data: 42016
I0925 23:18:24.089357 29980 net.cpp:141] Setting up lstm1_x_transform
I0925 23:18:24.089365 29968 layer_factory.hpp:77] Creating layer lstm1_h_conted_0
I0925 23:18:24.089382 29980 net.cpp:148] Top shape: 1 1 4000 (4000)
I0925 23:18:24.089390 29980 net.cpp:156] Memory required for data: 26016
I0925 23:18:24.089392 29946 net.cpp:141] Setting up lstm1_
I0925 23:18:24.089401 29968 net.cpp:91] Creating Layer lstm1_h_conted_0
I0925 23:18:24.089406 29980 layer_factory.hpp:77] Creating layer lstm1_W_xc_x_slice
I0925 23:18:24.089411 29946 net.cpp:148] Top shape: 1 1 1000 (1000)
I0925 23:18:24.089414 29968 net.cpp:425] lstm1_h_conted_0 <- h_0
I0925 23:18:24.089419 29980 net.cpp:91] Creating Layer lstm1_W_xc_x_slice
I0925 23:18:24.089428 29968 net.cpp:425] lstm1_h_conted_0 <- cont_1_lstm1_cont_slice_0_split_0
I0925 23:18:24.089419 29946 net.cpp:156] Memory required for data: 90016
I0925 23:18:24.089443 29980 net.cpp:425] lstm1_W_xc_x_slice <- W_xc_x
I0925 23:18:24.089453 29980 net.cpp:399] lstm1_W_xc_x_slice -> W_xc_x_1
I0925 23:18:24.089450 29968 net.cpp:399] lstm1_h_conted_0 -> h_conted_0
I0925 23:18:24.089450 29946 layer_factory.hpp:77] Creating layer lstm1_h_concat
I0925 23:18:24.089483 29946 net.cpp:91] Creating Layer lstm1_h_concat
I0925 23:18:24.089491 29946 net.cpp:425] lstm1_h_concat <- h_1
I0925 23:18:24.089522 29946 net.cpp:399] lstm1_h_concat -> h
I0925 23:18:24.089530 29980 net.cpp:141] Setting up lstm1_W_xc_x_slice
I0925 23:18:24.089543 29980 net.cpp:148] Top shape: 1 1 4000 (4000)
I0925 23:18:24.089548 29980 net.cpp:156] Memory required for data: 42016
I0925 23:18:24.089555 29980 layer_factory.hpp:77] Creating layer lstm1_h_conted_0
I0925 23:18:24.089566 29980 net.cpp:91] Creating Layer lstm1_h_conted_0
I0925 23:18:24.089572 29980 net.cpp:425] lstm1_h_conted_0 <- h_0
I0925 23:18:24.089579 29980 net.cpp:425] lstm1_h_conted_0 <- cont_1_lstm1_cont_slice_0_split_0
I0925 23:18:24.089587 29980 net.cpp:399] lstm1_h_conted_0 -> h_conted_0
I0925 23:18:24.090004 29960 net.cpp:141] Setting up conv2
I0925 23:18:24.090034 29960 net.cpp:148] Top shape: 10 256 27 27 (1866240)
I0925 23:18:24.090055 29960 net.cpp:156] Memory required for data: 42479160
I0925 23:18:24.090087 29960 layer_factory.hpp:77] Creating layer relu2
I0925 23:18:24.090103 29960 net.cpp:91] Creating Layer relu2
I0925 23:18:24.090117 29960 net.cpp:425] relu2 <- conv2
I0925 23:18:24.090134 29960 net.cpp:386] relu2 -> conv2 (in-place)
I0925 23:18:24.090845 29960 net.cpp:141] Setting up relu2
I0925 23:18:24.090872 29960 net.cpp:148] Top shape: 10 256 27 27 (1866240)
I0925 23:18:24.090881 29960 net.cpp:156] Memory required for data: 49944120
I0925 23:18:24.090891 29960 layer_factory.hpp:77] Creating layer pool2
I0925 23:18:24.090968 29960 net.cpp:91] Creating Layer pool2
I0925 23:18:24.090988 29960 net.cpp:425] pool2 <- conv2
I0925 23:18:24.090999 29960 net.cpp:399] pool2 -> pool2
I0925 23:18:24.091009 29958 net.cpp:141] Setting up lstm1_unit_1
I0925 23:18:24.091030 29958 net.cpp:148] Top shape: 1 1 1000 (1000)
I0925 23:18:24.091042 29958 net.cpp:148] Top shape: 1 1 1000 (1000)
I0925 23:18:24.091049 29958 net.cpp:156] Memory required for data: 86016
I0925 23:18:24.091058 29958 layer_factory.hpp:77] Creating layer lstm1_
I0925 23:18:24.091075 29946 net.cpp:141] Setting up lstm1_h_concat
I0925 23:18:24.091079 29958 net.cpp:91] Creating Layer lstm1_
I0925 23:18:24.091104 29946 net.cpp:148] Top shape: 1 1 1000 (1000)
I0925 23:18:24.091112 29946 net.cpp:156] Memory required for data: 94016
I0925 23:18:24.091111 29958 net.cpp:425] lstm1_ <- c_1
I0925 23:18:24.091130 29946 layer_factory.hpp:77] Creating layer h_pseudoloss
I0925 23:18:24.091150 29958 net.cpp:399] lstm1_ -> c_T
I0925 23:18:24.091173 29946 net.cpp:91] Creating Layer h_pseudoloss
I0925 23:18:24.091182 29946 net.cpp:425] h_pseudoloss <- h
I0925 23:18:24.091195 29946 net.cpp:399] h_pseudoloss -> h_pseudoloss
I0925 23:18:24.091217 29980 net.cpp:141] Setting up lstm1_h_conted_0
I0925 23:18:24.091231 29980 net.cpp:148] Top shape: 1 1 1000 (1000)
I0925 23:18:24.091236 29980 net.cpp:156] Memory required for data: 46016
I0925 23:18:24.091243 29980 layer_factory.hpp:77] Creating layer lstm1_transform_1
I0925 23:18:24.091255 29980 net.cpp:91] Creating Layer lstm1_transform_1
I0925 23:18:24.091261 29980 net.cpp:425] lstm1_transform_1 <- h_conted_0
I0925 23:18:24.091270 29980 net.cpp:399] lstm1_transform_1 -> W_hc_h_0
I0925 23:18:24.091333 29968 net.cpp:141] Setting up lstm1_h_conted_0
I0925 23:18:24.091354 29968 net.cpp:148] Top shape: 1 1 1000 (1000)
I0925 23:18:24.091362 29968 net.cpp:156] Memory required for data: 46016
I0925 23:18:24.091372 29968 layer_factory.hpp:77] Creating layer lstm1_transform_1
I0925 23:18:24.091384 29958 net.cpp:141] Setting up lstm1_
I0925 23:18:24.091394 29968 net.cpp:91] Creating Layer lstm1_transform_1
I0925 23:18:24.091405 29968 net.cpp:425] lstm1_transform_1 <- h_conted_0
I0925 23:18:24.091408 29958 net.cpp:148] Top shape: 1 1 1000 (1000)
I0925 23:18:24.091415 29958 net.cpp:156] Memory required for data: 90016
I0925 23:18:24.091420 29968 net.cpp:399] lstm1_transform_1 -> W_hc_h_0
I0925 23:18:24.091439 29958 layer_factory.hpp:77] Creating layer lstm1_h_concat
I0925 23:18:24.091455 29958 net.cpp:91] Creating Layer lstm1_h_concat
I0925 23:18:24.091464 29958 net.cpp:425] lstm1_h_concat <- h_1
I0925 23:18:24.091482 29958 net.cpp:399] lstm1_h_concat -> h
I0925 23:18:24.091490 29960 net.cpp:141] Setting up pool2
I0925 23:18:24.091503 29960 net.cpp:148] Top shape: 10 256 13 13 (432640)
I0925 23:18:24.091509 29960 net.cpp:156] Memory required for data: 51674680
I0925 23:18:24.091516 29960 layer_factory.hpp:77] Creating layer norm2
I0925 23:18:24.091555 29960 net.cpp:91] Creating Layer norm2
I0925 23:18:24.091562 29960 net.cpp:425] norm2 <- pool2
I0925 23:18:24.091573 29960 net.cpp:399] norm2 -> norm2
I0925 23:18:24.091719 29958 net.cpp:141] Setting up lstm1_h_concat
I0925 23:18:24.091737 29958 net.cpp:148] Top shape: 1 1 1000 (1000)
I0925 23:18:24.091745 29958 net.cpp:156] Memory required for data: 94016
I0925 23:18:24.091753 29958 layer_factory.hpp:77] Creating layer h_pseudoloss
I0925 23:18:24.091768 29958 net.cpp:91] Creating Layer h_pseudoloss
I0925 23:18:24.091778 29958 net.cpp:425] h_pseudoloss <- h
I0925 23:18:24.091789 29958 net.cpp:399] h_pseudoloss -> h_pseudoloss
I0925 23:18:24.100237 29946 net.cpp:141] Setting up h_pseudoloss
…
I0925 23:18:24.111902 29958 net.cpp:219] lstm1_ does not need backward computation.
I0925 23:18:24.111910 29958 net.cpp:261] This network produces output c_T
I0925 23:18:24.111922 29958 net.cpp:261] This network produces output h_pseudoloss
I0925 23:18:24.111949 29958 net.cpp:274] Network initialization done.
I0925 23:18:24.112043 29958 recurrent_layer.cpp:150] Adding parameter 0: W_xc
I0925 23:18:24.112057 29958 recurrent_layer.cpp:150] Adding parameter 1: b_c
I0925 23:18:24.112066 29958 recurrent_layer.cpp:150] Adding parameter 2: W_hc
I0925 23:18:24.112257 29958 net.cpp:141] Setting up lstm1
I0925 23:18:24.112274 29958 net.cpp:148] Top shape: 1 1 1000 (1000)
I0925 23:18:24.112282 29958 net.cpp:156] Memory required for data: 26408
I0925 23:18:24.112308 29958 layer_factory.hpp:77] Creating layer concat
I0925 23:18:24.112330 29958 net.cpp:91] Creating Layer concat
I0925 23:18:24.112341 29958 net.cpp:425] concat <- lstm1
I0925 23:18:24.112354 29958 net.cpp:425] concat <- embedded_input_sentence
I0925 23:18:24.112365 29958 net.cpp:425] concat <- reshaped_stage_indicator
I0925 23:18:24.112377 29958 net.cpp:399] concat -> lstm1_video_sequence
I0925 23:18:24.112445 29958 net.cpp:141] Setting up concat
I0925 23:18:24.112459 29958 net.cpp:148] Top shape: 1 1 1501 (1501)
I0925 23:18:24.112468 29958 net.cpp:156] Memory required for data: 32412
I0925 23:18:24.112475 29958 layer_factory.hpp:77] Creating layer lstm2
I0925 23:18:24.112500 29958 net.cpp:91] Creating Layer lstm2
I0925 23:18:24.112510 29958 net.cpp:425] lstm2 <- lstm1_video_sequence
I0925 23:18:24.112521 29958 net.cpp:425] lstm2 <- cont_sentence_input_1_split_1
I0925 23:18:24.112535 29958 net.cpp:399] lstm2 -> lstm2
I0925 23:18:24.112552 29958 recurrent_layer.cpp:20] Initializing recurrent layer: assuming input batch contains 1 timesteps of 1 independent streams.
I0925 23:18:24.112988 29958 net.cpp:49] Initializing net from parameters: 
layer {
  name: "lstm2_"
  type: "Input"
  top: "x"
  top: "cont"
  input_param {
    shape {
      dim: 1
      dim: 1
      dim: 1501
    }
    shape {
      dim: 1
      dim: 1
    }
  }
}
layer {
  name: "lstm2_"
  type: "Input"
  top: "c_0"
  top: "h_0"
  input_param {
    shape {
      dim: 1
      dim: 1
      dim: 1000
    }
    shape {
      dim: 1
      dim: 1
      dim: 1000
    }
  }
}
layer {
  name: "lstm2_cont_slice"
  type: "Slice"
  bottom: "cont"
  top: "cont_1"
  slice_param {
    axis: 0
  }
}
layer {
  name: "lstm2_x_transform"
  type: "InnerProduct"
  bottom: "x"
  top: "W_xc_x"
  param {
    name: "W_xc"
  }
  param {
    name: "b_c"
  }
  propagate_down: true
  inner_product_param {
    num_output: 4000
    bias_term: true
    weight_filler {
      type: "uniform"
      min: -0.08
      max: 0.08
    }
    bias_filler {
      type: "constant"
      value: 0
    }
    axis: 2
  }
}
layer {
  name: "lstm2_W_xc_x_slice"
  type: "Slice"
  bottom: "W_xc_x"
  top: "W_xc_x_1"
  slice_param {
    axis: 0
  }
}
layer {
  name: "lstm2_h_conted_0"
  type: "Scale"
  bottom: "h_0"
  bottom: "cont_1"
  top: "h_conted_0"
  scale_param {
    axis: 0
  }
}
layer {
  name: "lstm2_transform_1"
  type: "InnerProduct"
  bottom: "h_conted_0"
  top: "W_hc_h_0"
  param {
    name: "W_hc"
  }
  inner_product_param {
    num_output: 4000
    bias_term: false
    weight_filler {
      type: "uniform"
      min: -0.08
      max: 0.08
    }
    axis: 2
  }
}
layer {
  name: "lstm2_gate_input_1"
  type: "Eltwise"
  bottom: "W_hc_h_0"
  bottom: "W_xc_x_1"
  top: "gate_input_1"
  eltwise_param {
    operation: SUM
  }
}
layer {
  name: "lstm2_unit_1"
  type: "LSTMUnit"
  bottom: "c_0"
  bottom: "gate_input_1"
  bottom: "cont_1"
  top: "c_1"
  top: "h_1"
}
layer {
  name: "lstm2_"
  type: "Split"
  bottom: "c_1"
  top: "c_T"
}
layer {
  name: "lstm2_h_concat"
  type: "Concat"
  bottom: "h_1"
  top: "h"
  concat_param {
    axis: 0
  }
}
layer {
  name: "h_pseudoloss"
  type: "Reduction"
  bottom: "h"
  top: "h_pseudoloss"
  loss_weight: 1
}
I0925 23:18:24.113140 29958 layer_factory.hpp:77] Creating layer lstm2_
I0925 23:18:24.113160 29958 net.cpp:91] Creating Layer lstm2_
I0925 23:18:24.113171 29958 net.cpp:399] lstm2_ -> x
I0925 23:18:24.113189 29958 net.cpp:399] lstm2_ -> cont
I0925 23:18:24.113287 29958 net.cpp:141] Setting up lstm2_
I0925 23:18:24.113303 29958 net.cpp:148] Top shape: 1 1 1501 (1501)
I0925 23:18:24.113314 29958 net.cpp:148] Top shape: 1 1 (1)
I0925 23:18:24.113322 29958 net.cpp:156] Memory required for data: 6008
I0925 23:18:24.113330 29958 layer_factory.hpp:77] Creating layer lstm2_
I0925 23:18:24.113345 29958 net.cpp:91] Creating Layer lstm2_
I0925 23:18:24.113359 29958 net.cpp:399] lstm2_ -> c_0
I0925 23:18:24.113375 29958 net.cpp:399] lstm2_ -> h_0
I0925 23:18:24.113471 29958 net.cpp:141] Setting up lstm2_
I0925 23:18:24.113487 29958 net.cpp:148] Top shape: 1 1 1000 (1000)
I0925 23:18:24.113497 29958 net.cpp:148] Top shape: 1 1 1000 (1000)
I0925 23:18:24.113504 29958 net.cpp:156] Memory required for data: 14008
I0925 23:18:24.113512 29958 layer_factory.hpp:77] Creating layer lstm2_cont_slice
I0925 23:18:24.113526 29958 net.cpp:91] Creating Layer lstm2_cont_slice
I0925 23:18:24.113535 29958 net.cpp:425] lstm2_cont_slice <- cont
I0925 23:18:24.113548 29958 net.cpp:399] lstm2_cont_slice -> cont_1
I0925 23:18:24.113606 29958 net.cpp:141] Setting up lstm2_cont_slice
I0925 23:18:24.113625 29958 net.cpp:148] Top shape: 1 1 (1)
I0925 23:18:24.113632 29958 net.cpp:156] Memory required for data: 14012
I0925 23:18:24.113641 29958 layer_factory.hpp:77] Creating layer cont_1_lstm2_cont_slice_0_split
I0925 23:18:24.113652 29958 net.cpp:91] Creating Layer cont_1_lstm2_cont_slice_0_split
I0925 23:18:24.113662 29958 net.cpp:425] cont_1_lstm2_cont_slice_0_split <- cont_1
I0925 23:18:24.113672 29958 net.cpp:399] cont_1_lstm2_cont_slice_0_split -> cont_1_lstm2_cont_slice_0_split_0
I0925 23:18:24.113687 29958 net.cpp:399] cont_1_lstm2_cont_slice_0_split -> cont_1_lstm2_cont_slice_0_split_1
I0925 23:18:24.113775 29958 net.cpp:141] Setting up cont_1_lstm2_cont_slice_0_split
I0925 23:18:24.113791 29958 net.cpp:148] Top shape: 1 1 (1)
I0925 23:18:24.113802 29958 net.cpp:148] Top shape: 1 1 (1)
I0925 23:18:24.113809 29958 net.cpp:156] Memory required for data: 14020
I0925 23:18:24.113817 29958 layer_factory.hpp:77] Creating layer lstm2_x_transform
I0925 23:18:24.113842 29958 net.cpp:91] Creating Layer lstm2_x_transform
I0925 23:18:24.113852 29958 net.cpp:425] lstm2_x_transform <- x
I0925 23:18:24.113864 29958 net.cpp:399] lstm2_x_transform -> W_xc_x
I0925 23:18:24.165987 29946 net.cpp:141] Setting up lstm1
I0925 23:18:24.166049 29946 net.cpp:148] Top shape: 1 1 1000 (1000)
I0925 23:18:24.166060 29946 net.cpp:156] Memory required for data: 26408
I0925 23:18:24.166090 29946 layer_factory.hpp:77] Creating layer concat
I0925 23:18:24.166113 29946 net.cpp:91] Creating Layer concat
I0925 23:18:24.166126 29946 net.cpp:425] concat <- lstm1
I0925 23:18:24.166139 29946 net.cpp:425] concat <- embedded_input_sentence
I0925 23:18:24.166151 29946 net.cpp:425] concat <- reshaped_stage_indicator
I0925 23:18:24.166164 29946 net.cpp:399] concat -> lstm1_video_sequence
I0925 23:18:24.166237 29946 net.cpp:141] Setting up concat
I0925 23:18:24.166254 29946 net.cpp:148] Top shape: 1 1 1501 (1501)
I0925 23:18:24.166263 29946 net.cpp:156] Memory required for data: 32412
I0925 23:18:24.166272 29946 layer_factory.hpp:77] Creating layer lstm2
I0925 23:18:24.166302 29946 net.cpp:91] Creating Layer lstm2
I0925 23:18:24.166312 29946 net.cpp:425] lstm2 <- lstm1_video_sequence
I0925 23:18:24.166323 29946 net.cpp:425] lstm2 <- cont_sentence_input_1_split_1
I0925 23:18:24.166337 29946 net.cpp:399] lstm2 -> lstm2
I0925 23:18:24.166355 29946 recurrent_layer.cpp:20] Initializing recurrent layer: assuming input batch contains 1 timesteps of 1 independent streams.
I0925 23:18:24.166806 29946 net.cpp:49] Initializing net from parameters: 
layer {
  name: "lstm2_"
  type: "Input"
  top: "x"
  top: "cont"
  input_param {
    shape {
      dim: 1
      dim: 1
      dim: 1501
    }
    shape {
      dim: 1
      dim: 1
    }
  }
}
layer {
  name: "lstm2_"
  type: "Input"
  top: "c_0"
  top: "h_0"
  input_param {
    shape {
      dim: 1
      dim: 1
      dim: 1000
    }
    shape {
      dim: 1
      dim: 1
      dim: 1000
    }
  }
}
layer {
  name: "lstm2_cont_slice"
  type: "Slice"
  bottom: "cont"
  top: "cont_1"
  slice_param {
    axis: 0
  }
}
layer {
  name: "lstm2_x_transform"
  type: "InnerProduct"
  bottom: "x"
  top: "W_xc_x"
  param {
    name: "W_xc"
  }
  param {
    name: "b_c"
  }
  propagate_down: true
  inner_product_param {
    num_output: 4000
    bias_term: true
    weight_filler {
      type: "uniform"
      min: -0.08
      max: 0.08
    }
    bias_filler {
      type: "constant"
      value: 0
    }
    axis: 2
  }
}
layer {
  name: "lstm2_W_xc_x_slice"
  type: "Slice"
  bottom: "W_xc_x"
  top: "W_xc_x_1"
  slice_param {
    axis: 0
  }
}
layer {
  name: "lstm2_h_conted_0"
  type: "Scale"
  bottom: "h_0"
  bottom: "cont_1"
  top: "h_conted_0"
  scale_param {
    axis: 0
  }
}
layer {
  name: "lstm2_transform_1"
  type: "InnerProduct"
  bottom: "h_conted_0"
  top: "W_hc_h_0"
  param {
    name: "W_hc"
  }
  inner_product_param {
    num_output: 4000
    bias_term: false
    weight_filler {
      type: "uniform"
      min: -0.08
      max: 0.08
    }
    axis: 2
  }
}
layer {
  name: "lstm2_gate_input_1"
  type: "Eltwise"
  bottom: "W_hc_h_0"
  bottom: "W_xc_x_1"
  top: "gate_input_1"
  eltwise_param {
    operation: SUM
  }
}
layer {
  name: "lstm2_unit_1"
  type: "LSTMUnit"
  bottom: "c_0"
  bottom: "gate_input_1"
  bottom: "cont_1"
  top: "c_1"
  top: "h_1"
}
layer {
  name: "lstm2_"
  type: "Split"
  bottom: "c_1"
  top: "c_T"
}
layer {
  name: "lstm2_h_concat"
  type: "Concat"
  bottom: "h_1"
  top: "h"
  concat_param {
    axis: 0
  }
}
layer {
  name: "h_pseudoloss"
  type: "Reduction"
  bottom: "h"
  top: "h_pseudoloss"
  loss_weight: 1
}
I0925 23:18:24.166954 29946 layer_factory.hpp:77] Creating layer lstm2_
I0925 23:18:24.166975 29946 net.cpp:91] Creating Layer lstm2_
I0925 23:18:24.166986 29946 net.cpp:399] lstm2_ -> x
I0925 23:18:24.167006 29946 net.cpp:399] lstm2_ -> cont
I0925 23:18:24.167109 29946 net.cpp:141] Setting up lstm2_
I0925 23:18:24.167125 29946 net.cpp:148] Top shape: 1 1 1501 (1501)
I0925 23:18:24.167137 29946 net.cpp:148] Top shape: 1 1 (1)
I0925 23:18:24.167145 29946 net.cpp:156] Memory required for data: 6008
I0925 23:18:24.167155 29946 layer_factory.hpp:77] Creating layer lstm2_
I0925 23:18:24.167170 29946 net.cpp:91] Creating Layer lstm2_
I0925 23:18:24.167186 29946 net.cpp:399] lstm2_ -> c_0
I0925 23:18:24.167206 29946 net.cpp:399] lstm2_ -> h_0
I0925 23:18:24.167307 29946 net.cpp:141] Setting up lstm2_
I0925 23:18:24.167325 29946 net.cpp:148] Top shape: 1 1 1000 (1000)
I0925 23:18:24.167336 29946 net.cpp:148] Top shape: 1 1 1000 (1000)
I0925 23:18:24.167345 29946 net.cpp:156] Memory required for data: 14008
I0925 23:18:24.167352 29946 layer_factory.hpp:77] Creating layer lstm2_cont_slice
I0925 23:18:24.167368 29946 net.cpp:91] Creating Layer lstm2_cont_slice
I0925 23:18:24.167377 29946 net.cpp:425] lstm2_cont_slice <- cont
I0925 23:18:24.167392 29946 net.cpp:399] lstm2_cont_slice -> cont_1
I0925 23:18:24.167459 29946 net.cpp:141] Setting up lstm2_cont_slice
I0925 23:18:24.167476 29946 net.cpp:148] Top shape: 1 1 (1)
I0925 23:18:24.167484 29946 net.cpp:156] Memory required for data: 14012
I0925 23:18:24.167492 29946 layer_factory.hpp:77] Creating layer cont_1_lstm2_cont_slice_0_split
I0925 23:18:24.167510 29946 net.cpp:91] Creating Layer cont_1_lstm2_cont_slice_0_split
I0925 23:18:24.167520 29946 net.cpp:425] cont_1_lstm2_cont_slice_0_split <- cont_1
I0925 23:18:24.167532 29946 net.cpp:399] cont_1_lstm2_cont_slice_0_split -> cont_1_lstm2_cont_slice_0_split_0
I0925 23:18:24.167548 29946 net.cpp:399] cont_1_lstm2_cont_slice_0_split -> cont_1_lstm2_cont_slice_0_split_1
I0925 23:18:24.167652 29946 net.cpp:141] Setting up cont_1_lstm2_cont_slice_0_split
I0925 23:18:24.167670 29946 net.cpp:148] Top shape: 1 1 (1)
I0925 23:18:24.167680 29946 net.cpp:148] Top shape: 1 1 (1)
I0925 23:18:24.167690 29946 net.cpp:156] Memory required for data: 14020
I0925 23:18:24.167698 29946 layer_factory.hpp:77] Creating layer lstm2_x_transform
I0925 23:18:24.167721 29946 net.cpp:91] Creating Layer lstm2_x_transform
I0925 23:18:24.167731 29946 net.cpp:425] lstm2_x_transform <- x
I0925 23:18:24.167745 29946 net.cpp:399] lstm2_x_transform -> W_xc_x
I0925 23:18:24.188552 29968 net.cpp:141] Setting up lstm1_transform_1
I0925 23:18:24.188601 29968 net.cpp:148] Top shape: 1 1 4000 (4000)
I0925 23:18:24.188607 29968 net.cpp:156] Memory required for data: 62016
I0925 23:18:24.188632 29968 layer_factory.hpp:77] Creating layer lstm1_gate_input_1
I0925 23:18:24.188659 29968 net.cpp:91] Creating Layer lstm1_gate_input_1
I0925 23:18:24.188668 29968 net.cpp:425] lstm1_gate_input_1 <- W_hc_h_0
I0925 23:18:24.188678 29968 net.cpp:425] lstm1_gate_input_1 <- W_xc_x_1
I0925 23:18:24.188688 29968 net.cpp:399] lstm1_gate_input_1 -> gate_input_1
I0925 23:18:24.188830 29994 net.cpp:141] Setting up lstm1_x_transform
I0925 23:18:24.188876 29994 net.cpp:148] Top shape: 1 1 4000 (4000)
I0925 23:18:24.188887 29994 net.cpp:156] Memory required for data: 26016
I0925 23:18:24.188918 29994 layer_factory.hpp:77] Creating layer lstm1_W_xc_x_slice
I0925 23:18:24.188943 29994 net.cpp:91] Creating Layer lstm1_W_xc_x_slice
I0925 23:18:24.188956 29994 net.cpp:425] lstm1_W_xc_x_slice <- W_xc_x
I0925 23:18:24.188972 29994 net.cpp:399] lstm1_W_xc_x_slice -> W_xc_x_1
I0925 23:18:24.189045 29994 net.cpp:141] Setting up lstm1_W_xc_x_slice
I0925 23:18:24.189064 29994 net.cpp:148] Top shape: 1 1 4000 (4000)
I0925 23:18:24.189071 29994 net.cpp:156] Memory required for data: 42016
I0925 23:18:24.189080 29994 layer_factory.hpp:77] Creating layer lstm1_h_conted_0
I0925 23:18:24.189100 29994 net.cpp:91] Creating Layer lstm1_h_conted_0
I0925 23:18:24.189111 29994 net.cpp:425] lstm1_h_conted_0 <- h_0
I0925 23:18:24.189122 29994 net.cpp:425] lstm1_h_conted_0 <- cont_1_lstm1_cont_slice_0_split_0
I0925 23:18:24.189136 29994 net.cpp:399] lstm1_h_conted_0 -> h_conted_0
I0925 23:18:24.189312 29994 net.cpp:141] Setting up lstm1_h_conted_0
I0925 23:18:24.189329 29994 net.cpp:148] Top shape: 1 1 1000 (1000)
I0925 23:18:24.189338 29994 net.cpp:156] Memory required for data: 46016
I0925 23:18:24.189347 29994 layer_factory.hpp:77] Creating layer lstm1_transform_1
I0925 23:18:24.189368 29994 net.cpp:91] Creating Layer lstm1_transform_1
I0925 23:18:24.189378 29994 net.cpp:425] lstm1_transform_1 <- h_conted_0
I0925 23:18:24.189393 29994 net.cpp:399] lstm1_transform_1 -> W_hc_h_0
I0925 23:18:24.200608 29974 net.cpp:141] Setting up embedding
I0925 23:18:24.200639 29974 net.cpp:148] Top shape: 1 1 500 (500)
I0925 23:18:24.200649 29974 net.cpp:156] Memory required for data: 22408
I0925 23:18:24.200670 29974 layer_factory.hpp:77] Creating layer lstm1
I0925 23:18:24.200680 30006 net.cpp:141] Setting up embedding
I0925 23:18:24.200693 29974 net.cpp:91] Creating Layer lstm1
I0925 23:18:24.200706 29974 net.cpp:425] lstm1 <- embedded_input_frames
I0925 23:18:24.200716 30006 net.cpp:148] Top shape: 1 1 500 (500)
I0925 23:18:24.200718 29974 net.cpp:425] lstm1 <- cont_sentence_input_1_split_0
I0925 23:18:24.200726 30006 net.cpp:156] Memory required for data: 22408
I0925 23:18:24.200739 29974 net.cpp:399] lstm1 -> lstm1
I0925 23:18:24.200747 30006 layer_factory.hpp:77] Creating layer lstm1
I0925 23:18:24.200762 30006 net.cpp:91] Creating Layer lstm1
I0925 23:18:24.200762 29974 recurrent_layer.cpp:20] Initializing recurrent layer: assuming input batch contains 1 timesteps of 1 independent streams.
I0925 23:18:24.200790 30006 net.cpp:425] lstm1 <- embedded_input_frames
I0925 23:18:24.200803 30006 net.cpp:425] lstm1 <- cont_sentence_input_1_split_0
I0925 23:18:24.200795 29980 net.cpp:141] Setting up lstm1_transform_1
I0925 23:18:24.200834 30006 net.cpp:399] lstm1 -> lstm1
I0925 23:18:24.200846 29980 net.cpp:148] Top shape: 1 1 4000 (4000)
I0925 23:18:24.200855 30006 recurrent_layer.cpp:20] Initializing recurrent layer: assuming input batch contains 1 timesteps of 1 independent streams.
I0925 23:18:24.200858 29968 net.cpp:141] Setting up lstm1_gate_input_1
I0925 23:18:24.200857 29980 net.cpp:156] Memory required for data: 62016
I0925 23:18:24.200881 29968 net.cpp:148] Top shape: 1 1 4000 (4000)
I0925 23:18:24.200886 29968 net.cpp:156] Memory required for data: 78016
I0925 23:18:24.200892 29968 layer_factory.hpp:77] Creating layer lstm1_unit_1
I0925 23:18:24.200903 29980 layer_factory.hpp:77] Creating layer lstm1_gate_input_1
I0925 23:18:24.200912 29968 net.cpp:91] Creating Layer lstm1_unit_1
I0925 23:18:24.200919 29968 net.cpp:425] lstm1_unit_1 <- c_0
I0925 23:18:24.200928 29968 net.cpp:425] lstm1_unit_1 <- gate_input_1
I0925 23:18:24.200935 29968 net.cpp:425] lstm1_unit_1 <- cont_1_lstm1_cont_slice_0_split_1
I0925 23:18:24.200933 29980 net.cpp:91] Creating Layer lstm1_gate_input_1
I0925 23:18:24.200944 29950 net.cpp:141] Setting up embedding
I0925 23:18:24.200951 29968 net.cpp:399] lstm1_unit_1 -> c_1
I0925 23:18:24.200990 29950 net.cpp:148] Top shape: 1 1 500 (500)
I0925 23:18:24.200975 29980 net.cpp:425] lstm1_gate_input_1 <- W_hc_h_0
I0925 23:18:24.201005 29968 net.cpp:399] lstm1_unit_1 -> h_1
I0925 23:18:24.200999 29950 net.cpp:156] Memory required for data: 22408
I0925 23:18:24.201019 29980 net.cpp:425] lstm1_gate_input_1 <- W_xc_x_1
I0925 23:18:24.201032 29950 layer_factory.hpp:77] Creating layer lstm1
I0925 23:18:24.201040 29980 net.cpp:399] lstm1_gate_input_1 -> gate_input_1
I0925 23:18:24.201063 29950 net.cpp:91] Creating Layer lstm1
I0925 23:18:24.201072 29950 net.cpp:425] lstm1 <- embedded_input_frames
I0925 23:18:24.201081 29950 net.cpp:425] lstm1 <- cont_sentence_input_1_split_0
I0925 23:18:24.201089 29950 net.cpp:399] lstm1 -> lstm1
I0925 23:18:24.201102 29950 recurrent_layer.cpp:20] Initializing recurrent layer: assuming input batch contains 1 timesteps of 1 independent streams.
I0925 23:18:24.201138 29968 net.cpp:141] Setting up lstm1_unit_1
I0925 23:18:24.201150 29968 net.cpp:148] Top shape: 1 1 1000 (1000)
I0925 23:18:24.201159 29968 net.cpp:148] Top shape: 1 1 1000 (1000)
I0925 23:18:24.201164 29968 net.cpp:156] Memory required for data: 86016
I0925 23:18:24.201169 29968 layer_factory.hpp:77] Creating layer lstm1_
I0925 23:18:24.201180 29968 net.cpp:91] Creating Layer lstm1_
I0925 23:18:24.201185 29968 net.cpp:425] lstm1_ <- c_1
I0925 23:18:24.201196 29968 net.cpp:399] lstm1_ -> c_T
I0925 23:18:24.201273 29980 net.cpp:141] Setting up lstm1_gate_input_1
I0925 23:18:24.201290 29974 net.cpp:49] Initializing net from parameters: 
layer {
  name: "lstm1_"
  type: "Input"
  top: "x"
  top: "cont"
  input_param {
    shape {
      dim: 1
      dim: 1
      dim: 500
    }
    shape {
      dim: 1
      dim: 1
    }
  }
}
layer {
  name: "lstm1_"
  type: "Input"
  top: "c_0"
  top: "h_0"
  input_param {
    shape {
      dim: 1
      dim: 1
      dim: 1000
    }
    shape {
      dim: 1
      dim: 1
      dim: 1000
    }
  }
}
layer {
  name: "lstm1_cont_slice"
  type: "Slice"
  bottom: "cont"
  top: "cont_1"
  slice_param {
    axis: 0
  }
}
layer {
  name: "lstm1_x_transform"
  type: "InnerProduct"
  bottom: "x"
  top: "W_xc_x"
  param {
    name: "W_xc"
  }
  param {
    name: "b_c"
  }
  propagate_down: true
  inner_product_param {
    num_output: 4000
    bias_term: true
    weight_filler {
      type: "uniform"
      min: -0.08
      max: 0.08
    }
    bias_filler {
      type: "constant"
      value: 0
    }
    axis: 2
  }
}
layer {
  name: "lstm1_W_xc_x_slice"
  type: "Slice"
  bottom: "W_xc_x"
  top: "W_xc_x_1"
  slice_param {
    axis: 0
  }
}
layer {
  name: "lstm1_h_conted_0"
  type: "Scale"
  bottom: "h_0"
  bottom: "cont_1"
  top: "h_conted_0"
  scale_param {
    axis: 0
  }
}
layer {
  name: "lstm1_transform_1"
  type: "InnerProduct"
  bottom: "h_conted_0"
  top: "W_hc_h_0"
  param {
    name: "W_hc"
  }
  inner_product_param {
    num_output: 4000
    bias_term: false
    weight_filler {
      type: "uniform"
      min: -0.08
      max: 0.08
    }
    axis: 2
  }
}
layer {
  name: "lstm1_gate_input_1"
  type: "Eltwise"
  bottom: "W_hc_h_0"
  bottom: "W_xc_x_1"
  top: "gate_input_1"
  eltwise_param {
    operation: SUM
  }
}
layer {
  name: "lstm1_unit_1"
  type: "LSTMUnit"
  bottom: "c_0"
  bottom: "gate_input_1"
  bottom: "cont_1"
  top: "c_1"
  top: "h_1"
}
layer {
  name: "lstm1_"
  type: "Split"
  bottom: "c_1"
  top: "c_T"
}
layer {
  name: "lstm1_h_concat"
  type: "Concat"
  bottom: "h_1"
  top: "h"
  concat_param {
    axis: 0
  }
}
layer {
  name: "h_pseudoloss"
  type: "Reduction"
  bottom: "h"
  top: "h_pseudoloss"
  loss_weight: 1
}
I0925 23:18:24.201319 30006 net.cpp:49] Initializing net from parameters: 
layer {
  name: "lstm1_"
  type: "Input"
  top: "x"
  top: "cont"
  input_param {
    shape {
      dim: 1
      dim: 1
      dim: 500
    }
    shape {
      dim: 1
      dim: 1
    }
  }
}
layer {
  name: "lstm1_"
  type: "Input"
  top: "c_0"
  top: "h_0"
  input_param {
    shape {
      dim: 1
      dim: 1
      dim: 1000
    }
    shape {
      dim: 1
      dim: 1
      dim: 1000
    }
  }
}
layer {
  name: "lstm1_cont_slice"
  type: "Slice"
  bottom: "cont"
  top: "cont_1"
  slice_param {
    axis: 0
  }
}
layer {
  name: "lstm1_x_transform"
  type: "InnerProduct"
  bottom: "x"
  top: "W_xc_x"
  param {
    name: "W_xc"
  }
  param {
    name: "b_c"
  }
  propagate_down: true
  inner_product_param {
    num_output: 4000
    bias_term: true
    weight_filler {
      type: "uniform"
      min: -0.08
      max: 0.08
    }
    bias_filler {
      type: "constant"
      value: 0
    }
    axis: 2
  }
}
layer {
  name: "lstm1_W_xc_x_slice"
  type: "Slice"
  bottom: "W_xc_x"
  top: "W_xc_x_1"
  slice_param {
    axis: 0
  }
}
layer {
  name: "lstm1_h_conted_0"
  type: "Scale"
  bottom: "h_0"
  bottom: "cont_1"
  top: "h_conted_0"
  scale_param {
    axis: 0
  }
}
layer {
  name: "lstm1_transform_1"
  type: "InnerProduct"
  bottom: "h_conted_0"
  top: "W_hc_h_0"
  param {
    name: "W_hc"
  }
  inner_product_param {
    num_output: 4000
    bias_term: false
    weight_filler {
      type: "uniform"
      min: -0.08
      max: 0.08
    }
    axis: 2
  }
}
layer {
  name: "lstm1_gate_input_1"
  type: "Eltwise"
  bottom: "W_hc_h_0"
  bottom: "W_xc_x_1"
  top: "gate_input_1"
  eltwise_param {
    operation: SUM
  }
}
layer {
  name: "lstm1_unit_1"
  type: "LSTMUnit"
  bottom: "c_0"
  bottom: "gate_input_1"
  bottom: "cont_1"
  top: "c_1"
  top: "h_1"
}
layer {
  name: "lstm1_"
  type: "Split"
  bottom: "c_1"
  top: "c_T"
}
layer {
  name: "lstm1_h_concat"
  type: "Concat"
  bottom: "h_1"
  top: "h"
  concat_param {
    axis: 0
  }
}
layer {
  name: "h_pseudoloss"
  type: "Reduction"
  bottom: "h"
  top: "h_pseudoloss"
  loss_weight: 1
}
I0925 23:18:24.201390 29950 net.cpp:49] Initializing net from parameters: 
layer {
  name: "lstm1_"
  type: "Input"
  top: "x"
  top: "cont"
  input_param {
    shape {
      dim: 1
      dim: 1
      dim: 500
    }
    shape {
      dim: 1
      dim: 1
    }
  }
}
layer {
  name: "lstm1_"
  type: "Input"
  top: "c_0"
  top: "h_0"
  input_param {
    shape {
      dim: 1
      dim: 1
      dim: 1000
    }
    shape {
      dim: 1
      dim: 1
      dim: 1000
    }
  }
}
layer {
  name: "lstm1_cont_slice"
  type: "Slice"
  bottom: "cont"
  top: "cont_1"
  slice_param {
    axis: 0
  }
}
layer {
  name: "lstm1_x_transform"
  type: "InnerProduct"
  bottom: "x"
  top: "W_xc_x"
  param {
    name: "W_xc"
  }
  param {
    name: "b_c"
  }
  propagate_down: true
  inner_product_param {
    num_output: 4000
    bias_term: true
    weight_filler {
      type: "uniform"
      min: -0.08
      max: 0.08
    }
    bias_filler {
      type: "constant"
      value: 0
    }
    axis: 2
  }
}
layer {
  name: "lstm1_W_xc_x_slice"
  type: "Slice"
  bottom: "W_xc_x"
  top: "W_xc_x_1"
  slice_param {
    axis: 0
  }
}
layer {
  name: "lstm1_h_conted_0"
  type: "Scale"
  bottom: "h_0"
  bottom: "cont_1"
  top: "h_conted_0"
  scale_param {
    axis: 0
  }
}
layer {
  name: "lstm1_transform_1"
  type: "InnerProduct"
  bottom: "h_conted_0"
  top: "W_hc_h_0"
  param {
    name: "W_hc"
  }
  inner_product_param {
    num_output: 4000
    bias_term: false
    weight_filler {
      type: "uniform"
      min: -0.08
      max: 0.08
    }
    axis: 2
  }
}
layer {
  name: "lstm1_gate_input_1"
  type: "Eltwise"
  bottom: "W_hc_h_0"
  bottom: "W_xc_x_1"
  top: "gate_input_1"
  eltwise_param {
    operation: SUM
  }
}
layer {
  name: "lstm1_unit_1"
  type: "LSTMUnit"
  bottom: "c_0"
  bottom: "gate_input_1"
  bottom: "cont_1"
  top: "c_1"
  top: "h_1"
}
layer {
  name: "lstm1_"
  type: "Split"
  bottom: "c_1"
  top: "c_T"
}
layer {
  name: "lstm1_h_concat"
  type: "Concat"
  bottom: "h_1"
  top: "h"
  concat_param {
    axis: 0
  }
}
layer {
  name: "h_pseudoloss"
  type: "Reduction"
  bottom: "h"
  top: "h_pseudoloss"
  loss_weight: 1
}
I0925 23:18:24.201467 29974 layer_factory.hpp:77] Creating layer lstm1_
I0925 23:18:24.201297 29980 net.cpp:148] Top shape: 1 1 4000 (4000)
I0925 23:18:24.201490 29980 net.cpp:156] Memory required for data: 78016
I0925 23:18:24.201493 29974 net.cpp:91] Creating Layer lstm1_
I0925 23:18:24.201501 29980 layer_factory.hpp:77] Creating layer lstm1_unit_1
I0925 23:18:24.201494 29950 layer_factory.hpp:77] Creating layer lstm1_
I0925 23:18:24.201494 30006 layer_factory.hpp:77] Creating layer lstm1_
I0925 23:18:24.201532 29980 net.cpp:91] Creating Layer lstm1_unit_1
I0925 23:18:24.201544 29980 net.cpp:425] lstm1_unit_1 <- c_0
I0925 23:18:24.201545 29950 net.cpp:91] Creating Layer lstm1_
I0925 23:18:24.201555 29980 net.cpp:425] lstm1_unit_1 <- gate_input_1
I0925 23:18:24.201568 30006 net.cpp:91] Creating Layer lstm1_
I0925 23:18:24.201571 29968 net.cpp:141] Setting up lstm1_
I0925 23:18:24.201583 30006 net.cpp:399] lstm1_ -> x
I0925 23:18:24.201584 29980 net.cpp:425] lstm1_unit_1 <- cont_1_lstm1_cont_slice_0_split_1
I0925 23:18:24.201558 29950 net.cpp:399] lstm1_ -> x
I0925 23:18:24.201604 29968 net.cpp:148] Top shape: 1 1 1000 (1000)
I0925 23:18:24.201608 29980 net.cpp:399] lstm1_unit_1 -> c_1
I0925 23:18:24.201616 30006 net.cpp:399] lstm1_ -> cont
I0925 23:18:24.201611 29968 net.cpp:156] Memory required for data: 90016
I0925 23:18:24.201632 29950 net.cpp:399] lstm1_ -> cont
I0925 23:18:24.201642 29968 layer_factory.hpp:77] Creating layer lstm1_h_concat
I0925 23:18:24.201527 29974 net.cpp:399] lstm1_ -> x
I0925 23:18:24.201660 29968 net.cpp:91] Creating Layer lstm1_h_concat
I0925 23:18:24.201668 29968 net.cpp:425] lstm1_h_concat <- h_1
I0925 23:18:24.201678 29968 net.cpp:399] lstm1_h_concat -> h
I0925 23:18:24.201683 29974 net.cpp:399] lstm1_ -> cont
I0925 23:18:24.201746 29968 net.cpp:141] Setting up lstm1_h_concat
I0925 23:18:24.201758 29968 net.cpp:148] Top shape: 1 1 1000 (1000)
I0925 23:18:24.201763 29968 net.cpp:156] Memory required for data: 94016
I0925 23:18:24.201771 29968 layer_factory.hpp:77] Creating layer h_pseudoloss
I0925 23:18:24.201781 29968 net.cpp:91] Creating Layer h_pseudoloss
I0925 23:18:24.201786 29968 net.cpp:425] h_pseudoloss <- h
I0925 23:18:24.201795 29968 net.cpp:399] h_pseudoloss -> h_pseudoloss
I0925 23:18:24.201635 29980 net.cpp:399] lstm1_unit_1 -> h_1
I0925 23:18:24.201997 29950 net.cpp:141] Setting up lstm1_
I0925 23:18:24.202013 29950 net.cpp:148] Top shape: 1 1 500 (500)
I0925 23:18:24.202019 29950 net.cpp:148] Top shape: 1 1 (1)
I0925 23:18:24.202024 29950 net.cpp:156] Memory required for data: 2004
I0925 23:18:24.202030 29950 layer_factory.hpp:77] Creating layer lstm1_
I0925 23:18:24.202047 29950 net.cpp:91] Creating Layer lstm1_
I0925 23:18:24.202055 29950 net.cpp:399] lstm1_ -> c_0
I0925 23:18:24.202066 29950 net.cpp:399] lstm1_ -> h_0
I0925 23:18:24.202131 29950 net.cpp:141] Setting up lstm1_
I0925 23:18:24.202142 29950 net.cpp:148] Top shape: 1 1 1000 (1000)
I0925 23:18:24.202149 29950 net.cpp:148] Top shape: 1 1 1000 (1000)
I0925 23:18:24.202153 29950 net.cpp:156] Memory required for data: 10004
I0925 23:18:24.202159 29950 layer_factory.hpp:77] Creating layer lstm1_cont_slice
I0925 23:18:24.202169 29950 net.cpp:91] Creating Layer lstm1_cont_slice
I0925 23:18:24.202175 29950 net.cpp:425] lstm1_cont_slice <- cont
I0925 23:18:24.202186 29950 net.cpp:399] lstm1_cont_slice -> cont_1
I0925 23:18:24.202266 29980 net.cpp:141] Setting up lstm1_unit_1
I0925 23:18:24.202285 29980 net.cpp:148] Top shape: 1 1 1000 (1000)
I0925 23:18:24.202296 29980 net.cpp:148] Top shape: 1 1 1000 (1000)
I0925 23:18:24.202302 29980 net.cpp:156] Memory required for data: 86016
I0925 23:18:24.202311 29980 layer_factory.hpp:77] Creating layer lstm1_
I0925 23:18:24.202318 30006 net.cpp:141] Setting up lstm1_
I0925 23:18:24.202324 29980 net.cpp:91] Creating Layer lstm1_
I0925 23:18:24.202334 29980 net.cpp:425] lstm1_ <- c_1
I0925 23:18:24.202337 30006 net.cpp:148] Top shape: 1 1 500 (500)
I0925 23:18:24.202347 29980 net.cpp:399] lstm1_ -> c_T
I0925 23:18:24.202350 30006 net.cpp:148] Top shape: 1 1 (1)
I0925 23:18:24.202360 30006 net.cpp:156] Memory required for data: 2004
I0925 23:18:24.202369 30006 layer_factory.hpp:77] Creating layer lstm1_
I0925 23:18:24.202383 30006 net.cpp:91] Creating Layer lstm1_
I0925 23:18:24.202410 30006 net.cpp:399] lstm1_ -> c_0
I0925 23:18:24.202428 29980 net.cpp:141] Setting up lstm1_
I0925 23:18:24.202430 30006 net.cpp:399] lstm1_ -> h_0
I0925 23:18:24.202455 29980 net.cpp:148] Top shape: 1 1 1000 (1000)
I0925 23:18:24.202464 29980 net.cpp:156] Memory required for data: 90016
I0925 23:18:24.202472 29980 layer_factory.hpp:77] Creating layer lstm1_h_concat
I0925 23:18:24.202497 29980 net.cpp:91] Creating Layer lstm1_h_concat
I0925 23:18:24.202505 29980 net.cpp:425] lstm1_h_concat <- h_1
I0925 23:18:24.202520 29980 net.cpp:399] lstm1_h_concat -> h
I0925 23:18:24.202549 30002 net.cpp:141] Setting up lstm1_x_transform
I0925 23:18:24.202565 30002 net.cpp:148] Top shape: 1 1 4000 (4000)
I0925 23:18:24.202570 30002 net.cpp:156] Memory required for data: 26016
I0925 23:18:24.202585 30002 layer_factory.hpp:77] Creating layer lstm1_W_xc_x_slice
I0925 23:18:24.202610 30002 net.cpp:91] Creating Layer lstm1_W_xc_x_slice
I0925 23:18:24.202623 30002 net.cpp:425] lstm1_W_xc_x_slice <- W_xc_x
I0925 23:18:24.202639 30002 net.cpp:399] lstm1_W_xc_x_slice -> W_xc_x_1
I0925 23:18:24.202788 30006 net.cpp:141] Setting up lstm1_
I0925 23:18:24.202806 30006 net.cpp:148] Top shape: 1 1 1000 (1000)
I0925 23:18:24.202817 30006 net.cpp:148] Top shape: 1 1 1000 (1000)
I0925 23:18:24.202826 30006 net.cpp:156] Memory required for data: 10004
I0925 23:18:24.202833 30006 layer_factory.hpp:77] Creating layer lstm1_cont_slice
I0925 23:18:24.202862 30006 net.cpp:91] Creating Layer lstm1_cont_slice
I0925 23:18:24.202870 30006 net.cpp:425] lstm1_cont_slice <- cont
I0925 23:18:24.202883 30006 net.cpp:399] lstm1_cont_slice -> cont_1
I0925 23:18:24.202935 29980 net.cpp:141] Setting up lstm1_h_concat
I0925 23:18:24.202952 29980 net.cpp:148] Top shape: 1 1 1000 (1000)
I0925 23:18:24.202961 29980 net.cpp:156] Memory required for data: 94016
I0925 23:18:24.202970 29980 layer_factory.hpp:77] Creating layer h_pseudoloss
I0925 23:18:24.202991 29980 net.cpp:91] Creating Layer h_pseudoloss
I0925 23:18:24.202999 29980 net.cpp:425] h_pseudoloss <- h
I0925 23:18:24.203001 29968 net.cpp:141] Setting up h_pseudoloss
I0925 23:18:24.203011 29980 net.cpp:399] h_pseudoloss -> h_pseudoloss
I0925 23:18:24.203022 29968 net.cpp:148] Top shape: (1)
I0925 23:18:24.203032 29968 net.cpp:151]     with loss weight 1
I0925 23:18:24.203055 29968 net.cpp:156] Memory required for data: 94020
I0925 23:18:24.203064 29968 net.cpp:217] h_pseudoloss needs backward computation.
I0925 23:18:24.203073 29968 net.cpp:217] lstm1_h_concat needs backward computation.
I0925 23:18:24.203081 29968 net.cpp:219] lstm1_ does not need backward computation.
I0925 23:18:24.203078 29950 net.cpp:141] Setting up lstm1_cont_slice
I0925 23:18:24.203090 29968 net.cpp:217] lstm1_unit_1 needs backward computation.
I0925 23:18:24.203105 29950 net.cpp:148] Top shape: 1 1 (1)
I0925 23:18:24.203105 29968 net.cpp:217] lstm1_gate_input_1 needs backward computation.
I0925 23:18:24.203125 30002 net.cpp:141] Setting up lstm1_W_xc_x_slice
I0925 23:18:24.203136 29968 net.cpp:217] lstm1_transform_1 needs backward computation.
I0925 23:18:24.203146 29968 net.cpp:219] lstm1_h_conted_0 does not need backward computation.
I0925 23:18:24.203157 30002 net.cpp:148] Top shape: 1 1 4000 (4000)
I0925 23:18:24.203128 29950 net.cpp:156] Memory required for data: 10008
I0925 23:18:24.203168 29968 net.cpp:217] lstm1_W_xc_x_slice needs backward computation.
I0925 23:18:24.203176 29950 layer_factory.hpp:77] Creating layer cont_1_lstm1_cont_slice_0_split
I0925 23:18:24.203173 29974 net.cpp:141] Setting up lstm1_
I0925 23:18:24.203191 29968 net.cpp:217] lstm1_x_transform needs backward computation.
I0925 23:18:24.203197 29950 net.cpp:91] Creating Layer cont_1_lstm1_cont_slice_0_split
I0925 23:18:24.203202 29968 net.cpp:219] cont_1_lstm1_cont_slice_0_split does not need backward computation.
I0925 23:18:24.203208 29974 net.cpp:148] Top shape: 1 1 500 (500)
I0925 23:18:24.203213 29968 net.cpp:219] lstm1_cont_slice does not need backward computation.
I0925 23:18:24.203217 29950 net.cpp:425] cont_1_lstm1_cont_slice_0_split <- cont_1
I0925 23:18:24.203168 30002 net.cpp:156] Memory required for data: 42016
I0925 23:18:24.203227 29974 net.cpp:148] Top shape: 1 1 (1)
I0925 23:18:24.203234 29974 net.cpp:156] Memory required for data: 2004
I0925 23:18:24.203234 29950 net.cpp:399] cont_1_lstm1_cont_slice_0_split -> cont_1_lstm1_cont_slice_0_split_0
I0925 23:18:24.203239 30006 net.cpp:141] Setting up lstm1_cont_slice
I0925 23:18:24.203243 29974 layer_factory.hpp:77] Creating layer lstm1_
I0925 23:18:24.203253 29950 net.cpp:399] cont_1_lstm1_cont_slice_0_split -> cont_1_lstm1_cont_slice_0_split_1
I0925 23:18:24.203258 30002 layer_factory.hpp:77] Creating layer lstm1_h_conted_0
I0925 23:18:24.203265 29974 net.cpp:91] Creating Layer lstm1_
I0925 23:18:24.203284 29974 net.cpp:399] lstm1_ -> c_0
I0925 23:18:24.203294 30002 net.cpp:91] Creating Layer lstm1_h_conted_0
I0925 23:18:24.203302 29974 net.cpp:399] lstm1_ -> h_0
I0925 23:18:24.203308 30002 net.cpp:425] lstm1_h_conted_0 <- h_0
I0925 23:18:24.203321 30002 net.cpp:425] lstm1_h_conted_0 <- cont_1_lstm1_cont_slice_0_split_0
I0925 23:18:24.203336 30002 net.cpp:399] lstm1_h_conted_0 -> h_conted_0
I0925 23:18:24.203361 29950 net.cpp:141] Setting up cont_1_lstm1_cont_slice_0_split
I0925 23:18:24.203378 29950 net.cpp:148] Top shape: 1 1 (1)
I0925 23:18:24.203387 29950 net.cpp:148] Top shape: 1 1 (1)
I0925 23:18:24.203392 29950 net.cpp:156] Memory required for data: 10016
I0925 23:18:24.203397 29950 layer_factory.hpp:77] Creating layer lstm1_x_transform
I0925 23:18:24.203414 29950 net.cpp:91] Creating Layer lstm1_x_transform
I0925 23:18:24.203420 29950 net.cpp:425] lstm1_x_transform <- x
I0925 23:18:24.203429 29950 net.cpp:399] lstm1_x_transform -> W_xc_x
I0925 23:18:24.203560 29960 net.cpp:141] Setting up norm2
I0925 23:18:24.203589 29960 net.cpp:148] Top shape: 10 256 13 13 (432640)
I0925 23:18:24.203599 29960 net.cpp:156] Memory required for data: 53405240
I0925 23:18:24.203611 29960 layer_factory.hpp:77] Creating layer conv3
I0925 23:18:24.203630 29960 net.cpp:91] Creating Layer conv3
I0925 23:18:24.203640 29960 net.cpp:425] conv3 <- norm2
I0925 23:18:24.203660 29960 net.cpp:399] conv3 -> conv3
I0925 23:18:24.203223 29968 net.cpp:219] lstm1_ does not need backward computation.
I0925 23:18:24.205889 29968 net.cpp:219] lstm1_ does not need backward computation.
I0925 23:18:24.205904 29968 net.cpp:261] This network produces output c_T
I0925 23:18:24.205911 29968 net.cpp:261] This network produces output h_pseudoloss
I0925 23:18:24.205935 29968 net.cpp:274] Network initialization done.
I0925 23:18:24.205992 29968 recurrent_layer.cpp:150] Adding parameter 0: W_xc
I0925 23:18:24.205999 29968 recurrent_layer.cpp:150] Adding parameter 1: b_c
I0925 23:18:24.206006 29968 recurrent_layer.cpp:150] Adding parameter 2: W_hc
I0925 23:18:24.203260 30006 net.cpp:148] Top shape: 1 1 (1)
I0925 23:18:24.207931 30006 net.cpp:156] Memory required for data: 10008
I0925 23:18:24.207947 30006 layer_factory.hpp:77] Creating layer cont_1_lstm1_cont_slice_0_split
I0925 23:18:24.207964 30006 net.cpp:91] Creating Layer cont_1_lstm1_cont_slice_0_split
I0925 23:18:24.207972 30006 net.cpp:425] cont_1_lstm1_cont_slice_0_split <- cont_1
I0925 23:18:24.208017 30006 net.cpp:399] cont_1_lstm1_cont_slice_0_split -> cont_1_lstm1_cont_slice_0_split_0
I0925 23:18:24.208034 30006 net.cpp:399] cont_1_lstm1_cont_slice_0_split -> cont_1_lstm1_cont_slice_0_split_1
I0925 23:18:24.208761 29974 net.cpp:141] Setting up lstm1_
I0925 23:18:24.208801 29974 net.cpp:148] Top shape: 1 1 1000 (1000)
I0925 23:18:24.208814 29974 net.cpp:148] Top shape: 1 1 1000 (1000)
I0925 23:18:24.208822 29974 net.cpp:156] Memory required for data: 10004
I0925 23:18:24.208832 29974 layer_factory.hpp:77] Creating layer lstm1_cont_slice
I0925 23:18:24.208861 29974 net.cpp:91] Creating Layer lstm1_cont_slice
I0925 23:18:24.208873 29974 net.cpp:425] lstm1_cont_slice <- cont
I0925 23:18:24.208889 29974 net.cpp:399] lstm1_cont_slice -> cont_1
I0925 23:18:24.208971 29980 net.cpp:141] Setting up h_pseudoloss
…
I0925 23:18:24.209152 29980 net.cpp:219] cont_1_lstm1_cont_slice_0_split does not need backward computation.
I0925 23:18:24.209163 29980 net.cpp:219] lstm1_cont_slice does not need backward computation.
I0925 23:18:24.209173 29980 net.cpp:219] lstm1_ does not need backward computation.
I0925 23:18:24.209182 29980 net.cpp:219] lstm1_ does not need backward computation.
I0925 23:18:24.209187 29980 net.cpp:261] This network produces output c_T
I0925 23:18:24.209197 29980 net.cpp:261] This network produces output h_pseudoloss
I0925 23:18:24.209244 30002 net.cpp:141] Setting up lstm1_h_conted_0
I0925 23:18:24.209264 29980 net.cpp:274] Network initialization done.
I0925 23:18:24.209270 30002 net.cpp:148] Top shape: 1 1 1000 (1000)
I0925 23:18:24.209280 30002 net.cpp:156] Memory required for data: 46016
I0925 23:18:24.209292 30002 layer_factory.hpp:77] Creating layer lstm1_transform_1
I0925 23:18:24.209316 30002 net.cpp:91] Creating Layer lstm1_transform_1
I0925 23:18:24.209329 30002 net.cpp:425] lstm1_transform_1 <- h_conted_0
I0925 23:18:24.209347 30002 net.cpp:399] lstm1_transform_1 -> W_hc_h_0
I0925 23:18:24.209352 29980 recurrent_layer.cpp:150] Adding parameter 0: W_xc
I0925 23:18:24.209363 29980 recurrent_layer.cpp:150] Adding parameter 1: b_c
I0925 23:18:24.209372 29980 recurrent_layer.cpp:150] Adding parameter 2: W_hc
I0925 23:18:24.209462 29968 net.cpp:141] Setting up lstm1
I0925 23:18:24.209481 29968 net.cpp:148] Top shape: 1 1 1000 (1000)
I0925 23:18:24.209486 29968 net.cpp:156] Memory required for data: 26408
I0925 23:18:24.209503 29968 layer_factory.hpp:77] Creating layer concat
I0925 23:18:24.209517 29968 net.cpp:91] Creating Layer concat
I0925 23:18:24.209523 29968 net.cpp:425] concat <- lstm1
I0925 23:18:24.209523 29974 net.cpp:141] Setting up lstm1_cont_slice
I0925 23:18:24.209532 29968 net.cpp:425] concat <- embedded_input_sentence
I0925 23:18:24.209556 29968 net.cpp:425] concat <- reshaped_stage_indicator
I0925 23:18:24.209555 29974 net.cpp:148] Top shape: 1 1 (1)
I0925 23:18:24.209573 29968 net.cpp:399] concat -> lstm1_video_sequence
I0925 23:18:24.209576 29974 net.cpp:156] Memory required for data: 10008
I0925 23:18:24.209586 29974 layer_factory.hpp:77] Creating layer cont_1_lstm1_cont_slice_0_split
I0925 23:18:24.209601 29974 net.cpp:91] Creating Layer cont_1_lstm1_cont_slice_0_split
I0925 23:18:24.209609 29974 net.cpp:425] cont_1_lstm1_cont_slice_0_split <- cont_1
I0925 23:18:24.209626 29974 net.cpp:399] cont_1_lstm1_cont_slice_0_split -> cont_1_lstm1_cont_slice_0_split_0
I0925 23:18:24.209640 29968 net.cpp:141] Setting up concat
I0925 23:18:24.209643 29974 net.cpp:399] cont_1_lstm1_cont_slice_0_split -> cont_1_lstm1_cont_slice_0_split_1
I0925 23:18:24.209652 29968 net.cpp:148] Top shape: 1 1 1501 (1501)
I0925 23:18:24.209657 29968 net.cpp:156] Memory required for data: 32412
I0925 23:18:24.209663 29968 layer_factory.hpp:77] Creating layer lstm2
I0925 23:18:24.209686 29968 net.cpp:91] Creating Layer lstm2
I0925 23:18:24.209692 29968 net.cpp:425] lstm2 <- lstm1_video_sequence
I0925 23:18:24.209698 29968 net.cpp:425] lstm2 <- cont_sentence_input_1_split_1
I0925 23:18:24.209707 29968 net.cpp:399] lstm2 -> lstm2
I0925 23:18:24.209724 29968 recurrent_layer.cpp:20] Initializing recurrent layer: assuming input batch contains 1 timesteps of 1 independent streams.
I0925 23:18:24.210136 29968 net.cpp:49] Initializing net from parameters: 
layer {
  name: "lstm2_"
  type: "Input"
  top: "x"
  top: "cont"
  input_param {
    shape {
      dim: 1
      dim: 1
      dim: 1501
    }
    shape {
      dim: 1
      dim: 1
    }
  }
}
layer {
  name: "lstm2_"
  type: "Input"
  top: "c_0"
  top: "h_0"
  input_param {
    shape {
      dim: 1
      dim: 1
      dim: 1000
    }
    shape {
      dim: 1
      dim: 1
      dim: 1000
    }
  }
}
layer {
  name: "lstm2_cont_slice"
  type: "Slice"
  bottom: "cont"
  top: "cont_1"
  slice_param {
    axis: 0
  }
}
layer {
  name: "lstm2_x_transform"
  type: "InnerProduct"
  bottom: "x"
  top: "W_xc_x"
  param {
    name: "W_xc"
  }
  param {
    name: "b_c"
  }
  propagate_down: true
  inner_product_param {
    num_output: 4000
    bias_term: true
    weight_filler {
      type: "uniform"
      min: -0.08
      max: 0.08
    }
    bias_filler {
      type: "constant"
      value: 0
    }
    axis: 2
  }
}
layer {
  name: "lstm2_W_xc_x_slice"
  type: "Slice"
  bottom: "W_xc_x"
  top: "W_xc_x_1"
  slice_param {
    axis: 0
  }
}
layer {
  name: "lstm2_h_conted_0"
  type: "Scale"
  bottom: "h_0"
  bottom: "cont_1"
  top: "h_conted_0"
  scale_param {
    axis: 0
  }
}
layer {
  name: "lstm2_transform_1"
  type: "InnerProduct"
  bottom: "h_conted_0"
  top: "W_hc_h_0"
  param {
    name: "W_hc"
  }
  inner_product_param {
    num_output: 4000
    bias_term: false
    weight_filler {
      type: "uniform"
      min: -0.08
      max: 0.08
    }
    axis: 2
  }
}
layer {
  name: "lstm2_gate_input_1"
  type: "Eltwise"
  bottom: "W_hc_h_0"
  bottom: "W_xc_x_1"
  top: "gate_input_1"
  eltwise_param {
    operation: SUM
  }
}
layer {
  name: "lstm2_unit_1"
  type: "LSTMUnit"
  bottom: "c_0"
  bottom: "gate_input_1"
  bottom: "cont_1"
  top: "c_1"
  top: "h_1"
}
…
I0925 23:18:24.839471 29994 layer_factory.hpp:77] Creating layer lstm2_
I0925 23:18:24.839493 29994 net.cpp:91] Creating Layer lstm2_
I0925 23:18:24.839503 29994 net.cpp:425] lstm2_ <- c_1
I0925 23:18:24.839517 29994 net.cpp:399] lstm2_ -> c_T
I0925 23:18:24.920846 30002 net.cpp:141] Setting up lstm2_transform_1
I0925 23:18:24.922379 29954 net.cpp:141] Setting up lstm1_transform_1
I0925 23:18:24.922679 30002 net.cpp:148] Top shape: 1 1 4000 (4000)
I0925 23:18:24.922523 29974 net.cpp:141] Setting up lstm2_gate_input_1
I0925 23:18:24.922691 30002 net.cpp:156] Memory required for data: 66020
I0925 23:18:24.922693 29954 net.cpp:148] Top shape: 1 1 4000 (4000)
I0925 23:18:24.922729 29974 net.cpp:148] Top shape: 1 1 4000 (4000)
I0925 23:18:24.922732 29954 net.cpp:156] Memory required for data: 62016
I0925 23:18:24.922739 29974 net.cpp:156] Memory required for data: 82020
I0925 23:18:24.922747 29954 layer_factory.hpp:77] Creating layer lstm1_gate_input_1
I0925 23:18:24.922751 29974 layer_factory.hpp:77] Creating layer lstm2_unit_1
I0925 23:18:24.922775 29954 net.cpp:91] Creating Layer lstm1_gate_input_1
I0925 23:18:24.922796 30002 layer_factory.hpp:77] Creating layer lstm2_gate_input_1
…
I0925 23:18:24.922854 29974 net.cpp:425] lstm2_unit_1 <- cont_1_lstm2_cont_slice_0_split_1
I0925 23:18:24.922878 29974 net.cpp:399] lstm2_unit_1 -> c_1
I0925 23:18:24.922896 29974 net.cpp:399] lstm2_unit_1 -> h_1
I0925 23:18:24.929430 30002 net.cpp:91] Creating Layer lstm2_gate_input_1
I0925 23:18:24.929491 30002 net.cpp:425] lstm2_gate_input_1 <- W_hc_h_0
I0925 23:18:24.929504 30002 net.cpp:425] lstm2_gate_input_1 <- W_xc_x_1
I0925 23:18:24.929525 30002 net.cpp:399] lstm2_gate_input_1 -> gate_input_1
I0925 23:18:24.930697 29994 net.cpp:141] Setting up lstm2_
I0925 23:18:24.930747 29994 net.cpp:148] Top shape: 1 1 1000 (1000)
I0925 23:18:24.930755 29994 net.cpp:156] Memory required for data: 94020
I0925 23:18:24.930766 29994 layer_factory.hpp:77] Creating layer lstm2_h_concat
I0925 23:18:24.930788 29994 net.cpp:91] Creating Layer lstm2_h_concat
I0925 23:18:24.930797 29994 net.cpp:425] lstm2_h_concat <- h_1
I0925 23:18:24.930811 29994 net.cpp:399] lstm2_h_concat -> h
I0925 23:18:24.931001 30006 net.cpp:141] Setting up lstm2_x_transform
I0925 23:18:24.931031 30006 net.cpp:148] Top shape: 1 1 4000 (4000)
I0925 23:18:24.931041 30006 net.cpp:156] Memory required for data: 30020
I0925 23:18:24.931066 30006 layer_factory.hpp:77] Creating layer lstm2_W_xc_x_slice
I0925 23:18:24.931084 30006 net.cpp:91] Creating Layer lstm2_W_xc_x_slice
I0925 23:18:24.931094 30006 net.cpp:425] lstm2_W_xc_x_slice <- W_xc_x
I0925 23:18:24.931110 30006 net.cpp:399] lstm2_W_xc_x_slice -> W_xc_x_1
I0925 23:18:24.931182 30006 net.cpp:141] Setting up lstm2_W_xc_x_slice
I0925 23:18:24.931196 30006 net.cpp:148] Top shape: 1 1 4000 (4000)
I0925 23:18:24.931203 30006 net.cpp:156] Memory required for data: 46020
I0925 23:18:24.931211 30006 layer_factory.hpp:77] Creating layer lstm2_h_conted_0
I0925 23:18:24.931226 30006 net.cpp:91] Creating Layer lstm2_h_conted_0
I0925 23:18:24.931233 30006 net.cpp:425] lstm2_h_conted_0 <- h_0
I0925 23:18:24.931243 30006 net.cpp:425] lstm2_h_conted_0 <- cont_1_lstm2_cont_slice_0_split_0
I0925 23:18:24.931257 30006 net.cpp:399] lstm2_h_conted_0 -> h_conted_0
I0925 23:18:24.931439 30006 net.cpp:141] Setting up lstm2_h_conted_0
I0925 23:18:24.931453 30006 net.cpp:148] Top shape: 1 1 1000 (1000)
I0925 23:18:24.931460 30006 net.cpp:156] Memory required for data: 50020
I0925 23:18:24.931468 30006 layer_factory.hpp:77] Creating layer lstm2_transform_1
I0925 23:18:24.931488 30006 net.cpp:91] Creating Layer lstm2_transform_1
I0925 23:18:24.931496 30006 net.cpp:425] lstm2_transform_1 <- h_conted_0
I0925 23:18:24.931509 30006 net.cpp:399] lstm2_transform_1 -> W_hc_h_0
I0925 23:18:24.944277 29954 net.cpp:141] Setting up lstm1_gate_input_1
I0925 23:18:24.944329 29954 net.cpp:148] Top shape: 1 1 4000 (4000)
I0925 23:18:24.944336 29954 net.cpp:156] Memory required for data: 78016
I0925 23:18:24.944347 29954 layer_factory.hpp:77] Creating layer lstm1_unit_1
I0925 23:18:24.944380 29954 net.cpp:91] Creating Layer lstm1_unit_1
I0925 23:18:24.944391 29954 net.cpp:425] lstm1_unit_1 <- c_0
I0925 23:18:24.944403 29954 net.cpp:425] lstm1_unit_1 <- gate_input_1
I0925 23:18:24.944412 29954 net.cpp:425] lstm1_unit_1 <- cont_1_lstm1_cont_slice_0_split_1
I0925 23:18:24.944427 29954 net.cpp:399] lstm1_unit_1 -> c_1
I0925 23:18:24.944444 29954 net.cpp:399] lstm1_unit_1 -> h_1
I0925 23:18:24.944526 29974 net.cpp:141] Setting up lstm2_unit_1
I0925 23:18:24.944569 29974 net.cpp:148] Top shape: 1 1 1000 (1000)
I0925 23:18:24.944579 29974 net.cpp:148] Top shape: 1 1 1000 (1000)
I0925 23:18:24.944586 29974 net.cpp:156] Memory required for data: 90020
I0925 23:18:24.944597 29974 layer_factory.hpp:77] Creating layer lstm2_
I0925 23:18:24.944617 29974 net.cpp:91] Creating Layer lstm2_
I0925 23:18:24.944625 29974 net.cpp:425] lstm2_ <- c_1
I0925 23:18:24.944639 29974 net.cpp:399] lstm2_ -> c_T
I0925 23:18:24.944696 29980 net.cpp:141] Setting up h_pseudoloss
I0925 23:18:24.944723 29980 net.cpp:148] Top shape: (1)
I0925 23:18:24.944730 29974 net.cpp:141] Setting up lstm2_
I0925 23:18:24.944743 29974 net.cpp:148] Top shape: 1 1 1000 (1000)
I0925 23:18:24.944751 29974 net.cpp:156] Memory required for data: 94020
I0925 23:18:24.944732 29980 net.cpp:151]     with loss weight 1
I0925 23:18:24.944757 29974 layer_factory.hpp:77] Creating layer lstm2_h_concat
I0925 23:18:24.944762 29980 net.cpp:156] Memory required for data: 98024
I0925 23:18:24.944772 29980 net.cpp:217] h_pseudoloss needs backward computation.
I0925 23:18:24.944777 29974 net.cpp:91] Creating Layer lstm2_h_concat
…
I0925 23:18:24.944882 29980 net.cpp:217] lstm2_x_transform needs backward computation.
I0925 23:18:24.944891 29980 net.cpp:219] cont_1_lstm2_cont_slice_0_split does not need backward computation.
I0925 23:18:24.944900 29980 net.cpp:219] lstm2_cont_slice does not need backward computation.
I0925 23:18:24.944910 29980 net.cpp:219] lstm2_ does not need backward computation.
I0925 23:18:24.944916 29980 net.cpp:219] lstm2_ does not need backward computation.
I0925 23:18:24.944923 29974 net.cpp:141] Setting up lstm2_h_concat
I0925 23:18:24.944923 29980 net.cpp:261] This network produces output c_T
I0925 23:18:24.944946 29974 net.cpp:148] Top shape: 1 1 1000 (1000)
I0925 23:18:24.944950 29980 net.cpp:261] This network produces output h_pseudoloss
I0925 23:18:24.944953 29974 net.cpp:156] Memory required for data: 98020
I0925 23:18:24.944962 29974 layer_factory.hpp:77] Creating layer h_pseudoloss
I0925 23:18:24.944975 29974 net.cpp:91] Creating Layer h_pseudoloss
I0925 23:18:24.944977 29980 net.cpp:274] Network initialization done.
I0925 23:18:24.944990 29974 net.cpp:425] h_pseudoloss <- h
I0925 23:18:24.945019 29974 net.cpp:399] h_pseudoloss -> h_pseudoloss
I0925 23:18:24.945031 29954 net.cpp:141] Setting up lstm1_unit_1
I0925 23:18:24.945049 29954 net.cpp:148] Top shape: 1 1 1000 (1000)
I0925 23:18:24.945058 29954 net.cpp:148] Top shape: 1 1 1000 (1000)
I0925 23:18:24.945065 29954 net.cpp:156] Memory required for data: 86016
I0925 23:18:24.945073 29954 layer_factory.hpp:77] Creating layer lstm1_
I0925 23:18:24.945073 29980 recurrent_layer.cpp:150] Adding parameter 0: W_xc
I0925 23:18:24.945087 29954 net.cpp:91] Creating Layer lstm1_
I0925 23:18:24.945089 29980 recurrent_layer.cpp:150] Adding parameter 1: b_c
I0925 23:18:24.945104 29954 net.cpp:425] lstm1_ <- c_1
I0925 23:18:24.945108 29980 recurrent_layer.cpp:150] Adding parameter 2: W_hc
I0925 23:18:24.945125 29954 net.cpp:399] lstm1_ -> c_T
I0925 23:18:24.945153 29994 net.cpp:141] Setting up lstm2_h_concat
I0925 23:18:24.945173 29994 net.cpp:148] Top shape: 1 1 1000 (1000)
I0925 23:18:24.945180 29994 net.cpp:156] Memory required for data: 98020
I0925 23:18:24.945189 29994 layer_factory.hpp:77] Creating layer h_pseudoloss
I0925 23:18:24.945204 29994 net.cpp:91] Creating Layer h_pseudoloss
I0925 23:18:24.945211 29994 net.cpp:425] h_pseudoloss <- h
I0925 23:18:24.945224 29994 net.cpp:399] h_pseudoloss -> h_pseudoloss
I0925 23:18:24.945396 29954 net.cpp:141] Setting up lstm1_
I0925 23:18:24.945412 29954 net.cpp:148] Top shape: 1 1 1000 (1000)
I0925 23:18:24.945420 29954 net.cpp:156] Memory required for data: 90016
I0925 23:18:24.945428 29954 layer_factory.hpp:77] Creating layer lstm1_h_concat
I0925 23:18:24.945441 29954 net.cpp:91] Creating Layer lstm1_h_concat
I0925 23:18:24.945449 29954 net.cpp:425] lstm1_h_concat <- h_1
I0925 23:18:24.945461 29954 net.cpp:399] lstm1_h_concat -> h
I0925 23:18:24.945463 29960 net.cpp:141] Setting up fc7
I0925 23:18:24.945482 29960 net.cpp:148] Top shape: 10 4096 (40960)
I0925 23:18:24.945489 29960 net.cpp:156] Memory required for data: 68273720
I0925 23:18:24.945505 29960 layer_factory.hpp:77] Creating layer relu7
I0925 23:18:24.945524 29960 net.cpp:91] Creating Layer relu7
I0925 23:18:24.945533 29960 net.cpp:425] relu7 <- fc7
I0925 23:18:24.945544 29960 net.cpp:386] relu7 -> fc7 (in-place)
I0925 23:18:24.945663 29954 net.cpp:141] Setting up lstm1_h_concat
I0925 23:18:24.945680 29954 net.cpp:148] Top shape: 1 1 1000 (1000)
I0925 23:18:24.945688 29954 net.cpp:156] Memory required for data: 94016
I0925 23:18:24.945695 29954 layer_factory.hpp:77] Creating layer h_pseudoloss
I0925 23:18:24.945708 29954 net.cpp:91] Creating Layer h_pseudoloss
I0925 23:18:24.945715 29954 net.cpp:425] h_pseudoloss <- h
I0925 23:18:24.945726 29974 net.cpp:141] Setting up h_pseudoloss
I0925 23:18:24.945727 29954 net.cpp:399] h_pseudoloss -> h_pseudoloss
…
I0925 23:18:24.946394 29954 net.cpp:219] lstm1_ does not need backward computation.
I0925 23:18:24.946400 29954 net.cpp:261] This network produces output c_T
I0925 23:18:24.946409 29954 net.cpp:261] This network produces output h_pseudoloss
I0925 23:18:24.946434 29954 net.cpp:274] Network initialization done.
I0925 23:18:24.946492 29954 recurrent_layer.cpp:150] Adding parameter 0: W_xc
I0925 23:18:24.946503 29954 recurrent_layer.cpp:150] Adding parameter 1: b_c
I0925 23:18:24.946511 29954 recurrent_layer.cpp:150] Adding parameter 2: W_hc
I0925 23:18:25.045017 29950 net.cpp:141] Setting up lstm2_transform_1
I0925 23:18:25.045075 29950 net.cpp:148] Top shape: 1 1 4000 (4000)
I0925 23:18:25.045081 29950 net.cpp:156] Memory required for data: 66020
I0925 23:18:25.045100 29950 layer_factory.hpp:77] Creating layer lstm2_gate_input_1
I0925 23:18:25.045120 29950 net.cpp:91] Creating Layer lstm2_gate_input_1
I0925 23:18:25.045127 29950 net.cpp:425] lstm2_gate_input_1 <- W_hc_h_0
I0925 23:18:25.045135 29950 net.cpp:425] lstm2_gate_input_1 <- W_xc_x_1
I0925 23:18:25.045143 29950 net.cpp:399] lstm2_gate_input_1 -> gate_input_1
I0925 23:18:25.045162 30006 net.cpp:141] Setting up lstm2_transform_1
I0925 23:18:25.045200 29994 net.cpp:141] Setting up lstm2
I0925 23:18:25.045209 30006 net.cpp:148] Top shape: 1 1 4000 (4000)
I0925 23:18:25.045218 29994 net.cpp:148] Top shape: 1 1 1000 (1000)
I0925 23:18:25.045220 30006 net.cpp:156] Memory required for data: 66020
I0925 23:18:25.045224 29994 net.cpp:156] Memory required for data: 36412
I0925 23:18:25.045241 29994 layer_factory.hpp:77] Creating layer predict
I0925 23:18:25.045246 30006 layer_factory.hpp:77] Creating layer lstm2_gate_input_1
I0925 23:18:25.045256 29994 net.cpp:91] Creating Layer predict
I0925 23:18:25.045264 29994 net.cpp:425] predict <- lstm2
I0925 23:18:25.045271 29994 net.cpp:399] predict -> predict
I0925 23:18:25.045269 29974 net.cpp:141] Setting up lstm2
I0925 23:18:25.045275 30006 net.cpp:91] Creating Layer lstm2_gate_input_1
I0925 23:18:25.045294 29974 net.cpp:148] Top shape: 1 1 1000 (1000)
I0925 23:18:25.045300 29974 net.cpp:156] Memory required for data: 36412
I0925 23:18:25.045298 30006 net.cpp:425] lstm2_gate_input_1 <- W_hc_h_0
I0925 23:18:25.045317 30006 net.cpp:425] lstm2_gate_input_1 <- W_xc_x_1
I0925 23:18:25.045320 29974 layer_factory.hpp:77] Creating layer predict
I0925 23:18:25.045330 30006 net.cpp:399] lstm2_gate_input_1 -> gate_input_1
I0925 23:18:25.045336 29974 net.cpp:91] Creating Layer predict
I0925 23:18:25.045341 29974 net.cpp:425] predict <- lstm2
I0925 23:18:25.045351 29974 net.cpp:399] predict -> predict
I0925 23:18:25.045405 30002 net.cpp:141] Setting up lstm2_gate_input_1
I0925 23:18:25.045423 30002 net.cpp:148] Top shape: 1 1 4000 (4000)
I0925 23:18:25.045429 30002 net.cpp:156] Memory required for data: 82020
I0925 23:18:25.045434 30002 layer_factory.hpp:77] Creating layer lstm2_unit_1
I0925 23:18:25.045445 30002 net.cpp:91] Creating Layer lstm2_unit_1
I0925 23:18:25.045451 30002 net.cpp:425] lstm2_unit_1 <- c_0
I0925 23:18:25.045470 30002 net.cpp:425] lstm2_unit_1 <- gate_input_1
I0925 23:18:25.045476 30002 net.cpp:425] lstm2_unit_1 <- cont_1_lstm2_cont_slice_0_split_1
I0925 23:18:25.045483 30002 net.cpp:399] lstm2_unit_1 -> c_1
I0925 23:18:25.045493 30002 net.cpp:399] lstm2_unit_1 -> h_1
I0925 23:18:25.045667 30006 net.cpp:141] Setting up lstm2_gate_input_1
I0925 23:18:25.045681 30006 net.cpp:148] Top shape: 1 1 4000 (4000)
I0925 23:18:25.045688 30006 net.cpp:156] Memory required for data: 82020
I0925 23:18:25.045696 30006 layer_factory.hpp:77] Creating layer lstm2_unit_1
I0925 23:18:25.045706 30006 net.cpp:91] Creating Layer lstm2_unit_1
I0925 23:18:25.045712 30006 net.cpp:425] lstm2_unit_1 <- c_0
I0925 23:18:25.045722 30006 net.cpp:425] lstm2_unit_1 <- gate_input_1
I0925 23:18:25.045729 30006 net.cpp:425] lstm2_unit_1 <- cont_1_lstm2_cont_slice_0_split_1
I0925 23:18:25.045739 30006 net.cpp:399] lstm2_unit_1 -> c_1
I0925 23:18:25.045753 30006 net.cpp:399] lstm2_unit_1 -> h_1
I0925 23:18:25.045799 29954 net.cpp:141] Setting up lstm1
I0925 23:18:25.045819 29954 net.cpp:148] Top shape: 1 1 1000 (1000)
I0925 23:18:25.045827 29954 net.cpp:156] Memory required for data: 26408
I0925 23:18:25.045842 29950 net.cpp:141] Setting up lstm2_gate_input_1
I0925 23:18:25.045850 29954 layer_factory.hpp:77] Creating layer concat
I0925 23:18:25.045856 29950 net.cpp:148] Top shape: 1 1 4000 (4000)
I0925 23:18:25.045864 29950 net.cpp:156] Memory required for data: 82020
I0925 23:18:25.045867 29954 net.cpp:91] Creating Layer concat
I0925 23:18:25.045871 29950 layer_factory.hpp:77] Creating layer lstm2_unit_1
I0925 23:18:25.045876 29954 net.cpp:425] concat <- lstm1
I0925 23:18:25.045886 29954 net.cpp:425] concat <- embedded_input_sentence
I0925 23:18:25.045887 29950 net.cpp:91] Creating Layer lstm2_unit_1
I0925 23:18:25.045902 29954 net.cpp:425] concat <- reshaped_stage_indicator
I0925 23:18:25.045905 29950 net.cpp:425] lstm2_unit_1 <- c_0
I0925 23:18:25.045914 29950 net.cpp:425] lstm2_unit_1 <- gate_input_1
I0925 23:18:25.045915 29954 net.cpp:399] concat -> lstm1_video_sequence
I0925 23:18:25.045928 29950 net.cpp:425] lstm2_unit_1 <- cont_1_lstm2_cont_slice_0_split_1
I0925 23:18:25.045940 29950 net.cpp:399] lstm2_unit_1 -> c_1
I0925 23:18:25.045958 29950 net.cpp:399] lstm2_unit_1 -> h_1
I0925 23:18:25.046089 29960 net.cpp:141] Setting up relu7
I0925 23:18:25.046108 29960 net.cpp:148] Top shape: 10 4096 (40960)
I0925 23:18:25.046113 29960 net.cpp:156] Memory required for data: 68437560
I0925 23:18:25.046123 29960 layer_factory.hpp:77] Creating layer drop7
I0925 23:18:25.046166 29960 net.cpp:91] Creating Layer drop7
I0925 23:18:25.046176 29960 net.cpp:425] drop7 <- fc7
I0925 23:18:25.046185 29960 net.cpp:386] drop7 -> fc7 (in-place)
I0925 23:18:25.046255 29960 net.cpp:141] Setting up drop7
I0925 23:18:25.046265 29960 net.cpp:148] Top shape: 10 4096 (40960)
I0925 23:18:25.046270 29960 net.cpp:156] Memory required for data: 68601400
I0925 23:18:25.046275 29960 layer_factory.hpp:77] Creating layer fc8
I0925 23:18:25.046283 29960 net.cpp:91] Creating Layer fc8
I0925 23:18:25.046288 29960 net.cpp:425] fc8 <- fc7
I0925 23:18:25.046299 29960 net.cpp:399] fc8 -> fc8
I0925 23:18:25.046368 29950 net.cpp:141] Setting up lstm2_unit_1
I0925 23:18:25.046381 29950 net.cpp:148] Top shape: 1 1 1000 (1000)
I0925 23:18:25.046387 29950 net.cpp:148] Top shape: 1 1 1000 (1000)
I0925 23:18:25.046392 29950 net.cpp:156] Memory required for data: 90020
I0925 23:18:25.046397 29950 layer_factory.hpp:77] Creating layer lstm2_
I0925 23:18:25.046406 29950 net.cpp:91] Creating Layer lstm2_
I0925 23:18:25.046411 29950 net.cpp:425] lstm2_ <- c_1
I0925 23:18:25.046417 29950 net.cpp:399] lstm2_ -> c_T
I0925 23:18:25.222144 30006 net.cpp:141] Setting up lstm2_unit_1
I0925 23:18:25.222211 30006 net.cpp:148] Top shape: 1 1 1000 (1000)
I0925 23:18:25.222224 30006 net.cpp:148] Top shape: 1 1 1000 (1000)
I0925 23:18:25.222235 30006 net.cpp:156] Memory required for data: 90020
I0925 23:18:25.222252 30006 layer_factory.hpp:77] Creating layer lstm2_
I0925 23:18:25.222261 29954 net.cpp:141] Setting up concat
I0925 23:18:25.222290 30006 net.cpp:91] Creating Layer lstm2_
I0925 23:18:25.222302 29954 net.cpp:148] Top shape: 1 1 1501 (1501)
I0925 23:18:25.222306 30006 net.cpp:425] lstm2_ <- c_1
I0925 23:18:25.222314 29954 net.cpp:156] Memory required for data: 32412
I0925 23:18:25.222326 30006 net.cpp:399] lstm2_ -> c_T
I0925 23:18:25.222326 29954 layer_factory.hpp:77] Creating layer lstm2
I0925 23:18:25.222384 29954 net.cpp:91] Creating Layer lstm2
I0925 23:18:25.222396 29954 net.cpp:425] lstm2 <- lstm1_video_sequence
I0925 23:18:25.222409 29954 net.cpp:425] lstm2 <- cont_sentence_input_1_split_1
I0925 23:18:25.222424 29954 net.cpp:399] lstm2 -> lstm2
I0925 23:18:25.222450 29954 recurrent_layer.cpp:20] Initializing recurrent layer: assuming input batch contains 1 timesteps of 1 independent streams.
I0925 23:18:25.222712 29950 net.cpp:141] Setting up lstm2_
I0925 23:18:25.222738 29950 net.cpp:148] Top shape: 1 1 1000 (1000)
I0925 23:18:25.222750 29950 net.cpp:156] Memory required for data: 94020
I0925 23:18:25.222759 29950 layer_factory.hpp:77] Creating layer lstm2_h_concat
I0925 23:18:25.222784 29950 net.cpp:91] Creating Layer lstm2_h_concat
I0925 23:18:25.222797 29950 net.cpp:425] lstm2_h_concat <- h_1
I0925 23:18:25.222813 29950 net.cpp:399] lstm2_h_concat -> h
I0925 23:18:25.222841 30002 net.cpp:141] Setting up lstm2_unit_1
I0925 23:18:25.222863 30002 net.cpp:148] Top shape: 1 1 1000 (1000)
I0925 23:18:25.222874 30002 net.cpp:148] Top shape: 1 1 1000 (1000)
I0925 23:18:25.222882 30002 net.cpp:156] Memory required for data: 90020
I0925 23:18:25.222890 30002 layer_factory.hpp:77] Creating layer lstm2_
I0925 23:18:25.222903 30002 net.cpp:91] Creating Layer lstm2_
I0925 23:18:25.222910 30002 net.cpp:425] lstm2_ <- c_1
I0925 23:18:25.222923 30002 net.cpp:399] lstm2_ -> c_T
I0925 23:18:25.222972 30006 net.cpp:141] Setting up lstm2_
I0925 23:18:25.222985 30006 net.cpp:148] Top shape: 1 1 1000 (1000)
I0925 23:18:25.222992 30006 net.cpp:156] Memory required for data: 94020
I0925 23:18:25.223000 30006 layer_factory.hpp:77] Creating layer lstm2_h_concat
I0925 23:18:25.223011 30006 net.cpp:91] Creating Layer lstm2_h_concat
I0925 23:18:25.223019 30006 net.cpp:425] lstm2_h_concat <- h_1
I0925 23:18:25.223037 30006 net.cpp:399] lstm2_h_concat -> h
I0925 23:18:25.223508 29954 net.cpp:49] Initializing net from parameters: 
layer {
  name: "lstm2_"
  type: "Input"
  top: "x"
  top: "cont"
  input_param {
    shape {
      dim: 1
      dim: 1
      dim: 1501
    }
    shape {
      dim: 1
      dim: 1
    }
  }
}
layer {
  name: "lstm2_"
  type: "Input"
  top: "c_0"
  top: "h_0"
  input_param {
    shape {
      dim: 1
      dim: 1
      dim: 1000
    }
    shape {
      dim: 1
      dim: 1
      dim: 1000
    }
  }
}
layer {
  name: "lstm2_cont_slice"
  type: "Slice"
  bottom: "cont"
  top: "cont_1"
  slice_param {
    axis: 0
  }
}
layer {
  name: "lstm2_x_transform"
  type: "InnerProduct"
  bottom: "x"
  top: "W_xc_x"
  param {
    name: "W_xc"
  }
  param {
    name: "b_c"
  }
  propagate_down: true
  inner_product_param {
    num_output: 4000
    bias_term: true
    weight_filler {
      type: "uniform"
      min: -0.08
      max: 0.08
    }
    bias_filler {
      type: "constant"
      value: 0
    }
    axis: 2
  }
}
layer {
  name: "lstm2_W_xc_x_slice"
  type: "Slice"
  bottom: "W_xc_x"
  top: "W_xc_x_1"
  slice_param {
    axis: 0
  }
}
layer {
  name: "lstm2_h_conted_0"
  type: "Scale"
  bottom: "h_0"
  bottom: "cont_1"
  top: "h_conted_0"
  scale_param {
    axis: 0
  }
}
layer {
  name: "lstm2_transform_1"
  type: "InnerProduct"
  bottom: "h_conted_0"
  top: "W_hc_h_0"
  param {
    name: "W_hc"
  }
  inner_product_param {
    num_output: 4000
    bias_term: false
    weight_filler {
      type: "uniform"
      min: -0.08
      max: 0.08
    }
    axis: 2
  }
}
layer {
  name: "lstm2_gate_input_1"
  type: "Eltwise"
  bottom: "W_hc_h_0"
  bottom: "W_xc_x_1"
  top: "gate_input_1"
  eltwise_param {
    operation: SUM
  }
}
layer {
  name: "lstm2_unit_1"
  type: "LSTMUnit"
  bottom: "c_0"
  bottom: "gate_input_1"
  bottom: "cont_1"
  top: "c_1"
  top: "h_1"
}
layer {
  name: "lstm2_"
  type: "Split"
  bottom: "c_1"
  top: "c_T"
}
layer {
  name: "lstm2_h_concat"
  type: "Concat"
  bottom: "h_1"
  top: "h"
  concat_param {
    axis: 0
  }
}
layer {
  name: "h_pseudoloss"
  type: "Reduction"
  bottom: "h"
  top: "h_pseudoloss"
  loss_weight: 1
}
I0925 23:18:25.225131 29954 layer_factory.hpp:77] Creating layer lstm2_
I0925 23:18:25.225174 29954 net.cpp:91] Creating Layer lstm2_
I0925 23:18:25.225188 29954 net.cpp:399] lstm2_ -> x
I0925 23:18:25.225211 29954 net.cpp:399] lstm2_ -> cont
I0925 23:18:25.235528 29958 net.cpp:141] Setting up predict
I0925 23:18:25.235574 29950 net.cpp:141] Setting up lstm2_h_concat
I0925 23:18:25.235596 29950 net.cpp:148] Top shape: 1 1 1000 (1000)
I0925 23:18:25.235599 29958 net.cpp:148] Top shape: 1 1 46168 (46168)
I0925 23:18:25.235606 29950 net.cpp:156] Memory required for data: 98020
I0925 23:18:25.235610 29958 net.cpp:156] Memory required for data: 221084
I0925 23:18:25.235620 29950 layer_factory.hpp:77] Creating layer h_pseudoloss
I0925 23:18:25.235632 29958 layer_factory.hpp:77] Creating layer probs
I0925 23:18:25.235643 29950 net.cpp:91] Creating Layer h_pseudoloss
I0925 23:18:25.235653 29950 net.cpp:425] h_pseudoloss <- h
…
I0925 23:18:25.236124 29950 net.cpp:219] lstm2_ does not need backward computation.
I0925 23:18:25.236129 29950 net.cpp:261] This network produces output c_T
I0925 23:18:25.236137 29950 net.cpp:261] This network produces output h_pseudoloss
I0925 23:18:25.236168 29950 net.cpp:274] Network initialization done.
I0925 23:18:25.236245 29950 recurrent_layer.cpp:150] Adding parameter 0: W_xc
I0925 23:18:25.236254 29950 recurrent_layer.cpp:150] Adding parameter 1: b_c
I0925 23:18:25.236265 29950 recurrent_layer.cpp:150] Adding parameter 2: W_hc
I0925 23:18:25.236443 29950 net.cpp:141] Setting up lstm2
I0925 23:18:25.236462 29950 net.cpp:148] Top shape: 1 1 1000 (1000)
I0925 23:18:25.236469 29950 net.cpp:156] Memory required for data: 36412
I0925 23:18:25.236491 29950 layer_factory.hpp:77] Creating layer predict
I0925 23:18:25.236510 29950 net.cpp:91] Creating Layer predict
I0925 23:18:25.236518 29950 net.cpp:425] predict <- lstm2
I0925 23:18:25.236529 29950 net.cpp:399] predict -> predict
I0925 23:18:25.235652 29958 net.cpp:91] Creating Layer probs
I0925 23:18:25.246681 29958 net.cpp:425] probs <- predict
I0925 23:18:25.246729 29958 net.cpp:399] probs -> probs
I0925 23:18:25.325260 30006 net.cpp:141] Setting up lstm2_h_concat
I0925 23:18:25.325315 30006 net.cpp:148] Top shape: 1 1 1000 (1000)
I0925 23:18:25.325321 30006 net.cpp:156] Memory required for data: 98020
I0925 23:18:25.325331 30006 layer_factory.hpp:77] Creating layer h_pseudoloss
I0925 23:18:25.325350 30006 net.cpp:91] Creating Layer h_pseudoloss
I0925 23:18:25.325357 30006 net.cpp:425] h_pseudoloss <- h
I0925 23:18:25.325371 30006 net.cpp:399] h_pseudoloss -> h_pseudoloss
I0925 23:18:25.325567 29954 net.cpp:141] Setting up lstm2_
I0925 23:18:25.325609 29954 net.cpp:148] Top shape: 1 1 1501 (1501)
I0925 23:18:25.325618 29954 net.cpp:148] Top shape: 1 1 (1)
I0925 23:18:25.325623 29954 net.cpp:156] Memory required for data: 6008
I0925 23:18:25.325633 29954 layer_factory.hpp:77] Creating layer lstm2_
I0925 23:18:25.325659 29954 net.cpp:91] Creating Layer lstm2_
I0925 23:18:25.325667 29954 net.cpp:399] lstm2_ -> c_0
I0925 23:18:25.325685 29954 net.cpp:399] lstm2_ -> h_0
I0925 23:18:25.325780 29954 net.cpp:141] Setting up lstm2_
I0925 23:18:25.325790 29954 net.cpp:148] Top shape: 1 1 1000 (1000)
I0925 23:18:25.325796 29954 net.cpp:148] Top shape: 1 1 1000 (1000)
I0925 23:18:25.325800 29954 net.cpp:156] Memory required for data: 14008
I0925 23:18:25.325809 29954 layer_factory.hpp:77] Creating layer lstm2_cont_slice
I0925 23:18:25.325824 29954 net.cpp:91] Creating Layer lstm2_cont_slice
I0925 23:18:25.325830 29954 net.cpp:425] lstm2_cont_slice <- cont
I0925 23:18:25.325839 29954 net.cpp:399] lstm2_cont_slice -> cont_1
I0925 23:18:25.325860 30002 net.cpp:141] Setting up lstm2_
I0925 23:18:25.325881 30002 net.cpp:148] Top shape: 1 1 1000 (1000)
I0925 23:18:25.325886 30002 net.cpp:156] Memory required for data: 94020
I0925 23:18:25.325893 30002 layer_factory.hpp:77] Creating layer lstm2_h_concat
I0925 23:18:25.325904 30002 net.cpp:91] Creating Layer lstm2_h_concat
I0925 23:18:25.325911 30002 net.cpp:425] lstm2_h_concat <- h_1
I0925 23:18:25.325920 30002 net.cpp:399] lstm2_h_concat -> h
I0925 23:18:25.326637 30006 net.cpp:141] Setting up h_pseudoloss
I0925 23:18:25.326658 30006 net.cpp:148] Top shape: (1)
I0925 23:18:25.326665 30006 net.cpp:151]     with loss weight 1
I0925 23:18:25.326685 30006 net.cpp:156] Memory required for data: 98024
I0925 23:18:25.326692 30006 net.cpp:217] h_pseudoloss needs backward computation.
I0925 23:18:25.326699 30006 net.cpp:217] lstm2_h_concat needs backward computation.
I0925 23:18:25.326707 30006 net.cpp:219] lstm2_ does not need backward computation.
I0925 23:18:25.326716 30006 net.cpp:217] lstm2_unit_1 needs backward computation.
I0925 23:18:25.326714 29954 net.cpp:141] Setting up lstm2_cont_slice
I0925 23:18:25.326746 30006 net.cpp:217] lstm2_gate_input_1 needs backward computation.
I0925 23:18:25.326771 29954 net.cpp:148] Top shape: 1 1 (1)
I0925 23:18:25.326781 29954 net.cpp:156] Memory required for data: 14012
I0925 23:18:25.326781 30006 net.cpp:217] lstm2_transform_1 needs backward computation.
I0925 23:18:25.326791 29954 layer_factory.hpp:77] Creating layer cont_1_lstm2_cont_slice_0_split
I0925 23:18:25.326792 30006 net.cpp:219] lstm2_h_conted_0 does not need backward computation.
I0925 23:18:25.326809 30006 net.cpp:217] lstm2_W_xc_x_slice needs backward computation.
I0925 23:18:25.326789 30002 net.cpp:141] Setting up lstm2_h_concat
I0925 23:18:25.326815 29954 net.cpp:91] Creating Layer cont_1_lstm2_cont_slice_0_split
I0925 23:18:25.326828 30002 net.cpp:148] Top shape: 1 1 1000 (1000)
I0925 23:18:25.326831 29954 net.cpp:425] cont_1_lstm2_cont_slice_0_split <- cont_1
I0925 23:18:25.326817 30006 net.cpp:217] lstm2_x_transform needs backward computation.
I0925 23:18:25.326841 30002 net.cpp:156] Memory required for data: 98020
I0925 23:18:25.326846 30006 net.cpp:219] cont_1_lstm2_cont_slice_0_split does not need backward computation.
I0925 23:18:25.326850 30002 layer_factory.hpp:77] Creating layer h_pseudoloss
…
I0925 23:18:25.327129 30002 net.cpp:219] lstm2_ does not need backward computation.
I0925 23:18:25.327134 30002 net.cpp:217] lstm2_unit_1 needs backward computation.
I0925 23:18:25.327142 30002 net.cpp:217] lstm2_gate_input_1 needs backward computation.
I0925 23:18:25.327147 30002 net.cpp:217] lstm2_transform_1 needs backward computation.
I0925 23:18:25.327152 30002 net.cpp:219] lstm2_h_conted_0 does not need backward computation.
I0925 23:18:25.327157 29954 net.cpp:141] Setting up cont_1_lstm2_cont_slice_0_split
I0925 23:18:25.327160 30002 net.cpp:217] lstm2_W_xc_x_slice needs backward computation.
I0925 23:18:25.327178 29954 net.cpp:148] Top shape: 1 1 (1)
I0925 23:18:25.327181 30002 net.cpp:217] lstm2_x_transform needs backward computation.
I0925 23:18:25.327186 29954 net.cpp:148] Top shape: 1 1 (1)
I0925 23:18:25.327188 30002 net.cpp:219] cont_1_lstm2_cont_slice_0_split does not need backward computation.
I0925 23:18:25.327191 29954 net.cpp:156] Memory required for data: 14020
I0925 23:18:25.327194 30002 net.cpp:219] lstm2_cont_slice does not need backward computation.
I0925 23:18:25.327196 29954 layer_factory.hpp:77] Creating layer lstm2_x_transform
I0925 23:18:25.327200 30002 net.cpp:219] lstm2_ does not need backward computation.
I0925 23:18:25.327206 30002 net.cpp:219] lstm2_ does not need backward computation.
I0925 23:18:25.327209 30002 net.cpp:261] This network produces output c_T
I0925 23:18:25.327214 30002 net.cpp:261] This network produces output h_pseudoloss
I0925 23:18:25.327215 29954 net.cpp:91] Creating Layer lstm2_x_transform
I0925 23:18:25.327224 29954 net.cpp:425] lstm2_x_transform <- x
I0925 23:18:25.327230 30002 net.cpp:274] Network initialization done.
I0925 23:18:25.327241 29954 net.cpp:399] lstm2_x_transform -> W_xc_x
I0925 23:18:25.327299 29960 net.cpp:141] Setting up fc8
I0925 23:18:25.327320 29960 net.cpp:148] Top shape: 10 1000 (10000)
I0925 23:18:25.327327 29960 net.cpp:156] Memory required for data: 68641400
I0925 23:18:25.327327 30002 recurrent_layer.cpp:150] Adding parameter 0: W_xc
I0925 23:18:25.327337 30002 recurrent_layer.cpp:150] Adding parameter 1: b_c
I0925 23:18:25.327342 30002 recurrent_layer.cpp:150] Adding parameter 2: W_hc
I0925 23:18:25.327340 29960 layer_factory.hpp:77] Creating layer prob
I0925 23:18:25.327353 29960 net.cpp:91] Creating Layer prob
I0925 23:18:25.327360 29960 net.cpp:425] prob <- fc8
I0925 23:18:25.327370 29960 net.cpp:399] prob -> prob
I0925 23:18:25.327962 29968 net.cpp:141] Setting up predict
I0925 23:18:25.327986 29968 net.cpp:148] Top shape: 1 1 46168 (46168)
I0925 23:18:25.327993 29968 net.cpp:156] Memory required for data: 221084
I0925 23:18:25.328011 29968 layer_factory.hpp:77] Creating layer probs
I0925 23:18:25.328027 29968 net.cpp:91] Creating Layer probs
I0925 23:18:25.328042 29968 net.cpp:425] probs <- predict
I0925 23:18:25.328057 29968 net.cpp:399] probs -> probs
I0925 23:18:25.347201 30002 net.cpp:141] Setting up lstm2
I0925 23:18:25.347285 30002 net.cpp:148] Top shape: 1 1 1000 (1000)
I0925 23:18:25.347295 30002 net.cpp:156] Memory required for data: 36412
I0925 23:18:25.347301 29946 net.cpp:141] Setting up predict
I0925 23:18:25.347345 30002 layer_factory.hpp:77] Creating layer predict
I0925 23:18:25.347357 29946 net.cpp:148] Top shape: 1 1 46168 (46168)
I0925 23:18:25.347363 29946 net.cpp:156] Memory required for data: 221084
I0925 23:18:25.347376 30002 net.cpp:91] Creating Layer predict
I0925 23:18:25.347379 29946 layer_factory.hpp:77] Creating layer probs
I0925 23:18:25.347398 30002 net.cpp:425] predict <- lstm2
I0925 23:18:25.347398 29946 net.cpp:91] Creating Layer probs
I0925 23:18:25.347439 30002 net.cpp:399] predict -> predict
I0925 23:18:25.347443 29946 net.cpp:425] probs <- predict
I0925 23:18:25.347456 29946 net.cpp:399] probs -> probs
I0925 23:18:25.348335 29960 net.cpp:141] Setting up prob
I0925 23:18:25.348348 29960 net.cpp:148] Top shape: 10 1000 (10000)
I0925 23:18:25.348353 29960 net.cpp:156] Memory required for data: 68681400
I0925 23:18:25.348358 29960 net.cpp:219] prob does not need backward computation.
I0925 23:18:25.348363 29960 net.cpp:219] fc8 does not need backward computation.
I0925 23:18:25.348368 29960 net.cpp:219] drop7 does not need backward computation.
I0925 23:18:25.348373 29960 net.cpp:219] relu7 does not need backward computation.
…
I0925 23:18:25.348475 29960 net.cpp:219] norm1 does not need backward computation.
I0925 23:18:25.348480 29960 net.cpp:219] pool1 does not need backward computation.
I0925 23:18:25.348484 29960 net.cpp:219] relu1 does not need backward computation.
I0925 23:18:25.348491 29960 net.cpp:219] conv1 does not need backward computation.
I0925 23:18:25.348496 29960 net.cpp:219] data does not need backward computation.
I0925 23:18:25.348500 29960 net.cpp:261] This network produces output prob
I0925 23:18:25.348518 29960 net.cpp:274] Network initialization done.
I0925 23:18:25.441392 30006 net.cpp:141] Setting up lstm2
I0925 23:18:25.441567 30006 net.cpp:148] Top shape: 1 1 1000 (1000)
I0925 23:18:25.441589 30006 net.cpp:156] Memory required for data: 36412
I0925 23:18:25.441638 30006 layer_factory.hpp:77] Creating layer predict
I0925 23:18:25.441673 30006 net.cpp:91] Creating Layer predict
I0925 23:18:25.441689 30006 net.cpp:425] predict <- lstm2
I0925 23:18:25.441707 30006 net.cpp:399] predict -> predict
I0925 23:18:25.442579 29946 net.cpp:141] Setting up probs
I0925 23:18:25.442659 29946 net.cpp:148] Top shape: 1 1 46168 (46168)
I0925 23:18:25.442677 29946 net.cpp:156] Memory required for data: 405756
I0925 23:18:25.442695 29946 net.cpp:219] probs does not need backward computation.
I0925 23:18:25.442713 29946 net.cpp:219] predict does not need backward computation.
I0925 23:18:25.442733 29946 net.cpp:219] lstm2 does not need backward computation.
I0925 23:18:25.442750 29946 net.cpp:219] concat does not need backward computation.
I0925 23:18:25.442767 29946 net.cpp:219] lstm1 does not need backward computation.
I0925 23:18:25.442785 29946 net.cpp:219] embedding does not need backward computation.
I0925 23:18:25.442800 29946 net.cpp:219] reshape_stage_indicator does not need backward computation.
I0925 23:18:25.442816 29946 net.cpp:219] reshape_frames does not need backward computation.
I0925 23:18:25.442833 29946 net.cpp:219] embed_encoder does not need backward computation.
I0925 23:18:25.442849 29946 net.cpp:219] cont_sentence_input_1_split does not need backward computation.
I0925 23:18:25.442864 29946 net.cpp:219] input does not need backward computation.
I0925 23:18:25.442876 29946 net.cpp:261] This network produces output probs
I0925 23:18:25.442927 29946 net.cpp:274] Network initialization done.
I0925 23:18:25.450976 29958 net.cpp:141] Setting up probs
I0925 23:18:25.451031 29958 net.cpp:148] Top shape: 1 1 46168 (46168)
I0925 23:18:25.451042 29958 net.cpp:156] Memory required for data: 405756
I0925 23:18:25.451058 29958 net.cpp:219] probs does not need backward computation.
I0925 23:18:25.451068 29958 net.cpp:219] predict does not need backward computation.
I0925 23:18:25.451081 29958 net.cpp:219] lstm2 does not need backward computation.
I0925 23:18:25.451089 29958 net.cpp:219] concat does not need backward computation.
I0925 23:18:25.451099 29958 net.cpp:219] lstm1 does not need backward computation.
I0925 23:18:25.451108 29958 net.cpp:219] embedding does not need backward computation.
I0925 23:18:25.451117 29958 net.cpp:219] reshape_stage_indicator does not need backward computation.
I0925 23:18:25.451125 29958 net.cpp:219] reshape_frames does not need backward computation.
I0925 23:18:25.451133 29958 net.cpp:219] embed_encoder does not need backward computation.
I0925 23:18:25.451143 29958 net.cpp:219] cont_sentence_input_1_split does not need backward computation.
I0925 23:18:25.451153 29958 net.cpp:219] input does not need backward computation.
I0925 23:18:25.451159 29958 net.cpp:261] This network produces output probs
I0925 23:18:25.451184 29958 net.cpp:274] Network initialization done.
I0925 23:18:25.532655 29954 net.cpp:141] Setting up lstm2_x_transform
I0925 23:18:25.532716 29954 net.cpp:148] Top shape: 1 1 4000 (4000)
I0925 23:18:25.532726 29954 net.cpp:156] Memory required for data: 30020
I0925 23:18:25.532758 29954 layer_factory.hpp:77] Creating layer lstm2_W_xc_x_slice
I0925 23:18:25.532783 29954 net.cpp:91] Creating Layer lstm2_W_xc_x_slice
I0925 23:18:25.532793 29954 net.cpp:425] lstm2_W_xc_x_slice <- W_xc_x
I0925 23:18:25.532806 29954 net.cpp:399] lstm2_W_xc_x_slice -> W_xc_x_1
I0925 23:18:25.532999 29954 net.cpp:141] Setting up lstm2_W_xc_x_slice
I0925 23:18:25.533015 29954 net.cpp:148] Top shape: 1 1 4000 (4000)
I0925 23:18:25.533021 29954 net.cpp:156] Memory required for data: 46020
I0925 23:18:25.533028 29954 layer_factory.hpp:77] Creating layer lstm2_h_conted_0
I0925 23:18:25.533044 29954 net.cpp:91] Creating Layer lstm2_h_conted_0
I0925 23:18:25.533052 29954 net.cpp:425] lstm2_h_conted_0 <- h_0
I0925 23:18:25.533062 29954 net.cpp:425] lstm2_h_conted_0 <- cont_1_lstm2_cont_slice_0_split_0
I0925 23:18:25.533073 29954 net.cpp:399] lstm2_h_conted_0 -> h_conted_0
I0925 23:18:25.533115 29974 net.cpp:141] Setting up predict
I0925 23:18:25.533145 29974 net.cpp:148] Top shape: 1 1 46168 (46168)
I0925 23:18:25.533155 29974 net.cpp:156] Memory required for data: 221084
I0925 23:18:25.533182 29974 layer_factory.hpp:77] Creating layer probs
I0925 23:18:25.533205 29974 net.cpp:91] Creating Layer probs
I0925 23:18:25.533221 29974 net.cpp:425] probs <- predict
I0925 23:18:25.533237 29974 net.cpp:399] probs -> probs
I0925 23:18:25.533323 29954 net.cpp:141] Setting up lstm2_h_conted_0
I0925 23:18:25.533337 29954 net.cpp:148] Top shape: 1 1 1000 (1000)
I0925 23:18:25.533344 29954 net.cpp:156] Memory required for data: 50020
I0925 23:18:25.533351 29954 layer_factory.hpp:77] Creating layer lstm2_transform_1
I0925 23:18:25.533371 29954 net.cpp:91] Creating Layer lstm2_transform_1
I0925 23:18:25.533380 29954 net.cpp:425] lstm2_transform_1 <- h_conted_0
I0925 23:18:25.533391 29954 net.cpp:399] lstm2_transform_1 -> W_hc_h_0
I0925 23:18:25.545203 29968 net.cpp:141] Setting up probs
I0925 23:18:25.545265 29968 net.cpp:148] Top shape: 1 1 46168 (46168)
I0925 23:18:25.545274 29968 net.cpp:156] Memory required for data: 405756
I0925 23:18:25.545292 29968 net.cpp:219] probs does not need backward computation.
I0925 23:18:25.545305 29968 net.cpp:219] predict does not need backward computation.
I0925 23:18:25.545315 29968 net.cpp:219] lstm2 does not need backward computation.
I0925 23:18:25.545325 29968 net.cpp:219] concat does not need backward computation.
I0925 23:18:25.545334 29968 net.cpp:219] lstm1 does not need backward computation.
I0925 23:18:25.545344 29968 net.cpp:219] embedding does not need backward computation.
I0925 23:18:25.545356 29968 net.cpp:219] reshape_stage_indicator does not need backward computation.
I0925 23:18:25.545366 29968 net.cpp:219] reshape_frames does not need backward computation.
I0925 23:18:25.545374 29968 net.cpp:219] embed_encoder does not need backward computation.
I0925 23:18:25.545385 29968 net.cpp:219] cont_sentence_input_1_split does not need backward computation.
I0925 23:18:25.545395 29968 net.cpp:219] input does not need backward computation.
I0925 23:18:25.545403 29968 net.cpp:261] This network produces output probs
I0925 23:18:25.545433 29968 net.cpp:274] Network initialization done.
I0925 23:18:25.545454 29974 net.cpp:141] Setting up probs
I0925 23:18:25.545474 29974 net.cpp:148] Top shape: 1 1 46168 (46168)
I0925 23:18:25.545481 29974 net.cpp:156] Memory required for data: 405756
I0925 23:18:25.545490 29974 net.cpp:219] probs does not need backward computation.
I0925 23:18:25.545498 29974 net.cpp:219] predict does not need backward computation.
I0925 23:18:25.545509 29974 net.cpp:219] lstm2 does not need backward computation.
I0925 23:18:25.545518 29974 net.cpp:219] concat does not need backward computation.
I0925 23:18:25.545528 29974 net.cpp:219] lstm1 does not need backward computation.
I0925 23:18:25.545538 29974 net.cpp:219] embedding does not need backward computation.
I0925 23:18:25.545547 29974 net.cpp:219] reshape_stage_indicator does not need backward computation.
I0925 23:18:25.545555 29974 net.cpp:219] reshape_frames does not need backward computation.
I0925 23:18:25.545563 29974 net.cpp:219] embed_encoder does not need backward computation.
I0925 23:18:25.545574 29974 net.cpp:219] cont_sentence_input_1_split does not need backward computation.
I0925 23:18:25.545583 29974 net.cpp:219] input does not need backward computation.
I0925 23:18:25.545590 29974 net.cpp:261] This network produces output probs
I0925 23:18:25.545620 29974 net.cpp:274] Network initialization done.
I0925 23:18:25.553907 29980 net.cpp:141] Setting up predict
I0925 23:18:25.553974 29980 net.cpp:148] Top shape: 1 1 46168 (46168)
I0925 23:18:25.553982 29980 net.cpp:156] Memory required for data: 221084
I0925 23:18:25.553999 29980 layer_factory.hpp:77] Creating layer probs
I0925 23:18:25.554020 29980 net.cpp:91] Creating Layer probs
I0925 23:18:25.554029 29980 net.cpp:425] probs <- predict
I0925 23:18:25.554044 29980 net.cpp:399] probs -> probs
I0925 23:18:25.557621 29980 net.cpp:141] Setting up probs
I0925 23:18:25.557677 29980 net.cpp:148] Top shape: 1 1 46168 (46168)
I0925 23:18:25.557683 29980 net.cpp:156] Memory required for data: 405756
I0925 23:18:25.557693 29980 net.cpp:219] probs does not need backward computation.
I0925 23:18:25.557701 29980 net.cpp:219] predict does not need backward computation.
I0925 23:18:25.557708 29980 net.cpp:219] lstm2 does not need backward computation.
I0925 23:18:25.557714 29980 net.cpp:219] concat does not need backward computation.
I0925 23:18:25.557721 29980 net.cpp:219] lstm1 does not need backward computation.
I0925 23:18:25.557729 29980 net.cpp:219] embedding does not need backward computation.
I0925 23:18:25.557734 29980 net.cpp:219] reshape_stage_indicator does not need backward computation.
I0925 23:18:25.557739 29980 net.cpp:219] reshape_frames does not need backward computation.
I0925 23:18:25.557744 29980 net.cpp:219] embed_encoder does not need backward computation.
I0925 23:18:25.557750 29980 net.cpp:219] cont_sentence_input_1_split does not need backward computation.
I0925 23:18:25.557756 29980 net.cpp:219] input does not need backward computation.
I0925 23:18:25.557760 29980 net.cpp:261] This network produces output probs
I0925 23:18:25.557780 29980 net.cpp:274] Network initialization done.
I0925 23:18:25.592037 29954 net.cpp:141] Setting up lstm2_transform_1
I0925 23:18:25.592123 29954 net.cpp:148] Top shape: 1 1 4000 (4000)
I0925 23:18:25.592134 29954 net.cpp:156] Memory required for data: 66020
I0925 23:18:25.592165 29954 layer_factory.hpp:77] Creating layer lstm2_gate_input_1
I0925 23:18:25.592205 29954 net.cpp:91] Creating Layer lstm2_gate_input_1
I0925 23:18:25.592219 29954 net.cpp:425] lstm2_gate_input_1 <- W_hc_h_0
I0925 23:18:25.592234 29954 net.cpp:425] lstm2_gate_input_1 <- W_xc_x_1
I0925 23:18:25.592250 29954 net.cpp:399] lstm2_gate_input_1 -> gate_input_1
I0925 23:18:25.592339 29954 net.cpp:141] Setting up lstm2_gate_input_1
I0925 23:18:25.592355 29954 net.cpp:148] Top shape: 1 1 4000 (4000)
I0925 23:18:25.592361 29954 net.cpp:156] Memory required for data: 82020
I0925 23:18:25.592370 29954 layer_factory.hpp:77] Creating layer lstm2_unit_1
I0925 23:18:25.592386 29954 net.cpp:91] Creating Layer lstm2_unit_1
I0925 23:18:25.592396 29954 net.cpp:425] lstm2_unit_1 <- c_0
I0925 23:18:25.592406 29954 net.cpp:425] lstm2_unit_1 <- gate_input_1
I0925 23:18:25.592413 29954 net.cpp:425] lstm2_unit_1 <- cont_1_lstm2_cont_slice_0_split_1
I0925 23:18:25.592424 29954 net.cpp:399] lstm2_unit_1 -> c_1
I0925 23:18:25.592439 29954 net.cpp:399] lstm2_unit_1 -> h_1
I0925 23:18:25.592577 29954 net.cpp:141] Setting up lstm2_unit_1
I0925 23:18:25.592593 29954 net.cpp:148] Top shape: 1 1 1000 (1000)
I0925 23:18:25.592603 29954 net.cpp:148] Top shape: 1 1 1000 (1000)
I0925 23:18:25.592610 29954 net.cpp:156] Memory required for data: 90020
I0925 23:18:25.592617 29954 layer_factory.hpp:77] Creating layer lstm2_
I0925 23:18:25.592631 29954 net.cpp:91] Creating Layer lstm2_
I0925 23:18:25.592639 29954 net.cpp:425] lstm2_ <- c_1
I0925 23:18:25.592650 29954 net.cpp:399] lstm2_ -> c_T
I0925 23:18:25.592710 29954 net.cpp:141] Setting up lstm2_
I0925 23:18:25.592725 29954 net.cpp:148] Top shape: 1 1 1000 (1000)
I0925 23:18:25.592731 29954 net.cpp:156] Memory required for data: 94020
I0925 23:18:25.592738 29954 layer_factory.hpp:77] Creating layer lstm2_h_concat
I0925 23:18:25.592758 29954 net.cpp:91] Creating Layer lstm2_h_concat
I0925 23:18:25.592767 29954 net.cpp:425] lstm2_h_concat <- h_1
I0925 23:18:25.592778 29954 net.cpp:399] lstm2_h_concat -> h
I0925 23:18:25.592865 29954 net.cpp:141] Setting up lstm2_h_concat
I0925 23:18:25.592885 29954 net.cpp:148] Top shape: 1 1 1000 (1000)
I0925 23:18:25.592893 29954 net.cpp:156] Memory required for data: 98020
I0925 23:18:25.592903 29954 layer_factory.hpp:77] Creating layer h_pseudoloss
I0925 23:18:25.592926 29954 net.cpp:91] Creating Layer h_pseudoloss
I0925 23:18:25.592936 29954 net.cpp:425] h_pseudoloss <- h
I0925 23:18:25.592954 29954 net.cpp:399] h_pseudoloss -> h_pseudoloss
I0925 23:18:25.593185 29954 net.cpp:141] Setting up h_pseudoloss
…
I0925 23:18:25.593379 29954 net.cpp:219] lstm2_ does not need backward computation.
I0925 23:18:25.593384 29954 net.cpp:261] This network produces output c_T
I0925 23:18:25.593391 29954 net.cpp:261] This network produces output h_pseudoloss
I0925 23:18:25.593420 29954 net.cpp:274] Network initialization done.
I0925 23:18:25.593513 29954 recurrent_layer.cpp:150] Adding parameter 0: W_xc
I0925 23:18:25.593523 29954 recurrent_layer.cpp:150] Adding parameter 1: b_c
I0925 23:18:25.593530 29954 recurrent_layer.cpp:150] Adding parameter 2: W_hc
I0925 23:18:25.593734 29954 net.cpp:141] Setting up lstm2
I0925 23:18:25.593755 29954 net.cpp:148] Top shape: 1 1 1000 (1000)
I0925 23:18:25.593761 29954 net.cpp:156] Memory required for data: 36412
I0925 23:18:25.593793 29954 layer_factory.hpp:77] Creating layer predict
I0925 23:18:25.593816 29954 net.cpp:91] Creating Layer predict
I0925 23:18:25.593825 29954 net.cpp:425] predict <- lstm2
I0925 23:18:25.593839 29954 net.cpp:399] predict -> predict
I0925 23:18:25.689689 29994 net.cpp:141] Setting up predict
I0925 23:18:25.689754 29994 net.cpp:148] Top shape: 1 1 46168 (46168)
I0925 23:18:25.689764 29994 net.cpp:156] Memory required for data: 221084
I0925 23:18:25.689784 29994 layer_factory.hpp:77] Creating layer probs
I0925 23:18:25.689803 29994 net.cpp:91] Creating Layer probs
I0925 23:18:25.689826 29994 net.cpp:425] probs <- predict
I0925 23:18:25.689851 29994 net.cpp:399] probs -> probs
I0925 23:18:25.690954 29994 net.cpp:141] Setting up probs
I0925 23:18:25.690984 29994 net.cpp:148] Top shape: 1 1 46168 (46168)
I0925 23:18:25.690989 29994 net.cpp:156] Memory required for data: 405756
I0925 23:18:25.690995 29994 net.cpp:219] probs does not need backward computation.
I0925 23:18:25.691004 29994 net.cpp:219] predict does not need backward computation.
I0925 23:18:25.691023 29994 net.cpp:219] lstm2 does not need backward computation.
I0925 23:18:25.691043 29994 net.cpp:219] concat does not need backward computation.
I0925 23:18:25.691051 29994 net.cpp:219] lstm1 does not need backward computation.
I0925 23:18:25.691058 29994 net.cpp:219] embedding does not need backward computation.
I0925 23:18:25.691064 29994 net.cpp:219] reshape_stage_indicator does not need backward computation.
I0925 23:18:25.691071 29994 net.cpp:219] reshape_frames does not need backward computation.
I0925 23:18:25.691076 29994 net.cpp:219] embed_encoder does not need backward computation.
I0925 23:18:25.691084 29994 net.cpp:219] cont_sentence_input_1_split does not need backward computation.
I0925 23:18:25.691092 29994 net.cpp:219] input does not need backward computation.
I0925 23:18:25.691097 29994 net.cpp:261] This network produces output probs
I0925 23:18:25.691114 29994 net.cpp:274] Network initialization done.
I0925 23:18:25.743551 29950 net.cpp:141] Setting up predict
I0925 23:18:25.743603 29950 net.cpp:148] Top shape: 1 1 46168 (46168)
I0925 23:18:25.743609 29950 net.cpp:156] Memory required for data: 221084
I0925 23:18:25.743628 29950 layer_factory.hpp:77] Creating layer probs
I0925 23:18:25.743649 29950 net.cpp:91] Creating Layer probs
I0925 23:18:25.743659 29950 net.cpp:425] probs <- predict
I0925 23:18:25.743669 29950 net.cpp:399] probs -> probs
I0925 23:18:25.749176 29950 net.cpp:141] Setting up probs
I0925 23:18:25.749223 29950 net.cpp:148] Top shape: 1 1 46168 (46168)
I0925 23:18:25.749233 29950 net.cpp:156] Memory required for data: 405756
I0925 23:18:25.749243 29950 net.cpp:219] probs does not need backward computation.
I0925 23:18:25.749253 29950 net.cpp:219] predict does not need backward computation.
I0925 23:18:25.749264 29950 net.cpp:219] lstm2 does not need backward computation.
I0925 23:18:25.749274 29950 net.cpp:219] concat does not need backward computation.
I0925 23:18:25.749282 29950 net.cpp:219] lstm1 does not need backward computation.
I0925 23:18:25.749292 29950 net.cpp:219] embedding does not need backward computation.
I0925 23:18:25.749302 29950 net.cpp:219] reshape_stage_indicator does not need backward computation.
I0925 23:18:25.749312 29950 net.cpp:219] reshape_frames does not need backward computation.
I0925 23:18:25.749320 29950 net.cpp:219] embed_encoder does not need backward computation.
I0925 23:18:25.749328 29950 net.cpp:219] cont_sentence_input_1_split does not need backward computation.
I0925 23:18:25.749337 29950 net.cpp:219] input does not need backward computation.
I0925 23:18:25.749346 29950 net.cpp:261] This network produces output probs
I0925 23:18:25.749374 29950 net.cpp:274] Network initialization done.
I0925 23:18:25.874987 30002 net.cpp:141] Setting up predict
I0925 23:18:25.875053 30002 net.cpp:148] Top shape: 1 1 46168 (46168)
I0925 23:18:25.875066 30002 net.cpp:156] Memory required for data: 221084
I0925 23:18:25.875092 30002 layer_factory.hpp:77] Creating layer probs
I0925 23:18:25.875123 30002 net.cpp:91] Creating Layer probs
I0925 23:18:25.875138 30002 net.cpp:425] probs <- predict
I0925 23:18:25.875156 30002 net.cpp:399] probs -> probs
I0925 23:18:25.877765 30002 net.cpp:141] Setting up probs
I0925 23:18:25.877830 30002 net.cpp:148] Top shape: 1 1 46168 (46168)
I0925 23:18:25.877841 30002 net.cpp:156] Memory required for data: 405756
I0925 23:18:25.877857 30002 net.cpp:219] probs does not need backward computation.
I0925 23:18:25.877871 30002 net.cpp:219] predict does not need backward computation.
I0925 23:18:25.877882 30002 net.cpp:219] lstm2 does not need backward computation.
I0925 23:18:25.877893 30002 net.cpp:219] concat does not need backward computation.
…
