…
2016-07-20 14:53:45.021 n.t.s.b.CVParticleBolt [INFO] [Timing] RequestID: 0 StreamID: home/peifeng/work/data/frame.320x240.jpg SequenceNr: 157 Leaving scale: 1469040825021 Size: 3530
2016-07-20 14:53:45.022 n.t.s.b.CVParticleBolt [INFO] [Timing] RequestID: 0 StreamID: home/peifeng/work/data/frame.320x240.jpg SequenceNr: 159 Entering scale: 1469040825022
2016-07-20 14:53:45.032 n.t.s.b.CVParticleBolt [INFO] [Timing] RequestID: 0 StreamID: home/peifeng/work/data/frame.320x240.jpg SequenceNr: 159 Leaving scale: 1469040825032 Size: 3530
2016-07-20 14:53:45.058 STDERR [INFO] I0720 14:53:45.058069  5366 net.cpp:141] Setting up data
2016-07-20 14:53:45.058 STDERR [INFO] I0720 14:53:45.058140  5366 net.cpp:148] Top shape: 10 3 227 227 (1545870)
2016-07-20 14:53:45.059 STDERR [INFO] I0720 14:53:45.058145  5366 net.cpp:156] Memory required for data: 6183480
2016-07-20 14:53:45.059 STDERR [INFO] I0720 14:53:45.058151  5350 net.cpp:141] Setting up input
2016-07-20 14:53:45.059 STDERR [INFO] I0720 14:53:45.058162  5366 layer_factory.hpp:77] Creating layer conv1
2016-07-20 14:53:45.059 STDERR [INFO] I0720 14:53:45.058171  5350 net.cpp:148] Top shape: 1 4096 (4096)
2016-07-20 14:53:45.059 STDERR [INFO] I0720 14:53:45.058177  5350 net.cpp:148] Top shape: 1 1 (1)
2016-07-20 14:53:45.059 STDERR [INFO] I0720 14:53:45.058183  5350 net.cpp:148] Top shape: 1 1 (1)
2016-07-20 14:53:45.059 STDERR [INFO] I0720 14:53:45.058188  5350 net.cpp:148] Top shape: 1 1 (1)
2016-07-20 14:53:45.059 STDERR [INFO] I0720 14:53:45.058188  5366 net.cpp:91] Creating Layer conv1
2016-07-20 14:53:45.059 STDERR [INFO] I0720 14:53:45.058192  5350 net.cpp:156] Memory required for data: 16396
2016-07-20 14:53:45.060 STDERR [INFO] I0720 14:53:45.058197  5366 net.cpp:425] conv1 <- data
2016-07-20 14:53:45.060 STDERR [INFO] I0720 14:53:45.058197  5350 layer_factory.hpp:77] Creating layer cont_sentence_input_1_split
2016-07-20 14:53:45.060 STDERR [INFO] I0720 14:53:45.058210  5366 net.cpp:399] conv1 -> conv1
2016-07-20 14:53:45.060 STDERR [INFO] I0720 14:53:45.058219  5350 net.cpp:91] Creating Layer cont_sentence_input_1_split
2016-07-20 14:53:45.060 STDERR [INFO] I0720 14:53:45.058225  5350 net.cpp:425] cont_sentence_input_1_split <- cont_sentence
2016-07-20 14:53:45.060 STDERR [INFO] I0720 14:53:45.058248  5350 net.cpp:399] cont_sentence_input_1_split -> cont_sentence_input_1_split_0
2016-07-20 14:53:45.060 STDERR [INFO] I0720 14:53:45.058261  5350 net.cpp:399] cont_sentence_input_1_split -> cont_sentence_input_1_split_1
2016-07-20 14:53:45.060 STDERR [INFO] I0720 14:53:45.058468  5350 net.cpp:141] Setting up cont_sentence_input_1_split
2016-07-20 14:53:45.060 STDERR [INFO] I0720 14:53:45.058482  5350 net.cpp:148] Top shape: 1 1 (1)
2016-07-20 14:53:45.060 STDERR [INFO] I0720 14:53:45.058488  5350 net.cpp:148] Top shape: 1 1 (1)
2016-07-20 14:53:45.061 STDERR [INFO] I0720 14:53:45.058492  5350 net.cpp:156] Memory required for data: 16404
2016-07-20 14:53:45.061 STDERR [INFO] I0720 14:53:45.058497  5350 layer_factory.hpp:77] Creating layer embed_encoder
2016-07-20 14:53:45.061 STDERR [INFO] I0720 14:53:45.058544  5350 net.cpp:91] Creating Layer embed_encoder
2016-07-20 14:53:45.061 STDERR [INFO] I0720 14:53:45.058552  5350 net.cpp:425] embed_encoder <- frames_fc7
2016-07-20 14:53:45.061 STDERR [INFO] I0720 14:53:45.058562  5350 net.cpp:399] embed_encoder -> embedded_in_frames
2016-07-20 14:53:45.087 STDERR [INFO] I0720 14:53:45.087751  5350 net.cpp:141] Setting up embed_encoder
2016-07-20 14:53:45.088 STDERR [INFO] I0720 14:53:45.087800  5350 net.cpp:148] Top shape: 1 500 (500)
2016-07-20 14:53:45.088 STDERR [INFO] I0720 14:53:45.087811  5350 net.cpp:156] Memory required for data: 18404
2016-07-20 14:53:45.088 STDERR [INFO] I0720 14:53:45.087846  5350 layer_factory.hpp:77] Creating layer reshape_frames
2016-07-20 14:53:45.088 STDERR [INFO] I0720 14:53:45.088176  5350 net.cpp:91] Creating Layer reshape_frames
2016-07-20 14:53:45.088 STDERR [INFO] I0720 14:53:45.088193  5350 net.cpp:425] reshape_frames <- embedded_in_frames
2016-07-20 14:53:45.088 STDERR [INFO] I0720 14:53:45.088212  5350 net.cpp:399] reshape_frames -> embedded_input_frames
2016-07-20 14:53:45.089 STDERR [INFO] I0720 14:53:45.088279  5350 net.cpp:141] Setting up reshape_frames
2016-07-20 14:53:45.089 STDERR [INFO] I0720 14:53:45.088295  5350 net.cpp:148] Top shape: 1 1 500 (500)
2016-07-20 14:53:45.089 STDERR [INFO] I0720 14:53:45.088304  5350 net.cpp:156] Memory required for data: 20404
2016-07-20 14:53:45.089 STDERR [INFO] I0720 14:53:45.088311  5350 layer_factory.hpp:77] Creating layer reshape_stage_indicator
2016-07-20 14:53:45.089 STDERR [INFO] I0720 14:53:45.088327  5350 net.cpp:91] Creating Layer reshape_stage_indicator
2016-07-20 14:53:45.089 STDERR [INFO] I0720 14:53:45.088335  5350 net.cpp:425] reshape_stage_indicator <- stage_indicator
2016-07-20 14:53:45.089 STDERR [INFO] I0720 14:53:45.088351  5350 net.cpp:399] reshape_stage_indicator -> reshaped_stage_indicator
2016-07-20 14:53:45.089 STDERR [INFO] I0720 14:53:45.088407  5350 net.cpp:141] Setting up reshape_stage_indicator
2016-07-20 14:53:45.090 STDERR [INFO] I0720 14:53:45.088423  5350 net.cpp:148] Top shape: 1 1 1 (1)
2016-07-20 14:53:45.092 STDERR [INFO] I0720 14:53:45.088430  5350 net.cpp:156] Memory required for data: 20408
2016-07-20 14:53:45.093 STDERR [INFO] I0720 14:53:45.088438  5350 layer_factory.hpp:77] Creating layer embedding
2016-07-20 14:53:45.093 STDERR [INFO] I0720 14:53:45.088454  5350 net.cpp:91] Creating Layer embedding
2016-07-20 14:53:45.093 STDERR [INFO] I0720 14:53:45.088462  5350 net.cpp:425] embedding <- input_sentence
…
2016-07-20 14:53:45.346 STDERR [INFO] }
2016-07-20 14:53:45.346 STDERR [INFO] I0720 14:53:45.333070  5350 layer_factory.hpp:77] Creating layer lstm1_
2016-07-20 14:53:45.346 STDERR [INFO] I0720 14:53:45.333082  5350 net.cpp:91] Creating Layer lstm1_
2016-07-20 14:53:45.346 STDERR [INFO] I0720 14:53:45.333088  5350 net.cpp:399] lstm1_ -> x
2016-07-20 14:53:45.346 STDERR [INFO] I0720 14:53:45.333101  5350 net.cpp:399] lstm1_ -> cont
2016-07-20 14:53:45.346 STDERR [INFO] I0720 14:53:45.338721  5350 net.cpp:141] Setting up lstm1_
2016-07-20 14:53:45.346 STDERR [INFO] I0720 14:53:45.338747  5350 net.cpp:148] Top shape: 1 1 500 (500)
2016-07-20 14:53:45.346 STDERR [INFO] I0720 14:53:45.338753  5350 net.cpp:148] Top shape: 1 1 (1)
2016-07-20 14:53:45.346 STDERR [INFO] I0720 14:53:45.338757  5350 net.cpp:156] Memory required for data: 2004
2016-07-20 14:53:45.347 STDERR [INFO] I0720 14:53:45.338763  5350 layer_factory.hpp:77] Creating layer lstm1_
2016-07-20 14:53:45.347 STDERR [INFO] I0720 14:53:45.338780  5350 net.cpp:91] Creating Layer lstm1_
2016-07-20 14:53:45.347 STDERR [INFO] I0720 14:53:45.338796  5350 net.cpp:399] lstm1_ -> c_0
2016-07-20 14:53:45.347 STDERR [INFO] I0720 14:53:45.338811  5350 net.cpp:399] lstm1_ -> h_0
2016-07-20 14:53:45.347 STDERR [INFO] I0720 14:53:45.345909  5350 net.cpp:141] Setting up lstm1_
2016-07-20 14:53:45.347 STDERR [INFO] I0720 14:53:45.345938  5350 net.cpp:148] Top shape: 1 1 1000 (1000)
2016-07-20 14:53:45.347 STDERR [INFO] I0720 14:53:45.345945  5350 net.cpp:148] Top shape: 1 1 1000 (1000)
2016-07-20 14:53:45.347 STDERR [INFO] I0720 14:53:45.345948  5350 net.cpp:156] Memory required for data: 10004
2016-07-20 14:53:45.347 STDERR [INFO] I0720 14:53:45.345955  5350 layer_factory.hpp:77] Creating layer lstm1_cont_slice
2016-07-20 14:53:45.348 STDERR [INFO] I0720 14:53:45.345969  5350 net.cpp:91] Creating Layer lstm1_cont_slice
2016-07-20 14:53:45.348 STDERR [INFO] I0720 14:53:45.345975  5350 net.cpp:425] lstm1_cont_slice <- cont
2016-07-20 14:53:45.348 STDERR [INFO] I0720 14:53:45.345988  5350 net.cpp:399] lstm1_cont_slice -> cont_1
2016-07-20 14:53:45.355 STDERR [INFO] I0720 14:53:45.355114  5350 net.cpp:141] Setting up lstm1_cont_slice
2016-07-20 14:53:45.355 STDERR [INFO] I0720 14:53:45.355159  5350 net.cpp:148] Top shape: 1 1 (1)
2016-07-20 14:53:45.355 STDERR [INFO] I0720 14:53:45.355170  5350 net.cpp:156] Memory required for data: 10008
2016-07-20 14:53:45.355 STDERR [INFO] I0720 14:53:45.355181  5350 layer_factory.hpp:77] Creating layer cont_1_lstm1_cont_slice_0_split
2016-07-20 14:53:45.355 STDERR [INFO] I0720 14:53:45.355206  5350 net.cpp:91] Creating Layer cont_1_lstm1_cont_slice_0_split
2016-07-20 14:53:45.355 STDERR [INFO] I0720 14:53:45.355217  5350 net.cpp:425] cont_1_lstm1_cont_slice_0_split <- cont_1
2016-07-20 14:53:45.356 STDERR [INFO] I0720 14:53:45.355232  5350 net.cpp:399] cont_1_lstm1_cont_slice_0_split -> cont_1_lstm1_cont_slice_0_split_0
2016-07-20 14:53:45.356 STDERR [INFO] I0720 14:53:45.355248  5350 net.cpp:399] cont_1_lstm1_cont_slice_0_split -> cont_1_lstm1_cont_slice_0_split_1
2016-07-20 14:53:45.358 STDERR [INFO] I0720 14:53:45.358477  5350 net.cpp:141] Setting up cont_1_lstm1_cont_slice_0_split
2016-07-20 14:53:45.358 STDERR [INFO] I0720 14:53:45.358505  5350 net.cpp:148] Top shape: 1 1 (1)
2016-07-20 14:53:45.358 STDERR [INFO] I0720 14:53:45.358516  5350 net.cpp:148] Top shape: 1 1 (1)
2016-07-20 14:53:45.358 STDERR [INFO] I0720 14:53:45.358525  5350 net.cpp:156] Memory required for data: 10016
2016-07-20 14:53:45.359 STDERR [INFO] I0720 14:53:45.358533  5350 layer_factory.hpp:77] Creating layer lstm1_x_transform
2016-07-20 14:53:45.359 STDERR [INFO] I0720 14:53:45.358559  5350 net.cpp:91] Creating Layer lstm1_x_transform
2016-07-20 14:53:45.359 STDERR [INFO] I0720 14:53:45.358569  5350 net.cpp:425] lstm1_x_transform <- x
…
2016-07-20 14:53:45.419 n.t.s.b.CVParticleBolt [INFO] [Timing] RequestID: 0 StreamID: home/peifeng/work/data/frame.320x240.jpg SequenceNr: 169 Entering scale: 1469040825419
2016-07-20 14:53:45.423 n.t.s.b.CVParticleBolt [INFO] [Timing] RequestID: 0 StreamID: home/peifeng/work/data/frame.320x240.jpg SequenceNr: 168 Leaving scale: 1469040825423 Size: 3530
2016-07-20 14:53:45.424 n.t.s.b.CVParticleBolt [INFO] [Timing] RequestID: 0 StreamID: home/peifeng/work/data/frame.320x240.jpg SequenceNr: 169 Leaving scale: 1469040825424 Size: 3530
2016-07-20 14:53:45.442 STDERR [INFO] I0720 14:53:45.441830  5350 net.cpp:141] Setting up lstm1_h_conted_0
2016-07-20 14:53:45.442 STDERR [INFO] I0720 14:53:45.441880  5350 net.cpp:148] Top shape: 1 1 1000 (1000)
2016-07-20 14:53:45.442 STDERR [INFO] I0720 14:53:45.441892  5350 net.cpp:156] Memory required for data: 46016
2016-07-20 14:53:45.442 STDERR [INFO] I0720 14:53:45.441905  5350 layer_factory.hpp:77] Creating layer lstm1_transform_1
2016-07-20 14:53:45.442 STDERR [INFO] I0720 14:53:45.441932  5350 net.cpp:91] Creating Layer lstm1_transform_1
2016-07-20 14:53:45.442 STDERR [INFO] I0720 14:53:45.441944  5350 net.cpp:425] lstm1_transform_1 <- h_conted_0
2016-07-20 14:53:45.442 STDERR [INFO] I0720 14:53:45.441968  5350 net.cpp:399] lstm1_transform_1 -> W_hc_h_0
2016-07-20 14:53:45.508 STDERR [INFO] I0720 14:53:45.508410  5350 net.cpp:141] Setting up lstm1_transform_1
2016-07-20 14:53:45.509 STDERR [INFO] I0720 14:53:45.508463  5350 net.cpp:148] Top shape: 1 1 4000 (4000)
2016-07-20 14:53:45.509 STDERR [INFO] I0720 14:53:45.508476  5350 net.cpp:156] Memory required for data: 62016
2016-07-20 14:53:45.509 STDERR [INFO] I0720 14:53:45.508502  5350 layer_factory.hpp:77] Creating layer lstm1_gate_input_1
2016-07-20 14:53:45.509 STDERR [INFO] I0720 14:53:45.508538  5350 net.cpp:91] Creating Layer lstm1_gate_input_1
2016-07-20 14:53:45.509 STDERR [INFO] I0720 14:53:45.508551  5350 net.cpp:425] lstm1_gate_input_1 <- W_hc_h_0
2016-07-20 14:53:45.509 STDERR [INFO] I0720 14:53:45.508564  5350 net.cpp:425] lstm1_gate_input_1 <- W_xc_x_1
2016-07-20 14:53:45.509 STDERR [INFO] I0720 14:53:45.508579  5350 net.cpp:399] lstm1_gate_input_1 -> gate_input_1
2016-07-20 14:53:45.509 STDERR [INFO] I0720 14:53:45.509660  5366 net.cpp:141] Setting up conv1
2016-07-20 14:53:45.509 STDERR [INFO] I0720 14:53:45.509694  5366 net.cpp:148] Top shape: 10 96 55 55 (2904000)
2016-07-20 14:53:45.509 STDERR [INFO] I0720 14:53:45.509701  5366 net.cpp:156] Memory required for data: 17799480
2016-07-20 14:53:45.510 STDERR [INFO] I0720 14:53:45.509716  5366 layer_factory.hpp:77] Creating layer relu1
2016-07-20 14:53:45.510 STDERR [INFO] I0720 14:53:45.509730  5366 net.cpp:91] Creating Layer relu1
2016-07-20 14:53:45.510 STDERR [INFO] I0720 14:53:45.509738  5366 net.cpp:425] relu1 <- conv1
2016-07-20 14:53:45.510 STDERR [INFO] I0720 14:53:45.509747  5366 net.cpp:386] relu1 -> conv1 (in-place)
2016-07-20 14:53:45.511 STDERR [INFO] I0720 14:53:45.511803  5350 net.cpp:141] Setting up lstm1_gate_input_1
2016-07-20 14:53:45.512 STDERR [INFO] I0720 14:53:45.511827  5350 net.cpp:148] Top shape: 1 1 4000 (4000)
2016-07-20 14:53:45.512 STDERR [INFO] I0720 14:53:45.511837  5350 net.cpp:156] Memory required for data: 78016
2016-07-20 14:53:45.512 STDERR [INFO] I0720 14:53:45.511845  5350 layer_factory.hpp:77] Creating layer lstm1_unit_1
2016-07-20 14:53:45.512 STDERR [INFO] I0720 14:53:45.511859  5350 net.cpp:91] Creating Layer lstm1_unit_1
2016-07-20 14:53:45.512 STDERR [INFO] I0720 14:53:45.511868  5350 net.cpp:425] lstm1_unit_1 <- c_0
2016-07-20 14:53:45.512 STDERR [INFO] I0720 14:53:45.511879  5350 net.cpp:425] lstm1_unit_1 <- gate_input_1
2016-07-20 14:53:45.512 STDERR [INFO] I0720 14:53:45.511889  5350 net.cpp:425] lstm1_unit_1 <- cont_1_lstm1_cont_slice_0_split_1
2016-07-20 14:53:45.512 STDERR [INFO] I0720 14:53:45.511904  5350 net.cpp:399] lstm1_unit_1 -> c_1
2016-07-20 14:53:45.512 STDERR [INFO] I0720 14:53:45.511920  5350 net.cpp:399] lstm1_unit_1 -> h_1
2016-07-20 14:53:45.512 STDERR [INFO] I0720 14:53:45.511932  5366 net.cpp:141] Setting up relu1
2016-07-20 14:53:45.513 STDERR [INFO] I0720 14:53:45.511950  5366 net.cpp:148] Top shape: 10 96 55 55 (2904000)
2016-07-20 14:53:45.513 STDERR [INFO] I0720 14:53:45.511955  5366 net.cpp:156] Memory required for data: 29415480
2016-07-20 14:53:45.513 STDERR [INFO] I0720 14:53:45.511960  5366 layer_factory.hpp:77] Creating layer pool1
2016-07-20 14:53:45.513 STDERR [INFO] I0720 14:53:45.511976  5366 net.cpp:91] Creating Layer pool1
2016-07-20 14:53:45.513 STDERR [INFO] I0720 14:53:45.511981  5366 net.cpp:425] pool1 <- conv1
2016-07-20 14:53:45.513 STDERR [INFO] I0720 14:53:45.511989  5366 net.cpp:399] pool1 -> pool1
2016-07-20 14:53:45.513 STDERR [INFO] I0720 14:53:45.512576  5366 net.cpp:141] Setting up pool1
2016-07-20 14:53:45.513 STDERR [INFO] I0720 14:53:45.512593  5366 net.cpp:148] Top shape: 10 96 27 27 (699840)
2016-07-20 14:53:45.513 STDERR [INFO] I0720 14:53:45.512598  5366 net.cpp:156] Memory required for data: 32214840
2016-07-20 14:53:45.513 STDERR [INFO] I0720 14:53:45.512603  5366 layer_factory.hpp:77] Creating layer norm1
2016-07-20 14:53:45.513 STDERR [INFO] I0720 14:53:45.512619  5350 net.cpp:141] Setting up lstm1_unit_1
2016-07-20 14:53:45.513 STDERR [INFO] I0720 14:53:45.512622  5366 net.cpp:91] Creating Layer norm1
2016-07-20 14:53:45.514 STDERR [INFO] I0720 14:53:45.512640  5366 net.cpp:425] norm1 <- pool1
2016-07-20 14:53:45.514 STDERR [INFO] I0720 14:53:45.512642  5350 net.cpp:148] Top shape: 1 1 1000 (1000)
2016-07-20 14:53:45.514 STDERR [INFO] I0720 14:53:45.512647  5366 net.cpp:399] norm1 -> norm1
2016-07-20 14:53:45.514 STDERR [INFO] I0720 14:53:45.512655  5350 net.cpp:148] Top shape: 1 1 1000 (1000)
2016-07-20 14:53:45.514 STDERR [INFO] I0720 14:53:45.512663  5350 net.cpp:156] Memory required for data: 86016
2016-07-20 14:53:45.514 STDERR [INFO] I0720 14:53:45.512672  5350 layer_factory.hpp:77] Creating layer lstm1_
2016-07-20 14:53:45.514 STDERR [INFO] I0720 14:53:45.512691  5350 net.cpp:91] Creating Layer lstm1_
2016-07-20 14:53:45.514 STDERR [INFO] I0720 14:53:45.512699  5350 net.cpp:425] lstm1_ <- c_1
2016-07-20 14:53:45.514 STDERR [INFO] I0720 14:53:45.512712  5350 net.cpp:399] lstm1_ -> c_T
2016-07-20 14:53:45.514 STDERR [INFO] I0720 14:53:45.514101  5350 net.cpp:141] Setting up lstm1_
2016-07-20 14:53:45.514 STDERR [INFO] I0720 14:53:45.514122  5350 net.cpp:148] Top shape: 1 1 1000 (1000)
2016-07-20 14:53:45.515 STDERR [INFO] I0720 14:53:45.514129  5350 net.cpp:156] Memory required for data: 90016
2016-07-20 14:53:45.515 STDERR [INFO] I0720 14:53:45.514139  5350 layer_factory.hpp:77] Creating layer lstm1_h_concat
2016-07-20 14:53:45.515 STDERR [INFO] I0720 14:53:45.514158  5350 net.cpp:91] Creating Layer lstm1_h_concat
2016-07-20 14:53:45.515 STDERR [INFO] I0720 14:53:45.514168  5350 net.cpp:425] lstm1_h_concat <- h_1
2016-07-20 14:53:45.515 STDERR [INFO] I0720 14:53:45.514179  5350 net.cpp:399] lstm1_h_concat -> h
2016-07-20 14:53:45.515 STDERR [INFO] I0720 14:53:45.514247  5366 net.cpp:141] Setting up norm1
2016-07-20 14:53:45.515 STDERR [INFO] I0720 14:53:45.514264  5366 net.cpp:148] Top shape: 10 96 27 27 (699840)
2016-07-20 14:53:45.515 STDERR [INFO] I0720 14:53:45.514269  5366 net.cpp:156] Memory required for data: 35014200
2016-07-20 14:53:45.515 STDERR [INFO] I0720 14:53:45.514276  5366 layer_factory.hpp:77] Creating layer conv2
2016-07-20 14:53:45.515 STDERR [INFO] I0720 14:53:45.514293  5366 net.cpp:91] Creating Layer conv2
2016-07-20 14:53:45.516 STDERR [INFO] I0720 14:53:45.514294  5350 net.cpp:141] Setting up lstm1_h_concat
2016-07-20 14:53:45.516 STDERR [INFO] I0720 14:53:45.514298  5366 net.cpp:425] conv2 <- norm1
2016-07-20 14:53:45.516 STDERR [INFO] I0720 14:53:45.514315  5350 net.cpp:148] Top shape: 1 1 1000 (1000)
2016-07-20 14:53:45.516 STDERR [INFO] I0720 14:53:45.514319  5366 net.cpp:399] conv2 -> conv2
2016-07-20 14:53:45.516 STDERR [INFO] I0720 14:53:45.514324  5350 net.cpp:156] Memory required for data: 94016
2016-07-20 14:53:45.516 STDERR [INFO] I0720 14:53:45.514333  5350 layer_factory.hpp:77] Creating layer h_pseudoloss
2016-07-20 14:53:45.516 STDERR [INFO] I0720 14:53:45.514353  5350 net.cpp:91] Creating Layer h_pseudoloss
…
2016-07-20 14:53:45.553 STDERR [INFO] I0720 14:53:45.528018  5354 net.cpp:91] Creating Layer input
2016-07-20 14:53:45.553 STDERR [INFO] I0720 14:53:45.528025  5354 net.cpp:399] input -> frames_fc7
2016-07-20 14:53:45.553 STDERR [INFO] I0720 14:53:45.528041  5354 net.cpp:399] input -> cont_sentence
2016-07-20 14:53:45.553 STDERR [INFO] I0720 14:53:45.528051  5354 net.cpp:399] input -> input_sentence
2016-07-20 14:53:45.553 STDERR [INFO] I0720 14:53:45.528061  5354 net.cpp:399] input -> stage_indicator
2016-07-20 14:53:45.553 STDERR [INFO] I0720 14:53:45.534309  5350 net.cpp:141] Setting up lstm2_
2016-07-20 14:53:45.553 STDERR [INFO] I0720 14:53:45.534332  5350 net.cpp:148] Top shape: 1 1 1501 (1501)
2016-07-20 14:53:45.553 STDERR [INFO] I0720 14:53:45.534343  5350 net.cpp:148] Top shape: 1 1 (1)
2016-07-20 14:53:45.553 STDERR [INFO] I0720 14:53:45.534350  5350 net.cpp:156] Memory required for data: 6008
2016-07-20 14:53:45.554 STDERR [INFO] I0720 14:53:45.534359  5350 layer_factory.hpp:77] Creating layer lstm2_
2016-07-20 14:53:45.554 STDERR [INFO] I0720 14:53:45.534376  5350 net.cpp:91] Creating Layer lstm2_
2016-07-20 14:53:45.554 STDERR [INFO] I0720 14:53:45.534389  5350 net.cpp:399] lstm2_ -> c_0
2016-07-20 14:53:45.554 STDERR [INFO] I0720 14:53:45.534406  5350 net.cpp:399] lstm2_ -> h_0
2016-07-20 14:53:45.554 STDERR [INFO] I0720 14:53:45.542496  5350 net.cpp:141] Setting up lstm2_
2016-07-20 14:53:45.554 STDERR [INFO] I0720 14:53:45.542520  5350 net.cpp:148] Top shape: 1 1 1000 (1000)
2016-07-20 14:53:45.554 STDERR [INFO] I0720 14:53:45.542531  5350 net.cpp:148] Top shape: 1 1 1000 (1000)
2016-07-20 14:53:45.554 STDERR [INFO] I0720 14:53:45.542538  5350 net.cpp:156] Memory required for data: 14008
2016-07-20 14:53:45.554 STDERR [INFO] I0720 14:53:45.542546  5350 layer_factory.hpp:77] Creating layer lstm2_cont_slice
2016-07-20 14:53:45.554 STDERR [INFO] I0720 14:53:45.542565  5350 net.cpp:91] Creating Layer lstm2_cont_slice
2016-07-20 14:53:45.554 STDERR [INFO] I0720 14:53:45.542574  5350 net.cpp:425] lstm2_cont_slice <- cont
2016-07-20 14:53:45.554 STDERR [INFO] I0720 14:53:45.542587  5350 net.cpp:399] lstm2_cont_slice -> cont_1
2016-07-20 14:53:45.554 STDERR [INFO] I0720 14:53:45.548883  5350 net.cpp:141] Setting up lstm2_cont_slice
2016-07-20 14:53:45.555 STDERR [INFO] I0720 14:53:45.548902  5350 net.cpp:148] Top shape: 1 1 (1)
2016-07-20 14:53:45.555 STDERR [INFO] I0720 14:53:45.548910  5350 net.cpp:156] Memory required for data: 14012
2016-07-20 14:53:45.555 STDERR [INFO] I0720 14:53:45.548918  5350 layer_factory.hpp:77] Creating layer cont_1_lstm2_cont_slice_0_split
2016-07-20 14:53:45.555 STDERR [INFO] I0720 14:53:45.548930  5350 net.cpp:91] Creating Layer cont_1_lstm2_cont_slice_0_split
2016-07-20 14:53:45.555 STDERR [INFO] I0720 14:53:45.548944  5350 net.cpp:425] cont_1_lstm2_cont_slice_0_split <- cont_1
2016-07-20 14:53:45.555 STDERR [INFO] I0720 14:53:45.548955  5350 net.cpp:399] cont_1_lstm2_cont_slice_0_split -> cont_1_lstm2_cont_slice_0_split_0
2016-07-20 14:53:45.555 STDERR [INFO] I0720 14:53:45.548969  5350 net.cpp:399] cont_1_lstm2_cont_slice_0_split -> cont_1_lstm2_cont_slice_0_split_1
2016-07-20 14:53:45.555 STDERR [INFO] I0720 14:53:45.549151  5350 net.cpp:141] Setting up cont_1_lstm2_cont_slice_0_split
2016-07-20 14:53:45.555 STDERR [INFO] I0720 14:53:45.549170  5350 net.cpp:148] Top shape: 1 1 (1)
2016-07-20 14:53:45.555 STDERR [INFO] I0720 14:53:45.549180  5350 net.cpp:148] Top shape: 1 1 (1)
2016-07-20 14:53:45.555 STDERR [INFO] I0720 14:53:45.549186  5350 net.cpp:156] Memory required for data: 14020
2016-07-20 14:53:45.555 STDERR [INFO] I0720 14:53:45.549196  5350 layer_factory.hpp:77] Creating layer lstm2_x_transform
2016-07-20 14:53:45.555 STDERR [INFO] I0720 14:53:45.549212  5350 net.cpp:91] Creating Layer lstm2_x_transform
2016-07-20 14:53:45.555 STDERR [INFO] I0720 14:53:45.549221  5350 net.cpp:425] lstm2_x_transform <- x
2016-07-20 14:53:45.555 STDERR [INFO] I0720 14:53:45.549237  5350 net.cpp:399] lstm2_x_transform -> W_xc_x
2016-07-20 14:53:45.596 STDERR [INFO] I0720 14:53:45.596670  5366 net.cpp:141] Setting up conv2
2016-07-20 14:53:45.597 STDERR [INFO] I0720 14:53:45.596721  5366 net.cpp:148] Top shape: 10 256 27 27 (1866240)
2016-07-20 14:53:45.597 STDERR [INFO] I0720 14:53:45.596736  5366 net.cpp:156] Memory required for data: 42479160
2016-07-20 14:53:45.597 STDERR [INFO] I0720 14:53:45.596765  5366 layer_factory.hpp:77] Creating layer relu2
2016-07-20 14:53:45.597 STDERR [INFO] I0720 14:53:45.596786  5366 net.cpp:91] Creating Layer relu2
2016-07-20 14:53:45.597 STDERR [INFO] I0720 14:53:45.596796  5366 net.cpp:425] relu2 <- conv2
2016-07-20 14:53:45.597 STDERR [INFO] I0720 14:53:45.596809  5366 net.cpp:386] relu2 -> conv2 (in-place)
2016-07-20 14:53:45.598 STDERR [INFO] I0720 14:53:45.597973  5366 net.cpp:141] Setting up relu2
2016-07-20 14:53:45.598 STDERR [INFO] I0720 14:53:45.597997  5366 net.cpp:148] Top shape: 10 256 27 27 (1866240)
2016-07-20 14:53:45.598 STDERR [INFO] I0720 14:53:45.598006  5366 net.cpp:156] Memory required for data: 49944120
2016-07-20 14:53:45.598 STDERR [INFO] I0720 14:53:45.598016  5366 layer_factory.hpp:77] Creating layer pool2
2016-07-20 14:53:45.598 STDERR [INFO] I0720 14:53:45.598031  5366 net.cpp:91] Creating Layer pool2
2016-07-20 14:53:45.598 STDERR [INFO] I0720 14:53:45.598039  5366 net.cpp:425] pool2 <- conv2
2016-07-20 14:53:45.598 STDERR [INFO] I0720 14:53:45.598057  5366 net.cpp:399] pool2 -> pool2
2016-07-20 14:53:45.598 STDERR [INFO] I0720 14:53:45.598314  5366 net.cpp:141] Setting up pool2
2016-07-20 14:53:45.599 STDERR [INFO] I0720 14:53:45.598333  5366 net.cpp:148] Top shape: 10 256 13 13 (432640)
2016-07-20 14:53:45.599 STDERR [INFO] I0720 14:53:45.598341  5366 net.cpp:156] Memory required for data: 51674680
2016-07-20 14:53:45.599 STDERR [INFO] I0720 14:53:45.598351  5366 layer_factory.hpp:77] Creating layer norm2
2016-07-20 14:53:45.599 STDERR [INFO] I0720 14:53:45.598368  5366 net.cpp:91] Creating Layer norm2
2016-07-20 14:53:45.599 STDERR [INFO] I0720 14:53:45.598376  5366 net.cpp:425] norm2 <- pool2
2016-07-20 14:53:45.599 STDERR [INFO] I0720 14:53:45.598392  5366 net.cpp:399] norm2 -> norm2
2016-07-20 14:53:45.599 STDERR [INFO] I0720 14:53:45.599022  5366 net.cpp:141] Setting up norm2
2016-07-20 14:53:45.599 STDERR [INFO] I0720 14:53:45.599042  5366 net.cpp:148] Top shape: 10 256 13 13 (432640)
2016-07-20 14:53:45.599 STDERR [INFO] I0720 14:53:45.599050  5366 net.cpp:156] Memory required for data: 53405240
2016-07-20 14:53:45.599 STDERR [INFO] I0720 14:53:45.599059  5366 layer_factory.hpp:77] Creating layer conv3
2016-07-20 14:53:45.599 STDERR [INFO] I0720 14:53:45.599082  5366 net.cpp:91] Creating Layer conv3
2016-07-20 14:53:45.600 n.t.s.f.RefreshingImageFetcher$ImageReader [INFO] [Timing] RequestID: 0 StreamID: home/peifeng/work/data/frame.320x240.jpg SequenceNr: 170 Entering queue: 1469040825600
…
2016-07-20 14:53:45.615 n.t.s.b.CVParticleBolt [INFO] [Timing] RequestID: 0 StreamID: home/peifeng/work/data/frame.320x240.jpg SequenceNr: 171 Leaving scale: 1469040825615 Size: 3530
2016-07-20 14:53:45.617 n.t.s.s.CVParticleSpout [INFO] [Timing] RequestID: 0 StreamID: home/peifeng/work/data/frame.320x240.jpg SequenceNr: 174 Leaving fetcher: 1469040825617 Size: 8702
2016-07-20 14:53:45.617 n.t.s.b.CVParticleBolt [INFO] [Timing] RequestID: 0 StreamID: home/peifeng/work/data/frame.320x240.jpg SequenceNr: 174 Entering scale: 1469040825617
2016-07-20 14:53:45.618 STDERR [INFO] I0720 14:53:45.618254  5366 net.cpp:141] Setting up conv3
2016-07-20 14:53:45.618 STDERR [INFO] I0720 14:53:45.618296  5366 net.cpp:148] Top shape: 10 384 13 13 (648960)
2016-07-20 14:53:45.619 STDERR [INFO] I0720 14:53:45.618306  5366 net.cpp:156] Memory required for data: 56001080
2016-07-20 14:53:45.619 STDERR [INFO] I0720 14:53:45.618335  5366 layer_factory.hpp:77] Creating layer relu3
2016-07-20 14:53:45.619 STDERR [INFO] I0720 14:53:45.618355  5366 net.cpp:91] Creating Layer relu3
2016-07-20 14:53:45.619 STDERR [INFO] I0720 14:53:45.618365  5366 net.cpp:425] relu3 <- conv3
2016-07-20 14:53:45.619 STDERR [INFO] I0720 14:53:45.618388  5366 net.cpp:386] relu3 -> conv3 (in-place)
2016-07-20 14:53:45.619 STDERR [INFO] I0720 14:53:45.619671  5366 net.cpp:141] Setting up relu3
2016-07-20 14:53:45.619 STDERR [INFO] I0720 14:53:45.619696  5366 net.cpp:148] Top shape: 10 384 13 13 (648960)
2016-07-20 14:53:45.619 STDERR [INFO] I0720 14:53:45.619706  5366 net.cpp:156] Memory required for data: 58596920
2016-07-20 14:53:45.620 STDERR [INFO] I0720 14:53:45.619716  5366 layer_factory.hpp:77] Creating layer conv4
2016-07-20 14:53:45.620 STDERR [INFO] I0720 14:53:45.619745  5366 net.cpp:91] Creating Layer conv4
2016-07-20 14:53:45.620 STDERR [INFO] I0720 14:53:45.619757  5366 net.cpp:425] conv4 <- conv3
2016-07-20 14:53:45.620 STDERR [INFO] I0720 14:53:45.619773  5366 net.cpp:399] conv4 -> conv4
2016-07-20 14:53:45.620 n.t.s.b.CVParticleBolt [INFO] [Timing] RequestID: 0 StreamID: home/peifeng/work/data/frame.320x240.jpg SequenceNr: 172 Leaving scale: 1469040825620 Size: 3530
2016-07-20 14:53:45.620 n.t.s.b.CVParticleBolt [INFO] [Timing] RequestID: 0 StreamID: home/peifeng/work/data/frame.320x240.jpg SequenceNr: 173 Leaving scale: 1469040825620 Size: 3530
2016-07-20 14:53:45.624 n.t.s.b.CVParticleBolt [INFO] [Timing] RequestID: 0 StreamID: home/peifeng/work/data/frame.320x240.jpg SequenceNr: 174 Leaving scale: 1469040825624 Size: 3530
2016-07-20 14:53:45.644 STDERR [INFO] I0720 14:53:45.643903  5350 net.cpp:141] Setting up lstm2_x_transform
2016-07-20 14:53:45.644 STDERR [INFO] I0720 14:53:45.643949  5350 net.cpp:148] Top shape: 1 1 4000 (4000)
2016-07-20 14:53:45.644 STDERR [INFO] I0720 14:53:45.643957  5350 net.cpp:156] Memory required for data: 30020
2016-07-20 14:53:45.644 STDERR [INFO] I0720 14:53:45.643983  5350 layer_factory.hpp:77] Creating layer lstm2_W_xc_x_slice
2016-07-20 14:53:45.644 STDERR [INFO] I0720 14:53:45.644006  5350 net.cpp:91] Creating Layer lstm2_W_xc_x_slice
2016-07-20 14:53:45.644 STDERR [INFO] I0720 14:53:45.644016  5350 net.cpp:425] lstm2_W_xc_x_slice <- W_xc_x
2016-07-20 14:53:45.644 STDERR [INFO] I0720 14:53:45.644031  5350 net.cpp:399] lstm2_W_xc_x_slice -> W_xc_x_1
2016-07-20 14:53:45.645 STDERR [INFO] I0720 14:53:45.645680  5350 net.cpp:141] Setting up lstm2_W_xc_x_slice
2016-07-20 14:53:45.645 STDERR [INFO] I0720 14:53:45.645701  5350 net.cpp:148] Top shape: 1 1 4000 (4000)
2016-07-20 14:53:45.646 STDERR [INFO] I0720 14:53:45.645709  5350 net.cpp:156] Memory required for data: 46020
2016-07-20 14:53:45.646 STDERR [INFO] I0720 14:53:45.645717  5350 layer_factory.hpp:77] Creating layer lstm2_h_conted_0
2016-07-20 14:53:45.646 STDERR [INFO] I0720 14:53:45.645732  5350 net.cpp:91] Creating Layer lstm2_h_conted_0
2016-07-20 14:53:45.646 STDERR [INFO] I0720 14:53:45.645741  5350 net.cpp:425] lstm2_h_conted_0 <- h_0
2016-07-20 14:53:45.646 STDERR [INFO] I0720 14:53:45.645750  5350 net.cpp:425] lstm2_h_conted_0 <- cont_1_lstm2_cont_slice_0_split_0
2016-07-20 14:53:45.646 STDERR [INFO] I0720 14:53:45.645762  5350 net.cpp:399] lstm2_h_conted_0 -> h_conted_0
2016-07-20 14:53:45.651 STDERR [INFO] I0720 14:53:45.651660  5350 net.cpp:141] Setting up lstm2_h_conted_0
2016-07-20 14:53:45.651 STDERR [INFO] I0720 14:53:45.651685  5350 net.cpp:148] Top shape: 1 1 1000 (1000)
2016-07-20 14:53:45.652 STDERR [INFO] I0720 14:53:45.651695  5350 net.cpp:156] Memory required for data: 50020
2016-07-20 14:53:45.652 STDERR [INFO] I0720 14:53:45.651702  5350 layer_factory.hpp:77] Creating layer lstm2_transform_1
2016-07-20 14:53:45.652 STDERR [INFO] I0720 14:53:45.651722  5350 net.cpp:91] Creating Layer lstm2_transform_1
2016-07-20 14:53:45.652 STDERR [INFO] I0720 14:53:45.651731  5350 net.cpp:425] lstm2_transform_1 <- h_conted_0
2016-07-20 14:53:45.652 STDERR [INFO] I0720 14:53:45.651746  5350 net.cpp:399] lstm2_transform_1 -> W_hc_h_0
2016-07-20 14:53:45.686 STDERR [INFO] I0720 14:53:45.686532  5366 net.cpp:141] Setting up conv4
2016-07-20 14:53:45.687 STDERR [INFO] I0720 14:53:45.686580  5366 net.cpp:148] Top shape: 10 384 13 13 (648960)
2016-07-20 14:53:45.687 STDERR [INFO] I0720 14:53:45.686590  5366 net.cpp:156] Memory required for data: 61192760
2016-07-20 14:53:45.687 STDERR [INFO] I0720 14:53:45.686610  5366 layer_factory.hpp:77] Creating layer relu4
2016-07-20 14:53:45.687 STDERR [INFO] I0720 14:53:45.686635  5366 net.cpp:91] Creating Layer relu4
2016-07-20 14:53:45.687 STDERR [INFO] I0720 14:53:45.686646  5366 net.cpp:425] relu4 <- conv4
2016-07-20 14:53:45.687 STDERR [INFO] I0720 14:53:45.686660  5366 net.cpp:386] relu4 -> conv4 (in-place)
2016-07-20 14:53:45.688 STDERR [INFO] I0720 14:53:45.688338  5366 net.cpp:141] Setting up relu4
2016-07-20 14:53:45.688 STDERR [INFO] I0720 14:53:45.688365  5366 net.cpp:148] Top shape: 10 384 13 13 (648960)
2016-07-20 14:53:45.688 STDERR [INFO] I0720 14:53:45.688375  5366 net.cpp:156] Memory required for data: 63788600
2016-07-20 14:53:45.688 STDERR [INFO] I0720 14:53:45.688385  5366 layer_factory.hpp:77] Creating layer conv5
2016-07-20 14:53:45.688 STDERR [INFO] I0720 14:53:45.688411  5366 net.cpp:91] Creating Layer conv5
2016-07-20 14:53:45.688 STDERR [INFO] I0720 14:53:45.688423  5366 net.cpp:425] conv5 <- conv4
2016-07-20 14:53:45.688 STDERR [INFO] I0720 14:53:45.688438  5366 net.cpp:399] conv5 -> conv5
2016-07-20 14:53:45.708 STDERR [INFO] I0720 14:53:45.707927  5366 net.cpp:141] Setting up conv5
2016-07-20 14:53:45.708 STDERR [INFO] I0720 14:53:45.707967  5366 net.cpp:148] Top shape: 10 256 13 13 (432640)
2016-07-20 14:53:45.708 STDERR [INFO] I0720 14:53:45.707976  5366 net.cpp:156] Memory required for data: 65519160
2016-07-20 14:53:45.708 STDERR [INFO] I0720 14:53:45.708001  5366 layer_factory.hpp:77] Creating layer relu5
2016-07-20 14:53:45.708 STDERR [INFO] I0720 14:53:45.708024  5366 net.cpp:91] Creating Layer relu5
2016-07-20 14:53:45.708 STDERR [INFO] I0720 14:53:45.708035  5366 net.cpp:425] relu5 <- conv5
2016-07-20 14:53:45.709 STDERR [INFO] I0720 14:53:45.708048  5366 net.cpp:386] relu5 -> conv5 (in-place)
2016-07-20 14:53:45.709 STDERR [INFO] I0720 14:53:45.709234  5366 net.cpp:141] Setting up relu5
2016-07-20 14:53:45.709 STDERR [INFO] I0720 14:53:45.709255  5366 net.cpp:148] Top shape: 10 256 13 13 (432640)
2016-07-20 14:53:45.709 STDERR [INFO] I0720 14:53:45.709265  5366 net.cpp:156] Memory required for data: 67249720
2016-07-20 14:53:45.709 STDERR [INFO] I0720 14:53:45.709275  5366 layer_factory.hpp:77] Creating layer pool5
2016-07-20 14:53:45.709 STDERR [INFO] I0720 14:53:45.709297  5366 net.cpp:91] Creating Layer pool5
2016-07-20 14:53:45.709 STDERR [INFO] I0720 14:53:45.709309  5366 net.cpp:425] pool5 <- conv5
2016-07-20 14:53:45.709 STDERR [INFO] I0720 14:53:45.709329  5366 net.cpp:399] pool5 -> pool5
2016-07-20 14:53:45.714 STDERR [INFO] I0720 14:53:45.714344  5350 net.cpp:141] Setting up lstm2_transform_1
2016-07-20 14:53:45.714 STDERR [INFO] I0720 14:53:45.714365  5350 net.cpp:148] Top shape: 1 1 4000 (4000)
2016-07-20 14:53:45.714 STDERR [INFO] I0720 14:53:45.714370  5350 net.cpp:156] Memory required for data: 66020
2016-07-20 14:53:45.714 STDERR [INFO] I0720 14:53:45.714381  5350 layer_factory.hpp:77] Creating layer lstm2_gate_input_1
2016-07-20 14:53:45.715 STDERR [INFO] I0720 14:53:45.714380  5366 net.cpp:141] Setting up pool5
2016-07-20 14:53:45.715 STDERR [INFO] I0720 14:53:45.714399  5350 net.cpp:91] Creating Layer lstm2_gate_input_1
2016-07-20 14:53:45.715 STDERR [INFO] I0720 14:53:45.714403  5366 net.cpp:148] Top shape: 10 256 6 6 (92160)
2016-07-20 14:53:45.715 STDERR [INFO] I0720 14:53:45.714406  5350 net.cpp:425] lstm2_gate_input_1 <- W_hc_h_0
2016-07-20 14:53:45.715 STDERR [INFO] I0720 14:53:45.714417  5366 net.cpp:156] Memory required for data: 67618360
2016-07-20 14:53:45.715 STDERR [INFO] I0720 14:53:45.714422  5350 net.cpp:425] lstm2_gate_input_1 <- W_xc_x_1
2016-07-20 14:53:45.715 STDERR [INFO] I0720 14:53:45.714428  5366 layer_factory.hpp:77] Creating layer fc6
2016-07-20 14:53:45.715 STDERR [INFO] I0720 14:53:45.714432  5350 net.cpp:399] lstm2_gate_input_1 -> gate_input_1
2016-07-20 14:53:45.716 STDERR [INFO] I0720 14:53:45.714458  5366 net.cpp:91] Creating Layer fc6
2016-07-20 14:53:45.716 STDERR [INFO] I0720 14:53:45.714469  5366 net.cpp:425] fc6 <- pool5
2016-07-20 14:53:45.716 STDERR [INFO] I0720 14:53:45.714488  5366 net.cpp:399] fc6 -> fc6
2016-07-20 14:53:45.716 STDERR [INFO] I0720 14:53:45.714504  5350 net.cpp:141] Setting up lstm2_gate_input_1
2016-07-20 14:53:45.716 STDERR [INFO] I0720 14:53:45.714515  5350 net.cpp:148] Top shape: 1 1 4000 (4000)
2016-07-20 14:53:45.716 STDERR [INFO] I0720 14:53:45.714519  5350 net.cpp:156] Memory required for data: 82020
2016-07-20 14:53:45.716 STDERR [INFO] I0720 14:53:45.714524  5350 layer_factory.hpp:77] Creating layer lstm2_unit_1
2016-07-20 14:53:45.716 STDERR [INFO] I0720 14:53:45.714534  5350 net.cpp:91] Creating Layer lstm2_unit_1
2016-07-20 14:53:45.717 STDERR [INFO] I0720 14:53:45.714540  5350 net.cpp:425] lstm2_unit_1 <- c_0
2016-07-20 14:53:45.717 STDERR [INFO] I0720 14:53:45.714545  5350 net.cpp:425] lstm2_unit_1 <- gate_input_1
2016-07-20 14:53:45.717 STDERR [INFO] I0720 14:53:45.714550  5350 net.cpp:425] lstm2_unit_1 <- cont_1_lstm2_cont_slice_0_split_1
2016-07-20 14:53:45.717 STDERR [INFO] I0720 14:53:45.714556  5350 net.cpp:399] lstm2_unit_1 -> c_1
2016-07-20 14:53:45.717 STDERR [INFO] I0720 14:53:45.714567  5350 net.cpp:399] lstm2_unit_1 -> h_1
2016-07-20 14:53:45.776 b.s.d.executor [INFO] Deactivating spout fetcher:(4)
2016-07-20 14:53:45.783 STDERR [INFO] I0720 14:53:45.783215  5350 net.cpp:141] Setting up lstm2_unit_1
2016-07-20 14:53:45.784 STDERR [INFO] I0720 14:53:45.783257  5350 net.cpp:148] Top shape: 1 1 1000 (1000)
2016-07-20 14:53:45.784 STDERR [INFO] I0720 14:53:45.783263  5350 net.cpp:148] Top shape: 1 1 1000 (1000)
2016-07-20 14:53:45.784 STDERR [INFO] I0720 14:53:45.783268  5350 net.cpp:156] Memory required for data: 90020
2016-07-20 14:53:45.784 STDERR [INFO] I0720 14:53:45.783275  5350 layer_factory.hpp:77] Creating layer lstm2_
2016-07-20 14:53:45.784 STDERR [INFO] I0720 14:53:45.783289  5350 net.cpp:91] Creating Layer lstm2_
2016-07-20 14:53:45.784 STDERR [INFO] I0720 14:53:45.783296  5350 net.cpp:425] lstm2_ <- c_1
2016-07-20 14:53:45.785 STDERR [INFO] I0720 14:53:45.783309  5350 net.cpp:399] lstm2_ -> c_T
2016-07-20 14:53:45.785 STDERR [INFO] I0720 14:53:45.783380  5350 net.cpp:141] Setting up lstm2_
2016-07-20 14:53:45.785 STDERR [INFO] I0720 14:53:45.783390  5350 net.cpp:148] Top shape: 1 1 1000 (1000)
2016-07-20 14:53:45.785 STDERR [INFO] I0720 14:53:45.783393  5350 net.cpp:156] Memory required for data: 94020
2016-07-20 14:53:45.785 STDERR [INFO] I0720 14:53:45.783398  5350 layer_factory.hpp:77] Creating layer lstm2_h_concat
2016-07-20 14:53:45.786 STDERR [INFO] I0720 14:53:45.783411  5350 net.cpp:91] Creating Layer lstm2_h_concat
2016-07-20 14:53:45.786 STDERR [INFO] I0720 14:53:45.783416  5350 net.cpp:425] lstm2_h_concat <- h_1
2016-07-20 14:53:45.786 STDERR [INFO] I0720 14:53:45.783422  5350 net.cpp:399] lstm2_h_concat -> h
2016-07-20 14:53:45.786 STDERR [INFO] I0720 14:53:45.783488  5350 net.cpp:141] Setting up lstm2_h_concat
2016-07-20 14:53:45.786 STDERR [INFO] I0720 14:53:45.783498  5350 net.cpp:148] Top shape: 1 1 1000 (1000)
2016-07-20 14:53:45.787 STDERR [INFO] I0720 14:53:45.783501  5350 net.cpp:156] Memory required for data: 98020
2016-07-20 14:53:45.787 STDERR [INFO] I0720 14:53:45.783506  5350 layer_factory.hpp:77] Creating layer h_pseudoloss
2016-07-20 14:53:45.787 STDERR [INFO] I0720 14:53:45.783517  5350 net.cpp:91] Creating Layer h_pseudoloss
2016-07-20 14:53:45.787 STDERR [INFO] I0720 14:53:45.783522  5350 net.cpp:425] h_pseudoloss <- h
…
2016-07-20 14:53:45.802 STDERR [INFO] I0720 14:53:45.797627  5350 net.cpp:274] Network initialization done.
2016-07-20 14:53:45.802 STDERR [INFO] I0720 14:53:45.797685  5350 recurrent_layer.cpp:150] Adding parameter 0: W_xc
2016-07-20 14:53:45.803 STDERR [INFO] I0720 14:53:45.797693  5350 recurrent_layer.cpp:150] Adding parameter 1: b_c
2016-07-20 14:53:45.803 STDERR [INFO] I0720 14:53:45.797696  5350 recurrent_layer.cpp:150] Adding parameter 2: W_hc
2016-07-20 14:53:45.803 STDERR [INFO] I0720 14:53:45.798022  5350 net.cpp:141] Setting up lstm2
2016-07-20 14:53:45.803 STDERR [INFO] I0720 14:53:45.798034  5350 net.cpp:148] Top shape: 1 1 1000 (1000)
2016-07-20 14:53:45.803 STDERR [INFO] I0720 14:53:45.798038  5350 net.cpp:156] Memory required for data: 36412
2016-07-20 14:53:45.803 STDERR [INFO] I0720 14:53:45.798054  5350 layer_factory.hpp:77] Creating layer predict
2016-07-20 14:53:45.804 STDERR [INFO] I0720 14:53:45.798070  5350 net.cpp:91] Creating Layer predict
2016-07-20 14:53:45.804 STDERR [INFO] I0720 14:53:45.798076  5350 net.cpp:425] predict <- lstm2
2016-07-20 14:53:45.804 STDERR [INFO] I0720 14:53:45.798085  5350 net.cpp:399] predict -> predict
2016-07-20 14:53:45.880 STDERR [INFO] I0720 14:53:45.880111  5366 net.cpp:141] Setting up fc6
2016-07-20 14:53:45.880 STDERR [INFO] I0720 14:53:45.880156  5366 net.cpp:148] Top shape: 10 4096 (40960)
2016-07-20 14:53:45.880 STDERR [INFO] I0720 14:53:45.880164  5366 net.cpp:156] Memory required for data: 67782200
2016-07-20 14:53:45.881 STDERR [INFO] I0720 14:53:45.880184  5366 layer_factory.hpp:77] Creating layer relu6
2016-07-20 14:53:45.881 STDERR [INFO] I0720 14:53:45.880203  5366 net.cpp:91] Creating Layer relu6
2016-07-20 14:53:45.881 STDERR [INFO] I0720 14:53:45.880213  5366 net.cpp:425] relu6 <- fc6
2016-07-20 14:53:45.881 STDERR [INFO] I0720 14:53:45.880236  5366 net.cpp:386] relu6 -> fc6 (in-place)
2016-07-20 14:53:45.881 STDERR [INFO] I0720 14:53:45.880693  5366 net.cpp:141] Setting up relu6
2016-07-20 14:53:45.881 STDERR [INFO] I0720 14:53:45.880712  5366 net.cpp:148] Top shape: 10 4096 (40960)
2016-07-20 14:53:45.881 STDERR [INFO] I0720 14:53:45.880720  5366 net.cpp:156] Memory required for data: 67946040
2016-07-20 14:53:45.881 STDERR [INFO] I0720 14:53:45.880728  5366 layer_factory.hpp:77] Creating layer drop6
2016-07-20 14:53:45.881 STDERR [INFO] I0720 14:53:45.880748  5366 net.cpp:91] Creating Layer drop6
2016-07-20 14:53:45.881 STDERR [INFO] I0720 14:53:45.880758  5366 net.cpp:425] drop6 <- fc6
2016-07-20 14:53:45.881 STDERR [INFO] I0720 14:53:45.880774  5366 net.cpp:386] drop6 -> fc6 (in-place)
2016-07-20 14:53:45.882 STDERR [INFO] I0720 14:53:45.882367  5366 net.cpp:141] Setting up drop6
2016-07-20 14:53:45.882 STDERR [INFO] I0720 14:53:45.882400  5366 net.cpp:148] Top shape: 10 4096 (40960)
2016-07-20 14:53:45.882 STDERR [INFO] I0720 14:53:45.882410  5366 net.cpp:156] Memory required for data: 68109880
2016-07-20 14:53:45.882 STDERR [INFO] I0720 14:53:45.882421  5366 layer_factory.hpp:77] Creating layer fc7
2016-07-20 14:53:45.882 STDERR [INFO] I0720 14:53:45.882439  5366 net.cpp:91] Creating Layer fc7
2016-07-20 14:53:45.883 STDERR [INFO] I0720 14:53:45.882449  5366 net.cpp:425] fc7 <- fc6
2016-07-20 14:53:45.883 STDERR [INFO] I0720 14:53:45.882469  5366 net.cpp:399] fc7 -> fc7
2016-07-20 14:53:45.933 STDERR [INFO] I0720 14:53:45.933233  5366 net.cpp:141] Setting up fc7
2016-07-20 14:53:45.933 STDERR [INFO] I0720 14:53:45.933280  5366 net.cpp:148] Top shape: 10 4096 (40960)
2016-07-20 14:53:45.934 STDERR [INFO] I0720 14:53:45.933290  5366 net.cpp:156] Memory required for data: 68273720
2016-07-20 14:53:45.934 STDERR [INFO] I0720 14:53:45.933308  5366 layer_factory.hpp:77] Creating layer relu7
2016-07-20 14:53:45.934 STDERR [INFO] I0720 14:53:45.933327  5366 net.cpp:91] Creating Layer relu7
2016-07-20 14:53:45.934 STDERR [INFO] I0720 14:53:45.933337  5366 net.cpp:425] relu7 <- fc7
2016-07-20 14:53:45.934 STDERR [INFO] I0720 14:53:45.933351  5366 net.cpp:386] relu7 -> fc7 (in-place)
2016-07-20 14:53:45.935 STDERR [INFO] I0720 14:53:45.934978  5366 net.cpp:141] Setting up relu7
2016-07-20 14:53:45.935 STDERR [INFO] I0720 14:53:45.934998  5366 net.cpp:148] Top shape: 10 4096 (40960)
2016-07-20 14:53:45.935 STDERR [INFO] I0720 14:53:45.935008  5366 net.cpp:156] Memory required for data: 68437560
2016-07-20 14:53:45.935 STDERR [INFO] I0720 14:53:45.935017  5366 layer_factory.hpp:77] Creating layer drop7
2016-07-20 14:53:45.935 STDERR [INFO] I0720 14:53:45.935034  5366 net.cpp:91] Creating Layer drop7
2016-07-20 14:53:45.935 STDERR [INFO] I0720 14:53:45.935045  5366 net.cpp:425] drop7 <- fc7
2016-07-20 14:53:45.935 STDERR [INFO] I0720 14:53:45.935061  5366 net.cpp:386] drop7 -> fc7 (in-place)
2016-07-20 14:53:45.938 STDERR [INFO] I0720 14:53:45.938773  5366 net.cpp:141] Setting up drop7
2016-07-20 14:53:45.939 STDERR [INFO] I0720 14:53:45.938798  5366 net.cpp:148] Top shape: 10 4096 (40960)
2016-07-20 14:53:45.939 STDERR [INFO] I0720 14:53:45.938808  5366 net.cpp:156] Memory required for data: 68601400
2016-07-20 14:53:45.939 STDERR [INFO] I0720 14:53:45.938817  5366 layer_factory.hpp:77] Creating layer fc8
2016-07-20 14:53:45.939 STDERR [INFO] I0720 14:53:45.938838  5366 net.cpp:91] Creating Layer fc8
2016-07-20 14:53:45.939 STDERR [INFO] I0720 14:53:45.938849  5366 net.cpp:425] fc8 <- fc7
2016-07-20 14:53:45.939 STDERR [INFO] I0720 14:53:45.938863  5366 net.cpp:399] fc8 -> fc8
2016-07-20 14:53:45.959 STDERR [INFO] I0720 14:53:45.959552  5366 net.cpp:141] Setting up fc8
2016-07-20 14:53:45.960 STDERR [INFO] I0720 14:53:45.959600  5366 net.cpp:148] Top shape: 10 1000 (10000)
2016-07-20 14:53:45.960 STDERR [INFO] I0720 14:53:45.959609  5366 net.cpp:156] Memory required for data: 68641400
2016-07-20 14:53:45.960 STDERR [INFO] I0720 14:53:45.959628  5366 layer_factory.hpp:77] Creating layer prob
2016-07-20 14:53:45.960 STDERR [INFO] I0720 14:53:45.959650  5366 net.cpp:91] Creating Layer prob
2016-07-20 14:53:45.960 STDERR [INFO] I0720 14:53:45.959659  5366 net.cpp:425] prob <- fc8
2016-07-20 14:53:45.960 STDERR [INFO] I0720 14:53:45.959673  5366 net.cpp:399] prob -> prob
2016-07-20 14:53:45.961 STDERR [INFO] I0720 14:53:45.961431  5366 net.cpp:141] Setting up prob
2016-07-20 14:53:45.961 STDERR [INFO] I0720 14:53:45.961452  5366 net.cpp:148] Top shape: 10 1000 (10000)
2016-07-20 14:53:45.962 STDERR [INFO] I0720 14:53:45.961462  5366 net.cpp:156] Memory required for data: 68681400
2016-07-20 14:53:45.962 STDERR [INFO] I0720 14:53:45.961472  5366 net.cpp:219] prob does not need backward computation.
2016-07-20 14:53:45.962 STDERR [INFO] I0720 14:53:45.961479  5366 net.cpp:219] fc8 does not need backward computation.
2016-07-20 14:53:45.962 STDERR [INFO] I0720 14:53:45.961488  5366 net.cpp:219] drop7 does not need backward computation.
…
2016-07-20 14:53:46.252 STDERR [INFO] I0720 14:53:46.251366  5350 net.cpp:219] cont_sentence_input_1_split does not need backward computation.
2016-07-20 14:53:46.253 STDERR [INFO] I0720 14:53:46.251371  5350 net.cpp:219] input does not need backward computation.
2016-07-20 14:53:46.253 STDERR [INFO] I0720 14:53:46.251374  5350 net.cpp:261] This network produces output probs
2016-07-20 14:53:46.253 STDERR [INFO] I0720 14:53:46.251394  5350 net.cpp:274] Network initialization done.
2016-07-20 14:53:46.368 STDERR [INFO] I0720 14:53:46.368325  5354 net.cpp:141] Setting up input
2016-07-20 14:53:46.369 STDERR [INFO] I0720 14:53:46.368399  5354 net.cpp:148] Top shape: 1 4096 (4096)
2016-07-20 14:53:46.369 STDERR [INFO] I0720 14:53:46.368408  5354 net.cpp:148] Top shape: 1 1 (1)
2016-07-20 14:53:46.369 STDERR [INFO] I0720 14:53:46.368413  5354 net.cpp:148] Top shape: 1 1 (1)
2016-07-20 14:53:46.369 STDERR [INFO] I0720 14:53:46.368419  5354 net.cpp:148] Top shape: 1 1 (1)
2016-07-20 14:53:46.369 STDERR [INFO] I0720 14:53:46.368423  5354 net.cpp:156] Memory required for data: 16396
2016-07-20 14:53:46.369 STDERR [INFO] I0720 14:53:46.368438  5354 layer_factory.hpp:77] Creating layer cont_sentence_input_1_split
2016-07-20 14:53:46.369 STDERR [INFO] I0720 14:53:46.368456  5354 net.cpp:91] Creating Layer cont_sentence_input_1_split
2016-07-20 14:53:46.370 STDERR [INFO] I0720 14:53:46.368469  5354 net.cpp:425] cont_sentence_input_1_split <- cont_sentence
2016-07-20 14:53:46.370 STDERR [INFO] I0720 14:53:46.368482  5354 net.cpp:399] cont_sentence_input_1_split -> cont_sentence_input_1_split_0
2016-07-20 14:53:46.370 STDERR [INFO] I0720 14:53:46.368495  5354 net.cpp:399] cont_sentence_input_1_split -> cont_sentence_input_1_split_1
2016-07-20 14:53:46.370 STDERR [INFO] I0720 14:53:46.368566  5354 net.cpp:141] Setting up cont_sentence_input_1_split
2016-07-20 14:53:46.370 STDERR [INFO] I0720 14:53:46.368577  5354 net.cpp:148] Top shape: 1 1 (1)
2016-07-20 14:53:46.370 STDERR [INFO] I0720 14:53:46.368582  5354 net.cpp:148] Top shape: 1 1 (1)
2016-07-20 14:53:46.371 STDERR [INFO] I0720 14:53:46.368585  5354 net.cpp:156] Memory required for data: 16404
2016-07-20 14:53:46.371 STDERR [INFO] I0720 14:53:46.368598  5354 layer_factory.hpp:77] Creating layer embed_encoder
2016-07-20 14:53:46.371 STDERR [INFO] I0720 14:53:46.368616  5354 net.cpp:91] Creating Layer embed_encoder
2016-07-20 14:53:46.371 STDERR [INFO] I0720 14:53:46.368621  5354 net.cpp:425] embed_encoder <- frames_fc7
2016-07-20 14:53:46.371 STDERR [INFO] I0720 14:53:46.368630  5354 net.cpp:399] embed_encoder -> embedded_in_frames
2016-07-20 14:53:46.396 STDERR [INFO] I0720 14:53:46.396119  5354 net.cpp:141] Setting up embed_encoder
2016-07-20 14:53:46.396 STDERR [INFO] I0720 14:53:46.396173  5354 net.cpp:148] Top shape: 1 500 (500)
2016-07-20 14:53:46.396 STDERR [INFO] I0720 14:53:46.396178  5354 net.cpp:156] Memory required for data: 18404
2016-07-20 14:53:46.397 STDERR [INFO] I0720 14:53:46.396199  5354 layer_factory.hpp:77] Creating layer reshape_frames
2016-07-20 14:53:46.397 STDERR [INFO] I0720 14:53:46.396240  5354 net.cpp:91] Creating Layer reshape_frames
2016-07-20 14:53:46.397 STDERR [INFO] I0720 14:53:46.396248  5354 net.cpp:425] reshape_frames <- embedded_in_frames
2016-07-20 14:53:46.397 STDERR [INFO] I0720 14:53:46.396263  5354 net.cpp:399] reshape_frames -> embedded_input_frames
2016-07-20 14:53:46.397 STDERR [INFO] I0720 14:53:46.396324  5354 net.cpp:141] Setting up reshape_frames
2016-07-20 14:53:46.397 STDERR [INFO] I0720 14:53:46.396333  5354 net.cpp:148] Top shape: 1 1 500 (500)
2016-07-20 14:53:46.397 STDERR [INFO] I0720 14:53:46.396337  5354 net.cpp:156] Memory required for data: 20404
2016-07-20 14:53:46.398 STDERR [INFO] I0720 14:53:46.396342  5354 layer_factory.hpp:77] Creating layer reshape_stage_indicator
2016-07-20 14:53:46.398 STDERR [INFO] I0720 14:53:46.396365  5354 net.cpp:91] Creating Layer reshape_stage_indicator
2016-07-20 14:53:46.398 STDERR [INFO] I0720 14:53:46.396371  5354 net.cpp:425] reshape_stage_indicator <- stage_indicator
2016-07-20 14:53:46.398 STDERR [INFO] I0720 14:53:46.396378  5354 net.cpp:399] reshape_stage_indicator -> reshaped_stage_indicator
2016-07-20 14:53:46.398 STDERR [INFO] I0720 14:53:46.396441  5354 net.cpp:141] Setting up reshape_stage_indicator
2016-07-20 14:53:46.398 STDERR [INFO] I0720 14:53:46.396451  5354 net.cpp:148] Top shape: 1 1 1 (1)
2016-07-20 14:53:46.398 STDERR [INFO] I0720 14:53:46.396456  5354 net.cpp:156] Memory required for data: 20408
2016-07-20 14:53:46.399 STDERR [INFO] I0720 14:53:46.396459  5354 layer_factory.hpp:77] Creating layer embedding
2016-07-20 14:53:46.399 STDERR [INFO] I0720 14:53:46.396491  5354 net.cpp:91] Creating Layer embedding
2016-07-20 14:53:46.399 STDERR [INFO] I0720 14:53:46.396497  5354 net.cpp:425] embedding <- input_sentence
2016-07-20 14:53:46.399 STDERR [INFO] I0720 14:53:46.396505  5354 net.cpp:399] embedding -> embedded_input_sentence
2016-07-20 14:53:46.590 STDERR [INFO] I0720 14:53:46.590303  5366 upgrade_proto.cpp:60] Successfully upgraded file specified using deprecated V1LayerParameter
2016-07-20 14:53:46.618 STDERR [INFO] I0720 14:53:46.618129  5354 net.cpp:141] Setting up embedding
2016-07-20 14:53:46.618 STDERR [INFO] I0720 14:53:46.618178  5354 net.cpp:148] Top shape: 1 1 500 (500)
2016-07-20 14:53:46.618 STDERR [INFO] I0720 14:53:46.618183  5354 net.cpp:156] Memory required for data: 22408
2016-07-20 14:53:46.619 STDERR [INFO] I0720 14:53:46.618203  5354 layer_factory.hpp:77] Creating layer lstm1
2016-07-20 14:53:46.619 STDERR [INFO] I0720 14:53:46.618228  5354 net.cpp:91] Creating Layer lstm1
2016-07-20 14:53:46.619 STDERR [INFO] I0720 14:53:46.618237  5354 net.cpp:425] lstm1 <- embedded_input_frames
…
2016-07-20 14:53:46.639 STDERR [INFO] }
2016-07-20 14:53:46.639 STDERR [INFO] I0720 14:53:46.618676  5354 layer_factory.hpp:77] Creating layer lstm1_
2016-07-20 14:53:46.639 STDERR [INFO] I0720 14:53:46.618705  5354 net.cpp:91] Creating Layer lstm1_
2016-07-20 14:53:46.639 STDERR [INFO] I0720 14:53:46.618712  5354 net.cpp:399] lstm1_ -> x
2016-07-20 14:53:46.639 STDERR [INFO] I0720 14:53:46.618723  5354 net.cpp:399] lstm1_ -> cont
2016-07-20 14:53:46.640 STDERR [INFO] I0720 14:53:46.618839  5354 net.cpp:141] Setting up lstm1_
2016-07-20 14:53:46.640 STDERR [INFO] I0720 14:53:46.618849  5354 net.cpp:148] Top shape: 1 1 500 (500)
2016-07-20 14:53:46.640 STDERR [INFO] I0720 14:53:46.618855  5354 net.cpp:148] Top shape: 1 1 (1)
2016-07-20 14:53:46.640 STDERR [INFO] I0720 14:53:46.618860  5354 net.cpp:156] Memory required for data: 2004
2016-07-20 14:53:46.640 STDERR [INFO] I0720 14:53:46.618865  5354 layer_factory.hpp:77] Creating layer lstm1_
2016-07-20 14:53:46.640 STDERR [INFO] I0720 14:53:46.618877  5354 net.cpp:91] Creating Layer lstm1_
2016-07-20 14:53:46.640 STDERR [INFO] I0720 14:53:46.618886  5354 net.cpp:399] lstm1_ -> c_0
2016-07-20 14:53:46.641 STDERR [INFO] I0720 14:53:46.618896  5354 net.cpp:399] lstm1_ -> h_0
2016-07-20 14:53:46.641 STDERR [INFO] I0720 14:53:46.618975  5354 net.cpp:141] Setting up lstm1_
2016-07-20 14:53:46.641 STDERR [INFO] I0720 14:53:46.618985  5354 net.cpp:148] Top shape: 1 1 1000 (1000)
2016-07-20 14:53:46.641 STDERR [INFO] I0720 14:53:46.618990  5354 net.cpp:148] Top shape: 1 1 1000 (1000)
2016-07-20 14:53:46.641 STDERR [INFO] I0720 14:53:46.618994  5354 net.cpp:156] Memory required for data: 10004
2016-07-20 14:53:46.641 STDERR [INFO] I0720 14:53:46.618999  5354 layer_factory.hpp:77] Creating layer lstm1_cont_slice
2016-07-20 14:53:46.641 STDERR [INFO] I0720 14:53:46.619009  5354 net.cpp:91] Creating Layer lstm1_cont_slice
2016-07-20 14:53:46.641 STDERR [INFO] I0720 14:53:46.619014  5354 net.cpp:425] lstm1_cont_slice <- cont
2016-07-20 14:53:46.642 STDERR [INFO] I0720 14:53:46.619022  5354 net.cpp:399] lstm1_cont_slice -> cont_1
2016-07-20 14:53:46.642 STDERR [INFO] I0720 14:53:46.619071  5354 net.cpp:141] Setting up lstm1_cont_slice
2016-07-20 14:53:46.642 STDERR [INFO] I0720 14:53:46.619081  5354 net.cpp:148] Top shape: 1 1 (1)
2016-07-20 14:53:46.642 STDERR [INFO] I0720 14:53:46.619084  5354 net.cpp:156] Memory required for data: 10008
2016-07-20 14:53:46.642 STDERR [INFO] I0720 14:53:46.619088  5354 layer_factory.hpp:77] Creating layer cont_1_lstm1_cont_slice_0_split
2016-07-20 14:53:46.642 STDERR [INFO] I0720 14:53:46.619096  5354 net.cpp:91] Creating Layer cont_1_lstm1_cont_slice_0_split
2016-07-20 14:53:46.642 STDERR [INFO] I0720 14:53:46.619101  5354 net.cpp:425] cont_1_lstm1_cont_slice_0_split <- cont_1
2016-07-20 14:53:46.643 STDERR [INFO] I0720 14:53:46.619107  5354 net.cpp:399] cont_1_lstm1_cont_slice_0_split -> cont_1_lstm1_cont_slice_0_split_0
2016-07-20 14:53:46.643 STDERR [INFO] I0720 14:53:46.619115  5354 net.cpp:399] cont_1_lstm1_cont_slice_0_split -> cont_1_lstm1_cont_slice_0_split_1
2016-07-20 14:53:46.643 STDERR [INFO] I0720 14:53:46.619186  5354 net.cpp:141] Setting up cont_1_lstm1_cont_slice_0_split
2016-07-20 14:53:46.643 STDERR [INFO] I0720 14:53:46.619195  5354 net.cpp:148] Top shape: 1 1 (1)
2016-07-20 14:53:46.643 STDERR [INFO] I0720 14:53:46.619200  5354 net.cpp:148] Top shape: 1 1 (1)
2016-07-20 14:53:46.643 STDERR [INFO] I0720 14:53:46.619204  5354 net.cpp:156] Memory required for data: 10016
2016-07-20 14:53:46.643 STDERR [INFO] I0720 14:53:46.619209  5354 layer_factory.hpp:77] Creating layer lstm1_x_transform
2016-07-20 14:53:46.644 STDERR [INFO] I0720 14:53:46.619220  5354 net.cpp:91] Creating Layer lstm1_x_transform
2016-07-20 14:53:46.644 STDERR [INFO] I0720 14:53:46.619225  5354 net.cpp:425] lstm1_x_transform <- x
2016-07-20 14:53:46.644 STDERR [INFO] I0720 14:53:46.619233  5354 net.cpp:399] lstm1_x_transform -> W_xc_x
2016-07-20 14:53:46.644 STDERR [INFO] I0720 14:53:46.626785  5350 net.cpp:752] Ignoring source layer data
2016-07-20 14:53:46.644 STDERR [INFO] I0720 14:53:46.626818  5350 net.cpp:752] Ignoring source layer cont_sentence_data_0_split
2016-07-20 14:53:46.645 STDERR [INFO] I0720 14:53:46.626824  5350 net.cpp:752] Ignoring source layer reshape_stg_indicator
2016-07-20 14:53:46.645 STDERR [INFO] I0720 14:53:46.644987  5366 net.cpp:752] Ignoring source layer loss
2016-07-20 14:53:46.649 STDERR [INFO] I0720 14:53:46.649521  5354 net.cpp:141] Setting up lstm1_x_transform
2016-07-20 14:53:46.650 STDERR [INFO] I0720 14:53:46.649585  5354 net.cpp:148] Top shape: 1 1 4000 (4000)
2016-07-20 14:53:46.650 STDERR [INFO] I0720 14:53:46.649595  5354 net.cpp:156] Memory required for data: 26016
2016-07-20 14:53:46.650 STDERR [INFO] I0720 14:53:46.649628  5354 layer_factory.hpp:77] Creating layer lstm1_W_xc_x_slice
2016-07-20 14:53:46.650 STDERR [INFO] I0720 14:53:46.649653  5354 net.cpp:91] Creating Layer lstm1_W_xc_x_slice
2016-07-20 14:53:46.650 STDERR [INFO] I0720 14:53:46.649664  5354 net.cpp:425] lstm1_W_xc_x_slice <- W_xc_x
2016-07-20 14:53:46.650 STDERR [INFO] I0720 14:53:46.649680  5354 net.cpp:399] lstm1_W_xc_x_slice -> W_xc_x_1
2016-07-20 14:53:46.650 STDERR [INFO] I0720 14:53:46.649782  5354 net.cpp:141] Setting up lstm1_W_xc_x_slice
2016-07-20 14:53:46.650 STDERR [INFO] I0720 14:53:46.649799  5354 net.cpp:148] Top shape: 1 1 4000 (4000)
2016-07-20 14:53:46.650 STDERR [INFO] I0720 14:53:46.649806  5354 net.cpp:156] Memory required for data: 42016
2016-07-20 14:53:46.650 STDERR [INFO] I0720 14:53:46.649816  5354 layer_factory.hpp:77] Creating layer lstm1_h_conted_0
2016-07-20 14:53:46.650 STDERR [INFO] I0720 14:53:46.649832  5354 net.cpp:91] Creating Layer lstm1_h_conted_0
2016-07-20 14:53:46.650 STDERR [INFO] I0720 14:53:46.649842  5354 net.cpp:425] lstm1_h_conted_0 <- h_0
2016-07-20 14:53:46.650 STDERR [INFO] I0720 14:53:46.649852  5354 net.cpp:425] lstm1_h_conted_0 <- cont_1_lstm1_cont_slice_0_split_0
2016-07-20 14:53:46.650 STDERR [INFO] I0720 14:53:46.649863  5354 net.cpp:399] lstm1_h_conted_0 -> h_conted_0
2016-07-20 14:53:46.651 STDERR [INFO] I0720 14:53:46.650153  5354 net.cpp:141] Setting up lstm1_h_conted_0
2016-07-20 14:53:46.651 STDERR [INFO] I0720 14:53:46.650169  5354 net.cpp:148] Top shape: 1 1 1000 (1000)
2016-07-20 14:53:46.651 STDERR [INFO] I0720 14:53:46.650177  5354 net.cpp:156] Memory required for data: 46016
2016-07-20 14:53:46.651 STDERR [INFO] I0720 14:53:46.650185  5354 layer_factory.hpp:77] Creating layer lstm1_transform_1
2016-07-20 14:53:46.651 STDERR [INFO] I0720 14:53:46.650240  5354 net.cpp:91] Creating Layer lstm1_transform_1
2016-07-20 14:53:46.651 STDERR [INFO] I0720 14:53:46.650250  5354 net.cpp:425] lstm1_transform_1 <- h_conted_0
2016-07-20 14:53:46.651 STDERR [INFO] I0720 14:53:46.650270  5354 net.cpp:399] lstm1_transform_1 -> W_hc_h_0
2016-07-20 14:53:46.694 STDERR [INFO] I0720 14:53:46.693933  5354 net.cpp:141] Setting up lstm1_transform_1
2016-07-20 14:53:46.694 STDERR [INFO] I0720 14:53:46.693994  5354 net.cpp:148] Top shape: 1 1 4000 (4000)
2016-07-20 14:53:46.694 STDERR [INFO] I0720 14:53:46.694000  5354 net.cpp:156] Memory required for data: 62016
2016-07-20 14:53:46.694 STDERR [INFO] I0720 14:53:46.694025  5354 layer_factory.hpp:77] Creating layer lstm1_gate_input_1
2016-07-20 14:53:46.694 STDERR [INFO] I0720 14:53:46.694047  5354 net.cpp:91] Creating Layer lstm1_gate_input_1
2016-07-20 14:53:46.694 STDERR [INFO] I0720 14:53:46.694056  5354 net.cpp:425] lstm1_gate_input_1 <- W_hc_h_0
2016-07-20 14:53:46.694 STDERR [INFO] I0720 14:53:46.694064  5354 net.cpp:425] lstm1_gate_input_1 <- W_xc_x_1
2016-07-20 14:53:46.694 STDERR [INFO] I0720 14:53:46.694072  5354 net.cpp:399] lstm1_gate_input_1 -> gate_input_1
2016-07-20 14:53:46.695 STDERR [INFO] I0720 14:53:46.694152  5354 net.cpp:141] Setting up lstm1_gate_input_1
2016-07-20 14:53:46.695 STDERR [INFO] I0720 14:53:46.694161  5354 net.cpp:148] Top shape: 1 1 4000 (4000)
2016-07-20 14:53:46.695 STDERR [INFO] I0720 14:53:46.694166  5354 net.cpp:156] Memory required for data: 78016
2016-07-20 14:53:46.695 STDERR [INFO] I0720 14:53:46.694170  5354 layer_factory.hpp:77] Creating layer lstm1_unit_1
2016-07-20 14:53:46.695 STDERR [INFO] I0720 14:53:46.694180  5354 net.cpp:91] Creating Layer lstm1_unit_1
2016-07-20 14:53:46.695 STDERR [INFO] I0720 14:53:46.694185  5354 net.cpp:425] lstm1_unit_1 <- c_0
2016-07-20 14:53:46.695 STDERR [INFO] I0720 14:53:46.694190  5354 net.cpp:425] lstm1_unit_1 <- gate_input_1
2016-07-20 14:53:46.695 STDERR [INFO] I0720 14:53:46.694195  5354 net.cpp:425] lstm1_unit_1 <- cont_1_lstm1_cont_slice_0_split_1
2016-07-20 14:53:46.695 STDERR [INFO] I0720 14:53:46.694201  5354 net.cpp:399] lstm1_unit_1 -> c_1
2016-07-20 14:53:46.695 STDERR [INFO] I0720 14:53:46.694213  5354 net.cpp:399] lstm1_unit_1 -> h_1
2016-07-20 14:53:46.695 STDERR [INFO] I0720 14:53:46.694306  5354 net.cpp:141] Setting up lstm1_unit_1
2016-07-20 14:53:46.695 STDERR [INFO] I0720 14:53:46.694315  5354 net.cpp:148] Top shape: 1 1 1000 (1000)
2016-07-20 14:53:46.695 STDERR [INFO] I0720 14:53:46.694321  5354 net.cpp:148] Top shape: 1 1 1000 (1000)
2016-07-20 14:53:46.695 STDERR [INFO] I0720 14:53:46.694325  5354 net.cpp:156] Memory required for data: 86016
2016-07-20 14:53:46.695 STDERR [INFO] I0720 14:53:46.694330  5354 layer_factory.hpp:77] Creating layer lstm1_
2016-07-20 14:53:46.695 STDERR [INFO] I0720 14:53:46.694339  5354 net.cpp:91] Creating Layer lstm1_
2016-07-20 14:53:46.695 STDERR [INFO] I0720 14:53:46.694344  5354 net.cpp:425] lstm1_ <- c_1
2016-07-20 14:53:46.695 STDERR [INFO] I0720 14:53:46.694350  5354 net.cpp:399] lstm1_ -> c_T
2016-07-20 14:53:46.695 STDERR [INFO] I0720 14:53:46.694396  5354 net.cpp:141] Setting up lstm1_
2016-07-20 14:53:46.696 STDERR [INFO] I0720 14:53:46.694406  5354 net.cpp:148] Top shape: 1 1 1000 (1000)
2016-07-20 14:53:46.696 STDERR [INFO] I0720 14:53:46.694411  5354 net.cpp:156] Memory required for data: 90016
2016-07-20 14:53:46.696 STDERR [INFO] I0720 14:53:46.694416  5354 layer_factory.hpp:77] Creating layer lstm1_h_concat
2016-07-20 14:53:46.696 STDERR [INFO] I0720 14:53:46.694427  5354 net.cpp:91] Creating Layer lstm1_h_concat
2016-07-20 14:53:46.696 STDERR [INFO] I0720 14:53:46.694430  5354 net.cpp:425] lstm1_h_concat <- h_1
2016-07-20 14:53:46.696 STDERR [INFO] I0720 14:53:46.694437  5354 net.cpp:399] lstm1_h_concat -> h
2016-07-20 14:53:46.696 STDERR [INFO] I0720 14:53:46.694486  5354 net.cpp:141] Setting up lstm1_h_concat
2016-07-20 14:53:46.696 STDERR [INFO] I0720 14:53:46.694495  5354 net.cpp:148] Top shape: 1 1 1000 (1000)
2016-07-20 14:53:46.696 STDERR [INFO] I0720 14:53:46.694499  5354 net.cpp:156] Memory required for data: 94016
2016-07-20 14:53:46.696 STDERR [INFO] I0720 14:53:46.694504  5354 layer_factory.hpp:77] Creating layer h_pseudoloss
2016-07-20 14:53:46.696 STDERR [INFO] I0720 14:53:46.694514  5354 net.cpp:91] Creating Layer h_pseudoloss
2016-07-20 14:53:46.696 STDERR [INFO] I0720 14:53:46.694517  5354 net.cpp:425] h_pseudoloss <- h
…
2016-07-20 14:53:46.705 STDERR [INFO] }
2016-07-20 14:53:46.705 STDERR [INFO] I0720 14:53:46.695611  5354 layer_factory.hpp:77] Creating layer lstm2_
2016-07-20 14:53:46.705 STDERR [INFO] I0720 14:53:46.695624  5354 net.cpp:91] Creating Layer lstm2_
2016-07-20 14:53:46.705 STDERR [INFO] I0720 14:53:46.695631  5354 net.cpp:399] lstm2_ -> x
2016-07-20 14:53:46.706 STDERR [INFO] I0720 14:53:46.695641  5354 net.cpp:399] lstm2_ -> cont
2016-07-20 14:53:46.706 STDERR [INFO] I0720 14:53:46.695713  5354 net.cpp:141] Setting up lstm2_
2016-07-20 14:53:46.706 STDERR [INFO] I0720 14:53:46.695722  5354 net.cpp:148] Top shape: 1 1 1501 (1501)
2016-07-20 14:53:46.706 STDERR [INFO] I0720 14:53:46.695727  5354 net.cpp:148] Top shape: 1 1 (1)
2016-07-20 14:53:46.706 STDERR [INFO] I0720 14:53:46.695731  5354 net.cpp:156] Memory required for data: 6008
2016-07-20 14:53:46.706 STDERR [INFO] I0720 14:53:46.695736  5354 layer_factory.hpp:77] Creating layer lstm2_
2016-07-20 14:53:46.706 STDERR [INFO] I0720 14:53:46.695749  5354 net.cpp:91] Creating Layer lstm2_
2016-07-20 14:53:46.706 STDERR [INFO] I0720 14:53:46.695757  5354 net.cpp:399] lstm2_ -> c_0
2016-07-20 14:53:46.706 STDERR [INFO] I0720 14:53:46.695768  5354 net.cpp:399] lstm2_ -> h_0
2016-07-20 14:53:46.706 STDERR [INFO] I0720 14:53:46.695839  5354 net.cpp:141] Setting up lstm2_
2016-07-20 14:53:46.706 STDERR [INFO] I0720 14:53:46.695848  5354 net.cpp:148] Top shape: 1 1 1000 (1000)
2016-07-20 14:53:46.706 STDERR [INFO] I0720 14:53:46.695854  5354 net.cpp:148] Top shape: 1 1 1000 (1000)
2016-07-20 14:53:46.706 STDERR [INFO] I0720 14:53:46.695858  5354 net.cpp:156] Memory required for data: 14008
2016-07-20 14:53:46.706 STDERR [INFO] I0720 14:53:46.695863  5354 layer_factory.hpp:77] Creating layer lstm2_cont_slice
2016-07-20 14:53:46.706 STDERR [INFO] I0720 14:53:46.695873  5354 net.cpp:91] Creating Layer lstm2_cont_slice
2016-07-20 14:53:46.706 STDERR [INFO] I0720 14:53:46.695878  5354 net.cpp:425] lstm2_cont_slice <- cont
2016-07-20 14:53:46.706 STDERR [INFO] I0720 14:53:46.695888  5354 net.cpp:399] lstm2_cont_slice -> cont_1
2016-07-20 14:53:46.706 STDERR [INFO] I0720 14:53:46.695933  5354 net.cpp:141] Setting up lstm2_cont_slice
2016-07-20 14:53:46.706 STDERR [INFO] I0720 14:53:46.695942  5354 net.cpp:148] Top shape: 1 1 (1)
2016-07-20 14:53:46.706 STDERR [INFO] I0720 14:53:46.695946  5354 net.cpp:156] Memory required for data: 14012
2016-07-20 14:53:46.706 STDERR [INFO] I0720 14:53:46.695951  5354 layer_factory.hpp:77] Creating layer cont_1_lstm2_cont_slice_0_split
2016-07-20 14:53:46.707 STDERR [INFO] I0720 14:53:46.695957  5354 net.cpp:91] Creating Layer cont_1_lstm2_cont_slice_0_split
2016-07-20 14:53:46.707 STDERR [INFO] I0720 14:53:46.695961  5354 net.cpp:425] cont_1_lstm2_cont_slice_0_split <- cont_1
2016-07-20 14:53:46.707 STDERR [INFO] I0720 14:53:46.695968  5354 net.cpp:399] cont_1_lstm2_cont_slice_0_split -> cont_1_lstm2_cont_slice_0_split_0
2016-07-20 14:53:46.707 STDERR [INFO] I0720 14:53:46.695976  5354 net.cpp:399] cont_1_lstm2_cont_slice_0_split -> cont_1_lstm2_cont_slice_0_split_1
2016-07-20 14:53:46.707 STDERR [INFO] I0720 14:53:46.696045  5354 net.cpp:141] Setting up cont_1_lstm2_cont_slice_0_split
2016-07-20 14:53:46.707 STDERR [INFO] I0720 14:53:46.696054  5354 net.cpp:148] Top shape: 1 1 (1)
2016-07-20 14:53:46.707 STDERR [INFO] I0720 14:53:46.696059  5354 net.cpp:148] Top shape: 1 1 (1)
2016-07-20 14:53:46.707 STDERR [INFO] I0720 14:53:46.696063  5354 net.cpp:156] Memory required for data: 14020
2016-07-20 14:53:46.707 STDERR [INFO] I0720 14:53:46.696068  5354 layer_factory.hpp:77] Creating layer lstm2_x_transform
2016-07-20 14:53:46.707 STDERR [INFO] I0720 14:53:46.696079  5354 net.cpp:91] Creating Layer lstm2_x_transform
2016-07-20 14:53:46.707 STDERR [INFO] I0720 14:53:46.696084  5354 net.cpp:425] lstm2_x_transform <- x
2016-07-20 14:53:46.707 STDERR [INFO] I0720 14:53:46.696092  5354 net.cpp:399] lstm2_x_transform -> W_xc_x
2016-07-20 14:53:46.707 STDERR [INFO] I0720 14:53:46.698170  5350 net.cpp:752] Ignoring source layer cross_entropy_loss
2016-07-20 14:53:46.723 b.s.d.executor [INFO] Prepared bolt captioner:(2)
2016-07-20 14:53:46.761 STDERR [INFO] I0720 14:53:46.760888  5354 net.cpp:141] Setting up lstm2_x_transform
2016-07-20 14:53:46.761 STDERR [INFO] I0720 14:53:46.760957  5354 net.cpp:148] Top shape: 1 1 4000 (4000)
2016-07-20 14:53:46.761 STDERR [INFO] I0720 14:53:46.760967  5354 net.cpp:156] Memory required for data: 30020
2016-07-20 14:53:46.761 STDERR [INFO] I0720 14:53:46.760990  5354 layer_factory.hpp:77] Creating layer lstm2_W_xc_x_slice
2016-07-20 14:53:46.761 STDERR [INFO] I0720 14:53:46.761009  5354 net.cpp:91] Creating Layer lstm2_W_xc_x_slice
2016-07-20 14:53:46.761 STDERR [INFO] I0720 14:53:46.761019  5354 net.cpp:425] lstm2_W_xc_x_slice <- W_xc_x
2016-07-20 14:53:46.761 STDERR [INFO] I0720 14:53:46.761041  5354 net.cpp:399] lstm2_W_xc_x_slice -> W_xc_x_1
2016-07-20 14:53:46.761 STDERR [INFO] I0720 14:53:46.761114  5354 net.cpp:141] Setting up lstm2_W_xc_x_slice
2016-07-20 14:53:46.761 STDERR [INFO] I0720 14:53:46.761129  5354 net.cpp:148] Top shape: 1 1 4000 (4000)
2016-07-20 14:53:46.761 STDERR [INFO] I0720 14:53:46.761137  5354 net.cpp:156] Memory required for data: 46020
2016-07-20 14:53:46.762 STDERR [INFO] I0720 14:53:46.761152  5354 layer_factory.hpp:77] Creating layer lstm2_h_conted_0
2016-07-20 14:53:46.762 STDERR [INFO] I0720 14:53:46.761178  5354 net.cpp:91] Creating Layer lstm2_h_conted_0
2016-07-20 14:53:46.762 STDERR [INFO] I0720 14:53:46.761186  5354 net.cpp:425] lstm2_h_conted_0 <- h_0
2016-07-20 14:53:46.762 STDERR [INFO] I0720 14:53:46.761196  5354 net.cpp:425] lstm2_h_conted_0 <- cont_1_lstm2_cont_slice_0_split_0
2016-07-20 14:53:46.762 STDERR [INFO] I0720 14:53:46.761209  5354 net.cpp:399] lstm2_h_conted_0 -> h_conted_0
2016-07-20 14:53:46.762 STDERR [INFO] I0720 14:53:46.761420  5354 net.cpp:141] Setting up lstm2_h_conted_0
2016-07-20 14:53:46.762 STDERR [INFO] I0720 14:53:46.761435  5354 net.cpp:148] Top shape: 1 1 1000 (1000)
2016-07-20 14:53:46.762 STDERR [INFO] I0720 14:53:46.761441  5354 net.cpp:156] Memory required for data: 50020
2016-07-20 14:53:46.762 STDERR [INFO] I0720 14:53:46.761448  5354 layer_factory.hpp:77] Creating layer lstm2_transform_1
2016-07-20 14:53:46.762 STDERR [INFO] I0720 14:53:46.761469  5354 net.cpp:91] Creating Layer lstm2_transform_1
2016-07-20 14:53:46.762 STDERR [INFO] I0720 14:53:46.761478  5354 net.cpp:425] lstm2_transform_1 <- h_conted_0
2016-07-20 14:53:46.762 STDERR [INFO] I0720 14:53:46.761492  5354 net.cpp:399] lstm2_transform_1 -> W_hc_h_0
2016-07-20 14:53:46.826 STDERR [INFO] I0720 14:53:46.825486  5354 net.cpp:141] Setting up lstm2_transform_1
2016-07-20 14:53:46.827 STDERR [INFO] I0720 14:53:46.826794  5354 net.cpp:148] Top shape: 1 1 4000 (4000)
2016-07-20 14:53:46.827 STDERR [INFO] I0720 14:53:46.826818  5354 net.cpp:156] Memory required for data: 66020
2016-07-20 14:53:46.827 STDERR [INFO] I0720 14:53:46.826840  5354 layer_factory.hpp:77] Creating layer lstm2_gate_input_1
2016-07-20 14:53:46.827 STDERR [INFO] I0720 14:53:46.826858  5354 net.cpp:91] Creating Layer lstm2_gate_input_1
2016-07-20 14:53:46.827 STDERR [INFO] I0720 14:53:46.826865  5354 net.cpp:425] lstm2_gate_input_1 <- W_hc_h_0
2016-07-20 14:53:46.827 STDERR [INFO] I0720 14:53:46.826874  5354 net.cpp:425] lstm2_gate_input_1 <- W_xc_x_1
2016-07-20 14:53:46.827 STDERR [INFO] I0720 14:53:46.826896  5354 net.cpp:399] lstm2_gate_input_1 -> gate_input_1
2016-07-20 14:53:46.827 STDERR [INFO] I0720 14:53:46.827023  5354 net.cpp:141] Setting up lstm2_gate_input_1
2016-07-20 14:53:46.827 STDERR [INFO] I0720 14:53:46.827033  5354 net.cpp:148] Top shape: 1 1 4000 (4000)
2016-07-20 14:53:46.827 STDERR [INFO] I0720 14:53:46.827036  5354 net.cpp:156] Memory required for data: 82020
2016-07-20 14:53:46.827 STDERR [INFO] I0720 14:53:46.827041  5354 layer_factory.hpp:77] Creating layer lstm2_unit_1
2016-07-20 14:53:46.827 STDERR [INFO] I0720 14:53:46.827054  5354 net.cpp:91] Creating Layer lstm2_unit_1
2016-07-20 14:53:46.828 STDERR [INFO] I0720 14:53:46.827060  5354 net.cpp:425] lstm2_unit_1 <- c_0
2016-07-20 14:53:46.828 STDERR [INFO] I0720 14:53:46.827065  5354 net.cpp:425] lstm2_unit_1 <- gate_input_1
2016-07-20 14:53:46.828 STDERR [INFO] I0720 14:53:46.827070  5354 net.cpp:425] lstm2_unit_1 <- cont_1_lstm2_cont_slice_0_split_1
2016-07-20 14:53:46.828 STDERR [INFO] I0720 14:53:46.827076  5354 net.cpp:399] lstm2_unit_1 -> c_1
2016-07-20 14:53:46.828 STDERR [INFO] I0720 14:53:46.827085  5354 net.cpp:399] lstm2_unit_1 -> h_1
2016-07-20 14:53:46.828 STDERR [INFO] I0720 14:53:46.827179  5354 net.cpp:141] Setting up lstm2_unit_1
2016-07-20 14:53:46.828 STDERR [INFO] I0720 14:53:46.827189  5354 net.cpp:148] Top shape: 1 1 1000 (1000)
2016-07-20 14:53:46.828 STDERR [INFO] I0720 14:53:46.827194  5354 net.cpp:148] Top shape: 1 1 1000 (1000)
2016-07-20 14:53:46.828 STDERR [INFO] I0720 14:53:46.827198  5354 net.cpp:156] Memory required for data: 90020
2016-07-20 14:53:46.828 STDERR [INFO] I0720 14:53:46.827203  5354 layer_factory.hpp:77] Creating layer lstm2_
2016-07-20 14:53:46.828 STDERR [INFO] I0720 14:53:46.827211  5354 net.cpp:91] Creating Layer lstm2_
2016-07-20 14:53:46.828 STDERR [INFO] I0720 14:53:46.827215  5354 net.cpp:425] lstm2_ <- c_1
2016-07-20 14:53:46.828 STDERR [INFO] I0720 14:53:46.827222  5354 net.cpp:399] lstm2_ -> c_T
2016-07-20 14:53:46.828 STDERR [INFO] I0720 14:53:46.827270  5354 net.cpp:141] Setting up lstm2_
2016-07-20 14:53:46.828 STDERR [INFO] I0720 14:53:46.827287  5354 net.cpp:148] Top shape: 1 1 1000 (1000)
2016-07-20 14:53:46.828 STDERR [INFO] I0720 14:53:46.827291  5354 net.cpp:156] Memory required for data: 94020
2016-07-20 14:53:46.828 STDERR [INFO] I0720 14:53:46.827296  5354 layer_factory.hpp:77] Creating layer lstm2_h_concat
2016-07-20 14:53:46.828 STDERR [INFO] I0720 14:53:46.827303  5354 net.cpp:91] Creating Layer lstm2_h_concat
2016-07-20 14:53:46.829 STDERR [INFO] I0720 14:53:46.827308  5354 net.cpp:425] lstm2_h_concat <- h_1
2016-07-20 14:53:46.829 STDERR [INFO] I0720 14:53:46.827318  5354 net.cpp:399] lstm2_h_concat -> h
2016-07-20 14:53:46.829 STDERR [INFO] I0720 14:53:46.827363  5354 net.cpp:141] Setting up lstm2_h_concat
2016-07-20 14:53:46.829 STDERR [INFO] I0720 14:53:46.827373  5354 net.cpp:148] Top shape: 1 1 1000 (1000)
2016-07-20 14:53:46.829 STDERR [INFO] I0720 14:53:46.827376  5354 net.cpp:156] Memory required for data: 98020
2016-07-20 14:53:46.829 STDERR [INFO] I0720 14:53:46.827380  5354 layer_factory.hpp:77] Creating layer h_pseudoloss
2016-07-20 14:53:46.829 STDERR [INFO] I0720 14:53:46.827392  5354 net.cpp:91] Creating Layer h_pseudoloss
2016-07-20 14:53:46.829 STDERR [INFO] I0720 14:53:46.827397  5354 net.cpp:425] h_pseudoloss <- h
…
