…
Java HotSpot(TM) 64-Bit Server VM warning: You have loaded library /tmp/cvld112358739885097468/libopencv_java310.xine1.so which might have disabled stack guard. The VM will try to fix the stack guard now.
It's highly recommended that you fix the library with 'execstack -c <libfile>', or link it with '-z noexecstack'.
WARNING: Logging before InitGoogleLogging() is written to STDERR
I0720 14:53:44.430409  5366 net.cpp:49] Initializing net from parameters: 
name: "CaffeNet"
state {
  phase: TEST
}
layer {
  name: "data"
  type: "Input"
  top: "data"
  input_param {
    shape {
      dim: 10
      dim: 3
      dim: 227
      dim: 227
    }
  }
}
layer {
  name: "conv1"
  type: "Convolution"
  bottom: "data"
  top: "conv1"
  convolution_param {
    num_output: 96
    kernel_size: 11
    stride: 4
  }
}
layer {
  name: "relu1"
  type: "ReLU"
  bottom: "conv1"
  top: "conv1"
}
layer {
  name: "pool1"
  type: "Pooling"
  bottom: "conv1"
  top: "pool1"
  pooling_param {
    pool: MAX
    kernel_size: 3
    stride: 2
  }
}
layer {
  name: "norm1"
  type: "LRN"
  bottom: "pool1"
  top: "norm1"
  lrn_param {
    local_size: 5
    alpha: 0.0001
    beta: 0.75
  }
}
layer {
  name: "conv2"
  type: "Convolution"
  bottom: "norm1"
  top: "conv2"
  convolution_param {
    num_output: 256
    pad: 2
    kernel_size: 5
    group: 2
  }
}
layer {
  name: "relu2"
  type: "ReLU"
  bottom: "conv2"
  top: "conv2"
}
layer {
  name: "pool2"
  type: "Pooling"
  bottom: "conv2"
  top: "pool2"
  pooling_param {
    pool: MAX
    kernel_size: 3
    stride: 2
  }
}
layer {
  name: "norm2"
  type: "LRN"
  bottom: "pool2"
  top: "norm2"
  lrn_param {
    local_size: 5
    alpha: 0.0001
    beta: 0.75
  }
}
layer {
  name: "conv3"
  type: "Convolution"
  bottom: "norm2"
  top: "conv3"
  convolution_param {
    num_output: 384
    pad: 1
    kernel_size: 3
  }
}
layer {
  name: "relu3"
  type: "ReLU"
  bottom: "conv3"
  top: "conv3"
}
layer {
  name: "conv4"
  type: "Convolution"
  bottom: "conv3"
  top: "conv4"
  convolution_param {
    num_output: 384
    pad: 1
    kernel_size: 3
    group: 2
  }
}
layer {
  name: "relu4"
  type: "ReLU"
  bottom: "conv4"
  top: "conv4"
}
layer {
  name: "conv5"
  type: "Convolution"
  bottom: "conv4"
  top: "conv5"
  convolution_param {
    num_output: 256
    pad: 1
    kernel_size: 3
    group: 2
  }
}
layer {
  name: "relu5"
  type: "ReLU"
  bottom: "conv5"
  top: "conv5"
}
layer {
  name: "pool5"
  type: "Pooling"
  bottom: "conv5"
  top: "pool5"
  pooling_param {
    pool: MAX
    kernel_size: 3
    stride: 2
  }
}
layer {
  name: "fc6"
  type: "InnerProduct"
  bottom: "pool5"
  top: "fc6"
  inner_product_param {
    num_output: 4096
  }
}
layer {
  name: "relu6"
  type: "ReLU"
  bottom: "fc6"
  top: "fc6"
}
layer {
  name: "drop6"
  type: "Dropout"
  bottom: "fc6"
  top: "fc6"
  dropout_param {
    dropout_ratio: 0.5
  }
}
layer {
  name: "fc7"
  type: "InnerProduct"
  bottom: "fc6"
  top: "fc7"
  inner_product_param {
    num_output: 4096
  }
}
layer {
  name: "relu7"
  type: "ReLU"
  bottom: "fc7"
  top: "fc7"
}
layer {
  name: "drop7"
  type: "Dropout"
  bottom: "fc7"
  top: "fc7"
  dropout_param {
    dropout_ratio: 0.5
  }
}
layer {
  name: "fc8"
  type: "InnerProduct"
  bottom: "fc7"
  top: "fc8"
  inner_product_param {
    num_output: 1000
  }
}
layer {
  name: "prob"
  type: "Softmax"
  bottom: "fc8"
  top: "prob"
}
I0720 14:53:44.430594  5366 layer_factory.hpp:77] Creating layer data
I0720 14:53:44.430619  5366 net.cpp:91] Creating Layer data
I0720 14:53:44.430627  5366 net.cpp:399] data -> data
I0720 14:53:44.843401  5350 upgrade_proto.cpp:66] Attempting to upgrade input file specified using deprecated input fields: /tmp/cvld112358739885097468/s2vt.words_to_preds.prototxt
I0720 14:53:44.843448  5350 upgrade_proto.cpp:69] Successfully upgraded file specified using deprecated input fields.
W0720 14:53:44.843456  5350 upgrade_proto.cpp:71] Note that future Caffe releases will only support input layers and not input fields.
I0720 14:53:44.843705  5350 net.cpp:49] Initializing net from parameters: 
name: "s2vt:features_to_lstm"
state {
  phase: TEST
}
layer {
  name: "input"
  type: "Input"
  top: "frames_fc7"
  top: "cont_sentence"
  top: "input_sentence"
  top: "stage_indicator"
  input_param {
    shape {
      dim: 1
      dim: 4096
    }
    shape {
      dim: 1
      dim: 1
    }
    shape {
      dim: 1
      dim: 1
    }
    shape {
      dim: 1
      dim: 1
    }
  }
}
layer {
  name: "embed_encoder"
  type: "InnerProduct"
  bottom: "frames_fc7"
  top: "embedded_in_frames"
  param {
    lr_mult: 1
    decay_mult: 1
  }
  param {
    lr_mult: 2
    decay_mult: 0
  }
  inner_product_param {
    num_output: 500
    weight_filler {
      type: "xavier"
    }
    bias_filler {
      type: "constant"
      value: 0.2
    }
  }
}
layer {
  name: "reshape_frames"
  type: "Reshape"
  bottom: "embedded_in_frames"
  top: "embedded_input_frames"
  reshape_param {
    shape {
      dim: 1
      dim: 1
      dim: 500
    }
  }
}
layer {
  name: "reshape_stage_indicator"
  type: "Reshape"
  bottom: "stage_indicator"
  top: "reshaped_stage_indicator"
  reshape_param {
    shape {
      dim: 1
      dim: 1
      dim: 1
    }
  }
}
layer {
  name: "embedding"
  type: "Embed"
  bottom: "input_sentence"
  top: "embedded_input_sentence"
  param {
    lr_mult: 1
  }
  embed_param {
    num_output: 500
    input_dim: 46168
    bias_term: false
    weight_filler {
      type: "uniform"
      min: -0.08
      max: 0.08
    }
  }
}
layer {
  name: "lstm1"
  type: "LSTM"
  bottom: "embedded_input_frames"
  bottom: "cont_sentence"
  top: "lstm1"
  recurrent_param {
    num_output: 1000
    weight_filler {
      type: "uniform"
      min: -0.08
      max: 0.08
    }
    bias_filler {
      type: "constant"
      value: 0
    }
  }
}
layer {
  name: "concat"
  type: "Concat"
  bottom: "lstm1"
  bottom: "embedded_input_sentence"
  bottom: "reshaped_stage_indicator"
  top: "lstm1_video_sequence"
  concat_param {
    concat_dim: 2
  }
}
layer {
  name: "lstm2"
  type: "LSTM"
  bottom: "lstm1_video_sequence"
  bottom: "cont_sentence"
  top: "lstm2"
  recurrent_param {
    num_output: 1000
    weight_filler {
      type: "uniform"
      min: -0.08
      max: 0.08
    }
    bias_filler {
      type: "constant"
      value: 0
    }
  }
}
layer {
  name: "predict"
  type: "InnerProduct"
  bottom: "lstm2"
  top: "predict"
  param {
    lr_mult: 1
    decay_mult: 1
  }
  param {
    lr_mult: 2
    decay_mult: 0
  }
  inner_product_param {
    num_output: 46168
    weight_filler {
      type: "uniform"
      min: -0.08
      max: 0.08
    }
    bias_filler {
      type: "constant"
      value: 0
    }
    axis: 2
  }
}
layer {
  name: "probs"
  type: "Softmax"
  bottom: "predict"
  top: "probs"
  softmax_param {
    axis: 2
  }
}
I0720 14:53:44.843828  5350 layer_factory.hpp:77] Creating layer input
I0720 14:53:44.843843  5350 net.cpp:91] Creating Layer input
I0720 14:53:44.843852  5350 net.cpp:399] input -> frames_fc7
I0720 14:53:44.843868  5350 net.cpp:399] input -> cont_sentence
I0720 14:53:44.843880  5350 net.cpp:399] input -> input_sentence
I0720 14:53:44.843891  5350 net.cpp:399] input -> stage_indicator
I0720 14:53:45.058069  5366 net.cpp:141] Setting up data
I0720 14:53:45.058140  5366 net.cpp:148] Top shape: 10 3 227 227 (1545870)
I0720 14:53:45.058145  5366 net.cpp:156] Memory required for data: 6183480
I0720 14:53:45.058151  5350 net.cpp:141] Setting up input
I0720 14:53:45.058162  5366 layer_factory.hpp:77] Creating layer conv1
I0720 14:53:45.058171  5350 net.cpp:148] Top shape: 1 4096 (4096)
I0720 14:53:45.058177  5350 net.cpp:148] Top shape: 1 1 (1)
I0720 14:53:45.058183  5350 net.cpp:148] Top shape: 1 1 (1)
I0720 14:53:45.058188  5350 net.cpp:148] Top shape: 1 1 (1)
I0720 14:53:45.058188  5366 net.cpp:91] Creating Layer conv1
I0720 14:53:45.058192  5350 net.cpp:156] Memory required for data: 16396
I0720 14:53:45.058197  5366 net.cpp:425] conv1 <- data
I0720 14:53:45.058197  5350 layer_factory.hpp:77] Creating layer cont_sentence_input_1_split
I0720 14:53:45.058210  5366 net.cpp:399] conv1 -> conv1
I0720 14:53:45.058219  5350 net.cpp:91] Creating Layer cont_sentence_input_1_split
I0720 14:53:45.058225  5350 net.cpp:425] cont_sentence_input_1_split <- cont_sentence
I0720 14:53:45.058248  5350 net.cpp:399] cont_sentence_input_1_split -> cont_sentence_input_1_split_0
I0720 14:53:45.058261  5350 net.cpp:399] cont_sentence_input_1_split -> cont_sentence_input_1_split_1
I0720 14:53:45.058468  5350 net.cpp:141] Setting up cont_sentence_input_1_split
I0720 14:53:45.058482  5350 net.cpp:148] Top shape: 1 1 (1)
I0720 14:53:45.058488  5350 net.cpp:148] Top shape: 1 1 (1)
I0720 14:53:45.058492  5350 net.cpp:156] Memory required for data: 16404
I0720 14:53:45.058497  5350 layer_factory.hpp:77] Creating layer embed_encoder
I0720 14:53:45.058544  5350 net.cpp:91] Creating Layer embed_encoder
I0720 14:53:45.058552  5350 net.cpp:425] embed_encoder <- frames_fc7
I0720 14:53:45.058562  5350 net.cpp:399] embed_encoder -> embedded_in_frames
I0720 14:53:45.087751  5350 net.cpp:141] Setting up embed_encoder
I0720 14:53:45.087800  5350 net.cpp:148] Top shape: 1 500 (500)
I0720 14:53:45.087811  5350 net.cpp:156] Memory required for data: 18404
I0720 14:53:45.087846  5350 layer_factory.hpp:77] Creating layer reshape_frames
I0720 14:53:45.088176  5350 net.cpp:91] Creating Layer reshape_frames
I0720 14:53:45.088193  5350 net.cpp:425] reshape_frames <- embedded_in_frames
I0720 14:53:45.088212  5350 net.cpp:399] reshape_frames -> embedded_input_frames
I0720 14:53:45.088279  5350 net.cpp:141] Setting up reshape_frames
I0720 14:53:45.088295  5350 net.cpp:148] Top shape: 1 1 500 (500)
I0720 14:53:45.088304  5350 net.cpp:156] Memory required for data: 20404
I0720 14:53:45.088311  5350 layer_factory.hpp:77] Creating layer reshape_stage_indicator
I0720 14:53:45.088327  5350 net.cpp:91] Creating Layer reshape_stage_indicator
I0720 14:53:45.088335  5350 net.cpp:425] reshape_stage_indicator <- stage_indicator
I0720 14:53:45.088351  5350 net.cpp:399] reshape_stage_indicator -> reshaped_stage_indicator
I0720 14:53:45.088407  5350 net.cpp:141] Setting up reshape_stage_indicator
I0720 14:53:45.088423  5350 net.cpp:148] Top shape: 1 1 1 (1)
I0720 14:53:45.088430  5350 net.cpp:156] Memory required for data: 20408
I0720 14:53:45.088438  5350 layer_factory.hpp:77] Creating layer embedding
I0720 14:53:45.088454  5350 net.cpp:91] Creating Layer embedding
I0720 14:53:45.088462  5350 net.cpp:425] embedding <- input_sentence
I0720 14:53:45.088479  5350 net.cpp:399] embedding -> embedded_input_sentence
I0720 14:53:45.332495  5350 net.cpp:141] Setting up embedding
I0720 14:53:45.332537  5350 net.cpp:148] Top shape: 1 1 500 (500)
I0720 14:53:45.332542  5350 net.cpp:156] Memory required for data: 22408
I0720 14:53:45.332558  5350 layer_factory.hpp:77] Creating layer lstm1
I0720 14:53:45.332577  5350 net.cpp:91] Creating Layer lstm1
I0720 14:53:45.332584  5350 net.cpp:425] lstm1 <- embedded_input_frames
I0720 14:53:45.332592  5350 net.cpp:425] lstm1 <- cont_sentence_input_1_split_0
I0720 14:53:45.332602  5350 net.cpp:399] lstm1 -> lstm1
I0720 14:53:45.332640  5350 recurrent_layer.cpp:20] Initializing recurrent layer: assuming input batch contains 1 timesteps of 1 independent streams.
I0720 14:53:45.332980  5350 net.cpp:49] Initializing net from parameters: 
layer {
  name: "lstm1_"
  type: "Input"
  top: "x"
  top: "cont"
  input_param {
    shape {
      dim: 1
      dim: 1
      dim: 500
    }
    shape {
      dim: 1
      dim: 1
    }
  }
}
layer {
  name: "lstm1_"
  type: "Input"
  top: "c_0"
  top: "h_0"
  input_param {
    shape {
      dim: 1
      dim: 1
      dim: 1000
    }
    shape {
      dim: 1
      dim: 1
      dim: 1000
    }
  }
}
layer {
  name: "lstm1_cont_slice"
  type: "Slice"
  bottom: "cont"
  top: "cont_1"
  slice_param {
    axis: 0
  }
}
layer {
  name: "lstm1_x_transform"
  type: "InnerProduct"
  bottom: "x"
  top: "W_xc_x"
  param {
    name: "W_xc"
  }
  param {
    name: "b_c"
  }
  propagate_down: true
  inner_product_param {
    num_output: 4000
    bias_term: true
    weight_filler {
      type: "uniform"
      min: -0.08
      max: 0.08
    }
    bias_filler {
      type: "constant"
      value: 0
    }
    axis: 2
  }
}
layer {
  name: "lstm1_W_xc_x_slice"
  type: "Slice"
  bottom: "W_xc_x"
  top: "W_xc_x_1"
  slice_param {
    axis: 0
  }
}
layer {
  name: "lstm1_h_conted_0"
  type: "Scale"
  bottom: "h_0"
  bottom: "cont_1"
  top: "h_conted_0"
  scale_param {
    axis: 0
  }
}
layer {
  name: "lstm1_transform_1"
  type: "InnerProduct"
  bottom: "h_conted_0"
  top: "W_hc_h_0"
  param {
    name: "W_hc"
  }
  inner_product_param {
    num_output: 4000
    bias_term: false
    weight_filler {
      type: "uniform"
      min: -0.08
      max: 0.08
    }
    axis: 2
  }
}
layer {
  name: "lstm1_gate_input_1"
  type: "Eltwise"
  bottom: "W_hc_h_0"
  bottom: "W_xc_x_1"
  top: "gate_input_1"
  eltwise_param {
    operation: SUM
  }
}
layer {
  name: "lstm1_unit_1"
  type: "LSTMUnit"
  bottom: "c_0"
  bottom: "gate_input_1"
  bottom: "cont_1"
  top: "c_1"
  top: "h_1"
}
layer {
  name: "lstm1_"
  type: "Split"
  bottom: "c_1"
  top: "c_T"
}
layer {
  name: "lstm1_h_concat"
  type: "Concat"
  bottom: "h_1"
  top: "h"
  concat_param {
    axis: 0
  }
}
layer {
  name: "h_pseudoloss"
  type: "Reduction"
  bottom: "h"
  top: "h_pseudoloss"
  loss_weight: 1
}
I0720 14:53:45.333070  5350 layer_factory.hpp:77] Creating layer lstm1_
I0720 14:53:45.333082  5350 net.cpp:91] Creating Layer lstm1_
I0720 14:53:45.333088  5350 net.cpp:399] lstm1_ -> x
I0720 14:53:45.333101  5350 net.cpp:399] lstm1_ -> cont
I0720 14:53:45.338721  5350 net.cpp:141] Setting up lstm1_
I0720 14:53:45.338747  5350 net.cpp:148] Top shape: 1 1 500 (500)
I0720 14:53:45.338753  5350 net.cpp:148] Top shape: 1 1 (1)
I0720 14:53:45.338757  5350 net.cpp:156] Memory required for data: 2004
I0720 14:53:45.338763  5350 layer_factory.hpp:77] Creating layer lstm1_
I0720 14:53:45.338780  5350 net.cpp:91] Creating Layer lstm1_
I0720 14:53:45.338796  5350 net.cpp:399] lstm1_ -> c_0
I0720 14:53:45.338811  5350 net.cpp:399] lstm1_ -> h_0
I0720 14:53:45.345909  5350 net.cpp:141] Setting up lstm1_
I0720 14:53:45.345938  5350 net.cpp:148] Top shape: 1 1 1000 (1000)
I0720 14:53:45.345945  5350 net.cpp:148] Top shape: 1 1 1000 (1000)
I0720 14:53:45.345948  5350 net.cpp:156] Memory required for data: 10004
I0720 14:53:45.345955  5350 layer_factory.hpp:77] Creating layer lstm1_cont_slice
I0720 14:53:45.345969  5350 net.cpp:91] Creating Layer lstm1_cont_slice
I0720 14:53:45.345975  5350 net.cpp:425] lstm1_cont_slice <- cont
I0720 14:53:45.345988  5350 net.cpp:399] lstm1_cont_slice -> cont_1
I0720 14:53:45.355114  5350 net.cpp:141] Setting up lstm1_cont_slice
I0720 14:53:45.355159  5350 net.cpp:148] Top shape: 1 1 (1)
I0720 14:53:45.355170  5350 net.cpp:156] Memory required for data: 10008
I0720 14:53:45.355181  5350 layer_factory.hpp:77] Creating layer cont_1_lstm1_cont_slice_0_split
I0720 14:53:45.355206  5350 net.cpp:91] Creating Layer cont_1_lstm1_cont_slice_0_split
I0720 14:53:45.355217  5350 net.cpp:425] cont_1_lstm1_cont_slice_0_split <- cont_1
I0720 14:53:45.355232  5350 net.cpp:399] cont_1_lstm1_cont_slice_0_split -> cont_1_lstm1_cont_slice_0_split_0
I0720 14:53:45.355248  5350 net.cpp:399] cont_1_lstm1_cont_slice_0_split -> cont_1_lstm1_cont_slice_0_split_1
I0720 14:53:45.358477  5350 net.cpp:141] Setting up cont_1_lstm1_cont_slice_0_split
I0720 14:53:45.358505  5350 net.cpp:148] Top shape: 1 1 (1)
I0720 14:53:45.358516  5350 net.cpp:148] Top shape: 1 1 (1)
I0720 14:53:45.358525  5350 net.cpp:156] Memory required for data: 10016
I0720 14:53:45.358533  5350 layer_factory.hpp:77] Creating layer lstm1_x_transform
I0720 14:53:45.358559  5350 net.cpp:91] Creating Layer lstm1_x_transform
I0720 14:53:45.358569  5350 net.cpp:425] lstm1_x_transform <- x
I0720 14:53:45.358585  5350 net.cpp:399] lstm1_x_transform -> W_xc_x
I0720 14:53:45.409102  5350 net.cpp:141] Setting up lstm1_x_transform
I0720 14:53:45.409142  5350 net.cpp:148] Top shape: 1 1 4000 (4000)
I0720 14:53:45.409147  5350 net.cpp:156] Memory required for data: 26016
I0720 14:53:45.409168  5350 layer_factory.hpp:77] Creating layer lstm1_W_xc_x_slice
I0720 14:53:45.409185  5350 net.cpp:91] Creating Layer lstm1_W_xc_x_slice
I0720 14:53:45.409193  5350 net.cpp:425] lstm1_W_xc_x_slice <- W_xc_x
I0720 14:53:45.409201  5350 net.cpp:399] lstm1_W_xc_x_slice -> W_xc_x_1
I0720 14:53:45.413305  5350 net.cpp:141] Setting up lstm1_W_xc_x_slice
I0720 14:53:45.413339  5350 net.cpp:148] Top shape: 1 1 4000 (4000)
I0720 14:53:45.413349  5350 net.cpp:156] Memory required for data: 42016
I0720 14:53:45.413359  5350 layer_factory.hpp:77] Creating layer lstm1_h_conted_0
I0720 14:53:45.413378  5350 net.cpp:91] Creating Layer lstm1_h_conted_0
I0720 14:53:45.413388  5350 net.cpp:425] lstm1_h_conted_0 <- h_0
I0720 14:53:45.413398  5350 net.cpp:425] lstm1_h_conted_0 <- cont_1_lstm1_cont_slice_0_split_0
I0720 14:53:45.413416  5350 net.cpp:399] lstm1_h_conted_0 -> h_conted_0
I0720 14:53:45.441830  5350 net.cpp:141] Setting up lstm1_h_conted_0
I0720 14:53:45.441880  5350 net.cpp:148] Top shape: 1 1 1000 (1000)
I0720 14:53:45.441892  5350 net.cpp:156] Memory required for data: 46016
I0720 14:53:45.441905  5350 layer_factory.hpp:77] Creating layer lstm1_transform_1
I0720 14:53:45.441932  5350 net.cpp:91] Creating Layer lstm1_transform_1
I0720 14:53:45.441944  5350 net.cpp:425] lstm1_transform_1 <- h_conted_0
I0720 14:53:45.441968  5350 net.cpp:399] lstm1_transform_1 -> W_hc_h_0
I0720 14:53:45.508410  5350 net.cpp:141] Setting up lstm1_transform_1
I0720 14:53:45.508463  5350 net.cpp:148] Top shape: 1 1 4000 (4000)
I0720 14:53:45.508476  5350 net.cpp:156] Memory required for data: 62016
I0720 14:53:45.508502  5350 layer_factory.hpp:77] Creating layer lstm1_gate_input_1
I0720 14:53:45.508538  5350 net.cpp:91] Creating Layer lstm1_gate_input_1
I0720 14:53:45.508551  5350 net.cpp:425] lstm1_gate_input_1 <- W_hc_h_0
I0720 14:53:45.508564  5350 net.cpp:425] lstm1_gate_input_1 <- W_xc_x_1
I0720 14:53:45.508579  5350 net.cpp:399] lstm1_gate_input_1 -> gate_input_1
I0720 14:53:45.509660  5366 net.cpp:141] Setting up conv1
I0720 14:53:45.509694  5366 net.cpp:148] Top shape: 10 96 55 55 (2904000)
I0720 14:53:45.509701  5366 net.cpp:156] Memory required for data: 17799480
I0720 14:53:45.509716  5366 layer_factory.hpp:77] Creating layer relu1
I0720 14:53:45.509730  5366 net.cpp:91] Creating Layer relu1
I0720 14:53:45.509738  5366 net.cpp:425] relu1 <- conv1
I0720 14:53:45.509747  5366 net.cpp:386] relu1 -> conv1 (in-place)
I0720 14:53:45.511803  5350 net.cpp:141] Setting up lstm1_gate_input_1
I0720 14:53:45.511827  5350 net.cpp:148] Top shape: 1 1 4000 (4000)
I0720 14:53:45.511837  5350 net.cpp:156] Memory required for data: 78016
I0720 14:53:45.511845  5350 layer_factory.hpp:77] Creating layer lstm1_unit_1
I0720 14:53:45.511859  5350 net.cpp:91] Creating Layer lstm1_unit_1
I0720 14:53:45.511868  5350 net.cpp:425] lstm1_unit_1 <- c_0
I0720 14:53:45.511879  5350 net.cpp:425] lstm1_unit_1 <- gate_input_1
I0720 14:53:45.511889  5350 net.cpp:425] lstm1_unit_1 <- cont_1_lstm1_cont_slice_0_split_1
I0720 14:53:45.511904  5350 net.cpp:399] lstm1_unit_1 -> c_1
I0720 14:53:45.511920  5350 net.cpp:399] lstm1_unit_1 -> h_1
I0720 14:53:45.511932  5366 net.cpp:141] Setting up relu1
I0720 14:53:45.511950  5366 net.cpp:148] Top shape: 10 96 55 55 (2904000)
I0720 14:53:45.511955  5366 net.cpp:156] Memory required for data: 29415480
I0720 14:53:45.511960  5366 layer_factory.hpp:77] Creating layer pool1
I0720 14:53:45.511976  5366 net.cpp:91] Creating Layer pool1
I0720 14:53:45.511981  5366 net.cpp:425] pool1 <- conv1
I0720 14:53:45.511989  5366 net.cpp:399] pool1 -> pool1
I0720 14:53:45.512576  5366 net.cpp:141] Setting up pool1
I0720 14:53:45.512593  5366 net.cpp:148] Top shape: 10 96 27 27 (699840)
I0720 14:53:45.512598  5366 net.cpp:156] Memory required for data: 32214840
I0720 14:53:45.512603  5366 layer_factory.hpp:77] Creating layer norm1
I0720 14:53:45.512619  5350 net.cpp:141] Setting up lstm1_unit_1
I0720 14:53:45.512622  5366 net.cpp:91] Creating Layer norm1
I0720 14:53:45.512640  5366 net.cpp:425] norm1 <- pool1
I0720 14:53:45.512642  5350 net.cpp:148] Top shape: 1 1 1000 (1000)
I0720 14:53:45.512647  5366 net.cpp:399] norm1 -> norm1
I0720 14:53:45.512655  5350 net.cpp:148] Top shape: 1 1 1000 (1000)
I0720 14:53:45.512663  5350 net.cpp:156] Memory required for data: 86016
I0720 14:53:45.512672  5350 layer_factory.hpp:77] Creating layer lstm1_
I0720 14:53:45.512691  5350 net.cpp:91] Creating Layer lstm1_
I0720 14:53:45.512699  5350 net.cpp:425] lstm1_ <- c_1
I0720 14:53:45.512712  5350 net.cpp:399] lstm1_ -> c_T
I0720 14:53:45.514101  5350 net.cpp:141] Setting up lstm1_
I0720 14:53:45.514122  5350 net.cpp:148] Top shape: 1 1 1000 (1000)
I0720 14:53:45.514129  5350 net.cpp:156] Memory required for data: 90016
I0720 14:53:45.514139  5350 layer_factory.hpp:77] Creating layer lstm1_h_concat
I0720 14:53:45.514158  5350 net.cpp:91] Creating Layer lstm1_h_concat
I0720 14:53:45.514168  5350 net.cpp:425] lstm1_h_concat <- h_1
I0720 14:53:45.514179  5350 net.cpp:399] lstm1_h_concat -> h
I0720 14:53:45.514247  5366 net.cpp:141] Setting up norm1
I0720 14:53:45.514264  5366 net.cpp:148] Top shape: 10 96 27 27 (699840)
I0720 14:53:45.514269  5366 net.cpp:156] Memory required for data: 35014200
I0720 14:53:45.514276  5366 layer_factory.hpp:77] Creating layer conv2
I0720 14:53:45.514293  5366 net.cpp:91] Creating Layer conv2
I0720 14:53:45.514294  5350 net.cpp:141] Setting up lstm1_h_concat
I0720 14:53:45.514298  5366 net.cpp:425] conv2 <- norm1
I0720 14:53:45.514315  5350 net.cpp:148] Top shape: 1 1 1000 (1000)
I0720 14:53:45.514319  5366 net.cpp:399] conv2 -> conv2
I0720 14:53:45.514324  5350 net.cpp:156] Memory required for data: 94016
I0720 14:53:45.514333  5350 layer_factory.hpp:77] Creating layer h_pseudoloss
I0720 14:53:45.514353  5350 net.cpp:91] Creating Layer h_pseudoloss
I0720 14:53:45.514361  5350 net.cpp:425] h_pseudoloss <- h
I0720 14:53:45.514374  5350 net.cpp:399] h_pseudoloss -> h_pseudoloss
…
I0720 14:53:45.514797  5350 net.cpp:219] lstm1_ does not need backward computation.
I0720 14:53:45.514803  5350 net.cpp:261] This network produces output c_T
I0720 14:53:45.514812  5350 net.cpp:261] This network produces output h_pseudoloss
I0720 14:53:45.514844  5350 net.cpp:274] Network initialization done.
I0720 14:53:45.514915  5350 recurrent_layer.cpp:150] Adding parameter 0: W_xc
I0720 14:53:45.514926  5350 recurrent_layer.cpp:150] Adding parameter 1: b_c
I0720 14:53:45.514935  5350 recurrent_layer.cpp:150] Adding parameter 2: W_hc
I0720 14:53:45.526711  5350 net.cpp:141] Setting up lstm1
I0720 14:53:45.526744  5350 net.cpp:148] Top shape: 1 1 1000 (1000)
I0720 14:53:45.526753  5350 net.cpp:156] Memory required for data: 26408
I0720 14:53:45.526777  5350 layer_factory.hpp:77] Creating layer concat
I0720 14:53:45.526793  5350 net.cpp:91] Creating Layer concat
I0720 14:53:45.526803  5350 net.cpp:425] concat <- lstm1
I0720 14:53:45.526814  5350 net.cpp:425] concat <- embedded_input_sentence
I0720 14:53:45.526823  5350 net.cpp:425] concat <- reshaped_stage_indicator
I0720 14:53:45.526835  5350 net.cpp:399] concat -> lstm1_video_sequence
I0720 14:53:45.527063  5350 net.cpp:141] Setting up concat
I0720 14:53:45.527078  5350 net.cpp:148] Top shape: 1 1 1501 (1501)
I0720 14:53:45.527086  5350 net.cpp:156] Memory required for data: 32412
I0720 14:53:45.527120  5350 layer_factory.hpp:77] Creating layer lstm2
I0720 14:53:45.527139  5350 net.cpp:91] Creating Layer lstm2
I0720 14:53:45.527148  5350 net.cpp:425] lstm2 <- lstm1_video_sequence
I0720 14:53:45.527158  5350 net.cpp:425] lstm2 <- cont_sentence_input_1_split_1
I0720 14:53:45.527171  5350 net.cpp:399] lstm2 -> lstm2
I0720 14:53:45.527187  5350 recurrent_layer.cpp:20] Initializing recurrent layer: assuming input batch contains 1 timesteps of 1 independent streams.
I0720 14:53:45.527542  5350 net.cpp:49] Initializing net from parameters: 
layer {
  name: "lstm2_"
  type: "Input"
  top: "x"
  top: "cont"
  input_param {
    shape {
      dim: 1
      dim: 1
      dim: 1501
    }
    shape {
      dim: 1
      dim: 1
    }
  }
}
layer {
  name: "lstm2_"
  type: "Input"
  top: "c_0"
  top: "h_0"
  input_param {
    shape {
      dim: 1
      dim: 1
      dim: 1000
    }
    shape {
      dim: 1
      dim: 1
      dim: 1000
    }
  }
}
layer {
  name: "lstm2_cont_slice"
  type: "Slice"
  bottom: "cont"
  top: "cont_1"
  slice_param {
    axis: 0
  }
}
layer {
  name: "lstm2_x_transform"
  type: "InnerProduct"
  bottom: "x"
  top: "W_xc_x"
  param {
    name: "W_xc"
  }
  param {
    name: "b_c"
  }
  propagate_down: true
  inner_product_param {
    num_output: 4000
    bias_term: true
    weight_filler {
      type: "uniform"
      min: -0.08
      max: 0.08
    }
    bias_filler {
      type: "constant"
      value: 0
    }
    axis: 2
  }
}
layer {
  name: "lstm2_W_xc_x_slice"
  type: "Slice"
  bottom: "W_xc_x"
  top: "W_xc_x_1"
  slice_param {
    axis: 0
  }
}
layer {
  name: "lstm2_h_conted_0"
  type: "Scale"
  bottom: "h_0"
  bottom: "cont_1"
  top: "h_conted_0"
  scale_param {
    axis: 0
  }
}
layer {
  name: "lstm2_transform_1"
  type: "InnerProduct"
  bottom: "h_conted_0"
  top: "W_hc_h_0"
  param {
    name: "W_hc"
  }
  inner_product_param {
    num_output: 4000
    bias_term: false
    weight_filler {
      type: "uniform"
      min: -0.08
      max: 0.08
    }
    axis: 2
  }
}
layer {
  name: "lstm2_gate_input_1"
  type: "Eltwise"
  bottom: "W_hc_h_0"
  bottom: "W_xc_x_1"
  top: "gate_input_1"
  eltwise_param {
    operation: SUM
  }
}
layer {
  name: "lstm2_unit_1"
  type: "LSTMUnit"
  bottom: "c_0"
  bottom: "gate_input_1"
  bottom: "cont_1"
  top: "c_1"
  top: "h_1"
}
layer {
  name: "lstm2_"
  type: "Split"
  bottom: "c_1"
  top: "c_T"
}
layer {
  name: "lstm2_h_concat"
  type: "Concat"
  bottom: "h_1"
  top: "h"
  concat_param {
    axis: 0
  }
}
layer {
  name: "h_pseudoloss"
  type: "Reduction"
  bottom: "h"
  top: "h_pseudoloss"
  loss_weight: 1
}
I0720 14:53:45.527657  5354 upgrade_proto.cpp:66] Attempting to upgrade input file specified using deprecated input fields: /tmp/cvld112358739885097468/s2vt.words_to_preds.prototxt
I0720 14:53:45.527670  5350 layer_factory.hpp:77] Creating layer lstm2_
I0720 14:53:45.527695  5354 upgrade_proto.cpp:69] Successfully upgraded file specified using deprecated input fields.
W0720 14:53:45.527703  5354 upgrade_proto.cpp:71] Note that future Caffe releases will only support input layers and not input fields.
I0720 14:53:45.527704  5350 net.cpp:91] Creating Layer lstm2_
I0720 14:53:45.527716  5350 net.cpp:399] lstm2_ -> x
I0720 14:53:45.527734  5350 net.cpp:399] lstm2_ -> cont
I0720 14:53:45.527918  5354 net.cpp:49] Initializing net from parameters: 
name: "s2vt:features_to_lstm"
state {
  phase: TEST
}
layer {
  name: "input"
  type: "Input"
  top: "frames_fc7"
  top: "cont_sentence"
  top: "input_sentence"
  top: "stage_indicator"
  input_param {
    shape {
      dim: 1
      dim: 4096
    }
    shape {
      dim: 1
      dim: 1
    }
    shape {
      dim: 1
      dim: 1
    }
    shape {
      dim: 1
      dim: 1
    }
  }
}
layer {
  name: "embed_encoder"
  type: "InnerProduct"
  bottom: "frames_fc7"
  top: "embedded_in_frames"
  param {
    lr_mult: 1
    decay_mult: 1
  }
  param {
    lr_mult: 2
    decay_mult: 0
  }
  inner_product_param {
    num_output: 500
    weight_filler {
      type: "xavier"
    }
    bias_filler {
      type: "constant"
      value: 0.2
    }
  }
}
layer {
  name: "reshape_frames"
  type: "Reshape"
  bottom: "embedded_in_frames"
  top: "embedded_input_frames"
  reshape_param {
    shape {
      dim: 1
      dim: 1
      dim: 500
    }
  }
}
layer {
  name: "reshape_stage_indicator"
  type: "Reshape"
  bottom: "stage_indicator"
  top: "reshaped_stage_indicator"
  reshape_param {
    shape {
      dim: 1
      dim: 1
      dim: 1
    }
  }
}
layer {
  name: "embedding"
  type: "Embed"
  bottom: "input_sentence"
  top: "embedded_input_sentence"
  param {
    lr_mult: 1
  }
  embed_param {
    num_output: 500
    input_dim: 46168
    bias_term: false
    weight_filler {
      type: "uniform"
      min: -0.08
      max: 0.08
    }
  }
}
layer {
  name: "lstm1"
  type: "LSTM"
  bottom: "embedded_input_frames"
  bottom: "cont_sentence"
  top: "lstm1"
  recurrent_param {
    num_output: 1000
    weight_filler {
      type: "uniform"
      min: -0.08
      max: 0.08
    }
    bias_filler {
      type: "constant"
      value: 0
    }
  }
}
layer {
  name: "concat"
  type: "Concat"
  bottom: "lstm1"
  bottom: "embedded_input_sentence"
  bottom: "reshaped_stage_indicator"
  top: "lstm1_video_sequence"
  concat_param {
    concat_dim: 2
  }
}
layer {
  name: "lstm2"
  type: "LSTM"
  bottom: "lstm1_video_sequence"
  bottom: "cont_sentence"
  top: "lstm2"
  recurrent_param {
    num_output: 1000
    weight_filler {
      type: "uniform"
      min: -0.08
      max: 0.08
    }
    bias_filler {
      type: "constant"
      value: 0
    }
  }
}
layer {
  name: "predict"
  type: "InnerProduct"
  bottom: "lstm2"
  top: "predict"
  param {
    lr_mult: 1
    decay_mult: 1
  }
  param {
    lr_mult: 2
    decay_mult: 0
  }
  inner_product_param {
    num_output: 46168
    weight_filler {
      type: "uniform"
      min: -0.08
      max: 0.08
    }
    bias_filler {
      type: "constant"
      value: 0
    }
    axis: 2
  }
}
layer {
  name: "probs"
  type: "Softmax"
  bottom: "predict"
  top: "probs"
  softmax_param {
    axis: 2
  }
}
I0720 14:53:45.528004  5354 layer_factory.hpp:77] Creating layer input
I0720 14:53:45.528018  5354 net.cpp:91] Creating Layer input
I0720 14:53:45.528025  5354 net.cpp:399] input -> frames_fc7
I0720 14:53:45.528041  5354 net.cpp:399] input -> cont_sentence
I0720 14:53:45.528051  5354 net.cpp:399] input -> input_sentence
I0720 14:53:45.528061  5354 net.cpp:399] input -> stage_indicator
I0720 14:53:45.534309  5350 net.cpp:141] Setting up lstm2_
I0720 14:53:45.534332  5350 net.cpp:148] Top shape: 1 1 1501 (1501)
I0720 14:53:45.534343  5350 net.cpp:148] Top shape: 1 1 (1)
I0720 14:53:45.534350  5350 net.cpp:156] Memory required for data: 6008
I0720 14:53:45.534359  5350 layer_factory.hpp:77] Creating layer lstm2_
I0720 14:53:45.534376  5350 net.cpp:91] Creating Layer lstm2_
I0720 14:53:45.534389  5350 net.cpp:399] lstm2_ -> c_0
I0720 14:53:45.534406  5350 net.cpp:399] lstm2_ -> h_0
I0720 14:53:45.542496  5350 net.cpp:141] Setting up lstm2_
I0720 14:53:45.542520  5350 net.cpp:148] Top shape: 1 1 1000 (1000)
I0720 14:53:45.542531  5350 net.cpp:148] Top shape: 1 1 1000 (1000)
I0720 14:53:45.542538  5350 net.cpp:156] Memory required for data: 14008
I0720 14:53:45.542546  5350 layer_factory.hpp:77] Creating layer lstm2_cont_slice
I0720 14:53:45.542565  5350 net.cpp:91] Creating Layer lstm2_cont_slice
I0720 14:53:45.542574  5350 net.cpp:425] lstm2_cont_slice <- cont
I0720 14:53:45.542587  5350 net.cpp:399] lstm2_cont_slice -> cont_1
I0720 14:53:45.548883  5350 net.cpp:141] Setting up lstm2_cont_slice
I0720 14:53:45.548902  5350 net.cpp:148] Top shape: 1 1 (1)
I0720 14:53:45.548910  5350 net.cpp:156] Memory required for data: 14012
I0720 14:53:45.548918  5350 layer_factory.hpp:77] Creating layer cont_1_lstm2_cont_slice_0_split
I0720 14:53:45.548930  5350 net.cpp:91] Creating Layer cont_1_lstm2_cont_slice_0_split
I0720 14:53:45.548944  5350 net.cpp:425] cont_1_lstm2_cont_slice_0_split <- cont_1
I0720 14:53:45.548955  5350 net.cpp:399] cont_1_lstm2_cont_slice_0_split -> cont_1_lstm2_cont_slice_0_split_0
I0720 14:53:45.548969  5350 net.cpp:399] cont_1_lstm2_cont_slice_0_split -> cont_1_lstm2_cont_slice_0_split_1
I0720 14:53:45.549151  5350 net.cpp:141] Setting up cont_1_lstm2_cont_slice_0_split
I0720 14:53:45.549170  5350 net.cpp:148] Top shape: 1 1 (1)
I0720 14:53:45.549180  5350 net.cpp:148] Top shape: 1 1 (1)
I0720 14:53:45.549186  5350 net.cpp:156] Memory required for data: 14020
I0720 14:53:45.549196  5350 layer_factory.hpp:77] Creating layer lstm2_x_transform
I0720 14:53:45.549212  5350 net.cpp:91] Creating Layer lstm2_x_transform
I0720 14:53:45.549221  5350 net.cpp:425] lstm2_x_transform <- x
I0720 14:53:45.549237  5350 net.cpp:399] lstm2_x_transform -> W_xc_x
I0720 14:53:45.596670  5366 net.cpp:141] Setting up conv2
I0720 14:53:45.596721  5366 net.cpp:148] Top shape: 10 256 27 27 (1866240)
I0720 14:53:45.596736  5366 net.cpp:156] Memory required for data: 42479160
I0720 14:53:45.596765  5366 layer_factory.hpp:77] Creating layer relu2
I0720 14:53:45.596786  5366 net.cpp:91] Creating Layer relu2
I0720 14:53:45.596796  5366 net.cpp:425] relu2 <- conv2
I0720 14:53:45.596809  5366 net.cpp:386] relu2 -> conv2 (in-place)
I0720 14:53:45.597973  5366 net.cpp:141] Setting up relu2
I0720 14:53:45.597997  5366 net.cpp:148] Top shape: 10 256 27 27 (1866240)
I0720 14:53:45.598006  5366 net.cpp:156] Memory required for data: 49944120
I0720 14:53:45.598016  5366 layer_factory.hpp:77] Creating layer pool2
I0720 14:53:45.598031  5366 net.cpp:91] Creating Layer pool2
I0720 14:53:45.598039  5366 net.cpp:425] pool2 <- conv2
I0720 14:53:45.598057  5366 net.cpp:399] pool2 -> pool2
I0720 14:53:45.598314  5366 net.cpp:141] Setting up pool2
I0720 14:53:45.598333  5366 net.cpp:148] Top shape: 10 256 13 13 (432640)
I0720 14:53:45.598341  5366 net.cpp:156] Memory required for data: 51674680
I0720 14:53:45.598351  5366 layer_factory.hpp:77] Creating layer norm2
I0720 14:53:45.598368  5366 net.cpp:91] Creating Layer norm2
I0720 14:53:45.598376  5366 net.cpp:425] norm2 <- pool2
I0720 14:53:45.598392  5366 net.cpp:399] norm2 -> norm2
I0720 14:53:45.599022  5366 net.cpp:141] Setting up norm2
I0720 14:53:45.599042  5366 net.cpp:148] Top shape: 10 256 13 13 (432640)
I0720 14:53:45.599050  5366 net.cpp:156] Memory required for data: 53405240
I0720 14:53:45.599059  5366 layer_factory.hpp:77] Creating layer conv3
I0720 14:53:45.599082  5366 net.cpp:91] Creating Layer conv3
I0720 14:53:45.599092  5366 net.cpp:425] conv3 <- norm2
I0720 14:53:45.599107  5366 net.cpp:399] conv3 -> conv3
I0720 14:53:45.618254  5366 net.cpp:141] Setting up conv3
I0720 14:53:45.618296  5366 net.cpp:148] Top shape: 10 384 13 13 (648960)
I0720 14:53:45.618306  5366 net.cpp:156] Memory required for data: 56001080
I0720 14:53:45.618335  5366 layer_factory.hpp:77] Creating layer relu3
I0720 14:53:45.618355  5366 net.cpp:91] Creating Layer relu3
I0720 14:53:45.618365  5366 net.cpp:425] relu3 <- conv3
I0720 14:53:45.618388  5366 net.cpp:386] relu3 -> conv3 (in-place)
I0720 14:53:45.619671  5366 net.cpp:141] Setting up relu3
I0720 14:53:45.619696  5366 net.cpp:148] Top shape: 10 384 13 13 (648960)
I0720 14:53:45.619706  5366 net.cpp:156] Memory required for data: 58596920
I0720 14:53:45.619716  5366 layer_factory.hpp:77] Creating layer conv4
I0720 14:53:45.619745  5366 net.cpp:91] Creating Layer conv4
I0720 14:53:45.619757  5366 net.cpp:425] conv4 <- conv3
I0720 14:53:45.619773  5366 net.cpp:399] conv4 -> conv4
I0720 14:53:45.643903  5350 net.cpp:141] Setting up lstm2_x_transform
I0720 14:53:45.643949  5350 net.cpp:148] Top shape: 1 1 4000 (4000)
I0720 14:53:45.643957  5350 net.cpp:156] Memory required for data: 30020
I0720 14:53:45.643983  5350 layer_factory.hpp:77] Creating layer lstm2_W_xc_x_slice
I0720 14:53:45.644006  5350 net.cpp:91] Creating Layer lstm2_W_xc_x_slice
I0720 14:53:45.644016  5350 net.cpp:425] lstm2_W_xc_x_slice <- W_xc_x
I0720 14:53:45.644031  5350 net.cpp:399] lstm2_W_xc_x_slice -> W_xc_x_1
I0720 14:53:45.645680  5350 net.cpp:141] Setting up lstm2_W_xc_x_slice
I0720 14:53:45.645701  5350 net.cpp:148] Top shape: 1 1 4000 (4000)
I0720 14:53:45.645709  5350 net.cpp:156] Memory required for data: 46020
I0720 14:53:45.645717  5350 layer_factory.hpp:77] Creating layer lstm2_h_conted_0
I0720 14:53:45.645732  5350 net.cpp:91] Creating Layer lstm2_h_conted_0
I0720 14:53:45.645741  5350 net.cpp:425] lstm2_h_conted_0 <- h_0
I0720 14:53:45.645750  5350 net.cpp:425] lstm2_h_conted_0 <- cont_1_lstm2_cont_slice_0_split_0
I0720 14:53:45.645762  5350 net.cpp:399] lstm2_h_conted_0 -> h_conted_0
I0720 14:53:45.651660  5350 net.cpp:141] Setting up lstm2_h_conted_0
I0720 14:53:45.651685  5350 net.cpp:148] Top shape: 1 1 1000 (1000)
I0720 14:53:45.651695  5350 net.cpp:156] Memory required for data: 50020
I0720 14:53:45.651702  5350 layer_factory.hpp:77] Creating layer lstm2_transform_1
I0720 14:53:45.651722  5350 net.cpp:91] Creating Layer lstm2_transform_1
I0720 14:53:45.651731  5350 net.cpp:425] lstm2_transform_1 <- h_conted_0
I0720 14:53:45.651746  5350 net.cpp:399] lstm2_transform_1 -> W_hc_h_0
I0720 14:53:45.686532  5366 net.cpp:141] Setting up conv4
I0720 14:53:45.686580  5366 net.cpp:148] Top shape: 10 384 13 13 (648960)
I0720 14:53:45.686590  5366 net.cpp:156] Memory required for data: 61192760
I0720 14:53:45.686610  5366 layer_factory.hpp:77] Creating layer relu4
I0720 14:53:45.686635  5366 net.cpp:91] Creating Layer relu4
I0720 14:53:45.686646  5366 net.cpp:425] relu4 <- conv4
I0720 14:53:45.686660  5366 net.cpp:386] relu4 -> conv4 (in-place)
I0720 14:53:45.688338  5366 net.cpp:141] Setting up relu4
I0720 14:53:45.688365  5366 net.cpp:148] Top shape: 10 384 13 13 (648960)
I0720 14:53:45.688375  5366 net.cpp:156] Memory required for data: 63788600
I0720 14:53:45.688385  5366 layer_factory.hpp:77] Creating layer conv5
I0720 14:53:45.688411  5366 net.cpp:91] Creating Layer conv5
I0720 14:53:45.688423  5366 net.cpp:425] conv5 <- conv4
I0720 14:53:45.688438  5366 net.cpp:399] conv5 -> conv5
I0720 14:53:45.707927  5366 net.cpp:141] Setting up conv5
I0720 14:53:45.707967  5366 net.cpp:148] Top shape: 10 256 13 13 (432640)
I0720 14:53:45.707976  5366 net.cpp:156] Memory required for data: 65519160
I0720 14:53:45.708001  5366 layer_factory.hpp:77] Creating layer relu5
I0720 14:53:45.708024  5366 net.cpp:91] Creating Layer relu5
I0720 14:53:45.708035  5366 net.cpp:425] relu5 <- conv5
I0720 14:53:45.708048  5366 net.cpp:386] relu5 -> conv5 (in-place)
I0720 14:53:45.709234  5366 net.cpp:141] Setting up relu5
I0720 14:53:45.709255  5366 net.cpp:148] Top shape: 10 256 13 13 (432640)
I0720 14:53:45.709265  5366 net.cpp:156] Memory required for data: 67249720
I0720 14:53:45.709275  5366 layer_factory.hpp:77] Creating layer pool5
I0720 14:53:45.709297  5366 net.cpp:91] Creating Layer pool5
I0720 14:53:45.709309  5366 net.cpp:425] pool5 <- conv5
I0720 14:53:45.709329  5366 net.cpp:399] pool5 -> pool5
I0720 14:53:45.714344  5350 net.cpp:141] Setting up lstm2_transform_1
I0720 14:53:45.714365  5350 net.cpp:148] Top shape: 1 1 4000 (4000)
I0720 14:53:45.714370  5350 net.cpp:156] Memory required for data: 66020
I0720 14:53:45.714381  5350 layer_factory.hpp:77] Creating layer lstm2_gate_input_1
I0720 14:53:45.714380  5366 net.cpp:141] Setting up pool5
I0720 14:53:45.714399  5350 net.cpp:91] Creating Layer lstm2_gate_input_1
I0720 14:53:45.714403  5366 net.cpp:148] Top shape: 10 256 6 6 (92160)
I0720 14:53:45.714406  5350 net.cpp:425] lstm2_gate_input_1 <- W_hc_h_0
I0720 14:53:45.714417  5366 net.cpp:156] Memory required for data: 67618360
I0720 14:53:45.714422  5350 net.cpp:425] lstm2_gate_input_1 <- W_xc_x_1
I0720 14:53:45.714428  5366 layer_factory.hpp:77] Creating layer fc6
I0720 14:53:45.714432  5350 net.cpp:399] lstm2_gate_input_1 -> gate_input_1
I0720 14:53:45.714458  5366 net.cpp:91] Creating Layer fc6
I0720 14:53:45.714469  5366 net.cpp:425] fc6 <- pool5
I0720 14:53:45.714488  5366 net.cpp:399] fc6 -> fc6
I0720 14:53:45.714504  5350 net.cpp:141] Setting up lstm2_gate_input_1
I0720 14:53:45.714515  5350 net.cpp:148] Top shape: 1 1 4000 (4000)
I0720 14:53:45.714519  5350 net.cpp:156] Memory required for data: 82020
I0720 14:53:45.714524  5350 layer_factory.hpp:77] Creating layer lstm2_unit_1
I0720 14:53:45.714534  5350 net.cpp:91] Creating Layer lstm2_unit_1
I0720 14:53:45.714540  5350 net.cpp:425] lstm2_unit_1 <- c_0
I0720 14:53:45.714545  5350 net.cpp:425] lstm2_unit_1 <- gate_input_1
I0720 14:53:45.714550  5350 net.cpp:425] lstm2_unit_1 <- cont_1_lstm2_cont_slice_0_split_1
I0720 14:53:45.714556  5350 net.cpp:399] lstm2_unit_1 -> c_1
I0720 14:53:45.714567  5350 net.cpp:399] lstm2_unit_1 -> h_1
I0720 14:53:45.783215  5350 net.cpp:141] Setting up lstm2_unit_1
I0720 14:53:45.783257  5350 net.cpp:148] Top shape: 1 1 1000 (1000)
I0720 14:53:45.783263  5350 net.cpp:148] Top shape: 1 1 1000 (1000)
I0720 14:53:45.783268  5350 net.cpp:156] Memory required for data: 90020
I0720 14:53:45.783275  5350 layer_factory.hpp:77] Creating layer lstm2_
I0720 14:53:45.783289  5350 net.cpp:91] Creating Layer lstm2_
I0720 14:53:45.783296  5350 net.cpp:425] lstm2_ <- c_1
I0720 14:53:45.783309  5350 net.cpp:399] lstm2_ -> c_T
I0720 14:53:45.783380  5350 net.cpp:141] Setting up lstm2_
I0720 14:53:45.783390  5350 net.cpp:148] Top shape: 1 1 1000 (1000)
I0720 14:53:45.783393  5350 net.cpp:156] Memory required for data: 94020
I0720 14:53:45.783398  5350 layer_factory.hpp:77] Creating layer lstm2_h_concat
I0720 14:53:45.783411  5350 net.cpp:91] Creating Layer lstm2_h_concat
I0720 14:53:45.783416  5350 net.cpp:425] lstm2_h_concat <- h_1
I0720 14:53:45.783422  5350 net.cpp:399] lstm2_h_concat -> h
I0720 14:53:45.783488  5350 net.cpp:141] Setting up lstm2_h_concat
I0720 14:53:45.783498  5350 net.cpp:148] Top shape: 1 1 1000 (1000)
I0720 14:53:45.783501  5350 net.cpp:156] Memory required for data: 98020
I0720 14:53:45.783506  5350 layer_factory.hpp:77] Creating layer h_pseudoloss
I0720 14:53:45.783517  5350 net.cpp:91] Creating Layer h_pseudoloss
I0720 14:53:45.783522  5350 net.cpp:425] h_pseudoloss <- h
I0720 14:53:45.783529  5350 net.cpp:399] h_pseudoloss -> h_pseudoloss
I0720 14:53:45.797466  5350 net.cpp:141] Setting up h_pseudoloss
…
I0720 14:53:45.797600  5350 net.cpp:219] lstm2_ does not need backward computation.
I0720 14:53:45.797602  5350 net.cpp:261] This network produces output c_T
I0720 14:53:45.797608  5350 net.cpp:261] This network produces output h_pseudoloss
I0720 14:53:45.797627  5350 net.cpp:274] Network initialization done.
I0720 14:53:45.797685  5350 recurrent_layer.cpp:150] Adding parameter 0: W_xc
I0720 14:53:45.797693  5350 recurrent_layer.cpp:150] Adding parameter 1: b_c
I0720 14:53:45.797696  5350 recurrent_layer.cpp:150] Adding parameter 2: W_hc
I0720 14:53:45.798022  5350 net.cpp:141] Setting up lstm2
I0720 14:53:45.798034  5350 net.cpp:148] Top shape: 1 1 1000 (1000)
I0720 14:53:45.798038  5350 net.cpp:156] Memory required for data: 36412
I0720 14:53:45.798054  5350 layer_factory.hpp:77] Creating layer predict
I0720 14:53:45.798070  5350 net.cpp:91] Creating Layer predict
I0720 14:53:45.798076  5350 net.cpp:425] predict <- lstm2
I0720 14:53:45.798085  5350 net.cpp:399] predict -> predict
I0720 14:53:45.880111  5366 net.cpp:141] Setting up fc6
I0720 14:53:45.880156  5366 net.cpp:148] Top shape: 10 4096 (40960)
I0720 14:53:45.880164  5366 net.cpp:156] Memory required for data: 67782200
I0720 14:53:45.880184  5366 layer_factory.hpp:77] Creating layer relu6
I0720 14:53:45.880203  5366 net.cpp:91] Creating Layer relu6
I0720 14:53:45.880213  5366 net.cpp:425] relu6 <- fc6
I0720 14:53:45.880236  5366 net.cpp:386] relu6 -> fc6 (in-place)
I0720 14:53:45.880693  5366 net.cpp:141] Setting up relu6
I0720 14:53:45.880712  5366 net.cpp:148] Top shape: 10 4096 (40960)
I0720 14:53:45.880720  5366 net.cpp:156] Memory required for data: 67946040
I0720 14:53:45.880728  5366 layer_factory.hpp:77] Creating layer drop6
I0720 14:53:45.880748  5366 net.cpp:91] Creating Layer drop6
I0720 14:53:45.880758  5366 net.cpp:425] drop6 <- fc6
I0720 14:53:45.880774  5366 net.cpp:386] drop6 -> fc6 (in-place)
I0720 14:53:45.882367  5366 net.cpp:141] Setting up drop6
I0720 14:53:45.882400  5366 net.cpp:148] Top shape: 10 4096 (40960)
I0720 14:53:45.882410  5366 net.cpp:156] Memory required for data: 68109880
I0720 14:53:45.882421  5366 layer_factory.hpp:77] Creating layer fc7
I0720 14:53:45.882439  5366 net.cpp:91] Creating Layer fc7
I0720 14:53:45.882449  5366 net.cpp:425] fc7 <- fc6
I0720 14:53:45.882469  5366 net.cpp:399] fc7 -> fc7
I0720 14:53:45.933233  5366 net.cpp:141] Setting up fc7
I0720 14:53:45.933280  5366 net.cpp:148] Top shape: 10 4096 (40960)
I0720 14:53:45.933290  5366 net.cpp:156] Memory required for data: 68273720
I0720 14:53:45.933308  5366 layer_factory.hpp:77] Creating layer relu7
I0720 14:53:45.933327  5366 net.cpp:91] Creating Layer relu7
I0720 14:53:45.933337  5366 net.cpp:425] relu7 <- fc7
I0720 14:53:45.933351  5366 net.cpp:386] relu7 -> fc7 (in-place)
I0720 14:53:45.934978  5366 net.cpp:141] Setting up relu7
I0720 14:53:45.934998  5366 net.cpp:148] Top shape: 10 4096 (40960)
I0720 14:53:45.935008  5366 net.cpp:156] Memory required for data: 68437560
I0720 14:53:45.935017  5366 layer_factory.hpp:77] Creating layer drop7
I0720 14:53:45.935034  5366 net.cpp:91] Creating Layer drop7
I0720 14:53:45.935045  5366 net.cpp:425] drop7 <- fc7
I0720 14:53:45.935061  5366 net.cpp:386] drop7 -> fc7 (in-place)
I0720 14:53:45.938773  5366 net.cpp:141] Setting up drop7
I0720 14:53:45.938798  5366 net.cpp:148] Top shape: 10 4096 (40960)
I0720 14:53:45.938808  5366 net.cpp:156] Memory required for data: 68601400
I0720 14:53:45.938817  5366 layer_factory.hpp:77] Creating layer fc8
I0720 14:53:45.938838  5366 net.cpp:91] Creating Layer fc8
I0720 14:53:45.938849  5366 net.cpp:425] fc8 <- fc7
I0720 14:53:45.938863  5366 net.cpp:399] fc8 -> fc8
I0720 14:53:45.959552  5366 net.cpp:141] Setting up fc8
I0720 14:53:45.959600  5366 net.cpp:148] Top shape: 10 1000 (10000)
I0720 14:53:45.959609  5366 net.cpp:156] Memory required for data: 68641400
I0720 14:53:45.959628  5366 layer_factory.hpp:77] Creating layer prob
I0720 14:53:45.959650  5366 net.cpp:91] Creating Layer prob
I0720 14:53:45.959659  5366 net.cpp:425] prob <- fc8
I0720 14:53:45.959673  5366 net.cpp:399] prob -> prob
I0720 14:53:45.961431  5366 net.cpp:141] Setting up prob
I0720 14:53:45.961452  5366 net.cpp:148] Top shape: 10 1000 (10000)
I0720 14:53:45.961462  5366 net.cpp:156] Memory required for data: 68681400
I0720 14:53:45.961472  5366 net.cpp:219] prob does not need backward computation.
I0720 14:53:45.961479  5366 net.cpp:219] fc8 does not need backward computation.
I0720 14:53:45.961488  5366 net.cpp:219] drop7 does not need backward computation.
I0720 14:53:45.961495  5366 net.cpp:219] relu7 does not need backward computation.
…
I0720 14:53:46.183595  5366 upgrade_proto.cpp:43] Attempting to upgrade input file specified using deprecated transformation parameters: /tmp/cvld112358739885097468/bvlc_reference_caffenet.caffemodel
I0720 14:53:46.183634  5366 upgrade_proto.cpp:46] Successfully upgraded file specified using deprecated data transformation parameters.
W0720 14:53:46.183641  5366 upgrade_proto.cpp:48] Note that future Caffe releases will only support transform_param messages for transformation fields.
I0720 14:53:46.183647  5366 upgrade_proto.cpp:52] Attempting to upgrade input file specified using deprecated V1LayerParameter: /tmp/cvld112358739885097468/bvlc_reference_caffenet.caffemodel
I0720 14:53:46.236698  5350 net.cpp:141] Setting up predict
I0720 14:53:46.236739  5350 net.cpp:148] Top shape: 1 1 46168 (46168)
I0720 14:53:46.236745  5350 net.cpp:156] Memory required for data: 221084
I0720 14:53:46.236758  5350 layer_factory.hpp:77] Creating layer probs
I0720 14:53:46.236773  5350 net.cpp:91] Creating Layer probs
I0720 14:53:46.236779  5350 net.cpp:425] probs <- predict
I0720 14:53:46.236789  5350 net.cpp:399] probs -> probs
I0720 14:53:46.251260  5350 net.cpp:141] Setting up probs
I0720 14:53:46.251305  5350 net.cpp:148] Top shape: 1 1 46168 (46168)
I0720 14:53:46.251310  5350 net.cpp:156] Memory required for data: 405756
I0720 14:53:46.251318  5350 net.cpp:219] probs does not need backward computation.
I0720 14:53:46.251325  5350 net.cpp:219] predict does not need backward computation.
I0720 14:53:46.251330  5350 net.cpp:219] lstm2 does not need backward computation.
I0720 14:53:46.251335  5350 net.cpp:219] concat does not need backward computation.
I0720 14:53:46.251343  5350 net.cpp:219] lstm1 does not need backward computation.
I0720 14:53:46.251348  5350 net.cpp:219] embedding does not need backward computation.
I0720 14:53:46.251353  5350 net.cpp:219] reshape_stage_indicator does not need backward computation.
I0720 14:53:46.251356  5350 net.cpp:219] reshape_frames does not need backward computation.
I0720 14:53:46.251361  5350 net.cpp:219] embed_encoder does not need backward computation.
I0720 14:53:46.251366  5350 net.cpp:219] cont_sentence_input_1_split does not need backward computation.
I0720 14:53:46.251371  5350 net.cpp:219] input does not need backward computation.
I0720 14:53:46.251374  5350 net.cpp:261] This network produces output probs
I0720 14:53:46.251394  5350 net.cpp:274] Network initialization done.
I0720 14:53:46.368325  5354 net.cpp:141] Setting up input
I0720 14:53:46.368399  5354 net.cpp:148] Top shape: 1 4096 (4096)
I0720 14:53:46.368408  5354 net.cpp:148] Top shape: 1 1 (1)
I0720 14:53:46.368413  5354 net.cpp:148] Top shape: 1 1 (1)
I0720 14:53:46.368419  5354 net.cpp:148] Top shape: 1 1 (1)
I0720 14:53:46.368423  5354 net.cpp:156] Memory required for data: 16396
I0720 14:53:46.368438  5354 layer_factory.hpp:77] Creating layer cont_sentence_input_1_split
I0720 14:53:46.368456  5354 net.cpp:91] Creating Layer cont_sentence_input_1_split
I0720 14:53:46.368469  5354 net.cpp:425] cont_sentence_input_1_split <- cont_sentence
I0720 14:53:46.368482  5354 net.cpp:399] cont_sentence_input_1_split -> cont_sentence_input_1_split_0
I0720 14:53:46.368495  5354 net.cpp:399] cont_sentence_input_1_split -> cont_sentence_input_1_split_1
I0720 14:53:46.368566  5354 net.cpp:141] Setting up cont_sentence_input_1_split
I0720 14:53:46.368577  5354 net.cpp:148] Top shape: 1 1 (1)
I0720 14:53:46.368582  5354 net.cpp:148] Top shape: 1 1 (1)
I0720 14:53:46.368585  5354 net.cpp:156] Memory required for data: 16404
I0720 14:53:46.368598  5354 layer_factory.hpp:77] Creating layer embed_encoder
I0720 14:53:46.368616  5354 net.cpp:91] Creating Layer embed_encoder
I0720 14:53:46.368621  5354 net.cpp:425] embed_encoder <- frames_fc7
I0720 14:53:46.368630  5354 net.cpp:399] embed_encoder -> embedded_in_frames
I0720 14:53:46.396119  5354 net.cpp:141] Setting up embed_encoder
I0720 14:53:46.396173  5354 net.cpp:148] Top shape: 1 500 (500)
I0720 14:53:46.396178  5354 net.cpp:156] Memory required for data: 18404
I0720 14:53:46.396199  5354 layer_factory.hpp:77] Creating layer reshape_frames
I0720 14:53:46.396240  5354 net.cpp:91] Creating Layer reshape_frames
I0720 14:53:46.396248  5354 net.cpp:425] reshape_frames <- embedded_in_frames
I0720 14:53:46.396263  5354 net.cpp:399] reshape_frames -> embedded_input_frames
I0720 14:53:46.396324  5354 net.cpp:141] Setting up reshape_frames
I0720 14:53:46.396333  5354 net.cpp:148] Top shape: 1 1 500 (500)
I0720 14:53:46.396337  5354 net.cpp:156] Memory required for data: 20404
I0720 14:53:46.396342  5354 layer_factory.hpp:77] Creating layer reshape_stage_indicator
I0720 14:53:46.396365  5354 net.cpp:91] Creating Layer reshape_stage_indicator
I0720 14:53:46.396371  5354 net.cpp:425] reshape_stage_indicator <- stage_indicator
I0720 14:53:46.396378  5354 net.cpp:399] reshape_stage_indicator -> reshaped_stage_indicator
I0720 14:53:46.396441  5354 net.cpp:141] Setting up reshape_stage_indicator
I0720 14:53:46.396451  5354 net.cpp:148] Top shape: 1 1 1 (1)
I0720 14:53:46.396456  5354 net.cpp:156] Memory required for data: 20408
I0720 14:53:46.396459  5354 layer_factory.hpp:77] Creating layer embedding
I0720 14:53:46.396491  5354 net.cpp:91] Creating Layer embedding
I0720 14:53:46.396497  5354 net.cpp:425] embedding <- input_sentence
I0720 14:53:46.396505  5354 net.cpp:399] embedding -> embedded_input_sentence
I0720 14:53:46.590303  5366 upgrade_proto.cpp:60] Successfully upgraded file specified using deprecated V1LayerParameter
I0720 14:53:46.618129  5354 net.cpp:141] Setting up embedding
I0720 14:53:46.618178  5354 net.cpp:148] Top shape: 1 1 500 (500)
I0720 14:53:46.618183  5354 net.cpp:156] Memory required for data: 22408
I0720 14:53:46.618203  5354 layer_factory.hpp:77] Creating layer lstm1
I0720 14:53:46.618228  5354 net.cpp:91] Creating Layer lstm1
I0720 14:53:46.618237  5354 net.cpp:425] lstm1 <- embedded_input_frames
I0720 14:53:46.618245  5354 net.cpp:425] lstm1 <- cont_sentence_input_1_split_0
I0720 14:53:46.618254  5354 net.cpp:399] lstm1 -> lstm1
I0720 14:53:46.618269  5354 recurrent_layer.cpp:20] Initializing recurrent layer: assuming input batch contains 1 timesteps of 1 independent streams.
I0720 14:53:46.618584  5354 net.cpp:49] Initializing net from parameters: 
layer {
  name: "lstm1_"
  type: "Input"
  top: "x"
  top: "cont"
  input_param {
    shape {
      dim: 1
      dim: 1
      dim: 500
    }
    shape {
      dim: 1
      dim: 1
    }
  }
}
layer {
  name: "lstm1_"
  type: "Input"
  top: "c_0"
  top: "h_0"
  input_param {
    shape {
      dim: 1
      dim: 1
      dim: 1000
    }
    shape {
      dim: 1
      dim: 1
      dim: 1000
    }
  }
}
layer {
  name: "lstm1_cont_slice"
  type: "Slice"
  bottom: "cont"
  top: "cont_1"
  slice_param {
    axis: 0
  }
}
layer {
  name: "lstm1_x_transform"
  type: "InnerProduct"
  bottom: "x"
  top: "W_xc_x"
  param {
    name: "W_xc"
  }
  param {
    name: "b_c"
  }
  propagate_down: true
  inner_product_param {
    num_output: 4000
    bias_term: true
    weight_filler {
      type: "uniform"
      min: -0.08
      max: 0.08
    }
    bias_filler {
      type: "constant"
      value: 0
    }
    axis: 2
  }
}
layer {
  name: "lstm1_W_xc_x_slice"
  type: "Slice"
  bottom: "W_xc_x"
  top: "W_xc_x_1"
  slice_param {
    axis: 0
  }
}
layer {
  name: "lstm1_h_conted_0"
  type: "Scale"
  bottom: "h_0"
  bottom: "cont_1"
  top: "h_conted_0"
  scale_param {
    axis: 0
  }
}
layer {
  name: "lstm1_transform_1"
  type: "InnerProduct"
  bottom: "h_conted_0"
  top: "W_hc_h_0"
  param {
    name: "W_hc"
  }
  inner_product_param {
    num_output: 4000
    bias_term: false
    weight_filler {
      type: "uniform"
      min: -0.08
      max: 0.08
    }
    axis: 2
  }
}
layer {
  name: "lstm1_gate_input_1"
  type: "Eltwise"
  bottom: "W_hc_h_0"
  bottom: "W_xc_x_1"
  top: "gate_input_1"
  eltwise_param {
    operation: SUM
  }
}
layer {
  name: "lstm1_unit_1"
  type: "LSTMUnit"
  bottom: "c_0"
  bottom: "gate_input_1"
  bottom: "cont_1"
  top: "c_1"
  top: "h_1"
}
layer {
  name: "lstm1_"
  type: "Split"
  bottom: "c_1"
  top: "c_T"
}
layer {
  name: "lstm1_h_concat"
  type: "Concat"
  bottom: "h_1"
  top: "h"
  concat_param {
    axis: 0
  }
}
layer {
  name: "h_pseudoloss"
  type: "Reduction"
  bottom: "h"
  top: "h_pseudoloss"
  loss_weight: 1
}
I0720 14:53:46.618676  5354 layer_factory.hpp:77] Creating layer lstm1_
I0720 14:53:46.618705  5354 net.cpp:91] Creating Layer lstm1_
I0720 14:53:46.618712  5354 net.cpp:399] lstm1_ -> x
I0720 14:53:46.618723  5354 net.cpp:399] lstm1_ -> cont
I0720 14:53:46.618839  5354 net.cpp:141] Setting up lstm1_
I0720 14:53:46.618849  5354 net.cpp:148] Top shape: 1 1 500 (500)
I0720 14:53:46.618855  5354 net.cpp:148] Top shape: 1 1 (1)
I0720 14:53:46.618860  5354 net.cpp:156] Memory required for data: 2004
I0720 14:53:46.618865  5354 layer_factory.hpp:77] Creating layer lstm1_
I0720 14:53:46.618877  5354 net.cpp:91] Creating Layer lstm1_
I0720 14:53:46.618886  5354 net.cpp:399] lstm1_ -> c_0
I0720 14:53:46.618896  5354 net.cpp:399] lstm1_ -> h_0
I0720 14:53:46.618975  5354 net.cpp:141] Setting up lstm1_
I0720 14:53:46.618985  5354 net.cpp:148] Top shape: 1 1 1000 (1000)
I0720 14:53:46.618990  5354 net.cpp:148] Top shape: 1 1 1000 (1000)
I0720 14:53:46.618994  5354 net.cpp:156] Memory required for data: 10004
I0720 14:53:46.618999  5354 layer_factory.hpp:77] Creating layer lstm1_cont_slice
I0720 14:53:46.619009  5354 net.cpp:91] Creating Layer lstm1_cont_slice
I0720 14:53:46.619014  5354 net.cpp:425] lstm1_cont_slice <- cont
I0720 14:53:46.619022  5354 net.cpp:399] lstm1_cont_slice -> cont_1
I0720 14:53:46.619071  5354 net.cpp:141] Setting up lstm1_cont_slice
I0720 14:53:46.619081  5354 net.cpp:148] Top shape: 1 1 (1)
I0720 14:53:46.619084  5354 net.cpp:156] Memory required for data: 10008
I0720 14:53:46.619088  5354 layer_factory.hpp:77] Creating layer cont_1_lstm1_cont_slice_0_split
I0720 14:53:46.619096  5354 net.cpp:91] Creating Layer cont_1_lstm1_cont_slice_0_split
I0720 14:53:46.619101  5354 net.cpp:425] cont_1_lstm1_cont_slice_0_split <- cont_1
I0720 14:53:46.619107  5354 net.cpp:399] cont_1_lstm1_cont_slice_0_split -> cont_1_lstm1_cont_slice_0_split_0
I0720 14:53:46.619115  5354 net.cpp:399] cont_1_lstm1_cont_slice_0_split -> cont_1_lstm1_cont_slice_0_split_1
I0720 14:53:46.619186  5354 net.cpp:141] Setting up cont_1_lstm1_cont_slice_0_split
I0720 14:53:46.619195  5354 net.cpp:148] Top shape: 1 1 (1)
I0720 14:53:46.619200  5354 net.cpp:148] Top shape: 1 1 (1)
I0720 14:53:46.619204  5354 net.cpp:156] Memory required for data: 10016
I0720 14:53:46.619209  5354 layer_factory.hpp:77] Creating layer lstm1_x_transform
I0720 14:53:46.619220  5354 net.cpp:91] Creating Layer lstm1_x_transform
I0720 14:53:46.619225  5354 net.cpp:425] lstm1_x_transform <- x
I0720 14:53:46.619233  5354 net.cpp:399] lstm1_x_transform -> W_xc_x
I0720 14:53:46.626785  5350 net.cpp:752] Ignoring source layer data
I0720 14:53:46.626818  5350 net.cpp:752] Ignoring source layer cont_sentence_data_0_split
I0720 14:53:46.626824  5350 net.cpp:752] Ignoring source layer reshape_stg_indicator
I0720 14:53:46.644987  5366 net.cpp:752] Ignoring source layer loss
I0720 14:53:46.649521  5354 net.cpp:141] Setting up lstm1_x_transform
I0720 14:53:46.649585  5354 net.cpp:148] Top shape: 1 1 4000 (4000)
I0720 14:53:46.649595  5354 net.cpp:156] Memory required for data: 26016
I0720 14:53:46.649628  5354 layer_factory.hpp:77] Creating layer lstm1_W_xc_x_slice
I0720 14:53:46.649653  5354 net.cpp:91] Creating Layer lstm1_W_xc_x_slice
I0720 14:53:46.649664  5354 net.cpp:425] lstm1_W_xc_x_slice <- W_xc_x
I0720 14:53:46.649680  5354 net.cpp:399] lstm1_W_xc_x_slice -> W_xc_x_1
I0720 14:53:46.649782  5354 net.cpp:141] Setting up lstm1_W_xc_x_slice
I0720 14:53:46.649799  5354 net.cpp:148] Top shape: 1 1 4000 (4000)
I0720 14:53:46.649806  5354 net.cpp:156] Memory required for data: 42016
I0720 14:53:46.649816  5354 layer_factory.hpp:77] Creating layer lstm1_h_conted_0
I0720 14:53:46.649832  5354 net.cpp:91] Creating Layer lstm1_h_conted_0
I0720 14:53:46.649842  5354 net.cpp:425] lstm1_h_conted_0 <- h_0
I0720 14:53:46.649852  5354 net.cpp:425] lstm1_h_conted_0 <- cont_1_lstm1_cont_slice_0_split_0
I0720 14:53:46.649863  5354 net.cpp:399] lstm1_h_conted_0 -> h_conted_0
I0720 14:53:46.650153  5354 net.cpp:141] Setting up lstm1_h_conted_0
I0720 14:53:46.650169  5354 net.cpp:148] Top shape: 1 1 1000 (1000)
I0720 14:53:46.650177  5354 net.cpp:156] Memory required for data: 46016
I0720 14:53:46.650185  5354 layer_factory.hpp:77] Creating layer lstm1_transform_1
I0720 14:53:46.650240  5354 net.cpp:91] Creating Layer lstm1_transform_1
I0720 14:53:46.650250  5354 net.cpp:425] lstm1_transform_1 <- h_conted_0
I0720 14:53:46.650270  5354 net.cpp:399] lstm1_transform_1 -> W_hc_h_0
I0720 14:53:46.693933  5354 net.cpp:141] Setting up lstm1_transform_1
I0720 14:53:46.693994  5354 net.cpp:148] Top shape: 1 1 4000 (4000)
I0720 14:53:46.694000  5354 net.cpp:156] Memory required for data: 62016
I0720 14:53:46.694025  5354 layer_factory.hpp:77] Creating layer lstm1_gate_input_1
I0720 14:53:46.694047  5354 net.cpp:91] Creating Layer lstm1_gate_input_1
I0720 14:53:46.694056  5354 net.cpp:425] lstm1_gate_input_1 <- W_hc_h_0
I0720 14:53:46.694064  5354 net.cpp:425] lstm1_gate_input_1 <- W_xc_x_1
I0720 14:53:46.694072  5354 net.cpp:399] lstm1_gate_input_1 -> gate_input_1
I0720 14:53:46.694152  5354 net.cpp:141] Setting up lstm1_gate_input_1
I0720 14:53:46.694161  5354 net.cpp:148] Top shape: 1 1 4000 (4000)
I0720 14:53:46.694166  5354 net.cpp:156] Memory required for data: 78016
I0720 14:53:46.694170  5354 layer_factory.hpp:77] Creating layer lstm1_unit_1
I0720 14:53:46.694180  5354 net.cpp:91] Creating Layer lstm1_unit_1
I0720 14:53:46.694185  5354 net.cpp:425] lstm1_unit_1 <- c_0
I0720 14:53:46.694190  5354 net.cpp:425] lstm1_unit_1 <- gate_input_1
I0720 14:53:46.694195  5354 net.cpp:425] lstm1_unit_1 <- cont_1_lstm1_cont_slice_0_split_1
I0720 14:53:46.694201  5354 net.cpp:399] lstm1_unit_1 -> c_1
I0720 14:53:46.694213  5354 net.cpp:399] lstm1_unit_1 -> h_1
I0720 14:53:46.694306  5354 net.cpp:141] Setting up lstm1_unit_1
I0720 14:53:46.694315  5354 net.cpp:148] Top shape: 1 1 1000 (1000)
I0720 14:53:46.694321  5354 net.cpp:148] Top shape: 1 1 1000 (1000)
I0720 14:53:46.694325  5354 net.cpp:156] Memory required for data: 86016
I0720 14:53:46.694330  5354 layer_factory.hpp:77] Creating layer lstm1_
I0720 14:53:46.694339  5354 net.cpp:91] Creating Layer lstm1_
I0720 14:53:46.694344  5354 net.cpp:425] lstm1_ <- c_1
I0720 14:53:46.694350  5354 net.cpp:399] lstm1_ -> c_T
I0720 14:53:46.694396  5354 net.cpp:141] Setting up lstm1_
I0720 14:53:46.694406  5354 net.cpp:148] Top shape: 1 1 1000 (1000)
I0720 14:53:46.694411  5354 net.cpp:156] Memory required for data: 90016
I0720 14:53:46.694416  5354 layer_factory.hpp:77] Creating layer lstm1_h_concat
I0720 14:53:46.694427  5354 net.cpp:91] Creating Layer lstm1_h_concat
I0720 14:53:46.694430  5354 net.cpp:425] lstm1_h_concat <- h_1
I0720 14:53:46.694437  5354 net.cpp:399] lstm1_h_concat -> h
I0720 14:53:46.694486  5354 net.cpp:141] Setting up lstm1_h_concat
I0720 14:53:46.694495  5354 net.cpp:148] Top shape: 1 1 1000 (1000)
I0720 14:53:46.694499  5354 net.cpp:156] Memory required for data: 94016
I0720 14:53:46.694504  5354 layer_factory.hpp:77] Creating layer h_pseudoloss
I0720 14:53:46.694514  5354 net.cpp:91] Creating Layer h_pseudoloss
I0720 14:53:46.694517  5354 net.cpp:425] h_pseudoloss <- h
I0720 14:53:46.694525  5354 net.cpp:399] h_pseudoloss -> h_pseudoloss
I0720 14:53:46.694694  5354 net.cpp:141] Setting up h_pseudoloss
…
I0720 14:53:46.694820  5354 net.cpp:219] lstm1_ does not need backward computation.
I0720 14:53:46.694824  5354 net.cpp:261] This network produces output c_T
I0720 14:53:46.694828  5354 net.cpp:261] This network produces output h_pseudoloss
I0720 14:53:46.694842  5354 net.cpp:274] Network initialization done.
I0720 14:53:46.694896  5354 recurrent_layer.cpp:150] Adding parameter 0: W_xc
I0720 14:53:46.694903  5354 recurrent_layer.cpp:150] Adding parameter 1: b_c
I0720 14:53:46.694907  5354 recurrent_layer.cpp:150] Adding parameter 2: W_hc
I0720 14:53:46.695052  5354 net.cpp:141] Setting up lstm1
I0720 14:53:46.695063  5354 net.cpp:148] Top shape: 1 1 1000 (1000)
I0720 14:53:46.695068  5354 net.cpp:156] Memory required for data: 26408
I0720 14:53:46.695085  5354 layer_factory.hpp:77] Creating layer concat
I0720 14:53:46.695096  5354 net.cpp:91] Creating Layer concat
I0720 14:53:46.695102  5354 net.cpp:425] concat <- lstm1
I0720 14:53:46.695109  5354 net.cpp:425] concat <- embedded_input_sentence
I0720 14:53:46.695123  5354 net.cpp:425] concat <- reshaped_stage_indicator
I0720 14:53:46.695129  5354 net.cpp:399] concat -> lstm1_video_sequence
I0720 14:53:46.695173  5354 net.cpp:141] Setting up concat
I0720 14:53:46.695181  5354 net.cpp:148] Top shape: 1 1 1501 (1501)
I0720 14:53:46.695185  5354 net.cpp:156] Memory required for data: 32412
I0720 14:53:46.695190  5354 layer_factory.hpp:77] Creating layer lstm2
I0720 14:53:46.695204  5354 net.cpp:91] Creating Layer lstm2
I0720 14:53:46.695209  5354 net.cpp:425] lstm2 <- lstm1_video_sequence
I0720 14:53:46.695214  5354 net.cpp:425] lstm2 <- cont_sentence_input_1_split_1
I0720 14:53:46.695221  5354 net.cpp:399] lstm2 -> lstm2
I0720 14:53:46.695231  5354 recurrent_layer.cpp:20] Initializing recurrent layer: assuming input batch contains 1 timesteps of 1 independent streams.
I0720 14:53:46.695519  5354 net.cpp:49] Initializing net from parameters: 
layer {
  name: "lstm2_"
  type: "Input"
  top: "x"
  top: "cont"
  input_param {
    shape {
      dim: 1
      dim: 1
      dim: 1501
    }
    shape {
      dim: 1
      dim: 1
    }
  }
}
layer {
  name: "lstm2_"
  type: "Input"
  top: "c_0"
  top: "h_0"
  input_param {
    shape {
      dim: 1
      dim: 1
      dim: 1000
    }
    shape {
      dim: 1
      dim: 1
      dim: 1000
    }
  }
}
layer {
  name: "lstm2_cont_slice"
  type: "Slice"
  bottom: "cont"
  top: "cont_1"
  slice_param {
    axis: 0
  }
}
layer {
  name: "lstm2_x_transform"
  type: "InnerProduct"
  bottom: "x"
  top: "W_xc_x"
  param {
    name: "W_xc"
  }
  param {
    name: "b_c"
  }
  propagate_down: true
  inner_product_param {
    num_output: 4000
    bias_term: true
    weight_filler {
      type: "uniform"
      min: -0.08
      max: 0.08
    }
    bias_filler {
      type: "constant"
      value: 0
    }
    axis: 2
  }
}
layer {
  name: "lstm2_W_xc_x_slice"
  type: "Slice"
  bottom: "W_xc_x"
  top: "W_xc_x_1"
  slice_param {
    axis: 0
  }
}
layer {
  name: "lstm2_h_conted_0"
  type: "Scale"
  bottom: "h_0"
  bottom: "cont_1"
  top: "h_conted_0"
  scale_param {
    axis: 0
  }
}
layer {
  name: "lstm2_transform_1"
  type: "InnerProduct"
  bottom: "h_conted_0"
  top: "W_hc_h_0"
  param {
    name: "W_hc"
  }
  inner_product_param {
    num_output: 4000
    bias_term: false
    weight_filler {
      type: "uniform"
      min: -0.08
      max: 0.08
    }
    axis: 2
  }
}
layer {
  name: "lstm2_gate_input_1"
  type: "Eltwise"
  bottom: "W_hc_h_0"
  bottom: "W_xc_x_1"
  top: "gate_input_1"
  eltwise_param {
    operation: SUM
  }
}
layer {
  name: "lstm2_unit_1"
  type: "LSTMUnit"
  bottom: "c_0"
  bottom: "gate_input_1"
  bottom: "cont_1"
  top: "c_1"
  top: "h_1"
}
layer {
  name: "lstm2_"
  type: "Split"
  bottom: "c_1"
  top: "c_T"
}
layer {
  name: "lstm2_h_concat"
  type: "Concat"
  bottom: "h_1"
  top: "h"
  concat_param {
    axis: 0
  }
}
layer {
  name: "h_pseudoloss"
  type: "Reduction"
  bottom: "h"
  top: "h_pseudoloss"
  loss_weight: 1
}
I0720 14:53:46.695611  5354 layer_factory.hpp:77] Creating layer lstm2_
I0720 14:53:46.695624  5354 net.cpp:91] Creating Layer lstm2_
I0720 14:53:46.695631  5354 net.cpp:399] lstm2_ -> x
I0720 14:53:46.695641  5354 net.cpp:399] lstm2_ -> cont
I0720 14:53:46.695713  5354 net.cpp:141] Setting up lstm2_
I0720 14:53:46.695722  5354 net.cpp:148] Top shape: 1 1 1501 (1501)
I0720 14:53:46.695727  5354 net.cpp:148] Top shape: 1 1 (1)
I0720 14:53:46.695731  5354 net.cpp:156] Memory required for data: 6008
I0720 14:53:46.695736  5354 layer_factory.hpp:77] Creating layer lstm2_
I0720 14:53:46.695749  5354 net.cpp:91] Creating Layer lstm2_
I0720 14:53:46.695757  5354 net.cpp:399] lstm2_ -> c_0
I0720 14:53:46.695768  5354 net.cpp:399] lstm2_ -> h_0
I0720 14:53:46.695839  5354 net.cpp:141] Setting up lstm2_
I0720 14:53:46.695848  5354 net.cpp:148] Top shape: 1 1 1000 (1000)
I0720 14:53:46.695854  5354 net.cpp:148] Top shape: 1 1 1000 (1000)
I0720 14:53:46.695858  5354 net.cpp:156] Memory required for data: 14008
I0720 14:53:46.695863  5354 layer_factory.hpp:77] Creating layer lstm2_cont_slice
I0720 14:53:46.695873  5354 net.cpp:91] Creating Layer lstm2_cont_slice
I0720 14:53:46.695878  5354 net.cpp:425] lstm2_cont_slice <- cont
I0720 14:53:46.695888  5354 net.cpp:399] lstm2_cont_slice -> cont_1
I0720 14:53:46.695933  5354 net.cpp:141] Setting up lstm2_cont_slice
I0720 14:53:46.695942  5354 net.cpp:148] Top shape: 1 1 (1)
I0720 14:53:46.695946  5354 net.cpp:156] Memory required for data: 14012
I0720 14:53:46.695951  5354 layer_factory.hpp:77] Creating layer cont_1_lstm2_cont_slice_0_split
I0720 14:53:46.695957  5354 net.cpp:91] Creating Layer cont_1_lstm2_cont_slice_0_split
I0720 14:53:46.695961  5354 net.cpp:425] cont_1_lstm2_cont_slice_0_split <- cont_1
I0720 14:53:46.695968  5354 net.cpp:399] cont_1_lstm2_cont_slice_0_split -> cont_1_lstm2_cont_slice_0_split_0
I0720 14:53:46.695976  5354 net.cpp:399] cont_1_lstm2_cont_slice_0_split -> cont_1_lstm2_cont_slice_0_split_1
I0720 14:53:46.696045  5354 net.cpp:141] Setting up cont_1_lstm2_cont_slice_0_split
I0720 14:53:46.696054  5354 net.cpp:148] Top shape: 1 1 (1)
I0720 14:53:46.696059  5354 net.cpp:148] Top shape: 1 1 (1)
I0720 14:53:46.696063  5354 net.cpp:156] Memory required for data: 14020
I0720 14:53:46.696068  5354 layer_factory.hpp:77] Creating layer lstm2_x_transform
I0720 14:53:46.696079  5354 net.cpp:91] Creating Layer lstm2_x_transform
I0720 14:53:46.696084  5354 net.cpp:425] lstm2_x_transform <- x
I0720 14:53:46.696092  5354 net.cpp:399] lstm2_x_transform -> W_xc_x
I0720 14:53:46.698170  5350 net.cpp:752] Ignoring source layer cross_entropy_loss
I0720 14:53:46.760888  5354 net.cpp:141] Setting up lstm2_x_transform
I0720 14:53:46.760957  5354 net.cpp:148] Top shape: 1 1 4000 (4000)
I0720 14:53:46.760967  5354 net.cpp:156] Memory required for data: 30020
I0720 14:53:46.760990  5354 layer_factory.hpp:77] Creating layer lstm2_W_xc_x_slice
I0720 14:53:46.761009  5354 net.cpp:91] Creating Layer lstm2_W_xc_x_slice
I0720 14:53:46.761019  5354 net.cpp:425] lstm2_W_xc_x_slice <- W_xc_x
I0720 14:53:46.761041  5354 net.cpp:399] lstm2_W_xc_x_slice -> W_xc_x_1
I0720 14:53:46.761114  5354 net.cpp:141] Setting up lstm2_W_xc_x_slice
I0720 14:53:46.761129  5354 net.cpp:148] Top shape: 1 1 4000 (4000)
I0720 14:53:46.761137  5354 net.cpp:156] Memory required for data: 46020
I0720 14:53:46.761152  5354 layer_factory.hpp:77] Creating layer lstm2_h_conted_0
I0720 14:53:46.761178  5354 net.cpp:91] Creating Layer lstm2_h_conted_0
I0720 14:53:46.761186  5354 net.cpp:425] lstm2_h_conted_0 <- h_0
I0720 14:53:46.761196  5354 net.cpp:425] lstm2_h_conted_0 <- cont_1_lstm2_cont_slice_0_split_0
I0720 14:53:46.761209  5354 net.cpp:399] lstm2_h_conted_0 -> h_conted_0
I0720 14:53:46.761420  5354 net.cpp:141] Setting up lstm2_h_conted_0
I0720 14:53:46.761435  5354 net.cpp:148] Top shape: 1 1 1000 (1000)
I0720 14:53:46.761441  5354 net.cpp:156] Memory required for data: 50020
I0720 14:53:46.761448  5354 layer_factory.hpp:77] Creating layer lstm2_transform_1
I0720 14:53:46.761469  5354 net.cpp:91] Creating Layer lstm2_transform_1
I0720 14:53:46.761478  5354 net.cpp:425] lstm2_transform_1 <- h_conted_0
I0720 14:53:46.761492  5354 net.cpp:399] lstm2_transform_1 -> W_hc_h_0
I0720 14:53:46.825486  5354 net.cpp:141] Setting up lstm2_transform_1
I0720 14:53:46.826794  5354 net.cpp:148] Top shape: 1 1 4000 (4000)
I0720 14:53:46.826818  5354 net.cpp:156] Memory required for data: 66020
I0720 14:53:46.826840  5354 layer_factory.hpp:77] Creating layer lstm2_gate_input_1
I0720 14:53:46.826858  5354 net.cpp:91] Creating Layer lstm2_gate_input_1
I0720 14:53:46.826865  5354 net.cpp:425] lstm2_gate_input_1 <- W_hc_h_0
I0720 14:53:46.826874  5354 net.cpp:425] lstm2_gate_input_1 <- W_xc_x_1
I0720 14:53:46.826896  5354 net.cpp:399] lstm2_gate_input_1 -> gate_input_1
I0720 14:53:46.827023  5354 net.cpp:141] Setting up lstm2_gate_input_1
I0720 14:53:46.827033  5354 net.cpp:148] Top shape: 1 1 4000 (4000)
I0720 14:53:46.827036  5354 net.cpp:156] Memory required for data: 82020
I0720 14:53:46.827041  5354 layer_factory.hpp:77] Creating layer lstm2_unit_1
I0720 14:53:46.827054  5354 net.cpp:91] Creating Layer lstm2_unit_1
I0720 14:53:46.827060  5354 net.cpp:425] lstm2_unit_1 <- c_0
I0720 14:53:46.827065  5354 net.cpp:425] lstm2_unit_1 <- gate_input_1
I0720 14:53:46.827070  5354 net.cpp:425] lstm2_unit_1 <- cont_1_lstm2_cont_slice_0_split_1
I0720 14:53:46.827076  5354 net.cpp:399] lstm2_unit_1 -> c_1
I0720 14:53:46.827085  5354 net.cpp:399] lstm2_unit_1 -> h_1
I0720 14:53:46.827179  5354 net.cpp:141] Setting up lstm2_unit_1
I0720 14:53:46.827189  5354 net.cpp:148] Top shape: 1 1 1000 (1000)
I0720 14:53:46.827194  5354 net.cpp:148] Top shape: 1 1 1000 (1000)
I0720 14:53:46.827198  5354 net.cpp:156] Memory required for data: 90020
I0720 14:53:46.827203  5354 layer_factory.hpp:77] Creating layer lstm2_
I0720 14:53:46.827211  5354 net.cpp:91] Creating Layer lstm2_
I0720 14:53:46.827215  5354 net.cpp:425] lstm2_ <- c_1
I0720 14:53:46.827222  5354 net.cpp:399] lstm2_ -> c_T
I0720 14:53:46.827270  5354 net.cpp:141] Setting up lstm2_
I0720 14:53:46.827287  5354 net.cpp:148] Top shape: 1 1 1000 (1000)
I0720 14:53:46.827291  5354 net.cpp:156] Memory required for data: 94020
I0720 14:53:46.827296  5354 layer_factory.hpp:77] Creating layer lstm2_h_concat
I0720 14:53:46.827303  5354 net.cpp:91] Creating Layer lstm2_h_concat
I0720 14:53:46.827308  5354 net.cpp:425] lstm2_h_concat <- h_1
I0720 14:53:46.827318  5354 net.cpp:399] lstm2_h_concat -> h
I0720 14:53:46.827363  5354 net.cpp:141] Setting up lstm2_h_concat
I0720 14:53:46.827373  5354 net.cpp:148] Top shape: 1 1 1000 (1000)
I0720 14:53:46.827376  5354 net.cpp:156] Memory required for data: 98020
I0720 14:53:46.827380  5354 layer_factory.hpp:77] Creating layer h_pseudoloss
I0720 14:53:46.827392  5354 net.cpp:91] Creating Layer h_pseudoloss
I0720 14:53:46.827397  5354 net.cpp:425] h_pseudoloss <- h
I0720 14:53:46.827404  5354 net.cpp:399] h_pseudoloss -> h_pseudoloss
I0720 14:53:46.827529  5354 net.cpp:141] Setting up h_pseudoloss
…
