…
Java HotSpot(TM) 64-Bit Server VM warning: You have loaded library /tmp/cvld898276346992059868/libopencv_java310.xine1.so which might have disabled stack guard. The VM will try to fix the stack guard now.
It's highly recommended that you fix the library with 'execstack -c <libfile>', or link it with '-z noexecstack'.
WARNING: Logging before InitGoogleLogging() is written to STDERR
I0713 14:11:02.024941 14818 net.cpp:49] Initializing net from parameters: 
name: "GoogleNet"
state {
  phase: TEST
}
layer {
  name: "data"
  type: "Input"
  top: "data"
  input_param {
    shape {
      dim: 10
      dim: 3
      dim: 224
      dim: 224
    }
  }
}
layer {
  name: "conv1/7x7_s2"
  type: "Convolution"
  bottom: "data"
  top: "conv1/7x7_s2"
  param {
    lr_mult: 1
    decay_mult: 1
  }
  param {
    lr_mult: 2
    decay_mult: 0
  }
  convolution_param {
    num_output: 64
    pad: 3
    kernel_size: 7
    stride: 2
    weight_filler {
      type: "xavier"
      std: 0.1
    }
    bias_filler {
      type: "constant"
      value: 0.2
    }
  }
}
layer {
  name: "conv1/relu_7x7"
  type: "ReLU"
  bottom: "conv1/7x7_s2"
  top: "conv1/7x7_s2"
}
layer {
  name: "pool1/3x3_s2"
  type: "Pooling"
  bottom: "conv1/7x7_s2"
  top: "pool1/3x3_s2"
  pooling_param {
    pool: MAX
    kernel_size: 3
    stride: 2
  }
}
layer {
  name: "pool1/norm1"
  type: "LRN"
  bottom: "pool1/3x3_s2"
  top: "pool1/norm1"
  lrn_param {
    local_size: 5
    alpha: 0.0001
    beta: 0.75
  }
}
layer {
  name: "conv2/3x3_reduce"
  type: "Convolution"
  bottom: "pool1/norm1"
  top: "conv2/3x3_reduce"
  param {
    lr_mult: 1
    decay_mult: 1
  }
  param {
    lr_mult: 2
    decay_mult: 0
  }
  convolution_param {
    num_output: 64
    kernel_size: 1
    weight_filler {
      type: "xavier"
      std: 0.1
    }
    bias_filler {
      type: "constant"
      value: 0.2
    }
  }
}
layer {
  name: "conv2/relu_3x3_reduce"
  type: "ReLU"
  bottom: "conv2/3x3_reduce"
  top: "conv2/3x3_reduce"
}
layer {
  name: "conv2/3x3"
  type: "Convolution"
  bottom: "conv2/3x3_reduce"
  top: "conv2/3x3"
  param {
    lr_mult: 1
    decay_mult: 1
  }
  param {
    lr_mult: 2
    decay_mult: 0
  }
  convolution_param {
    num_output: 192
    pad: 1
    kernel_size: 3
    weight_filler {
      type: "xavier"
      std: 0.03
    }
    bias_filler {
      type: "constant"
      value: 0.2
    }
  }
}
layer {
  name: "conv2/relu_3x3"
  type: "ReLU"
  bottom: "conv2/3x3"
  top: "conv2/3x3"
}
layer {
  name: "conv2/norm2"
  type: "LRN"
  bottom: "conv2/3x3"
  top: "conv2/norm2"
  lrn_param {
    local_size: 5
    alpha: 0.0001
    beta: 0.75
  }
}
layer {
  name: "pool2/3x3_s2"
  type: "Pooling"
  bottom: "conv2/norm2"
  top: "pool2/3x3_s2"
  pooling_param {
    pool: MAX
    kernel_size: 3
    stride: 2
  }
}
layer {
  name: "inception_3a/1x1"
  type: "Convolution"
  bottom: "pool2/3x3_s2"
  top: "inception_3a/1x1"
  param {
    lr_mult: 1
    decay_mult: 1
  }
  param {
    lr_mult: 2
    decay_mult: 0
  }
  convolution_param {
    num_output: 64
    kernel_size: 1
    weight_filler {
      type: "xavier"
      std: 0.03
    }
    bias_filler {
      type: "constant"
      value: 0.2
    }
  }
}
layer {
  name: "inception_3a/relu_1x1"
  type: "ReLU"
  bottom: "inception_3a/1x1"
  top: "inception_3a/1x1"
}
layer {
  name: "inception_3a/3x3_reduce"
  type: "Convolution"
  bottom: "pool2/3x3_s2"
  top: "inception_3a/3x3_reduce"
  param {
    lr_mult: 1
    decay_mult: 1
  }
  param {
    lr_mult: 2
    decay_mult: 0
  }
  convolution_param {
    num_output: 96
    kernel_size: 1
    weight_filler {
      type: "xavier"
      std: 0.09
    }
    bias_filler {
      type: "constant"
      value: 0.2
    }
  }
}
layer {
  name: "inception_3a/relu_3x3_reduce"
  type: "ReLU"
  bottom: "inception_3a/3x3_reduce"
  top: "inception_3a/3x3_reduce"
}
layer {
  name: "inception_3a/3x3"
  type: "Convolution"
  bottom: "inception_3a/3x3_reduce"
  top: "inception_3a/3x3"
  param {
    lr_mult: 1
    decay_mult: 1
  }
  param {
    lr_mult: 2
    decay_mult: 0
  }
  convolution_param {
    num_output: 128
    pad: 1
    kernel_size: 3
    weight_filler {
      type: "xavier"
      std: 0.03
    }
    bias_filler {
      type: "constant"
      value: 0.2
    }
  }
}
layer {
  name: "inception_3a/relu_3x3"
  type: "ReLU"
  bottom: "inception_3a/3x3"
  top: "inception_3a/3x3"
}
layer {
  name: "inception_3a/5x5_reduce"
  type: "Convolution"
  bottom: "pool2/3x3_s2"
  top: "inception_3a/5x5_reduce"
  param {
    lr_mult: 1
    decay_mult: 1
  }
  param {
    lr_mult: 2
    decay_mult: 0
  }
  convolution_param {
    num_output: 16
    kernel_size: 1
    weight_filler {
      type: "xavier"
      std: 0.2
    }
    bias_filler {
      type: "constant"
      value: 0.2
    }
  }
}
layer {
  name: "inception_3a/relu_5x5_reduce"
  type: "ReLU"
  bottom: "inception_3a/5x5_reduce"
  top: "inception_3a/5x5_reduce"
}
layer {
  name: "inception_3a/5x5"
  type: "Convolution"
  bottom: "inception_3a/5x5_reduce"
  top: "inception_3a/5x5"
  param {
    lr_mult: 1
    decay_mult: 1
  }
  param {
    lr_mult: 2
    decay_mult: 0
  }
  convolution_param {
    num_output: 32
    pad: 2
    kernel_size: 5
    weight_filler {
      type: "xavier"
      std: 0.03
    }
    bias_filler {
      type: "constant"
      value: 0.2
    }
  }
}
layer {
  name: "inception_3a/relu_5x5"
  type: "ReLU"
  bottom: "inception_3a/5x5"
  top: "inception_3a/5x5"
}
layer {
  name: "inception_3a/pool"
  type: "Pooling"
  bottom: "pool2/3x3_s2"
  top: "inception_3a/pool"
  pooling_param {
    pool: MAX
    kernel_size: 3
    stride: 1
    pad: 1
  }
}
layer {
  name: "inception_3a/pool_proj"
  type: "Convolution"
  bottom: "inception_3a/pool"
  top: "inception_3a/pool_proj"
  param {
    lr_mult: 1
    decay_mult: 1
  }
  param {
    lr_mult: 2
    decay_mult: 0
  }
  convolution_param {
    num_output: 32
    kernel_size: 1
    weight_filler {
      type: "xavier"
      std: 0.1
    }
    bias_filler {
      type: "constant"
      value: 0.2
    }
  }
}
layer {
  name: "inception_3a/relu_pool_proj"
  type: "ReLU"
  bottom: "inception_3a/pool_proj"
  top: "inception_3a/pool_proj"
}
layer {
  name: "inception_3a/output"
  type: "Concat"
  bottom: "inception_3a/1x1"
  bottom: "inception_3a/3x3"
  bottom: "inception_3a/5x5"
  bottom: "inception_3a/pool_proj"
  top: "inception_3a/output"
}
layer {
  name: "inception_3b/1x1"
  type: "Convolution"
  bottom: "inception_3a/output"
  top: "inception_3b/1x1"
  param {
    lr_mult: 1
    decay_mult: 1
  }
  param {
    lr_mult: 2
    decay_mult: 0
  }
  convolution_param {
    num_output: 128
    kernel_size: 1
    weight_filler {
      type: "xavier"
      std: 0.03
    }
    bias_filler {
      type: "constant"
      value: 0.2
    }
  }
}
layer {
  name: "inception_3b/relu_1x1"
  type: "ReLU"
  bottom: "inception_3b/1x1"
  top: "inception_3b/1x1"
}
layer {
  name: "inception_3b/3x3_reduce"
  type: "Convolution"
  bottom: "inception_3a/output"
  top: "inception_3b/3x3_reduce"
  param {
    lr_mult: 1
    decay_mult: 1
  }
  param {
    lr_mult: 2
    decay_mult: 0
  }
  convolution_param {
    num_output: 128
    kernel_size: 1
    weight_filler {
      type: "xavier"
      std: 0.09
    }
    bias_filler {
      type: "constant"
      value: 0.2
    }
  }
}
layer {
  name: "inception_3b/relu_3x3_reduce"
  type: "ReLU"
  bottom: "inception_3b/3x3_reduce"
  top: "inception_3b/3x3_reduce"
}
layer {
  name: "inception_3b/3x3"
  type: "Convolution"
  bottom: "inception_3b/3x3_reduce"
  top: "inception_3b/3x3"
  param {
    lr_mult: 1
    decay_mult: 1
  }
  param {
    lr_mult: 2
    decay_mult: 0
  }
  convolution_param {
    num_output: 192
    pad: 1
    kernel_size: 3
    weight_filler {
      type: "xavier"
      std: 0.03
    }
    bias_filler {
      type: "constant"
      value: 0.2
    }
  }
}
layer {
  name: "inception_3b/relu_3x3"
  type: "ReLU"
  bottom: "inception_3b/3x3"
  top: "inception_3b/3x3"
}
layer {
  name: "inception_3b/5x5_reduce"
  type: "Convolution"
  bottom: "inception_3a/output"
  top: "inception_3b/5x5_reduce"
  param {
    lr_mult: 1
    decay_mult: 1
  }
  param {
    lr_mult: 2
    decay_mult: 0
  }
  convolution_param {
    num_output: 32
    kernel_size: 1
    weight_filler {
      type: "xavier"
      std: 0.2
    }
    bias_filler {
      type: "constant"
      value: 0.2
    }
  }
}
layer {
  name: "inception_3b/relu_5x5_reduce"
  type: "ReLU"
  bottom: "inception_3b/5x5_reduce"
  top: "inception_3b/5x5_reduce"
}
layer {
  name: "inception_3b/5x5"
  type: "Convolution"
  bottom: "inception_3b/5x5_reduce"
  top: "inception_3b/5x5"
  param {
    lr_mult: 1
    decay_mult: 1
  }
  param {
    lr_mult: 2
    decay_mult: 0
  }
  convolution_param {
    num_output: 96
    pad: 2
    kernel_size: 5
    weight_filler {
      type: "xavier"
      std: 0.03
    }
    bias_filler {
      type: "constant"
      value: 0.2
    }
  }
}
layer {
  name: "inception_3b/relu_5x5"
  type: "ReLU"
  bottom: "inception_3b/5x5"
  top: "inception_3b/5x5"
}
layer {
  name: "inception_3b/pool"
  type: "Pooling"
  bottom: "inception_3a/output"
  top: "inception_3b/pool"
  pooling_param {
    pool: MAX
    kernel_size: 3
    stride: 1
    pad: 1
  }
}
layer {
  name: "inception_3b/pool_proj"
  type: "Convolution"
  bottom: "inception_3b/pool"
  top: "inception_3b/pool_proj"
  param {
    lr_mult: 1
    decay_mult: 1
  }
  param {
    lr_mult: 2
    decay_mult: 0
  }
  convolution_param {
    num_output: 64
    kernel_size: 1
    weight_filler {
      type: "xavier"
      std: 0.1
    }
    bias_filler {
      type: "constant"
      value: 0.2
    }
  }
}
layer {
  name: "inception_3b/relu_pool_proj"
  type: "ReLU"
  bottom: "inception_3b/pool_proj"
  top: "inception_3b/pool_proj"
}
layer {
  name: "inception_3b/output"
  type: "Concat"
  bottom: "inception_3b/1x1"
  bottom: "inception_3b/3x3"
  bottom: "inception_3b/5x5"
  bottom: "inception_3b/pool_proj"
  top: "inception_3b/output"
}
layer {
  name: "pool3/3x3_s2"
  type: "Pooling"
  bottom: "inception_3b/output"
  top: "pool3/3x3_s2"
  pooling_param {
    pool: MAX
    kernel_size: 3
    stride: 2
  }
}
layer {
  name: "inception_4a/1x1"
  type: "Convolution"
  bottom: "pool3/3x3_s2"
  top: "inception_4a/1x1"
  param {
    lr_mult: 1
    decay_mult: 1
  }
  param {
    lr_mult: 2
    decay_mult: 0
  }
  convolution_param {
    num_output: 192
    kernel_size: 1
    weight_filler {
      type: "xavier"
      std: 0.03
    }
    bias_filler {
      type: "constant"
      value: 0.2
    }
  }
}
layer {
  name: "inception_4a/relu_1x1"
  type: "ReLU"
  bottom: "inception_4a/1x1"
  top: "inception_4a/1x1"
}
layer {
  name: "inception_4a/3x3_reduce"
  type: "Convolution"
  bottom: "pool3/3x3_s2"
  top: "inception_4a/3x3_reduce"
  param {
    lr_mult: 1
    decay_mult: 1
  }
  param {
    lr_mult: 2
    decay_mult: 0
  }
  convolution_param {
    num_output: 96
    kernel_size: 1
    weight_filler {
      type: "xavier"
      std: 0.09
    }
    bias_filler {
      type: "constant"
      value: 0.2
    }
  }
}
layer {
  name: "inception_4a/relu_3x3_reduce"
  type: "ReLU"
  bottom: "inception_4a/3x3_reduce"
  top: "inception_4a/3x3_reduce"
}
layer {
  name: "inception_4a/3x3"
  type: "Convolution"
  bottom: "inception_4a/3x3_reduce"
  top: "inception_4a/3x3"
  param {
    lr_mult: 1
    decay_mult: 1
  }
  param {
    lr_mult: 2
    decay_mult: 0
  }
  convolution_param {
    num_output: 208
    pad: 1
    kernel_size: 3
    weight_filler {
      type: "xavier"
      std: 0.03
    }
    bias_filler {
      type: "constant"
      value: 0.2
    }
  }
}
layer {
  name: "inception_4a/relu_3x3"
  type: "ReLU"
  bottom: "inception_4a/3x3"
  top: "inception_4a/3x3"
}
layer {
  name: "inception_4a/5x5_reduce"
  type: "Convolution"
  bottom: "pool3/3x3_s2"
  top: "inception_4a/5x5_reduce"
  param {
    lr_mult: 1
    decay_mult: 1
  }
  param {
    lr_mult: 2
    decay_mult: 0
  }
  convolution_param {
    num_output: 16
    kernel_size: 1
    weight_filler {
      type: "xavier"
      std: 0.2
    }
    bias_filler {
      type: "constant"
      value: 0.2
    }
  }
}
layer {
  name: "inception_4a/relu_5x5_reduce"
  type: "ReLU"
  bottom: "inception_4a/5x5_reduce"
  top: "inception_4a/5x5_reduce"
}
layer {
  name: "inception_4a/5x5"
  type: "Convolution"
  bottom: "inception_4a/5x5_reduce"
  top: "inception_4a/5x5"
  param {
    lr_mult: 1
    decay_mult: 1
  }
  param {
    lr_mult: 2
    decay_mult: 0
  }
  convolution_param {
    num_output: 48
    pad: 2
    kernel_size: 5
    weight_filler {
      type: "xavier"
      std: 0.03
    }
    bias_filler {
      type: "constant"
      value: 0.2
    }
  }
}
layer {
  name: "inception_4a/relu_5x5"
  type: "ReLU"
  bottom: "inception_4a/5x5"
  top: "inception_4a/5x5"
}
layer {
  name: "inception_4a/pool"
  type: "Pooling"
  bottom: "pool3/3x3_s2"
  top: "inception_4a/pool"
  pooling_param {
    pool: MAX
    kernel_size: 3
    stride: 1
    pad: 1
  }
}
layer {
  name: "inception_4a/pool_proj"
  type: "Convolution"
  bottom: "inception_4a/pool"
  top: "inception_4a/pool_proj"
  param {
    lr_mult: 1
    decay_mult: 1
  }
  param {
    lr_mult: 2
    decay_mult: 0
  }
  convolution_param {
    num_output: 64
    kernel_size: 1
    weight_filler {
      type: "xavier"
      std: 0.1
    }
    bias_filler {
      type: "constant"
      value: 0.2
    }
  }
}
layer {
  name: "inception_4a/relu_pool_proj"
  type: "ReLU"
  bottom: "inception_4a/pool_proj"
  top: "inception_4a/pool_proj"
}
layer {
  name: "inception_4a/output"
  type: "Concat"
  bottom: "inception_4a/1x1"
  bottom: "inception_4a/3x3"
  bottom: "inception_4a/5x5"
  bottom: "inception_4a/pool_proj"
  top: "inception_4a/output"
}
layer {
  name: "inception_4b/1x1"
  type: "Convolution"
  bottom: "inception_4a/output"
  top: "inception_4b/1x1"
  param {
    lr_mult: 1
    decay_mult: 1
  }
  param {
    lr_mult: 2
    decay_mult: 0
  }
  convolution_param {
    num_output: 160
    kernel_size: 1
    weight_filler {
      type: "xavier"
      std: 0.03
    }
    bias_filler {
      type: "constant"
      value: 0.2
    }
  }
}
layer {
  name: "inception_4b/relu_1x1"
  type: "ReLU"
  bottom: "inception_4b/1x1"
  top: "inception_4b/1x1"
}
layer {
  name: "inception_4b/3x3_reduce"
  type: "Convolution"
  bottom: "inception_4a/output"
  top: "inception_4b/3x3_reduce"
  param {
    lr_mult: 1
    decay_mult: 1
  }
  param {
    lr_mult: 2
    decay_mult: 0
  }
  convolution_param {
    num_output: 112
    kernel_size: 1
    weight_filler {
      type: "xavier"
      std: 0.09
    }
    bias_filler {
      type: "constant"
      value: 0.2
    }
  }
}
layer {
  name: "inception_4b/relu_3x3_reduce"
  type: "ReLU"
  bottom: "inception_4b/3x3_reduce"
  top: "inception_4b/3x3_reduce"
}
layer {
  name: "inception_4b/3x3"
  type: "Convolution"
  bottom: "inception_4b/3x3_reduce"
  top: "inception_4b/3x3"
  param {
    lr_mult: 1
    decay_mult: 1
  }
  param {
    lr_mult: 2
    decay_mult: 0
  }
  convolution_param {
    num_output: 224
    pad: 1
    kernel_size: 3
    weight_filler {
      type: "xavier"
      std: 0.03
    }
    bias_filler {
      type: "constant"
      value: 0.2
    }
  }
}
layer {
  name: "inception_4b/relu_3x3"
  type: "ReLU"
  bottom: "inception_4b/3x3"
  top: "inception_4b/3x3"
}
layer {
  name: "inception_4b/5x5_reduce"
  type: "Convolution"
  bottom: "inception_4a/output"
  top: "inception_4b/5x5_reduce"
  param {
    lr_mult: 1
    decay_mult: 1
  }
  param {
    lr_mult: 2
    decay_mult: 0
  }
  convolution_param {
    num_output: 24
    kernel_size: 1
    weight_filler {
      type: "xavier"
      std: 0.2
    }
    bias_filler {
      type: "constant"
      value: 0.2
    }
  }
}
layer {
  name: "inception_4b/relu_5x5_reduce"
  type: "ReLU"
  bottom: "inception_4b/5x5_reduce"
  top: "inception_4b/5x5_reduce"
}
layer {
  name: "inception_4b/5x5"
  type: "Convolution"
  bottom: "inception_4b/5x5_reduce"
  top: "inception_4b/5x5"
  param {
    lr_mult: 1
    decay_mult: 1
  }
  param {
    lr_mult: 2
    decay_mult: 0
  }
  convolution_param {
    num_output: 64
    pad: 2
    kernel_size: 5
    weight_filler {
      type: "xavier"
      std: 0.03
    }
    bias_filler {
      type: "constant"
      value: 0.2
    }
  }
}
layer {
  name: "inception_4b/relu_5x5"
  type: "ReLU"
  bottom: "inception_4b/5x5"
  top: "inception_4b/5x5"
}
layer {
  name: "inception_4b/pool"
  type: "Pooling"
  bottom: "inception_4a/output"
  top: "inception_4b/pool"
  pooling_param {
    pool: MAX
    kernel_size: 3
    stride: 1
    pad: 1
  }
}
layer {
  name: "inception_4b/pool_proj"
  type: "Convolution"
  bottom: "inception_4b/pool"
  top: "inception_4b/pool_proj"
  param {
    lr_mult: 1
    decay_mult: 1
  }
  param {
    lr_mult: 2
    decay_mult: 0
  }
  convolution_param {
    num_output: 64
    kernel_size: 1
    weight_filler {
      type: "xavier"
      std: 0.1
    }
    bias_filler {
      type: "constant"
      value: 0.2
    }
  }
}
layer {
  name: "inception_4b/relu_pool_proj"
  type: "ReLU"
  bottom: "inception_4b/pool_proj"
  top: "inception_4b/pool_proj"
}
layer {
  name: "inception_4b/output"
  type: "Concat"
  bottom: "inception_4b/1x1"
  bottom: "inception_4b/3x3"
  bottom: "inception_4b/5x5"
  bottom: "inception_4b/pool_proj"
  top: "inception_4b/output"
}
layer {
  name: "inception_4c/1x1"
  type: "Convolution"
  bottom: "inception_4b/output"
  top: "inception_4c/1x1"
  param {
    lr_mult: 1
    decay_mult: 1
  }
  param {
    lr_mult: 2
    decay_mult: 0
  }
  convolution_param {
    num_output: 128
    kernel_size: 1
    weight_filler {
      type: "xavier"
      std: 0.03
    }
    bias_filler {
      type: "constant"
      value: 0.2
    }
  }
}
layer {
  name: "inception_4c/relu_1x1"
  type: "ReLU"
  bottom: "inception_4c/1x1"
  top: "inception_4c/1x1"
}
layer {
  name: "inception_4c/3x3_reduce"
  type: "Convolution"
  bottom: "inception_4b/output"
  top: "inception_4c/3x3_reduce"
  param {
    lr_mult: 1
    decay_mult: 1
  }
  param {
    lr_mult: 2
    decay_mult: 0
  }
  convolution_param {
    num_output: 128
    kernel_size: 1
    weight_filler {
      type: "xavier"
      std: 0.09
    }
    bias_filler {
      type: "constant"
      value: 0.2
    }
  }
}
layer {
  name: "inception_4c/relu_3x3_reduce"
  type: "ReLU"
  bottom: "inception_4c/3x3_reduce"
  top: "inception_4c/3x3_reduce"
}
layer {
  name: "inception_4c/3x3"
  type: "Convolution"
  bottom: "inception_4c/3x3_reduce"
  top: "inception_4c/3x3"
  param {
    lr_mult: 1
    decay_mult: 1
  }
  param {
    lr_mult: 2
    decay_mult: 0
  }
  convolution_param {
    num_output: 256
    pad: 1
    kernel_size: 3
    weight_filler {
      type: "xavier"
      std: 0.03
    }
    bias_filler {
      type: "constant"
      value: 0.2
    }
  }
}
layer {
  name: "inception_4c/relu_3x3"
  type: "ReLU"
  bottom: "inception_4c/3x3"
  top: "inception_4c/3x3"
}
layer {
  name: "inception_4c/5x5_reduce"
  type: "Convolution"
  bottom: "inception_4b/output"
  top: "inception_4c/5x5_reduce"
  param {
    lr_mult: 1
    decay_mult: 1
  }
  param {
    lr_mult: 2
    decay_mult: 0
  }
  convolution_param {
    num_output: 24
    kernel_size: 1
    weight_filler {
      type: "xavier"
      std: 0.2
    }
    bias_filler {
      type: "constant"
      value: 0.2
    }
  }
}
layer {
  name: "inception_4c/relu_5x5_reduce"
  type: "ReLU"
  bottom: "inception_4c/5x5_reduce"
  top: "inception_4c/5x5_reduce"
}
layer {
  name: "inception_4c/5x5"
  type: "Convolution"
  bottom: "inception_4c/5x5_reduce"
  top: "inception_4c/5x5"
  param {
    lr_mult: 1
    decay_mult: 1
  }
  param {
    lr_mult: 2
    decay_mult: 0
  }
  convolution_param {
    num_output: 64
    pad: 2
    kernel_size: 5
    weight_filler {
      type: "xavier"
      std: 0.03
    }
    bias_filler {
      type: "constant"
      value: 0.2
    }
  }
}
layer {
  name: "inception_4c/relu_5x5"
  type: "ReLU"
  bottom: "inception_4c/5x5"
  top: "inception_4c/5x5"
}
layer {
  name: "inception_4c/pool"
  type: "Pooling"
  bottom: "inception_4b/output"
  top: "inception_4c/pool"
  pooling_param {
    pool: MAX
    kernel_size: 3
    stride: 1
    pad: 1
  }
}
layer {
  name: "inception_4c/pool_proj"
  type: "Convolution"
  bottom: "inception_4c/pool"
  top: "inception_4c/pool_proj"
  param {
    lr_mult: 1
    decay_mult: 1
  }
  param {
    lr_mult: 2
    decay_mult: 0
  }
  convolution_param {
    num_output: 64
    kernel_size: 1
    weight_filler {
      type: "xavier"
      std: 0.1
    }
    bias_filler {
      type: "constant"
      value: 0.2
    }
  }
}
layer {
  name: "inception_4c/relu_pool_proj"
  type: "ReLU"
  bottom: "inception_4c/pool_proj"
  top: "inception_4c/pool_proj"
}
layer {
  name: "inception_4c/output"
  type: "Concat"
  bottom: "inception_4c/1x1"
  bottom: "inception_4c/3x3"
  bottom: "inception_4c/5x5"
  bottom: "inception_4c/pool_proj"
  top: "inception_4c/output"
}
layer {
  name: "inception_4d/1x1"
  type: "Convolution"
  bottom: "inception_4c/output"
  top: "inception_4d/1x1"
  param {
    lr_mult: 1
    decay_mult: 1
  }
  param {
    lr_mult: 2
    decay_mult: 0
  }
  convolution_param {
    num_output: 112
    kernel_size: 1
    weight_filler {
      type: "xavier"
      std: 0.03
    }
    bias_filler {
      type: "constant"
      value: 0.2
    }
  }
}
layer {
  name: "inception_4d/relu_1x1"
  type: "ReLU"
  bottom: "inception_4d/1x1"
  top: "inception_4d/1x1"
}
layer {
  name: "inception_4d/3x3_reduce"
  type: "Convolution"
  bottom: "inception_4c/output"
  top: "inception_4d/3x3_reduce"
  param {
    lr_mult: 1
    decay_mult: 1
  }
  param {
    lr_mult: 2
    decay_mult: 0
  }
  convolution_param {
    num_output: 144
    kernel_size: 1
    weight_filler {
      type: "xavier"
      std: 0.09
    }
    bias_filler {
      type: "constant"
      value: 0.2
    }
  }
}
layer {
  name: "inception_4d/relu_3x3_reduce"
  type: "ReLU"
  bottom: "inception_4d/3x3_reduce"
  top: "inception_4d/3x3_reduce"
}
layer {
  name: "inception_4d/3x3"
  type: "Convolution"
  bottom: "inception_4d/3x3_reduce"
  top: "inception_4d/3x3"
  param {
    lr_mult: 1
    decay_mult: 1
  }
  param {
    lr_mult: 2
    decay_mult: 0
  }
  convolution_param {
    num_output: 288
    pad: 1
    kernel_size: 3
    weight_filler {
      type: "xavier"
      std: 0.03
    }
    bias_filler {
      type: "constant"
      value: 0.2
    }
  }
}
layer {
  name: "inception_4d/relu_3x3"
  type: "ReLU"
  bottom: "inception_4d/3x3"
  top: "inception_4d/3x3"
}
layer {
  name: "inception_4d/5x5_reduce"
  type: "Convolution"
  bottom: "inception_4c/output"
  top: "inception_4d/5x5_reduce"
  param {
    lr_mult: 1
    decay_mult: 1
  }
  param {
    lr_mult: 2
    decay_mult: 0
  }
  convolution_param {
    num_output: 32
    kernel_size: 1
    weight_filler {
      type: "xavier"
      std: 0.2
    }
    bias_filler {
      type: "constant"
      value: 0.2
    }
  }
}
layer {
  name: "inception_4d/relu_5x5_reduce"
  type: "ReLU"
  bottom: "inception_4d/5x5_reduce"
  top: "inception_4d/5x5_reduce"
}
layer {
  name: "inception_4d/5x5"
  type: "Convolution"
  bottom: "inception_4d/5x5_reduce"
  top: "inception_4d/5x5"
  param {
    lr_mult: 1
    decay_mult: 1
  }
  param {
    lr_mult: 2
    decay_mult: 0
  }
  convolution_param {
    num_output: 64
    pad: 2
    kernel_size: 5
    weight_filler {
      type: "xavier"
      std: 0.03
    }
    bias_filler {
      type: "constant"
      value: 0.2
    }
  }
}
layer {
  name: "inception_4d/relu_5x5"
  type: "ReLU"
  bottom: "inception_4d/5x5"
  top: "inception_4d/5x5"
}
layer {
  name: "inception_4d/pool"
  type: "Pooling"
  bottom: "inception_4c/output"
  top: "inception_4d/pool"
  pooling_param {
    pool: MAX
    kernel_size: 3
    stride: 1
    pad: 1
  }
}
layer {
  name: "inception_4d/pool_proj"
  type: "Convolution"
  bottom: "inception_4d/pool"
  top: "inception_4d/pool_proj"
  param {
    lr_mult: 1
    decay_mult: 1
  }
  param {
    lr_mult: 2
    decay_mult: 0
  }
  convolution_param {
    num_output: 64
    kernel_size: 1
    weight_filler {
      type: "xavier"
      std: 0.1
    }
    bias_filler {
      type: "constant"
      value: 0.2
    }
  }
}
layer {
  name: "inception_4d/relu_pool_proj"
  type: "ReLU"
  bottom: "inception_4d/pool_proj"
  top: "inception_4d/pool_proj"
}
layer {
  name: "inception_4d/output"
  type: "Concat"
  bottom: "inception_4d/1x1"
  bottom: "inception_4d/3x3"
  bottom: "inception_4d/5x5"
  bottom: "inception_4d/pool_proj"
  top: "inception_4d/output"
}
layer {
  name: "inception_4e/1x1"
  type: "Convolution"
  bottom: "inception_4d/output"
  top: "inception_4e/1x1"
  param {
    lr_mult: 1
    decay_mult: 1
  }
  param {
    lr_mult: 2
    decay_mult: 0
  }
  convolution_param {
    num_output: 256
    kernel_size: 1
    weight_filler {
      type: "xavier"
      std: 0.03
    }
    bias_filler {
      type: "constant"
      value: 0.2
    }
  }
}
layer {
  name: "inception_4e/relu_1x1"
  type: "ReLU"
  bottom: "inception_4e/1x1"
  top: "inception_4e/1x1"
}
layer {
  name: "inception_4e/3x3_reduce"
  type: "Convolution"
  bottom: "inception_4d/output"
  top: "inception_4e/3x3_reduce"
  param {
    lr_mult: 1
    decay_mult: 1
  }
  param {
    lr_mult: 2
    decay_mult: 0
  }
  convolution_param {
    num_output: 160
    kernel_size: 1
    weight_filler {
      type: "xavier"
      std: 0.09
    }
    bias_filler {
      type: "constant"
      value: 0.2
    }
  }
}
layer {
  name: "inception_4e/relu_3x3_reduce"
  type: "ReLU"
  bottom: "inception_4e/3x3_reduce"
  top: "inception_4e/3x3_reduce"
}
layer {
  name: "inception_4e/3x3"
  type: "Convolution"
  bottom: "inception_4e/3x3_reduce"
  top: "inception_4e/3x3"
  param {
    lr_mult: 1
    decay_mult: 1
  }
  param {
    lr_mult: 2
    decay_mult: 0
  }
  convolution_param {
    num_output: 320
    pad: 1
    kernel_size: 3
    weight_filler {
      type: "xavier"
      std: 0.03
    }
    bias_filler {
      type: "constant"
      value: 0.2
    }
  }
}
layer {
  name: "inception_4e/relu_3x3"
  type: "ReLU"
  bottom: "inception_4e/3x3"
  top: "inception_4e/3x3"
}
layer {
  name: "inception_4e/5x5_reduce"
  type: "Convolution"
  bottom: "inception_4d/output"
  top: "inception_4e/5x5_reduce"
  param {
    lr_mult: 1
    decay_mult: 1
  }
  param {
    lr_mult: 2
    decay_mult: 0
  }
  convolution_param {
    num_output: 32
    kernel_size: 1
    weight_filler {
      type: "xavier"
      std: 0.2
    }
    bias_filler {
      type: "constant"
      value: 0.2
    }
  }
}
layer {
  name: "inception_4e/relu_5x5_reduce"
  type: "ReLU"
  bottom: "inception_4e/5x5_reduce"
  top: "inception_4e/5x5_reduce"
}
layer {
  name: "inception_4e/5x5"
  type: "Convolution"
  bottom: "inception_4e/5x5_reduce"
  top: "inception_4e/5x5"
  param {
    lr_mult: 1
    decay_mult: 1
  }
  param {
    lr_mult: 2
    decay_mult: 0
  }
  convolution_param {
    num_output: 128
    pad: 2
    kernel_size: 5
    weight_filler {
      type: "xavier"
      std: 0.03
    }
    bias_filler {
      type: "constant"
      value: 0.2
    }
  }
}
layer {
  name: "inception_4e/relu_5x5"
  type: "ReLU"
  bottom: "inception_4e/5x5"
  top: "inception_4e/5x5"
}
layer {
  name: "inception_4e/pool"
  type: "Pooling"
  bottom: "inception_4d/output"
  top: "inception_4e/pool"
  pooling_param {
    pool: MAX
    kernel_size: 3
    stride: 1
    pad: 1
  }
}
layer {
  name: "inception_4e/pool_proj"
  type: "Convolution"
  bottom: "inception_4e/pool"
  top: "inception_4e/pool_proj"
  param {
    lr_mult: 1
    decay_mult: 1
  }
  param {
    lr_mult: 2
    decay_mult: 0
  }
  convolution_param {
    num_output: 128
    kernel_size: 1
    weight_filler {
      type: "xavier"
      std: 0.1
    }
    bias_filler {
      type: "constant"
      value: 0.2
    }
  }
}
layer {
  name: "inception_4e/relu_pool_proj"
  type: "ReLU"
  bottom: "inception_4e/pool_proj"
  top: "inception_4e/pool_proj"
}
layer {
  name: "inception_4e/output"
  type: "Concat"
  bottom: "inception_4e/1x1"
  bottom: "inception_4e/3x3"
  bottom: "inception_4e/5x5"
  bottom: "inception_4e/pool_proj"
  top: "inception_4e/output"
}
layer {
  name: "pool4/3x3_s2"
  type: "Pooling"
  bottom: "inception_4e/output"
  top: "pool4/3x3_s2"
  pooling_param {
    pool: MAX
    kernel_size: 3
    stride: 2
  }
}
layer {
  name: "inception_5a/1x1"
  type: "Convolution"
  bottom: "pool4/3x3_s2"
  top: "inception_5a/1x1"
  param {
    lr_mult: 1
    decay_mult: 1
  }
  param {
    lr_mult: 2
    decay_mult: 0
  }
  convolution_param {
    num_output: 256
    kernel_size: 1
    weight_filler {
      type: "xavier"
      std: 0.03
    }
    bias_filler {
      type: "constant"
      value: 0.2
    }
  }
}
layer {
  name: "inception_5a/relu_1x1"
  type: "ReLU"
  bottom: "inception_5a/1x1"
  top: "inception_5a/1x1"
}
layer {
  name: "inception_5a/3x3_reduce"
  type: "Convolution"
  bottom: "pool4/3x3_s2"
  top: "inception_5a/3x3_reduce"
  param {
    lr_mult: 1
    decay_mult: 1
  }
  param {
    lr_mult: 2
    decay_mult: 0
  }
  convolution_param {
    num_output: 160
    kernel_size: 1
    weight_filler {
      type: "xavier"
      std: 0.09
    }
    bias_filler {
      type: "constant"
      value: 0.2
    }
  }
}
layer {
  name: "inception_5a/relu_3x3_reduce"
  type: "ReLU"
  bottom: "inception_5a/3x3_reduce"
  top: "inception_5a/3x3_reduce"
}
layer {
  name: "inception_5a/3x3"
  type: "Convolution"
  bottom: "inception_5a/3x3_reduce"
  top: "inception_5a/3x3"
  param {
    lr_mult: 1
    decay_mult: 1
  }
  param {
    lr_mult: 2
    decay_mult: 0
  }
  convolution_param {
    num_output: 320
    pad: 1
    kernel_size: 3
    weight_filler {
      type: "xavier"
      std: 0.03
    }
    bias_filler {
      type: "constant"
      value: 0.2
    }
  }
}
layer {
  name: "inception_5a/relu_3x3"
  type: "ReLU"
  bottom: "inception_5a/3x3"
  top: "inception_5a/3x3"
}
layer {
  name: "inception_5a/5x5_reduce"
  type: "Convolution"
  bottom: "pool4/3x3_s2"
  top: "inception_5a/5x5_reduce"
  param {
    lr_mult: 1
    decay_mult: 1
  }
  param {
    lr_mult: 2
    decay_mult: 0
  }
  convolution_param {
    num_output: 32
    kernel_size: 1
    weight_filler {
      type: "xavier"
      std: 0.2
    }
    bias_filler {
      type: "constant"
      value: 0.2
    }
I0713 14:11:02.025985 14818 layer_factory.hpp:77] Creating layer data
I0713 14:11:02.026036 14818 net.cpp:91] Creating Layer data
I0713 14:11:02.026056 14818 net.cpp:399] data -> data
I0713 14:11:02.557713 14818 net.cpp:141] Setting up data
I0713 14:11:02.557792 14818 net.cpp:148] Top shape: 10 3 224 224 (1505280)
I0713 14:11:02.557799 14818 net.cpp:156] Memory required for data: 6021120
I0713 14:11:02.557826 14818 layer_factory.hpp:77] Creating layer conv1/7x7_s2
I0713 14:11:02.557868 14818 net.cpp:91] Creating Layer conv1/7x7_s2
I0713 14:11:02.557878 14818 net.cpp:425] conv1/7x7_s2 <- data
I0713 14:11:02.557893 14818 net.cpp:399] conv1/7x7_s2 -> conv1/7x7_s2
I0713 14:11:02.788066 14818 net.cpp:141] Setting up conv1/7x7_s2
I0713 14:11:02.788133 14818 net.cpp:148] Top shape: 10 64 112 112 (8028160)
I0713 14:11:02.788139 14818 net.cpp:156] Memory required for data: 38133760
I0713 14:11:02.788169 14818 layer_factory.hpp:77] Creating layer conv1/relu_7x7
I0713 14:11:02.788188 14818 net.cpp:91] Creating Layer conv1/relu_7x7
I0713 14:11:02.788195 14818 net.cpp:425] conv1/relu_7x7 <- conv1/7x7_s2
I0713 14:11:02.788203 14818 net.cpp:386] conv1/relu_7x7 -> conv1/7x7_s2 (in-place)
I0713 14:11:02.788911 14818 net.cpp:141] Setting up conv1/relu_7x7
I0713 14:11:02.788923 14818 net.cpp:148] Top shape: 10 64 112 112 (8028160)
I0713 14:11:02.788928 14818 net.cpp:156] Memory required for data: 70246400
I0713 14:11:02.788933 14818 layer_factory.hpp:77] Creating layer pool1/3x3_s2
I0713 14:11:02.788945 14818 net.cpp:91] Creating Layer pool1/3x3_s2
I0713 14:11:02.788950 14818 net.cpp:425] pool1/3x3_s2 <- conv1/7x7_s2
I0713 14:11:02.788957 14818 net.cpp:399] pool1/3x3_s2 -> pool1/3x3_s2
I0713 14:11:02.789049 14818 net.cpp:141] Setting up pool1/3x3_s2
I0713 14:11:02.789059 14818 net.cpp:148] Top shape: 10 64 56 56 (2007040)
I0713 14:11:02.789063 14818 net.cpp:156] Memory required for data: 78274560
I0713 14:11:02.789068 14818 layer_factory.hpp:77] Creating layer pool1/norm1
I0713 14:11:02.789085 14818 net.cpp:91] Creating Layer pool1/norm1
I0713 14:11:02.789090 14818 net.cpp:425] pool1/norm1 <- pool1/3x3_s2
I0713 14:11:02.789103 14818 net.cpp:399] pool1/norm1 -> pool1/norm1
I0713 14:11:02.789872 14818 net.cpp:141] Setting up pool1/norm1
I0713 14:11:02.789885 14818 net.cpp:148] Top shape: 10 64 56 56 (2007040)
I0713 14:11:02.789890 14818 net.cpp:156] Memory required for data: 86302720
I0713 14:11:02.789893 14818 layer_factory.hpp:77] Creating layer conv2/3x3_reduce
I0713 14:11:02.789916 14818 net.cpp:91] Creating Layer conv2/3x3_reduce
I0713 14:11:02.789922 14818 net.cpp:425] conv2/3x3_reduce <- pool1/norm1
I0713 14:11:02.789930 14818 net.cpp:399] conv2/3x3_reduce -> conv2/3x3_reduce
I0713 14:11:02.792521 14818 net.cpp:141] Setting up conv2/3x3_reduce
I0713 14:11:02.792551 14818 net.cpp:148] Top shape: 10 64 56 56 (2007040)
I0713 14:11:02.792557 14818 net.cpp:156] Memory required for data: 94330880
I0713 14:11:02.792567 14818 layer_factory.hpp:77] Creating layer conv2/relu_3x3_reduce
I0713 14:11:02.792574 14818 net.cpp:91] Creating Layer conv2/relu_3x3_reduce
I0713 14:11:02.792582 14818 net.cpp:425] conv2/relu_3x3_reduce <- conv2/3x3_reduce
I0713 14:11:02.792588 14818 net.cpp:386] conv2/relu_3x3_reduce -> conv2/3x3_reduce (in-place)
I0713 14:11:02.793285 14818 net.cpp:141] Setting up conv2/relu_3x3_reduce
I0713 14:11:02.793314 14818 net.cpp:148] Top shape: 10 64 56 56 (2007040)
I0713 14:11:02.793318 14818 net.cpp:156] Memory required for data: 102359040
I0713 14:11:02.793323 14818 layer_factory.hpp:77] Creating layer conv2/3x3
I0713 14:11:02.793339 14818 net.cpp:91] Creating Layer conv2/3x3
I0713 14:11:02.793344 14818 net.cpp:425] conv2/3x3 <- conv2/3x3_reduce
I0713 14:11:02.793355 14818 net.cpp:399] conv2/3x3 -> conv2/3x3
I0713 14:11:02.797747 14818 net.cpp:141] Setting up conv2/3x3
I0713 14:11:02.797776 14818 net.cpp:148] Top shape: 10 192 56 56 (6021120)
I0713 14:11:02.797782 14818 net.cpp:156] Memory required for data: 126443520
I0713 14:11:02.797794 14818 layer_factory.hpp:77] Creating layer conv2/relu_3x3
I0713 14:11:02.797804 14818 net.cpp:91] Creating Layer conv2/relu_3x3
I0713 14:11:02.797809 14818 net.cpp:425] conv2/relu_3x3 <- conv2/3x3
I0713 14:11:02.797819 14818 net.cpp:386] conv2/relu_3x3 -> conv2/3x3 (in-place)
I0713 14:11:02.798065 14818 net.cpp:141] Setting up conv2/relu_3x3
I0713 14:11:02.798079 14818 net.cpp:148] Top shape: 10 192 56 56 (6021120)
I0713 14:11:02.798084 14818 net.cpp:156] Memory required for data: 150528000
I0713 14:11:02.798087 14818 layer_factory.hpp:77] Creating layer conv2/norm2
I0713 14:11:02.798095 14818 net.cpp:91] Creating Layer conv2/norm2
I0713 14:11:02.798100 14818 net.cpp:425] conv2/norm2 <- conv2/3x3
I0713 14:11:02.798110 14818 net.cpp:399] conv2/norm2 -> conv2/norm2
I0713 14:11:02.798866 14818 net.cpp:141] Setting up conv2/norm2
I0713 14:11:02.798882 14818 net.cpp:148] Top shape: 10 192 56 56 (6021120)
I0713 14:11:02.798887 14818 net.cpp:156] Memory required for data: 174612480
I0713 14:11:02.798892 14818 layer_factory.hpp:77] Creating layer pool2/3x3_s2
I0713 14:11:02.798899 14818 net.cpp:91] Creating Layer pool2/3x3_s2
I0713 14:11:02.798904 14818 net.cpp:425] pool2/3x3_s2 <- conv2/norm2
I0713 14:11:02.798914 14818 net.cpp:399] pool2/3x3_s2 -> pool2/3x3_s2
I0713 14:11:02.798966 14818 net.cpp:141] Setting up pool2/3x3_s2
I0713 14:11:02.798975 14818 net.cpp:148] Top shape: 10 192 28 28 (1505280)
I0713 14:11:02.798979 14818 net.cpp:156] Memory required for data: 180633600
I0713 14:11:02.798984 14818 layer_factory.hpp:77] Creating layer pool2/3x3_s2_pool2/3x3_s2_0_split
I0713 14:11:02.799016 14818 net.cpp:91] Creating Layer pool2/3x3_s2_pool2/3x3_s2_0_split
I0713 14:11:02.799022 14818 net.cpp:425] pool2/3x3_s2_pool2/3x3_s2_0_split <- pool2/3x3_s2
I0713 14:11:02.799028 14818 net.cpp:399] pool2/3x3_s2_pool2/3x3_s2_0_split -> pool2/3x3_s2_pool2/3x3_s2_0_split_0
I0713 14:11:02.799039 14818 net.cpp:399] pool2/3x3_s2_pool2/3x3_s2_0_split -> pool2/3x3_s2_pool2/3x3_s2_0_split_1
I0713 14:11:02.799046 14818 net.cpp:399] pool2/3x3_s2_pool2/3x3_s2_0_split -> pool2/3x3_s2_pool2/3x3_s2_0_split_2
I0713 14:11:02.799067 14818 net.cpp:399] pool2/3x3_s2_pool2/3x3_s2_0_split -> pool2/3x3_s2_pool2/3x3_s2_0_split_3
I0713 14:11:02.799137 14818 net.cpp:141] Setting up pool2/3x3_s2_pool2/3x3_s2_0_split
I0713 14:11:02.799145 14818 net.cpp:148] Top shape: 10 192 28 28 (1505280)
I0713 14:11:02.799151 14818 net.cpp:148] Top shape: 10 192 28 28 (1505280)
I0713 14:11:02.799156 14818 net.cpp:148] Top shape: 10 192 28 28 (1505280)
I0713 14:11:02.799161 14818 net.cpp:148] Top shape: 10 192 28 28 (1505280)
I0713 14:11:02.799165 14818 net.cpp:156] Memory required for data: 204718080
I0713 14:11:02.799170 14818 layer_factory.hpp:77] Creating layer inception_3a/1x1
I0713 14:11:02.799182 14818 net.cpp:91] Creating Layer inception_3a/1x1
I0713 14:11:02.799187 14818 net.cpp:425] inception_3a/1x1 <- pool2/3x3_s2_pool2/3x3_s2_0_split_0
I0713 14:11:02.799214 14818 net.cpp:399] inception_3a/1x1 -> inception_3a/1x1
I0713 14:11:02.802932 14818 net.cpp:141] Setting up inception_3a/1x1
I0713 14:11:02.802953 14818 net.cpp:148] Top shape: 10 64 28 28 (501760)
I0713 14:11:02.802958 14818 net.cpp:156] Memory required for data: 206725120
I0713 14:11:02.802968 14818 layer_factory.hpp:77] Creating layer inception_3a/relu_1x1
I0713 14:11:02.802979 14818 net.cpp:91] Creating Layer inception_3a/relu_1x1
I0713 14:11:02.802985 14818 net.cpp:425] inception_3a/relu_1x1 <- inception_3a/1x1
I0713 14:11:02.802992 14818 net.cpp:386] inception_3a/relu_1x1 -> inception_3a/1x1 (in-place)
I0713 14:11:02.803236 14818 net.cpp:141] Setting up inception_3a/relu_1x1
I0713 14:11:02.803247 14818 net.cpp:148] Top shape: 10 64 28 28 (501760)
I0713 14:11:02.803251 14818 net.cpp:156] Memory required for data: 208732160
I0713 14:11:02.803256 14818 layer_factory.hpp:77] Creating layer inception_3a/3x3_reduce
I0713 14:11:02.803274 14818 net.cpp:91] Creating Layer inception_3a/3x3_reduce
I0713 14:11:02.803279 14818 net.cpp:425] inception_3a/3x3_reduce <- pool2/3x3_s2_pool2/3x3_s2_0_split_1
I0713 14:11:02.803288 14818 net.cpp:399] inception_3a/3x3_reduce -> inception_3a/3x3_reduce
I0713 14:11:02.806747 14818 net.cpp:141] Setting up inception_3a/3x3_reduce
I0713 14:11:02.806779 14818 net.cpp:148] Top shape: 10 96 28 28 (752640)
I0713 14:11:02.806784 14818 net.cpp:156] Memory required for data: 211742720
I0713 14:11:02.806802 14818 layer_factory.hpp:77] Creating layer inception_3a/relu_3x3_reduce
I0713 14:11:02.806813 14818 net.cpp:91] Creating Layer inception_3a/relu_3x3_reduce
I0713 14:11:02.806818 14818 net.cpp:425] inception_3a/relu_3x3_reduce <- inception_3a/3x3_reduce
I0713 14:11:02.806826 14818 net.cpp:386] inception_3a/relu_3x3_reduce -> inception_3a/3x3_reduce (in-place)
I0713 14:11:02.807059 14818 net.cpp:141] Setting up inception_3a/relu_3x3_reduce
I0713 14:11:02.807070 14818 net.cpp:148] Top shape: 10 96 28 28 (752640)
I0713 14:11:02.807073 14818 net.cpp:156] Memory required for data: 214753280
I0713 14:11:02.807077 14818 layer_factory.hpp:77] Creating layer inception_3a/3x3
I0713 14:11:02.807098 14818 net.cpp:91] Creating Layer inception_3a/3x3
I0713 14:11:02.807103 14818 net.cpp:425] inception_3a/3x3 <- inception_3a/3x3_reduce
I0713 14:11:02.807112 14818 net.cpp:399] inception_3a/3x3 -> inception_3a/3x3
I0713 14:11:02.810055 14818 net.cpp:141] Setting up inception_3a/3x3
I0713 14:11:02.810086 14818 net.cpp:148] Top shape: 10 128 28 28 (1003520)
I0713 14:11:02.810091 14818 net.cpp:156] Memory required for data: 218767360
I0713 14:11:02.810101 14818 layer_factory.hpp:77] Creating layer inception_3a/relu_3x3
I0713 14:11:02.810113 14818 net.cpp:91] Creating Layer inception_3a/relu_3x3
I0713 14:11:02.810118 14818 net.cpp:425] inception_3a/relu_3x3 <- inception_3a/3x3
I0713 14:11:02.810125 14818 net.cpp:386] inception_3a/relu_3x3 -> inception_3a/3x3 (in-place)
I0713 14:11:02.810847 14818 net.cpp:141] Setting up inception_3a/relu_3x3
I0713 14:11:02.810860 14818 net.cpp:148] Top shape: 10 128 28 28 (1003520)
I0713 14:11:02.810864 14818 net.cpp:156] Memory required for data: 222781440
I0713 14:11:02.810869 14818 layer_factory.hpp:77] Creating layer inception_3a/5x5_reduce
I0713 14:11:02.810885 14818 net.cpp:91] Creating Layer inception_3a/5x5_reduce
I0713 14:11:02.810891 14818 net.cpp:425] inception_3a/5x5_reduce <- pool2/3x3_s2_pool2/3x3_s2_0_split_2
I0713 14:11:02.810904 14818 net.cpp:399] inception_3a/5x5_reduce -> inception_3a/5x5_reduce
I0713 14:11:02.813139 14818 net.cpp:141] Setting up inception_3a/5x5_reduce
I0713 14:11:02.813172 14818 net.cpp:148] Top shape: 10 16 28 28 (125440)
I0713 14:11:02.813177 14818 net.cpp:156] Memory required for data: 223283200
I0713 14:11:02.813187 14818 layer_factory.hpp:77] Creating layer inception_3a/relu_5x5_reduce
I0713 14:11:02.813197 14818 net.cpp:91] Creating Layer inception_3a/relu_5x5_reduce
I0713 14:11:02.813202 14818 net.cpp:425] inception_3a/relu_5x5_reduce <- inception_3a/5x5_reduce
I0713 14:11:02.813213 14818 net.cpp:386] inception_3a/relu_5x5_reduce -> inception_3a/5x5_reduce (in-place)
I0713 14:11:02.813434 14818 net.cpp:141] Setting up inception_3a/relu_5x5_reduce
I0713 14:11:02.813447 14818 net.cpp:148] Top shape: 10 16 28 28 (125440)
I0713 14:11:02.813452 14818 net.cpp:156] Memory required for data: 223784960
I0713 14:11:02.813457 14818 layer_factory.hpp:77] Creating layer inception_3a/5x5
I0713 14:11:02.813472 14818 net.cpp:91] Creating Layer inception_3a/5x5
I0713 14:11:02.813478 14818 net.cpp:425] inception_3a/5x5 <- inception_3a/5x5_reduce
I0713 14:11:02.813488 14818 net.cpp:399] inception_3a/5x5 -> inception_3a/5x5
I0713 14:11:02.816783 14818 net.cpp:141] Setting up inception_3a/5x5
I0713 14:11:02.816803 14818 net.cpp:148] Top shape: 10 32 28 28 (250880)
I0713 14:11:02.816809 14818 net.cpp:156] Memory required for data: 224788480
I0713 14:11:02.816818 14818 layer_factory.hpp:77] Creating layer inception_3a/relu_5x5
I0713 14:11:02.816826 14818 net.cpp:91] Creating Layer inception_3a/relu_5x5
I0713 14:11:02.816833 14818 net.cpp:425] inception_3a/relu_5x5 <- inception_3a/5x5
I0713 14:11:02.816839 14818 net.cpp:386] inception_3a/relu_5x5 -> inception_3a/5x5 (in-place)
I0713 14:11:02.817076 14818 net.cpp:141] Setting up inception_3a/relu_5x5
I0713 14:11:02.817087 14818 net.cpp:148] Top shape: 10 32 28 28 (250880)
I0713 14:11:02.817092 14818 net.cpp:156] Memory required for data: 225792000
I0713 14:11:02.817096 14818 layer_factory.hpp:77] Creating layer inception_3a/pool
I0713 14:11:02.817108 14818 net.cpp:91] Creating Layer inception_3a/pool
I0713 14:11:02.817113 14818 net.cpp:425] inception_3a/pool <- pool2/3x3_s2_pool2/3x3_s2_0_split_3
I0713 14:11:02.817121 14818 net.cpp:399] inception_3a/pool -> inception_3a/pool
I0713 14:11:02.817180 14818 net.cpp:141] Setting up inception_3a/pool
I0713 14:11:02.817189 14818 net.cpp:148] Top shape: 10 192 28 28 (1505280)
I0713 14:11:02.817193 14818 net.cpp:156] Memory required for data: 231813120
I0713 14:11:02.817198 14818 layer_factory.hpp:77] Creating layer inception_3a/pool_proj
I0713 14:11:02.817212 14818 net.cpp:91] Creating Layer inception_3a/pool_proj
I0713 14:11:02.817219 14818 net.cpp:425] inception_3a/pool_proj <- inception_3a/pool
I0713 14:11:02.817229 14818 net.cpp:399] inception_3a/pool_proj -> inception_3a/pool_proj
I0713 14:11:02.819309 14818 net.cpp:141] Setting up inception_3a/pool_proj
I0713 14:11:02.819326 14818 net.cpp:148] Top shape: 10 32 28 28 (250880)
I0713 14:11:02.819331 14818 net.cpp:156] Memory required for data: 232816640
I0713 14:11:02.819350 14818 layer_factory.hpp:77] Creating layer inception_3a/relu_pool_proj
I0713 14:11:02.819358 14818 net.cpp:91] Creating Layer inception_3a/relu_pool_proj
I0713 14:11:02.819366 14818 net.cpp:425] inception_3a/relu_pool_proj <- inception_3a/pool_proj
I0713 14:11:02.819373 14818 net.cpp:386] inception_3a/relu_pool_proj -> inception_3a/pool_proj (in-place)
I0713 14:11:02.820089 14818 net.cpp:141] Setting up inception_3a/relu_pool_proj
I0713 14:11:02.820118 14818 net.cpp:148] Top shape: 10 32 28 28 (250880)
I0713 14:11:02.820123 14818 net.cpp:156] Memory required for data: 233820160
I0713 14:11:02.820127 14818 layer_factory.hpp:77] Creating layer inception_3a/output
I0713 14:11:02.820147 14818 net.cpp:91] Creating Layer inception_3a/output
I0713 14:11:02.820152 14818 net.cpp:425] inception_3a/output <- inception_3a/1x1
I0713 14:11:02.820158 14818 net.cpp:425] inception_3a/output <- inception_3a/3x3
I0713 14:11:02.820179 14818 net.cpp:425] inception_3a/output <- inception_3a/5x5
I0713 14:11:02.820184 14818 net.cpp:425] inception_3a/output <- inception_3a/pool_proj
I0713 14:11:02.820191 14818 net.cpp:399] inception_3a/output -> inception_3a/output
I0713 14:11:02.820237 14818 net.cpp:141] Setting up inception_3a/output
I0713 14:11:02.820246 14818 net.cpp:148] Top shape: 10 256 28 28 (2007040)
I0713 14:11:02.820250 14818 net.cpp:156] Memory required for data: 241848320
I0713 14:11:02.820255 14818 layer_factory.hpp:77] Creating layer inception_3a/output_inception_3a/output_0_split
I0713 14:11:02.820266 14818 net.cpp:91] Creating Layer inception_3a/output_inception_3a/output_0_split
I0713 14:11:02.820271 14818 net.cpp:425] inception_3a/output_inception_3a/output_0_split <- inception_3a/output
I0713 14:11:02.820277 14818 net.cpp:399] inception_3a/output_inception_3a/output_0_split -> inception_3a/output_inception_3a/output_0_split_0
I0713 14:11:02.820288 14818 net.cpp:399] inception_3a/output_inception_3a/output_0_split -> inception_3a/output_inception_3a/output_0_split_1
I0713 14:11:02.820297 14818 net.cpp:399] inception_3a/output_inception_3a/output_0_split -> inception_3a/output_inception_3a/output_0_split_2
I0713 14:11:02.820303 14818 net.cpp:399] inception_3a/output_inception_3a/output_0_split -> inception_3a/output_inception_3a/output_0_split_3
I0713 14:11:02.820380 14818 net.cpp:141] Setting up inception_3a/output_inception_3a/output_0_split
I0713 14:11:02.820389 14818 net.cpp:148] Top shape: 10 256 28 28 (2007040)
I0713 14:11:02.820394 14818 net.cpp:148] Top shape: 10 256 28 28 (2007040)
I0713 14:11:02.820399 14818 net.cpp:148] Top shape: 10 256 28 28 (2007040)
I0713 14:11:02.820404 14818 net.cpp:148] Top shape: 10 256 28 28 (2007040)
I0713 14:11:02.820407 14818 net.cpp:156] Memory required for data: 273960960
I0713 14:11:02.820411 14818 layer_factory.hpp:77] Creating layer inception_3b/1x1
I0713 14:11:02.820425 14818 net.cpp:91] Creating Layer inception_3b/1x1
I0713 14:11:02.820430 14818 net.cpp:425] inception_3b/1x1 <- inception_3a/output_inception_3a/output_0_split_0
I0713 14:11:02.820442 14818 net.cpp:399] inception_3b/1x1 -> inception_3b/1x1
I0713 14:11:02.822782 14818 net.cpp:141] Setting up inception_3b/1x1
I0713 14:11:02.822798 14818 net.cpp:148] Top shape: 10 128 28 28 (1003520)
I0713 14:11:02.822803 14818 net.cpp:156] Memory required for data: 277975040
I0713 14:11:02.822813 14818 layer_factory.hpp:77] Creating layer inception_3b/relu_1x1
I0713 14:11:02.822821 14818 net.cpp:91] Creating Layer inception_3b/relu_1x1
I0713 14:11:02.822826 14818 net.cpp:425] inception_3b/relu_1x1 <- inception_3b/1x1
I0713 14:11:02.822839 14818 net.cpp:386] inception_3b/relu_1x1 -> inception_3b/1x1 (in-place)
I0713 14:11:02.823071 14818 net.cpp:141] Setting up inception_3b/relu_1x1
I0713 14:11:02.823082 14818 net.cpp:148] Top shape: 10 128 28 28 (1003520)
I0713 14:11:02.823087 14818 net.cpp:156] Memory required for data: 281989120
I0713 14:11:02.823091 14818 layer_factory.hpp:77] Creating layer inception_3b/3x3_reduce
I0713 14:11:02.823103 14818 net.cpp:91] Creating Layer inception_3b/3x3_reduce
I0713 14:11:02.823108 14818 net.cpp:425] inception_3b/3x3_reduce <- inception_3a/output_inception_3a/output_0_split_1
I0713 14:11:02.823135 14818 net.cpp:399] inception_3b/3x3_reduce -> inception_3b/3x3_reduce
I0713 14:11:02.825398 14818 net.cpp:141] Setting up inception_3b/3x3_reduce
I0713 14:11:02.825426 14818 net.cpp:148] Top shape: 10 128 28 28 (1003520)
I0713 14:11:02.825433 14818 net.cpp:156] Memory required for data: 286003200
I0713 14:11:02.825441 14818 layer_factory.hpp:77] Creating layer inception_3b/relu_3x3_reduce
I0713 14:11:02.825451 14818 net.cpp:91] Creating Layer inception_3b/relu_3x3_reduce
I0713 14:11:02.825458 14818 net.cpp:425] inception_3b/relu_3x3_reduce <- inception_3b/3x3_reduce
I0713 14:11:02.825469 14818 net.cpp:386] inception_3b/relu_3x3_reduce -> inception_3b/3x3_reduce (in-place)
I0713 14:11:02.825691 14818 net.cpp:141] Setting up inception_3b/relu_3x3_reduce
I0713 14:11:02.825702 14818 net.cpp:148] Top shape: 10 128 28 28 (1003520)
I0713 14:11:02.825706 14818 net.cpp:156] Memory required for data: 290017280
I0713 14:11:02.825711 14818 layer_factory.hpp:77] Creating layer inception_3b/3x3
I0713 14:11:02.825726 14818 net.cpp:91] Creating Layer inception_3b/3x3
I0713 14:11:02.825731 14818 net.cpp:425] inception_3b/3x3 <- inception_3b/3x3_reduce
I0713 14:11:02.825742 14818 net.cpp:399] inception_3b/3x3 -> inception_3b/3x3
I0713 14:11:02.830397 14818 net.cpp:141] Setting up inception_3b/3x3
I0713 14:11:02.830415 14818 net.cpp:148] Top shape: 10 192 28 28 (1505280)
I0713 14:11:02.830420 14818 net.cpp:156] Memory required for data: 296038400
I0713 14:11:02.830445 14818 layer_factory.hpp:77] Creating layer inception_3b/relu_3x3
I0713 14:11:02.830459 14818 net.cpp:91] Creating Layer inception_3b/relu_3x3
I0713 14:11:02.830466 14818 net.cpp:425] inception_3b/relu_3x3 <- inception_3b/3x3
I0713 14:11:02.830472 14818 net.cpp:386] inception_3b/relu_3x3 -> inception_3b/3x3 (in-place)
I0713 14:11:02.831219 14818 net.cpp:141] Setting up inception_3b/relu_3x3
I0713 14:11:02.831246 14818 net.cpp:148] Top shape: 10 192 28 28 (1505280)
I0713 14:11:02.831251 14818 net.cpp:156] Memory required for data: 302059520
I0713 14:11:02.831255 14818 layer_factory.hpp:77] Creating layer inception_3b/5x5_reduce
I0713 14:11:02.831269 14818 net.cpp:91] Creating Layer inception_3b/5x5_reduce
I0713 14:11:02.831274 14818 net.cpp:425] inception_3b/5x5_reduce <- inception_3a/output_inception_3a/output_0_split_2
I0713 14:11:02.831286 14818 net.cpp:399] inception_3b/5x5_reduce -> inception_3b/5x5_reduce
I0713 14:11:02.833343 14818 net.cpp:141] Setting up inception_3b/5x5_reduce
I0713 14:11:02.833358 14818 net.cpp:148] Top shape: 10 32 28 28 (250880)
I0713 14:11:02.833362 14818 net.cpp:156] Memory required for data: 303063040
I0713 14:11:02.833384 14818 layer_factory.hpp:77] Creating layer inception_3b/relu_5x5_reduce
I0713 14:11:02.833394 14818 net.cpp:91] Creating Layer inception_3b/relu_5x5_reduce
I0713 14:11:02.833398 14818 net.cpp:425] inception_3b/relu_5x5_reduce <- inception_3b/5x5_reduce
I0713 14:11:02.833410 14818 net.cpp:386] inception_3b/relu_5x5_reduce -> inception_3b/5x5_reduce (in-place)
I0713 14:11:02.833624 14818 net.cpp:141] Setting up inception_3b/relu_5x5_reduce
I0713 14:11:02.833636 14818 net.cpp:148] Top shape: 10 32 28 28 (250880)
I0713 14:11:02.833642 14818 net.cpp:156] Memory required for data: 304066560
I0713 14:11:02.833645 14818 layer_factory.hpp:77] Creating layer inception_3b/5x5
I0713 14:11:02.833662 14818 net.cpp:91] Creating Layer inception_3b/5x5
I0713 14:11:02.833667 14818 net.cpp:425] inception_3b/5x5 <- inception_3b/5x5_reduce
I0713 14:11:02.833675 14818 net.cpp:399] inception_3b/5x5 -> inception_3b/5x5
I0713 14:11:02.837345 14818 net.cpp:141] Setting up inception_3b/5x5
I0713 14:11:02.837363 14818 net.cpp:148] Top shape: 10 96 28 28 (752640)
I0713 14:11:02.837368 14818 net.cpp:156] Memory required for data: 307077120
I0713 14:11:02.837376 14818 layer_factory.hpp:77] Creating layer inception_3b/relu_5x5
I0713 14:11:02.837388 14818 net.cpp:91] Creating Layer inception_3b/relu_5x5
I0713 14:11:02.837394 14818 net.cpp:425] inception_3b/relu_5x5 <- inception_3b/5x5
I0713 14:11:02.837401 14818 net.cpp:386] inception_3b/relu_5x5 -> inception_3b/5x5 (in-place)
I0713 14:11:02.837638 14818 net.cpp:141] Setting up inception_3b/relu_5x5
I0713 14:11:02.837648 14818 net.cpp:148] Top shape: 10 96 28 28 (752640)
I0713 14:11:02.837652 14818 net.cpp:156] Memory required for data: 310087680
I0713 14:11:02.837656 14818 layer_factory.hpp:77] Creating layer inception_3b/pool
I0713 14:11:02.837671 14818 net.cpp:91] Creating Layer inception_3b/pool
I0713 14:11:02.837676 14818 net.cpp:425] inception_3b/pool <- inception_3a/output_inception_3a/output_0_split_3
I0713 14:11:02.837684 14818 net.cpp:399] inception_3b/pool -> inception_3b/pool
I0713 14:11:02.837739 14818 net.cpp:141] Setting up inception_3b/pool
I0713 14:11:02.837749 14818 net.cpp:148] Top shape: 10 256 28 28 (2007040)
I0713 14:11:02.837751 14818 net.cpp:156] Memory required for data: 318115840
I0713 14:11:02.837755 14818 layer_factory.hpp:77] Creating layer inception_3b/pool_proj
I0713 14:11:02.837769 14818 net.cpp:91] Creating Layer inception_3b/pool_proj
I0713 14:11:02.837774 14818 net.cpp:425] inception_3b/pool_proj <- inception_3b/pool
I0713 14:11:02.837786 14818 net.cpp:399] inception_3b/pool_proj -> inception_3b/pool_proj
I0713 14:11:02.839952 14818 net.cpp:141] Setting up inception_3b/pool_proj
I0713 14:11:02.839982 14818 net.cpp:148] Top shape: 10 64 28 28 (501760)
I0713 14:11:02.839988 14818 net.cpp:156] Memory required for data: 320122880
I0713 14:11:02.839996 14818 layer_factory.hpp:77] Creating layer inception_3b/relu_pool_proj
I0713 14:11:02.840005 14818 net.cpp:91] Creating Layer inception_3b/relu_pool_proj
I0713 14:11:02.840010 14818 net.cpp:425] inception_3b/relu_pool_proj <- inception_3b/pool_proj
I0713 14:11:02.840016 14818 net.cpp:386] inception_3b/relu_pool_proj -> inception_3b/pool_proj (in-place)
I0713 14:11:02.840739 14818 net.cpp:141] Setting up inception_3b/relu_pool_proj
I0713 14:11:02.840766 14818 net.cpp:148] Top shape: 10 64 28 28 (501760)
I0713 14:11:02.840771 14818 net.cpp:156] Memory required for data: 322129920
I0713 14:11:02.840775 14818 layer_factory.hpp:77] Creating layer inception_3b/output
I0713 14:11:02.840783 14818 net.cpp:91] Creating Layer inception_3b/output
I0713 14:11:02.840788 14818 net.cpp:425] inception_3b/output <- inception_3b/1x1
I0713 14:11:02.840793 14818 net.cpp:425] inception_3b/output <- inception_3b/3x3
I0713 14:11:02.840798 14818 net.cpp:425] inception_3b/output <- inception_3b/5x5
I0713 14:11:02.840803 14818 net.cpp:425] inception_3b/output <- inception_3b/pool_proj
I0713 14:11:02.840809 14818 net.cpp:399] inception_3b/output -> inception_3b/output
I0713 14:11:02.840849 14818 net.cpp:141] Setting up inception_3b/output
I0713 14:11:02.840857 14818 net.cpp:148] Top shape: 10 480 28 28 (3763200)
I0713 14:11:02.840862 14818 net.cpp:156] Memory required for data: 337182720
I0713 14:11:02.840865 14818 layer_factory.hpp:77] Creating layer pool3/3x3_s2
I0713 14:11:02.840874 14818 net.cpp:91] Creating Layer pool3/3x3_s2
I0713 14:11:02.840879 14818 net.cpp:425] pool3/3x3_s2 <- inception_3b/output
I0713 14:11:02.840885 14818 net.cpp:399] pool3/3x3_s2 -> pool3/3x3_s2
I0713 14:11:02.840940 14818 net.cpp:141] Setting up pool3/3x3_s2
I0713 14:11:02.840950 14818 net.cpp:148] Top shape: 10 480 14 14 (940800)
I0713 14:11:02.840953 14818 net.cpp:156] Memory required for data: 340945920
I0713 14:11:02.840957 14818 layer_factory.hpp:77] Creating layer pool3/3x3_s2_pool3/3x3_s2_0_split
I0713 14:11:02.840967 14818 net.cpp:91] Creating Layer pool3/3x3_s2_pool3/3x3_s2_0_split
I0713 14:11:02.840972 14818 net.cpp:425] pool3/3x3_s2_pool3/3x3_s2_0_split <- pool3/3x3_s2
I0713 14:11:02.840978 14818 net.cpp:399] pool3/3x3_s2_pool3/3x3_s2_0_split -> pool3/3x3_s2_pool3/3x3_s2_0_split_0
I0713 14:11:02.840986 14818 net.cpp:399] pool3/3x3_s2_pool3/3x3_s2_0_split -> pool3/3x3_s2_pool3/3x3_s2_0_split_1
I0713 14:11:02.840993 14818 net.cpp:399] pool3/3x3_s2_pool3/3x3_s2_0_split -> pool3/3x3_s2_pool3/3x3_s2_0_split_2
I0713 14:11:02.841003 14818 net.cpp:399] pool3/3x3_s2_pool3/3x3_s2_0_split -> pool3/3x3_s2_pool3/3x3_s2_0_split_3
I0713 14:11:02.841075 14818 net.cpp:141] Setting up pool3/3x3_s2_pool3/3x3_s2_0_split
I0713 14:11:02.841084 14818 net.cpp:148] Top shape: 10 480 14 14 (940800)
I0713 14:11:02.841089 14818 net.cpp:148] Top shape: 10 480 14 14 (940800)
I0713 14:11:02.841094 14818 net.cpp:148] Top shape: 10 480 14 14 (940800)
I0713 14:11:02.841099 14818 net.cpp:148] Top shape: 10 480 14 14 (940800)
I0713 14:11:02.841101 14818 net.cpp:156] Memory required for data: 355998720
I0713 14:11:02.841105 14818 layer_factory.hpp:77] Creating layer inception_4a/1x1
I0713 14:11:02.841119 14818 net.cpp:91] Creating Layer inception_4a/1x1
I0713 14:11:02.841123 14818 net.cpp:425] inception_4a/1x1 <- pool3/3x3_s2_pool3/3x3_s2_0_split_0
I0713 14:11:02.841135 14818 net.cpp:399] inception_4a/1x1 -> inception_4a/1x1
I0713 14:11:02.844359 14818 net.cpp:141] Setting up inception_4a/1x1
I0713 14:11:02.844375 14818 net.cpp:148] Top shape: 10 192 14 14 (376320)
I0713 14:11:02.844379 14818 net.cpp:156] Memory required for data: 357504000
I0713 14:11:02.844401 14818 layer_factory.hpp:77] Creating layer inception_4a/relu_1x1
I0713 14:11:02.844414 14818 net.cpp:91] Creating Layer inception_4a/relu_1x1
I0713 14:11:02.844419 14818 net.cpp:425] inception_4a/relu_1x1 <- inception_4a/1x1
I0713 14:11:02.844426 14818 net.cpp:386] inception_4a/relu_1x1 -> inception_4a/1x1 (in-place)
I0713 14:11:02.844645 14818 net.cpp:141] Setting up inception_4a/relu_1x1
I0713 14:11:02.844655 14818 net.cpp:148] Top shape: 10 192 14 14 (376320)
I0713 14:11:02.844671 14818 net.cpp:156] Memory required for data: 359009280
I0713 14:11:02.844677 14818 layer_factory.hpp:77] Creating layer inception_4a/3x3_reduce
I0713 14:11:02.844693 14818 net.cpp:91] Creating Layer inception_4a/3x3_reduce
I0713 14:11:02.844699 14818 net.cpp:425] inception_4a/3x3_reduce <- pool3/3x3_s2_pool3/3x3_s2_0_split_1
I0713 14:11:02.844710 14818 net.cpp:399] inception_4a/3x3_reduce -> inception_4a/3x3_reduce
I0713 14:11:02.847124 14818 net.cpp:141] Setting up inception_4a/3x3_reduce
I0713 14:11:02.847156 14818 net.cpp:148] Top shape: 10 96 14 14 (188160)
I0713 14:11:02.847159 14818 net.cpp:156] Memory required for data: 359761920
I0713 14:11:02.847183 14818 layer_factory.hpp:77] Creating layer inception_4a/relu_3x3_reduce
I0713 14:11:02.847205 14818 net.cpp:91] Creating Layer inception_4a/relu_3x3_reduce
I0713 14:11:02.847210 14818 net.cpp:425] inception_4a/relu_3x3_reduce <- inception_4a/3x3_reduce
I0713 14:11:02.847218 14818 net.cpp:386] inception_4a/relu_3x3_reduce -> inception_4a/3x3_reduce (in-place)
I0713 14:11:02.847441 14818 net.cpp:141] Setting up inception_4a/relu_3x3_reduce
I0713 14:11:02.847452 14818 net.cpp:148] Top shape: 10 96 14 14 (188160)
I0713 14:11:02.847456 14818 net.cpp:156] Memory required for data: 360514560
I0713 14:11:02.847460 14818 layer_factory.hpp:77] Creating layer inception_4a/3x3
I0713 14:11:02.847476 14818 net.cpp:91] Creating Layer inception_4a/3x3
I0713 14:11:02.847481 14818 net.cpp:425] inception_4a/3x3 <- inception_4a/3x3_reduce
I0713 14:11:02.847493 14818 net.cpp:399] inception_4a/3x3 -> inception_4a/3x3
I0713 14:11:02.851883 14818 net.cpp:141] Setting up inception_4a/3x3
I0713 14:11:02.851899 14818 net.cpp:148] Top shape: 10 208 14 14 (407680)
I0713 14:11:02.851917 14818 net.cpp:156] Memory required for data: 362145280
I0713 14:11:02.851929 14818 layer_factory.hpp:77] Creating layer inception_4a/relu_3x3
I0713 14:11:02.851938 14818 net.cpp:91] Creating Layer inception_4a/relu_3x3
I0713 14:11:02.851943 14818 net.cpp:425] inception_4a/relu_3x3 <- inception_4a/3x3
I0713 14:11:02.851953 14818 net.cpp:386] inception_4a/relu_3x3 -> inception_4a/3x3 (in-place)
I0713 14:11:02.852680 14818 net.cpp:141] Setting up inception_4a/relu_3x3
I0713 14:11:02.852694 14818 net.cpp:148] Top shape: 10 208 14 14 (407680)
I0713 14:11:02.852699 14818 net.cpp:156] Memory required for data: 363776000
I0713 14:11:02.852704 14818 layer_factory.hpp:77] Creating layer inception_4a/5x5_reduce
I0713 14:11:02.852718 14818 net.cpp:91] Creating Layer inception_4a/5x5_reduce
I0713 14:11:02.852725 14818 net.cpp:425] inception_4a/5x5_reduce <- pool3/3x3_s2_pool3/3x3_s2_0_split_2
I0713 14:11:02.852736 14818 net.cpp:399] inception_4a/5x5_reduce -> inception_4a/5x5_reduce
I0713 14:11:02.854823 14818 net.cpp:141] Setting up inception_4a/5x5_reduce
I0713 14:11:02.854841 14818 net.cpp:148] Top shape: 10 16 14 14 (31360)
I0713 14:11:02.854846 14818 net.cpp:156] Memory required for data: 363901440
I0713 14:11:02.854854 14818 layer_factory.hpp:77] Creating layer inception_4a/relu_5x5_reduce
I0713 14:11:02.854862 14818 net.cpp:91] Creating Layer inception_4a/relu_5x5_reduce
I0713 14:11:02.854868 14818 net.cpp:425] inception_4a/relu_5x5_reduce <- inception_4a/5x5_reduce
I0713 14:11:02.854877 14818 net.cpp:386] inception_4a/relu_5x5_reduce -> inception_4a/5x5_reduce (in-place)
I0713 14:11:02.855111 14818 net.cpp:141] Setting up inception_4a/relu_5x5_reduce
I0713 14:11:02.855123 14818 net.cpp:148] Top shape: 10 16 14 14 (31360)
I0713 14:11:02.855126 14818 net.cpp:156] Memory required for data: 364026880
I0713 14:11:02.855130 14818 layer_factory.hpp:77] Creating layer inception_4a/5x5
I0713 14:11:02.855144 14818 net.cpp:91] Creating Layer inception_4a/5x5
I0713 14:11:02.855150 14818 net.cpp:425] inception_4a/5x5 <- inception_4a/5x5_reduce
I0713 14:11:02.855160 14818 net.cpp:399] inception_4a/5x5 -> inception_4a/5x5
I0713 14:11:02.857285 14818 net.cpp:141] Setting up inception_4a/5x5
I0713 14:11:02.857300 14818 net.cpp:148] Top shape: 10 48 14 14 (94080)
I0713 14:11:02.857316 14818 net.cpp:156] Memory required for data: 364403200
I0713 14:11:02.857324 14818 layer_factory.hpp:77] Creating layer inception_4a/relu_5x5
I0713 14:11:02.857338 14818 net.cpp:91] Creating Layer inception_4a/relu_5x5
I0713 14:11:02.857343 14818 net.cpp:425] inception_4a/relu_5x5 <- inception_4a/5x5
I0713 14:11:02.857350 14818 net.cpp:386] inception_4a/relu_5x5 -> inception_4a/5x5 (in-place)
I0713 14:11:02.857571 14818 net.cpp:141] Setting up inception_4a/relu_5x5
I0713 14:11:02.857595 14818 net.cpp:148] Top shape: 10 48 14 14 (94080)
I0713 14:11:02.857600 14818 net.cpp:156] Memory required for data: 364779520
I0713 14:11:02.857604 14818 layer_factory.hpp:77] Creating layer inception_4a/pool
I0713 14:11:02.857617 14818 net.cpp:91] Creating Layer inception_4a/pool
I0713 14:11:02.857623 14818 net.cpp:425] inception_4a/pool <- pool3/3x3_s2_pool3/3x3_s2_0_split_3
I0713 14:11:02.857633 14818 net.cpp:399] inception_4a/pool -> inception_4a/pool
I0713 14:11:02.857693 14818 net.cpp:141] Setting up inception_4a/pool
I0713 14:11:02.857702 14818 net.cpp:148] Top shape: 10 480 14 14 (940800)
I0713 14:11:02.857705 14818 net.cpp:156] Memory required for data: 368542720
I0713 14:11:02.857710 14818 layer_factory.hpp:77] Creating layer inception_4a/pool_proj
I0713 14:11:02.857724 14818 net.cpp:91] Creating Layer inception_4a/pool_proj
I0713 14:11:02.857729 14818 net.cpp:425] inception_4a/pool_proj <- inception_4a/pool
I0713 14:11:02.857741 14818 net.cpp:399] inception_4a/pool_proj -> inception_4a/pool_proj
I0713 14:11:02.860162 14818 net.cpp:141] Setting up inception_4a/pool_proj
I0713 14:11:02.860178 14818 net.cpp:148] Top shape: 10 64 14 14 (125440)
I0713 14:11:02.860183 14818 net.cpp:156] Memory required for data: 369044480
I0713 14:11:02.860205 14818 layer_factory.hpp:77] Creating layer inception_4a/relu_pool_proj
I0713 14:11:02.860218 14818 net.cpp:91] Creating Layer inception_4a/relu_pool_proj
I0713 14:11:02.860222 14818 net.cpp:425] inception_4a/relu_pool_proj <- inception_4a/pool_proj
I0713 14:11:02.860229 14818 net.cpp:386] inception_4a/relu_pool_proj -> inception_4a/pool_proj (in-place)
I0713 14:11:02.860941 14818 net.cpp:141] Setting up inception_4a/relu_pool_proj
I0713 14:11:02.860956 14818 net.cpp:148] Top shape: 10 64 14 14 (125440)
I0713 14:11:02.860960 14818 net.cpp:156] Memory required for data: 369546240
I0713 14:11:02.860965 14818 layer_factory.hpp:77] Creating layer inception_4a/output
I0713 14:11:02.860977 14818 net.cpp:91] Creating Layer inception_4a/output
I0713 14:11:02.860982 14818 net.cpp:425] inception_4a/output <- inception_4a/1x1
I0713 14:11:02.860988 14818 net.cpp:425] inception_4a/output <- inception_4a/3x3
I0713 14:11:02.860994 14818 net.cpp:425] inception_4a/output <- inception_4a/5x5
I0713 14:11:02.860998 14818 net.cpp:425] inception_4a/output <- inception_4a/pool_proj
I0713 14:11:02.861006 14818 net.cpp:399] inception_4a/output -> inception_4a/output
I0713 14:11:02.861048 14818 net.cpp:141] Setting up inception_4a/output
I0713 14:11:02.861057 14818 net.cpp:148] Top shape: 10 512 14 14 (1003520)
I0713 14:11:02.861062 14818 net.cpp:156] Memory required for data: 373560320
I0713 14:11:02.861066 14818 layer_factory.hpp:77] Creating layer inception_4a/output_inception_4a/output_0_split
I0713 14:11:02.861073 14818 net.cpp:91] Creating Layer inception_4a/output_inception_4a/output_0_split
I0713 14:11:02.861078 14818 net.cpp:425] inception_4a/output_inception_4a/output_0_split <- inception_4a/output
I0713 14:11:02.861088 14818 net.cpp:399] inception_4a/output_inception_4a/output_0_split -> inception_4a/output_inception_4a/output_0_split_0
I0713 14:11:02.861098 14818 net.cpp:399] inception_4a/output_inception_4a/output_0_split -> inception_4a/output_inception_4a/output_0_split_1
I0713 14:11:02.861105 14818 net.cpp:399] inception_4a/output_inception_4a/output_0_split -> inception_4a/output_inception_4a/output_0_split_2
I0713 14:11:02.861112 14818 net.cpp:399] inception_4a/output_inception_4a/output_0_split -> inception_4a/output_inception_4a/output_0_split_3
I0713 14:11:02.861210 14818 net.cpp:141] Setting up inception_4a/output_inception_4a/output_0_split
I0713 14:11:02.861219 14818 net.cpp:148] Top shape: 10 512 14 14 (1003520)
I0713 14:11:02.861224 14818 net.cpp:148] Top shape: 10 512 14 14 (1003520)
I0713 14:11:02.861229 14818 net.cpp:148] Top shape: 10 512 14 14 (1003520)
I0713 14:11:02.861234 14818 net.cpp:148] Top shape: 10 512 14 14 (1003520)
I0713 14:11:02.861238 14818 net.cpp:156] Memory required for data: 389616640
I0713 14:11:02.861241 14818 layer_factory.hpp:77] Creating layer inception_4b/1x1
I0713 14:11:02.861258 14818 net.cpp:91] Creating Layer inception_4b/1x1
I0713 14:11:02.861263 14818 net.cpp:425] inception_4b/1x1 <- inception_4a/output_inception_4a/output_0_split_0
I0713 14:11:02.861271 14818 net.cpp:399] inception_4b/1x1 -> inception_4b/1x1
I0713 14:11:02.863945 14818 net.cpp:141] Setting up inception_4b/1x1
I0713 14:11:02.863976 14818 net.cpp:148] Top shape: 10 160 14 14 (313600)
I0713 14:11:02.863981 14818 net.cpp:156] Memory required for data: 390871040
I0713 14:11:02.863991 14818 layer_factory.hpp:77] Creating layer inception_4b/relu_1x1
I0713 14:11:02.863999 14818 net.cpp:91] Creating Layer inception_4b/relu_1x1
I0713 14:11:02.864004 14818 net.cpp:425] inception_4b/relu_1x1 <- inception_4b/1x1
I0713 14:11:02.864012 14818 net.cpp:386] inception_4b/relu_1x1 -> inception_4b/1x1 (in-place)
I0713 14:11:02.864254 14818 net.cpp:141] Setting up inception_4b/relu_1x1
I0713 14:11:02.864265 14818 net.cpp:148] Top shape: 10 160 14 14 (313600)
I0713 14:11:02.864269 14818 net.cpp:156] Memory required for data: 392125440
I0713 14:11:02.864274 14818 layer_factory.hpp:77] Creating layer inception_4b/3x3_reduce
I0713 14:11:02.864289 14818 net.cpp:91] Creating Layer inception_4b/3x3_reduce
I0713 14:11:02.864295 14818 net.cpp:425] inception_4b/3x3_reduce <- inception_4a/output_inception_4a/output_0_split_1
I0713 14:11:02.864306 14818 net.cpp:399] inception_4b/3x3_reduce -> inception_4b/3x3_reduce
I0713 14:11:02.866819 14818 net.cpp:141] Setting up inception_4b/3x3_reduce
I0713 14:11:02.866834 14818 net.cpp:148] Top shape: 10 112 14 14 (219520)
I0713 14:11:02.866852 14818 net.cpp:156] Memory required for data: 393003520
I0713 14:11:02.866861 14818 layer_factory.hpp:77] Creating layer inception_4b/relu_3x3_reduce
I0713 14:11:02.866873 14818 net.cpp:91] Creating Layer inception_4b/relu_3x3_reduce
I0713 14:11:02.866879 14818 net.cpp:425] inception_4b/relu_3x3_reduce <- inception_4b/3x3_reduce
I0713 14:11:02.866885 14818 net.cpp:386] inception_4b/relu_3x3_reduce -> inception_4b/3x3_reduce (in-place)
I0713 14:11:02.867107 14818 net.cpp:141] Setting up inception_4b/relu_3x3_reduce
I0713 14:11:02.867117 14818 net.cpp:148] Top shape: 10 112 14 14 (219520)
I0713 14:11:02.867121 14818 net.cpp:156] Memory required for data: 393881600
I0713 14:11:02.867125 14818 layer_factory.hpp:77] Creating layer inception_4b/3x3
I0713 14:11:02.867139 14818 net.cpp:91] Creating Layer inception_4b/3x3
I0713 14:11:02.867146 14818 net.cpp:425] inception_4b/3x3 <- inception_4b/3x3_reduce
I0713 14:11:02.867154 14818 net.cpp:399] inception_4b/3x3 -> inception_4b/3x3
I0713 14:11:02.872444 14818 net.cpp:141] Setting up inception_4b/3x3
I0713 14:11:02.872462 14818 net.cpp:148] Top shape: 10 224 14 14 (439040)
I0713 14:11:02.872479 14818 net.cpp:156] Memory required for data: 395637760
I0713 14:11:02.872488 14818 layer_factory.hpp:77] Creating layer inception_4b/relu_3x3
I0713 14:11:02.872499 14818 net.cpp:91] Creating Layer inception_4b/relu_3x3
I0713 14:11:02.872504 14818 net.cpp:425] inception_4b/relu_3x3 <- inception_4b/3x3
I0713 14:11:02.872511 14818 net.cpp:386] inception_4b/relu_3x3 -> inception_4b/3x3 (in-place)
I0713 14:11:02.873260 14818 net.cpp:141] Setting up inception_4b/relu_3x3
I0713 14:11:02.873272 14818 net.cpp:148] Top shape: 10 224 14 14 (439040)
I0713 14:11:02.873276 14818 net.cpp:156] Memory required for data: 397393920
I0713 14:11:02.873281 14818 layer_factory.hpp:77] Creating layer inception_4b/5x5_reduce
I0713 14:11:02.873322 14818 net.cpp:91] Creating Layer inception_4b/5x5_reduce
I0713 14:11:02.873328 14818 net.cpp:425] inception_4b/5x5_reduce <- inception_4a/output_inception_4a/output_0_split_2
I0713 14:11:02.873340 14818 net.cpp:399] inception_4b/5x5_reduce -> inception_4b/5x5_reduce
I0713 14:11:02.875484 14818 net.cpp:141] Setting up inception_4b/5x5_reduce
I0713 14:11:02.875499 14818 net.cpp:148] Top shape: 10 24 14 14 (47040)
I0713 14:11:02.875504 14818 net.cpp:156] Memory required for data: 397582080
I0713 14:11:02.875525 14818 layer_factory.hpp:77] Creating layer inception_4b/relu_5x5_reduce
I0713 14:11:02.875537 14818 net.cpp:91] Creating Layer inception_4b/relu_5x5_reduce
I0713 14:11:02.875543 14818 net.cpp:425] inception_4b/relu_5x5_reduce <- inception_4b/5x5_reduce
I0713 14:11:02.875550 14818 net.cpp:386] inception_4b/relu_5x5_reduce -> inception_4b/5x5_reduce (in-place)
I0713 14:11:02.875768 14818 net.cpp:141] Setting up inception_4b/relu_5x5_reduce
I0713 14:11:02.875779 14818 net.cpp:148] Top shape: 10 24 14 14 (47040)
I0713 14:11:02.875783 14818 net.cpp:156] Memory required for data: 397770240
I0713 14:11:02.875787 14818 layer_factory.hpp:77] Creating layer inception_4b/5x5
I0713 14:11:02.875804 14818 net.cpp:91] Creating Layer inception_4b/5x5
I0713 14:11:02.875810 14818 net.cpp:425] inception_4b/5x5 <- inception_4b/5x5_reduce
I0713 14:11:02.875820 14818 net.cpp:399] inception_4b/5x5 -> inception_4b/5x5
I0713 14:11:02.879202 14818 net.cpp:141] Setting up inception_4b/5x5
I0713 14:11:02.879233 14818 net.cpp:148] Top shape: 10 64 14 14 (125440)
I0713 14:11:02.879238 14818 net.cpp:156] Memory required for data: 398272000
I0713 14:11:02.879247 14818 layer_factory.hpp:77] Creating layer inception_4b/relu_5x5
I0713 14:11:02.879259 14818 net.cpp:91] Creating Layer inception_4b/relu_5x5
I0713 14:11:02.879266 14818 net.cpp:425] inception_4b/relu_5x5 <- inception_4b/5x5
I0713 14:11:02.879272 14818 net.cpp:386] inception_4b/relu_5x5 -> inception_4b/5x5 (in-place)
I0713 14:11:02.879501 14818 net.cpp:141] Setting up inception_4b/relu_5x5
I0713 14:11:02.879524 14818 net.cpp:148] Top shape: 10 64 14 14 (125440)
I0713 14:11:02.879529 14818 net.cpp:156] Memory required for data: 398773760
I0713 14:11:02.879534 14818 layer_factory.hpp:77] Creating layer inception_4b/pool
I0713 14:11:02.879545 14818 net.cpp:91] Creating Layer inception_4b/pool
I0713 14:11:02.879550 14818 net.cpp:425] inception_4b/pool <- inception_4a/output_inception_4a/output_0_split_3
I0713 14:11:02.879560 14818 net.cpp:399] inception_4b/pool -> inception_4b/pool
I0713 14:11:02.879637 14818 net.cpp:141] Setting up inception_4b/pool
I0713 14:11:02.879647 14818 net.cpp:148] Top shape: 10 512 14 14 (1003520)
I0713 14:11:02.879650 14818 net.cpp:156] Memory required for data: 402787840
I0713 14:11:02.879654 14818 layer_factory.hpp:77] Creating layer inception_4b/pool_proj
I0713 14:11:02.879668 14818 net.cpp:91] Creating Layer inception_4b/pool_proj
I0713 14:11:02.879674 14818 net.cpp:425] inception_4b/pool_proj <- inception_4b/pool
I0713 14:11:02.879686 14818 net.cpp:399] inception_4b/pool_proj -> inception_4b/pool_proj
I0713 14:11:02.881973 14818 net.cpp:141] Setting up inception_4b/pool_proj
I0713 14:11:02.881989 14818 net.cpp:148] Top shape: 10 64 14 14 (125440)
I0713 14:11:02.881994 14818 net.cpp:156] Memory required for data: 403289600
I0713 14:11:02.882014 14818 layer_factory.hpp:77] Creating layer inception_4b/relu_pool_proj
I0713 14:11:02.882024 14818 net.cpp:91] Creating Layer inception_4b/relu_pool_proj
I0713 14:11:02.882028 14818 net.cpp:425] inception_4b/relu_pool_proj <- inception_4b/pool_proj
I0713 14:11:02.882041 14818 net.cpp:386] inception_4b/relu_pool_proj -> inception_4b/pool_proj (in-place)
I0713 14:11:02.882786 14818 net.cpp:141] Setting up inception_4b/relu_pool_proj
I0713 14:11:02.882814 14818 net.cpp:148] Top shape: 10 64 14 14 (125440)
I0713 14:11:02.882818 14818 net.cpp:156] Memory required for data: 403791360
I0713 14:11:02.882823 14818 layer_factory.hpp:77] Creating layer inception_4b/output
I0713 14:11:02.882830 14818 net.cpp:91] Creating Layer inception_4b/output
I0713 14:11:02.882835 14818 net.cpp:425] inception_4b/output <- inception_4b/1x1
I0713 14:11:02.882841 14818 net.cpp:425] inception_4b/output <- inception_4b/3x3
I0713 14:11:02.882845 14818 net.cpp:425] inception_4b/output <- inception_4b/5x5
I0713 14:11:02.882850 14818 net.cpp:425] inception_4b/output <- inception_4b/pool_proj
I0713 14:11:02.882871 14818 net.cpp:399] inception_4b/output -> inception_4b/output
I0713 14:11:02.882915 14818 net.cpp:141] Setting up inception_4b/output
I0713 14:11:02.882925 14818 net.cpp:148] Top shape: 10 512 14 14 (1003520)
I0713 14:11:02.882927 14818 net.cpp:156] Memory required for data: 407805440
I0713 14:11:02.882931 14818 layer_factory.hpp:77] Creating layer inception_4b/output_inception_4b/output_0_split
I0713 14:11:02.882939 14818 net.cpp:91] Creating Layer inception_4b/output_inception_4b/output_0_split
I0713 14:11:02.882943 14818 net.cpp:425] inception_4b/output_inception_4b/output_0_split <- inception_4b/output
I0713 14:11:02.882949 14818 net.cpp:399] inception_4b/output_inception_4b/output_0_split -> inception_4b/output_inception_4b/output_0_split_0
I0713 14:11:02.882961 14818 net.cpp:399] inception_4b/output_inception_4b/output_0_split -> inception_4b/output_inception_4b/output_0_split_1
I0713 14:11:02.882969 14818 net.cpp:399] inception_4b/output_inception_4b/output_0_split -> inception_4b/output_inception_4b/output_0_split_2
I0713 14:11:02.882977 14818 net.cpp:399] inception_4b/output_inception_4b/output_0_split -> inception_4b/output_inception_4b/output_0_split_3
I0713 14:11:02.883069 14818 net.cpp:141] Setting up inception_4b/output_inception_4b/output_0_split
I0713 14:11:02.883077 14818 net.cpp:148] Top shape: 10 512 14 14 (1003520)
I0713 14:11:02.883082 14818 net.cpp:148] Top shape: 10 512 14 14 (1003520)
I0713 14:11:02.883086 14818 net.cpp:148] Top shape: 10 512 14 14 (1003520)
I0713 14:11:02.883091 14818 net.cpp:148] Top shape: 10 512 14 14 (1003520)
I0713 14:11:02.883095 14818 net.cpp:156] Memory required for data: 423861760
I0713 14:11:02.883098 14818 layer_factory.hpp:77] Creating layer inception_4c/1x1
I0713 14:11:02.883114 14818 net.cpp:91] Creating Layer inception_4c/1x1
I0713 14:11:02.883121 14818 net.cpp:425] inception_4c/1x1 <- inception_4b/output_inception_4b/output_0_split_0
I0713 14:11:02.883128 14818 net.cpp:399] inception_4c/1x1 -> inception_4c/1x1
I0713 14:11:02.885679 14818 net.cpp:141] Setting up inception_4c/1x1
I0713 14:11:02.885696 14818 net.cpp:148] Top shape: 10 128 14 14 (250880)
I0713 14:11:02.885701 14818 net.cpp:156] Memory required for data: 424865280
I0713 14:11:02.885710 14818 layer_factory.hpp:77] Creating layer inception_4c/relu_1x1
I0713 14:11:02.885722 14818 net.cpp:91] Creating Layer inception_4c/relu_1x1
I0713 14:11:02.885728 14818 net.cpp:425] inception_4c/relu_1x1 <- inception_4c/1x1
I0713 14:11:02.885735 14818 net.cpp:386] inception_4c/relu_1x1 -> inception_4c/1x1 (in-place)
I0713 14:11:02.885975 14818 net.cpp:141] Setting up inception_4c/relu_1x1
I0713 14:11:02.885985 14818 net.cpp:148] Top shape: 10 128 14 14 (250880)
I0713 14:11:02.885989 14818 net.cpp:156] Memory required for data: 425868800
I0713 14:11:02.885994 14818 layer_factory.hpp:77] Creating layer inception_4c/3x3_reduce
I0713 14:11:02.886008 14818 net.cpp:91] Creating Layer inception_4c/3x3_reduce
I0713 14:11:02.886014 14818 net.cpp:425] inception_4c/3x3_reduce <- inception_4b/output_inception_4b/output_0_split_1
I0713 14:11:02.886025 14818 net.cpp:399] inception_4c/3x3_reduce -> inception_4c/3x3_reduce
I0713 14:11:02.888548 14818 net.cpp:141] Setting up inception_4c/3x3_reduce
I0713 14:11:02.888566 14818 net.cpp:148] Top shape: 10 128 14 14 (250880)
I0713 14:11:02.888582 14818 net.cpp:156] Memory required for data: 426872320
I0713 14:11:02.888592 14818 layer_factory.hpp:77] Creating layer inception_4c/relu_3x3_reduce
I0713 14:11:02.888603 14818 net.cpp:91] Creating Layer inception_4c/relu_3x3_reduce
I0713 14:11:02.888609 14818 net.cpp:425] inception_4c/relu_3x3_reduce <- inception_4c/3x3_reduce
I0713 14:11:02.888615 14818 net.cpp:386] inception_4c/relu_3x3_reduce -> inception_4c/3x3_reduce (in-place)
I0713 14:11:02.888847 14818 net.cpp:141] Setting up inception_4c/relu_3x3_reduce
I0713 14:11:02.888859 14818 net.cpp:148] Top shape: 10 128 14 14 (250880)
I0713 14:11:02.888862 14818 net.cpp:156] Memory required for data: 427875840
I0713 14:11:02.888867 14818 layer_factory.hpp:77] Creating layer inception_4c/3x3
I0713 14:11:02.888882 14818 net.cpp:91] Creating Layer inception_4c/3x3
I0713 14:11:02.888888 14818 net.cpp:425] inception_4c/3x3 <- inception_4c/3x3_reduce
I0713 14:11:02.888900 14818 net.cpp:399] inception_4c/3x3 -> inception_4c/3x3
I0713 14:11:02.894134 14818 net.cpp:141] Setting up inception_4c/3x3
I0713 14:11:02.894150 14818 net.cpp:148] Top shape: 10 256 14 14 (501760)
I0713 14:11:02.894168 14818 net.cpp:156] Memory required for data: 429882880
I0713 14:11:02.894176 14818 layer_factory.hpp:77] Creating layer inception_4c/relu_3x3
I0713 14:11:02.894187 14818 net.cpp:91] Creating Layer inception_4c/relu_3x3
I0713 14:11:02.894193 14818 net.cpp:425] inception_4c/relu_3x3 <- inception_4c/3x3
I0713 14:11:02.894199 14818 net.cpp:386] inception_4c/relu_3x3 -> inception_4c/3x3 (in-place)
I0713 14:11:02.894948 14818 net.cpp:141] Setting up inception_4c/relu_3x3
I0713 14:11:02.894963 14818 net.cpp:148] Top shape: 10 256 14 14 (501760)
I0713 14:11:02.894968 14818 net.cpp:156] Memory required for data: 431889920
I0713 14:11:02.894973 14818 layer_factory.hpp:77] Creating layer inception_4c/5x5_reduce
I0713 14:11:02.894995 14818 net.cpp:91] Creating Layer inception_4c/5x5_reduce
I0713 14:11:02.895001 14818 net.cpp:425] inception_4c/5x5_reduce <- inception_4b/output_inception_4b/output_0_split_2
I0713 14:11:02.895012 14818 net.cpp:399] inception_4c/5x5_reduce -> inception_4c/5x5_reduce
I0713 14:11:02.897217 14818 net.cpp:141] Setting up inception_4c/5x5_reduce
I0713 14:11:02.897233 14818 net.cpp:148] Top shape: 10 24 14 14 (47040)
I0713 14:11:02.897251 14818 net.cpp:156] Memory required for data: 432078080
I0713 14:11:02.897259 14818 layer_factory.hpp:77] Creating layer inception_4c/relu_5x5_reduce
I0713 14:11:02.897271 14818 net.cpp:91] Creating Layer inception_4c/relu_5x5_reduce
I0713 14:11:02.897277 14818 net.cpp:425] inception_4c/relu_5x5_reduce <- inception_4c/5x5_reduce
I0713 14:11:02.897284 14818 net.cpp:386] inception_4c/relu_5x5_reduce -> inception_4c/5x5_reduce (in-place)
I0713 14:11:02.897523 14818 net.cpp:141] Setting up inception_4c/relu_5x5_reduce
I0713 14:11:02.897533 14818 net.cpp:148] Top shape: 10 24 14 14 (47040)
I0713 14:11:02.897538 14818 net.cpp:156] Memory required for data: 432266240
I0713 14:11:02.897542 14818 layer_factory.hpp:77] Creating layer inception_4c/5x5
I0713 14:11:02.897558 14818 net.cpp:91] Creating Layer inception_4c/5x5
I0713 14:11:02.897564 14818 net.cpp:425] inception_4c/5x5 <- inception_4c/5x5_reduce
I0713 14:11:02.897574 14818 net.cpp:399] inception_4c/5x5 -> inception_4c/5x5
I0713 14:11:02.900452 14818 net.cpp:141] Setting up inception_4c/5x5
I0713 14:11:02.900470 14818 net.cpp:148] Top shape: 10 64 14 14 (125440)
I0713 14:11:02.900486 14818 net.cpp:156] Memory required for data: 432768000
I0713 14:11:02.900496 14818 layer_factory.hpp:77] Creating layer inception_4c/relu_5x5
I0713 14:11:02.900506 14818 net.cpp:91] Creating Layer inception_4c/relu_5x5
I0713 14:11:02.900511 14818 net.cpp:425] inception_4c/relu_5x5 <- inception_4c/5x5
I0713 14:11:02.900519 14818 net.cpp:386] inception_4c/relu_5x5 -> inception_4c/5x5 (in-place)
I0713 14:11:02.900763 14818 net.cpp:141] Setting up inception_4c/relu_5x5
I0713 14:11:02.900774 14818 net.cpp:148] Top shape: 10 64 14 14 (125440)
I0713 14:11:02.900777 14818 net.cpp:156] Memory required for data: 433269760
I0713 14:11:02.900782 14818 layer_factory.hpp:77] Creating layer inception_4c/pool
I0713 14:11:02.900794 14818 net.cpp:91] Creating Layer inception_4c/pool
I0713 14:11:02.900800 14818 net.cpp:425] inception_4c/pool <- inception_4b/output_inception_4b/output_0_split_3
I0713 14:11:02.900807 14818 net.cpp:399] inception_4c/pool -> inception_4c/pool
I0713 14:11:02.900876 14818 net.cpp:141] Setting up inception_4c/pool
I0713 14:11:02.900885 14818 net.cpp:148] Top shape: 10 512 14 14 (1003520)
I0713 14:11:02.900889 14818 net.cpp:156] Memory required for data: 437283840
I0713 14:11:02.900893 14818 layer_factory.hpp:77] Creating layer inception_4c/pool_proj
I0713 14:11:02.900909 14818 net.cpp:91] Creating Layer inception_4c/pool_proj
I0713 14:11:02.900915 14818 net.cpp:425] inception_4c/pool_proj <- inception_4c/pool
I0713 14:11:02.900926 14818 net.cpp:399] inception_4c/pool_proj -> inception_4c/pool_proj
I0713 14:11:02.904219 14818 net.cpp:141] Setting up inception_4c/pool_proj
I0713 14:11:02.904249 14818 net.cpp:148] Top shape: 10 64 14 14 (125440)
I0713 14:11:02.904254 14818 net.cpp:156] Memory required for data: 437785600
I0713 14:11:02.904279 14818 layer_factory.hpp:77] Creating layer inception_4c/relu_pool_proj
I0713 14:11:02.904289 14818 net.cpp:91] Creating Layer inception_4c/relu_pool_proj
I0713 14:11:02.904294 14818 net.cpp:425] inception_4c/relu_pool_proj <- inception_4c/pool_proj
I0713 14:11:02.904300 14818 net.cpp:386] inception_4c/relu_pool_proj -> inception_4c/pool_proj (in-place)
I0713 14:11:02.904999 14818 net.cpp:141] Setting up inception_4c/relu_pool_proj
I0713 14:11:02.905012 14818 net.cpp:148] Top shape: 10 64 14 14 (125440)
I0713 14:11:02.905016 14818 net.cpp:156] Memory required for data: 438287360
I0713 14:11:02.905021 14818 layer_factory.hpp:77] Creating layer inception_4c/output
I0713 14:11:02.905028 14818 net.cpp:91] Creating Layer inception_4c/output
I0713 14:11:02.905033 14818 net.cpp:425] inception_4c/output <- inception_4c/1x1
I0713 14:11:02.905040 14818 net.cpp:425] inception_4c/output <- inception_4c/3x3
I0713 14:11:02.905056 14818 net.cpp:425] inception_4c/output <- inception_4c/5x5
I0713 14:11:02.905062 14818 net.cpp:425] inception_4c/output <- inception_4c/pool_proj
I0713 14:11:02.905068 14818 net.cpp:399] inception_4c/output -> inception_4c/output
I0713 14:11:02.905115 14818 net.cpp:141] Setting up inception_4c/output
I0713 14:11:02.905124 14818 net.cpp:148] Top shape: 10 512 14 14 (1003520)
I0713 14:11:02.905130 14818 net.cpp:156] Memory required for data: 442301440
I0713 14:11:02.905134 14818 layer_factory.hpp:77] Creating layer inception_4c/output_inception_4c/output_0_split
I0713 14:11:02.905141 14818 net.cpp:91] Creating Layer inception_4c/output_inception_4c/output_0_split
I0713 14:11:02.905146 14818 net.cpp:425] inception_4c/output_inception_4c/output_0_split <- inception_4c/output
I0713 14:11:02.905153 14818 net.cpp:399] inception_4c/output_inception_4c/output_0_split -> inception_4c/output_inception_4c/output_0_split_0
I0713 14:11:02.905161 14818 net.cpp:399] inception_4c/output_inception_4c/output_0_split -> inception_4c/output_inception_4c/output_0_split_1
I0713 14:11:02.905169 14818 net.cpp:399] inception_4c/output_inception_4c/output_0_split -> inception_4c/output_inception_4c/output_0_split_2
I0713 14:11:02.905177 14818 net.cpp:399] inception_4c/output_inception_4c/output_0_split -> inception_4c/output_inception_4c/output_0_split_3
I0713 14:11:02.905272 14818 net.cpp:141] Setting up inception_4c/output_inception_4c/output_0_split
I0713 14:11:02.905280 14818 net.cpp:148] Top shape: 10 512 14 14 (1003520)
I0713 14:11:02.905287 14818 net.cpp:148] Top shape: 10 512 14 14 (1003520)
I0713 14:11:02.905292 14818 net.cpp:148] Top shape: 10 512 14 14 (1003520)
I0713 14:11:02.905295 14818 net.cpp:148] Top shape: 10 512 14 14 (1003520)
I0713 14:11:02.905299 14818 net.cpp:156] Memory required for data: 458357760
I0713 14:11:02.905303 14818 layer_factory.hpp:77] Creating layer inception_4d/1x1
I0713 14:11:02.905318 14818 net.cpp:91] Creating Layer inception_4d/1x1
I0713 14:11:02.905323 14818 net.cpp:425] inception_4d/1x1 <- inception_4c/output_inception_4c/output_0_split_0
I0713 14:11:02.905334 14818 net.cpp:399] inception_4d/1x1 -> inception_4d/1x1
I0713 14:11:02.907821 14818 net.cpp:141] Setting up inception_4d/1x1
I0713 14:11:02.907838 14818 net.cpp:148] Top shape: 10 112 14 14 (219520)
I0713 14:11:02.907855 14818 net.cpp:156] Memory required for data: 459235840
I0713 14:11:02.907866 14818 layer_factory.hpp:77] Creating layer inception_4d/relu_1x1
I0713 14:11:02.907874 14818 net.cpp:91] Creating Layer inception_4d/relu_1x1
I0713 14:11:02.907881 14818 net.cpp:425] inception_4d/relu_1x1 <- inception_4d/1x1
I0713 14:11:02.907889 14818 net.cpp:386] inception_4d/relu_1x1 -> inception_4d/1x1 (in-place)
I0713 14:11:02.908110 14818 net.cpp:141] Setting up inception_4d/relu_1x1
I0713 14:11:02.908120 14818 net.cpp:148] Top shape: 10 112 14 14 (219520)
I0713 14:11:02.908124 14818 net.cpp:156] Memory required for data: 460113920
I0713 14:11:02.908129 14818 layer_factory.hpp:77] Creating layer inception_4d/3x3_reduce
I0713 14:11:02.908143 14818 net.cpp:91] Creating Layer inception_4d/3x3_reduce
I0713 14:11:02.908151 14818 net.cpp:425] inception_4d/3x3_reduce <- inception_4c/output_inception_4c/output_0_split_1
I0713 14:11:02.908159 14818 net.cpp:399] inception_4d/3x3_reduce -> inception_4d/3x3_reduce
I0713 14:11:02.910809 14818 net.cpp:141] Setting up inception_4d/3x3_reduce
I0713 14:11:02.910825 14818 net.cpp:148] Top shape: 10 144 14 14 (282240)
I0713 14:11:02.910830 14818 net.cpp:156] Memory required for data: 461242880
I0713 14:11:02.910840 14818 layer_factory.hpp:77] Creating layer inception_4d/relu_3x3_reduce
I0713 14:11:02.910847 14818 net.cpp:91] Creating Layer inception_4d/relu_3x3_reduce
I0713 14:11:02.910853 14818 net.cpp:425] inception_4d/relu_3x3_reduce <- inception_4d/3x3_reduce
I0713 14:11:02.910862 14818 net.cpp:386] inception_4d/relu_3x3_reduce -> inception_4d/3x3_reduce (in-place)
I0713 14:11:02.911104 14818 net.cpp:141] Setting up inception_4d/relu_3x3_reduce
I0713 14:11:02.911115 14818 net.cpp:148] Top shape: 10 144 14 14 (282240)
I0713 14:11:02.911119 14818 net.cpp:156] Memory required for data: 462371840
I0713 14:11:02.911123 14818 layer_factory.hpp:77] Creating layer inception_4d/3x3
I0713 14:11:02.911140 14818 net.cpp:91] Creating Layer inception_4d/3x3
I0713 14:11:02.911146 14818 net.cpp:425] inception_4d/3x3 <- inception_4d/3x3_reduce
I0713 14:11:02.911154 14818 net.cpp:399] inception_4d/3x3 -> inception_4d/3x3
I0713 14:11:02.917203 14818 net.cpp:141] Setting up inception_4d/3x3
I0713 14:11:02.917222 14818 net.cpp:148] Top shape: 10 288 14 14 (564480)
I0713 14:11:02.917227 14818 net.cpp:156] Memory required for data: 464629760
I0713 14:11:02.917235 14818 layer_factory.hpp:77] Creating layer inception_4d/relu_3x3
I0713 14:11:02.917243 14818 net.cpp:91] Creating Layer inception_4d/relu_3x3
I0713 14:11:02.917249 14818 net.cpp:425] inception_4d/relu_3x3 <- inception_4d/3x3
I0713 14:11:02.917256 14818 net.cpp:386] inception_4d/relu_3x3 -> inception_4d/3x3 (in-place)
I0713 14:11:02.917996 14818 net.cpp:141] Setting up inception_4d/relu_3x3
I0713 14:11:02.918010 14818 net.cpp:148] Top shape: 10 288 14 14 (564480)
I0713 14:11:02.918015 14818 net.cpp:156] Memory required for data: 466887680
I0713 14:11:02.918020 14818 layer_factory.hpp:77] Creating layer inception_4d/5x5_reduce
I0713 14:11:02.918048 14818 net.cpp:91] Creating Layer inception_4d/5x5_reduce
I0713 14:11:02.918054 14818 net.cpp:425] inception_4d/5x5_reduce <- inception_4c/output_inception_4c/output_0_split_2
I0713 14:11:02.918066 14818 net.cpp:399] inception_4d/5x5_reduce -> inception_4d/5x5_reduce
I0713 14:11:02.920312 14818 net.cpp:141] Setting up inception_4d/5x5_reduce
I0713 14:11:02.920341 14818 net.cpp:148] Top shape: 10 32 14 14 (62720)
I0713 14:11:02.920346 14818 net.cpp:156] Memory required for data: 467138560
I0713 14:11:02.920354 14818 layer_factory.hpp:77] Creating layer inception_4d/relu_5x5_reduce
I0713 14:11:02.920368 14818 net.cpp:91] Creating Layer inception_4d/relu_5x5_reduce
I0713 14:11:02.920374 14818 net.cpp:425] inception_4d/relu_5x5_reduce <- inception_4d/5x5_reduce
I0713 14:11:02.920383 14818 net.cpp:386] inception_4d/relu_5x5_reduce -> inception_4d/5x5_reduce (in-place)
I0713 14:11:02.920615 14818 net.cpp:141] Setting up inception_4d/relu_5x5_reduce
I0713 14:11:02.920626 14818 net.cpp:148] Top shape: 10 32 14 14 (62720)
I0713 14:11:02.920630 14818 net.cpp:156] Memory required for data: 467389440
I0713 14:11:02.920635 14818 layer_factory.hpp:77] Creating layer inception_4d/5x5
I0713 14:11:02.920665 14818 net.cpp:91] Creating Layer inception_4d/5x5
I0713 14:11:02.920673 14818 net.cpp:425] inception_4d/5x5 <- inception_4d/5x5_reduce
I0713 14:11:02.920682 14818 net.cpp:399] inception_4d/5x5 -> inception_4d/5x5
I0713 14:11:02.923097 14818 net.cpp:141] Setting up inception_4d/5x5
I0713 14:11:02.923112 14818 net.cpp:148] Top shape: 10 64 14 14 (125440)
I0713 14:11:02.923117 14818 net.cpp:156] Memory required for data: 467891200
I0713 14:11:02.923125 14818 layer_factory.hpp:77] Creating layer inception_4d/relu_5x5
I0713 14:11:02.923149 14818 net.cpp:91] Creating Layer inception_4d/relu_5x5
I0713 14:11:02.923156 14818 net.cpp:425] inception_4d/relu_5x5 <- inception_4d/5x5
I0713 14:11:02.923162 14818 net.cpp:386] inception_4d/relu_5x5 -> inception_4d/5x5 (in-place)
I0713 14:11:02.923389 14818 net.cpp:141] Setting up inception_4d/relu_5x5
I0713 14:11:02.923399 14818 net.cpp:148] Top shape: 10 64 14 14 (125440)
I0713 14:11:02.923403 14818 net.cpp:156] Memory required for data: 468392960
I0713 14:11:02.923408 14818 layer_factory.hpp:77] Creating layer inception_4d/pool
I0713 14:11:02.923415 14818 net.cpp:91] Creating Layer inception_4d/pool
I0713 14:11:02.923420 14818 net.cpp:425] inception_4d/pool <- inception_4c/output_inception_4c/output_0_split_3
I0713 14:11:02.923430 14818 net.cpp:399] inception_4d/pool -> inception_4d/pool
I0713 14:11:02.923509 14818 net.cpp:141] Setting up inception_4d/pool
I0713 14:11:02.923518 14818 net.cpp:148] Top shape: 10 512 14 14 (1003520)
I0713 14:11:02.923522 14818 net.cpp:156] Memory required for data: 472407040
I0713 14:11:02.923527 14818 layer_factory.hpp:77] Creating layer inception_4d/pool_proj
I0713 14:11:02.923545 14818 net.cpp:91] Creating Layer inception_4d/pool_proj
I0713 14:11:02.923552 14818 net.cpp:425] inception_4d/pool_proj <- inception_4d/pool
I0713 14:11:02.923559 14818 net.cpp:399] inception_4d/pool_proj -> inception_4d/pool_proj
I0713 14:11:02.925912 14818 net.cpp:141] Setting up inception_4d/pool_proj
I0713 14:11:02.925930 14818 net.cpp:148] Top shape: 10 64 14 14 (125440)
I0713 14:11:02.925933 14818 net.cpp:156] Memory required for data: 472908800
I0713 14:11:02.925942 14818 layer_factory.hpp:77] Creating layer inception_4d/relu_pool_proj
I0713 14:11:02.925951 14818 net.cpp:91] Creating Layer inception_4d/relu_pool_proj
I0713 14:11:02.925956 14818 net.cpp:425] inception_4d/relu_pool_proj <- inception_4d/pool_proj
I0713 14:11:02.925964 14818 net.cpp:386] inception_4d/relu_pool_proj -> inception_4d/pool_proj (in-place)
I0713 14:11:02.926683 14818 net.cpp:141] Setting up inception_4d/relu_pool_proj
I0713 14:11:02.926704 14818 net.cpp:148] Top shape: 10 64 14 14 (125440)
I0713 14:11:02.926709 14818 net.cpp:156] Memory required for data: 473410560
I0713 14:11:02.926713 14818 layer_factory.hpp:77] Creating layer inception_4d/output
I0713 14:11:02.926734 14818 net.cpp:91] Creating Layer inception_4d/output
I0713 14:11:02.926743 14818 net.cpp:425] inception_4d/output <- inception_4d/1x1
I0713 14:11:02.926749 14818 net.cpp:425] inception_4d/output <- inception_4d/3x3
I0713 14:11:02.926754 14818 net.cpp:425] inception_4d/output <- inception_4d/5x5
I0713 14:11:02.926759 14818 net.cpp:425] inception_4d/output <- inception_4d/pool_proj
I0713 14:11:02.926765 14818 net.cpp:399] inception_4d/output -> inception_4d/output
I0713 14:11:02.926810 14818 net.cpp:141] Setting up inception_4d/output
I0713 14:11:02.926818 14818 net.cpp:148] Top shape: 10 528 14 14 (1034880)
I0713 14:11:02.926822 14818 net.cpp:156] Memory required for data: 477550080
I0713 14:11:02.926827 14818 layer_factory.hpp:77] Creating layer inception_4d/output_inception_4d/output_0_split
I0713 14:11:02.926838 14818 net.cpp:91] Creating Layer inception_4d/output_inception_4d/output_0_split
I0713 14:11:02.926843 14818 net.cpp:425] inception_4d/output_inception_4d/output_0_split <- inception_4d/output
I0713 14:11:02.926852 14818 net.cpp:399] inception_4d/output_inception_4d/output_0_split -> inception_4d/output_inception_4d/output_0_split_0
I0713 14:11:02.926862 14818 net.cpp:399] inception_4d/output_inception_4d/output_0_split -> inception_4d/output_inception_4d/output_0_split_1
I0713 14:11:02.926869 14818 net.cpp:399] inception_4d/output_inception_4d/output_0_split -> inception_4d/output_inception_4d/output_0_split_2
I0713 14:11:02.926877 14818 net.cpp:399] inception_4d/output_inception_4d/output_0_split -> inception_4d/output_inception_4d/output_0_split_3
I0713 14:11:02.926972 14818 net.cpp:141] Setting up inception_4d/output_inception_4d/output_0_split
I0713 14:11:02.926981 14818 net.cpp:148] Top shape: 10 528 14 14 (1034880)
I0713 14:11:02.926987 14818 net.cpp:148] Top shape: 10 528 14 14 (1034880)
I0713 14:11:02.926992 14818 net.cpp:148] Top shape: 10 528 14 14 (1034880)
I0713 14:11:02.926996 14818 net.cpp:148] Top shape: 10 528 14 14 (1034880)
I0713 14:11:02.927000 14818 net.cpp:156] Memory required for data: 494108160
I0713 14:11:02.927005 14818 layer_factory.hpp:77] Creating layer inception_4e/1x1
I0713 14:11:02.927018 14818 net.cpp:91] Creating Layer inception_4e/1x1
I0713 14:11:02.927024 14818 net.cpp:425] inception_4e/1x1 <- inception_4d/output_inception_4d/output_0_split_0
I0713 14:11:02.927036 14818 net.cpp:399] inception_4e/1x1 -> inception_4e/1x1
I0713 14:11:02.931780 14818 net.cpp:141] Setting up inception_4e/1x1
I0713 14:11:02.931798 14818 net.cpp:148] Top shape: 10 256 14 14 (501760)
I0713 14:11:02.931815 14818 net.cpp:156] Memory required for data: 496115200
I0713 14:11:02.931824 14818 layer_factory.hpp:77] Creating layer inception_4e/relu_1x1
I0713 14:11:02.931838 14818 net.cpp:91] Creating Layer inception_4e/relu_1x1
I0713 14:11:02.931843 14818 net.cpp:425] inception_4e/relu_1x1 <- inception_4e/1x1
I0713 14:11:02.931850 14818 net.cpp:386] inception_4e/relu_1x1 -> inception_4e/1x1 (in-place)
I0713 14:11:02.932097 14818 net.cpp:141] Setting up inception_4e/relu_1x1
I0713 14:11:02.932108 14818 net.cpp:148] Top shape: 10 256 14 14 (501760)
I0713 14:11:02.932113 14818 net.cpp:156] Memory required for data: 498122240
I0713 14:11:02.932117 14818 layer_factory.hpp:77] Creating layer inception_4e/3x3_reduce
I0713 14:11:02.932132 14818 net.cpp:91] Creating Layer inception_4e/3x3_reduce
I0713 14:11:02.932137 14818 net.cpp:425] inception_4e/3x3_reduce <- inception_4d/output_inception_4d/output_0_split_1
I0713 14:11:02.932147 14818 net.cpp:399] inception_4e/3x3_reduce -> inception_4e/3x3_reduce
I0713 14:11:02.934916 14818 net.cpp:141] Setting up inception_4e/3x3_reduce
I0713 14:11:02.934931 14818 net.cpp:148] Top shape: 10 160 14 14 (313600)
I0713 14:11:02.934947 14818 net.cpp:156] Memory required for data: 499376640
I0713 14:11:02.934957 14818 layer_factory.hpp:77] Creating layer inception_4e/relu_3x3_reduce
I0713 14:11:02.934967 14818 net.cpp:91] Creating Layer inception_4e/relu_3x3_reduce
I0713 14:11:02.934973 14818 net.cpp:425] inception_4e/relu_3x3_reduce <- inception_4e/3x3_reduce
I0713 14:11:02.934979 14818 net.cpp:386] inception_4e/relu_3x3_reduce -> inception_4e/3x3_reduce (in-place)
I0713 14:11:02.935209 14818 net.cpp:141] Setting up inception_4e/relu_3x3_reduce
I0713 14:11:02.935221 14818 net.cpp:148] Top shape: 10 160 14 14 (313600)
I0713 14:11:02.935225 14818 net.cpp:156] Memory required for data: 500631040
I0713 14:11:02.935230 14818 layer_factory.hpp:77] Creating layer inception_4e/3x3
I0713 14:11:02.935247 14818 net.cpp:91] Creating Layer inception_4e/3x3
I0713 14:11:02.935252 14818 net.cpp:425] inception_4e/3x3 <- inception_4e/3x3_reduce
I0713 14:11:02.935261 14818 net.cpp:399] inception_4e/3x3 -> inception_4e/3x3
I0713 14:11:02.942155 14818 net.cpp:141] Setting up inception_4e/3x3
I0713 14:11:02.942173 14818 net.cpp:148] Top shape: 10 320 14 14 (627200)
I0713 14:11:02.942178 14818 net.cpp:156] Memory required for data: 503139840
I0713 14:11:02.942186 14818 layer_factory.hpp:77] Creating layer inception_4e/relu_3x3
I0713 14:11:02.942198 14818 net.cpp:91] Creating Layer inception_4e/relu_3x3
I0713 14:11:02.942204 14818 net.cpp:425] inception_4e/relu_3x3 <- inception_4e/3x3
I0713 14:11:02.942211 14818 net.cpp:386] inception_4e/relu_3x3 -> inception_4e/3x3 (in-place)
I0713 14:11:02.942950 14818 net.cpp:141] Setting up inception_4e/relu_3x3
I0713 14:11:02.942965 14818 net.cpp:148] Top shape: 10 320 14 14 (627200)
I0713 14:11:02.942970 14818 net.cpp:156] Memory required for data: 505648640
I0713 14:11:02.942975 14818 layer_factory.hpp:77] Creating layer inception_4e/5x5_reduce
I0713 14:11:02.942997 14818 net.cpp:91] Creating Layer inception_4e/5x5_reduce
I0713 14:11:02.943003 14818 net.cpp:425] inception_4e/5x5_reduce <- inception_4d/output_inception_4d/output_0_split_2
I0713 14:11:02.943012 14818 net.cpp:399] inception_4e/5x5_reduce -> inception_4e/5x5_reduce
I0713 14:11:02.945286 14818 net.cpp:141] Setting up inception_4e/5x5_reduce
I0713 14:11:02.945303 14818 net.cpp:148] Top shape: 10 32 14 14 (62720)
I0713 14:11:02.945307 14818 net.cpp:156] Memory required for data: 505899520
I0713 14:11:02.945329 14818 layer_factory.hpp:77] Creating layer inception_4e/relu_5x5_reduce
I0713 14:11:02.945338 14818 net.cpp:91] Creating Layer inception_4e/relu_5x5_reduce
I0713 14:11:02.945343 14818 net.cpp:425] inception_4e/relu_5x5_reduce <- inception_4e/5x5_reduce
I0713 14:11:02.945349 14818 net.cpp:386] inception_4e/relu_5x5_reduce -> inception_4e/5x5_reduce (in-place)
I0713 14:11:02.945596 14818 net.cpp:141] Setting up inception_4e/relu_5x5_reduce
I0713 14:11:02.945606 14818 net.cpp:148] Top shape: 10 32 14 14 (62720)
I0713 14:11:02.945611 14818 net.cpp:156] Memory required for data: 506150400
I0713 14:11:02.945616 14818 layer_factory.hpp:77] Creating layer inception_4e/5x5
I0713 14:11:02.945628 14818 net.cpp:91] Creating Layer inception_4e/5x5
I0713 14:11:02.945634 14818 net.cpp:425] inception_4e/5x5 <- inception_4e/5x5_reduce
I0713 14:11:02.945646 14818 net.cpp:399] inception_4e/5x5 -> inception_4e/5x5
I0713 14:11:02.949538 14818 net.cpp:141] Setting up inception_4e/5x5
I0713 14:11:02.949568 14818 net.cpp:148] Top shape: 10 128 14 14 (250880)
I0713 14:11:02.949573 14818 net.cpp:156] Memory required for data: 507153920
I0713 14:11:02.949581 14818 layer_factory.hpp:77] Creating layer inception_4e/relu_5x5
I0713 14:11:02.949589 14818 net.cpp:91] Creating Layer inception_4e/relu_5x5
I0713 14:11:02.949594 14818 net.cpp:425] inception_4e/relu_5x5 <- inception_4e/5x5
I0713 14:11:02.949614 14818 net.cpp:386] inception_4e/relu_5x5 -> inception_4e/5x5 (in-place)
I0713 14:11:02.949865 14818 net.cpp:141] Setting up inception_4e/relu_5x5
I0713 14:11:02.949875 14818 net.cpp:148] Top shape: 10 128 14 14 (250880)
I0713 14:11:02.949879 14818 net.cpp:156] Memory required for data: 508157440
I0713 14:11:02.949883 14818 layer_factory.hpp:77] Creating layer inception_4e/pool
I0713 14:11:02.949893 14818 net.cpp:91] Creating Layer inception_4e/pool
I0713 14:11:02.949899 14818 net.cpp:425] inception_4e/pool <- inception_4d/output_inception_4d/output_0_split_3
I0713 14:11:02.949906 14818 net.cpp:399] inception_4e/pool -> inception_4e/pool
I0713 14:11:02.949975 14818 net.cpp:141] Setting up inception_4e/pool
I0713 14:11:02.949985 14818 net.cpp:148] Top shape: 10 528 14 14 (1034880)
I0713 14:11:02.949988 14818 net.cpp:156] Memory required for data: 512296960
I0713 14:11:02.949992 14818 layer_factory.hpp:77] Creating layer inception_4e/pool_proj
I0713 14:11:02.950006 14818 net.cpp:91] Creating Layer inception_4e/pool_proj
I0713 14:11:02.950012 14818 net.cpp:425] inception_4e/pool_proj <- inception_4e/pool
I0713 14:11:02.950022 14818 net.cpp:399] inception_4e/pool_proj -> inception_4e/pool_proj
I0713 14:11:02.952644 14818 net.cpp:141] Setting up inception_4e/pool_proj
I0713 14:11:02.952661 14818 net.cpp:148] Top shape: 10 128 14 14 (250880)
I0713 14:11:02.952666 14818 net.cpp:156] Memory required for data: 513300480
I0713 14:11:02.952674 14818 layer_factory.hpp:77] Creating layer inception_4e/relu_pool_proj
I0713 14:11:02.952687 14818 net.cpp:91] Creating Layer inception_4e/relu_pool_proj
I0713 14:11:02.952692 14818 net.cpp:425] inception_4e/relu_pool_proj <- inception_4e/pool_proj
I0713 14:11:02.952699 14818 net.cpp:386] inception_4e/relu_pool_proj -> inception_4e/pool_proj (in-place)
I0713 14:11:02.953414 14818 net.cpp:141] Setting up inception_4e/relu_pool_proj
I0713 14:11:02.953429 14818 net.cpp:148] Top shape: 10 128 14 14 (250880)
I0713 14:11:02.953433 14818 net.cpp:156] Memory required for data: 514304000
I0713 14:11:02.953438 14818 layer_factory.hpp:77] Creating layer inception_4e/output
I0713 14:11:02.953449 14818 net.cpp:91] Creating Layer inception_4e/output
I0713 14:11:02.953454 14818 net.cpp:425] inception_4e/output <- inception_4e/1x1
I0713 14:11:02.953460 14818 net.cpp:425] inception_4e/output <- inception_4e/3x3
I0713 14:11:02.953465 14818 net.cpp:425] inception_4e/output <- inception_4e/5x5
I0713 14:11:02.953470 14818 net.cpp:425] inception_4e/output <- inception_4e/pool_proj
I0713 14:11:02.953475 14818 net.cpp:399] inception_4e/output -> inception_4e/output
I0713 14:11:02.953536 14818 net.cpp:141] Setting up inception_4e/output
I0713 14:11:02.953544 14818 net.cpp:148] Top shape: 10 832 14 14 (1630720)
I0713 14:11:02.953548 14818 net.cpp:156] Memory required for data: 520826880
I0713 14:11:02.953553 14818 layer_factory.hpp:77] Creating layer pool4/3x3_s2
I0713 14:11:02.953560 14818 net.cpp:91] Creating Layer pool4/3x3_s2
I0713 14:11:02.953565 14818 net.cpp:425] pool4/3x3_s2 <- inception_4e/output
I0713 14:11:02.953575 14818 net.cpp:399] pool4/3x3_s2 -> pool4/3x3_s2
I0713 14:11:02.953642 14818 net.cpp:141] Setting up pool4/3x3_s2
I0713 14:11:02.953651 14818 net.cpp:148] Top shape: 10 832 7 7 (407680)
I0713 14:11:02.953655 14818 net.cpp:156] Memory required for data: 522457600
I0713 14:11:02.953660 14818 layer_factory.hpp:77] Creating layer pool4/3x3_s2_pool4/3x3_s2_0_split
I0713 14:11:02.953667 14818 net.cpp:91] Creating Layer pool4/3x3_s2_pool4/3x3_s2_0_split
I0713 14:11:02.953672 14818 net.cpp:425] pool4/3x3_s2_pool4/3x3_s2_0_split <- pool4/3x3_s2
I0713 14:11:02.953680 14818 net.cpp:399] pool4/3x3_s2_pool4/3x3_s2_0_split -> pool4/3x3_s2_pool4/3x3_s2_0_split_0
I0713 14:11:02.953690 14818 net.cpp:399] pool4/3x3_s2_pool4/3x3_s2_0_split -> pool4/3x3_s2_pool4/3x3_s2_0_split_1
I0713 14:11:02.953696 14818 net.cpp:399] pool4/3x3_s2_pool4/3x3_s2_0_split -> pool4/3x3_s2_pool4/3x3_s2_0_split_2
I0713 14:11:02.953704 14818 net.cpp:399] pool4/3x3_s2_pool4/3x3_s2_0_split -> pool4/3x3_s2_pool4/3x3_s2_0_split_3
I0713 14:11:02.953799 14818 net.cpp:141] Setting up pool4/3x3_s2_pool4/3x3_s2_0_split
I0713 14:11:02.953811 14818 net.cpp:148] Top shape: 10 832 7 7 (407680)
I0713 14:11:02.953816 14818 net.cpp:148] Top shape: 10 832 7 7 (407680)
I0713 14:11:02.953821 14818 net.cpp:148] Top shape: 10 832 7 7 (407680)
I0713 14:11:02.953826 14818 net.cpp:148] Top shape: 10 832 7 7 (407680)
I0713 14:11:02.953830 14818 net.cpp:156] Memory required for data: 528980480
I0713 14:11:02.953835 14818 layer_factory.hpp:77] Creating layer inception_5a/1x1
I0713 14:11:02.953848 14818 net.cpp:91] Creating Layer inception_5a/1x1
I0713 14:11:02.953855 14818 net.cpp:425] inception_5a/1x1 <- pool4/3x3_s2_pool4/3x3_s2_0_split_0
I0713 14:11:02.953863 14818 net.cpp:399] inception_5a/1x1 -> inception_5a/1x1
I0713 14:11:02.958567 14818 net.cpp:141] Setting up inception_5a/1x1
I0713 14:11:02.958583 14818 net.cpp:148] Top shape: 10 256 7 7 (125440)
I0713 14:11:02.958588 14818 net.cpp:156] Memory required for data: 529482240
I0713 14:11:02.958611 14818 layer_factory.hpp:77] Creating layer inception_5a/relu_1x1
I0713 14:11:02.958621 14818 net.cpp:91] Creating Layer inception_5a/relu_1x1
I0713 14:11:02.958626 14818 net.cpp:425] inception_5a/relu_1x1 <- inception_5a/1x1
I0713 14:11:02.958633 14818 net.cpp:386] inception_5a/relu_1x1 -> inception_5a/1x1 (in-place)
I0713 14:11:02.958885 14818 net.cpp:141] Setting up inception_5a/relu_1x1
I0713 14:11:02.958897 14818 net.cpp:148] Top shape: 10 256 7 7 (125440)
I0713 14:11:02.958901 14818 net.cpp:156] Memory required for data: 529984000
I0713 14:11:02.958906 14818 layer_factory.hpp:77] Creating layer inception_5a/3x3_reduce
I0713 14:11:02.958923 14818 net.cpp:91] Creating Layer inception_5a/3x3_reduce
I0713 14:11:02.958930 14818 net.cpp:425] inception_5a/3x3_reduce <- pool4/3x3_s2_pool4/3x3_s2_0_split_1
I0713 14:11:02.958938 14818 net.cpp:399] inception_5a/3x3_reduce -> inception_5a/3x3_reduce
I0713 14:11:02.963183 14818 net.cpp:141] Setting up inception_5a/3x3_reduce
I0713 14:11:02.963201 14818 net.cpp:148] Top shape: 10 160 7 7 (78400)
I0713 14:11:02.963207 14818 net.cpp:156] Memory required for data: 530297600
I0713 14:11:02.963215 14818 layer_factory.hpp:77] Creating layer inception_5a/relu_3x3_reduce
I0713 14:11:02.963235 14818 net.cpp:91] Creating Layer inception_5a/relu_3x3_reduce
I0713 14:11:02.963241 14818 net.cpp:425] inception_5a/relu_3x3_reduce <- inception_5a/3x3_reduce
I0713 14:11:02.963253 14818 net.cpp:386] inception_5a/relu_3x3_reduce -> inception_5a/3x3_reduce (in-place)
I0713 14:11:02.963492 14818 net.cpp:141] Setting up inception_5a/relu_3x3_reduce
I0713 14:11:02.963506 14818 net.cpp:148] Top shape: 10 160 7 7 (78400)
I0713 14:11:02.963510 14818 net.cpp:156] Memory required for data: 530611200
I0713 14:11:02.963515 14818 layer_factory.hpp:77] Creating layer inception_5a/3x3
I0713 14:11:02.963531 14818 net.cpp:91] Creating Layer inception_5a/3x3
I0713 14:11:02.963536 14818 net.cpp:425] inception_5a/3x3 <- inception_5a/3x3_reduce
I0713 14:11:02.963544 14818 net.cpp:399] inception_5a/3x3 -> inception_5a/3x3
I0713 14:11:02.971532 14818 net.cpp:141] Setting up inception_5a/3x3
I0713 14:11:02.971550 14818 net.cpp:148] Top shape: 10 320 7 7 (156800)
I0713 14:11:02.971567 14818 net.cpp:156] Memory required for data: 531238400
I0713 14:11:02.971580 14818 layer_factory.hpp:77] Creating layer inception_5a/relu_3x3
I0713 14:11:02.971590 14818 net.cpp:91] Creating Layer inception_5a/relu_3x3
I0713 14:11:02.971596 14818 net.cpp:425] inception_5a/relu_3x3 <- inception_5a/3x3
I0713 14:11:02.971603 14818 net.cpp:386] inception_5a/relu_3x3 -> inception_5a/3x3 (in-place)
I0713 14:11:02.972363 14818 net.cpp:141] Setting up inception_5a/relu_3x3
I0713 14:11:02.972378 14818 net.cpp:148] Top shape: 10 320 7 7 (156800)
I0713 14:11:02.972383 14818 net.cpp:156] Memory required for data: 531865600
I0713 14:11:02.972388 14818 layer_factory.hpp:77] Creating layer inception_5a/5x5_reduce
I0713 14:11:02.972401 14818 net.cpp:91] Creating Layer inception_5a/5x5_reduce
I0713 14:11:02.972407 14818 net.cpp:425] inception_5a/5x5_reduce <- pool4/3x3_s2_pool4/3x3_s2_0_split_2
I0713 14:11:02.972419 14818 net.cpp:399] inception_5a/5x5_reduce -> inception_5a/5x5_reduce
I0713 14:11:02.974792 14818 net.cpp:141] Setting up inception_5a/5x5_reduce
I0713 14:11:02.974807 14818 net.cpp:148] Top shape: 10 32 7 7 (15680)
I0713 14:11:02.974812 14818 net.cpp:156] Memory required for data: 531928320
I0713 14:11:02.974833 14818 layer_factory.hpp:77] Creating layer inception_5a/relu_5x5_reduce
I0713 14:11:02.974843 14818 net.cpp:91] Creating Layer inception_5a/relu_5x5_reduce
I0713 14:11:02.974849 14818 net.cpp:425] inception_5a/relu_5x5_reduce <- inception_5a/5x5_reduce
I0713 14:11:02.974855 14818 net.cpp:386] inception_5a/relu_5x5_reduce -> inception_5a/5x5_reduce (in-place)
I0713 14:11:02.975111 14818 net.cpp:141] Setting up inception_5a/relu_5x5_reduce
I0713 14:11:02.975122 14818 net.cpp:148] Top shape: 10 32 7 7 (15680)
I0713 14:11:02.975126 14818 net.cpp:156] Memory required for data: 531991040
I0713 14:11:02.975131 14818 layer_factory.hpp:77] Creating layer inception_5a/5x5
I0713 14:11:02.975144 14818 net.cpp:91] Creating Layer inception_5a/5x5
I0713 14:11:02.975150 14818 net.cpp:425] inception_5a/5x5 <- inception_5a/5x5_reduce
I0713 14:11:02.975162 14818 net.cpp:399] inception_5a/5x5 -> inception_5a/5x5
I0713 14:11:02.978026 14818 net.cpp:141] Setting up inception_5a/5x5
I0713 14:11:02.978041 14818 net.cpp:148] Top shape: 10 128 7 7 (62720)
I0713 14:11:02.978060 14818 net.cpp:156] Memory required for data: 532241920
I0713 14:11:02.978068 14818 layer_factory.hpp:77] Creating layer inception_5a/relu_5x5
I0713 14:11:02.978102 14818 net.cpp:91] Creating Layer inception_5a/relu_5x5
I0713 14:11:02.978109 14818 net.cpp:425] inception_5a/relu_5x5 <- inception_5a/5x5
I0713 14:11:02.978116 14818 net.cpp:386] inception_5a/relu_5x5 -> inception_5a/5x5 (in-place)
I0713 14:11:02.978365 14818 net.cpp:141] Setting up inception_5a/relu_5x5
I0713 14:11:02.978376 14818 net.cpp:148] Top shape: 10 128 7 7 (62720)
I0713 14:11:02.978380 14818 net.cpp:156] Memory required for data: 532492800
I0713 14:11:02.978386 14818 layer_factory.hpp:77] Creating layer inception_5a/pool
I0713 14:11:02.978394 14818 net.cpp:91] Creating Layer inception_5a/pool
I0713 14:11:02.978399 14818 net.cpp:425] inception_5a/pool <- pool4/3x3_s2_pool4/3x3_s2_0_split_3
I0713 14:11:02.978410 14818 net.cpp:399] inception_5a/pool -> inception_5a/pool
I0713 14:11:02.978482 14818 net.cpp:141] Setting up inception_5a/pool
I0713 14:11:02.978490 14818 net.cpp:148] Top shape: 10 832 7 7 (407680)
I0713 14:11:02.978494 14818 net.cpp:156] Memory required for data: 534123520
I0713 14:11:02.978499 14818 layer_factory.hpp:77] Creating layer inception_5a/pool_proj
I0713 14:11:02.978516 14818 net.cpp:91] Creating Layer inception_5a/pool_proj
I0713 14:11:02.978523 14818 net.cpp:425] inception_5a/pool_proj <- inception_5a/pool
I0713 14:11:02.978531 14818 net.cpp:399] inception_5a/pool_proj -> inception_5a/pool_proj
I0713 14:11:02.982507 14818 net.cpp:141] Setting up inception_5a/pool_proj
I0713 14:11:02.982524 14818 net.cpp:148] Top shape: 10 128 7 7 (62720)
I0713 14:11:02.982542 14818 net.cpp:156] Memory required for data: 534374400
I0713 14:11:02.982552 14818 layer_factory.hpp:77] Creating layer inception_5a/relu_pool_proj
I0713 14:11:02.982560 14818 net.cpp:91] Creating Layer inception_5a/relu_pool_proj
I0713 14:11:02.982566 14818 net.cpp:425] inception_5a/relu_pool_proj <- inception_5a/pool_proj
I0713 14:11:02.982578 14818 net.cpp:386] inception_5a/relu_pool_proj -> inception_5a/pool_proj (in-place)
I0713 14:11:02.983330 14818 net.cpp:141] Setting up inception_5a/relu_pool_proj
I0713 14:11:02.983345 14818 net.cpp:148] Top shape: 10 128 7 7 (62720)
I0713 14:11:02.983350 14818 net.cpp:156] Memory required for data: 534625280
I0713 14:11:02.983366 14818 layer_factory.hpp:77] Creating layer inception_5a/output
I0713 14:11:02.983376 14818 net.cpp:91] Creating Layer inception_5a/output
I0713 14:11:02.983381 14818 net.cpp:425] inception_5a/output <- inception_5a/1x1
I0713 14:11:02.983387 14818 net.cpp:425] inception_5a/output <- inception_5a/3x3
I0713 14:11:02.983392 14818 net.cpp:425] inception_5a/output <- inception_5a/5x5
I0713 14:11:02.983397 14818 net.cpp:425] inception_5a/output <- inception_5a/pool_proj
I0713 14:11:02.983407 14818 net.cpp:399] inception_5a/output -> inception_5a/output
I0713 14:11:02.983456 14818 net.cpp:141] Setting up inception_5a/output
I0713 14:11:02.983465 14818 net.cpp:148] Top shape: 10 832 7 7 (407680)
I0713 14:11:02.983469 14818 net.cpp:156] Memory required for data: 536256000
I0713 14:11:02.983474 14818 layer_factory.hpp:77] Creating layer inception_5a/output_inception_5a/output_0_split
I0713 14:11:02.983481 14818 net.cpp:91] Creating Layer inception_5a/output_inception_5a/output_0_split
I0713 14:11:02.983485 14818 net.cpp:425] inception_5a/output_inception_5a/output_0_split <- inception_5a/output
I0713 14:11:02.983495 14818 net.cpp:399] inception_5a/output_inception_5a/output_0_split -> inception_5a/output_inception_5a/output_0_split_0
I0713 14:11:02.983505 14818 net.cpp:399] inception_5a/output_inception_5a/output_0_split -> inception_5a/output_inception_5a/output_0_split_1
I0713 14:11:02.983512 14818 net.cpp:399] inception_5a/output_inception_5a/output_0_split -> inception_5a/output_inception_5a/output_0_split_2
I0713 14:11:02.983520 14818 net.cpp:399] inception_5a/output_inception_5a/output_0_split -> inception_5a/output_inception_5a/output_0_split_3
I0713 14:11:02.983638 14818 net.cpp:141] Setting up inception_5a/output_inception_5a/output_0_split
I0713 14:11:02.983646 14818 net.cpp:148] Top shape: 10 832 7 7 (407680)
I0713 14:11:02.983651 14818 net.cpp:148] Top shape: 10 832 7 7 (407680)
I0713 14:11:02.983657 14818 net.cpp:148] Top shape: 10 832 7 7 (407680)
I0713 14:11:02.983661 14818 net.cpp:148] Top shape: 10 832 7 7 (407680)
I0713 14:11:02.983665 14818 net.cpp:156] Memory required for data: 542778880
I0713 14:11:02.983669 14818 layer_factory.hpp:77] Creating layer inception_5b/1x1
I0713 14:11:02.983687 14818 net.cpp:91] Creating Layer inception_5b/1x1
I0713 14:11:02.983693 14818 net.cpp:425] inception_5b/1x1 <- inception_5a/output_inception_5a/output_0_split_0
I0713 14:11:02.983701 14818 net.cpp:399] inception_5b/1x1 -> inception_5b/1x1
I0713 14:11:02.989930 14818 net.cpp:141] Setting up inception_5b/1x1
I0713 14:11:02.989948 14818 net.cpp:148] Top shape: 10 384 7 7 (188160)
I0713 14:11:02.989966 14818 net.cpp:156] Memory required for data: 543531520
I0713 14:11:02.989975 14818 layer_factory.hpp:77] Creating layer inception_5b/relu_1x1
I0713 14:11:02.989984 14818 net.cpp:91] Creating Layer inception_5b/relu_1x1
I0713 14:11:02.989989 14818 net.cpp:425] inception_5b/relu_1x1 <- inception_5b/1x1
I0713 14:11:02.990000 14818 net.cpp:386] inception_5b/relu_1x1 -> inception_5b/1x1 (in-place)
I0713 14:11:02.990257 14818 net.cpp:141] Setting up inception_5b/relu_1x1
I0713 14:11:02.990268 14818 net.cpp:148] Top shape: 10 384 7 7 (188160)
I0713 14:11:02.990272 14818 net.cpp:156] Memory required for data: 544284160
I0713 14:11:02.990278 14818 layer_factory.hpp:77] Creating layer inception_5b/3x3_reduce
I0713 14:11:02.990291 14818 net.cpp:91] Creating Layer inception_5b/3x3_reduce
I0713 14:11:02.990298 14818 net.cpp:425] inception_5b/3x3_reduce <- inception_5a/output_inception_5a/output_0_split_1
I0713 14:11:02.990309 14818 net.cpp:399] inception_5b/3x3_reduce -> inception_5b/3x3_reduce
I0713 14:11:02.994717 14818 net.cpp:141] Setting up inception_5b/3x3_reduce
I0713 14:11:02.994748 14818 net.cpp:148] Top shape: 10 192 7 7 (94080)
I0713 14:11:02.994755 14818 net.cpp:156] Memory required for data: 544660480
I0713 14:11:02.994763 14818 layer_factory.hpp:77] Creating layer inception_5b/relu_3x3_reduce
I0713 14:11:02.994774 14818 net.cpp:91] Creating Layer inception_5b/relu_3x3_reduce
I0713 14:11:02.994781 14818 net.cpp:425] inception_5b/relu_3x3_reduce <- inception_5b/3x3_reduce
I0713 14:11:02.994787 14818 net.cpp:386] inception_5b/relu_3x3_reduce -> inception_5b/3x3_reduce (in-place)
I0713 14:11:02.995040 14818 net.cpp:141] Setting up inception_5b/relu_3x3_reduce
I0713 14:11:02.995050 14818 net.cpp:148] Top shape: 10 192 7 7 (94080)
I0713 14:11:02.995054 14818 net.cpp:156] Memory required for data: 545036800
I0713 14:11:02.995059 14818 layer_factory.hpp:77] Creating layer inception_5b/3x3
I0713 14:11:02.995076 14818 net.cpp:91] Creating Layer inception_5b/3x3
I0713 14:11:02.995082 14818 net.cpp:425] inception_5b/3x3 <- inception_5b/3x3_reduce
I0713 14:11:02.995090 14818 net.cpp:399] inception_5b/3x3 -> inception_5b/3x3
I0713 14:11:03.003948 14818 net.cpp:141] Setting up inception_5b/3x3
I0713 14:11:03.003983 14818 net.cpp:148] Top shape: 10 384 7 7 (188160)
I0713 14:11:03.003988 14818 net.cpp:156] Memory required for data: 545789440
I0713 14:11:03.003998 14818 layer_factory.hpp:77] Creating layer inception_5b/relu_3x3
I0713 14:11:03.004011 14818 net.cpp:91] Creating Layer inception_5b/relu_3x3
I0713 14:11:03.004017 14818 net.cpp:425] inception_5b/relu_3x3 <- inception_5b/3x3
I0713 14:11:03.004025 14818 net.cpp:386] inception_5b/relu_3x3 -> inception_5b/3x3 (in-place)
I0713 14:11:03.004758 14818 net.cpp:141] Setting up inception_5b/relu_3x3
I0713 14:11:03.004773 14818 net.cpp:148] Top shape: 10 384 7 7 (188160)
I0713 14:11:03.004778 14818 net.cpp:156] Memory required for data: 546542080
I0713 14:11:03.004782 14818 layer_factory.hpp:77] Creating layer inception_5b/5x5_reduce
I0713 14:11:03.004801 14818 net.cpp:91] Creating Layer inception_5b/5x5_reduce
I0713 14:11:03.004808 14818 net.cpp:425] inception_5b/5x5_reduce <- inception_5a/output_inception_5a/output_0_split_2
I0713 14:11:03.004817 14818 net.cpp:399] inception_5b/5x5_reduce -> inception_5b/5x5_reduce
I0713 14:11:03.007598 14818 net.cpp:141] Setting up inception_5b/5x5_reduce
I0713 14:11:03.007632 14818 net.cpp:148] Top shape: 10 48 7 7 (23520)
I0713 14:11:03.007637 14818 net.cpp:156] Memory required for data: 546636160
I0713 14:11:03.007647 14818 layer_factory.hpp:77] Creating layer inception_5b/relu_5x5_reduce
I0713 14:11:03.007657 14818 net.cpp:91] Creating Layer inception_5b/relu_5x5_reduce
I0713 14:11:03.007661 14818 net.cpp:425] inception_5b/relu_5x5_reduce <- inception_5b/5x5_reduce
I0713 14:11:03.007671 14818 net.cpp:386] inception_5b/relu_5x5_reduce -> inception_5b/5x5_reduce (in-place)
I0713 14:11:03.007911 14818 net.cpp:141] Setting up inception_5b/relu_5x5_reduce
I0713 14:11:03.007922 14818 net.cpp:148] Top shape: 10 48 7 7 (23520)
I0713 14:11:03.007926 14818 net.cpp:156] Memory required for data: 546730240
I0713 14:11:03.007930 14818 layer_factory.hpp:77] Creating layer inception_5b/5x5
I0713 14:11:03.007946 14818 net.cpp:91] Creating Layer inception_5b/5x5
I0713 14:11:03.007952 14818 net.cpp:425] inception_5b/5x5 <- inception_5b/5x5_reduce
I0713 14:11:03.007963 14818 net.cpp:399] inception_5b/5x5 -> inception_5b/5x5
I0713 14:11:03.012212 14818 net.cpp:141] Setting up inception_5b/5x5
I0713 14:11:03.012235 14818 net.cpp:148] Top shape: 10 128 7 7 (62720)
I0713 14:11:03.012240 14818 net.cpp:156] Memory required for data: 546981120
I0713 14:11:03.012249 14818 layer_factory.hpp:77] Creating layer inception_5b/relu_5x5
I0713 14:11:03.012259 14818 net.cpp:91] Creating Layer inception_5b/relu_5x5
I0713 14:11:03.012265 14818 net.cpp:425] inception_5b/relu_5x5 <- inception_5b/5x5
I0713 14:11:03.012275 14818 net.cpp:386] inception_5b/relu_5x5 -> inception_5b/5x5 (in-place)
I0713 14:11:03.012522 14818 net.cpp:141] Setting up inception_5b/relu_5x5
I0713 14:11:03.012533 14818 net.cpp:148] Top shape: 10 128 7 7 (62720)
I0713 14:11:03.012537 14818 net.cpp:156] Memory required for data: 547232000
I0713 14:11:03.012542 14818 layer_factory.hpp:77] Creating layer inception_5b/pool
I0713 14:11:03.012555 14818 net.cpp:91] Creating Layer inception_5b/pool
I0713 14:11:03.012562 14818 net.cpp:425] inception_5b/pool <- inception_5a/output_inception_5a/output_0_split_3
I0713 14:11:03.012569 14818 net.cpp:399] inception_5b/pool -> inception_5b/pool
I0713 14:11:03.012648 14818 net.cpp:141] Setting up inception_5b/pool
I0713 14:11:03.012657 14818 net.cpp:148] Top shape: 10 832 7 7 (407680)
I0713 14:11:03.012661 14818 net.cpp:156] Memory required for data: 548862720
I0713 14:11:03.012665 14818 layer_factory.hpp:77] Creating layer inception_5b/pool_proj
I0713 14:11:03.012681 14818 net.cpp:91] Creating Layer inception_5b/pool_proj
I0713 14:11:03.012686 14818 net.cpp:425] inception_5b/pool_proj <- inception_5b/pool
I0713 14:11:03.012698 14818 net.cpp:399] inception_5b/pool_proj -> inception_5b/pool_proj
I0713 14:11:03.017040 14818 net.cpp:141] Setting up inception_5b/pool_proj
I0713 14:11:03.017072 14818 net.cpp:148] Top shape: 10 128 7 7 (62720)
I0713 14:11:03.017077 14818 net.cpp:156] Memory required for data: 549113600
I0713 14:11:03.017087 14818 layer_factory.hpp:77] Creating layer inception_5b/relu_pool_proj
I0713 14:11:03.017098 14818 net.cpp:91] Creating Layer inception_5b/relu_pool_proj
I0713 14:11:03.017104 14818 net.cpp:425] inception_5b/relu_pool_proj <- inception_5b/pool_proj
I0713 14:11:03.017114 14818 net.cpp:386] inception_5b/relu_pool_proj -> inception_5b/pool_proj (in-place)
I0713 14:11:03.017887 14818 net.cpp:141] Setting up inception_5b/relu_pool_proj
I0713 14:11:03.017902 14818 net.cpp:148] Top shape: 10 128 7 7 (62720)
I0713 14:11:03.017907 14818 net.cpp:156] Memory required for data: 549364480
I0713 14:11:03.017911 14818 layer_factory.hpp:77] Creating layer inception_5b/output
I0713 14:11:03.017923 14818 net.cpp:91] Creating Layer inception_5b/output
I0713 14:11:03.017930 14818 net.cpp:425] inception_5b/output <- inception_5b/1x1
I0713 14:11:03.017936 14818 net.cpp:425] inception_5b/output <- inception_5b/3x3
I0713 14:11:03.017941 14818 net.cpp:425] inception_5b/output <- inception_5b/5x5
I0713 14:11:03.017946 14818 net.cpp:425] inception_5b/output <- inception_5b/pool_proj
I0713 14:11:03.017953 14818 net.cpp:399] inception_5b/output -> inception_5b/output
I0713 14:11:03.018007 14818 net.cpp:141] Setting up inception_5b/output
I0713 14:11:03.018015 14818 net.cpp:148] Top shape: 10 1024 7 7 (501760)
I0713 14:11:03.018019 14818 net.cpp:156] Memory required for data: 551371520
I0713 14:11:03.018024 14818 layer_factory.hpp:77] Creating layer pool5/7x7_s1
I0713 14:11:03.018031 14818 net.cpp:91] Creating Layer pool5/7x7_s1
I0713 14:11:03.018036 14818 net.cpp:425] pool5/7x7_s1 <- inception_5b/output
I0713 14:11:03.018048 14818 net.cpp:399] pool5/7x7_s1 -> pool5/7x7_s1
I0713 14:11:03.018368 14818 net.cpp:141] Setting up pool5/7x7_s1
I0713 14:11:03.018380 14818 net.cpp:148] Top shape: 10 1024 1 1 (10240)
I0713 14:11:03.018385 14818 net.cpp:156] Memory required for data: 551412480
I0713 14:11:03.018389 14818 layer_factory.hpp:77] Creating layer pool5/drop_7x7_s1
I0713 14:11:03.018402 14818 net.cpp:91] Creating Layer pool5/drop_7x7_s1
I0713 14:11:03.018407 14818 net.cpp:425] pool5/drop_7x7_s1 <- pool5/7x7_s1
I0713 14:11:03.018414 14818 net.cpp:386] pool5/drop_7x7_s1 -> pool5/7x7_s1 (in-place)
I0713 14:11:03.018466 14818 net.cpp:141] Setting up pool5/drop_7x7_s1
I0713 14:11:03.018476 14818 net.cpp:148] Top shape: 10 1024 1 1 (10240)
I0713 14:11:03.018479 14818 net.cpp:156] Memory required for data: 551453440
I0713 14:11:03.018483 14818 layer_factory.hpp:77] Creating layer loss3/classifier
I0713 14:11:03.018507 14818 net.cpp:91] Creating Layer loss3/classifier
I0713 14:11:03.018512 14818 net.cpp:425] loss3/classifier <- pool5/7x7_s1
I0713 14:11:03.018519 14818 net.cpp:399] loss3/classifier -> loss3/classifier
I0713 14:11:03.028941 14818 net.cpp:141] Setting up loss3/classifier
I0713 14:11:03.028970 14818 net.cpp:148] Top shape: 10 1000 (10000)
I0713 14:11:03.028988 14818 net.cpp:156] Memory required for data: 551493440
I0713 14:11:03.029000 14818 layer_factory.hpp:77] Creating layer prob
I0713 14:11:03.029011 14818 net.cpp:91] Creating Layer prob
I0713 14:11:03.029016 14818 net.cpp:425] prob <- loss3/classifier
I0713 14:11:03.029024 14818 net.cpp:399] prob -> prob
I0713 14:11:03.030418 14818 net.cpp:141] Setting up prob
I0713 14:11:03.030436 14818 net.cpp:148] Top shape: 10 1000 (10000)
I0713 14:11:03.030441 14818 net.cpp:156] Memory required for data: 551533440
I0713 14:11:03.030447 14818 net.cpp:219] prob does not need backward computation.
I0713 14:11:03.030450 14818 net.cpp:219] loss3/classifier does not need backward computation.
I0713 14:11:03.030454 14818 net.cpp:219] pool5/drop_7x7_s1 does not need backward computation.
I0713 14:11:03.030458 14818 net.cpp:219] pool5/7x7_s1 does not need backward computation.
…
