…
Java HotSpot(TM) 64-Bit Server VM warning: You have loaded library /tmp/cvld6077388313843133943/libopencv_java310.xine1.so which might have disabled stack guard. The VM will try to fix the stack guard now.
It's highly recommended that you fix the library with 'execstack -c <libfile>', or link it with '-z noexecstack'.
WARNING: Logging before InitGoogleLogging() is written to STDERR
I0801 03:01:53.949298  5279 net.cpp:49] Initializing net from parameters: 
name: "CaffeNet"
state {
  phase: TEST
}
layer {
  name: "data"
  type: "Input"
  top: "data"
  input_param {
    shape {
      dim: 10
      dim: 3
      dim: 227
      dim: 227
    }
  }
}
layer {
  name: "conv1"
  type: "Convolution"
  bottom: "data"
  top: "conv1"
  convolution_param {
    num_output: 96
    kernel_size: 11
    stride: 4
  }
}
layer {
  name: "relu1"
  type: "ReLU"
  bottom: "conv1"
  top: "conv1"
}
layer {
  name: "pool1"
  type: "Pooling"
  bottom: "conv1"
  top: "pool1"
  pooling_param {
    pool: MAX
    kernel_size: 3
    stride: 2
  }
}
layer {
  name: "norm1"
  type: "LRN"
  bottom: "pool1"
  top: "norm1"
  lrn_param {
    local_size: 5
    alpha: 0.0001
    beta: 0.75
  }
}
layer {
  name: "conv2"
  type: "Convolution"
  bottom: "norm1"
  top: "conv2"
  convolution_param {
    num_output: 256
    pad: 2
    kernel_size: 5
    group: 2
  }
}
layer {
  name: "relu2"
  type: "ReLU"
  bottom: "conv2"
  top: "conv2"
}
layer {
  name: "pool2"
  type: "Pooling"
  bottom: "conv2"
  top: "pool2"
  pooling_param {
    pool: MAX
    kernel_size: 3
    stride: 2
  }
}
layer {
  name: "norm2"
  type: "LRN"
  bottom: "pool2"
  top: "norm2"
  lrn_param {
    local_size: 5
    alpha: 0.0001
    beta: 0.75
  }
}
layer {
  name: "conv3"
  type: "Convolution"
  bottom: "norm2"
  top: "conv3"
  convolution_param {
    num_output: 384
    pad: 1
    kernel_size: 3
  }
}
layer {
  name: "relu3"
  type: "ReLU"
  bottom: "conv3"
  top: "conv3"
}
layer {
  name: "conv4"
  type: "Convolution"
  bottom: "conv3"
  top: "conv4"
  convolution_param {
    num_output: 384
    pad: 1
    kernel_size: 3
    group: 2
  }
}
layer {
  name: "relu4"
  type: "ReLU"
  bottom: "conv4"
  top: "conv4"
}
layer {
  name: "conv5"
  type: "Convolution"
  bottom: "conv4"
  top: "conv5"
  convolution_param {
    num_output: 256
    pad: 1
    kernel_size: 3
    group: 2
  }
}
layer {
  name: "relu5"
  type: "ReLU"
  bottom: "conv5"
  top: "conv5"
}
layer {
  name: "pool5"
  type: "Pooling"
  bottom: "conv5"
  top: "pool5"
  pooling_param {
    pool: MAX
    kernel_size: 3
    stride: 2
  }
}
layer {
  name: "fc6"
  type: "InnerProduct"
  bottom: "pool5"
  top: "fc6"
  inner_product_param {
    num_output: 4096
  }
}
layer {
  name: "relu6"
  type: "ReLU"
  bottom: "fc6"
  top: "fc6"
}
layer {
  name: "drop6"
  type: "Dropout"
  bottom: "fc6"
  top: "fc6"
  dropout_param {
    dropout_ratio: 0.5
  }
}
layer {
  name: "fc7"
  type: "InnerProduct"
  bottom: "fc6"
  top: "fc7"
  inner_product_param {
    num_output: 4096
  }
}
layer {
  name: "relu7"
  type: "ReLU"
  bottom: "fc7"
  top: "fc7"
}
layer {
  name: "drop7"
  type: "Dropout"
  bottom: "fc7"
  top: "fc7"
  dropout_param {
    dropout_ratio: 0.5
  }
}
layer {
  name: "fc8"
  type: "InnerProduct"
  bottom: "fc7"
  top: "fc8"
  inner_product_param {
    num_output: 1000
  }
}
layer {
  name: "prob"
  type: "Softmax"
  bottom: "fc8"
  top: "prob"
}
I0801 03:01:53.949513  5279 layer_factory.hpp:77] Creating layer data
I0801 03:01:53.949540  5279 net.cpp:91] Creating Layer data
I0801 03:01:53.949551  5279 net.cpp:399] data -> data
I0801 03:01:54.510689  5269 upgrade_proto.cpp:66] Attempting to upgrade input file specified using deprecated input fields: /tmp/cvld6077388313843133943/s2vt.words_to_preds.prototxt
I0801 03:01:54.510741  5269 upgrade_proto.cpp:69] Successfully upgraded file specified using deprecated input fields.
W0801 03:01:54.510748  5269 upgrade_proto.cpp:71] Note that future Caffe releases will only support input layers and not input fields.
I0801 03:01:54.511001  5269 net.cpp:49] Initializing net from parameters: 
name: "s2vt:features_to_lstm"
state {
  phase: TEST
}
layer {
  name: "input"
  type: "Input"
  top: "frames_fc7"
  top: "cont_sentence"
  top: "input_sentence"
  top: "stage_indicator"
  input_param {
    shape {
      dim: 1
      dim: 4096
    }
    shape {
      dim: 1
      dim: 1
    }
    shape {
      dim: 1
      dim: 1
    }
    shape {
      dim: 1
      dim: 1
    }
  }
}
layer {
  name: "embed_encoder"
  type: "InnerProduct"
  bottom: "frames_fc7"
  top: "embedded_in_frames"
  param {
    lr_mult: 1
    decay_mult: 1
  }
  param {
    lr_mult: 2
    decay_mult: 0
  }
  inner_product_param {
    num_output: 500
    weight_filler {
      type: "xavier"
    }
    bias_filler {
      type: "constant"
      value: 0.2
    }
  }
}
layer {
  name: "reshape_frames"
  type: "Reshape"
  bottom: "embedded_in_frames"
  top: "embedded_input_frames"
  reshape_param {
    shape {
      dim: 1
      dim: 1
      dim: 500
    }
  }
}
layer {
  name: "reshape_stage_indicator"
  type: "Reshape"
  bottom: "stage_indicator"
  top: "reshaped_stage_indicator"
  reshape_param {
    shape {
      dim: 1
      dim: 1
      dim: 1
    }
  }
}
layer {
  name: "embedding"
  type: "Embed"
  bottom: "input_sentence"
  top: "embedded_input_sentence"
  param {
    lr_mult: 1
  }
  embed_param {
    num_output: 500
    input_dim: 46168
    bias_term: false
    weight_filler {
      type: "uniform"
      min: -0.08
      max: 0.08
    }
  }
}
layer {
  name: "lstm1"
  type: "LSTM"
  bottom: "embedded_input_frames"
  bottom: "cont_sentence"
  top: "lstm1"
  recurrent_param {
    num_output: 1000
    weight_filler {
      type: "uniform"
      min: -0.08
      max: 0.08
    }
    bias_filler {
      type: "constant"
      value: 0
    }
  }
}
layer {
  name: "concat"
  type: "Concat"
  bottom: "lstm1"
  bottom: "embedded_input_sentence"
  bottom: "reshaped_stage_indicator"
  top: "lstm1_video_sequence"
  concat_param {
    concat_dim: 2
  }
}
layer {
  name: "lstm2"
  type: "LSTM"
  bottom: "lstm1_video_sequence"
  bottom: "cont_sentence"
  top: "lstm2"
  recurrent_param {
    num_output: 1000
    weight_filler {
      type: "uniform"
      min: -0.08
      max: 0.08
    }
    bias_filler {
      type: "constant"
      value: 0
    }
  }
}
layer {
  name: "predict"
  type: "InnerProduct"
  bottom: "lstm2"
  top: "predict"
  param {
    lr_mult: 1
    decay_mult: 1
  }
  param {
    lr_mult: 2
    decay_mult: 0
  }
  inner_product_param {
    num_output: 46168
    weight_filler {
      type: "uniform"
      min: -0.08
      max: 0.08
    }
    bias_filler {
      type: "constant"
      value: 0
    }
    axis: 2
  }
}
layer {
  name: "probs"
  type: "Softmax"
  bottom: "predict"
  top: "probs"
  softmax_param {
    axis: 2
  }
}
I0801 03:01:54.511128  5269 layer_factory.hpp:77] Creating layer input
I0801 03:01:54.511147  5269 net.cpp:91] Creating Layer input
I0801 03:01:54.511154  5269 net.cpp:399] input -> frames_fc7
I0801 03:01:54.511171  5269 net.cpp:399] input -> cont_sentence
I0801 03:01:54.511184  5269 net.cpp:399] input -> input_sentence
I0801 03:01:54.511195  5269 net.cpp:399] input -> stage_indicator
I0801 03:01:54.515147  5279 net.cpp:141] Setting up data
I0801 03:01:54.515210  5279 net.cpp:148] Top shape: 10 3 227 227 (1545870)
I0801 03:01:54.515218  5279 net.cpp:156] Memory required for data: 6183480
I0801 03:01:54.515233  5269 net.cpp:141] Setting up input
I0801 03:01:54.515240  5279 layer_factory.hpp:77] Creating layer conv1
I0801 03:01:54.515260  5269 net.cpp:148] Top shape: 1 4096 (4096)
I0801 03:01:54.515267  5269 net.cpp:148] Top shape: 1 1 (1)
I0801 03:01:54.515274  5269 net.cpp:148] Top shape: 1 1 (1)
I0801 03:01:54.515277  5269 net.cpp:148] Top shape: 1 1 (1)
I0801 03:01:54.515281  5269 net.cpp:156] Memory required for data: 16396
I0801 03:01:54.515287  5269 layer_factory.hpp:77] Creating layer cont_sentence_input_1_split
I0801 03:01:54.515290  5279 net.cpp:91] Creating Layer conv1
I0801 03:01:54.515300  5279 net.cpp:425] conv1 <- data
I0801 03:01:54.515305  5269 net.cpp:91] Creating Layer cont_sentence_input_1_split
I0801 03:01:54.515311  5269 net.cpp:425] cont_sentence_input_1_split <- cont_sentence
I0801 03:01:54.515316  5279 net.cpp:399] conv1 -> conv1
I0801 03:01:54.515346  5269 net.cpp:399] cont_sentence_input_1_split -> cont_sentence_input_1_split_0
I0801 03:01:54.515357  5269 net.cpp:399] cont_sentence_input_1_split -> cont_sentence_input_1_split_1
I0801 03:01:54.515574  5269 net.cpp:141] Setting up cont_sentence_input_1_split
I0801 03:01:54.515585  5269 net.cpp:148] Top shape: 1 1 (1)
I0801 03:01:54.515591  5269 net.cpp:148] Top shape: 1 1 (1)
I0801 03:01:54.515595  5269 net.cpp:156] Memory required for data: 16404
I0801 03:01:54.515600  5269 layer_factory.hpp:77] Creating layer embed_encoder
I0801 03:01:54.515617  5269 net.cpp:91] Creating Layer embed_encoder
I0801 03:01:54.515622  5269 net.cpp:425] embed_encoder <- frames_fc7
I0801 03:01:54.515631  5269 net.cpp:399] embed_encoder -> embedded_in_frames
I0801 03:01:54.543493  5269 net.cpp:141] Setting up embed_encoder
I0801 03:01:54.543524  5269 net.cpp:148] Top shape: 1 500 (500)
I0801 03:01:54.543529  5269 net.cpp:156] Memory required for data: 18404
I0801 03:01:54.543550  5269 layer_factory.hpp:77] Creating layer reshape_frames
I0801 03:01:54.543570  5269 net.cpp:91] Creating Layer reshape_frames
I0801 03:01:54.543577  5269 net.cpp:425] reshape_frames <- embedded_in_frames
I0801 03:01:54.543589  5269 net.cpp:399] reshape_frames -> embedded_input_frames
I0801 03:01:54.545125  5269 net.cpp:141] Setting up reshape_frames
I0801 03:01:54.545157  5269 net.cpp:148] Top shape: 1 1 500 (500)
I0801 03:01:54.545162  5269 net.cpp:156] Memory required for data: 20404
I0801 03:01:54.545167  5269 layer_factory.hpp:77] Creating layer reshape_stage_indicator
I0801 03:01:54.545181  5269 net.cpp:91] Creating Layer reshape_stage_indicator
I0801 03:01:54.545186  5269 net.cpp:425] reshape_stage_indicator <- stage_indicator
I0801 03:01:54.545202  5269 net.cpp:399] reshape_stage_indicator -> reshaped_stage_indicator
I0801 03:01:54.545310  5269 net.cpp:141] Setting up reshape_stage_indicator
I0801 03:01:54.545321  5269 net.cpp:148] Top shape: 1 1 1 (1)
I0801 03:01:54.545325  5269 net.cpp:156] Memory required for data: 20408
I0801 03:01:54.545331  5269 layer_factory.hpp:77] Creating layer embedding
I0801 03:01:54.545341  5269 net.cpp:91] Creating Layer embedding
I0801 03:01:54.545346  5269 net.cpp:425] embedding <- input_sentence
I0801 03:01:54.545356  5269 net.cpp:399] embedding -> embedded_input_sentence
I0801 03:01:54.759369  5269 net.cpp:141] Setting up embedding
I0801 03:01:54.759418  5269 net.cpp:148] Top shape: 1 1 500 (500)
I0801 03:01:54.759424  5269 net.cpp:156] Memory required for data: 22408
I0801 03:01:54.759443  5269 layer_factory.hpp:77] Creating layer lstm1
I0801 03:01:54.759464  5269 net.cpp:91] Creating Layer lstm1
I0801 03:01:54.759470  5269 net.cpp:425] lstm1 <- embedded_input_frames
I0801 03:01:54.759480  5269 net.cpp:425] lstm1 <- cont_sentence_input_1_split_0
I0801 03:01:54.759492  5269 net.cpp:399] lstm1 -> lstm1
I0801 03:01:54.759528  5269 recurrent_layer.cpp:20] Initializing recurrent layer: assuming input batch contains 1 timesteps of 1 independent streams.
I0801 03:01:54.759907  5269 net.cpp:49] Initializing net from parameters: 
layer {
  name: "lstm1_"
  type: "Input"
  top: "x"
  top: "cont"
  input_param {
    shape {
      dim: 1
      dim: 1
      dim: 500
    }
    shape {
      dim: 1
      dim: 1
    }
  }
}
layer {
  name: "lstm1_"
  type: "Input"
  top: "c_0"
  top: "h_0"
  input_param {
    shape {
      dim: 1
      dim: 1
      dim: 1000
    }
    shape {
      dim: 1
      dim: 1
      dim: 1000
    }
  }
}
layer {
  name: "lstm1_cont_slice"
  type: "Slice"
  bottom: "cont"
  top: "cont_1"
  slice_param {
    axis: 0
  }
}
layer {
  name: "lstm1_x_transform"
  type: "InnerProduct"
  bottom: "x"
  top: "W_xc_x"
  param {
    name: "W_xc"
  }
  param {
    name: "b_c"
  }
  propagate_down: true
  inner_product_param {
    num_output: 4000
    bias_term: true
    weight_filler {
      type: "uniform"
      min: -0.08
      max: 0.08
    }
    bias_filler {
      type: "constant"
      value: 0
    }
    axis: 2
  }
}
layer {
  name: "lstm1_W_xc_x_slice"
  type: "Slice"
  bottom: "W_xc_x"
  top: "W_xc_x_1"
  slice_param {
    axis: 0
  }
}
layer {
  name: "lstm1_h_conted_0"
  type: "Scale"
  bottom: "h_0"
  bottom: "cont_1"
  top: "h_conted_0"
  scale_param {
    axis: 0
  }
}
layer {
  name: "lstm1_transform_1"
  type: "InnerProduct"
  bottom: "h_conted_0"
  top: "W_hc_h_0"
  param {
    name: "W_hc"
  }
  inner_product_param {
    num_output: 4000
    bias_term: false
    weight_filler {
      type: "uniform"
      min: -0.08
      max: 0.08
    }
    axis: 2
  }
}
layer {
  name: "lstm1_gate_input_1"
  type: "Eltwise"
  bottom: "W_hc_h_0"
  bottom: "W_xc_x_1"
  top: "gate_input_1"
  eltwise_param {
    operation: SUM
  }
}
layer {
  name: "lstm1_unit_1"
  type: "LSTMUnit"
  bottom: "c_0"
  bottom: "gate_input_1"
  bottom: "cont_1"
  top: "c_1"
  top: "h_1"
}
layer {
  name: "lstm1_"
  type: "Split"
  bottom: "c_1"
  top: "c_T"
}
layer {
  name: "lstm1_h_concat"
  type: "Concat"
  bottom: "h_1"
  top: "h"
  concat_param {
    axis: 0
  }
}
layer {
  name: "h_pseudoloss"
  type: "Reduction"
  bottom: "h"
  top: "h_pseudoloss"
  loss_weight: 1
}
I0801 03:01:54.759999  5269 layer_factory.hpp:77] Creating layer lstm1_
I0801 03:01:54.760018  5269 net.cpp:91] Creating Layer lstm1_
I0801 03:01:54.760026  5269 net.cpp:399] lstm1_ -> x
I0801 03:01:54.760038  5269 net.cpp:399] lstm1_ -> cont
I0801 03:01:54.764889  5269 net.cpp:141] Setting up lstm1_
I0801 03:01:54.764906  5269 net.cpp:148] Top shape: 1 1 500 (500)
I0801 03:01:54.764914  5269 net.cpp:148] Top shape: 1 1 (1)
I0801 03:01:54.764917  5269 net.cpp:156] Memory required for data: 2004
I0801 03:01:54.764922  5269 layer_factory.hpp:77] Creating layer lstm1_
I0801 03:01:54.764933  5269 net.cpp:91] Creating Layer lstm1_
I0801 03:01:54.764945  5269 net.cpp:399] lstm1_ -> c_0
I0801 03:01:54.764956  5269 net.cpp:399] lstm1_ -> h_0
I0801 03:01:54.770606  5269 net.cpp:141] Setting up lstm1_
I0801 03:01:54.770625  5269 net.cpp:148] Top shape: 1 1 1000 (1000)
I0801 03:01:54.770632  5269 net.cpp:148] Top shape: 1 1 1000 (1000)
I0801 03:01:54.770635  5269 net.cpp:156] Memory required for data: 10004
I0801 03:01:54.770640  5269 layer_factory.hpp:77] Creating layer lstm1_cont_slice
I0801 03:01:54.770656  5269 net.cpp:91] Creating Layer lstm1_cont_slice
I0801 03:01:54.770661  5269 net.cpp:425] lstm1_cont_slice <- cont
I0801 03:01:54.770669  5269 net.cpp:399] lstm1_cont_slice -> cont_1
I0801 03:01:54.770714  5269 net.cpp:141] Setting up lstm1_cont_slice
I0801 03:01:54.770723  5269 net.cpp:148] Top shape: 1 1 (1)
I0801 03:01:54.770727  5269 net.cpp:156] Memory required for data: 10008
I0801 03:01:54.770732  5269 layer_factory.hpp:77] Creating layer cont_1_lstm1_cont_slice_0_split
I0801 03:01:54.770740  5269 net.cpp:91] Creating Layer cont_1_lstm1_cont_slice_0_split
I0801 03:01:54.770745  5269 net.cpp:425] cont_1_lstm1_cont_slice_0_split <- cont_1
I0801 03:01:54.770755  5269 net.cpp:399] cont_1_lstm1_cont_slice_0_split -> cont_1_lstm1_cont_slice_0_split_0
I0801 03:01:54.770762  5269 net.cpp:399] cont_1_lstm1_cont_slice_0_split -> cont_1_lstm1_cont_slice_0_split_1
I0801 03:01:54.770824  5269 net.cpp:141] Setting up cont_1_lstm1_cont_slice_0_split
I0801 03:01:54.770833  5269 net.cpp:148] Top shape: 1 1 (1)
I0801 03:01:54.770839  5269 net.cpp:148] Top shape: 1 1 (1)
I0801 03:01:54.770843  5269 net.cpp:156] Memory required for data: 10016
I0801 03:01:54.770848  5269 layer_factory.hpp:77] Creating layer lstm1_x_transform
I0801 03:01:54.770859  5269 net.cpp:91] Creating Layer lstm1_x_transform
I0801 03:01:54.770864  5269 net.cpp:425] lstm1_x_transform <- x
I0801 03:01:54.770870  5269 net.cpp:399] lstm1_x_transform -> W_xc_x
I0801 03:01:54.777158  5279 net.cpp:141] Setting up conv1
I0801 03:01:54.777194  5279 net.cpp:148] Top shape: 10 96 55 55 (2904000)
I0801 03:01:54.777200  5279 net.cpp:156] Memory required for data: 17799480
I0801 03:01:54.777220  5279 layer_factory.hpp:77] Creating layer relu1
I0801 03:01:54.777235  5279 net.cpp:91] Creating Layer relu1
I0801 03:01:54.777241  5279 net.cpp:425] relu1 <- conv1
I0801 03:01:54.777248  5279 net.cpp:386] relu1 -> conv1 (in-place)
I0801 03:01:54.777667  5279 net.cpp:141] Setting up relu1
I0801 03:01:54.777680  5279 net.cpp:148] Top shape: 10 96 55 55 (2904000)
I0801 03:01:54.777685  5279 net.cpp:156] Memory required for data: 29415480
I0801 03:01:54.777691  5279 layer_factory.hpp:77] Creating layer pool1
I0801 03:01:54.777704  5279 net.cpp:91] Creating Layer pool1
I0801 03:01:54.777710  5279 net.cpp:425] pool1 <- conv1
I0801 03:01:54.777717  5279 net.cpp:399] pool1 -> pool1
I0801 03:01:54.777784  5279 net.cpp:141] Setting up pool1
I0801 03:01:54.777796  5279 net.cpp:148] Top shape: 10 96 27 27 (699840)
I0801 03:01:54.777799  5279 net.cpp:156] Memory required for data: 32214840
I0801 03:01:54.777804  5279 layer_factory.hpp:77] Creating layer norm1
I0801 03:01:54.777822  5279 net.cpp:91] Creating Layer norm1
I0801 03:01:54.777827  5279 net.cpp:425] norm1 <- pool1
I0801 03:01:54.777833  5279 net.cpp:399] norm1 -> norm1
I0801 03:01:54.778297  5279 net.cpp:141] Setting up norm1
I0801 03:01:54.778311  5279 net.cpp:148] Top shape: 10 96 27 27 (699840)
I0801 03:01:54.778316  5279 net.cpp:156] Memory required for data: 35014200
I0801 03:01:54.778321  5279 layer_factory.hpp:77] Creating layer conv2
I0801 03:01:54.778337  5279 net.cpp:91] Creating Layer conv2
I0801 03:01:54.778342  5279 net.cpp:425] conv2 <- norm1
I0801 03:01:54.778354  5279 net.cpp:399] conv2 -> conv2
I0801 03:01:54.781455  5279 net.cpp:141] Setting up conv2
I0801 03:01:54.781474  5279 net.cpp:148] Top shape: 10 256 27 27 (1866240)
I0801 03:01:54.781481  5279 net.cpp:156] Memory required for data: 42479160
I0801 03:01:54.781493  5279 layer_factory.hpp:77] Creating layer relu2
I0801 03:01:54.781502  5279 net.cpp:91] Creating Layer relu2
I0801 03:01:54.781508  5279 net.cpp:425] relu2 <- conv2
I0801 03:01:54.781515  5279 net.cpp:386] relu2 -> conv2 (in-place)
I0801 03:01:54.781935  5279 net.cpp:141] Setting up relu2
I0801 03:01:54.781949  5279 net.cpp:148] Top shape: 10 256 27 27 (1866240)
I0801 03:01:54.781954  5279 net.cpp:156] Memory required for data: 49944120
I0801 03:01:54.781958  5279 layer_factory.hpp:77] Creating layer pool2
I0801 03:01:54.781968  5279 net.cpp:91] Creating Layer pool2
I0801 03:01:54.781973  5279 net.cpp:425] pool2 <- conv2
I0801 03:01:54.781981  5279 net.cpp:399] pool2 -> pool2
I0801 03:01:54.782033  5279 net.cpp:141] Setting up pool2
I0801 03:01:54.782042  5279 net.cpp:148] Top shape: 10 256 13 13 (432640)
I0801 03:01:54.782047  5279 net.cpp:156] Memory required for data: 51674680
I0801 03:01:54.782052  5279 layer_factory.hpp:77] Creating layer norm2
I0801 03:01:54.782063  5279 net.cpp:91] Creating Layer norm2
I0801 03:01:54.782068  5279 net.cpp:425] norm2 <- pool2
I0801 03:01:54.782074  5279 net.cpp:399] norm2 -> norm2
I0801 03:01:54.782313  5279 net.cpp:141] Setting up norm2
I0801 03:01:54.782325  5279 net.cpp:148] Top shape: 10 256 13 13 (432640)
I0801 03:01:54.782330  5279 net.cpp:156] Memory required for data: 53405240
I0801 03:01:54.782335  5279 layer_factory.hpp:77] Creating layer conv3
I0801 03:01:54.782347  5279 net.cpp:91] Creating Layer conv3
I0801 03:01:54.782352  5279 net.cpp:425] conv3 <- norm2
I0801 03:01:54.782359  5279 net.cpp:399] conv3 -> conv3
I0801 03:01:54.786046  5279 net.cpp:141] Setting up conv3
I0801 03:01:54.786065  5279 net.cpp:148] Top shape: 10 384 13 13 (648960)
I0801 03:01:54.786070  5279 net.cpp:156] Memory required for data: 56001080
I0801 03:01:54.786083  5279 layer_factory.hpp:77] Creating layer relu3
I0801 03:01:54.786097  5279 net.cpp:91] Creating Layer relu3
I0801 03:01:54.786103  5279 net.cpp:425] relu3 <- conv3
I0801 03:01:54.786108  5279 net.cpp:386] relu3 -> conv3 (in-place)
I0801 03:01:54.786543  5279 net.cpp:141] Setting up relu3
I0801 03:01:54.786556  5279 net.cpp:148] Top shape: 10 384 13 13 (648960)
I0801 03:01:54.786561  5279 net.cpp:156] Memory required for data: 58596920
I0801 03:01:54.786566  5279 layer_factory.hpp:77] Creating layer conv4
I0801 03:01:54.786579  5279 net.cpp:91] Creating Layer conv4
I0801 03:01:54.786586  5279 net.cpp:425] conv4 <- conv3
I0801 03:01:54.786594  5279 net.cpp:399] conv4 -> conv4
I0801 03:01:54.790469  5269 net.cpp:141] Setting up lstm1_x_transform
I0801 03:01:54.790488  5269 net.cpp:148] Top shape: 1 1 4000 (4000)
I0801 03:01:54.790493  5269 net.cpp:156] Memory required for data: 26016
I0801 03:01:54.790508  5269 layer_factory.hpp:77] Creating layer lstm1_W_xc_x_slice
I0801 03:01:54.790519  5269 net.cpp:91] Creating Layer lstm1_W_xc_x_slice
I0801 03:01:54.790524  5269 net.cpp:425] lstm1_W_xc_x_slice <- W_xc_x
I0801 03:01:54.790534  5269 net.cpp:399] lstm1_W_xc_x_slice -> W_xc_x_1
I0801 03:01:54.790740  5269 net.cpp:141] Setting up lstm1_W_xc_x_slice
I0801 03:01:54.790750  5269 net.cpp:148] Top shape: 1 1 4000 (4000)
I0801 03:01:54.790755  5269 net.cpp:156] Memory required for data: 42016
I0801 03:01:54.790760  5269 layer_factory.hpp:77] Creating layer lstm1_h_conted_0
I0801 03:01:54.790776  5269 net.cpp:91] Creating Layer lstm1_h_conted_0
I0801 03:01:54.790781  5269 net.cpp:425] lstm1_h_conted_0 <- h_0
I0801 03:01:54.790787  5269 net.cpp:425] lstm1_h_conted_0 <- cont_1_lstm1_cont_slice_0_split_0
I0801 03:01:54.790794  5269 net.cpp:399] lstm1_h_conted_0 -> h_conted_0
I0801 03:01:54.790942  5269 net.cpp:141] Setting up lstm1_h_conted_0
I0801 03:01:54.790953  5269 net.cpp:148] Top shape: 1 1 1000 (1000)
I0801 03:01:54.790957  5269 net.cpp:156] Memory required for data: 46016
I0801 03:01:54.790962  5269 layer_factory.hpp:77] Creating layer lstm1_transform_1
I0801 03:01:54.790978  5269 net.cpp:91] Creating Layer lstm1_transform_1
I0801 03:01:54.790983  5269 net.cpp:425] lstm1_transform_1 <- h_conted_0
I0801 03:01:54.790992  5269 net.cpp:399] lstm1_transform_1 -> W_hc_h_0
I0801 03:01:54.791044  5279 net.cpp:141] Setting up conv4
I0801 03:01:54.791061  5279 net.cpp:148] Top shape: 10 384 13 13 (648960)
I0801 03:01:54.791066  5279 net.cpp:156] Memory required for data: 61192760
I0801 03:01:54.791075  5279 layer_factory.hpp:77] Creating layer relu4
I0801 03:01:54.791085  5279 net.cpp:91] Creating Layer relu4
I0801 03:01:54.791090  5279 net.cpp:425] relu4 <- conv4
I0801 03:01:54.791096  5279 net.cpp:386] relu4 -> conv4 (in-place)
I0801 03:01:54.799214  5279 net.cpp:141] Setting up relu4
I0801 03:01:54.799263  5279 net.cpp:148] Top shape: 10 384 13 13 (648960)
I0801 03:01:54.799268  5279 net.cpp:156] Memory required for data: 63788600
I0801 03:01:54.799278  5279 layer_factory.hpp:77] Creating layer conv5
I0801 03:01:54.799306  5279 net.cpp:91] Creating Layer conv5
I0801 03:01:54.799314  5279 net.cpp:425] conv5 <- conv4
I0801 03:01:54.799325  5279 net.cpp:399] conv5 -> conv5
I0801 03:01:54.804191  5279 net.cpp:141] Setting up conv5
I0801 03:01:54.804240  5279 net.cpp:148] Top shape: 10 256 13 13 (432640)
I0801 03:01:54.804246  5279 net.cpp:156] Memory required for data: 65519160
I0801 03:01:54.804266  5279 layer_factory.hpp:77] Creating layer relu5
I0801 03:01:54.804283  5279 net.cpp:91] Creating Layer relu5
I0801 03:01:54.804291  5279 net.cpp:425] relu5 <- conv5
I0801 03:01:54.804299  5279 net.cpp:386] relu5 -> conv5 (in-place)
I0801 03:01:54.804762  5279 net.cpp:141] Setting up relu5
I0801 03:01:54.804775  5279 net.cpp:148] Top shape: 10 256 13 13 (432640)
I0801 03:01:54.804780  5279 net.cpp:156] Memory required for data: 67249720
I0801 03:01:54.804785  5279 layer_factory.hpp:77] Creating layer pool5
I0801 03:01:54.804796  5279 net.cpp:91] Creating Layer pool5
I0801 03:01:54.804801  5279 net.cpp:425] pool5 <- conv5
I0801 03:01:54.804812  5279 net.cpp:399] pool5 -> pool5
I0801 03:01:54.804877  5279 net.cpp:141] Setting up pool5
I0801 03:01:54.804888  5279 net.cpp:148] Top shape: 10 256 6 6 (92160)
I0801 03:01:54.804891  5279 net.cpp:156] Memory required for data: 67618360
I0801 03:01:54.804895  5279 layer_factory.hpp:77] Creating layer fc6
I0801 03:01:54.804919  5279 net.cpp:91] Creating Layer fc6
I0801 03:01:54.804929  5279 net.cpp:425] fc6 <- pool5
I0801 03:01:54.804944  5279 net.cpp:399] fc6 -> fc6
I0801 03:01:54.871649  5269 net.cpp:141] Setting up lstm1_transform_1
I0801 03:01:54.871716  5269 net.cpp:148] Top shape: 1 1 4000 (4000)
I0801 03:01:54.871722  5269 net.cpp:156] Memory required for data: 62016
I0801 03:01:54.871750  5269 layer_factory.hpp:77] Creating layer lstm1_gate_input_1
I0801 03:01:54.871781  5269 net.cpp:91] Creating Layer lstm1_gate_input_1
I0801 03:01:54.871790  5269 net.cpp:425] lstm1_gate_input_1 <- W_hc_h_0
I0801 03:01:54.871801  5269 net.cpp:425] lstm1_gate_input_1 <- W_xc_x_1
I0801 03:01:54.871811  5269 net.cpp:399] lstm1_gate_input_1 -> gate_input_1
I0801 03:01:54.871898  5269 net.cpp:141] Setting up lstm1_gate_input_1
I0801 03:01:54.871909  5269 net.cpp:148] Top shape: 1 1 4000 (4000)
I0801 03:01:54.871914  5269 net.cpp:156] Memory required for data: 78016
I0801 03:01:54.871920  5269 layer_factory.hpp:77] Creating layer lstm1_unit_1
I0801 03:01:54.871932  5269 net.cpp:91] Creating Layer lstm1_unit_1
I0801 03:01:54.871937  5269 net.cpp:425] lstm1_unit_1 <- c_0
I0801 03:01:54.871944  5269 net.cpp:425] lstm1_unit_1 <- gate_input_1
I0801 03:01:54.871951  5269 net.cpp:425] lstm1_unit_1 <- cont_1_lstm1_cont_slice_0_split_1
I0801 03:01:54.871960  5269 net.cpp:399] lstm1_unit_1 -> c_1
I0801 03:01:54.871969  5269 net.cpp:399] lstm1_unit_1 -> h_1
I0801 03:01:54.872058  5269 net.cpp:141] Setting up lstm1_unit_1
I0801 03:01:54.872069  5269 net.cpp:148] Top shape: 1 1 1000 (1000)
I0801 03:01:54.872076  5269 net.cpp:148] Top shape: 1 1 1000 (1000)
I0801 03:01:54.872081  5269 net.cpp:156] Memory required for data: 86016
I0801 03:01:54.872087  5269 layer_factory.hpp:77] Creating layer lstm1_
I0801 03:01:54.872102  5269 net.cpp:91] Creating Layer lstm1_
I0801 03:01:54.872107  5269 net.cpp:425] lstm1_ <- c_1
I0801 03:01:54.872115  5269 net.cpp:399] lstm1_ -> c_T
I0801 03:01:54.872153  5269 net.cpp:141] Setting up lstm1_
I0801 03:01:54.872160  5269 net.cpp:148] Top shape: 1 1 1000 (1000)
I0801 03:01:54.872166  5269 net.cpp:156] Memory required for data: 90016
I0801 03:01:54.872171  5269 layer_factory.hpp:77] Creating layer lstm1_h_concat
I0801 03:01:54.872184  5269 net.cpp:91] Creating Layer lstm1_h_concat
I0801 03:01:54.872189  5269 net.cpp:425] lstm1_h_concat <- h_1
I0801 03:01:54.872201  5269 net.cpp:399] lstm1_h_concat -> h
I0801 03:01:54.872252  5269 net.cpp:141] Setting up lstm1_h_concat
I0801 03:01:54.872262  5269 net.cpp:148] Top shape: 1 1 1000 (1000)
I0801 03:01:54.872267  5269 net.cpp:156] Memory required for data: 94016
I0801 03:01:54.872272  5269 layer_factory.hpp:77] Creating layer h_pseudoloss
I0801 03:01:54.872289  5269 net.cpp:91] Creating Layer h_pseudoloss
I0801 03:01:54.872295  5269 net.cpp:425] h_pseudoloss <- h
I0801 03:01:54.872303  5269 net.cpp:399] h_pseudoloss -> h_pseudoloss
I0801 03:01:54.872416  5269 net.cpp:141] Setting up h_pseudoloss
…
I0801 03:01:54.872558  5269 net.cpp:219] lstm1_ does not need backward computation.
I0801 03:01:54.872562  5269 net.cpp:261] This network produces output c_T
I0801 03:01:54.872568  5269 net.cpp:261] This network produces output h_pseudoloss
I0801 03:01:54.872586  5269 net.cpp:274] Network initialization done.
I0801 03:01:54.872666  5269 recurrent_layer.cpp:150] Adding parameter 0: W_xc
I0801 03:01:54.872673  5269 recurrent_layer.cpp:150] Adding parameter 1: b_c
I0801 03:01:54.872679  5269 recurrent_layer.cpp:150] Adding parameter 2: W_hc
I0801 03:01:54.872813  5269 net.cpp:141] Setting up lstm1
I0801 03:01:54.872826  5269 net.cpp:148] Top shape: 1 1 1000 (1000)
I0801 03:01:54.872831  5269 net.cpp:156] Memory required for data: 26408
I0801 03:01:54.872845  5269 layer_factory.hpp:77] Creating layer concat
I0801 03:01:54.872855  5269 net.cpp:91] Creating Layer concat
I0801 03:01:54.872862  5269 net.cpp:425] concat <- lstm1
I0801 03:01:54.872869  5269 net.cpp:425] concat <- embedded_input_sentence
I0801 03:01:54.872875  5269 net.cpp:425] concat <- reshaped_stage_indicator
I0801 03:01:54.872881  5269 net.cpp:399] concat -> lstm1_video_sequence
I0801 03:01:54.872915  5269 net.cpp:141] Setting up concat
I0801 03:01:54.872923  5269 net.cpp:148] Top shape: 1 1 1501 (1501)
I0801 03:01:54.872927  5269 net.cpp:156] Memory required for data: 32412
I0801 03:01:54.872931  5269 layer_factory.hpp:77] Creating layer lstm2
I0801 03:01:54.872946  5269 net.cpp:91] Creating Layer lstm2
I0801 03:01:54.872952  5269 net.cpp:425] lstm2 <- lstm1_video_sequence
I0801 03:01:54.872962  5269 net.cpp:425] lstm2 <- cont_sentence_input_1_split_1
I0801 03:01:54.872975  5269 net.cpp:399] lstm2 -> lstm2
I0801 03:01:54.872990  5269 recurrent_layer.cpp:20] Initializing recurrent layer: assuming input batch contains 1 timesteps of 1 independent streams.
I0801 03:01:54.873296  5269 net.cpp:49] Initializing net from parameters: 
layer {
  name: "lstm2_"
  type: "Input"
  top: "x"
  top: "cont"
  input_param {
    shape {
      dim: 1
      dim: 1
      dim: 1501
    }
    shape {
      dim: 1
      dim: 1
    }
  }
}
layer {
  name: "lstm2_"
  type: "Input"
  top: "c_0"
  top: "h_0"
  input_param {
    shape {
      dim: 1
      dim: 1
      dim: 1000
    }
    shape {
      dim: 1
      dim: 1
      dim: 1000
    }
  }
}
layer {
  name: "lstm2_cont_slice"
  type: "Slice"
  bottom: "cont"
  top: "cont_1"
  slice_param {
    axis: 0
  }
}
layer {
  name: "lstm2_x_transform"
  type: "InnerProduct"
  bottom: "x"
  top: "W_xc_x"
  param {
    name: "W_xc"
  }
  param {
    name: "b_c"
  }
  propagate_down: true
  inner_product_param {
    num_output: 4000
    bias_term: true
    weight_filler {
      type: "uniform"
      min: -0.08
      max: 0.08
    }
    bias_filler {
      type: "constant"
      value: 0
    }
    axis: 2
  }
}
layer {
  name: "lstm2_W_xc_x_slice"
  type: "Slice"
  bottom: "W_xc_x"
  top: "W_xc_x_1"
  slice_param {
    axis: 0
  }
}
layer {
  name: "lstm2_h_conted_0"
  type: "Scale"
  bottom: "h_0"
  bottom: "cont_1"
  top: "h_conted_0"
  scale_param {
    axis: 0
  }
}
layer {
  name: "lstm2_transform_1"
  type: "InnerProduct"
  bottom: "h_conted_0"
  top: "W_hc_h_0"
  param {
    name: "W_hc"
  }
  inner_product_param {
    num_output: 4000
    bias_term: false
    weight_filler {
      type: "uniform"
      min: -0.08
      max: 0.08
    }
    axis: 2
  }
}
layer {
  name: "lstm2_gate_input_1"
  type: "Eltwise"
  bottom: "W_hc_h_0"
  bottom: "W_xc_x_1"
  top: "gate_input_1"
  eltwise_param {
    operation: SUM
  }
}
layer {
  name: "lstm2_unit_1"
  type: "LSTMUnit"
  bottom: "c_0"
  bottom: "gate_input_1"
  bottom: "cont_1"
  top: "c_1"
  top: "h_1"
}
layer {
  name: "lstm2_"
  type: "Split"
  bottom: "c_1"
  top: "c_T"
}
layer {
  name: "lstm2_h_concat"
  type: "Concat"
  bottom: "h_1"
  top: "h"
  concat_param {
    axis: 0
  }
}
layer {
  name: "h_pseudoloss"
  type: "Reduction"
  bottom: "h"
  top: "h_pseudoloss"
  loss_weight: 1
}
I0801 03:01:54.873384  5269 layer_factory.hpp:77] Creating layer lstm2_
I0801 03:01:54.873396  5269 net.cpp:91] Creating Layer lstm2_
I0801 03:01:54.873402  5269 net.cpp:399] lstm2_ -> x
I0801 03:01:54.873414  5269 net.cpp:399] lstm2_ -> cont
I0801 03:01:54.873471  5269 net.cpp:141] Setting up lstm2_
I0801 03:01:54.873481  5269 net.cpp:148] Top shape: 1 1 1501 (1501)
I0801 03:01:54.873487  5269 net.cpp:148] Top shape: 1 1 (1)
I0801 03:01:54.873492  5269 net.cpp:156] Memory required for data: 6008
I0801 03:01:54.873495  5269 layer_factory.hpp:77] Creating layer lstm2_
I0801 03:01:54.873504  5269 net.cpp:91] Creating Layer lstm2_
I0801 03:01:54.873512  5269 net.cpp:399] lstm2_ -> c_0
I0801 03:01:54.873522  5269 net.cpp:399] lstm2_ -> h_0
I0801 03:01:54.873574  5269 net.cpp:141] Setting up lstm2_
I0801 03:01:54.873584  5269 net.cpp:148] Top shape: 1 1 1000 (1000)
I0801 03:01:54.873589  5269 net.cpp:148] Top shape: 1 1 1000 (1000)
I0801 03:01:54.873594  5269 net.cpp:156] Memory required for data: 14008
I0801 03:01:54.873597  5269 layer_factory.hpp:77] Creating layer lstm2_cont_slice
I0801 03:01:54.873606  5269 net.cpp:91] Creating Layer lstm2_cont_slice
I0801 03:01:54.873611  5269 net.cpp:425] lstm2_cont_slice <- cont
I0801 03:01:54.873617  5269 net.cpp:399] lstm2_cont_slice -> cont_1
I0801 03:01:54.873651  5269 net.cpp:141] Setting up lstm2_cont_slice
I0801 03:01:54.873661  5269 net.cpp:148] Top shape: 1 1 (1)
I0801 03:01:54.873664  5269 net.cpp:156] Memory required for data: 14012
I0801 03:01:54.873668  5269 layer_factory.hpp:77] Creating layer cont_1_lstm2_cont_slice_0_split
I0801 03:01:54.873678  5269 net.cpp:91] Creating Layer cont_1_lstm2_cont_slice_0_split
I0801 03:01:54.873683  5269 net.cpp:425] cont_1_lstm2_cont_slice_0_split <- cont_1
I0801 03:01:54.873689  5269 net.cpp:399] cont_1_lstm2_cont_slice_0_split -> cont_1_lstm2_cont_slice_0_split_0
I0801 03:01:54.873697  5269 net.cpp:399] cont_1_lstm2_cont_slice_0_split -> cont_1_lstm2_cont_slice_0_split_1
I0801 03:01:54.873744  5269 net.cpp:141] Setting up cont_1_lstm2_cont_slice_0_split
I0801 03:01:54.873754  5269 net.cpp:148] Top shape: 1 1 (1)
I0801 03:01:54.873759  5269 net.cpp:148] Top shape: 1 1 (1)
I0801 03:01:54.873762  5269 net.cpp:156] Memory required for data: 14020
I0801 03:01:54.873766  5269 layer_factory.hpp:77] Creating layer lstm2_x_transform
I0801 03:01:54.873776  5269 net.cpp:91] Creating Layer lstm2_x_transform
I0801 03:01:54.873780  5269 net.cpp:425] lstm2_x_transform <- x
I0801 03:01:54.873790  5269 net.cpp:399] lstm2_x_transform -> W_xc_x
I0801 03:01:54.909479  5279 net.cpp:141] Setting up fc6
I0801 03:01:54.909530  5279 net.cpp:148] Top shape: 10 4096 (40960)
I0801 03:01:54.909536  5279 net.cpp:156] Memory required for data: 67782200
I0801 03:01:54.909553  5279 layer_factory.hpp:77] Creating layer relu6
I0801 03:01:54.909570  5279 net.cpp:91] Creating Layer relu6
I0801 03:01:54.909576  5279 net.cpp:425] relu6 <- fc6
I0801 03:01:54.909587  5279 net.cpp:386] relu6 -> fc6 (in-place)
I0801 03:01:54.909925  5279 net.cpp:141] Setting up relu6
I0801 03:01:54.909936  5279 net.cpp:148] Top shape: 10 4096 (40960)
I0801 03:01:54.909941  5279 net.cpp:156] Memory required for data: 67946040
I0801 03:01:54.909946  5279 layer_factory.hpp:77] Creating layer drop6
I0801 03:01:54.909966  5279 net.cpp:91] Creating Layer drop6
I0801 03:01:54.909971  5279 net.cpp:425] drop6 <- fc6
I0801 03:01:54.909977  5279 net.cpp:386] drop6 -> fc6 (in-place)
I0801 03:01:54.910032  5279 net.cpp:141] Setting up drop6
I0801 03:01:54.910040  5279 net.cpp:148] Top shape: 10 4096 (40960)
I0801 03:01:54.910044  5279 net.cpp:156] Memory required for data: 68109880
I0801 03:01:54.910049  5279 layer_factory.hpp:77] Creating layer fc7
I0801 03:01:54.910063  5279 net.cpp:91] Creating Layer fc7
I0801 03:01:54.910068  5279 net.cpp:425] fc7 <- fc6
I0801 03:01:54.910074  5279 net.cpp:399] fc7 -> fc7
I0801 03:01:54.939750  5269 net.cpp:141] Setting up lstm2_x_transform
I0801 03:01:54.939808  5269 net.cpp:148] Top shape: 1 1 4000 (4000)
I0801 03:01:54.939815  5269 net.cpp:156] Memory required for data: 30020
I0801 03:01:54.939837  5269 layer_factory.hpp:77] Creating layer lstm2_W_xc_x_slice
I0801 03:01:54.939854  5269 net.cpp:91] Creating Layer lstm2_W_xc_x_slice
I0801 03:01:54.939862  5269 net.cpp:425] lstm2_W_xc_x_slice <- W_xc_x
I0801 03:01:54.939873  5269 net.cpp:399] lstm2_W_xc_x_slice -> W_xc_x_1
I0801 03:01:54.939924  5269 net.cpp:141] Setting up lstm2_W_xc_x_slice
I0801 03:01:54.939934  5269 net.cpp:148] Top shape: 1 1 4000 (4000)
I0801 03:01:54.939939  5269 net.cpp:156] Memory required for data: 46020
I0801 03:01:54.939944  5269 layer_factory.hpp:77] Creating layer lstm2_h_conted_0
I0801 03:01:54.939954  5269 net.cpp:91] Creating Layer lstm2_h_conted_0
I0801 03:01:54.939959  5269 net.cpp:425] lstm2_h_conted_0 <- h_0
I0801 03:01:54.939965  5269 net.cpp:425] lstm2_h_conted_0 <- cont_1_lstm2_cont_slice_0_split_0
I0801 03:01:54.939971  5269 net.cpp:399] lstm2_h_conted_0 -> h_conted_0
I0801 03:01:54.940079  5269 net.cpp:141] Setting up lstm2_h_conted_0
I0801 03:01:54.940089  5269 net.cpp:148] Top shape: 1 1 1000 (1000)
I0801 03:01:54.940094  5269 net.cpp:156] Memory required for data: 50020
I0801 03:01:54.940099  5269 layer_factory.hpp:77] Creating layer lstm2_transform_1
I0801 03:01:54.940112  5269 net.cpp:91] Creating Layer lstm2_transform_1
I0801 03:01:54.940119  5269 net.cpp:425] lstm2_transform_1 <- h_conted_0
I0801 03:01:54.940125  5269 net.cpp:399] lstm2_transform_1 -> W_hc_h_0
I0801 03:01:54.956523  5279 net.cpp:141] Setting up fc7
I0801 03:01:54.956575  5279 net.cpp:148] Top shape: 10 4096 (40960)
I0801 03:01:54.956581  5279 net.cpp:156] Memory required for data: 68273720
I0801 03:01:54.956598  5279 layer_factory.hpp:77] Creating layer relu7
I0801 03:01:54.956614  5279 net.cpp:91] Creating Layer relu7
I0801 03:01:54.956620  5279 net.cpp:425] relu7 <- fc7
I0801 03:01:54.956632  5279 net.cpp:386] relu7 -> fc7 (in-place)
I0801 03:01:54.957465  5279 net.cpp:141] Setting up relu7
I0801 03:01:54.957478  5279 net.cpp:148] Top shape: 10 4096 (40960)
I0801 03:01:54.957482  5279 net.cpp:156] Memory required for data: 68437560
I0801 03:01:54.957487  5279 layer_factory.hpp:77] Creating layer drop7
I0801 03:01:54.957499  5279 net.cpp:91] Creating Layer drop7
I0801 03:01:54.957504  5279 net.cpp:425] drop7 <- fc7
I0801 03:01:54.957514  5279 net.cpp:386] drop7 -> fc7 (in-place)
I0801 03:01:54.957551  5279 net.cpp:141] Setting up drop7
I0801 03:01:54.957559  5279 net.cpp:148] Top shape: 10 4096 (40960)
I0801 03:01:54.957564  5279 net.cpp:156] Memory required for data: 68601400
I0801 03:01:54.957568  5279 layer_factory.hpp:77] Creating layer fc8
I0801 03:01:54.957583  5279 net.cpp:91] Creating Layer fc8
I0801 03:01:54.957588  5279 net.cpp:425] fc8 <- fc7
I0801 03:01:54.957595  5279 net.cpp:399] fc8 -> fc8
I0801 03:01:54.969560  5279 net.cpp:141] Setting up fc8
I0801 03:01:54.969609  5279 net.cpp:148] Top shape: 10 1000 (10000)
I0801 03:01:54.969614  5279 net.cpp:156] Memory required for data: 68641400
I0801 03:01:54.969630  5279 layer_factory.hpp:77] Creating layer prob
I0801 03:01:54.969645  5279 net.cpp:91] Creating Layer prob
I0801 03:01:54.969651  5279 net.cpp:425] prob <- fc8
I0801 03:01:54.969667  5279 net.cpp:399] prob -> prob
I0801 03:01:54.970106  5279 net.cpp:141] Setting up prob
I0801 03:01:54.970118  5279 net.cpp:148] Top shape: 10 1000 (10000)
I0801 03:01:54.970123  5279 net.cpp:156] Memory required for data: 68681400
I0801 03:01:54.970127  5279 net.cpp:219] prob does not need backward computation.
I0801 03:01:54.970132  5279 net.cpp:219] fc8 does not need backward computation.
I0801 03:01:54.970137  5279 net.cpp:219] drop7 does not need backward computation.
I0801 03:01:54.970141  5279 net.cpp:219] relu7 does not need backward computation.
…
I0801 03:01:54.970214  5279 net.cpp:219] norm1 does not need backward computation.
I0801 03:01:54.970219  5279 net.cpp:219] pool1 does not need backward computation.
I0801 03:01:54.970223  5279 net.cpp:219] relu1 does not need backward computation.
I0801 03:01:54.970230  5279 net.cpp:219] conv1 does not need backward computation.
I0801 03:01:54.970235  5279 net.cpp:219] data does not need backward computation.
I0801 03:01:54.970239  5279 net.cpp:261] This network produces output prob
I0801 03:01:54.970258  5279 net.cpp:274] Network initialization done.
I0801 03:01:54.978840  5269 net.cpp:141] Setting up lstm2_transform_1
I0801 03:01:54.978888  5269 net.cpp:148] Top shape: 1 1 4000 (4000)
I0801 03:01:54.978893  5269 net.cpp:156] Memory required for data: 66020
I0801 03:01:54.978911  5269 layer_factory.hpp:77] Creating layer lstm2_gate_input_1
I0801 03:01:54.978929  5269 net.cpp:91] Creating Layer lstm2_gate_input_1
I0801 03:01:54.978936  5269 net.cpp:425] lstm2_gate_input_1 <- W_hc_h_0
I0801 03:01:54.978945  5269 net.cpp:425] lstm2_gate_input_1 <- W_xc_x_1
I0801 03:01:54.978952  5269 net.cpp:399] lstm2_gate_input_1 -> gate_input_1
I0801 03:01:54.979003  5269 net.cpp:141] Setting up lstm2_gate_input_1
I0801 03:01:54.979012  5269 net.cpp:148] Top shape: 1 1 4000 (4000)
I0801 03:01:54.979017  5269 net.cpp:156] Memory required for data: 82020
I0801 03:01:54.979022  5269 layer_factory.hpp:77] Creating layer lstm2_unit_1
I0801 03:01:54.979033  5269 net.cpp:91] Creating Layer lstm2_unit_1
I0801 03:01:54.979038  5269 net.cpp:425] lstm2_unit_1 <- c_0
I0801 03:01:54.979043  5269 net.cpp:425] lstm2_unit_1 <- gate_input_1
I0801 03:01:54.979048  5269 net.cpp:425] lstm2_unit_1 <- cont_1_lstm2_cont_slice_0_split_1
I0801 03:01:54.979055  5269 net.cpp:399] lstm2_unit_1 -> c_1
I0801 03:01:54.979063  5269 net.cpp:399] lstm2_unit_1 -> h_1
I0801 03:01:54.979127  5269 net.cpp:141] Setting up lstm2_unit_1
I0801 03:01:54.979135  5269 net.cpp:148] Top shape: 1 1 1000 (1000)
I0801 03:01:54.979141  5269 net.cpp:148] Top shape: 1 1 1000 (1000)
I0801 03:01:54.979146  5269 net.cpp:156] Memory required for data: 90020
I0801 03:01:54.979151  5269 layer_factory.hpp:77] Creating layer lstm2_
I0801 03:01:54.979159  5269 net.cpp:91] Creating Layer lstm2_
I0801 03:01:54.979164  5269 net.cpp:425] lstm2_ <- c_1
I0801 03:01:54.979171  5269 net.cpp:399] lstm2_ -> c_T
I0801 03:01:54.979200  5269 net.cpp:141] Setting up lstm2_
I0801 03:01:54.979208  5269 net.cpp:148] Top shape: 1 1 1000 (1000)
I0801 03:01:54.979212  5269 net.cpp:156] Memory required for data: 94020
I0801 03:01:54.979218  5269 layer_factory.hpp:77] Creating layer lstm2_h_concat
I0801 03:01:54.979230  5269 net.cpp:91] Creating Layer lstm2_h_concat
I0801 03:01:54.979234  5269 net.cpp:425] lstm2_h_concat <- h_1
I0801 03:01:54.979241  5269 net.cpp:399] lstm2_h_concat -> h
I0801 03:01:54.979276  5269 net.cpp:141] Setting up lstm2_h_concat
I0801 03:01:54.979285  5269 net.cpp:148] Top shape: 1 1 1000 (1000)
I0801 03:01:54.979290  5269 net.cpp:156] Memory required for data: 98020
I0801 03:01:54.979293  5269 layer_factory.hpp:77] Creating layer h_pseudoloss
I0801 03:01:54.979302  5269 net.cpp:91] Creating Layer h_pseudoloss
I0801 03:01:54.979307  5269 net.cpp:425] h_pseudoloss <- h
I0801 03:01:54.979315  5269 net.cpp:399] h_pseudoloss -> h_pseudoloss
I0801 03:01:54.979403  5269 net.cpp:141] Setting up h_pseudoloss
…
