…
Java HotSpot(TM) 64-Bit Server VM warning: You have loaded library /tmp/cvld6016933021831346056/libopencv_java310.so which might have disabled stack guard. The VM will try to fix the stack guard now.
It's highly recommended that you fix the library with 'execstack -c <libfile>', or link it with '-z noexecstack'.
WARNING: Logging before InitGoogleLogging() is written to STDERR
I0707 16:02:45.654012  9073 net.cpp:50] Initializing net from parameters: 
name: "GoogleNet"
input: "data"
input_dim: 10
input_dim: 3
input_dim: 224
input_dim: 224
state {
  phase: TEST
}
layer {
  name: "conv1/7x7_s2"
  type: "Convolution"
  bottom: "data"
  top: "conv1/7x7_s2"
  param {
    lr_mult: 1
    decay_mult: 1
  }
  param {
    lr_mult: 2
    decay_mult: 0
  }
  convolution_param {
    num_output: 64
    pad: 3
    kernel_size: 7
    stride: 2
    weight_filler {
      type: "xavier"
      std: 0.1
    }
    bias_filler {
      type: "constant"
      value: 0.2
    }
  }
}
layer {
  name: "conv1/relu_7x7"
  type: "ReLU"
  bottom: "conv1/7x7_s2"
  top: "conv1/7x7_s2"
}
layer {
  name: "pool1/3x3_s2"
  type: "Pooling"
  bottom: "conv1/7x7_s2"
  top: "pool1/3x3_s2"
  pooling_param {
    pool: MAX
    kernel_size: 3
    stride: 2
  }
}
layer {
  name: "pool1/norm1"
  type: "LRN"
  bottom: "pool1/3x3_s2"
  top: "pool1/norm1"
  lrn_param {
    local_size: 5
    alpha: 0.0001
    beta: 0.75
  }
}
layer {
  name: "conv2/3x3_reduce"
  type: "Convolution"
  bottom: "pool1/norm1"
  top: "conv2/3x3_reduce"
  param {
    lr_mult: 1
    decay_mult: 1
  }
  param {
    lr_mult: 2
    decay_mult: 0
  }
  convolution_param {
    num_output: 64
    kernel_size: 1
    weight_filler {
      type: "xavier"
      std: 0.1
    }
    bias_filler {
      type: "constant"
      value: 0.2
    }
  }
}
layer {
  name: "conv2/relu_3x3_reduce"
  type: "ReLU"
  bottom: "conv2/3x3_reduce"
  top: "conv2/3x3_reduce"
}
layer {
  name: "conv2/3x3"
  type: "Convolution"
  bottom: "conv2/3x3_reduce"
  top: "conv2/3x3"
  param {
    lr_mult: 1
    decay_mult: 1
  }
  param {
    lr_mult: 2
    decay_mult: 0
  }
  convolution_param {
    num_output: 192
    pad: 1
    kernel_size: 3
    weight_filler {
      type: "xavier"
      std: 0.03
    }
    bias_filler {
      type: "constant"
      value: 0.2
    }
  }
}
layer {
  name: "conv2/relu_3x3"
  type: "ReLU"
  bottom: "conv2/3x3"
  top: "conv2/3x3"
}
layer {
  name: "conv2/norm2"
  type: "LRN"
  bottom: "conv2/3x3"
  top: "conv2/norm2"
  lrn_param {
    local_size: 5
    alpha: 0.0001
    beta: 0.75
  }
}
layer {
  name: "pool2/3x3_s2"
  type: "Pooling"
  bottom: "conv2/norm2"
  top: "pool2/3x3_s2"
  pooling_param {
    pool: MAX
    kernel_size: 3
    stride: 2
  }
}
layer {
  name: "inception_3a/1x1"
  type: "Convolution"
  bottom: "pool2/3x3_s2"
  top: "inception_3a/1x1"
  param {
    lr_mult: 1
    decay_mult: 1
  }
  param {
    lr_mult: 2
    decay_mult: 0
  }
  convolution_param {
    num_output: 64
    kernel_size: 1
    weight_filler {
      type: "xavier"
      std: 0.03
    }
    bias_filler {
      type: "constant"
      value: 0.2
    }
  }
}
layer {
  name: "inception_3a/relu_1x1"
  type: "ReLU"
  bottom: "inception_3a/1x1"
  top: "inception_3a/1x1"
}
layer {
  name: "inception_3a/3x3_reduce"
  type: "Convolution"
  bottom: "pool2/3x3_s2"
  top: "inception_3a/3x3_reduce"
  param {
    lr_mult: 1
    decay_mult: 1
  }
  param {
    lr_mult: 2
    decay_mult: 0
  }
  convolution_param {
    num_output: 96
    kernel_size: 1
    weight_filler {
      type: "xavier"
      std: 0.09
    }
    bias_filler {
      type: "constant"
      value: 0.2
    }
  }
}
layer {
  name: "inception_3a/relu_3x3_reduce"
  type: "ReLU"
  bottom: "inception_3a/3x3_reduce"
  top: "inception_3a/3x3_reduce"
}
layer {
  name: "inception_3a/3x3"
  type: "Convolution"
  bottom: "inception_3a/3x3_reduce"
  top: "inception_3a/3x3"
  param {
    lr_mult: 1
    decay_mult: 1
  }
  param {
    lr_mult: 2
    decay_mult: 0
  }
  convolution_param {
    num_output: 128
    pad: 1
    kernel_size: 3
    weight_filler {
      type: "xavier"
      std: 0.03
    }
    bias_filler {
      type: "constant"
      value: 0.2
    }
  }
}
layer {
  name: "inception_3a/relu_3x3"
  type: "ReLU"
  bottom: "inception_3a/3x3"
  top: "inception_3a/3x3"
}
layer {
  name: "inception_3a/5x5_reduce"
  type: "Convolution"
  bottom: "pool2/3x3_s2"
  top: "inception_3a/5x5_reduce"
  param {
    lr_mult: 1
    decay_mult: 1
  }
  param {
    lr_mult: 2
    decay_mult: 0
  }
  convolution_param {
    num_output: 16
    kernel_size: 1
    weight_filler {
      type: "xavier"
      std: 0.2
    }
    bias_filler {
      type: "constant"
      value: 0.2
    }
  }
}
layer {
  name: "inception_3a/relu_5x5_reduce"
  type: "ReLU"
  bottom: "inception_3a/5x5_reduce"
  top: "inception_3a/5x5_reduce"
}
layer {
  name: "inception_3a/5x5"
  type: "Convolution"
  bottom: "inception_3a/5x5_reduce"
  top: "inception_3a/5x5"
  param {
    lr_mult: 1
    decay_mult: 1
  }
  param {
    lr_mult: 2
    decay_mult: 0
  }
  convolution_param {
    num_output: 32
    pad: 2
    kernel_size: 5
    weight_filler {
      type: "xavier"
      std: 0.03
    }
    bias_filler {
      type: "constant"
      value: 0.2
    }
  }
}
layer {
  name: "inception_3a/relu_5x5"
  type: "ReLU"
  bottom: "inception_3a/5x5"
  top: "inception_3a/5x5"
}
layer {
  name: "inception_3a/pool"
  type: "Pooling"
  bottom: "pool2/3x3_s2"
  top: "inception_3a/pool"
  pooling_param {
    pool: MAX
    kernel_size: 3
    stride: 1
    pad: 1
  }
}
layer {
  name: "inception_3a/pool_proj"
  type: "Convolution"
  bottom: "inception_3a/pool"
  top: "inception_3a/pool_proj"
  param {
    lr_mult: 1
    decay_mult: 1
  }
  param {
    lr_mult: 2
    decay_mult: 0
  }
  convolution_param {
    num_output: 32
    kernel_size: 1
    weight_filler {
      type: "xavier"
      std: 0.1
    }
    bias_filler {
      type: "constant"
      value: 0.2
    }
  }
}
layer {
  name: "inception_3a/relu_pool_proj"
  type: "ReLU"
  bottom: "inception_3a/pool_proj"
  top: "inception_3a/pool_proj"
}
layer {
  name: "inception_3a/output"
  type: "Concat"
  bottom: "inception_3a/1x1"
  bottom: "inception_3a/3x3"
  bottom: "inception_3a/5x5"
  bottom: "inception_3a/pool_proj"
  top: "inception_3a/output"
}
layer {
  name: "inception_3b/1x1"
  type: "Convolution"
  bottom: "inception_3a/output"
  top: "inception_3b/1x1"
  param {
    lr_mult: 1
    decay_mult: 1
  }
  param {
    lr_mult: 2
    decay_mult: 0
  }
  convolution_param {
    num_output: 128
    kernel_size: 1
    weight_filler {
      type: "xavier"
      std: 0.03
    }
    bias_filler {
      type: "constant"
      value: 0.2
    }
  }
}
layer {
  name: "inception_3b/relu_1x1"
  type: "ReLU"
  bottom: "inception_3b/1x1"
  top: "inception_3b/1x1"
}
layer {
  name: "inception_3b/3x3_reduce"
  type: "Convolution"
  bottom: "inception_3a/output"
  top: "inception_3b/3x3_reduce"
  param {
    lr_mult: 1
    decay_mult: 1
  }
  param {
    lr_mult: 2
    decay_mult: 0
  }
  convolution_param {
    num_output: 128
    kernel_size: 1
    weight_filler {
      type: "xavier"
      std: 0.09
    }
    bias_filler {
      type: "constant"
      value: 0.2
    }
  }
}
layer {
  name: "inception_3b/relu_3x3_reduce"
  type: "ReLU"
  bottom: "inception_3b/3x3_reduce"
  top: "inception_3b/3x3_reduce"
}
layer {
  name: "inception_3b/3x3"
  type: "Convolution"
  bottom: "inception_3b/3x3_reduce"
  top: "inception_3b/3x3"
  param {
    lr_mult: 1
    decay_mult: 1
  }
  param {
    lr_mult: 2
    decay_mult: 0
  }
  convolution_param {
    num_output: 192
    pad: 1
    kernel_size: 3
    weight_filler {
      type: "xavier"
      std: 0.03
    }
    bias_filler {
      type: "constant"
      value: 0.2
    }
  }
}
layer {
  name: "inception_3b/relu_3x3"
  type: "ReLU"
  bottom: "inception_3b/3x3"
  top: "inception_3b/3x3"
}
layer {
  name: "inception_3b/5x5_reduce"
  type: "Convolution"
  bottom: "inception_3a/output"
  top: "inception_3b/5x5_reduce"
  param {
    lr_mult: 1
    decay_mult: 1
  }
  param {
    lr_mult: 2
    decay_mult: 0
  }
  convolution_param {
    num_output: 32
    kernel_size: 1
    weight_filler {
      type: "xavier"
      std: 0.2
    }
    bias_filler {
      type: "constant"
      value: 0.2
    }
  }
}
layer {
  name: "inception_3b/relu_5x5_reduce"
  type: "ReLU"
  bottom: "inception_3b/5x5_reduce"
  top: "inception_3b/5x5_reduce"
}
layer {
  name: "inception_3b/5x5"
  type: "Convolution"
  bottom: "inception_3b/5x5_reduce"
  top: "inception_3b/5x5"
  param {
    lr_mult: 1
    decay_mult: 1
  }
  param {
    lr_mult: 2
    decay_mult: 0
  }
  convolution_param {
    num_output: 96
    pad: 2
    kernel_size: 5
    weight_filler {
      type: "xavier"
      std: 0.03
    }
    bias_filler {
      type: "constant"
      value: 0.2
    }
  }
}
layer {
  name: "inception_3b/relu_5x5"
  type: "ReLU"
  bottom: "inception_3b/5x5"
  top: "inception_3b/5x5"
}
layer {
  name: "inception_3b/pool"
  type: "Pooling"
  bottom: "inception_3a/output"
  top: "inception_3b/pool"
  pooling_param {
    pool: MAX
    kernel_size: 3
    stride: 1
    pad: 1
  }
}
layer {
  name: "inception_3b/pool_proj"
  type: "Convolution"
  bottom: "inception_3b/pool"
  top: "inception_3b/pool_proj"
  param {
    lr_mult: 1
    decay_mult: 1
  }
  param {
    lr_mult: 2
    decay_mult: 0
  }
  convolution_param {
    num_output: 64
    kernel_size: 1
    weight_filler {
      type: "xavier"
      std: 0.1
    }
    bias_filler {
      type: "constant"
      value: 0.2
    }
  }
}
layer {
  name: "inception_3b/relu_pool_proj"
  type: "ReLU"
  bottom: "inception_3b/pool_proj"
  top: "inception_3b/pool_proj"
}
layer {
  name: "inception_3b/output"
  type: "Concat"
  bottom: "inception_3b/1x1"
  bottom: "inception_3b/3x3"
  bottom: "inception_3b/5x5"
  bottom: "inception_3b/pool_proj"
  top: "inception_3b/output"
}
layer {
  name: "pool3/3x3_s2"
  type: "Pooling"
  bottom: "inception_3b/output"
  top: "pool3/3x3_s2"
  pooling_param {
    pool: MAX
    kernel_size: 3
    stride: 2
  }
}
layer {
  name: "inception_4a/1x1"
  type: "Convolution"
  bottom: "pool3/3x3_s2"
  top: "inception_4a/1x1"
  param {
    lr_mult: 1
    decay_mult: 1
  }
  param {
    lr_mult: 2
    decay_mult: 0
  }
  convolution_param {
    num_output: 192
    kernel_size: 1
    weight_filler {
      type: "xavier"
      std: 0.03
    }
    bias_filler {
      type: "constant"
      value: 0.2
    }
  }
}
layer {
  name: "inception_4a/relu_1x1"
  type: "ReLU"
  bottom: "inception_4a/1x1"
  top: "inception_4a/1x1"
}
layer {
  name: "inception_4a/3x3_reduce"
  type: "Convolution"
  bottom: "pool3/3x3_s2"
  top: "inception_4a/3x3_reduce"
  param {
    lr_mult: 1
    decay_mult: 1
  }
  param {
    lr_mult: 2
    decay_mult: 0
  }
  convolution_param {
    num_output: 96
    kernel_size: 1
    weight_filler {
      type: "xavier"
      std: 0.09
    }
    bias_filler {
      type: "constant"
      value: 0.2
    }
  }
}
layer {
  name: "inception_4a/relu_3x3_reduce"
  type: "ReLU"
  bottom: "inception_4a/3x3_reduce"
  top: "inception_4a/3x3_reduce"
}
layer {
  name: "inception_4a/3x3"
  type: "Convolution"
  bottom: "inception_4a/3x3_reduce"
  top: "inception_4a/3x3"
  param {
    lr_mult: 1
    decay_mult: 1
  }
  param {
    lr_mult: 2
    decay_mult: 0
  }
  convolution_param {
    num_output: 208
    pad: 1
    kernel_size: 3
    weight_filler {
      type: "xavier"
      std: 0.03
    }
    bias_filler {
      type: "constant"
      value: 0.2
    }
  }
}
layer {
  name: "inception_4a/relu_3x3"
  type: "ReLU"
  bottom: "inception_4a/3x3"
  top: "inception_4a/3x3"
}
layer {
  name: "inception_4a/5x5_reduce"
  type: "Convolution"
  bottom: "pool3/3x3_s2"
  top: "inception_4a/5x5_reduce"
  param {
    lr_mult: 1
    decay_mult: 1
  }
  param {
    lr_mult: 2
    decay_mult: 0
  }
  convolution_param {
    num_output: 16
    kernel_size: 1
    weight_filler {
      type: "xavier"
      std: 0.2
    }
    bias_filler {
      type: "constant"
      value: 0.2
    }
  }
}
layer {
  name: "inception_4a/relu_5x5_reduce"
  type: "ReLU"
  bottom: "inception_4a/5x5_reduce"
  top: "inception_4a/5x5_reduce"
}
layer {
  name: "inception_4a/5x5"
  type: "Convolution"
  bottom: "inception_4a/5x5_reduce"
  top: "inception_4a/5x5"
  param {
    lr_mult: 1
    decay_mult: 1
  }
  param {
    lr_mult: 2
    decay_mult: 0
  }
  convolution_param {
    num_output: 48
    pad: 2
    kernel_size: 5
    weight_filler {
      type: "xavier"
      std: 0.03
    }
    bias_filler {
      type: "constant"
      value: 0.2
    }
  }
}
layer {
  name: "inception_4a/relu_5x5"
  type: "ReLU"
  bottom: "inception_4a/5x5"
  top: "inception_4a/5x5"
}
layer {
  name: "inception_4a/pool"
  type: "Pooling"
  bottom: "pool3/3x3_s2"
  top: "inception_4a/pool"
  pooling_param {
    pool: MAX
    kernel_size: 3
    stride: 1
    pad: 1
  }
}
layer {
  name: "inception_4a/pool_proj"
  type: "Convolution"
  bottom: "inception_4a/pool"
  top: "inception_4a/pool_proj"
  param {
    lr_mult: 1
    decay_mult: 1
  }
  param {
    lr_mult: 2
    decay_mult: 0
  }
  convolution_param {
    num_output: 64
    kernel_size: 1
    weight_filler {
      type: "xavier"
      std: 0.1
    }
    bias_filler {
      type: "constant"
      value: 0.2
    }
  }
}
layer {
  name: "inception_4a/relu_pool_proj"
  type: "ReLU"
  bottom: "inception_4a/pool_proj"
  top: "inception_4a/pool_proj"
}
layer {
  name: "inception_4a/output"
  type: "Concat"
  bottom: "inception_4a/1x1"
  bottom: "inception_4a/3x3"
  bottom: "inception_4a/5x5"
  bottom: "inception_4a/pool_proj"
  top: "inception_4a/output"
}
layer {
  name: "inception_4b/1x1"
  type: "Convolution"
  bottom: "inception_4a/output"
  top: "inception_4b/1x1"
  param {
    lr_mult: 1
    decay_mult: 1
  }
  param {
    lr_mult: 2
    decay_mult: 0
  }
  convolution_param {
    num_output: 160
    kernel_size: 1
    weight_filler {
      type: "xavier"
      std: 0.03
    }
    bias_filler {
      type: "constant"
      value: 0.2
    }
  }
}
layer {
  name: "inception_4b/relu_1x1"
  type: "ReLU"
  bottom: "inception_4b/1x1"
  top: "inception_4b/1x1"
}
layer {
  name: "inception_4b/3x3_reduce"
  type: "Convolution"
  bottom: "inception_4a/output"
  top: "inception_4b/3x3_reduce"
  param {
    lr_mult: 1
    decay_mult: 1
  }
  param {
    lr_mult: 2
    decay_mult: 0
  }
  convolution_param {
    num_output: 112
    kernel_size: 1
    weight_filler {
      type: "xavier"
      std: 0.09
    }
    bias_filler {
      type: "constant"
      value: 0.2
    }
  }
}
layer {
  name: "inception_4b/relu_3x3_reduce"
  type: "ReLU"
  bottom: "inception_4b/3x3_reduce"
  top: "inception_4b/3x3_reduce"
}
layer {
  name: "inception_4b/3x3"
  type: "Convolution"
  bottom: "inception_4b/3x3_reduce"
  top: "inception_4b/3x3"
  param {
    lr_mult: 1
    decay_mult: 1
  }
  param {
    lr_mult: 2
    decay_mult: 0
  }
  convolution_param {
    num_output: 224
    pad: 1
    kernel_size: 3
    weight_filler {
      type: "xavier"
      std: 0.03
    }
    bias_filler {
      type: "constant"
      value: 0.2
    }
  }
}
layer {
  name: "inception_4b/relu_3x3"
  type: "ReLU"
  bottom: "inception_4b/3x3"
  top: "inception_4b/3x3"
}
layer {
  name: "inception_4b/5x5_reduce"
  type: "Convolution"
  bottom: "inception_4a/output"
  top: "inception_4b/5x5_reduce"
  param {
    lr_mult: 1
    decay_mult: 1
  }
  param {
    lr_mult: 2
    decay_mult: 0
  }
  convolution_param {
    num_output: 24
    kernel_size: 1
    weight_filler {
      type: "xavier"
      std: 0.2
    }
    bias_filler {
      type: "constant"
      value: 0.2
    }
  }
}
layer {
  name: "inception_4b/relu_5x5_reduce"
  type: "ReLU"
  bottom: "inception_4b/5x5_reduce"
  top: "inception_4b/5x5_reduce"
}
layer {
  name: "inception_4b/5x5"
  type: "Convolution"
  bottom: "inception_4b/5x5_reduce"
  top: "inception_4b/5x5"
  param {
    lr_mult: 1
    decay_mult: 1
  }
  param {
    lr_mult: 2
    decay_mult: 0
  }
  convolution_param {
    num_output: 64
    pad: 2
    kernel_size: 5
    weight_filler {
      type: "xavier"
      std: 0.03
    }
    bias_filler {
      type: "constant"
      value: 0.2
    }
  }
}
layer {
  name: "inception_4b/relu_5x5"
  type: "ReLU"
  bottom: "inception_4b/5x5"
  top: "inception_4b/5x5"
}
layer {
  name: "inception_4b/pool"
  type: "Pooling"
  bottom: "inception_4a/output"
  top: "inception_4b/pool"
  pooling_param {
    pool: MAX
    kernel_size: 3
    stride: 1
    pad: 1
  }
}
layer {
  name: "inception_4b/pool_proj"
  type: "Convolution"
  bottom: "inception_4b/pool"
  top: "inception_4b/pool_proj"
  param {
    lr_mult: 1
    decay_mult: 1
  }
  param {
    lr_mult: 2
    decay_mult: 0
  }
  convolution_param {
    num_output: 64
    kernel_size: 1
    weight_filler {
      type: "xavier"
      std: 0.1
    }
    bias_filler {
      type: "constant"
      value: 0.2
    }
  }
}
layer {
  name: "inception_4b/relu_pool_proj"
  type: "ReLU"
  bottom: "inception_4b/pool_proj"
  top: "inception_4b/pool_proj"
}
layer {
  name: "inception_4b/output"
  type: "Concat"
  bottom: "inception_4b/1x1"
  bottom: "inception_4b/3x3"
  bottom: "inception_4b/5x5"
  bottom: "inception_4b/pool_proj"
  top: "inception_4b/output"
}
layer {
  name: "inception_4c/1x1"
  type: "Convolution"
  bottom: "inception_4b/output"
  top: "inception_4c/1x1"
  param {
    lr_mult: 1
    decay_mult: 1
  }
  param {
    lr_mult: 2
    decay_mult: 0
  }
  convolution_param {
    num_output: 128
    kernel_size: 1
    weight_filler {
      type: "xavier"
      std: 0.03
    }
    bias_filler {
      type: "constant"
      value: 0.2
    }
  }
}
layer {
  name: "inception_4c/relu_1x1"
  type: "ReLU"
  bottom: "inception_4c/1x1"
  top: "inception_4c/1x1"
}
layer {
  name: "inception_4c/3x3_reduce"
  type: "Convolution"
  bottom: "inception_4b/output"
  top: "inception_4c/3x3_reduce"
  param {
    lr_mult: 1
    decay_mult: 1
  }
  param {
    lr_mult: 2
    decay_mult: 0
  }
  convolution_param {
    num_output: 128
    kernel_size: 1
    weight_filler {
      type: "xavier"
      std: 0.09
    }
    bias_filler {
      type: "constant"
      value: 0.2
    }
  }
}
layer {
  name: "inception_4c/relu_3x3_reduce"
  type: "ReLU"
  bottom: "inception_4c/3x3_reduce"
  top: "inception_4c/3x3_reduce"
}
layer {
  name: "inception_4c/3x3"
  type: "Convolution"
  bottom: "inception_4c/3x3_reduce"
  top: "inception_4c/3x3"
  param {
    lr_mult: 1
    decay_mult: 1
  }
  param {
    lr_mult: 2
    decay_mult: 0
  }
  convolution_param {
    num_output: 256
    pad: 1
    kernel_size: 3
    weight_filler {
      type: "xavier"
      std: 0.03
    }
    bias_filler {
      type: "constant"
      value: 0.2
    }
  }
}
layer {
  name: "inception_4c/relu_3x3"
  type: "ReLU"
  bottom: "inception_4c/3x3"
  top: "inception_4c/3x3"
}
layer {
  name: "inception_4c/5x5_reduce"
  type: "Convolution"
  bottom: "inception_4b/output"
  top: "inception_4c/5x5_reduce"
  param {
    lr_mult: 1
    decay_mult: 1
  }
  param {
    lr_mult: 2
    decay_mult: 0
  }
  convolution_param {
    num_output: 24
    kernel_size: 1
    weight_filler {
      type: "xavier"
      std: 0.2
    }
    bias_filler {
      type: "constant"
      value: 0.2
    }
  }
}
layer {
  name: "inception_4c/relu_5x5_reduce"
  type: "ReLU"
  bottom: "inception_4c/5x5_reduce"
  top: "inception_4c/5x5_reduce"
}
layer {
  name: "inception_4c/5x5"
  type: "Convolution"
  bottom: "inception_4c/5x5_reduce"
  top: "inception_4c/5x5"
  param {
    lr_mult: 1
    decay_mult: 1
  }
  param {
    lr_mult: 2
    decay_mult: 0
  }
  convolution_param {
    num_output: 64
    pad: 2
    kernel_size: 5
    weight_filler {
      type: "xavier"
      std: 0.03
    }
    bias_filler {
      type: "constant"
      value: 0.2
    }
  }
}
layer {
  name: "inception_4c/relu_5x5"
  type: "ReLU"
  bottom: "inception_4c/5x5"
  top: "inception_4c/5x5"
}
layer {
  name: "inception_4c/pool"
  type: "Pooling"
  bottom: "inception_4b/output"
  top: "inception_4c/pool"
  pooling_param {
    pool: MAX
    kernel_size: 3
    stride: 1
    pad: 1
  }
}
layer {
  name: "inception_4c/pool_proj"
  type: "Convolution"
  bottom: "inception_4c/pool"
  top: "inception_4c/pool_proj"
  param {
    lr_mult: 1
    decay_mult: 1
  }
  param {
    lr_mult: 2
    decay_mult: 0
  }
  convolution_param {
    num_output: 64
    kernel_size: 1
    weight_filler {
      type: "xavier"
      std: 0.1
    }
    bias_filler {
      type: "constant"
      value: 0.2
    }
  }
}
layer {
  name: "inception_4c/relu_pool_proj"
  type: "ReLU"
  bottom: "inception_4c/pool_proj"
  top: "inception_4c/pool_proj"
}
layer {
  name: "inception_4c/output"
  type: "Concat"
  bottom: "inception_4c/1x1"
  bottom: "inception_4c/3x3"
  bottom: "inception_4c/5x5"
  bottom: "inception_4c/pool_proj"
  top: "inception_4c/output"
}
layer {
  name: "inception_4d/1x1"
  type: "Convolution"
  bottom: "inception_4c/output"
  top: "inception_4d/1x1"
  param {
    lr_mult: 1
    decay_mult: 1
  }
  param {
    lr_mult: 2
    decay_mult: 0
  }
  convolution_param {
    num_output: 112
    kernel_size: 1
    weight_filler {
      type: "xavier"
      std: 0.03
    }
    bias_filler {
      type: "constant"
      value: 0.2
    }
  }
}
layer {
  name: "inception_4d/relu_1x1"
  type: "ReLU"
  bottom: "inception_4d/1x1"
  top: "inception_4d/1x1"
}
layer {
  name: "inception_4d/3x3_reduce"
  type: "Convolution"
  bottom: "inception_4c/output"
  top: "inception_4d/3x3_reduce"
  param {
    lr_mult: 1
    decay_mult: 1
  }
  param {
    lr_mult: 2
    decay_mult: 0
  }
  convolution_param {
    num_output: 144
    kernel_size: 1
    weight_filler {
      type: "xavier"
      std: 0.09
    }
    bias_filler {
      type: "constant"
      value: 0.2
    }
  }
}
layer {
  name: "inception_4d/relu_3x3_reduce"
  type: "ReLU"
  bottom: "inception_4d/3x3_reduce"
  top: "inception_4d/3x3_reduce"
}
layer {
  name: "inception_4d/3x3"
  type: "Convolution"
  bottom: "inception_4d/3x3_reduce"
  top: "inception_4d/3x3"
  param {
    lr_mult: 1
    decay_mult: 1
  }
  param {
    lr_mult: 2
    decay_mult: 0
  }
  convolution_param {
    num_output: 288
    pad: 1
    kernel_size: 3
    weight_filler {
      type: "xavier"
      std: 0.03
    }
    bias_filler {
      type: "constant"
      value: 0.2
    }
  }
}
layer {
  name: "inception_4d/relu_3x3"
  type: "ReLU"
  bottom: "inception_4d/3x3"
  top: "inception_4d/3x3"
}
layer {
  name: "inception_4d/5x5_reduce"
  type: "Convolution"
  bottom: "inception_4c/output"
  top: "inception_4d/5x5_reduce"
  param {
    lr_mult: 1
    decay_mult: 1
  }
  param {
    lr_mult: 2
    decay_mult: 0
  }
  convolution_param {
    num_output: 32
    kernel_size: 1
    weight_filler {
      type: "xavier"
      std: 0.2
    }
    bias_filler {
      type: "constant"
      value: 0.2
    }
  }
}
layer {
  name: "inception_4d/relu_5x5_reduce"
  type: "ReLU"
  bottom: "inception_4d/5x5_reduce"
  top: "inception_4d/5x5_reduce"
}
layer {
  name: "inception_4d/5x5"
  type: "Convolution"
  bottom: "inception_4d/5x5_reduce"
  top: "inception_4d/5x5"
  param {
    lr_mult: 1
    decay_mult: 1
  }
  param {
    lr_mult: 2
    decay_mult: 0
  }
  convolution_param {
    num_output: 64
    pad: 2
    kernel_size: 5
    weight_filler {
      type: "xavier"
      std: 0.03
    }
    bias_filler {
      type: "constant"
      value: 0.2
    }
  }
}
layer {
  name: "inception_4d/relu_5x5"
  type: "ReLU"
  bottom: "inception_4d/5x5"
  top: "inception_4d/5x5"
}
layer {
  name: "inception_4d/pool"
  type: "Pooling"
  bottom: "inception_4c/output"
  top: "inception_4d/pool"
  pooling_param {
    pool: MAX
    kernel_size: 3
    stride: 1
    pad: 1
  }
}
layer {
  name: "inception_4d/pool_proj"
  type: "Convolution"
  bottom: "inception_4d/pool"
  top: "inception_4d/pool_proj"
  param {
    lr_mult: 1
    decay_mult: 1
  }
  param {
    lr_mult: 2
    decay_mult: 0
  }
  convolution_param {
    num_output: 64
    kernel_size: 1
    weight_filler {
      type: "xavier"
      std: 0.1
    }
    bias_filler {
      type: "constant"
      value: 0.2
    }
  }
}
layer {
  name: "inception_4d/relu_pool_proj"
  type: "ReLU"
  bottom: "inception_4d/pool_proj"
  top: "inception_4d/pool_proj"
}
layer {
  name: "inception_4d/output"
  type: "Concat"
  bottom: "inception_4d/1x1"
  bottom: "inception_4d/3x3"
  bottom: "inception_4d/5x5"
  bottom: "inception_4d/pool_proj"
  top: "inception_4d/output"
}
layer {
  name: "inception_4e/1x1"
  type: "Convolution"
  bottom: "inception_4d/output"
  top: "inception_4e/1x1"
  param {
    lr_mult: 1
    decay_mult: 1
  }
  param {
    lr_mult: 2
    decay_mult: 0
  }
  convolution_param {
    num_output: 256
    kernel_size: 1
    weight_filler {
      type: "xavier"
      std: 0.03
    }
    bias_filler {
      type: "constant"
      value: 0.2
    }
  }
}
layer {
  name: "inception_4e/relu_1x1"
  type: "ReLU"
  bottom: "inception_4e/1x1"
  top: "inception_4e/1x1"
}
layer {
  name: "inception_4e/3x3_reduce"
  type: "Convolution"
  bottom: "inception_4d/output"
  top: "inception_4e/3x3_reduce"
  param {
    lr_mult: 1
    decay_mult: 1
  }
  param {
    lr_mult: 2
    decay_mult: 0
  }
  convolution_param {
    num_output: 160
    kernel_size: 1
    weight_filler {
      type: "xavier"
      std: 0.09
    }
    bias_filler {
      type: "constant"
      value: 0.2
    }
  }
}
layer {
  name: "inception_4e/relu_3x3_reduce"
  type: "ReLU"
  bottom: "inception_4e/3x3_reduce"
  top: "inception_4e/3x3_reduce"
}
layer {
  name: "inception_4e/3x3"
  type: "Convolution"
  bottom: "inception_4e/3x3_reduce"
  top: "inception_4e/3x3"
  param {
    lr_mult: 1
    decay_mult: 1
  }
  param {
    lr_mult: 2
    decay_mult: 0
  }
  convolution_param {
    num_output: 320
    pad: 1
    kernel_size: 3
    weight_filler {
      type: "xavier"
      std: 0.03
    }
    bias_filler {
      type: "constant"
      value: 0.2
    }
  }
}
layer {
  name: "inception_4e/relu_3x3"
  type: "ReLU"
  bottom: "inception_4e/3x3"
  top: "inception_4e/3x3"
}
layer {
  name: "inception_4e/5x5_reduce"
  type: "Convolution"
  bottom: "inception_4d/output"
  top: "inception_4e/5x5_reduce"
  param {
    lr_mult: 1
    decay_mult: 1
  }
  param {
    lr_mult: 2
    decay_mult: 0
  }
  convolution_param {
    num_output: 32
    kernel_size: 1
    weight_filler {
      type: "xavier"
      std: 0.2
    }
    bias_filler {
      type: "constant"
      value: 0.2
    }
  }
}
layer {
  name: "inception_4e/relu_5x5_reduce"
  type: "ReLU"
  bottom: "inception_4e/5x5_reduce"
  top: "inception_4e/5x5_reduce"
}
layer {
  name: "inception_4e/5x5"
  type: "Convolution"
  bottom: "inception_4e/5x5_reduce"
  top: "inception_4e/5x5"
  param {
    lr_mult: 1
    decay_mult: 1
  }
  param {
    lr_mult: 2
    decay_mult: 0
  }
  convolution_param {
    num_output: 128
    pad: 2
    kernel_size: 5
    weight_filler {
      type: "xavier"
      std: 0.03
    }
    bias_filler {
      type: "constant"
      value: 0.2
    }
  }
}
layer {
  name: "inception_4e/relu_5x5"
  type: "ReLU"
  bottom: "inception_4e/5x5"
  top: "inception_4e/5x5"
}
layer {
  name: "inception_4e/pool"
  type: "Pooling"
  bottom: "inception_4d/output"
  top: "inception_4e/pool"
  pooling_param {
    pool: MAX
    kernel_size: 3
    stride: 1
    pad: 1
  }
}
layer {
  name: "inception_4e/pool_proj"
  type: "Convolution"
  bottom: "inception_4e/pool"
  top: "inception_4e/pool_proj"
  param {
    lr_mult: 1
    decay_mult: 1
  }
  param {
    lr_mult: 2
    decay_mult: 0
  }
  convolution_param {
    num_output: 128
    kernel_size: 1
    weight_filler {
      type: "xavier"
      std: 0.1
    }
    bias_filler {
      type: "constant"
      value: 0.2
    }
  }
}
layer {
  name: "inception_4e/relu_pool_proj"
  type: "ReLU"
  bottom: "inception_4e/pool_proj"
  top: "inception_4e/pool_proj"
}
layer {
  name: "inception_4e/output"
  type: "Concat"
  bottom: "inception_4e/1x1"
  bottom: "inception_4e/3x3"
  bottom: "inception_4e/5x5"
  bottom: "inception_4e/pool_proj"
  top: "inception_4e/output"
}
layer {
  name: "pool4/3x3_s2"
  type: "Pooling"
  bottom: "inception_4e/output"
  top: "pool4/3x3_s2"
  pooling_param {
    pool: MAX
    kernel_size: 3
    stride: 2
  }
}
layer {
  name: "inception_5a/1x1"
  type: "Convolution"
  bottom: "pool4/3x3_s2"
  top: "inception_5a/1x1"
  param {
    lr_mult: 1
    decay_mult: 1
  }
  param {
    lr_mult: 2
    decay_mult: 0
  }
  convolution_param {
    num_output: 256
    kernel_size: 1
    weight_filler {
      type: "xavier"
      std: 0.03
    }
    bias_filler {
      type: "constant"
      value: 0.2
    }
  }
}
layer {
  name: "inception_5a/relu_1x1"
  type: "ReLU"
  bottom: "inception_5a/1x1"
  top: "inception_5a/1x1"
}
layer {
  name: "inception_5a/3x3_reduce"
  type: "Convolution"
  bottom: "pool4/3x3_s2"
  top: "inception_5a/3x3_reduce"
  param {
    lr_mult: 1
    decay_mult: 1
  }
  param {
    lr_mult: 2
    decay_mult: 0
  }
  convolution_param {
    num_output: 160
    kernel_size: 1
    weight_filler {
      type: "xavier"
      std: 0.09
    }
    bias_filler {
      type: "constant"
      value: 0.2
    }
  }
}
layer {
  name: "inception_5a/relu_3x3_reduce"
  type: "ReLU"
  bottom: "inception_5a/3x3_reduce"
  top: "inception_5a/3x3_reduce"
}
layer {
  name: "inception_5a/3x3"
  type: "Convolution"
  bottom: "inception_5a/3x3_reduce"
  top: "inception_5a/3x3"
  param {
    lr_mult: 1
    decay_mult: 1
  }
  param {
    lr_mult: 2
    decay_mult: 0
  }
  convolution_param {
    num_output: 320
    pad: 1
    kernel_size: 3
    weight_filler {
      type: "xavier"
      std: 0.03
    }
    bias_filler {
      type: "constant"
      value: 0.2
    }
  }
}
layer {
  name: "inception_5a/relu_3x3"
  type: "ReLU"
  bottom: "inception_5a/3x3"
  top: "inception_5a/3x3"
}
layer {
  name: "inception_5a/5x5_reduce"
  type: "Convolution"
  bottom: "pool4/3x3_s2"
  top: "inception_5a/5x5_reduce"
  param {
    lr_mult: 1
    decay_mult: 1
  }
  param {
    lr_mult: 2
    decay_mult: 0
  }
  convolution_param {
    num_output: 32
    kernel_size: 1
    weight_filler {
      type: "xavier"
      std: 0.2
    }
    bias_filler {
      type: "constant"
      value: 0.2
    }
  }
}
layer {
  name: "inception_5a/relu_5x5_reduce"
  type: "ReLU"
  bottom: "
I0707 16:02:45.654844  9073 net.cpp:435] Input 0 -> data
I0707 16:02:45.654911  9073 layer_factory.hpp:76] Creating layer conv1/7x7_s2
I0707 16:02:45.654927  9073 net.cpp:110] Creating Layer conv1/7x7_s2
I0707 16:02:45.654937  9073 net.cpp:477] conv1/7x7_s2 <- data
I0707 16:02:45.654948  9073 net.cpp:433] conv1/7x7_s2 -> conv1/7x7_s2
I0707 16:02:46.258594  9073 net.cpp:155] Setting up conv1/7x7_s2
I0707 16:02:46.258667  9073 net.cpp:163] Top shape: 10 64 112 112 (8028160)
I0707 16:02:46.258725  9073 layer_factory.hpp:76] Creating layer conv1/relu_7x7
I0707 16:02:46.258746  9073 net.cpp:110] Creating Layer conv1/relu_7x7
I0707 16:02:46.258754  9073 net.cpp:477] conv1/relu_7x7 <- conv1/7x7_s2
I0707 16:02:46.258761  9073 net.cpp:419] conv1/relu_7x7 -> conv1/7x7_s2 (in-place)
I0707 16:02:46.259341  9073 net.cpp:155] Setting up conv1/relu_7x7
I0707 16:02:46.259354  9073 net.cpp:163] Top shape: 10 64 112 112 (8028160)
I0707 16:02:46.259361  9073 layer_factory.hpp:76] Creating layer pool1/3x3_s2
I0707 16:02:46.259377  9073 net.cpp:110] Creating Layer pool1/3x3_s2
I0707 16:02:46.259382  9073 net.cpp:477] pool1/3x3_s2 <- conv1/7x7_s2
I0707 16:02:46.259389  9073 net.cpp:433] pool1/3x3_s2 -> pool1/3x3_s2
I0707 16:02:46.259510  9073 net.cpp:155] Setting up pool1/3x3_s2
I0707 16:02:46.259519  9073 net.cpp:163] Top shape: 10 64 56 56 (2007040)
I0707 16:02:46.259526  9073 layer_factory.hpp:76] Creating layer pool1/norm1
I0707 16:02:46.259536  9073 net.cpp:110] Creating Layer pool1/norm1
I0707 16:02:46.259541  9073 net.cpp:477] pool1/norm1 <- pool1/3x3_s2
I0707 16:02:46.259546  9073 net.cpp:433] pool1/norm1 -> pool1/norm1
I0707 16:02:46.259565  9073 net.cpp:155] Setting up pool1/norm1
I0707 16:02:46.259572  9073 net.cpp:163] Top shape: 10 64 56 56 (2007040)
I0707 16:02:46.259577  9073 layer_factory.hpp:76] Creating layer conv2/3x3_reduce
I0707 16:02:46.259589  9073 net.cpp:110] Creating Layer conv2/3x3_reduce
I0707 16:02:46.259594  9073 net.cpp:477] conv2/3x3_reduce <- pool1/norm1
I0707 16:02:46.259600  9073 net.cpp:433] conv2/3x3_reduce -> conv2/3x3_reduce
I0707 16:02:46.261656  9073 net.cpp:155] Setting up conv2/3x3_reduce
I0707 16:02:46.261672  9073 net.cpp:163] Top shape: 10 64 56 56 (2007040)
I0707 16:02:46.261692  9073 layer_factory.hpp:76] Creating layer conv2/relu_3x3_reduce
I0707 16:02:46.261699  9073 net.cpp:110] Creating Layer conv2/relu_3x3_reduce
I0707 16:02:46.261704  9073 net.cpp:477] conv2/relu_3x3_reduce <- conv2/3x3_reduce
I0707 16:02:46.261710  9073 net.cpp:419] conv2/relu_3x3_reduce -> conv2/3x3_reduce (in-place)
I0707 16:02:46.261781  9073 net.cpp:155] Setting up conv2/relu_3x3_reduce
I0707 16:02:46.261790  9073 net.cpp:163] Top shape: 10 64 56 56 (2007040)
I0707 16:02:46.261795  9073 layer_factory.hpp:76] Creating layer conv2/3x3
I0707 16:02:46.261804  9073 net.cpp:110] Creating Layer conv2/3x3
I0707 16:02:46.261808  9073 net.cpp:477] conv2/3x3 <- conv2/3x3_reduce
I0707 16:02:46.261816  9073 net.cpp:433] conv2/3x3 -> conv2/3x3
I0707 16:02:46.264374  9073 net.cpp:155] Setting up conv2/3x3
I0707 16:02:46.264405  9073 net.cpp:163] Top shape: 10 192 56 56 (6021120)
I0707 16:02:46.264420  9073 layer_factory.hpp:76] Creating layer conv2/relu_3x3
I0707 16:02:46.264427  9073 net.cpp:110] Creating Layer conv2/relu_3x3
I0707 16:02:46.264432  9073 net.cpp:477] conv2/relu_3x3 <- conv2/3x3
I0707 16:02:46.264439  9073 net.cpp:419] conv2/relu_3x3 -> conv2/3x3 (in-place)
I0707 16:02:46.264520  9073 net.cpp:155] Setting up conv2/relu_3x3
I0707 16:02:46.264529  9073 net.cpp:163] Top shape: 10 192 56 56 (6021120)
I0707 16:02:46.264534  9073 layer_factory.hpp:76] Creating layer conv2/norm2
I0707 16:02:46.264544  9073 net.cpp:110] Creating Layer conv2/norm2
I0707 16:02:46.264549  9073 net.cpp:477] conv2/norm2 <- conv2/3x3
I0707 16:02:46.264555  9073 net.cpp:433] conv2/norm2 -> conv2/norm2
I0707 16:02:46.264564  9073 net.cpp:155] Setting up conv2/norm2
I0707 16:02:46.264571  9073 net.cpp:163] Top shape: 10 192 56 56 (6021120)
I0707 16:02:46.264575  9073 layer_factory.hpp:76] Creating layer pool2/3x3_s2
I0707 16:02:46.264583  9073 net.cpp:110] Creating Layer pool2/3x3_s2
I0707 16:02:46.264588  9073 net.cpp:477] pool2/3x3_s2 <- conv2/norm2
I0707 16:02:46.264595  9073 net.cpp:433] pool2/3x3_s2 -> pool2/3x3_s2
I0707 16:02:46.265128  9073 net.cpp:155] Setting up pool2/3x3_s2
I0707 16:02:46.265141  9073 net.cpp:163] Top shape: 10 192 28 28 (1505280)
I0707 16:02:46.265146  9073 layer_factory.hpp:76] Creating layer pool2/3x3_s2_pool2/3x3_s2_0_split
I0707 16:02:46.265156  9073 net.cpp:110] Creating Layer pool2/3x3_s2_pool2/3x3_s2_0_split
I0707 16:02:46.265161  9073 net.cpp:477] pool2/3x3_s2_pool2/3x3_s2_0_split <- pool2/3x3_s2
I0707 16:02:46.265166  9073 net.cpp:433] pool2/3x3_s2_pool2/3x3_s2_0_split -> pool2/3x3_s2_pool2/3x3_s2_0_split_0
I0707 16:02:46.265177  9073 net.cpp:433] pool2/3x3_s2_pool2/3x3_s2_0_split -> pool2/3x3_s2_pool2/3x3_s2_0_split_1
I0707 16:02:46.265184  9073 net.cpp:433] pool2/3x3_s2_pool2/3x3_s2_0_split -> pool2/3x3_s2_pool2/3x3_s2_0_split_2
I0707 16:02:46.265192  9073 net.cpp:433] pool2/3x3_s2_pool2/3x3_s2_0_split -> pool2/3x3_s2_pool2/3x3_s2_0_split_3
I0707 16:02:46.265208  9073 net.cpp:155] Setting up pool2/3x3_s2_pool2/3x3_s2_0_split
I0707 16:02:46.265214  9073 net.cpp:163] Top shape: 10 192 28 28 (1505280)
I0707 16:02:46.265220  9073 net.cpp:163] Top shape: 10 192 28 28 (1505280)
I0707 16:02:46.265225  9073 net.cpp:163] Top shape: 10 192 28 28 (1505280)
I0707 16:02:46.265230  9073 net.cpp:163] Top shape: 10 192 28 28 (1505280)
I0707 16:02:46.265235  9073 layer_factory.hpp:76] Creating layer inception_3a/1x1
I0707 16:02:46.265244  9073 net.cpp:110] Creating Layer inception_3a/1x1
I0707 16:02:46.265249  9073 net.cpp:477] inception_3a/1x1 <- pool2/3x3_s2_pool2/3x3_s2_0_split_0
I0707 16:02:46.265269  9073 net.cpp:433] inception_3a/1x1 -> inception_3a/1x1
I0707 16:02:46.267107  9073 net.cpp:155] Setting up inception_3a/1x1
I0707 16:02:46.267127  9073 net.cpp:163] Top shape: 10 64 28 28 (501760)
I0707 16:02:46.267137  9073 layer_factory.hpp:76] Creating layer inception_3a/relu_1x1
I0707 16:02:46.267145  9073 net.cpp:110] Creating Layer inception_3a/relu_1x1
I0707 16:02:46.267151  9073 net.cpp:477] inception_3a/relu_1x1 <- inception_3a/1x1
I0707 16:02:46.267158  9073 net.cpp:419] inception_3a/relu_1x1 -> inception_3a/1x1 (in-place)
I0707 16:02:46.267241  9073 net.cpp:155] Setting up inception_3a/relu_1x1
I0707 16:02:46.267248  9073 net.cpp:163] Top shape: 10 64 28 28 (501760)
I0707 16:02:46.267254  9073 layer_factory.hpp:76] Creating layer inception_3a/3x3_reduce
I0707 16:02:46.267263  9073 net.cpp:110] Creating Layer inception_3a/3x3_reduce
I0707 16:02:46.267268  9073 net.cpp:477] inception_3a/3x3_reduce <- pool2/3x3_s2_pool2/3x3_s2_0_split_1
I0707 16:02:46.267277  9073 net.cpp:433] inception_3a/3x3_reduce -> inception_3a/3x3_reduce
I0707 16:02:46.269196  9073 net.cpp:155] Setting up inception_3a/3x3_reduce
I0707 16:02:46.269213  9073 net.cpp:163] Top shape: 10 96 28 28 (752640)
I0707 16:02:46.269240  9073 layer_factory.hpp:76] Creating layer inception_3a/relu_3x3_reduce
I0707 16:02:46.269251  9073 net.cpp:110] Creating Layer inception_3a/relu_3x3_reduce
I0707 16:02:46.269256  9073 net.cpp:477] inception_3a/relu_3x3_reduce <- inception_3a/3x3_reduce
I0707 16:02:46.269263  9073 net.cpp:419] inception_3a/relu_3x3_reduce -> inception_3a/3x3_reduce (in-place)
I0707 16:02:46.269347  9073 net.cpp:155] Setting up inception_3a/relu_3x3_reduce
I0707 16:02:46.269356  9073 net.cpp:163] Top shape: 10 96 28 28 (752640)
I0707 16:02:46.269361  9073 layer_factory.hpp:76] Creating layer inception_3a/3x3
I0707 16:02:46.269372  9073 net.cpp:110] Creating Layer inception_3a/3x3
I0707 16:02:46.269379  9073 net.cpp:477] inception_3a/3x3 <- inception_3a/3x3_reduce
I0707 16:02:46.269387  9073 net.cpp:433] inception_3a/3x3 -> inception_3a/3x3
I0707 16:02:46.271013  9073 net.cpp:155] Setting up inception_3a/3x3
I0707 16:02:46.271028  9073 net.cpp:163] Top shape: 10 128 28 28 (1003520)
I0707 16:02:46.271039  9073 layer_factory.hpp:76] Creating layer inception_3a/relu_3x3
I0707 16:02:46.271050  9073 net.cpp:110] Creating Layer inception_3a/relu_3x3
I0707 16:02:46.271056  9073 net.cpp:477] inception_3a/relu_3x3 <- inception_3a/3x3
I0707 16:02:46.271065  9073 net.cpp:419] inception_3a/relu_3x3 -> inception_3a/3x3 (in-place)
I0707 16:02:46.271606  9073 net.cpp:155] Setting up inception_3a/relu_3x3
I0707 16:02:46.271621  9073 net.cpp:163] Top shape: 10 128 28 28 (1003520)
I0707 16:02:46.271627  9073 layer_factory.hpp:76] Creating layer inception_3a/5x5_reduce
I0707 16:02:46.271636  9073 net.cpp:110] Creating Layer inception_3a/5x5_reduce
I0707 16:02:46.271641  9073 net.cpp:477] inception_3a/5x5_reduce <- pool2/3x3_s2_pool2/3x3_s2_0_split_2
I0707 16:02:46.271651  9073 net.cpp:433] inception_3a/5x5_reduce -> inception_3a/5x5_reduce
I0707 16:02:46.272483  9073 net.cpp:155] Setting up inception_3a/5x5_reduce
I0707 16:02:46.272500  9073 net.cpp:163] Top shape: 10 16 28 28 (125440)
I0707 16:02:46.272522  9073 layer_factory.hpp:76] Creating layer inception_3a/relu_5x5_reduce
I0707 16:02:46.272531  9073 net.cpp:110] Creating Layer inception_3a/relu_5x5_reduce
I0707 16:02:46.272536  9073 net.cpp:477] inception_3a/relu_5x5_reduce <- inception_3a/5x5_reduce
I0707 16:02:46.272543  9073 net.cpp:419] inception_3a/relu_5x5_reduce -> inception_3a/5x5_reduce (in-place)
I0707 16:02:46.272629  9073 net.cpp:155] Setting up inception_3a/relu_5x5_reduce
I0707 16:02:46.272641  9073 net.cpp:163] Top shape: 10 16 28 28 (125440)
I0707 16:02:46.272646  9073 layer_factory.hpp:76] Creating layer inception_3a/5x5
I0707 16:02:46.272655  9073 net.cpp:110] Creating Layer inception_3a/5x5
I0707 16:02:46.272660  9073 net.cpp:477] inception_3a/5x5 <- inception_3a/5x5_reduce
I0707 16:02:46.272670  9073 net.cpp:433] inception_3a/5x5 -> inception_3a/5x5
I0707 16:02:46.273552  9073 net.cpp:155] Setting up inception_3a/5x5
I0707 16:02:46.273569  9073 net.cpp:163] Top shape: 10 32 28 28 (250880)
I0707 16:02:46.273578  9073 layer_factory.hpp:76] Creating layer inception_3a/relu_5x5
I0707 16:02:46.273586  9073 net.cpp:110] Creating Layer inception_3a/relu_5x5
I0707 16:02:46.273591  9073 net.cpp:477] inception_3a/relu_5x5 <- inception_3a/5x5
I0707 16:02:46.273597  9073 net.cpp:419] inception_3a/relu_5x5 -> inception_3a/5x5 (in-place)
I0707 16:02:46.273681  9073 net.cpp:155] Setting up inception_3a/relu_5x5
I0707 16:02:46.273690  9073 net.cpp:163] Top shape: 10 32 28 28 (250880)
I0707 16:02:46.273695  9073 layer_factory.hpp:76] Creating layer inception_3a/pool
I0707 16:02:46.273701  9073 layer_factory.cpp:60] CUDNN does not support padding or multiple tops. Using Caffe's own pooling layer.
I0707 16:02:46.273707  9073 net.cpp:110] Creating Layer inception_3a/pool
I0707 16:02:46.273712  9073 net.cpp:477] inception_3a/pool <- pool2/3x3_s2_pool2/3x3_s2_0_split_3
I0707 16:02:46.273721  9073 net.cpp:433] inception_3a/pool -> inception_3a/pool
I0707 16:02:46.273732  9073 net.cpp:155] Setting up inception_3a/pool
I0707 16:02:46.273738  9073 net.cpp:163] Top shape: 10 192 28 28 (1505280)
I0707 16:02:46.273742  9073 layer_factory.hpp:76] Creating layer inception_3a/pool_proj
I0707 16:02:46.273753  9073 net.cpp:110] Creating Layer inception_3a/pool_proj
I0707 16:02:46.273758  9073 net.cpp:477] inception_3a/pool_proj <- inception_3a/pool
I0707 16:02:46.273766  9073 net.cpp:433] inception_3a/pool_proj -> inception_3a/pool_proj
I0707 16:02:46.274595  9073 net.cpp:155] Setting up inception_3a/pool_proj
I0707 16:02:46.274610  9073 net.cpp:163] Top shape: 10 32 28 28 (250880)
I0707 16:02:46.274626  9073 layer_factory.hpp:76] Creating layer inception_3a/relu_pool_proj
I0707 16:02:46.274633  9073 net.cpp:110] Creating Layer inception_3a/relu_pool_proj
I0707 16:02:46.274639  9073 net.cpp:477] inception_3a/relu_pool_proj <- inception_3a/pool_proj
I0707 16:02:46.274646  9073 net.cpp:419] inception_3a/relu_pool_proj -> inception_3a/pool_proj (in-place)
I0707 16:02:46.274752  9073 net.cpp:155] Setting up inception_3a/relu_pool_proj
I0707 16:02:46.274763  9073 net.cpp:163] Top shape: 10 32 28 28 (250880)
I0707 16:02:46.274768  9073 layer_factory.hpp:76] Creating layer inception_3a/output
I0707 16:02:46.274794  9073 net.cpp:110] Creating Layer inception_3a/output
I0707 16:02:46.274801  9073 net.cpp:477] inception_3a/output <- inception_3a/1x1
I0707 16:02:46.274807  9073 net.cpp:477] inception_3a/output <- inception_3a/3x3
I0707 16:02:46.274812  9073 net.cpp:477] inception_3a/output <- inception_3a/5x5
I0707 16:02:46.274817  9073 net.cpp:477] inception_3a/output <- inception_3a/pool_proj
I0707 16:02:46.274822  9073 net.cpp:433] inception_3a/output -> inception_3a/output
I0707 16:02:46.274834  9073 net.cpp:155] Setting up inception_3a/output
I0707 16:02:46.274842  9073 net.cpp:163] Top shape: 10 256 28 28 (2007040)
I0707 16:02:46.274845  9073 layer_factory.hpp:76] Creating layer inception_3a/output_inception_3a/output_0_split
I0707 16:02:46.274852  9073 net.cpp:110] Creating Layer inception_3a/output_inception_3a/output_0_split
I0707 16:02:46.274857  9073 net.cpp:477] inception_3a/output_inception_3a/output_0_split <- inception_3a/output
I0707 16:02:46.274865  9073 net.cpp:433] inception_3a/output_inception_3a/output_0_split -> inception_3a/output_inception_3a/output_0_split_0
I0707 16:02:46.274873  9073 net.cpp:433] inception_3a/output_inception_3a/output_0_split -> inception_3a/output_inception_3a/output_0_split_1
I0707 16:02:46.274881  9073 net.cpp:433] inception_3a/output_inception_3a/output_0_split -> inception_3a/output_inception_3a/output_0_split_2
I0707 16:02:46.274888  9073 net.cpp:433] inception_3a/output_inception_3a/output_0_split -> inception_3a/output_inception_3a/output_0_split_3
I0707 16:02:46.274896  9073 net.cpp:155] Setting up inception_3a/output_inception_3a/output_0_split
I0707 16:02:46.274902  9073 net.cpp:163] Top shape: 10 256 28 28 (2007040)
I0707 16:02:46.274907  9073 net.cpp:163] Top shape: 10 256 28 28 (2007040)
I0707 16:02:46.274912  9073 net.cpp:163] Top shape: 10 256 28 28 (2007040)
I0707 16:02:46.274917  9073 net.cpp:163] Top shape: 10 256 28 28 (2007040)
I0707 16:02:46.274921  9073 layer_factory.hpp:76] Creating layer inception_3b/1x1
I0707 16:02:46.274932  9073 net.cpp:110] Creating Layer inception_3b/1x1
I0707 16:02:46.274936  9073 net.cpp:477] inception_3b/1x1 <- inception_3a/output_inception_3a/output_0_split_0
I0707 16:02:46.274946  9073 net.cpp:433] inception_3b/1x1 -> inception_3b/1x1
I0707 16:02:46.275984  9073 net.cpp:155] Setting up inception_3b/1x1
I0707 16:02:46.275995  9073 net.cpp:163] Top shape: 10 128 28 28 (1003520)
I0707 16:02:46.276005  9073 layer_factory.hpp:76] Creating layer inception_3b/relu_1x1
I0707 16:02:46.276012  9073 net.cpp:110] Creating Layer inception_3b/relu_1x1
I0707 16:02:46.276017  9073 net.cpp:477] inception_3b/relu_1x1 <- inception_3b/1x1
I0707 16:02:46.276024  9073 net.cpp:419] inception_3b/relu_1x1 -> inception_3b/1x1 (in-place)
I0707 16:02:46.276566  9073 net.cpp:155] Setting up inception_3b/relu_1x1
I0707 16:02:46.276577  9073 net.cpp:163] Top shape: 10 128 28 28 (1003520)
I0707 16:02:46.276582  9073 layer_factory.hpp:76] Creating layer inception_3b/3x3_reduce
I0707 16:02:46.276593  9073 net.cpp:110] Creating Layer inception_3b/3x3_reduce
I0707 16:02:46.276599  9073 net.cpp:477] inception_3b/3x3_reduce <- inception_3a/output_inception_3a/output_0_split_1
I0707 16:02:46.276609  9073 net.cpp:433] inception_3b/3x3_reduce -> inception_3b/3x3_reduce
I0707 16:02:46.277657  9073 net.cpp:155] Setting up inception_3b/3x3_reduce
I0707 16:02:46.277673  9073 net.cpp:163] Top shape: 10 128 28 28 (1003520)
I0707 16:02:46.277681  9073 layer_factory.hpp:76] Creating layer inception_3b/relu_3x3_reduce
I0707 16:02:46.277688  9073 net.cpp:110] Creating Layer inception_3b/relu_3x3_reduce
I0707 16:02:46.277693  9073 net.cpp:477] inception_3b/relu_3x3_reduce <- inception_3b/3x3_reduce
I0707 16:02:46.277714  9073 net.cpp:419] inception_3b/relu_3x3_reduce -> inception_3b/3x3_reduce (in-place)
I0707 16:02:46.277801  9073 net.cpp:155] Setting up inception_3b/relu_3x3_reduce
I0707 16:02:46.277809  9073 net.cpp:163] Top shape: 10 128 28 28 (1003520)
I0707 16:02:46.277814  9073 layer_factory.hpp:76] Creating layer inception_3b/3x3
I0707 16:02:46.277825  9073 net.cpp:110] Creating Layer inception_3b/3x3
I0707 16:02:46.277830  9073 net.cpp:477] inception_3b/3x3 <- inception_3b/3x3_reduce
I0707 16:02:46.277837  9073 net.cpp:433] inception_3b/3x3 -> inception_3b/3x3
I0707 16:02:46.281296  9073 net.cpp:155] Setting up inception_3b/3x3
I0707 16:02:46.281327  9073 net.cpp:163] Top shape: 10 192 28 28 (1505280)
I0707 16:02:46.281337  9073 layer_factory.hpp:76] Creating layer inception_3b/relu_3x3
I0707 16:02:46.281348  9073 net.cpp:110] Creating Layer inception_3b/relu_3x3
I0707 16:02:46.281354  9073 net.cpp:477] inception_3b/relu_3x3 <- inception_3b/3x3
I0707 16:02:46.281363  9073 net.cpp:419] inception_3b/relu_3x3 -> inception_3b/3x3 (in-place)
I0707 16:02:46.281451  9073 net.cpp:155] Setting up inception_3b/relu_3x3
I0707 16:02:46.281461  9073 net.cpp:163] Top shape: 10 192 28 28 (1505280)
I0707 16:02:46.281466  9073 layer_factory.hpp:76] Creating layer inception_3b/5x5_reduce
I0707 16:02:46.281481  9073 net.cpp:110] Creating Layer inception_3b/5x5_reduce
I0707 16:02:46.281487  9073 net.cpp:477] inception_3b/5x5_reduce <- inception_3a/output_inception_3a/output_0_split_2
I0707 16:02:46.281496  9073 net.cpp:433] inception_3b/5x5_reduce -> inception_3b/5x5_reduce
I0707 16:02:46.282343  9073 net.cpp:155] Setting up inception_3b/5x5_reduce
I0707 16:02:46.282356  9073 net.cpp:163] Top shape: 10 32 28 28 (250880)
I0707 16:02:46.282366  9073 layer_factory.hpp:76] Creating layer inception_3b/relu_5x5_reduce
I0707 16:02:46.282373  9073 net.cpp:110] Creating Layer inception_3b/relu_5x5_reduce
I0707 16:02:46.282379  9073 net.cpp:477] inception_3b/relu_5x5_reduce <- inception_3b/5x5_reduce
I0707 16:02:46.282385  9073 net.cpp:419] inception_3b/relu_5x5_reduce -> inception_3b/5x5_reduce (in-place)
I0707 16:02:46.282469  9073 net.cpp:155] Setting up inception_3b/relu_5x5_reduce
I0707 16:02:46.282477  9073 net.cpp:163] Top shape: 10 32 28 28 (250880)
I0707 16:02:46.282482  9073 layer_factory.hpp:76] Creating layer inception_3b/5x5
I0707 16:02:46.282495  9073 net.cpp:110] Creating Layer inception_3b/5x5
I0707 16:02:46.282500  9073 net.cpp:477] inception_3b/5x5 <- inception_3b/5x5_reduce
I0707 16:02:46.282506  9073 net.cpp:433] inception_3b/5x5 -> inception_3b/5x5
I0707 16:02:46.284890  9073 net.cpp:155] Setting up inception_3b/5x5
I0707 16:02:46.284907  9073 net.cpp:163] Top shape: 10 96 28 28 (752640)
I0707 16:02:46.284916  9073 layer_factory.hpp:76] Creating layer inception_3b/relu_5x5
I0707 16:02:46.284925  9073 net.cpp:110] Creating Layer inception_3b/relu_5x5
I0707 16:02:46.284931  9073 net.cpp:477] inception_3b/relu_5x5 <- inception_3b/5x5
I0707 16:02:46.284940  9073 net.cpp:419] inception_3b/relu_5x5 -> inception_3b/5x5 (in-place)
I0707 16:02:46.285483  9073 net.cpp:155] Setting up inception_3b/relu_5x5
I0707 16:02:46.285507  9073 net.cpp:163] Top shape: 10 96 28 28 (752640)
I0707 16:02:46.285513  9073 layer_factory.hpp:76] Creating layer inception_3b/pool
I0707 16:02:46.285521  9073 layer_factory.cpp:60] CUDNN does not support padding or multiple tops. Using Caffe's own pooling layer.
I0707 16:02:46.285527  9073 net.cpp:110] Creating Layer inception_3b/pool
I0707 16:02:46.285533  9073 net.cpp:477] inception_3b/pool <- inception_3a/output_inception_3a/output_0_split_3
I0707 16:02:46.285542  9073 net.cpp:433] inception_3b/pool -> inception_3b/pool
I0707 16:02:46.285554  9073 net.cpp:155] Setting up inception_3b/pool
I0707 16:02:46.285562  9073 net.cpp:163] Top shape: 10 256 28 28 (2007040)
I0707 16:02:46.285565  9073 layer_factory.hpp:76] Creating layer inception_3b/pool_proj
I0707 16:02:46.285574  9073 net.cpp:110] Creating Layer inception_3b/pool_proj
I0707 16:02:46.285579  9073 net.cpp:477] inception_3b/pool_proj <- inception_3b/pool
I0707 16:02:46.285588  9073 net.cpp:433] inception_3b/pool_proj -> inception_3b/pool_proj
I0707 16:02:46.286514  9073 net.cpp:155] Setting up inception_3b/pool_proj
I0707 16:02:46.286531  9073 net.cpp:163] Top shape: 10 64 28 28 (501760)
I0707 16:02:46.286540  9073 layer_factory.hpp:76] Creating layer inception_3b/relu_pool_proj
I0707 16:02:46.286548  9073 net.cpp:110] Creating Layer inception_3b/relu_pool_proj
I0707 16:02:46.286553  9073 net.cpp:477] inception_3b/relu_pool_proj <- inception_3b/pool_proj
I0707 16:02:46.286561  9073 net.cpp:419] inception_3b/relu_pool_proj -> inception_3b/pool_proj (in-place)
I0707 16:02:46.286650  9073 net.cpp:155] Setting up inception_3b/relu_pool_proj
I0707 16:02:46.286661  9073 net.cpp:163] Top shape: 10 64 28 28 (501760)
I0707 16:02:46.286667  9073 layer_factory.hpp:76] Creating layer inception_3b/output
I0707 16:02:46.286674  9073 net.cpp:110] Creating Layer inception_3b/output
I0707 16:02:46.286679  9073 net.cpp:477] inception_3b/output <- inception_3b/1x1
I0707 16:02:46.286684  9073 net.cpp:477] inception_3b/output <- inception_3b/3x3
I0707 16:02:46.286700  9073 net.cpp:477] inception_3b/output <- inception_3b/5x5
I0707 16:02:46.286705  9073 net.cpp:477] inception_3b/output <- inception_3b/pool_proj
I0707 16:02:46.286710  9073 net.cpp:433] inception_3b/output -> inception_3b/output
I0707 16:02:46.286721  9073 net.cpp:155] Setting up inception_3b/output
I0707 16:02:46.286727  9073 net.cpp:163] Top shape: 10 480 28 28 (3763200)
I0707 16:02:46.286732  9073 layer_factory.hpp:76] Creating layer pool3/3x3_s2
I0707 16:02:46.286742  9073 net.cpp:110] Creating Layer pool3/3x3_s2
I0707 16:02:46.286747  9073 net.cpp:477] pool3/3x3_s2 <- inception_3b/output
I0707 16:02:46.286754  9073 net.cpp:433] pool3/3x3_s2 -> pool3/3x3_s2
I0707 16:02:46.286844  9073 net.cpp:155] Setting up pool3/3x3_s2
I0707 16:02:46.286854  9073 net.cpp:163] Top shape: 10 480 14 14 (940800)
I0707 16:02:46.286859  9073 layer_factory.hpp:76] Creating layer pool3/3x3_s2_pool3/3x3_s2_0_split
I0707 16:02:46.286870  9073 net.cpp:110] Creating Layer pool3/3x3_s2_pool3/3x3_s2_0_split
I0707 16:02:46.286875  9073 net.cpp:477] pool3/3x3_s2_pool3/3x3_s2_0_split <- pool3/3x3_s2
I0707 16:02:46.286880  9073 net.cpp:433] pool3/3x3_s2_pool3/3x3_s2_0_split -> pool3/3x3_s2_pool3/3x3_s2_0_split_0
I0707 16:02:46.286888  9073 net.cpp:433] pool3/3x3_s2_pool3/3x3_s2_0_split -> pool3/3x3_s2_pool3/3x3_s2_0_split_1
I0707 16:02:46.286895  9073 net.cpp:433] pool3/3x3_s2_pool3/3x3_s2_0_split -> pool3/3x3_s2_pool3/3x3_s2_0_split_2
I0707 16:02:46.286902  9073 net.cpp:433] pool3/3x3_s2_pool3/3x3_s2_0_split -> pool3/3x3_s2_pool3/3x3_s2_0_split_3
I0707 16:02:46.286912  9073 net.cpp:155] Setting up pool3/3x3_s2_pool3/3x3_s2_0_split
I0707 16:02:46.286918  9073 net.cpp:163] Top shape: 10 480 14 14 (940800)
I0707 16:02:46.286924  9073 net.cpp:163] Top shape: 10 480 14 14 (940800)
I0707 16:02:46.286929  9073 net.cpp:163] Top shape: 10 480 14 14 (940800)
I0707 16:02:46.286934  9073 net.cpp:163] Top shape: 10 480 14 14 (940800)
I0707 16:02:46.286938  9073 layer_factory.hpp:76] Creating layer inception_4a/1x1
I0707 16:02:46.286948  9073 net.cpp:110] Creating Layer inception_4a/1x1
I0707 16:02:46.286953  9073 net.cpp:477] inception_4a/1x1 <- pool3/3x3_s2_pool3/3x3_s2_0_split_0
I0707 16:02:46.286962  9073 net.cpp:433] inception_4a/1x1 -> inception_4a/1x1
I0707 16:02:46.288453  9073 net.cpp:155] Setting up inception_4a/1x1
I0707 16:02:46.288467  9073 net.cpp:163] Top shape: 10 192 14 14 (376320)
I0707 16:02:46.288480  9073 layer_factory.hpp:76] Creating layer inception_4a/relu_1x1
I0707 16:02:46.288496  9073 net.cpp:110] Creating Layer inception_4a/relu_1x1
I0707 16:02:46.288501  9073 net.cpp:477] inception_4a/relu_1x1 <- inception_4a/1x1
I0707 16:02:46.288511  9073 net.cpp:419] inception_4a/relu_1x1 -> inception_4a/1x1 (in-place)
I0707 16:02:46.288596  9073 net.cpp:155] Setting up inception_4a/relu_1x1
I0707 16:02:46.288605  9073 net.cpp:163] Top shape: 10 192 14 14 (376320)
I0707 16:02:46.288610  9073 layer_factory.hpp:76] Creating layer inception_4a/3x3_reduce
I0707 16:02:46.288621  9073 net.cpp:110] Creating Layer inception_4a/3x3_reduce
I0707 16:02:46.288626  9073 net.cpp:477] inception_4a/3x3_reduce <- pool3/3x3_s2_pool3/3x3_s2_0_split_1
I0707 16:02:46.288636  9073 net.cpp:433] inception_4a/3x3_reduce -> inception_4a/3x3_reduce
I0707 16:02:46.289830  9073 net.cpp:155] Setting up inception_4a/3x3_reduce
I0707 16:02:46.289847  9073 net.cpp:163] Top shape: 10 96 14 14 (188160)
I0707 16:02:46.289867  9073 layer_factory.hpp:76] Creating layer inception_4a/relu_3x3_reduce
I0707 16:02:46.289876  9073 net.cpp:110] Creating Layer inception_4a/relu_3x3_reduce
I0707 16:02:46.289881  9073 net.cpp:477] inception_4a/relu_3x3_reduce <- inception_4a/3x3_reduce
I0707 16:02:46.289888  9073 net.cpp:419] inception_4a/relu_3x3_reduce -> inception_4a/3x3_reduce (in-place)
I0707 16:02:46.290429  9073 net.cpp:155] Setting up inception_4a/relu_3x3_reduce
I0707 16:02:46.290444  9073 net.cpp:163] Top shape: 10 96 14 14 (188160)
I0707 16:02:46.290451  9073 layer_factory.hpp:76] Creating layer inception_4a/3x3
I0707 16:02:46.290462  9073 net.cpp:110] Creating Layer inception_4a/3x3
I0707 16:02:46.290467  9073 net.cpp:477] inception_4a/3x3 <- inception_4a/3x3_reduce
I0707 16:02:46.290477  9073 net.cpp:433] inception_4a/3x3 -> inception_4a/3x3
I0707 16:02:46.293599  9073 net.cpp:155] Setting up inception_4a/3x3
I0707 16:02:46.293617  9073 net.cpp:163] Top shape: 10 208 14 14 (407680)
I0707 16:02:46.293627  9073 layer_factory.hpp:76] Creating layer inception_4a/relu_3x3
I0707 16:02:46.293638  9073 net.cpp:110] Creating Layer inception_4a/relu_3x3
I0707 16:02:46.293644  9073 net.cpp:477] inception_4a/relu_3x3 <- inception_4a/3x3
I0707 16:02:46.293650  9073 net.cpp:419] inception_4a/relu_3x3 -> inception_4a/3x3 (in-place)
I0707 16:02:46.293736  9073 net.cpp:155] Setting up inception_4a/relu_3x3
I0707 16:02:46.293747  9073 net.cpp:163] Top shape: 10 208 14 14 (407680)
I0707 16:02:46.293753  9073 layer_factory.hpp:76] Creating layer inception_4a/5x5_reduce
I0707 16:02:46.293768  9073 net.cpp:110] Creating Layer inception_4a/5x5_reduce
I0707 16:02:46.293778  9073 net.cpp:477] inception_4a/5x5_reduce <- pool3/3x3_s2_pool3/3x3_s2_0_split_2
I0707 16:02:46.293793  9073 net.cpp:433] inception_4a/5x5_reduce -> inception_4a/5x5_reduce
I0707 16:02:46.294694  9073 net.cpp:155] Setting up inception_4a/5x5_reduce
I0707 16:02:46.294711  9073 net.cpp:163] Top shape: 10 16 14 14 (31360)
I0707 16:02:46.294723  9073 layer_factory.hpp:76] Creating layer inception_4a/relu_5x5_reduce
I0707 16:02:46.294731  9073 net.cpp:110] Creating Layer inception_4a/relu_5x5_reduce
I0707 16:02:46.294737  9073 net.cpp:477] inception_4a/relu_5x5_reduce <- inception_4a/5x5_reduce
I0707 16:02:46.294744  9073 net.cpp:419] inception_4a/relu_5x5_reduce -> inception_4a/5x5_reduce (in-place)
I0707 16:02:46.294833  9073 net.cpp:155] Setting up inception_4a/relu_5x5_reduce
I0707 16:02:46.294842  9073 net.cpp:163] Top shape: 10 16 14 14 (31360)
I0707 16:02:46.294847  9073 layer_factory.hpp:76] Creating layer inception_4a/5x5
I0707 16:02:46.294858  9073 net.cpp:110] Creating Layer inception_4a/5x5
I0707 16:02:46.294863  9073 net.cpp:477] inception_4a/5x5 <- inception_4a/5x5_reduce
I0707 16:02:46.294870  9073 net.cpp:433] inception_4a/5x5 -> inception_4a/5x5
I0707 16:02:46.295827  9073 net.cpp:155] Setting up inception_4a/5x5
I0707 16:02:46.295842  9073 net.cpp:163] Top shape: 10 48 14 14 (94080)
I0707 16:02:46.295864  9073 layer_factory.hpp:76] Creating layer inception_4a/relu_5x5
I0707 16:02:46.295874  9073 net.cpp:110] Creating Layer inception_4a/relu_5x5
I0707 16:02:46.295881  9073 net.cpp:477] inception_4a/relu_5x5 <- inception_4a/5x5
I0707 16:02:46.295886  9073 net.cpp:419] inception_4a/relu_5x5 -> inception_4a/5x5 (in-place)
I0707 16:02:46.296429  9073 net.cpp:155] Setting up inception_4a/relu_5x5
I0707 16:02:46.296444  9073 net.cpp:163] Top shape: 10 48 14 14 (94080)
I0707 16:02:46.296450  9073 layer_factory.hpp:76] Creating layer inception_4a/pool
I0707 16:02:46.296458  9073 layer_factory.cpp:60] CUDNN does not support padding or multiple tops. Using Caffe's own pooling layer.
I0707 16:02:46.296464  9073 net.cpp:110] Creating Layer inception_4a/pool
I0707 16:02:46.296469  9073 net.cpp:477] inception_4a/pool <- pool3/3x3_s2_pool3/3x3_s2_0_split_3
I0707 16:02:46.296479  9073 net.cpp:433] inception_4a/pool -> inception_4a/pool
I0707 16:02:46.296491  9073 net.cpp:155] Setting up inception_4a/pool
I0707 16:02:46.296499  9073 net.cpp:163] Top shape: 10 480 14 14 (940800)
I0707 16:02:46.296502  9073 layer_factory.hpp:76] Creating layer inception_4a/pool_proj
I0707 16:02:46.296514  9073 net.cpp:110] Creating Layer inception_4a/pool_proj
I0707 16:02:46.296519  9073 net.cpp:477] inception_4a/pool_proj <- inception_4a/pool
I0707 16:02:46.296525  9073 net.cpp:433] inception_4a/pool_proj -> inception_4a/pool_proj
I0707 16:02:46.297572  9073 net.cpp:155] Setting up inception_4a/pool_proj
I0707 16:02:46.297587  9073 net.cpp:163] Top shape: 10 64 14 14 (125440)
I0707 16:02:46.297597  9073 layer_factory.hpp:76] Creating layer inception_4a/relu_pool_proj
I0707 16:02:46.297605  9073 net.cpp:110] Creating Layer inception_4a/relu_pool_proj
I0707 16:02:46.297610  9073 net.cpp:477] inception_4a/relu_pool_proj <- inception_4a/pool_proj
I0707 16:02:46.297619  9073 net.cpp:419] inception_4a/relu_pool_proj -> inception_4a/pool_proj (in-place)
I0707 16:02:46.297708  9073 net.cpp:155] Setting up inception_4a/relu_pool_proj
I0707 16:02:46.297719  9073 net.cpp:163] Top shape: 10 64 14 14 (125440)
I0707 16:02:46.297724  9073 layer_factory.hpp:76] Creating layer inception_4a/output
I0707 16:02:46.297734  9073 net.cpp:110] Creating Layer inception_4a/output
I0707 16:02:46.297739  9073 net.cpp:477] inception_4a/output <- inception_4a/1x1
I0707 16:02:46.297744  9073 net.cpp:477] inception_4a/output <- inception_4a/3x3
I0707 16:02:46.297749  9073 net.cpp:477] inception_4a/output <- inception_4a/5x5
I0707 16:02:46.297755  9073 net.cpp:477] inception_4a/output <- inception_4a/pool_proj
I0707 16:02:46.297763  9073 net.cpp:433] inception_4a/output -> inception_4a/output
I0707 16:02:46.297775  9073 net.cpp:155] Setting up inception_4a/output
I0707 16:02:46.297781  9073 net.cpp:163] Top shape: 10 512 14 14 (1003520)
I0707 16:02:46.297785  9073 layer_factory.hpp:76] Creating layer inception_4a/output_inception_4a/output_0_split
I0707 16:02:46.297793  9073 net.cpp:110] Creating Layer inception_4a/output_inception_4a/output_0_split
I0707 16:02:46.297797  9073 net.cpp:477] inception_4a/output_inception_4a/output_0_split <- inception_4a/output
I0707 16:02:46.297804  9073 net.cpp:433] inception_4a/output_inception_4a/output_0_split -> inception_4a/output_inception_4a/output_0_split_0
I0707 16:02:46.297812  9073 net.cpp:433] inception_4a/output_inception_4a/output_0_split -> inception_4a/output_inception_4a/output_0_split_1
I0707 16:02:46.297819  9073 net.cpp:433] inception_4a/output_inception_4a/output_0_split -> inception_4a/output_inception_4a/output_0_split_2
I0707 16:02:46.297830  9073 net.cpp:433] inception_4a/output_inception_4a/output_0_split -> inception_4a/output_inception_4a/output_0_split_3
I0707 16:02:46.297839  9073 net.cpp:155] Setting up inception_4a/output_inception_4a/output_0_split
I0707 16:02:46.297845  9073 net.cpp:163] Top shape: 10 512 14 14 (1003520)
I0707 16:02:46.297852  9073 net.cpp:163] Top shape: 10 512 14 14 (1003520)
I0707 16:02:46.297855  9073 net.cpp:163] Top shape: 10 512 14 14 (1003520)
I0707 16:02:46.297860  9073 net.cpp:163] Top shape: 10 512 14 14 (1003520)
I0707 16:02:46.297865  9073 layer_factory.hpp:76] Creating layer inception_4b/1x1
I0707 16:02:46.297875  9073 net.cpp:110] Creating Layer inception_4b/1x1
I0707 16:02:46.297880  9073 net.cpp:477] inception_4b/1x1 <- inception_4a/output_inception_4a/output_0_split_0
I0707 16:02:46.297888  9073 net.cpp:433] inception_4b/1x1 -> inception_4b/1x1
I0707 16:02:46.299309  9073 net.cpp:155] Setting up inception_4b/1x1
I0707 16:02:46.299321  9073 net.cpp:163] Top shape: 10 160 14 14 (313600)
I0707 16:02:46.299330  9073 layer_factory.hpp:76] Creating layer inception_4b/relu_1x1
I0707 16:02:46.299340  9073 net.cpp:110] Creating Layer inception_4b/relu_1x1
I0707 16:02:46.299346  9073 net.cpp:477] inception_4b/relu_1x1 <- inception_4b/1x1
I0707 16:02:46.299353  9073 net.cpp:419] inception_4b/relu_1x1 -> inception_4b/1x1 (in-place)
I0707 16:02:46.299439  9073 net.cpp:155] Setting up inception_4b/relu_1x1
I0707 16:02:46.299448  9073 net.cpp:163] Top shape: 10 160 14 14 (313600)
I0707 16:02:46.299454  9073 layer_factory.hpp:76] Creating layer inception_4b/3x3_reduce
I0707 16:02:46.299464  9073 net.cpp:110] Creating Layer inception_4b/3x3_reduce
I0707 16:02:46.299470  9073 net.cpp:477] inception_4b/3x3_reduce <- inception_4a/output_inception_4a/output_0_split_1
I0707 16:02:46.299477  9073 net.cpp:433] inception_4b/3x3_reduce -> inception_4b/3x3_reduce
I0707 16:02:46.300714  9073 net.cpp:155] Setting up inception_4b/3x3_reduce
I0707 16:02:46.300729  9073 net.cpp:163] Top shape: 10 112 14 14 (219520)
I0707 16:02:46.300737  9073 layer_factory.hpp:76] Creating layer inception_4b/relu_3x3_reduce
I0707 16:02:46.300747  9073 net.cpp:110] Creating Layer inception_4b/relu_3x3_reduce
I0707 16:02:46.300753  9073 net.cpp:477] inception_4b/relu_3x3_reduce <- inception_4b/3x3_reduce
I0707 16:02:46.300760  9073 net.cpp:419] inception_4b/relu_3x3_reduce -> inception_4b/3x3_reduce (in-place)
I0707 16:02:46.300848  9073 net.cpp:155] Setting up inception_4b/relu_3x3_reduce
I0707 16:02:46.300856  9073 net.cpp:163] Top shape: 10 112 14 14 (219520)
I0707 16:02:46.300861  9073 layer_factory.hpp:76] Creating layer inception_4b/3x3
I0707 16:02:46.300873  9073 net.cpp:110] Creating Layer inception_4b/3x3
I0707 16:02:46.300878  9073 net.cpp:477] inception_4b/3x3 <- inception_4b/3x3_reduce
I0707 16:02:46.300887  9073 net.cpp:433] inception_4b/3x3 -> inception_4b/3x3
I0707 16:02:46.304615  9073 net.cpp:155] Setting up inception_4b/3x3
I0707 16:02:46.304647  9073 net.cpp:163] Top shape: 10 224 14 14 (439040)
I0707 16:02:46.304658  9073 layer_factory.hpp:76] Creating layer inception_4b/relu_3x3
I0707 16:02:46.304668  9073 net.cpp:110] Creating Layer inception_4b/relu_3x3
I0707 16:02:46.304674  9073 net.cpp:477] inception_4b/relu_3x3 <- inception_4b/3x3
I0707 16:02:46.304683  9073 net.cpp:419] inception_4b/relu_3x3 -> inception_4b/3x3 (in-place)
I0707 16:02:46.305244  9073 net.cpp:155] Setting up inception_4b/relu_3x3
I0707 16:02:46.305259  9073 net.cpp:163] Top shape: 10 224 14 14 (439040)
I0707 16:02:46.305265  9073 layer_factory.hpp:76] Creating layer inception_4b/5x5_reduce
I0707 16:02:46.305279  9073 net.cpp:110] Creating Layer inception_4b/5x5_reduce
I0707 16:02:46.305284  9073 net.cpp:477] inception_4b/5x5_reduce <- inception_4a/output_inception_4a/output_0_split_2
I0707 16:02:46.305299  9073 net.cpp:433] inception_4b/5x5_reduce -> inception_4b/5x5_reduce
I0707 16:02:46.306232  9073 net.cpp:155] Setting up inception_4b/5x5_reduce
I0707 16:02:46.306248  9073 net.cpp:163] Top shape: 10 24 14 14 (47040)
I0707 16:02:46.306257  9073 layer_factory.hpp:76] Creating layer inception_4b/relu_5x5_reduce
I0707 16:02:46.306279  9073 net.cpp:110] Creating Layer inception_4b/relu_5x5_reduce
I0707 16:02:46.306285  9073 net.cpp:477] inception_4b/relu_5x5_reduce <- inception_4b/5x5_reduce
I0707 16:02:46.306293  9073 net.cpp:419] inception_4b/relu_5x5_reduce -> inception_4b/5x5_reduce (in-place)
I0707 16:02:46.306392  9073 net.cpp:155] Setting up inception_4b/relu_5x5_reduce
I0707 16:02:46.306404  9073 net.cpp:163] Top shape: 10 24 14 14 (47040)
I0707 16:02:46.306411  9073 layer_factory.hpp:76] Creating layer inception_4b/5x5
I0707 16:02:46.306419  9073 net.cpp:110] Creating Layer inception_4b/5x5
I0707 16:02:46.306424  9073 net.cpp:477] inception_4b/5x5 <- inception_4b/5x5_reduce
I0707 16:02:46.306435  9073 net.cpp:433] inception_4b/5x5 -> inception_4b/5x5
I0707 16:02:46.308596  9073 net.cpp:155] Setting up inception_4b/5x5
I0707 16:02:46.308614  9073 net.cpp:163] Top shape: 10 64 14 14 (125440)
I0707 16:02:46.308624  9073 layer_factory.hpp:76] Creating layer inception_4b/relu_5x5
I0707 16:02:46.308636  9073 net.cpp:110] Creating Layer inception_4b/relu_5x5
I0707 16:02:46.308642  9073 net.cpp:477] inception_4b/relu_5x5 <- inception_4b/5x5
I0707 16:02:46.308650  9073 net.cpp:419] inception_4b/relu_5x5 -> inception_4b/5x5 (in-place)
I0707 16:02:46.308751  9073 net.cpp:155] Setting up inception_4b/relu_5x5
I0707 16:02:46.308761  9073 net.cpp:163] Top shape: 10 64 14 14 (125440)
I0707 16:02:46.308768  9073 layer_factory.hpp:76] Creating layer inception_4b/pool
I0707 16:02:46.308774  9073 layer_factory.cpp:60] CUDNN does not support padding or multiple tops. Using Caffe's own pooling layer.
I0707 16:02:46.308784  9073 net.cpp:110] Creating Layer inception_4b/pool
I0707 16:02:46.308789  9073 net.cpp:477] inception_4b/pool <- inception_4a/output_inception_4a/output_0_split_3
I0707 16:02:46.308799  9073 net.cpp:433] inception_4b/pool -> inception_4b/pool
I0707 16:02:46.308811  9073 net.cpp:155] Setting up inception_4b/pool
I0707 16:02:46.308818  9073 net.cpp:163] Top shape: 10 512 14 14 (1003520)
I0707 16:02:46.308822  9073 layer_factory.hpp:76] Creating layer inception_4b/pool_proj
I0707 16:02:46.308831  9073 net.cpp:110] Creating Layer inception_4b/pool_proj
I0707 16:02:46.308836  9073 net.cpp:477] inception_4b/pool_proj <- inception_4b/pool
I0707 16:02:46.308846  9073 net.cpp:433] inception_4b/pool_proj -> inception_4b/pool_proj
I0707 16:02:46.309911  9073 net.cpp:155] Setting up inception_4b/pool_proj
I0707 16:02:46.309927  9073 net.cpp:163] Top shape: 10 64 14 14 (125440)
I0707 16:02:46.309937  9073 layer_factory.hpp:76] Creating layer inception_4b/relu_pool_proj
I0707 16:02:46.309944  9073 net.cpp:110] Creating Layer inception_4b/relu_pool_proj
I0707 16:02:46.309953  9073 net.cpp:477] inception_4b/relu_pool_proj <- inception_4b/pool_proj
I0707 16:02:46.309965  9073 net.cpp:419] inception_4b/relu_pool_proj -> inception_4b/pool_proj (in-place)
I0707 16:02:46.310060  9073 net.cpp:155] Setting up inception_4b/relu_pool_proj
I0707 16:02:46.310072  9073 net.cpp:163] Top shape: 10 64 14 14 (125440)
I0707 16:02:46.310077  9073 layer_factory.hpp:76] Creating layer inception_4b/output
I0707 16:02:46.310086  9073 net.cpp:110] Creating Layer inception_4b/output
I0707 16:02:46.310091  9073 net.cpp:477] inception_4b/output <- inception_4b/1x1
I0707 16:02:46.310096  9073 net.cpp:477] inception_4b/output <- inception_4b/3x3
I0707 16:02:46.310101  9073 net.cpp:477] inception_4b/output <- inception_4b/5x5
I0707 16:02:46.310106  9073 net.cpp:477] inception_4b/output <- inception_4b/pool_proj
I0707 16:02:46.310112  9073 net.cpp:433] inception_4b/output -> inception_4b/output
I0707 16:02:46.310122  9073 net.cpp:155] Setting up inception_4b/output
I0707 16:02:46.310128  9073 net.cpp:163] Top shape: 10 512 14 14 (1003520)
I0707 16:02:46.310133  9073 layer_factory.hpp:76] Creating layer inception_4b/output_inception_4b/output_0_split
I0707 16:02:46.310140  9073 net.cpp:110] Creating Layer inception_4b/output_inception_4b/output_0_split
I0707 16:02:46.310145  9073 net.cpp:477] inception_4b/output_inception_4b/output_0_split <- inception_4b/output
I0707 16:02:46.310155  9073 net.cpp:433] inception_4b/output_inception_4b/output_0_split -> inception_4b/output_inception_4b/output_0_split_0
I0707 16:02:46.310164  9073 net.cpp:433] inception_4b/output_inception_4b/output_0_split -> inception_4b/output_inception_4b/output_0_split_1
I0707 16:02:46.310171  9073 net.cpp:433] inception_4b/output_inception_4b/output_0_split -> inception_4b/output_inception_4b/output_0_split_2
I0707 16:02:46.310179  9073 net.cpp:433] inception_4b/output_inception_4b/output_0_split -> inception_4b/output_inception_4b/output_0_split_3
I0707 16:02:46.310189  9073 net.cpp:155] Setting up inception_4b/output_inception_4b/output_0_split
I0707 16:02:46.310195  9073 net.cpp:163] Top shape: 10 512 14 14 (1003520)
I0707 16:02:46.310200  9073 net.cpp:163] Top shape: 10 512 14 14 (1003520)
I0707 16:02:46.310205  9073 net.cpp:163] Top shape: 10 512 14 14 (1003520)
I0707 16:02:46.310210  9073 net.cpp:163] Top shape: 10 512 14 14 (1003520)
I0707 16:02:46.310215  9073 layer_factory.hpp:76] Creating layer inception_4c/1x1
I0707 16:02:46.310223  9073 net.cpp:110] Creating Layer inception_4c/1x1
I0707 16:02:46.310228  9073 net.cpp:477] inception_4c/1x1 <- inception_4b/output_inception_4b/output_0_split_0
I0707 16:02:46.310238  9073 net.cpp:433] inception_4c/1x1 -> inception_4c/1x1
I0707 16:02:46.311528  9073 net.cpp:155] Setting up inception_4c/1x1
I0707 16:02:46.311542  9073 net.cpp:163] Top shape: 10 128 14 14 (250880)
I0707 16:02:46.311550  9073 layer_factory.hpp:76] Creating layer inception_4c/relu_1x1
I0707 16:02:46.311560  9073 net.cpp:110] Creating Layer inception_4c/relu_1x1
I0707 16:02:46.311566  9073 net.cpp:477] inception_4c/relu_1x1 <- inception_4c/1x1
I0707 16:02:46.311573  9073 net.cpp:419] inception_4c/relu_1x1 -> inception_4c/1x1 (in-place)
I0707 16:02:46.312119  9073 net.cpp:155] Setting up inception_4c/relu_1x1
I0707 16:02:46.312134  9073 net.cpp:163] Top shape: 10 128 14 14 (250880)
I0707 16:02:46.312140  9073 layer_factory.hpp:76] Creating layer inception_4c/3x3_reduce
I0707 16:02:46.312152  9073 net.cpp:110] Creating Layer inception_4c/3x3_reduce
I0707 16:02:46.312158  9073 net.cpp:477] inception_4c/3x3_reduce <- inception_4b/output_inception_4b/output_0_split_1
I0707 16:02:46.312168  9073 net.cpp:433] inception_4c/3x3_reduce -> inception_4c/3x3_reduce
I0707 16:02:46.313446  9073 net.cpp:155] Setting up inception_4c/3x3_reduce
I0707 16:02:46.313462  9073 net.cpp:163] Top shape: 10 128 14 14 (250880)
I0707 16:02:46.313470  9073 layer_factory.hpp:76] Creating layer inception_4c/relu_3x3_reduce
I0707 16:02:46.313478  9073 net.cpp:110] Creating Layer inception_4c/relu_3x3_reduce
I0707 16:02:46.313484  9073 net.cpp:477] inception_4c/relu_3x3_reduce <- inception_4c/3x3_reduce
I0707 16:02:46.313494  9073 net.cpp:419] inception_4c/relu_3x3_reduce -> inception_4c/3x3_reduce (in-place)
I0707 16:02:46.313585  9073 net.cpp:155] Setting up inception_4c/relu_3x3_reduce
I0707 16:02:46.313593  9073 net.cpp:163] Top shape: 10 128 14 14 (250880)
I0707 16:02:46.313598  9073 layer_factory.hpp:76] Creating layer inception_4c/3x3
I0707 16:02:46.313607  9073 net.cpp:110] Creating Layer inception_4c/3x3
I0707 16:02:46.313612  9073 net.cpp:477] inception_4c/3x3 <- inception_4c/3x3_reduce
I0707 16:02:46.313622  9073 net.cpp:433] inception_4c/3x3 -> inception_4c/3x3
I0707 16:02:46.317598  9073 net.cpp:155] Setting up inception_4c/3x3
I0707 16:02:46.317615  9073 net.cpp:163] Top shape: 10 256 14 14 (501760)
I0707 16:02:46.317638  9073 layer_factory.hpp:76] Creating layer inception_4c/relu_3x3
I0707 16:02:46.317651  9073 net.cpp:110] Creating Layer inception_4c/relu_3x3
I0707 16:02:46.317656  9073 net.cpp:477] inception_4c/relu_3x3 <- inception_4c/3x3
I0707 16:02:46.317662  9073 net.cpp:419] inception_4c/relu_3x3 -> inception_4c/3x3 (in-place)
I0707 16:02:46.317756  9073 net.cpp:155] Setting up inception_4c/relu_3x3
I0707 16:02:46.317765  9073 net.cpp:163] Top shape: 10 256 14 14 (501760)
I0707 16:02:46.317770  9073 layer_factory.hpp:76] Creating layer inception_4c/5x5_reduce
I0707 16:02:46.317782  9073 net.cpp:110] Creating Layer inception_4c/5x5_reduce
I0707 16:02:46.317788  9073 net.cpp:477] inception_4c/5x5_reduce <- inception_4b/output_inception_4b/output_0_split_2
I0707 16:02:46.317798  9073 net.cpp:433] inception_4c/5x5_reduce -> inception_4c/5x5_reduce
I0707 16:02:46.318737  9073 net.cpp:155] Setting up inception_4c/5x5_reduce
I0707 16:02:46.318753  9073 net.cpp:163] Top shape: 10 24 14 14 (47040)
I0707 16:02:46.318776  9073 layer_factory.hpp:76] Creating layer inception_4c/relu_5x5_reduce
I0707 16:02:46.318786  9073 net.cpp:110] Creating Layer inception_4c/relu_5x5_reduce
I0707 16:02:46.318791  9073 net.cpp:477] inception_4c/relu_5x5_reduce <- inception_4c/5x5_reduce
I0707 16:02:46.318799  9073 net.cpp:419] inception_4c/relu_5x5_reduce -> inception_4c/5x5_reduce (in-place)
I0707 16:02:46.318886  9073 net.cpp:155] Setting up inception_4c/relu_5x5_reduce
I0707 16:02:46.318895  9073 net.cpp:163] Top shape: 10 24 14 14 (47040)
I0707 16:02:46.318902  9073 layer_factory.hpp:76] Creating layer inception_4c/5x5
I0707 16:02:46.318910  9073 net.cpp:110] Creating Layer inception_4c/5x5
I0707 16:02:46.318915  9073 net.cpp:477] inception_4c/5x5 <- inception_4c/5x5_reduce
I0707 16:02:46.318925  9073 net.cpp:433] inception_4c/5x5 -> inception_4c/5x5
I0707 16:02:46.320017  9073 net.cpp:155] Setting up inception_4c/5x5
I0707 16:02:46.320046  9073 net.cpp:163] Top shape: 10 64 14 14 (125440)
I0707 16:02:46.320056  9073 layer_factory.hpp:76] Creating layer inception_4c/relu_5x5
I0707 16:02:46.320065  9073 net.cpp:110] Creating Layer inception_4c/relu_5x5
I0707 16:02:46.320070  9073 net.cpp:477] inception_4c/relu_5x5 <- inception_4c/5x5
I0707 16:02:46.320076  9073 net.cpp:419] inception_4c/relu_5x5 -> inception_4c/5x5 (in-place)
I0707 16:02:46.320624  9073 net.cpp:155] Setting up inception_4c/relu_5x5
I0707 16:02:46.320638  9073 net.cpp:163] Top shape: 10 64 14 14 (125440)
I0707 16:02:46.320644  9073 layer_factory.hpp:76] Creating layer inception_4c/pool
I0707 16:02:46.320650  9073 layer_factory.cpp:60] CUDNN does not support padding or multiple tops. Using Caffe's own pooling layer.
I0707 16:02:46.320657  9073 net.cpp:110] Creating Layer inception_4c/pool
I0707 16:02:46.320662  9073 net.cpp:477] inception_4c/pool <- inception_4b/output_inception_4b/output_0_split_3
I0707 16:02:46.320673  9073 net.cpp:433] inception_4c/pool -> inception_4c/pool
I0707 16:02:46.320684  9073 net.cpp:155] Setting up inception_4c/pool
I0707 16:02:46.320690  9073 net.cpp:163] Top shape: 10 512 14 14 (1003520)
I0707 16:02:46.320695  9073 layer_factory.hpp:76] Creating layer inception_4c/pool_proj
I0707 16:02:46.320706  9073 net.cpp:110] Creating Layer inception_4c/pool_proj
I0707 16:02:46.320711  9073 net.cpp:477] inception_4c/pool_proj <- inception_4c/pool
I0707 16:02:46.320719  9073 net.cpp:433] inception_4c/pool_proj -> inception_4c/pool_proj
I0707 16:02:46.322741  9073 net.cpp:155] Setting up inception_4c/pool_proj
I0707 16:02:46.322772  9073 net.cpp:163] Top shape: 10 64 14 14 (125440)
I0707 16:02:46.322799  9073 layer_factory.hpp:76] Creating layer inception_4c/relu_pool_proj
I0707 16:02:46.322808  9073 net.cpp:110] Creating Layer inception_4c/relu_pool_proj
I0707 16:02:46.322814  9073 net.cpp:477] inception_4c/relu_pool_proj <- inception_4c/pool_proj
I0707 16:02:46.322820  9073 net.cpp:419] inception_4c/relu_pool_proj -> inception_4c/pool_proj (in-place)
I0707 16:02:46.322918  9073 net.cpp:155] Setting up inception_4c/relu_pool_proj
I0707 16:02:46.322932  9073 net.cpp:163] Top shape: 10 64 14 14 (125440)
I0707 16:02:46.322938  9073 layer_factory.hpp:76] Creating layer inception_4c/output
I0707 16:02:46.322945  9073 net.cpp:110] Creating Layer inception_4c/output
I0707 16:02:46.322950  9073 net.cpp:477] inception_4c/output <- inception_4c/1x1
I0707 16:02:46.322957  9073 net.cpp:477] inception_4c/output <- inception_4c/3x3
I0707 16:02:46.322962  9073 net.cpp:477] inception_4c/output <- inception_4c/5x5
I0707 16:02:46.322967  9073 net.cpp:477] inception_4c/output <- inception_4c/pool_proj
I0707 16:02:46.322973  9073 net.cpp:433] inception_4c/output -> inception_4c/output
I0707 16:02:46.322983  9073 net.cpp:155] Setting up inception_4c/output
I0707 16:02:46.322988  9073 net.cpp:163] Top shape: 10 512 14 14 (1003520)
I0707 16:02:46.322993  9073 layer_factory.hpp:76] Creating layer inception_4c/output_inception_4c/output_0_split
I0707 16:02:46.323001  9073 net.cpp:110] Creating Layer inception_4c/output_inception_4c/output_0_split
I0707 16:02:46.323006  9073 net.cpp:477] inception_4c/output_inception_4c/output_0_split <- inception_4c/output
I0707 16:02:46.323015  9073 net.cpp:433] inception_4c/output_inception_4c/output_0_split -> inception_4c/output_inception_4c/output_0_split_0
I0707 16:02:46.323024  9073 net.cpp:433] inception_4c/output_inception_4c/output_0_split -> inception_4c/output_inception_4c/output_0_split_1
I0707 16:02:46.323031  9073 net.cpp:433] inception_4c/output_inception_4c/output_0_split -> inception_4c/output_inception_4c/output_0_split_2
I0707 16:02:46.323040  9073 net.cpp:433] inception_4c/output_inception_4c/output_0_split -> inception_4c/output_inception_4c/output_0_split_3
I0707 16:02:46.323050  9073 net.cpp:155] Setting up inception_4c/output_inception_4c/output_0_split
I0707 16:02:46.323055  9073 net.cpp:163] Top shape: 10 512 14 14 (1003520)
I0707 16:02:46.323061  9073 net.cpp:163] Top shape: 10 512 14 14 (1003520)
I0707 16:02:46.323066  9073 net.cpp:163] Top shape: 10 512 14 14 (1003520)
I0707 16:02:46.323071  9073 net.cpp:163] Top shape: 10 512 14 14 (1003520)
I0707 16:02:46.323076  9073 layer_factory.hpp:76] Creating layer inception_4d/1x1
I0707 16:02:46.323084  9073 net.cpp:110] Creating Layer inception_4d/1x1
I0707 16:02:46.323089  9073 net.cpp:477] inception_4d/1x1 <- inception_4c/output_inception_4c/output_0_split_0
I0707 16:02:46.323099  9073 net.cpp:433] inception_4d/1x1 -> inception_4d/1x1
I0707 16:02:46.324460  9073 net.cpp:155] Setting up inception_4d/1x1
I0707 16:02:46.324475  9073 net.cpp:163] Top shape: 10 112 14 14 (219520)
I0707 16:02:46.324484  9073 layer_factory.hpp:76] Creating layer inception_4d/relu_1x1
I0707 16:02:46.324492  9073 net.cpp:110] Creating Layer inception_4d/relu_1x1
I0707 16:02:46.324497  9073 net.cpp:477] inception_4d/relu_1x1 <- inception_4d/1x1
I0707 16:02:46.324504  9073 net.cpp:419] inception_4d/relu_1x1 -> inception_4d/1x1 (in-place)
I0707 16:02:46.324591  9073 net.cpp:155] Setting up inception_4d/relu_1x1
I0707 16:02:46.324600  9073 net.cpp:163] Top shape: 10 112 14 14 (219520)
I0707 16:02:46.324606  9073 layer_factory.hpp:76] Creating layer inception_4d/3x3_reduce
I0707 16:02:46.324615  9073 net.cpp:110] Creating Layer inception_4d/3x3_reduce
I0707 16:02:46.324620  9073 net.cpp:477] inception_4d/3x3_reduce <- inception_4c/output_inception_4c/output_0_split_1
I0707 16:02:46.324630  9073 net.cpp:433] inception_4d/3x3_reduce -> inception_4d/3x3_reduce
I0707 16:02:46.326865  9073 net.cpp:155] Setting up inception_4d/3x3_reduce
I0707 16:02:46.326915  9073 net.cpp:163] Top shape: 10 144 14 14 (282240)
I0707 16:02:46.326939  9073 layer_factory.hpp:76] Creating layer inception_4d/relu_3x3_reduce
I0707 16:02:46.326959  9073 net.cpp:110] Creating Layer inception_4d/relu_3x3_reduce
I0707 16:02:46.326974  9073 net.cpp:477] inception_4d/relu_3x3_reduce <- inception_4d/3x3_reduce
I0707 16:02:46.326989  9073 net.cpp:419] inception_4d/relu_3x3_reduce -> inception_4d/3x3_reduce (in-place)
I0707 16:02:46.328083  9073 net.cpp:155] Setting up inception_4d/relu_3x3_reduce
I0707 16:02:46.328104  9073 net.cpp:163] Top shape: 10 144 14 14 (282240)
I0707 16:02:46.328115  9073 layer_factory.hpp:76] Creating layer inception_4d/3x3
I0707 16:02:46.328140  9073 net.cpp:110] Creating Layer inception_4d/3x3
I0707 16:02:46.328152  9073 net.cpp:477] inception_4d/3x3 <- inception_4d/3x3_reduce
I0707 16:02:46.328171  9073 net.cpp:433] inception_4d/3x3 -> inception_4d/3x3
I0707 16:02:46.335196  9073 net.cpp:155] Setting up inception_4d/3x3
I0707 16:02:46.335239  9073 net.cpp:163] Top shape: 10 288 14 14 (564480)
I0707 16:02:46.335259  9073 layer_factory.hpp:76] Creating layer inception_4d/relu_3x3
I0707 16:02:46.335278  9073 net.cpp:110] Creating Layer inception_4d/relu_3x3
I0707 16:02:46.335290  9073 net.cpp:477] inception_4d/relu_3x3 <- inception_4d/3x3
I0707 16:02:46.335304  9073 net.cpp:419] inception_4d/relu_3x3 -> inception_4d/3x3 (in-place)
I0707 16:02:46.335448  9073 net.cpp:155] Setting up inception_4d/relu_3x3
I0707 16:02:46.335467  9073 net.cpp:163] Top shape: 10 288 14 14 (564480)
I0707 16:02:46.335477  9073 layer_factory.hpp:76] Creating layer inception_4d/5x5_reduce
I0707 16:02:46.335492  9073 net.cpp:110] Creating Layer inception_4d/5x5_reduce
I0707 16:02:46.335503  9073 net.cpp:477] inception_4d/5x5_reduce <- inception_4c/output_inception_4c/output_0_split_2
I0707 16:02:46.335522  9073 net.cpp:433] inception_4d/5x5_reduce -> inception_4d/5x5_reduce
I0707 16:02:46.336879  9073 net.cpp:155] Setting up inception_4d/5x5_reduce
I0707 16:02:46.336902  9073 net.cpp:163] Top shape: 10 32 14 14 (62720)
I0707 16:02:46.336920  9073 layer_factory.hpp:76] Creating layer inception_4d/relu_5x5_reduce
I0707 16:02:46.336943  9073 net.cpp:110] Creating Layer inception_4d/relu_5x5_reduce
I0707 16:02:46.336953  9073 net.cpp:477] inception_4d/relu_5x5_reduce <- inception_4d/5x5_reduce
I0707 16:02:46.336966  9073 net.cpp:419] inception_4d/relu_5x5_reduce -> inception_4d/5x5_reduce (in-place)
I0707 16:02:46.337111  9073 net.cpp:155] Setting up inception_4d/relu_5x5_reduce
I0707 16:02:46.337127  9073 net.cpp:163] Top shape: 10 32 14 14 (62720)
I0707 16:02:46.337136  9073 layer_factory.hpp:76] Creating layer inception_4d/5x5
I0707 16:02:46.337154  9073 net.cpp:110] Creating Layer inception_4d/5x5
I0707 16:02:46.337164  9073 net.cpp:477] inception_4d/5x5 <- inception_4d/5x5_reduce
I0707 16:02:46.337178  9073 net.cpp:433] inception_4d/5x5 -> inception_4d/5x5
I0707 16:02:46.339304  9073 net.cpp:155] Setting up inception_4d/5x5
I0707 16:02:46.339351  9073 net.cpp:163] Top shape: 10 64 14 14 (125440)
I0707 16:02:46.339371  9073 layer_factory.hpp:76] Creating layer inception_4d/relu_5x5
I0707 16:02:46.339387  9073 net.cpp:110] Creating Layer inception_4d/relu_5x5
I0707 16:02:46.339398  9073 net.cpp:477] inception_4d/relu_5x5 <- inception_4d/5x5
I0707 16:02:46.339411  9073 net.cpp:419] inception_4d/relu_5x5 -> inception_4d/5x5 (in-place)
I0707 16:02:46.339550  9073 net.cpp:155] Setting up inception_4d/relu_5x5
I0707 16:02:46.339565  9073 net.cpp:163] Top shape: 10 64 14 14 (125440)
I0707 16:02:46.339576  9073 layer_factory.hpp:76] Creating layer inception_4d/pool
I0707 16:02:46.339586  9073 layer_factory.cpp:60] CUDNN does not support padding or multiple tops. Using Caffe's own pooling layer.
I0707 16:02:46.339601  9073 net.cpp:110] Creating Layer inception_4d/pool
I0707 16:02:46.339610  9073 net.cpp:477] inception_4d/pool <- inception_4c/output_inception_4c/output_0_split_3
I0707 16:02:46.339622  9073 net.cpp:433] inception_4d/pool -> inception_4d/pool
I0707 16:02:46.339644  9073 net.cpp:155] Setting up inception_4d/pool
I0707 16:02:46.339656  9073 net.cpp:163] Top shape: 10 512 14 14 (1003520)
I0707 16:02:46.339665  9073 layer_factory.hpp:76] Creating layer inception_4d/pool_proj
I0707 16:02:46.339685  9073 net.cpp:110] Creating Layer inception_4d/pool_proj
I0707 16:02:46.339695  9073 net.cpp:477] inception_4d/pool_proj <- inception_4d/pool
I0707 16:02:46.339711  9073 net.cpp:433] inception_4d/pool_proj -> inception_4d/pool_proj
I0707 16:02:46.341390  9073 net.cpp:155] Setting up inception_4d/pool_proj
I0707 16:02:46.341426  9073 net.cpp:163] Top shape: 10 64 14 14 (125440)
I0707 16:02:46.341444  9073 layer_factory.hpp:76] Creating layer inception_4d/relu_pool_proj
I0707 16:02:46.341461  9073 net.cpp:110] Creating Layer inception_4d/relu_pool_proj
I0707 16:02:46.341483  9073 net.cpp:477] inception_4d/relu_pool_proj <- inception_4d/pool_proj
I0707 16:02:46.341495  9073 net.cpp:419] inception_4d/relu_pool_proj -> inception_4d/pool_proj (in-place)
I0707 16:02:46.342329  9073 net.cpp:155] Setting up inception_4d/relu_pool_proj
I0707 16:02:46.342351  9073 net.cpp:163] Top shape: 10 64 14 14 (125440)
I0707 16:02:46.342361  9073 layer_factory.hpp:76] Creating layer inception_4d/output
I0707 16:02:46.342380  9073 net.cpp:110] Creating Layer inception_4d/output
I0707 16:02:46.342389  9073 net.cpp:477] inception_4d/output <- inception_4d/1x1
I0707 16:02:46.342399  9073 net.cpp:477] inception_4d/output <- inception_4d/3x3
I0707 16:02:46.342408  9073 net.cpp:477] inception_4d/output <- inception_4d/5x5
I0707 16:02:46.342417  9073 net.cpp:477] inception_4d/output <- inception_4d/pool_proj
I0707 16:02:46.342430  9073 net.cpp:433] inception_4d/output -> inception_4d/output
I0707 16:02:46.342447  9073 net.cpp:155] Setting up inception_4d/output
I0707 16:02:46.342458  9073 net.cpp:163] Top shape: 10 528 14 14 (1034880)
I0707 16:02:46.342464  9073 layer_factory.hpp:76] Creating layer inception_4d/output_inception_4d/output_0_split
I0707 16:02:46.342476  9073 net.cpp:110] Creating Layer inception_4d/output_inception_4d/output_0_split
I0707 16:02:46.342483  9073 net.cpp:477] inception_4d/output_inception_4d/output_0_split <- inception_4d/output
I0707 16:02:46.342499  9073 net.cpp:433] inception_4d/output_inception_4d/output_0_split -> inception_4d/output_inception_4d/output_0_split_0
I0707 16:02:46.342514  9073 net.cpp:433] inception_4d/output_inception_4d/output_0_split -> inception_4d/output_inception_4d/output_0_split_1
I0707 16:02:46.342525  9073 net.cpp:433] inception_4d/output_inception_4d/output_0_split -> inception_4d/output_inception_4d/output_0_split_2
I0707 16:02:46.342537  9073 net.cpp:433] inception_4d/output_inception_4d/output_0_split -> inception_4d/output_inception_4d/output_0_split_3
I0707 16:02:46.342552  9073 net.cpp:155] Setting up inception_4d/output_inception_4d/output_0_split
I0707 16:02:46.342564  9073 net.cpp:163] Top shape: 10 528 14 14 (1034880)
I0707 16:02:46.342573  9073 net.cpp:163] Top shape: 10 528 14 14 (1034880)
I0707 16:02:46.342582  9073 net.cpp:163] Top shape: 10 528 14 14 (1034880)
I0707 16:02:46.342592  9073 net.cpp:163] Top shape: 10 528 14 14 (1034880)
I0707 16:02:46.342600  9073 layer_factory.hpp:76] Creating layer inception_4e/1x1
I0707 16:02:46.342618  9073 net.cpp:110] Creating Layer inception_4e/1x1
I0707 16:02:46.342628  9073 net.cpp:477] inception_4e/1x1 <- inception_4d/output_inception_4d/output_0_split_0
I0707 16:02:46.342645  9073 net.cpp:433] inception_4e/1x1 -> inception_4e/1x1
I0707 16:02:46.345854  9073 net.cpp:155] Setting up inception_4e/1x1
I0707 16:02:46.345885  9073 net.cpp:163] Top shape: 10 256 14 14 (501760)
I0707 16:02:46.345896  9073 layer_factory.hpp:76] Creating layer inception_4e/relu_1x1
I0707 16:02:46.345906  9073 net.cpp:110] Creating Layer inception_4e/relu_1x1
I0707 16:02:46.345911  9073 net.cpp:477] inception_4e/relu_1x1 <- inception_4e/1x1
I0707 16:02:46.345922  9073 net.cpp:419] inception_4e/relu_1x1 -> inception_4e/1x1 (in-place)
I0707 16:02:46.346016  9073 net.cpp:155] Setting up inception_4e/relu_1x1
I0707 16:02:46.346025  9073 net.cpp:163] Top shape: 10 256 14 14 (501760)
I0707 16:02:46.346030  9073 layer_factory.hpp:76] Creating layer inception_4e/3x3_reduce
I0707 16:02:46.346040  9073 net.cpp:110] Creating Layer inception_4e/3x3_reduce
I0707 16:02:46.346045  9073 net.cpp:477] inception_4e/3x3_reduce <- inception_4d/output_inception_4d/output_0_split_1
I0707 16:02:46.346056  9073 net.cpp:433] inception_4e/3x3_reduce -> inception_4e/3x3_reduce
I0707 16:02:46.347530  9073 net.cpp:155] Setting up inception_4e/3x3_reduce
I0707 16:02:46.347546  9073 net.cpp:163] Top shape: 10 160 14 14 (313600)
I0707 16:02:46.347556  9073 layer_factory.hpp:76] Creating layer inception_4e/relu_3x3_reduce
I0707 16:02:46.347564  9073 net.cpp:110] Creating Layer inception_4e/relu_3x3_reduce
I0707 16:02:46.347570  9073 net.cpp:477] inception_4e/relu_3x3_reduce <- inception_4e/3x3_reduce
I0707 16:02:46.347578  9073 net.cpp:419] inception_4e/relu_3x3_reduce -> inception_4e/3x3_reduce (in-place)
I0707 16:02:46.347666  9073 net.cpp:155] Setting up inception_4e/relu_3x3_reduce
I0707 16:02:46.347676  9073 net.cpp:163] Top shape: 10 160 14 14 (313600)
I0707 16:02:46.347681  9073 layer_factory.hpp:76] Creating layer inception_4e/3x3
I0707 16:02:46.347692  9073 net.cpp:110] Creating Layer inception_4e/3x3
I0707 16:02:46.347698  9073 net.cpp:477] inception_4e/3x3 <- inception_4e/3x3_reduce
I0707 16:02:46.347705  9073 net.cpp:433] inception_4e/3x3 -> inception_4e/3x3
I0707 16:02:46.353294  9073 net.cpp:155] Setting up inception_4e/3x3
I0707 16:02:46.353328  9073 net.cpp:163] Top shape: 10 320 14 14 (627200)
I0707 16:02:46.353343  9073 layer_factory.hpp:76] Creating layer inception_4e/relu_3x3
I0707 16:02:46.353351  9073 net.cpp:110] Creating Layer inception_4e/relu_3x3
I0707 16:02:46.353358  9073 net.cpp:477] inception_4e/relu_3x3 <- inception_4e/3x3
I0707 16:02:46.353368  9073 net.cpp:419] inception_4e/relu_3x3 -> inception_4e/3x3 (in-place)
I0707 16:02:46.353454  9073 net.cpp:155] Setting up inception_4e/relu_3x3
I0707 16:02:46.353463  9073 net.cpp:163] Top shape: 10 320 14 14 (627200)
I0707 16:02:46.353468  9073 layer_factory.hpp:76] Creating layer inception_4e/5x5_reduce
I0707 16:02:46.353480  9073 net.cpp:110] Creating Layer inception_4e/5x5_reduce
I0707 16:02:46.353485  9073 net.cpp:477] inception_4e/5x5_reduce <- inception_4d/output_inception_4d/output_0_split_2
I0707 16:02:46.353493  9073 net.cpp:433] inception_4e/5x5_reduce -> inception_4e/5x5_reduce
I0707 16:02:46.354454  9073 net.cpp:155] Setting up inception_4e/5x5_reduce
I0707 16:02:46.354470  9073 net.cpp:163] Top shape: 10 32 14 14 (62720)
I0707 16:02:46.354480  9073 layer_factory.hpp:76] Creating layer inception_4e/relu_5x5_reduce
I0707 16:02:46.354487  9073 net.cpp:110] Creating Layer inception_4e/relu_5x5_reduce
I0707 16:02:46.354492  9073 net.cpp:477] inception_4e/relu_5x5_reduce <- inception_4e/5x5_reduce
I0707 16:02:46.354501  9073 net.cpp:419] inception_4e/relu_5x5_reduce -> inception_4e/5x5_reduce (in-place)
I0707 16:02:46.355074  9073 net.cpp:155] Setting up inception_4e/relu_5x5_reduce
I0707 16:02:46.355089  9073 net.cpp:163] Top shape: 10 32 14 14 (62720)
I0707 16:02:46.355098  9073 layer_factory.hpp:76] Creating layer inception_4e/5x5
I0707 16:02:46.355108  9073 net.cpp:110] Creating Layer inception_4e/5x5
I0707 16:02:46.355113  9073 net.cpp:477] inception_4e/5x5 <- inception_4e/5x5_reduce
I0707 16:02:46.355123  9073 net.cpp:433] inception_4e/5x5 -> inception_4e/5x5
I0707 16:02:46.357678  9073 net.cpp:155] Setting up inception_4e/5x5
I0707 16:02:46.357695  9073 net.cpp:163] Top shape: 10 128 14 14 (250880)
I0707 16:02:46.357705  9073 layer_factory.hpp:76] Creating layer inception_4e/relu_5x5
I0707 16:02:46.357713  9073 net.cpp:110] Creating Layer inception_4e/relu_5x5
I0707 16:02:46.357718  9073 net.cpp:477] inception_4e/relu_5x5 <- inception_4e/5x5
I0707 16:02:46.357729  9073 net.cpp:419] inception_4e/relu_5x5 -> inception_4e/5x5 (in-place)
I0707 16:02:46.357815  9073 net.cpp:155] Setting up inception_4e/relu_5x5
I0707 16:02:46.357825  9073 net.cpp:163] Top shape: 10 128 14 14 (250880)
I0707 16:02:46.357830  9073 layer_factory.hpp:76] Creating layer inception_4e/pool
I0707 16:02:46.357836  9073 layer_factory.cpp:60] CUDNN does not support padding or multiple tops. Using Caffe's own pooling layer.
I0707 16:02:46.357846  9073 net.cpp:110] Creating Layer inception_4e/pool
I0707 16:02:46.357852  9073 net.cpp:477] inception_4e/pool <- inception_4d/output_inception_4d/output_0_split_3
I0707 16:02:46.357859  9073 net.cpp:433] inception_4e/pool -> inception_4e/pool
I0707 16:02:46.357872  9073 net.cpp:155] Setting up inception_4e/pool
I0707 16:02:46.357878  9073 net.cpp:163] Top shape: 10 528 14 14 (1034880)
I0707 16:02:46.357883  9073 layer_factory.hpp:76] Creating layer inception_4e/pool_proj
I0707 16:02:46.357893  9073 net.cpp:110] Creating Layer inception_4e/pool_proj
I0707 16:02:46.357899  9073 net.cpp:477] inception_4e/pool_proj <- inception_4e/pool
I0707 16:02:46.357906  9073 net.cpp:433] inception_4e/pool_proj -> inception_4e/pool_proj
I0707 16:02:46.359225  9073 net.cpp:155] Setting up inception_4e/pool_proj
I0707 16:02:46.359241  9073 net.cpp:163] Top shape: 10 128 14 14 (250880)
I0707 16:02:46.359251  9073 layer_factory.hpp:76] Creating layer inception_4e/relu_pool_proj
I0707 16:02:46.359259  9073 net.cpp:110] Creating Layer inception_4e/relu_pool_proj
I0707 16:02:46.359264  9073 net.cpp:477] inception_4e/relu_pool_proj <- inception_4e/pool_proj
I0707 16:02:46.359273  9073 net.cpp:419] inception_4e/relu_pool_proj -> inception_4e/pool_proj (in-place)
I0707 16:02:46.359362  9073 net.cpp:155] Setting up inception_4e/relu_pool_proj
I0707 16:02:46.359370  9073 net.cpp:163] Top shape: 10 128 14 14 (250880)
I0707 16:02:46.359376  9073 layer_factory.hpp:76] Creating layer inception_4e/output
I0707 16:02:46.359387  9073 net.cpp:110] Creating Layer inception_4e/output
I0707 16:02:46.359392  9073 net.cpp:477] inception_4e/output <- inception_4e/1x1
I0707 16:02:46.359397  9073 net.cpp:477] inception_4e/output <- inception_4e/3x3
I0707 16:02:46.359403  9073 net.cpp:477] inception_4e/output <- inception_4e/5x5
I0707 16:02:46.359408  9073 net.cpp:477] inception_4e/output <- inception_4e/pool_proj
I0707 16:02:46.359414  9073 net.cpp:433] inception_4e/output -> inception_4e/output
I0707 16:02:46.359427  9073 net.cpp:155] Setting up inception_4e/output
I0707 16:02:46.359434  9073 net.cpp:163] Top shape: 10 832 14 14 (1630720)
I0707 16:02:46.359438  9073 layer_factory.hpp:76] Creating layer pool4/3x3_s2
I0707 16:02:46.359447  9073 net.cpp:110] Creating Layer pool4/3x3_s2
I0707 16:02:46.359452  9073 net.cpp:477] pool4/3x3_s2 <- inception_4e/output
I0707 16:02:46.359457  9073 net.cpp:433] pool4/3x3_s2 -> pool4/3x3_s2
I0707 16:02:46.359540  9073 net.cpp:155] Setting up pool4/3x3_s2
I0707 16:02:46.359549  9073 net.cpp:163] Top shape: 10 832 7 7 (407680)
I0707 16:02:46.359555  9073 layer_factory.hpp:76] Creating layer pool4/3x3_s2_pool4/3x3_s2_0_split
I0707 16:02:46.359562  9073 net.cpp:110] Creating Layer pool4/3x3_s2_pool4/3x3_s2_0_split
I0707 16:02:46.359567  9073 net.cpp:477] pool4/3x3_s2_pool4/3x3_s2_0_split <- pool4/3x3_s2
I0707 16:02:46.359577  9073 net.cpp:433] pool4/3x3_s2_pool4/3x3_s2_0_split -> pool4/3x3_s2_pool4/3x3_s2_0_split_0
I0707 16:02:46.359586  9073 net.cpp:433] pool4/3x3_s2_pool4/3x3_s2_0_split -> pool4/3x3_s2_pool4/3x3_s2_0_split_1
I0707 16:02:46.359593  9073 net.cpp:433] pool4/3x3_s2_pool4/3x3_s2_0_split -> pool4/3x3_s2_pool4/3x3_s2_0_split_2
I0707 16:02:46.359601  9073 net.cpp:433] pool4/3x3_s2_pool4/3x3_s2_0_split -> pool4/3x3_s2_pool4/3x3_s2_0_split_3
I0707 16:02:46.359609  9073 net.cpp:155] Setting up pool4/3x3_s2_pool4/3x3_s2_0_split
I0707 16:02:46.359619  9073 net.cpp:163] Top shape: 10 832 7 7 (407680)
I0707 16:02:46.359625  9073 net.cpp:163] Top shape: 10 832 7 7 (407680)
I0707 16:02:46.359630  9073 net.cpp:163] Top shape: 10 832 7 7 (407680)
I0707 16:02:46.359635  9073 net.cpp:163] Top shape: 10 832 7 7 (407680)
I0707 16:02:46.359640  9073 layer_factory.hpp:76] Creating layer inception_5a/1x1
I0707 16:02:46.359648  9073 net.cpp:110] Creating Layer inception_5a/1x1
I0707 16:02:46.359653  9073 net.cpp:477] inception_5a/1x1 <- pool4/3x3_s2_pool4/3x3_s2_0_split_0
I0707 16:02:46.359663  9073 net.cpp:433] inception_5a/1x1 -> inception_5a/1x1
I0707 16:02:46.363068  9073 net.cpp:155] Setting up inception_5a/1x1
I0707 16:02:46.363100  9073 net.cpp:163] Top shape: 10 256 7 7 (125440)
I0707 16:02:46.363111  9073 layer_factory.hpp:76] Creating layer inception_5a/relu_1x1
I0707 16:02:46.363118  9073 net.cpp:110] Creating Layer inception_5a/relu_1x1
I0707 16:02:46.363124  9073 net.cpp:477] inception_5a/relu_1x1 <- inception_5a/1x1
I0707 16:02:46.363135  9073 net.cpp:419] inception_5a/relu_1x1 -> inception_5a/1x1 (in-place)
I0707 16:02:46.363690  9073 net.cpp:155] Setting up inception_5a/relu_1x1
I0707 16:02:46.363705  9073 net.cpp:163] Top shape: 10 256 7 7 (125440)
I0707 16:02:46.363711  9073 layer_factory.hpp:76] Creating layer inception_5a/3x3_reduce
I0707 16:02:46.363723  9073 net.cpp:110] Creating Layer inception_5a/3x3_reduce
I0707 16:02:46.363729  9073 net.cpp:477] inception_5a/3x3_reduce <- pool4/3x3_s2_pool4/3x3_s2_0_split_1
I0707 16:02:46.363737  9073 net.cpp:433] inception_5a/3x3_reduce -> inception_5a/3x3_reduce
I0707 16:02:46.366549  9073 net.cpp:155] Setting up inception_5a/3x3_reduce
I0707 16:02:46.366564  9073 net.cpp:163] Top shape: 10 160 7 7 (78400)
I0707 16:02:46.366587  9073 layer_factory.hpp:76] Creating layer inception_5a/relu_3x3_reduce
I0707 16:02:46.366595  9073 net.cpp:110] Creating Layer inception_5a/relu_3x3_reduce
I0707 16:02:46.366601  9073 net.cpp:477] inception_5a/relu_3x3_reduce <- inception_5a/3x3_reduce
I0707 16:02:46.366611  9073 net.cpp:419] inception_5a/relu_3x3_reduce -> inception_5a/3x3_reduce (in-place)
I0707 16:02:46.366711  9073 net.cpp:155] Setting up inception_5a/relu_3x3_reduce
I0707 16:02:46.366721  9073 net.cpp:163] Top shape: 10 160 7 7 (78400)
I0707 16:02:46.366727  9073 layer_factory.hpp:76] Creating layer inception_5a/3x3
I0707 16:02:46.366736  9073 net.cpp:110] Creating Layer inception_5a/3x3
I0707 16:02:46.366741  9073 net.cpp:477] inception_5a/3x3 <- inception_5a/3x3_reduce
I0707 16:02:46.366752  9073 net.cpp:433] inception_5a/3x3 -> inception_5a/3x3
I0707 16:02:46.372328  9073 net.cpp:155] Setting up inception_5a/3x3
I0707 16:02:46.372346  9073 net.cpp:163] Top shape: 10 320 7 7 (156800)
I0707 16:02:46.372356  9073 layer_factory.hpp:76] Creating layer inception_5a/relu_3x3
I0707 16:02:46.372369  9073 net.cpp:110] Creating Layer inception_5a/relu_3x3
I0707 16:02:46.372375  9073 net.cpp:477] inception_5a/relu_3x3 <- inception_5a/3x3
I0707 16:02:46.372381  9073 net.cpp:419] inception_5a/relu_3x3 -> inception_5a/3x3 (in-place)
I0707 16:02:46.372476  9073 net.cpp:155] Setting up inception_5a/relu_3x3
I0707 16:02:46.372485  9073 net.cpp:163] Top shape: 10 320 7 7 (156800)
I0707 16:02:46.372490  9073 layer_factory.hpp:76] Creating layer inception_5a/5x5_reduce
I0707 16:02:46.372503  9073 net.cpp:110] Creating Layer inception_5a/5x5_reduce
I0707 16:02:46.372508  9073 net.cpp:477] inception_5a/5x5_reduce <- pool4/3x3_s2_pool4/3x3_s2_0_split_2
I0707 16:02:46.372516  9073 net.cpp:433] inception_5a/5x5_reduce -> inception_5a/5x5_reduce
I0707 16:02:46.373586  9073 net.cpp:155] Setting up inception_5a/5x5_reduce
I0707 16:02:46.373602  9073 net.cpp:163] Top shape: 10 32 7 7 (15680)
I0707 16:02:46.373615  9073 layer_factory.hpp:76] Creating layer inception_5a/relu_5x5_reduce
I0707 16:02:46.373625  9073 net.cpp:110] Creating Layer inception_5a/relu_5x5_reduce
I0707 16:02:46.373630  9073 net.cpp:477] inception_5a/relu_5x5_reduce <- inception_5a/5x5_reduce
I0707 16:02:46.373638  9073 net.cpp:419] inception_5a/relu_5x5_reduce -> inception_5a/5x5_reduce (in-place)
I0707 16:02:46.374212  9073 net.cpp:155] Setting up inception_5a/relu_5x5_reduce
I0707 16:02:46.374227  9073 net.cpp:163] Top shape: 10 32 7 7 (15680)
I0707 16:02:46.374233  9073 layer_factory.hpp:76] Creating layer inception_5a/5x5
I0707 16:02:46.374244  9073 net.cpp:110] Creating Layer inception_5a/5x5
I0707 16:02:46.374250  9073 net.cpp:477] inception_5a/5x5 <- inception_5a/5x5_reduce
I0707 16:02:46.374258  9073 net.cpp:433] inception_5a/5x5 -> inception_5a/5x5
I0707 16:02:46.375972  9073 net.cpp:155] Setting up inception_5a/5x5
I0707 16:02:46.375990  9073 net.cpp:163] Top shape: 10 128 7 7 (62720)
I0707 16:02:46.376008  9073 layer_factory.hpp:76] Creating layer inception_5a/relu_5x5
I0707 16:02:46.376019  9073 net.cpp:110] Creating Layer inception_5a/relu_5x5
I0707 16:02:46.376025  9073 net.cpp:477] inception_5a/relu_5x5 <- inception_5a/5x5
I0707 16:02:46.376032  9073 net.cpp:419] inception_5a/relu_5x5 -> inception_5a/5x5 (in-place)
I0707 16:02:46.376121  9073 net.cpp:155] Setting up inception_5a/relu_5x5
I0707 16:02:46.376129  9073 net.cpp:163] Top shape: 10 128 7 7 (62720)
I0707 16:02:46.376135  9073 layer_factory.hpp:76] Creating layer inception_5a/pool
I0707 16:02:46.376142  9073 layer_factory.cpp:60] CUDNN does not support padding or multiple tops. Using Caffe's own pooling layer.
I0707 16:02:46.376173  9073 net.cpp:110] Creating Layer inception_5a/pool
I0707 16:02:46.376178  9073 net.cpp:477] inception_5a/pool <- pool4/3x3_s2_pool4/3x3_s2_0_split_3
I0707 16:02:46.376188  9073 net.cpp:433] inception_5a/pool -> inception_5a/pool
I0707 16:02:46.376201  9073 net.cpp:155] Setting up inception_5a/pool
I0707 16:02:46.376209  9073 net.cpp:163] Top shape: 10 832 7 7 (407680)
I0707 16:02:46.376214  9073 layer_factory.hpp:76] Creating layer inception_5a/pool_proj
I0707 16:02:46.376222  9073 net.cpp:110] Creating Layer inception_5a/pool_proj
I0707 16:02:46.376227  9073 net.cpp:477] inception_5a/pool_proj <- inception_5a/pool
I0707 16:02:46.376237  9073 net.cpp:433] inception_5a/pool_proj -> inception_5a/pool_proj
I0707 16:02:46.379051  9073 net.cpp:155] Setting up inception_5a/pool_proj
I0707 16:02:46.379075  9073 net.cpp:163] Top shape: 10 128 7 7 (62720)
I0707 16:02:46.379086  9073 layer_factory.hpp:76] Creating layer inception_5a/relu_pool_proj
I0707 16:02:46.379098  9073 net.cpp:110] Creating Layer inception_5a/relu_pool_proj
I0707 16:02:46.379106  9073 net.cpp:477] inception_5a/relu_pool_proj <- inception_5a/pool_proj
I0707 16:02:46.379112  9073 net.cpp:419] inception_5a/relu_pool_proj -> inception_5a/pool_proj (in-place)
I0707 16:02:46.379202  9073 net.cpp:155] Setting up inception_5a/relu_pool_proj
I0707 16:02:46.379211  9073 net.cpp:163] Top shape: 10 128 7 7 (62720)
I0707 16:02:46.379217  9073 layer_factory.hpp:76] Creating layer inception_5a/output
I0707 16:02:46.379227  9073 net.cpp:110] Creating Layer inception_5a/output
I0707 16:02:46.379233  9073 net.cpp:477] inception_5a/output <- inception_5a/1x1
I0707 16:02:46.379240  9073 net.cpp:477] inception_5a/output <- inception_5a/3x3
I0707 16:02:46.379245  9073 net.cpp:477] inception_5a/output <- inception_5a/5x5
I0707 16:02:46.379250  9073 net.cpp:477] inception_5a/output <- inception_5a/pool_proj
I0707 16:02:46.379256  9073 net.cpp:433] inception_5a/output -> inception_5a/output
I0707 16:02:46.379268  9073 net.cpp:155] Setting up inception_5a/output
I0707 16:02:46.379274  9073 net.cpp:163] Top shape: 10 832 7 7 (407680)
I0707 16:02:46.379279  9073 layer_factory.hpp:76] Creating layer inception_5a/output_inception_5a/output_0_split
I0707 16:02:46.379289  9073 net.cpp:110] Creating Layer inception_5a/output_inception_5a/output_0_split
I0707 16:02:46.379294  9073 net.cpp:477] inception_5a/output_inception_5a/output_0_split <- inception_5a/output
I0707 16:02:46.379300  9073 net.cpp:433] inception_5a/output_inception_5a/output_0_split -> inception_5a/output_inception_5a/output_0_split_0
I0707 16:02:46.379308  9073 net.cpp:433] inception_5a/output_inception_5a/output_0_split -> inception_5a/output_inception_5a/output_0_split_1
I0707 16:02:46.379317  9073 net.cpp:433] inception_5a/output_inception_5a/output_0_split -> inception_5a/output_inception_5a/output_0_split_2
I0707 16:02:46.379324  9073 net.cpp:433] inception_5a/output_inception_5a/output_0_split -> inception_5a/output_inception_5a/output_0_split_3
I0707 16:02:46.379333  9073 net.cpp:155] Setting up inception_5a/output_inception_5a/output_0_split
I0707 16:02:46.379338  9073 net.cpp:163] Top shape: 10 832 7 7 (407680)
I0707 16:02:46.379343  9073 net.cpp:163] Top shape: 10 832 7 7 (407680)
I0707 16:02:46.379348  9073 net.cpp:163] Top shape: 10 832 7 7 (407680)
I0707 16:02:46.379354  9073 net.cpp:163] Top shape: 10 832 7 7 (407680)
I0707 16:02:46.379359  9073 layer_factory.hpp:76] Creating layer inception_5b/1x1
I0707 16:02:46.379370  9073 net.cpp:110] Creating Layer inception_5b/1x1
I0707 16:02:46.379375  9073 net.cpp:477] inception_5b/1x1 <- inception_5a/output_inception_5a/output_0_split_0
I0707 16:02:46.379385  9073 net.cpp:433] inception_5b/1x1 -> inception_5b/1x1
I0707 16:02:46.384202  9073 net.cpp:155] Setting up inception_5b/1x1
I0707 16:02:46.384238  9073 net.cpp:163] Top shape: 10 384 7 7 (188160)
I0707 16:02:46.384251  9073 layer_factory.hpp:76] Creating layer inception_5b/relu_1x1
I0707 16:02:46.384264  9073 net.cpp:110] Creating Layer inception_5b/relu_1x1
I0707 16:02:46.384271  9073 net.cpp:477] inception_5b/relu_1x1 <- inception_5b/1x1
I0707 16:02:46.384279  9073 net.cpp:419] inception_5b/relu_1x1 -> inception_5b/1x1 (in-place)
I0707 16:02:46.384374  9073 net.cpp:155] Setting up inception_5b/relu_1x1
I0707 16:02:46.384383  9073 net.cpp:163] Top shape: 10 384 7 7 (188160)
I0707 16:02:46.384388  9073 layer_factory.hpp:76] Creating layer inception_5b/3x3_reduce
I0707 16:02:46.384402  9073 net.cpp:110] Creating Layer inception_5b/3x3_reduce
I0707 16:02:46.384407  9073 net.cpp:477] inception_5b/3x3_reduce <- inception_5a/output_inception_5a/output_0_split_1
I0707 16:02:46.384414  9073 net.cpp:433] inception_5b/3x3_reduce -> inception_5b/3x3_reduce
I0707 16:02:46.387892  9073 net.cpp:155] Setting up inception_5b/3x3_reduce
I0707 16:02:46.387917  9073 net.cpp:163] Top shape: 10 192 7 7 (94080)
I0707 16:02:46.387929  9073 layer_factory.hpp:76] Creating layer inception_5b/relu_3x3_reduce
I0707 16:02:46.387940  9073 net.cpp:110] Creating Layer inception_5b/relu_3x3_reduce
I0707 16:02:46.387946  9073 net.cpp:477] inception_5b/relu_3x3_reduce <- inception_5b/3x3_reduce
I0707 16:02:46.387954  9073 net.cpp:419] inception_5b/relu_3x3_reduce -> inception_5b/3x3_reduce (in-place)
I0707 16:02:46.388566  9073 net.cpp:155] Setting up inception_5b/relu_3x3_reduce
I0707 16:02:46.388579  9073 net.cpp:163] Top shape: 10 192 7 7 (94080)
I0707 16:02:46.388586  9073 layer_factory.hpp:76] Creating layer inception_5b/3x3
I0707 16:02:46.388597  9073 net.cpp:110] Creating Layer inception_5b/3x3
I0707 16:02:46.388602  9073 net.cpp:477] inception_5b/3x3 <- inception_5b/3x3_reduce
I0707 16:02:46.388610  9073 net.cpp:433] inception_5b/3x3 -> inception_5b/3x3
I0707 16:02:46.396919  9073 net.cpp:155] Setting up inception_5b/3x3
I0707 16:02:46.396965  9073 net.cpp:163] Top shape: 10 384 7 7 (188160)
I0707 16:02:46.396980  9073 layer_factory.hpp:76] Creating layer inception_5b/relu_3x3
I0707 16:02:46.396994  9073 net.cpp:110] Creating Layer inception_5b/relu_3x3
I0707 16:02:46.397001  9073 net.cpp:477] inception_5b/relu_3x3 <- inception_5b/3x3
I0707 16:02:46.397012  9073 net.cpp:419] inception_5b/relu_3x3 -> inception_5b/3x3 (in-place)
I0707 16:02:46.397107  9073 net.cpp:155] Setting up inception_5b/relu_3x3
I0707 16:02:46.397116  9073 net.cpp:163] Top shape: 10 384 7 7 (188160)
I0707 16:02:46.397121  9073 layer_factory.hpp:76] Creating layer inception_5b/5x5_reduce
I0707 16:02:46.397133  9073 net.cpp:110] Creating Layer inception_5b/5x5_reduce
I0707 16:02:46.397138  9073 net.cpp:477] inception_5b/5x5_reduce <- inception_5a/output_inception_5a/output_0_split_2
I0707 16:02:46.397150  9073 net.cpp:433] inception_5b/5x5_reduce -> inception_5b/5x5_reduce
I0707 16:02:46.398316  9073 net.cpp:155] Setting up inception_5b/5x5_reduce
I0707 16:02:46.398332  9073 net.cpp:163] Top shape: 10 48 7 7 (23520)
I0707 16:02:46.398341  9073 layer_factory.hpp:76] Creating layer inception_5b/relu_5x5_reduce
I0707 16:02:46.398350  9073 net.cpp:110] Creating Layer inception_5b/relu_5x5_reduce
I0707 16:02:46.398355  9073 net.cpp:477] inception_5b/relu_5x5_reduce <- inception_5b/5x5_reduce
I0707 16:02:46.398361  9073 net.cpp:419] inception_5b/relu_5x5_reduce -> inception_5b/5x5_reduce (in-place)
I0707 16:02:46.398458  9073 net.cpp:155] Setting up inception_5b/relu_5x5_reduce
I0707 16:02:46.398468  9073 net.cpp:163] Top shape: 10 48 7 7 (23520)
I0707 16:02:46.398473  9073 layer_factory.hpp:76] Creating layer inception_5b/5x5
I0707 16:02:46.398483  9073 net.cpp:110] Creating Layer inception_5b/5x5
I0707 16:02:46.398488  9073 net.cpp:477] inception_5b/5x5 <- inception_5b/5x5_reduce
I0707 16:02:46.398499  9073 net.cpp:433] inception_5b/5x5 -> inception_5b/5x5
I0707 16:02:46.400568  9073 net.cpp:155] Setting up inception_5b/5x5
I0707 16:02:46.400584  9073 net.cpp:163] Top shape: 10 128 7 7 (62720)
I0707 16:02:46.400594  9073 layer_factory.hpp:76] Creating layer inception_5b/relu_5x5
I0707 16:02:46.400605  9073 net.cpp:110] Creating Layer inception_5b/relu_5x5
I0707 16:02:46.400611  9073 net.cpp:477] inception_5b/relu_5x5 <- inception_5b/5x5
I0707 16:02:46.400617  9073 net.cpp:419] inception_5b/relu_5x5 -> inception_5b/5x5 (in-place)
I0707 16:02:46.400707  9073 net.cpp:155] Setting up inception_5b/relu_5x5
I0707 16:02:46.400717  9073 net.cpp:163] Top shape: 10 128 7 7 (62720)
I0707 16:02:46.400723  9073 layer_factory.hpp:76] Creating layer inception_5b/pool
I0707 16:02:46.400730  9073 layer_factory.cpp:60] CUDNN does not support padding or multiple tops. Using Caffe's own pooling layer.
I0707 16:02:46.400738  9073 net.cpp:110] Creating Layer inception_5b/pool
I0707 16:02:46.400743  9073 net.cpp:477] inception_5b/pool <- inception_5a/output_inception_5a/output_0_split_3
I0707 16:02:46.400749  9073 net.cpp:433] inception_5b/pool -> inception_5b/pool
I0707 16:02:46.400761  9073 net.cpp:155] Setting up inception_5b/pool
I0707 16:02:46.400768  9073 net.cpp:163] Top shape: 10 832 7 7 (407680)
I0707 16:02:46.400773  9073 layer_factory.hpp:76] Creating layer inception_5b/pool_proj
I0707 16:02:46.400784  9073 net.cpp:110] Creating Layer inception_5b/pool_proj
I0707 16:02:46.400790  9073 net.cpp:477] inception_5b/pool_proj <- inception_5b/pool
I0707 16:02:46.400799  9073 net.cpp:433] inception_5b/pool_proj -> inception_5b/pool_proj
I0707 16:02:46.403517  9073 net.cpp:155] Setting up inception_5b/pool_proj
I0707 16:02:46.403533  9073 net.cpp:163] Top shape: 10 128 7 7 (62720)
I0707 16:02:46.403543  9073 layer_factory.hpp:76] Creating layer inception_5b/relu_pool_proj
I0707 16:02:46.403553  9073 net.cpp:110] Creating Layer inception_5b/relu_pool_proj
I0707 16:02:46.403559  9073 net.cpp:477] inception_5b/relu_pool_proj <- inception_5b/pool_proj
I0707 16:02:46.403566  9073 net.cpp:419] inception_5b/relu_pool_proj -> inception_5b/pool_proj (in-place)
I0707 16:02:46.404129  9073 net.cpp:155] Setting up inception_5b/relu_pool_proj
I0707 16:02:46.404145  9073 net.cpp:163] Top shape: 10 128 7 7 (62720)
I0707 16:02:46.404151  9073 layer_factory.hpp:76] Creating layer inception_5b/output
I0707 16:02:46.404160  9073 net.cpp:110] Creating Layer inception_5b/output
I0707 16:02:46.404166  9073 net.cpp:477] inception_5b/output <- inception_5b/1x1
I0707 16:02:46.404171  9073 net.cpp:477] inception_5b/output <- inception_5b/3x3
I0707 16:02:46.404177  9073 net.cpp:477] inception_5b/output <- inception_5b/5x5
I0707 16:02:46.404182  9073 net.cpp:477] inception_5b/output <- inception_5b/pool_proj
I0707 16:02:46.404188  9073 net.cpp:433] inception_5b/output -> inception_5b/output
I0707 16:02:46.404199  9073 net.cpp:155] Setting up inception_5b/output
I0707 16:02:46.404206  9073 net.cpp:163] Top shape: 10 1024 7 7 (501760)
I0707 16:02:46.404211  9073 layer_factory.hpp:76] Creating layer pool5/7x7_s1
I0707 16:02:46.404222  9073 net.cpp:110] Creating Layer pool5/7x7_s1
I0707 16:02:46.404227  9073 net.cpp:477] pool5/7x7_s1 <- inception_5b/output
I0707 16:02:46.404234  9073 net.cpp:433] pool5/7x7_s1 -> pool5/7x7_s1
I0707 16:02:46.404325  9073 net.cpp:155] Setting up pool5/7x7_s1
I0707 16:02:46.404335  9073 net.cpp:163] Top shape: 10 1024 1 1 (10240)
I0707 16:02:46.404340  9073 layer_factory.hpp:76] Creating layer pool5/drop_7x7_s1
I0707 16:02:46.404350  9073 net.cpp:110] Creating Layer pool5/drop_7x7_s1
I0707 16:02:46.404355  9073 net.cpp:477] pool5/drop_7x7_s1 <- pool5/7x7_s1
I0707 16:02:46.404362  9073 net.cpp:419] pool5/drop_7x7_s1 -> pool5/7x7_s1 (in-place)
I0707 16:02:46.404382  9073 net.cpp:155] Setting up pool5/drop_7x7_s1
I0707 16:02:46.404388  9073 net.cpp:163] Top shape: 10 1024 1 1 (10240)
I0707 16:02:46.404393  9073 layer_factory.hpp:76] Creating layer loss3/classifier
I0707 16:02:46.404413  9073 net.cpp:110] Creating Layer loss3/classifier
I0707 16:02:46.404418  9073 net.cpp:477] loss3/classifier <- pool5/7x7_s1
I0707 16:02:46.404428  9073 net.cpp:433] loss3/classifier -> loss3/classifier
I0707 16:02:46.414620  9073 net.cpp:155] Setting up loss3/classifier
I0707 16:02:46.414657  9073 net.cpp:163] Top shape: 10 1000 (10000)
I0707 16:02:46.414671  9073 layer_factory.hpp:76] Creating layer prob
I0707 16:02:46.414692  9073 net.cpp:110] Creating Layer prob
I0707 16:02:46.414700  9073 net.cpp:477] prob <- loss3/classifier
I0707 16:02:46.414711  9073 net.cpp:433] prob -> prob
I0707 16:02:46.414881  9073 net.cpp:155] Setting up prob
I0707 16:02:46.414892  9073 net.cpp:163] Top shape: 10 1000 (10000)
I0707 16:02:46.414898  9073 net.cpp:240] prob does not need backward computation.
I0707 16:02:46.414903  9073 net.cpp:240] loss3/classifier does not need backward computation.
I0707 16:02:46.414908  9073 net.cpp:240] pool5/drop_7x7_s1 does not need backward computation.
I0707 16:02:46.414912  9073 net.cpp:240] pool5/7x7_s1 does not need backward computation.
I0707 16:02:46.414916  9073 net.cpp:240] inception_5b/output does not need backward computation.
…
