…
2016-09-25 23:22:04.311 STDERR [INFO] I0925 23:22:03.100502 32390 net.cpp:91] Creating Layer input
2016-09-25 23:22:04.311 STDERR [INFO] I0925 23:22:03.100510 32390 net.cpp:399] input -> frames_fc7
2016-09-25 23:22:04.311 STDERR [INFO] I0925 23:22:03.100527 32390 net.cpp:399] input -> cont_sentence
2016-09-25 23:22:04.312 STDERR [INFO] I0925 23:22:03.100538 32390 net.cpp:399] input -> input_sentence
2016-09-25 23:22:04.312 STDERR [INFO] I0925 23:22:03.100546 32390 net.cpp:399] input -> stage_indicator
2016-09-25 23:22:04.312 STDERR [INFO] I0925 23:22:03.529220 32370 net.cpp:141] Setting up input
2016-09-25 23:22:04.312 STDERR [INFO] I0925 23:22:03.529284 32370 net.cpp:148] Top shape: 1 4096 (4096)
2016-09-25 23:22:04.312 STDERR [INFO] I0925 23:22:03.529292 32370 net.cpp:148] Top shape: 1 1 (1)
2016-09-25 23:22:04.312 STDERR [INFO] I0925 23:22:03.529299 32370 net.cpp:148] Top shape: 1 1 (1)
2016-09-25 23:22:04.312 STDERR [INFO] I0925 23:22:03.529304 32370 net.cpp:148] Top shape: 1 1 (1)
2016-09-25 23:22:04.312 STDERR [INFO] I0925 23:22:03.529309 32370 net.cpp:156] Memory required for data: 16396
2016-09-25 23:22:04.313 STDERR [INFO] I0925 23:22:03.529327 32370 layer_factory.hpp:77] Creating layer cont_sentence_input_1_split
2016-09-25 23:22:04.313 STDERR [INFO] I0925 23:22:03.529357 32370 net.cpp:91] Creating Layer cont_sentence_input_1_split
2016-09-25 23:22:04.313 STDERR [INFO] I0925 23:22:03.529353 32418 net.cpp:141] Setting up input
2016-09-25 23:22:04.313 STDERR [INFO] I0925 23:22:03.529371 32370 net.cpp:425] cont_sentence_input_1_split <- cont_sentence
2016-09-25 23:22:04.313 STDERR [INFO] I0925 23:22:03.529381 32418 net.cpp:148] Top shape: 1 4096 (4096)
2016-09-25 23:22:04.313 STDERR [INFO] I0925 23:22:03.529388 32418 net.cpp:148] Top shape: 1 1 (1)
2016-09-25 23:22:04.313 STDERR [INFO] I0925 23:22:03.529393 32370 net.cpp:399] cont_sentence_input_1_split -> cont_sentence_input_1_split_0
2016-09-25 23:22:04.313 STDERR [INFO] I0925 23:22:03.529394 32418 net.cpp:148] Top shape: 1 1 (1)
2016-09-25 23:22:04.314 STDERR [INFO] I0925 23:22:03.529402 32418 net.cpp:148] Top shape: 1 1 (1)
2016-09-25 23:22:04.314 STDERR [INFO] I0925 23:22:03.529405 32418 net.cpp:156] Memory required for data: 16396
2016-09-25 23:22:04.314 STDERR [INFO] I0925 23:22:03.529408 32370 net.cpp:399] cont_sentence_input_1_split -> cont_sentence_input_1_split_1
2016-09-25 23:22:04.314 STDERR [INFO] I0925 23:22:03.529412 32418 layer_factory.hpp:77] Creating layer cont_sentence_input_1_split
2016-09-25 23:22:04.314 STDERR [INFO] I0925 23:22:03.529422 32418 net.cpp:91] Creating Layer cont_sentence_input_1_split
2016-09-25 23:22:04.314 STDERR [INFO] I0925 23:22:03.529428 32418 net.cpp:425] cont_sentence_input_1_split <- cont_sentence
2016-09-25 23:22:04.314 STDERR [INFO] I0925 23:22:03.529438 32418 net.cpp:399] cont_sentence_input_1_split -> cont_sentence_input_1_split_0
2016-09-25 23:22:04.314 STDERR [INFO] I0925 23:22:03.529449 32418 net.cpp:399] cont_sentence_input_1_split -> cont_sentence_input_1_split_1
2016-09-25 23:22:04.315 STDERR [INFO] I0925 23:22:03.529476 32370 net.cpp:141] Setting up cont_sentence_input_1_split
2016-09-25 23:22:04.315 STDERR [INFO] I0925 23:22:03.529486 32370 net.cpp:148] Top shape: 1 1 (1)
2016-09-25 23:22:04.315 STDERR [INFO] I0925 23:22:03.529492 32370 net.cpp:148] Top shape: 1 1 (1)
2016-09-25 23:22:04.315 STDERR [INFO] I0925 23:22:03.529496 32370 net.cpp:156] Memory required for data: 16404
2016-09-25 23:22:04.315 STDERR [INFO] I0925 23:22:03.529501 32370 layer_factory.hpp:77] Creating layer embed_encoder
2016-09-25 23:22:04.315 STDERR [INFO] I0925 23:22:03.529521 32370 net.cpp:91] Creating Layer embed_encoder
2016-09-25 23:22:04.315 STDERR [INFO] I0925 23:22:03.529526 32370 net.cpp:425] embed_encoder <- frames_fc7
2016-09-25 23:22:04.315 STDERR [INFO] I0925 23:22:03.529536 32370 net.cpp:399] embed_encoder -> embedded_in_frames
2016-09-25 23:22:04.316 STDERR [INFO] I0925 23:22:03.529649 32396 net.cpp:141] Setting up input
2016-09-25 23:22:04.316 STDERR [INFO] I0925 23:22:03.529687 32396 net.cpp:148] Top shape: 1 4096 (4096)
2016-09-25 23:22:04.316 STDERR [INFO] I0925 23:22:03.529695 32396 net.cpp:148] Top shape: 1 1 (1)
2016-09-25 23:22:04.316 STDERR [INFO] I0925 23:22:03.529701 32396 net.cpp:148] Top shape: 1 1 (1)
2016-09-25 23:22:04.316 STDERR [INFO] I0925 23:22:03.529706 32396 net.cpp:148] Top shape: 1 1 (1)
2016-09-25 23:22:04.316 STDERR [INFO] I0925 23:22:03.529705 32366 net.cpp:141] Setting up input
2016-09-25 23:22:04.316 STDERR [INFO] I0925 23:22:03.529711 32396 net.cpp:156] Memory required for data: 16396
2016-09-25 23:22:04.316 STDERR [INFO] I0925 23:22:03.529726 32366 net.cpp:148] Top shape: 1 4096 (4096)
2016-09-25 23:22:04.316 STDERR [INFO] I0925 23:22:03.529729 32396 layer_factory.hpp:77] Creating layer cont_sentence_input_1_split
2016-09-25 23:22:04.317 STDERR [INFO] I0925 23:22:03.529733 32366 net.cpp:148] Top shape: 1 1 (1)
2016-09-25 23:22:04.317 STDERR [INFO] I0925 23:22:03.529739 32366 net.cpp:148] Top shape: 1 1 (1)
2016-09-25 23:22:04.317 STDERR [INFO] I0925 23:22:03.529744 32366 net.cpp:148] Top shape: 1 1 (1)
2016-09-25 23:22:04.317 STDERR [INFO] I0925 23:22:03.529742 32410 net.cpp:141] Setting up input
2016-09-25 23:22:04.317 STDERR [INFO] I0925 23:22:03.529748 32366 net.cpp:156] Memory required for data: 16396
2016-09-25 23:22:04.317 STDERR [INFO] I0925 23:22:03.529749 32396 net.cpp:91] Creating Layer cont_sentence_input_1_split
2016-09-25 23:22:04.317 STDERR [INFO] I0925 23:22:03.529765 32366 layer_factory.hpp:77] Creating layer cont_sentence_input_1_split
2016-09-25 23:22:04.317 STDERR [INFO] I0925 23:22:03.529763 32410 net.cpp:148] Top shape: 1 4096 (4096)
2016-09-25 23:22:04.317 STDERR [INFO] I0925 23:22:03.529775 32396 net.cpp:425] cont_sentence_input_1_split <- cont_sentence
2016-09-25 23:22:04.318 STDERR [INFO] I0925 23:22:03.529779 32410 net.cpp:148] Top shape: 1 1 (1)
2016-09-25 23:22:04.318 STDERR [INFO] I0925 23:22:03.529777 32366 net.cpp:91] Creating Layer cont_sentence_input_1_split
2016-09-25 23:22:04.318 STDERR [INFO] I0925 23:22:03.529786 32410 net.cpp:148] Top shape: 1 1 (1)
2016-09-25 23:22:04.318 STDERR [INFO] I0925 23:22:03.529788 32366 net.cpp:425] cont_sentence_input_1_split <- cont_sentence
2016-09-25 23:22:04.318 STDERR [INFO] I0925 23:22:03.529793 32410 net.cpp:148] Top shape: 1 1 (1)
2016-09-25 23:22:04.318 STDERR [INFO] I0925 23:22:03.529798 32366 net.cpp:399] cont_sentence_input_1_split -> cont_sentence_input_1_split_0
2016-09-25 23:22:04.319 STDERR [INFO] I0925 23:22:03.529793 32396 net.cpp:399] cont_sentence_input_1_split -> cont_sentence_input_1_split_0
2016-09-25 23:22:04.319 STDERR [INFO] I0925 23:22:03.529801 32410 net.cpp:156] Memory required for data: 16396
2016-09-25 23:22:04.319 STDERR [INFO] I0925 23:22:03.529808 32410 layer_factory.hpp:77] Creating layer cont_sentence_input_1_split
…
2016-09-25 23:22:04.319 STDERR [INFO] I0925 23:22:03.529819 32410 net.cpp:91] Creating Layer cont_sentence_input_1_split
2016-09-25 23:22:04.319 STDERR [INFO] I0925 23:22:03.529825 32410 net.cpp:425] cont_sentence_input_1_split <- cont_sentence
2016-09-25 23:22:04.319 STDERR [INFO] I0925 23:22:03.529836 32410 net.cpp:399] cont_sentence_input_1_split -> cont_sentence_input_1_split_0
2016-09-25 23:22:04.320 STDERR [INFO] I0925 23:22:03.529840 32384 net.cpp:141] Setting up input
2016-09-25 23:22:04.320 STDERR [INFO] I0925 23:22:03.529850 32410 net.cpp:399] cont_sentence_input_1_split -> cont_sentence_input_1_split_1
2016-09-25 23:22:04.320 STDERR [INFO] I0925 23:22:03.529856 32384 net.cpp:148] Top shape: 1 4096 (4096)
2016-09-25 23:22:04.320 STDERR [INFO] I0925 23:22:03.529865 32384 net.cpp:148] Top shape: 1 1 (1)
2016-09-25 23:22:04.320 STDERR [INFO] I0925 23:22:03.529870 32384 net.cpp:148] Top shape: 1 1 (1)
2016-09-25 23:22:04.320 STDERR [INFO] I0925 23:22:03.529875 32384 net.cpp:148] Top shape: 1 1 (1)
2016-09-25 23:22:04.320 STDERR [INFO] I0925 23:22:03.529880 32384 net.cpp:156] Memory required for data: 16396
2016-09-25 23:22:04.321 STDERR [INFO] I0925 23:22:03.529886 32384 layer_factory.hpp:77] Creating layer cont_sentence_input_1_split
2016-09-25 23:22:04.321 STDERR [INFO] I0925 23:22:03.529894 32384 net.cpp:91] Creating Layer cont_sentence_input_1_split
2016-09-25 23:22:04.321 STDERR [INFO] I0925 23:22:03.529899 32384 net.cpp:425] cont_sentence_input_1_split <- cont_sentence
2016-09-25 23:22:04.321 STDERR [INFO] I0925 23:22:03.529907 32384 net.cpp:399] cont_sentence_input_1_split -> cont_sentence_input_1_split_0
2016-09-25 23:22:04.321 STDERR [INFO] I0925 23:22:03.529918 32384 net.cpp:399] cont_sentence_input_1_split -> cont_sentence_input_1_split_1
2016-09-25 23:22:04.321 STDERR [INFO] I0925 23:22:03.533861 32362 net.cpp:141] Setting up input
2016-09-25 23:22:04.321 STDERR [INFO] I0925 23:22:03.533881 32362 net.cpp:148] Top shape: 1 4096 (4096)
2016-09-25 23:22:04.321 STDERR [INFO] I0925 23:22:03.533888 32362 net.cpp:148] Top shape: 1 1 (1)
2016-09-25 23:22:04.322 STDERR [INFO] I0925 23:22:03.533895 32362 net.cpp:148] Top shape: 1 1 (1)
2016-09-25 23:22:04.322 STDERR [INFO] I0925 23:22:03.533900 32362 net.cpp:148] Top shape: 1 1 (1)
2016-09-25 23:22:04.322 STDERR [INFO] I0925 23:22:03.533903 32362 net.cpp:156] Memory required for data: 16396
2016-09-25 23:22:04.322 STDERR [INFO] I0925 23:22:03.533910 32362 layer_factory.hpp:77] Creating layer cont_sentence_input_1_split
2016-09-25 23:22:04.322 STDERR [INFO] I0925 23:22:03.533927 32362 net.cpp:91] Creating Layer cont_sentence_input_1_split
2016-09-25 23:22:04.322 STDERR [INFO] I0925 23:22:03.533934 32362 net.cpp:425] cont_sentence_input_1_split <- cont_sentence
2016-09-25 23:22:04.322 STDERR [INFO] I0925 23:22:03.533931 32396 net.cpp:141] Setting up cont_sentence_input_1_split
2016-09-25 23:22:04.323 STDERR [INFO] I0925 23:22:03.533942 32362 net.cpp:399] cont_sentence_input_1_split -> cont_sentence_input_1_split_0
2016-09-25 23:22:04.323 STDERR [INFO] I0925 23:22:03.533962 32396 net.cpp:148] Top shape: 1 1 (1)
2016-09-25 23:22:04.323 STDERR [INFO] I0925 23:22:03.533972 32396 net.cpp:148] Top shape: 1 1 (1)
2016-09-25 23:22:04.323 STDERR [INFO] I0925 23:22:03.533974 32362 net.cpp:399] cont_sentence_input_1_split -> cont_sentence_input_1_split_1
2016-09-25 23:22:04.323 STDERR [INFO] I0925 23:22:03.533975 32396 net.cpp:156] Memory required for data: 16404
2016-09-25 23:22:04.323 STDERR [INFO] I0925 23:22:03.533994 32396 layer_factory.hpp:77] Creating layer embed_encoder
2016-09-25 23:22:04.323 STDERR [INFO] I0925 23:22:03.534011 32396 net.cpp:91] Creating Layer embed_encoder
2016-09-25 23:22:04.323 STDERR [INFO] I0925 23:22:03.534018 32396 net.cpp:425] embed_encoder <- frames_fc7
2016-09-25 23:22:04.324 STDERR [INFO] I0925 23:22:03.534029 32396 net.cpp:399] embed_encoder -> embedded_in_frames
2016-09-25 23:22:04.324 STDERR [INFO] I0925 23:22:03.534059 32410 net.cpp:141] Setting up cont_sentence_input_1_split
2016-09-25 23:22:04.324 STDERR [INFO] I0925 23:22:03.534072 32410 net.cpp:148] Top shape: 1 1 (1)
2016-09-25 23:22:04.324 STDERR [INFO] I0925 23:22:03.534078 32410 net.cpp:148] Top shape: 1 1 (1)
2016-09-25 23:22:04.324 STDERR [INFO] I0925 23:22:03.534086 32410 net.cpp:156] Memory required for data: 16404
2016-09-25 23:22:04.324 STDERR [INFO] I0925 23:22:03.534095 32410 layer_factory.hpp:77] Creating layer embed_encoder
2016-09-25 23:22:04.324 STDERR [INFO] I0925 23:22:03.534102 32384 net.cpp:141] Setting up cont_sentence_input_1_split
2016-09-25 23:22:04.324 STDERR [INFO] I0925 23:22:03.534106 32410 net.cpp:91] Creating Layer embed_encoder
2016-09-25 23:22:04.324 STDERR [INFO] I0925 23:22:03.534124 32384 net.cpp:148] Top shape: 1 1 (1)
2016-09-25 23:22:04.325 STDERR [INFO] I0925 23:22:03.534126 32410 net.cpp:425] embed_encoder <- frames_fc7
2016-09-25 23:22:04.325 STDERR [INFO] I0925 23:22:03.534132 32384 net.cpp:148] Top shape: 1 1 (1)
2016-09-25 23:22:04.325 STDERR [INFO] I0925 23:22:03.534137 32384 net.cpp:156] Memory required for data: 16404
2016-09-25 23:22:04.325 STDERR [INFO] I0925 23:22:03.534137 32410 net.cpp:399] embed_encoder -> embedded_in_frames
2016-09-25 23:22:04.326 STDERR [INFO] I0925 23:22:03.534142 32384 layer_factory.hpp:77] Creating layer embed_encoder
2016-09-25 23:22:04.326 STDERR [INFO] I0925 23:22:03.534154 32384 net.cpp:91] Creating Layer embed_encoder
2016-09-25 23:22:04.326 STDERR [INFO] I0925 23:22:03.534160 32384 net.cpp:425] embed_encoder <- frames_fc7
2016-09-25 23:22:04.326 STDERR [INFO] I0925 23:22:03.534168 32384 net.cpp:399] embed_encoder -> embedded_in_frames
2016-09-25 23:22:04.326 STDERR [INFO] I0925 23:22:03.534196 32390 net.cpp:141] Setting up input
2016-09-25 23:22:04.326 STDERR [INFO] I0925 23:22:03.534215 32390 net.cpp:148] Top shape: 1 4096 (4096)
2016-09-25 23:22:04.326 STDERR [INFO] I0925 23:22:03.534222 32390 net.cpp:148] Top shape: 1 1 (1)
2016-09-25 23:22:04.326 STDERR [INFO] I0925 23:22:03.534229 32390 net.cpp:148] Top shape: 1 1 (1)
2016-09-25 23:22:04.327 STDERR [INFO] I0925 23:22:03.534234 32390 net.cpp:148] Top shape: 1 1 (1)
2016-09-25 23:22:04.327 STDERR [INFO] I0925 23:22:03.534237 32390 net.cpp:156] Memory required for data: 16396
2016-09-25 23:22:04.327 STDERR [INFO] I0925 23:22:03.534243 32390 layer_factory.hpp:77] Creating layer cont_sentence_input_1_split
2016-09-25 23:22:04.327 STDERR [INFO] I0925 23:22:03.534255 32390 net.cpp:91] Creating Layer cont_sentence_input_1_split
2016-09-25 23:22:04.327 STDERR [INFO] I0925 23:22:03.534260 32390 net.cpp:425] cont_sentence_input_1_split <- cont_sentence
2016-09-25 23:22:04.327 STDERR [INFO] I0925 23:22:03.534268 32390 net.cpp:399] cont_sentence_input_1_split -> cont_sentence_input_1_split_0
2016-09-25 23:22:04.327 STDERR [INFO] I0925 23:22:03.534279 32390 net.cpp:399] cont_sentence_input_1_split -> cont_sentence_input_1_split_1
2016-09-25 23:22:04.327 STDERR [INFO] I0925 23:22:03.538255 32418 net.cpp:141] Setting up cont_sentence_input_1_split
2016-09-25 23:22:04.328 STDERR [INFO] I0925 23:22:03.538275 32418 net.cpp:148] Top shape: 1 1 (1)
2016-09-25 23:22:04.328 STDERR [INFO] I0925 23:22:03.538282 32418 net.cpp:148] Top shape: 1 1 (1)
2016-09-25 23:22:04.328 STDERR [INFO] I0925 23:22:03.538286 32418 net.cpp:156] Memory required for data: 16404
2016-09-25 23:22:04.328 STDERR [INFO] I0925 23:22:03.538292 32418 layer_factory.hpp:77] Creating layer embed_encoder
2016-09-25 23:22:04.328 STDERR [INFO] I0925 23:22:03.538310 32418 net.cpp:91] Creating Layer embed_encoder
2016-09-25 23:22:04.328 STDERR [INFO] I0925 23:22:03.538311 32362 net.cpp:141] Setting up cont_sentence_input_1_split
2016-09-25 23:22:04.328 STDERR [INFO] I0925 23:22:03.538316 32418 net.cpp:425] embed_encoder <- frames_fc7
2016-09-25 23:22:04.328 STDERR [INFO] I0925 23:22:03.538331 32362 net.cpp:148] Top shape: 1 1 (1)
2016-09-25 23:22:04.329 STDERR [INFO] I0925 23:22:03.538337 32362 net.cpp:148] Top shape: 1 1 (1)
2016-09-25 23:22:04.329 STDERR [INFO] I0925 23:22:03.538338 32418 net.cpp:399] embed_encoder -> embedded_in_frames
2016-09-25 23:22:04.329 STDERR [INFO] I0925 23:22:03.538341 32362 net.cpp:156] Memory required for data: 16404
2016-09-25 23:22:04.329 STDERR [INFO] I0925 23:22:03.538347 32362 layer_factory.hpp:77] Creating layer embed_encoder
2016-09-25 23:22:04.329 STDERR [INFO] I0925 23:22:03.538368 32362 net.cpp:91] Creating Layer embed_encoder
2016-09-25 23:22:04.329 STDERR [INFO] I0925 23:22:03.538375 32362 net.cpp:425] embed_encoder <- frames_fc7
2016-09-25 23:22:04.329 STDERR [INFO] I0925 23:22:03.538383 32362 net.cpp:399] embed_encoder -> embedded_in_frames
2016-09-25 23:22:04.329 STDERR [INFO] I0925 23:22:03.546270 32366 net.cpp:141] Setting up cont_sentence_input_1_split
2016-09-25 23:22:04.330 STDERR [INFO] I0925 23:22:03.546315 32366 net.cpp:148] Top shape: 1 1 (1)
2016-09-25 23:22:04.330 STDERR [INFO] I0925 23:22:03.546324 32366 net.cpp:148] Top shape: 1 1 (1)
2016-09-25 23:22:04.330 STDERR [INFO] I0925 23:22:03.546327 32366 net.cpp:156] Memory required for data: 16404
2016-09-25 23:22:04.330 STDERR [INFO] I0925 23:22:03.546335 32366 layer_factory.hpp:77] Creating layer embed_encoder
2016-09-25 23:22:04.330 STDERR [INFO] I0925 23:22:03.546360 32366 net.cpp:91] Creating Layer embed_encoder
2016-09-25 23:22:04.330 STDERR [INFO] I0925 23:22:03.546366 32366 net.cpp:425] embed_encoder <- frames_fc7
2016-09-25 23:22:04.330 STDERR [INFO] I0925 23:22:03.546370 32422 net.cpp:141] Setting up input
2016-09-25 23:22:04.330 STDERR [INFO] I0925 23:22:03.546380 32366 net.cpp:399] embed_encoder -> embedded_in_frames
2016-09-25 23:22:04.331 STDERR [INFO] I0925 23:22:03.546398 32390 net.cpp:141] Setting up cont_sentence_input_1_split
2016-09-25 23:22:04.331 STDERR [INFO] I0925 23:22:03.546411 32422 net.cpp:148] Top shape: 1 4096 (4096)
2016-09-25 23:22:04.331 STDERR [INFO] I0925 23:22:03.546418 32390 net.cpp:148] Top shape: 1 1 (1)
2016-09-25 23:22:04.331 STDERR [INFO] I0925 23:22:03.546437 32390 net.cpp:148] Top shape: 1 1 (1)
2016-09-25 23:22:04.331 STDERR [INFO] I0925 23:22:03.546440 32390 net.cpp:156] Memory required for data: 16404
2016-09-25 23:22:04.331 STDERR [INFO] I0925 23:22:03.546440 32422 net.cpp:148] Top shape: 1 1 (1)
2016-09-25 23:22:04.331 STDERR [INFO] I0925 23:22:03.546447 32390 layer_factory.hpp:77] Creating layer embed_encoder
2016-09-25 23:22:04.331 STDERR [INFO] I0925 23:22:03.546466 32422 net.cpp:148] Top shape: 1 1 (1)
2016-09-25 23:22:04.331 STDERR [INFO] I0925 23:22:03.546475 32390 net.cpp:91] Creating Layer embed_encoder
2016-09-25 23:22:04.332 STDERR [INFO] I0925 23:22:03.546483 32390 net.cpp:425] embed_encoder <- frames_fc7
2016-09-25 23:22:04.332 STDERR [INFO] I0925 23:22:03.546485 32422 net.cpp:148] Top shape: 1 1 (1)
2016-09-25 23:22:04.332 STDERR [INFO] I0925 23:22:03.546494 32390 net.cpp:399] embed_encoder -> embedded_in_frames
2016-09-25 23:22:04.332 STDERR [INFO] I0925 23:22:03.546499 32422 net.cpp:156] Memory required for data: 16396
2016-09-25 23:22:04.332 STDERR [INFO] I0925 23:22:03.546514 32422 layer_factory.hpp:77] Creating layer cont_sentence_input_1_split
2016-09-25 23:22:04.332 STDERR [INFO] I0925 23:22:03.546538 32422 net.cpp:91] Creating Layer cont_sentence_input_1_split
2016-09-25 23:22:04.332 STDERR [INFO] I0925 23:22:03.546555 32422 net.cpp:425] cont_sentence_input_1_split <- cont_sentence
2016-09-25 23:22:04.332 STDERR [INFO] I0925 23:22:03.546574 32422 net.cpp:399] cont_sentence_input_1_split -> cont_sentence_input_1_split_0
2016-09-25 23:22:04.333 STDERR [INFO] I0925 23:22:03.546615 32422 net.cpp:399] cont_sentence_input_1_split -> cont_sentence_input_1_split_1
2016-09-25 23:22:04.333 STDERR [INFO] I0925 23:22:03.554527 32374 net.cpp:141] Setting up input
2016-09-25 23:22:04.333 STDERR [INFO] I0925 23:22:03.554571 32374 net.cpp:148] Top shape: 1 4096 (4096)
2016-09-25 23:22:04.333 STDERR [INFO] I0925 23:22:03.554579 32374 net.cpp:148] Top shape: 1 1 (1)
2016-09-25 23:22:04.333 STDERR [INFO] I0925 23:22:03.554584 32374 net.cpp:148] Top shape: 1 1 (1)
2016-09-25 23:22:04.333 STDERR [INFO] I0925 23:22:03.554590 32374 net.cpp:148] Top shape: 1 1 (1)
2016-09-25 23:22:04.333 STDERR [INFO] I0925 23:22:03.554608 32374 net.cpp:156] Memory required for data: 16396
2016-09-25 23:22:04.333 STDERR [INFO] I0925 23:22:03.554625 32374 layer_factory.hpp:77] Creating layer cont_sentence_input_1_split
2016-09-25 23:22:04.333 STDERR [INFO] I0925 23:22:03.554651 32374 net.cpp:91] Creating Layer cont_sentence_input_1_split
2016-09-25 23:22:04.334 STDERR [INFO] I0925 23:22:03.554659 32374 net.cpp:425] cont_sentence_input_1_split <- cont_sentence
2016-09-25 23:22:04.334 STDERR [INFO] I0925 23:22:03.554672 32374 net.cpp:399] cont_sentence_input_1_split -> cont_sentence_input_1_split_0
2016-09-25 23:22:04.334 STDERR [INFO] I0925 23:22:03.554687 32374 net.cpp:399] cont_sentence_input_1_split -> cont_sentence_input_1_split_1
2016-09-25 23:22:04.334 STDERR [INFO] I0925 23:22:03.562656 32422 net.cpp:141] Setting up cont_sentence_input_1_split
2016-09-25 23:22:04.334 STDERR [INFO] I0925 23:22:03.562710 32422 net.cpp:148] Top shape: 1 1 (1)
2016-09-25 23:22:04.334 STDERR [INFO] I0925 23:22:03.562721 32422 net.cpp:148] Top shape: 1 1 (1)
2016-09-25 23:22:04.334 STDERR [INFO] I0925 23:22:03.562727 32422 net.cpp:156] Memory required for data: 16404
2016-09-25 23:22:04.334 STDERR [INFO] I0925 23:22:03.562741 32422 layer_factory.hpp:77] Creating layer embed_encoder
2016-09-25 23:22:04.335 STDERR [INFO] I0925 23:22:03.562774 32422 net.cpp:91] Creating Layer embed_encoder
2016-09-25 23:22:04.335 STDERR [INFO] I0925 23:22:03.562785 32422 net.cpp:425] embed_encoder <- frames_fc7
2016-09-25 23:22:04.335 STDERR [INFO] I0925 23:22:03.562803 32422 net.cpp:399] embed_encoder -> embedded_in_frames
2016-09-25 23:22:04.335 STDERR [INFO] I0925 23:22:03.563676 32374 net.cpp:141] Setting up cont_sentence_input_1_split
2016-09-25 23:22:04.335 STDERR [INFO] I0925 23:22:03.563699 32374 net.cpp:148] Top shape: 1 1 (1)
2016-09-25 23:22:04.335 STDERR [INFO] I0925 23:22:03.563705 32374 net.cpp:148] Top shape: 1 1 (1)
2016-09-25 23:22:04.335 STDERR [INFO] I0925 23:22:03.563709 32374 net.cpp:156] Memory required for data: 16404
2016-09-25 23:22:04.335 STDERR [INFO] I0925 23:22:03.563715 32374 layer_factory.hpp:77] Creating layer embed_encoder
2016-09-25 23:22:04.335 STDERR [INFO] I0925 23:22:03.563729 32374 net.cpp:91] Creating Layer embed_encoder
2016-09-25 23:22:04.336 STDERR [INFO] I0925 23:22:03.563735 32374 net.cpp:425] embed_encoder <- frames_fc7
2016-09-25 23:22:04.336 STDERR [INFO] I0925 23:22:03.563746 32374 net.cpp:399] embed_encoder -> embedded_in_frames
2016-09-25 23:22:04.336 STDERR [INFO] I0925 23:22:03.563853 32370 net.cpp:141] Setting up embed_encoder
2016-09-25 23:22:04.336 STDERR [INFO] I0925 23:22:03.563869 32370 net.cpp:148] Top shape: 1 500 (500)
2016-09-25 23:22:04.336 STDERR [INFO] I0925 23:22:03.563875 32370 net.cpp:156] Memory required for data: 18404
2016-09-25 23:22:04.336 STDERR [INFO] I0925 23:22:03.563899 32370 layer_factory.hpp:77] Creating layer reshape_frames
2016-09-25 23:22:04.336 STDERR [INFO] I0925 23:22:03.563926 32370 net.cpp:91] Creating Layer reshape_frames
2016-09-25 23:22:04.336 STDERR [INFO] I0925 23:22:03.563935 32370 net.cpp:425] reshape_frames <- embedded_in_frames
2016-09-25 23:22:04.336 STDERR [INFO] I0925 23:22:03.563943 32370 net.cpp:399] reshape_frames -> embedded_input_frames
2016-09-25 23:22:04.337 STDERR [INFO] I0925 23:22:03.568496 32362 net.cpp:141] Setting up embed_encoder
2016-09-25 23:22:04.337 STDERR [INFO] I0925 23:22:03.568534 32362 net.cpp:148] Top shape: 1 500 (500)
2016-09-25 23:22:04.337 STDERR [INFO] I0925 23:22:03.568541 32362 net.cpp:156] Memory required for data: 18404
2016-09-25 23:22:04.337 STDERR [INFO] I0925 23:22:03.568557 32362 layer_factory.hpp:77] Creating layer reshape_frames
2016-09-25 23:22:04.337 STDERR [INFO] I0925 23:22:03.568585 32362 net.cpp:91] Creating Layer reshape_frames
2016-09-25 23:22:04.337 STDERR [INFO] I0925 23:22:03.568593 32362 net.cpp:425] reshape_frames <- embedded_in_frames
2016-09-25 23:22:04.337 STDERR [INFO] I0925 23:22:03.568603 32362 net.cpp:399] reshape_frames -> embedded_input_frames
2016-09-25 23:22:04.337 STDERR [INFO] I0925 23:22:03.568595 32370 net.cpp:141] Setting up reshape_frames
2016-09-25 23:22:04.337 STDERR [INFO] I0925 23:22:03.568625 32370 net.cpp:148] Top shape: 1 1 500 (500)
2016-09-25 23:22:04.338 STDERR [INFO] I0925 23:22:03.568631 32370 net.cpp:156] Memory required for data: 20404
2016-09-25 23:22:04.338 STDERR [INFO] I0925 23:22:03.568639 32370 layer_factory.hpp:77] Creating layer reshape_stage_indicator
2016-09-25 23:22:04.338 STDERR [INFO] I0925 23:22:03.568657 32370 net.cpp:91] Creating Layer reshape_stage_indicator
2016-09-25 23:22:04.338 STDERR [INFO] I0925 23:22:03.568665 32370 net.cpp:425] reshape_stage_indicator <- stage_indicator
2016-09-25 23:22:04.338 STDERR [INFO] I0925 23:22:03.568677 32370 net.cpp:399] reshape_stage_indicator -> reshaped_stage_indicator
2016-09-25 23:22:04.338 STDERR [INFO] I0925 23:22:03.572855 32362 net.cpp:141] Setting up reshape_frames
2016-09-25 23:22:04.338 STDERR [INFO] I0925 23:22:03.572868 32362 net.cpp:148] Top shape: 1 1 500 (500)
2016-09-25 23:22:04.338 STDERR [INFO] I0925 23:22:03.572872 32362 net.cpp:156] Memory required for data: 20404
2016-09-25 23:22:04.339 STDERR [INFO] I0925 23:22:03.572878 32362 layer_factory.hpp:77] Creating layer reshape_stage_indicator
2016-09-25 23:22:04.339 STDERR [INFO] I0925 23:22:03.572888 32362 net.cpp:91] Creating Layer reshape_stage_indicator
2016-09-25 23:22:04.339 STDERR [INFO] I0925 23:22:03.572895 32362 net.cpp:425] reshape_stage_indicator <- stage_indicator
2016-09-25 23:22:04.339 STDERR [INFO] I0925 23:22:03.572914 32362 net.cpp:399] reshape_stage_indicator -> reshaped_stage_indicator
2016-09-25 23:22:04.339 STDERR [INFO] I0925 23:22:03.573078 32410 net.cpp:141] Setting up embed_encoder
2016-09-25 23:22:04.339 STDERR [INFO] I0925 23:22:03.573118 32410 net.cpp:148] Top shape: 1 500 (500)
2016-09-25 23:22:04.340 STDERR [INFO] I0925 23:22:03.573127 32410 net.cpp:156] Memory required for data: 18404
2016-09-25 23:22:04.340 STDERR [INFO] I0925 23:22:03.573153 32410 layer_factory.hpp:77] Creating layer reshape_frames
2016-09-25 23:22:04.340 STDERR [INFO] I0925 23:22:03.573153 32362 net.cpp:141] Setting up reshape_stage_indicator
2016-09-25 23:22:04.340 STDERR [INFO] I0925 23:22:03.573170 32362 net.cpp:148] Top shape: 1 1 1 (1)
2016-09-25 23:22:04.340 STDERR [INFO] I0925 23:22:03.573175 32362 net.cpp:156] Memory required for data: 20408
2016-09-25 23:22:04.340 STDERR [INFO] I0925 23:22:03.573189 32362 layer_factory.hpp:77] Creating layer embedding
2016-09-25 23:22:04.340 STDERR [INFO] I0925 23:22:03.573175 32410 net.cpp:91] Creating Layer reshape_frames
2016-09-25 23:22:04.340 STDERR [INFO] I0925 23:22:03.573202 32362 net.cpp:91] Creating Layer embedding
2016-09-25 23:22:04.340 STDERR [INFO] I0925 23:22:03.573202 32410 net.cpp:425] reshape_frames <- embedded_in_frames
2016-09-25 23:22:04.340 STDERR [INFO] I0925 23:22:03.573209 32362 net.cpp:425] embedding <- input_sentence
2016-09-25 23:22:04.341 STDERR [INFO] I0925 23:22:03.573215 32370 net.cpp:141] Setting up reshape_stage_indicator
2016-09-25 23:22:04.341 STDERR [INFO] I0925 23:22:03.573228 32362 net.cpp:399] embedding -> embedded_input_sentence
2016-09-25 23:22:04.341 STDERR [INFO] I0925 23:22:03.573218 32410 net.cpp:399] reshape_frames -> embedded_input_frames
2016-09-25 23:22:04.341 STDERR [INFO] I0925 23:22:03.573240 32370 net.cpp:148] Top shape: 1 1 1 (1)
2016-09-25 23:22:04.341 STDERR [INFO] I0925 23:22:03.573246 32370 net.cpp:156] Memory required for data: 20408
2016-09-25 23:22:04.341 STDERR [INFO] I0925 23:22:03.573252 32370 layer_factory.hpp:77] Creating layer embedding
2016-09-25 23:22:04.341 STDERR [INFO] I0925 23:22:03.573267 32370 net.cpp:91] Creating Layer embedding
2016-09-25 23:22:04.341 STDERR [INFO] I0925 23:22:03.573274 32370 net.cpp:425] embedding <- input_sentence
2016-09-25 23:22:04.341 STDERR [INFO] I0925 23:22:03.573284 32370 net.cpp:399] embedding -> embedded_input_sentence
2016-09-25 23:22:04.342 STDERR [INFO] I0925 23:22:03.573281 32384 net.cpp:141] Setting up embed_encoder
2016-09-25 23:22:04.342 STDERR [INFO] I0925 23:22:03.573314 32384 net.cpp:148] Top shape: 1 500 (500)
2016-09-25 23:22:04.342 STDERR [INFO] I0925 23:22:03.573329 32384 net.cpp:156] Memory required for data: 18404
2016-09-25 23:22:04.342 STDERR [INFO] I0925 23:22:03.573362 32384 layer_factory.hpp:77] Creating layer reshape_frames
2016-09-25 23:22:04.342 STDERR [INFO] I0925 23:22:03.573390 32384 net.cpp:91] Creating Layer reshape_frames
2016-09-25 23:22:04.342 STDERR [INFO] I0925 23:22:03.573408 32384 net.cpp:425] reshape_frames <- embedded_in_frames
2016-09-25 23:22:04.342 STDERR [INFO] I0925 23:22:03.573421 32396 net.cpp:141] Setting up embed_encoder
2016-09-25 23:22:04.342 STDERR [INFO] I0925 23:22:03.573431 32384 net.cpp:399] reshape_frames -> embedded_input_frames
2016-09-25 23:22:04.342 STDERR [INFO] I0925 23:22:03.573438 32396 net.cpp:148] Top shape: 1 500 (500)
2016-09-25 23:22:04.343 STDERR [INFO] I0925 23:22:03.573446 32396 net.cpp:156] Memory required for data: 18404
2016-09-25 23:22:04.343 STDERR [INFO] I0925 23:22:03.573460 32396 layer_factory.hpp:77] Creating layer reshape_frames
2016-09-25 23:22:04.343 STDERR [INFO] I0925 23:22:03.573472 32396 net.cpp:91] Creating Layer reshape_frames
2016-09-25 23:22:04.343 STDERR [INFO] I0925 23:22:03.573478 32396 net.cpp:425] reshape_frames <- embedded_in_frames
2016-09-25 23:22:04.343 STDERR [INFO] I0925 23:22:03.573488 32396 net.cpp:399] reshape_frames -> embedded_input_frames
2016-09-25 23:22:04.343 STDERR [INFO] I0925 23:22:03.613905 32384 net.cpp:141] Setting up reshape_frames
2016-09-25 23:22:04.343 STDERR [INFO] I0925 23:22:03.613950 32384 net.cpp:148] Top shape: 1 1 500 (500)
2016-09-25 23:22:04.343 STDERR [INFO] I0925 23:22:03.613950 32410 net.cpp:141] Setting up reshape_frames
2016-09-25 23:22:04.343 STDERR [INFO] I0925 23:22:03.613960 32384 net.cpp:156] Memory required for data: 20404
2016-09-25 23:22:04.344 STDERR [INFO] I0925 23:22:03.613976 32410 net.cpp:148] Top shape: 1 1 500 (500)
2016-09-25 23:22:04.344 STDERR [INFO] I0925 23:22:03.613981 32410 net.cpp:156] Memory required for data: 20404
2016-09-25 23:22:04.344 STDERR [INFO] I0925 23:22:03.613981 32384 layer_factory.hpp:77] Creating layer reshape_stage_indicator
2016-09-25 23:22:04.344 STDERR [INFO] I0925 23:22:03.613988 32410 layer_factory.hpp:77] Creating layer reshape_stage_indicator
2016-09-25 23:22:04.344 STDERR [INFO] I0925 23:22:03.614003 32410 net.cpp:91] Creating Layer reshape_stage_indicator
2016-09-25 23:22:04.344 STDERR [INFO] I0925 23:22:03.614004 32384 net.cpp:91] Creating Layer reshape_stage_indicator
2016-09-25 23:22:04.344 STDERR [INFO] I0925 23:22:03.614012 32410 net.cpp:425] reshape_stage_indicator <- stage_indicator
2016-09-25 23:22:04.344 STDERR [INFO] I0925 23:22:03.614014 32384 net.cpp:425] reshape_stage_indicator <- stage_indicator
2016-09-25 23:22:04.344 STDERR [INFO] I0925 23:22:03.614015 32396 net.cpp:141] Setting up reshape_frames
2016-09-25 23:22:04.344 STDERR [INFO] I0925 23:22:03.614027 32384 net.cpp:399] reshape_stage_indicator -> reshaped_stage_indicator
2016-09-25 23:22:04.345 STDERR [INFO] I0925 23:22:03.614025 32410 net.cpp:399] reshape_stage_indicator -> reshaped_stage_indicator
2016-09-25 23:22:04.345 STDERR [INFO] I0925 23:22:03.614040 32396 net.cpp:148] Top shape: 1 1 500 (500)
2016-09-25 23:22:04.345 STDERR [INFO] I0925 23:22:03.614047 32396 net.cpp:156] Memory required for data: 20404
2016-09-25 23:22:04.345 STDERR [INFO] I0925 23:22:03.614053 32396 layer_factory.hpp:77] Creating layer reshape_stage_indicator
2016-09-25 23:22:04.345 STDERR [INFO] I0925 23:22:03.614064 32396 net.cpp:91] Creating Layer reshape_stage_indicator
2016-09-25 23:22:04.345 STDERR [INFO] I0925 23:22:03.614071 32396 net.cpp:425] reshape_stage_indicator <- stage_indicator
2016-09-25 23:22:04.345 STDERR [INFO] I0925 23:22:03.614080 32396 net.cpp:399] reshape_stage_indicator -> reshaped_stage_indicator
2016-09-25 23:22:04.345 STDERR [INFO] I0925 23:22:03.614130 32396 net.cpp:141] Setting up reshape_stage_indicator
2016-09-25 23:22:04.345 STDERR [INFO] I0925 23:22:03.614141 32396 net.cpp:148] Top shape: 1 1 1 (1)
2016-09-25 23:22:04.346 STDERR [INFO] I0925 23:22:03.614146 32396 net.cpp:156] Memory required for data: 20408
2016-09-25 23:22:04.346 STDERR [INFO] I0925 23:22:03.614151 32396 layer_factory.hpp:77] Creating layer embedding
2016-09-25 23:22:04.346 STDERR [INFO] I0925 23:22:03.614163 32396 net.cpp:91] Creating Layer embedding
2016-09-25 23:22:04.346 STDERR [INFO] I0925 23:22:04.102576 32396 net.cpp:425] embedding <- input_sentence
2016-09-25 23:22:04.346 STDERR [INFO] I0925 23:22:03.653645 32410 net.cpp:141] Setting up reshape_stage_indicator
2016-09-25 23:22:04.346 STDERR [INFO] I0925 23:22:03.653694 32384 net.cpp:141] Setting up reshape_stage_indicator
2016-09-25 23:22:04.346 STDERR [INFO] I0925 23:22:04.102645 32396 net.cpp:399] embedding -> embedded_input_sentence
2016-09-25 23:22:04.346 STDERR [INFO] I0925 23:22:03.654186 32366 net.cpp:141] Setting up embed_encoder
2016-09-25 23:22:04.346 STDERR [INFO] I0925 23:22:03.654233 32390 net.cpp:141] Setting up embed_encoder
2016-09-25 23:22:04.347 STDERR [INFO] I0925 23:22:04.102679 32384 net.cpp:148] Top shape: 1 1 1 (1)
2016-09-25 23:22:04.347 STDERR [INFO] I0925 23:22:04.102689 32366 net.cpp:148] Top shape: 1 500 (500)
2016-09-25 23:22:04.347 STDERR [INFO] I0925 23:22:04.102700 32366 net.cpp:156] Memory required for data: 18404
2016-09-25 23:22:04.347 STDERR [INFO] I0925 23:22:03.654124 32422 net.cpp:141] Setting up embed_encoder
2016-09-25 23:22:04.347 STDERR [INFO] I0925 23:22:04.102707 32390 net.cpp:148] Top shape: 1 500 (500)
2016-09-25 23:22:04.347 STDERR [INFO] I0925 23:22:04.102679 32410 net.cpp:148] Top shape: 1 1 1 (1)
2016-09-25 23:22:04.347 STDERR [INFO] I0925 23:22:04.102699 32384 net.cpp:156] Memory required for data: 20408
2016-09-25 23:22:04.347 STDERR [INFO] I0925 23:22:04.102723 32366 layer_factory.hpp:77] Creating layer reshape_frames
2016-09-25 23:22:04.347 STDERR [INFO] I0925 23:22:04.102725 32390 net.cpp:156] Memory required for data: 18404
2016-09-25 23:22:04.347 STDERR [INFO] I0925 23:22:03.835496 32370 net.cpp:141] Setting up embedding
2016-09-25 23:22:04.348 STDERR [INFO] I0925 23:22:04.102748 32390 layer_factory.hpp:77] Creating layer reshape_frames
2016-09-25 23:22:04.348 STDERR [INFO] I0925 23:22:04.102730 32410 net.cpp:156] Memory required for data: 20408
2016-09-25 23:22:04.348 STDERR [INFO] I0925 23:22:04.102749 32422 net.cpp:148] Top shape: 1 500 (500)
2016-09-25 23:22:04.348 STDERR [INFO] I0925 23:22:04.102741 32366 net.cpp:91] Creating Layer reshape_frames
2016-09-25 23:22:04.348 STDERR [INFO] I0925 23:22:04.102731 32384 layer_factory.hpp:77] Creating layer embedding
2016-09-25 23:22:04.348 STDERR [INFO] I0925 23:22:04.102777 32390 net.cpp:91] Creating Layer reshape_frames
2016-09-25 23:22:04.348 STDERR [INFO] I0925 23:22:04.102780 32410 layer_factory.hpp:77] Creating layer embedding
…
2016-09-25 23:22:04.378 STDERR [INFO] I0925 23:22:04.102902 32422 layer_factory.hpp:77] Creating layer reshape_frames
2016-09-25 23:22:04.378 STDERR [INFO] I0925 23:22:04.102918 32422 net.cpp:91] Creating Layer reshape_frames
2016-09-25 23:22:04.378 STDERR [INFO] I0925 23:22:04.102928 32422 net.cpp:425] reshape_frames <- embedded_in_frames
2016-09-25 23:22:04.378 STDERR [INFO] I0925 23:22:04.102943 32422 net.cpp:399] reshape_frames -> embedded_input_frames
2016-09-25 23:22:04.378 STDERR [INFO] I0925 23:22:03.654274 32374 net.cpp:141] Setting up embed_encoder
2016-09-25 23:22:04.378 STDERR [INFO] I0925 23:22:04.102996 32374 net.cpp:148] Top shape: 1 500 (500)
2016-09-25 23:22:04.378 STDERR [INFO] I0925 23:22:04.103004 32374 net.cpp:156] Memory required for data: 18404
2016-09-25 23:22:04.379 STDERR [INFO] I0925 23:22:04.103024 32374 layer_factory.hpp:77] Creating layer reshape_frames
2016-09-25 23:22:04.379 STDERR [INFO] I0925 23:22:04.103042 32374 net.cpp:91] Creating Layer reshape_frames
2016-09-25 23:22:04.379 STDERR [INFO] I0925 23:22:04.103051 32374 net.cpp:425] reshape_frames <- embedded_in_frames
2016-09-25 23:22:04.379 STDERR [INFO] I0925 23:22:04.103049 32376 layer_factory.hpp:77] Creating layer data
2016-09-25 23:22:04.379 STDERR [INFO] I0925 23:22:04.103071 32374 net.cpp:399] reshape_frames -> embedded_input_frames
2016-09-25 23:22:04.379 STDERR [INFO] I0925 23:22:04.103085 32376 net.cpp:91] Creating Layer data
2016-09-25 23:22:04.379 STDERR [INFO] I0925 23:22:03.789965 32362 net.cpp:141] Setting up embedding
2016-09-25 23:22:04.379 STDERR [INFO] I0925 23:22:04.192699 32376 net.cpp:399] data -> data
2016-09-25 23:22:04.379 STDERR [INFO] I0925 23:22:03.653548 32418 net.cpp:141] Setting up embed_encoder
2016-09-25 23:22:04.379 STDERR [INFO] I0925 23:22:04.148696 32390 net.cpp:141] Setting up reshape_frames
2016-09-25 23:22:04.379 STDERR [INFO] I0925 23:22:04.115716 32370 net.cpp:148] Top shape: 1 1 500 (500)
2016-09-25 23:22:04.379 STDERR [INFO] I0925 23:22:04.148738 32366 net.cpp:141] Setting up reshape_frames
2016-09-25 23:22:04.379 STDERR [INFO] I0925 23:22:04.148882 32422 net.cpp:141] Setting up reshape_frames
2016-09-25 23:22:04.380 STDERR [INFO] I0925 23:22:04.192796 32370 net.cpp:156] Memory required for data: 22408
2016-09-25 23:22:04.380 STDERR [INFO] I0925 23:22:04.192755 32362 net.cpp:148] Top shape: 1 1 500 (500)
2016-09-25 23:22:04.380 STDERR [INFO] I0925 23:22:04.192775 32418 net.cpp:148] Top shape: 1 500 (500)
2016-09-25 23:22:04.380 STDERR [INFO] I0925 23:22:04.192811 32366 net.cpp:148] Top shape: 1 1 500 (500)
2016-09-25 23:22:04.380 n.t.s.u.StreamReader [INFO] [Timing] RequestID: 0 StreamID: The_Nut_Job_trailer_mp4_7c1e8252 SequenceNr: 374 Entering queue: 1474860124380
2016-09-25 23:22:04.380 STDERR [INFO] I0925 23:22:04.148912 32374 net.cpp:141] Setting up reshape_frames
2016-09-25 23:22:04.380 STDERR [INFO] I0925 23:22:04.192826 32418 net.cpp:156] Memory required for data: 18404
2016-09-25 23:22:04.380 STDERR [INFO] I0925 23:22:04.192797 32390 net.cpp:148] Top shape: 1 1 500 (500)
2016-09-25 23:22:04.380 STDERR [INFO] I0925 23:22:04.192823 32362 net.cpp:156] Memory required for data: 22408
2016-09-25 23:22:04.380 STDERR [INFO] I0925 23:22:04.192827 32422 net.cpp:148] Top shape: 1 1 500 (500)
2016-09-25 23:22:04.380 STDERR [INFO] I0925 23:22:04.192842 32374 net.cpp:148] Top shape: 1 1 500 (500)
2016-09-25 23:22:04.380 STDERR [INFO] I0925 23:22:04.192845 32390 net.cpp:156] Memory required for data: 20404
2016-09-25 23:22:04.380 STDERR [INFO] I0925 23:22:04.192831 32370 layer_factory.hpp:77] Creating layer lstm1
2016-09-25 23:22:04.381 STDERR [INFO] I0925 23:22:04.192852 32418 layer_factory.hpp:77] Creating layer reshape_frames
2016-09-25 23:22:04.381 n.t.s.u.StreamReader [INFO] [Timing] RequestID: 0 StreamID: The_Nut_Job_trailer_mp4_20b298da SequenceNr: 361 Entering queue: 1474860124381
…
2016-09-25 23:22:04.427 STDERR [INFO] I0925 23:22:04.193464 32370 net.cpp:399] lstm1_ -> x
2016-09-25 23:22:04.427 STDERR [INFO] I0925 23:22:04.193464 32362 net.cpp:91] Creating Layer lstm1_
2016-09-25 23:22:04.427 STDERR [INFO] I0925 23:22:04.193471 32362 net.cpp:399] lstm1_ -> x
2016-09-25 23:22:04.427 STDERR [INFO] I0925 23:22:04.193475 32370 net.cpp:399] lstm1_ -> cont
2016-09-25 23:22:04.427 STDERR [INFO] I0925 23:22:04.193482 32362 net.cpp:399] lstm1_ -> cont
2016-09-25 23:22:04.427 STDERR [INFO] I0925 23:22:04.239410 32376 net.cpp:141] Setting up data
2016-09-25 23:22:04.427 STDERR [INFO] I0925 23:22:04.239464 32376 net.cpp:148] Top shape: 10 3 227 227 (1545870)
2016-09-25 23:22:04.428 STDERR [INFO] I0925 23:22:04.239475 32376 net.cpp:156] Memory required for data: 6183480
2016-09-25 23:22:04.428 STDERR [INFO] I0925 23:22:04.239490 32376 layer_factory.hpp:77] Creating layer conv1
2016-09-25 23:22:04.428 STDERR [INFO] I0925 23:22:04.239544 32376 net.cpp:91] Creating Layer conv1
2016-09-25 23:22:04.428 STDERR [INFO] I0925 23:22:04.239554 32376 net.cpp:425] conv1 <- data
2016-09-25 23:22:04.428 STDERR [INFO] I0925 23:22:04.239573 32376 net.cpp:399] conv1 -> conv1
2016-09-25 23:22:04.428 STDERR [INFO] I0925 23:22:04.241170 32418 net.cpp:141] Setting up reshape_frames
2016-09-25 23:22:04.428 STDERR [INFO] I0925 23:22:04.241219 32418 net.cpp:148] Top shape: 1 1 500 (500)
2016-09-25 23:22:04.428 STDERR [INFO] I0925 23:22:04.241228 32418 net.cpp:156] Memory required for data: 20404
2016-09-25 23:22:04.428 STDERR [INFO] I0925 23:22:04.241240 32418 layer_factory.hpp:77] Creating layer reshape_stage_indicator
2016-09-25 23:22:04.428 STDERR [INFO] I0925 23:22:04.241253 32390 net.cpp:141] Setting up reshape_stage_indicator
2016-09-25 23:22:04.428 STDERR [INFO] I0925 23:22:04.241268 32418 net.cpp:91] Creating Layer reshape_stage_indicator
2016-09-25 23:22:04.428 STDERR [INFO] I0925 23:22:04.241287 32422 net.cpp:141] Setting up reshape_stage_indicator
2016-09-25 23:22:04.428 STDERR [INFO] I0925 23:22:04.241299 32390 net.cpp:148] Top shape: 1 1 1 (1)
2016-09-25 23:22:04.429 STDERR [INFO] I0925 23:22:04.241312 32422 net.cpp:148] Top shape: 1 1 1 (1)
2016-09-25 23:22:04.429 STDERR [INFO] I0925 23:22:04.241314 32390 net.cpp:156] Memory required for data: 20408
2016-09-25 23:22:04.429 STDERR [INFO] I0925 23:22:04.241327 32390 layer_factory.hpp:77] Creating layer embedding
2016-09-25 23:22:04.429 STDERR [INFO] I0925 23:22:04.241299 32418 net.cpp:425] reshape_stage_indicator <- stage_indicator
2016-09-25 23:22:04.429 STDERR [INFO] I0925 23:22:04.241358 32390 net.cpp:91] Creating Layer embedding
2016-09-25 23:22:04.429 STDERR [INFO] I0925 23:22:04.241327 32422 net.cpp:156] Memory required for data: 20408
2016-09-25 23:22:04.429 STDERR [INFO] I0925 23:22:04.241375 32390 net.cpp:425] embedding <- input_sentence
2016-09-25 23:22:04.429 STDERR [INFO] I0925 23:22:04.241377 32422 layer_factory.hpp:77] Creating layer embedding
2016-09-25 23:22:04.429 STDERR [INFO] I0925 23:22:04.241400 32390 net.cpp:399] embedding -> embedded_input_sentence
2016-09-25 23:22:04.429 STDERR [INFO] I0925 23:22:04.241405 32422 net.cpp:91] Creating Layer embedding
2016-09-25 23:22:04.429 STDERR [INFO] I0925 23:22:04.241416 32422 net.cpp:425] embedding <- input_sentence
2016-09-25 23:22:04.429 STDERR [INFO] I0925 23:22:04.241430 32422 net.cpp:399] embedding -> embedded_input_sentence
2016-09-25 23:22:04.429 STDERR [INFO] I0925 23:22:04.241349 32366 net.cpp:141] Setting up reshape_stage_indicator
2016-09-25 23:22:04.429 STDERR [INFO] I0925 23:22:04.241463 32366 net.cpp:148] Top shape: 1 1 1 (1)
2016-09-25 23:22:04.430 STDERR [INFO] I0925 23:22:04.241472 32366 net.cpp:156] Memory required for data: 20408
2016-09-25 23:22:04.430 STDERR [INFO] I0925 23:22:04.241479 32366 layer_factory.hpp:77] Creating layer embedding
2016-09-25 23:22:04.430 STDERR [INFO] I0925 23:22:04.241492 32366 net.cpp:91] Creating Layer embedding
2016-09-25 23:22:04.430 STDERR [INFO] I0925 23:22:04.241500 32366 net.cpp:425] embedding <- input_sentence
2016-09-25 23:22:04.430 STDERR [INFO] I0925 23:22:04.241513 32366 net.cpp:399] embedding -> embedded_input_sentence
2016-09-25 23:22:04.430 STDERR [INFO] I0925 23:22:04.241360 32418 net.cpp:399] reshape_stage_indicator -> reshaped_stage_indicator
2016-09-25 23:22:04.430 STDERR [INFO] I0925 23:22:04.315524 32374 net.cpp:141] Setting up reshape_stage_indicator
2016-09-25 23:22:04.430 STDERR [INFO] I0925 23:22:04.315575 32374 net.cpp:148] Top shape: 1 1 1 (1)
2016-09-25 23:22:04.430 STDERR [INFO] I0925 23:22:04.315583 32374 net.cpp:156] Memory required for data: 20408
2016-09-25 23:22:04.430 STDERR [INFO] I0925 23:22:04.315596 32374 layer_factory.hpp:77] Creating layer embedding
2016-09-25 23:22:04.430 STDERR [INFO] I0925 23:22:04.315631 32374 net.cpp:91] Creating Layer embedding
2016-09-25 23:22:04.430 STDERR [INFO] I0925 23:22:04.315641 32374 net.cpp:425] embedding <- input_sentence
2016-09-25 23:22:04.430 STDERR [INFO] I0925 23:22:04.315659 32374 net.cpp:399] embedding -> embedded_input_sentence
2016-09-25 23:22:04.430 STDERR [INFO] I0925 23:22:04.374374 32418 net.cpp:141] Setting up reshape_stage_indicator
2016-09-25 23:22:04.431 STDERR [INFO] I0925 23:22:04.374421 32370 net.cpp:141] Setting up lstm1_
2016-09-25 23:22:04.431 STDERR [INFO] I0925 23:22:04.374438 32418 net.cpp:148] Top shape: 1 1 1 (1)
2016-09-25 23:22:04.431 STDERR [INFO] I0925 23:22:04.374447 32370 net.cpp:148] Top shape: 1 1 500 (500)
2016-09-25 23:22:04.431 STDERR [INFO] I0925 23:22:04.374449 32418 net.cpp:156] Memory required for data: 20408
2016-09-25 23:22:04.431 STDERR [INFO] I0925 23:22:04.374461 32370 net.cpp:148] Top shape: 1 1 (1)
2016-09-25 23:22:04.431 STDERR [INFO] I0925 23:22:04.374464 32418 layer_factory.hpp:77] Creating layer embedding
2016-09-25 23:22:04.431 STDERR [INFO] I0925 23:22:04.374470 32370 net.cpp:156] Memory required for data: 2004
2016-09-25 23:22:04.431 STDERR [INFO] I0925 23:22:04.374480 32370 layer_factory.hpp:77] Creating layer lstm1_
2016-09-25 23:22:04.431 STDERR [INFO] I0925 23:22:04.374491 32418 net.cpp:91] Creating Layer embedding
2016-09-25 23:22:04.431 STDERR [INFO] I0925 23:22:04.374503 32370 net.cpp:91] Creating Layer lstm1_
2016-09-25 23:22:04.431 STDERR [INFO] I0925 23:22:04.374503 32418 net.cpp:425] embedding <- input_sentence
2016-09-25 23:22:04.431 STDERR [INFO] I0925 23:22:04.374528 32370 net.cpp:399] lstm1_ -> c_0
2016-09-25 23:22:04.431 STDERR [INFO] I0925 23:22:04.374543 32418 net.cpp:399] embedding -> embedded_input_sentence
2016-09-25 23:22:04.431 STDERR [INFO] I0925 23:22:04.374563 32370 net.cpp:399] lstm1_ -> h_0
2016-09-25 23:22:04.431 STDERR [INFO] I0925 23:22:04.374884 32396 net.cpp:141] Setting up embedding
2016-09-25 23:22:04.432 STDERR [INFO] I0925 23:22:04.374928 32396 net.cpp:148] Top shape: 1 1 500 (500)
2016-09-25 23:22:04.432 STDERR [INFO] I0925 23:22:04.374935 32396 net.cpp:156] Memory required for data: 22408
2016-09-25 23:22:04.432 STDERR [INFO] I0925 23:22:04.374959 32396 layer_factory.hpp:77] Creating layer lstm1
2016-09-25 23:22:04.432 STDERR [INFO] I0925 23:22:04.374961 32370 net.cpp:141] Setting up lstm1_
2016-09-25 23:22:04.432 STDERR [INFO] I0925 23:22:04.374980 32396 net.cpp:91] Creating Layer lstm1
2016-09-25 23:22:04.432 STDERR [INFO] I0925 23:22:04.374981 32370 net.cpp:148] Top shape: 1 1 1000 (1000)
2016-09-25 23:22:04.432 STDERR [INFO] I0925 23:22:04.374989 32396 net.cpp:425] lstm1 <- embedded_input_frames
2016-09-25 23:22:04.432 STDERR [INFO] I0925 23:22:04.374995 32370 net.cpp:148] Top shape: 1 1 1000 (1000)
2016-09-25 23:22:04.432 STDERR [INFO] I0925 23:22:04.375001 32396 net.cpp:425] lstm1 <- cont_sentence_input_1_split_0
2016-09-25 23:22:04.432 STDERR [INFO] I0925 23:22:04.375005 32370 net.cpp:156] Memory required for data: 10004
2016-09-25 23:22:04.432 STDERR [INFO] I0925 23:22:04.375015 32370 layer_factory.hpp:77] Creating layer lstm1_cont_slice
2016-09-25 23:22:04.432 STDERR [INFO] I0925 23:22:04.375020 32396 net.cpp:399] lstm1 -> lstm1
…
2016-09-25 23:22:04.547 n.t.s.s.CVParticleSpout [INFO] [Timing] RequestID: 0 StreamID: The_Nut_Job_trailer_mp4_713990cf SequenceNr: 363 Leaving fetcher: 1474860124547 Size: 44430
2016-09-25 23:22:04.550 n.t.s.s.CVParticleSpout [INFO] [Timing] RequestID: 0 StreamID: The_Nut_Job_trailer_mp4_20b298da SequenceNr: 361 Leaving fetcher: 1474860124550 Size: 44265
2016-09-25 23:22:04.550 STDERR [INFO] I0925 23:22:04.548933 32362 net.cpp:141] Setting up lstm1_
2016-09-25 23:22:04.551 n.t.s.u.StreamReader [INFO] [Timing] RequestID: 0 StreamID: The_Nut_Job_trailer_mp4_713990cf SequenceNr: 364 Entering queue: 1474860124551
2016-09-25 23:22:04.551 STDERR [INFO] I0925 23:22:04.548990 32362 net.cpp:148] Top shape: 1 1 500 (500)
2016-09-25 23:22:04.551 STDERR [INFO] I0925 23:22:04.549005 32362 net.cpp:148] Top shape: 1 1 (1)
2016-09-25 23:22:04.551 STDERR [INFO] I0925 23:22:04.549013 32362 net.cpp:156] Memory required for data: 2004
2016-09-25 23:22:04.551 STDERR [INFO] I0925 23:22:04.549026 32362 layer_factory.hpp:77] Creating layer lstm1_
2016-09-25 23:22:04.551 STDERR [INFO] I0925 23:22:04.549057 32362 net.cpp:91] Creating Layer lstm1_
2016-09-25 23:22:04.551 STDERR [INFO] I0925 23:22:04.549078 32362 net.cpp:399] lstm1_ -> c_0
2016-09-25 23:22:04.551 STDERR [INFO] I0925 23:22:04.549105 32362 net.cpp:399] lstm1_ -> h_0
2016-09-25 23:22:04.551 STDERR [INFO] I0925 23:22:04.549216 32362 net.cpp:141] Setting up lstm1_
2016-09-25 23:22:04.552 STDERR [INFO] I0925 23:22:04.549232 32362 net.cpp:148] Top shape: 1 1 1000 (1000)
2016-09-25 23:22:04.552 STDERR [INFO] I0925 23:22:04.549242 32362 net.cpp:148] Top shape: 1 1 1000 (1000)
2016-09-25 23:22:04.552 STDERR [INFO] I0925 23:22:04.549250 32362 net.cpp:156] Memory required for data: 10004
2016-09-25 23:22:04.552 STDERR [INFO] I0925 23:22:04.549259 32362 layer_factory.hpp:77] Creating layer lstm1_cont_slice
2016-09-25 23:22:04.552 STDERR [INFO] I0925 23:22:04.549275 32362 net.cpp:91] Creating Layer lstm1_cont_slice
2016-09-25 23:22:04.552 STDERR [INFO] I0925 23:22:04.549284 32362 net.cpp:425] lstm1_cont_slice <- cont
2016-09-25 23:22:04.552 STDERR [INFO] I0925 23:22:04.549301 32362 net.cpp:399] lstm1_cont_slice -> cont_1
2016-09-25 23:22:04.552 STDERR [INFO] I0925 23:22:04.549356 32362 net.cpp:141] Setting up lstm1_cont_slice
2016-09-25 23:22:04.552 STDERR [INFO] I0925 23:22:04.549371 32362 net.cpp:148] Top shape: 1 1 (1)
2016-09-25 23:22:04.552 STDERR [INFO] I0925 23:22:04.549379 32362 net.cpp:156] Memory required for data: 10008
2016-09-25 23:22:04.553 STDERR [INFO] I0925 23:22:04.549387 32362 layer_factory.hpp:77] Creating layer cont_1_lstm1_cont_slice_0_split
2016-09-25 23:22:04.553 STDERR [INFO] I0925 23:22:04.549404 32362 net.cpp:91] Creating Layer cont_1_lstm1_cont_slice_0_split
2016-09-25 23:22:04.553 STDERR [INFO] I0925 23:22:04.549413 32362 net.cpp:425] cont_1_lstm1_cont_slice_0_split <- cont_1
2016-09-25 23:22:04.553 STDERR [INFO] I0925 23:22:04.549425 32362 net.cpp:399] cont_1_lstm1_cont_slice_0_split -> cont_1_lstm1_cont_slice_0_split_0
2016-09-25 23:22:04.553 STDERR [INFO] I0925 23:22:04.549443 32362 net.cpp:399] cont_1_lstm1_cont_slice_0_split -> cont_1_lstm1_cont_slice_0_split_1
2016-09-25 23:22:04.553 STDERR [INFO] I0925 23:22:04.549516 32362 net.cpp:141] Setting up cont_1_lstm1_cont_slice_0_split
2016-09-25 23:22:04.553 STDERR [INFO] I0925 23:22:04.549531 32362 net.cpp:148] Top shape: 1 1 (1)
2016-09-25 23:22:04.553 STDERR [INFO] I0925 23:22:04.549542 32362 net.cpp:148] Top shape: 1 1 (1)
2016-09-25 23:22:04.553 STDERR [INFO] I0925 23:22:04.549551 32362 net.cpp:156] Memory required for data: 10016
2016-09-25 23:22:04.553 STDERR [INFO] I0925 23:22:04.549559 32362 layer_factory.hpp:77] Creating layer lstm1_x_transform
2016-09-25 23:22:04.553 STDERR [INFO] I0925 23:22:04.549581 32362 net.cpp:91] Creating Layer lstm1_x_transform
2016-09-25 23:22:04.554 STDERR [INFO] I0925 23:22:04.549589 32362 net.cpp:425] lstm1_x_transform <- x
…
2016-09-25 23:22:04.584 STDERR [INFO] I0925 23:22:04.571285 32410 recurrent_layer.cpp:20] Initializing recurrent layer: assuming input batch contains 1 timesteps of 1 independent streams.
2016-09-25 23:22:04.584 STDERR [INFO] I0925 23:22:04.571285 32390 net.cpp:425] lstm1 <- cont_sentence_input_1_split_0
2016-09-25 23:22:04.584 STDERR [INFO] I0925 23:22:04.571319 32390 net.cpp:399] lstm1 -> lstm1
2016-09-25 23:22:04.584 STDERR [INFO] I0925 23:22:04.571307 32370 net.cpp:141] Setting up lstm1_cont_slice
2016-09-25 23:22:04.584 STDERR [INFO] I0925 23:22:04.571337 32390 recurrent_layer.cpp:20] Initializing recurrent layer: assuming input batch contains 1 timesteps of 1 independent streams.
2016-09-25 23:22:04.584 STDERR [INFO] I0925 23:22:04.571357 32370 net.cpp:148] Top shape: 1 1 (1)
2016-09-25 23:22:04.584 STDERR [INFO] I0925 23:22:04.571360 32396 net.cpp:141] Setting up lstm1_
2016-09-25 23:22:04.584 STDERR [INFO] I0925 23:22:04.571369 32370 net.cpp:156] Memory required for data: 10008
2016-09-25 23:22:04.584 STDERR [INFO] I0925 23:22:04.571385 32396 net.cpp:148] Top shape: 1 1 500 (500)
2016-09-25 23:22:04.584 STDERR [INFO] I0925 23:22:04.571386 32370 layer_factory.hpp:77] Creating layer cont_1_lstm1_cont_slice_0_split
2016-09-25 23:22:04.584 STDERR [INFO] I0925 23:22:04.571399 32396 net.cpp:148] Top shape: 1 1 (1)
2016-09-25 23:22:04.584 STDERR [INFO] I0925 23:22:04.571408 32396 net.cpp:156] Memory required for data: 2004
2016-09-25 23:22:04.585 STDERR [INFO] I0925 23:22:04.571411 32370 net.cpp:91] Creating Layer cont_1_lstm1_cont_slice_0_split
2016-09-25 23:22:04.585 STDERR [INFO] I0925 23:22:04.571419 32396 layer_factory.hpp:77] Creating layer lstm1_
2016-09-25 23:22:04.585 STDERR [INFO] I0925 23:22:04.571425 32370 net.cpp:425] cont_1_lstm1_cont_slice_0_split <- cont_1
2016-09-25 23:22:04.585 STDERR [INFO] I0925 23:22:04.571437 32396 net.cpp:91] Creating Layer lstm1_
2016-09-25 23:22:04.585 STDERR [INFO] I0925 23:22:04.571447 32370 net.cpp:399] cont_1_lstm1_cont_slice_0_split -> cont_1_lstm1_cont_slice_0_split_0
2016-09-25 23:22:04.585 STDERR [INFO] I0925 23:22:04.571460 32384 net.cpp:141] Setting up lstm1_
2016-09-25 23:22:04.585 STDERR [INFO] I0925 23:22:04.571473 32370 net.cpp:399] cont_1_lstm1_cont_slice_0_split -> cont_1_lstm1_cont_slice_0_split_1
2016-09-25 23:22:04.585 STDERR [INFO] I0925 23:22:04.571481 32396 net.cpp:399] lstm1_ -> c_0
2016-09-25 23:22:04.585 STDERR [INFO] I0925 23:22:04.571483 32384 net.cpp:148] Top shape: 1 1 500 (500)
2016-09-25 23:22:04.585 STDERR [INFO] I0925 23:22:04.571513 32384 net.cpp:148] Top shape: 1 1 (1)
2016-09-25 23:22:04.585 STDERR [INFO] I0925 23:22:04.571513 32396 net.cpp:399] lstm1_ -> h_0
2016-09-25 23:22:04.585 STDERR [INFO] I0925 23:22:04.571533 32384 net.cpp:156] Memory required for data: 2004
2016-09-25 23:22:04.585 STDERR [INFO] I0925 23:22:04.571545 32384 layer_factory.hpp:77] Creating layer lstm1_
2016-09-25 23:22:04.587 n.t.s.u.StreamReader [INFO] [Timing] RequestID: 0 StreamID: The_Nut_Job_trailer_mp4_d1a53cd4 SequenceNr: 364 Entering queue: 1474860124587
…
2016-09-25 23:22:04.623 STDERR [INFO]   type: "Reduction"
2016-09-25 23:22:04.623 STDERR [INFO]   bottom: "h"
2016-09-25 23:22:04.623 STDERR [INFO]   top: "h_pseudoloss"
2016-09-25 23:22:04.623 STDERR [INFO]   loss_weight: 1
2016-09-25 23:22:04.623 STDERR [INFO] }
2016-09-25 23:22:04.623 STDERR [INFO] I0925 23:22:04.587111 32370 net.cpp:141] Setting up cont_1_lstm1_cont_slice_0_split
2016-09-25 23:22:04.623 STDERR [INFO] I0925 23:22:04.587134 32410 net.cpp:91] Creating Layer lstm1_
2016-09-25 23:22:04.623 STDERR [INFO] I0925 23:22:04.587157 32410 net.cpp:399] lstm1_ -> x
2016-09-25 23:22:04.624 STDERR [INFO] I0925 23:22:04.587160 32370 net.cpp:148] Top shape: 1 1 (1)
2016-09-25 23:22:04.624 STDERR [INFO] I0925 23:22:04.587174 32370 net.cpp:148] Top shape: 1 1 (1)
2016-09-25 23:22:04.624 STDERR [INFO] I0925 23:22:04.587180 32410 net.cpp:399] lstm1_ -> cont
2016-09-25 23:22:04.624 STDERR [INFO] I0925 23:22:04.587185 32370 net.cpp:156] Memory required for data: 10016
2016-09-25 23:22:04.624 STDERR [INFO] I0925 23:22:04.587193 32396 net.cpp:141] Setting up lstm1_cont_slice
2016-09-25 23:22:04.624 STDERR [INFO] I0925 23:22:04.587200 32370 layer_factory.hpp:77] Creating layer lstm1_x_transform
2016-09-25 23:22:04.624 STDERR [INFO] I0925 23:22:04.587215 32396 net.cpp:148] Top shape: 1 1 (1)
2016-09-25 23:22:04.624 STDERR [INFO] I0925 23:22:04.587229 32396 net.cpp:156] Memory required for data: 10008
2016-09-25 23:22:04.624 STDERR [INFO] I0925 23:22:04.587240 32396 layer_factory.hpp:77] Creating layer cont_1_lstm1_cont_slice_0_split
2016-09-25 23:22:04.624 STDERR [INFO] I0925 23:22:04.587244 32370 net.cpp:91] Creating Layer lstm1_x_transform
2016-09-25 23:22:04.624 STDERR [INFO] I0925 23:22:04.587258 32370 net.cpp:425] lstm1_x_transform <- x
2016-09-25 23:22:04.624 STDERR [INFO] I0925 23:22:04.587260 32396 net.cpp:91] Creating Layer cont_1_lstm1_cont_slice_0_split
2016-09-25 23:22:04.624 STDERR [INFO] I0925 23:22:04.587275 32396 net.cpp:425] cont_1_lstm1_cont_slice_0_split <- cont_1
2016-09-25 23:22:04.624 STDERR [INFO] I0925 23:22:04.587293 32410 net.cpp:141] Setting up lstm1_
2016-09-25 23:22:04.625 STDERR [INFO] I0925 23:22:04.587314 32410 net.cpp:148] Top shape: 1 1 500 (500)
2016-09-25 23:22:04.625 STDERR [INFO] I0925 23:22:04.587328 32410 net.cpp:148] Top shape: 1 1 (1)
2016-09-25 23:22:04.625 STDERR [INFO] I0925 23:22:04.587337 32410 net.cpp:156] Memory required for data: 2004
2016-09-25 23:22:04.625 STDERR [INFO] I0925 23:22:04.587347 32410 layer_factory.hpp:77] Creating layer lstm1_
2016-09-25 23:22:04.625 STDERR [INFO] I0925 23:22:04.587072 32384 net.cpp:141] Setting up lstm1_
2016-09-25 23:22:04.625 STDERR [INFO] I0925 23:22:04.587460 32384 net.cpp:148] Top shape: 1 1 1000 (1000)
2016-09-25 23:22:04.625 STDERR [INFO] I0925 23:22:04.587473 32384 net.cpp:148] Top shape: 1 1 1000 (1000)
2016-09-25 23:22:04.625 STDERR [INFO] I0925 23:22:04.587481 32384 net.cpp:156] Memory required for data: 10004
2016-09-25 23:22:04.625 STDERR [INFO] I0925 23:22:04.587491 32384 layer_factory.hpp:77] Creating layer lstm1_cont_slice
2016-09-25 23:22:04.625 STDERR [INFO] I0925 23:22:04.587551 32370 net.cpp:399] lstm1_x_transform -> W_xc_x
2016-09-25 23:22:04.625 STDERR [INFO] I0925 23:22:04.587556 32410 net.cpp:91] Creating Layer lstm1_
…
2016-09-25 23:22:04.625 STDERR [INFO] I0925 23:22:04.587589 32396 net.cpp:399] cont_1_lstm1_cont_slice_0_split -> cont_1_lstm1_cont_slice_0_split_1
2016-09-25 23:22:04.625 STDERR [INFO] I0925 23:22:04.587594 32390 net.cpp:91] Creating Layer lstm1_
2016-09-25 23:22:04.625 STDERR [INFO] I0925 23:22:04.587604 32410 net.cpp:399] lstm1_ -> h_0
2016-09-25 23:22:04.626 STDERR [INFO] I0925 23:22:04.587610 32390 net.cpp:399] lstm1_ -> x
2016-09-25 23:22:04.627 STDERR [INFO] I0925 23:22:04.587647 32390 net.cpp:399] lstm1_ -> cont
2016-09-25 23:22:04.628 STDERR [INFO] I0925 23:22:04.587782 32396 net.cpp:141] Setting up cont_1_lstm1_cont_slice_0_split
2016-09-25 23:22:04.628 STDERR [INFO] I0925 23:22:04.587798 32396 net.cpp:148] Top shape: 1 1 (1)
2016-09-25 23:22:04.628 STDERR [INFO] I0925 23:22:04.587810 32396 net.cpp:148] Top shape: 1 1 (1)
2016-09-25 23:22:04.628 STDERR [INFO] I0925 23:22:04.587821 32396 net.cpp:156] Memory required for data: 10016
2016-09-25 23:22:04.628 STDERR [INFO] I0925 23:22:04.587832 32396 layer_factory.hpp:77] Creating layer lstm1_x_transform
2016-09-25 23:22:04.628 STDERR [INFO] I0925 23:22:04.587873 32396 net.cpp:91] Creating Layer lstm1_x_transform
2016-09-25 23:22:04.628 STDERR [INFO] I0925 23:22:04.587882 32384 net.cpp:91] Creating Layer lstm1_cont_slice
2016-09-25 23:22:04.628 STDERR [INFO] I0925 23:22:04.587885 32396 net.cpp:425] lstm1_x_transform <- x
2016-09-25 23:22:04.628 STDERR [INFO] I0925 23:22:04.587904 32384 net.cpp:425] lstm1_cont_slice <- cont
2016-09-25 23:22:04.629 STDERR [INFO] I0925 23:22:04.587916 32396 net.cpp:399] lstm1_x_transform -> W_xc_x
2016-09-25 23:22:04.629 STDERR [INFO] I0925 23:22:04.587918 32384 net.cpp:399] lstm1_cont_slice -> cont_1
2016-09-25 23:22:04.629 STDERR [INFO] I0925 23:22:04.600878 32390 net.cpp:141] Setting up lstm1_
2016-09-25 23:22:04.629 STDERR [INFO] I0925 23:22:04.600891 32384 net.cpp:141] Setting up lstm1_cont_slice
2016-09-25 23:22:04.629 STDERR [INFO] I0925 23:22:04.600929 32390 net.cpp:148] Top shape: 1 1 500 (500)
2016-09-25 23:22:04.629 STDERR [INFO] I0925 23:22:04.600939 32390 net.cpp:148] Top shape: 1 1 (1)
2016-09-25 23:22:04.629 STDERR [INFO] I0925 23:22:04.600940 32384 net.cpp:148] Top shape: 1 1 (1)
2016-09-25 23:22:04.629 STDERR [INFO] I0925 23:22:04.600944 32390 net.cpp:156] Memory required for data: 2004
2016-09-25 23:22:04.629 STDERR [INFO] I0925 23:22:04.600963 32384 net.cpp:156] Memory required for data: 10008
2016-09-25 23:22:04.629 STDERR [INFO] I0925 23:22:04.600972 32390 layer_factory.hpp:77] Creating layer lstm1_
2016-09-25 23:22:04.629 STDERR [INFO] I0925 23:22:04.600973 32384 layer_factory.hpp:77] Creating layer cont_1_lstm1_cont_slice_0_split
2016-09-25 23:22:04.629 STDERR [INFO] I0925 23:22:04.601001 32390 net.cpp:91] Creating Layer lstm1_
2016-09-25 23:22:04.629 STDERR [INFO] I0925 23:22:04.601011 32390 net.cpp:399] lstm1_ -> c_0
2016-09-25 23:22:04.629 STDERR [INFO] I0925 23:22:04.600992 32384 net.cpp:91] Creating Layer cont_1_lstm1_cont_slice_0_split
2016-09-25 23:22:04.629 STDERR [INFO] I0925 23:22:04.601032 32390 net.cpp:399] lstm1_ -> h_0
2016-09-25 23:22:04.629 STDERR [INFO] I0925 23:22:04.600991 32410 net.cpp:141] Setting up lstm1_
2016-09-25 23:22:04.629 STDERR [INFO] I0925 23:22:04.601042 32384 net.cpp:425] cont_1_lstm1_cont_slice_0_split <- cont_1
2016-09-25 23:22:04.629 STDERR [INFO] I0925 23:22:04.601081 32410 net.cpp:148] Top shape: 1 1 1000 (1000)
2016-09-25 23:22:04.629 STDERR [INFO] I0925 23:22:04.601088 32384 net.cpp:399] cont_1_lstm1_cont_slice_0_split -> cont_1_lstm1_cont_slice_0_split_0
2016-09-25 23:22:04.630 STDERR [INFO] I0925 23:22:04.601099 32410 net.cpp:148] Top shape: 1 1 1000 (1000)
2016-09-25 23:22:04.630 STDERR [INFO] I0925 23:22:04.601107 32384 net.cpp:399] cont_1_lstm1_cont_slice_0_split -> cont_1_lstm1_cont_slice_0_split_1
2016-09-25 23:22:04.630 STDERR [INFO] I0925 23:22:04.601110 32410 net.cpp:156] Memory required for data: 10004
2016-09-25 23:22:04.630 STDERR [INFO] I0925 23:22:04.601125 32410 layer_factory.hpp:77] Creating layer lstm1_cont_slice
2016-09-25 23:22:04.630 STDERR [INFO] I0925 23:22:04.601155 32410 net.cpp:91] Creating Layer lstm1_cont_slice
2016-09-25 23:22:04.630 STDERR [INFO] I0925 23:22:04.601169 32410 net.cpp:425] lstm1_cont_slice <- cont
2016-09-25 23:22:04.630 STDERR [INFO] I0925 23:22:04.601188 32410 net.cpp:399] lstm1_cont_slice -> cont_1
2016-09-25 23:22:04.630 STDERR [INFO] I0925 23:22:04.606825 32410 net.cpp:141] Setting up lstm1_cont_slice
2016-09-25 23:22:04.630 STDERR [INFO] I0925 23:22:04.606889 32410 net.cpp:148] Top shape: 1 1 (1)
2016-09-25 23:22:04.630 STDERR [INFO] I0925 23:22:04.606900 32410 net.cpp:156] Memory required for data: 10008
2016-09-25 23:22:04.630 STDERR [INFO] I0925 23:22:04.606914 32410 layer_factory.hpp:77] Creating layer cont_1_lstm1_cont_slice_0_split
2016-09-25 23:22:04.630 STDERR [INFO] I0925 23:22:04.606904 32390 net.cpp:141] Setting up lstm1_
2016-09-25 23:22:04.630 STDERR [INFO] I0925 23:22:04.606941 32410 net.cpp:91] Creating Layer cont_1_lstm1_cont_slice_0_split
2016-09-25 23:22:04.630 STDERR [INFO] I0925 23:22:04.606940 32384 net.cpp:141] Setting up cont_1_lstm1_cont_slice_0_split
2016-09-25 23:22:04.630 STDERR [INFO] I0925 23:22:04.606955 32390 net.cpp:148] Top shape: 1 1 1000 (1000)
2016-09-25 23:22:04.630 STDERR [INFO] I0925 23:22:04.606969 32384 net.cpp:148] Top shape: 1 1 (1)
2016-09-25 23:22:04.630 STDERR [INFO] I0925 23:22:04.606956 32410 net.cpp:425] cont_1_lstm1_cont_slice_0_split <- cont_1
2016-09-25 23:22:04.630 STDERR [INFO] I0925 23:22:04.606978 32390 net.cpp:148] Top shape: 1 1 1000 (1000)
2016-09-25 23:22:04.630 STDERR [INFO] I0925 23:22:04.606983 32384 net.cpp:148] Top shape: 1 1 (1)
2016-09-25 23:22:04.630 STDERR [INFO] I0925 23:22:04.606990 32390 net.cpp:156] Memory required for data: 10004
2016-09-25 23:22:04.631 STDERR [INFO] I0925 23:22:04.607000 32410 net.cpp:399] cont_1_lstm1_cont_slice_0_split -> cont_1_lstm1_cont_slice_0_split_0
2016-09-25 23:22:04.631 STDERR [INFO] I0925 23:22:04.606992 32384 net.cpp:156] Memory required for data: 10016
2016-09-25 23:22:04.631 STDERR [INFO] I0925 23:22:04.607013 32390 layer_factory.hpp:77] Creating layer lstm1_cont_slice
…
2016-09-25 23:22:04.632 STDERR [INFO] I0925 23:22:04.613718 32362 net.cpp:425] lstm1_W_xc_x_slice <- W_xc_x
2016-09-25 23:22:04.632 STDERR [INFO] I0925 23:22:04.613735 32390 net.cpp:399] cont_1_lstm1_cont_slice_0_split -> cont_1_lstm1_cont_slice_0_split_0
2016-09-25 23:22:04.632 STDERR [INFO] I0925 23:22:04.613746 32362 net.cpp:399] lstm1_W_xc_x_slice -> W_xc_x_1
2016-09-25 23:22:04.632 STDERR [INFO] I0925 23:22:04.613761 32390 net.cpp:399] cont_1_lstm1_cont_slice_0_split -> cont_1_lstm1_cont_slice_0_split_1
2016-09-25 23:22:04.632 STDERR [INFO] I0925 23:22:04.619196 32422 net.cpp:141] Setting up embedding
2016-09-25 23:22:04.632 STDERR [INFO] I0925 23:22:04.619252 32422 net.cpp:148] Top shape: 1 1 500 (500)
2016-09-25 23:22:04.632 STDERR [INFO] I0925 23:22:04.619261 32422 net.cpp:156] Memory required for data: 22408
2016-09-25 23:22:04.632 STDERR [INFO] I0925 23:22:04.619289 32422 layer_factory.hpp:77] Creating layer lstm1
2016-09-25 23:22:04.632 STDERR [INFO] I0925 23:22:04.619319 32422 net.cpp:91] Creating Layer lstm1
2016-09-25 23:22:04.632 STDERR [INFO] I0925 23:22:04.619330 32422 net.cpp:425] lstm1 <- embedded_input_frames
2016-09-25 23:22:04.632 STDERR [INFO] I0925 23:22:04.619343 32422 net.cpp:425] lstm1 <- cont_sentence_input_1_split_0
2016-09-25 23:22:04.633 STDERR [INFO] I0925 23:22:04.619356 32422 net.cpp:399] lstm1 -> lstm1
2016-09-25 23:22:04.633 STDERR [INFO] I0925 23:22:04.619365 32362 net.cpp:141] Setting up lstm1_W_xc_x_slice
2016-09-25 23:22:04.633 STDERR [INFO] I0925 23:22:04.619385 32422 recurrent_layer.cpp:20] Initializing recurrent layer: assuming input batch contains 1 timesteps of 1 independent streams.
2016-09-25 23:22:04.633 STDERR [INFO] I0925 23:22:04.619423 32362 net.cpp:148] Top shape: 1 1 4000 (4000)
2016-09-25 23:22:04.633 STDERR [INFO] I0925 23:22:04.619433 32362 net.cpp:156] Memory required for data: 42016
2016-09-25 23:22:04.633 STDERR [INFO] I0925 23:22:04.619444 32362 layer_factory.hpp:77] Creating layer lstm1_h_conted_0
2016-09-25 23:22:04.633 STDERR [INFO] I0925 23:22:04.619483 32362 net.cpp:91] Creating Layer lstm1_h_conted_0
2016-09-25 23:22:04.633 STDERR [INFO] I0925 23:22:04.619494 32362 net.cpp:425] lstm1_h_conted_0 <- h_0
2016-09-25 23:22:04.633 STDERR [INFO] I0925 23:22:04.619508 32362 net.cpp:425] lstm1_h_conted_0 <- cont_1_lstm1_cont_slice_0_split_0
2016-09-25 23:22:04.633 STDERR [INFO] I0925 23:22:04.619521 32362 net.cpp:399] lstm1_h_conted_0 -> h_conted_0
2016-09-25 23:22:04.633 STDERR [INFO] I0925 23:22:04.619539 32390 net.cpp:141] Setting up cont_1_lstm1_cont_slice_0_split
2016-09-25 23:22:04.633 STDERR [INFO] I0925 23:22:04.619559 32390 net.cpp:148] Top shape: 1 1 (1)
2016-09-25 23:22:04.633 STDERR [INFO] I0925 23:22:04.619568 32390 net.cpp:148] Top shape: 1 1 (1)
2016-09-25 23:22:04.633 STDERR [INFO] I0925 23:22:04.619575 32390 net.cpp:156] Memory required for data: 10016
2016-09-25 23:22:04.633 STDERR [INFO] I0925 23:22:04.619585 32390 layer_factory.hpp:77] Creating layer lstm1_x_transform
2016-09-25 23:22:04.633 STDERR [INFO] I0925 23:22:04.619611 32390 net.cpp:91] Creating Layer lstm1_x_transform
2016-09-25 23:22:04.633 STDERR [INFO] I0925 23:22:04.619621 32390 net.cpp:425] lstm1_x_transform <- x
2016-09-25 23:22:04.634 STDERR [INFO] I0925 23:22:04.619637 32390 net.cpp:399] lstm1_x_transform -> W_xc_x
2016-09-25 23:22:04.635 STDERR [INFO] I0925 23:22:04.619753 32362 net.cpp:141] Setting up lstm1_h_conted_0
2016-09-25 23:22:04.635 STDERR [INFO] I0925 23:22:04.619771 32362 net.cpp:148] Top shape: 1 1 1000 (1000)
2016-09-25 23:22:04.635 STDERR [INFO] I0925 23:22:04.619778 32362 net.cpp:156] Memory required for data: 46016
2016-09-25 23:22:04.635 STDERR [INFO] I0925 23:22:04.619787 32362 layer_factory.hpp:77] Creating layer lstm1_transform_1
2016-09-25 23:22:04.635 STDERR [INFO] I0925 23:22:04.619802 32362 net.cpp:91] Creating Layer lstm1_transform_1
2016-09-25 23:22:04.635 STDERR [INFO] I0925 23:22:04.619812 32362 net.cpp:425] lstm1_transform_1 <- h_conted_0
…
2016-09-25 23:22:04.643 STDERR [INFO]   }
2016-09-25 23:22:04.643 STDERR [INFO] }
2016-09-25 23:22:04.643 STDERR [INFO] layer {
2016-09-25 23:22:04.643 STDERR [INFO]   name: "h_pseudoloss"
2016-09-25 23:22:04.643 STDERR [INFO]   type: "Reduction"
2016-09-25 23:22:04.643 STDERR [INFO]   bottom: "h"
2016-09-25 23:22:04.643 STDERR [INFO]   top: "h_pseudoloss"
2016-09-25 23:22:04.643 STDERR [INFO]   loss_weight: 1
2016-09-25 23:22:04.643 STDERR [INFO] }
2016-09-25 23:22:04.643 STDERR [INFO] I0925 23:22:04.619946 32370 net.cpp:141] Setting up lstm1_x_transform
2016-09-25 23:22:04.643 STDERR [INFO] I0925 23:22:04.619969 32370 net.cpp:148] Top shape: 1 1 4000 (4000)
2016-09-25 23:22:04.643 STDERR [INFO] I0925 23:22:04.619976 32422 layer_factory.hpp:77] Creating layer lstm1_
2016-09-25 23:22:04.643 STDERR [INFO] I0925 23:22:04.619977 32370 net.cpp:156] Memory required for data: 26016
2016-09-25 23:22:04.643 STDERR [INFO] I0925 23:22:04.620012 32422 net.cpp:91] Creating Layer lstm1_
2016-09-25 23:22:04.643 STDERR [INFO] I0925 23:22:04.620021 32422 net.cpp:399] lstm1_ -> x
2016-09-25 23:22:04.643 STDERR [INFO] I0925 23:22:04.620026 32370 layer_factory.hpp:77] Creating layer lstm1_W_xc_x_slice
2016-09-25 23:22:04.644 STDERR [INFO] I0925 23:22:04.620038 32422 net.cpp:399] lstm1_ -> cont
2016-09-25 23:22:04.644 STDERR [INFO] I0925 23:22:04.620046 32370 net.cpp:91] Creating Layer lstm1_W_xc_x_slice
2016-09-25 23:22:04.644 STDERR [INFO] I0925 23:22:04.620057 32370 net.cpp:425] lstm1_W_xc_x_slice <- W_xc_x
2016-09-25 23:22:04.644 STDERR [INFO] I0925 23:22:04.620070 32370 net.cpp:399] lstm1_W_xc_x_slice -> W_xc_x_1
2016-09-25 23:22:04.644 STDERR [INFO] I0925 23:22:04.625327 32370 net.cpp:141] Setting up lstm1_W_xc_x_slice
2016-09-25 23:22:04.644 STDERR [INFO] I0925 23:22:04.625365 32370 net.cpp:148] Top shape: 1 1 4000 (4000)
2016-09-25 23:22:04.644 STDERR [INFO] I0925 23:22:04.625376 32370 net.cpp:156] Memory required for data: 42016
2016-09-25 23:22:04.644 STDERR [INFO] I0925 23:22:04.625388 32370 layer_factory.hpp:77] Creating layer lstm1_h_conted_0
2016-09-25 23:22:04.644 STDERR [INFO] I0925 23:22:04.625445 32370 net.cpp:91] Creating Layer lstm1_h_conted_0
2016-09-25 23:22:04.644 STDERR [INFO] I0925 23:22:04.625461 32370 net.cpp:425] lstm1_h_conted_0 <- h_0
2016-09-25 23:22:04.644 STDERR [INFO] I0925 23:22:04.625476 32370 net.cpp:425] lstm1_h_conted_0 <- cont_1_lstm1_cont_slice_0_split_0
2016-09-25 23:22:04.644 STDERR [INFO] I0925 23:22:04.625491 32370 net.cpp:399] lstm1_h_conted_0 -> h_conted_0
2016-09-25 23:22:04.644 STDERR [INFO] I0925 23:22:04.625654 32370 net.cpp:141] Setting up lstm1_h_conted_0
2016-09-25 23:22:04.644 STDERR [INFO] I0925 23:22:04.625666 32370 net.cpp:148] Top shape: 1 1 1000 (1000)
2016-09-25 23:22:04.644 STDERR [INFO] I0925 23:22:04.625671 32370 net.cpp:156] Memory required for data: 46016
2016-09-25 23:22:04.644 STDERR [INFO] I0925 23:22:04.625677 32370 layer_factory.hpp:77] Creating layer lstm1_transform_1
2016-09-25 23:22:04.644 STDERR [INFO] I0925 23:22:04.625694 32370 net.cpp:91] Creating Layer lstm1_transform_1
2016-09-25 23:22:04.644 STDERR [INFO] I0925 23:22:04.625699 32370 net.cpp:425] lstm1_transform_1 <- h_conted_0
2016-09-25 23:22:04.644 STDERR [INFO] I0925 23:22:04.625710 32370 net.cpp:399] lstm1_transform_1 -> W_hc_h_0
2016-09-25 23:22:04.644 STDERR [INFO] I0925 23:22:04.625756 32422 net.cpp:141] Setting up lstm1_
2016-09-25 23:22:04.645 STDERR [INFO] I0925 23:22:04.625794 32422 net.cpp:148] Top shape: 1 1 500 (500)
2016-09-25 23:22:04.645 STDERR [INFO] I0925 23:22:04.625808 32422 net.cpp:148] Top shape: 1 1 (1)
2016-09-25 23:22:04.645 STDERR [INFO] I0925 23:22:04.625814 32422 net.cpp:156] Memory required for data: 2004
2016-09-25 23:22:04.645 STDERR [INFO] I0925 23:22:04.625825 32422 layer_factory.hpp:77] Creating layer lstm1_
2016-09-25 23:22:04.645 STDERR [INFO] I0925 23:22:04.625881 32422 net.cpp:91] Creating Layer lstm1_
2016-09-25 23:22:04.645 STDERR [INFO] I0925 23:22:04.625900 32422 net.cpp:399] lstm1_ -> c_0
2016-09-25 23:22:04.645 n.t.s.u.StreamReader [INFO] [Timing] RequestID: 0 StreamID: The_Nut_Job_trailer_mp4_72a7424e SequenceNr: 366 Entering queue: 1474860124645
2016-09-25 23:22:04.645 STDERR [INFO] I0925 23:22:04.625923 32422 net.cpp:399] lstm1_ -> h_0
2016-09-25 23:22:04.645 STDERR [INFO] I0925 23:22:04.644757 32422 net.cpp:141] Setting up lstm1_
2016-09-25 23:22:04.645 STDERR [INFO] I0925 23:22:04.644809 32422 net.cpp:148] Top shape: 1 1 1000 (1000)
2016-09-25 23:22:04.645 STDERR [INFO] I0925 23:22:04.644820 32422 net.cpp:148] Top shape: 1 1 1000 (1000)
2016-09-25 23:22:04.645 STDERR [INFO] I0925 23:22:04.644827 32422 net.cpp:156] Memory required for data: 10004
2016-09-25 23:22:04.645 STDERR [INFO] I0925 23:22:04.644840 32422 layer_factory.hpp:77] Creating layer lstm1_cont_slice
2016-09-25 23:22:04.645 STDERR [INFO] I0925 23:22:04.644868 32422 net.cpp:91] Creating Layer lstm1_cont_slice
2016-09-25 23:22:04.645 STDERR [INFO] I0925 23:22:04.644879 32422 net.cpp:425] lstm1_cont_slice <- cont
2016-09-25 23:22:04.645 STDERR [INFO] I0925 23:22:04.644896 32422 net.cpp:399] lstm1_cont_slice -> cont_1
2016-09-25 23:22:04.645 STDERR [INFO] I0925 23:22:04.645006 32390 net.cpp:141] Setting up lstm1_x_transform
2016-09-25 23:22:04.645 STDERR [INFO] I0925 23:22:04.645048 32390 net.cpp:148] Top shape: 1 1 4000 (4000)
2016-09-25 23:22:04.645 STDERR [INFO] I0925 23:22:04.645054 32390 net.cpp:156] Memory required for data: 26016
2016-09-25 23:22:04.645 STDERR [INFO] I0925 23:22:04.645076 32390 layer_factory.hpp:77] Creating layer lstm1_W_xc_x_slice
2016-09-25 23:22:04.646 STDERR [INFO] I0925 23:22:04.645093 32390 net.cpp:91] Creating Layer lstm1_W_xc_x_slice
2016-09-25 23:22:04.646 STDERR [INFO] I0925 23:22:04.645102 32390 net.cpp:425] lstm1_W_xc_x_slice <- W_xc_x
2016-09-25 23:22:04.646 STDERR [INFO] I0925 23:22:04.645664 32390 net.cpp:399] lstm1_W_xc_x_slice -> W_xc_x_1
2016-09-25 23:22:04.646 STDERR [INFO] I0925 23:22:04.645735 32390 net.cpp:141] Setting up lstm1_W_xc_x_slice
2016-09-25 23:22:04.646 STDERR [INFO] I0925 23:22:04.645746 32390 net.cpp:148] Top shape: 1 1 4000 (4000)
2016-09-25 23:22:04.646 STDERR [INFO] I0925 23:22:04.645751 32390 net.cpp:156] Memory required for data: 42016
2016-09-25 23:22:04.646 STDERR [INFO] I0925 23:22:04.645757 32390 layer_factory.hpp:77] Creating layer lstm1_h_conted_0
2016-09-25 23:22:04.646 STDERR [INFO] I0925 23:22:04.645769 32390 net.cpp:91] Creating Layer lstm1_h_conted_0
2016-09-25 23:22:04.646 STDERR [INFO] I0925 23:22:04.645774 32390 net.cpp:425] lstm1_h_conted_0 <- h_0
2016-09-25 23:22:04.646 STDERR [INFO] I0925 23:22:04.645782 32390 net.cpp:425] lstm1_h_conted_0 <- cont_1_lstm1_cont_slice_0_split_0
2016-09-25 23:22:04.648 n.t.s.s.CVParticleSpout [INFO] [Timing] RequestID: 0 StreamID: The_Nut_Job_trailer_mp4_7610b7f8 SequenceNr: 356 Leaving fetcher: 1474860124648 Size: 45737
2016-09-25 23:22:04.648 n.t.s.u.StreamReader [INFO] [Timing] RequestID: 0 StreamID: The_Nut_Job_trailer_mp4_c7838536 SequenceNr: 361 Entering queue: 1474860124648
2016-09-25 23:22:04.651 n.t.s.s.CVParticleSpout [INFO] [Timing] RequestID: 0 StreamID: The_Nut_Job_trailer_mp4_c2739ae0 SequenceNr: 362 Leaving fetcher: 1474860124651 Size: 44364
2016-09-25 23:22:04.652 STDERR [INFO] I0925 23:22:04.651234 32422 net.cpp:141] Setting up lstm1_cont_slice
2016-09-25 23:22:04.652 STDERR [INFO] I0925 23:22:04.651295 32422 net.cpp:148] Top shape: 1 1 (1)
2016-09-25 23:22:04.652 STDERR [INFO] I0925 23:22:04.651304 32422 net.cpp:156] Memory required for data: 10008
2016-09-25 23:22:04.652 STDERR [INFO] I0925 23:22:04.651317 32422 layer_factory.hpp:77] Creating layer cont_1_lstm1_cont_slice_0_split
2016-09-25 23:22:04.652 n.t.s.s.CVParticleSpout [INFO] [Timing] RequestID: 0 StreamID: The_Nut_Job_trailer_mp4_713990cf SequenceNr: 364 Leaving fetcher: 1474860124652 Size: 44457
2016-09-25 23:22:04.652 STDERR [INFO] I0925 23:22:04.651342 32422 net.cpp:91] Creating Layer cont_1_lstm1_cont_slice_0_split
2016-09-25 23:22:04.652 STDERR [INFO] I0925 23:22:04.651353 32422 net.cpp:425] cont_1_lstm1_cont_slice_0_split <- cont_1
2016-09-25 23:22:04.652 STDERR [INFO] I0925 23:22:04.651371 32422 net.cpp:399] cont_1_lstm1_cont_slice_0_split -> cont_1_lstm1_cont_slice_0_split_0
2016-09-25 23:22:04.652 STDERR [INFO] I0925 23:22:04.651391 32422 net.cpp:399] cont_1_lstm1_cont_slice_0_split -> cont_1_lstm1_cont_slice_0_split_1
2016-09-25 23:22:04.658 STDERR [INFO] I0925 23:22:04.658664 32396 net.cpp:141] Setting up lstm1_x_transform
2016-09-25 23:22:04.659 STDERR [INFO] I0925 23:22:04.658725 32396 net.cpp:148] Top shape: 1 1 4000 (4000)
2016-09-25 23:22:04.659 STDERR [INFO] I0925 23:22:04.658735 32396 net.cpp:156] Memory required for data: 26016
2016-09-25 23:22:04.659 STDERR [INFO] I0925 23:22:04.658768 32396 layer_factory.hpp:77] Creating layer lstm1_W_xc_x_slice
2016-09-25 23:22:04.659 STDERR [INFO] I0925 23:22:04.658809 32396 net.cpp:91] Creating Layer lstm1_W_xc_x_slice
2016-09-25 23:22:04.659 STDERR [INFO] I0925 23:22:04.658820 32396 net.cpp:425] lstm1_W_xc_x_slice <- W_xc_x
…
2016-09-25 23:22:04.674 n.t.s.s.CVParticleSpout [INFO] [Timing] RequestID: 0 StreamID: The_Nut_Job_trailer_mp4_20b298da SequenceNr: 362 Leaving fetcher: 1474860124674 Size: 44364
2016-09-25 23:22:04.676 n.t.s.s.CVParticleSpout [INFO] [Timing] RequestID: 0 StreamID: The_Nut_Job_trailer_mp4_d1a53cd4 SequenceNr: 364 Leaving fetcher: 1474860124676 Size: 44457
2016-09-25 23:22:04.677 n.t.s.s.CVParticleSpout [INFO] [Timing] RequestID: 0 StreamID: The_Nut_Job_trailer_mp4_1045bfa7 SequenceNr: 361 Leaving fetcher: 1474860124677 Size: 44265
2016-09-25 23:22:04.682 STDERR [INFO] I0925 23:22:04.681960 32422 net.cpp:141] Setting up cont_1_lstm1_cont_slice_0_split
2016-09-25 23:22:04.683 STDERR [INFO] I0925 23:22:04.682023 32422 net.cpp:148] Top shape: 1 1 (1)
2016-09-25 23:22:04.683 STDERR [INFO] I0925 23:22:04.682035 32422 net.cpp:148] Top shape: 1 1 (1)
2016-09-25 23:22:04.683 STDERR [INFO] I0925 23:22:04.682044 32422 net.cpp:156] Memory required for data: 10016
2016-09-25 23:22:04.683 STDERR [INFO] I0925 23:22:04.682057 32422 layer_factory.hpp:77] Creating layer lstm1_x_transform
2016-09-25 23:22:04.683 STDERR [INFO] I0925 23:22:04.682096 32422 net.cpp:91] Creating Layer lstm1_x_transform
2016-09-25 23:22:04.683 STDERR [INFO] I0925 23:22:04.682107 32422 net.cpp:425] lstm1_x_transform <- x
2016-09-25 23:22:04.683 STDERR [INFO] I0925 23:22:04.682131 32422 net.cpp:399] lstm1_x_transform -> W_xc_x
2016-09-25 23:22:04.687 STDERR [INFO] I0925 23:22:04.687618 32396 net.cpp:141] Setting up lstm1_W_xc_x_slice
2016-09-25 23:22:04.688 STDERR [INFO] I0925 23:22:04.687679 32396 net.cpp:148] Top shape: 1 1 4000 (4000)
2016-09-25 23:22:04.688 STDERR [INFO] I0925 23:22:04.687688 32396 net.cpp:156] Memory required for data: 42016
2016-09-25 23:22:04.688 STDERR [INFO] I0925 23:22:04.687702 32396 layer_factory.hpp:77] Creating layer lstm1_h_conted_0
2016-09-25 23:22:04.688 STDERR [INFO] I0925 23:22:04.687758 32396 net.cpp:91] Creating Layer lstm1_h_conted_0
2016-09-25 23:22:04.688 STDERR [INFO] I0925 23:22:04.687772 32396 net.cpp:425] lstm1_h_conted_0 <- h_0
2016-09-25 23:22:04.688 STDERR [INFO] I0925 23:22:04.687788 32396 net.cpp:425] lstm1_h_conted_0 <- cont_1_lstm1_cont_slice_0_split_0
2016-09-25 23:22:04.688 STDERR [INFO] I0925 23:22:04.687801 32396 net.cpp:399] lstm1_h_conted_0 -> h_conted_0
2016-09-25 23:22:04.688 STDERR [INFO] I0925 23:22:04.687939 32390 net.cpp:141] Setting up lstm1_h_conted_0
2016-09-25 23:22:04.688 STDERR [INFO] I0925 23:22:04.687983 32390 net.cpp:148] Top shape: 1 1 1000 (1000)
2016-09-25 23:22:04.688 STDERR [INFO] I0925 23:22:04.687993 32390 net.cpp:156] Memory required for data: 46016
2016-09-25 23:22:04.689 STDERR [INFO] I0925 23:22:04.688005 32390 layer_factory.hpp:77] Creating layer lstm1_transform_1
2016-09-25 23:22:04.689 STDERR [INFO] I0925 23:22:04.688037 32390 net.cpp:91] Creating Layer lstm1_transform_1
2016-09-25 23:22:04.689 STDERR [INFO] I0925 23:22:04.688050 32390 net.cpp:425] lstm1_transform_1 <- h_conted_0
2016-09-25 23:22:04.689 STDERR [INFO] I0925 23:22:04.688067 32390 net.cpp:399] lstm1_transform_1 -> W_hc_h_0
2016-09-25 23:22:04.693 n.t.s.s.CVParticleSpout [INFO] [Timing] RequestID: 0 StreamID: The_Nut_Job_trailer_mp4_72a7424e SequenceNr: 366 Leaving fetcher: 1474860124693 Size: 44693
2016-09-25 23:22:04.694 n.t.s.u.StreamReader [INFO] [Timing] RequestID: 0 StreamID: The_Nut_Job_trailer_mp4_713990cf SequenceNr: 365 Entering queue: 1474860124694
2016-09-25 23:22:04.696 n.t.s.u.StreamReader [INFO] [Timing] RequestID: 0 StreamID: The_Nut_Job_trailer_mp4_20b298da SequenceNr: 363 Entering queue: 1474860124696
2016-09-25 23:22:04.699 STDERR [INFO] I0925 23:22:04.699419 32396 net.cpp:141] Setting up lstm1_h_conted_0
2016-09-25 23:22:04.700 STDERR [INFO] I0925 23:22:04.699479 32396 net.cpp:148] Top shape: 1 1 1000 (1000)
2016-09-25 23:22:04.700 STDERR [INFO] I0925 23:22:04.699491 32396 net.cpp:156] Memory required for data: 46016
2016-09-25 23:22:04.700 STDERR [INFO] I0925 23:22:04.699502 32396 layer_factory.hpp:77] Creating layer lstm1_transform_1
2016-09-25 23:22:04.700 STDERR [INFO] I0925 23:22:04.699550 32396 net.cpp:91] Creating Layer lstm1_transform_1
2016-09-25 23:22:04.700 STDERR [INFO] I0925 23:22:04.699563 32396 net.cpp:425] lstm1_transform_1 <- h_conted_0
2016-09-25 23:22:04.700 STDERR [INFO] I0925 23:22:04.699581 32396 net.cpp:399] lstm1_transform_1 -> W_hc_h_0
2016-09-25 23:22:04.707 n.t.s.s.CVParticleSpout [INFO] [Timing] RequestID: 0 StreamID: The_Nut_Job_trailer_mp4_c7838536 SequenceNr: 361 Leaving fetcher: 1474860124699 Size: 44265
2016-09-25 23:22:04.708 STDERR [INFO] I0925 23:22:04.708113 32362 net.cpp:141] Setting up lstm1_transform_1
2016-09-25 23:22:04.708 STDERR [INFO] I0925 23:22:04.708165 32362 net.cpp:148] Top shape: 1 1 4000 (4000)
2016-09-25 23:22:04.708 STDERR [INFO] I0925 23:22:04.708173 32362 net.cpp:156] Memory required for data: 62016
2016-09-25 23:22:04.708 STDERR [INFO] I0925 23:22:04.708194 32362 layer_factory.hpp:77] Creating layer lstm1_gate_input_1
2016-09-25 23:22:04.709 STDERR [INFO] I0925 23:22:04.708219 32362 net.cpp:91] Creating Layer lstm1_gate_input_1
2016-09-25 23:22:04.709 STDERR [INFO] I0925 23:22:04.708226 32362 net.cpp:425] lstm1_gate_input_1 <- W_hc_h_0
2016-09-25 23:22:04.709 STDERR [INFO] I0925 23:22:04.708235 32362 net.cpp:425] lstm1_gate_input_1 <- W_xc_x_1
2016-09-25 23:22:04.709 STDERR [INFO] I0925 23:22:04.708245 32362 net.cpp:399] lstm1_gate_input_1 -> gate_input_1
2016-09-25 23:22:04.710 STDERR [INFO] I0925 23:22:04.708325 32362 net.cpp:141] Setting up lstm1_gate_input_1
2016-09-25 23:22:04.710 STDERR [INFO] I0925 23:22:04.708336 32362 net.cpp:148] Top shape: 1 1 4000 (4000)
2016-09-25 23:22:04.710 STDERR [INFO] I0925 23:22:04.708340 32362 net.cpp:156] Memory required for data: 78016
2016-09-25 23:22:04.710 STDERR [INFO] I0925 23:22:04.708346 32362 layer_factory.hpp:77] Creating layer lstm1_unit_1
2016-09-25 23:22:04.710 STDERR [INFO] I0925 23:22:04.708367 32362 net.cpp:91] Creating Layer lstm1_unit_1
2016-09-25 23:22:04.710 STDERR [INFO] I0925 23:22:04.708374 32362 net.cpp:425] lstm1_unit_1 <- c_0
2016-09-25 23:22:04.710 STDERR [INFO] I0925 23:22:04.708379 32362 net.cpp:425] lstm1_unit_1 <- gate_input_1
2016-09-25 23:22:04.710 STDERR [INFO] I0925 23:22:04.708386 32362 net.cpp:425] lstm1_unit_1 <- cont_1_lstm1_cont_slice_0_split_1
2016-09-25 23:22:04.710 STDERR [INFO] I0925 23:22:04.708396 32362 net.cpp:399] lstm1_unit_1 -> c_1
2016-09-25 23:22:04.710 STDERR [INFO] I0925 23:22:04.708406 32362 net.cpp:399] lstm1_unit_1 -> h_1
2016-09-25 23:22:04.711 STDERR [INFO] I0925 23:22:04.708725 32418 net.cpp:141] Setting up embedding
2016-09-25 23:22:04.711 STDERR [INFO] I0925 23:22:04.708746 32418 net.cpp:148] Top shape: 1 1 500 (500)
2016-09-25 23:22:04.711 STDERR [INFO] I0925 23:22:04.708755 32418 net.cpp:156] Memory required for data: 22408
2016-09-25 23:22:04.711 STDERR [INFO] I0925 23:22:04.708772 32418 layer_factory.hpp:77] Creating layer lstm1
2016-09-25 23:22:04.711 STDERR [INFO] I0925 23:22:04.708814 32418 net.cpp:91] Creating Layer lstm1
2016-09-25 23:22:04.711 STDERR [INFO] I0925 23:22:04.708827 32418 net.cpp:425] lstm1 <- embedded_input_frames
…
2016-09-25 23:22:04.721 STDERR [INFO] }
2016-09-25 23:22:04.721 STDERR [INFO] I0925 23:22:04.709430 32418 layer_factory.hpp:77] Creating layer lstm1_
2016-09-25 23:22:04.721 STDERR [INFO] I0925 23:22:04.709450 32418 net.cpp:91] Creating Layer lstm1_
2016-09-25 23:22:04.721 STDERR [INFO] I0925 23:22:04.709460 32418 net.cpp:399] lstm1_ -> x
2016-09-25 23:22:04.721 STDERR [INFO] I0925 23:22:04.709477 32418 net.cpp:399] lstm1_ -> cont
2016-09-25 23:22:04.721 STDERR [INFO] I0925 23:22:04.709566 32418 net.cpp:141] Setting up lstm1_
2016-09-25 23:22:04.722 STDERR [INFO] I0925 23:22:04.709589 32418 net.cpp:148] Top shape: 1 1 500 (500)
2016-09-25 23:22:04.722 STDERR [INFO] I0925 23:22:04.709601 32418 net.cpp:148] Top shape: 1 1 (1)
2016-09-25 23:22:04.722 STDERR [INFO] I0925 23:22:04.709611 32418 net.cpp:156] Memory required for data: 2004
2016-09-25 23:22:04.722 STDERR [INFO] I0925 23:22:04.709620 32418 layer_factory.hpp:77] Creating layer lstm1_
2016-09-25 23:22:04.722 STDERR [INFO] I0925 23:22:04.709640 32418 net.cpp:91] Creating Layer lstm1_
2016-09-25 23:22:04.722 STDERR [INFO] I0925 23:22:04.709652 32418 net.cpp:399] lstm1_ -> c_0
2016-09-25 23:22:04.722 STDERR [INFO] I0925 23:22:04.709669 32418 net.cpp:399] lstm1_ -> h_0
2016-09-25 23:22:04.722 STDERR [INFO] I0925 23:22:04.709782 32418 net.cpp:141] Setting up lstm1_
2016-09-25 23:22:04.722 STDERR [INFO] I0925 23:22:04.709805 32418 net.cpp:148] Top shape: 1 1 1000 (1000)
2016-09-25 23:22:04.722 STDERR [INFO] I0925 23:22:04.709820 32418 net.cpp:148] Top shape: 1 1 1000 (1000)
2016-09-25 23:22:04.722 STDERR [INFO] I0925 23:22:04.709831 32418 net.cpp:156] Memory required for data: 10004
2016-09-25 23:22:04.722 STDERR [INFO] I0925 23:22:04.709844 32418 layer_factory.hpp:77] Creating layer lstm1_cont_slice
2016-09-25 23:22:04.722 STDERR [INFO] I0925 23:22:04.709869 32418 net.cpp:91] Creating Layer lstm1_cont_slice
2016-09-25 23:22:04.722 STDERR [INFO] I0925 23:22:04.709882 32418 net.cpp:425] lstm1_cont_slice <- cont
2016-09-25 23:22:04.722 STDERR [INFO] I0925 23:22:04.709905 32418 net.cpp:399] lstm1_cont_slice -> cont_1
2016-09-25 23:22:04.723 STDERR [INFO] I0925 23:22:04.709993 32418 net.cpp:141] Setting up lstm1_cont_slice
2016-09-25 23:22:04.723 STDERR [INFO] I0925 23:22:04.710014 32418 net.cpp:148] Top shape: 1 1 (1)
2016-09-25 23:22:04.723 STDERR [INFO] I0925 23:22:04.710026 32418 net.cpp:156] Memory required for data: 10008
2016-09-25 23:22:04.723 STDERR [INFO] I0925 23:22:04.710037 32418 layer_factory.hpp:77] Creating layer cont_1_lstm1_cont_slice_0_split
2016-09-25 23:22:04.723 STDERR [INFO] I0925 23:22:04.710055 32418 net.cpp:91] Creating Layer cont_1_lstm1_cont_slice_0_split
2016-09-25 23:22:04.723 STDERR [INFO] I0925 23:22:04.710067 32418 net.cpp:425] cont_1_lstm1_cont_slice_0_split <- cont_1
2016-09-25 23:22:04.723 STDERR [INFO] I0925 23:22:04.710085 32418 net.cpp:399] cont_1_lstm1_cont_slice_0_split -> cont_1_lstm1_cont_slice_0_split_0
2016-09-25 23:22:04.723 STDERR [INFO] I0925 23:22:04.710105 32418 net.cpp:399] cont_1_lstm1_cont_slice_0_split -> cont_1_lstm1_cont_slice_0_split_1
2016-09-25 23:22:04.723 STDERR [INFO] I0925 23:22:04.710222 32418 net.cpp:141] Setting up cont_1_lstm1_cont_slice_0_split
2016-09-25 23:22:04.723 STDERR [INFO] I0925 23:22:04.710243 32418 net.cpp:148] Top shape: 1 1 (1)
2016-09-25 23:22:04.724 STDERR [INFO] I0925 23:22:04.710258 32418 net.cpp:148] Top shape: 1 1 (1)
2016-09-25 23:22:04.724 STDERR [INFO] I0925 23:22:04.710269 32418 net.cpp:156] Memory required for data: 10016
2016-09-25 23:22:04.724 STDERR [INFO] I0925 23:22:04.710281 32418 layer_factory.hpp:77] Creating layer lstm1_x_transform
2016-09-25 23:22:04.724 STDERR [INFO] I0925 23:22:04.710309 32418 net.cpp:91] Creating Layer lstm1_x_transform
2016-09-25 23:22:04.724 STDERR [INFO] I0925 23:22:04.710322 32418 net.cpp:425] lstm1_x_transform <- x
2016-09-25 23:22:04.724 STDERR [INFO] I0925 23:22:04.710345 32418 net.cpp:399] lstm1_x_transform -> W_xc_x
2016-09-25 23:22:04.724 STDERR [INFO] I0925 23:22:04.710861 32370 net.cpp:141] Setting up lstm1_transform_1
2016-09-25 23:22:04.724 STDERR [INFO] I0925 23:22:04.710909 32370 net.cpp:148] Top shape: 1 1 4000 (4000)
2016-09-25 23:22:04.724 STDERR [INFO] I0925 23:22:04.710919 32370 net.cpp:156] Memory required for data: 62016
2016-09-25 23:22:04.724 STDERR [INFO] I0925 23:22:04.710948 32370 layer_factory.hpp:77] Creating layer lstm1_gate_input_1
2016-09-25 23:22:04.724 STDERR [INFO] I0925 23:22:04.710981 32370 net.cpp:91] Creating Layer lstm1_gate_input_1
2016-09-25 23:22:04.724 STDERR [INFO] I0925 23:22:04.710994 32370 net.cpp:425] lstm1_gate_input_1 <- W_hc_h_0
2016-09-25 23:22:04.724 STDERR [INFO] I0925 23:22:04.711004 32370 net.cpp:425] lstm1_gate_input_1 <- W_xc_x_1
2016-09-25 23:22:04.724 STDERR [INFO] I0925 23:22:04.711017 32370 net.cpp:399] lstm1_gate_input_1 -> gate_input_1
2016-09-25 23:22:04.724 STDERR [INFO] I0925 23:22:04.717720 32362 net.cpp:141] Setting up lstm1_unit_1
2016-09-25 23:22:04.725 STDERR [INFO] I0925 23:22:04.717792 32362 net.cpp:148] Top shape: 1 1 1000 (1000)
2016-09-25 23:22:04.725 STDERR [INFO] I0925 23:22:04.717815 32362 net.cpp:148] Top shape: 1 1 1000 (1000)
2016-09-25 23:22:04.725 STDERR [INFO] I0925 23:22:04.717830 32362 net.cpp:156] Memory required for data: 86016
2016-09-25 23:22:04.725 STDERR [INFO] I0925 23:22:04.717854 32362 layer_factory.hpp:77] Creating layer lstm1_
2016-09-25 23:22:04.725 STDERR [INFO] I0925 23:22:04.717886 32362 net.cpp:91] Creating Layer lstm1_
2016-09-25 23:22:04.725 STDERR [INFO] I0925 23:22:04.717906 32362 net.cpp:425] lstm1_ <- c_1
2016-09-25 23:22:04.725 STDERR [INFO] I0925 23:22:04.717936 32362 net.cpp:399] lstm1_ -> c_T
2016-09-25 23:22:04.725 STDERR [INFO] I0925 23:22:04.718085 32362 net.cpp:141] Setting up lstm1_
2016-09-25 23:22:04.725 STDERR [INFO] I0925 23:22:04.718112 32362 net.cpp:148] Top shape: 1 1 1000 (1000)
2016-09-25 23:22:04.725 STDERR [INFO] I0925 23:22:04.718128 32362 net.cpp:156] Memory required for data: 90016
2016-09-25 23:22:04.725 STDERR [INFO] I0925 23:22:04.718143 32362 layer_factory.hpp:77] Creating layer lstm1_h_concat
2016-09-25 23:22:04.725 STDERR [INFO] I0925 23:22:04.718169 32362 net.cpp:91] Creating Layer lstm1_h_concat
2016-09-25 23:22:04.725 STDERR [INFO] I0925 23:22:04.718194 32362 net.cpp:425] lstm1_h_concat <- h_1
2016-09-25 23:22:04.725 STDERR [INFO] I0925 23:22:04.718219 32362 net.cpp:399] lstm1_h_concat -> h
2016-09-25 23:22:04.725 STDERR [INFO] I0925 23:22:04.718457 32422 net.cpp:141] Setting up lstm1_x_transform
2016-09-25 23:22:04.726 STDERR [INFO] I0925 23:22:04.718498 32422 net.cpp:148] Top shape: 1 1 4000 (4000)
2016-09-25 23:22:04.726 STDERR [INFO] I0925 23:22:04.718508 32422 net.cpp:156] Memory required for data: 26016
2016-09-25 23:22:04.726 STDERR [INFO] I0925 23:22:04.718535 32422 layer_factory.hpp:77] Creating layer lstm1_W_xc_x_slice
2016-09-25 23:22:04.726 STDERR [INFO] I0925 23:22:04.718541 32410 net.cpp:141] Setting up lstm1_x_transform
2016-09-25 23:22:04.726 STDERR [INFO] I0925 23:22:04.718559 32422 net.cpp:91] Creating Layer lstm1_W_xc_x_slice
2016-09-25 23:22:04.726 STDERR [INFO] I0925 23:22:04.718565 32410 net.cpp:148] Top shape: 1 1 4000 (4000)
2016-09-25 23:22:04.726 STDERR [INFO] I0925 23:22:04.718570 32422 net.cpp:425] lstm1_W_xc_x_slice <- W_xc_x
2016-09-25 23:22:04.726 STDERR [INFO] I0925 23:22:04.718575 32410 net.cpp:156] Memory required for data: 26016
2016-09-25 23:22:04.726 STDERR [INFO] I0925 23:22:04.718588 32422 net.cpp:399] lstm1_W_xc_x_slice -> W_xc_x_1
2016-09-25 23:22:04.726 STDERR [INFO] I0925 23:22:04.718613 32410 layer_factory.hpp:77] Creating layer lstm1_W_xc_x_slice
2016-09-25 23:22:04.726 STDERR [INFO] I0925 23:22:04.718634 32410 net.cpp:91] Creating Layer lstm1_W_xc_x_slice
2016-09-25 23:22:04.726 STDERR [INFO] I0925 23:22:04.718646 32410 net.cpp:425] lstm1_W_xc_x_slice <- W_xc_x
2016-09-25 23:22:04.726 STDERR [INFO] I0925 23:22:04.718660 32410 net.cpp:399] lstm1_W_xc_x_slice -> W_xc_x_1
2016-09-25 23:22:04.726 STDERR [INFO] I0925 23:22:04.718672 32422 net.cpp:141] Setting up lstm1_W_xc_x_slice
2016-09-25 23:22:04.727 STDERR [INFO] I0925 23:22:04.718688 32422 net.cpp:148] Top shape: 1 1 4000 (4000)
2016-09-25 23:22:04.727 STDERR [INFO] I0925 23:22:04.718696 32422 net.cpp:156] Memory required for data: 42016
2016-09-25 23:22:04.727 STDERR [INFO] I0925 23:22:04.718705 32422 layer_factory.hpp:77] Creating layer lstm1_h_conted_0
2016-09-25 23:22:04.727 STDERR [INFO] I0925 23:22:04.718724 32422 net.cpp:91] Creating Layer lstm1_h_conted_0
2016-09-25 23:22:04.727 STDERR [INFO] I0925 23:22:04.718724 32410 net.cpp:141] Setting up lstm1_W_xc_x_slice
2016-09-25 23:22:04.727 STDERR [INFO] I0925 23:22:04.718734 32422 net.cpp:425] lstm1_h_conted_0 <- h_0
2016-09-25 23:22:04.727 STDERR [INFO] I0925 23:22:04.718741 32410 net.cpp:148] Top shape: 1 1 4000 (4000)
2016-09-25 23:22:04.727 STDERR [INFO] I0925 23:22:04.718744 32422 net.cpp:425] lstm1_h_conted_0 <- cont_1_lstm1_cont_slice_0_split_0
2016-09-25 23:22:04.727 STDERR [INFO] I0925 23:22:04.718750 32410 net.cpp:156] Memory required for data: 42016
2016-09-25 23:22:04.727 STDERR [INFO] I0925 23:22:04.718757 32422 net.cpp:399] lstm1_h_conted_0 -> h_conted_0
2016-09-25 23:22:04.727 STDERR [INFO] I0925 23:22:04.718760 32410 layer_factory.hpp:77] Creating layer lstm1_h_conted_0
2016-09-25 23:22:04.727 STDERR [INFO] I0925 23:22:04.718775 32410 net.cpp:91] Creating Layer lstm1_h_conted_0
2016-09-25 23:22:04.727 STDERR [INFO] I0925 23:22:04.718786 32410 net.cpp:425] lstm1_h_conted_0 <- h_0
2016-09-25 23:22:04.727 STDERR [INFO] I0925 23:22:04.718796 32410 net.cpp:425] lstm1_h_conted_0 <- cont_1_lstm1_cont_slice_0_split_0
2016-09-25 23:22:04.727 STDERR [INFO] I0925 23:22:04.718808 32410 net.cpp:399] lstm1_h_conted_0 -> h_conted_0
2016-09-25 23:22:04.728 STDERR [INFO] I0925 23:22:04.718930 32362 net.cpp:141] Setting up lstm1_h_concat
2016-09-25 23:22:04.728 STDERR [INFO] I0925 23:22:04.718946 32362 net.cpp:148] Top shape: 1 1 1000 (1000)
2016-09-25 23:22:04.728 STDERR [INFO] I0925 23:22:04.718955 32362 net.cpp:156] Memory required for data: 94016
2016-09-25 23:22:04.728 STDERR [INFO] I0925 23:22:04.718963 32362 layer_factory.hpp:77] Creating layer h_pseudoloss
2016-09-25 23:22:04.728 STDERR [INFO] I0925 23:22:04.718992 32362 net.cpp:91] Creating Layer h_pseudoloss
2016-09-25 23:22:04.728 STDERR [INFO] I0925 23:22:04.719002 32362 net.cpp:425] h_pseudoloss <- h
…
2016-09-25 23:22:04.750 STDERR [INFO] }
2016-09-25 23:22:04.750 STDERR [INFO] I0925 23:22:04.720476 32362 layer_factory.hpp:77] Creating layer lstm2_
2016-09-25 23:22:04.754 STDERR [INFO] I0925 23:22:04.720495 32362 net.cpp:91] Creating Layer lstm2_
2016-09-25 23:22:04.754 STDERR [INFO] I0925 23:22:04.720505 32362 net.cpp:399] lstm2_ -> x
2016-09-25 23:22:04.755 STDERR [INFO] I0925 23:22:04.720521 32362 net.cpp:399] lstm2_ -> cont
2016-09-25 23:22:04.755 STDERR [INFO] I0925 23:22:04.720600 32362 net.cpp:141] Setting up lstm2_
2016-09-25 23:22:04.755 STDERR [INFO] I0925 23:22:04.720615 32362 net.cpp:148] Top shape: 1 1 1501 (1501)
2016-09-25 23:22:04.755 STDERR [INFO] I0925 23:22:04.720626 32362 net.cpp:148] Top shape: 1 1 (1)
2016-09-25 23:22:04.755 STDERR [INFO] I0925 23:22:04.720633 32362 net.cpp:156] Memory required for data: 6008
2016-09-25 23:22:04.755 STDERR [INFO] I0925 23:22:04.720640 32362 layer_factory.hpp:77] Creating layer lstm2_
2016-09-25 23:22:04.755 STDERR [INFO] I0925 23:22:04.720654 32362 net.cpp:91] Creating Layer lstm2_
2016-09-25 23:22:04.755 STDERR [INFO] I0925 23:22:04.720674 32362 net.cpp:399] lstm2_ -> c_0
2016-09-25 23:22:04.755 STDERR [INFO] I0925 23:22:04.720688 32362 net.cpp:399] lstm2_ -> h_0
2016-09-25 23:22:04.755 STDERR [INFO] I0925 23:22:04.720767 32362 net.cpp:141] Setting up lstm2_
2016-09-25 23:22:04.755 STDERR [INFO] I0925 23:22:04.720780 32362 net.cpp:148] Top shape: 1 1 1000 (1000)
2016-09-25 23:22:04.755 STDERR [INFO] I0925 23:22:04.720790 32362 net.cpp:148] Top shape: 1 1 1000 (1000)
2016-09-25 23:22:04.755 STDERR [INFO] I0925 23:22:04.720798 32362 net.cpp:156] Memory required for data: 14008
2016-09-25 23:22:04.755 STDERR [INFO] I0925 23:22:04.720804 32362 layer_factory.hpp:77] Creating layer lstm2_cont_slice
2016-09-25 23:22:04.755 STDERR [INFO] I0925 23:22:04.720821 32362 net.cpp:91] Creating Layer lstm2_cont_slice
2016-09-25 23:22:04.756 STDERR [INFO] I0925 23:22:04.720829 32362 net.cpp:425] lstm2_cont_slice <- cont
2016-09-25 23:22:04.756 STDERR [INFO] I0925 23:22:04.720841 32362 net.cpp:399] lstm2_cont_slice -> cont_1
2016-09-25 23:22:04.756 STDERR [INFO] I0925 23:22:04.720892 32362 net.cpp:141] Setting up lstm2_cont_slice
2016-09-25 23:22:04.756 STDERR [INFO] I0925 23:22:04.720907 32362 net.cpp:148] Top shape: 1 1 (1)
2016-09-25 23:22:04.756 STDERR [INFO] I0925 23:22:04.720916 32362 net.cpp:156] Memory required for data: 14012
2016-09-25 23:22:04.756 STDERR [INFO] I0925 23:22:04.720923 32362 layer_factory.hpp:77] Creating layer cont_1_lstm2_cont_slice_0_split
2016-09-25 23:22:04.756 STDERR [INFO] I0925 23:22:04.720935 32362 net.cpp:91] Creating Layer cont_1_lstm2_cont_slice_0_split
2016-09-25 23:22:04.756 STDERR [INFO] I0925 23:22:04.720943 32362 net.cpp:425] cont_1_lstm2_cont_slice_0_split <- cont_1
2016-09-25 23:22:04.756 STDERR [INFO] I0925 23:22:04.720958 32362 net.cpp:399] cont_1_lstm2_cont_slice_0_split -> cont_1_lstm2_cont_slice_0_split_0
2016-09-25 23:22:04.756 STDERR [INFO] I0925 23:22:04.720971 32362 net.cpp:399] cont_1_lstm2_cont_slice_0_split -> cont_1_lstm2_cont_slice_0_split_1
2016-09-25 23:22:04.756 STDERR [INFO] I0925 23:22:04.721052 32362 net.cpp:141] Setting up cont_1_lstm2_cont_slice_0_split
2016-09-25 23:22:04.756 STDERR [INFO] I0925 23:22:04.721066 32362 net.cpp:148] Top shape: 1 1 (1)
2016-09-25 23:22:04.756 STDERR [INFO] I0925 23:22:04.721076 32362 net.cpp:148] Top shape: 1 1 (1)
2016-09-25 23:22:04.756 STDERR [INFO] I0925 23:22:04.721083 32362 net.cpp:156] Memory required for data: 14020
2016-09-25 23:22:04.756 STDERR [INFO] I0925 23:22:04.721091 32362 layer_factory.hpp:77] Creating layer lstm2_x_transform
2016-09-25 23:22:04.757 STDERR [INFO] I0925 23:22:04.721109 32362 net.cpp:91] Creating Layer lstm2_x_transform
2016-09-25 23:22:04.757 STDERR [INFO] I0925 23:22:04.721118 32362 net.cpp:425] lstm2_x_transform <- x
2016-09-25 23:22:04.757 STDERR [INFO] I0925 23:22:04.721132 32362 net.cpp:399] lstm2_x_transform -> W_xc_x
2016-09-25 23:22:04.757 STDERR [INFO] I0925 23:22:04.722666 32370 net.cpp:141] Setting up lstm1_gate_input_1
2016-09-25 23:22:04.757 STDERR [INFO] I0925 23:22:04.722699 32370 net.cpp:148] Top shape: 1 1 4000 (4000)
2016-09-25 23:22:04.757 STDERR [INFO] I0925 23:22:04.722708 32370 net.cpp:156] Memory required for data: 78016
2016-09-25 23:22:04.757 STDERR [INFO] I0925 23:22:04.722718 32370 layer_factory.hpp:77] Creating layer lstm1_unit_1
2016-09-25 23:22:04.757 STDERR [INFO] I0925 23:22:04.722743 32370 net.cpp:91] Creating Layer lstm1_unit_1
2016-09-25 23:22:04.757 STDERR [INFO] I0925 23:22:04.722754 32370 net.cpp:425] lstm1_unit_1 <- c_0
2016-09-25 23:22:04.757 STDERR [INFO] I0925 23:22:04.722766 32370 net.cpp:425] lstm1_unit_1 <- gate_input_1
2016-09-25 23:22:04.757 STDERR [INFO] I0925 23:22:04.722774 32370 net.cpp:425] lstm1_unit_1 <- cont_1_lstm1_cont_slice_0_split_1
2016-09-25 23:22:04.757 STDERR [INFO] I0925 23:22:04.722786 32370 net.cpp:399] lstm1_unit_1 -> c_1
2016-09-25 23:22:04.757 STDERR [INFO] I0925 23:22:04.722802 32370 net.cpp:399] lstm1_unit_1 -> h_1
2016-09-25 23:22:04.758 STDERR [INFO] I0925 23:22:04.736081 32410 net.cpp:141] Setting up lstm1_h_conted_0
2016-09-25 23:22:04.758 STDERR [INFO] I0925 23:22:04.736137 32410 net.cpp:148] Top shape: 1 1 1000 (1000)
2016-09-25 23:22:04.758 STDERR [INFO] I0925 23:22:04.736148 32410 net.cpp:156] Memory required for data: 46016
2016-09-25 23:22:04.758 STDERR [INFO] I0925 23:22:04.736160 32410 layer_factory.hpp:77] Creating layer lstm1_transform_1
2016-09-25 23:22:04.758 STDERR [INFO] I0925 23:22:04.736191 32410 net.cpp:91] Creating Layer lstm1_transform_1
2016-09-25 23:22:04.758 STDERR [INFO] I0925 23:22:04.736202 32410 net.cpp:425] lstm1_transform_1 <- h_conted_0
2016-09-25 23:22:04.758 STDERR [INFO] I0925 23:22:04.736244 32410 net.cpp:399] lstm1_transform_1 -> W_hc_h_0
2016-09-25 23:22:04.758 STDERR [INFO] I0925 23:22:04.736199 32374 net.cpp:141] Setting up embedding
2016-09-25 23:22:04.762 n.t.s.u.StreamReader [INFO] [Timing] RequestID: 0 StreamID: The_Nut_Job_trailer_mp4_c2739ae0 SequenceNr: 363 Entering queue: 1474860124762
2016-09-25 23:22:04.762 STDERR [INFO] I0925 23:22:04.736304 32374 net.cpp:148] Top shape: 1 1 500 (500)
2016-09-25 23:22:04.762 STDERR [INFO] I0925 23:22:04.736315 32374 net.cpp:156] Memory required for data: 22408
2016-09-25 23:22:04.763 STDERR [INFO] I0925 23:22:04.736335 32374 layer_factory.hpp:77] Creating layer lstm1
2016-09-25 23:22:04.763 STDERR [INFO] I0925 23:22:04.736357 32374 net.cpp:91] Creating Layer lstm1
2016-09-25 23:22:04.763 STDERR [INFO] I0925 23:22:04.736366 32374 net.cpp:425] lstm1 <- embedded_input_frames
2016-09-25 23:22:04.763 STDERR [INFO] I0925 23:22:04.736377 32374 net.cpp:425] lstm1 <- cont_sentence_input_1_split_0
2016-09-25 23:22:04.763 STDERR [INFO] I0925 23:22:04.736393 32374 net.cpp:399] lstm1 -> lstm1
2016-09-25 23:22:04.763 STDERR [INFO] I0925 23:22:04.736412 32374 recurrent_layer.cpp:20] Initializing recurrent layer: assuming input batch contains 1 timesteps of 1 independent streams.
2016-09-25 23:22:04.763 STDERR [INFO] I0925 23:22:04.736809 32390 net.cpp:141] Setting up lstm1_transform_1
2016-09-25 23:22:04.763 STDERR [INFO] I0925 23:22:04.736846 32390 net.cpp:148] Top shape: 1 1 4000 (4000)
2016-09-25 23:22:04.763 STDERR [INFO] I0925 23:22:04.736853 32390 net.cpp:156] Memory required for data: 62016
2016-09-25 23:22:04.763 STDERR [INFO] I0925 23:22:04.736853 32374 net.cpp:49] Initializing net from parameters: 
2016-09-25 23:22:04.764 STDERR [INFO] layer {
2016-09-25 23:22:04.764 STDERR [INFO]   name: "lstm1_"
2016-09-25 23:22:04.764 STDERR [INFO]   type: "Input"
2016-09-25 23:22:04.764 STDERR [INFO]   top: "x"
…
2016-09-25 23:22:04.774 STDERR [INFO] I0925 23:22:04.736924 32390 net.cpp:425] lstm1_gate_input_1 <- W_hc_h_0
2016-09-25 23:22:04.774 STDERR [INFO] I0925 23:22:04.736932 32390 net.cpp:425] lstm1_gate_input_1 <- W_xc_x_1
2016-09-25 23:22:04.774 STDERR [INFO] I0925 23:22:04.736944 32390 net.cpp:399] lstm1_gate_input_1 -> gate_input_1
2016-09-25 23:22:04.774 STDERR [INFO] I0925 23:22:04.737010 32384 net.cpp:141] Setting up lstm1_x_transform
2016-09-25 23:22:04.774 STDERR [INFO] I0925 23:22:04.737023 32374 layer_factory.hpp:77] Creating layer lstm1_
2016-09-25 23:22:04.774 STDERR [INFO] I0925 23:22:04.737032 32384 net.cpp:148] Top shape: 1 1 4000 (4000)
2016-09-25 23:22:04.774 STDERR [INFO] I0925 23:22:04.737042 32384 net.cpp:156] Memory required for data: 26016
2016-09-25 23:22:04.775 STDERR [INFO] I0925 23:22:04.737043 32374 net.cpp:91] Creating Layer lstm1_
2016-09-25 23:22:04.775 STDERR [INFO] I0925 23:22:04.737054 32374 net.cpp:399] lstm1_ -> x
2016-09-25 23:22:04.775 STDERR [INFO] I0925 23:22:04.737061 32384 layer_factory.hpp:77] Creating layer lstm1_W_xc_x_slice
2016-09-25 23:22:04.775 STDERR [INFO] I0925 23:22:04.737071 32374 net.cpp:399] lstm1_ -> cont
2016-09-25 23:22:04.775 STDERR [INFO] I0925 23:22:04.737077 32384 net.cpp:91] Creating Layer lstm1_W_xc_x_slice
2016-09-25 23:22:04.775 STDERR [INFO] I0925 23:22:04.737087 32384 net.cpp:425] lstm1_W_xc_x_slice <- W_xc_x
2016-09-25 23:22:04.775 STDERR [INFO] I0925 23:22:04.737098 32384 net.cpp:399] lstm1_W_xc_x_slice -> W_xc_x_1
2016-09-25 23:22:04.775 STDERR [INFO] I0925 23:22:04.737174 32374 net.cpp:141] Setting up lstm1_
2016-09-25 23:22:04.775 STDERR [INFO] I0925 23:22:04.737188 32374 net.cpp:148] Top shape: 1 1 500 (500)
2016-09-25 23:22:04.775 STDERR [INFO] I0925 23:22:04.737198 32374 net.cpp:148] Top shape: 1 1 (1)
2016-09-25 23:22:04.775 STDERR [INFO] I0925 23:22:04.737205 32374 net.cpp:156] Memory required for data: 2004
2016-09-25 23:22:04.775 STDERR [INFO] I0925 23:22:04.737213 32374 layer_factory.hpp:77] Creating layer lstm1_
2016-09-25 23:22:04.775 STDERR [INFO] I0925 23:22:04.737226 32374 net.cpp:91] Creating Layer lstm1_
2016-09-25 23:22:04.775 STDERR [INFO] I0925 23:22:04.737283 32374 net.cpp:399] lstm1_ -> c_0
2016-09-25 23:22:04.775 STDERR [INFO] I0925 23:22:04.737301 32374 net.cpp:399] lstm1_ -> h_0
2016-09-25 23:22:04.775 STDERR [INFO] I0925 23:22:04.750766 32390 net.cpp:141] Setting up lstm1_gate_input_1
2016-09-25 23:22:04.775 STDERR [INFO] I0925 23:22:04.750816 32390 net.cpp:148] Top shape: 1 1 4000 (4000)
2016-09-25 23:22:04.775 STDERR [INFO] I0925 23:22:04.750825 32390 net.cpp:156] Memory required for data: 78016
2016-09-25 23:22:04.775 STDERR [INFO] I0925 23:22:04.750838 32390 layer_factory.hpp:77] Creating layer lstm1_unit_1
2016-09-25 23:22:04.776 STDERR [INFO] I0925 23:22:04.754709 32390 net.cpp:91] Creating Layer lstm1_unit_1
2016-09-25 23:22:04.776 STDERR [INFO] I0925 23:22:04.754731 32390 net.cpp:425] lstm1_unit_1 <- c_0
2016-09-25 23:22:04.776 STDERR [INFO] I0925 23:22:04.754714 32374 net.cpp:141] Setting up lstm1_
2016-09-25 23:22:04.776 STDERR [INFO] I0925 23:22:04.754750 32390 net.cpp:425] lstm1_unit_1 <- gate_input_1
2016-09-25 23:22:04.776 STDERR [INFO] I0925 23:22:04.754762 32390 net.cpp:425] lstm1_unit_1 <- cont_1_lstm1_cont_slice_0_split_1
2016-09-25 23:22:04.776 STDERR [INFO] I0925 23:22:04.754715 32384 net.cpp:141] Setting up lstm1_W_xc_x_slice
2016-09-25 23:22:04.776 STDERR [INFO] I0925 23:22:04.754779 32390 net.cpp:399] lstm1_unit_1 -> c_1
2016-09-25 23:22:04.776 STDERR [INFO] I0925 23:22:04.754770 32374 net.cpp:148] Top shape: 1 1 1000 (1000)
2016-09-25 23:22:04.776 STDERR [INFO] I0925 23:22:04.754801 32390 net.cpp:399] lstm1_unit_1 -> h_1
2016-09-25 23:22:04.776 STDERR [INFO] I0925 23:22:04.754832 32374 net.cpp:148] Top shape: 1 1 1000 (1000)
2016-09-25 23:22:04.776 STDERR [INFO] I0925 23:22:04.754842 32374 net.cpp:156] Memory required for data: 10004
2016-09-25 23:22:04.776 STDERR [INFO] I0925 23:22:04.754840 32422 net.cpp:141] Setting up lstm1_h_conted_0
2016-09-25 23:22:04.776 STDERR [INFO] I0925 23:22:04.754863 32422 net.cpp:148] Top shape: 1 1 1000 (1000)
2016-09-25 23:22:04.776 STDERR [INFO] I0925 23:22:04.754864 32418 net.cpp:141] Setting up lstm1_x_transform
2016-09-25 23:22:04.776 STDERR [INFO] I0925 23:22:04.754815 32384 net.cpp:148] Top shape: 1 1 4000 (4000)
2016-09-25 23:22:04.776 STDERR [INFO] I0925 23:22:04.754900 32384 net.cpp:156] Memory required for data: 42016
2016-09-25 23:22:04.776 STDERR [INFO] I0925 23:22:04.754911 32384 layer_factory.hpp:77] Creating layer lstm1_h_conted_0
2016-09-25 23:22:04.776 STDERR [INFO] I0925 23:22:04.754914 32418 net.cpp:148] Top shape: 1 1 4000 (4000)
2016-09-25 23:22:04.776 STDERR [INFO] I0925 23:22:04.754927 32418 net.cpp:156] Memory required for data: 26016
2016-09-25 23:22:04.777 STDERR [INFO] I0925 23:22:04.754937 32384 net.cpp:91] Creating Layer lstm1_h_conted_0
2016-09-25 23:22:04.777 STDERR [INFO] I0925 23:22:04.754950 32384 net.cpp:425] lstm1_h_conted_0 <- h_0
2016-09-25 23:22:04.777 STDERR [INFO] I0925 23:22:04.754953 32418 layer_factory.hpp:77] Creating layer lstm1_W_xc_x_slice
2016-09-25 23:22:04.777 STDERR [INFO] I0925 23:22:04.754963 32384 net.cpp:425] lstm1_h_conted_0 <- cont_1_lstm1_cont_slice_0_split_0
2016-09-25 23:22:04.777 STDERR [INFO] I0925 23:22:04.754963 32370 net.cpp:141] Setting up lstm1_unit_1
2016-09-25 23:22:04.777 STDERR [INFO] I0925 23:22:04.754977 32418 net.cpp:91] Creating Layer lstm1_W_xc_x_slice
2016-09-25 23:22:04.777 STDERR [INFO] I0925 23:22:04.754982 32370 net.cpp:148] Top shape: 1 1 1000 (1000)
2016-09-25 23:22:04.777 STDERR [INFO] I0925 23:22:04.754994 32370 net.cpp:148] Top shape: 1 1 1000 (1000)
2016-09-25 23:22:04.777 STDERR [INFO] I0925 23:22:04.754997 32418 net.cpp:425] lstm1_W_xc_x_slice <- W_xc_x
2016-09-25 23:22:04.777 STDERR [INFO] I0925 23:22:04.755002 32370 net.cpp:156] Memory required for data: 86016
2016-09-25 23:22:04.777 STDERR [INFO] I0925 23:22:04.754978 32384 net.cpp:399] lstm1_h_conted_0 -> h_conted_0
2016-09-25 23:22:04.777 STDERR [INFO] I0925 23:22:04.755012 32370 layer_factory.hpp:77] Creating layer lstm1_
…
2016-09-25 23:22:04.778 STDERR [INFO] I0925 23:22:04.755113 32422 net.cpp:425] lstm1_transform_1 <- h_conted_0
2016-09-25 23:22:04.778 STDERR [INFO] I0925 23:22:04.755117 32374 net.cpp:425] lstm1_cont_slice <- cont
2016-09-25 23:22:04.778 STDERR [INFO] I0925 23:22:04.755129 32374 net.cpp:399] lstm1_cont_slice -> cont_1
2016-09-25 23:22:04.778 STDERR [INFO] I0925 23:22:04.755132 32422 net.cpp:399] lstm1_transform_1 -> W_hc_h_0
2016-09-25 23:22:04.778 STDERR [INFO] I0925 23:22:04.755158 32390 net.cpp:141] Setting up lstm1_unit_1
2016-09-25 23:22:04.778 STDERR [INFO] I0925 23:22:04.755178 32390 net.cpp:148] Top shape: 1 1 1000 (1000)
2016-09-25 23:22:04.778 STDERR [INFO] I0925 23:22:04.755189 32390 net.cpp:148] Top shape: 1 1 1000 (1000)
2016-09-25 23:22:04.778 STDERR [INFO] I0925 23:22:04.755198 32390 net.cpp:156] Memory required for data: 86016
2016-09-25 23:22:04.778 STDERR [INFO] I0925 23:22:04.755206 32390 layer_factory.hpp:77] Creating layer lstm1_
2016-09-25 23:22:04.778 STDERR [INFO] I0925 23:22:04.755215 32374 net.cpp:141] Setting up lstm1_cont_slice
2016-09-25 23:22:04.778 STDERR [INFO] I0925 23:22:04.755221 32390 net.cpp:91] Creating Layer lstm1_
2016-09-25 23:22:04.778 STDERR [INFO] I0925 23:22:04.755230 32390 net.cpp:425] lstm1_ <- c_1
2016-09-25 23:22:04.778 STDERR [INFO] I0925 23:22:04.755233 32374 net.cpp:148] Top shape: 1 1 (1)
2016-09-25 23:22:04.778 STDERR [INFO] I0925 23:22:04.755240 32374 net.cpp:156] Memory required for data: 10008
2016-09-25 23:22:04.779 STDERR [INFO] I0925 23:22:04.755245 32390 net.cpp:399] lstm1_ -> c_T
2016-09-25 23:22:04.779 STDERR [INFO] I0925 23:22:04.755249 32374 layer_factory.hpp:77] Creating layer cont_1_lstm1_cont_slice_0_split
2016-09-25 23:22:04.779 STDERR [INFO] I0925 23:22:04.755266 32374 net.cpp:91] Creating Layer cont_1_lstm1_cont_slice_0_split
2016-09-25 23:22:04.779 STDERR [INFO] I0925 23:22:04.755282 32418 net.cpp:141] Setting up lstm1_W_xc_x_slice
2016-09-25 23:22:04.779 STDERR [INFO] I0925 23:22:04.755336 32370 net.cpp:141] Setting up lstm1_
2016-09-25 23:22:04.779 STDERR [INFO] I0925 23:22:04.755393 32370 net.cpp:148] Top shape: 1 1 1000 (1000)
2016-09-25 23:22:04.779 STDERR [INFO] I0925 23:22:04.755375 32418 net.cpp:148] Top shape: 1 1 4000 (4000)
2016-09-25 23:22:04.779 STDERR [INFO] I0925 23:22:04.755352 32374 net.cpp:425] cont_1_lstm1_cont_slice_0_split <- cont_1
2016-09-25 23:22:04.779 STDERR [INFO] I0925 23:22:04.755404 32370 net.cpp:156] Memory required for data: 90016
2016-09-25 23:22:04.779 STDERR [INFO] I0925 23:22:04.755424 32418 net.cpp:156] Memory required for data: 42016
2016-09-25 23:22:04.779 STDERR [INFO] I0925 23:22:04.755430 32370 layer_factory.hpp:77] Creating layer lstm1_h_concat
…
2016-09-25 23:22:04.779 STDERR [INFO] I0925 23:22:04.755509 32370 net.cpp:399] lstm1_h_concat -> h
2016-09-25 23:22:04.779 STDERR [INFO] I0925 23:22:04.755517 32418 net.cpp:399] lstm1_h_conted_0 -> h_conted_0
2016-09-25 23:22:04.779 STDERR [INFO] I0925 23:22:04.755483 32374 net.cpp:399] cont_1_lstm1_cont_slice_0_split -> cont_1_lstm1_cont_slice_0_split_0
2016-09-25 23:22:04.779 STDERR [INFO] I0925 23:22:04.755548 32374 net.cpp:399] cont_1_lstm1_cont_slice_0_split -> cont_1_lstm1_cont_slice_0_split_1
2016-09-25 23:22:04.780 STDERR [INFO] I0925 23:22:04.765857 32390 net.cpp:141] Setting up lstm1_
2016-09-25 23:22:04.787 STDERR [INFO] I0925 23:22:04.765907 32390 net.cpp:148] Top shape: 1 1 1000 (1000)
2016-09-25 23:22:04.787 STDERR [INFO] I0925 23:22:04.765897 32370 net.cpp:141] Setting up lstm1_h_concat
2016-09-25 23:22:04.787 STDERR [INFO] I0925 23:22:04.765916 32390 net.cpp:156] Memory required for data: 90016
2016-09-25 23:22:04.787 STDERR [INFO] I0925 23:22:04.765949 32390 layer_factory.hpp:77] Creating layer lstm1_h_concat
2016-09-25 23:22:04.787 STDERR [INFO] I0925 23:22:04.765949 32370 net.cpp:148] Top shape: 1 1 1000 (1000)
2016-09-25 23:22:04.787 STDERR [INFO] I0925 23:22:04.765966 32370 net.cpp:156] Memory required for data: 94016
2016-09-25 23:22:04.787 STDERR [INFO] I0925 23:22:04.765974 32390 net.cpp:91] Creating Layer lstm1_h_concat
2016-09-25 23:22:04.787 STDERR [INFO] I0925 23:22:04.765979 32370 layer_factory.hpp:77] Creating layer h_pseudoloss
2016-09-25 23:22:04.787 STDERR [INFO] I0925 23:22:04.765986 32390 net.cpp:425] lstm1_h_concat <- h_1
2016-09-25 23:22:04.787 STDERR [INFO] I0925 23:22:04.766005 32390 net.cpp:399] lstm1_h_concat -> h
2016-09-25 23:22:04.787 STDERR [INFO] I0925 23:22:04.766005 32370 net.cpp:91] Creating Layer h_pseudoloss
2016-09-25 23:22:04.787 STDERR [INFO] I0925 23:22:04.766049 32370 net.cpp:425] h_pseudoloss <- h
2016-09-25 23:22:04.787 STDERR [INFO] I0925 23:22:04.766067 32370 net.cpp:399] h_pseudoloss -> h_pseudoloss
2016-09-25 23:22:04.787 STDERR [INFO] I0925 23:22:04.766136 32418 net.cpp:141] Setting up lstm1_h_conted_0
2016-09-25 23:22:04.788 STDERR [INFO] I0925 23:22:04.766162 32418 net.cpp:148] Top shape: 1 1 1000 (1000)
2016-09-25 23:22:04.788 STDERR [INFO] I0925 23:22:04.766173 32418 net.cpp:156] Memory required for data: 46016
2016-09-25 23:22:04.788 STDERR [INFO] I0925 23:22:04.766185 32418 layer_factory.hpp:77] Creating layer lstm1_transform_1
2016-09-25 23:22:04.788 STDERR [INFO] I0925 23:22:04.766211 32418 net.cpp:91] Creating Layer lstm1_transform_1
2016-09-25 23:22:04.788 STDERR [INFO] I0925 23:22:04.766224 32418 net.cpp:425] lstm1_transform_1 <- h_conted_0
2016-09-25 23:22:04.788 STDERR [INFO] I0925 23:22:04.766244 32418 net.cpp:399] lstm1_transform_1 -> W_hc_h_0
2016-09-25 23:22:04.788 STDERR [INFO] I0925 23:22:04.776629 32390 net.cpp:141] Setting up lstm1_h_concat
2016-09-25 23:22:04.788 STDERR [INFO] I0925 23:22:04.776677 32390 net.cpp:148] Top shape: 1 1 1000 (1000)
2016-09-25 23:22:04.788 STDERR [INFO] I0925 23:22:04.776684 32390 net.cpp:156] Memory required for data: 94016
2016-09-25 23:22:04.788 STDERR [INFO] I0925 23:22:04.776692 32390 layer_factory.hpp:77] Creating layer h_pseudoloss
2016-09-25 23:22:04.788 STDERR [INFO] I0925 23:22:04.776713 32390 net.cpp:91] Creating Layer h_pseudoloss
2016-09-25 23:22:04.788 STDERR [INFO] I0925 23:22:04.776736 32390 net.cpp:425] h_pseudoloss <- h
2016-09-25 23:22:04.788 STDERR [INFO] I0925 23:22:04.776749 32390 net.cpp:399] h_pseudoloss -> h_pseudoloss
2016-09-25 23:22:04.788 STDERR [INFO] I0925 23:22:04.776839 32366 net.cpp:141] Setting up embedding
2016-09-25 23:22:04.788 STDERR [INFO] I0925 23:22:04.776873 32366 net.cpp:148] Top shape: 1 1 500 (500)
2016-09-25 23:22:04.788 STDERR [INFO] I0925 23:22:04.776880 32366 net.cpp:156] Memory required for data: 22408
2016-09-25 23:22:04.788 STDERR [INFO] I0925 23:22:04.776899 32366 layer_factory.hpp:77] Creating layer lstm1
2016-09-25 23:22:04.788 STDERR [INFO] I0925 23:22:04.776924 32366 net.cpp:91] Creating Layer lstm1
2016-09-25 23:22:04.788 STDERR [INFO] I0925 23:22:04.776919 32396 net.cpp:141] Setting up lstm1_transform_1
2016-09-25 23:22:04.788 STDERR [INFO] I0925 23:22:04.776932 32366 net.cpp:425] lstm1 <- embedded_input_frames
2016-09-25 23:22:04.788 STDERR [INFO] I0925 23:22:04.776942 32366 net.cpp:425] lstm1 <- cont_sentence_input_1_split_0
2016-09-25 23:22:04.789 STDERR [INFO] I0925 23:22:04.776945 32396 net.cpp:148] Top shape: 1 1 4000 (4000)
2016-09-25 23:22:04.789 STDERR [INFO] I0925 23:22:04.776949 32366 net.cpp:399] lstm1 -> lstm1
2016-09-25 23:22:04.789 STDERR [INFO] I0925 23:22:04.776947 32374 net.cpp:141] Setting up cont_1_lstm1_cont_slice_0_split
2016-09-25 23:22:04.789 STDERR [INFO] I0925 23:22:04.776957 32396 net.cpp:156] Memory required for data: 62016
2016-09-25 23:22:04.789 STDERR [INFO] I0925 23:22:04.776970 32366 recurrent_layer.cpp:20] Initializing recurrent layer: assuming input batch contains 1 timesteps of 1 independent streams.
2016-09-25 23:22:04.789 STDERR [INFO] I0925 23:22:04.776978 32396 layer_factory.hpp:77] Creating layer lstm1_gate_input_1
2016-09-25 23:22:04.789 STDERR [INFO] I0925 23:22:04.776970 32374 net.cpp:148] Top shape: 1 1 (1)
2016-09-25 23:22:04.789 STDERR [INFO] I0925 23:22:04.776998 32374 net.cpp:148] Top shape: 1 1 (1)
2016-09-25 23:22:04.789 STDERR [INFO] I0925 23:22:04.777005 32374 net.cpp:156] Memory required for data: 10016
2016-09-25 23:22:04.789 STDERR [INFO] I0925 23:22:04.777016 32374 layer_factory.hpp:77] Creating layer lstm1_x_transform
2016-09-25 23:22:04.789 STDERR [INFO] I0925 23:22:04.777024 32396 net.cpp:91] Creating Layer lstm1_gate_input_1
2016-09-25 23:22:04.789 STDERR [INFO] I0925 23:22:04.777040 32396 net.cpp:425] lstm1_gate_input_1 <- W_hc_h_0
…
2016-09-25 23:22:04.806 STDERR [INFO] I0925 23:22:04.782788 32396 net.cpp:274] Network initialization done.
2016-09-25 23:22:04.806 STDERR [INFO] I0925 23:22:04.782851 32396 recurrent_layer.cpp:150] Adding parameter 0: W_xc
2016-09-25 23:22:04.807 STDERR [INFO] I0925 23:22:04.782851 32370 net.cpp:141] Setting up lstm1
2016-09-25 23:22:04.807 STDERR [INFO] I0925 23:22:04.782872 32396 recurrent_layer.cpp:150] Adding parameter 1: b_c
2016-09-25 23:22:04.807 STDERR [INFO] I0925 23:22:04.782881 32396 recurrent_layer.cpp:150] Adding parameter 2: W_hc
2016-09-25 23:22:04.807 STDERR [INFO] I0925 23:22:04.782883 32370 net.cpp:148] Top shape: 1 1 1000 (1000)
2016-09-25 23:22:04.807 STDERR [INFO] I0925 23:22:04.782891 32370 net.cpp:156] Memory required for data: 26408
2016-09-25 23:22:04.807 STDERR [INFO] I0925 23:22:04.782918 32370 layer_factory.hpp:77] Creating layer concat
2016-09-25 23:22:04.807 STDERR [INFO] I0925 23:22:04.782932 32370 net.cpp:91] Creating Layer concat
2016-09-25 23:22:04.807 STDERR [INFO] I0925 23:22:04.782939 32370 net.cpp:425] concat <- lstm1
2016-09-25 23:22:04.807 STDERR [INFO] I0925 23:22:04.782946 32370 net.cpp:425] concat <- embedded_input_sentence
2016-09-25 23:22:04.807 STDERR [INFO] I0925 23:22:04.782953 32370 net.cpp:425] concat <- reshaped_stage_indicator
2016-09-25 23:22:04.807 STDERR [INFO] I0925 23:22:04.782959 32370 net.cpp:399] concat -> lstm1_video_sequence
2016-09-25 23:22:04.807 STDERR [INFO] I0925 23:22:04.783010 32366 net.cpp:141] Setting up lstm1_
2016-09-25 23:22:04.807 STDERR [INFO] I0925 23:22:04.783020 32366 net.cpp:148] Top shape: 1 1 500 (500)
2016-09-25 23:22:04.807 STDERR [INFO] I0925 23:22:04.783026 32366 net.cpp:148] Top shape: 1 1 (1)
2016-09-25 23:22:04.808 STDERR [INFO] I0925 23:22:04.783030 32366 net.cpp:156] Memory required for data: 2004
2016-09-25 23:22:04.808 STDERR [INFO] I0925 23:22:04.783036 32366 layer_factory.hpp:77] Creating layer lstm1_
2016-09-25 23:22:04.808 STDERR [INFO] I0925 23:22:04.783058 32366 net.cpp:91] Creating Layer lstm1_
2016-09-25 23:22:04.808 STDERR [INFO] I0925 23:22:04.783066 32366 net.cpp:399] lstm1_ -> c_0
2016-09-25 23:22:04.808 STDERR [INFO] I0925 23:22:04.783077 32366 net.cpp:399] lstm1_ -> h_0
2016-09-25 23:22:04.808 STDERR [INFO] I0925 23:22:04.793071 32370 net.cpp:141] Setting up concat
2016-09-25 23:22:04.808 STDERR [INFO] I0925 23:22:04.793128 32370 net.cpp:148] Top shape: 1 1 1501 (1501)
2016-09-25 23:22:04.808 STDERR [INFO] I0925 23:22:04.793134 32366 net.cpp:141] Setting up lstm1_
2016-09-25 23:22:04.808 STDERR [INFO] I0925 23:22:04.793138 32370 net.cpp:156] Memory required for data: 32412
2016-09-25 23:22:04.808 STDERR [INFO] I0925 23:22:04.793157 32366 net.cpp:148] Top shape: 1 1 1000 (1000)
2016-09-25 23:22:04.808 STDERR [INFO] I0925 23:22:04.793159 32370 layer_factory.hpp:77] Creating layer lstm2
2016-09-25 23:22:04.808 STDERR [INFO] I0925 23:22:04.793172 32366 net.cpp:148] Top shape: 1 1 1000 (1000)
2016-09-25 23:22:04.808 STDERR [INFO] I0925 23:22:04.793180 32366 net.cpp:156] Memory required for data: 10004
2016-09-25 23:22:04.808 STDERR [INFO] I0925 23:22:04.793187 32366 layer_factory.hpp:77] Creating layer lstm1_cont_slice
2016-09-25 23:22:04.809 STDERR [INFO] I0925 23:22:04.793200 32370 net.cpp:91] Creating Layer lstm2
2016-09-25 23:22:04.809 STDERR [INFO] I0925 23:22:04.793203 32366 net.cpp:91] Creating Layer lstm1_cont_slice
2016-09-25 23:22:04.809 STDERR [INFO] I0925 23:22:04.793212 32366 net.cpp:425] lstm1_cont_slice <- cont
2016-09-25 23:22:04.809 STDERR [INFO] I0925 23:22:04.793213 32370 net.cpp:425] lstm2 <- lstm1_video_sequence
2016-09-25 23:22:04.809 STDERR [INFO] I0925 23:22:04.793231 32370 net.cpp:425] lstm2 <- cont_sentence_input_1_split_1
2016-09-25 23:22:04.809 STDERR [INFO] I0925 23:22:04.793236 32366 net.cpp:399] lstm1_cont_slice -> cont_1
2016-09-25 23:22:04.809 STDERR [INFO] I0925 23:22:04.793246 32370 net.cpp:399] lstm2 -> lstm2
2016-09-25 23:22:04.809 STDERR [INFO] I0925 23:22:04.793264 32370 recurrent_layer.cpp:20] Initializing recurrent layer: assuming input batch contains 1 timesteps of 1 independent streams.
2016-09-25 23:22:04.809 STDERR [INFO] I0925 23:22:04.793303 32366 net.cpp:141] Setting up lstm1_cont_slice
2016-09-25 23:22:04.809 STDERR [INFO] I0925 23:22:04.793318 32366 net.cpp:148] Top shape: 1 1 (1)
2016-09-25 23:22:04.809 STDERR [INFO] I0925 23:22:04.793324 32366 net.cpp:156] Memory required for data: 10008
2016-09-25 23:22:04.809 STDERR [INFO] I0925 23:22:04.793332 32366 layer_factory.hpp:77] Creating layer cont_1_lstm1_cont_slice_0_split
2016-09-25 23:22:04.809 n.t.s.u.StreamReader [INFO] [Timing] RequestID: 0 StreamID: The_Nut_Job_trailer_mp4_c7838536 SequenceNr: 362 Entering queue: 1474860124809
2016-09-25 23:22:04.809 STDERR [INFO] I0925 23:22:04.793345 32366 net.cpp:91] Creating Layer cont_1_lstm1_cont_slice_0_split
2016-09-25 23:22:04.809 STDERR [INFO] I0925 23:22:04.793354 32366 net.cpp:425] cont_1_lstm1_cont_slice_0_split <- cont_1
2016-09-25 23:22:04.809 STDERR [INFO] I0925 23:22:04.793364 32366 net.cpp:399] cont_1_lstm1_cont_slice_0_split -> cont_1_lstm1_cont_slice_0_split_0
2016-09-25 23:22:04.810 STDERR [INFO] I0925 23:22:04.793376 32366 net.cpp:399] cont_1_lstm1_cont_slice_0_split -> cont_1_lstm1_cont_slice_0_split_1
2016-09-25 23:22:04.810 STDERR [INFO] I0925 23:22:04.793455 32366 net.cpp:141] Setting up cont_1_lstm1_cont_slice_0_split
2016-09-25 23:22:04.810 STDERR [INFO] I0925 23:22:04.793469 32366 net.cpp:148] Top shape: 1 1 (1)
2016-09-25 23:22:04.810 STDERR [INFO] I0925 23:22:04.793478 32366 net.cpp:148] Top shape: 1 1 (1)
2016-09-25 23:22:04.810 STDERR [INFO] I0925 23:22:04.793485 32366 net.cpp:156] Memory required for data: 10016
2016-09-25 23:22:04.810 STDERR [INFO] I0925 23:22:04.793493 32366 layer_factory.hpp:77] Creating layer lstm1_x_transform
2016-09-25 23:22:04.810 STDERR [INFO] I0925 23:22:04.793514 32366 net.cpp:91] Creating Layer lstm1_x_transform
2016-09-25 23:22:04.810 STDERR [INFO] I0925 23:22:04.793521 32366 net.cpp:425] lstm1_x_transform <- x
…
2016-09-25 23:22:04.833 STDERR [INFO]   type: "Reduction"
2016-09-25 23:22:04.833 STDERR [INFO]   bottom: "h"
2016-09-25 23:22:04.833 STDERR [INFO]   top: "h_pseudoloss"
2016-09-25 23:22:04.833 n.t.s.s.CVParticleSpout [INFO] [Timing] RequestID: 0 StreamID: The_Nut_Job_trailer_mp4_c2739ae0 SequenceNr: 363 Leaving fetcher: 1474860124833 Size: 44430
2016-09-25 23:22:04.833 STDERR [INFO]   loss_weight: 1
2016-09-25 23:22:04.833 STDERR [INFO] }
2016-09-25 23:22:04.833 STDERR [INFO] I0925 23:22:04.798877 32396 net.cpp:141] Setting up concat
2016-09-25 23:22:04.833 STDERR [INFO] I0925 23:22:04.798892 32396 net.cpp:148] Top shape: 1 1 1501 (1501)
2016-09-25 23:22:04.833 STDERR [INFO] I0925 23:22:04.798899 32396 net.cpp:156] Memory required for data: 32412
2016-09-25 23:22:04.834 STDERR [INFO] I0925 23:22:04.798907 32396 layer_factory.hpp:77] Creating layer lstm2
2016-09-25 23:22:04.834 STDERR [INFO] I0925 23:22:04.798923 32396 net.cpp:91] Creating Layer lstm2
2016-09-25 23:22:04.834 STDERR [INFO] I0925 23:22:04.798930 32396 net.cpp:425] lstm2 <- lstm1_video_sequence
2016-09-25 23:22:04.834 STDERR [INFO] I0925 23:22:04.798940 32396 net.cpp:425] lstm2 <- cont_sentence_input_1_split_1
2016-09-25 23:22:04.834 STDERR [INFO] I0925 23:22:04.798954 32396 net.cpp:399] lstm2 -> lstm2
2016-09-25 23:22:04.834 STDERR [INFO] I0925 23:22:04.798966 32396 recurrent_layer.cpp:20] Initializing recurrent layer: assuming input batch contains 1 timesteps of 1 independent streams.
2016-09-25 23:22:04.834 STDERR [INFO] I0925 23:22:04.798972 32390 layer_factory.hpp:77] Creating layer lstm2_
2016-09-25 23:22:04.834 STDERR [INFO] I0925 23:22:04.798990 32390 net.cpp:91] Creating Layer lstm2_
2016-09-25 23:22:04.834 STDERR [INFO] I0925 23:22:04.798998 32390 net.cpp:399] lstm2_ -> x
2016-09-25 23:22:04.834 STDERR [INFO] I0925 23:22:04.799013 32390 net.cpp:399] lstm2_ -> cont
2016-09-25 23:22:04.834 STDERR [INFO] I0925 23:22:04.799089 32390 net.cpp:141] Setting up lstm2_
2016-09-25 23:22:04.834 STDERR [INFO] I0925 23:22:04.799103 32390 net.cpp:148] Top shape: 1 1 1501 (1501)
2016-09-25 23:22:04.834 STDERR [INFO] I0925 23:22:04.799113 32390 net.cpp:148] Top shape: 1 1 (1)
2016-09-25 23:22:04.834 STDERR [INFO] I0925 23:22:04.799119 32390 net.cpp:156] Memory required for data: 6008
2016-09-25 23:22:04.835 STDERR [INFO] I0925 23:22:04.799127 32390 layer_factory.hpp:77] Creating layer lstm2_
2016-09-25 23:22:04.835 STDERR [INFO] I0925 23:22:04.799142 32390 net.cpp:91] Creating Layer lstm2_
2016-09-25 23:22:04.835 STDERR [INFO] I0925 23:22:04.799155 32390 net.cpp:399] lstm2_ -> c_0
2016-09-25 23:22:04.835 STDERR [INFO] I0925 23:22:04.799170 32390 net.cpp:399] lstm2_ -> h_0
2016-09-25 23:22:04.835 STDERR [INFO] I0925 23:22:04.799243 32390 net.cpp:141] Setting up lstm2_
2016-09-25 23:22:04.835 STDERR [INFO] I0925 23:22:04.799257 32390 net.cpp:148] Top shape: 1 1 1000 (1000)
2016-09-25 23:22:04.835 STDERR [INFO] I0925 23:22:04.799266 32390 net.cpp:148] Top shape: 1 1 1000 (1000)
2016-09-25 23:22:04.835 STDERR [INFO] I0925 23:22:04.799273 32390 net.cpp:156] Memory required for data: 14008
2016-09-25 23:22:04.835 STDERR [INFO] I0925 23:22:04.799271 32396 net.cpp:49] Initializing net from parameters: 
2016-09-25 23:22:04.835 STDERR [INFO] layer {
2016-09-25 23:22:04.835 STDERR [INFO]   name: "lstm2_"
2016-09-25 23:22:04.835 STDERR [INFO]   type: "Input"
2016-09-25 23:22:04.835 STDERR [INFO]   top: "x"
…
2016-09-25 23:22:04.845 STDERR [INFO] I0925 23:22:04.799279 32390 layer_factory.hpp:77] Creating layer lstm2_cont_slice
2016-09-25 23:22:04.845 STDERR [INFO] I0925 23:22:04.799293 32390 net.cpp:91] Creating Layer lstm2_cont_slice
2016-09-25 23:22:04.845 STDERR [INFO] I0925 23:22:04.799300 32390 net.cpp:425] lstm2_cont_slice <- cont
2016-09-25 23:22:04.845 STDERR [INFO] I0925 23:22:04.799311 32390 net.cpp:399] lstm2_cont_slice -> cont_1
2016-09-25 23:22:04.845 STDERR [INFO] I0925 23:22:04.799356 32390 net.cpp:141] Setting up lstm2_cont_slice
2016-09-25 23:22:04.845 STDERR [INFO] I0925 23:22:04.799370 32390 net.cpp:148] Top shape: 1 1 (1)
2016-09-25 23:22:04.845 STDERR [INFO] I0925 23:22:04.799376 32390 net.cpp:156] Memory required for data: 14012
2016-09-25 23:22:04.845 STDERR [INFO] I0925 23:22:04.799382 32390 layer_factory.hpp:77] Creating layer cont_1_lstm2_cont_slice_0_split
2016-09-25 23:22:04.846 STDERR [INFO] I0925 23:22:04.799386 32396 layer_factory.hpp:77] Creating layer lstm2_
2016-09-25 23:22:04.846 STDERR [INFO] I0925 23:22:04.799399 32390 net.cpp:91] Creating Layer cont_1_lstm2_cont_slice_0_split
2016-09-25 23:22:04.846 STDERR [INFO] I0925 23:22:04.799402 32396 net.cpp:91] Creating Layer lstm2_
2016-09-25 23:22:04.846 STDERR [INFO] I0925 23:22:04.799407 32390 net.cpp:425] cont_1_lstm2_cont_slice_0_split <- cont_1
2016-09-25 23:22:04.846 STDERR [INFO] I0925 23:22:04.799413 32396 net.cpp:399] lstm2_ -> x
2016-09-25 23:22:04.846 STDERR [INFO] I0925 23:22:04.799417 32390 net.cpp:399] cont_1_lstm2_cont_slice_0_split -> cont_1_lstm2_cont_slice_0_split_0
2016-09-25 23:22:04.846 STDERR [INFO] I0925 23:22:04.799429 32396 net.cpp:399] lstm2_ -> cont
2016-09-25 23:22:04.846 STDERR [INFO] I0925 23:22:04.799432 32390 net.cpp:399] cont_1_lstm2_cont_slice_0_split -> cont_1_lstm2_cont_slice_0_split_1
2016-09-25 23:22:04.846 STDERR [INFO] I0925 23:22:04.799521 32396 net.cpp:141] Setting up lstm2_
2016-09-25 23:22:04.846 STDERR [INFO] I0925 23:22:04.799537 32396 net.cpp:148] Top shape: 1 1 1501 (1501)
2016-09-25 23:22:04.846 STDERR [INFO] I0925 23:22:04.799548 32396 net.cpp:148] Top shape: 1 1 (1)
2016-09-25 23:22:04.846 STDERR [INFO] I0925 23:22:04.799557 32396 net.cpp:156] Memory required for data: 6008
2016-09-25 23:22:04.846 STDERR [INFO] I0925 23:22:04.799564 32396 layer_factory.hpp:77] Creating layer lstm2_
2016-09-25 23:22:04.846 STDERR [INFO] I0925 23:22:04.799577 32396 net.cpp:91] Creating Layer lstm2_
2016-09-25 23:22:04.846 STDERR [INFO] I0925 23:22:04.799588 32396 net.cpp:399] lstm2_ -> c_0
2016-09-25 23:22:04.846 STDERR [INFO] I0925 23:22:04.799595 32390 net.cpp:141] Setting up cont_1_lstm2_cont_slice_0_split
2016-09-25 23:22:04.846 STDERR [INFO] I0925 23:22:04.799609 32390 net.cpp:148] Top shape: 1 1 (1)
2016-09-25 23:22:04.846 STDERR [INFO] I0925 23:22:04.799610 32396 net.cpp:399] lstm2_ -> h_0
2016-09-25 23:22:04.846 STDERR [INFO] I0925 23:22:04.799618 32390 net.cpp:148] Top shape: 1 1 (1)
2016-09-25 23:22:04.846 STDERR [INFO] I0925 23:22:04.799625 32390 net.cpp:156] Memory required for data: 14020
2016-09-25 23:22:04.847 STDERR [INFO] I0925 23:22:04.799633 32390 layer_factory.hpp:77] Creating layer lstm2_x_transform
2016-09-25 23:22:04.847 STDERR [INFO] I0925 23:22:04.799650 32390 net.cpp:91] Creating Layer lstm2_x_transform
2016-09-25 23:22:04.847 STDERR [INFO] I0925 23:22:04.799659 32390 net.cpp:425] lstm2_x_transform <- x
2016-09-25 23:22:04.847 STDERR [INFO] I0925 23:22:04.799670 32390 net.cpp:399] lstm2_x_transform -> W_xc_x
2016-09-25 23:22:04.847 STDERR [INFO] I0925 23:22:04.799690 32396 net.cpp:141] Setting up lstm2_
2016-09-25 23:22:04.847 STDERR [INFO] I0925 23:22:04.799705 32396 net.cpp:148] Top shape: 1 1 1000 (1000)
2016-09-25 23:22:04.847 STDERR [INFO] I0925 23:22:04.799715 32396 net.cpp:148] Top shape: 1 1 1000 (1000)
2016-09-25 23:22:04.847 STDERR [INFO] I0925 23:22:04.799721 32396 net.cpp:156] Memory required for data: 14008
2016-09-25 23:22:04.847 STDERR [INFO] I0925 23:22:04.799728 32396 layer_factory.hpp:77] Creating layer lstm2_cont_slice
2016-09-25 23:22:04.847 STDERR [INFO] I0925 23:22:04.799741 32396 net.cpp:91] Creating Layer lstm2_cont_slice
2016-09-25 23:22:04.847 STDERR [INFO] I0925 23:22:04.799749 32396 net.cpp:425] lstm2_cont_slice <- cont
2016-09-25 23:22:04.847 STDERR [INFO] I0925 23:22:04.799760 32396 net.cpp:399] lstm2_cont_slice -> cont_1
2016-09-25 23:22:04.847 STDERR [INFO] I0925 23:22:04.813215 32370 net.cpp:141] Setting up lstm2_
2016-09-25 23:22:04.847 STDERR [INFO] I0925 23:22:04.813267 32370 net.cpp:148] Top shape: 1 1 1501 (1501)
2016-09-25 23:22:04.847 STDERR [INFO] I0925 23:22:04.813279 32370 net.cpp:148] Top shape: 1 1 (1)
2016-09-25 23:22:04.847 STDERR [INFO] I0925 23:22:04.813287 32370 net.cpp:156] Memory required for data: 6008
2016-09-25 23:22:04.847 STDERR [INFO] I0925 23:22:04.813302 32370 layer_factory.hpp:77] Creating layer lstm2_
2016-09-25 23:22:04.847 STDERR [INFO] I0925 23:22:04.813341 32370 net.cpp:91] Creating Layer lstm2_
2016-09-25 23:22:04.847 STDERR [INFO] I0925 23:22:04.813354 32370 net.cpp:399] lstm2_ -> c_0
2016-09-25 23:22:04.847 STDERR [INFO] I0925 23:22:04.813381 32370 net.cpp:399] lstm2_ -> h_0
2016-09-25 23:22:04.847 STDERR [INFO] I0925 23:22:04.813460 32370 net.cpp:141] Setting up lstm2_
2016-09-25 23:22:04.847 STDERR [INFO] I0925 23:22:04.813474 32370 net.cpp:148] Top shape: 1 1 1000 (1000)
2016-09-25 23:22:04.847 STDERR [INFO] I0925 23:22:04.813483 32370 net.cpp:148] Top shape: 1 1 1000 (1000)
2016-09-25 23:22:04.848 STDERR [INFO] I0925 23:22:04.813489 32370 net.cpp:156] Memory required for data: 14008
2016-09-25 23:22:04.848 STDERR [INFO] I0925 23:22:04.813498 32370 layer_factory.hpp:77] Creating layer lstm2_cont_slice
2016-09-25 23:22:04.848 STDERR [INFO] I0925 23:22:04.813513 32370 net.cpp:91] Creating Layer lstm2_cont_slice
2016-09-25 23:22:04.848 STDERR [INFO] I0925 23:22:04.813521 32370 net.cpp:425] lstm2_cont_slice <- cont
2016-09-25 23:22:04.848 STDERR [INFO] I0925 23:22:04.813534 32370 net.cpp:399] lstm2_cont_slice -> cont_1
2016-09-25 23:22:04.848 STDERR [INFO] I0925 23:22:04.813588 32370 net.cpp:141] Setting up lstm2_cont_slice
2016-09-25 23:22:04.848 STDERR [INFO] I0925 23:22:04.813601 32370 net.cpp:148] Top shape: 1 1 (1)
2016-09-25 23:22:04.848 STDERR [INFO] I0925 23:22:04.813608 32370 net.cpp:156] Memory required for data: 14012
2016-09-25 23:22:04.848 STDERR [INFO] I0925 23:22:04.813616 32370 layer_factory.hpp:77] Creating layer cont_1_lstm2_cont_slice_0_split
2016-09-25 23:22:04.848 STDERR [INFO] I0925 23:22:04.813627 32370 net.cpp:91] Creating Layer cont_1_lstm2_cont_slice_0_split
2016-09-25 23:22:04.848 STDERR [INFO] I0925 23:22:04.813634 32370 net.cpp:425] cont_1_lstm2_cont_slice_0_split <- cont_1
2016-09-25 23:22:04.848 STDERR [INFO] I0925 23:22:04.813647 32370 net.cpp:399] cont_1_lstm2_cont_slice_0_split -> cont_1_lstm2_cont_slice_0_split_0
2016-09-25 23:22:04.848 STDERR [INFO] I0925 23:22:04.813659 32370 net.cpp:399] cont_1_lstm2_cont_slice_0_split -> cont_1_lstm2_cont_slice_0_split_1
2016-09-25 23:22:04.848 STDERR [INFO] I0925 23:22:04.813765 32396 net.cpp:141] Setting up lstm2_cont_slice
2016-09-25 23:22:04.848 STDERR [INFO] I0925 23:22:04.813783 32396 net.cpp:148] Top shape: 1 1 (1)
2016-09-25 23:22:04.848 STDERR [INFO] I0925 23:22:04.813791 32396 net.cpp:156] Memory required for data: 14012
2016-09-25 23:22:04.848 STDERR [INFO] I0925 23:22:04.813799 32396 layer_factory.hpp:77] Creating layer cont_1_lstm2_cont_slice_0_split
2016-09-25 23:22:04.848 STDERR [INFO] I0925 23:22:04.813841 32396 net.cpp:91] Creating Layer cont_1_lstm2_cont_slice_0_split
2016-09-25 23:22:04.848 STDERR [INFO] I0925 23:22:04.813851 32396 net.cpp:425] cont_1_lstm2_cont_slice_0_split <- cont_1
2016-09-25 23:22:04.848 STDERR [INFO] I0925 23:22:04.813863 32396 net.cpp:399] cont_1_lstm2_cont_slice_0_split -> cont_1_lstm2_cont_slice_0_split_0
2016-09-25 23:22:04.848 STDERR [INFO] I0925 23:22:04.813876 32396 net.cpp:399] cont_1_lstm2_cont_slice_0_split -> cont_1_lstm2_cont_slice_0_split_1
2016-09-25 23:22:04.848 STDERR [INFO] I0925 23:22:04.813957 32396 net.cpp:141] Setting up cont_1_lstm2_cont_slice_0_split
2016-09-25 23:22:04.848 STDERR [INFO] I0925 23:22:04.813971 32396 net.cpp:148] Top shape: 1 1 (1)
2016-09-25 23:22:04.849 STDERR [INFO] I0925 23:22:04.813980 32396 net.cpp:148] Top shape: 1 1 (1)
2016-09-25 23:22:04.849 STDERR [INFO] I0925 23:22:04.813987 32396 net.cpp:156] Memory required for data: 14020
2016-09-25 23:22:04.849 STDERR [INFO] I0925 23:22:04.813995 32396 layer_factory.hpp:77] Creating layer lstm2_x_transform
2016-09-25 23:22:04.849 STDERR [INFO] I0925 23:22:04.814014 32396 net.cpp:91] Creating Layer lstm2_x_transform
2016-09-25 23:22:04.849 STDERR [INFO] I0925 23:22:04.814023 32396 net.cpp:425] lstm2_x_transform <- x
2016-09-25 23:22:04.849 STDERR [INFO] I0925 23:22:04.814044 32396 net.cpp:399] lstm2_x_transform -> W_xc_x
2016-09-25 23:22:04.849 STDERR [INFO] I0925 23:22:04.814107 32422 net.cpp:141] Setting up lstm1_transform_1
2016-09-25 23:22:04.849 STDERR [INFO] I0925 23:22:04.814122 32422 net.cpp:148] Top shape: 1 1 4000 (4000)
2016-09-25 23:22:04.849 STDERR [INFO] I0925 23:22:04.814131 32422 net.cpp:156] Memory required for data: 62016
2016-09-25 23:22:04.849 STDERR [INFO] I0925 23:22:04.814148 32422 layer_factory.hpp:77] Creating layer lstm1_gate_input_1
2016-09-25 23:22:04.849 STDERR [INFO] I0925 23:22:04.814169 32422 net.cpp:91] Creating Layer lstm1_gate_input_1
2016-09-25 23:22:04.849 STDERR [INFO] I0925 23:22:04.814178 32422 net.cpp:425] lstm1_gate_input_1 <- W_hc_h_0
2016-09-25 23:22:04.849 STDERR [INFO] I0925 23:22:04.814188 32422 net.cpp:425] lstm1_gate_input_1 <- W_xc_x_1
2016-09-25 23:22:04.849 STDERR [INFO] I0925 23:22:04.814203 32422 net.cpp:399] lstm1_gate_input_1 -> gate_input_1
2016-09-25 23:22:04.849 STDERR [INFO] I0925 23:22:04.814216 32366 net.cpp:141] Setting up lstm1_x_transform
2016-09-25 23:22:04.849 STDERR [INFO] I0925 23:22:04.814237 32366 net.cpp:148] Top shape: 1 1 4000 (4000)
2016-09-25 23:22:04.850 STDERR [INFO] I0925 23:22:04.814247 32366 net.cpp:156] Memory required for data: 26016
2016-09-25 23:22:04.850 STDERR [INFO] I0925 23:22:04.814265 32366 layer_factory.hpp:77] Creating layer lstm1_W_xc_x_slice
2016-09-25 23:22:04.850 STDERR [INFO] I0925 23:22:04.814275 32366 net.cpp:91] Creating Layer lstm1_W_xc_x_slice
2016-09-25 23:22:04.850 STDERR [INFO] I0925 23:22:04.814281 32366 net.cpp:425] lstm1_W_xc_x_slice <- W_xc_x
2016-09-25 23:22:04.850 STDERR [INFO] I0925 23:22:04.814288 32422 net.cpp:141] Setting up lstm1_gate_input_1
2016-09-25 23:22:04.850 STDERR [INFO] I0925 23:22:04.814292 32366 net.cpp:399] lstm1_W_xc_x_slice -> W_xc_x_1
2016-09-25 23:22:04.850 STDERR [INFO] I0925 23:22:04.814312 32422 net.cpp:148] Top shape: 1 1 4000 (4000)
2016-09-25 23:22:04.850 STDERR [INFO] I0925 23:22:04.814321 32422 net.cpp:156] Memory required for data: 78016
2016-09-25 23:22:04.850 STDERR [INFO] I0925 23:22:04.814328 32422 layer_factory.hpp:77] Creating layer lstm1_unit_1
2016-09-25 23:22:04.850 STDERR [INFO] I0925 23:22:04.814343 32422 net.cpp:91] Creating Layer lstm1_unit_1
2016-09-25 23:22:04.850 STDERR [INFO] I0925 23:22:04.814350 32366 net.cpp:141] Setting up lstm1_W_xc_x_slice
2016-09-25 23:22:04.850 STDERR [INFO] I0925 23:22:04.814384 32366 net.cpp:148] Top shape: 1 1 4000 (4000)
2016-09-25 23:22:04.850 STDERR [INFO] I0925 23:22:04.814388 32366 net.cpp:156] Memory required for data: 42016
2016-09-25 23:22:04.850 STDERR [INFO] I0925 23:22:04.814394 32366 layer_factory.hpp:77] Creating layer lstm1_h_conted_0
2016-09-25 23:22:04.850 STDERR [INFO] I0925 23:22:04.814405 32366 net.cpp:91] Creating Layer lstm1_h_conted_0
2016-09-25 23:22:04.851 STDERR [INFO] I0925 23:22:04.814410 32366 net.cpp:425] lstm1_h_conted_0 <- h_0
2016-09-25 23:22:04.851 STDERR [INFO] I0925 23:22:04.814416 32366 net.cpp:425] lstm1_h_conted_0 <- cont_1_lstm1_cont_slice_0_split_0
2016-09-25 23:22:04.851 STDERR [INFO] I0925 23:22:04.814352 32422 net.cpp:425] lstm1_unit_1 <- c_0
2016-09-25 23:22:04.851 STDERR [INFO] I0925 23:22:04.814426 32366 net.cpp:399] lstm1_h_conted_0 -> h_conted_0
2016-09-25 23:22:04.851 STDERR [INFO] I0925 23:22:04.814437 32422 net.cpp:425] lstm1_unit_1 <- gate_input_1
2016-09-25 23:22:04.851 STDERR [INFO] I0925 23:22:04.814447 32422 net.cpp:425] lstm1_unit_1 <- cont_1_lstm1_cont_slice_0_split_1
2016-09-25 23:22:04.851 STDERR [INFO] I0925 23:22:04.814486 32422 net.cpp:399] lstm1_unit_1 -> c_1
2016-09-25 23:22:04.851 STDERR [INFO] I0925 23:22:04.814503 32422 net.cpp:399] lstm1_unit_1 -> h_1
2016-09-25 23:22:04.851 STDERR [INFO] I0925 23:22:04.814527 32366 net.cpp:141] Setting up lstm1_h_conted_0
2016-09-25 23:22:04.851 STDERR [INFO] I0925 23:22:04.814535 32366 net.cpp:148] Top shape: 1 1 1000 (1000)
2016-09-25 23:22:04.851 STDERR [INFO] I0925 23:22:04.814540 32366 net.cpp:156] Memory required for data: 46016
2016-09-25 23:22:04.851 STDERR [INFO] I0925 23:22:04.814544 32366 layer_factory.hpp:77] Creating layer lstm1_transform_1
2016-09-25 23:22:04.851 STDERR [INFO] I0925 23:22:04.814564 32366 net.cpp:91] Creating Layer lstm1_transform_1
2016-09-25 23:22:04.851 STDERR [INFO] I0925 23:22:04.814574 32366 net.cpp:425] lstm1_transform_1 <- h_conted_0
2016-09-25 23:22:04.851 STDERR [INFO] I0925 23:22:04.814589 32366 net.cpp:399] lstm1_transform_1 -> W_hc_h_0
2016-09-25 23:22:04.851 STDERR [INFO] I0925 23:22:04.814661 32422 net.cpp:141] Setting up lstm1_unit_1
2016-09-25 23:22:04.851 STDERR [INFO] I0925 23:22:04.814721 32422 net.cpp:148] Top shape: 1 1 1000 (1000)
2016-09-25 23:22:04.851 STDERR [INFO] I0925 23:22:04.814731 32422 net.cpp:148] Top shape: 1 1 1000 (1000)
2016-09-25 23:22:04.851 STDERR [INFO] I0925 23:22:04.814738 32422 net.cpp:156] Memory required for data: 86016
2016-09-25 23:22:04.851 STDERR [INFO] I0925 23:22:04.814746 32422 layer_factory.hpp:77] Creating layer lstm1_
2016-09-25 23:22:04.851 STDERR [INFO] I0925 23:22:04.814757 32422 net.cpp:91] Creating Layer lstm1_
2016-09-25 23:22:04.851 STDERR [INFO] I0925 23:22:04.814770 32422 net.cpp:425] lstm1_ <- c_1
2016-09-25 23:22:04.851 STDERR [INFO] I0925 23:22:04.814782 32422 net.cpp:399] lstm1_ -> c_T
2016-09-25 23:22:04.852 STDERR [INFO] I0925 23:22:04.814800 32370 net.cpp:141] Setting up cont_1_lstm2_cont_slice_0_split
2016-09-25 23:22:04.852 STDERR [INFO] I0925 23:22:04.814816 32370 net.cpp:148] Top shape: 1 1 (1)
2016-09-25 23:22:04.852 STDERR [INFO] I0925 23:22:04.814823 32370 net.cpp:148] Top shape: 1 1 (1)
2016-09-25 23:22:04.852 STDERR [INFO] I0925 23:22:04.814827 32370 net.cpp:156] Memory required for data: 14020
2016-09-25 23:22:04.852 STDERR [INFO] I0925 23:22:04.814834 32370 layer_factory.hpp:77] Creating layer lstm2_x_transform
2016-09-25 23:22:04.852 STDERR [INFO] I0925 23:22:04.814846 32370 net.cpp:91] Creating Layer lstm2_x_transform
2016-09-25 23:22:04.852 STDERR [INFO] I0925 23:22:04.814851 32370 net.cpp:425] lstm2_x_transform <- x
2016-09-25 23:22:04.852 STDERR [INFO] I0925 23:22:04.814862 32370 net.cpp:399] lstm2_x_transform -> W_xc_x
2016-09-25 23:22:04.852 STDERR [INFO] I0925 23:22:04.822702 32422 net.cpp:141] Setting up lstm1_
2016-09-25 23:22:04.852 STDERR [INFO] I0925 23:22:04.822754 32422 net.cpp:148] Top shape: 1 1 1000 (1000)
2016-09-25 23:22:04.852 STDERR [INFO] I0925 23:22:04.822762 32422 net.cpp:156] Memory required for data: 90016
2016-09-25 23:22:04.852 STDERR [INFO] I0925 23:22:04.822772 32422 layer_factory.hpp:77] Creating layer lstm1_h_concat
2016-09-25 23:22:04.852 STDERR [INFO] I0925 23:22:04.822794 32422 net.cpp:91] Creating Layer lstm1_h_concat
2016-09-25 23:22:04.852 STDERR [INFO] I0925 23:22:04.822803 32422 net.cpp:425] lstm1_h_concat <- h_1
2016-09-25 23:22:04.852 STDERR [INFO] I0925 23:22:04.822819 32422 net.cpp:399] lstm1_h_concat -> h
2016-09-25 23:22:04.852 STDERR [INFO] I0925 23:22:04.850651 32410 net.cpp:141] Setting up lstm1_transform_1
2016-09-25 23:22:04.852 STDERR [INFO] I0925 23:22:04.850708 32410 net.cpp:148] Top shape: 1 1 4000 (4000)
2016-09-25 23:22:04.852 STDERR [INFO] I0925 23:22:04.850718 32410 net.cpp:156] Memory required for data: 62016
2016-09-25 23:22:04.852 STDERR [INFO] I0925 23:22:04.850745 32410 layer_factory.hpp:77] Creating layer lstm1_gate_input_1
2016-09-25 23:22:04.852 STDERR [INFO] I0925 23:22:04.850778 32410 net.cpp:91] Creating Layer lstm1_gate_input_1
2016-09-25 23:22:04.853 STDERR [INFO] I0925 23:22:04.850790 32410 net.cpp:425] lstm1_gate_input_1 <- W_hc_h_0
2016-09-25 23:22:04.853 STDERR [INFO] I0925 23:22:04.850805 32410 net.cpp:425] lstm1_gate_input_1 <- W_xc_x_1
2016-09-25 23:22:04.853 STDERR [INFO] I0925 23:22:04.850816 32374 net.cpp:141] Setting up lstm1_x_transform
2016-09-25 23:22:04.853 STDERR [INFO] I0925 23:22:04.850821 32410 net.cpp:399] lstm1_gate_input_1 -> gate_input_1
2016-09-25 23:22:04.853 STDERR [INFO] I0925 23:22:04.850832 32374 net.cpp:148] Top shape: 1 1 4000 (4000)
2016-09-25 23:22:04.853 STDERR [INFO] I0925 23:22:04.850841 32374 net.cpp:156] Memory required for data: 26016
2016-09-25 23:22:04.853 STDERR [INFO] I0925 23:22:04.850858 32374 layer_factory.hpp:77] Creating layer lstm1_W_xc_x_slice
2016-09-25 23:22:04.853 STDERR [INFO] I0925 23:22:04.850877 32374 net.cpp:91] Creating Layer lstm1_W_xc_x_slice
2016-09-25 23:22:04.853 STDERR [INFO] I0925 23:22:04.850883 32410 net.cpp:141] Setting up lstm1_gate_input_1
2016-09-25 23:22:04.853 STDERR [INFO] I0925 23:22:04.850886 32374 net.cpp:425] lstm1_W_xc_x_slice <- W_xc_x
2016-09-25 23:22:04.853 STDERR [INFO] I0925 23:22:04.850910 32410 net.cpp:148] Top shape: 1 1 4000 (4000)
2016-09-25 23:22:04.853 STDERR [INFO] I0925 23:22:04.850919 32374 net.cpp:399] lstm1_W_xc_x_slice -> W_xc_x_1
2016-09-25 23:22:04.853 STDERR [INFO] I0925 23:22:04.850919 32410 net.cpp:156] Memory required for data: 78016
2016-09-25 23:22:04.853 STDERR [INFO] I0925 23:22:04.850944 32410 layer_factory.hpp:77] Creating layer lstm1_unit_1
2016-09-25 23:22:04.853 STDERR [INFO] I0925 23:22:04.850960 32410 net.cpp:91] Creating Layer lstm1_unit_1
2016-09-25 23:22:04.853 STDERR [INFO] I0925 23:22:04.850970 32410 net.cpp:425] lstm1_unit_1 <- c_0
2016-09-25 23:22:04.853 STDERR [INFO] I0925 23:22:04.850977 32410 net.cpp:425] lstm1_unit_1 <- gate_input_1
2016-09-25 23:22:04.853 STDERR [INFO] I0925 23:22:04.850982 32410 net.cpp:425] lstm1_unit_1 <- cont_1_lstm1_cont_slice_0_split_1
2016-09-25 23:22:04.853 STDERR [INFO] I0925 23:22:04.850991 32410 net.cpp:399] lstm1_unit_1 -> c_1
2016-09-25 23:22:04.853 STDERR [INFO] I0925 23:22:04.851001 32410 net.cpp:399] lstm1_unit_1 -> h_1
2016-09-25 23:22:04.853 STDERR [INFO] I0925 23:22:04.851058 32422 net.cpp:141] Setting up lstm1_h_concat
2016-09-25 23:22:04.853 STDERR [INFO] I0925 23:22:04.851076 32422 net.cpp:148] Top shape: 1 1 1000 (1000)
2016-09-25 23:22:04.853 STDERR [INFO] I0925 23:22:04.851084 32422 net.cpp:156] Memory required for data: 94016
2016-09-25 23:22:04.854 STDERR [INFO] I0925 23:22:04.851094 32422 layer_factory.hpp:77] Creating layer h_pseudoloss
2016-09-25 23:22:04.854 STDERR [INFO] I0925 23:22:04.851114 32422 net.cpp:91] Creating Layer h_pseudoloss
2016-09-25 23:22:04.854 STDERR [INFO] I0925 23:22:04.851124 32422 net.cpp:425] h_pseudoloss <- h
2016-09-25 23:22:04.854 STDERR [INFO] I0925 23:22:04.851135 32422 net.cpp:399] h_pseudoloss -> h_pseudoloss
2016-09-25 23:22:04.854 STDERR [INFO] I0925 23:22:04.851141 32418 net.cpp:141] Setting up lstm1_transform_1
2016-09-25 23:22:04.854 STDERR [INFO] I0925 23:22:04.851197 32418 net.cpp:148] Top shape: 1 1 4000 (4000)
2016-09-25 23:22:04.854 STDERR [INFO] I0925 23:22:04.851207 32418 net.cpp:156] Memory required for data: 62016
2016-09-25 23:22:04.854 STDERR [INFO] I0925 23:22:04.851233 32418 layer_factory.hpp:77] Creating layer lstm1_gate_input_1
2016-09-25 23:22:04.854 STDERR [INFO] I0925 23:22:04.851265 32418 net.cpp:91] Creating Layer lstm1_gate_input_1
2016-09-25 23:22:04.854 STDERR [INFO] I0925 23:22:04.851277 32418 net.cpp:425] lstm1_gate_input_1 <- W_hc_h_0
2016-09-25 23:22:04.854 STDERR [INFO] I0925 23:22:04.851289 32418 net.cpp:425] lstm1_gate_input_1 <- W_xc_x_1
2016-09-25 23:22:04.854 STDERR [INFO] I0925 23:22:04.851305 32418 net.cpp:399] lstm1_gate_input_1 -> gate_input_1
2016-09-25 23:22:04.862 STDERR [INFO] I0925 23:22:04.862584 32374 net.cpp:141] Setting up lstm1_W_xc_x_slice
2016-09-25 23:22:04.863 STDERR [INFO] I0925 23:22:04.862668 32374 net.cpp:148] Top shape: 1 1 4000 (4000)
2016-09-25 23:22:04.863 STDERR [INFO] I0925 23:22:04.862679 32374 net.cpp:156] Memory required for data: 42016
2016-09-25 23:22:04.863 STDERR [INFO] I0925 23:22:04.862694 32374 layer_factory.hpp:77] Creating layer lstm1_h_conted_0
2016-09-25 23:22:04.863 STDERR [INFO] I0925 23:22:04.862723 32374 net.cpp:91] Creating Layer lstm1_h_conted_0
2016-09-25 23:22:04.863 STDERR [INFO] I0925 23:22:04.862737 32374 net.cpp:425] lstm1_h_conted_0 <- h_0
2016-09-25 23:22:04.863 STDERR [INFO] I0925 23:22:04.862752 32374 net.cpp:425] lstm1_h_conted_0 <- cont_1_lstm1_cont_slice_0_split_0
2016-09-25 23:22:04.863 STDERR [INFO] I0925 23:22:04.862769 32374 net.cpp:399] lstm1_h_conted_0 -> h_conted_0
2016-09-25 23:22:04.863 STDERR [INFO] I0925 23:22:04.862865 32362 net.cpp:141] Setting up lstm2_x_transform
2016-09-25 23:22:04.863 STDERR [INFO] I0925 23:22:04.862887 32362 net.cpp:148] Top shape: 1 1 4000 (4000)
2016-09-25 23:22:04.863 STDERR [INFO] I0925 23:22:04.862895 32362 net.cpp:156] Memory required for data: 30020
2016-09-25 23:22:04.863 STDERR [INFO] I0925 23:22:04.862918 32362 layer_factory.hpp:77] Creating layer lstm2_W_xc_x_slice
2016-09-25 23:22:04.863 STDERR [INFO] I0925 23:22:04.862934 32362 net.cpp:91] Creating Layer lstm2_W_xc_x_slice
2016-09-25 23:22:04.863 STDERR [INFO] I0925 23:22:04.862943 32362 net.cpp:425] lstm2_W_xc_x_slice <- W_xc_x
2016-09-25 23:22:04.864 STDERR [INFO] I0925 23:22:04.862956 32362 net.cpp:399] lstm2_W_xc_x_slice -> W_xc_x_1
2016-09-25 23:22:04.864 STDERR [INFO] I0925 23:22:04.862960 32422 net.cpp:141] Setting up h_pseudoloss
2016-09-25 23:22:04.864 n.t.s.s.CVParticleSpout [INFO] [Timing] RequestID: 0 StreamID: The_Nut_Job_trailer_mp4_c7838536 SequenceNr: 362 Leaving fetcher: 1474860124864 Size: 44364
2016-09-25 23:22:04.864 STDERR [INFO] I0925 23:22:04.862994 32422 net.cpp:148] Top shape: (1)
2016-09-25 23:22:04.864 STDERR [INFO] I0925 23:22:04.863009 32362 net.cpp:141] Setting up lstm2_W_xc_x_slice
2016-09-25 23:22:04.864 STDERR [INFO] I0925 23:22:04.863023 32362 net.cpp:148] Top shape: 1 1 4000 (4000)
2016-09-25 23:22:04.864 STDERR [INFO] I0925 23:22:04.863030 32362 net.cpp:156] Memory required for data: 46020
2016-09-25 23:22:04.864 STDERR [INFO] I0925 23:22:04.863011 32422 net.cpp:151]     with loss weight 1
2016-09-25 23:22:04.864 STDERR [INFO] I0925 23:22:04.863062 32422 net.cpp:156] Memory required for data: 94020
2016-09-25 23:22:04.864 STDERR [INFO] I0925 23:22:04.863082 32422 net.cpp:217] h_pseudoloss needs backward computation.
…
2016-09-25 23:22:04.865 STDERR [INFO] I0925 23:22:04.863471 32422 recurrent_layer.cpp:150] Adding parameter 0: W_xc
2016-09-25 23:22:04.865 STDERR [INFO] I0925 23:22:04.863490 32422 recurrent_layer.cpp:150] Adding parameter 1: b_c
2016-09-25 23:22:04.865 STDERR [INFO] I0925 23:22:04.863503 32422 recurrent_layer.cpp:150] Adding parameter 2: W_hc
2016-09-25 23:22:04.869 n.t.s.u.StreamReader [INFO] [Timing] RequestID: 0 StreamID: The_Nut_Job_trailer_mp4_374b5db7 SequenceNr: 364 Entering queue: 1474860124869
2016-09-25 23:22:04.875 STDERR [INFO] I0925 23:22:04.873879 32418 net.cpp:141] Setting up lstm1_gate_input_1
2016-09-25 23:22:04.875 STDERR [INFO] I0925 23:22:04.873931 32418 net.cpp:148] Top shape: 1 1 4000 (4000)
2016-09-25 23:22:04.875 STDERR [INFO] I0925 23:22:04.873940 32418 net.cpp:156] Memory required for data: 78016
2016-09-25 23:22:04.875 STDERR [INFO] I0925 23:22:04.873953 32418 layer_factory.hpp:77] Creating layer lstm1_unit_1
2016-09-25 23:22:04.875 STDERR [INFO] I0925 23:22:04.874130 32422 net.cpp:141] Setting up lstm1
2016-09-25 23:22:04.876 STDERR [INFO] I0925 23:22:04.874145 32422 net.cpp:148] Top shape: 1 1 1000 (1000)
2016-09-25 23:22:04.876 STDERR [INFO] I0925 23:22:04.874152 32422 net.cpp:156] Memory required for data: 26408
2016-09-25 23:22:04.876 STDERR [INFO] I0925 23:22:04.874181 32422 layer_factory.hpp:77] Creating layer concat
2016-09-25 23:22:04.876 STDERR [INFO] I0925 23:22:04.874194 32422 net.cpp:91] Creating Layer concat
2016-09-25 23:22:04.876 STDERR [INFO] I0925 23:22:04.874204 32422 net.cpp:425] concat <- lstm1
2016-09-25 23:22:04.876 STDERR [INFO] I0925 23:22:04.874217 32422 net.cpp:425] concat <- embedded_input_sentence
2016-09-25 23:22:04.876 STDERR [INFO] I0925 23:22:04.874224 32422 net.cpp:425] concat <- reshaped_stage_indicator
2016-09-25 23:22:04.876 STDERR [INFO] I0925 23:22:04.874235 32422 net.cpp:399] concat -> lstm1_video_sequence
2016-09-25 23:22:04.876 STDERR [INFO] I0925 23:22:04.874289 32422 net.cpp:141] Setting up concat
2016-09-25 23:22:04.876 STDERR [INFO] I0925 23:22:04.874302 32422 net.cpp:148] Top shape: 1 1 1501 (1501)
2016-09-25 23:22:04.876 STDERR [INFO] I0925 23:22:04.874310 32422 net.cpp:156] Memory required for data: 32412
…
2016-09-25 23:22:05.155 STDERR [INFO] I0925 23:22:05.155143 32366 net.cpp:91] Creating Layer lstm2_h_conted_0
2016-09-25 23:22:05.155 STDERR [INFO] I0925 23:22:05.155144 32396 net.cpp:141] Setting up lstm2_unit_1
2016-09-25 23:22:05.155 STDERR [INFO] I0925 23:22:05.155155 32366 net.cpp:425] lstm2_h_conted_0 <- h_0
2016-09-25 23:22:05.155 STDERR [INFO] I0925 23:22:05.155169 32396 net.cpp:148] Top shape: 1 1 1000 (1000)
2016-09-25 23:22:05.156 STDERR [INFO] I0925 23:22:05.155171 32366 net.cpp:425] lstm2_h_conted_0 <- cont_1_lstm2_cont_slice_0_split_0
2016-09-25 23:22:05.156 STDERR [INFO] I0925 23:22:05.155177 32396 net.cpp:148] Top shape: 1 1 1000 (1000)
2016-09-25 23:22:05.156 STDERR [INFO] I0925 23:22:05.155182 32396 net.cpp:156] Memory required for data: 90020
2016-09-25 23:22:05.156 STDERR [INFO] I0925 23:22:05.155189 32396 layer_factory.hpp:77] Creating layer lstm2_
2016-09-25 23:22:05.156 STDERR [INFO] I0925 23:22:05.155187 32366 net.cpp:399] lstm2_h_conted_0 -> h_conted_0
2016-09-25 23:22:05.156 STDERR [INFO] I0925 23:22:05.155205 32396 net.cpp:91] Creating Layer lstm2_
2016-09-25 23:22:05.156 STDERR [INFO] I0925 23:22:05.155212 32396 net.cpp:425] lstm2_ <- c_1
2016-09-25 23:22:05.156 n.t.s.u.StreamReader [INFO] [Timing] RequestID: 0 StreamID: The_Nut_Job_trailer_mp4_7610b7f8 SequenceNr: 361 Entering queue: 1474860125156
2016-09-25 23:22:05.156 STDERR [INFO] I0925 23:22:05.155221 32396 net.cpp:399] lstm2_ -> c_T
2016-09-25 23:22:05.156 STDERR [INFO] I0925 23:22:05.155576 32384 net.cpp:141] Setting up lstm2_x_transform
2016-09-25 23:22:05.156 STDERR [INFO] I0925 23:22:05.155611 32384 net.cpp:148] Top shape: 1 1 4000 (4000)
2016-09-25 23:22:05.156 STDERR [INFO] I0925 23:22:05.155627 32384 net.cpp:156] Memory required for data: 30020
2016-09-25 23:22:05.156 STDERR [INFO] I0925 23:22:05.155661 32384 layer_factory.hpp:77] Creating layer lstm2_W_xc_x_slice
2016-09-25 23:22:05.156 STDERR [INFO] I0925 23:22:05.155699 32384 net.cpp:91] Creating Layer lstm2_W_xc_x_slice
2016-09-25 23:22:05.156 STDERR [INFO] I0925 23:22:05.155717 32384 net.cpp:425] lstm2_W_xc_x_slice <- W_xc_x
2016-09-25 23:22:05.157 STDERR [INFO] I0925 23:22:05.155741 32384 net.cpp:399] lstm2_W_xc_x_slice -> W_xc_x_1
2016-09-25 23:22:05.157 STDERR [INFO] I0925 23:22:05.155844 32384 net.cpp:141] Setting up lstm2_W_xc_x_slice
2016-09-25 23:22:05.157 STDERR [INFO] I0925 23:22:05.155871 32384 net.cpp:148] Top shape: 1 1 4000 (4000)
2016-09-25 23:22:05.157 STDERR [INFO] I0925 23:22:05.155886 32384 net.cpp:156] Memory required for data: 46020
2016-09-25 23:22:05.157 STDERR [INFO] I0925 23:22:05.155900 32384 layer_factory.hpp:77] Creating layer lstm2_h_conted_0
2016-09-25 23:22:05.157 STDERR [INFO] I0925 23:22:05.155933 32384 net.cpp:91] Creating Layer lstm2_h_conted_0
2016-09-25 23:22:05.157 STDERR [INFO] I0925 23:22:05.155953 32384 net.cpp:425] lstm2_h_conted_0 <- h_0
2016-09-25 23:22:05.157 STDERR [INFO] I0925 23:22:05.155972 32384 net.cpp:425] lstm2_h_conted_0 <- cont_1_lstm2_cont_slice_0_split_0
2016-09-25 23:22:05.157 STDERR [INFO] I0925 23:22:05.155994 32384 net.cpp:399] lstm2_h_conted_0 -> h_conted_0
2016-09-25 23:22:05.157 STDERR [INFO] I0925 23:22:05.156293 32384 net.cpp:141] Setting up lstm2_h_conted_0
2016-09-25 23:22:05.157 STDERR [INFO] I0925 23:22:05.156319 32384 net.cpp:148] Top shape: 1 1 1000 (1000)
2016-09-25 23:22:05.157 STDERR [INFO] I0925 23:22:05.156333 32384 net.cpp:156] Memory required for data: 50020
2016-09-25 23:22:05.157 STDERR [INFO] I0925 23:22:05.156347 32384 layer_factory.hpp:77] Creating layer lstm2_transform_1
2016-09-25 23:22:05.157 STDERR [INFO] I0925 23:22:05.156386 32384 net.cpp:91] Creating Layer lstm2_transform_1
2016-09-25 23:22:05.157 STDERR [INFO] I0925 23:22:05.156405 32384 net.cpp:425] lstm2_transform_1 <- h_conted_0
2016-09-25 23:22:05.157 STDERR [INFO] I0925 23:22:05.156430 32384 net.cpp:399] lstm2_transform_1 -> W_hc_h_0
2016-09-25 23:22:05.157 n.t.s.u.StreamReader [INFO] [Timing] RequestID: 0 StreamID: The_Nut_Job_trailer_mp4_1045bfa7 SequenceNr: 366 Entering queue: 1474860125157
2016-09-25 23:22:05.158 STDERR [INFO] I0925 23:22:05.155078 32370 net.cpp:148] Top shape: 1 1 4000 (4000)
2016-09-25 23:22:05.158 STDERR [INFO] I0925 23:22:05.158063 32370 net.cpp:156] Memory required for data: 82020
2016-09-25 23:22:05.158 STDERR [INFO] I0925 23:22:05.158089 32370 layer_factory.hpp:77] Creating layer lstm2_unit_1
2016-09-25 23:22:05.158 STDERR [INFO] I0925 23:22:05.158113 32370 net.cpp:91] Creating Layer lstm2_unit_1
2016-09-25 23:22:05.158 STDERR [INFO] I0925 23:22:05.158123 32370 net.cpp:425] lstm2_unit_1 <- c_0
…
2016-09-25 23:22:05.164 n.t.s.s.CVParticleSpout [INFO] [Timing] RequestID: 0 StreamID: The_Nut_Job_trailer_mp4_20b298da SequenceNr: 366 Leaving fetcher: 1474860125163 Size: 44693
2016-09-25 23:22:05.165 n.t.s.u.StreamReader [INFO] [Timing] RequestID: 0 StreamID: The_Nut_Job_trailer_mp4_c7838536 SequenceNr: 365 Entering queue: 1474860125165
2016-09-25 23:22:05.173 n.t.s.s.CVParticleSpout [INFO] [Timing] RequestID: 0 StreamID: The_Nut_Job_trailer_mp4_d1a53cd4 SequenceNr: 368 Leaving fetcher: 1474860125173 Size: 44936
2016-09-25 23:22:05.175 STDERR [INFO] I0925 23:22:05.174923 32396 net.cpp:141] Setting up lstm2_
2016-09-25 23:22:05.175 STDERR [INFO] I0925 23:22:05.174983 32396 net.cpp:148] Top shape: 1 1 1000 (1000)
2016-09-25 23:22:05.176 STDERR [INFO] I0925 23:22:05.174993 32396 net.cpp:156] Memory required for data: 94020
2016-09-25 23:22:05.176 STDERR [INFO] I0925 23:22:05.175005 32396 layer_factory.hpp:77] Creating layer lstm2_h_concat
2016-09-25 23:22:05.176 STDERR [INFO] I0925 23:22:05.175029 32396 net.cpp:91] Creating Layer lstm2_h_concat
2016-09-25 23:22:05.176 STDERR [INFO] I0925 23:22:05.175040 32396 net.cpp:425] lstm2_h_concat <- h_1
2016-09-25 23:22:05.176 STDERR [INFO] I0925 23:22:05.175065 32396 net.cpp:399] lstm2_h_concat -> h
2016-09-25 23:22:05.176 STDERR [INFO] I0925 23:22:05.175051 32422 net.cpp:141] Setting up lstm2_gate_input_1
2016-09-25 23:22:05.176 STDERR [INFO] I0925 23:22:05.175096 32422 net.cpp:148] Top shape: 1 1 4000 (4000)
2016-09-25 23:22:05.176 STDERR [INFO] I0925 23:22:05.175104 32422 net.cpp:156] Memory required for data: 82020
2016-09-25 23:22:05.176 STDERR [INFO] I0925 23:22:05.175115 32422 layer_factory.hpp:77] Creating layer lstm2_unit_1
2016-09-25 23:22:05.176 STDERR [INFO] I0925 23:22:05.175143 32422 net.cpp:91] Creating Layer lstm2_unit_1
2016-09-25 23:22:05.176 STDERR [INFO] I0925 23:22:05.175153 32422 net.cpp:425] lstm2_unit_1 <- c_0
2016-09-25 23:22:05.176 STDERR [INFO] I0925 23:22:05.175163 32396 net.cpp:141] Setting up lstm2_h_concat
2016-09-25 23:22:05.176 STDERR [INFO] I0925 23:22:05.175166 32422 net.cpp:425] lstm2_unit_1 <- gate_input_1
2016-09-25 23:22:05.176 STDERR [INFO] I0925 23:22:05.175195 32396 net.cpp:148] Top shape: 1 1 1000 (1000)
2016-09-25 23:22:05.176 STDERR [INFO] I0925 23:22:05.175204 32396 net.cpp:156] Memory required for data: 98020
2016-09-25 23:22:05.177 STDERR [INFO] I0925 23:22:05.175204 32422 net.cpp:425] lstm2_unit_1 <- cont_1_lstm2_cont_slice_0_split_1
2016-09-25 23:22:05.177 STDERR [INFO] I0925 23:22:05.175211 32396 layer_factory.hpp:77] Creating layer h_pseudoloss
2016-09-25 23:22:05.177 STDERR [INFO] I0925 23:22:05.175218 32422 net.cpp:399] lstm2_unit_1 -> c_1
2016-09-25 23:22:05.177 STDERR [INFO] I0925 23:22:05.175226 32396 net.cpp:91] Creating Layer h_pseudoloss
2016-09-25 23:22:05.177 STDERR [INFO] I0925 23:22:05.175235 32396 net.cpp:425] h_pseudoloss <- h
2016-09-25 23:22:05.177 STDERR [INFO] I0925 23:22:05.175237 32422 net.cpp:399] lstm2_unit_1 -> h_1
2016-09-25 23:22:05.177 STDERR [INFO] I0925 23:22:05.175246 32396 net.cpp:399] h_pseudoloss -> h_pseudoloss
2016-09-25 23:22:05.177 STDERR [INFO] I0925 23:22:05.175294 32410 net.cpp:141] Setting up lstm2_x_transform
2016-09-25 23:22:05.177 STDERR [INFO] I0925 23:22:05.175318 32410 net.cpp:148] Top shape: 1 1 4000 (4000)
2016-09-25 23:22:05.177 n.t.s.u.StreamReader [INFO] [Timing] RequestID: 0 StreamID: The_Nut_Job_trailer_mp4_d1a53cd4 SequenceNr: 369 Entering queue: 1474860125177
2016-09-25 23:22:05.177 STDERR [INFO] I0925 23:22:05.175325 32410 net.cpp:156] Memory required for data: 30020
2016-09-25 23:22:05.177 STDERR [INFO] I0925 23:22:05.175348 32410 layer_factory.hpp:77] Creating layer lstm2_W_xc_x_slice
2016-09-25 23:22:05.177 STDERR [INFO] I0925 23:22:05.175365 32410 net.cpp:91] Creating Layer lstm2_W_xc_x_slice
2016-09-25 23:22:05.177 n.t.s.s.CVParticleSpout [INFO] [Timing] RequestID: 0 StreamID: The_Nut_Job_trailer_mp4_713990cf SequenceNr: 368 Leaving fetcher: 1474860125177 Size: 44936
2016-09-25 23:22:05.177 STDERR [INFO] I0925 23:22:05.175376 32410 net.cpp:425] lstm2_W_xc_x_slice <- W_xc_x
2016-09-25 23:22:05.177 STDERR [INFO] I0925 23:22:05.175390 32410 net.cpp:399] lstm2_W_xc_x_slice -> W_xc_x_1
2016-09-25 23:22:05.177 STDERR [INFO] I0925 23:22:05.175453 32410 net.cpp:141] Setting up lstm2_W_xc_x_slice
2016-09-25 23:22:05.178 STDERR [INFO] I0925 23:22:05.175472 32410 net.cpp:148] Top shape: 1 1 4000 (4000)
2016-09-25 23:22:05.178 STDERR [INFO] I0925 23:22:05.175479 32410 net.cpp:156] Memory required for data: 46020
2016-09-25 23:22:05.178 STDERR [INFO] I0925 23:22:05.175488 32410 layer_factory.hpp:77] Creating layer lstm2_h_conted_0
2016-09-25 23:22:05.178 STDERR [INFO] I0925 23:22:05.175506 32410 net.cpp:91] Creating Layer lstm2_h_conted_0
2016-09-25 23:22:05.178 STDERR [INFO] I0925 23:22:05.175516 32410 net.cpp:425] lstm2_h_conted_0 <- h_0
2016-09-25 23:22:05.178 STDERR [INFO] I0925 23:22:05.175530 32410 net.cpp:425] lstm2_h_conted_0 <- cont_1_lstm2_cont_slice_0_split_0
2016-09-25 23:22:05.178 STDERR [INFO] I0925 23:22:05.175545 32410 net.cpp:399] lstm2_h_conted_0 -> h_conted_0
2016-09-25 23:22:05.178 STDERR [INFO] I0925 23:22:05.175709 32410 net.cpp:141] Setting up lstm2_h_conted_0
2016-09-25 23:22:05.178 STDERR [INFO] I0925 23:22:05.175724 32410 net.cpp:148] Top shape: 1 1 1000 (1000)
2016-09-25 23:22:05.178 STDERR [INFO] I0925 23:22:05.175730 32410 net.cpp:156] Memory required for data: 50020
2016-09-25 23:22:05.178 STDERR [INFO] I0925 23:22:05.175739 32410 layer_factory.hpp:77] Creating layer lstm2_transform_1
2016-09-25 23:22:05.178 STDERR [INFO] I0925 23:22:05.175758 32410 net.cpp:91] Creating Layer lstm2_transform_1
2016-09-25 23:22:05.178 STDERR [INFO] I0925 23:22:05.175766 32410 net.cpp:425] lstm2_transform_1 <- h_conted_0
2016-09-25 23:22:05.178 STDERR [INFO] I0925 23:22:05.175779 32410 net.cpp:399] lstm2_transform_1 -> W_hc_h_0
2016-09-25 23:22:05.185 STDERR [INFO] I0925 23:22:05.185475 32366 net.cpp:141] Setting up lstm2_h_conted_0
2016-09-25 23:22:05.185 STDERR [INFO] I0925 23:22:05.185531 32366 net.cpp:148] Top shape: 1 1 1000 (1000)
2016-09-25 23:22:05.185 STDERR [INFO] I0925 23:22:05.185539 32366 net.cpp:156] Memory required for data: 50020
2016-09-25 23:22:05.185 STDERR [INFO] I0925 23:22:05.185549 32366 layer_factory.hpp:77] Creating layer lstm2_transform_1
2016-09-25 23:22:05.186 STDERR [INFO] I0925 23:22:05.185575 32366 net.cpp:91] Creating Layer lstm2_transform_1
2016-09-25 23:22:05.186 STDERR [INFO] I0925 23:22:05.185582 32366 net.cpp:425] lstm2_transform_1 <- h_conted_0
2016-09-25 23:22:05.186 STDERR [INFO] I0925 23:22:05.185596 32366 net.cpp:399] lstm2_transform_1 -> W_hc_h_0
2016-09-25 23:22:05.186 STDERR [INFO] I0925 23:22:05.185672 32422 net.cpp:141] Setting up lstm2_unit_1
2016-09-25 23:22:05.186 STDERR [INFO] I0925 23:22:05.185714 32422 net.cpp:148] Top shape: 1 1 1000 (1000)
2016-09-25 23:22:05.186 STDERR [INFO] I0925 23:22:05.185724 32422 net.cpp:148] Top shape: 1 1 1000 (1000)
2016-09-25 23:22:05.186 STDERR [INFO] I0925 23:22:05.185729 32422 net.cpp:156] Memory required for data: 90020
2016-09-25 23:22:05.186 STDERR [INFO] I0925 23:22:05.185736 32422 layer_factory.hpp:77] Creating layer lstm2_
2016-09-25 23:22:05.186 STDERR [INFO] I0925 23:22:05.185751 32422 net.cpp:91] Creating Layer lstm2_
2016-09-25 23:22:05.186 STDERR [INFO] I0925 23:22:05.185760 32422 net.cpp:425] lstm2_ <- c_1
2016-09-25 23:22:05.186 STDERR [INFO] I0925 23:22:05.185780 32422 net.cpp:399] lstm2_ -> c_T
2016-09-25 23:22:05.186 STDERR [INFO] I0925 23:22:05.185832 32374 net.cpp:141] Setting up lstm2_x_transform
2016-09-25 23:22:05.186 STDERR [INFO] I0925 23:22:05.185859 32374 net.cpp:148] Top shape: 1 1 4000 (4000)
2016-09-25 23:22:05.186 STDERR [INFO] I0925 23:22:05.185868 32374 net.cpp:156] Memory required for data: 30020
2016-09-25 23:22:05.186 STDERR [INFO] I0925 23:22:05.185891 32374 layer_factory.hpp:77] Creating layer lstm2_W_xc_x_slice
2016-09-25 23:22:05.186 STDERR [INFO] I0925 23:22:05.185909 32374 net.cpp:91] Creating Layer lstm2_W_xc_x_slice
2016-09-25 23:22:05.186 STDERR [INFO] I0925 23:22:05.185919 32374 net.cpp:425] lstm2_W_xc_x_slice <- W_xc_x
2016-09-25 23:22:05.186 STDERR [INFO] I0925 23:22:05.185931 32374 net.cpp:399] lstm2_W_xc_x_slice -> W_xc_x_1
2016-09-25 23:22:05.265 n.t.s.s.CVParticleSpout [INFO] [Timing] RequestID: 0 StreamID: The_Nut_Job_trailer_mp4_1045bfa7 SequenceNr: 366 Leaving fetcher: 1474860125265 Size: 44693
2016-09-25 23:22:05.266 n.t.s.u.StreamReader [INFO] [Timing] RequestID: 0 StreamID: The_Nut_Job_trailer_mp4_713990cf SequenceNr: 369 Entering queue: 1474860125266
2016-09-25 23:22:05.268 n.t.s.s.CVParticleSpout [INFO] [Timing] RequestID: 0 StreamID: The_Nut_Job_trailer_mp4_7610b7f8 SequenceNr: 361 Leaving fetcher: 1474860125268 Size: 44265
2016-09-25 23:22:05.270 STDERR [INFO] I0925 23:22:05.269933 32422 net.cpp:141] Setting up lstm2_
2016-09-25 23:22:05.270 STDERR [INFO] I0925 23:22:05.270380 32422 net.cpp:148] Top shape: 1 1 1000 (1000)
2016-09-25 23:22:05.270 STDERR [INFO] I0925 23:22:05.270514 32422 net.cpp:156] Memory required for data: 94020
2016-09-25 23:22:05.270 STDERR [INFO] I0925 23:22:05.270663 32422 layer_factory.hpp:77] Creating layer lstm2_h_concat
2016-09-25 23:22:05.270 STDERR [INFO] I0925 23:22:05.270800 32422 net.cpp:91] Creating Layer lstm2_h_concat
2016-09-25 23:22:05.270 STDERR [INFO] I0925 23:22:05.270932 32422 net.cpp:425] lstm2_h_concat <- h_1
2016-09-25 23:22:05.271 STDERR [INFO] I0925 23:22:05.271070 32422 net.cpp:399] lstm2_h_concat -> h
2016-09-25 23:22:05.271 n.t.s.s.CVParticleSpout [INFO] [Timing] RequestID: 0 StreamID: The_Nut_Job_trailer_mp4_c7838536 SequenceNr: 365 Leaving fetcher: 1474860125271 Size: 44572
2016-09-25 23:22:05.273 STDERR [INFO] I0925 23:22:05.272624 32374 net.cpp:141] Setting up lstm2_W_xc_x_slice
2016-09-25 23:22:05.274 STDERR [INFO] I0925 23:22:05.272692 32374 net.cpp:148] Top shape: 1 1 4000 (4000)
2016-09-25 23:22:05.274 STDERR [INFO] I0925 23:22:05.272709 32374 net.cpp:156] Memory required for data: 46020
2016-09-25 23:22:05.274 STDERR [INFO] I0925 23:22:05.272727 32374 layer_factory.hpp:77] Creating layer lstm2_h_conted_0
2016-09-25 23:22:05.274 STDERR [INFO] I0925 23:22:05.272773 32374 net.cpp:91] Creating Layer lstm2_h_conted_0
2016-09-25 23:22:05.274 STDERR [INFO] I0925 23:22:05.272791 32374 net.cpp:425] lstm2_h_conted_0 <- h_0
2016-09-25 23:22:05.274 STDERR [INFO] I0925 23:22:05.272814 32374 net.cpp:425] lstm2_h_conted_0 <- cont_1_lstm2_cont_slice_0_split_0
2016-09-25 23:22:05.274 STDERR [INFO] I0925 23:22:05.272835 32374 net.cpp:399] lstm2_h_conted_0 -> h_conted_0
2016-09-25 23:22:05.274 STDERR [INFO] I0925 23:22:05.273162 32374 net.cpp:141] Setting up lstm2_h_conted_0
2016-09-25 23:22:05.274 STDERR [INFO] I0925 23:22:05.273187 32374 net.cpp:148] Top shape: 1 1 1000 (1000)
2016-09-25 23:22:05.274 STDERR [INFO] I0925 23:22:05.273200 32374 net.cpp:156] Memory required for data: 50020
2016-09-25 23:22:05.274 STDERR [INFO] I0925 23:22:05.273213 32374 layer_factory.hpp:77] Creating layer lstm2_transform_1
2016-09-25 23:22:05.274 STDERR [INFO] I0925 23:22:05.273243 32374 net.cpp:91] Creating Layer lstm2_transform_1
2016-09-25 23:22:05.274 STDERR [INFO] I0925 23:22:05.273258 32374 net.cpp:425] lstm2_transform_1 <- h_conted_0
…
2016-09-25 23:22:05.304 STDERR [INFO] I0925 23:22:05.301872 32410 net.cpp:399] lstm2_unit_1 -> h_1
2016-09-25 23:22:05.304 STDERR [INFO] I0925 23:22:05.301924 32396 recurrent_layer.cpp:150] Adding parameter 0: W_xc
2016-09-25 23:22:05.304 STDERR [INFO] I0925 23:22:05.301935 32396 recurrent_layer.cpp:150] Adding parameter 1: b_c
2016-09-25 23:22:05.304 STDERR [INFO] I0925 23:22:05.301941 32396 recurrent_layer.cpp:150] Adding parameter 2: W_hc
2016-09-25 23:22:05.304 STDERR [INFO] I0925 23:22:05.301970 32410 net.cpp:141] Setting up lstm2_unit_1
2016-09-25 23:22:05.304 STDERR [INFO] I0925 23:22:05.301981 32410 net.cpp:148] Top shape: 1 1 1000 (1000)
2016-09-25 23:22:05.304 STDERR [INFO] I0925 23:22:05.301987 32410 net.cpp:148] Top shape: 1 1 1000 (1000)
2016-09-25 23:22:05.304 STDERR [INFO] I0925 23:22:05.301991 32410 net.cpp:156] Memory required for data: 90020
2016-09-25 23:22:05.304 STDERR [INFO] I0925 23:22:05.301996 32410 layer_factory.hpp:77] Creating layer lstm2_
2016-09-25 23:22:05.304 STDERR [INFO] I0925 23:22:05.302006 32410 net.cpp:91] Creating Layer lstm2_
2016-09-25 23:22:05.304 STDERR [INFO] I0925 23:22:05.302011 32410 net.cpp:425] lstm2_ <- c_1
2016-09-25 23:22:05.304 STDERR [INFO] I0925 23:22:05.302021 32410 net.cpp:399] lstm2_ -> c_T
2016-09-25 23:22:05.304 STDERR [INFO] I0925 23:22:05.302059 32370 net.cpp:141] Setting up lstm2_unit_1
2016-09-25 23:22:05.304 STDERR [INFO] I0925 23:22:05.302078 32370 net.cpp:148] Top shape: 1 1 1000 (1000)
2016-09-25 23:22:05.304 STDERR [INFO] I0925 23:22:05.302085 32370 net.cpp:148] Top shape: 1 1 1000 (1000)
2016-09-25 23:22:05.304 STDERR [INFO] I0925 23:22:05.302089 32370 net.cpp:156] Memory required for data: 90020
2016-09-25 23:22:05.304 STDERR [INFO] I0925 23:22:05.302095 32370 layer_factory.hpp:77] Creating layer lstm2_
2016-09-25 23:22:05.304 STDERR [INFO] I0925 23:22:05.302104 32370 net.cpp:91] Creating Layer lstm2_
2016-09-25 23:22:05.304 STDERR [INFO] I0925 23:22:05.302110 32370 net.cpp:425] lstm2_ <- c_1
2016-09-25 23:22:05.305 STDERR [INFO] I0925 23:22:05.302119 32370 net.cpp:399] lstm2_ -> c_T
2016-09-25 23:22:05.305 STDERR [INFO] I0925 23:22:05.302161 32370 net.cpp:141] Setting up lstm2_
2016-09-25 23:22:05.305 STDERR [INFO] I0925 23:22:05.302171 32370 net.cpp:148] Top shape: 1 1 1000 (1000)
2016-09-25 23:22:05.305 STDERR [INFO] I0925 23:22:05.302175 32370 net.cpp:156] Memory required for data: 94020
2016-09-25 23:22:05.305 STDERR [INFO] I0925 23:22:05.302181 32370 layer_factory.hpp:77] Creating layer lstm2_h_concat
2016-09-25 23:22:05.305 STDERR [INFO] I0925 23:22:05.302191 32370 net.cpp:91] Creating Layer lstm2_h_concat
2016-09-25 23:22:05.305 STDERR [INFO] I0925 23:22:05.302197 32370 net.cpp:425] lstm2_h_concat <- h_1
2016-09-25 23:22:05.305 STDERR [INFO] I0925 23:22:05.302207 32370 net.cpp:399] lstm2_h_concat -> h
2016-09-25 23:22:05.305 STDERR [INFO] I0925 23:22:05.302245 32370 net.cpp:141] Setting up lstm2_h_concat
2016-09-25 23:22:05.305 STDERR [INFO] I0925 23:22:05.302256 32370 net.cpp:148] Top shape: 1 1 1000 (1000)
2016-09-25 23:22:05.305 STDERR [INFO] I0925 23:22:05.302260 32370 net.cpp:156] Memory required for data: 98020
2016-09-25 23:22:05.305 STDERR [INFO] I0925 23:22:05.302265 32370 layer_factory.hpp:77] Creating layer h_pseudoloss
2016-09-25 23:22:05.305 STDERR [INFO] I0925 23:22:05.302278 32370 net.cpp:91] Creating Layer h_pseudoloss
2016-09-25 23:22:05.305 STDERR [INFO] I0925 23:22:05.302283 32370 net.cpp:425] h_pseudoloss <- h
…
2016-09-25 23:22:05.306 STDERR [INFO] I0925 23:22:05.302522 32370 net.cpp:217] lstm2_transform_1 needs backward computation.
2016-09-25 23:22:05.306 STDERR [INFO] I0925 23:22:05.302528 32370 net.cpp:219] lstm2_h_conted_0 does not need backward computation.
2016-09-25 23:22:05.306 STDERR [INFO] I0925 23:22:05.302536 32370 net.cpp:217] lstm2_W_xc_x_slice needs backward computation.
2016-09-25 23:22:05.306 STDERR [INFO] I0925 23:22:05.302533 32418 net.cpp:141] Setting up lstm2_gate_input_1
2016-09-25 23:22:05.306 STDERR [INFO] I0925 23:22:05.302542 32370 net.cpp:217] lstm2_x_transform needs backward computation.
2016-09-25 23:22:05.306 STDERR [INFO] I0925 23:22:05.302564 32418 net.cpp:148] Top shape: 1 1 4000 (4000)
2016-09-25 23:22:05.306 STDERR [INFO] I0925 23:22:05.302570 32370 net.cpp:219] cont_1_lstm2_cont_slice_0_split does not need backward computation.
2016-09-25 23:22:05.306 STDERR [INFO] I0925 23:22:05.302577 32418 net.cpp:156] Memory required for data: 82020
2016-09-25 23:22:05.306 STDERR [INFO] I0925 23:22:05.302582 32370 net.cpp:219] lstm2_cont_slice does not need backward computation.
2016-09-25 23:22:05.306 STDERR [INFO] I0925 23:22:05.302588 32418 layer_factory.hpp:77] Creating layer lstm2_unit_1
2016-09-25 23:22:05.306 STDERR [INFO] I0925 23:22:05.302606 32370 net.cpp:219] lstm2_ does not need backward computation.
2016-09-25 23:22:05.306 STDERR [INFO] I0925 23:22:05.302618 32370 net.cpp:219] lstm2_ does not need backward computation.
2016-09-25 23:22:05.306 STDERR [INFO] I0925 23:22:05.302623 32418 net.cpp:91] Creating Layer lstm2_unit_1
2016-09-25 23:22:05.306 STDERR [INFO] I0925 23:22:05.302625 32370 net.cpp:261] This network produces output c_T
2016-09-25 23:22:05.306 STDERR [INFO] I0925 23:22:05.302642 32418 net.cpp:425] lstm2_unit_1 <- c_0
2016-09-25 23:22:05.306 STDERR [INFO] I0925 23:22:05.302644 32384 net.cpp:141] Setting up lstm2_gate_input_1
2016-09-25 23:22:05.306 STDERR [INFO] I0925 23:22:05.302650 32370 net.cpp:261] This network produces output h_pseudoloss
2016-09-25 23:22:05.306 STDERR [INFO] I0925 23:22:05.302659 32418 net.cpp:425] lstm2_unit_1 <- gate_input_1
2016-09-25 23:22:05.306 STDERR [INFO] I0925 23:22:05.302664 32384 net.cpp:148] Top shape: 1 1 4000 (4000)
2016-09-25 23:22:05.307 STDERR [INFO] I0925 23:22:05.302670 32418 net.cpp:425] lstm2_unit_1 <- cont_1_lstm2_cont_slice_0_split_1
2016-09-25 23:22:05.307 STDERR [INFO] I0925 23:22:05.302673 32384 net.cpp:156] Memory required for data: 82020
2016-09-25 23:22:05.307 STDERR [INFO] I0925 23:22:05.302681 32370 net.cpp:274] Network initialization done.
2016-09-25 23:22:05.307 STDERR [INFO] I0925 23:22:05.302685 32384 layer_factory.hpp:77] Creating layer lstm2_unit_1
2016-09-25 23:22:05.307 STDERR [INFO] I0925 23:22:05.302687 32418 net.cpp:399] lstm2_unit_1 -> c_1
2016-09-25 23:22:05.307 STDERR [INFO] I0925 23:22:05.302707 32418 net.cpp:399] lstm2_unit_1 -> h_1
2016-09-25 23:22:05.307 STDERR [INFO] I0925 23:22:05.302718 32384 net.cpp:91] Creating Layer lstm2_unit_1
2016-09-25 23:22:05.307 STDERR [INFO] I0925 23:22:05.302729 32384 net.cpp:425] lstm2_unit_1 <- c_0
2016-09-25 23:22:05.307 STDERR [INFO] I0925 23:22:05.302731 32410 net.cpp:141] Setting up lstm2_
2016-09-25 23:22:05.307 STDERR [INFO] I0925 23:22:05.302742 32384 net.cpp:425] lstm2_unit_1 <- gate_input_1
2016-09-25 23:22:05.307 STDERR [INFO] I0925 23:22:05.302750 32410 net.cpp:148] Top shape: 1 1 1000 (1000)
2016-09-25 23:22:05.307 STDERR [INFO] I0925 23:22:05.302750 32384 net.cpp:425] lstm2_unit_1 <- cont_1_lstm2_cont_slice_0_split_1
2016-09-25 23:22:05.307 STDERR [INFO] I0925 23:22:05.302758 32410 net.cpp:156] Memory required for data: 94020
2016-09-25 23:22:05.307 STDERR [INFO] I0925 23:22:05.302764 32410 layer_factory.hpp:77] Creating layer lstm2_h_concat
2016-09-25 23:22:05.307 STDERR [INFO] I0925 23:22:05.302765 32384 net.cpp:399] lstm2_unit_1 -> c_1
2016-09-25 23:22:05.307 STDERR [INFO] I0925 23:22:05.302763 32370 recurrent_layer.cpp:150] Adding parameter 0: W_xc
2016-09-25 23:22:05.307 STDERR [INFO] I0925 23:22:05.302777 32410 net.cpp:91] Creating Layer lstm2_h_concat
2016-09-25 23:22:05.307 STDERR [INFO] I0925 23:22:05.302786 32384 net.cpp:399] lstm2_unit_1 -> h_1
2016-09-25 23:22:05.307 STDERR [INFO] I0925 23:22:05.302790 32410 net.cpp:425] lstm2_h_concat <- h_1
2016-09-25 23:22:05.307 STDERR [INFO] I0925 23:22:05.302788 32370 recurrent_layer.cpp:150] Adding parameter 1: b_c
2016-09-25 23:22:05.307 STDERR [INFO] I0925 23:22:05.302803 32410 net.cpp:399] lstm2_h_concat -> h
2016-09-25 23:22:05.307 STDERR [INFO] I0925 23:22:05.302804 32370 recurrent_layer.cpp:150] Adding parameter 2: W_hc
2016-09-25 23:22:05.308 STDERR [INFO] I0925 23:22:05.303050 32410 net.cpp:141] Setting up lstm2_h_concat
2016-09-25 23:22:05.308 STDERR [INFO] I0925 23:22:05.303061 32410 net.cpp:148] Top shape: 1 1 1000 (1000)
2016-09-25 23:22:05.308 STDERR [INFO] I0925 23:22:05.303066 32410 net.cpp:156] Memory required for data: 98020
2016-09-25 23:22:05.308 STDERR [INFO] I0925 23:22:05.303071 32410 layer_factory.hpp:77] Creating layer h_pseudoloss
2016-09-25 23:22:05.308 STDERR [INFO] I0925 23:22:05.303083 32410 net.cpp:91] Creating Layer h_pseudoloss
2016-09-25 23:22:05.308 STDERR [INFO] I0925 23:22:05.303089 32410 net.cpp:425] h_pseudoloss <- h
2016-09-25 23:22:05.308 STDERR [INFO] I0925 23:22:05.303098 32410 net.cpp:399] h_pseudoloss -> h_pseudoloss
2016-09-25 23:22:05.308 STDERR [INFO] I0925 23:22:05.303189 32370 net.cpp:141] Setting up lstm2
2016-09-25 23:22:05.308 STDERR [INFO] I0925 23:22:05.303203 32370 net.cpp:148] Top shape: 1 1 1000 (1000)
2016-09-25 23:22:05.308 STDERR [INFO] I0925 23:22:05.303208 32370 net.cpp:156] Memory required for data: 36412
2016-09-25 23:22:05.308 STDERR [INFO] I0925 23:22:05.303226 32370 layer_factory.hpp:77] Creating layer predict
2016-09-25 23:22:05.308 STDERR [INFO] I0925 23:22:05.303230 32396 net.cpp:141] Setting up lstm2
2016-09-25 23:22:05.308 STDERR [INFO] I0925 23:22:05.303242 32370 net.cpp:91] Creating Layer predict
2016-09-25 23:22:05.308 STDERR [INFO] I0925 23:22:05.303248 32396 net.cpp:148] Top shape: 1 1 1000 (1000)
2016-09-25 23:22:05.308 STDERR [INFO] I0925 23:22:05.303249 32370 net.cpp:425] predict <- lstm2
2016-09-25 23:22:05.308 STDERR [INFO] I0925 23:22:05.303259 32396 net.cpp:156] Memory required for data: 36412
2016-09-25 23:22:05.308 STDERR [INFO] I0925 23:22:05.303272 32370 net.cpp:399] predict -> predict
2016-09-25 23:22:05.308 STDERR [INFO] I0925 23:22:05.303287 32396 layer_factory.hpp:77] Creating layer predict
2016-09-25 23:22:05.308 STDERR [INFO] I0925 23:22:05.303299 32396 net.cpp:91] Creating Layer predict
2016-09-25 23:22:05.308 STDERR [INFO] I0925 23:22:05.303308 32396 net.cpp:425] predict <- lstm2
2016-09-25 23:22:05.308 STDERR [INFO] I0925 23:22:05.303313 32418 net.cpp:141] Setting up lstm2_unit_1
2016-09-25 23:22:05.308 STDERR [INFO] I0925 23:22:05.303323 32396 net.cpp:399] predict -> predict
2016-09-25 23:22:05.308 STDERR [INFO] I0925 23:22:05.303338 32418 net.cpp:148] Top shape: 1 1 1000 (1000)
2016-09-25 23:22:05.308 STDERR [INFO] I0925 23:22:05.303352 32418 net.cpp:148] Top shape: 1 1 1000 (1000)
2016-09-25 23:22:05.309 STDERR [INFO] I0925 23:22:05.303361 32418 net.cpp:156] Memory required for data: 90020
2016-09-25 23:22:05.309 STDERR [INFO] I0925 23:22:05.303372 32418 layer_factory.hpp:77] Creating layer lstm2_
2016-09-25 23:22:05.309 STDERR [INFO] I0925 23:22:05.303395 32418 net.cpp:91] Creating Layer lstm2_
2016-09-25 23:22:05.309 STDERR [INFO] I0925 23:22:05.303406 32418 net.cpp:425] lstm2_ <- c_1
…
2016-09-25 23:22:05.384 STDERR [INFO] I0925 23:22:05.383579 32422 net.cpp:217] h_pseudoloss needs backward computation.
2016-09-25 23:22:05.384 STDERR [INFO] I0925 23:22:05.383574 32384 net.cpp:141] Setting up lstm2_unit_1
2016-09-25 23:22:05.384 STDERR [INFO] I0925 23:22:05.383590 32422 net.cpp:217] lstm2_h_concat needs backward computation.
2016-09-25 23:22:05.384 STDERR [INFO] I0925 23:22:05.383600 32422 net.cpp:219] lstm2_ does not need backward computation.
2016-09-25 23:22:05.384 STDERR [INFO] I0925 23:22:05.383610 32422 net.cpp:217] lstm2_unit_1 needs backward computation.
2016-09-25 23:22:05.384 STDERR [INFO] I0925 23:22:05.383611 32384 net.cpp:148] Top shape: 1 1 1000 (1000)
2016-09-25 23:22:05.384 STDERR [INFO] I0925 23:22:05.383625 32422 net.cpp:217] lstm2_gate_input_1 needs backward computation.
2016-09-25 23:22:05.384 STDERR [INFO] I0925 23:22:05.383632 32384 net.cpp:148] Top shape: 1 1 1000 (1000)
2016-09-25 23:22:05.385 STDERR [INFO] I0925 23:22:05.383661 32384 net.cpp:156] Memory required for data: 90020
2016-09-25 23:22:05.385 STDERR [INFO] I0925 23:22:05.383678 32384 layer_factory.hpp:77] Creating layer lstm2_
2016-09-25 23:22:05.385 STDERR [INFO] I0925 23:22:05.383693 32418 net.cpp:141] Setting up lstm2_
2016-09-25 23:22:05.385 STDERR [INFO] I0925 23:22:05.383710 32384 net.cpp:91] Creating Layer lstm2_
2016-09-25 23:22:05.385 n.t.s.s.CVParticleSpout [INFO] [Timing] RequestID: 0 StreamID: The_Nut_Job_trailer_mp4_20b298da SequenceNr: 367 Leaving fetcher: 1474860125385 Size: 44809
2016-09-25 23:22:05.385 STDERR [INFO] I0925 23:22:05.383752 32418 net.cpp:148] Top shape: 1 1 1000 (1000)
2016-09-25 23:22:05.385 STDERR [INFO] I0925 23:22:05.383764 32418 net.cpp:156] Memory required for data: 94020
2016-09-25 23:22:05.385 STDERR [INFO] I0925 23:22:05.383761 32384 net.cpp:425] lstm2_ <- c_1
2016-09-25 23:22:05.385 STDERR [INFO] I0925 23:22:05.383775 32418 layer_factory.hpp:77] Creating layer lstm2_h_concat
2016-09-25 23:22:05.385 STDERR [INFO] I0925 23:22:05.383797 32418 net.cpp:91] Creating Layer lstm2_h_concat
2016-09-25 23:22:05.385 STDERR [INFO] I0925 23:22:05.383803 32384 net.cpp:399] lstm2_ -> c_T
2016-09-25 23:22:05.385 STDERR [INFO] I0925 23:22:05.383810 32418 net.cpp:425] lstm2_h_concat <- h_1
2016-09-25 23:22:05.386 STDERR [INFO] I0925 23:22:05.383858 32374 net.cpp:141] Setting up lstm2_transform_1
2016-09-25 23:22:05.386 STDERR [INFO] I0925 23:22:05.383882 32374 net.cpp:148] Top shape: 1 1 4000 (4000)
2016-09-25 23:22:05.386 STDERR [INFO] I0925 23:22:05.383882 32418 net.cpp:399] lstm2_h_concat -> h
2016-09-25 23:22:05.386 STDERR [INFO] I0925 23:22:05.383913 32366 net.cpp:141] Setting up lstm2_transform_1
2016-09-25 23:22:05.386 STDERR [INFO] I0925 23:22:05.383898 32374 net.cpp:156] Memory required for data: 66020
2016-09-25 23:22:05.386 STDERR [INFO] I0925 23:22:05.383942 32366 net.cpp:148] Top shape: 1 1 4000 (4000)
2016-09-25 23:22:05.386 STDERR [INFO] I0925 23:22:05.383951 32366 net.cpp:156] Memory required for data: 66020
2016-09-25 23:22:05.387 n.t.s.s.CVParticleSpout [INFO] [Timing] RequestID: 0 StreamID: The_Nut_Job_trailer_mp4_713990cf SequenceNr: 369 Leaving fetcher: 1474860125387 Size: 45013
2016-09-25 23:22:05.386 STDERR [INFO] I0925 23:22:05.383955 32374 layer_factory.hpp:77] Creating layer lstm2_gate_input_1
…
2016-09-25 23:22:05.594 STDERR [INFO] I0925 23:22:05.580067 32374 net.cpp:274] Network initialization done.
2016-09-25 23:22:05.595 STDERR [INFO] I0925 23:22:05.580143 32374 recurrent_layer.cpp:150] Adding parameter 0: W_xc
2016-09-25 23:22:05.595 STDERR [INFO] I0925 23:22:05.580153 32374 recurrent_layer.cpp:150] Adding parameter 1: b_c
2016-09-25 23:22:05.595 STDERR [INFO] I0925 23:22:05.580160 32374 recurrent_layer.cpp:150] Adding parameter 2: W_hc
2016-09-25 23:22:05.595 STDERR [INFO] I0925 23:22:05.580333 32374 net.cpp:141] Setting up lstm2
2016-09-25 23:22:05.595 STDERR [INFO] I0925 23:22:05.580350 32374 net.cpp:148] Top shape: 1 1 1000 (1000)
2016-09-25 23:22:05.595 STDERR [INFO] I0925 23:22:05.580359 32374 net.cpp:156] Memory required for data: 36412
2016-09-25 23:22:05.595 STDERR [INFO] I0925 23:22:05.580385 32374 layer_factory.hpp:77] Creating layer predict
2016-09-25 23:22:05.595 STDERR [INFO] I0925 23:22:05.580404 32374 net.cpp:91] Creating Layer predict
2016-09-25 23:22:05.595 STDERR [INFO] I0925 23:22:05.580413 32374 net.cpp:425] predict <- lstm2
2016-09-25 23:22:05.595 STDERR [INFO] I0925 23:22:05.580426 32374 net.cpp:399] predict -> predict
2016-09-25 23:22:05.594 n.t.s.u.StreamReader [INFO] [Timing] RequestID: 0 StreamID: The_Nut_Job_trailer_mp4_1045bfa7 SequenceNr: 368 Entering queue: 1474860125594
2016-09-25 23:22:05.599 n.t.s.s.CVParticleSpout [INFO] [Timing] RequestID: 0 StreamID: The_Nut_Job_trailer_mp4_d1a53cd4 SequenceNr: 370 Leaving fetcher: 1474860125599 Size: 45048
2016-09-25 23:22:05.671 STDERR [INFO] I0925 23:22:05.671546 32410 net.cpp:141] Setting up lstm2
2016-09-25 23:22:05.672 STDERR [INFO] I0925 23:22:05.671615 32410 net.cpp:148] Top shape: 1 1 1000 (1000)
2016-09-25 23:22:05.672 STDERR [INFO] I0925 23:22:05.671633 32410 net.cpp:156] Memory required for data: 36412
2016-09-25 23:22:05.672 STDERR [INFO] I0925 23:22:05.671669 32410 layer_factory.hpp:77] Creating layer predict
2016-09-25 23:22:05.672 STDERR [INFO] I0925 23:22:05.671699 32410 net.cpp:91] Creating Layer predict
2016-09-25 23:22:05.672 STDERR [INFO] I0925 23:22:05.671711 32410 net.cpp:425] predict <- lstm2
2016-09-25 23:22:05.672 STDERR [INFO] I0925 23:22:05.671728 32410 net.cpp:399] predict -> predict
2016-09-25 23:22:05.672 STDERR [INFO] I0925 23:22:05.671777 32390 net.cpp:141] Setting up predict
2016-09-25 23:22:05.672 STDERR [INFO] I0925 23:22:05.671793 32390 net.cpp:148] Top shape: 1 1 46168 (46168)
2016-09-25 23:22:05.672 STDERR [INFO] I0925 23:22:05.671798 32390 net.cpp:156] Memory required for data: 221084
2016-09-25 23:22:05.672 STDERR [INFO] I0925 23:22:05.671809 32390 layer_factory.hpp:77] Creating layer probs
2016-09-25 23:22:05.672 STDERR [INFO] I0925 23:22:05.671821 32390 net.cpp:91] Creating Layer probs
2016-09-25 23:22:05.672 STDERR [INFO] I0925 23:22:05.671828 32390 net.cpp:425] probs <- predict
2016-09-25 23:22:05.672 STDERR [INFO] I0925 23:22:05.671836 32390 net.cpp:399] probs -> probs
2016-09-25 23:22:05.672 STDERR [INFO] I0925 23:22:05.672130 32366 net.cpp:141] Setting up lstm2_unit_1
2016-09-25 23:22:05.673 STDERR [INFO] I0925 23:22:05.672161 32366 net.cpp:148] Top shape: 1 1 1000 (1000)
2016-09-25 23:22:05.673 STDERR [INFO] I0925 23:22:05.672170 32384 net.cpp:141] Setting up lstm2
2016-09-25 23:22:05.673 STDERR [INFO] I0925 23:22:05.672178 32366 net.cpp:148] Top shape: 1 1 1000 (1000)
2016-09-25 23:22:05.673 STDERR [INFO] I0925 23:22:05.672199 32384 net.cpp:148] Top shape: 1 1 1000 (1000)
2016-09-25 23:22:05.673 STDERR [INFO] I0925 23:22:05.672202 32366 net.cpp:156] Memory required for data: 90020
2016-09-25 23:22:05.673 STDERR [INFO] I0925 23:22:05.672206 32384 net.cpp:156] Memory required for data: 36412
2016-09-25 23:22:05.673 STDERR [INFO] I0925 23:22:05.672211 32366 layer_factory.hpp:77] Creating layer lstm2_
2016-09-25 23:22:05.673 STDERR [INFO] I0925 23:22:05.672224 32366 net.cpp:91] Creating Layer lstm2_
2016-09-25 23:22:05.673 STDERR [INFO] I0925 23:22:05.672230 32366 net.cpp:425] lstm2_ <- c_1
2016-09-25 23:22:05.673 STDERR [INFO] I0925 23:22:05.672231 32384 layer_factory.hpp:77] Creating layer predict
2016-09-25 23:22:05.673 STDERR [INFO] I0925 23:22:05.672237 32366 net.cpp:399] lstm2_ -> c_T
2016-09-25 23:22:05.673 STDERR [INFO] I0925 23:22:05.672247 32384 net.cpp:91] Creating Layer predict
2016-09-25 23:22:05.673 STDERR [INFO] I0925 23:22:05.672256 32384 net.cpp:425] predict <- lstm2
2016-09-25 23:22:05.673 STDERR [INFO] I0925 23:22:05.672268 32384 net.cpp:399] predict -> predict
2016-09-25 23:22:05.673 STDERR [INFO] I0925 23:22:05.672291 32366 net.cpp:141] Setting up lstm2_
2016-09-25 23:22:05.673 STDERR [INFO] I0925 23:22:05.672302 32366 net.cpp:148] Top shape: 1 1 1000 (1000)
2016-09-25 23:22:05.673 STDERR [INFO] I0925 23:22:05.672307 32366 net.cpp:156] Memory required for data: 94020
2016-09-25 23:22:05.673 STDERR [INFO] I0925 23:22:05.672310 32366 layer_factory.hpp:77] Creating layer lstm2_h_concat
2016-09-25 23:22:05.674 STDERR [INFO] I0925 23:22:05.672327 32366 net.cpp:91] Creating Layer lstm2_h_concat
2016-09-25 23:22:05.674 STDERR [INFO] I0925 23:22:05.672333 32366 net.cpp:425] lstm2_h_concat <- h_1
2016-09-25 23:22:05.674 STDERR [INFO] I0925 23:22:05.672340 32366 net.cpp:399] lstm2_h_concat -> h
2016-09-25 23:22:05.767 n.t.s.s.CVParticleSpout [INFO] [Timing] RequestID: 0 StreamID: The_Nut_Job_trailer_mp4_20b298da SequenceNr: 368 Leaving fetcher: 1474860125767 Size: 44936
2016-09-25 23:22:05.769 n.t.s.u.StreamReader [INFO] [Timing] RequestID: 0 StreamID: The_Nut_Job_trailer_mp4_c2739ae0 SequenceNr: 368 Entering queue: 1474860125769
2016-09-25 23:22:05.770 STDERR [INFO] I0925 23:22:05.768908 32362 net.cpp:141] Setting up predict
2016-09-25 23:22:05.770 STDERR [INFO] I0925 23:22:05.768959 32362 net.cpp:148] Top shape: 1 1 46168 (46168)
2016-09-25 23:22:05.770 STDERR [INFO] I0925 23:22:05.768970 32362 net.cpp:156] Memory required for data: 221084
2016-09-25 23:22:05.770 STDERR [INFO] I0925 23:22:05.768991 32362 layer_factory.hpp:77] Creating layer probs
2016-09-25 23:22:05.770 STDERR [INFO] I0925 23:22:05.769014 32362 net.cpp:91] Creating Layer probs
2016-09-25 23:22:05.770 STDERR [INFO] I0925 23:22:05.769026 32362 net.cpp:425] probs <- predict
…
2016-09-25 23:22:06.351 STDERR [INFO] I0925 23:22:06.351234 32390 net.cpp:219] cont_sentence_input_1_split does not need backward computation.
2016-09-25 23:22:06.351 STDERR [INFO] I0925 23:22:06.351243 32390 net.cpp:219] input does not need backward computation.
2016-09-25 23:22:06.352 STDERR [INFO] I0925 23:22:06.351251 32390 net.cpp:261] This network produces output probs
2016-09-25 23:22:06.352 STDERR [INFO] I0925 23:22:06.351280 32390 net.cpp:274] Network initialization done.
2016-09-25 23:22:06.356 STDERR [INFO] I0925 23:22:06.355913 32376 net.cpp:141] Setting up conv1
2016-09-25 23:22:06.356 STDERR [INFO] I0925 23:22:06.355973 32376 net.cpp:148] Top shape: 10 96 55 55 (2904000)
2016-09-25 23:22:06.356 STDERR [INFO] I0925 23:22:06.355983 32376 net.cpp:156] Memory required for data: 17799480
2016-09-25 23:22:06.356 STDERR [INFO] I0925 23:22:06.356012 32376 layer_factory.hpp:77] Creating layer relu1
2016-09-25 23:22:06.356 STDERR [INFO] I0925 23:22:06.356040 32376 net.cpp:91] Creating Layer relu1
2016-09-25 23:22:06.356 STDERR [INFO] I0925 23:22:06.356050 32376 net.cpp:425] relu1 <- conv1
2016-09-25 23:22:06.356 STDERR [INFO] I0925 23:22:06.356061 32376 net.cpp:386] relu1 -> conv1 (in-place)
2016-09-25 23:22:06.356 STDERR [INFO] I0925 23:22:06.356482 32376 net.cpp:141] Setting up relu1
2016-09-25 23:22:06.356 STDERR [INFO] I0925 23:22:06.356506 32376 net.cpp:148] Top shape: 10 96 55 55 (2904000)
2016-09-25 23:22:06.356 STDERR [INFO] I0925 23:22:06.356513 32376 net.cpp:156] Memory required for data: 29415480
2016-09-25 23:22:06.356 STDERR [INFO] I0925 23:22:06.356523 32376 layer_factory.hpp:77] Creating layer pool1
2016-09-25 23:22:06.356 STDERR [INFO] I0925 23:22:06.356544 32376 net.cpp:91] Creating Layer pool1
2016-09-25 23:22:06.356 STDERR [INFO] I0925 23:22:06.356551 32376 net.cpp:425] pool1 <- conv1
2016-09-25 23:22:06.357 STDERR [INFO] I0925 23:22:06.356565 32376 net.cpp:399] pool1 -> pool1
2016-09-25 23:22:06.357 STDERR [INFO] I0925 23:22:06.356745 32376 net.cpp:141] Setting up pool1
2016-09-25 23:22:06.357 STDERR [INFO] I0925 23:22:06.356762 32376 net.cpp:148] Top shape: 10 96 27 27 (699840)
2016-09-25 23:22:06.357 STDERR [INFO] I0925 23:22:06.356770 32376 net.cpp:156] Memory required for data: 32214840
2016-09-25 23:22:06.357 STDERR [INFO] I0925 23:22:06.356777 32376 layer_factory.hpp:77] Creating layer norm1
2016-09-25 23:22:06.357 STDERR [INFO] I0925 23:22:06.356806 32376 net.cpp:91] Creating Layer norm1
2016-09-25 23:22:06.357 STDERR [INFO] I0925 23:22:06.356814 32376 net.cpp:425] norm1 <- pool1
2016-09-25 23:22:06.357 STDERR [INFO] I0925 23:22:06.356825 32376 net.cpp:399] norm1 -> norm1
2016-09-25 23:22:06.358 STDERR [INFO] I0925 23:22:06.357925 32376 net.cpp:141] Setting up norm1
2016-09-25 23:22:06.358 STDERR [INFO] I0925 23:22:06.357980 32376 net.cpp:148] Top shape: 10 96 27 27 (699840)
2016-09-25 23:22:06.358 STDERR [INFO] I0925 23:22:06.357990 32376 net.cpp:156] Memory required for data: 35014200
2016-09-25 23:22:06.358 STDERR [INFO] I0925 23:22:06.358002 32376 layer_factory.hpp:77] Creating layer conv2
2016-09-25 23:22:06.358 STDERR [INFO] I0925 23:22:06.358034 32376 net.cpp:91] Creating Layer conv2
2016-09-25 23:22:06.358 STDERR [INFO] I0925 23:22:06.358044 32376 net.cpp:425] conv2 <- norm1
2016-09-25 23:22:06.358 STDERR [INFO] I0925 23:22:06.358062 32376 net.cpp:399] conv2 -> conv2
2016-09-25 23:22:06.402 STDERR [INFO] I0925 23:22:06.402588 32376 net.cpp:141] Setting up conv2
2016-09-25 23:22:06.402 STDERR [INFO] I0925 23:22:06.402688 32376 net.cpp:148] Top shape: 10 256 27 27 (1866240)
2016-09-25 23:22:06.403 STDERR [INFO] I0925 23:22:06.402701 32376 net.cpp:156] Memory required for data: 42479160
2016-09-25 23:22:06.403 STDERR [INFO] I0925 23:22:06.403301 32376 layer_factory.hpp:77] Creating layer relu2
2016-09-25 23:22:06.403 STDERR [INFO] I0925 23:22:06.403342 32376 net.cpp:91] Creating Layer relu2
2016-09-25 23:22:06.403 STDERR [INFO] I0925 23:22:06.403352 32376 net.cpp:425] relu2 <- conv2
2016-09-25 23:22:06.403 STDERR [INFO] I0925 23:22:06.403362 32376 net.cpp:386] relu2 -> conv2 (in-place)
2016-09-25 23:22:06.406 n.t.s.s.CVParticleSpout [INFO] [Timing] RequestID: 0 StreamID: The_Nut_Job_trailer_mp4_374b5db7 SequenceNr: 373 Leaving fetcher: 1474860126406 Size: 45133
2016-09-25 23:22:06.407 n.t.s.s.CVParticleSpout [INFO] [Timing] RequestID: 0 StreamID: The_Nut_Job_trailer_mp4_72a7424e SequenceNr: 375 Leaving fetcher: 1474860126406 Size: 45011
2016-09-25 23:22:06.408 n.t.s.u.StreamReader [INFO] [Timing] RequestID: 0 StreamID: The_Nut_Job_trailer_mp4_374b5db7 SequenceNr: 374 Entering queue: 1474860126408
2016-09-25 23:22:06.412 n.t.s.u.StreamReader [INFO] [Timing] RequestID: 0 StreamID: The_Nut_Job_trailer_mp4_7610b7f8 SequenceNr: 368 Entering queue: 1474860126412
2016-09-25 23:22:06.412 STDERR [INFO] I0925 23:22:06.412089 32418 net.cpp:141] Setting up predict
2016-09-25 23:22:06.412 STDERR [INFO] I0925 23:22:06.412149 32418 net.cpp:148] Top shape: 1 1 46168 (46168)
2016-09-25 23:22:06.412 STDERR [INFO] I0925 23:22:06.412159 32418 net.cpp:156] Memory required for data: 221084
2016-09-25 23:22:06.412 STDERR [INFO] I0925 23:22:06.412181 32418 layer_factory.hpp:77] Creating layer probs
2016-09-25 23:22:06.413 n.t.s.s.CVParticleSpout [INFO] [Timing] RequestID: 0 StreamID: The_Nut_Job_trailer_mp4_7c1e8252 SequenceNr: 386 Leaving fetcher: 1474860126413 Size: 46100
2016-09-25 23:22:06.413 STDERR [INFO] I0925 23:22:06.412206 32418 net.cpp:91] Creating Layer probs
2016-09-25 23:22:06.414 STDERR [INFO] I0925 23:22:06.412217 32418 net.cpp:425] probs <- predict
2016-09-25 23:22:06.414 STDERR [INFO] I0925 23:22:06.412232 32418 net.cpp:399] probs -> probs
2016-09-25 23:22:06.414 STDERR [INFO] I0925 23:22:06.412894 32376 net.cpp:141] Setting up relu2
2016-09-25 23:22:06.414 STDERR [INFO] I0925 23:22:06.412932 32376 net.cpp:148] Top shape: 10 256 27 27 (1866240)
2016-09-25 23:22:06.414 STDERR [INFO] I0925 23:22:06.412941 32376 net.cpp:156] Memory required for data: 49944120
2016-09-25 23:22:06.414 STDERR [INFO] I0925 23:22:06.412953 32376 layer_factory.hpp:77] Creating layer pool2
2016-09-25 23:22:06.414 STDERR [INFO] I0925 23:22:06.412972 32376 net.cpp:91] Creating Layer pool2
2016-09-25 23:22:06.414 STDERR [INFO] I0925 23:22:06.412981 32376 net.cpp:425] pool2 <- conv2
2016-09-25 23:22:06.416 n.t.s.u.StreamReader [INFO] [Timing] RequestID: 0 StreamID: The_Nut_Job_trailer_mp4_c2739ae0 SequenceNr: 372 Entering queue: 1474860126416
2016-09-25 23:22:06.418 STDERR [INFO] I0925 23:22:06.414757 32376 net.cpp:399] pool2 -> pool2
2016-09-25 23:22:06.418 STDERR [INFO] I0925 23:22:06.416690 32376 net.cpp:141] Setting up pool2
2016-09-25 23:22:06.418 STDERR [INFO] I0925 23:22:06.416739 32376 net.cpp:148] Top shape: 10 256 13 13 (432640)
2016-09-25 23:22:06.418 STDERR [INFO] I0925 23:22:06.416749 32376 net.cpp:156] Memory required for data: 51674680
2016-09-25 23:22:06.418 STDERR [INFO] I0925 23:22:06.416762 32376 layer_factory.hpp:77] Creating layer norm2
2016-09-25 23:22:06.418 STDERR [INFO] I0925 23:22:06.417359 32376 net.cpp:91] Creating Layer norm2
2016-09-25 23:22:06.418 STDERR [INFO] I0925 23:22:06.417381 32376 net.cpp:425] norm2 <- pool2
2016-09-25 23:22:06.418 STDERR [INFO] I0925 23:22:06.417398 32376 net.cpp:399] norm2 -> norm2
2016-09-25 23:22:06.418 STDERR [INFO] I0925 23:22:06.417619 32418 net.cpp:141] Setting up probs
2016-09-25 23:22:06.418 STDERR [INFO] I0925 23:22:06.417646 32418 net.cpp:148] Top shape: 1 1 46168 (46168)
2016-09-25 23:22:06.418 STDERR [INFO] I0925 23:22:06.417655 32418 net.cpp:156] Memory required for data: 405756
2016-09-25 23:22:06.418 STDERR [INFO] I0925 23:22:06.417666 32418 net.cpp:219] probs does not need backward computation.
2016-09-25 23:22:06.418 STDERR [INFO] I0925 23:22:06.417676 32418 net.cpp:219] predict does not need backward computation.
2016-09-25 23:22:06.418 STDERR [INFO] I0925 23:22:06.417685 32418 net.cpp:219] lstm2 does not need backward computation.
…
2016-09-25 23:22:06.773 n.t.s.s.CVParticleSpout [INFO] [Timing] RequestID: 0 StreamID: The_Nut_Job_trailer_mp4_713990cf SequenceNr: 378 Leaving fetcher: 1474860126773 Size: 45264
2016-09-25 23:22:06.773 n.t.s.u.StreamReader [INFO] [Timing] RequestID: 0 StreamID: The_Nut_Job_trailer_mp4_1045bfa7 SequenceNr: 376 Entering queue: 1474860126773
2016-09-25 23:22:06.774 n.t.s.u.StreamReader [INFO] [Timing] RequestID: 0 StreamID: The_Nut_Job_trailer_mp4_7c1e8252 SequenceNr: 389 Entering queue: 1474860126774
2016-09-25 23:22:06.783 STDERR [INFO] I0925 23:22:06.782897 32376 net.cpp:141] Setting up fc6
2016-09-25 23:22:06.783 STDERR [INFO] I0925 23:22:06.782968 32376 net.cpp:148] Top shape: 10 4096 (40960)
2016-09-25 23:22:06.783 STDERR [INFO] I0925 23:22:06.782979 32376 net.cpp:156] Memory required for data: 67782200
2016-09-25 23:22:06.783 STDERR [INFO] I0925 23:22:06.783007 32376 layer_factory.hpp:77] Creating layer relu6
2016-09-25 23:22:06.783 STDERR [INFO] I0925 23:22:06.783036 32376 net.cpp:91] Creating Layer relu6
2016-09-25 23:22:06.783 STDERR [INFO] I0925 23:22:06.783051 32376 net.cpp:425] relu6 <- fc6
2016-09-25 23:22:06.783 STDERR [INFO] I0925 23:22:06.783066 32376 net.cpp:386] relu6 -> fc6 (in-place)
2016-09-25 23:22:06.788 STDERR [INFO] I0925 23:22:06.788725 32376 net.cpp:141] Setting up relu6
2016-09-25 23:22:06.789 STDERR [INFO] I0925 23:22:06.788817 32376 net.cpp:148] Top shape: 10 4096 (40960)
2016-09-25 23:22:06.789 STDERR [INFO] I0925 23:22:06.788830 32376 net.cpp:156] Memory required for data: 67946040
2016-09-25 23:22:06.789 STDERR [INFO] I0925 23:22:06.788847 32376 layer_factory.hpp:77] Creating layer drop6
2016-09-25 23:22:06.789 STDERR [INFO] I0925 23:22:06.788877 32376 net.cpp:91] Creating Layer drop6
2016-09-25 23:22:06.789 STDERR [INFO] I0925 23:22:06.788890 32376 net.cpp:425] drop6 <- fc6
2016-09-25 23:22:06.789 STDERR [INFO] I0925 23:22:06.788909 32376 net.cpp:386] drop6 -> fc6 (in-place)
2016-09-25 23:22:06.789 STDERR [INFO] I0925 23:22:06.789436 32376 net.cpp:141] Setting up drop6
2016-09-25 23:22:06.789 STDERR [INFO] I0925 23:22:06.789460 32376 net.cpp:148] Top shape: 10 4096 (40960)
2016-09-25 23:22:06.789 STDERR [INFO] I0925 23:22:06.789469 32376 net.cpp:156] Memory required for data: 68109880
2016-09-25 23:22:06.789 STDERR [INFO] I0925 23:22:06.789477 32376 layer_factory.hpp:77] Creating layer fc7
2016-09-25 23:22:06.789 STDERR [INFO] I0925 23:22:06.789499 32376 net.cpp:91] Creating Layer fc7
2016-09-25 23:22:06.789 STDERR [INFO] I0925 23:22:06.789510 32376 net.cpp:425] fc7 <- fc6
2016-09-25 23:22:06.789 STDERR [INFO] I0925 23:22:06.789520 32376 net.cpp:399] fc7 -> fc7
2016-09-25 23:22:06.848 n.t.s.u.StreamReader [INFO] [Timing] RequestID: 0 StreamID: The_Nut_Job_trailer_mp4_7610b7f8 SequenceNr: 371 Entering queue: 1474860126848
2016-09-25 23:22:06.859 STDERR [INFO] I0925 23:22:06.859061 32376 net.cpp:141] Setting up fc7
2016-09-25 23:22:06.859 n.t.s.u.StreamReader [INFO] [Timing] RequestID: 0 StreamID: The_Nut_Job_trailer_mp4_374b5db7 SequenceNr: 376 Entering queue: 1474860126859
2016-09-25 23:22:06.859 n.t.s.u.StreamReader [INFO] [Timing] RequestID: 0 StreamID: The_Nut_Job_trailer_mp4_20b298da SequenceNr: 376 Entering queue: 1474860126859
2016-09-25 23:22:06.859 STDERR [INFO] I0925 23:22:06.859143 32376 net.cpp:148] Top shape: 10 4096 (40960)
2016-09-25 23:22:06.859 n.t.s.u.StreamReader [INFO] [Timing] RequestID: 0 StreamID: The_Nut_Job_trailer_mp4_d1a53cd4 SequenceNr: 378 Entering queue: 1474860126859
2016-09-25 23:22:06.859 STDERR [INFO] I0925 23:22:06.859155 32376 net.cpp:156] Memory required for data: 68273720
2016-09-25 23:22:06.859 STDERR [INFO] I0925 23:22:06.859195 32376 layer_factory.hpp:77] Creating layer relu7
2016-09-25 23:22:06.859 STDERR [INFO] I0925 23:22:06.859257 32376 net.cpp:91] Creating Layer relu7
2016-09-25 23:22:06.859 STDERR [INFO] I0925 23:22:06.859272 32376 net.cpp:425] relu7 <- fc7
2016-09-25 23:22:06.859 n.t.s.u.StreamReader [INFO] [Timing] RequestID: 0 StreamID: The_Nut_Job_trailer_mp4_72a7424e SequenceNr: 378 Entering queue: 1474860126859
2016-09-25 23:22:06.860 n.t.s.s.CVParticleSpout [INFO] [Timing] RequestID: 0 StreamID: The_Nut_Job_trailer_mp4_c2739ae0 SequenceNr: 374 Leaving fetcher: 1474860126860 Size: 45072
2016-09-25 23:22:06.860 STDERR [INFO] I0925 23:22:06.860019 32376 net.cpp:386] relu7 -> fc7 (in-place)
2016-09-25 23:22:06.861 STDERR [INFO] I0925 23:22:06.861642 32376 net.cpp:141] Setting up relu7
2016-09-25 23:22:06.862 STDERR [INFO] I0925 23:22:06.861712 32376 net.cpp:148] Top shape: 10 4096 (40960)
2016-09-25 23:22:06.862 STDERR [INFO] I0925 23:22:06.861723 32376 net.cpp:156] Memory required for data: 68437560
2016-09-25 23:22:06.862 STDERR [INFO] I0925 23:22:06.861737 32376 layer_factory.hpp:77] Creating layer drop7
2016-09-25 23:22:06.862 STDERR [INFO] I0925 23:22:06.861763 32376 net.cpp:91] Creating Layer drop7
2016-09-25 23:22:06.862 STDERR [INFO] I0925 23:22:06.861774 32376 net.cpp:425] drop7 <- fc7
2016-09-25 23:22:06.862 STDERR [INFO] I0925 23:22:06.861788 32376 net.cpp:386] drop7 -> fc7 (in-place)
2016-09-25 23:22:06.862 STDERR [INFO] I0925 23:22:06.862540 32376 net.cpp:141] Setting up drop7
2016-09-25 23:22:06.862 STDERR [INFO] I0925 23:22:06.862610 32376 net.cpp:148] Top shape: 10 4096 (40960)
2016-09-25 23:22:06.862 STDERR [INFO] I0925 23:22:06.862663 32376 net.cpp:156] Memory required for data: 68601400
2016-09-25 23:22:06.862 STDERR [INFO] I0925 23:22:06.862681 32376 layer_factory.hpp:77] Creating layer fc8
2016-09-25 23:22:06.863 STDERR [INFO] I0925 23:22:06.862716 32376 net.cpp:91] Creating Layer fc8
2016-09-25 23:22:06.863 STDERR [INFO] I0925 23:22:06.862730 32376 net.cpp:425] fc8 <- fc7
…
