…
W0925 23:22:03.038475 32374 upgrade_proto.cpp:71] Note that future Caffe releases will only support input layers and not input fields.
I0925 23:22:03.038727 32370 net.cpp:49] Initializing net from parameters: 
name: "s2vt:features_to_lstm"
state {
  phase: TEST
}
layer {
  name: "input"
  type: "Input"
  top: "frames_fc7"
  top: "cont_sentence"
  top: "input_sentence"
  top: "stage_indicator"
  input_param {
    shape {
      dim: 1
      dim: 4096
    }
    shape {
      dim: 1
      dim: 1
    }
    shape {
      dim: 1
      dim: 1
    }
    shape {
      dim: 1
      dim: 1
    }
  }
}
layer {
  name: "embed_encoder"
  type: "InnerProduct"
  bottom: "frames_fc7"
  top: "embedded_in_frames"
  param {
    lr_mult: 1
    decay_mult: 1
  }
  param {
    lr_mult: 2
    decay_mult: 0
  }
  inner_product_param {
    num_output: 500
    weight_filler {
      type: "xavier"
    }
    bias_filler {
      type: "constant"
      value: 0.2
    }
  }
}
layer {
  name: "reshape_frames"
  type: "Reshape"
  bottom: "embedded_in_frames"
  top: "embedded_input_frames"
  reshape_param {
    shape {
      dim: 1
      dim: 1
      dim: 500
    }
  }
}
layer {
  name: "reshape_stage_indicator"
  type: "Reshape"
  bottom: "stage_indicator"
  top: "reshaped_stage_indicator"
  reshape_param {
    shape {
      dim: 1
      dim: 1
      dim: 1
    }
  }
}
layer {
  name: "embedding"
  type: "Embed"
  bottom: "input_sentence"
  top: "embedded_input_sentence"
  param {
    lr_mult: 1
  }
  embed_param {
    num_output: 500
    input_dim: 46168
    bias_term: false
    weight_filler {
      type: "uniform"
      min: -0.08
      max: 0.08
    }
  }
}
layer {
  name: "lstm1"
  type: "LSTM"
  bottom: "embedded_input_frames"
  bottom: "cont_sentence"
  top: "lstm1"
  recurrent_param {
    num_output: 1000
    weight_filler {
      type: "uniform"
      min: -0.08
      max: 0.08
    }
    bias_filler {
      type: "constant"
      value: 0
    }
  }
}
layer {
  name: "concat"
  type: "Concat"
  bottom: "lstm1"
  bottom: "embedded_input_sentence"
  bottom: "reshaped_stage_indicator"
  top: "lstm1_video_sequence"
  concat_param {
    concat_dim: 2
  }
}
layer {
  name: "lstm2"
  type: "LSTM"
  bottom: "lstm1_video_sequence"
  bottom: "cont_sentence"
  top: "lstm2"
  recurrent_param {
    num_output: 1000
    weight_filler {
      type: "uniform"
      min: -0.08
      max: 0.08
    }
    bias_filler {
      type: "constant"
      value: 0
    }
  }
}
layer {
  name: "predict"
  type: "InnerProduct"
  bottom: "lstm2"
  top: "predict"
  param {
    lr_mult: 1
    decay_mult: 1
  }
  param {
    lr_mult: 2
    decay_mult: 0
  }
  inner_product_param {
    num_output: 46168
    weight_filler {
      type: "uniform"
      min: -0.08
      max: 0.08
    }
    bias_filler {
      type: "constant"
      value: 0
    }
    axis: 2
  }
}
layer {
  name: "probs"
  type: "Softmax"
  bottom: "predict"
  top: "probs"
  softmax_param {
    axis: 2
  }
}
I0925 23:22:03.038729 32422 net.cpp:49] Initializing net from parameters: 
name: "s2vt:features_to_lstm"
state {
  phase: TEST
}
layer {
  name: "input"
  type: "Input"
  top: "frames_fc7"
  top: "cont_sentence"
  top: "input_sentence"
  top: "stage_indicator"
  input_param {
    shape {
      dim: 1
      dim: 4096
    }
    shape {
      dim: 1
      dim: 1
    }
    shape {
      dim: 1
      dim: 1
    }
    shape {
      dim: 1
      dim: 1
    }
  }
}
layer {
  name: "embed_encoder"
  type: "InnerProduct"
  bottom: "frames_fc7"
  top: "embedded_in_frames"
  param {
    lr_mult: 1
    decay_mult: 1
  }
  param {
    lr_mult: 2
    decay_mult: 0
  }
  inner_product_param {
    num_output: 500
    weight_filler {
      type: "xavier"
    }
    bias_filler {
      type: "constant"
      value: 0.2
    }
  }
}
layer {
  name: "reshape_frames"
  type: "Reshape"
  bottom: "embedded_in_frames"
  top: "embedded_input_frames"
  reshape_param {
    shape {
      dim: 1
      dim: 1
      dim: 500
    }
  }
}
layer {
  name: "reshape_stage_indicator"
  type: "Reshape"
  bottom: "stage_indicator"
  top: "reshaped_stage_indicator"
  reshape_param {
    shape {
      dim: 1
      dim: 1
      dim: 1
    }
  }
}
layer {
  name: "embedding"
  type: "Embed"
  bottom: "input_sentence"
  top: "embedded_input_sentence"
  param {
    lr_mult: 1
  }
  embed_param {
    num_output: 500
    input_dim: 46168
    bias_term: false
    weight_filler {
      type: "uniform"
      min: -0.08
      max: 0.08
    }
  }
}
layer {
  name: "lstm1"
  type: "LSTM"
  bottom: "embedded_input_frames"
  bottom: "cont_sentence"
  top: "lstm1"
  recurrent_param {
    num_output: 1000
    weight_filler {
      type: "uniform"
      min: -0.08
      max: 0.08
    }
    bias_filler {
      type: "constant"
      value: 0
    }
  }
}
layer {
  name: "concat"
  type: "Concat"
  bottom: "lstm1"
  bottom: "embedded_input_sentence"
  bottom: "reshaped_stage_indicator"
  top: "lstm1_video_sequence"
  concat_param {
    concat_dim: 2
  }
}
layer {
  name: "lstm2"
  type: "LSTM"
  bottom: "lstm1_video_sequence"
  bottom: "cont_sentence"
  top: "lstm2"
  recurrent_param {
    num_output: 1000
    weight_filler {
      type: "uniform"
      min: -0.08
      max: 0.08
    }
    bias_filler {
      type: "constant"
      value: 0
    }
  }
}
layer {
  name: "predict"
  type: "InnerProduct"
  bottom: "lstm2"
  top: "predict"
  param {
    lr_mult: 1
    decay_mult: 1
  }
  param {
    lr_mult: 2
    decay_mult: 0
  }
  inner_product_param {
    num_output: 46168
    weight_filler {
      type: "uniform"
      min: -0.08
      max: 0.08
    }
    bias_filler {
      type: "constant"
      value: 0
    }
    axis: 2
  }
}
layer {
  name: "probs"
  type: "Softmax"
  bottom: "predict"
  top: "probs"
  softmax_param {
    axis: 2
  }
}
I0925 23:22:03.038729 32396 net.cpp:49] Initializing net from parameters: 
name: "s2vt:features_to_lstm"
state {
  phase: TEST
}
layer {
  name: "input"
  type: "Input"
  top: "frames_fc7"
  top: "cont_sentence"
  top: "input_sentence"
  top: "stage_indicator"
  input_param {
    shape {
      dim: 1
      dim: 4096
    }
    shape {
      dim: 1
      dim: 1
    }
    shape {
      dim: 1
      dim: 1
    }
    shape {
      dim: 1
      dim: 1
    }
  }
}
layer {
  name: "embed_encoder"
  type: "InnerProduct"
  bottom: "frames_fc7"
  top: "embedded_in_frames"
  param {
    lr_mult: 1
    decay_mult: 1
  }
  param {
    lr_mult: 2
    decay_mult: 0
  }
  inner_product_param {
    num_output: 500
    weight_filler {
      type: "xavier"
    }
    bias_filler {
      type: "constant"
      value: 0.2
    }
  }
}
layer {
  name: "reshape_frames"
  type: "Reshape"
  bottom: "embedded_in_frames"
  top: "embedded_input_frames"
  reshape_param {
    shape {
      dim: 1
      dim: 1
      dim: 500
    }
  }
}
layer {
  name: "reshape_stage_indicator"
  type: "Reshape"
  bottom: "stage_indicator"
  top: "reshaped_stage_indicator"
  reshape_param {
    shape {
      dim: 1
      dim: 1
      dim: 1
    }
  }
}
layer {
  name: "embedding"
  type: "Embed"
  bottom: "input_sentence"
  top: "embedded_input_sentence"
  param {
    lr_mult: 1
  }
  embed_param {
    num_output: 500
    input_dim: 46168
    bias_term: false
    weight_filler {
      type: "uniform"
      min: -0.08
      max: 0.08
    }
  }
}
layer {
  name: "lstm1"
  type: "LSTM"
  bottom: "embedded_input_frames"
  bottom: "cont_sentence"
  top: "lstm1"
  recurrent_param {
    num_output: 1000
    weight_filler {
      type: "uniform"
      min: -0.08
      max: 0.08
    }
    bias_filler {
      type: "constant"
      value: 0
    }
  }
}
layer {
  name: "concat"
  type: "Concat"
  bottom: "lstm1"
  bottom: "embedded_input_sentence"
  bottom: "reshaped_stage_indicator"
  top: "lstm1_video_sequence"
  concat_param {
    concat_dim: 2
  }
}
layer {
  name: "lstm2"
  type: "LSTM"
  bottom: "lstm1_video_sequence"
  bottom: "cont_sentence"
  top: "lstm2"
  recurrent_param {
    num_output: 1000
    weight_filler {
      type: "uniform"
      min: -0.08
      max: 0.08
    }
    bias_filler {
      type: "constant"
      value: 0
    }
  }
}
layer {
  name: "predict"
  type: "InnerProduct"
  bottom: "lstm2"
  top: "predict"
  param {
    lr_mult: 1
    decay_mult: 1
  }
  param {
    lr_mult: 2
    decay_mult: 0
  }
  inner_product_param {
    num_output: 46168
    weight_filler {
      type: "uniform"
      min: -0.08
      max: 0.08
    }
    bias_filler {
      type: "constant"
      value: 0
    }
    axis: 2
  }
}
layer {
  name: "probs"
  type: "Softmax"
  bottom: "predict"
  top: "probs"
  softmax_param {
    axis: 2
  }
}
I0925 23:22:03.038729 32366 net.cpp:49] Initializing net from parameters: 
name: "s2vt:features_to_lstm"
state {
  phase: TEST
}
layer {
  name: "input"
  type: "Input"
  top: "frames_fc7"
  top: "cont_sentence"
  top: "input_sentence"
  top: "stage_indicator"
  input_param {
    shape {
      dim: 1
      dim: 4096
    }
    shape {
      dim: 1
      dim: 1
    }
    shape {
      dim: 1
      dim: 1
    }
    shape {
      dim: 1
      dim: 1
    }
  }
}
layer {
  name: "embed_encoder"
  type: "InnerProduct"
  bottom: "frames_fc7"
  top: "embedded_in_frames"
  param {
    lr_mult: 1
    decay_mult: 1
  }
  param {
    lr_mult: 2
    decay_mult: 0
  }
  inner_product_param {
    num_output: 500
    weight_filler {
      type: "xavier"
    }
    bias_filler {
      type: "constant"
      value: 0.2
    }
  }
}
layer {
  name: "reshape_frames"
  type: "Reshape"
  bottom: "embedded_in_frames"
  top: "embedded_input_frames"
  reshape_param {
    shape {
      dim: 1
      dim: 1
      dim: 500
    }
  }
}
layer {
  name: "reshape_stage_indicator"
  type: "Reshape"
  bottom: "stage_indicator"
  top: "reshaped_stage_indicator"
  reshape_param {
    shape {
      dim: 1
      dim: 1
      dim: 1
    }
  }
}
layer {
  name: "embedding"
  type: "Embed"
  bottom: "input_sentence"
  top: "embedded_input_sentence"
  param {
    lr_mult: 1
  }
  embed_param {
    num_output: 500
    input_dim: 46168
    bias_term: false
    weight_filler {
      type: "uniform"
      min: -0.08
      max: 0.08
    }
  }
}
layer {
  name: "lstm1"
  type: "LSTM"
  bottom: "embedded_input_frames"
  bottom: "cont_sentence"
  top: "lstm1"
  recurrent_param {
    num_output: 1000
    weight_filler {
      type: "uniform"
      min: -0.08
      max: 0.08
    }
    bias_filler {
      type: "constant"
      value: 0
    }
  }
}
layer {
  name: "concat"
  type: "Concat"
  bottom: "lstm1"
  bottom: "embedded_input_sentence"
  bottom: "reshaped_stage_indicator"
  top: "lstm1_video_sequence"
  concat_param {
    concat_dim: 2
  }
}
layer {
  name: "lstm2"
  type: "LSTM"
  bottom: "lstm1_video_sequence"
  bottom: "cont_sentence"
  top: "lstm2"
  recurrent_param {
    num_output: 1000
    weight_filler {
      type: "uniform"
      min: -0.08
      max: 0.08
    }
    bias_filler {
      type: "constant"
      value: 0
    }
  }
}
layer {
  name: "predict"
  type: "InnerProduct"
  bottom: "lstm2"
  top: "predict"
  param {
    lr_mult: 1
    decay_mult: 1
  }
  param {
    lr_mult: 2
    decay_mult: 0
  }
  inner_product_param {
    num_output: 46168
    weight_filler {
      type: "uniform"
      min: -0.08
      max: 0.08
    }
    bias_filler {
      type: "constant"
      value: 0
    }
    axis: 2
  }
}
layer {
  name: "probs"
  type: "Softmax"
  bottom: "predict"
  top: "probs"
  softmax_param {
    axis: 2
  }
}
I0925 23:22:03.038729 32384 net.cpp:49] Initializing net from parameters: 
name: "s2vt:features_to_lstm"
state {
  phase: TEST
}
layer {
  name: "input"
  type: "Input"
  top: "frames_fc7"
  top: "cont_sentence"
  top: "input_sentence"
  top: "stage_indicator"
  input_param {
    shape {
      dim: 1
      dim: 4096
    }
    shape {
      dim: 1
      dim: 1
    }
    shape {
      dim: 1
      dim: 1
    }
    shape {
      dim: 1
      dim: 1
    }
  }
}
layer {
  name: "embed_encoder"
  type: "InnerProduct"
  bottom: "frames_fc7"
  top: "embedded_in_frames"
  param {
    lr_mult: 1
    decay_mult: 1
  }
  param {
    lr_mult: 2
    decay_mult: 0
  }
  inner_product_param {
    num_output: 500
    weight_filler {
      type: "xavier"
    }
    bias_filler {
      type: "constant"
      value: 0.2
    }
  }
}
layer {
  name: "reshape_frames"
  type: "Reshape"
  bottom: "embedded_in_frames"
  top: "embedded_input_frames"
  reshape_param {
    shape {
      dim: 1
      dim: 1
      dim: 500
    }
  }
}
layer {
  name: "reshape_stage_indicator"
  type: "Reshape"
  bottom: "stage_indicator"
  top: "reshaped_stage_indicator"
  reshape_param {
    shape {
      dim: 1
      dim: 1
      dim: 1
    }
  }
}
layer {
  name: "embedding"
  type: "Embed"
  bottom: "input_sentence"
  top: "embedded_input_sentence"
  param {
    lr_mult: 1
  }
  embed_param {
    num_output: 500
    input_dim: 46168
    bias_term: false
    weight_filler {
      type: "uniform"
      min: -0.08
      max: 0.08
    }
  }
}
layer {
  name: "lstm1"
  type: "LSTM"
  bottom: "embedded_input_frames"
  bottom: "cont_sentence"
  top: "lstm1"
  recurrent_param {
    num_output: 1000
    weight_filler {
      type: "uniform"
      min: -0.08
      max: 0.08
    }
    bias_filler {
      type: "constant"
      value: 0
    }
  }
}
layer {
  name: "concat"
  type: "Concat"
  bottom: "lstm1"
  bottom: "embedded_input_sentence"
  bottom: "reshaped_stage_indicator"
  top: "lstm1_video_sequence"
  concat_param {
    concat_dim: 2
  }
}
layer {
  name: "lstm2"
  type: "LSTM"
  bottom: "lstm1_video_sequence"
  bottom: "cont_sentence"
  top: "lstm2"
  recurrent_param {
    num_output: 1000
    weight_filler {
      type: "uniform"
      min: -0.08
      max: 0.08
    }
    bias_filler {
      type: "constant"
      value: 0
    }
  }
}
layer {
  name: "predict"
  type: "InnerProduct"
  bottom: "lstm2"
  top: "predict"
  param {
    lr_mult: 1
    decay_mult: 1
  }
  param {
    lr_mult: 2
    decay_mult: 0
  }
  inner_product_param {
    num_output: 46168
    weight_filler {
      type: "uniform"
      min: -0.08
      max: 0.08
    }
    bias_filler {
      type: "constant"
      value: 0
    }
    axis: 2
  }
}
layer {
  name: "probs"
  type: "Softmax"
  bottom: "predict"
  top: "probs"
  softmax_param {
    axis: 2
  }
}
I0925 23:22:03.038743 32362 net.cpp:49] Initializing net from parameters: 
name: "s2vt:features_to_lstm"
state {
  phase: TEST
}
layer {
  name: "input"
  type: "Input"
  top: "frames_fc7"
  top: "cont_sentence"
  top: "input_sentence"
  top: "stage_indicator"
  input_param {
    shape {
      dim: 1
      dim: 4096
    }
    shape {
      dim: 1
      dim: 1
    }
    shape {
      dim: 1
      dim: 1
    }
    shape {
      dim: 1
      dim: 1
    }
  }
}
layer {
  name: "embed_encoder"
  type: "InnerProduct"
  bottom: "frames_fc7"
  top: "embedded_in_frames"
  param {
    lr_mult: 1
    decay_mult: 1
  }
  param {
    lr_mult: 2
    decay_mult: 0
  }
  inner_product_param {
    num_output: 500
    weight_filler {
      type: "xavier"
    }
    bias_filler {
      type: "constant"
      value: 0.2
    }
  }
}
layer {
  name: "reshape_frames"
  type: "Reshape"
  bottom: "embedded_in_frames"
  top: "embedded_input_frames"
  reshape_param {
    shape {
      dim: 1
      dim: 1
      dim: 500
    }
  }
}
layer {
  name: "reshape_stage_indicator"
  type: "Reshape"
  bottom: "stage_indicator"
  top: "reshaped_stage_indicator"
  reshape_param {
    shape {
      dim: 1
      dim: 1
      dim: 1
    }
  }
}
layer {
  name: "embedding"
  type: "Embed"
  bottom: "input_sentence"
  top: "embedded_input_sentence"
  param {
    lr_mult: 1
  }
  embed_param {
    num_output: 500
    input_dim: 46168
    bias_term: false
    weight_filler {
      type: "uniform"
      min: -0.08
      max: 0.08
    }
  }
}
layer {
  name: "lstm1"
  type: "LSTM"
  bottom: "embedded_input_frames"
  bottom: "cont_sentence"
  top: "lstm1"
  recurrent_param {
    num_output: 1000
    weight_filler {
      type: "uniform"
      min: -0.08
      max: 0.08
    }
    bias_filler {
      type: "constant"
      value: 0
    }
  }
}
layer {
  name: "concat"
  type: "Concat"
  bottom: "lstm1"
  bottom: "embedded_input_sentence"
  bottom: "reshaped_stage_indicator"
  top: "lstm1_video_sequence"
  concat_param {
    concat_dim: 2
  }
}
layer {
  name: "lstm2"
  type: "LSTM"
  bottom: "lstm1_video_sequence"
  bottom: "cont_sentence"
  top: "lstm2"
  recurrent_param {
    num_output: 1000
    weight_filler {
      type: "uniform"
      min: -0.08
      max: 0.08
    }
    bias_filler {
      type: "constant"
      value: 0
    }
  }
}
layer {
  name: "predict"
  type: "InnerProduct"
  bottom: "lstm2"
  top: "predict"
  param {
    lr_mult: 1
    decay_mult: 1
  }
  param {
    lr_mult: 2
    decay_mult: 0
  }
  inner_product_param {
    num_output: 46168
    weight_filler {
      type: "uniform"
      min: -0.08
      max: 0.08
    }
    bias_filler {
      type: "constant"
      value: 0
    }
    axis: 2
  }
}
layer {
  name: "probs"
  type: "Softmax"
  bottom: "predict"
  top: "probs"
  softmax_param {
    axis: 2
  }
}
I0925 23:22:03.038790 32410 net.cpp:49] Initializing net from parameters: 
name: "s2vt:features_to_lstm"
state {
  phase: TEST
}
layer {
  name: "input"
  type: "Input"
  top: "frames_fc7"
  top: "cont_sentence"
  top: "input_sentence"
  top: "stage_indicator"
  input_param {
    shape {
      dim: 1
      dim: 4096
    }
    shape {
      dim: 1
      dim: 1
    }
    shape {
      dim: 1
      dim: 1
    }
    shape {
      dim: 1
      dim: 1
    }
  }
}
layer {
  name: "embed_encoder"
  type: "InnerProduct"
  bottom: "frames_fc7"
  top: "embedded_in_frames"
  param {
    lr_mult: 1
    decay_mult: 1
  }
  param {
    lr_mult: 2
    decay_mult: 0
  }
  inner_product_param {
    num_output: 500
    weight_filler {
      type: "xavier"
    }
    bias_filler {
      type: "constant"
      value: 0.2
    }
  }
}
layer {
  name: "reshape_frames"
  type: "Reshape"
  bottom: "embedded_in_frames"
  top: "embedded_input_frames"
  reshape_param {
    shape {
      dim: 1
      dim: 1
      dim: 500
    }
  }
}
layer {
  name: "reshape_stage_indicator"
  type: "Reshape"
  bottom: "stage_indicator"
  top: "reshaped_stage_indicator"
  reshape_param {
    shape {
      dim: 1
      dim: 1
      dim: 1
    }
  }
}
layer {
  name: "embedding"
  type: "Embed"
  bottom: "input_sentence"
  top: "embedded_input_sentence"
  param {
    lr_mult: 1
  }
  embed_param {
    num_output: 500
    input_dim: 46168
    bias_term: false
    weight_filler {
      type: "uniform"
      min: -0.08
      max: 0.08
    }
  }
}
layer {
  name: "lstm1"
  type: "LSTM"
  bottom: "embedded_input_frames"
  bottom: "cont_sentence"
  top: "lstm1"
  recurrent_param {
    num_output: 1000
    weight_filler {
      type: "uniform"
      min: -0.08
      max: 0.08
    }
    bias_filler {
      type: "constant"
      value: 0
    }
  }
}
layer {
  name: "concat"
  type: "Concat"
  bottom: "lstm1"
  bottom: "embedded_input_sentence"
  bottom: "reshaped_stage_indicator"
  top: "lstm1_video_sequence"
  concat_param {
    concat_dim: 2
  }
}
layer {
  name: "lstm2"
  type: "LSTM"
  bottom: "lstm1_video_sequence"
  bottom: "cont_sentence"
  top: "lstm2"
  recurrent_param {
    num_output: 1000
    weight_filler {
      type: "uniform"
      min: -0.08
      max: 0.08
    }
    bias_filler {
      type: "constant"
      value: 0
    }
  }
}
layer {
  name: "predict"
  type: "InnerProduct"
  bottom: "lstm2"
  top: "predict"
  param {
    lr_mult: 1
    decay_mult: 1
  }
  param {
    lr_mult: 2
    decay_mult: 0
  }
  inner_product_param {
    num_output: 46168
    weight_filler {
      type: "uniform"
      min: -0.08
      max: 0.08
    }
    bias_filler {
      type: "constant"
      value: 0
    }
    axis: 2
  }
}
layer {
  name: "probs"
  type: "Softmax"
  bottom: "predict"
  top: "probs"
  softmax_param {
    axis: 2
  }
}
I0925 23:22:03.038790 32374 net.cpp:49] Initializing net from parameters: 
name: "s2vt:features_to_lstm"
state {
  phase: TEST
}
layer {
  name: "input"
  type: "Input"
  top: "frames_fc7"
  top: "cont_sentence"
  top: "input_sentence"
  top: "stage_indicator"
  input_param {
    shape {
      dim: 1
      dim: 4096
    }
    shape {
      dim: 1
      dim: 1
    }
    shape {
      dim: 1
      dim: 1
    }
    shape {
      dim: 1
      dim: 1
    }
  }
}
layer {
  name: "embed_encoder"
  type: "InnerProduct"
  bottom: "frames_fc7"
  top: "embedded_in_frames"
  param {
    lr_mult: 1
    decay_mult: 1
  }
  param {
    lr_mult: 2
    decay_mult: 0
  }
  inner_product_param {
    num_output: 500
    weight_filler {
      type: "xavier"
    }
    bias_filler {
      type: "constant"
      value: 0.2
    }
  }
}
layer {
  name: "reshape_frames"
  type: "Reshape"
  bottom: "embedded_in_frames"
  top: "embedded_input_frames"
  reshape_param {
    shape {
      dim: 1
      dim: 1
      dim: 500
    }
  }
}
layer {
  name: "reshape_stage_indicator"
  type: "Reshape"
  bottom: "stage_indicator"
  top: "reshaped_stage_indicator"
  reshape_param {
    shape {
      dim: 1
      dim: 1
      dim: 1
    }
  }
}
layer {
  name: "embedding"
  type: "Embed"
  bottom: "input_sentence"
  top: "embedded_input_sentence"
  param {
    lr_mult: 1
  }
  embed_param {
    num_output: 500
    input_dim: 46168
    bias_term: false
    weight_filler {
      type: "uniform"
      min: -0.08
      max: 0.08
    }
  }
}
layer {
  name: "lstm1"
  type: "LSTM"
  bottom: "embedded_input_frames"
  bottom: "cont_sentence"
  top: "lstm1"
  recurrent_param {
    num_output: 1000
    weight_filler {
      type: "uniform"
      min: -0.08
      max: 0.08
    }
    bias_filler {
      type: "constant"
      value: 0
    }
  }
}
layer {
  name: "concat"
  type: "Concat"
  bottom: "lstm1"
  bottom: "embedded_input_sentence"
  bottom: "reshaped_stage_indicator"
  top: "lstm1_video_sequence"
  concat_param {
    concat_dim: 2
  }
}
layer {
  name: "lstm2"
  type: "LSTM"
  bottom: "lstm1_video_sequence"
  bottom: "cont_sentence"
  top: "lstm2"
  recurrent_param {
    num_output: 1000
    weight_filler {
      type: "uniform"
      min: -0.08
      max: 0.08
    }
    bias_filler {
      type: "constant"
      value: 0
    }
  }
}
layer {
  name: "predict"
  type: "InnerProduct"
  bottom: "lstm2"
  top: "predict"
  param {
    lr_mult: 1
    decay_mult: 1
  }
  param {
    lr_mult: 2
    decay_mult: 0
  }
  inner_product_param {
    num_output: 46168
    weight_filler {
      type: "uniform"
      min: -0.08
      max: 0.08
    }
    bias_filler {
      type: "constant"
      value: 0
    }
    axis: 2
  }
}
layer {
  name: "probs"
  type: "Softmax"
  bottom: "predict"
  top: "probs"
  softmax_param {
    axis: 2
  }
}
I0925 23:22:03.038872 32370 layer_factory.hpp:77] Creating layer input
I0925 23:22:03.038874 32396 layer_factory.hpp:77] Creating layer input
I0925 23:22:03.038874 32384 layer_factory.hpp:77] Creating layer input
I0925 23:22:03.038874 32422 layer_factory.hpp:77] Creating layer input
I0925 23:22:03.038874 32366 layer_factory.hpp:77] Creating layer input
…
W0925 23:22:03.100090 32418 upgrade_proto.cpp:71] Note that future Caffe releases will only support input layers and not input fields.
I0925 23:22:03.100311 32418 net.cpp:49] Initializing net from parameters: 
name: "s2vt:features_to_lstm"
state {
  phase: TEST
}
layer {
  name: "input"
  type: "Input"
  top: "frames_fc7"
  top: "cont_sentence"
  top: "input_sentence"
  top: "stage_indicator"
  input_param {
    shape {
      dim: 1
      dim: 4096
    }
    shape {
      dim: 1
      dim: 1
    }
    shape {
      dim: 1
      dim: 1
    }
    shape {
      dim: 1
      dim: 1
    }
  }
}
layer {
  name: "embed_encoder"
  type: "InnerProduct"
  bottom: "frames_fc7"
  top: "embedded_in_frames"
  param {
    lr_mult: 1
    decay_mult: 1
  }
  param {
    lr_mult: 2
    decay_mult: 0
  }
  inner_product_param {
    num_output: 500
    weight_filler {
      type: "xavier"
    }
    bias_filler {
      type: "constant"
      value: 0.2
    }
  }
}
layer {
  name: "reshape_frames"
  type: "Reshape"
  bottom: "embedded_in_frames"
  top: "embedded_input_frames"
  reshape_param {
    shape {
      dim: 1
      dim: 1
      dim: 500
    }
  }
}
layer {
  name: "reshape_stage_indicator"
  type: "Reshape"
  bottom: "stage_indicator"
  top: "reshaped_stage_indicator"
  reshape_param {
    shape {
      dim: 1
      dim: 1
      dim: 1
    }
  }
}
layer {
  name: "embedding"
  type: "Embed"
  bottom: "input_sentence"
  top: "embedded_input_sentence"
  param {
    lr_mult: 1
  }
  embed_param {
    num_output: 500
    input_dim: 46168
    bias_term: false
    weight_filler {
      type: "uniform"
      min: -0.08
      max: 0.08
    }
  }
}
layer {
  name: "lstm1"
  type: "LSTM"
  bottom: "embedded_input_frames"
  bottom: "cont_sentence"
  top: "lstm1"
  recurrent_param {
    num_output: 1000
    weight_filler {
      type: "uniform"
      min: -0.08
      max: 0.08
    }
    bias_filler {
      type: "constant"
      value: 0
    }
  }
}
layer {
  name: "concat"
  type: "Concat"
  bottom: "lstm1"
  bottom: "embedded_input_sentence"
  bottom: "reshaped_stage_indicator"
  top: "lstm1_video_sequence"
  concat_param {
    concat_dim: 2
  }
}
layer {
  name: "lstm2"
  type: "LSTM"
  bottom: "lstm1_video_sequence"
  bottom: "cont_sentence"
  top: "lstm2"
  recurrent_param {
    num_output: 1000
    weight_filler {
      type: "uniform"
      min: -0.08
      max: 0.08
    }
    bias_filler {
      type: "constant"
      value: 0
    }
  }
}
layer {
  name: "predict"
  type: "InnerProduct"
  bottom: "lstm2"
  top: "predict"
  param {
    lr_mult: 1
    decay_mult: 1
  }
  param {
    lr_mult: 2
    decay_mult: 0
  }
  inner_product_param {
    num_output: 46168
    weight_filler {
      type: "uniform"
      min: -0.08
      max: 0.08
    }
    bias_filler {
      type: "constant"
      value: 0
    }
    axis: 2
  }
}
layer {
  name: "probs"
  type: "Softmax"
  bottom: "predict"
  top: "probs"
  softmax_param {
    axis: 2
  }
}
I0925 23:22:03.100388 32390 net.cpp:49] Initializing net from parameters: 
name: "s2vt:features_to_lstm"
state {
  phase: TEST
}
layer {
  name: "input"
  type: "Input"
  top: "frames_fc7"
  top: "cont_sentence"
  top: "input_sentence"
  top: "stage_indicator"
  input_param {
    shape {
      dim: 1
      dim: 4096
    }
    shape {
      dim: 1
      dim: 1
    }
    shape {
      dim: 1
      dim: 1
    }
    shape {
      dim: 1
      dim: 1
    }
  }
}
layer {
  name: "embed_encoder"
  type: "InnerProduct"
  bottom: "frames_fc7"
  top: "embedded_in_frames"
  param {
    lr_mult: 1
    decay_mult: 1
  }
  param {
    lr_mult: 2
    decay_mult: 0
  }
  inner_product_param {
    num_output: 500
    weight_filler {
      type: "xavier"
    }
    bias_filler {
      type: "constant"
      value: 0.2
    }
  }
}
layer {
  name: "reshape_frames"
  type: "Reshape"
  bottom: "embedded_in_frames"
  top: "embedded_input_frames"
  reshape_param {
    shape {
      dim: 1
      dim: 1
      dim: 500
    }
  }
}
layer {
  name: "reshape_stage_indicator"
  type: "Reshape"
  bottom: "stage_indicator"
  top: "reshaped_stage_indicator"
  reshape_param {
    shape {
      dim: 1
      dim: 1
      dim: 1
    }
  }
}
layer {
  name: "embedding"
  type: "Embed"
  bottom: "input_sentence"
  top: "embedded_input_sentence"
  param {
    lr_mult: 1
  }
  embed_param {
    num_output: 500
    input_dim: 46168
    bias_term: false
    weight_filler {
      type: "uniform"
      min: -0.08
      max: 0.08
    }
  }
}
layer {
  name: "lstm1"
  type: "LSTM"
  bottom: "embedded_input_frames"
  bottom: "cont_sentence"
  top: "lstm1"
  recurrent_param {
    num_output: 1000
    weight_filler {
      type: "uniform"
      min: -0.08
      max: 0.08
    }
    bias_filler {
      type: "constant"
      value: 0
    }
  }
}
layer {
  name: "concat"
  type: "Concat"
  bottom: "lstm1"
  bottom: "embedded_input_sentence"
  bottom: "reshaped_stage_indicator"
  top: "lstm1_video_sequence"
  concat_param {
    concat_dim: 2
  }
}
layer {
  name: "lstm2"
  type: "LSTM"
  bottom: "lstm1_video_sequence"
  bottom: "cont_sentence"
  top: "lstm2"
  recurrent_param {
    num_output: 1000
    weight_filler {
      type: "uniform"
      min: -0.08
      max: 0.08
    }
    bias_filler {
      type: "constant"
      value: 0
    }
  }
}
layer {
  name: "predict"
  type: "InnerProduct"
  bottom: "lstm2"
  top: "predict"
  param {
    lr_mult: 1
    decay_mult: 1
  }
  param {
    lr_mult: 2
    decay_mult: 0
  }
  inner_product_param {
    num_output: 46168
    weight_filler {
      type: "uniform"
      min: -0.08
      max: 0.08
    }
    bias_filler {
      type: "constant"
      value: 0
    }
    axis: 2
  }
}
layer {
  name: "probs"
  type: "Softmax"
  bottom: "predict"
  top: "probs"
  softmax_param {
    axis: 2
  }
}
I0925 23:22:03.100412 32418 layer_factory.hpp:77] Creating layer input
I0925 23:22:03.100426 32418 net.cpp:91] Creating Layer input
I0925 23:22:03.100433 32418 net.cpp:399] input -> frames_fc7
I0925 23:22:03.100446 32418 net.cpp:399] input -> cont_sentence
I0925 23:22:03.100457 32418 net.cpp:399] input -> input_sentence
I0925 23:22:03.100467 32418 net.cpp:399] input -> stage_indicator
I0925 23:22:03.100486 32390 layer_factory.hpp:77] Creating layer input
I0925 23:22:03.100502 32390 net.cpp:91] Creating Layer input
I0925 23:22:03.100510 32390 net.cpp:399] input -> frames_fc7
I0925 23:22:03.100527 32390 net.cpp:399] input -> cont_sentence
I0925 23:22:03.100538 32390 net.cpp:399] input -> input_sentence
I0925 23:22:03.100546 32390 net.cpp:399] input -> stage_indicator
I0925 23:22:03.529220 32370 net.cpp:141] Setting up input
I0925 23:22:03.529284 32370 net.cpp:148] Top shape: 1 4096 (4096)
I0925 23:22:03.529292 32370 net.cpp:148] Top shape: 1 1 (1)
I0925 23:22:03.529299 32370 net.cpp:148] Top shape: 1 1 (1)
I0925 23:22:03.529304 32370 net.cpp:148] Top shape: 1 1 (1)
I0925 23:22:03.529309 32370 net.cpp:156] Memory required for data: 16396
I0925 23:22:03.529327 32370 layer_factory.hpp:77] Creating layer cont_sentence_input_1_split
I0925 23:22:03.529357 32370 net.cpp:91] Creating Layer cont_sentence_input_1_split
I0925 23:22:03.529353 32418 net.cpp:141] Setting up input
I0925 23:22:03.529371 32370 net.cpp:425] cont_sentence_input_1_split <- cont_sentence
I0925 23:22:03.529381 32418 net.cpp:148] Top shape: 1 4096 (4096)
I0925 23:22:03.529388 32418 net.cpp:148] Top shape: 1 1 (1)
I0925 23:22:03.529393 32370 net.cpp:399] cont_sentence_input_1_split -> cont_sentence_input_1_split_0
I0925 23:22:03.529394 32418 net.cpp:148] Top shape: 1 1 (1)
I0925 23:22:03.529402 32418 net.cpp:148] Top shape: 1 1 (1)
I0925 23:22:03.529405 32418 net.cpp:156] Memory required for data: 16396
I0925 23:22:03.529408 32370 net.cpp:399] cont_sentence_input_1_split -> cont_sentence_input_1_split_1
I0925 23:22:03.529412 32418 layer_factory.hpp:77] Creating layer cont_sentence_input_1_split
I0925 23:22:03.529422 32418 net.cpp:91] Creating Layer cont_sentence_input_1_split
I0925 23:22:03.529428 32418 net.cpp:425] cont_sentence_input_1_split <- cont_sentence
I0925 23:22:03.529438 32418 net.cpp:399] cont_sentence_input_1_split -> cont_sentence_input_1_split_0
I0925 23:22:03.529449 32418 net.cpp:399] cont_sentence_input_1_split -> cont_sentence_input_1_split_1
I0925 23:22:03.529476 32370 net.cpp:141] Setting up cont_sentence_input_1_split
I0925 23:22:03.529486 32370 net.cpp:148] Top shape: 1 1 (1)
I0925 23:22:03.529492 32370 net.cpp:148] Top shape: 1 1 (1)
I0925 23:22:03.529496 32370 net.cpp:156] Memory required for data: 16404
I0925 23:22:03.529501 32370 layer_factory.hpp:77] Creating layer embed_encoder
I0925 23:22:03.529521 32370 net.cpp:91] Creating Layer embed_encoder
I0925 23:22:03.529526 32370 net.cpp:425] embed_encoder <- frames_fc7
I0925 23:22:03.529536 32370 net.cpp:399] embed_encoder -> embedded_in_frames
I0925 23:22:03.529649 32396 net.cpp:141] Setting up input
I0925 23:22:03.529687 32396 net.cpp:148] Top shape: 1 4096 (4096)
I0925 23:22:03.529695 32396 net.cpp:148] Top shape: 1 1 (1)
I0925 23:22:03.529701 32396 net.cpp:148] Top shape: 1 1 (1)
I0925 23:22:03.529706 32396 net.cpp:148] Top shape: 1 1 (1)
I0925 23:22:03.529705 32366 net.cpp:141] Setting up input
I0925 23:22:03.529711 32396 net.cpp:156] Memory required for data: 16396
I0925 23:22:03.529726 32366 net.cpp:148] Top shape: 1 4096 (4096)
I0925 23:22:03.529729 32396 layer_factory.hpp:77] Creating layer cont_sentence_input_1_split
I0925 23:22:03.529733 32366 net.cpp:148] Top shape: 1 1 (1)
I0925 23:22:03.529739 32366 net.cpp:148] Top shape: 1 1 (1)
I0925 23:22:03.529744 32366 net.cpp:148] Top shape: 1 1 (1)
I0925 23:22:03.529742 32410 net.cpp:141] Setting up input
I0925 23:22:03.529748 32366 net.cpp:156] Memory required for data: 16396
I0925 23:22:03.529749 32396 net.cpp:91] Creating Layer cont_sentence_input_1_split
I0925 23:22:03.529765 32366 layer_factory.hpp:77] Creating layer cont_sentence_input_1_split
I0925 23:22:03.529763 32410 net.cpp:148] Top shape: 1 4096 (4096)
I0925 23:22:03.529775 32396 net.cpp:425] cont_sentence_input_1_split <- cont_sentence
I0925 23:22:03.529779 32410 net.cpp:148] Top shape: 1 1 (1)
I0925 23:22:03.529777 32366 net.cpp:91] Creating Layer cont_sentence_input_1_split
I0925 23:22:03.529786 32410 net.cpp:148] Top shape: 1 1 (1)
I0925 23:22:03.529788 32366 net.cpp:425] cont_sentence_input_1_split <- cont_sentence
I0925 23:22:03.529793 32410 net.cpp:148] Top shape: 1 1 (1)
I0925 23:22:03.529798 32366 net.cpp:399] cont_sentence_input_1_split -> cont_sentence_input_1_split_0
I0925 23:22:03.529793 32396 net.cpp:399] cont_sentence_input_1_split -> cont_sentence_input_1_split_0
I0925 23:22:03.529801 32410 net.cpp:156] Memory required for data: 16396
I0925 23:22:03.529808 32410 layer_factory.hpp:77] Creating layer cont_sentence_input_1_split
I0925 23:22:03.529811 32366 net.cpp:399] cont_sentence_input_1_split -> cont_sentence_input_1_split_1
I0925 23:22:03.529814 32396 net.cpp:399] cont_sentence_input_1_split -> cont_sentence_input_1_split_1
I0925 23:22:03.529819 32410 net.cpp:91] Creating Layer cont_sentence_input_1_split
I0925 23:22:03.529825 32410 net.cpp:425] cont_sentence_input_1_split <- cont_sentence
I0925 23:22:03.529836 32410 net.cpp:399] cont_sentence_input_1_split -> cont_sentence_input_1_split_0
I0925 23:22:03.529840 32384 net.cpp:141] Setting up input
I0925 23:22:03.529850 32410 net.cpp:399] cont_sentence_input_1_split -> cont_sentence_input_1_split_1
I0925 23:22:03.529856 32384 net.cpp:148] Top shape: 1 4096 (4096)
I0925 23:22:03.529865 32384 net.cpp:148] Top shape: 1 1 (1)
I0925 23:22:03.529870 32384 net.cpp:148] Top shape: 1 1 (1)
I0925 23:22:03.529875 32384 net.cpp:148] Top shape: 1 1 (1)
I0925 23:22:03.529880 32384 net.cpp:156] Memory required for data: 16396
I0925 23:22:03.529886 32384 layer_factory.hpp:77] Creating layer cont_sentence_input_1_split
I0925 23:22:03.529894 32384 net.cpp:91] Creating Layer cont_sentence_input_1_split
I0925 23:22:03.529899 32384 net.cpp:425] cont_sentence_input_1_split <- cont_sentence
I0925 23:22:03.529907 32384 net.cpp:399] cont_sentence_input_1_split -> cont_sentence_input_1_split_0
I0925 23:22:03.529918 32384 net.cpp:399] cont_sentence_input_1_split -> cont_sentence_input_1_split_1
I0925 23:22:03.533861 32362 net.cpp:141] Setting up input
I0925 23:22:03.533881 32362 net.cpp:148] Top shape: 1 4096 (4096)
I0925 23:22:03.533888 32362 net.cpp:148] Top shape: 1 1 (1)
I0925 23:22:03.533895 32362 net.cpp:148] Top shape: 1 1 (1)
I0925 23:22:03.533900 32362 net.cpp:148] Top shape: 1 1 (1)
I0925 23:22:03.533903 32362 net.cpp:156] Memory required for data: 16396
I0925 23:22:03.533910 32362 layer_factory.hpp:77] Creating layer cont_sentence_input_1_split
I0925 23:22:03.533927 32362 net.cpp:91] Creating Layer cont_sentence_input_1_split
I0925 23:22:03.533934 32362 net.cpp:425] cont_sentence_input_1_split <- cont_sentence
I0925 23:22:03.533931 32396 net.cpp:141] Setting up cont_sentence_input_1_split
I0925 23:22:03.533942 32362 net.cpp:399] cont_sentence_input_1_split -> cont_sentence_input_1_split_0
I0925 23:22:03.533962 32396 net.cpp:148] Top shape: 1 1 (1)
I0925 23:22:03.533972 32396 net.cpp:148] Top shape: 1 1 (1)
I0925 23:22:03.533974 32362 net.cpp:399] cont_sentence_input_1_split -> cont_sentence_input_1_split_1
I0925 23:22:03.533975 32396 net.cpp:156] Memory required for data: 16404
I0925 23:22:03.533994 32396 layer_factory.hpp:77] Creating layer embed_encoder
I0925 23:22:03.534011 32396 net.cpp:91] Creating Layer embed_encoder
I0925 23:22:03.534018 32396 net.cpp:425] embed_encoder <- frames_fc7
I0925 23:22:03.534029 32396 net.cpp:399] embed_encoder -> embedded_in_frames
I0925 23:22:03.534059 32410 net.cpp:141] Setting up cont_sentence_input_1_split
I0925 23:22:03.534072 32410 net.cpp:148] Top shape: 1 1 (1)
I0925 23:22:03.534078 32410 net.cpp:148] Top shape: 1 1 (1)
I0925 23:22:03.534086 32410 net.cpp:156] Memory required for data: 16404
I0925 23:22:03.534095 32410 layer_factory.hpp:77] Creating layer embed_encoder
I0925 23:22:03.534102 32384 net.cpp:141] Setting up cont_sentence_input_1_split
I0925 23:22:03.534106 32410 net.cpp:91] Creating Layer embed_encoder
I0925 23:22:03.534124 32384 net.cpp:148] Top shape: 1 1 (1)
I0925 23:22:03.534126 32410 net.cpp:425] embed_encoder <- frames_fc7
I0925 23:22:03.534132 32384 net.cpp:148] Top shape: 1 1 (1)
I0925 23:22:03.534137 32384 net.cpp:156] Memory required for data: 16404
I0925 23:22:03.534137 32410 net.cpp:399] embed_encoder -> embedded_in_frames
I0925 23:22:03.534142 32384 layer_factory.hpp:77] Creating layer embed_encoder
I0925 23:22:03.534154 32384 net.cpp:91] Creating Layer embed_encoder
I0925 23:22:03.534160 32384 net.cpp:425] embed_encoder <- frames_fc7
I0925 23:22:03.534168 32384 net.cpp:399] embed_encoder -> embedded_in_frames
I0925 23:22:03.534196 32390 net.cpp:141] Setting up input
I0925 23:22:03.534215 32390 net.cpp:148] Top shape: 1 4096 (4096)
I0925 23:22:03.534222 32390 net.cpp:148] Top shape: 1 1 (1)
I0925 23:22:03.534229 32390 net.cpp:148] Top shape: 1 1 (1)
I0925 23:22:03.534234 32390 net.cpp:148] Top shape: 1 1 (1)
I0925 23:22:03.534237 32390 net.cpp:156] Memory required for data: 16396
I0925 23:22:03.534243 32390 layer_factory.hpp:77] Creating layer cont_sentence_input_1_split
I0925 23:22:03.534255 32390 net.cpp:91] Creating Layer cont_sentence_input_1_split
I0925 23:22:03.534260 32390 net.cpp:425] cont_sentence_input_1_split <- cont_sentence
I0925 23:22:03.534268 32390 net.cpp:399] cont_sentence_input_1_split -> cont_sentence_input_1_split_0
I0925 23:22:03.534279 32390 net.cpp:399] cont_sentence_input_1_split -> cont_sentence_input_1_split_1
I0925 23:22:03.538255 32418 net.cpp:141] Setting up cont_sentence_input_1_split
I0925 23:22:03.538275 32418 net.cpp:148] Top shape: 1 1 (1)
I0925 23:22:03.538282 32418 net.cpp:148] Top shape: 1 1 (1)
I0925 23:22:03.538286 32418 net.cpp:156] Memory required for data: 16404
I0925 23:22:03.538292 32418 layer_factory.hpp:77] Creating layer embed_encoder
I0925 23:22:03.538310 32418 net.cpp:91] Creating Layer embed_encoder
I0925 23:22:03.538311 32362 net.cpp:141] Setting up cont_sentence_input_1_split
I0925 23:22:03.538316 32418 net.cpp:425] embed_encoder <- frames_fc7
I0925 23:22:03.538331 32362 net.cpp:148] Top shape: 1 1 (1)
I0925 23:22:03.538337 32362 net.cpp:148] Top shape: 1 1 (1)
I0925 23:22:03.538338 32418 net.cpp:399] embed_encoder -> embedded_in_frames
I0925 23:22:03.538341 32362 net.cpp:156] Memory required for data: 16404
I0925 23:22:03.538347 32362 layer_factory.hpp:77] Creating layer embed_encoder
I0925 23:22:03.538368 32362 net.cpp:91] Creating Layer embed_encoder
I0925 23:22:03.538375 32362 net.cpp:425] embed_encoder <- frames_fc7
I0925 23:22:03.538383 32362 net.cpp:399] embed_encoder -> embedded_in_frames
I0925 23:22:03.546270 32366 net.cpp:141] Setting up cont_sentence_input_1_split
I0925 23:22:03.546315 32366 net.cpp:148] Top shape: 1 1 (1)
I0925 23:22:03.546324 32366 net.cpp:148] Top shape: 1 1 (1)
I0925 23:22:03.546327 32366 net.cpp:156] Memory required for data: 16404
I0925 23:22:03.546335 32366 layer_factory.hpp:77] Creating layer embed_encoder
I0925 23:22:03.546360 32366 net.cpp:91] Creating Layer embed_encoder
I0925 23:22:03.546366 32366 net.cpp:425] embed_encoder <- frames_fc7
I0925 23:22:03.546370 32422 net.cpp:141] Setting up input
I0925 23:22:03.546380 32366 net.cpp:399] embed_encoder -> embedded_in_frames
I0925 23:22:03.546398 32390 net.cpp:141] Setting up cont_sentence_input_1_split
I0925 23:22:03.546411 32422 net.cpp:148] Top shape: 1 4096 (4096)
I0925 23:22:03.546418 32390 net.cpp:148] Top shape: 1 1 (1)
I0925 23:22:03.546437 32390 net.cpp:148] Top shape: 1 1 (1)
I0925 23:22:03.546440 32390 net.cpp:156] Memory required for data: 16404
I0925 23:22:03.546440 32422 net.cpp:148] Top shape: 1 1 (1)
I0925 23:22:03.546447 32390 layer_factory.hpp:77] Creating layer embed_encoder
I0925 23:22:03.546466 32422 net.cpp:148] Top shape: 1 1 (1)
I0925 23:22:03.546475 32390 net.cpp:91] Creating Layer embed_encoder
I0925 23:22:03.546483 32390 net.cpp:425] embed_encoder <- frames_fc7
I0925 23:22:03.546485 32422 net.cpp:148] Top shape: 1 1 (1)
I0925 23:22:03.546494 32390 net.cpp:399] embed_encoder -> embedded_in_frames
I0925 23:22:03.546499 32422 net.cpp:156] Memory required for data: 16396
I0925 23:22:03.546514 32422 layer_factory.hpp:77] Creating layer cont_sentence_input_1_split
I0925 23:22:03.546538 32422 net.cpp:91] Creating Layer cont_sentence_input_1_split
I0925 23:22:03.546555 32422 net.cpp:425] cont_sentence_input_1_split <- cont_sentence
I0925 23:22:03.546574 32422 net.cpp:399] cont_sentence_input_1_split -> cont_sentence_input_1_split_0
I0925 23:22:03.546615 32422 net.cpp:399] cont_sentence_input_1_split -> cont_sentence_input_1_split_1
I0925 23:22:03.554527 32374 net.cpp:141] Setting up input
I0925 23:22:03.554571 32374 net.cpp:148] Top shape: 1 4096 (4096)
I0925 23:22:03.554579 32374 net.cpp:148] Top shape: 1 1 (1)
I0925 23:22:03.554584 32374 net.cpp:148] Top shape: 1 1 (1)
I0925 23:22:03.554590 32374 net.cpp:148] Top shape: 1 1 (1)
I0925 23:22:03.554608 32374 net.cpp:156] Memory required for data: 16396
I0925 23:22:03.554625 32374 layer_factory.hpp:77] Creating layer cont_sentence_input_1_split
I0925 23:22:03.554651 32374 net.cpp:91] Creating Layer cont_sentence_input_1_split
I0925 23:22:03.554659 32374 net.cpp:425] cont_sentence_input_1_split <- cont_sentence
I0925 23:22:03.554672 32374 net.cpp:399] cont_sentence_input_1_split -> cont_sentence_input_1_split_0
I0925 23:22:03.554687 32374 net.cpp:399] cont_sentence_input_1_split -> cont_sentence_input_1_split_1
I0925 23:22:03.562656 32422 net.cpp:141] Setting up cont_sentence_input_1_split
I0925 23:22:03.562710 32422 net.cpp:148] Top shape: 1 1 (1)
I0925 23:22:03.562721 32422 net.cpp:148] Top shape: 1 1 (1)
I0925 23:22:03.562727 32422 net.cpp:156] Memory required for data: 16404
I0925 23:22:03.562741 32422 layer_factory.hpp:77] Creating layer embed_encoder
I0925 23:22:03.562774 32422 net.cpp:91] Creating Layer embed_encoder
I0925 23:22:03.562785 32422 net.cpp:425] embed_encoder <- frames_fc7
I0925 23:22:03.562803 32422 net.cpp:399] embed_encoder -> embedded_in_frames
I0925 23:22:03.563676 32374 net.cpp:141] Setting up cont_sentence_input_1_split
I0925 23:22:03.563699 32374 net.cpp:148] Top shape: 1 1 (1)
I0925 23:22:03.563705 32374 net.cpp:148] Top shape: 1 1 (1)
I0925 23:22:03.563709 32374 net.cpp:156] Memory required for data: 16404
I0925 23:22:03.563715 32374 layer_factory.hpp:77] Creating layer embed_encoder
I0925 23:22:03.563729 32374 net.cpp:91] Creating Layer embed_encoder
I0925 23:22:03.563735 32374 net.cpp:425] embed_encoder <- frames_fc7
I0925 23:22:03.563746 32374 net.cpp:399] embed_encoder -> embedded_in_frames
I0925 23:22:03.563853 32370 net.cpp:141] Setting up embed_encoder
I0925 23:22:03.563869 32370 net.cpp:148] Top shape: 1 500 (500)
I0925 23:22:03.563875 32370 net.cpp:156] Memory required for data: 18404
I0925 23:22:03.563899 32370 layer_factory.hpp:77] Creating layer reshape_frames
I0925 23:22:03.563926 32370 net.cpp:91] Creating Layer reshape_frames
I0925 23:22:03.563935 32370 net.cpp:425] reshape_frames <- embedded_in_frames
I0925 23:22:03.563943 32370 net.cpp:399] reshape_frames -> embedded_input_frames
I0925 23:22:03.568496 32362 net.cpp:141] Setting up embed_encoder
I0925 23:22:03.568534 32362 net.cpp:148] Top shape: 1 500 (500)
I0925 23:22:03.568541 32362 net.cpp:156] Memory required for data: 18404
I0925 23:22:03.568557 32362 layer_factory.hpp:77] Creating layer reshape_frames
I0925 23:22:03.568585 32362 net.cpp:91] Creating Layer reshape_frames
I0925 23:22:03.568593 32362 net.cpp:425] reshape_frames <- embedded_in_frames
I0925 23:22:03.568603 32362 net.cpp:399] reshape_frames -> embedded_input_frames
I0925 23:22:03.568595 32370 net.cpp:141] Setting up reshape_frames
I0925 23:22:03.568625 32370 net.cpp:148] Top shape: 1 1 500 (500)
I0925 23:22:03.568631 32370 net.cpp:156] Memory required for data: 20404
I0925 23:22:03.568639 32370 layer_factory.hpp:77] Creating layer reshape_stage_indicator
I0925 23:22:03.568657 32370 net.cpp:91] Creating Layer reshape_stage_indicator
I0925 23:22:03.568665 32370 net.cpp:425] reshape_stage_indicator <- stage_indicator
I0925 23:22:03.568677 32370 net.cpp:399] reshape_stage_indicator -> reshaped_stage_indicator
I0925 23:22:03.572855 32362 net.cpp:141] Setting up reshape_frames
I0925 23:22:03.572868 32362 net.cpp:148] Top shape: 1 1 500 (500)
I0925 23:22:03.572872 32362 net.cpp:156] Memory required for data: 20404
I0925 23:22:03.572878 32362 layer_factory.hpp:77] Creating layer reshape_stage_indicator
I0925 23:22:03.572888 32362 net.cpp:91] Creating Layer reshape_stage_indicator
I0925 23:22:03.572895 32362 net.cpp:425] reshape_stage_indicator <- stage_indicator
I0925 23:22:03.572914 32362 net.cpp:399] reshape_stage_indicator -> reshaped_stage_indicator
I0925 23:22:03.573078 32410 net.cpp:141] Setting up embed_encoder
I0925 23:22:03.573118 32410 net.cpp:148] Top shape: 1 500 (500)
I0925 23:22:03.573127 32410 net.cpp:156] Memory required for data: 18404
I0925 23:22:03.573153 32410 layer_factory.hpp:77] Creating layer reshape_frames
I0925 23:22:03.573153 32362 net.cpp:141] Setting up reshape_stage_indicator
I0925 23:22:03.573170 32362 net.cpp:148] Top shape: 1 1 1 (1)
I0925 23:22:03.573175 32362 net.cpp:156] Memory required for data: 20408
I0925 23:22:03.573189 32362 layer_factory.hpp:77] Creating layer embedding
I0925 23:22:03.573175 32410 net.cpp:91] Creating Layer reshape_frames
I0925 23:22:03.573202 32362 net.cpp:91] Creating Layer embedding
I0925 23:22:03.573202 32410 net.cpp:425] reshape_frames <- embedded_in_frames
I0925 23:22:03.573209 32362 net.cpp:425] embedding <- input_sentence
I0925 23:22:03.573215 32370 net.cpp:141] Setting up reshape_stage_indicator
I0925 23:22:03.573228 32362 net.cpp:399] embedding -> embedded_input_sentence
I0925 23:22:03.573218 32410 net.cpp:399] reshape_frames -> embedded_input_frames
I0925 23:22:03.573240 32370 net.cpp:148] Top shape: 1 1 1 (1)
I0925 23:22:03.573246 32370 net.cpp:156] Memory required for data: 20408
I0925 23:22:03.573252 32370 layer_factory.hpp:77] Creating layer embedding
I0925 23:22:03.573267 32370 net.cpp:91] Creating Layer embedding
I0925 23:22:03.573274 32370 net.cpp:425] embedding <- input_sentence
I0925 23:22:03.573284 32370 net.cpp:399] embedding -> embedded_input_sentence
I0925 23:22:03.573281 32384 net.cpp:141] Setting up embed_encoder
I0925 23:22:03.573314 32384 net.cpp:148] Top shape: 1 500 (500)
I0925 23:22:03.573329 32384 net.cpp:156] Memory required for data: 18404
I0925 23:22:03.573362 32384 layer_factory.hpp:77] Creating layer reshape_frames
I0925 23:22:03.573390 32384 net.cpp:91] Creating Layer reshape_frames
I0925 23:22:03.573408 32384 net.cpp:425] reshape_frames <- embedded_in_frames
I0925 23:22:03.573421 32396 net.cpp:141] Setting up embed_encoder
I0925 23:22:03.573431 32384 net.cpp:399] reshape_frames -> embedded_input_frames
I0925 23:22:03.573438 32396 net.cpp:148] Top shape: 1 500 (500)
I0925 23:22:03.573446 32396 net.cpp:156] Memory required for data: 18404
I0925 23:22:03.573460 32396 layer_factory.hpp:77] Creating layer reshape_frames
I0925 23:22:03.573472 32396 net.cpp:91] Creating Layer reshape_frames
I0925 23:22:03.573478 32396 net.cpp:425] reshape_frames <- embedded_in_frames
I0925 23:22:03.573488 32396 net.cpp:399] reshape_frames -> embedded_input_frames
I0925 23:22:03.613905 32384 net.cpp:141] Setting up reshape_frames
I0925 23:22:03.613950 32384 net.cpp:148] Top shape: 1 1 500 (500)
I0925 23:22:03.613950 32410 net.cpp:141] Setting up reshape_frames
I0925 23:22:03.613960 32384 net.cpp:156] Memory required for data: 20404
I0925 23:22:03.613976 32410 net.cpp:148] Top shape: 1 1 500 (500)
I0925 23:22:03.613981 32410 net.cpp:156] Memory required for data: 20404
I0925 23:22:03.613981 32384 layer_factory.hpp:77] Creating layer reshape_stage_indicator
I0925 23:22:03.613988 32410 layer_factory.hpp:77] Creating layer reshape_stage_indicator
I0925 23:22:03.614003 32410 net.cpp:91] Creating Layer reshape_stage_indicator
I0925 23:22:03.614004 32384 net.cpp:91] Creating Layer reshape_stage_indicator
I0925 23:22:03.614012 32410 net.cpp:425] reshape_stage_indicator <- stage_indicator
I0925 23:22:03.614014 32384 net.cpp:425] reshape_stage_indicator <- stage_indicator
I0925 23:22:03.614015 32396 net.cpp:141] Setting up reshape_frames
I0925 23:22:03.614027 32384 net.cpp:399] reshape_stage_indicator -> reshaped_stage_indicator
I0925 23:22:03.614025 32410 net.cpp:399] reshape_stage_indicator -> reshaped_stage_indicator
I0925 23:22:03.614040 32396 net.cpp:148] Top shape: 1 1 500 (500)
I0925 23:22:03.614047 32396 net.cpp:156] Memory required for data: 20404
I0925 23:22:03.614053 32396 layer_factory.hpp:77] Creating layer reshape_stage_indicator
I0925 23:22:03.614064 32396 net.cpp:91] Creating Layer reshape_stage_indicator
I0925 23:22:03.614071 32396 net.cpp:425] reshape_stage_indicator <- stage_indicator
I0925 23:22:03.614080 32396 net.cpp:399] reshape_stage_indicator -> reshaped_stage_indicator
I0925 23:22:03.614130 32396 net.cpp:141] Setting up reshape_stage_indicator
I0925 23:22:03.614141 32396 net.cpp:148] Top shape: 1 1 1 (1)
I0925 23:22:03.614146 32396 net.cpp:156] Memory required for data: 20408
I0925 23:22:03.614151 32396 layer_factory.hpp:77] Creating layer embedding
I0925 23:22:03.614163 32396 net.cpp:91] Creating Layer embedding
I0925 23:22:04.102576 32396 net.cpp:425] embedding <- input_sentence
I0925 23:22:03.653645 32410 net.cpp:141] Setting up reshape_stage_indicator
I0925 23:22:03.653694 32384 net.cpp:141] Setting up reshape_stage_indicator
I0925 23:22:04.102645 32396 net.cpp:399] embedding -> embedded_input_sentence
I0925 23:22:03.654186 32366 net.cpp:141] Setting up embed_encoder
I0925 23:22:03.654233 32390 net.cpp:141] Setting up embed_encoder
I0925 23:22:04.102679 32384 net.cpp:148] Top shape: 1 1 1 (1)
I0925 23:22:04.102689 32366 net.cpp:148] Top shape: 1 500 (500)
I0925 23:22:04.102700 32366 net.cpp:156] Memory required for data: 18404
I0925 23:22:03.654124 32422 net.cpp:141] Setting up embed_encoder
I0925 23:22:04.102707 32390 net.cpp:148] Top shape: 1 500 (500)
I0925 23:22:04.102679 32410 net.cpp:148] Top shape: 1 1 1 (1)
I0925 23:22:04.102699 32384 net.cpp:156] Memory required for data: 20408
I0925 23:22:04.102723 32366 layer_factory.hpp:77] Creating layer reshape_frames
I0925 23:22:04.102725 32390 net.cpp:156] Memory required for data: 18404
I0925 23:22:03.835496 32370 net.cpp:141] Setting up embedding
I0925 23:22:04.102748 32390 layer_factory.hpp:77] Creating layer reshape_frames
I0925 23:22:04.102730 32410 net.cpp:156] Memory required for data: 20408
I0925 23:22:04.102749 32422 net.cpp:148] Top shape: 1 500 (500)
I0925 23:22:04.102741 32366 net.cpp:91] Creating Layer reshape_frames
I0925 23:22:04.102731 32384 layer_factory.hpp:77] Creating layer embedding
I0925 23:22:04.102777 32390 net.cpp:91] Creating Layer reshape_frames
I0925 23:22:04.102780 32410 layer_factory.hpp:77] Creating layer embedding
I0925 23:22:04.102788 32390 net.cpp:425] reshape_frames <- embedded_in_frames
I0925 23:22:04.102790 32384 net.cpp:91] Creating Layer embedding
I0925 23:22:04.102780 32366 net.cpp:425] reshape_frames <- embedded_in_frames
I0925 23:22:04.102804 32390 net.cpp:399] reshape_frames -> embedded_input_frames
I0925 23:22:04.102805 32384 net.cpp:425] embedding <- input_sentence
I0925 23:22:04.102818 32366 net.cpp:399] reshape_frames -> embedded_input_frames
I0925 23:22:04.102825 32410 net.cpp:91] Creating Layer embedding
I0925 23:22:04.102833 32384 net.cpp:399] embedding -> embedded_input_sentence
I0925 23:22:04.102839 32410 net.cpp:425] embedding <- input_sentence
I0925 23:22:04.095744 32376 net.cpp:49] Initializing net from parameters: 
name: "CaffeNet"
state {
  phase: TEST
}
layer {
  name: "data"
  type: "Input"
  top: "data"
  input_param {
    shape {
      dim: 10
      dim: 3
      dim: 227
      dim: 227
    }
  }
}
layer {
  name: "conv1"
  type: "Convolution"
  bottom: "data"
  top: "conv1"
  convolution_param {
    num_output: 96
    kernel_size: 11
    stride: 4
  }
}
layer {
  name: "relu1"
  type: "ReLU"
  bottom: "conv1"
  top: "conv1"
}
layer {
  name: "pool1"
  type: "Pooling"
  bottom: "conv1"
  top: "pool1"
  pooling_param {
    pool: MAX
    kernel_size: 3
    stride: 2
  }
}
layer {
  name: "norm1"
  type: "LRN"
  bottom: "pool1"
  top: "norm1"
  lrn_param {
    local_size: 5
    alpha: 0.0001
    beta: 0.75
  }
}
layer {
  name: "conv2"
  type: "Convolution"
  bottom: "norm1"
  top: "conv2"
  convolution_param {
    num_output: 256
    pad: 2
    kernel_size: 5
    group: 2
  }
}
layer {
  name: "relu2"
  type: "ReLU"
  bottom: "conv2"
  top: "conv2"
}
layer {
  name: "pool2"
  type: "Pooling"
  bottom: "conv2"
  top: "pool2"
  pooling_param {
    pool: MAX
    kernel_size: 3
    stride: 2
  }
}
layer {
  name: "norm2"
  type: "LRN"
  bottom: "pool2"
  top: "norm2"
  lrn_param {
    local_size: 5
    alpha: 0.0001
    beta: 0.75
  }
}
layer {
  name: "conv3"
  type: "Convolution"
  bottom: "norm2"
  top: "conv3"
  convolution_param {
    num_output: 384
    pad: 1
    kernel_size: 3
  }
}
layer {
  name: "relu3"
  type: "ReLU"
  bottom: "conv3"
  top: "conv3"
}
layer {
  name: "conv4"
  type: "Convolution"
  bottom: "conv3"
  top: "conv4"
  convolution_param {
    num_output: 384
    pad: 1
    kernel_size: 3
    group: 2
  }
}
layer {
  name: "relu4"
  type: "ReLU"
  bottom: "conv4"
  top: "conv4"
}
layer {
  name: "conv5"
  type: "Convolution"
  bottom: "conv4"
  top: "conv5"
  convolution_param {
    num_output: 256
    pad: 1
    kernel_size: 3
    group: 2
  }
}
layer {
  name: "relu5"
  type: "ReLU"
  bottom: "conv5"
  top: "conv5"
}
layer {
  name: "pool5"
  type: "Pooling"
  bottom: "conv5"
  top: "pool5"
  pooling_param {
    pool: MAX
    kernel_size: 3
    stride: 2
  }
}
layer {
  name: "fc6"
  type: "InnerProduct"
  bottom: "pool5"
  top: "fc6"
  inner_product_param {
    num_output: 4096
  }
}
layer {
  name: "relu6"
  type: "ReLU"
  bottom: "fc6"
  top: "fc6"
}
layer {
  name: "drop6"
  type: "Dropout"
  bottom: "fc6"
  top: "fc6"
  dropout_param {
    dropout_ratio: 0.5
  }
}
layer {
  name: "fc7"
  type: "InnerProduct"
  bottom: "fc6"
  top: "fc7"
  inner_product_param {
    num_output: 4096
  }
}
layer {
  name: "relu7"
  type: "ReLU"
  bottom: "fc7"
  top: "fc7"
}
layer {
  name: "drop7"
  type: "Dropout"
  bottom: "fc7"
  top: "fc7"
  dropout_param {
    dropout_ratio: 0.5
  }
}
layer {
  name: "fc8"
  type: "InnerProduct"
  bottom: "fc7"
  top: "fc8"
  inner_product_param {
    num_output: 1000
  }
}
layer {
  name: "prob"
  type: "Softmax"
  bottom: "fc8"
  top: "prob"
}
I0925 23:22:04.102862 32410 net.cpp:399] embedding -> embedded_input_sentence
I0925 23:22:04.102813 32422 net.cpp:156] Memory required for data: 18404
I0925 23:22:04.102902 32422 layer_factory.hpp:77] Creating layer reshape_frames
I0925 23:22:04.102918 32422 net.cpp:91] Creating Layer reshape_frames
I0925 23:22:04.102928 32422 net.cpp:425] reshape_frames <- embedded_in_frames
I0925 23:22:04.102943 32422 net.cpp:399] reshape_frames -> embedded_input_frames
I0925 23:22:03.654274 32374 net.cpp:141] Setting up embed_encoder
I0925 23:22:04.102996 32374 net.cpp:148] Top shape: 1 500 (500)
I0925 23:22:04.103004 32374 net.cpp:156] Memory required for data: 18404
I0925 23:22:04.103024 32374 layer_factory.hpp:77] Creating layer reshape_frames
I0925 23:22:04.103042 32374 net.cpp:91] Creating Layer reshape_frames
I0925 23:22:04.103051 32374 net.cpp:425] reshape_frames <- embedded_in_frames
I0925 23:22:04.103049 32376 layer_factory.hpp:77] Creating layer data
I0925 23:22:04.103071 32374 net.cpp:399] reshape_frames -> embedded_input_frames
I0925 23:22:04.103085 32376 net.cpp:91] Creating Layer data
I0925 23:22:03.789965 32362 net.cpp:141] Setting up embedding
I0925 23:22:04.192699 32376 net.cpp:399] data -> data
I0925 23:22:03.653548 32418 net.cpp:141] Setting up embed_encoder
I0925 23:22:04.148696 32390 net.cpp:141] Setting up reshape_frames
I0925 23:22:04.115716 32370 net.cpp:148] Top shape: 1 1 500 (500)
I0925 23:22:04.148738 32366 net.cpp:141] Setting up reshape_frames
I0925 23:22:04.148882 32422 net.cpp:141] Setting up reshape_frames
I0925 23:22:04.192796 32370 net.cpp:156] Memory required for data: 22408
I0925 23:22:04.192755 32362 net.cpp:148] Top shape: 1 1 500 (500)
I0925 23:22:04.192775 32418 net.cpp:148] Top shape: 1 500 (500)
I0925 23:22:04.192811 32366 net.cpp:148] Top shape: 1 1 500 (500)
I0925 23:22:04.148912 32374 net.cpp:141] Setting up reshape_frames
I0925 23:22:04.192826 32418 net.cpp:156] Memory required for data: 18404
I0925 23:22:04.192797 32390 net.cpp:148] Top shape: 1 1 500 (500)
I0925 23:22:04.192823 32362 net.cpp:156] Memory required for data: 22408
I0925 23:22:04.192827 32422 net.cpp:148] Top shape: 1 1 500 (500)
I0925 23:22:04.192842 32374 net.cpp:148] Top shape: 1 1 500 (500)
I0925 23:22:04.192845 32390 net.cpp:156] Memory required for data: 20404
I0925 23:22:04.192831 32370 layer_factory.hpp:77] Creating layer lstm1
I0925 23:22:04.192852 32418 layer_factory.hpp:77] Creating layer reshape_frames
I0925 23:22:04.192855 32362 layer_factory.hpp:77] Creating layer lstm1
I0925 23:22:04.192855 32422 net.cpp:156] Memory required for data: 20404
I0925 23:22:04.192852 32374 net.cpp:156] Memory required for data: 20404
…
I0925 23:22:04.193001 32362 recurrent_layer.cpp:20] Initializing recurrent layer: assuming input batch contains 1 timesteps of 1 independent streams.
I0925 23:22:04.193352 32370 net.cpp:49] Initializing net from parameters: 
layer {
  name: "lstm1_"
  type: "Input"
  top: "x"
  top: "cont"
  input_param {
    shape {
      dim: 1
      dim: 1
      dim: 500
    }
    shape {
      dim: 1
      dim: 1
    }
  }
}
layer {
  name: "lstm1_"
  type: "Input"
  top: "c_0"
  top: "h_0"
  input_param {
    shape {
      dim: 1
      dim: 1
      dim: 1000
    }
    shape {
      dim: 1
      dim: 1
      dim: 1000
    }
  }
}
layer {
  name: "lstm1_cont_slice"
  type: "Slice"
  bottom: "cont"
  top: "cont_1"
  slice_param {
    axis: 0
  }
}
layer {
  name: "lstm1_x_transform"
  type: "InnerProduct"
  bottom: "x"
  top: "W_xc_x"
  param {
    name: "W_xc"
  }
  param {
    name: "b_c"
  }
  propagate_down: true
  inner_product_param {
    num_output: 4000
    bias_term: true
    weight_filler {
      type: "uniform"
      min: -0.08
      max: 0.08
    }
    bias_filler {
      type: "constant"
      value: 0
    }
    axis: 2
  }
}
layer {
  name: "lstm1_W_xc_x_slice"
  type: "Slice"
  bottom: "W_xc_x"
  top: "W_xc_x_1"
  slice_param {
    axis: 0
  }
}
layer {
  name: "lstm1_h_conted_0"
  type: "Scale"
  bottom: "h_0"
  bottom: "cont_1"
  top: "h_conted_0"
  scale_param {
    axis: 0
  }
}
layer {
  name: "lstm1_transform_1"
  type: "InnerProduct"
  bottom: "h_conted_0"
  top: "W_hc_h_0"
  param {
    name: "W_hc"
  }
  inner_product_param {
    num_output: 4000
    bias_term: false
    weight_filler {
      type: "uniform"
      min: -0.08
      max: 0.08
    }
    axis: 2
  }
}
layer {
  name: "lstm1_gate_input_1"
  type: "Eltwise"
  bottom: "W_hc_h_0"
  bottom: "W_xc_x_1"
  top: "gate_input_1"
  eltwise_param {
    operation: SUM
  }
}
layer {
  name: "lstm1_unit_1"
  type: "LSTMUnit"
  bottom: "c_0"
  bottom: "gate_input_1"
  bottom: "cont_1"
  top: "c_1"
  top: "h_1"
}
layer {
  name: "lstm1_"
  type: "Split"
  bottom: "c_1"
  top: "c_T"
}
layer {
  name: "lstm1_h_concat"
  type: "Concat"
  bottom: "h_1"
  top: "h"
  concat_param {
    axis: 0
  }
}
layer {
  name: "h_pseudoloss"
  type: "Reduction"
  bottom: "h"
  top: "h_pseudoloss"
  loss_weight: 1
}
I0925 23:22:04.193362 32362 net.cpp:49] Initializing net from parameters: 
layer {
  name: "lstm1_"
  type: "Input"
  top: "x"
  top: "cont"
  input_param {
    shape {
      dim: 1
      dim: 1
      dim: 500
    }
    shape {
      dim: 1
      dim: 1
    }
  }
}
layer {
  name: "lstm1_"
  type: "Input"
  top: "c_0"
  top: "h_0"
  input_param {
    shape {
      dim: 1
      dim: 1
      dim: 1000
    }
    shape {
      dim: 1
      dim: 1
      dim: 1000
    }
  }
}
layer {
  name: "lstm1_cont_slice"
  type: "Slice"
  bottom: "cont"
  top: "cont_1"
  slice_param {
    axis: 0
  }
}
layer {
  name: "lstm1_x_transform"
  type: "InnerProduct"
  bottom: "x"
  top: "W_xc_x"
  param {
    name: "W_xc"
  }
  param {
    name: "b_c"
  }
  propagate_down: true
  inner_product_param {
    num_output: 4000
    bias_term: true
    weight_filler {
      type: "uniform"
      min: -0.08
      max: 0.08
    }
    bias_filler {
      type: "constant"
      value: 0
    }
    axis: 2
  }
}
layer {
  name: "lstm1_W_xc_x_slice"
  type: "Slice"
  bottom: "W_xc_x"
  top: "W_xc_x_1"
  slice_param {
    axis: 0
  }
}
layer {
  name: "lstm1_h_conted_0"
  type: "Scale"
  bottom: "h_0"
  bottom: "cont_1"
  top: "h_conted_0"
  scale_param {
    axis: 0
  }
}
layer {
  name: "lstm1_transform_1"
  type: "InnerProduct"
  bottom: "h_conted_0"
  top: "W_hc_h_0"
  param {
    name: "W_hc"
  }
  inner_product_param {
    num_output: 4000
    bias_term: false
    weight_filler {
      type: "uniform"
      min: -0.08
      max: 0.08
    }
    axis: 2
  }
}
layer {
  name: "lstm1_gate_input_1"
  type: "Eltwise"
  bottom: "W_hc_h_0"
  bottom: "W_xc_x_1"
  top: "gate_input_1"
  eltwise_param {
    operation: SUM
  }
}
layer {
  name: "lstm1_unit_1"
  type: "LSTMUnit"
  bottom: "c_0"
  bottom: "gate_input_1"
  bottom: "cont_1"
  top: "c_1"
  top: "h_1"
}
layer {
  name: "lstm1_"
  type: "Split"
  bottom: "c_1"
  top: "c_T"
}
layer {
  name: "lstm1_h_concat"
  type: "Concat"
  bottom: "h_1"
  top: "h"
  concat_param {
    axis: 0
  }
}
layer {
  name: "h_pseudoloss"
  type: "Reduction"
  bottom: "h"
  top: "h_pseudoloss"
  loss_weight: 1
}
I0925 23:22:04.193440 32370 layer_factory.hpp:77] Creating layer lstm1_
I0925 23:22:04.193452 32362 layer_factory.hpp:77] Creating layer lstm1_
I0925 23:22:04.193455 32370 net.cpp:91] Creating Layer lstm1_
I0925 23:22:04.193464 32370 net.cpp:399] lstm1_ -> x
I0925 23:22:04.193464 32362 net.cpp:91] Creating Layer lstm1_
I0925 23:22:04.193471 32362 net.cpp:399] lstm1_ -> x
I0925 23:22:04.193475 32370 net.cpp:399] lstm1_ -> cont
I0925 23:22:04.193482 32362 net.cpp:399] lstm1_ -> cont
I0925 23:22:04.239410 32376 net.cpp:141] Setting up data
I0925 23:22:04.239464 32376 net.cpp:148] Top shape: 10 3 227 227 (1545870)
I0925 23:22:04.239475 32376 net.cpp:156] Memory required for data: 6183480
I0925 23:22:04.239490 32376 layer_factory.hpp:77] Creating layer conv1
I0925 23:22:04.239544 32376 net.cpp:91] Creating Layer conv1
I0925 23:22:04.239554 32376 net.cpp:425] conv1 <- data
I0925 23:22:04.239573 32376 net.cpp:399] conv1 -> conv1
I0925 23:22:04.241170 32418 net.cpp:141] Setting up reshape_frames
I0925 23:22:04.241219 32418 net.cpp:148] Top shape: 1 1 500 (500)
I0925 23:22:04.241228 32418 net.cpp:156] Memory required for data: 20404
I0925 23:22:04.241240 32418 layer_factory.hpp:77] Creating layer reshape_stage_indicator
I0925 23:22:04.241253 32390 net.cpp:141] Setting up reshape_stage_indicator
I0925 23:22:04.241268 32418 net.cpp:91] Creating Layer reshape_stage_indicator
I0925 23:22:04.241287 32422 net.cpp:141] Setting up reshape_stage_indicator
I0925 23:22:04.241299 32390 net.cpp:148] Top shape: 1 1 1 (1)
I0925 23:22:04.241312 32422 net.cpp:148] Top shape: 1 1 1 (1)
I0925 23:22:04.241314 32390 net.cpp:156] Memory required for data: 20408
I0925 23:22:04.241327 32390 layer_factory.hpp:77] Creating layer embedding
I0925 23:22:04.241299 32418 net.cpp:425] reshape_stage_indicator <- stage_indicator
I0925 23:22:04.241358 32390 net.cpp:91] Creating Layer embedding
I0925 23:22:04.241327 32422 net.cpp:156] Memory required for data: 20408
I0925 23:22:04.241375 32390 net.cpp:425] embedding <- input_sentence
I0925 23:22:04.241377 32422 layer_factory.hpp:77] Creating layer embedding
I0925 23:22:04.241400 32390 net.cpp:399] embedding -> embedded_input_sentence
I0925 23:22:04.241405 32422 net.cpp:91] Creating Layer embedding
I0925 23:22:04.241416 32422 net.cpp:425] embedding <- input_sentence
I0925 23:22:04.241430 32422 net.cpp:399] embedding -> embedded_input_sentence
I0925 23:22:04.241349 32366 net.cpp:141] Setting up reshape_stage_indicator
I0925 23:22:04.241463 32366 net.cpp:148] Top shape: 1 1 1 (1)
I0925 23:22:04.241472 32366 net.cpp:156] Memory required for data: 20408
I0925 23:22:04.241479 32366 layer_factory.hpp:77] Creating layer embedding
I0925 23:22:04.241492 32366 net.cpp:91] Creating Layer embedding
I0925 23:22:04.241500 32366 net.cpp:425] embedding <- input_sentence
I0925 23:22:04.241513 32366 net.cpp:399] embedding -> embedded_input_sentence
I0925 23:22:04.241360 32418 net.cpp:399] reshape_stage_indicator -> reshaped_stage_indicator
I0925 23:22:04.315524 32374 net.cpp:141] Setting up reshape_stage_indicator
I0925 23:22:04.315575 32374 net.cpp:148] Top shape: 1 1 1 (1)
I0925 23:22:04.315583 32374 net.cpp:156] Memory required for data: 20408
I0925 23:22:04.315596 32374 layer_factory.hpp:77] Creating layer embedding
I0925 23:22:04.315631 32374 net.cpp:91] Creating Layer embedding
I0925 23:22:04.315641 32374 net.cpp:425] embedding <- input_sentence
I0925 23:22:04.315659 32374 net.cpp:399] embedding -> embedded_input_sentence
I0925 23:22:04.374374 32418 net.cpp:141] Setting up reshape_stage_indicator
I0925 23:22:04.374421 32370 net.cpp:141] Setting up lstm1_
I0925 23:22:04.374438 32418 net.cpp:148] Top shape: 1 1 1 (1)
I0925 23:22:04.374447 32370 net.cpp:148] Top shape: 1 1 500 (500)
I0925 23:22:04.374449 32418 net.cpp:156] Memory required for data: 20408
I0925 23:22:04.374461 32370 net.cpp:148] Top shape: 1 1 (1)
I0925 23:22:04.374464 32418 layer_factory.hpp:77] Creating layer embedding
I0925 23:22:04.374470 32370 net.cpp:156] Memory required for data: 2004
I0925 23:22:04.374480 32370 layer_factory.hpp:77] Creating layer lstm1_
I0925 23:22:04.374491 32418 net.cpp:91] Creating Layer embedding
I0925 23:22:04.374503 32370 net.cpp:91] Creating Layer lstm1_
I0925 23:22:04.374503 32418 net.cpp:425] embedding <- input_sentence
I0925 23:22:04.374528 32370 net.cpp:399] lstm1_ -> c_0
I0925 23:22:04.374543 32418 net.cpp:399] embedding -> embedded_input_sentence
I0925 23:22:04.374563 32370 net.cpp:399] lstm1_ -> h_0
I0925 23:22:04.374884 32396 net.cpp:141] Setting up embedding
I0925 23:22:04.374928 32396 net.cpp:148] Top shape: 1 1 500 (500)
I0925 23:22:04.374935 32396 net.cpp:156] Memory required for data: 22408
I0925 23:22:04.374959 32396 layer_factory.hpp:77] Creating layer lstm1
I0925 23:22:04.374961 32370 net.cpp:141] Setting up lstm1_
I0925 23:22:04.374980 32396 net.cpp:91] Creating Layer lstm1
I0925 23:22:04.374981 32370 net.cpp:148] Top shape: 1 1 1000 (1000)
I0925 23:22:04.374989 32396 net.cpp:425] lstm1 <- embedded_input_frames
I0925 23:22:04.374995 32370 net.cpp:148] Top shape: 1 1 1000 (1000)
I0925 23:22:04.375001 32396 net.cpp:425] lstm1 <- cont_sentence_input_1_split_0
I0925 23:22:04.375005 32370 net.cpp:156] Memory required for data: 10004
I0925 23:22:04.375015 32370 layer_factory.hpp:77] Creating layer lstm1_cont_slice
I0925 23:22:04.375020 32396 net.cpp:399] lstm1 -> lstm1
I0925 23:22:04.375036 32370 net.cpp:91] Creating Layer lstm1_cont_slice
I0925 23:22:04.375041 32396 recurrent_layer.cpp:20] Initializing recurrent layer: assuming input batch contains 1 timesteps of 1 independent streams.
I0925 23:22:04.375056 32370 net.cpp:425] lstm1_cont_slice <- cont
I0925 23:22:04.375134 32370 net.cpp:399] lstm1_cont_slice -> cont_1
I0925 23:22:04.375553 32396 net.cpp:49] Initializing net from parameters: 
layer {
  name: "lstm1_"
  type: "Input"
  top: "x"
  top: "cont"
  input_param {
    shape {
      dim: 1
      dim: 1
      dim: 500
    }
    shape {
      dim: 1
      dim: 1
    }
  }
}
layer {
  name: "lstm1_"
  type: "Input"
  top: "c_0"
  top: "h_0"
  input_param {
    shape {
      dim: 1
      dim: 1
      dim: 1000
    }
    shape {
      dim: 1
      dim: 1
      dim: 1000
    }
  }
}
layer {
  name: "lstm1_cont_slice"
  type: "Slice"
  bottom: "cont"
  top: "cont_1"
  slice_param {
    axis: 0
  }
}
layer {
  name: "lstm1_x_transform"
  type: "InnerProduct"
  bottom: "x"
  top: "W_xc_x"
  param {
    name: "W_xc"
  }
  param {
    name: "b_c"
  }
  propagate_down: true
  inner_product_param {
    num_output: 4000
    bias_term: true
    weight_filler {
      type: "uniform"
      min: -0.08
      max: 0.08
    }
    bias_filler {
      type: "constant"
      value: 0
    }
    axis: 2
  }
}
layer {
  name: "lstm1_W_xc_x_slice"
  type: "Slice"
  bottom: "W_xc_x"
  top: "W_xc_x_1"
  slice_param {
    axis: 0
  }
}
layer {
  name: "lstm1_h_conted_0"
  type: "Scale"
  bottom: "h_0"
  bottom: "cont_1"
  top: "h_conted_0"
  scale_param {
    axis: 0
  }
}
layer {
  name: "lstm1_transform_1"
  type: "InnerProduct"
  bottom: "h_conted_0"
  top: "W_hc_h_0"
  param {
    name: "W_hc"
  }
  inner_product_param {
    num_output: 4000
    bias_term: false
    weight_filler {
      type: "uniform"
      min: -0.08
      max: 0.08
    }
    axis: 2
  }
}
layer {
  name: "lstm1_gate_input_1"
  type: "Eltwise"
  bottom: "W_hc_h_0"
  bottom: "W_xc_x_1"
  top: "gate_input_1"
  eltwise_param {
    operation: SUM
  }
}
layer {
  name: "lstm1_unit_1"
  type: "LSTMUnit"
  bottom: "c_0"
  bottom: "gate_input_1"
  bottom: "cont_1"
  top: "c_1"
  top: "h_1"
}
layer {
  name: "lstm1_"
  type: "Split"
  bottom: "c_1"
  top: "c_T"
}
layer {
  name: "lstm1_h_concat"
  type: "Concat"
  bottom: "h_1"
  top: "h"
  concat_param {
    axis: 0
  }
}
layer {
  name: "h_pseudoloss"
  type: "Reduction"
  bottom: "h"
  top: "h_pseudoloss"
  loss_weight: 1
}
I0925 23:22:04.375733 32396 layer_factory.hpp:77] Creating layer lstm1_
I0925 23:22:04.375756 32396 net.cpp:91] Creating Layer lstm1_
I0925 23:22:04.375764 32396 net.cpp:399] lstm1_ -> x
I0925 23:22:04.375779 32396 net.cpp:399] lstm1_ -> cont
I0925 23:22:04.548933 32362 net.cpp:141] Setting up lstm1_
I0925 23:22:04.548990 32362 net.cpp:148] Top shape: 1 1 500 (500)
I0925 23:22:04.549005 32362 net.cpp:148] Top shape: 1 1 (1)
I0925 23:22:04.549013 32362 net.cpp:156] Memory required for data: 2004
I0925 23:22:04.549026 32362 layer_factory.hpp:77] Creating layer lstm1_
I0925 23:22:04.549057 32362 net.cpp:91] Creating Layer lstm1_
I0925 23:22:04.549078 32362 net.cpp:399] lstm1_ -> c_0
I0925 23:22:04.549105 32362 net.cpp:399] lstm1_ -> h_0
I0925 23:22:04.549216 32362 net.cpp:141] Setting up lstm1_
I0925 23:22:04.549232 32362 net.cpp:148] Top shape: 1 1 1000 (1000)
I0925 23:22:04.549242 32362 net.cpp:148] Top shape: 1 1 1000 (1000)
I0925 23:22:04.549250 32362 net.cpp:156] Memory required for data: 10004
I0925 23:22:04.549259 32362 layer_factory.hpp:77] Creating layer lstm1_cont_slice
I0925 23:22:04.549275 32362 net.cpp:91] Creating Layer lstm1_cont_slice
I0925 23:22:04.549284 32362 net.cpp:425] lstm1_cont_slice <- cont
I0925 23:22:04.549301 32362 net.cpp:399] lstm1_cont_slice -> cont_1
I0925 23:22:04.549356 32362 net.cpp:141] Setting up lstm1_cont_slice
I0925 23:22:04.549371 32362 net.cpp:148] Top shape: 1 1 (1)
I0925 23:22:04.549379 32362 net.cpp:156] Memory required for data: 10008
I0925 23:22:04.549387 32362 layer_factory.hpp:77] Creating layer cont_1_lstm1_cont_slice_0_split
I0925 23:22:04.549404 32362 net.cpp:91] Creating Layer cont_1_lstm1_cont_slice_0_split
I0925 23:22:04.549413 32362 net.cpp:425] cont_1_lstm1_cont_slice_0_split <- cont_1
I0925 23:22:04.549425 32362 net.cpp:399] cont_1_lstm1_cont_slice_0_split -> cont_1_lstm1_cont_slice_0_split_0
I0925 23:22:04.549443 32362 net.cpp:399] cont_1_lstm1_cont_slice_0_split -> cont_1_lstm1_cont_slice_0_split_1
I0925 23:22:04.549516 32362 net.cpp:141] Setting up cont_1_lstm1_cont_slice_0_split
I0925 23:22:04.549531 32362 net.cpp:148] Top shape: 1 1 (1)
I0925 23:22:04.549542 32362 net.cpp:148] Top shape: 1 1 (1)
I0925 23:22:04.549551 32362 net.cpp:156] Memory required for data: 10016
I0925 23:22:04.549559 32362 layer_factory.hpp:77] Creating layer lstm1_x_transform
I0925 23:22:04.549581 32362 net.cpp:91] Creating Layer lstm1_x_transform
I0925 23:22:04.549589 32362 net.cpp:425] lstm1_x_transform <- x
I0925 23:22:04.549603 32362 net.cpp:399] lstm1_x_transform -> W_xc_x
I0925 23:22:04.559842 32384 net.cpp:141] Setting up embedding
I0925 23:22:04.559907 32384 net.cpp:148] Top shape: 1 1 500 (500)
I0925 23:22:04.559919 32384 net.cpp:156] Memory required for data: 22408
I0925 23:22:04.559952 32384 layer_factory.hpp:77] Creating layer lstm1
I0925 23:22:04.559986 32384 net.cpp:91] Creating Layer lstm1
I0925 23:22:04.559998 32384 net.cpp:425] lstm1 <- embedded_input_frames
I0925 23:22:04.560012 32384 net.cpp:425] lstm1 <- cont_sentence_input_1_split_0
I0925 23:22:04.560029 32384 net.cpp:399] lstm1 -> lstm1
I0925 23:22:04.560060 32384 recurrent_layer.cpp:20] Initializing recurrent layer: assuming input batch contains 1 timesteps of 1 independent streams.
I0925 23:22:04.567368 32384 net.cpp:49] Initializing net from parameters: 
layer {
  name: "lstm1_"
  type: "Input"
  top: "x"
  top: "cont"
  input_param {
    shape {
      dim: 1
      dim: 1
      dim: 500
    }
    shape {
      dim: 1
      dim: 1
    }
  }
}
layer {
  name: "lstm1_"
  type: "Input"
  top: "c_0"
  top: "h_0"
  input_param {
    shape {
      dim: 1
      dim: 1
      dim: 1000
    }
    shape {
      dim: 1
      dim: 1
      dim: 1000
    }
  }
}
layer {
  name: "lstm1_cont_slice"
  type: "Slice"
  bottom: "cont"
  top: "cont_1"
  slice_param {
    axis: 0
  }
}
layer {
  name: "lstm1_x_transform"
  type: "InnerProduct"
  bottom: "x"
  top: "W_xc_x"
  param {
    name: "W_xc"
  }
  param {
    name: "b_c"
  }
  propagate_down: true
  inner_product_param {
    num_output: 4000
    bias_term: true
    weight_filler {
      type: "uniform"
      min: -0.08
      max: 0.08
    }
    bias_filler {
      type: "constant"
      value: 0
    }
    axis: 2
  }
}
layer {
  name: "lstm1_W_xc_x_slice"
  type: "Slice"
  bottom: "W_xc_x"
  top: "W_xc_x_1"
  slice_param {
    axis: 0
  }
}
layer {
  name: "lstm1_h_conted_0"
  type: "Scale"
  bottom: "h_0"
  bottom: "cont_1"
  top: "h_conted_0"
  scale_param {
    axis: 0
  }
}
layer {
  name: "lstm1_transform_1"
  type: "InnerProduct"
  bottom: "h_conted_0"
  top: "W_hc_h_0"
  param {
    name: "W_hc"
  }
  inner_product_param {
    num_output: 4000
    bias_term: false
    weight_filler {
      type: "uniform"
      min: -0.08
      max: 0.08
    }
    axis: 2
  }
}
layer {
  name: "lstm1_gate_input_1"
  type: "Eltwise"
  bottom: "W_hc_h_0"
  bottom: "W_xc_x_1"
  top: "gate_input_1"
  eltwise_param {
    operation: SUM
  }
}
layer {
  name: "lstm1_unit_1"
  type: "LSTMUnit"
  bottom: "c_0"
  bottom: "gate_input_1"
  bottom: "cont_1"
  top: "c_1"
  top: "h_1"
}
layer {
  name: "lstm1_"
  type: "Split"
  bottom: "c_1"
  top: "c_T"
}
layer {
  name: "lstm1_h_concat"
  type: "Concat"
  bottom: "h_1"
  top: "h"
  concat_param {
    axis: 0
  }
}
layer {
  name: "h_pseudoloss"
  type: "Reduction"
  bottom: "h"
  top: "h_pseudoloss"
  loss_weight: 1
}
I0925 23:22:04.570673 32384 layer_factory.hpp:77] Creating layer lstm1_
I0925 23:22:04.570724 32384 net.cpp:91] Creating Layer lstm1_
I0925 23:22:04.570739 32384 net.cpp:399] lstm1_ -> x
I0925 23:22:04.570771 32384 net.cpp:399] lstm1_ -> cont
I0925 23:22:04.571125 32410 net.cpp:141] Setting up embedding
I0925 23:22:04.571152 32410 net.cpp:148] Top shape: 1 1 500 (500)
I0925 23:22:04.571161 32410 net.cpp:156] Memory required for data: 22408
I0925 23:22:04.571179 32390 net.cpp:141] Setting up embedding
I0925 23:22:04.571183 32410 layer_factory.hpp:77] Creating layer lstm1
I0925 23:22:04.571207 32390 net.cpp:148] Top shape: 1 1 500 (500)
I0925 23:22:04.571218 32390 net.cpp:156] Memory required for data: 22408
I0925 23:22:04.571220 32410 net.cpp:91] Creating Layer lstm1
I0925 23:22:04.571233 32410 net.cpp:425] lstm1 <- embedded_input_frames
I0925 23:22:04.571235 32390 layer_factory.hpp:77] Creating layer lstm1
I0925 23:22:04.571246 32410 net.cpp:425] lstm1 <- cont_sentence_input_1_split_0
I0925 23:22:04.571260 32390 net.cpp:91] Creating Layer lstm1
I0925 23:22:04.571262 32410 net.cpp:399] lstm1 -> lstm1
I0925 23:22:04.571272 32390 net.cpp:425] lstm1 <- embedded_input_frames
I0925 23:22:04.571285 32410 recurrent_layer.cpp:20] Initializing recurrent layer: assuming input batch contains 1 timesteps of 1 independent streams.
I0925 23:22:04.571285 32390 net.cpp:425] lstm1 <- cont_sentence_input_1_split_0
I0925 23:22:04.571319 32390 net.cpp:399] lstm1 -> lstm1
I0925 23:22:04.571307 32370 net.cpp:141] Setting up lstm1_cont_slice
I0925 23:22:04.571337 32390 recurrent_layer.cpp:20] Initializing recurrent layer: assuming input batch contains 1 timesteps of 1 independent streams.
I0925 23:22:04.571357 32370 net.cpp:148] Top shape: 1 1 (1)
I0925 23:22:04.571360 32396 net.cpp:141] Setting up lstm1_
I0925 23:22:04.571369 32370 net.cpp:156] Memory required for data: 10008
I0925 23:22:04.571385 32396 net.cpp:148] Top shape: 1 1 500 (500)
I0925 23:22:04.571386 32370 layer_factory.hpp:77] Creating layer cont_1_lstm1_cont_slice_0_split
I0925 23:22:04.571399 32396 net.cpp:148] Top shape: 1 1 (1)
I0925 23:22:04.571408 32396 net.cpp:156] Memory required for data: 2004
I0925 23:22:04.571411 32370 net.cpp:91] Creating Layer cont_1_lstm1_cont_slice_0_split
I0925 23:22:04.571419 32396 layer_factory.hpp:77] Creating layer lstm1_
I0925 23:22:04.571425 32370 net.cpp:425] cont_1_lstm1_cont_slice_0_split <- cont_1
I0925 23:22:04.571437 32396 net.cpp:91] Creating Layer lstm1_
I0925 23:22:04.571447 32370 net.cpp:399] cont_1_lstm1_cont_slice_0_split -> cont_1_lstm1_cont_slice_0_split_0
I0925 23:22:04.571460 32384 net.cpp:141] Setting up lstm1_
I0925 23:22:04.571473 32370 net.cpp:399] cont_1_lstm1_cont_slice_0_split -> cont_1_lstm1_cont_slice_0_split_1
I0925 23:22:04.571481 32396 net.cpp:399] lstm1_ -> c_0
I0925 23:22:04.571483 32384 net.cpp:148] Top shape: 1 1 500 (500)
I0925 23:22:04.571513 32384 net.cpp:148] Top shape: 1 1 (1)
I0925 23:22:04.571513 32396 net.cpp:399] lstm1_ -> h_0
I0925 23:22:04.571533 32384 net.cpp:156] Memory required for data: 2004
I0925 23:22:04.571545 32384 layer_factory.hpp:77] Creating layer lstm1_
I0925 23:22:04.586704 32384 net.cpp:91] Creating Layer lstm1_
I0925 23:22:04.586732 32410 net.cpp:49] Initializing net from parameters: 
layer {
  name: "lstm1_"
  type: "Input"
  top: "x"
  top: "cont"
  input_param {
    shape {
      dim: 1
      dim: 1
      dim: 500
    }
    shape {
      dim: 1
      dim: 1
    }
  }
}
layer {
  name: "lstm1_"
  type: "Input"
  top: "c_0"
  top: "h_0"
  input_param {
    shape {
      dim: 1
      dim: 1
      dim: 1000
    }
    shape {
      dim: 1
      dim: 1
      dim: 1000
    }
  }
}
layer {
  name: "lstm1_cont_slice"
  type: "Slice"
  bottom: "cont"
  top: "cont_1"
  slice_param {
    axis: 0
  }
}
layer {
  name: "lstm1_x_transform"
  type: "InnerProduct"
  bottom: "x"
  top: "W_xc_x"
  param {
    name: "W_xc"
  }
  param {
    name: "b_c"
  }
  propagate_down: true
  inner_product_param {
    num_output: 4000
    bias_term: true
    weight_filler {
      type: "uniform"
      min: -0.08
      max: 0.08
    }
    bias_filler {
      type: "constant"
      value: 0
    }
    axis: 2
  }
}
layer {
  name: "lstm1_W_xc_x_slice"
  type: "Slice"
  bottom: "W_xc_x"
  top: "W_xc_x_1"
  slice_param {
    axis: 0
  }
}
layer {
  name: "lstm1_h_conted_0"
  type: "Scale"
  bottom: "h_0"
  bottom: "cont_1"
  top: "h_conted_0"
  scale_param {
    axis: 0
  }
}
layer {
  name: "lstm1_transform_1"
  type: "InnerProduct"
  bottom: "h_conted_0"
  top: "W_hc_h_0"
  param {
    name: "W_hc"
  }
  inner_product_param {
    num_output: 4000
    bias_term: false
    weight_filler {
      type: "uniform"
      min: -0.08
      max: 0.08
    }
    axis: 2
  }
}
layer {
  name: "lstm1_gate_input_1"
  type: "Eltwise"
  bottom: "W_hc_h_0"
  bottom: "W_xc_x_1"
  top: "gate_input_1"
  eltwise_param {
    operation: SUM
  }
}
layer {
  name: "lstm1_unit_1"
  type: "LSTMUnit"
  bottom: "c_0"
  bottom: "gate_input_1"
  bottom: "cont_1"
  top: "c_1"
  top: "h_1"
}
layer {
  name: "lstm1_"
  type: "Split"
  bottom: "c_1"
  top: "c_T"
}
layer {
  name: "lstm1_h_concat"
  type: "Concat"
  bottom: "h_1"
  top: "h"
  concat_param {
    axis: 0
  }
}
layer {
  name: "h_pseudoloss"
  type: "Reduction"
  bottom: "h"
  top: "h_pseudoloss"
  loss_weight: 1
}
I0925 23:22:04.586776 32384 net.cpp:399] lstm1_ -> c_0
I0925 23:22:04.586794 32396 net.cpp:141] Setting up lstm1_
I0925 23:22:04.586812 32384 net.cpp:399] lstm1_ -> h_0
I0925 23:22:04.586824 32396 net.cpp:148] Top shape: 1 1 1000 (1000)
I0925 23:22:04.586839 32396 net.cpp:148] Top shape: 1 1 1000 (1000)
I0925 23:22:04.586849 32396 net.cpp:156] Memory required for data: 10004
I0925 23:22:04.586860 32396 layer_factory.hpp:77] Creating layer lstm1_cont_slice
I0925 23:22:04.587041 32396 net.cpp:91] Creating Layer lstm1_cont_slice
I0925 23:22:04.587056 32396 net.cpp:425] lstm1_cont_slice <- cont
I0925 23:22:04.587074 32396 net.cpp:399] lstm1_cont_slice -> cont_1
I0925 23:22:04.587098 32410 layer_factory.hpp:77] Creating layer lstm1_
I0925 23:22:04.587071 32390 net.cpp:49] Initializing net from parameters: 
layer {
  name: "lstm1_"
  type: "Input"
  top: "x"
  top: "cont"
  input_param {
    shape {
      dim: 1
      dim: 1
      dim: 500
    }
    shape {
      dim: 1
      dim: 1
    }
  }
}
layer {
  name: "lstm1_"
  type: "Input"
  top: "c_0"
  top: "h_0"
  input_param {
    shape {
      dim: 1
      dim: 1
      dim: 1000
    }
    shape {
      dim: 1
      dim: 1
      dim: 1000
    }
  }
}
layer {
  name: "lstm1_cont_slice"
  type: "Slice"
  bottom: "cont"
  top: "cont_1"
  slice_param {
    axis: 0
  }
}
layer {
  name: "lstm1_x_transform"
  type: "InnerProduct"
  bottom: "x"
  top: "W_xc_x"
  param {
    name: "W_xc"
  }
  param {
    name: "b_c"
  }
  propagate_down: true
  inner_product_param {
    num_output: 4000
    bias_term: true
    weight_filler {
      type: "uniform"
      min: -0.08
      max: 0.08
    }
    bias_filler {
      type: "constant"
      value: 0
    }
    axis: 2
  }
}
layer {
  name: "lstm1_W_xc_x_slice"
  type: "Slice"
  bottom: "W_xc_x"
  top: "W_xc_x_1"
  slice_param {
    axis: 0
  }
}
layer {
  name: "lstm1_h_conted_0"
  type: "Scale"
  bottom: "h_0"
  bottom: "cont_1"
  top: "h_conted_0"
  scale_param {
    axis: 0
  }
}
layer {
  name: "lstm1_transform_1"
  type: "InnerProduct"
  bottom: "h_conted_0"
  top: "W_hc_h_0"
  param {
    name: "W_hc"
  }
  inner_product_param {
    num_output: 4000
    bias_term: false
    weight_filler {
      type: "uniform"
      min: -0.08
      max: 0.08
    }
    axis: 2
  }
}
layer {
  name: "lstm1_gate_input_1"
  type: "Eltwise"
  bottom: "W_hc_h_0"
  bottom: "W_xc_x_1"
  top: "gate_input_1"
  eltwise_param {
    operation: SUM
  }
}
layer {
  name: "lstm1_unit_1"
  type: "LSTMUnit"
  bottom: "c_0"
  bottom: "gate_input_1"
  bottom: "cont_1"
  top: "c_1"
  top: "h_1"
}
layer {
  name: "lstm1_"
  type: "Split"
  bottom: "c_1"
  top: "c_T"
}
layer {
  name: "lstm1_h_concat"
  type: "Concat"
  bottom: "h_1"
  top: "h"
  concat_param {
    axis: 0
  }
}
layer {
  name: "h_pseudoloss"
  type: "Reduction"
  bottom: "h"
  top: "h_pseudoloss"
  loss_weight: 1
}
I0925 23:22:04.587111 32370 net.cpp:141] Setting up cont_1_lstm1_cont_slice_0_split
I0925 23:22:04.587134 32410 net.cpp:91] Creating Layer lstm1_
I0925 23:22:04.587157 32410 net.cpp:399] lstm1_ -> x
I0925 23:22:04.587160 32370 net.cpp:148] Top shape: 1 1 (1)
I0925 23:22:04.587174 32370 net.cpp:148] Top shape: 1 1 (1)
I0925 23:22:04.587180 32410 net.cpp:399] lstm1_ -> cont
I0925 23:22:04.587185 32370 net.cpp:156] Memory required for data: 10016
I0925 23:22:04.587193 32396 net.cpp:141] Setting up lstm1_cont_slice
I0925 23:22:04.587200 32370 layer_factory.hpp:77] Creating layer lstm1_x_transform
I0925 23:22:04.587215 32396 net.cpp:148] Top shape: 1 1 (1)
I0925 23:22:04.587229 32396 net.cpp:156] Memory required for data: 10008
I0925 23:22:04.587240 32396 layer_factory.hpp:77] Creating layer cont_1_lstm1_cont_slice_0_split
I0925 23:22:04.587244 32370 net.cpp:91] Creating Layer lstm1_x_transform
I0925 23:22:04.587258 32370 net.cpp:425] lstm1_x_transform <- x
I0925 23:22:04.587260 32396 net.cpp:91] Creating Layer cont_1_lstm1_cont_slice_0_split
I0925 23:22:04.587275 32396 net.cpp:425] cont_1_lstm1_cont_slice_0_split <- cont_1
I0925 23:22:04.587293 32410 net.cpp:141] Setting up lstm1_
I0925 23:22:04.587314 32410 net.cpp:148] Top shape: 1 1 500 (500)
I0925 23:22:04.587328 32410 net.cpp:148] Top shape: 1 1 (1)
I0925 23:22:04.587337 32410 net.cpp:156] Memory required for data: 2004
I0925 23:22:04.587347 32410 layer_factory.hpp:77] Creating layer lstm1_
I0925 23:22:04.587072 32384 net.cpp:141] Setting up lstm1_
I0925 23:22:04.587460 32384 net.cpp:148] Top shape: 1 1 1000 (1000)
I0925 23:22:04.587473 32384 net.cpp:148] Top shape: 1 1 1000 (1000)
I0925 23:22:04.587481 32384 net.cpp:156] Memory required for data: 10004
I0925 23:22:04.587491 32384 layer_factory.hpp:77] Creating layer lstm1_cont_slice
I0925 23:22:04.587551 32370 net.cpp:399] lstm1_x_transform -> W_xc_x
I0925 23:22:04.587556 32410 net.cpp:91] Creating Layer lstm1_
I0925 23:22:04.587568 32396 net.cpp:399] cont_1_lstm1_cont_slice_0_split -> cont_1_lstm1_cont_slice_0_split_0
I0925 23:22:04.587570 32390 layer_factory.hpp:77] Creating layer lstm1_
I0925 23:22:04.587581 32410 net.cpp:399] lstm1_ -> c_0
I0925 23:22:04.587589 32396 net.cpp:399] cont_1_lstm1_cont_slice_0_split -> cont_1_lstm1_cont_slice_0_split_1
I0925 23:22:04.587594 32390 net.cpp:91] Creating Layer lstm1_
I0925 23:22:04.587604 32410 net.cpp:399] lstm1_ -> h_0
I0925 23:22:04.587610 32390 net.cpp:399] lstm1_ -> x
I0925 23:22:04.587647 32390 net.cpp:399] lstm1_ -> cont
I0925 23:22:04.587782 32396 net.cpp:141] Setting up cont_1_lstm1_cont_slice_0_split
I0925 23:22:04.587798 32396 net.cpp:148] Top shape: 1 1 (1)
I0925 23:22:04.587810 32396 net.cpp:148] Top shape: 1 1 (1)
I0925 23:22:04.587821 32396 net.cpp:156] Memory required for data: 10016
I0925 23:22:04.587832 32396 layer_factory.hpp:77] Creating layer lstm1_x_transform
I0925 23:22:04.587873 32396 net.cpp:91] Creating Layer lstm1_x_transform
I0925 23:22:04.587882 32384 net.cpp:91] Creating Layer lstm1_cont_slice
I0925 23:22:04.587885 32396 net.cpp:425] lstm1_x_transform <- x
I0925 23:22:04.587904 32384 net.cpp:425] lstm1_cont_slice <- cont
I0925 23:22:04.587916 32396 net.cpp:399] lstm1_x_transform -> W_xc_x
I0925 23:22:04.587918 32384 net.cpp:399] lstm1_cont_slice -> cont_1
I0925 23:22:04.600878 32390 net.cpp:141] Setting up lstm1_
I0925 23:22:04.600891 32384 net.cpp:141] Setting up lstm1_cont_slice
I0925 23:22:04.600929 32390 net.cpp:148] Top shape: 1 1 500 (500)
I0925 23:22:04.600939 32390 net.cpp:148] Top shape: 1 1 (1)
I0925 23:22:04.600940 32384 net.cpp:148] Top shape: 1 1 (1)
I0925 23:22:04.600944 32390 net.cpp:156] Memory required for data: 2004
I0925 23:22:04.600963 32384 net.cpp:156] Memory required for data: 10008
I0925 23:22:04.600972 32390 layer_factory.hpp:77] Creating layer lstm1_
I0925 23:22:04.600973 32384 layer_factory.hpp:77] Creating layer cont_1_lstm1_cont_slice_0_split
I0925 23:22:04.601001 32390 net.cpp:91] Creating Layer lstm1_
I0925 23:22:04.601011 32390 net.cpp:399] lstm1_ -> c_0
I0925 23:22:04.600992 32384 net.cpp:91] Creating Layer cont_1_lstm1_cont_slice_0_split
I0925 23:22:04.601032 32390 net.cpp:399] lstm1_ -> h_0
I0925 23:22:04.600991 32410 net.cpp:141] Setting up lstm1_
I0925 23:22:04.601042 32384 net.cpp:425] cont_1_lstm1_cont_slice_0_split <- cont_1
I0925 23:22:04.601081 32410 net.cpp:148] Top shape: 1 1 1000 (1000)
I0925 23:22:04.601088 32384 net.cpp:399] cont_1_lstm1_cont_slice_0_split -> cont_1_lstm1_cont_slice_0_split_0
I0925 23:22:04.601099 32410 net.cpp:148] Top shape: 1 1 1000 (1000)
I0925 23:22:04.601107 32384 net.cpp:399] cont_1_lstm1_cont_slice_0_split -> cont_1_lstm1_cont_slice_0_split_1
I0925 23:22:04.601110 32410 net.cpp:156] Memory required for data: 10004
I0925 23:22:04.601125 32410 layer_factory.hpp:77] Creating layer lstm1_cont_slice
I0925 23:22:04.601155 32410 net.cpp:91] Creating Layer lstm1_cont_slice
I0925 23:22:04.601169 32410 net.cpp:425] lstm1_cont_slice <- cont
I0925 23:22:04.601188 32410 net.cpp:399] lstm1_cont_slice -> cont_1
I0925 23:22:04.606825 32410 net.cpp:141] Setting up lstm1_cont_slice
I0925 23:22:04.606889 32410 net.cpp:148] Top shape: 1 1 (1)
I0925 23:22:04.606900 32410 net.cpp:156] Memory required for data: 10008
I0925 23:22:04.606914 32410 layer_factory.hpp:77] Creating layer cont_1_lstm1_cont_slice_0_split
I0925 23:22:04.606904 32390 net.cpp:141] Setting up lstm1_
I0925 23:22:04.606941 32410 net.cpp:91] Creating Layer cont_1_lstm1_cont_slice_0_split
I0925 23:22:04.606940 32384 net.cpp:141] Setting up cont_1_lstm1_cont_slice_0_split
I0925 23:22:04.606955 32390 net.cpp:148] Top shape: 1 1 1000 (1000)
I0925 23:22:04.606969 32384 net.cpp:148] Top shape: 1 1 (1)
I0925 23:22:04.606956 32410 net.cpp:425] cont_1_lstm1_cont_slice_0_split <- cont_1
I0925 23:22:04.606978 32390 net.cpp:148] Top shape: 1 1 1000 (1000)
I0925 23:22:04.606983 32384 net.cpp:148] Top shape: 1 1 (1)
I0925 23:22:04.606990 32390 net.cpp:156] Memory required for data: 10004
I0925 23:22:04.607000 32410 net.cpp:399] cont_1_lstm1_cont_slice_0_split -> cont_1_lstm1_cont_slice_0_split_0
I0925 23:22:04.606992 32384 net.cpp:156] Memory required for data: 10016
I0925 23:22:04.607013 32390 layer_factory.hpp:77] Creating layer lstm1_cont_slice
I0925 23:22:04.607018 32384 layer_factory.hpp:77] Creating layer lstm1_x_transform
I0925 23:22:04.607024 32410 net.cpp:399] cont_1_lstm1_cont_slice_0_split -> cont_1_lstm1_cont_slice_0_split_1
I0925 23:22:04.607043 32390 net.cpp:91] Creating Layer lstm1_cont_slice
I0925 23:22:04.607044 32384 net.cpp:91] Creating Layer lstm1_x_transform
I0925 23:22:04.607065 32390 net.cpp:425] lstm1_cont_slice <- cont
I0925 23:22:04.607070 32384 net.cpp:425] lstm1_x_transform <- x
I0925 23:22:04.607102 32384 net.cpp:399] lstm1_x_transform -> W_xc_x
I0925 23:22:04.607250 32390 net.cpp:399] lstm1_cont_slice -> cont_1
I0925 23:22:04.613410 32410 net.cpp:141] Setting up cont_1_lstm1_cont_slice_0_split
I0925 23:22:04.613466 32410 net.cpp:148] Top shape: 1 1 (1)
I0925 23:22:04.613477 32410 net.cpp:148] Top shape: 1 1 (1)
I0925 23:22:04.613486 32410 net.cpp:156] Memory required for data: 10016
I0925 23:22:04.613499 32410 layer_factory.hpp:77] Creating layer lstm1_x_transform
I0925 23:22:04.613536 32410 net.cpp:91] Creating Layer lstm1_x_transform
I0925 23:22:04.613548 32410 net.cpp:425] lstm1_x_transform <- x
I0925 23:22:04.613545 32362 net.cpp:141] Setting up lstm1_x_transform
I0925 23:22:04.613615 32410 net.cpp:399] lstm1_x_transform -> W_xc_x
I0925 23:22:04.613612 32390 net.cpp:141] Setting up lstm1_cont_slice
I0925 23:22:04.613636 32362 net.cpp:148] Top shape: 1 1 4000 (4000)
I0925 23:22:04.613646 32390 net.cpp:148] Top shape: 1 1 (1)
I0925 23:22:04.613649 32362 net.cpp:156] Memory required for data: 26016
I0925 23:22:04.613657 32390 net.cpp:156] Memory required for data: 10008
I0925 23:22:04.613673 32390 layer_factory.hpp:77] Creating layer cont_1_lstm1_cont_slice_0_split
I0925 23:22:04.613682 32362 layer_factory.hpp:77] Creating layer lstm1_W_xc_x_slice
I0925 23:22:04.613699 32390 net.cpp:91] Creating Layer cont_1_lstm1_cont_slice_0_split
I0925 23:22:04.613704 32362 net.cpp:91] Creating Layer lstm1_W_xc_x_slice
I0925 23:22:04.613715 32390 net.cpp:425] cont_1_lstm1_cont_slice_0_split <- cont_1
I0925 23:22:04.613718 32362 net.cpp:425] lstm1_W_xc_x_slice <- W_xc_x
I0925 23:22:04.613735 32390 net.cpp:399] cont_1_lstm1_cont_slice_0_split -> cont_1_lstm1_cont_slice_0_split_0
I0925 23:22:04.613746 32362 net.cpp:399] lstm1_W_xc_x_slice -> W_xc_x_1
I0925 23:22:04.613761 32390 net.cpp:399] cont_1_lstm1_cont_slice_0_split -> cont_1_lstm1_cont_slice_0_split_1
I0925 23:22:04.619196 32422 net.cpp:141] Setting up embedding
I0925 23:22:04.619252 32422 net.cpp:148] Top shape: 1 1 500 (500)
I0925 23:22:04.619261 32422 net.cpp:156] Memory required for data: 22408
I0925 23:22:04.619289 32422 layer_factory.hpp:77] Creating layer lstm1
I0925 23:22:04.619319 32422 net.cpp:91] Creating Layer lstm1
I0925 23:22:04.619330 32422 net.cpp:425] lstm1 <- embedded_input_frames
I0925 23:22:04.619343 32422 net.cpp:425] lstm1 <- cont_sentence_input_1_split_0
I0925 23:22:04.619356 32422 net.cpp:399] lstm1 -> lstm1
I0925 23:22:04.619365 32362 net.cpp:141] Setting up lstm1_W_xc_x_slice
I0925 23:22:04.619385 32422 recurrent_layer.cpp:20] Initializing recurrent layer: assuming input batch contains 1 timesteps of 1 independent streams.
I0925 23:22:04.619423 32362 net.cpp:148] Top shape: 1 1 4000 (4000)
I0925 23:22:04.619433 32362 net.cpp:156] Memory required for data: 42016
I0925 23:22:04.619444 32362 layer_factory.hpp:77] Creating layer lstm1_h_conted_0
I0925 23:22:04.619483 32362 net.cpp:91] Creating Layer lstm1_h_conted_0
I0925 23:22:04.619494 32362 net.cpp:425] lstm1_h_conted_0 <- h_0
I0925 23:22:04.619508 32362 net.cpp:425] lstm1_h_conted_0 <- cont_1_lstm1_cont_slice_0_split_0
I0925 23:22:04.619521 32362 net.cpp:399] lstm1_h_conted_0 -> h_conted_0
I0925 23:22:04.619539 32390 net.cpp:141] Setting up cont_1_lstm1_cont_slice_0_split
I0925 23:22:04.619559 32390 net.cpp:148] Top shape: 1 1 (1)
I0925 23:22:04.619568 32390 net.cpp:148] Top shape: 1 1 (1)
I0925 23:22:04.619575 32390 net.cpp:156] Memory required for data: 10016
I0925 23:22:04.619585 32390 layer_factory.hpp:77] Creating layer lstm1_x_transform
I0925 23:22:04.619611 32390 net.cpp:91] Creating Layer lstm1_x_transform
I0925 23:22:04.619621 32390 net.cpp:425] lstm1_x_transform <- x
I0925 23:22:04.619637 32390 net.cpp:399] lstm1_x_transform -> W_xc_x
I0925 23:22:04.619753 32362 net.cpp:141] Setting up lstm1_h_conted_0
I0925 23:22:04.619771 32362 net.cpp:148] Top shape: 1 1 1000 (1000)
I0925 23:22:04.619778 32362 net.cpp:156] Memory required for data: 46016
I0925 23:22:04.619787 32362 layer_factory.hpp:77] Creating layer lstm1_transform_1
I0925 23:22:04.619802 32362 net.cpp:91] Creating Layer lstm1_transform_1
I0925 23:22:04.619812 32362 net.cpp:425] lstm1_transform_1 <- h_conted_0
I0925 23:22:04.619828 32362 net.cpp:399] lstm1_transform_1 -> W_hc_h_0
I0925 23:22:04.619842 32422 net.cpp:49] Initializing net from parameters: 
layer {
  name: "lstm1_"
  type: "Input"
  top: "x"
  top: "cont"
  input_param {
    shape {
      dim: 1
      dim: 1
      dim: 500
    }
    shape {
      dim: 1
      dim: 1
    }
  }
}
layer {
  name: "lstm1_"
  type: "Input"
  top: "c_0"
  top: "h_0"
  input_param {
    shape {
      dim: 1
      dim: 1
      dim: 1000
    }
    shape {
      dim: 1
      dim: 1
      dim: 1000
    }
  }
}
layer {
  name: "lstm1_cont_slice"
  type: "Slice"
  bottom: "cont"
  top: "cont_1"
  slice_param {
    axis: 0
  }
}
layer {
  name: "lstm1_x_transform"
  type: "InnerProduct"
  bottom: "x"
  top: "W_xc_x"
  param {
    name: "W_xc"
  }
  param {
    name: "b_c"
  }
  propagate_down: true
  inner_product_param {
    num_output: 4000
    bias_term: true
    weight_filler {
      type: "uniform"
      min: -0.08
      max: 0.08
    }
    bias_filler {
      type: "constant"
      value: 0
    }
    axis: 2
  }
}
layer {
  name: "lstm1_W_xc_x_slice"
  type: "Slice"
  bottom: "W_xc_x"
  top: "W_xc_x_1"
  slice_param {
    axis: 0
  }
}
layer {
  name: "lstm1_h_conted_0"
  type: "Scale"
  bottom: "h_0"
  bottom: "cont_1"
  top: "h_conted_0"
  scale_param {
    axis: 0
  }
}
layer {
  name: "lstm1_transform_1"
  type: "InnerProduct"
  bottom: "h_conted_0"
  top: "W_hc_h_0"
  param {
    name: "W_hc"
  }
  inner_product_param {
    num_output: 4000
    bias_term: false
    weight_filler {
      type: "uniform"
      min: -0.08
      max: 0.08
    }
    axis: 2
  }
}
layer {
  name: "lstm1_gate_input_1"
  type: "Eltwise"
  bottom: "W_hc_h_0"
  bottom: "W_xc_x_1"
  top: "gate_input_1"
  eltwise_param {
    operation: SUM
  }
}
layer {
  name: "lstm1_unit_1"
  type: "LSTMUnit"
  bottom: "c_0"
  bottom: "gate_input_1"
  bottom: "cont_1"
  top: "c_1"
  top: "h_1"
}
layer {
  name: "lstm1_"
  type: "Split"
  bottom: "c_1"
  top: "c_T"
}
layer {
  name: "lstm1_h_concat"
  type: "Concat"
  bottom: "h_1"
  top: "h"
  concat_param {
    axis: 0
  }
}
layer {
  name: "h_pseudoloss"
  type: "Reduction"
  bottom: "h"
  top: "h_pseudoloss"
  loss_weight: 1
}
I0925 23:22:04.619946 32370 net.cpp:141] Setting up lstm1_x_transform
I0925 23:22:04.619969 32370 net.cpp:148] Top shape: 1 1 4000 (4000)
I0925 23:22:04.619976 32422 layer_factory.hpp:77] Creating layer lstm1_
I0925 23:22:04.619977 32370 net.cpp:156] Memory required for data: 26016
I0925 23:22:04.620012 32422 net.cpp:91] Creating Layer lstm1_
I0925 23:22:04.620021 32422 net.cpp:399] lstm1_ -> x
I0925 23:22:04.620026 32370 layer_factory.hpp:77] Creating layer lstm1_W_xc_x_slice
I0925 23:22:04.620038 32422 net.cpp:399] lstm1_ -> cont
I0925 23:22:04.620046 32370 net.cpp:91] Creating Layer lstm1_W_xc_x_slice
I0925 23:22:04.620057 32370 net.cpp:425] lstm1_W_xc_x_slice <- W_xc_x
I0925 23:22:04.620070 32370 net.cpp:399] lstm1_W_xc_x_slice -> W_xc_x_1
I0925 23:22:04.625327 32370 net.cpp:141] Setting up lstm1_W_xc_x_slice
I0925 23:22:04.625365 32370 net.cpp:148] Top shape: 1 1 4000 (4000)
I0925 23:22:04.625376 32370 net.cpp:156] Memory required for data: 42016
I0925 23:22:04.625388 32370 layer_factory.hpp:77] Creating layer lstm1_h_conted_0
I0925 23:22:04.625445 32370 net.cpp:91] Creating Layer lstm1_h_conted_0
I0925 23:22:04.625461 32370 net.cpp:425] lstm1_h_conted_0 <- h_0
I0925 23:22:04.625476 32370 net.cpp:425] lstm1_h_conted_0 <- cont_1_lstm1_cont_slice_0_split_0
I0925 23:22:04.625491 32370 net.cpp:399] lstm1_h_conted_0 -> h_conted_0
I0925 23:22:04.625654 32370 net.cpp:141] Setting up lstm1_h_conted_0
I0925 23:22:04.625666 32370 net.cpp:148] Top shape: 1 1 1000 (1000)
I0925 23:22:04.625671 32370 net.cpp:156] Memory required for data: 46016
I0925 23:22:04.625677 32370 layer_factory.hpp:77] Creating layer lstm1_transform_1
I0925 23:22:04.625694 32370 net.cpp:91] Creating Layer lstm1_transform_1
I0925 23:22:04.625699 32370 net.cpp:425] lstm1_transform_1 <- h_conted_0
I0925 23:22:04.625710 32370 net.cpp:399] lstm1_transform_1 -> W_hc_h_0
I0925 23:22:04.625756 32422 net.cpp:141] Setting up lstm1_
I0925 23:22:04.625794 32422 net.cpp:148] Top shape: 1 1 500 (500)
I0925 23:22:04.625808 32422 net.cpp:148] Top shape: 1 1 (1)
I0925 23:22:04.625814 32422 net.cpp:156] Memory required for data: 2004
I0925 23:22:04.625825 32422 layer_factory.hpp:77] Creating layer lstm1_
I0925 23:22:04.625881 32422 net.cpp:91] Creating Layer lstm1_
I0925 23:22:04.625900 32422 net.cpp:399] lstm1_ -> c_0
I0925 23:22:04.625923 32422 net.cpp:399] lstm1_ -> h_0
I0925 23:22:04.644757 32422 net.cpp:141] Setting up lstm1_
I0925 23:22:04.644809 32422 net.cpp:148] Top shape: 1 1 1000 (1000)
I0925 23:22:04.644820 32422 net.cpp:148] Top shape: 1 1 1000 (1000)
I0925 23:22:04.644827 32422 net.cpp:156] Memory required for data: 10004
I0925 23:22:04.644840 32422 layer_factory.hpp:77] Creating layer lstm1_cont_slice
I0925 23:22:04.644868 32422 net.cpp:91] Creating Layer lstm1_cont_slice
I0925 23:22:04.644879 32422 net.cpp:425] lstm1_cont_slice <- cont
I0925 23:22:04.644896 32422 net.cpp:399] lstm1_cont_slice -> cont_1
I0925 23:22:04.645006 32390 net.cpp:141] Setting up lstm1_x_transform
I0925 23:22:04.645048 32390 net.cpp:148] Top shape: 1 1 4000 (4000)
I0925 23:22:04.645054 32390 net.cpp:156] Memory required for data: 26016
I0925 23:22:04.645076 32390 layer_factory.hpp:77] Creating layer lstm1_W_xc_x_slice
I0925 23:22:04.645093 32390 net.cpp:91] Creating Layer lstm1_W_xc_x_slice
I0925 23:22:04.645102 32390 net.cpp:425] lstm1_W_xc_x_slice <- W_xc_x
I0925 23:22:04.645664 32390 net.cpp:399] lstm1_W_xc_x_slice -> W_xc_x_1
I0925 23:22:04.645735 32390 net.cpp:141] Setting up lstm1_W_xc_x_slice
I0925 23:22:04.645746 32390 net.cpp:148] Top shape: 1 1 4000 (4000)
I0925 23:22:04.645751 32390 net.cpp:156] Memory required for data: 42016
I0925 23:22:04.645757 32390 layer_factory.hpp:77] Creating layer lstm1_h_conted_0
I0925 23:22:04.645769 32390 net.cpp:91] Creating Layer lstm1_h_conted_0
I0925 23:22:04.645774 32390 net.cpp:425] lstm1_h_conted_0 <- h_0
I0925 23:22:04.645782 32390 net.cpp:425] lstm1_h_conted_0 <- cont_1_lstm1_cont_slice_0_split_0
I0925 23:22:04.651234 32422 net.cpp:141] Setting up lstm1_cont_slice
I0925 23:22:04.651295 32422 net.cpp:148] Top shape: 1 1 (1)
I0925 23:22:04.651304 32422 net.cpp:156] Memory required for data: 10008
I0925 23:22:04.651317 32422 layer_factory.hpp:77] Creating layer cont_1_lstm1_cont_slice_0_split
I0925 23:22:04.651342 32422 net.cpp:91] Creating Layer cont_1_lstm1_cont_slice_0_split
I0925 23:22:04.651353 32422 net.cpp:425] cont_1_lstm1_cont_slice_0_split <- cont_1
I0925 23:22:04.651371 32422 net.cpp:399] cont_1_lstm1_cont_slice_0_split -> cont_1_lstm1_cont_slice_0_split_0
I0925 23:22:04.651391 32422 net.cpp:399] cont_1_lstm1_cont_slice_0_split -> cont_1_lstm1_cont_slice_0_split_1
I0925 23:22:04.658664 32396 net.cpp:141] Setting up lstm1_x_transform
I0925 23:22:04.658725 32396 net.cpp:148] Top shape: 1 1 4000 (4000)
I0925 23:22:04.658735 32396 net.cpp:156] Memory required for data: 26016
I0925 23:22:04.658768 32396 layer_factory.hpp:77] Creating layer lstm1_W_xc_x_slice
I0925 23:22:04.658809 32396 net.cpp:91] Creating Layer lstm1_W_xc_x_slice
I0925 23:22:04.658820 32396 net.cpp:425] lstm1_W_xc_x_slice <- W_xc_x
I0925 23:22:04.658834 32396 net.cpp:399] lstm1_W_xc_x_slice -> W_xc_x_1
I0925 23:22:04.667664 32390 net.cpp:399] lstm1_h_conted_0 -> h_conted_0
I0925 23:22:04.681960 32422 net.cpp:141] Setting up cont_1_lstm1_cont_slice_0_split
I0925 23:22:04.682023 32422 net.cpp:148] Top shape: 1 1 (1)
I0925 23:22:04.682035 32422 net.cpp:148] Top shape: 1 1 (1)
I0925 23:22:04.682044 32422 net.cpp:156] Memory required for data: 10016
I0925 23:22:04.682057 32422 layer_factory.hpp:77] Creating layer lstm1_x_transform
I0925 23:22:04.682096 32422 net.cpp:91] Creating Layer lstm1_x_transform
I0925 23:22:04.682107 32422 net.cpp:425] lstm1_x_transform <- x
I0925 23:22:04.682131 32422 net.cpp:399] lstm1_x_transform -> W_xc_x
I0925 23:22:04.687618 32396 net.cpp:141] Setting up lstm1_W_xc_x_slice
I0925 23:22:04.687679 32396 net.cpp:148] Top shape: 1 1 4000 (4000)
I0925 23:22:04.687688 32396 net.cpp:156] Memory required for data: 42016
I0925 23:22:04.687702 32396 layer_factory.hpp:77] Creating layer lstm1_h_conted_0
I0925 23:22:04.687758 32396 net.cpp:91] Creating Layer lstm1_h_conted_0
I0925 23:22:04.687772 32396 net.cpp:425] lstm1_h_conted_0 <- h_0
I0925 23:22:04.687788 32396 net.cpp:425] lstm1_h_conted_0 <- cont_1_lstm1_cont_slice_0_split_0
I0925 23:22:04.687801 32396 net.cpp:399] lstm1_h_conted_0 -> h_conted_0
I0925 23:22:04.687939 32390 net.cpp:141] Setting up lstm1_h_conted_0
I0925 23:22:04.687983 32390 net.cpp:148] Top shape: 1 1 1000 (1000)
I0925 23:22:04.687993 32390 net.cpp:156] Memory required for data: 46016
I0925 23:22:04.688005 32390 layer_factory.hpp:77] Creating layer lstm1_transform_1
I0925 23:22:04.688037 32390 net.cpp:91] Creating Layer lstm1_transform_1
I0925 23:22:04.688050 32390 net.cpp:425] lstm1_transform_1 <- h_conted_0
I0925 23:22:04.688067 32390 net.cpp:399] lstm1_transform_1 -> W_hc_h_0
I0925 23:22:04.699419 32396 net.cpp:141] Setting up lstm1_h_conted_0
I0925 23:22:04.699479 32396 net.cpp:148] Top shape: 1 1 1000 (1000)
I0925 23:22:04.699491 32396 net.cpp:156] Memory required for data: 46016
I0925 23:22:04.699502 32396 layer_factory.hpp:77] Creating layer lstm1_transform_1
I0925 23:22:04.699550 32396 net.cpp:91] Creating Layer lstm1_transform_1
I0925 23:22:04.699563 32396 net.cpp:425] lstm1_transform_1 <- h_conted_0
I0925 23:22:04.699581 32396 net.cpp:399] lstm1_transform_1 -> W_hc_h_0
I0925 23:22:04.708113 32362 net.cpp:141] Setting up lstm1_transform_1
I0925 23:22:04.708165 32362 net.cpp:148] Top shape: 1 1 4000 (4000)
I0925 23:22:04.708173 32362 net.cpp:156] Memory required for data: 62016
I0925 23:22:04.708194 32362 layer_factory.hpp:77] Creating layer lstm1_gate_input_1
I0925 23:22:04.708219 32362 net.cpp:91] Creating Layer lstm1_gate_input_1
I0925 23:22:04.708226 32362 net.cpp:425] lstm1_gate_input_1 <- W_hc_h_0
I0925 23:22:04.708235 32362 net.cpp:425] lstm1_gate_input_1 <- W_xc_x_1
I0925 23:22:04.708245 32362 net.cpp:399] lstm1_gate_input_1 -> gate_input_1
I0925 23:22:04.708325 32362 net.cpp:141] Setting up lstm1_gate_input_1
I0925 23:22:04.708336 32362 net.cpp:148] Top shape: 1 1 4000 (4000)
I0925 23:22:04.708340 32362 net.cpp:156] Memory required for data: 78016
I0925 23:22:04.708346 32362 layer_factory.hpp:77] Creating layer lstm1_unit_1
I0925 23:22:04.708367 32362 net.cpp:91] Creating Layer lstm1_unit_1
I0925 23:22:04.708374 32362 net.cpp:425] lstm1_unit_1 <- c_0
I0925 23:22:04.708379 32362 net.cpp:425] lstm1_unit_1 <- gate_input_1
I0925 23:22:04.708386 32362 net.cpp:425] lstm1_unit_1 <- cont_1_lstm1_cont_slice_0_split_1
I0925 23:22:04.708396 32362 net.cpp:399] lstm1_unit_1 -> c_1
I0925 23:22:04.708406 32362 net.cpp:399] lstm1_unit_1 -> h_1
I0925 23:22:04.708725 32418 net.cpp:141] Setting up embedding
I0925 23:22:04.708746 32418 net.cpp:148] Top shape: 1 1 500 (500)
I0925 23:22:04.708755 32418 net.cpp:156] Memory required for data: 22408
I0925 23:22:04.708772 32418 layer_factory.hpp:77] Creating layer lstm1
I0925 23:22:04.708814 32418 net.cpp:91] Creating Layer lstm1
I0925 23:22:04.708827 32418 net.cpp:425] lstm1 <- embedded_input_frames
I0925 23:22:04.708839 32418 net.cpp:425] lstm1 <- cont_sentence_input_1_split_0
I0925 23:22:04.708853 32418 net.cpp:399] lstm1 -> lstm1
I0925 23:22:04.708873 32418 recurrent_layer.cpp:20] Initializing recurrent layer: assuming input batch contains 1 timesteps of 1 independent streams.
I0925 23:22:04.709286 32418 net.cpp:49] Initializing net from parameters: 
layer {
  name: "lstm1_"
  type: "Input"
  top: "x"
  top: "cont"
  input_param {
    shape {
      dim: 1
      dim: 1
      dim: 500
    }
    shape {
      dim: 1
      dim: 1
    }
  }
}
layer {
  name: "lstm1_"
  type: "Input"
  top: "c_0"
  top: "h_0"
  input_param {
    shape {
      dim: 1
      dim: 1
      dim: 1000
    }
    shape {
      dim: 1
      dim: 1
      dim: 1000
    }
  }
}
layer {
  name: "lstm1_cont_slice"
  type: "Slice"
  bottom: "cont"
  top: "cont_1"
  slice_param {
    axis: 0
  }
}
layer {
  name: "lstm1_x_transform"
  type: "InnerProduct"
  bottom: "x"
  top: "W_xc_x"
  param {
    name: "W_xc"
  }
  param {
    name: "b_c"
  }
  propagate_down: true
  inner_product_param {
    num_output: 4000
    bias_term: true
    weight_filler {
      type: "uniform"
      min: -0.08
      max: 0.08
    }
    bias_filler {
      type: "constant"
      value: 0
    }
    axis: 2
  }
}
layer {
  name: "lstm1_W_xc_x_slice"
  type: "Slice"
  bottom: "W_xc_x"
  top: "W_xc_x_1"
  slice_param {
    axis: 0
  }
}
layer {
  name: "lstm1_h_conted_0"
  type: "Scale"
  bottom: "h_0"
  bottom: "cont_1"
  top: "h_conted_0"
  scale_param {
    axis: 0
  }
}
layer {
  name: "lstm1_transform_1"
  type: "InnerProduct"
  bottom: "h_conted_0"
  top: "W_hc_h_0"
  param {
    name: "W_hc"
  }
  inner_product_param {
    num_output: 4000
    bias_term: false
    weight_filler {
      type: "uniform"
      min: -0.08
      max: 0.08
    }
    axis: 2
  }
}
layer {
  name: "lstm1_gate_input_1"
  type: "Eltwise"
  bottom: "W_hc_h_0"
  bottom: "W_xc_x_1"
  top: "gate_input_1"
  eltwise_param {
    operation: SUM
  }
}
layer {
  name: "lstm1_unit_1"
  type: "LSTMUnit"
  bottom: "c_0"
  bottom: "gate_input_1"
  bottom: "cont_1"
  top: "c_1"
  top: "h_1"
}
layer {
  name: "lstm1_"
  type: "Split"
  bottom: "c_1"
  top: "c_T"
}
layer {
  name: "lstm1_h_concat"
  type: "Concat"
  bottom: "h_1"
  top: "h"
  concat_param {
    axis: 0
  }
}
layer {
  name: "h_pseudoloss"
  type: "Reduction"
  bottom: "h"
  top: "h_pseudoloss"
  loss_weight: 1
}
I0925 23:22:04.709430 32418 layer_factory.hpp:77] Creating layer lstm1_
I0925 23:22:04.709450 32418 net.cpp:91] Creating Layer lstm1_
I0925 23:22:04.709460 32418 net.cpp:399] lstm1_ -> x
I0925 23:22:04.709477 32418 net.cpp:399] lstm1_ -> cont
I0925 23:22:04.709566 32418 net.cpp:141] Setting up lstm1_
I0925 23:22:04.709589 32418 net.cpp:148] Top shape: 1 1 500 (500)
I0925 23:22:04.709601 32418 net.cpp:148] Top shape: 1 1 (1)
I0925 23:22:04.709611 32418 net.cpp:156] Memory required for data: 2004
I0925 23:22:04.709620 32418 layer_factory.hpp:77] Creating layer lstm1_
I0925 23:22:04.709640 32418 net.cpp:91] Creating Layer lstm1_
I0925 23:22:04.709652 32418 net.cpp:399] lstm1_ -> c_0
I0925 23:22:04.709669 32418 net.cpp:399] lstm1_ -> h_0
I0925 23:22:04.709782 32418 net.cpp:141] Setting up lstm1_
I0925 23:22:04.709805 32418 net.cpp:148] Top shape: 1 1 1000 (1000)
I0925 23:22:04.709820 32418 net.cpp:148] Top shape: 1 1 1000 (1000)
I0925 23:22:04.709831 32418 net.cpp:156] Memory required for data: 10004
I0925 23:22:04.709844 32418 layer_factory.hpp:77] Creating layer lstm1_cont_slice
I0925 23:22:04.709869 32418 net.cpp:91] Creating Layer lstm1_cont_slice
I0925 23:22:04.709882 32418 net.cpp:425] lstm1_cont_slice <- cont
I0925 23:22:04.709905 32418 net.cpp:399] lstm1_cont_slice -> cont_1
I0925 23:22:04.709993 32418 net.cpp:141] Setting up lstm1_cont_slice
I0925 23:22:04.710014 32418 net.cpp:148] Top shape: 1 1 (1)
I0925 23:22:04.710026 32418 net.cpp:156] Memory required for data: 10008
I0925 23:22:04.710037 32418 layer_factory.hpp:77] Creating layer cont_1_lstm1_cont_slice_0_split
I0925 23:22:04.710055 32418 net.cpp:91] Creating Layer cont_1_lstm1_cont_slice_0_split
I0925 23:22:04.710067 32418 net.cpp:425] cont_1_lstm1_cont_slice_0_split <- cont_1
I0925 23:22:04.710085 32418 net.cpp:399] cont_1_lstm1_cont_slice_0_split -> cont_1_lstm1_cont_slice_0_split_0
I0925 23:22:04.710105 32418 net.cpp:399] cont_1_lstm1_cont_slice_0_split -> cont_1_lstm1_cont_slice_0_split_1
I0925 23:22:04.710222 32418 net.cpp:141] Setting up cont_1_lstm1_cont_slice_0_split
I0925 23:22:04.710243 32418 net.cpp:148] Top shape: 1 1 (1)
I0925 23:22:04.710258 32418 net.cpp:148] Top shape: 1 1 (1)
I0925 23:22:04.710269 32418 net.cpp:156] Memory required for data: 10016
I0925 23:22:04.710281 32418 layer_factory.hpp:77] Creating layer lstm1_x_transform
I0925 23:22:04.710309 32418 net.cpp:91] Creating Layer lstm1_x_transform
I0925 23:22:04.710322 32418 net.cpp:425] lstm1_x_transform <- x
I0925 23:22:04.710345 32418 net.cpp:399] lstm1_x_transform -> W_xc_x
I0925 23:22:04.710861 32370 net.cpp:141] Setting up lstm1_transform_1
I0925 23:22:04.710909 32370 net.cpp:148] Top shape: 1 1 4000 (4000)
I0925 23:22:04.710919 32370 net.cpp:156] Memory required for data: 62016
I0925 23:22:04.710948 32370 layer_factory.hpp:77] Creating layer lstm1_gate_input_1
I0925 23:22:04.710981 32370 net.cpp:91] Creating Layer lstm1_gate_input_1
I0925 23:22:04.710994 32370 net.cpp:425] lstm1_gate_input_1 <- W_hc_h_0
I0925 23:22:04.711004 32370 net.cpp:425] lstm1_gate_input_1 <- W_xc_x_1
I0925 23:22:04.711017 32370 net.cpp:399] lstm1_gate_input_1 -> gate_input_1
I0925 23:22:04.717720 32362 net.cpp:141] Setting up lstm1_unit_1
I0925 23:22:04.717792 32362 net.cpp:148] Top shape: 1 1 1000 (1000)
I0925 23:22:04.717815 32362 net.cpp:148] Top shape: 1 1 1000 (1000)
I0925 23:22:04.717830 32362 net.cpp:156] Memory required for data: 86016
I0925 23:22:04.717854 32362 layer_factory.hpp:77] Creating layer lstm1_
I0925 23:22:04.717886 32362 net.cpp:91] Creating Layer lstm1_
I0925 23:22:04.717906 32362 net.cpp:425] lstm1_ <- c_1
I0925 23:22:04.717936 32362 net.cpp:399] lstm1_ -> c_T
I0925 23:22:04.718085 32362 net.cpp:141] Setting up lstm1_
I0925 23:22:04.718112 32362 net.cpp:148] Top shape: 1 1 1000 (1000)
I0925 23:22:04.718128 32362 net.cpp:156] Memory required for data: 90016
I0925 23:22:04.718143 32362 layer_factory.hpp:77] Creating layer lstm1_h_concat
I0925 23:22:04.718169 32362 net.cpp:91] Creating Layer lstm1_h_concat
I0925 23:22:04.718194 32362 net.cpp:425] lstm1_h_concat <- h_1
I0925 23:22:04.718219 32362 net.cpp:399] lstm1_h_concat -> h
I0925 23:22:04.718457 32422 net.cpp:141] Setting up lstm1_x_transform
I0925 23:22:04.718498 32422 net.cpp:148] Top shape: 1 1 4000 (4000)
I0925 23:22:04.718508 32422 net.cpp:156] Memory required for data: 26016
I0925 23:22:04.718535 32422 layer_factory.hpp:77] Creating layer lstm1_W_xc_x_slice
I0925 23:22:04.718541 32410 net.cpp:141] Setting up lstm1_x_transform
I0925 23:22:04.718559 32422 net.cpp:91] Creating Layer lstm1_W_xc_x_slice
I0925 23:22:04.718565 32410 net.cpp:148] Top shape: 1 1 4000 (4000)
I0925 23:22:04.718570 32422 net.cpp:425] lstm1_W_xc_x_slice <- W_xc_x
I0925 23:22:04.718575 32410 net.cpp:156] Memory required for data: 26016
I0925 23:22:04.718588 32422 net.cpp:399] lstm1_W_xc_x_slice -> W_xc_x_1
I0925 23:22:04.718613 32410 layer_factory.hpp:77] Creating layer lstm1_W_xc_x_slice
I0925 23:22:04.718634 32410 net.cpp:91] Creating Layer lstm1_W_xc_x_slice
I0925 23:22:04.718646 32410 net.cpp:425] lstm1_W_xc_x_slice <- W_xc_x
I0925 23:22:04.718660 32410 net.cpp:399] lstm1_W_xc_x_slice -> W_xc_x_1
I0925 23:22:04.718672 32422 net.cpp:141] Setting up lstm1_W_xc_x_slice
I0925 23:22:04.718688 32422 net.cpp:148] Top shape: 1 1 4000 (4000)
I0925 23:22:04.718696 32422 net.cpp:156] Memory required for data: 42016
I0925 23:22:04.718705 32422 layer_factory.hpp:77] Creating layer lstm1_h_conted_0
I0925 23:22:04.718724 32422 net.cpp:91] Creating Layer lstm1_h_conted_0
I0925 23:22:04.718724 32410 net.cpp:141] Setting up lstm1_W_xc_x_slice
I0925 23:22:04.718734 32422 net.cpp:425] lstm1_h_conted_0 <- h_0
I0925 23:22:04.718741 32410 net.cpp:148] Top shape: 1 1 4000 (4000)
I0925 23:22:04.718744 32422 net.cpp:425] lstm1_h_conted_0 <- cont_1_lstm1_cont_slice_0_split_0
I0925 23:22:04.718750 32410 net.cpp:156] Memory required for data: 42016
I0925 23:22:04.718757 32422 net.cpp:399] lstm1_h_conted_0 -> h_conted_0
I0925 23:22:04.718760 32410 layer_factory.hpp:77] Creating layer lstm1_h_conted_0
I0925 23:22:04.718775 32410 net.cpp:91] Creating Layer lstm1_h_conted_0
I0925 23:22:04.718786 32410 net.cpp:425] lstm1_h_conted_0 <- h_0
I0925 23:22:04.718796 32410 net.cpp:425] lstm1_h_conted_0 <- cont_1_lstm1_cont_slice_0_split_0
I0925 23:22:04.718808 32410 net.cpp:399] lstm1_h_conted_0 -> h_conted_0
I0925 23:22:04.718930 32362 net.cpp:141] Setting up lstm1_h_concat
I0925 23:22:04.718946 32362 net.cpp:148] Top shape: 1 1 1000 (1000)
I0925 23:22:04.718955 32362 net.cpp:156] Memory required for data: 94016
I0925 23:22:04.718963 32362 layer_factory.hpp:77] Creating layer h_pseudoloss
I0925 23:22:04.718992 32362 net.cpp:91] Creating Layer h_pseudoloss
I0925 23:22:04.719002 32362 net.cpp:425] h_pseudoloss <- h
I0925 23:22:04.719014 32362 net.cpp:399] h_pseudoloss -> h_pseudoloss
I0925 23:22:04.719162 32362 net.cpp:141] Setting up h_pseudoloss
…
I0925 23:22:04.719350 32362 net.cpp:219] lstm1_ does not need backward computation.
I0925 23:22:04.719357 32362 net.cpp:261] This network produces output c_T
I0925 23:22:04.719364 32362 net.cpp:261] This network produces output h_pseudoloss
I0925 23:22:04.719395 32362 net.cpp:274] Network initialization done.
I0925 23:22:04.719490 32362 recurrent_layer.cpp:150] Adding parameter 0: W_xc
I0925 23:22:04.719501 32362 recurrent_layer.cpp:150] Adding parameter 1: b_c
I0925 23:22:04.719508 32362 recurrent_layer.cpp:150] Adding parameter 2: W_hc
I0925 23:22:04.719671 32362 net.cpp:141] Setting up lstm1
I0925 23:22:04.719687 32362 net.cpp:148] Top shape: 1 1 1000 (1000)
I0925 23:22:04.719696 32362 net.cpp:156] Memory required for data: 26408
I0925 23:22:04.719717 32362 layer_factory.hpp:77] Creating layer concat
I0925 23:22:04.719733 32362 net.cpp:91] Creating Layer concat
I0925 23:22:04.719743 32362 net.cpp:425] concat <- lstm1
I0925 23:22:04.719753 32362 net.cpp:425] concat <- embedded_input_sentence
I0925 23:22:04.719763 32362 net.cpp:425] concat <- reshaped_stage_indicator
I0925 23:22:04.719774 32362 net.cpp:399] concat -> lstm1_video_sequence
I0925 23:22:04.719823 32362 net.cpp:141] Setting up concat
I0925 23:22:04.719837 32362 net.cpp:148] Top shape: 1 1 1501 (1501)
I0925 23:22:04.719844 32362 net.cpp:156] Memory required for data: 32412
I0925 23:22:04.719852 32362 layer_factory.hpp:77] Creating layer lstm2
I0925 23:22:04.719873 32362 net.cpp:91] Creating Layer lstm2
I0925 23:22:04.719882 32362 net.cpp:425] lstm2 <- lstm1_video_sequence
I0925 23:22:04.719892 32362 net.cpp:425] lstm2 <- cont_sentence_input_1_split_1
I0925 23:22:04.719904 32362 net.cpp:399] lstm2 -> lstm2
I0925 23:22:04.719923 32362 recurrent_layer.cpp:20] Initializing recurrent layer: assuming input batch contains 1 timesteps of 1 independent streams.
I0925 23:22:04.720335 32362 net.cpp:49] Initializing net from parameters: 
layer {
  name: "lstm2_"
  type: "Input"
  top: "x"
  top: "cont"
  input_param {
    shape {
      dim: 1
      dim: 1
      dim: 1501
    }
    shape {
      dim: 1
      dim: 1
    }
  }
}
layer {
  name: "lstm2_"
  type: "Input"
  top: "c_0"
  top: "h_0"
  input_param {
    shape {
      dim: 1
      dim: 1
      dim: 1000
    }
    shape {
      dim: 1
      dim: 1
      dim: 1000
    }
  }
}
layer {
  name: "lstm2_cont_slice"
  type: "Slice"
  bottom: "cont"
  top: "cont_1"
  slice_param {
    axis: 0
  }
}
layer {
  name: "lstm2_x_transform"
  type: "InnerProduct"
  bottom: "x"
  top: "W_xc_x"
  param {
    name: "W_xc"
  }
  param {
    name: "b_c"
  }
  propagate_down: true
  inner_product_param {
    num_output: 4000
    bias_term: true
    weight_filler {
      type: "uniform"
      min: -0.08
      max: 0.08
    }
    bias_filler {
      type: "constant"
      value: 0
    }
    axis: 2
  }
}
layer {
  name: "lstm2_W_xc_x_slice"
  type: "Slice"
  bottom: "W_xc_x"
  top: "W_xc_x_1"
  slice_param {
    axis: 0
  }
}
layer {
  name: "lstm2_h_conted_0"
  type: "Scale"
  bottom: "h_0"
  bottom: "cont_1"
  top: "h_conted_0"
  scale_param {
    axis: 0
  }
}
layer {
  name: "lstm2_transform_1"
  type: "InnerProduct"
  bottom: "h_conted_0"
  top: "W_hc_h_0"
  param {
    name: "W_hc"
  }
  inner_product_param {
    num_output: 4000
    bias_term: false
    weight_filler {
      type: "uniform"
      min: -0.08
      max: 0.08
    }
    axis: 2
  }
}
layer {
  name: "lstm2_gate_input_1"
  type: "Eltwise"
  bottom: "W_hc_h_0"
  bottom: "W_xc_x_1"
  top: "gate_input_1"
  eltwise_param {
    operation: SUM
  }
}
layer {
  name: "lstm2_unit_1"
  type: "LSTMUnit"
  bottom: "c_0"
  bottom: "gate_input_1"
  bottom: "cont_1"
  top: "c_1"
  top: "h_1"
}
layer {
  name: "lstm2_"
  type: "Split"
  bottom: "c_1"
  top: "c_T"
}
layer {
  name: "lstm2_h_concat"
  type: "Concat"
  bottom: "h_1"
  top: "h"
  concat_param {
    axis: 0
  }
}
layer {
  name: "h_pseudoloss"
  type: "Reduction"
  bottom: "h"
  top: "h_pseudoloss"
  loss_weight: 1
}
I0925 23:22:04.720476 32362 layer_factory.hpp:77] Creating layer lstm2_
I0925 23:22:04.720495 32362 net.cpp:91] Creating Layer lstm2_
I0925 23:22:04.720505 32362 net.cpp:399] lstm2_ -> x
I0925 23:22:04.720521 32362 net.cpp:399] lstm2_ -> cont
I0925 23:22:04.720600 32362 net.cpp:141] Setting up lstm2_
I0925 23:22:04.720615 32362 net.cpp:148] Top shape: 1 1 1501 (1501)
I0925 23:22:04.720626 32362 net.cpp:148] Top shape: 1 1 (1)
I0925 23:22:04.720633 32362 net.cpp:156] Memory required for data: 6008
I0925 23:22:04.720640 32362 layer_factory.hpp:77] Creating layer lstm2_
I0925 23:22:04.720654 32362 net.cpp:91] Creating Layer lstm2_
I0925 23:22:04.720674 32362 net.cpp:399] lstm2_ -> c_0
I0925 23:22:04.720688 32362 net.cpp:399] lstm2_ -> h_0
I0925 23:22:04.720767 32362 net.cpp:141] Setting up lstm2_
I0925 23:22:04.720780 32362 net.cpp:148] Top shape: 1 1 1000 (1000)
I0925 23:22:04.720790 32362 net.cpp:148] Top shape: 1 1 1000 (1000)
I0925 23:22:04.720798 32362 net.cpp:156] Memory required for data: 14008
I0925 23:22:04.720804 32362 layer_factory.hpp:77] Creating layer lstm2_cont_slice
I0925 23:22:04.720821 32362 net.cpp:91] Creating Layer lstm2_cont_slice
I0925 23:22:04.720829 32362 net.cpp:425] lstm2_cont_slice <- cont
I0925 23:22:04.720841 32362 net.cpp:399] lstm2_cont_slice -> cont_1
I0925 23:22:04.720892 32362 net.cpp:141] Setting up lstm2_cont_slice
I0925 23:22:04.720907 32362 net.cpp:148] Top shape: 1 1 (1)
I0925 23:22:04.720916 32362 net.cpp:156] Memory required for data: 14012
I0925 23:22:04.720923 32362 layer_factory.hpp:77] Creating layer cont_1_lstm2_cont_slice_0_split
I0925 23:22:04.720935 32362 net.cpp:91] Creating Layer cont_1_lstm2_cont_slice_0_split
I0925 23:22:04.720943 32362 net.cpp:425] cont_1_lstm2_cont_slice_0_split <- cont_1
I0925 23:22:04.720958 32362 net.cpp:399] cont_1_lstm2_cont_slice_0_split -> cont_1_lstm2_cont_slice_0_split_0
I0925 23:22:04.720971 32362 net.cpp:399] cont_1_lstm2_cont_slice_0_split -> cont_1_lstm2_cont_slice_0_split_1
I0925 23:22:04.721052 32362 net.cpp:141] Setting up cont_1_lstm2_cont_slice_0_split
I0925 23:22:04.721066 32362 net.cpp:148] Top shape: 1 1 (1)
I0925 23:22:04.721076 32362 net.cpp:148] Top shape: 1 1 (1)
I0925 23:22:04.721083 32362 net.cpp:156] Memory required for data: 14020
I0925 23:22:04.721091 32362 layer_factory.hpp:77] Creating layer lstm2_x_transform
I0925 23:22:04.721109 32362 net.cpp:91] Creating Layer lstm2_x_transform
I0925 23:22:04.721118 32362 net.cpp:425] lstm2_x_transform <- x
I0925 23:22:04.721132 32362 net.cpp:399] lstm2_x_transform -> W_xc_x
I0925 23:22:04.722666 32370 net.cpp:141] Setting up lstm1_gate_input_1
I0925 23:22:04.722699 32370 net.cpp:148] Top shape: 1 1 4000 (4000)
I0925 23:22:04.722708 32370 net.cpp:156] Memory required for data: 78016
I0925 23:22:04.722718 32370 layer_factory.hpp:77] Creating layer lstm1_unit_1
I0925 23:22:04.722743 32370 net.cpp:91] Creating Layer lstm1_unit_1
I0925 23:22:04.722754 32370 net.cpp:425] lstm1_unit_1 <- c_0
I0925 23:22:04.722766 32370 net.cpp:425] lstm1_unit_1 <- gate_input_1
I0925 23:22:04.722774 32370 net.cpp:425] lstm1_unit_1 <- cont_1_lstm1_cont_slice_0_split_1
I0925 23:22:04.722786 32370 net.cpp:399] lstm1_unit_1 -> c_1
I0925 23:22:04.722802 32370 net.cpp:399] lstm1_unit_1 -> h_1
I0925 23:22:04.736081 32410 net.cpp:141] Setting up lstm1_h_conted_0
I0925 23:22:04.736137 32410 net.cpp:148] Top shape: 1 1 1000 (1000)
I0925 23:22:04.736148 32410 net.cpp:156] Memory required for data: 46016
I0925 23:22:04.736160 32410 layer_factory.hpp:77] Creating layer lstm1_transform_1
I0925 23:22:04.736191 32410 net.cpp:91] Creating Layer lstm1_transform_1
I0925 23:22:04.736202 32410 net.cpp:425] lstm1_transform_1 <- h_conted_0
I0925 23:22:04.736244 32410 net.cpp:399] lstm1_transform_1 -> W_hc_h_0
I0925 23:22:04.736199 32374 net.cpp:141] Setting up embedding
I0925 23:22:04.736304 32374 net.cpp:148] Top shape: 1 1 500 (500)
I0925 23:22:04.736315 32374 net.cpp:156] Memory required for data: 22408
I0925 23:22:04.736335 32374 layer_factory.hpp:77] Creating layer lstm1
I0925 23:22:04.736357 32374 net.cpp:91] Creating Layer lstm1
I0925 23:22:04.736366 32374 net.cpp:425] lstm1 <- embedded_input_frames
I0925 23:22:04.736377 32374 net.cpp:425] lstm1 <- cont_sentence_input_1_split_0
I0925 23:22:04.736393 32374 net.cpp:399] lstm1 -> lstm1
I0925 23:22:04.736412 32374 recurrent_layer.cpp:20] Initializing recurrent layer: assuming input batch contains 1 timesteps of 1 independent streams.
I0925 23:22:04.736809 32390 net.cpp:141] Setting up lstm1_transform_1
I0925 23:22:04.736846 32390 net.cpp:148] Top shape: 1 1 4000 (4000)
I0925 23:22:04.736853 32390 net.cpp:156] Memory required for data: 62016
I0925 23:22:04.736853 32374 net.cpp:49] Initializing net from parameters: 
layer {
  name: "lstm1_"
  type: "Input"
  top: "x"
  top: "cont"
  input_param {
    shape {
      dim: 1
      dim: 1
      dim: 500
    }
    shape {
      dim: 1
      dim: 1
    }
  }
}
layer {
  name: "lstm1_"
  type: "Input"
  top: "c_0"
  top: "h_0"
  input_param {
    shape {
      dim: 1
      dim: 1
      dim: 1000
    }
    shape {
      dim: 1
      dim: 1
      dim: 1000
    }
  }
}
layer {
  name: "lstm1_cont_slice"
  type: "Slice"
  bottom: "cont"
  top: "cont_1"
  slice_param {
    axis: 0
  }
}
layer {
  name: "lstm1_x_transform"
  type: "InnerProduct"
  bottom: "x"
  top: "W_xc_x"
  param {
    name: "W_xc"
  }
  param {
    name: "b_c"
  }
  propagate_down: true
  inner_product_param {
    num_output: 4000
    bias_term: true
    weight_filler {
      type: "uniform"
      min: -0.08
      max: 0.08
    }
    bias_filler {
      type: "constant"
      value: 0
    }
    axis: 2
  }
}
layer {
  name: "lstm1_W_xc_x_slice"
  type: "Slice"
  bottom: "W_xc_x"
  top: "W_xc_x_1"
  slice_param {
    axis: 0
  }
}
layer {
  name: "lstm1_h_conted_0"
  type: "Scale"
  bottom: "h_0"
  bottom: "cont_1"
  top: "h_conted_0"
  scale_param {
    axis: 0
  }
}
layer {
  name: "lstm1_transform_1"
  type: "InnerProduct"
  bottom: "h_conted_0"
  top: "W_hc_h_0"
  param {
    name: "W_hc"
  }
  inner_product_param {
    num_output: 4000
    bias_term: false
    weight_filler {
      type: "uniform"
      min: -0.08
      max: 0.08
    }
    axis: 2
  }
}
layer {
  name: "lstm1_gate_input_1"
  type: "Eltwise"
  bottom: "W_hc_h_0"
  bottom: "W_xc_x_1"
  top: "gate_input_1"
  eltwise_param {
    operation: SUM
  }
}
layer {
  name: "lstm1_unit_1"
  type: "LSTMUnit"
  bottom: "c_0"
  bottom: "gate_input_1"
  bottom: "cont_1"
  top: "c_1"
  top: "h_1"
}
layer {
  name: "lstm1_"
  type: "Split"
  bottom: "c_1"
  top: "c_T"
}
layer {
  name: "lstm1_h_concat"
  type: "Concat"
  bottom: "h_1"
  top: "h"
  concat_param {
    axis: 0
  }
}
layer {
  name: "h_pseudoloss"
  type: "Reduction"
  bottom: "h"
  top: "h_pseudoloss"
  loss_weight: 1
}
I0925 23:22:04.736872 32390 layer_factory.hpp:77] Creating layer lstm1_gate_input_1
I0925 23:22:04.736914 32390 net.cpp:91] Creating Layer lstm1_gate_input_1
I0925 23:22:04.736924 32390 net.cpp:425] lstm1_gate_input_1 <- W_hc_h_0
I0925 23:22:04.736932 32390 net.cpp:425] lstm1_gate_input_1 <- W_xc_x_1
I0925 23:22:04.736944 32390 net.cpp:399] lstm1_gate_input_1 -> gate_input_1
I0925 23:22:04.737010 32384 net.cpp:141] Setting up lstm1_x_transform
I0925 23:22:04.737023 32374 layer_factory.hpp:77] Creating layer lstm1_
I0925 23:22:04.737032 32384 net.cpp:148] Top shape: 1 1 4000 (4000)
I0925 23:22:04.737042 32384 net.cpp:156] Memory required for data: 26016
I0925 23:22:04.737043 32374 net.cpp:91] Creating Layer lstm1_
I0925 23:22:04.737054 32374 net.cpp:399] lstm1_ -> x
I0925 23:22:04.737061 32384 layer_factory.hpp:77] Creating layer lstm1_W_xc_x_slice
I0925 23:22:04.737071 32374 net.cpp:399] lstm1_ -> cont
I0925 23:22:04.737077 32384 net.cpp:91] Creating Layer lstm1_W_xc_x_slice
I0925 23:22:04.737087 32384 net.cpp:425] lstm1_W_xc_x_slice <- W_xc_x
I0925 23:22:04.737098 32384 net.cpp:399] lstm1_W_xc_x_slice -> W_xc_x_1
I0925 23:22:04.737174 32374 net.cpp:141] Setting up lstm1_
I0925 23:22:04.737188 32374 net.cpp:148] Top shape: 1 1 500 (500)
I0925 23:22:04.737198 32374 net.cpp:148] Top shape: 1 1 (1)
I0925 23:22:04.737205 32374 net.cpp:156] Memory required for data: 2004
I0925 23:22:04.737213 32374 layer_factory.hpp:77] Creating layer lstm1_
I0925 23:22:04.737226 32374 net.cpp:91] Creating Layer lstm1_
I0925 23:22:04.737283 32374 net.cpp:399] lstm1_ -> c_0
I0925 23:22:04.737301 32374 net.cpp:399] lstm1_ -> h_0
I0925 23:22:04.750766 32390 net.cpp:141] Setting up lstm1_gate_input_1
I0925 23:22:04.750816 32390 net.cpp:148] Top shape: 1 1 4000 (4000)
I0925 23:22:04.750825 32390 net.cpp:156] Memory required for data: 78016
I0925 23:22:04.750838 32390 layer_factory.hpp:77] Creating layer lstm1_unit_1
I0925 23:22:04.754709 32390 net.cpp:91] Creating Layer lstm1_unit_1
I0925 23:22:04.754731 32390 net.cpp:425] lstm1_unit_1 <- c_0
I0925 23:22:04.754714 32374 net.cpp:141] Setting up lstm1_
I0925 23:22:04.754750 32390 net.cpp:425] lstm1_unit_1 <- gate_input_1
I0925 23:22:04.754762 32390 net.cpp:425] lstm1_unit_1 <- cont_1_lstm1_cont_slice_0_split_1
I0925 23:22:04.754715 32384 net.cpp:141] Setting up lstm1_W_xc_x_slice
I0925 23:22:04.754779 32390 net.cpp:399] lstm1_unit_1 -> c_1
I0925 23:22:04.754770 32374 net.cpp:148] Top shape: 1 1 1000 (1000)
I0925 23:22:04.754801 32390 net.cpp:399] lstm1_unit_1 -> h_1
I0925 23:22:04.754832 32374 net.cpp:148] Top shape: 1 1 1000 (1000)
I0925 23:22:04.754842 32374 net.cpp:156] Memory required for data: 10004
I0925 23:22:04.754840 32422 net.cpp:141] Setting up lstm1_h_conted_0
I0925 23:22:04.754863 32422 net.cpp:148] Top shape: 1 1 1000 (1000)
I0925 23:22:04.754864 32418 net.cpp:141] Setting up lstm1_x_transform
I0925 23:22:04.754815 32384 net.cpp:148] Top shape: 1 1 4000 (4000)
I0925 23:22:04.754900 32384 net.cpp:156] Memory required for data: 42016
I0925 23:22:04.754911 32384 layer_factory.hpp:77] Creating layer lstm1_h_conted_0
I0925 23:22:04.754914 32418 net.cpp:148] Top shape: 1 1 4000 (4000)
I0925 23:22:04.754927 32418 net.cpp:156] Memory required for data: 26016
I0925 23:22:04.754937 32384 net.cpp:91] Creating Layer lstm1_h_conted_0
I0925 23:22:04.754950 32384 net.cpp:425] lstm1_h_conted_0 <- h_0
I0925 23:22:04.754953 32418 layer_factory.hpp:77] Creating layer lstm1_W_xc_x_slice
I0925 23:22:04.754963 32384 net.cpp:425] lstm1_h_conted_0 <- cont_1_lstm1_cont_slice_0_split_0
I0925 23:22:04.754963 32370 net.cpp:141] Setting up lstm1_unit_1
I0925 23:22:04.754977 32418 net.cpp:91] Creating Layer lstm1_W_xc_x_slice
I0925 23:22:04.754982 32370 net.cpp:148] Top shape: 1 1 1000 (1000)
I0925 23:22:04.754994 32370 net.cpp:148] Top shape: 1 1 1000 (1000)
I0925 23:22:04.754997 32418 net.cpp:425] lstm1_W_xc_x_slice <- W_xc_x
I0925 23:22:04.755002 32370 net.cpp:156] Memory required for data: 86016
I0925 23:22:04.754978 32384 net.cpp:399] lstm1_h_conted_0 -> h_conted_0
I0925 23:22:04.755012 32370 layer_factory.hpp:77] Creating layer lstm1_
I0925 23:22:04.755017 32418 net.cpp:399] lstm1_W_xc_x_slice -> W_xc_x_1
I0925 23:22:04.755028 32370 net.cpp:91] Creating Layer lstm1_
I0925 23:22:04.755039 32370 net.cpp:425] lstm1_ <- c_1
I0925 23:22:04.754874 32422 net.cpp:156] Memory required for data: 46016
I0925 23:22:04.755055 32370 net.cpp:399] lstm1_ -> c_T
I0925 23:22:04.755055 32422 layer_factory.hpp:77] Creating layer lstm1_transform_1
I0925 23:22:04.755090 32374 layer_factory.hpp:77] Creating layer lstm1_cont_slice
I0925 23:22:04.755095 32422 net.cpp:91] Creating Layer lstm1_transform_1
I0925 23:22:04.755108 32374 net.cpp:91] Creating Layer lstm1_cont_slice
I0925 23:22:04.755113 32422 net.cpp:425] lstm1_transform_1 <- h_conted_0
I0925 23:22:04.755117 32374 net.cpp:425] lstm1_cont_slice <- cont
I0925 23:22:04.755129 32374 net.cpp:399] lstm1_cont_slice -> cont_1
I0925 23:22:04.755132 32422 net.cpp:399] lstm1_transform_1 -> W_hc_h_0
I0925 23:22:04.755158 32390 net.cpp:141] Setting up lstm1_unit_1
I0925 23:22:04.755178 32390 net.cpp:148] Top shape: 1 1 1000 (1000)
I0925 23:22:04.755189 32390 net.cpp:148] Top shape: 1 1 1000 (1000)
I0925 23:22:04.755198 32390 net.cpp:156] Memory required for data: 86016
I0925 23:22:04.755206 32390 layer_factory.hpp:77] Creating layer lstm1_
I0925 23:22:04.755215 32374 net.cpp:141] Setting up lstm1_cont_slice
I0925 23:22:04.755221 32390 net.cpp:91] Creating Layer lstm1_
I0925 23:22:04.755230 32390 net.cpp:425] lstm1_ <- c_1
I0925 23:22:04.755233 32374 net.cpp:148] Top shape: 1 1 (1)
I0925 23:22:04.755240 32374 net.cpp:156] Memory required for data: 10008
I0925 23:22:04.755245 32390 net.cpp:399] lstm1_ -> c_T
I0925 23:22:04.755249 32374 layer_factory.hpp:77] Creating layer cont_1_lstm1_cont_slice_0_split
I0925 23:22:04.755266 32374 net.cpp:91] Creating Layer cont_1_lstm1_cont_slice_0_split
I0925 23:22:04.755282 32418 net.cpp:141] Setting up lstm1_W_xc_x_slice
I0925 23:22:04.755336 32370 net.cpp:141] Setting up lstm1_
I0925 23:22:04.755393 32370 net.cpp:148] Top shape: 1 1 1000 (1000)
I0925 23:22:04.755375 32418 net.cpp:148] Top shape: 1 1 4000 (4000)
I0925 23:22:04.755352 32374 net.cpp:425] cont_1_lstm1_cont_slice_0_split <- cont_1
I0925 23:22:04.755404 32370 net.cpp:156] Memory required for data: 90016
I0925 23:22:04.755424 32418 net.cpp:156] Memory required for data: 42016
I0925 23:22:04.755430 32370 layer_factory.hpp:77] Creating layer lstm1_h_concat
I0925 23:22:04.755435 32418 layer_factory.hpp:77] Creating layer lstm1_h_conted_0
I0925 23:22:04.755450 32370 net.cpp:91] Creating Layer lstm1_h_concat
I0925 23:22:04.755456 32418 net.cpp:91] Creating Layer lstm1_h_conted_0
I0925 23:22:04.755460 32370 net.cpp:425] lstm1_h_concat <- h_1
I0925 23:22:04.755470 32418 net.cpp:425] lstm1_h_conted_0 <- h_0
I0925 23:22:04.755483 32418 net.cpp:425] lstm1_h_conted_0 <- cont_1_lstm1_cont_slice_0_split_0
I0925 23:22:04.755509 32370 net.cpp:399] lstm1_h_concat -> h
I0925 23:22:04.755517 32418 net.cpp:399] lstm1_h_conted_0 -> h_conted_0
I0925 23:22:04.755483 32374 net.cpp:399] cont_1_lstm1_cont_slice_0_split -> cont_1_lstm1_cont_slice_0_split_0
I0925 23:22:04.755548 32374 net.cpp:399] cont_1_lstm1_cont_slice_0_split -> cont_1_lstm1_cont_slice_0_split_1
I0925 23:22:04.765857 32390 net.cpp:141] Setting up lstm1_
I0925 23:22:04.765907 32390 net.cpp:148] Top shape: 1 1 1000 (1000)
I0925 23:22:04.765897 32370 net.cpp:141] Setting up lstm1_h_concat
I0925 23:22:04.765916 32390 net.cpp:156] Memory required for data: 90016
I0925 23:22:04.765949 32390 layer_factory.hpp:77] Creating layer lstm1_h_concat
I0925 23:22:04.765949 32370 net.cpp:148] Top shape: 1 1 1000 (1000)
I0925 23:22:04.765966 32370 net.cpp:156] Memory required for data: 94016
I0925 23:22:04.765974 32390 net.cpp:91] Creating Layer lstm1_h_concat
I0925 23:22:04.765979 32370 layer_factory.hpp:77] Creating layer h_pseudoloss
I0925 23:22:04.765986 32390 net.cpp:425] lstm1_h_concat <- h_1
I0925 23:22:04.766005 32390 net.cpp:399] lstm1_h_concat -> h
I0925 23:22:04.766005 32370 net.cpp:91] Creating Layer h_pseudoloss
I0925 23:22:04.766049 32370 net.cpp:425] h_pseudoloss <- h
I0925 23:22:04.766067 32370 net.cpp:399] h_pseudoloss -> h_pseudoloss
I0925 23:22:04.766136 32418 net.cpp:141] Setting up lstm1_h_conted_0
I0925 23:22:04.766162 32418 net.cpp:148] Top shape: 1 1 1000 (1000)
I0925 23:22:04.766173 32418 net.cpp:156] Memory required for data: 46016
I0925 23:22:04.766185 32418 layer_factory.hpp:77] Creating layer lstm1_transform_1
I0925 23:22:04.766211 32418 net.cpp:91] Creating Layer lstm1_transform_1
I0925 23:22:04.766224 32418 net.cpp:425] lstm1_transform_1 <- h_conted_0
I0925 23:22:04.766244 32418 net.cpp:399] lstm1_transform_1 -> W_hc_h_0
I0925 23:22:04.776629 32390 net.cpp:141] Setting up lstm1_h_concat
I0925 23:22:04.776677 32390 net.cpp:148] Top shape: 1 1 1000 (1000)
I0925 23:22:04.776684 32390 net.cpp:156] Memory required for data: 94016
I0925 23:22:04.776692 32390 layer_factory.hpp:77] Creating layer h_pseudoloss
I0925 23:22:04.776713 32390 net.cpp:91] Creating Layer h_pseudoloss
I0925 23:22:04.776736 32390 net.cpp:425] h_pseudoloss <- h
I0925 23:22:04.776749 32390 net.cpp:399] h_pseudoloss -> h_pseudoloss
I0925 23:22:04.776839 32366 net.cpp:141] Setting up embedding
I0925 23:22:04.776873 32366 net.cpp:148] Top shape: 1 1 500 (500)
I0925 23:22:04.776880 32366 net.cpp:156] Memory required for data: 22408
I0925 23:22:04.776899 32366 layer_factory.hpp:77] Creating layer lstm1
I0925 23:22:04.776924 32366 net.cpp:91] Creating Layer lstm1
I0925 23:22:04.776919 32396 net.cpp:141] Setting up lstm1_transform_1
I0925 23:22:04.776932 32366 net.cpp:425] lstm1 <- embedded_input_frames
I0925 23:22:04.776942 32366 net.cpp:425] lstm1 <- cont_sentence_input_1_split_0
I0925 23:22:04.776945 32396 net.cpp:148] Top shape: 1 1 4000 (4000)
I0925 23:22:04.776949 32366 net.cpp:399] lstm1 -> lstm1
I0925 23:22:04.776947 32374 net.cpp:141] Setting up cont_1_lstm1_cont_slice_0_split
I0925 23:22:04.776957 32396 net.cpp:156] Memory required for data: 62016
I0925 23:22:04.776970 32366 recurrent_layer.cpp:20] Initializing recurrent layer: assuming input batch contains 1 timesteps of 1 independent streams.
I0925 23:22:04.776978 32396 layer_factory.hpp:77] Creating layer lstm1_gate_input_1
I0925 23:22:04.776970 32374 net.cpp:148] Top shape: 1 1 (1)
I0925 23:22:04.776998 32374 net.cpp:148] Top shape: 1 1 (1)
I0925 23:22:04.777005 32374 net.cpp:156] Memory required for data: 10016
I0925 23:22:04.777016 32374 layer_factory.hpp:77] Creating layer lstm1_x_transform
I0925 23:22:04.777024 32396 net.cpp:91] Creating Layer lstm1_gate_input_1
I0925 23:22:04.777040 32396 net.cpp:425] lstm1_gate_input_1 <- W_hc_h_0
I0925 23:22:04.777055 32370 net.cpp:141] Setting up h_pseudoloss
I0925 23:22:04.777042 32374 net.cpp:91] Creating Layer lstm1_x_transform
…
I0925 23:22:04.777150 32370 net.cpp:217] lstm1_gate_input_1 needs backward computation.
I0925 23:22:04.777158 32370 net.cpp:217] lstm1_transform_1 needs backward computation.
I0925 23:22:04.777165 32370 net.cpp:219] lstm1_h_conted_0 does not need backward computation.
I0925 23:22:04.777173 32370 net.cpp:217] lstm1_W_xc_x_slice needs backward computation.
I0925 23:22:04.777169 32396 net.cpp:141] Setting up lstm1_gate_input_1
I0925 23:22:04.777179 32370 net.cpp:217] lstm1_x_transform needs backward computation.
I0925 23:22:04.777184 32370 net.cpp:219] cont_1_lstm1_cont_slice_0_split does not need backward computation.
I0925 23:22:04.777189 32396 net.cpp:148] Top shape: 1 1 4000 (4000)
I0925 23:22:04.777190 32370 net.cpp:219] lstm1_cont_slice does not need backward computation.
I0925 23:22:04.777209 32396 net.cpp:156] Memory required for data: 78016
I0925 23:22:04.777233 32370 net.cpp:219] lstm1_ does not need backward computation.
I0925 23:22:04.777241 32370 net.cpp:219] lstm1_ does not need backward computation.
I0925 23:22:04.777241 32396 layer_factory.hpp:77] Creating layer lstm1_unit_1
I0925 23:22:04.777264 32384 net.cpp:141] Setting up lstm1_h_conted_0
I0925 23:22:04.777262 32370 net.cpp:261] This network produces output c_T
I0925 23:22:04.777284 32370 net.cpp:261] This network produces output h_pseudoloss
I0925 23:22:04.777285 32384 net.cpp:148] Top shape: 1 1 1000 (1000)
I0925 23:22:04.777294 32384 net.cpp:156] Memory required for data: 46016
I0925 23:22:04.777302 32366 net.cpp:49] Initializing net from parameters: 
layer {
  name: "lstm1_"
  type: "Input"
  top: "x"
  top: "cont"
  input_param {
    shape {
      dim: 1
      dim: 1
      dim: 500
    }
    shape {
      dim: 1
      dim: 1
    }
  }
}
layer {
  name: "lstm1_"
  type: "Input"
  top: "c_0"
  top: "h_0"
  input_param {
    shape {
      dim: 1
      dim: 1
      dim: 1000
    }
    shape {
      dim: 1
      dim: 1
      dim: 1000
    }
  }
}
layer {
  name: "lstm1_cont_slice"
  type: "Slice"
  bottom: "cont"
  top: "cont_1"
  slice_param {
    axis: 0
  }
}
layer {
  name: "lstm1_x_transform"
  type: "InnerProduct"
  bottom: "x"
  top: "W_xc_x"
  param {
    name: "W_xc"
  }
  param {
    name: "b_c"
  }
  propagate_down: true
  inner_product_param {
    num_output: 4000
    bias_term: true
    weight_filler {
      type: "uniform"
      min: -0.08
      max: 0.08
    }
    bias_filler {
      type: "constant"
      value: 0
    }
    axis: 2
  }
}
layer {
  name: "lstm1_W_xc_x_slice"
  type: "Slice"
  bottom: "W_xc_x"
  top: "W_xc_x_1"
  slice_param {
    axis: 0
  }
}
layer {
  name: "lstm1_h_conted_0"
  type: "Scale"
  bottom: "h_0"
  bottom: "cont_1"
  top: "h_conted_0"
  scale_param {
    axis: 0
  }
}
layer {
  name: "lstm1_transform_1"
  type: "InnerProduct"
  bottom: "h_conted_0"
  top: "W_hc_h_0"
  param {
    name: "W_hc"
  }
  inner_product_param {
    num_output: 4000
    bias_term: false
    weight_filler {
      type: "uniform"
      min: -0.08
      max: 0.08
    }
    axis: 2
  }
}
layer {
  name: "lstm1_gate_input_1"
  type: "Eltwise"
  bottom: "W_hc_h_0"
  bottom: "W_xc_x_1"
  top: "gate_input_1"
  eltwise_param {
    operation: SUM
  }
}
layer {
  name: "lstm1_unit_1"
  type: "LSTMUnit"
  bottom: "c_0"
  bottom: "gate_input_1"
  bottom: "cont_1"
  top: "c_1"
  top: "h_1"
}
layer {
  name: "lstm1_"
  type: "Split"
  bottom: "c_1"
  top: "c_T"
}
layer {
  name: "lstm1_h_concat"
  type: "Concat"
  bottom: "h_1"
  top: "h"
  concat_param {
    axis: 0
  }
}
layer {
  name: "h_pseudoloss"
  type: "Reduction"
  bottom: "h"
  top: "h_pseudoloss"
  loss_weight: 1
}
I0925 23:22:04.777309 32370 net.cpp:274] Network initialization done.
I0925 23:22:04.777304 32396 net.cpp:91] Creating Layer lstm1_unit_1
I0925 23:22:04.777303 32384 layer_factory.hpp:77] Creating layer lstm1_transform_1
I0925 23:22:04.777333 32396 net.cpp:425] lstm1_unit_1 <- c_0
I0925 23:22:04.777341 32384 net.cpp:91] Creating Layer lstm1_transform_1
I0925 23:22:04.777346 32396 net.cpp:425] lstm1_unit_1 <- gate_input_1
…
I0925 23:22:04.782750 32396 net.cpp:219] lstm1_ does not need backward computation.
I0925 23:22:04.782757 32396 net.cpp:261] This network produces output c_T
I0925 23:22:04.782766 32396 net.cpp:261] This network produces output h_pseudoloss
I0925 23:22:04.782788 32396 net.cpp:274] Network initialization done.
I0925 23:22:04.782851 32396 recurrent_layer.cpp:150] Adding parameter 0: W_xc
I0925 23:22:04.782851 32370 net.cpp:141] Setting up lstm1
I0925 23:22:04.782872 32396 recurrent_layer.cpp:150] Adding parameter 1: b_c
I0925 23:22:04.782881 32396 recurrent_layer.cpp:150] Adding parameter 2: W_hc
I0925 23:22:04.782883 32370 net.cpp:148] Top shape: 1 1 1000 (1000)
I0925 23:22:04.782891 32370 net.cpp:156] Memory required for data: 26408
I0925 23:22:04.782918 32370 layer_factory.hpp:77] Creating layer concat
I0925 23:22:04.782932 32370 net.cpp:91] Creating Layer concat
I0925 23:22:04.782939 32370 net.cpp:425] concat <- lstm1
I0925 23:22:04.782946 32370 net.cpp:425] concat <- embedded_input_sentence
I0925 23:22:04.782953 32370 net.cpp:425] concat <- reshaped_stage_indicator
I0925 23:22:04.782959 32370 net.cpp:399] concat -> lstm1_video_sequence
I0925 23:22:04.783010 32366 net.cpp:141] Setting up lstm1_
I0925 23:22:04.783020 32366 net.cpp:148] Top shape: 1 1 500 (500)
I0925 23:22:04.783026 32366 net.cpp:148] Top shape: 1 1 (1)
I0925 23:22:04.783030 32366 net.cpp:156] Memory required for data: 2004
I0925 23:22:04.783036 32366 layer_factory.hpp:77] Creating layer lstm1_
I0925 23:22:04.783058 32366 net.cpp:91] Creating Layer lstm1_
I0925 23:22:04.783066 32366 net.cpp:399] lstm1_ -> c_0
I0925 23:22:04.783077 32366 net.cpp:399] lstm1_ -> h_0
I0925 23:22:04.793071 32370 net.cpp:141] Setting up concat
I0925 23:22:04.793128 32370 net.cpp:148] Top shape: 1 1 1501 (1501)
I0925 23:22:04.793134 32366 net.cpp:141] Setting up lstm1_
I0925 23:22:04.793138 32370 net.cpp:156] Memory required for data: 32412
I0925 23:22:04.793157 32366 net.cpp:148] Top shape: 1 1 1000 (1000)
I0925 23:22:04.793159 32370 layer_factory.hpp:77] Creating layer lstm2
I0925 23:22:04.793172 32366 net.cpp:148] Top shape: 1 1 1000 (1000)
I0925 23:22:04.793180 32366 net.cpp:156] Memory required for data: 10004
I0925 23:22:04.793187 32366 layer_factory.hpp:77] Creating layer lstm1_cont_slice
I0925 23:22:04.793200 32370 net.cpp:91] Creating Layer lstm2
I0925 23:22:04.793203 32366 net.cpp:91] Creating Layer lstm1_cont_slice
I0925 23:22:04.793212 32366 net.cpp:425] lstm1_cont_slice <- cont
I0925 23:22:04.793213 32370 net.cpp:425] lstm2 <- lstm1_video_sequence
I0925 23:22:04.793231 32370 net.cpp:425] lstm2 <- cont_sentence_input_1_split_1
I0925 23:22:04.793236 32366 net.cpp:399] lstm1_cont_slice -> cont_1
I0925 23:22:04.793246 32370 net.cpp:399] lstm2 -> lstm2
I0925 23:22:04.793264 32370 recurrent_layer.cpp:20] Initializing recurrent layer: assuming input batch contains 1 timesteps of 1 independent streams.
I0925 23:22:04.793303 32366 net.cpp:141] Setting up lstm1_cont_slice
I0925 23:22:04.793318 32366 net.cpp:148] Top shape: 1 1 (1)
I0925 23:22:04.793324 32366 net.cpp:156] Memory required for data: 10008
I0925 23:22:04.793332 32366 layer_factory.hpp:77] Creating layer cont_1_lstm1_cont_slice_0_split
I0925 23:22:04.793345 32366 net.cpp:91] Creating Layer cont_1_lstm1_cont_slice_0_split
I0925 23:22:04.793354 32366 net.cpp:425] cont_1_lstm1_cont_slice_0_split <- cont_1
I0925 23:22:04.793364 32366 net.cpp:399] cont_1_lstm1_cont_slice_0_split -> cont_1_lstm1_cont_slice_0_split_0
I0925 23:22:04.793376 32366 net.cpp:399] cont_1_lstm1_cont_slice_0_split -> cont_1_lstm1_cont_slice_0_split_1
I0925 23:22:04.793455 32366 net.cpp:141] Setting up cont_1_lstm1_cont_slice_0_split
I0925 23:22:04.793469 32366 net.cpp:148] Top shape: 1 1 (1)
I0925 23:22:04.793478 32366 net.cpp:148] Top shape: 1 1 (1)
I0925 23:22:04.793485 32366 net.cpp:156] Memory required for data: 10016
I0925 23:22:04.793493 32366 layer_factory.hpp:77] Creating layer lstm1_x_transform
I0925 23:22:04.793514 32366 net.cpp:91] Creating Layer lstm1_x_transform
I0925 23:22:04.793521 32366 net.cpp:425] lstm1_x_transform <- x
I0925 23:22:04.793534 32366 net.cpp:399] lstm1_x_transform -> W_xc_x
I0925 23:22:04.793730 32370 net.cpp:49] Initializing net from parameters: 
layer {
  name: "lstm2_"
  type: "Input"
  top: "x"
  top: "cont"
  input_param {
    shape {
      dim: 1
      dim: 1
      dim: 1501
    }
    shape {
      dim: 1
      dim: 1
    }
  }
}
layer {
  name: "lstm2_"
  type: "Input"
  top: "c_0"
  top: "h_0"
  input_param {
    shape {
      dim: 1
      dim: 1
      dim: 1000
    }
    shape {
      dim: 1
      dim: 1
      dim: 1000
    }
  }
}
layer {
  name: "lstm2_cont_slice"
  type: "Slice"
  bottom: "cont"
  top: "cont_1"
  slice_param {
    axis: 0
  }
}
layer {
  name: "lstm2_x_transform"
  type: "InnerProduct"
  bottom: "x"
  top: "W_xc_x"
  param {
    name: "W_xc"
  }
  param {
    name: "b_c"
  }
  propagate_down: true
  inner_product_param {
    num_output: 4000
    bias_term: true
    weight_filler {
      type: "uniform"
      min: -0.08
      max: 0.08
    }
    bias_filler {
      type: "constant"
      value: 0
    }
    axis: 2
  }
}
layer {
  name: "lstm2_W_xc_x_slice"
  type: "Slice"
  bottom: "W_xc_x"
  top: "W_xc_x_1"
  slice_param {
    axis: 0
  }
}
layer {
  name: "lstm2_h_conted_0"
  type: "Scale"
  bottom: "h_0"
  bottom: "cont_1"
  top: "h_conted_0"
  scale_param {
    axis: 0
  }
}
layer {
  name: "lstm2_transform_1"
  type: "InnerProduct"
  bottom: "h_conted_0"
  top: "W_hc_h_0"
  param {
    name: "W_hc"
  }
  inner_product_param {
    num_output: 4000
    bias_term: false
    weight_filler {
      type: "uniform"
      min: -0.08
      max: 0.08
    }
    axis: 2
  }
}
layer {
  name: "lstm2_gate_input_1"
  type: "Eltwise"
  bottom: "W_hc_h_0"
  bottom: "W_xc_x_1"
  top: "gate_input_1"
  eltwise_param {
    operation: SUM
  }
}
layer {
  name: "lstm2_unit_1"
  type: "LSTMUnit"
  bottom: "c_0"
  bottom: "gate_input_1"
  bottom: "cont_1"
  top: "c_1"
  top: "h_1"
}
layer {
  name: "lstm2_"
  type: "Split"
  bottom: "c_1"
  top: "c_T"
}
layer {
  name: "lstm2_h_concat"
  type: "Concat"
  bottom: "h_1"
  top: "h"
  concat_param {
    axis: 0
  }
}
layer {
  name: "h_pseudoloss"
  type: "Reduction"
  bottom: "h"
  top: "h_pseudoloss"
  loss_weight: 1
}
I0925 23:22:04.793885 32370 layer_factory.hpp:77] Creating layer lstm2_
I0925 23:22:04.793905 32370 net.cpp:91] Creating Layer lstm2_
I0925 23:22:04.793917 32370 net.cpp:399] lstm2_ -> x
I0925 23:22:04.793936 32370 net.cpp:399] lstm2_ -> cont
I0925 23:22:04.798097 32390 net.cpp:141] Setting up lstm1
I0925 23:22:04.798148 32390 net.cpp:148] Top shape: 1 1 1000 (1000)
I0925 23:22:04.798157 32390 net.cpp:156] Memory required for data: 26408
I0925 23:22:04.798187 32390 layer_factory.hpp:77] Creating layer concat
I0925 23:22:04.798210 32390 net.cpp:91] Creating Layer concat
I0925 23:22:04.798220 32390 net.cpp:425] concat <- lstm1
I0925 23:22:04.798233 32390 net.cpp:425] concat <- embedded_input_sentence
I0925 23:22:04.798240 32390 net.cpp:425] concat <- reshaped_stage_indicator
I0925 23:22:04.798251 32390 net.cpp:399] concat -> lstm1_video_sequence
I0925 23:22:04.798313 32390 net.cpp:141] Setting up concat
I0925 23:22:04.798326 32390 net.cpp:148] Top shape: 1 1 1501 (1501)
I0925 23:22:04.798333 32390 net.cpp:156] Memory required for data: 32412
I0925 23:22:04.798341 32390 layer_factory.hpp:77] Creating layer lstm2
I0925 23:22:04.798362 32390 net.cpp:91] Creating Layer lstm2
I0925 23:22:04.798369 32390 net.cpp:425] lstm2 <- lstm1_video_sequence
I0925 23:22:04.798378 32390 net.cpp:425] lstm2 <- cont_sentence_input_1_split_1
I0925 23:22:04.798389 32390 net.cpp:399] lstm2 -> lstm2
I0925 23:22:04.798408 32390 recurrent_layer.cpp:20] Initializing recurrent layer: assuming input batch contains 1 timesteps of 1 independent streams.
I0925 23:22:04.798722 32396 net.cpp:141] Setting up lstm1
I0925 23:22:04.798744 32396 net.cpp:148] Top shape: 1 1 1000 (1000)
I0925 23:22:04.798753 32396 net.cpp:156] Memory required for data: 26408
I0925 23:22:04.798774 32396 layer_factory.hpp:77] Creating layer concat
I0925 23:22:04.798789 32396 net.cpp:91] Creating Layer concat
I0925 23:22:04.798797 32396 net.cpp:425] concat <- lstm1
I0925 23:22:04.798807 32396 net.cpp:425] concat <- embedded_input_sentence
…
I0925 23:22:05.185475 32366 net.cpp:141] Setting up lstm2_h_conted_0
I0925 23:22:05.185531 32366 net.cpp:148] Top shape: 1 1 1000 (1000)
I0925 23:22:05.185539 32366 net.cpp:156] Memory required for data: 50020
I0925 23:22:05.185549 32366 layer_factory.hpp:77] Creating layer lstm2_transform_1
I0925 23:22:05.185575 32366 net.cpp:91] Creating Layer lstm2_transform_1
I0925 23:22:05.185582 32366 net.cpp:425] lstm2_transform_1 <- h_conted_0
I0925 23:22:05.185596 32366 net.cpp:399] lstm2_transform_1 -> W_hc_h_0
I0925 23:22:05.185672 32422 net.cpp:141] Setting up lstm2_unit_1
I0925 23:22:05.185714 32422 net.cpp:148] Top shape: 1 1 1000 (1000)
I0925 23:22:05.185724 32422 net.cpp:148] Top shape: 1 1 1000 (1000)
I0925 23:22:05.185729 32422 net.cpp:156] Memory required for data: 90020
I0925 23:22:05.185736 32422 layer_factory.hpp:77] Creating layer lstm2_
I0925 23:22:05.185751 32422 net.cpp:91] Creating Layer lstm2_
I0925 23:22:05.185760 32422 net.cpp:425] lstm2_ <- c_1
I0925 23:22:05.185780 32422 net.cpp:399] lstm2_ -> c_T
I0925 23:22:05.185832 32374 net.cpp:141] Setting up lstm2_x_transform
I0925 23:22:05.185859 32374 net.cpp:148] Top shape: 1 1 4000 (4000)
I0925 23:22:05.185868 32374 net.cpp:156] Memory required for data: 30020
I0925 23:22:05.185891 32374 layer_factory.hpp:77] Creating layer lstm2_W_xc_x_slice
I0925 23:22:05.185909 32374 net.cpp:91] Creating Layer lstm2_W_xc_x_slice
I0925 23:22:05.185919 32374 net.cpp:425] lstm2_W_xc_x_slice <- W_xc_x
I0925 23:22:05.185931 32374 net.cpp:399] lstm2_W_xc_x_slice -> W_xc_x_1
I0925 23:22:05.269933 32422 net.cpp:141] Setting up lstm2_
I0925 23:22:05.270380 32422 net.cpp:148] Top shape: 1 1 1000 (1000)
I0925 23:22:05.270514 32422 net.cpp:156] Memory required for data: 94020
I0925 23:22:05.270663 32422 layer_factory.hpp:77] Creating layer lstm2_h_concat
I0925 23:22:05.270800 32422 net.cpp:91] Creating Layer lstm2_h_concat
I0925 23:22:05.270932 32422 net.cpp:425] lstm2_h_concat <- h_1
I0925 23:22:05.271070 32422 net.cpp:399] lstm2_h_concat -> h
I0925 23:22:05.272624 32374 net.cpp:141] Setting up lstm2_W_xc_x_slice
I0925 23:22:05.272692 32374 net.cpp:148] Top shape: 1 1 4000 (4000)
I0925 23:22:05.272709 32374 net.cpp:156] Memory required for data: 46020
I0925 23:22:05.272727 32374 layer_factory.hpp:77] Creating layer lstm2_h_conted_0
I0925 23:22:05.272773 32374 net.cpp:91] Creating Layer lstm2_h_conted_0
I0925 23:22:05.272791 32374 net.cpp:425] lstm2_h_conted_0 <- h_0
I0925 23:22:05.272814 32374 net.cpp:425] lstm2_h_conted_0 <- cont_1_lstm2_cont_slice_0_split_0
I0925 23:22:05.272835 32374 net.cpp:399] lstm2_h_conted_0 -> h_conted_0
I0925 23:22:05.273162 32374 net.cpp:141] Setting up lstm2_h_conted_0
I0925 23:22:05.273187 32374 net.cpp:148] Top shape: 1 1 1000 (1000)
I0925 23:22:05.273200 32374 net.cpp:156] Memory required for data: 50020
I0925 23:22:05.273213 32374 layer_factory.hpp:77] Creating layer lstm2_transform_1
I0925 23:22:05.273243 32374 net.cpp:91] Creating Layer lstm2_transform_1
I0925 23:22:05.273258 32374 net.cpp:425] lstm2_transform_1 <- h_conted_0
I0925 23:22:05.273282 32374 net.cpp:399] lstm2_transform_1 -> W_hc_h_0
I0925 23:22:05.287695 32418 net.cpp:141] Setting up lstm2_transform_1
I0925 23:22:05.287816 32410 net.cpp:141] Setting up lstm2_transform_1
I0925 23:22:05.287896 32384 net.cpp:141] Setting up lstm2_transform_1
I0925 23:22:05.288235 32410 net.cpp:148] Top shape: 1 1 4000 (4000)
I0925 23:22:05.288238 32384 net.cpp:148] Top shape: 1 1 4000 (4000)
I0925 23:22:05.288269 32384 net.cpp:156] Memory required for data: 66020
I0925 23:22:05.288254 32410 net.cpp:156] Memory required for data: 66020
I0925 23:22:05.288300 32384 layer_factory.hpp:77] Creating layer lstm2_gate_input_1
I0925 23:22:05.288316 32410 layer_factory.hpp:77] Creating layer lstm2_gate_input_1
I0925 23:22:05.288352 32410 net.cpp:91] Creating Layer lstm2_gate_input_1
I0925 23:22:05.288362 32410 net.cpp:425] lstm2_gate_input_1 <- W_hc_h_0
I0925 23:22:05.288377 32410 net.cpp:425] lstm2_gate_input_1 <- W_xc_x_1
I0925 23:22:05.288394 32410 net.cpp:399] lstm2_gate_input_1 -> gate_input_1
I0925 23:22:05.288666 32384 net.cpp:91] Creating Layer lstm2_gate_input_1
I0925 23:22:05.288681 32384 net.cpp:425] lstm2_gate_input_1 <- W_hc_h_0
I0925 23:22:05.288712 32384 net.cpp:425] lstm2_gate_input_1 <- W_xc_x_1
I0925 23:22:05.288735 32384 net.cpp:399] lstm2_gate_input_1 -> gate_input_1
I0925 23:22:05.289445 32418 net.cpp:148] Top shape: 1 1 4000 (4000)
I0925 23:22:05.289577 32418 net.cpp:156] Memory required for data: 66020
I0925 23:22:05.289718 32418 layer_factory.hpp:77] Creating layer lstm2_gate_input_1
I0925 23:22:05.289865 32418 net.cpp:91] Creating Layer lstm2_gate_input_1
I0925 23:22:05.289988 32418 net.cpp:425] lstm2_gate_input_1 <- W_hc_h_0
I0925 23:22:05.290148 32418 net.cpp:425] lstm2_gate_input_1 <- W_xc_x_1
I0925 23:22:05.290395 32418 net.cpp:399] lstm2_gate_input_1 -> gate_input_1
I0925 23:22:05.301496 32422 net.cpp:141] Setting up lstm2_h_concat
I0925 23:22:05.301537 32422 net.cpp:148] Top shape: 1 1 1000 (1000)
I0925 23:22:05.301542 32422 net.cpp:156] Memory required for data: 98020
I0925 23:22:05.301550 32422 layer_factory.hpp:77] Creating layer h_pseudoloss
I0925 23:22:05.301568 32422 net.cpp:91] Creating Layer h_pseudoloss
I0925 23:22:05.301574 32422 net.cpp:425] h_pseudoloss <- h
I0925 23:22:05.301585 32422 net.cpp:399] h_pseudoloss -> h_pseudoloss
I0925 23:22:05.301637 32396 net.cpp:141] Setting up h_pseudoloss
…
I0925 23:22:05.301712 32396 net.cpp:217] lstm2_transform_1 needs backward computation.
I0925 23:22:05.301717 32396 net.cpp:219] lstm2_h_conted_0 does not need backward computation.
I0925 23:22:05.301728 32396 net.cpp:217] lstm2_W_xc_x_slice needs backward computation.
I0925 23:22:05.301734 32396 net.cpp:217] lstm2_x_transform needs backward computation.
I0925 23:22:05.301740 32396 net.cpp:219] cont_1_lstm2_cont_slice_0_split does not need backward computation.
I0925 23:22:05.301728 32410 net.cpp:141] Setting up lstm2_gate_input_1
I0925 23:22:05.301748 32396 net.cpp:219] lstm2_cont_slice does not need backward computation.
I0925 23:22:05.301779 32410 net.cpp:148] Top shape: 1 1 4000 (4000)
I0925 23:22:05.301786 32410 net.cpp:156] Memory required for data: 82020
I0925 23:22:05.301789 32396 net.cpp:219] lstm2_ does not need backward computation.
I0925 23:22:05.301796 32410 layer_factory.hpp:77] Creating layer lstm2_unit_1
I0925 23:22:05.301801 32396 net.cpp:219] lstm2_ does not need backward computation.
I0925 23:22:05.301808 32396 net.cpp:261] This network produces output c_T
I0925 23:22:05.301816 32396 net.cpp:261] This network produces output h_pseudoloss
I0925 23:22:05.301821 32410 net.cpp:91] Creating Layer lstm2_unit_1
I0925 23:22:05.301829 32410 net.cpp:425] lstm2_unit_1 <- c_0
I0925 23:22:05.301841 32410 net.cpp:425] lstm2_unit_1 <- gate_input_1
I0925 23:22:05.301839 32396 net.cpp:274] Network initialization done.
I0925 23:22:05.301848 32410 net.cpp:425] lstm2_unit_1 <- cont_1_lstm2_cont_slice_0_split_1
I0925 23:22:05.301858 32410 net.cpp:399] lstm2_unit_1 -> c_1
I0925 23:22:05.301872 32410 net.cpp:399] lstm2_unit_1 -> h_1
I0925 23:22:05.301924 32396 recurrent_layer.cpp:150] Adding parameter 0: W_xc
I0925 23:22:05.301935 32396 recurrent_layer.cpp:150] Adding parameter 1: b_c
I0925 23:22:05.301941 32396 recurrent_layer.cpp:150] Adding parameter 2: W_hc
I0925 23:22:05.301970 32410 net.cpp:141] Setting up lstm2_unit_1
I0925 23:22:05.301981 32410 net.cpp:148] Top shape: 1 1 1000 (1000)
I0925 23:22:05.301987 32410 net.cpp:148] Top shape: 1 1 1000 (1000)
I0925 23:22:05.301991 32410 net.cpp:156] Memory required for data: 90020
I0925 23:22:05.301996 32410 layer_factory.hpp:77] Creating layer lstm2_
I0925 23:22:05.302006 32410 net.cpp:91] Creating Layer lstm2_
I0925 23:22:05.302011 32410 net.cpp:425] lstm2_ <- c_1
I0925 23:22:05.302021 32410 net.cpp:399] lstm2_ -> c_T
I0925 23:22:05.302059 32370 net.cpp:141] Setting up lstm2_unit_1
I0925 23:22:05.302078 32370 net.cpp:148] Top shape: 1 1 1000 (1000)
I0925 23:22:05.302085 32370 net.cpp:148] Top shape: 1 1 1000 (1000)
I0925 23:22:05.302089 32370 net.cpp:156] Memory required for data: 90020
I0925 23:22:05.302095 32370 layer_factory.hpp:77] Creating layer lstm2_
I0925 23:22:05.302104 32370 net.cpp:91] Creating Layer lstm2_
I0925 23:22:05.302110 32370 net.cpp:425] lstm2_ <- c_1
I0925 23:22:05.302119 32370 net.cpp:399] lstm2_ -> c_T
I0925 23:22:05.302161 32370 net.cpp:141] Setting up lstm2_
I0925 23:22:05.302171 32370 net.cpp:148] Top shape: 1 1 1000 (1000)
I0925 23:22:05.302175 32370 net.cpp:156] Memory required for data: 94020
I0925 23:22:05.302181 32370 layer_factory.hpp:77] Creating layer lstm2_h_concat
I0925 23:22:05.302191 32370 net.cpp:91] Creating Layer lstm2_h_concat
I0925 23:22:05.302197 32370 net.cpp:425] lstm2_h_concat <- h_1
I0925 23:22:05.302207 32370 net.cpp:399] lstm2_h_concat -> h
I0925 23:22:05.302245 32370 net.cpp:141] Setting up lstm2_h_concat
I0925 23:22:05.302256 32370 net.cpp:148] Top shape: 1 1 1000 (1000)
I0925 23:22:05.302260 32370 net.cpp:156] Memory required for data: 98020
I0925 23:22:05.302265 32370 layer_factory.hpp:77] Creating layer h_pseudoloss
I0925 23:22:05.302278 32370 net.cpp:91] Creating Layer h_pseudoloss
I0925 23:22:05.302283 32370 net.cpp:425] h_pseudoloss <- h
I0925 23:22:05.302289 32370 net.cpp:399] h_pseudoloss -> h_pseudoloss
I0925 23:22:05.302435 32370 net.cpp:141] Setting up h_pseudoloss
…
I0925 23:22:05.302510 32370 net.cpp:217] lstm2_unit_1 needs backward computation.
I0925 23:22:05.302516 32370 net.cpp:217] lstm2_gate_input_1 needs backward computation.
I0925 23:22:05.302522 32370 net.cpp:217] lstm2_transform_1 needs backward computation.
I0925 23:22:05.302528 32370 net.cpp:219] lstm2_h_conted_0 does not need backward computation.
I0925 23:22:05.302536 32370 net.cpp:217] lstm2_W_xc_x_slice needs backward computation.
I0925 23:22:05.302533 32418 net.cpp:141] Setting up lstm2_gate_input_1
I0925 23:22:05.302542 32370 net.cpp:217] lstm2_x_transform needs backward computation.
I0925 23:22:05.302564 32418 net.cpp:148] Top shape: 1 1 4000 (4000)
I0925 23:22:05.302570 32370 net.cpp:219] cont_1_lstm2_cont_slice_0_split does not need backward computation.
I0925 23:22:05.302577 32418 net.cpp:156] Memory required for data: 82020
I0925 23:22:05.302582 32370 net.cpp:219] lstm2_cont_slice does not need backward computation.
I0925 23:22:05.302588 32418 layer_factory.hpp:77] Creating layer lstm2_unit_1
I0925 23:22:05.302606 32370 net.cpp:219] lstm2_ does not need backward computation.
I0925 23:22:05.302618 32370 net.cpp:219] lstm2_ does not need backward computation.
I0925 23:22:05.302623 32418 net.cpp:91] Creating Layer lstm2_unit_1
I0925 23:22:05.302625 32370 net.cpp:261] This network produces output c_T
I0925 23:22:05.302642 32418 net.cpp:425] lstm2_unit_1 <- c_0
I0925 23:22:05.302644 32384 net.cpp:141] Setting up lstm2_gate_input_1
I0925 23:22:05.302650 32370 net.cpp:261] This network produces output h_pseudoloss
I0925 23:22:05.302659 32418 net.cpp:425] lstm2_unit_1 <- gate_input_1
I0925 23:22:05.302664 32384 net.cpp:148] Top shape: 1 1 4000 (4000)
I0925 23:22:05.302670 32418 net.cpp:425] lstm2_unit_1 <- cont_1_lstm2_cont_slice_0_split_1
I0925 23:22:05.302673 32384 net.cpp:156] Memory required for data: 82020
I0925 23:22:05.302681 32370 net.cpp:274] Network initialization done.
I0925 23:22:05.302685 32384 layer_factory.hpp:77] Creating layer lstm2_unit_1
I0925 23:22:05.302687 32418 net.cpp:399] lstm2_unit_1 -> c_1
I0925 23:22:05.302707 32418 net.cpp:399] lstm2_unit_1 -> h_1
I0925 23:22:05.302718 32384 net.cpp:91] Creating Layer lstm2_unit_1
I0925 23:22:05.302729 32384 net.cpp:425] lstm2_unit_1 <- c_0
I0925 23:22:05.302731 32410 net.cpp:141] Setting up lstm2_
I0925 23:22:05.302742 32384 net.cpp:425] lstm2_unit_1 <- gate_input_1
I0925 23:22:05.302750 32410 net.cpp:148] Top shape: 1 1 1000 (1000)
I0925 23:22:05.302750 32384 net.cpp:425] lstm2_unit_1 <- cont_1_lstm2_cont_slice_0_split_1
I0925 23:22:05.302758 32410 net.cpp:156] Memory required for data: 94020
I0925 23:22:05.302764 32410 layer_factory.hpp:77] Creating layer lstm2_h_concat
I0925 23:22:05.302765 32384 net.cpp:399] lstm2_unit_1 -> c_1
I0925 23:22:05.302763 32370 recurrent_layer.cpp:150] Adding parameter 0: W_xc
I0925 23:22:05.302777 32410 net.cpp:91] Creating Layer lstm2_h_concat
I0925 23:22:05.302786 32384 net.cpp:399] lstm2_unit_1 -> h_1
I0925 23:22:05.302790 32410 net.cpp:425] lstm2_h_concat <- h_1
I0925 23:22:05.302788 32370 recurrent_layer.cpp:150] Adding parameter 1: b_c
I0925 23:22:05.302803 32410 net.cpp:399] lstm2_h_concat -> h
I0925 23:22:05.302804 32370 recurrent_layer.cpp:150] Adding parameter 2: W_hc
I0925 23:22:05.303050 32410 net.cpp:141] Setting up lstm2_h_concat
I0925 23:22:05.303061 32410 net.cpp:148] Top shape: 1 1 1000 (1000)
I0925 23:22:05.303066 32410 net.cpp:156] Memory required for data: 98020
I0925 23:22:05.303071 32410 layer_factory.hpp:77] Creating layer h_pseudoloss
I0925 23:22:05.303083 32410 net.cpp:91] Creating Layer h_pseudoloss
I0925 23:22:05.303089 32410 net.cpp:425] h_pseudoloss <- h
I0925 23:22:05.303098 32410 net.cpp:399] h_pseudoloss -> h_pseudoloss
I0925 23:22:05.303189 32370 net.cpp:141] Setting up lstm2
I0925 23:22:05.303203 32370 net.cpp:148] Top shape: 1 1 1000 (1000)
I0925 23:22:05.303208 32370 net.cpp:156] Memory required for data: 36412
I0925 23:22:05.303226 32370 layer_factory.hpp:77] Creating layer predict
I0925 23:22:05.303230 32396 net.cpp:141] Setting up lstm2
I0925 23:22:05.303242 32370 net.cpp:91] Creating Layer predict
I0925 23:22:05.303248 32396 net.cpp:148] Top shape: 1 1 1000 (1000)
I0925 23:22:05.303249 32370 net.cpp:425] predict <- lstm2
I0925 23:22:05.303259 32396 net.cpp:156] Memory required for data: 36412
I0925 23:22:05.303272 32370 net.cpp:399] predict -> predict
I0925 23:22:05.303287 32396 layer_factory.hpp:77] Creating layer predict
I0925 23:22:05.303299 32396 net.cpp:91] Creating Layer predict
I0925 23:22:05.303308 32396 net.cpp:425] predict <- lstm2
I0925 23:22:05.303313 32418 net.cpp:141] Setting up lstm2_unit_1
I0925 23:22:05.303323 32396 net.cpp:399] predict -> predict
I0925 23:22:05.303338 32418 net.cpp:148] Top shape: 1 1 1000 (1000)
I0925 23:22:05.303352 32418 net.cpp:148] Top shape: 1 1 1000 (1000)
I0925 23:22:05.303361 32418 net.cpp:156] Memory required for data: 90020
I0925 23:22:05.303372 32418 layer_factory.hpp:77] Creating layer lstm2_
I0925 23:22:05.303395 32418 net.cpp:91] Creating Layer lstm2_
I0925 23:22:05.303406 32418 net.cpp:425] lstm2_ <- c_1
I0925 23:22:05.303419 32418 net.cpp:399] lstm2_ -> c_T
I0925 23:22:05.383468 32422 net.cpp:141] Setting up h_pseudoloss
I0925 23:22:05.383530 32422 net.cpp:148] Top shape: (1)
I0925 23:22:05.383541 32422 net.cpp:151]     with loss weight 1
I0925 23:22:05.383565 32422 net.cpp:156] Memory required for data: 98024
I0925 23:22:05.383579 32422 net.cpp:217] h_pseudoloss needs backward computation.
I0925 23:22:05.383574 32384 net.cpp:141] Setting up lstm2_unit_1
I0925 23:22:05.383590 32422 net.cpp:217] lstm2_h_concat needs backward computation.
I0925 23:22:05.383600 32422 net.cpp:219] lstm2_ does not need backward computation.
I0925 23:22:05.383610 32422 net.cpp:217] lstm2_unit_1 needs backward computation.
I0925 23:22:05.383611 32384 net.cpp:148] Top shape: 1 1 1000 (1000)
I0925 23:22:05.383625 32422 net.cpp:217] lstm2_gate_input_1 needs backward computation.
I0925 23:22:05.383632 32384 net.cpp:148] Top shape: 1 1 1000 (1000)
I0925 23:22:05.383661 32384 net.cpp:156] Memory required for data: 90020
I0925 23:22:05.383678 32384 layer_factory.hpp:77] Creating layer lstm2_
I0925 23:22:05.383693 32418 net.cpp:141] Setting up lstm2_
I0925 23:22:05.383710 32384 net.cpp:91] Creating Layer lstm2_
I0925 23:22:05.383752 32418 net.cpp:148] Top shape: 1 1 1000 (1000)
I0925 23:22:05.383764 32418 net.cpp:156] Memory required for data: 94020
I0925 23:22:05.383761 32384 net.cpp:425] lstm2_ <- c_1
I0925 23:22:05.383775 32418 layer_factory.hpp:77] Creating layer lstm2_h_concat
I0925 23:22:05.383797 32418 net.cpp:91] Creating Layer lstm2_h_concat
I0925 23:22:05.383803 32384 net.cpp:399] lstm2_ -> c_T
I0925 23:22:05.383810 32418 net.cpp:425] lstm2_h_concat <- h_1
I0925 23:22:05.383858 32374 net.cpp:141] Setting up lstm2_transform_1
I0925 23:22:05.383882 32374 net.cpp:148] Top shape: 1 1 4000 (4000)
I0925 23:22:05.383882 32418 net.cpp:399] lstm2_h_concat -> h
I0925 23:22:05.383913 32366 net.cpp:141] Setting up lstm2_transform_1
I0925 23:22:05.383898 32374 net.cpp:156] Memory required for data: 66020
I0925 23:22:05.383942 32366 net.cpp:148] Top shape: 1 1 4000 (4000)
I0925 23:22:05.383951 32366 net.cpp:156] Memory required for data: 66020
I0925 23:22:05.383955 32374 layer_factory.hpp:77] Creating layer lstm2_gate_input_1
I0925 23:22:05.383967 32366 layer_factory.hpp:77] Creating layer lstm2_gate_input_1
I0925 23:22:05.383983 32374 net.cpp:91] Creating Layer lstm2_gate_input_1
I0925 23:22:05.383983 32366 net.cpp:91] Creating Layer lstm2_gate_input_1
…
I0925 23:22:05.580030 32374 net.cpp:219] lstm2_ does not need backward computation.
I0925 23:22:05.580036 32374 net.cpp:261] This network produces output c_T
I0925 23:22:05.580044 32374 net.cpp:261] This network produces output h_pseudoloss
I0925 23:22:05.580067 32374 net.cpp:274] Network initialization done.
I0925 23:22:05.580143 32374 recurrent_layer.cpp:150] Adding parameter 0: W_xc
I0925 23:22:05.580153 32374 recurrent_layer.cpp:150] Adding parameter 1: b_c
I0925 23:22:05.580160 32374 recurrent_layer.cpp:150] Adding parameter 2: W_hc
I0925 23:22:05.580333 32374 net.cpp:141] Setting up lstm2
I0925 23:22:05.580350 32374 net.cpp:148] Top shape: 1 1 1000 (1000)
I0925 23:22:05.580359 32374 net.cpp:156] Memory required for data: 36412
I0925 23:22:05.580385 32374 layer_factory.hpp:77] Creating layer predict
I0925 23:22:05.580404 32374 net.cpp:91] Creating Layer predict
I0925 23:22:05.580413 32374 net.cpp:425] predict <- lstm2
I0925 23:22:05.580426 32374 net.cpp:399] predict -> predict
I0925 23:22:05.671546 32410 net.cpp:141] Setting up lstm2
I0925 23:22:05.671615 32410 net.cpp:148] Top shape: 1 1 1000 (1000)
I0925 23:22:05.671633 32410 net.cpp:156] Memory required for data: 36412
I0925 23:22:05.671669 32410 layer_factory.hpp:77] Creating layer predict
I0925 23:22:05.671699 32410 net.cpp:91] Creating Layer predict
I0925 23:22:05.671711 32410 net.cpp:425] predict <- lstm2
I0925 23:22:05.671728 32410 net.cpp:399] predict -> predict
I0925 23:22:05.671777 32390 net.cpp:141] Setting up predict
I0925 23:22:05.671793 32390 net.cpp:148] Top shape: 1 1 46168 (46168)
I0925 23:22:05.671798 32390 net.cpp:156] Memory required for data: 221084
I0925 23:22:05.671809 32390 layer_factory.hpp:77] Creating layer probs
I0925 23:22:05.671821 32390 net.cpp:91] Creating Layer probs
I0925 23:22:05.671828 32390 net.cpp:425] probs <- predict
I0925 23:22:05.671836 32390 net.cpp:399] probs -> probs
I0925 23:22:05.672130 32366 net.cpp:141] Setting up lstm2_unit_1
I0925 23:22:05.672161 32366 net.cpp:148] Top shape: 1 1 1000 (1000)
I0925 23:22:05.672170 32384 net.cpp:141] Setting up lstm2
I0925 23:22:05.672178 32366 net.cpp:148] Top shape: 1 1 1000 (1000)
I0925 23:22:05.672199 32384 net.cpp:148] Top shape: 1 1 1000 (1000)
I0925 23:22:05.672202 32366 net.cpp:156] Memory required for data: 90020
I0925 23:22:05.672206 32384 net.cpp:156] Memory required for data: 36412
I0925 23:22:05.672211 32366 layer_factory.hpp:77] Creating layer lstm2_
I0925 23:22:05.672224 32366 net.cpp:91] Creating Layer lstm2_
I0925 23:22:05.672230 32366 net.cpp:425] lstm2_ <- c_1
I0925 23:22:05.672231 32384 layer_factory.hpp:77] Creating layer predict
I0925 23:22:05.672237 32366 net.cpp:399] lstm2_ -> c_T
I0925 23:22:05.672247 32384 net.cpp:91] Creating Layer predict
I0925 23:22:05.672256 32384 net.cpp:425] predict <- lstm2
I0925 23:22:05.672268 32384 net.cpp:399] predict -> predict
I0925 23:22:05.672291 32366 net.cpp:141] Setting up lstm2_
I0925 23:22:05.672302 32366 net.cpp:148] Top shape: 1 1 1000 (1000)
I0925 23:22:05.672307 32366 net.cpp:156] Memory required for data: 94020
I0925 23:22:05.672310 32366 layer_factory.hpp:77] Creating layer lstm2_h_concat
I0925 23:22:05.672327 32366 net.cpp:91] Creating Layer lstm2_h_concat
I0925 23:22:05.672333 32366 net.cpp:425] lstm2_h_concat <- h_1
I0925 23:22:05.672340 32366 net.cpp:399] lstm2_h_concat -> h
I0925 23:22:05.768908 32362 net.cpp:141] Setting up predict
I0925 23:22:05.768959 32362 net.cpp:148] Top shape: 1 1 46168 (46168)
I0925 23:22:05.768970 32362 net.cpp:156] Memory required for data: 221084
I0925 23:22:05.768991 32362 layer_factory.hpp:77] Creating layer probs
I0925 23:22:05.769014 32362 net.cpp:91] Creating Layer probs
I0925 23:22:05.769026 32362 net.cpp:425] probs <- predict
I0925 23:22:05.769039 32362 net.cpp:399] probs -> probs
I0925 23:22:05.882459 32366 net.cpp:141] Setting up lstm2_h_concat
I0925 23:22:05.882521 32366 net.cpp:148] Top shape: 1 1 1000 (1000)
I0925 23:22:05.882531 32366 net.cpp:156] Memory required for data: 98020
I0925 23:22:05.882544 32366 layer_factory.hpp:77] Creating layer h_pseudoloss
I0925 23:22:05.882565 32366 net.cpp:91] Creating Layer h_pseudoloss
I0925 23:22:05.882576 32366 net.cpp:425] h_pseudoloss <- h
I0925 23:22:05.882622 32366 net.cpp:399] h_pseudoloss -> h_pseudoloss
I0925 23:22:05.884217 32370 net.cpp:141] Setting up predict
I0925 23:22:05.884258 32370 net.cpp:148] Top shape: 1 1 46168 (46168)
I0925 23:22:05.884264 32370 net.cpp:156] Memory required for data: 221084
I0925 23:22:05.884280 32370 layer_factory.hpp:77] Creating layer probs
I0925 23:22:05.884300 32370 net.cpp:91] Creating Layer probs
I0925 23:22:05.884307 32370 net.cpp:425] probs <- predict
I0925 23:22:05.884318 32370 net.cpp:399] probs -> probs
I0925 23:22:05.890650 32418 net.cpp:141] Setting up lstm2
I0925 23:22:05.890705 32418 net.cpp:148] Top shape: 1 1 1000 (1000)
I0925 23:22:05.890715 32418 net.cpp:156] Memory required for data: 36412
I0925 23:22:05.890748 32418 layer_factory.hpp:77] Creating layer predict
I0925 23:22:05.890776 32418 net.cpp:91] Creating Layer predict
I0925 23:22:05.890787 32418 net.cpp:425] predict <- lstm2
I0925 23:22:05.890800 32418 net.cpp:399] predict -> predict
I0925 23:22:05.890802 32366 net.cpp:141] Setting up h_pseudoloss
…
I0925 23:22:05.890977 32366 net.cpp:219] lstm2_ does not need backward computation.
I0925 23:22:05.890983 32366 net.cpp:261] This network produces output c_T
I0925 23:22:05.890992 32366 net.cpp:261] This network produces output h_pseudoloss
I0925 23:22:05.891023 32366 net.cpp:274] Network initialization done.
I0925 23:22:05.891108 32366 recurrent_layer.cpp:150] Adding parameter 0: W_xc
I0925 23:22:05.891121 32366 recurrent_layer.cpp:150] Adding parameter 1: b_c
I0925 23:22:05.891130 32366 recurrent_layer.cpp:150] Adding parameter 2: W_hc
I0925 23:22:05.981194 32396 net.cpp:141] Setting up predict
I0925 23:22:05.981281 32396 net.cpp:148] Top shape: 1 1 46168 (46168)
I0925 23:22:05.981300 32396 net.cpp:156] Memory required for data: 221084
I0925 23:22:05.981335 32396 layer_factory.hpp:77] Creating layer probs
I0925 23:22:05.981374 32396 net.cpp:91] Creating Layer probs
I0925 23:22:05.981393 32396 net.cpp:425] probs <- predict
I0925 23:22:05.981421 32396 net.cpp:399] probs -> probs
I0925 23:22:05.982698 32366 net.cpp:141] Setting up lstm2
I0925 23:22:05.982733 32366 net.cpp:148] Top shape: 1 1 1000 (1000)
I0925 23:22:05.982743 32366 net.cpp:156] Memory required for data: 36412
I0925 23:22:05.982774 32366 layer_factory.hpp:77] Creating layer predict
I0925 23:22:05.982800 32366 net.cpp:91] Creating Layer predict
I0925 23:22:05.982811 32366 net.cpp:425] predict <- lstm2
I0925 23:22:05.982810 32422 net.cpp:141] Setting up predict
I0925 23:22:05.982842 32366 net.cpp:399] predict -> predict
I0925 23:22:05.982844 32422 net.cpp:148] Top shape: 1 1 46168 (46168)
I0925 23:22:05.984439 32422 net.cpp:156] Memory required for data: 221084
I0925 23:22:05.984469 32422 layer_factory.hpp:77] Creating layer probs
I0925 23:22:05.984489 32422 net.cpp:91] Creating Layer probs
I0925 23:22:05.984498 32422 net.cpp:425] probs <- predict
I0925 23:22:05.984510 32422 net.cpp:399] probs -> probs
I0925 23:22:06.118346 32374 net.cpp:141] Setting up predict
I0925 23:22:06.118403 32374 net.cpp:148] Top shape: 1 1 46168 (46168)
I0925 23:22:06.118413 32374 net.cpp:156] Memory required for data: 221084
I0925 23:22:06.118438 32374 layer_factory.hpp:77] Creating layer probs
I0925 23:22:06.118463 32374 net.cpp:91] Creating Layer probs
I0925 23:22:06.118474 32374 net.cpp:425] probs <- predict
I0925 23:22:06.118489 32374 net.cpp:399] probs -> probs
I0925 23:22:06.155879 32384 net.cpp:141] Setting up predict
I0925 23:22:06.155928 32384 net.cpp:148] Top shape: 1 1 46168 (46168)
I0925 23:22:06.155935 32384 net.cpp:156] Memory required for data: 221084
I0925 23:22:06.155951 32384 layer_factory.hpp:77] Creating layer probs
I0925 23:22:06.155968 32384 net.cpp:91] Creating Layer probs
I0925 23:22:06.155977 32384 net.cpp:425] probs <- predict
I0925 23:22:06.155987 32384 net.cpp:399] probs -> probs
I0925 23:22:06.287022 32410 net.cpp:141] Setting up predict
I0925 23:22:06.287076 32410 net.cpp:148] Top shape: 1 1 46168 (46168)
I0925 23:22:06.287086 32410 net.cpp:156] Memory required for data: 221084
I0925 23:22:06.287106 32410 layer_factory.hpp:77] Creating layer probs
I0925 23:22:06.287130 32410 net.cpp:91] Creating Layer probs
I0925 23:22:06.287142 32410 net.cpp:425] probs <- predict
I0925 23:22:06.287158 32410 net.cpp:399] probs -> probs
I0925 23:22:06.341472 32374 net.cpp:141] Setting up probs
I0925 23:22:06.341539 32374 net.cpp:148] Top shape: 1 1 46168 (46168)
I0925 23:22:06.341548 32374 net.cpp:156] Memory required for data: 405756
I0925 23:22:06.341563 32374 net.cpp:219] probs does not need backward computation.
I0925 23:22:06.341574 32374 net.cpp:219] predict does not need backward computation.
I0925 23:22:06.341583 32374 net.cpp:219] lstm2 does not need backward computation.
I0925 23:22:06.341591 32374 net.cpp:219] concat does not need backward computation.
I0925 23:22:06.341600 32374 net.cpp:219] lstm1 does not need backward computation.
I0925 23:22:06.341609 32374 net.cpp:219] embedding does not need backward computation.
I0925 23:22:06.341616 32374 net.cpp:219] reshape_stage_indicator does not need backward computation.
I0925 23:22:06.341624 32374 net.cpp:219] reshape_frames does not need backward computation.
I0925 23:22:06.341634 32374 net.cpp:219] embed_encoder does not need backward computation.
I0925 23:22:06.341640 32374 net.cpp:219] cont_sentence_input_1_split does not need backward computation.
I0925 23:22:06.341648 32374 net.cpp:219] input does not need backward computation.
I0925 23:22:06.341655 32374 net.cpp:261] This network produces output probs
I0925 23:22:06.341681 32374 net.cpp:274] Network initialization done.
I0925 23:22:06.343363 32370 net.cpp:141] Setting up probs
I0925 23:22:06.343394 32370 net.cpp:148] Top shape: 1 1 46168 (46168)
I0925 23:22:06.343402 32370 net.cpp:156] Memory required for data: 405756
I0925 23:22:06.343412 32370 net.cpp:219] probs does not need backward computation.
I0925 23:22:06.343423 32370 net.cpp:219] predict does not need backward computation.
I0925 23:22:06.343433 32370 net.cpp:219] lstm2 does not need backward computation.
I0925 23:22:06.343443 32370 net.cpp:219] concat does not need backward computation.
I0925 23:22:06.343453 32370 net.cpp:219] lstm1 does not need backward computation.
I0925 23:22:06.343466 32370 net.cpp:219] embedding does not need backward computation.
I0925 23:22:06.343472 32370 net.cpp:219] reshape_stage_indicator does not need backward computation.
I0925 23:22:06.343477 32370 net.cpp:219] reshape_frames does not need backward computation.
I0925 23:22:06.343482 32370 net.cpp:219] embed_encoder does not need backward computation.
I0925 23:22:06.343488 32370 net.cpp:219] cont_sentence_input_1_split does not need backward computation.
I0925 23:22:06.343494 32370 net.cpp:219] input does not need backward computation.
I0925 23:22:06.343502 32370 net.cpp:261] This network produces output probs
I0925 23:22:06.343520 32370 net.cpp:274] Network initialization done.
I0925 23:22:06.345763 32396 net.cpp:141] Setting up probs
I0925 23:22:06.345798 32396 net.cpp:148] Top shape: 1 1 46168 (46168)
I0925 23:22:06.345805 32396 net.cpp:156] Memory required for data: 405756
I0925 23:22:06.345815 32396 net.cpp:219] probs does not need backward computation.
I0925 23:22:06.345825 32396 net.cpp:219] predict does not need backward computation.
I0925 23:22:06.345834 32396 net.cpp:219] lstm2 does not need backward computation.
I0925 23:22:06.345842 32396 net.cpp:219] concat does not need backward computation.
I0925 23:22:06.345851 32396 net.cpp:219] lstm1 does not need backward computation.
I0925 23:22:06.345860 32396 net.cpp:219] embedding does not need backward computation.
I0925 23:22:06.345867 32396 net.cpp:219] reshape_stage_indicator does not need backward computation.
I0925 23:22:06.345875 32396 net.cpp:219] reshape_frames does not need backward computation.
I0925 23:22:06.345883 32396 net.cpp:219] embed_encoder does not need backward computation.
I0925 23:22:06.345890 32396 net.cpp:219] cont_sentence_input_1_split does not need backward computation.
I0925 23:22:06.345899 32396 net.cpp:219] input does not need backward computation.
I0925 23:22:06.345904 32396 net.cpp:261] This network produces output probs
I0925 23:22:06.345928 32396 net.cpp:274] Network initialization done.
I0925 23:22:06.346468 32410 net.cpp:141] Setting up probs
I0925 23:22:06.346489 32410 net.cpp:148] Top shape: 1 1 46168 (46168)
I0925 23:22:06.346498 32410 net.cpp:156] Memory required for data: 405756
I0925 23:22:06.346506 32410 net.cpp:219] probs does not need backward computation.
I0925 23:22:06.346514 32410 net.cpp:219] predict does not need backward computation.
I0925 23:22:06.346523 32410 net.cpp:219] lstm2 does not need backward computation.
I0925 23:22:06.346530 32410 net.cpp:219] concat does not need backward computation.
I0925 23:22:06.346539 32410 net.cpp:219] lstm1 does not need backward computation.
I0925 23:22:06.346549 32410 net.cpp:219] embedding does not need backward computation.
I0925 23:22:06.346556 32410 net.cpp:219] reshape_stage_indicator does not need backward computation.
I0925 23:22:06.346563 32410 net.cpp:219] reshape_frames does not need backward computation.
I0925 23:22:06.346571 32410 net.cpp:219] embed_encoder does not need backward computation.
I0925 23:22:06.346580 32410 net.cpp:219] cont_sentence_input_1_split does not need backward computation.
I0925 23:22:06.346587 32410 net.cpp:219] input does not need backward computation.
I0925 23:22:06.346611 32410 net.cpp:261] This network produces output probs
I0925 23:22:06.346667 32410 net.cpp:274] Network initialization done.
I0925 23:22:06.347214 32384 net.cpp:141] Setting up probs
I0925 23:22:06.347234 32384 net.cpp:148] Top shape: 1 1 46168 (46168)
I0925 23:22:06.347242 32384 net.cpp:156] Memory required for data: 405756
I0925 23:22:06.347251 32384 net.cpp:219] probs does not need backward computation.
I0925 23:22:06.347259 32384 net.cpp:219] predict does not need backward computation.
I0925 23:22:06.347267 32384 net.cpp:219] lstm2 does not need backward computation.
I0925 23:22:06.347276 32384 net.cpp:219] concat does not need backward computation.
I0925 23:22:06.347285 32384 net.cpp:219] lstm1 does not need backward computation.
I0925 23:22:06.347293 32384 net.cpp:219] embedding does not need backward computation.
I0925 23:22:06.347301 32384 net.cpp:219] reshape_stage_indicator does not need backward computation.
I0925 23:22:06.347308 32384 net.cpp:219] reshape_frames does not need backward computation.
I0925 23:22:06.347316 32384 net.cpp:219] embed_encoder does not need backward computation.
I0925 23:22:06.347323 32384 net.cpp:219] cont_sentence_input_1_split does not need backward computation.
I0925 23:22:06.347332 32384 net.cpp:219] input does not need backward computation.
I0925 23:22:06.347337 32384 net.cpp:261] This network produces output probs
I0925 23:22:06.347373 32384 net.cpp:274] Network initialization done.
I0925 23:22:06.347419 32362 net.cpp:141] Setting up probs
I0925 23:22:06.347437 32362 net.cpp:148] Top shape: 1 1 46168 (46168)
I0925 23:22:06.347445 32362 net.cpp:156] Memory required for data: 405756
I0925 23:22:06.347452 32362 net.cpp:219] probs does not need backward computation.
I0925 23:22:06.347460 32362 net.cpp:219] predict does not need backward computation.
I0925 23:22:06.347468 32362 net.cpp:219] lstm2 does not need backward computation.
I0925 23:22:06.347477 32362 net.cpp:219] concat does not need backward computation.
I0925 23:22:06.347486 32362 net.cpp:219] lstm1 does not need backward computation.
I0925 23:22:06.347494 32362 net.cpp:219] embedding does not need backward computation.
I0925 23:22:06.347502 32362 net.cpp:219] reshape_stage_indicator does not need backward computation.
I0925 23:22:06.347509 32362 net.cpp:219] reshape_frames does not need backward computation.
I0925 23:22:06.347517 32362 net.cpp:219] embed_encoder does not need backward computation.
I0925 23:22:06.347523 32362 net.cpp:219] cont_sentence_input_1_split does not need backward computation.
I0925 23:22:06.347532 32362 net.cpp:219] input does not need backward computation.
I0925 23:22:06.347537 32362 net.cpp:261] This network produces output probs
I0925 23:22:06.347949 32362 net.cpp:274] Network initialization done.
I0925 23:22:06.349174 32422 net.cpp:141] Setting up probs
I0925 23:22:06.349213 32422 net.cpp:148] Top shape: 1 1 46168 (46168)
I0925 23:22:06.349225 32422 net.cpp:156] Memory required for data: 405756
I0925 23:22:06.349236 32422 net.cpp:219] probs does not need backward computation.
I0925 23:22:06.349249 32422 net.cpp:219] predict does not need backward computation.
I0925 23:22:06.349259 32422 net.cpp:219] lstm2 does not need backward computation.
I0925 23:22:06.349269 32422 net.cpp:219] concat does not need backward computation.
I0925 23:22:06.349280 32422 net.cpp:219] lstm1 does not need backward computation.
I0925 23:22:06.349292 32422 net.cpp:219] embedding does not need backward computation.
I0925 23:22:06.349301 32422 net.cpp:219] reshape_stage_indicator does not need backward computation.
I0925 23:22:06.349311 32422 net.cpp:219] reshape_frames does not need backward computation.
I0925 23:22:06.349320 32422 net.cpp:219] embed_encoder does not need backward computation.
I0925 23:22:06.349330 32422 net.cpp:219] cont_sentence_input_1_split does not need backward computation.
I0925 23:22:06.349340 32422 net.cpp:219] input does not need backward computation.
I0925 23:22:06.349349 32422 net.cpp:261] This network produces output probs
I0925 23:22:06.349381 32422 net.cpp:274] Network initialization done.
I0925 23:22:06.350670 32390 net.cpp:141] Setting up probs
I0925 23:22:06.350725 32390 net.cpp:148] Top shape: 1 1 46168 (46168)
I0925 23:22:06.350735 32390 net.cpp:156] Memory required for data: 405756
I0925 23:22:06.350750 32390 net.cpp:219] probs does not need backward computation.
I0925 23:22:06.350762 32390 net.cpp:219] predict does not need backward computation.
I0925 23:22:06.350772 32390 net.cpp:219] lstm2 does not need backward computation.
I0925 23:22:06.350782 32390 net.cpp:219] concat does not need backward computation.
I0925 23:22:06.350792 32390 net.cpp:219] lstm1 does not need backward computation.
I0925 23:22:06.351191 32390 net.cpp:219] embedding does not need backward computation.
I0925 23:22:06.351207 32390 net.cpp:219] reshape_stage_indicator does not need backward computation.
I0925 23:22:06.351217 32390 net.cpp:219] reshape_frames does not need backward computation.
I0925 23:22:06.351227 32390 net.cpp:219] embed_encoder does not need backward computation.
I0925 23:22:06.351234 32390 net.cpp:219] cont_sentence_input_1_split does not need backward computation.
I0925 23:22:06.351243 32390 net.cpp:219] input does not need backward computation.
I0925 23:22:06.351251 32390 net.cpp:261] This network produces output probs
I0925 23:22:06.351280 32390 net.cpp:274] Network initialization done.
I0925 23:22:06.355913 32376 net.cpp:141] Setting up conv1
I0925 23:22:06.355973 32376 net.cpp:148] Top shape: 10 96 55 55 (2904000)
I0925 23:22:06.355983 32376 net.cpp:156] Memory required for data: 17799480
I0925 23:22:06.356012 32376 layer_factory.hpp:77] Creating layer relu1
I0925 23:22:06.356040 32376 net.cpp:91] Creating Layer relu1
I0925 23:22:06.356050 32376 net.cpp:425] relu1 <- conv1
I0925 23:22:06.356061 32376 net.cpp:386] relu1 -> conv1 (in-place)
I0925 23:22:06.356482 32376 net.cpp:141] Setting up relu1
I0925 23:22:06.356506 32376 net.cpp:148] Top shape: 10 96 55 55 (2904000)
I0925 23:22:06.356513 32376 net.cpp:156] Memory required for data: 29415480
I0925 23:22:06.356523 32376 layer_factory.hpp:77] Creating layer pool1
I0925 23:22:06.356544 32376 net.cpp:91] Creating Layer pool1
I0925 23:22:06.356551 32376 net.cpp:425] pool1 <- conv1
I0925 23:22:06.356565 32376 net.cpp:399] pool1 -> pool1
I0925 23:22:06.356745 32376 net.cpp:141] Setting up pool1
I0925 23:22:06.356762 32376 net.cpp:148] Top shape: 10 96 27 27 (699840)
I0925 23:22:06.356770 32376 net.cpp:156] Memory required for data: 32214840
I0925 23:22:06.356777 32376 layer_factory.hpp:77] Creating layer norm1
I0925 23:22:06.356806 32376 net.cpp:91] Creating Layer norm1
I0925 23:22:06.356814 32376 net.cpp:425] norm1 <- pool1
I0925 23:22:06.356825 32376 net.cpp:399] norm1 -> norm1
I0925 23:22:06.357925 32376 net.cpp:141] Setting up norm1
I0925 23:22:06.357980 32376 net.cpp:148] Top shape: 10 96 27 27 (699840)
I0925 23:22:06.357990 32376 net.cpp:156] Memory required for data: 35014200
I0925 23:22:06.358002 32376 layer_factory.hpp:77] Creating layer conv2
I0925 23:22:06.358034 32376 net.cpp:91] Creating Layer conv2
I0925 23:22:06.358044 32376 net.cpp:425] conv2 <- norm1
I0925 23:22:06.358062 32376 net.cpp:399] conv2 -> conv2
I0925 23:22:06.402588 32376 net.cpp:141] Setting up conv2
I0925 23:22:06.402688 32376 net.cpp:148] Top shape: 10 256 27 27 (1866240)
I0925 23:22:06.402701 32376 net.cpp:156] Memory required for data: 42479160
I0925 23:22:06.403301 32376 layer_factory.hpp:77] Creating layer relu2
I0925 23:22:06.403342 32376 net.cpp:91] Creating Layer relu2
I0925 23:22:06.403352 32376 net.cpp:425] relu2 <- conv2
I0925 23:22:06.403362 32376 net.cpp:386] relu2 -> conv2 (in-place)
I0925 23:22:06.412089 32418 net.cpp:141] Setting up predict
I0925 23:22:06.412149 32418 net.cpp:148] Top shape: 1 1 46168 (46168)
I0925 23:22:06.412159 32418 net.cpp:156] Memory required for data: 221084
I0925 23:22:06.412181 32418 layer_factory.hpp:77] Creating layer probs
I0925 23:22:06.412206 32418 net.cpp:91] Creating Layer probs
I0925 23:22:06.412217 32418 net.cpp:425] probs <- predict
I0925 23:22:06.412232 32418 net.cpp:399] probs -> probs
I0925 23:22:06.412894 32376 net.cpp:141] Setting up relu2
I0925 23:22:06.412932 32376 net.cpp:148] Top shape: 10 256 27 27 (1866240)
I0925 23:22:06.412941 32376 net.cpp:156] Memory required for data: 49944120
I0925 23:22:06.412953 32376 layer_factory.hpp:77] Creating layer pool2
I0925 23:22:06.412972 32376 net.cpp:91] Creating Layer pool2
I0925 23:22:06.412981 32376 net.cpp:425] pool2 <- conv2
I0925 23:22:06.414757 32376 net.cpp:399] pool2 -> pool2
I0925 23:22:06.416690 32376 net.cpp:141] Setting up pool2
I0925 23:22:06.416739 32376 net.cpp:148] Top shape: 10 256 13 13 (432640)
I0925 23:22:06.416749 32376 net.cpp:156] Memory required for data: 51674680
I0925 23:22:06.416762 32376 layer_factory.hpp:77] Creating layer norm2
I0925 23:22:06.417359 32376 net.cpp:91] Creating Layer norm2
I0925 23:22:06.417381 32376 net.cpp:425] norm2 <- pool2
I0925 23:22:06.417398 32376 net.cpp:399] norm2 -> norm2
I0925 23:22:06.417619 32418 net.cpp:141] Setting up probs
I0925 23:22:06.417646 32418 net.cpp:148] Top shape: 1 1 46168 (46168)
I0925 23:22:06.417655 32418 net.cpp:156] Memory required for data: 405756
I0925 23:22:06.417666 32418 net.cpp:219] probs does not need backward computation.
I0925 23:22:06.417676 32418 net.cpp:219] predict does not need backward computation.
I0925 23:22:06.417685 32418 net.cpp:219] lstm2 does not need backward computation.
I0925 23:22:06.417693 32418 net.cpp:219] concat does not need backward computation.
I0925 23:22:06.417704 32418 net.cpp:219] lstm1 does not need backward computation.
I0925 23:22:06.417716 32418 net.cpp:219] embedding does not need backward computation.
I0925 23:22:06.417724 32418 net.cpp:219] reshape_stage_indicator does not need backward computation.
I0925 23:22:06.417733 32418 net.cpp:219] reshape_frames does not need backward computation.
I0925 23:22:06.417742 32418 net.cpp:219] embed_encoder does not need backward computation.
I0925 23:22:06.417748 32418 net.cpp:219] cont_sentence_input_1_split does not need backward computation.
I0925 23:22:06.417757 32418 net.cpp:219] input does not need backward computation.
I0925 23:22:06.417764 32418 net.cpp:261] This network produces output probs
I0925 23:22:06.417791 32418 net.cpp:274] Network initialization done.
I0925 23:22:06.423207 32376 net.cpp:141] Setting up norm2
I0925 23:22:06.423269 32376 net.cpp:148] Top shape: 10 256 13 13 (432640)
I0925 23:22:06.423280 32376 net.cpp:156] Memory required for data: 53405240
I0925 23:22:06.423293 32376 layer_factory.hpp:77] Creating layer conv3
I0925 23:22:06.423331 32376 net.cpp:91] Creating Layer conv3
I0925 23:22:06.423342 32376 net.cpp:425] conv3 <- norm2
I0925 23:22:06.423358 32376 net.cpp:399] conv3 -> conv3
I0925 23:22:06.468351 32366 net.cpp:141] Setting up predict
I0925 23:22:06.468411 32366 net.cpp:148] Top shape: 1 1 46168 (46168)
I0925 23:22:06.468418 32366 net.cpp:156] Memory required for data: 221084
I0925 23:22:06.468433 32366 layer_factory.hpp:77] Creating layer probs
I0925 23:22:06.468454 32366 net.cpp:91] Creating Layer probs
I0925 23:22:06.468461 32366 net.cpp:425] probs <- predict
I0925 23:22:06.468472 32366 net.cpp:399] probs -> probs
I0925 23:22:06.481474 32366 net.cpp:141] Setting up probs
I0925 23:22:06.482226 32366 net.cpp:148] Top shape: 1 1 46168 (46168)
I0925 23:22:06.482436 32366 net.cpp:156] Memory required for data: 405756
I0925 23:22:06.482579 32366 net.cpp:219] probs does not need backward computation.
I0925 23:22:06.482728 32366 net.cpp:219] predict does not need backward computation.
I0925 23:22:06.482848 32366 net.cpp:219] lstm2 does not need backward computation.
I0925 23:22:06.482969 32366 net.cpp:219] concat does not need backward computation.
I0925 23:22:06.483093 32366 net.cpp:219] lstm1 does not need backward computation.
I0925 23:22:06.483218 32376 net.cpp:141] Setting up conv3
I0925 23:22:06.483367 32376 net.cpp:148] Top shape: 10 384 13 13 (648960)
I0925 23:22:06.483378 32376 net.cpp:156] Memory required for data: 56001080
I0925 23:22:06.483429 32376 layer_factory.hpp:77] Creating layer relu3
I0925 23:22:06.483464 32376 net.cpp:91] Creating Layer relu3
I0925 23:22:06.483477 32376 net.cpp:425] relu3 <- conv3
I0925 23:22:06.483499 32376 net.cpp:386] relu3 -> conv3 (in-place)
I0925 23:22:06.483337 32366 net.cpp:219] embedding does not need backward computation.
I0925 23:22:06.484084 32366 net.cpp:219] reshape_stage_indicator does not need backward computation.
I0925 23:22:06.484344 32366 net.cpp:219] reshape_frames does not need backward computation.
I0925 23:22:06.484477 32366 net.cpp:219] embed_encoder does not need backward computation.
I0925 23:22:06.484607 32366 net.cpp:219] cont_sentence_input_1_split does not need backward computation.
I0925 23:22:06.484737 32366 net.cpp:219] input does not need backward computation.
I0925 23:22:06.484931 32366 net.cpp:261] This network produces output probs
I0925 23:22:06.485079 32366 net.cpp:274] Network initialization done.
I0925 23:22:06.485481 32376 net.cpp:141] Setting up relu3
I0925 23:22:06.485527 32376 net.cpp:148] Top shape: 10 384 13 13 (648960)
I0925 23:22:06.485539 32376 net.cpp:156] Memory required for data: 58596920
I0925 23:22:06.485553 32376 layer_factory.hpp:77] Creating layer conv4
I0925 23:22:06.485599 32376 net.cpp:91] Creating Layer conv4
I0925 23:22:06.485612 32376 net.cpp:425] conv4 <- conv3
I0925 23:22:06.485632 32376 net.cpp:399] conv4 -> conv4
I0925 23:22:06.547935 32376 net.cpp:141] Setting up conv4
I0925 23:22:06.548039 32376 net.cpp:148] Top shape: 10 384 13 13 (648960)
I0925 23:22:06.548053 32376 net.cpp:156] Memory required for data: 61192760
I0925 23:22:06.548084 32376 layer_factory.hpp:77] Creating layer relu4
I0925 23:22:06.548115 32376 net.cpp:91] Creating Layer relu4
I0925 23:22:06.548128 32376 net.cpp:425] relu4 <- conv4
I0925 23:22:06.548146 32376 net.cpp:386] relu4 -> conv4 (in-place)
I0925 23:22:06.549983 32376 net.cpp:141] Setting up relu4
I0925 23:22:06.550076 32376 net.cpp:148] Top shape: 10 384 13 13 (648960)
I0925 23:22:06.550088 32376 net.cpp:156] Memory required for data: 63788600
I0925 23:22:06.550104 32376 layer_factory.hpp:77] Creating layer conv5
I0925 23:22:06.550143 32376 net.cpp:91] Creating Layer conv5
I0925 23:22:06.550159 32376 net.cpp:425] conv5 <- conv4
I0925 23:22:06.551152 32376 net.cpp:399] conv5 -> conv5
I0925 23:22:06.636899 32376 net.cpp:141] Setting up conv5
I0925 23:22:06.637034 32376 net.cpp:148] Top shape: 10 256 13 13 (432640)
I0925 23:22:06.637047 32376 net.cpp:156] Memory required for data: 65519160
I0925 23:22:06.637116 32376 layer_factory.hpp:77] Creating layer relu5
I0925 23:22:06.637171 32376 net.cpp:91] Creating Layer relu5
I0925 23:22:06.637186 32376 net.cpp:425] relu5 <- conv5
I0925 23:22:06.637820 32376 net.cpp:386] relu5 -> conv5 (in-place)
I0925 23:22:06.639802 32376 net.cpp:141] Setting up relu5
I0925 23:22:06.639909 32376 net.cpp:148] Top shape: 10 256 13 13 (432640)
I0925 23:22:06.639924 32376 net.cpp:156] Memory required for data: 67249720
I0925 23:22:06.639943 32376 layer_factory.hpp:77] Creating layer pool5
I0925 23:22:06.639997 32376 net.cpp:91] Creating Layer pool5
I0925 23:22:06.640046 32376 net.cpp:425] pool5 <- conv5
I0925 23:22:06.640748 32376 net.cpp:399] pool5 -> pool5
I0925 23:22:06.642725 32376 net.cpp:141] Setting up pool5
I0925 23:22:06.642827 32376 net.cpp:148] Top shape: 10 256 6 6 (92160)
I0925 23:22:06.642837 32376 net.cpp:156] Memory required for data: 67618360
I0925 23:22:06.642851 32376 layer_factory.hpp:77] Creating layer fc6
I0925 23:22:06.643383 32376 net.cpp:91] Creating Layer fc6
I0925 23:22:06.643409 32376 net.cpp:425] fc6 <- pool5
I0925 23:22:06.643430 32376 net.cpp:399] fc6 -> fc6
I0925 23:22:06.782897 32376 net.cpp:141] Setting up fc6
I0925 23:22:06.782968 32376 net.cpp:148] Top shape: 10 4096 (40960)
I0925 23:22:06.782979 32376 net.cpp:156] Memory required for data: 67782200
I0925 23:22:06.783007 32376 layer_factory.hpp:77] Creating layer relu6
I0925 23:22:06.783036 32376 net.cpp:91] Creating Layer relu6
I0925 23:22:06.783051 32376 net.cpp:425] relu6 <- fc6
I0925 23:22:06.783066 32376 net.cpp:386] relu6 -> fc6 (in-place)
I0925 23:22:06.788725 32376 net.cpp:141] Setting up relu6
I0925 23:22:06.788817 32376 net.cpp:148] Top shape: 10 4096 (40960)
I0925 23:22:06.788830 32376 net.cpp:156] Memory required for data: 67946040
I0925 23:22:06.788847 32376 layer_factory.hpp:77] Creating layer drop6
I0925 23:22:06.788877 32376 net.cpp:91] Creating Layer drop6
I0925 23:22:06.788890 32376 net.cpp:425] drop6 <- fc6
I0925 23:22:06.788909 32376 net.cpp:386] drop6 -> fc6 (in-place)
I0925 23:22:06.789436 32376 net.cpp:141] Setting up drop6
I0925 23:22:06.789460 32376 net.cpp:148] Top shape: 10 4096 (40960)
I0925 23:22:06.789469 32376 net.cpp:156] Memory required for data: 68109880
I0925 23:22:06.789477 32376 layer_factory.hpp:77] Creating layer fc7
I0925 23:22:06.789499 32376 net.cpp:91] Creating Layer fc7
I0925 23:22:06.789510 32376 net.cpp:425] fc7 <- fc6
I0925 23:22:06.789520 32376 net.cpp:399] fc7 -> fc7
I0925 23:22:06.859061 32376 net.cpp:141] Setting up fc7
I0925 23:22:06.859143 32376 net.cpp:148] Top shape: 10 4096 (40960)
I0925 23:22:06.859155 32376 net.cpp:156] Memory required for data: 68273720
I0925 23:22:06.859195 32376 layer_factory.hpp:77] Creating layer relu7
I0925 23:22:06.859257 32376 net.cpp:91] Creating Layer relu7
I0925 23:22:06.859272 32376 net.cpp:425] relu7 <- fc7
I0925 23:22:06.860019 32376 net.cpp:386] relu7 -> fc7 (in-place)
I0925 23:22:06.861642 32376 net.cpp:141] Setting up relu7
I0925 23:22:06.861712 32376 net.cpp:148] Top shape: 10 4096 (40960)
I0925 23:22:06.861723 32376 net.cpp:156] Memory required for data: 68437560
I0925 23:22:06.861737 32376 layer_factory.hpp:77] Creating layer drop7
I0925 23:22:06.861763 32376 net.cpp:91] Creating Layer drop7
I0925 23:22:06.861774 32376 net.cpp:425] drop7 <- fc7
I0925 23:22:06.861788 32376 net.cpp:386] drop7 -> fc7 (in-place)
I0925 23:22:06.862540 32376 net.cpp:141] Setting up drop7
I0925 23:22:06.862610 32376 net.cpp:148] Top shape: 10 4096 (40960)
I0925 23:22:06.862663 32376 net.cpp:156] Memory required for data: 68601400
I0925 23:22:06.862681 32376 layer_factory.hpp:77] Creating layer fc8
I0925 23:22:06.862716 32376 net.cpp:91] Creating Layer fc8
I0925 23:22:06.862730 32376 net.cpp:425] fc8 <- fc7
I0925 23:22:06.862749 32376 net.cpp:399] fc8 -> fc8
I0925 23:22:06.896992 32376 net.cpp:141] Setting up fc8
I0925 23:22:06.897085 32376 net.cpp:148] Top shape: 10 1000 (10000)
I0925 23:22:06.897097 32376 net.cpp:156] Memory required for data: 68641400
I0925 23:22:06.897127 32376 layer_factory.hpp:77] Creating layer prob
I0925 23:22:06.897157 32376 net.cpp:91] Creating Layer prob
I0925 23:22:06.897171 32376 net.cpp:425] prob <- fc8
I0925 23:22:06.897871 32376 net.cpp:399] prob -> prob
I0925 23:22:06.902709 32376 net.cpp:141] Setting up prob
I0925 23:22:06.902788 32376 net.cpp:148] Top shape: 10 1000 (10000)
I0925 23:22:06.902804 32376 net.cpp:156] Memory required for data: 68681400
I0925 23:22:06.902825 32376 net.cpp:219] prob does not need backward computation.
I0925 23:22:06.902840 32376 net.cpp:219] fc8 does not need backward computation.
I0925 23:22:06.902853 32376 net.cpp:219] drop7 does not need backward computation.
I0925 23:22:06.902865 32376 net.cpp:219] relu7 does not need backward computation.
…
