…
Java HotSpot(TM) 64-Bit Server VM warning: You have loaded library /tmp/cvld3565529931156552324/libopencv_java310.xine1.so which might have disabled stack guard. The VM will try to fix the stack guard now.
It's highly recommended that you fix the library with 'execstack -c <libfile>', or link it with '-z noexecstack'.
WARNING: Logging before InitGoogleLogging() is written to STDERR
I0720 13:40:56.532737 24936 net.cpp:49] Initializing net from parameters: 
name: "CaffeNet"
state {
  phase: TEST
}
layer {
  name: "data"
  type: "Input"
  top: "data"
  input_param {
    shape {
      dim: 10
      dim: 3
      dim: 227
      dim: 227
    }
  }
}
layer {
  name: "conv1"
  type: "Convolution"
  bottom: "data"
  top: "conv1"
  convolution_param {
    num_output: 96
    kernel_size: 11
    stride: 4
  }
}
layer {
  name: "relu1"
  type: "ReLU"
  bottom: "conv1"
  top: "conv1"
}
layer {
  name: "pool1"
  type: "Pooling"
  bottom: "conv1"
  top: "pool1"
  pooling_param {
    pool: MAX
    kernel_size: 3
    stride: 2
  }
}
layer {
  name: "norm1"
  type: "LRN"
  bottom: "pool1"
  top: "norm1"
  lrn_param {
    local_size: 5
    alpha: 0.0001
    beta: 0.75
  }
}
layer {
  name: "conv2"
  type: "Convolution"
  bottom: "norm1"
  top: "conv2"
  convolution_param {
    num_output: 256
    pad: 2
    kernel_size: 5
    group: 2
  }
}
layer {
  name: "relu2"
  type: "ReLU"
  bottom: "conv2"
  top: "conv2"
}
layer {
  name: "pool2"
  type: "Pooling"
  bottom: "conv2"
  top: "pool2"
  pooling_param {
    pool: MAX
    kernel_size: 3
    stride: 2
  }
}
layer {
  name: "norm2"
  type: "LRN"
  bottom: "pool2"
  top: "norm2"
  lrn_param {
    local_size: 5
    alpha: 0.0001
    beta: 0.75
  }
}
layer {
  name: "conv3"
  type: "Convolution"
  bottom: "norm2"
  top: "conv3"
  convolution_param {
    num_output: 384
    pad: 1
    kernel_size: 3
  }
}
layer {
  name: "relu3"
  type: "ReLU"
  bottom: "conv3"
  top: "conv3"
}
layer {
  name: "conv4"
  type: "Convolution"
  bottom: "conv3"
  top: "conv4"
  convolution_param {
    num_output: 384
    pad: 1
    kernel_size: 3
    group: 2
  }
}
layer {
  name: "relu4"
  type: "ReLU"
  bottom: "conv4"
  top: "conv4"
}
layer {
  name: "conv5"
  type: "Convolution"
  bottom: "conv4"
  top: "conv5"
  convolution_param {
    num_output: 256
    pad: 1
    kernel_size: 3
    group: 2
  }
}
layer {
  name: "relu5"
  type: "ReLU"
  bottom: "conv5"
  top: "conv5"
}
layer {
  name: "pool5"
  type: "Pooling"
  bottom: "conv5"
  top: "pool5"
  pooling_param {
    pool: MAX
    kernel_size: 3
    stride: 2
  }
}
layer {
  name: "fc6"
  type: "InnerProduct"
  bottom: "pool5"
  top: "fc6"
  inner_product_param {
    num_output: 4096
  }
}
layer {
  name: "relu6"
  type: "ReLU"
  bottom: "fc6"
  top: "fc6"
}
layer {
  name: "drop6"
  type: "Dropout"
  bottom: "fc6"
  top: "fc6"
  dropout_param {
    dropout_ratio: 0.5
  }
}
layer {
  name: "fc7"
  type: "InnerProduct"
  bottom: "fc6"
  top: "fc7"
  inner_product_param {
    num_output: 4096
  }
}
layer {
  name: "relu7"
  type: "ReLU"
  bottom: "fc7"
  top: "fc7"
}
layer {
  name: "drop7"
  type: "Dropout"
  bottom: "fc7"
  top: "fc7"
  dropout_param {
    dropout_ratio: 0.5
  }
}
layer {
  name: "fc8"
  type: "InnerProduct"
  bottom: "fc7"
  top: "fc8"
  inner_product_param {
    num_output: 1000
  }
}
layer {
  name: "prob"
  type: "Softmax"
  bottom: "fc8"
  top: "prob"
}
I0720 13:40:56.532737 24911 net.cpp:49] Initializing net from parameters: 
name: "CaffeNet"
state {
  phase: TEST
}
layer {
  name: "data"
  type: "Input"
  top: "data"
  input_param {
    shape {
      dim: 10
      dim: 3
      dim: 227
      dim: 227
    }
  }
}
layer {
  name: "conv1"
  type: "Convolution"
  bottom: "data"
  top: "conv1"
  convolution_param {
    num_output: 96
    kernel_size: 11
    stride: 4
  }
}
layer {
  name: "relu1"
  type: "ReLU"
  bottom: "conv1"
  top: "conv1"
}
layer {
  name: "pool1"
  type: "Pooling"
  bottom: "conv1"
  top: "pool1"
  pooling_param {
    pool: MAX
    kernel_size: 3
    stride: 2
  }
}
layer {
  name: "norm1"
  type: "LRN"
  bottom: "pool1"
  top: "norm1"
  lrn_param {
    local_size: 5
    alpha: 0.0001
    beta: 0.75
  }
}
layer {
  name: "conv2"
  type: "Convolution"
  bottom: "norm1"
  top: "conv2"
  convolution_param {
    num_output: 256
    pad: 2
    kernel_size: 5
    group: 2
  }
}
layer {
  name: "relu2"
  type: "ReLU"
  bottom: "conv2"
  top: "conv2"
}
layer {
  name: "pool2"
  type: "Pooling"
  bottom: "conv2"
  top: "pool2"
  pooling_param {
    pool: MAX
    kernel_size: 3
    stride: 2
  }
}
layer {
  name: "norm2"
  type: "LRN"
  bottom: "pool2"
  top: "norm2"
  lrn_param {
    local_size: 5
    alpha: 0.0001
    beta: 0.75
  }
}
layer {
  name: "conv3"
  type: "Convolution"
  bottom: "norm2"
  top: "conv3"
  convolution_param {
    num_output: 384
    pad: 1
    kernel_size: 3
  }
}
layer {
  name: "relu3"
  type: "ReLU"
  bottom: "conv3"
  top: "conv3"
}
layer {
  name: "conv4"
  type: "Convolution"
  bottom: "conv3"
  top: "conv4"
  convolution_param {
    num_output: 384
    pad: 1
    kernel_size: 3
    group: 2
  }
}
layer {
  name: "relu4"
  type: "ReLU"
  bottom: "conv4"
  top: "conv4"
}
layer {
  name: "conv5"
  type: "Convolution"
  bottom: "conv4"
  top: "conv5"
  convolution_param {
    num_output: 256
    pad: 1
    kernel_size: 3
    group: 2
  }
}
layer {
  name: "relu5"
  type: "ReLU"
  bottom: "conv5"
  top: "conv5"
}
layer {
  name: "pool5"
  type: "Pooling"
  bottom: "conv5"
  top: "pool5"
  pooling_param {
    pool: MAX
    kernel_size: 3
    stride: 2
  }
}
layer {
  name: "fc6"
  type: "InnerProduct"
  bottom: "pool5"
  top: "fc6"
  inner_product_param {
    num_output: 4096
  }
}
layer {
  name: "relu6"
  type: "ReLU"
  bottom: "fc6"
  top: "fc6"
}
layer {
  name: "drop6"
  type: "Dropout"
  bottom: "fc6"
  top: "fc6"
  dropout_param {
    dropout_ratio: 0.5
  }
}
layer {
  name: "fc7"
  type: "InnerProduct"
  bottom: "fc6"
  top: "fc7"
  inner_product_param {
    num_output: 4096
  }
}
layer {
  name: "relu7"
  type: "ReLU"
  bottom: "fc7"
  top: "fc7"
}
layer {
  name: "drop7"
  type: "Dropout"
  bottom: "fc7"
  top: "fc7"
  dropout_param {
    dropout_ratio: 0.5
  }
}
layer {
  name: "fc8"
  type: "InnerProduct"
  bottom: "fc7"
  top: "fc8"
  inner_product_param {
    num_output: 1000
  }
}
layer {
  name: "prob"
  type: "Softmax"
  bottom: "fc8"
  top: "prob"
}
I0720 13:40:56.532737 24924 net.cpp:49] Initializing net from parameters: 
name: "CaffeNet"
state {
  phase: TEST
}
layer {
  name: "data"
  type: "Input"
  top: "data"
  input_param {
    shape {
      dim: 10
      dim: 3
      dim: 227
      dim: 227
    }
  }
}
layer {
  name: "conv1"
  type: "Convolution"
  bottom: "data"
  top: "conv1"
  convolution_param {
    num_output: 96
    kernel_size: 11
    stride: 4
  }
}
layer {
  name: "relu1"
  type: "ReLU"
  bottom: "conv1"
  top: "conv1"
}
layer {
  name: "pool1"
  type: "Pooling"
  bottom: "conv1"
  top: "pool1"
  pooling_param {
    pool: MAX
    kernel_size: 3
    stride: 2
  }
}
layer {
  name: "norm1"
  type: "LRN"
  bottom: "pool1"
  top: "norm1"
  lrn_param {
    local_size: 5
    alpha: 0.0001
    beta: 0.75
  }
}
layer {
  name: "conv2"
  type: "Convolution"
  bottom: "norm1"
  top: "conv2"
  convolution_param {
    num_output: 256
    pad: 2
    kernel_size: 5
    group: 2
  }
}
layer {
  name: "relu2"
  type: "ReLU"
  bottom: "conv2"
  top: "conv2"
}
layer {
  name: "pool2"
  type: "Pooling"
  bottom: "conv2"
  top: "pool2"
  pooling_param {
    pool: MAX
    kernel_size: 3
    stride: 2
  }
}
layer {
  name: "norm2"
  type: "LRN"
  bottom: "pool2"
  top: "norm2"
  lrn_param {
    local_size: 5
    alpha: 0.0001
    beta: 0.75
  }
}
layer {
  name: "conv3"
  type: "Convolution"
  bottom: "norm2"
  top: "conv3"
  convolution_param {
    num_output: 384
    pad: 1
    kernel_size: 3
  }
}
layer {
  name: "relu3"
  type: "ReLU"
  bottom: "conv3"
  top: "conv3"
}
layer {
  name: "conv4"
  type: "Convolution"
  bottom: "conv3"
  top: "conv4"
  convolution_param {
    num_output: 384
    pad: 1
    kernel_size: 3
    group: 2
  }
}
layer {
  name: "relu4"
  type: "ReLU"
  bottom: "conv4"
  top: "conv4"
}
layer {
  name: "conv5"
  type: "Convolution"
  bottom: "conv4"
  top: "conv5"
  convolution_param {
    num_output: 256
    pad: 1
    kernel_size: 3
    group: 2
  }
}
layer {
  name: "relu5"
  type: "ReLU"
  bottom: "conv5"
  top: "conv5"
}
layer {
  name: "pool5"
  type: "Pooling"
  bottom: "conv5"
  top: "pool5"
  pooling_param {
    pool: MAX
    kernel_size: 3
    stride: 2
  }
}
layer {
  name: "fc6"
  type: "InnerProduct"
  bottom: "pool5"
  top: "fc6"
  inner_product_param {
    num_output: 4096
  }
}
layer {
  name: "relu6"
  type: "ReLU"
  bottom: "fc6"
  top: "fc6"
}
layer {
  name: "drop6"
  type: "Dropout"
  bottom: "fc6"
  top: "fc6"
  dropout_param {
    dropout_ratio: 0.5
  }
}
layer {
  name: "fc7"
  type: "InnerProduct"
  bottom: "fc6"
  top: "fc7"
  inner_product_param {
    num_output: 4096
  }
}
layer {
  name: "relu7"
  type: "ReLU"
  bottom: "fc7"
  top: "fc7"
}
layer {
  name: "drop7"
  type: "Dropout"
  bottom: "fc7"
  top: "fc7"
  dropout_param {
    dropout_ratio: 0.5
  }
}
layer {
  name: "fc8"
  type: "InnerProduct"
  bottom: "fc7"
  top: "fc8"
  inner_product_param {
    num_output: 1000
  }
}
layer {
  name: "prob"
  type: "Softmax"
  bottom: "fc8"
  top: "prob"
}
I0720 13:40:56.532735 24942 net.cpp:49] Initializing net from parameters: 
name: "CaffeNet"
state {
  phase: TEST
}
layer {
  name: "data"
  type: "Input"
  top: "data"
  input_param {
    shape {
      dim: 10
      dim: 3
      dim: 227
      dim: 227
    }
  }
}
layer {
  name: "conv1"
  type: "Convolution"
  bottom: "data"
  top: "conv1"
  convolution_param {
    num_output: 96
    kernel_size: 11
    stride: 4
  }
}
layer {
  name: "relu1"
  type: "ReLU"
  bottom: "conv1"
  top: "conv1"
}
layer {
  name: "pool1"
  type: "Pooling"
  bottom: "conv1"
  top: "pool1"
  pooling_param {
    pool: MAX
    kernel_size: 3
    stride: 2
  }
}
layer {
  name: "norm1"
  type: "LRN"
  bottom: "pool1"
  top: "norm1"
  lrn_param {
    local_size: 5
    alpha: 0.0001
    beta: 0.75
  }
}
layer {
  name: "conv2"
  type: "Convolution"
  bottom: "norm1"
  top: "conv2"
  convolution_param {
    num_output: 256
    pad: 2
    kernel_size: 5
    group: 2
  }
}
layer {
  name: "relu2"
  type: "ReLU"
  bottom: "conv2"
  top: "conv2"
}
layer {
  name: "pool2"
  type: "Pooling"
  bottom: "conv2"
  top: "pool2"
  pooling_param {
    pool: MAX
    kernel_size: 3
    stride: 2
  }
}
layer {
  name: "norm2"
  type: "LRN"
  bottom: "pool2"
  top: "norm2"
  lrn_param {
    local_size: 5
    alpha: 0.0001
    beta: 0.75
  }
}
layer {
  name: "conv3"
  type: "Convolution"
  bottom: "norm2"
  top: "conv3"
  convolution_param {
    num_output: 384
    pad: 1
    kernel_size: 3
  }
}
layer {
  name: "relu3"
  type: "ReLU"
  bottom: "conv3"
  top: "conv3"
}
layer {
  name: "conv4"
  type: "Convolution"
  bottom: "conv3"
  top: "conv4"
  convolution_param {
    num_output: 384
    pad: 1
    kernel_size: 3
    group: 2
  }
}
layer {
  name: "relu4"
  type: "ReLU"
  bottom: "conv4"
  top: "conv4"
}
layer {
  name: "conv5"
  type: "Convolution"
  bottom: "conv4"
  top: "conv5"
  convolution_param {
    num_output: 256
    pad: 1
    kernel_size: 3
    group: 2
  }
}
layer {
  name: "relu5"
  type: "ReLU"
  bottom: "conv5"
  top: "conv5"
}
layer {
  name: "pool5"
  type: "Pooling"
  bottom: "conv5"
  top: "pool5"
  pooling_param {
    pool: MAX
    kernel_size: 3
    stride: 2
  }
}
layer {
  name: "fc6"
  type: "InnerProduct"
  bottom: "pool5"
  top: "fc6"
  inner_product_param {
    num_output: 4096
  }
}
layer {
  name: "relu6"
  type: "ReLU"
  bottom: "fc6"
  top: "fc6"
}
layer {
  name: "drop6"
  type: "Dropout"
  bottom: "fc6"
  top: "fc6"
  dropout_param {
    dropout_ratio: 0.5
  }
}
layer {
  name: "fc7"
  type: "InnerProduct"
  bottom: "fc6"
  top: "fc7"
  inner_product_param {
    num_output: 4096
  }
}
layer {
  name: "relu7"
  type: "ReLU"
  bottom: "fc7"
  top: "fc7"
}
layer {
  name: "drop7"
  type: "Dropout"
  bottom: "fc7"
  top: "fc7"
  dropout_param {
    dropout_ratio: 0.5
  }
}
layer {
  name: "fc8"
  type: "InnerProduct"
  bottom: "fc7"
  top: "fc8"
  inner_product_param {
    num_output: 1000
  }
}
layer {
  name: "prob"
  type: "Softmax"
  bottom: "fc8"
  top: "prob"
}
I0720 13:40:56.532735 24919 net.cpp:49] Initializing net from parameters: 
name: "CaffeNet"
state {
  phase: TEST
}
layer {
  name: "data"
  type: "Input"
  top: "data"
  input_param {
    shape {
      dim: 10
      dim: 3
      dim: 227
      dim: 227
    }
  }
}
layer {
  name: "conv1"
  type: "Convolution"
  bottom: "data"
  top: "conv1"
  convolution_param {
    num_output: 96
    kernel_size: 11
    stride: 4
  }
}
layer {
  name: "relu1"
  type: "ReLU"
  bottom: "conv1"
  top: "conv1"
}
layer {
  name: "pool1"
  type: "Pooling"
  bottom: "conv1"
  top: "pool1"
  pooling_param {
    pool: MAX
    kernel_size: 3
    stride: 2
  }
}
layer {
  name: "norm1"
  type: "LRN"
  bottom: "pool1"
  top: "norm1"
  lrn_param {
    local_size: 5
    alpha: 0.0001
    beta: 0.75
  }
}
layer {
  name: "conv2"
  type: "Convolution"
  bottom: "norm1"
  top: "conv2"
  convolution_param {
    num_output: 256
    pad: 2
    kernel_size: 5
    group: 2
  }
}
layer {
  name: "relu2"
  type: "ReLU"
  bottom: "conv2"
  top: "conv2"
}
layer {
  name: "pool2"
  type: "Pooling"
  bottom: "conv2"
  top: "pool2"
  pooling_param {
    pool: MAX
    kernel_size: 3
    stride: 2
  }
}
layer {
  name: "norm2"
  type: "LRN"
  bottom: "pool2"
  top: "norm2"
  lrn_param {
    local_size: 5
    alpha: 0.0001
    beta: 0.75
  }
}
layer {
  name: "conv3"
  type: "Convolution"
  bottom: "norm2"
  top: "conv3"
  convolution_param {
    num_output: 384
    pad: 1
    kernel_size: 3
  }
}
layer {
  name: "relu3"
  type: "ReLU"
  bottom: "conv3"
  top: "conv3"
}
layer {
  name: "conv4"
  type: "Convolution"
  bottom: "conv3"
  top: "conv4"
  convolution_param {
    num_output: 384
    pad: 1
    kernel_size: 3
    group: 2
  }
}
layer {
  name: "relu4"
  type: "ReLU"
  bottom: "conv4"
  top: "conv4"
}
layer {
  name: "conv5"
  type: "Convolution"
  bottom: "conv4"
  top: "conv5"
  convolution_param {
    num_output: 256
    pad: 1
    kernel_size: 3
    group: 2
  }
}
layer {
  name: "relu5"
  type: "ReLU"
  bottom: "conv5"
  top: "conv5"
}
layer {
  name: "pool5"
  type: "Pooling"
  bottom: "conv5"
  top: "pool5"
  pooling_param {
    pool: MAX
    kernel_size: 3
    stride: 2
  }
}
layer {
  name: "fc6"
  type: "InnerProduct"
  bottom: "pool5"
  top: "fc6"
  inner_product_param {
    num_output: 4096
  }
}
layer {
  name: "relu6"
  type: "ReLU"
  bottom: "fc6"
  top: "fc6"
}
layer {
  name: "drop6"
  type: "Dropout"
  bottom: "fc6"
  top: "fc6"
  dropout_param {
    dropout_ratio: 0.5
  }
}
layer {
  name: "fc7"
  type: "InnerProduct"
  bottom: "fc6"
  top: "fc7"
  inner_product_param {
    num_output: 4096
  }
}
layer {
  name: "relu7"
  type: "ReLU"
  bottom: "fc7"
  top: "fc7"
}
layer {
  name: "drop7"
  type: "Dropout"
  bottom: "fc7"
  top: "fc7"
  dropout_param {
    dropout_ratio: 0.5
  }
}
layer {
  name: "fc8"
  type: "InnerProduct"
  bottom: "fc7"
  top: "fc8"
  inner_product_param {
    num_output: 1000
  }
}
layer {
  name: "prob"
  type: "Softmax"
  bottom: "fc8"
  top: "prob"
}
I0720 13:40:56.532888 24934 net.cpp:49] Initializing net from parameters: 
name: "CaffeNet"
state {
  phase: TEST
}
layer {
  name: "data"
  type: "Input"
  top: "data"
  input_param {
    shape {
      dim: 10
      dim: 3
      dim: 227
      dim: 227
    }
  }
}
layer {
  name: "conv1"
  type: "Convolution"
  bottom: "data"
  top: "conv1"
  convolution_param {
    num_output: 96
    kernel_size: 11
    stride: 4
  }
}
layer {
  name: "relu1"
  type: "ReLU"
  bottom: "conv1"
  top: "conv1"
}
layer {
  name: "pool1"
  type: "Pooling"
  bottom: "conv1"
  top: "pool1"
  pooling_param {
    pool: MAX
    kernel_size: 3
    stride: 2
  }
}
layer {
  name: "norm1"
  type: "LRN"
  bottom: "pool1"
  top: "norm1"
  lrn_param {
    local_size: 5
    alpha: 0.0001
    beta: 0.75
  }
}
layer {
  name: "conv2"
  type: "Convolution"
  bottom: "norm1"
  top: "conv2"
  convolution_param {
    num_output: 256
    pad: 2
    kernel_size: 5
    group: 2
  }
}
layer {
  name: "relu2"
  type: "ReLU"
  bottom: "conv2"
  top: "conv2"
}
layer {
  name: "pool2"
  type: "Pooling"
  bottom: "conv2"
  top: "pool2"
  pooling_param {
    pool: MAX
    kernel_size: 3
    stride: 2
  }
}
layer {
  name: "norm2"
  type: "LRN"
  bottom: "pool2"
  top: "norm2"
  lrn_param {
    local_size: 5
    alpha: 0.0001
    beta: 0.75
  }
}
layer {
  name: "conv3"
  type: "Convolution"
  bottom: "norm2"
  top: "conv3"
  convolution_param {
    num_output: 384
    pad: 1
    kernel_size: 3
  }
}
layer {
  name: "relu3"
  type: "ReLU"
  bottom: "conv3"
  top: "conv3"
}
layer {
  name: "conv4"
  type: "Convolution"
  bottom: "conv3"
  top: "conv4"
  convolution_param {
    num_output: 384
    pad: 1
    kernel_size: 3
    group: 2
  }
}
layer {
  name: "relu4"
  type: "ReLU"
  bottom: "conv4"
  top: "conv4"
}
layer {
  name: "conv5"
  type: "Convolution"
  bottom: "conv4"
  top: "conv5"
  convolution_param {
    num_output: 256
    pad: 1
    kernel_size: 3
    group: 2
  }
}
layer {
  name: "relu5"
  type: "ReLU"
  bottom: "conv5"
  top: "conv5"
}
layer {
  name: "pool5"
  type: "Pooling"
  bottom: "conv5"
  top: "pool5"
  pooling_param {
    pool: MAX
    kernel_size: 3
    stride: 2
  }
}
layer {
  name: "fc6"
  type: "InnerProduct"
  bottom: "pool5"
  top: "fc6"
  inner_product_param {
    num_output: 4096
  }
}
layer {
  name: "relu6"
  type: "ReLU"
  bottom: "fc6"
  top: "fc6"
}
layer {
  name: "drop6"
  type: "Dropout"
  bottom: "fc6"
  top: "fc6"
  dropout_param {
    dropout_ratio: 0.5
  }
}
layer {
  name: "fc7"
  type: "InnerProduct"
  bottom: "fc6"
  top: "fc7"
  inner_product_param {
    num_output: 4096
  }
}
layer {
  name: "relu7"
  type: "ReLU"
  bottom: "fc7"
  top: "fc7"
}
layer {
  name: "drop7"
  type: "Dropout"
  bottom: "fc7"
  top: "fc7"
  dropout_param {
    dropout_ratio: 0.5
  }
}
layer {
  name: "fc8"
  type: "InnerProduct"
  bottom: "fc7"
  top: "fc8"
  inner_product_param {
    num_output: 1000
  }
}
layer {
  name: "prob"
  type: "Softmax"
  bottom: "fc8"
  top: "prob"
}
I0720 13:40:56.532941 24915 net.cpp:49] Initializing net from parameters: 
name: "CaffeNet"
state {
  phase: TEST
}
layer {
  name: "data"
  type: "Input"
  top: "data"
  input_param {
    shape {
      dim: 10
      dim: 3
      dim: 227
      dim: 227
    }
  }
}
layer {
  name: "conv1"
  type: "Convolution"
  bottom: "data"
  top: "conv1"
  convolution_param {
    num_output: 96
    kernel_size: 11
    stride: 4
  }
}
layer {
  name: "relu1"
  type: "ReLU"
  bottom: "conv1"
  top: "conv1"
}
layer {
  name: "pool1"
  type: "Pooling"
  bottom: "conv1"
  top: "pool1"
  pooling_param {
    pool: MAX
    kernel_size: 3
    stride: 2
  }
}
layer {
  name: "norm1"
  type: "LRN"
  bottom: "pool1"
  top: "norm1"
  lrn_param {
    local_size: 5
    alpha: 0.0001
    beta: 0.75
  }
}
layer {
  name: "conv2"
  type: "Convolution"
  bottom: "norm1"
  top: "conv2"
  convolution_param {
    num_output: 256
    pad: 2
    kernel_size: 5
    group: 2
  }
}
layer {
  name: "relu2"
  type: "ReLU"
  bottom: "conv2"
  top: "conv2"
}
layer {
  name: "pool2"
  type: "Pooling"
  bottom: "conv2"
  top: "pool2"
  pooling_param {
    pool: MAX
    kernel_size: 3
    stride: 2
  }
}
layer {
  name: "norm2"
  type: "LRN"
  bottom: "pool2"
  top: "norm2"
  lrn_param {
    local_size: 5
    alpha: 0.0001
    beta: 0.75
  }
}
layer {
  name: "conv3"
  type: "Convolution"
  bottom: "norm2"
  top: "conv3"
  convolution_param {
    num_output: 384
    pad: 1
    kernel_size: 3
  }
}
layer {
  name: "relu3"
  type: "ReLU"
  bottom: "conv3"
  top: "conv3"
}
layer {
  name: "conv4"
  type: "Convolution"
  bottom: "conv3"
  top: "conv4"
  convolution_param {
    num_output: 384
    pad: 1
    kernel_size: 3
    group: 2
  }
}
layer {
  name: "relu4"
  type: "ReLU"
  bottom: "conv4"
  top: "conv4"
}
layer {
  name: "conv5"
  type: "Convolution"
  bottom: "conv4"
  top: "conv5"
  convolution_param {
    num_output: 256
    pad: 1
    kernel_size: 3
    group: 2
  }
}
layer {
  name: "relu5"
  type: "ReLU"
  bottom: "conv5"
  top: "conv5"
}
layer {
  name: "pool5"
  type: "Pooling"
  bottom: "conv5"
  top: "pool5"
  pooling_param {
    pool: MAX
    kernel_size: 3
    stride: 2
  }
}
layer {
  name: "fc6"
  type: "InnerProduct"
  bottom: "pool5"
  top: "fc6"
  inner_product_param {
    num_output: 4096
  }
}
layer {
  name: "relu6"
  type: "ReLU"
  bottom: "fc6"
  top: "fc6"
}
layer {
  name: "drop6"
  type: "Dropout"
  bottom: "fc6"
  top: "fc6"
  dropout_param {
    dropout_ratio: 0.5
  }
}
layer {
  name: "fc7"
  type: "InnerProduct"
  bottom: "fc6"
  top: "fc7"
  inner_product_param {
    num_output: 4096
  }
}
layer {
  name: "relu7"
  type: "ReLU"
  bottom: "fc7"
  top: "fc7"
}
layer {
  name: "drop7"
  type: "Dropout"
  bottom: "fc7"
  top: "fc7"
  dropout_param {
    dropout_ratio: 0.5
  }
}
layer {
  name: "fc8"
  type: "InnerProduct"
  bottom: "fc7"
  top: "fc8"
  inner_product_param {
    num_output: 1000
  }
}
layer {
  name: "prob"
  type: "Softmax"
  bottom: "fc8"
  top: "prob"
}
I0720 13:40:56.532953 24940 net.cpp:49] Initializing net from parameters: 
name: "CaffeNet"
state {
  phase: TEST
}
layer {
  name: "data"
  type: "Input"
  top: "data"
  input_param {
    shape {
      dim: 10
      dim: 3
      dim: 227
      dim: 227
    }
  }
}
layer {
  name: "conv1"
  type: "Convolution"
  bottom: "data"
  top: "conv1"
  convolution_param {
    num_output: 96
    kernel_size: 11
    stride: 4
  }
}
layer {
  name: "relu1"
  type: "ReLU"
  bottom: "conv1"
  top: "conv1"
}
layer {
  name: "pool1"
  type: "Pooling"
  bottom: "conv1"
  top: "pool1"
  pooling_param {
    pool: MAX
    kernel_size: 3
    stride: 2
  }
}
layer {
  name: "norm1"
  type: "LRN"
  bottom: "pool1"
  top: "norm1"
  lrn_param {
    local_size: 5
    alpha: 0.0001
    beta: 0.75
  }
}
layer {
  name: "conv2"
  type: "Convolution"
  bottom: "norm1"
  top: "conv2"
  convolution_param {
    num_output: 256
    pad: 2
    kernel_size: 5
    group: 2
  }
}
layer {
  name: "relu2"
  type: "ReLU"
  bottom: "conv2"
  top: "conv2"
}
layer {
  name: "pool2"
  type: "Pooling"
  bottom: "conv2"
  top: "pool2"
  pooling_param {
    pool: MAX
    kernel_size: 3
    stride: 2
  }
}
layer {
  name: "norm2"
  type: "LRN"
  bottom: "pool2"
  top: "norm2"
  lrn_param {
    local_size: 5
    alpha: 0.0001
    beta: 0.75
  }
}
layer {
  name: "conv3"
  type: "Convolution"
  bottom: "norm2"
  top: "conv3"
  convolution_param {
    num_output: 384
    pad: 1
    kernel_size: 3
  }
}
layer {
  name: "relu3"
  type: "ReLU"
  bottom: "conv3"
  top: "conv3"
}
layer {
  name: "conv4"
  type: "Convolution"
  bottom: "conv3"
  top: "conv4"
  convolution_param {
    num_output: 384
    pad: 1
    kernel_size: 3
    group: 2
  }
}
layer {
  name: "relu4"
  type: "ReLU"
  bottom: "conv4"
  top: "conv4"
}
layer {
  name: "conv5"
  type: "Convolution"
  bottom: "conv4"
  top: "conv5"
  convolution_param {
    num_output: 256
    pad: 1
    kernel_size: 3
    group: 2
  }
}
layer {
  name: "relu5"
  type: "ReLU"
  bottom: "conv5"
  top: "conv5"
}
layer {
  name: "pool5"
  type: "Pooling"
  bottom: "conv5"
  top: "pool5"
  pooling_param {
    pool: MAX
    kernel_size: 3
    stride: 2
  }
}
layer {
  name: "fc6"
  type: "InnerProduct"
  bottom: "pool5"
  top: "fc6"
  inner_product_param {
    num_output: 4096
  }
}
layer {
  name: "relu6"
  type: "ReLU"
  bottom: "fc6"
  top: "fc6"
}
layer {
  name: "drop6"
  type: "Dropout"
  bottom: "fc6"
  top: "fc6"
  dropout_param {
    dropout_ratio: 0.5
  }
}
layer {
  name: "fc7"
  type: "InnerProduct"
  bottom: "fc6"
  top: "fc7"
  inner_product_param {
    num_output: 4096
  }
}
layer {
  name: "relu7"
  type: "ReLU"
  bottom: "fc7"
  top: "fc7"
}
layer {
  name: "drop7"
  type: "Dropout"
  bottom: "fc7"
  top: "fc7"
  dropout_param {
    dropout_ratio: 0.5
  }
}
layer {
  name: "fc8"
  type: "InnerProduct"
  bottom: "fc7"
  top: "fc8"
  inner_product_param {
    num_output: 1000
  }
}
layer {
  name: "prob"
  type: "Softmax"
  bottom: "fc8"
  top: "prob"
}
I0720 13:40:56.532959 24936 layer_factory.hpp:77] Creating layer data
I0720 13:40:56.532961 24924 layer_factory.hpp:77] Creating layer data
I0720 13:40:56.532985 24911 layer_factory.hpp:77] Creating layer data
I0720 13:40:56.533009 24924 net.cpp:91] Creating Layer data
I0720 13:40:56.533011 24911 net.cpp:91] Creating Layer data
I0720 13:40:56.533015 24942 layer_factory.hpp:77] Creating layer data
I0720 13:40:56.533026 24924 net.cpp:399] data -> data
I0720 13:40:56.533027 24911 net.cpp:399] data -> data
I0720 13:40:56.533002 24953 net.cpp:49] Initializing net from parameters: 
name: "CaffeNet"
state {
  phase: TEST
}
layer {
  name: "data"
  type: "Input"
  top: "data"
  input_param {
    shape {
      dim: 10
      dim: 3
      dim: 227
      dim: 227
    }
  }
}
layer {
  name: "conv1"
  type: "Convolution"
  bottom: "data"
  top: "conv1"
  convolution_param {
    num_output: 96
    kernel_size: 11
    stride: 4
  }
}
layer {
  name: "relu1"
  type: "ReLU"
  bottom: "conv1"
  top: "conv1"
}
layer {
  name: "pool1"
  type: "Pooling"
  bottom: "conv1"
  top: "pool1"
  pooling_param {
    pool: MAX
    kernel_size: 3
    stride: 2
  }
}
layer {
  name: "norm1"
  type: "LRN"
  bottom: "pool1"
  top: "norm1"
  lrn_param {
    local_size: 5
    alpha: 0.0001
    beta: 0.75
  }
}
layer {
  name: "conv2"
  type: "Convolution"
  bottom: "norm1"
  top: "conv2"
  convolution_param {
    num_output: 256
    pad: 2
    kernel_size: 5
    group: 2
  }
}
layer {
  name: "relu2"
  type: "ReLU"
  bottom: "conv2"
  top: "conv2"
}
layer {
  name: "pool2"
  type: "Pooling"
  bottom: "conv2"
  top: "pool2"
  pooling_param {
    pool: MAX
    kernel_size: 3
    stride: 2
  }
}
layer {
  name: "norm2"
  type: "LRN"
  bottom: "pool2"
  top: "norm2"
  lrn_param {
    local_size: 5
    alpha: 0.0001
    beta: 0.75
  }
}
layer {
  name: "conv3"
  type: "Convolution"
  bottom: "norm2"
  top: "conv3"
  convolution_param {
    num_output: 384
    pad: 1
    kernel_size: 3
  }
}
layer {
  name: "relu3"
  type: "ReLU"
  bottom: "conv3"
  top: "conv3"
}
layer {
  name: "conv4"
  type: "Convolution"
  bottom: "conv3"
  top: "conv4"
  convolution_param {
    num_output: 384
    pad: 1
    kernel_size: 3
    group: 2
  }
}
layer {
  name: "relu4"
  type: "ReLU"
  bottom: "conv4"
  top: "conv4"
}
layer {
  name: "conv5"
  type: "Convolution"
  bottom: "conv4"
  top: "conv5"
  convolution_param {
    num_output: 256
    pad: 1
    kernel_size: 3
    group: 2
  }
}
layer {
  name: "relu5"
  type: "ReLU"
  bottom: "conv5"
  top: "conv5"
}
layer {
  name: "pool5"
  type: "Pooling"
  bottom: "conv5"
  top: "pool5"
  pooling_param {
    pool: MAX
    kernel_size: 3
    stride: 2
  }
}
layer {
  name: "fc6"
  type: "InnerProduct"
  bottom: "pool5"
  top: "fc6"
  inner_product_param {
    num_output: 4096
  }
}
layer {
  name: "relu6"
  type: "ReLU"
  bottom: "fc6"
  top: "fc6"
}
layer {
  name: "drop6"
  type: "Dropout"
  bottom: "fc6"
  top: "fc6"
  dropout_param {
    dropout_ratio: 0.5
  }
}
layer {
  name: "fc7"
  type: "InnerProduct"
  bottom: "fc6"
  top: "fc7"
  inner_product_param {
    num_output: 4096
  }
}
layer {
  name: "relu7"
  type: "ReLU"
  bottom: "fc7"
  top: "fc7"
}
layer {
  name: "drop7"
  type: "Dropout"
  bottom: "fc7"
  top: "fc7"
  dropout_param {
    dropout_ratio: 0.5
  }
}
layer {
  name: "fc8"
  type: "InnerProduct"
  bottom: "fc7"
  top: "fc8"
  inner_product_param {
    num_output: 1000
  }
}
layer {
  name: "prob"
  type: "Softmax"
  bottom: "fc8"
  top: "prob"
}
I0720 13:40:56.533036 24934 layer_factory.hpp:77] Creating layer data
I0720 13:40:56.533015 24919 layer_factory.hpp:77] Creating layer data
I0720 13:40:56.533028 24907 net.cpp:49] Initializing net from parameters: 
name: "CaffeNet"
state {
  phase: TEST
}
layer {
  name: "data"
  type: "Input"
  top: "data"
  input_param {
    shape {
      dim: 10
      dim: 3
      dim: 227
      dim: 227
    }
  }
}
layer {
  name: "conv1"
  type: "Convolution"
  bottom: "data"
  top: "conv1"
  convolution_param {
    num_output: 96
    kernel_size: 11
    stride: 4
  }
}
layer {
  name: "relu1"
  type: "ReLU"
  bottom: "conv1"
  top: "conv1"
}
layer {
  name: "pool1"
  type: "Pooling"
  bottom: "conv1"
  top: "pool1"
  pooling_param {
    pool: MAX
    kernel_size: 3
    stride: 2
  }
}
layer {
  name: "norm1"
  type: "LRN"
  bottom: "pool1"
  top: "norm1"
  lrn_param {
    local_size: 5
    alpha: 0.0001
    beta: 0.75
  }
}
layer {
  name: "conv2"
  type: "Convolution"
  bottom: "norm1"
  top: "conv2"
  convolution_param {
    num_output: 256
    pad: 2
    kernel_size: 5
    group: 2
  }
}
layer {
  name: "relu2"
  type: "ReLU"
  bottom: "conv2"
  top: "conv2"
}
layer {
  name: "pool2"
  type: "Pooling"
  bottom: "conv2"
  top: "pool2"
  pooling_param {
    pool: MAX
    kernel_size: 3
    stride: 2
  }
}
layer {
  name: "norm2"
  type: "LRN"
  bottom: "pool2"
  top: "norm2"
  lrn_param {
    local_size: 5
    alpha: 0.0001
    beta: 0.75
  }
}
layer {
  name: "conv3"
  type: "Convolution"
  bottom: "norm2"
  top: "conv3"
  convolution_param {
    num_output: 384
    pad: 1
    kernel_size: 3
  }
}
layer {
  name: "relu3"
  type: "ReLU"
  bottom: "conv3"
  top: "conv3"
}
layer {
  name: "conv4"
  type: "Convolution"
  bottom: "conv3"
  top: "conv4"
  convolution_param {
    num_output: 384
    pad: 1
    kernel_size: 3
    group: 2
  }
}
layer {
  name: "relu4"
  type: "ReLU"
  bottom: "conv4"
  top: "conv4"
}
layer {
  name: "conv5"
  type: "Convolution"
  bottom: "conv4"
  top: "conv5"
  convolution_param {
    num_output: 256
    pad: 1
    kernel_size: 3
    group: 2
  }
}
layer {
  name: "relu5"
  type: "ReLU"
  bottom: "conv5"
  top: "conv5"
}
layer {
  name: "pool5"
  type: "Pooling"
  bottom: "conv5"
  top: "pool5"
  pooling_param {
    pool: MAX
    kernel_size: 3
    stride: 2
  }
}
layer {
  name: "fc6"
  type: "InnerProduct"
  bottom: "pool5"
  top: "fc6"
  inner_product_param {
    num_output: 4096
  }
}
layer {
  name: "relu6"
  type: "ReLU"
  bottom: "fc6"
  top: "fc6"
}
layer {
  name: "drop6"
  type: "Dropout"
  bottom: "fc6"
  top: "fc6"
  dropout_param {
    dropout_ratio: 0.5
  }
}
layer {
  name: "fc7"
  type: "InnerProduct"
  bottom: "fc6"
  top: "fc7"
  inner_product_param {
    num_output: 4096
  }
}
layer {
  name: "relu7"
  type: "ReLU"
  bottom: "fc7"
  top: "fc7"
}
layer {
  name: "drop7"
  type: "Dropout"
  bottom: "fc7"
  top: "fc7"
  dropout_param {
    dropout_ratio: 0.5
  }
}
layer {
  name: "fc8"
  type: "InnerProduct"
  bottom: "fc7"
  top: "fc8"
  inner_product_param {
    num_output: 1000
  }
}
layer {
  name: "prob"
  type: "Softmax"
  bottom: "fc8"
  top: "prob"
}
I0720 13:40:56.533041 24942 net.cpp:91] Creating Layer data
I0720 13:40:56.533010 24936 net.cpp:91] Creating Layer data
I0720 13:40:56.533063 24919 net.cpp:91] Creating Layer data
I0720 13:40:56.533063 24942 net.cpp:399] data -> data
I0720 13:40:56.533080 24919 net.cpp:399] data -> data
I0720 13:40:56.533084 24936 net.cpp:399] data -> data
I0720 13:40:56.533058 24934 net.cpp:91] Creating Layer data
I0720 13:40:56.533097 24942 net.cpp:141] Setting up data
I0720 13:40:56.533104 24936 net.cpp:141] Setting up data
I0720 13:40:56.533097 24924 net.cpp:141] Setting up data
I0720 13:40:56.533098 24911 net.cpp:141] Setting up data
I0720 13:40:56.533121 24934 net.cpp:399] data -> data
I0720 13:40:56.533138 24942 net.cpp:148] Top shape: 10 3 227 227 (1545870)
I0720 13:40:56.533104 24919 net.cpp:141] Setting up data
I0720 13:40:56.533150 24911 net.cpp:148] Top shape: 10 3 227 227 (1545870)
I0720 13:40:56.533141 24924 net.cpp:148] Top shape: 10 3 227 227 (1545870)
I0720 13:40:56.533139 24936 net.cpp:148] Top shape: 10 3 227 227 (1545870)
I0720 13:40:56.533160 24942 net.cpp:156] Memory required for data: 6183480
I0720 13:40:56.533167 24919 net.cpp:148] Top shape: 10 3 227 227 (1545870)
I0720 13:40:56.533164 24924 net.cpp:156] Memory required for data: 6183480
I0720 13:40:56.533156 24934 net.cpp:141] Setting up data
I0720 13:40:56.533098 24915 layer_factory.hpp:77] Creating layer data
I0720 13:40:56.533181 24924 layer_factory.hpp:77] Creating layer conv1
I0720 13:40:56.533177 24919 net.cpp:156] Memory required for data: 6183480
I0720 13:40:56.533164 24911 net.cpp:156] Memory required for data: 6183480
I0720 13:40:56.533174 24936 net.cpp:156] Memory required for data: 6183480
I0720 13:40:56.533181 24942 layer_factory.hpp:77] Creating layer conv1
I0720 13:40:56.533116 24940 layer_factory.hpp:77] Creating layer data
I0720 13:40:56.533202 24911 layer_factory.hpp:77] Creating layer conv1
I0720 13:40:56.533207 24942 net.cpp:91] Creating Layer conv1
I0720 13:40:56.533200 24936 layer_factory.hpp:77] Creating layer conv1
I0720 13:40:56.533195 24934 net.cpp:148] Top shape: 10 3 227 227 (1545870)
I0720 13:40:56.533200 24915 net.cpp:91] Creating Layer data
I0720 13:40:56.533226 24934 net.cpp:156] Memory required for data: 6183480
I0720 13:40:56.533228 24911 net.cpp:91] Creating Layer conv1
I0720 13:40:56.533229 24936 net.cpp:91] Creating Layer conv1
I0720 13:40:56.533222 24942 net.cpp:425] conv1 <- data
I0720 13:40:56.533195 24919 layer_factory.hpp:77] Creating layer conv1
…
W0720 13:40:56.817113 24903 upgrade_proto.cpp:71] Note that future Caffe releases will only support input layers and not input fields.
I0720 13:40:56.817935 24903 net.cpp:49] Initializing net from parameters: 
name: "s2vt:features_to_lstm"
state {
  phase: TEST
}
layer {
  name: "input"
  type: "Input"
  top: "frames_fc7"
  top: "cont_sentence"
  top: "input_sentence"
  top: "stage_indicator"
  input_param {
    shape {
      dim: 1
      dim: 4096
    }
    shape {
      dim: 1
      dim: 1
    }
    shape {
      dim: 1
      dim: 1
    }
    shape {
      dim: 1
      dim: 1
    }
  }
}
layer {
  name: "embed_encoder"
  type: "InnerProduct"
  bottom: "frames_fc7"
  top: "embedded_in_frames"
  param {
    lr_mult: 1
    decay_mult: 1
  }
  param {
    lr_mult: 2
    decay_mult: 0
  }
  inner_product_param {
    num_output: 500
    weight_filler {
      type: "xavier"
    }
    bias_filler {
      type: "constant"
      value: 0.2
    }
  }
}
layer {
  name: "reshape_frames"
  type: "Reshape"
  bottom: "embedded_in_frames"
  top: "embedded_input_frames"
  reshape_param {
    shape {
      dim: 1
      dim: 1
      dim: 500
    }
  }
}
layer {
  name: "reshape_stage_indicator"
  type: "Reshape"
  bottom: "stage_indicator"
  top: "reshaped_stage_indicator"
  reshape_param {
    shape {
      dim: 1
      dim: 1
      dim: 1
    }
  }
}
layer {
  name: "embedding"
  type: "Embed"
  bottom: "input_sentence"
  top: "embedded_input_sentence"
  param {
    lr_mult: 1
  }
  embed_param {
    num_output: 500
    input_dim: 46168
    bias_term: false
    weight_filler {
      type: "uniform"
      min: -0.08
      max: 0.08
    }
  }
}
layer {
  name: "lstm1"
  type: "LSTM"
  bottom: "embedded_input_frames"
  bottom: "cont_sentence"
  top: "lstm1"
  recurrent_param {
    num_output: 1000
    weight_filler {
      type: "uniform"
      min: -0.08
      max: 0.08
    }
    bias_filler {
      type: "constant"
      value: 0
    }
  }
}
layer {
  name: "concat"
  type: "Concat"
  bottom: "lstm1"
  bottom: "embedded_input_sentence"
  bottom: "reshaped_stage_indicator"
  top: "lstm1_video_sequence"
  concat_param {
    concat_dim: 2
  }
}
layer {
  name: "lstm2"
  type: "LSTM"
  bottom: "lstm1_video_sequence"
  bottom: "cont_sentence"
  top: "lstm2"
  recurrent_param {
    num_output: 1000
    weight_filler {
      type: "uniform"
      min: -0.08
      max: 0.08
    }
    bias_filler {
      type: "constant"
      value: 0
    }
  }
}
layer {
  name: "predict"
  type: "InnerProduct"
  bottom: "lstm2"
  top: "predict"
  param {
    lr_mult: 1
    decay_mult: 1
  }
  param {
    lr_mult: 2
    decay_mult: 0
  }
  inner_product_param {
    num_output: 46168
    weight_filler {
      type: "uniform"
      min: -0.08
      max: 0.08
    }
    bias_filler {
      type: "constant"
      value: 0
    }
    axis: 2
  }
}
layer {
  name: "probs"
  type: "Softmax"
  bottom: "predict"
  top: "probs"
  softmax_param {
    axis: 2
  }
}
I0720 13:40:56.818132 24903 layer_factory.hpp:77] Creating layer input
I0720 13:40:56.818148 24903 net.cpp:91] Creating Layer input
I0720 13:40:56.818156 24903 net.cpp:399] input -> frames_fc7
I0720 13:40:56.818171 24903 net.cpp:399] input -> cont_sentence
I0720 13:40:56.818195 24903 net.cpp:399] input -> input_sentence
I0720 13:40:56.818207 24903 net.cpp:399] input -> stage_indicator
I0720 13:40:56.818220 24903 net.cpp:141] Setting up input
I0720 13:40:56.818228 24903 net.cpp:148] Top shape: 1 4096 (4096)
I0720 13:40:56.818234 24903 net.cpp:148] Top shape: 1 1 (1)
I0720 13:40:56.818239 24903 net.cpp:148] Top shape: 1 1 (1)
I0720 13:40:56.818244 24903 net.cpp:148] Top shape: 1 1 (1)
I0720 13:40:56.818248 24903 net.cpp:156] Memory required for data: 16396
I0720 13:40:56.818253 24903 layer_factory.hpp:77] Creating layer cont_sentence_input_1_split
I0720 13:40:56.818271 24903 net.cpp:91] Creating Layer cont_sentence_input_1_split
I0720 13:40:56.818276 24903 net.cpp:425] cont_sentence_input_1_split <- cont_sentence
I0720 13:40:56.818298 24903 net.cpp:399] cont_sentence_input_1_split -> cont_sentence_input_1_split_0
I0720 13:40:56.818307 24903 net.cpp:399] cont_sentence_input_1_split -> cont_sentence_input_1_split_1
I0720 13:40:56.818318 24903 net.cpp:141] Setting up cont_sentence_input_1_split
I0720 13:40:56.818325 24903 net.cpp:148] Top shape: 1 1 (1)
I0720 13:40:56.818331 24903 net.cpp:148] Top shape: 1 1 (1)
I0720 13:40:56.818333 24903 net.cpp:156] Memory required for data: 16404
I0720 13:40:56.818337 24903 layer_factory.hpp:77] Creating layer embed_encoder
I0720 13:40:56.818397 24903 net.cpp:91] Creating Layer embed_encoder
I0720 13:40:56.818403 24903 net.cpp:425] embed_encoder <- frames_fc7
I0720 13:40:56.818426 24903 net.cpp:399] embed_encoder -> embedded_in_frames
I0720 13:40:56.824879 24922 upgrade_proto.cpp:66] Attempting to upgrade input file specified using deprecated input fields: /tmp/cvld3565529931156552324/s2vt.words_to_preds.prototxt
I0720 13:40:56.824923 24922 upgrade_proto.cpp:69] Successfully upgraded file specified using deprecated input fields.
W0720 13:40:56.824928 24922 upgrade_proto.cpp:71] Note that future Caffe releases will only support input layers and not input fields.
I0720 13:40:56.825170 24922 net.cpp:49] Initializing net from parameters: 
name: "s2vt:features_to_lstm"
state {
  phase: TEST
}
layer {
  name: "input"
  type: "Input"
  top: "frames_fc7"
  top: "cont_sentence"
  top: "input_sentence"
  top: "stage_indicator"
  input_param {
    shape {
      dim: 1
      dim: 4096
    }
    shape {
      dim: 1
      dim: 1
    }
    shape {
      dim: 1
      dim: 1
    }
    shape {
      dim: 1
      dim: 1
    }
  }
}
layer {
  name: "embed_encoder"
  type: "InnerProduct"
  bottom: "frames_fc7"
  top: "embedded_in_frames"
  param {
    lr_mult: 1
    decay_mult: 1
  }
  param {
    lr_mult: 2
    decay_mult: 0
  }
  inner_product_param {
    num_output: 500
    weight_filler {
      type: "xavier"
    }
    bias_filler {
      type: "constant"
      value: 0.2
    }
  }
}
layer {
  name: "reshape_frames"
  type: "Reshape"
  bottom: "embedded_in_frames"
  top: "embedded_input_frames"
  reshape_param {
    shape {
      dim: 1
      dim: 1
      dim: 500
    }
  }
}
layer {
  name: "reshape_stage_indicator"
  type: "Reshape"
  bottom: "stage_indicator"
  top: "reshaped_stage_indicator"
  reshape_param {
    shape {
      dim: 1
      dim: 1
      dim: 1
    }
  }
}
layer {
  name: "embedding"
  type: "Embed"
  bottom: "input_sentence"
  top: "embedded_input_sentence"
  param {
    lr_mult: 1
  }
  embed_param {
    num_output: 500
    input_dim: 46168
    bias_term: false
    weight_filler {
      type: "uniform"
      min: -0.08
      max: 0.08
    }
  }
}
layer {
  name: "lstm1"
  type: "LSTM"
  bottom: "embedded_input_frames"
  bottom: "cont_sentence"
  top: "lstm1"
  recurrent_param {
    num_output: 1000
    weight_filler {
      type: "uniform"
      min: -0.08
      max: 0.08
    }
    bias_filler {
      type: "constant"
      value: 0
    }
  }
}
layer {
  name: "concat"
  type: "Concat"
  bottom: "lstm1"
  bottom: "embedded_input_sentence"
  bottom: "reshaped_stage_indicator"
  top: "lstm1_video_sequence"
  concat_param {
    concat_dim: 2
  }
}
layer {
  name: "lstm2"
  type: "LSTM"
  bottom: "lstm1_video_sequence"
  bottom: "cont_sentence"
  top: "lstm2"
  recurrent_param {
    num_output: 1000
    weight_filler {
      type: "uniform"
      min: -0.08
      max: 0.08
    }
    bias_filler {
      type: "constant"
      value: 0
    }
  }
}
layer {
  name: "predict"
  type: "InnerProduct"
  bottom: "lstm2"
  top: "predict"
  param {
    lr_mult: 1
    decay_mult: 1
  }
  param {
    lr_mult: 2
    decay_mult: 0
  }
  inner_product_param {
    num_output: 46168
    weight_filler {
      type: "uniform"
      min: -0.08
      max: 0.08
    }
    bias_filler {
      type: "constant"
      value: 0
    }
    axis: 2
  }
}
layer {
  name: "probs"
  type: "Softmax"
  bottom: "predict"
  top: "probs"
  softmax_param {
    axis: 2
  }
}
I0720 13:40:56.825270 24922 layer_factory.hpp:77] Creating layer input
I0720 13:40:56.825286 24922 net.cpp:91] Creating Layer input
I0720 13:40:56.825294 24922 net.cpp:399] input -> frames_fc7
I0720 13:40:56.825314 24922 net.cpp:399] input -> cont_sentence
I0720 13:40:56.825323 24922 net.cpp:399] input -> input_sentence
I0720 13:40:56.825332 24922 net.cpp:399] input -> stage_indicator
I0720 13:40:56.825348 24922 net.cpp:141] Setting up input
I0720 13:40:56.825358 24922 net.cpp:148] Top shape: 1 4096 (4096)
I0720 13:40:56.825363 24922 net.cpp:148] Top shape: 1 1 (1)
I0720 13:40:56.825369 24922 net.cpp:148] Top shape: 1 1 (1)
I0720 13:40:56.825374 24922 net.cpp:148] Top shape: 1 1 (1)
I0720 13:40:56.825378 24922 net.cpp:156] Memory required for data: 16396
I0720 13:40:56.825383 24922 layer_factory.hpp:77] Creating layer cont_sentence_input_1_split
I0720 13:40:56.825392 24922 net.cpp:91] Creating Layer cont_sentence_input_1_split
I0720 13:40:56.825397 24922 net.cpp:425] cont_sentence_input_1_split <- cont_sentence
I0720 13:40:56.825404 24922 net.cpp:399] cont_sentence_input_1_split -> cont_sentence_input_1_split_0
I0720 13:40:56.825413 24922 net.cpp:399] cont_sentence_input_1_split -> cont_sentence_input_1_split_1
I0720 13:40:56.825423 24922 net.cpp:141] Setting up cont_sentence_input_1_split
I0720 13:40:56.825429 24922 net.cpp:148] Top shape: 1 1 (1)
I0720 13:40:56.825435 24922 net.cpp:148] Top shape: 1 1 (1)
I0720 13:40:56.825438 24922 net.cpp:156] Memory required for data: 16404
I0720 13:40:56.825443 24922 layer_factory.hpp:77] Creating layer embed_encoder
I0720 13:40:56.825453 24922 net.cpp:91] Creating Layer embed_encoder
I0720 13:40:56.825459 24922 net.cpp:425] embed_encoder <- frames_fc7
I0720 13:40:56.825466 24922 net.cpp:399] embed_encoder -> embedded_in_frames
I0720 13:40:56.825826 24899 upgrade_proto.cpp:66] Attempting to upgrade input file specified using deprecated input fields: /tmp/cvld3565529931156552324/s2vt.words_to_preds.prototxt
I0720 13:40:56.825865 24899 upgrade_proto.cpp:69] Successfully upgraded file specified using deprecated input fields.
W0720 13:40:56.825871 24899 upgrade_proto.cpp:71] Note that future Caffe releases will only support input layers and not input fields.
I0720 13:40:56.826216 24899 net.cpp:49] Initializing net from parameters: 
name: "s2vt:features_to_lstm"
state {
  phase: TEST
}
layer {
  name: "input"
  type: "Input"
  top: "frames_fc7"
  top: "cont_sentence"
  top: "input_sentence"
  top: "stage_indicator"
  input_param {
    shape {
      dim: 1
      dim: 4096
    }
    shape {
      dim: 1
      dim: 1
    }
    shape {
      dim: 1
      dim: 1
    }
    shape {
      dim: 1
      dim: 1
    }
  }
}
layer {
  name: "embed_encoder"
  type: "InnerProduct"
  bottom: "frames_fc7"
  top: "embedded_in_frames"
  param {
    lr_mult: 1
    decay_mult: 1
  }
  param {
    lr_mult: 2
    decay_mult: 0
  }
  inner_product_param {
    num_output: 500
    weight_filler {
      type: "xavier"
    }
    bias_filler {
      type: "constant"
      value: 0.2
    }
  }
}
layer {
  name: "reshape_frames"
  type: "Reshape"
  bottom: "embedded_in_frames"
  top: "embedded_input_frames"
  reshape_param {
    shape {
      dim: 1
      dim: 1
      dim: 500
    }
  }
}
layer {
  name: "reshape_stage_indicator"
  type: "Reshape"
  bottom: "stage_indicator"
  top: "reshaped_stage_indicator"
  reshape_param {
    shape {
      dim: 1
      dim: 1
      dim: 1
    }
  }
}
layer {
  name: "embedding"
  type: "Embed"
  bottom: "input_sentence"
  top: "embedded_input_sentence"
  param {
    lr_mult: 1
  }
  embed_param {
    num_output: 500
    input_dim: 46168
    bias_term: false
    weight_filler {
      type: "uniform"
      min: -0.08
      max: 0.08
    }
  }
}
layer {
  name: "lstm1"
  type: "LSTM"
  bottom: "embedded_input_frames"
  bottom: "cont_sentence"
  top: "lstm1"
  recurrent_param {
    num_output: 1000
    weight_filler {
      type: "uniform"
      min: -0.08
      max: 0.08
    }
    bias_filler {
      type: "constant"
      value: 0
    }
  }
}
layer {
  name: "concat"
  type: "Concat"
  bottom: "lstm1"
  bottom: "embedded_input_sentence"
  bottom: "reshaped_stage_indicator"
  top: "lstm1_video_sequence"
  concat_param {
    concat_dim: 2
  }
}
layer {
  name: "lstm2"
  type: "LSTM"
  bottom: "lstm1_video_sequence"
  bottom: "cont_sentence"
  top: "lstm2"
  recurrent_param {
    num_output: 1000
    weight_filler {
      type: "uniform"
      min: -0.08
      max: 0.08
    }
    bias_filler {
      type: "constant"
      value: 0
    }
  }
}
layer {
  name: "predict"
  type: "InnerProduct"
  bottom: "lstm2"
  top: "predict"
  param {
    lr_mult: 1
    decay_mult: 1
  }
  param {
    lr_mult: 2
    decay_mult: 0
  }
  inner_product_param {
    num_output: 46168
    weight_filler {
      type: "uniform"
      min: -0.08
      max: 0.08
    }
    bias_filler {
      type: "constant"
      value: 0
    }
    axis: 2
  }
}
layer {
  name: "probs"
  type: "Softmax"
  bottom: "predict"
  top: "probs"
  softmax_param {
    axis: 2
  }
}
I0720 13:40:56.826347 24899 layer_factory.hpp:77] Creating layer input
I0720 13:40:56.826365 24899 net.cpp:91] Creating Layer input
I0720 13:40:56.826376 24899 net.cpp:399] input -> frames_fc7
I0720 13:40:56.826397 24899 net.cpp:399] input -> cont_sentence
I0720 13:40:56.826412 24899 net.cpp:399] input -> input_sentence
I0720 13:40:56.826472 24899 net.cpp:399] input -> stage_indicator
I0720 13:40:56.826503 24899 net.cpp:141] Setting up input
I0720 13:40:56.826513 24899 net.cpp:148] Top shape: 1 4096 (4096)
I0720 13:40:56.826519 24899 net.cpp:148] Top shape: 1 1 (1)
I0720 13:40:56.826524 24899 net.cpp:148] Top shape: 1 1 (1)
I0720 13:40:56.826529 24899 net.cpp:148] Top shape: 1 1 (1)
I0720 13:40:56.826532 24899 net.cpp:156] Memory required for data: 16396
I0720 13:40:56.826537 24899 layer_factory.hpp:77] Creating layer cont_sentence_input_1_split
I0720 13:40:56.826548 24899 net.cpp:91] Creating Layer cont_sentence_input_1_split
I0720 13:40:56.826553 24899 net.cpp:425] cont_sentence_input_1_split <- cont_sentence
I0720 13:40:56.826561 24899 net.cpp:399] cont_sentence_input_1_split -> cont_sentence_input_1_split_0
I0720 13:40:56.826570 24899 net.cpp:399] cont_sentence_input_1_split -> cont_sentence_input_1_split_1
I0720 13:40:56.826581 24899 net.cpp:141] Setting up cont_sentence_input_1_split
I0720 13:40:56.826586 24899 net.cpp:148] Top shape: 1 1 (1)
I0720 13:40:56.826591 24899 net.cpp:148] Top shape: 1 1 (1)
I0720 13:40:56.826596 24899 net.cpp:156] Memory required for data: 16404
I0720 13:40:56.826599 24899 layer_factory.hpp:77] Creating layer embed_encoder
I0720 13:40:56.826618 24899 net.cpp:91] Creating Layer embed_encoder
I0720 13:40:56.826623 24899 net.cpp:425] embed_encoder <- frames_fc7
I0720 13:40:56.826632 24899 net.cpp:399] embed_encoder -> embedded_in_frames
I0720 13:40:56.829802 24917 upgrade_proto.cpp:66] Attempting to upgrade input file specified using deprecated input fields: /tmp/cvld3565529931156552324/s2vt.words_to_preds.prototxt
I0720 13:40:56.829818 24917 upgrade_proto.cpp:69] Successfully upgraded file specified using deprecated input fields.
W0720 13:40:56.829823 24917 upgrade_proto.cpp:71] Note that future Caffe releases will only support input layers and not input fields.
I0720 13:40:56.830008 24917 net.cpp:49] Initializing net from parameters: 
name: "s2vt:features_to_lstm"
state {
  phase: TEST
}
layer {
  name: "input"
  type: "Input"
  top: "frames_fc7"
  top: "cont_sentence"
  top: "input_sentence"
  top: "stage_indicator"
  input_param {
    shape {
      dim: 1
      dim: 4096
    }
    shape {
      dim: 1
      dim: 1
    }
    shape {
      dim: 1
      dim: 1
    }
    shape {
      dim: 1
      dim: 1
    }
  }
}
layer {
  name: "embed_encoder"
  type: "InnerProduct"
  bottom: "frames_fc7"
  top: "embedded_in_frames"
  param {
    lr_mult: 1
    decay_mult: 1
  }
  param {
    lr_mult: 2
    decay_mult: 0
  }
  inner_product_param {
    num_output: 500
    weight_filler {
      type: "xavier"
    }
    bias_filler {
      type: "constant"
      value: 0.2
    }
  }
}
layer {
  name: "reshape_frames"
  type: "Reshape"
  bottom: "embedded_in_frames"
  top: "embedded_input_frames"
  reshape_param {
    shape {
      dim: 1
      dim: 1
      dim: 500
    }
  }
}
layer {
  name: "reshape_stage_indicator"
  type: "Reshape"
  bottom: "stage_indicator"
  top: "reshaped_stage_indicator"
  reshape_param {
    shape {
      dim: 1
      dim: 1
      dim: 1
    }
  }
}
layer {
  name: "embedding"
  type: "Embed"
  bottom: "input_sentence"
  top: "embedded_input_sentence"
  param {
    lr_mult: 1
  }
  embed_param {
    num_output: 500
    input_dim: 46168
    bias_term: false
    weight_filler {
      type: "uniform"
      min: -0.08
      max: 0.08
    }
  }
}
layer {
  name: "lstm1"
  type: "LSTM"
  bottom: "embedded_input_frames"
  bottom: "cont_sentence"
  top: "lstm1"
  recurrent_param {
    num_output: 1000
    weight_filler {
      type: "uniform"
      min: -0.08
      max: 0.08
    }
    bias_filler {
      type: "constant"
      value: 0
    }
  }
}
layer {
  name: "concat"
  type: "Concat"
  bottom: "lstm1"
  bottom: "embedded_input_sentence"
  bottom: "reshaped_stage_indicator"
  top: "lstm1_video_sequence"
  concat_param {
    concat_dim: 2
  }
}
layer {
  name: "lstm2"
  type: "LSTM"
  bottom: "lstm1_video_sequence"
  bottom: "cont_sentence"
  top: "lstm2"
  recurrent_param {
    num_output: 1000
    weight_filler {
      type: "uniform"
      min: -0.08
      max: 0.08
    }
    bias_filler {
      type: "constant"
      value: 0
    }
  }
}
layer {
  name: "predict"
  type: "InnerProduct"
  bottom: "lstm2"
  top: "predict"
  param {
    lr_mult: 1
    decay_mult: 1
  }
  param {
    lr_mult: 2
    decay_mult: 0
  }
  inner_product_param {
    num_output: 46168
    weight_filler {
      type: "uniform"
      min: -0.08
      max: 0.08
    }
    bias_filler {
      type: "constant"
      value: 0
    }
    axis: 2
  }
}
layer {
  name: "probs"
  type: "Softmax"
  bottom: "predict"
  top: "probs"
  softmax_param {
    axis: 2
  }
}
I0720 13:40:56.830083 24917 layer_factory.hpp:77] Creating layer input
I0720 13:40:56.830093 24917 net.cpp:91] Creating Layer input
I0720 13:40:56.830101 24917 net.cpp:399] input -> frames_fc7
I0720 13:40:56.830112 24917 net.cpp:399] input -> cont_sentence
I0720 13:40:56.830122 24917 net.cpp:399] input -> input_sentence
I0720 13:40:56.830138 24917 net.cpp:399] input -> stage_indicator
I0720 13:40:56.830155 24917 net.cpp:141] Setting up input
I0720 13:40:56.830163 24917 net.cpp:148] Top shape: 1 4096 (4096)
I0720 13:40:56.830168 24917 net.cpp:148] Top shape: 1 1 (1)
I0720 13:40:56.830173 24917 net.cpp:148] Top shape: 1 1 (1)
I0720 13:40:56.830178 24917 net.cpp:148] Top shape: 1 1 (1)
I0720 13:40:56.830183 24917 net.cpp:156] Memory required for data: 16396
I0720 13:40:56.830188 24917 layer_factory.hpp:77] Creating layer cont_sentence_input_1_split
I0720 13:40:56.830195 24917 net.cpp:91] Creating Layer cont_sentence_input_1_split
I0720 13:40:56.830199 24917 net.cpp:425] cont_sentence_input_1_split <- cont_sentence
I0720 13:40:56.830206 24917 net.cpp:399] cont_sentence_input_1_split -> cont_sentence_input_1_split_0
I0720 13:40:56.830215 24917 net.cpp:399] cont_sentence_input_1_split -> cont_sentence_input_1_split_1
I0720 13:40:56.830224 24917 net.cpp:141] Setting up cont_sentence_input_1_split
I0720 13:40:56.830237 24917 net.cpp:148] Top shape: 1 1 (1)
I0720 13:40:56.830242 24917 net.cpp:148] Top shape: 1 1 (1)
I0720 13:40:56.830246 24917 net.cpp:156] Memory required for data: 16404
I0720 13:40:56.830250 24917 layer_factory.hpp:77] Creating layer embed_encoder
I0720 13:40:56.830260 24917 net.cpp:91] Creating Layer embed_encoder
I0720 13:40:56.830265 24917 net.cpp:425] embed_encoder <- frames_fc7
I0720 13:40:56.830271 24917 net.cpp:399] embed_encoder -> embedded_in_frames
I0720 13:40:56.830551 24926 upgrade_proto.cpp:66] Attempting to upgrade input file specified using deprecated input fields: /tmp/cvld3565529931156552324/s2vt.words_to_preds.prototxt
…
W0720 13:40:56.830765 24948 upgrade_proto.cpp:71] Note that future Caffe releases will only support input layers and not input fields.
I0720 13:40:56.830857 24926 net.cpp:49] Initializing net from parameters: 
name: "s2vt:features_to_lstm"
state {
  phase: TEST
}
layer {
  name: "input"
  type: "Input"
  top: "frames_fc7"
  top: "cont_sentence"
  top: "input_sentence"
  top: "stage_indicator"
  input_param {
    shape {
      dim: 1
      dim: 4096
    }
    shape {
      dim: 1
      dim: 1
    }
    shape {
      dim: 1
      dim: 1
    }
    shape {
      dim: 1
      dim: 1
    }
  }
}
layer {
  name: "embed_encoder"
  type: "InnerProduct"
  bottom: "frames_fc7"
  top: "embedded_in_frames"
  param {
    lr_mult: 1
    decay_mult: 1
  }
  param {
    lr_mult: 2
    decay_mult: 0
  }
  inner_product_param {
    num_output: 500
    weight_filler {
      type: "xavier"
    }
    bias_filler {
      type: "constant"
      value: 0.2
    }
  }
}
layer {
  name: "reshape_frames"
  type: "Reshape"
  bottom: "embedded_in_frames"
  top: "embedded_input_frames"
  reshape_param {
    shape {
      dim: 1
      dim: 1
      dim: 500
    }
  }
}
layer {
  name: "reshape_stage_indicator"
  type: "Reshape"
  bottom: "stage_indicator"
  top: "reshaped_stage_indicator"
  reshape_param {
    shape {
      dim: 1
      dim: 1
      dim: 1
    }
  }
}
layer {
  name: "embedding"
  type: "Embed"
  bottom: "input_sentence"
  top: "embedded_input_sentence"
  param {
    lr_mult: 1
  }
  embed_param {
    num_output: 500
    input_dim: 46168
    bias_term: false
    weight_filler {
      type: "uniform"
      min: -0.08
      max: 0.08
    }
  }
}
layer {
  name: "lstm1"
  type: "LSTM"
  bottom: "embedded_input_frames"
  bottom: "cont_sentence"
  top: "lstm1"
  recurrent_param {
    num_output: 1000
    weight_filler {
      type: "uniform"
      min: -0.08
      max: 0.08
    }
    bias_filler {
      type: "constant"
      value: 0
    }
  }
}
layer {
  name: "concat"
  type: "Concat"
  bottom: "lstm1"
  bottom: "embedded_input_sentence"
  bottom: "reshaped_stage_indicator"
  top: "lstm1_video_sequence"
  concat_param {
    concat_dim: 2
  }
}
layer {
  name: "lstm2"
  type: "LSTM"
  bottom: "lstm1_video_sequence"
  bottom: "cont_sentence"
  top: "lstm2"
  recurrent_param {
    num_output: 1000
    weight_filler {
      type: "uniform"
      min: -0.08
      max: 0.08
    }
    bias_filler {
      type: "constant"
      value: 0
    }
  }
}
layer {
  name: "predict"
  type: "InnerProduct"
  bottom: "lstm2"
  top: "predict"
  param {
    lr_mult: 1
    decay_mult: 1
  }
  param {
    lr_mult: 2
    decay_mult: 0
  }
  inner_product_param {
    num_output: 46168
    weight_filler {
      type: "uniform"
      min: -0.08
      max: 0.08
    }
    bias_filler {
      type: "constant"
      value: 0
    }
    axis: 2
  }
}
layer {
  name: "probs"
  type: "Softmax"
  bottom: "predict"
  top: "probs"
  softmax_param {
    axis: 2
  }
}
I0720 13:40:56.830863 24905 upgrade_proto.cpp:66] Attempting to upgrade input file specified using deprecated input fields: /tmp/cvld3565529931156552324/s2vt.words_to_preds.prototxt
I0720 13:40:56.830886 24905 upgrade_proto.cpp:69] Successfully upgraded file specified using deprecated input fields.
W0720 13:40:56.830894 24905 upgrade_proto.cpp:71] Note that future Caffe releases will only support input layers and not input fields.
I0720 13:40:56.830942 24926 layer_factory.hpp:77] Creating layer input
I0720 13:40:56.830953 24926 net.cpp:91] Creating Layer input
I0720 13:40:56.830960 24926 net.cpp:399] input -> frames_fc7
I0720 13:40:56.830972 24926 net.cpp:399] input -> cont_sentence
I0720 13:40:56.830982 24926 net.cpp:399] input -> input_sentence
I0720 13:40:56.830993 24926 net.cpp:399] input -> stage_indicator
I0720 13:40:56.831004 24926 net.cpp:141] Setting up input
I0720 13:40:56.831012 24926 net.cpp:148] Top shape: 1 4096 (4096)
I0720 13:40:56.831017 24926 net.cpp:148] Top shape: 1 1 (1)
I0720 13:40:56.831022 24926 net.cpp:148] Top shape: 1 1 (1)
I0720 13:40:56.831027 24926 net.cpp:148] Top shape: 1 1 (1)
I0720 13:40:56.831032 24926 net.cpp:156] Memory required for data: 16396
I0720 13:40:56.831035 24926 layer_factory.hpp:77] Creating layer cont_sentence_input_1_split
I0720 13:40:56.831051 24926 net.cpp:91] Creating Layer cont_sentence_input_1_split
I0720 13:40:56.831056 24926 net.cpp:425] cont_sentence_input_1_split <- cont_sentence
I0720 13:40:56.831053 24944 net.cpp:49] Initializing net from parameters: 
name: "s2vt:features_to_lstm"
state {
  phase: TEST
}
layer {
  name: "input"
  type: "Input"
  top: "frames_fc7"
  top: "cont_sentence"
  top: "input_sentence"
  top: "stage_indicator"
  input_param {
    shape {
      dim: 1
      dim: 4096
    }
    shape {
      dim: 1
      dim: 1
    }
    shape {
      dim: 1
      dim: 1
    }
    shape {
      dim: 1
      dim: 1
    }
  }
}
layer {
  name: "embed_encoder"
  type: "InnerProduct"
  bottom: "frames_fc7"
  top: "embedded_in_frames"
  param {
    lr_mult: 1
    decay_mult: 1
  }
  param {
    lr_mult: 2
    decay_mult: 0
  }
  inner_product_param {
    num_output: 500
    weight_filler {
      type: "xavier"
    }
    bias_filler {
      type: "constant"
      value: 0.2
    }
  }
}
layer {
  name: "reshape_frames"
  type: "Reshape"
  bottom: "embedded_in_frames"
  top: "embedded_input_frames"
  reshape_param {
    shape {
      dim: 1
      dim: 1
      dim: 500
    }
  }
}
layer {
  name: "reshape_stage_indicator"
  type: "Reshape"
  bottom: "stage_indicator"
  top: "reshaped_stage_indicator"
  reshape_param {
    shape {
      dim: 1
      dim: 1
      dim: 1
    }
  }
}
layer {
  name: "embedding"
  type: "Embed"
  bottom: "input_sentence"
  top: "embedded_input_sentence"
  param {
    lr_mult: 1
  }
  embed_param {
    num_output: 500
    input_dim: 46168
    bias_term: false
    weight_filler {
      type: "uniform"
      min: -0.08
      max: 0.08
    }
  }
}
layer {
  name: "lstm1"
  type: "LSTM"
  bottom: "embedded_input_frames"
  bottom: "cont_sentence"
  top: "lstm1"
  recurrent_param {
    num_output: 1000
    weight_filler {
      type: "uniform"
      min: -0.08
      max: 0.08
    }
    bias_filler {
      type: "constant"
      value: 0
    }
  }
}
layer {
  name: "concat"
  type: "Concat"
  bottom: "lstm1"
  bottom: "embedded_input_sentence"
  bottom: "reshaped_stage_indicator"
  top: "lstm1_video_sequence"
  concat_param {
    concat_dim: 2
  }
}
layer {
  name: "lstm2"
  type: "LSTM"
  bottom: "lstm1_video_sequence"
  bottom: "cont_sentence"
  top: "lstm2"
  recurrent_param {
    num_output: 1000
    weight_filler {
      type: "uniform"
      min: -0.08
      max: 0.08
    }
    bias_filler {
      type: "constant"
      value: 0
    }
  }
}
layer {
  name: "predict"
  type: "InnerProduct"
  bottom: "lstm2"
  top: "predict"
  param {
    lr_mult: 1
    decay_mult: 1
  }
  param {
    lr_mult: 2
    decay_mult: 0
  }
  inner_product_param {
    num_output: 46168
    weight_filler {
      type: "uniform"
      min: -0.08
      max: 0.08
    }
    bias_filler {
      type: "constant"
      value: 0
    }
    axis: 2
  }
}
layer {
  name: "probs"
  type: "Softmax"
  bottom: "predict"
  top: "probs"
  softmax_param {
    axis: 2
  }
}
I0720 13:40:56.831063 24926 net.cpp:399] cont_sentence_input_1_split -> cont_sentence_input_1_split_0
I0720 13:40:56.831063 24948 net.cpp:49] Initializing net from parameters: 
name: "s2vt:features_to_lstm"
state {
  phase: TEST
}
layer {
  name: "input"
  type: "Input"
  top: "frames_fc7"
  top: "cont_sentence"
  top: "input_sentence"
  top: "stage_indicator"
  input_param {
    shape {
      dim: 1
      dim: 4096
    }
    shape {
      dim: 1
      dim: 1
    }
    shape {
      dim: 1
      dim: 1
    }
    shape {
      dim: 1
      dim: 1
    }
  }
}
layer {
  name: "embed_encoder"
  type: "InnerProduct"
  bottom: "frames_fc7"
  top: "embedded_in_frames"
  param {
    lr_mult: 1
    decay_mult: 1
  }
  param {
    lr_mult: 2
    decay_mult: 0
  }
  inner_product_param {
    num_output: 500
    weight_filler {
      type: "xavier"
    }
    bias_filler {
      type: "constant"
      value: 0.2
    }
  }
}
layer {
  name: "reshape_frames"
  type: "Reshape"
  bottom: "embedded_in_frames"
  top: "embedded_input_frames"
  reshape_param {
    shape {
      dim: 1
      dim: 1
      dim: 500
    }
  }
}
layer {
  name: "reshape_stage_indicator"
  type: "Reshape"
  bottom: "stage_indicator"
  top: "reshaped_stage_indicator"
  reshape_param {
    shape {
      dim: 1
      dim: 1
      dim: 1
    }
  }
}
layer {
  name: "embedding"
  type: "Embed"
  bottom: "input_sentence"
  top: "embedded_input_sentence"
  param {
    lr_mult: 1
  }
  embed_param {
    num_output: 500
    input_dim: 46168
    bias_term: false
    weight_filler {
      type: "uniform"
      min: -0.08
      max: 0.08
    }
  }
}
layer {
  name: "lstm1"
  type: "LSTM"
  bottom: "embedded_input_frames"
  bottom: "cont_sentence"
  top: "lstm1"
  recurrent_param {
    num_output: 1000
    weight_filler {
      type: "uniform"
      min: -0.08
      max: 0.08
    }
    bias_filler {
      type: "constant"
      value: 0
    }
  }
}
layer {
  name: "concat"
  type: "Concat"
  bottom: "lstm1"
  bottom: "embedded_input_sentence"
  bottom: "reshaped_stage_indicator"
  top: "lstm1_video_sequence"
  concat_param {
    concat_dim: 2
  }
}
layer {
  name: "lstm2"
  type: "LSTM"
  bottom: "lstm1_video_sequence"
  bottom: "cont_sentence"
  top: "lstm2"
  recurrent_param {
    num_output: 1000
    weight_filler {
      type: "uniform"
      min: -0.08
      max: 0.08
    }
    bias_filler {
      type: "constant"
      value: 0
    }
  }
}
layer {
  name: "predict"
  type: "InnerProduct"
  bottom: "lstm2"
  top: "predict"
  param {
    lr_mult: 1
    decay_mult: 1
  }
  param {
    lr_mult: 2
    decay_mult: 0
  }
  inner_product_param {
    num_output: 46168
    weight_filler {
      type: "uniform"
      min: -0.08
      max: 0.08
    }
    bias_filler {
      type: "constant"
      value: 0
    }
    axis: 2
  }
}
layer {
  name: "probs"
  type: "Softmax"
  bottom: "predict"
  top: "probs"
  softmax_param {
    axis: 2
  }
}
I0720 13:40:56.831071 24926 net.cpp:399] cont_sentence_input_1_split -> cont_sentence_input_1_split_1
I0720 13:40:56.831081 24926 net.cpp:141] Setting up cont_sentence_input_1_split
I0720 13:40:56.831089 24926 net.cpp:148] Top shape: 1 1 (1)
I0720 13:40:56.831094 24926 net.cpp:148] Top shape: 1 1 (1)
I0720 13:40:56.831097 24926 net.cpp:156] Memory required for data: 16404
I0720 13:40:56.831101 24926 layer_factory.hpp:77] Creating layer embed_encoder
I0720 13:40:56.831110 24926 net.cpp:91] Creating Layer embed_encoder
I0720 13:40:56.831115 24926 net.cpp:425] embed_encoder <- frames_fc7
I0720 13:40:56.831122 24926 net.cpp:399] embed_encoder -> embedded_in_frames
I0720 13:40:56.831128 24909 net.cpp:49] Initializing net from parameters: 
name: "s2vt:features_to_lstm"
state {
  phase: TEST
}
layer {
  name: "input"
  type: "Input"
  top: "frames_fc7"
  top: "cont_sentence"
  top: "input_sentence"
  top: "stage_indicator"
  input_param {
    shape {
      dim: 1
      dim: 4096
    }
    shape {
      dim: 1
      dim: 1
    }
    shape {
      dim: 1
      dim: 1
    }
    shape {
      dim: 1
      dim: 1
    }
  }
}
layer {
  name: "embed_encoder"
  type: "InnerProduct"
  bottom: "frames_fc7"
  top: "embedded_in_frames"
  param {
    lr_mult: 1
    decay_mult: 1
  }
  param {
    lr_mult: 2
    decay_mult: 0
  }
  inner_product_param {
    num_output: 500
    weight_filler {
      type: "xavier"
    }
    bias_filler {
      type: "constant"
      value: 0.2
    }
  }
}
layer {
  name: "reshape_frames"
  type: "Reshape"
  bottom: "embedded_in_frames"
  top: "embedded_input_frames"
  reshape_param {
    shape {
      dim: 1
      dim: 1
      dim: 500
    }
  }
}
layer {
  name: "reshape_stage_indicator"
  type: "Reshape"
  bottom: "stage_indicator"
  top: "reshaped_stage_indicator"
  reshape_param {
    shape {
      dim: 1
      dim: 1
      dim: 1
    }
  }
}
layer {
  name: "embedding"
  type: "Embed"
  bottom: "input_sentence"
  top: "embedded_input_sentence"
  param {
    lr_mult: 1
  }
  embed_param {
    num_output: 500
    input_dim: 46168
    bias_term: false
    weight_filler {
      type: "uniform"
      min: -0.08
      max: 0.08
    }
  }
}
layer {
  name: "lstm1"
  type: "LSTM"
  bottom: "embedded_input_frames"
  bottom: "cont_sentence"
  top: "lstm1"
  recurrent_param {
    num_output: 1000
    weight_filler {
      type: "uniform"
      min: -0.08
      max: 0.08
    }
    bias_filler {
      type: "constant"
      value: 0
    }
  }
}
layer {
  name: "concat"
  type: "Concat"
  bottom: "lstm1"
  bottom: "embedded_input_sentence"
  bottom: "reshaped_stage_indicator"
  top: "lstm1_video_sequence"
  concat_param {
    concat_dim: 2
  }
}
layer {
  name: "lstm2"
  type: "LSTM"
  bottom: "lstm1_video_sequence"
  bottom: "cont_sentence"
  top: "lstm2"
  recurrent_param {
    num_output: 1000
    weight_filler {
      type: "uniform"
      min: -0.08
      max: 0.08
    }
    bias_filler {
      type: "constant"
      value: 0
    }
  }
}
layer {
  name: "predict"
  type: "InnerProduct"
  bottom: "lstm2"
  top: "predict"
  param {
    lr_mult: 1
    decay_mult: 1
  }
  param {
    lr_mult: 2
    decay_mult: 0
  }
  inner_product_param {
    num_output: 46168
    weight_filler {
      type: "uniform"
      min: -0.08
      max: 0.08
    }
    bias_filler {
      type: "constant"
      value: 0
    }
    axis: 2
  }
}
layer {
  name: "probs"
  type: "Softmax"
  bottom: "predict"
  top: "probs"
  softmax_param {
    axis: 2
  }
}
I0720 13:40:56.831421 24944 layer_factory.hpp:77] Creating layer input
I0720 13:40:56.831424 24905 net.cpp:49] Initializing net from parameters: 
name: "s2vt:features_to_lstm"
state {
  phase: TEST
}
layer {
  name: "input"
  type: "Input"
  top: "frames_fc7"
  top: "cont_sentence"
  top: "input_sentence"
  top: "stage_indicator"
  input_param {
    shape {
      dim: 1
      dim: 4096
    }
    shape {
      dim: 1
      dim: 1
    }
    shape {
      dim: 1
      dim: 1
    }
    shape {
      dim: 1
      dim: 1
    }
  }
}
layer {
  name: "embed_encoder"
  type: "InnerProduct"
  bottom: "frames_fc7"
  top: "embedded_in_frames"
  param {
    lr_mult: 1
    decay_mult: 1
  }
  param {
    lr_mult: 2
    decay_mult: 0
  }
  inner_product_param {
    num_output: 500
    weight_filler {
      type: "xavier"
    }
    bias_filler {
      type: "constant"
      value: 0.2
    }
  }
}
layer {
  name: "reshape_frames"
  type: "Reshape"
  bottom: "embedded_in_frames"
  top: "embedded_input_frames"
  reshape_param {
    shape {
      dim: 1
      dim: 1
      dim: 500
    }
  }
}
layer {
  name: "reshape_stage_indicator"
  type: "Reshape"
  bottom: "stage_indicator"
  top: "reshaped_stage_indicator"
  reshape_param {
    shape {
      dim: 1
      dim: 1
      dim: 1
    }
  }
}
layer {
  name: "embedding"
  type: "Embed"
  bottom: "input_sentence"
  top: "embedded_input_sentence"
  param {
    lr_mult: 1
  }
  embed_param {
    num_output: 500
    input_dim: 46168
    bias_term: false
    weight_filler {
      type: "uniform"
      min: -0.08
      max: 0.08
    }
  }
}
layer {
  name: "lstm1"
  type: "LSTM"
  bottom: "embedded_input_frames"
  bottom: "cont_sentence"
  top: "lstm1"
  recurrent_param {
    num_output: 1000
    weight_filler {
      type: "uniform"
      min: -0.08
      max: 0.08
    }
    bias_filler {
      type: "constant"
      value: 0
    }
  }
}
layer {
  name: "concat"
  type: "Concat"
  bottom: "lstm1"
  bottom: "embedded_input_sentence"
  bottom: "reshaped_stage_indicator"
  top: "lstm1_video_sequence"
  concat_param {
    concat_dim: 2
  }
}
layer {
  name: "lstm2"
  type: "LSTM"
  bottom: "lstm1_video_sequence"
  bottom: "cont_sentence"
  top: "lstm2"
  recurrent_param {
    num_output: 1000
    weight_filler {
      type: "uniform"
      min: -0.08
      max: 0.08
    }
    bias_filler {
      type: "constant"
      value: 0
    }
  }
}
layer {
  name: "predict"
  type: "InnerProduct"
  bottom: "lstm2"
  top: "predict"
  param {
    lr_mult: 1
    decay_mult: 1
  }
  param {
    lr_mult: 2
    decay_mult: 0
  }
  inner_product_param {
    num_output: 46168
    weight_filler {
      type: "uniform"
      min: -0.08
      max: 0.08
    }
    bias_filler {
      type: "constant"
      value: 0
    }
    axis: 2
  }
}
layer {
  name: "probs"
  type: "Softmax"
  bottom: "predict"
  top: "probs"
  softmax_param {
    axis: 2
  }
}
I0720 13:40:56.831423 24948 layer_factory.hpp:77] Creating layer input
I0720 13:40:56.831447 24944 net.cpp:91] Creating Layer input
I0720 13:40:56.831459 24944 net.cpp:399] input -> frames_fc7
I0720 13:40:56.831460 24948 net.cpp:91] Creating Layer input
I0720 13:40:56.831472 24944 net.cpp:399] input -> cont_sentence
I0720 13:40:56.831472 24948 net.cpp:399] input -> frames_fc7
I0720 13:40:56.831483 24944 net.cpp:399] input -> input_sentence
I0720 13:40:56.831490 24948 net.cpp:399] input -> cont_sentence
I0720 13:40:56.831506 24948 net.cpp:399] input -> input_sentence
I0720 13:40:56.831521 24948 net.cpp:399] input -> stage_indicator
I0720 13:40:56.831529 24909 layer_factory.hpp:77] Creating layer input
I0720 13:40:56.831537 24948 net.cpp:141] Setting up input
I0720 13:40:56.831548 24948 net.cpp:148] Top shape: 1 4096 (4096)
I0720 13:40:56.831553 24909 net.cpp:91] Creating Layer input
I0720 13:40:56.831557 24948 net.cpp:148] Top shape: 1 1 (1)
I0720 13:40:56.831575 24909 net.cpp:399] input -> frames_fc7
I0720 13:40:56.831575 24948 net.cpp:148] Top shape: 1 1 (1)
I0720 13:40:56.831593 24948 net.cpp:148] Top shape: 1 1 (1)
I0720 13:40:56.831598 24948 net.cpp:156] Memory required for data: 16396
I0720 13:40:56.831601 24909 net.cpp:399] input -> cont_sentence
I0720 13:40:56.831605 24948 layer_factory.hpp:77] Creating layer cont_sentence_input_1_split
I0720 13:40:56.831610 24944 net.cpp:399] input -> stage_indicator
I0720 13:40:56.831637 24948 net.cpp:91] Creating Layer cont_sentence_input_1_split
I0720 13:40:56.831639 24909 net.cpp:399] input -> input_sentence
I0720 13:40:56.831647 24948 net.cpp:425] cont_sentence_input_1_split <- cont_sentence
I0720 13:40:56.831650 24944 net.cpp:141] Setting up input
I0720 13:40:56.831658 24948 net.cpp:399] cont_sentence_input_1_split -> cont_sentence_input_1_split_0
I0720 13:40:56.831662 24909 net.cpp:399] input -> stage_indicator
I0720 13:40:56.831660 24944 net.cpp:148] Top shape: 1 4096 (4096)
I0720 13:40:56.831683 24938 upgrade_proto.cpp:66] Attempting to upgrade input file specified using deprecated input fields: /tmp/cvld3565529931156552324/s2vt.words_to_preds.prototxt
I0720 13:40:56.831687 24909 net.cpp:141] Setting up input
I0720 13:40:56.831688 24944 net.cpp:148] Top shape: 1 1 (1)
I0720 13:40:56.831701 24938 upgrade_proto.cpp:69] Successfully upgraded file specified using deprecated input fields.
I0720 13:40:56.831701 24905 layer_factory.hpp:77] Creating layer input
I0720 13:40:56.831708 24909 net.cpp:148] Top shape: 1 4096 (4096)
W0720 13:40:56.831709 24938 upgrade_proto.cpp:71] Note that future Caffe releases will only support input layers and not input fields.
I0720 13:40:56.831703 24948 net.cpp:399] cont_sentence_input_1_split -> cont_sentence_input_1_split_1
I0720 13:40:56.831712 24944 net.cpp:148] Top shape: 1 1 (1)
I0720 13:40:56.831722 24909 net.cpp:148] Top shape: 1 1 (1)
I0720 13:40:56.831727 24905 net.cpp:91] Creating Layer input
I0720 13:40:56.831732 24944 net.cpp:148] Top shape: 1 1 (1)
I0720 13:40:56.831733 24948 net.cpp:141] Setting up cont_sentence_input_1_split
I0720 13:40:56.831735 24909 net.cpp:148] Top shape: 1 1 (1)
I0720 13:40:56.831740 24944 net.cpp:156] Memory required for data: 16396
I0720 13:40:56.831751 24948 net.cpp:148] Top shape: 1 1 (1)
I0720 13:40:56.831740 24905 net.cpp:399] input -> frames_fc7
I0720 13:40:56.831761 24944 layer_factory.hpp:77] Creating layer cont_sentence_input_1_split
I0720 13:40:56.831765 24909 net.cpp:148] Top shape: 1 1 (1)
I0720 13:40:56.831763 24948 net.cpp:148] Top shape: 1 1 (1)
I0720 13:40:56.831778 24905 net.cpp:399] input -> cont_sentence
I0720 13:40:56.831784 24948 net.cpp:156] Memory required for data: 16404
I0720 13:40:56.831780 24944 net.cpp:91] Creating Layer cont_sentence_input_1_split
I0720 13:40:56.831779 24909 net.cpp:156] Memory required for data: 16396
I0720 13:40:56.831795 24948 layer_factory.hpp:77] Creating layer embed_encoder
I0720 13:40:56.831799 24944 net.cpp:425] cont_sentence_input_1_split <- cont_sentence
…
I0720 13:40:56.831832 24944 net.cpp:399] cont_sentence_input_1_split -> cont_sentence_input_1_split_1
I0720 13:40:56.831832 24948 net.cpp:425] embed_encoder <- frames_fc7
I0720 13:40:56.831838 24909 net.cpp:425] cont_sentence_input_1_split <- cont_sentence
I0720 13:40:56.831835 24905 net.cpp:141] Setting up input
I0720 13:40:56.831854 24948 net.cpp:399] embed_encoder -> embedded_in_frames
I0720 13:40:56.831857 24944 net.cpp:141] Setting up cont_sentence_input_1_split
I0720 13:40:56.831861 24909 net.cpp:399] cont_sentence_input_1_split -> cont_sentence_input_1_split_0
I0720 13:40:56.831871 24944 net.cpp:148] Top shape: 1 1 (1)
I0720 13:40:56.831864 24905 net.cpp:148] Top shape: 1 4096 (4096)
I0720 13:40:56.831883 24944 net.cpp:148] Top shape: 1 1 (1)
I0720 13:40:56.831884 24909 net.cpp:399] cont_sentence_input_1_split -> cont_sentence_input_1_split_1
I0720 13:40:56.831890 24905 net.cpp:148] Top shape: 1 1 (1)
I0720 13:40:56.831889 24944 net.cpp:156] Memory required for data: 16404
I0720 13:40:56.831902 24944 layer_factory.hpp:77] Creating layer embed_encoder
I0720 13:40:56.831902 24905 net.cpp:148] Top shape: 1 1 (1)
I0720 13:40:56.831910 24909 net.cpp:141] Setting up cont_sentence_input_1_split
I0720 13:40:56.831918 24905 net.cpp:148] Top shape: 1 1 (1)
I0720 13:40:56.831925 24905 net.cpp:156] Memory required for data: 16396
I0720 13:40:56.831926 24909 net.cpp:148] Top shape: 1 1 (1)
I0720 13:40:56.831933 24905 layer_factory.hpp:77] Creating layer cont_sentence_input_1_split
I0720 13:40:56.831938 24909 net.cpp:148] Top shape: 1 1 (1)
I0720 13:40:56.831946 24909 net.cpp:156] Memory required for data: 16404
I0720 13:40:56.831946 24905 net.cpp:91] Creating Layer cont_sentence_input_1_split
I0720 13:40:56.831960 24909 layer_factory.hpp:77] Creating layer embed_encoder
I0720 13:40:56.831965 24905 net.cpp:425] cont_sentence_input_1_split <- cont_sentence
I0720 13:40:56.831979 24905 net.cpp:399] cont_sentence_input_1_split -> cont_sentence_input_1_split_0
I0720 13:40:56.831984 24909 net.cpp:91] Creating Layer embed_encoder
I0720 13:40:56.831986 24944 net.cpp:91] Creating Layer embed_encoder
I0720 13:40:56.831995 24905 net.cpp:399] cont_sentence_input_1_split -> cont_sentence_input_1_split_1
I0720 13:40:56.831997 24909 net.cpp:425] embed_encoder <- frames_fc7
I0720 13:40:56.832000 24944 net.cpp:425] embed_encoder <- frames_fc7
I0720 13:40:56.832010 24905 net.cpp:141] Setting up cont_sentence_input_1_split
I0720 13:40:56.832015 24944 net.cpp:399] embed_encoder -> embedded_in_frames
I0720 13:40:56.832017 24909 net.cpp:399] embed_encoder -> embedded_in_frames
I0720 13:40:56.832021 24905 net.cpp:148] Top shape: 1 1 (1)
I0720 13:40:56.832032 24905 net.cpp:148] Top shape: 1 1 (1)
I0720 13:40:56.832039 24905 net.cpp:156] Memory required for data: 16404
I0720 13:40:56.832046 24905 layer_factory.hpp:77] Creating layer embed_encoder
I0720 13:40:56.832096 24905 net.cpp:91] Creating Layer embed_encoder
I0720 13:40:56.832108 24905 net.cpp:425] embed_encoder <- frames_fc7
I0720 13:40:56.832124 24905 net.cpp:399] embed_encoder -> embedded_in_frames
I0720 13:40:56.832146 24938 net.cpp:49] Initializing net from parameters: 
name: "s2vt:features_to_lstm"
state {
  phase: TEST
}
layer {
  name: "input"
  type: "Input"
  top: "frames_fc7"
  top: "cont_sentence"
  top: "input_sentence"
  top: "stage_indicator"
  input_param {
    shape {
      dim: 1
      dim: 4096
    }
    shape {
      dim: 1
      dim: 1
    }
    shape {
      dim: 1
      dim: 1
    }
    shape {
      dim: 1
      dim: 1
    }
  }
}
layer {
  name: "embed_encoder"
  type: "InnerProduct"
  bottom: "frames_fc7"
  top: "embedded_in_frames"
  param {
    lr_mult: 1
    decay_mult: 1
  }
  param {
    lr_mult: 2
    decay_mult: 0
  }
  inner_product_param {
    num_output: 500
    weight_filler {
      type: "xavier"
    }
    bias_filler {
      type: "constant"
      value: 0.2
    }
  }
}
layer {
  name: "reshape_frames"
  type: "Reshape"
  bottom: "embedded_in_frames"
  top: "embedded_input_frames"
  reshape_param {
    shape {
      dim: 1
      dim: 1
      dim: 500
    }
  }
}
layer {
  name: "reshape_stage_indicator"
  type: "Reshape"
  bottom: "stage_indicator"
  top: "reshaped_stage_indicator"
  reshape_param {
    shape {
      dim: 1
      dim: 1
      dim: 1
    }
  }
}
layer {
  name: "embedding"
  type: "Embed"
  bottom: "input_sentence"
  top: "embedded_input_sentence"
  param {
    lr_mult: 1
  }
  embed_param {
    num_output: 500
    input_dim: 46168
    bias_term: false
    weight_filler {
      type: "uniform"
      min: -0.08
      max: 0.08
    }
  }
}
layer {
  name: "lstm1"
  type: "LSTM"
  bottom: "embedded_input_frames"
  bottom: "cont_sentence"
  top: "lstm1"
  recurrent_param {
    num_output: 1000
    weight_filler {
      type: "uniform"
      min: -0.08
      max: 0.08
    }
    bias_filler {
      type: "constant"
      value: 0
    }
  }
}
layer {
  name: "concat"
  type: "Concat"
  bottom: "lstm1"
  bottom: "embedded_input_sentence"
  bottom: "reshaped_stage_indicator"
  top: "lstm1_video_sequence"
  concat_param {
    concat_dim: 2
  }
}
layer {
  name: "lstm2"
  type: "LSTM"
  bottom: "lstm1_video_sequence"
  bottom: "cont_sentence"
  top: "lstm2"
  recurrent_param {
    num_output: 1000
    weight_filler {
      type: "uniform"
      min: -0.08
      max: 0.08
    }
    bias_filler {
      type: "constant"
      value: 0
    }
  }
}
layer {
  name: "predict"
  type: "InnerProduct"
  bottom: "lstm2"
  top: "predict"
  param {
    lr_mult: 1
    decay_mult: 1
  }
  param {
    lr_mult: 2
    decay_mult: 0
  }
  inner_product_param {
    num_output: 46168
    weight_filler {
      type: "uniform"
      min: -0.08
      max: 0.08
    }
    bias_filler {
      type: "constant"
      value: 0
    }
    axis: 2
  }
}
layer {
  name: "probs"
  type: "Softmax"
  bottom: "predict"
  top: "probs"
  softmax_param {
    axis: 2
  }
}
I0720 13:40:56.832348 24938 layer_factory.hpp:77] Creating layer input
I0720 13:40:56.832367 24938 net.cpp:91] Creating Layer input
I0720 13:40:56.832379 24938 net.cpp:399] input -> frames_fc7
I0720 13:40:56.832398 24938 net.cpp:399] input -> cont_sentence
I0720 13:40:56.832432 24938 net.cpp:399] input -> input_sentence
I0720 13:40:56.832450 24938 net.cpp:399] input -> stage_indicator
I0720 13:40:56.832469 24938 net.cpp:141] Setting up input
I0720 13:40:56.832481 24938 net.cpp:148] Top shape: 1 4096 (4096)
I0720 13:40:56.832492 24938 net.cpp:148] Top shape: 1 1 (1)
I0720 13:40:56.832502 24938 net.cpp:148] Top shape: 1 1 (1)
I0720 13:40:56.832511 24938 net.cpp:148] Top shape: 1 1 (1)
I0720 13:40:56.832518 24938 net.cpp:156] Memory required for data: 16396
I0720 13:40:56.832527 24938 layer_factory.hpp:77] Creating layer cont_sentence_input_1_split
I0720 13:40:56.832540 24938 net.cpp:91] Creating Layer cont_sentence_input_1_split
I0720 13:40:56.832550 24938 net.cpp:425] cont_sentence_input_1_split <- cont_sentence
I0720 13:40:56.832576 24938 net.cpp:399] cont_sentence_input_1_split -> cont_sentence_input_1_split_0
I0720 13:40:56.832592 24938 net.cpp:399] cont_sentence_input_1_split -> cont_sentence_input_1_split_1
I0720 13:40:56.832607 24938 net.cpp:141] Setting up cont_sentence_input_1_split
I0720 13:40:56.832620 24938 net.cpp:148] Top shape: 1 1 (1)
I0720 13:40:56.832629 24938 net.cpp:148] Top shape: 1 1 (1)
I0720 13:40:56.832638 24938 net.cpp:156] Memory required for data: 16404
I0720 13:40:56.832645 24938 layer_factory.hpp:77] Creating layer embed_encoder
I0720 13:40:56.832659 24938 net.cpp:91] Creating Layer embed_encoder
I0720 13:40:56.832667 24938 net.cpp:425] embed_encoder <- frames_fc7
I0720 13:40:56.832679 24938 net.cpp:399] embed_encoder -> embedded_in_frames
I0720 13:40:56.850870 24922 net.cpp:141] Setting up embed_encoder
I0720 13:40:56.850910 24922 net.cpp:148] Top shape: 1 500 (500)
I0720 13:40:56.850919 24922 net.cpp:156] Memory required for data: 18404
I0720 13:40:56.850908 24903 net.cpp:141] Setting up embed_encoder
I0720 13:40:56.850947 24903 net.cpp:148] Top shape: 1 500 (500)
I0720 13:40:56.850955 24903 net.cpp:156] Memory required for data: 18404
I0720 13:40:56.852475 24922 layer_factory.hpp:77] Creating layer reshape_frames
I0720 13:40:56.852475 24903 layer_factory.hpp:77] Creating layer reshape_frames
I0720 13:40:56.852509 24922 net.cpp:91] Creating Layer reshape_frames
I0720 13:40:56.852515 24903 net.cpp:91] Creating Layer reshape_frames
I0720 13:40:56.852517 24922 net.cpp:425] reshape_frames <- embedded_in_frames
I0720 13:40:56.852530 24903 net.cpp:425] reshape_frames <- embedded_in_frames
I0720 13:40:56.852566 24903 net.cpp:399] reshape_frames -> embedded_input_frames
I0720 13:40:56.852566 24922 net.cpp:399] reshape_frames -> embedded_input_frames
I0720 13:40:56.852630 24922 net.cpp:141] Setting up reshape_frames
I0720 13:40:56.852632 24903 net.cpp:141] Setting up reshape_frames
I0720 13:40:56.852640 24922 net.cpp:148] Top shape: 1 1 500 (500)
I0720 13:40:56.852645 24922 net.cpp:156] Memory required for data: 20404
I0720 13:40:56.852646 24903 net.cpp:148] Top shape: 1 1 500 (500)
I0720 13:40:56.852650 24922 layer_factory.hpp:77] Creating layer reshape_stage_indicator
I0720 13:40:56.852654 24903 net.cpp:156] Memory required for data: 20404
I0720 13:40:56.852661 24922 net.cpp:91] Creating Layer reshape_stage_indicator
I0720 13:40:56.852663 24903 layer_factory.hpp:77] Creating layer reshape_stage_indicator
I0720 13:40:56.852666 24922 net.cpp:425] reshape_stage_indicator <- stage_indicator
I0720 13:40:56.852674 24922 net.cpp:399] reshape_stage_indicator -> reshaped_stage_indicator
I0720 13:40:56.852676 24903 net.cpp:91] Creating Layer reshape_stage_indicator
I0720 13:40:56.852685 24903 net.cpp:425] reshape_stage_indicator <- stage_indicator
I0720 13:40:56.852686 24922 net.cpp:141] Setting up reshape_stage_indicator
I0720 13:40:56.852701 24903 net.cpp:399] reshape_stage_indicator -> reshaped_stage_indicator
I0720 13:40:56.852705 24922 net.cpp:148] Top shape: 1 1 1 (1)
I0720 13:40:56.852717 24922 net.cpp:156] Memory required for data: 20408
I0720 13:40:56.852722 24922 layer_factory.hpp:77] Creating layer embedding
I0720 13:40:56.852723 24903 net.cpp:141] Setting up reshape_stage_indicator
I0720 13:40:56.852735 24903 net.cpp:148] Top shape: 1 1 1 (1)
I0720 13:40:56.852741 24903 net.cpp:156] Memory required for data: 20408
I0720 13:40:56.852747 24903 layer_factory.hpp:77] Creating layer embedding
I0720 13:40:56.852756 24922 net.cpp:91] Creating Layer embedding
I0720 13:40:56.852763 24922 net.cpp:425] embedding <- input_sentence
I0720 13:40:56.852810 24922 net.cpp:399] embedding -> embedded_input_sentence
I0720 13:40:56.852814 24903 net.cpp:91] Creating Layer embedding
I0720 13:40:56.852825 24903 net.cpp:425] embedding <- input_sentence
I0720 13:40:56.852843 24903 net.cpp:399] embedding -> embedded_input_sentence
I0720 13:40:56.866394 24917 net.cpp:141] Setting up embed_encoder
I0720 13:40:56.866438 24917 net.cpp:148] Top shape: 1 500 (500)
I0720 13:40:56.866443 24917 net.cpp:156] Memory required for data: 18404
I0720 13:40:56.867404 24917 layer_factory.hpp:77] Creating layer reshape_frames
I0720 13:40:56.867434 24917 net.cpp:91] Creating Layer reshape_frames
I0720 13:40:56.867444 24917 net.cpp:425] reshape_frames <- embedded_in_frames
I0720 13:40:56.867955 24917 net.cpp:399] reshape_frames -> embedded_input_frames
I0720 13:40:56.867982 24917 net.cpp:141] Setting up reshape_frames
I0720 13:40:56.867990 24917 net.cpp:148] Top shape: 1 1 500 (500)
I0720 13:40:56.867995 24917 net.cpp:156] Memory required for data: 20404
I0720 13:40:56.868000 24917 layer_factory.hpp:77] Creating layer reshape_stage_indicator
I0720 13:40:56.868010 24917 net.cpp:91] Creating Layer reshape_stage_indicator
I0720 13:40:56.868015 24917 net.cpp:425] reshape_stage_indicator <- stage_indicator
I0720 13:40:56.868021 24917 net.cpp:399] reshape_stage_indicator -> reshaped_stage_indicator
I0720 13:40:56.869012 24917 net.cpp:141] Setting up reshape_stage_indicator
I0720 13:40:56.869027 24917 net.cpp:148] Top shape: 1 1 1 (1)
I0720 13:40:56.869032 24917 net.cpp:156] Memory required for data: 20408
I0720 13:40:56.869037 24917 layer_factory.hpp:77] Creating layer embedding
I0720 13:40:56.869529 24917 net.cpp:91] Creating Layer embedding
I0720 13:40:56.869540 24917 net.cpp:425] embedding <- input_sentence
I0720 13:40:56.870088 24917 net.cpp:399] embedding -> embedded_input_sentence
I0720 13:40:56.882367 24944 net.cpp:141] Setting up embed_encoder
I0720 13:40:56.882414 24944 net.cpp:148] Top shape: 1 500 (500)
I0720 13:40:56.882424 24944 net.cpp:156] Memory required for data: 18404
I0720 13:40:56.882450 24944 layer_factory.hpp:77] Creating layer reshape_frames
I0720 13:40:56.884018 24944 net.cpp:91] Creating Layer reshape_frames
I0720 13:40:56.884039 24944 net.cpp:425] reshape_frames <- embedded_in_frames
I0720 13:40:56.884057 24944 net.cpp:399] reshape_frames -> embedded_input_frames
I0720 13:40:56.884089 24944 net.cpp:141] Setting up reshape_frames
I0720 13:40:56.884104 24944 net.cpp:148] Top shape: 1 1 500 (500)
I0720 13:40:56.884114 24944 net.cpp:156] Memory required for data: 20404
I0720 13:40:56.884124 24944 layer_factory.hpp:77] Creating layer reshape_stage_indicator
I0720 13:40:56.884526 24944 net.cpp:91] Creating Layer reshape_stage_indicator
I0720 13:40:56.884538 24944 net.cpp:425] reshape_stage_indicator <- stage_indicator
I0720 13:40:56.884547 24944 net.cpp:399] reshape_stage_indicator -> reshaped_stage_indicator
I0720 13:40:56.884560 24944 net.cpp:141] Setting up reshape_stage_indicator
I0720 13:40:56.884569 24944 net.cpp:148] Top shape: 1 1 1 (1)
I0720 13:40:56.884573 24944 net.cpp:156] Memory required for data: 20408
I0720 13:40:56.884578 24944 layer_factory.hpp:77] Creating layer embedding
I0720 13:40:56.885493 24944 net.cpp:91] Creating Layer embedding
I0720 13:40:56.885507 24944 net.cpp:425] embedding <- input_sentence
I0720 13:40:56.885524 24944 net.cpp:399] embedding -> embedded_input_sentence
I0720 13:40:56.887190 24899 net.cpp:141] Setting up embed_encoder
I0720 13:40:56.887212 24899 net.cpp:148] Top shape: 1 500 (500)
I0720 13:40:56.887220 24899 net.cpp:156] Memory required for data: 18404
I0720 13:40:56.887243 24899 layer_factory.hpp:77] Creating layer reshape_frames
I0720 13:40:56.888741 24899 net.cpp:91] Creating Layer reshape_frames
I0720 13:40:56.888758 24899 net.cpp:425] reshape_frames <- embedded_in_frames
I0720 13:40:56.888775 24899 net.cpp:399] reshape_frames -> embedded_input_frames
I0720 13:40:56.888797 24899 net.cpp:141] Setting up reshape_frames
I0720 13:40:56.888808 24899 net.cpp:148] Top shape: 1 1 500 (500)
I0720 13:40:56.888816 24899 net.cpp:156] Memory required for data: 20404
I0720 13:40:56.888824 24899 layer_factory.hpp:77] Creating layer reshape_stage_indicator
I0720 13:40:56.889334 24899 net.cpp:91] Creating Layer reshape_stage_indicator
I0720 13:40:56.889346 24899 net.cpp:425] reshape_stage_indicator <- stage_indicator
I0720 13:40:56.889361 24899 net.cpp:399] reshape_stage_indicator -> reshaped_stage_indicator
I0720 13:40:56.889381 24899 net.cpp:141] Setting up reshape_stage_indicator
I0720 13:40:56.889394 24899 net.cpp:148] Top shape: 1 1 1 (1)
I0720 13:40:56.889400 24899 net.cpp:156] Memory required for data: 20408
I0720 13:40:56.889408 24899 layer_factory.hpp:77] Creating layer embedding
I0720 13:40:56.889864 24905 net.cpp:141] Setting up embed_encoder
I0720 13:40:56.889886 24905 net.cpp:148] Top shape: 1 500 (500)
I0720 13:40:56.889895 24905 net.cpp:156] Memory required for data: 18404
I0720 13:40:56.889919 24905 layer_factory.hpp:77] Creating layer reshape_frames
I0720 13:40:56.890494 24899 net.cpp:91] Creating Layer embedding
I0720 13:40:56.890499 24905 net.cpp:91] Creating Layer reshape_frames
I0720 13:40:56.890507 24899 net.cpp:425] embedding <- input_sentence
I0720 13:40:56.890516 24905 net.cpp:425] reshape_frames <- embedded_in_frames
I0720 13:40:56.890521 24899 net.cpp:399] embedding -> embedded_input_sentence
I0720 13:40:56.891064 24905 net.cpp:399] reshape_frames -> embedded_input_frames
I0720 13:40:56.891093 24905 net.cpp:141] Setting up reshape_frames
I0720 13:40:56.891108 24905 net.cpp:148] Top shape: 1 1 500 (500)
I0720 13:40:56.891116 24905 net.cpp:156] Memory required for data: 20404
I0720 13:40:56.891126 24905 layer_factory.hpp:77] Creating layer reshape_stage_indicator
I0720 13:40:56.891142 24905 net.cpp:91] Creating Layer reshape_stage_indicator
I0720 13:40:56.891152 24905 net.cpp:425] reshape_stage_indicator <- stage_indicator
I0720 13:40:56.891165 24905 net.cpp:399] reshape_stage_indicator -> reshaped_stage_indicator
I0720 13:40:56.891185 24905 net.cpp:141] Setting up reshape_stage_indicator
I0720 13:40:56.891197 24905 net.cpp:148] Top shape: 1 1 1 (1)
I0720 13:40:56.891204 24905 net.cpp:156] Memory required for data: 20408
I0720 13:40:56.891212 24905 layer_factory.hpp:77] Creating layer embedding
I0720 13:40:56.892135 24905 net.cpp:91] Creating Layer embedding
I0720 13:40:56.892148 24905 net.cpp:425] embedding <- input_sentence
I0720 13:40:56.892161 24905 net.cpp:399] embedding -> embedded_input_sentence
I0720 13:40:56.901257 24948 net.cpp:141] Setting up embed_encoder
I0720 13:40:56.901309 24948 net.cpp:148] Top shape: 1 500 (500)
I0720 13:40:56.901317 24948 net.cpp:156] Memory required for data: 18404
I0720 13:40:56.901343 24948 layer_factory.hpp:77] Creating layer reshape_frames
I0720 13:40:56.901782 24948 net.cpp:91] Creating Layer reshape_frames
I0720 13:40:56.901796 24948 net.cpp:425] reshape_frames <- embedded_in_frames
I0720 13:40:56.901811 24948 net.cpp:399] reshape_frames -> embedded_input_frames
I0720 13:40:56.901836 24948 net.cpp:141] Setting up reshape_frames
I0720 13:40:56.901849 24948 net.cpp:148] Top shape: 1 1 500 (500)
I0720 13:40:56.901856 24948 net.cpp:156] Memory required for data: 20404
I0720 13:40:56.901864 24948 layer_factory.hpp:77] Creating layer reshape_stage_indicator
I0720 13:40:56.901878 24948 net.cpp:91] Creating Layer reshape_stage_indicator
I0720 13:40:56.901887 24948 net.cpp:425] reshape_stage_indicator <- stage_indicator
I0720 13:40:56.902825 24948 net.cpp:399] reshape_stage_indicator -> reshaped_stage_indicator
I0720 13:40:56.902860 24948 net.cpp:141] Setting up reshape_stage_indicator
I0720 13:40:56.902873 24948 net.cpp:148] Top shape: 1 1 1 (1)
I0720 13:40:56.902880 24948 net.cpp:156] Memory required for data: 20408
I0720 13:40:56.902889 24948 layer_factory.hpp:77] Creating layer embedding
I0720 13:40:56.903347 24948 net.cpp:91] Creating Layer embedding
I0720 13:40:56.903358 24948 net.cpp:425] embedding <- input_sentence
I0720 13:40:56.903370 24948 net.cpp:399] embedding -> embedded_input_sentence
I0720 13:40:56.909139 24938 net.cpp:141] Setting up embed_encoder
I0720 13:40:56.909195 24938 net.cpp:148] Top shape: 1 500 (500)
I0720 13:40:56.909206 24938 net.cpp:156] Memory required for data: 18404
I0720 13:40:56.909236 24938 layer_factory.hpp:77] Creating layer reshape_frames
I0720 13:40:56.909669 24938 net.cpp:91] Creating Layer reshape_frames
I0720 13:40:56.909700 24938 net.cpp:425] reshape_frames <- embedded_in_frames
I0720 13:40:56.909732 24938 net.cpp:399] reshape_frames -> embedded_input_frames
I0720 13:40:56.909759 24938 net.cpp:141] Setting up reshape_frames
I0720 13:40:56.909767 24938 net.cpp:148] Top shape: 1 1 500 (500)
I0720 13:40:56.909772 24938 net.cpp:156] Memory required for data: 20404
I0720 13:40:56.909776 24938 layer_factory.hpp:77] Creating layer reshape_stage_indicator
I0720 13:40:56.910703 24938 net.cpp:91] Creating Layer reshape_stage_indicator
I0720 13:40:56.910747 24938 net.cpp:425] reshape_stage_indicator <- stage_indicator
I0720 13:40:56.910785 24938 net.cpp:399] reshape_stage_indicator -> reshaped_stage_indicator
I0720 13:40:56.910815 24938 net.cpp:141] Setting up reshape_stage_indicator
I0720 13:40:56.910826 24938 net.cpp:148] Top shape: 1 1 1 (1)
I0720 13:40:56.910831 24938 net.cpp:156] Memory required for data: 20408
I0720 13:40:56.910836 24938 layer_factory.hpp:77] Creating layer embedding
I0720 13:40:56.911252 24938 net.cpp:91] Creating Layer embedding
I0720 13:40:56.911278 24938 net.cpp:425] embedding <- input_sentence
I0720 13:40:56.911295 24938 net.cpp:399] embedding -> embedded_input_sentence
I0720 13:40:56.940400 24926 net.cpp:141] Setting up embed_encoder
I0720 13:40:56.940466 24926 net.cpp:148] Top shape: 1 500 (500)
I0720 13:40:56.940475 24926 net.cpp:156] Memory required for data: 18404
I0720 13:40:56.940505 24926 layer_factory.hpp:77] Creating layer reshape_frames
I0720 13:40:56.941436 24926 net.cpp:91] Creating Layer reshape_frames
I0720 13:40:56.941455 24926 net.cpp:425] reshape_frames <- embedded_in_frames
I0720 13:40:56.941474 24926 net.cpp:399] reshape_frames -> embedded_input_frames
I0720 13:40:56.941503 24926 net.cpp:141] Setting up reshape_frames
I0720 13:40:56.941514 24926 net.cpp:148] Top shape: 1 1 500 (500)
I0720 13:40:56.941519 24926 net.cpp:156] Memory required for data: 20404
I0720 13:40:56.941526 24926 layer_factory.hpp:77] Creating layer reshape_stage_indicator
I0720 13:40:56.941545 24926 net.cpp:91] Creating Layer reshape_stage_indicator
I0720 13:40:56.941555 24926 net.cpp:425] reshape_stage_indicator <- stage_indicator
I0720 13:40:56.941565 24926 net.cpp:399] reshape_stage_indicator -> reshaped_stage_indicator
I0720 13:40:56.941581 24926 net.cpp:141] Setting up reshape_stage_indicator
I0720 13:40:56.941591 24926 net.cpp:148] Top shape: 1 1 1 (1)
I0720 13:40:56.941598 24926 net.cpp:156] Memory required for data: 20408
I0720 13:40:56.941606 24926 layer_factory.hpp:77] Creating layer embedding
I0720 13:40:56.942172 24926 net.cpp:91] Creating Layer embedding
I0720 13:40:56.942250 24926 net.cpp:425] embedding <- input_sentence
I0720 13:40:56.942275 24926 net.cpp:399] embedding -> embedded_input_sentence
I0720 13:40:56.965347 24909 net.cpp:141] Setting up embed_encoder
I0720 13:40:56.965410 24909 net.cpp:148] Top shape: 1 500 (500)
I0720 13:40:56.965416 24909 net.cpp:156] Memory required for data: 18404
I0720 13:40:56.965441 24909 layer_factory.hpp:77] Creating layer reshape_frames
I0720 13:40:56.966414 24909 net.cpp:91] Creating Layer reshape_frames
I0720 13:40:56.966440 24909 net.cpp:425] reshape_frames <- embedded_in_frames
I0720 13:40:56.966974 24909 net.cpp:399] reshape_frames -> embedded_input_frames
I0720 13:40:56.967021 24909 net.cpp:141] Setting up reshape_frames
I0720 13:40:56.967036 24909 net.cpp:148] Top shape: 1 1 500 (500)
I0720 13:40:56.967041 24909 net.cpp:156] Memory required for data: 20404
I0720 13:40:56.967046 24909 layer_factory.hpp:77] Creating layer reshape_stage_indicator
I0720 13:40:56.967056 24909 net.cpp:91] Creating Layer reshape_stage_indicator
I0720 13:40:56.967062 24909 net.cpp:425] reshape_stage_indicator <- stage_indicator
I0720 13:40:56.967070 24909 net.cpp:399] reshape_stage_indicator -> reshaped_stage_indicator
I0720 13:40:56.967082 24909 net.cpp:141] Setting up reshape_stage_indicator
I0720 13:40:56.967090 24909 net.cpp:148] Top shape: 1 1 1 (1)
I0720 13:40:56.967094 24909 net.cpp:156] Memory required for data: 20408
I0720 13:40:56.967098 24909 layer_factory.hpp:77] Creating layer embedding
I0720 13:40:56.968044 24909 net.cpp:91] Creating Layer embedding
I0720 13:40:56.968063 24909 net.cpp:425] embedding <- input_sentence
I0720 13:40:56.968595 24909 net.cpp:399] embedding -> embedded_input_sentence
I0720 13:40:57.073773 24922 net.cpp:141] Setting up embedding
I0720 13:40:57.073837 24922 net.cpp:148] Top shape: 1 1 500 (500)
I0720 13:40:57.073848 24922 net.cpp:156] Memory required for data: 22408
I0720 13:40:57.073873 24922 layer_factory.hpp:77] Creating layer lstm1
I0720 13:40:57.073902 24922 net.cpp:91] Creating Layer lstm1
I0720 13:40:57.073915 24922 net.cpp:425] lstm1 <- embedded_input_frames
I0720 13:40:57.073930 24922 net.cpp:425] lstm1 <- cont_sentence_input_1_split_0
I0720 13:40:57.073982 24922 net.cpp:399] lstm1 -> lstm1
I0720 13:40:57.074041 24922 recurrent_layer.cpp:20] Initializing recurrent layer: assuming input batch contains 1 timesteps of 1 independent streams.
I0720 13:40:57.074658 24922 net.cpp:49] Initializing net from parameters: 
layer {
  name: "lstm1_"
  type: "Input"
  top: "x"
  top: "cont"
  input_param {
    shape {
      dim: 1
      dim: 1
      dim: 500
    }
    shape {
      dim: 1
      dim: 1
    }
  }
}
layer {
  name: "lstm1_"
  type: "Input"
  top: "c_0"
  top: "h_0"
  input_param {
    shape {
      dim: 1
      dim: 1
      dim: 1000
    }
    shape {
      dim: 1
      dim: 1
      dim: 1000
    }
  }
}
layer {
  name: "lstm1_cont_slice"
  type: "Slice"
  bottom: "cont"
  top: "cont_1"
  slice_param {
    axis: 0
  }
}
layer {
  name: "lstm1_x_transform"
  type: "InnerProduct"
  bottom: "x"
  top: "W_xc_x"
  param {
    name: "W_xc"
  }
  param {
    name: "b_c"
  }
  propagate_down: true
  inner_product_param {
    num_output: 4000
    bias_term: true
    weight_filler {
      type: "uniform"
      min: -0.08
      max: 0.08
    }
    bias_filler {
      type: "constant"
      value: 0
    }
    axis: 2
  }
}
layer {
  name: "lstm1_W_xc_x_slice"
  type: "Slice"
  bottom: "W_xc_x"
  top: "W_xc_x_1"
  slice_param {
    axis: 0
  }
}
layer {
  name: "lstm1_h_conted_0"
  type: "Scale"
  bottom: "h_0"
  bottom: "cont_1"
  top: "h_conted_0"
  scale_param {
    axis: 0
  }
}
layer {
  name: "lstm1_transform_1"
  type: "InnerProduct"
  bottom: "h_conted_0"
  top: "W_hc_h_0"
  param {
    name: "W_hc"
  }
  inner_product_param {
    num_output: 4000
    bias_term: false
    weight_filler {
      type: "uniform"
      min: -0.08
      max: 0.08
    }
    axis: 2
  }
}
layer {
  name: "lstm1_gate_input_1"
  type: "Eltwise"
  bottom: "W_hc_h_0"
  bottom: "W_xc_x_1"
  top: "gate_input_1"
  eltwise_param {
    operation: SUM
  }
}
layer {
  name: "lstm1_unit_1"
  type: "LSTMUnit"
  bottom: "c_0"
  bottom: "gate_input_1"
  bottom: "cont_1"
  top: "c_1"
  top: "h_1"
}
layer {
  name: "lstm1_"
  type: "Split"
  bottom: "c_1"
  top: "c_T"
}
layer {
  name: "lstm1_h_concat"
  type: "Concat"
  bottom: "h_1"
  top: "h"
  concat_param {
    axis: 0
  }
}
layer {
  name: "h_pseudoloss"
  type: "Reduction"
  bottom: "h"
  top: "h_pseudoloss"
  loss_weight: 1
}
I0720 13:40:57.074889 24922 layer_factory.hpp:77] Creating layer lstm1_
I0720 13:40:57.074914 24922 net.cpp:91] Creating Layer lstm1_
I0720 13:40:57.074929 24922 net.cpp:399] lstm1_ -> x
I0720 13:40:57.074950 24922 net.cpp:399] lstm1_ -> cont
I0720 13:40:57.074975 24922 net.cpp:141] Setting up lstm1_
I0720 13:40:57.074990 24922 net.cpp:148] Top shape: 1 1 500 (500)
I0720 13:40:57.075002 24922 net.cpp:148] Top shape: 1 1 (1)
I0720 13:40:57.075011 24922 net.cpp:156] Memory required for data: 2004
I0720 13:40:57.075021 24922 layer_factory.hpp:77] Creating layer lstm1_
I0720 13:40:57.075037 24922 net.cpp:91] Creating Layer lstm1_
I0720 13:40:57.075050 24922 net.cpp:399] lstm1_ -> c_0
I0720 13:40:57.075070 24922 net.cpp:399] lstm1_ -> h_0
I0720 13:40:57.075090 24922 net.cpp:141] Setting up lstm1_
I0720 13:40:57.075104 24922 net.cpp:148] Top shape: 1 1 1000 (1000)
I0720 13:40:57.075115 24922 net.cpp:148] Top shape: 1 1 1000 (1000)
I0720 13:40:57.075124 24922 net.cpp:156] Memory required for data: 10004
I0720 13:40:57.075131 24922 layer_factory.hpp:77] Creating layer lstm1_cont_slice
I0720 13:40:57.075147 24922 net.cpp:91] Creating Layer lstm1_cont_slice
I0720 13:40:57.075158 24922 net.cpp:425] lstm1_cont_slice <- cont
I0720 13:40:57.075184 24922 net.cpp:399] lstm1_cont_slice -> cont_1
I0720 13:40:57.075211 24922 net.cpp:141] Setting up lstm1_cont_slice
I0720 13:40:57.075225 24922 net.cpp:148] Top shape: 1 1 (1)
I0720 13:40:57.075233 24922 net.cpp:156] Memory required for data: 10008
I0720 13:40:57.075242 24922 layer_factory.hpp:77] Creating layer cont_1_lstm1_cont_slice_0_split
I0720 13:40:57.075256 24922 net.cpp:91] Creating Layer cont_1_lstm1_cont_slice_0_split
I0720 13:40:57.075265 24922 net.cpp:425] cont_1_lstm1_cont_slice_0_split <- cont_1
I0720 13:40:57.075280 24922 net.cpp:399] cont_1_lstm1_cont_slice_0_split -> cont_1_lstm1_cont_slice_0_split_0
I0720 13:40:57.075294 24922 net.cpp:399] cont_1_lstm1_cont_slice_0_split -> cont_1_lstm1_cont_slice_0_split_1
I0720 13:40:57.075309 24922 net.cpp:141] Setting up cont_1_lstm1_cont_slice_0_split
I0720 13:40:57.075320 24922 net.cpp:148] Top shape: 1 1 (1)
I0720 13:40:57.075328 24922 net.cpp:148] Top shape: 1 1 (1)
I0720 13:40:57.075335 24922 net.cpp:156] Memory required for data: 10016
I0720 13:40:57.075342 24922 layer_factory.hpp:77] Creating layer lstm1_x_transform
I0720 13:40:57.075357 24922 net.cpp:91] Creating Layer lstm1_x_transform
I0720 13:40:57.075366 24922 net.cpp:425] lstm1_x_transform <- x
I0720 13:40:57.075384 24922 net.cpp:399] lstm1_x_transform -> W_xc_x
I0720 13:40:57.097702 24922 net.cpp:141] Setting up lstm1_x_transform
I0720 13:40:57.097760 24922 net.cpp:148] Top shape: 1 1 4000 (4000)
I0720 13:40:57.097770 24922 net.cpp:156] Memory required for data: 26016
I0720 13:40:57.097800 24922 layer_factory.hpp:77] Creating layer lstm1_W_xc_x_slice
I0720 13:40:57.097825 24922 net.cpp:91] Creating Layer lstm1_W_xc_x_slice
I0720 13:40:57.097836 24922 net.cpp:425] lstm1_W_xc_x_slice <- W_xc_x
I0720 13:40:57.097858 24922 net.cpp:399] lstm1_W_xc_x_slice -> W_xc_x_1
I0720 13:40:57.097889 24922 net.cpp:141] Setting up lstm1_W_xc_x_slice
I0720 13:40:57.097901 24922 net.cpp:148] Top shape: 1 1 4000 (4000)
I0720 13:40:57.097908 24922 net.cpp:156] Memory required for data: 42016
I0720 13:40:57.097916 24922 layer_factory.hpp:77] Creating layer lstm1_h_conted_0
I0720 13:40:57.097939 24922 net.cpp:91] Creating Layer lstm1_h_conted_0
I0720 13:40:57.097949 24922 net.cpp:425] lstm1_h_conted_0 <- h_0
I0720 13:40:57.097957 24922 net.cpp:425] lstm1_h_conted_0 <- cont_1_lstm1_cont_slice_0_split_0
I0720 13:40:57.097968 24922 net.cpp:399] lstm1_h_conted_0 -> h_conted_0
I0720 13:40:57.098017 24922 net.cpp:141] Setting up lstm1_h_conted_0
I0720 13:40:57.098031 24922 net.cpp:148] Top shape: 1 1 1000 (1000)
I0720 13:40:57.098037 24922 net.cpp:156] Memory required for data: 46016
I0720 13:40:57.098045 24922 layer_factory.hpp:77] Creating layer lstm1_transform_1
I0720 13:40:57.098072 24922 net.cpp:91] Creating Layer lstm1_transform_1
I0720 13:40:57.098081 24922 net.cpp:425] lstm1_transform_1 <- h_conted_0
I0720 13:40:57.098094 24922 net.cpp:399] lstm1_transform_1 -> W_hc_h_0
I0720 13:40:57.118577 24903 net.cpp:141] Setting up embedding
I0720 13:40:57.118644 24903 net.cpp:148] Top shape: 1 1 500 (500)
I0720 13:40:57.118652 24903 net.cpp:156] Memory required for data: 22408
I0720 13:40:57.118677 24903 layer_factory.hpp:77] Creating layer lstm1
I0720 13:40:57.118715 24903 net.cpp:91] Creating Layer lstm1
I0720 13:40:57.118726 24903 net.cpp:425] lstm1 <- embedded_input_frames
I0720 13:40:57.118738 24903 net.cpp:425] lstm1 <- cont_sentence_input_1_split_0
I0720 13:40:57.118845 24903 net.cpp:399] lstm1 -> lstm1
I0720 13:40:57.118898 24903 recurrent_layer.cpp:20] Initializing recurrent layer: assuming input batch contains 1 timesteps of 1 independent streams.
I0720 13:40:57.119316 24903 net.cpp:49] Initializing net from parameters: 
layer {
  name: "lstm1_"
  type: "Input"
  top: "x"
  top: "cont"
  input_param {
    shape {
      dim: 1
      dim: 1
      dim: 500
    }
    shape {
      dim: 1
      dim: 1
    }
  }
}
layer {
  name: "lstm1_"
  type: "Input"
  top: "c_0"
  top: "h_0"
  input_param {
    shape {
      dim: 1
      dim: 1
      dim: 1000
    }
    shape {
      dim: 1
      dim: 1
      dim: 1000
    }
  }
}
layer {
  name: "lstm1_cont_slice"
  type: "Slice"
  bottom: "cont"
  top: "cont_1"
  slice_param {
    axis: 0
  }
}
layer {
  name: "lstm1_x_transform"
  type: "InnerProduct"
  bottom: "x"
  top: "W_xc_x"
  param {
    name: "W_xc"
  }
  param {
    name: "b_c"
  }
  propagate_down: true
  inner_product_param {
    num_output: 4000
    bias_term: true
    weight_filler {
      type: "uniform"
      min: -0.08
      max: 0.08
    }
    bias_filler {
      type: "constant"
      value: 0
    }
    axis: 2
  }
}
layer {
  name: "lstm1_W_xc_x_slice"
  type: "Slice"
  bottom: "W_xc_x"
  top: "W_xc_x_1"
  slice_param {
    axis: 0
  }
}
layer {
  name: "lstm1_h_conted_0"
  type: "Scale"
  bottom: "h_0"
  bottom: "cont_1"
  top: "h_conted_0"
  scale_param {
    axis: 0
  }
}
layer {
  name: "lstm1_transform_1"
  type: "InnerProduct"
  bottom: "h_conted_0"
  top: "W_hc_h_0"
  param {
    name: "W_hc"
  }
  inner_product_param {
    num_output: 4000
    bias_term: false
    weight_filler {
      type: "uniform"
      min: -0.08
      max: 0.08
    }
    axis: 2
  }
}
layer {
  name: "lstm1_gate_input_1"
  type: "Eltwise"
  bottom: "W_hc_h_0"
  bottom: "W_xc_x_1"
  top: "gate_input_1"
  eltwise_param {
    operation: SUM
  }
}
layer {
  name: "lstm1_unit_1"
  type: "LSTMUnit"
  bottom: "c_0"
  bottom: "gate_input_1"
  bottom: "cont_1"
  top: "c_1"
  top: "h_1"
}
layer {
  name: "lstm1_"
  type: "Split"
  bottom: "c_1"
  top: "c_T"
}
layer {
  name: "lstm1_h_concat"
  type: "Concat"
  bottom: "h_1"
  top: "h"
  concat_param {
    axis: 0
  }
}
layer {
  name: "h_pseudoloss"
  type: "Reduction"
  bottom: "h"
  top: "h_pseudoloss"
  loss_weight: 1
}
I0720 13:40:57.119443 24903 layer_factory.hpp:77] Creating layer lstm1_
I0720 13:40:57.119464 24903 net.cpp:91] Creating Layer lstm1_
I0720 13:40:57.119475 24903 net.cpp:399] lstm1_ -> x
I0720 13:40:57.119493 24903 net.cpp:399] lstm1_ -> cont
I0720 13:40:57.119513 24903 net.cpp:141] Setting up lstm1_
I0720 13:40:57.119526 24903 net.cpp:148] Top shape: 1 1 500 (500)
I0720 13:40:57.119536 24903 net.cpp:148] Top shape: 1 1 (1)
I0720 13:40:57.119544 24903 net.cpp:156] Memory required for data: 2004
I0720 13:40:57.119552 24903 layer_factory.hpp:77] Creating layer lstm1_
I0720 13:40:57.119591 24903 net.cpp:91] Creating Layer lstm1_
I0720 13:40:57.119606 24903 net.cpp:399] lstm1_ -> c_0
I0720 13:40:57.119623 24903 net.cpp:399] lstm1_ -> h_0
I0720 13:40:57.119640 24903 net.cpp:141] Setting up lstm1_
I0720 13:40:57.119652 24903 net.cpp:148] Top shape: 1 1 1000 (1000)
I0720 13:40:57.119662 24903 net.cpp:148] Top shape: 1 1 1000 (1000)
I0720 13:40:57.119668 24903 net.cpp:156] Memory required for data: 10004
I0720 13:40:57.119676 24903 layer_factory.hpp:77] Creating layer lstm1_cont_slice
I0720 13:40:57.119688 24903 net.cpp:91] Creating Layer lstm1_cont_slice
I0720 13:40:57.119696 24903 net.cpp:425] lstm1_cont_slice <- cont
I0720 13:40:57.119707 24903 net.cpp:399] lstm1_cont_slice -> cont_1
I0720 13:40:57.119730 24903 net.cpp:141] Setting up lstm1_cont_slice
I0720 13:40:57.119741 24903 net.cpp:148] Top shape: 1 1 (1)
I0720 13:40:57.119748 24903 net.cpp:156] Memory required for data: 10008
I0720 13:40:57.119755 24903 layer_factory.hpp:77] Creating layer cont_1_lstm1_cont_slice_0_split
I0720 13:40:57.119766 24903 net.cpp:91] Creating Layer cont_1_lstm1_cont_slice_0_split
I0720 13:40:57.119773 24903 net.cpp:425] cont_1_lstm1_cont_slice_0_split <- cont_1
I0720 13:40:57.119783 24903 net.cpp:399] cont_1_lstm1_cont_slice_0_split -> cont_1_lstm1_cont_slice_0_split_0
I0720 13:40:57.119798 24903 net.cpp:399] cont_1_lstm1_cont_slice_0_split -> cont_1_lstm1_cont_slice_0_split_1
I0720 13:40:57.119813 24903 net.cpp:141] Setting up cont_1_lstm1_cont_slice_0_split
I0720 13:40:57.119822 24903 net.cpp:148] Top shape: 1 1 (1)
I0720 13:40:57.119830 24903 net.cpp:148] Top shape: 1 1 (1)
I0720 13:40:57.119837 24903 net.cpp:156] Memory required for data: 10016
I0720 13:40:57.119843 24903 layer_factory.hpp:77] Creating layer lstm1_x_transform
I0720 13:40:57.119858 24903 net.cpp:91] Creating Layer lstm1_x_transform
I0720 13:40:57.119864 24903 net.cpp:425] lstm1_x_transform <- x
I0720 13:40:57.119881 24903 net.cpp:399] lstm1_x_transform -> W_xc_x
I0720 13:40:57.142802 24922 net.cpp:141] Setting up lstm1_transform_1
I0720 13:40:57.143332 24922 net.cpp:148] Top shape: 1 1 4000 (4000)
I0720 13:40:57.143498 24922 net.cpp:156] Memory required for data: 62016
I0720 13:40:57.143636 24922 layer_factory.hpp:77] Creating layer lstm1_gate_input_1
I0720 13:40:57.143769 24922 net.cpp:91] Creating Layer lstm1_gate_input_1
I0720 13:40:57.143884 24922 net.cpp:425] lstm1_gate_input_1 <- W_hc_h_0
I0720 13:40:57.144001 24922 net.cpp:425] lstm1_gate_input_1 <- W_xc_x_1
I0720 13:40:57.144094 24922 net.cpp:399] lstm1_gate_input_1 -> gate_input_1
I0720 13:40:57.144145 24922 net.cpp:141] Setting up lstm1_gate_input_1
I0720 13:40:57.144157 24922 net.cpp:148] Top shape: 1 1 4000 (4000)
I0720 13:40:57.144165 24922 net.cpp:156] Memory required for data: 78016
I0720 13:40:57.144171 24922 layer_factory.hpp:77] Creating layer lstm1_unit_1
I0720 13:40:57.144189 24922 net.cpp:91] Creating Layer lstm1_unit_1
I0720 13:40:57.144197 24922 net.cpp:425] lstm1_unit_1 <- c_0
I0720 13:40:57.144207 24922 net.cpp:425] lstm1_unit_1 <- gate_input_1
I0720 13:40:57.144214 24922 net.cpp:425] lstm1_unit_1 <- cont_1_lstm1_cont_slice_0_split_1
I0720 13:40:57.144227 24922 net.cpp:399] lstm1_unit_1 -> c_1
I0720 13:40:57.144240 24922 net.cpp:399] lstm1_unit_1 -> h_1
I0720 13:40:57.144268 24922 net.cpp:141] Setting up lstm1_unit_1
I0720 13:40:57.144276 24922 net.cpp:148] Top shape: 1 1 1000 (1000)
I0720 13:40:57.144285 24922 net.cpp:148] Top shape: 1 1 1000 (1000)
I0720 13:40:57.144291 24922 net.cpp:156] Memory required for data: 86016
I0720 13:40:57.144297 24922 layer_factory.hpp:77] Creating layer lstm1_
I0720 13:40:57.144309 24922 net.cpp:91] Creating Layer lstm1_
I0720 13:40:57.144315 24922 net.cpp:425] lstm1_ <- c_1
I0720 13:40:57.144351 24922 net.cpp:399] lstm1_ -> c_T
I0720 13:40:57.144366 24922 net.cpp:141] Setting up lstm1_
I0720 13:40:57.144376 24922 net.cpp:148] Top shape: 1 1 1000 (1000)
I0720 13:40:57.144382 24922 net.cpp:156] Memory required for data: 90016
I0720 13:40:57.144389 24922 layer_factory.hpp:77] Creating layer lstm1_h_concat
I0720 13:40:57.144410 24922 net.cpp:91] Creating Layer lstm1_h_concat
I0720 13:40:57.144418 24922 net.cpp:425] lstm1_h_concat <- h_1
I0720 13:40:57.144430 24922 net.cpp:399] lstm1_h_concat -> h
I0720 13:40:57.144449 24922 net.cpp:141] Setting up lstm1_h_concat
I0720 13:40:57.144459 24922 net.cpp:148] Top shape: 1 1 1000 (1000)
I0720 13:40:57.144464 24922 net.cpp:156] Memory required for data: 94016
I0720 13:40:57.144470 24922 layer_factory.hpp:77] Creating layer h_pseudoloss
I0720 13:40:57.144490 24922 net.cpp:91] Creating Layer h_pseudoloss
I0720 13:40:57.144497 24922 net.cpp:425] h_pseudoloss <- h
I0720 13:40:57.144506 24922 net.cpp:399] h_pseudoloss -> h_pseudoloss
I0720 13:40:57.144568 24922 net.cpp:141] Setting up h_pseudoloss
I0720 13:40:57.144580 24922 net.cpp:148] Top shape: (1)
I0720 13:40:57.144569 24903 net.cpp:141] Setting up lstm1_x_transform
I0720 13:40:57.144613 24903 net.cpp:148] Top shape: 1 1 4000 (4000)
I0720 13:40:57.144621 24903 net.cpp:156] Memory required for data: 26016
I0720 13:40:57.144587 24922 net.cpp:151]     with loss weight 1
I0720 13:40:57.144637 24922 net.cpp:156] Memory required for data: 94020
I0720 13:40:57.144645 24922 net.cpp:217] h_pseudoloss needs backward computation.
I0720 13:40:57.144645 24903 layer_factory.hpp:77] Creating layer lstm1_W_xc_x_slice
I0720 13:40:57.144655 24922 net.cpp:217] lstm1_h_concat needs backward computation.
…
I0720 13:40:57.144695 24922 net.cpp:219] lstm1_h_conted_0 does not need backward computation.
I0720 13:40:57.144697 24903 net.cpp:399] lstm1_W_xc_x_slice -> W_xc_x_1
I0720 13:40:57.144704 24922 net.cpp:217] lstm1_W_xc_x_slice needs backward computation.
I0720 13:40:57.144711 24922 net.cpp:217] lstm1_x_transform needs backward computation.
I0720 13:40:57.144719 24922 net.cpp:219] cont_1_lstm1_cont_slice_0_split does not need backward computation.
I0720 13:40:57.144722 24903 net.cpp:141] Setting up lstm1_W_xc_x_slice
I0720 13:40:57.144726 24922 net.cpp:219] lstm1_cont_slice does not need backward computation.
I0720 13:40:57.144734 24903 net.cpp:148] Top shape: 1 1 4000 (4000)
I0720 13:40:57.144736 24922 net.cpp:219] lstm1_ does not need backward computation.
I0720 13:40:57.144742 24903 net.cpp:156] Memory required for data: 42016
I0720 13:40:57.144743 24922 net.cpp:219] lstm1_ does not need backward computation.
I0720 13:40:57.144757 24903 layer_factory.hpp:77] Creating layer lstm1_h_conted_0
I0720 13:40:57.144762 24922 net.cpp:261] This network produces output c_T
I0720 13:40:57.144769 24922 net.cpp:261] This network produces output h_pseudoloss
I0720 13:40:57.144773 24903 net.cpp:91] Creating Layer lstm1_h_conted_0
I0720 13:40:57.144784 24903 net.cpp:425] lstm1_h_conted_0 <- h_0
I0720 13:40:57.144794 24903 net.cpp:425] lstm1_h_conted_0 <- cont_1_lstm1_cont_slice_0_split_0
I0720 13:40:57.144796 24922 net.cpp:274] Network initialization done.
I0720 13:40:57.144809 24903 net.cpp:399] lstm1_h_conted_0 -> h_conted_0
I0720 13:40:57.144840 24903 net.cpp:141] Setting up lstm1_h_conted_0
I0720 13:40:57.144853 24903 net.cpp:148] Top shape: 1 1 1000 (1000)
I0720 13:40:57.144860 24903 net.cpp:156] Memory required for data: 46016
I0720 13:40:57.144867 24903 layer_factory.hpp:77] Creating layer lstm1_transform_1
I0720 13:40:57.144876 24922 recurrent_layer.cpp:150] Adding parameter 0: W_xc
I0720 13:40:57.144882 24903 net.cpp:91] Creating Layer lstm1_transform_1
I0720 13:40:57.144886 24922 recurrent_layer.cpp:150] Adding parameter 1: b_c
I0720 13:40:57.144891 24903 net.cpp:425] lstm1_transform_1 <- h_conted_0
I0720 13:40:57.144894 24922 recurrent_layer.cpp:150] Adding parameter 2: W_hc
I0720 13:40:57.144909 24903 net.cpp:399] lstm1_transform_1 -> W_hc_h_0
I0720 13:40:57.144950 24922 net.cpp:141] Setting up lstm1
I0720 13:40:57.144963 24922 net.cpp:148] Top shape: 1 1 1000 (1000)
I0720 13:40:57.144969 24922 net.cpp:156] Memory required for data: 26408
I0720 13:40:57.144987 24922 layer_factory.hpp:77] Creating layer concat
I0720 13:40:57.144999 24922 net.cpp:91] Creating Layer concat
I0720 13:40:57.145007 24922 net.cpp:425] concat <- lstm1
I0720 13:40:57.145016 24922 net.cpp:425] concat <- embedded_input_sentence
I0720 13:40:57.145026 24922 net.cpp:425] concat <- reshaped_stage_indicator
I0720 13:40:57.145035 24922 net.cpp:399] concat -> lstm1_video_sequence
I0720 13:40:57.145050 24922 net.cpp:141] Setting up concat
I0720 13:40:57.145058 24922 net.cpp:148] Top shape: 1 1 1501 (1501)
I0720 13:40:57.145066 24922 net.cpp:156] Memory required for data: 32412
I0720 13:40:57.145071 24922 layer_factory.hpp:77] Creating layer lstm2
I0720 13:40:57.145087 24922 net.cpp:91] Creating Layer lstm2
I0720 13:40:57.145094 24922 net.cpp:425] lstm2 <- lstm1_video_sequence
I0720 13:40:57.145102 24922 net.cpp:425] lstm2 <- cont_sentence_input_1_split_1
I0720 13:40:57.145112 24922 net.cpp:399] lstm2 -> lstm2
I0720 13:40:57.145159 24922 recurrent_layer.cpp:20] Initializing recurrent layer: assuming input batch contains 1 timesteps of 1 independent streams.
I0720 13:40:57.145553 24922 net.cpp:49] Initializing net from parameters: 
layer {
  name: "lstm2_"
  type: "Input"
  top: "x"
  top: "cont"
  input_param {
    shape {
      dim: 1
      dim: 1
      dim: 1501
    }
    shape {
      dim: 1
      dim: 1
    }
  }
}
layer {
  name: "lstm2_"
  type: "Input"
  top: "c_0"
  top: "h_0"
  input_param {
    shape {
      dim: 1
      dim: 1
      dim: 1000
    }
    shape {
      dim: 1
      dim: 1
      dim: 1000
    }
  }
}
layer {
  name: "lstm2_cont_slice"
  type: "Slice"
  bottom: "cont"
  top: "cont_1"
  slice_param {
    axis: 0
  }
}
layer {
  name: "lstm2_x_transform"
  type: "InnerProduct"
  bottom: "x"
  top: "W_xc_x"
  param {
    name: "W_xc"
  }
  param {
    name: "b_c"
  }
  propagate_down: true
  inner_product_param {
    num_output: 4000
    bias_term: true
    weight_filler {
      type: "uniform"
      min: -0.08
      max: 0.08
    }
    bias_filler {
      type: "constant"
      value: 0
    }
    axis: 2
  }
}
layer {
  name: "lstm2_W_xc_x_slice"
  type: "Slice"
  bottom: "W_xc_x"
  top: "W_xc_x_1"
  slice_param {
    axis: 0
  }
}
layer {
  name: "lstm2_h_conted_0"
  type: "Scale"
  bottom: "h_0"
  bottom: "cont_1"
  top: "h_conted_0"
  scale_param {
    axis: 0
  }
}
layer {
  name: "lstm2_transform_1"
  type: "InnerProduct"
  bottom: "h_conted_0"
  top: "W_hc_h_0"
  param {
    name: "W_hc"
  }
  inner_product_param {
    num_output: 4000
    bias_term: false
    weight_filler {
      type: "uniform"
      min: -0.08
      max: 0.08
    }
    axis: 2
  }
}
layer {
  name: "lstm2_gate_input_1"
  type: "Eltwise"
  bottom: "W_hc_h_0"
  bottom: "W_xc_x_1"
  top: "gate_input_1"
  eltwise_param {
    operation: SUM
  }
}
layer {
  name: "lstm2_unit_1"
  type: "LSTMUnit"
  bottom: "c_0"
  bottom: "gate_input_1"
  bottom: "cont_1"
  top: "c_1"
  top: "h_1"
}
layer {
  name: "lstm2_"
  type: "Split"
  bottom: "c_1"
  top: "c_T"
}
layer {
  name: "lstm2_h_concat"
  type: "Concat"
  bottom: "h_1"
  top: "h"
  concat_param {
    axis: 0
  }
}
layer {
  name: "h_pseudoloss"
  type: "Reduction"
  bottom: "h"
  top: "h_pseudoloss"
  loss_weight: 1
}
I0720 13:40:57.146126 24922 layer_factory.hpp:77] Creating layer lstm2_
I0720 13:40:57.146144 24922 net.cpp:91] Creating Layer lstm2_
I0720 13:40:57.146153 24922 net.cpp:399] lstm2_ -> x
I0720 13:40:57.146168 24922 net.cpp:399] lstm2_ -> cont
I0720 13:40:57.146185 24922 net.cpp:141] Setting up lstm2_
I0720 13:40:57.146219 24922 net.cpp:148] Top shape: 1 1 1501 (1501)
I0720 13:40:57.146230 24922 net.cpp:148] Top shape: 1 1 (1)
I0720 13:40:57.146236 24922 net.cpp:156] Memory required for data: 6008
I0720 13:40:57.146244 24922 layer_factory.hpp:77] Creating layer lstm2_
I0720 13:40:57.146255 24922 net.cpp:91] Creating Layer lstm2_
I0720 13:40:57.146265 24922 net.cpp:399] lstm2_ -> c_0
I0720 13:40:57.146278 24922 net.cpp:399] lstm2_ -> h_0
I0720 13:40:57.146291 24922 net.cpp:141] Setting up lstm2_
I0720 13:40:57.146301 24922 net.cpp:148] Top shape: 1 1 1000 (1000)
I0720 13:40:57.146309 24922 net.cpp:148] Top shape: 1 1 1000 (1000)
I0720 13:40:57.146316 24922 net.cpp:156] Memory required for data: 14008
I0720 13:40:57.146322 24922 layer_factory.hpp:77] Creating layer lstm2_cont_slice
I0720 13:40:57.146332 24922 net.cpp:91] Creating Layer lstm2_cont_slice
I0720 13:40:57.146338 24922 net.cpp:425] lstm2_cont_slice <- cont
I0720 13:40:57.146347 24922 net.cpp:399] lstm2_cont_slice -> cont_1
I0720 13:40:57.146363 24922 net.cpp:141] Setting up lstm2_cont_slice
I0720 13:40:57.146371 24922 net.cpp:148] Top shape: 1 1 (1)
I0720 13:40:57.146378 24922 net.cpp:156] Memory required for data: 14012
I0720 13:40:57.146384 24922 layer_factory.hpp:77] Creating layer cont_1_lstm2_cont_slice_0_split
I0720 13:40:57.146392 24922 net.cpp:91] Creating Layer cont_1_lstm2_cont_slice_0_split
I0720 13:40:57.146399 24922 net.cpp:425] cont_1_lstm2_cont_slice_0_split <- cont_1
I0720 13:40:57.146741 24922 net.cpp:399] cont_1_lstm2_cont_slice_0_split -> cont_1_lstm2_cont_slice_0_split_0
I0720 13:40:57.146759 24922 net.cpp:399] cont_1_lstm2_cont_slice_0_split -> cont_1_lstm2_cont_slice_0_split_1
I0720 13:40:57.146772 24922 net.cpp:141] Setting up cont_1_lstm2_cont_slice_0_split
I0720 13:40:57.146781 24922 net.cpp:148] Top shape: 1 1 (1)
I0720 13:40:57.146790 24922 net.cpp:148] Top shape: 1 1 (1)
I0720 13:40:57.146795 24922 net.cpp:156] Memory required for data: 14020
I0720 13:40:57.146802 24922 layer_factory.hpp:77] Creating layer lstm2_x_transform
I0720 13:40:57.146816 24922 net.cpp:91] Creating Layer lstm2_x_transform
I0720 13:40:57.146822 24922 net.cpp:425] lstm2_x_transform <- x
I0720 13:40:57.146833 24922 net.cpp:399] lstm2_x_transform -> W_xc_x
I0720 13:40:57.152914 24917 net.cpp:141] Setting up embedding
I0720 13:40:57.152958 24917 net.cpp:148] Top shape: 1 1 500 (500)
I0720 13:40:57.152964 24917 net.cpp:156] Memory required for data: 22408
I0720 13:40:57.152981 24917 layer_factory.hpp:77] Creating layer lstm1
I0720 13:40:57.152998 24917 net.cpp:91] Creating Layer lstm1
I0720 13:40:57.153007 24917 net.cpp:425] lstm1 <- embedded_input_frames
I0720 13:40:57.153015 24917 net.cpp:425] lstm1 <- cont_sentence_input_1_split_0
I0720 13:40:57.153496 24917 net.cpp:399] lstm1 -> lstm1
I0720 13:40:57.153523 24917 recurrent_layer.cpp:20] Initializing recurrent layer: assuming input batch contains 1 timesteps of 1 independent streams.
I0720 13:40:57.154772 24917 net.cpp:49] Initializing net from parameters: 
layer {
  name: "lstm1_"
  type: "Input"
  top: "x"
  top: "cont"
  input_param {
    shape {
      dim: 1
      dim: 1
      dim: 500
    }
    shape {
      dim: 1
      dim: 1
    }
  }
}
layer {
  name: "lstm1_"
  type: "Input"
  top: "c_0"
  top: "h_0"
  input_param {
    shape {
      dim: 1
      dim: 1
      dim: 1000
    }
    shape {
      dim: 1
      dim: 1
      dim: 1000
    }
  }
}
layer {
  name: "lstm1_cont_slice"
  type: "Slice"
  bottom: "cont"
  top: "cont_1"
  slice_param {
    axis: 0
  }
}
layer {
  name: "lstm1_x_transform"
  type: "InnerProduct"
  bottom: "x"
  top: "W_xc_x"
  param {
    name: "W_xc"
  }
  param {
    name: "b_c"
  }
  propagate_down: true
  inner_product_param {
    num_output: 4000
    bias_term: true
    weight_filler {
      type: "uniform"
      min: -0.08
      max: 0.08
    }
    bias_filler {
      type: "constant"
      value: 0
    }
    axis: 2
  }
}
layer {
  name: "lstm1_W_xc_x_slice"
  type: "Slice"
  bottom: "W_xc_x"
  top: "W_xc_x_1"
  slice_param {
    axis: 0
  }
}
layer {
  name: "lstm1_h_conted_0"
  type: "Scale"
  bottom: "h_0"
  bottom: "cont_1"
  top: "h_conted_0"
  scale_param {
    axis: 0
  }
}
layer {
  name: "lstm1_transform_1"
  type: "InnerProduct"
  bottom: "h_conted_0"
  top: "W_hc_h_0"
  param {
    name: "W_hc"
  }
  inner_product_param {
    num_output: 4000
    bias_term: false
    weight_filler {
      type: "uniform"
      min: -0.08
      max: 0.08
    }
    axis: 2
  }
}
layer {
  name: "lstm1_gate_input_1"
  type: "Eltwise"
  bottom: "W_hc_h_0"
  bottom: "W_xc_x_1"
  top: "gate_input_1"
  eltwise_param {
    operation: SUM
  }
}
layer {
  name: "lstm1_unit_1"
  type: "LSTMUnit"
  bottom: "c_0"
  bottom: "gate_input_1"
  bottom: "cont_1"
  top: "c_1"
  top: "h_1"
}
layer {
  name: "lstm1_"
  type: "Split"
  bottom: "c_1"
  top: "c_T"
}
layer {
  name: "lstm1_h_concat"
  type: "Concat"
  bottom: "h_1"
  top: "h"
  concat_param {
    axis: 0
  }
}
layer {
  name: "h_pseudoloss"
  type: "Reduction"
  bottom: "h"
  top: "h_pseudoloss"
  loss_weight: 1
}
I0720 13:40:57.155396 24917 layer_factory.hpp:77] Creating layer lstm1_
I0720 13:40:57.155416 24917 net.cpp:91] Creating Layer lstm1_
I0720 13:40:57.155421 24917 net.cpp:399] lstm1_ -> x
I0720 13:40:57.155433 24917 net.cpp:399] lstm1_ -> cont
I0720 13:40:57.155447 24917 net.cpp:141] Setting up lstm1_
I0720 13:40:57.155454 24917 net.cpp:148] Top shape: 1 1 500 (500)
I0720 13:40:57.155460 24917 net.cpp:148] Top shape: 1 1 (1)
I0720 13:40:57.155464 24917 net.cpp:156] Memory required for data: 2004
I0720 13:40:57.155469 24917 layer_factory.hpp:77] Creating layer lstm1_
I0720 13:40:57.155475 24917 net.cpp:91] Creating Layer lstm1_
I0720 13:40:57.155481 24917 net.cpp:399] lstm1_ -> c_0
I0720 13:40:57.155490 24917 net.cpp:399] lstm1_ -> h_0
I0720 13:40:57.155499 24917 net.cpp:141] Setting up lstm1_
I0720 13:40:57.155506 24917 net.cpp:148] Top shape: 1 1 1000 (1000)
I0720 13:40:57.155511 24917 net.cpp:148] Top shape: 1 1 1000 (1000)
I0720 13:40:57.155515 24917 net.cpp:156] Memory required for data: 10004
I0720 13:40:57.155519 24917 layer_factory.hpp:77] Creating layer lstm1_cont_slice
I0720 13:40:57.155526 24917 net.cpp:91] Creating Layer lstm1_cont_slice
I0720 13:40:57.155531 24917 net.cpp:425] lstm1_cont_slice <- cont
I0720 13:40:57.155984 24917 net.cpp:399] lstm1_cont_slice -> cont_1
I0720 13:40:57.156013 24917 net.cpp:141] Setting up lstm1_cont_slice
I0720 13:40:57.156021 24917 net.cpp:148] Top shape: 1 1 (1)
I0720 13:40:57.156026 24917 net.cpp:156] Memory required for data: 10008
I0720 13:40:57.156030 24917 layer_factory.hpp:77] Creating layer cont_1_lstm1_cont_slice_0_split
I0720 13:40:57.156038 24917 net.cpp:91] Creating Layer cont_1_lstm1_cont_slice_0_split
I0720 13:40:57.156044 24917 net.cpp:425] cont_1_lstm1_cont_slice_0_split <- cont_1
I0720 13:40:57.156059 24917 net.cpp:399] cont_1_lstm1_cont_slice_0_split -> cont_1_lstm1_cont_slice_0_split_0
I0720 13:40:57.156066 24917 net.cpp:399] cont_1_lstm1_cont_slice_0_split -> cont_1_lstm1_cont_slice_0_split_1
I0720 13:40:57.156077 24917 net.cpp:141] Setting up cont_1_lstm1_cont_slice_0_split
I0720 13:40:57.156083 24917 net.cpp:148] Top shape: 1 1 (1)
I0720 13:40:57.156088 24917 net.cpp:148] Top shape: 1 1 (1)
I0720 13:40:57.156092 24917 net.cpp:156] Memory required for data: 10016
I0720 13:40:57.156096 24917 layer_factory.hpp:77] Creating layer lstm1_x_transform
I0720 13:40:57.156105 24917 net.cpp:91] Creating Layer lstm1_x_transform
I0720 13:40:57.156110 24917 net.cpp:425] lstm1_x_transform <- x
I0720 13:40:57.156592 24917 net.cpp:399] lstm1_x_transform -> W_xc_x
I0720 13:40:57.169262 24938 net.cpp:141] Setting up embedding
I0720 13:40:57.169314 24938 net.cpp:148] Top shape: 1 1 500 (500)
I0720 13:40:57.169323 24938 net.cpp:156] Memory required for data: 22408
I0720 13:40:57.169344 24938 layer_factory.hpp:77] Creating layer lstm1
I0720 13:40:57.169394 24938 net.cpp:91] Creating Layer lstm1
I0720 13:40:57.169409 24938 net.cpp:425] lstm1 <- embedded_input_frames
I0720 13:40:57.169420 24938 net.cpp:425] lstm1 <- cont_sentence_input_1_split_0
I0720 13:40:57.169438 24938 net.cpp:399] lstm1 -> lstm1
I0720 13:40:57.169461 24938 recurrent_layer.cpp:20] Initializing recurrent layer: assuming input batch contains 1 timesteps of 1 independent streams.
I0720 13:40:57.169889 24938 net.cpp:49] Initializing net from parameters: 
layer {
  name: "lstm1_"
  type: "Input"
  top: "x"
  top: "cont"
  input_param {
    shape {
      dim: 1
      dim: 1
      dim: 500
    }
    shape {
      dim: 1
      dim: 1
    }
  }
}
layer {
  name: "lstm1_"
  type: "Input"
  top: "c_0"
  top: "h_0"
  input_param {
    shape {
      dim: 1
      dim: 1
      dim: 1000
    }
    shape {
      dim: 1
      dim: 1
      dim: 1000
    }
  }
}
layer {
  name: "lstm1_cont_slice"
  type: "Slice"
  bottom: "cont"
  top: "cont_1"
  slice_param {
    axis: 0
  }
}
layer {
  name: "lstm1_x_transform"
  type: "InnerProduct"
  bottom: "x"
  top: "W_xc_x"
  param {
    name: "W_xc"
  }
  param {
    name: "b_c"
  }
  propagate_down: true
  inner_product_param {
    num_output: 4000
    bias_term: true
    weight_filler {
      type: "uniform"
      min: -0.08
      max: 0.08
    }
    bias_filler {
      type: "constant"
      value: 0
    }
    axis: 2
  }
}
layer {
  name: "lstm1_W_xc_x_slice"
  type: "Slice"
  bottom: "W_xc_x"
  top: "W_xc_x_1"
  slice_param {
    axis: 0
  }
}
layer {
  name: "lstm1_h_conted_0"
  type: "Scale"
  bottom: "h_0"
  bottom: "cont_1"
  top: "h_conted_0"
  scale_param {
    axis: 0
  }
}
layer {
  name: "lstm1_transform_1"
  type: "InnerProduct"
  bottom: "h_conted_0"
  top: "W_hc_h_0"
  param {
    name: "W_hc"
  }
  inner_product_param {
    num_output: 4000
    bias_term: false
    weight_filler {
      type: "uniform"
      min: -0.08
      max: 0.08
    }
    axis: 2
  }
}
layer {
  name: "lstm1_gate_input_1"
  type: "Eltwise"
  bottom: "W_hc_h_0"
  bottom: "W_xc_x_1"
  top: "gate_input_1"
  eltwise_param {
    operation: SUM
  }
}
layer {
  name: "lstm1_unit_1"
  type: "LSTMUnit"
  bottom: "c_0"
  bottom: "gate_input_1"
  bottom: "cont_1"
  top: "c_1"
  top: "h_1"
}
layer {
  name: "lstm1_"
  type: "Split"
  bottom: "c_1"
  top: "c_T"
}
layer {
  name: "lstm1_h_concat"
  type: "Concat"
  bottom: "h_1"
  top: "h"
  concat_param {
    axis: 0
  }
}
layer {
  name: "h_pseudoloss"
  type: "Reduction"
  bottom: "h"
  top: "h_pseudoloss"
  loss_weight: 1
}
I0720 13:40:57.170047 24938 layer_factory.hpp:77] Creating layer lstm1_
I0720 13:40:57.170068 24938 net.cpp:91] Creating Layer lstm1_
I0720 13:40:57.170080 24938 net.cpp:399] lstm1_ -> x
I0720 13:40:57.170097 24938 net.cpp:399] lstm1_ -> cont
I0720 13:40:57.170116 24938 net.cpp:141] Setting up lstm1_
I0720 13:40:57.170128 24938 net.cpp:148] Top shape: 1 1 500 (500)
I0720 13:40:57.170140 24938 net.cpp:148] Top shape: 1 1 (1)
I0720 13:40:57.170145 24938 net.cpp:156] Memory required for data: 2004
I0720 13:40:57.170153 24938 layer_factory.hpp:77] Creating layer lstm1_
I0720 13:40:57.170166 24938 net.cpp:91] Creating Layer lstm1_
I0720 13:40:57.170176 24938 net.cpp:399] lstm1_ -> c_0
I0720 13:40:57.170192 24938 net.cpp:399] lstm1_ -> h_0
I0720 13:40:57.170207 24938 net.cpp:141] Setting up lstm1_
I0720 13:40:57.170218 24938 net.cpp:148] Top shape: 1 1 1000 (1000)
I0720 13:40:57.170228 24938 net.cpp:148] Top shape: 1 1 1000 (1000)
I0720 13:40:57.170235 24938 net.cpp:156] Memory required for data: 10004
I0720 13:40:57.170243 24938 layer_factory.hpp:77] Creating layer lstm1_cont_slice
I0720 13:40:57.170297 24938 net.cpp:91] Creating Layer lstm1_cont_slice
I0720 13:40:57.170310 24938 net.cpp:425] lstm1_cont_slice <- cont
I0720 13:40:57.170323 24938 net.cpp:399] lstm1_cont_slice -> cont_1
I0720 13:40:57.170349 24938 net.cpp:141] Setting up lstm1_cont_slice
I0720 13:40:57.170362 24938 net.cpp:148] Top shape: 1 1 (1)
I0720 13:40:57.170370 24938 net.cpp:156] Memory required for data: 10008
I0720 13:40:57.170378 24938 layer_factory.hpp:77] Creating layer cont_1_lstm1_cont_slice_0_split
I0720 13:40:57.170413 24938 net.cpp:91] Creating Layer cont_1_lstm1_cont_slice_0_split
I0720 13:40:57.170423 24938 net.cpp:425] cont_1_lstm1_cont_slice_0_split <- cont_1
I0720 13:40:57.170435 24938 net.cpp:399] cont_1_lstm1_cont_slice_0_split -> cont_1_lstm1_cont_slice_0_split_0
I0720 13:40:57.170449 24938 net.cpp:399] cont_1_lstm1_cont_slice_0_split -> cont_1_lstm1_cont_slice_0_split_1
I0720 13:40:57.170464 24938 net.cpp:141] Setting up cont_1_lstm1_cont_slice_0_split
I0720 13:40:57.170475 24938 net.cpp:148] Top shape: 1 1 (1)
I0720 13:40:57.170483 24938 net.cpp:148] Top shape: 1 1 (1)
I0720 13:40:57.170490 24938 net.cpp:156] Memory required for data: 10016
I0720 13:40:57.170497 24938 layer_factory.hpp:77] Creating layer lstm1_x_transform
I0720 13:40:57.170518 24938 net.cpp:91] Creating Layer lstm1_x_transform
I0720 13:40:57.170528 24938 net.cpp:425] lstm1_x_transform <- x
I0720 13:40:57.170544 24938 net.cpp:399] lstm1_x_transform -> W_xc_x
I0720 13:40:57.173355 24948 net.cpp:141] Setting up embedding
I0720 13:40:57.173403 24948 net.cpp:148] Top shape: 1 1 500 (500)
I0720 13:40:57.173409 24948 net.cpp:156] Memory required for data: 22408
I0720 13:40:57.173425 24948 layer_factory.hpp:77] Creating layer lstm1
I0720 13:40:57.173490 24948 net.cpp:91] Creating Layer lstm1
I0720 13:40:57.173499 24948 net.cpp:425] lstm1 <- embedded_input_frames
I0720 13:40:57.173507 24948 net.cpp:425] lstm1 <- cont_sentence_input_1_split_0
I0720 13:40:57.173518 24948 net.cpp:399] lstm1 -> lstm1
I0720 13:40:57.173538 24948 recurrent_layer.cpp:20] Initializing recurrent layer: assuming input batch contains 1 timesteps of 1 independent streams.
I0720 13:40:57.173925 24948 net.cpp:49] Initializing net from parameters: 
layer {
  name: "lstm1_"
  type: "Input"
  top: "x"
  top: "cont"
  input_param {
    shape {
      dim: 1
      dim: 1
      dim: 500
    }
    shape {
      dim: 1
      dim: 1
    }
  }
}
layer {
  name: "lstm1_"
  type: "Input"
  top: "c_0"
  top: "h_0"
  input_param {
    shape {
      dim: 1
      dim: 1
      dim: 1000
    }
    shape {
      dim: 1
      dim: 1
      dim: 1000
    }
  }
}
layer {
  name: "lstm1_cont_slice"
  type: "Slice"
  bottom: "cont"
  top: "cont_1"
  slice_param {
    axis: 0
  }
}
layer {
  name: "lstm1_x_transform"
  type: "InnerProduct"
  bottom: "x"
  top: "W_xc_x"
  param {
    name: "W_xc"
  }
  param {
    name: "b_c"
  }
  propagate_down: true
  inner_product_param {
    num_output: 4000
    bias_term: true
    weight_filler {
      type: "uniform"
      min: -0.08
      max: 0.08
    }
    bias_filler {
      type: "constant"
      value: 0
    }
    axis: 2
  }
}
layer {
  name: "lstm1_W_xc_x_slice"
  type: "Slice"
  bottom: "W_xc_x"
  top: "W_xc_x_1"
  slice_param {
    axis: 0
  }
}
layer {
  name: "lstm1_h_conted_0"
  type: "Scale"
  bottom: "h_0"
  bottom: "cont_1"
  top: "h_conted_0"
  scale_param {
    axis: 0
  }
}
layer {
  name: "lstm1_transform_1"
  type: "InnerProduct"
  bottom: "h_conted_0"
  top: "W_hc_h_0"
  param {
    name: "W_hc"
  }
  inner_product_param {
    num_output: 4000
    bias_term: false
    weight_filler {
      type: "uniform"
      min: -0.08
      max: 0.08
    }
    axis: 2
  }
}
layer {
  name: "lstm1_gate_input_1"
  type: "Eltwise"
  bottom: "W_hc_h_0"
  bottom: "W_xc_x_1"
  top: "gate_input_1"
  eltwise_param {
    operation: SUM
  }
}
layer {
  name: "lstm1_unit_1"
  type: "LSTMUnit"
  bottom: "c_0"
  bottom: "gate_input_1"
  bottom: "cont_1"
  top: "c_1"
  top: "h_1"
}
layer {
  name: "lstm1_"
  type: "Split"
  bottom: "c_1"
  top: "c_T"
}
layer {
  name: "lstm1_h_concat"
  type: "Concat"
  bottom: "h_1"
  top: "h"
  concat_param {
    axis: 0
  }
}
layer {
  name: "h_pseudoloss"
  type: "Reduction"
  bottom: "h"
  top: "h_pseudoloss"
  loss_weight: 1
}
I0720 13:40:57.174062 24948 layer_factory.hpp:77] Creating layer lstm1_
I0720 13:40:57.174077 24948 net.cpp:91] Creating Layer lstm1_
I0720 13:40:57.174083 24948 net.cpp:399] lstm1_ -> x
I0720 13:40:57.174095 24948 net.cpp:399] lstm1_ -> cont
I0720 13:40:57.174109 24948 net.cpp:141] Setting up lstm1_
I0720 13:40:57.174118 24948 net.cpp:148] Top shape: 1 1 500 (500)
I0720 13:40:57.174124 24948 net.cpp:148] Top shape: 1 1 (1)
I0720 13:40:57.174127 24948 net.cpp:156] Memory required for data: 2004
I0720 13:40:57.174134 24948 layer_factory.hpp:77] Creating layer lstm1_
I0720 13:40:57.174141 24948 net.cpp:91] Creating Layer lstm1_
I0720 13:40:57.174146 24948 net.cpp:399] lstm1_ -> c_0
I0720 13:40:57.174156 24948 net.cpp:399] lstm1_ -> h_0
I0720 13:40:57.174168 24948 net.cpp:141] Setting up lstm1_
I0720 13:40:57.174175 24948 net.cpp:148] Top shape: 1 1 1000 (1000)
I0720 13:40:57.174180 24948 net.cpp:148] Top shape: 1 1 1000 (1000)
I0720 13:40:57.174183 24948 net.cpp:156] Memory required for data: 10004
I0720 13:40:57.174187 24948 layer_factory.hpp:77] Creating layer lstm1_cont_slice
I0720 13:40:57.174201 24948 net.cpp:91] Creating Layer lstm1_cont_slice
I0720 13:40:57.174206 24948 net.cpp:425] lstm1_cont_slice <- cont
I0720 13:40:57.174232 24948 net.cpp:399] lstm1_cont_slice -> cont_1
I0720 13:40:57.174247 24948 net.cpp:141] Setting up lstm1_cont_slice
I0720 13:40:57.174254 24948 net.cpp:148] Top shape: 1 1 (1)
I0720 13:40:57.174259 24948 net.cpp:156] Memory required for data: 10008
I0720 13:40:57.174263 24948 layer_factory.hpp:77] Creating layer cont_1_lstm1_cont_slice_0_split
I0720 13:40:57.174274 24948 net.cpp:91] Creating Layer cont_1_lstm1_cont_slice_0_split
I0720 13:40:57.174280 24948 net.cpp:425] cont_1_lstm1_cont_slice_0_split <- cont_1
I0720 13:40:57.174286 24948 net.cpp:399] cont_1_lstm1_cont_slice_0_split -> cont_1_lstm1_cont_slice_0_split_0
I0720 13:40:57.174294 24948 net.cpp:399] cont_1_lstm1_cont_slice_0_split -> cont_1_lstm1_cont_slice_0_split_1
I0720 13:40:57.174304 24948 net.cpp:141] Setting up cont_1_lstm1_cont_slice_0_split
I0720 13:40:57.174310 24948 net.cpp:148] Top shape: 1 1 (1)
I0720 13:40:57.174316 24948 net.cpp:148] Top shape: 1 1 (1)
I0720 13:40:57.174320 24948 net.cpp:156] Memory required for data: 10016
I0720 13:40:57.174324 24948 layer_factory.hpp:77] Creating layer lstm1_x_transform
I0720 13:40:57.174347 24948 net.cpp:91] Creating Layer lstm1_x_transform
I0720 13:40:57.174355 24948 net.cpp:425] lstm1_x_transform <- x
I0720 13:40:57.174367 24948 net.cpp:399] lstm1_x_transform -> W_xc_x
I0720 13:40:57.181977 24905 net.cpp:141] Setting up embedding
I0720 13:40:57.182021 24905 net.cpp:148] Top shape: 1 1 500 (500)
I0720 13:40:57.182027 24905 net.cpp:156] Memory required for data: 22408
I0720 13:40:57.182042 24905 layer_factory.hpp:77] Creating layer lstm1
I0720 13:40:57.182060 24905 net.cpp:91] Creating Layer lstm1
I0720 13:40:57.182067 24905 net.cpp:425] lstm1 <- embedded_input_frames
I0720 13:40:57.182075 24905 net.cpp:425] lstm1 <- cont_sentence_input_1_split_0
I0720 13:40:57.182096 24905 net.cpp:399] lstm1 -> lstm1
I0720 13:40:57.182111 24905 recurrent_layer.cpp:20] Initializing recurrent layer: assuming input batch contains 1 timesteps of 1 independent streams.
I0720 13:40:57.182273 24944 net.cpp:141] Setting up embedding
I0720 13:40:57.182307 24944 net.cpp:148] Top shape: 1 1 500 (500)
I0720 13:40:57.182312 24944 net.cpp:156] Memory required for data: 22408
I0720 13:40:57.182329 24944 layer_factory.hpp:77] Creating layer lstm1
I0720 13:40:57.182348 24944 net.cpp:91] Creating Layer lstm1
I0720 13:40:57.182355 24944 net.cpp:425] lstm1 <- embedded_input_frames
I0720 13:40:57.182364 24944 net.cpp:425] lstm1 <- cont_sentence_input_1_split_0
I0720 13:40:57.182404 24944 net.cpp:399] lstm1 -> lstm1
I0720 13:40:57.182410 24905 net.cpp:49] Initializing net from parameters: 
layer {
  name: "lstm1_"
  type: "Input"
  top: "x"
  top: "cont"
  input_param {
    shape {
      dim: 1
      dim: 1
      dim: 500
    }
    shape {
      dim: 1
      dim: 1
    }
  }
}
layer {
  name: "lstm1_"
  type: "Input"
  top: "c_0"
  top: "h_0"
  input_param {
    shape {
      dim: 1
      dim: 1
      dim: 1000
    }
    shape {
      dim: 1
      dim: 1
      dim: 1000
    }
  }
}
layer {
  name: "lstm1_cont_slice"
  type: "Slice"
  bottom: "cont"
  top: "cont_1"
  slice_param {
    axis: 0
  }
}
layer {
  name: "lstm1_x_transform"
  type: "InnerProduct"
  bottom: "x"
  top: "W_xc_x"
  param {
    name: "W_xc"
  }
  param {
    name: "b_c"
  }
  propagate_down: true
  inner_product_param {
    num_output: 4000
    bias_term: true
    weight_filler {
      type: "uniform"
      min: -0.08
      max: 0.08
    }
    bias_filler {
      type: "constant"
      value: 0
    }
    axis: 2
  }
}
layer {
  name: "lstm1_W_xc_x_slice"
  type: "Slice"
  bottom: "W_xc_x"
  top: "W_xc_x_1"
  slice_param {
    axis: 0
  }
}
layer {
  name: "lstm1_h_conted_0"
  type: "Scale"
  bottom: "h_0"
  bottom: "cont_1"
  top: "h_conted_0"
  scale_param {
    axis: 0
  }
}
layer {
  name: "lstm1_transform_1"
  type: "InnerProduct"
  bottom: "h_conted_0"
  top: "W_hc_h_0"
  param {
    name: "W_hc"
  }
  inner_product_param {
    num_output: 4000
    bias_term: false
    weight_filler {
      type: "uniform"
      min: -0.08
      max: 0.08
    }
    axis: 2
  }
}
layer {
  name: "lstm1_gate_input_1"
  type: "Eltwise"
  bottom: "W_hc_h_0"
  bottom: "W_xc_x_1"
  top: "gate_input_1"
  eltwise_param {
    operation: SUM
  }
}
layer {
  name: "lstm1_unit_1"
  type: "LSTMUnit"
  bottom: "c_0"
  bottom: "gate_input_1"
  bottom: "cont_1"
  top: "c_1"
  top: "h_1"
}
layer {
  name: "lstm1_"
  type: "Split"
  bottom: "c_1"
  top: "c_T"
}
layer {
  name: "lstm1_h_concat"
  type: "Concat"
  bottom: "h_1"
  top: "h"
  concat_param {
    axis: 0
  }
}
layer {
  name: "h_pseudoloss"
  type: "Reduction"
  bottom: "h"
  top: "h_pseudoloss"
  loss_weight: 1
}
I0720 13:40:57.182421 24944 recurrent_layer.cpp:20] Initializing recurrent layer: assuming input batch contains 1 timesteps of 1 independent streams.
I0720 13:40:57.182502 24905 layer_factory.hpp:77] Creating layer lstm1_
I0720 13:40:57.182514 24905 net.cpp:91] Creating Layer lstm1_
I0720 13:40:57.182520 24905 net.cpp:399] lstm1_ -> x
I0720 13:40:57.182531 24905 net.cpp:399] lstm1_ -> cont
I0720 13:40:57.182544 24905 net.cpp:141] Setting up lstm1_
I0720 13:40:57.182551 24905 net.cpp:148] Top shape: 1 1 500 (500)
I0720 13:40:57.182557 24905 net.cpp:148] Top shape: 1 1 (1)
I0720 13:40:57.182561 24905 net.cpp:156] Memory required for data: 2004
I0720 13:40:57.182565 24905 layer_factory.hpp:77] Creating layer lstm1_
I0720 13:40:57.182572 24905 net.cpp:91] Creating Layer lstm1_
I0720 13:40:57.182579 24905 net.cpp:399] lstm1_ -> c_0
I0720 13:40:57.182588 24905 net.cpp:399] lstm1_ -> h_0
I0720 13:40:57.182597 24905 net.cpp:141] Setting up lstm1_
I0720 13:40:57.182603 24905 net.cpp:148] Top shape: 1 1 1000 (1000)
I0720 13:40:57.182610 24905 net.cpp:148] Top shape: 1 1 1000 (1000)
I0720 13:40:57.182613 24905 net.cpp:156] Memory required for data: 10004
I0720 13:40:57.182617 24905 layer_factory.hpp:77] Creating layer lstm1_cont_slice
I0720 13:40:57.182626 24905 net.cpp:91] Creating Layer lstm1_cont_slice
I0720 13:40:57.182629 24905 net.cpp:425] lstm1_cont_slice <- cont
I0720 13:40:57.182636 24905 net.cpp:399] lstm1_cont_slice -> cont_1
I0720 13:40:57.182647 24905 net.cpp:141] Setting up lstm1_cont_slice
I0720 13:40:57.182653 24905 net.cpp:148] Top shape: 1 1 (1)
I0720 13:40:57.182657 24905 net.cpp:156] Memory required for data: 10008
I0720 13:40:57.182662 24905 layer_factory.hpp:77] Creating layer cont_1_lstm1_cont_slice_0_split
I0720 13:40:57.182672 24905 net.cpp:91] Creating Layer cont_1_lstm1_cont_slice_0_split
I0720 13:40:57.182677 24905 net.cpp:425] cont_1_lstm1_cont_slice_0_split <- cont_1
I0720 13:40:57.182683 24905 net.cpp:399] cont_1_lstm1_cont_slice_0_split -> cont_1_lstm1_cont_slice_0_split_0
I0720 13:40:57.182700 24905 net.cpp:399] cont_1_lstm1_cont_slice_0_split -> cont_1_lstm1_cont_slice_0_split_1
I0720 13:40:57.182708 24944 net.cpp:49] Initializing net from parameters: 
layer {
  name: "lstm1_"
  type: "Input"
  top: "x"
  top: "cont"
  input_param {
    shape {
      dim: 1
      dim: 1
      dim: 500
    }
    shape {
      dim: 1
      dim: 1
    }
  }
}
layer {
  name: "lstm1_"
  type: "Input"
  top: "c_0"
  top: "h_0"
  input_param {
    shape {
      dim: 1
      dim: 1
      dim: 1000
    }
    shape {
      dim: 1
      dim: 1
      dim: 1000
    }
  }
}
layer {
  name: "lstm1_cont_slice"
  type: "Slice"
  bottom: "cont"
  top: "cont_1"
  slice_param {
    axis: 0
  }
}
layer {
  name: "lstm1_x_transform"
  type: "InnerProduct"
  bottom: "x"
  top: "W_xc_x"
  param {
    name: "W_xc"
  }
  param {
    name: "b_c"
  }
  propagate_down: true
  inner_product_param {
    num_output: 4000
    bias_term: true
    weight_filler {
      type: "uniform"
      min: -0.08
      max: 0.08
    }
    bias_filler {
      type: "constant"
      value: 0
    }
    axis: 2
  }
}
layer {
  name: "lstm1_W_xc_x_slice"
  type: "Slice"
  bottom: "W_xc_x"
  top: "W_xc_x_1"
  slice_param {
    axis: 0
  }
}
layer {
  name: "lstm1_h_conted_0"
  type: "Scale"
  bottom: "h_0"
  bottom: "cont_1"
  top: "h_conted_0"
  scale_param {
    axis: 0
  }
}
layer {
  name: "lstm1_transform_1"
  type: "InnerProduct"
  bottom: "h_conted_0"
  top: "W_hc_h_0"
  param {
    name: "W_hc"
  }
  inner_product_param {
    num_output: 4000
    bias_term: false
    weight_filler {
      type: "uniform"
      min: -0.08
      max: 0.08
    }
    axis: 2
  }
}
layer {
  name: "lstm1_gate_input_1"
  type: "Eltwise"
  bottom: "W_hc_h_0"
  bottom: "W_xc_x_1"
  top: "gate_input_1"
  eltwise_param {
    operation: SUM
  }
}
layer {
  name: "lstm1_unit_1"
  type: "LSTMUnit"
  bottom: "c_0"
  bottom: "gate_input_1"
  bottom: "cont_1"
  top: "c_1"
  top: "h_1"
}
layer {
  name: "lstm1_"
  type: "Split"
  bottom: "c_1"
  top: "c_T"
}
layer {
  name: "lstm1_h_concat"
  type: "Concat"
  bottom: "h_1"
  top: "h"
  concat_param {
    axis: 0
  }
}
layer {
  name: "h_pseudoloss"
  type: "Reduction"
  bottom: "h"
  top: "h_pseudoloss"
  loss_weight: 1
}
I0720 13:40:57.182714 24905 net.cpp:141] Setting up cont_1_lstm1_cont_slice_0_split
I0720 13:40:57.182723 24905 net.cpp:148] Top shape: 1 1 (1)
I0720 13:40:57.182728 24905 net.cpp:148] Top shape: 1 1 (1)
I0720 13:40:57.182731 24905 net.cpp:156] Memory required for data: 10016
I0720 13:40:57.182735 24905 layer_factory.hpp:77] Creating layer lstm1_x_transform
I0720 13:40:57.182744 24905 net.cpp:91] Creating Layer lstm1_x_transform
I0720 13:40:57.182749 24905 net.cpp:425] lstm1_x_transform <- x
I0720 13:40:57.182760 24905 net.cpp:399] lstm1_x_transform -> W_xc_x
I0720 13:40:57.183274 24944 layer_factory.hpp:77] Creating layer lstm1_
I0720 13:40:57.183290 24944 net.cpp:91] Creating Layer lstm1_
I0720 13:40:57.183296 24944 net.cpp:399] lstm1_ -> x
I0720 13:40:57.183308 24944 net.cpp:399] lstm1_ -> cont
I0720 13:40:57.183320 24944 net.cpp:141] Setting up lstm1_
I0720 13:40:57.183328 24944 net.cpp:148] Top shape: 1 1 500 (500)
I0720 13:40:57.183333 24944 net.cpp:148] Top shape: 1 1 (1)
I0720 13:40:57.183337 24944 net.cpp:156] Memory required for data: 2004
I0720 13:40:57.183342 24944 layer_factory.hpp:77] Creating layer lstm1_
I0720 13:40:57.183349 24944 net.cpp:91] Creating Layer lstm1_
I0720 13:40:57.183356 24944 net.cpp:399] lstm1_ -> c_0
I0720 13:40:57.183364 24944 net.cpp:399] lstm1_ -> h_0
I0720 13:40:57.183373 24944 net.cpp:141] Setting up lstm1_
I0720 13:40:57.183379 24944 net.cpp:148] Top shape: 1 1 1000 (1000)
I0720 13:40:57.183384 24944 net.cpp:148] Top shape: 1 1 1000 (1000)
I0720 13:40:57.183388 24944 net.cpp:156] Memory required for data: 10004
I0720 13:40:57.183393 24944 layer_factory.hpp:77] Creating layer lstm1_cont_slice
I0720 13:40:57.183400 24944 net.cpp:91] Creating Layer lstm1_cont_slice
I0720 13:40:57.183404 24944 net.cpp:425] lstm1_cont_slice <- cont
I0720 13:40:57.183410 24944 net.cpp:399] lstm1_cont_slice -> cont_1
I0720 13:40:57.183423 24944 net.cpp:141] Setting up lstm1_cont_slice
I0720 13:40:57.183429 24944 net.cpp:148] Top shape: 1 1 (1)
I0720 13:40:57.183432 24944 net.cpp:156] Memory required for data: 10008
I0720 13:40:57.183436 24944 layer_factory.hpp:77] Creating layer cont_1_lstm1_cont_slice_0_split
I0720 13:40:57.183869 24944 net.cpp:91] Creating Layer cont_1_lstm1_cont_slice_0_split
I0720 13:40:57.183876 24944 net.cpp:425] cont_1_lstm1_cont_slice_0_split <- cont_1
I0720 13:40:57.183884 24944 net.cpp:399] cont_1_lstm1_cont_slice_0_split -> cont_1_lstm1_cont_slice_0_split_0
I0720 13:40:57.183892 24944 net.cpp:399] cont_1_lstm1_cont_slice_0_split -> cont_1_lstm1_cont_slice_0_split_1
I0720 13:40:57.183902 24944 net.cpp:141] Setting up cont_1_lstm1_cont_slice_0_split
I0720 13:40:57.183910 24944 net.cpp:148] Top shape: 1 1 (1)
I0720 13:40:57.183917 24944 net.cpp:148] Top shape: 1 1 (1)
I0720 13:40:57.183920 24944 net.cpp:156] Memory required for data: 10016
I0720 13:40:57.183924 24944 layer_factory.hpp:77] Creating layer lstm1_x_transform
I0720 13:40:57.183933 24944 net.cpp:91] Creating Layer lstm1_x_transform
I0720 13:40:57.183938 24944 net.cpp:425] lstm1_x_transform <- x
I0720 13:40:57.183948 24944 net.cpp:399] lstm1_x_transform -> W_xc_x
I0720 13:40:57.186410 24903 net.cpp:141] Setting up lstm1_transform_1
I0720 13:40:57.186457 24903 net.cpp:148] Top shape: 1 1 4000 (4000)
I0720 13:40:57.186463 24903 net.cpp:156] Memory required for data: 62016
I0720 13:40:57.186480 24903 layer_factory.hpp:77] Creating layer lstm1_gate_input_1
I0720 13:40:57.186496 24903 net.cpp:91] Creating Layer lstm1_gate_input_1
I0720 13:40:57.186502 24903 net.cpp:425] lstm1_gate_input_1 <- W_hc_h_0
I0720 13:40:57.186509 24903 net.cpp:425] lstm1_gate_input_1 <- W_xc_x_1
I0720 13:40:57.186517 24903 net.cpp:399] lstm1_gate_input_1 -> gate_input_1
I0720 13:40:57.186532 24903 net.cpp:141] Setting up lstm1_gate_input_1
I0720 13:40:57.186538 24903 net.cpp:148] Top shape: 1 1 4000 (4000)
I0720 13:40:57.186542 24903 net.cpp:156] Memory required for data: 78016
I0720 13:40:57.186547 24903 layer_factory.hpp:77] Creating layer lstm1_unit_1
I0720 13:40:57.186560 24903 net.cpp:91] Creating Layer lstm1_unit_1
I0720 13:40:57.186565 24903 net.cpp:425] lstm1_unit_1 <- c_0
I0720 13:40:57.186570 24903 net.cpp:425] lstm1_unit_1 <- gate_input_1
I0720 13:40:57.186575 24903 net.cpp:425] lstm1_unit_1 <- cont_1_lstm1_cont_slice_0_split_1
I0720 13:40:57.186583 24903 net.cpp:399] lstm1_unit_1 -> c_1
…
I0720 13:40:58.645761 24907 net.cpp:91] Creating Layer relu4
I0720 13:40:58.645766 24907 net.cpp:425] relu4 <- conv4
I0720 13:40:58.645774 24907 net.cpp:386] relu4 -> conv4 (in-place)
I0720 13:40:58.647428 24915 net.cpp:141] Setting up relu4
I0720 13:40:58.647459 24915 net.cpp:148] Top shape: 10 384 13 13 (648960)
I0720 13:40:58.647464 24915 net.cpp:156] Memory required for data: 63788600
I0720 13:40:58.647470 24915 layer_factory.hpp:77] Creating layer conv5
I0720 13:40:58.647485 24915 net.cpp:91] Creating Layer conv5
I0720 13:40:58.647490 24915 net.cpp:425] conv5 <- conv4
I0720 13:40:58.647503 24915 net.cpp:399] conv5 -> conv5
I0720 13:40:58.651104 24907 net.cpp:141] Setting up relu4
I0720 13:40:58.651129 24907 net.cpp:148] Top shape: 10 384 13 13 (648960)
I0720 13:40:58.651134 24907 net.cpp:156] Memory required for data: 63788600
I0720 13:40:58.651140 24907 layer_factory.hpp:77] Creating layer conv5
I0720 13:40:58.651157 24907 net.cpp:91] Creating Layer conv5
I0720 13:40:58.651163 24907 net.cpp:425] conv5 <- conv4
I0720 13:40:58.651172 24907 net.cpp:399] conv5 -> conv5
I0720 13:40:58.655982 24919 net.cpp:141] Setting up conv4
I0720 13:40:58.656008 24919 net.cpp:148] Top shape: 10 384 13 13 (648960)
I0720 13:40:58.656013 24919 net.cpp:156] Memory required for data: 61192760
I0720 13:40:58.656024 24919 layer_factory.hpp:77] Creating layer relu4
I0720 13:40:58.656034 24919 net.cpp:91] Creating Layer relu4
I0720 13:40:58.656040 24919 net.cpp:425] relu4 <- conv4
I0720 13:40:58.656054 24919 net.cpp:386] relu4 -> conv4 (in-place)
I0720 13:40:58.657953 24919 net.cpp:141] Setting up relu4
I0720 13:40:58.657970 24919 net.cpp:148] Top shape: 10 384 13 13 (648960)
I0720 13:40:58.657975 24919 net.cpp:156] Memory required for data: 63788600
I0720 13:40:58.657980 24919 layer_factory.hpp:77] Creating layer conv5
I0720 13:40:58.657995 24919 net.cpp:91] Creating Layer conv5
I0720 13:40:58.658000 24919 net.cpp:425] conv5 <- conv4
I0720 13:40:58.658007 24919 net.cpp:399] conv5 -> conv5
I0720 13:40:58.667423 24936 net.cpp:141] Setting up conv4
I0720 13:40:58.667449 24936 net.cpp:148] Top shape: 10 384 13 13 (648960)
I0720 13:40:58.667455 24936 net.cpp:156] Memory required for data: 61192760
I0720 13:40:58.667470 24936 layer_factory.hpp:77] Creating layer relu4
I0720 13:40:58.667489 24936 net.cpp:91] Creating Layer relu4
I0720 13:40:58.667495 24936 net.cpp:425] relu4 <- conv4
I0720 13:40:58.667502 24936 net.cpp:386] relu4 -> conv4 (in-place)
I0720 13:40:58.671808 24936 net.cpp:141] Setting up relu4
I0720 13:40:58.671828 24936 net.cpp:148] Top shape: 10 384 13 13 (648960)
I0720 13:40:58.671834 24936 net.cpp:156] Memory required for data: 63788600
I0720 13:40:58.671840 24936 layer_factory.hpp:77] Creating layer conv5
I0720 13:40:58.671854 24936 net.cpp:91] Creating Layer conv5
I0720 13:40:58.671859 24936 net.cpp:425] conv5 <- conv4
I0720 13:40:58.671867 24936 net.cpp:399] conv5 -> conv5
I0720 13:40:58.672209 24940 net.cpp:141] Setting up conv5
I0720 13:40:58.672219 24911 net.cpp:141] Setting up conv4
I0720 13:40:58.672233 24940 net.cpp:148] Top shape: 10 256 13 13 (432640)
I0720 13:40:58.672240 24940 net.cpp:156] Memory required for data: 65519160
I0720 13:40:58.672240 24911 net.cpp:148] Top shape: 10 384 13 13 (648960)
I0720 13:40:58.672248 24911 net.cpp:156] Memory required for data: 61192760
I0720 13:40:58.672258 24940 layer_factory.hpp:77] Creating layer relu5
I0720 13:40:58.672260 24911 layer_factory.hpp:77] Creating layer relu4
I0720 13:40:58.672272 24940 net.cpp:91] Creating Layer relu5
I0720 13:40:58.672278 24940 net.cpp:425] relu5 <- conv5
I0720 13:40:58.672303 24911 net.cpp:91] Creating Layer relu4
I0720 13:40:58.672312 24911 net.cpp:425] relu4 <- conv4
I0720 13:40:58.672319 24911 net.cpp:386] relu4 -> conv4 (in-place)
I0720 13:40:58.672319 24940 net.cpp:386] relu5 -> conv5 (in-place)
I0720 13:40:58.675355 24940 net.cpp:141] Setting up relu5
I0720 13:40:58.675366 24911 net.cpp:141] Setting up relu4
I0720 13:40:58.675374 24940 net.cpp:148] Top shape: 10 256 13 13 (432640)
I0720 13:40:58.675381 24940 net.cpp:156] Memory required for data: 67249720
I0720 13:40:58.675384 24911 net.cpp:148] Top shape: 10 384 13 13 (648960)
I0720 13:40:58.675387 24940 layer_factory.hpp:77] Creating layer pool5
I0720 13:40:58.675390 24911 net.cpp:156] Memory required for data: 63788600
I0720 13:40:58.675395 24911 layer_factory.hpp:77] Creating layer conv5
I0720 13:40:58.675398 24940 net.cpp:91] Creating Layer pool5
I0720 13:40:58.675405 24940 net.cpp:425] pool5 <- conv5
I0720 13:40:58.675412 24911 net.cpp:91] Creating Layer conv5
I0720 13:40:58.675415 24940 net.cpp:399] pool5 -> pool5
I0720 13:40:58.675418 24911 net.cpp:425] conv5 <- conv4
I0720 13:40:58.675426 24911 net.cpp:399] conv5 -> conv5
I0720 13:40:58.675431 24940 net.cpp:141] Setting up pool5
I0720 13:40:58.675438 24940 net.cpp:148] Top shape: 10 256 6 6 (92160)
I0720 13:40:58.675442 24940 net.cpp:156] Memory required for data: 67618360
I0720 13:40:58.675446 24940 layer_factory.hpp:77] Creating layer fc6
I0720 13:40:58.675460 24940 net.cpp:91] Creating Layer fc6
I0720 13:40:58.675464 24940 net.cpp:425] fc6 <- pool5
I0720 13:40:58.675472 24940 net.cpp:399] fc6 -> fc6
I0720 13:40:58.677114 24915 net.cpp:141] Setting up conv5
I0720 13:40:58.677132 24915 net.cpp:148] Top shape: 10 256 13 13 (432640)
I0720 13:40:58.677137 24915 net.cpp:156] Memory required for data: 65519160
I0720 13:40:58.677152 24915 layer_factory.hpp:77] Creating layer relu5
I0720 13:40:58.677681 24915 net.cpp:91] Creating Layer relu5
I0720 13:40:58.677690 24915 net.cpp:425] relu5 <- conv5
I0720 13:40:58.677697 24915 net.cpp:386] relu5 -> conv5 (in-place)
I0720 13:40:58.690640 24915 net.cpp:141] Setting up relu5
I0720 13:40:58.690655 24915 net.cpp:148] Top shape: 10 256 13 13 (432640)
I0720 13:40:58.690660 24915 net.cpp:156] Memory required for data: 67249720
I0720 13:40:58.690665 24915 layer_factory.hpp:77] Creating layer pool5
I0720 13:40:58.690675 24915 net.cpp:91] Creating Layer pool5
I0720 13:40:58.690680 24915 net.cpp:425] pool5 <- conv5
I0720 13:40:58.690703 24915 net.cpp:399] pool5 -> pool5
I0720 13:40:58.690719 24915 net.cpp:141] Setting up pool5
I0720 13:40:58.690726 24915 net.cpp:148] Top shape: 10 256 6 6 (92160)
I0720 13:40:58.690731 24915 net.cpp:156] Memory required for data: 67618360
I0720 13:40:58.690734 24915 layer_factory.hpp:77] Creating layer fc6
I0720 13:40:58.691195 24915 net.cpp:91] Creating Layer fc6
I0720 13:40:58.691202 24915 net.cpp:425] fc6 <- pool5
I0720 13:40:58.691210 24915 net.cpp:399] fc6 -> fc6
I0720 13:40:58.727430 24953 net.cpp:141] Setting up conv4
I0720 13:40:58.727497 24953 net.cpp:148] Top shape: 10 384 13 13 (648960)
I0720 13:40:58.727505 24953 net.cpp:156] Memory required for data: 61192760
I0720 13:40:58.727522 24953 layer_factory.hpp:77] Creating layer relu4
I0720 13:40:58.727995 24953 net.cpp:91] Creating Layer relu4
I0720 13:40:58.728016 24953 net.cpp:425] relu4 <- conv4
I0720 13:40:58.728029 24953 net.cpp:386] relu4 -> conv4 (in-place)
I0720 13:40:58.734480 24924 net.cpp:141] Setting up conv4
I0720 13:40:58.734525 24919 net.cpp:141] Setting up conv5
I0720 13:40:58.734534 24924 net.cpp:148] Top shape: 10 384 13 13 (648960)
I0720 13:40:58.734542 24924 net.cpp:156] Memory required for data: 61192760
I0720 13:40:58.734544 24919 net.cpp:148] Top shape: 10 256 13 13 (432640)
I0720 13:40:58.734550 24919 net.cpp:156] Memory required for data: 65519160
I0720 13:40:58.734557 24924 layer_factory.hpp:77] Creating layer relu4
I0720 13:40:58.734570 24919 layer_factory.hpp:77] Creating layer relu5
I0720 13:40:58.734577 24924 net.cpp:91] Creating Layer relu4
I0720 13:40:58.734580 24919 net.cpp:91] Creating Layer relu5
I0720 13:40:58.734585 24924 net.cpp:425] relu4 <- conv4
I0720 13:40:58.734586 24919 net.cpp:425] relu5 <- conv5
I0720 13:40:58.734593 24919 net.cpp:386] relu5 -> conv5 (in-place)
I0720 13:40:58.734593 24924 net.cpp:386] relu4 -> conv4 (in-place)
I0720 13:40:58.735745 24942 net.cpp:141] Setting up conv5
I0720 13:40:58.735790 24942 net.cpp:148] Top shape: 10 256 13 13 (432640)
I0720 13:40:58.735795 24942 net.cpp:156] Memory required for data: 65519160
I0720 13:40:58.736285 24942 layer_factory.hpp:77] Creating layer relu5
I0720 13:40:58.736315 24942 net.cpp:91] Creating Layer relu5
I0720 13:40:58.736322 24942 net.cpp:425] relu5 <- conv5
I0720 13:40:58.736331 24942 net.cpp:386] relu5 -> conv5 (in-place)
I0720 13:40:58.741001 24942 net.cpp:141] Setting up relu5
I0720 13:40:58.741053 24942 net.cpp:148] Top shape: 10 256 13 13 (432640)
I0720 13:40:58.741058 24942 net.cpp:156] Memory required for data: 67249720
I0720 13:40:58.741068 24942 layer_factory.hpp:77] Creating layer pool5
I0720 13:40:58.741091 24942 net.cpp:91] Creating Layer pool5
I0720 13:40:58.741098 24942 net.cpp:425] pool5 <- conv5
I0720 13:40:58.741113 24942 net.cpp:399] pool5 -> pool5
I0720 13:40:58.741137 24942 net.cpp:141] Setting up pool5
I0720 13:40:58.741144 24942 net.cpp:148] Top shape: 10 256 6 6 (92160)
I0720 13:40:58.741148 24942 net.cpp:156] Memory required for data: 67618360
I0720 13:40:58.741153 24942 layer_factory.hpp:77] Creating layer fc6
I0720 13:40:58.741183 24942 net.cpp:91] Creating Layer fc6
I0720 13:40:58.741189 24942 net.cpp:425] fc6 <- pool5
I0720 13:40:58.741195 24942 net.cpp:399] fc6 -> fc6
I0720 13:40:58.744899 24940 net.cpp:141] Setting up fc6
I0720 13:40:58.744940 24940 net.cpp:148] Top shape: 10 4096 (40960)
I0720 13:40:58.744946 24940 net.cpp:156] Memory required for data: 67782200
I0720 13:40:58.744961 24940 layer_factory.hpp:77] Creating layer relu6
I0720 13:40:58.744976 24940 net.cpp:91] Creating Layer relu6
I0720 13:40:58.744982 24940 net.cpp:425] relu6 <- fc6
I0720 13:40:58.744992 24940 net.cpp:386] relu6 -> fc6 (in-place)
I0720 13:40:58.751822 24907 net.cpp:141] Setting up conv5
I0720 13:40:58.751839 24924 net.cpp:141] Setting up relu4
I0720 13:40:58.751857 24924 net.cpp:148] Top shape: 10 384 13 13 (648960)
I0720 13:40:58.751857 24907 net.cpp:148] Top shape: 10 256 13 13 (432640)
I0720 13:40:58.751869 24924 net.cpp:156] Memory required for data: 63788600
I0720 13:40:58.751873 24907 net.cpp:156] Memory required for data: 65519160
I0720 13:40:58.751878 24924 layer_factory.hpp:77] Creating layer conv5
I0720 13:40:58.751896 24940 net.cpp:141] Setting up relu6
I0720 13:40:58.751901 24907 layer_factory.hpp:77] Creating layer relu5
I0720 13:40:58.751909 24940 net.cpp:148] Top shape: 10 4096 (40960)
I0720 13:40:58.751914 24940 net.cpp:156] Memory required for data: 67946040
I0720 13:40:58.751916 24907 net.cpp:91] Creating Layer relu5
I0720 13:40:58.751919 24940 layer_factory.hpp:77] Creating layer drop6
I0720 13:40:58.751924 24907 net.cpp:425] relu5 <- conv5
I0720 13:40:58.751929 24940 net.cpp:91] Creating Layer drop6
I0720 13:40:58.751931 24907 net.cpp:386] relu5 -> conv5 (in-place)
I0720 13:40:58.751935 24940 net.cpp:425] drop6 <- fc6
I0720 13:40:58.752493 24940 net.cpp:386] drop6 -> fc6 (in-place)
I0720 13:40:58.752495 24924 net.cpp:91] Creating Layer conv5
I0720 13:40:58.752512 24924 net.cpp:425] conv5 <- conv4
I0720 13:40:58.752518 24940 net.cpp:141] Setting up drop6
I0720 13:40:58.752522 24924 net.cpp:399] conv5 -> conv5
I0720 13:40:58.752526 24940 net.cpp:148] Top shape: 10 4096 (40960)
I0720 13:40:58.752529 24940 net.cpp:156] Memory required for data: 68109880
I0720 13:40:58.752534 24940 layer_factory.hpp:77] Creating layer fc7
I0720 13:40:58.752543 24940 net.cpp:91] Creating Layer fc7
I0720 13:40:58.752547 24940 net.cpp:425] fc7 <- fc6
I0720 13:40:58.752553 24940 net.cpp:399] fc7 -> fc7
I0720 13:40:58.757333 24936 net.cpp:141] Setting up conv5
I0720 13:40:58.757869 24936 net.cpp:148] Top shape: 10 256 13 13 (432640)
I0720 13:40:58.757891 24936 net.cpp:156] Memory required for data: 65519160
I0720 13:40:58.757927 24936 layer_factory.hpp:77] Creating layer relu5
I0720 13:40:58.757951 24936 net.cpp:91] Creating Layer relu5
I0720 13:40:58.757962 24936 net.cpp:425] relu5 <- conv5
I0720 13:40:58.757974 24936 net.cpp:386] relu5 -> conv5 (in-place)
I0720 13:40:58.763020 24915 net.cpp:141] Setting up fc6
I0720 13:40:58.763082 24915 net.cpp:148] Top shape: 10 4096 (40960)
I0720 13:40:58.763088 24915 net.cpp:156] Memory required for data: 67782200
I0720 13:40:58.763104 24915 layer_factory.hpp:77] Creating layer relu6
I0720 13:40:58.763123 24915 net.cpp:91] Creating Layer relu6
I0720 13:40:58.763129 24915 net.cpp:425] relu6 <- fc6
I0720 13:40:58.763545 24915 net.cpp:386] relu6 -> fc6 (in-place)
I0720 13:40:58.772250 24907 net.cpp:141] Setting up relu5
I0720 13:40:58.772300 24907 net.cpp:148] Top shape: 10 256 13 13 (432640)
I0720 13:40:58.772305 24907 net.cpp:156] Memory required for data: 67249720
I0720 13:40:58.772315 24907 layer_factory.hpp:77] Creating layer pool5
I0720 13:40:58.772809 24907 net.cpp:91] Creating Layer pool5
I0720 13:40:58.772830 24907 net.cpp:425] pool5 <- conv5
I0720 13:40:58.772843 24907 net.cpp:399] pool5 -> pool5
I0720 13:40:58.772864 24907 net.cpp:141] Setting up pool5
I0720 13:40:58.772872 24907 net.cpp:148] Top shape: 10 256 6 6 (92160)
I0720 13:40:58.772876 24907 net.cpp:156] Memory required for data: 67618360
I0720 13:40:58.772881 24907 layer_factory.hpp:77] Creating layer fc6
I0720 13:40:58.772897 24907 net.cpp:91] Creating Layer fc6
I0720 13:40:58.772902 24907 net.cpp:425] fc6 <- pool5
I0720 13:40:58.772907 24907 net.cpp:399] fc6 -> fc6
I0720 13:40:58.782717 24934 net.cpp:141] Setting up conv5
I0720 13:40:58.782789 24934 net.cpp:148] Top shape: 10 256 13 13 (432640)
I0720 13:40:58.782799 24934 net.cpp:156] Memory required for data: 65519160
I0720 13:40:58.783728 24934 layer_factory.hpp:77] Creating layer relu5
I0720 13:40:58.783769 24934 net.cpp:91] Creating Layer relu5
I0720 13:40:58.783762 24919 net.cpp:141] Setting up relu5
I0720 13:40:58.783782 24934 net.cpp:425] relu5 <- conv5
I0720 13:40:58.783814 24919 net.cpp:148] Top shape: 10 256 13 13 (432640)
I0720 13:40:58.783823 24919 net.cpp:156] Memory required for data: 67249720
I0720 13:40:58.783833 24919 layer_factory.hpp:77] Creating layer pool5
I0720 13:40:58.783851 24919 net.cpp:91] Creating Layer pool5
I0720 13:40:58.783859 24919 net.cpp:425] pool5 <- conv5
I0720 13:40:58.783818 24934 net.cpp:386] relu5 -> conv5 (in-place)
I0720 13:40:58.784286 24919 net.cpp:399] pool5 -> pool5
I0720 13:40:58.784322 24919 net.cpp:141] Setting up pool5
I0720 13:40:58.784330 24919 net.cpp:148] Top shape: 10 256 6 6 (92160)
I0720 13:40:58.784335 24919 net.cpp:156] Memory required for data: 67618360
I0720 13:40:58.784340 24919 layer_factory.hpp:77] Creating layer fc6
I0720 13:40:58.784844 24919 net.cpp:91] Creating Layer fc6
I0720 13:40:58.784868 24919 net.cpp:425] fc6 <- pool5
I0720 13:40:58.784879 24919 net.cpp:399] fc6 -> fc6
I0720 13:40:58.787204 24940 net.cpp:141] Setting up fc7
I0720 13:40:58.787243 24940 net.cpp:148] Top shape: 10 4096 (40960)
I0720 13:40:58.787248 24940 net.cpp:156] Memory required for data: 68273720
I0720 13:40:58.787261 24940 layer_factory.hpp:77] Creating layer relu7
I0720 13:40:58.787278 24940 net.cpp:91] Creating Layer relu7
I0720 13:40:58.787284 24940 net.cpp:425] relu7 <- fc7
I0720 13:40:58.787293 24940 net.cpp:386] relu7 -> fc7 (in-place)
I0720 13:40:58.790483 24934 net.cpp:141] Setting up relu5
I0720 13:40:58.790537 24934 net.cpp:148] Top shape: 10 256 13 13 (432640)
I0720 13:40:58.790544 24934 net.cpp:156] Memory required for data: 67249720
I0720 13:40:58.790554 24934 layer_factory.hpp:77] Creating layer pool5
I0720 13:40:58.790575 24934 net.cpp:91] Creating Layer pool5
I0720 13:40:58.790581 24934 net.cpp:425] pool5 <- conv5
I0720 13:40:58.790596 24934 net.cpp:399] pool5 -> pool5
I0720 13:40:58.790621 24934 net.cpp:141] Setting up pool5
I0720 13:40:58.790628 24934 net.cpp:148] Top shape: 10 256 6 6 (92160)
I0720 13:40:58.790632 24934 net.cpp:156] Memory required for data: 67618360
I0720 13:40:58.790637 24934 layer_factory.hpp:77] Creating layer fc6
I0720 13:40:58.790650 24934 net.cpp:91] Creating Layer fc6
I0720 13:40:58.790654 24934 net.cpp:425] fc6 <- pool5
I0720 13:40:58.791056 24934 net.cpp:399] fc6 -> fc6
I0720 13:40:58.793272 24936 net.cpp:141] Setting up relu5
I0720 13:40:58.793303 24936 net.cpp:148] Top shape: 10 256 13 13 (432640)
I0720 13:40:58.793309 24936 net.cpp:156] Memory required for data: 67249720
I0720 13:40:58.793316 24936 layer_factory.hpp:77] Creating layer pool5
I0720 13:40:58.793331 24936 net.cpp:91] Creating Layer pool5
I0720 13:40:58.793339 24936 net.cpp:425] pool5 <- conv5
I0720 13:40:58.794384 24936 net.cpp:399] pool5 -> pool5
I0720 13:40:58.794383 24953 net.cpp:141] Setting up relu4
I0720 13:40:58.794415 24953 net.cpp:148] Top shape: 10 384 13 13 (648960)
I0720 13:40:58.794421 24936 net.cpp:141] Setting up pool5
I0720 13:40:58.794425 24953 net.cpp:156] Memory required for data: 63788600
I0720 13:40:58.794433 24936 net.cpp:148] Top shape: 10 256 6 6 (92160)
I0720 13:40:58.794433 24953 layer_factory.hpp:77] Creating layer conv5
I0720 13:40:58.794445 24936 net.cpp:156] Memory required for data: 67618360
I0720 13:40:58.794452 24936 layer_factory.hpp:77] Creating layer fc6
I0720 13:40:58.794986 24936 net.cpp:91] Creating Layer fc6
I0720 13:40:58.795002 24936 net.cpp:425] fc6 <- pool5
I0720 13:40:58.795012 24936 net.cpp:399] fc6 -> fc6
I0720 13:40:58.795029 24953 net.cpp:91] Creating Layer conv5
I0720 13:40:58.795044 24953 net.cpp:425] conv5 <- conv4
I0720 13:40:58.795054 24953 net.cpp:399] conv5 -> conv5
I0720 13:40:58.805902 24940 net.cpp:141] Setting up relu7
I0720 13:40:58.805948 24940 net.cpp:148] Top shape: 10 4096 (40960)
I0720 13:40:58.805954 24940 net.cpp:156] Memory required for data: 68437560
I0720 13:40:58.805963 24940 layer_factory.hpp:77] Creating layer drop7
I0720 13:40:58.805977 24940 net.cpp:91] Creating Layer drop7
I0720 13:40:58.805985 24940 net.cpp:425] drop7 <- fc7
I0720 13:40:58.805994 24940 net.cpp:386] drop7 -> fc7 (in-place)
I0720 13:40:58.806010 24940 net.cpp:141] Setting up drop7
I0720 13:40:58.806015 24940 net.cpp:148] Top shape: 10 4096 (40960)
I0720 13:40:58.806020 24940 net.cpp:156] Memory required for data: 68601400
I0720 13:40:58.806023 24940 layer_factory.hpp:77] Creating layer fc8
I0720 13:40:58.806998 24940 net.cpp:91] Creating Layer fc8
I0720 13:40:58.807009 24940 net.cpp:425] fc8 <- fc7
I0720 13:40:58.807018 24940 net.cpp:399] fc8 -> fc8
I0720 13:40:58.822023 24940 net.cpp:141] Setting up fc8
I0720 13:40:58.822064 24940 net.cpp:148] Top shape: 10 1000 (10000)
I0720 13:40:58.822070 24940 net.cpp:156] Memory required for data: 68641400
I0720 13:40:58.822083 24940 layer_factory.hpp:77] Creating layer prob
I0720 13:40:58.822098 24940 net.cpp:91] Creating Layer prob
I0720 13:40:58.822103 24940 net.cpp:425] prob <- fc8
I0720 13:40:58.823079 24940 net.cpp:399] prob -> prob
I0720 13:40:58.823082 24942 net.cpp:141] Setting up fc6
I0720 13:40:58.823103 24942 net.cpp:148] Top shape: 10 4096 (40960)
I0720 13:40:58.823109 24942 net.cpp:156] Memory required for data: 67782200
I0720 13:40:58.823093 24915 net.cpp:141] Setting up relu6
I0720 13:40:58.823122 24942 layer_factory.hpp:77] Creating layer relu6
I0720 13:40:58.823143 24942 net.cpp:91] Creating Layer relu6
I0720 13:40:58.823143 24915 net.cpp:148] Top shape: 10 4096 (40960)
I0720 13:40:58.823151 24942 net.cpp:425] relu6 <- fc6
I0720 13:40:58.823159 24915 net.cpp:156] Memory required for data: 67946040
I0720 13:40:58.823165 24942 net.cpp:386] relu6 -> fc6 (in-place)
I0720 13:40:58.823170 24915 layer_factory.hpp:77] Creating layer drop6
I0720 13:40:58.824146 24915 net.cpp:91] Creating Layer drop6
I0720 13:40:58.824172 24915 net.cpp:425] drop6 <- fc6
I0720 13:40:58.824188 24915 net.cpp:386] drop6 -> fc6 (in-place)
I0720 13:40:58.824210 24915 net.cpp:141] Setting up drop6
I0720 13:40:58.824221 24915 net.cpp:148] Top shape: 10 4096 (40960)
I0720 13:40:58.824229 24915 net.cpp:156] Memory required for data: 68109880
I0720 13:40:58.824235 24915 layer_factory.hpp:77] Creating layer fc7
I0720 13:40:58.824257 24915 net.cpp:91] Creating Layer fc7
I0720 13:40:58.824265 24915 net.cpp:425] fc7 <- fc6
I0720 13:40:58.824275 24915 net.cpp:399] fc7 -> fc7
I0720 13:40:58.846767 24940 net.cpp:141] Setting up prob
I0720 13:40:58.846829 24940 net.cpp:148] Top shape: 10 1000 (10000)
I0720 13:40:58.846835 24940 net.cpp:156] Memory required for data: 68681400
I0720 13:40:58.846845 24940 net.cpp:219] prob does not need backward computation.
I0720 13:40:58.846853 24940 net.cpp:219] fc8 does not need backward computation.
I0720 13:40:58.846858 24940 net.cpp:219] drop7 does not need backward computation.
I0720 13:40:58.846863 24940 net.cpp:219] relu7 does not need backward computation.
…
I0720 13:40:58.846933 24940 net.cpp:219] norm1 does not need backward computation.
I0720 13:40:58.846937 24940 net.cpp:219] pool1 does not need backward computation.
I0720 13:40:58.846941 24940 net.cpp:219] relu1 does not need backward computation.
I0720 13:40:58.846946 24940 net.cpp:219] conv1 does not need backward computation.
I0720 13:40:58.846951 24940 net.cpp:219] data does not need backward computation.
I0720 13:40:58.846953 24940 net.cpp:261] This network produces output prob
I0720 13:40:58.847349 24940 net.cpp:274] Network initialization done.
I0720 13:40:58.851424 24942 net.cpp:141] Setting up relu6
I0720 13:40:58.851505 24942 net.cpp:148] Top shape: 10 4096 (40960)
I0720 13:40:58.851517 24942 net.cpp:156] Memory required for data: 67946040
I0720 13:40:58.851534 24942 layer_factory.hpp:77] Creating layer drop6
I0720 13:40:58.851567 24942 net.cpp:91] Creating Layer drop6
I0720 13:40:58.851579 24942 net.cpp:425] drop6 <- fc6
I0720 13:40:58.851593 24942 net.cpp:386] drop6 -> fc6 (in-place)
I0720 13:40:58.851615 24942 net.cpp:141] Setting up drop6
I0720 13:40:58.851621 24942 net.cpp:148] Top shape: 10 4096 (40960)
I0720 13:40:58.851626 24942 net.cpp:156] Memory required for data: 68109880
I0720 13:40:58.851630 24942 layer_factory.hpp:77] Creating layer fc7
I0720 13:40:58.851642 24942 net.cpp:91] Creating Layer fc7
I0720 13:40:58.851646 24942 net.cpp:425] fc7 <- fc6
I0720 13:40:58.851657 24942 net.cpp:399] fc7 -> fc7
I0720 13:40:58.855020 24907 net.cpp:141] Setting up fc6
I0720 13:40:58.855080 24907 net.cpp:148] Top shape: 10 4096 (40960)
I0720 13:40:58.855087 24907 net.cpp:156] Memory required for data: 67782200
I0720 13:40:58.855104 24907 layer_factory.hpp:77] Creating layer relu6
I0720 13:40:58.855564 24907 net.cpp:91] Creating Layer relu6
I0720 13:40:58.855586 24907 net.cpp:425] relu6 <- fc6
I0720 13:40:58.855598 24907 net.cpp:386] relu6 -> fc6 (in-place)
I0720 13:40:58.858732 24911 net.cpp:141] Setting up conv5
I0720 13:40:58.858837 24911 net.cpp:148] Top shape: 10 256 13 13 (432640)
I0720 13:40:58.858858 24911 net.cpp:156] Memory required for data: 65519160
I0720 13:40:58.859382 24911 layer_factory.hpp:77] Creating layer relu5
I0720 13:40:58.859416 24911 net.cpp:91] Creating Layer relu5
I0720 13:40:58.859428 24911 net.cpp:425] relu5 <- conv5
I0720 13:40:58.859441 24915 net.cpp:141] Setting up fc7
I0720 13:40:58.859447 24911 net.cpp:386] relu5 -> conv5 (in-place)
I0720 13:40:58.859459 24915 net.cpp:148] Top shape: 10 4096 (40960)
I0720 13:40:58.859467 24915 net.cpp:156] Memory required for data: 68273720
I0720 13:40:58.859483 24915 layer_factory.hpp:77] Creating layer relu7
I0720 13:40:58.859495 24915 net.cpp:91] Creating Layer relu7
I0720 13:40:58.859504 24915 net.cpp:425] relu7 <- fc7
I0720 13:40:58.859514 24915 net.cpp:386] relu7 -> fc7 (in-place)
I0720 13:40:58.861935 24919 net.cpp:141] Setting up fc6
I0720 13:40:58.861984 24919 net.cpp:148] Top shape: 10 4096 (40960)
I0720 13:40:58.861989 24919 net.cpp:156] Memory required for data: 67782200
I0720 13:40:58.862004 24919 layer_factory.hpp:77] Creating layer relu6
I0720 13:40:58.862017 24919 net.cpp:91] Creating Layer relu6
I0720 13:40:58.862022 24919 net.cpp:425] relu6 <- fc6
I0720 13:40:58.862030 24919 net.cpp:386] relu6 -> fc6 (in-place)
I0720 13:40:58.870772 24934 net.cpp:141] Setting up fc6
I0720 13:40:58.870831 24934 net.cpp:148] Top shape: 10 4096 (40960)
I0720 13:40:58.870837 24934 net.cpp:156] Memory required for data: 67782200
I0720 13:40:58.870854 24934 layer_factory.hpp:77] Creating layer relu6
I0720 13:40:58.870872 24934 net.cpp:91] Creating Layer relu6
I0720 13:40:58.870878 24934 net.cpp:425] relu6 <- fc6
I0720 13:40:58.870887 24934 net.cpp:386] relu6 -> fc6 (in-place)
I0720 13:40:58.871323 24936 net.cpp:141] Setting up fc6
I0720 13:40:58.871343 24936 net.cpp:148] Top shape: 10 4096 (40960)
I0720 13:40:58.871348 24936 net.cpp:156] Memory required for data: 67782200
I0720 13:40:58.871358 24936 layer_factory.hpp:77] Creating layer relu6
I0720 13:40:58.871366 24936 net.cpp:91] Creating Layer relu6
I0720 13:40:58.871371 24936 net.cpp:425] relu6 <- fc6
I0720 13:40:58.871381 24936 net.cpp:386] relu6 -> fc6 (in-place)
I0720 13:40:58.875453 24911 net.cpp:141] Setting up relu5
I0720 13:40:58.875476 24911 net.cpp:148] Top shape: 10 256 13 13 (432640)
I0720 13:40:58.875481 24911 net.cpp:156] Memory required for data: 67249720
I0720 13:40:58.875488 24911 layer_factory.hpp:77] Creating layer pool5
I0720 13:40:58.875499 24911 net.cpp:91] Creating Layer pool5
I0720 13:40:58.875504 24911 net.cpp:425] pool5 <- conv5
I0720 13:40:58.875515 24911 net.cpp:399] pool5 -> pool5
I0720 13:40:58.875533 24911 net.cpp:141] Setting up pool5
I0720 13:40:58.875540 24911 net.cpp:148] Top shape: 10 256 6 6 (92160)
I0720 13:40:58.875545 24911 net.cpp:156] Memory required for data: 67618360
I0720 13:40:58.875548 24911 layer_factory.hpp:77] Creating layer fc6
I0720 13:40:58.875566 24911 net.cpp:91] Creating Layer fc6
I0720 13:40:58.875569 24911 net.cpp:425] fc6 <- pool5
I0720 13:40:58.875591 24911 net.cpp:399] fc6 -> fc6
I0720 13:40:58.875567 24924 net.cpp:141] Setting up conv5
I0720 13:40:58.875638 24924 net.cpp:148] Top shape: 10 256 13 13 (432640)
I0720 13:40:58.875653 24924 net.cpp:156] Memory required for data: 65519160
I0720 13:40:58.876236 24907 net.cpp:141] Setting up relu6
I0720 13:40:58.876245 24924 layer_factory.hpp:77] Creating layer relu5
I0720 13:40:58.876260 24907 net.cpp:148] Top shape: 10 4096 (40960)
I0720 13:40:58.876266 24907 net.cpp:156] Memory required for data: 67946040
I0720 13:40:58.876272 24907 layer_factory.hpp:77] Creating layer drop6
I0720 13:40:58.876281 24953 net.cpp:141] Setting up conv5
I0720 13:40:58.876287 24907 net.cpp:91] Creating Layer drop6
I0720 13:40:58.876304 24953 net.cpp:148] Top shape: 10 256 13 13 (432640)
I0720 13:40:58.876312 24953 net.cpp:156] Memory required for data: 65519160
I0720 13:40:58.876313 24907 net.cpp:425] drop6 <- fc6
I0720 13:40:58.876281 24924 net.cpp:91] Creating Layer relu5
I0720 13:40:58.876325 24907 net.cpp:386] drop6 -> fc6 (in-place)
I0720 13:40:58.876345 24924 net.cpp:425] relu5 <- conv5
I0720 13:40:58.876353 24907 net.cpp:141] Setting up drop6
I0720 13:40:58.876369 24907 net.cpp:148] Top shape: 10 4096 (40960)
I0720 13:40:58.876374 24907 net.cpp:156] Memory required for data: 68109880
I0720 13:40:58.876379 24907 layer_factory.hpp:77] Creating layer fc7
I0720 13:40:58.876389 24907 net.cpp:91] Creating Layer fc7
I0720 13:40:58.876394 24907 net.cpp:425] fc7 <- fc6
I0720 13:40:58.876796 24924 net.cpp:386] relu5 -> conv5 (in-place)
I0720 13:40:58.876809 24953 layer_factory.hpp:77] Creating layer relu5
I0720 13:40:58.876829 24953 net.cpp:91] Creating Layer relu5
I0720 13:40:58.876835 24953 net.cpp:425] relu5 <- conv5
I0720 13:40:58.876843 24953 net.cpp:386] relu5 -> conv5 (in-place)
I0720 13:40:58.876844 24907 net.cpp:399] fc7 -> fc7
I0720 13:40:58.880801 24934 net.cpp:141] Setting up relu6
I0720 13:40:58.880837 24934 net.cpp:148] Top shape: 10 4096 (40960)
I0720 13:40:58.880843 24934 net.cpp:156] Memory required for data: 67946040
I0720 13:40:58.880851 24934 layer_factory.hpp:77] Creating layer drop6
I0720 13:40:58.880864 24934 net.cpp:91] Creating Layer drop6
I0720 13:40:58.880869 24934 net.cpp:425] drop6 <- fc6
I0720 13:40:58.880877 24934 net.cpp:386] drop6 -> fc6 (in-place)
I0720 13:40:58.880892 24934 net.cpp:141] Setting up drop6
I0720 13:40:58.880897 24934 net.cpp:148] Top shape: 10 4096 (40960)
I0720 13:40:58.880903 24934 net.cpp:156] Memory required for data: 68109880
I0720 13:40:58.880906 24934 layer_factory.hpp:77] Creating layer fc7
I0720 13:40:58.881392 24934 net.cpp:91] Creating Layer fc7
I0720 13:40:58.881408 24934 net.cpp:425] fc7 <- fc6
I0720 13:40:58.881418 24934 net.cpp:399] fc7 -> fc7
I0720 13:40:58.883693 24942 net.cpp:141] Setting up fc7
I0720 13:40:58.883739 24942 net.cpp:148] Top shape: 10 4096 (40960)
I0720 13:40:58.883744 24942 net.cpp:156] Memory required for data: 68273720
I0720 13:40:58.883760 24942 layer_factory.hpp:77] Creating layer relu7
I0720 13:40:58.883774 24942 net.cpp:91] Creating Layer relu7
I0720 13:40:58.883780 24942 net.cpp:425] relu7 <- fc7
I0720 13:40:58.883788 24942 net.cpp:386] relu7 -> fc7 (in-place)
I0720 13:40:58.884300 24924 net.cpp:141] Setting up relu5
I0720 13:40:58.884321 24924 net.cpp:148] Top shape: 10 256 13 13 (432640)
I0720 13:40:58.884330 24924 net.cpp:156] Memory required for data: 67249720
I0720 13:40:58.884338 24924 layer_factory.hpp:77] Creating layer pool5
I0720 13:40:58.884872 24924 net.cpp:91] Creating Layer pool5
I0720 13:40:58.884896 24924 net.cpp:425] pool5 <- conv5
I0720 13:40:58.884912 24924 net.cpp:399] pool5 -> pool5
I0720 13:40:58.884939 24924 net.cpp:141] Setting up pool5
I0720 13:40:58.884953 24924 net.cpp:148] Top shape: 10 256 6 6 (92160)
I0720 13:40:58.884961 24924 net.cpp:156] Memory required for data: 67618360
I0720 13:40:58.884969 24924 layer_factory.hpp:77] Creating layer fc6
I0720 13:40:58.884989 24924 net.cpp:91] Creating Layer fc6
I0720 13:40:58.884997 24924 net.cpp:425] fc6 <- pool5
I0720 13:40:58.885442 24924 net.cpp:399] fc6 -> fc6
I0720 13:40:58.887797 24936 net.cpp:141] Setting up relu6
I0720 13:40:58.887804 24915 net.cpp:141] Setting up relu7
I0720 13:40:58.887846 24936 net.cpp:148] Top shape: 10 4096 (40960)
I0720 13:40:58.887853 24936 net.cpp:156] Memory required for data: 67946040
I0720 13:40:58.887862 24936 layer_factory.hpp:77] Creating layer drop6
I0720 13:40:58.887861 24915 net.cpp:148] Top shape: 10 4096 (40960)
I0720 13:40:58.887872 24915 net.cpp:156] Memory required for data: 68437560
I0720 13:40:58.887881 24936 net.cpp:91] Creating Layer drop6
I0720 13:40:58.887887 24936 net.cpp:425] drop6 <- fc6
I0720 13:40:58.887886 24915 layer_factory.hpp:77] Creating layer drop7
I0720 13:40:58.888411 24936 net.cpp:386] drop6 -> fc6 (in-place)
I0720 13:40:58.888440 24936 net.cpp:141] Setting up drop6
I0720 13:40:58.888448 24936 net.cpp:148] Top shape: 10 4096 (40960)
I0720 13:40:58.888453 24936 net.cpp:156] Memory required for data: 68109880
I0720 13:40:58.888458 24936 layer_factory.hpp:77] Creating layer fc7
I0720 13:40:58.888469 24936 net.cpp:91] Creating Layer fc7
I0720 13:40:58.888473 24936 net.cpp:425] fc7 <- fc6
I0720 13:40:58.888480 24936 net.cpp:399] fc7 -> fc7
I0720 13:40:58.888909 24953 net.cpp:141] Setting up relu5
I0720 13:40:58.888929 24953 net.cpp:148] Top shape: 10 256 13 13 (432640)
I0720 13:40:58.888936 24953 net.cpp:156] Memory required for data: 67249720
I0720 13:40:58.888942 24953 layer_factory.hpp:77] Creating layer pool5
I0720 13:40:58.888929 24919 net.cpp:141] Setting up relu6
I0720 13:40:58.888929 24942 net.cpp:141] Setting up relu7
I0720 13:40:58.888972 24919 net.cpp:148] Top shape: 10 4096 (40960)
I0720 13:40:58.888978 24919 net.cpp:156] Memory required for data: 67946040
I0720 13:40:58.888954 24953 net.cpp:91] Creating Layer pool5
I0720 13:40:58.888985 24919 layer_factory.hpp:77] Creating layer drop6
I0720 13:40:58.888989 24953 net.cpp:425] pool5 <- conv5
I0720 13:40:58.889001 24919 net.cpp:91] Creating Layer drop6
I0720 13:40:58.888988 24942 net.cpp:148] Top shape: 10 4096 (40960)
I0720 13:40:58.889010 24919 net.cpp:425] drop6 <- fc6
I0720 13:40:58.889017 24942 net.cpp:156] Memory required for data: 68437560
I0720 13:40:58.889020 24919 net.cpp:386] drop6 -> fc6 (in-place)
I0720 13:40:58.889034 24942 layer_factory.hpp:77] Creating layer drop7
I0720 13:40:58.889042 24919 net.cpp:141] Setting up drop6
I0720 13:40:58.889050 24919 net.cpp:148] Top shape: 10 4096 (40960)
I0720 13:40:58.889053 24919 net.cpp:156] Memory required for data: 68109880
I0720 13:40:58.889058 24919 layer_factory.hpp:77] Creating layer fc7
I0720 13:40:58.889470 24915 net.cpp:91] Creating Layer drop7
I0720 13:40:58.889493 24915 net.cpp:425] drop7 <- fc7
I0720 13:40:58.889503 24915 net.cpp:386] drop7 -> fc7 (in-place)
I0720 13:40:58.889514 24915 net.cpp:141] Setting up drop7
I0720 13:40:58.889523 24915 net.cpp:148] Top shape: 10 4096 (40960)
I0720 13:40:58.889526 24915 net.cpp:156] Memory required for data: 68601400
I0720 13:40:58.889530 24915 layer_factory.hpp:77] Creating layer fc8
I0720 13:40:58.890029 24942 net.cpp:91] Creating Layer drop7
I0720 13:40:58.890046 24942 net.cpp:425] drop7 <- fc7
I0720 13:40:58.890054 24942 net.cpp:386] drop7 -> fc7 (in-place)
I0720 13:40:58.890069 24942 net.cpp:141] Setting up drop7
I0720 13:40:58.890071 24953 net.cpp:399] pool5 -> pool5
I0720 13:40:58.890069 24919 net.cpp:91] Creating Layer fc7
I0720 13:40:58.890094 24942 net.cpp:148] Top shape: 10 4096 (40960)
I0720 13:40:58.890097 24919 net.cpp:425] fc7 <- fc6
I0720 13:40:58.890100 24915 net.cpp:91] Creating Layer fc8
I0720 13:40:58.890106 24953 net.cpp:141] Setting up pool5
I0720 13:40:58.890131 24915 net.cpp:425] fc8 <- fc7
I0720 13:40:58.890138 24953 net.cpp:148] Top shape: 10 256 6 6 (92160)
I0720 13:40:58.890108 24942 net.cpp:156] Memory required for data: 68601400
I0720 13:40:58.890144 24953 net.cpp:156] Memory required for data: 67618360
I0720 13:40:58.890151 24953 layer_factory.hpp:77] Creating layer fc6
I0720 13:40:58.890115 24919 net.cpp:399] fc7 -> fc7
I0720 13:40:58.890152 24915 net.cpp:399] fc8 -> fc8
I0720 13:40:58.890159 24942 layer_factory.hpp:77] Creating layer fc8
I0720 13:40:58.890168 24953 net.cpp:91] Creating Layer fc6
I0720 13:40:58.890174 24953 net.cpp:425] fc6 <- pool5
I0720 13:40:58.890179 24942 net.cpp:91] Creating Layer fc8
I0720 13:40:58.890182 24953 net.cpp:399] fc6 -> fc6
I0720 13:40:58.890194 24942 net.cpp:425] fc8 <- fc7
I0720 13:40:58.890712 24942 net.cpp:399] fc8 -> fc8
I0720 13:40:58.905447 24915 net.cpp:141] Setting up fc8
I0720 13:40:58.905529 24915 net.cpp:148] Top shape: 10 1000 (10000)
I0720 13:40:58.905541 24915 net.cpp:156] Memory required for data: 68641400
I0720 13:40:58.905570 24915 layer_factory.hpp:77] Creating layer prob
I0720 13:40:58.906497 24915 net.cpp:91] Creating Layer prob
I0720 13:40:58.906530 24915 net.cpp:425] prob <- fc8
I0720 13:40:58.906533 24942 net.cpp:141] Setting up fc8
I0720 13:40:58.906558 24915 net.cpp:399] prob -> prob
I0720 13:40:58.906608 24942 net.cpp:148] Top shape: 10 1000 (10000)
I0720 13:40:58.906621 24942 net.cpp:156] Memory required for data: 68641400
I0720 13:40:58.906651 24942 layer_factory.hpp:77] Creating layer prob
I0720 13:40:58.906677 24942 net.cpp:91] Creating Layer prob
I0720 13:40:58.906708 24942 net.cpp:425] prob <- fc8
I0720 13:40:58.906729 24942 net.cpp:399] prob -> prob
I0720 13:40:58.911396 24907 net.cpp:141] Setting up fc7
I0720 13:40:58.911451 24907 net.cpp:148] Top shape: 10 4096 (40960)
I0720 13:40:58.911458 24907 net.cpp:156] Memory required for data: 68273720
I0720 13:40:58.911717 24907 layer_factory.hpp:77] Creating layer relu7
I0720 13:40:58.911736 24907 net.cpp:91] Creating Layer relu7
I0720 13:40:58.911741 24907 net.cpp:425] relu7 <- fc7
I0720 13:40:58.911751 24907 net.cpp:386] relu7 -> fc7 (in-place)
I0720 13:40:58.912606 24915 net.cpp:141] Setting up prob
I0720 13:40:58.913166 24942 net.cpp:141] Setting up prob
I0720 13:40:58.913193 24915 net.cpp:148] Top shape: 10 1000 (10000)
I0720 13:40:58.913209 24942 net.cpp:148] Top shape: 10 1000 (10000)
I0720 13:40:58.913211 24915 net.cpp:156] Memory required for data: 68681400
I0720 13:40:58.913226 24942 net.cpp:156] Memory required for data: 68681400
I0720 13:40:58.913236 24915 net.cpp:219] prob does not need backward computation.
I0720 13:40:58.913241 24942 net.cpp:219] prob does not need backward computation.
I0720 13:40:58.913247 24915 net.cpp:219] fc8 does not need backward computation.
…
I0720 13:40:58.913497 24942 net.cpp:219] pool1 does not need backward computation.
I0720 13:40:58.913507 24942 net.cpp:219] relu1 does not need backward computation.
I0720 13:40:58.913518 24942 net.cpp:219] conv1 does not need backward computation.
I0720 13:40:58.913529 24942 net.cpp:219] data does not need backward computation.
I0720 13:40:58.913539 24942 net.cpp:261] This network produces output prob
I0720 13:40:58.914302 24942 net.cpp:274] Network initialization done.
I0720 13:40:58.914320 24915 net.cpp:274] Network initialization done.
I0720 13:40:58.915508 24907 net.cpp:141] Setting up relu7
I0720 13:40:58.915532 24907 net.cpp:148] Top shape: 10 4096 (40960)
I0720 13:40:58.915539 24907 net.cpp:156] Memory required for data: 68437560
I0720 13:40:58.915544 24907 layer_factory.hpp:77] Creating layer drop7
I0720 13:40:58.915558 24907 net.cpp:91] Creating Layer drop7
I0720 13:40:58.915565 24907 net.cpp:425] drop7 <- fc7
I0720 13:40:58.916220 24907 net.cpp:386] drop7 -> fc7 (in-place)
I0720 13:40:58.916249 24907 net.cpp:141] Setting up drop7
I0720 13:40:58.916259 24907 net.cpp:148] Top shape: 10 4096 (40960)
I0720 13:40:58.916263 24907 net.cpp:156] Memory required for data: 68601400
I0720 13:40:58.916268 24907 layer_factory.hpp:77] Creating layer fc8
I0720 13:40:58.916280 24907 net.cpp:91] Creating Layer fc8
I0720 13:40:58.916283 24907 net.cpp:425] fc8 <- fc7
I0720 13:40:58.916766 24907 net.cpp:399] fc8 -> fc8
I0720 13:40:58.916797 24934 net.cpp:141] Setting up fc7
I0720 13:40:58.916834 24934 net.cpp:148] Top shape: 10 4096 (40960)
I0720 13:40:58.916839 24934 net.cpp:156] Memory required for data: 68273720
I0720 13:40:58.916854 24934 layer_factory.hpp:77] Creating layer relu7
I0720 13:40:58.916868 24934 net.cpp:91] Creating Layer relu7
I0720 13:40:58.916874 24934 net.cpp:425] relu7 <- fc7
I0720 13:40:58.917333 24934 net.cpp:386] relu7 -> fc7 (in-place)
I0720 13:40:58.918056 24934 net.cpp:141] Setting up relu7
I0720 13:40:58.918090 24934 net.cpp:148] Top shape: 10 4096 (40960)
I0720 13:40:58.918099 24934 net.cpp:156] Memory required for data: 68437560
I0720 13:40:58.918110 24934 layer_factory.hpp:77] Creating layer drop7
I0720 13:40:58.918135 24934 net.cpp:91] Creating Layer drop7
I0720 13:40:58.918145 24934 net.cpp:425] drop7 <- fc7
I0720 13:40:58.918159 24934 net.cpp:386] drop7 -> fc7 (in-place)
I0720 13:40:58.918180 24934 net.cpp:141] Setting up drop7
I0720 13:40:58.918191 24934 net.cpp:148] Top shape: 10 4096 (40960)
I0720 13:40:58.918198 24934 net.cpp:156] Memory required for data: 68601400
I0720 13:40:58.918207 24934 layer_factory.hpp:77] Creating layer fc8
I0720 13:40:58.918223 24934 net.cpp:91] Creating Layer fc8
I0720 13:40:58.918233 24934 net.cpp:425] fc8 <- fc7
I0720 13:40:58.918723 24934 net.cpp:399] fc8 -> fc8
I0720 13:40:58.927078 24936 net.cpp:141] Setting up fc7
I0720 13:40:58.927140 24936 net.cpp:148] Top shape: 10 4096 (40960)
I0720 13:40:58.927146 24936 net.cpp:156] Memory required for data: 68273720
I0720 13:40:58.927165 24936 layer_factory.hpp:77] Creating layer relu7
I0720 13:40:58.927626 24936 net.cpp:91] Creating Layer relu7
I0720 13:40:58.927623 24919 net.cpp:141] Setting up fc7
I0720 13:40:58.927639 24936 net.cpp:425] relu7 <- fc7
I0720 13:40:58.927669 24919 net.cpp:148] Top shape: 10 4096 (40960)
I0720 13:40:58.927675 24936 net.cpp:386] relu7 -> fc7 (in-place)
I0720 13:40:58.927676 24919 net.cpp:156] Memory required for data: 68273720
I0720 13:40:58.927706 24919 layer_factory.hpp:77] Creating layer relu7
I0720 13:40:58.927721 24919 net.cpp:91] Creating Layer relu7
I0720 13:40:58.927728 24919 net.cpp:425] relu7 <- fc7
I0720 13:40:58.928309 24919 net.cpp:386] relu7 -> fc7 (in-place)
I0720 13:40:58.929415 24907 net.cpp:141] Setting up fc8
I0720 13:40:58.929442 24907 net.cpp:148] Top shape: 10 1000 (10000)
I0720 13:40:58.929448 24907 net.cpp:156] Memory required for data: 68641400
I0720 13:40:58.929461 24907 layer_factory.hpp:77] Creating layer prob
I0720 13:40:58.931257 24907 net.cpp:91] Creating Layer prob
I0720 13:40:58.931278 24907 net.cpp:425] prob <- fc8
I0720 13:40:58.931290 24907 net.cpp:399] prob -> prob
I0720 13:40:58.931613 24934 net.cpp:141] Setting up fc8
I0720 13:40:58.931660 24934 net.cpp:148] Top shape: 10 1000 (10000)
I0720 13:40:58.931669 24934 net.cpp:156] Memory required for data: 68641400
I0720 13:40:58.931689 24934 layer_factory.hpp:77] Creating layer prob
I0720 13:40:58.931710 24934 net.cpp:91] Creating Layer prob
I0720 13:40:58.931720 24934 net.cpp:425] prob <- fc8
I0720 13:40:58.932209 24934 net.cpp:399] prob -> prob
I0720 13:40:58.937487 24919 net.cpp:141] Setting up relu7
I0720 13:40:58.937537 24919 net.cpp:148] Top shape: 10 4096 (40960)
I0720 13:40:58.937543 24919 net.cpp:156] Memory required for data: 68437560
I0720 13:40:58.937551 24919 layer_factory.hpp:77] Creating layer drop7
I0720 13:40:58.937566 24919 net.cpp:91] Creating Layer drop7
I0720 13:40:58.937572 24919 net.cpp:425] drop7 <- fc7
I0720 13:40:58.937582 24919 net.cpp:386] drop7 -> fc7 (in-place)
I0720 13:40:58.937598 24919 net.cpp:141] Setting up drop7
I0720 13:40:58.937604 24919 net.cpp:148] Top shape: 10 4096 (40960)
I0720 13:40:58.937608 24919 net.cpp:156] Memory required for data: 68601400
I0720 13:40:58.937613 24919 layer_factory.hpp:77] Creating layer fc8
I0720 13:40:58.938642 24919 net.cpp:91] Creating Layer fc8
I0720 13:40:58.938662 24919 net.cpp:425] fc8 <- fc7
I0720 13:40:58.938671 24919 net.cpp:399] fc8 -> fc8
I0720 13:40:58.938653 24936 net.cpp:141] Setting up relu7
I0720 13:40:58.938653 24934 net.cpp:141] Setting up prob
I0720 13:40:58.938748 24934 net.cpp:148] Top shape: 10 1000 (10000)
I0720 13:40:58.938757 24934 net.cpp:156] Memory required for data: 68681400
I0720 13:40:58.938767 24934 net.cpp:219] prob does not need backward computation.
I0720 13:40:58.938774 24934 net.cpp:219] fc8 does not need backward computation.
I0720 13:40:58.938779 24934 net.cpp:219] drop7 does not need backward computation.
I0720 13:40:58.938783 24934 net.cpp:219] relu7 does not need backward computation.
…
I0720 13:40:58.962978 24936 net.cpp:219] pool1 does not need backward computation.
I0720 13:40:58.962983 24936 net.cpp:219] relu1 does not need backward computation.
I0720 13:40:58.962987 24936 net.cpp:219] conv1 does not need backward computation.
I0720 13:40:58.962991 24936 net.cpp:219] data does not need backward computation.
I0720 13:40:58.962996 24936 net.cpp:261] This network produces output prob
I0720 13:40:58.963436 24911 net.cpp:399] fc7 -> fc7
I0720 13:40:58.963438 24936 net.cpp:274] Network initialization done.
I0720 13:40:58.965703 24953 net.cpp:141] Setting up fc6
I0720 13:40:58.965759 24953 net.cpp:148] Top shape: 10 4096 (40960)
I0720 13:40:58.965764 24953 net.cpp:156] Memory required for data: 67782200
I0720 13:40:58.965785 24953 layer_factory.hpp:77] Creating layer relu6
I0720 13:40:58.966938 24953 net.cpp:91] Creating Layer relu6
I0720 13:40:58.966958 24953 net.cpp:425] relu6 <- fc6
I0720 13:40:58.966975 24953 net.cpp:386] relu6 -> fc6 (in-place)
I0720 13:40:58.969275 24953 net.cpp:141] Setting up relu6
I0720 13:40:58.969333 24953 net.cpp:148] Top shape: 10 4096 (40960)
I0720 13:40:58.969342 24953 net.cpp:156] Memory required for data: 67946040
I0720 13:40:58.969355 24953 layer_factory.hpp:77] Creating layer drop6
I0720 13:40:58.969380 24953 net.cpp:91] Creating Layer drop6
I0720 13:40:58.969393 24953 net.cpp:425] drop6 <- fc6
I0720 13:40:58.969807 24953 net.cpp:386] drop6 -> fc6 (in-place)
I0720 13:40:58.969851 24953 net.cpp:141] Setting up drop6
I0720 13:40:58.969866 24953 net.cpp:148] Top shape: 10 4096 (40960)
I0720 13:40:58.969874 24953 net.cpp:156] Memory required for data: 68109880
I0720 13:40:58.969883 24953 layer_factory.hpp:77] Creating layer fc7
I0720 13:40:58.969902 24953 net.cpp:91] Creating Layer fc7
I0720 13:40:58.969913 24953 net.cpp:425] fc7 <- fc6
I0720 13:40:58.969933 24953 net.cpp:399] fc7 -> fc7
I0720 13:40:58.980586 24924 net.cpp:141] Setting up fc6
I0720 13:40:58.981127 24924 net.cpp:148] Top shape: 10 4096 (40960)
I0720 13:40:58.981142 24924 net.cpp:156] Memory required for data: 67782200
I0720 13:40:58.981168 24924 layer_factory.hpp:77] Creating layer relu6
I0720 13:40:58.981191 24924 net.cpp:91] Creating Layer relu6
I0720 13:40:58.981204 24924 net.cpp:425] relu6 <- fc6
I0720 13:40:58.981220 24924 net.cpp:386] relu6 -> fc6 (in-place)
I0720 13:40:58.985342 24924 net.cpp:141] Setting up relu6
I0720 13:40:58.985390 24924 net.cpp:148] Top shape: 10 4096 (40960)
I0720 13:40:58.985399 24924 net.cpp:156] Memory required for data: 67946040
I0720 13:40:58.985410 24924 layer_factory.hpp:77] Creating layer drop6
I0720 13:40:58.985435 24924 net.cpp:91] Creating Layer drop6
I0720 13:40:58.985445 24924 net.cpp:425] drop6 <- fc6
I0720 13:40:58.985458 24924 net.cpp:386] drop6 -> fc6 (in-place)
I0720 13:40:58.985479 24924 net.cpp:141] Setting up drop6
I0720 13:40:58.985491 24924 net.cpp:148] Top shape: 10 4096 (40960)
I0720 13:40:58.985496 24924 net.cpp:156] Memory required for data: 68109880
I0720 13:40:58.985503 24924 layer_factory.hpp:77] Creating layer fc7
I0720 13:40:58.985518 24924 net.cpp:91] Creating Layer fc7
I0720 13:40:58.985525 24924 net.cpp:425] fc7 <- fc6
I0720 13:40:58.986008 24924 net.cpp:399] fc7 -> fc7
I0720 13:40:58.999374 24911 net.cpp:141] Setting up fc7
I0720 13:40:58.999445 24911 net.cpp:148] Top shape: 10 4096 (40960)
I0720 13:40:58.999454 24911 net.cpp:156] Memory required for data: 68273720
I0720 13:40:58.999477 24911 layer_factory.hpp:77] Creating layer relu7
I0720 13:40:58.999502 24911 net.cpp:91] Creating Layer relu7
I0720 13:40:58.999513 24911 net.cpp:425] relu7 <- fc7
I0720 13:40:58.999528 24911 net.cpp:386] relu7 -> fc7 (in-place)
I0720 13:40:59.005708 24953 net.cpp:141] Setting up fc7
I0720 13:40:59.006217 24953 net.cpp:148] Top shape: 10 4096 (40960)
I0720 13:40:59.006393 24953 net.cpp:156] Memory required for data: 68273720
I0720 13:40:59.006521 24953 layer_factory.hpp:77] Creating layer relu7
I0720 13:40:59.007817 24953 net.cpp:91] Creating Layer relu7
I0720 13:40:59.007822 24911 net.cpp:141] Setting up relu7
I0720 13:40:59.008035 24953 net.cpp:425] relu7 <- fc7
I0720 13:40:59.008222 24911 net.cpp:148] Top shape: 10 4096 (40960)
I0720 13:40:59.008335 24953 net.cpp:386] relu7 -> fc7 (in-place)
I0720 13:40:59.008450 24911 net.cpp:156] Memory required for data: 68437560
I0720 13:40:59.008569 24911 layer_factory.hpp:77] Creating layer drop7
I0720 13:40:59.008985 24911 net.cpp:91] Creating Layer drop7
I0720 13:40:59.009007 24911 net.cpp:425] drop7 <- fc7
I0720 13:40:59.009027 24911 net.cpp:386] drop7 -> fc7 (in-place)
I0720 13:40:59.009050 24911 net.cpp:141] Setting up drop7
I0720 13:40:59.009064 24911 net.cpp:148] Top shape: 10 4096 (40960)
I0720 13:40:59.009073 24911 net.cpp:156] Memory required for data: 68601400
I0720 13:40:59.009081 24911 layer_factory.hpp:77] Creating layer fc8
I0720 13:40:59.009099 24911 net.cpp:91] Creating Layer fc8
I0720 13:40:59.009109 24911 net.cpp:425] fc8 <- fc7
I0720 13:40:59.009120 24911 net.cpp:399] fc8 -> fc8
I0720 13:40:59.010854 24953 net.cpp:141] Setting up relu7
I0720 13:40:59.010910 24953 net.cpp:148] Top shape: 10 4096 (40960)
I0720 13:40:59.010921 24953 net.cpp:156] Memory required for data: 68437560
I0720 13:40:59.010936 24953 layer_factory.hpp:77] Creating layer drop7
I0720 13:40:59.010957 24953 net.cpp:91] Creating Layer drop7
I0720 13:40:59.010969 24953 net.cpp:425] drop7 <- fc7
I0720 13:40:59.011658 24953 net.cpp:386] drop7 -> fc7 (in-place)
I0720 13:40:59.011714 24953 net.cpp:141] Setting up drop7
I0720 13:40:59.011729 24953 net.cpp:148] Top shape: 10 4096 (40960)
I0720 13:40:59.011736 24953 net.cpp:156] Memory required for data: 68601400
I0720 13:40:59.011744 24953 layer_factory.hpp:77] Creating layer fc8
I0720 13:40:59.011762 24953 net.cpp:91] Creating Layer fc8
I0720 13:40:59.011771 24953 net.cpp:425] fc8 <- fc7
I0720 13:40:59.011788 24953 net.cpp:399] fc8 -> fc8
I0720 13:40:59.022163 24911 net.cpp:141] Setting up fc8
I0720 13:40:59.022224 24911 net.cpp:148] Top shape: 10 1000 (10000)
I0720 13:40:59.022230 24911 net.cpp:156] Memory required for data: 68641400
I0720 13:40:59.022250 24911 layer_factory.hpp:77] Creating layer prob
I0720 13:40:59.022673 24953 net.cpp:141] Setting up fc8
I0720 13:40:59.022267 24911 net.cpp:91] Creating Layer prob
I0720 13:40:59.022743 24953 net.cpp:148] Top shape: 10 1000 (10000)
I0720 13:40:59.022748 24911 net.cpp:425] prob <- fc8
I0720 13:40:59.022755 24953 net.cpp:156] Memory required for data: 68641400
I0720 13:40:59.022766 24911 net.cpp:399] prob -> prob
I0720 13:40:59.022778 24953 layer_factory.hpp:77] Creating layer prob
I0720 13:40:59.023239 24953 net.cpp:91] Creating Layer prob
I0720 13:40:59.023265 24953 net.cpp:425] prob <- fc8
I0720 13:40:59.023286 24953 net.cpp:399] prob -> prob
I0720 13:40:59.025171 24924 net.cpp:141] Setting up fc7
I0720 13:40:59.025215 24924 net.cpp:148] Top shape: 10 4096 (40960)
I0720 13:40:59.025221 24924 net.cpp:156] Memory required for data: 68273720
I0720 13:40:59.025236 24924 layer_factory.hpp:77] Creating layer relu7
I0720 13:40:59.025250 24924 net.cpp:91] Creating Layer relu7
I0720 13:40:59.025257 24924 net.cpp:425] relu7 <- fc7
I0720 13:40:59.025265 24924 net.cpp:386] relu7 -> fc7 (in-place)
I0720 13:40:59.029631 24911 net.cpp:141] Setting up prob
I0720 13:40:59.029650 24924 net.cpp:141] Setting up relu7
I0720 13:40:59.029681 24911 net.cpp:148] Top shape: 10 1000 (10000)
I0720 13:40:59.029688 24911 net.cpp:156] Memory required for data: 68681400
I0720 13:40:59.029687 24924 net.cpp:148] Top shape: 10 4096 (40960)
I0720 13:40:59.029701 24911 net.cpp:219] prob does not need backward computation.
I0720 13:40:59.029702 24924 net.cpp:156] Memory required for data: 68437560
I0720 13:40:59.029709 24911 net.cpp:219] fc8 does not need backward computation.
I0720 13:40:59.029711 24924 layer_factory.hpp:77] Creating layer drop7
I0720 13:40:59.029714 24911 net.cpp:219] drop7 does not need backward computation.
…
