…
I0802 06:58:12.361627 27889 upgrade_proto.cpp:66] Attempting to upgrade input file specified using deprecated input fields: /tmp/cvld5781282677086013572/s2vt.words_to_preds.prototxt
I0802 06:58:12.361771 27889 upgrade_proto.cpp:69] Successfully upgraded file specified using deprecated input fields.
W0802 06:58:12.361783 27889 upgrade_proto.cpp:71] Note that future Caffe releases will only support input layers and not input fields.
I0802 06:58:12.361804 27899 net.cpp:49] Initializing net from parameters: 
name: "CaffeNet"
state {
  phase: TEST
}
layer {
  name: "data"
  type: "Input"
  top: "data"
  input_param {
    shape {
      dim: 10
      dim: 3
      dim: 227
      dim: 227
    }
  }
}
layer {
  name: "conv1"
  type: "Convolution"
  bottom: "data"
  top: "conv1"
  convolution_param {
    num_output: 96
    kernel_size: 11
    stride: 4
  }
}
layer {
  name: "relu1"
  type: "ReLU"
  bottom: "conv1"
  top: "conv1"
}
layer {
  name: "pool1"
  type: "Pooling"
  bottom: "conv1"
  top: "pool1"
  pooling_param {
    pool: MAX
    kernel_size: 3
    stride: 2
  }
}
layer {
  name: "norm1"
  type: "LRN"
  bottom: "pool1"
  top: "norm1"
  lrn_param {
    local_size: 5
    alpha: 0.0001
    beta: 0.75
  }
}
layer {
  name: "conv2"
  type: "Convolution"
  bottom: "norm1"
  top: "conv2"
  convolution_param {
    num_output: 256
    pad: 2
    kernel_size: 5
    group: 2
  }
}
layer {
  name: "relu2"
  type: "ReLU"
  bottom: "conv2"
  top: "conv2"
}
layer {
  name: "pool2"
  type: "Pooling"
  bottom: "conv2"
  top: "pool2"
  pooling_param {
    pool: MAX
    kernel_size: 3
    stride: 2
  }
}
layer {
  name: "norm2"
  type: "LRN"
  bottom: "pool2"
  top: "norm2"
  lrn_param {
    local_size: 5
    alpha: 0.0001
    beta: 0.75
  }
}
layer {
  name: "conv3"
  type: "Convolution"
  bottom: "norm2"
  top: "conv3"
  convolution_param {
    num_output: 384
    pad: 1
    kernel_size: 3
  }
}
layer {
  name: "relu3"
  type: "ReLU"
  bottom: "conv3"
  top: "conv3"
}
layer {
  name: "conv4"
  type: "Convolution"
  bottom: "conv3"
  top: "conv4"
  convolution_param {
    num_output: 384
    pad: 1
    kernel_size: 3
    group: 2
  }
}
layer {
  name: "relu4"
  type: "ReLU"
  bottom: "conv4"
  top: "conv4"
}
layer {
  name: "conv5"
  type: "Convolution"
  bottom: "conv4"
  top: "conv5"
  convolution_param {
    num_output: 256
    pad: 1
    kernel_size: 3
    group: 2
  }
}
layer {
  name: "relu5"
  type: "ReLU"
  bottom: "conv5"
  top: "conv5"
}
layer {
  name: "pool5"
  type: "Pooling"
  bottom: "conv5"
  top: "pool5"
  pooling_param {
    pool: MAX
    kernel_size: 3
    stride: 2
  }
}
layer {
  name: "fc6"
  type: "InnerProduct"
  bottom: "pool5"
  top: "fc6"
  inner_product_param {
    num_output: 4096
  }
}
layer {
  name: "relu6"
  type: "ReLU"
  bottom: "fc6"
  top: "fc6"
}
layer {
  name: "drop6"
  type: "Dropout"
  bottom: "fc6"
  top: "fc6"
  dropout_param {
    dropout_ratio: 0.5
  }
}
layer {
  name: "fc7"
  type: "InnerProduct"
  bottom: "fc6"
  top: "fc7"
  inner_product_param {
    num_output: 4096
  }
}
layer {
  name: "relu7"
  type: "ReLU"
  bottom: "fc7"
  top: "fc7"
}
layer {
  name: "drop7"
  type: "Dropout"
  bottom: "fc7"
  top: "fc7"
  dropout_param {
    dropout_ratio: 0.5
  }
}
layer {
  name: "fc8"
  type: "InnerProduct"
  bottom: "fc7"
  top: "fc8"
  inner_product_param {
    num_output: 1000
  }
}
layer {
  name: "prob"
  type: "Softmax"
  bottom: "fc8"
  top: "prob"
}
I0802 06:58:12.361930 27899 layer_factory.hpp:77] Creating layer data
I0802 06:58:12.361979 27899 net.cpp:91] Creating Layer data
I0802 06:58:12.361990 27899 net.cpp:399] data -> data
I0802 06:58:12.362103 27889 net.cpp:49] Initializing net from parameters: 
name: "s2vt:features_to_lstm"
state {
  phase: TEST
}
layer {
  name: "input"
  type: "Input"
  top: "frames_fc7"
  top: "cont_sentence"
  top: "input_sentence"
  top: "stage_indicator"
  input_param {
    shape {
      dim: 1
      dim: 4096
    }
    shape {
      dim: 1
      dim: 1
    }
    shape {
      dim: 1
      dim: 1
    }
    shape {
      dim: 1
      dim: 1
    }
  }
}
layer {
  name: "embed_encoder"
  type: "InnerProduct"
  bottom: "frames_fc7"
  top: "embedded_in_frames"
  param {
    lr_mult: 1
    decay_mult: 1
  }
  param {
    lr_mult: 2
    decay_mult: 0
  }
  inner_product_param {
    num_output: 500
    weight_filler {
      type: "xavier"
    }
    bias_filler {
      type: "constant"
      value: 0.2
    }
  }
}
layer {
  name: "reshape_frames"
  type: "Reshape"
  bottom: "embedded_in_frames"
  top: "embedded_input_frames"
  reshape_param {
    shape {
      dim: 1
      dim: 1
      dim: 500
    }
  }
}
layer {
  name: "reshape_stage_indicator"
  type: "Reshape"
  bottom: "stage_indicator"
  top: "reshaped_stage_indicator"
  reshape_param {
    shape {
      dim: 1
      dim: 1
      dim: 1
    }
  }
}
layer {
  name: "embedding"
  type: "Embed"
  bottom: "input_sentence"
  top: "embedded_input_sentence"
  param {
    lr_mult: 1
  }
  embed_param {
    num_output: 500
    input_dim: 46168
    bias_term: false
    weight_filler {
      type: "uniform"
      min: -0.08
      max: 0.08
    }
  }
}
layer {
  name: "lstm1"
  type: "LSTM"
  bottom: "embedded_input_frames"
  bottom: "cont_sentence"
  top: "lstm1"
  recurrent_param {
    num_output: 1000
    weight_filler {
      type: "uniform"
      min: -0.08
      max: 0.08
    }
    bias_filler {
      type: "constant"
      value: 0
    }
  }
}
layer {
  name: "concat"
  type: "Concat"
  bottom: "lstm1"
  bottom: "embedded_input_sentence"
  bottom: "reshaped_stage_indicator"
  top: "lstm1_video_sequence"
  concat_param {
    concat_dim: 2
  }
}
layer {
  name: "lstm2"
  type: "LSTM"
  bottom: "lstm1_video_sequence"
  bottom: "cont_sentence"
  top: "lstm2"
  recurrent_param {
    num_output: 1000
    weight_filler {
      type: "uniform"
      min: -0.08
      max: 0.08
    }
    bias_filler {
      type: "constant"
      value: 0
    }
  }
}
layer {
  name: "predict"
  type: "InnerProduct"
  bottom: "lstm2"
  top: "predict"
  param {
    lr_mult: 1
    decay_mult: 1
  }
  param {
    lr_mult: 2
    decay_mult: 0
  }
  inner_product_param {
    num_output: 46168
    weight_filler {
      type: "uniform"
      min: -0.08
      max: 0.08
    }
    bias_filler {
      type: "constant"
      value: 0
    }
    axis: 2
  }
}
layer {
  name: "probs"
  type: "Softmax"
  bottom: "predict"
  top: "probs"
  softmax_param {
    axis: 2
  }
}
I0802 06:58:12.362272 27889 layer_factory.hpp:77] Creating layer input
I0802 06:58:12.362292 27889 net.cpp:91] Creating Layer input
I0802 06:58:12.362301 27889 net.cpp:399] input -> frames_fc7
I0802 06:58:12.362319 27889 net.cpp:399] input -> cont_sentence
I0802 06:58:12.362337 27889 net.cpp:399] input -> input_sentence
I0802 06:58:12.362352 27889 net.cpp:399] input -> stage_indicator
I0802 06:58:12.886796 27899 net.cpp:141] Setting up data
I0802 06:58:12.886884 27889 net.cpp:141] Setting up input
I0802 06:58:12.886899 27899 net.cpp:148] Top shape: 10 3 227 227 (1545870)
I0802 06:58:12.886909 27889 net.cpp:148] Top shape: 1 4096 (4096)
I0802 06:58:12.886907 27899 net.cpp:156] Memory required for data: 6183480
I0802 06:58:12.886920 27889 net.cpp:148] Top shape: 1 1 (1)
I0802 06:58:12.886929 27889 net.cpp:148] Top shape: 1 1 (1)
I0802 06:58:12.886934 27899 layer_factory.hpp:77] Creating layer conv1
I0802 06:58:12.886940 27889 net.cpp:148] Top shape: 1 1 (1)
I0802 06:58:12.886945 27889 net.cpp:156] Memory required for data: 16396
I0802 06:58:12.886955 27889 layer_factory.hpp:77] Creating layer cont_sentence_input_1_split
I0802 06:58:12.886970 27899 net.cpp:91] Creating Layer conv1
I0802 06:58:12.886978 27899 net.cpp:425] conv1 <- data
I0802 06:58:12.886981 27889 net.cpp:91] Creating Layer cont_sentence_input_1_split
I0802 06:58:12.886991 27889 net.cpp:425] cont_sentence_input_1_split <- cont_sentence
I0802 06:58:12.886993 27899 net.cpp:399] conv1 -> conv1
I0802 06:58:12.887020 27889 net.cpp:399] cont_sentence_input_1_split -> cont_sentence_input_1_split_0
I0802 06:58:12.887037 27889 net.cpp:399] cont_sentence_input_1_split -> cont_sentence_input_1_split_1
I0802 06:58:12.887110 27889 net.cpp:141] Setting up cont_sentence_input_1_split
I0802 06:58:12.887123 27889 net.cpp:148] Top shape: 1 1 (1)
I0802 06:58:12.887132 27889 net.cpp:148] Top shape: 1 1 (1)
I0802 06:58:12.887138 27889 net.cpp:156] Memory required for data: 16404
I0802 06:58:12.887146 27889 layer_factory.hpp:77] Creating layer embed_encoder
I0802 06:58:12.887168 27889 net.cpp:91] Creating Layer embed_encoder
I0802 06:58:12.887176 27889 net.cpp:425] embed_encoder <- frames_fc7
I0802 06:58:12.887187 27889 net.cpp:399] embed_encoder -> embedded_in_frames
I0802 06:58:12.917568 27889 net.cpp:141] Setting up embed_encoder
I0802 06:58:12.917635 27889 net.cpp:148] Top shape: 1 500 (500)
I0802 06:58:12.917644 27889 net.cpp:156] Memory required for data: 18404
I0802 06:58:12.917680 27889 layer_factory.hpp:77] Creating layer reshape_frames
I0802 06:58:12.917716 27889 net.cpp:91] Creating Layer reshape_frames
I0802 06:58:12.917726 27889 net.cpp:425] reshape_frames <- embedded_in_frames
I0802 06:58:12.917775 27889 net.cpp:399] reshape_frames -> embedded_input_frames
I0802 06:58:12.922493 27889 net.cpp:141] Setting up reshape_frames
I0802 06:58:12.922508 27889 net.cpp:148] Top shape: 1 1 500 (500)
I0802 06:58:12.922526 27889 net.cpp:156] Memory required for data: 20404
I0802 06:58:12.922533 27889 layer_factory.hpp:77] Creating layer reshape_stage_indicator
I0802 06:58:12.922547 27889 net.cpp:91] Creating Layer reshape_stage_indicator
I0802 06:58:12.922554 27889 net.cpp:425] reshape_stage_indicator <- stage_indicator
I0802 06:58:12.922565 27889 net.cpp:399] reshape_stage_indicator -> reshaped_stage_indicator
I0802 06:58:12.922617 27889 net.cpp:141] Setting up reshape_stage_indicator
I0802 06:58:12.922631 27889 net.cpp:148] Top shape: 1 1 1 (1)
I0802 06:58:12.922636 27889 net.cpp:156] Memory required for data: 20408
I0802 06:58:12.922643 27889 layer_factory.hpp:77] Creating layer embedding
I0802 06:58:12.922658 27889 net.cpp:91] Creating Layer embedding
I0802 06:58:12.922665 27889 net.cpp:425] embedding <- input_sentence
I0802 06:58:12.922677 27889 net.cpp:399] embedding -> embedded_input_sentence
I0802 06:58:13.141860 27889 net.cpp:141] Setting up embedding
I0802 06:58:13.141937 27889 net.cpp:148] Top shape: 1 1 500 (500)
I0802 06:58:13.141942 27889 net.cpp:156] Memory required for data: 22408
I0802 06:58:13.141963 27889 layer_factory.hpp:77] Creating layer lstm1
I0802 06:58:13.141985 27889 net.cpp:91] Creating Layer lstm1
I0802 06:58:13.141993 27889 net.cpp:425] lstm1 <- embedded_input_frames
I0802 06:58:13.142001 27889 net.cpp:425] lstm1 <- cont_sentence_input_1_split_0
I0802 06:58:13.142027 27889 net.cpp:399] lstm1 -> lstm1
I0802 06:58:13.142060 27889 recurrent_layer.cpp:20] Initializing recurrent layer: assuming input batch contains 1 timesteps of 1 independent streams.
I0802 06:58:13.142449 27889 net.cpp:49] Initializing net from parameters: 
layer {
  name: "lstm1_"
  type: "Input"
  top: "x"
  top: "cont"
  input_param {
    shape {
      dim: 1
      dim: 1
      dim: 500
    }
    shape {
      dim: 1
      dim: 1
    }
  }
}
layer {
  name: "lstm1_"
  type: "Input"
  top: "c_0"
  top: "h_0"
  input_param {
    shape {
      dim: 1
      dim: 1
      dim: 1000
    }
    shape {
      dim: 1
      dim: 1
      dim: 1000
    }
  }
}
layer {
  name: "lstm1_cont_slice"
  type: "Slice"
  bottom: "cont"
  top: "cont_1"
  slice_param {
    axis: 0
  }
}
layer {
  name: "lstm1_x_transform"
  type: "InnerProduct"
  bottom: "x"
  top: "W_xc_x"
  param {
    name: "W_xc"
  }
  param {
    name: "b_c"
  }
  propagate_down: true
  inner_product_param {
    num_output: 4000
    bias_term: true
    weight_filler {
      type: "uniform"
      min: -0.08
      max: 0.08
    }
    bias_filler {
      type: "constant"
      value: 0
    }
    axis: 2
  }
}
layer {
  name: "lstm1_W_xc_x_slice"
  type: "Slice"
  bottom: "W_xc_x"
  top: "W_xc_x_1"
  slice_param {
    axis: 0
  }
}
layer {
  name: "lstm1_h_conted_0"
  type: "Scale"
  bottom: "h_0"
  bottom: "cont_1"
  top: "h_conted_0"
  scale_param {
    axis: 0
  }
}
layer {
  name: "lstm1_transform_1"
  type: "InnerProduct"
  bottom: "h_conted_0"
  top: "W_hc_h_0"
  param {
    name: "W_hc"
  }
  inner_product_param {
    num_output: 4000
    bias_term: false
    weight_filler {
      type: "uniform"
      min: -0.08
      max: 0.08
    }
    axis: 2
  }
}
layer {
  name: "lstm1_gate_input_1"
  type: "Eltwise"
  bottom: "W_hc_h_0"
  bottom: "W_xc_x_1"
  top: "gate_input_1"
  eltwise_param {
    operation: SUM
  }
}
layer {
  name: "lstm1_unit_1"
  type: "LSTMUnit"
  bottom: "c_0"
  bottom: "gate_input_1"
  bottom: "cont_1"
  top: "c_1"
  top: "h_1"
}
layer {
  name: "lstm1_"
  type: "Split"
  bottom: "c_1"
  top: "c_T"
}
layer {
  name: "lstm1_h_concat"
  type: "Concat"
  bottom: "h_1"
  top: "h"
  concat_param {
    axis: 0
  }
}
layer {
  name: "h_pseudoloss"
  type: "Reduction"
  bottom: "h"
  top: "h_pseudoloss"
  loss_weight: 1
}
I0802 06:58:13.142559 27889 layer_factory.hpp:77] Creating layer lstm1_
I0802 06:58:13.142572 27889 net.cpp:91] Creating Layer lstm1_
I0802 06:58:13.142580 27889 net.cpp:399] lstm1_ -> x
I0802 06:58:13.142591 27889 net.cpp:399] lstm1_ -> cont
I0802 06:58:13.150544 27889 net.cpp:141] Setting up lstm1_
I0802 06:58:13.150562 27889 net.cpp:148] Top shape: 1 1 500 (500)
I0802 06:58:13.150568 27889 net.cpp:148] Top shape: 1 1 (1)
I0802 06:58:13.150573 27889 net.cpp:156] Memory required for data: 2004
I0802 06:58:13.150578 27889 layer_factory.hpp:77] Creating layer lstm1_
I0802 06:58:13.150588 27889 net.cpp:91] Creating Layer lstm1_
I0802 06:58:13.150601 27889 net.cpp:399] lstm1_ -> c_0
I0802 06:58:13.150614 27889 net.cpp:399] lstm1_ -> h_0
I0802 06:58:13.150670 27889 net.cpp:141] Setting up lstm1_
I0802 06:58:13.150678 27889 net.cpp:148] Top shape: 1 1 1000 (1000)
I0802 06:58:13.150684 27889 net.cpp:148] Top shape: 1 1 1000 (1000)
I0802 06:58:13.150688 27889 net.cpp:156] Memory required for data: 10004
I0802 06:58:13.150692 27889 layer_factory.hpp:77] Creating layer lstm1_cont_slice
I0802 06:58:13.150705 27889 net.cpp:91] Creating Layer lstm1_cont_slice
I0802 06:58:13.150710 27889 net.cpp:425] lstm1_cont_slice <- cont
I0802 06:58:13.150717 27889 net.cpp:399] lstm1_cont_slice -> cont_1
I0802 06:58:13.154460 27889 net.cpp:141] Setting up lstm1_cont_slice
I0802 06:58:13.154484 27889 net.cpp:148] Top shape: 1 1 (1)
I0802 06:58:13.154490 27889 net.cpp:156] Memory required for data: 10008
I0802 06:58:13.154495 27889 layer_factory.hpp:77] Creating layer cont_1_lstm1_cont_slice_0_split
I0802 06:58:13.154505 27889 net.cpp:91] Creating Layer cont_1_lstm1_cont_slice_0_split
I0802 06:58:13.154510 27889 net.cpp:425] cont_1_lstm1_cont_slice_0_split <- cont_1
I0802 06:58:13.154523 27889 net.cpp:399] cont_1_lstm1_cont_slice_0_split -> cont_1_lstm1_cont_slice_0_split_0
I0802 06:58:13.154533 27889 net.cpp:399] cont_1_lstm1_cont_slice_0_split -> cont_1_lstm1_cont_slice_0_split_1
I0802 06:58:13.156316 27889 net.cpp:141] Setting up cont_1_lstm1_cont_slice_0_split
I0802 06:58:13.156332 27889 net.cpp:148] Top shape: 1 1 (1)
I0802 06:58:13.156338 27889 net.cpp:148] Top shape: 1 1 (1)
I0802 06:58:13.156342 27889 net.cpp:156] Memory required for data: 10016
I0802 06:58:13.156347 27889 layer_factory.hpp:77] Creating layer lstm1_x_transform
I0802 06:58:13.156374 27889 net.cpp:91] Creating Layer lstm1_x_transform
I0802 06:58:13.156379 27889 net.cpp:425] lstm1_x_transform <- x
I0802 06:58:13.156388 27889 net.cpp:399] lstm1_x_transform -> W_xc_x
I0802 06:58:13.177536 27889 net.cpp:141] Setting up lstm1_x_transform
I0802 06:58:13.177605 27889 net.cpp:148] Top shape: 1 1 4000 (4000)
I0802 06:58:13.177611 27889 net.cpp:156] Memory required for data: 26016
I0802 06:58:13.177637 27889 layer_factory.hpp:77] Creating layer lstm1_W_xc_x_slice
I0802 06:58:13.177656 27889 net.cpp:91] Creating Layer lstm1_W_xc_x_slice
I0802 06:58:13.177664 27889 net.cpp:425] lstm1_W_xc_x_slice <- W_xc_x
I0802 06:58:13.177673 27889 net.cpp:399] lstm1_W_xc_x_slice -> W_xc_x_1
I0802 06:58:13.179023 27889 net.cpp:141] Setting up lstm1_W_xc_x_slice
I0802 06:58:13.179042 27889 net.cpp:148] Top shape: 1 1 4000 (4000)
I0802 06:58:13.179047 27889 net.cpp:156] Memory required for data: 42016
I0802 06:58:13.179052 27889 layer_factory.hpp:77] Creating layer lstm1_h_conted_0
I0802 06:58:13.179064 27889 net.cpp:91] Creating Layer lstm1_h_conted_0
I0802 06:58:13.179069 27889 net.cpp:425] lstm1_h_conted_0 <- h_0
I0802 06:58:13.179075 27889 net.cpp:425] lstm1_h_conted_0 <- cont_1_lstm1_cont_slice_0_split_0
I0802 06:58:13.179082 27889 net.cpp:399] lstm1_h_conted_0 -> h_conted_0
I0802 06:58:13.179599 27889 net.cpp:141] Setting up lstm1_h_conted_0
I0802 06:58:13.179616 27889 net.cpp:148] Top shape: 1 1 1000 (1000)
I0802 06:58:13.179621 27889 net.cpp:156] Memory required for data: 46016
I0802 06:58:13.179627 27889 layer_factory.hpp:77] Creating layer lstm1_transform_1
I0802 06:58:13.179642 27889 net.cpp:91] Creating Layer lstm1_transform_1
I0802 06:58:13.179647 27889 net.cpp:425] lstm1_transform_1 <- h_conted_0
I0802 06:58:13.179661 27889 net.cpp:399] lstm1_transform_1 -> W_hc_h_0
I0802 06:58:13.194941 27899 net.cpp:141] Setting up conv1
I0802 06:58:13.195004 27899 net.cpp:148] Top shape: 10 96 55 55 (2904000)
I0802 06:58:13.195014 27899 net.cpp:156] Memory required for data: 17799480
I0802 06:58:13.195046 27899 layer_factory.hpp:77] Creating layer relu1
I0802 06:58:13.195071 27899 net.cpp:91] Creating Layer relu1
I0802 06:58:13.195081 27899 net.cpp:425] relu1 <- conv1
I0802 06:58:13.195093 27899 net.cpp:386] relu1 -> conv1 (in-place)
I0802 06:58:13.195768 27899 net.cpp:141] Setting up relu1
I0802 06:58:13.195791 27899 net.cpp:148] Top shape: 10 96 55 55 (2904000)
I0802 06:58:13.195798 27899 net.cpp:156] Memory required for data: 29415480
I0802 06:58:13.195807 27899 layer_factory.hpp:77] Creating layer pool1
I0802 06:58:13.195827 27899 net.cpp:91] Creating Layer pool1
I0802 06:58:13.195834 27899 net.cpp:425] pool1 <- conv1
I0802 06:58:13.195847 27899 net.cpp:399] pool1 -> pool1
I0802 06:58:13.195950 27899 net.cpp:141] Setting up pool1
I0802 06:58:13.195966 27899 net.cpp:148] Top shape: 10 96 27 27 (699840)
I0802 06:58:13.195974 27899 net.cpp:156] Memory required for data: 32214840
I0802 06:58:13.195982 27899 layer_factory.hpp:77] Creating layer norm1
I0802 06:58:13.196017 27899 net.cpp:91] Creating Layer norm1
I0802 06:58:13.196027 27899 net.cpp:425] norm1 <- pool1
I0802 06:58:13.196051 27899 net.cpp:399] norm1 -> norm1
I0802 06:58:13.196710 27899 net.cpp:141] Setting up norm1
I0802 06:58:13.196733 27899 net.cpp:148] Top shape: 10 96 27 27 (699840)
I0802 06:58:13.196741 27899 net.cpp:156] Memory required for data: 35014200
I0802 06:58:13.196749 27899 layer_factory.hpp:77] Creating layer conv2
I0802 06:58:13.196774 27899 net.cpp:91] Creating Layer conv2
I0802 06:58:13.196781 27899 net.cpp:425] conv2 <- norm1
I0802 06:58:13.196794 27899 net.cpp:399] conv2 -> conv2
I0802 06:58:13.201843 27899 net.cpp:141] Setting up conv2
I0802 06:58:13.201866 27899 net.cpp:148] Top shape: 10 256 27 27 (1866240)
I0802 06:58:13.201872 27899 net.cpp:156] Memory required for data: 42479160
I0802 06:58:13.201886 27899 layer_factory.hpp:77] Creating layer relu2
I0802 06:58:13.201897 27899 net.cpp:91] Creating Layer relu2
I0802 06:58:13.201903 27899 net.cpp:425] relu2 <- conv2
I0802 06:58:13.201915 27899 net.cpp:386] relu2 -> conv2 (in-place)
I0802 06:58:13.202432 27899 net.cpp:141] Setting up relu2
I0802 06:58:13.202446 27899 net.cpp:148] Top shape: 10 256 27 27 (1866240)
I0802 06:58:13.202452 27899 net.cpp:156] Memory required for data: 49944120
I0802 06:58:13.202458 27899 layer_factory.hpp:77] Creating layer pool2
I0802 06:58:13.202471 27899 net.cpp:91] Creating Layer pool2
I0802 06:58:13.202477 27899 net.cpp:425] pool2 <- conv2
I0802 06:58:13.202486 27899 net.cpp:399] pool2 -> pool2
I0802 06:58:13.202563 27899 net.cpp:141] Setting up pool2
I0802 06:58:13.202574 27899 net.cpp:148] Top shape: 10 256 13 13 (432640)
I0802 06:58:13.202579 27899 net.cpp:156] Memory required for data: 51674680
I0802 06:58:13.202584 27899 layer_factory.hpp:77] Creating layer norm2
I0802 06:58:13.202597 27899 net.cpp:91] Creating Layer norm2
I0802 06:58:13.202603 27899 net.cpp:425] norm2 <- pool2
I0802 06:58:13.202610 27899 net.cpp:399] norm2 -> norm2
I0802 06:58:13.202916 27899 net.cpp:141] Setting up norm2
I0802 06:58:13.202929 27899 net.cpp:148] Top shape: 10 256 13 13 (432640)
I0802 06:58:13.202934 27899 net.cpp:156] Memory required for data: 53405240
I0802 06:58:13.202940 27899 layer_factory.hpp:77] Creating layer conv3
I0802 06:58:13.202955 27899 net.cpp:91] Creating Layer conv3
I0802 06:58:13.202960 27899 net.cpp:425] conv3 <- norm2
I0802 06:58:13.202968 27899 net.cpp:399] conv3 -> conv3
I0802 06:58:13.207381 27899 net.cpp:141] Setting up conv3
I0802 06:58:13.207406 27899 net.cpp:148] Top shape: 10 384 13 13 (648960)
I0802 06:58:13.207412 27899 net.cpp:156] Memory required for data: 56001080
I0802 06:58:13.207427 27899 layer_factory.hpp:77] Creating layer relu3
I0802 06:58:13.207438 27899 net.cpp:91] Creating Layer relu3
I0802 06:58:13.207444 27899 net.cpp:425] relu3 <- conv3
I0802 06:58:13.207456 27899 net.cpp:386] relu3 -> conv3 (in-place)
I0802 06:58:13.207962 27899 net.cpp:141] Setting up relu3
I0802 06:58:13.207978 27899 net.cpp:148] Top shape: 10 384 13 13 (648960)
I0802 06:58:13.207983 27899 net.cpp:156] Memory required for data: 58596920
I0802 06:58:13.207988 27899 layer_factory.hpp:77] Creating layer conv4
I0802 06:58:13.208015 27899 net.cpp:91] Creating Layer conv4
I0802 06:58:13.208024 27899 net.cpp:425] conv4 <- conv3
I0802 06:58:13.208035 27899 net.cpp:399] conv4 -> conv4
I0802 06:58:13.212636 27899 net.cpp:141] Setting up conv4
I0802 06:58:13.212666 27899 net.cpp:148] Top shape: 10 384 13 13 (648960)
I0802 06:58:13.212672 27899 net.cpp:156] Memory required for data: 61192760
I0802 06:58:13.212682 27899 layer_factory.hpp:77] Creating layer relu4
I0802 06:58:13.212697 27899 net.cpp:91] Creating Layer relu4
I0802 06:58:13.212702 27899 net.cpp:425] relu4 <- conv4
I0802 06:58:13.212710 27899 net.cpp:386] relu4 -> conv4 (in-place)
I0802 06:58:13.213191 27899 net.cpp:141] Setting up relu4
I0802 06:58:13.213207 27899 net.cpp:148] Top shape: 10 384 13 13 (648960)
I0802 06:58:13.213213 27899 net.cpp:156] Memory required for data: 63788600
I0802 06:58:13.213218 27899 layer_factory.hpp:77] Creating layer conv5
I0802 06:58:13.213232 27899 net.cpp:91] Creating Layer conv5
I0802 06:58:13.213238 27899 net.cpp:425] conv5 <- conv4
I0802 06:58:13.213250 27899 net.cpp:399] conv5 -> conv5
I0802 06:58:13.216892 27889 net.cpp:141] Setting up lstm1_transform_1
I0802 06:58:13.216944 27889 net.cpp:148] Top shape: 1 1 4000 (4000)
I0802 06:58:13.216950 27889 net.cpp:156] Memory required for data: 62016
I0802 06:58:13.216969 27889 layer_factory.hpp:77] Creating layer lstm1_gate_input_1
I0802 06:58:13.216990 27889 net.cpp:91] Creating Layer lstm1_gate_input_1
I0802 06:58:13.216997 27889 net.cpp:425] lstm1_gate_input_1 <- W_hc_h_0
I0802 06:58:13.217005 27889 net.cpp:425] lstm1_gate_input_1 <- W_xc_x_1
I0802 06:58:13.217012 27889 net.cpp:399] lstm1_gate_input_1 -> gate_input_1
I0802 06:58:13.217589 27889 net.cpp:141] Setting up lstm1_gate_input_1
I0802 06:58:13.217599 27889 net.cpp:148] Top shape: 1 1 4000 (4000)
I0802 06:58:13.217604 27889 net.cpp:156] Memory required for data: 78016
I0802 06:58:13.217608 27889 layer_factory.hpp:77] Creating layer lstm1_unit_1
I0802 06:58:13.217617 27889 net.cpp:91] Creating Layer lstm1_unit_1
I0802 06:58:13.217622 27889 net.cpp:425] lstm1_unit_1 <- c_0
I0802 06:58:13.217628 27889 net.cpp:425] lstm1_unit_1 <- gate_input_1
I0802 06:58:13.217633 27889 net.cpp:425] lstm1_unit_1 <- cont_1_lstm1_cont_slice_0_split_1
I0802 06:58:13.217641 27889 net.cpp:399] lstm1_unit_1 -> c_1
I0802 06:58:13.217650 27889 net.cpp:399] lstm1_unit_1 -> h_1
I0802 06:58:13.217916 27899 net.cpp:141] Setting up conv5
I0802 06:58:13.217936 27899 net.cpp:148] Top shape: 10 256 13 13 (432640)
I0802 06:58:13.217941 27889 net.cpp:141] Setting up lstm1_unit_1
I0802 06:58:13.217942 27899 net.cpp:156] Memory required for data: 65519160
I0802 06:58:13.217953 27889 net.cpp:148] Top shape: 1 1 1000 (1000)
I0802 06:58:13.217960 27889 net.cpp:148] Top shape: 1 1 1000 (1000)
I0802 06:58:13.217963 27889 net.cpp:156] Memory required for data: 86016
I0802 06:58:13.217968 27889 layer_factory.hpp:77] Creating layer lstm1_
I0802 06:58:13.217967 27899 layer_factory.hpp:77] Creating layer relu5
I0802 06:58:13.217984 27889 net.cpp:91] Creating Layer lstm1_
I0802 06:58:13.217986 27899 net.cpp:91] Creating Layer relu5
I0802 06:58:13.217989 27889 net.cpp:425] lstm1_ <- c_1
I0802 06:58:13.217993 27899 net.cpp:425] relu5 <- conv5
I0802 06:58:13.217998 27889 net.cpp:399] lstm1_ -> c_T
I0802 06:58:13.218000 27899 net.cpp:386] relu5 -> conv5 (in-place)
I0802 06:58:13.218034 27889 net.cpp:141] Setting up lstm1_
I0802 06:58:13.218041 27889 net.cpp:148] Top shape: 1 1 1000 (1000)
I0802 06:58:13.218045 27889 net.cpp:156] Memory required for data: 90016
I0802 06:58:13.218050 27889 layer_factory.hpp:77] Creating layer lstm1_h_concat
I0802 06:58:13.218070 27889 net.cpp:91] Creating Layer lstm1_h_concat
I0802 06:58:13.218073 27889 net.cpp:425] lstm1_h_concat <- h_1
I0802 06:58:13.218085 27889 net.cpp:399] lstm1_h_concat -> h
I0802 06:58:13.218504 27889 net.cpp:141] Setting up lstm1_h_concat
I0802 06:58:13.218514 27889 net.cpp:148] Top shape: 1 1 1000 (1000)
I0802 06:58:13.218518 27889 net.cpp:156] Memory required for data: 94016
I0802 06:58:13.218523 27889 layer_factory.hpp:77] Creating layer h_pseudoloss
I0802 06:58:13.218536 27889 net.cpp:91] Creating Layer h_pseudoloss
I0802 06:58:13.218541 27889 net.cpp:425] h_pseudoloss <- h
I0802 06:58:13.218547 27889 net.cpp:399] h_pseudoloss -> h_pseudoloss
I0802 06:58:13.218614 27899 net.cpp:141] Setting up relu5
I0802 06:58:13.218629 27899 net.cpp:148] Top shape: 10 256 13 13 (432640)
I0802 06:58:13.218634 27899 net.cpp:156] Memory required for data: 67249720
I0802 06:58:13.218641 27899 layer_factory.hpp:77] Creating layer pool5
I0802 06:58:13.218652 27899 net.cpp:91] Creating Layer pool5
I0802 06:58:13.218657 27899 net.cpp:425] pool5 <- conv5
I0802 06:58:13.218668 27899 net.cpp:399] pool5 -> pool5
I0802 06:58:13.218686 27889 net.cpp:141] Setting up h_pseudoloss
I0802 06:58:13.218698 27889 net.cpp:148] Top shape: (1)
I0802 06:58:13.218701 27889 net.cpp:151]     with loss weight 1
I0802 06:58:13.218740 27889 net.cpp:156] Memory required for data: 94020
I0802 06:58:13.218745 27889 net.cpp:217] h_pseudoloss needs backward computation.
I0802 06:58:13.218750 27889 net.cpp:217] lstm1_h_concat needs backward computation.
I0802 06:58:13.218755 27889 net.cpp:219] lstm1_ does not need backward computation.
I0802 06:58:13.218765 27889 net.cpp:217] lstm1_unit_1 needs backward computation.
I0802 06:58:13.218753 27899 net.cpp:141] Setting up pool5
I0802 06:58:13.218770 27889 net.cpp:217] lstm1_gate_input_1 needs backward computation.
I0802 06:58:13.218776 27889 net.cpp:217] lstm1_transform_1 needs backward computation.
I0802 06:58:13.218777 27899 net.cpp:148] Top shape: 10 256 6 6 (92160)
I0802 06:58:13.218780 27889 net.cpp:219] lstm1_h_conted_0 does not need backward computation.
I0802 06:58:13.218782 27899 net.cpp:156] Memory required for data: 67618360
I0802 06:58:13.218786 27889 net.cpp:217] lstm1_W_xc_x_slice needs backward computation.
I0802 06:58:13.218789 27899 layer_factory.hpp:77] Creating layer fc6
I0802 06:58:13.218792 27889 net.cpp:217] lstm1_x_transform needs backward computation.
…
I0802 06:58:13.218825 27889 net.cpp:261] This network produces output c_T
I0802 06:58:13.218818 27899 net.cpp:425] fc6 <- pool5
I0802 06:58:13.218830 27889 net.cpp:261] This network produces output h_pseudoloss
I0802 06:58:13.218838 27899 net.cpp:399] fc6 -> fc6
I0802 06:58:13.218847 27889 net.cpp:274] Network initialization done.
I0802 06:58:13.218905 27889 recurrent_layer.cpp:150] Adding parameter 0: W_xc
I0802 06:58:13.218911 27889 recurrent_layer.cpp:150] Adding parameter 1: b_c
I0802 06:58:13.218915 27889 recurrent_layer.cpp:150] Adding parameter 2: W_hc
I0802 06:58:13.288079 27889 net.cpp:141] Setting up lstm1
I0802 06:58:13.288094 27889 net.cpp:148] Top shape: 1 1 1000 (1000)
I0802 06:58:13.288097 27889 net.cpp:156] Memory required for data: 26408
I0802 06:58:13.288122 27889 layer_factory.hpp:77] Creating layer concat
I0802 06:58:13.288131 27889 net.cpp:91] Creating Layer concat
I0802 06:58:13.288137 27889 net.cpp:425] concat <- lstm1
I0802 06:58:13.288143 27889 net.cpp:425] concat <- embedded_input_sentence
I0802 06:58:13.288148 27889 net.cpp:425] concat <- reshaped_stage_indicator
I0802 06:58:13.288154 27889 net.cpp:399] concat -> lstm1_video_sequence
I0802 06:58:13.288187 27889 net.cpp:141] Setting up concat
I0802 06:58:13.288195 27889 net.cpp:148] Top shape: 1 1 1501 (1501)
I0802 06:58:13.288199 27889 net.cpp:156] Memory required for data: 32412
I0802 06:58:13.288203 27889 layer_factory.hpp:77] Creating layer lstm2
I0802 06:58:13.288214 27889 net.cpp:91] Creating Layer lstm2
I0802 06:58:13.288219 27889 net.cpp:425] lstm2 <- lstm1_video_sequence
I0802 06:58:13.288224 27889 net.cpp:425] lstm2 <- cont_sentence_input_1_split_1
I0802 06:58:13.288231 27889 net.cpp:399] lstm2 -> lstm2
I0802 06:58:13.288240 27889 recurrent_layer.cpp:20] Initializing recurrent layer: assuming input batch contains 1 timesteps of 1 independent streams.
I0802 06:58:13.288491 27889 net.cpp:49] Initializing net from parameters: 
layer {
  name: "lstm2_"
  type: "Input"
  top: "x"
  top: "cont"
  input_param {
    shape {
      dim: 1
      dim: 1
      dim: 1501
    }
    shape {
      dim: 1
      dim: 1
    }
  }
}
layer {
  name: "lstm2_"
  type: "Input"
  top: "c_0"
  top: "h_0"
  input_param {
    shape {
      dim: 1
      dim: 1
      dim: 1000
    }
    shape {
      dim: 1
      dim: 1
      dim: 1000
    }
  }
}
layer {
  name: "lstm2_cont_slice"
  type: "Slice"
  bottom: "cont"
  top: "cont_1"
  slice_param {
    axis: 0
  }
}
layer {
  name: "lstm2_x_transform"
  type: "InnerProduct"
  bottom: "x"
  top: "W_xc_x"
  param {
    name: "W_xc"
  }
  param {
    name: "b_c"
  }
  propagate_down: true
  inner_product_param {
    num_output: 4000
    bias_term: true
    weight_filler {
      type: "uniform"
      min: -0.08
      max: 0.08
    }
    bias_filler {
      type: "constant"
      value: 0
    }
    axis: 2
  }
}
layer {
  name: "lstm2_W_xc_x_slice"
  type: "Slice"
  bottom: "W_xc_x"
  top: "W_xc_x_1"
  slice_param {
    axis: 0
  }
}
layer {
  name: "lstm2_h_conted_0"
  type: "Scale"
  bottom: "h_0"
  bottom: "cont_1"
  top: "h_conted_0"
  scale_param {
    axis: 0
  }
}
layer {
  name: "lstm2_transform_1"
  type: "InnerProduct"
  bottom: "h_conted_0"
  top: "W_hc_h_0"
  param {
    name: "W_hc"
  }
  inner_product_param {
    num_output: 4000
    bias_term: false
    weight_filler {
      type: "uniform"
      min: -0.08
      max: 0.08
    }
    axis: 2
  }
}
layer {
  name: "lstm2_gate_input_1"
  type: "Eltwise"
  bottom: "W_hc_h_0"
  bottom: "W_xc_x_1"
  top: "gate_input_1"
  eltwise_param {
    operation: SUM
  }
}
layer {
  name: "lstm2_unit_1"
  type: "LSTMUnit"
  bottom: "c_0"
  bottom: "gate_input_1"
  bottom: "cont_1"
  top: "c_1"
  top: "h_1"
}
layer {
  name: "lstm2_"
  type: "Split"
  bottom: "c_1"
  top: "c_T"
}
layer {
  name: "lstm2_h_concat"
  type: "Concat"
  bottom: "h_1"
  top: "h"
  concat_param {
    axis: 0
  }
}
layer {
  name: "h_pseudoloss"
  type: "Reduction"
  bottom: "h"
  top: "h_pseudoloss"
  loss_weight: 1
}
I0802 06:58:13.288578 27889 layer_factory.hpp:77] Creating layer lstm2_
I0802 06:58:13.288589 27889 net.cpp:91] Creating Layer lstm2_
I0802 06:58:13.288595 27889 net.cpp:399] lstm2_ -> x
I0802 06:58:13.288604 27889 net.cpp:399] lstm2_ -> cont
I0802 06:58:13.288655 27889 net.cpp:141] Setting up lstm2_
I0802 06:58:13.288663 27889 net.cpp:148] Top shape: 1 1 1501 (1501)
I0802 06:58:13.288669 27889 net.cpp:148] Top shape: 1 1 (1)
I0802 06:58:13.288672 27889 net.cpp:156] Memory required for data: 6008
I0802 06:58:13.288677 27889 layer_factory.hpp:77] Creating layer lstm2_
I0802 06:58:13.288688 27889 net.cpp:91] Creating Layer lstm2_
I0802 06:58:13.288696 27889 net.cpp:399] lstm2_ -> c_0
I0802 06:58:13.288704 27889 net.cpp:399] lstm2_ -> h_0
I0802 06:58:13.288750 27889 net.cpp:141] Setting up lstm2_
I0802 06:58:13.288758 27889 net.cpp:148] Top shape: 1 1 1000 (1000)
I0802 06:58:13.288764 27889 net.cpp:148] Top shape: 1 1 1000 (1000)
I0802 06:58:13.288767 27889 net.cpp:156] Memory required for data: 14008
I0802 06:58:13.288771 27889 layer_factory.hpp:77] Creating layer lstm2_cont_slice
I0802 06:58:13.288779 27889 net.cpp:91] Creating Layer lstm2_cont_slice
I0802 06:58:13.288784 27889 net.cpp:425] lstm2_cont_slice <- cont
I0802 06:58:13.288790 27889 net.cpp:399] lstm2_cont_slice -> cont_1
I0802 06:58:13.288825 27889 net.cpp:141] Setting up lstm2_cont_slice
I0802 06:58:13.288833 27889 net.cpp:148] Top shape: 1 1 (1)
I0802 06:58:13.288837 27889 net.cpp:156] Memory required for data: 14012
I0802 06:58:13.288841 27889 layer_factory.hpp:77] Creating layer cont_1_lstm2_cont_slice_0_split
I0802 06:58:13.288847 27889 net.cpp:91] Creating Layer cont_1_lstm2_cont_slice_0_split
I0802 06:58:13.288851 27889 net.cpp:425] cont_1_lstm2_cont_slice_0_split <- cont_1
I0802 06:58:13.288859 27889 net.cpp:399] cont_1_lstm2_cont_slice_0_split -> cont_1_lstm2_cont_slice_0_split_0
I0802 06:58:13.288867 27889 net.cpp:399] cont_1_lstm2_cont_slice_0_split -> cont_1_lstm2_cont_slice_0_split_1
I0802 06:58:13.288911 27889 net.cpp:141] Setting up cont_1_lstm2_cont_slice_0_split
I0802 06:58:13.288918 27889 net.cpp:148] Top shape: 1 1 (1)
I0802 06:58:13.288923 27889 net.cpp:148] Top shape: 1 1 (1)
I0802 06:58:13.288928 27889 net.cpp:156] Memory required for data: 14020
I0802 06:58:13.288931 27889 layer_factory.hpp:77] Creating layer lstm2_x_transform
I0802 06:58:13.288940 27889 net.cpp:91] Creating Layer lstm2_x_transform
I0802 06:58:13.288957 27889 net.cpp:425] lstm2_x_transform <- x
I0802 06:58:13.288969 27889 net.cpp:399] lstm2_x_transform -> W_xc_x
I0802 06:58:13.328755 27899 net.cpp:141] Setting up fc6
I0802 06:58:13.328806 27899 net.cpp:148] Top shape: 10 4096 (40960)
I0802 06:58:13.328812 27899 net.cpp:156] Memory required for data: 67782200
I0802 06:58:13.328827 27899 layer_factory.hpp:77] Creating layer relu6
I0802 06:58:13.328845 27899 net.cpp:91] Creating Layer relu6
I0802 06:58:13.328851 27899 net.cpp:425] relu6 <- fc6
I0802 06:58:13.328866 27899 net.cpp:386] relu6 -> fc6 (in-place)
I0802 06:58:13.329233 27899 net.cpp:141] Setting up relu6
I0802 06:58:13.329246 27899 net.cpp:148] Top shape: 10 4096 (40960)
I0802 06:58:13.329252 27899 net.cpp:156] Memory required for data: 67946040
I0802 06:58:13.329257 27899 layer_factory.hpp:77] Creating layer drop6
I0802 06:58:13.329268 27899 net.cpp:91] Creating Layer drop6
I0802 06:58:13.329273 27899 net.cpp:425] drop6 <- fc6
I0802 06:58:13.329280 27899 net.cpp:386] drop6 -> fc6 (in-place)
I0802 06:58:13.329337 27899 net.cpp:141] Setting up drop6
I0802 06:58:13.329346 27899 net.cpp:148] Top shape: 10 4096 (40960)
I0802 06:58:13.329351 27899 net.cpp:156] Memory required for data: 68109880
I0802 06:58:13.329356 27899 layer_factory.hpp:77] Creating layer fc7
I0802 06:58:13.329370 27899 net.cpp:91] Creating Layer fc7
I0802 06:58:13.329375 27899 net.cpp:425] fc7 <- fc6
I0802 06:58:13.329382 27899 net.cpp:399] fc7 -> fc7
I0802 06:58:13.360816 27889 net.cpp:141] Setting up lstm2_x_transform
I0802 06:58:13.360878 27889 net.cpp:148] Top shape: 1 1 4000 (4000)
I0802 06:58:13.360884 27889 net.cpp:156] Memory required for data: 30020
I0802 06:58:13.360908 27889 layer_factory.hpp:77] Creating layer lstm2_W_xc_x_slice
I0802 06:58:13.360925 27889 net.cpp:91] Creating Layer lstm2_W_xc_x_slice
I0802 06:58:13.360931 27889 net.cpp:425] lstm2_W_xc_x_slice <- W_xc_x
I0802 06:58:13.360940 27889 net.cpp:399] lstm2_W_xc_x_slice -> W_xc_x_1
I0802 06:58:13.360992 27889 net.cpp:141] Setting up lstm2_W_xc_x_slice
I0802 06:58:13.361002 27889 net.cpp:148] Top shape: 1 1 4000 (4000)
I0802 06:58:13.361006 27889 net.cpp:156] Memory required for data: 46020
I0802 06:58:13.361011 27889 layer_factory.hpp:77] Creating layer lstm2_h_conted_0
I0802 06:58:13.361019 27889 net.cpp:91] Creating Layer lstm2_h_conted_0
I0802 06:58:13.361024 27889 net.cpp:425] lstm2_h_conted_0 <- h_0
I0802 06:58:13.361029 27889 net.cpp:425] lstm2_h_conted_0 <- cont_1_lstm2_cont_slice_0_split_0
I0802 06:58:13.361037 27889 net.cpp:399] lstm2_h_conted_0 -> h_conted_0
I0802 06:58:13.361129 27889 net.cpp:141] Setting up lstm2_h_conted_0
I0802 06:58:13.361136 27889 net.cpp:148] Top shape: 1 1 1000 (1000)
I0802 06:58:13.361140 27889 net.cpp:156] Memory required for data: 50020
I0802 06:58:13.361145 27889 layer_factory.hpp:77] Creating layer lstm2_transform_1
I0802 06:58:13.361156 27889 net.cpp:91] Creating Layer lstm2_transform_1
I0802 06:58:13.361161 27889 net.cpp:425] lstm2_transform_1 <- h_conted_0
I0802 06:58:13.361168 27889 net.cpp:399] lstm2_transform_1 -> W_hc_h_0
I0802 06:58:13.378878 27899 net.cpp:141] Setting up fc7
I0802 06:58:13.378933 27899 net.cpp:148] Top shape: 10 4096 (40960)
I0802 06:58:13.378940 27899 net.cpp:156] Memory required for data: 68273720
I0802 06:58:13.378955 27899 layer_factory.hpp:77] Creating layer relu7
I0802 06:58:13.378973 27899 net.cpp:91] Creating Layer relu7
I0802 06:58:13.378979 27899 net.cpp:425] relu7 <- fc7
I0802 06:58:13.378993 27899 net.cpp:386] relu7 -> fc7 (in-place)
I0802 06:58:13.379824 27899 net.cpp:141] Setting up relu7
I0802 06:58:13.379838 27899 net.cpp:148] Top shape: 10 4096 (40960)
I0802 06:58:13.379843 27899 net.cpp:156] Memory required for data: 68437560
I0802 06:58:13.379849 27899 layer_factory.hpp:77] Creating layer drop7
I0802 06:58:13.379860 27899 net.cpp:91] Creating Layer drop7
I0802 06:58:13.379865 27899 net.cpp:425] drop7 <- fc7
I0802 06:58:13.379875 27899 net.cpp:386] drop7 -> fc7 (in-place)
I0802 06:58:13.379917 27899 net.cpp:141] Setting up drop7
I0802 06:58:13.379926 27899 net.cpp:148] Top shape: 10 4096 (40960)
I0802 06:58:13.379931 27899 net.cpp:156] Memory required for data: 68601400
I0802 06:58:13.379936 27899 layer_factory.hpp:77] Creating layer fc8
I0802 06:58:13.379952 27899 net.cpp:91] Creating Layer fc8
I0802 06:58:13.379957 27899 net.cpp:425] fc8 <- fc7
I0802 06:58:13.379966 27899 net.cpp:399] fc8 -> fc8
I0802 06:58:13.392436 27899 net.cpp:141] Setting up fc8
I0802 06:58:13.392489 27899 net.cpp:148] Top shape: 10 1000 (10000)
I0802 06:58:13.392495 27899 net.cpp:156] Memory required for data: 68641400
I0802 06:58:13.392510 27899 layer_factory.hpp:77] Creating layer prob
I0802 06:58:13.392526 27899 net.cpp:91] Creating Layer prob
I0802 06:58:13.392534 27899 net.cpp:425] prob <- fc8
I0802 06:58:13.392551 27899 net.cpp:399] prob -> prob
I0802 06:58:13.393023 27899 net.cpp:141] Setting up prob
I0802 06:58:13.393036 27899 net.cpp:148] Top shape: 10 1000 (10000)
I0802 06:58:13.393041 27899 net.cpp:156] Memory required for data: 68681400
I0802 06:58:13.393048 27899 net.cpp:219] prob does not need backward computation.
I0802 06:58:13.393052 27899 net.cpp:219] fc8 does not need backward computation.
I0802 06:58:13.393057 27899 net.cpp:219] drop7 does not need backward computation.
I0802 06:58:13.393062 27899 net.cpp:219] relu7 does not need backward computation.
…
I0802 06:58:13.393138 27899 net.cpp:219] norm1 does not need backward computation.
I0802 06:58:13.393143 27899 net.cpp:219] pool1 does not need backward computation.
I0802 06:58:13.393148 27899 net.cpp:219] relu1 does not need backward computation.
I0802 06:58:13.393153 27899 net.cpp:219] conv1 does not need backward computation.
I0802 06:58:13.393157 27899 net.cpp:219] data does not need backward computation.
I0802 06:58:13.393162 27899 net.cpp:261] This network produces output prob
I0802 06:58:13.393182 27899 net.cpp:274] Network initialization done.
I0802 06:58:13.397337 27889 net.cpp:141] Setting up lstm2_transform_1
I0802 06:58:13.397385 27889 net.cpp:148] Top shape: 1 1 4000 (4000)
I0802 06:58:13.397392 27889 net.cpp:156] Memory required for data: 66020
I0802 06:58:13.397409 27889 layer_factory.hpp:77] Creating layer lstm2_gate_input_1
I0802 06:58:13.397429 27889 net.cpp:91] Creating Layer lstm2_gate_input_1
I0802 06:58:13.397435 27889 net.cpp:425] lstm2_gate_input_1 <- W_hc_h_0
I0802 06:58:13.397444 27889 net.cpp:425] lstm2_gate_input_1 <- W_xc_x_1
I0802 06:58:13.397450 27889 net.cpp:399] lstm2_gate_input_1 -> gate_input_1
I0802 06:58:13.397502 27889 net.cpp:141] Setting up lstm2_gate_input_1
I0802 06:58:13.397511 27889 net.cpp:148] Top shape: 1 1 4000 (4000)
I0802 06:58:13.397516 27889 net.cpp:156] Memory required for data: 82020
I0802 06:58:13.397519 27889 layer_factory.hpp:77] Creating layer lstm2_unit_1
I0802 06:58:13.397529 27889 net.cpp:91] Creating Layer lstm2_unit_1
I0802 06:58:13.397534 27889 net.cpp:425] lstm2_unit_1 <- c_0
I0802 06:58:13.397539 27889 net.cpp:425] lstm2_unit_1 <- gate_input_1
I0802 06:58:13.397544 27889 net.cpp:425] lstm2_unit_1 <- cont_1_lstm2_cont_slice_0_split_1
I0802 06:58:13.397550 27889 net.cpp:399] lstm2_unit_1 -> c_1
I0802 06:58:13.397557 27889 net.cpp:399] lstm2_unit_1 -> h_1
I0802 06:58:13.397617 27889 net.cpp:141] Setting up lstm2_unit_1
I0802 06:58:13.397626 27889 net.cpp:148] Top shape: 1 1 1000 (1000)
I0802 06:58:13.397631 27889 net.cpp:148] Top shape: 1 1 1000 (1000)
I0802 06:58:13.397635 27889 net.cpp:156] Memory required for data: 90020
I0802 06:58:13.397639 27889 layer_factory.hpp:77] Creating layer lstm2_
I0802 06:58:13.397650 27889 net.cpp:91] Creating Layer lstm2_
I0802 06:58:13.397655 27889 net.cpp:425] lstm2_ <- c_1
I0802 06:58:13.397660 27889 net.cpp:399] lstm2_ -> c_T
I0802 06:58:13.397689 27889 net.cpp:141] Setting up lstm2_
I0802 06:58:13.397697 27889 net.cpp:148] Top shape: 1 1 1000 (1000)
I0802 06:58:13.397701 27889 net.cpp:156] Memory required for data: 94020
I0802 06:58:13.397706 27889 layer_factory.hpp:77] Creating layer lstm2_h_concat
I0802 06:58:13.397713 27889 net.cpp:91] Creating Layer lstm2_h_concat
I0802 06:58:13.397717 27889 net.cpp:425] lstm2_h_concat <- h_1
I0802 06:58:13.397728 27889 net.cpp:399] lstm2_h_concat -> h
I0802 06:58:13.397764 27889 net.cpp:141] Setting up lstm2_h_concat
I0802 06:58:13.397773 27889 net.cpp:148] Top shape: 1 1 1000 (1000)
I0802 06:58:13.397776 27889 net.cpp:156] Memory required for data: 98020
I0802 06:58:13.397779 27889 layer_factory.hpp:77] Creating layer h_pseudoloss
I0802 06:58:13.397789 27889 net.cpp:91] Creating Layer h_pseudoloss
I0802 06:58:13.397792 27889 net.cpp:425] h_pseudoloss <- h
I0802 06:58:13.397797 27889 net.cpp:399] h_pseudoloss -> h_pseudoloss
I0802 06:58:13.397882 27889 net.cpp:141] Setting up h_pseudoloss
…
