…
W0924 02:47:27.632153  4178 upgrade_proto.cpp:71] Note that future Caffe releases will only support input layers and not input fields.
I0924 02:47:27.632340  4172 net.cpp:49] Initializing net from parameters: 
name: "s2vt:features_to_lstm"
state {
  phase: TEST
}
layer {
  name: "input"
  type: "Input"
  top: "frames_fc7"
  top: "cont_sentence"
  top: "input_sentence"
  top: "stage_indicator"
  input_param {
    shape {
      dim: 1
      dim: 4096
    }
    shape {
      dim: 1
      dim: 1
    }
    shape {
      dim: 1
      dim: 1
    }
    shape {
      dim: 1
      dim: 1
    }
  }
}
layer {
  name: "embed_encoder"
  type: "InnerProduct"
  bottom: "frames_fc7"
  top: "embedded_in_frames"
  param {
    lr_mult: 1
    decay_mult: 1
  }
  param {
    lr_mult: 2
    decay_mult: 0
  }
  inner_product_param {
    num_output: 500
    weight_filler {
      type: "xavier"
    }
    bias_filler {
      type: "constant"
      value: 0.2
    }
  }
}
layer {
  name: "reshape_frames"
  type: "Reshape"
  bottom: "embedded_in_frames"
  top: "embedded_input_frames"
  reshape_param {
    shape {
      dim: 1
      dim: 1
      dim: 500
    }
  }
}
layer {
  name: "reshape_stage_indicator"
  type: "Reshape"
  bottom: "stage_indicator"
  top: "reshaped_stage_indicator"
  reshape_param {
    shape {
      dim: 1
      dim: 1
      dim: 1
    }
  }
}
layer {
  name: "embedding"
  type: "Embed"
  bottom: "input_sentence"
  top: "embedded_input_sentence"
  param {
    lr_mult: 1
  }
  embed_param {
    num_output: 500
    input_dim: 46168
    bias_term: false
    weight_filler {
      type: "uniform"
      min: -0.08
      max: 0.08
    }
  }
}
layer {
  name: "lstm1"
  type: "LSTM"
  bottom: "embedded_input_frames"
  bottom: "cont_sentence"
  top: "lstm1"
  recurrent_param {
    num_output: 1000
    weight_filler {
      type: "uniform"
      min: -0.08
      max: 0.08
    }
    bias_filler {
      type: "constant"
      value: 0
    }
  }
}
layer {
  name: "concat"
  type: "Concat"
  bottom: "lstm1"
  bottom: "embedded_input_sentence"
  bottom: "reshaped_stage_indicator"
  top: "lstm1_video_sequence"
  concat_param {
    concat_dim: 2
  }
}
layer {
  name: "lstm2"
  type: "LSTM"
  bottom: "lstm1_video_sequence"
  bottom: "cont_sentence"
  top: "lstm2"
  recurrent_param {
    num_output: 1000
    weight_filler {
      type: "uniform"
      min: -0.08
      max: 0.08
    }
    bias_filler {
      type: "constant"
      value: 0
    }
  }
}
layer {
  name: "predict"
  type: "InnerProduct"
  bottom: "lstm2"
  top: "predict"
  param {
    lr_mult: 1
    decay_mult: 1
  }
  param {
    lr_mult: 2
    decay_mult: 0
  }
  inner_product_param {
    num_output: 46168
    weight_filler {
      type: "uniform"
      min: -0.08
      max: 0.08
    }
    bias_filler {
      type: "constant"
      value: 0
    }
    axis: 2
  }
}
layer {
  name: "probs"
  type: "Softmax"
  bottom: "predict"
  top: "probs"
  softmax_param {
    axis: 2
  }
}
I0924 02:47:27.632339  4158 net.cpp:49] Initializing net from parameters: 
name: "CaffeNet"
state {
  phase: TEST
}
layer {
  name: "data"
  type: "Input"
  top: "data"
  input_param {
    shape {
      dim: 10
      dim: 3
      dim: 227
      dim: 227
    }
  }
}
layer {
  name: "conv1"
  type: "Convolution"
  bottom: "data"
  top: "conv1"
  convolution_param {
    num_output: 96
    kernel_size: 11
    stride: 4
  }
}
layer {
  name: "relu1"
  type: "ReLU"
  bottom: "conv1"
  top: "conv1"
}
layer {
  name: "pool1"
  type: "Pooling"
  bottom: "conv1"
  top: "pool1"
  pooling_param {
    pool: MAX
    kernel_size: 3
    stride: 2
  }
}
layer {
  name: "norm1"
  type: "LRN"
  bottom: "pool1"
  top: "norm1"
  lrn_param {
    local_size: 5
    alpha: 0.0001
    beta: 0.75
  }
}
layer {
  name: "conv2"
  type: "Convolution"
  bottom: "norm1"
  top: "conv2"
  convolution_param {
    num_output: 256
    pad: 2
    kernel_size: 5
    group: 2
  }
}
layer {
  name: "relu2"
  type: "ReLU"
  bottom: "conv2"
  top: "conv2"
}
layer {
  name: "pool2"
  type: "Pooling"
  bottom: "conv2"
  top: "pool2"
  pooling_param {
    pool: MAX
    kernel_size: 3
    stride: 2
  }
}
layer {
  name: "norm2"
  type: "LRN"
  bottom: "pool2"
  top: "norm2"
  lrn_param {
    local_size: 5
    alpha: 0.0001
    beta: 0.75
  }
}
layer {
  name: "conv3"
  type: "Convolution"
  bottom: "norm2"
  top: "conv3"
  convolution_param {
    num_output: 384
    pad: 1
    kernel_size: 3
  }
}
layer {
  name: "relu3"
  type: "ReLU"
  bottom: "conv3"
  top: "conv3"
}
layer {
  name: "conv4"
  type: "Convolution"
  bottom: "conv3"
  top: "conv4"
  convolution_param {
    num_output: 384
    pad: 1
    kernel_size: 3
    group: 2
  }
}
layer {
  name: "relu4"
  type: "ReLU"
  bottom: "conv4"
  top: "conv4"
}
layer {
  name: "conv5"
  type: "Convolution"
  bottom: "conv4"
  top: "conv5"
  convolution_param {
    num_output: 256
    pad: 1
    kernel_size: 3
    group: 2
  }
}
layer {
  name: "relu5"
  type: "ReLU"
  bottom: "conv5"
  top: "conv5"
}
layer {
  name: "pool5"
  type: "Pooling"
  bottom: "conv5"
  top: "pool5"
  pooling_param {
    pool: MAX
    kernel_size: 3
    stride: 2
  }
}
layer {
  name: "fc6"
  type: "InnerProduct"
  bottom: "pool5"
  top: "fc6"
  inner_product_param {
    num_output: 4096
  }
}
layer {
  name: "relu6"
  type: "ReLU"
  bottom: "fc6"
  top: "fc6"
}
layer {
  name: "drop6"
  type: "Dropout"
  bottom: "fc6"
  top: "fc6"
  dropout_param {
    dropout_ratio: 0.5
  }
}
layer {
  name: "fc7"
  type: "InnerProduct"
  bottom: "fc6"
  top: "fc7"
  inner_product_param {
    num_output: 4096
  }
}
layer {
  name: "relu7"
  type: "ReLU"
  bottom: "fc7"
  top: "fc7"
}
layer {
  name: "drop7"
  type: "Dropout"
  bottom: "fc7"
  top: "fc7"
  dropout_param {
    dropout_ratio: 0.5
  }
}
layer {
  name: "fc8"
  type: "InnerProduct"
  bottom: "fc7"
  top: "fc8"
  inner_product_param {
    num_output: 1000
  }
}
layer {
  name: "prob"
  type: "Softmax"
  bottom: "fc8"
  top: "prob"
}
I0924 02:47:27.632436  4154 net.cpp:49] Initializing net from parameters: 
name: "s2vt:features_to_lstm"
state {
  phase: TEST
}
layer {
  name: "input"
  type: "Input"
  top: "frames_fc7"
  top: "cont_sentence"
  top: "input_sentence"
  top: "stage_indicator"
  input_param {
    shape {
      dim: 1
      dim: 4096
    }
    shape {
      dim: 1
      dim: 1
    }
    shape {
      dim: 1
      dim: 1
    }
    shape {
      dim: 1
      dim: 1
    }
  }
}
layer {
  name: "embed_encoder"
  type: "InnerProduct"
  bottom: "frames_fc7"
  top: "embedded_in_frames"
  param {
    lr_mult: 1
    decay_mult: 1
  }
  param {
    lr_mult: 2
    decay_mult: 0
  }
  inner_product_param {
    num_output: 500
    weight_filler {
      type: "xavier"
    }
    bias_filler {
      type: "constant"
      value: 0.2
    }
  }
}
layer {
  name: "reshape_frames"
  type: "Reshape"
  bottom: "embedded_in_frames"
  top: "embedded_input_frames"
  reshape_param {
    shape {
      dim: 1
      dim: 1
      dim: 500
    }
  }
}
layer {
  name: "reshape_stage_indicator"
  type: "Reshape"
  bottom: "stage_indicator"
  top: "reshaped_stage_indicator"
  reshape_param {
    shape {
      dim: 1
      dim: 1
      dim: 1
    }
  }
}
layer {
  name: "embedding"
  type: "Embed"
  bottom: "input_sentence"
  top: "embedded_input_sentence"
  param {
    lr_mult: 1
  }
  embed_param {
    num_output: 500
    input_dim: 46168
    bias_term: false
    weight_filler {
      type: "uniform"
      min: -0.08
      max: 0.08
    }
  }
}
layer {
  name: "lstm1"
  type: "LSTM"
  bottom: "embedded_input_frames"
  bottom: "cont_sentence"
  top: "lstm1"
  recurrent_param {
    num_output: 1000
    weight_filler {
      type: "uniform"
      min: -0.08
      max: 0.08
    }
    bias_filler {
      type: "constant"
      value: 0
    }
  }
}
layer {
  name: "concat"
  type: "Concat"
  bottom: "lstm1"
  bottom: "embedded_input_sentence"
  bottom: "reshaped_stage_indicator"
  top: "lstm1_video_sequence"
  concat_param {
    concat_dim: 2
  }
}
layer {
  name: "lstm2"
  type: "LSTM"
  bottom: "lstm1_video_sequence"
  bottom: "cont_sentence"
  top: "lstm2"
  recurrent_param {
    num_output: 1000
    weight_filler {
      type: "uniform"
      min: -0.08
      max: 0.08
    }
    bias_filler {
      type: "constant"
      value: 0
    }
  }
}
layer {
  name: "predict"
  type: "InnerProduct"
  bottom: "lstm2"
  top: "predict"
  param {
    lr_mult: 1
    decay_mult: 1
  }
  param {
    lr_mult: 2
    decay_mult: 0
  }
  inner_product_param {
    num_output: 46168
    weight_filler {
      type: "uniform"
      min: -0.08
      max: 0.08
    }
    bias_filler {
      type: "constant"
      value: 0
    }
    axis: 2
  }
}
layer {
  name: "probs"
  type: "Softmax"
  bottom: "predict"
  top: "probs"
  softmax_param {
    axis: 2
  }
}
I0924 02:47:27.632448  4160 net.cpp:49] Initializing net from parameters: 
name: "s2vt:features_to_lstm"
state {
  phase: TEST
}
layer {
  name: "input"
  type: "Input"
  top: "frames_fc7"
  top: "cont_sentence"
  top: "input_sentence"
  top: "stage_indicator"
  input_param {
    shape {
      dim: 1
      dim: 4096
    }
    shape {
      dim: 1
      dim: 1
    }
    shape {
      dim: 1
      dim: 1
    }
    shape {
      dim: 1
      dim: 1
    }
  }
}
layer {
  name: "embed_encoder"
  type: "InnerProduct"
  bottom: "frames_fc7"
  top: "embedded_in_frames"
  param {
    lr_mult: 1
    decay_mult: 1
  }
  param {
    lr_mult: 2
    decay_mult: 0
  }
  inner_product_param {
    num_output: 500
    weight_filler {
      type: "xavier"
    }
    bias_filler {
      type: "constant"
      value: 0.2
    }
  }
}
layer {
  name: "reshape_frames"
  type: "Reshape"
  bottom: "embedded_in_frames"
  top: "embedded_input_frames"
  reshape_param {
    shape {
      dim: 1
      dim: 1
      dim: 500
    }
  }
}
layer {
  name: "reshape_stage_indicator"
  type: "Reshape"
  bottom: "stage_indicator"
  top: "reshaped_stage_indicator"
  reshape_param {
    shape {
      dim: 1
      dim: 1
      dim: 1
    }
  }
}
layer {
  name: "embedding"
  type: "Embed"
  bottom: "input_sentence"
  top: "embedded_input_sentence"
  param {
    lr_mult: 1
  }
  embed_param {
    num_output: 500
    input_dim: 46168
    bias_term: false
    weight_filler {
      type: "uniform"
      min: -0.08
      max: 0.08
    }
  }
}
layer {
  name: "lstm1"
  type: "LSTM"
  bottom: "embedded_input_frames"
  bottom: "cont_sentence"
  top: "lstm1"
  recurrent_param {
    num_output: 1000
    weight_filler {
      type: "uniform"
      min: -0.08
      max: 0.08
    }
    bias_filler {
      type: "constant"
      value: 0
    }
  }
}
layer {
  name: "concat"
  type: "Concat"
  bottom: "lstm1"
  bottom: "embedded_input_sentence"
  bottom: "reshaped_stage_indicator"
  top: "lstm1_video_sequence"
  concat_param {
    concat_dim: 2
  }
}
layer {
  name: "lstm2"
  type: "LSTM"
  bottom: "lstm1_video_sequence"
  bottom: "cont_sentence"
  top: "lstm2"
  recurrent_param {
    num_output: 1000
    weight_filler {
      type: "uniform"
      min: -0.08
      max: 0.08
    }
    bias_filler {
      type: "constant"
      value: 0
    }
  }
}
layer {
  name: "predict"
  type: "InnerProduct"
  bottom: "lstm2"
  top: "predict"
  param {
    lr_mult: 1
    decay_mult: 1
  }
  param {
    lr_mult: 2
    decay_mult: 0
  }
  inner_product_param {
    num_output: 46168
    weight_filler {
      type: "uniform"
      min: -0.08
      max: 0.08
    }
    bias_filler {
      type: "constant"
      value: 0
    }
    axis: 2
  }
}
layer {
  name: "probs"
  type: "Softmax"
  bottom: "predict"
  top: "probs"
  softmax_param {
    axis: 2
  }
}
I0924 02:47:27.632444  4150 net.cpp:49] Initializing net from parameters: 
name: "s2vt:features_to_lstm"
state {
  phase: TEST
}
layer {
  name: "input"
  type: "Input"
  top: "frames_fc7"
  top: "cont_sentence"
  top: "input_sentence"
  top: "stage_indicator"
  input_param {
    shape {
      dim: 1
      dim: 4096
    }
    shape {
      dim: 1
      dim: 1
    }
    shape {
      dim: 1
      dim: 1
    }
    shape {
      dim: 1
      dim: 1
    }
  }
}
layer {
  name: "embed_encoder"
  type: "InnerProduct"
  bottom: "frames_fc7"
  top: "embedded_in_frames"
  param {
    lr_mult: 1
    decay_mult: 1
  }
  param {
    lr_mult: 2
    decay_mult: 0
  }
  inner_product_param {
    num_output: 500
    weight_filler {
      type: "xavier"
    }
    bias_filler {
      type: "constant"
      value: 0.2
    }
  }
}
layer {
  name: "reshape_frames"
  type: "Reshape"
  bottom: "embedded_in_frames"
  top: "embedded_input_frames"
  reshape_param {
    shape {
      dim: 1
      dim: 1
      dim: 500
    }
  }
}
layer {
  name: "reshape_stage_indicator"
  type: "Reshape"
  bottom: "stage_indicator"
  top: "reshaped_stage_indicator"
  reshape_param {
    shape {
      dim: 1
      dim: 1
      dim: 1
    }
  }
}
layer {
  name: "embedding"
  type: "Embed"
  bottom: "input_sentence"
  top: "embedded_input_sentence"
  param {
    lr_mult: 1
  }
  embed_param {
    num_output: 500
    input_dim: 46168
    bias_term: false
    weight_filler {
      type: "uniform"
      min: -0.08
      max: 0.08
    }
  }
}
layer {
  name: "lstm1"
  type: "LSTM"
  bottom: "embedded_input_frames"
  bottom: "cont_sentence"
  top: "lstm1"
  recurrent_param {
    num_output: 1000
    weight_filler {
      type: "uniform"
      min: -0.08
      max: 0.08
    }
    bias_filler {
      type: "constant"
      value: 0
    }
  }
}
layer {
  name: "concat"
  type: "Concat"
  bottom: "lstm1"
  bottom: "embedded_input_sentence"
  bottom: "reshaped_stage_indicator"
  top: "lstm1_video_sequence"
  concat_param {
    concat_dim: 2
  }
}
layer {
  name: "lstm2"
  type: "LSTM"
  bottom: "lstm1_video_sequence"
  bottom: "cont_sentence"
  top: "lstm2"
  recurrent_param {
    num_output: 1000
    weight_filler {
      type: "uniform"
      min: -0.08
      max: 0.08
    }
    bias_filler {
      type: "constant"
      value: 0
    }
  }
}
layer {
  name: "predict"
  type: "InnerProduct"
  bottom: "lstm2"
  top: "predict"
  param {
    lr_mult: 1
    decay_mult: 1
  }
  param {
    lr_mult: 2
    decay_mult: 0
  }
  inner_product_param {
    num_output: 46168
    weight_filler {
      type: "uniform"
      min: -0.08
      max: 0.08
    }
    bias_filler {
      type: "constant"
      value: 0
    }
    axis: 2
  }
}
layer {
  name: "probs"
  type: "Softmax"
  bottom: "predict"
  top: "probs"
  softmax_param {
    axis: 2
  }
}
I0924 02:47:27.632443  4178 net.cpp:49] Initializing net from parameters: 
name: "s2vt:features_to_lstm"
state {
  phase: TEST
}
layer {
  name: "input"
  type: "Input"
  top: "frames_fc7"
  top: "cont_sentence"
  top: "input_sentence"
  top: "stage_indicator"
  input_param {
    shape {
      dim: 1
      dim: 4096
    }
    shape {
      dim: 1
      dim: 1
    }
    shape {
      dim: 1
      dim: 1
    }
    shape {
      dim: 1
      dim: 1
    }
  }
}
layer {
  name: "embed_encoder"
  type: "InnerProduct"
  bottom: "frames_fc7"
  top: "embedded_in_frames"
  param {
    lr_mult: 1
    decay_mult: 1
  }
  param {
    lr_mult: 2
    decay_mult: 0
  }
  inner_product_param {
    num_output: 500
    weight_filler {
      type: "xavier"
    }
    bias_filler {
      type: "constant"
      value: 0.2
    }
  }
}
layer {
  name: "reshape_frames"
  type: "Reshape"
  bottom: "embedded_in_frames"
  top: "embedded_input_frames"
  reshape_param {
    shape {
      dim: 1
      dim: 1
      dim: 500
    }
  }
}
layer {
  name: "reshape_stage_indicator"
  type: "Reshape"
  bottom: "stage_indicator"
  top: "reshaped_stage_indicator"
  reshape_param {
    shape {
      dim: 1
      dim: 1
      dim: 1
    }
  }
}
layer {
  name: "embedding"
  type: "Embed"
  bottom: "input_sentence"
  top: "embedded_input_sentence"
  param {
    lr_mult: 1
  }
  embed_param {
    num_output: 500
    input_dim: 46168
    bias_term: false
    weight_filler {
      type: "uniform"
      min: -0.08
      max: 0.08
    }
  }
}
layer {
  name: "lstm1"
  type: "LSTM"
  bottom: "embedded_input_frames"
  bottom: "cont_sentence"
  top: "lstm1"
  recurrent_param {
    num_output: 1000
    weight_filler {
      type: "uniform"
      min: -0.08
      max: 0.08
    }
    bias_filler {
      type: "constant"
      value: 0
    }
  }
}
layer {
  name: "concat"
  type: "Concat"
  bottom: "lstm1"
  bottom: "embedded_input_sentence"
  bottom: "reshaped_stage_indicator"
  top: "lstm1_video_sequence"
  concat_param {
    concat_dim: 2
  }
}
layer {
  name: "lstm2"
  type: "LSTM"
  bottom: "lstm1_video_sequence"
  bottom: "cont_sentence"
  top: "lstm2"
  recurrent_param {
    num_output: 1000
    weight_filler {
      type: "uniform"
      min: -0.08
      max: 0.08
    }
    bias_filler {
      type: "constant"
      value: 0
    }
  }
}
layer {
  name: "predict"
  type: "InnerProduct"
  bottom: "lstm2"
  top: "predict"
  param {
    lr_mult: 1
    decay_mult: 1
  }
  param {
    lr_mult: 2
    decay_mult: 0
  }
  inner_product_param {
    num_output: 46168
    weight_filler {
      type: "uniform"
      min: -0.08
      max: 0.08
    }
    bias_filler {
      type: "constant"
      value: 0
    }
    axis: 2
  }
}
layer {
  name: "probs"
  type: "Softmax"
  bottom: "predict"
  top: "probs"
  softmax_param {
    axis: 2
  }
}
I0924 02:47:27.632498  4172 layer_factory.hpp:77] Creating layer input
I0924 02:47:27.632501  4158 layer_factory.hpp:77] Creating layer data
I0924 02:47:27.632529  4158 net.cpp:91] Creating Layer data
I0924 02:47:27.632529  4172 net.cpp:91] Creating Layer input
I0924 02:47:27.632544  4158 net.cpp:399] data -> data
I0924 02:47:27.632551  4172 net.cpp:399] input -> frames_fc7
…
I0924 02:47:27.632725  4160 net.cpp:399] input -> input_sentence
I0924 02:47:27.632725  4150 net.cpp:399] input -> input_sentence
I0924 02:47:27.632725  4178 net.cpp:399] input -> stage_indicator
I0924 02:47:27.632731  4154 net.cpp:399] input -> cont_sentence
I0924 02:47:27.632750  4150 net.cpp:399] input -> stage_indicator
I0924 02:47:27.632745  4160 net.cpp:399] input -> stage_indicator
I0924 02:47:27.632771  4154 net.cpp:399] input -> input_sentence
I0924 02:47:27.632794  4154 net.cpp:399] input -> stage_indicator
I0924 02:47:28.231989  4158 net.cpp:141] Setting up data
I0924 02:47:28.232072  4158 net.cpp:148] Top shape: 10 3 227 227 (1545870)
I0924 02:47:28.232084  4158 net.cpp:156] Memory required for data: 6183480
I0924 02:47:28.232110  4158 layer_factory.hpp:77] Creating layer conv1
I0924 02:47:28.232177  4158 net.cpp:91] Creating Layer conv1
I0924 02:47:28.232192  4158 net.cpp:425] conv1 <- data
I0924 02:47:28.232213  4158 net.cpp:399] conv1 -> conv1
I0924 02:47:28.232360  4172 net.cpp:141] Setting up input
I0924 02:47:28.232408  4172 net.cpp:148] Top shape: 1 4096 (4096)
I0924 02:47:28.232421  4172 net.cpp:148] Top shape: 1 1 (1)
I0924 02:47:28.232431  4172 net.cpp:148] Top shape: 1 1 (1)
I0924 02:47:28.232447  4172 net.cpp:148] Top shape: 1 1 (1)
I0924 02:47:28.232455  4172 net.cpp:156] Memory required for data: 16396
I0924 02:47:28.232466  4172 layer_factory.hpp:77] Creating layer cont_sentence_input_1_split
I0924 02:47:28.232501  4172 net.cpp:91] Creating Layer cont_sentence_input_1_split
I0924 02:47:28.232513  4172 net.cpp:425] cont_sentence_input_1_split <- cont_sentence
I0924 02:47:28.232553  4172 net.cpp:399] cont_sentence_input_1_split -> cont_sentence_input_1_split_0
I0924 02:47:28.232578  4172 net.cpp:399] cont_sentence_input_1_split -> cont_sentence_input_1_split_1
I0924 02:47:28.232679  4172 net.cpp:141] Setting up cont_sentence_input_1_split
I0924 02:47:28.232697  4172 net.cpp:148] Top shape: 1 1 (1)
I0924 02:47:28.232709  4172 net.cpp:148] Top shape: 1 1 (1)
I0924 02:47:28.232718  4172 net.cpp:156] Memory required for data: 16404
I0924 02:47:28.232728  4172 layer_factory.hpp:77] Creating layer embed_encoder
I0924 02:47:28.232736  4154 net.cpp:141] Setting up input
I0924 02:47:28.232760  4154 net.cpp:148] Top shape: 1 4096 (4096)
I0924 02:47:28.232764  4172 net.cpp:91] Creating Layer embed_encoder
I0924 02:47:28.232772  4154 net.cpp:148] Top shape: 1 1 (1)
I0924 02:47:28.232775  4172 net.cpp:425] embed_encoder <- frames_fc7
I0924 02:47:28.232784  4154 net.cpp:148] Top shape: 1 1 (1)
I0924 02:47:28.232795  4172 net.cpp:399] embed_encoder -> embedded_in_frames
I0924 02:47:28.232801  4154 net.cpp:148] Top shape: 1 1 (1)
I0924 02:47:28.232807  4160 net.cpp:141] Setting up input
I0924 02:47:28.232830  4160 net.cpp:148] Top shape: 1 4096 (4096)
I0924 02:47:28.232837  4160 net.cpp:148] Top shape: 1 1 (1)
I0924 02:47:28.232843  4160 net.cpp:148] Top shape: 1 1 (1)
I0924 02:47:28.232849  4160 net.cpp:148] Top shape: 1 1 (1)
I0924 02:47:28.232854  4160 net.cpp:156] Memory required for data: 16396
I0924 02:47:28.232861  4160 layer_factory.hpp:77] Creating layer cont_sentence_input_1_split
I0924 02:47:28.232872  4160 net.cpp:91] Creating Layer cont_sentence_input_1_split
I0924 02:47:28.232878  4160 net.cpp:425] cont_sentence_input_1_split <- cont_sentence
I0924 02:47:28.232878  4150 net.cpp:141] Setting up input
I0924 02:47:28.232888  4160 net.cpp:399] cont_sentence_input_1_split -> cont_sentence_input_1_split_0
I0924 02:47:28.232895  4150 net.cpp:148] Top shape: 1 4096 (4096)
I0924 02:47:28.232900  4160 net.cpp:399] cont_sentence_input_1_split -> cont_sentence_input_1_split_1
I0924 02:47:28.232908  4150 net.cpp:148] Top shape: 1 1 (1)
I0924 02:47:28.232918  4150 net.cpp:148] Top shape: 1 1 (1)
I0924 02:47:28.232928  4150 net.cpp:148] Top shape: 1 1 (1)
I0924 02:47:28.232935  4150 net.cpp:156] Memory required for data: 16396
I0924 02:47:28.232944  4150 layer_factory.hpp:77] Creating layer cont_sentence_input_1_split
I0924 02:47:28.232954  4178 net.cpp:141] Setting up input
I0924 02:47:28.232959  4150 net.cpp:91] Creating Layer cont_sentence_input_1_split
I0924 02:47:28.232970  4178 net.cpp:148] Top shape: 1 4096 (4096)
I0924 02:47:28.232970  4150 net.cpp:425] cont_sentence_input_1_split <- cont_sentence
I0924 02:47:28.232978  4178 net.cpp:148] Top shape: 1 1 (1)
I0924 02:47:28.232985  4178 net.cpp:148] Top shape: 1 1 (1)
I0924 02:47:28.232987  4150 net.cpp:399] cont_sentence_input_1_split -> cont_sentence_input_1_split_0
I0924 02:47:28.232993  4178 net.cpp:148] Top shape: 1 1 (1)
I0924 02:47:28.232998  4178 net.cpp:156] Memory required for data: 16396
I0924 02:47:28.233006  4178 layer_factory.hpp:77] Creating layer cont_sentence_input_1_split
I0924 02:47:28.233006  4150 net.cpp:399] cont_sentence_input_1_split -> cont_sentence_input_1_split_1
I0924 02:47:28.233016  4178 net.cpp:91] Creating Layer cont_sentence_input_1_split
I0924 02:47:28.233022  4178 net.cpp:425] cont_sentence_input_1_split <- cont_sentence
I0924 02:47:28.232810  4154 net.cpp:156] Memory required for data: 16396
I0924 02:47:28.233032  4178 net.cpp:399] cont_sentence_input_1_split -> cont_sentence_input_1_split_0
I0924 02:47:28.233038  4154 layer_factory.hpp:77] Creating layer cont_sentence_input_1_split
I0924 02:47:28.233050  4178 net.cpp:399] cont_sentence_input_1_split -> cont_sentence_input_1_split_1
I0924 02:47:28.233055  4154 net.cpp:91] Creating Layer cont_sentence_input_1_split
I0924 02:47:28.233064  4154 net.cpp:425] cont_sentence_input_1_split <- cont_sentence
I0924 02:47:28.233077  4154 net.cpp:399] cont_sentence_input_1_split -> cont_sentence_input_1_split_0
I0924 02:47:28.233091  4154 net.cpp:399] cont_sentence_input_1_split -> cont_sentence_input_1_split_1
I0924 02:47:28.238075  4160 net.cpp:141] Setting up cont_sentence_input_1_split
I0924 02:47:28.238111  4160 net.cpp:148] Top shape: 1 1 (1)
I0924 02:47:28.238126  4160 net.cpp:148] Top shape: 1 1 (1)
I0924 02:47:28.238134  4160 net.cpp:156] Memory required for data: 16404
I0924 02:47:28.238142  4154 net.cpp:141] Setting up cont_sentence_input_1_split
I0924 02:47:28.238147  4160 layer_factory.hpp:77] Creating layer embed_encoder
I0924 02:47:28.238168  4154 net.cpp:148] Top shape: 1 1 (1)
I0924 02:47:28.238179  4154 net.cpp:148] Top shape: 1 1 (1)
I0924 02:47:28.238186  4160 net.cpp:91] Creating Layer embed_encoder
I0924 02:47:28.238204  4160 net.cpp:425] embed_encoder <- frames_fc7
I0924 02:47:28.238215  4160 net.cpp:399] embed_encoder -> embedded_in_frames
I0924 02:47:28.238235  4150 net.cpp:141] Setting up cont_sentence_input_1_split
I0924 02:47:28.238251  4150 net.cpp:148] Top shape: 1 1 (1)
I0924 02:47:28.238261  4150 net.cpp:148] Top shape: 1 1 (1)
I0924 02:47:28.238268  4150 net.cpp:156] Memory required for data: 16404
I0924 02:47:28.238277  4150 layer_factory.hpp:77] Creating layer embed_encoder
I0924 02:47:28.238296  4150 net.cpp:91] Creating Layer embed_encoder
I0924 02:47:28.238304  4150 net.cpp:425] embed_encoder <- frames_fc7
I0924 02:47:28.238313  4178 net.cpp:141] Setting up cont_sentence_input_1_split
I0924 02:47:28.238322  4150 net.cpp:399] embed_encoder -> embedded_in_frames
I0924 02:47:28.238335  4178 net.cpp:148] Top shape: 1 1 (1)
I0924 02:47:28.238188  4154 net.cpp:156] Memory required for data: 16404
I0924 02:47:28.238348  4178 net.cpp:148] Top shape: 1 1 (1)
I0924 02:47:28.238363  4154 layer_factory.hpp:77] Creating layer embed_encoder
I0924 02:47:28.238368  4178 net.cpp:156] Memory required for data: 16404
I0924 02:47:28.238375  4178 layer_factory.hpp:77] Creating layer embed_encoder
I0924 02:47:28.238382  4154 net.cpp:91] Creating Layer embed_encoder
I0924 02:47:28.238391  4154 net.cpp:425] embed_encoder <- frames_fc7
I0924 02:47:28.238394  4178 net.cpp:91] Creating Layer embed_encoder
I0924 02:47:28.238402  4178 net.cpp:425] embed_encoder <- frames_fc7
I0924 02:47:28.238404  4154 net.cpp:399] embed_encoder -> embedded_in_frames
I0924 02:47:28.238414  4178 net.cpp:399] embed_encoder -> embedded_in_frames
I0924 02:47:28.259018  4172 net.cpp:141] Setting up embed_encoder
I0924 02:47:28.259065  4172 net.cpp:148] Top shape: 1 500 (500)
I0924 02:47:28.259071  4172 net.cpp:156] Memory required for data: 18404
I0924 02:47:28.259099  4172 layer_factory.hpp:77] Creating layer reshape_frames
I0924 02:47:28.259132  4172 net.cpp:91] Creating Layer reshape_frames
I0924 02:47:28.259140  4172 net.cpp:425] reshape_frames <- embedded_in_frames
I0924 02:47:28.259152  4172 net.cpp:399] reshape_frames -> embedded_input_frames
I0924 02:47:28.259207  4172 net.cpp:141] Setting up reshape_frames
I0924 02:47:28.259218  4172 net.cpp:148] Top shape: 1 1 500 (500)
I0924 02:47:28.259222  4172 net.cpp:156] Memory required for data: 20404
I0924 02:47:28.259229  4172 layer_factory.hpp:77] Creating layer reshape_stage_indicator
I0924 02:47:28.259241  4172 net.cpp:91] Creating Layer reshape_stage_indicator
I0924 02:47:28.259246  4172 net.cpp:425] reshape_stage_indicator <- stage_indicator
I0924 02:47:28.259259  4172 net.cpp:399] reshape_stage_indicator -> reshaped_stage_indicator
I0924 02:47:28.263996  4172 net.cpp:141] Setting up reshape_stage_indicator
I0924 02:47:28.264025  4172 net.cpp:148] Top shape: 1 1 1 (1)
I0924 02:47:28.264032  4172 net.cpp:156] Memory required for data: 20408
I0924 02:47:28.264039  4172 layer_factory.hpp:77] Creating layer embedding
I0924 02:47:28.264060  4172 net.cpp:91] Creating Layer embedding
I0924 02:47:28.264066  4172 net.cpp:425] embedding <- input_sentence
I0924 02:47:28.264078  4172 net.cpp:399] embedding -> embedded_input_sentence
I0924 02:47:28.308665  4150 net.cpp:141] Setting up embed_encoder
I0924 02:47:28.308732  4150 net.cpp:148] Top shape: 1 500 (500)
I0924 02:47:28.308744  4150 net.cpp:156] Memory required for data: 18404
I0924 02:47:28.308774  4150 layer_factory.hpp:77] Creating layer reshape_frames
I0924 02:47:28.308806  4150 net.cpp:91] Creating Layer reshape_frames
I0924 02:47:28.308820  4150 net.cpp:425] reshape_frames <- embedded_in_frames
I0924 02:47:28.308836  4150 net.cpp:399] reshape_frames -> embedded_input_frames
I0924 02:47:28.308910  4150 net.cpp:141] Setting up reshape_frames
I0924 02:47:28.308926  4150 net.cpp:148] Top shape: 1 1 500 (500)
I0924 02:47:28.308936  4150 net.cpp:156] Memory required for data: 20404
I0924 02:47:28.308945  4150 layer_factory.hpp:77] Creating layer reshape_stage_indicator
I0924 02:47:28.308972  4150 net.cpp:91] Creating Layer reshape_stage_indicator
I0924 02:47:28.308982  4150 net.cpp:425] reshape_stage_indicator <- stage_indicator
I0924 02:47:28.308996  4150 net.cpp:399] reshape_stage_indicator -> reshaped_stage_indicator
I0924 02:47:28.309054  4150 net.cpp:141] Setting up reshape_stage_indicator
I0924 02:47:28.309070  4150 net.cpp:148] Top shape: 1 1 1 (1)
I0924 02:47:28.309078  4150 net.cpp:156] Memory required for data: 20408
I0924 02:47:28.309087  4150 layer_factory.hpp:77] Creating layer embedding
I0924 02:47:28.309105  4150 net.cpp:91] Creating Layer embedding
I0924 02:47:28.309115  4150 net.cpp:425] embedding <- input_sentence
I0924 02:47:28.309135  4150 net.cpp:399] embedding -> embedded_input_sentence
I0924 02:47:28.356755  4160 net.cpp:141] Setting up embed_encoder
I0924 02:47:28.356849  4160 net.cpp:148] Top shape: 1 500 (500)
I0924 02:47:28.356860  4160 net.cpp:156] Memory required for data: 18404
I0924 02:47:28.356897  4160 layer_factory.hpp:77] Creating layer reshape_frames
I0924 02:47:28.356927  4160 net.cpp:91] Creating Layer reshape_frames
I0924 02:47:28.356941  4160 net.cpp:425] reshape_frames <- embedded_in_frames
I0924 02:47:28.356956  4160 net.cpp:399] reshape_frames -> embedded_input_frames
I0924 02:47:28.357002  4154 net.cpp:141] Setting up embed_encoder
I0924 02:47:28.357074  4154 net.cpp:148] Top shape: 1 500 (500)
I0924 02:47:28.357092  4154 net.cpp:156] Memory required for data: 18404
I0924 02:47:28.357136  4154 layer_factory.hpp:77] Creating layer reshape_frames
I0924 02:47:28.357178  4154 net.cpp:91] Creating Layer reshape_frames
I0924 02:47:28.357198  4154 net.cpp:425] reshape_frames <- embedded_in_frames
I0924 02:47:28.357226  4154 net.cpp:399] reshape_frames -> embedded_input_frames
I0924 02:47:28.357363  4178 net.cpp:141] Setting up embed_encoder
I0924 02:47:28.357386  4178 net.cpp:148] Top shape: 1 500 (500)
I0924 02:47:28.357395  4178 net.cpp:156] Memory required for data: 18404
I0924 02:47:28.357419  4178 layer_factory.hpp:77] Creating layer reshape_frames
I0924 02:47:28.357439  4178 net.cpp:91] Creating Layer reshape_frames
I0924 02:47:28.357451  4178 net.cpp:425] reshape_frames <- embedded_in_frames
I0924 02:47:28.357450  4154 net.cpp:141] Setting up reshape_frames
I0924 02:47:28.357470  4178 net.cpp:399] reshape_frames -> embedded_input_frames
I0924 02:47:28.357480  4154 net.cpp:148] Top shape: 1 1 500 (500)
I0924 02:47:28.357494  4154 net.cpp:156] Memory required for data: 20404
I0924 02:47:28.357511  4154 layer_factory.hpp:77] Creating layer reshape_stage_indicator
I0924 02:47:28.357535  4154 net.cpp:91] Creating Layer reshape_stage_indicator
I0924 02:47:28.357553  4154 net.cpp:425] reshape_stage_indicator <- stage_indicator
I0924 02:47:28.357583  4154 net.cpp:399] reshape_stage_indicator -> reshaped_stage_indicator
I0924 02:47:28.357030  4160 net.cpp:141] Setting up reshape_frames
I0924 02:47:28.358631  4160 net.cpp:148] Top shape: 1 1 500 (500)
I0924 02:47:28.358644  4160 net.cpp:156] Memory required for data: 20404
I0924 02:47:28.358655  4160 layer_factory.hpp:77] Creating layer reshape_stage_indicator
I0924 02:47:28.358707  4160 net.cpp:91] Creating Layer reshape_stage_indicator
I0924 02:47:28.358722  4160 net.cpp:425] reshape_stage_indicator <- stage_indicator
I0924 02:47:28.358743  4160 net.cpp:399] reshape_stage_indicator -> reshaped_stage_indicator
I0924 02:47:28.360563  4178 net.cpp:141] Setting up reshape_frames
I0924 02:47:28.360584  4178 net.cpp:148] Top shape: 1 1 500 (500)
I0924 02:47:28.360595  4178 net.cpp:156] Memory required for data: 20404
I0924 02:47:28.360605  4178 layer_factory.hpp:77] Creating layer reshape_stage_indicator
I0924 02:47:28.360626  4178 net.cpp:91] Creating Layer reshape_stage_indicator
I0924 02:47:28.360638  4178 net.cpp:425] reshape_stage_indicator <- stage_indicator
I0924 02:47:28.360682  4154 net.cpp:141] Setting up reshape_stage_indicator
I0924 02:47:28.360710  4160 net.cpp:141] Setting up reshape_stage_indicator
I0924 02:47:28.360738  4160 net.cpp:148] Top shape: 1 1 1 (1)
I0924 02:47:28.360739  4154 net.cpp:148] Top shape: 1 1 1 (1)
I0924 02:47:28.360749  4160 net.cpp:156] Memory required for data: 20408
I0924 02:47:28.360759  4154 net.cpp:156] Memory required for data: 20408
I0924 02:47:28.360761  4160 layer_factory.hpp:77] Creating layer embedding
I0924 02:47:28.360786  4154 layer_factory.hpp:77] Creating layer embedding
I0924 02:47:28.360811  4160 net.cpp:91] Creating Layer embedding
I0924 02:47:28.360821  4154 net.cpp:91] Creating Layer embedding
I0924 02:47:28.360826  4160 net.cpp:425] embedding <- input_sentence
I0924 02:47:28.360851  4154 net.cpp:425] embedding <- input_sentence
I0924 02:47:28.360862  4160 net.cpp:399] embedding -> embedded_input_sentence
I0924 02:47:28.360888  4154 net.cpp:399] embedding -> embedded_input_sentence
I0924 02:47:28.361449  4178 net.cpp:399] reshape_stage_indicator -> reshaped_stage_indicator
I0924 02:47:28.407325  4178 net.cpp:141] Setting up reshape_stage_indicator
I0924 02:47:28.407387  4178 net.cpp:148] Top shape: 1 1 1 (1)
I0924 02:47:28.407397  4178 net.cpp:156] Memory required for data: 20408
I0924 02:47:28.407409  4178 layer_factory.hpp:77] Creating layer embedding
I0924 02:47:28.407438  4178 net.cpp:91] Creating Layer embedding
I0924 02:47:28.407449  4178 net.cpp:425] embedding <- input_sentence
I0924 02:47:28.407466  4178 net.cpp:399] embedding -> embedded_input_sentence
I0924 02:47:28.525729  4172 net.cpp:141] Setting up embedding
I0924 02:47:28.525777  4172 net.cpp:148] Top shape: 1 1 500 (500)
I0924 02:47:28.525784  4172 net.cpp:156] Memory required for data: 22408
I0924 02:47:28.525804  4172 layer_factory.hpp:77] Creating layer lstm1
I0924 02:47:28.525835  4172 net.cpp:91] Creating Layer lstm1
I0924 02:47:28.525843  4172 net.cpp:425] lstm1 <- embedded_input_frames
I0924 02:47:28.525852  4172 net.cpp:425] lstm1 <- cont_sentence_input_1_split_0
I0924 02:47:28.525863  4172 net.cpp:399] lstm1 -> lstm1
I0924 02:47:28.525892  4172 recurrent_layer.cpp:20] Initializing recurrent layer: assuming input batch contains 1 timesteps of 1 independent streams.
I0924 02:47:28.526274  4172 net.cpp:49] Initializing net from parameters: 
layer {
  name: "lstm1_"
  type: "Input"
  top: "x"
  top: "cont"
  input_param {
    shape {
      dim: 1
      dim: 1
      dim: 500
    }
    shape {
      dim: 1
      dim: 1
    }
  }
}
layer {
  name: "lstm1_"
  type: "Input"
  top: "c_0"
  top: "h_0"
  input_param {
    shape {
      dim: 1
      dim: 1
      dim: 1000
    }
    shape {
      dim: 1
      dim: 1
      dim: 1000
    }
  }
}
layer {
  name: "lstm1_cont_slice"
  type: "Slice"
  bottom: "cont"
  top: "cont_1"
  slice_param {
    axis: 0
  }
}
layer {
  name: "lstm1_x_transform"
  type: "InnerProduct"
  bottom: "x"
  top: "W_xc_x"
  param {
    name: "W_xc"
  }
  param {
    name: "b_c"
  }
  propagate_down: true
  inner_product_param {
    num_output: 4000
    bias_term: true
    weight_filler {
      type: "uniform"
      min: -0.08
      max: 0.08
    }
    bias_filler {
      type: "constant"
      value: 0
    }
    axis: 2
  }
}
layer {
  name: "lstm1_W_xc_x_slice"
  type: "Slice"
  bottom: "W_xc_x"
  top: "W_xc_x_1"
  slice_param {
    axis: 0
  }
}
layer {
  name: "lstm1_h_conted_0"
  type: "Scale"
  bottom: "h_0"
  bottom: "cont_1"
  top: "h_conted_0"
  scale_param {
    axis: 0
  }
}
layer {
  name: "lstm1_transform_1"
  type: "InnerProduct"
  bottom: "h_conted_0"
  top: "W_hc_h_0"
  param {
    name: "W_hc"
  }
  inner_product_param {
    num_output: 4000
    bias_term: false
    weight_filler {
      type: "uniform"
      min: -0.08
      max: 0.08
    }
    axis: 2
  }
}
layer {
  name: "lstm1_gate_input_1"
  type: "Eltwise"
  bottom: "W_hc_h_0"
  bottom: "W_xc_x_1"
  top: "gate_input_1"
  eltwise_param {
    operation: SUM
  }
}
layer {
  name: "lstm1_unit_1"
  type: "LSTMUnit"
  bottom: "c_0"
  bottom: "gate_input_1"
  bottom: "cont_1"
  top: "c_1"
  top: "h_1"
}
layer {
  name: "lstm1_"
  type: "Split"
  bottom: "c_1"
  top: "c_T"
}
layer {
  name: "lstm1_h_concat"
  type: "Concat"
  bottom: "h_1"
  top: "h"
  concat_param {
    axis: 0
  }
}
layer {
  name: "h_pseudoloss"
  type: "Reduction"
  bottom: "h"
  top: "h_pseudoloss"
  loss_weight: 1
}
I0924 02:47:28.526389  4172 layer_factory.hpp:77] Creating layer lstm1_
I0924 02:47:28.526403  4172 net.cpp:91] Creating Layer lstm1_
I0924 02:47:28.526410  4172 net.cpp:399] lstm1_ -> x
I0924 02:47:28.526422  4172 net.cpp:399] lstm1_ -> cont
I0924 02:47:28.528961  4172 net.cpp:141] Setting up lstm1_
I0924 02:47:28.528980  4172 net.cpp:148] Top shape: 1 1 500 (500)
I0924 02:47:28.528986  4172 net.cpp:148] Top shape: 1 1 (1)
I0924 02:47:28.528990  4172 net.cpp:156] Memory required for data: 2004
I0924 02:47:28.528995  4172 layer_factory.hpp:77] Creating layer lstm1_
I0924 02:47:28.529006  4172 net.cpp:91] Creating Layer lstm1_
I0924 02:47:28.529036  4172 net.cpp:399] lstm1_ -> c_0
I0924 02:47:28.529052  4172 net.cpp:399] lstm1_ -> h_0
I0924 02:47:28.529260  4172 net.cpp:141] Setting up lstm1_
I0924 02:47:28.529271  4172 net.cpp:148] Top shape: 1 1 1000 (1000)
I0924 02:47:28.529278  4172 net.cpp:148] Top shape: 1 1 1000 (1000)
I0924 02:47:28.529281  4172 net.cpp:156] Memory required for data: 10004
I0924 02:47:28.529286  4172 layer_factory.hpp:77] Creating layer lstm1_cont_slice
I0924 02:47:28.529300  4172 net.cpp:91] Creating Layer lstm1_cont_slice
I0924 02:47:28.529306  4172 net.cpp:425] lstm1_cont_slice <- cont
I0924 02:47:28.529315  4172 net.cpp:399] lstm1_cont_slice -> cont_1
I0924 02:47:28.529520  4172 net.cpp:141] Setting up lstm1_cont_slice
I0924 02:47:28.529531  4172 net.cpp:148] Top shape: 1 1 (1)
I0924 02:47:28.529536  4172 net.cpp:156] Memory required for data: 10008
I0924 02:47:28.529539  4172 layer_factory.hpp:77] Creating layer cont_1_lstm1_cont_slice_0_split
I0924 02:47:28.529552  4172 net.cpp:91] Creating Layer cont_1_lstm1_cont_slice_0_split
I0924 02:47:28.529558  4172 net.cpp:425] cont_1_lstm1_cont_slice_0_split <- cont_1
I0924 02:47:28.529566  4172 net.cpp:399] cont_1_lstm1_cont_slice_0_split -> cont_1_lstm1_cont_slice_0_split_0
I0924 02:47:28.529574  4172 net.cpp:399] cont_1_lstm1_cont_slice_0_split -> cont_1_lstm1_cont_slice_0_split_1
I0924 02:47:28.530892  4172 net.cpp:141] Setting up cont_1_lstm1_cont_slice_0_split
I0924 02:47:28.530910  4172 net.cpp:148] Top shape: 1 1 (1)
I0924 02:47:28.530917  4172 net.cpp:148] Top shape: 1 1 (1)
I0924 02:47:28.530921  4172 net.cpp:156] Memory required for data: 10016
I0924 02:47:28.530927  4172 layer_factory.hpp:77] Creating layer lstm1_x_transform
I0924 02:47:28.530947  4172 net.cpp:91] Creating Layer lstm1_x_transform
I0924 02:47:28.530957  4172 net.cpp:425] lstm1_x_transform <- x
I0924 02:47:28.530973  4172 net.cpp:399] lstm1_x_transform -> W_xc_x
I0924 02:47:28.560068  4172 net.cpp:141] Setting up lstm1_x_transform
I0924 02:47:28.560808  4172 net.cpp:148] Top shape: 1 1 4000 (4000)
I0924 02:47:28.561003  4172 net.cpp:156] Memory required for data: 26016
I0924 02:47:28.561254  4172 layer_factory.hpp:77] Creating layer lstm1_W_xc_x_slice
I0924 02:47:28.561421  4172 net.cpp:91] Creating Layer lstm1_W_xc_x_slice
I0924 02:47:28.561574  4172 net.cpp:425] lstm1_W_xc_x_slice <- W_xc_x
I0924 02:47:28.561748  4172 net.cpp:399] lstm1_W_xc_x_slice -> W_xc_x_1
I0924 02:47:28.565853  4150 net.cpp:141] Setting up embedding
I0924 02:47:28.565878  4150 net.cpp:148] Top shape: 1 1 500 (500)
I0924 02:47:28.565884  4150 net.cpp:156] Memory required for data: 22408
I0924 02:47:28.565897  4150 layer_factory.hpp:77] Creating layer lstm1
I0924 02:47:28.565906  4172 net.cpp:141] Setting up lstm1_W_xc_x_slice
I0924 02:47:28.565914  4150 net.cpp:91] Creating Layer lstm1
I0924 02:47:28.565922  4150 net.cpp:425] lstm1 <- embedded_input_frames
I0924 02:47:28.565925  4172 net.cpp:148] Top shape: 1 1 4000 (4000)
I0924 02:47:28.565929  4150 net.cpp:425] lstm1 <- cont_sentence_input_1_split_0
I0924 02:47:28.565934  4172 net.cpp:156] Memory required for data: 42016
I0924 02:47:28.565938  4150 net.cpp:399] lstm1 -> lstm1
I0924 02:47:28.565943  4172 layer_factory.hpp:77] Creating layer lstm1_h_conted_0
I0924 02:47:28.565951  4150 recurrent_layer.cpp:20] Initializing recurrent layer: assuming input batch contains 1 timesteps of 1 independent streams.
I0924 02:47:28.565968  4172 net.cpp:91] Creating Layer lstm1_h_conted_0
I0924 02:47:28.565979  4172 net.cpp:425] lstm1_h_conted_0 <- h_0
I0924 02:47:28.565989  4172 net.cpp:425] lstm1_h_conted_0 <- cont_1_lstm1_cont_slice_0_split_0
I0924 02:47:28.566000  4172 net.cpp:399] lstm1_h_conted_0 -> h_conted_0
I0924 02:47:28.566218  4150 net.cpp:49] Initializing net from parameters: 
layer {
  name: "lstm1_"
  type: "Input"
  top: "x"
  top: "cont"
  input_param {
    shape {
      dim: 1
      dim: 1
      dim: 500
    }
    shape {
      dim: 1
      dim: 1
    }
  }
}
layer {
  name: "lstm1_"
  type: "Input"
  top: "c_0"
  top: "h_0"
  input_param {
    shape {
      dim: 1
      dim: 1
      dim: 1000
    }
    shape {
      dim: 1
      dim: 1
      dim: 1000
    }
  }
}
layer {
  name: "lstm1_cont_slice"
  type: "Slice"
  bottom: "cont"
  top: "cont_1"
  slice_param {
    axis: 0
  }
}
layer {
  name: "lstm1_x_transform"
  type: "InnerProduct"
  bottom: "x"
  top: "W_xc_x"
  param {
    name: "W_xc"
  }
  param {
    name: "b_c"
  }
  propagate_down: true
  inner_product_param {
    num_output: 4000
    bias_term: true
    weight_filler {
      type: "uniform"
      min: -0.08
      max: 0.08
    }
    bias_filler {
      type: "constant"
      value: 0
    }
    axis: 2
  }
}
layer {
  name: "lstm1_W_xc_x_slice"
  type: "Slice"
  bottom: "W_xc_x"
  top: "W_xc_x_1"
  slice_param {
    axis: 0
  }
}
layer {
  name: "lstm1_h_conted_0"
  type: "Scale"
  bottom: "h_0"
  bottom: "cont_1"
  top: "h_conted_0"
  scale_param {
    axis: 0
  }
}
layer {
  name: "lstm1_transform_1"
  type: "InnerProduct"
  bottom: "h_conted_0"
  top: "W_hc_h_0"
  param {
    name: "W_hc"
  }
  inner_product_param {
    num_output: 4000
    bias_term: false
    weight_filler {
      type: "uniform"
      min: -0.08
      max: 0.08
    }
    axis: 2
  }
}
layer {
  name: "lstm1_gate_input_1"
  type: "Eltwise"
  bottom: "W_hc_h_0"
  bottom: "W_xc_x_1"
  top: "gate_input_1"
  eltwise_param {
    operation: SUM
  }
}
layer {
  name: "lstm1_unit_1"
  type: "LSTMUnit"
  bottom: "c_0"
  bottom: "gate_input_1"
  bottom: "cont_1"
  top: "c_1"
  top: "h_1"
}
layer {
  name: "lstm1_"
  type: "Split"
  bottom: "c_1"
  top: "c_T"
}
layer {
  name: "lstm1_h_concat"
  type: "Concat"
  bottom: "h_1"
  top: "h"
  concat_param {
    axis: 0
  }
}
layer {
  name: "h_pseudoloss"
  type: "Reduction"
  bottom: "h"
  top: "h_pseudoloss"
  loss_weight: 1
}
I0924 02:47:28.566309  4150 layer_factory.hpp:77] Creating layer lstm1_
I0924 02:47:28.566321  4150 net.cpp:91] Creating Layer lstm1_
I0924 02:47:28.566328  4150 net.cpp:399] lstm1_ -> x
I0924 02:47:28.566339  4150 net.cpp:399] lstm1_ -> cont
I0924 02:47:28.573269  4172 net.cpp:141] Setting up lstm1_h_conted_0
I0924 02:47:28.573297  4172 net.cpp:148] Top shape: 1 1 1000 (1000)
I0924 02:47:28.573304  4172 net.cpp:156] Memory required for data: 46016
I0924 02:47:28.573313  4172 layer_factory.hpp:77] Creating layer lstm1_transform_1
I0924 02:47:28.573320  4150 net.cpp:141] Setting up lstm1_
I0924 02:47:28.573330  4172 net.cpp:91] Creating Layer lstm1_transform_1
I0924 02:47:28.573338  4150 net.cpp:148] Top shape: 1 1 500 (500)
I0924 02:47:28.573340  4172 net.cpp:425] lstm1_transform_1 <- h_conted_0
I0924 02:47:28.573346  4150 net.cpp:148] Top shape: 1 1 (1)
I0924 02:47:28.573350  4150 net.cpp:156] Memory required for data: 2004
I0924 02:47:28.573356  4150 layer_factory.hpp:77] Creating layer lstm1_
I0924 02:47:28.573360  4172 net.cpp:399] lstm1_transform_1 -> W_hc_h_0
I0924 02:47:28.573375  4150 net.cpp:91] Creating Layer lstm1_
I0924 02:47:28.573382  4150 net.cpp:399] lstm1_ -> c_0
I0924 02:47:28.573397  4150 net.cpp:399] lstm1_ -> h_0
I0924 02:47:28.574920  4150 net.cpp:141] Setting up lstm1_
I0924 02:47:28.574939  4150 net.cpp:148] Top shape: 1 1 1000 (1000)
I0924 02:47:28.574945  4150 net.cpp:148] Top shape: 1 1 1000 (1000)
I0924 02:47:28.574949  4150 net.cpp:156] Memory required for data: 10004
I0924 02:47:28.574954  4150 layer_factory.hpp:77] Creating layer lstm1_cont_slice
I0924 02:47:28.574968  4150 net.cpp:91] Creating Layer lstm1_cont_slice
I0924 02:47:28.574973  4150 net.cpp:425] lstm1_cont_slice <- cont
I0924 02:47:28.574981  4150 net.cpp:399] lstm1_cont_slice -> cont_1
I0924 02:47:28.583186  4150 net.cpp:141] Setting up lstm1_cont_slice
I0924 02:47:28.583241  4150 net.cpp:148] Top shape: 1 1 (1)
I0924 02:47:28.583250  4150 net.cpp:156] Memory required for data: 10008
I0924 02:47:28.583263  4150 layer_factory.hpp:77] Creating layer cont_1_lstm1_cont_slice_0_split
I0924 02:47:28.583287  4150 net.cpp:91] Creating Layer cont_1_lstm1_cont_slice_0_split
I0924 02:47:28.583297  4150 net.cpp:425] cont_1_lstm1_cont_slice_0_split <- cont_1
I0924 02:47:28.583315  4150 net.cpp:399] cont_1_lstm1_cont_slice_0_split -> cont_1_lstm1_cont_slice_0_split_0
I0924 02:47:28.583334  4150 net.cpp:399] cont_1_lstm1_cont_slice_0_split -> cont_1_lstm1_cont_slice_0_split_1
I0924 02:47:28.589258  4150 net.cpp:141] Setting up cont_1_lstm1_cont_slice_0_split
I0924 02:47:28.589309  4150 net.cpp:148] Top shape: 1 1 (1)
I0924 02:47:28.589321  4150 net.cpp:148] Top shape: 1 1 (1)
I0924 02:47:28.589329  4150 net.cpp:156] Memory required for data: 10016
I0924 02:47:28.589341  4150 layer_factory.hpp:77] Creating layer lstm1_x_transform
I0924 02:47:28.589375  4150 net.cpp:91] Creating Layer lstm1_x_transform
I0924 02:47:28.589385  4150 net.cpp:425] lstm1_x_transform <- x
I0924 02:47:28.589406  4150 net.cpp:399] lstm1_x_transform -> W_xc_x
I0924 02:47:28.605440  4160 net.cpp:141] Setting up embedding
I0924 02:47:28.605525  4160 net.cpp:148] Top shape: 1 1 500 (500)
I0924 02:47:28.605533  4160 net.cpp:156] Memory required for data: 22408
I0924 02:47:28.605567  4160 layer_factory.hpp:77] Creating layer lstm1
I0924 02:47:28.605602  4160 net.cpp:91] Creating Layer lstm1
I0924 02:47:28.605617  4160 net.cpp:425] lstm1 <- embedded_input_frames
I0924 02:47:28.605629  4160 net.cpp:425] lstm1 <- cont_sentence_input_1_split_0
I0924 02:47:28.605644  4160 net.cpp:399] lstm1 -> lstm1
I0924 02:47:28.605671  4160 recurrent_layer.cpp:20] Initializing recurrent layer: assuming input batch contains 1 timesteps of 1 independent streams.
I0924 02:47:28.606537  4160 net.cpp:49] Initializing net from parameters: 
layer {
  name: "lstm1_"
  type: "Input"
  top: "x"
  top: "cont"
  input_param {
    shape {
      dim: 1
      dim: 1
      dim: 500
    }
    shape {
      dim: 1
      dim: 1
    }
  }
}
layer {
  name: "lstm1_"
  type: "Input"
  top: "c_0"
  top: "h_0"
  input_param {
    shape {
      dim: 1
      dim: 1
      dim: 1000
    }
    shape {
      dim: 1
      dim: 1
      dim: 1000
    }
  }
}
layer {
  name: "lstm1_cont_slice"
  type: "Slice"
  bottom: "cont"
  top: "cont_1"
  slice_param {
    axis: 0
  }
}
layer {
  name: "lstm1_x_transform"
  type: "InnerProduct"
  bottom: "x"
  top: "W_xc_x"
  param {
    name: "W_xc"
  }
  param {
    name: "b_c"
  }
  propagate_down: true
  inner_product_param {
    num_output: 4000
    bias_term: true
    weight_filler {
      type: "uniform"
      min: -0.08
      max: 0.08
    }
    bias_filler {
      type: "constant"
      value: 0
    }
    axis: 2
  }
}
layer {
  name: "lstm1_W_xc_x_slice"
  type: "Slice"
  bottom: "W_xc_x"
  top: "W_xc_x_1"
  slice_param {
    axis: 0
  }
}
layer {
  name: "lstm1_h_conted_0"
  type: "Scale"
  bottom: "h_0"
  bottom: "cont_1"
  top: "h_conted_0"
  scale_param {
    axis: 0
  }
}
layer {
  name: "lstm1_transform_1"
  type: "InnerProduct"
  bottom: "h_conted_0"
  top: "W_hc_h_0"
  param {
    name: "W_hc"
  }
  inner_product_param {
    num_output: 4000
    bias_term: false
    weight_filler {
      type: "uniform"
      min: -0.08
      max: 0.08
    }
    axis: 2
  }
}
layer {
  name: "lstm1_gate_input_1"
  type: "Eltwise"
  bottom: "W_hc_h_0"
  bottom: "W_xc_x_1"
  top: "gate_input_1"
  eltwise_param {
    operation: SUM
  }
}
layer {
  name: "lstm1_unit_1"
  type: "LSTMUnit"
  bottom: "c_0"
  bottom: "gate_input_1"
  bottom: "cont_1"
  top: "c_1"
  top: "h_1"
}
layer {
  name: "lstm1_"
  type: "Split"
  bottom: "c_1"
  top: "c_T"
}
layer {
  name: "lstm1_h_concat"
  type: "Concat"
  bottom: "h_1"
  top: "h"
  concat_param {
    axis: 0
  }
}
layer {
  name: "h_pseudoloss"
  type: "Reduction"
  bottom: "h"
  top: "h_pseudoloss"
  loss_weight: 1
}
I0924 02:47:28.606729  4160 layer_factory.hpp:77] Creating layer lstm1_
I0924 02:47:28.606753  4160 net.cpp:91] Creating Layer lstm1_
I0924 02:47:28.606765  4160 net.cpp:399] lstm1_ -> x
I0924 02:47:28.606787  4160 net.cpp:399] lstm1_ -> cont
I0924 02:47:28.608288  4160 net.cpp:141] Setting up lstm1_
I0924 02:47:28.608310  4160 net.cpp:148] Top shape: 1 1 500 (500)
I0924 02:47:28.608322  4160 net.cpp:148] Top shape: 1 1 (1)
I0924 02:47:28.608330  4160 net.cpp:156] Memory required for data: 2004
I0924 02:47:28.608340  4160 layer_factory.hpp:77] Creating layer lstm1_
I0924 02:47:28.608363  4160 net.cpp:91] Creating Layer lstm1_
I0924 02:47:28.608379  4160 net.cpp:399] lstm1_ -> c_0
I0924 02:47:28.608398  4160 net.cpp:399] lstm1_ -> h_0
I0924 02:47:28.608568  4160 net.cpp:141] Setting up lstm1_
I0924 02:47:28.608590  4160 net.cpp:148] Top shape: 1 1 1000 (1000)
I0924 02:47:28.608602  4160 net.cpp:148] Top shape: 1 1 1000 (1000)
I0924 02:47:28.608609  4160 net.cpp:156] Memory required for data: 10004
I0924 02:47:28.608618  4160 layer_factory.hpp:77] Creating layer lstm1_cont_slice
I0924 02:47:28.608633  4160 net.cpp:91] Creating Layer lstm1_cont_slice
I0924 02:47:28.608644  4160 net.cpp:425] lstm1_cont_slice <- cont
I0924 02:47:28.608656  4160 net.cpp:399] lstm1_cont_slice -> cont_1
I0924 02:47:28.612140  4160 net.cpp:141] Setting up lstm1_cont_slice
I0924 02:47:28.612188  4160 net.cpp:148] Top shape: 1 1 (1)
I0924 02:47:28.612198  4160 net.cpp:156] Memory required for data: 10008
I0924 02:47:28.612210  4160 layer_factory.hpp:77] Creating layer cont_1_lstm1_cont_slice_0_split
I0924 02:47:28.612231  4160 net.cpp:91] Creating Layer cont_1_lstm1_cont_slice_0_split
I0924 02:47:28.612241  4160 net.cpp:425] cont_1_lstm1_cont_slice_0_split <- cont_1
I0924 02:47:28.612260  4160 net.cpp:399] cont_1_lstm1_cont_slice_0_split -> cont_1_lstm1_cont_slice_0_split_0
I0924 02:47:28.612279  4160 net.cpp:399] cont_1_lstm1_cont_slice_0_split -> cont_1_lstm1_cont_slice_0_split_1
I0924 02:47:28.612818  4160 net.cpp:141] Setting up cont_1_lstm1_cont_slice_0_split
I0924 02:47:28.612831  4160 net.cpp:148] Top shape: 1 1 (1)
I0924 02:47:28.612838  4160 net.cpp:148] Top shape: 1 1 (1)
I0924 02:47:28.612843  4160 net.cpp:156] Memory required for data: 10016
I0924 02:47:28.612849  4160 layer_factory.hpp:77] Creating layer lstm1_x_transform
I0924 02:47:28.612872  4160 net.cpp:91] Creating Layer lstm1_x_transform
I0924 02:47:28.612879  4160 net.cpp:425] lstm1_x_transform <- x
I0924 02:47:28.612896  4160 net.cpp:399] lstm1_x_transform -> W_xc_x
I0924 02:47:28.612993  4150 net.cpp:141] Setting up lstm1_x_transform
I0924 02:47:28.613013  4150 net.cpp:148] Top shape: 1 1 4000 (4000)
I0924 02:47:28.613021  4150 net.cpp:156] Memory required for data: 26016
I0924 02:47:28.613042  4150 layer_factory.hpp:77] Creating layer lstm1_W_xc_x_slice
I0924 02:47:28.613056  4150 net.cpp:91] Creating Layer lstm1_W_xc_x_slice
I0924 02:47:28.613066  4150 net.cpp:425] lstm1_W_xc_x_slice <- W_xc_x
I0924 02:47:28.613078  4150 net.cpp:399] lstm1_W_xc_x_slice -> W_xc_x_1
I0924 02:47:28.624426  4150 net.cpp:141] Setting up lstm1_W_xc_x_slice
I0924 02:47:28.624490  4172 net.cpp:141] Setting up lstm1_transform_1
I0924 02:47:28.624505  4150 net.cpp:148] Top shape: 1 1 4000 (4000)
I0924 02:47:28.624517  4172 net.cpp:148] Top shape: 1 1 4000 (4000)
I0924 02:47:28.624526  4150 net.cpp:156] Memory required for data: 42016
I0924 02:47:28.624528  4172 net.cpp:156] Memory required for data: 62016
I0924 02:47:28.624553  4150 layer_factory.hpp:77] Creating layer lstm1_h_conted_0
I0924 02:47:28.624568  4172 layer_factory.hpp:77] Creating layer lstm1_gate_input_1
I0924 02:47:28.624591  4172 net.cpp:91] Creating Layer lstm1_gate_input_1
I0924 02:47:28.624589  4150 net.cpp:91] Creating Layer lstm1_h_conted_0
I0924 02:47:28.624624  4172 net.cpp:425] lstm1_gate_input_1 <- W_hc_h_0
I0924 02:47:28.624637  4150 net.cpp:425] lstm1_h_conted_0 <- h_0
I0924 02:47:28.624637  4172 net.cpp:425] lstm1_gate_input_1 <- W_xc_x_1
I0924 02:47:28.624670  4150 net.cpp:425] lstm1_h_conted_0 <- cont_1_lstm1_cont_slice_0_split_0
I0924 02:47:28.624681  4172 net.cpp:399] lstm1_gate_input_1 -> gate_input_1
I0924 02:47:28.624694  4150 net.cpp:399] lstm1_h_conted_0 -> h_conted_0
I0924 02:47:28.624778  4172 net.cpp:141] Setting up lstm1_gate_input_1
I0924 02:47:28.624795  4172 net.cpp:148] Top shape: 1 1 4000 (4000)
I0924 02:47:28.624804  4172 net.cpp:156] Memory required for data: 78016
I0924 02:47:28.624812  4172 layer_factory.hpp:77] Creating layer lstm1_unit_1
I0924 02:47:28.624827  4172 net.cpp:91] Creating Layer lstm1_unit_1
I0924 02:47:28.624836  4172 net.cpp:425] lstm1_unit_1 <- c_0
I0924 02:47:28.624846  4172 net.cpp:425] lstm1_unit_1 <- gate_input_1
I0924 02:47:28.624855  4172 net.cpp:425] lstm1_unit_1 <- cont_1_lstm1_cont_slice_0_split_1
I0924 02:47:28.624868  4172 net.cpp:399] lstm1_unit_1 -> c_1
I0924 02:47:28.624905  4172 net.cpp:399] lstm1_unit_1 -> h_1
I0924 02:47:28.625102  4150 net.cpp:141] Setting up lstm1_h_conted_0
I0924 02:47:28.625129  4150 net.cpp:148] Top shape: 1 1 1000 (1000)
I0924 02:47:28.625144  4150 net.cpp:156] Memory required for data: 46016
I0924 02:47:28.625159  4150 layer_factory.hpp:77] Creating layer lstm1_transform_1
I0924 02:47:28.625186  4150 net.cpp:91] Creating Layer lstm1_transform_1
I0924 02:47:28.625205  4150 net.cpp:425] lstm1_transform_1 <- h_conted_0
I0924 02:47:28.625226  4150 net.cpp:399] lstm1_transform_1 -> W_hc_h_0
I0924 02:47:28.625232  4172 net.cpp:141] Setting up lstm1_unit_1
I0924 02:47:28.625252  4172 net.cpp:148] Top shape: 1 1 1000 (1000)
I0924 02:47:28.625262  4172 net.cpp:148] Top shape: 1 1 1000 (1000)
I0924 02:47:28.625272  4172 net.cpp:156] Memory required for data: 86016
I0924 02:47:28.625279  4172 layer_factory.hpp:77] Creating layer lstm1_
I0924 02:47:28.625294  4172 net.cpp:91] Creating Layer lstm1_
I0924 02:47:28.625303  4172 net.cpp:425] lstm1_ <- c_1
I0924 02:47:28.625316  4172 net.cpp:399] lstm1_ -> c_T
I0924 02:47:28.634981  4172 net.cpp:141] Setting up lstm1_
I0924 02:47:28.635040  4172 net.cpp:148] Top shape: 1 1 1000 (1000)
I0924 02:47:28.635051  4172 net.cpp:156] Memory required for data: 90016
I0924 02:47:28.635062  4172 layer_factory.hpp:77] Creating layer lstm1_h_concat
I0924 02:47:28.635085  4172 net.cpp:91] Creating Layer lstm1_h_concat
I0924 02:47:28.635095  4172 net.cpp:425] lstm1_h_concat <- h_1
I0924 02:47:28.635115  4172 net.cpp:399] lstm1_h_concat -> h
I0924 02:47:28.635190  4172 net.cpp:141] Setting up lstm1_h_concat
I0924 02:47:28.635203  4172 net.cpp:148] Top shape: 1 1 1000 (1000)
I0924 02:47:28.635210  4172 net.cpp:156] Memory required for data: 94016
I0924 02:47:28.635218  4172 layer_factory.hpp:77] Creating layer h_pseudoloss
I0924 02:47:28.635248  4172 net.cpp:91] Creating Layer h_pseudoloss
I0924 02:47:28.635257  4172 net.cpp:425] h_pseudoloss <- h
I0924 02:47:28.635268  4172 net.cpp:399] h_pseudoloss -> h_pseudoloss
I0924 02:47:28.635561  4172 net.cpp:141] Setting up h_pseudoloss
…
I0924 02:47:28.635740  4172 net.cpp:219] lstm1_ does not need backward computation.
I0924 02:47:28.635747  4172 net.cpp:261] This network produces output c_T
I0924 02:47:28.635754  4172 net.cpp:261] This network produces output h_pseudoloss
I0924 02:47:28.635787  4172 net.cpp:274] Network initialization done.
I0924 02:47:28.635871  4172 recurrent_layer.cpp:150] Adding parameter 0: W_xc
I0924 02:47:28.635884  4172 recurrent_layer.cpp:150] Adding parameter 1: b_c
I0924 02:47:28.635891  4172 recurrent_layer.cpp:150] Adding parameter 2: W_hc
I0924 02:47:28.639264  4172 net.cpp:141] Setting up lstm1
I0924 02:47:28.639308  4172 net.cpp:148] Top shape: 1 1 1000 (1000)
I0924 02:47:28.639317  4172 net.cpp:156] Memory required for data: 26408
I0924 02:47:28.639343  4172 layer_factory.hpp:77] Creating layer concat
I0924 02:47:28.639364  4172 net.cpp:91] Creating Layer concat
I0924 02:47:28.639374  4172 net.cpp:425] concat <- lstm1
I0924 02:47:28.639385  4172 net.cpp:425] concat <- embedded_input_sentence
I0924 02:47:28.639394  4172 net.cpp:425] concat <- reshaped_stage_indicator
I0924 02:47:28.639405  4172 net.cpp:399] concat -> lstm1_video_sequence
I0924 02:47:28.639560  4172 net.cpp:141] Setting up concat
I0924 02:47:28.639575  4172 net.cpp:148] Top shape: 1 1 1501 (1501)
I0924 02:47:28.639582  4172 net.cpp:156] Memory required for data: 32412
I0924 02:47:28.639590  4172 layer_factory.hpp:77] Creating layer lstm2
I0924 02:47:28.639611  4172 net.cpp:91] Creating Layer lstm2
I0924 02:47:28.639619  4172 net.cpp:425] lstm2 <- lstm1_video_sequence
I0924 02:47:28.639631  4172 net.cpp:425] lstm2 <- cont_sentence_input_1_split_1
I0924 02:47:28.639642  4172 net.cpp:399] lstm2 -> lstm2
I0924 02:47:28.639660  4172 recurrent_layer.cpp:20] Initializing recurrent layer: assuming input batch contains 1 timesteps of 1 independent streams.
I0924 02:47:28.640061  4172 net.cpp:49] Initializing net from parameters: 
layer {
  name: "lstm2_"
  type: "Input"
  top: "x"
  top: "cont"
  input_param {
    shape {
      dim: 1
      dim: 1
      dim: 1501
    }
    shape {
      dim: 1
      dim: 1
    }
  }
}
layer {
  name: "lstm2_"
  type: "Input"
  top: "c_0"
  top: "h_0"
  input_param {
    shape {
      dim: 1
      dim: 1
      dim: 1000
    }
    shape {
      dim: 1
      dim: 1
      dim: 1000
    }
  }
}
layer {
  name: "lstm2_cont_slice"
  type: "Slice"
  bottom: "cont"
  top: "cont_1"
  slice_param {
    axis: 0
  }
}
layer {
  name: "lstm2_x_transform"
  type: "InnerProduct"
  bottom: "x"
  top: "W_xc_x"
  param {
    name: "W_xc"
  }
  param {
    name: "b_c"
  }
  propagate_down: true
  inner_product_param {
    num_output: 4000
    bias_term: true
    weight_filler {
      type: "uniform"
      min: -0.08
      max: 0.08
    }
    bias_filler {
      type: "constant"
      value: 0
    }
    axis: 2
  }
}
layer {
  name: "lstm2_W_xc_x_slice"
  type: "Slice"
  bottom: "W_xc_x"
  top: "W_xc_x_1"
  slice_param {
    axis: 0
  }
}
layer {
  name: "lstm2_h_conted_0"
  type: "Scale"
  bottom: "h_0"
  bottom: "cont_1"
  top: "h_conted_0"
  scale_param {
    axis: 0
  }
}
layer {
  name: "lstm2_transform_1"
  type: "InnerProduct"
  bottom: "h_conted_0"
  top: "W_hc_h_0"
  param {
    name: "W_hc"
  }
  inner_product_param {
    num_output: 4000
    bias_term: false
    weight_filler {
      type: "uniform"
      min: -0.08
      max: 0.08
    }
    axis: 2
  }
}
layer {
  name: "lstm2_gate_input_1"
  type: "Eltwise"
  bottom: "W_hc_h_0"
  bottom: "W_xc_x_1"
  top: "gate_input_1"
  eltwise_param {
    operation: SUM
  }
}
layer {
  name: "lstm2_unit_1"
  type: "LSTMUnit"
  bottom: "c_0"
  bottom: "gate_input_1"
  bottom: "cont_1"
  top: "c_1"
  top: "h_1"
}
layer {
  name: "lstm2_"
  type: "Split"
  bottom: "c_1"
  top: "c_T"
}
layer {
  name: "lstm2_h_concat"
  type: "Concat"
  bottom: "h_1"
  top: "h"
  concat_param {
    axis: 0
  }
}
layer {
  name: "h_pseudoloss"
  type: "Reduction"
  bottom: "h"
  top: "h_pseudoloss"
  loss_weight: 1
}
I0924 02:47:28.640194  4172 layer_factory.hpp:77] Creating layer lstm2_
I0924 02:47:28.640213  4172 net.cpp:91] Creating Layer lstm2_
I0924 02:47:28.640223  4172 net.cpp:399] lstm2_ -> x
I0924 02:47:28.640239  4172 net.cpp:399] lstm2_ -> cont
I0924 02:47:28.643373  4172 net.cpp:141] Setting up lstm2_
I0924 02:47:28.643395  4172 net.cpp:148] Top shape: 1 1 1501 (1501)
I0924 02:47:28.643406  4172 net.cpp:148] Top shape: 1 1 (1)
I0924 02:47:28.643412  4172 net.cpp:156] Memory required for data: 6008
I0924 02:47:28.643422  4172 layer_factory.hpp:77] Creating layer lstm2_
I0924 02:47:28.643440  4172 net.cpp:91] Creating Layer lstm2_
I0924 02:47:28.643450  4172 net.cpp:399] lstm2_ -> c_0
I0924 02:47:28.643488  4172 net.cpp:399] lstm2_ -> h_0
I0924 02:47:28.647195  4172 net.cpp:141] Setting up lstm2_
I0924 02:47:28.647222  4172 net.cpp:148] Top shape: 1 1 1000 (1000)
I0924 02:47:28.647231  4172 net.cpp:148] Top shape: 1 1 1000 (1000)
I0924 02:47:28.647238  4172 net.cpp:156] Memory required for data: 14008
I0924 02:47:28.647248  4172 layer_factory.hpp:77] Creating layer lstm2_cont_slice
I0924 02:47:28.647297  4172 net.cpp:91] Creating Layer lstm2_cont_slice
I0924 02:47:28.647310  4172 net.cpp:425] lstm2_cont_slice <- cont
I0924 02:47:28.647325  4172 net.cpp:399] lstm2_cont_slice -> cont_1
I0924 02:47:28.648280  4172 net.cpp:141] Setting up lstm2_cont_slice
I0924 02:47:28.648296  4172 net.cpp:148] Top shape: 1 1 (1)
I0924 02:47:28.648303  4172 net.cpp:156] Memory required for data: 14012
I0924 02:47:28.648311  4172 layer_factory.hpp:77] Creating layer cont_1_lstm2_cont_slice_0_split
I0924 02:47:28.648324  4172 net.cpp:91] Creating Layer cont_1_lstm2_cont_slice_0_split
I0924 02:47:28.648331  4172 net.cpp:425] cont_1_lstm2_cont_slice_0_split <- cont_1
I0924 02:47:28.648349  4172 net.cpp:399] cont_1_lstm2_cont_slice_0_split -> cont_1_lstm2_cont_slice_0_split_0
I0924 02:47:28.648363  4172 net.cpp:399] cont_1_lstm2_cont_slice_0_split -> cont_1_lstm2_cont_slice_0_split_1
I0924 02:47:28.651283  4172 net.cpp:141] Setting up cont_1_lstm2_cont_slice_0_split
I0924 02:47:28.651310  4172 net.cpp:148] Top shape: 1 1 (1)
I0924 02:47:28.651319  4172 net.cpp:148] Top shape: 1 1 (1)
I0924 02:47:28.651326  4172 net.cpp:156] Memory required for data: 14020
I0924 02:47:28.651336  4172 layer_factory.hpp:77] Creating layer lstm2_x_transform
I0924 02:47:28.651365  4172 net.cpp:91] Creating Layer lstm2_x_transform
I0924 02:47:28.651376  4172 net.cpp:425] lstm2_x_transform <- x
I0924 02:47:28.651386  4160 net.cpp:141] Setting up lstm1_x_transform
I0924 02:47:28.651392  4172 net.cpp:399] lstm2_x_transform -> W_xc_x
I0924 02:47:28.651412  4160 net.cpp:148] Top shape: 1 1 4000 (4000)
I0924 02:47:28.651419  4160 net.cpp:156] Memory required for data: 26016
I0924 02:47:28.651440  4160 layer_factory.hpp:77] Creating layer lstm1_W_xc_x_slice
I0924 02:47:28.651455  4160 net.cpp:91] Creating Layer lstm1_W_xc_x_slice
I0924 02:47:28.651463  4160 net.cpp:425] lstm1_W_xc_x_slice <- W_xc_x
I0924 02:47:28.651475  4160 net.cpp:399] lstm1_W_xc_x_slice -> W_xc_x_1
I0924 02:47:28.657186  4160 net.cpp:141] Setting up lstm1_W_xc_x_slice
I0924 02:47:28.657229  4160 net.cpp:148] Top shape: 1 1 4000 (4000)
I0924 02:47:28.657238  4160 net.cpp:156] Memory required for data: 42016
I0924 02:47:28.657248  4160 layer_factory.hpp:77] Creating layer lstm1_h_conted_0
I0924 02:47:28.657269  4160 net.cpp:91] Creating Layer lstm1_h_conted_0
I0924 02:47:28.657279  4160 net.cpp:425] lstm1_h_conted_0 <- h_0
I0924 02:47:28.657290  4160 net.cpp:425] lstm1_h_conted_0 <- cont_1_lstm1_cont_slice_0_split_0
I0924 02:47:28.657305  4160 net.cpp:399] lstm1_h_conted_0 -> h_conted_0
I0924 02:47:28.657457  4160 net.cpp:141] Setting up lstm1_h_conted_0
I0924 02:47:28.657471  4160 net.cpp:148] Top shape: 1 1 1000 (1000)
I0924 02:47:28.657477  4160 net.cpp:156] Memory required for data: 46016
I0924 02:47:28.657485  4160 layer_factory.hpp:77] Creating layer lstm1_transform_1
I0924 02:47:28.657502  4160 net.cpp:91] Creating Layer lstm1_transform_1
I0924 02:47:28.657510  4160 net.cpp:425] lstm1_transform_1 <- h_conted_0
I0924 02:47:28.657526  4160 net.cpp:399] lstm1_transform_1 -> W_hc_h_0
I0924 02:47:28.669488  4154 net.cpp:141] Setting up embedding
I0924 02:47:28.669544  4154 net.cpp:148] Top shape: 1 1 500 (500)
I0924 02:47:28.669554  4154 net.cpp:156] Memory required for data: 22408
I0924 02:47:28.669579  4154 layer_factory.hpp:77] Creating layer lstm1
I0924 02:47:28.669606  4154 net.cpp:91] Creating Layer lstm1
I0924 02:47:28.669617  4154 net.cpp:425] lstm1 <- embedded_input_frames
I0924 02:47:28.669631  4154 net.cpp:425] lstm1 <- cont_sentence_input_1_split_0
I0924 02:47:28.669649  4154 net.cpp:399] lstm1 -> lstm1
I0924 02:47:28.669673  4154 recurrent_layer.cpp:20] Initializing recurrent layer: assuming input batch contains 1 timesteps of 1 independent streams.
I0924 02:47:28.670084  4154 net.cpp:49] Initializing net from parameters: 
layer {
  name: "lstm1_"
  type: "Input"
  top: "x"
  top: "cont"
  input_param {
    shape {
      dim: 1
      dim: 1
      dim: 500
    }
    shape {
      dim: 1
      dim: 1
    }
  }
}
layer {
  name: "lstm1_"
  type: "Input"
  top: "c_0"
  top: "h_0"
  input_param {
    shape {
      dim: 1
      dim: 1
      dim: 1000
    }
    shape {
      dim: 1
      dim: 1
      dim: 1000
    }
  }
}
layer {
  name: "lstm1_cont_slice"
  type: "Slice"
  bottom: "cont"
  top: "cont_1"
  slice_param {
    axis: 0
  }
}
layer {
  name: "lstm1_x_transform"
  type: "InnerProduct"
  bottom: "x"
  top: "W_xc_x"
  param {
    name: "W_xc"
  }
  param {
    name: "b_c"
  }
  propagate_down: true
  inner_product_param {
    num_output: 4000
    bias_term: true
    weight_filler {
      type: "uniform"
      min: -0.08
      max: 0.08
    }
    bias_filler {
      type: "constant"
      value: 0
    }
    axis: 2
  }
}
layer {
  name: "lstm1_W_xc_x_slice"
  type: "Slice"
  bottom: "W_xc_x"
  top: "W_xc_x_1"
  slice_param {
    axis: 0
  }
}
layer {
  name: "lstm1_h_conted_0"
  type: "Scale"
  bottom: "h_0"
  bottom: "cont_1"
  top: "h_conted_0"
  scale_param {
    axis: 0
  }
}
layer {
  name: "lstm1_transform_1"
  type: "InnerProduct"
  bottom: "h_conted_0"
  top: "W_hc_h_0"
  param {
    name: "W_hc"
  }
  inner_product_param {
    num_output: 4000
    bias_term: false
    weight_filler {
      type: "uniform"
      min: -0.08
      max: 0.08
    }
    axis: 2
  }
}
layer {
  name: "lstm1_gate_input_1"
  type: "Eltwise"
  bottom: "W_hc_h_0"
  bottom: "W_xc_x_1"
  top: "gate_input_1"
  eltwise_param {
    operation: SUM
  }
}
layer {
  name: "lstm1_unit_1"
  type: "LSTMUnit"
  bottom: "c_0"
  bottom: "gate_input_1"
  bottom: "cont_1"
  top: "c_1"
  top: "h_1"
}
layer {
  name: "lstm1_"
  type: "Split"
  bottom: "c_1"
  top: "c_T"
}
layer {
  name: "lstm1_h_concat"
  type: "Concat"
  bottom: "h_1"
  top: "h"
  concat_param {
    axis: 0
  }
}
layer {
  name: "h_pseudoloss"
  type: "Reduction"
  bottom: "h"
  top: "h_pseudoloss"
  loss_weight: 1
}
I0924 02:47:28.670235  4154 layer_factory.hpp:77] Creating layer lstm1_
I0924 02:47:28.670258  4154 net.cpp:91] Creating Layer lstm1_
I0924 02:47:28.670272  4154 net.cpp:399] lstm1_ -> x
I0924 02:47:28.670295  4154 net.cpp:399] lstm1_ -> cont
I0924 02:47:28.680688  4150 net.cpp:141] Setting up lstm1_transform_1
I0924 02:47:28.680726  4154 net.cpp:141] Setting up lstm1_
I0924 02:47:28.680743  4150 net.cpp:148] Top shape: 1 1 4000 (4000)
I0924 02:47:28.680749  4154 net.cpp:148] Top shape: 1 1 500 (500)
I0924 02:47:28.680754  4150 net.cpp:156] Memory required for data: 62016
I0924 02:47:28.680763  4154 net.cpp:148] Top shape: 1 1 (1)
I0924 02:47:28.680773  4154 net.cpp:156] Memory required for data: 2004
I0924 02:47:28.680784  4150 layer_factory.hpp:77] Creating layer lstm1_gate_input_1
I0924 02:47:28.680784  4154 layer_factory.hpp:77] Creating layer lstm1_
I0924 02:47:28.680824  4150 net.cpp:91] Creating Layer lstm1_gate_input_1
I0924 02:47:28.680829  4154 net.cpp:91] Creating Layer lstm1_
I0924 02:47:28.680837  4150 net.cpp:425] lstm1_gate_input_1 <- W_hc_h_0
I0924 02:47:28.680850  4150 net.cpp:425] lstm1_gate_input_1 <- W_xc_x_1
I0924 02:47:28.680860  4154 net.cpp:399] lstm1_ -> c_0
I0924 02:47:28.680869  4150 net.cpp:399] lstm1_gate_input_1 -> gate_input_1
I0924 02:47:28.680889  4154 net.cpp:399] lstm1_ -> h_0
I0924 02:47:28.681483  4150 net.cpp:141] Setting up lstm1_gate_input_1
I0924 02:47:28.681507  4150 net.cpp:148] Top shape: 1 1 4000 (4000)
I0924 02:47:28.681516  4150 net.cpp:156] Memory required for data: 78016
I0924 02:47:28.681526  4150 layer_factory.hpp:77] Creating layer lstm1_unit_1
I0924 02:47:28.681542  4150 net.cpp:91] Creating Layer lstm1_unit_1
I0924 02:47:28.681551  4150 net.cpp:425] lstm1_unit_1 <- c_0
I0924 02:47:28.681562  4150 net.cpp:425] lstm1_unit_1 <- gate_input_1
I0924 02:47:28.681572  4150 net.cpp:425] lstm1_unit_1 <- cont_1_lstm1_cont_slice_0_split_1
I0924 02:47:28.681586  4150 net.cpp:399] lstm1_unit_1 -> c_1
I0924 02:47:28.681591  4154 net.cpp:141] Setting up lstm1_
I0924 02:47:28.681602  4150 net.cpp:399] lstm1_unit_1 -> h_1
I0924 02:47:28.681610  4154 net.cpp:148] Top shape: 1 1 1000 (1000)
I0924 02:47:28.681623  4154 net.cpp:148] Top shape: 1 1 1000 (1000)
I0924 02:47:28.681633  4154 net.cpp:156] Memory required for data: 10004
I0924 02:47:28.681643  4154 layer_factory.hpp:77] Creating layer lstm1_cont_slice
I0924 02:47:28.681660  4154 net.cpp:91] Creating Layer lstm1_cont_slice
I0924 02:47:28.681671  4154 net.cpp:425] lstm1_cont_slice <- cont
I0924 02:47:28.681690  4154 net.cpp:399] lstm1_cont_slice -> cont_1
I0924 02:47:28.681776  4150 net.cpp:141] Setting up lstm1_unit_1
I0924 02:47:28.681792  4150 net.cpp:148] Top shape: 1 1 1000 (1000)
I0924 02:47:28.681804  4150 net.cpp:148] Top shape: 1 1 1000 (1000)
I0924 02:47:28.681813  4150 net.cpp:156] Memory required for data: 86016
I0924 02:47:28.681823  4150 layer_factory.hpp:77] Creating layer lstm1_
I0924 02:47:28.681826  4154 net.cpp:141] Setting up lstm1_cont_slice
I0924 02:47:28.681836  4150 net.cpp:91] Creating Layer lstm1_
I0924 02:47:28.681846  4150 net.cpp:425] lstm1_ <- c_1
I0924 02:47:28.681845  4154 net.cpp:148] Top shape: 1 1 (1)
I0924 02:47:28.681857  4154 net.cpp:156] Memory required for data: 10008
I0924 02:47:28.681859  4150 net.cpp:399] lstm1_ -> c_T
I0924 02:47:28.681869  4154 layer_factory.hpp:77] Creating layer cont_1_lstm1_cont_slice_0_split
I0924 02:47:28.681905  4154 net.cpp:91] Creating Layer cont_1_lstm1_cont_slice_0_split
I0924 02:47:28.681920  4154 net.cpp:425] cont_1_lstm1_cont_slice_0_split <- cont_1
I0924 02:47:28.681936  4154 net.cpp:399] cont_1_lstm1_cont_slice_0_split -> cont_1_lstm1_cont_slice_0_split_0
I0924 02:47:28.681977  4154 net.cpp:399] cont_1_lstm1_cont_slice_0_split -> cont_1_lstm1_cont_slice_0_split_1
I0924 02:47:28.696055  4150 net.cpp:141] Setting up lstm1_
I0924 02:47:28.696110  4150 net.cpp:148] Top shape: 1 1 1000 (1000)
I0924 02:47:28.696120  4150 net.cpp:156] Memory required for data: 90016
I0924 02:47:28.696130  4150 layer_factory.hpp:77] Creating layer lstm1_h_concat
I0924 02:47:28.696137  4154 net.cpp:141] Setting up cont_1_lstm1_cont_slice_0_split
I0924 02:47:28.696156  4154 net.cpp:148] Top shape: 1 1 (1)
I0924 02:47:28.696158  4150 net.cpp:91] Creating Layer lstm1_h_concat
I0924 02:47:28.696167  4154 net.cpp:148] Top shape: 1 1 (1)
I0924 02:47:28.696168  4150 net.cpp:425] lstm1_h_concat <- h_1
I0924 02:47:28.696174  4154 net.cpp:156] Memory required for data: 10016
I0924 02:47:28.696183  4154 layer_factory.hpp:77] Creating layer lstm1_x_transform
I0924 02:47:28.696184  4150 net.cpp:399] lstm1_h_concat -> h
I0924 02:47:28.696219  4154 net.cpp:91] Creating Layer lstm1_x_transform
I0924 02:47:28.696228  4154 net.cpp:425] lstm1_x_transform <- x
I0924 02:47:28.696241  4154 net.cpp:399] lstm1_x_transform -> W_xc_x
I0924 02:47:28.696264  4150 net.cpp:141] Setting up lstm1_h_concat
I0924 02:47:28.696276  4150 net.cpp:148] Top shape: 1 1 1000 (1000)
I0924 02:47:28.696282  4150 net.cpp:156] Memory required for data: 94016
I0924 02:47:28.696290  4150 layer_factory.hpp:77] Creating layer h_pseudoloss
I0924 02:47:28.696302  4150 net.cpp:91] Creating Layer h_pseudoloss
I0924 02:47:28.696310  4150 net.cpp:425] h_pseudoloss <- h
I0924 02:47:28.696322  4150 net.cpp:399] h_pseudoloss -> h_pseudoloss
I0924 02:47:28.701278  4150 net.cpp:141] Setting up h_pseudoloss
…
I0924 02:47:28.701436  4150 net.cpp:219] lstm1_ does not need backward computation.
I0924 02:47:28.701442  4150 net.cpp:261] This network produces output c_T
I0924 02:47:28.701448  4150 net.cpp:261] This network produces output h_pseudoloss
I0924 02:47:28.701473  4150 net.cpp:274] Network initialization done.
I0924 02:47:28.701534  4150 recurrent_layer.cpp:150] Adding parameter 0: W_xc
I0924 02:47:28.701542  4150 recurrent_layer.cpp:150] Adding parameter 1: b_c
I0924 02:47:28.701550  4150 recurrent_layer.cpp:150] Adding parameter 2: W_hc
I0924 02:47:28.701674  4150 net.cpp:141] Setting up lstm1
I0924 02:47:28.701689  4150 net.cpp:148] Top shape: 1 1 1000 (1000)
I0924 02:47:28.701696  4150 net.cpp:156] Memory required for data: 26408
I0924 02:47:28.701717  4150 layer_factory.hpp:77] Creating layer concat
I0924 02:47:28.701730  4150 net.cpp:91] Creating Layer concat
I0924 02:47:28.701738  4150 net.cpp:425] concat <- lstm1
I0924 02:47:28.701747  4150 net.cpp:425] concat <- embedded_input_sentence
I0924 02:47:28.701756  4150 net.cpp:425] concat <- reshaped_stage_indicator
I0924 02:47:28.701766  4150 net.cpp:399] concat -> lstm1_video_sequence
I0924 02:47:28.701810  4150 net.cpp:141] Setting up concat
I0924 02:47:28.701822  4150 net.cpp:148] Top shape: 1 1 1501 (1501)
I0924 02:47:28.701829  4150 net.cpp:156] Memory required for data: 32412
I0924 02:47:28.701836  4150 layer_factory.hpp:77] Creating layer lstm2
I0924 02:47:28.701853  4150 net.cpp:91] Creating Layer lstm2
I0924 02:47:28.701860  4150 net.cpp:425] lstm2 <- lstm1_video_sequence
I0924 02:47:28.701869  4150 net.cpp:425] lstm2 <- cont_sentence_input_1_split_1
I0924 02:47:28.701879  4150 net.cpp:399] lstm2 -> lstm2
I0924 02:47:28.701894  4150 recurrent_layer.cpp:20] Initializing recurrent layer: assuming input batch contains 1 timesteps of 1 independent streams.
I0924 02:47:28.702239  4150 net.cpp:49] Initializing net from parameters: 
layer {
  name: "lstm2_"
  type: "Input"
  top: "x"
  top: "cont"
  input_param {
    shape {
      dim: 1
      dim: 1
      dim: 1501
    }
    shape {
      dim: 1
      dim: 1
    }
  }
}
layer {
  name: "lstm2_"
  type: "Input"
  top: "c_0"
  top: "h_0"
  input_param {
    shape {
      dim: 1
      dim: 1
      dim: 1000
    }
    shape {
      dim: 1
      dim: 1
      dim: 1000
    }
  }
}
layer {
  name: "lstm2_cont_slice"
  type: "Slice"
  bottom: "cont"
  top: "cont_1"
  slice_param {
    axis: 0
  }
}
layer {
  name: "lstm2_x_transform"
  type: "InnerProduct"
  bottom: "x"
  top: "W_xc_x"
  param {
    name: "W_xc"
  }
  param {
    name: "b_c"
  }
  propagate_down: true
  inner_product_param {
    num_output: 4000
    bias_term: true
    weight_filler {
      type: "uniform"
      min: -0.08
      max: 0.08
    }
    bias_filler {
      type: "constant"
      value: 0
    }
    axis: 2
  }
}
layer {
  name: "lstm2_W_xc_x_slice"
  type: "Slice"
  bottom: "W_xc_x"
  top: "W_xc_x_1"
  slice_param {
    axis: 0
  }
}
layer {
  name: "lstm2_h_conted_0"
  type: "Scale"
  bottom: "h_0"
  bottom: "cont_1"
  top: "h_conted_0"
  scale_param {
    axis: 0
  }
}
layer {
  name: "lstm2_transform_1"
  type: "InnerProduct"
  bottom: "h_conted_0"
  top: "W_hc_h_0"
  param {
    name: "W_hc"
  }
  inner_product_param {
    num_output: 4000
    bias_term: false
    weight_filler {
      type: "uniform"
      min: -0.08
      max: 0.08
    }
    axis: 2
  }
}
layer {
  name: "lstm2_gate_input_1"
  type: "Eltwise"
  bottom: "W_hc_h_0"
  bottom: "W_xc_x_1"
  top: "gate_input_1"
  eltwise_param {
    operation: SUM
  }
}
layer {
  name: "lstm2_unit_1"
  type: "LSTMUnit"
  bottom: "c_0"
  bottom: "gate_input_1"
  bottom: "cont_1"
  top: "c_1"
  top: "h_1"
}
layer {
  name: "lstm2_"
  type: "Split"
  bottom: "c_1"
  top: "c_T"
}
layer {
  name: "lstm2_h_concat"
  type: "Concat"
  bottom: "h_1"
  top: "h"
  concat_param {
    axis: 0
  }
}
layer {
  name: "h_pseudoloss"
  type: "Reduction"
  bottom: "h"
  top: "h_pseudoloss"
  loss_weight: 1
}
I0924 02:47:28.702355  4150 layer_factory.hpp:77] Creating layer lstm2_
I0924 02:47:28.702371  4150 net.cpp:91] Creating Layer lstm2_
I0924 02:47:28.702380  4150 net.cpp:399] lstm2_ -> x
I0924 02:47:28.702395  4150 net.cpp:399] lstm2_ -> cont
I0924 02:47:28.702463  4150 net.cpp:141] Setting up lstm2_
I0924 02:47:28.702476  4150 net.cpp:148] Top shape: 1 1 1501 (1501)
I0924 02:47:28.702484  4150 net.cpp:148] Top shape: 1 1 (1)
I0924 02:47:28.702491  4150 net.cpp:156] Memory required for data: 6008
I0924 02:47:28.702498  4150 layer_factory.hpp:77] Creating layer lstm2_
I0924 02:47:28.702510  4150 net.cpp:91] Creating Layer lstm2_
I0924 02:47:28.702519  4150 net.cpp:399] lstm2_ -> c_0
I0924 02:47:28.702533  4150 net.cpp:399] lstm2_ -> h_0
I0924 02:47:28.702610  4150 net.cpp:141] Setting up lstm2_
I0924 02:47:28.702623  4150 net.cpp:148] Top shape: 1 1 1000 (1000)
I0924 02:47:28.702632  4150 net.cpp:148] Top shape: 1 1 1000 (1000)
I0924 02:47:28.702639  4150 net.cpp:156] Memory required for data: 14008
I0924 02:47:28.702646  4150 layer_factory.hpp:77] Creating layer lstm2_cont_slice
I0924 02:47:28.702658  4150 net.cpp:91] Creating Layer lstm2_cont_slice
I0924 02:47:28.702666  4150 net.cpp:425] lstm2_cont_slice <- cont
I0924 02:47:28.702680  4150 net.cpp:399] lstm2_cont_slice -> cont_1
I0924 02:47:28.702724  4150 net.cpp:141] Setting up lstm2_cont_slice
I0924 02:47:28.702736  4150 net.cpp:148] Top shape: 1 1 (1)
I0924 02:47:28.702744  4150 net.cpp:156] Memory required for data: 14012
I0924 02:47:28.702749  4150 layer_factory.hpp:77] Creating layer cont_1_lstm2_cont_slice_0_split
I0924 02:47:28.702760  4150 net.cpp:91] Creating Layer cont_1_lstm2_cont_slice_0_split
I0924 02:47:28.702769  4150 net.cpp:425] cont_1_lstm2_cont_slice_0_split <- cont_1
I0924 02:47:28.702778  4150 net.cpp:399] cont_1_lstm2_cont_slice_0_split -> cont_1_lstm2_cont_slice_0_split_0
I0924 02:47:28.702795  4150 net.cpp:399] cont_1_lstm2_cont_slice_0_split -> cont_1_lstm2_cont_slice_0_split_1
I0924 02:47:28.702867  4150 net.cpp:141] Setting up cont_1_lstm2_cont_slice_0_split
I0924 02:47:28.702878  4150 net.cpp:148] Top shape: 1 1 (1)
I0924 02:47:28.702884  4150 net.cpp:148] Top shape: 1 1 (1)
I0924 02:47:28.702888  4150 net.cpp:156] Memory required for data: 14020
I0924 02:47:28.702893  4150 layer_factory.hpp:77] Creating layer lstm2_x_transform
I0924 02:47:28.702906  4150 net.cpp:91] Creating Layer lstm2_x_transform
I0924 02:47:28.702911  4150 net.cpp:425] lstm2_x_transform <- x
I0924 02:47:28.702919  4150 net.cpp:399] lstm2_x_transform -> W_xc_x
I0924 02:47:28.714098  4160 net.cpp:141] Setting up lstm1_transform_1
I0924 02:47:28.714149  4160 net.cpp:148] Top shape: 1 1 4000 (4000)
I0924 02:47:28.714157  4160 net.cpp:156] Memory required for data: 62016
I0924 02:47:28.714185  4160 layer_factory.hpp:77] Creating layer lstm1_gate_input_1
I0924 02:47:28.714211  4160 net.cpp:91] Creating Layer lstm1_gate_input_1
I0924 02:47:28.714222  4160 net.cpp:425] lstm1_gate_input_1 <- W_hc_h_0
I0924 02:47:28.714234  4160 net.cpp:425] lstm1_gate_input_1 <- W_xc_x_1
I0924 02:47:28.714252  4160 net.cpp:399] lstm1_gate_input_1 -> gate_input_1
I0924 02:47:28.723901  4160 net.cpp:141] Setting up lstm1_gate_input_1
I0924 02:47:28.723949  4160 net.cpp:148] Top shape: 1 1 4000 (4000)
I0924 02:47:28.723958  4160 net.cpp:156] Memory required for data: 78016
I0924 02:47:28.723969  4160 layer_factory.hpp:77] Creating layer lstm1_unit_1
I0924 02:47:28.723989  4160 net.cpp:91] Creating Layer lstm1_unit_1
I0924 02:47:28.723999  4160 net.cpp:425] lstm1_unit_1 <- c_0
I0924 02:47:28.724012  4160 net.cpp:425] lstm1_unit_1 <- gate_input_1
I0924 02:47:28.724023  4160 net.cpp:425] lstm1_unit_1 <- cont_1_lstm1_cont_slice_0_split_1
I0924 02:47:28.724041  4160 net.cpp:399] lstm1_unit_1 -> c_1
I0924 02:47:28.724048  4154 net.cpp:141] Setting up lstm1_x_transform
I0924 02:47:28.724059  4160 net.cpp:399] lstm1_unit_1 -> h_1
I0924 02:47:28.724067  4154 net.cpp:148] Top shape: 1 1 4000 (4000)
I0924 02:47:28.724072  4154 net.cpp:156] Memory required for data: 26016
I0924 02:47:28.724092  4154 layer_factory.hpp:77] Creating layer lstm1_W_xc_x_slice
I0924 02:47:28.724103  4154 net.cpp:91] Creating Layer lstm1_W_xc_x_slice
I0924 02:47:28.724110  4154 net.cpp:425] lstm1_W_xc_x_slice <- W_xc_x
I0924 02:47:28.724118  4154 net.cpp:399] lstm1_W_xc_x_slice -> W_xc_x_1
I0924 02:47:28.724184  4160 net.cpp:141] Setting up lstm1_unit_1
I0924 02:47:28.724200  4160 net.cpp:148] Top shape: 1 1 1000 (1000)
I0924 02:47:28.724210  4160 net.cpp:148] Top shape: 1 1 1000 (1000)
I0924 02:47:28.724217  4160 net.cpp:156] Memory required for data: 86016
I0924 02:47:28.724221  4154 net.cpp:141] Setting up lstm1_W_xc_x_slice
I0924 02:47:28.724225  4160 layer_factory.hpp:77] Creating layer lstm1_
I0924 02:47:28.724233  4154 net.cpp:148] Top shape: 1 1 4000 (4000)
I0924 02:47:28.724238  4154 net.cpp:156] Memory required for data: 42016
I0924 02:47:28.724238  4160 net.cpp:91] Creating Layer lstm1_
I0924 02:47:28.724243  4154 layer_factory.hpp:77] Creating layer lstm1_h_conted_0
I0924 02:47:28.724246  4160 net.cpp:425] lstm1_ <- c_1
I0924 02:47:28.724254  4154 net.cpp:91] Creating Layer lstm1_h_conted_0
I0924 02:47:28.724259  4154 net.cpp:425] lstm1_h_conted_0 <- h_0
I0924 02:47:28.724258  4160 net.cpp:399] lstm1_ -> c_T
I0924 02:47:28.724267  4154 net.cpp:425] lstm1_h_conted_0 <- cont_1_lstm1_cont_slice_0_split_0
I0924 02:47:28.724275  4154 net.cpp:399] lstm1_h_conted_0 -> h_conted_0
I0924 02:47:28.724319  4160 net.cpp:141] Setting up lstm1_
I0924 02:47:28.724335  4160 net.cpp:148] Top shape: 1 1 1000 (1000)
I0924 02:47:28.724342  4160 net.cpp:156] Memory required for data: 90016
I0924 02:47:28.724350  4160 layer_factory.hpp:77] Creating layer lstm1_h_concat
I0924 02:47:28.724364  4160 net.cpp:91] Creating Layer lstm1_h_concat
I0924 02:47:28.724372  4160 net.cpp:425] lstm1_h_concat <- h_1
I0924 02:47:28.724385  4160 net.cpp:399] lstm1_h_concat -> h
I0924 02:47:28.724413  4154 net.cpp:141] Setting up lstm1_h_conted_0
I0924 02:47:28.724424  4154 net.cpp:148] Top shape: 1 1 1000 (1000)
I0924 02:47:28.724429  4154 net.cpp:156] Memory required for data: 46016
I0924 02:47:28.724433  4154 layer_factory.hpp:77] Creating layer lstm1_transform_1
I0924 02:47:28.724442  4160 net.cpp:141] Setting up lstm1_h_concat
I0924 02:47:28.724447  4154 net.cpp:91] Creating Layer lstm1_transform_1
I0924 02:47:28.724460  4154 net.cpp:425] lstm1_transform_1 <- h_conted_0
I0924 02:47:28.724460  4160 net.cpp:148] Top shape: 1 1 1000 (1000)
I0924 02:47:28.724476  4154 net.cpp:399] lstm1_transform_1 -> W_hc_h_0
I0924 02:47:28.724479  4160 net.cpp:156] Memory required for data: 94016
I0924 02:47:28.724488  4160 layer_factory.hpp:77] Creating layer h_pseudoloss
I0924 02:47:28.724508  4160 net.cpp:91] Creating Layer h_pseudoloss
I0924 02:47:28.724516  4160 net.cpp:425] h_pseudoloss <- h
I0924 02:47:28.724527  4160 net.cpp:399] h_pseudoloss -> h_pseudoloss
…
I0924 02:47:28.732113  4160 net.cpp:219] lstm1_ does not need backward computation.
I0924 02:47:28.732120  4160 net.cpp:261] This network produces output c_T
I0924 02:47:28.732131  4160 net.cpp:261] This network produces output h_pseudoloss
I0924 02:47:28.732164  4160 net.cpp:274] Network initialization done.
I0924 02:47:28.732251  4160 recurrent_layer.cpp:150] Adding parameter 0: W_xc
I0924 02:47:28.732265  4160 recurrent_layer.cpp:150] Adding parameter 1: b_c
I0924 02:47:28.732273  4160 recurrent_layer.cpp:150] Adding parameter 2: W_hc
I0924 02:47:28.732456  4160 net.cpp:141] Setting up lstm1
I0924 02:47:28.732475  4160 net.cpp:148] Top shape: 1 1 1000 (1000)
I0924 02:47:28.732486  4160 net.cpp:156] Memory required for data: 26408
I0924 02:47:28.732513  4160 layer_factory.hpp:77] Creating layer concat
I0924 02:47:28.732538  4160 net.cpp:91] Creating Layer concat
I0924 02:47:28.732553  4160 net.cpp:425] concat <- lstm1
I0924 02:47:28.732566  4160 net.cpp:425] concat <- embedded_input_sentence
I0924 02:47:28.732578  4160 net.cpp:425] concat <- reshaped_stage_indicator
I0924 02:47:28.732594  4160 net.cpp:399] concat -> lstm1_video_sequence
I0924 02:47:28.733491  4160 net.cpp:141] Setting up concat
I0924 02:47:28.733518  4160 net.cpp:148] Top shape: 1 1 1501 (1501)
I0924 02:47:28.733528  4160 net.cpp:156] Memory required for data: 32412
I0924 02:47:28.733538  4160 layer_factory.hpp:77] Creating layer lstm2
I0924 02:47:28.733563  4160 net.cpp:91] Creating Layer lstm2
I0924 02:47:28.733577  4160 net.cpp:425] lstm2 <- lstm1_video_sequence
I0924 02:47:28.733590  4160 net.cpp:425] lstm2 <- cont_sentence_input_1_split_1
I0924 02:47:28.733608  4160 net.cpp:399] lstm2 -> lstm2
I0924 02:47:28.733629  4160 recurrent_layer.cpp:20] Initializing recurrent layer: assuming input batch contains 1 timesteps of 1 independent streams.
I0924 02:47:28.734107  4160 net.cpp:49] Initializing net from parameters: 
layer {
  name: "lstm2_"
  type: "Input"
  top: "x"
  top: "cont"
  input_param {
    shape {
      dim: 1
      dim: 1
      dim: 1501
    }
    shape {
      dim: 1
      dim: 1
    }
  }
}
layer {
  name: "lstm2_"
  type: "Input"
  top: "c_0"
  top: "h_0"
  input_param {
    shape {
      dim: 1
      dim: 1
      dim: 1000
    }
    shape {
      dim: 1
      dim: 1
      dim: 1000
    }
  }
}
layer {
  name: "lstm2_cont_slice"
  type: "Slice"
  bottom: "cont"
  top: "cont_1"
  slice_param {
    axis: 0
  }
}
layer {
  name: "lstm2_x_transform"
  type: "InnerProduct"
  bottom: "x"
  top: "W_xc_x"
  param {
    name: "W_xc"
  }
  param {
    name: "b_c"
  }
  propagate_down: true
  inner_product_param {
    num_output: 4000
    bias_term: true
    weight_filler {
      type: "uniform"
      min: -0.08
      max: 0.08
    }
    bias_filler {
      type: "constant"
      value: 0
    }
    axis: 2
  }
}
layer {
  name: "lstm2_W_xc_x_slice"
  type: "Slice"
  bottom: "W_xc_x"
  top: "W_xc_x_1"
  slice_param {
    axis: 0
  }
}
layer {
  name: "lstm2_h_conted_0"
  type: "Scale"
  bottom: "h_0"
  bottom: "cont_1"
  top: "h_conted_0"
  scale_param {
    axis: 0
  }
}
layer {
  name: "lstm2_transform_1"
  type: "InnerProduct"
  bottom: "h_conted_0"
  top: "W_hc_h_0"
  param {
    name: "W_hc"
  }
  inner_product_param {
    num_output: 4000
    bias_term: false
    weight_filler {
      type: "uniform"
      min: -0.08
      max: 0.08
    }
    axis: 2
  }
}
layer {
  name: "lstm2_gate_input_1"
  type: "Eltwise"
  bottom: "W_hc_h_0"
  bottom: "W_xc_x_1"
  top: "gate_input_1"
  eltwise_param {
    operation: SUM
  }
}
layer {
  name: "lstm2_unit_1"
  type: "LSTMUnit"
  bottom: "c_0"
  bottom: "gate_input_1"
  bottom: "cont_1"
  top: "c_1"
  top: "h_1"
}
layer {
  name: "lstm2_"
  type: "Split"
  bottom: "c_1"
  top: "c_T"
}
layer {
  name: "lstm2_h_concat"
  type: "Concat"
  bottom: "h_1"
  top: "h"
  concat_param {
    axis: 0
  }
}
layer {
  name: "h_pseudoloss"
  type: "Reduction"
  bottom: "h"
  top: "h_pseudoloss"
  loss_weight: 1
}
I0924 02:47:28.734266  4160 layer_factory.hpp:77] Creating layer lstm2_
I0924 02:47:28.734289  4160 net.cpp:91] Creating Layer lstm2_
I0924 02:47:28.734303  4160 net.cpp:399] lstm2_ -> x
I0924 02:47:28.734325  4160 net.cpp:399] lstm2_ -> cont
I0924 02:47:28.746513  4160 net.cpp:141] Setting up lstm2_
I0924 02:47:28.746562  4160 net.cpp:148] Top shape: 1 1 1501 (1501)
I0924 02:47:28.746574  4160 net.cpp:148] Top shape: 1 1 (1)
I0924 02:47:28.746583  4160 net.cpp:156] Memory required for data: 6008
I0924 02:47:28.746613  4160 layer_factory.hpp:77] Creating layer lstm2_
I0924 02:47:28.746644  4160 net.cpp:91] Creating Layer lstm2_
I0924 02:47:28.746671  4160 net.cpp:399] lstm2_ -> c_0
I0924 02:47:28.746700  4160 net.cpp:399] lstm2_ -> h_0
I0924 02:47:28.746795  4160 net.cpp:141] Setting up lstm2_
I0924 02:47:28.746812  4160 net.cpp:148] Top shape: 1 1 1000 (1000)
I0924 02:47:28.746824  4160 net.cpp:148] Top shape: 1 1 1000 (1000)
I0924 02:47:28.746830  4160 net.cpp:156] Memory required for data: 14008
I0924 02:47:28.746839  4160 layer_factory.hpp:77] Creating layer lstm2_cont_slice
I0924 02:47:28.746862  4160 net.cpp:91] Creating Layer lstm2_cont_slice
I0924 02:47:28.746873  4160 net.cpp:425] lstm2_cont_slice <- cont
I0924 02:47:28.746888  4160 net.cpp:399] lstm2_cont_slice -> cont_1
I0924 02:47:28.746954  4160 net.cpp:141] Setting up lstm2_cont_slice
I0924 02:47:28.746970  4160 net.cpp:148] Top shape: 1 1 (1)
I0924 02:47:28.746979  4160 net.cpp:156] Memory required for data: 14012
I0924 02:47:28.746989  4160 layer_factory.hpp:77] Creating layer cont_1_lstm2_cont_slice_0_split
I0924 02:47:28.747001  4160 net.cpp:91] Creating Layer cont_1_lstm2_cont_slice_0_split
I0924 02:47:28.747010  4160 net.cpp:425] cont_1_lstm2_cont_slice_0_split <- cont_1
I0924 02:47:28.747030  4160 net.cpp:399] cont_1_lstm2_cont_slice_0_split -> cont_1_lstm2_cont_slice_0_split_0
I0924 02:47:28.747050  4160 net.cpp:399] cont_1_lstm2_cont_slice_0_split -> cont_1_lstm2_cont_slice_0_split_1
I0924 02:47:28.747198  4160 net.cpp:141] Setting up cont_1_lstm2_cont_slice_0_split
I0924 02:47:28.747217  4160 net.cpp:148] Top shape: 1 1 (1)
I0924 02:47:28.747229  4160 net.cpp:148] Top shape: 1 1 (1)
I0924 02:47:28.747237  4160 net.cpp:156] Memory required for data: 14020
I0924 02:47:28.747247  4160 layer_factory.hpp:77] Creating layer lstm2_x_transform
I0924 02:47:28.747277  4160 net.cpp:91] Creating Layer lstm2_x_transform
I0924 02:47:28.747289  4160 net.cpp:425] lstm2_x_transform <- x
I0924 02:47:28.747306  4160 net.cpp:399] lstm2_x_transform -> W_xc_x
I0924 02:47:28.758285  4178 net.cpp:141] Setting up embedding
I0924 02:47:28.758344  4178 net.cpp:148] Top shape: 1 1 500 (500)
I0924 02:47:28.758354  4178 net.cpp:156] Memory required for data: 22408
I0924 02:47:28.758450  4178 layer_factory.hpp:77] Creating layer lstm1
I0924 02:47:28.758481  4178 net.cpp:91] Creating Layer lstm1
I0924 02:47:28.758493  4178 net.cpp:425] lstm1 <- embedded_input_frames
I0924 02:47:28.758507  4178 net.cpp:425] lstm1 <- cont_sentence_input_1_split_0
I0924 02:47:28.758522  4178 net.cpp:399] lstm1 -> lstm1
I0924 02:47:28.758549  4178 recurrent_layer.cpp:20] Initializing recurrent layer: assuming input batch contains 1 timesteps of 1 independent streams.
I0924 02:47:28.758992  4178 net.cpp:49] Initializing net from parameters: 
layer {
  name: "lstm1_"
  type: "Input"
  top: "x"
  top: "cont"
  input_param {
    shape {
      dim: 1
      dim: 1
      dim: 500
    }
    shape {
      dim: 1
      dim: 1
    }
  }
}
layer {
  name: "lstm1_"
  type: "Input"
  top: "c_0"
  top: "h_0"
  input_param {
    shape {
      dim: 1
      dim: 1
      dim: 1000
    }
    shape {
      dim: 1
      dim: 1
      dim: 1000
    }
  }
}
layer {
  name: "lstm1_cont_slice"
  type: "Slice"
  bottom: "cont"
  top: "cont_1"
  slice_param {
    axis: 0
  }
}
layer {
  name: "lstm1_x_transform"
  type: "InnerProduct"
  bottom: "x"
  top: "W_xc_x"
  param {
    name: "W_xc"
  }
  param {
    name: "b_c"
  }
  propagate_down: true
  inner_product_param {
    num_output: 4000
    bias_term: true
    weight_filler {
      type: "uniform"
      min: -0.08
      max: 0.08
    }
    bias_filler {
      type: "constant"
      value: 0
    }
    axis: 2
  }
}
layer {
  name: "lstm1_W_xc_x_slice"
  type: "Slice"
  bottom: "W_xc_x"
  top: "W_xc_x_1"
  slice_param {
    axis: 0
  }
}
layer {
  name: "lstm1_h_conted_0"
  type: "Scale"
  bottom: "h_0"
  bottom: "cont_1"
  top: "h_conted_0"
  scale_param {
    axis: 0
  }
}
layer {
  name: "lstm1_transform_1"
  type: "InnerProduct"
  bottom: "h_conted_0"
  top: "W_hc_h_0"
  param {
    name: "W_hc"
  }
  inner_product_param {
    num_output: 4000
    bias_term: false
    weight_filler {
      type: "uniform"
      min: -0.08
      max: 0.08
    }
    axis: 2
  }
}
layer {
  name: "lstm1_gate_input_1"
  type: "Eltwise"
  bottom: "W_hc_h_0"
  bottom: "W_xc_x_1"
  top: "gate_input_1"
  eltwise_param {
    operation: SUM
  }
}
layer {
  name: "lstm1_unit_1"
  type: "LSTMUnit"
  bottom: "c_0"
  bottom: "gate_input_1"
  bottom: "cont_1"
  top: "c_1"
  top: "h_1"
}
layer {
  name: "lstm1_"
  type: "Split"
  bottom: "c_1"
  top: "c_T"
}
layer {
  name: "lstm1_h_concat"
  type: "Concat"
  bottom: "h_1"
  top: "h"
  concat_param {
    axis: 0
  }
}
layer {
  name: "h_pseudoloss"
  type: "Reduction"
  bottom: "h"
  top: "h_pseudoloss"
  loss_weight: 1
}
I0924 02:47:28.759124  4178 layer_factory.hpp:77] Creating layer lstm1_
I0924 02:47:28.759142  4178 net.cpp:91] Creating Layer lstm1_
I0924 02:47:28.759153  4178 net.cpp:399] lstm1_ -> x
I0924 02:47:28.759171  4178 net.cpp:399] lstm1_ -> cont
I0924 02:47:28.770179  4172 net.cpp:141] Setting up lstm2_x_transform
I0924 02:47:28.770226  4172 net.cpp:148] Top shape: 1 1 4000 (4000)
I0924 02:47:28.770231  4172 net.cpp:156] Memory required for data: 30020
I0924 02:47:28.770254  4172 layer_factory.hpp:77] Creating layer lstm2_W_xc_x_slice
I0924 02:47:28.770272  4154 net.cpp:141] Setting up lstm1_transform_1
I0924 02:47:28.770289  4172 net.cpp:91] Creating Layer lstm2_W_xc_x_slice
I0924 02:47:28.770298  4172 net.cpp:425] lstm2_W_xc_x_slice <- W_xc_x
I0924 02:47:28.770303  4154 net.cpp:148] Top shape: 1 1 4000 (4000)
I0924 02:47:28.770308  4172 net.cpp:399] lstm2_W_xc_x_slice -> W_xc_x_1
I0924 02:47:28.770313  4154 net.cpp:156] Memory required for data: 62016
I0924 02:47:28.770310  4178 net.cpp:141] Setting up lstm1_
I0924 02:47:28.770345  4154 layer_factory.hpp:77] Creating layer lstm1_gate_input_1
I0924 02:47:28.770367  4154 net.cpp:91] Creating Layer lstm1_gate_input_1
I0924 02:47:28.770378  4154 net.cpp:425] lstm1_gate_input_1 <- W_hc_h_0
I0924 02:47:28.770387  4172 net.cpp:141] Setting up lstm2_W_xc_x_slice
I0924 02:47:28.770390  4154 net.cpp:425] lstm1_gate_input_1 <- W_xc_x_1
I0924 02:47:28.770350  4178 net.cpp:148] Top shape: 1 1 500 (500)
I0924 02:47:28.770406  4154 net.cpp:399] lstm1_gate_input_1 -> gate_input_1
I0924 02:47:28.770419  4178 net.cpp:148] Top shape: 1 1 (1)
I0924 02:47:28.770429  4178 net.cpp:156] Memory required for data: 2004
I0924 02:47:28.770408  4172 net.cpp:148] Top shape: 1 1 4000 (4000)
I0924 02:47:28.770439  4172 net.cpp:156] Memory required for data: 46020
I0924 02:47:28.770439  4178 layer_factory.hpp:77] Creating layer lstm1_
I0924 02:47:28.770457  4172 layer_factory.hpp:77] Creating layer lstm2_h_conted_0
I0924 02:47:28.770474  4172 net.cpp:91] Creating Layer lstm2_h_conted_0
I0924 02:47:28.770474  4178 net.cpp:91] Creating Layer lstm1_
I0924 02:47:28.770480  4172 net.cpp:425] lstm2_h_conted_0 <- h_0
I0924 02:47:28.770483  4154 net.cpp:141] Setting up lstm1_gate_input_1
I0924 02:47:28.770488  4172 net.cpp:425] lstm2_h_conted_0 <- cont_1_lstm2_cont_slice_0_split_0
I0924 02:47:28.770503  4154 net.cpp:148] Top shape: 1 1 4000 (4000)
I0924 02:47:28.770494  4178 net.cpp:399] lstm1_ -> c_0
I0924 02:47:28.770512  4154 net.cpp:156] Memory required for data: 78016
I0924 02:47:28.770515  4172 net.cpp:399] lstm2_h_conted_0 -> h_conted_0
I0924 02:47:28.770522  4154 layer_factory.hpp:77] Creating layer lstm1_unit_1
I0924 02:47:28.770531  4178 net.cpp:399] lstm1_ -> h_0
I0924 02:47:28.770540  4154 net.cpp:91] Creating Layer lstm1_unit_1
I0924 02:47:28.770550  4154 net.cpp:425] lstm1_unit_1 <- c_0
I0924 02:47:28.770560  4154 net.cpp:425] lstm1_unit_1 <- gate_input_1
I0924 02:47:28.770570  4154 net.cpp:425] lstm1_unit_1 <- cont_1_lstm1_cont_slice_0_split_1
I0924 02:47:28.770583  4154 net.cpp:399] lstm1_unit_1 -> c_1
I0924 02:47:28.770615  4154 net.cpp:399] lstm1_unit_1 -> h_1
I0924 02:47:28.770747  4178 net.cpp:141] Setting up lstm1_
I0924 02:47:28.770761  4178 net.cpp:148] Top shape: 1 1 1000 (1000)
I0924 02:47:28.770766  4178 net.cpp:148] Top shape: 1 1 1000 (1000)
I0924 02:47:28.770771  4178 net.cpp:156] Memory required for data: 10004
I0924 02:47:28.770776  4178 layer_factory.hpp:77] Creating layer lstm1_cont_slice
I0924 02:47:28.770800  4178 net.cpp:91] Creating Layer lstm1_cont_slice
I0924 02:47:28.770800  4172 net.cpp:141] Setting up lstm2_h_conted_0
I0924 02:47:28.770815  4178 net.cpp:425] lstm1_cont_slice <- cont
I0924 02:47:28.770823  4172 net.cpp:148] Top shape: 1 1 1000 (1000)
I0924 02:47:28.770828  4172 net.cpp:156] Memory required for data: 50020
I0924 02:47:28.770829  4178 net.cpp:399] lstm1_cont_slice -> cont_1
I0924 02:47:28.770833  4172 layer_factory.hpp:77] Creating layer lstm2_transform_1
I0924 02:47:28.770869  4172 net.cpp:91] Creating Layer lstm2_transform_1
I0924 02:47:28.770876  4172 net.cpp:425] lstm2_transform_1 <- h_conted_0
I0924 02:47:28.770887  4172 net.cpp:399] lstm2_transform_1 -> W_hc_h_0
I0924 02:47:28.770928  4154 net.cpp:141] Setting up lstm1_unit_1
I0924 02:47:28.770947  4154 net.cpp:148] Top shape: 1 1 1000 (1000)
I0924 02:47:28.770957  4178 net.cpp:141] Setting up lstm1_cont_slice
I0924 02:47:28.770967  4154 net.cpp:148] Top shape: 1 1 1000 (1000)
I0924 02:47:28.770973  4178 net.cpp:148] Top shape: 1 1 (1)
I0924 02:47:28.770979  4178 net.cpp:156] Memory required for data: 10008
I0924 02:47:28.770979  4154 net.cpp:156] Memory required for data: 86016
I0924 02:47:28.770984  4178 layer_factory.hpp:77] Creating layer cont_1_lstm1_cont_slice_0_split
I0924 02:47:28.770990  4154 layer_factory.hpp:77] Creating layer lstm1_
I0924 02:47:28.770998  4178 net.cpp:91] Creating Layer cont_1_lstm1_cont_slice_0_split
I0924 02:47:28.771003  4154 net.cpp:91] Creating Layer lstm1_
I0924 02:47:28.771005  4178 net.cpp:425] cont_1_lstm1_cont_slice_0_split <- cont_1
I0924 02:47:28.771018  4154 net.cpp:425] lstm1_ <- c_1
I0924 02:47:28.771026  4178 net.cpp:399] cont_1_lstm1_cont_slice_0_split -> cont_1_lstm1_cont_slice_0_split_0
I0924 02:47:28.771030  4154 net.cpp:399] lstm1_ -> c_T
I0924 02:47:28.771036  4178 net.cpp:399] cont_1_lstm1_cont_slice_0_split -> cont_1_lstm1_cont_slice_0_split_1
I0924 02:47:28.778270  4154 net.cpp:141] Setting up lstm1_
I0924 02:47:28.778317  4154 net.cpp:148] Top shape: 1 1 1000 (1000)
I0924 02:47:28.778326  4154 net.cpp:156] Memory required for data: 90016
I0924 02:47:28.778338  4154 layer_factory.hpp:77] Creating layer lstm1_h_concat
I0924 02:47:28.778367  4154 net.cpp:91] Creating Layer lstm1_h_concat
I0924 02:47:28.778378  4154 net.cpp:425] lstm1_h_concat <- h_1
I0924 02:47:28.778393  4154 net.cpp:399] lstm1_h_concat -> h
I0924 02:47:28.778430  4178 net.cpp:141] Setting up cont_1_lstm1_cont_slice_0_split
I0924 02:47:28.778455  4178 net.cpp:148] Top shape: 1 1 (1)
I0924 02:47:28.778465  4154 net.cpp:141] Setting up lstm1_h_concat
I0924 02:47:28.778468  4178 net.cpp:148] Top shape: 1 1 (1)
I0924 02:47:28.778496  4154 net.cpp:148] Top shape: 1 1 1000 (1000)
I0924 02:47:28.778503  4154 net.cpp:156] Memory required for data: 94016
I0924 02:47:28.778503  4178 net.cpp:156] Memory required for data: 10016
I0924 02:47:28.778517  4154 layer_factory.hpp:77] Creating layer h_pseudoloss
I0924 02:47:28.778524  4178 layer_factory.hpp:77] Creating layer lstm1_x_transform
I0924 02:47:28.778532  4154 net.cpp:91] Creating Layer h_pseudoloss
I0924 02:47:28.778540  4154 net.cpp:425] h_pseudoloss <- h
I0924 02:47:28.778554  4154 net.cpp:399] h_pseudoloss -> h_pseudoloss
I0924 02:47:28.778561  4178 net.cpp:91] Creating Layer lstm1_x_transform
I0924 02:47:28.778576  4178 net.cpp:425] lstm1_x_transform <- x
I0924 02:47:28.778592  4178 net.cpp:399] lstm1_x_transform -> W_xc_x
I0924 02:47:28.792881  4150 net.cpp:141] Setting up lstm2_x_transform
I0924 02:47:28.792930  4150 net.cpp:148] Top shape: 1 1 4000 (4000)
I0924 02:47:28.792939  4150 net.cpp:156] Memory required for data: 30020
I0924 02:47:28.792966  4150 layer_factory.hpp:77] Creating layer lstm2_W_xc_x_slice
I0924 02:47:28.792990  4150 net.cpp:91] Creating Layer lstm2_W_xc_x_slice
I0924 02:47:28.793001  4150 net.cpp:425] lstm2_W_xc_x_slice <- W_xc_x
I0924 02:47:28.793014  4150 net.cpp:399] lstm2_W_xc_x_slice -> W_xc_x_1
I0924 02:47:28.794416  4150 net.cpp:141] Setting up lstm2_W_xc_x_slice
I0924 02:47:28.794435  4150 net.cpp:148] Top shape: 1 1 4000 (4000)
I0924 02:47:28.794442  4150 net.cpp:156] Memory required for data: 46020
I0924 02:47:28.794450  4150 layer_factory.hpp:77] Creating layer lstm2_h_conted_0
I0924 02:47:28.794466  4150 net.cpp:91] Creating Layer lstm2_h_conted_0
I0924 02:47:28.794474  4150 net.cpp:425] lstm2_h_conted_0 <- h_0
I0924 02:47:28.794484  4150 net.cpp:425] lstm2_h_conted_0 <- cont_1_lstm2_cont_slice_0_split_0
…
I0924 02:47:28.794701  4154 net.cpp:219] cont_1_lstm1_cont_slice_0_split does not need backward computation.
I0924 02:47:28.794706  4154 net.cpp:219] lstm1_cont_slice does not need backward computation.
I0924 02:47:28.794713  4154 net.cpp:219] lstm1_ does not need backward computation.
I0924 02:47:28.794716  4154 net.cpp:219] lstm1_ does not need backward computation.
I0924 02:47:28.794720  4154 net.cpp:261] This network produces output c_T
I0924 02:47:28.794726  4154 net.cpp:261] This network produces output h_pseudoloss
I0924 02:47:28.794735  4150 net.cpp:141] Setting up lstm2_h_conted_0
I0924 02:47:28.794752  4150 net.cpp:148] Top shape: 1 1 1000 (1000)
I0924 02:47:28.794754  4154 net.cpp:274] Network initialization done.
I0924 02:47:28.794759  4150 net.cpp:156] Memory required for data: 50020
I0924 02:47:28.794769  4150 layer_factory.hpp:77] Creating layer lstm2_transform_1
I0924 02:47:28.794787  4150 net.cpp:91] Creating Layer lstm2_transform_1
I0924 02:47:28.794796  4150 net.cpp:425] lstm2_transform_1 <- h_conted_0
I0924 02:47:28.794808  4150 net.cpp:399] lstm2_transform_1 -> W_hc_h_0
I0924 02:47:28.794824  4154 recurrent_layer.cpp:150] Adding parameter 0: W_xc
I0924 02:47:28.794837  4154 recurrent_layer.cpp:150] Adding parameter 1: b_c
I0924 02:47:28.794845  4154 recurrent_layer.cpp:150] Adding parameter 2: W_hc
I0924 02:47:28.807368  4154 net.cpp:141] Setting up lstm1
I0924 02:47:28.807442  4154 net.cpp:148] Top shape: 1 1 1000 (1000)
I0924 02:47:28.807461  4154 net.cpp:156] Memory required for data: 26408
I0924 02:47:28.807507  4154 layer_factory.hpp:77] Creating layer concat
I0924 02:47:28.807531  4154 net.cpp:91] Creating Layer concat
I0924 02:47:28.807543  4154 net.cpp:425] concat <- lstm1
I0924 02:47:28.807556  4154 net.cpp:425] concat <- embedded_input_sentence
I0924 02:47:28.807566  4154 net.cpp:425] concat <- reshaped_stage_indicator
I0924 02:47:28.807579  4154 net.cpp:399] concat -> lstm1_video_sequence
I0924 02:47:28.809051  4154 net.cpp:141] Setting up concat
I0924 02:47:28.809072  4154 net.cpp:148] Top shape: 1 1 1501 (1501)
I0924 02:47:28.809082  4154 net.cpp:156] Memory required for data: 32412
I0924 02:47:28.809089  4154 layer_factory.hpp:77] Creating layer lstm2
I0924 02:47:28.809109  4154 net.cpp:91] Creating Layer lstm2
I0924 02:47:28.809118  4154 net.cpp:425] lstm2 <- lstm1_video_sequence
I0924 02:47:28.809128  4154 net.cpp:425] lstm2 <- cont_sentence_input_1_split_1
I0924 02:47:28.809141  4154 net.cpp:399] lstm2 -> lstm2
I0924 02:47:28.809159  4154 recurrent_layer.cpp:20] Initializing recurrent layer: assuming input batch contains 1 timesteps of 1 independent streams.
I0924 02:47:28.809259  4178 net.cpp:141] Setting up lstm1_x_transform
I0924 02:47:28.809283  4178 net.cpp:148] Top shape: 1 1 4000 (4000)
I0924 02:47:28.809291  4178 net.cpp:156] Memory required for data: 26016
I0924 02:47:28.809310  4178 layer_factory.hpp:77] Creating layer lstm1_W_xc_x_slice
I0924 02:47:28.809350  4178 net.cpp:91] Creating Layer lstm1_W_xc_x_slice
I0924 02:47:28.809361  4178 net.cpp:425] lstm1_W_xc_x_slice <- W_xc_x
I0924 02:47:28.809376  4178 net.cpp:399] lstm1_W_xc_x_slice -> W_xc_x_1
I0924 02:47:28.809552  4154 net.cpp:49] Initializing net from parameters: 
layer {
  name: "lstm2_"
  type: "Input"
  top: "x"
  top: "cont"
  input_param {
    shape {
      dim: 1
      dim: 1
      dim: 1501
    }
    shape {
      dim: 1
      dim: 1
    }
  }
}
layer {
  name: "lstm2_"
  type: "Input"
  top: "c_0"
  top: "h_0"
  input_param {
    shape {
      dim: 1
      dim: 1
      dim: 1000
    }
    shape {
      dim: 1
      dim: 1
      dim: 1000
    }
  }
}
layer {
  name: "lstm2_cont_slice"
  type: "Slice"
  bottom: "cont"
  top: "cont_1"
  slice_param {
    axis: 0
  }
}
layer {
  name: "lstm2_x_transform"
  type: "InnerProduct"
  bottom: "x"
  top: "W_xc_x"
  param {
    name: "W_xc"
  }
  param {
    name: "b_c"
  }
  propagate_down: true
  inner_product_param {
    num_output: 4000
    bias_term: true
    weight_filler {
      type: "uniform"
      min: -0.08
      max: 0.08
    }
    bias_filler {
      type: "constant"
      value: 0
    }
    axis: 2
  }
}
layer {
  name: "lstm2_W_xc_x_slice"
  type: "Slice"
  bottom: "W_xc_x"
  top: "W_xc_x_1"
  slice_param {
    axis: 0
  }
}
layer {
  name: "lstm2_h_conted_0"
  type: "Scale"
  bottom: "h_0"
  bottom: "cont_1"
  top: "h_conted_0"
  scale_param {
    axis: 0
  }
}
layer {
  name: "lstm2_transform_1"
  type: "InnerProduct"
  bottom: "h_conted_0"
  top: "W_hc_h_0"
  param {
    name: "W_hc"
  }
  inner_product_param {
    num_output: 4000
    bias_term: false
    weight_filler {
      type: "uniform"
      min: -0.08
      max: 0.08
    }
    axis: 2
  }
}
layer {
  name: "lstm2_gate_input_1"
  type: "Eltwise"
  bottom: "W_hc_h_0"
  bottom: "W_xc_x_1"
  top: "gate_input_1"
  eltwise_param {
    operation: SUM
  }
}
layer {
  name: "lstm2_unit_1"
  type: "LSTMUnit"
  bottom: "c_0"
  bottom: "gate_input_1"
  bottom: "cont_1"
  top: "c_1"
  top: "h_1"
}
layer {
  name: "lstm2_"
  type: "Split"
  bottom: "c_1"
  top: "c_T"
}
layer {
  name: "lstm2_h_concat"
  type: "Concat"
  bottom: "h_1"
  top: "h"
  concat_param {
    axis: 0
  }
}
layer {
  name: "h_pseudoloss"
  type: "Reduction"
  bottom: "h"
  top: "h_pseudoloss"
  loss_weight: 1
}
I0924 02:47:28.809680  4154 layer_factory.hpp:77] Creating layer lstm2_
I0924 02:47:28.809700  4154 net.cpp:91] Creating Layer lstm2_
I0924 02:47:28.809710  4154 net.cpp:399] lstm2_ -> x
I0924 02:47:28.809726  4154 net.cpp:399] lstm2_ -> cont
I0924 02:47:28.811812  4154 net.cpp:141] Setting up lstm2_
I0924 02:47:28.811838  4154 net.cpp:148] Top shape: 1 1 1501 (1501)
I0924 02:47:28.811849  4154 net.cpp:148] Top shape: 1 1 (1)
I0924 02:47:28.811856  4154 net.cpp:156] Memory required for data: 6008
I0924 02:47:28.811866  4154 layer_factory.hpp:77] Creating layer lstm2_
I0924 02:47:28.811885  4154 net.cpp:91] Creating Layer lstm2_
I0924 02:47:28.811897  4154 net.cpp:399] lstm2_ -> c_0
I0924 02:47:28.811915  4154 net.cpp:399] lstm2_ -> h_0
I0924 02:47:28.811945  4178 net.cpp:141] Setting up lstm1_W_xc_x_slice
I0924 02:47:28.811959  4178 net.cpp:148] Top shape: 1 1 4000 (4000)
I0924 02:47:28.811965  4178 net.cpp:156] Memory required for data: 42016
I0924 02:47:28.811974  4178 layer_factory.hpp:77] Creating layer lstm1_h_conted_0
I0924 02:47:28.811993  4178 net.cpp:91] Creating Layer lstm1_h_conted_0
I0924 02:47:28.812003  4178 net.cpp:425] lstm1_h_conted_0 <- h_0
I0924 02:47:28.812013  4178 net.cpp:425] lstm1_h_conted_0 <- cont_1_lstm1_cont_slice_0_split_0
I0924 02:47:28.812026  4178 net.cpp:399] lstm1_h_conted_0 -> h_conted_0
I0924 02:47:28.817183  4172 net.cpp:141] Setting up lstm2_transform_1
I0924 02:47:28.817224  4172 net.cpp:148] Top shape: 1 1 4000 (4000)
I0924 02:47:28.817231  4172 net.cpp:156] Memory required for data: 66020
I0924 02:47:28.817248  4172 layer_factory.hpp:77] Creating layer lstm2_gate_input_1
I0924 02:47:28.817257  4154 net.cpp:141] Setting up lstm2_
I0924 02:47:28.817272  4172 net.cpp:91] Creating Layer lstm2_gate_input_1
I0924 02:47:28.817276  4154 net.cpp:148] Top shape: 1 1 1000 (1000)
I0924 02:47:28.817282  4172 net.cpp:425] lstm2_gate_input_1 <- W_hc_h_0
I0924 02:47:28.817287  4154 net.cpp:148] Top shape: 1 1 1000 (1000)
I0924 02:47:28.817289  4172 net.cpp:425] lstm2_gate_input_1 <- W_xc_x_1
I0924 02:47:28.817296  4154 net.cpp:156] Memory required for data: 14008
I0924 02:47:28.817299  4172 net.cpp:399] lstm2_gate_input_1 -> gate_input_1
I0924 02:47:28.817304  4154 layer_factory.hpp:77] Creating layer lstm2_cont_slice
I0924 02:47:28.817320  4154 net.cpp:91] Creating Layer lstm2_cont_slice
I0924 02:47:28.817328  4154 net.cpp:425] lstm2_cont_slice <- cont
I0924 02:47:28.817343  4154 net.cpp:399] lstm2_cont_slice -> cont_1
I0924 02:47:28.817353  4172 net.cpp:141] Setting up lstm2_gate_input_1
I0924 02:47:28.817363  4172 net.cpp:148] Top shape: 1 1 4000 (4000)
I0924 02:47:28.817368  4172 net.cpp:156] Memory required for data: 82020
I0924 02:47:28.817374  4172 layer_factory.hpp:77] Creating layer lstm2_unit_1
I0924 02:47:28.817396  4172 net.cpp:91] Creating Layer lstm2_unit_1
I0924 02:47:28.817400  4154 net.cpp:141] Setting up lstm2_cont_slice
I0924 02:47:28.817404  4172 net.cpp:425] lstm2_unit_1 <- c_0
I0924 02:47:28.817420  4172 net.cpp:425] lstm2_unit_1 <- gate_input_1
I0924 02:47:28.817419  4154 net.cpp:148] Top shape: 1 1 (1)
I0924 02:47:28.817436  4172 net.cpp:425] lstm2_unit_1 <- cont_1_lstm2_cont_slice_0_split_1
I0924 02:47:28.817440  4154 net.cpp:156] Memory required for data: 14012
I0924 02:47:28.817447  4154 layer_factory.hpp:77] Creating layer cont_1_lstm2_cont_slice_0_split
I0924 02:47:28.817450  4172 net.cpp:399] lstm2_unit_1 -> c_1
I0924 02:47:28.817461  4172 net.cpp:399] lstm2_unit_1 -> h_1
I0924 02:47:28.817461  4154 net.cpp:91] Creating Layer cont_1_lstm2_cont_slice_0_split
I0924 02:47:28.817471  4154 net.cpp:425] cont_1_lstm2_cont_slice_0_split <- cont_1
I0924 02:47:28.817481  4154 net.cpp:399] cont_1_lstm2_cont_slice_0_split -> cont_1_lstm2_cont_slice_0_split_0
I0924 02:47:28.817494  4154 net.cpp:399] cont_1_lstm2_cont_slice_0_split -> cont_1_lstm2_cont_slice_0_split_1
I0924 02:47:28.817737  4172 net.cpp:141] Setting up lstm2_unit_1
I0924 02:47:28.817751  4172 net.cpp:148] Top shape: 1 1 1000 (1000)
I0924 02:47:28.817757  4172 net.cpp:148] Top shape: 1 1 1000 (1000)
I0924 02:47:28.817762  4172 net.cpp:156] Memory required for data: 90020
I0924 02:47:28.817767  4172 layer_factory.hpp:77] Creating layer lstm2_
I0924 02:47:28.817780  4172 net.cpp:91] Creating Layer lstm2_
I0924 02:47:28.817790  4172 net.cpp:425] lstm2_ <- c_1
I0924 02:47:28.817806  4172 net.cpp:399] lstm2_ -> c_T
I0924 02:47:28.817819  4178 net.cpp:141] Setting up lstm1_h_conted_0
I0924 02:47:28.817836  4178 net.cpp:148] Top shape: 1 1 1000 (1000)
I0924 02:47:28.817843  4178 net.cpp:156] Memory required for data: 46016
I0924 02:47:28.817852  4178 layer_factory.hpp:77] Creating layer lstm1_transform_1
I0924 02:47:28.817865  4154 net.cpp:141] Setting up cont_1_lstm2_cont_slice_0_split
I0924 02:47:28.817869  4178 net.cpp:91] Creating Layer lstm1_transform_1
I0924 02:47:28.817888  4154 net.cpp:148] Top shape: 1 1 (1)
I0924 02:47:28.817889  4178 net.cpp:425] lstm1_transform_1 <- h_conted_0
I0924 02:47:28.817903  4154 net.cpp:148] Top shape: 1 1 (1)
I0924 02:47:28.817912  4154 net.cpp:156] Memory required for data: 14020
I0924 02:47:28.817914  4178 net.cpp:399] lstm1_transform_1 -> W_hc_h_0
I0924 02:47:28.817915  4172 net.cpp:141] Setting up lstm2_
I0924 02:47:28.817921  4154 layer_factory.hpp:77] Creating layer lstm2_x_transform
I0924 02:47:28.817929  4172 net.cpp:148] Top shape: 1 1 1000 (1000)
I0924 02:47:28.817937  4172 net.cpp:156] Memory required for data: 94020
I0924 02:47:28.817942  4154 net.cpp:91] Creating Layer lstm2_x_transform
I0924 02:47:28.817945  4172 layer_factory.hpp:77] Creating layer lstm2_h_concat
I0924 02:47:28.817951  4154 net.cpp:425] lstm2_x_transform <- x
I0924 02:47:28.817958  4172 net.cpp:91] Creating Layer lstm2_h_concat
I0924 02:47:28.817963  4154 net.cpp:399] lstm2_x_transform -> W_xc_x
I0924 02:47:28.817967  4172 net.cpp:425] lstm2_h_concat <- h_1
I0924 02:47:28.817984  4172 net.cpp:399] lstm2_h_concat -> h
I0924 02:47:28.829670  4172 net.cpp:141] Setting up lstm2_h_concat
I0924 02:47:28.829743  4172 net.cpp:148] Top shape: 1 1 1000 (1000)
I0924 02:47:28.829759  4172 net.cpp:156] Memory required for data: 98020
I0924 02:47:28.829780  4172 layer_factory.hpp:77] Creating layer h_pseudoloss
I0924 02:47:28.829814  4172 net.cpp:91] Creating Layer h_pseudoloss
I0924 02:47:28.829833  4172 net.cpp:425] h_pseudoloss <- h
I0924 02:47:28.829859  4172 net.cpp:399] h_pseudoloss -> h_pseudoloss
I0924 02:47:28.840688  4172 net.cpp:141] Setting up h_pseudoloss
…
I0924 02:47:28.840886  4172 net.cpp:219] lstm2_ does not need backward computation.
I0924 02:47:28.840893  4172 net.cpp:261] This network produces output c_T
I0924 02:47:28.840903  4172 net.cpp:261] This network produces output h_pseudoloss
I0924 02:47:28.840926  4172 net.cpp:274] Network initialization done.
I0924 02:47:28.841001  4172 recurrent_layer.cpp:150] Adding parameter 0: W_xc
I0924 02:47:28.841013  4172 recurrent_layer.cpp:150] Adding parameter 1: b_c
I0924 02:47:28.841020  4172 recurrent_layer.cpp:150] Adding parameter 2: W_hc
I0924 02:47:28.843273  4172 net.cpp:141] Setting up lstm2
I0924 02:47:28.843313  4172 net.cpp:148] Top shape: 1 1 1000 (1000)
I0924 02:47:28.843323  4172 net.cpp:156] Memory required for data: 36412
I0924 02:47:28.843350  4172 layer_factory.hpp:77] Creating layer predict
I0924 02:47:28.843374  4172 net.cpp:91] Creating Layer predict
I0924 02:47:28.843385  4172 net.cpp:425] predict <- lstm2
I0924 02:47:28.843400  4172 net.cpp:399] predict -> predict
I0924 02:47:28.843446  4160 net.cpp:141] Setting up lstm2_x_transform
I0924 02:47:28.843469  4160 net.cpp:148] Top shape: 1 1 4000 (4000)
I0924 02:47:28.843478  4160 net.cpp:156] Memory required for data: 30020
I0924 02:47:28.843489  4150 net.cpp:141] Setting up lstm2_transform_1
I0924 02:47:28.843500  4160 layer_factory.hpp:77] Creating layer lstm2_W_xc_x_slice
I0924 02:47:28.843510  4150 net.cpp:148] Top shape: 1 1 4000 (4000)
I0924 02:47:28.843518  4150 net.cpp:156] Memory required for data: 66020
I0924 02:47:28.843524  4160 net.cpp:91] Creating Layer lstm2_W_xc_x_slice
I0924 02:47:28.843534  4150 layer_factory.hpp:77] Creating layer lstm2_gate_input_1
I0924 02:47:28.843536  4160 net.cpp:425] lstm2_W_xc_x_slice <- W_xc_x
I0924 02:47:28.843552  4160 net.cpp:399] lstm2_W_xc_x_slice -> W_xc_x_1
I0924 02:47:28.843559  4150 net.cpp:91] Creating Layer lstm2_gate_input_1
I0924 02:47:28.843569  4150 net.cpp:425] lstm2_gate_input_1 <- W_hc_h_0
I0924 02:47:28.843578  4150 net.cpp:425] lstm2_gate_input_1 <- W_xc_x_1
I0924 02:47:28.843629  4150 net.cpp:399] lstm2_gate_input_1 -> gate_input_1
I0924 02:47:28.926930  4160 net.cpp:141] Setting up lstm2_W_xc_x_slice
I0924 02:47:28.926993  4160 net.cpp:148] Top shape: 1 1 4000 (4000)
I0924 02:47:28.926990  4150 net.cpp:141] Setting up lstm2_gate_input_1
I0924 02:47:28.927000  4160 net.cpp:156] Memory required for data: 46020
I0924 02:47:28.927016  4150 net.cpp:148] Top shape: 1 1 4000 (4000)
I0924 02:47:28.927021  4150 net.cpp:156] Memory required for data: 82020
I0924 02:47:28.927021  4160 layer_factory.hpp:77] Creating layer lstm2_h_conted_0
I0924 02:47:28.927031  4150 layer_factory.hpp:77] Creating layer lstm2_unit_1
I0924 02:47:28.927063  4150 net.cpp:91] Creating Layer lstm2_unit_1
I0924 02:47:28.927072  4150 net.cpp:425] lstm2_unit_1 <- c_0
I0924 02:47:28.927080  4150 net.cpp:425] lstm2_unit_1 <- gate_input_1
I0924 02:47:28.927086  4150 net.cpp:425] lstm2_unit_1 <- cont_1_lstm2_cont_slice_0_split_1
I0924 02:47:28.927095  4150 net.cpp:399] lstm2_unit_1 -> c_1
I0924 02:47:28.927109  4150 net.cpp:399] lstm2_unit_1 -> h_1
I0924 02:47:28.927111  4160 net.cpp:91] Creating Layer lstm2_h_conted_0
I0924 02:47:28.927121  4160 net.cpp:425] lstm2_h_conted_0 <- h_0
I0924 02:47:28.927129  4160 net.cpp:425] lstm2_h_conted_0 <- cont_1_lstm2_cont_slice_0_split_0
I0924 02:47:28.927124  4178 net.cpp:141] Setting up lstm1_transform_1
I0924 02:47:28.927139  4160 net.cpp:399] lstm2_h_conted_0 -> h_conted_0
I0924 02:47:28.927203  4178 net.cpp:148] Top shape: 1 1 4000 (4000)
I0924 02:47:28.927214  4150 net.cpp:141] Setting up lstm2_unit_1
I0924 02:47:28.927217  4178 net.cpp:156] Memory required for data: 62016
I0924 02:47:28.927235  4150 net.cpp:148] Top shape: 1 1 1000 (1000)
I0924 02:47:28.927242  4150 net.cpp:148] Top shape: 1 1 1000 (1000)
I0924 02:47:28.927247  4150 net.cpp:156] Memory required for data: 90020
I0924 02:47:28.927251  4150 layer_factory.hpp:77] Creating layer lstm2_
I0924 02:47:28.927260  4150 net.cpp:91] Creating Layer lstm2_
I0924 02:47:28.927258  4178 layer_factory.hpp:77] Creating layer lstm1_gate_input_1
I0924 02:47:28.927284  4150 net.cpp:425] lstm2_ <- c_1
I0924 02:47:28.927300  4150 net.cpp:399] lstm2_ -> c_T
I0924 02:47:28.927314  4178 net.cpp:91] Creating Layer lstm1_gate_input_1
I0924 02:47:28.927330  4178 net.cpp:425] lstm1_gate_input_1 <- W_hc_h_0
I0924 02:47:28.927345  4178 net.cpp:425] lstm1_gate_input_1 <- W_xc_x_1
I0924 02:47:28.927362  4178 net.cpp:399] lstm1_gate_input_1 -> gate_input_1
I0924 02:47:28.927462  4178 net.cpp:141] Setting up lstm1_gate_input_1
I0924 02:47:28.927484  4178 net.cpp:148] Top shape: 1 1 4000 (4000)
I0924 02:47:28.927492  4178 net.cpp:156] Memory required for data: 78016
I0924 02:47:28.927503  4178 layer_factory.hpp:77] Creating layer lstm1_unit_1
I0924 02:47:28.927521  4178 net.cpp:91] Creating Layer lstm1_unit_1
I0924 02:47:28.927532  4178 net.cpp:425] lstm1_unit_1 <- c_0
I0924 02:47:28.927546  4178 net.cpp:425] lstm1_unit_1 <- gate_input_1
I0924 02:47:28.927558  4178 net.cpp:425] lstm1_unit_1 <- cont_1_lstm1_cont_slice_0_split_1
I0924 02:47:28.927575  4178 net.cpp:399] lstm1_unit_1 -> c_1
I0924 02:47:28.927595  4178 net.cpp:399] lstm1_unit_1 -> h_1
I0924 02:47:28.927785  4150 net.cpp:141] Setting up lstm2_
I0924 02:47:28.927800  4150 net.cpp:148] Top shape: 1 1 1000 (1000)
I0924 02:47:28.927805  4150 net.cpp:156] Memory required for data: 94020
I0924 02:47:28.927810  4150 layer_factory.hpp:77] Creating layer lstm2_h_concat
I0924 02:47:28.927821  4150 net.cpp:91] Creating Layer lstm2_h_concat
I0924 02:47:28.927826  4150 net.cpp:425] lstm2_h_concat <- h_1
I0924 02:47:28.927834  4150 net.cpp:399] lstm2_h_concat -> h
I0924 02:47:28.927860  4160 net.cpp:141] Setting up lstm2_h_conted_0
I0924 02:47:28.927882  4160 net.cpp:148] Top shape: 1 1 1000 (1000)
I0924 02:47:28.927892  4160 net.cpp:156] Memory required for data: 50020
I0924 02:47:28.927901  4160 layer_factory.hpp:77] Creating layer lstm2_transform_1
I0924 02:47:28.927928  4160 net.cpp:91] Creating Layer lstm2_transform_1
I0924 02:47:28.927939  4160 net.cpp:425] lstm2_transform_1 <- h_conted_0
I0924 02:47:28.927955  4160 net.cpp:399] lstm2_transform_1 -> W_hc_h_0
I0924 02:47:28.927968  4154 net.cpp:141] Setting up lstm2_x_transform
I0924 02:47:28.927984  4154 net.cpp:148] Top shape: 1 1 4000 (4000)
I0924 02:47:28.927992  4154 net.cpp:156] Memory required for data: 30020
I0924 02:47:28.927999  4150 net.cpp:141] Setting up lstm2_h_concat
I0924 02:47:28.928010  4150 net.cpp:148] Top shape: 1 1 1000 (1000)
I0924 02:47:28.928010  4154 layer_factory.hpp:77] Creating layer lstm2_W_xc_x_slice
I0924 02:47:28.928015  4150 net.cpp:156] Memory required for data: 98020
I0924 02:47:28.928021  4150 layer_factory.hpp:77] Creating layer h_pseudoloss
I0924 02:47:28.928022  4154 net.cpp:91] Creating Layer lstm2_W_xc_x_slice
I0924 02:47:28.928030  4154 net.cpp:425] lstm2_W_xc_x_slice <- W_xc_x
I0924 02:47:28.928031  4150 net.cpp:91] Creating Layer h_pseudoloss
I0924 02:47:28.928037  4150 net.cpp:425] h_pseudoloss <- h
I0924 02:47:28.928042  4154 net.cpp:399] lstm2_W_xc_x_slice -> W_xc_x_1
I0924 02:47:28.928045  4150 net.cpp:399] h_pseudoloss -> h_pseudoloss
I0924 02:47:28.928097  4154 net.cpp:141] Setting up lstm2_W_xc_x_slice
I0924 02:47:28.928112  4154 net.cpp:148] Top shape: 1 1 4000 (4000)
I0924 02:47:28.928120  4154 net.cpp:156] Memory required for data: 46020
I0924 02:47:28.928128  4154 layer_factory.hpp:77] Creating layer lstm2_h_conted_0
I0924 02:47:28.928143  4154 net.cpp:91] Creating Layer lstm2_h_conted_0
I0924 02:47:28.928150  4154 net.cpp:425] lstm2_h_conted_0 <- h_0
I0924 02:47:28.928159  4154 net.cpp:425] lstm2_h_conted_0 <- cont_1_lstm2_cont_slice_0_split_0
I0924 02:47:28.928175  4154 net.cpp:399] lstm2_h_conted_0 -> h_conted_0
I0924 02:47:28.938132  4178 net.cpp:141] Setting up lstm1_unit_1
I0924 02:47:28.938186  4178 net.cpp:148] Top shape: 1 1 1000 (1000)
I0924 02:47:28.938197  4178 net.cpp:148] Top shape: 1 1 1000 (1000)
I0924 02:47:28.938205  4178 net.cpp:156] Memory required for data: 86016
I0924 02:47:28.938216  4178 layer_factory.hpp:77] Creating layer lstm1_
I0924 02:47:28.938241  4178 net.cpp:91] Creating Layer lstm1_
I0924 02:47:28.938249  4178 net.cpp:425] lstm1_ <- c_1
I0924 02:47:28.938263  4178 net.cpp:399] lstm1_ -> c_T
I0924 02:47:28.941591  4178 net.cpp:141] Setting up lstm1_
I0924 02:47:28.941644  4178 net.cpp:148] Top shape: 1 1 1000 (1000)
I0924 02:47:28.941654  4178 net.cpp:156] Memory required for data: 90016
I0924 02:47:28.941666  4178 layer_factory.hpp:77] Creating layer lstm1_h_concat
I0924 02:47:28.941689  4178 net.cpp:91] Creating Layer lstm1_h_concat
I0924 02:47:28.941699  4178 net.cpp:425] lstm1_h_concat <- h_1
I0924 02:47:28.941694  4150 net.cpp:141] Setting up h_pseudoloss
I0924 02:47:28.941728  4150 net.cpp:148] Top shape: (1)
I0924 02:47:28.941730  4178 net.cpp:399] lstm1_h_concat -> h
I0924 02:47:28.941754  4150 net.cpp:151]     with loss weight 1
I0924 02:47:28.941776  4150 net.cpp:156] Memory required for data: 98024
I0924 02:47:28.941787  4150 net.cpp:217] h_pseudoloss needs backward computation.
I0924 02:47:28.941797  4150 net.cpp:217] lstm2_h_concat needs backward computation.
I0924 02:47:28.941805  4150 net.cpp:219] lstm2_ does not need backward computation.
I0924 02:47:28.941813  4150 net.cpp:217] lstm2_unit_1 needs backward computation.
I0924 02:47:28.941824  4150 net.cpp:217] lstm2_gate_input_1 needs backward computation.
I0924 02:47:28.941828  4178 net.cpp:141] Setting up lstm1_h_concat
I0924 02:47:28.941830  4150 net.cpp:217] lstm2_transform_1 needs backward computation.
I0924 02:47:28.941845  4178 net.cpp:148] Top shape: 1 1 1000 (1000)
I0924 02:47:28.941850  4150 net.cpp:219] lstm2_h_conted_0 does not need backward computation.
I0924 02:47:28.941854  4178 net.cpp:156] Memory required for data: 94016
I0924 02:47:28.941861  4150 net.cpp:217] lstm2_W_xc_x_slice needs backward computation.
I0924 02:47:28.941861  4178 layer_factory.hpp:77] Creating layer h_pseudoloss
I0924 02:47:28.941879  4150 net.cpp:217] lstm2_x_transform needs backward computation.
I0924 02:47:28.941887  4150 net.cpp:219] cont_1_lstm2_cont_slice_0_split does not need backward computation.
I0924 02:47:28.941890  4178 net.cpp:91] Creating Layer h_pseudoloss
I0924 02:47:28.941893  4150 net.cpp:219] lstm2_cont_slice does not need backward computation.
I0924 02:47:28.941905  4178 net.cpp:425] h_pseudoloss <- h
I0924 02:47:28.941911  4150 net.cpp:219] lstm2_ does not need backward computation.
I0924 02:47:28.941916  4178 net.cpp:399] h_pseudoloss -> h_pseudoloss
I0924 02:47:28.941921  4150 net.cpp:219] lstm2_ does not need backward computation.
I0924 02:47:28.941928  4150 net.cpp:261] This network produces output c_T
I0924 02:47:28.941936  4150 net.cpp:261] This network produces output h_pseudoloss
I0924 02:47:28.941953  4150 net.cpp:274] Network initialization done.
I0924 02:47:28.941972  4154 net.cpp:141] Setting up lstm2_h_conted_0
I0924 02:47:28.941992  4154 net.cpp:148] Top shape: 1 1 1000 (1000)
I0924 02:47:28.942000  4154 net.cpp:156] Memory required for data: 50020
I0924 02:47:28.942009  4154 layer_factory.hpp:77] Creating layer lstm2_transform_1
I0924 02:47:28.942023  4150 recurrent_layer.cpp:150] Adding parameter 0: W_xc
I0924 02:47:28.942031  4154 net.cpp:91] Creating Layer lstm2_transform_1
I0924 02:47:28.942034  4150 recurrent_layer.cpp:150] Adding parameter 1: b_c
I0924 02:47:28.942041  4154 net.cpp:425] lstm2_transform_1 <- h_conted_0
…
I0924 02:47:28.942245  4178 net.cpp:219] lstm1_ does not need backward computation.
I0924 02:47:28.942251  4178 net.cpp:261] This network produces output c_T
I0924 02:47:28.942260  4178 net.cpp:261] This network produces output h_pseudoloss
I0924 02:47:28.942282  4178 net.cpp:274] Network initialization done.
I0924 02:47:28.942348  4178 recurrent_layer.cpp:150] Adding parameter 0: W_xc
I0924 02:47:28.942356  4178 recurrent_layer.cpp:150] Adding parameter 1: b_c
I0924 02:47:28.942364  4178 recurrent_layer.cpp:150] Adding parameter 2: W_hc
I0924 02:47:28.959722  4150 net.cpp:141] Setting up lstm2
I0924 02:47:28.959784  4150 net.cpp:148] Top shape: 1 1 1000 (1000)
I0924 02:47:28.959796  4150 net.cpp:156] Memory required for data: 36412
I0924 02:47:28.959831  4150 layer_factory.hpp:77] Creating layer predict
I0924 02:47:28.959862  4150 net.cpp:91] Creating Layer predict
I0924 02:47:28.959874  4150 net.cpp:425] predict <- lstm2
I0924 02:47:28.959890  4150 net.cpp:399] predict -> predict
I0924 02:47:29.044077  4178 net.cpp:141] Setting up lstm1
I0924 02:47:29.044144  4178 net.cpp:148] Top shape: 1 1 1000 (1000)
I0924 02:47:29.044142  4160 net.cpp:141] Setting up lstm2_transform_1
I0924 02:47:29.044181  4178 net.cpp:156] Memory required for data: 26408
I0924 02:47:29.044220  4160 net.cpp:148] Top shape: 1 1 4000 (4000)
I0924 02:47:29.044240  4160 net.cpp:156] Memory required for data: 66020
I0924 02:47:29.044257  4178 layer_factory.hpp:77] Creating layer concat
I0924 02:47:29.044261  4160 layer_factory.hpp:77] Creating layer lstm2_gate_input_1
I0924 02:47:29.044303  4178 net.cpp:91] Creating Layer concat
I0924 02:47:29.044312  4160 net.cpp:91] Creating Layer lstm2_gate_input_1
I0924 02:47:29.044317  4178 net.cpp:425] concat <- lstm1
I0924 02:47:29.044324  4160 net.cpp:425] lstm2_gate_input_1 <- W_hc_h_0
I0924 02:47:29.044342  4178 net.cpp:425] concat <- embedded_input_sentence
I0924 02:47:29.044347  4160 net.cpp:425] lstm2_gate_input_1 <- W_xc_x_1
I0924 02:47:29.044354  4178 net.cpp:425] concat <- reshaped_stage_indicator
I0924 02:47:29.044361  4160 net.cpp:399] lstm2_gate_input_1 -> gate_input_1
I0924 02:47:29.044369  4178 net.cpp:399] concat -> lstm1_video_sequence
I0924 02:47:29.044447  4160 net.cpp:141] Setting up lstm2_gate_input_1
I0924 02:47:29.044462  4160 net.cpp:148] Top shape: 1 1 4000 (4000)
I0924 02:47:29.044471  4160 net.cpp:156] Memory required for data: 82020
I0924 02:47:29.044477  4160 layer_factory.hpp:77] Creating layer lstm2_unit_1
I0924 02:47:29.044492  4160 net.cpp:91] Creating Layer lstm2_unit_1
I0924 02:47:29.044500  4160 net.cpp:425] lstm2_unit_1 <- c_0
I0924 02:47:29.044509  4160 net.cpp:425] lstm2_unit_1 <- gate_input_1
I0924 02:47:29.044519  4160 net.cpp:425] lstm2_unit_1 <- cont_1_lstm2_cont_slice_0_split_1
I0924 02:47:29.044530  4160 net.cpp:399] lstm2_unit_1 -> c_1
I0924 02:47:29.044545  4160 net.cpp:399] lstm2_unit_1 -> h_1
I0924 02:47:29.044550  4178 net.cpp:141] Setting up concat
I0924 02:47:29.044572  4178 net.cpp:148] Top shape: 1 1 1501 (1501)
I0924 02:47:29.044582  4178 net.cpp:156] Memory required for data: 32412
I0924 02:47:29.044594  4178 layer_factory.hpp:77] Creating layer lstm2
I0924 02:47:29.044620  4178 net.cpp:91] Creating Layer lstm2
I0924 02:47:29.044633  4178 net.cpp:425] lstm2 <- lstm1_video_sequence
I0924 02:47:29.044646  4178 net.cpp:425] lstm2 <- cont_sentence_input_1_split_1
I0924 02:47:29.044664  4178 net.cpp:399] lstm2 -> lstm2
I0924 02:47:29.044688  4178 recurrent_layer.cpp:20] Initializing recurrent layer: assuming input batch contains 1 timesteps of 1 independent streams.
I0924 02:47:29.045184  4178 net.cpp:49] Initializing net from parameters: 
layer {
  name: "lstm2_"
  type: "Input"
  top: "x"
  top: "cont"
  input_param {
    shape {
      dim: 1
      dim: 1
      dim: 1501
    }
    shape {
      dim: 1
      dim: 1
    }
  }
}
layer {
  name: "lstm2_"
  type: "Input"
  top: "c_0"
  top: "h_0"
  input_param {
    shape {
      dim: 1
      dim: 1
      dim: 1000
    }
    shape {
      dim: 1
      dim: 1
      dim: 1000
    }
  }
}
layer {
  name: "lstm2_cont_slice"
  type: "Slice"
  bottom: "cont"
  top: "cont_1"
  slice_param {
    axis: 0
  }
}
layer {
  name: "lstm2_x_transform"
  type: "InnerProduct"
  bottom: "x"
  top: "W_xc_x"
  param {
    name: "W_xc"
  }
  param {
    name: "b_c"
  }
  propagate_down: true
  inner_product_param {
    num_output: 4000
    bias_term: true
    weight_filler {
      type: "uniform"
      min: -0.08
      max: 0.08
    }
    bias_filler {
      type: "constant"
      value: 0
    }
    axis: 2
  }
}
layer {
  name: "lstm2_W_xc_x_slice"
  type: "Slice"
  bottom: "W_xc_x"
  top: "W_xc_x_1"
  slice_param {
    axis: 0
  }
}
layer {
  name: "lstm2_h_conted_0"
  type: "Scale"
  bottom: "h_0"
  bottom: "cont_1"
  top: "h_conted_0"
  scale_param {
    axis: 0
  }
}
layer {
  name: "lstm2_transform_1"
  type: "InnerProduct"
  bottom: "h_conted_0"
  top: "W_hc_h_0"
  param {
    name: "W_hc"
  }
  inner_product_param {
    num_output: 4000
    bias_term: false
    weight_filler {
      type: "uniform"
      min: -0.08
      max: 0.08
    }
    axis: 2
  }
}
layer {
  name: "lstm2_gate_input_1"
  type: "Eltwise"
  bottom: "W_hc_h_0"
  bottom: "W_xc_x_1"
  top: "gate_input_1"
  eltwise_param {
    operation: SUM
  }
}
layer {
  name: "lstm2_unit_1"
  type: "LSTMUnit"
  bottom: "c_0"
  bottom: "gate_input_1"
  bottom: "cont_1"
  top: "c_1"
  top: "h_1"
}
layer {
  name: "lstm2_"
  type: "Split"
  bottom: "c_1"
  top: "c_T"
}
layer {
  name: "lstm2_h_concat"
  type: "Concat"
  bottom: "h_1"
  top: "h"
  concat_param {
    axis: 0
  }
}
layer {
  name: "h_pseudoloss"
  type: "Reduction"
  bottom: "h"
  top: "h_pseudoloss"
  loss_weight: 1
}
I0924 02:47:29.045310  4178 layer_factory.hpp:77] Creating layer lstm2_
I0924 02:47:29.045327  4178 net.cpp:91] Creating Layer lstm2_
I0924 02:47:29.045336  4178 net.cpp:399] lstm2_ -> x
I0924 02:47:29.045352  4178 net.cpp:399] lstm2_ -> cont
I0924 02:47:29.047004  4160 net.cpp:141] Setting up lstm2_unit_1
I0924 02:47:29.047030  4178 net.cpp:141] Setting up lstm2_
I0924 02:47:29.047044  4160 net.cpp:148] Top shape: 1 1 1000 (1000)
I0924 02:47:29.047045  4178 net.cpp:148] Top shape: 1 1 1501 (1501)
I0924 02:47:29.047051  4160 net.cpp:148] Top shape: 1 1 1000 (1000)
I0924 02:47:29.047052  4178 net.cpp:148] Top shape: 1 1 (1)
I0924 02:47:29.047057  4160 net.cpp:156] Memory required for data: 90020
I0924 02:47:29.047057  4178 net.cpp:156] Memory required for data: 6008
I0924 02:47:29.047070  4160 layer_factory.hpp:77] Creating layer lstm2_
I0924 02:47:29.047072  4178 layer_factory.hpp:77] Creating layer lstm2_
I0924 02:47:29.047091  4178 net.cpp:91] Creating Layer lstm2_
I0924 02:47:29.047091  4160 net.cpp:91] Creating Layer lstm2_
I0924 02:47:29.047099  4160 net.cpp:425] lstm2_ <- c_1
I0924 02:47:29.047101  4178 net.cpp:399] lstm2_ -> c_0
I0924 02:47:29.047108  4160 net.cpp:399] lstm2_ -> c_T
I0924 02:47:29.047116  4178 net.cpp:399] lstm2_ -> h_0
I0924 02:47:29.047125  4154 net.cpp:141] Setting up lstm2_transform_1
I0924 02:47:29.047164  4154 net.cpp:148] Top shape: 1 1 4000 (4000)
I0924 02:47:29.047170  4154 net.cpp:156] Memory required for data: 66020
I0924 02:47:29.047191  4154 layer_factory.hpp:77] Creating layer lstm2_gate_input_1
I0924 02:47:29.047217  4154 net.cpp:91] Creating Layer lstm2_gate_input_1
I0924 02:47:29.047226  4154 net.cpp:425] lstm2_gate_input_1 <- W_hc_h_0
I0924 02:47:29.047233  4154 net.cpp:425] lstm2_gate_input_1 <- W_xc_x_1
I0924 02:47:29.047245  4154 net.cpp:399] lstm2_gate_input_1 -> gate_input_1
I0924 02:47:29.056223  4160 net.cpp:141] Setting up lstm2_
I0924 02:47:29.056280  4160 net.cpp:148] Top shape: 1 1 1000 (1000)
I0924 02:47:29.056290  4160 net.cpp:156] Memory required for data: 94020
I0924 02:47:29.056303  4160 layer_factory.hpp:77] Creating layer lstm2_h_concat
I0924 02:47:29.056329  4160 net.cpp:91] Creating Layer lstm2_h_concat
I0924 02:47:29.056342  4160 net.cpp:425] lstm2_h_concat <- h_1
I0924 02:47:29.056347  4154 net.cpp:141] Setting up lstm2_gate_input_1
I0924 02:47:29.056377  4160 net.cpp:399] lstm2_h_concat -> h
I0924 02:47:29.056385  4154 net.cpp:148] Top shape: 1 1 4000 (4000)
I0924 02:47:29.056391  4154 net.cpp:156] Memory required for data: 82020
I0924 02:47:29.056399  4154 layer_factory.hpp:77] Creating layer lstm2_unit_1
I0924 02:47:29.056411  4178 net.cpp:141] Setting up lstm2_
I0924 02:47:29.056423  4154 net.cpp:91] Creating Layer lstm2_unit_1
I0924 02:47:29.056432  4154 net.cpp:425] lstm2_unit_1 <- c_0
I0924 02:47:29.056435  4178 net.cpp:148] Top shape: 1 1 1000 (1000)
I0924 02:47:29.056442  4154 net.cpp:425] lstm2_unit_1 <- gate_input_1
I0924 02:47:29.056448  4154 net.cpp:425] lstm2_unit_1 <- cont_1_lstm2_cont_slice_0_split_1
I0924 02:47:29.056447  4178 net.cpp:148] Top shape: 1 1 1000 (1000)
I0924 02:47:29.056468  4154 net.cpp:399] lstm2_unit_1 -> c_1
I0924 02:47:29.056471  4160 net.cpp:141] Setting up lstm2_h_concat
I0924 02:47:29.056483  4154 net.cpp:399] lstm2_unit_1 -> h_1
I0924 02:47:29.056474  4178 net.cpp:156] Memory required for data: 14008
I0924 02:47:29.056494  4160 net.cpp:148] Top shape: 1 1 1000 (1000)
I0924 02:47:29.056495  4178 layer_factory.hpp:77] Creating layer lstm2_cont_slice
I0924 02:47:29.056509  4160 net.cpp:156] Memory required for data: 98020
I0924 02:47:29.056519  4160 layer_factory.hpp:77] Creating layer h_pseudoloss
I0924 02:47:29.056524  4178 net.cpp:91] Creating Layer lstm2_cont_slice
I0924 02:47:29.056534  4178 net.cpp:425] lstm2_cont_slice <- cont
I0924 02:47:29.056534  4160 net.cpp:91] Creating Layer h_pseudoloss
I0924 02:47:29.056545  4160 net.cpp:425] h_pseudoloss <- h
I0924 02:47:29.056548  4178 net.cpp:399] lstm2_cont_slice -> cont_1
I0924 02:47:29.056556  4160 net.cpp:399] h_pseudoloss -> h_pseudoloss
I0924 02:47:29.056591  4154 net.cpp:141] Setting up lstm2_unit_1
I0924 02:47:29.056602  4154 net.cpp:148] Top shape: 1 1 1000 (1000)
I0924 02:47:29.056608  4154 net.cpp:148] Top shape: 1 1 1000 (1000)
I0924 02:47:29.056613  4154 net.cpp:156] Memory required for data: 90020
I0924 02:47:29.056618  4154 layer_factory.hpp:77] Creating layer lstm2_
I0924 02:47:29.056627  4154 net.cpp:91] Creating Layer lstm2_
I0924 02:47:29.056632  4154 net.cpp:425] lstm2_ <- c_1
I0924 02:47:29.056643  4154 net.cpp:399] lstm2_ -> c_T
I0924 02:47:29.056663  4178 net.cpp:141] Setting up lstm2_cont_slice
I0924 02:47:29.056680  4178 net.cpp:148] Top shape: 1 1 (1)
I0924 02:47:29.056687  4178 net.cpp:156] Memory required for data: 14012
I0924 02:47:29.056696  4178 layer_factory.hpp:77] Creating layer cont_1_lstm2_cont_slice_0_split
I0924 02:47:29.056702  4154 net.cpp:141] Setting up lstm2_
I0924 02:47:29.056712  4154 net.cpp:148] Top shape: 1 1 1000 (1000)
I0924 02:47:29.056717  4154 net.cpp:156] Memory required for data: 94020
I0924 02:47:29.056722  4154 layer_factory.hpp:77] Creating layer lstm2_h_concat
I0924 02:47:29.056723  4178 net.cpp:91] Creating Layer cont_1_lstm2_cont_slice_0_split
I0924 02:47:29.056732  4154 net.cpp:91] Creating Layer lstm2_h_concat
I0924 02:47:29.056733  4178 net.cpp:425] cont_1_lstm2_cont_slice_0_split <- cont_1
I0924 02:47:29.056740  4154 net.cpp:425] lstm2_h_concat <- h_1
I0924 02:47:29.056747  4154 net.cpp:399] lstm2_h_concat -> h
I0924 02:47:29.056746  4178 net.cpp:399] cont_1_lstm2_cont_slice_0_split -> cont_1_lstm2_cont_slice_0_split_0
I0924 02:47:29.056777  4178 net.cpp:399] cont_1_lstm2_cont_slice_0_split -> cont_1_lstm2_cont_slice_0_split_1
I0924 02:47:29.056907  4154 net.cpp:141] Setting up lstm2_h_concat
I0924 02:47:29.056918  4154 net.cpp:148] Top shape: 1 1 1000 (1000)
I0924 02:47:29.056923  4154 net.cpp:156] Memory required for data: 98020
I0924 02:47:29.056928  4154 layer_factory.hpp:77] Creating layer h_pseudoloss
I0924 02:47:29.056939  4154 net.cpp:91] Creating Layer h_pseudoloss
I0924 02:47:29.056946  4154 net.cpp:425] h_pseudoloss <- h
I0924 02:47:29.056953  4154 net.cpp:399] h_pseudoloss -> h_pseudoloss
I0924 02:47:29.057077  4154 net.cpp:141] Setting up h_pseudoloss
…
I0924 02:47:29.057448  4160 net.cpp:261] This network produces output c_T
I0924 02:47:29.057456  4154 recurrent_layer.cpp:150] Adding parameter 2: W_hc
I0924 02:47:29.057461  4160 net.cpp:261] This network produces output h_pseudoloss
I0924 02:47:29.057493  4160 net.cpp:274] Network initialization done.
I0924 02:47:29.057574  4160 recurrent_layer.cpp:150] Adding parameter 0: W_xc
I0924 02:47:29.057591  4160 recurrent_layer.cpp:150] Adding parameter 1: b_c
I0924 02:47:29.057600  4160 recurrent_layer.cpp:150] Adding parameter 2: W_hc
I0924 02:47:29.074924  4160 net.cpp:141] Setting up lstm2
I0924 02:47:29.074980  4160 net.cpp:148] Top shape: 1 1 1000 (1000)
I0924 02:47:29.074990  4160 net.cpp:156] Memory required for data: 36412
I0924 02:47:29.074993  4154 net.cpp:141] Setting up lstm2
I0924 02:47:29.075021  4160 layer_factory.hpp:77] Creating layer predict
I0924 02:47:29.075036  4154 net.cpp:148] Top shape: 1 1 1000 (1000)
I0924 02:47:29.075047  4154 net.cpp:156] Memory required for data: 36412
I0924 02:47:29.075050  4160 net.cpp:91] Creating Layer predict
I0924 02:47:29.075064  4160 net.cpp:425] predict <- lstm2
I0924 02:47:29.075078  4154 layer_factory.hpp:77] Creating layer predict
I0924 02:47:29.075083  4160 net.cpp:399] predict -> predict
I0924 02:47:29.075103  4154 net.cpp:91] Creating Layer predict
I0924 02:47:29.075115  4154 net.cpp:425] predict <- lstm2
I0924 02:47:29.075134  4154 net.cpp:399] predict -> predict
I0924 02:47:29.245952  4178 net.cpp:141] Setting up lstm2_x_transform
I0924 02:47:29.246011  4178 net.cpp:148] Top shape: 1 1 4000 (4000)
I0924 02:47:29.246021  4178 net.cpp:156] Memory required for data: 30020
I0924 02:47:29.246045  4178 layer_factory.hpp:77] Creating layer lstm2_W_xc_x_slice
I0924 02:47:29.246068  4178 net.cpp:91] Creating Layer lstm2_W_xc_x_slice
I0924 02:47:29.246078  4178 net.cpp:425] lstm2_W_xc_x_slice <- W_xc_x
I0924 02:47:29.246096  4178 net.cpp:399] lstm2_W_xc_x_slice -> W_xc_x_1
I0924 02:47:29.247005  4178 net.cpp:141] Setting up lstm2_W_xc_x_slice
I0924 02:47:29.247053  4178 net.cpp:148] Top shape: 1 1 4000 (4000)
I0924 02:47:29.247059  4178 net.cpp:156] Memory required for data: 46020
I0924 02:47:29.247068  4178 layer_factory.hpp:77] Creating layer lstm2_h_conted_0
I0924 02:47:29.247087  4178 net.cpp:91] Creating Layer lstm2_h_conted_0
I0924 02:47:29.247094  4178 net.cpp:425] lstm2_h_conted_0 <- h_0
I0924 02:47:29.247103  4178 net.cpp:425] lstm2_h_conted_0 <- cont_1_lstm2_cont_slice_0_split_0
I0924 02:47:29.247113  4178 net.cpp:399] lstm2_h_conted_0 -> h_conted_0
I0924 02:47:29.248819  4178 net.cpp:141] Setting up lstm2_h_conted_0
I0924 02:47:29.248848  4178 net.cpp:148] Top shape: 1 1 1000 (1000)
I0924 02:47:29.248854  4178 net.cpp:156] Memory required for data: 50020
I0924 02:47:29.248860  4178 layer_factory.hpp:77] Creating layer lstm2_transform_1
I0924 02:47:29.248879  4178 net.cpp:91] Creating Layer lstm2_transform_1
I0924 02:47:29.248884  4178 net.cpp:425] lstm2_transform_1 <- h_conted_0
I0924 02:47:29.248898  4178 net.cpp:399] lstm2_transform_1 -> W_hc_h_0
I0924 02:47:29.284155  4172 net.cpp:141] Setting up predict
I0924 02:47:29.284207  4172 net.cpp:148] Top shape: 1 1 46168 (46168)
I0924 02:47:29.284214  4172 net.cpp:156] Memory required for data: 221084
I0924 02:47:29.284230  4172 layer_factory.hpp:77] Creating layer probs
I0924 02:47:29.284251  4172 net.cpp:91] Creating Layer probs
I0924 02:47:29.284260  4172 net.cpp:425] probs <- predict
I0924 02:47:29.284271  4172 net.cpp:399] probs -> probs
I0924 02:47:29.304913  4178 net.cpp:141] Setting up lstm2_transform_1
I0924 02:47:29.305425  4178 net.cpp:148] Top shape: 1 1 4000 (4000)
I0924 02:47:29.305572  4178 net.cpp:156] Memory required for data: 66020
I0924 02:47:29.305761  4178 layer_factory.hpp:77] Creating layer lstm2_gate_input_1
I0924 02:47:29.305934  4178 net.cpp:91] Creating Layer lstm2_gate_input_1
I0924 02:47:29.306082  4178 net.cpp:425] lstm2_gate_input_1 <- W_hc_h_0
I0924 02:47:29.306104  4178 net.cpp:425] lstm2_gate_input_1 <- W_xc_x_1
I0924 02:47:29.306123  4178 net.cpp:399] lstm2_gate_input_1 -> gate_input_1
I0924 02:47:29.307204  4178 net.cpp:141] Setting up lstm2_gate_input_1
I0924 02:47:29.307489  4178 net.cpp:148] Top shape: 1 1 4000 (4000)
I0924 02:47:29.307623  4178 net.cpp:156] Memory required for data: 82020
I0924 02:47:29.307752  4178 layer_factory.hpp:77] Creating layer lstm2_unit_1
I0924 02:47:29.307893  4178 net.cpp:91] Creating Layer lstm2_unit_1
I0924 02:47:29.308018  4178 net.cpp:425] lstm2_unit_1 <- c_0
I0924 02:47:29.308200  4178 net.cpp:425] lstm2_unit_1 <- gate_input_1
I0924 02:47:29.308374  4178 net.cpp:425] lstm2_unit_1 <- cont_1_lstm2_cont_slice_0_split_1
I0924 02:47:29.308514  4178 net.cpp:399] lstm2_unit_1 -> c_1
I0924 02:47:29.308657  4178 net.cpp:399] lstm2_unit_1 -> h_1
I0924 02:47:29.309309  4178 net.cpp:141] Setting up lstm2_unit_1
I0924 02:47:29.309514  4178 net.cpp:148] Top shape: 1 1 1000 (1000)
I0924 02:47:29.309648  4178 net.cpp:148] Top shape: 1 1 1000 (1000)
I0924 02:47:29.309897  4178 net.cpp:156] Memory required for data: 90020
I0924 02:47:29.310122  4178 layer_factory.hpp:77] Creating layer lstm2_
I0924 02:47:29.310137  4172 net.cpp:141] Setting up probs
I0924 02:47:29.310312  4178 net.cpp:91] Creating Layer lstm2_
I0924 02:47:29.310462  4172 net.cpp:148] Top shape: 1 1 46168 (46168)
I0924 02:47:29.310624  4172 net.cpp:156] Memory required for data: 405756
I0924 02:47:29.310657  4172 net.cpp:219] probs does not need backward computation.
I0924 02:47:29.310665  4172 net.cpp:219] predict does not need backward computation.
I0924 02:47:29.310677  4172 net.cpp:219] lstm2 does not need backward computation.
I0924 02:47:29.310685  4172 net.cpp:219] concat does not need backward computation.
I0924 02:47:29.310695  4172 net.cpp:219] lstm1 does not need backward computation.
I0924 02:47:29.310705  4172 net.cpp:219] embedding does not need backward computation.
I0924 02:47:29.310714  4172 net.cpp:219] reshape_stage_indicator does not need backward computation.
I0924 02:47:29.310721  4172 net.cpp:219] reshape_frames does not need backward computation.
I0924 02:47:29.310729  4172 net.cpp:219] embed_encoder does not need backward computation.
I0924 02:47:29.310623  4178 net.cpp:425] lstm2_ <- c_1
I0924 02:47:29.310755  4172 net.cpp:219] cont_sentence_input_1_split does not need backward computation.
I0924 02:47:29.310783  4172 net.cpp:219] input does not need backward computation.
I0924 02:47:29.310791  4178 net.cpp:399] lstm2_ -> c_T
I0924 02:47:29.310791  4172 net.cpp:261] This network produces output probs
I0924 02:47:29.310843  4172 net.cpp:274] Network initialization done.
I0924 02:47:29.311004  4178 net.cpp:141] Setting up lstm2_
I0924 02:47:29.311027  4178 net.cpp:148] Top shape: 1 1 1000 (1000)
I0924 02:47:29.311035  4178 net.cpp:156] Memory required for data: 94020
I0924 02:47:29.311045  4178 layer_factory.hpp:77] Creating layer lstm2_h_concat
I0924 02:47:29.311064  4178 net.cpp:91] Creating Layer lstm2_h_concat
I0924 02:47:29.311071  4178 net.cpp:425] lstm2_h_concat <- h_1
I0924 02:47:29.311089  4178 net.cpp:399] lstm2_h_concat -> h
I0924 02:47:29.311234  4178 net.cpp:141] Setting up lstm2_h_concat
I0924 02:47:29.311250  4178 net.cpp:148] Top shape: 1 1 1000 (1000)
I0924 02:47:29.311257  4178 net.cpp:156] Memory required for data: 98020
I0924 02:47:29.311265  4178 layer_factory.hpp:77] Creating layer h_pseudoloss
I0924 02:47:29.311290  4178 net.cpp:91] Creating Layer h_pseudoloss
I0924 02:47:29.311298  4178 net.cpp:425] h_pseudoloss <- h
I0924 02:47:29.311311  4178 net.cpp:399] h_pseudoloss -> h_pseudoloss
I0924 02:47:29.312357  4158 net.cpp:141] Setting up conv1
I0924 02:47:29.312387  4158 net.cpp:148] Top shape: 10 96 55 55 (2904000)
I0924 02:47:29.312397  4158 net.cpp:156] Memory required for data: 17799480
I0924 02:47:29.312432  4158 layer_factory.hpp:77] Creating layer relu1
I0924 02:47:29.312923  4158 net.cpp:91] Creating Layer relu1
I0924 02:47:29.312923  4178 net.cpp:141] Setting up h_pseudoloss
I0924 02:47:29.312943  4158 net.cpp:425] relu1 <- conv1
I0924 02:47:29.312955  4178 net.cpp:148] Top shape: (1)
…
I0924 02:47:29.313104  4178 net.cpp:219] lstm2_ does not need backward computation.
I0924 02:47:29.313110  4178 net.cpp:261] This network produces output c_T
I0924 02:47:29.313118  4178 net.cpp:261] This network produces output h_pseudoloss
I0924 02:47:29.313148  4178 net.cpp:274] Network initialization done.
I0924 02:47:29.313264  4178 recurrent_layer.cpp:150] Adding parameter 0: W_xc
I0924 02:47:29.313277  4178 recurrent_layer.cpp:150] Adding parameter 1: b_c
I0924 02:47:29.313284  4178 recurrent_layer.cpp:150] Adding parameter 2: W_hc
I0924 02:47:29.313551  4178 net.cpp:141] Setting up lstm2
I0924 02:47:29.313572  4178 net.cpp:148] Top shape: 1 1 1000 (1000)
I0924 02:47:29.313580  4178 net.cpp:156] Memory required for data: 36412
I0924 02:47:29.314690  4178 layer_factory.hpp:77] Creating layer predict
I0924 02:47:29.314697  4158 net.cpp:141] Setting up relu1
I0924 02:47:29.314719  4178 net.cpp:91] Creating Layer predict
I0924 02:47:29.314731  4158 net.cpp:148] Top shape: 10 96 55 55 (2904000)
I0924 02:47:29.314733  4178 net.cpp:425] predict <- lstm2
I0924 02:47:29.314749  4158 net.cpp:156] Memory required for data: 29415480
I0924 02:47:29.314762  4178 net.cpp:399] predict -> predict
I0924 02:47:29.314765  4158 layer_factory.hpp:77] Creating layer pool1
I0924 02:47:29.314792  4158 net.cpp:91] Creating Layer pool1
I0924 02:47:29.314802  4158 net.cpp:425] pool1 <- conv1
I0924 02:47:29.314817  4158 net.cpp:399] pool1 -> pool1
I0924 02:47:29.414517  4158 net.cpp:141] Setting up pool1
I0924 02:47:29.414575  4158 net.cpp:148] Top shape: 10 96 27 27 (699840)
I0924 02:47:29.414582  4158 net.cpp:156] Memory required for data: 32214840
I0924 02:47:29.414592  4158 layer_factory.hpp:77] Creating layer norm1
I0924 02:47:29.415102  4158 net.cpp:91] Creating Layer norm1
I0924 02:47:29.415119  4158 net.cpp:425] norm1 <- pool1
I0924 02:47:29.415134  4158 net.cpp:399] norm1 -> norm1
I0924 02:47:29.416275  4158 net.cpp:141] Setting up norm1
I0924 02:47:29.416297  4158 net.cpp:148] Top shape: 10 96 27 27 (699840)
I0924 02:47:29.416306  4158 net.cpp:156] Memory required for data: 35014200
I0924 02:47:29.416314  4158 layer_factory.hpp:77] Creating layer conv2
I0924 02:47:29.416348  4158 net.cpp:91] Creating Layer conv2
I0924 02:47:29.416357  4158 net.cpp:425] conv2 <- norm1
I0924 02:47:29.416369  4158 net.cpp:399] conv2 -> conv2
I0924 02:47:29.423421  4158 net.cpp:141] Setting up conv2
I0924 02:47:29.423475  4158 net.cpp:148] Top shape: 10 256 27 27 (1866240)
I0924 02:47:29.423485  4158 net.cpp:156] Memory required for data: 42479160
I0924 02:47:29.423509  4158 layer_factory.hpp:77] Creating layer relu2
I0924 02:47:29.423532  4158 net.cpp:91] Creating Layer relu2
I0924 02:47:29.423542  4158 net.cpp:425] relu2 <- conv2
I0924 02:47:29.423557  4158 net.cpp:386] relu2 -> conv2 (in-place)
I0924 02:47:29.423933  4158 net.cpp:141] Setting up relu2
I0924 02:47:29.423949  4158 net.cpp:148] Top shape: 10 256 27 27 (1866240)
I0924 02:47:29.423956  4158 net.cpp:156] Memory required for data: 49944120
I0924 02:47:29.423965  4158 layer_factory.hpp:77] Creating layer pool2
I0924 02:47:29.423990  4158 net.cpp:91] Creating Layer pool2
I0924 02:47:29.424000  4158 net.cpp:425] pool2 <- conv2
I0924 02:47:29.424011  4158 net.cpp:399] pool2 -> pool2
I0924 02:47:29.424104  4158 net.cpp:141] Setting up pool2
I0924 02:47:29.424118  4158 net.cpp:148] Top shape: 10 256 13 13 (432640)
I0924 02:47:29.424126  4158 net.cpp:156] Memory required for data: 51674680
I0924 02:47:29.424136  4158 layer_factory.hpp:77] Creating layer norm2
I0924 02:47:29.424157  4158 net.cpp:91] Creating Layer norm2
I0924 02:47:29.424165  4158 net.cpp:425] norm2 <- pool2
I0924 02:47:29.424176  4158 net.cpp:399] norm2 -> norm2
I0924 02:47:29.424799  4158 net.cpp:141] Setting up norm2
I0924 02:47:29.424823  4158 net.cpp:148] Top shape: 10 256 13 13 (432640)
I0924 02:47:29.424831  4158 net.cpp:156] Memory required for data: 53405240
I0924 02:47:29.424839  4158 layer_factory.hpp:77] Creating layer conv3
I0924 02:47:29.424857  4158 net.cpp:91] Creating Layer conv3
I0924 02:47:29.424865  4158 net.cpp:425] conv3 <- norm2
I0924 02:47:29.424907  4158 net.cpp:399] conv3 -> conv3
I0924 02:47:29.432703  4158 net.cpp:141] Setting up conv3
I0924 02:47:29.432782  4158 net.cpp:148] Top shape: 10 384 13 13 (648960)
I0924 02:47:29.432799  4158 net.cpp:156] Memory required for data: 56001080
I0924 02:47:29.432855  4158 layer_factory.hpp:77] Creating layer relu3
I0924 02:47:29.432894  4158 net.cpp:91] Creating Layer relu3
I0924 02:47:29.432914  4158 net.cpp:425] relu3 <- conv3
I0924 02:47:29.432934  4158 net.cpp:386] relu3 -> conv3 (in-place)
I0924 02:47:29.433784  4158 net.cpp:141] Setting up relu3
I0924 02:47:29.433810  4158 net.cpp:148] Top shape: 10 384 13 13 (648960)
I0924 02:47:29.433820  4158 net.cpp:156] Memory required for data: 58596920
I0924 02:47:29.433828  4158 layer_factory.hpp:77] Creating layer conv4
I0924 02:47:29.433852  4158 net.cpp:91] Creating Layer conv4
I0924 02:47:29.433861  4158 net.cpp:425] conv4 <- conv3
I0924 02:47:29.434350  4158 net.cpp:399] conv4 -> conv4
I0924 02:47:29.444799  4158 net.cpp:141] Setting up conv4
I0924 02:47:29.444854  4158 net.cpp:148] Top shape: 10 384 13 13 (648960)
I0924 02:47:29.444864  4158 net.cpp:156] Memory required for data: 61192760
I0924 02:47:29.444890  4158 layer_factory.hpp:77] Creating layer relu4
I0924 02:47:29.444916  4158 net.cpp:91] Creating Layer relu4
I0924 02:47:29.444924  4158 net.cpp:425] relu4 <- conv4
I0924 02:47:29.444936  4158 net.cpp:386] relu4 -> conv4 (in-place)
I0924 02:47:29.445288  4158 net.cpp:141] Setting up relu4
I0924 02:47:29.445303  4158 net.cpp:148] Top shape: 10 384 13 13 (648960)
I0924 02:47:29.445310  4158 net.cpp:156] Memory required for data: 63788600
I0924 02:47:29.445319  4158 layer_factory.hpp:77] Creating layer conv5
I0924 02:47:29.445827  4158 net.cpp:91] Creating Layer conv5
I0924 02:47:29.445842  4158 net.cpp:425] conv5 <- conv4
I0924 02:47:29.445855  4158 net.cpp:399] conv5 -> conv5
I0924 02:47:29.452636  4158 net.cpp:141] Setting up conv5
I0924 02:47:29.452692  4158 net.cpp:148] Top shape: 10 256 13 13 (432640)
…
I0924 02:48:40.122119  4414 net.cpp:148] Top shape: 1 1 1000 (1000)
I0924 02:48:40.122129  4414 net.cpp:156] Memory required for data: 94020
I0924 02:48:40.122138  4414 layer_factory.hpp:77] Creating layer lstm2_h_concat
I0924 02:48:40.122141  4410 net.cpp:91] Creating Layer cont_1_lstm2_cont_slice_0_split
I0924 02:48:40.122155  4414 net.cpp:91] Creating Layer lstm2_h_concat
I0924 02:48:40.122156  4410 net.cpp:425] cont_1_lstm2_cont_slice_0_split <- cont_1
I0924 02:48:40.122179  4414 net.cpp:425] lstm2_h_concat <- h_1
I0924 02:48:40.122192  4410 net.cpp:399] cont_1_lstm2_cont_slice_0_split -> cont_1_lstm2_cont_slice_0_split_0
I0924 02:48:40.122200  4414 net.cpp:399] lstm2_h_concat -> h
I0924 02:48:40.122215  4410 net.cpp:399] cont_1_lstm2_cont_slice_0_split -> cont_1_lstm2_cont_slice_0_split_1
I0924 02:48:40.122351  4414 net.cpp:141] Setting up lstm2_h_concat
I0924 02:48:40.122370  4414 net.cpp:148] Top shape: 1 1 1000 (1000)
I0924 02:48:40.122378  4414 net.cpp:156] Memory required for data: 98020
I0924 02:48:40.122387  4414 layer_factory.hpp:77] Creating layer h_pseudoloss
I0924 02:48:40.122413  4414 net.cpp:91] Creating Layer h_pseudoloss
I0924 02:48:40.122426  4414 net.cpp:425] h_pseudoloss <- h
I0924 02:48:40.122429  4420 net.cpp:141] Setting up lstm1_h_conted_0
I0924 02:48:40.122439  4414 net.cpp:399] h_pseudoloss -> h_pseudoloss
I0924 02:48:40.122465  4420 net.cpp:148] Top shape: 1 1 1000 (1000)
I0924 02:48:40.122478  4420 net.cpp:156] Memory required for data: 46016
I0924 02:48:40.122488  4420 layer_factory.hpp:77] Creating layer lstm1_transform_1
I0924 02:48:40.122511  4420 net.cpp:91] Creating Layer lstm1_transform_1
I0924 02:48:40.122524  4420 net.cpp:425] lstm1_transform_1 <- h_conted_0
I0924 02:48:40.122540  4420 net.cpp:399] lstm1_transform_1 -> W_hc_h_0
I0924 02:48:40.122625  4414 net.cpp:141] Setting up h_pseudoloss
I0924 02:48:40.122647  4414 net.cpp:148] Top shape: (1)
I0924 02:48:40.122656  4414 net.cpp:151]     with loss weight 1
I0924 02:48:40.122669  4410 net.cpp:141] Setting up cont_1_lstm2_cont_slice_0_split
I0924 02:48:40.122676  4414 net.cpp:156] Memory required for data: 98024
I0924 02:48:40.122701  4410 net.cpp:148] Top shape: 1 1 (1)
I0924 02:48:40.122701  4414 net.cpp:217] h_pseudoloss needs backward computation.
I0924 02:48:40.122725  4410 net.cpp:148] Top shape: 1 1 (1)
I0924 02:48:40.122730  4414 net.cpp:217] lstm2_h_concat needs backward computation.
I0924 02:48:40.122738  4410 net.cpp:156] Memory required for data: 14020
I0924 02:48:40.122740  4414 net.cpp:219] lstm2_ does not need backward computation.
I0924 02:48:40.122757  4410 layer_factory.hpp:77] Creating layer lstm2_x_transform
I0924 02:48:40.122766  4414 net.cpp:217] lstm2_unit_1 needs backward computation.
…
I0924 02:48:40.122877  4414 net.cpp:219] lstm2_ does not need backward computation.
I0924 02:48:40.122885  4414 net.cpp:261] This network produces output c_T
I0924 02:48:40.122895  4414 net.cpp:261] This network produces output h_pseudoloss
I0924 02:48:40.122930  4414 net.cpp:274] Network initialization done.
I0924 02:48:40.123008  4414 recurrent_layer.cpp:150] Adding parameter 0: W_xc
I0924 02:48:40.123023  4414 recurrent_layer.cpp:150] Adding parameter 1: b_c
I0924 02:48:40.123034  4414 recurrent_layer.cpp:150] Adding parameter 2: W_hc
I0924 02:48:40.145025  4414 net.cpp:141] Setting up lstm2
I0924 02:48:40.145081  4414 net.cpp:148] Top shape: 1 1 1000 (1000)
I0924 02:48:40.145089  4414 net.cpp:156] Memory required for data: 36412
I0924 02:48:40.145120  4414 layer_factory.hpp:77] Creating layer predict
I0924 02:48:40.145148  4414 net.cpp:91] Creating Layer predict
I0924 02:48:40.145159  4414 net.cpp:425] predict <- lstm2
I0924 02:48:40.145174  4414 net.cpp:399] predict -> predict
I0924 02:48:40.246898  4432 net.cpp:141] Setting up lstm2_x_transform
I0924 02:48:40.246950  4432 net.cpp:148] Top shape: 1 1 4000 (4000)
I0924 02:48:40.246959  4432 net.cpp:156] Memory required for data: 30020
I0924 02:48:40.246987  4432 layer_factory.hpp:77] Creating layer lstm2_W_xc_x_slice
I0924 02:48:40.247009  4432 net.cpp:91] Creating Layer lstm2_W_xc_x_slice
I0924 02:48:40.247020  4432 net.cpp:425] lstm2_W_xc_x_slice <- W_xc_x
I0924 02:48:40.247038  4432 net.cpp:399] lstm2_W_xc_x_slice -> W_xc_x_1
I0924 02:48:40.247100  4432 net.cpp:141] Setting up lstm2_W_xc_x_slice
I0924 02:48:40.247115  4432 net.cpp:148] Top shape: 1 1 4000 (4000)
I0924 02:48:40.247123  4432 net.cpp:156] Memory required for data: 46020
I0924 02:48:40.247129  4432 layer_factory.hpp:77] Creating layer lstm2_h_conted_0
I0924 02:48:40.247143  4432 net.cpp:91] Creating Layer lstm2_h_conted_0
I0924 02:48:40.247153  4432 net.cpp:425] lstm2_h_conted_0 <- h_0
I0924 02:48:40.247161  4432 net.cpp:425] lstm2_h_conted_0 <- cont_1_lstm2_cont_slice_0_split_0
I0924 02:48:40.247179  4432 net.cpp:399] lstm2_h_conted_0 -> h_conted_0
I0924 02:48:40.247325  4432 net.cpp:141] Setting up lstm2_h_conted_0
I0924 02:48:40.247340  4432 net.cpp:148] Top shape: 1 1 1000 (1000)
I0924 02:48:40.247346  4432 net.cpp:156] Memory required for data: 50020
I0924 02:48:40.247355  4432 layer_factory.hpp:77] Creating layer lstm2_transform_1
I0924 02:48:40.247377  4432 net.cpp:91] Creating Layer lstm2_transform_1
I0924 02:48:40.247385  4432 net.cpp:425] lstm2_transform_1 <- h_conted_0
I0924 02:48:40.247398  4432 net.cpp:399] lstm2_transform_1 -> W_hc_h_0
I0924 02:48:40.258496  4420 net.cpp:141] Setting up lstm1_transform_1
I0924 02:48:40.258559  4420 net.cpp:148] Top shape: 1 1 4000 (4000)
I0924 02:48:40.258569  4420 net.cpp:156] Memory required for data: 62016
I0924 02:48:40.258633  4420 layer_factory.hpp:77] Creating layer lstm1_gate_input_1
I0924 02:48:40.258664  4420 net.cpp:91] Creating Layer lstm1_gate_input_1
I0924 02:48:40.258674  4420 net.cpp:425] lstm1_gate_input_1 <- W_hc_h_0
I0924 02:48:40.258687  4420 net.cpp:425] lstm1_gate_input_1 <- W_xc_x_1
I0924 02:48:40.258699  4420 net.cpp:399] lstm1_gate_input_1 -> gate_input_1
I0924 02:48:40.258770  4420 net.cpp:141] Setting up lstm1_gate_input_1
I0924 02:48:40.258785  4420 net.cpp:148] Top shape: 1 1 4000 (4000)
I0924 02:48:40.258790  4420 net.cpp:156] Memory required for data: 78016
I0924 02:48:40.258797  4420 layer_factory.hpp:77] Creating layer lstm1_unit_1
I0924 02:48:40.258813  4420 net.cpp:91] Creating Layer lstm1_unit_1
I0924 02:48:40.258821  4420 net.cpp:425] lstm1_unit_1 <- c_0
I0924 02:48:40.258831  4420 net.cpp:425] lstm1_unit_1 <- gate_input_1
I0924 02:48:40.258838  4420 net.cpp:425] lstm1_unit_1 <- cont_1_lstm1_cont_slice_0_split_1
I0924 02:48:40.258848  4420 net.cpp:399] lstm1_unit_1 -> c_1
I0924 02:48:40.258860  4420 net.cpp:399] lstm1_unit_1 -> h_1
I0924 02:48:40.258965  4420 net.cpp:141] Setting up lstm1_unit_1
I0924 02:48:40.258981  4420 net.cpp:148] Top shape: 1 1 1000 (1000)
I0924 02:48:40.258991  4420 net.cpp:148] Top shape: 1 1 1000 (1000)
I0924 02:48:40.258999  4420 net.cpp:156] Memory required for data: 86016
I0924 02:48:40.259007  4420 layer_factory.hpp:77] Creating layer lstm1_
I0924 02:48:40.259021  4420 net.cpp:91] Creating Layer lstm1_
I0924 02:48:40.259029  4420 net.cpp:425] lstm1_ <- c_1
I0924 02:48:40.259040  4420 net.cpp:399] lstm1_ -> c_T
I0924 02:48:40.259099  4420 net.cpp:141] Setting up lstm1_
I0924 02:48:40.259119  4420 net.cpp:148] Top shape: 1 1 1000 (1000)
I0924 02:48:40.259126  4420 net.cpp:156] Memory required for data: 90016
I0924 02:48:40.259135  4420 layer_factory.hpp:77] Creating layer lstm1_h_concat
I0924 02:48:40.259155  4420 net.cpp:91] Creating Layer lstm1_h_concat
I0924 02:48:40.259163  4420 net.cpp:425] lstm1_h_concat <- h_1
I0924 02:48:40.259173  4420 net.cpp:399] lstm1_h_concat -> h
I0924 02:48:40.259227  4420 net.cpp:141] Setting up lstm1_h_concat
I0924 02:48:40.259239  4420 net.cpp:148] Top shape: 1 1 1000 (1000)
I0924 02:48:40.259245  4420 net.cpp:156] Memory required for data: 94016
I0924 02:48:40.259253  4420 layer_factory.hpp:77] Creating layer h_pseudoloss
I0924 02:48:40.259264  4420 net.cpp:91] Creating Layer h_pseudoloss
I0924 02:48:40.259271  4420 net.cpp:425] h_pseudoloss <- h
I0924 02:48:40.259289  4420 net.cpp:399] h_pseudoloss -> h_pseudoloss
I0924 02:48:40.259420  4420 net.cpp:141] Setting up h_pseudoloss
…
I0924 02:48:40.259577  4420 net.cpp:219] lstm1_ does not need backward computation.
I0924 02:48:40.259582  4420 net.cpp:261] This network produces output c_T
I0924 02:48:40.259590  4420 net.cpp:261] This network produces output h_pseudoloss
I0924 02:48:40.259615  4420 net.cpp:274] Network initialization done.
I0924 02:48:40.259685  4420 recurrent_layer.cpp:150] Adding parameter 0: W_xc
I0924 02:48:40.259693  4420 recurrent_layer.cpp:150] Adding parameter 1: b_c
I0924 02:48:40.259701  4420 recurrent_layer.cpp:150] Adding parameter 2: W_hc
I0924 02:48:40.259855  4420 net.cpp:141] Setting up lstm1
I0924 02:48:40.259871  4420 net.cpp:148] Top shape: 1 1 1000 (1000)
I0924 02:48:40.259877  4420 net.cpp:156] Memory required for data: 26408
I0924 02:48:40.259899  4420 layer_factory.hpp:77] Creating layer concat
I0924 02:48:40.259914  4420 net.cpp:91] Creating Layer concat
I0924 02:48:40.259924  4420 net.cpp:425] concat <- lstm1
I0924 02:48:40.259934  4420 net.cpp:425] concat <- embedded_input_sentence
I0924 02:48:40.259945  4420 net.cpp:425] concat <- reshaped_stage_indicator
I0924 02:48:40.259958  4420 net.cpp:399] concat -> lstm1_video_sequence
I0924 02:48:40.260010  4420 net.cpp:141] Setting up concat
I0924 02:48:40.260023  4420 net.cpp:148] Top shape: 1 1 1501 (1501)
I0924 02:48:40.260030  4420 net.cpp:156] Memory required for data: 32412
I0924 02:48:40.260037  4420 layer_factory.hpp:77] Creating layer lstm2
I0924 02:48:40.260056  4420 net.cpp:91] Creating Layer lstm2
I0924 02:48:40.260063  4420 net.cpp:425] lstm2 <- lstm1_video_sequence
I0924 02:48:40.260072  4420 net.cpp:425] lstm2 <- cont_sentence_input_1_split_1
I0924 02:48:40.260083  4420 net.cpp:399] lstm2 -> lstm2
I0924 02:48:40.260098  4420 recurrent_layer.cpp:20] Initializing recurrent layer: assuming input batch contains 1 timesteps of 1 independent streams.
I0924 02:48:40.260459  4420 net.cpp:49] Initializing net from parameters: 
layer {
  name: "lstm2_"
  type: "Input"
  top: "x"
  top: "cont"
  input_param {
    shape {
      dim: 1
      dim: 1
      dim: 1501
    }
    shape {
      dim: 1
      dim: 1
    }
  }
}
layer {
  name: "lstm2_"
  type: "Input"
  top: "c_0"
  top: "h_0"
  input_param {
    shape {
      dim: 1
      dim: 1
      dim: 1000
    }
    shape {
      dim: 1
      dim: 1
      dim: 1000
    }
  }
}
layer {
  name: "lstm2_cont_slice"
  type: "Slice"
  bottom: "cont"
  top: "cont_1"
  slice_param {
    axis: 0
  }
}
layer {
  name: "lstm2_x_transform"
  type: "InnerProduct"
  bottom: "x"
  top: "W_xc_x"
  param {
    name: "W_xc"
  }
  param {
    name: "b_c"
  }
  propagate_down: true
  inner_product_param {
    num_output: 4000
    bias_term: true
    weight_filler {
      type: "uniform"
      min: -0.08
      max: 0.08
    }
    bias_filler {
      type: "constant"
      value: 0
    }
    axis: 2
  }
}
layer {
  name: "lstm2_W_xc_x_slice"
  type: "Slice"
  bottom: "W_xc_x"
  top: "W_xc_x_1"
  slice_param {
    axis: 0
  }
}
layer {
  name: "lstm2_h_conted_0"
  type: "Scale"
  bottom: "h_0"
  bottom: "cont_1"
  top: "h_conted_0"
  scale_param {
    axis: 0
  }
}
layer {
  name: "lstm2_transform_1"
  type: "InnerProduct"
  bottom: "h_conted_0"
  top: "W_hc_h_0"
  param {
    name: "W_hc"
  }
  inner_product_param {
    num_output: 4000
    bias_term: false
    weight_filler {
      type: "uniform"
      min: -0.08
      max: 0.08
    }
    axis: 2
  }
}
layer {
  name: "lstm2_gate_input_1"
  type: "Eltwise"
  bottom: "W_hc_h_0"
  bottom: "W_xc_x_1"
  top: "gate_input_1"
  eltwise_param {
    operation: SUM
  }
}
layer {
  name: "lstm2_unit_1"
  type: "LSTMUnit"
  bottom: "c_0"
  bottom: "gate_input_1"
  bottom: "cont_1"
  top: "c_1"
  top: "h_1"
}
layer {
  name: "lstm2_"
  type: "Split"
  bottom: "c_1"
  top: "c_T"
}
layer {
  name: "lstm2_h_concat"
  type: "Concat"
  bottom: "h_1"
  top: "h"
  concat_param {
    axis: 0
  }
}
layer {
  name: "h_pseudoloss"
  type: "Reduction"
  bottom: "h"
  top: "h_pseudoloss"
  loss_weight: 1
}
I0924 02:48:40.260587  4420 layer_factory.hpp:77] Creating layer lstm2_
I0924 02:48:40.260604  4420 net.cpp:91] Creating Layer lstm2_
I0924 02:48:40.260614  4420 net.cpp:399] lstm2_ -> x
I0924 02:48:40.260629  4420 net.cpp:399] lstm2_ -> cont
I0924 02:48:40.260709  4420 net.cpp:141] Setting up lstm2_
I0924 02:48:40.260722  4420 net.cpp:148] Top shape: 1 1 1501 (1501)
I0924 02:48:40.260731  4420 net.cpp:148] Top shape: 1 1 (1)
I0924 02:48:40.260738  4420 net.cpp:156] Memory required for data: 6008
I0924 02:48:40.260746  4420 layer_factory.hpp:77] Creating layer lstm2_
I0924 02:48:40.260757  4420 net.cpp:91] Creating Layer lstm2_
I0924 02:48:40.260767  4420 net.cpp:399] lstm2_ -> c_0
I0924 02:48:40.260783  4420 net.cpp:399] lstm2_ -> h_0
I0924 02:48:40.260862  4420 net.cpp:141] Setting up lstm2_
I0924 02:48:40.260875  4420 net.cpp:148] Top shape: 1 1 1000 (1000)
I0924 02:48:40.260884  4420 net.cpp:148] Top shape: 1 1 1000 (1000)
I0924 02:48:40.260890  4420 net.cpp:156] Memory required for data: 14008
I0924 02:48:40.260896  4420 layer_factory.hpp:77] Creating layer lstm2_cont_slice
I0924 02:48:40.260908  4420 net.cpp:91] Creating Layer lstm2_cont_slice
I0924 02:48:40.260915  4420 net.cpp:425] lstm2_cont_slice <- cont
I0924 02:48:40.260929  4420 net.cpp:399] lstm2_cont_slice -> cont_1
I0924 02:48:40.260979  4420 net.cpp:141] Setting up lstm2_cont_slice
I0924 02:48:40.260993  4420 net.cpp:148] Top shape: 1 1 (1)
I0924 02:48:40.260998  4420 net.cpp:156] Memory required for data: 14012
I0924 02:48:40.261005  4420 layer_factory.hpp:77] Creating layer cont_1_lstm2_cont_slice_0_split
I0924 02:48:40.261018  4420 net.cpp:91] Creating Layer cont_1_lstm2_cont_slice_0_split
I0924 02:48:40.261024  4420 net.cpp:425] cont_1_lstm2_cont_slice_0_split <- cont_1
I0924 02:48:40.261034  4420 net.cpp:399] cont_1_lstm2_cont_slice_0_split -> cont_1_lstm2_cont_slice_0_split_0
I0924 02:48:40.261046  4420 net.cpp:399] cont_1_lstm2_cont_slice_0_split -> cont_1_lstm2_cont_slice_0_split_1
I0924 02:48:40.261117  4420 net.cpp:141] Setting up cont_1_lstm2_cont_slice_0_split
I0924 02:48:40.261129  4420 net.cpp:148] Top shape: 1 1 (1)
I0924 02:48:40.261138  4420 net.cpp:148] Top shape: 1 1 (1)
I0924 02:48:40.261144  4420 net.cpp:156] Memory required for data: 14020
I0924 02:48:40.261152  4420 layer_factory.hpp:77] Creating layer lstm2_x_transform
I0924 02:48:40.261169  4420 net.cpp:91] Creating Layer lstm2_x_transform
I0924 02:48:40.261176  4420 net.cpp:425] lstm2_x_transform <- x
I0924 02:48:40.261188  4420 net.cpp:399] lstm2_x_transform -> W_xc_x
I0924 02:48:40.276788  4410 net.cpp:141] Setting up lstm2_x_transform
I0924 02:48:40.276845  4410 net.cpp:148] Top shape: 1 1 4000 (4000)
I0924 02:48:40.276862  4410 net.cpp:156] Memory required for data: 30020
I0924 02:48:40.276901  4410 layer_factory.hpp:77] Creating layer lstm2_W_xc_x_slice
I0924 02:48:40.276931  4410 net.cpp:91] Creating Layer lstm2_W_xc_x_slice
I0924 02:48:40.276940  4410 net.cpp:425] lstm2_W_xc_x_slice <- W_xc_x
I0924 02:48:40.276957  4410 net.cpp:399] lstm2_W_xc_x_slice -> W_xc_x_1
I0924 02:48:40.277036  4410 net.cpp:141] Setting up lstm2_W_xc_x_slice
I0924 02:48:40.277058  4410 net.cpp:148] Top shape: 1 1 4000 (4000)
I0924 02:48:40.277066  4410 net.cpp:156] Memory required for data: 46020
I0924 02:48:40.277076  4410 layer_factory.hpp:77] Creating layer lstm2_h_conted_0
I0924 02:48:40.277093  4410 net.cpp:91] Creating Layer lstm2_h_conted_0
I0924 02:48:40.277106  4410 net.cpp:425] lstm2_h_conted_0 <- h_0
I0924 02:48:40.277118  4410 net.cpp:425] lstm2_h_conted_0 <- cont_1_lstm2_cont_slice_0_split_0
I0924 02:48:40.277132  4410 net.cpp:399] lstm2_h_conted_0 -> h_conted_0
I0924 02:48:40.277308  4410 net.cpp:141] Setting up lstm2_h_conted_0
I0924 02:48:40.277328  4410 net.cpp:148] Top shape: 1 1 1000 (1000)
I0924 02:48:40.277335  4410 net.cpp:156] Memory required for data: 50020
I0924 02:48:40.277344  4410 layer_factory.hpp:77] Creating layer lstm2_transform_1
I0924 02:48:40.277365  4410 net.cpp:91] Creating Layer lstm2_transform_1
I0924 02:48:40.277375  4410 net.cpp:425] lstm2_transform_1 <- h_conted_0
I0924 02:48:40.277391  4410 net.cpp:399] lstm2_transform_1 -> W_hc_h_0
I0924 02:48:40.290751  4438 net.cpp:141] Setting up lstm2_x_transform
I0924 02:48:40.290808  4438 net.cpp:148] Top shape: 1 1 4000 (4000)
I0924 02:48:40.290820  4438 net.cpp:156] Memory required for data: 30020
I0924 02:48:40.290853  4438 layer_factory.hpp:77] Creating layer lstm2_W_xc_x_slice
I0924 02:48:40.290913  4438 net.cpp:91] Creating Layer lstm2_W_xc_x_slice
I0924 02:48:40.290928  4438 net.cpp:425] lstm2_W_xc_x_slice <- W_xc_x
I0924 02:48:40.290956  4438 net.cpp:399] lstm2_W_xc_x_slice -> W_xc_x_1
I0924 02:48:40.293337  4438 net.cpp:141] Setting up lstm2_W_xc_x_slice
I0924 02:48:40.293395  4438 net.cpp:148] Top shape: 1 1 4000 (4000)
I0924 02:48:40.293406  4438 net.cpp:156] Memory required for data: 46020
I0924 02:48:40.293419  4438 layer_factory.hpp:77] Creating layer lstm2_h_conted_0
I0924 02:48:40.293445  4438 net.cpp:91] Creating Layer lstm2_h_conted_0
I0924 02:48:40.293457  4438 net.cpp:425] lstm2_h_conted_0 <- h_0
I0924 02:48:40.293473  4438 net.cpp:425] lstm2_h_conted_0 <- cont_1_lstm2_cont_slice_0_split_0
I0924 02:48:40.293529  4438 net.cpp:399] lstm2_h_conted_0 -> h_conted_0
I0924 02:48:40.321079  4432 net.cpp:141] Setting up lstm2_transform_1
I0924 02:48:40.321221  4438 net.cpp:141] Setting up lstm2_h_conted_0
I0924 02:48:40.321533  4438 net.cpp:148] Top shape: 1 1 1000 (1000)
I0924 02:48:40.321534  4432 net.cpp:148] Top shape: 1 1 4000 (4000)
I0924 02:48:40.321554  4438 net.cpp:156] Memory required for data: 50020
I0924 02:48:40.321558  4432 net.cpp:156] Memory required for data: 66020
I0924 02:48:40.321566  4438 layer_factory.hpp:77] Creating layer lstm2_transform_1
I0924 02:48:40.321581  4432 layer_factory.hpp:77] Creating layer lstm2_gate_input_1
I0924 02:48:40.321599  4438 net.cpp:91] Creating Layer lstm2_transform_1
I0924 02:48:40.321609  4432 net.cpp:91] Creating Layer lstm2_gate_input_1
I0924 02:48:40.321610  4438 net.cpp:425] lstm2_transform_1 <- h_conted_0
I0924 02:48:40.321617  4432 net.cpp:425] lstm2_gate_input_1 <- W_hc_h_0
I0924 02:48:40.321624  4432 net.cpp:425] lstm2_gate_input_1 <- W_xc_x_1
I0924 02:48:40.321626  4438 net.cpp:399] lstm2_transform_1 -> W_hc_h_0
I0924 02:48:40.321635  4432 net.cpp:399] lstm2_gate_input_1 -> gate_input_1
I0924 02:48:40.332831  4432 net.cpp:141] Setting up lstm2_gate_input_1
I0924 02:48:40.332878  4432 net.cpp:148] Top shape: 1 1 4000 (4000)
I0924 02:48:40.332881  4410 net.cpp:141] Setting up lstm2_transform_1
I0924 02:48:40.332886  4432 net.cpp:156] Memory required for data: 82020
I0924 02:48:40.332908  4410 net.cpp:148] Top shape: 1 1 4000 (4000)
I0924 02:48:40.332911  4432 layer_factory.hpp:77] Creating layer lstm2_unit_1
I0924 02:48:40.332922  4410 net.cpp:156] Memory required for data: 66020
I0924 02:48:40.332947  4410 layer_factory.hpp:77] Creating layer lstm2_gate_input_1
I0924 02:48:40.332947  4432 net.cpp:91] Creating Layer lstm2_unit_1
I0924 02:48:40.332967  4432 net.cpp:425] lstm2_unit_1 <- c_0
I0924 02:48:40.332978  4432 net.cpp:425] lstm2_unit_1 <- gate_input_1
I0924 02:48:40.332978  4410 net.cpp:91] Creating Layer lstm2_gate_input_1
I0924 02:48:40.332984  4432 net.cpp:425] lstm2_unit_1 <- cont_1_lstm2_cont_slice_0_split_1
I0924 02:48:40.332988  4410 net.cpp:425] lstm2_gate_input_1 <- W_hc_h_0
I0924 02:48:40.332993  4432 net.cpp:399] lstm2_unit_1 -> c_1
I0924 02:48:40.332999  4410 net.cpp:425] lstm2_gate_input_1 <- W_xc_x_1
I0924 02:48:40.333009  4432 net.cpp:399] lstm2_unit_1 -> h_1
I0924 02:48:40.333011  4410 net.cpp:399] lstm2_gate_input_1 -> gate_input_1
I0924 02:48:40.333148  4410 net.cpp:141] Setting up lstm2_gate_input_1
I0924 02:48:40.333163  4410 net.cpp:148] Top shape: 1 1 4000 (4000)
I0924 02:48:40.333170  4410 net.cpp:156] Memory required for data: 82020
I0924 02:48:40.333179  4410 layer_factory.hpp:77] Creating layer lstm2_unit_1
I0924 02:48:40.333196  4410 net.cpp:91] Creating Layer lstm2_unit_1
I0924 02:48:40.333204  4410 net.cpp:425] lstm2_unit_1 <- c_0
I0924 02:48:40.333214  4410 net.cpp:425] lstm2_unit_1 <- gate_input_1
I0924 02:48:40.333221  4432 net.cpp:141] Setting up lstm2_unit_1
I0924 02:48:40.333225  4410 net.cpp:425] lstm2_unit_1 <- cont_1_lstm2_cont_slice_0_split_1
I0924 02:48:40.333250  4432 net.cpp:148] Top shape: 1 1 1000 (1000)
I0924 02:48:40.333253  4410 net.cpp:399] lstm2_unit_1 -> c_1
I0924 02:48:40.333257  4432 net.cpp:148] Top shape: 1 1 1000 (1000)
I0924 02:48:40.333262  4432 net.cpp:156] Memory required for data: 90020
I0924 02:48:40.333267  4432 layer_factory.hpp:77] Creating layer lstm2_
I0924 02:48:40.333269  4410 net.cpp:399] lstm2_unit_1 -> h_1
I0924 02:48:40.333277  4432 net.cpp:91] Creating Layer lstm2_
I0924 02:48:40.333282  4432 net.cpp:425] lstm2_ <- c_1
I0924 02:48:40.333295  4432 net.cpp:399] lstm2_ -> c_T
I0924 02:48:40.333380  4432 net.cpp:141] Setting up lstm2_
I0924 02:48:40.333391  4432 net.cpp:148] Top shape: 1 1 1000 (1000)
I0924 02:48:40.333396  4432 net.cpp:156] Memory required for data: 94020
I0924 02:48:40.333401  4432 layer_factory.hpp:77] Creating layer lstm2_h_concat
I0924 02:48:40.333412  4432 net.cpp:91] Creating Layer lstm2_h_concat
I0924 02:48:40.333420  4432 net.cpp:425] lstm2_h_concat <- h_1
I0924 02:48:40.333432  4432 net.cpp:399] lstm2_h_concat -> h
I0924 02:48:40.333452  4410 net.cpp:141] Setting up lstm2_unit_1
I0924 02:48:40.333468  4410 net.cpp:148] Top shape: 1 1 1000 (1000)
I0924 02:48:40.333478  4410 net.cpp:148] Top shape: 1 1 1000 (1000)
I0924 02:48:40.333485  4410 net.cpp:156] Memory required for data: 90020
I0924 02:48:40.333489  4432 net.cpp:141] Setting up lstm2_h_concat
I0924 02:48:40.333492  4410 layer_factory.hpp:77] Creating layer lstm2_
I0924 02:48:40.333501  4432 net.cpp:148] Top shape: 1 1 1000 (1000)
I0924 02:48:40.333506  4432 net.cpp:156] Memory required for data: 98020
I0924 02:48:40.333509  4410 net.cpp:91] Creating Layer lstm2_
I0924 02:48:40.333511  4432 layer_factory.hpp:77] Creating layer h_pseudoloss
I0924 02:48:40.333524  4410 net.cpp:425] lstm2_ <- c_1
I0924 02:48:40.333531  4432 net.cpp:91] Creating Layer h_pseudoloss
I0924 02:48:40.333539  4410 net.cpp:399] lstm2_ -> c_T
I0924 02:48:40.333539  4432 net.cpp:425] h_pseudoloss <- h
I0924 02:48:40.333560  4432 net.cpp:399] h_pseudoloss -> h_pseudoloss
I0924 02:48:40.339162  4410 net.cpp:141] Setting up lstm2_
I0924 02:48:40.339673  4410 net.cpp:148] Top shape: 1 1 1000 (1000)
I0924 02:48:40.339829  4410 net.cpp:156] Memory required for data: 94020
I0924 02:48:40.339984  4410 layer_factory.hpp:77] Creating layer lstm2_h_concat
I0924 02:48:40.340207  4410 net.cpp:91] Creating Layer lstm2_h_concat
I0924 02:48:40.340360  4410 net.cpp:425] lstm2_h_concat <- h_1
I0924 02:48:40.340517  4410 net.cpp:399] lstm2_h_concat -> h
I0924 02:48:40.350934  4410 net.cpp:141] Setting up lstm2_h_concat
I0924 02:48:40.350994  4410 net.cpp:148] Top shape: 1 1 1000 (1000)
I0924 02:48:40.351004  4410 net.cpp:156] Memory required for data: 98020
I0924 02:48:40.351017  4410 layer_factory.hpp:77] Creating layer h_pseudoloss
I0924 02:48:40.351018  4432 net.cpp:141] Setting up h_pseudoloss
I0924 02:48:40.351042  4410 net.cpp:91] Creating Layer h_pseudoloss
I0924 02:48:40.351042  4432 net.cpp:148] Top shape: (1)
I0924 02:48:40.351059  4410 net.cpp:425] h_pseudoloss <- h
…
I0924 02:48:40.351438  4410 net.cpp:219] lstm2_ does not need backward computation.
I0924 02:48:40.351444  4410 net.cpp:261] This network produces output c_T
I0924 02:48:40.351452  4410 net.cpp:261] This network produces output h_pseudoloss
I0924 02:48:40.351478  4410 net.cpp:274] Network initialization done.
I0924 02:48:40.351539  4410 recurrent_layer.cpp:150] Adding parameter 0: W_xc
I0924 02:48:40.351550  4410 recurrent_layer.cpp:150] Adding parameter 1: b_c
I0924 02:48:40.351557  4410 recurrent_layer.cpp:150] Adding parameter 2: W_hc
I0924 02:48:40.356873  4432 net.cpp:141] Setting up lstm2
I0924 02:48:40.356922  4432 net.cpp:148] Top shape: 1 1 1000 (1000)
I0924 02:48:40.356930  4432 net.cpp:156] Memory required for data: 36412
I0924 02:48:40.356951  4432 layer_factory.hpp:77] Creating layer predict
I0924 02:48:40.356972  4432 net.cpp:91] Creating Layer predict
I0924 02:48:40.356981  4432 net.cpp:425] predict <- lstm2
I0924 02:48:40.356990  4432 net.cpp:399] predict -> predict
I0924 02:48:40.445526  4438 net.cpp:141] Setting up lstm2_transform_1
I0924 02:48:40.445603  4438 net.cpp:148] Top shape: 1 1 4000 (4000)
I0924 02:48:40.445614  4438 net.cpp:156] Memory required for data: 66020
I0924 02:48:40.445646  4438 layer_factory.hpp:77] Creating layer lstm2_gate_input_1
I0924 02:48:40.445686  4438 net.cpp:91] Creating Layer lstm2_gate_input_1
I0924 02:48:40.445699  4438 net.cpp:425] lstm2_gate_input_1 <- W_hc_h_0
I0924 02:48:40.445711  4438 net.cpp:425] lstm2_gate_input_1 <- W_xc_x_1
I0924 02:48:40.445729  4438 net.cpp:399] lstm2_gate_input_1 -> gate_input_1
I0924 02:48:40.446017  4410 net.cpp:141] Setting up lstm2
I0924 02:48:40.446066  4410 net.cpp:148] Top shape: 1 1 1000 (1000)
I0924 02:48:40.446079  4410 net.cpp:156] Memory required for data: 36412
I0924 02:48:40.446115  4410 layer_factory.hpp:77] Creating layer predict
I0924 02:48:40.446133  4438 net.cpp:141] Setting up lstm2_gate_input_1
I0924 02:48:40.446148  4410 net.cpp:91] Creating Layer predict
I0924 02:48:40.446154  4438 net.cpp:148] Top shape: 1 1 4000 (4000)
I0924 02:48:40.446166  4438 net.cpp:156] Memory required for data: 82020
I0924 02:48:40.446166  4410 net.cpp:425] predict <- lstm2
I0924 02:48:40.446202  4438 layer_factory.hpp:77] Creating layer lstm2_unit_1
I0924 02:48:40.446223  4410 net.cpp:399] predict -> predict
I0924 02:48:40.446229  4438 net.cpp:91] Creating Layer lstm2_unit_1
I0924 02:48:40.446228  4420 net.cpp:141] Setting up lstm2_x_transform
I0924 02:48:40.446244  4438 net.cpp:425] lstm2_unit_1 <- c_0
I0924 02:48:40.446257  4438 net.cpp:425] lstm2_unit_1 <- gate_input_1
I0924 02:48:40.446265  4420 net.cpp:148] Top shape: 1 1 4000 (4000)
I0924 02:48:40.446269  4438 net.cpp:425] lstm2_unit_1 <- cont_1_lstm2_cont_slice_0_split_1
I0924 02:48:40.446298  4420 net.cpp:156] Memory required for data: 30020
I0924 02:48:40.446310  4438 net.cpp:399] lstm2_unit_1 -> c_1
I0924 02:48:40.446331  4438 net.cpp:399] lstm2_unit_1 -> h_1
I0924 02:48:40.446332  4420 layer_factory.hpp:77] Creating layer lstm2_W_xc_x_slice
I0924 02:48:40.446362  4420 net.cpp:91] Creating Layer lstm2_W_xc_x_slice
I0924 02:48:40.446379  4420 net.cpp:425] lstm2_W_xc_x_slice <- W_xc_x
I0924 02:48:40.446425  4420 net.cpp:399] lstm2_W_xc_x_slice -> W_xc_x_1
I0924 02:48:40.540729  4420 net.cpp:141] Setting up lstm2_W_xc_x_slice
I0924 02:48:40.540782  4420 net.cpp:148] Top shape: 1 1 4000 (4000)
I0924 02:48:40.540791  4420 net.cpp:156] Memory required for data: 46020
I0924 02:48:40.540792  4438 net.cpp:141] Setting up lstm2_unit_1
I0924 02:48:40.540804  4420 layer_factory.hpp:77] Creating layer lstm2_h_conted_0
I0924 02:48:40.540815  4438 net.cpp:148] Top shape: 1 1 1000 (1000)
I0924 02:48:40.540827  4438 net.cpp:148] Top shape: 1 1 1000 (1000)
I0924 02:48:40.540828  4420 net.cpp:91] Creating Layer lstm2_h_conted_0
I0924 02:48:40.540834  4438 net.cpp:156] Memory required for data: 90020
I0924 02:48:40.540838  4420 net.cpp:425] lstm2_h_conted_0 <- h_0
I0924 02:48:40.540843  4438 layer_factory.hpp:77] Creating layer lstm2_
I0924 02:48:40.540851  4420 net.cpp:425] lstm2_h_conted_0 <- cont_1_lstm2_cont_slice_0_split_0
I0924 02:48:40.540858  4438 net.cpp:91] Creating Layer lstm2_
I0924 02:48:40.540868  4438 net.cpp:425] lstm2_ <- c_1
I0924 02:48:40.540871  4420 net.cpp:399] lstm2_h_conted_0 -> h_conted_0
I0924 02:48:40.540889  4438 net.cpp:399] lstm2_ -> c_T
I0924 02:48:40.541177  4438 net.cpp:141] Setting up lstm2_
I0924 02:48:40.541195  4438 net.cpp:148] Top shape: 1 1 1000 (1000)
I0924 02:48:40.541204  4438 net.cpp:156] Memory required for data: 94020
I0924 02:48:40.541213  4438 layer_factory.hpp:77] Creating layer lstm2_h_concat
I0924 02:48:40.541230  4438 net.cpp:91] Creating Layer lstm2_h_concat
I0924 02:48:40.541241  4438 net.cpp:425] lstm2_h_concat <- h_1
I0924 02:48:40.541255  4438 net.cpp:399] lstm2_h_concat -> h
I0924 02:48:40.541343  4420 net.cpp:141] Setting up lstm2_h_conted_0
I0924 02:48:40.541358  4420 net.cpp:148] Top shape: 1 1 1000 (1000)
I0924 02:48:40.541365  4420 net.cpp:156] Memory required for data: 50020
I0924 02:48:40.541373  4420 layer_factory.hpp:77] Creating layer lstm2_transform_1
I0924 02:48:40.541396  4420 net.cpp:91] Creating Layer lstm2_transform_1
I0924 02:48:40.541394  4438 net.cpp:141] Setting up lstm2_h_concat
I0924 02:48:40.541405  4420 net.cpp:425] lstm2_transform_1 <- h_conted_0
I0924 02:48:40.541414  4438 net.cpp:148] Top shape: 1 1 1000 (1000)
I0924 02:48:40.541417  4420 net.cpp:399] lstm2_transform_1 -> W_hc_h_0
I0924 02:48:40.541424  4438 net.cpp:156] Memory required for data: 98020
I0924 02:48:40.541435  4438 layer_factory.hpp:77] Creating layer h_pseudoloss
I0924 02:48:40.541451  4438 net.cpp:91] Creating Layer h_pseudoloss
I0924 02:48:40.541461  4438 net.cpp:425] h_pseudoloss <- h
I0924 02:48:40.541476  4438 net.cpp:399] h_pseudoloss -> h_pseudoloss
…
I0924 02:48:40.559618  4438 net.cpp:219] lstm2_ does not need backward computation.
I0924 02:48:40.559623  4438 net.cpp:261] This network produces output c_T
I0924 02:48:40.559629  4438 net.cpp:261] This network produces output h_pseudoloss
I0924 02:48:40.559648  4438 net.cpp:274] Network initialization done.
I0924 02:48:40.559706  4438 recurrent_layer.cpp:150] Adding parameter 0: W_xc
I0924 02:48:40.559715  4438 recurrent_layer.cpp:150] Adding parameter 1: b_c
I0924 02:48:40.559718  4438 recurrent_layer.cpp:150] Adding parameter 2: W_hc
I0924 02:48:40.562734  4438 net.cpp:141] Setting up lstm2
I0924 02:48:40.562783  4438 net.cpp:148] Top shape: 1 1 1000 (1000)
I0924 02:48:40.562791  4438 net.cpp:156] Memory required for data: 36412
I0924 02:48:40.562824  4438 layer_factory.hpp:77] Creating layer predict
I0924 02:48:40.562850  4438 net.cpp:91] Creating Layer predict
I0924 02:48:40.562861  4438 net.cpp:425] predict <- lstm2
I0924 02:48:40.562876  4438 net.cpp:399] predict -> predict
I0924 02:48:40.654156  4420 net.cpp:141] Setting up lstm2_transform_1
I0924 02:48:40.654211  4420 net.cpp:148] Top shape: 1 1 4000 (4000)
I0924 02:48:40.654219  4420 net.cpp:156] Memory required for data: 66020
I0924 02:48:40.654245  4420 layer_factory.hpp:77] Creating layer lstm2_gate_input_1
I0924 02:48:40.654273  4420 net.cpp:91] Creating Layer lstm2_gate_input_1
I0924 02:48:40.654284  4420 net.cpp:425] lstm2_gate_input_1 <- W_hc_h_0
I0924 02:48:40.654294  4420 net.cpp:425] lstm2_gate_input_1 <- W_xc_x_1
I0924 02:48:40.654309  4420 net.cpp:399] lstm2_gate_input_1 -> gate_input_1
I0924 02:48:40.660447  4420 net.cpp:141] Setting up lstm2_gate_input_1
I0924 02:48:40.660501  4420 net.cpp:148] Top shape: 1 1 4000 (4000)
I0924 02:48:40.660508  4420 net.cpp:156] Memory required for data: 82020
I0924 02:48:40.660521  4420 layer_factory.hpp:77] Creating layer lstm2_unit_1
I0924 02:48:40.660521  4414 net.cpp:141] Setting up predict
I0924 02:48:40.660545  4414 net.cpp:148] Top shape: 1 1 46168 (46168)
I0924 02:48:40.660547  4420 net.cpp:91] Creating Layer lstm2_unit_1
I0924 02:48:40.660555  4414 net.cpp:156] Memory required for data: 221084
I0924 02:48:40.660558  4420 net.cpp:425] lstm2_unit_1 <- c_0
I0924 02:48:40.660572  4420 net.cpp:425] lstm2_unit_1 <- gate_input_1
I0924 02:48:40.660576  4414 layer_factory.hpp:77] Creating layer probs
I0924 02:48:40.660580  4420 net.cpp:425] lstm2_unit_1 <- cont_1_lstm2_cont_slice_0_split_1
I0924 02:48:40.660593  4420 net.cpp:399] lstm2_unit_1 -> c_1
I0924 02:48:40.660594  4414 net.cpp:91] Creating Layer probs
I0924 02:48:40.660604  4414 net.cpp:425] probs <- predict
I0924 02:48:40.660610  4420 net.cpp:399] lstm2_unit_1 -> h_1
I0924 02:48:40.660617  4414 net.cpp:399] probs -> probs
I0924 02:48:40.664228  4420 net.cpp:141] Setting up lstm2_unit_1
I0924 02:48:40.664283  4420 net.cpp:148] Top shape: 1 1 1000 (1000)
I0924 02:48:40.664294  4420 net.cpp:148] Top shape: 1 1 1000 (1000)
I0924 02:48:40.664300  4420 net.cpp:156] Memory required for data: 90020
I0924 02:48:40.664312  4420 layer_factory.hpp:77] Creating layer lstm2_
I0924 02:48:40.664333  4420 net.cpp:91] Creating Layer lstm2_
I0924 02:48:40.664342  4420 net.cpp:425] lstm2_ <- c_1
I0924 02:48:40.664362  4420 net.cpp:399] lstm2_ -> c_T
I0924 02:48:40.666136  4420 net.cpp:141] Setting up lstm2_
I0924 02:48:40.666178  4420 net.cpp:148] Top shape: 1 1 1000 (1000)
I0924 02:48:40.666187  4420 net.cpp:156] Memory required for data: 94020
I0924 02:48:40.666196  4420 layer_factory.hpp:77] Creating layer lstm2_h_concat
I0924 02:48:40.666218  4420 net.cpp:91] Creating Layer lstm2_h_concat
I0924 02:48:40.666226  4420 net.cpp:425] lstm2_h_concat <- h_1
I0924 02:48:40.666242  4420 net.cpp:399] lstm2_h_concat -> h
I0924 02:48:40.669627  4420 net.cpp:141] Setting up lstm2_h_concat
I0924 02:48:40.669680  4420 net.cpp:148] Top shape: 1 1 1000 (1000)
I0924 02:48:40.669688  4420 net.cpp:156] Memory required for data: 98020
I0924 02:48:40.669699  4420 layer_factory.hpp:77] Creating layer h_pseudoloss
I0924 02:48:40.669721  4420 net.cpp:91] Creating Layer h_pseudoloss
I0924 02:48:40.669731  4420 net.cpp:425] h_pseudoloss <- h
I0924 02:48:40.669747  4420 net.cpp:399] h_pseudoloss -> h_pseudoloss
I0924 02:48:40.670125  4420 net.cpp:141] Setting up h_pseudoloss
…
I0924 02:48:40.670279  4420 net.cpp:219] lstm2_ does not need backward computation.
I0924 02:48:40.670286  4420 net.cpp:261] This network produces output c_T
I0924 02:48:40.670294  4420 net.cpp:261] This network produces output h_pseudoloss
I0924 02:48:40.670317  4420 net.cpp:274] Network initialization done.
I0924 02:48:40.670390  4420 recurrent_layer.cpp:150] Adding parameter 0: W_xc
I0924 02:48:40.670400  4420 recurrent_layer.cpp:150] Adding parameter 1: b_c
I0924 02:48:40.670408  4420 recurrent_layer.cpp:150] Adding parameter 2: W_hc
I0924 02:48:40.671167  4420 net.cpp:141] Setting up lstm2
I0924 02:48:40.671186  4420 net.cpp:148] Top shape: 1 1 1000 (1000)
I0924 02:48:40.671193  4420 net.cpp:156] Memory required for data: 36412
I0924 02:48:40.671218  4420 layer_factory.hpp:77] Creating layer predict
I0924 02:48:40.671237  4420 net.cpp:91] Creating Layer predict
I0924 02:48:40.671247  4420 net.cpp:425] predict <- lstm2
I0924 02:48:40.671258  4420 net.cpp:399] predict -> predict
I0924 02:48:40.758462  4414 net.cpp:141] Setting up probs
I0924 02:48:40.758517  4414 net.cpp:148] Top shape: 1 1 46168 (46168)
I0924 02:48:40.758524  4414 net.cpp:156] Memory required for data: 405756
I0924 02:48:40.758534  4414 net.cpp:219] probs does not need backward computation.
I0924 02:48:40.758543  4414 net.cpp:219] predict does not need backward computation.
I0924 02:48:40.758548  4414 net.cpp:219] lstm2 does not need backward computation.
I0924 02:48:40.758553  4414 net.cpp:219] concat does not need backward computation.
I0924 02:48:40.758559  4414 net.cpp:219] lstm1 does not need backward computation.
I0924 02:48:40.758566  4414 net.cpp:219] embedding does not need backward computation.
I0924 02:48:40.758570  4414 net.cpp:219] reshape_stage_indicator does not need backward computation.
I0924 02:48:40.758576  4414 net.cpp:219] reshape_frames does not need backward computation.
I0924 02:48:40.758581  4414 net.cpp:219] embed_encoder does not need backward computation.
I0924 02:48:40.758586  4414 net.cpp:219] cont_sentence_input_1_split does not need backward computation.
I0924 02:48:40.758592  4414 net.cpp:219] input does not need backward computation.
I0924 02:48:40.758611  4414 net.cpp:261] This network produces output probs
I0924 02:48:40.758636  4414 net.cpp:274] Network initialization done.
I0924 02:48:40.759613  4418 net.cpp:141] Setting up conv1
I0924 02:48:40.759646  4418 net.cpp:148] Top shape: 10 96 55 55 (2904000)
I0924 02:48:40.759655  4418 net.cpp:156] Memory required for data: 17799480
I0924 02:48:40.759681  4418 layer_factory.hpp:77] Creating layer relu1
I0924 02:48:40.759704  4418 net.cpp:91] Creating Layer relu1
I0924 02:48:40.759713  4418 net.cpp:425] relu1 <- conv1
I0924 02:48:40.759724  4418 net.cpp:386] relu1 -> conv1 (in-place)
I0924 02:48:40.760073  4418 net.cpp:141] Setting up relu1
I0924 02:48:40.760090  4418 net.cpp:148] Top shape: 10 96 55 55 (2904000)
I0924 02:48:40.760097  4418 net.cpp:156] Memory required for data: 29415480
I0924 02:48:40.760105  4418 layer_factory.hpp:77] Creating layer pool1
I0924 02:48:40.760125  4418 net.cpp:91] Creating Layer pool1
I0924 02:48:40.760133  4418 net.cpp:425] pool1 <- conv1
I0924 02:48:40.760145  4418 net.cpp:399] pool1 -> pool1
I0924 02:48:40.760259  4418 net.cpp:141] Setting up pool1
I0924 02:48:40.760275  4418 net.cpp:148] Top shape: 10 96 27 27 (699840)
I0924 02:48:40.760282  4418 net.cpp:156] Memory required for data: 32214840
I0924 02:48:40.760290  4418 layer_factory.hpp:77] Creating layer norm1
I0924 02:48:40.760314  4418 net.cpp:91] Creating Layer norm1
I0924 02:48:40.760324  4418 net.cpp:425] norm1 <- pool1
I0924 02:48:40.760334  4418 net.cpp:399] norm1 -> norm1
I0924 02:48:40.760988  4418 net.cpp:141] Setting up norm1
I0924 02:48:40.761013  4418 net.cpp:148] Top shape: 10 96 27 27 (699840)
I0924 02:48:40.761021  4418 net.cpp:156] Memory required for data: 35014200
I0924 02:48:40.761029  4418 layer_factory.hpp:77] Creating layer conv2
I0924 02:48:40.761052  4418 net.cpp:91] Creating Layer conv2
I0924 02:48:40.761061  4418 net.cpp:425] conv2 <- norm1
I0924 02:48:40.761075  4418 net.cpp:399] conv2 -> conv2
I0924 02:48:40.766469  4418 net.cpp:141] Setting up conv2
I0924 02:48:40.766531  4418 net.cpp:148] Top shape: 10 256 27 27 (1866240)
I0924 02:48:40.766541  4418 net.cpp:156] Memory required for data: 42479160
I0924 02:48:40.766571  4418 layer_factory.hpp:77] Creating layer relu2
I0924 02:48:40.766592  4418 net.cpp:91] Creating Layer relu2
I0924 02:48:40.766615  4418 net.cpp:425] relu2 <- conv2
I0924 02:48:40.766634  4418 net.cpp:386] relu2 -> conv2 (in-place)
I0924 02:48:40.766995  4418 net.cpp:141] Setting up relu2
I0924 02:48:40.767014  4418 net.cpp:148] Top shape: 10 256 27 27 (1866240)
I0924 02:48:40.767021  4418 net.cpp:156] Memory required for data: 49944120
I0924 02:48:40.767030  4418 layer_factory.hpp:77] Creating layer pool2
I0924 02:48:40.767045  4418 net.cpp:91] Creating Layer pool2
I0924 02:48:40.767052  4418 net.cpp:425] pool2 <- conv2
I0924 02:48:40.767062  4418 net.cpp:399] pool2 -> pool2
I0924 02:48:40.767164  4418 net.cpp:141] Setting up pool2
I0924 02:48:40.767179  4418 net.cpp:148] Top shape: 10 256 13 13 (432640)
I0924 02:48:40.767186  4418 net.cpp:156] Memory required for data: 51674680
I0924 02:48:40.767194  4418 layer_factory.hpp:77] Creating layer norm2
I0924 02:48:40.767216  4418 net.cpp:91] Creating Layer norm2
I0924 02:48:40.767225  4418 net.cpp:425] norm2 <- pool2
I0924 02:48:40.767235  4418 net.cpp:399] norm2 -> norm2
I0924 02:48:40.768867  4418 net.cpp:141] Setting up norm2
I0924 02:48:40.768923  4418 net.cpp:148] Top shape: 10 256 13 13 (432640)
I0924 02:48:40.768931  4418 net.cpp:156] Memory required for data: 53405240
I0924 02:48:40.768944  4418 layer_factory.hpp:77] Creating layer conv3
I0924 02:48:40.768981  4418 net.cpp:91] Creating Layer conv3
I0924 02:48:40.768992  4418 net.cpp:425] conv3 <- norm2
I0924 02:48:40.769013  4418 net.cpp:399] conv3 -> conv3
I0924 02:48:40.776582  4418 net.cpp:141] Setting up conv3
I0924 02:48:40.776641  4418 net.cpp:148] Top shape: 10 384 13 13 (648960)
I0924 02:48:40.776650  4418 net.cpp:156] Memory required for data: 56001080
I0924 02:48:40.776679  4418 layer_factory.hpp:77] Creating layer relu3
I0924 02:48:40.776710  4418 net.cpp:91] Creating Layer relu3
I0924 02:48:40.776721  4418 net.cpp:425] relu3 <- conv3
I0924 02:48:40.776733  4418 net.cpp:386] relu3 -> conv3 (in-place)
I0924 02:48:40.777446  4418 net.cpp:141] Setting up relu3
I0924 02:48:40.777477  4418 net.cpp:148] Top shape: 10 384 13 13 (648960)
I0924 02:48:40.777484  4418 net.cpp:156] Memory required for data: 58596920
I0924 02:48:40.777493  4418 layer_factory.hpp:77] Creating layer conv4
I0924 02:48:40.777518  4418 net.cpp:91] Creating Layer conv4
I0924 02:48:40.777525  4418 net.cpp:425] conv4 <- conv3
I0924 02:48:40.777540  4418 net.cpp:399] conv4 -> conv4
I0924 02:48:40.787763  4418 net.cpp:141] Setting up conv4
I0924 02:48:40.787819  4418 net.cpp:148] Top shape: 10 384 13 13 (648960)
I0924 02:48:40.787828  4418 net.cpp:156] Memory required for data: 61192760
I0924 02:48:40.787849  4418 layer_factory.hpp:77] Creating layer relu4
I0924 02:48:40.787871  4418 net.cpp:91] Creating Layer relu4
I0924 02:48:40.787881  4418 net.cpp:425] relu4 <- conv4
I0924 02:48:40.787902  4418 net.cpp:386] relu4 -> conv4 (in-place)
I0924 02:48:40.788247  4418 net.cpp:141] Setting up relu4
I0924 02:48:40.788265  4418 net.cpp:148] Top shape: 10 384 13 13 (648960)
I0924 02:48:40.788272  4418 net.cpp:156] Memory required for data: 63788600
I0924 02:48:40.788280  4418 layer_factory.hpp:77] Creating layer conv5
I0924 02:48:40.788298  4418 net.cpp:91] Creating Layer conv5
I0924 02:48:40.788306  4418 net.cpp:425] conv5 <- conv4
I0924 02:48:40.788784  4418 net.cpp:399] conv5 -> conv5
I0924 02:48:40.796157  4418 net.cpp:141] Setting up conv5
I0924 02:48:40.796205  4418 net.cpp:148] Top shape: 10 256 13 13 (432640)
I0924 02:48:40.796213  4418 net.cpp:156] Memory required for data: 65519160
I0924 02:48:40.796242  4418 layer_factory.hpp:77] Creating layer relu5
I0924 02:48:40.796263  4418 net.cpp:91] Creating Layer relu5
I0924 02:48:40.796272  4418 net.cpp:425] relu5 <- conv5
I0924 02:48:40.796290  4418 net.cpp:386] relu5 -> conv5 (in-place)
I0924 02:48:40.798507  4418 net.cpp:141] Setting up relu5
I0924 02:48:40.798527  4418 net.cpp:148] Top shape: 10 256 13 13 (432640)
I0924 02:48:40.798535  4418 net.cpp:156] Memory required for data: 67249720
I0924 02:48:40.798543  4418 layer_factory.hpp:77] Creating layer pool5
I0924 02:48:40.798558  4418 net.cpp:91] Creating Layer pool5
I0924 02:48:40.798565  4418 net.cpp:425] pool5 <- conv5
I0924 02:48:40.798576  4418 net.cpp:399] pool5 -> pool5
I0924 02:48:40.798696  4418 net.cpp:141] Setting up pool5
I0924 02:48:40.798712  4418 net.cpp:148] Top shape: 10 256 6 6 (92160)
I0924 02:48:40.798719  4418 net.cpp:156] Memory required for data: 67618360
I0924 02:48:40.798727  4418 layer_factory.hpp:77] Creating layer fc6
I0924 02:48:40.798750  4418 net.cpp:91] Creating Layer fc6
I0924 02:48:40.798759  4418 net.cpp:425] fc6 <- pool5
I0924 02:48:40.798769  4418 net.cpp:399] fc6 -> fc6
I0924 02:48:40.881530  4432 net.cpp:141] Setting up predict
I0924 02:48:40.881589  4432 net.cpp:148] Top shape: 1 1 46168 (46168)
I0924 02:48:40.881597  4432 net.cpp:156] Memory required for data: 221084
I0924 02:48:40.881614  4432 layer_factory.hpp:77] Creating layer probs
I0924 02:48:40.881633  4432 net.cpp:91] Creating Layer probs
I0924 02:48:40.881640  4432 net.cpp:425] probs <- predict
I0924 02:48:40.881651  4432 net.cpp:399] probs -> probs
I0924 02:48:40.882652  4432 net.cpp:141] Setting up probs
I0924 02:48:40.882715  4432 net.cpp:148] Top shape: 1 1 46168 (46168)
I0924 02:48:40.882722  4432 net.cpp:156] Memory required for data: 405756
I0924 02:48:40.882731  4432 net.cpp:219] probs does not need backward computation.
I0924 02:48:40.882738  4432 net.cpp:219] predict does not need backward computation.
I0924 02:48:40.882743  4432 net.cpp:219] lstm2 does not need backward computation.
I0924 02:48:40.882750  4432 net.cpp:219] concat does not need backward computation.
I0924 02:48:40.882756  4432 net.cpp:219] lstm1 does not need backward computation.
I0924 02:48:40.882762  4432 net.cpp:219] embedding does not need backward computation.
I0924 02:48:40.882767  4432 net.cpp:219] reshape_stage_indicator does not need backward computation.
I0924 02:48:40.882772  4432 net.cpp:219] reshape_frames does not need backward computation.
I0924 02:48:40.882777  4432 net.cpp:219] embed_encoder does not need backward computation.
I0924 02:48:40.882782  4432 net.cpp:219] cont_sentence_input_1_split does not need backward computation.
I0924 02:48:40.882788  4432 net.cpp:219] input does not need backward computation.
I0924 02:48:40.882791  4432 net.cpp:261] This network produces output probs
I0924 02:48:40.882813  4432 net.cpp:274] Network initialization done.
I0924 02:48:40.915634  4410 net.cpp:141] Setting up predict
I0924 02:48:40.915695  4410 net.cpp:148] Top shape: 1 1 46168 (46168)
I0924 02:48:40.915704  4410 net.cpp:156] Memory required for data: 221084
I0924 02:48:40.915729  4410 layer_factory.hpp:77] Creating layer probs
I0924 02:48:40.915755  4410 net.cpp:91] Creating Layer probs
I0924 02:48:40.915766  4410 net.cpp:425] probs <- predict
I0924 02:48:40.915786  4410 net.cpp:399] probs -> probs
I0924 02:48:40.916540  4410 net.cpp:141] Setting up probs
I0924 02:48:40.916582  4410 net.cpp:148] Top shape: 1 1 46168 (46168)
I0924 02:48:40.916591  4410 net.cpp:156] Memory required for data: 405756
I0924 02:48:40.916602  4410 net.cpp:219] probs does not need backward computation.
I0924 02:48:40.916615  4410 net.cpp:219] predict does not need backward computation.
I0924 02:48:40.916625  4410 net.cpp:219] lstm2 does not need backward computation.
I0924 02:48:40.916636  4410 net.cpp:219] concat does not need backward computation.
I0924 02:48:40.916648  4410 net.cpp:219] lstm1 does not need backward computation.
I0924 02:48:40.916659  4410 net.cpp:219] embedding does not need backward computation.
I0924 02:48:40.916669  4410 net.cpp:219] reshape_stage_indicator does not need backward computation.
I0924 02:48:40.916679  4410 net.cpp:219] reshape_frames does not need backward computation.
I0924 02:48:40.916690  4410 net.cpp:219] embed_encoder does not need backward computation.
I0924 02:48:40.916700  4410 net.cpp:219] cont_sentence_input_1_split does not need backward computation.
I0924 02:48:40.916710  4410 net.cpp:219] input does not need backward computation.
I0924 02:48:40.916717  4410 net.cpp:261] This network produces output probs
I0924 02:48:40.916751  4410 net.cpp:274] Network initialization done.
I0924 02:48:40.924823  4418 net.cpp:141] Setting up fc6
I0924 02:48:40.924875  4418 net.cpp:148] Top shape: 10 4096 (40960)
I0924 02:48:40.924880  4418 net.cpp:156] Memory required for data: 67782200
I0924 02:48:40.924896  4418 layer_factory.hpp:77] Creating layer relu6
I0924 02:48:40.924913  4418 net.cpp:91] Creating Layer relu6
I0924 02:48:40.924921  4418 net.cpp:425] relu6 <- fc6
I0924 02:48:40.924929  4418 net.cpp:386] relu6 -> fc6 (in-place)
I0924 02:48:40.925776  4418 net.cpp:141] Setting up relu6
I0924 02:48:40.925804  4418 net.cpp:148] Top shape: 10 4096 (40960)
I0924 02:48:40.925809  4418 net.cpp:156] Memory required for data: 67946040
I0924 02:48:40.925817  4418 layer_factory.hpp:77] Creating layer drop6
I0924 02:48:40.925832  4418 net.cpp:91] Creating Layer drop6
I0924 02:48:40.925838  4418 net.cpp:425] drop6 <- fc6
I0924 02:48:40.925850  4418 net.cpp:386] drop6 -> fc6 (in-place)
I0924 02:48:40.925927  4418 net.cpp:141] Setting up drop6
I0924 02:48:40.925937  4418 net.cpp:148] Top shape: 10 4096 (40960)
I0924 02:48:40.925941  4418 net.cpp:156] Memory required for data: 68109880
I0924 02:48:40.925946  4418 layer_factory.hpp:77] Creating layer fc7
I0924 02:48:40.925961  4418 net.cpp:91] Creating Layer fc7
I0924 02:48:40.925966  4418 net.cpp:425] fc7 <- fc6
I0924 02:48:40.925973  4418 net.cpp:399] fc7 -> fc7
I0924 02:48:40.973852  4418 net.cpp:141] Setting up fc7
I0924 02:48:40.973906  4418 net.cpp:148] Top shape: 10 4096 (40960)
I0924 02:48:40.973912  4418 net.cpp:156] Memory required for data: 68273720
I0924 02:48:40.973927  4418 layer_factory.hpp:77] Creating layer relu7
I0924 02:48:40.973950  4418 net.cpp:91] Creating Layer relu7
I0924 02:48:40.973958  4418 net.cpp:425] relu7 <- fc7
I0924 02:48:40.973968  4418 net.cpp:386] relu7 -> fc7 (in-place)
I0924 02:48:40.975256  4418 net.cpp:141] Setting up relu7
I0924 02:48:40.975275  4418 net.cpp:148] Top shape: 10 4096 (40960)
I0924 02:48:40.975281  4418 net.cpp:156] Memory required for data: 68437560
I0924 02:48:40.975286  4418 layer_factory.hpp:77] Creating layer drop7
I0924 02:48:40.975298  4418 net.cpp:91] Creating Layer drop7
I0924 02:48:40.975303  4418 net.cpp:425] drop7 <- fc7
I0924 02:48:40.975778  4418 net.cpp:386] drop7 -> fc7 (in-place)
I0924 02:48:40.975852  4418 net.cpp:141] Setting up drop7
I0924 02:48:40.975865  4418 net.cpp:148] Top shape: 10 4096 (40960)
I0924 02:48:40.975870  4418 net.cpp:156] Memory required for data: 68601400
I0924 02:48:40.975875  4418 layer_factory.hpp:77] Creating layer fc8
I0924 02:48:40.975888  4418 net.cpp:91] Creating Layer fc8
I0924 02:48:40.975893  4418 net.cpp:425] fc8 <- fc7
I0924 02:48:40.975900  4418 net.cpp:399] fc8 -> fc8
I0924 02:48:40.989179  4418 net.cpp:141] Setting up fc8
I0924 02:48:40.989233  4418 net.cpp:148] Top shape: 10 1000 (10000)
I0924 02:48:40.989239  4418 net.cpp:156] Memory required for data: 68641400
I0924 02:48:40.989255  4418 layer_factory.hpp:77] Creating layer prob
I0924 02:48:40.989279  4418 net.cpp:91] Creating Layer prob
I0924 02:48:40.989286  4418 net.cpp:425] prob <- fc8
I0924 02:48:40.989296  4418 net.cpp:399] prob -> prob
I0924 02:48:40.990237  4418 net.cpp:141] Setting up prob
I0924 02:48:40.990272  4418 net.cpp:148] Top shape: 10 1000 (10000)
I0924 02:48:40.990278  4418 net.cpp:156] Memory required for data: 68681400
I0924 02:48:40.990285  4418 net.cpp:219] prob does not need backward computation.
I0924 02:48:40.990291  4418 net.cpp:219] fc8 does not need backward computation.
I0924 02:48:40.990296  4418 net.cpp:219] drop7 does not need backward computation.
I0924 02:48:40.990301  4418 net.cpp:219] relu7 does not need backward computation.
…
