…
I0924 04:23:31.045719 30496 upgrade_proto.cpp:66] Attempting to upgrade input file specified using deprecated input fields: /home/peifeng/work/run/storm102/data/workers/125c5fcb-bca0-4bc4-b465-76554e51c7d5/tmp/cvld1848052374410694015/s2vt.words_to_preds.prototxt
I0924 04:23:31.046078 30552 upgrade_proto.cpp:66] Attempting to upgrade input file specified using deprecated input fields: /home/peifeng/work/run/storm102/data/workers/125c5fcb-bca0-4bc4-b465-76554e51c7d5/tmp/cvld1848052374410694015/s2vt.words_to_preds.prototxt
I0924 04:23:31.046124 30506 net.cpp:49] Initializing net from parameters: 
name: "CaffeNet"
state {
  phase: TEST
}
layer {
  name: "data"
  type: "Input"
  top: "data"
  input_param {
    shape {
      dim: 10
      dim: 3
      dim: 227
      dim: 227
    }
  }
}
layer {
  name: "conv1"
  type: "Convolution"
  bottom: "data"
  top: "conv1"
  convolution_param {
    num_output: 96
    kernel_size: 11
    stride: 4
  }
}
layer {
  name: "relu1"
  type: "ReLU"
  bottom: "conv1"
  top: "conv1"
}
layer {
  name: "pool1"
  type: "Pooling"
  bottom: "conv1"
  top: "pool1"
  pooling_param {
    pool: MAX
    kernel_size: 3
    stride: 2
  }
}
layer {
  name: "norm1"
  type: "LRN"
  bottom: "pool1"
  top: "norm1"
  lrn_param {
    local_size: 5
    alpha: 0.0001
    beta: 0.75
  }
}
layer {
  name: "conv2"
  type: "Convolution"
  bottom: "norm1"
  top: "conv2"
  convolution_param {
    num_output: 256
    pad: 2
    kernel_size: 5
    group: 2
  }
}
layer {
  name: "relu2"
  type: "ReLU"
  bottom: "conv2"
  top: "conv2"
}
layer {
  name: "pool2"
  type: "Pooling"
  bottom: "conv2"
  top: "pool2"
  pooling_param {
    pool: MAX
    kernel_size: 3
    stride: 2
  }
}
layer {
  name: "norm2"
  type: "LRN"
  bottom: "pool2"
  top: "norm2"
  lrn_param {
    local_size: 5
    alpha: 0.0001
    beta: 0.75
  }
}
layer {
  name: "conv3"
  type: "Convolution"
  bottom: "norm2"
  top: "conv3"
  convolution_param {
    num_output: 384
    pad: 1
    kernel_size: 3
  }
}
layer {
  name: "relu3"
  type: "ReLU"
  bottom: "conv3"
  top: "conv3"
}
layer {
  name: "conv4"
  type: "Convolution"
  bottom: "conv3"
  top: "conv4"
  convolution_param {
    num_output: 384
    pad: 1
    kernel_size: 3
    group: 2
  }
}
layer {
  name: "relu4"
  type: "ReLU"
  bottom: "conv4"
  top: "conv4"
}
layer {
  name: "conv5"
  type: "Convolution"
  bottom: "conv4"
  top: "conv5"
  convolution_param {
    num_output: 256
    pad: 1
    kernel_size: 3
    group: 2
  }
}
layer {
  name: "relu5"
  type: "ReLU"
  bottom: "conv5"
  top: "conv5"
}
layer {
  name: "pool5"
  type: "Pooling"
  bottom: "conv5"
  top: "pool5"
  pooling_param {
    pool: MAX
    kernel_size: 3
    stride: 2
  }
}
layer {
  name: "fc6"
  type: "InnerProduct"
  bottom: "pool5"
  top: "fc6"
  inner_product_param {
    num_output: 4096
  }
}
layer {
  name: "relu6"
  type: "ReLU"
  bottom: "fc6"
  top: "fc6"
}
layer {
  name: "drop6"
  type: "Dropout"
  bottom: "fc6"
  top: "fc6"
  dropout_param {
    dropout_ratio: 0.5
  }
}
layer {
  name: "fc7"
  type: "InnerProduct"
  bottom: "fc6"
  top: "fc7"
  inner_product_param {
    num_output: 4096
  }
}
layer {
  name: "relu7"
  type: "ReLU"
  bottom: "fc7"
  top: "fc7"
}
layer {
  name: "drop7"
  type: "Dropout"
  bottom: "fc7"
  top: "fc7"
  dropout_param {
    dropout_ratio: 0.5
  }
}
layer {
  name: "fc8"
  type: "InnerProduct"
  bottom: "fc7"
  top: "fc8"
  inner_product_param {
    num_output: 1000
  }
}
layer {
  name: "prob"
  type: "Softmax"
  bottom: "fc8"
  top: "prob"
}
I0924 04:23:31.046754 30548 upgrade_proto.cpp:69] Successfully upgraded file specified using deprecated input fields.
I0924 04:23:31.045719 30514 upgrade_proto.cpp:66] Attempting to upgrade input file specified using deprecated input fields: /home/peifeng/work/run/storm102/data/workers/125c5fcb-bca0-4bc4-b465-76554e51c7d5/tmp/cvld1848052374410694015/s2vt.words_to_preds.prototxt
…
I0924 04:23:31.046983 30506 net.cpp:91] Creating Layer data
I0924 04:23:31.047001 30506 net.cpp:399] data -> data
I0924 04:23:31.047159 30552 net.cpp:49] Initializing net from parameters: 
name: "s2vt:features_to_lstm"
state {
  phase: TEST
}
layer {
  name: "input"
  type: "Input"
  top: "frames_fc7"
  top: "cont_sentence"
  top: "input_sentence"
  top: "stage_indicator"
  input_param {
    shape {
      dim: 1
      dim: 4096
    }
    shape {
      dim: 1
      dim: 1
    }
    shape {
      dim: 1
      dim: 1
    }
    shape {
      dim: 1
      dim: 1
    }
  }
}
layer {
  name: "embed_encoder"
  type: "InnerProduct"
  bottom: "frames_fc7"
  top: "embedded_in_frames"
  param {
    lr_mult: 1
    decay_mult: 1
  }
  param {
    lr_mult: 2
    decay_mult: 0
  }
  inner_product_param {
    num_output: 500
    weight_filler {
      type: "xavier"
    }
    bias_filler {
      type: "constant"
      value: 0.2
    }
  }
}
layer {
  name: "reshape_frames"
  type: "Reshape"
  bottom: "embedded_in_frames"
  top: "embedded_input_frames"
  reshape_param {
    shape {
      dim: 1
      dim: 1
      dim: 500
    }
  }
}
layer {
  name: "reshape_stage_indicator"
  type: "Reshape"
  bottom: "stage_indicator"
  top: "reshaped_stage_indicator"
  reshape_param {
    shape {
      dim: 1
      dim: 1
      dim: 1
    }
  }
}
layer {
  name: "embedding"
  type: "Embed"
  bottom: "input_sentence"
  top: "embedded_input_sentence"
  param {
    lr_mult: 1
  }
  embed_param {
    num_output: 500
    input_dim: 46168
    bias_term: false
    weight_filler {
      type: "uniform"
      min: -0.08
      max: 0.08
    }
  }
}
layer {
  name: "lstm1"
  type: "LSTM"
  bottom: "embedded_input_frames"
  bottom: "cont_sentence"
  top: "lstm1"
  recurrent_param {
    num_output: 1000
    weight_filler {
      type: "uniform"
      min: -0.08
      max: 0.08
    }
    bias_filler {
      type: "constant"
      value: 0
    }
  }
}
layer {
  name: "concat"
  type: "Concat"
  bottom: "lstm1"
  bottom: "embedded_input_sentence"
  bottom: "reshaped_stage_indicator"
  top: "lstm1_video_sequence"
  concat_param {
    concat_dim: 2
  }
}
layer {
  name: "lstm2"
  type: "LSTM"
  bottom: "lstm1_video_sequence"
  bottom: "cont_sentence"
  top: "lstm2"
  recurrent_param {
    num_output: 1000
    weight_filler {
      type: "uniform"
      min: -0.08
      max: 0.08
    }
    bias_filler {
      type: "constant"
      value: 0
    }
  }
}
layer {
  name: "predict"
  type: "InnerProduct"
  bottom: "lstm2"
  top: "predict"
  param {
    lr_mult: 1
    decay_mult: 1
  }
  param {
    lr_mult: 2
    decay_mult: 0
  }
  inner_product_param {
    num_output: 46168
    weight_filler {
      type: "uniform"
      min: -0.08
      max: 0.08
    }
    bias_filler {
      type: "constant"
      value: 0
    }
    axis: 2
  }
}
layer {
  name: "probs"
  type: "Softmax"
  bottom: "predict"
  top: "probs"
  softmax_param {
    axis: 2
  }
}
I0924 04:23:31.047184 30500 net.cpp:49] Initializing net from parameters: 
name: "s2vt:features_to_lstm"
state {
  phase: TEST
}
layer {
  name: "input"
  type: "Input"
  top: "frames_fc7"
  top: "cont_sentence"
  top: "input_sentence"
  top: "stage_indicator"
  input_param {
    shape {
      dim: 1
      dim: 4096
    }
    shape {
      dim: 1
      dim: 1
    }
    shape {
      dim: 1
      dim: 1
    }
    shape {
      dim: 1
      dim: 1
    }
  }
}
layer {
  name: "embed_encoder"
  type: "InnerProduct"
  bottom: "frames_fc7"
  top: "embedded_in_frames"
  param {
    lr_mult: 1
    decay_mult: 1
  }
  param {
    lr_mult: 2
    decay_mult: 0
  }
  inner_product_param {
    num_output: 500
    weight_filler {
      type: "xavier"
    }
    bias_filler {
      type: "constant"
      value: 0.2
    }
  }
}
layer {
  name: "reshape_frames"
  type: "Reshape"
  bottom: "embedded_in_frames"
  top: "embedded_input_frames"
  reshape_param {
    shape {
      dim: 1
      dim: 1
      dim: 500
    }
  }
}
layer {
  name: "reshape_stage_indicator"
  type: "Reshape"
  bottom: "stage_indicator"
  top: "reshaped_stage_indicator"
  reshape_param {
    shape {
      dim: 1
      dim: 1
      dim: 1
    }
  }
}
layer {
  name: "embedding"
  type: "Embed"
  bottom: "input_sentence"
  top: "embedded_input_sentence"
  param {
    lr_mult: 1
  }
  embed_param {
    num_output: 500
    input_dim: 46168
    bias_term: false
    weight_filler {
      type: "uniform"
      min: -0.08
      max: 0.08
    }
  }
}
layer {
  name: "lstm1"
  type: "LSTM"
  bottom: "embedded_input_frames"
  bottom: "cont_sentence"
  top: "lstm1"
  recurrent_param {
    num_output: 1000
    weight_filler {
      type: "uniform"
      min: -0.08
      max: 0.08
    }
    bias_filler {
      type: "constant"
      value: 0
    }
  }
}
layer {
  name: "concat"
  type: "Concat"
  bottom: "lstm1"
  bottom: "embedded_input_sentence"
  bottom: "reshaped_stage_indicator"
  top: "lstm1_video_sequence"
  concat_param {
    concat_dim: 2
  }
}
layer {
  name: "lstm2"
  type: "LSTM"
  bottom: "lstm1_video_sequence"
  bottom: "cont_sentence"
  top: "lstm2"
  recurrent_param {
    num_output: 1000
    weight_filler {
      type: "uniform"
      min: -0.08
      max: 0.08
    }
    bias_filler {
      type: "constant"
      value: 0
    }
  }
}
layer {
  name: "predict"
  type: "InnerProduct"
  bottom: "lstm2"
  top: "predict"
  param {
    lr_mult: 1
    decay_mult: 1
  }
  param {
    lr_mult: 2
    decay_mult: 0
  }
  inner_product_param {
    num_output: 46168
    weight_filler {
      type: "uniform"
      min: -0.08
      max: 0.08
    }
    bias_filler {
      type: "constant"
      value: 0
    }
    axis: 2
  }
}
layer {
  name: "probs"
  type: "Softmax"
  bottom: "predict"
  top: "probs"
  softmax_param {
    axis: 2
  }
}
I0924 04:23:31.047199 30526 net.cpp:49] Initializing net from parameters: 
name: "s2vt:features_to_lstm"
state {
  phase: TEST
}
layer {
  name: "input"
  type: "Input"
  top: "frames_fc7"
  top: "cont_sentence"
  top: "input_sentence"
  top: "stage_indicator"
  input_param {
    shape {
      dim: 1
      dim: 4096
    }
    shape {
      dim: 1
      dim: 1
    }
    shape {
      dim: 1
      dim: 1
    }
    shape {
      dim: 1
      dim: 1
    }
  }
}
layer {
  name: "embed_encoder"
  type: "InnerProduct"
  bottom: "frames_fc7"
  top: "embedded_in_frames"
  param {
    lr_mult: 1
    decay_mult: 1
  }
  param {
    lr_mult: 2
    decay_mult: 0
  }
  inner_product_param {
    num_output: 500
    weight_filler {
      type: "xavier"
    }
    bias_filler {
      type: "constant"
      value: 0.2
    }
  }
}
layer {
  name: "reshape_frames"
  type: "Reshape"
  bottom: "embedded_in_frames"
  top: "embedded_input_frames"
  reshape_param {
    shape {
      dim: 1
      dim: 1
      dim: 500
    }
  }
}
layer {
  name: "reshape_stage_indicator"
  type: "Reshape"
  bottom: "stage_indicator"
  top: "reshaped_stage_indicator"
  reshape_param {
    shape {
      dim: 1
      dim: 1
      dim: 1
    }
  }
}
layer {
  name: "embedding"
  type: "Embed"
  bottom: "input_sentence"
  top: "embedded_input_sentence"
  param {
    lr_mult: 1
  }
  embed_param {
    num_output: 500
    input_dim: 46168
    bias_term: false
    weight_filler {
      type: "uniform"
      min: -0.08
      max: 0.08
    }
  }
}
layer {
  name: "lstm1"
  type: "LSTM"
  bottom: "embedded_input_frames"
  bottom: "cont_sentence"
  top: "lstm1"
  recurrent_param {
    num_output: 1000
    weight_filler {
      type: "uniform"
      min: -0.08
      max: 0.08
    }
    bias_filler {
      type: "constant"
      value: 0
    }
  }
}
layer {
  name: "concat"
  type: "Concat"
  bottom: "lstm1"
  bottom: "embedded_input_sentence"
  bottom: "reshaped_stage_indicator"
  top: "lstm1_video_sequence"
  concat_param {
    concat_dim: 2
  }
}
layer {
  name: "lstm2"
  type: "LSTM"
  bottom: "lstm1_video_sequence"
  bottom: "cont_sentence"
  top: "lstm2"
  recurrent_param {
    num_output: 1000
    weight_filler {
      type: "uniform"
      min: -0.08
      max: 0.08
    }
    bias_filler {
      type: "constant"
      value: 0
    }
  }
}
layer {
  name: "predict"
  type: "InnerProduct"
  bottom: "lstm2"
  top: "predict"
  param {
    lr_mult: 1
    decay_mult: 1
  }
  param {
    lr_mult: 2
    decay_mult: 0
  }
  inner_product_param {
    num_output: 46168
    weight_filler {
      type: "uniform"
      min: -0.08
      max: 0.08
    }
    bias_filler {
      type: "constant"
      value: 0
    }
    axis: 2
  }
}
layer {
  name: "probs"
  type: "Softmax"
  bottom: "predict"
  top: "probs"
  softmax_param {
    axis: 2
  }
}
I0924 04:23:31.047205 30548 net.cpp:49] Initializing net from parameters: 
name: "s2vt:features_to_lstm"
state {
  phase: TEST
}
layer {
  name: "input"
  type: "Input"
  top: "frames_fc7"
  top: "cont_sentence"
  top: "input_sentence"
  top: "stage_indicator"
  input_param {
    shape {
      dim: 1
      dim: 4096
    }
    shape {
      dim: 1
      dim: 1
    }
    shape {
      dim: 1
      dim: 1
    }
    shape {
      dim: 1
      dim: 1
    }
  }
}
layer {
  name: "embed_encoder"
  type: "InnerProduct"
  bottom: "frames_fc7"
  top: "embedded_in_frames"
  param {
    lr_mult: 1
    decay_mult: 1
  }
  param {
    lr_mult: 2
    decay_mult: 0
  }
  inner_product_param {
    num_output: 500
    weight_filler {
      type: "xavier"
    }
    bias_filler {
      type: "constant"
      value: 0.2
    }
  }
}
layer {
  name: "reshape_frames"
  type: "Reshape"
  bottom: "embedded_in_frames"
  top: "embedded_input_frames"
  reshape_param {
    shape {
      dim: 1
      dim: 1
      dim: 500
    }
  }
}
layer {
  name: "reshape_stage_indicator"
  type: "Reshape"
  bottom: "stage_indicator"
  top: "reshaped_stage_indicator"
  reshape_param {
    shape {
      dim: 1
      dim: 1
      dim: 1
    }
  }
}
layer {
  name: "embedding"
  type: "Embed"
  bottom: "input_sentence"
  top: "embedded_input_sentence"
  param {
    lr_mult: 1
  }
  embed_param {
    num_output: 500
    input_dim: 46168
    bias_term: false
    weight_filler {
      type: "uniform"
      min: -0.08
      max: 0.08
    }
  }
}
layer {
  name: "lstm1"
  type: "LSTM"
  bottom: "embedded_input_frames"
  bottom: "cont_sentence"
  top: "lstm1"
  recurrent_param {
    num_output: 1000
    weight_filler {
      type: "uniform"
      min: -0.08
      max: 0.08
    }
    bias_filler {
      type: "constant"
      value: 0
    }
  }
}
layer {
  name: "concat"
  type: "Concat"
  bottom: "lstm1"
  bottom: "embedded_input_sentence"
  bottom: "reshaped_stage_indicator"
  top: "lstm1_video_sequence"
  concat_param {
    concat_dim: 2
  }
}
layer {
  name: "lstm2"
  type: "LSTM"
  bottom: "lstm1_video_sequence"
  bottom: "cont_sentence"
  top: "lstm2"
  recurrent_param {
    num_output: 1000
    weight_filler {
      type: "uniform"
      min: -0.08
      max: 0.08
    }
    bias_filler {
      type: "constant"
      value: 0
    }
  }
}
layer {
  name: "predict"
  type: "InnerProduct"
  bottom: "lstm2"
  top: "predict"
  param {
    lr_mult: 1
    decay_mult: 1
  }
  param {
    lr_mult: 2
    decay_mult: 0
  }
  inner_product_param {
    num_output: 46168
    weight_filler {
      type: "uniform"
      min: -0.08
      max: 0.08
    }
    bias_filler {
      type: "constant"
      value: 0
    }
    axis: 2
  }
}
layer {
  name: "probs"
  type: "Softmax"
  bottom: "predict"
  top: "probs"
  softmax_param {
    axis: 2
  }
}
I0924 04:23:31.047322 30552 layer_factory.hpp:77] Creating layer input
I0924 04:23:31.047330 30500 layer_factory.hpp:77] Creating layer input
I0924 04:23:31.047345 30552 net.cpp:91] Creating Layer input
I0924 04:23:31.047348 30526 layer_factory.hpp:77] Creating layer input
I0924 04:23:31.047358 30552 net.cpp:399] input -> frames_fc7
I0924 04:23:31.047351 30548 layer_factory.hpp:77] Creating layer input
…
W0924 04:23:31.047585 30514 upgrade_proto.cpp:71] Note that future Caffe releases will only support input layers and not input fields.
I0924 04:23:31.047808 30492 net.cpp:49] Initializing net from parameters: 
name: "s2vt:features_to_lstm"
state {
  phase: TEST
}
layer {
  name: "input"
  type: "Input"
  top: "frames_fc7"
  top: "cont_sentence"
  top: "input_sentence"
  top: "stage_indicator"
  input_param {
    shape {
      dim: 1
      dim: 4096
    }
    shape {
      dim: 1
      dim: 1
    }
    shape {
      dim: 1
      dim: 1
    }
    shape {
      dim: 1
      dim: 1
    }
  }
}
layer {
  name: "embed_encoder"
  type: "InnerProduct"
  bottom: "frames_fc7"
  top: "embedded_in_frames"
  param {
    lr_mult: 1
    decay_mult: 1
  }
  param {
    lr_mult: 2
    decay_mult: 0
  }
  inner_product_param {
    num_output: 500
    weight_filler {
      type: "xavier"
    }
    bias_filler {
      type: "constant"
      value: 0.2
    }
  }
}
layer {
  name: "reshape_frames"
  type: "Reshape"
  bottom: "embedded_in_frames"
  top: "embedded_input_frames"
  reshape_param {
    shape {
      dim: 1
      dim: 1
      dim: 500
    }
  }
}
layer {
  name: "reshape_stage_indicator"
  type: "Reshape"
  bottom: "stage_indicator"
  top: "reshaped_stage_indicator"
  reshape_param {
    shape {
      dim: 1
      dim: 1
      dim: 1
    }
  }
}
layer {
  name: "embedding"
  type: "Embed"
  bottom: "input_sentence"
  top: "embedded_input_sentence"
  param {
    lr_mult: 1
  }
  embed_param {
    num_output: 500
    input_dim: 46168
    bias_term: false
    weight_filler {
      type: "uniform"
      min: -0.08
      max: 0.08
    }
  }
}
layer {
  name: "lstm1"
  type: "LSTM"
  bottom: "embedded_input_frames"
  bottom: "cont_sentence"
  top: "lstm1"
  recurrent_param {
    num_output: 1000
    weight_filler {
      type: "uniform"
      min: -0.08
      max: 0.08
    }
    bias_filler {
      type: "constant"
      value: 0
    }
  }
}
layer {
  name: "concat"
  type: "Concat"
  bottom: "lstm1"
  bottom: "embedded_input_sentence"
  bottom: "reshaped_stage_indicator"
  top: "lstm1_video_sequence"
  concat_param {
    concat_dim: 2
  }
}
layer {
  name: "lstm2"
  type: "LSTM"
  bottom: "lstm1_video_sequence"
  bottom: "cont_sentence"
  top: "lstm2"
  recurrent_param {
    num_output: 1000
    weight_filler {
      type: "uniform"
      min: -0.08
      max: 0.08
    }
    bias_filler {
      type: "constant"
      value: 0
    }
  }
}
layer {
  name: "predict"
  type: "InnerProduct"
  bottom: "lstm2"
  top: "predict"
  param {
    lr_mult: 1
    decay_mult: 1
  }
  param {
    lr_mult: 2
    decay_mult: 0
  }
  inner_product_param {
    num_output: 46168
    weight_filler {
      type: "uniform"
      min: -0.08
      max: 0.08
    }
    bias_filler {
      type: "constant"
      value: 0
    }
    axis: 2
  }
}
layer {
  name: "probs"
  type: "Softmax"
  bottom: "predict"
  top: "probs"
  softmax_param {
    axis: 2
  }
}
I0924 04:23:31.047891 30514 net.cpp:49] Initializing net from parameters: 
name: "s2vt:features_to_lstm"
state {
  phase: TEST
}
layer {
  name: "input"
  type: "Input"
  top: "frames_fc7"
  top: "cont_sentence"
  top: "input_sentence"
  top: "stage_indicator"
  input_param {
    shape {
      dim: 1
      dim: 4096
    }
    shape {
      dim: 1
      dim: 1
    }
    shape {
      dim: 1
      dim: 1
    }
    shape {
      dim: 1
      dim: 1
    }
  }
}
layer {
  name: "embed_encoder"
  type: "InnerProduct"
  bottom: "frames_fc7"
  top: "embedded_in_frames"
  param {
    lr_mult: 1
    decay_mult: 1
  }
  param {
    lr_mult: 2
    decay_mult: 0
  }
  inner_product_param {
    num_output: 500
    weight_filler {
      type: "xavier"
    }
    bias_filler {
      type: "constant"
      value: 0.2
    }
  }
}
layer {
  name: "reshape_frames"
  type: "Reshape"
  bottom: "embedded_in_frames"
  top: "embedded_input_frames"
  reshape_param {
    shape {
      dim: 1
      dim: 1
      dim: 500
    }
  }
}
layer {
  name: "reshape_stage_indicator"
  type: "Reshape"
  bottom: "stage_indicator"
  top: "reshaped_stage_indicator"
  reshape_param {
    shape {
      dim: 1
      dim: 1
      dim: 1
    }
  }
}
layer {
  name: "embedding"
  type: "Embed"
  bottom: "input_sentence"
  top: "embedded_input_sentence"
  param {
    lr_mult: 1
  }
  embed_param {
    num_output: 500
    input_dim: 46168
    bias_term: false
    weight_filler {
      type: "uniform"
      min: -0.08
      max: 0.08
    }
  }
}
layer {
  name: "lstm1"
  type: "LSTM"
  bottom: "embedded_input_frames"
  bottom: "cont_sentence"
  top: "lstm1"
  recurrent_param {
    num_output: 1000
    weight_filler {
      type: "uniform"
      min: -0.08
      max: 0.08
    }
    bias_filler {
      type: "constant"
      value: 0
    }
  }
}
layer {
  name: "concat"
  type: "Concat"
  bottom: "lstm1"
  bottom: "embedded_input_sentence"
  bottom: "reshaped_stage_indicator"
  top: "lstm1_video_sequence"
  concat_param {
    concat_dim: 2
  }
}
layer {
  name: "lstm2"
  type: "LSTM"
  bottom: "lstm1_video_sequence"
  bottom: "cont_sentence"
  top: "lstm2"
  recurrent_param {
    num_output: 1000
    weight_filler {
      type: "uniform"
      min: -0.08
      max: 0.08
    }
    bias_filler {
      type: "constant"
      value: 0
    }
  }
}
layer {
  name: "predict"
  type: "InnerProduct"
  bottom: "lstm2"
  top: "predict"
  param {
    lr_mult: 1
    decay_mult: 1
  }
  param {
    lr_mult: 2
    decay_mult: 0
  }
  inner_product_param {
    num_output: 46168
    weight_filler {
      type: "uniform"
      min: -0.08
      max: 0.08
    }
    bias_filler {
      type: "constant"
      value: 0
    }
    axis: 2
  }
}
layer {
  name: "probs"
  type: "Softmax"
  bottom: "predict"
  top: "probs"
  softmax_param {
    axis: 2
  }
}
I0924 04:23:31.047929 30492 layer_factory.hpp:77] Creating layer input
I0924 04:23:31.047951 30492 net.cpp:91] Creating Layer input
I0924 04:23:31.047966 30492 net.cpp:399] input -> frames_fc7
I0924 04:23:31.047991 30492 net.cpp:399] input -> cont_sentence
I0924 04:23:31.048013 30492 net.cpp:399] input -> input_sentence
I0924 04:23:31.048007 30496 net.cpp:49] Initializing net from parameters: 
name: "s2vt:features_to_lstm"
state {
  phase: TEST
}
layer {
  name: "input"
  type: "Input"
  top: "frames_fc7"
  top: "cont_sentence"
  top: "input_sentence"
  top: "stage_indicator"
  input_param {
    shape {
      dim: 1
      dim: 4096
    }
    shape {
      dim: 1
      dim: 1
    }
    shape {
      dim: 1
      dim: 1
    }
    shape {
      dim: 1
      dim: 1
    }
  }
}
layer {
  name: "embed_encoder"
  type: "InnerProduct"
  bottom: "frames_fc7"
  top: "embedded_in_frames"
  param {
    lr_mult: 1
    decay_mult: 1
  }
  param {
    lr_mult: 2
    decay_mult: 0
  }
  inner_product_param {
    num_output: 500
    weight_filler {
      type: "xavier"
    }
    bias_filler {
      type: "constant"
      value: 0.2
    }
  }
}
layer {
  name: "reshape_frames"
  type: "Reshape"
  bottom: "embedded_in_frames"
  top: "embedded_input_frames"
  reshape_param {
    shape {
      dim: 1
      dim: 1
      dim: 500
    }
  }
}
layer {
  name: "reshape_stage_indicator"
  type: "Reshape"
  bottom: "stage_indicator"
  top: "reshaped_stage_indicator"
  reshape_param {
    shape {
      dim: 1
      dim: 1
      dim: 1
    }
  }
}
layer {
  name: "embedding"
  type: "Embed"
  bottom: "input_sentence"
  top: "embedded_input_sentence"
  param {
    lr_mult: 1
  }
  embed_param {
    num_output: 500
    input_dim: 46168
    bias_term: false
    weight_filler {
      type: "uniform"
      min: -0.08
      max: 0.08
    }
  }
}
layer {
  name: "lstm1"
  type: "LSTM"
  bottom: "embedded_input_frames"
  bottom: "cont_sentence"
  top: "lstm1"
  recurrent_param {
    num_output: 1000
    weight_filler {
      type: "uniform"
      min: -0.08
      max: 0.08
    }
    bias_filler {
      type: "constant"
      value: 0
    }
  }
}
layer {
  name: "concat"
  type: "Concat"
  bottom: "lstm1"
  bottom: "embedded_input_sentence"
  bottom: "reshaped_stage_indicator"
  top: "lstm1_video_sequence"
  concat_param {
    concat_dim: 2
  }
}
layer {
  name: "lstm2"
  type: "LSTM"
  bottom: "lstm1_video_sequence"
  bottom: "cont_sentence"
  top: "lstm2"
  recurrent_param {
    num_output: 1000
    weight_filler {
      type: "uniform"
      min: -0.08
      max: 0.08
    }
    bias_filler {
      type: "constant"
      value: 0
    }
  }
}
layer {
  name: "predict"
  type: "InnerProduct"
  bottom: "lstm2"
  top: "predict"
  param {
    lr_mult: 1
    decay_mult: 1
  }
  param {
    lr_mult: 2
    decay_mult: 0
  }
  inner_product_param {
    num_output: 46168
    weight_filler {
      type: "uniform"
      min: -0.08
      max: 0.08
    }
    bias_filler {
      type: "constant"
      value: 0
    }
    axis: 2
  }
}
layer {
  name: "probs"
  type: "Softmax"
  bottom: "predict"
  top: "probs"
  softmax_param {
    axis: 2
  }
}
I0924 04:23:31.048037 30492 net.cpp:399] input -> stage_indicator
I0924 04:23:31.048019 30514 layer_factory.hpp:77] Creating layer input
I0924 04:23:31.047418 30552 net.cpp:399] input -> input_sentence
I0924 04:23:31.048079 30514 net.cpp:91] Creating Layer input
I0924 04:23:31.048094 30514 net.cpp:399] input -> frames_fc7
I0924 04:23:31.048099 30552 net.cpp:399] input -> stage_indicator
…
I0924 04:23:31.048305 30496 net.cpp:399] input -> input_sentence
I0924 04:23:31.048328 30496 net.cpp:399] input -> stage_indicator
I0924 04:23:31.048547 30540 net.cpp:49] Initializing net from parameters: 
name: "s2vt:features_to_lstm"
state {
  phase: TEST
}
layer {
  name: "input"
  type: "Input"
  top: "frames_fc7"
  top: "cont_sentence"
  top: "input_sentence"
  top: "stage_indicator"
  input_param {
    shape {
      dim: 1
      dim: 4096
    }
    shape {
      dim: 1
      dim: 1
    }
    shape {
      dim: 1
      dim: 1
    }
    shape {
      dim: 1
      dim: 1
    }
  }
}
layer {
  name: "embed_encoder"
  type: "InnerProduct"
  bottom: "frames_fc7"
  top: "embedded_in_frames"
  param {
    lr_mult: 1
    decay_mult: 1
  }
  param {
    lr_mult: 2
    decay_mult: 0
  }
  inner_product_param {
    num_output: 500
    weight_filler {
      type: "xavier"
    }
    bias_filler {
      type: "constant"
      value: 0.2
    }
  }
}
layer {
  name: "reshape_frames"
  type: "Reshape"
  bottom: "embedded_in_frames"
  top: "embedded_input_frames"
  reshape_param {
    shape {
      dim: 1
      dim: 1
      dim: 500
    }
  }
}
layer {
  name: "reshape_stage_indicator"
  type: "Reshape"
  bottom: "stage_indicator"
  top: "reshaped_stage_indicator"
  reshape_param {
    shape {
      dim: 1
      dim: 1
      dim: 1
    }
  }
}
layer {
  name: "embedding"
  type: "Embed"
  bottom: "input_sentence"
  top: "embedded_input_sentence"
  param {
    lr_mult: 1
  }
  embed_param {
    num_output: 500
    input_dim: 46168
    bias_term: false
    weight_filler {
      type: "uniform"
      min: -0.08
      max: 0.08
    }
  }
}
layer {
  name: "lstm1"
  type: "LSTM"
  bottom: "embedded_input_frames"
  bottom: "cont_sentence"
  top: "lstm1"
  recurrent_param {
    num_output: 1000
    weight_filler {
      type: "uniform"
      min: -0.08
      max: 0.08
    }
    bias_filler {
      type: "constant"
      value: 0
    }
  }
}
layer {
  name: "concat"
  type: "Concat"
  bottom: "lstm1"
  bottom: "embedded_input_sentence"
  bottom: "reshaped_stage_indicator"
  top: "lstm1_video_sequence"
  concat_param {
    concat_dim: 2
  }
}
layer {
  name: "lstm2"
  type: "LSTM"
  bottom: "lstm1_video_sequence"
  bottom: "cont_sentence"
  top: "lstm2"
  recurrent_param {
    num_output: 1000
    weight_filler {
      type: "uniform"
      min: -0.08
      max: 0.08
    }
    bias_filler {
      type: "constant"
      value: 0
    }
  }
}
layer {
  name: "predict"
  type: "InnerProduct"
  bottom: "lstm2"
  top: "predict"
  param {
    lr_mult: 1
    decay_mult: 1
  }
  param {
    lr_mult: 2
    decay_mult: 0
  }
  inner_product_param {
    num_output: 46168
    weight_filler {
      type: "uniform"
      min: -0.08
      max: 0.08
    }
    bias_filler {
      type: "constant"
      value: 0
    }
    axis: 2
  }
}
layer {
  name: "probs"
  type: "Softmax"
  bottom: "predict"
  top: "probs"
  softmax_param {
    axis: 2
  }
}
I0924 04:23:31.048687 30540 layer_factory.hpp:77] Creating layer input
I0924 04:23:31.048710 30540 net.cpp:91] Creating Layer input
I0924 04:23:31.048727 30540 net.cpp:399] input -> frames_fc7
I0924 04:23:31.048748 30540 net.cpp:399] input -> cont_sentence
I0924 04:23:31.048773 30540 net.cpp:399] input -> input_sentence
I0924 04:23:31.048794 30540 net.cpp:399] input -> stage_indicator
I0924 04:23:31.046689 30520 upgrade_proto.cpp:69] Successfully upgraded file specified using deprecated input fields.
W0924 04:23:31.051482 30520 upgrade_proto.cpp:71] Note that future Caffe releases will only support input layers and not input fields.
I0924 04:23:31.051918 30504 upgrade_proto.cpp:66] Attempting to upgrade input file specified using deprecated input fields: /home/peifeng/work/run/storm102/data/workers/125c5fcb-bca0-4bc4-b465-76554e51c7d5/tmp/cvld1848052374410694015/s2vt.words_to_preds.prototxt
I0924 04:23:31.051940 30520 net.cpp:49] Initializing net from parameters: 
name: "s2vt:features_to_lstm"
state {
  phase: TEST
}
layer {
  name: "input"
  type: "Input"
  top: "frames_fc7"
  top: "cont_sentence"
  top: "input_sentence"
  top: "stage_indicator"
  input_param {
    shape {
      dim: 1
      dim: 4096
    }
    shape {
      dim: 1
      dim: 1
    }
    shape {
      dim: 1
      dim: 1
    }
    shape {
      dim: 1
      dim: 1
    }
  }
}
layer {
  name: "embed_encoder"
  type: "InnerProduct"
  bottom: "frames_fc7"
  top: "embedded_in_frames"
  param {
    lr_mult: 1
    decay_mult: 1
  }
  param {
    lr_mult: 2
    decay_mult: 0
  }
  inner_product_param {
    num_output: 500
    weight_filler {
      type: "xavier"
    }
    bias_filler {
      type: "constant"
      value: 0.2
    }
  }
}
layer {
  name: "reshape_frames"
  type: "Reshape"
  bottom: "embedded_in_frames"
  top: "embedded_input_frames"
  reshape_param {
    shape {
      dim: 1
      dim: 1
      dim: 500
    }
  }
}
layer {
  name: "reshape_stage_indicator"
  type: "Reshape"
  bottom: "stage_indicator"
  top: "reshaped_stage_indicator"
  reshape_param {
    shape {
      dim: 1
      dim: 1
      dim: 1
    }
  }
}
layer {
  name: "embedding"
  type: "Embed"
  bottom: "input_sentence"
  top: "embedded_input_sentence"
  param {
    lr_mult: 1
  }
  embed_param {
    num_output: 500
    input_dim: 46168
    bias_term: false
    weight_filler {
      type: "uniform"
      min: -0.08
      max: 0.08
    }
  }
}
layer {
  name: "lstm1"
  type: "LSTM"
  bottom: "embedded_input_frames"
  bottom: "cont_sentence"
  top: "lstm1"
  recurrent_param {
    num_output: 1000
    weight_filler {
      type: "uniform"
      min: -0.08
      max: 0.08
    }
    bias_filler {
      type: "constant"
      value: 0
    }
  }
}
layer {
  name: "concat"
  type: "Concat"
  bottom: "lstm1"
  bottom: "embedded_input_sentence"
  bottom: "reshaped_stage_indicator"
  top: "lstm1_video_sequence"
  concat_param {
    concat_dim: 2
  }
}
layer {
  name: "lstm2"
  type: "LSTM"
  bottom: "lstm1_video_sequence"
  bottom: "cont_sentence"
  top: "lstm2"
  recurrent_param {
    num_output: 1000
    weight_filler {
      type: "uniform"
      min: -0.08
      max: 0.08
    }
    bias_filler {
      type: "constant"
      value: 0
    }
  }
}
layer {
  name: "predict"
  type: "InnerProduct"
  bottom: "lstm2"
  top: "predict"
  param {
    lr_mult: 1
    decay_mult: 1
  }
  param {
    lr_mult: 2
    decay_mult: 0
  }
  inner_product_param {
    num_output: 46168
    weight_filler {
      type: "uniform"
      min: -0.08
      max: 0.08
    }
    bias_filler {
      type: "constant"
      value: 0
    }
    axis: 2
  }
}
layer {
  name: "probs"
  type: "Softmax"
  bottom: "predict"
  top: "probs"
  softmax_param {
    axis: 2
  }
}
I0924 04:23:31.051975 30504 upgrade_proto.cpp:69] Successfully upgraded file specified using deprecated input fields.
W0924 04:23:31.051985 30504 upgrade_proto.cpp:71] Note that future Caffe releases will only support input layers and not input fields.
I0924 04:23:31.052052 30520 layer_factory.hpp:77] Creating layer input
I0924 04:23:31.052067 30520 net.cpp:91] Creating Layer input
I0924 04:23:31.052074 30520 net.cpp:399] input -> frames_fc7
I0924 04:23:31.052098 30520 net.cpp:399] input -> cont_sentence
I0924 04:23:31.052112 30520 net.cpp:399] input -> input_sentence
I0924 04:23:31.052122 30520 net.cpp:399] input -> stage_indicator
I0924 04:23:31.052218 30504 net.cpp:49] Initializing net from parameters: 
name: "s2vt:features_to_lstm"
state {
  phase: TEST
}
layer {
  name: "input"
  type: "Input"
  top: "frames_fc7"
  top: "cont_sentence"
  top: "input_sentence"
  top: "stage_indicator"
  input_param {
    shape {
      dim: 1
      dim: 4096
    }
    shape {
      dim: 1
      dim: 1
    }
    shape {
      dim: 1
      dim: 1
    }
    shape {
      dim: 1
      dim: 1
    }
  }
}
layer {
  name: "embed_encoder"
  type: "InnerProduct"
  bottom: "frames_fc7"
  top: "embedded_in_frames"
  param {
    lr_mult: 1
    decay_mult: 1
  }
  param {
    lr_mult: 2
    decay_mult: 0
  }
  inner_product_param {
    num_output: 500
    weight_filler {
      type: "xavier"
    }
    bias_filler {
      type: "constant"
      value: 0.2
    }
  }
}
layer {
  name: "reshape_frames"
  type: "Reshape"
  bottom: "embedded_in_frames"
  top: "embedded_input_frames"
  reshape_param {
    shape {
      dim: 1
      dim: 1
      dim: 500
    }
  }
}
layer {
  name: "reshape_stage_indicator"
  type: "Reshape"
  bottom: "stage_indicator"
  top: "reshaped_stage_indicator"
  reshape_param {
    shape {
      dim: 1
      dim: 1
      dim: 1
    }
  }
}
layer {
  name: "embedding"
  type: "Embed"
  bottom: "input_sentence"
  top: "embedded_input_sentence"
  param {
    lr_mult: 1
  }
  embed_param {
    num_output: 500
    input_dim: 46168
    bias_term: false
    weight_filler {
      type: "uniform"
      min: -0.08
      max: 0.08
    }
  }
}
layer {
  name: "lstm1"
  type: "LSTM"
  bottom: "embedded_input_frames"
  bottom: "cont_sentence"
  top: "lstm1"
  recurrent_param {
    num_output: 1000
    weight_filler {
      type: "uniform"
      min: -0.08
      max: 0.08
    }
    bias_filler {
      type: "constant"
      value: 0
    }
  }
}
layer {
  name: "concat"
  type: "Concat"
  bottom: "lstm1"
  bottom: "embedded_input_sentence"
  bottom: "reshaped_stage_indicator"
  top: "lstm1_video_sequence"
  concat_param {
    concat_dim: 2
  }
}
layer {
  name: "lstm2"
  type: "LSTM"
  bottom: "lstm1_video_sequence"
  bottom: "cont_sentence"
  top: "lstm2"
  recurrent_param {
    num_output: 1000
    weight_filler {
      type: "uniform"
      min: -0.08
      max: 0.08
    }
    bias_filler {
      type: "constant"
      value: 0
    }
  }
}
layer {
  name: "predict"
  type: "InnerProduct"
  bottom: "lstm2"
  top: "predict"
  param {
    lr_mult: 1
    decay_mult: 1
  }
  param {
    lr_mult: 2
    decay_mult: 0
  }
  inner_product_param {
    num_output: 46168
    weight_filler {
      type: "uniform"
      min: -0.08
      max: 0.08
    }
    bias_filler {
      type: "constant"
      value: 0
    }
    axis: 2
  }
}
layer {
  name: "probs"
  type: "Softmax"
  bottom: "predict"
  top: "probs"
  softmax_param {
    axis: 2
  }
}
I0924 04:23:31.052304 30504 layer_factory.hpp:77] Creating layer input
I0924 04:23:31.052320 30504 net.cpp:91] Creating Layer input
I0924 04:23:31.052326 30504 net.cpp:399] input -> frames_fc7
I0924 04:23:31.052343 30504 net.cpp:399] input -> cont_sentence
I0924 04:23:31.052353 30504 net.cpp:399] input -> input_sentence
I0924 04:23:31.052363 30504 net.cpp:399] input -> stage_indicator
I0924 04:23:32.272419 30506 net.cpp:141] Setting up data
I0924 04:23:32.272505 30506 net.cpp:148] Top shape: 10 3 227 227 (1545870)
I0924 04:23:32.272513 30506 net.cpp:156] Memory required for data: 6183480
I0924 04:23:32.272538 30506 layer_factory.hpp:77] Creating layer conv1
I0924 04:23:32.272575 30506 net.cpp:91] Creating Layer conv1
I0924 04:23:32.272585 30506 net.cpp:425] conv1 <- data
I0924 04:23:32.272599 30506 net.cpp:399] conv1 -> conv1
I0924 04:23:32.272807 30520 net.cpp:141] Setting up input
I0924 04:23:32.272824 30520 net.cpp:148] Top shape: 1 4096 (4096)
I0924 04:23:32.272835 30520 net.cpp:148] Top shape: 1 1 (1)
I0924 04:23:32.272845 30520 net.cpp:148] Top shape: 1 1 (1)
I0924 04:23:32.272855 30520 net.cpp:148] Top shape: 1 1 (1)
I0924 04:23:32.272862 30520 net.cpp:156] Memory required for data: 16396
I0924 04:23:32.272871 30520 layer_factory.hpp:77] Creating layer cont_sentence_input_1_split
I0924 04:23:32.272931 30520 net.cpp:91] Creating Layer cont_sentence_input_1_split
I0924 04:23:32.272939 30520 net.cpp:425] cont_sentence_input_1_split <- cont_sentence
I0924 04:23:32.272963 30520 net.cpp:399] cont_sentence_input_1_split -> cont_sentence_input_1_split_0
I0924 04:23:32.272976 30520 net.cpp:399] cont_sentence_input_1_split -> cont_sentence_input_1_split_1
I0924 04:23:32.273291 30514 net.cpp:141] Setting up input
I0924 04:23:32.273325 30514 net.cpp:148] Top shape: 1 4096 (4096)
I0924 04:23:32.273332 30514 net.cpp:148] Top shape: 1 1 (1)
I0924 04:23:32.273339 30514 net.cpp:148] Top shape: 1 1 (1)
I0924 04:23:32.273344 30514 net.cpp:148] Top shape: 1 1 (1)
I0924 04:23:32.273347 30514 net.cpp:156] Memory required for data: 16396
I0924 04:23:32.273355 30514 layer_factory.hpp:77] Creating layer cont_sentence_input_1_split
I0924 04:23:32.273371 30514 net.cpp:91] Creating Layer cont_sentence_input_1_split
I0924 04:23:32.273377 30514 net.cpp:425] cont_sentence_input_1_split <- cont_sentence
I0924 04:23:32.273377 30540 net.cpp:141] Setting up input
I0924 04:23:32.273393 30514 net.cpp:399] cont_sentence_input_1_split -> cont_sentence_input_1_split_0
I0924 04:23:32.273397 30540 net.cpp:148] Top shape: 1 4096 (4096)
I0924 04:23:32.273406 30540 net.cpp:148] Top shape: 1 1 (1)
I0924 04:23:32.273408 30514 net.cpp:399] cont_sentence_input_1_split -> cont_sentence_input_1_split_1
I0924 04:23:32.273412 30540 net.cpp:148] Top shape: 1 1 (1)
I0924 04:23:32.273418 30540 net.cpp:148] Top shape: 1 1 (1)
I0924 04:23:32.273422 30540 net.cpp:156] Memory required for data: 16396
I0924 04:23:32.273432 30540 layer_factory.hpp:77] Creating layer cont_sentence_input_1_split
I0924 04:23:32.273442 30540 net.cpp:91] Creating Layer cont_sentence_input_1_split
I0924 04:23:32.273450 30540 net.cpp:425] cont_sentence_input_1_split <- cont_sentence
I0924 04:23:32.273460 30540 net.cpp:399] cont_sentence_input_1_split -> cont_sentence_input_1_split_0
I0924 04:23:32.273470 30514 net.cpp:141] Setting up cont_sentence_input_1_split
I0924 04:23:32.273473 30540 net.cpp:399] cont_sentence_input_1_split -> cont_sentence_input_1_split_1
I0924 04:23:32.273485 30514 net.cpp:148] Top shape: 1 1 (1)
I0924 04:23:32.273504 30514 net.cpp:148] Top shape: 1 1 (1)
I0924 04:23:32.273509 30514 net.cpp:156] Memory required for data: 16404
I0924 04:23:32.273512 30514 layer_factory.hpp:77] Creating layer embed_encoder
I0924 04:23:32.273536 30514 net.cpp:91] Creating Layer embed_encoder
I0924 04:23:32.273541 30514 net.cpp:425] embed_encoder <- frames_fc7
I0924 04:23:32.273550 30514 net.cpp:399] embed_encoder -> embedded_in_frames
I0924 04:23:32.273548 30540 net.cpp:141] Setting up cont_sentence_input_1_split
I0924 04:23:32.273571 30540 net.cpp:148] Top shape: 1 1 (1)
I0924 04:23:32.273576 30540 net.cpp:148] Top shape: 1 1 (1)
I0924 04:23:32.273581 30540 net.cpp:156] Memory required for data: 16404
I0924 04:23:32.273586 30540 layer_factory.hpp:77] Creating layer embed_encoder
I0924 04:23:32.273602 30540 net.cpp:91] Creating Layer embed_encoder
I0924 04:23:32.273607 30540 net.cpp:425] embed_encoder <- frames_fc7
I0924 04:23:32.273617 30540 net.cpp:399] embed_encoder -> embedded_in_frames
I0924 04:23:32.278273 30492 net.cpp:141] Setting up input
I0924 04:23:32.278336 30492 net.cpp:148] Top shape: 1 4096 (4096)
I0924 04:23:32.278347 30492 net.cpp:148] Top shape: 1 1 (1)
I0924 04:23:32.278355 30492 net.cpp:148] Top shape: 1 1 (1)
I0924 04:23:32.278364 30492 net.cpp:148] Top shape: 1 1 (1)
I0924 04:23:32.278370 30492 net.cpp:156] Memory required for data: 16396
I0924 04:23:32.278384 30492 layer_factory.hpp:77] Creating layer cont_sentence_input_1_split
I0924 04:23:32.278411 30492 net.cpp:91] Creating Layer cont_sentence_input_1_split
I0924 04:23:32.278420 30492 net.cpp:425] cont_sentence_input_1_split <- cont_sentence
I0924 04:23:32.278435 30492 net.cpp:399] cont_sentence_input_1_split -> cont_sentence_input_1_split_0
I0924 04:23:32.278453 30492 net.cpp:399] cont_sentence_input_1_split -> cont_sentence_input_1_split_1
I0924 04:23:32.278472 30548 net.cpp:141] Setting up input
I0924 04:23:32.278525 30548 net.cpp:148] Top shape: 1 4096 (4096)
I0924 04:23:32.278532 30492 net.cpp:141] Setting up cont_sentence_input_1_split
I0924 04:23:32.278542 30548 net.cpp:148] Top shape: 1 1 (1)
I0924 04:23:32.278545 30492 net.cpp:148] Top shape: 1 1 (1)
I0924 04:23:32.278553 30548 net.cpp:148] Top shape: 1 1 (1)
I0924 04:23:32.278556 30492 net.cpp:148] Top shape: 1 1 (1)
I0924 04:23:32.278564 30548 net.cpp:148] Top shape: 1 1 (1)
I0924 04:23:32.278584 30548 net.cpp:156] Memory required for data: 16396
I0924 04:23:32.278619 30548 layer_factory.hpp:77] Creating layer cont_sentence_input_1_split
I0924 04:23:32.278648 30548 net.cpp:91] Creating Layer cont_sentence_input_1_split
I0924 04:23:32.278666 30548 net.cpp:425] cont_sentence_input_1_split <- cont_sentence
I0924 04:23:32.278687 30548 net.cpp:399] cont_sentence_input_1_split -> cont_sentence_input_1_split_0
I0924 04:23:32.278712 30548 net.cpp:399] cont_sentence_input_1_split -> cont_sentence_input_1_split_1
I0924 04:23:32.278806 30548 net.cpp:141] Setting up cont_sentence_input_1_split
I0924 04:23:32.278825 30548 net.cpp:148] Top shape: 1 1 (1)
I0924 04:23:32.278836 30548 net.cpp:148] Top shape: 1 1 (1)
I0924 04:23:32.278843 30548 net.cpp:156] Memory required for data: 16404
I0924 04:23:32.278851 30548 layer_factory.hpp:77] Creating layer embed_encoder
I0924 04:23:32.278877 30548 net.cpp:91] Creating Layer embed_encoder
I0924 04:23:32.278889 30548 net.cpp:425] embed_encoder <- frames_fc7
I0924 04:23:32.278903 30548 net.cpp:399] embed_encoder -> embedded_in_frames
I0924 04:23:32.278564 30492 net.cpp:156] Memory required for data: 16404
I0924 04:23:32.279085 30492 layer_factory.hpp:77] Creating layer embed_encoder
I0924 04:23:32.281568 30492 net.cpp:91] Creating Layer embed_encoder
I0924 04:23:32.281586 30492 net.cpp:425] embed_encoder <- frames_fc7
I0924 04:23:32.281600 30492 net.cpp:399] embed_encoder -> embedded_in_frames
I0924 04:23:32.291421 30500 net.cpp:141] Setting up input
I0924 04:23:32.291411 30526 net.cpp:141] Setting up input
I0924 04:23:32.291471 30500 net.cpp:148] Top shape: 1 4096 (4096)
I0924 04:23:32.291472 30526 net.cpp:148] Top shape: 1 4096 (4096)
I0924 04:23:32.291491 30500 net.cpp:148] Top shape: 1 1 (1)
I0924 04:23:32.291496 30526 net.cpp:148] Top shape: 1 1 (1)
I0924 04:23:32.291501 30500 net.cpp:148] Top shape: 1 1 (1)
I0924 04:23:32.291507 30526 net.cpp:148] Top shape: 1 1 (1)
I0924 04:23:32.291512 30500 net.cpp:148] Top shape: 1 1 (1)
I0924 04:23:32.291517 30526 net.cpp:148] Top shape: 1 1 (1)
I0924 04:23:32.291519 30500 net.cpp:156] Memory required for data: 16396
I0924 04:23:32.291523 30526 net.cpp:156] Memory required for data: 16396
I0924 04:23:32.291534 30500 layer_factory.hpp:77] Creating layer cont_sentence_input_1_split
I0924 04:23:32.291535 30526 layer_factory.hpp:77] Creating layer cont_sentence_input_1_split
I0924 04:23:32.291589 30500 net.cpp:91] Creating Layer cont_sentence_input_1_split
I0924 04:23:32.291589 30526 net.cpp:91] Creating Layer cont_sentence_input_1_split
I0924 04:23:32.291612 30500 net.cpp:425] cont_sentence_input_1_split <- cont_sentence
I0924 04:23:32.291630 30500 net.cpp:399] cont_sentence_input_1_split -> cont_sentence_input_1_split_0
I0924 04:23:32.291631 30526 net.cpp:425] cont_sentence_input_1_split <- cont_sentence
I0924 04:23:32.291651 30526 net.cpp:399] cont_sentence_input_1_split -> cont_sentence_input_1_split_0
I0924 04:23:32.291653 30500 net.cpp:399] cont_sentence_input_1_split -> cont_sentence_input_1_split_1
I0924 04:23:32.291669 30526 net.cpp:399] cont_sentence_input_1_split -> cont_sentence_input_1_split_1
I0924 04:23:32.291740 30500 net.cpp:141] Setting up cont_sentence_input_1_split
I0924 04:23:32.291754 30500 net.cpp:148] Top shape: 1 1 (1)
I0924 04:23:32.291764 30500 net.cpp:148] Top shape: 1 1 (1)
I0924 04:23:32.291770 30500 net.cpp:156] Memory required for data: 16404
I0924 04:23:32.291777 30500 layer_factory.hpp:77] Creating layer embed_encoder
I0924 04:23:32.291801 30500 net.cpp:91] Creating Layer embed_encoder
I0924 04:23:32.291811 30500 net.cpp:425] embed_encoder <- frames_fc7
I0924 04:23:32.291826 30500 net.cpp:399] embed_encoder -> embedded_in_frames
I0924 04:23:32.292019 30504 net.cpp:141] Setting up input
I0924 04:23:32.292059 30504 net.cpp:148] Top shape: 1 4096 (4096)
I0924 04:23:32.292073 30504 net.cpp:148] Top shape: 1 1 (1)
I0924 04:23:32.292083 30504 net.cpp:148] Top shape: 1 1 (1)
I0924 04:23:32.292093 30504 net.cpp:148] Top shape: 1 1 (1)
I0924 04:23:32.292099 30504 net.cpp:156] Memory required for data: 16396
I0924 04:23:32.292114 30504 layer_factory.hpp:77] Creating layer cont_sentence_input_1_split
I0924 04:23:32.292135 30504 net.cpp:91] Creating Layer cont_sentence_input_1_split
I0924 04:23:32.292146 30496 net.cpp:141] Setting up input
I0924 04:23:32.292146 30504 net.cpp:425] cont_sentence_input_1_split <- cont_sentence
I0924 04:23:32.292198 30496 net.cpp:148] Top shape: 1 4096 (4096)
I0924 04:23:32.292208 30504 net.cpp:399] cont_sentence_input_1_split -> cont_sentence_input_1_split_0
I0924 04:23:32.292212 30496 net.cpp:148] Top shape: 1 1 (1)
I0924 04:23:32.292223 30496 net.cpp:148] Top shape: 1 1 (1)
I0924 04:23:32.292232 30496 net.cpp:148] Top shape: 1 1 (1)
I0924 04:23:32.292233 30504 net.cpp:399] cont_sentence_input_1_split -> cont_sentence_input_1_split_1
I0924 04:23:32.292239 30496 net.cpp:156] Memory required for data: 16396
I0924 04:23:32.292268 30496 layer_factory.hpp:77] Creating layer cont_sentence_input_1_split
I0924 04:23:32.292286 30496 net.cpp:91] Creating Layer cont_sentence_input_1_split
I0924 04:23:32.292294 30496 net.cpp:425] cont_sentence_input_1_split <- cont_sentence
I0924 04:23:32.292309 30496 net.cpp:399] cont_sentence_input_1_split -> cont_sentence_input_1_split_0
I0924 04:23:32.292325 30496 net.cpp:399] cont_sentence_input_1_split -> cont_sentence_input_1_split_1
I0924 04:23:32.303813 30520 net.cpp:141] Setting up cont_sentence_input_1_split
I0924 04:23:32.303876 30520 net.cpp:148] Top shape: 1 1 (1)
I0924 04:23:32.303891 30520 net.cpp:148] Top shape: 1 1 (1)
I0924 04:23:32.303900 30520 net.cpp:156] Memory required for data: 16404
I0924 04:23:32.303916 30520 layer_factory.hpp:77] Creating layer embed_encoder
I0924 04:23:32.303956 30520 net.cpp:91] Creating Layer embed_encoder
I0924 04:23:32.303967 30520 net.cpp:425] embed_encoder <- frames_fc7
I0924 04:23:32.303990 30520 net.cpp:399] embed_encoder -> embedded_in_frames
I0924 04:23:32.310963 30526 net.cpp:141] Setting up cont_sentence_input_1_split
I0924 04:23:32.311022 30526 net.cpp:148] Top shape: 1 1 (1)
I0924 04:23:32.311035 30526 net.cpp:148] Top shape: 1 1 (1)
I0924 04:23:32.311043 30526 net.cpp:156] Memory required for data: 16404
I0924 04:23:32.311056 30526 layer_factory.hpp:77] Creating layer embed_encoder
I0924 04:23:32.311094 30526 net.cpp:91] Creating Layer embed_encoder
I0924 04:23:32.311106 30526 net.cpp:425] embed_encoder <- frames_fc7
I0924 04:23:32.311127 30526 net.cpp:399] embed_encoder -> embedded_in_frames
I0924 04:23:32.311167 30504 net.cpp:141] Setting up cont_sentence_input_1_split
I0924 04:23:32.311213 30504 net.cpp:148] Top shape: 1 1 (1)
I0924 04:23:32.311223 30504 net.cpp:148] Top shape: 1 1 (1)
I0924 04:23:32.311233 30504 net.cpp:156] Memory required for data: 16404
I0924 04:23:32.311244 30504 layer_factory.hpp:77] Creating layer embed_encoder
I0924 04:23:32.311271 30504 net.cpp:91] Creating Layer embed_encoder
I0924 04:23:32.311285 30504 net.cpp:425] embed_encoder <- frames_fc7
I0924 04:23:32.314755 30504 net.cpp:399] embed_encoder -> embedded_in_frames
I0924 04:23:32.319252 30552 net.cpp:141] Setting up input
I0924 04:23:32.319327 30552 net.cpp:148] Top shape: 1 4096 (4096)
I0924 04:23:32.319341 30552 net.cpp:148] Top shape: 1 1 (1)
I0924 04:23:32.319352 30552 net.cpp:148] Top shape: 1 1 (1)
I0924 04:23:32.319363 30552 net.cpp:148] Top shape: 1 1 (1)
I0924 04:23:32.319370 30552 net.cpp:156] Memory required for data: 16396
I0924 04:23:32.319386 30552 layer_factory.hpp:77] Creating layer cont_sentence_input_1_split
I0924 04:23:32.319411 30552 net.cpp:91] Creating Layer cont_sentence_input_1_split
I0924 04:23:32.319424 30552 net.cpp:425] cont_sentence_input_1_split <- cont_sentence
I0924 04:23:32.319442 30552 net.cpp:399] cont_sentence_input_1_split -> cont_sentence_input_1_split_0
I0924 04:23:32.319465 30552 net.cpp:399] cont_sentence_input_1_split -> cont_sentence_input_1_split_1
I0924 04:23:32.325840 30496 net.cpp:141] Setting up cont_sentence_input_1_split
I0924 04:23:32.325912 30496 net.cpp:148] Top shape: 1 1 (1)
I0924 04:23:32.325930 30496 net.cpp:148] Top shape: 1 1 (1)
I0924 04:23:32.325942 30496 net.cpp:156] Memory required for data: 16404
I0924 04:23:32.325955 30496 layer_factory.hpp:77] Creating layer embed_encoder
I0924 04:23:32.325991 30496 net.cpp:91] Creating Layer embed_encoder
I0924 04:23:32.326004 30496 net.cpp:425] embed_encoder <- frames_fc7
I0924 04:23:32.326025 30496 net.cpp:399] embed_encoder -> embedded_in_frames
I0924 04:23:32.326052 30552 net.cpp:141] Setting up cont_sentence_input_1_split
I0924 04:23:32.326071 30552 net.cpp:148] Top shape: 1 1 (1)
I0924 04:23:32.326082 30552 net.cpp:148] Top shape: 1 1 (1)
I0924 04:23:32.326091 30552 net.cpp:156] Memory required for data: 16404
I0924 04:23:32.326099 30552 layer_factory.hpp:77] Creating layer embed_encoder
I0924 04:23:32.326122 30552 net.cpp:91] Creating Layer embed_encoder
I0924 04:23:32.326133 30552 net.cpp:425] embed_encoder <- frames_fc7
I0924 04:23:32.326148 30552 net.cpp:399] embed_encoder -> embedded_in_frames
I0924 04:23:32.332631 30540 net.cpp:141] Setting up embed_encoder
I0924 04:23:32.332710 30540 net.cpp:148] Top shape: 1 500 (500)
I0924 04:23:32.332726 30540 net.cpp:156] Memory required for data: 18404
I0924 04:23:32.332774 30540 layer_factory.hpp:77] Creating layer reshape_frames
I0924 04:23:32.332828 30540 net.cpp:91] Creating Layer reshape_frames
I0924 04:23:32.332845 30540 net.cpp:425] reshape_frames <- embedded_in_frames
I0924 04:23:32.332865 30540 net.cpp:399] reshape_frames -> embedded_input_frames
I0924 04:23:32.332980 30540 net.cpp:141] Setting up reshape_frames
I0924 04:23:32.333004 30540 net.cpp:148] Top shape: 1 1 500 (500)
I0924 04:23:32.333015 30540 net.cpp:156] Memory required for data: 20404
I0924 04:23:32.333026 30540 layer_factory.hpp:77] Creating layer reshape_stage_indicator
I0924 04:23:32.333046 30540 net.cpp:91] Creating Layer reshape_stage_indicator
I0924 04:23:32.333055 30540 net.cpp:425] reshape_stage_indicator <- stage_indicator
I0924 04:23:32.333071 30540 net.cpp:399] reshape_stage_indicator -> reshaped_stage_indicator
I0924 04:23:32.333140 30540 net.cpp:141] Setting up reshape_stage_indicator
I0924 04:23:32.333159 30540 net.cpp:148] Top shape: 1 1 1 (1)
I0924 04:23:32.333168 30540 net.cpp:156] Memory required for data: 20408
I0924 04:23:32.333176 30540 layer_factory.hpp:77] Creating layer embedding
I0924 04:23:32.333199 30540 net.cpp:91] Creating Layer embedding
I0924 04:23:32.333209 30540 net.cpp:425] embedding <- input_sentence
I0924 04:23:32.333225 30540 net.cpp:399] embedding -> embedded_input_sentence
I0924 04:23:32.374243 30548 net.cpp:141] Setting up embed_encoder
I0924 04:23:32.374308 30548 net.cpp:148] Top shape: 1 500 (500)
I0924 04:23:32.374320 30548 net.cpp:156] Memory required for data: 18404
I0924 04:23:32.374348 30548 layer_factory.hpp:77] Creating layer reshape_frames
I0924 04:23:32.374379 30548 net.cpp:91] Creating Layer reshape_frames
I0924 04:23:32.374392 30548 net.cpp:425] reshape_frames <- embedded_in_frames
I0924 04:23:32.374406 30548 net.cpp:399] reshape_frames -> embedded_input_frames
I0924 04:23:32.374624 30514 net.cpp:141] Setting up embed_encoder
I0924 04:23:32.374658 30514 net.cpp:148] Top shape: 1 500 (500)
I0924 04:23:32.374671 30514 net.cpp:156] Memory required for data: 18404
I0924 04:23:32.374713 30514 layer_factory.hpp:77] Creating layer reshape_frames
I0924 04:23:32.374737 30514 net.cpp:91] Creating Layer reshape_frames
I0924 04:23:32.374753 30514 net.cpp:425] reshape_frames <- embedded_in_frames
I0924 04:23:32.374776 30514 net.cpp:399] reshape_frames -> embedded_input_frames
I0924 04:23:32.374805 30500 net.cpp:141] Setting up embed_encoder
I0924 04:23:32.374867 30514 net.cpp:141] Setting up reshape_frames
I0924 04:23:32.374888 30514 net.cpp:148] Top shape: 1 1 500 (500)
I0924 04:23:32.374889 30500 net.cpp:148] Top shape: 1 500 (500)
I0924 04:23:32.374897 30514 net.cpp:156] Memory required for data: 20404
I0924 04:23:32.374902 30500 net.cpp:156] Memory required for data: 18404
I0924 04:23:32.374909 30514 layer_factory.hpp:77] Creating layer reshape_stage_indicator
I0924 04:23:32.374940 30500 layer_factory.hpp:77] Creating layer reshape_frames
I0924 04:23:32.374945 30514 net.cpp:91] Creating Layer reshape_stage_indicator
I0924 04:23:32.375000 30514 net.cpp:425] reshape_stage_indicator <- stage_indicator
I0924 04:23:32.375007 30500 net.cpp:91] Creating Layer reshape_frames
I0924 04:23:32.375020 30514 net.cpp:399] reshape_stage_indicator -> reshaped_stage_indicator
I0924 04:23:32.375025 30500 net.cpp:425] reshape_frames <- embedded_in_frames
I0924 04:23:32.375048 30500 net.cpp:399] reshape_frames -> embedded_input_frames
I0924 04:23:32.375113 30514 net.cpp:141] Setting up reshape_stage_indicator
I0924 04:23:32.375134 30514 net.cpp:148] Top shape: 1 1 1 (1)
I0924 04:23:32.375144 30514 net.cpp:156] Memory required for data: 20408
I0924 04:23:32.375155 30514 layer_factory.hpp:77] Creating layer embedding
I0924 04:23:32.375208 30514 net.cpp:91] Creating Layer embedding
I0924 04:23:32.375219 30514 net.cpp:425] embedding <- input_sentence
I0924 04:23:32.375247 30514 net.cpp:399] embedding -> embedded_input_sentence
I0924 04:23:32.375155 30548 net.cpp:141] Setting up reshape_frames
I0924 04:23:32.378715 30548 net.cpp:148] Top shape: 1 1 500 (500)
I0924 04:23:32.378723 30548 net.cpp:156] Memory required for data: 20404
I0924 04:23:32.378736 30548 layer_factory.hpp:77] Creating layer reshape_stage_indicator
I0924 04:23:32.378756 30548 net.cpp:91] Creating Layer reshape_stage_indicator
I0924 04:23:32.378762 30548 net.cpp:425] reshape_stage_indicator <- stage_indicator
I0924 04:23:32.378773 30548 net.cpp:399] reshape_stage_indicator -> reshaped_stage_indicator
I0924 04:23:32.392765 30500 net.cpp:141] Setting up reshape_frames
I0924 04:23:32.392822 30500 net.cpp:148] Top shape: 1 1 500 (500)
I0924 04:23:32.392832 30500 net.cpp:156] Memory required for data: 20404
I0924 04:23:32.395732 30500 layer_factory.hpp:77] Creating layer reshape_stage_indicator
I0924 04:23:32.395792 30500 net.cpp:91] Creating Layer reshape_stage_indicator
I0924 04:23:32.395804 30500 net.cpp:425] reshape_stage_indicator <- stage_indicator
I0924 04:23:32.395825 30548 net.cpp:141] Setting up reshape_stage_indicator
I0924 04:23:32.395871 30548 net.cpp:148] Top shape: 1 1 1 (1)
I0924 04:23:32.395884 30548 net.cpp:156] Memory required for data: 20408
I0924 04:23:32.395895 30548 layer_factory.hpp:77] Creating layer embedding
I0924 04:23:32.395826 30500 net.cpp:399] reshape_stage_indicator -> reshaped_stage_indicator
I0924 04:23:32.395917 30548 net.cpp:91] Creating Layer embedding
I0924 04:23:32.395928 30548 net.cpp:425] embedding <- input_sentence
I0924 04:23:32.395943 30548 net.cpp:399] embedding -> embedded_input_sentence
I0924 04:23:32.412412 30552 net.cpp:141] Setting up embed_encoder
I0924 04:23:32.412469 30552 net.cpp:148] Top shape: 1 500 (500)
I0924 04:23:32.412479 30552 net.cpp:156] Memory required for data: 18404
I0924 04:23:32.412509 30552 layer_factory.hpp:77] Creating layer reshape_frames
I0924 04:23:32.412539 30552 net.cpp:91] Creating Layer reshape_frames
I0924 04:23:32.412550 30552 net.cpp:425] reshape_frames <- embedded_in_frames
I0924 04:23:32.412569 30552 net.cpp:399] reshape_frames -> embedded_input_frames
I0924 04:23:32.412626 30552 net.cpp:141] Setting up reshape_frames
I0924 04:23:32.412641 30552 net.cpp:148] Top shape: 1 1 500 (500)
I0924 04:23:32.412647 30552 net.cpp:156] Memory required for data: 20404
I0924 04:23:32.412654 30552 layer_factory.hpp:77] Creating layer reshape_stage_indicator
I0924 04:23:32.412669 30552 net.cpp:91] Creating Layer reshape_stage_indicator
I0924 04:23:32.412678 30552 net.cpp:425] reshape_stage_indicator <- stage_indicator
I0924 04:23:32.412691 30552 net.cpp:399] reshape_stage_indicator -> reshaped_stage_indicator
I0924 04:23:32.412746 30552 net.cpp:141] Setting up reshape_stage_indicator
I0924 04:23:32.412761 30552 net.cpp:148] Top shape: 1 1 1 (1)
I0924 04:23:32.412770 30552 net.cpp:156] Memory required for data: 20408
I0924 04:23:32.412780 30552 layer_factory.hpp:77] Creating layer embedding
I0924 04:23:32.412798 30552 net.cpp:91] Creating Layer embedding
I0924 04:23:32.412804 30552 net.cpp:425] embedding <- input_sentence
I0924 04:23:32.412812 30552 net.cpp:399] embedding -> embedded_input_sentence
I0924 04:23:32.453518 30500 net.cpp:141] Setting up reshape_stage_indicator
I0924 04:23:32.453611 30500 net.cpp:148] Top shape: 1 1 1 (1)
I0924 04:23:32.453625 30500 net.cpp:156] Memory required for data: 20408
I0924 04:23:32.453644 30500 layer_factory.hpp:77] Creating layer embedding
I0924 04:23:32.453685 30500 net.cpp:91] Creating Layer embedding
I0924 04:23:32.453696 30500 net.cpp:425] embedding <- input_sentence
I0924 04:23:32.453732 30526 net.cpp:141] Setting up embed_encoder
I0924 04:23:32.453734 30500 net.cpp:399] embedding -> embedded_input_sentence
I0924 04:23:32.453795 30526 net.cpp:148] Top shape: 1 500 (500)
I0924 04:23:32.453802 30526 net.cpp:156] Memory required for data: 18404
I0924 04:23:32.453826 30526 layer_factory.hpp:77] Creating layer reshape_frames
I0924 04:23:32.453889 30526 net.cpp:91] Creating Layer reshape_frames
I0924 04:23:32.453899 30526 net.cpp:425] reshape_frames <- embedded_in_frames
I0924 04:23:32.453910 30526 net.cpp:399] reshape_frames -> embedded_input_frames
I0924 04:23:32.542006 30496 net.cpp:141] Setting up embed_encoder
I0924 04:23:32.542616 30496 net.cpp:148] Top shape: 1 500 (500)
I0924 04:23:32.542779 30496 net.cpp:156] Memory required for data: 18404
I0924 04:23:32.542948 30496 layer_factory.hpp:77] Creating layer reshape_frames
I0924 04:23:32.543112 30496 net.cpp:91] Creating Layer reshape_frames
I0924 04:23:32.543318 30496 net.cpp:425] reshape_frames <- embedded_in_frames
I0924 04:23:32.543469 30496 net.cpp:399] reshape_frames -> embedded_input_frames
I0924 04:23:32.543715 30496 net.cpp:141] Setting up reshape_frames
I0924 04:23:32.543859 30496 net.cpp:148] Top shape: 1 1 500 (500)
I0924 04:23:32.543992 30496 net.cpp:156] Memory required for data: 20404
I0924 04:23:32.544189 30496 layer_factory.hpp:77] Creating layer reshape_stage_indicator
I0924 04:23:32.544340 30496 net.cpp:91] Creating Layer reshape_stage_indicator
I0924 04:23:32.544479 30496 net.cpp:425] reshape_stage_indicator <- stage_indicator
I0924 04:23:32.544630 30496 net.cpp:399] reshape_stage_indicator -> reshaped_stage_indicator
I0924 04:23:32.544867 30496 net.cpp:141] Setting up reshape_stage_indicator
I0924 04:23:32.545017 30496 net.cpp:148] Top shape: 1 1 1 (1)
I0924 04:23:32.545269 30496 net.cpp:156] Memory required for data: 20408
I0924 04:23:32.545408 30496 layer_factory.hpp:77] Creating layer embedding
I0924 04:23:32.545559 30496 net.cpp:91] Creating Layer embedding
I0924 04:23:32.545696 30496 net.cpp:425] embedding <- input_sentence
I0924 04:23:32.545850 30496 net.cpp:399] embedding -> embedded_input_sentence
I0924 04:23:32.588485 30526 net.cpp:141] Setting up reshape_frames
I0924 04:23:32.588537 30526 net.cpp:148] Top shape: 1 1 500 (500)
I0924 04:23:32.588551 30526 net.cpp:156] Memory required for data: 20404
I0924 04:23:32.588548 30520 net.cpp:141] Setting up embed_encoder
I0924 04:23:32.588627 30520 net.cpp:148] Top shape: 1 500 (500)
I0924 04:23:32.588634 30520 net.cpp:156] Memory required for data: 18404
I0924 04:23:32.588634 30526 layer_factory.hpp:77] Creating layer reshape_stage_indicator
I0924 04:23:32.588660 30520 layer_factory.hpp:77] Creating layer reshape_frames
I0924 04:23:32.588668 30526 net.cpp:91] Creating Layer reshape_stage_indicator
I0924 04:23:32.588680 30520 net.cpp:91] Creating Layer reshape_frames
I0924 04:23:32.588682 30526 net.cpp:425] reshape_stage_indicator <- stage_indicator
I0924 04:23:32.588687 30520 net.cpp:425] reshape_frames <- embedded_in_frames
I0924 04:23:32.588698 30520 net.cpp:399] reshape_frames -> embedded_input_frames
I0924 04:23:32.588703 30526 net.cpp:399] reshape_stage_indicator -> reshaped_stage_indicator
I0924 04:23:32.588768 30504 net.cpp:141] Setting up embed_encoder
I0924 04:23:32.588786 30504 net.cpp:148] Top shape: 1 500 (500)
I0924 04:23:32.588793 30504 net.cpp:156] Memory required for data: 18404
I0924 04:23:32.588809 30504 layer_factory.hpp:77] Creating layer reshape_frames
I0924 04:23:32.588821 30504 net.cpp:91] Creating Layer reshape_frames
I0924 04:23:32.588829 30504 net.cpp:425] reshape_frames <- embedded_in_frames
I0924 04:23:32.588829 30540 net.cpp:141] Setting up embedding
I0924 04:23:32.588840 30504 net.cpp:399] reshape_frames -> embedded_input_frames
I0924 04:23:32.588845 30540 net.cpp:148] Top shape: 1 1 500 (500)
I0924 04:23:32.588850 30540 net.cpp:156] Memory required for data: 22408
I0924 04:23:32.588865 30540 layer_factory.hpp:77] Creating layer lstm1
I0924 04:23:32.588870 30492 net.cpp:141] Setting up embed_encoder
I0924 04:23:32.588891 30492 net.cpp:148] Top shape: 1 500 (500)
I0924 04:23:32.588893 30540 net.cpp:91] Creating Layer lstm1
I0924 04:23:32.588898 30492 net.cpp:156] Memory required for data: 18404
I0924 04:23:32.588907 30540 net.cpp:425] lstm1 <- embedded_input_frames
I0924 04:23:32.588909 30520 net.cpp:141] Setting up reshape_frames
I0924 04:23:32.588918 30540 net.cpp:425] lstm1 <- cont_sentence_input_1_split_0
I0924 04:23:32.588919 30492 layer_factory.hpp:77] Creating layer reshape_frames
I0924 04:23:32.588937 30540 net.cpp:399] lstm1 -> lstm1
I0924 04:23:32.588923 30520 net.cpp:148] Top shape: 1 1 500 (500)
I0924 04:23:32.588948 30520 net.cpp:156] Memory required for data: 20404
I0924 04:23:32.588953 30492 net.cpp:91] Creating Layer reshape_frames
I0924 04:23:32.588958 30520 layer_factory.hpp:77] Creating layer reshape_stage_indicator
I0924 04:23:32.588963 30492 net.cpp:425] reshape_frames <- embedded_in_frames
I0924 04:23:32.588973 30526 net.cpp:141] Setting up reshape_stage_indicator
I0924 04:23:32.588978 30520 net.cpp:91] Creating Layer reshape_stage_indicator
I0924 04:23:32.588984 30540 recurrent_layer.cpp:20] Initializing recurrent layer: assuming input batch contains 1 timesteps of 1 independent streams.
I0924 04:23:32.588989 30520 net.cpp:425] reshape_stage_indicator <- stage_indicator
I0924 04:23:32.588978 30492 net.cpp:399] reshape_frames -> embedded_input_frames
I0924 04:23:32.588999 30526 net.cpp:148] Top shape: 1 1 1 (1)
I0924 04:23:32.589004 30520 net.cpp:399] reshape_stage_indicator -> reshaped_stage_indicator
I0924 04:23:32.589009 30526 net.cpp:156] Memory required for data: 20408
I0924 04:23:32.589017 30526 layer_factory.hpp:77] Creating layer embedding
I0924 04:23:32.589035 30526 net.cpp:91] Creating Layer embedding
I0924 04:23:32.589043 30526 net.cpp:425] embedding <- input_sentence
I0924 04:23:32.589057 30526 net.cpp:399] embedding -> embedded_input_sentence
I0924 04:23:32.589069 30492 net.cpp:141] Setting up reshape_frames
I0924 04:23:32.589084 30492 net.cpp:148] Top shape: 1 1 500 (500)
I0924 04:23:32.589090 30492 net.cpp:156] Memory required for data: 20404
I0924 04:23:32.589097 30492 layer_factory.hpp:77] Creating layer reshape_stage_indicator
I0924 04:23:32.589110 30492 net.cpp:91] Creating Layer reshape_stage_indicator
I0924 04:23:32.589113 30504 net.cpp:141] Setting up reshape_frames
I0924 04:23:32.589118 30492 net.cpp:425] reshape_stage_indicator <- stage_indicator
I0924 04:23:32.589125 30504 net.cpp:148] Top shape: 1 1 500 (500)
I0924 04:23:32.589133 30504 net.cpp:156] Memory required for data: 20404
I0924 04:23:32.589133 30492 net.cpp:399] reshape_stage_indicator -> reshaped_stage_indicator
I0924 04:23:32.589143 30504 layer_factory.hpp:77] Creating layer reshape_stage_indicator
I0924 04:23:32.589156 30504 net.cpp:91] Creating Layer reshape_stage_indicator
I0924 04:23:32.589162 30504 net.cpp:425] reshape_stage_indicator <- stage_indicator
I0924 04:23:32.589170 30504 net.cpp:399] reshape_stage_indicator -> reshaped_stage_indicator
I0924 04:23:32.589172 30520 net.cpp:141] Setting up reshape_stage_indicator
I0924 04:23:32.589190 30520 net.cpp:148] Top shape: 1 1 1 (1)
I0924 04:23:32.589197 30520 net.cpp:156] Memory required for data: 20408
I0924 04:23:32.589205 30520 layer_factory.hpp:77] Creating layer embedding
I0924 04:23:32.589221 30520 net.cpp:91] Creating Layer embedding
I0924 04:23:32.589231 30520 net.cpp:425] embedding <- input_sentence
I0924 04:23:32.589243 30520 net.cpp:399] embedding -> embedded_input_sentence
I0924 04:23:32.589540 30540 net.cpp:49] Initializing net from parameters: 
layer {
  name: "lstm1_"
  type: "Input"
  top: "x"
  top: "cont"
  input_param {
    shape {
      dim: 1
      dim: 1
      dim: 500
    }
    shape {
      dim: 1
      dim: 1
    }
  }
}
layer {
  name: "lstm1_"
  type: "Input"
  top: "c_0"
  top: "h_0"
  input_param {
    shape {
      dim: 1
      dim: 1
      dim: 1000
    }
    shape {
      dim: 1
      dim: 1
      dim: 1000
    }
  }
}
layer {
  name: "lstm1_cont_slice"
  type: "Slice"
  bottom: "cont"
  top: "cont_1"
  slice_param {
    axis: 0
  }
}
layer {
  name: "lstm1_x_transform"
  type: "InnerProduct"
  bottom: "x"
  top: "W_xc_x"
  param {
    name: "W_xc"
  }
  param {
    name: "b_c"
  }
  propagate_down: true
  inner_product_param {
    num_output: 4000
    bias_term: true
    weight_filler {
      type: "uniform"
      min: -0.08
      max: 0.08
    }
    bias_filler {
      type: "constant"
      value: 0
    }
    axis: 2
  }
}
layer {
  name: "lstm1_W_xc_x_slice"
  type: "Slice"
  bottom: "W_xc_x"
  top: "W_xc_x_1"
  slice_param {
    axis: 0
  }
}
layer {
  name: "lstm1_h_conted_0"
  type: "Scale"
  bottom: "h_0"
  bottom: "cont_1"
  top: "h_conted_0"
  scale_param {
    axis: 0
  }
}
layer {
  name: "lstm1_transform_1"
  type: "InnerProduct"
  bottom: "h_conted_0"
  top: "W_hc_h_0"
  param {
    name: "W_hc"
  }
  inner_product_param {
    num_output: 4000
    bias_term: false
    weight_filler {
      type: "uniform"
      min: -0.08
      max: 0.08
    }
    axis: 2
  }
}
layer {
  name: "lstm1_gate_input_1"
  type: "Eltwise"
  bottom: "W_hc_h_0"
  bottom: "W_xc_x_1"
  top: "gate_input_1"
  eltwise_param {
    operation: SUM
  }
}
layer {
  name: "lstm1_unit_1"
  type: "LSTMUnit"
  bottom: "c_0"
  bottom: "gate_input_1"
  bottom: "cont_1"
  top: "c_1"
  top: "h_1"
}
layer {
  name: "lstm1_"
  type: "Split"
  bottom: "c_1"
  top: "c_T"
}
layer {
  name: "lstm1_h_concat"
  type: "Concat"
  bottom: "h_1"
  top: "h"
  concat_param {
    axis: 0
  }
}
layer {
  name: "h_pseudoloss"
  type: "Reduction"
  bottom: "h"
  top: "h_pseudoloss"
  loss_weight: 1
}
I0924 04:23:32.589637 30540 layer_factory.hpp:77] Creating layer lstm1_
I0924 04:23:32.589648 30540 net.cpp:91] Creating Layer lstm1_
I0924 04:23:32.589654 30540 net.cpp:399] lstm1_ -> x
I0924 04:23:32.589668 30540 net.cpp:399] lstm1_ -> cont
I0924 04:23:32.641487 30492 net.cpp:141] Setting up reshape_stage_indicator
I0924 04:23:32.641553 30492 net.cpp:148] Top shape: 1 1 1 (1)
I0924 04:23:32.641549 30504 net.cpp:141] Setting up reshape_stage_indicator
I0924 04:23:32.641566 30492 net.cpp:156] Memory required for data: 20408
I0924 04:23:32.641600 30504 net.cpp:148] Top shape: 1 1 1 (1)
I0924 04:23:32.641602 30492 layer_factory.hpp:77] Creating layer embedding
I0924 04:23:32.641610 30504 net.cpp:156] Memory required for data: 20408
I0924 04:23:32.641623 30504 layer_factory.hpp:77] Creating layer embedding
I0924 04:23:32.641631 30492 net.cpp:91] Creating Layer embedding
I0924 04:23:32.641644 30492 net.cpp:425] embedding <- input_sentence
I0924 04:23:32.641645 30504 net.cpp:91] Creating Layer embedding
I0924 04:23:32.641659 30504 net.cpp:425] embedding <- input_sentence
I0924 04:23:32.641667 30492 net.cpp:399] embedding -> embedded_input_sentence
I0924 04:23:32.641687 30504 net.cpp:399] embedding -> embedded_input_sentence
I0924 04:23:32.801988 30500 net.cpp:141] Setting up embedding
I0924 04:23:32.802021 30552 net.cpp:141] Setting up embedding
I0924 04:23:32.802042 30552 net.cpp:148] Top shape: 1 1 500 (500)
I0924 04:23:32.802042 30500 net.cpp:148] Top shape: 1 1 500 (500)
I0924 04:23:32.802062 30552 net.cpp:156] Memory required for data: 22408
I0924 04:23:32.802065 30500 net.cpp:156] Memory required for data: 22408
I0924 04:23:32.802085 30500 layer_factory.hpp:77] Creating layer lstm1
I0924 04:23:32.802086 30552 layer_factory.hpp:77] Creating layer lstm1
I0924 04:23:32.802119 30500 net.cpp:91] Creating Layer lstm1
I0924 04:23:32.802120 30552 net.cpp:91] Creating Layer lstm1
I0924 04:23:32.802135 30500 net.cpp:425] lstm1 <- embedded_input_frames
I0924 04:23:32.802141 30552 net.cpp:425] lstm1 <- embedded_input_frames
I0924 04:23:32.802152 30552 net.cpp:425] lstm1 <- cont_sentence_input_1_split_0
I0924 04:23:32.802148 30500 net.cpp:425] lstm1 <- cont_sentence_input_1_split_0
I0924 04:23:32.802145 30514 net.cpp:141] Setting up embedding
I0924 04:23:32.802180 30500 net.cpp:399] lstm1 -> lstm1
I0924 04:23:32.802170 30552 net.cpp:399] lstm1 -> lstm1
I0924 04:23:32.802199 30514 net.cpp:148] Top shape: 1 1 500 (500)
I0924 04:23:32.802204 30500 recurrent_layer.cpp:20] Initializing recurrent layer: assuming input batch contains 1 timesteps of 1 independent streams.
I0924 04:23:32.802208 30552 recurrent_layer.cpp:20] Initializing recurrent layer: assuming input batch contains 1 timesteps of 1 independent streams.
I0924 04:23:32.802211 30514 net.cpp:156] Memory required for data: 22408
I0924 04:23:32.802264 30514 layer_factory.hpp:77] Creating layer lstm1
I0924 04:23:32.802292 30514 net.cpp:91] Creating Layer lstm1
I0924 04:23:32.802304 30514 net.cpp:425] lstm1 <- embedded_input_frames
I0924 04:23:32.802315 30514 net.cpp:425] lstm1 <- cont_sentence_input_1_split_0
I0924 04:23:32.802330 30514 net.cpp:399] lstm1 -> lstm1
I0924 04:23:32.802351 30514 recurrent_layer.cpp:20] Initializing recurrent layer: assuming input batch contains 1 timesteps of 1 independent streams.
I0924 04:23:32.802624 30552 net.cpp:49] Initializing net from parameters: 
layer {
  name: "lstm1_"
  type: "Input"
  top: "x"
  top: "cont"
  input_param {
    shape {
      dim: 1
      dim: 1
      dim: 500
    }
    shape {
      dim: 1
      dim: 1
    }
  }
}
layer {
  name: "lstm1_"
  type: "Input"
  top: "c_0"
  top: "h_0"
  input_param {
    shape {
      dim: 1
      dim: 1
      dim: 1000
    }
    shape {
      dim: 1
      dim: 1
      dim: 1000
    }
  }
}
layer {
  name: "lstm1_cont_slice"
  type: "Slice"
  bottom: "cont"
  top: "cont_1"
  slice_param {
    axis: 0
  }
}
layer {
  name: "lstm1_x_transform"
  type: "InnerProduct"
  bottom: "x"
  top: "W_xc_x"
  param {
    name: "W_xc"
  }
  param {
    name: "b_c"
  }
  propagate_down: true
  inner_product_param {
    num_output: 4000
    bias_term: true
    weight_filler {
      type: "uniform"
      min: -0.08
      max: 0.08
    }
    bias_filler {
      type: "constant"
      value: 0
    }
    axis: 2
  }
}
layer {
  name: "lstm1_W_xc_x_slice"
  type: "Slice"
  bottom: "W_xc_x"
  top: "W_xc_x_1"
  slice_param {
    axis: 0
  }
}
layer {
  name: "lstm1_h_conted_0"
  type: "Scale"
  bottom: "h_0"
  bottom: "cont_1"
  top: "h_conted_0"
  scale_param {
    axis: 0
  }
}
layer {
  name: "lstm1_transform_1"
  type: "InnerProduct"
  bottom: "h_conted_0"
  top: "W_hc_h_0"
  param {
    name: "W_hc"
  }
  inner_product_param {
    num_output: 4000
    bias_term: false
    weight_filler {
      type: "uniform"
      min: -0.08
      max: 0.08
    }
    axis: 2
  }
}
layer {
  name: "lstm1_gate_input_1"
  type: "Eltwise"
  bottom: "W_hc_h_0"
  bottom: "W_xc_x_1"
  top: "gate_input_1"
  eltwise_param {
    operation: SUM
  }
}
layer {
  name: "lstm1_unit_1"
  type: "LSTMUnit"
  bottom: "c_0"
  bottom: "gate_input_1"
  bottom: "cont_1"
  top: "c_1"
  top: "h_1"
}
layer {
  name: "lstm1_"
  type: "Split"
  bottom: "c_1"
  top: "c_T"
}
layer {
  name: "lstm1_h_concat"
  type: "Concat"
  bottom: "h_1"
  top: "h"
  concat_param {
    axis: 0
  }
}
layer {
  name: "h_pseudoloss"
  type: "Reduction"
  bottom: "h"
  top: "h_pseudoloss"
  loss_weight: 1
}
I0924 04:23:32.802625 30500 net.cpp:49] Initializing net from parameters: 
layer {
  name: "lstm1_"
  type: "Input"
  top: "x"
  top: "cont"
  input_param {
    shape {
      dim: 1
      dim: 1
      dim: 500
    }
    shape {
      dim: 1
      dim: 1
    }
  }
}
layer {
  name: "lstm1_"
  type: "Input"
  top: "c_0"
  top: "h_0"
  input_param {
    shape {
      dim: 1
      dim: 1
      dim: 1000
    }
    shape {
      dim: 1
      dim: 1
      dim: 1000
    }
  }
}
layer {
  name: "lstm1_cont_slice"
  type: "Slice"
  bottom: "cont"
  top: "cont_1"
  slice_param {
    axis: 0
  }
}
layer {
  name: "lstm1_x_transform"
  type: "InnerProduct"
  bottom: "x"
  top: "W_xc_x"
  param {
    name: "W_xc"
  }
  param {
    name: "b_c"
  }
  propagate_down: true
  inner_product_param {
    num_output: 4000
    bias_term: true
    weight_filler {
      type: "uniform"
      min: -0.08
      max: 0.08
    }
    bias_filler {
      type: "constant"
      value: 0
    }
    axis: 2
  }
}
layer {
  name: "lstm1_W_xc_x_slice"
  type: "Slice"
  bottom: "W_xc_x"
  top: "W_xc_x_1"
  slice_param {
    axis: 0
  }
}
layer {
  name: "lstm1_h_conted_0"
  type: "Scale"
  bottom: "h_0"
  bottom: "cont_1"
  top: "h_conted_0"
  scale_param {
    axis: 0
  }
}
layer {
  name: "lstm1_transform_1"
  type: "InnerProduct"
  bottom: "h_conted_0"
  top: "W_hc_h_0"
  param {
    name: "W_hc"
  }
  inner_product_param {
    num_output: 4000
    bias_term: false
    weight_filler {
      type: "uniform"
      min: -0.08
      max: 0.08
    }
    axis: 2
  }
}
layer {
  name: "lstm1_gate_input_1"
  type: "Eltwise"
  bottom: "W_hc_h_0"
  bottom: "W_xc_x_1"
  top: "gate_input_1"
  eltwise_param {
    operation: SUM
  }
}
layer {
  name: "lstm1_unit_1"
  type: "LSTMUnit"
  bottom: "c_0"
  bottom: "gate_input_1"
  bottom: "cont_1"
  top: "c_1"
  top: "h_1"
}
layer {
  name: "lstm1_"
  type: "Split"
  bottom: "c_1"
  top: "c_T"
}
layer {
  name: "lstm1_h_concat"
  type: "Concat"
  bottom: "h_1"
  top: "h"
  concat_param {
    axis: 0
  }
}
layer {
  name: "h_pseudoloss"
  type: "Reduction"
  bottom: "h"
  top: "h_pseudoloss"
  loss_weight: 1
}
I0924 04:23:32.802767 30500 layer_factory.hpp:77] Creating layer lstm1_
I0924 04:23:32.802767 30552 layer_factory.hpp:77] Creating layer lstm1_
I0924 04:23:32.802794 30500 net.cpp:91] Creating Layer lstm1_
I0924 04:23:32.802801 30552 net.cpp:91] Creating Layer lstm1_
I0924 04:23:32.802805 30500 net.cpp:399] lstm1_ -> x
I0924 04:23:32.802803 30514 net.cpp:49] Initializing net from parameters: 
layer {
  name: "lstm1_"
  type: "Input"
  top: "x"
  top: "cont"
  input_param {
    shape {
      dim: 1
      dim: 1
      dim: 500
    }
    shape {
      dim: 1
      dim: 1
    }
  }
}
layer {
  name: "lstm1_"
  type: "Input"
  top: "c_0"
  top: "h_0"
  input_param {
    shape {
      dim: 1
      dim: 1
      dim: 1000
    }
    shape {
      dim: 1
      dim: 1
      dim: 1000
    }
  }
}
layer {
  name: "lstm1_cont_slice"
  type: "Slice"
  bottom: "cont"
  top: "cont_1"
  slice_param {
    axis: 0
  }
}
layer {
  name: "lstm1_x_transform"
  type: "InnerProduct"
  bottom: "x"
  top: "W_xc_x"
  param {
    name: "W_xc"
  }
  param {
    name: "b_c"
  }
  propagate_down: true
  inner_product_param {
    num_output: 4000
    bias_term: true
    weight_filler {
      type: "uniform"
      min: -0.08
      max: 0.08
    }
    bias_filler {
      type: "constant"
      value: 0
    }
    axis: 2
  }
}
layer {
  name: "lstm1_W_xc_x_slice"
  type: "Slice"
  bottom: "W_xc_x"
  top: "W_xc_x_1"
  slice_param {
    axis: 0
  }
}
layer {
  name: "lstm1_h_conted_0"
  type: "Scale"
  bottom: "h_0"
  bottom: "cont_1"
  top: "h_conted_0"
  scale_param {
    axis: 0
  }
}
layer {
  name: "lstm1_transform_1"
  type: "InnerProduct"
  bottom: "h_conted_0"
  top: "W_hc_h_0"
  param {
    name: "W_hc"
  }
  inner_product_param {
    num_output: 4000
    bias_term: false
    weight_filler {
      type: "uniform"
      min: -0.08
      max: 0.08
    }
    axis: 2
  }
}
layer {
  name: "lstm1_gate_input_1"
  type: "Eltwise"
  bottom: "W_hc_h_0"
  bottom: "W_xc_x_1"
  top: "gate_input_1"
  eltwise_param {
    operation: SUM
  }
}
layer {
  name: "lstm1_unit_1"
  type: "LSTMUnit"
  bottom: "c_0"
  bottom: "gate_input_1"
  bottom: "cont_1"
  top: "c_1"
  top: "h_1"
}
layer {
  name: "lstm1_"
  type: "Split"
  bottom: "c_1"
  top: "c_T"
}
layer {
  name: "lstm1_h_concat"
  type: "Concat"
  bottom: "h_1"
  top: "h"
  concat_param {
    axis: 0
  }
}
layer {
  name: "h_pseudoloss"
  type: "Reduction"
  bottom: "h"
  top: "h_pseudoloss"
  loss_weight: 1
}
I0924 04:23:32.802824 30500 net.cpp:399] lstm1_ -> cont
I0924 04:23:32.802812 30552 net.cpp:399] lstm1_ -> x
I0924 04:23:32.802848 30552 net.cpp:399] lstm1_ -> cont
I0924 04:23:32.802922 30500 net.cpp:141] Setting up lstm1_
I0924 04:23:32.802937 30500 net.cpp:148] Top shape: 1 1 500 (500)
I0924 04:23:32.802947 30500 net.cpp:148] Top shape: 1 1 (1)
I0924 04:23:32.802954 30500 net.cpp:156] Memory required for data: 2004
I0924 04:23:32.802955 30514 layer_factory.hpp:77] Creating layer lstm1_
I0924 04:23:32.802961 30500 layer_factory.hpp:77] Creating layer lstm1_
I0924 04:23:32.802975 30514 net.cpp:91] Creating Layer lstm1_
I0924 04:23:32.802975 30500 net.cpp:91] Creating Layer lstm1_
I0924 04:23:32.802994 30514 net.cpp:399] lstm1_ -> x
I0924 04:23:32.803009 30500 net.cpp:399] lstm1_ -> c_0
I0924 04:23:32.803012 30514 net.cpp:399] lstm1_ -> cont
I0924 04:23:32.803026 30500 net.cpp:399] lstm1_ -> h_0
I0924 04:23:32.803129 30514 net.cpp:141] Setting up lstm1_
I0924 04:23:32.803145 30514 net.cpp:148] Top shape: 1 1 500 (500)
I0924 04:23:32.803156 30514 net.cpp:148] Top shape: 1 1 (1)
I0924 04:23:32.803164 30514 net.cpp:156] Memory required for data: 2004
I0924 04:23:32.803170 30514 layer_factory.hpp:77] Creating layer lstm1_
I0924 04:23:32.803205 30540 net.cpp:141] Setting up lstm1_
I0924 04:23:32.803231 30540 net.cpp:148] Top shape: 1 1 500 (500)
I0924 04:23:32.803246 30540 net.cpp:148] Top shape: 1 1 (1)
I0924 04:23:32.803256 30540 net.cpp:156] Memory required for data: 2004
I0924 04:23:32.803266 30540 layer_factory.hpp:77] Creating layer lstm1_
I0924 04:23:32.803798 30514 net.cpp:91] Creating Layer lstm1_
I0924 04:23:32.803819 30514 net.cpp:399] lstm1_ -> c_0
I0924 04:23:32.803828 30540 net.cpp:91] Creating Layer lstm1_
I0924 04:23:32.803840 30514 net.cpp:399] lstm1_ -> h_0
I0924 04:23:32.803854 30540 net.cpp:399] lstm1_ -> c_0
I0924 04:23:32.803884 30540 net.cpp:399] lstm1_ -> h_0
I0924 04:23:32.803906 30500 net.cpp:141] Setting up lstm1_
I0924 04:23:32.803931 30500 net.cpp:148] Top shape: 1 1 1000 (1000)
I0924 04:23:32.803946 30500 net.cpp:148] Top shape: 1 1 1000 (1000)
I0924 04:23:32.803952 30500 net.cpp:156] Memory required for data: 10004
I0924 04:23:32.803962 30500 layer_factory.hpp:77] Creating layer lstm1_cont_slice
I0924 04:23:32.803982 30500 net.cpp:91] Creating Layer lstm1_cont_slice
I0924 04:23:32.803992 30500 net.cpp:425] lstm1_cont_slice <- cont
I0924 04:23:32.804018 30500 net.cpp:399] lstm1_cont_slice -> cont_1
I0924 04:23:32.804018 30540 net.cpp:141] Setting up lstm1_
I0924 04:23:32.804042 30540 net.cpp:148] Top shape: 1 1 1000 (1000)
I0924 04:23:32.804056 30540 net.cpp:148] Top shape: 1 1 1000 (1000)
I0924 04:23:32.804067 30540 net.cpp:156] Memory required for data: 10004
I0924 04:23:32.804080 30540 layer_factory.hpp:77] Creating layer lstm1_cont_slice
I0924 04:23:32.804085 30500 net.cpp:141] Setting up lstm1_cont_slice
I0924 04:23:32.804100 30540 net.cpp:91] Creating Layer lstm1_cont_slice
I0924 04:23:32.804131 30540 net.cpp:425] lstm1_cont_slice <- cont
I0924 04:23:32.804172 30540 net.cpp:399] lstm1_cont_slice -> cont_1
I0924 04:23:32.804257 30540 net.cpp:141] Setting up lstm1_cont_slice
I0924 04:23:32.804280 30540 net.cpp:148] Top shape: 1 1 (1)
I0924 04:23:32.804291 30540 net.cpp:156] Memory required for data: 10008
I0924 04:23:32.804303 30540 layer_factory.hpp:77] Creating layer cont_1_lstm1_cont_slice_0_split
I0924 04:23:32.804348 30540 net.cpp:91] Creating Layer cont_1_lstm1_cont_slice_0_split
I0924 04:23:32.804361 30540 net.cpp:425] cont_1_lstm1_cont_slice_0_split <- cont_1
I0924 04:23:32.804376 30540 net.cpp:399] cont_1_lstm1_cont_slice_0_split -> cont_1_lstm1_cont_slice_0_split_0
I0924 04:23:32.804399 30540 net.cpp:399] cont_1_lstm1_cont_slice_0_split -> cont_1_lstm1_cont_slice_0_split_1
I0924 04:23:32.804525 30540 net.cpp:141] Setting up cont_1_lstm1_cont_slice_0_split
I0924 04:23:32.804543 30540 net.cpp:148] Top shape: 1 1 (1)
I0924 04:23:32.804556 30540 net.cpp:148] Top shape: 1 1 (1)
I0924 04:23:32.804568 30540 net.cpp:156] Memory required for data: 10016
I0924 04:23:32.804577 30540 layer_factory.hpp:77] Creating layer lstm1_x_transform
I0924 04:23:32.804620 30540 net.cpp:91] Creating Layer lstm1_x_transform
I0924 04:23:32.804633 30540 net.cpp:425] lstm1_x_transform <- x
I0924 04:23:32.804651 30540 net.cpp:399] lstm1_x_transform -> W_xc_x
I0924 04:23:32.804102 30500 net.cpp:148] Top shape: 1 1 (1)
I0924 04:23:32.804926 30500 net.cpp:156] Memory required for data: 10008
I0924 04:23:32.804944 30500 layer_factory.hpp:77] Creating layer cont_1_lstm1_cont_slice_0_split
I0924 04:23:32.806771 30500 net.cpp:91] Creating Layer cont_1_lstm1_cont_slice_0_split
I0924 04:23:32.806864 30500 net.cpp:425] cont_1_lstm1_cont_slice_0_split <- cont_1
I0924 04:23:32.806905 30500 net.cpp:399] cont_1_lstm1_cont_slice_0_split -> cont_1_lstm1_cont_slice_0_split_0
I0924 04:23:32.806936 30500 net.cpp:399] cont_1_lstm1_cont_slice_0_split -> cont_1_lstm1_cont_slice_0_split_1
I0924 04:23:32.878753 30496 net.cpp:141] Setting up embedding
I0924 04:23:32.878788 30552 net.cpp:141] Setting up lstm1_
I0924 04:23:32.878826 30552 net.cpp:148] Top shape: 1 1 500 (500)
I0924 04:23:32.878826 30496 net.cpp:148] Top shape: 1 1 500 (500)
I0924 04:23:32.878849 30552 net.cpp:148] Top shape: 1 1 (1)
I0924 04:23:32.878851 30496 net.cpp:156] Memory required for data: 22408
I0924 04:23:32.878856 30552 net.cpp:156] Memory required for data: 2004
I0924 04:23:32.878881 30552 layer_factory.hpp:77] Creating layer lstm1_
I0924 04:23:32.878898 30496 layer_factory.hpp:77] Creating layer lstm1
I0924 04:23:32.878917 30552 net.cpp:91] Creating Layer lstm1_
I0924 04:23:32.878936 30496 net.cpp:91] Creating Layer lstm1
I0924 04:23:32.878940 30552 net.cpp:399] lstm1_ -> c_0
I0924 04:23:32.878950 30496 net.cpp:425] lstm1 <- embedded_input_frames
I0924 04:23:32.878962 30496 net.cpp:425] lstm1 <- cont_sentence_input_1_split_0
I0924 04:23:32.878965 30552 net.cpp:399] lstm1_ -> h_0
I0924 04:23:32.878976 30496 net.cpp:399] lstm1 -> lstm1
I0924 04:23:32.878996 30496 recurrent_layer.cpp:20] Initializing recurrent layer: assuming input batch contains 1 timesteps of 1 independent streams.
I0924 04:23:32.879024 30514 net.cpp:141] Setting up lstm1_
I0924 04:23:32.879063 30552 net.cpp:141] Setting up lstm1_
I0924 04:23:32.879071 30514 net.cpp:148] Top shape: 1 1 1000 (1000)
I0924 04:23:32.879079 30552 net.cpp:148] Top shape: 1 1 1000 (1000)
I0924 04:23:32.879084 30514 net.cpp:148] Top shape: 1 1 1000 (1000)
I0924 04:23:32.879092 30552 net.cpp:148] Top shape: 1 1 1000 (1000)
I0924 04:23:32.879094 30514 net.cpp:156] Memory required for data: 10004
I0924 04:23:32.879099 30552 net.cpp:156] Memory required for data: 10004
I0924 04:23:32.879106 30514 layer_factory.hpp:77] Creating layer lstm1_cont_slice
I0924 04:23:32.879108 30552 layer_factory.hpp:77] Creating layer lstm1_cont_slice
I0924 04:23:32.879142 30514 net.cpp:91] Creating Layer lstm1_cont_slice
I0924 04:23:32.879154 30514 net.cpp:425] lstm1_cont_slice <- cont
I0924 04:23:32.879153 30552 net.cpp:91] Creating Layer lstm1_cont_slice
I0924 04:23:32.879175 30514 net.cpp:399] lstm1_cont_slice -> cont_1
I0924 04:23:32.879176 30552 net.cpp:425] lstm1_cont_slice <- cont
I0924 04:23:32.879200 30552 net.cpp:399] lstm1_cont_slice -> cont_1
I0924 04:23:32.879473 30552 net.cpp:141] Setting up lstm1_cont_slice
I0924 04:23:32.879489 30552 net.cpp:148] Top shape: 1 1 (1)
I0924 04:23:32.879497 30552 net.cpp:156] Memory required for data: 10008
I0924 04:23:32.879503 30552 layer_factory.hpp:77] Creating layer cont_1_lstm1_cont_slice_0_split
I0924 04:23:32.879515 30552 net.cpp:91] Creating Layer cont_1_lstm1_cont_slice_0_split
I0924 04:23:32.879523 30552 net.cpp:425] cont_1_lstm1_cont_slice_0_split <- cont_1
I0924 04:23:32.880425 30552 net.cpp:399] cont_1_lstm1_cont_slice_0_split -> cont_1_lstm1_cont_slice_0_split_0
I0924 04:23:32.880431 30500 net.cpp:141] Setting up cont_1_lstm1_cont_slice_0_split
I0924 04:23:32.880453 30500 net.cpp:148] Top shape: 1 1 (1)
I0924 04:23:32.880458 30552 net.cpp:399] cont_1_lstm1_cont_slice_0_split -> cont_1_lstm1_cont_slice_0_split_1
I0924 04:23:32.880463 30500 net.cpp:148] Top shape: 1 1 (1)
I0924 04:23:32.880460 30514 net.cpp:141] Setting up lstm1_cont_slice
I0924 04:23:32.880471 30500 net.cpp:156] Memory required for data: 10016
I0924 04:23:32.880496 30500 layer_factory.hpp:77] Creating layer lstm1_x_transform
I0924 04:23:32.880497 30514 net.cpp:148] Top shape: 1 1 (1)
I0924 04:23:32.880508 30514 net.cpp:156] Memory required for data: 10008
I0924 04:23:32.880516 30500 net.cpp:91] Creating Layer lstm1_x_transform
I0924 04:23:32.880519 30514 layer_factory.hpp:77] Creating layer cont_1_lstm1_cont_slice_0_split
I0924 04:23:32.880525 30500 net.cpp:425] lstm1_x_transform <- x
I0924 04:23:32.880535 30514 net.cpp:91] Creating Layer cont_1_lstm1_cont_slice_0_split
I0924 04:23:32.880539 30500 net.cpp:399] lstm1_x_transform -> W_xc_x
I0924 04:23:32.880548 30514 net.cpp:425] cont_1_lstm1_cont_slice_0_split <- cont_1
I0924 04:23:32.880573 30548 net.cpp:141] Setting up embedding
I0924 04:23:32.882007 30496 net.cpp:49] Initializing net from parameters: 
layer {
  name: "lstm1_"
  type: "Input"
  top: "x"
  top: "cont"
  input_param {
    shape {
      dim: 1
      dim: 1
      dim: 500
    }
    shape {
      dim: 1
      dim: 1
    }
  }
}
layer {
  name: "lstm1_"
  type: "Input"
  top: "c_0"
  top: "h_0"
  input_param {
    shape {
      dim: 1
      dim: 1
      dim: 1000
    }
    shape {
      dim: 1
      dim: 1
      dim: 1000
    }
  }
}
layer {
  name: "lstm1_cont_slice"
  type: "Slice"
  bottom: "cont"
  top: "cont_1"
  slice_param {
    axis: 0
  }
}
layer {
  name: "lstm1_x_transform"
  type: "InnerProduct"
  bottom: "x"
  top: "W_xc_x"
  param {
    name: "W_xc"
  }
  param {
    name: "b_c"
  }
  propagate_down: true
  inner_product_param {
    num_output: 4000
    bias_term: true
    weight_filler {
      type: "uniform"
      min: -0.08
      max: 0.08
    }
    bias_filler {
      type: "constant"
      value: 0
    }
    axis: 2
  }
}
layer {
  name: "lstm1_W_xc_x_slice"
  type: "Slice"
  bottom: "W_xc_x"
  top: "W_xc_x_1"
  slice_param {
    axis: 0
  }
}
layer {
  name: "lstm1_h_conted_0"
  type: "Scale"
  bottom: "h_0"
  bottom: "cont_1"
  top: "h_conted_0"
  scale_param {
    axis: 0
  }
}
layer {
  name: "lstm1_transform_1"
  type: "InnerProduct"
  bottom: "h_conted_0"
  top: "W_hc_h_0"
  param {
    name: "W_hc"
  }
  inner_product_param {
    num_output: 4000
    bias_term: false
    weight_filler {
      type: "uniform"
      min: -0.08
      max: 0.08
    }
    axis: 2
  }
}
layer {
  name: "lstm1_gate_input_1"
  type: "Eltwise"
  bottom: "W_hc_h_0"
  bottom: "W_xc_x_1"
  top: "gate_input_1"
  eltwise_param {
    operation: SUM
  }
}
layer {
  name: "lstm1_unit_1"
  type: "LSTMUnit"
  bottom: "c_0"
  bottom: "gate_input_1"
  bottom: "cont_1"
  top: "c_1"
  top: "h_1"
}
layer {
  name: "lstm1_"
  type: "Split"
  bottom: "c_1"
  top: "c_T"
}
layer {
  name: "lstm1_h_concat"
  type: "Concat"
  bottom: "h_1"
  top: "h"
  concat_param {
    axis: 0
  }
}
layer {
  name: "h_pseudoloss"
  type: "Reduction"
  bottom: "h"
  top: "h_pseudoloss"
  loss_weight: 1
}
I0924 04:23:32.882020 30514 net.cpp:399] cont_1_lstm1_cont_slice_0_split -> cont_1_lstm1_cont_slice_0_split_0
I0924 04:23:32.882045 30548 net.cpp:148] Top shape: 1 1 500 (500)
I0924 04:23:32.882055 30514 net.cpp:399] cont_1_lstm1_cont_slice_0_split -> cont_1_lstm1_cont_slice_0_split_1
I0924 04:23:32.882066 30548 net.cpp:156] Memory required for data: 22408
I0924 04:23:32.882089 30548 layer_factory.hpp:77] Creating layer lstm1
I0924 04:23:32.882112 30548 net.cpp:91] Creating Layer lstm1
I0924 04:23:32.882123 30548 net.cpp:425] lstm1 <- embedded_input_frames
I0924 04:23:32.882136 30548 net.cpp:425] lstm1 <- cont_sentence_input_1_split_0
I0924 04:23:32.882153 30548 net.cpp:399] lstm1 -> lstm1
I0924 04:23:32.882174 30548 recurrent_layer.cpp:20] Initializing recurrent layer: assuming input batch contains 1 timesteps of 1 independent streams.
I0924 04:23:32.882179 30496 layer_factory.hpp:77] Creating layer lstm1_
I0924 04:23:32.882205 30496 net.cpp:91] Creating Layer lstm1_
I0924 04:23:32.882217 30496 net.cpp:399] lstm1_ -> x
I0924 04:23:32.882238 30496 net.cpp:399] lstm1_ -> cont
I0924 04:23:32.882580 30548 net.cpp:49] Initializing net from parameters: 
layer {
  name: "lstm1_"
  type: "Input"
  top: "x"
  top: "cont"
  input_param {
    shape {
      dim: 1
      dim: 1
      dim: 500
    }
    shape {
      dim: 1
      dim: 1
    }
  }
}
layer {
  name: "lstm1_"
  type: "Input"
  top: "c_0"
  top: "h_0"
  input_param {
    shape {
      dim: 1
      dim: 1
      dim: 1000
    }
    shape {
      dim: 1
      dim: 1
      dim: 1000
    }
  }
}
layer {
  name: "lstm1_cont_slice"
  type: "Slice"
  bottom: "cont"
  top: "cont_1"
  slice_param {
    axis: 0
  }
}
layer {
  name: "lstm1_x_transform"
  type: "InnerProduct"
  bottom: "x"
  top: "W_xc_x"
  param {
    name: "W_xc"
  }
  param {
    name: "b_c"
  }
  propagate_down: true
  inner_product_param {
    num_output: 4000
    bias_term: true
    weight_filler {
      type: "uniform"
      min: -0.08
      max: 0.08
    }
    bias_filler {
      type: "constant"
      value: 0
    }
    axis: 2
  }
}
layer {
  name: "lstm1_W_xc_x_slice"
  type: "Slice"
  bottom: "W_xc_x"
  top: "W_xc_x_1"
  slice_param {
    axis: 0
  }
}
layer {
  name: "lstm1_h_conted_0"
  type: "Scale"
  bottom: "h_0"
  bottom: "cont_1"
  top: "h_conted_0"
  scale_param {
    axis: 0
  }
}
layer {
  name: "lstm1_transform_1"
  type: "InnerProduct"
  bottom: "h_conted_0"
  top: "W_hc_h_0"
  param {
    name: "W_hc"
  }
  inner_product_param {
    num_output: 4000
    bias_term: false
    weight_filler {
      type: "uniform"
      min: -0.08
      max: 0.08
    }
    axis: 2
  }
}
layer {
  name: "lstm1_gate_input_1"
  type: "Eltwise"
  bottom: "W_hc_h_0"
  bottom: "W_xc_x_1"
  top: "gate_input_1"
  eltwise_param {
    operation: SUM
  }
}
layer {
  name: "lstm1_unit_1"
  type: "LSTMUnit"
  bottom: "c_0"
  bottom: "gate_input_1"
  bottom: "cont_1"
  top: "c_1"
  top: "h_1"
}
layer {
  name: "lstm1_"
  type: "Split"
  bottom: "c_1"
  top: "c_T"
}
layer {
  name: "lstm1_h_concat"
  type: "Concat"
  bottom: "h_1"
  top: "h"
  concat_param {
    axis: 0
  }
}
layer {
  name: "h_pseudoloss"
  type: "Reduction"
  bottom: "h"
  top: "h_pseudoloss"
  loss_weight: 1
}
I0924 04:23:32.882726 30548 layer_factory.hpp:77] Creating layer lstm1_
I0924 04:23:32.882746 30548 net.cpp:91] Creating Layer lstm1_
I0924 04:23:32.882757 30548 net.cpp:399] lstm1_ -> x
I0924 04:23:32.882774 30548 net.cpp:399] lstm1_ -> cont
I0924 04:23:32.916105 30496 net.cpp:141] Setting up lstm1_
I0924 04:23:32.916147 30520 net.cpp:141] Setting up embedding
I0924 04:23:32.916153 30496 net.cpp:148] Top shape: 1 1 500 (500)
I0924 04:23:32.916173 30520 net.cpp:148] Top shape: 1 1 500 (500)
I0924 04:23:32.916178 30496 net.cpp:148] Top shape: 1 1 (1)
I0924 04:23:32.916182 30520 net.cpp:156] Memory required for data: 22408
I0924 04:23:32.916188 30496 net.cpp:156] Memory required for data: 2004
I0924 04:23:32.916199 30496 layer_factory.hpp:77] Creating layer lstm1_
I0924 04:23:32.916208 30520 layer_factory.hpp:77] Creating layer lstm1
I0924 04:23:32.916226 30520 net.cpp:91] Creating Layer lstm1
I0924 04:23:32.916234 30496 net.cpp:91] Creating Layer lstm1_
I0924 04:23:32.916235 30520 net.cpp:425] lstm1 <- embedded_input_frames
I0924 04:23:32.916257 30496 net.cpp:399] lstm1_ -> c_0
I0924 04:23:32.916263 30520 net.cpp:425] lstm1 <- cont_sentence_input_1_split_0
I0924 04:23:32.916277 30520 net.cpp:399] lstm1 -> lstm1
I0924 04:23:32.916286 30496 net.cpp:399] lstm1_ -> h_0
I0924 04:23:32.916296 30520 recurrent_layer.cpp:20] Initializing recurrent layer: assuming input batch contains 1 timesteps of 1 independent streams.
I0924 04:23:32.916371 30496 net.cpp:141] Setting up lstm1_
I0924 04:23:32.916388 30496 net.cpp:148] Top shape: 1 1 1000 (1000)
I0924 04:23:32.916398 30496 net.cpp:148] Top shape: 1 1 1000 (1000)
I0924 04:23:32.916404 30496 net.cpp:156] Memory required for data: 10004
I0924 04:23:32.916412 30496 layer_factory.hpp:77] Creating layer lstm1_cont_slice
I0924 04:23:32.916429 30496 net.cpp:91] Creating Layer lstm1_cont_slice
I0924 04:23:32.916436 30496 net.cpp:425] lstm1_cont_slice <- cont
I0924 04:23:32.916447 30496 net.cpp:399] lstm1_cont_slice -> cont_1
I0924 04:23:32.916506 30496 net.cpp:141] Setting up lstm1_cont_slice
I0924 04:23:32.916518 30496 net.cpp:148] Top shape: 1 1 (1)
I0924 04:23:32.916525 30496 net.cpp:156] Memory required for data: 10008
I0924 04:23:32.916532 30496 layer_factory.hpp:77] Creating layer cont_1_lstm1_cont_slice_0_split
I0924 04:23:32.916543 30496 net.cpp:91] Creating Layer cont_1_lstm1_cont_slice_0_split
I0924 04:23:32.916551 30496 net.cpp:425] cont_1_lstm1_cont_slice_0_split <- cont_1
I0924 04:23:32.916566 30496 net.cpp:399] cont_1_lstm1_cont_slice_0_split -> cont_1_lstm1_cont_slice_0_split_0
I0924 04:23:32.916579 30496 net.cpp:399] cont_1_lstm1_cont_slice_0_split -> cont_1_lstm1_cont_slice_0_split_1
I0924 04:23:32.916647 30496 net.cpp:141] Setting up cont_1_lstm1_cont_slice_0_split
I0924 04:23:32.916661 30496 net.cpp:148] Top shape: 1 1 (1)
I0924 04:23:32.916668 30496 net.cpp:148] Top shape: 1 1 (1)
I0924 04:23:32.916674 30496 net.cpp:156] Memory required for data: 10016
I0924 04:23:32.916682 30496 layer_factory.hpp:77] Creating layer lstm1_x_transform
I0924 04:23:32.916692 30520 net.cpp:49] Initializing net from parameters: 
layer {
  name: "lstm1_"
  type: "Input"
  top: "x"
  top: "cont"
  input_param {
    shape {
      dim: 1
      dim: 1
      dim: 500
    }
    shape {
      dim: 1
      dim: 1
    }
  }
}
layer {
  name: "lstm1_"
  type: "Input"
  top: "c_0"
  top: "h_0"
  input_param {
    shape {
      dim: 1
      dim: 1
      dim: 1000
    }
    shape {
      dim: 1
      dim: 1
      dim: 1000
    }
  }
}
layer {
  name: "lstm1_cont_slice"
  type: "Slice"
  bottom: "cont"
  top: "cont_1"
  slice_param {
    axis: 0
  }
}
layer {
  name: "lstm1_x_transform"
  type: "InnerProduct"
  bottom: "x"
  top: "W_xc_x"
  param {
    name: "W_xc"
  }
  param {
    name: "b_c"
  }
  propagate_down: true
  inner_product_param {
    num_output: 4000
    bias_term: true
    weight_filler {
      type: "uniform"
      min: -0.08
      max: 0.08
    }
    bias_filler {
      type: "constant"
      value: 0
    }
    axis: 2
  }
}
layer {
  name: "lstm1_W_xc_x_slice"
  type: "Slice"
  bottom: "W_xc_x"
  top: "W_xc_x_1"
  slice_param {
    axis: 0
  }
}
layer {
  name: "lstm1_h_conted_0"
  type: "Scale"
  bottom: "h_0"
  bottom: "cont_1"
  top: "h_conted_0"
  scale_param {
    axis: 0
  }
}
layer {
  name: "lstm1_transform_1"
  type: "InnerProduct"
  bottom: "h_conted_0"
  top: "W_hc_h_0"
  param {
    name: "W_hc"
  }
  inner_product_param {
    num_output: 4000
    bias_term: false
    weight_filler {
      type: "uniform"
      min: -0.08
      max: 0.08
    }
    axis: 2
  }
}
layer {
  name: "lstm1_gate_input_1"
  type: "Eltwise"
  bottom: "W_hc_h_0"
  bottom: "W_xc_x_1"
  top: "gate_input_1"
  eltwise_param {
    operation: SUM
  }
}
layer {
  name: "lstm1_unit_1"
  type: "LSTMUnit"
  bottom: "c_0"
  bottom: "gate_input_1"
  bottom: "cont_1"
  top: "c_1"
  top: "h_1"
}
layer {
  name: "lstm1_"
  type: "Split"
  bottom: "c_1"
  top: "c_T"
}
layer {
  name: "lstm1_h_concat"
  type: "Concat"
  bottom: "h_1"
  top: "h"
  concat_param {
    axis: 0
  }
}
layer {
  name: "h_pseudoloss"
  type: "Reduction"
  bottom: "h"
  top: "h_pseudoloss"
  loss_weight: 1
}
I0924 04:23:32.916698 30496 net.cpp:91] Creating Layer lstm1_x_transform
I0924 04:23:32.916721 30496 net.cpp:425] lstm1_x_transform <- x
I0924 04:23:32.916736 30496 net.cpp:399] lstm1_x_transform -> W_xc_x
I0924 04:23:32.916831 30520 layer_factory.hpp:77] Creating layer lstm1_
I0924 04:23:32.916846 30520 net.cpp:91] Creating Layer lstm1_
I0924 04:23:32.916856 30520 net.cpp:399] lstm1_ -> x
I0924 04:23:32.916872 30520 net.cpp:399] lstm1_ -> cont
I0924 04:23:32.935086 30526 net.cpp:141] Setting up embedding
I0924 04:23:32.935148 30526 net.cpp:148] Top shape: 1 1 500 (500)
I0924 04:23:32.935160 30526 net.cpp:156] Memory required for data: 22408
I0924 04:23:32.935186 30526 layer_factory.hpp:77] Creating layer lstm1
I0924 04:23:32.935245 30526 net.cpp:91] Creating Layer lstm1
I0924 04:23:32.935259 30526 net.cpp:425] lstm1 <- embedded_input_frames
I0924 04:23:32.935274 30526 net.cpp:425] lstm1 <- cont_sentence_input_1_split_0
I0924 04:23:32.935293 30526 net.cpp:399] lstm1 -> lstm1
I0924 04:23:32.935320 30526 recurrent_layer.cpp:20] Initializing recurrent layer: assuming input batch contains 1 timesteps of 1 independent streams.
I0924 04:23:32.935788 30526 net.cpp:49] Initializing net from parameters: 
layer {
  name: "lstm1_"
  type: "Input"
  top: "x"
  top: "cont"
  input_param {
    shape {
      dim: 1
      dim: 1
      dim: 500
    }
    shape {
      dim: 1
      dim: 1
    }
  }
}
layer {
  name: "lstm1_"
  type: "Input"
  top: "c_0"
  top: "h_0"
  input_param {
    shape {
      dim: 1
      dim: 1
      dim: 1000
    }
    shape {
      dim: 1
      dim: 1
      dim: 1000
    }
  }
}
layer {
  name: "lstm1_cont_slice"
  type: "Slice"
  bottom: "cont"
  top: "cont_1"
  slice_param {
    axis: 0
  }
}
layer {
  name: "lstm1_x_transform"
  type: "InnerProduct"
  bottom: "x"
  top: "W_xc_x"
  param {
    name: "W_xc"
  }
  param {
    name: "b_c"
  }
  propagate_down: true
  inner_product_param {
    num_output: 4000
    bias_term: true
    weight_filler {
      type: "uniform"
      min: -0.08
      max: 0.08
    }
    bias_filler {
      type: "constant"
      value: 0
    }
    axis: 2
  }
}
layer {
  name: "lstm1_W_xc_x_slice"
  type: "Slice"
  bottom: "W_xc_x"
  top: "W_xc_x_1"
  slice_param {
    axis: 0
  }
}
layer {
  name: "lstm1_h_conted_0"
  type: "Scale"
  bottom: "h_0"
  bottom: "cont_1"
  top: "h_conted_0"
  scale_param {
    axis: 0
  }
}
layer {
  name: "lstm1_transform_1"
  type: "InnerProduct"
  bottom: "h_conted_0"
  top: "W_hc_h_0"
  param {
    name: "W_hc"
  }
  inner_product_param {
    num_output: 4000
    bias_term: false
    weight_filler {
      type: "uniform"
      min: -0.08
      max: 0.08
    }
    axis: 2
  }
}
layer {
  name: "lstm1_gate_input_1"
  type: "Eltwise"
  bottom: "W_hc_h_0"
  bottom: "W_xc_x_1"
  top: "gate_input_1"
  eltwise_param {
    operation: SUM
  }
}
layer {
  name: "lstm1_unit_1"
  type: "LSTMUnit"
  bottom: "c_0"
  bottom: "gate_input_1"
  bottom: "cont_1"
  top: "c_1"
  top: "h_1"
}
layer {
  name: "lstm1_"
  type: "Split"
  bottom: "c_1"
  top: "c_T"
}
layer {
  name: "lstm1_h_concat"
  type: "Concat"
  bottom: "h_1"
  top: "h"
  concat_param {
    axis: 0
  }
}
layer {
  name: "h_pseudoloss"
  type: "Reduction"
  bottom: "h"
  top: "h_pseudoloss"
  loss_weight: 1
}
I0924 04:23:32.935933 30526 layer_factory.hpp:77] Creating layer lstm1_
I0924 04:23:32.935956 30526 net.cpp:91] Creating Layer lstm1_
I0924 04:23:32.935967 30526 net.cpp:399] lstm1_ -> x
I0924 04:23:32.935986 30526 net.cpp:399] lstm1_ -> cont
I0924 04:23:32.936101 30526 net.cpp:141] Setting up lstm1_
I0924 04:23:32.936120 30526 net.cpp:148] Top shape: 1 1 500 (500)
I0924 04:23:32.936131 30526 net.cpp:148] Top shape: 1 1 (1)
I0924 04:23:32.936141 30526 net.cpp:156] Memory required for data: 2004
I0924 04:23:32.936149 30526 layer_factory.hpp:77] Creating layer lstm1_
I0924 04:23:32.936164 30526 net.cpp:91] Creating Layer lstm1_
I0924 04:23:32.936178 30526 net.cpp:399] lstm1_ -> c_0
I0924 04:23:32.936195 30526 net.cpp:399] lstm1_ -> h_0
I0924 04:23:32.936276 30526 net.cpp:141] Setting up lstm1_
I0924 04:23:32.936292 30526 net.cpp:148] Top shape: 1 1 1000 (1000)
I0924 04:23:32.936305 30526 net.cpp:148] Top shape: 1 1 1000 (1000)
I0924 04:23:32.936313 30526 net.cpp:156] Memory required for data: 10004
I0924 04:23:32.936321 30526 layer_factory.hpp:77] Creating layer lstm1_cont_slice
I0924 04:23:32.936339 30526 net.cpp:91] Creating Layer lstm1_cont_slice
I0924 04:23:32.936349 30526 net.cpp:425] lstm1_cont_slice <- cont
I0924 04:23:32.936362 30526 net.cpp:399] lstm1_cont_slice -> cont_1
I0924 04:23:32.936419 30526 net.cpp:141] Setting up lstm1_cont_slice
I0924 04:23:32.936436 30526 net.cpp:148] Top shape: 1 1 (1)
I0924 04:23:32.936444 30526 net.cpp:156] Memory required for data: 10008
I0924 04:23:32.936453 30526 layer_factory.hpp:77] Creating layer cont_1_lstm1_cont_slice_0_split
I0924 04:23:32.936466 30526 net.cpp:91] Creating Layer cont_1_lstm1_cont_slice_0_split
I0924 04:23:32.936475 30526 net.cpp:425] cont_1_lstm1_cont_slice_0_split <- cont_1
I0924 04:23:32.936489 30526 net.cpp:399] cont_1_lstm1_cont_slice_0_split -> cont_1_lstm1_cont_slice_0_split_0
I0924 04:23:32.936506 30526 net.cpp:399] cont_1_lstm1_cont_slice_0_split -> cont_1_lstm1_cont_slice_0_split_1
I0924 04:23:32.936580 30526 net.cpp:141] Setting up cont_1_lstm1_cont_slice_0_split
I0924 04:23:32.936596 30526 net.cpp:148] Top shape: 1 1 (1)
I0924 04:23:32.936607 30526 net.cpp:148] Top shape: 1 1 (1)
I0924 04:23:32.936615 30526 net.cpp:156] Memory required for data: 10016
I0924 04:23:32.936624 30526 layer_factory.hpp:77] Creating layer lstm1_x_transform
I0924 04:23:32.936641 30526 net.cpp:91] Creating Layer lstm1_x_transform
I0924 04:23:32.936650 30526 net.cpp:425] lstm1_x_transform <- x
I0924 04:23:32.936666 30526 net.cpp:399] lstm1_x_transform -> W_xc_x
I0924 04:23:32.941004 30514 net.cpp:141] Setting up cont_1_lstm1_cont_slice_0_split
I0924 04:23:32.941056 30514 net.cpp:148] Top shape: 1 1 (1)
I0924 04:23:32.941066 30514 net.cpp:148] Top shape: 1 1 (1)
I0924 04:23:32.941074 30514 net.cpp:156] Memory required for data: 10016
I0924 04:23:32.941087 30514 layer_factory.hpp:77] Creating layer lstm1_x_transform
I0924 04:23:32.941083 30548 net.cpp:141] Setting up lstm1_
I0924 04:23:32.941108 30548 net.cpp:148] Top shape: 1 1 500 (500)
I0924 04:23:32.941121 30548 net.cpp:148] Top shape: 1 1 (1)
I0924 04:23:32.941123 30514 net.cpp:91] Creating Layer lstm1_x_transform
I0924 04:23:32.941129 30548 net.cpp:156] Memory required for data: 2004
I0924 04:23:32.941134 30514 net.cpp:425] lstm1_x_transform <- x
I0924 04:23:32.941140 30548 layer_factory.hpp:77] Creating layer lstm1_
I0924 04:23:32.941160 30548 net.cpp:91] Creating Layer lstm1_
I0924 04:23:32.941159 30514 net.cpp:399] lstm1_x_transform -> W_xc_x
I0924 04:23:32.941196 30548 net.cpp:399] lstm1_ -> c_0
I0924 04:23:32.941218 30548 net.cpp:399] lstm1_ -> h_0
I0924 04:23:32.941331 30520 net.cpp:141] Setting up lstm1_
I0924 04:23:32.941349 30520 net.cpp:148] Top shape: 1 1 500 (500)
I0924 04:23:32.941359 30520 net.cpp:148] Top shape: 1 1 (1)
I0924 04:23:32.941365 30520 net.cpp:156] Memory required for data: 2004
I0924 04:23:32.941373 30520 layer_factory.hpp:77] Creating layer lstm1_
I0924 04:23:32.941395 30520 net.cpp:91] Creating Layer lstm1_
I0924 04:23:32.941408 30520 net.cpp:399] lstm1_ -> c_0
I0924 04:23:32.941432 30520 net.cpp:399] lstm1_ -> h_0
I0924 04:23:32.941557 30540 net.cpp:141] Setting up lstm1_x_transform
I0924 04:23:32.941599 30540 net.cpp:148] Top shape: 1 1 4000 (4000)
I0924 04:23:32.941599 30552 net.cpp:141] Setting up cont_1_lstm1_cont_slice_0_split
I0924 04:23:32.941608 30540 net.cpp:156] Memory required for data: 26016
I0924 04:23:32.941630 30552 net.cpp:148] Top shape: 1 1 (1)
I0924 04:23:32.941642 30552 net.cpp:148] Top shape: 1 1 (1)
I0924 04:23:32.941649 30552 net.cpp:156] Memory required for data: 10016
I0924 04:23:32.941648 30540 layer_factory.hpp:77] Creating layer lstm1_W_xc_x_slice
I0924 04:23:32.941664 30552 layer_factory.hpp:77] Creating layer lstm1_x_transform
I0924 04:23:32.941690 30520 net.cpp:141] Setting up lstm1_
I0924 04:23:32.941696 30540 net.cpp:91] Creating Layer lstm1_W_xc_x_slice
I0924 04:23:32.941700 30552 net.cpp:91] Creating Layer lstm1_x_transform
I0924 04:23:32.941710 30540 net.cpp:425] lstm1_W_xc_x_slice <- W_xc_x
I0924 04:23:32.941710 30520 net.cpp:148] Top shape: 1 1 1000 (1000)
I0924 04:23:32.941721 30540 net.cpp:399] lstm1_W_xc_x_slice -> W_xc_x_1
I0924 04:23:32.941711 30552 net.cpp:425] lstm1_x_transform <- x
I0924 04:23:32.941728 30520 net.cpp:148] Top shape: 1 1 1000 (1000)
I0924 04:23:32.941735 30520 net.cpp:156] Memory required for data: 10004
I0924 04:23:32.941740 30552 net.cpp:399] lstm1_x_transform -> W_xc_x
I0924 04:23:32.941745 30520 layer_factory.hpp:77] Creating layer lstm1_cont_slice
I0924 04:23:32.941761 30520 net.cpp:91] Creating Layer lstm1_cont_slice
I0924 04:23:32.941769 30520 net.cpp:425] lstm1_cont_slice <- cont
I0924 04:23:32.941786 30520 net.cpp:399] lstm1_cont_slice -> cont_1
I0924 04:23:32.941810 30540 net.cpp:141] Setting up lstm1_W_xc_x_slice
I0924 04:23:32.941823 30540 net.cpp:148] Top shape: 1 1 4000 (4000)
I0924 04:23:32.941828 30540 net.cpp:156] Memory required for data: 42016
I0924 04:23:32.941833 30540 layer_factory.hpp:77] Creating layer lstm1_h_conted_0
I0924 04:23:32.941854 30540 net.cpp:91] Creating Layer lstm1_h_conted_0
I0924 04:23:32.941865 30540 net.cpp:425] lstm1_h_conted_0 <- h_0
I0924 04:23:32.941876 30540 net.cpp:425] lstm1_h_conted_0 <- cont_1_lstm1_cont_slice_0_split_0
I0924 04:23:32.941891 30540 net.cpp:399] lstm1_h_conted_0 -> h_conted_0
I0924 04:23:32.952960 30548 net.cpp:141] Setting up lstm1_
I0924 04:23:32.953012 30548 net.cpp:148] Top shape: 1 1 1000 (1000)
I0924 04:23:32.953025 30548 net.cpp:148] Top shape: 1 1 1000 (1000)
I0924 04:23:32.953032 30548 net.cpp:156] Memory required for data: 10004
I0924 04:23:32.953045 30548 layer_factory.hpp:77] Creating layer lstm1_cont_slice
I0924 04:23:32.953073 30548 net.cpp:91] Creating Layer lstm1_cont_slice
I0924 04:23:32.953083 30548 net.cpp:425] lstm1_cont_slice <- cont
I0924 04:23:32.953099 30548 net.cpp:399] lstm1_cont_slice -> cont_1
I0924 04:23:32.953166 30548 net.cpp:141] Setting up lstm1_cont_slice
I0924 04:23:32.953181 30548 net.cpp:148] Top shape: 1 1 (1)
I0924 04:23:32.953188 30548 net.cpp:156] Memory required for data: 10008
I0924 04:23:32.953197 30548 layer_factory.hpp:77] Creating layer cont_1_lstm1_cont_slice_0_split
I0924 04:23:32.953209 30548 net.cpp:91] Creating Layer cont_1_lstm1_cont_slice_0_split
I0924 04:23:32.953217 30548 net.cpp:425] cont_1_lstm1_cont_slice_0_split <- cont_1
I0924 04:23:32.953232 30548 net.cpp:399] cont_1_lstm1_cont_slice_0_split -> cont_1_lstm1_cont_slice_0_split_0
I0924 04:23:32.953245 30548 net.cpp:399] cont_1_lstm1_cont_slice_0_split -> cont_1_lstm1_cont_slice_0_split_1
I0924 04:23:32.953320 30548 net.cpp:141] Setting up cont_1_lstm1_cont_slice_0_split
I0924 04:23:32.953335 30548 net.cpp:148] Top shape: 1 1 (1)
I0924 04:23:32.953344 30548 net.cpp:148] Top shape: 1 1 (1)
I0924 04:23:32.953351 30548 net.cpp:156] Memory required for data: 10016
I0924 04:23:32.953358 30548 layer_factory.hpp:77] Creating layer lstm1_x_transform
I0924 04:23:32.953382 30548 net.cpp:91] Creating Layer lstm1_x_transform
I0924 04:23:32.953392 30548 net.cpp:425] lstm1_x_transform <- x
I0924 04:23:32.953405 30548 net.cpp:399] lstm1_x_transform -> W_xc_x
I0924 04:23:32.958892 30520 net.cpp:141] Setting up lstm1_cont_slice
I0924 04:23:32.958951 30520 net.cpp:148] Top shape: 1 1 (1)
I0924 04:23:32.958961 30520 net.cpp:156] Memory required for data: 10008
I0924 04:23:32.958973 30520 layer_factory.hpp:77] Creating layer cont_1_lstm1_cont_slice_0_split
I0924 04:23:32.958997 30520 net.cpp:91] Creating Layer cont_1_lstm1_cont_slice_0_split
I0924 04:23:32.959008 30520 net.cpp:425] cont_1_lstm1_cont_slice_0_split <- cont_1
I0924 04:23:32.959023 30520 net.cpp:399] cont_1_lstm1_cont_slice_0_split -> cont_1_lstm1_cont_slice_0_split_0
I0924 04:23:32.959043 30520 net.cpp:399] cont_1_lstm1_cont_slice_0_split -> cont_1_lstm1_cont_slice_0_split_1
I0924 04:23:32.959131 30520 net.cpp:141] Setting up cont_1_lstm1_cont_slice_0_split
I0924 04:23:32.959147 30520 net.cpp:148] Top shape: 1 1 (1)
I0924 04:23:32.959158 30520 net.cpp:148] Top shape: 1 1 (1)
I0924 04:23:32.959166 30520 net.cpp:156] Memory required for data: 10016
I0924 04:23:32.959172 30520 layer_factory.hpp:77] Creating layer lstm1_x_transform
I0924 04:23:32.959198 30520 net.cpp:91] Creating Layer lstm1_x_transform
I0924 04:23:32.959206 30520 net.cpp:425] lstm1_x_transform <- x
I0924 04:23:32.959220 30520 net.cpp:399] lstm1_x_transform -> W_xc_x
I0924 04:23:32.969740 30496 net.cpp:141] Setting up lstm1_x_transform
I0924 04:23:32.969786 30496 net.cpp:148] Top shape: 1 1 4000 (4000)
I0924 04:23:32.969795 30496 net.cpp:156] Memory required for data: 26016
I0924 04:23:32.969830 30496 layer_factory.hpp:77] Creating layer lstm1_W_xc_x_slice
I0924 04:23:32.969856 30496 net.cpp:91] Creating Layer lstm1_W_xc_x_slice
I0924 04:23:32.969868 30496 net.cpp:425] lstm1_W_xc_x_slice <- W_xc_x
I0924 04:23:32.969887 30496 net.cpp:399] lstm1_W_xc_x_slice -> W_xc_x_1
I0924 04:23:32.969945 30496 net.cpp:141] Setting up lstm1_W_xc_x_slice
I0924 04:23:32.969956 30496 net.cpp:148] Top shape: 1 1 4000 (4000)
I0924 04:23:32.969961 30496 net.cpp:156] Memory required for data: 42016
I0924 04:23:32.969965 30496 layer_factory.hpp:77] Creating layer lstm1_h_conted_0
I0924 04:23:32.969975 30496 net.cpp:91] Creating Layer lstm1_h_conted_0
I0924 04:23:32.969980 30496 net.cpp:425] lstm1_h_conted_0 <- h_0
I0924 04:23:32.969986 30496 net.cpp:425] lstm1_h_conted_0 <- cont_1_lstm1_cont_slice_0_split_0
I0924 04:23:32.969993 30496 net.cpp:399] lstm1_h_conted_0 -> h_conted_0
I0924 04:23:32.970098 30496 net.cpp:141] Setting up lstm1_h_conted_0
I0924 04:23:32.970109 30496 net.cpp:148] Top shape: 1 1 1000 (1000)
I0924 04:23:32.970113 30496 net.cpp:156] Memory required for data: 46016
I0924 04:23:32.970118 30496 layer_factory.hpp:77] Creating layer lstm1_transform_1
I0924 04:23:32.970131 30496 net.cpp:91] Creating Layer lstm1_transform_1
I0924 04:23:32.970136 30496 net.cpp:425] lstm1_transform_1 <- h_conted_0
I0924 04:23:32.970144 30496 net.cpp:399] lstm1_transform_1 -> W_hc_h_0
I0924 04:23:32.981106 30526 net.cpp:141] Setting up lstm1_x_transform
I0924 04:23:32.981164 30526 net.cpp:148] Top shape: 1 1 4000 (4000)
I0924 04:23:32.981174 30526 net.cpp:156] Memory required for data: 26016
I0924 04:23:32.981201 30526 layer_factory.hpp:77] Creating layer lstm1_W_xc_x_slice
I0924 04:23:32.981228 30526 net.cpp:91] Creating Layer lstm1_W_xc_x_slice
I0924 04:23:32.981238 30526 net.cpp:425] lstm1_W_xc_x_slice <- W_xc_x
I0924 04:23:32.981253 30526 net.cpp:399] lstm1_W_xc_x_slice -> W_xc_x_1
I0924 04:23:32.981315 30526 net.cpp:141] Setting up lstm1_W_xc_x_slice
I0924 04:23:32.981331 30526 net.cpp:148] Top shape: 1 1 4000 (4000)
I0924 04:23:32.981339 30526 net.cpp:156] Memory required for data: 42016
I0924 04:23:32.981348 30526 layer_factory.hpp:77] Creating layer lstm1_h_conted_0
I0924 04:23:32.981364 30526 net.cpp:91] Creating Layer lstm1_h_conted_0
I0924 04:23:32.981372 30526 net.cpp:425] lstm1_h_conted_0 <- h_0
I0924 04:23:32.981381 30526 net.cpp:425] lstm1_h_conted_0 <- cont_1_lstm1_cont_slice_0_split_0
I0924 04:23:32.981395 30526 net.cpp:399] lstm1_h_conted_0 -> h_conted_0
I0924 04:23:32.981601 30526 net.cpp:141] Setting up lstm1_h_conted_0
I0924 04:23:32.981617 30526 net.cpp:148] Top shape: 1 1 1000 (1000)
I0924 04:23:32.981626 30526 net.cpp:156] Memory required for data: 46016
I0924 04:23:32.981633 30526 layer_factory.hpp:77] Creating layer lstm1_transform_1
I0924 04:23:32.981653 30526 net.cpp:91] Creating Layer lstm1_transform_1
I0924 04:23:32.981663 30526 net.cpp:425] lstm1_transform_1 <- h_conted_0
I0924 04:23:32.981678 30526 net.cpp:399] lstm1_transform_1 -> W_hc_h_0
I0924 04:23:32.991394 30540 net.cpp:141] Setting up lstm1_h_conted_0
I0924 04:23:32.991453 30540 net.cpp:148] Top shape: 1 1 1000 (1000)
I0924 04:23:32.991462 30540 net.cpp:156] Memory required for data: 46016
I0924 04:23:32.991475 30540 layer_factory.hpp:77] Creating layer lstm1_transform_1
I0924 04:23:32.991502 30540 net.cpp:91] Creating Layer lstm1_transform_1
I0924 04:23:32.991513 30540 net.cpp:425] lstm1_transform_1 <- h_conted_0
I0924 04:23:32.991545 30540 net.cpp:399] lstm1_transform_1 -> W_hc_h_0
I0924 04:23:32.991590 30500 net.cpp:141] Setting up lstm1_x_transform
I0924 04:23:32.991611 30500 net.cpp:148] Top shape: 1 1 4000 (4000)
I0924 04:23:32.991619 30500 net.cpp:156] Memory required for data: 26016
I0924 04:23:32.991641 30500 layer_factory.hpp:77] Creating layer lstm1_W_xc_x_slice
I0924 04:23:32.991657 30500 net.cpp:91] Creating Layer lstm1_W_xc_x_slice
I0924 04:23:32.991665 30500 net.cpp:425] lstm1_W_xc_x_slice <- W_xc_x
I0924 04:23:32.991677 30500 net.cpp:399] lstm1_W_xc_x_slice -> W_xc_x_1
I0924 04:23:33.008587 30548 net.cpp:141] Setting up lstm1_x_transform
I0924 04:23:33.008646 30548 net.cpp:148] Top shape: 1 1 4000 (4000)
I0924 04:23:33.008657 30548 net.cpp:156] Memory required for data: 26016
I0924 04:23:33.008687 30548 layer_factory.hpp:77] Creating layer lstm1_W_xc_x_slice
I0924 04:23:33.008713 30548 net.cpp:91] Creating Layer lstm1_W_xc_x_slice
I0924 04:23:33.008723 30548 net.cpp:425] lstm1_W_xc_x_slice <- W_xc_x
I0924 04:23:33.008738 30548 net.cpp:399] lstm1_W_xc_x_slice -> W_xc_x_1
I0924 04:23:33.008750 30520 net.cpp:141] Setting up lstm1_x_transform
I0924 04:23:33.008769 30520 net.cpp:148] Top shape: 1 1 4000 (4000)
I0924 04:23:33.008774 30520 net.cpp:156] Memory required for data: 26016
I0924 04:23:33.008788 30520 layer_factory.hpp:77] Creating layer lstm1_W_xc_x_slice
I0924 04:23:33.008802 30520 net.cpp:91] Creating Layer lstm1_W_xc_x_slice
I0924 04:23:33.008810 30520 net.cpp:425] lstm1_W_xc_x_slice <- W_xc_x
I0924 04:23:33.008818 30520 net.cpp:399] lstm1_W_xc_x_slice -> W_xc_x_1
I0924 04:23:33.008999 30500 net.cpp:141] Setting up lstm1_W_xc_x_slice
I0924 04:23:33.009032 30548 net.cpp:141] Setting up lstm1_W_xc_x_slice
I0924 04:23:33.009039 30500 net.cpp:148] Top shape: 1 1 4000 (4000)
I0924 04:23:33.009049 30500 net.cpp:156] Memory required for data: 42016
I0924 04:23:33.009053 30548 net.cpp:148] Top shape: 1 1 4000 (4000)
I0924 04:23:33.009059 30500 layer_factory.hpp:77] Creating layer lstm1_h_conted_0
I0924 04:23:33.009065 30548 net.cpp:156] Memory required for data: 42016
I0924 04:23:33.009102 30548 layer_factory.hpp:77] Creating layer lstm1_h_conted_0
I0924 04:23:33.009083 30500 net.cpp:91] Creating Layer lstm1_h_conted_0
I0924 04:23:33.009080 30520 net.cpp:141] Setting up lstm1_W_xc_x_slice
I0924 04:23:33.009131 30500 net.cpp:425] lstm1_h_conted_0 <- h_0
I0924 04:23:33.009127 30548 net.cpp:91] Creating Layer lstm1_h_conted_0
I0924 04:23:33.009146 30500 net.cpp:425] lstm1_h_conted_0 <- cont_1_lstm1_cont_slice_0_split_0
I0924 04:23:33.009153 30548 net.cpp:425] lstm1_h_conted_0 <- h_0
I0924 04:23:33.009160 30500 net.cpp:399] lstm1_h_conted_0 -> h_conted_0
I0924 04:23:33.009166 30548 net.cpp:425] lstm1_h_conted_0 <- cont_1_lstm1_cont_slice_0_split_0
I0924 04:23:33.009174 30520 net.cpp:148] Top shape: 1 1 4000 (4000)
I0924 04:23:33.009184 30520 net.cpp:156] Memory required for data: 42016
I0924 04:23:33.009191 30548 net.cpp:399] lstm1_h_conted_0 -> h_conted_0
I0924 04:23:33.009192 30520 layer_factory.hpp:77] Creating layer lstm1_h_conted_0
I0924 04:23:33.009218 30552 net.cpp:141] Setting up lstm1_x_transform
I0924 04:23:33.009232 30520 net.cpp:91] Creating Layer lstm1_h_conted_0
I0924 04:23:33.009241 30552 net.cpp:148] Top shape: 1 1 4000 (4000)
I0924 04:23:33.009245 30520 net.cpp:425] lstm1_h_conted_0 <- h_0
I0924 04:23:33.009251 30552 net.cpp:156] Memory required for data: 26016
I0924 04:23:33.009256 30520 net.cpp:425] lstm1_h_conted_0 <- cont_1_lstm1_cont_slice_0_split_0
I0924 04:23:33.009281 30552 layer_factory.hpp:77] Creating layer lstm1_W_xc_x_slice
I0924 04:23:33.009299 30552 net.cpp:91] Creating Layer lstm1_W_xc_x_slice
I0924 04:23:33.009307 30552 net.cpp:425] lstm1_W_xc_x_slice <- W_xc_x
I0924 04:23:33.009320 30552 net.cpp:399] lstm1_W_xc_x_slice -> W_xc_x_1
I0924 04:23:33.009397 30514 net.cpp:141] Setting up lstm1_x_transform
I0924 04:23:33.009415 30514 net.cpp:148] Top shape: 1 1 4000 (4000)
I0924 04:23:33.009420 30514 net.cpp:156] Memory required for data: 26016
I0924 04:23:33.009433 30514 layer_factory.hpp:77] Creating layer lstm1_W_xc_x_slice
I0924 04:23:33.009441 30514 net.cpp:91] Creating Layer lstm1_W_xc_x_slice
I0924 04:23:33.009448 30514 net.cpp:425] lstm1_W_xc_x_slice <- W_xc_x
I0924 04:23:33.009456 30514 net.cpp:399] lstm1_W_xc_x_slice -> W_xc_x_1
I0924 04:23:33.009481 30520 net.cpp:399] lstm1_h_conted_0 -> h_conted_0
I0924 04:23:33.009490 30552 net.cpp:141] Setting up lstm1_W_xc_x_slice
I0924 04:23:33.009507 30552 net.cpp:148] Top shape: 1 1 4000 (4000)
I0924 04:23:33.009515 30552 net.cpp:156] Memory required for data: 42016
I0924 04:23:33.009521 30552 layer_factory.hpp:77] Creating layer lstm1_h_conted_0
I0924 04:23:33.009538 30552 net.cpp:91] Creating Layer lstm1_h_conted_0
I0924 04:23:33.009547 30552 net.cpp:425] lstm1_h_conted_0 <- h_0
I0924 04:23:33.009557 30552 net.cpp:425] lstm1_h_conted_0 <- cont_1_lstm1_cont_slice_0_split_0
I0924 04:23:33.009568 30552 net.cpp:399] lstm1_h_conted_0 -> h_conted_0
I0924 04:23:33.009642 30514 net.cpp:141] Setting up lstm1_W_xc_x_slice
I0924 04:23:33.009661 30514 net.cpp:148] Top shape: 1 1 4000 (4000)
I0924 04:23:33.009670 30514 net.cpp:156] Memory required for data: 42016
I0924 04:23:33.009676 30514 layer_factory.hpp:77] Creating layer lstm1_h_conted_0
I0924 04:23:33.009701 30514 net.cpp:91] Creating Layer lstm1_h_conted_0
I0924 04:23:33.009712 30514 net.cpp:425] lstm1_h_conted_0 <- h_0
I0924 04:23:33.009722 30514 net.cpp:425] lstm1_h_conted_0 <- cont_1_lstm1_cont_slice_0_split_0
I0924 04:23:33.009734 30514 net.cpp:399] lstm1_h_conted_0 -> h_conted_0
I0924 04:23:33.012812 30520 net.cpp:141] Setting up lstm1_h_conted_0
I0924 04:23:33.012861 30520 net.cpp:148] Top shape: 1 1 1000 (1000)
I0924 04:23:33.012869 30520 net.cpp:156] Memory required for data: 46016
I0924 04:23:33.012890 30520 layer_factory.hpp:77] Creating layer lstm1_transform_1
I0924 04:23:33.012917 30520 net.cpp:91] Creating Layer lstm1_transform_1
I0924 04:23:33.012926 30520 net.cpp:425] lstm1_transform_1 <- h_conted_0
I0924 04:23:33.012953 30520 net.cpp:399] lstm1_transform_1 -> W_hc_h_0
I0924 04:23:33.025144 30552 net.cpp:141] Setting up lstm1_h_conted_0
I0924 04:23:33.025198 30552 net.cpp:148] Top shape: 1 1 1000 (1000)
I0924 04:23:33.025207 30552 net.cpp:156] Memory required for data: 46016
I0924 04:23:33.025219 30552 layer_factory.hpp:77] Creating layer lstm1_transform_1
I0924 04:23:33.025248 30552 net.cpp:91] Creating Layer lstm1_transform_1
I0924 04:23:33.025257 30552 net.cpp:425] lstm1_transform_1 <- h_conted_0
I0924 04:23:33.025274 30552 net.cpp:399] lstm1_transform_1 -> W_hc_h_0
I0924 04:23:33.036005 30492 net.cpp:141] Setting up embedding
I0924 04:23:33.036062 30492 net.cpp:148] Top shape: 1 1 500 (500)
I0924 04:23:33.036070 30492 net.cpp:156] Memory required for data: 22408
I0924 04:23:33.036097 30492 layer_factory.hpp:77] Creating layer lstm1
I0924 04:23:33.036124 30492 net.cpp:91] Creating Layer lstm1
I0924 04:23:33.036135 30492 net.cpp:425] lstm1 <- embedded_input_frames
I0924 04:23:33.036146 30492 net.cpp:425] lstm1 <- cont_sentence_input_1_split_0
I0924 04:23:33.036161 30492 net.cpp:399] lstm1 -> lstm1
I0924 04:23:33.036186 30492 recurrent_layer.cpp:20] Initializing recurrent layer: assuming input batch contains 1 timesteps of 1 independent streams.
I0924 04:23:33.036684 30492 net.cpp:49] Initializing net from parameters: 
layer {
  name: "lstm1_"
  type: "Input"
  top: "x"
  top: "cont"
  input_param {
    shape {
      dim: 1
      dim: 1
      dim: 500
    }
    shape {
      dim: 1
      dim: 1
    }
  }
}
layer {
  name: "lstm1_"
  type: "Input"
  top: "c_0"
  top: "h_0"
  input_param {
    shape {
      dim: 1
      dim: 1
      dim: 1000
    }
    shape {
      dim: 1
      dim: 1
      dim: 1000
    }
  }
}
layer {
  name: "lstm1_cont_slice"
  type: "Slice"
  bottom: "cont"
  top: "cont_1"
  slice_param {
    axis: 0
  }
}
layer {
  name: "lstm1_x_transform"
  type: "InnerProduct"
  bottom: "x"
  top: "W_xc_x"
  param {
    name: "W_xc"
  }
  param {
    name: "b_c"
  }
  propagate_down: true
  inner_product_param {
    num_output: 4000
    bias_term: true
    weight_filler {
      type: "uniform"
      min: -0.08
      max: 0.08
    }
    bias_filler {
      type: "constant"
      value: 0
    }
    axis: 2
  }
}
layer {
  name: "lstm1_W_xc_x_slice"
  type: "Slice"
  bottom: "W_xc_x"
  top: "W_xc_x_1"
  slice_param {
    axis: 0
  }
}
layer {
  name: "lstm1_h_conted_0"
  type: "Scale"
  bottom: "h_0"
  bottom: "cont_1"
  top: "h_conted_0"
  scale_param {
    axis: 0
  }
}
layer {
  name: "lstm1_transform_1"
  type: "InnerProduct"
  bottom: "h_conted_0"
  top: "W_hc_h_0"
  param {
    name: "W_hc"
  }
  inner_product_param {
    num_output: 4000
    bias_term: false
    weight_filler {
      type: "uniform"
      min: -0.08
      max: 0.08
    }
    axis: 2
  }
}
layer {
  name: "lstm1_gate_input_1"
  type: "Eltwise"
  bottom: "W_hc_h_0"
  bottom: "W_xc_x_1"
  top: "gate_input_1"
  eltwise_param {
    operation: SUM
  }
}
layer {
  name: "lstm1_unit_1"
  type: "LSTMUnit"
  bottom: "c_0"
  bottom: "gate_input_1"
  bottom: "cont_1"
  top: "c_1"
  top: "h_1"
}
layer {
  name: "lstm1_"
  type: "Split"
  bottom: "c_1"
  top: "c_T"
}
layer {
  name: "lstm1_h_concat"
  type: "Concat"
  bottom: "h_1"
  top: "h"
  concat_param {
    axis: 0
  }
}
layer {
  name: "h_pseudoloss"
  type: "Reduction"
  bottom: "h"
  top: "h_pseudoloss"
  loss_weight: 1
}
I0924 04:23:33.036908 30492 layer_factory.hpp:77] Creating layer lstm1_
I0924 04:23:33.036942 30492 net.cpp:91] Creating Layer lstm1_
I0924 04:23:33.036967 30492 net.cpp:399] lstm1_ -> x
I0924 04:23:33.036998 30492 net.cpp:399] lstm1_ -> cont
I0924 04:23:33.037142 30492 net.cpp:141] Setting up lstm1_
I0924 04:23:33.037161 30492 net.cpp:148] Top shape: 1 1 500 (500)
I0924 04:23:33.037175 30492 net.cpp:148] Top shape: 1 1 (1)
I0924 04:23:33.037184 30492 net.cpp:156] Memory required for data: 2004
I0924 04:23:33.037192 30492 layer_factory.hpp:77] Creating layer lstm1_
I0924 04:23:33.037209 30492 net.cpp:91] Creating Layer lstm1_
I0924 04:23:33.037230 30492 net.cpp:399] lstm1_ -> c_0
I0924 04:23:33.037251 30492 net.cpp:399] lstm1_ -> h_0
I0924 04:23:33.037356 30492 net.cpp:141] Setting up lstm1_
I0924 04:23:33.037375 30492 net.cpp:148] Top shape: 1 1 1000 (1000)
I0924 04:23:33.037387 30492 net.cpp:148] Top shape: 1 1 1000 (1000)
I0924 04:23:33.037397 30492 net.cpp:156] Memory required for data: 10004
I0924 04:23:33.037406 30492 layer_factory.hpp:77] Creating layer lstm1_cont_slice
I0924 04:23:33.037421 30492 net.cpp:91] Creating Layer lstm1_cont_slice
I0924 04:23:33.037432 30492 net.cpp:425] lstm1_cont_slice <- cont
I0924 04:23:33.037452 30492 net.cpp:399] lstm1_cont_slice -> cont_1
I0924 04:23:33.037516 30492 net.cpp:141] Setting up lstm1_cont_slice
I0924 04:23:33.037533 30492 net.cpp:148] Top shape: 1 1 (1)
I0924 04:23:33.037540 30492 net.cpp:156] Memory required for data: 10008
I0924 04:23:33.037547 30492 layer_factory.hpp:77] Creating layer cont_1_lstm1_cont_slice_0_split
I0924 04:23:33.037564 30492 net.cpp:91] Creating Layer cont_1_lstm1_cont_slice_0_split
I0924 04:23:33.037572 30492 net.cpp:425] cont_1_lstm1_cont_slice_0_split <- cont_1
I0924 04:23:33.037585 30492 net.cpp:399] cont_1_lstm1_cont_slice_0_split -> cont_1_lstm1_cont_slice_0_split_0
I0924 04:23:33.037600 30492 net.cpp:399] cont_1_lstm1_cont_slice_0_split -> cont_1_lstm1_cont_slice_0_split_1
I0924 04:23:33.037686 30492 net.cpp:141] Setting up cont_1_lstm1_cont_slice_0_split
I0924 04:23:33.037703 30492 net.cpp:148] Top shape: 1 1 (1)
I0924 04:23:33.037713 30492 net.cpp:148] Top shape: 1 1 (1)
I0924 04:23:33.037720 30492 net.cpp:156] Memory required for data: 10016
I0924 04:23:33.037727 30492 layer_factory.hpp:77] Creating layer lstm1_x_transform
I0924 04:23:33.037744 30492 net.cpp:91] Creating Layer lstm1_x_transform
I0924 04:23:33.037755 30492 net.cpp:425] lstm1_x_transform <- x
I0924 04:23:33.037767 30492 net.cpp:399] lstm1_x_transform -> W_xc_x
I0924 04:23:33.042266 30500 net.cpp:141] Setting up lstm1_h_conted_0
I0924 04:23:33.042316 30500 net.cpp:148] Top shape: 1 1 1000 (1000)
I0924 04:23:33.042323 30500 net.cpp:156] Memory required for data: 46016
I0924 04:23:33.042332 30500 layer_factory.hpp:77] Creating layer lstm1_transform_1
I0924 04:23:33.042356 30500 net.cpp:91] Creating Layer lstm1_transform_1
I0924 04:23:33.042363 30500 net.cpp:425] lstm1_transform_1 <- h_conted_0
I0924 04:23:33.042381 30500 net.cpp:399] lstm1_transform_1 -> W_hc_h_0
I0924 04:23:33.042510 30496 net.cpp:141] Setting up lstm1_transform_1
I0924 04:23:33.042527 30496 net.cpp:148] Top shape: 1 1 4000 (4000)
I0924 04:23:33.042532 30496 net.cpp:156] Memory required for data: 62016
I0924 04:23:33.042549 30496 layer_factory.hpp:77] Creating layer lstm1_gate_input_1
I0924 04:23:33.042564 30496 net.cpp:91] Creating Layer lstm1_gate_input_1
I0924 04:23:33.042572 30496 net.cpp:425] lstm1_gate_input_1 <- W_hc_h_0
I0924 04:23:33.042577 30496 net.cpp:425] lstm1_gate_input_1 <- W_xc_x_1
I0924 04:23:33.042588 30496 net.cpp:399] lstm1_gate_input_1 -> gate_input_1
I0924 04:23:33.042680 30496 net.cpp:141] Setting up lstm1_gate_input_1
I0924 04:23:33.042726 30496 net.cpp:148] Top shape: 1 1 4000 (4000)
I0924 04:23:33.042739 30496 net.cpp:156] Memory required for data: 78016
I0924 04:23:33.042747 30496 layer_factory.hpp:77] Creating layer lstm1_unit_1
I0924 04:23:33.042757 30496 net.cpp:91] Creating Layer lstm1_unit_1
I0924 04:23:33.042762 30496 net.cpp:425] lstm1_unit_1 <- c_0
I0924 04:23:33.042769 30496 net.cpp:425] lstm1_unit_1 <- gate_input_1
I0924 04:23:33.042775 30496 net.cpp:425] lstm1_unit_1 <- cont_1_lstm1_cont_slice_0_split_1
I0924 04:23:33.042783 30496 net.cpp:399] lstm1_unit_1 -> c_1
I0924 04:23:33.042791 30496 net.cpp:399] lstm1_unit_1 -> h_1
I0924 04:23:33.050895 30514 net.cpp:141] Setting up lstm1_h_conted_0
I0924 04:23:33.050909 30548 net.cpp:141] Setting up lstm1_h_conted_0
I0924 04:23:33.050956 30514 net.cpp:148] Top shape: 1 1 1000 (1000)
I0924 04:23:33.050958 30548 net.cpp:148] Top shape: 1 1 1000 (1000)
I0924 04:23:33.050964 30514 net.cpp:156] Memory required for data: 46016
I0924 04:23:33.050968 30548 net.cpp:156] Memory required for data: 46016
I0924 04:23:33.050977 30514 layer_factory.hpp:77] Creating layer lstm1_transform_1
I0924 04:23:33.050977 30548 layer_factory.hpp:77] Creating layer lstm1_transform_1
I0924 04:23:33.051005 30514 net.cpp:91] Creating Layer lstm1_transform_1
I0924 04:23:33.051007 30548 net.cpp:91] Creating Layer lstm1_transform_1
I0924 04:23:33.051017 30514 net.cpp:425] lstm1_transform_1 <- h_conted_0
I0924 04:23:33.051018 30548 net.cpp:425] lstm1_transform_1 <- h_conted_0
I0924 04:23:33.051033 30514 net.cpp:399] lstm1_transform_1 -> W_hc_h_0
I0924 04:23:33.051033 30548 net.cpp:399] lstm1_transform_1 -> W_hc_h_0
I0924 04:23:33.051049 30496 net.cpp:141] Setting up lstm1_unit_1
I0924 04:23:33.051086 30496 net.cpp:148] Top shape: 1 1 1000 (1000)
I0924 04:23:33.051093 30496 net.cpp:148] Top shape: 1 1 1000 (1000)
I0924 04:23:33.051097 30496 net.cpp:156] Memory required for data: 86016
I0924 04:23:33.051105 30496 layer_factory.hpp:77] Creating layer lstm1_
I0924 04:23:33.051120 30496 net.cpp:91] Creating Layer lstm1_
I0924 04:23:33.051126 30496 net.cpp:425] lstm1_ <- c_1
I0924 04:23:33.051137 30496 net.cpp:399] lstm1_ -> c_T
I0924 04:23:33.073462 30496 net.cpp:141] Setting up lstm1_
I0924 04:23:33.073521 30496 net.cpp:148] Top shape: 1 1 1000 (1000)
I0924 04:23:33.073530 30496 net.cpp:156] Memory required for data: 90016
I0924 04:23:33.073546 30496 layer_factory.hpp:77] Creating layer lstm1_h_concat
I0924 04:23:33.073582 30496 net.cpp:91] Creating Layer lstm1_h_concat
I0924 04:23:33.073598 30496 net.cpp:425] lstm1_h_concat <- h_1
I0924 04:23:33.073604 30540 net.cpp:141] Setting up lstm1_transform_1
I0924 04:23:33.073618 30496 net.cpp:399] lstm1_h_concat -> h
I0924 04:23:33.073647 30540 net.cpp:148] Top shape: 1 1 4000 (4000)
I0924 04:23:33.073653 30540 net.cpp:156] Memory required for data: 62016
I0924 04:23:33.073675 30540 layer_factory.hpp:77] Creating layer lstm1_gate_input_1
I0924 04:23:33.073694 30540 net.cpp:91] Creating Layer lstm1_gate_input_1
I0924 04:23:33.073701 30540 net.cpp:425] lstm1_gate_input_1 <- W_hc_h_0
I0924 04:23:33.073709 30540 net.cpp:425] lstm1_gate_input_1 <- W_xc_x_1
I0924 04:23:33.073729 30540 net.cpp:399] lstm1_gate_input_1 -> gate_input_1
I0924 04:23:33.073793 30520 net.cpp:141] Setting up lstm1_transform_1
I0924 04:23:33.073814 30520 net.cpp:148] Top shape: 1 1 4000 (4000)
I0924 04:23:33.073822 30520 net.cpp:156] Memory required for data: 62016
I0924 04:23:33.073843 30520 layer_factory.hpp:77] Creating layer lstm1_gate_input_1
I0924 04:23:33.073864 30520 net.cpp:91] Creating Layer lstm1_gate_input_1
I0924 04:23:33.073870 30496 net.cpp:141] Setting up lstm1_h_concat
I0924 04:23:33.073874 30520 net.cpp:425] lstm1_gate_input_1 <- W_hc_h_0
I0924 04:23:33.073892 30496 net.cpp:148] Top shape: 1 1 1000 (1000)
I0924 04:23:33.073896 30520 net.cpp:425] lstm1_gate_input_1 <- W_xc_x_1
I0924 04:23:33.073901 30496 net.cpp:156] Memory required for data: 94016
I0924 04:23:33.073909 30496 layer_factory.hpp:77] Creating layer h_pseudoloss
I0924 04:23:33.073912 30520 net.cpp:399] lstm1_gate_input_1 -> gate_input_1
I0924 04:23:33.073938 30496 net.cpp:91] Creating Layer h_pseudoloss
I0924 04:23:33.073950 30496 net.cpp:425] h_pseudoloss <- h
I0924 04:23:33.073966 30520 net.cpp:141] Setting up lstm1_gate_input_1
I0924 04:23:33.073968 30496 net.cpp:399] h_pseudoloss -> h_pseudoloss
I0924 04:23:33.073978 30520 net.cpp:148] Top shape: 1 1 4000 (4000)
I0924 04:23:33.073985 30520 net.cpp:156] Memory required for data: 78016
I0924 04:23:33.073992 30520 layer_factory.hpp:77] Creating layer lstm1_unit_1
I0924 04:23:33.074009 30520 net.cpp:91] Creating Layer lstm1_unit_1
I0924 04:23:33.074018 30520 net.cpp:425] lstm1_unit_1 <- c_0
I0924 04:23:33.074026 30520 net.cpp:425] lstm1_unit_1 <- gate_input_1
I0924 04:23:33.074034 30520 net.cpp:425] lstm1_unit_1 <- cont_1_lstm1_cont_slice_0_split_1
I0924 04:23:33.074044 30520 net.cpp:399] lstm1_unit_1 -> c_1
I0924 04:23:33.074057 30520 net.cpp:399] lstm1_unit_1 -> h_1
I0924 04:23:33.074157 30496 net.cpp:141] Setting up h_pseudoloss
I0924 04:23:33.074177 30496 net.cpp:148] Top shape: (1)
I0924 04:23:33.074249 30540 net.cpp:141] Setting up lstm1_gate_input_1
I0924 04:23:33.074270 30540 net.cpp:148] Top shape: 1 1 4000 (4000)
I0924 04:23:33.074275 30540 net.cpp:156] Memory required for data: 78016
I0924 04:23:33.074280 30540 layer_factory.hpp:77] Creating layer lstm1_unit_1
I0924 04:23:33.074290 30540 net.cpp:91] Creating Layer lstm1_unit_1
I0924 04:23:33.074296 30540 net.cpp:425] lstm1_unit_1 <- c_0
I0924 04:23:33.074303 30540 net.cpp:425] lstm1_unit_1 <- gate_input_1
I0924 04:23:33.074187 30496 net.cpp:151]     with loss weight 1
I0924 04:23:33.074309 30540 net.cpp:425] lstm1_unit_1 <- cont_1_lstm1_cont_slice_0_split_1
I0924 04:23:33.074318 30526 net.cpp:141] Setting up lstm1_transform_1
I0924 04:23:33.074328 30496 net.cpp:156] Memory required for data: 94020
I0924 04:23:33.074342 30496 net.cpp:217] h_pseudoloss needs backward computation.
I0924 04:23:33.074343 30526 net.cpp:148] Top shape: 1 1 4000 (4000)
I0924 04:23:33.074344 30540 net.cpp:399] lstm1_unit_1 -> c_1
I0924 04:23:33.074360 30526 net.cpp:156] Memory required for data: 62016
I0924 04:23:33.074347 30496 net.cpp:217] lstm1_h_concat needs backward computation.
I0924 04:23:33.074376 30496 net.cpp:219] lstm1_ does not need backward computation.
I0924 04:23:33.074378 30540 net.cpp:399] lstm1_unit_1 -> h_1
I0924 04:23:33.074383 30526 layer_factory.hpp:77] Creating layer lstm1_gate_input_1
…
I0924 04:23:33.074450 30526 net.cpp:425] lstm1_gate_input_1 <- W_xc_x_1
I0924 04:23:33.074460 30496 net.cpp:217] lstm1_W_xc_x_slice needs backward computation.
I0924 04:23:33.074468 30496 net.cpp:217] lstm1_x_transform needs backward computation.
I0924 04:23:33.074476 30496 net.cpp:219] cont_1_lstm1_cont_slice_0_split does not need backward computation.
I0924 04:23:33.074473 30526 net.cpp:399] lstm1_gate_input_1 -> gate_input_1
I0924 04:23:33.074479 30540 net.cpp:141] Setting up lstm1_unit_1
I0924 04:23:33.074481 30496 net.cpp:219] lstm1_cont_slice does not need backward computation.
I0924 04:23:33.074496 30540 net.cpp:148] Top shape: 1 1 1000 (1000)
I0924 04:23:33.074501 30496 net.cpp:219] lstm1_ does not need backward computation.
I0924 04:23:33.074502 30540 net.cpp:148] Top shape: 1 1 1000 (1000)
I0924 04:23:33.074512 30496 net.cpp:219] lstm1_ does not need backward computation.
I0924 04:23:33.074514 30540 net.cpp:156] Memory required for data: 86016
I0924 04:23:33.074515 30496 net.cpp:261] This network produces output c_T
I0924 04:23:33.074523 30540 layer_factory.hpp:77] Creating layer lstm1_
I0924 04:23:33.074528 30496 net.cpp:261] This network produces output h_pseudoloss
I0924 04:23:33.074533 30540 net.cpp:91] Creating Layer lstm1_
I0924 04:23:33.074538 30540 net.cpp:425] lstm1_ <- c_1
I0924 04:23:33.074547 30540 net.cpp:399] lstm1_ -> c_T
I0924 04:23:33.074556 30496 net.cpp:274] Network initialization done.
I0924 04:23:33.074555 30526 net.cpp:141] Setting up lstm1_gate_input_1
I0924 04:23:33.074591 30526 net.cpp:148] Top shape: 1 1 4000 (4000)
I0924 04:23:33.074616 30540 net.cpp:141] Setting up lstm1_
I0924 04:23:33.074621 30526 net.cpp:156] Memory required for data: 78016
I0924 04:23:33.074628 30540 net.cpp:148] Top shape: 1 1 1000 (1000)
I0924 04:23:33.074635 30540 net.cpp:156] Memory required for data: 90016
I0924 04:23:33.074635 30526 layer_factory.hpp:77] Creating layer lstm1_unit_1
I0924 04:23:33.074641 30540 layer_factory.hpp:77] Creating layer lstm1_h_concat
I0924 04:23:33.074651 30540 net.cpp:91] Creating Layer lstm1_h_concat
I0924 04:23:33.074650 30496 recurrent_layer.cpp:150] Adding parameter 0: W_xc
I0924 04:23:33.074657 30540 net.cpp:425] lstm1_h_concat <- h_1
I0924 04:23:33.074682 30496 recurrent_layer.cpp:150] Adding parameter 1: b_c
I0924 04:23:33.074688 30540 net.cpp:399] lstm1_h_concat -> h
I0924 04:23:33.074652 30526 net.cpp:91] Creating Layer lstm1_unit_1
I0924 04:23:33.074688 30496 recurrent_layer.cpp:150] Adding parameter 2: W_hc
I0924 04:23:33.074713 30526 net.cpp:425] lstm1_unit_1 <- c_0
I0924 04:23:33.074717 30492 net.cpp:141] Setting up lstm1_x_transform
I0924 04:23:33.074730 30526 net.cpp:425] lstm1_unit_1 <- gate_input_1
I0924 04:23:33.074736 30492 net.cpp:148] Top shape: 1 1 4000 (4000)
I0924 04:23:33.074741 30540 net.cpp:141] Setting up lstm1_h_concat
I0924 04:23:33.074743 30526 net.cpp:425] lstm1_unit_1 <- cont_1_lstm1_cont_slice_0_split_1
I0924 04:23:33.074743 30492 net.cpp:156] Memory required for data: 26016
I0924 04:23:33.074754 30540 net.cpp:148] Top shape: 1 1 1000 (1000)
I0924 04:23:33.074759 30540 net.cpp:156] Memory required for data: 94016
I0924 04:23:33.074760 30526 net.cpp:399] lstm1_unit_1 -> c_1
I0924 04:23:33.074764 30540 layer_factory.hpp:77] Creating layer h_pseudoloss
I0924 04:23:33.074764 30492 layer_factory.hpp:77] Creating layer lstm1_W_xc_x_slice
I0924 04:23:33.074796 30526 net.cpp:399] lstm1_unit_1 -> h_1
I0924 04:23:33.074798 30520 net.cpp:141] Setting up lstm1_unit_1
I0924 04:23:33.074810 30540 net.cpp:91] Creating Layer h_pseudoloss
I0924 04:23:33.074817 30540 net.cpp:425] h_pseudoloss <- h
I0924 04:23:33.074806 30492 net.cpp:91] Creating Layer lstm1_W_xc_x_slice
I0924 04:23:33.074828 30540 net.cpp:399] h_pseudoloss -> h_pseudoloss
I0924 04:23:33.074836 30492 net.cpp:425] lstm1_W_xc_x_slice <- W_xc_x
I0924 04:23:33.074823 30520 net.cpp:148] Top shape: 1 1 1000 (1000)
I0924 04:23:33.074848 30492 net.cpp:399] lstm1_W_xc_x_slice -> W_xc_x_1
I0924 04:23:33.074862 30520 net.cpp:148] Top shape: 1 1 1000 (1000)
I0924 04:23:33.074870 30520 net.cpp:156] Memory required for data: 86016
I0924 04:23:33.074877 30520 layer_factory.hpp:77] Creating layer lstm1_
I0924 04:23:33.074889 30520 net.cpp:91] Creating Layer lstm1_
I0924 04:23:33.074897 30520 net.cpp:425] lstm1_ <- c_1
I0924 04:23:33.074910 30520 net.cpp:399] lstm1_ -> c_T
I0924 04:23:33.081229 30492 net.cpp:141] Setting up lstm1_W_xc_x_slice
I0924 04:23:33.081257 30492 net.cpp:148] Top shape: 1 1 4000 (4000)
I0924 04:23:33.081262 30492 net.cpp:156] Memory required for data: 42016
I0924 04:23:33.081269 30492 layer_factory.hpp:77] Creating layer lstm1_h_conted_0
I0924 04:23:33.081282 30492 net.cpp:91] Creating Layer lstm1_h_conted_0
I0924 04:23:33.081287 30492 net.cpp:425] lstm1_h_conted_0 <- h_0
I0924 04:23:33.081295 30492 net.cpp:425] lstm1_h_conted_0 <- cont_1_lstm1_cont_slice_0_split_0
I0924 04:23:33.081303 30492 net.cpp:399] lstm1_h_conted_0 -> h_conted_0
I0924 04:23:33.081408 30520 net.cpp:141] Setting up lstm1_
I0924 04:23:33.081444 30520 net.cpp:148] Top shape: 1 1 1000 (1000)
I0924 04:23:33.081451 30520 net.cpp:156] Memory required for data: 90016
I0924 04:23:33.081460 30520 layer_factory.hpp:77] Creating layer lstm1_h_concat
I0924 04:23:33.081464 30496 net.cpp:141] Setting up lstm1
I0924 04:23:33.081480 30496 net.cpp:148] Top shape: 1 1 1000 (1000)
I0924 04:23:33.081492 30496 net.cpp:156] Memory required for data: 26408
I0924 04:23:33.081480 30520 net.cpp:91] Creating Layer lstm1_h_concat
I0924 04:23:33.081506 30520 net.cpp:425] lstm1_h_concat <- h_1
I0924 04:23:33.081509 30496 layer_factory.hpp:77] Creating layer concat
I0924 04:23:33.081521 30496 net.cpp:91] Creating Layer concat
I0924 04:23:33.081521 30520 net.cpp:399] lstm1_h_concat -> h
I0924 04:23:33.081528 30496 net.cpp:425] concat <- lstm1
I0924 04:23:33.081535 30496 net.cpp:425] concat <- embedded_input_sentence
I0924 04:23:33.081542 30496 net.cpp:425] concat <- reshaped_stage_indicator
I0924 04:23:33.081547 30496 net.cpp:399] concat -> lstm1_video_sequence
I0924 04:23:33.081598 30552 net.cpp:141] Setting up lstm1_transform_1
I0924 04:23:33.081609 30552 net.cpp:148] Top shape: 1 1 4000 (4000)
I0924 04:23:33.081614 30552 net.cpp:156] Memory required for data: 62016
I0924 04:23:33.081624 30552 layer_factory.hpp:77] Creating layer lstm1_gate_input_1
I0924 04:23:33.081640 30552 net.cpp:91] Creating Layer lstm1_gate_input_1
I0924 04:23:33.081645 30552 net.cpp:425] lstm1_gate_input_1 <- W_hc_h_0
I0924 04:23:33.081651 30552 net.cpp:425] lstm1_gate_input_1 <- W_xc_x_1
I0924 04:23:33.081658 30552 net.cpp:399] lstm1_gate_input_1 -> gate_input_1
I0924 04:23:33.081732 30520 net.cpp:141] Setting up lstm1_h_concat
I0924 04:23:33.081748 30520 net.cpp:148] Top shape: 1 1 1000 (1000)
I0924 04:23:33.081753 30520 net.cpp:156] Memory required for data: 94016
I0924 04:23:33.081760 30520 layer_factory.hpp:77] Creating layer h_pseudoloss
I0924 04:23:33.081774 30520 net.cpp:91] Creating Layer h_pseudoloss
I0924 04:23:33.081774 30504 net.cpp:141] Setting up embedding
I0924 04:23:33.081781 30520 net.cpp:425] h_pseudoloss <- h
I0924 04:23:33.081799 30504 net.cpp:148] Top shape: 1 1 500 (500)
I0924 04:23:33.081802 30520 net.cpp:399] h_pseudoloss -> h_pseudoloss
I0924 04:23:33.081805 30504 net.cpp:156] Memory required for data: 22408
I0924 04:23:33.081831 30504 layer_factory.hpp:77] Creating layer lstm1
I0924 04:23:33.081828 30540 net.cpp:141] Setting up h_pseudoloss
I0924 04:23:33.081850 30504 net.cpp:91] Creating Layer lstm1
I0924 04:23:33.081851 30496 net.cpp:141] Setting up concat
I0924 04:23:33.081850 30540 net.cpp:148] Top shape: (1)
I0924 04:23:33.081861 30504 net.cpp:425] lstm1 <- embedded_input_frames
I0924 04:23:33.081868 30496 net.cpp:148] Top shape: 1 1 1501 (1501)
I0924 04:23:33.081869 30504 net.cpp:425] lstm1 <- cont_sentence_input_1_split_0
I0924 04:23:33.081866 30540 net.cpp:151]     with loss weight 1
I0924 04:23:33.081879 30496 net.cpp:156] Memory required for data: 32412
I0924 04:23:33.081887 30540 net.cpp:156] Memory required for data: 94020
I0924 04:23:33.081893 30496 layer_factory.hpp:77] Creating layer lstm2
I0924 04:23:33.081894 30540 net.cpp:217] h_pseudoloss needs backward computation.
…
I0924 04:23:33.081975 30540 net.cpp:219] cont_1_lstm1_cont_slice_0_split does not need backward computation.
I0924 04:23:33.081981 30540 net.cpp:219] lstm1_cont_slice does not need backward computation.
I0924 04:23:33.081987 30540 net.cpp:219] lstm1_ does not need backward computation.
I0924 04:23:33.081992 30540 net.cpp:219] lstm1_ does not need backward computation.
I0924 04:23:33.081995 30540 net.cpp:261] This network produces output c_T
I0924 04:23:33.082001 30540 net.cpp:261] This network produces output h_pseudoloss
I0924 04:23:33.082016 30492 net.cpp:141] Setting up lstm1_h_conted_0
I0924 04:23:33.082028 30540 net.cpp:274] Network initialization done.
I0924 04:23:33.082036 30492 net.cpp:148] Top shape: 1 1 1000 (1000)
I0924 04:23:33.082041 30492 net.cpp:156] Memory required for data: 46016
I0924 04:23:33.082046 30492 layer_factory.hpp:77] Creating layer lstm1_transform_1
I0924 04:23:33.082052 30500 net.cpp:141] Setting up lstm1_transform_1
I0924 04:23:33.082057 30492 net.cpp:91] Creating Layer lstm1_transform_1
I0924 04:23:33.082073 30492 net.cpp:425] lstm1_transform_1 <- h_conted_0
I0924 04:23:33.082074 30500 net.cpp:148] Top shape: 1 1 4000 (4000)
I0924 04:23:33.082082 30500 net.cpp:156] Memory required for data: 62016
I0924 04:23:33.082073 30540 recurrent_layer.cpp:150] Adding parameter 0: W_xc
I0924 04:23:33.082088 30492 net.cpp:399] lstm1_transform_1 -> W_hc_h_0
I0924 04:23:33.082093 30540 recurrent_layer.cpp:150] Adding parameter 1: b_c
I0924 04:23:33.082095 30500 layer_factory.hpp:77] Creating layer lstm1_gate_input_1
I0924 04:23:33.082098 30540 recurrent_layer.cpp:150] Adding parameter 2: W_hc
I0924 04:23:33.082106 30500 net.cpp:91] Creating Layer lstm1_gate_input_1
I0924 04:23:33.082113 30500 net.cpp:425] lstm1_gate_input_1 <- W_hc_h_0
I0924 04:23:33.082119 30500 net.cpp:425] lstm1_gate_input_1 <- W_xc_x_1
I0924 04:23:33.082126 30500 net.cpp:399] lstm1_gate_input_1 -> gate_input_1
I0924 04:23:33.082186 30520 net.cpp:141] Setting up h_pseudoloss
I0924 04:23:33.082202 30520 net.cpp:148] Top shape: (1)
I0924 04:23:33.082211 30520 net.cpp:151]     with loss weight 1
I0924 04:23:33.082219 30496 net.cpp:49] Initializing net from parameters: 
layer {
  name: "lstm2_"
  type: "Input"
  top: "x"
  top: "cont"
  input_param {
    shape {
      dim: 1
      dim: 1
      dim: 1501
    }
    shape {
      dim: 1
      dim: 1
    }
  }
}
layer {
  name: "lstm2_"
  type: "Input"
  top: "c_0"
  top: "h_0"
  input_param {
    shape {
      dim: 1
      dim: 1
      dim: 1000
    }
    shape {
      dim: 1
      dim: 1
      dim: 1000
    }
  }
}
layer {
  name: "lstm2_cont_slice"
  type: "Slice"
  bottom: "cont"
  top: "cont_1"
  slice_param {
    axis: 0
  }
}
layer {
  name: "lstm2_x_transform"
  type: "InnerProduct"
  bottom: "x"
  top: "W_xc_x"
  param {
    name: "W_xc"
  }
  param {
    name: "b_c"
  }
  propagate_down: true
  inner_product_param {
    num_output: 4000
    bias_term: true
    weight_filler {
      type: "uniform"
      min: -0.08
      max: 0.08
    }
    bias_filler {
      type: "constant"
      value: 0
    }
    axis: 2
  }
}
layer {
  name: "lstm2_W_xc_x_slice"
  type: "Slice"
  bottom: "W_xc_x"
  top: "W_xc_x_1"
  slice_param {
    axis: 0
  }
}
layer {
  name: "lstm2_h_conted_0"
  type: "Scale"
  bottom: "h_0"
  bottom: "cont_1"
  top: "h_conted_0"
  scale_param {
    axis: 0
  }
}
layer {
  name: "lstm2_transform_1"
  type: "InnerProduct"
  bottom: "h_conted_0"
  top: "W_hc_h_0"
  param {
    name: "W_hc"
  }
  inner_product_param {
    num_output: 4000
    bias_term: false
    weight_filler {
      type: "uniform"
      min: -0.08
      max: 0.08
    }
    axis: 2
  }
}
layer {
  name: "lstm2_gate_input_1"
  type: "Eltwise"
  bottom: "W_hc_h_0"
  bottom: "W_xc_x_1"
  top: "gate_input_1"
  eltwise_param {
    operation: SUM
  }
}
layer {
  name: "lstm2_unit_1"
  type: "LSTMUnit"
  bottom: "c_0"
  bottom: "gate_input_1"
  bottom: "cont_1"
  top: "c_1"
  top: "h_1"
}
layer {
  name: "lstm2_"
  type: "Split"
  bottom: "c_1"
  top: "c_T"
}
layer {
  name: "lstm2_h_concat"
  type: "Concat"
  bottom: "h_1"
  top: "h"
  concat_param {
    axis: 0
  }
}
layer {
  name: "h_pseudoloss"
  type: "Reduction"
  bottom: "h"
  top: "h_pseudoloss"
  loss_weight: 1
}
I0924 04:23:33.082233 30504 net.cpp:49] Initializing net from parameters: 
layer {
  name: "lstm1_"
  type: "Input"
  top: "x"
  top: "cont"
  input_param {
    shape {
      dim: 1
      dim: 1
      dim: 500
    }
    shape {
      dim: 1
      dim: 1
    }
  }
}
layer {
  name: "lstm1_"
  type: "Input"
  top: "c_0"
  top: "h_0"
  input_param {
    shape {
      dim: 1
      dim: 1
      dim: 1000
    }
    shape {
      dim: 1
      dim: 1
      dim: 1000
    }
  }
}
layer {
  name: "lstm1_cont_slice"
  type: "Slice"
  bottom: "cont"
  top: "cont_1"
  slice_param {
    axis: 0
  }
}
layer {
  name: "lstm1_x_transform"
  type: "InnerProduct"
  bottom: "x"
  top: "W_xc_x"
  param {
    name: "W_xc"
  }
  param {
    name: "b_c"
  }
  propagate_down: true
  inner_product_param {
    num_output: 4000
    bias_term: true
    weight_filler {
      type: "uniform"
      min: -0.08
      max: 0.08
    }
    bias_filler {
      type: "constant"
      value: 0
    }
    axis: 2
  }
}
layer {
  name: "lstm1_W_xc_x_slice"
  type: "Slice"
  bottom: "W_xc_x"
  top: "W_xc_x_1"
  slice_param {
    axis: 0
  }
}
layer {
  name: "lstm1_h_conted_0"
  type: "Scale"
  bottom: "h_0"
  bottom: "cont_1"
  top: "h_conted_0"
  scale_param {
    axis: 0
  }
}
layer {
  name: "lstm1_transform_1"
  type: "InnerProduct"
  bottom: "h_conted_0"
  top: "W_hc_h_0"
  param {
    name: "W_hc"
  }
  inner_product_param {
    num_output: 4000
    bias_term: false
    weight_filler {
      type: "uniform"
      min: -0.08
      max: 0.08
    }
    axis: 2
  }
}
layer {
  name: "lstm1_gate_input_1"
  type: "Eltwise"
  bottom: "W_hc_h_0"
  bottom: "W_xc_x_1"
  top: "gate_input_1"
  eltwise_param {
    operation: SUM
  }
}
layer {
  name: "lstm1_unit_1"
  type: "LSTMUnit"
  bottom: "c_0"
  bottom: "gate_input_1"
  bottom: "cont_1"
  top: "c_1"
  top: "h_1"
}
layer {
  name: "lstm1_"
  type: "Split"
  bottom: "c_1"
  top: "c_T"
}
layer {
  name: "lstm1_h_concat"
  type: "Concat"
  bottom: "h_1"
  top: "h"
  concat_param {
    axis: 0
  }
}
layer {
  name: "h_pseudoloss"
  type: "Reduction"
  bottom: "h"
  top: "h_pseudoloss"
  loss_weight: 1
}
I0924 04:23:33.082224 30520 net.cpp:156] Memory required for data: 94020
I0924 04:23:33.082244 30552 net.cpp:141] Setting up lstm1_gate_input_1
I0924 04:23:33.082262 30520 net.cpp:217] h_pseudoloss needs backward computation.
I0924 04:23:33.082278 30552 net.cpp:148] Top shape: 1 1 4000 (4000)
I0924 04:23:33.082283 30520 net.cpp:217] lstm1_h_concat needs backward computation.
I0924 04:23:33.082284 30552 net.cpp:156] Memory required for data: 78016
I0924 04:23:33.082295 30520 net.cpp:219] lstm1_ does not need backward computation.
I0924 04:23:33.082300 30552 layer_factory.hpp:77] Creating layer lstm1_unit_1
I0924 04:23:33.082304 30520 net.cpp:217] lstm1_unit_1 needs backward computation.
…
I0924 04:23:33.082362 30496 net.cpp:399] lstm2_ -> x
I0924 04:23:33.082365 30520 net.cpp:217] lstm1_x_transform needs backward computation.
I0924 04:23:33.082372 30552 net.cpp:399] lstm1_unit_1 -> h_1
I0924 04:23:33.082367 30504 net.cpp:399] lstm1_ -> cont
I0924 04:23:33.082375 30496 net.cpp:399] lstm2_ -> cont
I0924 04:23:33.082381 30520 net.cpp:219] cont_1_lstm1_cont_slice_0_split does not need backward computation.
I0924 04:23:33.082365 30500 net.cpp:141] Setting up lstm1_gate_input_1
I0924 04:23:33.082392 30520 net.cpp:219] lstm1_cont_slice does not need backward computation.
I0924 04:23:33.082407 30500 net.cpp:148] Top shape: 1 1 4000 (4000)
I0924 04:23:33.082413 30500 net.cpp:156] Memory required for data: 78016
I0924 04:23:33.082414 30520 net.cpp:219] lstm1_ does not need backward computation.
I0924 04:23:33.082418 30500 layer_factory.hpp:77] Creating layer lstm1_unit_1
I0924 04:23:33.082422 30520 net.cpp:219] lstm1_ does not need backward computation.
I0924 04:23:33.082429 30500 net.cpp:91] Creating Layer lstm1_unit_1
I0924 04:23:33.082429 30520 net.cpp:261] This network produces output c_T
I0924 04:23:33.082440 30526 net.cpp:141] Setting up lstm1_unit_1
I0924 04:23:33.082440 30500 net.cpp:425] lstm1_unit_1 <- c_0
…
I0924 04:24:42.681015 30908 net.cpp:141] Setting up lstm1_
I0924 04:24:42.681032 30908 net.cpp:148] Top shape: 1 1 1000 (1000)
I0924 04:24:42.681041 30908 net.cpp:156] Memory required for data: 90016
I0924 04:24:42.681051 30908 layer_factory.hpp:77] Creating layer lstm1_h_concat
I0924 04:24:42.681066 30908 net.cpp:91] Creating Layer lstm1_h_concat
I0924 04:24:42.681077 30908 net.cpp:425] lstm1_h_concat <- h_1
I0924 04:24:42.681119 30908 net.cpp:399] lstm1_h_concat -> h
I0924 04:24:42.792191 30908 net.cpp:141] Setting up lstm1_h_concat
I0924 04:24:42.792246 30908 net.cpp:148] Top shape: 1 1 1000 (1000)
I0924 04:24:42.792256 30908 net.cpp:156] Memory required for data: 94016
I0924 04:24:42.792268 30908 layer_factory.hpp:77] Creating layer h_pseudoloss
I0924 04:24:42.792320 30908 net.cpp:91] Creating Layer h_pseudoloss
I0924 04:24:42.792332 30908 net.cpp:425] h_pseudoloss <- h
I0924 04:24:42.792348 30908 net.cpp:399] h_pseudoloss -> h_pseudoloss
I0924 04:24:42.792428 30888 net.cpp:141] Setting up lstm2_transform_1
I0924 04:24:42.792466 30888 net.cpp:148] Top shape: 1 1 4000 (4000)
I0924 04:24:42.792472 30888 net.cpp:156] Memory required for data: 66020
I0924 04:24:42.792491 30888 layer_factory.hpp:77] Creating layer lstm2_gate_input_1
I0924 04:24:42.792515 30888 net.cpp:91] Creating Layer lstm2_gate_input_1
I0924 04:24:42.792522 30888 net.cpp:425] lstm2_gate_input_1 <- W_hc_h_0
I0924 04:24:42.792531 30888 net.cpp:425] lstm2_gate_input_1 <- W_xc_x_1
I0924 04:24:42.792539 30888 net.cpp:399] lstm2_gate_input_1 -> gate_input_1
I0924 04:24:42.884716 30888 net.cpp:141] Setting up lstm2_gate_input_1
I0924 04:24:42.884773 30880 net.cpp:141] Setting up lstm2
I0924 04:24:42.884786 30888 net.cpp:148] Top shape: 1 1 4000 (4000)
I0924 04:24:42.884790 30880 net.cpp:148] Top shape: 1 1 1000 (1000)
I0924 04:24:42.884796 30888 net.cpp:156] Memory required for data: 82020
I0924 04:24:42.884799 30880 net.cpp:156] Memory required for data: 36412
I0924 04:24:42.884809 30888 layer_factory.hpp:77] Creating layer lstm2_unit_1
I0924 04:24:42.884832 30880 layer_factory.hpp:77] Creating layer predict
I0924 04:24:42.884866 30880 net.cpp:91] Creating Layer predict
I0924 04:24:42.884879 30880 net.cpp:425] predict <- lstm2
I0924 04:24:42.884898 30880 net.cpp:399] predict -> predict
I0924 04:24:42.885083 30914 net.cpp:141] Setting up lstm2_x_transform
I0924 04:24:42.885112 30914 net.cpp:148] Top shape: 1 1 4000 (4000)
I0924 04:24:42.885123 30914 net.cpp:156] Memory required for data: 30020
I0924 04:24:42.885146 30914 layer_factory.hpp:77] Creating layer lstm2_W_xc_x_slice
I0924 04:24:42.885169 30914 net.cpp:91] Creating Layer lstm2_W_xc_x_slice
I0924 04:24:42.885182 30914 net.cpp:425] lstm2_W_xc_x_slice <- W_xc_x
I0924 04:24:42.885198 30914 net.cpp:399] lstm2_W_xc_x_slice -> W_xc_x_1
I0924 04:24:42.885278 30914 net.cpp:141] Setting up lstm2_W_xc_x_slice
I0924 04:24:42.885298 30914 net.cpp:148] Top shape: 1 1 4000 (4000)
I0924 04:24:42.885306 30914 net.cpp:156] Memory required for data: 46020
I0924 04:24:42.885316 30914 layer_factory.hpp:77] Creating layer lstm2_h_conted_0
I0924 04:24:42.885339 30914 net.cpp:91] Creating Layer lstm2_h_conted_0
I0924 04:24:42.885349 30914 net.cpp:425] lstm2_h_conted_0 <- h_0
I0924 04:24:42.885361 30914 net.cpp:425] lstm2_h_conted_0 <- cont_1_lstm2_cont_slice_0_split_0
I0924 04:24:42.885375 30914 net.cpp:399] lstm2_h_conted_0 -> h_conted_0
I0924 04:24:42.885593 30914 net.cpp:141] Setting up lstm2_h_conted_0
I0924 04:24:42.885612 30914 net.cpp:148] Top shape: 1 1 1000 (1000)
I0924 04:24:42.885622 30914 net.cpp:156] Memory required for data: 50020
I0924 04:24:42.885630 30914 layer_factory.hpp:77] Creating layer lstm2_transform_1
I0924 04:24:42.885651 30914 net.cpp:91] Creating Layer lstm2_transform_1
I0924 04:24:42.885661 30914 net.cpp:425] lstm2_transform_1 <- h_conted_0
I0924 04:24:42.885677 30914 net.cpp:399] lstm2_transform_1 -> W_hc_h_0
I0924 04:24:42.884835 30888 net.cpp:91] Creating Layer lstm2_unit_1
…
I0924 04:24:42.895800 30908 net.cpp:219] lstm1_ does not need backward computation.
I0924 04:24:42.895804 30908 net.cpp:261] This network produces output c_T
I0924 04:24:42.895812 30908 net.cpp:261] This network produces output h_pseudoloss
I0924 04:24:42.895840 30908 net.cpp:274] Network initialization done.
I0924 04:24:42.895898 30908 recurrent_layer.cpp:150] Adding parameter 0: W_xc
I0924 04:24:42.895905 30908 recurrent_layer.cpp:150] Adding parameter 1: b_c
I0924 04:24:42.895910 30908 recurrent_layer.cpp:150] Adding parameter 2: W_hc
I0924 04:24:43.002838 30914 net.cpp:141] Setting up lstm2_transform_1
I0924 04:24:43.002902 30914 net.cpp:148] Top shape: 1 1 4000 (4000)
I0924 04:24:43.002912 30914 net.cpp:156] Memory required for data: 66020
I0924 04:24:43.002928 30892 net.cpp:141] Setting up predict
I0924 04:24:43.002941 30914 layer_factory.hpp:77] Creating layer lstm2_gate_input_1
I0924 04:24:43.002951 30892 net.cpp:148] Top shape: 1 1 46168 (46168)
I0924 04:24:43.002961 30892 net.cpp:156] Memory required for data: 221084
I0924 04:24:43.002980 30914 net.cpp:91] Creating Layer lstm2_gate_input_1
I0924 04:24:43.002981 30892 layer_factory.hpp:77] Creating layer probs
I0924 04:24:43.003001 30914 net.cpp:425] lstm2_gate_input_1 <- W_hc_h_0
I0924 04:24:43.003015 30892 net.cpp:91] Creating Layer probs
I0924 04:24:43.003015 30914 net.cpp:425] lstm2_gate_input_1 <- W_xc_x_1
I0924 04:24:43.003032 30892 net.cpp:425] probs <- predict
I0924 04:24:43.003026 30888 net.cpp:141] Setting up lstm2_unit_1
I0924 04:24:43.003046 30914 net.cpp:399] lstm2_gate_input_1 -> gate_input_1
I0924 04:24:43.003074 30888 net.cpp:148] Top shape: 1 1 1000 (1000)
I0924 04:24:43.003042 30892 net.cpp:399] probs -> probs
I0924 04:24:43.003098 30888 net.cpp:148] Top shape: 1 1 1000 (1000)
I0924 04:24:43.003113 30888 net.cpp:156] Memory required for data: 90020
I0924 04:24:43.003129 30888 layer_factory.hpp:77] Creating layer lstm2_
I0924 04:24:43.003136 30914 net.cpp:141] Setting up lstm2_gate_input_1
I0924 04:24:43.003152 30914 net.cpp:148] Top shape: 1 1 4000 (4000)
I0924 04:24:43.003160 30914 net.cpp:156] Memory required for data: 82020
I0924 04:24:43.003159 30888 net.cpp:91] Creating Layer lstm2_
I0924 04:24:43.003170 30914 layer_factory.hpp:77] Creating layer lstm2_unit_1
I0924 04:24:43.003180 30888 net.cpp:425] lstm2_ <- c_1
I0924 04:24:43.003187 30914 net.cpp:91] Creating Layer lstm2_unit_1
I0924 04:24:43.003196 30914 net.cpp:425] lstm2_unit_1 <- c_0
I0924 04:24:43.003206 30914 net.cpp:425] lstm2_unit_1 <- gate_input_1
I0924 04:24:43.003204 30888 net.cpp:399] lstm2_ -> c_T
I0924 04:24:43.003217 30914 net.cpp:425] lstm2_unit_1 <- cont_1_lstm2_cont_slice_0_split_1
I0924 04:24:43.003231 30914 net.cpp:399] lstm2_unit_1 -> c_1
I0924 04:24:43.003247 30914 net.cpp:399] lstm2_unit_1 -> h_1
I0924 04:24:43.003331 30888 net.cpp:141] Setting up lstm2_
I0924 04:24:43.003358 30888 net.cpp:148] Top shape: 1 1 1000 (1000)
I0924 04:24:43.003373 30888 net.cpp:156] Memory required for data: 94020
I0924 04:24:43.003388 30888 layer_factory.hpp:77] Creating layer lstm2_h_concat
I0924 04:24:43.003413 30888 net.cpp:91] Creating Layer lstm2_h_concat
I0924 04:24:43.003432 30888 net.cpp:425] lstm2_h_concat <- h_1
I0924 04:24:43.003463 30888 net.cpp:399] lstm2_h_concat -> h
I0924 04:24:43.003530 30908 net.cpp:141] Setting up lstm1
I0924 04:24:43.003576 30908 net.cpp:148] Top shape: 1 1 1000 (1000)
I0924 04:24:43.003582 30908 net.cpp:156] Memory required for data: 26408
I0924 04:24:43.003602 30908 layer_factory.hpp:77] Creating layer concat
I0924 04:24:43.003621 30908 net.cpp:91] Creating Layer concat
I0924 04:24:43.003629 30908 net.cpp:425] concat <- lstm1
I0924 04:24:43.003640 30908 net.cpp:425] concat <- embedded_input_sentence
I0924 04:24:43.003648 30908 net.cpp:425] concat <- reshaped_stage_indicator
I0924 04:24:43.003654 30908 net.cpp:399] concat -> lstm1_video_sequence
I0924 04:24:43.003695 30914 net.cpp:141] Setting up lstm2_unit_1
I0924 04:24:43.003717 30914 net.cpp:148] Top shape: 1 1 1000 (1000)
I0924 04:24:43.003728 30914 net.cpp:148] Top shape: 1 1 1000 (1000)
I0924 04:24:43.003736 30914 net.cpp:156] Memory required for data: 90020
I0924 04:24:43.003744 30914 layer_factory.hpp:77] Creating layer lstm2_
I0924 04:24:43.003762 30914 net.cpp:91] Creating Layer lstm2_
I0924 04:24:43.003770 30914 net.cpp:425] lstm2_ <- c_1
I0924 04:24:43.003784 30914 net.cpp:399] lstm2_ -> c_T
I0924 04:24:43.003790 30888 net.cpp:141] Setting up lstm2_h_concat
I0924 04:24:43.003818 30888 net.cpp:148] Top shape: 1 1 1000 (1000)
I0924 04:24:43.003831 30888 net.cpp:156] Memory required for data: 98020
I0924 04:24:43.003845 30888 layer_factory.hpp:77] Creating layer h_pseudoloss
I0924 04:24:43.003870 30888 net.cpp:91] Creating Layer h_pseudoloss
I0924 04:24:43.003876 30914 net.cpp:141] Setting up lstm2_
I0924 04:24:43.003885 30888 net.cpp:425] h_pseudoloss <- h
I0924 04:24:43.003897 30914 net.cpp:148] Top shape: 1 1 1000 (1000)
I0924 04:24:43.003909 30914 net.cpp:156] Memory required for data: 94020
I0924 04:24:43.003917 30888 net.cpp:399] h_pseudoloss -> h_pseudoloss
I0924 04:24:43.003921 30914 layer_factory.hpp:77] Creating layer lstm2_h_concat
I0924 04:24:43.003957 30914 net.cpp:91] Creating Layer lstm2_h_concat
I0924 04:24:43.003969 30914 net.cpp:425] lstm2_h_concat <- h_1
I0924 04:24:43.003984 30914 net.cpp:399] lstm2_h_concat -> h
…
I0924 04:24:43.010695 30888 net.cpp:219] lstm2_ does not need backward computation.
I0924 04:24:43.010707 30888 net.cpp:261] This network produces output c_T
I0924 04:24:43.010723 30888 net.cpp:261] This network produces output h_pseudoloss
I0924 04:24:43.010757 30888 net.cpp:274] Network initialization done.
I0924 04:24:43.010879 30888 recurrent_layer.cpp:150] Adding parameter 0: W_xc
I0924 04:24:43.010900 30888 recurrent_layer.cpp:150] Adding parameter 1: b_c
I0924 04:24:43.010913 30888 recurrent_layer.cpp:150] Adding parameter 2: W_hc
I0924 04:24:43.011217 30888 net.cpp:141] Setting up lstm2
I0924 04:24:43.011245 30888 net.cpp:148] Top shape: 1 1 1000 (1000)
I0924 04:24:43.011260 30888 net.cpp:156] Memory required for data: 36412
I0924 04:24:43.011299 30888 layer_factory.hpp:77] Creating layer predict
I0924 04:24:43.011337 30888 net.cpp:91] Creating Layer predict
I0924 04:24:43.011355 30888 net.cpp:425] predict <- lstm2
I0924 04:24:43.011381 30888 net.cpp:399] predict -> predict
I0924 04:24:43.114701 30936 net.cpp:141] Setting up predict
I0924 04:24:43.114784 30936 net.cpp:148] Top shape: 1 1 46168 (46168)
I0924 04:24:43.114795 30936 net.cpp:156] Memory required for data: 221084
I0924 04:24:43.114823 30936 layer_factory.hpp:77] Creating layer probs
I0924 04:24:43.114855 30936 net.cpp:91] Creating Layer probs
I0924 04:24:43.114850 30908 net.cpp:141] Setting up concat
I0924 04:24:43.114903 30908 net.cpp:148] Top shape: 1 1 1501 (1501)
I0924 04:24:43.114913 30908 net.cpp:156] Memory required for data: 32412
I0924 04:24:43.114925 30908 layer_factory.hpp:77] Creating layer lstm2
I0924 04:24:43.114953 30908 net.cpp:91] Creating Layer lstm2
I0924 04:24:43.114966 30908 net.cpp:425] lstm2 <- lstm1_video_sequence
I0924 04:24:43.114980 30908 net.cpp:425] lstm2 <- cont_sentence_input_1_split_1
I0924 04:24:43.114995 30908 net.cpp:399] lstm2 -> lstm2
I0924 04:24:43.115002 30914 net.cpp:141] Setting up lstm2_h_concat
I0924 04:24:43.115020 30908 recurrent_layer.cpp:20] Initializing recurrent layer: assuming input batch contains 1 timesteps of 1 independent streams.
I0924 04:24:43.115043 30914 net.cpp:148] Top shape: 1 1 1000 (1000)
I0924 04:24:43.115061 30914 net.cpp:156] Memory required for data: 98020
I0924 04:24:43.115078 30914 layer_factory.hpp:77] Creating layer h_pseudoloss
I0924 04:24:43.115106 30914 net.cpp:91] Creating Layer h_pseudoloss
I0924 04:24:43.115126 30914 net.cpp:425] h_pseudoloss <- h
I0924 04:24:43.115170 30914 net.cpp:399] h_pseudoloss -> h_pseudoloss
I0924 04:24:43.115439 30908 net.cpp:49] Initializing net from parameters: 
layer {
  name: "lstm2_"
  type: "Input"
  top: "x"
  top: "cont"
  input_param {
    shape {
      dim: 1
      dim: 1
      dim: 1501
    }
    shape {
      dim: 1
      dim: 1
    }
  }
}
layer {
  name: "lstm2_"
  type: "Input"
  top: "c_0"
  top: "h_0"
  input_param {
    shape {
      dim: 1
      dim: 1
      dim: 1000
    }
    shape {
      dim: 1
      dim: 1
      dim: 1000
    }
  }
}
layer {
  name: "lstm2_cont_slice"
  type: "Slice"
  bottom: "cont"
  top: "cont_1"
  slice_param {
    axis: 0
  }
}
layer {
  name: "lstm2_x_transform"
  type: "InnerProduct"
  bottom: "x"
  top: "W_xc_x"
  param {
    name: "W_xc"
  }
  param {
    name: "b_c"
  }
  propagate_down: true
  inner_product_param {
    num_output: 4000
    bias_term: true
    weight_filler {
      type: "uniform"
      min: -0.08
      max: 0.08
    }
    bias_filler {
      type: "constant"
      value: 0
    }
    axis: 2
  }
}
layer {
  name: "lstm2_W_xc_x_slice"
  type: "Slice"
  bottom: "W_xc_x"
  top: "W_xc_x_1"
  slice_param {
    axis: 0
  }
}
layer {
  name: "lstm2_h_conted_0"
  type: "Scale"
  bottom: "h_0"
  bottom: "cont_1"
  top: "h_conted_0"
  scale_param {
    axis: 0
  }
}
layer {
  name: "lstm2_transform_1"
  type: "InnerProduct"
  bottom: "h_conted_0"
  top: "W_hc_h_0"
  param {
    name: "W_hc"
  }
  inner_product_param {
    num_output: 4000
    bias_term: false
    weight_filler {
      type: "uniform"
      min: -0.08
      max: 0.08
    }
    axis: 2
  }
}
layer {
  name: "lstm2_gate_input_1"
  type: "Eltwise"
  bottom: "W_hc_h_0"
  bottom: "W_xc_x_1"
  top: "gate_input_1"
  eltwise_param {
    operation: SUM
  }
}
layer {
  name: "lstm2_unit_1"
  type: "LSTMUnit"
  bottom: "c_0"
  bottom: "gate_input_1"
  bottom: "cont_1"
  top: "c_1"
  top: "h_1"
}
layer {
  name: "lstm2_"
  type: "Split"
  bottom: "c_1"
  top: "c_T"
}
layer {
  name: "lstm2_h_concat"
  type: "Concat"
  bottom: "h_1"
  top: "h"
  concat_param {
    axis: 0
  }
}
layer {
  name: "h_pseudoloss"
  type: "Reduction"
  bottom: "h"
  top: "h_pseudoloss"
  loss_weight: 1
}
I0924 04:24:43.115571 30908 layer_factory.hpp:77] Creating layer lstm2_
I0924 04:24:43.115588 30908 net.cpp:91] Creating Layer lstm2_
I0924 04:24:43.115598 30908 net.cpp:399] lstm2_ -> x
I0924 04:24:43.115615 30908 net.cpp:399] lstm2_ -> cont
I0924 04:24:43.114869 30936 net.cpp:425] probs <- predict
I0924 04:24:43.120452 30936 net.cpp:399] probs -> probs
I0924 04:24:43.120599 30908 net.cpp:141] Setting up lstm2_
I0924 04:24:43.120616 30908 net.cpp:148] Top shape: 1 1 1501 (1501)
I0924 04:24:43.120623 30908 net.cpp:148] Top shape: 1 1 (1)
I0924 04:24:43.120628 30908 net.cpp:156] Memory required for data: 6008
I0924 04:24:43.120635 30908 layer_factory.hpp:77] Creating layer lstm2_
I0924 04:24:43.120645 30908 net.cpp:91] Creating Layer lstm2_
I0924 04:24:43.120671 30908 net.cpp:399] lstm2_ -> c_0
I0924 04:24:43.120690 30908 net.cpp:399] lstm2_ -> h_0
I0924 04:24:43.120805 30940 net.cpp:141] Setting up predict
I0924 04:24:43.120828 30940 net.cpp:148] Top shape: 1 1 46168 (46168)
I0924 04:24:43.120834 30940 net.cpp:156] Memory required for data: 221084
I0924 04:24:43.120848 30940 layer_factory.hpp:77] Creating layer probs
I0924 04:24:43.120862 30940 net.cpp:91] Creating Layer probs
I0924 04:24:43.120869 30940 net.cpp:425] probs <- predict
I0924 04:24:43.120878 30940 net.cpp:399] probs -> probs
I0924 04:24:43.120882 30908 net.cpp:141] Setting up lstm2_
I0924 04:24:43.120895 30908 net.cpp:148] Top shape: 1 1 1000 (1000)
I0924 04:24:43.120901 30908 net.cpp:148] Top shape: 1 1 1000 (1000)
I0924 04:24:43.120905 30908 net.cpp:156] Memory required for data: 14008
I0924 04:24:43.120910 30908 layer_factory.hpp:77] Creating layer lstm2_cont_slice
I0924 04:24:43.120934 30908 net.cpp:91] Creating Layer lstm2_cont_slice
I0924 04:24:43.120940 30908 net.cpp:425] lstm2_cont_slice <- cont
I0924 04:24:43.120949 30908 net.cpp:399] lstm2_cont_slice -> cont_1
I0924 04:24:43.121003 30914 net.cpp:141] Setting up h_pseudoloss
…
I0924 04:24:43.121299 30914 net.cpp:219] lstm2_ does not need backward computation.
I0924 04:24:43.121312 30914 net.cpp:261] This network produces output c_T
I0924 04:24:43.121326 30914 net.cpp:261] This network produces output h_pseudoloss
I0924 04:24:43.121359 30914 net.cpp:274] Network initialization done.
I0924 04:24:43.121474 30914 recurrent_layer.cpp:150] Adding parameter 0: W_xc
I0924 04:24:43.121492 30914 recurrent_layer.cpp:150] Adding parameter 1: b_c
I0924 04:24:43.121506 30914 recurrent_layer.cpp:150] Adding parameter 2: W_hc
I0924 04:24:43.126312 30908 net.cpp:141] Setting up lstm2_cont_slice
I0924 04:24:43.126363 30908 net.cpp:148] Top shape: 1 1 (1)
I0924 04:24:43.126374 30908 net.cpp:156] Memory required for data: 14012
I0924 04:24:43.126386 30908 layer_factory.hpp:77] Creating layer cont_1_lstm2_cont_slice_0_split
I0924 04:24:43.126410 30908 net.cpp:91] Creating Layer cont_1_lstm2_cont_slice_0_split
I0924 04:24:43.126420 30908 net.cpp:425] cont_1_lstm2_cont_slice_0_split <- cont_1
I0924 04:24:43.126468 30908 net.cpp:399] cont_1_lstm2_cont_slice_0_split -> cont_1_lstm2_cont_slice_0_split_0
I0924 04:24:43.126489 30908 net.cpp:399] cont_1_lstm2_cont_slice_0_split -> cont_1_lstm2_cont_slice_0_split_1
I0924 04:24:43.128274 30914 net.cpp:141] Setting up lstm2
I0924 04:24:43.128319 30914 net.cpp:148] Top shape: 1 1 1000 (1000)
I0924 04:24:43.128324 30914 net.cpp:156] Memory required for data: 36412
I0924 04:24:43.128330 30908 net.cpp:141] Setting up cont_1_lstm2_cont_slice_0_split
I0924 04:24:43.128350 30914 layer_factory.hpp:77] Creating layer predict
I0924 04:24:43.128383 30908 net.cpp:148] Top shape: 1 1 (1)
I0924 04:24:43.128396 30914 net.cpp:91] Creating Layer predict
I0924 04:24:43.128397 30908 net.cpp:148] Top shape: 1 1 (1)
I0924 04:24:43.128406 30914 net.cpp:425] predict <- lstm2
I0924 04:24:43.128407 30908 net.cpp:156] Memory required for data: 14020
I0924 04:24:43.128438 30914 net.cpp:399] predict -> predict
I0924 04:24:43.128443 30908 layer_factory.hpp:77] Creating layer lstm2_x_transform
I0924 04:24:43.128504 30908 net.cpp:91] Creating Layer lstm2_x_transform
I0924 04:24:43.128522 30908 net.cpp:425] lstm2_x_transform <- x
I0924 04:24:43.128549 30908 net.cpp:399] lstm2_x_transform -> W_xc_x
I0924 04:24:43.238726 30928 net.cpp:141] Setting up predict
I0924 04:24:43.238780 30928 net.cpp:148] Top shape: 1 1 46168 (46168)
I0924 04:24:43.238791 30928 net.cpp:156] Memory required for data: 221084
I0924 04:24:43.238811 30928 layer_factory.hpp:77] Creating layer probs
I0924 04:24:43.238834 30928 net.cpp:91] Creating Layer probs
I0924 04:24:43.238845 30928 net.cpp:425] probs <- predict
I0924 04:24:43.238860 30928 net.cpp:399] probs -> probs
I0924 04:24:43.260256 30908 net.cpp:141] Setting up lstm2_x_transform
I0924 04:24:43.260315 30908 net.cpp:148] Top shape: 1 1 4000 (4000)
I0924 04:24:43.260325 30908 net.cpp:156] Memory required for data: 30020
I0924 04:24:43.260355 30908 layer_factory.hpp:77] Creating layer lstm2_W_xc_x_slice
I0924 04:24:43.260396 30908 net.cpp:91] Creating Layer lstm2_W_xc_x_slice
I0924 04:24:43.260407 30908 net.cpp:425] lstm2_W_xc_x_slice <- W_xc_x
I0924 04:24:43.260422 30908 net.cpp:399] lstm2_W_xc_x_slice -> W_xc_x_1
I0924 04:24:43.274804 30908 net.cpp:141] Setting up lstm2_W_xc_x_slice
I0924 04:24:43.274853 30908 net.cpp:148] Top shape: 1 1 4000 (4000)
I0924 04:24:43.274863 30908 net.cpp:156] Memory required for data: 46020
I0924 04:24:43.274874 30908 layer_factory.hpp:77] Creating layer lstm2_h_conted_0
I0924 04:24:43.274929 30908 net.cpp:91] Creating Layer lstm2_h_conted_0
I0924 04:24:43.274940 30908 net.cpp:425] lstm2_h_conted_0 <- h_0
I0924 04:24:43.274952 30908 net.cpp:425] lstm2_h_conted_0 <- cont_1_lstm2_cont_slice_0_split_0
I0924 04:24:43.274966 30908 net.cpp:399] lstm2_h_conted_0 -> h_conted_0
I0924 04:24:43.275286 30908 net.cpp:141] Setting up lstm2_h_conted_0
I0924 04:24:43.275305 30908 net.cpp:148] Top shape: 1 1 1000 (1000)
I0924 04:24:43.275313 30908 net.cpp:156] Memory required for data: 50020
I0924 04:24:43.275322 30908 layer_factory.hpp:77] Creating layer lstm2_transform_1
I0924 04:24:43.275358 30908 net.cpp:91] Creating Layer lstm2_transform_1
I0924 04:24:43.275369 30908 net.cpp:425] lstm2_transform_1 <- h_conted_0
I0924 04:24:43.275384 30908 net.cpp:399] lstm2_transform_1 -> W_hc_h_0
I0924 04:24:43.285181 30884 net.cpp:141] Setting up predict
I0924 04:24:43.285238 30884 net.cpp:148] Top shape: 1 1 46168 (46168)
I0924 04:24:43.285246 30884 net.cpp:156] Memory required for data: 221084
I0924 04:24:43.285270 30884 layer_factory.hpp:77] Creating layer probs
I0924 04:24:43.285295 30884 net.cpp:91] Creating Layer probs
I0924 04:24:43.285306 30884 net.cpp:425] probs <- predict
I0924 04:24:43.285321 30884 net.cpp:399] probs -> probs
I0924 04:24:43.337230 30908 net.cpp:141] Setting up lstm2_transform_1
I0924 04:24:43.337688 30908 net.cpp:148] Top shape: 1 1 4000 (4000)
I0924 04:24:43.337815 30908 net.cpp:156] Memory required for data: 66020
I0924 04:24:43.337965 30908 layer_factory.hpp:77] Creating layer lstm2_gate_input_1
I0924 04:24:43.338135 30908 net.cpp:91] Creating Layer lstm2_gate_input_1
I0924 04:24:43.338295 30908 net.cpp:425] lstm2_gate_input_1 <- W_hc_h_0
I0924 04:24:43.338415 30908 net.cpp:425] lstm2_gate_input_1 <- W_xc_x_1
I0924 04:24:43.338533 30908 net.cpp:399] lstm2_gate_input_1 -> gate_input_1
I0924 04:24:43.340823 30908 net.cpp:141] Setting up lstm2_gate_input_1
I0924 04:24:43.341027 30908 net.cpp:148] Top shape: 1 1 4000 (4000)
I0924 04:24:43.341182 30908 net.cpp:156] Memory required for data: 82020
I0924 04:24:43.341305 30908 layer_factory.hpp:77] Creating layer lstm2_unit_1
I0924 04:24:43.341455 30908 net.cpp:91] Creating Layer lstm2_unit_1
I0924 04:24:43.341572 30908 net.cpp:425] lstm2_unit_1 <- c_0
I0924 04:24:43.341689 30908 net.cpp:425] lstm2_unit_1 <- gate_input_1
I0924 04:24:43.341825 30908 net.cpp:425] lstm2_unit_1 <- cont_1_lstm2_cont_slice_0_split_1
I0924 04:24:43.341966 30908 net.cpp:399] lstm2_unit_1 -> c_1
I0924 04:24:43.342118 30908 net.cpp:399] lstm2_unit_1 -> h_1
I0924 04:24:43.343194 30908 net.cpp:141] Setting up lstm2_unit_1
I0924 04:24:43.343443 30908 net.cpp:148] Top shape: 1 1 1000 (1000)
I0924 04:24:43.343708 30908 net.cpp:148] Top shape: 1 1 1000 (1000)
I0924 04:24:43.343927 30908 net.cpp:156] Memory required for data: 90020
I0924 04:24:43.344063 30908 layer_factory.hpp:77] Creating layer lstm2_
I0924 04:24:43.344244 30908 net.cpp:91] Creating Layer lstm2_
I0924 04:24:43.344379 30908 net.cpp:425] lstm2_ <- c_1
I0924 04:24:43.344542 30908 net.cpp:399] lstm2_ -> c_T
I0924 04:24:43.367586 30908 net.cpp:141] Setting up lstm2_
I0924 04:24:43.367682 30908 net.cpp:148] Top shape: 1 1 1000 (1000)
I0924 04:24:43.367697 30908 net.cpp:156] Memory required for data: 94020
I0924 04:24:43.367718 30908 layer_factory.hpp:77] Creating layer lstm2_h_concat
I0924 04:24:43.367761 30908 net.cpp:91] Creating Layer lstm2_h_concat
I0924 04:24:43.367780 30908 net.cpp:425] lstm2_h_concat <- h_1
I0924 04:24:43.367810 30908 net.cpp:399] lstm2_h_concat -> h
I0924 04:24:43.367991 30908 net.cpp:141] Setting up lstm2_h_concat
I0924 04:24:43.368015 30908 net.cpp:148] Top shape: 1 1 1000 (1000)
I0924 04:24:43.368026 30908 net.cpp:156] Memory required for data: 98020
I0924 04:24:43.368037 30908 layer_factory.hpp:77] Creating layer h_pseudoloss
I0924 04:24:43.368062 30908 net.cpp:91] Creating Layer h_pseudoloss
I0924 04:24:43.368074 30908 net.cpp:425] h_pseudoloss <- h
I0924 04:24:43.368094 30908 net.cpp:399] h_pseudoloss -> h_pseudoloss
I0924 04:24:43.368352 30908 net.cpp:141] Setting up h_pseudoloss
…
I0924 04:24:43.368594 30908 net.cpp:219] lstm2_ does not need backward computation.
I0924 04:24:43.368603 30908 net.cpp:261] This network produces output c_T
I0924 04:24:43.368615 30908 net.cpp:261] This network produces output h_pseudoloss
I0924 04:24:43.368645 30908 net.cpp:274] Network initialization done.
I0924 04:24:43.368746 30908 recurrent_layer.cpp:150] Adding parameter 0: W_xc
I0924 04:24:43.368759 30908 recurrent_layer.cpp:150] Adding parameter 1: b_c
I0924 04:24:43.368770 30908 recurrent_layer.cpp:150] Adding parameter 2: W_hc
I0924 04:24:43.369037 30908 net.cpp:141] Setting up lstm2
I0924 04:24:43.369062 30908 net.cpp:148] Top shape: 1 1 1000 (1000)
I0924 04:24:43.369074 30908 net.cpp:156] Memory required for data: 36412
I0924 04:24:43.369114 30908 layer_factory.hpp:77] Creating layer predict
I0924 04:24:43.369148 30908 net.cpp:91] Creating Layer predict
I0924 04:24:43.369168 30908 net.cpp:425] predict <- lstm2
I0924 04:24:43.369189 30908 net.cpp:399] predict -> predict
I0924 04:24:43.455051 30880 net.cpp:141] Setting up predict
I0924 04:24:43.455111 30880 net.cpp:148] Top shape: 1 1 46168 (46168)
I0924 04:24:43.455121 30880 net.cpp:156] Memory required for data: 221084
I0924 04:24:43.455142 30880 layer_factory.hpp:77] Creating layer probs
I0924 04:24:43.455163 30880 net.cpp:91] Creating Layer probs
I0924 04:24:43.455174 30880 net.cpp:425] probs <- predict
I0924 04:24:43.455190 30880 net.cpp:399] probs -> probs
I0924 04:24:43.529386 30888 net.cpp:141] Setting up predict
I0924 04:24:43.529433 30888 net.cpp:148] Top shape: 1 1 46168 (46168)
I0924 04:24:43.529439 30888 net.cpp:156] Memory required for data: 221084
I0924 04:24:43.529456 30888 layer_factory.hpp:77] Creating layer probs
I0924 04:24:43.529476 30888 net.cpp:91] Creating Layer probs
I0924 04:24:43.529484 30888 net.cpp:425] probs <- predict
I0924 04:24:43.529495 30888 net.cpp:399] probs -> probs
I0924 04:24:43.583551 30940 net.cpp:141] Setting up probs
I0924 04:24:43.583607 30940 net.cpp:148] Top shape: 1 1 46168 (46168)
I0924 04:24:43.583616 30940 net.cpp:156] Memory required for data: 405756
I0924 04:24:43.583628 30940 net.cpp:219] probs does not need backward computation.
I0924 04:24:43.583638 30940 net.cpp:219] predict does not need backward computation.
I0924 04:24:43.583647 30940 net.cpp:219] lstm2 does not need backward computation.
I0924 04:24:43.583657 30940 net.cpp:219] concat does not need backward computation.
I0924 04:24:43.583665 30940 net.cpp:219] lstm1 does not need backward computation.
I0924 04:24:43.583675 30940 net.cpp:219] embedding does not need backward computation.
I0924 04:24:43.583683 30940 net.cpp:219] reshape_stage_indicator does not need backward computation.
I0924 04:24:43.583690 30940 net.cpp:219] reshape_frames does not need backward computation.
I0924 04:24:43.583698 30940 net.cpp:219] embed_encoder does not need backward computation.
I0924 04:24:43.583705 30940 net.cpp:219] cont_sentence_input_1_split does not need backward computation.
I0924 04:24:43.583714 30940 net.cpp:219] input does not need backward computation.
I0924 04:24:43.583720 30940 net.cpp:261] This network produces output probs
I0924 04:24:43.583752 30940 net.cpp:274] Network initialization done.
I0924 04:24:43.591064 30928 net.cpp:141] Setting up probs
I0924 04:24:43.591119 30928 net.cpp:148] Top shape: 1 1 46168 (46168)
I0924 04:24:43.591127 30928 net.cpp:156] Memory required for data: 405756
I0924 04:24:43.591140 30928 net.cpp:219] probs does not need backward computation.
I0924 04:24:43.591151 30928 net.cpp:219] predict does not need backward computation.
I0924 04:24:43.591161 30928 net.cpp:219] lstm2 does not need backward computation.
I0924 04:24:43.591172 30928 net.cpp:219] concat does not need backward computation.
I0924 04:24:43.591183 30928 net.cpp:219] lstm1 does not need backward computation.
I0924 04:24:43.591193 30928 net.cpp:219] embedding does not need backward computation.
I0924 04:24:43.591200 30928 net.cpp:219] reshape_stage_indicator does not need backward computation.
I0924 04:24:43.591209 30928 net.cpp:219] reshape_frames does not need backward computation.
I0924 04:24:43.591218 30928 net.cpp:219] embed_encoder does not need backward computation.
I0924 04:24:43.591226 30928 net.cpp:219] cont_sentence_input_1_split does not need backward computation.
I0924 04:24:43.591235 30928 net.cpp:219] input does not need backward computation.
I0924 04:24:43.591241 30928 net.cpp:261] This network produces output probs
I0924 04:24:43.591265 30928 net.cpp:274] Network initialization done.
I0924 04:24:43.599280 30884 net.cpp:141] Setting up probs
I0924 04:24:43.599340 30884 net.cpp:148] Top shape: 1 1 46168 (46168)
I0924 04:24:43.599350 30884 net.cpp:156] Memory required for data: 405756
I0924 04:24:43.599364 30884 net.cpp:219] probs does not need backward computation.
I0924 04:24:43.599375 30884 net.cpp:219] predict does not need backward computation.
I0924 04:24:43.599385 30884 net.cpp:219] lstm2 does not need backward computation.
I0924 04:24:43.599395 30884 net.cpp:219] concat does not need backward computation.
I0924 04:24:43.599406 30884 net.cpp:219] lstm1 does not need backward computation.
I0924 04:24:43.599416 30884 net.cpp:219] embedding does not need backward computation.
I0924 04:24:43.599426 30884 net.cpp:219] reshape_stage_indicator does not need backward computation.
I0924 04:24:43.599434 30884 net.cpp:219] reshape_frames does not need backward computation.
I0924 04:24:43.599442 30884 net.cpp:219] embed_encoder does not need backward computation.
I0924 04:24:43.599452 30884 net.cpp:219] cont_sentence_input_1_split does not need backward computation.
I0924 04:24:43.599460 30884 net.cpp:219] input does not need backward computation.
I0924 04:24:43.599467 30884 net.cpp:261] This network produces output probs
I0924 04:24:43.599494 30884 net.cpp:274] Network initialization done.
I0924 04:24:43.603060 30880 net.cpp:141] Setting up probs
I0924 04:24:43.603113 30880 net.cpp:148] Top shape: 1 1 46168 (46168)
I0924 04:24:43.603122 30880 net.cpp:156] Memory required for data: 405756
I0924 04:24:43.603133 30880 net.cpp:219] probs does not need backward computation.
I0924 04:24:43.603144 30880 net.cpp:219] predict does not need backward computation.
I0924 04:24:43.603153 30880 net.cpp:219] lstm2 does not need backward computation.
I0924 04:24:43.603163 30880 net.cpp:219] concat does not need backward computation.
I0924 04:24:43.603171 30880 net.cpp:219] lstm1 does not need backward computation.
I0924 04:24:43.603180 30880 net.cpp:219] embedding does not need backward computation.
I0924 04:24:43.603189 30880 net.cpp:219] reshape_stage_indicator does not need backward computation.
I0924 04:24:43.603198 30880 net.cpp:219] reshape_frames does not need backward computation.
I0924 04:24:43.603204 30880 net.cpp:219] embed_encoder does not need backward computation.
I0924 04:24:43.603214 30880 net.cpp:219] cont_sentence_input_1_split does not need backward computation.
I0924 04:24:43.603221 30880 net.cpp:219] input does not need backward computation.
I0924 04:24:43.603229 30880 net.cpp:261] This network produces output probs
I0924 04:24:43.603252 30880 net.cpp:274] Network initialization done.
I0924 04:24:43.604032 30888 net.cpp:141] Setting up probs
I0924 04:24:43.604076 30888 net.cpp:148] Top shape: 1 1 46168 (46168)
I0924 04:24:43.604085 30888 net.cpp:156] Memory required for data: 405756
I0924 04:24:43.604097 30888 net.cpp:219] probs does not need backward computation.
I0924 04:24:43.604109 30888 net.cpp:219] predict does not need backward computation.
I0924 04:24:43.604117 30888 net.cpp:219] lstm2 does not need backward computation.
I0924 04:24:43.604126 30888 net.cpp:219] concat does not need backward computation.
I0924 04:24:43.604136 30888 net.cpp:219] lstm1 does not need backward computation.
I0924 04:24:43.604147 30888 net.cpp:219] embedding does not need backward computation.
I0924 04:24:43.604157 30888 net.cpp:219] reshape_stage_indicator does not need backward computation.
I0924 04:24:43.604167 30888 net.cpp:219] reshape_frames does not need backward computation.
I0924 04:24:43.604177 30888 net.cpp:219] embed_encoder does not need backward computation.
I0924 04:24:43.604187 30888 net.cpp:219] cont_sentence_input_1_split does not need backward computation.
I0924 04:24:43.604197 30888 net.cpp:219] input does not need backward computation.
I0924 04:24:43.604203 30888 net.cpp:261] This network produces output probs
I0924 04:24:43.604233 30888 net.cpp:274] Network initialization done.
I0924 04:24:43.607626 30936 net.cpp:141] Setting up probs
I0924 04:24:43.607683 30936 net.cpp:148] Top shape: 1 1 46168 (46168)
I0924 04:24:43.607694 30936 net.cpp:156] Memory required for data: 405756
I0924 04:24:43.607709 30936 net.cpp:219] probs does not need backward computation.
I0924 04:24:43.607722 30936 net.cpp:219] predict does not need backward computation.
I0924 04:24:43.607734 30936 net.cpp:219] lstm2 does not need backward computation.
I0924 04:24:43.607745 30936 net.cpp:219] concat does not need backward computation.
I0924 04:24:43.607758 30936 net.cpp:219] lstm1 does not need backward computation.
I0924 04:24:43.607769 30936 net.cpp:219] embedding does not need backward computation.
I0924 04:24:43.607780 30936 net.cpp:219] reshape_stage_indicator does not need backward computation.
I0924 04:24:43.607790 30936 net.cpp:219] reshape_frames does not need backward computation.
I0924 04:24:43.607800 30936 net.cpp:219] embed_encoder does not need backward computation.
I0924 04:24:43.607811 30936 net.cpp:219] cont_sentence_input_1_split does not need backward computation.
I0924 04:24:43.607822 30936 net.cpp:219] input does not need backward computation.
I0924 04:24:43.607831 30936 net.cpp:261] This network produces output probs
I0924 04:24:43.607859 30936 net.cpp:274] Network initialization done.
I0924 04:24:43.608633 30892 net.cpp:141] Setting up probs
I0924 04:24:43.608654 30892 net.cpp:148] Top shape: 1 1 46168 (46168)
I0924 04:24:43.608662 30892 net.cpp:156] Memory required for data: 405756
I0924 04:24:43.608672 30892 net.cpp:219] probs does not need backward computation.
I0924 04:24:43.608681 30892 net.cpp:219] predict does not need backward computation.
I0924 04:24:43.608691 30892 net.cpp:219] lstm2 does not need backward computation.
I0924 04:24:43.608701 30892 net.cpp:219] concat does not need backward computation.
I0924 04:24:43.608711 30892 net.cpp:219] lstm1 does not need backward computation.
I0924 04:24:43.608722 30892 net.cpp:219] embedding does not need backward computation.
I0924 04:24:43.608731 30892 net.cpp:219] reshape_stage_indicator does not need backward computation.
I0924 04:24:43.608741 30892 net.cpp:219] reshape_frames does not need backward computation.
I0924 04:24:43.608750 30892 net.cpp:219] embed_encoder does not need backward computation.
I0924 04:24:43.608759 30892 net.cpp:219] cont_sentence_input_1_split does not need backward computation.
I0924 04:24:43.608769 30892 net.cpp:219] input does not need backward computation.
I0924 04:24:43.608777 30892 net.cpp:261] This network produces output probs
I0924 04:24:43.608799 30892 net.cpp:274] Network initialization done.
I0924 04:24:43.608927 30902 net.cpp:141] Setting up probs
I0924 04:24:43.608968 30902 net.cpp:148] Top shape: 1 1 46168 (46168)
I0924 04:24:43.608978 30902 net.cpp:156] Memory required for data: 405756
I0924 04:24:43.608991 30902 net.cpp:219] probs does not need backward computation.
I0924 04:24:43.609002 30902 net.cpp:219] predict does not need backward computation.
I0924 04:24:43.609012 30902 net.cpp:219] lstm2 does not need backward computation.
I0924 04:24:43.609022 30902 net.cpp:219] concat does not need backward computation.
I0924 04:24:43.609033 30902 net.cpp:219] lstm1 does not need backward computation.
I0924 04:24:43.609043 30902 net.cpp:219] embedding does not need backward computation.
I0924 04:24:43.609053 30902 net.cpp:219] reshape_stage_indicator does not need backward computation.
I0924 04:24:43.609062 30902 net.cpp:219] reshape_frames does not need backward computation.
I0924 04:24:43.609071 30902 net.cpp:219] embed_encoder does not need backward computation.
I0924 04:24:43.609081 30902 net.cpp:219] cont_sentence_input_1_split does not need backward computation.
I0924 04:24:43.609091 30902 net.cpp:219] input does not need backward computation.
I0924 04:24:43.609100 30902 net.cpp:261] This network produces output probs
I0924 04:24:43.609132 30902 net.cpp:274] Network initialization done.
I0924 04:24:43.615869 30894 net.cpp:141] Setting up conv1
I0924 04:24:43.615921 30894 net.cpp:148] Top shape: 10 96 55 55 (2904000)
I0924 04:24:43.615929 30894 net.cpp:156] Memory required for data: 17799480
I0924 04:24:43.615960 30894 layer_factory.hpp:77] Creating layer relu1
I0924 04:24:43.615985 30894 net.cpp:91] Creating Layer relu1
I0924 04:24:43.615996 30894 net.cpp:425] relu1 <- conv1
I0924 04:24:43.616009 30894 net.cpp:386] relu1 -> conv1 (in-place)
I0924 04:24:43.616420 30894 net.cpp:141] Setting up relu1
I0924 04:24:43.616436 30894 net.cpp:148] Top shape: 10 96 55 55 (2904000)
I0924 04:24:43.616444 30894 net.cpp:156] Memory required for data: 29415480
I0924 04:24:43.616453 30894 layer_factory.hpp:77] Creating layer pool1
I0924 04:24:43.616473 30894 net.cpp:91] Creating Layer pool1
I0924 04:24:43.616482 30894 net.cpp:425] pool1 <- conv1
I0924 04:24:43.616497 30894 net.cpp:399] pool1 -> pool1
I0924 04:24:43.616631 30894 net.cpp:141] Setting up pool1
I0924 04:24:43.616646 30894 net.cpp:148] Top shape: 10 96 27 27 (699840)
I0924 04:24:43.616653 30894 net.cpp:156] Memory required for data: 32214840
I0924 04:24:43.616662 30894 layer_factory.hpp:77] Creating layer norm1
I0924 04:24:43.616689 30894 net.cpp:91] Creating Layer norm1
I0924 04:24:43.616698 30894 net.cpp:425] norm1 <- pool1
I0924 04:24:43.616711 30894 net.cpp:399] norm1 -> norm1
I0924 04:24:43.617418 30894 net.cpp:141] Setting up norm1
I0924 04:24:43.617442 30894 net.cpp:148] Top shape: 10 96 27 27 (699840)
I0924 04:24:43.617452 30894 net.cpp:156] Memory required for data: 35014200
I0924 04:24:43.617462 30894 layer_factory.hpp:77] Creating layer conv2
I0924 04:24:43.617488 30894 net.cpp:91] Creating Layer conv2
I0924 04:24:43.617497 30894 net.cpp:425] conv2 <- norm1
I0924 04:24:43.617511 30894 net.cpp:399] conv2 -> conv2
I0924 04:24:43.625851 30894 net.cpp:141] Setting up conv2
I0924 04:24:43.625900 30894 net.cpp:148] Top shape: 10 256 27 27 (1866240)
I0924 04:24:43.625911 30894 net.cpp:156] Memory required for data: 42479160
I0924 04:24:43.625941 30894 layer_factory.hpp:77] Creating layer relu2
I0924 04:24:43.625962 30894 net.cpp:91] Creating Layer relu2
I0924 04:24:43.625973 30894 net.cpp:425] relu2 <- conv2
I0924 04:24:43.625988 30894 net.cpp:386] relu2 -> conv2 (in-place)
I0924 04:24:43.626947 30894 net.cpp:141] Setting up relu2
I0924 04:24:43.626971 30894 net.cpp:148] Top shape: 10 256 27 27 (1866240)
I0924 04:24:43.626981 30894 net.cpp:156] Memory required for data: 49944120
I0924 04:24:43.626989 30894 layer_factory.hpp:77] Creating layer pool2
I0924 04:24:43.627007 30894 net.cpp:91] Creating Layer pool2
I0924 04:24:43.627015 30894 net.cpp:425] pool2 <- conv2
I0924 04:24:43.627029 30894 net.cpp:399] pool2 -> pool2
I0924 04:24:43.627135 30894 net.cpp:141] Setting up pool2
I0924 04:24:43.627149 30894 net.cpp:148] Top shape: 10 256 13 13 (432640)
I0924 04:24:43.627156 30894 net.cpp:156] Memory required for data: 51674680
I0924 04:24:43.627164 30894 layer_factory.hpp:77] Creating layer norm2
I0924 04:24:43.627187 30894 net.cpp:91] Creating Layer norm2
I0924 04:24:43.627194 30894 net.cpp:425] norm2 <- pool2
I0924 04:24:43.627207 30894 net.cpp:399] norm2 -> norm2
I0924 04:24:43.627857 30894 net.cpp:141] Setting up norm2
I0924 04:24:43.627878 30894 net.cpp:148] Top shape: 10 256 13 13 (432640)
I0924 04:24:43.627885 30894 net.cpp:156] Memory required for data: 53405240
I0924 04:24:43.627894 30894 layer_factory.hpp:77] Creating layer conv3
I0924 04:24:43.627917 30894 net.cpp:91] Creating Layer conv3
I0924 04:24:43.627923 30894 net.cpp:425] conv3 <- norm2
I0924 04:24:43.627938 30894 net.cpp:399] conv3 -> conv3
I0924 04:24:43.636237 30894 net.cpp:141] Setting up conv3
I0924 04:24:43.636289 30894 net.cpp:148] Top shape: 10 384 13 13 (648960)
I0924 04:24:43.636296 30894 net.cpp:156] Memory required for data: 56001080
I0924 04:24:43.636322 30894 layer_factory.hpp:77] Creating layer relu3
I0924 04:24:43.636342 30894 net.cpp:91] Creating Layer relu3
I0924 04:24:43.636349 30894 net.cpp:425] relu3 <- conv3
I0924 04:24:43.636359 30894 net.cpp:386] relu3 -> conv3 (in-place)
I0924 04:24:43.637547 30894 net.cpp:141] Setting up relu3
I0924 04:24:43.637594 30894 net.cpp:148] Top shape: 10 384 13 13 (648960)
I0924 04:24:43.637601 30894 net.cpp:156] Memory required for data: 58596920
I0924 04:24:43.637610 30894 layer_factory.hpp:77] Creating layer conv4
I0924 04:24:43.637636 30894 net.cpp:91] Creating Layer conv4
I0924 04:24:43.637643 30894 net.cpp:425] conv4 <- conv3
I0924 04:24:43.637656 30894 net.cpp:399] conv4 -> conv4
I0924 04:24:43.653633 30914 net.cpp:141] Setting up predict
I0924 04:24:43.653697 30914 net.cpp:148] Top shape: 1 1 46168 (46168)
I0924 04:24:43.653704 30914 net.cpp:156] Memory required for data: 221084
I0924 04:24:43.653723 30914 layer_factory.hpp:77] Creating layer probs
I0924 04:24:43.653744 30914 net.cpp:91] Creating Layer probs
I0924 04:24:43.653753 30914 net.cpp:425] probs <- predict
I0924 04:24:43.653765 30914 net.cpp:399] probs -> probs
I0924 04:24:43.707397 30914 net.cpp:141] Setting up probs
I0924 04:24:43.707473 30914 net.cpp:148] Top shape: 1 1 46168 (46168)
I0924 04:24:43.707484 30914 net.cpp:156] Memory required for data: 405756
I0924 04:24:43.707500 30914 net.cpp:219] probs does not need backward computation.
I0924 04:24:43.707512 30914 net.cpp:219] predict does not need backward computation.
I0924 04:24:43.707522 30914 net.cpp:219] lstm2 does not need backward computation.
I0924 04:24:43.707530 30914 net.cpp:219] concat does not need backward computation.
I0924 04:24:43.707542 30914 net.cpp:219] lstm1 does not need backward computation.
I0924 04:24:43.707587 30914 net.cpp:219] embedding does not need backward computation.
I0924 04:24:43.707598 30914 net.cpp:219] reshape_stage_indicator does not need backward computation.
I0924 04:24:43.707608 30914 net.cpp:219] reshape_frames does not need backward computation.
I0924 04:24:43.707617 30914 net.cpp:219] embed_encoder does not need backward computation.
I0924 04:24:43.707624 30914 net.cpp:219] cont_sentence_input_1_split does not need backward computation.
I0924 04:24:43.707633 30914 net.cpp:219] input does not need backward computation.
I0924 04:24:43.707640 30914 net.cpp:261] This network produces output probs
I0924 04:24:43.708132 30914 net.cpp:274] Network initialization done.
I0924 04:24:43.708881 30894 net.cpp:141] Setting up conv4
I0924 04:24:43.708904 30894 net.cpp:148] Top shape: 10 384 13 13 (648960)
I0924 04:24:43.708910 30894 net.cpp:156] Memory required for data: 61192760
I0924 04:24:43.708923 30894 layer_factory.hpp:77] Creating layer relu4
I0924 04:24:43.708940 30894 net.cpp:91] Creating Layer relu4
I0924 04:24:43.708947 30894 net.cpp:425] relu4 <- conv4
I0924 04:24:43.708981 30894 net.cpp:386] relu4 -> conv4 (in-place)
I0924 04:24:43.709830 30894 net.cpp:141] Setting up relu4
I0924 04:24:43.709846 30894 net.cpp:148] Top shape: 10 384 13 13 (648960)
I0924 04:24:43.709851 30894 net.cpp:156] Memory required for data: 63788600
I0924 04:24:43.709856 30894 layer_factory.hpp:77] Creating layer conv5
I0924 04:24:43.709875 30894 net.cpp:91] Creating Layer conv5
I0924 04:24:43.709880 30894 net.cpp:425] conv5 <- conv4
I0924 04:24:43.710388 30894 net.cpp:399] conv5 -> conv5
I0924 04:24:43.764271 30894 net.cpp:141] Setting up conv5
I0924 04:24:43.764336 30894 net.cpp:148] Top shape: 10 256 13 13 (432640)
I0924 04:24:43.764349 30894 net.cpp:156] Memory required for data: 65519160
I0924 04:24:43.764385 30894 layer_factory.hpp:77] Creating layer relu5
I0924 04:24:43.764413 30894 net.cpp:91] Creating Layer relu5
I0924 04:24:43.764423 30894 net.cpp:425] relu5 <- conv5
I0924 04:24:43.764457 30894 net.cpp:386] relu5 -> conv5 (in-place)
I0924 04:24:43.765342 30894 net.cpp:141] Setting up relu5
I0924 04:24:43.765390 30894 net.cpp:148] Top shape: 10 256 13 13 (432640)
I0924 04:24:43.765399 30894 net.cpp:156] Memory required for data: 67249720
I0924 04:24:43.765414 30894 layer_factory.hpp:77] Creating layer pool5
I0924 04:24:43.765440 30894 net.cpp:91] Creating Layer pool5
I0924 04:24:43.765450 30894 net.cpp:425] pool5 <- conv5
I0924 04:24:43.765995 30894 net.cpp:399] pool5 -> pool5
I0924 04:24:43.766257 30894 net.cpp:141] Setting up pool5
I0924 04:24:43.766283 30894 net.cpp:148] Top shape: 10 256 6 6 (92160)
I0924 04:24:43.766294 30894 net.cpp:156] Memory required for data: 67618360
I0924 04:24:43.766302 30894 layer_factory.hpp:77] Creating layer fc6
I0924 04:24:43.766335 30894 net.cpp:91] Creating Layer fc6
I0924 04:24:43.766343 30894 net.cpp:425] fc6 <- pool5
I0924 04:24:43.766362 30894 net.cpp:399] fc6 -> fc6
I0924 04:24:43.872453 30908 net.cpp:141] Setting up predict
I0924 04:24:43.872515 30908 net.cpp:148] Top shape: 1 1 46168 (46168)
I0924 04:24:43.872527 30908 net.cpp:156] Memory required for data: 221084
I0924 04:24:43.872548 30908 layer_factory.hpp:77] Creating layer probs
I0924 04:24:43.872567 30908 net.cpp:91] Creating Layer probs
I0924 04:24:43.872576 30908 net.cpp:425] probs <- predict
I0924 04:24:43.872587 30908 net.cpp:399] probs -> probs
I0924 04:24:43.881176 30908 net.cpp:141] Setting up probs
I0924 04:24:43.881860 30908 net.cpp:148] Top shape: 1 1 46168 (46168)
I0924 04:24:43.882139 30908 net.cpp:156] Memory required for data: 405756
I0924 04:24:43.882515 30908 net.cpp:219] probs does not need backward computation.
I0924 04:24:43.882827 30908 net.cpp:219] predict does not need backward computation.
I0924 04:24:43.883085 30908 net.cpp:219] lstm2 does not need backward computation.
I0924 04:24:43.883474 30908 net.cpp:219] concat does not need backward computation.
I0924 04:24:43.883710 30908 net.cpp:219] lstm1 does not need backward computation.
I0924 04:24:43.883941 30908 net.cpp:219] embedding does not need backward computation.
I0924 04:24:43.884163 30908 net.cpp:219] reshape_stage_indicator does not need backward computation.
I0924 04:24:43.884464 30908 net.cpp:219] reshape_frames does not need backward computation.
I0924 04:24:43.884635 30908 net.cpp:219] embed_encoder does not need backward computation.
I0924 04:24:43.884802 30908 net.cpp:219] cont_sentence_input_1_split does not need backward computation.
I0924 04:24:43.884969 30908 net.cpp:219] input does not need backward computation.
I0924 04:24:43.885248 30908 net.cpp:261] This network produces output probs
I0924 04:24:43.885457 30908 net.cpp:274] Network initialization done.
I0924 04:24:43.894286 30894 net.cpp:141] Setting up fc6
I0924 04:24:43.894363 30894 net.cpp:148] Top shape: 10 4096 (40960)
I0924 04:24:43.894374 30894 net.cpp:156] Memory required for data: 67782200
I0924 04:24:43.894395 30894 layer_factory.hpp:77] Creating layer relu6
I0924 04:24:43.894419 30894 net.cpp:91] Creating Layer relu6
I0924 04:24:43.894428 30894 net.cpp:425] relu6 <- fc6
I0924 04:24:43.895720 30894 net.cpp:386] relu6 -> fc6 (in-place)
I0924 04:24:43.899233 30894 net.cpp:141] Setting up relu6
I0924 04:24:43.899344 30894 net.cpp:148] Top shape: 10 4096 (40960)
I0924 04:24:43.899369 30894 net.cpp:156] Memory required for data: 67946040
I0924 04:24:43.899396 30894 layer_factory.hpp:77] Creating layer drop6
I0924 04:24:43.900768 30894 net.cpp:91] Creating Layer drop6
I0924 04:24:43.900822 30894 net.cpp:425] drop6 <- fc6
I0924 04:24:43.902993 30894 net.cpp:386] drop6 -> fc6 (in-place)
I0924 04:24:43.903481 30894 net.cpp:141] Setting up drop6
I0924 04:24:43.903527 30894 net.cpp:148] Top shape: 10 4096 (40960)
I0924 04:24:43.903544 30894 net.cpp:156] Memory required for data: 68109880
I0924 04:24:43.903565 30894 layer_factory.hpp:77] Creating layer fc7
I0924 04:24:43.903604 30894 net.cpp:91] Creating Layer fc7
I0924 04:24:43.903622 30894 net.cpp:425] fc7 <- fc6
I0924 04:24:43.911736 30894 net.cpp:399] fc7 -> fc7
I0924 04:24:43.988492 30894 net.cpp:141] Setting up fc7
I0924 04:24:43.988550 30894 net.cpp:148] Top shape: 10 4096 (40960)
I0924 04:24:43.988560 30894 net.cpp:156] Memory required for data: 68273720
I0924 04:24:43.988584 30894 layer_factory.hpp:77] Creating layer relu7
I0924 04:24:43.988610 30894 net.cpp:91] Creating Layer relu7
I0924 04:24:43.988620 30894 net.cpp:425] relu7 <- fc7
I0924 04:24:43.988639 30894 net.cpp:386] relu7 -> fc7 (in-place)
I0924 04:24:43.991062 30894 net.cpp:141] Setting up relu7
I0924 04:24:43.991122 30894 net.cpp:148] Top shape: 10 4096 (40960)
I0924 04:24:43.991139 30894 net.cpp:156] Memory required for data: 68437560
I0924 04:24:43.991158 30894 layer_factory.hpp:77] Creating layer drop7
I0924 04:24:43.993993 30894 net.cpp:91] Creating Layer drop7
I0924 04:24:43.994024 30894 net.cpp:425] drop7 <- fc7
I0924 04:24:43.994043 30894 net.cpp:386] drop7 -> fc7 (in-place)
I0924 04:24:43.994226 30894 net.cpp:141] Setting up drop7
I0924 04:24:43.994241 30894 net.cpp:148] Top shape: 10 4096 (40960)
I0924 04:24:43.994246 30894 net.cpp:156] Memory required for data: 68601400
I0924 04:24:43.994253 30894 layer_factory.hpp:77] Creating layer fc8
I0924 04:24:43.994266 30894 net.cpp:91] Creating Layer fc8
I0924 04:24:43.994271 30894 net.cpp:425] fc8 <- fc7
I0924 04:24:43.994856 30894 net.cpp:399] fc8 -> fc8
I0924 04:24:44.017469 30894 net.cpp:141] Setting up fc8
I0924 04:24:44.017532 30894 net.cpp:148] Top shape: 10 1000 (10000)
I0924 04:24:44.017539 30894 net.cpp:156] Memory required for data: 68641400
I0924 04:24:44.017557 30894 layer_factory.hpp:77] Creating layer prob
I0924 04:24:44.017576 30894 net.cpp:91] Creating Layer prob
I0924 04:24:44.017585 30894 net.cpp:425] prob <- fc8
I0924 04:24:44.018065 30894 net.cpp:399] prob -> prob
I0924 04:24:44.022974 30894 net.cpp:141] Setting up prob
I0924 04:24:44.023031 30894 net.cpp:148] Top shape: 10 1000 (10000)
I0924 04:24:44.023042 30894 net.cpp:156] Memory required for data: 68681400
I0924 04:24:44.023057 30894 net.cpp:219] prob does not need backward computation.
I0924 04:24:44.023068 30894 net.cpp:219] fc8 does not need backward computation.
I0924 04:24:44.023077 30894 net.cpp:219] drop7 does not need backward computation.
I0924 04:24:44.023084 30894 net.cpp:219] relu7 does not need backward computation.
…
