…
Java HotSpot(TM) 64-Bit Server VM warning: You have loaded library /tmp/cvld3642300658117998641/libopencv_java310.xine1.so which might have disabled stack guard. The VM will try to fix the stack guard now.
It's highly recommended that you fix the library with 'execstack -c <libfile>', or link it with '-z noexecstack'.
WARNING: Logging before InitGoogleLogging() is written to STDERR
I0714 20:50:23.312145  8069 net.cpp:49] Initializing net from parameters: 
name: "GoogleNet"
state {
  phase: TEST
}
layer {
  name: "data"
  type: "Input"
  top: "data"
  input_param {
    shape {
      dim: 10
      dim: 3
      dim: 224
      dim: 224
    }
  }
}
layer {
  name: "conv1/7x7_s2"
  type: "Convolution"
  bottom: "data"
  top: "conv1/7x7_s2"
  param {
    lr_mult: 1
    decay_mult: 1
  }
  param {
    lr_mult: 2
    decay_mult: 0
  }
  convolution_param {
    num_output: 64
    pad: 3
    kernel_size: 7
    stride: 2
    weight_filler {
      type: "xavier"
      std: 0.1
    }
    bias_filler {
      type: "constant"
      value: 0.2
    }
  }
}
layer {
  name: "conv1/relu_7x7"
  type: "ReLU"
  bottom: "conv1/7x7_s2"
  top: "conv1/7x7_s2"
}
layer {
  name: "pool1/3x3_s2"
  type: "Pooling"
  bottom: "conv1/7x7_s2"
  top: "pool1/3x3_s2"
  pooling_param {
    pool: MAX
    kernel_size: 3
    stride: 2
  }
}
layer {
  name: "pool1/norm1"
  type: "LRN"
  bottom: "pool1/3x3_s2"
  top: "pool1/norm1"
  lrn_param {
    local_size: 5
    alpha: 0.0001
    beta: 0.75
  }
}
layer {
  name: "conv2/3x3_reduce"
  type: "Convolution"
  bottom: "pool1/norm1"
  top: "conv2/3x3_reduce"
  param {
    lr_mult: 1
    decay_mult: 1
  }
  param {
    lr_mult: 2
    decay_mult: 0
  }
  convolution_param {
    num_output: 64
    kernel_size: 1
    weight_filler {
      type: "xavier"
      std: 0.1
    }
    bias_filler {
      type: "constant"
      value: 0.2
    }
  }
}
layer {
  name: "conv2/relu_3x3_reduce"
  type: "ReLU"
  bottom: "conv2/3x3_reduce"
  top: "conv2/3x3_reduce"
}
layer {
  name: "conv2/3x3"
  type: "Convolution"
  bottom: "conv2/3x3_reduce"
  top: "conv2/3x3"
  param {
    lr_mult: 1
    decay_mult: 1
  }
  param {
    lr_mult: 2
    decay_mult: 0
  }
  convolution_param {
    num_output: 192
    pad: 1
    kernel_size: 3
    weight_filler {
      type: "xavier"
      std: 0.03
    }
    bias_filler {
      type: "constant"
      value: 0.2
    }
  }
}
layer {
  name: "conv2/relu_3x3"
  type: "ReLU"
  bottom: "conv2/3x3"
  top: "conv2/3x3"
}
layer {
  name: "conv2/norm2"
  type: "LRN"
  bottom: "conv2/3x3"
  top: "conv2/norm2"
  lrn_param {
    local_size: 5
    alpha: 0.0001
    beta: 0.75
  }
}
layer {
  name: "pool2/3x3_s2"
  type: "Pooling"
  bottom: "conv2/norm2"
  top: "pool2/3x3_s2"
  pooling_param {
    pool: MAX
    kernel_size: 3
    stride: 2
  }
}
layer {
  name: "inception_3a/1x1"
  type: "Convolution"
  bottom: "pool2/3x3_s2"
  top: "inception_3a/1x1"
  param {
    lr_mult: 1
    decay_mult: 1
  }
  param {
    lr_mult: 2
    decay_mult: 0
  }
  convolution_param {
    num_output: 64
    kernel_size: 1
    weight_filler {
      type: "xavier"
      std: 0.03
    }
    bias_filler {
      type: "constant"
      value: 0.2
    }
  }
}
layer {
  name: "inception_3a/relu_1x1"
  type: "ReLU"
  bottom: "inception_3a/1x1"
  top: "inception_3a/1x1"
}
layer {
  name: "inception_3a/3x3_reduce"
  type: "Convolution"
  bottom: "pool2/3x3_s2"
  top: "inception_3a/3x3_reduce"
  param {
    lr_mult: 1
    decay_mult: 1
  }
  param {
    lr_mult: 2
    decay_mult: 0
  }
  convolution_param {
    num_output: 96
    kernel_size: 1
    weight_filler {
      type: "xavier"
      std: 0.09
    }
    bias_filler {
      type: "constant"
      value: 0.2
    }
  }
}
layer {
  name: "inception_3a/relu_3x3_reduce"
  type: "ReLU"
  bottom: "inception_3a/3x3_reduce"
  top: "inception_3a/3x3_reduce"
}
layer {
  name: "inception_3a/3x3"
  type: "Convolution"
  bottom: "inception_3a/3x3_reduce"
  top: "inception_3a/3x3"
  param {
    lr_mult: 1
    decay_mult: 1
  }
  param {
    lr_mult: 2
    decay_mult: 0
  }
  convolution_param {
    num_output: 128
    pad: 1
    kernel_size: 3
    weight_filler {
      type: "xavier"
      std: 0.03
    }
    bias_filler {
      type: "constant"
      value: 0.2
    }
  }
}
layer {
  name: "inception_3a/relu_3x3"
  type: "ReLU"
  bottom: "inception_3a/3x3"
  top: "inception_3a/3x3"
}
layer {
  name: "inception_3a/5x5_reduce"
  type: "Convolution"
  bottom: "pool2/3x3_s2"
  top: "inception_3a/5x5_reduce"
  param {
    lr_mult: 1
    decay_mult: 1
  }
  param {
    lr_mult: 2
    decay_mult: 0
  }
  convolution_param {
    num_output: 16
    kernel_size: 1
    weight_filler {
      type: "xavier"
      std: 0.2
    }
    bias_filler {
      type: "constant"
      value: 0.2
    }
  }
}
layer {
  name: "inception_3a/relu_5x5_reduce"
  type: "ReLU"
  bottom: "inception_3a/5x5_reduce"
  top: "inception_3a/5x5_reduce"
}
layer {
  name: "inception_3a/5x5"
  type: "Convolution"
  bottom: "inception_3a/5x5_reduce"
  top: "inception_3a/5x5"
  param {
    lr_mult: 1
    decay_mult: 1
  }
  param {
    lr_mult: 2
    decay_mult: 0
  }
  convolution_param {
    num_output: 32
    pad: 2
    kernel_size: 5
    weight_filler {
      type: "xavier"
      std: 0.03
    }
    bias_filler {
      type: "constant"
      value: 0.2
    }
  }
}
layer {
  name: "inception_3a/relu_5x5"
  type: "ReLU"
  bottom: "inception_3a/5x5"
  top: "inception_3a/5x5"
}
layer {
  name: "inception_3a/pool"
  type: "Pooling"
  bottom: "pool2/3x3_s2"
  top: "inception_3a/pool"
  pooling_param {
    pool: MAX
    kernel_size: 3
    stride: 1
    pad: 1
  }
}
layer {
  name: "inception_3a/pool_proj"
  type: "Convolution"
  bottom: "inception_3a/pool"
  top: "inception_3a/pool_proj"
  param {
    lr_mult: 1
    decay_mult: 1
  }
  param {
    lr_mult: 2
    decay_mult: 0
  }
  convolution_param {
    num_output: 32
    kernel_size: 1
    weight_filler {
      type: "xavier"
      std: 0.1
    }
    bias_filler {
      type: "constant"
      value: 0.2
    }
  }
}
layer {
  name: "inception_3a/relu_pool_proj"
  type: "ReLU"
  bottom: "inception_3a/pool_proj"
  top: "inception_3a/pool_proj"
}
layer {
  name: "inception_3a/output"
  type: "Concat"
  bottom: "inception_3a/1x1"
  bottom: "inception_3a/3x3"
  bottom: "inception_3a/5x5"
  bottom: "inception_3a/pool_proj"
  top: "inception_3a/output"
}
layer {
  name: "inception_3b/1x1"
  type: "Convolution"
  bottom: "inception_3a/output"
  top: "inception_3b/1x1"
  param {
    lr_mult: 1
    decay_mult: 1
  }
  param {
    lr_mult: 2
    decay_mult: 0
  }
  convolution_param {
    num_output: 128
    kernel_size: 1
    weight_filler {
      type: "xavier"
      std: 0.03
    }
    bias_filler {
      type: "constant"
      value: 0.2
    }
  }
}
layer {
  name: "inception_3b/relu_1x1"
  type: "ReLU"
  bottom: "inception_3b/1x1"
  top: "inception_3b/1x1"
}
layer {
  name: "inception_3b/3x3_reduce"
  type: "Convolution"
  bottom: "inception_3a/output"
  top: "inception_3b/3x3_reduce"
  param {
    lr_mult: 1
    decay_mult: 1
  }
  param {
    lr_mult: 2
    decay_mult: 0
  }
  convolution_param {
    num_output: 128
    kernel_size: 1
    weight_filler {
      type: "xavier"
      std: 0.09
    }
    bias_filler {
      type: "constant"
      value: 0.2
    }
  }
}
layer {
  name: "inception_3b/relu_3x3_reduce"
  type: "ReLU"
  bottom: "inception_3b/3x3_reduce"
  top: "inception_3b/3x3_reduce"
}
layer {
  name: "inception_3b/3x3"
  type: "Convolution"
  bottom: "inception_3b/3x3_reduce"
  top: "inception_3b/3x3"
  param {
    lr_mult: 1
    decay_mult: 1
  }
  param {
    lr_mult: 2
    decay_mult: 0
  }
  convolution_param {
    num_output: 192
    pad: 1
    kernel_size: 3
    weight_filler {
      type: "xavier"
      std: 0.03
    }
    bias_filler {
      type: "constant"
      value: 0.2
    }
  }
}
layer {
  name: "inception_3b/relu_3x3"
  type: "ReLU"
  bottom: "inception_3b/3x3"
  top: "inception_3b/3x3"
}
layer {
  name: "inception_3b/5x5_reduce"
  type: "Convolution"
  bottom: "inception_3a/output"
  top: "inception_3b/5x5_reduce"
  param {
    lr_mult: 1
    decay_mult: 1
  }
  param {
    lr_mult: 2
    decay_mult: 0
  }
  convolution_param {
    num_output: 32
    kernel_size: 1
    weight_filler {
      type: "xavier"
      std: 0.2
    }
    bias_filler {
      type: "constant"
      value: 0.2
    }
  }
}
layer {
  name: "inception_3b/relu_5x5_reduce"
  type: "ReLU"
  bottom: "inception_3b/5x5_reduce"
  top: "inception_3b/5x5_reduce"
}
layer {
  name: "inception_3b/5x5"
  type: "Convolution"
  bottom: "inception_3b/5x5_reduce"
  top: "inception_3b/5x5"
  param {
    lr_mult: 1
    decay_mult: 1
  }
  param {
    lr_mult: 2
    decay_mult: 0
  }
  convolution_param {
    num_output: 96
    pad: 2
    kernel_size: 5
    weight_filler {
      type: "xavier"
      std: 0.03
    }
    bias_filler {
      type: "constant"
      value: 0.2
    }
  }
}
layer {
  name: "inception_3b/relu_5x5"
  type: "ReLU"
  bottom: "inception_3b/5x5"
  top: "inception_3b/5x5"
}
layer {
  name: "inception_3b/pool"
  type: "Pooling"
  bottom: "inception_3a/output"
  top: "inception_3b/pool"
  pooling_param {
    pool: MAX
    kernel_size: 3
    stride: 1
    pad: 1
  }
}
layer {
  name: "inception_3b/pool_proj"
  type: "Convolution"
  bottom: "inception_3b/pool"
  top: "inception_3b/pool_proj"
  param {
    lr_mult: 1
    decay_mult: 1
  }
  param {
    lr_mult: 2
    decay_mult: 0
  }
  convolution_param {
    num_output: 64
    kernel_size: 1
    weight_filler {
      type: "xavier"
      std: 0.1
    }
    bias_filler {
      type: "constant"
      value: 0.2
    }
  }
}
layer {
  name: "inception_3b/relu_pool_proj"
  type: "ReLU"
  bottom: "inception_3b/pool_proj"
  top: "inception_3b/pool_proj"
}
layer {
  name: "inception_3b/output"
  type: "Concat"
  bottom: "inception_3b/1x1"
  bottom: "inception_3b/3x3"
  bottom: "inception_3b/5x5"
  bottom: "inception_3b/pool_proj"
  top: "inception_3b/output"
}
layer {
  name: "pool3/3x3_s2"
  type: "Pooling"
  bottom: "inception_3b/output"
  top: "pool3/3x3_s2"
  pooling_param {
    pool: MAX
    kernel_size: 3
    stride: 2
  }
}
layer {
  name: "inception_4a/1x1"
  type: "Convolution"
  bottom: "pool3/3x3_s2"
  top: "inception_4a/1x1"
  param {
    lr_mult: 1
    decay_mult: 1
  }
  param {
    lr_mult: 2
    decay_mult: 0
  }
  convolution_param {
    num_output: 192
    kernel_size: 1
    weight_filler {
      type: "xavier"
      std: 0.03
    }
    bias_filler {
      type: "constant"
      value: 0.2
    }
  }
}
layer {
  name: "inception_4a/relu_1x1"
  type: "ReLU"
  bottom: "inception_4a/1x1"
  top: "inception_4a/1x1"
}
layer {
  name: "inception_4a/3x3_reduce"
  type: "Convolution"
  bottom: "pool3/3x3_s2"
  top: "inception_4a/3x3_reduce"
  param {
    lr_mult: 1
    decay_mult: 1
  }
  param {
    lr_mult: 2
    decay_mult: 0
  }
  convolution_param {
    num_output: 96
    kernel_size: 1
    weight_filler {
      type: "xavier"
      std: 0.09
    }
    bias_filler {
      type: "constant"
      value: 0.2
    }
  }
}
layer {
  name: "inception_4a/relu_3x3_reduce"
  type: "ReLU"
  bottom: "inception_4a/3x3_reduce"
  top: "inception_4a/3x3_reduce"
}
layer {
  name: "inception_4a/3x3"
  type: "Convolution"
  bottom: "inception_4a/3x3_reduce"
  top: "inception_4a/3x3"
  param {
    lr_mult: 1
    decay_mult: 1
  }
  param {
    lr_mult: 2
    decay_mult: 0
  }
  convolution_param {
    num_output: 208
    pad: 1
    kernel_size: 3
    weight_filler {
      type: "xavier"
      std: 0.03
    }
    bias_filler {
      type: "constant"
      value: 0.2
    }
  }
}
layer {
  name: "inception_4a/relu_3x3"
  type: "ReLU"
  bottom: "inception_4a/3x3"
  top: "inception_4a/3x3"
}
layer {
  name: "inception_4a/5x5_reduce"
  type: "Convolution"
  bottom: "pool3/3x3_s2"
  top: "inception_4a/5x5_reduce"
  param {
    lr_mult: 1
    decay_mult: 1
  }
  param {
    lr_mult: 2
    decay_mult: 0
  }
  convolution_param {
    num_output: 16
    kernel_size: 1
    weight_filler {
      type: "xavier"
      std: 0.2
    }
    bias_filler {
      type: "constant"
      value: 0.2
    }
  }
}
layer {
  name: "inception_4a/relu_5x5_reduce"
  type: "ReLU"
  bottom: "inception_4a/5x5_reduce"
  top: "inception_4a/5x5_reduce"
}
layer {
  name: "inception_4a/5x5"
  type: "Convolution"
  bottom: "inception_4a/5x5_reduce"
  top: "inception_4a/5x5"
  param {
    lr_mult: 1
    decay_mult: 1
  }
  param {
    lr_mult: 2
    decay_mult: 0
  }
  convolution_param {
    num_output: 48
    pad: 2
    kernel_size: 5
    weight_filler {
      type: "xavier"
      std: 0.03
    }
    bias_filler {
      type: "constant"
      value: 0.2
    }
  }
}
layer {
  name: "inception_4a/relu_5x5"
  type: "ReLU"
  bottom: "inception_4a/5x5"
  top: "inception_4a/5x5"
}
layer {
  name: "inception_4a/pool"
  type: "Pooling"
  bottom: "pool3/3x3_s2"
  top: "inception_4a/pool"
  pooling_param {
    pool: MAX
    kernel_size: 3
    stride: 1
    pad: 1
  }
}
layer {
  name: "inception_4a/pool_proj"
  type: "Convolution"
  bottom: "inception_4a/pool"
  top: "inception_4a/pool_proj"
  param {
    lr_mult: 1
    decay_mult: 1
  }
  param {
    lr_mult: 2
    decay_mult: 0
  }
  convolution_param {
    num_output: 64
    kernel_size: 1
    weight_filler {
      type: "xavier"
      std: 0.1
    }
    bias_filler {
      type: "constant"
      value: 0.2
    }
  }
}
layer {
  name: "inception_4a/relu_pool_proj"
  type: "ReLU"
  bottom: "inception_4a/pool_proj"
  top: "inception_4a/pool_proj"
}
layer {
  name: "inception_4a/output"
  type: "Concat"
  bottom: "inception_4a/1x1"
  bottom: "inception_4a/3x3"
  bottom: "inception_4a/5x5"
  bottom: "inception_4a/pool_proj"
  top: "inception_4a/output"
}
layer {
  name: "inception_4b/1x1"
  type: "Convolution"
  bottom: "inception_4a/output"
  top: "inception_4b/1x1"
  param {
    lr_mult: 1
    decay_mult: 1
  }
  param {
    lr_mult: 2
    decay_mult: 0
  }
  convolution_param {
    num_output: 160
    kernel_size: 1
    weight_filler {
      type: "xavier"
      std: 0.03
    }
    bias_filler {
      type: "constant"
      value: 0.2
    }
  }
}
layer {
  name: "inception_4b/relu_1x1"
  type: "ReLU"
  bottom: "inception_4b/1x1"
  top: "inception_4b/1x1"
}
layer {
  name: "inception_4b/3x3_reduce"
  type: "Convolution"
  bottom: "inception_4a/output"
  top: "inception_4b/3x3_reduce"
  param {
    lr_mult: 1
    decay_mult: 1
  }
  param {
    lr_mult: 2
    decay_mult: 0
  }
  convolution_param {
    num_output: 112
    kernel_size: 1
    weight_filler {
      type: "xavier"
      std: 0.09
    }
    bias_filler {
      type: "constant"
      value: 0.2
    }
  }
}
layer {
  name: "inception_4b/relu_3x3_reduce"
  type: "ReLU"
  bottom: "inception_4b/3x3_reduce"
  top: "inception_4b/3x3_reduce"
}
layer {
  name: "inception_4b/3x3"
  type: "Convolution"
  bottom: "inception_4b/3x3_reduce"
  top: "inception_4b/3x3"
  param {
    lr_mult: 1
    decay_mult: 1
  }
  param {
    lr_mult: 2
    decay_mult: 0
  }
  convolution_param {
    num_output: 224
    pad: 1
    kernel_size: 3
    weight_filler {
      type: "xavier"
      std: 0.03
    }
    bias_filler {
      type: "constant"
      value: 0.2
    }
  }
}
layer {
  name: "inception_4b/relu_3x3"
  type: "ReLU"
  bottom: "inception_4b/3x3"
  top: "inception_4b/3x3"
}
layer {
  name: "inception_4b/5x5_reduce"
  type: "Convolution"
  bottom: "inception_4a/output"
  top: "inception_4b/5x5_reduce"
  param {
    lr_mult: 1
    decay_mult: 1
  }
  param {
    lr_mult: 2
    decay_mult: 0
  }
  convolution_param {
    num_output: 24
    kernel_size: 1
    weight_filler {
      type: "xavier"
      std: 0.2
    }
    bias_filler {
      type: "constant"
      value: 0.2
    }
  }
}
layer {
  name: "inception_4b/relu_5x5_reduce"
  type: "ReLU"
  bottom: "inception_4b/5x5_reduce"
  top: "inception_4b/5x5_reduce"
}
layer {
  name: "inception_4b/5x5"
  type: "Convolution"
  bottom: "inception_4b/5x5_reduce"
  top: "inception_4b/5x5"
  param {
    lr_mult: 1
    decay_mult: 1
  }
  param {
    lr_mult: 2
    decay_mult: 0
  }
  convolution_param {
    num_output: 64
    pad: 2
    kernel_size: 5
    weight_filler {
      type: "xavier"
      std: 0.03
    }
    bias_filler {
      type: "constant"
      value: 0.2
    }
  }
}
layer {
  name: "inception_4b/relu_5x5"
  type: "ReLU"
  bottom: "inception_4b/5x5"
  top: "inception_4b/5x5"
}
layer {
  name: "inception_4b/pool"
  type: "Pooling"
  bottom: "inception_4a/output"
  top: "inception_4b/pool"
  pooling_param {
    pool: MAX
    kernel_size: 3
    stride: 1
    pad: 1
  }
}
layer {
  name: "inception_4b/pool_proj"
  type: "Convolution"
  bottom: "inception_4b/pool"
  top: "inception_4b/pool_proj"
  param {
    lr_mult: 1
    decay_mult: 1
  }
  param {
    lr_mult: 2
    decay_mult: 0
  }
  convolution_param {
    num_output: 64
    kernel_size: 1
    weight_filler {
      type: "xavier"
      std: 0.1
    }
    bias_filler {
      type: "constant"
      value: 0.2
    }
  }
}
layer {
  name: "inception_4b/relu_pool_proj"
  type: "ReLU"
  bottom: "inception_4b/pool_proj"
  top: "inception_4b/pool_proj"
}
layer {
  name: "inception_4b/output"
  type: "Concat"
  bottom: "inception_4b/1x1"
  bottom: "inception_4b/3x3"
  bottom: "inception_4b/5x5"
  bottom: "inception_4b/pool_proj"
  top: "inception_4b/output"
}
layer {
  name: "inception_4c/1x1"
  type: "Convolution"
  bottom: "inception_4b/output"
  top: "inception_4c/1x1"
  param {
    lr_mult: 1
    decay_mult: 1
  }
  param {
    lr_mult: 2
    decay_mult: 0
  }
  convolution_param {
    num_output: 128
    kernel_size: 1
    weight_filler {
      type: "xavier"
      std: 0.03
    }
    bias_filler {
      type: "constant"
      value: 0.2
    }
  }
}
layer {
  name: "inception_4c/relu_1x1"
  type: "ReLU"
  bottom: "inception_4c/1x1"
  top: "inception_4c/1x1"
}
layer {
  name: "inception_4c/3x3_reduce"
  type: "Convolution"
  bottom: "inception_4b/output"
  top: "inception_4c/3x3_reduce"
  param {
    lr_mult: 1
    decay_mult: 1
  }
  param {
    lr_mult: 2
    decay_mult: 0
  }
  convolution_param {
    num_output: 128
    kernel_size: 1
    weight_filler {
      type: "xavier"
      std: 0.09
    }
    bias_filler {
      type: "constant"
      value: 0.2
    }
  }
}
layer {
  name: "inception_4c/relu_3x3_reduce"
  type: "ReLU"
  bottom: "inception_4c/3x3_reduce"
  top: "inception_4c/3x3_reduce"
}
layer {
  name: "inception_4c/3x3"
  type: "Convolution"
  bottom: "inception_4c/3x3_reduce"
  top: "inception_4c/3x3"
  param {
    lr_mult: 1
    decay_mult: 1
  }
  param {
    lr_mult: 2
    decay_mult: 0
  }
  convolution_param {
    num_output: 256
    pad: 1
    kernel_size: 3
    weight_filler {
      type: "xavier"
      std: 0.03
    }
    bias_filler {
      type: "constant"
      value: 0.2
    }
  }
}
layer {
  name: "inception_4c/relu_3x3"
  type: "ReLU"
  bottom: "inception_4c/3x3"
  top: "inception_4c/3x3"
}
layer {
  name: "inception_4c/5x5_reduce"
  type: "Convolution"
  bottom: "inception_4b/output"
  top: "inception_4c/5x5_reduce"
  param {
    lr_mult: 1
    decay_mult: 1
  }
  param {
    lr_mult: 2
    decay_mult: 0
  }
  convolution_param {
    num_output: 24
    kernel_size: 1
    weight_filler {
      type: "xavier"
      std: 0.2
    }
    bias_filler {
      type: "constant"
      value: 0.2
    }
  }
}
layer {
  name: "inception_4c/relu_5x5_reduce"
  type: "ReLU"
  bottom: "inception_4c/5x5_reduce"
  top: "inception_4c/5x5_reduce"
}
layer {
  name: "inception_4c/5x5"
  type: "Convolution"
  bottom: "inception_4c/5x5_reduce"
  top: "inception_4c/5x5"
  param {
    lr_mult: 1
    decay_mult: 1
  }
  param {
    lr_mult: 2
    decay_mult: 0
  }
  convolution_param {
    num_output: 64
    pad: 2
    kernel_size: 5
    weight_filler {
      type: "xavier"
      std: 0.03
    }
    bias_filler {
      type: "constant"
      value: 0.2
    }
  }
}
layer {
  name: "inception_4c/relu_5x5"
  type: "ReLU"
  bottom: "inception_4c/5x5"
  top: "inception_4c/5x5"
}
layer {
  name: "inception_4c/pool"
  type: "Pooling"
  bottom: "inception_4b/output"
  top: "inception_4c/pool"
  pooling_param {
    pool: MAX
    kernel_size: 3
    stride: 1
    pad: 1
  }
}
layer {
  name: "inception_4c/pool_proj"
  type: "Convolution"
  bottom: "inception_4c/pool"
  top: "inception_4c/pool_proj"
  param {
    lr_mult: 1
    decay_mult: 1
  }
  param {
    lr_mult: 2
    decay_mult: 0
  }
  convolution_param {
    num_output: 64
    kernel_size: 1
    weight_filler {
      type: "xavier"
      std: 0.1
    }
    bias_filler {
      type: "constant"
      value: 0.2
    }
  }
}
layer {
  name: "inception_4c/relu_pool_proj"
  type: "ReLU"
  bottom: "inception_4c/pool_proj"
  top: "inception_4c/pool_proj"
}
layer {
  name: "inception_4c/output"
  type: "Concat"
  bottom: "inception_4c/1x1"
  bottom: "inception_4c/3x3"
  bottom: "inception_4c/5x5"
  bottom: "inception_4c/pool_proj"
  top: "inception_4c/output"
}
layer {
  name: "inception_4d/1x1"
  type: "Convolution"
  bottom: "inception_4c/output"
  top: "inception_4d/1x1"
  param {
    lr_mult: 1
    decay_mult: 1
  }
  param {
    lr_mult: 2
    decay_mult: 0
  }
  convolution_param {
    num_output: 112
    kernel_size: 1
    weight_filler {
      type: "xavier"
      std: 0.03
    }
    bias_filler {
      type: "constant"
      value: 0.2
    }
  }
}
layer {
  name: "inception_4d/relu_1x1"
  type: "ReLU"
  bottom: "inception_4d/1x1"
  top: "inception_4d/1x1"
}
layer {
  name: "inception_4d/3x3_reduce"
  type: "Convolution"
  bottom: "inception_4c/output"
  top: "inception_4d/3x3_reduce"
  param {
    lr_mult: 1
    decay_mult: 1
  }
  param {
    lr_mult: 2
    decay_mult: 0
  }
  convolution_param {
    num_output: 144
    kernel_size: 1
    weight_filler {
      type: "xavier"
      std: 0.09
    }
    bias_filler {
      type: "constant"
      value: 0.2
    }
  }
}
layer {
  name: "inception_4d/relu_3x3_reduce"
  type: "ReLU"
  bottom: "inception_4d/3x3_reduce"
  top: "inception_4d/3x3_reduce"
}
layer {
  name: "inception_4d/3x3"
  type: "Convolution"
  bottom: "inception_4d/3x3_reduce"
  top: "inception_4d/3x3"
  param {
    lr_mult: 1
    decay_mult: 1
  }
  param {
    lr_mult: 2
    decay_mult: 0
  }
  convolution_param {
    num_output: 288
    pad: 1
    kernel_size: 3
    weight_filler {
      type: "xavier"
      std: 0.03
    }
    bias_filler {
      type: "constant"
      value: 0.2
    }
  }
}
layer {
  name: "inception_4d/relu_3x3"
  type: "ReLU"
  bottom: "inception_4d/3x3"
  top: "inception_4d/3x3"
}
layer {
  name: "inception_4d/5x5_reduce"
  type: "Convolution"
  bottom: "inception_4c/output"
  top: "inception_4d/5x5_reduce"
  param {
    lr_mult: 1
    decay_mult: 1
  }
  param {
    lr_mult: 2
    decay_mult: 0
  }
  convolution_param {
    num_output: 32
    kernel_size: 1
    weight_filler {
      type: "xavier"
      std: 0.2
    }
    bias_filler {
      type: "constant"
      value: 0.2
    }
  }
}
layer {
  name: "inception_4d/relu_5x5_reduce"
  type: "ReLU"
  bottom: "inception_4d/5x5_reduce"
  top: "inception_4d/5x5_reduce"
}
layer {
  name: "inception_4d/5x5"
  type: "Convolution"
  bottom: "inception_4d/5x5_reduce"
  top: "inception_4d/5x5"
  param {
    lr_mult: 1
    decay_mult: 1
  }
  param {
    lr_mult: 2
    decay_mult: 0
  }
  convolution_param {
    num_output: 64
    pad: 2
    kernel_size: 5
    weight_filler {
      type: "xavier"
      std: 0.03
    }
    bias_filler {
      type: "constant"
      value: 0.2
    }
  }
}
layer {
  name: "inception_4d/relu_5x5"
  type: "ReLU"
  bottom: "inception_4d/5x5"
  top: "inception_4d/5x5"
}
layer {
  name: "inception_4d/pool"
  type: "Pooling"
  bottom: "inception_4c/output"
  top: "inception_4d/pool"
  pooling_param {
    pool: MAX
    kernel_size: 3
    stride: 1
    pad: 1
  }
}
layer {
  name: "inception_4d/pool_proj"
  type: "Convolution"
  bottom: "inception_4d/pool"
  top: "inception_4d/pool_proj"
  param {
    lr_mult: 1
    decay_mult: 1
  }
  param {
    lr_mult: 2
    decay_mult: 0
  }
  convolution_param {
    num_output: 64
    kernel_size: 1
    weight_filler {
      type: "xavier"
      std: 0.1
    }
    bias_filler {
      type: "constant"
      value: 0.2
    }
  }
}
layer {
  name: "inception_4d/relu_pool_proj"
  type: "ReLU"
  bottom: "inception_4d/pool_proj"
  top: "inception_4d/pool_proj"
}
layer {
  name: "inception_4d/output"
  type: "Concat"
  bottom: "inception_4d/1x1"
  bottom: "inception_4d/3x3"
  bottom: "inception_4d/5x5"
  bottom: "inception_4d/pool_proj"
  top: "inception_4d/output"
}
layer {
  name: "inception_4e/1x1"
  type: "Convolution"
  bottom: "inception_4d/output"
  top: "inception_4e/1x1"
  param {
    lr_mult: 1
    decay_mult: 1
  }
  param {
    lr_mult: 2
    decay_mult: 0
  }
  convolution_param {
    num_output: 256
    kernel_size: 1
    weight_filler {
      type: "xavier"
      std: 0.03
    }
    bias_filler {
      type: "constant"
      value: 0.2
    }
  }
}
layer {
  name: "inception_4e/relu_1x1"
  type: "ReLU"
  bottom: "inception_4e/1x1"
  top: "inception_4e/1x1"
}
layer {
  name: "inception_4e/3x3_reduce"
  type: "Convolution"
  bottom: "inception_4d/output"
  top: "inception_4e/3x3_reduce"
  param {
    lr_mult: 1
    decay_mult: 1
  }
  param {
    lr_mult: 2
    decay_mult: 0
  }
  convolution_param {
    num_output: 160
    kernel_size: 1
    weight_filler {
      type: "xavier"
      std: 0.09
    }
    bias_filler {
      type: "constant"
      value: 0.2
    }
  }
}
layer {
  name: "inception_4e/relu_3x3_reduce"
  type: "ReLU"
  bottom: "inception_4e/3x3_reduce"
  top: "inception_4e/3x3_reduce"
}
layer {
  name: "inception_4e/3x3"
  type: "Convolution"
  bottom: "inception_4e/3x3_reduce"
  top: "inception_4e/3x3"
  param {
    lr_mult: 1
    decay_mult: 1
  }
  param {
    lr_mult: 2
    decay_mult: 0
  }
  convolution_param {
    num_output: 320
    pad: 1
    kernel_size: 3
    weight_filler {
      type: "xavier"
      std: 0.03
    }
    bias_filler {
      type: "constant"
      value: 0.2
    }
  }
}
layer {
  name: "inception_4e/relu_3x3"
  type: "ReLU"
  bottom: "inception_4e/3x3"
  top: "inception_4e/3x3"
}
layer {
  name: "inception_4e/5x5_reduce"
  type: "Convolution"
  bottom: "inception_4d/output"
  top: "inception_4e/5x5_reduce"
  param {
    lr_mult: 1
    decay_mult: 1
  }
  param {
    lr_mult: 2
    decay_mult: 0
  }
  convolution_param {
    num_output: 32
    kernel_size: 1
    weight_filler {
      type: "xavier"
      std: 0.2
    }
    bias_filler {
      type: "constant"
      value: 0.2
    }
  }
}
layer {
  name: "inception_4e/relu_5x5_reduce"
  type: "ReLU"
  bottom: "inception_4e/5x5_reduce"
  top: "inception_4e/5x5_reduce"
}
layer {
  name: "inception_4e/5x5"
  type: "Convolution"
  bottom: "inception_4e/5x5_reduce"
  top: "inception_4e/5x5"
  param {
    lr_mult: 1
    decay_mult: 1
  }
  param {
    lr_mult: 2
    decay_mult: 0
  }
  convolution_param {
    num_output: 128
    pad: 2
    kernel_size: 5
    weight_filler {
      type: "xavier"
      std: 0.03
    }
    bias_filler {
      type: "constant"
      value: 0.2
    }
  }
}
layer {
  name: "inception_4e/relu_5x5"
  type: "ReLU"
  bottom: "inception_4e/5x5"
  top: "inception_4e/5x5"
}
layer {
  name: "inception_4e/pool"
  type: "Pooling"
  bottom: "inception_4d/output"
  top: "inception_4e/pool"
  pooling_param {
    pool: MAX
    kernel_size: 3
    stride: 1
    pad: 1
  }
}
layer {
  name: "inception_4e/pool_proj"
  type: "Convolution"
  bottom: "inception_4e/pool"
  top: "inception_4e/pool_proj"
  param {
    lr_mult: 1
    decay_mult: 1
  }
  param {
    lr_mult: 2
    decay_mult: 0
  }
  convolution_param {
    num_output: 128
    kernel_size: 1
    weight_filler {
      type: "xavier"
      std: 0.1
    }
    bias_filler {
      type: "constant"
      value: 0.2
    }
  }
}
layer {
  name: "inception_4e/relu_pool_proj"
  type: "ReLU"
  bottom: "inception_4e/pool_proj"
  top: "inception_4e/pool_proj"
}
layer {
  name: "inception_4e/output"
  type: "Concat"
  bottom: "inception_4e/1x1"
  bottom: "inception_4e/3x3"
  bottom: "inception_4e/5x5"
  bottom: "inception_4e/pool_proj"
  top: "inception_4e/output"
}
layer {
  name: "pool4/3x3_s2"
  type: "Pooling"
  bottom: "inception_4e/output"
  top: "pool4/3x3_s2"
  pooling_param {
    pool: MAX
    kernel_size: 3
    stride: 2
  }
}
layer {
  name: "inception_5a/1x1"
  type: "Convolution"
  bottom: "pool4/3x3_s2"
  top: "inception_5a/1x1"
  param {
    lr_mult: 1
    decay_mult: 1
  }
  param {
    lr_mult: 2
    decay_mult: 0
  }
  convolution_param {
    num_output: 256
    kernel_size: 1
    weight_filler {
      type: "xavier"
      std: 0.03
    }
    bias_filler {
      type: "constant"
      value: 0.2
    }
  }
}
layer {
  name: "inception_5a/relu_1x1"
  type: "ReLU"
  bottom: "inception_5a/1x1"
  top: "inception_5a/1x1"
}
layer {
  name: "inception_5a/3x3_reduce"
  type: "Convolution"
  bottom: "pool4/3x3_s2"
  top: "inception_5a/3x3_reduce"
  param {
    lr_mult: 1
    decay_mult: 1
  }
  param {
    lr_mult: 2
    decay_mult: 0
  }
  convolution_param {
    num_output: 160
    kernel_size: 1
    weight_filler {
      type: "xavier"
      std: 0.09
    }
    bias_filler {
      type: "constant"
      value: 0.2
    }
  }
}
layer {
  name: "inception_5a/relu_3x3_reduce"
  type: "ReLU"
  bottom: "inception_5a/3x3_reduce"
  top: "inception_5a/3x3_reduce"
}
layer {
  name: "inception_5a/3x3"
  type: "Convolution"
  bottom: "inception_5a/3x3_reduce"
  top: "inception_5a/3x3"
  param {
    lr_mult: 1
    decay_mult: 1
  }
  param {
    lr_mult: 2
    decay_mult: 0
  }
  convolution_param {
    num_output: 320
    pad: 1
    kernel_size: 3
    weight_filler {
      type: "xavier"
      std: 0.03
    }
    bias_filler {
      type: "constant"
      value: 0.2
    }
  }
}
layer {
  name: "inception_5a/relu_3x3"
  type: "ReLU"
  bottom: "inception_5a/3x3"
  top: "inception_5a/3x3"
}
layer {
  name: "inception_5a/5x5_reduce"
  type: "Convolution"
  bottom: "pool4/3x3_s2"
  top: "inception_5a/5x5_reduce"
  param {
    lr_mult: 1
    decay_mult: 1
  }
  param {
    lr_mult: 2
    decay_mult: 0
  }
  convolution_param {
    num_output: 32
    kernel_size: 1
    weight_filler {
      type: "xavier"
      std: 0.2
    }
    bias_filler {
      type: "constant"
      value: 0.2
    }
I0714 20:50:23.313238  8069 layer_factory.hpp:77] Creating layer data
I0714 20:50:23.313271  8069 net.cpp:91] Creating Layer data
I0714 20:50:23.313282  8069 net.cpp:399] data -> data
I0714 20:50:23.319701  8073 net.cpp:49] Initializing net from parameters: 
name: "GoogleNet"
state {
  phase: TEST
}
layer {
  name: "data"
  type: "Input"
  top: "data"
  input_param {
    shape {
      dim: 10
      dim: 3
      dim: 224
      dim: 224
    }
  }
}
layer {
  name: "conv1/7x7_s2"
  type: "Convolution"
  bottom: "data"
  top: "conv1/7x7_s2"
  param {
    lr_mult: 1
    decay_mult: 1
  }
  param {
    lr_mult: 2
    decay_mult: 0
  }
  convolution_param {
    num_output: 64
    pad: 3
    kernel_size: 7
    stride: 2
    weight_filler {
      type: "xavier"
      std: 0.1
    }
    bias_filler {
      type: "constant"
      value: 0.2
    }
  }
}
layer {
  name: "conv1/relu_7x7"
  type: "ReLU"
  bottom: "conv1/7x7_s2"
  top: "conv1/7x7_s2"
}
layer {
  name: "pool1/3x3_s2"
  type: "Pooling"
  bottom: "conv1/7x7_s2"
  top: "pool1/3x3_s2"
  pooling_param {
    pool: MAX
    kernel_size: 3
    stride: 2
  }
}
layer {
  name: "pool1/norm1"
  type: "LRN"
  bottom: "pool1/3x3_s2"
  top: "pool1/norm1"
  lrn_param {
    local_size: 5
    alpha: 0.0001
    beta: 0.75
  }
}
layer {
  name: "conv2/3x3_reduce"
  type: "Convolution"
  bottom: "pool1/norm1"
  top: "conv2/3x3_reduce"
  param {
    lr_mult: 1
    decay_mult: 1
  }
  param {
    lr_mult: 2
    decay_mult: 0
  }
  convolution_param {
    num_output: 64
    kernel_size: 1
    weight_filler {
      type: "xavier"
      std: 0.1
    }
    bias_filler {
      type: "constant"
      value: 0.2
    }
  }
}
layer {
  name: "conv2/relu_3x3_reduce"
  type: "ReLU"
  bottom: "conv2/3x3_reduce"
  top: "conv2/3x3_reduce"
}
layer {
  name: "conv2/3x3"
  type: "Convolution"
  bottom: "conv2/3x3_reduce"
  top: "conv2/3x3"
  param {
    lr_mult: 1
    decay_mult: 1
  }
  param {
    lr_mult: 2
    decay_mult: 0
  }
  convolution_param {
    num_output: 192
    pad: 1
    kernel_size: 3
    weight_filler {
      type: "xavier"
      std: 0.03
    }
    bias_filler {
      type: "constant"
      value: 0.2
    }
  }
}
layer {
  name: "conv2/relu_3x3"
  type: "ReLU"
  bottom: "conv2/3x3"
  top: "conv2/3x3"
}
layer {
  name: "conv2/norm2"
  type: "LRN"
  bottom: "conv2/3x3"
  top: "conv2/norm2"
  lrn_param {
    local_size: 5
    alpha: 0.0001
    beta: 0.75
  }
}
layer {
  name: "pool2/3x3_s2"
  type: "Pooling"
  bottom: "conv2/norm2"
  top: "pool2/3x3_s2"
  pooling_param {
    pool: MAX
    kernel_size: 3
    stride: 2
  }
}
layer {
  name: "inception_3a/1x1"
  type: "Convolution"
  bottom: "pool2/3x3_s2"
  top: "inception_3a/1x1"
  param {
    lr_mult: 1
    decay_mult: 1
  }
  param {
    lr_mult: 2
    decay_mult: 0
  }
  convolution_param {
    num_output: 64
    kernel_size: 1
    weight_filler {
      type: "xavier"
      std: 0.03
    }
    bias_filler {
      type: "constant"
      value: 0.2
    }
  }
}
layer {
  name: "inception_3a/relu_1x1"
  type: "ReLU"
  bottom: "inception_3a/1x1"
  top: "inception_3a/1x1"
}
layer {
  name: "inception_3a/3x3_reduce"
  type: "Convolution"
  bottom: "pool2/3x3_s2"
  top: "inception_3a/3x3_reduce"
  param {
    lr_mult: 1
    decay_mult: 1
  }
  param {
    lr_mult: 2
    decay_mult: 0
  }
  convolution_param {
    num_output: 96
    kernel_size: 1
    weight_filler {
      type: "xavier"
      std: 0.09
    }
    bias_filler {
      type: "constant"
      value: 0.2
    }
  }
}
layer {
  name: "inception_3a/relu_3x3_reduce"
  type: "ReLU"
  bottom: "inception_3a/3x3_reduce"
  top: "inception_3a/3x3_reduce"
}
layer {
  name: "inception_3a/3x3"
  type: "Convolution"
  bottom: "inception_3a/3x3_reduce"
  top: "inception_3a/3x3"
  param {
    lr_mult: 1
    decay_mult: 1
  }
  param {
    lr_mult: 2
    decay_mult: 0
  }
  convolution_param {
    num_output: 128
    pad: 1
    kernel_size: 3
    weight_filler {
      type: "xavier"
      std: 0.03
    }
    bias_filler {
      type: "constant"
      value: 0.2
    }
  }
}
layer {
  name: "inception_3a/relu_3x3"
  type: "ReLU"
  bottom: "inception_3a/3x3"
  top: "inception_3a/3x3"
}
layer {
  name: "inception_3a/5x5_reduce"
  type: "Convolution"
  bottom: "pool2/3x3_s2"
  top: "inception_3a/5x5_reduce"
  param {
    lr_mult: 1
    decay_mult: 1
  }
  param {
    lr_mult: 2
    decay_mult: 0
  }
  convolution_param {
    num_output: 16
    kernel_size: 1
    weight_filler {
      type: "xavier"
      std: 0.2
    }
    bias_filler {
      type: "constant"
      value: 0.2
    }
  }
}
layer {
  name: "inception_3a/relu_5x5_reduce"
  type: "ReLU"
  bottom: "inception_3a/5x5_reduce"
  top: "inception_3a/5x5_reduce"
}
layer {
  name: "inception_3a/5x5"
  type: "Convolution"
  bottom: "inception_3a/5x5_reduce"
  top: "inception_3a/5x5"
  param {
    lr_mult: 1
    decay_mult: 1
  }
  param {
    lr_mult: 2
    decay_mult: 0
  }
  convolution_param {
    num_output: 32
    pad: 2
    kernel_size: 5
    weight_filler {
      type: "xavier"
      std: 0.03
    }
    bias_filler {
      type: "constant"
      value: 0.2
    }
  }
}
layer {
  name: "inception_3a/relu_5x5"
  type: "ReLU"
  bottom: "inception_3a/5x5"
  top: "inception_3a/5x5"
}
layer {
  name: "inception_3a/pool"
  type: "Pooling"
  bottom: "pool2/3x3_s2"
  top: "inception_3a/pool"
  pooling_param {
    pool: MAX
    kernel_size: 3
    stride: 1
    pad: 1
  }
}
layer {
  name: "inception_3a/pool_proj"
  type: "Convolution"
  bottom: "inception_3a/pool"
  top: "inception_3a/pool_proj"
  param {
    lr_mult: 1
    decay_mult: 1
  }
  param {
    lr_mult: 2
    decay_mult: 0
  }
  convolution_param {
    num_output: 32
    kernel_size: 1
    weight_filler {
      type: "xavier"
      std: 0.1
    }
    bias_filler {
      type: "constant"
      value: 0.2
    }
  }
}
layer {
  name: "inception_3a/relu_pool_proj"
  type: "ReLU"
  bottom: "inception_3a/pool_proj"
  top: "inception_3a/pool_proj"
}
layer {
  name: "inception_3a/output"
  type: "Concat"
  bottom: "inception_3a/1x1"
  bottom: "inception_3a/3x3"
  bottom: "inception_3a/5x5"
  bottom: "inception_3a/pool_proj"
  top: "inception_3a/output"
}
layer {
  name: "inception_3b/1x1"
  type: "Convolution"
  bottom: "inception_3a/output"
  top: "inception_3b/1x1"
  param {
    lr_mult: 1
    decay_mult: 1
  }
  param {
    lr_mult: 2
    decay_mult: 0
  }
  convolution_param {
    num_output: 128
    kernel_size: 1
    weight_filler {
      type: "xavier"
      std: 0.03
    }
    bias_filler {
      type: "constant"
      value: 0.2
    }
  }
}
layer {
  name: "inception_3b/relu_1x1"
  type: "ReLU"
  bottom: "inception_3b/1x1"
  top: "inception_3b/1x1"
}
layer {
  name: "inception_3b/3x3_reduce"
  type: "Convolution"
  bottom: "inception_3a/output"
  top: "inception_3b/3x3_reduce"
  param {
    lr_mult: 1
    decay_mult: 1
  }
  param {
    lr_mult: 2
    decay_mult: 0
  }
  convolution_param {
    num_output: 128
    kernel_size: 1
    weight_filler {
      type: "xavier"
      std: 0.09
    }
    bias_filler {
      type: "constant"
      value: 0.2
    }
  }
}
layer {
  name: "inception_3b/relu_3x3_reduce"
  type: "ReLU"
  bottom: "inception_3b/3x3_reduce"
  top: "inception_3b/3x3_reduce"
}
layer {
  name: "inception_3b/3x3"
  type: "Convolution"
  bottom: "inception_3b/3x3_reduce"
  top: "inception_3b/3x3"
  param {
    lr_mult: 1
    decay_mult: 1
  }
  param {
    lr_mult: 2
    decay_mult: 0
  }
  convolution_param {
    num_output: 192
    pad: 1
    kernel_size: 3
    weight_filler {
      type: "xavier"
      std: 0.03
    }
    bias_filler {
      type: "constant"
      value: 0.2
    }
  }
}
layer {
  name: "inception_3b/relu_3x3"
  type: "ReLU"
  bottom: "inception_3b/3x3"
  top: "inception_3b/3x3"
}
layer {
  name: "inception_3b/5x5_reduce"
  type: "Convolution"
  bottom: "inception_3a/output"
  top: "inception_3b/5x5_reduce"
  param {
    lr_mult: 1
    decay_mult: 1
  }
  param {
    lr_mult: 2
    decay_mult: 0
  }
  convolution_param {
    num_output: 32
    kernel_size: 1
    weight_filler {
      type: "xavier"
      std: 0.2
    }
    bias_filler {
      type: "constant"
      value: 0.2
    }
  }
}
layer {
  name: "inception_3b/relu_5x5_reduce"
  type: "ReLU"
  bottom: "inception_3b/5x5_reduce"
  top: "inception_3b/5x5_reduce"
}
layer {
  name: "inception_3b/5x5"
  type: "Convolution"
  bottom: "inception_3b/5x5_reduce"
  top: "inception_3b/5x5"
  param {
    lr_mult: 1
    decay_mult: 1
  }
  param {
    lr_mult: 2
    decay_mult: 0
  }
  convolution_param {
    num_output: 96
    pad: 2
    kernel_size: 5
    weight_filler {
      type: "xavier"
      std: 0.03
    }
    bias_filler {
      type: "constant"
      value: 0.2
    }
  }
}
layer {
  name: "inception_3b/relu_5x5"
  type: "ReLU"
  bottom: "inception_3b/5x5"
  top: "inception_3b/5x5"
}
layer {
  name: "inception_3b/pool"
  type: "Pooling"
  bottom: "inception_3a/output"
  top: "inception_3b/pool"
  pooling_param {
    pool: MAX
    kernel_size: 3
    stride: 1
    pad: 1
  }
}
layer {
  name: "inception_3b/pool_proj"
  type: "Convolution"
  bottom: "inception_3b/pool"
  top: "inception_3b/pool_proj"
  param {
    lr_mult: 1
    decay_mult: 1
  }
  param {
    lr_mult: 2
    decay_mult: 0
  }
  convolution_param {
    num_output: 64
    kernel_size: 1
    weight_filler {
      type: "xavier"
      std: 0.1
    }
    bias_filler {
      type: "constant"
      value: 0.2
    }
  }
}
layer {
  name: "inception_3b/relu_pool_proj"
  type: "ReLU"
  bottom: "inception_3b/pool_proj"
  top: "inception_3b/pool_proj"
}
layer {
  name: "inception_3b/output"
  type: "Concat"
  bottom: "inception_3b/1x1"
  bottom: "inception_3b/3x3"
  bottom: "inception_3b/5x5"
  bottom: "inception_3b/pool_proj"
  top: "inception_3b/output"
}
layer {
  name: "pool3/3x3_s2"
  type: "Pooling"
  bottom: "inception_3b/output"
  top: "pool3/3x3_s2"
  pooling_param {
    pool: MAX
    kernel_size: 3
    stride: 2
  }
}
layer {
  name: "inception_4a/1x1"
  type: "Convolution"
  bottom: "pool3/3x3_s2"
  top: "inception_4a/1x1"
  param {
    lr_mult: 1
    decay_mult: 1
  }
  param {
    lr_mult: 2
    decay_mult: 0
  }
  convolution_param {
    num_output: 192
    kernel_size: 1
    weight_filler {
      type: "xavier"
      std: 0.03
    }
    bias_filler {
      type: "constant"
      value: 0.2
    }
  }
}
layer {
  name: "inception_4a/relu_1x1"
  type: "ReLU"
  bottom: "inception_4a/1x1"
  top: "inception_4a/1x1"
}
layer {
  name: "inception_4a/3x3_reduce"
  type: "Convolution"
  bottom: "pool3/3x3_s2"
  top: "inception_4a/3x3_reduce"
  param {
    lr_mult: 1
    decay_mult: 1
  }
  param {
    lr_mult: 2
    decay_mult: 0
  }
  convolution_param {
    num_output: 96
    kernel_size: 1
    weight_filler {
      type: "xavier"
      std: 0.09
    }
    bias_filler {
      type: "constant"
      value: 0.2
    }
  }
}
layer {
  name: "inception_4a/relu_3x3_reduce"
  type: "ReLU"
  bottom: "inception_4a/3x3_reduce"
  top: "inception_4a/3x3_reduce"
}
layer {
  name: "inception_4a/3x3"
  type: "Convolution"
  bottom: "inception_4a/3x3_reduce"
  top: "inception_4a/3x3"
  param {
    lr_mult: 1
    decay_mult: 1
  }
  param {
    lr_mult: 2
    decay_mult: 0
  }
  convolution_param {
    num_output: 208
    pad: 1
    kernel_size: 3
    weight_filler {
      type: "xavier"
      std: 0.03
    }
    bias_filler {
      type: "constant"
      value: 0.2
    }
  }
}
layer {
  name: "inception_4a/relu_3x3"
  type: "ReLU"
  bottom: "inception_4a/3x3"
  top: "inception_4a/3x3"
}
layer {
  name: "inception_4a/5x5_reduce"
  type: "Convolution"
  bottom: "pool3/3x3_s2"
  top: "inception_4a/5x5_reduce"
  param {
    lr_mult: 1
    decay_mult: 1
  }
  param {
    lr_mult: 2
    decay_mult: 0
  }
  convolution_param {
    num_output: 16
    kernel_size: 1
    weight_filler {
      type: "xavier"
      std: 0.2
    }
    bias_filler {
      type: "constant"
      value: 0.2
    }
  }
}
layer {
  name: "inception_4a/relu_5x5_reduce"
  type: "ReLU"
  bottom: "inception_4a/5x5_reduce"
  top: "inception_4a/5x5_reduce"
}
layer {
  name: "inception_4a/5x5"
  type: "Convolution"
  bottom: "inception_4a/5x5_reduce"
  top: "inception_4a/5x5"
  param {
    lr_mult: 1
    decay_mult: 1
  }
  param {
    lr_mult: 2
    decay_mult: 0
  }
  convolution_param {
    num_output: 48
    pad: 2
    kernel_size: 5
    weight_filler {
      type: "xavier"
      std: 0.03
    }
    bias_filler {
      type: "constant"
      value: 0.2
    }
  }
}
layer {
  name: "inception_4a/relu_5x5"
  type: "ReLU"
  bottom: "inception_4a/5x5"
  top: "inception_4a/5x5"
}
layer {
  name: "inception_4a/pool"
  type: "Pooling"
  bottom: "pool3/3x3_s2"
  top: "inception_4a/pool"
  pooling_param {
    pool: MAX
    kernel_size: 3
    stride: 1
    pad: 1
  }
}
layer {
  name: "inception_4a/pool_proj"
  type: "Convolution"
  bottom: "inception_4a/pool"
  top: "inception_4a/pool_proj"
  param {
    lr_mult: 1
    decay_mult: 1
  }
  param {
    lr_mult: 2
    decay_mult: 0
  }
  convolution_param {
    num_output: 64
    kernel_size: 1
    weight_filler {
      type: "xavier"
      std: 0.1
    }
    bias_filler {
      type: "constant"
      value: 0.2
    }
  }
}
layer {
  name: "inception_4a/relu_pool_proj"
  type: "ReLU"
  bottom: "inception_4a/pool_proj"
  top: "inception_4a/pool_proj"
}
layer {
  name: "inception_4a/output"
  type: "Concat"
  bottom: "inception_4a/1x1"
  bottom: "inception_4a/3x3"
  bottom: "inception_4a/5x5"
  bottom: "inception_4a/pool_proj"
  top: "inception_4a/output"
}
layer {
  name: "inception_4b/1x1"
  type: "Convolution"
  bottom: "inception_4a/output"
  top: "inception_4b/1x1"
  param {
    lr_mult: 1
    decay_mult: 1
  }
  param {
    lr_mult: 2
    decay_mult: 0
  }
  convolution_param {
    num_output: 160
    kernel_size: 1
    weight_filler {
      type: "xavier"
      std: 0.03
    }
    bias_filler {
      type: "constant"
      value: 0.2
    }
  }
}
layer {
  name: "inception_4b/relu_1x1"
  type: "ReLU"
  bottom: "inception_4b/1x1"
  top: "inception_4b/1x1"
}
layer {
  name: "inception_4b/3x3_reduce"
  type: "Convolution"
  bottom: "inception_4a/output"
  top: "inception_4b/3x3_reduce"
  param {
    lr_mult: 1
    decay_mult: 1
  }
  param {
    lr_mult: 2
    decay_mult: 0
  }
  convolution_param {
    num_output: 112
    kernel_size: 1
    weight_filler {
      type: "xavier"
      std: 0.09
    }
    bias_filler {
      type: "constant"
      value: 0.2
    }
  }
}
layer {
  name: "inception_4b/relu_3x3_reduce"
  type: "ReLU"
  bottom: "inception_4b/3x3_reduce"
  top: "inception_4b/3x3_reduce"
}
layer {
  name: "inception_4b/3x3"
  type: "Convolution"
  bottom: "inception_4b/3x3_reduce"
  top: "inception_4b/3x3"
  param {
    lr_mult: 1
    decay_mult: 1
  }
  param {
    lr_mult: 2
    decay_mult: 0
  }
  convolution_param {
    num_output: 224
    pad: 1
    kernel_size: 3
    weight_filler {
      type: "xavier"
      std: 0.03
    }
    bias_filler {
      type: "constant"
      value: 0.2
    }
  }
}
layer {
  name: "inception_4b/relu_3x3"
  type: "ReLU"
  bottom: "inception_4b/3x3"
  top: "inception_4b/3x3"
}
layer {
  name: "inception_4b/5x5_reduce"
  type: "Convolution"
  bottom: "inception_4a/output"
  top: "inception_4b/5x5_reduce"
  param {
    lr_mult: 1
    decay_mult: 1
  }
  param {
    lr_mult: 2
    decay_mult: 0
  }
  convolution_param {
    num_output: 24
    kernel_size: 1
    weight_filler {
      type: "xavier"
      std: 0.2
    }
    bias_filler {
      type: "constant"
      value: 0.2
    }
  }
}
layer {
  name: "inception_4b/relu_5x5_reduce"
  type: "ReLU"
  bottom: "inception_4b/5x5_reduce"
  top: "inception_4b/5x5_reduce"
}
layer {
  name: "inception_4b/5x5"
  type: "Convolution"
  bottom: "inception_4b/5x5_reduce"
  top: "inception_4b/5x5"
  param {
    lr_mult: 1
    decay_mult: 1
  }
  param {
    lr_mult: 2
    decay_mult: 0
  }
  convolution_param {
    num_output: 64
    pad: 2
    kernel_size: 5
    weight_filler {
      type: "xavier"
      std: 0.03
    }
    bias_filler {
      type: "constant"
      value: 0.2
    }
  }
}
layer {
  name: "inception_4b/relu_5x5"
  type: "ReLU"
  bottom: "inception_4b/5x5"
  top: "inception_4b/5x5"
}
layer {
  name: "inception_4b/pool"
  type: "Pooling"
  bottom: "inception_4a/output"
  top: "inception_4b/pool"
  pooling_param {
    pool: MAX
    kernel_size: 3
    stride: 1
    pad: 1
  }
}
layer {
  name: "inception_4b/pool_proj"
  type: "Convolution"
  bottom: "inception_4b/pool"
  top: "inception_4b/pool_proj"
  param {
    lr_mult: 1
    decay_mult: 1
  }
  param {
    lr_mult: 2
    decay_mult: 0
  }
  convolution_param {
    num_output: 64
    kernel_size: 1
    weight_filler {
      type: "xavier"
      std: 0.1
    }
    bias_filler {
      type: "constant"
      value: 0.2
    }
  }
}
layer {
  name: "inception_4b/relu_pool_proj"
  type: "ReLU"
  bottom: "inception_4b/pool_proj"
  top: "inception_4b/pool_proj"
}
layer {
  name: "inception_4b/output"
  type: "Concat"
  bottom: "inception_4b/1x1"
  bottom: "inception_4b/3x3"
  bottom: "inception_4b/5x5"
  bottom: "inception_4b/pool_proj"
  top: "inception_4b/output"
}
layer {
  name: "inception_4c/1x1"
  type: "Convolution"
  bottom: "inception_4b/output"
  top: "inception_4c/1x1"
  param {
    lr_mult: 1
    decay_mult: 1
  }
  param {
    lr_mult: 2
    decay_mult: 0
  }
  convolution_param {
    num_output: 128
    kernel_size: 1
    weight_filler {
      type: "xavier"
      std: 0.03
    }
    bias_filler {
      type: "constant"
      value: 0.2
    }
  }
}
layer {
  name: "inception_4c/relu_1x1"
  type: "ReLU"
  bottom: "inception_4c/1x1"
  top: "inception_4c/1x1"
}
layer {
  name: "inception_4c/3x3_reduce"
  type: "Convolution"
  bottom: "inception_4b/output"
  top: "inception_4c/3x3_reduce"
  param {
    lr_mult: 1
    decay_mult: 1
  }
  param {
    lr_mult: 2
    decay_mult: 0
  }
  convolution_param {
    num_output: 128
    kernel_size: 1
    weight_filler {
      type: "xavier"
      std: 0.09
    }
    bias_filler {
      type: "constant"
      value: 0.2
    }
  }
}
layer {
  name: "inception_4c/relu_3x3_reduce"
  type: "ReLU"
  bottom: "inception_4c/3x3_reduce"
  top: "inception_4c/3x3_reduce"
}
layer {
  name: "inception_4c/3x3"
  type: "Convolution"
  bottom: "inception_4c/3x3_reduce"
  top: "inception_4c/3x3"
  param {
    lr_mult: 1
    decay_mult: 1
  }
  param {
    lr_mult: 2
    decay_mult: 0
  }
  convolution_param {
    num_output: 256
    pad: 1
    kernel_size: 3
    weight_filler {
      type: "xavier"
      std: 0.03
    }
    bias_filler {
      type: "constant"
      value: 0.2
    }
  }
}
layer {
  name: "inception_4c/relu_3x3"
  type: "ReLU"
  bottom: "inception_4c/3x3"
  top: "inception_4c/3x3"
}
layer {
  name: "inception_4c/5x5_reduce"
  type: "Convolution"
  bottom: "inception_4b/output"
  top: "inception_4c/5x5_reduce"
  param {
    lr_mult: 1
    decay_mult: 1
  }
  param {
    lr_mult: 2
    decay_mult: 0
  }
  convolution_param {
    num_output: 24
    kernel_size: 1
    weight_filler {
      type: "xavier"
      std: 0.2
    }
    bias_filler {
      type: "constant"
      value: 0.2
    }
  }
}
layer {
  name: "inception_4c/relu_5x5_reduce"
  type: "ReLU"
  bottom: "inception_4c/5x5_reduce"
  top: "inception_4c/5x5_reduce"
}
layer {
  name: "inception_4c/5x5"
  type: "Convolution"
  bottom: "inception_4c/5x5_reduce"
  top: "inception_4c/5x5"
  param {
    lr_mult: 1
    decay_mult: 1
  }
  param {
    lr_mult: 2
    decay_mult: 0
  }
  convolution_param {
    num_output: 64
    pad: 2
    kernel_size: 5
    weight_filler {
      type: "xavier"
      std: 0.03
    }
    bias_filler {
      type: "constant"
      value: 0.2
    }
  }
}
layer {
  name: "inception_4c/relu_5x5"
  type: "ReLU"
  bottom: "inception_4c/5x5"
  top: "inception_4c/5x5"
}
layer {
  name: "inception_4c/pool"
  type: "Pooling"
  bottom: "inception_4b/output"
  top: "inception_4c/pool"
  pooling_param {
    pool: MAX
    kernel_size: 3
    stride: 1
    pad: 1
  }
}
layer {
  name: "inception_4c/pool_proj"
  type: "Convolution"
  bottom: "inception_4c/pool"
  top: "inception_4c/pool_proj"
  param {
    lr_mult: 1
    decay_mult: 1
  }
  param {
    lr_mult: 2
    decay_mult: 0
  }
  convolution_param {
    num_output: 64
    kernel_size: 1
    weight_filler {
      type: "xavier"
      std: 0.1
    }
    bias_filler {
      type: "constant"
      value: 0.2
    }
  }
}
layer {
  name: "inception_4c/relu_pool_proj"
  type: "ReLU"
  bottom: "inception_4c/pool_proj"
  top: "inception_4c/pool_proj"
}
layer {
  name: "inception_4c/output"
  type: "Concat"
  bottom: "inception_4c/1x1"
  bottom: "inception_4c/3x3"
  bottom: "inception_4c/5x5"
  bottom: "inception_4c/pool_proj"
  top: "inception_4c/output"
}
layer {
  name: "inception_4d/1x1"
  type: "Convolution"
  bottom: "inception_4c/output"
  top: "inception_4d/1x1"
  param {
    lr_mult: 1
    decay_mult: 1
  }
  param {
    lr_mult: 2
    decay_mult: 0
  }
  convolution_param {
    num_output: 112
    kernel_size: 1
    weight_filler {
      type: "xavier"
      std: 0.03
    }
    bias_filler {
      type: "constant"
      value: 0.2
    }
  }
}
layer {
  name: "inception_4d/relu_1x1"
  type: "ReLU"
  bottom: "inception_4d/1x1"
  top: "inception_4d/1x1"
}
layer {
  name: "inception_4d/3x3_reduce"
  type: "Convolution"
  bottom: "inception_4c/output"
  top: "inception_4d/3x3_reduce"
  param {
    lr_mult: 1
    decay_mult: 1
  }
  param {
    lr_mult: 2
    decay_mult: 0
  }
  convolution_param {
    num_output: 144
    kernel_size: 1
    weight_filler {
      type: "xavier"
      std: 0.09
    }
    bias_filler {
      type: "constant"
      value: 0.2
    }
  }
}
layer {
  name: "inception_4d/relu_3x3_reduce"
  type: "ReLU"
  bottom: "inception_4d/3x3_reduce"
  top: "inception_4d/3x3_reduce"
}
layer {
  name: "inception_4d/3x3"
  type: "Convolution"
  bottom: "inception_4d/3x3_reduce"
  top: "inception_4d/3x3"
  param {
    lr_mult: 1
    decay_mult: 1
  }
  param {
    lr_mult: 2
    decay_mult: 0
  }
  convolution_param {
    num_output: 288
    pad: 1
    kernel_size: 3
    weight_filler {
      type: "xavier"
      std: 0.03
    }
    bias_filler {
      type: "constant"
      value: 0.2
    }
  }
}
layer {
  name: "inception_4d/relu_3x3"
  type: "ReLU"
  bottom: "inception_4d/3x3"
  top: "inception_4d/3x3"
}
layer {
  name: "inception_4d/5x5_reduce"
  type: "Convolution"
  bottom: "inception_4c/output"
  top: "inception_4d/5x5_reduce"
  param {
    lr_mult: 1
    decay_mult: 1
  }
  param {
    lr_mult: 2
    decay_mult: 0
  }
  convolution_param {
    num_output: 32
    kernel_size: 1
    weight_filler {
      type: "xavier"
      std: 0.2
    }
    bias_filler {
      type: "constant"
      value: 0.2
    }
  }
}
layer {
  name: "inception_4d/relu_5x5_reduce"
  type: "ReLU"
  bottom: "inception_4d/5x5_reduce"
  top: "inception_4d/5x5_reduce"
}
layer {
  name: "inception_4d/5x5"
  type: "Convolution"
  bottom: "inception_4d/5x5_reduce"
  top: "inception_4d/5x5"
  param {
    lr_mult: 1
    decay_mult: 1
  }
  param {
    lr_mult: 2
    decay_mult: 0
  }
  convolution_param {
    num_output: 64
    pad: 2
    kernel_size: 5
    weight_filler {
      type: "xavier"
      std: 0.03
    }
    bias_filler {
      type: "constant"
      value: 0.2
    }
  }
}
layer {
  name: "inception_4d/relu_5x5"
  type: "ReLU"
  bottom: "inception_4d/5x5"
  top: "inception_4d/5x5"
}
layer {
  name: "inception_4d/pool"
  type: "Pooling"
  bottom: "inception_4c/output"
  top: "inception_4d/pool"
  pooling_param {
    pool: MAX
    kernel_size: 3
    stride: 1
    pad: 1
  }
}
layer {
  name: "inception_4d/pool_proj"
  type: "Convolution"
  bottom: "inception_4d/pool"
  top: "inception_4d/pool_proj"
  param {
    lr_mult: 1
    decay_mult: 1
  }
  param {
    lr_mult: 2
    decay_mult: 0
  }
  convolution_param {
    num_output: 64
    kernel_size: 1
    weight_filler {
      type: "xavier"
      std: 0.1
    }
    bias_filler {
      type: "constant"
      value: 0.2
    }
  }
}
layer {
  name: "inception_4d/relu_pool_proj"
  type: "ReLU"
  bottom: "inception_4d/pool_proj"
  top: "inception_4d/pool_proj"
}
layer {
  name: "inception_4d/output"
  type: "Concat"
  bottom: "inception_4d/1x1"
  bottom: "inception_4d/3x3"
  bottom: "inception_4d/5x5"
  bottom: "inception_4d/pool_proj"
  top: "inception_4d/output"
}
layer {
  name: "inception_4e/1x1"
  type: "Convolution"
  bottom: "inception_4d/output"
  top: "inception_4e/1x1"
  param {
    lr_mult: 1
    decay_mult: 1
  }
  param {
    lr_mult: 2
    decay_mult: 0
  }
  convolution_param {
    num_output: 256
    kernel_size: 1
    weight_filler {
      type: "xavier"
      std: 0.03
    }
    bias_filler {
      type: "constant"
      value: 0.2
    }
  }
}
layer {
  name: "inception_4e/relu_1x1"
  type: "ReLU"
  bottom: "inception_4e/1x1"
  top: "inception_4e/1x1"
}
layer {
  name: "inception_4e/3x3_reduce"
  type: "Convolution"
  bottom: "inception_4d/output"
  top: "inception_4e/3x3_reduce"
  param {
    lr_mult: 1
    decay_mult: 1
  }
  param {
    lr_mult: 2
    decay_mult: 0
  }
  convolution_param {
    num_output: 160
    kernel_size: 1
    weight_filler {
      type: "xavier"
      std: 0.09
    }
    bias_filler {
      type: "constant"
      value: 0.2
    }
  }
}
layer {
  name: "inception_4e/relu_3x3_reduce"
  type: "ReLU"
  bottom: "inception_4e/3x3_reduce"
  top: "inception_4e/3x3_reduce"
}
layer {
  name: "inception_4e/3x3"
  type: "Convolution"
  bottom: "inception_4e/3x3_reduce"
  top: "inception_4e/3x3"
  param {
    lr_mult: 1
    decay_mult: 1
  }
  param {
    lr_mult: 2
    decay_mult: 0
  }
  convolution_param {
    num_output: 320
    pad: 1
    kernel_size: 3
    weight_filler {
      type: "xavier"
      std: 0.03
    }
    bias_filler {
      type: "constant"
      value: 0.2
    }
  }
}
layer {
  name: "inception_4e/relu_3x3"
  type: "ReLU"
  bottom: "inception_4e/3x3"
  top: "inception_4e/3x3"
}
layer {
  name: "inception_4e/5x5_reduce"
  type: "Convolution"
  bottom: "inception_4d/output"
  top: "inception_4e/5x5_reduce"
  param {
    lr_mult: 1
    decay_mult: 1
  }
  param {
    lr_mult: 2
    decay_mult: 0
  }
  convolution_param {
    num_output: 32
    kernel_size: 1
    weight_filler {
      type: "xavier"
      std: 0.2
    }
    bias_filler {
      type: "constant"
      value: 0.2
    }
  }
}
layer {
  name: "inception_4e/relu_5x5_reduce"
  type: "ReLU"
  bottom: "inception_4e/5x5_reduce"
  top: "inception_4e/5x5_reduce"
}
layer {
  name: "inception_4e/5x5"
  type: "Convolution"
  bottom: "inception_4e/5x5_reduce"
  top: "inception_4e/5x5"
  param {
    lr_mult: 1
    decay_mult: 1
  }
  param {
    lr_mult: 2
    decay_mult: 0
  }
  convolution_param {
    num_output: 128
    pad: 2
    kernel_size: 5
    weight_filler {
      type: "xavier"
      std: 0.03
    }
    bias_filler {
      type: "constant"
      value: 0.2
    }
  }
}
layer {
  name: "inception_4e/relu_5x5"
  type: "ReLU"
  bottom: "inception_4e/5x5"
  top: "inception_4e/5x5"
}
layer {
  name: "inception_4e/pool"
  type: "Pooling"
  bottom: "inception_4d/output"
  top: "inception_4e/pool"
  pooling_param {
    pool: MAX
    kernel_size: 3
    stride: 1
    pad: 1
  }
}
layer {
  name: "inception_4e/pool_proj"
  type: "Convolution"
  bottom: "inception_4e/pool"
  top: "inception_4e/pool_proj"
  param {
    lr_mult: 1
    decay_mult: 1
  }
  param {
    lr_mult: 2
    decay_mult: 0
  }
  convolution_param {
    num_output: 128
    kernel_size: 1
    weight_filler {
      type: "xavier"
      std: 0.1
    }
    bias_filler {
      type: "constant"
      value: 0.2
    }
  }
}
layer {
  name: "inception_4e/relu_pool_proj"
  type: "ReLU"
  bottom: "inception_4e/pool_proj"
  top: "inception_4e/pool_proj"
}
layer {
  name: "inception_4e/output"
  type: "Concat"
  bottom: "inception_4e/1x1"
  bottom: "inception_4e/3x3"
  bottom: "inception_4e/5x5"
  bottom: "inception_4e/pool_proj"
  top: "inception_4e/output"
}
layer {
  name: "pool4/3x3_s2"
  type: "Pooling"
  bottom: "inception_4e/output"
  top: "pool4/3x3_s2"
  pooling_param {
    pool: MAX
    kernel_size: 3
    stride: 2
  }
}
layer {
  name: "inception_5a/1x1"
  type: "Convolution"
  bottom: "pool4/3x3_s2"
  top: "inception_5a/1x1"
  param {
    lr_mult: 1
    decay_mult: 1
  }
  param {
    lr_mult: 2
    decay_mult: 0
  }
  convolution_param {
    num_output: 256
    kernel_size: 1
    weight_filler {
      type: "xavier"
      std: 0.03
    }
    bias_filler {
      type: "constant"
      value: 0.2
    }
  }
}
layer {
  name: "inception_5a/relu_1x1"
  type: "ReLU"
  bottom: "inception_5a/1x1"
  top: "inception_5a/1x1"
}
layer {
  name: "inception_5a/3x3_reduce"
  type: "Convolution"
  bottom: "pool4/3x3_s2"
  top: "inception_5a/3x3_reduce"
  param {
    lr_mult: 1
    decay_mult: 1
  }
  param {
    lr_mult: 2
    decay_mult: 0
  }
  convolution_param {
    num_output: 160
    kernel_size: 1
    weight_filler {
      type: "xavier"
      std: 0.09
    }
    bias_filler {
      type: "constant"
      value: 0.2
    }
  }
}
layer {
  name: "inception_5a/relu_3x3_reduce"
  type: "ReLU"
  bottom: "inception_5a/3x3_reduce"
  top: "inception_5a/3x3_reduce"
}
layer {
  name: "inception_5a/3x3"
  type: "Convolution"
  bottom: "inception_5a/3x3_reduce"
  top: "inception_5a/3x3"
  param {
    lr_mult: 1
    decay_mult: 1
  }
  param {
    lr_mult: 2
    decay_mult: 0
  }
  convolution_param {
    num_output: 320
    pad: 1
    kernel_size: 3
    weight_filler {
      type: "xavier"
      std: 0.03
    }
    bias_filler {
      type: "constant"
      value: 0.2
    }
  }
}
layer {
  name: "inception_5a/relu_3x3"
  type: "ReLU"
  bottom: "inception_5a/3x3"
  top: "inception_5a/3x3"
}
layer {
  name: "inception_5a/5x5_reduce"
  type: "Convolution"
  bottom: "pool4/3x3_s2"
  top: "inception_5a/5x5_reduce"
  param {
    lr_mult: 1
    decay_mult: 1
  }
  param {
    lr_mult: 2
    decay_mult: 0
  }
  convolution_param {
    num_output: 32
    kernel_size: 1
    weight_filler {
      type: "xavier"
      std: 0.2
    }
    bias_filler {
      type: "constant"
      value: 0.2
    }
I0714 20:50:23.320706  8073 layer_factory.hpp:77] Creating layer data
I0714 20:50:23.320726  8073 net.cpp:91] Creating Layer data
I0714 20:50:23.320734  8073 net.cpp:399] data -> data
I0714 20:50:24.406237  8069 net.cpp:141] Setting up data
I0714 20:50:24.406328  8069 net.cpp:148] Top shape: 10 3 224 224 (1505280)
I0714 20:50:24.406339  8069 net.cpp:156] Memory required for data: 6021120
I0714 20:50:24.406368  8069 layer_factory.hpp:77] Creating layer conv1/7x7_s2
I0714 20:50:24.406419  8069 net.cpp:91] Creating Layer conv1/7x7_s2
I0714 20:50:24.406430  8069 net.cpp:425] conv1/7x7_s2 <- data
I0714 20:50:24.406447  8069 net.cpp:399] conv1/7x7_s2 -> conv1/7x7_s2
I0714 20:50:24.410624  8073 net.cpp:141] Setting up data
I0714 20:50:24.410650  8073 net.cpp:148] Top shape: 10 3 224 224 (1505280)
I0714 20:50:24.410657  8073 net.cpp:156] Memory required for data: 6021120
I0714 20:50:24.410665  8073 layer_factory.hpp:77] Creating layer conv1/7x7_s2
I0714 20:50:24.410697  8073 net.cpp:91] Creating Layer conv1/7x7_s2
I0714 20:50:24.410706  8073 net.cpp:425] conv1/7x7_s2 <- data
I0714 20:50:24.410715  8073 net.cpp:399] conv1/7x7_s2 -> conv1/7x7_s2
I0714 20:50:24.842190  8073 net.cpp:141] Setting up conv1/7x7_s2
I0714 20:50:24.842242  8073 net.cpp:148] Top shape: 10 64 112 112 (8028160)
I0714 20:50:24.842249  8073 net.cpp:156] Memory required for data: 38133760
I0714 20:50:24.842283  8073 layer_factory.hpp:77] Creating layer conv1/relu_7x7
I0714 20:50:24.842300  8073 net.cpp:91] Creating Layer conv1/relu_7x7
I0714 20:50:24.842308  8073 net.cpp:425] conv1/relu_7x7 <- conv1/7x7_s2
I0714 20:50:24.842317  8073 net.cpp:386] conv1/relu_7x7 -> conv1/7x7_s2 (in-place)
I0714 20:50:24.843783  8073 net.cpp:141] Setting up conv1/relu_7x7
I0714 20:50:24.843806  8073 net.cpp:148] Top shape: 10 64 112 112 (8028160)
I0714 20:50:24.843812  8073 net.cpp:156] Memory required for data: 70246400
I0714 20:50:24.843818  8073 layer_factory.hpp:77] Creating layer pool1/3x3_s2
I0714 20:50:24.843832  8073 net.cpp:91] Creating Layer pool1/3x3_s2
I0714 20:50:24.843838  8073 net.cpp:425] pool1/3x3_s2 <- conv1/7x7_s2
I0714 20:50:24.843847  8073 net.cpp:399] pool1/3x3_s2 -> pool1/3x3_s2
I0714 20:50:24.844658  8073 net.cpp:141] Setting up pool1/3x3_s2
I0714 20:50:24.844681  8073 net.cpp:148] Top shape: 10 64 56 56 (2007040)
I0714 20:50:24.844687  8073 net.cpp:156] Memory required for data: 78274560
I0714 20:50:24.844694  8073 layer_factory.hpp:77] Creating layer pool1/norm1
I0714 20:50:24.844718  8073 net.cpp:91] Creating Layer pool1/norm1
I0714 20:50:24.844729  8073 net.cpp:425] pool1/norm1 <- pool1/3x3_s2
I0714 20:50:24.844746  8073 net.cpp:399] pool1/norm1 -> pool1/norm1
I0714 20:50:24.846285  8073 net.cpp:141] Setting up pool1/norm1
I0714 20:50:24.846307  8073 net.cpp:148] Top shape: 10 64 56 56 (2007040)
I0714 20:50:24.846313  8073 net.cpp:156] Memory required for data: 86302720
I0714 20:50:24.846320  8073 layer_factory.hpp:77] Creating layer conv2/3x3_reduce
I0714 20:50:24.846341  8073 net.cpp:91] Creating Layer conv2/3x3_reduce
I0714 20:50:24.846349  8073 net.cpp:425] conv2/3x3_reduce <- pool1/norm1
I0714 20:50:24.846359  8073 net.cpp:399] conv2/3x3_reduce -> conv2/3x3_reduce
I0714 20:50:24.846613  8069 net.cpp:141] Setting up conv1/7x7_s2
I0714 20:50:24.846664  8069 net.cpp:148] Top shape: 10 64 112 112 (8028160)
I0714 20:50:24.846678  8069 net.cpp:156] Memory required for data: 38133760
I0714 20:50:24.846724  8069 layer_factory.hpp:77] Creating layer conv1/relu_7x7
I0714 20:50:24.846752  8069 net.cpp:91] Creating Layer conv1/relu_7x7
I0714 20:50:24.846765  8069 net.cpp:425] conv1/relu_7x7 <- conv1/7x7_s2
I0714 20:50:24.846781  8069 net.cpp:386] conv1/relu_7x7 -> conv1/7x7_s2 (in-place)
I0714 20:50:24.848002  8069 net.cpp:141] Setting up conv1/relu_7x7
I0714 20:50:24.848034  8069 net.cpp:148] Top shape: 10 64 112 112 (8028160)
I0714 20:50:24.848045  8069 net.cpp:156] Memory required for data: 70246400
I0714 20:50:24.848057  8069 layer_factory.hpp:77] Creating layer pool1/3x3_s2
I0714 20:50:24.848073  8069 net.cpp:91] Creating Layer pool1/3x3_s2
I0714 20:50:24.848088  8069 net.cpp:425] pool1/3x3_s2 <- conv1/7x7_s2
I0714 20:50:24.848104  8069 net.cpp:399] pool1/3x3_s2 -> pool1/3x3_s2
I0714 20:50:24.849184  8069 net.cpp:141] Setting up pool1/3x3_s2
I0714 20:50:24.849210  8069 net.cpp:148] Top shape: 10 64 56 56 (2007040)
I0714 20:50:24.849220  8069 net.cpp:156] Memory required for data: 78274560
I0714 20:50:24.849231  8069 layer_factory.hpp:77] Creating layer pool1/norm1
I0714 20:50:24.849254  8069 net.cpp:91] Creating Layer pool1/norm1
I0714 20:50:24.849266  8069 net.cpp:425] pool1/norm1 <- pool1/3x3_s2
I0714 20:50:24.849280  8069 net.cpp:399] pool1/norm1 -> pool1/norm1
I0714 20:50:24.851238  8069 net.cpp:141] Setting up pool1/norm1
I0714 20:50:24.851267  8069 net.cpp:148] Top shape: 10 64 56 56 (2007040)
I0714 20:50:24.851279  8069 net.cpp:156] Memory required for data: 86302720
I0714 20:50:24.851289  8069 layer_factory.hpp:77] Creating layer conv2/3x3_reduce
I0714 20:50:24.851320  8069 net.cpp:91] Creating Layer conv2/3x3_reduce
I0714 20:50:24.851331  8069 net.cpp:425] conv2/3x3_reduce <- pool1/norm1
I0714 20:50:24.851349  8069 net.cpp:399] conv2/3x3_reduce -> conv2/3x3_reduce
I0714 20:50:24.852322  8073 net.cpp:141] Setting up conv2/3x3_reduce
I0714 20:50:24.852349  8073 net.cpp:148] Top shape: 10 64 56 56 (2007040)
I0714 20:50:24.852355  8073 net.cpp:156] Memory required for data: 94330880
I0714 20:50:24.852371  8073 layer_factory.hpp:77] Creating layer conv2/relu_3x3_reduce
I0714 20:50:24.852387  8073 net.cpp:91] Creating Layer conv2/relu_3x3_reduce
I0714 20:50:24.852394  8073 net.cpp:425] conv2/relu_3x3_reduce <- conv2/3x3_reduce
I0714 20:50:24.852402  8073 net.cpp:386] conv2/relu_3x3_reduce -> conv2/3x3_reduce (in-place)
I0714 20:50:24.853354  8073 net.cpp:141] Setting up conv2/relu_3x3_reduce
I0714 20:50:24.853373  8073 net.cpp:148] Top shape: 10 64 56 56 (2007040)
I0714 20:50:24.853379  8073 net.cpp:156] Memory required for data: 102359040
I0714 20:50:24.853384  8073 layer_factory.hpp:77] Creating layer conv2/3x3
I0714 20:50:24.853407  8073 net.cpp:91] Creating Layer conv2/3x3
I0714 20:50:24.853413  8073 net.cpp:425] conv2/3x3 <- conv2/3x3_reduce
I0714 20:50:24.853422  8073 net.cpp:399] conv2/3x3 -> conv2/3x3
I0714 20:50:24.858950  8069 net.cpp:141] Setting up conv2/3x3_reduce
I0714 20:50:24.858985  8069 net.cpp:148] Top shape: 10 64 56 56 (2007040)
I0714 20:50:24.858997  8069 net.cpp:156] Memory required for data: 94330880
I0714 20:50:24.859026  8069 layer_factory.hpp:77] Creating layer conv2/relu_3x3_reduce
I0714 20:50:24.859045  8069 net.cpp:91] Creating Layer conv2/relu_3x3_reduce
I0714 20:50:24.859057  8069 net.cpp:425] conv2/relu_3x3_reduce <- conv2/3x3_reduce
I0714 20:50:24.859076  8069 net.cpp:386] conv2/relu_3x3_reduce -> conv2/3x3_reduce (in-place)
I0714 20:50:24.860484  8069 net.cpp:141] Setting up conv2/relu_3x3_reduce
I0714 20:50:24.860510  8069 net.cpp:148] Top shape: 10 64 56 56 (2007040)
I0714 20:50:24.860522  8069 net.cpp:156] Memory required for data: 102359040
I0714 20:50:24.860532  8069 layer_factory.hpp:77] Creating layer conv2/3x3
I0714 20:50:24.860560  8069 net.cpp:91] Creating Layer conv2/3x3
I0714 20:50:24.860574  8069 net.cpp:425] conv2/3x3 <- conv2/3x3_reduce
I0714 20:50:24.860592  8069 net.cpp:399] conv2/3x3 -> conv2/3x3
I0714 20:50:24.866339  8073 net.cpp:141] Setting up conv2/3x3
I0714 20:50:24.866366  8073 net.cpp:148] Top shape: 10 192 56 56 (6021120)
I0714 20:50:24.866372  8073 net.cpp:156] Memory required for data: 126443520
I0714 20:50:24.866389  8073 layer_factory.hpp:77] Creating layer conv2/relu_3x3
I0714 20:50:24.866405  8073 net.cpp:91] Creating Layer conv2/relu_3x3
I0714 20:50:24.866411  8073 net.cpp:425] conv2/relu_3x3 <- conv2/3x3
I0714 20:50:24.866418  8073 net.cpp:386] conv2/relu_3x3 -> conv2/3x3 (in-place)
I0714 20:50:24.866706  8073 net.cpp:141] Setting up conv2/relu_3x3
I0714 20:50:24.866726  8073 net.cpp:148] Top shape: 10 192 56 56 (6021120)
I0714 20:50:24.866732  8073 net.cpp:156] Memory required for data: 150528000
I0714 20:50:24.866739  8073 layer_factory.hpp:77] Creating layer conv2/norm2
I0714 20:50:24.866755  8073 net.cpp:91] Creating Layer conv2/norm2
I0714 20:50:24.866760  8073 net.cpp:425] conv2/norm2 <- conv2/3x3
I0714 20:50:24.866770  8073 net.cpp:399] conv2/norm2 -> conv2/norm2
I0714 20:50:24.868171  8073 net.cpp:141] Setting up conv2/norm2
I0714 20:50:24.868190  8073 net.cpp:148] Top shape: 10 192 56 56 (6021120)
I0714 20:50:24.868194  8073 net.cpp:156] Memory required for data: 174612480
I0714 20:50:24.868199  8073 layer_factory.hpp:77] Creating layer pool2/3x3_s2
I0714 20:50:24.868213  8073 net.cpp:91] Creating Layer pool2/3x3_s2
I0714 20:50:24.868219  8073 net.cpp:425] pool2/3x3_s2 <- conv2/norm2
I0714 20:50:24.868227  8073 net.cpp:399] pool2/3x3_s2 -> pool2/3x3_s2
I0714 20:50:24.869166  8073 net.cpp:141] Setting up pool2/3x3_s2
I0714 20:50:24.869181  8073 net.cpp:148] Top shape: 10 192 28 28 (1505280)
I0714 20:50:24.869186  8073 net.cpp:156] Memory required for data: 180633600
I0714 20:50:24.869191  8073 layer_factory.hpp:77] Creating layer pool2/3x3_s2_pool2/3x3_s2_0_split
I0714 20:50:24.869215  8073 net.cpp:91] Creating Layer pool2/3x3_s2_pool2/3x3_s2_0_split
I0714 20:50:24.869221  8073 net.cpp:425] pool2/3x3_s2_pool2/3x3_s2_0_split <- pool2/3x3_s2
I0714 20:50:24.869230  8073 net.cpp:399] pool2/3x3_s2_pool2/3x3_s2_0_split -> pool2/3x3_s2_pool2/3x3_s2_0_split_0
I0714 20:50:24.869240  8073 net.cpp:399] pool2/3x3_s2_pool2/3x3_s2_0_split -> pool2/3x3_s2_pool2/3x3_s2_0_split_1
I0714 20:50:24.869251  8073 net.cpp:399] pool2/3x3_s2_pool2/3x3_s2_0_split -> pool2/3x3_s2_pool2/3x3_s2_0_split_2
I0714 20:50:24.869261  8073 net.cpp:399] pool2/3x3_s2_pool2/3x3_s2_0_split -> pool2/3x3_s2_pool2/3x3_s2_0_split_3
I0714 20:50:24.869752  8073 net.cpp:141] Setting up pool2/3x3_s2_pool2/3x3_s2_0_split
I0714 20:50:24.869768  8073 net.cpp:148] Top shape: 10 192 28 28 (1505280)
I0714 20:50:24.869774  8073 net.cpp:148] Top shape: 10 192 28 28 (1505280)
I0714 20:50:24.869781  8073 net.cpp:148] Top shape: 10 192 28 28 (1505280)
I0714 20:50:24.869786  8073 net.cpp:148] Top shape: 10 192 28 28 (1505280)
I0714 20:50:24.869791  8073 net.cpp:156] Memory required for data: 204718080
I0714 20:50:24.869796  8073 layer_factory.hpp:77] Creating layer inception_3a/1x1
I0714 20:50:24.869814  8073 net.cpp:91] Creating Layer inception_3a/1x1
I0714 20:50:24.869822  8073 net.cpp:425] inception_3a/1x1 <- pool2/3x3_s2_pool2/3x3_s2_0_split_0
I0714 20:50:24.869848  8073 net.cpp:399] inception_3a/1x1 -> inception_3a/1x1
I0714 20:50:24.873289  8069 net.cpp:141] Setting up conv2/3x3
I0714 20:50:24.873322  8069 net.cpp:148] Top shape: 10 192 56 56 (6021120)
I0714 20:50:24.873333  8069 net.cpp:156] Memory required for data: 126443520
I0714 20:50:24.873361  8069 layer_factory.hpp:77] Creating layer conv2/relu_3x3
I0714 20:50:24.873381  8069 net.cpp:91] Creating Layer conv2/relu_3x3
I0714 20:50:24.873391  8069 net.cpp:425] conv2/relu_3x3 <- conv2/3x3
I0714 20:50:24.873405  8069 net.cpp:386] conv2/relu_3x3 -> conv2/3x3 (in-place)
I0714 20:50:24.873953  8069 net.cpp:141] Setting up conv2/relu_3x3
I0714 20:50:24.873976  8069 net.cpp:148] Top shape: 10 192 56 56 (6021120)
I0714 20:50:24.873986  8069 net.cpp:156] Memory required for data: 150528000
I0714 20:50:24.873997  8069 layer_factory.hpp:77] Creating layer conv2/norm2
I0714 20:50:24.874018  8069 net.cpp:91] Creating Layer conv2/norm2
I0714 20:50:24.874029  8069 net.cpp:425] conv2/norm2 <- conv2/3x3
I0714 20:50:24.874043  8069 net.cpp:399] conv2/norm2 -> conv2/norm2
I0714 20:50:24.878530  8073 net.cpp:141] Setting up inception_3a/1x1
I0714 20:50:24.878535  8069 net.cpp:141] Setting up conv2/norm2
I0714 20:50:24.878557  8073 net.cpp:148] Top shape: 10 64 28 28 (501760)
I0714 20:50:24.878566  8073 net.cpp:156] Memory required for data: 206725120
I0714 20:50:24.878574  8069 net.cpp:148] Top shape: 10 192 56 56 (6021120)
I0714 20:50:24.878582  8073 layer_factory.hpp:77] Creating layer inception_3a/relu_1x1
I0714 20:50:24.878587  8069 net.cpp:156] Memory required for data: 174612480
I0714 20:50:24.878593  8073 net.cpp:91] Creating Layer inception_3a/relu_1x1
I0714 20:50:24.878597  8069 layer_factory.hpp:77] Creating layer pool2/3x3_s2
I0714 20:50:24.878600  8073 net.cpp:425] inception_3a/relu_1x1 <- inception_3a/1x1
I0714 20:50:24.878619  8073 net.cpp:386] inception_3a/relu_1x1 -> inception_3a/1x1 (in-place)
I0714 20:50:24.878618  8069 net.cpp:91] Creating Layer pool2/3x3_s2
I0714 20:50:24.878643  8069 net.cpp:425] pool2/3x3_s2 <- conv2/norm2
I0714 20:50:24.878664  8069 net.cpp:399] pool2/3x3_s2 -> pool2/3x3_s2
I0714 20:50:24.878998  8069 net.cpp:141] Setting up pool2/3x3_s2
I0714 20:50:24.879017  8069 net.cpp:148] Top shape: 10 192 28 28 (1505280)
I0714 20:50:24.879026  8069 net.cpp:156] Memory required for data: 180633600
I0714 20:50:24.879035  8069 layer_factory.hpp:77] Creating layer pool2/3x3_s2_pool2/3x3_s2_0_split
I0714 20:50:24.879060  8069 net.cpp:91] Creating Layer pool2/3x3_s2_pool2/3x3_s2_0_split
I0714 20:50:24.879072  8069 net.cpp:425] pool2/3x3_s2_pool2/3x3_s2_0_split <- pool2/3x3_s2
I0714 20:50:24.879081  8073 net.cpp:141] Setting up inception_3a/relu_1x1
I0714 20:50:24.879091  8069 net.cpp:399] pool2/3x3_s2_pool2/3x3_s2_0_split -> pool2/3x3_s2_pool2/3x3_s2_0_split_0
I0714 20:50:24.879097  8073 net.cpp:148] Top shape: 10 64 28 28 (501760)
I0714 20:50:24.879103  8073 net.cpp:156] Memory required for data: 208732160
I0714 20:50:24.879109  8073 layer_factory.hpp:77] Creating layer inception_3a/3x3_reduce
I0714 20:50:24.879112  8069 net.cpp:399] pool2/3x3_s2_pool2/3x3_s2_0_split -> pool2/3x3_s2_pool2/3x3_s2_0_split_1
I0714 20:50:24.879130  8073 net.cpp:91] Creating Layer inception_3a/3x3_reduce
I0714 20:50:24.879144  8073 net.cpp:425] inception_3a/3x3_reduce <- pool2/3x3_s2_pool2/3x3_s2_0_split_1
I0714 20:50:24.879130  8069 net.cpp:399] pool2/3x3_s2_pool2/3x3_s2_0_split -> pool2/3x3_s2_pool2/3x3_s2_0_split_2
I0714 20:50:24.879156  8073 net.cpp:399] inception_3a/3x3_reduce -> inception_3a/3x3_reduce
I0714 20:50:24.879165  8069 net.cpp:399] pool2/3x3_s2_pool2/3x3_s2_0_split -> pool2/3x3_s2_pool2/3x3_s2_0_split_3
I0714 20:50:24.879858  8069 net.cpp:141] Setting up pool2/3x3_s2_pool2/3x3_s2_0_split
I0714 20:50:24.879878  8069 net.cpp:148] Top shape: 10 192 28 28 (1505280)
I0714 20:50:24.879889  8069 net.cpp:148] Top shape: 10 192 28 28 (1505280)
I0714 20:50:24.879900  8069 net.cpp:148] Top shape: 10 192 28 28 (1505280)
I0714 20:50:24.879911  8069 net.cpp:148] Top shape: 10 192 28 28 (1505280)
I0714 20:50:24.879920  8069 net.cpp:156] Memory required for data: 204718080
I0714 20:50:24.879930  8069 layer_factory.hpp:77] Creating layer inception_3a/1x1
I0714 20:50:24.880430  8069 net.cpp:91] Creating Layer inception_3a/1x1
I0714 20:50:24.880445  8069 net.cpp:425] inception_3a/1x1 <- pool2/3x3_s2_pool2/3x3_s2_0_split_0
I0714 20:50:24.880465  8069 net.cpp:399] inception_3a/1x1 -> inception_3a/1x1
I0714 20:50:24.887042  8073 net.cpp:141] Setting up inception_3a/3x3_reduce
I0714 20:50:24.887068  8073 net.cpp:148] Top shape: 10 96 28 28 (752640)
I0714 20:50:24.887074  8073 net.cpp:156] Memory required for data: 211742720
I0714 20:50:24.887096  8073 layer_factory.hpp:77] Creating layer inception_3a/relu_3x3_reduce
I0714 20:50:24.887109  8073 net.cpp:91] Creating Layer inception_3a/relu_3x3_reduce
I0714 20:50:24.887115  8073 net.cpp:425] inception_3a/relu_3x3_reduce <- inception_3a/3x3_reduce
I0714 20:50:24.887126  8073 net.cpp:386] inception_3a/relu_3x3_reduce -> inception_3a/3x3_reduce (in-place)
I0714 20:50:24.887557  8073 net.cpp:141] Setting up inception_3a/relu_3x3_reduce
I0714 20:50:24.887572  8073 net.cpp:148] Top shape: 10 96 28 28 (752640)
I0714 20:50:24.887576  8073 net.cpp:156] Memory required for data: 214753280
I0714 20:50:24.887581  8073 layer_factory.hpp:77] Creating layer inception_3a/3x3
I0714 20:50:24.887605  8073 net.cpp:91] Creating Layer inception_3a/3x3
I0714 20:50:24.887612  8073 net.cpp:425] inception_3a/3x3 <- inception_3a/3x3_reduce
I0714 20:50:24.887622  8073 net.cpp:399] inception_3a/3x3 -> inception_3a/3x3
I0714 20:50:24.891307  8069 net.cpp:141] Setting up inception_3a/1x1
I0714 20:50:24.891343  8069 net.cpp:148] Top shape: 10 64 28 28 (501760)
I0714 20:50:24.891355  8069 net.cpp:156] Memory required for data: 206725120
I0714 20:50:24.891372  8069 layer_factory.hpp:77] Creating layer inception_3a/relu_1x1
I0714 20:50:24.891388  8069 net.cpp:91] Creating Layer inception_3a/relu_1x1
I0714 20:50:24.891399  8069 net.cpp:425] inception_3a/relu_1x1 <- inception_3a/1x1
I0714 20:50:24.891413  8069 net.cpp:386] inception_3a/relu_1x1 -> inception_3a/1x1 (in-place)
I0714 20:50:24.891988  8069 net.cpp:141] Setting up inception_3a/relu_1x1
I0714 20:50:24.892007  8069 net.cpp:148] Top shape: 10 64 28 28 (501760)
I0714 20:50:24.892016  8069 net.cpp:156] Memory required for data: 208732160
I0714 20:50:24.892026  8069 layer_factory.hpp:77] Creating layer inception_3a/3x3_reduce
I0714 20:50:24.892053  8069 net.cpp:91] Creating Layer inception_3a/3x3_reduce
I0714 20:50:24.892066  8069 net.cpp:425] inception_3a/3x3_reduce <- pool2/3x3_s2_pool2/3x3_s2_0_split_1
I0714 20:50:24.892089  8069 net.cpp:399] inception_3a/3x3_reduce -> inception_3a/3x3_reduce
I0714 20:50:24.898519  8073 net.cpp:141] Setting up inception_3a/3x3
I0714 20:50:24.898540  8073 net.cpp:148] Top shape: 10 128 28 28 (1003520)
I0714 20:50:24.898546  8073 net.cpp:156] Memory required for data: 218767360
I0714 20:50:24.898555  8073 layer_factory.hpp:77] Creating layer inception_3a/relu_3x3
I0714 20:50:24.898566  8073 net.cpp:91] Creating Layer inception_3a/relu_3x3
I0714 20:50:24.898572  8073 net.cpp:425] inception_3a/relu_3x3 <- inception_3a/3x3
I0714 20:50:24.898584  8073 net.cpp:386] inception_3a/relu_3x3 -> inception_3a/3x3 (in-place)
I0714 20:50:24.899514  8073 net.cpp:141] Setting up inception_3a/relu_3x3
I0714 20:50:24.899533  8073 net.cpp:148] Top shape: 10 128 28 28 (1003520)
I0714 20:50:24.899538  8073 net.cpp:156] Memory required for data: 222781440
I0714 20:50:24.899544  8073 layer_factory.hpp:77] Creating layer inception_3a/5x5_reduce
I0714 20:50:24.899561  8073 net.cpp:91] Creating Layer inception_3a/5x5_reduce
I0714 20:50:24.899571  8073 net.cpp:425] inception_3a/5x5_reduce <- pool2/3x3_s2_pool2/3x3_s2_0_split_2
I0714 20:50:24.899581  8073 net.cpp:399] inception_3a/5x5_reduce -> inception_3a/5x5_reduce
I0714 20:50:24.901804  8069 net.cpp:141] Setting up inception_3a/3x3_reduce
I0714 20:50:24.901835  8069 net.cpp:148] Top shape: 10 96 28 28 (752640)
I0714 20:50:24.901846  8069 net.cpp:156] Memory required for data: 211742720
I0714 20:50:24.901870  8069 layer_factory.hpp:77] Creating layer inception_3a/relu_3x3_reduce
I0714 20:50:24.901891  8069 net.cpp:91] Creating Layer inception_3a/relu_3x3_reduce
I0714 20:50:24.901903  8069 net.cpp:425] inception_3a/relu_3x3_reduce <- inception_3a/3x3_reduce
I0714 20:50:24.901917  8069 net.cpp:386] inception_3a/relu_3x3_reduce -> inception_3a/3x3_reduce (in-place)
I0714 20:50:24.902375  8069 net.cpp:141] Setting up inception_3a/relu_3x3_reduce
I0714 20:50:24.902395  8069 net.cpp:148] Top shape: 10 96 28 28 (752640)
I0714 20:50:24.902403  8069 net.cpp:156] Memory required for data: 214753280
I0714 20:50:24.902412  8069 layer_factory.hpp:77] Creating layer inception_3a/3x3
I0714 20:50:24.902447  8069 net.cpp:91] Creating Layer inception_3a/3x3
I0714 20:50:24.902461  8069 net.cpp:425] inception_3a/3x3 <- inception_3a/3x3_reduce
I0714 20:50:24.902484  8069 net.cpp:399] inception_3a/3x3 -> inception_3a/3x3
I0714 20:50:24.904472  8073 net.cpp:141] Setting up inception_3a/5x5_reduce
I0714 20:50:24.904494  8073 net.cpp:148] Top shape: 10 16 28 28 (125440)
I0714 20:50:24.904500  8073 net.cpp:156] Memory required for data: 223283200
I0714 20:50:24.904510  8073 layer_factory.hpp:77] Creating layer inception_3a/relu_5x5_reduce
I0714 20:50:24.904523  8073 net.cpp:91] Creating Layer inception_3a/relu_5x5_reduce
I0714 20:50:24.904531  8073 net.cpp:425] inception_3a/relu_5x5_reduce <- inception_3a/5x5_reduce
I0714 20:50:24.904538  8073 net.cpp:386] inception_3a/relu_5x5_reduce -> inception_3a/5x5_reduce (in-place)
I0714 20:50:24.904824  8073 net.cpp:141] Setting up inception_3a/relu_5x5_reduce
I0714 20:50:24.904836  8073 net.cpp:148] Top shape: 10 16 28 28 (125440)
I0714 20:50:24.904841  8073 net.cpp:156] Memory required for data: 223784960
I0714 20:50:24.904846  8073 layer_factory.hpp:77] Creating layer inception_3a/5x5
I0714 20:50:24.904865  8073 net.cpp:91] Creating Layer inception_3a/5x5
I0714 20:50:24.904871  8073 net.cpp:425] inception_3a/5x5 <- inception_3a/5x5_reduce
I0714 20:50:24.904883  8073 net.cpp:399] inception_3a/5x5 -> inception_3a/5x5
I0714 20:50:24.910434  8073 net.cpp:141] Setting up inception_3a/5x5
I0714 20:50:24.910455  8073 net.cpp:148] Top shape: 10 32 28 28 (250880)
I0714 20:50:24.910461  8073 net.cpp:156] Memory required for data: 224788480
I0714 20:50:24.910472  8073 layer_factory.hpp:77] Creating layer inception_3a/relu_5x5
I0714 20:50:24.910482  8073 net.cpp:91] Creating Layer inception_3a/relu_5x5
I0714 20:50:24.910490  8073 net.cpp:425] inception_3a/relu_5x5 <- inception_3a/5x5
I0714 20:50:24.910498  8073 net.cpp:386] inception_3a/relu_5x5 -> inception_3a/5x5 (in-place)
I0714 20:50:24.910961  8073 net.cpp:141] Setting up inception_3a/relu_5x5
I0714 20:50:24.910979  8073 net.cpp:148] Top shape: 10 32 28 28 (250880)
I0714 20:50:24.910984  8073 net.cpp:156] Memory required for data: 225792000
I0714 20:50:24.910989  8073 layer_factory.hpp:77] Creating layer inception_3a/pool
I0714 20:50:24.911002  8073 net.cpp:91] Creating Layer inception_3a/pool
I0714 20:50:24.911008  8073 net.cpp:425] inception_3a/pool <- pool2/3x3_s2_pool2/3x3_s2_0_split_3
I0714 20:50:24.911017  8073 net.cpp:399] inception_3a/pool -> inception_3a/pool
I0714 20:50:24.911242  8073 net.cpp:141] Setting up inception_3a/pool
I0714 20:50:24.911255  8073 net.cpp:148] Top shape: 10 192 28 28 (1505280)
I0714 20:50:24.911275  8073 net.cpp:156] Memory required for data: 231813120
I0714 20:50:24.911255  8069 net.cpp:141] Setting up inception_3a/3x3
I0714 20:50:24.911281  8073 layer_factory.hpp:77] Creating layer inception_3a/pool_proj
I0714 20:50:24.911299  8069 net.cpp:148] Top shape: 10 128 28 28 (1003520)
I0714 20:50:24.911308  8073 net.cpp:91] Creating Layer inception_3a/pool_proj
I0714 20:50:24.911311  8069 net.cpp:156] Memory required for data: 218767360
I0714 20:50:24.911315  8073 net.cpp:425] inception_3a/pool_proj <- inception_3a/pool
I0714 20:50:24.911334  8069 layer_factory.hpp:77] Creating layer inception_3a/relu_3x3
I0714 20:50:24.911339  8073 net.cpp:399] inception_3a/pool_proj -> inception_3a/pool_proj
I0714 20:50:24.911362  8069 net.cpp:91] Creating Layer inception_3a/relu_3x3
I0714 20:50:24.911376  8069 net.cpp:425] inception_3a/relu_3x3 <- inception_3a/3x3
I0714 20:50:24.911391  8069 net.cpp:386] inception_3a/relu_3x3 -> inception_3a/3x3 (in-place)
I0714 20:50:24.912886  8069 net.cpp:141] Setting up inception_3a/relu_3x3
I0714 20:50:24.912914  8069 net.cpp:148] Top shape: 10 128 28 28 (1003520)
I0714 20:50:24.912925  8069 net.cpp:156] Memory required for data: 222781440
I0714 20:50:24.912936  8069 layer_factory.hpp:77] Creating layer inception_3a/5x5_reduce
I0714 20:50:24.912968  8069 net.cpp:91] Creating Layer inception_3a/5x5_reduce
I0714 20:50:24.912981  8069 net.cpp:425] inception_3a/5x5_reduce <- pool2/3x3_s2_pool2/3x3_s2_0_split_2
I0714 20:50:24.912999  8069 net.cpp:399] inception_3a/5x5_reduce -> inception_3a/5x5_reduce
I0714 20:50:24.916657  8073 net.cpp:141] Setting up inception_3a/pool_proj
I0714 20:50:24.916679  8073 net.cpp:148] Top shape: 10 32 28 28 (250880)
I0714 20:50:24.916685  8073 net.cpp:156] Memory required for data: 232816640
I0714 20:50:24.916703  8073 layer_factory.hpp:77] Creating layer inception_3a/relu_pool_proj
I0714 20:50:24.916717  8073 net.cpp:91] Creating Layer inception_3a/relu_pool_proj
I0714 20:50:24.916723  8073 net.cpp:425] inception_3a/relu_pool_proj <- inception_3a/pool_proj
I0714 20:50:24.916730  8073 net.cpp:386] inception_3a/relu_pool_proj -> inception_3a/pool_proj (in-place)
I0714 20:50:24.917706  8073 net.cpp:141] Setting up inception_3a/relu_pool_proj
I0714 20:50:24.917722  8073 net.cpp:148] Top shape: 10 32 28 28 (250880)
I0714 20:50:24.917728  8073 net.cpp:156] Memory required for data: 233820160
I0714 20:50:24.917733  8073 layer_factory.hpp:77] Creating layer inception_3a/output
I0714 20:50:24.917755  8073 net.cpp:91] Creating Layer inception_3a/output
I0714 20:50:24.917762  8073 net.cpp:425] inception_3a/output <- inception_3a/1x1
I0714 20:50:24.917769  8073 net.cpp:425] inception_3a/output <- inception_3a/3x3
I0714 20:50:24.917775  8073 net.cpp:425] inception_3a/output <- inception_3a/5x5
I0714 20:50:24.917780  8073 net.cpp:425] inception_3a/output <- inception_3a/pool_proj
I0714 20:50:24.917788  8073 net.cpp:399] inception_3a/output -> inception_3a/output
I0714 20:50:24.918490  8073 net.cpp:141] Setting up inception_3a/output
I0714 20:50:24.918509  8073 net.cpp:148] Top shape: 10 256 28 28 (2007040)
I0714 20:50:24.918514  8073 net.cpp:156] Memory required for data: 241848320
I0714 20:50:24.918519  8073 layer_factory.hpp:77] Creating layer inception_3a/output_inception_3a/output_0_split
I0714 20:50:24.918529  8073 net.cpp:91] Creating Layer inception_3a/output_inception_3a/output_0_split
I0714 20:50:24.918534  8073 net.cpp:425] inception_3a/output_inception_3a/output_0_split <- inception_3a/output
I0714 20:50:24.918541  8073 net.cpp:399] inception_3a/output_inception_3a/output_0_split -> inception_3a/output_inception_3a/output_0_split_0
I0714 20:50:24.918550  8073 net.cpp:399] inception_3a/output_inception_3a/output_0_split -> inception_3a/output_inception_3a/output_0_split_1
I0714 20:50:24.918560  8073 net.cpp:399] inception_3a/output_inception_3a/output_0_split -> inception_3a/output_inception_3a/output_0_split_2
I0714 20:50:24.918572  8073 net.cpp:399] inception_3a/output_inception_3a/output_0_split -> inception_3a/output_inception_3a/output_0_split_3
I0714 20:50:24.918854  8073 net.cpp:141] Setting up inception_3a/output_inception_3a/output_0_split
I0714 20:50:24.918867  8073 net.cpp:148] Top shape: 10 256 28 28 (2007040)
I0714 20:50:24.918874  8073 net.cpp:148] Top shape: 10 256 28 28 (2007040)
I0714 20:50:24.918879  8073 net.cpp:148] Top shape: 10 256 28 28 (2007040)
I0714 20:50:24.918885  8073 net.cpp:148] Top shape: 10 256 28 28 (2007040)
I0714 20:50:24.918889  8073 net.cpp:156] Memory required for data: 273960960
I0714 20:50:24.918895  8073 layer_factory.hpp:77] Creating layer inception_3b/1x1
I0714 20:50:24.918913  8073 net.cpp:91] Creating Layer inception_3b/1x1
I0714 20:50:24.918920  8073 net.cpp:425] inception_3b/1x1 <- inception_3a/output_inception_3a/output_0_split_0
I0714 20:50:24.918929  8073 net.cpp:399] inception_3b/1x1 -> inception_3b/1x1
I0714 20:50:24.921087  8069 net.cpp:141] Setting up inception_3a/5x5_reduce
I0714 20:50:24.921115  8069 net.cpp:148] Top shape: 10 16 28 28 (125440)
I0714 20:50:24.921126  8069 net.cpp:156] Memory required for data: 223283200
I0714 20:50:24.921144  8069 layer_factory.hpp:77] Creating layer inception_3a/relu_5x5_reduce
I0714 20:50:24.921159  8069 net.cpp:91] Creating Layer inception_3a/relu_5x5_reduce
I0714 20:50:24.921170  8069 net.cpp:425] inception_3a/relu_5x5_reduce <- inception_3a/5x5_reduce
I0714 20:50:24.921190  8069 net.cpp:386] inception_3a/relu_5x5_reduce -> inception_3a/5x5_reduce (in-place)
I0714 20:50:24.921833  8069 net.cpp:141] Setting up inception_3a/relu_5x5_reduce
I0714 20:50:24.921856  8069 net.cpp:148] Top shape: 10 16 28 28 (125440)
I0714 20:50:24.921865  8069 net.cpp:156] Memory required for data: 223784960
I0714 20:50:24.921875  8069 layer_factory.hpp:77] Creating layer inception_3a/5x5
I0714 20:50:24.921906  8069 net.cpp:91] Creating Layer inception_3a/5x5
I0714 20:50:24.921919  8069 net.cpp:425] inception_3a/5x5 <- inception_3a/5x5_reduce
I0714 20:50:24.921937  8069 net.cpp:399] inception_3a/5x5 -> inception_3a/5x5
I0714 20:50:24.924304  8073 net.cpp:141] Setting up inception_3b/1x1
I0714 20:50:24.924324  8073 net.cpp:148] Top shape: 10 128 28 28 (1003520)
I0714 20:50:24.924330  8073 net.cpp:156] Memory required for data: 277975040
I0714 20:50:24.924340  8073 layer_factory.hpp:77] Creating layer inception_3b/relu_1x1
I0714 20:50:24.924355  8073 net.cpp:91] Creating Layer inception_3b/relu_1x1
I0714 20:50:24.924361  8073 net.cpp:425] inception_3b/relu_1x1 <- inception_3b/1x1
I0714 20:50:24.924370  8073 net.cpp:386] inception_3b/relu_1x1 -> inception_3b/1x1 (in-place)
I0714 20:50:24.924793  8073 net.cpp:141] Setting up inception_3b/relu_1x1
I0714 20:50:24.924808  8073 net.cpp:148] Top shape: 10 128 28 28 (1003520)
I0714 20:50:24.924813  8073 net.cpp:156] Memory required for data: 281989120
I0714 20:50:24.924818  8073 layer_factory.hpp:77] Creating layer inception_3b/3x3_reduce
I0714 20:50:24.924835  8073 net.cpp:91] Creating Layer inception_3b/3x3_reduce
I0714 20:50:24.924842  8073 net.cpp:425] inception_3b/3x3_reduce <- inception_3a/output_inception_3a/output_0_split_1
I0714 20:50:24.924854  8073 net.cpp:399] inception_3b/3x3_reduce -> inception_3b/3x3_reduce
I0714 20:50:24.932011  8069 net.cpp:141] Setting up inception_3a/5x5
I0714 20:50:24.932044  8069 net.cpp:148] Top shape: 10 32 28 28 (250880)
I0714 20:50:24.932054  8069 net.cpp:156] Memory required for data: 224788480
I0714 20:50:24.932071  8069 layer_factory.hpp:77] Creating layer inception_3a/relu_5x5
I0714 20:50:24.932086  8069 net.cpp:91] Creating Layer inception_3a/relu_5x5
I0714 20:50:24.932097  8069 net.cpp:425] inception_3a/relu_5x5 <- inception_3a/5x5
I0714 20:50:24.932118  8069 net.cpp:386] inception_3a/relu_5x5 -> inception_3a/5x5 (in-place)
I0714 20:50:24.932632  8073 net.cpp:141] Setting up inception_3b/3x3_reduce
I0714 20:50:24.932656  8073 net.cpp:148] Top shape: 10 128 28 28 (1003520)
I0714 20:50:24.932662  8073 net.cpp:156] Memory required for data: 286003200
I0714 20:50:24.932672  8073 layer_factory.hpp:77] Creating layer inception_3b/relu_3x3_reduce
I0714 20:50:24.932689  8073 net.cpp:91] Creating Layer inception_3b/relu_3x3_reduce
I0714 20:50:24.932696  8073 net.cpp:425] inception_3b/relu_3x3_reduce <- inception_3b/3x3_reduce
I0714 20:50:24.932704  8073 net.cpp:386] inception_3b/relu_3x3_reduce -> inception_3b/3x3_reduce (in-place)
I0714 20:50:24.932720  8069 net.cpp:141] Setting up inception_3a/relu_5x5
I0714 20:50:24.932746  8069 net.cpp:148] Top shape: 10 32 28 28 (250880)
I0714 20:50:24.932757  8069 net.cpp:156] Memory required for data: 225792000
I0714 20:50:24.932767  8069 layer_factory.hpp:77] Creating layer inception_3a/pool
I0714 20:50:24.932782  8069 net.cpp:91] Creating Layer inception_3a/pool
I0714 20:50:24.932793  8069 net.cpp:425] inception_3a/pool <- pool2/3x3_s2_pool2/3x3_s2_0_split_3
I0714 20:50:24.932808  8069 net.cpp:399] inception_3a/pool -> inception_3a/pool
I0714 20:50:24.933089  8069 net.cpp:141] Setting up inception_3a/pool
I0714 20:50:24.933112  8069 net.cpp:148] Top shape: 10 192 28 28 (1505280)
I0714 20:50:24.933121  8069 net.cpp:156] Memory required for data: 231813120
I0714 20:50:24.933131  8069 layer_factory.hpp:77] Creating layer inception_3a/pool_proj
I0714 20:50:24.933152  8069 net.cpp:91] Creating Layer inception_3a/pool_proj
I0714 20:50:24.933163  8069 net.cpp:425] inception_3a/pool_proj <- inception_3a/pool
I0714 20:50:24.933179  8073 net.cpp:141] Setting up inception_3b/relu_3x3_reduce
I0714 20:50:24.933187  8069 net.cpp:399] inception_3a/pool_proj -> inception_3a/pool_proj
I0714 20:50:24.933200  8073 net.cpp:148] Top shape: 10 128 28 28 (1003520)
I0714 20:50:24.933207  8073 net.cpp:156] Memory required for data: 290017280
I0714 20:50:24.933213  8073 layer_factory.hpp:77] Creating layer inception_3b/3x3
I0714 20:50:24.933235  8073 net.cpp:91] Creating Layer inception_3b/3x3
I0714 20:50:24.933243  8073 net.cpp:425] inception_3b/3x3 <- inception_3b/3x3_reduce
I0714 20:50:24.933254  8073 net.cpp:399] inception_3b/3x3 -> inception_3b/3x3
I0714 20:50:24.942278  8069 net.cpp:141] Setting up inception_3a/pool_proj
I0714 20:50:24.942309  8069 net.cpp:148] Top shape: 10 32 28 28 (250880)
I0714 20:50:24.942320  8069 net.cpp:156] Memory required for data: 232816640
I0714 20:50:24.942350  8069 layer_factory.hpp:77] Creating layer inception_3a/relu_pool_proj
I0714 20:50:24.942368  8069 net.cpp:91] Creating Layer inception_3a/relu_pool_proj
I0714 20:50:24.942378  8069 net.cpp:425] inception_3a/relu_pool_proj <- inception_3a/pool_proj
I0714 20:50:24.942392  8069 net.cpp:386] inception_3a/relu_pool_proj -> inception_3a/pool_proj (in-place)
I0714 20:50:24.943884  8069 net.cpp:141] Setting up inception_3a/relu_pool_proj
I0714 20:50:24.943912  8069 net.cpp:148] Top shape: 10 32 28 28 (250880)
I0714 20:50:24.943912  8073 net.cpp:141] Setting up inception_3b/3x3
I0714 20:50:24.943923  8069 net.cpp:156] Memory required for data: 233820160
I0714 20:50:24.943944  8073 net.cpp:148] Top shape: 10 192 28 28 (1505280)
I0714 20:50:24.943953  8073 net.cpp:156] Memory required for data: 296038400
I0714 20:50:24.943950  8069 layer_factory.hpp:77] Creating layer inception_3a/output
I0714 20:50:24.943970  8073 layer_factory.hpp:77] Creating layer inception_3b/relu_3x3
I0714 20:50:24.943979  8069 net.cpp:91] Creating Layer inception_3a/output
I0714 20:50:24.943992  8069 net.cpp:425] inception_3a/output <- inception_3a/1x1
I0714 20:50:24.943994  8073 net.cpp:91] Creating Layer inception_3b/relu_3x3
I0714 20:50:24.944010  8069 net.cpp:425] inception_3a/output <- inception_3a/3x3
I0714 20:50:24.944011  8073 net.cpp:425] inception_3b/relu_3x3 <- inception_3b/3x3
I0714 20:50:24.944025  8069 net.cpp:425] inception_3a/output <- inception_3a/5x5
I0714 20:50:24.944033  8073 net.cpp:386] inception_3b/relu_3x3 -> inception_3b/3x3 (in-place)
I0714 20:50:24.944037  8069 net.cpp:425] inception_3a/output <- inception_3a/pool_proj
I0714 20:50:24.944052  8069 net.cpp:399] inception_3a/output -> inception_3a/output
I0714 20:50:24.945006  8069 net.cpp:141] Setting up inception_3a/output
I0714 20:50:24.945027  8069 net.cpp:148] Top shape: 10 256 28 28 (2007040)
I0714 20:50:24.945036  8069 net.cpp:156] Memory required for data: 241848320
I0714 20:50:24.945046  8069 layer_factory.hpp:77] Creating layer inception_3a/output_inception_3a/output_0_split
I0714 20:50:24.945062  8069 net.cpp:91] Creating Layer inception_3a/output_inception_3a/output_0_split
I0714 20:50:24.945072  8069 net.cpp:425] inception_3a/output_inception_3a/output_0_split <- inception_3a/output
I0714 20:50:24.945096  8069 net.cpp:399] inception_3a/output_inception_3a/output_0_split -> inception_3a/output_inception_3a/output_0_split_0
I0714 20:50:24.945116  8069 net.cpp:399] inception_3a/output_inception_3a/output_0_split -> inception_3a/output_inception_3a/output_0_split_1
I0714 20:50:24.945117  8073 net.cpp:141] Setting up inception_3b/relu_3x3
I0714 20:50:24.945135  8073 net.cpp:148] Top shape: 10 192 28 28 (1505280)
I0714 20:50:24.945134  8069 net.cpp:399] inception_3a/output_inception_3a/output_0_split -> inception_3a/output_inception_3a/output_0_split_2
I0714 20:50:24.945143  8073 net.cpp:156] Memory required for data: 302059520
I0714 20:50:24.945150  8073 layer_factory.hpp:77] Creating layer inception_3b/5x5_reduce
I0714 20:50:24.945154  8069 net.cpp:399] inception_3a/output_inception_3a/output_0_split -> inception_3a/output_inception_3a/output_0_split_3
I0714 20:50:24.945173  8073 net.cpp:91] Creating Layer inception_3b/5x5_reduce
I0714 20:50:24.945181  8073 net.cpp:425] inception_3b/5x5_reduce <- inception_3a/output_inception_3a/output_0_split_2
I0714 20:50:24.945194  8073 net.cpp:399] inception_3b/5x5_reduce -> inception_3b/5x5_reduce
I0714 20:50:24.945861  8069 net.cpp:141] Setting up inception_3a/output_inception_3a/output_0_split
I0714 20:50:24.945880  8069 net.cpp:148] Top shape: 10 256 28 28 (2007040)
I0714 20:50:24.945893  8069 net.cpp:148] Top shape: 10 256 28 28 (2007040)
I0714 20:50:24.945904  8069 net.cpp:148] Top shape: 10 256 28 28 (2007040)
I0714 20:50:24.945914  8069 net.cpp:148] Top shape: 10 256 28 28 (2007040)
I0714 20:50:24.945922  8069 net.cpp:156] Memory required for data: 273960960
I0714 20:50:24.945931  8069 layer_factory.hpp:77] Creating layer inception_3b/1x1
I0714 20:50:24.945956  8069 net.cpp:91] Creating Layer inception_3b/1x1
I0714 20:50:24.945969  8069 net.cpp:425] inception_3b/1x1 <- inception_3a/output_inception_3a/output_0_split_0
I0714 20:50:24.945992  8069 net.cpp:399] inception_3b/1x1 -> inception_3b/1x1
I0714 20:50:24.949280  8073 net.cpp:141] Setting up inception_3b/5x5_reduce
I0714 20:50:24.949304  8073 net.cpp:148] Top shape: 10 32 28 28 (250880)
I0714 20:50:24.949311  8073 net.cpp:156] Memory required for data: 303063040
I0714 20:50:24.949321  8073 layer_factory.hpp:77] Creating layer inception_3b/relu_5x5_reduce
I0714 20:50:24.949336  8073 net.cpp:91] Creating Layer inception_3b/relu_5x5_reduce
I0714 20:50:24.949342  8073 net.cpp:425] inception_3b/relu_5x5_reduce <- inception_3b/5x5_reduce
I0714 20:50:24.949352  8073 net.cpp:386] inception_3b/relu_5x5_reduce -> inception_3b/5x5_reduce (in-place)
I0714 20:50:24.949789  8073 net.cpp:141] Setting up inception_3b/relu_5x5_reduce
I0714 20:50:24.949802  8073 net.cpp:148] Top shape: 10 32 28 28 (250880)
I0714 20:50:24.949807  8073 net.cpp:156] Memory required for data: 304066560
I0714 20:50:24.949813  8073 layer_factory.hpp:77] Creating layer inception_3b/5x5
I0714 20:50:24.949832  8073 net.cpp:91] Creating Layer inception_3b/5x5
I0714 20:50:24.949843  8073 net.cpp:425] inception_3b/5x5 <- inception_3b/5x5_reduce
I0714 20:50:24.949867  8073 net.cpp:399] inception_3b/5x5 -> inception_3b/5x5
I0714 20:50:24.955574  8069 net.cpp:141] Setting up inception_3b/1x1
I0714 20:50:24.955606  8069 net.cpp:148] Top shape: 10 128 28 28 (1003520)
I0714 20:50:24.955617  8069 net.cpp:156] Memory required for data: 277975040
I0714 20:50:24.955637  8069 layer_factory.hpp:77] Creating layer inception_3b/relu_1x1
I0714 20:50:24.955673  8069 net.cpp:91] Creating Layer inception_3b/relu_1x1
I0714 20:50:24.955687  8069 net.cpp:425] inception_3b/relu_1x1 <- inception_3b/1x1
I0714 20:50:24.955706  8069 net.cpp:386] inception_3b/relu_1x1 -> inception_3b/1x1 (in-place)
I0714 20:50:24.956682  8069 net.cpp:141] Setting up inception_3b/relu_1x1
I0714 20:50:24.956707  8069 net.cpp:148] Top shape: 10 128 28 28 (1003520)
I0714 20:50:24.956717  8069 net.cpp:156] Memory required for data: 281989120
I0714 20:50:24.956727  8069 layer_factory.hpp:77] Creating layer inception_3b/3x3_reduce
I0714 20:50:24.956755  8069 net.cpp:91] Creating Layer inception_3b/3x3_reduce
I0714 20:50:24.956768  8069 net.cpp:425] inception_3b/3x3_reduce <- inception_3a/output_inception_3a/output_0_split_1
I0714 20:50:24.956795  8069 net.cpp:399] inception_3b/3x3_reduce -> inception_3b/3x3_reduce
I0714 20:50:24.959703  8073 net.cpp:141] Setting up inception_3b/5x5
I0714 20:50:24.959728  8073 net.cpp:148] Top shape: 10 96 28 28 (752640)
I0714 20:50:24.959734  8073 net.cpp:156] Memory required for data: 307077120
I0714 20:50:24.959748  8073 layer_factory.hpp:77] Creating layer inception_3b/relu_5x5
I0714 20:50:24.959758  8073 net.cpp:91] Creating Layer inception_3b/relu_5x5
I0714 20:50:24.959767  8073 net.cpp:425] inception_3b/relu_5x5 <- inception_3b/5x5
I0714 20:50:24.959776  8073 net.cpp:386] inception_3b/relu_5x5 -> inception_3b/5x5 (in-place)
I0714 20:50:24.960181  8073 net.cpp:141] Setting up inception_3b/relu_5x5
I0714 20:50:24.960194  8073 net.cpp:148] Top shape: 10 96 28 28 (752640)
I0714 20:50:24.960201  8073 net.cpp:156] Memory required for data: 310087680
I0714 20:50:24.960206  8073 layer_factory.hpp:77] Creating layer inception_3b/pool
I0714 20:50:24.960218  8073 net.cpp:91] Creating Layer inception_3b/pool
I0714 20:50:24.960227  8073 net.cpp:425] inception_3b/pool <- inception_3a/output_inception_3a/output_0_split_3
I0714 20:50:24.960235  8073 net.cpp:399] inception_3b/pool -> inception_3b/pool
I0714 20:50:24.961349  8073 net.cpp:141] Setting up inception_3b/pool
I0714 20:50:24.961364  8073 net.cpp:148] Top shape: 10 256 28 28 (2007040)
I0714 20:50:24.961369  8073 net.cpp:156] Memory required for data: 318115840
I0714 20:50:24.961374  8073 layer_factory.hpp:77] Creating layer inception_3b/pool_proj
I0714 20:50:24.961393  8073 net.cpp:91] Creating Layer inception_3b/pool_proj
I0714 20:50:24.961400  8073 net.cpp:425] inception_3b/pool_proj <- inception_3b/pool
I0714 20:50:24.961413  8073 net.cpp:399] inception_3b/pool_proj -> inception_3b/pool_proj
I0714 20:50:24.965420  8069 net.cpp:141] Setting up inception_3b/3x3_reduce
I0714 20:50:24.965448  8069 net.cpp:148] Top shape: 10 128 28 28 (1003520)
I0714 20:50:24.965458  8069 net.cpp:156] Memory required for data: 286003200
I0714 20:50:24.965476  8069 layer_factory.hpp:77] Creating layer inception_3b/relu_3x3_reduce
I0714 20:50:24.965492  8069 net.cpp:91] Creating Layer inception_3b/relu_3x3_reduce
I0714 20:50:24.965502  8069 net.cpp:425] inception_3b/relu_3x3_reduce <- inception_3b/3x3_reduce
I0714 20:50:24.965517  8069 net.cpp:386] inception_3b/relu_3x3_reduce -> inception_3b/3x3_reduce (in-place)
I0714 20:50:24.966198  8069 net.cpp:141] Setting up inception_3b/relu_3x3_reduce
I0714 20:50:24.966220  8069 net.cpp:148] Top shape: 10 128 28 28 (1003520)
I0714 20:50:24.966230  8069 net.cpp:156] Memory required for data: 290017280
I0714 20:50:24.966240  8069 layer_factory.hpp:77] Creating layer inception_3b/3x3
I0714 20:50:24.966264  8073 net.cpp:141] Setting up inception_3b/pool_proj
I0714 20:50:24.966276  8069 net.cpp:91] Creating Layer inception_3b/3x3
I0714 20:50:24.966281  8073 net.cpp:148] Top shape: 10 64 28 28 (501760)
I0714 20:50:24.966295  8069 net.cpp:425] inception_3b/3x3 <- inception_3b/3x3_reduce
I0714 20:50:24.966297  8073 net.cpp:156] Memory required for data: 320122880
I0714 20:50:24.966316  8073 layer_factory.hpp:77] Creating layer inception_3b/relu_pool_proj
I0714 20:50:24.966325  8069 net.cpp:399] inception_3b/3x3 -> inception_3b/3x3
I0714 20:50:24.966331  8073 net.cpp:91] Creating Layer inception_3b/relu_pool_proj
I0714 20:50:24.966338  8073 net.cpp:425] inception_3b/relu_pool_proj <- inception_3b/pool_proj
I0714 20:50:24.966346  8073 net.cpp:386] inception_3b/relu_pool_proj -> inception_3b/pool_proj (in-place)
I0714 20:50:24.967352  8073 net.cpp:141] Setting up inception_3b/relu_pool_proj
I0714 20:50:24.967370  8073 net.cpp:148] Top shape: 10 64 28 28 (501760)
I0714 20:50:24.967375  8073 net.cpp:156] Memory required for data: 322129920
I0714 20:50:24.967381  8073 layer_factory.hpp:77] Creating layer inception_3b/output
I0714 20:50:24.967403  8073 net.cpp:91] Creating Layer inception_3b/output
I0714 20:50:24.967411  8073 net.cpp:425] inception_3b/output <- inception_3b/1x1
I0714 20:50:24.967419  8073 net.cpp:425] inception_3b/output <- inception_3b/3x3
I0714 20:50:24.967425  8073 net.cpp:425] inception_3b/output <- inception_3b/5x5
I0714 20:50:24.967432  8073 net.cpp:425] inception_3b/output <- inception_3b/pool_proj
I0714 20:50:24.967442  8073 net.cpp:399] inception_3b/output -> inception_3b/output
I0714 20:50:24.967568  8073 net.cpp:141] Setting up inception_3b/output
I0714 20:50:24.967581  8073 net.cpp:148] Top shape: 10 480 28 28 (3763200)
I0714 20:50:24.967586  8073 net.cpp:156] Memory required for data: 337182720
I0714 20:50:24.967591  8073 layer_factory.hpp:77] Creating layer pool3/3x3_s2
I0714 20:50:24.967600  8073 net.cpp:91] Creating Layer pool3/3x3_s2
I0714 20:50:24.967607  8073 net.cpp:425] pool3/3x3_s2 <- inception_3b/output
I0714 20:50:24.967617  8073 net.cpp:399] pool3/3x3_s2 -> pool3/3x3_s2
I0714 20:50:24.967824  8073 net.cpp:141] Setting up pool3/3x3_s2
I0714 20:50:24.967838  8073 net.cpp:148] Top shape: 10 480 14 14 (940800)
I0714 20:50:24.967842  8073 net.cpp:156] Memory required for data: 340945920
I0714 20:50:24.967847  8073 layer_factory.hpp:77] Creating layer pool3/3x3_s2_pool3/3x3_s2_0_split
I0714 20:50:24.967860  8073 net.cpp:91] Creating Layer pool3/3x3_s2_pool3/3x3_s2_0_split
I0714 20:50:24.967866  8073 net.cpp:425] pool3/3x3_s2_pool3/3x3_s2_0_split <- pool3/3x3_s2
I0714 20:50:24.967874  8073 net.cpp:399] pool3/3x3_s2_pool3/3x3_s2_0_split -> pool3/3x3_s2_pool3/3x3_s2_0_split_0
I0714 20:50:24.967882  8073 net.cpp:399] pool3/3x3_s2_pool3/3x3_s2_0_split -> pool3/3x3_s2_pool3/3x3_s2_0_split_1
I0714 20:50:24.967891  8073 net.cpp:399] pool3/3x3_s2_pool3/3x3_s2_0_split -> pool3/3x3_s2_pool3/3x3_s2_0_split_2
I0714 20:50:24.967898  8073 net.cpp:399] pool3/3x3_s2_pool3/3x3_s2_0_split -> pool3/3x3_s2_pool3/3x3_s2_0_split_3
I0714 20:50:24.970639  8073 net.cpp:141] Setting up pool3/3x3_s2_pool3/3x3_s2_0_split
I0714 20:50:24.970655  8073 net.cpp:148] Top shape: 10 480 14 14 (940800)
I0714 20:50:24.970662  8073 net.cpp:148] Top shape: 10 480 14 14 (940800)
I0714 20:50:24.970669  8073 net.cpp:148] Top shape: 10 480 14 14 (940800)
I0714 20:50:24.970674  8073 net.cpp:148] Top shape: 10 480 14 14 (940800)
I0714 20:50:24.970679  8073 net.cpp:156] Memory required for data: 355998720
I0714 20:50:24.970684  8073 layer_factory.hpp:77] Creating layer inception_4a/1x1
I0714 20:50:24.970717  8073 net.cpp:91] Creating Layer inception_4a/1x1
I0714 20:50:24.970726  8073 net.cpp:425] inception_4a/1x1 <- pool3/3x3_s2_pool3/3x3_s2_0_split_0
I0714 20:50:24.970736  8073 net.cpp:399] inception_4a/1x1 -> inception_4a/1x1
I0714 20:50:24.976874  8073 net.cpp:141] Setting up inception_4a/1x1
I0714 20:50:24.976896  8073 net.cpp:148] Top shape: 10 192 14 14 (376320)
I0714 20:50:24.976902  8073 net.cpp:156] Memory required for data: 357504000
I0714 20:50:24.976912  8073 layer_factory.hpp:77] Creating layer inception_4a/relu_1x1
I0714 20:50:24.976927  8073 net.cpp:91] Creating Layer inception_4a/relu_1x1
I0714 20:50:24.976933  8073 net.cpp:425] inception_4a/relu_1x1 <- inception_4a/1x1
I0714 20:50:24.976941  8073 net.cpp:386] inception_4a/relu_1x1 -> inception_4a/1x1 (in-place)
I0714 20:50:24.977293  8073 net.cpp:141] Setting up inception_4a/relu_1x1
I0714 20:50:24.977305  8073 net.cpp:148] Top shape: 10 192 14 14 (376320)
I0714 20:50:24.977310  8073 net.cpp:156] Memory required for data: 359009280
I0714 20:50:24.977316  8073 layer_factory.hpp:77] Creating layer inception_4a/3x3_reduce
I0714 20:50:24.977339  8073 net.cpp:91] Creating Layer inception_4a/3x3_reduce
I0714 20:50:24.977346  8073 net.cpp:425] inception_4a/3x3_reduce <- pool3/3x3_s2_pool3/3x3_s2_0_split_1
I0714 20:50:24.977357  8073 net.cpp:399] inception_4a/3x3_reduce -> inception_4a/3x3_reduce
I0714 20:50:24.978302  8069 net.cpp:141] Setting up inception_3b/3x3
I0714 20:50:24.978329  8069 net.cpp:148] Top shape: 10 192 28 28 (1505280)
I0714 20:50:24.978340  8069 net.cpp:156] Memory required for data: 296038400
I0714 20:50:24.978358  8069 layer_factory.hpp:77] Creating layer inception_3b/relu_3x3
I0714 20:50:24.978389  8069 net.cpp:91] Creating Layer inception_3b/relu_3x3
I0714 20:50:24.978404  8069 net.cpp:425] inception_3b/relu_3x3 <- inception_3b/3x3
I0714 20:50:24.978417  8069 net.cpp:386] inception_3b/relu_3x3 -> inception_3b/3x3 (in-place)
I0714 20:50:24.979835  8069 net.cpp:141] Setting up inception_3b/relu_3x3
I0714 20:50:24.979862  8069 net.cpp:148] Top shape: 10 192 28 28 (1505280)
I0714 20:50:24.979872  8069 net.cpp:156] Memory required for data: 302059520
I0714 20:50:24.979883  8069 layer_factory.hpp:77] Creating layer inception_3b/5x5_reduce
I0714 20:50:24.979905  8069 net.cpp:91] Creating Layer inception_3b/5x5_reduce
I0714 20:50:24.979918  8069 net.cpp:425] inception_3b/5x5_reduce <- inception_3a/output_inception_3a/output_0_split_2
I0714 20:50:24.979935  8069 net.cpp:399] inception_3b/5x5_reduce -> inception_3b/5x5_reduce
I0714 20:50:24.982553  8073 net.cpp:141] Setting up inception_4a/3x3_reduce
I0714 20:50:24.982571  8073 net.cpp:148] Top shape: 10 96 14 14 (188160)
I0714 20:50:24.982578  8073 net.cpp:156] Memory required for data: 359761920
I0714 20:50:24.982604  8073 layer_factory.hpp:77] Creating layer inception_4a/relu_3x3_reduce
I0714 20:50:24.982614  8073 net.cpp:91] Creating Layer inception_4a/relu_3x3_reduce
I0714 20:50:24.982620  8073 net.cpp:425] inception_4a/relu_3x3_reduce <- inception_4a/3x3_reduce
I0714 20:50:24.982628  8073 net.cpp:386] inception_4a/relu_3x3_reduce -> inception_4a/3x3_reduce (in-place)
I0714 20:50:24.983000  8073 net.cpp:141] Setting up inception_4a/relu_3x3_reduce
I0714 20:50:24.983014  8073 net.cpp:148] Top shape: 10 96 14 14 (188160)
I0714 20:50:24.983019  8073 net.cpp:156] Memory required for data: 360514560
I0714 20:50:24.983026  8073 layer_factory.hpp:77] Creating layer inception_4a/3x3
I0714 20:50:24.983045  8073 net.cpp:91] Creating Layer inception_4a/3x3
I0714 20:50:24.983052  8073 net.cpp:425] inception_4a/3x3 <- inception_4a/3x3_reduce
I0714 20:50:24.983062  8073 net.cpp:399] inception_4a/3x3 -> inception_4a/3x3
I0714 20:50:24.987898  8069 net.cpp:141] Setting up inception_3b/5x5_reduce
I0714 20:50:24.987928  8069 net.cpp:148] Top shape: 10 32 28 28 (250880)
I0714 20:50:24.987938  8069 net.cpp:156] Memory required for data: 303063040
I0714 20:50:24.987957  8069 layer_factory.hpp:77] Creating layer inception_3b/relu_5x5_reduce
I0714 20:50:24.987972  8069 net.cpp:91] Creating Layer inception_3b/relu_5x5_reduce
I0714 20:50:24.987982  8069 net.cpp:425] inception_3b/relu_5x5_reduce <- inception_3b/5x5_reduce
I0714 20:50:24.988013  8069 net.cpp:386] inception_3b/relu_5x5_reduce -> inception_3b/5x5_reduce (in-place)
I0714 20:50:24.988471  8069 net.cpp:141] Setting up inception_3b/relu_5x5_reduce
I0714 20:50:24.988493  8069 net.cpp:148] Top shape: 10 32 28 28 (250880)
I0714 20:50:24.988503  8069 net.cpp:156] Memory required for data: 304066560
I0714 20:50:24.988513  8069 layer_factory.hpp:77] Creating layer inception_3b/5x5
I0714 20:50:24.988544  8069 net.cpp:91] Creating Layer inception_3b/5x5
I0714 20:50:24.988557  8069 net.cpp:425] inception_3b/5x5 <- inception_3b/5x5_reduce
I0714 20:50:24.988575  8069 net.cpp:399] inception_3b/5x5 -> inception_3b/5x5
I0714 20:50:24.993916  8073 net.cpp:141] Setting up inception_4a/3x3
I0714 20:50:24.993937  8073 net.cpp:148] Top shape: 10 208 14 14 (407680)
I0714 20:50:24.993942  8073 net.cpp:156] Memory required for data: 362145280
I0714 20:50:24.993952  8073 layer_factory.hpp:77] Creating layer inception_4a/relu_3x3
I0714 20:50:24.993968  8073 net.cpp:91] Creating Layer inception_4a/relu_3x3
I0714 20:50:24.993975  8073 net.cpp:425] inception_4a/relu_3x3 <- inception_4a/3x3
I0714 20:50:24.993983  8073 net.cpp:386] inception_4a/relu_3x3 -> inception_4a/3x3 (in-place)
I0714 20:50:24.994899  8073 net.cpp:141] Setting up inception_4a/relu_3x3
I0714 20:50:24.994920  8073 net.cpp:148] Top shape: 10 208 14 14 (407680)
I0714 20:50:24.994925  8073 net.cpp:156] Memory required for data: 363776000
I0714 20:50:24.994930  8073 layer_factory.hpp:77] Creating layer inception_4a/5x5_reduce
I0714 20:50:24.994949  8073 net.cpp:91] Creating Layer inception_4a/5x5_reduce
I0714 20:50:24.994956  8073 net.cpp:425] inception_4a/5x5_reduce <- pool3/3x3_s2_pool3/3x3_s2_0_split_2
I0714 20:50:24.994966  8073 net.cpp:399] inception_4a/5x5_reduce -> inception_4a/5x5_reduce
I0714 20:50:25.000602  8069 net.cpp:141] Setting up inception_3b/5x5
I0714 20:50:25.000633  8069 net.cpp:148] Top shape: 10 96 28 28 (752640)
I0714 20:50:25.000643  8069 net.cpp:156] Memory required for data: 307077120
I0714 20:50:25.000660  8069 layer_factory.hpp:77] Creating layer inception_3b/relu_5x5
I0714 20:50:25.000676  8069 net.cpp:91] Creating Layer inception_3b/relu_5x5
I0714 20:50:25.000689  8069 net.cpp:425] inception_3b/relu_5x5 <- inception_3b/5x5
I0714 20:50:25.000710  8069 net.cpp:386] inception_3b/relu_5x5 -> inception_3b/5x5 (in-place)
I0714 20:50:25.001338  8073 net.cpp:141] Setting up inception_4a/5x5_reduce
I0714 20:50:25.001366  8073 net.cpp:148] Top shape: 10 16 14 14 (31360)
I0714 20:50:25.001373  8073 net.cpp:156] Memory required for data: 363901440
I0714 20:50:25.001385  8073 layer_factory.hpp:77] Creating layer inception_4a/relu_5x5_reduce
I0714 20:50:25.001390  8069 net.cpp:141] Setting up inception_3b/relu_5x5
I0714 20:50:25.001399  8073 net.cpp:91] Creating Layer inception_4a/relu_5x5_reduce
I0714 20:50:25.001418  8069 net.cpp:148] Top shape: 10 96 28 28 (752640)
I0714 20:50:25.001422  8073 net.cpp:425] inception_4a/relu_5x5_reduce <- inception_4a/5x5_reduce
I0714 20:50:25.001435  8069 net.cpp:156] Memory required for data: 310087680
I0714 20:50:25.001446  8069 layer_factory.hpp:77] Creating layer inception_3b/pool
I0714 20:50:25.001446  8073 net.cpp:386] inception_4a/relu_5x5_reduce -> inception_4a/5x5_reduce (in-place)
I0714 20:50:25.001466  8069 net.cpp:91] Creating Layer inception_3b/pool
I0714 20:50:25.001477  8069 net.cpp:425] inception_3b/pool <- inception_3a/output_inception_3a/output_0_split_3
I0714 20:50:25.001492  8069 net.cpp:399] inception_3b/pool -> inception_3b/pool
I0714 20:50:25.001827  8069 net.cpp:141] Setting up inception_3b/pool
I0714 20:50:25.001849  8069 net.cpp:148] Top shape: 10 256 28 28 (2007040)
I0714 20:50:25.001858  8069 net.cpp:156] Memory required for data: 318115840
I0714 20:50:25.001868  8069 layer_factory.hpp:77] Creating layer inception_3b/pool_proj
I0714 20:50:25.001895  8069 net.cpp:91] Creating Layer inception_3b/pool_proj
I0714 20:50:25.001899  8073 net.cpp:141] Setting up inception_4a/relu_5x5_reduce
I0714 20:50:25.001909  8069 net.cpp:425] inception_3b/pool_proj <- inception_3b/pool
I0714 20:50:25.001914  8073 net.cpp:148] Top shape: 10 16 14 14 (31360)
I0714 20:50:25.001920  8073 net.cpp:156] Memory required for data: 364026880
I0714 20:50:25.001925  8073 layer_factory.hpp:77] Creating layer inception_4a/5x5
I0714 20:50:25.001929  8069 net.cpp:399] inception_3b/pool_proj -> inception_3b/pool_proj
I0714 20:50:25.001950  8073 net.cpp:91] Creating Layer inception_4a/5x5
I0714 20:50:25.001958  8073 net.cpp:425] inception_4a/5x5 <- inception_4a/5x5_reduce
I0714 20:50:25.001968  8073 net.cpp:399] inception_4a/5x5 -> inception_4a/5x5
I0714 20:50:25.010077  8069 net.cpp:141] Setting up inception_3b/pool_proj
I0714 20:50:25.010107  8069 net.cpp:148] Top shape: 10 64 28 28 (501760)
I0714 20:50:25.010118  8069 net.cpp:156] Memory required for data: 320122880
I0714 20:50:25.010135  8069 layer_factory.hpp:77] Creating layer inception_3b/relu_pool_proj
I0714 20:50:25.010152  8069 net.cpp:91] Creating Layer inception_3b/relu_pool_proj
I0714 20:50:25.010164  8069 net.cpp:425] inception_3b/relu_pool_proj <- inception_3b/pool_proj
I0714 20:50:25.010182  8069 net.cpp:386] inception_3b/relu_pool_proj -> inception_3b/pool_proj (in-place)
I0714 20:50:25.011533  8073 net.cpp:141] Setting up inception_4a/5x5
I0714 20:50:25.011572  8073 net.cpp:148] Top shape: 10 48 14 14 (94080)
I0714 20:50:25.011585  8073 net.cpp:156] Memory required for data: 364403200
I0714 20:50:25.011610  8073 layer_factory.hpp:77] Creating layer inception_4a/relu_5x5
I0714 20:50:25.011631  8073 net.cpp:91] Creating Layer inception_4a/relu_5x5
I0714 20:50:25.011636  8069 net.cpp:141] Setting up inception_3b/relu_pool_proj
I0714 20:50:25.011646  8073 net.cpp:425] inception_4a/relu_5x5 <- inception_4a/5x5
I0714 20:50:25.011662  8069 net.cpp:148] Top shape: 10 64 28 28 (501760)
I0714 20:50:25.011664  8073 net.cpp:386] inception_4a/relu_5x5 -> inception_4a/5x5 (in-place)
I0714 20:50:25.011672  8069 net.cpp:156] Memory required for data: 322129920
I0714 20:50:25.011684  8069 layer_factory.hpp:77] Creating layer inception_3b/output
I0714 20:50:25.011703  8069 net.cpp:91] Creating Layer inception_3b/output
I0714 20:50:25.011715  8069 net.cpp:425] inception_3b/output <- inception_3b/1x1
I0714 20:50:25.011728  8069 net.cpp:425] inception_3b/output <- inception_3b/3x3
I0714 20:50:25.011739  8069 net.cpp:425] inception_3b/output <- inception_3b/5x5
I0714 20:50:25.011749  8069 net.cpp:425] inception_3b/output <- inception_3b/pool_proj
I0714 20:50:25.011762  8069 net.cpp:399] inception_3b/output -> inception_3b/output
I0714 20:50:25.012051  8069 net.cpp:141] Setting up inception_3b/output
I0714 20:50:25.012070  8069 net.cpp:148] Top shape: 10 480 28 28 (3763200)
I0714 20:50:25.012079  8069 net.cpp:156] Memory required for data: 337182720
I0714 20:50:25.012089  8069 layer_factory.hpp:77] Creating layer pool3/3x3_s2
I0714 20:50:25.012107  8069 net.cpp:91] Creating Layer pool3/3x3_s2
I0714 20:50:25.012118  8069 net.cpp:425] pool3/3x3_s2 <- inception_3b/output
I0714 20:50:25.012132  8069 net.cpp:399] pool3/3x3_s2 -> pool3/3x3_s2
I0714 20:50:25.012208  8073 net.cpp:141] Setting up inception_4a/relu_5x5
I0714 20:50:25.012228  8073 net.cpp:148] Top shape: 10 48 14 14 (94080)
I0714 20:50:25.012236  8073 net.cpp:156] Memory required for data: 364779520
I0714 20:50:25.012246  8073 layer_factory.hpp:77] Creating layer inception_4a/pool
I0714 20:50:25.012261  8073 net.cpp:91] Creating Layer inception_4a/pool
I0714 20:50:25.012272  8073 net.cpp:425] inception_4a/pool <- pool3/3x3_s2_pool3/3x3_s2_0_split_3
I0714 20:50:25.012290  8073 net.cpp:399] inception_4a/pool -> inception_4a/pool
I0714 20:50:25.012322  8069 net.cpp:141] Setting up pool3/3x3_s2
I0714 20:50:25.012342  8069 net.cpp:148] Top shape: 10 480 14 14 (940800)
I0714 20:50:25.012351  8069 net.cpp:156] Memory required for data: 340945920
I0714 20:50:25.012361  8069 layer_factory.hpp:77] Creating layer pool3/3x3_s2_pool3/3x3_s2_0_split
I0714 20:50:25.012377  8069 net.cpp:91] Creating Layer pool3/3x3_s2_pool3/3x3_s2_0_split
I0714 20:50:25.012387  8069 net.cpp:425] pool3/3x3_s2_pool3/3x3_s2_0_split <- pool3/3x3_s2
I0714 20:50:25.012401  8069 net.cpp:399] pool3/3x3_s2_pool3/3x3_s2_0_split -> pool3/3x3_s2_pool3/3x3_s2_0_split_0
I0714 20:50:25.012425  8069 net.cpp:399] pool3/3x3_s2_pool3/3x3_s2_0_split -> pool3/3x3_s2_pool3/3x3_s2_0_split_1
I0714 20:50:25.012444  8069 net.cpp:399] pool3/3x3_s2_pool3/3x3_s2_0_split -> pool3/3x3_s2_pool3/3x3_s2_0_split_2
I0714 20:50:25.012460  8069 net.cpp:399] pool3/3x3_s2_pool3/3x3_s2_0_split -> pool3/3x3_s2_pool3/3x3_s2_0_split_3
I0714 20:50:25.012481  8073 net.cpp:141] Setting up inception_4a/pool
I0714 20:50:25.012500  8073 net.cpp:148] Top shape: 10 480 14 14 (940800)
I0714 20:50:25.012507  8073 net.cpp:156] Memory required for data: 368542720
I0714 20:50:25.012516  8073 layer_factory.hpp:77] Creating layer inception_4a/pool_proj
I0714 20:50:25.012542  8073 net.cpp:91] Creating Layer inception_4a/pool_proj
I0714 20:50:25.012552  8073 net.cpp:425] inception_4a/pool_proj <- inception_4a/pool
I0714 20:50:25.012567  8073 net.cpp:399] inception_4a/pool_proj -> inception_4a/pool_proj
I0714 20:50:25.013094  8069 net.cpp:141] Setting up pool3/3x3_s2_pool3/3x3_s2_0_split
I0714 20:50:25.013113  8069 net.cpp:148] Top shape: 10 480 14 14 (940800)
I0714 20:50:25.013126  8069 net.cpp:148] Top shape: 10 480 14 14 (940800)
I0714 20:50:25.013137  8069 net.cpp:148] Top shape: 10 480 14 14 (940800)
I0714 20:50:25.013149  8069 net.cpp:148] Top shape: 10 480 14 14 (940800)
I0714 20:50:25.013156  8069 net.cpp:156] Memory required for data: 355998720
I0714 20:50:25.013166  8069 layer_factory.hpp:77] Creating layer inception_4a/1x1
I0714 20:50:25.013187  8069 net.cpp:91] Creating Layer inception_4a/1x1
I0714 20:50:25.013200  8069 net.cpp:425] inception_4a/1x1 <- pool3/3x3_s2_pool3/3x3_s2_0_split_0
I0714 20:50:25.013222  8069 net.cpp:399] inception_4a/1x1 -> inception_4a/1x1
I0714 20:50:25.021234  8073 net.cpp:141] Setting up inception_4a/pool_proj
I0714 20:50:25.021265  8073 net.cpp:148] Top shape: 10 64 14 14 (125440)
I0714 20:50:25.021273  8073 net.cpp:156] Memory required for data: 369044480
I0714 20:50:25.021292  8073 layer_factory.hpp:77] Creating layer inception_4a/relu_pool_proj
I0714 20:50:25.021308  8073 net.cpp:91] Creating Layer inception_4a/relu_pool_proj
I0714 20:50:25.021318  8073 net.cpp:425] inception_4a/relu_pool_proj <- inception_4a/pool_proj
I0714 20:50:25.021337  8073 net.cpp:386] inception_4a/relu_pool_proj -> inception_4a/pool_proj (in-place)
I0714 20:50:25.023002  8073 net.cpp:141] Setting up inception_4a/relu_pool_proj
I0714 20:50:25.023032  8073 net.cpp:148] Top shape: 10 64 14 14 (125440)
I0714 20:50:25.023044  8073 net.cpp:156] Memory required for data: 369546240
I0714 20:50:25.023056  8073 layer_factory.hpp:77] Creating layer inception_4a/output
I0714 20:50:25.023077  8073 net.cpp:91] Creating Layer inception_4a/output
I0714 20:50:25.023092  8073 net.cpp:425] inception_4a/output <- inception_4a/1x1
I0714 20:50:25.023105  8073 net.cpp:425] inception_4a/output <- inception_4a/3x3
I0714 20:50:25.023118  8073 net.cpp:425] inception_4a/output <- inception_4a/5x5
I0714 20:50:25.023110  8069 net.cpp:141] Setting up inception_4a/1x1
I0714 20:50:25.023138  8073 net.cpp:425] inception_4a/output <- inception_4a/pool_proj
I0714 20:50:25.023159  8069 net.cpp:148] Top shape: 10 192 14 14 (376320)
I0714 20:50:25.023166  8069 net.cpp:156] Memory required for data: 357504000
I0714 20:50:25.023171  8073 net.cpp:399] inception_4a/output -> inception_4a/output
I0714 20:50:25.023180  8069 layer_factory.hpp:77] Creating layer inception_4a/relu_1x1
I0714 20:50:25.023190  8069 net.cpp:91] Creating Layer inception_4a/relu_1x1
I0714 20:50:25.023197  8069 net.cpp:425] inception_4a/relu_1x1 <- inception_4a/1x1
I0714 20:50:25.023205  8069 net.cpp:386] inception_4a/relu_1x1 -> inception_4a/1x1 (in-place)
I0714 20:50:25.023511  8073 net.cpp:141] Setting up inception_4a/output
I0714 20:50:25.023531  8073 net.cpp:148] Top shape: 10 512 14 14 (1003520)
I0714 20:50:25.023540  8073 net.cpp:156] Memory required for data: 373560320
I0714 20:50:25.023550  8073 layer_factory.hpp:77] Creating layer inception_4a/output_inception_4a/output_0_split
I0714 20:50:25.023568  8073 net.cpp:91] Creating Layer inception_4a/output_inception_4a/output_0_split
I0714 20:50:25.023579  8073 net.cpp:425] inception_4a/output_inception_4a/output_0_split <- inception_4a/output
I0714 20:50:25.023592  8073 net.cpp:399] inception_4a/output_inception_4a/output_0_split -> inception_4a/output_inception_4a/output_0_split_0
I0714 20:50:25.023609  8073 net.cpp:399] inception_4a/output_inception_4a/output_0_split -> inception_4a/output_inception_4a/output_0_split_1
I0714 20:50:25.023617  8069 net.cpp:141] Setting up inception_4a/relu_1x1
I0714 20:50:25.023625  8073 net.cpp:399] inception_4a/output_inception_4a/output_0_split -> inception_4a/output_inception_4a/output_0_split_2
I0714 20:50:25.023633  8069 net.cpp:148] Top shape: 10 192 14 14 (376320)
I0714 20:50:25.023638  8069 net.cpp:156] Memory required for data: 359009280
I0714 20:50:25.023643  8069 layer_factory.hpp:77] Creating layer inception_4a/3x3_reduce
I0714 20:50:25.023643  8073 net.cpp:399] inception_4a/output_inception_4a/output_0_split -> inception_4a/output_inception_4a/output_0_split_3
I0714 20:50:25.023668  8069 net.cpp:91] Creating Layer inception_4a/3x3_reduce
I0714 20:50:25.023675  8069 net.cpp:425] inception_4a/3x3_reduce <- pool3/3x3_s2_pool3/3x3_s2_0_split_1
I0714 20:50:25.023691  8069 net.cpp:399] inception_4a/3x3_reduce -> inception_4a/3x3_reduce
I0714 20:50:25.024189  8073 net.cpp:141] Setting up inception_4a/output_inception_4a/output_0_split
I0714 20:50:25.024209  8073 net.cpp:148] Top shape: 10 512 14 14 (1003520)
I0714 20:50:25.024219  8073 net.cpp:148] Top shape: 10 512 14 14 (1003520)
I0714 20:50:25.024230  8073 net.cpp:148] Top shape: 10 512 14 14 (1003520)
I0714 20:50:25.024240  8073 net.cpp:148] Top shape: 10 512 14 14 (1003520)
I0714 20:50:25.024248  8073 net.cpp:156] Memory required for data: 389616640
I0714 20:50:25.024257  8073 layer_factory.hpp:77] Creating layer inception_4b/1x1
I0714 20:50:25.024286  8073 net.cpp:91] Creating Layer inception_4b/1x1
I0714 20:50:25.024298  8073 net.cpp:425] inception_4b/1x1 <- inception_4a/output_inception_4a/output_0_split_0
I0714 20:50:25.024315  8073 net.cpp:399] inception_4b/1x1 -> inception_4b/1x1
I0714 20:50:25.029150  8069 net.cpp:141] Setting up inception_4a/3x3_reduce
I0714 20:50:25.029177  8069 net.cpp:148] Top shape: 10 96 14 14 (188160)
I0714 20:50:25.029183  8069 net.cpp:156] Memory required for data: 359761920
I0714 20:50:25.029208  8069 layer_factory.hpp:77] Creating layer inception_4a/relu_3x3_reduce
I0714 20:50:25.029220  8069 net.cpp:91] Creating Layer inception_4a/relu_3x3_reduce
I0714 20:50:25.029227  8069 net.cpp:425] inception_4a/relu_3x3_reduce <- inception_4a/3x3_reduce
I0714 20:50:25.029235  8069 net.cpp:386] inception_4a/relu_3x3_reduce -> inception_4a/3x3_reduce (in-place)
I0714 20:50:25.029623  8069 net.cpp:141] Setting up inception_4a/relu_3x3_reduce
I0714 20:50:25.029638  8069 net.cpp:148] Top shape: 10 96 14 14 (188160)
I0714 20:50:25.029642  8069 net.cpp:156] Memory required for data: 360514560
I0714 20:50:25.029647  8069 layer_factory.hpp:77] Creating layer inception_4a/3x3
I0714 20:50:25.029665  8069 net.cpp:91] Creating Layer inception_4a/3x3
I0714 20:50:25.029672  8069 net.cpp:425] inception_4a/3x3 <- inception_4a/3x3_reduce
I0714 20:50:25.029685  8069 net.cpp:399] inception_4a/3x3 -> inception_4a/3x3
I0714 20:50:25.033473  8073 net.cpp:141] Setting up inception_4b/1x1
I0714 20:50:25.033509  8073 net.cpp:148] Top shape: 10 160 14 14 (313600)
I0714 20:50:25.033519  8073 net.cpp:156] Memory required for data: 390871040
I0714 20:50:25.033536  8073 layer_factory.hpp:77] Creating layer inception_4b/relu_1x1
I0714 20:50:25.033560  8073 net.cpp:91] Creating Layer inception_4b/relu_1x1
I0714 20:50:25.033571  8073 net.cpp:425] inception_4b/relu_1x1 <- inception_4b/1x1
I0714 20:50:25.033588  8073 net.cpp:386] inception_4b/relu_1x1 -> inception_4b/1x1 (in-place)
I0714 20:50:25.034024  8073 net.cpp:141] Setting up inception_4b/relu_1x1
I0714 20:50:25.034042  8073 net.cpp:148] Top shape: 10 160 14 14 (313600)
I0714 20:50:25.034051  8073 net.cpp:156] Memory required for data: 392125440
I0714 20:50:25.034060  8073 layer_factory.hpp:77] Creating layer inception_4b/3x3_reduce
I0714 20:50:25.034087  8073 net.cpp:91] Creating Layer inception_4b/3x3_reduce
I0714 20:50:25.034098  8073 net.cpp:425] inception_4b/3x3_reduce <- inception_4a/output_inception_4a/output_0_split_1
I0714 20:50:25.034118  8073 net.cpp:399] inception_4b/3x3_reduce -> inception_4b/3x3_reduce
I0714 20:50:25.039371  8069 net.cpp:141] Setting up inception_4a/3x3
I0714 20:50:25.039402  8069 net.cpp:148] Top shape: 10 208 14 14 (407680)
I0714 20:50:25.039407  8069 net.cpp:156] Memory required for data: 362145280
I0714 20:50:25.039419  8069 layer_factory.hpp:77] Creating layer inception_4a/relu_3x3
I0714 20:50:25.039432  8069 net.cpp:91] Creating Layer inception_4a/relu_3x3
I0714 20:50:25.039443  8069 net.cpp:425] inception_4a/relu_3x3 <- inception_4a/3x3
I0714 20:50:25.039451  8069 net.cpp:386] inception_4a/relu_3x3 -> inception_4a/3x3 (in-place)
I0714 20:50:25.041090  8069 net.cpp:141] Setting up inception_4a/relu_3x3
I0714 20:50:25.041115  8069 net.cpp:148] Top shape: 10 208 14 14 (407680)
I0714 20:50:25.041121  8069 net.cpp:156] Memory required for data: 363776000
I0714 20:50:25.041127  8069 layer_factory.hpp:77] Creating layer inception_4a/5x5_reduce
I0714 20:50:25.041149  8069 net.cpp:91] Creating Layer inception_4a/5x5_reduce
I0714 20:50:25.041157  8069 net.cpp:425] inception_4a/5x5_reduce <- pool3/3x3_s2_pool3/3x3_s2_0_split_2
I0714 20:50:25.041173  8069 net.cpp:399] inception_4a/5x5_reduce -> inception_4a/5x5_reduce
I0714 20:50:25.041250  8073 net.cpp:141] Setting up inception_4b/3x3_reduce
I0714 20:50:25.041275  8073 net.cpp:148] Top shape: 10 112 14 14 (219520)
I0714 20:50:25.041280  8073 net.cpp:156] Memory required for data: 393003520
I0714 20:50:25.041292  8073 layer_factory.hpp:77] Creating layer inception_4b/relu_3x3_reduce
I0714 20:50:25.041302  8073 net.cpp:91] Creating Layer inception_4b/relu_3x3_reduce
I0714 20:50:25.041311  8073 net.cpp:425] inception_4b/relu_3x3_reduce <- inception_4b/3x3_reduce
I0714 20:50:25.041318  8073 net.cpp:386] inception_4b/relu_3x3_reduce -> inception_4b/3x3_reduce (in-place)
I0714 20:50:25.041859  8073 net.cpp:141] Setting up inception_4b/relu_3x3_reduce
I0714 20:50:25.041880  8073 net.cpp:148] Top shape: 10 112 14 14 (219520)
I0714 20:50:25.041885  8073 net.cpp:156] Memory required for data: 393881600
I0714 20:50:25.041892  8073 layer_factory.hpp:77] Creating layer inception_4b/3x3
I0714 20:50:25.041910  8073 net.cpp:91] Creating Layer inception_4b/3x3
I0714 20:50:25.041918  8073 net.cpp:425] inception_4b/3x3 <- inception_4b/3x3_reduce
I0714 20:50:25.041931  8073 net.cpp:399] inception_4b/3x3 -> inception_4b/3x3
I0714 20:50:25.046713  8069 net.cpp:141] Setting up inception_4a/5x5_reduce
I0714 20:50:25.046737  8069 net.cpp:148] Top shape: 10 16 14 14 (31360)
I0714 20:50:25.046743  8069 net.cpp:156] Memory required for data: 363901440
I0714 20:50:25.046754  8069 layer_factory.hpp:77] Creating layer inception_4a/relu_5x5_reduce
I0714 20:50:25.046769  8069 net.cpp:91] Creating Layer inception_4a/relu_5x5_reduce
I0714 20:50:25.046777  8069 net.cpp:425] inception_4a/relu_5x5_reduce <- inception_4a/5x5_reduce
I0714 20:50:25.046785  8069 net.cpp:386] inception_4a/relu_5x5_reduce -> inception_4a/5x5_reduce (in-place)
I0714 20:50:25.047066  8069 net.cpp:141] Setting up inception_4a/relu_5x5_reduce
I0714 20:50:25.047087  8069 net.cpp:148] Top shape: 10 16 14 14 (31360)
I0714 20:50:25.047092  8069 net.cpp:156] Memory required for data: 364026880
I0714 20:50:25.047098  8069 layer_factory.hpp:77] Creating layer inception_4a/5x5
I0714 20:50:25.047116  8069 net.cpp:91] Creating Layer inception_4a/5x5
I0714 20:50:25.047122  8069 net.cpp:425] inception_4a/5x5 <- inception_4a/5x5_reduce
I0714 20:50:25.047132  8069 net.cpp:399] inception_4a/5x5 -> inception_4a/5x5
I0714 20:50:25.051720  8069 net.cpp:141] Setting up inception_4a/5x5
I0714 20:50:25.051743  8069 net.cpp:148] Top shape: 10 48 14 14 (94080)
I0714 20:50:25.051748  8069 net.cpp:156] Memory required for data: 364403200
I0714 20:50:25.051758  8069 layer_factory.hpp:77] Creating layer inception_4a/relu_5x5
I0714 20:50:25.051767  8069 net.cpp:91] Creating Layer inception_4a/relu_5x5
I0714 20:50:25.051774  8069 net.cpp:425] inception_4a/relu_5x5 <- inception_4a/5x5
I0714 20:50:25.051786  8069 net.cpp:386] inception_4a/relu_5x5 -> inception_4a/5x5 (in-place)
I0714 20:50:25.052285  8069 net.cpp:141] Setting up inception_4a/relu_5x5
I0714 20:50:25.052301  8069 net.cpp:148] Top shape: 10 48 14 14 (94080)
I0714 20:50:25.052307  8069 net.cpp:156] Memory required for data: 364779520
I0714 20:50:25.052312  8069 layer_factory.hpp:77] Creating layer inception_4a/pool
I0714 20:50:25.052327  8069 net.cpp:91] Creating Layer inception_4a/pool
I0714 20:50:25.052333  8069 net.cpp:425] inception_4a/pool <- pool3/3x3_s2_pool3/3x3_s2_0_split_3
I0714 20:50:25.052342  8069 net.cpp:399] inception_4a/pool -> inception_4a/pool
I0714 20:50:25.052515  8073 net.cpp:141] Setting up inception_4b/3x3
I0714 20:50:25.052537  8073 net.cpp:148] Top shape: 10 224 14 14 (439040)
I0714 20:50:25.052544  8073 net.cpp:156] Memory required for data: 395637760
I0714 20:50:25.052549  8069 net.cpp:141] Setting up inception_4a/pool
I0714 20:50:25.052556  8073 layer_factory.hpp:77] Creating layer inception_4b/relu_3x3
I0714 20:50:25.052563  8069 net.cpp:148] Top shape: 10 480 14 14 (940800)
I0714 20:50:25.052567  8073 net.cpp:91] Creating Layer inception_4b/relu_3x3
I0714 20:50:25.052569  8069 net.cpp:156] Memory required for data: 368542720
I0714 20:50:25.052574  8073 net.cpp:425] inception_4b/relu_3x3 <- inception_4b/3x3
I0714 20:50:25.052577  8069 layer_factory.hpp:77] Creating layer inception_4a/pool_proj
I0714 20:50:25.052583  8073 net.cpp:386] inception_4b/relu_3x3 -> inception_4b/3x3 (in-place)
I0714 20:50:25.052593  8069 net.cpp:91] Creating Layer inception_4a/pool_proj
I0714 20:50:25.052600  8069 net.cpp:425] inception_4a/pool_proj <- inception_4a/pool
I0714 20:50:25.052614  8069 net.cpp:399] inception_4a/pool_proj -> inception_4a/pool_proj
I0714 20:50:25.053663  8073 net.cpp:141] Setting up inception_4b/relu_3x3
I0714 20:50:25.053681  8073 net.cpp:148] Top shape: 10 224 14 14 (439040)
I0714 20:50:25.053688  8073 net.cpp:156] Memory required for data: 397393920
I0714 20:50:25.053694  8073 layer_factory.hpp:77] Creating layer inception_4b/5x5_reduce
I0714 20:50:25.053725  8073 net.cpp:91] Creating Layer inception_4b/5x5_reduce
I0714 20:50:25.053732  8073 net.cpp:425] inception_4b/5x5_reduce <- inception_4a/output_inception_4a/output_0_split_2
I0714 20:50:25.053742  8073 net.cpp:399] inception_4b/5x5_reduce -> inception_4b/5x5_reduce
I0714 20:50:25.058396  8069 net.cpp:141] Setting up inception_4a/pool_proj
I0714 20:50:25.058419  8069 net.cpp:148] Top shape: 10 64 14 14 (125440)
I0714 20:50:25.058424  8069 net.cpp:156] Memory required for data: 369044480
I0714 20:50:25.058434  8069 layer_factory.hpp:77] Creating layer inception_4a/relu_pool_proj
I0714 20:50:25.058447  8069 net.cpp:91] Creating Layer inception_4a/relu_pool_proj
I0714 20:50:25.058454  8069 net.cpp:425] inception_4a/relu_pool_proj <- inception_4a/pool_proj
I0714 20:50:25.058462  8069 net.cpp:386] inception_4a/relu_pool_proj -> inception_4a/pool_proj (in-place)
I0714 20:50:25.059592  8069 net.cpp:141] Setting up inception_4a/relu_pool_proj
I0714 20:50:25.059613  8069 net.cpp:148] Top shape: 10 64 14 14 (125440)
I0714 20:50:25.059619  8069 net.cpp:156] Memory required for data: 369546240
I0714 20:50:25.059625  8069 layer_factory.hpp:77] Creating layer inception_4a/output
I0714 20:50:25.059635  8069 net.cpp:91] Creating Layer inception_4a/output
I0714 20:50:25.059641  8069 net.cpp:425] inception_4a/output <- inception_4a/1x1
I0714 20:50:25.059649  8069 net.cpp:425] inception_4a/output <- inception_4a/3x3
I0714 20:50:25.059655  8069 net.cpp:425] inception_4a/output <- inception_4a/5x5
I0714 20:50:25.059661  8069 net.cpp:425] inception_4a/output <- inception_4a/pool_proj
I0714 20:50:25.059669  8069 net.cpp:399] inception_4a/output -> inception_4a/output
I0714 20:50:25.059670  8073 net.cpp:141] Setting up inception_4b/5x5_reduce
I0714 20:50:25.059689  8073 net.cpp:148] Top shape: 10 24 14 14 (47040)
I0714 20:50:25.059695  8073 net.cpp:156] Memory required for data: 397582080
I0714 20:50:25.059710  8073 layer_factory.hpp:77] Creating layer inception_4b/relu_5x5_reduce
I0714 20:50:25.059726  8073 net.cpp:91] Creating Layer inception_4b/relu_5x5_reduce
I0714 20:50:25.059738  8073 net.cpp:425] inception_4b/relu_5x5_reduce <- inception_4b/5x5_reduce
I0714 20:50:25.059754  8073 net.cpp:386] inception_4b/relu_5x5_reduce -> inception_4b/5x5_reduce (in-place)
I0714 20:50:25.059767  8069 net.cpp:141] Setting up inception_4a/output
I0714 20:50:25.059780  8069 net.cpp:148] Top shape: 10 512 14 14 (1003520)
I0714 20:50:25.059784  8069 net.cpp:156] Memory required for data: 373560320
I0714 20:50:25.059790  8069 layer_factory.hpp:77] Creating layer inception_4a/output_inception_4a/output_0_split
I0714 20:50:25.059800  8069 net.cpp:91] Creating Layer inception_4a/output_inception_4a/output_0_split
I0714 20:50:25.059806  8069 net.cpp:425] inception_4a/output_inception_4a/output_0_split <- inception_4a/output
I0714 20:50:25.059813  8069 net.cpp:399] inception_4a/output_inception_4a/output_0_split -> inception_4a/output_inception_4a/output_0_split_0
I0714 20:50:25.059828  8069 net.cpp:399] inception_4a/output_inception_4a/output_0_split -> inception_4a/output_inception_4a/output_0_split_1
I0714 20:50:25.059837  8069 net.cpp:399] inception_4a/output_inception_4a/output_0_split -> inception_4a/output_inception_4a/output_0_split_2
I0714 20:50:25.059845  8069 net.cpp:399] inception_4a/output_inception_4a/output_0_split -> inception_4a/output_inception_4a/output_0_split_3
I0714 20:50:25.060232  8073 net.cpp:141] Setting up inception_4b/relu_5x5_reduce
I0714 20:50:25.060251  8073 net.cpp:148] Top shape: 10 24 14 14 (47040)
I0714 20:50:25.060253  8069 net.cpp:141] Setting up inception_4a/output_inception_4a/output_0_split
I0714 20:50:25.060256  8073 net.cpp:156] Memory required for data: 397770240
I0714 20:50:25.060271  8069 net.cpp:148] Top shape: 10 512 14 14 (1003520)
I0714 20:50:25.060274  8073 layer_factory.hpp:77] Creating layer inception_4b/5x5
I0714 20:50:25.060278  8069 net.cpp:148] Top shape: 10 512 14 14 (1003520)
I0714 20:50:25.060284  8069 net.cpp:148] Top shape: 10 512 14 14 (1003520)
I0714 20:50:25.060291  8069 net.cpp:148] Top shape: 10 512 14 14 (1003520)
I0714 20:50:25.060295  8069 net.cpp:156] Memory required for data: 389616640
I0714 20:50:25.060298  8073 net.cpp:91] Creating Layer inception_4b/5x5
I0714 20:50:25.060300  8069 layer_factory.hpp:77] Creating layer inception_4b/1x1
I0714 20:50:25.060307  8073 net.cpp:425] inception_4b/5x5 <- inception_4b/5x5_reduce
I0714 20:50:25.060317  8073 net.cpp:399] inception_4b/5x5 -> inception_4b/5x5
I0714 20:50:25.060318  8069 net.cpp:91] Creating Layer inception_4b/1x1
I0714 20:50:25.060325  8069 net.cpp:425] inception_4b/1x1 <- inception_4a/output_inception_4a/output_0_split_0
I0714 20:50:25.060338  8069 net.cpp:399] inception_4b/1x1 -> inception_4b/1x1
I0714 20:50:25.067059  8069 net.cpp:141] Setting up inception_4b/1x1
I0714 20:50:25.067080  8069 net.cpp:148] Top shape: 10 160 14 14 (313600)
I0714 20:50:25.067085  8069 net.cpp:156] Memory required for data: 390871040
I0714 20:50:25.067095  8069 layer_factory.hpp:77] Creating layer inception_4b/relu_1x1
I0714 20:50:25.067107  8069 net.cpp:91] Creating Layer inception_4b/relu_1x1
I0714 20:50:25.067114  8069 net.cpp:425] inception_4b/relu_1x1 <- inception_4b/1x1
I0714 20:50:25.067122  8069 net.cpp:386] inception_4b/relu_1x1 -> inception_4b/1x1 (in-place)
I0714 20:50:25.067510  8073 net.cpp:141] Setting up inception_4b/5x5
I0714 20:50:25.067528  8073 net.cpp:148] Top shape: 10 64 14 14 (125440)
I0714 20:50:25.067534  8073 net.cpp:156] Memory required for data: 398272000
I0714 20:50:25.067544  8073 layer_factory.hpp:77] Creating layer inception_4b/relu_5x5
I0714 20:50:25.067553  8073 net.cpp:91] Creating Layer inception_4b/relu_5x5
I0714 20:50:25.067560  8073 net.cpp:425] inception_4b/relu_5x5 <- inception_4b/5x5
I0714 20:50:25.067571  8073 net.cpp:386] inception_4b/relu_5x5 -> inception_4b/5x5 (in-place)
I0714 20:50:25.067576  8069 net.cpp:141] Setting up inception_4b/relu_1x1
I0714 20:50:25.067591  8069 net.cpp:148] Top shape: 10 160 14 14 (313600)
I0714 20:50:25.067596  8069 net.cpp:156] Memory required for data: 392125440
I0714 20:50:25.067602  8069 layer_factory.hpp:77] Creating layer inception_4b/3x3_reduce
I0714 20:50:25.067622  8069 net.cpp:91] Creating Layer inception_4b/3x3_reduce
I0714 20:50:25.067630  8069 net.cpp:425] inception_4b/3x3_reduce <- inception_4a/output_inception_4a/output_0_split_1
I0714 20:50:25.067639  8069 net.cpp:399] inception_4b/3x3_reduce -> inception_4b/3x3_reduce
I0714 20:50:25.068030  8073 net.cpp:141] Setting up inception_4b/relu_5x5
I0714 20:50:25.068044  8073 net.cpp:148] Top shape: 10 64 14 14 (125440)
I0714 20:50:25.068049  8073 net.cpp:156] Memory required for data: 398773760
I0714 20:50:25.068054  8073 layer_factory.hpp:77] Creating layer inception_4b/pool
I0714 20:50:25.068071  8073 net.cpp:91] Creating Layer inception_4b/pool
I0714 20:50:25.068078  8073 net.cpp:425] inception_4b/pool <- inception_4a/output_inception_4a/output_0_split_3
I0714 20:50:25.068087  8073 net.cpp:399] inception_4b/pool -> inception_4b/pool
I0714 20:50:25.068423  8073 net.cpp:141] Setting up inception_4b/pool
I0714 20:50:25.068436  8073 net.cpp:148] Top shape: 10 512 14 14 (1003520)
I0714 20:50:25.068441  8073 net.cpp:156] Memory required for data: 402787840
I0714 20:50:25.068446  8073 layer_factory.hpp:77] Creating layer inception_4b/pool_proj
I0714 20:50:25.068464  8073 net.cpp:91] Creating Layer inception_4b/pool_proj
I0714 20:50:25.068472  8073 net.cpp:425] inception_4b/pool_proj <- inception_4b/pool
I0714 20:50:25.068485  8073 net.cpp:399] inception_4b/pool_proj -> inception_4b/pool_proj
I0714 20:50:25.072545  8069 net.cpp:141] Setting up inception_4b/3x3_reduce
I0714 20:50:25.072566  8069 net.cpp:148] Top shape: 10 112 14 14 (219520)
I0714 20:50:25.072571  8069 net.cpp:156] Memory required for data: 393003520
I0714 20:50:25.072582  8069 layer_factory.hpp:77] Creating layer inception_4b/relu_3x3_reduce
I0714 20:50:25.072590  8069 net.cpp:91] Creating Layer inception_4b/relu_3x3_reduce
I0714 20:50:25.072597  8069 net.cpp:425] inception_4b/relu_3x3_reduce <- inception_4b/3x3_reduce
I0714 20:50:25.072610  8069 net.cpp:386] inception_4b/relu_3x3_reduce -> inception_4b/3x3_reduce (in-place)
I0714 20:50:25.073086  8069 net.cpp:141] Setting up inception_4b/relu_3x3_reduce
I0714 20:50:25.073103  8069 net.cpp:148] Top shape: 10 112 14 14 (219520)
I0714 20:50:25.073109  8069 net.cpp:156] Memory required for data: 393881600
I0714 20:50:25.073114  8069 layer_factory.hpp:77] Creating layer inception_4b/3x3
I0714 20:50:25.073133  8069 net.cpp:91] Creating Layer inception_4b/3x3
I0714 20:50:25.073140  8069 net.cpp:425] inception_4b/3x3 <- inception_4b/3x3_reduce
I0714 20:50:25.073150  8069 net.cpp:399] inception_4b/3x3 -> inception_4b/3x3
I0714 20:50:25.073192  8073 net.cpp:141] Setting up inception_4b/pool_proj
I0714 20:50:25.073210  8073 net.cpp:148] Top shape: 10 64 14 14 (125440)
I0714 20:50:25.073215  8073 net.cpp:156] Memory required for data: 403289600
I0714 20:50:25.073226  8073 layer_factory.hpp:77] Creating layer inception_4b/relu_pool_proj
I0714 20:50:25.073235  8073 net.cpp:91] Creating Layer inception_4b/relu_pool_proj
I0714 20:50:25.073241  8073 net.cpp:425] inception_4b/relu_pool_proj <- inception_4b/pool_proj
I0714 20:50:25.073253  8073 net.cpp:386] inception_4b/relu_pool_proj -> inception_4b/pool_proj (in-place)
I0714 20:50:25.074367  8073 net.cpp:141] Setting up inception_4b/relu_pool_proj
I0714 20:50:25.074385  8073 net.cpp:148] Top shape: 10 64 14 14 (125440)
I0714 20:50:25.074391  8073 net.cpp:156] Memory required for data: 403791360
I0714 20:50:25.074398  8073 layer_factory.hpp:77] Creating layer inception_4b/output
I0714 20:50:25.074411  8073 net.cpp:91] Creating Layer inception_4b/output
I0714 20:50:25.074419  8073 net.cpp:425] inception_4b/output <- inception_4b/1x1
I0714 20:50:25.074425  8073 net.cpp:425] inception_4b/output <- inception_4b/3x3
I0714 20:50:25.074431  8073 net.cpp:425] inception_4b/output <- inception_4b/5x5
I0714 20:50:25.074437  8073 net.cpp:425] inception_4b/output <- inception_4b/pool_proj
I0714 20:50:25.074445  8073 net.cpp:399] inception_4b/output -> inception_4b/output
I0714 20:50:25.075731  8073 net.cpp:141] Setting up inception_4b/output
I0714 20:50:25.075748  8073 net.cpp:148] Top shape: 10 512 14 14 (1003520)
I0714 20:50:25.075753  8073 net.cpp:156] Memory required for data: 407805440
I0714 20:50:25.075758  8073 layer_factory.hpp:77] Creating layer inception_4b/output_inception_4b/output_0_split
I0714 20:50:25.075775  8073 net.cpp:91] Creating Layer inception_4b/output_inception_4b/output_0_split
I0714 20:50:25.075783  8073 net.cpp:425] inception_4b/output_inception_4b/output_0_split <- inception_4b/output
I0714 20:50:25.075791  8073 net.cpp:399] inception_4b/output_inception_4b/output_0_split -> inception_4b/output_inception_4b/output_0_split_0
I0714 20:50:25.075804  8073 net.cpp:399] inception_4b/output_inception_4b/output_0_split -> inception_4b/output_inception_4b/output_0_split_1
I0714 20:50:25.075819  8073 net.cpp:399] inception_4b/output_inception_4b/output_0_split -> inception_4b/output_inception_4b/output_0_split_2
I0714 20:50:25.075836  8073 net.cpp:399] inception_4b/output_inception_4b/output_0_split -> inception_4b/output_inception_4b/output_0_split_3
I0714 20:50:25.076557  8073 net.cpp:141] Setting up inception_4b/output_inception_4b/output_0_split
I0714 20:50:25.076573  8073 net.cpp:148] Top shape: 10 512 14 14 (1003520)
I0714 20:50:25.076581  8073 net.cpp:148] Top shape: 10 512 14 14 (1003520)
I0714 20:50:25.076586  8073 net.cpp:148] Top shape: 10 512 14 14 (1003520)
I0714 20:50:25.076592  8073 net.cpp:148] Top shape: 10 512 14 14 (1003520)
I0714 20:50:25.076596  8073 net.cpp:156] Memory required for data: 423861760
I0714 20:50:25.076601  8073 layer_factory.hpp:77] Creating layer inception_4c/1x1
I0714 20:50:25.076618  8073 net.cpp:91] Creating Layer inception_4c/1x1
I0714 20:50:25.076625  8073 net.cpp:425] inception_4c/1x1 <- inception_4b/output_inception_4b/output_0_split_0
I0714 20:50:25.076637  8073 net.cpp:399] inception_4c/1x1 -> inception_4c/1x1
I0714 20:50:25.081954  8073 net.cpp:141] Setting up inception_4c/1x1
I0714 20:50:25.081974  8073 net.cpp:148] Top shape: 10 128 14 14 (250880)
I0714 20:50:25.081979  8073 net.cpp:156] Memory required for data: 424865280
I0714 20:50:25.081990  8073 layer_factory.hpp:77] Creating layer inception_4c/relu_1x1
I0714 20:50:25.082003  8073 net.cpp:91] Creating Layer inception_4c/relu_1x1
I0714 20:50:25.082010  8073 net.cpp:425] inception_4c/relu_1x1 <- inception_4c/1x1
I0714 20:50:25.082021  8073 net.cpp:386] inception_4c/relu_1x1 -> inception_4c/1x1 (in-place)
I0714 20:50:25.082535  8073 net.cpp:141] Setting up inception_4c/relu_1x1
I0714 20:50:25.082551  8073 net.cpp:148] Top shape: 10 128 14 14 (250880)
I0714 20:50:25.082556  8073 net.cpp:156] Memory required for data: 425868800
I0714 20:50:25.082562  8073 layer_factory.hpp:77] Creating layer inception_4c/3x3_reduce
I0714 20:50:25.082579  8073 net.cpp:91] Creating Layer inception_4c/3x3_reduce
I0714 20:50:25.082587  8073 net.cpp:425] inception_4c/3x3_reduce <- inception_4b/output_inception_4b/output_0_split_1
I0714 20:50:25.082599  8073 net.cpp:399] inception_4c/3x3_reduce -> inception_4c/3x3_reduce
I0714 20:50:25.082653  8069 net.cpp:141] Setting up inception_4b/3x3
I0714 20:50:25.082670  8069 net.cpp:148] Top shape: 10 224 14 14 (439040)
I0714 20:50:25.082676  8069 net.cpp:156] Memory required for data: 395637760
I0714 20:50:25.082697  8069 layer_factory.hpp:77] Creating layer inception_4b/relu_3x3
I0714 20:50:25.082708  8069 net.cpp:91] Creating Layer inception_4b/relu_3x3
I0714 20:50:25.082715  8069 net.cpp:425] inception_4b/relu_3x3 <- inception_4b/3x3
I0714 20:50:25.082723  8069 net.cpp:386] inception_4b/relu_3x3 -> inception_4b/3x3 (in-place)
I0714 20:50:25.083829  8069 net.cpp:141] Setting up inception_4b/relu_3x3
I0714 20:50:25.083849  8069 net.cpp:148] Top shape: 10 224 14 14 (439040)
I0714 20:50:25.083854  8069 net.cpp:156] Memory required for data: 397393920
I0714 20:50:25.083860  8069 layer_factory.hpp:77] Creating layer inception_4b/5x5_reduce
I0714 20:50:25.083891  8069 net.cpp:91] Creating Layer inception_4b/5x5_reduce
I0714 20:50:25.083899  8069 net.cpp:425] inception_4b/5x5_reduce <- inception_4a/output_inception_4a/output_0_split_2
I0714 20:50:25.083909  8069 net.cpp:399] inception_4b/5x5_reduce -> inception_4b/5x5_reduce
I0714 20:50:25.087913  8073 net.cpp:141] Setting up inception_4c/3x3_reduce
I0714 20:50:25.087939  8073 net.cpp:148] Top shape: 10 128 14 14 (250880)
I0714 20:50:25.087944  8073 net.cpp:156] Memory required for data: 426872320
I0714 20:50:25.087954  8073 layer_factory.hpp:77] Creating layer inception_4c/relu_3x3_reduce
I0714 20:50:25.087965  8073 net.cpp:91] Creating Layer inception_4c/relu_3x3_reduce
I0714 20:50:25.087971  8073 net.cpp:425] inception_4c/relu_3x3_reduce <- inception_4c/3x3_reduce
I0714 20:50:25.087980  8073 net.cpp:386] inception_4c/relu_3x3_reduce -> inception_4c/3x3_reduce (in-place)
I0714 20:50:25.088387  8069 net.cpp:141] Setting up inception_4b/5x5_reduce
I0714 20:50:25.088403  8069 net.cpp:148] Top shape: 10 24 14 14 (47040)
I0714 20:50:25.088408  8069 net.cpp:156] Memory required for data: 397582080
I0714 20:50:25.088419  8069 layer_factory.hpp:77] Creating layer inception_4b/relu_5x5_reduce
I0714 20:50:25.088429  8073 net.cpp:141] Setting up inception_4c/relu_3x3_reduce
I0714 20:50:25.088433  8069 net.cpp:91] Creating Layer inception_4b/relu_5x5_reduce
I0714 20:50:25.088448  8073 net.cpp:148] Top shape: 10 128 14 14 (250880)
I0714 20:50:25.088452  8069 net.cpp:425] inception_4b/relu_5x5_reduce <- inception_4b/5x5_reduce
I0714 20:50:25.088454  8073 net.cpp:156] Memory required for data: 427875840
I0714 20:50:25.088466  8069 net.cpp:386] inception_4b/relu_5x5_reduce -> inception_4b/5x5_reduce (in-place)
I0714 20:50:25.088469  8073 layer_factory.hpp:77] Creating layer inception_4c/3x3
I0714 20:50:25.088487  8073 net.cpp:91] Creating Layer inception_4c/3x3
I0714 20:50:25.088495  8073 net.cpp:425] inception_4c/3x3 <- inception_4c/3x3_reduce
I0714 20:50:25.088507  8073 net.cpp:399] inception_4c/3x3 -> inception_4c/3x3
I0714 20:50:25.088964  8069 net.cpp:141] Setting up inception_4b/relu_5x5_reduce
I0714 20:50:25.088979  8069 net.cpp:148] Top shape: 10 24 14 14 (47040)
I0714 20:50:25.088984  8069 net.cpp:156] Memory required for data: 397770240
I0714 20:50:25.088989  8069 layer_factory.hpp:77] Creating layer inception_4b/5x5
I0714 20:50:25.089016  8069 net.cpp:91] Creating Layer inception_4b/5x5
I0714 20:50:25.089025  8069 net.cpp:425] inception_4b/5x5 <- inception_4b/5x5_reduce
I0714 20:50:25.089037  8069 net.cpp:399] inception_4b/5x5 -> inception_4b/5x5
I0714 20:50:25.097081  8069 net.cpp:141] Setting up inception_4b/5x5
I0714 20:50:25.097103  8069 net.cpp:148] Top shape: 10 64 14 14 (125440)
I0714 20:50:25.097110  8069 net.cpp:156] Memory required for data: 398272000
I0714 20:50:25.097120  8069 layer_factory.hpp:77] Creating layer inception_4b/relu_5x5
…
I0714 20:50:25.237084  8073 layer_factory.hpp:77] Creating layer pool4/3x3_s2
I0714 20:50:25.237097  8073 net.cpp:91] Creating Layer pool4/3x3_s2
I0714 20:50:25.237103  8073 net.cpp:425] pool4/3x3_s2 <- inception_4e/output
I0714 20:50:25.237092  8069 net.cpp:141] Setting up inception_4e/3x3
I0714 20:50:25.237112  8073 net.cpp:399] pool4/3x3_s2 -> pool4/3x3_s2
I0714 20:50:25.237126  8069 net.cpp:148] Top shape: 10 320 14 14 (627200)
I0714 20:50:25.237133  8069 net.cpp:156] Memory required for data: 503139840
I0714 20:50:25.237146  8069 layer_factory.hpp:77] Creating layer inception_4e/relu_3x3
I0714 20:50:25.237159  8069 net.cpp:91] Creating Layer inception_4e/relu_3x3
I0714 20:50:25.237167  8069 net.cpp:425] inception_4e/relu_3x3 <- inception_4e/3x3
I0714 20:50:25.237177  8069 net.cpp:386] inception_4e/relu_3x3 -> inception_4e/3x3 (in-place)
I0714 20:50:25.238116  8073 net.cpp:141] Setting up pool4/3x3_s2
I0714 20:50:25.238131  8073 net.cpp:148] Top shape: 10 832 7 7 (407680)
I0714 20:50:25.238137  8073 net.cpp:156] Memory required for data: 522457600
I0714 20:50:25.238142  8073 layer_factory.hpp:77] Creating layer pool4/3x3_s2_pool4/3x3_s2_0_split
I0714 20:50:25.238152  8073 net.cpp:91] Creating Layer pool4/3x3_s2_pool4/3x3_s2_0_split
I0714 20:50:25.238157  8073 net.cpp:425] pool4/3x3_s2_pool4/3x3_s2_0_split <- pool4/3x3_s2
I0714 20:50:25.238168  8073 net.cpp:399] pool4/3x3_s2_pool4/3x3_s2_0_split -> pool4/3x3_s2_pool4/3x3_s2_0_split_0
I0714 20:50:25.238176  8073 net.cpp:399] pool4/3x3_s2_pool4/3x3_s2_0_split -> pool4/3x3_s2_pool4/3x3_s2_0_split_1
I0714 20:50:25.238185  8073 net.cpp:399] pool4/3x3_s2_pool4/3x3_s2_0_split -> pool4/3x3_s2_pool4/3x3_s2_0_split_2
I0714 20:50:25.238194  8073 net.cpp:399] pool4/3x3_s2_pool4/3x3_s2_0_split -> pool4/3x3_s2_pool4/3x3_s2_0_split_3
I0714 20:50:25.238260  8069 net.cpp:141] Setting up inception_4e/relu_3x3
I0714 20:50:25.238276  8069 net.cpp:148] Top shape: 10 320 14 14 (627200)
I0714 20:50:25.238281  8069 net.cpp:156] Memory required for data: 505648640
I0714 20:50:25.238286  8069 layer_factory.hpp:77] Creating layer inception_4e/5x5_reduce
I0714 20:50:25.238308  8069 net.cpp:91] Creating Layer inception_4e/5x5_reduce
I0714 20:50:25.238317  8069 net.cpp:425] inception_4e/5x5_reduce <- inception_4d/output_inception_4d/output_0_split_2
I0714 20:50:25.238329  8069 net.cpp:399] inception_4e/5x5_reduce -> inception_4e/5x5_reduce
I0714 20:50:25.238618  8073 net.cpp:141] Setting up pool4/3x3_s2_pool4/3x3_s2_0_split
I0714 20:50:25.238631  8073 net.cpp:148] Top shape: 10 832 7 7 (407680)
I0714 20:50:25.238638  8073 net.cpp:148] Top shape: 10 832 7 7 (407680)
I0714 20:50:25.238643  8073 net.cpp:148] Top shape: 10 832 7 7 (407680)
I0714 20:50:25.238649  8073 net.cpp:148] Top shape: 10 832 7 7 (407680)
I0714 20:50:25.238654  8073 net.cpp:156] Memory required for data: 528980480
I0714 20:50:25.238659  8073 layer_factory.hpp:77] Creating layer inception_5a/1x1
I0714 20:50:25.238678  8073 net.cpp:91] Creating Layer inception_5a/1x1
I0714 20:50:25.238698  8073 net.cpp:425] inception_5a/1x1 <- pool4/3x3_s2_pool4/3x3_s2_0_split_0
I0714 20:50:25.238710  8073 net.cpp:399] inception_5a/1x1 -> inception_5a/1x1
I0714 20:50:25.245766  8069 net.cpp:141] Setting up inception_4e/5x5_reduce
I0714 20:50:25.245790  8069 net.cpp:148] Top shape: 10 32 14 14 (62720)
I0714 20:50:25.245795  8069 net.cpp:156] Memory required for data: 505899520
I0714 20:50:25.245805  8069 layer_factory.hpp:77] Creating layer inception_4e/relu_5x5_reduce
I0714 20:50:25.245815  8069 net.cpp:91] Creating Layer inception_4e/relu_5x5_reduce
I0714 20:50:25.245821  8069 net.cpp:425] inception_4e/relu_5x5_reduce <- inception_4e/5x5_reduce
I0714 20:50:25.245833  8069 net.cpp:386] inception_4e/relu_5x5_reduce -> inception_4e/5x5_reduce (in-place)
I0714 20:50:25.246279  8069 net.cpp:141] Setting up inception_4e/relu_5x5_reduce
I0714 20:50:25.246294  8069 net.cpp:148] Top shape: 10 32 14 14 (62720)
I0714 20:50:25.246299  8069 net.cpp:156] Memory required for data: 506150400
I0714 20:50:25.246305  8069 layer_factory.hpp:77] Creating layer inception_4e/5x5
I0714 20:50:25.246325  8069 net.cpp:91] Creating Layer inception_4e/5x5
I0714 20:50:25.246331  8069 net.cpp:425] inception_4e/5x5 <- inception_4e/5x5_reduce
I0714 20:50:25.246341  8069 net.cpp:399] inception_4e/5x5 -> inception_4e/5x5
I0714 20:50:25.247992  8073 net.cpp:141] Setting up inception_5a/1x1
I0714 20:50:25.248018  8073 net.cpp:148] Top shape: 10 256 7 7 (125440)
I0714 20:50:25.248023  8073 net.cpp:156] Memory required for data: 529482240
I0714 20:50:25.248034  8073 layer_factory.hpp:77] Creating layer inception_5a/relu_1x1
I0714 20:50:25.248044  8073 net.cpp:91] Creating Layer inception_5a/relu_1x1
I0714 20:50:25.248051  8073 net.cpp:425] inception_5a/relu_1x1 <- inception_5a/1x1
I0714 20:50:25.248060  8073 net.cpp:386] inception_5a/relu_1x1 -> inception_5a/1x1 (in-place)
I0714 20:50:25.248492  8073 net.cpp:141] Setting up inception_5a/relu_1x1
I0714 20:50:25.248507  8073 net.cpp:148] Top shape: 10 256 7 7 (125440)
I0714 20:50:25.248512  8073 net.cpp:156] Memory required for data: 529984000
I0714 20:50:25.248518  8073 layer_factory.hpp:77] Creating layer inception_5a/3x3_reduce
I0714 20:50:25.248539  8073 net.cpp:91] Creating Layer inception_5a/3x3_reduce
I0714 20:50:25.248546  8073 net.cpp:425] inception_5a/3x3_reduce <- pool4/3x3_s2_pool4/3x3_s2_0_split_1
I0714 20:50:25.248559  8073 net.cpp:399] inception_5a/3x3_reduce -> inception_5a/3x3_reduce
I0714 20:50:25.256361  8069 net.cpp:141] Setting up inception_4e/5x5
I0714 20:50:25.256383  8069 net.cpp:148] Top shape: 10 128 14 14 (250880)
I0714 20:50:25.256388  8069 net.cpp:156] Memory required for data: 507153920
I0714 20:50:25.256399  8069 layer_factory.hpp:77] Creating layer inception_4e/relu_5x5
I0714 20:50:25.256409  8069 net.cpp:91] Creating Layer inception_4e/relu_5x5
I0714 20:50:25.256415  8069 net.cpp:425] inception_4e/relu_5x5 <- inception_4e/5x5
I0714 20:50:25.256423  8069 net.cpp:386] inception_4e/relu_5x5 -> inception_4e/5x5 (in-place)
I0714 20:50:25.256950  8069 net.cpp:141] Setting up inception_4e/relu_5x5
I0714 20:50:25.256966  8069 net.cpp:148] Top shape: 10 128 14 14 (250880)
I0714 20:50:25.256971  8069 net.cpp:156] Memory required for data: 508157440
I0714 20:50:25.256978  8069 layer_factory.hpp:77] Creating layer inception_4e/pool
I0714 20:50:25.256991  8069 net.cpp:91] Creating Layer inception_4e/pool
I0714 20:50:25.256997  8069 net.cpp:425] inception_4e/pool <- inception_4d/output_inception_4d/output_0_split_3
I0714 20:50:25.257006  8069 net.cpp:399] inception_4e/pool -> inception_4e/pool
I0714 20:50:25.257236  8073 net.cpp:141] Setting up inception_5a/3x3_reduce
I0714 20:50:25.257253  8073 net.cpp:148] Top shape: 10 160 7 7 (78400)
I0714 20:50:25.257259  8073 net.cpp:156] Memory required for data: 530297600
I0714 20:50:25.257264  8069 net.cpp:141] Setting up inception_4e/pool
I0714 20:50:25.257271  8073 layer_factory.hpp:77] Creating layer inception_5a/relu_3x3_reduce
I0714 20:50:25.257278  8069 net.cpp:148] Top shape: 10 528 14 14 (1034880)
I0714 20:50:25.257284  8069 net.cpp:156] Memory required for data: 512296960
I0714 20:50:25.257285  8073 net.cpp:91] Creating Layer inception_5a/relu_3x3_reduce
I0714 20:50:25.257289  8069 layer_factory.hpp:77] Creating layer inception_4e/pool_proj
I0714 20:50:25.257293  8073 net.cpp:425] inception_5a/relu_3x3_reduce <- inception_5a/3x3_reduce
I0714 20:50:25.257302  8073 net.cpp:386] inception_5a/relu_3x3_reduce -> inception_5a/3x3_reduce (in-place)
I0714 20:50:25.257308  8069 net.cpp:91] Creating Layer inception_4e/pool_proj
I0714 20:50:25.257314  8069 net.cpp:425] inception_4e/pool_proj <- inception_4e/pool
I0714 20:50:25.257328  8069 net.cpp:399] inception_4e/pool_proj -> inception_4e/pool_proj
I0714 20:50:25.257797  8073 net.cpp:141] Setting up inception_5a/relu_3x3_reduce
I0714 20:50:25.257812  8073 net.cpp:148] Top shape: 10 160 7 7 (78400)
I0714 20:50:25.257817  8073 net.cpp:156] Memory required for data: 530611200
I0714 20:50:25.257822  8073 layer_factory.hpp:77] Creating layer inception_5a/3x3
I0714 20:50:25.257839  8073 net.cpp:91] Creating Layer inception_5a/3x3
I0714 20:50:25.257848  8073 net.cpp:425] inception_5a/3x3 <- inception_5a/3x3_reduce
I0714 20:50:25.257863  8073 net.cpp:399] inception_5a/3x3 -> inception_5a/3x3
I0714 20:50:25.263662  8069 net.cpp:141] Setting up inception_4e/pool_proj
I0714 20:50:25.263691  8069 net.cpp:148] Top shape: 10 128 14 14 (250880)
I0714 20:50:25.263697  8069 net.cpp:156] Memory required for data: 513300480
I0714 20:50:25.263707  8069 layer_factory.hpp:77] Creating layer inception_4e/relu_pool_proj
I0714 20:50:25.263717  8069 net.cpp:91] Creating Layer inception_4e/relu_pool_proj
I0714 20:50:25.263723  8069 net.cpp:425] inception_4e/relu_pool_proj <- inception_4e/pool_proj
I0714 20:50:25.263734  8069 net.cpp:386] inception_4e/relu_pool_proj -> inception_4e/pool_proj (in-place)
I0714 20:50:25.265029  8069 net.cpp:141] Setting up inception_4e/relu_pool_proj
I0714 20:50:25.265064  8069 net.cpp:148] Top shape: 10 128 14 14 (250880)
I0714 20:50:25.265077  8069 net.cpp:156] Memory required for data: 514304000
I0714 20:50:25.265092  8069 layer_factory.hpp:77] Creating layer inception_4e/output
I0714 20:50:25.265112  8069 net.cpp:91] Creating Layer inception_4e/output
I0714 20:50:25.265125  8069 net.cpp:425] inception_4e/output <- inception_4e/1x1
I0714 20:50:25.265143  8069 net.cpp:425] inception_4e/output <- inception_4e/3x3
I0714 20:50:25.265157  8069 net.cpp:425] inception_4e/output <- inception_4e/5x5
I0714 20:50:25.265174  8069 net.cpp:425] inception_4e/output <- inception_4e/pool_proj
I0714 20:50:25.265198  8069 net.cpp:399] inception_4e/output -> inception_4e/output
I0714 20:50:25.266027  8069 net.cpp:141] Setting up inception_4e/output
I0714 20:50:25.266053  8069 net.cpp:148] Top shape: 10 832 14 14 (1630720)
I0714 20:50:25.266063  8069 net.cpp:156] Memory required for data: 520826880
I0714 20:50:25.266073  8069 layer_factory.hpp:77] Creating layer pool4/3x3_s2
I0714 20:50:25.266094  8069 net.cpp:91] Creating Layer pool4/3x3_s2
I0714 20:50:25.266106  8069 net.cpp:425] pool4/3x3_s2 <- inception_4e/output
I0714 20:50:25.266122  8069 net.cpp:399] pool4/3x3_s2 -> pool4/3x3_s2
I0714 20:50:25.267786  8069 net.cpp:141] Setting up pool4/3x3_s2
I0714 20:50:25.267817  8069 net.cpp:148] Top shape: 10 832 7 7 (407680)
I0714 20:50:25.267827  8069 net.cpp:156] Memory required for data: 522457600
I0714 20:50:25.267838  8069 layer_factory.hpp:77] Creating layer pool4/3x3_s2_pool4/3x3_s2_0_split
I0714 20:50:25.267858  8069 net.cpp:91] Creating Layer pool4/3x3_s2_pool4/3x3_s2_0_split
I0714 20:50:25.267874  8069 net.cpp:425] pool4/3x3_s2_pool4/3x3_s2_0_split <- pool4/3x3_s2
I0714 20:50:25.267889  8069 net.cpp:399] pool4/3x3_s2_pool4/3x3_s2_0_split -> pool4/3x3_s2_pool4/3x3_s2_0_split_0
I0714 20:50:25.267906  8069 net.cpp:399] pool4/3x3_s2_pool4/3x3_s2_0_split -> pool4/3x3_s2_pool4/3x3_s2_0_split_1
I0714 20:50:25.267925  8069 net.cpp:399] pool4/3x3_s2_pool4/3x3_s2_0_split -> pool4/3x3_s2_pool4/3x3_s2_0_split_2
I0714 20:50:25.267940  8069 net.cpp:399] pool4/3x3_s2_pool4/3x3_s2_0_split -> pool4/3x3_s2_pool4/3x3_s2_0_split_3
I0714 20:50:25.268756  8069 net.cpp:141] Setting up pool4/3x3_s2_pool4/3x3_s2_0_split
I0714 20:50:25.268784  8069 net.cpp:148] Top shape: 10 832 7 7 (407680)
I0714 20:50:25.268796  8069 net.cpp:148] Top shape: 10 832 7 7 (407680)
I0714 20:50:25.268807  8069 net.cpp:148] Top shape: 10 832 7 7 (407680)
I0714 20:50:25.268818  8069 net.cpp:148] Top shape: 10 832 7 7 (407680)
I0714 20:50:25.268826  8069 net.cpp:156] Memory required for data: 528980480
I0714 20:50:25.268836  8069 layer_factory.hpp:77] Creating layer inception_5a/1x1
I0714 20:50:25.268870  8069 net.cpp:91] Creating Layer inception_5a/1x1
I0714 20:50:25.268884  8069 net.cpp:425] inception_5a/1x1 <- pool4/3x3_s2_pool4/3x3_s2_0_split_0
I0714 20:50:25.268901  8069 net.cpp:399] inception_5a/1x1 -> inception_5a/1x1
I0714 20:50:25.269845  8073 net.cpp:141] Setting up inception_5a/3x3
I0714 20:50:25.269870  8073 net.cpp:148] Top shape: 10 320 7 7 (156800)
I0714 20:50:25.269876  8073 net.cpp:156] Memory required for data: 531238400
I0714 20:50:25.269891  8073 layer_factory.hpp:77] Creating layer inception_5a/relu_3x3
I0714 20:50:25.269902  8073 net.cpp:91] Creating Layer inception_5a/relu_3x3
I0714 20:50:25.269909  8073 net.cpp:425] inception_5a/relu_3x3 <- inception_5a/3x3
I0714 20:50:25.269917  8073 net.cpp:386] inception_5a/relu_3x3 -> inception_5a/3x3 (in-place)
I0714 20:50:25.271052  8073 net.cpp:141] Setting up inception_5a/relu_3x3
I0714 20:50:25.271072  8073 net.cpp:148] Top shape: 10 320 7 7 (156800)
I0714 20:50:25.271080  8073 net.cpp:156] Memory required for data: 531865600
I0714 20:50:25.271086  8073 layer_factory.hpp:77] Creating layer inception_5a/5x5_reduce
I0714 20:50:25.271101  8073 net.cpp:91] Creating Layer inception_5a/5x5_reduce
I0714 20:50:25.271109  8073 net.cpp:425] inception_5a/5x5_reduce <- pool4/3x3_s2_pool4/3x3_s2_0_split_2
I0714 20:50:25.271124  8073 net.cpp:399] inception_5a/5x5_reduce -> inception_5a/5x5_reduce
I0714 20:50:25.278955  8073 net.cpp:141] Setting up inception_5a/5x5_reduce
I0714 20:50:25.278981  8073 net.cpp:148] Top shape: 10 32 7 7 (15680)
I0714 20:50:25.278987  8073 net.cpp:156] Memory required for data: 531928320
I0714 20:50:25.279001  8073 layer_factory.hpp:77] Creating layer inception_5a/relu_5x5_reduce
I0714 20:50:25.279016  8073 net.cpp:91] Creating Layer inception_5a/relu_5x5_reduce
I0714 20:50:25.279022  8073 net.cpp:425] inception_5a/relu_5x5_reduce <- inception_5a/5x5_reduce
I0714 20:50:25.279031  8073 net.cpp:386] inception_5a/relu_5x5_reduce -> inception_5a/5x5_reduce (in-place)
I0714 20:50:25.279364  8073 net.cpp:141] Setting up inception_5a/relu_5x5_reduce
I0714 20:50:25.279377  8073 net.cpp:148] Top shape: 10 32 7 7 (15680)
I0714 20:50:25.279382  8073 net.cpp:156] Memory required for data: 531991040
I0714 20:50:25.279388  8073 layer_factory.hpp:77] Creating layer inception_5a/5x5
I0714 20:50:25.279408  8073 net.cpp:91] Creating Layer inception_5a/5x5
I0714 20:50:25.279415  8073 net.cpp:425] inception_5a/5x5 <- inception_5a/5x5_reduce
I0714 20:50:25.279425  8073 net.cpp:399] inception_5a/5x5 -> inception_5a/5x5
I0714 20:50:25.282910  8069 net.cpp:141] Setting up inception_5a/1x1
I0714 20:50:25.282949  8069 net.cpp:148] Top shape: 10 256 7 7 (125440)
I0714 20:50:25.282956  8069 net.cpp:156] Memory required for data: 529482240
I0714 20:50:25.282970  8069 layer_factory.hpp:77] Creating layer inception_5a/relu_1x1
I0714 20:50:25.282984  8069 net.cpp:91] Creating Layer inception_5a/relu_1x1
I0714 20:50:25.282991  8069 net.cpp:425] inception_5a/relu_1x1 <- inception_5a/1x1
I0714 20:50:25.283002  8069 net.cpp:386] inception_5a/relu_1x1 -> inception_5a/1x1 (in-place)
I0714 20:50:25.283445  8069 net.cpp:141] Setting up inception_5a/relu_1x1
I0714 20:50:25.283459  8069 net.cpp:148] Top shape: 10 256 7 7 (125440)
I0714 20:50:25.283464  8069 net.cpp:156] Memory required for data: 529984000
I0714 20:50:25.283470  8069 layer_factory.hpp:77] Creating layer inception_5a/3x3_reduce
I0714 20:50:25.283490  8069 net.cpp:91] Creating Layer inception_5a/3x3_reduce
I0714 20:50:25.283499  8069 net.cpp:425] inception_5a/3x3_reduce <- pool4/3x3_s2_pool4/3x3_s2_0_split_1
I0714 20:50:25.283512  8069 net.cpp:399] inception_5a/3x3_reduce -> inception_5a/3x3_reduce
I0714 20:50:25.289667  8073 net.cpp:141] Setting up inception_5a/5x5
I0714 20:50:25.289715  8073 net.cpp:148] Top shape: 10 128 7 7 (62720)
I0714 20:50:25.289726  8073 net.cpp:156] Memory required for data: 532241920
I0714 20:50:25.289743  8073 layer_factory.hpp:77] Creating layer inception_5a/relu_5x5
I0714 20:50:25.289803  8073 net.cpp:91] Creating Layer inception_5a/relu_5x5
I0714 20:50:25.289816  8073 net.cpp:425] inception_5a/relu_5x5 <- inception_5a/5x5
I0714 20:50:25.289830  8073 net.cpp:386] inception_5a/relu_5x5 -> inception_5a/5x5 (in-place)
I0714 20:50:25.290457  8073 net.cpp:141] Setting up inception_5a/relu_5x5
I0714 20:50:25.290472  8073 net.cpp:148] Top shape: 10 128 7 7 (62720)
I0714 20:50:25.290477  8073 net.cpp:156] Memory required for data: 532492800
I0714 20:50:25.290484  8073 layer_factory.hpp:77] Creating layer inception_5a/pool
I0714 20:50:25.290499  8073 net.cpp:91] Creating Layer inception_5a/pool
I0714 20:50:25.290506  8073 net.cpp:425] inception_5a/pool <- pool4/3x3_s2_pool4/3x3_s2_0_split_3
I0714 20:50:25.290518  8073 net.cpp:399] inception_5a/pool -> inception_5a/pool
I0714 20:50:25.291664  8073 net.cpp:141] Setting up inception_5a/pool
I0714 20:50:25.291687  8073 net.cpp:148] Top shape: 10 832 7 7 (407680)
I0714 20:50:25.291692  8073 net.cpp:156] Memory required for data: 534123520
I0714 20:50:25.291697  8073 layer_factory.hpp:77] Creating layer inception_5a/pool_proj
I0714 20:50:25.291723  8073 net.cpp:91] Creating Layer inception_5a/pool_proj
I0714 20:50:25.291729  8073 net.cpp:425] inception_5a/pool_proj <- inception_5a/pool
I0714 20:50:25.291740  8073 net.cpp:399] inception_5a/pool_proj -> inception_5a/pool_proj
I0714 20:50:25.296761  8069 net.cpp:141] Setting up inception_5a/3x3_reduce
I0714 20:50:25.296804  8069 net.cpp:148] Top shape: 10 160 7 7 (78400)
I0714 20:50:25.296815  8069 net.cpp:156] Memory required for data: 530297600
I0714 20:50:25.296835  8069 layer_factory.hpp:77] Creating layer inception_5a/relu_3x3_reduce
I0714 20:50:25.296864  8069 net.cpp:91] Creating Layer inception_5a/relu_3x3_reduce
I0714 20:50:25.296876  8069 net.cpp:425] inception_5a/relu_3x3_reduce <- inception_5a/3x3_reduce
I0714 20:50:25.296891  8069 net.cpp:386] inception_5a/relu_3x3_reduce -> inception_5a/3x3_reduce (in-place)
I0714 20:50:25.297493  8069 net.cpp:141] Setting up inception_5a/relu_3x3_reduce
I0714 20:50:25.297518  8069 net.cpp:148] Top shape: 10 160 7 7 (78400)
I0714 20:50:25.297528  8069 net.cpp:156] Memory required for data: 530611200
I0714 20:50:25.297536  8069 layer_factory.hpp:77] Creating layer inception_5a/3x3
I0714 20:50:25.297565  8069 net.cpp:91] Creating Layer inception_5a/3x3
I0714 20:50:25.297579  8069 net.cpp:425] inception_5a/3x3 <- inception_5a/3x3_reduce
I0714 20:50:25.297598  8069 net.cpp:399] inception_5a/3x3 -> inception_5a/3x3
I0714 20:50:25.303056  8073 net.cpp:141] Setting up inception_5a/pool_proj
I0714 20:50:25.303082  8073 net.cpp:148] Top shape: 10 128 7 7 (62720)
I0714 20:50:25.303088  8073 net.cpp:156] Memory required for data: 534374400
I0714 20:50:25.303100  8073 layer_factory.hpp:77] Creating layer inception_5a/relu_pool_proj
I0714 20:50:25.303110  8073 net.cpp:91] Creating Layer inception_5a/relu_pool_proj
I0714 20:50:25.303117  8073 net.cpp:425] inception_5a/relu_pool_proj <- inception_5a/pool_proj
I0714 20:50:25.303130  8073 net.cpp:386] inception_5a/relu_pool_proj -> inception_5a/pool_proj (in-place)
I0714 20:50:25.304091  8073 net.cpp:141] Setting up inception_5a/relu_pool_proj
I0714 20:50:25.304110  8073 net.cpp:148] Top shape: 10 128 7 7 (62720)
I0714 20:50:25.304116  8073 net.cpp:156] Memory required for data: 534625280
I0714 20:50:25.304121  8073 layer_factory.hpp:77] Creating layer inception_5a/output
I0714 20:50:25.304131  8073 net.cpp:91] Creating Layer inception_5a/output
I0714 20:50:25.304136  8073 net.cpp:425] inception_5a/output <- inception_5a/1x1
I0714 20:50:25.304144  8073 net.cpp:425] inception_5a/output <- inception_5a/3x3
I0714 20:50:25.304150  8073 net.cpp:425] inception_5a/output <- inception_5a/5x5
I0714 20:50:25.304157  8073 net.cpp:425] inception_5a/output <- inception_5a/pool_proj
I0714 20:50:25.304167  8073 net.cpp:399] inception_5a/output -> inception_5a/output
I0714 20:50:25.304265  8073 net.cpp:141] Setting up inception_5a/output
I0714 20:50:25.304276  8073 net.cpp:148] Top shape: 10 832 7 7 (407680)
I0714 20:50:25.304281  8073 net.cpp:156] Memory required for data: 536256000
I0714 20:50:25.304286  8073 layer_factory.hpp:77] Creating layer inception_5a/output_inception_5a/output_0_split
I0714 20:50:25.304296  8073 net.cpp:91] Creating Layer inception_5a/output_inception_5a/output_0_split
I0714 20:50:25.304302  8073 net.cpp:425] inception_5a/output_inception_5a/output_0_split <- inception_5a/output
I0714 20:50:25.304314  8073 net.cpp:399] inception_5a/output_inception_5a/output_0_split -> inception_5a/output_inception_5a/output_0_split_0
I0714 20:50:25.304325  8073 net.cpp:399] inception_5a/output_inception_5a/output_0_split -> inception_5a/output_inception_5a/output_0_split_1
I0714 20:50:25.304335  8073 net.cpp:399] inception_5a/output_inception_5a/output_0_split -> inception_5a/output_inception_5a/output_0_split_2
I0714 20:50:25.304344  8073 net.cpp:399] inception_5a/output_inception_5a/output_0_split -> inception_5a/output_inception_5a/output_0_split_3
I0714 20:50:25.304635  8073 net.cpp:141] Setting up inception_5a/output_inception_5a/output_0_split
I0714 20:50:25.304656  8073 net.cpp:148] Top shape: 10 832 7 7 (407680)
I0714 20:50:25.304664  8073 net.cpp:148] Top shape: 10 832 7 7 (407680)
I0714 20:50:25.304672  8073 net.cpp:148] Top shape: 10 832 7 7 (407680)
I0714 20:50:25.304679  8073 net.cpp:148] Top shape: 10 832 7 7 (407680)
I0714 20:50:25.304685  8073 net.cpp:156] Memory required for data: 542778880
I0714 20:50:25.304692  8073 layer_factory.hpp:77] Creating layer inception_5b/1x1
I0714 20:50:25.304710  8073 net.cpp:91] Creating Layer inception_5b/1x1
I0714 20:50:25.304718  8073 net.cpp:425] inception_5b/1x1 <- inception_5a/output_inception_5a/output_0_split_0
I0714 20:50:25.304746  8073 net.cpp:399] inception_5b/1x1 -> inception_5b/1x1
I0714 20:50:25.313794  8069 net.cpp:141] Setting up inception_5a/3x3
I0714 20:50:25.313832  8069 net.cpp:148] Top shape: 10 320 7 7 (156800)
I0714 20:50:25.313839  8069 net.cpp:156] Memory required for data: 531238400
I0714 20:50:25.313855  8069 layer_factory.hpp:77] Creating layer inception_5a/relu_3x3
I0714 20:50:25.313869  8069 net.cpp:91] Creating Layer inception_5a/relu_3x3
I0714 20:50:25.313877  8069 net.cpp:425] inception_5a/relu_3x3 <- inception_5a/3x3
I0714 20:50:25.313886  8069 net.cpp:386] inception_5a/relu_3x3 -> inception_5a/3x3 (in-place)
I0714 20:50:25.315006  8069 net.cpp:141] Setting up inception_5a/relu_3x3
I0714 20:50:25.315022  8073 net.cpp:141] Setting up inception_5b/1x1
I0714 20:50:25.315026  8069 net.cpp:148] Top shape: 10 320 7 7 (156800)
I0714 20:50:25.315047  8073 net.cpp:148] Top shape: 10 384 7 7 (188160)
I0714 20:50:25.315048  8069 net.cpp:156] Memory required for data: 531865600
I0714 20:50:25.315054  8073 net.cpp:156] Memory required for data: 543531520
I0714 20:50:25.315057  8069 layer_factory.hpp:77] Creating layer inception_5a/5x5_reduce
I0714 20:50:25.315066  8073 layer_factory.hpp:77] Creating layer inception_5b/relu_1x1
I0714 20:50:25.315075  8069 net.cpp:91] Creating Layer inception_5a/5x5_reduce
I0714 20:50:25.315080  8073 net.cpp:91] Creating Layer inception_5b/relu_1x1
I0714 20:50:25.315083  8069 net.cpp:425] inception_5a/5x5_reduce <- pool4/3x3_s2_pool4/3x3_s2_0_split_2
I0714 20:50:25.315088  8073 net.cpp:425] inception_5b/relu_1x1 <- inception_5b/1x1
I0714 20:50:25.315100  8069 net.cpp:399] inception_5a/5x5_reduce -> inception_5a/5x5_reduce
I0714 20:50:25.315100  8073 net.cpp:386] inception_5b/relu_1x1 -> inception_5b/1x1 (in-place)
I0714 20:50:25.315640  8073 net.cpp:141] Setting up inception_5b/relu_1x1
I0714 20:50:25.315654  8073 net.cpp:148] Top shape: 10 384 7 7 (188160)
I0714 20:50:25.315659  8073 net.cpp:156] Memory required for data: 544284160
I0714 20:50:25.315665  8073 layer_factory.hpp:77] Creating layer inception_5b/3x3_reduce
I0714 20:50:25.315683  8073 net.cpp:91] Creating Layer inception_5b/3x3_reduce
I0714 20:50:25.315690  8073 net.cpp:425] inception_5b/3x3_reduce <- inception_5a/output_inception_5a/output_0_split_1
I0714 20:50:25.315703  8073 net.cpp:399] inception_5b/3x3_reduce -> inception_5b/3x3_reduce
I0714 20:50:25.322439  8069 net.cpp:141] Setting up inception_5a/5x5_reduce
I0714 20:50:25.322460  8069 net.cpp:148] Top shape: 10 32 7 7 (15680)
I0714 20:50:25.322466  8069 net.cpp:156] Memory required for data: 531928320
I0714 20:50:25.322477  8069 layer_factory.hpp:77] Creating layer inception_5a/relu_5x5_reduce
I0714 20:50:25.322489  8069 net.cpp:91] Creating Layer inception_5a/relu_5x5_reduce
I0714 20:50:25.322497  8069 net.cpp:425] inception_5a/relu_5x5_reduce <- inception_5a/5x5_reduce
I0714 20:50:25.322505  8069 net.cpp:386] inception_5a/relu_5x5_reduce -> inception_5a/5x5_reduce (in-place)
I0714 20:50:25.322837  8069 net.cpp:141] Setting up inception_5a/relu_5x5_reduce
I0714 20:50:25.322850  8069 net.cpp:148] Top shape: 10 32 7 7 (15680)
I0714 20:50:25.322855  8069 net.cpp:156] Memory required for data: 531991040
I0714 20:50:25.322861  8069 layer_factory.hpp:77] Creating layer inception_5a/5x5
I0714 20:50:25.322881  8069 net.cpp:91] Creating Layer inception_5a/5x5
I0714 20:50:25.322888  8069 net.cpp:425] inception_5a/5x5 <- inception_5a/5x5_reduce
I0714 20:50:25.322898  8069 net.cpp:399] inception_5a/5x5 -> inception_5a/5x5
I0714 20:50:25.324530  8073 net.cpp:141] Setting up inception_5b/3x3_reduce
I0714 20:50:25.324551  8073 net.cpp:148] Top shape: 10 192 7 7 (94080)
I0714 20:50:25.324558  8073 net.cpp:156] Memory required for data: 544660480
I0714 20:50:25.324568  8073 layer_factory.hpp:77] Creating layer inception_5b/relu_3x3_reduce
I0714 20:50:25.324578  8073 net.cpp:91] Creating Layer inception_5b/relu_3x3_reduce
I0714 20:50:25.324584  8073 net.cpp:425] inception_5b/relu_3x3_reduce <- inception_5b/3x3_reduce
I0714 20:50:25.324596  8073 net.cpp:386] inception_5b/relu_3x3_reduce -> inception_5b/3x3_reduce (in-place)
I0714 20:50:25.324909  8073 net.cpp:141] Setting up inception_5b/relu_3x3_reduce
I0714 20:50:25.324924  8073 net.cpp:148] Top shape: 10 192 7 7 (94080)
I0714 20:50:25.324929  8073 net.cpp:156] Memory required for data: 545036800
I0714 20:50:25.324935  8073 layer_factory.hpp:77] Creating layer inception_5b/3x3
I0714 20:50:25.324954  8073 net.cpp:91] Creating Layer inception_5b/3x3
I0714 20:50:25.324960  8073 net.cpp:425] inception_5b/3x3 <- inception_5b/3x3_reduce
I0714 20:50:25.324970  8073 net.cpp:399] inception_5b/3x3 -> inception_5b/3x3
I0714 20:50:25.330703  8069 net.cpp:141] Setting up inception_5a/5x5
I0714 20:50:25.330730  8069 net.cpp:148] Top shape: 10 128 7 7 (62720)
I0714 20:50:25.330736  8069 net.cpp:156] Memory required for data: 532241920
I0714 20:50:25.330747  8069 layer_factory.hpp:77] Creating layer inception_5a/relu_5x5
I0714 20:50:25.330785  8069 net.cpp:91] Creating Layer inception_5a/relu_5x5
I0714 20:50:25.330792  8069 net.cpp:425] inception_5a/relu_5x5 <- inception_5a/5x5
I0714 20:50:25.330801  8069 net.cpp:386] inception_5a/relu_5x5 -> inception_5a/5x5 (in-place)
I0714 20:50:25.331102  8069 net.cpp:141] Setting up inception_5a/relu_5x5
I0714 20:50:25.331115  8069 net.cpp:148] Top shape: 10 128 7 7 (62720)
I0714 20:50:25.331120  8069 net.cpp:156] Memory required for data: 532492800
I0714 20:50:25.331126  8069 layer_factory.hpp:77] Creating layer inception_5a/pool
I0714 20:50:25.331152  8069 net.cpp:91] Creating Layer inception_5a/pool
I0714 20:50:25.331161  8069 net.cpp:425] inception_5a/pool <- pool4/3x3_s2_pool4/3x3_s2_0_split_3
I0714 20:50:25.331172  8069 net.cpp:399] inception_5a/pool -> inception_5a/pool
I0714 20:50:25.331329  8069 net.cpp:141] Setting up inception_5a/pool
I0714 20:50:25.331341  8069 net.cpp:148] Top shape: 10 832 7 7 (407680)
I0714 20:50:25.331346  8069 net.cpp:156] Memory required for data: 534123520
I0714 20:50:25.331351  8069 layer_factory.hpp:77] Creating layer inception_5a/pool_proj
I0714 20:50:25.331372  8069 net.cpp:91] Creating Layer inception_5a/pool_proj
I0714 20:50:25.331379  8069 net.cpp:425] inception_5a/pool_proj <- inception_5a/pool
I0714 20:50:25.331388  8069 net.cpp:399] inception_5a/pool_proj -> inception_5a/pool_proj
I0714 20:50:25.337481  8073 net.cpp:141] Setting up inception_5b/3x3
I0714 20:50:25.337507  8073 net.cpp:148] Top shape: 10 384 7 7 (188160)
I0714 20:50:25.337513  8073 net.cpp:156] Memory required for data: 545789440
I0714 20:50:25.337524  8073 layer_factory.hpp:77] Creating layer inception_5b/relu_3x3
I0714 20:50:25.337533  8073 net.cpp:91] Creating Layer inception_5b/relu_3x3
I0714 20:50:25.337540  8073 net.cpp:425] inception_5b/relu_3x3 <- inception_5b/3x3
I0714 20:50:25.337551  8073 net.cpp:386] inception_5b/relu_3x3 -> inception_5b/3x3 (in-place)
I0714 20:50:25.338634  8073 net.cpp:141] Setting up inception_5b/relu_3x3
I0714 20:50:25.338652  8073 net.cpp:148] Top shape: 10 384 7 7 (188160)
I0714 20:50:25.338657  8073 net.cpp:156] Memory required for data: 546542080
I0714 20:50:25.338663  8073 layer_factory.hpp:77] Creating layer inception_5b/5x5_reduce
I0714 20:50:25.338685  8073 net.cpp:91] Creating Layer inception_5b/5x5_reduce
I0714 20:50:25.338701  8073 net.cpp:425] inception_5b/5x5_reduce <- inception_5a/output_inception_5a/output_0_split_2
I0714 20:50:25.338732  8073 net.cpp:399] inception_5b/5x5_reduce -> inception_5b/5x5_reduce
I0714 20:50:25.338753  8069 net.cpp:141] Setting up inception_5a/pool_proj
I0714 20:50:25.338774  8069 net.cpp:148] Top shape: 10 128 7 7 (62720)
I0714 20:50:25.338779  8069 net.cpp:156] Memory required for data: 534374400
I0714 20:50:25.338790  8069 layer_factory.hpp:77] Creating layer inception_5a/relu_pool_proj
I0714 20:50:25.338800  8069 net.cpp:91] Creating Layer inception_5a/relu_pool_proj
I0714 20:50:25.338807  8069 net.cpp:425] inception_5a/relu_pool_proj <- inception_5a/pool_proj
I0714 20:50:25.338819  8069 net.cpp:386] inception_5a/relu_pool_proj -> inception_5a/pool_proj (in-place)
I0714 20:50:25.339972  8069 net.cpp:141] Setting up inception_5a/relu_pool_proj
I0714 20:50:25.339993  8069 net.cpp:148] Top shape: 10 128 7 7 (62720)
I0714 20:50:25.339999  8069 net.cpp:156] Memory required for data: 534625280
I0714 20:50:25.340005  8069 layer_factory.hpp:77] Creating layer inception_5a/output
I0714 20:50:25.340014  8069 net.cpp:91] Creating Layer inception_5a/output
I0714 20:50:25.340021  8069 net.cpp:425] inception_5a/output <- inception_5a/1x1
I0714 20:50:25.340029  8069 net.cpp:425] inception_5a/output <- inception_5a/3x3
I0714 20:50:25.340034  8069 net.cpp:425] inception_5a/output <- inception_5a/5x5
I0714 20:50:25.340041  8069 net.cpp:425] inception_5a/output <- inception_5a/pool_proj
I0714 20:50:25.340052  8069 net.cpp:399] inception_5a/output -> inception_5a/output
I0714 20:50:25.340256  8069 net.cpp:141] Setting up inception_5a/output
I0714 20:50:25.340270  8069 net.cpp:148] Top shape: 10 832 7 7 (407680)
I0714 20:50:25.340275  8069 net.cpp:156] Memory required for data: 536256000
I0714 20:50:25.340279  8069 layer_factory.hpp:77] Creating layer inception_5a/output_inception_5a/output_0_split
I0714 20:50:25.340289  8069 net.cpp:91] Creating Layer inception_5a/output_inception_5a/output_0_split
I0714 20:50:25.340296  8069 net.cpp:425] inception_5a/output_inception_5a/output_0_split <- inception_5a/output
I0714 20:50:25.340308  8069 net.cpp:399] inception_5a/output_inception_5a/output_0_split -> inception_5a/output_inception_5a/output_0_split_0
I0714 20:50:25.340319  8069 net.cpp:399] inception_5a/output_inception_5a/output_0_split -> inception_5a/output_inception_5a/output_0_split_1
I0714 20:50:25.340329  8069 net.cpp:399] inception_5a/output_inception_5a/output_0_split -> inception_5a/output_inception_5a/output_0_split_2
I0714 20:50:25.340340  8069 net.cpp:399] inception_5a/output_inception_5a/output_0_split -> inception_5a/output_inception_5a/output_0_split_3
I0714 20:50:25.340658  8069 net.cpp:141] Setting up inception_5a/output_inception_5a/output_0_split
I0714 20:50:25.340674  8069 net.cpp:148] Top shape: 10 832 7 7 (407680)
I0714 20:50:25.340682  8069 net.cpp:148] Top shape: 10 832 7 7 (407680)
I0714 20:50:25.340687  8069 net.cpp:148] Top shape: 10 832 7 7 (407680)
I0714 20:50:25.340693  8069 net.cpp:148] Top shape: 10 832 7 7 (407680)
I0714 20:50:25.340698  8069 net.cpp:156] Memory required for data: 542778880
I0714 20:50:25.340703  8069 layer_factory.hpp:77] Creating layer inception_5b/1x1
I0714 20:50:25.340718  8069 net.cpp:91] Creating Layer inception_5b/1x1
I0714 20:50:25.340724  8069 net.cpp:425] inception_5b/1x1 <- inception_5a/output_inception_5a/output_0_split_0
I0714 20:50:25.340737  8069 net.cpp:399] inception_5b/1x1 -> inception_5b/1x1
I0714 20:50:25.345945  8073 net.cpp:141] Setting up inception_5b/5x5_reduce
I0714 20:50:25.345968  8073 net.cpp:148] Top shape: 10 48 7 7 (23520)
I0714 20:50:25.345973  8073 net.cpp:156] Memory required for data: 546636160
I0714 20:50:25.345983  8073 layer_factory.hpp:77] Creating layer inception_5b/relu_5x5_reduce
I0714 20:50:25.345999  8073 net.cpp:91] Creating Layer inception_5b/relu_5x5_reduce
I0714 20:50:25.346005  8073 net.cpp:425] inception_5b/relu_5x5_reduce <- inception_5b/5x5_reduce
I0714 20:50:25.346014  8073 net.cpp:386] inception_5b/relu_5x5_reduce -> inception_5b/5x5_reduce (in-place)
I0714 20:50:25.346318  8073 net.cpp:141] Setting up inception_5b/relu_5x5_reduce
I0714 20:50:25.346329  8073 net.cpp:148] Top shape: 10 48 7 7 (23520)
I0714 20:50:25.346334  8073 net.cpp:156] Memory required for data: 546730240
I0714 20:50:25.346339  8073 layer_factory.hpp:77] Creating layer inception_5b/5x5
I0714 20:50:25.346357  8073 net.cpp:91] Creating Layer inception_5b/5x5
I0714 20:50:25.346364  8073 net.cpp:425] inception_5b/5x5 <- inception_5b/5x5_reduce
I0714 20:50:25.346376  8073 net.cpp:399] inception_5b/5x5 -> inception_5b/5x5
I0714 20:50:25.352910  8069 net.cpp:141] Setting up inception_5b/1x1
I0714 20:50:25.352939  8069 net.cpp:148] Top shape: 10 384 7 7 (188160)
I0714 20:50:25.352946  8069 net.cpp:156] Memory required for data: 543531520
I0714 20:50:25.352957  8069 layer_factory.hpp:77] Creating layer inception_5b/relu_1x1
I0714 20:50:25.352973  8069 net.cpp:91] Creating Layer inception_5b/relu_1x1
I0714 20:50:25.352982  8069 net.cpp:425] inception_5b/relu_1x1 <- inception_5b/1x1
I0714 20:50:25.352993  8069 net.cpp:386] inception_5b/relu_1x1 -> inception_5b/1x1 (in-place)
I0714 20:50:25.353524  8069 net.cpp:141] Setting up inception_5b/relu_1x1
I0714 20:50:25.353540  8069 net.cpp:148] Top shape: 10 384 7 7 (188160)
I0714 20:50:25.353546  8069 net.cpp:156] Memory required for data: 544284160
I0714 20:50:25.353551  8069 layer_factory.hpp:77] Creating layer inception_5b/3x3_reduce
I0714 20:50:25.353571  8069 net.cpp:91] Creating Layer inception_5b/3x3_reduce
I0714 20:50:25.353579  8069 net.cpp:425] inception_5b/3x3_reduce <- inception_5a/output_inception_5a/output_0_split_1
I0714 20:50:25.353590  8069 net.cpp:399] inception_5b/3x3_reduce -> inception_5b/3x3_reduce
I0714 20:50:25.353638  8073 net.cpp:141] Setting up inception_5b/5x5
I0714 20:50:25.353655  8073 net.cpp:148] Top shape: 10 128 7 7 (62720)
I0714 20:50:25.353660  8073 net.cpp:156] Memory required for data: 546981120
I0714 20:50:25.353672  8073 layer_factory.hpp:77] Creating layer inception_5b/relu_5x5
I0714 20:50:25.353680  8073 net.cpp:91] Creating Layer inception_5b/relu_5x5
I0714 20:50:25.353687  8073 net.cpp:425] inception_5b/relu_5x5 <- inception_5b/5x5
I0714 20:50:25.353694  8073 net.cpp:386] inception_5b/relu_5x5 -> inception_5b/5x5 (in-place)
I0714 20:50:25.354212  8073 net.cpp:141] Setting up inception_5b/relu_5x5
I0714 20:50:25.354225  8073 net.cpp:148] Top shape: 10 128 7 7 (62720)
I0714 20:50:25.354230  8073 net.cpp:156] Memory required for data: 547232000
I0714 20:50:25.354235  8073 layer_factory.hpp:77] Creating layer inception_5b/pool
I0714 20:50:25.354249  8073 net.cpp:91] Creating Layer inception_5b/pool
I0714 20:50:25.354255  8073 net.cpp:425] inception_5b/pool <- inception_5a/output_inception_5a/output_0_split_3
I0714 20:50:25.354264  8073 net.cpp:399] inception_5b/pool -> inception_5b/pool
I0714 20:50:25.354605  8073 net.cpp:141] Setting up inception_5b/pool
I0714 20:50:25.354619  8073 net.cpp:148] Top shape: 10 832 7 7 (407680)
I0714 20:50:25.354624  8073 net.cpp:156] Memory required for data: 548862720
I0714 20:50:25.354629  8073 layer_factory.hpp:77] Creating layer inception_5b/pool_proj
I0714 20:50:25.354645  8073 net.cpp:91] Creating Layer inception_5b/pool_proj
I0714 20:50:25.354651  8073 net.cpp:425] inception_5b/pool_proj <- inception_5b/pool
I0714 20:50:25.354665  8073 net.cpp:399] inception_5b/pool_proj -> inception_5b/pool_proj
I0714 20:50:25.362905  8069 net.cpp:141] Setting up inception_5b/3x3_reduce
I0714 20:50:25.362932  8069 net.cpp:148] Top shape: 10 192 7 7 (94080)
I0714 20:50:25.362938  8069 net.cpp:156] Memory required for data: 544660480
I0714 20:50:25.362951  8069 layer_factory.hpp:77] Creating layer inception_5b/relu_3x3_reduce
I0714 20:50:25.362962  8069 net.cpp:91] Creating Layer inception_5b/relu_3x3_reduce
I0714 20:50:25.362972  8069 net.cpp:425] inception_5b/relu_3x3_reduce <- inception_5b/3x3_reduce
I0714 20:50:25.362984  8069 net.cpp:386] inception_5b/relu_3x3_reduce -> inception_5b/3x3_reduce (in-place)
I0714 20:50:25.363435  8069 net.cpp:141] Setting up inception_5b/relu_3x3_reduce
I0714 20:50:25.363451  8069 net.cpp:148] Top shape: 10 192 7 7 (94080)
I0714 20:50:25.363456  8069 net.cpp:156] Memory required for data: 545036800
I0714 20:50:25.363461  8069 layer_factory.hpp:77] Creating layer inception_5b/3x3
I0714 20:50:25.363482  8069 net.cpp:91] Creating Layer inception_5b/3x3
I0714 20:50:25.363489  8069 net.cpp:425] inception_5b/3x3 <- inception_5b/3x3_reduce
I0714 20:50:25.363499  8069 net.cpp:399] inception_5b/3x3 -> inception_5b/3x3
I0714 20:50:25.363772  8073 net.cpp:141] Setting up inception_5b/pool_proj
I0714 20:50:25.363795  8073 net.cpp:148] Top shape: 10 128 7 7 (62720)
I0714 20:50:25.363801  8073 net.cpp:156] Memory required for data: 549113600
I0714 20:50:25.363811  8073 layer_factory.hpp:77] Creating layer inception_5b/relu_pool_proj
I0714 20:50:25.363821  8073 net.cpp:91] Creating Layer inception_5b/relu_pool_proj
I0714 20:50:25.363827  8073 net.cpp:425] inception_5b/relu_pool_proj <- inception_5b/pool_proj
I0714 20:50:25.363840  8073 net.cpp:386] inception_5b/relu_pool_proj -> inception_5b/pool_proj (in-place)
I0714 20:50:25.364962  8073 net.cpp:141] Setting up inception_5b/relu_pool_proj
I0714 20:50:25.364981  8073 net.cpp:148] Top shape: 10 128 7 7 (62720)
I0714 20:50:25.364986  8073 net.cpp:156] Memory required for data: 549364480
I0714 20:50:25.364992  8073 layer_factory.hpp:77] Creating layer inception_5b/output
I0714 20:50:25.365002  8073 net.cpp:91] Creating Layer inception_5b/output
I0714 20:50:25.365008  8073 net.cpp:425] inception_5b/output <- inception_5b/1x1
I0714 20:50:25.365016  8073 net.cpp:425] inception_5b/output <- inception_5b/3x3
I0714 20:50:25.365022  8073 net.cpp:425] inception_5b/output <- inception_5b/5x5
I0714 20:50:25.365028  8073 net.cpp:425] inception_5b/output <- inception_5b/pool_proj
I0714 20:50:25.365041  8073 net.cpp:399] inception_5b/output -> inception_5b/output
I0714 20:50:25.367041  8073 net.cpp:141] Setting up inception_5b/output
I0714 20:50:25.367058  8073 net.cpp:148] Top shape: 10 1024 7 7 (501760)
I0714 20:50:25.367063  8073 net.cpp:156] Memory required for data: 551371520
I0714 20:50:25.367069  8073 layer_factory.hpp:77] Creating layer pool5/7x7_s1
I0714 20:50:25.367084  8073 net.cpp:91] Creating Layer pool5/7x7_s1
I0714 20:50:25.367091  8073 net.cpp:425] pool5/7x7_s1 <- inception_5b/output
I0714 20:50:25.367100  8073 net.cpp:399] pool5/7x7_s1 -> pool5/7x7_s1
I0714 20:50:25.368095  8073 net.cpp:141] Setting up pool5/7x7_s1
I0714 20:50:25.368113  8073 net.cpp:148] Top shape: 10 1024 1 1 (10240)
I0714 20:50:25.368118  8073 net.cpp:156] Memory required for data: 551412480
I0714 20:50:25.368124  8073 layer_factory.hpp:77] Creating layer pool5/drop_7x7_s1
I0714 20:50:25.368140  8073 net.cpp:91] Creating Layer pool5/drop_7x7_s1
I0714 20:50:25.368146  8073 net.cpp:425] pool5/drop_7x7_s1 <- pool5/7x7_s1
I0714 20:50:25.368154  8073 net.cpp:386] pool5/drop_7x7_s1 -> pool5/7x7_s1 (in-place)
I0714 20:50:25.368249  8073 net.cpp:141] Setting up pool5/drop_7x7_s1
I0714 20:50:25.368262  8073 net.cpp:148] Top shape: 10 1024 1 1 (10240)
I0714 20:50:25.368266  8073 net.cpp:156] Memory required for data: 551453440
I0714 20:50:25.368271  8073 layer_factory.hpp:77] Creating layer loss3/classifier
I0714 20:50:25.368288  8073 net.cpp:91] Creating Layer loss3/classifier
I0714 20:50:25.368294  8073 net.cpp:425] loss3/classifier <- pool5/7x7_s1
I0714 20:50:25.368306  8073 net.cpp:399] loss3/classifier -> loss3/classifier
I0714 20:50:25.376075  8069 net.cpp:141] Setting up inception_5b/3x3
I0714 20:50:25.376101  8069 net.cpp:148] Top shape: 10 384 7 7 (188160)
I0714 20:50:25.376106  8069 net.cpp:156] Memory required for data: 545789440
I0714 20:50:25.376119  8069 layer_factory.hpp:77] Creating layer inception_5b/relu_3x3
I0714 20:50:25.376130  8069 net.cpp:91] Creating Layer inception_5b/relu_3x3
I0714 20:50:25.376139  8069 net.cpp:425] inception_5b/relu_3x3 <- inception_5b/3x3
I0714 20:50:25.376150  8069 net.cpp:386] inception_5b/relu_3x3 -> inception_5b/3x3 (in-place)
I0714 20:50:25.377029  8069 net.cpp:141] Setting up inception_5b/relu_3x3
I0714 20:50:25.377049  8069 net.cpp:148] Top shape: 10 384 7 7 (188160)
I0714 20:50:25.377054  8069 net.cpp:156] Memory required for data: 546542080
I0714 20:50:25.377060  8069 layer_factory.hpp:77] Creating layer inception_5b/5x5_reduce
I0714 20:50:25.377081  8069 net.cpp:91] Creating Layer inception_5b/5x5_reduce
I0714 20:50:25.377089  8069 net.cpp:425] inception_5b/5x5_reduce <- inception_5a/output_inception_5a/output_0_split_2
I0714 20:50:25.377104  8069 net.cpp:399] inception_5b/5x5_reduce -> inception_5b/5x5_reduce
I0714 20:50:25.380900  8069 net.cpp:141] Setting up inception_5b/5x5_reduce
I0714 20:50:25.380920  8069 net.cpp:148] Top shape: 10 48 7 7 (23520)
I0714 20:50:25.380925  8069 net.cpp:156] Memory required for data: 546636160
I0714 20:50:25.380935  8069 layer_factory.hpp:77] Creating layer inception_5b/relu_5x5_reduce
I0714 20:50:25.380951  8069 net.cpp:91] Creating Layer inception_5b/relu_5x5_reduce
I0714 20:50:25.380959  8069 net.cpp:425] inception_5b/relu_5x5_reduce <- inception_5b/5x5_reduce
I0714 20:50:25.380966  8069 net.cpp:386] inception_5b/relu_5x5_reduce -> inception_5b/5x5_reduce (in-place)
I0714 20:50:25.381222  8073 net.cpp:141] Setting up loss3/classifier
I0714 20:50:25.381238  8073 net.cpp:148] Top shape: 10 1000 (10000)
I0714 20:50:25.381243  8073 net.cpp:156] Memory required for data: 551493440
I0714 20:50:25.381254  8073 layer_factory.hpp:77] Creating layer prob
I0714 20:50:25.381265  8073 net.cpp:91] Creating Layer prob
I0714 20:50:25.381271  8073 net.cpp:425] prob <- loss3/classifier
I0714 20:50:25.381283  8073 net.cpp:399] prob -> prob
I0714 20:50:25.381337  8069 net.cpp:141] Setting up inception_5b/relu_5x5_reduce
I0714 20:50:25.381351  8069 net.cpp:148] Top shape: 10 48 7 7 (23520)
I0714 20:50:25.381356  8069 net.cpp:156] Memory required for data: 546730240
I0714 20:50:25.381361  8069 layer_factory.hpp:77] Creating layer inception_5b/5x5
I0714 20:50:25.381381  8069 net.cpp:91] Creating Layer inception_5b/5x5
I0714 20:50:25.381387  8069 net.cpp:425] inception_5b/5x5 <- inception_5b/5x5_reduce
I0714 20:50:25.381400  8069 net.cpp:399] inception_5b/5x5 -> inception_5b/5x5
I0714 20:50:25.382900  8073 net.cpp:141] Setting up prob
I0714 20:50:25.382918  8073 net.cpp:148] Top shape: 10 1000 (10000)
I0714 20:50:25.382925  8073 net.cpp:156] Memory required for data: 551533440
I0714 20:50:25.382930  8073 net.cpp:219] prob does not need backward computation.
I0714 20:50:25.382936  8073 net.cpp:219] loss3/classifier does not need backward computation.
I0714 20:50:25.382939  8073 net.cpp:219] pool5/drop_7x7_s1 does not need backward computation.
I0714 20:50:25.382944  8073 net.cpp:219] pool5/7x7_s1 does not need backward computation.
…
I0714 20:50:25.383697  8073 net.cpp:219] pool1/3x3_s2 does not need backward computation.
I0714 20:50:25.383704  8073 net.cpp:219] conv1/relu_7x7 does not need backward computation.
I0714 20:50:25.383708  8073 net.cpp:219] conv1/7x7_s2 does not need backward computation.
I0714 20:50:25.383713  8073 net.cpp:219] data does not need backward computation.
I0714 20:50:25.383718  8073 net.cpp:261] This network produces output prob
I0714 20:50:25.383868  8073 net.cpp:274] Network initialization done.
I0714 20:50:25.387857  8069 net.cpp:141] Setting up inception_5b/5x5
I0714 20:50:25.387881  8069 net.cpp:148] Top shape: 10 128 7 7 (62720)
I0714 20:50:25.387887  8069 net.cpp:156] Memory required for data: 546981120
I0714 20:50:25.387898  8069 layer_factory.hpp:77] Creating layer inception_5b/relu_5x5
I0714 20:50:25.387908  8069 net.cpp:91] Creating Layer inception_5b/relu_5x5
I0714 20:50:25.387915  8069 net.cpp:425] inception_5b/relu_5x5 <- inception_5b/5x5
I0714 20:50:25.387924  8069 net.cpp:386] inception_5b/relu_5x5 -> inception_5b/5x5 (in-place)
I0714 20:50:25.388252  8069 net.cpp:141] Setting up inception_5b/relu_5x5
I0714 20:50:25.388264  8069 net.cpp:148] Top shape: 10 128 7 7 (62720)
I0714 20:50:25.388269  8069 net.cpp:156] Memory required for data: 547232000
I0714 20:50:25.388275  8069 layer_factory.hpp:77] Creating layer inception_5b/pool
I0714 20:50:25.388288  8069 net.cpp:91] Creating Layer inception_5b/pool
I0714 20:50:25.388296  8069 net.cpp:425] inception_5b/pool <- inception_5a/output_inception_5a/output_0_split_3
I0714 20:50:25.388305  8069 net.cpp:399] inception_5b/pool -> inception_5b/pool
I0714 20:50:25.388473  8069 net.cpp:141] Setting up inception_5b/pool
I0714 20:50:25.388485  8069 net.cpp:148] Top shape: 10 832 7 7 (407680)
I0714 20:50:25.388489  8069 net.cpp:156] Memory required for data: 548862720
I0714 20:50:25.388495  8069 layer_factory.hpp:77] Creating layer inception_5b/pool_proj
I0714 20:50:25.388514  8069 net.cpp:91] Creating Layer inception_5b/pool_proj
I0714 20:50:25.388521  8069 net.cpp:425] inception_5b/pool_proj <- inception_5b/pool
I0714 20:50:25.388545  8069 net.cpp:399] inception_5b/pool_proj -> inception_5b/pool_proj
I0714 20:50:25.395789  8069 net.cpp:141] Setting up inception_5b/pool_proj
I0714 20:50:25.395826  8069 net.cpp:148] Top shape: 10 128 7 7 (62720)
I0714 20:50:25.395833  8069 net.cpp:156] Memory required for data: 549113600
I0714 20:50:25.395846  8069 layer_factory.hpp:77] Creating layer inception_5b/relu_pool_proj
I0714 20:50:25.395859  8069 net.cpp:91] Creating Layer inception_5b/relu_pool_proj
I0714 20:50:25.395869  8069 net.cpp:425] inception_5b/relu_pool_proj <- inception_5b/pool_proj
I0714 20:50:25.395884  8069 net.cpp:386] inception_5b/relu_pool_proj -> inception_5b/pool_proj (in-place)
I0714 20:50:25.397137  8069 net.cpp:141] Setting up inception_5b/relu_pool_proj
I0714 20:50:25.397158  8069 net.cpp:148] Top shape: 10 128 7 7 (62720)
I0714 20:50:25.397163  8069 net.cpp:156] Memory required for data: 549364480
I0714 20:50:25.397169  8069 layer_factory.hpp:77] Creating layer inception_5b/output
I0714 20:50:25.397181  8069 net.cpp:91] Creating Layer inception_5b/output
I0714 20:50:25.397188  8069 net.cpp:425] inception_5b/output <- inception_5b/1x1
I0714 20:50:25.397197  8069 net.cpp:425] inception_5b/output <- inception_5b/3x3
I0714 20:50:25.397203  8069 net.cpp:425] inception_5b/output <- inception_5b/5x5
I0714 20:50:25.397209  8069 net.cpp:425] inception_5b/output <- inception_5b/pool_proj
I0714 20:50:25.397222  8069 net.cpp:399] inception_5b/output -> inception_5b/output
I0714 20:50:25.397343  8069 net.cpp:141] Setting up inception_5b/output
I0714 20:50:25.397356  8069 net.cpp:148] Top shape: 10 1024 7 7 (501760)
I0714 20:50:25.397361  8069 net.cpp:156] Memory required for data: 551371520
I0714 20:50:25.397367  8069 layer_factory.hpp:77] Creating layer pool5/7x7_s1
I0714 20:50:25.397382  8069 net.cpp:91] Creating Layer pool5/7x7_s1
I0714 20:50:25.397388  8069 net.cpp:425] pool5/7x7_s1 <- inception_5b/output
I0714 20:50:25.397397  8069 net.cpp:399] pool5/7x7_s1 -> pool5/7x7_s1
I0714 20:50:25.397789  8069 net.cpp:141] Setting up pool5/7x7_s1
I0714 20:50:25.397801  8069 net.cpp:148] Top shape: 10 1024 1 1 (10240)
I0714 20:50:25.397806  8069 net.cpp:156] Memory required for data: 551412480
I0714 20:50:25.397811  8069 layer_factory.hpp:77] Creating layer pool5/drop_7x7_s1
I0714 20:50:25.397821  8069 net.cpp:91] Creating Layer pool5/drop_7x7_s1
I0714 20:50:25.397827  8069 net.cpp:425] pool5/drop_7x7_s1 <- pool5/7x7_s1
I0714 20:50:25.397835  8069 net.cpp:386] pool5/drop_7x7_s1 -> pool5/7x7_s1 (in-place)
I0714 20:50:25.397927  8069 net.cpp:141] Setting up pool5/drop_7x7_s1
I0714 20:50:25.397938  8069 net.cpp:148] Top shape: 10 1024 1 1 (10240)
I0714 20:50:25.397941  8069 net.cpp:156] Memory required for data: 551453440
I0714 20:50:25.397946  8069 layer_factory.hpp:77] Creating layer loss3/classifier
I0714 20:50:25.397961  8069 net.cpp:91] Creating Layer loss3/classifier
I0714 20:50:25.397967  8069 net.cpp:425] loss3/classifier <- pool5/7x7_s1
I0714 20:50:25.397979  8069 net.cpp:399] loss3/classifier -> loss3/classifier
I0714 20:50:25.411324  8069 net.cpp:141] Setting up loss3/classifier
I0714 20:50:25.411377  8069 net.cpp:148] Top shape: 10 1000 (10000)
I0714 20:50:25.411384  8069 net.cpp:156] Memory required for data: 551493440
I0714 20:50:25.411401  8069 layer_factory.hpp:77] Creating layer prob
I0714 20:50:25.411420  8069 net.cpp:91] Creating Layer prob
I0714 20:50:25.411430  8069 net.cpp:425] prob <- loss3/classifier
I0714 20:50:25.411448  8069 net.cpp:399] prob -> prob
I0714 20:50:25.413713  8069 net.cpp:141] Setting up prob
I0714 20:50:25.413733  8069 net.cpp:148] Top shape: 10 1000 (10000)
I0714 20:50:25.413739  8069 net.cpp:156] Memory required for data: 551533440
I0714 20:50:25.413745  8069 net.cpp:219] prob does not need backward computation.
I0714 20:50:25.413751  8069 net.cpp:219] loss3/classifier does not need backward computation.
I0714 20:50:25.413756  8069 net.cpp:219] pool5/drop_7x7_s1 does not need backward computation.
I0714 20:50:25.413761  8069 net.cpp:219] pool5/7x7_s1 does not need backward computation.
…
