…
2016-07-13 13:29:45.004 n.t.s.s.CVParticleSpout [INFO] [Timing] RequestID: 0 StreamID: home/peifeng/work/data/frame.320x240.jpg SequenceNr: 22 Leaving fetcher: 1468430985004 Size: 8702
2016-07-13 13:29:45.005 n.t.s.b.CVParticleBolt [INFO] [Timing] RequestID: 0 StreamID: home/peifeng/work/data/frame.320x240.jpg SequenceNr: 22 Entering scale: 1468430985004
2016-07-13 13:29:45.011 n.t.s.b.CVParticleBolt [INFO] [Timing] RequestID: 0 StreamID: home/peifeng/work/data/frame.320x240.jpg SequenceNr: 22 Leaving scale: 1468430985011 Size: 3530
2016-07-13 13:29:45.099 STDERR [INFO] I0713 13:29:45.099733 21167 net.cpp:141] Setting up data
2016-07-13 13:29:45.100 STDERR [INFO] I0713 13:29:45.099830 21167 net.cpp:148] Top shape: 10 3 224 224 (1505280)
2016-07-13 13:29:45.100 STDERR [INFO] I0713 13:29:45.099838 21167 net.cpp:156] Memory required for data: 6021120
2016-07-13 13:29:45.100 STDERR [INFO] I0713 13:29:45.099867 21167 layer_factory.hpp:77] Creating layer conv1/7x7_s2
2016-07-13 13:29:45.100 STDERR [INFO] I0713 13:29:45.099920 21167 net.cpp:91] Creating Layer conv1/7x7_s2
2016-07-13 13:29:45.100 STDERR [INFO] I0713 13:29:45.099932 21167 net.cpp:425] conv1/7x7_s2 <- data
2016-07-13 13:29:45.100 STDERR [INFO] I0713 13:29:45.099963 21167 net.cpp:399] conv1/7x7_s2 -> conv1/7x7_s2
2016-07-13 13:29:45.200 n.t.s.f.RefreshingImageFetcher$ImageReader [INFO] [Timing] RequestID: 0 StreamID: home/peifeng/work/data/frame.320x240.jpg SequenceNr: 23 Entering queue: 1468430985200
2016-07-13 13:29:45.208 n.t.s.s.CVParticleSpout [INFO] [Timing] RequestID: 0 StreamID: home/peifeng/work/data/frame.320x240.jpg SequenceNr: 23 Leaving fetcher: 1468430985208 Size: 8702
2016-07-13 13:29:45.209 n.t.s.b.CVParticleBolt [INFO] [Timing] RequestID: 0 StreamID: home/peifeng/work/data/frame.320x240.jpg SequenceNr: 23 Entering scale: 1468430985209
2016-07-13 13:29:45.217 n.t.s.b.CVParticleBolt [INFO] [Timing] RequestID: 0 StreamID: home/peifeng/work/data/frame.320x240.jpg SequenceNr: 23 Leaving scale: 1468430985217 Size: 3530
2016-07-13 13:29:45.358 STDERR [INFO] I0713 13:29:45.358458 21167 net.cpp:141] Setting up conv1/7x7_s2
2016-07-13 13:29:45.359 STDERR [INFO] I0713 13:29:45.358522 21167 net.cpp:148] Top shape: 10 64 112 112 (8028160)
2016-07-13 13:29:45.359 STDERR [INFO] I0713 13:29:45.358531 21167 net.cpp:156] Memory required for data: 38133760
2016-07-13 13:29:45.359 STDERR [INFO] I0713 13:29:45.358566 21167 layer_factory.hpp:77] Creating layer conv1/relu_7x7
2016-07-13 13:29:45.360 STDERR [INFO] I0713 13:29:45.358592 21167 net.cpp:91] Creating Layer conv1/relu_7x7
2016-07-13 13:29:45.360 STDERR [INFO] I0713 13:29:45.358602 21167 net.cpp:425] conv1/relu_7x7 <- conv1/7x7_s2
2016-07-13 13:29:45.360 STDERR [INFO] I0713 13:29:45.358611 21167 net.cpp:386] conv1/relu_7x7 -> conv1/7x7_s2 (in-place)
2016-07-13 13:29:45.360 STDERR [INFO] I0713 13:29:45.359421 21167 net.cpp:141] Setting up conv1/relu_7x7
2016-07-13 13:29:45.360 STDERR [INFO] I0713 13:29:45.359437 21167 net.cpp:148] Top shape: 10 64 112 112 (8028160)
2016-07-13 13:29:45.360 STDERR [INFO] I0713 13:29:45.359443 21167 net.cpp:156] Memory required for data: 70246400
2016-07-13 13:29:45.360 STDERR [INFO] I0713 13:29:45.359457 21167 layer_factory.hpp:77] Creating layer pool1/3x3_s2
2016-07-13 13:29:45.360 STDERR [INFO] I0713 13:29:45.359473 21167 net.cpp:91] Creating Layer pool1/3x3_s2
2016-07-13 13:29:45.361 STDERR [INFO] I0713 13:29:45.359479 21167 net.cpp:425] pool1/3x3_s2 <- conv1/7x7_s2
2016-07-13 13:29:45.361 STDERR [INFO] I0713 13:29:45.359488 21167 net.cpp:399] pool1/3x3_s2 -> pool1/3x3_s2
2016-07-13 13:29:45.361 STDERR [INFO] I0713 13:29:45.359575 21167 net.cpp:141] Setting up pool1/3x3_s2
2016-07-13 13:29:45.361 STDERR [INFO] I0713 13:29:45.359587 21167 net.cpp:148] Top shape: 10 64 56 56 (2007040)
2016-07-13 13:29:45.361 STDERR [INFO] I0713 13:29:45.359592 21167 net.cpp:156] Memory required for data: 78274560
2016-07-13 13:29:45.361 STDERR [INFO] I0713 13:29:45.359598 21167 layer_factory.hpp:77] Creating layer pool1/norm1
2016-07-13 13:29:45.361 STDERR [INFO] I0713 13:29:45.359621 21167 net.cpp:91] Creating Layer pool1/norm1
2016-07-13 13:29:45.361 STDERR [INFO] I0713 13:29:45.359627 21167 net.cpp:425] pool1/norm1 <- pool1/3x3_s2
2016-07-13 13:29:45.361 STDERR [INFO] I0713 13:29:45.359634 21167 net.cpp:399] pool1/norm1 -> pool1/norm1
2016-07-13 13:29:45.361 STDERR [INFO] I0713 13:29:45.360455 21167 net.cpp:141] Setting up pool1/norm1
2016-07-13 13:29:45.361 STDERR [INFO] I0713 13:29:45.360471 21167 net.cpp:148] Top shape: 10 64 56 56 (2007040)
2016-07-13 13:29:45.362 STDERR [INFO] I0713 13:29:45.360476 21167 net.cpp:156] Memory required for data: 86302720
2016-07-13 13:29:45.362 STDERR [INFO] I0713 13:29:45.360482 21167 layer_factory.hpp:77] Creating layer conv2/3x3_reduce
2016-07-13 13:29:45.362 STDERR [INFO] I0713 13:29:45.360507 21167 net.cpp:91] Creating Layer conv2/3x3_reduce
2016-07-13 13:29:45.362 STDERR [INFO] I0713 13:29:45.360514 21167 net.cpp:425] conv2/3x3_reduce <- pool1/norm1
2016-07-13 13:29:45.362 STDERR [INFO] I0713 13:29:45.360524 21167 net.cpp:399] conv2/3x3_reduce -> conv2/3x3_reduce
2016-07-13 13:29:45.363 STDERR [INFO] I0713 13:29:45.363611 21167 net.cpp:141] Setting up conv2/3x3_reduce
2016-07-13 13:29:45.364 STDERR [INFO] I0713 13:29:45.363634 21167 net.cpp:148] Top shape: 10 64 56 56 (2007040)
2016-07-13 13:29:45.364 STDERR [INFO] I0713 13:29:45.363641 21167 net.cpp:156] Memory required for data: 94330880
2016-07-13 13:29:45.364 STDERR [INFO] I0713 13:29:45.363654 21167 layer_factory.hpp:77] Creating layer conv2/relu_3x3_reduce
2016-07-13 13:29:45.364 STDERR [INFO] I0713 13:29:45.363665 21167 net.cpp:91] Creating Layer conv2/relu_3x3_reduce
2016-07-13 13:29:45.364 STDERR [INFO] I0713 13:29:45.363672 21167 net.cpp:425] conv2/relu_3x3_reduce <- conv2/3x3_reduce
2016-07-13 13:29:45.364 STDERR [INFO] I0713 13:29:45.363680 21167 net.cpp:386] conv2/relu_3x3_reduce -> conv2/3x3_reduce (in-place)
2016-07-13 13:29:45.364 STDERR [INFO] I0713 13:29:45.364449 21167 net.cpp:141] Setting up conv2/relu_3x3_reduce
2016-07-13 13:29:45.364 STDERR [INFO] I0713 13:29:45.364464 21167 net.cpp:148] Top shape: 10 64 56 56 (2007040)
2016-07-13 13:29:45.364 STDERR [INFO] I0713 13:29:45.364470 21167 net.cpp:156] Memory required for data: 102359040
2016-07-13 13:29:45.364 STDERR [INFO] I0713 13:29:45.364476 21167 layer_factory.hpp:77] Creating layer conv2/3x3
2016-07-13 13:29:45.364 STDERR [INFO] I0713 13:29:45.364493 21167 net.cpp:91] Creating Layer conv2/3x3
2016-07-13 13:29:45.364 STDERR [INFO] I0713 13:29:45.364500 21167 net.cpp:425] conv2/3x3 <- conv2/3x3_reduce
2016-07-13 13:29:45.364 STDERR [INFO] I0713 13:29:45.364508 21167 net.cpp:399] conv2/3x3 -> conv2/3x3
2016-07-13 13:29:45.369 STDERR [INFO] I0713 13:29:45.369354 21167 net.cpp:141] Setting up conv2/3x3
2016-07-13 13:29:45.369 STDERR [INFO] I0713 13:29:45.369375 21167 net.cpp:148] Top shape: 10 192 56 56 (6021120)
2016-07-13 13:29:45.369 STDERR [INFO] I0713 13:29:45.369381 21167 net.cpp:156] Memory required for data: 126443520
2016-07-13 13:29:45.369 STDERR [INFO] I0713 13:29:45.369405 21167 layer_factory.hpp:77] Creating layer conv2/relu_3x3
2016-07-13 13:29:45.369 STDERR [INFO] I0713 13:29:45.369416 21167 net.cpp:91] Creating Layer conv2/relu_3x3
2016-07-13 13:29:45.369 STDERR [INFO] I0713 13:29:45.369422 21167 net.cpp:425] conv2/relu_3x3 <- conv2/3x3
2016-07-13 13:29:45.369 STDERR [INFO] I0713 13:29:45.369431 21167 net.cpp:386] conv2/relu_3x3 -> conv2/3x3 (in-place)
2016-07-13 13:29:45.369 STDERR [INFO] I0713 13:29:45.369669 21167 net.cpp:141] Setting up conv2/relu_3x3
2016-07-13 13:29:45.370 STDERR [INFO] I0713 13:29:45.369683 21167 net.cpp:148] Top shape: 10 192 56 56 (6021120)
2016-07-13 13:29:45.370 STDERR [INFO] I0713 13:29:45.369688 21167 net.cpp:156] Memory required for data: 150528000
2016-07-13 13:29:45.370 STDERR [INFO] I0713 13:29:45.369694 21167 layer_factory.hpp:77] Creating layer conv2/norm2
2016-07-13 13:29:45.370 STDERR [INFO] I0713 13:29:45.369705 21167 net.cpp:91] Creating Layer conv2/norm2
2016-07-13 13:29:45.370 STDERR [INFO] I0713 13:29:45.369710 21167 net.cpp:425] conv2/norm2 <- conv2/3x3
2016-07-13 13:29:45.370 STDERR [INFO] I0713 13:29:45.369719 21167 net.cpp:399] conv2/norm2 -> conv2/norm2
2016-07-13 13:29:45.370 STDERR [INFO] I0713 13:29:45.370546 21167 net.cpp:141] Setting up conv2/norm2
2016-07-13 13:29:45.370 STDERR [INFO] I0713 13:29:45.370565 21167 net.cpp:148] Top shape: 10 192 56 56 (6021120)
2016-07-13 13:29:45.370 STDERR [INFO] I0713 13:29:45.370571 21167 net.cpp:156] Memory required for data: 174612480
2016-07-13 13:29:45.370 STDERR [INFO] I0713 13:29:45.370579 21167 layer_factory.hpp:77] Creating layer pool2/3x3_s2
2016-07-13 13:29:45.370 STDERR [INFO] I0713 13:29:45.370589 21167 net.cpp:91] Creating Layer pool2/3x3_s2
2016-07-13 13:29:45.370 STDERR [INFO] I0713 13:29:45.370594 21167 net.cpp:425] pool2/3x3_s2 <- conv2/norm2
2016-07-13 13:29:45.370 STDERR [INFO] I0713 13:29:45.370604 21167 net.cpp:399] pool2/3x3_s2 -> pool2/3x3_s2
2016-07-13 13:29:45.371 STDERR [INFO] I0713 13:29:45.370656 21167 net.cpp:141] Setting up pool2/3x3_s2
2016-07-13 13:29:45.371 STDERR [INFO] I0713 13:29:45.370666 21167 net.cpp:148] Top shape: 10 192 28 28 (1505280)
2016-07-13 13:29:45.371 STDERR [INFO] I0713 13:29:45.370671 21167 net.cpp:156] Memory required for data: 180633600
2016-07-13 13:29:45.371 STDERR [INFO] I0713 13:29:45.370676 21167 layer_factory.hpp:77] Creating layer pool2/3x3_s2_pool2/3x3_s2_0_split
2016-07-13 13:29:45.371 STDERR [INFO] I0713 13:29:45.370704 21167 net.cpp:91] Creating Layer pool2/3x3_s2_pool2/3x3_s2_0_split
2016-07-13 13:29:45.371 STDERR [INFO] I0713 13:29:45.370712 21167 net.cpp:425] pool2/3x3_s2_pool2/3x3_s2_0_split <- pool2/3x3_s2
2016-07-13 13:29:45.371 STDERR [INFO] I0713 13:29:45.370719 21167 net.cpp:399] pool2/3x3_s2_pool2/3x3_s2_0_split -> pool2/3x3_s2_pool2/3x3_s2_0_split_0
2016-07-13 13:29:45.371 STDERR [INFO] I0713 13:29:45.370731 21167 net.cpp:399] pool2/3x3_s2_pool2/3x3_s2_0_split -> pool2/3x3_s2_pool2/3x3_s2_0_split_1
2016-07-13 13:29:45.371 STDERR [INFO] I0713 13:29:45.370741 21167 net.cpp:399] pool2/3x3_s2_pool2/3x3_s2_0_split -> pool2/3x3_s2_pool2/3x3_s2_0_split_2
2016-07-13 13:29:45.371 STDERR [INFO] I0713 13:29:45.370750 21167 net.cpp:399] pool2/3x3_s2_pool2/3x3_s2_0_split -> pool2/3x3_s2_pool2/3x3_s2_0_split_3
2016-07-13 13:29:45.371 STDERR [INFO] I0713 13:29:45.370826 21167 net.cpp:141] Setting up pool2/3x3_s2_pool2/3x3_s2_0_split
2016-07-13 13:29:45.371 STDERR [INFO] I0713 13:29:45.370836 21167 net.cpp:148] Top shape: 10 192 28 28 (1505280)
2016-07-13 13:29:45.371 STDERR [INFO] I0713 13:29:45.370842 21167 net.cpp:148] Top shape: 10 192 28 28 (1505280)
2016-07-13 13:29:45.371 STDERR [INFO] I0713 13:29:45.370848 21167 net.cpp:148] Top shape: 10 192 28 28 (1505280)
2016-07-13 13:29:45.371 STDERR [INFO] I0713 13:29:45.370854 21167 net.cpp:148] Top shape: 10 192 28 28 (1505280)
2016-07-13 13:29:45.371 STDERR [INFO] I0713 13:29:45.370858 21167 net.cpp:156] Memory required for data: 204718080
2016-07-13 13:29:45.371 STDERR [INFO] I0713 13:29:45.370864 21167 layer_factory.hpp:77] Creating layer inception_3a/1x1
2016-07-13 13:29:45.372 STDERR [INFO] I0713 13:29:45.370879 21167 net.cpp:91] Creating Layer inception_3a/1x1
2016-07-13 13:29:45.372 STDERR [INFO] I0713 13:29:45.370885 21167 net.cpp:425] inception_3a/1x1 <- pool2/3x3_s2_pool2/3x3_s2_0_split_0
2016-07-13 13:29:45.372 STDERR [INFO] I0713 13:29:45.370915 21167 net.cpp:399] inception_3a/1x1 -> inception_3a/1x1
2016-07-13 13:29:45.375 STDERR [INFO] I0713 13:29:45.374929 21167 net.cpp:141] Setting up inception_3a/1x1
2016-07-13 13:29:45.375 STDERR [INFO] I0713 13:29:45.374950 21167 net.cpp:148] Top shape: 10 64 28 28 (501760)
2016-07-13 13:29:45.375 STDERR [INFO] I0713 13:29:45.374956 21167 net.cpp:156] Memory required for data: 206725120
2016-07-13 13:29:45.375 STDERR [INFO] I0713 13:29:45.374970 21167 layer_factory.hpp:77] Creating layer inception_3a/relu_1x1
2016-07-13 13:29:45.375 STDERR [INFO] I0713 13:29:45.374980 21167 net.cpp:91] Creating Layer inception_3a/relu_1x1
2016-07-13 13:29:45.375 STDERR [INFO] I0713 13:29:45.374987 21167 net.cpp:425] inception_3a/relu_1x1 <- inception_3a/1x1
2016-07-13 13:29:45.375 STDERR [INFO] I0713 13:29:45.374996 21167 net.cpp:386] inception_3a/relu_1x1 -> inception_3a/1x1 (in-place)
2016-07-13 13:29:45.375 STDERR [INFO] I0713 13:29:45.375262 21167 net.cpp:141] Setting up inception_3a/relu_1x1
2016-07-13 13:29:45.375 STDERR [INFO] I0713 13:29:45.375275 21167 net.cpp:148] Top shape: 10 64 28 28 (501760)
2016-07-13 13:29:45.375 STDERR [INFO] I0713 13:29:45.375282 21167 net.cpp:156] Memory required for data: 208732160
2016-07-13 13:29:45.375 STDERR [INFO] I0713 13:29:45.375288 21167 layer_factory.hpp:77] Creating layer inception_3a/3x3_reduce
2016-07-13 13:29:45.375 STDERR [INFO] I0713 13:29:45.375303 21167 net.cpp:91] Creating Layer inception_3a/3x3_reduce
2016-07-13 13:29:45.375 STDERR [INFO] I0713 13:29:45.375310 21167 net.cpp:425] inception_3a/3x3_reduce <- pool2/3x3_s2_pool2/3x3_s2_0_split_1
2016-07-13 13:29:45.375 STDERR [INFO] I0713 13:29:45.375320 21167 net.cpp:399] inception_3a/3x3_reduce -> inception_3a/3x3_reduce
2016-07-13 13:29:45.379 STDERR [INFO] I0713 13:29:45.378895 21167 net.cpp:141] Setting up inception_3a/3x3_reduce
2016-07-13 13:29:45.379 STDERR [INFO] I0713 13:29:45.378916 21167 net.cpp:148] Top shape: 10 96 28 28 (752640)
2016-07-13 13:29:45.379 STDERR [INFO] I0713 13:29:45.378922 21167 net.cpp:156] Memory required for data: 211742720
2016-07-13 13:29:45.379 STDERR [INFO] I0713 13:29:45.378937 21167 layer_factory.hpp:77] Creating layer inception_3a/relu_3x3_reduce
2016-07-13 13:29:45.379 STDERR [INFO] I0713 13:29:45.378947 21167 net.cpp:91] Creating Layer inception_3a/relu_3x3_reduce
2016-07-13 13:29:45.379 STDERR [INFO] I0713 13:29:45.378953 21167 net.cpp:425] inception_3a/relu_3x3_reduce <- inception_3a/3x3_reduce
2016-07-13 13:29:45.379 STDERR [INFO] I0713 13:29:45.378965 21167 net.cpp:386] inception_3a/relu_3x3_reduce -> inception_3a/3x3_reduce (in-place)
2016-07-13 13:29:45.379 STDERR [INFO] I0713 13:29:45.379220 21167 net.cpp:141] Setting up inception_3a/relu_3x3_reduce
2016-07-13 13:29:45.379 STDERR [INFO] I0713 13:29:45.379232 21167 net.cpp:148] Top shape: 10 96 28 28 (752640)
2016-07-13 13:29:45.379 STDERR [INFO] I0713 13:29:45.379237 21167 net.cpp:156] Memory required for data: 214753280
2016-07-13 13:29:45.379 STDERR [INFO] I0713 13:29:45.379243 21167 layer_factory.hpp:77] Creating layer inception_3a/3x3
2016-07-13 13:29:45.379 STDERR [INFO] I0713 13:29:45.379267 21167 net.cpp:91] Creating Layer inception_3a/3x3
2016-07-13 13:29:45.379 STDERR [INFO] I0713 13:29:45.379274 21167 net.cpp:425] inception_3a/3x3 <- inception_3a/3x3_reduce
2016-07-13 13:29:45.379 STDERR [INFO] I0713 13:29:45.379283 21167 net.cpp:399] inception_3a/3x3 -> inception_3a/3x3
2016-07-13 13:29:45.382 STDERR [INFO] I0713 13:29:45.382479 21167 net.cpp:141] Setting up inception_3a/3x3
2016-07-13 13:29:45.382 STDERR [INFO] I0713 13:29:45.382500 21167 net.cpp:148] Top shape: 10 128 28 28 (1003520)
2016-07-13 13:29:45.382 STDERR [INFO] I0713 13:29:45.382506 21167 net.cpp:156] Memory required for data: 218767360
2016-07-13 13:29:45.382 STDERR [INFO] I0713 13:29:45.382517 21167 layer_factory.hpp:77] Creating layer inception_3a/relu_3x3
2016-07-13 13:29:45.382 STDERR [INFO] I0713 13:29:45.382529 21167 net.cpp:91] Creating Layer inception_3a/relu_3x3
2016-07-13 13:29:45.382 STDERR [INFO] I0713 13:29:45.382535 21167 net.cpp:425] inception_3a/relu_3x3 <- inception_3a/3x3
2016-07-13 13:29:45.383 STDERR [INFO] I0713 13:29:45.382555 21167 net.cpp:386] inception_3a/relu_3x3 -> inception_3a/3x3 (in-place)
2016-07-13 13:29:45.383 STDERR [INFO] I0713 13:29:45.383358 21167 net.cpp:141] Setting up inception_3a/relu_3x3
2016-07-13 13:29:45.383 STDERR [INFO] I0713 13:29:45.383378 21167 net.cpp:148] Top shape: 10 128 28 28 (1003520)
2016-07-13 13:29:45.383 STDERR [INFO] I0713 13:29:45.383383 21167 net.cpp:156] Memory required for data: 222781440
2016-07-13 13:29:45.383 STDERR [INFO] I0713 13:29:45.383388 21167 layer_factory.hpp:77] Creating layer inception_3a/5x5_reduce
2016-07-13 13:29:45.383 STDERR [INFO] I0713 13:29:45.383411 21167 net.cpp:91] Creating Layer inception_3a/5x5_reduce
2016-07-13 13:29:45.383 STDERR [INFO] I0713 13:29:45.383419 21167 net.cpp:425] inception_3a/5x5_reduce <- pool2/3x3_s2_pool2/3x3_s2_0_split_2
2016-07-13 13:29:45.383 STDERR [INFO] I0713 13:29:45.383430 21167 net.cpp:399] inception_3a/5x5_reduce -> inception_3a/5x5_reduce
2016-07-13 13:29:45.385 STDERR [INFO] I0713 13:29:45.385716 21167 net.cpp:141] Setting up inception_3a/5x5_reduce
2016-07-13 13:29:45.386 STDERR [INFO] I0713 13:29:45.385736 21167 net.cpp:148] Top shape: 10 16 28 28 (125440)
2016-07-13 13:29:45.386 STDERR [INFO] I0713 13:29:45.385741 21167 net.cpp:156] Memory required for data: 223283200
2016-07-13 13:29:45.386 STDERR [INFO] I0713 13:29:45.385753 21167 layer_factory.hpp:77] Creating layer inception_3a/relu_5x5_reduce
2016-07-13 13:29:45.386 STDERR [INFO] I0713 13:29:45.385766 21167 net.cpp:91] Creating Layer inception_3a/relu_5x5_reduce
2016-07-13 13:29:45.386 STDERR [INFO] I0713 13:29:45.385773 21167 net.cpp:425] inception_3a/relu_5x5_reduce <- inception_3a/5x5_reduce
2016-07-13 13:29:45.386 STDERR [INFO] I0713 13:29:45.385782 21167 net.cpp:386] inception_3a/relu_5x5_reduce -> inception_3a/5x5_reduce (in-place)
2016-07-13 13:29:45.386 STDERR [INFO] I0713 13:29:45.386054 21167 net.cpp:141] Setting up inception_3a/relu_5x5_reduce
2016-07-13 13:29:45.386 STDERR [INFO] I0713 13:29:45.386066 21167 net.cpp:148] Top shape: 10 16 28 28 (125440)
2016-07-13 13:29:45.386 STDERR [INFO] I0713 13:29:45.386071 21167 net.cpp:156] Memory required for data: 223784960
2016-07-13 13:29:45.386 STDERR [INFO] I0713 13:29:45.386076 21167 layer_factory.hpp:77] Creating layer inception_3a/5x5
2016-07-13 13:29:45.386 STDERR [INFO] I0713 13:29:45.386098 21167 net.cpp:91] Creating Layer inception_3a/5x5
2016-07-13 13:29:45.386 STDERR [INFO] I0713 13:29:45.386104 21167 net.cpp:425] inception_3a/5x5 <- inception_3a/5x5_reduce
2016-07-13 13:29:45.386 STDERR [INFO] I0713 13:29:45.386116 21167 net.cpp:399] inception_3a/5x5 -> inception_3a/5x5
2016-07-13 13:29:45.389 STDERR [INFO] I0713 13:29:45.389755 21167 net.cpp:141] Setting up inception_3a/5x5
2016-07-13 13:29:45.390 STDERR [INFO] I0713 13:29:45.389775 21167 net.cpp:148] Top shape: 10 32 28 28 (250880)
2016-07-13 13:29:45.390 STDERR [INFO] I0713 13:29:45.389781 21167 net.cpp:156] Memory required for data: 224788480
2016-07-13 13:29:45.390 STDERR [INFO] I0713 13:29:45.389792 21167 layer_factory.hpp:77] Creating layer inception_3a/relu_5x5
2016-07-13 13:29:45.390 STDERR [INFO] I0713 13:29:45.389802 21167 net.cpp:91] Creating Layer inception_3a/relu_5x5
2016-07-13 13:29:45.390 STDERR [INFO] I0713 13:29:45.389808 21167 net.cpp:425] inception_3a/relu_5x5 <- inception_3a/5x5
2016-07-13 13:29:45.390 STDERR [INFO] I0713 13:29:45.389819 21167 net.cpp:386] inception_3a/relu_5x5 -> inception_3a/5x5 (in-place)
2016-07-13 13:29:45.390 STDERR [INFO] I0713 13:29:45.390084 21167 net.cpp:141] Setting up inception_3a/relu_5x5
2016-07-13 13:29:45.390 STDERR [INFO] I0713 13:29:45.390095 21167 net.cpp:148] Top shape: 10 32 28 28 (250880)
2016-07-13 13:29:45.390 STDERR [INFO] I0713 13:29:45.390100 21167 net.cpp:156] Memory required for data: 225792000
2016-07-13 13:29:45.390 STDERR [INFO] I0713 13:29:45.390106 21167 layer_factory.hpp:77] Creating layer inception_3a/pool
2016-07-13 13:29:45.390 STDERR [INFO] I0713 13:29:45.390120 21167 net.cpp:91] Creating Layer inception_3a/pool
2016-07-13 13:29:45.390 STDERR [INFO] I0713 13:29:45.390127 21167 net.cpp:425] inception_3a/pool <- pool2/3x3_s2_pool2/3x3_s2_0_split_3
2016-07-13 13:29:45.390 STDERR [INFO] I0713 13:29:45.390136 21167 net.cpp:399] inception_3a/pool -> inception_3a/pool
2016-07-13 13:29:45.390 STDERR [INFO] I0713 13:29:45.390211 21167 net.cpp:141] Setting up inception_3a/pool
2016-07-13 13:29:45.390 STDERR [INFO] I0713 13:29:45.390221 21167 net.cpp:148] Top shape: 10 192 28 28 (1505280)
2016-07-13 13:29:45.390 STDERR [INFO] I0713 13:29:45.390226 21167 net.cpp:156] Memory required for data: 231813120
2016-07-13 13:29:45.390 STDERR [INFO] I0713 13:29:45.390231 21167 layer_factory.hpp:77] Creating layer inception_3a/pool_proj
2016-07-13 13:29:45.391 STDERR [INFO] I0713 13:29:45.390261 21167 net.cpp:91] Creating Layer inception_3a/pool_proj
2016-07-13 13:29:45.391 STDERR [INFO] I0713 13:29:45.390269 21167 net.cpp:425] inception_3a/pool_proj <- inception_3a/pool
2016-07-13 13:29:45.391 STDERR [INFO] I0713 13:29:45.390281 21167 net.cpp:399] inception_3a/pool_proj -> inception_3a/pool_proj
2016-07-13 13:29:45.392 STDERR [INFO] I0713 13:29:45.392599 21167 net.cpp:141] Setting up inception_3a/pool_proj
2016-07-13 13:29:45.392 STDERR [INFO] I0713 13:29:45.392622 21167 net.cpp:148] Top shape: 10 32 28 28 (250880)
2016-07-13 13:29:45.392 STDERR [INFO] I0713 13:29:45.392628 21167 net.cpp:156] Memory required for data: 232816640
2016-07-13 13:29:45.392 STDERR [INFO] I0713 13:29:45.392643 21167 layer_factory.hpp:77] Creating layer inception_3a/relu_pool_proj
2016-07-13 13:29:45.393 STDERR [INFO] I0713 13:29:45.392653 21167 net.cpp:91] Creating Layer inception_3a/relu_pool_proj
2016-07-13 13:29:45.393 STDERR [INFO] I0713 13:29:45.392659 21167 net.cpp:425] inception_3a/relu_pool_proj <- inception_3a/pool_proj
2016-07-13 13:29:45.393 STDERR [INFO] I0713 13:29:45.392671 21167 net.cpp:386] inception_3a/relu_pool_proj -> inception_3a/pool_proj (in-place)
2016-07-13 13:29:45.393 STDERR [INFO] I0713 13:29:45.393481 21167 net.cpp:141] Setting up inception_3a/relu_pool_proj
2016-07-13 13:29:45.393 STDERR [INFO] I0713 13:29:45.393498 21167 net.cpp:148] Top shape: 10 32 28 28 (250880)
2016-07-13 13:29:45.393 STDERR [INFO] I0713 13:29:45.393504 21167 net.cpp:156] Memory required for data: 233820160
2016-07-13 13:29:45.393 STDERR [INFO] I0713 13:29:45.393510 21167 layer_factory.hpp:77] Creating layer inception_3a/output
2016-07-13 13:29:45.393 STDERR [INFO] I0713 13:29:45.393532 21167 net.cpp:91] Creating Layer inception_3a/output
2016-07-13 13:29:45.393 STDERR [INFO] I0713 13:29:45.393538 21167 net.cpp:425] inception_3a/output <- inception_3a/1x1
2016-07-13 13:29:45.393 STDERR [INFO] I0713 13:29:45.393548 21167 net.cpp:425] inception_3a/output <- inception_3a/3x3
2016-07-13 13:29:45.393 STDERR [INFO] I0713 13:29:45.393553 21167 net.cpp:425] inception_3a/output <- inception_3a/5x5
2016-07-13 13:29:45.393 STDERR [INFO] I0713 13:29:45.393559 21167 net.cpp:425] inception_3a/output <- inception_3a/pool_proj
2016-07-13 13:29:45.394 STDERR [INFO] I0713 13:29:45.393571 21167 net.cpp:399] inception_3a/output -> inception_3a/output
2016-07-13 13:29:45.394 STDERR [INFO] I0713 13:29:45.393641 21167 net.cpp:141] Setting up inception_3a/output
2016-07-13 13:29:45.394 STDERR [INFO] I0713 13:29:45.393652 21167 net.cpp:148] Top shape: 10 256 28 28 (2007040)
2016-07-13 13:29:45.394 STDERR [INFO] I0713 13:29:45.393657 21167 net.cpp:156] Memory required for data: 241848320
2016-07-13 13:29:45.394 STDERR [INFO] I0713 13:29:45.393663 21167 layer_factory.hpp:77] Creating layer inception_3a/output_inception_3a/output_0_split
2016-07-13 13:29:45.394 STDERR [INFO] I0713 13:29:45.393673 21167 net.cpp:91] Creating Layer inception_3a/output_inception_3a/output_0_split
…
2016-07-13 13:29:45.394 STDERR [INFO] I0713 13:29:45.393699 21167 net.cpp:399] inception_3a/output_inception_3a/output_0_split -> inception_3a/output_inception_3a/output_0_split_1
2016-07-13 13:29:45.394 STDERR [INFO] I0713 13:29:45.393709 21167 net.cpp:399] inception_3a/output_inception_3a/output_0_split -> inception_3a/output_inception_3a/output_0_split_2
2016-07-13 13:29:45.394 STDERR [INFO] I0713 13:29:45.393718 21167 net.cpp:399] inception_3a/output_inception_3a/output_0_split -> inception_3a/output_inception_3a/output_0_split_3
2016-07-13 13:29:45.394 STDERR [INFO] I0713 13:29:45.393815 21167 net.cpp:141] Setting up inception_3a/output_inception_3a/output_0_split
2016-07-13 13:29:45.394 STDERR [INFO] I0713 13:29:45.393826 21167 net.cpp:148] Top shape: 10 256 28 28 (2007040)
2016-07-13 13:29:45.395 STDERR [INFO] I0713 13:29:45.393831 21167 net.cpp:148] Top shape: 10 256 28 28 (2007040)
2016-07-13 13:29:45.395 STDERR [INFO] I0713 13:29:45.393837 21167 net.cpp:148] Top shape: 10 256 28 28 (2007040)
2016-07-13 13:29:45.395 STDERR [INFO] I0713 13:29:45.393843 21167 net.cpp:148] Top shape: 10 256 28 28 (2007040)
2016-07-13 13:29:45.395 STDERR [INFO] I0713 13:29:45.393848 21167 net.cpp:156] Memory required for data: 273960960
2016-07-13 13:29:45.395 STDERR [INFO] I0713 13:29:45.393853 21167 layer_factory.hpp:77] Creating layer inception_3b/1x1
2016-07-13 13:29:45.395 STDERR [INFO] I0713 13:29:45.393873 21167 net.cpp:91] Creating Layer inception_3b/1x1
2016-07-13 13:29:45.395 STDERR [INFO] I0713 13:29:45.393879 21167 net.cpp:425] inception_3b/1x1 <- inception_3a/output_inception_3a/output_0_split_0
2016-07-13 13:29:45.395 STDERR [INFO] I0713 13:29:45.393889 21167 net.cpp:399] inception_3b/1x1 -> inception_3b/1x1
2016-07-13 13:29:45.396 STDERR [INFO] I0713 13:29:45.396425 21167 net.cpp:141] Setting up inception_3b/1x1
2016-07-13 13:29:45.396 STDERR [INFO] I0713 13:29:45.396445 21167 net.cpp:148] Top shape: 10 128 28 28 (1003520)
2016-07-13 13:29:45.396 STDERR [INFO] I0713 13:29:45.396450 21167 net.cpp:156] Memory required for data: 277975040
2016-07-13 13:29:45.396 STDERR [INFO] I0713 13:29:45.396461 21167 layer_factory.hpp:77] Creating layer inception_3b/relu_1x1
2016-07-13 13:29:45.396 STDERR [INFO] I0713 13:29:45.396474 21167 net.cpp:91] Creating Layer inception_3b/relu_1x1
2016-07-13 13:29:45.396 STDERR [INFO] I0713 13:29:45.396481 21167 net.cpp:425] inception_3b/relu_1x1 <- inception_3b/1x1
2016-07-13 13:29:45.396 STDERR [INFO] I0713 13:29:45.396489 21167 net.cpp:386] inception_3b/relu_1x1 -> inception_3b/1x1 (in-place)
2016-07-13 13:29:45.397 STDERR [INFO] I0713 13:29:45.396754 21167 net.cpp:141] Setting up inception_3b/relu_1x1
2016-07-13 13:29:45.397 STDERR [INFO] I0713 13:29:45.396767 21167 net.cpp:148] Top shape: 10 128 28 28 (1003520)
2016-07-13 13:29:45.397 STDERR [INFO] I0713 13:29:45.396772 21167 net.cpp:156] Memory required for data: 281989120
2016-07-13 13:29:45.397 STDERR [INFO] I0713 13:29:45.396777 21167 layer_factory.hpp:77] Creating layer inception_3b/3x3_reduce
2016-07-13 13:29:45.397 STDERR [INFO] I0713 13:29:45.396800 21167 net.cpp:91] Creating Layer inception_3b/3x3_reduce
2016-07-13 13:29:45.397 STDERR [INFO] I0713 13:29:45.396806 21167 net.cpp:425] inception_3b/3x3_reduce <- inception_3a/output_inception_3a/output_0_split_1
2016-07-13 13:29:45.397 STDERR [INFO] I0713 13:29:45.396816 21167 net.cpp:399] inception_3b/3x3_reduce -> inception_3b/3x3_reduce
2016-07-13 13:29:45.399 STDERR [INFO] I0713 13:29:45.399422 21167 net.cpp:141] Setting up inception_3b/3x3_reduce
2016-07-13 13:29:45.399 STDERR [INFO] I0713 13:29:45.399442 21167 net.cpp:148] Top shape: 10 128 28 28 (1003520)
2016-07-13 13:29:45.399 STDERR [INFO] I0713 13:29:45.399447 21167 net.cpp:156] Memory required for data: 286003200
2016-07-13 13:29:45.399 STDERR [INFO] I0713 13:29:45.399458 21167 layer_factory.hpp:77] Creating layer inception_3b/relu_3x3_reduce
2016-07-13 13:29:45.399 STDERR [INFO] I0713 13:29:45.399468 21167 net.cpp:91] Creating Layer inception_3b/relu_3x3_reduce
2016-07-13 13:29:45.399 STDERR [INFO] I0713 13:29:45.399474 21167 net.cpp:425] inception_3b/relu_3x3_reduce <- inception_3b/3x3_reduce
2016-07-13 13:29:45.399 STDERR [INFO] I0713 13:29:45.399487 21167 net.cpp:386] inception_3b/relu_3x3_reduce -> inception_3b/3x3_reduce (in-place)
2016-07-13 13:29:45.400 STDERR [INFO] I0713 13:29:45.399749 21167 net.cpp:141] Setting up inception_3b/relu_3x3_reduce
2016-07-13 13:29:45.400 STDERR [INFO] I0713 13:29:45.399761 21167 net.cpp:148] Top shape: 10 128 28 28 (1003520)
2016-07-13 13:29:45.400 STDERR [INFO] I0713 13:29:45.399766 21167 net.cpp:156] Memory required for data: 290017280
2016-07-13 13:29:45.400 STDERR [INFO] I0713 13:29:45.399772 21167 layer_factory.hpp:77] Creating layer inception_3b/3x3
2016-07-13 13:29:45.400 STDERR [INFO] I0713 13:29:45.399793 21167 net.cpp:91] Creating Layer inception_3b/3x3
2016-07-13 13:29:45.400 STDERR [INFO] I0713 13:29:45.399801 21167 net.cpp:425] inception_3b/3x3 <- inception_3b/3x3_reduce
2016-07-13 13:29:45.400 STDERR [INFO] I0713 13:29:45.399811 21167 net.cpp:399] inception_3b/3x3 -> inception_3b/3x3
2016-07-13 13:29:45.400 n.t.s.f.RefreshingImageFetcher$ImageReader [INFO] [Timing] RequestID: 0 StreamID: home/peifeng/work/data/frame.320x240.jpg SequenceNr: 24 Entering queue: 1468430985400
2016-07-13 13:29:45.405 STDERR [INFO] I0713 13:29:45.405164 21167 net.cpp:141] Setting up inception_3b/3x3
2016-07-13 13:29:45.405 STDERR [INFO] I0713 13:29:45.405191 21167 net.cpp:148] Top shape: 10 192 28 28 (1505280)
2016-07-13 13:29:45.405 STDERR [INFO] I0713 13:29:45.405197 21167 net.cpp:156] Memory required for data: 296038400
2016-07-13 13:29:45.405 STDERR [INFO] I0713 13:29:45.405208 21167 layer_factory.hpp:77] Creating layer inception_3b/relu_3x3
2016-07-13 13:29:45.405 STDERR [INFO] I0713 13:29:45.405230 21167 net.cpp:91] Creating Layer inception_3b/relu_3x3
2016-07-13 13:29:45.405 STDERR [INFO] I0713 13:29:45.405238 21167 net.cpp:425] inception_3b/relu_3x3 <- inception_3b/3x3
2016-07-13 13:29:45.405 STDERR [INFO] I0713 13:29:45.405247 21167 net.cpp:386] inception_3b/relu_3x3 -> inception_3b/3x3 (in-place)
2016-07-13 13:29:45.406 STDERR [INFO] I0713 13:29:45.406069 21167 net.cpp:141] Setting up inception_3b/relu_3x3
2016-07-13 13:29:45.406 STDERR [INFO] I0713 13:29:45.406087 21167 net.cpp:148] Top shape: 10 192 28 28 (1505280)
2016-07-13 13:29:45.406 STDERR [INFO] I0713 13:29:45.406092 21167 net.cpp:156] Memory required for data: 302059520
2016-07-13 13:29:45.406 STDERR [INFO] I0713 13:29:45.406098 21167 layer_factory.hpp:77] Creating layer inception_3b/5x5_reduce
2016-07-13 13:29:45.406 STDERR [INFO] I0713 13:29:45.406121 21167 net.cpp:91] Creating Layer inception_3b/5x5_reduce
2016-07-13 13:29:45.406 STDERR [INFO] I0713 13:29:45.406128 21167 net.cpp:425] inception_3b/5x5_reduce <- inception_3a/output_inception_3a/output_0_split_2
2016-07-13 13:29:45.406 STDERR [INFO] I0713 13:29:45.406138 21167 net.cpp:399] inception_3b/5x5_reduce -> inception_3b/5x5_reduce
2016-07-13 13:29:45.406 n.t.s.s.CVParticleSpout [INFO] [Timing] RequestID: 0 StreamID: home/peifeng/work/data/frame.320x240.jpg SequenceNr: 24 Leaving fetcher: 1468430985406 Size: 8702
2016-07-13 13:29:45.407 n.t.s.b.CVParticleBolt [INFO] [Timing] RequestID: 0 StreamID: home/peifeng/work/data/frame.320x240.jpg SequenceNr: 24 Entering scale: 1468430985406
2016-07-13 13:29:45.408 STDERR [INFO] I0713 13:29:45.408502 21167 net.cpp:141] Setting up inception_3b/5x5_reduce
2016-07-13 13:29:45.408 STDERR [INFO] I0713 13:29:45.408524 21167 net.cpp:148] Top shape: 10 32 28 28 (250880)
2016-07-13 13:29:45.408 STDERR [INFO] I0713 13:29:45.408529 21167 net.cpp:156] Memory required for data: 303063040
2016-07-13 13:29:45.408 STDERR [INFO] I0713 13:29:45.408538 21167 layer_factory.hpp:77] Creating layer inception_3b/relu_5x5_reduce
2016-07-13 13:29:45.408 STDERR [INFO] I0713 13:29:45.408551 21167 net.cpp:91] Creating Layer inception_3b/relu_5x5_reduce
2016-07-13 13:29:45.408 STDERR [INFO] I0713 13:29:45.408558 21167 net.cpp:425] inception_3b/relu_5x5_reduce <- inception_3b/5x5_reduce
2016-07-13 13:29:45.409 STDERR [INFO] I0713 13:29:45.408567 21167 net.cpp:386] inception_3b/relu_5x5_reduce -> inception_3b/5x5_reduce (in-place)
2016-07-13 13:29:45.409 STDERR [INFO] I0713 13:29:45.408826 21167 net.cpp:141] Setting up inception_3b/relu_5x5_reduce
2016-07-13 13:29:45.409 STDERR [INFO] I0713 13:29:45.408839 21167 net.cpp:148] Top shape: 10 32 28 28 (250880)
2016-07-13 13:29:45.409 STDERR [INFO] I0713 13:29:45.408844 21167 net.cpp:156] Memory required for data: 304066560
2016-07-13 13:29:45.409 STDERR [INFO] I0713 13:29:45.408849 21167 layer_factory.hpp:77] Creating layer inception_3b/5x5
2016-07-13 13:29:45.409 STDERR [INFO] I0713 13:29:45.408871 21167 net.cpp:91] Creating Layer inception_3b/5x5
2016-07-13 13:29:45.409 STDERR [INFO] I0713 13:29:45.408879 21167 net.cpp:425] inception_3b/5x5 <- inception_3b/5x5_reduce
2016-07-13 13:29:45.409 STDERR [INFO] I0713 13:29:45.408888 21167 net.cpp:399] inception_3b/5x5 -> inception_3b/5x5
2016-07-13 13:29:45.413 STDERR [INFO] I0713 13:29:45.412966 21167 net.cpp:141] Setting up inception_3b/5x5
2016-07-13 13:29:45.413 STDERR [INFO] I0713 13:29:45.412986 21167 net.cpp:148] Top shape: 10 96 28 28 (752640)
2016-07-13 13:29:45.413 STDERR [INFO] I0713 13:29:45.412992 21167 net.cpp:156] Memory required for data: 307077120
2016-07-13 13:29:45.413 STDERR [INFO] I0713 13:29:45.413004 21167 layer_factory.hpp:77] Creating layer inception_3b/relu_5x5
2016-07-13 13:29:45.413 STDERR [INFO] I0713 13:29:45.413019 21167 net.cpp:91] Creating Layer inception_3b/relu_5x5
2016-07-13 13:29:45.413 STDERR [INFO] I0713 13:29:45.413027 21167 net.cpp:425] inception_3b/relu_5x5 <- inception_3b/5x5
2016-07-13 13:29:45.413 STDERR [INFO] I0713 13:29:45.413034 21167 net.cpp:386] inception_3b/relu_5x5 -> inception_3b/5x5 (in-place)
2016-07-13 13:29:45.413 STDERR [INFO] I0713 13:29:45.413290 21167 net.cpp:141] Setting up inception_3b/relu_5x5
2016-07-13 13:29:45.413 STDERR [INFO] I0713 13:29:45.413302 21167 net.cpp:148] Top shape: 10 96 28 28 (752640)
2016-07-13 13:29:45.413 STDERR [INFO] I0713 13:29:45.413307 21167 net.cpp:156] Memory required for data: 310087680
2016-07-13 13:29:45.413 STDERR [INFO] I0713 13:29:45.413313 21167 layer_factory.hpp:77] Creating layer inception_3b/pool
2016-07-13 13:29:45.413 STDERR [INFO] I0713 13:29:45.413323 21167 net.cpp:91] Creating Layer inception_3b/pool
2016-07-13 13:29:45.413 STDERR [INFO] I0713 13:29:45.413329 21167 net.cpp:425] inception_3b/pool <- inception_3a/output_inception_3a/output_0_split_3
2016-07-13 13:29:45.413 STDERR [INFO] I0713 13:29:45.413342 21167 net.cpp:399] inception_3b/pool -> inception_3b/pool
2016-07-13 13:29:45.413 STDERR [INFO] I0713 13:29:45.413409 21167 net.cpp:141] Setting up inception_3b/pool
2016-07-13 13:29:45.413 STDERR [INFO] I0713 13:29:45.413419 21167 net.cpp:148] Top shape: 10 256 28 28 (2007040)
2016-07-13 13:29:45.413 STDERR [INFO] I0713 13:29:45.413424 21167 net.cpp:156] Memory required for data: 318115840
2016-07-13 13:29:45.414 STDERR [INFO] I0713 13:29:45.413429 21167 layer_factory.hpp:77] Creating layer inception_3b/pool_proj
2016-07-13 13:29:45.414 STDERR [INFO] I0713 13:29:45.413452 21167 net.cpp:91] Creating Layer inception_3b/pool_proj
2016-07-13 13:29:45.414 STDERR [INFO] I0713 13:29:45.413466 21167 net.cpp:425] inception_3b/pool_proj <- inception_3b/pool
2016-07-13 13:29:45.414 STDERR [INFO] I0713 13:29:45.413476 21167 net.cpp:399] inception_3b/pool_proj -> inception_3b/pool_proj
2016-07-13 13:29:45.415 STDERR [INFO] I0713 13:29:45.415906 21167 net.cpp:141] Setting up inception_3b/pool_proj
2016-07-13 13:29:45.416 STDERR [INFO] I0713 13:29:45.415926 21167 net.cpp:148] Top shape: 10 64 28 28 (501760)
2016-07-13 13:29:45.416 STDERR [INFO] I0713 13:29:45.415932 21167 net.cpp:156] Memory required for data: 320122880
2016-07-13 13:29:45.416 STDERR [INFO] I0713 13:29:45.415942 21167 layer_factory.hpp:77] Creating layer inception_3b/relu_pool_proj
2016-07-13 13:29:45.416 STDERR [INFO] I0713 13:29:45.415956 21167 net.cpp:91] Creating Layer inception_3b/relu_pool_proj
2016-07-13 13:29:45.416 STDERR [INFO] I0713 13:29:45.415963 21167 net.cpp:425] inception_3b/relu_pool_proj <- inception_3b/pool_proj
2016-07-13 13:29:45.416 STDERR [INFO] I0713 13:29:45.415974 21167 net.cpp:386] inception_3b/relu_pool_proj -> inception_3b/pool_proj (in-place)
2016-07-13 13:29:45.416 n.t.s.b.CVParticleBolt [INFO] [Timing] RequestID: 0 StreamID: home/peifeng/work/data/frame.320x240.jpg SequenceNr: 24 Leaving scale: 1468430985416 Size: 3530
2016-07-13 13:29:45.416 STDERR [INFO] I0713 13:29:45.416774 21167 net.cpp:141] Setting up inception_3b/relu_pool_proj
2016-07-13 13:29:45.416 STDERR [INFO] I0713 13:29:45.416791 21167 net.cpp:148] Top shape: 10 64 28 28 (501760)
2016-07-13 13:29:45.417 STDERR [INFO] I0713 13:29:45.416797 21167 net.cpp:156] Memory required for data: 322129920
2016-07-13 13:29:45.417 STDERR [INFO] I0713 13:29:45.416803 21167 layer_factory.hpp:77] Creating layer inception_3b/output
2016-07-13 13:29:45.417 STDERR [INFO] I0713 13:29:45.416815 21167 net.cpp:91] Creating Layer inception_3b/output
2016-07-13 13:29:45.417 STDERR [INFO] I0713 13:29:45.416821 21167 net.cpp:425] inception_3b/output <- inception_3b/1x1
2016-07-13 13:29:45.417 STDERR [INFO] I0713 13:29:45.416827 21167 net.cpp:425] inception_3b/output <- inception_3b/3x3
2016-07-13 13:29:45.417 STDERR [INFO] I0713 13:29:45.416834 21167 net.cpp:425] inception_3b/output <- inception_3b/5x5
2016-07-13 13:29:45.417 STDERR [INFO] I0713 13:29:45.416841 21167 net.cpp:425] inception_3b/output <- inception_3b/pool_proj
2016-07-13 13:29:45.417 STDERR [INFO] I0713 13:29:45.416851 21167 net.cpp:399] inception_3b/output -> inception_3b/output
2016-07-13 13:29:45.417 STDERR [INFO] I0713 13:29:45.416894 21167 net.cpp:141] Setting up inception_3b/output
2016-07-13 13:29:45.417 STDERR [INFO] I0713 13:29:45.416904 21167 net.cpp:148] Top shape: 10 480 28 28 (3763200)
2016-07-13 13:29:45.417 STDERR [INFO] I0713 13:29:45.416909 21167 net.cpp:156] Memory required for data: 337182720
2016-07-13 13:29:45.417 STDERR [INFO] I0713 13:29:45.416915 21167 layer_factory.hpp:77] Creating layer pool3/3x3_s2
2016-07-13 13:29:45.417 STDERR [INFO] I0713 13:29:45.416929 21167 net.cpp:91] Creating Layer pool3/3x3_s2
2016-07-13 13:29:45.417 STDERR [INFO] I0713 13:29:45.416935 21167 net.cpp:425] pool3/3x3_s2 <- inception_3b/output
2016-07-13 13:29:45.417 STDERR [INFO] I0713 13:29:45.416944 21167 net.cpp:399] pool3/3x3_s2 -> pool3/3x3_s2
2016-07-13 13:29:45.417 STDERR [INFO] I0713 13:29:45.417018 21167 net.cpp:141] Setting up pool3/3x3_s2
2016-07-13 13:29:45.417 STDERR [INFO] I0713 13:29:45.417032 21167 net.cpp:148] Top shape: 10 480 14 14 (940800)
2016-07-13 13:29:45.417 STDERR [INFO] I0713 13:29:45.417037 21167 net.cpp:156] Memory required for data: 340945920
2016-07-13 13:29:45.418 STDERR [INFO] I0713 13:29:45.417042 21167 layer_factory.hpp:77] Creating layer pool3/3x3_s2_pool3/3x3_s2_0_split
2016-07-13 13:29:45.418 STDERR [INFO] I0713 13:29:45.417053 21167 net.cpp:91] Creating Layer pool3/3x3_s2_pool3/3x3_s2_0_split
2016-07-13 13:29:45.418 STDERR [INFO] I0713 13:29:45.417058 21167 net.cpp:425] pool3/3x3_s2_pool3/3x3_s2_0_split <- pool3/3x3_s2
2016-07-13 13:29:45.418 STDERR [INFO] I0713 13:29:45.417067 21167 net.cpp:399] pool3/3x3_s2_pool3/3x3_s2_0_split -> pool3/3x3_s2_pool3/3x3_s2_0_split_0
2016-07-13 13:29:45.418 STDERR [INFO] I0713 13:29:45.417075 21167 net.cpp:399] pool3/3x3_s2_pool3/3x3_s2_0_split -> pool3/3x3_s2_pool3/3x3_s2_0_split_1
2016-07-13 13:29:45.418 STDERR [INFO] I0713 13:29:45.417084 21167 net.cpp:399] pool3/3x3_s2_pool3/3x3_s2_0_split -> pool3/3x3_s2_pool3/3x3_s2_0_split_2
2016-07-13 13:29:45.418 STDERR [INFO] I0713 13:29:45.417096 21167 net.cpp:399] pool3/3x3_s2_pool3/3x3_s2_0_split -> pool3/3x3_s2_pool3/3x3_s2_0_split_3
2016-07-13 13:29:45.418 STDERR [INFO] I0713 13:29:45.417191 21167 net.cpp:141] Setting up pool3/3x3_s2_pool3/3x3_s2_0_split
2016-07-13 13:29:45.418 STDERR [INFO] I0713 13:29:45.417201 21167 net.cpp:148] Top shape: 10 480 14 14 (940800)
2016-07-13 13:29:45.418 STDERR [INFO] I0713 13:29:45.417208 21167 net.cpp:148] Top shape: 10 480 14 14 (940800)
2016-07-13 13:29:45.418 STDERR [INFO] I0713 13:29:45.417214 21167 net.cpp:148] Top shape: 10 480 14 14 (940800)
2016-07-13 13:29:45.418 STDERR [INFO] I0713 13:29:45.417220 21167 net.cpp:148] Top shape: 10 480 14 14 (940800)
2016-07-13 13:29:45.418 STDERR [INFO] I0713 13:29:45.417224 21167 net.cpp:156] Memory required for data: 355998720
2016-07-13 13:29:45.418 STDERR [INFO] I0713 13:29:45.417238 21167 layer_factory.hpp:77] Creating layer inception_4a/1x1
2016-07-13 13:29:45.418 STDERR [INFO] I0713 13:29:45.417256 21167 net.cpp:91] Creating Layer inception_4a/1x1
2016-07-13 13:29:45.418 STDERR [INFO] I0713 13:29:45.417263 21167 net.cpp:425] inception_4a/1x1 <- pool3/3x3_s2_pool3/3x3_s2_0_split_0
2016-07-13 13:29:45.418 STDERR [INFO] I0713 13:29:45.417274 21167 net.cpp:399] inception_4a/1x1 -> inception_4a/1x1
2016-07-13 13:29:45.423 STDERR [INFO] I0713 13:29:45.423384 21167 net.cpp:141] Setting up inception_4a/1x1
2016-07-13 13:29:45.423 STDERR [INFO] I0713 13:29:45.423439 21167 net.cpp:148] Top shape: 10 192 14 14 (376320)
2016-07-13 13:29:45.423 STDERR [INFO] I0713 13:29:45.423449 21167 net.cpp:156] Memory required for data: 357504000
2016-07-13 13:29:45.423 STDERR [INFO] I0713 13:29:45.423470 21167 layer_factory.hpp:77] Creating layer inception_4a/relu_1x1
2016-07-13 13:29:45.424 STDERR [INFO] I0713 13:29:45.423491 21167 net.cpp:91] Creating Layer inception_4a/relu_1x1
2016-07-13 13:29:45.424 STDERR [INFO] I0713 13:29:45.423502 21167 net.cpp:425] inception_4a/relu_1x1 <- inception_4a/1x1
2016-07-13 13:29:45.424 STDERR [INFO] I0713 13:29:45.423517 21167 net.cpp:386] inception_4a/relu_1x1 -> inception_4a/1x1 (in-place)
2016-07-13 13:29:45.425 STDERR [INFO] I0713 13:29:45.423892 21167 net.cpp:141] Setting up inception_4a/relu_1x1
2016-07-13 13:29:45.425 STDERR [INFO] I0713 13:29:45.423909 21167 net.cpp:148] Top shape: 10 192 14 14 (376320)
2016-07-13 13:29:45.425 STDERR [INFO] I0713 13:29:45.423916 21167 net.cpp:156] Memory required for data: 359009280
2016-07-13 13:29:45.425 STDERR [INFO] I0713 13:29:45.423924 21167 layer_factory.hpp:77] Creating layer inception_4a/3x3_reduce
2016-07-13 13:29:45.425 STDERR [INFO] I0713 13:29:45.423954 21167 net.cpp:91] Creating Layer inception_4a/3x3_reduce
2016-07-13 13:29:45.425 STDERR [INFO] I0713 13:29:45.423964 21167 net.cpp:425] inception_4a/3x3_reduce <- pool3/3x3_s2_pool3/3x3_s2_0_split_1
2016-07-13 13:29:45.425 STDERR [INFO] I0713 13:29:45.423985 21167 net.cpp:399] inception_4a/3x3_reduce -> inception_4a/3x3_reduce
2016-07-13 13:29:45.427 STDERR [INFO] I0713 13:29:45.427703 21167 net.cpp:141] Setting up inception_4a/3x3_reduce
2016-07-13 13:29:45.428 STDERR [INFO] I0713 13:29:45.427732 21167 net.cpp:148] Top shape: 10 96 14 14 (188160)
2016-07-13 13:29:45.428 STDERR [INFO] I0713 13:29:45.427741 21167 net.cpp:156] Memory required for data: 359761920
2016-07-13 13:29:45.428 STDERR [INFO] I0713 13:29:45.427774 21167 layer_factory.hpp:77] Creating layer inception_4a/relu_3x3_reduce
2016-07-13 13:29:45.428 STDERR [INFO] I0713 13:29:45.427788 21167 net.cpp:91] Creating Layer inception_4a/relu_3x3_reduce
2016-07-13 13:29:45.428 STDERR [INFO] I0713 13:29:45.427798 21167 net.cpp:425] inception_4a/relu_3x3_reduce <- inception_4a/3x3_reduce
2016-07-13 13:29:45.428 STDERR [INFO] I0713 13:29:45.427809 21167 net.cpp:386] inception_4a/relu_3x3_reduce -> inception_4a/3x3_reduce (in-place)
2016-07-13 13:29:45.428 STDERR [INFO] I0713 13:29:45.428171 21167 net.cpp:141] Setting up inception_4a/relu_3x3_reduce
2016-07-13 13:29:45.428 STDERR [INFO] I0713 13:29:45.428189 21167 net.cpp:148] Top shape: 10 96 14 14 (188160)
2016-07-13 13:29:45.428 STDERR [INFO] I0713 13:29:45.428196 21167 net.cpp:156] Memory required for data: 360514560
2016-07-13 13:29:45.428 STDERR [INFO] I0713 13:29:45.428205 21167 layer_factory.hpp:77] Creating layer inception_4a/3x3
2016-07-13 13:29:45.428 STDERR [INFO] I0713 13:29:45.428228 21167 net.cpp:91] Creating Layer inception_4a/3x3
2016-07-13 13:29:45.428 STDERR [INFO] I0713 13:29:45.428237 21167 net.cpp:425] inception_4a/3x3 <- inception_4a/3x3_reduce
2016-07-13 13:29:45.428 STDERR [INFO] I0713 13:29:45.428254 21167 net.cpp:399] inception_4a/3x3 -> inception_4a/3x3
2016-07-13 13:29:45.434 STDERR [INFO] I0713 13:29:45.434370 21167 net.cpp:141] Setting up inception_4a/3x3
2016-07-13 13:29:45.434 STDERR [INFO] I0713 13:29:45.434394 21167 net.cpp:148] Top shape: 10 208 14 14 (407680)
2016-07-13 13:29:45.434 STDERR [INFO] I0713 13:29:45.434401 21167 net.cpp:156] Memory required for data: 362145280
2016-07-13 13:29:45.434 STDERR [INFO] I0713 13:29:45.434413 21167 layer_factory.hpp:77] Creating layer inception_4a/relu_3x3
2016-07-13 13:29:45.434 STDERR [INFO] I0713 13:29:45.434424 21167 net.cpp:91] Creating Layer inception_4a/relu_3x3
2016-07-13 13:29:45.434 STDERR [INFO] I0713 13:29:45.434433 21167 net.cpp:425] inception_4a/relu_3x3 <- inception_4a/3x3
2016-07-13 13:29:45.434 STDERR [INFO] I0713 13:29:45.434448 21167 net.cpp:386] inception_4a/relu_3x3 -> inception_4a/3x3 (in-place)
2016-07-13 13:29:45.435 STDERR [INFO] I0713 13:29:45.435379 21167 net.cpp:141] Setting up inception_4a/relu_3x3
2016-07-13 13:29:45.435 STDERR [INFO] I0713 13:29:45.435400 21167 net.cpp:148] Top shape: 10 208 14 14 (407680)
2016-07-13 13:29:45.435 STDERR [INFO] I0713 13:29:45.435405 21167 net.cpp:156] Memory required for data: 363776000
2016-07-13 13:29:45.435 STDERR [INFO] I0713 13:29:45.435412 21167 layer_factory.hpp:77] Creating layer inception_4a/5x5_reduce
2016-07-13 13:29:45.435 STDERR [INFO] I0713 13:29:45.435434 21167 net.cpp:91] Creating Layer inception_4a/5x5_reduce
2016-07-13 13:29:45.435 STDERR [INFO] I0713 13:29:45.435443 21167 net.cpp:425] inception_4a/5x5_reduce <- pool3/3x3_s2_pool3/3x3_s2_0_split_2
2016-07-13 13:29:45.435 STDERR [INFO] I0713 13:29:45.435459 21167 net.cpp:399] inception_4a/5x5_reduce -> inception_4a/5x5_reduce
2016-07-13 13:29:45.438 STDERR [INFO] I0713 13:29:45.438186 21167 net.cpp:141] Setting up inception_4a/5x5_reduce
2016-07-13 13:29:45.438 STDERR [INFO] I0713 13:29:45.438208 21167 net.cpp:148] Top shape: 10 16 14 14 (31360)
2016-07-13 13:29:45.438 STDERR [INFO] I0713 13:29:45.438215 21167 net.cpp:156] Memory required for data: 363901440
2016-07-13 13:29:45.438 STDERR [INFO] I0713 13:29:45.438227 21167 layer_factory.hpp:77] Creating layer inception_4a/relu_5x5_reduce
2016-07-13 13:29:45.438 STDERR [INFO] I0713 13:29:45.438238 21167 net.cpp:91] Creating Layer inception_4a/relu_5x5_reduce
2016-07-13 13:29:45.438 STDERR [INFO] I0713 13:29:45.438246 21167 net.cpp:425] inception_4a/relu_5x5_reduce <- inception_4a/5x5_reduce
2016-07-13 13:29:45.438 STDERR [INFO] I0713 13:29:45.438263 21167 net.cpp:386] inception_4a/relu_5x5_reduce -> inception_4a/5x5_reduce (in-place)
2016-07-13 13:29:45.438 STDERR [INFO] I0713 13:29:45.438562 21167 net.cpp:141] Setting up inception_4a/relu_5x5_reduce
2016-07-13 13:29:45.438 STDERR [INFO] I0713 13:29:45.438577 21167 net.cpp:148] Top shape: 10 16 14 14 (31360)
2016-07-13 13:29:45.439 STDERR [INFO] I0713 13:29:45.438583 21167 net.cpp:156] Memory required for data: 364026880
2016-07-13 13:29:45.439 STDERR [INFO] I0713 13:29:45.438590 21167 layer_factory.hpp:77] Creating layer inception_4a/5x5
2016-07-13 13:29:45.439 STDERR [INFO] I0713 13:29:45.438613 21167 net.cpp:91] Creating Layer inception_4a/5x5
2016-07-13 13:29:45.439 STDERR [INFO] I0713 13:29:45.438621 21167 net.cpp:425] inception_4a/5x5 <- inception_4a/5x5_reduce
2016-07-13 13:29:45.439 STDERR [INFO] I0713 13:29:45.438632 21167 net.cpp:399] inception_4a/5x5 -> inception_4a/5x5
2016-07-13 13:29:45.441 STDERR [INFO] I0713 13:29:45.441424 21167 net.cpp:141] Setting up inception_4a/5x5
2016-07-13 13:29:45.441 STDERR [INFO] I0713 13:29:45.441447 21167 net.cpp:148] Top shape: 10 48 14 14 (94080)
2016-07-13 13:29:45.441 STDERR [INFO] I0713 13:29:45.441454 21167 net.cpp:156] Memory required for data: 364403200
2016-07-13 13:29:45.441 STDERR [INFO] I0713 13:29:45.441465 21167 layer_factory.hpp:77] Creating layer inception_4a/relu_5x5
2016-07-13 13:29:45.441 STDERR [INFO] I0713 13:29:45.441486 21167 net.cpp:91] Creating Layer inception_4a/relu_5x5
2016-07-13 13:29:45.441 STDERR [INFO] I0713 13:29:45.441494 21167 net.cpp:425] inception_4a/relu_5x5 <- inception_4a/5x5
2016-07-13 13:29:45.442 STDERR [INFO] I0713 13:29:45.441504 21167 net.cpp:386] inception_4a/relu_5x5 -> inception_4a/5x5 (in-place)
2016-07-13 13:29:45.442 STDERR [INFO] I0713 13:29:45.441808 21167 net.cpp:141] Setting up inception_4a/relu_5x5
2016-07-13 13:29:45.442 STDERR [INFO] I0713 13:29:45.441823 21167 net.cpp:148] Top shape: 10 48 14 14 (94080)
2016-07-13 13:29:45.442 STDERR [INFO] I0713 13:29:45.441829 21167 net.cpp:156] Memory required for data: 364779520
2016-07-13 13:29:45.442 STDERR [INFO] I0713 13:29:45.441835 21167 layer_factory.hpp:77] Creating layer inception_4a/pool
2016-07-13 13:29:45.442 STDERR [INFO] I0713 13:29:45.441848 21167 net.cpp:91] Creating Layer inception_4a/pool
2016-07-13 13:29:45.442 STDERR [INFO] I0713 13:29:45.441855 21167 net.cpp:425] inception_4a/pool <- pool3/3x3_s2_pool3/3x3_s2_0_split_3
2016-07-13 13:29:45.442 STDERR [INFO] I0713 13:29:45.441869 21167 net.cpp:399] inception_4a/pool -> inception_4a/pool
2016-07-13 13:29:45.442 STDERR [INFO] I0713 13:29:45.441949 21167 net.cpp:141] Setting up inception_4a/pool
2016-07-13 13:29:45.442 STDERR [INFO] I0713 13:29:45.441962 21167 net.cpp:148] Top shape: 10 480 14 14 (940800)
2016-07-13 13:29:45.442 STDERR [INFO] I0713 13:29:45.441967 21167 net.cpp:156] Memory required for data: 368542720
2016-07-13 13:29:45.442 STDERR [INFO] I0713 13:29:45.441973 21167 layer_factory.hpp:77] Creating layer inception_4a/pool_proj
2016-07-13 13:29:45.442 STDERR [INFO] I0713 13:29:45.441995 21167 net.cpp:91] Creating Layer inception_4a/pool_proj
2016-07-13 13:29:45.442 STDERR [INFO] I0713 13:29:45.442004 21167 net.cpp:425] inception_4a/pool_proj <- inception_4a/pool
2016-07-13 13:29:45.442 STDERR [INFO] I0713 13:29:45.442016 21167 net.cpp:399] inception_4a/pool_proj -> inception_4a/pool_proj
2016-07-13 13:29:45.444 STDERR [INFO] I0713 13:29:45.444847 21167 net.cpp:141] Setting up inception_4a/pool_proj
2016-07-13 13:29:45.445 STDERR [INFO] I0713 13:29:45.444869 21167 net.cpp:148] Top shape: 10 64 14 14 (125440)
2016-07-13 13:29:45.445 STDERR [INFO] I0713 13:29:45.444875 21167 net.cpp:156] Memory required for data: 369044480
2016-07-13 13:29:45.445 STDERR [INFO] I0713 13:29:45.444886 21167 layer_factory.hpp:77] Creating layer inception_4a/relu_pool_proj
2016-07-13 13:29:45.445 STDERR [INFO] I0713 13:29:45.444900 21167 net.cpp:91] Creating Layer inception_4a/relu_pool_proj
2016-07-13 13:29:45.445 STDERR [INFO] I0713 13:29:45.444908 21167 net.cpp:425] inception_4a/relu_pool_proj <- inception_4a/pool_proj
2016-07-13 13:29:45.445 STDERR [INFO] I0713 13:29:45.444917 21167 net.cpp:386] inception_4a/relu_pool_proj -> inception_4a/pool_proj (in-place)
2016-07-13 13:29:45.445 STDERR [INFO] I0713 13:29:45.445782 21167 net.cpp:141] Setting up inception_4a/relu_pool_proj
2016-07-13 13:29:45.445 STDERR [INFO] I0713 13:29:45.445806 21167 net.cpp:148] Top shape: 10 64 14 14 (125440)
2016-07-13 13:29:45.445 STDERR [INFO] I0713 13:29:45.445812 21167 net.cpp:156] Memory required for data: 369546240
2016-07-13 13:29:45.446 STDERR [INFO] I0713 13:29:45.445819 21167 layer_factory.hpp:77] Creating layer inception_4a/output
2016-07-13 13:29:45.446 STDERR [INFO] I0713 13:29:45.445830 21167 net.cpp:91] Creating Layer inception_4a/output
2016-07-13 13:29:45.446 STDERR [INFO] I0713 13:29:45.445837 21167 net.cpp:425] inception_4a/output <- inception_4a/1x1
2016-07-13 13:29:45.446 STDERR [INFO] I0713 13:29:45.445845 21167 net.cpp:425] inception_4a/output <- inception_4a/3x3
2016-07-13 13:29:45.446 STDERR [INFO] I0713 13:29:45.445852 21167 net.cpp:425] inception_4a/output <- inception_4a/5x5
2016-07-13 13:29:45.446 STDERR [INFO] I0713 13:29:45.445858 21167 net.cpp:425] inception_4a/output <- inception_4a/pool_proj
2016-07-13 13:29:45.446 STDERR [INFO] I0713 13:29:45.445866 21167 net.cpp:399] inception_4a/output -> inception_4a/output
2016-07-13 13:29:45.446 STDERR [INFO] I0713 13:29:45.445924 21167 net.cpp:141] Setting up inception_4a/output
2016-07-13 13:29:45.446 STDERR [INFO] I0713 13:29:45.445935 21167 net.cpp:148] Top shape: 10 512 14 14 (1003520)
2016-07-13 13:29:45.446 STDERR [INFO] I0713 13:29:45.445940 21167 net.cpp:156] Memory required for data: 373560320
2016-07-13 13:29:45.446 STDERR [INFO] I0713 13:29:45.445946 21167 layer_factory.hpp:77] Creating layer inception_4a/output_inception_4a/output_0_split
2016-07-13 13:29:45.446 STDERR [INFO] I0713 13:29:45.445960 21167 net.cpp:91] Creating Layer inception_4a/output_inception_4a/output_0_split
…
2016-07-13 13:29:45.447 STDERR [INFO] I0713 13:29:45.445986 21167 net.cpp:399] inception_4a/output_inception_4a/output_0_split -> inception_4a/output_inception_4a/output_0_split_1
2016-07-13 13:29:45.447 STDERR [INFO] I0713 13:29:45.445996 21167 net.cpp:399] inception_4a/output_inception_4a/output_0_split -> inception_4a/output_inception_4a/output_0_split_2
2016-07-13 13:29:45.447 STDERR [INFO] I0713 13:29:45.446005 21167 net.cpp:399] inception_4a/output_inception_4a/output_0_split -> inception_4a/output_inception_4a/output_0_split_3
2016-07-13 13:29:45.447 STDERR [INFO] I0713 13:29:45.446108 21167 net.cpp:141] Setting up inception_4a/output_inception_4a/output_0_split
2016-07-13 13:29:45.447 STDERR [INFO] I0713 13:29:45.446120 21167 net.cpp:148] Top shape: 10 512 14 14 (1003520)
2016-07-13 13:29:45.447 STDERR [INFO] I0713 13:29:45.446126 21167 net.cpp:148] Top shape: 10 512 14 14 (1003520)
2016-07-13 13:29:45.447 STDERR [INFO] I0713 13:29:45.446133 21167 net.cpp:148] Top shape: 10 512 14 14 (1003520)
2016-07-13 13:29:45.447 STDERR [INFO] I0713 13:29:45.446140 21167 net.cpp:148] Top shape: 10 512 14 14 (1003520)
2016-07-13 13:29:45.447 STDERR [INFO] I0713 13:29:45.446144 21167 net.cpp:156] Memory required for data: 389616640
2016-07-13 13:29:45.447 STDERR [INFO] I0713 13:29:45.446151 21167 layer_factory.hpp:77] Creating layer inception_4b/1x1
2016-07-13 13:29:45.447 STDERR [INFO] I0713 13:29:45.446167 21167 net.cpp:91] Creating Layer inception_4b/1x1
2016-07-13 13:29:45.447 STDERR [INFO] I0713 13:29:45.446174 21167 net.cpp:425] inception_4b/1x1 <- inception_4a/output_inception_4a/output_0_split_0
2016-07-13 13:29:45.447 STDERR [INFO] I0713 13:29:45.446188 21167 net.cpp:399] inception_4b/1x1 -> inception_4b/1x1
2016-07-13 13:29:45.449 STDERR [INFO] I0713 13:29:45.449249 21167 net.cpp:141] Setting up inception_4b/1x1
2016-07-13 13:29:45.449 STDERR [INFO] I0713 13:29:45.449268 21167 net.cpp:148] Top shape: 10 160 14 14 (313600)
2016-07-13 13:29:45.449 STDERR [INFO] I0713 13:29:45.449275 21167 net.cpp:156] Memory required for data: 390871040
2016-07-13 13:29:45.449 STDERR [INFO] I0713 13:29:45.449285 21167 layer_factory.hpp:77] Creating layer inception_4b/relu_1x1
2016-07-13 13:29:45.449 STDERR [INFO] I0713 13:29:45.449297 21167 net.cpp:91] Creating Layer inception_4b/relu_1x1
2016-07-13 13:29:45.449 STDERR [INFO] I0713 13:29:45.449304 21167 net.cpp:425] inception_4b/relu_1x1 <- inception_4b/1x1
2016-07-13 13:29:45.449 STDERR [INFO] I0713 13:29:45.449316 21167 net.cpp:386] inception_4b/relu_1x1 -> inception_4b/1x1 (in-place)
2016-07-13 13:29:45.449 STDERR [INFO] I0713 13:29:45.449576 21167 net.cpp:141] Setting up inception_4b/relu_1x1
2016-07-13 13:29:45.449 STDERR [INFO] I0713 13:29:45.449589 21167 net.cpp:148] Top shape: 10 160 14 14 (313600)
2016-07-13 13:29:45.450 STDERR [INFO] I0713 13:29:45.449594 21167 net.cpp:156] Memory required for data: 392125440
2016-07-13 13:29:45.450 STDERR [INFO] I0713 13:29:45.449599 21167 layer_factory.hpp:77] Creating layer inception_4b/3x3_reduce
2016-07-13 13:29:45.450 STDERR [INFO] I0713 13:29:45.449617 21167 net.cpp:91] Creating Layer inception_4b/3x3_reduce
2016-07-13 13:29:45.450 STDERR [INFO] I0713 13:29:45.449623 21167 net.cpp:425] inception_4b/3x3_reduce <- inception_4a/output_inception_4a/output_0_split_1
2016-07-13 13:29:45.450 STDERR [INFO] I0713 13:29:45.449636 21167 net.cpp:399] inception_4b/3x3_reduce -> inception_4b/3x3_reduce
2016-07-13 13:29:45.452 STDERR [INFO] I0713 13:29:45.452451 21167 net.cpp:141] Setting up inception_4b/3x3_reduce
2016-07-13 13:29:45.452 STDERR [INFO] I0713 13:29:45.452471 21167 net.cpp:148] Top shape: 10 112 14 14 (219520)
2016-07-13 13:29:45.452 STDERR [INFO] I0713 13:29:45.452476 21167 net.cpp:156] Memory required for data: 393003520
2016-07-13 13:29:45.452 STDERR [INFO] I0713 13:29:45.452486 21167 layer_factory.hpp:77] Creating layer inception_4b/relu_3x3_reduce
2016-07-13 13:29:45.452 STDERR [INFO] I0713 13:29:45.452504 21167 net.cpp:91] Creating Layer inception_4b/relu_3x3_reduce
2016-07-13 13:29:45.452 STDERR [INFO] I0713 13:29:45.452512 21167 net.cpp:425] inception_4b/relu_3x3_reduce <- inception_4b/3x3_reduce
2016-07-13 13:29:45.452 STDERR [INFO] I0713 13:29:45.452520 21167 net.cpp:386] inception_4b/relu_3x3_reduce -> inception_4b/3x3_reduce (in-place)
2016-07-13 13:29:45.453 STDERR [INFO] I0713 13:29:45.452783 21167 net.cpp:141] Setting up inception_4b/relu_3x3_reduce
2016-07-13 13:29:45.453 STDERR [INFO] I0713 13:29:45.452795 21167 net.cpp:148] Top shape: 10 112 14 14 (219520)
2016-07-13 13:29:45.453 STDERR [INFO] I0713 13:29:45.452800 21167 net.cpp:156] Memory required for data: 393881600
2016-07-13 13:29:45.453 STDERR [INFO] I0713 13:29:45.452806 21167 layer_factory.hpp:77] Creating layer inception_4b/3x3
2016-07-13 13:29:45.453 STDERR [INFO] I0713 13:29:45.452823 21167 net.cpp:91] Creating Layer inception_4b/3x3
2016-07-13 13:29:45.453 STDERR [INFO] I0713 13:29:45.452831 21167 net.cpp:425] inception_4b/3x3 <- inception_4b/3x3_reduce
2016-07-13 13:29:45.453 STDERR [INFO] I0713 13:29:45.452842 21167 net.cpp:399] inception_4b/3x3 -> inception_4b/3x3
2016-07-13 13:29:45.458 STDERR [INFO] I0713 13:29:45.458796 21167 net.cpp:141] Setting up inception_4b/3x3
2016-07-13 13:29:45.459 STDERR [INFO] I0713 13:29:45.458817 21167 net.cpp:148] Top shape: 10 224 14 14 (439040)
2016-07-13 13:29:45.459 STDERR [INFO] I0713 13:29:45.458822 21167 net.cpp:156] Memory required for data: 395637760
2016-07-13 13:29:45.459 STDERR [INFO] I0713 13:29:45.458832 21167 layer_factory.hpp:77] Creating layer inception_4b/relu_3x3
2016-07-13 13:29:45.459 STDERR [INFO] I0713 13:29:45.458845 21167 net.cpp:91] Creating Layer inception_4b/relu_3x3
2016-07-13 13:29:45.459 STDERR [INFO] I0713 13:29:45.458853 21167 net.cpp:425] inception_4b/relu_3x3 <- inception_4b/3x3
2016-07-13 13:29:45.459 STDERR [INFO] I0713 13:29:45.458860 21167 net.cpp:386] inception_4b/relu_3x3 -> inception_4b/3x3 (in-place)
2016-07-13 13:29:45.459 STDERR [INFO] I0713 13:29:45.459672 21167 net.cpp:141] Setting up inception_4b/relu_3x3
2016-07-13 13:29:45.459 STDERR [INFO] I0713 13:29:45.459691 21167 net.cpp:148] Top shape: 10 224 14 14 (439040)
2016-07-13 13:29:45.459 STDERR [INFO] I0713 13:29:45.459695 21167 net.cpp:156] Memory required for data: 397393920
2016-07-13 13:29:45.459 STDERR [INFO] I0713 13:29:45.459702 21167 layer_factory.hpp:77] Creating layer inception_4b/5x5_reduce
2016-07-13 13:29:45.459 STDERR [INFO] I0713 13:29:45.459730 21167 net.cpp:91] Creating Layer inception_4b/5x5_reduce
2016-07-13 13:29:45.459 STDERR [INFO] I0713 13:29:45.459738 21167 net.cpp:425] inception_4b/5x5_reduce <- inception_4a/output_inception_4a/output_0_split_2
2016-07-13 13:29:45.460 STDERR [INFO] I0713 13:29:45.459753 21167 net.cpp:399] inception_4b/5x5_reduce -> inception_4b/5x5_reduce
2016-07-13 13:29:45.462 STDERR [INFO] I0713 13:29:45.462177 21167 net.cpp:141] Setting up inception_4b/5x5_reduce
2016-07-13 13:29:45.462 STDERR [INFO] I0713 13:29:45.462198 21167 net.cpp:148] Top shape: 10 24 14 14 (47040)
2016-07-13 13:29:45.462 STDERR [INFO] I0713 13:29:45.462204 21167 net.cpp:156] Memory required for data: 397582080
2016-07-13 13:29:45.462 STDERR [INFO] I0713 13:29:45.462215 21167 layer_factory.hpp:77] Creating layer inception_4b/relu_5x5_reduce
2016-07-13 13:29:45.462 STDERR [INFO] I0713 13:29:45.462225 21167 net.cpp:91] Creating Layer inception_4b/relu_5x5_reduce
2016-07-13 13:29:45.462 STDERR [INFO] I0713 13:29:45.462231 21167 net.cpp:425] inception_4b/relu_5x5_reduce <- inception_4b/5x5_reduce
2016-07-13 13:29:45.462 STDERR [INFO] I0713 13:29:45.462239 21167 net.cpp:386] inception_4b/relu_5x5_reduce -> inception_4b/5x5_reduce (in-place)
2016-07-13 13:29:45.462 STDERR [INFO] I0713 13:29:45.462504 21167 net.cpp:141] Setting up inception_4b/relu_5x5_reduce
2016-07-13 13:29:45.462 STDERR [INFO] I0713 13:29:45.462517 21167 net.cpp:148] Top shape: 10 24 14 14 (47040)
2016-07-13 13:29:45.462 STDERR [INFO] I0713 13:29:45.462522 21167 net.cpp:156] Memory required for data: 397770240
2016-07-13 13:29:45.462 STDERR [INFO] I0713 13:29:45.462527 21167 layer_factory.hpp:77] Creating layer inception_4b/5x5
2016-07-13 13:29:45.462 STDERR [INFO] I0713 13:29:45.462543 21167 net.cpp:91] Creating Layer inception_4b/5x5
2016-07-13 13:29:45.463 STDERR [INFO] I0713 13:29:45.462550 21167 net.cpp:425] inception_4b/5x5 <- inception_4b/5x5_reduce
2016-07-13 13:29:45.463 STDERR [INFO] I0713 13:29:45.462563 21167 net.cpp:399] inception_4b/5x5 -> inception_4b/5x5
2016-07-13 13:29:45.466 STDERR [INFO] I0713 13:29:45.466367 21167 net.cpp:141] Setting up inception_4b/5x5
2016-07-13 13:29:45.466 STDERR [INFO] I0713 13:29:45.466389 21167 net.cpp:148] Top shape: 10 64 14 14 (125440)
2016-07-13 13:29:45.466 STDERR [INFO] I0713 13:29:45.466394 21167 net.cpp:156] Memory required for data: 398272000
2016-07-13 13:29:45.466 STDERR [INFO] I0713 13:29:45.466405 21167 layer_factory.hpp:77] Creating layer inception_4b/relu_5x5
2016-07-13 13:29:45.466 STDERR [INFO] I0713 13:29:45.466419 21167 net.cpp:91] Creating Layer inception_4b/relu_5x5
2016-07-13 13:29:45.466 STDERR [INFO] I0713 13:29:45.466428 21167 net.cpp:425] inception_4b/relu_5x5 <- inception_4b/5x5
2016-07-13 13:29:45.466 STDERR [INFO] I0713 13:29:45.466435 21167 net.cpp:386] inception_4b/relu_5x5 -> inception_4b/5x5 (in-place)
2016-07-13 13:29:45.467 STDERR [INFO] I0713 13:29:45.466724 21167 net.cpp:141] Setting up inception_4b/relu_5x5
2016-07-13 13:29:45.467 STDERR [INFO] I0713 13:29:45.466738 21167 net.cpp:148] Top shape: 10 64 14 14 (125440)
2016-07-13 13:29:45.467 STDERR [INFO] I0713 13:29:45.466743 21167 net.cpp:156] Memory required for data: 398773760
2016-07-13 13:29:45.467 STDERR [INFO] I0713 13:29:45.466749 21167 layer_factory.hpp:77] Creating layer inception_4b/pool
2016-07-13 13:29:45.467 STDERR [INFO] I0713 13:29:45.466759 21167 net.cpp:91] Creating Layer inception_4b/pool
2016-07-13 13:29:45.467 STDERR [INFO] I0713 13:29:45.466765 21167 net.cpp:425] inception_4b/pool <- inception_4a/output_inception_4a/output_0_split_3
2016-07-13 13:29:45.467 STDERR [INFO] I0713 13:29:45.466778 21167 net.cpp:399] inception_4b/pool -> inception_4b/pool
2016-07-13 13:29:45.467 STDERR [INFO] I0713 13:29:45.466850 21167 net.cpp:141] Setting up inception_4b/pool
2016-07-13 13:29:45.467 STDERR [INFO] I0713 13:29:45.466861 21167 net.cpp:148] Top shape: 10 512 14 14 (1003520)
2016-07-13 13:29:45.467 STDERR [INFO] I0713 13:29:45.466866 21167 net.cpp:156] Memory required for data: 402787840
2016-07-13 13:29:45.467 STDERR [INFO] I0713 13:29:45.466871 21167 layer_factory.hpp:77] Creating layer inception_4b/pool_proj
2016-07-13 13:29:45.467 STDERR [INFO] I0713 13:29:45.466891 21167 net.cpp:91] Creating Layer inception_4b/pool_proj
2016-07-13 13:29:45.467 STDERR [INFO] I0713 13:29:45.466897 21167 net.cpp:425] inception_4b/pool_proj <- inception_4b/pool
2016-07-13 13:29:45.467 STDERR [INFO] I0713 13:29:45.466907 21167 net.cpp:399] inception_4b/pool_proj -> inception_4b/pool_proj
2016-07-13 13:29:45.469 STDERR [INFO] I0713 13:29:45.469475 21167 net.cpp:141] Setting up inception_4b/pool_proj
2016-07-13 13:29:45.469 STDERR [INFO] I0713 13:29:45.469494 21167 net.cpp:148] Top shape: 10 64 14 14 (125440)
2016-07-13 13:29:45.469 STDERR [INFO] I0713 13:29:45.469499 21167 net.cpp:156] Memory required for data: 403289600
2016-07-13 13:29:45.469 STDERR [INFO] I0713 13:29:45.469511 21167 layer_factory.hpp:77] Creating layer inception_4b/relu_pool_proj
2016-07-13 13:29:45.469 STDERR [INFO] I0713 13:29:45.469522 21167 net.cpp:91] Creating Layer inception_4b/relu_pool_proj
2016-07-13 13:29:45.469 STDERR [INFO] I0713 13:29:45.469529 21167 net.cpp:425] inception_4b/relu_pool_proj <- inception_4b/pool_proj
2016-07-13 13:29:45.469 STDERR [INFO] I0713 13:29:45.469537 21167 net.cpp:386] inception_4b/relu_pool_proj -> inception_4b/pool_proj (in-place)
2016-07-13 13:29:45.470 STDERR [INFO] I0713 13:29:45.470335 21167 net.cpp:141] Setting up inception_4b/relu_pool_proj
2016-07-13 13:29:45.470 STDERR [INFO] I0713 13:29:45.470352 21167 net.cpp:148] Top shape: 10 64 14 14 (125440)
2016-07-13 13:29:45.470 STDERR [INFO] I0713 13:29:45.470358 21167 net.cpp:156] Memory required for data: 403791360
2016-07-13 13:29:45.470 STDERR [INFO] I0713 13:29:45.470365 21167 layer_factory.hpp:77] Creating layer inception_4b/output
2016-07-13 13:29:45.470 STDERR [INFO] I0713 13:29:45.470376 21167 net.cpp:91] Creating Layer inception_4b/output
2016-07-13 13:29:45.470 STDERR [INFO] I0713 13:29:45.470382 21167 net.cpp:425] inception_4b/output <- inception_4b/1x1
2016-07-13 13:29:45.470 STDERR [INFO] I0713 13:29:45.470389 21167 net.cpp:425] inception_4b/output <- inception_4b/3x3
2016-07-13 13:29:45.470 STDERR [INFO] I0713 13:29:45.470396 21167 net.cpp:425] inception_4b/output <- inception_4b/5x5
2016-07-13 13:29:45.470 STDERR [INFO] I0713 13:29:45.470402 21167 net.cpp:425] inception_4b/output <- inception_4b/pool_proj
2016-07-13 13:29:45.470 STDERR [INFO] I0713 13:29:45.470409 21167 net.cpp:399] inception_4b/output -> inception_4b/output
2016-07-13 13:29:45.471 STDERR [INFO] I0713 13:29:45.470460 21167 net.cpp:141] Setting up inception_4b/output
2016-07-13 13:29:45.471 STDERR [INFO] I0713 13:29:45.470471 21167 net.cpp:148] Top shape: 10 512 14 14 (1003520)
2016-07-13 13:29:45.471 STDERR [INFO] I0713 13:29:45.470476 21167 net.cpp:156] Memory required for data: 407805440
2016-07-13 13:29:45.471 STDERR [INFO] I0713 13:29:45.470481 21167 layer_factory.hpp:77] Creating layer inception_4b/output_inception_4b/output_0_split
2016-07-13 13:29:45.471 STDERR [INFO] I0713 13:29:45.470490 21167 net.cpp:91] Creating Layer inception_4b/output_inception_4b/output_0_split
…
2016-07-13 13:29:45.471 STDERR [INFO] I0713 13:29:45.470516 21167 net.cpp:399] inception_4b/output_inception_4b/output_0_split -> inception_4b/output_inception_4b/output_0_split_1
2016-07-13 13:29:45.472 STDERR [INFO] I0713 13:29:45.470525 21167 net.cpp:399] inception_4b/output_inception_4b/output_0_split -> inception_4b/output_inception_4b/output_0_split_2
2016-07-13 13:29:45.472 STDERR [INFO] I0713 13:29:45.470535 21167 net.cpp:399] inception_4b/output_inception_4b/output_0_split -> inception_4b/output_inception_4b/output_0_split_3
2016-07-13 13:29:45.472 STDERR [INFO] I0713 13:29:45.470630 21167 net.cpp:141] Setting up inception_4b/output_inception_4b/output_0_split
2016-07-13 13:29:45.472 STDERR [INFO] I0713 13:29:45.470643 21167 net.cpp:148] Top shape: 10 512 14 14 (1003520)
2016-07-13 13:29:45.472 STDERR [INFO] I0713 13:29:45.470649 21167 net.cpp:148] Top shape: 10 512 14 14 (1003520)
2016-07-13 13:29:45.472 STDERR [INFO] I0713 13:29:45.470654 21167 net.cpp:148] Top shape: 10 512 14 14 (1003520)
2016-07-13 13:29:45.472 STDERR [INFO] I0713 13:29:45.470660 21167 net.cpp:148] Top shape: 10 512 14 14 (1003520)
2016-07-13 13:29:45.472 STDERR [INFO] I0713 13:29:45.470664 21167 net.cpp:156] Memory required for data: 423861760
2016-07-13 13:29:45.472 STDERR [INFO] I0713 13:29:45.470670 21167 layer_factory.hpp:77] Creating layer inception_4c/1x1
2016-07-13 13:29:45.472 STDERR [INFO] I0713 13:29:45.470695 21167 net.cpp:91] Creating Layer inception_4c/1x1
2016-07-13 13:29:45.472 STDERR [INFO] I0713 13:29:45.470701 21167 net.cpp:425] inception_4c/1x1 <- inception_4b/output_inception_4b/output_0_split_0
2016-07-13 13:29:45.472 STDERR [INFO] I0713 13:29:45.470712 21167 net.cpp:399] inception_4c/1x1 -> inception_4c/1x1
2016-07-13 13:29:45.473 STDERR [INFO] I0713 13:29:45.473600 21167 net.cpp:141] Setting up inception_4c/1x1
2016-07-13 13:29:45.473 STDERR [INFO] I0713 13:29:45.473623 21167 net.cpp:148] Top shape: 10 128 14 14 (250880)
2016-07-13 13:29:45.473 STDERR [INFO] I0713 13:29:45.473629 21167 net.cpp:156] Memory required for data: 424865280
2016-07-13 13:29:45.474 STDERR [INFO] I0713 13:29:45.473639 21167 layer_factory.hpp:77] Creating layer inception_4c/relu_1x1
2016-07-13 13:29:45.474 STDERR [INFO] I0713 13:29:45.473649 21167 net.cpp:91] Creating Layer inception_4c/relu_1x1
2016-07-13 13:29:45.474 STDERR [INFO] I0713 13:29:45.473655 21167 net.cpp:425] inception_4c/relu_1x1 <- inception_4c/1x1
2016-07-13 13:29:45.474 STDERR [INFO] I0713 13:29:45.473664 21167 net.cpp:386] inception_4c/relu_1x1 -> inception_4c/1x1 (in-place)
2016-07-13 13:29:45.474 STDERR [INFO] I0713 13:29:45.473929 21167 net.cpp:141] Setting up inception_4c/relu_1x1
2016-07-13 13:29:45.474 STDERR [INFO] I0713 13:29:45.473942 21167 net.cpp:148] Top shape: 10 128 14 14 (250880)
2016-07-13 13:29:45.474 STDERR [INFO] I0713 13:29:45.473948 21167 net.cpp:156] Memory required for data: 425868800
2016-07-13 13:29:45.474 STDERR [INFO] I0713 13:29:45.473953 21167 layer_factory.hpp:77] Creating layer inception_4c/3x3_reduce
2016-07-13 13:29:45.474 STDERR [INFO] I0713 13:29:45.473968 21167 net.cpp:91] Creating Layer inception_4c/3x3_reduce
2016-07-13 13:29:45.474 STDERR [INFO] I0713 13:29:45.473975 21167 net.cpp:425] inception_4c/3x3_reduce <- inception_4b/output_inception_4b/output_0_split_1
2016-07-13 13:29:45.474 STDERR [INFO] I0713 13:29:45.473989 21167 net.cpp:399] inception_4c/3x3_reduce -> inception_4c/3x3_reduce
2016-07-13 13:29:45.476 STDERR [INFO] I0713 13:29:45.476893 21167 net.cpp:141] Setting up inception_4c/3x3_reduce
2016-07-13 13:29:45.477 STDERR [INFO] I0713 13:29:45.476917 21167 net.cpp:148] Top shape: 10 128 14 14 (250880)
2016-07-13 13:29:45.477 STDERR [INFO] I0713 13:29:45.476922 21167 net.cpp:156] Memory required for data: 426872320
2016-07-13 13:29:45.477 STDERR [INFO] I0713 13:29:45.476933 21167 layer_factory.hpp:77] Creating layer inception_4c/relu_3x3_reduce
2016-07-13 13:29:45.477 STDERR [INFO] I0713 13:29:45.476941 21167 net.cpp:91] Creating Layer inception_4c/relu_3x3_reduce
2016-07-13 13:29:45.477 STDERR [INFO] I0713 13:29:45.476948 21167 net.cpp:425] inception_4c/relu_3x3_reduce <- inception_4c/3x3_reduce
2016-07-13 13:29:45.477 STDERR [INFO] I0713 13:29:45.476955 21167 net.cpp:386] inception_4c/relu_3x3_reduce -> inception_4c/3x3_reduce (in-place)
2016-07-13 13:29:45.477 STDERR [INFO] I0713 13:29:45.477227 21167 net.cpp:141] Setting up inception_4c/relu_3x3_reduce
2016-07-13 13:29:45.477 STDERR [INFO] I0713 13:29:45.477239 21167 net.cpp:148] Top shape: 10 128 14 14 (250880)
2016-07-13 13:29:45.477 STDERR [INFO] I0713 13:29:45.477244 21167 net.cpp:156] Memory required for data: 427875840
2016-07-13 13:29:45.477 STDERR [INFO] I0713 13:29:45.477250 21167 layer_factory.hpp:77] Creating layer inception_4c/3x3
2016-07-13 13:29:45.477 STDERR [INFO] I0713 13:29:45.477267 21167 net.cpp:91] Creating Layer inception_4c/3x3
2016-07-13 13:29:45.477 STDERR [INFO] I0713 13:29:45.477273 21167 net.cpp:425] inception_4c/3x3 <- inception_4c/3x3_reduce
2016-07-13 13:29:45.477 STDERR [INFO] I0713 13:29:45.477288 21167 net.cpp:399] inception_4c/3x3 -> inception_4c/3x3
2016-07-13 13:29:45.483 STDERR [INFO] I0713 13:29:45.483289 21167 net.cpp:141] Setting up inception_4c/3x3
2016-07-13 13:29:45.483 STDERR [INFO] I0713 13:29:45.483309 21167 net.cpp:148] Top shape: 10 256 14 14 (501760)
2016-07-13 13:29:45.483 STDERR [INFO] I0713 13:29:45.483314 21167 net.cpp:156] Memory required for data: 429882880
2016-07-13 13:29:45.483 STDERR [INFO] I0713 13:29:45.483325 21167 layer_factory.hpp:77] Creating layer inception_4c/relu_3x3
2016-07-13 13:29:45.483 STDERR [INFO] I0713 13:29:45.483340 21167 net.cpp:91] Creating Layer inception_4c/relu_3x3
2016-07-13 13:29:45.483 STDERR [INFO] I0713 13:29:45.483346 21167 net.cpp:425] inception_4c/relu_3x3 <- inception_4c/3x3
2016-07-13 13:29:45.483 STDERR [INFO] I0713 13:29:45.483355 21167 net.cpp:386] inception_4c/relu_3x3 -> inception_4c/3x3 (in-place)
2016-07-13 13:29:45.484 STDERR [INFO] I0713 13:29:45.484158 21167 net.cpp:141] Setting up inception_4c/relu_3x3
2016-07-13 13:29:45.484 STDERR [INFO] I0713 13:29:45.484175 21167 net.cpp:148] Top shape: 10 256 14 14 (501760)
2016-07-13 13:29:45.484 STDERR [INFO] I0713 13:29:45.484180 21167 net.cpp:156] Memory required for data: 431889920
2016-07-13 13:29:45.484 STDERR [INFO] I0713 13:29:45.484186 21167 layer_factory.hpp:77] Creating layer inception_4c/5x5_reduce
2016-07-13 13:29:45.484 STDERR [INFO] I0713 13:29:45.484206 21167 net.cpp:91] Creating Layer inception_4c/5x5_reduce
2016-07-13 13:29:45.484 STDERR [INFO] I0713 13:29:45.484213 21167 net.cpp:425] inception_4c/5x5_reduce <- inception_4b/output_inception_4b/output_0_split_2
2016-07-13 13:29:45.484 STDERR [INFO] I0713 13:29:45.484223 21167 net.cpp:399] inception_4c/5x5_reduce -> inception_4c/5x5_reduce
2016-07-13 13:29:45.486 STDERR [INFO] I0713 13:29:45.486671 21167 net.cpp:141] Setting up inception_4c/5x5_reduce
2016-07-13 13:29:45.486 STDERR [INFO] I0713 13:29:45.486703 21167 net.cpp:148] Top shape: 10 24 14 14 (47040)
2016-07-13 13:29:45.487 STDERR [INFO] I0713 13:29:45.486711 21167 net.cpp:156] Memory required for data: 432078080
2016-07-13 13:29:45.487 STDERR [INFO] I0713 13:29:45.486721 21167 layer_factory.hpp:77] Creating layer inception_4c/relu_5x5_reduce
2016-07-13 13:29:45.487 STDERR [INFO] I0713 13:29:45.486732 21167 net.cpp:91] Creating Layer inception_4c/relu_5x5_reduce
2016-07-13 13:29:45.487 STDERR [INFO] I0713 13:29:45.486737 21167 net.cpp:425] inception_4c/relu_5x5_reduce <- inception_4c/5x5_reduce
2016-07-13 13:29:45.487 STDERR [INFO] I0713 13:29:45.486745 21167 net.cpp:386] inception_4c/relu_5x5_reduce -> inception_4c/5x5_reduce (in-place)
2016-07-13 13:29:45.487 STDERR [INFO] I0713 13:29:45.487017 21167 net.cpp:141] Setting up inception_4c/relu_5x5_reduce
2016-07-13 13:29:45.487 STDERR [INFO] I0713 13:29:45.487030 21167 net.cpp:148] Top shape: 10 24 14 14 (47040)
2016-07-13 13:29:45.487 STDERR [INFO] I0713 13:29:45.487035 21167 net.cpp:156] Memory required for data: 432266240
2016-07-13 13:29:45.487 STDERR [INFO] I0713 13:29:45.487041 21167 layer_factory.hpp:77] Creating layer inception_4c/5x5
2016-07-13 13:29:45.487 STDERR [INFO] I0713 13:29:45.487057 21167 net.cpp:91] Creating Layer inception_4c/5x5
2016-07-13 13:29:45.487 STDERR [INFO] I0713 13:29:45.487063 21167 net.cpp:425] inception_4c/5x5 <- inception_4c/5x5_reduce
2016-07-13 13:29:45.487 STDERR [INFO] I0713 13:29:45.487077 21167 net.cpp:399] inception_4c/5x5 -> inception_4c/5x5
2016-07-13 13:29:45.490 STDERR [INFO] I0713 13:29:45.490314 21167 net.cpp:141] Setting up inception_4c/5x5
2016-07-13 13:29:45.490 STDERR [INFO] I0713 13:29:45.490332 21167 net.cpp:148] Top shape: 10 64 14 14 (125440)
2016-07-13 13:29:45.490 STDERR [INFO] I0713 13:29:45.490339 21167 net.cpp:156] Memory required for data: 432768000
2016-07-13 13:29:45.490 STDERR [INFO] I0713 13:29:45.490348 21167 layer_factory.hpp:77] Creating layer inception_4c/relu_5x5
2016-07-13 13:29:45.490 STDERR [INFO] I0713 13:29:45.490360 21167 net.cpp:91] Creating Layer inception_4c/relu_5x5
2016-07-13 13:29:45.490 STDERR [INFO] I0713 13:29:45.490366 21167 net.cpp:425] inception_4c/relu_5x5 <- inception_4c/5x5
2016-07-13 13:29:45.490 STDERR [INFO] I0713 13:29:45.490378 21167 net.cpp:386] inception_4c/relu_5x5 -> inception_4c/5x5 (in-place)
2016-07-13 13:29:45.490 STDERR [INFO] I0713 13:29:45.490649 21167 net.cpp:141] Setting up inception_4c/relu_5x5
2016-07-13 13:29:45.491 STDERR [INFO] I0713 13:29:45.490664 21167 net.cpp:148] Top shape: 10 64 14 14 (125440)
2016-07-13 13:29:45.491 STDERR [INFO] I0713 13:29:45.490669 21167 net.cpp:156] Memory required for data: 433269760
2016-07-13 13:29:45.491 STDERR [INFO] I0713 13:29:45.490675 21167 layer_factory.hpp:77] Creating layer inception_4c/pool
2016-07-13 13:29:45.491 STDERR [INFO] I0713 13:29:45.490684 21167 net.cpp:91] Creating Layer inception_4c/pool
2016-07-13 13:29:45.491 STDERR [INFO] I0713 13:29:45.490702 21167 net.cpp:425] inception_4c/pool <- inception_4b/output_inception_4b/output_0_split_3
2016-07-13 13:29:45.491 STDERR [INFO] I0713 13:29:45.490711 21167 net.cpp:399] inception_4c/pool -> inception_4c/pool
2016-07-13 13:29:45.491 STDERR [INFO] I0713 13:29:45.490790 21167 net.cpp:141] Setting up inception_4c/pool
2016-07-13 13:29:45.491 STDERR [INFO] I0713 13:29:45.490802 21167 net.cpp:148] Top shape: 10 512 14 14 (1003520)
2016-07-13 13:29:45.491 STDERR [INFO] I0713 13:29:45.490806 21167 net.cpp:156] Memory required for data: 437283840
2016-07-13 13:29:45.491 STDERR [INFO] I0713 13:29:45.490811 21167 layer_factory.hpp:77] Creating layer inception_4c/pool_proj
2016-07-13 13:29:45.491 STDERR [INFO] I0713 13:29:45.490828 21167 net.cpp:91] Creating Layer inception_4c/pool_proj
2016-07-13 13:29:45.491 STDERR [INFO] I0713 13:29:45.490835 21167 net.cpp:425] inception_4c/pool_proj <- inception_4c/pool
2016-07-13 13:29:45.491 STDERR [INFO] I0713 13:29:45.490847 21167 net.cpp:399] inception_4c/pool_proj -> inception_4c/pool_proj
2016-07-13 13:29:45.494 STDERR [INFO] I0713 13:29:45.494593 21167 net.cpp:141] Setting up inception_4c/pool_proj
2016-07-13 13:29:45.494 STDERR [INFO] I0713 13:29:45.494613 21167 net.cpp:148] Top shape: 10 64 14 14 (125440)
2016-07-13 13:29:45.494 STDERR [INFO] I0713 13:29:45.494619 21167 net.cpp:156] Memory required for data: 437785600
2016-07-13 13:29:45.494 STDERR [INFO] I0713 13:29:45.494652 21167 layer_factory.hpp:77] Creating layer inception_4c/relu_pool_proj
2016-07-13 13:29:45.494 STDERR [INFO] I0713 13:29:45.494663 21167 net.cpp:91] Creating Layer inception_4c/relu_pool_proj
2016-07-13 13:29:45.495 STDERR [INFO] I0713 13:29:45.494671 21167 net.cpp:425] inception_4c/relu_pool_proj <- inception_4c/pool_proj
2016-07-13 13:29:45.495 STDERR [INFO] I0713 13:29:45.494680 21167 net.cpp:386] inception_4c/relu_pool_proj -> inception_4c/pool_proj (in-place)
2016-07-13 13:29:45.495 STDERR [INFO] I0713 13:29:45.495504 21167 net.cpp:141] Setting up inception_4c/relu_pool_proj
2016-07-13 13:29:45.495 STDERR [INFO] I0713 13:29:45.495522 21167 net.cpp:148] Top shape: 10 64 14 14 (125440)
2016-07-13 13:29:45.495 STDERR [INFO] I0713 13:29:45.495528 21167 net.cpp:156] Memory required for data: 438287360
2016-07-13 13:29:45.495 STDERR [INFO] I0713 13:29:45.495533 21167 layer_factory.hpp:77] Creating layer inception_4c/output
2016-07-13 13:29:45.495 STDERR [INFO] I0713 13:29:45.495544 21167 net.cpp:91] Creating Layer inception_4c/output
2016-07-13 13:29:45.495 STDERR [INFO] I0713 13:29:45.495551 21167 net.cpp:425] inception_4c/output <- inception_4c/1x1
2016-07-13 13:29:45.495 STDERR [INFO] I0713 13:29:45.495558 21167 net.cpp:425] inception_4c/output <- inception_4c/3x3
2016-07-13 13:29:45.495 STDERR [INFO] I0713 13:29:45.495565 21167 net.cpp:425] inception_4c/output <- inception_4c/5x5
2016-07-13 13:29:45.496 STDERR [INFO] I0713 13:29:45.495571 21167 net.cpp:425] inception_4c/output <- inception_4c/pool_proj
2016-07-13 13:29:45.496 STDERR [INFO] I0713 13:29:45.495586 21167 net.cpp:399] inception_4c/output -> inception_4c/output
2016-07-13 13:29:45.496 STDERR [INFO] I0713 13:29:45.495636 21167 net.cpp:141] Setting up inception_4c/output
2016-07-13 13:29:45.496 STDERR [INFO] I0713 13:29:45.495646 21167 net.cpp:148] Top shape: 10 512 14 14 (1003520)
2016-07-13 13:29:45.496 STDERR [INFO] I0713 13:29:45.495651 21167 net.cpp:156] Memory required for data: 442301440
2016-07-13 13:29:45.496 STDERR [INFO] I0713 13:29:45.495656 21167 layer_factory.hpp:77] Creating layer inception_4c/output_inception_4c/output_0_split
2016-07-13 13:29:45.496 STDERR [INFO] I0713 13:29:45.495671 21167 net.cpp:91] Creating Layer inception_4c/output_inception_4c/output_0_split
…
2016-07-13 13:29:45.496 STDERR [INFO] I0713 13:29:45.495697 21167 net.cpp:399] inception_4c/output_inception_4c/output_0_split -> inception_4c/output_inception_4c/output_0_split_1
2016-07-13 13:29:45.496 STDERR [INFO] I0713 13:29:45.495707 21167 net.cpp:399] inception_4c/output_inception_4c/output_0_split -> inception_4c/output_inception_4c/output_0_split_2
2016-07-13 13:29:45.496 STDERR [INFO] I0713 13:29:45.495714 21167 net.cpp:399] inception_4c/output_inception_4c/output_0_split -> inception_4c/output_inception_4c/output_0_split_3
2016-07-13 13:29:45.496 STDERR [INFO] I0713 13:29:45.495815 21167 net.cpp:141] Setting up inception_4c/output_inception_4c/output_0_split
2016-07-13 13:29:45.496 STDERR [INFO] I0713 13:29:45.495826 21167 net.cpp:148] Top shape: 10 512 14 14 (1003520)
2016-07-13 13:29:45.496 STDERR [INFO] I0713 13:29:45.495832 21167 net.cpp:148] Top shape: 10 512 14 14 (1003520)
2016-07-13 13:29:45.496 STDERR [INFO] I0713 13:29:45.495838 21167 net.cpp:148] Top shape: 10 512 14 14 (1003520)
2016-07-13 13:29:45.496 STDERR [INFO] I0713 13:29:45.495844 21167 net.cpp:148] Top shape: 10 512 14 14 (1003520)
2016-07-13 13:29:45.496 STDERR [INFO] I0713 13:29:45.495848 21167 net.cpp:156] Memory required for data: 458357760
2016-07-13 13:29:45.496 STDERR [INFO] I0713 13:29:45.495854 21167 layer_factory.hpp:77] Creating layer inception_4d/1x1
2016-07-13 13:29:45.497 STDERR [INFO] I0713 13:29:45.495870 21167 net.cpp:91] Creating Layer inception_4d/1x1
2016-07-13 13:29:45.497 STDERR [INFO] I0713 13:29:45.495877 21167 net.cpp:425] inception_4d/1x1 <- inception_4c/output_inception_4c/output_0_split_0
2016-07-13 13:29:45.497 STDERR [INFO] I0713 13:29:45.495890 21167 net.cpp:399] inception_4d/1x1 -> inception_4d/1x1
2016-07-13 13:29:45.498 STDERR [INFO] I0713 13:29:45.498730 21167 net.cpp:141] Setting up inception_4d/1x1
2016-07-13 13:29:45.499 STDERR [INFO] I0713 13:29:45.498749 21167 net.cpp:148] Top shape: 10 112 14 14 (219520)
2016-07-13 13:29:45.499 STDERR [INFO] I0713 13:29:45.498755 21167 net.cpp:156] Memory required for data: 459235840
2016-07-13 13:29:45.499 STDERR [INFO] I0713 13:29:45.498765 21167 layer_factory.hpp:77] Creating layer inception_4d/relu_1x1
2016-07-13 13:29:45.499 STDERR [INFO] I0713 13:29:45.498775 21167 net.cpp:91] Creating Layer inception_4d/relu_1x1
2016-07-13 13:29:45.499 STDERR [INFO] I0713 13:29:45.498782 21167 net.cpp:425] inception_4d/relu_1x1 <- inception_4d/1x1
2016-07-13 13:29:45.499 STDERR [INFO] I0713 13:29:45.498795 21167 net.cpp:386] inception_4d/relu_1x1 -> inception_4d/1x1 (in-place)
2016-07-13 13:29:45.499 STDERR [INFO] I0713 13:29:45.499061 21167 net.cpp:141] Setting up inception_4d/relu_1x1
2016-07-13 13:29:45.499 STDERR [INFO] I0713 13:29:45.499073 21167 net.cpp:148] Top shape: 10 112 14 14 (219520)
2016-07-13 13:29:45.499 STDERR [INFO] I0713 13:29:45.499081 21167 net.cpp:156] Memory required for data: 460113920
2016-07-13 13:29:45.499 STDERR [INFO] I0713 13:29:45.499088 21167 layer_factory.hpp:77] Creating layer inception_4d/3x3_reduce
2016-07-13 13:29:45.499 STDERR [INFO] I0713 13:29:45.499101 21167 net.cpp:91] Creating Layer inception_4d/3x3_reduce
2016-07-13 13:29:45.499 STDERR [INFO] I0713 13:29:45.499109 21167 net.cpp:425] inception_4d/3x3_reduce <- inception_4c/output_inception_4c/output_0_split_1
2016-07-13 13:29:45.499 STDERR [INFO] I0713 13:29:45.499121 21167 net.cpp:399] inception_4d/3x3_reduce -> inception_4d/3x3_reduce
2016-07-13 13:29:45.502 STDERR [INFO] I0713 13:29:45.502135 21167 net.cpp:141] Setting up inception_4d/3x3_reduce
2016-07-13 13:29:45.502 STDERR [INFO] I0713 13:29:45.502153 21167 net.cpp:148] Top shape: 10 144 14 14 (282240)
2016-07-13 13:29:45.502 STDERR [INFO] I0713 13:29:45.502158 21167 net.cpp:156] Memory required for data: 461242880
2016-07-13 13:29:45.502 STDERR [INFO] I0713 13:29:45.502168 21167 layer_factory.hpp:77] Creating layer inception_4d/relu_3x3_reduce
2016-07-13 13:29:45.502 STDERR [INFO] I0713 13:29:45.502178 21167 net.cpp:91] Creating Layer inception_4d/relu_3x3_reduce
2016-07-13 13:29:45.502 STDERR [INFO] I0713 13:29:45.502185 21167 net.cpp:425] inception_4d/relu_3x3_reduce <- inception_4d/3x3_reduce
2016-07-13 13:29:45.502 STDERR [INFO] I0713 13:29:45.502197 21167 net.cpp:386] inception_4d/relu_3x3_reduce -> inception_4d/3x3_reduce (in-place)
2016-07-13 13:29:45.502 STDERR [INFO] I0713 13:29:45.502465 21167 net.cpp:141] Setting up inception_4d/relu_3x3_reduce
2016-07-13 13:29:45.502 STDERR [INFO] I0713 13:29:45.502480 21167 net.cpp:148] Top shape: 10 144 14 14 (282240)
2016-07-13 13:29:45.502 STDERR [INFO] I0713 13:29:45.502485 21167 net.cpp:156] Memory required for data: 462371840
2016-07-13 13:29:45.502 STDERR [INFO] I0713 13:29:45.502493 21167 layer_factory.hpp:77] Creating layer inception_4d/3x3
2016-07-13 13:29:45.502 STDERR [INFO] I0713 13:29:45.502514 21167 net.cpp:91] Creating Layer inception_4d/3x3
2016-07-13 13:29:45.502 STDERR [INFO] I0713 13:29:45.502521 21167 net.cpp:425] inception_4d/3x3 <- inception_4d/3x3_reduce
2016-07-13 13:29:45.503 STDERR [INFO] I0713 13:29:45.502532 21167 net.cpp:399] inception_4d/3x3 -> inception_4d/3x3
2016-07-13 13:29:45.509 STDERR [INFO] I0713 13:29:45.509394 21167 net.cpp:141] Setting up inception_4d/3x3
2016-07-13 13:29:45.509 STDERR [INFO] I0713 13:29:45.509415 21167 net.cpp:148] Top shape: 10 288 14 14 (564480)
2016-07-13 13:29:45.509 STDERR [INFO] I0713 13:29:45.509421 21167 net.cpp:156] Memory required for data: 464629760
2016-07-13 13:29:45.509 STDERR [INFO] I0713 13:29:45.509433 21167 layer_factory.hpp:77] Creating layer inception_4d/relu_3x3
2016-07-13 13:29:45.509 STDERR [INFO] I0713 13:29:45.509443 21167 net.cpp:91] Creating Layer inception_4d/relu_3x3
2016-07-13 13:29:45.509 STDERR [INFO] I0713 13:29:45.509449 21167 net.cpp:425] inception_4d/relu_3x3 <- inception_4d/3x3
2016-07-13 13:29:45.509 STDERR [INFO] I0713 13:29:45.509464 21167 net.cpp:386] inception_4d/relu_3x3 -> inception_4d/3x3 (in-place)
2016-07-13 13:29:45.510 STDERR [INFO] I0713 13:29:45.510277 21167 net.cpp:141] Setting up inception_4d/relu_3x3
2016-07-13 13:29:45.510 STDERR [INFO] I0713 13:29:45.510294 21167 net.cpp:148] Top shape: 10 288 14 14 (564480)
2016-07-13 13:29:45.510 STDERR [INFO] I0713 13:29:45.510299 21167 net.cpp:156] Memory required for data: 466887680
2016-07-13 13:29:45.510 STDERR [INFO] I0713 13:29:45.510305 21167 layer_factory.hpp:77] Creating layer inception_4d/5x5_reduce
2016-07-13 13:29:45.510 STDERR [INFO] I0713 13:29:45.510324 21167 net.cpp:91] Creating Layer inception_4d/5x5_reduce
2016-07-13 13:29:45.510 STDERR [INFO] I0713 13:29:45.510330 21167 net.cpp:425] inception_4d/5x5_reduce <- inception_4c/output_inception_4c/output_0_split_2
2016-07-13 13:29:45.510 STDERR [INFO] I0713 13:29:45.510345 21167 net.cpp:399] inception_4d/5x5_reduce -> inception_4d/5x5_reduce
2016-07-13 13:29:45.512 STDERR [INFO] I0713 13:29:45.512890 21167 net.cpp:141] Setting up inception_4d/5x5_reduce
2016-07-13 13:29:45.513 STDERR [INFO] I0713 13:29:45.512909 21167 net.cpp:148] Top shape: 10 32 14 14 (62720)
2016-07-13 13:29:45.513 STDERR [INFO] I0713 13:29:45.512914 21167 net.cpp:156] Memory required for data: 467138560
2016-07-13 13:29:45.513 STDERR [INFO] I0713 13:29:45.512924 21167 layer_factory.hpp:77] Creating layer inception_4d/relu_5x5_reduce
2016-07-13 13:29:45.513 STDERR [INFO] I0713 13:29:45.512934 21167 net.cpp:91] Creating Layer inception_4d/relu_5x5_reduce
2016-07-13 13:29:45.513 STDERR [INFO] I0713 13:29:45.512941 21167 net.cpp:425] inception_4d/relu_5x5_reduce <- inception_4d/5x5_reduce
2016-07-13 13:29:45.513 STDERR [INFO] I0713 13:29:45.512953 21167 net.cpp:386] inception_4d/relu_5x5_reduce -> inception_4d/5x5_reduce (in-place)
2016-07-13 13:29:45.513 STDERR [INFO] I0713 13:29:45.513221 21167 net.cpp:141] Setting up inception_4d/relu_5x5_reduce
2016-07-13 13:29:45.513 STDERR [INFO] I0713 13:29:45.513234 21167 net.cpp:148] Top shape: 10 32 14 14 (62720)
2016-07-13 13:29:45.513 STDERR [INFO] I0713 13:29:45.513239 21167 net.cpp:156] Memory required for data: 467389440
2016-07-13 13:29:45.513 STDERR [INFO] I0713 13:29:45.513244 21167 layer_factory.hpp:77] Creating layer inception_4d/5x5
2016-07-13 13:29:45.513 STDERR [INFO] I0713 13:29:45.513262 21167 net.cpp:91] Creating Layer inception_4d/5x5
2016-07-13 13:29:45.513 STDERR [INFO] I0713 13:29:45.513268 21167 net.cpp:425] inception_4d/5x5 <- inception_4d/5x5_reduce
2016-07-13 13:29:45.513 STDERR [INFO] I0713 13:29:45.513281 21167 net.cpp:399] inception_4d/5x5 -> inception_4d/5x5
2016-07-13 13:29:45.516 STDERR [INFO] I0713 13:29:45.516057 21167 net.cpp:141] Setting up inception_4d/5x5
2016-07-13 13:29:45.516 STDERR [INFO] I0713 13:29:45.516075 21167 net.cpp:148] Top shape: 10 64 14 14 (125440)
2016-07-13 13:29:45.516 STDERR [INFO] I0713 13:29:45.516082 21167 net.cpp:156] Memory required for data: 467891200
2016-07-13 13:29:45.516 STDERR [INFO] I0713 13:29:45.516091 21167 layer_factory.hpp:77] Creating layer inception_4d/relu_5x5
2016-07-13 13:29:45.516 STDERR [INFO] I0713 13:29:45.516100 21167 net.cpp:91] Creating Layer inception_4d/relu_5x5
2016-07-13 13:29:45.516 STDERR [INFO] I0713 13:29:45.516106 21167 net.cpp:425] inception_4d/relu_5x5 <- inception_4d/5x5
2016-07-13 13:29:45.516 STDERR [INFO] I0713 13:29:45.516114 21167 net.cpp:386] inception_4d/relu_5x5 -> inception_4d/5x5 (in-place)
2016-07-13 13:29:45.516 STDERR [INFO] I0713 13:29:45.516396 21167 net.cpp:141] Setting up inception_4d/relu_5x5
2016-07-13 13:29:45.516 STDERR [INFO] I0713 13:29:45.516407 21167 net.cpp:148] Top shape: 10 64 14 14 (125440)
2016-07-13 13:29:45.516 STDERR [INFO] I0713 13:29:45.516412 21167 net.cpp:156] Memory required for data: 468392960
2016-07-13 13:29:45.516 STDERR [INFO] I0713 13:29:45.516418 21167 layer_factory.hpp:77] Creating layer inception_4d/pool
2016-07-13 13:29:45.516 STDERR [INFO] I0713 13:29:45.516432 21167 net.cpp:91] Creating Layer inception_4d/pool
2016-07-13 13:29:45.516 STDERR [INFO] I0713 13:29:45.516438 21167 net.cpp:425] inception_4d/pool <- inception_4c/output_inception_4c/output_0_split_3
2016-07-13 13:29:45.516 STDERR [INFO] I0713 13:29:45.516446 21167 net.cpp:399] inception_4d/pool -> inception_4d/pool
2016-07-13 13:29:45.516 STDERR [INFO] I0713 13:29:45.516526 21167 net.cpp:141] Setting up inception_4d/pool
2016-07-13 13:29:45.516 STDERR [INFO] I0713 13:29:45.516537 21167 net.cpp:148] Top shape: 10 512 14 14 (1003520)
2016-07-13 13:29:45.517 STDERR [INFO] I0713 13:29:45.516541 21167 net.cpp:156] Memory required for data: 472407040
2016-07-13 13:29:45.517 STDERR [INFO] I0713 13:29:45.516547 21167 layer_factory.hpp:77] Creating layer inception_4d/pool_proj
2016-07-13 13:29:45.517 STDERR [INFO] I0713 13:29:45.516564 21167 net.cpp:91] Creating Layer inception_4d/pool_proj
2016-07-13 13:29:45.517 STDERR [INFO] I0713 13:29:45.516571 21167 net.cpp:425] inception_4d/pool_proj <- inception_4d/pool
2016-07-13 13:29:45.517 STDERR [INFO] I0713 13:29:45.516582 21167 net.cpp:399] inception_4d/pool_proj -> inception_4d/pool_proj
2016-07-13 13:29:45.519 STDERR [INFO] I0713 13:29:45.519217 21167 net.cpp:141] Setting up inception_4d/pool_proj
2016-07-13 13:29:45.519 STDERR [INFO] I0713 13:29:45.519237 21167 net.cpp:148] Top shape: 10 64 14 14 (125440)
2016-07-13 13:29:45.519 STDERR [INFO] I0713 13:29:45.519243 21167 net.cpp:156] Memory required for data: 472908800
2016-07-13 13:29:45.519 STDERR [INFO] I0713 13:29:45.519253 21167 layer_factory.hpp:77] Creating layer inception_4d/relu_pool_proj
2016-07-13 13:29:45.519 STDERR [INFO] I0713 13:29:45.519263 21167 net.cpp:91] Creating Layer inception_4d/relu_pool_proj
2016-07-13 13:29:45.520 STDERR [INFO] I0713 13:29:45.519270 21167 net.cpp:425] inception_4d/relu_pool_proj <- inception_4d/pool_proj
2016-07-13 13:29:45.520 STDERR [INFO] I0713 13:29:45.519282 21167 net.cpp:386] inception_4d/relu_pool_proj -> inception_4d/pool_proj (in-place)
2016-07-13 13:29:45.520 STDERR [INFO] I0713 13:29:45.520088 21167 net.cpp:141] Setting up inception_4d/relu_pool_proj
2016-07-13 13:29:45.520 STDERR [INFO] I0713 13:29:45.520103 21167 net.cpp:148] Top shape: 10 64 14 14 (125440)
2016-07-13 13:29:45.520 STDERR [INFO] I0713 13:29:45.520108 21167 net.cpp:156] Memory required for data: 473410560
2016-07-13 13:29:45.520 STDERR [INFO] I0713 13:29:45.520114 21167 layer_factory.hpp:77] Creating layer inception_4d/output
2016-07-13 13:29:45.520 STDERR [INFO] I0713 13:29:45.520124 21167 net.cpp:91] Creating Layer inception_4d/output
2016-07-13 13:29:45.520 STDERR [INFO] I0713 13:29:45.520130 21167 net.cpp:425] inception_4d/output <- inception_4d/1x1
2016-07-13 13:29:45.520 STDERR [INFO] I0713 13:29:45.520139 21167 net.cpp:425] inception_4d/output <- inception_4d/3x3
2016-07-13 13:29:45.520 STDERR [INFO] I0713 13:29:45.520145 21167 net.cpp:425] inception_4d/output <- inception_4d/5x5
2016-07-13 13:29:45.520 STDERR [INFO] I0713 13:29:45.520151 21167 net.cpp:425] inception_4d/output <- inception_4d/pool_proj
2016-07-13 13:29:45.520 STDERR [INFO] I0713 13:29:45.520161 21167 net.cpp:399] inception_4d/output -> inception_4d/output
2016-07-13 13:29:45.520 STDERR [INFO] I0713 13:29:45.520215 21167 net.cpp:141] Setting up inception_4d/output
2016-07-13 13:29:45.520 STDERR [INFO] I0713 13:29:45.520226 21167 net.cpp:148] Top shape: 10 528 14 14 (1034880)
2016-07-13 13:29:45.521 STDERR [INFO] I0713 13:29:45.520231 21167 net.cpp:156] Memory required for data: 477550080
2016-07-13 13:29:45.521 STDERR [INFO] I0713 13:29:45.520236 21167 layer_factory.hpp:77] Creating layer inception_4d/output_inception_4d/output_0_split
2016-07-13 13:29:45.521 STDERR [INFO] I0713 13:29:45.520247 21167 net.cpp:91] Creating Layer inception_4d/output_inception_4d/output_0_split
…
2016-07-13 13:29:45.521 STDERR [INFO] I0713 13:29:45.520277 21167 net.cpp:399] inception_4d/output_inception_4d/output_0_split -> inception_4d/output_inception_4d/output_0_split_1
2016-07-13 13:29:45.521 STDERR [INFO] I0713 13:29:45.520287 21167 net.cpp:399] inception_4d/output_inception_4d/output_0_split -> inception_4d/output_inception_4d/output_0_split_2
2016-07-13 13:29:45.521 STDERR [INFO] I0713 13:29:45.520297 21167 net.cpp:399] inception_4d/output_inception_4d/output_0_split -> inception_4d/output_inception_4d/output_0_split_3
2016-07-13 13:29:45.521 STDERR [INFO] I0713 13:29:45.520409 21167 net.cpp:141] Setting up inception_4d/output_inception_4d/output_0_split
2016-07-13 13:29:45.521 STDERR [INFO] I0713 13:29:45.520419 21167 net.cpp:148] Top shape: 10 528 14 14 (1034880)
2016-07-13 13:29:45.521 STDERR [INFO] I0713 13:29:45.520426 21167 net.cpp:148] Top shape: 10 528 14 14 (1034880)
2016-07-13 13:29:45.521 STDERR [INFO] I0713 13:29:45.520432 21167 net.cpp:148] Top shape: 10 528 14 14 (1034880)
2016-07-13 13:29:45.521 STDERR [INFO] I0713 13:29:45.520438 21167 net.cpp:148] Top shape: 10 528 14 14 (1034880)
2016-07-13 13:29:45.521 STDERR [INFO] I0713 13:29:45.520442 21167 net.cpp:156] Memory required for data: 494108160
2016-07-13 13:29:45.521 STDERR [INFO] I0713 13:29:45.520448 21167 layer_factory.hpp:77] Creating layer inception_4e/1x1
2016-07-13 13:29:45.521 STDERR [INFO] I0713 13:29:45.520467 21167 net.cpp:91] Creating Layer inception_4e/1x1
2016-07-13 13:29:45.521 STDERR [INFO] I0713 13:29:45.520474 21167 net.cpp:425] inception_4e/1x1 <- inception_4d/output_inception_4d/output_0_split_0
2016-07-13 13:29:45.521 STDERR [INFO] I0713 13:29:45.520483 21167 net.cpp:399] inception_4e/1x1 -> inception_4e/1x1
2016-07-13 13:29:45.525 STDERR [INFO] I0713 13:29:45.525827 21167 net.cpp:141] Setting up inception_4e/1x1
2016-07-13 13:29:45.526 STDERR [INFO] I0713 13:29:45.525847 21167 net.cpp:148] Top shape: 10 256 14 14 (501760)
2016-07-13 13:29:45.526 STDERR [INFO] I0713 13:29:45.525853 21167 net.cpp:156] Memory required for data: 496115200
2016-07-13 13:29:45.526 STDERR [INFO] I0713 13:29:45.525864 21167 layer_factory.hpp:77] Creating layer inception_4e/relu_1x1
2016-07-13 13:29:45.526 STDERR [INFO] I0713 13:29:45.525877 21167 net.cpp:91] Creating Layer inception_4e/relu_1x1
2016-07-13 13:29:45.526 STDERR [INFO] I0713 13:29:45.525884 21167 net.cpp:425] inception_4e/relu_1x1 <- inception_4e/1x1
2016-07-13 13:29:45.526 STDERR [INFO] I0713 13:29:45.525893 21167 net.cpp:386] inception_4e/relu_1x1 -> inception_4e/1x1 (in-place)
2016-07-13 13:29:45.526 STDERR [INFO] I0713 13:29:45.526166 21167 net.cpp:141] Setting up inception_4e/relu_1x1
2016-07-13 13:29:45.526 STDERR [INFO] I0713 13:29:45.526180 21167 net.cpp:148] Top shape: 10 256 14 14 (501760)
2016-07-13 13:29:45.526 STDERR [INFO] I0713 13:29:45.526185 21167 net.cpp:156] Memory required for data: 498122240
2016-07-13 13:29:45.526 STDERR [INFO] I0713 13:29:45.526190 21167 layer_factory.hpp:77] Creating layer inception_4e/3x3_reduce
2016-07-13 13:29:45.526 STDERR [INFO] I0713 13:29:45.526207 21167 net.cpp:91] Creating Layer inception_4e/3x3_reduce
2016-07-13 13:29:45.526 STDERR [INFO] I0713 13:29:45.526214 21167 net.cpp:425] inception_4e/3x3_reduce <- inception_4d/output_inception_4d/output_0_split_1
2016-07-13 13:29:45.526 STDERR [INFO] I0713 13:29:45.526227 21167 net.cpp:399] inception_4e/3x3_reduce -> inception_4e/3x3_reduce
2016-07-13 13:29:45.529 STDERR [INFO] I0713 13:29:45.529336 21167 net.cpp:141] Setting up inception_4e/3x3_reduce
2016-07-13 13:29:45.529 STDERR [INFO] I0713 13:29:45.529356 21167 net.cpp:148] Top shape: 10 160 14 14 (313600)
2016-07-13 13:29:45.529 STDERR [INFO] I0713 13:29:45.529362 21167 net.cpp:156] Memory required for data: 499376640
2016-07-13 13:29:45.529 STDERR [INFO] I0713 13:29:45.529372 21167 layer_factory.hpp:77] Creating layer inception_4e/relu_3x3_reduce
2016-07-13 13:29:45.529 STDERR [INFO] I0713 13:29:45.529386 21167 net.cpp:91] Creating Layer inception_4e/relu_3x3_reduce
2016-07-13 13:29:45.529 STDERR [INFO] I0713 13:29:45.529392 21167 net.cpp:425] inception_4e/relu_3x3_reduce <- inception_4e/3x3_reduce
2016-07-13 13:29:45.529 STDERR [INFO] I0713 13:29:45.529402 21167 net.cpp:386] inception_4e/relu_3x3_reduce -> inception_4e/3x3_reduce (in-place)
2016-07-13 13:29:45.529 STDERR [INFO] I0713 13:29:45.529680 21167 net.cpp:141] Setting up inception_4e/relu_3x3_reduce
2016-07-13 13:29:45.530 STDERR [INFO] I0713 13:29:45.529692 21167 net.cpp:148] Top shape: 10 160 14 14 (313600)
2016-07-13 13:29:45.530 STDERR [INFO] I0713 13:29:45.529697 21167 net.cpp:156] Memory required for data: 500631040
2016-07-13 13:29:45.530 STDERR [INFO] I0713 13:29:45.529703 21167 layer_factory.hpp:77] Creating layer inception_4e/3x3
2016-07-13 13:29:45.530 STDERR [INFO] I0713 13:29:45.529721 21167 net.cpp:91] Creating Layer inception_4e/3x3
2016-07-13 13:29:45.530 STDERR [INFO] I0713 13:29:45.529727 21167 net.cpp:425] inception_4e/3x3 <- inception_4e/3x3_reduce
2016-07-13 13:29:45.530 STDERR [INFO] I0713 13:29:45.529741 21167 net.cpp:399] inception_4e/3x3 -> inception_4e/3x3
2016-07-13 13:29:45.537 STDERR [INFO] I0713 13:29:45.537649 21167 net.cpp:141] Setting up inception_4e/3x3
2016-07-13 13:29:45.537 STDERR [INFO] I0713 13:29:45.537678 21167 net.cpp:148] Top shape: 10 320 14 14 (627200)
2016-07-13 13:29:45.537 STDERR [INFO] I0713 13:29:45.537684 21167 net.cpp:156] Memory required for data: 503139840
2016-07-13 13:29:45.538 STDERR [INFO] I0713 13:29:45.537695 21167 layer_factory.hpp:77] Creating layer inception_4e/relu_3x3
2016-07-13 13:29:45.538 STDERR [INFO] I0713 13:29:45.537705 21167 net.cpp:91] Creating Layer inception_4e/relu_3x3
2016-07-13 13:29:45.538 STDERR [INFO] I0713 13:29:45.537713 21167 net.cpp:425] inception_4e/relu_3x3 <- inception_4e/3x3
2016-07-13 13:29:45.538 STDERR [INFO] I0713 13:29:45.537720 21167 net.cpp:386] inception_4e/relu_3x3 -> inception_4e/3x3 (in-place)
2016-07-13 13:29:45.538 STDERR [INFO] I0713 13:29:45.538554 21167 net.cpp:141] Setting up inception_4e/relu_3x3
2016-07-13 13:29:45.538 STDERR [INFO] I0713 13:29:45.538573 21167 net.cpp:148] Top shape: 10 320 14 14 (627200)
2016-07-13 13:29:45.538 STDERR [INFO] I0713 13:29:45.538578 21167 net.cpp:156] Memory required for data: 505648640
2016-07-13 13:29:45.538 STDERR [INFO] I0713 13:29:45.538584 21167 layer_factory.hpp:77] Creating layer inception_4e/5x5_reduce
2016-07-13 13:29:45.538 STDERR [INFO] I0713 13:29:45.538605 21167 net.cpp:91] Creating Layer inception_4e/5x5_reduce
2016-07-13 13:29:45.538 STDERR [INFO] I0713 13:29:45.538612 21167 net.cpp:425] inception_4e/5x5_reduce <- inception_4d/output_inception_4d/output_0_split_2
2016-07-13 13:29:45.538 STDERR [INFO] I0713 13:29:45.538625 21167 net.cpp:399] inception_4e/5x5_reduce -> inception_4e/5x5_reduce
2016-07-13 13:29:45.541 STDERR [INFO] I0713 13:29:45.541205 21167 net.cpp:141] Setting up inception_4e/5x5_reduce
2016-07-13 13:29:45.541 STDERR [INFO] I0713 13:29:45.541227 21167 net.cpp:148] Top shape: 10 32 14 14 (62720)
2016-07-13 13:29:45.541 STDERR [INFO] I0713 13:29:45.541234 21167 net.cpp:156] Memory required for data: 505899520
2016-07-13 13:29:45.541 STDERR [INFO] I0713 13:29:45.541246 21167 layer_factory.hpp:77] Creating layer inception_4e/relu_5x5_reduce
2016-07-13 13:29:45.541 STDERR [INFO] I0713 13:29:45.541256 21167 net.cpp:91] Creating Layer inception_4e/relu_5x5_reduce
2016-07-13 13:29:45.541 STDERR [INFO] I0713 13:29:45.541263 21167 net.cpp:425] inception_4e/relu_5x5_reduce <- inception_4e/5x5_reduce
2016-07-13 13:29:45.541 STDERR [INFO] I0713 13:29:45.541273 21167 net.cpp:386] inception_4e/relu_5x5_reduce -> inception_4e/5x5_reduce (in-place)
2016-07-13 13:29:45.541 STDERR [INFO] I0713 13:29:45.541553 21167 net.cpp:141] Setting up inception_4e/relu_5x5_reduce
2016-07-13 13:29:45.541 STDERR [INFO] I0713 13:29:45.541565 21167 net.cpp:148] Top shape: 10 32 14 14 (62720)
2016-07-13 13:29:45.541 STDERR [INFO] I0713 13:29:45.541570 21167 net.cpp:156] Memory required for data: 506150400
2016-07-13 13:29:45.541 STDERR [INFO] I0713 13:29:45.541576 21167 layer_factory.hpp:77] Creating layer inception_4e/5x5
2016-07-13 13:29:45.541 STDERR [INFO] I0713 13:29:45.541595 21167 net.cpp:91] Creating Layer inception_4e/5x5
2016-07-13 13:29:45.542 STDERR [INFO] I0713 13:29:45.541604 21167 net.cpp:425] inception_4e/5x5 <- inception_4e/5x5_reduce
2016-07-13 13:29:45.542 STDERR [INFO] I0713 13:29:45.541615 21167 net.cpp:399] inception_4e/5x5 -> inception_4e/5x5
2016-07-13 13:29:45.546 STDERR [INFO] I0713 13:29:45.546049 21167 net.cpp:141] Setting up inception_4e/5x5
2016-07-13 13:29:45.546 STDERR [INFO] I0713 13:29:45.546074 21167 net.cpp:148] Top shape: 10 128 14 14 (250880)
2016-07-13 13:29:45.546 STDERR [INFO] I0713 13:29:45.546080 21167 net.cpp:156] Memory required for data: 507153920
2016-07-13 13:29:45.546 STDERR [INFO] I0713 13:29:45.546092 21167 layer_factory.hpp:77] Creating layer inception_4e/relu_5x5
2016-07-13 13:29:45.546 STDERR [INFO] I0713 13:29:45.546102 21167 net.cpp:91] Creating Layer inception_4e/relu_5x5
2016-07-13 13:29:45.546 STDERR [INFO] I0713 13:29:45.546108 21167 net.cpp:425] inception_4e/relu_5x5 <- inception_4e/5x5
2016-07-13 13:29:45.546 STDERR [INFO] I0713 13:29:45.546118 21167 net.cpp:386] inception_4e/relu_5x5 -> inception_4e/5x5 (in-place)
2016-07-13 13:29:45.546 STDERR [INFO] I0713 13:29:45.546397 21167 net.cpp:141] Setting up inception_4e/relu_5x5
2016-07-13 13:29:45.546 STDERR [INFO] I0713 13:29:45.546411 21167 net.cpp:148] Top shape: 10 128 14 14 (250880)
2016-07-13 13:29:45.546 STDERR [INFO] I0713 13:29:45.546416 21167 net.cpp:156] Memory required for data: 508157440
2016-07-13 13:29:45.546 STDERR [INFO] I0713 13:29:45.546422 21167 layer_factory.hpp:77] Creating layer inception_4e/pool
2016-07-13 13:29:45.546 STDERR [INFO] I0713 13:29:45.546437 21167 net.cpp:91] Creating Layer inception_4e/pool
2016-07-13 13:29:45.546 STDERR [INFO] I0713 13:29:45.546443 21167 net.cpp:425] inception_4e/pool <- inception_4d/output_inception_4d/output_0_split_3
2016-07-13 13:29:45.546 STDERR [INFO] I0713 13:29:45.546452 21167 net.cpp:399] inception_4e/pool -> inception_4e/pool
2016-07-13 13:29:45.546 STDERR [INFO] I0713 13:29:45.546535 21167 net.cpp:141] Setting up inception_4e/pool
2016-07-13 13:29:45.547 STDERR [INFO] I0713 13:29:45.546546 21167 net.cpp:148] Top shape: 10 528 14 14 (1034880)
2016-07-13 13:29:45.547 STDERR [INFO] I0713 13:29:45.546551 21167 net.cpp:156] Memory required for data: 512296960
2016-07-13 13:29:45.547 STDERR [INFO] I0713 13:29:45.546556 21167 layer_factory.hpp:77] Creating layer inception_4e/pool_proj
2016-07-13 13:29:45.547 STDERR [INFO] I0713 13:29:45.546572 21167 net.cpp:91] Creating Layer inception_4e/pool_proj
2016-07-13 13:29:45.547 STDERR [INFO] I0713 13:29:45.546579 21167 net.cpp:425] inception_4e/pool_proj <- inception_4e/pool
2016-07-13 13:29:45.547 STDERR [INFO] I0713 13:29:45.546592 21167 net.cpp:399] inception_4e/pool_proj -> inception_4e/pool_proj
2016-07-13 13:29:45.549 STDERR [INFO] I0713 13:29:45.549547 21167 net.cpp:141] Setting up inception_4e/pool_proj
2016-07-13 13:29:45.549 STDERR [INFO] I0713 13:29:45.549569 21167 net.cpp:148] Top shape: 10 128 14 14 (250880)
2016-07-13 13:29:45.549 STDERR [INFO] I0713 13:29:45.549576 21167 net.cpp:156] Memory required for data: 513300480
2016-07-13 13:29:45.549 STDERR [INFO] I0713 13:29:45.549585 21167 layer_factory.hpp:77] Creating layer inception_4e/relu_pool_proj
2016-07-13 13:29:45.549 STDERR [INFO] I0713 13:29:45.549595 21167 net.cpp:91] Creating Layer inception_4e/relu_pool_proj
2016-07-13 13:29:45.550 STDERR [INFO] I0713 13:29:45.549602 21167 net.cpp:425] inception_4e/relu_pool_proj <- inception_4e/pool_proj
2016-07-13 13:29:45.550 STDERR [INFO] I0713 13:29:45.549610 21167 net.cpp:386] inception_4e/relu_pool_proj -> inception_4e/pool_proj (in-place)
2016-07-13 13:29:45.550 STDERR [INFO] I0713 13:29:45.550423 21167 net.cpp:141] Setting up inception_4e/relu_pool_proj
2016-07-13 13:29:45.550 STDERR [INFO] I0713 13:29:45.550441 21167 net.cpp:148] Top shape: 10 128 14 14 (250880)
2016-07-13 13:29:45.550 STDERR [INFO] I0713 13:29:45.550446 21167 net.cpp:156] Memory required for data: 514304000
2016-07-13 13:29:45.550 STDERR [INFO] I0713 13:29:45.550452 21167 layer_factory.hpp:77] Creating layer inception_4e/output
2016-07-13 13:29:45.550 STDERR [INFO] I0713 13:29:45.550462 21167 net.cpp:91] Creating Layer inception_4e/output
2016-07-13 13:29:45.550 STDERR [INFO] I0713 13:29:45.550468 21167 net.cpp:425] inception_4e/output <- inception_4e/1x1
2016-07-13 13:29:45.550 STDERR [INFO] I0713 13:29:45.550475 21167 net.cpp:425] inception_4e/output <- inception_4e/3x3
2016-07-13 13:29:45.550 STDERR [INFO] I0713 13:29:45.550482 21167 net.cpp:425] inception_4e/output <- inception_4e/5x5
2016-07-13 13:29:45.551 STDERR [INFO] I0713 13:29:45.550488 21167 net.cpp:425] inception_4e/output <- inception_4e/pool_proj
2016-07-13 13:29:45.551 STDERR [INFO] I0713 13:29:45.550495 21167 net.cpp:399] inception_4e/output -> inception_4e/output
2016-07-13 13:29:45.551 STDERR [INFO] I0713 13:29:45.550554 21167 net.cpp:141] Setting up inception_4e/output
2016-07-13 13:29:45.551 STDERR [INFO] I0713 13:29:45.550565 21167 net.cpp:148] Top shape: 10 832 14 14 (1630720)
2016-07-13 13:29:45.551 STDERR [INFO] I0713 13:29:45.550568 21167 net.cpp:156] Memory required for data: 520826880
2016-07-13 13:29:45.551 STDERR [INFO] I0713 13:29:45.550575 21167 layer_factory.hpp:77] Creating layer pool4/3x3_s2
2016-07-13 13:29:45.551 STDERR [INFO] I0713 13:29:45.550585 21167 net.cpp:91] Creating Layer pool4/3x3_s2
2016-07-13 13:29:45.551 STDERR [INFO] I0713 13:29:45.550591 21167 net.cpp:425] pool4/3x3_s2 <- inception_4e/output
2016-07-13 13:29:45.551 STDERR [INFO] I0713 13:29:45.550600 21167 net.cpp:399] pool4/3x3_s2 -> pool4/3x3_s2
2016-07-13 13:29:45.551 STDERR [INFO] I0713 13:29:45.550674 21167 net.cpp:141] Setting up pool4/3x3_s2
2016-07-13 13:29:45.551 STDERR [INFO] I0713 13:29:45.550695 21167 net.cpp:148] Top shape: 10 832 7 7 (407680)
2016-07-13 13:29:45.551 STDERR [INFO] I0713 13:29:45.550701 21167 net.cpp:156] Memory required for data: 522457600
2016-07-13 13:29:45.551 STDERR [INFO] I0713 13:29:45.550707 21167 layer_factory.hpp:77] Creating layer pool4/3x3_s2_pool4/3x3_s2_0_split
2016-07-13 13:29:45.551 STDERR [INFO] I0713 13:29:45.550716 21167 net.cpp:91] Creating Layer pool4/3x3_s2_pool4/3x3_s2_0_split
2016-07-13 13:29:45.551 STDERR [INFO] I0713 13:29:45.550721 21167 net.cpp:425] pool4/3x3_s2_pool4/3x3_s2_0_split <- pool4/3x3_s2
2016-07-13 13:29:45.551 STDERR [INFO] I0713 13:29:45.550734 21167 net.cpp:399] pool4/3x3_s2_pool4/3x3_s2_0_split -> pool4/3x3_s2_pool4/3x3_s2_0_split_0
2016-07-13 13:29:45.551 STDERR [INFO] I0713 13:29:45.550743 21167 net.cpp:399] pool4/3x3_s2_pool4/3x3_s2_0_split -> pool4/3x3_s2_pool4/3x3_s2_0_split_1
2016-07-13 13:29:45.552 STDERR [INFO] I0713 13:29:45.550753 21167 net.cpp:399] pool4/3x3_s2_pool4/3x3_s2_0_split -> pool4/3x3_s2_pool4/3x3_s2_0_split_2
2016-07-13 13:29:45.552 STDERR [INFO] I0713 13:29:45.550761 21167 net.cpp:399] pool4/3x3_s2_pool4/3x3_s2_0_split -> pool4/3x3_s2_pool4/3x3_s2_0_split_3
2016-07-13 13:29:45.552 STDERR [INFO] I0713 13:29:45.550873 21167 net.cpp:141] Setting up pool4/3x3_s2_pool4/3x3_s2_0_split
2016-07-13 13:29:45.552 STDERR [INFO] I0713 13:29:45.550884 21167 net.cpp:148] Top shape: 10 832 7 7 (407680)
2016-07-13 13:29:45.552 STDERR [INFO] I0713 13:29:45.550891 21167 net.cpp:148] Top shape: 10 832 7 7 (407680)
2016-07-13 13:29:45.552 STDERR [INFO] I0713 13:29:45.550897 21167 net.cpp:148] Top shape: 10 832 7 7 (407680)
2016-07-13 13:29:45.552 STDERR [INFO] I0713 13:29:45.550902 21167 net.cpp:148] Top shape: 10 832 7 7 (407680)
2016-07-13 13:29:45.552 STDERR [INFO] I0713 13:29:45.550907 21167 net.cpp:156] Memory required for data: 528980480
2016-07-13 13:29:45.552 STDERR [INFO] I0713 13:29:45.550912 21167 layer_factory.hpp:77] Creating layer inception_5a/1x1
2016-07-13 13:29:45.552 STDERR [INFO] I0713 13:29:45.550935 21167 net.cpp:91] Creating Layer inception_5a/1x1
2016-07-13 13:29:45.552 STDERR [INFO] I0713 13:29:45.550942 21167 net.cpp:425] inception_5a/1x1 <- pool4/3x3_s2_pool4/3x3_s2_0_split_0
2016-07-13 13:29:45.552 STDERR [INFO] I0713 13:29:45.550953 21167 net.cpp:399] inception_5a/1x1 -> inception_5a/1x1
2016-07-13 13:29:45.556 STDERR [INFO] I0713 13:29:45.556470 21167 net.cpp:141] Setting up inception_5a/1x1
2016-07-13 13:29:45.556 STDERR [INFO] I0713 13:29:45.556493 21167 net.cpp:148] Top shape: 10 256 7 7 (125440)
2016-07-13 13:29:45.556 STDERR [INFO] I0713 13:29:45.556499 21167 net.cpp:156] Memory required for data: 529482240
2016-07-13 13:29:45.556 STDERR [INFO] I0713 13:29:45.556509 21167 layer_factory.hpp:77] Creating layer inception_5a/relu_1x1
2016-07-13 13:29:45.556 STDERR [INFO] I0713 13:29:45.556524 21167 net.cpp:91] Creating Layer inception_5a/relu_1x1
2016-07-13 13:29:45.556 STDERR [INFO] I0713 13:29:45.556531 21167 net.cpp:425] inception_5a/relu_1x1 <- inception_5a/1x1
2016-07-13 13:29:45.557 STDERR [INFO] I0713 13:29:45.556540 21167 net.cpp:386] inception_5a/relu_1x1 -> inception_5a/1x1 (in-place)
2016-07-13 13:29:45.557 STDERR [INFO] I0713 13:29:45.556818 21167 net.cpp:141] Setting up inception_5a/relu_1x1
2016-07-13 13:29:45.557 STDERR [INFO] I0713 13:29:45.556830 21167 net.cpp:148] Top shape: 10 256 7 7 (125440)
2016-07-13 13:29:45.557 STDERR [INFO] I0713 13:29:45.556835 21167 net.cpp:156] Memory required for data: 529984000
2016-07-13 13:29:45.557 STDERR [INFO] I0713 13:29:45.556841 21167 layer_factory.hpp:77] Creating layer inception_5a/3x3_reduce
2016-07-13 13:29:45.557 STDERR [INFO] I0713 13:29:45.556859 21167 net.cpp:91] Creating Layer inception_5a/3x3_reduce
2016-07-13 13:29:45.557 STDERR [INFO] I0713 13:29:45.556866 21167 net.cpp:425] inception_5a/3x3_reduce <- pool4/3x3_s2_pool4/3x3_s2_0_split_1
2016-07-13 13:29:45.557 STDERR [INFO] I0713 13:29:45.556876 21167 net.cpp:399] inception_5a/3x3_reduce -> inception_5a/3x3_reduce
2016-07-13 13:29:45.561 STDERR [INFO] I0713 13:29:45.561630 21167 net.cpp:141] Setting up inception_5a/3x3_reduce
2016-07-13 13:29:45.561 STDERR [INFO] I0713 13:29:45.561650 21167 net.cpp:148] Top shape: 10 160 7 7 (78400)
2016-07-13 13:29:45.561 STDERR [INFO] I0713 13:29:45.561655 21167 net.cpp:156] Memory required for data: 530297600
2016-07-13 13:29:45.561 STDERR [INFO] I0713 13:29:45.561666 21167 layer_factory.hpp:77] Creating layer inception_5a/relu_3x3_reduce
2016-07-13 13:29:45.561 STDERR [INFO] I0713 13:29:45.561678 21167 net.cpp:91] Creating Layer inception_5a/relu_3x3_reduce
2016-07-13 13:29:45.562 STDERR [INFO] I0713 13:29:45.561686 21167 net.cpp:425] inception_5a/relu_3x3_reduce <- inception_5a/3x3_reduce
2016-07-13 13:29:45.562 STDERR [INFO] I0713 13:29:45.561693 21167 net.cpp:386] inception_5a/relu_3x3_reduce -> inception_5a/3x3_reduce (in-place)
2016-07-13 13:29:45.562 STDERR [INFO] I0713 13:29:45.561980 21167 net.cpp:141] Setting up inception_5a/relu_3x3_reduce
2016-07-13 13:29:45.562 STDERR [INFO] I0713 13:29:45.561992 21167 net.cpp:148] Top shape: 10 160 7 7 (78400)
2016-07-13 13:29:45.562 STDERR [INFO] I0713 13:29:45.561997 21167 net.cpp:156] Memory required for data: 530611200
2016-07-13 13:29:45.562 STDERR [INFO] I0713 13:29:45.562003 21167 layer_factory.hpp:77] Creating layer inception_5a/3x3
2016-07-13 13:29:45.562 STDERR [INFO] I0713 13:29:45.562024 21167 net.cpp:91] Creating Layer inception_5a/3x3
2016-07-13 13:29:45.562 STDERR [INFO] I0713 13:29:45.562031 21167 net.cpp:425] inception_5a/3x3 <- inception_5a/3x3_reduce
2016-07-13 13:29:45.562 STDERR [INFO] I0713 13:29:45.562041 21167 net.cpp:399] inception_5a/3x3 -> inception_5a/3x3
2016-07-13 13:29:45.571 STDERR [INFO] I0713 13:29:45.571261 21167 net.cpp:141] Setting up inception_5a/3x3
2016-07-13 13:29:45.571 STDERR [INFO] I0713 13:29:45.571282 21167 net.cpp:148] Top shape: 10 320 7 7 (156800)
2016-07-13 13:29:45.571 STDERR [INFO] I0713 13:29:45.571288 21167 net.cpp:156] Memory required for data: 531238400
2016-07-13 13:29:45.571 STDERR [INFO] I0713 13:29:45.571300 21167 layer_factory.hpp:77] Creating layer inception_5a/relu_3x3
2016-07-13 13:29:45.571 STDERR [INFO] I0713 13:29:45.571310 21167 net.cpp:91] Creating Layer inception_5a/relu_3x3
2016-07-13 13:29:45.571 STDERR [INFO] I0713 13:29:45.571316 21167 net.cpp:425] inception_5a/relu_3x3 <- inception_5a/3x3
2016-07-13 13:29:45.571 STDERR [INFO] I0713 13:29:45.571328 21167 net.cpp:386] inception_5a/relu_3x3 -> inception_5a/3x3 (in-place)
2016-07-13 13:29:45.572 STDERR [INFO] I0713 13:29:45.572170 21167 net.cpp:141] Setting up inception_5a/relu_3x3
2016-07-13 13:29:45.572 STDERR [INFO] I0713 13:29:45.572196 21167 net.cpp:148] Top shape: 10 320 7 7 (156800)
2016-07-13 13:29:45.572 STDERR [INFO] I0713 13:29:45.572201 21167 net.cpp:156] Memory required for data: 531865600
2016-07-13 13:29:45.572 STDERR [INFO] I0713 13:29:45.572207 21167 layer_factory.hpp:77] Creating layer inception_5a/5x5_reduce
2016-07-13 13:29:45.572 STDERR [INFO] I0713 13:29:45.572226 21167 net.cpp:91] Creating Layer inception_5a/5x5_reduce
2016-07-13 13:29:45.572 STDERR [INFO] I0713 13:29:45.572233 21167 net.cpp:425] inception_5a/5x5_reduce <- pool4/3x3_s2_pool4/3x3_s2_0_split_2
2016-07-13 13:29:45.572 STDERR [INFO] I0713 13:29:45.572247 21167 net.cpp:399] inception_5a/5x5_reduce -> inception_5a/5x5_reduce
2016-07-13 13:29:45.575 STDERR [INFO] I0713 13:29:45.574991 21167 net.cpp:141] Setting up inception_5a/5x5_reduce
2016-07-13 13:29:45.575 STDERR [INFO] I0713 13:29:45.575013 21167 net.cpp:148] Top shape: 10 32 7 7 (15680)
2016-07-13 13:29:45.575 STDERR [INFO] I0713 13:29:45.575019 21167 net.cpp:156] Memory required for data: 531928320
2016-07-13 13:29:45.575 STDERR [INFO] I0713 13:29:45.575031 21167 layer_factory.hpp:77] Creating layer inception_5a/relu_5x5_reduce
2016-07-13 13:29:45.575 STDERR [INFO] I0713 13:29:45.575043 21167 net.cpp:91] Creating Layer inception_5a/relu_5x5_reduce
2016-07-13 13:29:45.575 STDERR [INFO] I0713 13:29:45.575050 21167 net.cpp:425] inception_5a/relu_5x5_reduce <- inception_5a/5x5_reduce
2016-07-13 13:29:45.575 STDERR [INFO] I0713 13:29:45.575059 21167 net.cpp:386] inception_5a/relu_5x5_reduce -> inception_5a/5x5_reduce (in-place)
2016-07-13 13:29:45.575 STDERR [INFO] I0713 13:29:45.575340 21167 net.cpp:141] Setting up inception_5a/relu_5x5_reduce
2016-07-13 13:29:45.575 STDERR [INFO] I0713 13:29:45.575353 21167 net.cpp:148] Top shape: 10 32 7 7 (15680)
2016-07-13 13:29:45.575 STDERR [INFO] I0713 13:29:45.575358 21167 net.cpp:156] Memory required for data: 531991040
2016-07-13 13:29:45.575 STDERR [INFO] I0713 13:29:45.575363 21167 layer_factory.hpp:77] Creating layer inception_5a/5x5
2016-07-13 13:29:45.575 STDERR [INFO] I0713 13:29:45.575381 21167 net.cpp:91] Creating Layer inception_5a/5x5
2016-07-13 13:29:45.575 STDERR [INFO] I0713 13:29:45.575389 21167 net.cpp:425] inception_5a/5x5 <- inception_5a/5x5_reduce
2016-07-13 13:29:45.575 STDERR [INFO] I0713 13:29:45.575402 21167 net.cpp:399] inception_5a/5x5 -> inception_5a/5x5
2016-07-13 13:29:45.578 STDERR [INFO] I0713 13:29:45.578660 21167 net.cpp:141] Setting up inception_5a/5x5
2016-07-13 13:29:45.578 STDERR [INFO] I0713 13:29:45.578680 21167 net.cpp:148] Top shape: 10 128 7 7 (62720)
2016-07-13 13:29:45.579 STDERR [INFO] I0713 13:29:45.578694 21167 net.cpp:156] Memory required for data: 532241920
2016-07-13 13:29:45.579 STDERR [INFO] I0713 13:29:45.578706 21167 layer_factory.hpp:77] Creating layer inception_5a/relu_5x5
2016-07-13 13:29:45.579 STDERR [INFO] I0713 13:29:45.578744 21167 net.cpp:91] Creating Layer inception_5a/relu_5x5
2016-07-13 13:29:45.579 STDERR [INFO] I0713 13:29:45.578752 21167 net.cpp:425] inception_5a/relu_5x5 <- inception_5a/5x5
2016-07-13 13:29:45.579 STDERR [INFO] I0713 13:29:45.578760 21167 net.cpp:386] inception_5a/relu_5x5 -> inception_5a/5x5 (in-place)
2016-07-13 13:29:45.579 STDERR [INFO] I0713 13:29:45.579044 21167 net.cpp:141] Setting up inception_5a/relu_5x5
2016-07-13 13:29:45.579 STDERR [INFO] I0713 13:29:45.579057 21167 net.cpp:148] Top shape: 10 128 7 7 (62720)
2016-07-13 13:29:45.579 STDERR [INFO] I0713 13:29:45.579062 21167 net.cpp:156] Memory required for data: 532492800
2016-07-13 13:29:45.579 STDERR [INFO] I0713 13:29:45.579068 21167 layer_factory.hpp:77] Creating layer inception_5a/pool
2016-07-13 13:29:45.579 STDERR [INFO] I0713 13:29:45.579078 21167 net.cpp:91] Creating Layer inception_5a/pool
2016-07-13 13:29:45.579 STDERR [INFO] I0713 13:29:45.579087 21167 net.cpp:425] inception_5a/pool <- pool4/3x3_s2_pool4/3x3_s2_0_split_3
2016-07-13 13:29:45.580 STDERR [INFO] I0713 13:29:45.579097 21167 net.cpp:399] inception_5a/pool -> inception_5a/pool
2016-07-13 13:29:45.580 STDERR [INFO] I0713 13:29:45.579181 21167 net.cpp:141] Setting up inception_5a/pool
2016-07-13 13:29:45.580 STDERR [INFO] I0713 13:29:45.579192 21167 net.cpp:148] Top shape: 10 832 7 7 (407680)
2016-07-13 13:29:45.580 STDERR [INFO] I0713 13:29:45.579197 21167 net.cpp:156] Memory required for data: 534123520
2016-07-13 13:29:45.580 STDERR [INFO] I0713 13:29:45.579203 21167 layer_factory.hpp:77] Creating layer inception_5a/pool_proj
2016-07-13 13:29:45.580 STDERR [INFO] I0713 13:29:45.579221 21167 net.cpp:91] Creating Layer inception_5a/pool_proj
2016-07-13 13:29:45.580 STDERR [INFO] I0713 13:29:45.579226 21167 net.cpp:425] inception_5a/pool_proj <- inception_5a/pool
2016-07-13 13:29:45.580 STDERR [INFO] I0713 13:29:45.579236 21167 net.cpp:399] inception_5a/pool_proj -> inception_5a/pool_proj
2016-07-13 13:29:45.583 STDERR [INFO] I0713 13:29:45.583789 21167 net.cpp:141] Setting up inception_5a/pool_proj
2016-07-13 13:29:45.584 STDERR [INFO] I0713 13:29:45.583812 21167 net.cpp:148] Top shape: 10 128 7 7 (62720)
2016-07-13 13:29:45.584 STDERR [INFO] I0713 13:29:45.583818 21167 net.cpp:156] Memory required for data: 534374400
2016-07-13 13:29:45.584 STDERR [INFO] I0713 13:29:45.583828 21167 layer_factory.hpp:77] Creating layer inception_5a/relu_pool_proj
2016-07-13 13:29:45.584 STDERR [INFO] I0713 13:29:45.583842 21167 net.cpp:91] Creating Layer inception_5a/relu_pool_proj
2016-07-13 13:29:45.584 STDERR [INFO] I0713 13:29:45.583849 21167 net.cpp:425] inception_5a/relu_pool_proj <- inception_5a/pool_proj
2016-07-13 13:29:45.584 STDERR [INFO] I0713 13:29:45.583858 21167 net.cpp:386] inception_5a/relu_pool_proj -> inception_5a/pool_proj (in-place)
2016-07-13 13:29:45.584 STDERR [INFO] I0713 13:29:45.584677 21167 net.cpp:141] Setting up inception_5a/relu_pool_proj
2016-07-13 13:29:45.584 STDERR [INFO] I0713 13:29:45.584695 21167 net.cpp:148] Top shape: 10 128 7 7 (62720)
2016-07-13 13:29:45.584 STDERR [INFO] I0713 13:29:45.584700 21167 net.cpp:156] Memory required for data: 534625280
2016-07-13 13:29:45.584 STDERR [INFO] I0713 13:29:45.584707 21167 layer_factory.hpp:77] Creating layer inception_5a/output
2016-07-13 13:29:45.584 STDERR [INFO] I0713 13:29:45.584720 21167 net.cpp:91] Creating Layer inception_5a/output
2016-07-13 13:29:45.585 STDERR [INFO] I0713 13:29:45.584728 21167 net.cpp:425] inception_5a/output <- inception_5a/1x1
2016-07-13 13:29:45.585 STDERR [INFO] I0713 13:29:45.584734 21167 net.cpp:425] inception_5a/output <- inception_5a/3x3
2016-07-13 13:29:45.585 STDERR [INFO] I0713 13:29:45.584741 21167 net.cpp:425] inception_5a/output <- inception_5a/5x5
2016-07-13 13:29:45.585 STDERR [INFO] I0713 13:29:45.584748 21167 net.cpp:425] inception_5a/output <- inception_5a/pool_proj
2016-07-13 13:29:45.585 STDERR [INFO] I0713 13:29:45.584754 21167 net.cpp:399] inception_5a/output -> inception_5a/output
2016-07-13 13:29:45.585 STDERR [INFO] I0713 13:29:45.584815 21167 net.cpp:141] Setting up inception_5a/output
2016-07-13 13:29:45.585 STDERR [INFO] I0713 13:29:45.584825 21167 net.cpp:148] Top shape: 10 832 7 7 (407680)
2016-07-13 13:29:45.585 STDERR [INFO] I0713 13:29:45.584830 21167 net.cpp:156] Memory required for data: 536256000
2016-07-13 13:29:45.585 STDERR [INFO] I0713 13:29:45.584836 21167 layer_factory.hpp:77] Creating layer inception_5a/output_inception_5a/output_0_split
2016-07-13 13:29:45.585 STDERR [INFO] I0713 13:29:45.584846 21167 net.cpp:91] Creating Layer inception_5a/output_inception_5a/output_0_split
…
2016-07-13 13:29:45.585 STDERR [INFO] I0713 13:29:45.584872 21167 net.cpp:399] inception_5a/output_inception_5a/output_0_split -> inception_5a/output_inception_5a/output_0_split_1
2016-07-13 13:29:45.585 STDERR [INFO] I0713 13:29:45.584882 21167 net.cpp:399] inception_5a/output_inception_5a/output_0_split -> inception_5a/output_inception_5a/output_0_split_2
2016-07-13 13:29:45.585 STDERR [INFO] I0713 13:29:45.584890 21167 net.cpp:399] inception_5a/output_inception_5a/output_0_split -> inception_5a/output_inception_5a/output_0_split_3
2016-07-13 13:29:45.585 STDERR [INFO] I0713 13:29:45.585016 21167 net.cpp:141] Setting up inception_5a/output_inception_5a/output_0_split
2016-07-13 13:29:45.585 STDERR [INFO] I0713 13:29:45.585026 21167 net.cpp:148] Top shape: 10 832 7 7 (407680)
2016-07-13 13:29:45.585 STDERR [INFO] I0713 13:29:45.585032 21167 net.cpp:148] Top shape: 10 832 7 7 (407680)
2016-07-13 13:29:45.585 STDERR [INFO] I0713 13:29:45.585038 21167 net.cpp:148] Top shape: 10 832 7 7 (407680)
2016-07-13 13:29:45.585 STDERR [INFO] I0713 13:29:45.585044 21167 net.cpp:148] Top shape: 10 832 7 7 (407680)
2016-07-13 13:29:45.586 STDERR [INFO] I0713 13:29:45.585049 21167 net.cpp:156] Memory required for data: 542778880
2016-07-13 13:29:45.586 STDERR [INFO] I0713 13:29:45.585054 21167 layer_factory.hpp:77] Creating layer inception_5b/1x1
2016-07-13 13:29:45.586 STDERR [INFO] I0713 13:29:45.585072 21167 net.cpp:91] Creating Layer inception_5b/1x1
2016-07-13 13:29:45.586 STDERR [INFO] I0713 13:29:45.585078 21167 net.cpp:425] inception_5b/1x1 <- inception_5a/output_inception_5a/output_0_split_0
2016-07-13 13:29:45.586 STDERR [INFO] I0713 13:29:45.585088 21167 net.cpp:399] inception_5b/1x1 -> inception_5b/1x1
2016-07-13 13:29:45.591 STDERR [INFO] I0713 13:29:45.591476 21167 net.cpp:141] Setting up inception_5b/1x1
2016-07-13 13:29:45.591 STDERR [INFO] I0713 13:29:45.591498 21167 net.cpp:148] Top shape: 10 384 7 7 (188160)
2016-07-13 13:29:45.591 STDERR [INFO] I0713 13:29:45.591505 21167 net.cpp:156] Memory required for data: 543531520
2016-07-13 13:29:45.591 STDERR [INFO] I0713 13:29:45.591516 21167 layer_factory.hpp:77] Creating layer inception_5b/relu_1x1
2016-07-13 13:29:45.591 STDERR [INFO] I0713 13:29:45.591526 21167 net.cpp:91] Creating Layer inception_5b/relu_1x1
2016-07-13 13:29:45.591 STDERR [INFO] I0713 13:29:45.591532 21167 net.cpp:425] inception_5b/relu_1x1 <- inception_5b/1x1
2016-07-13 13:29:45.592 STDERR [INFO] I0713 13:29:45.591543 21167 net.cpp:386] inception_5b/relu_1x1 -> inception_5b/1x1 (in-place)
2016-07-13 13:29:45.592 STDERR [INFO] I0713 13:29:45.591825 21167 net.cpp:141] Setting up inception_5b/relu_1x1
2016-07-13 13:29:45.592 STDERR [INFO] I0713 13:29:45.591837 21167 net.cpp:148] Top shape: 10 384 7 7 (188160)
2016-07-13 13:29:45.592 STDERR [INFO] I0713 13:29:45.591842 21167 net.cpp:156] Memory required for data: 544284160
2016-07-13 13:29:45.592 STDERR [INFO] I0713 13:29:45.591847 21167 layer_factory.hpp:77] Creating layer inception_5b/3x3_reduce
2016-07-13 13:29:45.592 STDERR [INFO] I0713 13:29:45.591867 21167 net.cpp:91] Creating Layer inception_5b/3x3_reduce
2016-07-13 13:29:45.592 STDERR [INFO] I0713 13:29:45.591874 21167 net.cpp:425] inception_5b/3x3_reduce <- inception_5a/output_inception_5a/output_0_split_1
2016-07-13 13:29:45.592 STDERR [INFO] I0713 13:29:45.591884 21167 net.cpp:399] inception_5b/3x3_reduce -> inception_5b/3x3_reduce
2016-07-13 13:29:45.596 STDERR [INFO] I0713 13:29:45.596839 21167 net.cpp:141] Setting up inception_5b/3x3_reduce
2016-07-13 13:29:45.597 STDERR [INFO] I0713 13:29:45.596859 21167 net.cpp:148] Top shape: 10 192 7 7 (94080)
2016-07-13 13:29:45.597 STDERR [INFO] I0713 13:29:45.596865 21167 net.cpp:156] Memory required for data: 544660480
2016-07-13 13:29:45.597 STDERR [INFO] I0713 13:29:45.596875 21167 layer_factory.hpp:77] Creating layer inception_5b/relu_3x3_reduce
2016-07-13 13:29:45.597 STDERR [INFO] I0713 13:29:45.596889 21167 net.cpp:91] Creating Layer inception_5b/relu_3x3_reduce
2016-07-13 13:29:45.597 STDERR [INFO] I0713 13:29:45.596896 21167 net.cpp:425] inception_5b/relu_3x3_reduce <- inception_5b/3x3_reduce
2016-07-13 13:29:45.597 STDERR [INFO] I0713 13:29:45.596904 21167 net.cpp:386] inception_5b/relu_3x3_reduce -> inception_5b/3x3_reduce (in-place)
2016-07-13 13:29:45.597 STDERR [INFO] I0713 13:29:45.597183 21167 net.cpp:141] Setting up inception_5b/relu_3x3_reduce
2016-07-13 13:29:45.597 STDERR [INFO] I0713 13:29:45.597196 21167 net.cpp:148] Top shape: 10 192 7 7 (94080)
2016-07-13 13:29:45.597 STDERR [INFO] I0713 13:29:45.597201 21167 net.cpp:156] Memory required for data: 545036800
2016-07-13 13:29:45.597 STDERR [INFO] I0713 13:29:45.597208 21167 layer_factory.hpp:77] Creating layer inception_5b/3x3
2016-07-13 13:29:45.597 STDERR [INFO] I0713 13:29:45.597225 21167 net.cpp:91] Creating Layer inception_5b/3x3
2016-07-13 13:29:45.597 STDERR [INFO] I0713 13:29:45.597232 21167 net.cpp:425] inception_5b/3x3 <- inception_5b/3x3_reduce
2016-07-13 13:29:45.597 STDERR [INFO] I0713 13:29:45.597244 21167 net.cpp:399] inception_5b/3x3 -> inception_5b/3x3
2016-07-13 13:29:45.600 n.t.s.f.RefreshingImageFetcher$ImageReader [INFO] [Timing] RequestID: 0 StreamID: home/peifeng/work/data/frame.320x240.jpg SequenceNr: 25 Entering queue: 1468430985600
2016-07-13 13:29:45.604 n.t.s.s.CVParticleSpout [INFO] [Timing] RequestID: 0 StreamID: home/peifeng/work/data/frame.320x240.jpg SequenceNr: 25 Leaving fetcher: 1468430985604 Size: 8702
2016-07-13 13:29:45.604 n.t.s.b.CVParticleBolt [INFO] [Timing] RequestID: 0 StreamID: home/peifeng/work/data/frame.320x240.jpg SequenceNr: 25 Entering scale: 1468430985604
2016-07-13 13:29:45.607 STDERR [INFO] I0713 13:29:45.607491 21167 net.cpp:141] Setting up inception_5b/3x3
2016-07-13 13:29:45.607 STDERR [INFO] I0713 13:29:45.607520 21167 net.cpp:148] Top shape: 10 384 7 7 (188160)
2016-07-13 13:29:45.607 STDERR [INFO] I0713 13:29:45.607527 21167 net.cpp:156] Memory required for data: 545789440
2016-07-13 13:29:45.607 STDERR [INFO] I0713 13:29:45.607538 21167 layer_factory.hpp:77] Creating layer inception_5b/relu_3x3
2016-07-13 13:29:45.607 STDERR [INFO] I0713 13:29:45.607553 21167 net.cpp:91] Creating Layer inception_5b/relu_3x3
2016-07-13 13:29:45.608 STDERR [INFO] I0713 13:29:45.607561 21167 net.cpp:425] inception_5b/relu_3x3 <- inception_5b/3x3
2016-07-13 13:29:45.608 STDERR [INFO] I0713 13:29:45.607569 21167 net.cpp:386] inception_5b/relu_3x3 -> inception_5b/3x3 (in-place)
2016-07-13 13:29:45.608 STDERR [INFO] I0713 13:29:45.608414 21167 net.cpp:141] Setting up inception_5b/relu_3x3
2016-07-13 13:29:45.608 STDERR [INFO] I0713 13:29:45.608435 21167 net.cpp:148] Top shape: 10 384 7 7 (188160)
2016-07-13 13:29:45.608 STDERR [INFO] I0713 13:29:45.608441 21167 net.cpp:156] Memory required for data: 546542080
2016-07-13 13:29:45.608 STDERR [INFO] I0713 13:29:45.608448 21167 layer_factory.hpp:77] Creating layer inception_5b/5x5_reduce
2016-07-13 13:29:45.608 STDERR [INFO] I0713 13:29:45.608466 21167 net.cpp:91] Creating Layer inception_5b/5x5_reduce
2016-07-13 13:29:45.608 STDERR [INFO] I0713 13:29:45.608474 21167 net.cpp:425] inception_5b/5x5_reduce <- inception_5a/output_inception_5a/output_0_split_2
2016-07-13 13:29:45.608 STDERR [INFO] I0713 13:29:45.608484 21167 net.cpp:399] inception_5b/5x5_reduce -> inception_5b/5x5_reduce
2016-07-13 13:29:45.611 n.t.s.b.CVParticleBolt [INFO] [Timing] RequestID: 0 StreamID: home/peifeng/work/data/frame.320x240.jpg SequenceNr: 25 Leaving scale: 1468430985611 Size: 3530
2016-07-13 13:29:45.611 STDERR [INFO] I0713 13:29:45.611357 21167 net.cpp:141] Setting up inception_5b/5x5_reduce
2016-07-13 13:29:45.611 STDERR [INFO] I0713 13:29:45.611378 21167 net.cpp:148] Top shape: 10 48 7 7 (23520)
2016-07-13 13:29:45.611 STDERR [INFO] I0713 13:29:45.611383 21167 net.cpp:156] Memory required for data: 546636160
2016-07-13 13:29:45.611 STDERR [INFO] I0713 13:29:45.611394 21167 layer_factory.hpp:77] Creating layer inception_5b/relu_5x5_reduce
2016-07-13 13:29:45.611 STDERR [INFO] I0713 13:29:45.611404 21167 net.cpp:91] Creating Layer inception_5b/relu_5x5_reduce
2016-07-13 13:29:45.611 STDERR [INFO] I0713 13:29:45.611412 21167 net.cpp:425] inception_5b/relu_5x5_reduce <- inception_5b/5x5_reduce
2016-07-13 13:29:45.612 STDERR [INFO] I0713 13:29:45.611423 21167 net.cpp:386] inception_5b/relu_5x5_reduce -> inception_5b/5x5_reduce (in-place)
2016-07-13 13:29:45.612 STDERR [INFO] I0713 13:29:45.611704 21167 net.cpp:141] Setting up inception_5b/relu_5x5_reduce
2016-07-13 13:29:45.612 STDERR [INFO] I0713 13:29:45.611717 21167 net.cpp:148] Top shape: 10 48 7 7 (23520)
2016-07-13 13:29:45.612 STDERR [INFO] I0713 13:29:45.611722 21167 net.cpp:156] Memory required for data: 546730240
2016-07-13 13:29:45.612 STDERR [INFO] I0713 13:29:45.611728 21167 layer_factory.hpp:77] Creating layer inception_5b/5x5
2016-07-13 13:29:45.612 STDERR [INFO] I0713 13:29:45.611744 21167 net.cpp:91] Creating Layer inception_5b/5x5
2016-07-13 13:29:45.612 STDERR [INFO] I0713 13:29:45.611752 21167 net.cpp:425] inception_5b/5x5 <- inception_5b/5x5_reduce
2016-07-13 13:29:45.612 STDERR [INFO] I0713 13:29:45.611765 21167 net.cpp:399] inception_5b/5x5 -> inception_5b/5x5
2016-07-13 13:29:45.616 STDERR [INFO] I0713 13:29:45.616286 21167 net.cpp:141] Setting up inception_5b/5x5
2016-07-13 13:29:45.616 STDERR [INFO] I0713 13:29:45.616307 21167 net.cpp:148] Top shape: 10 128 7 7 (62720)
2016-07-13 13:29:45.616 STDERR [INFO] I0713 13:29:45.616312 21167 net.cpp:156] Memory required for data: 546981120
2016-07-13 13:29:45.616 STDERR [INFO] I0713 13:29:45.616324 21167 layer_factory.hpp:77] Creating layer inception_5b/relu_5x5
2016-07-13 13:29:45.616 STDERR [INFO] I0713 13:29:45.616334 21167 net.cpp:91] Creating Layer inception_5b/relu_5x5
2016-07-13 13:29:45.616 STDERR [INFO] I0713 13:29:45.616341 21167 net.cpp:425] inception_5b/relu_5x5 <- inception_5b/5x5
2016-07-13 13:29:45.616 STDERR [INFO] I0713 13:29:45.616353 21167 net.cpp:386] inception_5b/relu_5x5 -> inception_5b/5x5 (in-place)
2016-07-13 13:29:45.616 STDERR [INFO] I0713 13:29:45.616632 21167 net.cpp:141] Setting up inception_5b/relu_5x5
2016-07-13 13:29:45.616 STDERR [INFO] I0713 13:29:45.616647 21167 net.cpp:148] Top shape: 10 128 7 7 (62720)
2016-07-13 13:29:45.616 STDERR [INFO] I0713 13:29:45.616652 21167 net.cpp:156] Memory required for data: 547232000
2016-07-13 13:29:45.616 STDERR [INFO] I0713 13:29:45.616658 21167 layer_factory.hpp:77] Creating layer inception_5b/pool
2016-07-13 13:29:45.616 STDERR [INFO] I0713 13:29:45.616669 21167 net.cpp:91] Creating Layer inception_5b/pool
2016-07-13 13:29:45.616 STDERR [INFO] I0713 13:29:45.616675 21167 net.cpp:425] inception_5b/pool <- inception_5a/output_inception_5a/output_0_split_3
2016-07-13 13:29:45.617 STDERR [INFO] I0713 13:29:45.616684 21167 net.cpp:399] inception_5b/pool -> inception_5b/pool
2016-07-13 13:29:45.617 STDERR [INFO] I0713 13:29:45.616775 21167 net.cpp:141] Setting up inception_5b/pool
2016-07-13 13:29:45.617 STDERR [INFO] I0713 13:29:45.616786 21167 net.cpp:148] Top shape: 10 832 7 7 (407680)
2016-07-13 13:29:45.617 STDERR [INFO] I0713 13:29:45.616791 21167 net.cpp:156] Memory required for data: 548862720
2016-07-13 13:29:45.617 STDERR [INFO] I0713 13:29:45.616797 21167 layer_factory.hpp:77] Creating layer inception_5b/pool_proj
2016-07-13 13:29:45.617 STDERR [INFO] I0713 13:29:45.616814 21167 net.cpp:91] Creating Layer inception_5b/pool_proj
2016-07-13 13:29:45.617 STDERR [INFO] I0713 13:29:45.616822 21167 net.cpp:425] inception_5b/pool_proj <- inception_5b/pool
2016-07-13 13:29:45.617 STDERR [INFO] I0713 13:29:45.616833 21167 net.cpp:399] inception_5b/pool_proj -> inception_5b/pool_proj
2016-07-13 13:29:45.621 STDERR [INFO] I0713 13:29:45.621335 21167 net.cpp:141] Setting up inception_5b/pool_proj
2016-07-13 13:29:45.621 STDERR [INFO] I0713 13:29:45.621356 21167 net.cpp:148] Top shape: 10 128 7 7 (62720)
2016-07-13 13:29:45.621 STDERR [INFO] I0713 13:29:45.621361 21167 net.cpp:156] Memory required for data: 549113600
2016-07-13 13:29:45.621 STDERR [INFO] I0713 13:29:45.621371 21167 layer_factory.hpp:77] Creating layer inception_5b/relu_pool_proj
2016-07-13 13:29:45.621 STDERR [INFO] I0713 13:29:45.621384 21167 net.cpp:91] Creating Layer inception_5b/relu_pool_proj
2016-07-13 13:29:45.621 STDERR [INFO] I0713 13:29:45.621392 21167 net.cpp:425] inception_5b/relu_pool_proj <- inception_5b/pool_proj
2016-07-13 13:29:45.621 STDERR [INFO] I0713 13:29:45.621399 21167 net.cpp:386] inception_5b/relu_pool_proj -> inception_5b/pool_proj (in-place)
2016-07-13 13:29:45.622 STDERR [INFO] I0713 13:29:45.622222 21167 net.cpp:141] Setting up inception_5b/relu_pool_proj
2016-07-13 13:29:45.622 STDERR [INFO] I0713 13:29:45.622242 21167 net.cpp:148] Top shape: 10 128 7 7 (62720)
2016-07-13 13:29:45.622 STDERR [INFO] I0713 13:29:45.622248 21167 net.cpp:156] Memory required for data: 549364480
2016-07-13 13:29:45.622 STDERR [INFO] I0713 13:29:45.622254 21167 layer_factory.hpp:77] Creating layer inception_5b/output
2016-07-13 13:29:45.622 STDERR [INFO] I0713 13:29:45.622264 21167 net.cpp:91] Creating Layer inception_5b/output
2016-07-13 13:29:45.622 STDERR [INFO] I0713 13:29:45.622270 21167 net.cpp:425] inception_5b/output <- inception_5b/1x1
2016-07-13 13:29:45.622 STDERR [INFO] I0713 13:29:45.622278 21167 net.cpp:425] inception_5b/output <- inception_5b/3x3
2016-07-13 13:29:45.622 STDERR [INFO] I0713 13:29:45.622284 21167 net.cpp:425] inception_5b/output <- inception_5b/5x5
2016-07-13 13:29:45.622 STDERR [INFO] I0713 13:29:45.622290 21167 net.cpp:425] inception_5b/output <- inception_5b/pool_proj
2016-07-13 13:29:45.622 STDERR [INFO] I0713 13:29:45.622298 21167 net.cpp:399] inception_5b/output -> inception_5b/output
2016-07-13 13:29:45.622 STDERR [INFO] I0713 13:29:45.622360 21167 net.cpp:141] Setting up inception_5b/output
2016-07-13 13:29:45.622 STDERR [INFO] I0713 13:29:45.622371 21167 net.cpp:148] Top shape: 10 1024 7 7 (501760)
2016-07-13 13:29:45.622 STDERR [INFO] I0713 13:29:45.622376 21167 net.cpp:156] Memory required for data: 551371520
2016-07-13 13:29:45.623 STDERR [INFO] I0713 13:29:45.622381 21167 layer_factory.hpp:77] Creating layer pool5/7x7_s1
2016-07-13 13:29:45.623 STDERR [INFO] I0713 13:29:45.622392 21167 net.cpp:91] Creating Layer pool5/7x7_s1
2016-07-13 13:29:45.623 STDERR [INFO] I0713 13:29:45.622400 21167 net.cpp:425] pool5/7x7_s1 <- inception_5b/output
2016-07-13 13:29:45.623 STDERR [INFO] I0713 13:29:45.622407 21167 net.cpp:399] pool5/7x7_s1 -> pool5/7x7_s1
2016-07-13 13:29:45.623 STDERR [INFO] I0713 13:29:45.622769 21167 net.cpp:141] Setting up pool5/7x7_s1
2016-07-13 13:29:45.623 STDERR [INFO] I0713 13:29:45.622783 21167 net.cpp:148] Top shape: 10 1024 1 1 (10240)
2016-07-13 13:29:45.623 STDERR [INFO] I0713 13:29:45.622788 21167 net.cpp:156] Memory required for data: 551412480
2016-07-13 13:29:45.623 STDERR [INFO] I0713 13:29:45.622793 21167 layer_factory.hpp:77] Creating layer pool5/drop_7x7_s1
2016-07-13 13:29:45.623 STDERR [INFO] I0713 13:29:45.622810 21167 net.cpp:91] Creating Layer pool5/drop_7x7_s1
2016-07-13 13:29:45.623 STDERR [INFO] I0713 13:29:45.622817 21167 net.cpp:425] pool5/drop_7x7_s1 <- pool5/7x7_s1
2016-07-13 13:29:45.623 STDERR [INFO] I0713 13:29:45.622823 21167 net.cpp:386] pool5/drop_7x7_s1 -> pool5/7x7_s1 (in-place)
2016-07-13 13:29:45.623 STDERR [INFO] I0713 13:29:45.622884 21167 net.cpp:141] Setting up pool5/drop_7x7_s1
2016-07-13 13:29:45.623 STDERR [INFO] I0713 13:29:45.622895 21167 net.cpp:148] Top shape: 10 1024 1 1 (10240)
2016-07-13 13:29:45.623 STDERR [INFO] I0713 13:29:45.622900 21167 net.cpp:156] Memory required for data: 551453440
2016-07-13 13:29:45.623 STDERR [INFO] I0713 13:29:45.622905 21167 layer_factory.hpp:77] Creating layer loss3/classifier
2016-07-13 13:29:45.623 STDERR [INFO] I0713 13:29:45.622925 21167 net.cpp:91] Creating Layer loss3/classifier
2016-07-13 13:29:45.623 STDERR [INFO] I0713 13:29:45.622931 21167 net.cpp:425] loss3/classifier <- pool5/7x7_s1
2016-07-13 13:29:45.623 STDERR [INFO] I0713 13:29:45.622941 21167 net.cpp:399] loss3/classifier -> loss3/classifier
2016-07-13 13:29:45.634 STDERR [INFO] I0713 13:29:45.634532 21167 net.cpp:141] Setting up loss3/classifier
2016-07-13 13:29:45.634 STDERR [INFO] I0713 13:29:45.634557 21167 net.cpp:148] Top shape: 10 1000 (10000)
2016-07-13 13:29:45.634 STDERR [INFO] I0713 13:29:45.634562 21167 net.cpp:156] Memory required for data: 551493440
2016-07-13 13:29:45.634 STDERR [INFO] I0713 13:29:45.634573 21167 layer_factory.hpp:77] Creating layer prob
2016-07-13 13:29:45.634 STDERR [INFO] I0713 13:29:45.634584 21167 net.cpp:91] Creating Layer prob
2016-07-13 13:29:45.634 STDERR [INFO] I0713 13:29:45.634590 21167 net.cpp:425] prob <- loss3/classifier
2016-07-13 13:29:45.635 STDERR [INFO] I0713 13:29:45.634601 21167 net.cpp:399] prob -> prob
2016-07-13 13:29:45.635 STDERR [INFO] I0713 13:29:45.635709 21167 net.cpp:141] Setting up prob
2016-07-13 13:29:45.635 STDERR [INFO] I0713 13:29:45.635727 21167 net.cpp:148] Top shape: 10 1000 (10000)
2016-07-13 13:29:45.635 STDERR [INFO] I0713 13:29:45.635732 21167 net.cpp:156] Memory required for data: 551533440
2016-07-13 13:29:45.635 STDERR [INFO] I0713 13:29:45.635738 21167 net.cpp:219] prob does not need backward computation.
2016-07-13 13:29:45.635 STDERR [INFO] I0713 13:29:45.635745 21167 net.cpp:219] loss3/classifier does not need backward computation.
2016-07-13 13:29:45.636 STDERR [INFO] I0713 13:29:45.635749 21167 net.cpp:219] pool5/drop_7x7_s1 does not need backward computation.
…
