…
Java HotSpot(TM) 64-Bit Server VM warning: You have loaded library /tmp/cvld8576268662321578170/libopencv_java310.xine1.so which might have disabled stack guard. The VM will try to fix the stack guard now.
It's highly recommended that you fix the library with 'execstack -c <libfile>', or link it with '-z noexecstack'.
WARNING: Logging before InitGoogleLogging() is written to STDERR
I0714 22:17:53.040832 29079 net.cpp:49] Initializing net from parameters: 
name: "GoogleNet"
state {
  phase: TEST
}
layer {
  name: "data"
  type: "Input"
  top: "data"
  input_param {
    shape {
      dim: 10
      dim: 3
      dim: 224
      dim: 224
    }
  }
}
layer {
  name: "conv1/7x7_s2"
  type: "Convolution"
  bottom: "data"
  top: "conv1/7x7_s2"
  param {
    lr_mult: 1
    decay_mult: 1
  }
  param {
    lr_mult: 2
    decay_mult: 0
  }
  convolution_param {
    num_output: 64
    pad: 3
    kernel_size: 7
    stride: 2
    weight_filler {
      type: "xavier"
      std: 0.1
    }
    bias_filler {
      type: "constant"
      value: 0.2
    }
  }
}
layer {
  name: "conv1/relu_7x7"
  type: "ReLU"
  bottom: "conv1/7x7_s2"
  top: "conv1/7x7_s2"
}
layer {
  name: "pool1/3x3_s2"
  type: "Pooling"
  bottom: "conv1/7x7_s2"
  top: "pool1/3x3_s2"
  pooling_param {
    pool: MAX
    kernel_size: 3
    stride: 2
  }
}
layer {
  name: "pool1/norm1"
  type: "LRN"
  bottom: "pool1/3x3_s2"
  top: "pool1/norm1"
  lrn_param {
    local_size: 5
    alpha: 0.0001
    beta: 0.75
  }
}
layer {
  name: "conv2/3x3_reduce"
  type: "Convolution"
  bottom: "pool1/norm1"
  top: "conv2/3x3_reduce"
  param {
    lr_mult: 1
    decay_mult: 1
  }
  param {
    lr_mult: 2
    decay_mult: 0
  }
  convolution_param {
    num_output: 64
    kernel_size: 1
    weight_filler {
      type: "xavier"
      std: 0.1
    }
    bias_filler {
      type: "constant"
      value: 0.2
    }
  }
}
layer {
  name: "conv2/relu_3x3_reduce"
  type: "ReLU"
  bottom: "conv2/3x3_reduce"
  top: "conv2/3x3_reduce"
}
layer {
  name: "conv2/3x3"
  type: "Convolution"
  bottom: "conv2/3x3_reduce"
  top: "conv2/3x3"
  param {
    lr_mult: 1
    decay_mult: 1
  }
  param {
    lr_mult: 2
    decay_mult: 0
  }
  convolution_param {
    num_output: 192
    pad: 1
    kernel_size: 3
    weight_filler {
      type: "xavier"
      std: 0.03
    }
    bias_filler {
      type: "constant"
      value: 0.2
    }
  }
}
layer {
  name: "conv2/relu_3x3"
  type: "ReLU"
  bottom: "conv2/3x3"
  top: "conv2/3x3"
}
layer {
  name: "conv2/norm2"
  type: "LRN"
  bottom: "conv2/3x3"
  top: "conv2/norm2"
  lrn_param {
    local_size: 5
    alpha: 0.0001
    beta: 0.75
  }
}
layer {
  name: "pool2/3x3_s2"
  type: "Pooling"
  bottom: "conv2/norm2"
  top: "pool2/3x3_s2"
  pooling_param {
    pool: MAX
    kernel_size: 3
    stride: 2
  }
}
layer {
  name: "inception_3a/1x1"
  type: "Convolution"
  bottom: "pool2/3x3_s2"
  top: "inception_3a/1x1"
  param {
    lr_mult: 1
    decay_mult: 1
  }
  param {
    lr_mult: 2
    decay_mult: 0
  }
  convolution_param {
    num_output: 64
    kernel_size: 1
    weight_filler {
      type: "xavier"
      std: 0.03
    }
    bias_filler {
      type: "constant"
      value: 0.2
    }
  }
}
layer {
  name: "inception_3a/relu_1x1"
  type: "ReLU"
  bottom: "inception_3a/1x1"
  top: "inception_3a/1x1"
}
layer {
  name: "inception_3a/3x3_reduce"
  type: "Convolution"
  bottom: "pool2/3x3_s2"
  top: "inception_3a/3x3_reduce"
  param {
    lr_mult: 1
    decay_mult: 1
  }
  param {
    lr_mult: 2
    decay_mult: 0
  }
  convolution_param {
    num_output: 96
    kernel_size: 1
    weight_filler {
      type: "xavier"
      std: 0.09
    }
    bias_filler {
      type: "constant"
      value: 0.2
    }
  }
}
layer {
  name: "inception_3a/relu_3x3_reduce"
  type: "ReLU"
  bottom: "inception_3a/3x3_reduce"
  top: "inception_3a/3x3_reduce"
}
layer {
  name: "inception_3a/3x3"
  type: "Convolution"
  bottom: "inception_3a/3x3_reduce"
  top: "inception_3a/3x3"
  param {
    lr_mult: 1
    decay_mult: 1
  }
  param {
    lr_mult: 2
    decay_mult: 0
  }
  convolution_param {
    num_output: 128
    pad: 1
    kernel_size: 3
    weight_filler {
      type: "xavier"
      std: 0.03
    }
    bias_filler {
      type: "constant"
      value: 0.2
    }
  }
}
layer {
  name: "inception_3a/relu_3x3"
  type: "ReLU"
  bottom: "inception_3a/3x3"
  top: "inception_3a/3x3"
}
layer {
  name: "inception_3a/5x5_reduce"
  type: "Convolution"
  bottom: "pool2/3x3_s2"
  top: "inception_3a/5x5_reduce"
  param {
    lr_mult: 1
    decay_mult: 1
  }
  param {
    lr_mult: 2
    decay_mult: 0
  }
  convolution_param {
    num_output: 16
    kernel_size: 1
    weight_filler {
      type: "xavier"
      std: 0.2
    }
    bias_filler {
      type: "constant"
      value: 0.2
    }
  }
}
layer {
  name: "inception_3a/relu_5x5_reduce"
  type: "ReLU"
  bottom: "inception_3a/5x5_reduce"
  top: "inception_3a/5x5_reduce"
}
layer {
  name: "inception_3a/5x5"
  type: "Convolution"
  bottom: "inception_3a/5x5_reduce"
  top: "inception_3a/5x5"
  param {
    lr_mult: 1
    decay_mult: 1
  }
  param {
    lr_mult: 2
    decay_mult: 0
  }
  convolution_param {
    num_output: 32
    pad: 2
    kernel_size: 5
    weight_filler {
      type: "xavier"
      std: 0.03
    }
    bias_filler {
      type: "constant"
      value: 0.2
    }
  }
}
layer {
  name: "inception_3a/relu_5x5"
  type: "ReLU"
  bottom: "inception_3a/5x5"
  top: "inception_3a/5x5"
}
layer {
  name: "inception_3a/pool"
  type: "Pooling"
  bottom: "pool2/3x3_s2"
  top: "inception_3a/pool"
  pooling_param {
    pool: MAX
    kernel_size: 3
    stride: 1
    pad: 1
  }
}
layer {
  name: "inception_3a/pool_proj"
  type: "Convolution"
  bottom: "inception_3a/pool"
  top: "inception_3a/pool_proj"
  param {
    lr_mult: 1
    decay_mult: 1
  }
  param {
    lr_mult: 2
    decay_mult: 0
  }
  convolution_param {
    num_output: 32
    kernel_size: 1
    weight_filler {
      type: "xavier"
      std: 0.1
    }
    bias_filler {
      type: "constant"
      value: 0.2
    }
  }
}
layer {
  name: "inception_3a/relu_pool_proj"
  type: "ReLU"
  bottom: "inception_3a/pool_proj"
  top: "inception_3a/pool_proj"
}
layer {
  name: "inception_3a/output"
  type: "Concat"
  bottom: "inception_3a/1x1"
  bottom: "inception_3a/3x3"
  bottom: "inception_3a/5x5"
  bottom: "inception_3a/pool_proj"
  top: "inception_3a/output"
}
layer {
  name: "inception_3b/1x1"
  type: "Convolution"
  bottom: "inception_3a/output"
  top: "inception_3b/1x1"
  param {
    lr_mult: 1
    decay_mult: 1
  }
  param {
    lr_mult: 2
    decay_mult: 0
  }
  convolution_param {
    num_output: 128
    kernel_size: 1
    weight_filler {
      type: "xavier"
      std: 0.03
    }
    bias_filler {
      type: "constant"
      value: 0.2
    }
  }
}
layer {
  name: "inception_3b/relu_1x1"
  type: "ReLU"
  bottom: "inception_3b/1x1"
  top: "inception_3b/1x1"
}
layer {
  name: "inception_3b/3x3_reduce"
  type: "Convolution"
  bottom: "inception_3a/output"
  top: "inception_3b/3x3_reduce"
  param {
    lr_mult: 1
    decay_mult: 1
  }
  param {
    lr_mult: 2
    decay_mult: 0
  }
  convolution_param {
    num_output: 128
    kernel_size: 1
    weight_filler {
      type: "xavier"
      std: 0.09
    }
    bias_filler {
      type: "constant"
      value: 0.2
    }
  }
}
layer {
  name: "inception_3b/relu_3x3_reduce"
  type: "ReLU"
  bottom: "inception_3b/3x3_reduce"
  top: "inception_3b/3x3_reduce"
}
layer {
  name: "inception_3b/3x3"
  type: "Convolution"
  bottom: "inception_3b/3x3_reduce"
  top: "inception_3b/3x3"
  param {
    lr_mult: 1
    decay_mult: 1
  }
  param {
    lr_mult: 2
    decay_mult: 0
  }
  convolution_param {
    num_output: 192
    pad: 1
    kernel_size: 3
    weight_filler {
      type: "xavier"
      std: 0.03
    }
    bias_filler {
      type: "constant"
      value: 0.2
    }
  }
}
layer {
  name: "inception_3b/relu_3x3"
  type: "ReLU"
  bottom: "inception_3b/3x3"
  top: "inception_3b/3x3"
}
layer {
  name: "inception_3b/5x5_reduce"
  type: "Convolution"
  bottom: "inception_3a/output"
  top: "inception_3b/5x5_reduce"
  param {
    lr_mult: 1
    decay_mult: 1
  }
  param {
    lr_mult: 2
    decay_mult: 0
  }
  convolution_param {
    num_output: 32
    kernel_size: 1
    weight_filler {
      type: "xavier"
      std: 0.2
    }
    bias_filler {
      type: "constant"
      value: 0.2
    }
  }
}
layer {
  name: "inception_3b/relu_5x5_reduce"
  type: "ReLU"
  bottom: "inception_3b/5x5_reduce"
  top: "inception_3b/5x5_reduce"
}
layer {
  name: "inception_3b/5x5"
  type: "Convolution"
  bottom: "inception_3b/5x5_reduce"
  top: "inception_3b/5x5"
  param {
    lr_mult: 1
    decay_mult: 1
  }
  param {
    lr_mult: 2
    decay_mult: 0
  }
  convolution_param {
    num_output: 96
    pad: 2
    kernel_size: 5
    weight_filler {
      type: "xavier"
      std: 0.03
    }
    bias_filler {
      type: "constant"
      value: 0.2
    }
  }
}
layer {
  name: "inception_3b/relu_5x5"
  type: "ReLU"
  bottom: "inception_3b/5x5"
  top: "inception_3b/5x5"
}
layer {
  name: "inception_3b/pool"
  type: "Pooling"
  bottom: "inception_3a/output"
  top: "inception_3b/pool"
  pooling_param {
    pool: MAX
    kernel_size: 3
    stride: 1
    pad: 1
  }
}
layer {
  name: "inception_3b/pool_proj"
  type: "Convolution"
  bottom: "inception_3b/pool"
  top: "inception_3b/pool_proj"
  param {
    lr_mult: 1
    decay_mult: 1
  }
  param {
    lr_mult: 2
    decay_mult: 0
  }
  convolution_param {
    num_output: 64
    kernel_size: 1
    weight_filler {
      type: "xavier"
      std: 0.1
    }
    bias_filler {
      type: "constant"
      value: 0.2
    }
  }
}
layer {
  name: "inception_3b/relu_pool_proj"
  type: "ReLU"
  bottom: "inception_3b/pool_proj"
  top: "inception_3b/pool_proj"
}
layer {
  name: "inception_3b/output"
  type: "Concat"
  bottom: "inception_3b/1x1"
  bottom: "inception_3b/3x3"
  bottom: "inception_3b/5x5"
  bottom: "inception_3b/pool_proj"
  top: "inception_3b/output"
}
layer {
  name: "pool3/3x3_s2"
  type: "Pooling"
  bottom: "inception_3b/output"
  top: "pool3/3x3_s2"
  pooling_param {
    pool: MAX
    kernel_size: 3
    stride: 2
  }
}
layer {
  name: "inception_4a/1x1"
  type: "Convolution"
  bottom: "pool3/3x3_s2"
  top: "inception_4a/1x1"
  param {
    lr_mult: 1
    decay_mult: 1
  }
  param {
    lr_mult: 2
    decay_mult: 0
  }
  convolution_param {
    num_output: 192
    kernel_size: 1
    weight_filler {
      type: "xavier"
      std: 0.03
    }
    bias_filler {
      type: "constant"
      value: 0.2
    }
  }
}
layer {
  name: "inception_4a/relu_1x1"
  type: "ReLU"
  bottom: "inception_4a/1x1"
  top: "inception_4a/1x1"
}
layer {
  name: "inception_4a/3x3_reduce"
  type: "Convolution"
  bottom: "pool3/3x3_s2"
  top: "inception_4a/3x3_reduce"
  param {
    lr_mult: 1
    decay_mult: 1
  }
  param {
    lr_mult: 2
    decay_mult: 0
  }
  convolution_param {
    num_output: 96
    kernel_size: 1
    weight_filler {
      type: "xavier"
      std: 0.09
    }
    bias_filler {
      type: "constant"
      value: 0.2
    }
  }
}
layer {
  name: "inception_4a/relu_3x3_reduce"
  type: "ReLU"
  bottom: "inception_4a/3x3_reduce"
  top: "inception_4a/3x3_reduce"
}
layer {
  name: "inception_4a/3x3"
  type: "Convolution"
  bottom: "inception_4a/3x3_reduce"
  top: "inception_4a/3x3"
  param {
    lr_mult: 1
    decay_mult: 1
  }
  param {
    lr_mult: 2
    decay_mult: 0
  }
  convolution_param {
    num_output: 208
    pad: 1
    kernel_size: 3
    weight_filler {
      type: "xavier"
      std: 0.03
    }
    bias_filler {
      type: "constant"
      value: 0.2
    }
  }
}
layer {
  name: "inception_4a/relu_3x3"
  type: "ReLU"
  bottom: "inception_4a/3x3"
  top: "inception_4a/3x3"
}
layer {
  name: "inception_4a/5x5_reduce"
  type: "Convolution"
  bottom: "pool3/3x3_s2"
  top: "inception_4a/5x5_reduce"
  param {
    lr_mult: 1
    decay_mult: 1
  }
  param {
    lr_mult: 2
    decay_mult: 0
  }
  convolution_param {
    num_output: 16
    kernel_size: 1
    weight_filler {
      type: "xavier"
      std: 0.2
    }
    bias_filler {
      type: "constant"
      value: 0.2
    }
  }
}
layer {
  name: "inception_4a/relu_5x5_reduce"
  type: "ReLU"
  bottom: "inception_4a/5x5_reduce"
  top: "inception_4a/5x5_reduce"
}
layer {
  name: "inception_4a/5x5"
  type: "Convolution"
  bottom: "inception_4a/5x5_reduce"
  top: "inception_4a/5x5"
  param {
    lr_mult: 1
    decay_mult: 1
  }
  param {
    lr_mult: 2
    decay_mult: 0
  }
  convolution_param {
    num_output: 48
    pad: 2
    kernel_size: 5
    weight_filler {
      type: "xavier"
      std: 0.03
    }
    bias_filler {
      type: "constant"
      value: 0.2
    }
  }
}
layer {
  name: "inception_4a/relu_5x5"
  type: "ReLU"
  bottom: "inception_4a/5x5"
  top: "inception_4a/5x5"
}
layer {
  name: "inception_4a/pool"
  type: "Pooling"
  bottom: "pool3/3x3_s2"
  top: "inception_4a/pool"
  pooling_param {
    pool: MAX
    kernel_size: 3
    stride: 1
    pad: 1
  }
}
layer {
  name: "inception_4a/pool_proj"
  type: "Convolution"
  bottom: "inception_4a/pool"
  top: "inception_4a/pool_proj"
  param {
    lr_mult: 1
    decay_mult: 1
  }
  param {
    lr_mult: 2
    decay_mult: 0
  }
  convolution_param {
    num_output: 64
    kernel_size: 1
    weight_filler {
      type: "xavier"
      std: 0.1
    }
    bias_filler {
      type: "constant"
      value: 0.2
    }
  }
}
layer {
  name: "inception_4a/relu_pool_proj"
  type: "ReLU"
  bottom: "inception_4a/pool_proj"
  top: "inception_4a/pool_proj"
}
layer {
  name: "inception_4a/output"
  type: "Concat"
  bottom: "inception_4a/1x1"
  bottom: "inception_4a/3x3"
  bottom: "inception_4a/5x5"
  bottom: "inception_4a/pool_proj"
  top: "inception_4a/output"
}
layer {
  name: "inception_4b/1x1"
  type: "Convolution"
  bottom: "inception_4a/output"
  top: "inception_4b/1x1"
  param {
    lr_mult: 1
    decay_mult: 1
  }
  param {
    lr_mult: 2
    decay_mult: 0
  }
  convolution_param {
    num_output: 160
    kernel_size: 1
    weight_filler {
      type: "xavier"
      std: 0.03
    }
    bias_filler {
      type: "constant"
      value: 0.2
    }
  }
}
layer {
  name: "inception_4b/relu_1x1"
  type: "ReLU"
  bottom: "inception_4b/1x1"
  top: "inception_4b/1x1"
}
layer {
  name: "inception_4b/3x3_reduce"
  type: "Convolution"
  bottom: "inception_4a/output"
  top: "inception_4b/3x3_reduce"
  param {
    lr_mult: 1
    decay_mult: 1
  }
  param {
    lr_mult: 2
    decay_mult: 0
  }
  convolution_param {
    num_output: 112
    kernel_size: 1
    weight_filler {
      type: "xavier"
      std: 0.09
    }
    bias_filler {
      type: "constant"
      value: 0.2
    }
  }
}
layer {
  name: "inception_4b/relu_3x3_reduce"
  type: "ReLU"
  bottom: "inception_4b/3x3_reduce"
  top: "inception_4b/3x3_reduce"
}
layer {
  name: "inception_4b/3x3"
  type: "Convolution"
  bottom: "inception_4b/3x3_reduce"
  top: "inception_4b/3x3"
  param {
    lr_mult: 1
    decay_mult: 1
  }
  param {
    lr_mult: 2
    decay_mult: 0
  }
  convolution_param {
    num_output: 224
    pad: 1
    kernel_size: 3
    weight_filler {
      type: "xavier"
      std: 0.03
    }
    bias_filler {
      type: "constant"
      value: 0.2
    }
  }
}
layer {
  name: "inception_4b/relu_3x3"
  type: "ReLU"
  bottom: "inception_4b/3x3"
  top: "inception_4b/3x3"
}
layer {
  name: "inception_4b/5x5_reduce"
  type: "Convolution"
  bottom: "inception_4a/output"
  top: "inception_4b/5x5_reduce"
  param {
    lr_mult: 1
    decay_mult: 1
  }
  param {
    lr_mult: 2
    decay_mult: 0
  }
  convolution_param {
    num_output: 24
    kernel_size: 1
    weight_filler {
      type: "xavier"
      std: 0.2
    }
    bias_filler {
      type: "constant"
      value: 0.2
    }
  }
}
layer {
  name: "inception_4b/relu_5x5_reduce"
  type: "ReLU"
  bottom: "inception_4b/5x5_reduce"
  top: "inception_4b/5x5_reduce"
}
layer {
  name: "inception_4b/5x5"
  type: "Convolution"
  bottom: "inception_4b/5x5_reduce"
  top: "inception_4b/5x5"
  param {
    lr_mult: 1
    decay_mult: 1
  }
  param {
    lr_mult: 2
    decay_mult: 0
  }
  convolution_param {
    num_output: 64
    pad: 2
    kernel_size: 5
    weight_filler {
      type: "xavier"
      std: 0.03
    }
    bias_filler {
      type: "constant"
      value: 0.2
    }
  }
}
layer {
  name: "inception_4b/relu_5x5"
  type: "ReLU"
  bottom: "inception_4b/5x5"
  top: "inception_4b/5x5"
}
layer {
  name: "inception_4b/pool"
  type: "Pooling"
  bottom: "inception_4a/output"
  top: "inception_4b/pool"
  pooling_param {
    pool: MAX
    kernel_size: 3
    stride: 1
    pad: 1
  }
}
layer {
  name: "inception_4b/pool_proj"
  type: "Convolution"
  bottom: "inception_4b/pool"
  top: "inception_4b/pool_proj"
  param {
    lr_mult: 1
    decay_mult: 1
  }
  param {
    lr_mult: 2
    decay_mult: 0
  }
  convolution_param {
    num_output: 64
    kernel_size: 1
    weight_filler {
      type: "xavier"
      std: 0.1
    }
    bias_filler {
      type: "constant"
      value: 0.2
    }
  }
}
layer {
  name: "inception_4b/relu_pool_proj"
  type: "ReLU"
  bottom: "inception_4b/pool_proj"
  top: "inception_4b/pool_proj"
}
layer {
  name: "inception_4b/output"
  type: "Concat"
  bottom: "inception_4b/1x1"
  bottom: "inception_4b/3x3"
  bottom: "inception_4b/5x5"
  bottom: "inception_4b/pool_proj"
  top: "inception_4b/output"
}
layer {
  name: "inception_4c/1x1"
  type: "Convolution"
  bottom: "inception_4b/output"
  top: "inception_4c/1x1"
  param {
    lr_mult: 1
    decay_mult: 1
  }
  param {
    lr_mult: 2
    decay_mult: 0
  }
  convolution_param {
    num_output: 128
    kernel_size: 1
    weight_filler {
      type: "xavier"
      std: 0.03
    }
    bias_filler {
      type: "constant"
      value: 0.2
    }
  }
}
layer {
  name: "inception_4c/relu_1x1"
  type: "ReLU"
  bottom: "inception_4c/1x1"
  top: "inception_4c/1x1"
}
layer {
  name: "inception_4c/3x3_reduce"
  type: "Convolution"
  bottom: "inception_4b/output"
  top: "inception_4c/3x3_reduce"
  param {
    lr_mult: 1
    decay_mult: 1
  }
  param {
    lr_mult: 2
    decay_mult: 0
  }
  convolution_param {
    num_output: 128
    kernel_size: 1
    weight_filler {
      type: "xavier"
      std: 0.09
    }
    bias_filler {
      type: "constant"
      value: 0.2
    }
  }
}
layer {
  name: "inception_4c/relu_3x3_reduce"
  type: "ReLU"
  bottom: "inception_4c/3x3_reduce"
  top: "inception_4c/3x3_reduce"
}
layer {
  name: "inception_4c/3x3"
  type: "Convolution"
  bottom: "inception_4c/3x3_reduce"
  top: "inception_4c/3x3"
  param {
    lr_mult: 1
    decay_mult: 1
  }
  param {
    lr_mult: 2
    decay_mult: 0
  }
  convolution_param {
    num_output: 256
    pad: 1
    kernel_size: 3
    weight_filler {
      type: "xavier"
      std: 0.03
    }
    bias_filler {
      type: "constant"
      value: 0.2
    }
  }
}
layer {
  name: "inception_4c/relu_3x3"
  type: "ReLU"
  bottom: "inception_4c/3x3"
  top: "inception_4c/3x3"
}
layer {
  name: "inception_4c/5x5_reduce"
  type: "Convolution"
  bottom: "inception_4b/output"
  top: "inception_4c/5x5_reduce"
  param {
    lr_mult: 1
    decay_mult: 1
  }
  param {
    lr_mult: 2
    decay_mult: 0
  }
  convolution_param {
    num_output: 24
    kernel_size: 1
    weight_filler {
      type: "xavier"
      std: 0.2
    }
    bias_filler {
      type: "constant"
      value: 0.2
    }
  }
}
layer {
  name: "inception_4c/relu_5x5_reduce"
  type: "ReLU"
  bottom: "inception_4c/5x5_reduce"
  top: "inception_4c/5x5_reduce"
}
layer {
  name: "inception_4c/5x5"
  type: "Convolution"
  bottom: "inception_4c/5x5_reduce"
  top: "inception_4c/5x5"
  param {
    lr_mult: 1
    decay_mult: 1
  }
  param {
    lr_mult: 2
    decay_mult: 0
  }
  convolution_param {
    num_output: 64
    pad: 2
    kernel_size: 5
    weight_filler {
      type: "xavier"
      std: 0.03
    }
    bias_filler {
      type: "constant"
      value: 0.2
    }
  }
}
layer {
  name: "inception_4c/relu_5x5"
  type: "ReLU"
  bottom: "inception_4c/5x5"
  top: "inception_4c/5x5"
}
layer {
  name: "inception_4c/pool"
  type: "Pooling"
  bottom: "inception_4b/output"
  top: "inception_4c/pool"
  pooling_param {
    pool: MAX
    kernel_size: 3
    stride: 1
    pad: 1
  }
}
layer {
  name: "inception_4c/pool_proj"
  type: "Convolution"
  bottom: "inception_4c/pool"
  top: "inception_4c/pool_proj"
  param {
    lr_mult: 1
    decay_mult: 1
  }
  param {
    lr_mult: 2
    decay_mult: 0
  }
  convolution_param {
    num_output: 64
    kernel_size: 1
    weight_filler {
      type: "xavier"
      std: 0.1
    }
    bias_filler {
      type: "constant"
      value: 0.2
    }
  }
}
layer {
  name: "inception_4c/relu_pool_proj"
  type: "ReLU"
  bottom: "inception_4c/pool_proj"
  top: "inception_4c/pool_proj"
}
layer {
  name: "inception_4c/output"
  type: "Concat"
  bottom: "inception_4c/1x1"
  bottom: "inception_4c/3x3"
  bottom: "inception_4c/5x5"
  bottom: "inception_4c/pool_proj"
  top: "inception_4c/output"
}
layer {
  name: "inception_4d/1x1"
  type: "Convolution"
  bottom: "inception_4c/output"
  top: "inception_4d/1x1"
  param {
    lr_mult: 1
    decay_mult: 1
  }
  param {
    lr_mult: 2
    decay_mult: 0
  }
  convolution_param {
    num_output: 112
    kernel_size: 1
    weight_filler {
      type: "xavier"
      std: 0.03
    }
    bias_filler {
      type: "constant"
      value: 0.2
    }
  }
}
layer {
  name: "inception_4d/relu_1x1"
  type: "ReLU"
  bottom: "inception_4d/1x1"
  top: "inception_4d/1x1"
}
layer {
  name: "inception_4d/3x3_reduce"
  type: "Convolution"
  bottom: "inception_4c/output"
  top: "inception_4d/3x3_reduce"
  param {
    lr_mult: 1
    decay_mult: 1
  }
  param {
    lr_mult: 2
    decay_mult: 0
  }
  convolution_param {
    num_output: 144
    kernel_size: 1
    weight_filler {
      type: "xavier"
      std: 0.09
    }
    bias_filler {
      type: "constant"
      value: 0.2
    }
  }
}
layer {
  name: "inception_4d/relu_3x3_reduce"
  type: "ReLU"
  bottom: "inception_4d/3x3_reduce"
  top: "inception_4d/3x3_reduce"
}
layer {
  name: "inception_4d/3x3"
  type: "Convolution"
  bottom: "inception_4d/3x3_reduce"
  top: "inception_4d/3x3"
  param {
    lr_mult: 1
    decay_mult: 1
  }
  param {
    lr_mult: 2
    decay_mult: 0
  }
  convolution_param {
    num_output: 288
    pad: 1
    kernel_size: 3
    weight_filler {
      type: "xavier"
      std: 0.03
    }
    bias_filler {
      type: "constant"
      value: 0.2
    }
  }
}
layer {
  name: "inception_4d/relu_3x3"
  type: "ReLU"
  bottom: "inception_4d/3x3"
  top: "inception_4d/3x3"
}
layer {
  name: "inception_4d/5x5_reduce"
  type: "Convolution"
  bottom: "inception_4c/output"
  top: "inception_4d/5x5_reduce"
  param {
    lr_mult: 1
    decay_mult: 1
  }
  param {
    lr_mult: 2
    decay_mult: 0
  }
  convolution_param {
    num_output: 32
    kernel_size: 1
    weight_filler {
      type: "xavier"
      std: 0.2
    }
    bias_filler {
      type: "constant"
      value: 0.2
    }
  }
}
layer {
  name: "inception_4d/relu_5x5_reduce"
  type: "ReLU"
  bottom: "inception_4d/5x5_reduce"
  top: "inception_4d/5x5_reduce"
}
layer {
  name: "inception_4d/5x5"
  type: "Convolution"
  bottom: "inception_4d/5x5_reduce"
  top: "inception_4d/5x5"
  param {
    lr_mult: 1
    decay_mult: 1
  }
  param {
    lr_mult: 2
    decay_mult: 0
  }
  convolution_param {
    num_output: 64
    pad: 2
    kernel_size: 5
    weight_filler {
      type: "xavier"
      std: 0.03
    }
    bias_filler {
      type: "constant"
      value: 0.2
    }
  }
}
layer {
  name: "inception_4d/relu_5x5"
  type: "ReLU"
  bottom: "inception_4d/5x5"
  top: "inception_4d/5x5"
}
layer {
  name: "inception_4d/pool"
  type: "Pooling"
  bottom: "inception_4c/output"
  top: "inception_4d/pool"
  pooling_param {
    pool: MAX
    kernel_size: 3
    stride: 1
    pad: 1
  }
}
layer {
  name: "inception_4d/pool_proj"
  type: "Convolution"
  bottom: "inception_4d/pool"
  top: "inception_4d/pool_proj"
  param {
    lr_mult: 1
    decay_mult: 1
  }
  param {
    lr_mult: 2
    decay_mult: 0
  }
  convolution_param {
    num_output: 64
    kernel_size: 1
    weight_filler {
      type: "xavier"
      std: 0.1
    }
    bias_filler {
      type: "constant"
      value: 0.2
    }
  }
}
layer {
  name: "inception_4d/relu_pool_proj"
  type: "ReLU"
  bottom: "inception_4d/pool_proj"
  top: "inception_4d/pool_proj"
}
layer {
  name: "inception_4d/output"
  type: "Concat"
  bottom: "inception_4d/1x1"
  bottom: "inception_4d/3x3"
  bottom: "inception_4d/5x5"
  bottom: "inception_4d/pool_proj"
  top: "inception_4d/output"
}
layer {
  name: "inception_4e/1x1"
  type: "Convolution"
  bottom: "inception_4d/output"
  top: "inception_4e/1x1"
  param {
    lr_mult: 1
    decay_mult: 1
  }
  param {
    lr_mult: 2
    decay_mult: 0
  }
  convolution_param {
    num_output: 256
    kernel_size: 1
    weight_filler {
      type: "xavier"
      std: 0.03
    }
    bias_filler {
      type: "constant"
      value: 0.2
    }
  }
}
layer {
  name: "inception_4e/relu_1x1"
  type: "ReLU"
  bottom: "inception_4e/1x1"
  top: "inception_4e/1x1"
}
layer {
  name: "inception_4e/3x3_reduce"
  type: "Convolution"
  bottom: "inception_4d/output"
  top: "inception_4e/3x3_reduce"
  param {
    lr_mult: 1
    decay_mult: 1
  }
  param {
    lr_mult: 2
    decay_mult: 0
  }
  convolution_param {
    num_output: 160
    kernel_size: 1
    weight_filler {
      type: "xavier"
      std: 0.09
    }
    bias_filler {
      type: "constant"
      value: 0.2
    }
  }
}
layer {
  name: "inception_4e/relu_3x3_reduce"
  type: "ReLU"
  bottom: "inception_4e/3x3_reduce"
  top: "inception_4e/3x3_reduce"
}
layer {
  name: "inception_4e/3x3"
  type: "Convolution"
  bottom: "inception_4e/3x3_reduce"
  top: "inception_4e/3x3"
  param {
    lr_mult: 1
    decay_mult: 1
  }
  param {
    lr_mult: 2
    decay_mult: 0
  }
  convolution_param {
    num_output: 320
    pad: 1
    kernel_size: 3
    weight_filler {
      type: "xavier"
      std: 0.03
    }
    bias_filler {
      type: "constant"
      value: 0.2
    }
  }
}
layer {
  name: "inception_4e/relu_3x3"
  type: "ReLU"
  bottom: "inception_4e/3x3"
  top: "inception_4e/3x3"
}
layer {
  name: "inception_4e/5x5_reduce"
  type: "Convolution"
  bottom: "inception_4d/output"
  top: "inception_4e/5x5_reduce"
  param {
    lr_mult: 1
    decay_mult: 1
  }
  param {
    lr_mult: 2
    decay_mult: 0
  }
  convolution_param {
    num_output: 32
    kernel_size: 1
    weight_filler {
      type: "xavier"
      std: 0.2
    }
    bias_filler {
      type: "constant"
      value: 0.2
    }
  }
}
layer {
  name: "inception_4e/relu_5x5_reduce"
  type: "ReLU"
  bottom: "inception_4e/5x5_reduce"
  top: "inception_4e/5x5_reduce"
}
layer {
  name: "inception_4e/5x5"
  type: "Convolution"
  bottom: "inception_4e/5x5_reduce"
  top: "inception_4e/5x5"
  param {
    lr_mult: 1
    decay_mult: 1
  }
  param {
    lr_mult: 2
    decay_mult: 0
  }
  convolution_param {
    num_output: 128
    pad: 2
    kernel_size: 5
    weight_filler {
      type: "xavier"
      std: 0.03
    }
    bias_filler {
      type: "constant"
      value: 0.2
    }
  }
}
layer {
  name: "inception_4e/relu_5x5"
  type: "ReLU"
  bottom: "inception_4e/5x5"
  top: "inception_4e/5x5"
}
layer {
  name: "inception_4e/pool"
  type: "Pooling"
  bottom: "inception_4d/output"
  top: "inception_4e/pool"
  pooling_param {
    pool: MAX
    kernel_size: 3
    stride: 1
    pad: 1
  }
}
layer {
  name: "inception_4e/pool_proj"
  type: "Convolution"
  bottom: "inception_4e/pool"
  top: "inception_4e/pool_proj"
  param {
    lr_mult: 1
    decay_mult: 1
  }
  param {
    lr_mult: 2
    decay_mult: 0
  }
  convolution_param {
    num_output: 128
    kernel_size: 1
    weight_filler {
      type: "xavier"
      std: 0.1
    }
    bias_filler {
      type: "constant"
      value: 0.2
    }
  }
}
layer {
  name: "inception_4e/relu_pool_proj"
  type: "ReLU"
  bottom: "inception_4e/pool_proj"
  top: "inception_4e/pool_proj"
}
layer {
  name: "inception_4e/output"
  type: "Concat"
  bottom: "inception_4e/1x1"
  bottom: "inception_4e/3x3"
  bottom: "inception_4e/5x5"
  bottom: "inception_4e/pool_proj"
  top: "inception_4e/output"
}
layer {
  name: "pool4/3x3_s2"
  type: "Pooling"
  bottom: "inception_4e/output"
  top: "pool4/3x3_s2"
  pooling_param {
    pool: MAX
    kernel_size: 3
    stride: 2
  }
}
layer {
  name: "inception_5a/1x1"
  type: "Convolution"
  bottom: "pool4/3x3_s2"
  top: "inception_5a/1x1"
  param {
    lr_mult: 1
    decay_mult: 1
  }
  param {
    lr_mult: 2
    decay_mult: 0
  }
  convolution_param {
    num_output: 256
    kernel_size: 1
    weight_filler {
      type: "xavier"
      std: 0.03
    }
    bias_filler {
      type: "constant"
      value: 0.2
    }
  }
}
layer {
  name: "inception_5a/relu_1x1"
  type: "ReLU"
  bottom: "inception_5a/1x1"
  top: "inception_5a/1x1"
}
layer {
  name: "inception_5a/3x3_reduce"
  type: "Convolution"
  bottom: "pool4/3x3_s2"
  top: "inception_5a/3x3_reduce"
  param {
    lr_mult: 1
    decay_mult: 1
  }
  param {
    lr_mult: 2
    decay_mult: 0
  }
  convolution_param {
    num_output: 160
    kernel_size: 1
    weight_filler {
      type: "xavier"
      std: 0.09
    }
    bias_filler {
      type: "constant"
      value: 0.2
    }
  }
}
layer {
  name: "inception_5a/relu_3x3_reduce"
  type: "ReLU"
  bottom: "inception_5a/3x3_reduce"
  top: "inception_5a/3x3_reduce"
}
layer {
  name: "inception_5a/3x3"
  type: "Convolution"
  bottom: "inception_5a/3x3_reduce"
  top: "inception_5a/3x3"
  param {
    lr_mult: 1
    decay_mult: 1
  }
  param {
    lr_mult: 2
    decay_mult: 0
  }
  convolution_param {
    num_output: 320
    pad: 1
    kernel_size: 3
    weight_filler {
      type: "xavier"
      std: 0.03
    }
    bias_filler {
      type: "constant"
      value: 0.2
    }
  }
}
layer {
  name: "inception_5a/relu_3x3"
  type: "ReLU"
  bottom: "inception_5a/3x3"
  top: "inception_5a/3x3"
}
layer {
  name: "inception_5a/5x5_reduce"
  type: "Convolution"
  bottom: "pool4/3x3_s2"
  top: "inception_5a/5x5_reduce"
  param {
    lr_mult: 1
    decay_mult: 1
  }
  param {
    lr_mult: 2
    decay_mult: 0
  }
  convolution_param {
    num_output: 32
    kernel_size: 1
    weight_filler {
      type: "xavier"
      std: 0.2
    }
    bias_filler {
      type: "constant"
      value: 0.2
    }
I0714 22:17:53.041898 29079 layer_factory.hpp:77] Creating layer data
I0714 22:17:53.041929 29079 net.cpp:91] Creating Layer data
I0714 22:17:53.041940 29079 net.cpp:399] data -> data
I0714 22:17:53.052672 29083 net.cpp:49] Initializing net from parameters: 
name: "GoogleNet"
state {
  phase: TEST
}
layer {
  name: "data"
  type: "Input"
  top: "data"
  input_param {
    shape {
      dim: 10
      dim: 3
      dim: 224
      dim: 224
    }
  }
}
layer {
  name: "conv1/7x7_s2"
  type: "Convolution"
  bottom: "data"
  top: "conv1/7x7_s2"
  param {
    lr_mult: 1
    decay_mult: 1
  }
  param {
    lr_mult: 2
    decay_mult: 0
  }
  convolution_param {
    num_output: 64
    pad: 3
    kernel_size: 7
    stride: 2
    weight_filler {
      type: "xavier"
      std: 0.1
    }
    bias_filler {
      type: "constant"
      value: 0.2
    }
  }
}
layer {
  name: "conv1/relu_7x7"
  type: "ReLU"
  bottom: "conv1/7x7_s2"
  top: "conv1/7x7_s2"
}
layer {
  name: "pool1/3x3_s2"
  type: "Pooling"
  bottom: "conv1/7x7_s2"
  top: "pool1/3x3_s2"
  pooling_param {
    pool: MAX
    kernel_size: 3
    stride: 2
  }
}
layer {
  name: "pool1/norm1"
  type: "LRN"
  bottom: "pool1/3x3_s2"
  top: "pool1/norm1"
  lrn_param {
    local_size: 5
    alpha: 0.0001
    beta: 0.75
  }
}
layer {
  name: "conv2/3x3_reduce"
  type: "Convolution"
  bottom: "pool1/norm1"
  top: "conv2/3x3_reduce"
  param {
    lr_mult: 1
    decay_mult: 1
  }
  param {
    lr_mult: 2
    decay_mult: 0
  }
  convolution_param {
    num_output: 64
    kernel_size: 1
    weight_filler {
      type: "xavier"
      std: 0.1
    }
    bias_filler {
      type: "constant"
      value: 0.2
    }
  }
}
layer {
  name: "conv2/relu_3x3_reduce"
  type: "ReLU"
  bottom: "conv2/3x3_reduce"
  top: "conv2/3x3_reduce"
}
layer {
  name: "conv2/3x3"
  type: "Convolution"
  bottom: "conv2/3x3_reduce"
  top: "conv2/3x3"
  param {
    lr_mult: 1
    decay_mult: 1
  }
  param {
    lr_mult: 2
    decay_mult: 0
  }
  convolution_param {
    num_output: 192
    pad: 1
    kernel_size: 3
    weight_filler {
      type: "xavier"
      std: 0.03
    }
    bias_filler {
      type: "constant"
      value: 0.2
    }
  }
}
layer {
  name: "conv2/relu_3x3"
  type: "ReLU"
  bottom: "conv2/3x3"
  top: "conv2/3x3"
}
layer {
  name: "conv2/norm2"
  type: "LRN"
  bottom: "conv2/3x3"
  top: "conv2/norm2"
  lrn_param {
    local_size: 5
    alpha: 0.0001
    beta: 0.75
  }
}
layer {
  name: "pool2/3x3_s2"
  type: "Pooling"
  bottom: "conv2/norm2"
  top: "pool2/3x3_s2"
  pooling_param {
    pool: MAX
    kernel_size: 3
    stride: 2
  }
}
layer {
  name: "inception_3a/1x1"
  type: "Convolution"
  bottom: "pool2/3x3_s2"
  top: "inception_3a/1x1"
  param {
    lr_mult: 1
    decay_mult: 1
  }
  param {
    lr_mult: 2
    decay_mult: 0
  }
  convolution_param {
    num_output: 64
    kernel_size: 1
    weight_filler {
      type: "xavier"
      std: 0.03
    }
    bias_filler {
      type: "constant"
      value: 0.2
    }
  }
}
layer {
  name: "inception_3a/relu_1x1"
  type: "ReLU"
  bottom: "inception_3a/1x1"
  top: "inception_3a/1x1"
}
layer {
  name: "inception_3a/3x3_reduce"
  type: "Convolution"
  bottom: "pool2/3x3_s2"
  top: "inception_3a/3x3_reduce"
  param {
    lr_mult: 1
    decay_mult: 1
  }
  param {
    lr_mult: 2
    decay_mult: 0
  }
  convolution_param {
    num_output: 96
    kernel_size: 1
    weight_filler {
      type: "xavier"
      std: 0.09
    }
    bias_filler {
      type: "constant"
      value: 0.2
    }
  }
}
layer {
  name: "inception_3a/relu_3x3_reduce"
  type: "ReLU"
  bottom: "inception_3a/3x3_reduce"
  top: "inception_3a/3x3_reduce"
}
layer {
  name: "inception_3a/3x3"
  type: "Convolution"
  bottom: "inception_3a/3x3_reduce"
  top: "inception_3a/3x3"
  param {
    lr_mult: 1
    decay_mult: 1
  }
  param {
    lr_mult: 2
    decay_mult: 0
  }
  convolution_param {
    num_output: 128
    pad: 1
    kernel_size: 3
    weight_filler {
      type: "xavier"
      std: 0.03
    }
    bias_filler {
      type: "constant"
      value: 0.2
    }
  }
}
layer {
  name: "inception_3a/relu_3x3"
  type: "ReLU"
  bottom: "inception_3a/3x3"
  top: "inception_3a/3x3"
}
layer {
  name: "inception_3a/5x5_reduce"
  type: "Convolution"
  bottom: "pool2/3x3_s2"
  top: "inception_3a/5x5_reduce"
  param {
    lr_mult: 1
    decay_mult: 1
  }
  param {
    lr_mult: 2
    decay_mult: 0
  }
  convolution_param {
    num_output: 16
    kernel_size: 1
    weight_filler {
      type: "xavier"
      std: 0.2
    }
    bias_filler {
      type: "constant"
      value: 0.2
    }
  }
}
layer {
  name: "inception_3a/relu_5x5_reduce"
  type: "ReLU"
  bottom: "inception_3a/5x5_reduce"
  top: "inception_3a/5x5_reduce"
}
layer {
  name: "inception_3a/5x5"
  type: "Convolution"
  bottom: "inception_3a/5x5_reduce"
  top: "inception_3a/5x5"
  param {
    lr_mult: 1
    decay_mult: 1
  }
  param {
    lr_mult: 2
    decay_mult: 0
  }
  convolution_param {
    num_output: 32
    pad: 2
    kernel_size: 5
    weight_filler {
      type: "xavier"
      std: 0.03
    }
    bias_filler {
      type: "constant"
      value: 0.2
    }
  }
}
layer {
  name: "inception_3a/relu_5x5"
  type: "ReLU"
  bottom: "inception_3a/5x5"
  top: "inception_3a/5x5"
}
layer {
  name: "inception_3a/pool"
  type: "Pooling"
  bottom: "pool2/3x3_s2"
  top: "inception_3a/pool"
  pooling_param {
    pool: MAX
    kernel_size: 3
    stride: 1
    pad: 1
  }
}
layer {
  name: "inception_3a/pool_proj"
  type: "Convolution"
  bottom: "inception_3a/pool"
  top: "inception_3a/pool_proj"
  param {
    lr_mult: 1
    decay_mult: 1
  }
  param {
    lr_mult: 2
    decay_mult: 0
  }
  convolution_param {
    num_output: 32
    kernel_size: 1
    weight_filler {
      type: "xavier"
      std: 0.1
    }
    bias_filler {
      type: "constant"
      value: 0.2
    }
  }
}
layer {
  name: "inception_3a/relu_pool_proj"
  type: "ReLU"
  bottom: "inception_3a/pool_proj"
  top: "inception_3a/pool_proj"
}
layer {
  name: "inception_3a/output"
  type: "Concat"
  bottom: "inception_3a/1x1"
  bottom: "inception_3a/3x3"
  bottom: "inception_3a/5x5"
  bottom: "inception_3a/pool_proj"
  top: "inception_3a/output"
}
layer {
  name: "inception_3b/1x1"
  type: "Convolution"
  bottom: "inception_3a/output"
  top: "inception_3b/1x1"
  param {
    lr_mult: 1
    decay_mult: 1
  }
  param {
    lr_mult: 2
    decay_mult: 0
  }
  convolution_param {
    num_output: 128
    kernel_size: 1
    weight_filler {
      type: "xavier"
      std: 0.03
    }
    bias_filler {
      type: "constant"
      value: 0.2
    }
  }
}
layer {
  name: "inception_3b/relu_1x1"
  type: "ReLU"
  bottom: "inception_3b/1x1"
  top: "inception_3b/1x1"
}
layer {
  name: "inception_3b/3x3_reduce"
  type: "Convolution"
  bottom: "inception_3a/output"
  top: "inception_3b/3x3_reduce"
  param {
    lr_mult: 1
    decay_mult: 1
  }
  param {
    lr_mult: 2
    decay_mult: 0
  }
  convolution_param {
    num_output: 128
    kernel_size: 1
    weight_filler {
      type: "xavier"
      std: 0.09
    }
    bias_filler {
      type: "constant"
      value: 0.2
    }
  }
}
layer {
  name: "inception_3b/relu_3x3_reduce"
  type: "ReLU"
  bottom: "inception_3b/3x3_reduce"
  top: "inception_3b/3x3_reduce"
}
layer {
  name: "inception_3b/3x3"
  type: "Convolution"
  bottom: "inception_3b/3x3_reduce"
  top: "inception_3b/3x3"
  param {
    lr_mult: 1
    decay_mult: 1
  }
  param {
    lr_mult: 2
    decay_mult: 0
  }
  convolution_param {
    num_output: 192
    pad: 1
    kernel_size: 3
    weight_filler {
      type: "xavier"
      std: 0.03
    }
    bias_filler {
      type: "constant"
      value: 0.2
    }
  }
}
layer {
  name: "inception_3b/relu_3x3"
  type: "ReLU"
  bottom: "inception_3b/3x3"
  top: "inception_3b/3x3"
}
layer {
  name: "inception_3b/5x5_reduce"
  type: "Convolution"
  bottom: "inception_3a/output"
  top: "inception_3b/5x5_reduce"
  param {
    lr_mult: 1
    decay_mult: 1
  }
  param {
    lr_mult: 2
    decay_mult: 0
  }
  convolution_param {
    num_output: 32
    kernel_size: 1
    weight_filler {
      type: "xavier"
      std: 0.2
    }
    bias_filler {
      type: "constant"
      value: 0.2
    }
  }
}
layer {
  name: "inception_3b/relu_5x5_reduce"
  type: "ReLU"
  bottom: "inception_3b/5x5_reduce"
  top: "inception_3b/5x5_reduce"
}
layer {
  name: "inception_3b/5x5"
  type: "Convolution"
  bottom: "inception_3b/5x5_reduce"
  top: "inception_3b/5x5"
  param {
    lr_mult: 1
    decay_mult: 1
  }
  param {
    lr_mult: 2
    decay_mult: 0
  }
  convolution_param {
    num_output: 96
    pad: 2
    kernel_size: 5
    weight_filler {
      type: "xavier"
      std: 0.03
    }
    bias_filler {
      type: "constant"
      value: 0.2
    }
  }
}
layer {
  name: "inception_3b/relu_5x5"
  type: "ReLU"
  bottom: "inception_3b/5x5"
  top: "inception_3b/5x5"
}
layer {
  name: "inception_3b/pool"
  type: "Pooling"
  bottom: "inception_3a/output"
  top: "inception_3b/pool"
  pooling_param {
    pool: MAX
    kernel_size: 3
    stride: 1
    pad: 1
  }
}
layer {
  name: "inception_3b/pool_proj"
  type: "Convolution"
  bottom: "inception_3b/pool"
  top: "inception_3b/pool_proj"
  param {
    lr_mult: 1
    decay_mult: 1
  }
  param {
    lr_mult: 2
    decay_mult: 0
  }
  convolution_param {
    num_output: 64
    kernel_size: 1
    weight_filler {
      type: "xavier"
      std: 0.1
    }
    bias_filler {
      type: "constant"
      value: 0.2
    }
  }
}
layer {
  name: "inception_3b/relu_pool_proj"
  type: "ReLU"
  bottom: "inception_3b/pool_proj"
  top: "inception_3b/pool_proj"
}
layer {
  name: "inception_3b/output"
  type: "Concat"
  bottom: "inception_3b/1x1"
  bottom: "inception_3b/3x3"
  bottom: "inception_3b/5x5"
  bottom: "inception_3b/pool_proj"
  top: "inception_3b/output"
}
layer {
  name: "pool3/3x3_s2"
  type: "Pooling"
  bottom: "inception_3b/output"
  top: "pool3/3x3_s2"
  pooling_param {
    pool: MAX
    kernel_size: 3
    stride: 2
  }
}
layer {
  name: "inception_4a/1x1"
  type: "Convolution"
  bottom: "pool3/3x3_s2"
  top: "inception_4a/1x1"
  param {
    lr_mult: 1
    decay_mult: 1
  }
  param {
    lr_mult: 2
    decay_mult: 0
  }
  convolution_param {
    num_output: 192
    kernel_size: 1
    weight_filler {
      type: "xavier"
      std: 0.03
    }
    bias_filler {
      type: "constant"
      value: 0.2
    }
  }
}
layer {
  name: "inception_4a/relu_1x1"
  type: "ReLU"
  bottom: "inception_4a/1x1"
  top: "inception_4a/1x1"
}
layer {
  name: "inception_4a/3x3_reduce"
  type: "Convolution"
  bottom: "pool3/3x3_s2"
  top: "inception_4a/3x3_reduce"
  param {
    lr_mult: 1
    decay_mult: 1
  }
  param {
    lr_mult: 2
    decay_mult: 0
  }
  convolution_param {
    num_output: 96
    kernel_size: 1
    weight_filler {
      type: "xavier"
      std: 0.09
    }
    bias_filler {
      type: "constant"
      value: 0.2
    }
  }
}
layer {
  name: "inception_4a/relu_3x3_reduce"
  type: "ReLU"
  bottom: "inception_4a/3x3_reduce"
  top: "inception_4a/3x3_reduce"
}
layer {
  name: "inception_4a/3x3"
  type: "Convolution"
  bottom: "inception_4a/3x3_reduce"
  top: "inception_4a/3x3"
  param {
    lr_mult: 1
    decay_mult: 1
  }
  param {
    lr_mult: 2
    decay_mult: 0
  }
  convolution_param {
    num_output: 208
    pad: 1
    kernel_size: 3
    weight_filler {
      type: "xavier"
      std: 0.03
    }
    bias_filler {
      type: "constant"
      value: 0.2
    }
  }
}
layer {
  name: "inception_4a/relu_3x3"
  type: "ReLU"
  bottom: "inception_4a/3x3"
  top: "inception_4a/3x3"
}
layer {
  name: "inception_4a/5x5_reduce"
  type: "Convolution"
  bottom: "pool3/3x3_s2"
  top: "inception_4a/5x5_reduce"
  param {
    lr_mult: 1
    decay_mult: 1
  }
  param {
    lr_mult: 2
    decay_mult: 0
  }
  convolution_param {
    num_output: 16
    kernel_size: 1
    weight_filler {
      type: "xavier"
      std: 0.2
    }
    bias_filler {
      type: "constant"
      value: 0.2
    }
  }
}
layer {
  name: "inception_4a/relu_5x5_reduce"
  type: "ReLU"
  bottom: "inception_4a/5x5_reduce"
  top: "inception_4a/5x5_reduce"
}
layer {
  name: "inception_4a/5x5"
  type: "Convolution"
  bottom: "inception_4a/5x5_reduce"
  top: "inception_4a/5x5"
  param {
    lr_mult: 1
    decay_mult: 1
  }
  param {
    lr_mult: 2
    decay_mult: 0
  }
  convolution_param {
    num_output: 48
    pad: 2
    kernel_size: 5
    weight_filler {
      type: "xavier"
      std: 0.03
    }
    bias_filler {
      type: "constant"
      value: 0.2
    }
  }
}
layer {
  name: "inception_4a/relu_5x5"
  type: "ReLU"
  bottom: "inception_4a/5x5"
  top: "inception_4a/5x5"
}
layer {
  name: "inception_4a/pool"
  type: "Pooling"
  bottom: "pool3/3x3_s2"
  top: "inception_4a/pool"
  pooling_param {
    pool: MAX
    kernel_size: 3
    stride: 1
    pad: 1
  }
}
layer {
  name: "inception_4a/pool_proj"
  type: "Convolution"
  bottom: "inception_4a/pool"
  top: "inception_4a/pool_proj"
  param {
    lr_mult: 1
    decay_mult: 1
  }
  param {
    lr_mult: 2
    decay_mult: 0
  }
  convolution_param {
    num_output: 64
    kernel_size: 1
    weight_filler {
      type: "xavier"
      std: 0.1
    }
    bias_filler {
      type: "constant"
      value: 0.2
    }
  }
}
layer {
  name: "inception_4a/relu_pool_proj"
  type: "ReLU"
  bottom: "inception_4a/pool_proj"
  top: "inception_4a/pool_proj"
}
layer {
  name: "inception_4a/output"
  type: "Concat"
  bottom: "inception_4a/1x1"
  bottom: "inception_4a/3x3"
  bottom: "inception_4a/5x5"
  bottom: "inception_4a/pool_proj"
  top: "inception_4a/output"
}
layer {
  name: "inception_4b/1x1"
  type: "Convolution"
  bottom: "inception_4a/output"
  top: "inception_4b/1x1"
  param {
    lr_mult: 1
    decay_mult: 1
  }
  param {
    lr_mult: 2
    decay_mult: 0
  }
  convolution_param {
    num_output: 160
    kernel_size: 1
    weight_filler {
      type: "xavier"
      std: 0.03
    }
    bias_filler {
      type: "constant"
      value: 0.2
    }
  }
}
layer {
  name: "inception_4b/relu_1x1"
  type: "ReLU"
  bottom: "inception_4b/1x1"
  top: "inception_4b/1x1"
}
layer {
  name: "inception_4b/3x3_reduce"
  type: "Convolution"
  bottom: "inception_4a/output"
  top: "inception_4b/3x3_reduce"
  param {
    lr_mult: 1
    decay_mult: 1
  }
  param {
    lr_mult: 2
    decay_mult: 0
  }
  convolution_param {
    num_output: 112
    kernel_size: 1
    weight_filler {
      type: "xavier"
      std: 0.09
    }
    bias_filler {
      type: "constant"
      value: 0.2
    }
  }
}
layer {
  name: "inception_4b/relu_3x3_reduce"
  type: "ReLU"
  bottom: "inception_4b/3x3_reduce"
  top: "inception_4b/3x3_reduce"
}
layer {
  name: "inception_4b/3x3"
  type: "Convolution"
  bottom: "inception_4b/3x3_reduce"
  top: "inception_4b/3x3"
  param {
    lr_mult: 1
    decay_mult: 1
  }
  param {
    lr_mult: 2
    decay_mult: 0
  }
  convolution_param {
    num_output: 224
    pad: 1
    kernel_size: 3
    weight_filler {
      type: "xavier"
      std: 0.03
    }
    bias_filler {
      type: "constant"
      value: 0.2
    }
  }
}
layer {
  name: "inception_4b/relu_3x3"
  type: "ReLU"
  bottom: "inception_4b/3x3"
  top: "inception_4b/3x3"
}
layer {
  name: "inception_4b/5x5_reduce"
  type: "Convolution"
  bottom: "inception_4a/output"
  top: "inception_4b/5x5_reduce"
  param {
    lr_mult: 1
    decay_mult: 1
  }
  param {
    lr_mult: 2
    decay_mult: 0
  }
  convolution_param {
    num_output: 24
    kernel_size: 1
    weight_filler {
      type: "xavier"
      std: 0.2
    }
    bias_filler {
      type: "constant"
      value: 0.2
    }
  }
}
layer {
  name: "inception_4b/relu_5x5_reduce"
  type: "ReLU"
  bottom: "inception_4b/5x5_reduce"
  top: "inception_4b/5x5_reduce"
}
layer {
  name: "inception_4b/5x5"
  type: "Convolution"
  bottom: "inception_4b/5x5_reduce"
  top: "inception_4b/5x5"
  param {
    lr_mult: 1
    decay_mult: 1
  }
  param {
    lr_mult: 2
    decay_mult: 0
  }
  convolution_param {
    num_output: 64
    pad: 2
    kernel_size: 5
    weight_filler {
      type: "xavier"
      std: 0.03
    }
    bias_filler {
      type: "constant"
      value: 0.2
    }
  }
}
layer {
  name: "inception_4b/relu_5x5"
  type: "ReLU"
  bottom: "inception_4b/5x5"
  top: "inception_4b/5x5"
}
layer {
  name: "inception_4b/pool"
  type: "Pooling"
  bottom: "inception_4a/output"
  top: "inception_4b/pool"
  pooling_param {
    pool: MAX
    kernel_size: 3
    stride: 1
    pad: 1
  }
}
layer {
  name: "inception_4b/pool_proj"
  type: "Convolution"
  bottom: "inception_4b/pool"
  top: "inception_4b/pool_proj"
  param {
    lr_mult: 1
    decay_mult: 1
  }
  param {
    lr_mult: 2
    decay_mult: 0
  }
  convolution_param {
    num_output: 64
    kernel_size: 1
    weight_filler {
      type: "xavier"
      std: 0.1
    }
    bias_filler {
      type: "constant"
      value: 0.2
    }
  }
}
layer {
  name: "inception_4b/relu_pool_proj"
  type: "ReLU"
  bottom: "inception_4b/pool_proj"
  top: "inception_4b/pool_proj"
}
layer {
  name: "inception_4b/output"
  type: "Concat"
  bottom: "inception_4b/1x1"
  bottom: "inception_4b/3x3"
  bottom: "inception_4b/5x5"
  bottom: "inception_4b/pool_proj"
  top: "inception_4b/output"
}
layer {
  name: "inception_4c/1x1"
  type: "Convolution"
  bottom: "inception_4b/output"
  top: "inception_4c/1x1"
  param {
    lr_mult: 1
    decay_mult: 1
  }
  param {
    lr_mult: 2
    decay_mult: 0
  }
  convolution_param {
    num_output: 128
    kernel_size: 1
    weight_filler {
      type: "xavier"
      std: 0.03
    }
    bias_filler {
      type: "constant"
      value: 0.2
    }
  }
}
layer {
  name: "inception_4c/relu_1x1"
  type: "ReLU"
  bottom: "inception_4c/1x1"
  top: "inception_4c/1x1"
}
layer {
  name: "inception_4c/3x3_reduce"
  type: "Convolution"
  bottom: "inception_4b/output"
  top: "inception_4c/3x3_reduce"
  param {
    lr_mult: 1
    decay_mult: 1
  }
  param {
    lr_mult: 2
    decay_mult: 0
  }
  convolution_param {
    num_output: 128
    kernel_size: 1
    weight_filler {
      type: "xavier"
      std: 0.09
    }
    bias_filler {
      type: "constant"
      value: 0.2
    }
  }
}
layer {
  name: "inception_4c/relu_3x3_reduce"
  type: "ReLU"
  bottom: "inception_4c/3x3_reduce"
  top: "inception_4c/3x3_reduce"
}
layer {
  name: "inception_4c/3x3"
  type: "Convolution"
  bottom: "inception_4c/3x3_reduce"
  top: "inception_4c/3x3"
  param {
    lr_mult: 1
    decay_mult: 1
  }
  param {
    lr_mult: 2
    decay_mult: 0
  }
  convolution_param {
    num_output: 256
    pad: 1
    kernel_size: 3
    weight_filler {
      type: "xavier"
      std: 0.03
    }
    bias_filler {
      type: "constant"
      value: 0.2
    }
  }
}
layer {
  name: "inception_4c/relu_3x3"
  type: "ReLU"
  bottom: "inception_4c/3x3"
  top: "inception_4c/3x3"
}
layer {
  name: "inception_4c/5x5_reduce"
  type: "Convolution"
  bottom: "inception_4b/output"
  top: "inception_4c/5x5_reduce"
  param {
    lr_mult: 1
    decay_mult: 1
  }
  param {
    lr_mult: 2
    decay_mult: 0
  }
  convolution_param {
    num_output: 24
    kernel_size: 1
    weight_filler {
      type: "xavier"
      std: 0.2
    }
    bias_filler {
      type: "constant"
      value: 0.2
    }
  }
}
layer {
  name: "inception_4c/relu_5x5_reduce"
  type: "ReLU"
  bottom: "inception_4c/5x5_reduce"
  top: "inception_4c/5x5_reduce"
}
layer {
  name: "inception_4c/5x5"
  type: "Convolution"
  bottom: "inception_4c/5x5_reduce"
  top: "inception_4c/5x5"
  param {
    lr_mult: 1
    decay_mult: 1
  }
  param {
    lr_mult: 2
    decay_mult: 0
  }
  convolution_param {
    num_output: 64
    pad: 2
    kernel_size: 5
    weight_filler {
      type: "xavier"
      std: 0.03
    }
    bias_filler {
      type: "constant"
      value: 0.2
    }
  }
}
layer {
  name: "inception_4c/relu_5x5"
  type: "ReLU"
  bottom: "inception_4c/5x5"
  top: "inception_4c/5x5"
}
layer {
  name: "inception_4c/pool"
  type: "Pooling"
  bottom: "inception_4b/output"
  top: "inception_4c/pool"
  pooling_param {
    pool: MAX
    kernel_size: 3
    stride: 1
    pad: 1
  }
}
layer {
  name: "inception_4c/pool_proj"
  type: "Convolution"
  bottom: "inception_4c/pool"
  top: "inception_4c/pool_proj"
  param {
    lr_mult: 1
    decay_mult: 1
  }
  param {
    lr_mult: 2
    decay_mult: 0
  }
  convolution_param {
    num_output: 64
    kernel_size: 1
    weight_filler {
      type: "xavier"
      std: 0.1
    }
    bias_filler {
      type: "constant"
      value: 0.2
    }
  }
}
layer {
  name: "inception_4c/relu_pool_proj"
  type: "ReLU"
  bottom: "inception_4c/pool_proj"
  top: "inception_4c/pool_proj"
}
layer {
  name: "inception_4c/output"
  type: "Concat"
  bottom: "inception_4c/1x1"
  bottom: "inception_4c/3x3"
  bottom: "inception_4c/5x5"
  bottom: "inception_4c/pool_proj"
  top: "inception_4c/output"
}
layer {
  name: "inception_4d/1x1"
  type: "Convolution"
  bottom: "inception_4c/output"
  top: "inception_4d/1x1"
  param {
    lr_mult: 1
    decay_mult: 1
  }
  param {
    lr_mult: 2
    decay_mult: 0
  }
  convolution_param {
    num_output: 112
    kernel_size: 1
    weight_filler {
      type: "xavier"
      std: 0.03
    }
    bias_filler {
      type: "constant"
      value: 0.2
    }
  }
}
layer {
  name: "inception_4d/relu_1x1"
  type: "ReLU"
  bottom: "inception_4d/1x1"
  top: "inception_4d/1x1"
}
layer {
  name: "inception_4d/3x3_reduce"
  type: "Convolution"
  bottom: "inception_4c/output"
  top: "inception_4d/3x3_reduce"
  param {
    lr_mult: 1
    decay_mult: 1
  }
  param {
    lr_mult: 2
    decay_mult: 0
  }
  convolution_param {
    num_output: 144
    kernel_size: 1
    weight_filler {
      type: "xavier"
      std: 0.09
    }
    bias_filler {
      type: "constant"
      value: 0.2
    }
  }
}
layer {
  name: "inception_4d/relu_3x3_reduce"
  type: "ReLU"
  bottom: "inception_4d/3x3_reduce"
  top: "inception_4d/3x3_reduce"
}
layer {
  name: "inception_4d/3x3"
  type: "Convolution"
  bottom: "inception_4d/3x3_reduce"
  top: "inception_4d/3x3"
  param {
    lr_mult: 1
    decay_mult: 1
  }
  param {
    lr_mult: 2
    decay_mult: 0
  }
  convolution_param {
    num_output: 288
    pad: 1
    kernel_size: 3
    weight_filler {
      type: "xavier"
      std: 0.03
    }
    bias_filler {
      type: "constant"
      value: 0.2
    }
  }
}
layer {
  name: "inception_4d/relu_3x3"
  type: "ReLU"
  bottom: "inception_4d/3x3"
  top: "inception_4d/3x3"
}
layer {
  name: "inception_4d/5x5_reduce"
  type: "Convolution"
  bottom: "inception_4c/output"
  top: "inception_4d/5x5_reduce"
  param {
    lr_mult: 1
    decay_mult: 1
  }
  param {
    lr_mult: 2
    decay_mult: 0
  }
  convolution_param {
    num_output: 32
    kernel_size: 1
    weight_filler {
      type: "xavier"
      std: 0.2
    }
    bias_filler {
      type: "constant"
      value: 0.2
    }
  }
}
layer {
  name: "inception_4d/relu_5x5_reduce"
  type: "ReLU"
  bottom: "inception_4d/5x5_reduce"
  top: "inception_4d/5x5_reduce"
}
layer {
  name: "inception_4d/5x5"
  type: "Convolution"
  bottom: "inception_4d/5x5_reduce"
  top: "inception_4d/5x5"
  param {
    lr_mult: 1
    decay_mult: 1
  }
  param {
    lr_mult: 2
    decay_mult: 0
  }
  convolution_param {
    num_output: 64
    pad: 2
    kernel_size: 5
    weight_filler {
      type: "xavier"
      std: 0.03
    }
    bias_filler {
      type: "constant"
      value: 0.2
    }
  }
}
layer {
  name: "inception_4d/relu_5x5"
  type: "ReLU"
  bottom: "inception_4d/5x5"
  top: "inception_4d/5x5"
}
layer {
  name: "inception_4d/pool"
  type: "Pooling"
  bottom: "inception_4c/output"
  top: "inception_4d/pool"
  pooling_param {
    pool: MAX
    kernel_size: 3
    stride: 1
    pad: 1
  }
}
layer {
  name: "inception_4d/pool_proj"
  type: "Convolution"
  bottom: "inception_4d/pool"
  top: "inception_4d/pool_proj"
  param {
    lr_mult: 1
    decay_mult: 1
  }
  param {
    lr_mult: 2
    decay_mult: 0
  }
  convolution_param {
    num_output: 64
    kernel_size: 1
    weight_filler {
      type: "xavier"
      std: 0.1
    }
    bias_filler {
      type: "constant"
      value: 0.2
    }
  }
}
layer {
  name: "inception_4d/relu_pool_proj"
  type: "ReLU"
  bottom: "inception_4d/pool_proj"
  top: "inception_4d/pool_proj"
}
layer {
  name: "inception_4d/output"
  type: "Concat"
  bottom: "inception_4d/1x1"
  bottom: "inception_4d/3x3"
  bottom: "inception_4d/5x5"
  bottom: "inception_4d/pool_proj"
  top: "inception_4d/output"
}
layer {
  name: "inception_4e/1x1"
  type: "Convolution"
  bottom: "inception_4d/output"
  top: "inception_4e/1x1"
  param {
    lr_mult: 1
    decay_mult: 1
  }
  param {
    lr_mult: 2
    decay_mult: 0
  }
  convolution_param {
    num_output: 256
    kernel_size: 1
    weight_filler {
      type: "xavier"
      std: 0.03
    }
    bias_filler {
      type: "constant"
      value: 0.2
    }
  }
}
layer {
  name: "inception_4e/relu_1x1"
  type: "ReLU"
  bottom: "inception_4e/1x1"
  top: "inception_4e/1x1"
}
layer {
  name: "inception_4e/3x3_reduce"
  type: "Convolution"
  bottom: "inception_4d/output"
  top: "inception_4e/3x3_reduce"
  param {
    lr_mult: 1
    decay_mult: 1
  }
  param {
    lr_mult: 2
    decay_mult: 0
  }
  convolution_param {
    num_output: 160
    kernel_size: 1
    weight_filler {
      type: "xavier"
      std: 0.09
    }
    bias_filler {
      type: "constant"
      value: 0.2
    }
  }
}
layer {
  name: "inception_4e/relu_3x3_reduce"
  type: "ReLU"
  bottom: "inception_4e/3x3_reduce"
  top: "inception_4e/3x3_reduce"
}
layer {
  name: "inception_4e/3x3"
  type: "Convolution"
  bottom: "inception_4e/3x3_reduce"
  top: "inception_4e/3x3"
  param {
    lr_mult: 1
    decay_mult: 1
  }
  param {
    lr_mult: 2
    decay_mult: 0
  }
  convolution_param {
    num_output: 320
    pad: 1
    kernel_size: 3
    weight_filler {
      type: "xavier"
      std: 0.03
    }
    bias_filler {
      type: "constant"
      value: 0.2
    }
  }
}
layer {
  name: "inception_4e/relu_3x3"
  type: "ReLU"
  bottom: "inception_4e/3x3"
  top: "inception_4e/3x3"
}
layer {
  name: "inception_4e/5x5_reduce"
  type: "Convolution"
  bottom: "inception_4d/output"
  top: "inception_4e/5x5_reduce"
  param {
    lr_mult: 1
    decay_mult: 1
  }
  param {
    lr_mult: 2
    decay_mult: 0
  }
  convolution_param {
    num_output: 32
    kernel_size: 1
    weight_filler {
      type: "xavier"
      std: 0.2
    }
    bias_filler {
      type: "constant"
      value: 0.2
    }
  }
}
layer {
  name: "inception_4e/relu_5x5_reduce"
  type: "ReLU"
  bottom: "inception_4e/5x5_reduce"
  top: "inception_4e/5x5_reduce"
}
layer {
  name: "inception_4e/5x5"
  type: "Convolution"
  bottom: "inception_4e/5x5_reduce"
  top: "inception_4e/5x5"
  param {
    lr_mult: 1
    decay_mult: 1
  }
  param {
    lr_mult: 2
    decay_mult: 0
  }
  convolution_param {
    num_output: 128
    pad: 2
    kernel_size: 5
    weight_filler {
      type: "xavier"
      std: 0.03
    }
    bias_filler {
      type: "constant"
      value: 0.2
    }
  }
}
layer {
  name: "inception_4e/relu_5x5"
  type: "ReLU"
  bottom: "inception_4e/5x5"
  top: "inception_4e/5x5"
}
layer {
  name: "inception_4e/pool"
  type: "Pooling"
  bottom: "inception_4d/output"
  top: "inception_4e/pool"
  pooling_param {
    pool: MAX
    kernel_size: 3
    stride: 1
    pad: 1
  }
}
layer {
  name: "inception_4e/pool_proj"
  type: "Convolution"
  bottom: "inception_4e/pool"
  top: "inception_4e/pool_proj"
  param {
    lr_mult: 1
    decay_mult: 1
  }
  param {
    lr_mult: 2
    decay_mult: 0
  }
  convolution_param {
    num_output: 128
    kernel_size: 1
    weight_filler {
      type: "xavier"
      std: 0.1
    }
    bias_filler {
      type: "constant"
      value: 0.2
    }
  }
}
layer {
  name: "inception_4e/relu_pool_proj"
  type: "ReLU"
  bottom: "inception_4e/pool_proj"
  top: "inception_4e/pool_proj"
}
layer {
  name: "inception_4e/output"
  type: "Concat"
  bottom: "inception_4e/1x1"
  bottom: "inception_4e/3x3"
  bottom: "inception_4e/5x5"
  bottom: "inception_4e/pool_proj"
  top: "inception_4e/output"
}
layer {
  name: "pool4/3x3_s2"
  type: "Pooling"
  bottom: "inception_4e/output"
  top: "pool4/3x3_s2"
  pooling_param {
    pool: MAX
    kernel_size: 3
    stride: 2
  }
}
layer {
  name: "inception_5a/1x1"
  type: "Convolution"
  bottom: "pool4/3x3_s2"
  top: "inception_5a/1x1"
  param {
    lr_mult: 1
    decay_mult: 1
  }
  param {
    lr_mult: 2
    decay_mult: 0
  }
  convolution_param {
    num_output: 256
    kernel_size: 1
    weight_filler {
      type: "xavier"
      std: 0.03
    }
    bias_filler {
      type: "constant"
      value: 0.2
    }
  }
}
layer {
  name: "inception_5a/relu_1x1"
  type: "ReLU"
  bottom: "inception_5a/1x1"
  top: "inception_5a/1x1"
}
layer {
  name: "inception_5a/3x3_reduce"
  type: "Convolution"
  bottom: "pool4/3x3_s2"
  top: "inception_5a/3x3_reduce"
  param {
    lr_mult: 1
    decay_mult: 1
  }
  param {
    lr_mult: 2
    decay_mult: 0
  }
  convolution_param {
    num_output: 160
    kernel_size: 1
    weight_filler {
      type: "xavier"
      std: 0.09
    }
    bias_filler {
      type: "constant"
      value: 0.2
    }
  }
}
layer {
  name: "inception_5a/relu_3x3_reduce"
  type: "ReLU"
  bottom: "inception_5a/3x3_reduce"
  top: "inception_5a/3x3_reduce"
}
layer {
  name: "inception_5a/3x3"
  type: "Convolution"
  bottom: "inception_5a/3x3_reduce"
  top: "inception_5a/3x3"
  param {
    lr_mult: 1
    decay_mult: 1
  }
  param {
    lr_mult: 2
    decay_mult: 0
  }
  convolution_param {
    num_output: 320
    pad: 1
    kernel_size: 3
    weight_filler {
      type: "xavier"
      std: 0.03
    }
    bias_filler {
      type: "constant"
      value: 0.2
    }
  }
}
layer {
  name: "inception_5a/relu_3x3"
  type: "ReLU"
  bottom: "inception_5a/3x3"
  top: "inception_5a/3x3"
}
layer {
  name: "inception_5a/5x5_reduce"
  type: "Convolution"
  bottom: "pool4/3x3_s2"
  top: "inception_5a/5x5_reduce"
  param {
    lr_mult: 1
    decay_mult: 1
  }
  param {
    lr_mult: 2
    decay_mult: 0
  }
  convolution_param {
    num_output: 32
    kernel_size: 1
    weight_filler {
      type: "xavier"
      std: 0.2
    }
    bias_filler {
      type: "constant"
      value: 0.2
    }
I0714 22:17:53.053597 29083 layer_factory.hpp:77] Creating layer data
I0714 22:17:53.053618 29083 net.cpp:91] Creating Layer data
I0714 22:17:53.053627 29083 net.cpp:399] data -> data
I0714 22:17:54.087983 29079 net.cpp:141] Setting up data
I0714 22:17:54.088081 29079 net.cpp:148] Top shape: 10 3 224 224 (1505280)
I0714 22:17:54.088089 29079 net.cpp:156] Memory required for data: 6021120
I0714 22:17:54.088119 29079 layer_factory.hpp:77] Creating layer conv1/7x7_s2
I0714 22:17:54.088168 29079 net.cpp:91] Creating Layer conv1/7x7_s2
I0714 22:17:54.088179 29079 net.cpp:425] conv1/7x7_s2 <- data
I0714 22:17:54.088196 29079 net.cpp:399] conv1/7x7_s2 -> conv1/7x7_s2
I0714 22:17:54.097739 29083 net.cpp:141] Setting up data
I0714 22:17:54.097767 29083 net.cpp:148] Top shape: 10 3 224 224 (1505280)
I0714 22:17:54.097774 29083 net.cpp:156] Memory required for data: 6021120
I0714 22:17:54.097782 29083 layer_factory.hpp:77] Creating layer conv1/7x7_s2
I0714 22:17:54.097803 29083 net.cpp:91] Creating Layer conv1/7x7_s2
I0714 22:17:54.097810 29083 net.cpp:425] conv1/7x7_s2 <- data
I0714 22:17:54.097820 29083 net.cpp:399] conv1/7x7_s2 -> conv1/7x7_s2
I0714 22:17:54.567353 29079 net.cpp:141] Setting up conv1/7x7_s2
I0714 22:17:54.567405 29079 net.cpp:148] Top shape: 10 64 112 112 (8028160)
I0714 22:17:54.567414 29079 net.cpp:156] Memory required for data: 38133760
I0714 22:17:54.567443 29079 layer_factory.hpp:77] Creating layer conv1/relu_7x7
I0714 22:17:54.567464 29079 net.cpp:91] Creating Layer conv1/relu_7x7
I0714 22:17:54.567472 29079 net.cpp:425] conv1/relu_7x7 <- conv1/7x7_s2
I0714 22:17:54.567481 29079 net.cpp:386] conv1/relu_7x7 -> conv1/7x7_s2 (in-place)
I0714 22:17:54.568949 29079 net.cpp:141] Setting up conv1/relu_7x7
I0714 22:17:54.568969 29079 net.cpp:148] Top shape: 10 64 112 112 (8028160)
I0714 22:17:54.568975 29079 net.cpp:156] Memory required for data: 70246400
I0714 22:17:54.568981 29079 layer_factory.hpp:77] Creating layer pool1/3x3_s2
I0714 22:17:54.568996 29079 net.cpp:91] Creating Layer pool1/3x3_s2
I0714 22:17:54.569002 29079 net.cpp:425] pool1/3x3_s2 <- conv1/7x7_s2
I0714 22:17:54.569001 29083 net.cpp:141] Setting up conv1/7x7_s2
I0714 22:17:54.569025 29079 net.cpp:399] pool1/3x3_s2 -> pool1/3x3_s2
I0714 22:17:54.569048 29083 net.cpp:148] Top shape: 10 64 112 112 (8028160)
I0714 22:17:54.569056 29083 net.cpp:156] Memory required for data: 38133760
I0714 22:17:54.569079 29083 layer_factory.hpp:77] Creating layer conv1/relu_7x7
I0714 22:17:54.569097 29083 net.cpp:91] Creating Layer conv1/relu_7x7
I0714 22:17:54.569104 29083 net.cpp:425] conv1/relu_7x7 <- conv1/7x7_s2
I0714 22:17:54.569113 29083 net.cpp:386] conv1/relu_7x7 -> conv1/7x7_s2 (in-place)
I0714 22:17:54.569874 29079 net.cpp:141] Setting up pool1/3x3_s2
I0714 22:17:54.569891 29079 net.cpp:148] Top shape: 10 64 56 56 (2007040)
I0714 22:17:54.569897 29079 net.cpp:156] Memory required for data: 78274560
I0714 22:17:54.569903 29079 layer_factory.hpp:77] Creating layer pool1/norm1
I0714 22:17:54.569924 29079 net.cpp:91] Creating Layer pool1/norm1
I0714 22:17:54.569931 29079 net.cpp:425] pool1/norm1 <- pool1/3x3_s2
I0714 22:17:54.569939 29079 net.cpp:399] pool1/norm1 -> pool1/norm1
I0714 22:17:54.569964 29083 net.cpp:141] Setting up conv1/relu_7x7
I0714 22:17:54.569980 29083 net.cpp:148] Top shape: 10 64 112 112 (8028160)
I0714 22:17:54.569986 29083 net.cpp:156] Memory required for data: 70246400
I0714 22:17:54.569993 29083 layer_factory.hpp:77] Creating layer pool1/3x3_s2
I0714 22:17:54.570004 29083 net.cpp:91] Creating Layer pool1/3x3_s2
I0714 22:17:54.570009 29083 net.cpp:425] pool1/3x3_s2 <- conv1/7x7_s2
I0714 22:17:54.570019 29083 net.cpp:399] pool1/3x3_s2 -> pool1/3x3_s2
I0714 22:17:54.570837 29083 net.cpp:141] Setting up pool1/3x3_s2
I0714 22:17:54.570855 29083 net.cpp:148] Top shape: 10 64 56 56 (2007040)
I0714 22:17:54.570861 29083 net.cpp:156] Memory required for data: 78274560
I0714 22:17:54.570868 29083 layer_factory.hpp:77] Creating layer pool1/norm1
I0714 22:17:54.570880 29083 net.cpp:91] Creating Layer pool1/norm1
I0714 22:17:54.570886 29083 net.cpp:425] pool1/norm1 <- pool1/3x3_s2
I0714 22:17:54.570894 29083 net.cpp:399] pool1/norm1 -> pool1/norm1
I0714 22:17:54.571733 29079 net.cpp:141] Setting up pool1/norm1
I0714 22:17:54.571754 29079 net.cpp:148] Top shape: 10 64 56 56 (2007040)
I0714 22:17:54.571760 29079 net.cpp:156] Memory required for data: 86302720
I0714 22:17:54.571766 29079 layer_factory.hpp:77] Creating layer conv2/3x3_reduce
I0714 22:17:54.571789 29079 net.cpp:91] Creating Layer conv2/3x3_reduce
I0714 22:17:54.571795 29079 net.cpp:425] conv2/3x3_reduce <- pool1/norm1
I0714 22:17:54.571805 29079 net.cpp:399] conv2/3x3_reduce -> conv2/3x3_reduce
I0714 22:17:54.571925 29083 net.cpp:141] Setting up pool1/norm1
I0714 22:17:54.571943 29083 net.cpp:148] Top shape: 10 64 56 56 (2007040)
I0714 22:17:54.571948 29083 net.cpp:156] Memory required for data: 86302720
I0714 22:17:54.571954 29083 layer_factory.hpp:77] Creating layer conv2/3x3_reduce
I0714 22:17:54.571974 29083 net.cpp:91] Creating Layer conv2/3x3_reduce
I0714 22:17:54.571980 29083 net.cpp:425] conv2/3x3_reduce <- pool1/norm1
I0714 22:17:54.571990 29083 net.cpp:399] conv2/3x3_reduce -> conv2/3x3_reduce
I0714 22:17:54.579041 29079 net.cpp:141] Setting up conv2/3x3_reduce
I0714 22:17:54.579062 29079 net.cpp:148] Top shape: 10 64 56 56 (2007040)
I0714 22:17:54.579069 29079 net.cpp:156] Memory required for data: 94330880
I0714 22:17:54.579083 29079 layer_factory.hpp:77] Creating layer conv2/relu_3x3_reduce
I0714 22:17:54.579093 29079 net.cpp:91] Creating Layer conv2/relu_3x3_reduce
I0714 22:17:54.579100 29079 net.cpp:425] conv2/relu_3x3_reduce <- conv2/3x3_reduce
I0714 22:17:54.579108 29079 net.cpp:386] conv2/relu_3x3_reduce -> conv2/3x3_reduce (in-place)
I0714 22:17:54.580111 29079 net.cpp:141] Setting up conv2/relu_3x3_reduce
I0714 22:17:54.580127 29079 net.cpp:148] Top shape: 10 64 56 56 (2007040)
I0714 22:17:54.580133 29079 net.cpp:156] Memory required for data: 102359040
I0714 22:17:54.580139 29083 net.cpp:141] Setting up conv2/3x3_reduce
I0714 22:17:54.580140 29079 layer_factory.hpp:77] Creating layer conv2/3x3
I0714 22:17:54.580164 29083 net.cpp:148] Top shape: 10 64 56 56 (2007040)
I0714 22:17:54.580171 29083 net.cpp:156] Memory required for data: 94330880
I0714 22:17:54.580178 29079 net.cpp:91] Creating Layer conv2/3x3
I0714 22:17:54.580186 29083 layer_factory.hpp:77] Creating layer conv2/relu_3x3_reduce
I0714 22:17:54.580186 29079 net.cpp:425] conv2/3x3 <- conv2/3x3_reduce
I0714 22:17:54.580200 29083 net.cpp:91] Creating Layer conv2/relu_3x3_reduce
I0714 22:17:54.580206 29079 net.cpp:399] conv2/3x3 -> conv2/3x3
I0714 22:17:54.580207 29083 net.cpp:425] conv2/relu_3x3_reduce <- conv2/3x3_reduce
I0714 22:17:54.580226 29083 net.cpp:386] conv2/relu_3x3_reduce -> conv2/3x3_reduce (in-place)
I0714 22:17:54.581198 29083 net.cpp:141] Setting up conv2/relu_3x3_reduce
I0714 22:17:54.581218 29083 net.cpp:148] Top shape: 10 64 56 56 (2007040)
I0714 22:17:54.581223 29083 net.cpp:156] Memory required for data: 102359040
I0714 22:17:54.581229 29083 layer_factory.hpp:77] Creating layer conv2/3x3
I0714 22:17:54.581245 29083 net.cpp:91] Creating Layer conv2/3x3
I0714 22:17:54.581251 29083 net.cpp:425] conv2/3x3 <- conv2/3x3_reduce
I0714 22:17:54.581260 29083 net.cpp:399] conv2/3x3 -> conv2/3x3
I0714 22:17:54.589589 29079 net.cpp:141] Setting up conv2/3x3
I0714 22:17:54.589612 29079 net.cpp:148] Top shape: 10 192 56 56 (6021120)
I0714 22:17:54.589618 29079 net.cpp:156] Memory required for data: 126443520
I0714 22:17:54.589632 29079 layer_factory.hpp:77] Creating layer conv2/relu_3x3
I0714 22:17:54.589644 29079 net.cpp:91] Creating Layer conv2/relu_3x3
I0714 22:17:54.589650 29079 net.cpp:425] conv2/relu_3x3 <- conv2/3x3
I0714 22:17:54.589658 29079 net.cpp:386] conv2/relu_3x3 -> conv2/3x3 (in-place)
I0714 22:17:54.590039 29079 net.cpp:141] Setting up conv2/relu_3x3
I0714 22:17:54.590052 29079 net.cpp:148] Top shape: 10 192 56 56 (6021120)
I0714 22:17:54.590057 29079 net.cpp:156] Memory required for data: 150528000
I0714 22:17:54.590065 29079 layer_factory.hpp:77] Creating layer conv2/norm2
I0714 22:17:54.590075 29079 net.cpp:91] Creating Layer conv2/norm2
I0714 22:17:54.590080 29079 net.cpp:425] conv2/norm2 <- conv2/3x3
I0714 22:17:54.590090 29079 net.cpp:399] conv2/norm2 -> conv2/norm2
I0714 22:17:54.590718 29083 net.cpp:141] Setting up conv2/3x3
I0714 22:17:54.590740 29083 net.cpp:148] Top shape: 10 192 56 56 (6021120)
I0714 22:17:54.590747 29083 net.cpp:156] Memory required for data: 126443520
I0714 22:17:54.590761 29083 layer_factory.hpp:77] Creating layer conv2/relu_3x3
I0714 22:17:54.590772 29083 net.cpp:91] Creating Layer conv2/relu_3x3
I0714 22:17:54.590780 29083 net.cpp:425] conv2/relu_3x3 <- conv2/3x3
I0714 22:17:54.590787 29083 net.cpp:386] conv2/relu_3x3 -> conv2/3x3 (in-place)
I0714 22:17:54.591048 29083 net.cpp:141] Setting up conv2/relu_3x3
I0714 22:17:54.591061 29083 net.cpp:148] Top shape: 10 192 56 56 (6021120)
I0714 22:17:54.591068 29083 net.cpp:156] Memory required for data: 150528000
I0714 22:17:54.591073 29083 layer_factory.hpp:77] Creating layer conv2/norm2
I0714 22:17:54.591084 29083 net.cpp:91] Creating Layer conv2/norm2
I0714 22:17:54.591089 29083 net.cpp:425] conv2/norm2 <- conv2/3x3
I0714 22:17:54.591097 29083 net.cpp:399] conv2/norm2 -> conv2/norm2
I0714 22:17:54.592020 29079 net.cpp:141] Setting up conv2/norm2
I0714 22:17:54.592041 29079 net.cpp:148] Top shape: 10 192 56 56 (6021120)
I0714 22:17:54.592046 29079 net.cpp:156] Memory required for data: 174612480
I0714 22:17:54.592052 29079 layer_factory.hpp:77] Creating layer pool2/3x3_s2
I0714 22:17:54.592062 29079 net.cpp:91] Creating Layer pool2/3x3_s2
I0714 22:17:54.592068 29079 net.cpp:425] pool2/3x3_s2 <- conv2/norm2
I0714 22:17:54.592077 29079 net.cpp:399] pool2/3x3_s2 -> pool2/3x3_s2
I0714 22:17:54.592298 29083 net.cpp:141] Setting up conv2/norm2
I0714 22:17:54.592313 29083 net.cpp:148] Top shape: 10 192 56 56 (6021120)
I0714 22:17:54.592319 29083 net.cpp:156] Memory required for data: 174612480
I0714 22:17:54.592316 29079 net.cpp:141] Setting up pool2/3x3_s2
I0714 22:17:54.592327 29083 layer_factory.hpp:77] Creating layer pool2/3x3_s2
I0714 22:17:54.592340 29079 net.cpp:148] Top shape: 10 192 28 28 (1505280)
I0714 22:17:54.592347 29083 net.cpp:91] Creating Layer pool2/3x3_s2
I0714 22:17:54.592347 29079 net.cpp:156] Memory required for data: 180633600
I0714 22:17:54.592356 29083 net.cpp:425] pool2/3x3_s2 <- conv2/norm2
I0714 22:17:54.592362 29079 layer_factory.hpp:77] Creating layer pool2/3x3_s2_pool2/3x3_s2_0_split
I0714 22:17:54.592366 29083 net.cpp:399] pool2/3x3_s2 -> pool2/3x3_s2
I0714 22:17:54.592383 29079 net.cpp:91] Creating Layer pool2/3x3_s2_pool2/3x3_s2_0_split
I0714 22:17:54.592389 29079 net.cpp:425] pool2/3x3_s2_pool2/3x3_s2_0_split <- pool2/3x3_s2
I0714 22:17:54.592399 29079 net.cpp:399] pool2/3x3_s2_pool2/3x3_s2_0_split -> pool2/3x3_s2_pool2/3x3_s2_0_split_0
I0714 22:17:54.592411 29079 net.cpp:399] pool2/3x3_s2_pool2/3x3_s2_0_split -> pool2/3x3_s2_pool2/3x3_s2_0_split_1
I0714 22:17:54.592422 29079 net.cpp:399] pool2/3x3_s2_pool2/3x3_s2_0_split -> pool2/3x3_s2_pool2/3x3_s2_0_split_2
I0714 22:17:54.592430 29079 net.cpp:399] pool2/3x3_s2_pool2/3x3_s2_0_split -> pool2/3x3_s2_pool2/3x3_s2_0_split_3
I0714 22:17:54.592509 29083 net.cpp:141] Setting up pool2/3x3_s2
I0714 22:17:54.592521 29083 net.cpp:148] Top shape: 10 192 28 28 (1505280)
I0714 22:17:54.592528 29083 net.cpp:156] Memory required for data: 180633600
I0714 22:17:54.592535 29083 layer_factory.hpp:77] Creating layer pool2/3x3_s2_pool2/3x3_s2_0_split
I0714 22:17:54.592545 29083 net.cpp:91] Creating Layer pool2/3x3_s2_pool2/3x3_s2_0_split
I0714 22:17:54.592550 29083 net.cpp:425] pool2/3x3_s2_pool2/3x3_s2_0_split <- pool2/3x3_s2
I0714 22:17:54.592558 29083 net.cpp:399] pool2/3x3_s2_pool2/3x3_s2_0_split -> pool2/3x3_s2_pool2/3x3_s2_0_split_0
I0714 22:17:54.592571 29083 net.cpp:399] pool2/3x3_s2_pool2/3x3_s2_0_split -> pool2/3x3_s2_pool2/3x3_s2_0_split_1
I0714 22:17:54.592579 29083 net.cpp:399] pool2/3x3_s2_pool2/3x3_s2_0_split -> pool2/3x3_s2_pool2/3x3_s2_0_split_2
I0714 22:17:54.592588 29083 net.cpp:399] pool2/3x3_s2_pool2/3x3_s2_0_split -> pool2/3x3_s2_pool2/3x3_s2_0_split_3
I0714 22:17:54.592676 29079 net.cpp:141] Setting up pool2/3x3_s2_pool2/3x3_s2_0_split
I0714 22:17:54.592689 29079 net.cpp:148] Top shape: 10 192 28 28 (1505280)
I0714 22:17:54.592696 29079 net.cpp:148] Top shape: 10 192 28 28 (1505280)
I0714 22:17:54.592707 29079 net.cpp:148] Top shape: 10 192 28 28 (1505280)
I0714 22:17:54.592713 29079 net.cpp:148] Top shape: 10 192 28 28 (1505280)
I0714 22:17:54.592718 29079 net.cpp:156] Memory required for data: 204718080
I0714 22:17:54.592725 29079 layer_factory.hpp:77] Creating layer inception_3a/1x1
I0714 22:17:54.592739 29079 net.cpp:91] Creating Layer inception_3a/1x1
I0714 22:17:54.592746 29079 net.cpp:425] inception_3a/1x1 <- pool2/3x3_s2_pool2/3x3_s2_0_split_0
I0714 22:17:54.592772 29079 net.cpp:399] inception_3a/1x1 -> inception_3a/1x1
I0714 22:17:54.592797 29083 net.cpp:141] Setting up pool2/3x3_s2_pool2/3x3_s2_0_split
I0714 22:17:54.592810 29083 net.cpp:148] Top shape: 10 192 28 28 (1505280)
I0714 22:17:54.592818 29083 net.cpp:148] Top shape: 10 192 28 28 (1505280)
I0714 22:17:54.592823 29083 net.cpp:148] Top shape: 10 192 28 28 (1505280)
I0714 22:17:54.592829 29083 net.cpp:148] Top shape: 10 192 28 28 (1505280)
I0714 22:17:54.592834 29083 net.cpp:156] Memory required for data: 204718080
I0714 22:17:54.592840 29083 layer_factory.hpp:77] Creating layer inception_3a/1x1
I0714 22:17:54.592854 29083 net.cpp:91] Creating Layer inception_3a/1x1
I0714 22:17:54.592860 29083 net.cpp:425] inception_3a/1x1 <- pool2/3x3_s2_pool2/3x3_s2_0_split_0
I0714 22:17:54.592870 29083 net.cpp:399] inception_3a/1x1 -> inception_3a/1x1
I0714 22:17:54.599586 29079 net.cpp:141] Setting up inception_3a/1x1
I0714 22:17:54.599607 29079 net.cpp:148] Top shape: 10 64 28 28 (501760)
I0714 22:17:54.599614 29079 net.cpp:156] Memory required for data: 206725120
I0714 22:17:54.599625 29079 layer_factory.hpp:77] Creating layer inception_3a/relu_1x1
I0714 22:17:54.599642 29079 net.cpp:91] Creating Layer inception_3a/relu_1x1
I0714 22:17:54.599647 29079 net.cpp:425] inception_3a/relu_1x1 <- inception_3a/1x1
I0714 22:17:54.599656 29079 net.cpp:386] inception_3a/relu_1x1 -> inception_3a/1x1 (in-place)
I0714 22:17:54.600169 29079 net.cpp:141] Setting up inception_3a/relu_1x1
I0714 22:17:54.600184 29079 net.cpp:148] Top shape: 10 64 28 28 (501760)
I0714 22:17:54.600190 29079 net.cpp:156] Memory required for data: 208732160
I0714 22:17:54.600196 29079 layer_factory.hpp:77] Creating layer inception_3a/3x3_reduce
I0714 22:17:54.600214 29079 net.cpp:91] Creating Layer inception_3a/3x3_reduce
I0714 22:17:54.600221 29079 net.cpp:425] inception_3a/3x3_reduce <- pool2/3x3_s2_pool2/3x3_s2_0_split_1
I0714 22:17:54.600234 29079 net.cpp:399] inception_3a/3x3_reduce -> inception_3a/3x3_reduce
I0714 22:17:54.602156 29083 net.cpp:141] Setting up inception_3a/1x1
I0714 22:17:54.602181 29083 net.cpp:148] Top shape: 10 64 28 28 (501760)
I0714 22:17:54.602187 29083 net.cpp:156] Memory required for data: 206725120
I0714 22:17:54.602200 29083 layer_factory.hpp:77] Creating layer inception_3a/relu_1x1
I0714 22:17:54.602215 29083 net.cpp:91] Creating Layer inception_3a/relu_1x1
I0714 22:17:54.602221 29083 net.cpp:425] inception_3a/relu_1x1 <- inception_3a/1x1
I0714 22:17:54.602231 29083 net.cpp:386] inception_3a/relu_1x1 -> inception_3a/1x1 (in-place)
I0714 22:17:54.603171 29083 net.cpp:141] Setting up inception_3a/relu_1x1
I0714 22:17:54.603188 29083 net.cpp:148] Top shape: 10 64 28 28 (501760)
I0714 22:17:54.603194 29083 net.cpp:156] Memory required for data: 208732160
I0714 22:17:54.603200 29083 layer_factory.hpp:77] Creating layer inception_3a/3x3_reduce
I0714 22:17:54.603219 29083 net.cpp:91] Creating Layer inception_3a/3x3_reduce
I0714 22:17:54.603225 29083 net.cpp:425] inception_3a/3x3_reduce <- pool2/3x3_s2_pool2/3x3_s2_0_split_1
I0714 22:17:54.603238 29083 net.cpp:399] inception_3a/3x3_reduce -> inception_3a/3x3_reduce
I0714 22:17:54.610123 29079 net.cpp:141] Setting up inception_3a/3x3_reduce
I0714 22:17:54.610154 29079 net.cpp:148] Top shape: 10 96 28 28 (752640)
I0714 22:17:54.610162 29079 net.cpp:156] Memory required for data: 211742720
I0714 22:17:54.610178 29079 layer_factory.hpp:77] Creating layer inception_3a/relu_3x3_reduce
I0714 22:17:54.610189 29079 net.cpp:91] Creating Layer inception_3a/relu_3x3_reduce
I0714 22:17:54.610196 29079 net.cpp:425] inception_3a/relu_3x3_reduce <- inception_3a/3x3_reduce
I0714 22:17:54.610209 29079 net.cpp:386] inception_3a/relu_3x3_reduce -> inception_3a/3x3_reduce (in-place)
I0714 22:17:54.610493 29079 net.cpp:141] Setting up inception_3a/relu_3x3_reduce
I0714 22:17:54.610508 29079 net.cpp:148] Top shape: 10 96 28 28 (752640)
I0714 22:17:54.610514 29079 net.cpp:156] Memory required for data: 214753280
I0714 22:17:54.610520 29079 layer_factory.hpp:77] Creating layer inception_3a/3x3
I0714 22:17:54.610541 29079 net.cpp:91] Creating Layer inception_3a/3x3
I0714 22:17:54.610548 29079 net.cpp:425] inception_3a/3x3 <- inception_3a/3x3_reduce
I0714 22:17:54.610560 29079 net.cpp:399] inception_3a/3x3 -> inception_3a/3x3
I0714 22:17:54.611932 29083 net.cpp:141] Setting up inception_3a/3x3_reduce
I0714 22:17:54.611961 29083 net.cpp:148] Top shape: 10 96 28 28 (752640)
I0714 22:17:54.611968 29083 net.cpp:156] Memory required for data: 211742720
I0714 22:17:54.611984 29083 layer_factory.hpp:77] Creating layer inception_3a/relu_3x3_reduce
I0714 22:17:54.611997 29083 net.cpp:91] Creating Layer inception_3a/relu_3x3_reduce
I0714 22:17:54.612004 29083 net.cpp:425] inception_3a/relu_3x3_reduce <- inception_3a/3x3_reduce
I0714 22:17:54.612017 29083 net.cpp:386] inception_3a/relu_3x3_reduce -> inception_3a/3x3_reduce (in-place)
I0714 22:17:54.612292 29083 net.cpp:141] Setting up inception_3a/relu_3x3_reduce
I0714 22:17:54.612303 29083 net.cpp:148] Top shape: 10 96 28 28 (752640)
I0714 22:17:54.612311 29083 net.cpp:156] Memory required for data: 214753280
I0714 22:17:54.612318 29083 layer_factory.hpp:77] Creating layer inception_3a/3x3
I0714 22:17:54.612339 29083 net.cpp:91] Creating Layer inception_3a/3x3
I0714 22:17:54.612346 29083 net.cpp:425] inception_3a/3x3 <- inception_3a/3x3_reduce
I0714 22:17:54.612356 29083 net.cpp:399] inception_3a/3x3 -> inception_3a/3x3
I0714 22:17:54.616406 29079 net.cpp:141] Setting up inception_3a/3x3
I0714 22:17:54.616430 29079 net.cpp:148] Top shape: 10 128 28 28 (1003520)
I0714 22:17:54.616436 29079 net.cpp:156] Memory required for data: 218767360
I0714 22:17:54.616446 29079 layer_factory.hpp:77] Creating layer inception_3a/relu_3x3
I0714 22:17:54.616461 29079 net.cpp:91] Creating Layer inception_3a/relu_3x3
I0714 22:17:54.616467 29079 net.cpp:425] inception_3a/relu_3x3 <- inception_3a/3x3
I0714 22:17:54.616475 29079 net.cpp:386] inception_3a/relu_3x3 -> inception_3a/3x3 (in-place)
I0714 22:17:54.617538 29079 net.cpp:141] Setting up inception_3a/relu_3x3
I0714 22:17:54.617558 29079 net.cpp:148] Top shape: 10 128 28 28 (1003520)
I0714 22:17:54.617563 29079 net.cpp:156] Memory required for data: 222781440
I0714 22:17:54.617569 29079 layer_factory.hpp:77] Creating layer inception_3a/5x5_reduce
I0714 22:17:54.617584 29079 net.cpp:91] Creating Layer inception_3a/5x5_reduce
I0714 22:17:54.617591 29079 net.cpp:425] inception_3a/5x5_reduce <- pool2/3x3_s2_pool2/3x3_s2_0_split_2
I0714 22:17:54.617606 29079 net.cpp:399] inception_3a/5x5_reduce -> inception_3a/5x5_reduce
I0714 22:17:54.617620 29083 net.cpp:141] Setting up inception_3a/3x3
I0714 22:17:54.617641 29083 net.cpp:148] Top shape: 10 128 28 28 (1003520)
I0714 22:17:54.617647 29083 net.cpp:156] Memory required for data: 218767360
I0714 22:17:54.617658 29083 layer_factory.hpp:77] Creating layer inception_3a/relu_3x3
I0714 22:17:54.617671 29083 net.cpp:91] Creating Layer inception_3a/relu_3x3
I0714 22:17:54.617677 29083 net.cpp:425] inception_3a/relu_3x3 <- inception_3a/3x3
I0714 22:17:54.617686 29083 net.cpp:386] inception_3a/relu_3x3 -> inception_3a/3x3 (in-place)
I0714 22:17:54.618829 29083 net.cpp:141] Setting up inception_3a/relu_3x3
I0714 22:17:54.618850 29083 net.cpp:148] Top shape: 10 128 28 28 (1003520)
I0714 22:17:54.618856 29083 net.cpp:156] Memory required for data: 222781440
I0714 22:17:54.618862 29083 layer_factory.hpp:77] Creating layer inception_3a/5x5_reduce
I0714 22:17:54.618880 29083 net.cpp:91] Creating Layer inception_3a/5x5_reduce
I0714 22:17:54.618887 29083 net.cpp:425] inception_3a/5x5_reduce <- pool2/3x3_s2_pool2/3x3_s2_0_split_2
I0714 22:17:54.618903 29083 net.cpp:399] inception_3a/5x5_reduce -> inception_3a/5x5_reduce
I0714 22:17:54.623911 29079 net.cpp:141] Setting up inception_3a/5x5_reduce
I0714 22:17:54.623939 29079 net.cpp:148] Top shape: 10 16 28 28 (125440)
I0714 22:17:54.623944 29079 net.cpp:156] Memory required for data: 223283200
I0714 22:17:54.623955 29079 layer_factory.hpp:77] Creating layer inception_3a/relu_5x5_reduce
I0714 22:17:54.623966 29079 net.cpp:91] Creating Layer inception_3a/relu_5x5_reduce
I0714 22:17:54.623973 29079 net.cpp:425] inception_3a/relu_5x5_reduce <- inception_3a/5x5_reduce
I0714 22:17:54.623982 29079 net.cpp:386] inception_3a/relu_5x5_reduce -> inception_3a/5x5_reduce (in-place)
I0714 22:17:54.624474 29079 net.cpp:141] Setting up inception_3a/relu_5x5_reduce
I0714 22:17:54.624490 29079 net.cpp:148] Top shape: 10 16 28 28 (125440)
I0714 22:17:54.624496 29079 net.cpp:156] Memory required for data: 223784960
I0714 22:17:54.624502 29079 layer_factory.hpp:77] Creating layer inception_3a/5x5
I0714 22:17:54.624521 29079 net.cpp:91] Creating Layer inception_3a/5x5
I0714 22:17:54.624526 29079 net.cpp:425] inception_3a/5x5 <- inception_3a/5x5_reduce
I0714 22:17:54.624541 29079 net.cpp:399] inception_3a/5x5 -> inception_3a/5x5
I0714 22:17:54.628064 29083 net.cpp:141] Setting up inception_3a/5x5_reduce
I0714 22:17:54.628121 29083 net.cpp:148] Top shape: 10 16 28 28 (125440)
I0714 22:17:54.628136 29083 net.cpp:156] Memory required for data: 223283200
I0714 22:17:54.628162 29083 layer_factory.hpp:77] Creating layer inception_3a/relu_5x5_reduce
I0714 22:17:54.628187 29083 net.cpp:91] Creating Layer inception_3a/relu_5x5_reduce
I0714 22:17:54.628203 29083 net.cpp:425] inception_3a/relu_5x5_reduce <- inception_3a/5x5_reduce
I0714 22:17:54.628223 29083 net.cpp:386] inception_3a/relu_5x5_reduce -> inception_3a/5x5_reduce (in-place)
I0714 22:17:54.628767 29083 net.cpp:141] Setting up inception_3a/relu_5x5_reduce
I0714 22:17:54.628794 29083 net.cpp:148] Top shape: 10 16 28 28 (125440)
I0714 22:17:54.628805 29083 net.cpp:156] Memory required for data: 223784960
I0714 22:17:54.628815 29083 layer_factory.hpp:77] Creating layer inception_3a/5x5
I0714 22:17:54.628849 29083 net.cpp:91] Creating Layer inception_3a/5x5
I0714 22:17:54.628865 29083 net.cpp:425] inception_3a/5x5 <- inception_3a/5x5_reduce
I0714 22:17:54.628892 29083 net.cpp:399] inception_3a/5x5 -> inception_3a/5x5
I0714 22:17:54.631356 29079 net.cpp:141] Setting up inception_3a/5x5
I0714 22:17:54.631387 29079 net.cpp:148] Top shape: 10 32 28 28 (250880)
I0714 22:17:54.631394 29079 net.cpp:156] Memory required for data: 224788480
I0714 22:17:54.631405 29079 layer_factory.hpp:77] Creating layer inception_3a/relu_5x5
I0714 22:17:54.631417 29079 net.cpp:91] Creating Layer inception_3a/relu_5x5
I0714 22:17:54.631423 29079 net.cpp:425] inception_3a/relu_5x5 <- inception_3a/5x5
I0714 22:17:54.631434 29079 net.cpp:386] inception_3a/relu_5x5 -> inception_3a/5x5 (in-place)
I0714 22:17:54.631875 29079 net.cpp:141] Setting up inception_3a/relu_5x5
I0714 22:17:54.631888 29079 net.cpp:148] Top shape: 10 32 28 28 (250880)
I0714 22:17:54.631893 29079 net.cpp:156] Memory required for data: 225792000
I0714 22:17:54.631899 29079 layer_factory.hpp:77] Creating layer inception_3a/pool
I0714 22:17:54.631914 29079 net.cpp:91] Creating Layer inception_3a/pool
I0714 22:17:54.631922 29079 net.cpp:425] inception_3a/pool <- pool2/3x3_s2_pool2/3x3_s2_0_split_3
I0714 22:17:54.631930 29079 net.cpp:399] inception_3a/pool -> inception_3a/pool
I0714 22:17:54.632113 29079 net.cpp:141] Setting up inception_3a/pool
I0714 22:17:54.632125 29079 net.cpp:148] Top shape: 10 192 28 28 (1505280)
I0714 22:17:54.632130 29079 net.cpp:156] Memory required for data: 231813120
I0714 22:17:54.632136 29079 layer_factory.hpp:77] Creating layer inception_3a/pool_proj
I0714 22:17:54.632156 29079 net.cpp:91] Creating Layer inception_3a/pool_proj
I0714 22:17:54.632164 29079 net.cpp:425] inception_3a/pool_proj <- inception_3a/pool
I0714 22:17:54.632175 29079 net.cpp:399] inception_3a/pool_proj -> inception_3a/pool_proj
I0714 22:17:54.639410 29083 net.cpp:141] Setting up inception_3a/5x5
I0714 22:17:54.639443 29083 net.cpp:148] Top shape: 10 32 28 28 (250880)
I0714 22:17:54.639449 29083 net.cpp:156] Memory required for data: 224788480
I0714 22:17:54.639477 29083 layer_factory.hpp:77] Creating layer inception_3a/relu_5x5
I0714 22:17:54.639492 29083 net.cpp:91] Creating Layer inception_3a/relu_5x5
I0714 22:17:54.639498 29083 net.cpp:425] inception_3a/relu_5x5 <- inception_3a/5x5
I0714 22:17:54.639511 29083 net.cpp:386] inception_3a/relu_5x5 -> inception_3a/5x5 (in-place)
I0714 22:17:54.639926 29083 net.cpp:141] Setting up inception_3a/relu_5x5
I0714 22:17:54.639940 29083 net.cpp:148] Top shape: 10 32 28 28 (250880)
I0714 22:17:54.639945 29083 net.cpp:156] Memory required for data: 225792000
I0714 22:17:54.639950 29083 layer_factory.hpp:77] Creating layer inception_3a/pool
I0714 22:17:54.639966 29083 net.cpp:91] Creating Layer inception_3a/pool
I0714 22:17:54.639972 29083 net.cpp:425] inception_3a/pool <- pool2/3x3_s2_pool2/3x3_s2_0_split_3
I0714 22:17:54.639982 29083 net.cpp:399] inception_3a/pool -> inception_3a/pool
I0714 22:17:54.639998 29079 net.cpp:141] Setting up inception_3a/pool_proj
I0714 22:17:54.640022 29079 net.cpp:148] Top shape: 10 32 28 28 (250880)
I0714 22:17:54.640027 29079 net.cpp:156] Memory required for data: 232816640
I0714 22:17:54.640044 29079 layer_factory.hpp:77] Creating layer inception_3a/relu_pool_proj
I0714 22:17:54.640060 29079 net.cpp:91] Creating Layer inception_3a/relu_pool_proj
I0714 22:17:54.640067 29079 net.cpp:425] inception_3a/relu_pool_proj <- inception_3a/pool_proj
I0714 22:17:54.640077 29079 net.cpp:386] inception_3a/relu_pool_proj -> inception_3a/pool_proj (in-place)
I0714 22:17:54.640118 29083 net.cpp:141] Setting up inception_3a/pool
I0714 22:17:54.640130 29083 net.cpp:148] Top shape: 10 192 28 28 (1505280)
I0714 22:17:54.640136 29083 net.cpp:156] Memory required for data: 231813120
I0714 22:17:54.640141 29083 layer_factory.hpp:77] Creating layer inception_3a/pool_proj
I0714 22:17:54.640162 29083 net.cpp:91] Creating Layer inception_3a/pool_proj
I0714 22:17:54.640169 29083 net.cpp:425] inception_3a/pool_proj <- inception_3a/pool
I0714 22:17:54.640182 29083 net.cpp:399] inception_3a/pool_proj -> inception_3a/pool_proj
I0714 22:17:54.641162 29079 net.cpp:141] Setting up inception_3a/relu_pool_proj
I0714 22:17:54.641177 29079 net.cpp:148] Top shape: 10 32 28 28 (250880)
I0714 22:17:54.641183 29079 net.cpp:156] Memory required for data: 233820160
I0714 22:17:54.641190 29079 layer_factory.hpp:77] Creating layer inception_3a/output
I0714 22:17:54.641216 29079 net.cpp:91] Creating Layer inception_3a/output
I0714 22:17:54.641222 29079 net.cpp:425] inception_3a/output <- inception_3a/1x1
I0714 22:17:54.641229 29079 net.cpp:425] inception_3a/output <- inception_3a/3x3
I0714 22:17:54.641237 29079 net.cpp:425] inception_3a/output <- inception_3a/5x5
I0714 22:17:54.641242 29079 net.cpp:425] inception_3a/output <- inception_3a/pool_proj
I0714 22:17:54.641249 29079 net.cpp:399] inception_3a/output -> inception_3a/output
I0714 22:17:54.641393 29079 net.cpp:141] Setting up inception_3a/output
I0714 22:17:54.641407 29079 net.cpp:148] Top shape: 10 256 28 28 (2007040)
I0714 22:17:54.641412 29079 net.cpp:156] Memory required for data: 241848320
I0714 22:17:54.641417 29079 layer_factory.hpp:77] Creating layer inception_3a/output_inception_3a/output_0_split
I0714 22:17:54.641433 29079 net.cpp:91] Creating Layer inception_3a/output_inception_3a/output_0_split
I0714 22:17:54.641439 29079 net.cpp:425] inception_3a/output_inception_3a/output_0_split <- inception_3a/output
I0714 22:17:54.641450 29079 net.cpp:399] inception_3a/output_inception_3a/output_0_split -> inception_3a/output_inception_3a/output_0_split_0
I0714 22:17:54.641460 29079 net.cpp:399] inception_3a/output_inception_3a/output_0_split -> inception_3a/output_inception_3a/output_0_split_1
I0714 22:17:54.641470 29079 net.cpp:399] inception_3a/output_inception_3a/output_0_split -> inception_3a/output_inception_3a/output_0_split_2
I0714 22:17:54.641479 29079 net.cpp:399] inception_3a/output_inception_3a/output_0_split -> inception_3a/output_inception_3a/output_0_split_3
I0714 22:17:54.642634 29079 net.cpp:141] Setting up inception_3a/output_inception_3a/output_0_split
I0714 22:17:54.642648 29079 net.cpp:148] Top shape: 10 256 28 28 (2007040)
I0714 22:17:54.642654 29079 net.cpp:148] Top shape: 10 256 28 28 (2007040)
I0714 22:17:54.642662 29079 net.cpp:148] Top shape: 10 256 28 28 (2007040)
I0714 22:17:54.642668 29079 net.cpp:148] Top shape: 10 256 28 28 (2007040)
I0714 22:17:54.642671 29079 net.cpp:156] Memory required for data: 273960960
I0714 22:17:54.642678 29079 layer_factory.hpp:77] Creating layer inception_3b/1x1
I0714 22:17:54.642706 29079 net.cpp:91] Creating Layer inception_3b/1x1
I0714 22:17:54.642715 29079 net.cpp:425] inception_3b/1x1 <- inception_3a/output_inception_3a/output_0_split_0
I0714 22:17:54.642729 29079 net.cpp:399] inception_3b/1x1 -> inception_3b/1x1
I0714 22:17:54.644625 29083 net.cpp:141] Setting up inception_3a/pool_proj
I0714 22:17:54.644647 29083 net.cpp:148] Top shape: 10 32 28 28 (250880)
I0714 22:17:54.644654 29083 net.cpp:156] Memory required for data: 232816640
I0714 22:17:54.644670 29083 layer_factory.hpp:77] Creating layer inception_3a/relu_pool_proj
I0714 22:17:54.644685 29083 net.cpp:91] Creating Layer inception_3a/relu_pool_proj
I0714 22:17:54.644692 29083 net.cpp:425] inception_3a/relu_pool_proj <- inception_3a/pool_proj
I0714 22:17:54.644701 29083 net.cpp:386] inception_3a/relu_pool_proj -> inception_3a/pool_proj (in-place)
I0714 22:17:54.645716 29083 net.cpp:141] Setting up inception_3a/relu_pool_proj
I0714 22:17:54.645735 29083 net.cpp:148] Top shape: 10 32 28 28 (250880)
I0714 22:17:54.645740 29083 net.cpp:156] Memory required for data: 233820160
I0714 22:17:54.645746 29083 layer_factory.hpp:77] Creating layer inception_3a/output
I0714 22:17:54.645761 29083 net.cpp:91] Creating Layer inception_3a/output
I0714 22:17:54.645767 29083 net.cpp:425] inception_3a/output <- inception_3a/1x1
I0714 22:17:54.645774 29083 net.cpp:425] inception_3a/output <- inception_3a/3x3
I0714 22:17:54.645781 29083 net.cpp:425] inception_3a/output <- inception_3a/5x5
I0714 22:17:54.645787 29083 net.cpp:425] inception_3a/output <- inception_3a/pool_proj
I0714 22:17:54.645794 29083 net.cpp:399] inception_3a/output -> inception_3a/output
I0714 22:17:54.645932 29083 net.cpp:141] Setting up inception_3a/output
I0714 22:17:54.645946 29083 net.cpp:148] Top shape: 10 256 28 28 (2007040)
I0714 22:17:54.645951 29083 net.cpp:156] Memory required for data: 241848320
I0714 22:17:54.645956 29083 layer_factory.hpp:77] Creating layer inception_3a/output_inception_3a/output_0_split
I0714 22:17:54.645972 29083 net.cpp:91] Creating Layer inception_3a/output_inception_3a/output_0_split
I0714 22:17:54.645977 29083 net.cpp:425] inception_3a/output_inception_3a/output_0_split <- inception_3a/output
I0714 22:17:54.645985 29083 net.cpp:399] inception_3a/output_inception_3a/output_0_split -> inception_3a/output_inception_3a/output_0_split_0
I0714 22:17:54.645999 29083 net.cpp:399] inception_3a/output_inception_3a/output_0_split -> inception_3a/output_inception_3a/output_0_split_1
I0714 22:17:54.646009 29083 net.cpp:399] inception_3a/output_inception_3a/output_0_split -> inception_3a/output_inception_3a/output_0_split_2
I0714 22:17:54.646018 29083 net.cpp:399] inception_3a/output_inception_3a/output_0_split -> inception_3a/output_inception_3a/output_0_split_3
I0714 22:17:54.647152 29083 net.cpp:141] Setting up inception_3a/output_inception_3a/output_0_split
I0714 22:17:54.647167 29083 net.cpp:148] Top shape: 10 256 28 28 (2007040)
I0714 22:17:54.647174 29083 net.cpp:148] Top shape: 10 256 28 28 (2007040)
I0714 22:17:54.647181 29083 net.cpp:148] Top shape: 10 256 28 28 (2007040)
I0714 22:17:54.647186 29083 net.cpp:148] Top shape: 10 256 28 28 (2007040)
I0714 22:17:54.647191 29083 net.cpp:156] Memory required for data: 273960960
I0714 22:17:54.647197 29083 layer_factory.hpp:77] Creating layer inception_3b/1x1
I0714 22:17:54.647214 29083 net.cpp:91] Creating Layer inception_3b/1x1
I0714 22:17:54.647222 29083 net.cpp:425] inception_3b/1x1 <- inception_3a/output_inception_3a/output_0_split_0
I0714 22:17:54.647233 29083 net.cpp:399] inception_3b/1x1 -> inception_3b/1x1
I0714 22:17:54.648756 29079 net.cpp:141] Setting up inception_3b/1x1
I0714 22:17:54.648787 29079 net.cpp:148] Top shape: 10 128 28 28 (1003520)
I0714 22:17:54.648793 29079 net.cpp:156] Memory required for data: 277975040
I0714 22:17:54.648804 29079 layer_factory.hpp:77] Creating layer inception_3b/relu_1x1
I0714 22:17:54.648815 29079 net.cpp:91] Creating Layer inception_3b/relu_1x1
I0714 22:17:54.648823 29079 net.cpp:425] inception_3b/relu_1x1 <- inception_3b/1x1
I0714 22:17:54.648831 29079 net.cpp:386] inception_3b/relu_1x1 -> inception_3b/1x1 (in-place)
I0714 22:17:54.649257 29079 net.cpp:141] Setting up inception_3b/relu_1x1
I0714 22:17:54.649271 29079 net.cpp:148] Top shape: 10 128 28 28 (1003520)
I0714 22:17:54.649276 29079 net.cpp:156] Memory required for data: 281989120
I0714 22:17:54.649282 29079 layer_factory.hpp:77] Creating layer inception_3b/3x3_reduce
I0714 22:17:54.649301 29079 net.cpp:91] Creating Layer inception_3b/3x3_reduce
I0714 22:17:54.649307 29079 net.cpp:425] inception_3b/3x3_reduce <- inception_3a/output_inception_3a/output_0_split_1
I0714 22:17:54.649322 29079 net.cpp:399] inception_3b/3x3_reduce -> inception_3b/3x3_reduce
I0714 22:17:54.652179 29083 net.cpp:141] Setting up inception_3b/1x1
I0714 22:17:54.652206 29083 net.cpp:148] Top shape: 10 128 28 28 (1003520)
I0714 22:17:54.652214 29083 net.cpp:156] Memory required for data: 277975040
I0714 22:17:54.652223 29083 layer_factory.hpp:77] Creating layer inception_3b/relu_1x1
I0714 22:17:54.652235 29083 net.cpp:91] Creating Layer inception_3b/relu_1x1
I0714 22:17:54.652241 29083 net.cpp:425] inception_3b/relu_1x1 <- inception_3b/1x1
I0714 22:17:54.652250 29083 net.cpp:386] inception_3b/relu_1x1 -> inception_3b/1x1 (in-place)
I0714 22:17:54.652642 29083 net.cpp:141] Setting up inception_3b/relu_1x1
I0714 22:17:54.652655 29083 net.cpp:148] Top shape: 10 128 28 28 (1003520)
I0714 22:17:54.652662 29083 net.cpp:156] Memory required for data: 281989120
I0714 22:17:54.652667 29083 layer_factory.hpp:77] Creating layer inception_3b/3x3_reduce
I0714 22:17:54.652684 29083 net.cpp:91] Creating Layer inception_3b/3x3_reduce
I0714 22:17:54.652690 29083 net.cpp:425] inception_3b/3x3_reduce <- inception_3a/output_inception_3a/output_0_split_1
I0714 22:17:54.652704 29083 net.cpp:399] inception_3b/3x3_reduce -> inception_3b/3x3_reduce
I0714 22:17:54.655107 29079 net.cpp:141] Setting up inception_3b/3x3_reduce
I0714 22:17:54.655130 29079 net.cpp:148] Top shape: 10 128 28 28 (1003520)
I0714 22:17:54.655138 29079 net.cpp:156] Memory required for data: 286003200
I0714 22:17:54.655148 29079 layer_factory.hpp:77] Creating layer inception_3b/relu_3x3_reduce
I0714 22:17:54.655161 29079 net.cpp:91] Creating Layer inception_3b/relu_3x3_reduce
I0714 22:17:54.655169 29079 net.cpp:425] inception_3b/relu_3x3_reduce <- inception_3b/3x3_reduce
I0714 22:17:54.655177 29079 net.cpp:386] inception_3b/relu_3x3_reduce -> inception_3b/3x3_reduce (in-place)
I0714 22:17:54.655622 29079 net.cpp:141] Setting up inception_3b/relu_3x3_reduce
I0714 22:17:54.655638 29079 net.cpp:148] Top shape: 10 128 28 28 (1003520)
I0714 22:17:54.655644 29079 net.cpp:156] Memory required for data: 290017280
I0714 22:17:54.655650 29079 layer_factory.hpp:77] Creating layer inception_3b/3x3
I0714 22:17:54.655668 29079 net.cpp:91] Creating Layer inception_3b/3x3
I0714 22:17:54.655675 29079 net.cpp:425] inception_3b/3x3 <- inception_3b/3x3_reduce
I0714 22:17:54.655689 29079 net.cpp:399] inception_3b/3x3 -> inception_3b/3x3
I0714 22:17:54.659855 29083 net.cpp:141] Setting up inception_3b/3x3_reduce
I0714 22:17:54.659880 29083 net.cpp:148] Top shape: 10 128 28 28 (1003520)
I0714 22:17:54.659888 29083 net.cpp:156] Memory required for data: 286003200
I0714 22:17:54.659898 29083 layer_factory.hpp:77] Creating layer inception_3b/relu_3x3_reduce
I0714 22:17:54.659914 29083 net.cpp:91] Creating Layer inception_3b/relu_3x3_reduce
I0714 22:17:54.659920 29083 net.cpp:425] inception_3b/relu_3x3_reduce <- inception_3b/3x3_reduce
I0714 22:17:54.659929 29083 net.cpp:386] inception_3b/relu_3x3_reduce -> inception_3b/3x3_reduce (in-place)
I0714 22:17:54.660198 29083 net.cpp:141] Setting up inception_3b/relu_3x3_reduce
I0714 22:17:54.660212 29083 net.cpp:148] Top shape: 10 128 28 28 (1003520)
I0714 22:17:54.660217 29083 net.cpp:156] Memory required for data: 290017280
I0714 22:17:54.660223 29083 layer_factory.hpp:77] Creating layer inception_3b/3x3
I0714 22:17:54.660240 29083 net.cpp:91] Creating Layer inception_3b/3x3
I0714 22:17:54.660246 29083 net.cpp:425] inception_3b/3x3 <- inception_3b/3x3_reduce
I0714 22:17:54.660259 29083 net.cpp:399] inception_3b/3x3 -> inception_3b/3x3
I0714 22:17:54.666795 29079 net.cpp:141] Setting up inception_3b/3x3
I0714 22:17:54.666827 29079 net.cpp:148] Top shape: 10 192 28 28 (1505280)
I0714 22:17:54.666834 29079 net.cpp:156] Memory required for data: 296038400
I0714 22:17:54.666847 29079 layer_factory.hpp:77] Creating layer inception_3b/relu_3x3
I0714 22:17:54.666872 29079 net.cpp:91] Creating Layer inception_3b/relu_3x3
I0714 22:17:54.666879 29079 net.cpp:425] inception_3b/relu_3x3 <- inception_3b/3x3
I0714 22:17:54.666889 29079 net.cpp:386] inception_3b/relu_3x3 -> inception_3b/3x3 (in-place)
I0714 22:17:54.668107 29079 net.cpp:141] Setting up inception_3b/relu_3x3
I0714 22:17:54.668125 29079 net.cpp:148] Top shape: 10 192 28 28 (1505280)
I0714 22:17:54.668130 29079 net.cpp:156] Memory required for data: 302059520
I0714 22:17:54.668136 29079 layer_factory.hpp:77] Creating layer inception_3b/5x5_reduce
I0714 22:17:54.668157 29079 net.cpp:91] Creating Layer inception_3b/5x5_reduce
I0714 22:17:54.668165 29079 net.cpp:425] inception_3b/5x5_reduce <- inception_3a/output_inception_3a/output_0_split_2
I0714 22:17:54.668179 29079 net.cpp:399] inception_3b/5x5_reduce -> inception_3b/5x5_reduce
I0714 22:17:54.668229 29083 net.cpp:141] Setting up inception_3b/3x3
I0714 22:17:54.668252 29083 net.cpp:148] Top shape: 10 192 28 28 (1505280)
I0714 22:17:54.668258 29083 net.cpp:156] Memory required for data: 296038400
I0714 22:17:54.668269 29083 layer_factory.hpp:77] Creating layer inception_3b/relu_3x3
I0714 22:17:54.668287 29083 net.cpp:91] Creating Layer inception_3b/relu_3x3
I0714 22:17:54.668295 29083 net.cpp:425] inception_3b/relu_3x3 <- inception_3b/3x3
I0714 22:17:54.668304 29083 net.cpp:386] inception_3b/relu_3x3 -> inception_3b/3x3 (in-place)
I0714 22:17:54.669319 29083 net.cpp:141] Setting up inception_3b/relu_3x3
I0714 22:17:54.669338 29083 net.cpp:148] Top shape: 10 192 28 28 (1505280)
I0714 22:17:54.669344 29083 net.cpp:156] Memory required for data: 302059520
I0714 22:17:54.669350 29083 layer_factory.hpp:77] Creating layer inception_3b/5x5_reduce
I0714 22:17:54.669370 29083 net.cpp:91] Creating Layer inception_3b/5x5_reduce
I0714 22:17:54.669378 29083 net.cpp:425] inception_3b/5x5_reduce <- inception_3a/output_inception_3a/output_0_split_2
I0714 22:17:54.669390 29083 net.cpp:399] inception_3b/5x5_reduce -> inception_3b/5x5_reduce
I0714 22:17:54.673750 29079 net.cpp:141] Setting up inception_3b/5x5_reduce
I0714 22:17:54.673779 29079 net.cpp:148] Top shape: 10 32 28 28 (250880)
I0714 22:17:54.673784 29079 net.cpp:156] Memory required for data: 303063040
I0714 22:17:54.673796 29079 layer_factory.hpp:77] Creating layer inception_3b/relu_5x5_reduce
I0714 22:17:54.673809 29079 net.cpp:91] Creating Layer inception_3b/relu_5x5_reduce
I0714 22:17:54.673816 29079 net.cpp:425] inception_3b/relu_5x5_reduce <- inception_3b/5x5_reduce
I0714 22:17:54.673825 29079 net.cpp:386] inception_3b/relu_5x5_reduce -> inception_3b/5x5_reduce (in-place)
I0714 22:17:54.674221 29079 net.cpp:141] Setting up inception_3b/relu_5x5_reduce
I0714 22:17:54.674235 29079 net.cpp:148] Top shape: 10 32 28 28 (250880)
I0714 22:17:54.674240 29079 net.cpp:156] Memory required for data: 304066560
I0714 22:17:54.674247 29079 layer_factory.hpp:77] Creating layer inception_3b/5x5
I0714 22:17:54.674264 29079 net.cpp:91] Creating Layer inception_3b/5x5
I0714 22:17:54.674271 29079 net.cpp:425] inception_3b/5x5 <- inception_3b/5x5_reduce
I0714 22:17:54.674284 29079 net.cpp:399] inception_3b/5x5 -> inception_3b/5x5
I0714 22:17:54.677660 29083 net.cpp:141] Setting up inception_3b/5x5_reduce
I0714 22:17:54.677685 29083 net.cpp:148] Top shape: 10 32 28 28 (250880)
I0714 22:17:54.677690 29083 net.cpp:156] Memory required for data: 303063040
I0714 22:17:54.677701 29083 layer_factory.hpp:77] Creating layer inception_3b/relu_5x5_reduce
I0714 22:17:54.677712 29083 net.cpp:91] Creating Layer inception_3b/relu_5x5_reduce
I0714 22:17:54.677719 29083 net.cpp:425] inception_3b/relu_5x5_reduce <- inception_3b/5x5_reduce
I0714 22:17:54.677727 29083 net.cpp:386] inception_3b/relu_5x5_reduce -> inception_3b/5x5_reduce (in-place)
I0714 22:17:54.678010 29083 net.cpp:141] Setting up inception_3b/relu_5x5_reduce
I0714 22:17:54.678023 29083 net.cpp:148] Top shape: 10 32 28 28 (250880)
I0714 22:17:54.678028 29083 net.cpp:156] Memory required for data: 304066560
I0714 22:17:54.678035 29083 layer_factory.hpp:77] Creating layer inception_3b/5x5
I0714 22:17:54.678050 29083 net.cpp:91] Creating Layer inception_3b/5x5
I0714 22:17:54.678057 29083 net.cpp:425] inception_3b/5x5 <- inception_3b/5x5_reduce
I0714 22:17:54.678071 29083 net.cpp:399] inception_3b/5x5 -> inception_3b/5x5
I0714 22:17:54.683800 29079 net.cpp:141] Setting up inception_3b/5x5
I0714 22:17:54.683831 29079 net.cpp:148] Top shape: 10 96 28 28 (752640)
I0714 22:17:54.683838 29079 net.cpp:156] Memory required for data: 307077120
I0714 22:17:54.683851 29079 layer_factory.hpp:77] Creating layer inception_3b/relu_5x5
I0714 22:17:54.683863 29079 net.cpp:91] Creating Layer inception_3b/relu_5x5
I0714 22:17:54.683871 29079 net.cpp:425] inception_3b/relu_5x5 <- inception_3b/5x5
I0714 22:17:54.683884 29079 net.cpp:386] inception_3b/relu_5x5 -> inception_3b/5x5 (in-place)
I0714 22:17:54.684187 29079 net.cpp:141] Setting up inception_3b/relu_5x5
I0714 22:17:54.684200 29079 net.cpp:148] Top shape: 10 96 28 28 (752640)
I0714 22:17:54.684206 29079 net.cpp:156] Memory required for data: 310087680
I0714 22:17:54.684211 29079 layer_factory.hpp:77] Creating layer inception_3b/pool
I0714 22:17:54.684226 29079 net.cpp:91] Creating Layer inception_3b/pool
I0714 22:17:54.684232 29079 net.cpp:425] inception_3b/pool <- inception_3a/output_inception_3a/output_0_split_3
I0714 22:17:54.684242 29079 net.cpp:399] inception_3b/pool -> inception_3b/pool
I0714 22:17:54.684684 29079 net.cpp:141] Setting up inception_3b/pool
I0714 22:17:54.684696 29079 net.cpp:148] Top shape: 10 256 28 28 (2007040)
I0714 22:17:54.684701 29079 net.cpp:156] Memory required for data: 318115840
I0714 22:17:54.684707 29079 layer_factory.hpp:77] Creating layer inception_3b/pool_proj
I0714 22:17:54.684726 29079 net.cpp:91] Creating Layer inception_3b/pool_proj
I0714 22:17:54.684736 29079 net.cpp:425] inception_3b/pool_proj <- inception_3b/pool
I0714 22:17:54.684746 29079 net.cpp:399] inception_3b/pool_proj -> inception_3b/pool_proj
I0714 22:17:54.685652 29083 net.cpp:141] Setting up inception_3b/5x5
I0714 22:17:54.685677 29083 net.cpp:148] Top shape: 10 96 28 28 (752640)
I0714 22:17:54.685683 29083 net.cpp:156] Memory required for data: 307077120
I0714 22:17:54.685693 29083 layer_factory.hpp:77] Creating layer inception_3b/relu_5x5
I0714 22:17:54.685703 29083 net.cpp:91] Creating Layer inception_3b/relu_5x5
I0714 22:17:54.685710 29083 net.cpp:425] inception_3b/relu_5x5 <- inception_3b/5x5
I0714 22:17:54.685725 29083 net.cpp:386] inception_3b/relu_5x5 -> inception_3b/5x5 (in-place)
I0714 22:17:54.686128 29083 net.cpp:141] Setting up inception_3b/relu_5x5
I0714 22:17:54.686142 29083 net.cpp:148] Top shape: 10 96 28 28 (752640)
I0714 22:17:54.686147 29083 net.cpp:156] Memory required for data: 310087680
I0714 22:17:54.686153 29083 layer_factory.hpp:77] Creating layer inception_3b/pool
I0714 22:17:54.686172 29083 net.cpp:91] Creating Layer inception_3b/pool
I0714 22:17:54.686180 29083 net.cpp:425] inception_3b/pool <- inception_3a/output_inception_3a/output_0_split_3
I0714 22:17:54.686192 29083 net.cpp:399] inception_3b/pool -> inception_3b/pool
I0714 22:17:54.687191 29083 net.cpp:141] Setting up inception_3b/pool
I0714 22:17:54.687207 29083 net.cpp:148] Top shape: 10 256 28 28 (2007040)
I0714 22:17:54.687213 29083 net.cpp:156] Memory required for data: 318115840
I0714 22:17:54.687219 29083 layer_factory.hpp:77] Creating layer inception_3b/pool_proj
I0714 22:17:54.687234 29083 net.cpp:91] Creating Layer inception_3b/pool_proj
I0714 22:17:54.687242 29083 net.cpp:425] inception_3b/pool_proj <- inception_3b/pool
I0714 22:17:54.687252 29083 net.cpp:399] inception_3b/pool_proj -> inception_3b/pool_proj
I0714 22:17:54.689276 29079 net.cpp:141] Setting up inception_3b/pool_proj
I0714 22:17:54.689299 29079 net.cpp:148] Top shape: 10 64 28 28 (501760)
I0714 22:17:54.689306 29079 net.cpp:156] Memory required for data: 320122880
I0714 22:17:54.689317 29079 layer_factory.hpp:77] Creating layer inception_3b/relu_pool_proj
I0714 22:17:54.689327 29079 net.cpp:91] Creating Layer inception_3b/relu_pool_proj
I0714 22:17:54.689334 29079 net.cpp:425] inception_3b/relu_pool_proj <- inception_3b/pool_proj
I0714 22:17:54.689342 29079 net.cpp:386] inception_3b/relu_pool_proj -> inception_3b/pool_proj (in-place)
I0714 22:17:54.690634 29079 net.cpp:141] Setting up inception_3b/relu_pool_proj
I0714 22:17:54.690652 29079 net.cpp:148] Top shape: 10 64 28 28 (501760)
I0714 22:17:54.690659 29079 net.cpp:156] Memory required for data: 322129920
I0714 22:17:54.690665 29079 layer_factory.hpp:77] Creating layer inception_3b/output
I0714 22:17:54.690675 29079 net.cpp:91] Creating Layer inception_3b/output
I0714 22:17:54.690682 29079 net.cpp:425] inception_3b/output <- inception_3b/1x1
I0714 22:17:54.690701 29079 net.cpp:425] inception_3b/output <- inception_3b/3x3
I0714 22:17:54.690709 29079 net.cpp:425] inception_3b/output <- inception_3b/5x5
I0714 22:17:54.690716 29079 net.cpp:425] inception_3b/output <- inception_3b/pool_proj
I0714 22:17:54.690727 29079 net.cpp:399] inception_3b/output -> inception_3b/output
I0714 22:17:54.691026 29079 net.cpp:141] Setting up inception_3b/output
I0714 22:17:54.691040 29079 net.cpp:148] Top shape: 10 480 28 28 (3763200)
I0714 22:17:54.691045 29079 net.cpp:156] Memory required for data: 337182720
I0714 22:17:54.691050 29079 layer_factory.hpp:77] Creating layer pool3/3x3_s2
I0714 22:17:54.691059 29079 net.cpp:91] Creating Layer pool3/3x3_s2
I0714 22:17:54.691066 29079 net.cpp:425] pool3/3x3_s2 <- inception_3b/output
I0714 22:17:54.691078 29079 net.cpp:399] pool3/3x3_s2 -> pool3/3x3_s2
I0714 22:17:54.691450 29079 net.cpp:141] Setting up pool3/3x3_s2
I0714 22:17:54.691463 29079 net.cpp:148] Top shape: 10 480 14 14 (940800)
I0714 22:17:54.691468 29079 net.cpp:156] Memory required for data: 340945920
I0714 22:17:54.691474 29079 layer_factory.hpp:77] Creating layer pool3/3x3_s2_pool3/3x3_s2_0_split
I0714 22:17:54.691488 29079 net.cpp:91] Creating Layer pool3/3x3_s2_pool3/3x3_s2_0_split
I0714 22:17:54.691494 29079 net.cpp:425] pool3/3x3_s2_pool3/3x3_s2_0_split <- pool3/3x3_s2
I0714 22:17:54.691503 29079 net.cpp:399] pool3/3x3_s2_pool3/3x3_s2_0_split -> pool3/3x3_s2_pool3/3x3_s2_0_split_0
I0714 22:17:54.691514 29079 net.cpp:399] pool3/3x3_s2_pool3/3x3_s2_0_split -> pool3/3x3_s2_pool3/3x3_s2_0_split_1
I0714 22:17:54.691524 29079 net.cpp:399] pool3/3x3_s2_pool3/3x3_s2_0_split -> pool3/3x3_s2_pool3/3x3_s2_0_split_2
I0714 22:17:54.691532 29079 net.cpp:399] pool3/3x3_s2_pool3/3x3_s2_0_split -> pool3/3x3_s2_pool3/3x3_s2_0_split_3
I0714 22:17:54.692065 29079 net.cpp:141] Setting up pool3/3x3_s2_pool3/3x3_s2_0_split
I0714 22:17:54.692080 29079 net.cpp:148] Top shape: 10 480 14 14 (940800)
I0714 22:17:54.692087 29079 net.cpp:148] Top shape: 10 480 14 14 (940800)
I0714 22:17:54.692093 29079 net.cpp:148] Top shape: 10 480 14 14 (940800)
I0714 22:17:54.692100 29079 net.cpp:148] Top shape: 10 480 14 14 (940800)
I0714 22:17:54.692103 29079 net.cpp:156] Memory required for data: 355998720
I0714 22:17:54.692109 29079 layer_factory.hpp:77] Creating layer inception_4a/1x1
I0714 22:17:54.692132 29079 net.cpp:91] Creating Layer inception_4a/1x1
I0714 22:17:54.692139 29079 net.cpp:425] inception_4a/1x1 <- pool3/3x3_s2_pool3/3x3_s2_0_split_0
I0714 22:17:54.692149 29079 net.cpp:399] inception_4a/1x1 -> inception_4a/1x1
I0714 22:17:54.692176 29083 net.cpp:141] Setting up inception_3b/pool_proj
I0714 22:17:54.692194 29083 net.cpp:148] Top shape: 10 64 28 28 (501760)
I0714 22:17:54.692200 29083 net.cpp:156] Memory required for data: 320122880
I0714 22:17:54.692210 29083 layer_factory.hpp:77] Creating layer inception_3b/relu_pool_proj
I0714 22:17:54.692219 29083 net.cpp:91] Creating Layer inception_3b/relu_pool_proj
I0714 22:17:54.692226 29083 net.cpp:425] inception_3b/relu_pool_proj <- inception_3b/pool_proj
I0714 22:17:54.692234 29083 net.cpp:386] inception_3b/relu_pool_proj -> inception_3b/pool_proj (in-place)
I0714 22:17:54.693259 29083 net.cpp:141] Setting up inception_3b/relu_pool_proj
I0714 22:17:54.693279 29083 net.cpp:148] Top shape: 10 64 28 28 (501760)
I0714 22:17:54.693284 29083 net.cpp:156] Memory required for data: 322129920
I0714 22:17:54.693290 29083 layer_factory.hpp:77] Creating layer inception_3b/output
I0714 22:17:54.693300 29083 net.cpp:91] Creating Layer inception_3b/output
I0714 22:17:54.693306 29083 net.cpp:425] inception_3b/output <- inception_3b/1x1
I0714 22:17:54.693315 29083 net.cpp:425] inception_3b/output <- inception_3b/3x3
I0714 22:17:54.693320 29083 net.cpp:425] inception_3b/output <- inception_3b/5x5
I0714 22:17:54.693326 29083 net.cpp:425] inception_3b/output <- inception_3b/pool_proj
I0714 22:17:54.693338 29083 net.cpp:399] inception_3b/output -> inception_3b/output
I0714 22:17:54.693461 29083 net.cpp:141] Setting up inception_3b/output
I0714 22:17:54.693473 29083 net.cpp:148] Top shape: 10 480 28 28 (3763200)
I0714 22:17:54.693478 29083 net.cpp:156] Memory required for data: 337182720
I0714 22:17:54.693485 29083 layer_factory.hpp:77] Creating layer pool3/3x3_s2
I0714 22:17:54.693493 29083 net.cpp:91] Creating Layer pool3/3x3_s2
I0714 22:17:54.693500 29083 net.cpp:425] pool3/3x3_s2 <- inception_3b/output
I0714 22:17:54.693512 29083 net.cpp:399] pool3/3x3_s2 -> pool3/3x3_s2
I0714 22:17:54.693629 29083 net.cpp:141] Setting up pool3/3x3_s2
I0714 22:17:54.693640 29083 net.cpp:148] Top shape: 10 480 14 14 (940800)
I0714 22:17:54.693645 29083 net.cpp:156] Memory required for data: 340945920
I0714 22:17:54.693650 29083 layer_factory.hpp:77] Creating layer pool3/3x3_s2_pool3/3x3_s2_0_split
I0714 22:17:54.693665 29083 net.cpp:91] Creating Layer pool3/3x3_s2_pool3/3x3_s2_0_split
I0714 22:17:54.693670 29083 net.cpp:425] pool3/3x3_s2_pool3/3x3_s2_0_split <- pool3/3x3_s2
I0714 22:17:54.693678 29083 net.cpp:399] pool3/3x3_s2_pool3/3x3_s2_0_split -> pool3/3x3_s2_pool3/3x3_s2_0_split_0
I0714 22:17:54.693687 29083 net.cpp:399] pool3/3x3_s2_pool3/3x3_s2_0_split -> pool3/3x3_s2_pool3/3x3_s2_0_split_1
I0714 22:17:54.693698 29083 net.cpp:399] pool3/3x3_s2_pool3/3x3_s2_0_split -> pool3/3x3_s2_pool3/3x3_s2_0_split_2
I0714 22:17:54.693707 29083 net.cpp:399] pool3/3x3_s2_pool3/3x3_s2_0_split -> pool3/3x3_s2_pool3/3x3_s2_0_split_3
I0714 22:17:54.693867 29083 net.cpp:141] Setting up pool3/3x3_s2_pool3/3x3_s2_0_split
I0714 22:17:54.693878 29083 net.cpp:148] Top shape: 10 480 14 14 (940800)
I0714 22:17:54.693886 29083 net.cpp:148] Top shape: 10 480 14 14 (940800)
I0714 22:17:54.693892 29083 net.cpp:148] Top shape: 10 480 14 14 (940800)
I0714 22:17:54.693897 29083 net.cpp:148] Top shape: 10 480 14 14 (940800)
I0714 22:17:54.693902 29083 net.cpp:156] Memory required for data: 355998720
I0714 22:17:54.693907 29083 layer_factory.hpp:77] Creating layer inception_4a/1x1
I0714 22:17:54.693925 29083 net.cpp:91] Creating Layer inception_4a/1x1
I0714 22:17:54.693931 29083 net.cpp:425] inception_4a/1x1 <- pool3/3x3_s2_pool3/3x3_s2_0_split_0
I0714 22:17:54.693941 29083 net.cpp:399] inception_4a/1x1 -> inception_4a/1x1
I0714 22:17:54.699955 29079 net.cpp:141] Setting up inception_4a/1x1
I0714 22:17:54.699985 29079 net.cpp:148] Top shape: 10 192 14 14 (376320)
I0714 22:17:54.699992 29079 net.cpp:156] Memory required for data: 357504000
I0714 22:17:54.700004 29079 layer_factory.hpp:77] Creating layer inception_4a/relu_1x1
I0714 22:17:54.700021 29079 net.cpp:91] Creating Layer inception_4a/relu_1x1
I0714 22:17:54.700028 29079 net.cpp:425] inception_4a/relu_1x1 <- inception_4a/1x1
I0714 22:17:54.700038 29079 net.cpp:386] inception_4a/relu_1x1 -> inception_4a/1x1 (in-place)
I0714 22:17:54.700369 29083 net.cpp:141] Setting up inception_4a/1x1
I0714 22:17:54.700390 29083 net.cpp:148] Top shape: 10 192 14 14 (376320)
I0714 22:17:54.700397 29083 net.cpp:156] Memory required for data: 357504000
I0714 22:17:54.700407 29083 layer_factory.hpp:77] Creating layer inception_4a/relu_1x1
I0714 22:17:54.700423 29083 net.cpp:91] Creating Layer inception_4a/relu_1x1
I0714 22:17:54.700429 29083 net.cpp:425] inception_4a/relu_1x1 <- inception_4a/1x1
I0714 22:17:54.700439 29083 net.cpp:386] inception_4a/relu_1x1 -> inception_4a/1x1 (in-place)
I0714 22:17:54.700440 29079 net.cpp:141] Setting up inception_4a/relu_1x1
I0714 22:17:54.700454 29079 net.cpp:148] Top shape: 10 192 14 14 (376320)
I0714 22:17:54.700459 29079 net.cpp:156] Memory required for data: 359009280
I0714 22:17:54.700465 29079 layer_factory.hpp:77] Creating layer inception_4a/3x3_reduce
I0714 22:17:54.700485 29079 net.cpp:91] Creating Layer inception_4a/3x3_reduce
I0714 22:17:54.700492 29079 net.cpp:425] inception_4a/3x3_reduce <- pool3/3x3_s2_pool3/3x3_s2_0_split_1
I0714 22:17:54.700505 29079 net.cpp:399] inception_4a/3x3_reduce -> inception_4a/3x3_reduce
I0714 22:17:54.700947 29083 net.cpp:141] Setting up inception_4a/relu_1x1
I0714 22:17:54.700961 29083 net.cpp:148] Top shape: 10 192 14 14 (376320)
I0714 22:17:54.700966 29083 net.cpp:156] Memory required for data: 359009280
I0714 22:17:54.700973 29083 layer_factory.hpp:77] Creating layer inception_4a/3x3_reduce
I0714 22:17:54.700990 29083 net.cpp:91] Creating Layer inception_4a/3x3_reduce
I0714 22:17:54.700999 29083 net.cpp:425] inception_4a/3x3_reduce <- pool3/3x3_s2_pool3/3x3_s2_0_split_1
I0714 22:17:54.701011 29083 net.cpp:399] inception_4a/3x3_reduce -> inception_4a/3x3_reduce
I0714 22:17:54.705457 29079 net.cpp:141] Setting up inception_4a/3x3_reduce
I0714 22:17:54.705484 29079 net.cpp:148] Top shape: 10 96 14 14 (188160)
I0714 22:17:54.705490 29079 net.cpp:156] Memory required for data: 359761920
I0714 22:17:54.705510 29079 layer_factory.hpp:77] Creating layer inception_4a/relu_3x3_reduce
I0714 22:17:54.705526 29079 net.cpp:91] Creating Layer inception_4a/relu_3x3_reduce
I0714 22:17:54.705534 29079 net.cpp:425] inception_4a/relu_3x3_reduce <- inception_4a/3x3_reduce
I0714 22:17:54.705543 29079 net.cpp:386] inception_4a/relu_3x3_reduce -> inception_4a/3x3_reduce (in-place)
I0714 22:17:54.705865 29083 net.cpp:141] Setting up inception_4a/3x3_reduce
I0714 22:17:54.705886 29083 net.cpp:148] Top shape: 10 96 14 14 (188160)
I0714 22:17:54.705893 29083 net.cpp:156] Memory required for data: 359761920
I0714 22:17:54.705919 29083 layer_factory.hpp:77] Creating layer inception_4a/relu_3x3_reduce
I0714 22:17:54.705929 29083 net.cpp:91] Creating Layer inception_4a/relu_3x3_reduce
I0714 22:17:54.705935 29083 net.cpp:425] inception_4a/relu_3x3_reduce <- inception_4a/3x3_reduce
I0714 22:17:54.705945 29083 net.cpp:386] inception_4a/relu_3x3_reduce -> inception_4a/3x3_reduce (in-place)
I0714 22:17:54.705945 29079 net.cpp:141] Setting up inception_4a/relu_3x3_reduce
I0714 22:17:54.705960 29079 net.cpp:148] Top shape: 10 96 14 14 (188160)
I0714 22:17:54.705965 29079 net.cpp:156] Memory required for data: 360514560
I0714 22:17:54.705971 29079 layer_factory.hpp:77] Creating layer inception_4a/3x3
I0714 22:17:54.705991 29079 net.cpp:91] Creating Layer inception_4a/3x3
I0714 22:17:54.705997 29079 net.cpp:425] inception_4a/3x3 <- inception_4a/3x3_reduce
I0714 22:17:54.706010 29079 net.cpp:399] inception_4a/3x3 -> inception_4a/3x3
I0714 22:17:54.706454 29083 net.cpp:141] Setting up inception_4a/relu_3x3_reduce
I0714 22:17:54.706468 29083 net.cpp:148] Top shape: 10 96 14 14 (188160)
I0714 22:17:54.706473 29083 net.cpp:156] Memory required for data: 360514560
I0714 22:17:54.706480 29083 layer_factory.hpp:77] Creating layer inception_4a/3x3
I0714 22:17:54.706498 29083 net.cpp:91] Creating Layer inception_4a/3x3
I0714 22:17:54.706506 29083 net.cpp:425] inception_4a/3x3 <- inception_4a/3x3_reduce
I0714 22:17:54.706518 29083 net.cpp:399] inception_4a/3x3 -> inception_4a/3x3
I0714 22:17:54.714807 29079 net.cpp:141] Setting up inception_4a/3x3
I0714 22:17:54.714834 29079 net.cpp:148] Top shape: 10 208 14 14 (407680)
I0714 22:17:54.714841 29079 net.cpp:156] Memory required for data: 362145280
I0714 22:17:54.714853 29079 layer_factory.hpp:77] Creating layer inception_4a/relu_3x3
I0714 22:17:54.714864 29079 net.cpp:91] Creating Layer inception_4a/relu_3x3
I0714 22:17:54.714871 29079 net.cpp:425] inception_4a/relu_3x3 <- inception_4a/3x3
I0714 22:17:54.714884 29079 net.cpp:386] inception_4a/relu_3x3 -> inception_4a/3x3 (in-place)
I0714 22:17:54.716104 29079 net.cpp:141] Setting up inception_4a/relu_3x3
I0714 22:17:54.716122 29079 net.cpp:148] Top shape: 10 208 14 14 (407680)
I0714 22:17:54.716127 29079 net.cpp:156] Memory required for data: 363776000
I0714 22:17:54.716133 29079 layer_factory.hpp:77] Creating layer inception_4a/5x5_reduce
I0714 22:17:54.716162 29079 net.cpp:91] Creating Layer inception_4a/5x5_reduce
I0714 22:17:54.716171 29079 net.cpp:425] inception_4a/5x5_reduce <- pool3/3x3_s2_pool3/3x3_s2_0_split_2
I0714 22:17:54.716184 29079 net.cpp:399] inception_4a/5x5_reduce -> inception_4a/5x5_reduce
I0714 22:17:54.716323 29083 net.cpp:141] Setting up inception_4a/3x3
I0714 22:17:54.716347 29083 net.cpp:148] Top shape: 10 208 14 14 (407680)
I0714 22:17:54.716353 29083 net.cpp:156] Memory required for data: 362145280
I0714 22:17:54.716364 29083 layer_factory.hpp:77] Creating layer inception_4a/relu_3x3
I0714 22:17:54.716377 29083 net.cpp:91] Creating Layer inception_4a/relu_3x3
I0714 22:17:54.716383 29083 net.cpp:425] inception_4a/relu_3x3 <- inception_4a/3x3
I0714 22:17:54.716397 29083 net.cpp:386] inception_4a/relu_3x3 -> inception_4a/3x3 (in-place)
I0714 22:17:54.717483 29083 net.cpp:141] Setting up inception_4a/relu_3x3
I0714 22:17:54.717504 29083 net.cpp:148] Top shape: 10 208 14 14 (407680)
I0714 22:17:54.717509 29083 net.cpp:156] Memory required for data: 363776000
I0714 22:17:54.717514 29083 layer_factory.hpp:77] Creating layer inception_4a/5x5_reduce
I0714 22:17:54.717535 29083 net.cpp:91] Creating Layer inception_4a/5x5_reduce
I0714 22:17:54.717542 29083 net.cpp:425] inception_4a/5x5_reduce <- pool3/3x3_s2_pool3/3x3_s2_0_split_2
I0714 22:17:54.717555 29083 net.cpp:399] inception_4a/5x5_reduce -> inception_4a/5x5_reduce
I0714 22:17:54.722374 29079 net.cpp:141] Setting up inception_4a/5x5_reduce
I0714 22:17:54.722401 29079 net.cpp:148] Top shape: 10 16 14 14 (31360)
I0714 22:17:54.722407 29079 net.cpp:156] Memory required for data: 363901440
I0714 22:17:54.722419 29079 layer_factory.hpp:77] Creating layer inception_4a/relu_5x5_reduce
I0714 22:17:54.722430 29079 net.cpp:91] Creating Layer inception_4a/relu_5x5_reduce
I0714 22:17:54.722437 29079 net.cpp:425] inception_4a/relu_5x5_reduce <- inception_4a/5x5_reduce
I0714 22:17:54.722450 29079 net.cpp:386] inception_4a/relu_5x5_reduce -> inception_4a/5x5_reduce (in-place)
I0714 22:17:54.722959 29079 net.cpp:141] Setting up inception_4a/relu_5x5_reduce
I0714 22:17:54.722985 29079 net.cpp:148] Top shape: 10 16 14 14 (31360)
I0714 22:17:54.722990 29079 net.cpp:156] Memory required for data: 364026880
I0714 22:17:54.722996 29079 layer_factory.hpp:77] Creating layer inception_4a/5x5
I0714 22:17:54.723016 29079 net.cpp:91] Creating Layer inception_4a/5x5
I0714 22:17:54.723023 29079 net.cpp:425] inception_4a/5x5 <- inception_4a/5x5_reduce
I0714 22:17:54.723033 29079 net.cpp:399] inception_4a/5x5 -> inception_4a/5x5
I0714 22:17:54.723072 29083 net.cpp:141] Setting up inception_4a/5x5_reduce
I0714 22:17:54.723090 29083 net.cpp:148] Top shape: 10 16 14 14 (31360)
I0714 22:17:54.723096 29083 net.cpp:156] Memory required for data: 363901440
I0714 22:17:54.723107 29083 layer_factory.hpp:77] Creating layer inception_4a/relu_5x5_reduce
I0714 22:17:54.723117 29083 net.cpp:91] Creating Layer inception_4a/relu_5x5_reduce
I0714 22:17:54.723124 29083 net.cpp:425] inception_4a/relu_5x5_reduce <- inception_4a/5x5_reduce
I0714 22:17:54.723136 29083 net.cpp:386] inception_4a/relu_5x5_reduce -> inception_4a/5x5_reduce (in-place)
I0714 22:17:54.723671 29083 net.cpp:141] Setting up inception_4a/relu_5x5_reduce
I0714 22:17:54.723688 29083 net.cpp:148] Top shape: 10 16 14 14 (31360)
I0714 22:17:54.723695 29083 net.cpp:156] Memory required for data: 364026880
I0714 22:17:54.723701 29083 layer_factory.hpp:77] Creating layer inception_4a/5x5
I0714 22:17:54.723718 29083 net.cpp:91] Creating Layer inception_4a/5x5
I0714 22:17:54.723726 29083 net.cpp:425] inception_4a/5x5 <- inception_4a/5x5_reduce
I0714 22:17:54.723737 29083 net.cpp:399] inception_4a/5x5 -> inception_4a/5x5
I0714 22:17:54.727913 29079 net.cpp:141] Setting up inception_4a/5x5
I0714 22:17:54.727936 29079 net.cpp:148] Top shape: 10 48 14 14 (94080)
I0714 22:17:54.727942 29079 net.cpp:156] Memory required for data: 364403200
I0714 22:17:54.727952 29079 layer_factory.hpp:77] Creating layer inception_4a/relu_5x5
I0714 22:17:54.727968 29079 net.cpp:91] Creating Layer inception_4a/relu_5x5
I0714 22:17:54.727975 29079 net.cpp:425] inception_4a/relu_5x5 <- inception_4a/5x5
I0714 22:17:54.727984 29079 net.cpp:386] inception_4a/relu_5x5 -> inception_4a/5x5 (in-place)
I0714 22:17:54.728302 29079 net.cpp:141] Setting up inception_4a/relu_5x5
I0714 22:17:54.728315 29079 net.cpp:148] Top shape: 10 48 14 14 (94080)
I0714 22:17:54.728320 29079 net.cpp:156] Memory required for data: 364779520
I0714 22:17:54.728327 29079 layer_factory.hpp:77] Creating layer inception_4a/pool
I0714 22:17:54.728338 29079 net.cpp:91] Creating Layer inception_4a/pool
I0714 22:17:54.728343 29079 net.cpp:425] inception_4a/pool <- pool3/3x3_s2_pool3/3x3_s2_0_split_3
I0714 22:17:54.728356 29079 net.cpp:399] inception_4a/pool -> inception_4a/pool
I0714 22:17:54.728830 29079 net.cpp:141] Setting up inception_4a/pool
I0714 22:17:54.728845 29079 net.cpp:148] Top shape: 10 480 14 14 (940800)
I0714 22:17:54.728852 29079 net.cpp:156] Memory required for data: 368542720
I0714 22:17:54.728857 29079 layer_factory.hpp:77] Creating layer inception_4a/pool_proj
I0714 22:17:54.728874 29079 net.cpp:91] Creating Layer inception_4a/pool_proj
I0714 22:17:54.728881 29079 net.cpp:425] inception_4a/pool_proj <- inception_4a/pool
I0714 22:17:54.728894 29079 net.cpp:399] inception_4a/pool_proj -> inception_4a/pool_proj
I0714 22:17:54.729812 29083 net.cpp:141] Setting up inception_4a/5x5
I0714 22:17:54.729833 29083 net.cpp:148] Top shape: 10 48 14 14 (94080)
I0714 22:17:54.729840 29083 net.cpp:156] Memory required for data: 364403200
I0714 22:17:54.729851 29083 layer_factory.hpp:77] Creating layer inception_4a/relu_5x5
I0714 22:17:54.729864 29083 net.cpp:91] Creating Layer inception_4a/relu_5x5
I0714 22:17:54.729871 29083 net.cpp:425] inception_4a/relu_5x5 <- inception_4a/5x5
I0714 22:17:54.729882 29083 net.cpp:386] inception_4a/relu_5x5 -> inception_4a/5x5 (in-place)
I0714 22:17:54.730185 29083 net.cpp:141] Setting up inception_4a/relu_5x5
I0714 22:17:54.730198 29083 net.cpp:148] Top shape: 10 48 14 14 (94080)
I0714 22:17:54.730203 29083 net.cpp:156] Memory required for data: 364779520
I0714 22:17:54.730209 29083 layer_factory.hpp:77] Creating layer inception_4a/pool
I0714 22:17:54.730223 29083 net.cpp:91] Creating Layer inception_4a/pool
I0714 22:17:54.730231 29083 net.cpp:425] inception_4a/pool <- pool3/3x3_s2_pool3/3x3_s2_0_split_3
I0714 22:17:54.730239 29083 net.cpp:399] inception_4a/pool -> inception_4a/pool
I0714 22:17:54.730481 29083 net.cpp:141] Setting up inception_4a/pool
I0714 22:17:54.730494 29083 net.cpp:148] Top shape: 10 480 14 14 (940800)
I0714 22:17:54.730499 29083 net.cpp:156] Memory required for data: 368542720
I0714 22:17:54.730505 29083 layer_factory.hpp:77] Creating layer inception_4a/pool_proj
I0714 22:17:54.730523 29083 net.cpp:91] Creating Layer inception_4a/pool_proj
I0714 22:17:54.730530 29083 net.cpp:425] inception_4a/pool_proj <- inception_4a/pool
I0714 22:17:54.730542 29083 net.cpp:399] inception_4a/pool_proj -> inception_4a/pool_proj
I0714 22:17:54.733461 29079 net.cpp:141] Setting up inception_4a/pool_proj
I0714 22:17:54.733484 29079 net.cpp:148] Top shape: 10 64 14 14 (125440)
I0714 22:17:54.733490 29079 net.cpp:156] Memory required for data: 369044480
I0714 22:17:54.733501 29079 layer_factory.hpp:77] Creating layer inception_4a/relu_pool_proj
I0714 22:17:54.733512 29079 net.cpp:91] Creating Layer inception_4a/relu_pool_proj
I0714 22:17:54.733520 29079 net.cpp:425] inception_4a/relu_pool_proj <- inception_4a/pool_proj
I0714 22:17:54.733531 29079 net.cpp:386] inception_4a/relu_pool_proj -> inception_4a/pool_proj (in-place)
I0714 22:17:54.734841 29079 net.cpp:141] Setting up inception_4a/relu_pool_proj
I0714 22:17:54.734860 29079 net.cpp:148] Top shape: 10 64 14 14 (125440)
I0714 22:17:54.734865 29079 net.cpp:156] Memory required for data: 369546240
I0714 22:17:54.734871 29079 layer_factory.hpp:77] Creating layer inception_4a/output
I0714 22:17:54.734885 29079 net.cpp:91] Creating Layer inception_4a/output
I0714 22:17:54.734892 29079 net.cpp:425] inception_4a/output <- inception_4a/1x1
I0714 22:17:54.734900 29079 net.cpp:425] inception_4a/output <- inception_4a/3x3
I0714 22:17:54.734906 29079 net.cpp:425] inception_4a/output <- inception_4a/5x5
I0714 22:17:54.734912 29079 net.cpp:425] inception_4a/output <- inception_4a/pool_proj
I0714 22:17:54.734920 29079 net.cpp:399] inception_4a/output -> inception_4a/output
I0714 22:17:54.735239 29079 net.cpp:141] Setting up inception_4a/output
I0714 22:17:54.735251 29079 net.cpp:148] Top shape: 10 512 14 14 (1003520)
I0714 22:17:54.735256 29079 net.cpp:156] Memory required for data: 373560320
I0714 22:17:54.735262 29079 layer_factory.hpp:77] Creating layer inception_4a/output_inception_4a/output_0_split
I0714 22:17:54.735277 29079 net.cpp:91] Creating Layer inception_4a/output_inception_4a/output_0_split
I0714 22:17:54.735285 29079 net.cpp:425] inception_4a/output_inception_4a/output_0_split <- inception_4a/output
I0714 22:17:54.735292 29079 net.cpp:399] inception_4a/output_inception_4a/output_0_split -> inception_4a/output_inception_4a/output_0_split_0
I0714 22:17:54.735304 29079 net.cpp:399] inception_4a/output_inception_4a/output_0_split -> inception_4a/output_inception_4a/output_0_split_1
I0714 22:17:54.735316 29079 net.cpp:399] inception_4a/output_inception_4a/output_0_split -> inception_4a/output_inception_4a/output_0_split_2
I0714 22:17:54.735324 29079 net.cpp:399] inception_4a/output_inception_4a/output_0_split -> inception_4a/output_inception_4a/output_0_split_3
I0714 22:17:54.735870 29079 net.cpp:141] Setting up inception_4a/output_inception_4a/output_0_split
I0714 22:17:54.735883 29079 net.cpp:148] Top shape: 10 512 14 14 (1003520)
I0714 22:17:54.735890 29079 net.cpp:148] Top shape: 10 512 14 14 (1003520)
I0714 22:17:54.735896 29079 net.cpp:148] Top shape: 10 512 14 14 (1003520)
I0714 22:17:54.735901 29079 net.cpp:148] Top shape: 10 512 14 14 (1003520)
I0714 22:17:54.735906 29079 net.cpp:156] Memory required for data: 389616640
I0714 22:17:54.735913 29079 layer_factory.hpp:77] Creating layer inception_4b/1x1
I0714 22:17:54.735930 29079 net.cpp:91] Creating Layer inception_4b/1x1
I0714 22:17:54.735937 29079 net.cpp:425] inception_4b/1x1 <- inception_4a/output_inception_4a/output_0_split_0
I0714 22:17:54.735949 29079 net.cpp:399] inception_4b/1x1 -> inception_4b/1x1
I0714 22:17:54.736563 29083 net.cpp:141] Setting up inception_4a/pool_proj
I0714 22:17:54.736582 29083 net.cpp:148] Top shape: 10 64 14 14 (125440)
I0714 22:17:54.736588 29083 net.cpp:156] Memory required for data: 369044480
I0714 22:17:54.736598 29083 layer_factory.hpp:77] Creating layer inception_4a/relu_pool_proj
I0714 22:17:54.736613 29083 net.cpp:91] Creating Layer inception_4a/relu_pool_proj
I0714 22:17:54.736619 29083 net.cpp:425] inception_4a/relu_pool_proj <- inception_4a/pool_proj
I0714 22:17:54.736627 29083 net.cpp:386] inception_4a/relu_pool_proj -> inception_4a/pool_proj (in-place)
I0714 22:17:54.737594 29083 net.cpp:141] Setting up inception_4a/relu_pool_proj
I0714 22:17:54.737613 29083 net.cpp:148] Top shape: 10 64 14 14 (125440)
I0714 22:17:54.737619 29083 net.cpp:156] Memory required for data: 369546240
I0714 22:17:54.737625 29083 layer_factory.hpp:77] Creating layer inception_4a/output
I0714 22:17:54.737639 29083 net.cpp:91] Creating Layer inception_4a/output
I0714 22:17:54.737646 29083 net.cpp:425] inception_4a/output <- inception_4a/1x1
I0714 22:17:54.737654 29083 net.cpp:425] inception_4a/output <- inception_4a/3x3
I0714 22:17:54.737661 29083 net.cpp:425] inception_4a/output <- inception_4a/5x5
I0714 22:17:54.737668 29083 net.cpp:425] inception_4a/output <- inception_4a/pool_proj
I0714 22:17:54.737675 29083 net.cpp:399] inception_4a/output -> inception_4a/output
I0714 22:17:54.737762 29083 net.cpp:141] Setting up inception_4a/output
I0714 22:17:54.737773 29083 net.cpp:148] Top shape: 10 512 14 14 (1003520)
I0714 22:17:54.737778 29083 net.cpp:156] Memory required for data: 373560320
I0714 22:17:54.737783 29083 layer_factory.hpp:77] Creating layer inception_4a/output_inception_4a/output_0_split
I0714 22:17:54.737797 29083 net.cpp:91] Creating Layer inception_4a/output_inception_4a/output_0_split
I0714 22:17:54.737804 29083 net.cpp:425] inception_4a/output_inception_4a/output_0_split <- inception_4a/output
I0714 22:17:54.737812 29083 net.cpp:399] inception_4a/output_inception_4a/output_0_split -> inception_4a/output_inception_4a/output_0_split_0
I0714 22:17:54.737825 29083 net.cpp:399] inception_4a/output_inception_4a/output_0_split -> inception_4a/output_inception_4a/output_0_split_1
I0714 22:17:54.737834 29083 net.cpp:399] inception_4a/output_inception_4a/output_0_split -> inception_4a/output_inception_4a/output_0_split_2
I0714 22:17:54.737844 29083 net.cpp:399] inception_4a/output_inception_4a/output_0_split -> inception_4a/output_inception_4a/output_0_split_3
I0714 22:17:54.738019 29083 net.cpp:141] Setting up inception_4a/output_inception_4a/output_0_split
I0714 22:17:54.738030 29083 net.cpp:148] Top shape: 10 512 14 14 (1003520)
I0714 22:17:54.738037 29083 net.cpp:148] Top shape: 10 512 14 14 (1003520)
I0714 22:17:54.738044 29083 net.cpp:148] Top shape: 10 512 14 14 (1003520)
I0714 22:17:54.738049 29083 net.cpp:148] Top shape: 10 512 14 14 (1003520)
I0714 22:17:54.738054 29083 net.cpp:156] Memory required for data: 389616640
I0714 22:17:54.738059 29083 layer_factory.hpp:77] Creating layer inception_4b/1x1
I0714 22:17:54.738076 29083 net.cpp:91] Creating Layer inception_4b/1x1
I0714 22:17:54.738083 29083 net.cpp:425] inception_4b/1x1 <- inception_4a/output_inception_4a/output_0_split_0
I0714 22:17:54.738095 29083 net.cpp:399] inception_4b/1x1 -> inception_4b/1x1
I0714 22:17:54.743048 29079 net.cpp:141] Setting up inception_4b/1x1
I0714 22:17:54.743078 29079 net.cpp:148] Top shape: 10 160 14 14 (313600)
I0714 22:17:54.743085 29079 net.cpp:156] Memory required for data: 390871040
I0714 22:17:54.743096 29079 layer_factory.hpp:77] Creating layer inception_4b/relu_1x1
I0714 22:17:54.743108 29079 net.cpp:91] Creating Layer inception_4b/relu_1x1
I0714 22:17:54.743115 29079 net.cpp:425] inception_4b/relu_1x1 <- inception_4b/1x1
I0714 22:17:54.743134 29079 net.cpp:386] inception_4b/relu_1x1 -> inception_4b/1x1 (in-place)
I0714 22:17:54.743680 29079 net.cpp:141] Setting up inception_4b/relu_1x1
I0714 22:17:54.743695 29079 net.cpp:148] Top shape: 10 160 14 14 (313600)
I0714 22:17:54.743700 29079 net.cpp:156] Memory required for data: 392125440
I0714 22:17:54.743706 29079 layer_factory.hpp:77] Creating layer inception_4b/3x3_reduce
I0714 22:17:54.743724 29079 net.cpp:91] Creating Layer inception_4b/3x3_reduce
I0714 22:17:54.743731 29079 net.cpp:425] inception_4b/3x3_reduce <- inception_4a/output_inception_4a/output_0_split_1
I0714 22:17:54.743749 29079 net.cpp:399] inception_4b/3x3_reduce -> inception_4b/3x3_reduce
I0714 22:17:54.743757 29083 net.cpp:141] Setting up inception_4b/1x1
I0714 22:17:54.743774 29083 net.cpp:148] Top shape: 10 160 14 14 (313600)
I0714 22:17:54.743779 29083 net.cpp:156] Memory required for data: 390871040
I0714 22:17:54.743790 29083 layer_factory.hpp:77] Creating layer inception_4b/relu_1x1
I0714 22:17:54.743799 29083 net.cpp:91] Creating Layer inception_4b/relu_1x1
I0714 22:17:54.743806 29083 net.cpp:425] inception_4b/relu_1x1 <- inception_4b/1x1
I0714 22:17:54.743818 29083 net.cpp:386] inception_4b/relu_1x1 -> inception_4b/1x1 (in-place)
I0714 22:17:54.744289 29083 net.cpp:141] Setting up inception_4b/relu_1x1
I0714 22:17:54.744309 29083 net.cpp:148] Top shape: 10 160 14 14 (313600)
I0714 22:17:54.744315 29083 net.cpp:156] Memory required for data: 392125440
I0714 22:17:54.744321 29083 layer_factory.hpp:77] Creating layer inception_4b/3x3_reduce
I0714 22:17:54.744335 29083 net.cpp:91] Creating Layer inception_4b/3x3_reduce
I0714 22:17:54.744341 29083 net.cpp:425] inception_4b/3x3_reduce <- inception_4a/output_inception_4a/output_0_split_1
I0714 22:17:54.744354 29083 net.cpp:399] inception_4b/3x3_reduce -> inception_4b/3x3_reduce
I0714 22:17:54.749230 29079 net.cpp:141] Setting up inception_4b/3x3_reduce
I0714 22:17:54.749254 29079 net.cpp:148] Top shape: 10 112 14 14 (219520)
I0714 22:17:54.749261 29079 net.cpp:156] Memory required for data: 393003520
I0714 22:17:54.749272 29079 layer_factory.hpp:77] Creating layer inception_4b/relu_3x3_reduce
I0714 22:17:54.749284 29079 net.cpp:91] Creating Layer inception_4b/relu_3x3_reduce
I0714 22:17:54.749290 29079 net.cpp:425] inception_4b/relu_3x3_reduce <- inception_4b/3x3_reduce
I0714 22:17:54.749302 29079 net.cpp:386] inception_4b/relu_3x3_reduce -> inception_4b/3x3_reduce (in-place)
I0714 22:17:54.749630 29083 net.cpp:141] Setting up inception_4b/3x3_reduce
I0714 22:17:54.749650 29083 net.cpp:148] Top shape: 10 112 14 14 (219520)
I0714 22:17:54.749655 29083 net.cpp:156] Memory required for data: 393003520
I0714 22:17:54.749665 29083 layer_factory.hpp:77] Creating layer inception_4b/relu_3x3_reduce
I0714 22:17:54.749675 29083 net.cpp:91] Creating Layer inception_4b/relu_3x3_reduce
I0714 22:17:54.749683 29083 net.cpp:425] inception_4b/relu_3x3_reduce <- inception_4b/3x3_reduce
I0714 22:17:54.749693 29083 net.cpp:386] inception_4b/relu_3x3_reduce -> inception_4b/3x3_reduce (in-place)
I0714 22:17:54.749699 29079 net.cpp:141] Setting up inception_4b/relu_3x3_reduce
I0714 22:17:54.749713 29079 net.cpp:148] Top shape: 10 112 14 14 (219520)
I0714 22:17:54.749718 29079 net.cpp:156] Memory required for data: 393881600
I0714 22:17:54.749724 29079 layer_factory.hpp:77] Creating layer inception_4b/3x3
I0714 22:17:54.749768 29079 net.cpp:91] Creating Layer inception_4b/3x3
I0714 22:17:54.749778 29079 net.cpp:425] inception_4b/3x3 <- inception_4b/3x3_reduce
I0714 22:17:54.749788 29079 net.cpp:399] inception_4b/3x3 -> inception_4b/3x3
I0714 22:17:54.750164 29083 net.cpp:141] Setting up inception_4b/relu_3x3_reduce
I0714 22:17:54.750177 29083 net.cpp:148] Top shape: 10 112 14 14 (219520)
I0714 22:17:54.750183 29083 net.cpp:156] Memory required for data: 393881600
I0714 22:17:54.750188 29083 layer_factory.hpp:77] Creating layer inception_4b/3x3
I0714 22:17:54.750210 29083 net.cpp:91] Creating Layer inception_4b/3x3
I0714 22:17:54.750216 29083 net.cpp:425] inception_4b/3x3 <- inception_4b/3x3_reduce
I0714 22:17:54.750226 29083 net.cpp:399] inception_4b/3x3 -> inception_4b/3x3
I0714 22:17:54.759506 29079 net.cpp:141] Setting up inception_4b/3x3
I0714 22:17:54.759534 29079 net.cpp:148] Top shape: 10 224 14 14 (439040)
I0714 22:17:54.759541 29079 net.cpp:156] Memory required for data: 395637760
I0714 22:17:54.759552 29079 layer_factory.hpp:77] Creating layer inception_4b/relu_3x3
I0714 22:17:54.759568 29079 net.cpp:91] Creating Layer inception_4b/relu_3x3
I0714 22:17:54.759577 29079 net.cpp:425] inception_4b/relu_3x3 <- inception_4b/3x3
I0714 22:17:54.759588 29079 net.cpp:386] inception_4b/relu_3x3 -> inception_4b/3x3 (in-place)
I0714 22:17:54.761054 29079 net.cpp:141] Setting up inception_4b/relu_3x3
I0714 22:17:54.761071 29079 net.cpp:148] Top shape: 10 224 14 14 (439040)
I0714 22:17:54.761077 29079 net.cpp:156] Memory required for data: 397393920
I0714 22:17:54.761083 29079 layer_factory.hpp:77] Creating layer inception_4b/5x5_reduce
I0714 22:17:54.761116 29079 net.cpp:91] Creating Layer inception_4b/5x5_reduce
I0714 22:17:54.761123 29079 net.cpp:425] inception_4b/5x5_reduce <- inception_4a/output_inception_4a/output_0_split_2
I0714 22:17:54.761134 29079 net.cpp:399] inception_4b/5x5_reduce -> inception_4b/5x5_reduce
I0714 22:17:54.761185 29083 net.cpp:141] Setting up inception_4b/3x3
I0714 22:17:54.761204 29083 net.cpp:148] Top shape: 10 224 14 14 (439040)
I0714 22:17:54.761209 29083 net.cpp:156] Memory required for data: 395637760
I0714 22:17:54.761219 29083 layer_factory.hpp:77] Creating layer inception_4b/relu_3x3
I0714 22:17:54.761232 29083 net.cpp:91] Creating Layer inception_4b/relu_3x3
I0714 22:17:54.761240 29083 net.cpp:425] inception_4b/relu_3x3 <- inception_4b/3x3
I0714 22:17:54.761247 29083 net.cpp:386] inception_4b/relu_3x3 -> inception_4b/3x3 (in-place)
I0714 22:17:54.762276 29083 net.cpp:141] Setting up inception_4b/relu_3x3
I0714 22:17:54.762300 29083 net.cpp:148] Top shape: 10 224 14 14 (439040)
I0714 22:17:54.762305 29083 net.cpp:156] Memory required for data: 397393920
I0714 22:17:54.762312 29083 layer_factory.hpp:77] Creating layer inception_4b/5x5_reduce
I0714 22:17:54.762342 29083 net.cpp:91] Creating Layer inception_4b/5x5_reduce
I0714 22:17:54.762351 29083 net.cpp:425] inception_4b/5x5_reduce <- inception_4a/output_inception_4a/output_0_split_2
I0714 22:17:54.762362 29083 net.cpp:399] inception_4b/5x5_reduce -> inception_4b/5x5_reduce
I0714 22:17:54.767371 29079 net.cpp:141] Setting up inception_4b/5x5_reduce
I0714 22:17:54.767398 29079 net.cpp:148] Top shape: 10 24 14 14 (47040)
I0714 22:17:54.767405 29079 net.cpp:156] Memory required for data: 397582080
I0714 22:17:54.767416 29079 layer_factory.hpp:77] Creating layer inception_4b/relu_5x5_reduce
I0714 22:17:54.767431 29079 net.cpp:91] Creating Layer inception_4b/relu_5x5_reduce
I0714 22:17:54.767438 29079 net.cpp:425] inception_4b/relu_5x5_reduce <- inception_4b/5x5_reduce
I0714 22:17:54.767447 29079 net.cpp:386] inception_4b/relu_5x5_reduce -> inception_4b/5x5_reduce (in-place)
I0714 22:17:54.767966 29079 net.cpp:141] Setting up inception_4b/relu_5x5_reduce
I0714 22:17:54.767984 29079 net.cpp:148] Top shape: 10 24 14 14 (47040)
I0714 22:17:54.767990 29079 net.cpp:156] Memory required for data: 397770240
I0714 22:17:54.767997 29079 layer_factory.hpp:77] Creating layer inception_4b/5x5
I0714 22:17:54.768003 29083 net.cpp:141] Setting up inception_4b/5x5_reduce
I0714 22:17:54.768014 29079 net.cpp:91] Creating Layer inception_4b/5x5
I0714 22:17:54.768020 29083 net.cpp:148] Top shape: 10 24 14 14 (47040)
I0714 22:17:54.768023 29079 net.cpp:425] inception_4b/5x5 <- inception_4b/5x5_reduce
I0714 22:17:54.768028 29083 net.cpp:156] Memory required for data: 397582080
I0714 22:17:54.768034 29079 net.cpp:399] inception_4b/5x5 -> inception_4b/5x5
I0714 22:17:54.768040 29083 layer_factory.hpp:77] Creating layer inception_4b/relu_5x5_reduce
I0714 22:17:54.768059 29083 net.cpp:91] Creating Layer inception_4b/relu_5x5_reduce
I0714 22:17:54.768065 29083 net.cpp:425] inception_4b/relu_5x5_reduce <- inception_4b/5x5_reduce
I0714 22:17:54.768074 29083 net.cpp:386] inception_4b/relu_5x5_reduce -> inception_4b/5x5_reduce (in-place)
I0714 22:17:54.768542 29083 net.cpp:141] Setting up inception_4b/relu_5x5_reduce
I0714 22:17:54.768554 29083 net.cpp:148] Top shape: 10 24 14 14 (47040)
I0714 22:17:54.768559 29083 net.cpp:156] Memory required for data: 397770240
I0714 22:17:54.768565 29083 layer_factory.hpp:77] Creating layer inception_4b/5x5
I0714 22:17:54.768585 29083 net.cpp:91] Creating Layer inception_4b/5x5
I0714 22:17:54.768592 29083 net.cpp:425] inception_4b/5x5 <- inception_4b/5x5_reduce
I0714 22:17:54.768604 29083 net.cpp:399] inception_4b/5x5 -> inception_4b/5x5
I0714 22:17:54.776692 29079 net.cpp:141] Setting up inception_4b/5x5
I0714 22:17:54.776720 29079 net.cpp:148] Top shape: 10 64 14 14 (125440)
I0714 22:17:54.776726 29079 net.cpp:156] Memory required for data: 398272000
I0714 22:17:54.776736 29079 layer_factory.hpp:77] Creating layer inception_4b/relu_5x5
I0714 22:17:54.776748 29079 net.cpp:91] Creating Layer inception_4b/relu_5x5
I0714 22:17:54.776756 29079 net.cpp:425] inception_4b/relu_5x5 <- inception_4b/5x5
I0714 22:17:54.776770 29079 net.cpp:386] inception_4b/relu_5x5 -> inception_4b/5x5 (in-place)
I0714 22:17:54.777215 29083 net.cpp:141] Setting up inception_4b/5x5
I0714 22:17:54.777233 29083 net.cpp:148] Top shape: 10 64 14 14 (125440)
I0714 22:17:54.777240 29083 net.cpp:156] Memory required for data: 398272000
I0714 22:17:54.777238 29079 net.cpp:141] Setting up inception_4b/relu_5x5
I0714 22:17:54.777256 29083 layer_factory.hpp:77] Creating layer inception_4b/relu_5x5
I0714 22:17:54.777266 29079 net.cpp:148] Top shape: 10 64 14 14 (125440)
I0714 22:17:54.777276 29079 net.cpp:156] Memory required for data: 398773760
I0714 22:17:54.777266 29083 net.cpp:91] Creating Layer inception_4b/relu_5x5
I0714 22:17:54.777284 29079 layer_factory.hpp:77] Creating layer inception_4b/pool
I0714 22:17:54.777289 29083 net.cpp:425] inception_4b/relu_5x5 <- inception_4b/5x5
I0714 22:17:54.777297 29079 net.cpp:91] Creating Layer inception_4b/pool
I0714 22:17:54.777304 29079 net.cpp:425] inception_4b/pool <- inception_4a/output_inception_4a/output_0_split_3
I0714 22:17:54.777304 29083 net.cpp:386] inception_4b/relu_5x5 -> inception_4b/5x5 (in-place)
I0714 22:17:54.777315 29079 net.cpp:399] inception_4b/pool -> inception_4b/pool
I0714 22:17:54.777663 29079 net.cpp:141] Setting up inception_4b/pool
I0714 22:17:54.777678 29079 net.cpp:148] Top shape: 10 512 14 14 (1003520)
I0714 22:17:54.777683 29079 net.cpp:156] Memory required for data: 402787840
I0714 22:17:54.777689 29079 layer_factory.hpp:77] Creating layer inception_4b/pool_proj
I0714 22:17:54.777704 29079 net.cpp:91] Creating Layer inception_4b/pool_proj
I0714 22:17:54.777711 29079 net.cpp:425] inception_4b/pool_proj <- inception_4b/pool
I0714 22:17:54.777724 29079 net.cpp:399] inception_4b/pool_proj -> inception_4b/pool_proj
I0714 22:17:54.777736 29083 net.cpp:141] Setting up inception_4b/relu_5x5
I0714 22:17:54.777750 29083 net.cpp:148] Top shape: 10 64 14 14 (125440)
I0714 22:17:54.777758 29083 net.cpp:156] Memory required for data: 398773760
I0714 22:17:54.777765 29083 layer_factory.hpp:77] Creating layer inception_4b/pool
I0714 22:17:54.777776 29083 net.cpp:91] Creating Layer inception_4b/pool
I0714 22:17:54.777782 29083 net.cpp:425] inception_4b/pool <- inception_4a/output_inception_4a/output_0_split_3
I0714 22:17:54.777791 29083 net.cpp:399] inception_4b/pool -> inception_4b/pool
I0714 22:17:54.778122 29083 net.cpp:141] Setting up inception_4b/pool
I0714 22:17:54.778136 29083 net.cpp:148] Top shape: 10 512 14 14 (1003520)
I0714 22:17:54.778141 29083 net.cpp:156] Memory required for data: 402787840
I0714 22:17:54.778146 29083 layer_factory.hpp:77] Creating layer inception_4b/pool_proj
I0714 22:17:54.778163 29083 net.cpp:91] Creating Layer inception_4b/pool_proj
I0714 22:17:54.778169 29083 net.cpp:425] inception_4b/pool_proj <- inception_4b/pool
I0714 22:17:54.778183 29083 net.cpp:399] inception_4b/pool_proj -> inception_4b/pool_proj
I0714 22:17:54.782598 29079 net.cpp:141] Setting up inception_4b/pool_proj
I0714 22:17:54.782620 29079 net.cpp:148] Top shape: 10 64 14 14 (125440)
I0714 22:17:54.782626 29079 net.cpp:156] Memory required for data: 403289600
I0714 22:17:54.782637 29079 layer_factory.hpp:77] Creating layer inception_4b/relu_pool_proj
I0714 22:17:54.782650 29079 net.cpp:91] Creating Layer inception_4b/relu_pool_proj
I0714 22:17:54.782657 29079 net.cpp:425] inception_4b/relu_pool_proj <- inception_4b/pool_proj
I0714 22:17:54.782666 29079 net.cpp:386] inception_4b/relu_pool_proj -> inception_4b/pool_proj (in-place)
I0714 22:17:54.783834 29079 net.cpp:141] Setting up inception_4b/relu_pool_proj
I0714 22:17:54.783855 29079 net.cpp:148] Top shape: 10 64 14 14 (125440)
I0714 22:17:54.783861 29079 net.cpp:156] Memory required for data: 403791360
I0714 22:17:54.783867 29079 layer_factory.hpp:77] Creating layer inception_4b/output
I0714 22:17:54.783879 29079 net.cpp:91] Creating Layer inception_4b/output
I0714 22:17:54.783885 29079 net.cpp:425] inception_4b/output <- inception_4b/1x1
I0714 22:17:54.783893 29079 net.cpp:425] inception_4b/output <- inception_4b/3x3
I0714 22:17:54.783900 29079 net.cpp:425] inception_4b/output <- inception_4b/5x5
I0714 22:17:54.783898 29083 net.cpp:141] Setting up inception_4b/pool_proj
I0714 22:17:54.783907 29079 net.cpp:425] inception_4b/output <- inception_4b/pool_proj
I0714 22:17:54.783921 29083 net.cpp:148] Top shape: 10 64 14 14 (125440)
I0714 22:17:54.783926 29079 net.cpp:399] inception_4b/output -> inception_4b/output
I0714 22:17:54.783927 29083 net.cpp:156] Memory required for data: 403289600
I0714 22:17:54.783939 29083 layer_factory.hpp:77] Creating layer inception_4b/relu_pool_proj
I0714 22:17:54.783951 29083 net.cpp:91] Creating Layer inception_4b/relu_pool_proj
I0714 22:17:54.783958 29083 net.cpp:425] inception_4b/relu_pool_proj <- inception_4b/pool_proj
I0714 22:17:54.783967 29083 net.cpp:386] inception_4b/relu_pool_proj -> inception_4b/pool_proj (in-place)
I0714 22:17:54.784768 29079 net.cpp:141] Setting up inception_4b/output
I0714 22:17:54.784781 29079 net.cpp:148] Top shape: 10 512 14 14 (1003520)
I0714 22:17:54.784787 29079 net.cpp:156] Memory required for data: 407805440
I0714 22:17:54.784792 29079 layer_factory.hpp:77] Creating layer inception_4b/output_inception_4b/output_0_split
I0714 22:17:54.784803 29079 net.cpp:91] Creating Layer inception_4b/output_inception_4b/output_0_split
I0714 22:17:54.784808 29079 net.cpp:425] inception_4b/output_inception_4b/output_0_split <- inception_4b/output
I0714 22:17:54.784817 29079 net.cpp:399] inception_4b/output_inception_4b/output_0_split -> inception_4b/output_inception_4b/output_0_split_0
I0714 22:17:54.784832 29079 net.cpp:399] inception_4b/output_inception_4b/output_0_split -> inception_4b/output_inception_4b/output_0_split_1
I0714 22:17:54.784842 29079 net.cpp:399] inception_4b/output_inception_4b/output_0_split -> inception_4b/output_inception_4b/output_0_split_2
I0714 22:17:54.784850 29079 net.cpp:399] inception_4b/output_inception_4b/output_0_split -> inception_4b/output_inception_4b/output_0_split_3
I0714 22:17:54.784875 29083 net.cpp:141] Setting up inception_4b/relu_pool_proj
I0714 22:17:54.784890 29083 net.cpp:148] Top shape: 10 64 14 14 (125440)
I0714 22:17:54.784896 29083 net.cpp:156] Memory required for data: 403791360
I0714 22:17:54.784901 29083 layer_factory.hpp:77] Creating layer inception_4b/output
I0714 22:17:54.784914 29083 net.cpp:91] Creating Layer inception_4b/output
I0714 22:17:54.784921 29083 net.cpp:425] inception_4b/output <- inception_4b/1x1
I0714 22:17:54.784929 29083 net.cpp:425] inception_4b/output <- inception_4b/3x3
I0714 22:17:54.784934 29083 net.cpp:425] inception_4b/output <- inception_4b/5x5
I0714 22:17:54.784941 29083 net.cpp:425] inception_4b/output <- inception_4b/pool_proj
I0714 22:17:54.784948 29083 net.cpp:399] inception_4b/output -> inception_4b/output
I0714 22:17:54.785148 29083 net.cpp:141] Setting up inception_4b/output
I0714 22:17:54.785163 29083 net.cpp:148] Top shape: 10 512 14 14 (1003520)
I0714 22:17:54.785169 29083 net.cpp:156] Memory required for data: 407805440
I0714 22:17:54.785176 29083 layer_factory.hpp:77] Creating layer inception_4b/output_inception_4b/output_0_split
…
I0714 22:17:54.927816 29083 net.cpp:141] Setting up inception_4e/relu_5x5_reduce
I0714 22:17:54.927829 29083 net.cpp:148] Top shape: 10 32 14 14 (62720)
I0714 22:17:54.927834 29083 net.cpp:156] Memory required for data: 506150400
I0714 22:17:54.927840 29083 layer_factory.hpp:77] Creating layer inception_4e/5x5
I0714 22:17:54.927861 29083 net.cpp:91] Creating Layer inception_4e/5x5
I0714 22:17:54.927868 29083 net.cpp:425] inception_4e/5x5 <- inception_4e/5x5_reduce
I0714 22:17:54.927880 29083 net.cpp:399] inception_4e/5x5 -> inception_4e/5x5
I0714 22:17:54.933790 29079 net.cpp:141] Setting up inception_4e/5x5
I0714 22:17:54.933822 29079 net.cpp:148] Top shape: 10 128 14 14 (250880)
I0714 22:17:54.933830 29079 net.cpp:156] Memory required for data: 507153920
I0714 22:17:54.933841 29079 layer_factory.hpp:77] Creating layer inception_4e/relu_5x5
I0714 22:17:54.933853 29079 net.cpp:91] Creating Layer inception_4e/relu_5x5
I0714 22:17:54.933861 29079 net.cpp:425] inception_4e/relu_5x5 <- inception_4e/5x5
I0714 22:17:54.933873 29079 net.cpp:386] inception_4e/relu_5x5 -> inception_4e/5x5 (in-place)
I0714 22:17:54.934201 29079 net.cpp:141] Setting up inception_4e/relu_5x5
I0714 22:17:54.934214 29079 net.cpp:148] Top shape: 10 128 14 14 (250880)
I0714 22:17:54.934219 29079 net.cpp:156] Memory required for data: 508157440
I0714 22:17:54.934226 29079 layer_factory.hpp:77] Creating layer inception_4e/pool
I0714 22:17:54.934240 29079 net.cpp:91] Creating Layer inception_4e/pool
I0714 22:17:54.934248 29079 net.cpp:425] inception_4e/pool <- inception_4d/output_inception_4d/output_0_split_3
I0714 22:17:54.934257 29079 net.cpp:399] inception_4e/pool -> inception_4e/pool
I0714 22:17:54.934679 29079 net.cpp:141] Setting up inception_4e/pool
I0714 22:17:54.934707 29079 net.cpp:148] Top shape: 10 528 14 14 (1034880)
I0714 22:17:54.934713 29079 net.cpp:156] Memory required for data: 512296960
I0714 22:17:54.934720 29079 layer_factory.hpp:77] Creating layer inception_4e/pool_proj
I0714 22:17:54.934739 29079 net.cpp:91] Creating Layer inception_4e/pool_proj
I0714 22:17:54.934746 29079 net.cpp:425] inception_4e/pool_proj <- inception_4e/pool
I0714 22:17:54.934759 29079 net.cpp:399] inception_4e/pool_proj -> inception_4e/pool_proj
I0714 22:17:54.935725 29083 net.cpp:141] Setting up inception_4e/5x5
I0714 22:17:54.935752 29083 net.cpp:148] Top shape: 10 128 14 14 (250880)
I0714 22:17:54.935758 29083 net.cpp:156] Memory required for data: 507153920
I0714 22:17:54.935770 29083 layer_factory.hpp:77] Creating layer inception_4e/relu_5x5
I0714 22:17:54.935780 29083 net.cpp:91] Creating Layer inception_4e/relu_5x5
I0714 22:17:54.935786 29083 net.cpp:425] inception_4e/relu_5x5 <- inception_4e/5x5
I0714 22:17:54.935796 29083 net.cpp:386] inception_4e/relu_5x5 -> inception_4e/5x5 (in-place)
I0714 22:17:54.936251 29083 net.cpp:141] Setting up inception_4e/relu_5x5
I0714 22:17:54.936266 29083 net.cpp:148] Top shape: 10 128 14 14 (250880)
I0714 22:17:54.936272 29083 net.cpp:156] Memory required for data: 508157440
I0714 22:17:54.936278 29083 layer_factory.hpp:77] Creating layer inception_4e/pool
I0714 22:17:54.936291 29083 net.cpp:91] Creating Layer inception_4e/pool
I0714 22:17:54.936298 29083 net.cpp:425] inception_4e/pool <- inception_4d/output_inception_4d/output_0_split_3
I0714 22:17:54.936308 29083 net.cpp:399] inception_4e/pool -> inception_4e/pool
I0714 22:17:54.936463 29083 net.cpp:141] Setting up inception_4e/pool
I0714 22:17:54.936475 29083 net.cpp:148] Top shape: 10 528 14 14 (1034880)
I0714 22:17:54.936480 29083 net.cpp:156] Memory required for data: 512296960
I0714 22:17:54.936486 29083 layer_factory.hpp:77] Creating layer inception_4e/pool_proj
I0714 22:17:54.936503 29083 net.cpp:91] Creating Layer inception_4e/pool_proj
I0714 22:17:54.936511 29083 net.cpp:425] inception_4e/pool_proj <- inception_4e/pool
I0714 22:17:54.936522 29083 net.cpp:399] inception_4e/pool_proj -> inception_4e/pool_proj
I0714 22:17:54.941488 29079 net.cpp:141] Setting up inception_4e/pool_proj
I0714 22:17:54.941515 29079 net.cpp:148] Top shape: 10 128 14 14 (250880)
I0714 22:17:54.941522 29079 net.cpp:156] Memory required for data: 513300480
I0714 22:17:54.941534 29079 layer_factory.hpp:77] Creating layer inception_4e/relu_pool_proj
I0714 22:17:54.941545 29079 net.cpp:91] Creating Layer inception_4e/relu_pool_proj
I0714 22:17:54.941553 29079 net.cpp:425] inception_4e/relu_pool_proj <- inception_4e/pool_proj
I0714 22:17:54.941576 29079 net.cpp:386] inception_4e/relu_pool_proj -> inception_4e/pool_proj (in-place)
I0714 22:17:54.942733 29079 net.cpp:141] Setting up inception_4e/relu_pool_proj
I0714 22:17:54.942751 29079 net.cpp:148] Top shape: 10 128 14 14 (250880)
I0714 22:17:54.942757 29079 net.cpp:156] Memory required for data: 514304000
I0714 22:17:54.942764 29079 layer_factory.hpp:77] Creating layer inception_4e/output
I0714 22:17:54.942775 29079 net.cpp:91] Creating Layer inception_4e/output
I0714 22:17:54.942782 29079 net.cpp:425] inception_4e/output <- inception_4e/1x1
I0714 22:17:54.942790 29079 net.cpp:425] inception_4e/output <- inception_4e/3x3
I0714 22:17:54.942796 29079 net.cpp:425] inception_4e/output <- inception_4e/5x5
I0714 22:17:54.942802 29079 net.cpp:425] inception_4e/output <- inception_4e/pool_proj
I0714 22:17:54.942814 29079 net.cpp:399] inception_4e/output -> inception_4e/output
I0714 22:17:54.942975 29079 net.cpp:141] Setting up inception_4e/output
I0714 22:17:54.942988 29079 net.cpp:148] Top shape: 10 832 14 14 (1630720)
I0714 22:17:54.942993 29079 net.cpp:156] Memory required for data: 520826880
I0714 22:17:54.942998 29079 layer_factory.hpp:77] Creating layer pool4/3x3_s2
I0714 22:17:54.943025 29079 net.cpp:91] Creating Layer pool4/3x3_s2
I0714 22:17:54.943033 29079 net.cpp:425] pool4/3x3_s2 <- inception_4e/output
I0714 22:17:54.943035 29083 net.cpp:141] Setting up inception_4e/pool_proj
I0714 22:17:54.943043 29079 net.cpp:399] pool4/3x3_s2 -> pool4/3x3_s2
I0714 22:17:54.943053 29083 net.cpp:148] Top shape: 10 128 14 14 (250880)
I0714 22:17:54.943059 29083 net.cpp:156] Memory required for data: 513300480
I0714 22:17:54.943071 29083 layer_factory.hpp:77] Creating layer inception_4e/relu_pool_proj
I0714 22:17:54.943080 29083 net.cpp:91] Creating Layer inception_4e/relu_pool_proj
I0714 22:17:54.943087 29083 net.cpp:425] inception_4e/relu_pool_proj <- inception_4e/pool_proj
I0714 22:17:54.943097 29083 net.cpp:386] inception_4e/relu_pool_proj -> inception_4e/pool_proj (in-place)
I0714 22:17:54.943948 29079 net.cpp:141] Setting up pool4/3x3_s2
I0714 22:17:54.943964 29079 net.cpp:148] Top shape: 10 832 7 7 (407680)
I0714 22:17:54.943969 29079 net.cpp:156] Memory required for data: 522457600
I0714 22:17:54.943975 29079 layer_factory.hpp:77] Creating layer pool4/3x3_s2_pool4/3x3_s2_0_split
I0714 22:17:54.943985 29079 net.cpp:91] Creating Layer pool4/3x3_s2_pool4/3x3_s2_0_split
I0714 22:17:54.943991 29079 net.cpp:425] pool4/3x3_s2_pool4/3x3_s2_0_split <- pool4/3x3_s2
I0714 22:17:54.944003 29079 net.cpp:399] pool4/3x3_s2_pool4/3x3_s2_0_split -> pool4/3x3_s2_pool4/3x3_s2_0_split_0
I0714 22:17:54.944013 29079 net.cpp:399] pool4/3x3_s2_pool4/3x3_s2_0_split -> pool4/3x3_s2_pool4/3x3_s2_0_split_1
I0714 22:17:54.944022 29079 net.cpp:399] pool4/3x3_s2_pool4/3x3_s2_0_split -> pool4/3x3_s2_pool4/3x3_s2_0_split_2
I0714 22:17:54.944031 29079 net.cpp:399] pool4/3x3_s2_pool4/3x3_s2_0_split -> pool4/3x3_s2_pool4/3x3_s2_0_split_3
I0714 22:17:54.944072 29083 net.cpp:141] Setting up inception_4e/relu_pool_proj
I0714 22:17:54.944087 29083 net.cpp:148] Top shape: 10 128 14 14 (250880)
I0714 22:17:54.944092 29083 net.cpp:156] Memory required for data: 514304000
I0714 22:17:54.944098 29083 layer_factory.hpp:77] Creating layer inception_4e/output
I0714 22:17:54.944108 29083 net.cpp:91] Creating Layer inception_4e/output
I0714 22:17:54.944115 29083 net.cpp:425] inception_4e/output <- inception_4e/1x1
I0714 22:17:54.944123 29083 net.cpp:425] inception_4e/output <- inception_4e/3x3
I0714 22:17:54.944129 29083 net.cpp:425] inception_4e/output <- inception_4e/5x5
I0714 22:17:54.944135 29083 net.cpp:425] inception_4e/output <- inception_4e/pool_proj
I0714 22:17:54.944147 29083 net.cpp:399] inception_4e/output -> inception_4e/output
I0714 22:17:54.944340 29083 net.cpp:141] Setting up inception_4e/output
I0714 22:17:54.944353 29083 net.cpp:148] Top shape: 10 832 14 14 (1630720)
I0714 22:17:54.944358 29083 net.cpp:156] Memory required for data: 520826880
I0714 22:17:54.944365 29083 layer_factory.hpp:77] Creating layer pool4/3x3_s2
I0714 22:17:54.944381 29079 net.cpp:141] Setting up pool4/3x3_s2_pool4/3x3_s2_0_split
I0714 22:17:54.944385 29083 net.cpp:91] Creating Layer pool4/3x3_s2
I0714 22:17:54.944397 29079 net.cpp:148] Top shape: 10 832 7 7 (407680)
I0714 22:17:54.944401 29083 net.cpp:425] pool4/3x3_s2 <- inception_4e/output
I0714 22:17:54.944406 29079 net.cpp:148] Top shape: 10 832 7 7 (407680)
I0714 22:17:54.944412 29079 net.cpp:148] Top shape: 10 832 7 7 (407680)
I0714 22:17:54.944414 29083 net.cpp:399] pool4/3x3_s2 -> pool4/3x3_s2
I0714 22:17:54.944418 29079 net.cpp:148] Top shape: 10 832 7 7 (407680)
I0714 22:17:54.944424 29079 net.cpp:156] Memory required for data: 528980480
I0714 22:17:54.944430 29079 layer_factory.hpp:77] Creating layer inception_5a/1x1
I0714 22:17:54.944444 29079 net.cpp:91] Creating Layer inception_5a/1x1
I0714 22:17:54.944452 29079 net.cpp:425] inception_5a/1x1 <- pool4/3x3_s2_pool4/3x3_s2_0_split_0
I0714 22:17:54.944466 29079 net.cpp:399] inception_5a/1x1 -> inception_5a/1x1
I0714 22:17:54.944607 29083 net.cpp:141] Setting up pool4/3x3_s2
I0714 22:17:54.944620 29083 net.cpp:148] Top shape: 10 832 7 7 (407680)
I0714 22:17:54.944625 29083 net.cpp:156] Memory required for data: 522457600
I0714 22:17:54.944631 29083 layer_factory.hpp:77] Creating layer pool4/3x3_s2_pool4/3x3_s2_0_split
I0714 22:17:54.944640 29083 net.cpp:91] Creating Layer pool4/3x3_s2_pool4/3x3_s2_0_split
I0714 22:17:54.944646 29083 net.cpp:425] pool4/3x3_s2_pool4/3x3_s2_0_split <- pool4/3x3_s2
I0714 22:17:54.944658 29083 net.cpp:399] pool4/3x3_s2_pool4/3x3_s2_0_split -> pool4/3x3_s2_pool4/3x3_s2_0_split_0
I0714 22:17:54.944669 29083 net.cpp:399] pool4/3x3_s2_pool4/3x3_s2_0_split -> pool4/3x3_s2_pool4/3x3_s2_0_split_1
I0714 22:17:54.944677 29083 net.cpp:399] pool4/3x3_s2_pool4/3x3_s2_0_split -> pool4/3x3_s2_pool4/3x3_s2_0_split_2
I0714 22:17:54.944686 29083 net.cpp:399] pool4/3x3_s2_pool4/3x3_s2_0_split -> pool4/3x3_s2_pool4/3x3_s2_0_split_3
I0714 22:17:54.945318 29083 net.cpp:141] Setting up pool4/3x3_s2_pool4/3x3_s2_0_split
I0714 22:17:54.945332 29083 net.cpp:148] Top shape: 10 832 7 7 (407680)
I0714 22:17:54.945338 29083 net.cpp:148] Top shape: 10 832 7 7 (407680)
I0714 22:17:54.945343 29083 net.cpp:148] Top shape: 10 832 7 7 (407680)
I0714 22:17:54.945349 29083 net.cpp:148] Top shape: 10 832 7 7 (407680)
I0714 22:17:54.945354 29083 net.cpp:156] Memory required for data: 528980480
I0714 22:17:54.945360 29083 layer_factory.hpp:77] Creating layer inception_5a/1x1
I0714 22:17:54.945374 29083 net.cpp:91] Creating Layer inception_5a/1x1
I0714 22:17:54.945380 29083 net.cpp:425] inception_5a/1x1 <- pool4/3x3_s2_pool4/3x3_s2_0_split_0
I0714 22:17:54.945394 29083 net.cpp:399] inception_5a/1x1 -> inception_5a/1x1
I0714 22:17:54.953699 29079 net.cpp:141] Setting up inception_5a/1x1
I0714 22:17:54.953729 29079 net.cpp:148] Top shape: 10 256 7 7 (125440)
I0714 22:17:54.953735 29079 net.cpp:156] Memory required for data: 529482240
I0714 22:17:54.953747 29079 layer_factory.hpp:77] Creating layer inception_5a/relu_1x1
I0714 22:17:54.953763 29079 net.cpp:91] Creating Layer inception_5a/relu_1x1
I0714 22:17:54.953773 29079 net.cpp:425] inception_5a/relu_1x1 <- inception_5a/1x1
I0714 22:17:54.953788 29079 net.cpp:386] inception_5a/relu_1x1 -> inception_5a/1x1 (in-place)
I0714 22:17:54.954157 29079 net.cpp:141] Setting up inception_5a/relu_1x1
I0714 22:17:54.954170 29079 net.cpp:148] Top shape: 10 256 7 7 (125440)
I0714 22:17:54.954176 29079 net.cpp:156] Memory required for data: 529984000
I0714 22:17:54.954181 29079 layer_factory.hpp:77] Creating layer inception_5a/3x3_reduce
I0714 22:17:54.954201 29079 net.cpp:91] Creating Layer inception_5a/3x3_reduce
I0714 22:17:54.954210 29079 net.cpp:425] inception_5a/3x3_reduce <- pool4/3x3_s2_pool4/3x3_s2_0_split_1
I0714 22:17:54.954221 29079 net.cpp:399] inception_5a/3x3_reduce -> inception_5a/3x3_reduce
I0714 22:17:54.955749 29083 net.cpp:141] Setting up inception_5a/1x1
I0714 22:17:54.955772 29083 net.cpp:148] Top shape: 10 256 7 7 (125440)
I0714 22:17:54.955778 29083 net.cpp:156] Memory required for data: 529482240
I0714 22:17:54.955790 29083 layer_factory.hpp:77] Creating layer inception_5a/relu_1x1
I0714 22:17:54.956229 29083 net.cpp:91] Creating Layer inception_5a/relu_1x1
I0714 22:17:54.956241 29083 net.cpp:425] inception_5a/relu_1x1 <- inception_5a/1x1
I0714 22:17:54.956254 29083 net.cpp:386] inception_5a/relu_1x1 -> inception_5a/1x1 (in-place)
I0714 22:17:54.956562 29083 net.cpp:141] Setting up inception_5a/relu_1x1
I0714 22:17:54.956576 29083 net.cpp:148] Top shape: 10 256 7 7 (125440)
I0714 22:17:54.956583 29083 net.cpp:156] Memory required for data: 529984000
I0714 22:17:54.956588 29083 layer_factory.hpp:77] Creating layer inception_5a/3x3_reduce
I0714 22:17:54.956605 29083 net.cpp:91] Creating Layer inception_5a/3x3_reduce
I0714 22:17:54.956612 29083 net.cpp:425] inception_5a/3x3_reduce <- pool4/3x3_s2_pool4/3x3_s2_0_split_1
I0714 22:17:54.956625 29083 net.cpp:399] inception_5a/3x3_reduce -> inception_5a/3x3_reduce
I0714 22:17:54.964285 29079 net.cpp:141] Setting up inception_5a/3x3_reduce
I0714 22:17:54.964310 29079 net.cpp:148] Top shape: 10 160 7 7 (78400)
I0714 22:17:54.964316 29079 net.cpp:156] Memory required for data: 530297600
I0714 22:17:54.964329 29079 layer_factory.hpp:77] Creating layer inception_5a/relu_3x3_reduce
I0714 22:17:54.964339 29079 net.cpp:91] Creating Layer inception_5a/relu_3x3_reduce
I0714 22:17:54.964346 29079 net.cpp:425] inception_5a/relu_3x3_reduce <- inception_5a/3x3_reduce
I0714 22:17:54.964355 29079 net.cpp:386] inception_5a/relu_3x3_reduce -> inception_5a/3x3_reduce (in-place)
I0714 22:17:54.964872 29079 net.cpp:141] Setting up inception_5a/relu_3x3_reduce
I0714 22:17:54.964889 29079 net.cpp:148] Top shape: 10 160 7 7 (78400)
I0714 22:17:54.964895 29079 net.cpp:156] Memory required for data: 530611200
I0714 22:17:54.964900 29079 layer_factory.hpp:77] Creating layer inception_5a/3x3
I0714 22:17:54.964918 29079 net.cpp:91] Creating Layer inception_5a/3x3
I0714 22:17:54.964926 29079 net.cpp:425] inception_5a/3x3 <- inception_5a/3x3_reduce
I0714 22:17:54.964939 29079 net.cpp:399] inception_5a/3x3 -> inception_5a/3x3
I0714 22:17:54.965153 29083 net.cpp:141] Setting up inception_5a/3x3_reduce
I0714 22:17:54.965174 29083 net.cpp:148] Top shape: 10 160 7 7 (78400)
I0714 22:17:54.965180 29083 net.cpp:156] Memory required for data: 530297600
I0714 22:17:54.965190 29083 layer_factory.hpp:77] Creating layer inception_5a/relu_3x3_reduce
I0714 22:17:54.965201 29083 net.cpp:91] Creating Layer inception_5a/relu_3x3_reduce
I0714 22:17:54.965209 29083 net.cpp:425] inception_5a/relu_3x3_reduce <- inception_5a/3x3_reduce
I0714 22:17:54.965216 29083 net.cpp:386] inception_5a/relu_3x3_reduce -> inception_5a/3x3_reduce (in-place)
I0714 22:17:54.965726 29083 net.cpp:141] Setting up inception_5a/relu_3x3_reduce
I0714 22:17:54.965744 29083 net.cpp:148] Top shape: 10 160 7 7 (78400)
I0714 22:17:54.965749 29083 net.cpp:156] Memory required for data: 530611200
I0714 22:17:54.965755 29083 layer_factory.hpp:77] Creating layer inception_5a/3x3
I0714 22:17:54.965772 29083 net.cpp:91] Creating Layer inception_5a/3x3
I0714 22:17:54.965780 29083 net.cpp:425] inception_5a/3x3 <- inception_5a/3x3_reduce
I0714 22:17:54.965795 29083 net.cpp:399] inception_5a/3x3 -> inception_5a/3x3
I0714 22:17:54.978663 29079 net.cpp:141] Setting up inception_5a/3x3
I0714 22:17:54.978706 29079 net.cpp:148] Top shape: 10 320 7 7 (156800)
I0714 22:17:54.978713 29079 net.cpp:156] Memory required for data: 531238400
I0714 22:17:54.978726 29079 layer_factory.hpp:77] Creating layer inception_5a/relu_3x3
I0714 22:17:54.978744 29079 net.cpp:91] Creating Layer inception_5a/relu_3x3
I0714 22:17:54.978752 29079 net.cpp:425] inception_5a/relu_3x3 <- inception_5a/3x3
I0714 22:17:54.978762 29079 net.cpp:386] inception_5a/relu_3x3 -> inception_5a/3x3 (in-place)
I0714 22:17:54.979830 29079 net.cpp:141] Setting up inception_5a/relu_3x3
I0714 22:17:54.979847 29079 net.cpp:148] Top shape: 10 320 7 7 (156800)
I0714 22:17:54.979853 29079 net.cpp:156] Memory required for data: 531865600
I0714 22:17:54.979859 29079 layer_factory.hpp:77] Creating layer inception_5a/5x5_reduce
I0714 22:17:54.979882 29079 net.cpp:91] Creating Layer inception_5a/5x5_reduce
I0714 22:17:54.979889 29079 net.cpp:425] inception_5a/5x5_reduce <- pool4/3x3_s2_pool4/3x3_s2_0_split_2
I0714 22:17:54.979902 29079 net.cpp:399] inception_5a/5x5_reduce -> inception_5a/5x5_reduce
I0714 22:17:54.980535 29083 net.cpp:141] Setting up inception_5a/3x3
I0714 22:17:54.980558 29083 net.cpp:148] Top shape: 10 320 7 7 (156800)
I0714 22:17:54.980566 29083 net.cpp:156] Memory required for data: 531238400
I0714 22:17:54.980576 29083 layer_factory.hpp:77] Creating layer inception_5a/relu_3x3
I0714 22:17:54.980589 29083 net.cpp:91] Creating Layer inception_5a/relu_3x3
I0714 22:17:54.980597 29083 net.cpp:425] inception_5a/relu_3x3 <- inception_5a/3x3
I0714 22:17:54.980605 29083 net.cpp:386] inception_5a/relu_3x3 -> inception_5a/3x3 (in-place)
I0714 22:17:54.981688 29083 net.cpp:141] Setting up inception_5a/relu_3x3
I0714 22:17:54.981705 29083 net.cpp:148] Top shape: 10 320 7 7 (156800)
I0714 22:17:54.981711 29083 net.cpp:156] Memory required for data: 531865600
I0714 22:17:54.981716 29083 layer_factory.hpp:77] Creating layer inception_5a/5x5_reduce
I0714 22:17:54.981737 29083 net.cpp:91] Creating Layer inception_5a/5x5_reduce
I0714 22:17:54.981745 29083 net.cpp:425] inception_5a/5x5_reduce <- pool4/3x3_s2_pool4/3x3_s2_0_split_2
I0714 22:17:54.981755 29083 net.cpp:399] inception_5a/5x5_reduce -> inception_5a/5x5_reduce
I0714 22:17:54.987411 29079 net.cpp:141] Setting up inception_5a/5x5_reduce
I0714 22:17:54.987452 29079 net.cpp:148] Top shape: 10 32 7 7 (15680)
I0714 22:17:54.987459 29079 net.cpp:156] Memory required for data: 531928320
I0714 22:17:54.987473 29079 layer_factory.hpp:77] Creating layer inception_5a/relu_5x5_reduce
I0714 22:17:54.987488 29079 net.cpp:91] Creating Layer inception_5a/relu_5x5_reduce
I0714 22:17:54.987498 29079 net.cpp:425] inception_5a/relu_5x5_reduce <- inception_5a/5x5_reduce
I0714 22:17:54.987512 29079 net.cpp:386] inception_5a/relu_5x5_reduce -> inception_5a/5x5_reduce (in-place)
I0714 22:17:54.988046 29079 net.cpp:141] Setting up inception_5a/relu_5x5_reduce
I0714 22:17:54.988062 29079 net.cpp:148] Top shape: 10 32 7 7 (15680)
I0714 22:17:54.988068 29079 net.cpp:156] Memory required for data: 531991040
I0714 22:17:54.988075 29079 layer_factory.hpp:77] Creating layer inception_5a/5x5
I0714 22:17:54.988100 29079 net.cpp:91] Creating Layer inception_5a/5x5
I0714 22:17:54.988107 29079 net.cpp:425] inception_5a/5x5 <- inception_5a/5x5_reduce
I0714 22:17:54.988118 29079 net.cpp:399] inception_5a/5x5 -> inception_5a/5x5
I0714 22:17:54.988133 29083 net.cpp:141] Setting up inception_5a/5x5_reduce
I0714 22:17:54.988152 29083 net.cpp:148] Top shape: 10 32 7 7 (15680)
I0714 22:17:54.988157 29083 net.cpp:156] Memory required for data: 531928320
I0714 22:17:54.988168 29083 layer_factory.hpp:77] Creating layer inception_5a/relu_5x5_reduce
I0714 22:17:54.988178 29083 net.cpp:91] Creating Layer inception_5a/relu_5x5_reduce
I0714 22:17:54.988185 29083 net.cpp:425] inception_5a/relu_5x5_reduce <- inception_5a/5x5_reduce
I0714 22:17:54.988198 29083 net.cpp:386] inception_5a/relu_5x5_reduce -> inception_5a/5x5_reduce (in-place)
I0714 22:17:54.988739 29083 net.cpp:141] Setting up inception_5a/relu_5x5_reduce
I0714 22:17:54.988764 29083 net.cpp:148] Top shape: 10 32 7 7 (15680)
I0714 22:17:54.988768 29083 net.cpp:156] Memory required for data: 531991040
I0714 22:17:54.988775 29083 layer_factory.hpp:77] Creating layer inception_5a/5x5
I0714 22:17:54.988792 29083 net.cpp:91] Creating Layer inception_5a/5x5
I0714 22:17:54.988801 29083 net.cpp:425] inception_5a/5x5 <- inception_5a/5x5_reduce
I0714 22:17:54.988811 29083 net.cpp:399] inception_5a/5x5 -> inception_5a/5x5
I0714 22:17:54.994366 29079 net.cpp:141] Setting up inception_5a/5x5
I0714 22:17:54.994393 29079 net.cpp:148] Top shape: 10 128 7 7 (62720)
I0714 22:17:54.994400 29079 net.cpp:156] Memory required for data: 532241920
I0714 22:17:54.994411 29079 layer_factory.hpp:77] Creating layer inception_5a/relu_5x5
I0714 22:17:54.994449 29079 net.cpp:91] Creating Layer inception_5a/relu_5x5
I0714 22:17:54.994457 29079 net.cpp:425] inception_5a/relu_5x5 <- inception_5a/5x5
I0714 22:17:54.994467 29079 net.cpp:386] inception_5a/relu_5x5 -> inception_5a/5x5 (in-place)
I0714 22:17:54.994892 29083 net.cpp:141] Setting up inception_5a/5x5
I0714 22:17:54.994910 29083 net.cpp:148] Top shape: 10 128 7 7 (62720)
I0714 22:17:54.994915 29083 net.cpp:156] Memory required for data: 532241920
I0714 22:17:54.994925 29083 layer_factory.hpp:77] Creating layer inception_5a/relu_5x5
I0714 22:17:54.994973 29083 net.cpp:91] Creating Layer inception_5a/relu_5x5
I0714 22:17:54.994983 29083 net.cpp:425] inception_5a/relu_5x5 <- inception_5a/5x5
I0714 22:17:54.994982 29079 net.cpp:141] Setting up inception_5a/relu_5x5
I0714 22:17:54.994994 29083 net.cpp:386] inception_5a/relu_5x5 -> inception_5a/5x5 (in-place)
I0714 22:17:54.994998 29079 net.cpp:148] Top shape: 10 128 7 7 (62720)
I0714 22:17:54.995004 29079 net.cpp:156] Memory required for data: 532492800
I0714 22:17:54.995012 29079 layer_factory.hpp:77] Creating layer inception_5a/pool
I0714 22:17:54.995023 29079 net.cpp:91] Creating Layer inception_5a/pool
I0714 22:17:54.995029 29079 net.cpp:425] inception_5a/pool <- pool4/3x3_s2_pool4/3x3_s2_0_split_3
I0714 22:17:54.995038 29079 net.cpp:399] inception_5a/pool -> inception_5a/pool
I0714 22:17:54.995367 29079 net.cpp:141] Setting up inception_5a/pool
I0714 22:17:54.995381 29079 net.cpp:148] Top shape: 10 832 7 7 (407680)
I0714 22:17:54.995386 29079 net.cpp:156] Memory required for data: 534123520
I0714 22:17:54.995393 29079 layer_factory.hpp:77] Creating layer inception_5a/pool_proj
I0714 22:17:54.995410 29079 net.cpp:91] Creating Layer inception_5a/pool_proj
I0714 22:17:54.995417 29079 net.cpp:425] inception_5a/pool_proj <- inception_5a/pool
I0714 22:17:54.995429 29079 net.cpp:399] inception_5a/pool_proj -> inception_5a/pool_proj
I0714 22:17:54.995447 29083 net.cpp:141] Setting up inception_5a/relu_5x5
I0714 22:17:54.995465 29083 net.cpp:148] Top shape: 10 128 7 7 (62720)
I0714 22:17:54.995470 29083 net.cpp:156] Memory required for data: 532492800
I0714 22:17:54.995476 29083 layer_factory.hpp:77] Creating layer inception_5a/pool
I0714 22:17:54.995486 29083 net.cpp:91] Creating Layer inception_5a/pool
I0714 22:17:54.995492 29083 net.cpp:425] inception_5a/pool <- pool4/3x3_s2_pool4/3x3_s2_0_split_3
I0714 22:17:54.995503 29083 net.cpp:399] inception_5a/pool -> inception_5a/pool
I0714 22:17:54.995893 29083 net.cpp:141] Setting up inception_5a/pool
I0714 22:17:54.995908 29083 net.cpp:148] Top shape: 10 832 7 7 (407680)
I0714 22:17:54.995913 29083 net.cpp:156] Memory required for data: 534123520
I0714 22:17:54.995918 29083 layer_factory.hpp:77] Creating layer inception_5a/pool_proj
I0714 22:17:54.995941 29083 net.cpp:91] Creating Layer inception_5a/pool_proj
I0714 22:17:54.995949 29083 net.cpp:425] inception_5a/pool_proj <- inception_5a/pool
I0714 22:17:54.995959 29083 net.cpp:399] inception_5a/pool_proj -> inception_5a/pool_proj
I0714 22:17:55.011996 29079 net.cpp:141] Setting up inception_5a/pool_proj
I0714 22:17:55.012045 29079 net.cpp:148] Top shape: 10 128 7 7 (62720)
I0714 22:17:55.012053 29079 net.cpp:156] Memory required for data: 534374400
I0714 22:17:55.012075 29079 layer_factory.hpp:77] Creating layer inception_5a/relu_pool_proj
I0714 22:17:55.012091 29079 net.cpp:91] Creating Layer inception_5a/relu_pool_proj
I0714 22:17:55.012118 29079 net.cpp:425] inception_5a/relu_pool_proj <- inception_5a/pool_proj
I0714 22:17:55.012133 29079 net.cpp:386] inception_5a/relu_pool_proj -> inception_5a/pool_proj (in-place)
I0714 22:17:55.013356 29079 net.cpp:141] Setting up inception_5a/relu_pool_proj
I0714 22:17:55.013375 29079 net.cpp:148] Top shape: 10 128 7 7 (62720)
I0714 22:17:55.013381 29079 net.cpp:156] Memory required for data: 534625280
I0714 22:17:55.013387 29079 layer_factory.hpp:77] Creating layer inception_5a/output
I0714 22:17:55.013401 29079 net.cpp:91] Creating Layer inception_5a/output
I0714 22:17:55.013414 29079 net.cpp:425] inception_5a/output <- inception_5a/1x1
I0714 22:17:55.013427 29079 net.cpp:425] inception_5a/output <- inception_5a/3x3
I0714 22:17:55.013434 29079 net.cpp:425] inception_5a/output <- inception_5a/5x5
I0714 22:17:55.013455 29079 net.cpp:425] inception_5a/output <- inception_5a/pool_proj
I0714 22:17:55.013465 29079 net.cpp:399] inception_5a/output -> inception_5a/output
I0714 22:17:55.013470 29083 net.cpp:141] Setting up inception_5a/pool_proj
I0714 22:17:55.013505 29083 net.cpp:148] Top shape: 10 128 7 7 (62720)
I0714 22:17:55.013512 29083 net.cpp:156] Memory required for data: 534374400
I0714 22:17:55.013532 29083 layer_factory.hpp:77] Creating layer inception_5a/relu_pool_proj
I0714 22:17:55.013546 29083 net.cpp:91] Creating Layer inception_5a/relu_pool_proj
I0714 22:17:55.013561 29083 net.cpp:425] inception_5a/relu_pool_proj <- inception_5a/pool_proj
I0714 22:17:55.013576 29083 net.cpp:386] inception_5a/relu_pool_proj -> inception_5a/pool_proj (in-place)
I0714 22:17:55.013628 29079 net.cpp:141] Setting up inception_5a/output
I0714 22:17:55.013646 29079 net.cpp:148] Top shape: 10 832 7 7 (407680)
I0714 22:17:55.013651 29079 net.cpp:156] Memory required for data: 536256000
I0714 22:17:55.013658 29079 layer_factory.hpp:77] Creating layer inception_5a/output_inception_5a/output_0_split
I0714 22:17:55.013674 29079 net.cpp:91] Creating Layer inception_5a/output_inception_5a/output_0_split
I0714 22:17:55.013680 29079 net.cpp:425] inception_5a/output_inception_5a/output_0_split <- inception_5a/output
I0714 22:17:55.013689 29079 net.cpp:399] inception_5a/output_inception_5a/output_0_split -> inception_5a/output_inception_5a/output_0_split_0
I0714 22:17:55.013700 29079 net.cpp:399] inception_5a/output_inception_5a/output_0_split -> inception_5a/output_inception_5a/output_0_split_1
I0714 22:17:55.013710 29079 net.cpp:399] inception_5a/output_inception_5a/output_0_split -> inception_5a/output_inception_5a/output_0_split_2
I0714 22:17:55.013720 29079 net.cpp:399] inception_5a/output_inception_5a/output_0_split -> inception_5a/output_inception_5a/output_0_split_3
I0714 22:17:55.014950 29083 net.cpp:141] Setting up inception_5a/relu_pool_proj
I0714 22:17:55.014972 29083 net.cpp:148] Top shape: 10 128 7 7 (62720)
I0714 22:17:55.014978 29083 net.cpp:156] Memory required for data: 534625280
I0714 22:17:55.014986 29083 layer_factory.hpp:77] Creating layer inception_5a/output
I0714 22:17:55.014987 29079 net.cpp:141] Setting up inception_5a/output_inception_5a/output_0_split
I0714 22:17:55.014997 29083 net.cpp:91] Creating Layer inception_5a/output
I0714 22:17:55.015003 29079 net.cpp:148] Top shape: 10 832 7 7 (407680)
I0714 22:17:55.015007 29083 net.cpp:425] inception_5a/output <- inception_5a/1x1
I0714 22:17:55.015012 29079 net.cpp:148] Top shape: 10 832 7 7 (407680)
I0714 22:17:55.015022 29079 net.cpp:148] Top shape: 10 832 7 7 (407680)
I0714 22:17:55.015019 29083 net.cpp:425] inception_5a/output <- inception_5a/3x3
I0714 22:17:55.015028 29079 net.cpp:148] Top shape: 10 832 7 7 (407680)
I0714 22:17:55.015033 29083 net.cpp:425] inception_5a/output <- inception_5a/5x5
I0714 22:17:55.015034 29079 net.cpp:156] Memory required for data: 542778880
I0714 22:17:55.015048 29083 net.cpp:425] inception_5a/output <- inception_5a/pool_proj
I0714 22:17:55.015051 29079 layer_factory.hpp:77] Creating layer inception_5b/1x1
I0714 22:17:55.015058 29083 net.cpp:399] inception_5a/output -> inception_5a/output
I0714 22:17:55.015081 29079 net.cpp:91] Creating Layer inception_5b/1x1
I0714 22:17:55.015089 29079 net.cpp:425] inception_5b/1x1 <- inception_5a/output_inception_5a/output_0_split_0
I0714 22:17:55.015100 29079 net.cpp:399] inception_5b/1x1 -> inception_5b/1x1
I0714 22:17:55.015244 29083 net.cpp:141] Setting up inception_5a/output
I0714 22:17:55.015259 29083 net.cpp:148] Top shape: 10 832 7 7 (407680)
I0714 22:17:55.015264 29083 net.cpp:156] Memory required for data: 536256000
I0714 22:17:55.015269 29083 layer_factory.hpp:77] Creating layer inception_5a/output_inception_5a/output_0_split
I0714 22:17:55.015282 29083 net.cpp:91] Creating Layer inception_5a/output_inception_5a/output_0_split
I0714 22:17:55.015288 29083 net.cpp:425] inception_5a/output_inception_5a/output_0_split <- inception_5a/output
I0714 22:17:55.015296 29083 net.cpp:399] inception_5a/output_inception_5a/output_0_split -> inception_5a/output_inception_5a/output_0_split_0
I0714 22:17:55.015307 29083 net.cpp:399] inception_5a/output_inception_5a/output_0_split -> inception_5a/output_inception_5a/output_0_split_1
I0714 22:17:55.015317 29083 net.cpp:399] inception_5a/output_inception_5a/output_0_split -> inception_5a/output_inception_5a/output_0_split_2
I0714 22:17:55.015326 29083 net.cpp:399] inception_5a/output_inception_5a/output_0_split -> inception_5a/output_inception_5a/output_0_split_3
I0714 22:17:55.016089 29083 net.cpp:141] Setting up inception_5a/output_inception_5a/output_0_split
I0714 22:17:55.016101 29083 net.cpp:148] Top shape: 10 832 7 7 (407680)
I0714 22:17:55.016108 29083 net.cpp:148] Top shape: 10 832 7 7 (407680)
I0714 22:17:55.016114 29083 net.cpp:148] Top shape: 10 832 7 7 (407680)
I0714 22:17:55.016120 29083 net.cpp:148] Top shape: 10 832 7 7 (407680)
I0714 22:17:55.016125 29083 net.cpp:156] Memory required for data: 542778880
I0714 22:17:55.016130 29083 layer_factory.hpp:77] Creating layer inception_5b/1x1
I0714 22:17:55.016155 29083 net.cpp:91] Creating Layer inception_5b/1x1
I0714 22:17:55.016161 29083 net.cpp:425] inception_5b/1x1 <- inception_5a/output_inception_5a/output_0_split_0
I0714 22:17:55.016171 29083 net.cpp:399] inception_5b/1x1 -> inception_5b/1x1
I0714 22:17:55.024384 29079 net.cpp:141] Setting up inception_5b/1x1
I0714 22:17:55.024413 29079 net.cpp:148] Top shape: 10 384 7 7 (188160)
I0714 22:17:55.024420 29079 net.cpp:156] Memory required for data: 543531520
I0714 22:17:55.024430 29079 layer_factory.hpp:77] Creating layer inception_5b/relu_1x1
I0714 22:17:55.024443 29079 net.cpp:91] Creating Layer inception_5b/relu_1x1
I0714 22:17:55.024451 29079 net.cpp:425] inception_5b/relu_1x1 <- inception_5b/1x1
I0714 22:17:55.024463 29079 net.cpp:386] inception_5b/relu_1x1 -> inception_5b/1x1 (in-place)
I0714 22:17:55.024937 29079 net.cpp:141] Setting up inception_5b/relu_1x1
I0714 22:17:55.024953 29079 net.cpp:148] Top shape: 10 384 7 7 (188160)
I0714 22:17:55.024960 29079 net.cpp:156] Memory required for data: 544284160
I0714 22:17:55.024966 29079 layer_factory.hpp:77] Creating layer inception_5b/3x3_reduce
I0714 22:17:55.024983 29079 net.cpp:91] Creating Layer inception_5b/3x3_reduce
I0714 22:17:55.024991 29079 net.cpp:425] inception_5b/3x3_reduce <- inception_5a/output_inception_5a/output_0_split_1
I0714 22:17:55.025004 29079 net.cpp:399] inception_5b/3x3_reduce -> inception_5b/3x3_reduce
I0714 22:17:55.029989 29083 net.cpp:141] Setting up inception_5b/1x1
I0714 22:17:55.030030 29083 net.cpp:148] Top shape: 10 384 7 7 (188160)
I0714 22:17:55.030037 29083 net.cpp:156] Memory required for data: 543531520
I0714 22:17:55.030051 29083 layer_factory.hpp:77] Creating layer inception_5b/relu_1x1
I0714 22:17:55.030066 29083 net.cpp:91] Creating Layer inception_5b/relu_1x1
I0714 22:17:55.030074 29083 net.cpp:425] inception_5b/relu_1x1 <- inception_5b/1x1
I0714 22:17:55.030086 29083 net.cpp:386] inception_5b/relu_1x1 -> inception_5b/1x1 (in-place)
I0714 22:17:55.030410 29083 net.cpp:141] Setting up inception_5b/relu_1x1
I0714 22:17:55.030422 29083 net.cpp:148] Top shape: 10 384 7 7 (188160)
I0714 22:17:55.030427 29083 net.cpp:156] Memory required for data: 544284160
I0714 22:17:55.030433 29083 layer_factory.hpp:77] Creating layer inception_5b/3x3_reduce
I0714 22:17:55.030454 29083 net.cpp:91] Creating Layer inception_5b/3x3_reduce
I0714 22:17:55.030462 29083 net.cpp:425] inception_5b/3x3_reduce <- inception_5a/output_inception_5a/output_0_split_1
I0714 22:17:55.030475 29083 net.cpp:399] inception_5b/3x3_reduce -> inception_5b/3x3_reduce
I0714 22:17:55.036926 29079 net.cpp:141] Setting up inception_5b/3x3_reduce
I0714 22:17:55.036964 29079 net.cpp:148] Top shape: 10 192 7 7 (94080)
I0714 22:17:55.036972 29079 net.cpp:156] Memory required for data: 544660480
I0714 22:17:55.036984 29079 layer_factory.hpp:77] Creating layer inception_5b/relu_3x3_reduce
I0714 22:17:55.037000 29079 net.cpp:91] Creating Layer inception_5b/relu_3x3_reduce
I0714 22:17:55.037009 29079 net.cpp:425] inception_5b/relu_3x3_reduce <- inception_5b/3x3_reduce
I0714 22:17:55.037019 29079 net.cpp:386] inception_5b/relu_3x3_reduce -> inception_5b/3x3_reduce (in-place)
I0714 22:17:55.037369 29079 net.cpp:141] Setting up inception_5b/relu_3x3_reduce
I0714 22:17:55.037384 29079 net.cpp:148] Top shape: 10 192 7 7 (94080)
I0714 22:17:55.037389 29079 net.cpp:156] Memory required for data: 545036800
I0714 22:17:55.037395 29079 layer_factory.hpp:77] Creating layer inception_5b/3x3
I0714 22:17:55.037417 29079 net.cpp:91] Creating Layer inception_5b/3x3
I0714 22:17:55.037425 29079 net.cpp:425] inception_5b/3x3 <- inception_5b/3x3_reduce
I0714 22:17:55.037436 29079 net.cpp:399] inception_5b/3x3 -> inception_5b/3x3
I0714 22:17:55.038964 29083 net.cpp:141] Setting up inception_5b/3x3_reduce
I0714 22:17:55.038988 29083 net.cpp:148] Top shape: 10 192 7 7 (94080)
I0714 22:17:55.038995 29083 net.cpp:156] Memory required for data: 544660480
I0714 22:17:55.039006 29083 layer_factory.hpp:77] Creating layer inception_5b/relu_3x3_reduce
I0714 22:17:55.039019 29083 net.cpp:91] Creating Layer inception_5b/relu_3x3_reduce
I0714 22:17:55.039027 29083 net.cpp:425] inception_5b/relu_3x3_reduce <- inception_5b/3x3_reduce
I0714 22:17:55.039036 29083 net.cpp:386] inception_5b/relu_3x3_reduce -> inception_5b/3x3_reduce (in-place)
I0714 22:17:55.040168 29083 net.cpp:141] Setting up inception_5b/relu_3x3_reduce
I0714 22:17:55.040184 29083 net.cpp:148] Top shape: 10 192 7 7 (94080)
I0714 22:17:55.040189 29083 net.cpp:156] Memory required for data: 545036800
I0714 22:17:55.040194 29083 layer_factory.hpp:77] Creating layer inception_5b/3x3
I0714 22:17:55.040215 29083 net.cpp:91] Creating Layer inception_5b/3x3
I0714 22:17:55.040222 29083 net.cpp:425] inception_5b/3x3 <- inception_5b/3x3_reduce
I0714 22:17:55.040232 29083 net.cpp:399] inception_5b/3x3 -> inception_5b/3x3
I0714 22:17:55.050235 29079 net.cpp:141] Setting up inception_5b/3x3
I0714 22:17:55.050271 29079 net.cpp:148] Top shape: 10 384 7 7 (188160)
I0714 22:17:55.050278 29079 net.cpp:156] Memory required for data: 545789440
I0714 22:17:55.050290 29079 layer_factory.hpp:77] Creating layer inception_5b/relu_3x3
I0714 22:17:55.050304 29079 net.cpp:91] Creating Layer inception_5b/relu_3x3
I0714 22:17:55.050312 29079 net.cpp:425] inception_5b/relu_3x3 <- inception_5b/3x3
I0714 22:17:55.050328 29079 net.cpp:386] inception_5b/relu_3x3 -> inception_5b/3x3 (in-place)
I0714 22:17:55.051398 29079 net.cpp:141] Setting up inception_5b/relu_3x3
I0714 22:17:55.051417 29079 net.cpp:148] Top shape: 10 384 7 7 (188160)
I0714 22:17:55.051422 29079 net.cpp:156] Memory required for data: 546542080
I0714 22:17:55.051429 29079 layer_factory.hpp:77] Creating layer inception_5b/5x5_reduce
I0714 22:17:55.051450 29079 net.cpp:91] Creating Layer inception_5b/5x5_reduce
I0714 22:17:55.051458 29079 net.cpp:425] inception_5b/5x5_reduce <- inception_5a/output_inception_5a/output_0_split_2
I0714 22:17:55.051471 29079 net.cpp:399] inception_5b/5x5_reduce -> inception_5b/5x5_reduce
I0714 22:17:55.054764 29083 net.cpp:141] Setting up inception_5b/3x3
I0714 22:17:55.054790 29083 net.cpp:148] Top shape: 10 384 7 7 (188160)
I0714 22:17:55.054797 29083 net.cpp:156] Memory required for data: 545789440
I0714 22:17:55.054810 29083 layer_factory.hpp:77] Creating layer inception_5b/relu_3x3
I0714 22:17:55.054819 29083 net.cpp:91] Creating Layer inception_5b/relu_3x3
I0714 22:17:55.054826 29083 net.cpp:425] inception_5b/relu_3x3 <- inception_5b/3x3
I0714 22:17:55.054850 29083 net.cpp:386] inception_5b/relu_3x3 -> inception_5b/3x3 (in-place)
I0714 22:17:55.055820 29083 net.cpp:141] Setting up inception_5b/relu_3x3
I0714 22:17:55.055838 29083 net.cpp:148] Top shape: 10 384 7 7 (188160)
I0714 22:17:55.055845 29083 net.cpp:156] Memory required for data: 546542080
I0714 22:17:55.055850 29083 layer_factory.hpp:77] Creating layer inception_5b/5x5_reduce
I0714 22:17:55.055869 29083 net.cpp:91] Creating Layer inception_5b/5x5_reduce
I0714 22:17:55.055877 29083 net.cpp:425] inception_5b/5x5_reduce <- inception_5a/output_inception_5a/output_0_split_2
I0714 22:17:55.055891 29083 net.cpp:399] inception_5b/5x5_reduce -> inception_5b/5x5_reduce
I0714 22:17:55.058580 29079 net.cpp:141] Setting up inception_5b/5x5_reduce
I0714 22:17:55.058607 29079 net.cpp:148] Top shape: 10 48 7 7 (23520)
I0714 22:17:55.058614 29079 net.cpp:156] Memory required for data: 546636160
I0714 22:17:55.058625 29079 layer_factory.hpp:77] Creating layer inception_5b/relu_5x5_reduce
I0714 22:17:55.058636 29079 net.cpp:91] Creating Layer inception_5b/relu_5x5_reduce
I0714 22:17:55.058643 29079 net.cpp:425] inception_5b/relu_5x5_reduce <- inception_5b/5x5_reduce
I0714 22:17:55.058652 29079 net.cpp:386] inception_5b/relu_5x5_reduce -> inception_5b/5x5_reduce (in-place)
I0714 22:17:55.059095 29079 net.cpp:141] Setting up inception_5b/relu_5x5_reduce
I0714 22:17:55.059109 29079 net.cpp:148] Top shape: 10 48 7 7 (23520)
I0714 22:17:55.059114 29079 net.cpp:156] Memory required for data: 546730240
I0714 22:17:55.059120 29079 layer_factory.hpp:77] Creating layer inception_5b/5x5
I0714 22:17:55.059139 29079 net.cpp:91] Creating Layer inception_5b/5x5
I0714 22:17:55.059145 29079 net.cpp:425] inception_5b/5x5 <- inception_5b/5x5_reduce
I0714 22:17:55.059159 29079 net.cpp:399] inception_5b/5x5 -> inception_5b/5x5
I0714 22:17:55.062093 29083 net.cpp:141] Setting up inception_5b/5x5_reduce
I0714 22:17:55.062114 29083 net.cpp:148] Top shape: 10 48 7 7 (23520)
I0714 22:17:55.062121 29083 net.cpp:156] Memory required for data: 546636160
I0714 22:17:55.062131 29083 layer_factory.hpp:77] Creating layer inception_5b/relu_5x5_reduce
I0714 22:17:55.062142 29083 net.cpp:91] Creating Layer inception_5b/relu_5x5_reduce
I0714 22:17:55.062150 29083 net.cpp:425] inception_5b/relu_5x5_reduce <- inception_5b/5x5_reduce
I0714 22:17:55.062158 29083 net.cpp:386] inception_5b/relu_5x5_reduce -> inception_5b/5x5_reduce (in-place)
I0714 22:17:55.062469 29083 net.cpp:141] Setting up inception_5b/relu_5x5_reduce
I0714 22:17:55.062480 29083 net.cpp:148] Top shape: 10 48 7 7 (23520)
I0714 22:17:55.062485 29083 net.cpp:156] Memory required for data: 546730240
I0714 22:17:55.062491 29083 layer_factory.hpp:77] Creating layer inception_5b/5x5
I0714 22:17:55.062508 29083 net.cpp:91] Creating Layer inception_5b/5x5
I0714 22:17:55.062515 29083 net.cpp:425] inception_5b/5x5 <- inception_5b/5x5_reduce
I0714 22:17:55.062530 29083 net.cpp:399] inception_5b/5x5 -> inception_5b/5x5
I0714 22:17:55.069111 29079 net.cpp:141] Setting up inception_5b/5x5
I0714 22:17:55.069151 29079 net.cpp:148] Top shape: 10 128 7 7 (62720)
I0714 22:17:55.069159 29079 net.cpp:156] Memory required for data: 546981120
I0714 22:17:55.069172 29079 layer_factory.hpp:77] Creating layer inception_5b/relu_5x5
I0714 22:17:55.069185 29079 net.cpp:91] Creating Layer inception_5b/relu_5x5
I0714 22:17:55.069195 29079 net.cpp:425] inception_5b/relu_5x5 <- inception_5b/5x5
I0714 22:17:55.069207 29079 net.cpp:386] inception_5b/relu_5x5 -> inception_5b/5x5 (in-place)
I0714 22:17:55.069759 29079 net.cpp:141] Setting up inception_5b/relu_5x5
I0714 22:17:55.069774 29079 net.cpp:148] Top shape: 10 128 7 7 (62720)
I0714 22:17:55.069780 29079 net.cpp:156] Memory required for data: 547232000
I0714 22:17:55.069787 29079 layer_factory.hpp:77] Creating layer inception_5b/pool
I0714 22:17:55.069802 29079 net.cpp:91] Creating Layer inception_5b/pool
I0714 22:17:55.069809 29079 net.cpp:425] inception_5b/pool <- inception_5a/output_inception_5a/output_0_split_3
I0714 22:17:55.069819 29079 net.cpp:399] inception_5b/pool -> inception_5b/pool
I0714 22:17:55.069871 29083 net.cpp:141] Setting up inception_5b/5x5
I0714 22:17:55.069888 29083 net.cpp:148] Top shape: 10 128 7 7 (62720)
I0714 22:17:55.069895 29083 net.cpp:156] Memory required for data: 546981120
I0714 22:17:55.069905 29083 layer_factory.hpp:77] Creating layer inception_5b/relu_5x5
I0714 22:17:55.069919 29083 net.cpp:91] Creating Layer inception_5b/relu_5x5
I0714 22:17:55.069926 29083 net.cpp:425] inception_5b/relu_5x5 <- inception_5b/5x5
I0714 22:17:55.069936 29083 net.cpp:386] inception_5b/relu_5x5 -> inception_5b/5x5 (in-place)
I0714 22:17:55.070212 29079 net.cpp:141] Setting up inception_5b/pool
I0714 22:17:55.070227 29079 net.cpp:148] Top shape: 10 832 7 7 (407680)
I0714 22:17:55.070232 29079 net.cpp:156] Memory required for data: 548862720
I0714 22:17:55.070238 29079 layer_factory.hpp:77] Creating layer inception_5b/pool_proj
I0714 22:17:55.070258 29079 net.cpp:91] Creating Layer inception_5b/pool_proj
I0714 22:17:55.070266 29079 net.cpp:425] inception_5b/pool_proj <- inception_5b/pool
I0714 22:17:55.070278 29079 net.cpp:399] inception_5b/pool_proj -> inception_5b/pool_proj
I0714 22:17:55.070338 29083 net.cpp:141] Setting up inception_5b/relu_5x5
I0714 22:17:55.070353 29083 net.cpp:148] Top shape: 10 128 7 7 (62720)
I0714 22:17:55.070358 29083 net.cpp:156] Memory required for data: 547232000
I0714 22:17:55.070363 29083 layer_factory.hpp:77] Creating layer inception_5b/pool
I0714 22:17:55.070377 29083 net.cpp:91] Creating Layer inception_5b/pool
I0714 22:17:55.070385 29083 net.cpp:425] inception_5b/pool <- inception_5a/output_inception_5a/output_0_split_3
I0714 22:17:55.070394 29083 net.cpp:399] inception_5b/pool -> inception_5b/pool
I0714 22:17:55.070830 29083 net.cpp:141] Setting up inception_5b/pool
I0714 22:17:55.070844 29083 net.cpp:148] Top shape: 10 832 7 7 (407680)
I0714 22:17:55.070849 29083 net.cpp:156] Memory required for data: 548862720
I0714 22:17:55.070855 29083 layer_factory.hpp:77] Creating layer inception_5b/pool_proj
I0714 22:17:55.070873 29083 net.cpp:91] Creating Layer inception_5b/pool_proj
I0714 22:17:55.070880 29083 net.cpp:425] inception_5b/pool_proj <- inception_5b/pool
I0714 22:17:55.070894 29083 net.cpp:399] inception_5b/pool_proj -> inception_5b/pool_proj
I0714 22:17:55.079543 29079 net.cpp:141] Setting up inception_5b/pool_proj
I0714 22:17:55.079581 29079 net.cpp:148] Top shape: 10 128 7 7 (62720)
I0714 22:17:55.079587 29079 net.cpp:156] Memory required for data: 549113600
I0714 22:17:55.079599 29079 layer_factory.hpp:77] Creating layer inception_5b/relu_pool_proj
I0714 22:17:55.079617 29079 net.cpp:91] Creating Layer inception_5b/relu_pool_proj
I0714 22:17:55.079625 29079 net.cpp:425] inception_5b/relu_pool_proj <- inception_5b/pool_proj
I0714 22:17:55.079635 29079 net.cpp:386] inception_5b/relu_pool_proj -> inception_5b/pool_proj (in-place)
I0714 22:17:55.080741 29083 net.cpp:141] Setting up inception_5b/pool_proj
I0714 22:17:55.080765 29083 net.cpp:148] Top shape: 10 128 7 7 (62720)
I0714 22:17:55.080770 29083 net.cpp:156] Memory required for data: 549113600
I0714 22:17:55.080782 29083 layer_factory.hpp:77] Creating layer inception_5b/relu_pool_proj
I0714 22:17:55.080785 29079 net.cpp:141] Setting up inception_5b/relu_pool_proj
I0714 22:17:55.080796 29083 net.cpp:91] Creating Layer inception_5b/relu_pool_proj
I0714 22:17:55.080803 29083 net.cpp:425] inception_5b/relu_pool_proj <- inception_5b/pool_proj
I0714 22:17:55.080807 29079 net.cpp:148] Top shape: 10 128 7 7 (62720)
I0714 22:17:55.080812 29083 net.cpp:386] inception_5b/relu_pool_proj -> inception_5b/pool_proj (in-place)
I0714 22:17:55.080818 29079 net.cpp:156] Memory required for data: 549364480
I0714 22:17:55.080826 29079 layer_factory.hpp:77] Creating layer inception_5b/output
I0714 22:17:55.080840 29079 net.cpp:91] Creating Layer inception_5b/output
I0714 22:17:55.080847 29079 net.cpp:425] inception_5b/output <- inception_5b/1x1
I0714 22:17:55.080854 29079 net.cpp:425] inception_5b/output <- inception_5b/3x3
I0714 22:17:55.080862 29079 net.cpp:425] inception_5b/output <- inception_5b/5x5
I0714 22:17:55.080868 29079 net.cpp:425] inception_5b/output <- inception_5b/pool_proj
I0714 22:17:55.080876 29079 net.cpp:399] inception_5b/output -> inception_5b/output
I0714 22:17:55.081624 29079 net.cpp:141] Setting up inception_5b/output
I0714 22:17:55.081645 29079 net.cpp:148] Top shape: 10 1024 7 7 (501760)
I0714 22:17:55.081650 29079 net.cpp:156] Memory required for data: 551371520
I0714 22:17:55.081656 29079 layer_factory.hpp:77] Creating layer pool5/7x7_s1
I0714 22:17:55.081666 29079 net.cpp:91] Creating Layer pool5/7x7_s1
I0714 22:17:55.081673 29079 net.cpp:425] pool5/7x7_s1 <- inception_5b/output
I0714 22:17:55.081687 29079 net.cpp:399] pool5/7x7_s1 -> pool5/7x7_s1
I0714 22:17:55.081754 29083 net.cpp:141] Setting up inception_5b/relu_pool_proj
I0714 22:17:55.081769 29083 net.cpp:148] Top shape: 10 128 7 7 (62720)
I0714 22:17:55.081774 29083 net.cpp:156] Memory required for data: 549364480
I0714 22:17:55.081780 29083 layer_factory.hpp:77] Creating layer inception_5b/output
I0714 22:17:55.081794 29083 net.cpp:91] Creating Layer inception_5b/output
I0714 22:17:55.081800 29083 net.cpp:425] inception_5b/output <- inception_5b/1x1
I0714 22:17:55.081809 29083 net.cpp:425] inception_5b/output <- inception_5b/3x3
I0714 22:17:55.081815 29083 net.cpp:425] inception_5b/output <- inception_5b/5x5
I0714 22:17:55.081820 29083 net.cpp:425] inception_5b/output <- inception_5b/pool_proj
I0714 22:17:55.081828 29083 net.cpp:399] inception_5b/output -> inception_5b/output
I0714 22:17:55.082001 29083 net.cpp:141] Setting up inception_5b/output
I0714 22:17:55.082016 29083 net.cpp:148] Top shape: 10 1024 7 7 (501760)
I0714 22:17:55.082021 29083 net.cpp:156] Memory required for data: 551371520
I0714 22:17:55.082027 29083 layer_factory.hpp:77] Creating layer pool5/7x7_s1
I0714 22:17:55.082037 29083 net.cpp:91] Creating Layer pool5/7x7_s1
I0714 22:17:55.082043 29083 net.cpp:425] pool5/7x7_s1 <- inception_5b/output
I0714 22:17:55.082057 29083 net.cpp:399] pool5/7x7_s1 -> pool5/7x7_s1
I0714 22:17:55.082334 29079 net.cpp:141] Setting up pool5/7x7_s1
I0714 22:17:55.082348 29079 net.cpp:148] Top shape: 10 1024 1 1 (10240)
I0714 22:17:55.082355 29079 net.cpp:156] Memory required for data: 551412480
I0714 22:17:55.082360 29079 layer_factory.hpp:77] Creating layer pool5/drop_7x7_s1
I0714 22:17:55.082378 29079 net.cpp:91] Creating Layer pool5/drop_7x7_s1
I0714 22:17:55.082384 29079 net.cpp:425] pool5/drop_7x7_s1 <- pool5/7x7_s1
I0714 22:17:55.082396 29079 net.cpp:386] pool5/drop_7x7_s1 -> pool5/7x7_s1 (in-place)
I0714 22:17:55.082552 29079 net.cpp:141] Setting up pool5/drop_7x7_s1
I0714 22:17:55.082564 29079 net.cpp:148] Top shape: 10 1024 1 1 (10240)
I0714 22:17:55.082571 29079 net.cpp:156] Memory required for data: 551453440
I0714 22:17:55.082576 29079 layer_factory.hpp:77] Creating layer loss3/classifier
I0714 22:17:55.082594 29083 net.cpp:141] Setting up pool5/7x7_s1
I0714 22:17:55.082597 29079 net.cpp:91] Creating Layer loss3/classifier
I0714 22:17:55.082612 29083 net.cpp:148] Top shape: 10 1024 1 1 (10240)
I0714 22:17:55.082614 29079 net.cpp:425] loss3/classifier <- pool5/7x7_s1
I0714 22:17:55.082617 29083 net.cpp:156] Memory required for data: 551412480
I0714 22:17:55.082624 29083 layer_factory.hpp:77] Creating layer pool5/drop_7x7_s1
I0714 22:17:55.082625 29079 net.cpp:399] loss3/classifier -> loss3/classifier
I0714 22:17:55.082639 29083 net.cpp:91] Creating Layer pool5/drop_7x7_s1
I0714 22:17:55.082648 29083 net.cpp:425] pool5/drop_7x7_s1 <- pool5/7x7_s1
I0714 22:17:55.082658 29083 net.cpp:386] pool5/drop_7x7_s1 -> pool5/7x7_s1 (in-place)
I0714 22:17:55.082828 29083 net.cpp:141] Setting up pool5/drop_7x7_s1
I0714 22:17:55.082840 29083 net.cpp:148] Top shape: 10 1024 1 1 (10240)
I0714 22:17:55.082845 29083 net.cpp:156] Memory required for data: 551453440
I0714 22:17:55.082851 29083 layer_factory.hpp:77] Creating layer loss3/classifier
I0714 22:17:55.082890 29083 net.cpp:91] Creating Layer loss3/classifier
I0714 22:17:55.082897 29083 net.cpp:425] loss3/classifier <- pool5/7x7_s1
I0714 22:17:55.082907 29083 net.cpp:399] loss3/classifier -> loss3/classifier
I0714 22:17:55.095587 29079 net.cpp:141] Setting up loss3/classifier
I0714 22:17:55.095623 29079 net.cpp:148] Top shape: 10 1000 (10000)
I0714 22:17:55.095629 29079 net.cpp:156] Memory required for data: 551493440
I0714 22:17:55.095643 29079 layer_factory.hpp:77] Creating layer prob
I0714 22:17:55.095655 29079 net.cpp:91] Creating Layer prob
I0714 22:17:55.095664 29079 net.cpp:425] prob <- loss3/classifier
I0714 22:17:55.095674 29079 net.cpp:399] prob -> prob
I0714 22:17:55.097391 29079 net.cpp:141] Setting up prob
I0714 22:17:55.097415 29079 net.cpp:148] Top shape: 10 1000 (10000)
I0714 22:17:55.097421 29079 net.cpp:156] Memory required for data: 551533440
I0714 22:17:55.097427 29079 net.cpp:219] prob does not need backward computation.
I0714 22:17:55.097434 29079 net.cpp:219] loss3/classifier does not need backward computation.
I0714 22:17:55.097440 29079 net.cpp:219] pool5/drop_7x7_s1 does not need backward computation.
I0714 22:17:55.097445 29079 net.cpp:219] pool5/7x7_s1 does not need backward computation.
…
