…
Java HotSpot(TM) 64-Bit Server VM warning: You have loaded library /tmp/cvld3652890530861777423/libopencv_java310.xine1.so which might have disabled stack guard. The VM will try to fix the stack guard now.
It's highly recommended that you fix the library with 'execstack -c <libfile>', or link it with '-z noexecstack'.
WARNING: Logging before InitGoogleLogging() is written to STDERR
I0720 16:19:22.468296 22347 net.cpp:49] Initializing net from parameters: 
name: "CaffeNet"
state {
  phase: TEST
}
layer {
  name: "data"
  type: "Input"
  top: "data"
  input_param {
    shape {
      dim: 10
      dim: 3
      dim: 227
      dim: 227
    }
  }
}
layer {
  name: "conv1"
  type: "Convolution"
  bottom: "data"
  top: "conv1"
  convolution_param {
    num_output: 96
    kernel_size: 11
    stride: 4
  }
}
layer {
  name: "relu1"
  type: "ReLU"
  bottom: "conv1"
  top: "conv1"
}
layer {
  name: "pool1"
  type: "Pooling"
  bottom: "conv1"
  top: "pool1"
  pooling_param {
    pool: MAX
    kernel_size: 3
    stride: 2
  }
}
layer {
  name: "norm1"
  type: "LRN"
  bottom: "pool1"
  top: "norm1"
  lrn_param {
    local_size: 5
    alpha: 0.0001
    beta: 0.75
  }
}
layer {
  name: "conv2"
  type: "Convolution"
  bottom: "norm1"
  top: "conv2"
  convolution_param {
    num_output: 256
    pad: 2
    kernel_size: 5
    group: 2
  }
}
layer {
  name: "relu2"
  type: "ReLU"
  bottom: "conv2"
  top: "conv2"
}
layer {
  name: "pool2"
  type: "Pooling"
  bottom: "conv2"
  top: "pool2"
  pooling_param {
    pool: MAX
    kernel_size: 3
    stride: 2
  }
}
layer {
  name: "norm2"
  type: "LRN"
  bottom: "pool2"
  top: "norm2"
  lrn_param {
    local_size: 5
    alpha: 0.0001
    beta: 0.75
  }
}
layer {
  name: "conv3"
  type: "Convolution"
  bottom: "norm2"
  top: "conv3"
  convolution_param {
    num_output: 384
    pad: 1
    kernel_size: 3
  }
}
layer {
  name: "relu3"
  type: "ReLU"
  bottom: "conv3"
  top: "conv3"
}
layer {
  name: "conv4"
  type: "Convolution"
  bottom: "conv3"
  top: "conv4"
  convolution_param {
    num_output: 384
    pad: 1
    kernel_size: 3
    group: 2
  }
}
layer {
  name: "relu4"
  type: "ReLU"
  bottom: "conv4"
  top: "conv4"
}
layer {
  name: "conv5"
  type: "Convolution"
  bottom: "conv4"
  top: "conv5"
  convolution_param {
    num_output: 256
    pad: 1
    kernel_size: 3
    group: 2
  }
}
layer {
  name: "relu5"
  type: "ReLU"
  bottom: "conv5"
  top: "conv5"
}
layer {
  name: "pool5"
  type: "Pooling"
  bottom: "conv5"
  top: "pool5"
  pooling_param {
    pool: MAX
    kernel_size: 3
    stride: 2
  }
}
layer {
  name: "fc6"
  type: "InnerProduct"
  bottom: "pool5"
  top: "fc6"
  inner_product_param {
    num_output: 4096
  }
}
layer {
  name: "relu6"
  type: "ReLU"
  bottom: "fc6"
  top: "fc6"
}
layer {
  name: "drop6"
  type: "Dropout"
  bottom: "fc6"
  top: "fc6"
  dropout_param {
    dropout_ratio: 0.5
  }
}
layer {
  name: "fc7"
  type: "InnerProduct"
  bottom: "fc6"
  top: "fc7"
  inner_product_param {
    num_output: 4096
  }
}
layer {
  name: "relu7"
  type: "ReLU"
  bottom: "fc7"
  top: "fc7"
}
layer {
  name: "drop7"
  type: "Dropout"
  bottom: "fc7"
  top: "fc7"
  dropout_param {
    dropout_ratio: 0.5
  }
}
layer {
  name: "fc8"
  type: "InnerProduct"
  bottom: "fc7"
  top: "fc8"
  inner_product_param {
    num_output: 1000
  }
}
layer {
  name: "prob"
  type: "Softmax"
  bottom: "fc8"
  top: "prob"
}
I0720 16:19:22.468473 22347 layer_factory.hpp:77] Creating layer data
I0720 16:19:22.468497 22347 net.cpp:91] Creating Layer data
I0720 16:19:22.468507 22347 net.cpp:399] data -> data
I0720 16:19:22.473929 22353 net.cpp:49] Initializing net from parameters: 
name: "CaffeNet"
state {
  phase: TEST
}
layer {
  name: "data"
  type: "Input"
  top: "data"
  input_param {
    shape {
      dim: 10
      dim: 3
      dim: 227
      dim: 227
    }
  }
}
layer {
  name: "conv1"
  type: "Convolution"
  bottom: "data"
  top: "conv1"
  convolution_param {
    num_output: 96
    kernel_size: 11
    stride: 4
  }
}
layer {
  name: "relu1"
  type: "ReLU"
  bottom: "conv1"
  top: "conv1"
}
layer {
  name: "pool1"
  type: "Pooling"
  bottom: "conv1"
  top: "pool1"
  pooling_param {
    pool: MAX
    kernel_size: 3
    stride: 2
  }
}
layer {
  name: "norm1"
  type: "LRN"
  bottom: "pool1"
  top: "norm1"
  lrn_param {
    local_size: 5
    alpha: 0.0001
    beta: 0.75
  }
}
layer {
  name: "conv2"
  type: "Convolution"
  bottom: "norm1"
  top: "conv2"
  convolution_param {
    num_output: 256
    pad: 2
    kernel_size: 5
    group: 2
  }
}
layer {
  name: "relu2"
  type: "ReLU"
  bottom: "conv2"
  top: "conv2"
}
layer {
  name: "pool2"
  type: "Pooling"
  bottom: "conv2"
  top: "pool2"
  pooling_param {
    pool: MAX
    kernel_size: 3
    stride: 2
  }
}
layer {
  name: "norm2"
  type: "LRN"
  bottom: "pool2"
  top: "norm2"
  lrn_param {
    local_size: 5
    alpha: 0.0001
    beta: 0.75
  }
}
layer {
  name: "conv3"
  type: "Convolution"
  bottom: "norm2"
  top: "conv3"
  convolution_param {
    num_output: 384
    pad: 1
    kernel_size: 3
  }
}
layer {
  name: "relu3"
  type: "ReLU"
  bottom: "conv3"
  top: "conv3"
}
layer {
  name: "conv4"
  type: "Convolution"
  bottom: "conv3"
  top: "conv4"
  convolution_param {
    num_output: 384
    pad: 1
    kernel_size: 3
    group: 2
  }
}
layer {
  name: "relu4"
  type: "ReLU"
  bottom: "conv4"
  top: "conv4"
}
layer {
  name: "conv5"
  type: "Convolution"
  bottom: "conv4"
  top: "conv5"
  convolution_param {
    num_output: 256
    pad: 1
    kernel_size: 3
    group: 2
  }
}
layer {
  name: "relu5"
  type: "ReLU"
  bottom: "conv5"
  top: "conv5"
}
layer {
  name: "pool5"
  type: "Pooling"
  bottom: "conv5"
  top: "pool5"
  pooling_param {
    pool: MAX
    kernel_size: 3
    stride: 2
  }
}
layer {
  name: "fc6"
  type: "InnerProduct"
  bottom: "pool5"
  top: "fc6"
  inner_product_param {
    num_output: 4096
  }
}
layer {
  name: "relu6"
  type: "ReLU"
  bottom: "fc6"
  top: "fc6"
}
layer {
  name: "drop6"
  type: "Dropout"
  bottom: "fc6"
  top: "fc6"
  dropout_param {
    dropout_ratio: 0.5
  }
}
layer {
  name: "fc7"
  type: "InnerProduct"
  bottom: "fc6"
  top: "fc7"
  inner_product_param {
    num_output: 4096
  }
}
layer {
  name: "relu7"
  type: "ReLU"
  bottom: "fc7"
  top: "fc7"
}
layer {
  name: "drop7"
  type: "Dropout"
  bottom: "fc7"
  top: "fc7"
  dropout_param {
    dropout_ratio: 0.5
  }
}
layer {
  name: "fc8"
  type: "InnerProduct"
  bottom: "fc7"
  top: "fc8"
  inner_product_param {
    num_output: 1000
  }
}
layer {
  name: "prob"
  type: "Softmax"
  bottom: "fc8"
  top: "prob"
}
I0720 16:19:22.474025 22353 layer_factory.hpp:77] Creating layer data
I0720 16:19:22.474038 22353 net.cpp:91] Creating Layer data
I0720 16:19:22.474045 22353 net.cpp:399] data -> data
I0720 16:19:22.668833 22337 upgrade_proto.cpp:66] Attempting to upgrade input file specified using deprecated input fields: /tmp/cvld3652890530861777423/s2vt.words_to_preds.prototxt
I0720 16:19:22.668879 22337 upgrade_proto.cpp:69] Successfully upgraded file specified using deprecated input fields.
W0720 16:19:22.668887 22337 upgrade_proto.cpp:71] Note that future Caffe releases will only support input layers and not input fields.
I0720 16:19:22.669142 22337 net.cpp:49] Initializing net from parameters: 
name: "s2vt:features_to_lstm"
state {
  phase: TEST
}
layer {
  name: "input"
  type: "Input"
  top: "frames_fc7"
  top: "cont_sentence"
  top: "input_sentence"
  top: "stage_indicator"
  input_param {
    shape {
      dim: 1
      dim: 4096
    }
    shape {
      dim: 1
      dim: 1
    }
    shape {
      dim: 1
      dim: 1
    }
    shape {
      dim: 1
      dim: 1
    }
  }
}
layer {
  name: "embed_encoder"
  type: "InnerProduct"
  bottom: "frames_fc7"
  top: "embedded_in_frames"
  param {
    lr_mult: 1
    decay_mult: 1
  }
  param {
    lr_mult: 2
    decay_mult: 0
  }
  inner_product_param {
    num_output: 500
    weight_filler {
      type: "xavier"
    }
    bias_filler {
      type: "constant"
      value: 0.2
    }
  }
}
layer {
  name: "reshape_frames"
  type: "Reshape"
  bottom: "embedded_in_frames"
  top: "embedded_input_frames"
  reshape_param {
    shape {
      dim: 1
      dim: 1
      dim: 500
    }
  }
}
layer {
  name: "reshape_stage_indicator"
  type: "Reshape"
  bottom: "stage_indicator"
  top: "reshaped_stage_indicator"
  reshape_param {
    shape {
      dim: 1
      dim: 1
      dim: 1
    }
  }
}
layer {
  name: "embedding"
  type: "Embed"
  bottom: "input_sentence"
  top: "embedded_input_sentence"
  param {
    lr_mult: 1
  }
  embed_param {
    num_output: 500
    input_dim: 46168
    bias_term: false
    weight_filler {
      type: "uniform"
      min: -0.08
      max: 0.08
    }
  }
}
layer {
  name: "lstm1"
  type: "LSTM"
  bottom: "embedded_input_frames"
  bottom: "cont_sentence"
  top: "lstm1"
  recurrent_param {
    num_output: 1000
    weight_filler {
      type: "uniform"
      min: -0.08
      max: 0.08
    }
    bias_filler {
      type: "constant"
      value: 0
    }
  }
}
layer {
  name: "concat"
  type: "Concat"
  bottom: "lstm1"
  bottom: "embedded_input_sentence"
  bottom: "reshaped_stage_indicator"
  top: "lstm1_video_sequence"
  concat_param {
    concat_dim: 2
  }
}
layer {
  name: "lstm2"
  type: "LSTM"
  bottom: "lstm1_video_sequence"
  bottom: "cont_sentence"
  top: "lstm2"
  recurrent_param {
    num_output: 1000
    weight_filler {
      type: "uniform"
      min: -0.08
      max: 0.08
    }
    bias_filler {
      type: "constant"
      value: 0
    }
  }
}
layer {
  name: "predict"
  type: "InnerProduct"
  bottom: "lstm2"
  top: "predict"
  param {
    lr_mult: 1
    decay_mult: 1
  }
  param {
    lr_mult: 2
    decay_mult: 0
  }
  inner_product_param {
    num_output: 46168
    weight_filler {
      type: "uniform"
      min: -0.08
      max: 0.08
    }
    bias_filler {
      type: "constant"
      value: 0
    }
    axis: 2
  }
}
layer {
  name: "probs"
  type: "Softmax"
  bottom: "predict"
  top: "probs"
  softmax_param {
    axis: 2
  }
}
I0720 16:19:22.669260 22337 layer_factory.hpp:77] Creating layer input
I0720 16:19:22.669276 22337 net.cpp:91] Creating Layer input
I0720 16:19:22.669286 22337 net.cpp:399] input -> frames_fc7
I0720 16:19:22.669301 22337 net.cpp:399] input -> cont_sentence
I0720 16:19:22.669314 22337 net.cpp:399] input -> input_sentence
I0720 16:19:22.669324 22337 net.cpp:399] input -> stage_indicator
I0720 16:19:23.358153 22347 net.cpp:141] Setting up data
I0720 16:19:23.358222 22347 net.cpp:148] Top shape: 10 3 227 227 (1545870)
I0720 16:19:23.358229 22347 net.cpp:156] Memory required for data: 6183480
I0720 16:19:23.358248 22347 layer_factory.hpp:77] Creating layer conv1
I0720 16:19:23.358274 22347 net.cpp:91] Creating Layer conv1
I0720 16:19:23.358283 22347 net.cpp:425] conv1 <- data
I0720 16:19:23.358295 22347 net.cpp:399] conv1 -> conv1
I0720 16:19:23.358458 22337 net.cpp:141] Setting up input
I0720 16:19:23.358480 22337 net.cpp:148] Top shape: 1 4096 (4096)
I0720 16:19:23.358494 22337 net.cpp:148] Top shape: 1 1 (1)
I0720 16:19:23.358505 22337 net.cpp:148] Top shape: 1 1 (1)
I0720 16:19:23.358515 22337 net.cpp:148] Top shape: 1 1 (1)
I0720 16:19:23.358522 22337 net.cpp:156] Memory required for data: 16396
I0720 16:19:23.358532 22337 layer_factory.hpp:77] Creating layer cont_sentence_input_1_split
I0720 16:19:23.358561 22337 net.cpp:91] Creating Layer cont_sentence_input_1_split
I0720 16:19:23.358572 22337 net.cpp:425] cont_sentence_input_1_split <- cont_sentence
I0720 16:19:23.358608 22337 net.cpp:399] cont_sentence_input_1_split -> cont_sentence_input_1_split_0
I0720 16:19:23.358628 22337 net.cpp:399] cont_sentence_input_1_split -> cont_sentence_input_1_split_1
I0720 16:19:23.358815 22337 net.cpp:141] Setting up cont_sentence_input_1_split
I0720 16:19:23.358834 22337 net.cpp:148] Top shape: 1 1 (1)
I0720 16:19:23.358845 22337 net.cpp:148] Top shape: 1 1 (1)
I0720 16:19:23.358852 22337 net.cpp:156] Memory required for data: 16404
I0720 16:19:23.358860 22337 layer_factory.hpp:77] Creating layer embed_encoder
I0720 16:19:23.358906 22337 net.cpp:91] Creating Layer embed_encoder
I0720 16:19:23.358917 22337 net.cpp:425] embed_encoder <- frames_fc7
I0720 16:19:23.358932 22337 net.cpp:399] embed_encoder -> embedded_in_frames
I0720 16:19:23.373952 22353 net.cpp:141] Setting up data
I0720 16:19:23.373993 22353 net.cpp:148] Top shape: 10 3 227 227 (1545870)
I0720 16:19:23.374002 22353 net.cpp:156] Memory required for data: 6183480
I0720 16:19:23.374014 22353 layer_factory.hpp:77] Creating layer conv1
I0720 16:19:23.374042 22353 net.cpp:91] Creating Layer conv1
I0720 16:19:23.374050 22353 net.cpp:425] conv1 <- data
I0720 16:19:23.374063 22353 net.cpp:399] conv1 -> conv1
I0720 16:19:23.415824 22337 net.cpp:141] Setting up embed_encoder
I0720 16:19:23.415870 22337 net.cpp:148] Top shape: 1 500 (500)
I0720 16:19:23.415879 22337 net.cpp:156] Memory required for data: 18404
I0720 16:19:23.415915 22337 layer_factory.hpp:77] Creating layer reshape_frames
I0720 16:19:23.415951 22337 net.cpp:91] Creating Layer reshape_frames
I0720 16:19:23.415964 22337 net.cpp:425] reshape_frames <- embedded_in_frames
I0720 16:19:23.415982 22337 net.cpp:399] reshape_frames -> embedded_input_frames
I0720 16:19:23.420817 22337 net.cpp:141] Setting up reshape_frames
I0720 16:19:23.420843 22337 net.cpp:148] Top shape: 1 1 500 (500)
I0720 16:19:23.420852 22337 net.cpp:156] Memory required for data: 20404
I0720 16:19:23.420861 22337 layer_factory.hpp:77] Creating layer reshape_stage_indicator
I0720 16:19:23.420886 22337 net.cpp:91] Creating Layer reshape_stage_indicator
I0720 16:19:23.420895 22337 net.cpp:425] reshape_stage_indicator <- stage_indicator
I0720 16:19:23.420910 22337 net.cpp:399] reshape_stage_indicator -> reshaped_stage_indicator
I0720 16:19:23.421718 22337 net.cpp:141] Setting up reshape_stage_indicator
I0720 16:19:23.421739 22337 net.cpp:148] Top shape: 1 1 1 (1)
I0720 16:19:23.421748 22337 net.cpp:156] Memory required for data: 20408
I0720 16:19:23.421757 22337 layer_factory.hpp:77] Creating layer embedding
I0720 16:19:23.421777 22337 net.cpp:91] Creating Layer embedding
I0720 16:19:23.421787 22337 net.cpp:425] embedding <- input_sentence
I0720 16:19:23.421799 22337 net.cpp:399] embedding -> embedded_input_sentence
I0720 16:19:23.679502 22337 net.cpp:141] Setting up embedding
I0720 16:19:23.679548 22337 net.cpp:148] Top shape: 1 1 500 (500)
I0720 16:19:23.679554 22337 net.cpp:156] Memory required for data: 22408
I0720 16:19:23.679570 22337 layer_factory.hpp:77] Creating layer lstm1
I0720 16:19:23.679586 22337 net.cpp:91] Creating Layer lstm1
I0720 16:19:23.679594 22337 net.cpp:425] lstm1 <- embedded_input_frames
I0720 16:19:23.679601 22337 net.cpp:425] lstm1 <- cont_sentence_input_1_split_0
I0720 16:19:23.679612 22337 net.cpp:399] lstm1 -> lstm1
I0720 16:19:23.679643 22337 recurrent_layer.cpp:20] Initializing recurrent layer: assuming input batch contains 1 timesteps of 1 independent streams.
I0720 16:19:23.679961 22337 net.cpp:49] Initializing net from parameters: 
layer {
  name: "lstm1_"
  type: "Input"
  top: "x"
  top: "cont"
  input_param {
    shape {
      dim: 1
      dim: 1
      dim: 500
    }
    shape {
      dim: 1
      dim: 1
    }
  }
}
layer {
  name: "lstm1_"
  type: "Input"
  top: "c_0"
  top: "h_0"
  input_param {
    shape {
      dim: 1
      dim: 1
      dim: 1000
    }
    shape {
      dim: 1
      dim: 1
      dim: 1000
    }
  }
}
layer {
  name: "lstm1_cont_slice"
  type: "Slice"
  bottom: "cont"
  top: "cont_1"
  slice_param {
    axis: 0
  }
}
layer {
  name: "lstm1_x_transform"
  type: "InnerProduct"
  bottom: "x"
  top: "W_xc_x"
  param {
    name: "W_xc"
  }
  param {
    name: "b_c"
  }
  propagate_down: true
  inner_product_param {
    num_output: 4000
    bias_term: true
    weight_filler {
      type: "uniform"
      min: -0.08
      max: 0.08
    }
    bias_filler {
      type: "constant"
      value: 0
    }
    axis: 2
  }
}
layer {
  name: "lstm1_W_xc_x_slice"
  type: "Slice"
  bottom: "W_xc_x"
  top: "W_xc_x_1"
  slice_param {
    axis: 0
  }
}
layer {
  name: "lstm1_h_conted_0"
  type: "Scale"
  bottom: "h_0"
  bottom: "cont_1"
  top: "h_conted_0"
  scale_param {
    axis: 0
  }
}
layer {
  name: "lstm1_transform_1"
  type: "InnerProduct"
  bottom: "h_conted_0"
  top: "W_hc_h_0"
  param {
    name: "W_hc"
  }
  inner_product_param {
    num_output: 4000
    bias_term: false
    weight_filler {
      type: "uniform"
      min: -0.08
      max: 0.08
    }
    axis: 2
  }
}
layer {
  name: "lstm1_gate_input_1"
  type: "Eltwise"
  bottom: "W_hc_h_0"
  bottom: "W_xc_x_1"
  top: "gate_input_1"
  eltwise_param {
    operation: SUM
  }
}
layer {
  name: "lstm1_unit_1"
  type: "LSTMUnit"
  bottom: "c_0"
  bottom: "gate_input_1"
  bottom: "cont_1"
  top: "c_1"
  top: "h_1"
}
layer {
  name: "lstm1_"
  type: "Split"
  bottom: "c_1"
  top: "c_T"
}
layer {
  name: "lstm1_h_concat"
  type: "Concat"
  bottom: "h_1"
  top: "h"
  concat_param {
    axis: 0
  }
}
layer {
  name: "h_pseudoloss"
  type: "Reduction"
  bottom: "h"
  top: "h_pseudoloss"
  loss_weight: 1
}
I0720 16:19:23.680055 22337 layer_factory.hpp:77] Creating layer lstm1_
I0720 16:19:23.680068 22337 net.cpp:91] Creating Layer lstm1_
I0720 16:19:23.680073 22337 net.cpp:399] lstm1_ -> x
I0720 16:19:23.680084 22337 net.cpp:399] lstm1_ -> cont
I0720 16:19:23.690753 22337 net.cpp:141] Setting up lstm1_
I0720 16:19:23.690784 22337 net.cpp:148] Top shape: 1 1 500 (500)
I0720 16:19:23.690791 22337 net.cpp:148] Top shape: 1 1 (1)
I0720 16:19:23.690796 22337 net.cpp:156] Memory required for data: 2004
I0720 16:19:23.690804 22337 layer_factory.hpp:77] Creating layer lstm1_
I0720 16:19:23.690821 22337 net.cpp:91] Creating Layer lstm1_
I0720 16:19:23.690829 22337 net.cpp:399] lstm1_ -> c_0
I0720 16:19:23.690845 22337 net.cpp:399] lstm1_ -> h_0
I0720 16:19:23.704129 22337 net.cpp:141] Setting up lstm1_
I0720 16:19:23.704166 22337 net.cpp:148] Top shape: 1 1 1000 (1000)
I0720 16:19:23.704174 22337 net.cpp:148] Top shape: 1 1 1000 (1000)
I0720 16:19:23.704177 22337 net.cpp:156] Memory required for data: 10004
I0720 16:19:23.704185 22337 layer_factory.hpp:77] Creating layer lstm1_cont_slice
I0720 16:19:23.704203 22337 net.cpp:91] Creating Layer lstm1_cont_slice
I0720 16:19:23.704210 22337 net.cpp:425] lstm1_cont_slice <- cont
I0720 16:19:23.704218 22337 net.cpp:399] lstm1_cont_slice -> cont_1
I0720 16:19:23.707062 22337 net.cpp:141] Setting up lstm1_cont_slice
I0720 16:19:23.707082 22337 net.cpp:148] Top shape: 1 1 (1)
I0720 16:19:23.707087 22337 net.cpp:156] Memory required for data: 10008
I0720 16:19:23.707093 22337 layer_factory.hpp:77] Creating layer cont_1_lstm1_cont_slice_0_split
I0720 16:19:23.707103 22337 net.cpp:91] Creating Layer cont_1_lstm1_cont_slice_0_split
I0720 16:19:23.707108 22337 net.cpp:425] cont_1_lstm1_cont_slice_0_split <- cont_1
I0720 16:19:23.707114 22337 net.cpp:399] cont_1_lstm1_cont_slice_0_split -> cont_1_lstm1_cont_slice_0_split_0
I0720 16:19:23.707123 22337 net.cpp:399] cont_1_lstm1_cont_slice_0_split -> cont_1_lstm1_cont_slice_0_split_1
I0720 16:19:23.719101 22337 net.cpp:141] Setting up cont_1_lstm1_cont_slice_0_split
I0720 16:19:23.719133 22337 net.cpp:148] Top shape: 1 1 (1)
I0720 16:19:23.719141 22337 net.cpp:148] Top shape: 1 1 (1)
I0720 16:19:23.719144 22337 net.cpp:156] Memory required for data: 10016
I0720 16:19:23.719151 22337 layer_factory.hpp:77] Creating layer lstm1_x_transform
I0720 16:19:23.719172 22337 net.cpp:91] Creating Layer lstm1_x_transform
I0720 16:19:23.719177 22337 net.cpp:425] lstm1_x_transform <- x
I0720 16:19:23.719189 22337 net.cpp:399] lstm1_x_transform -> W_xc_x
I0720 16:19:23.767132 22337 net.cpp:141] Setting up lstm1_x_transform
I0720 16:19:23.767174 22337 net.cpp:148] Top shape: 1 1 4000 (4000)
I0720 16:19:23.767179 22337 net.cpp:156] Memory required for data: 26016
I0720 16:19:23.767199 22337 layer_factory.hpp:77] Creating layer lstm1_W_xc_x_slice
I0720 16:19:23.767215 22337 net.cpp:91] Creating Layer lstm1_W_xc_x_slice
I0720 16:19:23.767221 22337 net.cpp:425] lstm1_W_xc_x_slice <- W_xc_x
I0720 16:19:23.767231 22337 net.cpp:399] lstm1_W_xc_x_slice -> W_xc_x_1
I0720 16:19:23.778085 22337 net.cpp:141] Setting up lstm1_W_xc_x_slice
I0720 16:19:23.778116 22337 net.cpp:148] Top shape: 1 1 4000 (4000)
I0720 16:19:23.778122 22337 net.cpp:156] Memory required for data: 42016
I0720 16:19:23.778128 22337 layer_factory.hpp:77] Creating layer lstm1_h_conted_0
I0720 16:19:23.778154 22337 net.cpp:91] Creating Layer lstm1_h_conted_0
I0720 16:19:23.778161 22337 net.cpp:425] lstm1_h_conted_0 <- h_0
I0720 16:19:23.778169 22337 net.cpp:425] lstm1_h_conted_0 <- cont_1_lstm1_cont_slice_0_split_0
I0720 16:19:23.778179 22337 net.cpp:399] lstm1_h_conted_0 -> h_conted_0
I0720 16:19:23.795081 22337 net.cpp:141] Setting up lstm1_h_conted_0
I0720 16:19:23.795120 22337 net.cpp:148] Top shape: 1 1 1000 (1000)
I0720 16:19:23.795125 22337 net.cpp:156] Memory required for data: 46016
I0720 16:19:23.795133 22337 layer_factory.hpp:77] Creating layer lstm1_transform_1
I0720 16:19:23.795150 22337 net.cpp:91] Creating Layer lstm1_transform_1
I0720 16:19:23.795157 22337 net.cpp:425] lstm1_transform_1 <- h_conted_0
I0720 16:19:23.795171 22337 net.cpp:399] lstm1_transform_1 -> W_hc_h_0
I0720 16:19:23.822145 22353 net.cpp:141] Setting up conv1
I0720 16:19:23.822198 22353 net.cpp:148] Top shape: 10 96 55 55 (2904000)
I0720 16:19:23.822211 22353 net.cpp:156] Memory required for data: 17799480
I0720 16:19:23.822238 22353 layer_factory.hpp:77] Creating layer relu1
I0720 16:19:23.822262 22353 net.cpp:91] Creating Layer relu1
I0720 16:19:23.822271 22353 net.cpp:425] relu1 <- conv1
I0720 16:19:23.822283 22353 net.cpp:386] relu1 -> conv1 (in-place)
I0720 16:19:23.823413 22347 net.cpp:141] Setting up conv1
I0720 16:19:23.823439 22347 net.cpp:148] Top shape: 10 96 55 55 (2904000)
I0720 16:19:23.823448 22347 net.cpp:156] Memory required for data: 17799480
I0720 16:19:23.823472 22347 layer_factory.hpp:77] Creating layer relu1
I0720 16:19:23.823496 22347 net.cpp:91] Creating Layer relu1
I0720 16:19:23.823509 22347 net.cpp:425] relu1 <- conv1
I0720 16:19:23.823523 22347 net.cpp:386] relu1 -> conv1 (in-place)
I0720 16:19:23.823668 22353 net.cpp:141] Setting up relu1
I0720 16:19:23.823683 22353 net.cpp:148] Top shape: 10 96 55 55 (2904000)
I0720 16:19:23.823688 22353 net.cpp:156] Memory required for data: 29415480
I0720 16:19:23.823693 22353 layer_factory.hpp:77] Creating layer pool1
I0720 16:19:23.823704 22353 net.cpp:91] Creating Layer pool1
I0720 16:19:23.823709 22353 net.cpp:425] pool1 <- conv1
I0720 16:19:23.823720 22353 net.cpp:399] pool1 -> pool1
I0720 16:19:23.825146 22353 net.cpp:141] Setting up pool1
I0720 16:19:23.825170 22353 net.cpp:148] Top shape: 10 96 27 27 (699840)
I0720 16:19:23.825178 22353 net.cpp:156] Memory required for data: 32214840
I0720 16:19:23.825187 22353 layer_factory.hpp:77] Creating layer norm1
I0720 16:19:23.825211 22353 net.cpp:91] Creating Layer norm1
I0720 16:19:23.825217 22347 net.cpp:141] Setting up relu1
I0720 16:19:23.825220 22353 net.cpp:425] norm1 <- pool1
I0720 16:19:23.825238 22347 net.cpp:148] Top shape: 10 96 55 55 (2904000)
I0720 16:19:23.825248 22347 net.cpp:156] Memory required for data: 29415480
I0720 16:19:23.825248 22353 net.cpp:399] norm1 -> norm1
I0720 16:19:23.825256 22347 layer_factory.hpp:77] Creating layer pool1
I0720 16:19:23.825285 22347 net.cpp:91] Creating Layer pool1
I0720 16:19:23.825296 22347 net.cpp:425] pool1 <- conv1
I0720 16:19:23.825311 22347 net.cpp:399] pool1 -> pool1
I0720 16:19:23.826544 22347 net.cpp:141] Setting up pool1
I0720 16:19:23.826567 22347 net.cpp:148] Top shape: 10 96 27 27 (699840)
I0720 16:19:23.826576 22347 net.cpp:156] Memory required for data: 32214840
I0720 16:19:23.826584 22347 layer_factory.hpp:77] Creating layer norm1
I0720 16:19:23.826623 22347 net.cpp:91] Creating Layer norm1
I0720 16:19:23.826637 22347 net.cpp:425] norm1 <- pool1
I0720 16:19:23.826653 22347 net.cpp:399] norm1 -> norm1
I0720 16:19:23.826882 22353 net.cpp:141] Setting up norm1
I0720 16:19:23.826906 22353 net.cpp:148] Top shape: 10 96 27 27 (699840)
I0720 16:19:23.826917 22353 net.cpp:156] Memory required for data: 35014200
I0720 16:19:23.826927 22353 layer_factory.hpp:77] Creating layer conv2
I0720 16:19:23.826946 22353 net.cpp:91] Creating Layer conv2
I0720 16:19:23.826956 22353 net.cpp:425] conv2 <- norm1
I0720 16:19:23.827006 22353 net.cpp:399] conv2 -> conv2
I0720 16:19:23.828179 22347 net.cpp:141] Setting up norm1
I0720 16:19:23.828200 22347 net.cpp:148] Top shape: 10 96 27 27 (699840)
I0720 16:19:23.828209 22347 net.cpp:156] Memory required for data: 35014200
I0720 16:19:23.828219 22347 layer_factory.hpp:77] Creating layer conv2
I0720 16:19:23.828241 22347 net.cpp:91] Creating Layer conv2
I0720 16:19:23.828253 22347 net.cpp:425] conv2 <- norm1
I0720 16:19:23.828285 22347 net.cpp:399] conv2 -> conv2
I0720 16:19:23.840301 22353 net.cpp:141] Setting up conv2
I0720 16:19:23.840335 22353 net.cpp:148] Top shape: 10 256 27 27 (1866240)
I0720 16:19:23.840342 22353 net.cpp:156] Memory required for data: 42479160
I0720 16:19:23.840358 22353 layer_factory.hpp:77] Creating layer relu2
I0720 16:19:23.840374 22353 net.cpp:91] Creating Layer relu2
I0720 16:19:23.840381 22353 net.cpp:425] relu2 <- conv2
I0720 16:19:23.840389 22353 net.cpp:386] relu2 -> conv2 (in-place)
I0720 16:19:23.840481 22347 net.cpp:141] Setting up conv2
I0720 16:19:23.840517 22347 net.cpp:148] Top shape: 10 256 27 27 (1866240)
I0720 16:19:23.840523 22347 net.cpp:156] Memory required for data: 42479160
I0720 16:19:23.840540 22347 layer_factory.hpp:77] Creating layer relu2
I0720 16:19:23.840554 22347 net.cpp:91] Creating Layer relu2
I0720 16:19:23.840560 22347 net.cpp:425] relu2 <- conv2
I0720 16:19:23.840572 22347 net.cpp:386] relu2 -> conv2 (in-place)
I0720 16:19:23.841461 22353 net.cpp:141] Setting up relu2
I0720 16:19:23.841475 22353 net.cpp:148] Top shape: 10 256 27 27 (1866240)
I0720 16:19:23.841480 22353 net.cpp:156] Memory required for data: 49944120
I0720 16:19:23.841485 22353 layer_factory.hpp:77] Creating layer pool2
I0720 16:19:23.841500 22353 net.cpp:91] Creating Layer pool2
I0720 16:19:23.841505 22353 net.cpp:425] pool2 <- conv2
I0720 16:19:23.841513 22353 net.cpp:399] pool2 -> pool2
I0720 16:19:23.842041 22353 net.cpp:141] Setting up pool2
I0720 16:19:23.842052 22353 net.cpp:148] Top shape: 10 256 13 13 (432640)
I0720 16:19:23.842056 22353 net.cpp:156] Memory required for data: 51674680
I0720 16:19:23.842061 22353 layer_factory.hpp:77] Creating layer norm2
I0720 16:19:23.842077 22353 net.cpp:91] Creating Layer norm2
I0720 16:19:23.842088 22347 net.cpp:141] Setting up relu2
I0720 16:19:23.842097 22353 net.cpp:425] norm2 <- pool2
I0720 16:19:23.842103 22347 net.cpp:148] Top shape: 10 256 27 27 (1866240)
I0720 16:19:23.842108 22347 net.cpp:156] Memory required for data: 49944120
I0720 16:19:23.842113 22353 net.cpp:399] norm2 -> norm2
I0720 16:19:23.842114 22347 layer_factory.hpp:77] Creating layer pool2
I0720 16:19:23.842139 22347 net.cpp:91] Creating Layer pool2
I0720 16:19:23.842145 22347 net.cpp:425] pool2 <- conv2
I0720 16:19:23.842152 22347 net.cpp:399] pool2 -> pool2
I0720 16:19:23.842403 22347 net.cpp:141] Setting up pool2
I0720 16:19:23.842414 22347 net.cpp:148] Top shape: 10 256 13 13 (432640)
I0720 16:19:23.842419 22347 net.cpp:156] Memory required for data: 51674680
I0720 16:19:23.842424 22347 layer_factory.hpp:77] Creating layer norm2
I0720 16:19:23.842440 22347 net.cpp:91] Creating Layer norm2
I0720 16:19:23.842447 22347 net.cpp:425] norm2 <- pool2
I0720 16:19:23.842458 22347 net.cpp:399] norm2 -> norm2
I0720 16:19:23.842737 22353 net.cpp:141] Setting up norm2
I0720 16:19:23.842751 22353 net.cpp:148] Top shape: 10 256 13 13 (432640)
I0720 16:19:23.842756 22353 net.cpp:156] Memory required for data: 53405240
I0720 16:19:23.842761 22353 layer_factory.hpp:77] Creating layer conv3
I0720 16:19:23.842773 22353 net.cpp:91] Creating Layer conv3
I0720 16:19:23.842777 22353 net.cpp:425] conv3 <- norm2
I0720 16:19:23.842790 22353 net.cpp:399] conv3 -> conv3
I0720 16:19:23.843055 22347 net.cpp:141] Setting up norm2
I0720 16:19:23.843067 22347 net.cpp:148] Top shape: 10 256 13 13 (432640)
I0720 16:19:23.843071 22347 net.cpp:156] Memory required for data: 53405240
I0720 16:19:23.843076 22347 layer_factory.hpp:77] Creating layer conv3
I0720 16:19:23.843092 22347 net.cpp:91] Creating Layer conv3
I0720 16:19:23.843098 22347 net.cpp:425] conv3 <- norm2
I0720 16:19:23.843108 22347 net.cpp:399] conv3 -> conv3
I0720 16:19:23.845705 22337 net.cpp:141] Setting up lstm1_transform_1
I0720 16:19:23.845726 22337 net.cpp:148] Top shape: 1 1 4000 (4000)
I0720 16:19:23.845732 22337 net.cpp:156] Memory required for data: 62016
I0720 16:19:23.845744 22337 layer_factory.hpp:77] Creating layer lstm1_gate_input_1
I0720 16:19:23.845757 22337 net.cpp:91] Creating Layer lstm1_gate_input_1
I0720 16:19:23.845763 22337 net.cpp:425] lstm1_gate_input_1 <- W_hc_h_0
I0720 16:19:23.845769 22337 net.cpp:425] lstm1_gate_input_1 <- W_xc_x_1
I0720 16:19:23.845780 22337 net.cpp:399] lstm1_gate_input_1 -> gate_input_1
I0720 16:19:23.846367 22337 net.cpp:141] Setting up lstm1_gate_input_1
I0720 16:19:23.846385 22337 net.cpp:148] Top shape: 1 1 4000 (4000)
I0720 16:19:23.846390 22337 net.cpp:156] Memory required for data: 78016
I0720 16:19:23.846395 22337 layer_factory.hpp:77] Creating layer lstm1_unit_1
I0720 16:19:23.846403 22337 net.cpp:91] Creating Layer lstm1_unit_1
I0720 16:19:23.846408 22337 net.cpp:425] lstm1_unit_1 <- c_0
I0720 16:19:23.846415 22337 net.cpp:425] lstm1_unit_1 <- gate_input_1
I0720 16:19:23.846421 22337 net.cpp:425] lstm1_unit_1 <- cont_1_lstm1_cont_slice_0_split_1
I0720 16:19:23.846432 22337 net.cpp:399] lstm1_unit_1 -> c_1
I0720 16:19:23.846442 22337 net.cpp:399] lstm1_unit_1 -> h_1
I0720 16:19:23.846726 22337 net.cpp:141] Setting up lstm1_unit_1
I0720 16:19:23.846740 22337 net.cpp:148] Top shape: 1 1 1000 (1000)
I0720 16:19:23.846746 22337 net.cpp:148] Top shape: 1 1 1000 (1000)
I0720 16:19:23.846750 22337 net.cpp:156] Memory required for data: 86016
I0720 16:19:23.846755 22337 layer_factory.hpp:77] Creating layer lstm1_
I0720 16:19:23.846763 22337 net.cpp:91] Creating Layer lstm1_
I0720 16:19:23.846767 22337 net.cpp:425] lstm1_ <- c_1
I0720 16:19:23.846774 22337 net.cpp:399] lstm1_ -> c_T
I0720 16:19:23.849609 22337 net.cpp:141] Setting up lstm1_
I0720 16:19:23.849629 22337 net.cpp:148] Top shape: 1 1 1000 (1000)
I0720 16:19:23.849634 22337 net.cpp:156] Memory required for data: 90016
I0720 16:19:23.849639 22337 layer_factory.hpp:77] Creating layer lstm1_h_concat
I0720 16:19:23.849648 22337 net.cpp:91] Creating Layer lstm1_h_concat
I0720 16:19:23.849653 22337 net.cpp:425] lstm1_h_concat <- h_1
I0720 16:19:23.849660 22337 net.cpp:399] lstm1_h_concat -> h
I0720 16:19:23.850368 22337 net.cpp:141] Setting up lstm1_h_concat
I0720 16:19:23.850384 22337 net.cpp:148] Top shape: 1 1 1000 (1000)
I0720 16:19:23.850389 22337 net.cpp:156] Memory required for data: 94016
I0720 16:19:23.850394 22337 layer_factory.hpp:77] Creating layer h_pseudoloss
I0720 16:19:23.850409 22337 net.cpp:91] Creating Layer h_pseudoloss
I0720 16:19:23.850414 22337 net.cpp:425] h_pseudoloss <- h
I0720 16:19:23.850425 22337 net.cpp:399] h_pseudoloss -> h_pseudoloss
I0720 16:19:23.850706 22337 net.cpp:141] Setting up h_pseudoloss
…
I0720 16:19:23.850818 22337 net.cpp:219] lstm1_ does not need backward computation.
I0720 16:19:23.850821 22337 net.cpp:261] This network produces output c_T
I0720 16:19:23.850826 22337 net.cpp:261] This network produces output h_pseudoloss
I0720 16:19:23.850842 22337 net.cpp:274] Network initialization done.
I0720 16:19:23.850894 22337 recurrent_layer.cpp:150] Adding parameter 0: W_xc
I0720 16:19:23.850901 22337 recurrent_layer.cpp:150] Adding parameter 1: b_c
I0720 16:19:23.850905 22337 recurrent_layer.cpp:150] Adding parameter 2: W_hc
I0720 16:19:23.853018 22337 net.cpp:141] Setting up lstm1
I0720 16:19:23.853031 22337 net.cpp:148] Top shape: 1 1 1000 (1000)
I0720 16:19:23.853035 22337 net.cpp:156] Memory required for data: 26408
I0720 16:19:23.853049 22337 layer_factory.hpp:77] Creating layer concat
I0720 16:19:23.853057 22337 net.cpp:91] Creating Layer concat
I0720 16:19:23.853063 22337 net.cpp:425] concat <- lstm1
I0720 16:19:23.853070 22337 net.cpp:425] concat <- embedded_input_sentence
I0720 16:19:23.853075 22337 net.cpp:425] concat <- reshaped_stage_indicator
I0720 16:19:23.853081 22337 net.cpp:399] concat -> lstm1_video_sequence
I0720 16:19:23.853284 22337 net.cpp:141] Setting up concat
I0720 16:19:23.853296 22337 net.cpp:148] Top shape: 1 1 1501 (1501)
I0720 16:19:23.853301 22337 net.cpp:156] Memory required for data: 32412
I0720 16:19:23.853304 22337 layer_factory.hpp:77] Creating layer lstm2
I0720 16:19:23.853315 22337 net.cpp:91] Creating Layer lstm2
I0720 16:19:23.853320 22337 net.cpp:425] lstm2 <- lstm1_video_sequence
I0720 16:19:23.853327 22337 net.cpp:425] lstm2 <- cont_sentence_input_1_split_1
I0720 16:19:23.853334 22337 net.cpp:399] lstm2 -> lstm2
I0720 16:19:23.853344 22337 recurrent_layer.cpp:20] Initializing recurrent layer: assuming input batch contains 1 timesteps of 1 independent streams.
I0720 16:19:23.853574 22337 net.cpp:49] Initializing net from parameters: 
layer {
  name: "lstm2_"
  type: "Input"
  top: "x"
  top: "cont"
  input_param {
    shape {
      dim: 1
      dim: 1
      dim: 1501
    }
    shape {
      dim: 1
      dim: 1
    }
  }
}
layer {
  name: "lstm2_"
  type: "Input"
  top: "c_0"
  top: "h_0"
  input_param {
    shape {
      dim: 1
      dim: 1
      dim: 1000
    }
    shape {
      dim: 1
      dim: 1
      dim: 1000
    }
  }
}
layer {
  name: "lstm2_cont_slice"
  type: "Slice"
  bottom: "cont"
  top: "cont_1"
  slice_param {
    axis: 0
  }
}
layer {
  name: "lstm2_x_transform"
  type: "InnerProduct"
  bottom: "x"
  top: "W_xc_x"
  param {
    name: "W_xc"
  }
  param {
    name: "b_c"
  }
  propagate_down: true
  inner_product_param {
    num_output: 4000
    bias_term: true
    weight_filler {
      type: "uniform"
      min: -0.08
      max: 0.08
    }
    bias_filler {
      type: "constant"
      value: 0
    }
    axis: 2
  }
}
layer {
  name: "lstm2_W_xc_x_slice"
  type: "Slice"
  bottom: "W_xc_x"
  top: "W_xc_x_1"
  slice_param {
    axis: 0
  }
}
layer {
  name: "lstm2_h_conted_0"
  type: "Scale"
  bottom: "h_0"
  bottom: "cont_1"
  top: "h_conted_0"
  scale_param {
    axis: 0
  }
}
layer {
  name: "lstm2_transform_1"
  type: "InnerProduct"
  bottom: "h_conted_0"
  top: "W_hc_h_0"
  param {
    name: "W_hc"
  }
  inner_product_param {
    num_output: 4000
    bias_term: false
    weight_filler {
      type: "uniform"
      min: -0.08
      max: 0.08
    }
    axis: 2
  }
}
layer {
  name: "lstm2_gate_input_1"
  type: "Eltwise"
  bottom: "W_hc_h_0"
  bottom: "W_xc_x_1"
  top: "gate_input_1"
  eltwise_param {
    operation: SUM
  }
}
layer {
  name: "lstm2_unit_1"
  type: "LSTMUnit"
  bottom: "c_0"
  bottom: "gate_input_1"
  bottom: "cont_1"
  top: "c_1"
  top: "h_1"
}
layer {
  name: "lstm2_"
  type: "Split"
  bottom: "c_1"
  top: "c_T"
}
layer {
  name: "lstm2_h_concat"
  type: "Concat"
  bottom: "h_1"
  top: "h"
  concat_param {
    axis: 0
  }
}
layer {
  name: "h_pseudoloss"
  type: "Reduction"
  bottom: "h"
  top: "h_pseudoloss"
  loss_weight: 1
}
I0720 16:19:23.853655 22337 layer_factory.hpp:77] Creating layer lstm2_
I0720 16:19:23.853667 22337 net.cpp:91] Creating Layer lstm2_
I0720 16:19:23.853673 22337 net.cpp:399] lstm2_ -> x
I0720 16:19:23.853683 22337 net.cpp:399] lstm2_ -> cont
I0720 16:19:23.854775 22337 net.cpp:141] Setting up lstm2_
I0720 16:19:23.854789 22337 net.cpp:148] Top shape: 1 1 1501 (1501)
I0720 16:19:23.854794 22337 net.cpp:148] Top shape: 1 1 (1)
I0720 16:19:23.854799 22337 net.cpp:156] Memory required for data: 6008
I0720 16:19:23.854804 22337 layer_factory.hpp:77] Creating layer lstm2_
I0720 16:19:23.854820 22337 net.cpp:91] Creating Layer lstm2_
I0720 16:19:23.854830 22337 net.cpp:399] lstm2_ -> c_0
I0720 16:19:23.854840 22337 net.cpp:399] lstm2_ -> h_0
I0720 16:19:23.854921 22353 net.cpp:141] Setting up conv3
I0720 16:19:23.854939 22353 net.cpp:148] Top shape: 10 384 13 13 (648960)
I0720 16:19:23.854944 22353 net.cpp:156] Memory required for data: 56001080
I0720 16:19:23.854961 22353 layer_factory.hpp:77] Creating layer relu3
I0720 16:19:23.854971 22353 net.cpp:91] Creating Layer relu3
I0720 16:19:23.854976 22353 net.cpp:425] relu3 <- conv3
I0720 16:19:23.854985 22353 net.cpp:386] relu3 -> conv3 (in-place)
I0720 16:19:23.855016 22337 net.cpp:141] Setting up lstm2_
I0720 16:19:23.855028 22337 net.cpp:148] Top shape: 1 1 1000 (1000)
I0720 16:19:23.855033 22337 net.cpp:148] Top shape: 1 1 1000 (1000)
I0720 16:19:23.855037 22337 net.cpp:156] Memory required for data: 14008
I0720 16:19:23.855049 22337 layer_factory.hpp:77] Creating layer lstm2_cont_slice
I0720 16:19:23.855059 22337 net.cpp:91] Creating Layer lstm2_cont_slice
I0720 16:19:23.855064 22337 net.cpp:425] lstm2_cont_slice <- cont
I0720 16:19:23.855072 22337 net.cpp:399] lstm2_cont_slice -> cont_1
I0720 16:19:23.856155 22337 net.cpp:141] Setting up lstm2_cont_slice
I0720 16:19:23.856168 22337 net.cpp:148] Top shape: 1 1 (1)
I0720 16:19:23.856171 22337 net.cpp:156] Memory required for data: 14012
I0720 16:19:23.856176 22337 layer_factory.hpp:77] Creating layer cont_1_lstm2_cont_slice_0_split
I0720 16:19:23.856183 22337 net.cpp:91] Creating Layer cont_1_lstm2_cont_slice_0_split
I0720 16:19:23.856187 22337 net.cpp:425] cont_1_lstm2_cont_slice_0_split <- cont_1
I0720 16:19:23.856194 22337 net.cpp:399] cont_1_lstm2_cont_slice_0_split -> cont_1_lstm2_cont_slice_0_split_0
I0720 16:19:23.856201 22337 net.cpp:399] cont_1_lstm2_cont_slice_0_split -> cont_1_lstm2_cont_slice_0_split_1
I0720 16:19:23.856420 22337 net.cpp:141] Setting up cont_1_lstm2_cont_slice_0_split
I0720 16:19:23.856426 22353 net.cpp:141] Setting up relu3
I0720 16:19:23.856431 22337 net.cpp:148] Top shape: 1 1 (1)
I0720 16:19:23.856441 22353 net.cpp:148] Top shape: 10 384 13 13 (648960)
I0720 16:19:23.856442 22337 net.cpp:148] Top shape: 1 1 (1)
I0720 16:19:23.856448 22353 net.cpp:156] Memory required for data: 58596920
I0720 16:19:23.856452 22337 net.cpp:156] Memory required for data: 14020
I0720 16:19:23.856454 22353 layer_factory.hpp:77] Creating layer conv4
I0720 16:19:23.856457 22337 layer_factory.hpp:77] Creating layer lstm2_x_transform
I0720 16:19:23.856468 22353 net.cpp:91] Creating Layer conv4
I0720 16:19:23.856470 22337 net.cpp:91] Creating Layer lstm2_x_transform
I0720 16:19:23.856474 22353 net.cpp:425] conv4 <- conv3
I0720 16:19:23.856477 22337 net.cpp:425] lstm2_x_transform <- x
I0720 16:19:23.856482 22353 net.cpp:399] conv4 -> conv4
I0720 16:19:23.856487 22337 net.cpp:399] lstm2_x_transform -> W_xc_x
I0720 16:19:23.856487 22347 net.cpp:141] Setting up conv3
I0720 16:19:23.856519 22347 net.cpp:148] Top shape: 10 384 13 13 (648960)
I0720 16:19:23.856525 22347 net.cpp:156] Memory required for data: 56001080
I0720 16:19:23.856539 22347 layer_factory.hpp:77] Creating layer relu3
I0720 16:19:23.856549 22347 net.cpp:91] Creating Layer relu3
I0720 16:19:23.856554 22347 net.cpp:425] relu3 <- conv3
I0720 16:19:23.856562 22347 net.cpp:386] relu3 -> conv3 (in-place)
I0720 16:19:23.869037 22347 net.cpp:141] Setting up relu3
I0720 16:19:23.869057 22347 net.cpp:148] Top shape: 10 384 13 13 (648960)
I0720 16:19:23.869062 22347 net.cpp:156] Memory required for data: 58596920
I0720 16:19:23.869067 22347 layer_factory.hpp:77] Creating layer conv4
I0720 16:19:23.869088 22347 net.cpp:91] Creating Layer conv4
I0720 16:19:23.869094 22347 net.cpp:425] conv4 <- conv3
I0720 16:19:23.869102 22347 net.cpp:399] conv4 -> conv4
I0720 16:19:23.879885 22353 net.cpp:141] Setting up conv4
I0720 16:19:23.879927 22353 net.cpp:148] Top shape: 10 384 13 13 (648960)
I0720 16:19:23.879935 22353 net.cpp:156] Memory required for data: 61192760
I0720 16:19:23.879946 22353 layer_factory.hpp:77] Creating layer relu4
I0720 16:19:23.879961 22353 net.cpp:91] Creating Layer relu4
I0720 16:19:23.879966 22353 net.cpp:425] relu4 <- conv4
I0720 16:19:23.879978 22353 net.cpp:386] relu4 -> conv4 (in-place)
I0720 16:19:23.881016 22353 net.cpp:141] Setting up relu4
I0720 16:19:23.881031 22353 net.cpp:148] Top shape: 10 384 13 13 (648960)
I0720 16:19:23.881036 22353 net.cpp:156] Memory required for data: 63788600
I0720 16:19:23.881042 22353 layer_factory.hpp:77] Creating layer conv5
I0720 16:19:23.881058 22353 net.cpp:91] Creating Layer conv5
I0720 16:19:23.881064 22353 net.cpp:425] conv5 <- conv4
I0720 16:19:23.881074 22353 net.cpp:399] conv5 -> conv5
I0720 16:19:23.881219 22347 net.cpp:141] Setting up conv4
I0720 16:19:23.881250 22347 net.cpp:148] Top shape: 10 384 13 13 (648960)
I0720 16:19:23.881259 22347 net.cpp:156] Memory required for data: 61192760
I0720 16:19:23.881278 22347 layer_factory.hpp:77] Creating layer relu4
I0720 16:19:23.881292 22347 net.cpp:91] Creating Layer relu4
I0720 16:19:23.881302 22347 net.cpp:425] relu4 <- conv4
I0720 16:19:23.881314 22347 net.cpp:386] relu4 -> conv4 (in-place)
I0720 16:19:23.882472 22347 net.cpp:141] Setting up relu4
I0720 16:19:23.882490 22347 net.cpp:148] Top shape: 10 384 13 13 (648960)
I0720 16:19:23.882496 22347 net.cpp:156] Memory required for data: 63788600
I0720 16:19:23.882501 22347 layer_factory.hpp:77] Creating layer conv5
I0720 16:19:23.883215 22347 net.cpp:91] Creating Layer conv5
I0720 16:19:23.883226 22347 net.cpp:425] conv5 <- conv4
I0720 16:19:23.883235 22347 net.cpp:399] conv5 -> conv5
I0720 16:19:23.891695 22353 net.cpp:141] Setting up conv5
I0720 16:19:23.891722 22353 net.cpp:148] Top shape: 10 256 13 13 (432640)
I0720 16:19:23.891728 22353 net.cpp:156] Memory required for data: 65519160
I0720 16:19:23.891743 22353 layer_factory.hpp:77] Creating layer relu5
I0720 16:19:23.891753 22353 net.cpp:91] Creating Layer relu5
I0720 16:19:23.891758 22353 net.cpp:425] relu5 <- conv5
I0720 16:19:23.891764 22353 net.cpp:386] relu5 -> conv5 (in-place)
I0720 16:19:23.892637 22347 net.cpp:141] Setting up conv5
I0720 16:19:23.892657 22353 net.cpp:141] Setting up relu5
I0720 16:19:23.892664 22347 net.cpp:148] Top shape: 10 256 13 13 (432640)
I0720 16:19:23.892671 22347 net.cpp:156] Memory required for data: 65519160
I0720 16:19:23.892673 22353 net.cpp:148] Top shape: 10 256 13 13 (432640)
I0720 16:19:23.892688 22353 net.cpp:156] Memory required for data: 67249720
I0720 16:19:23.892693 22347 layer_factory.hpp:77] Creating layer relu5
I0720 16:19:23.892694 22353 layer_factory.hpp:77] Creating layer pool5
I0720 16:19:23.892707 22347 net.cpp:91] Creating Layer relu5
I0720 16:19:23.892714 22347 net.cpp:425] relu5 <- conv5
I0720 16:19:23.892714 22353 net.cpp:91] Creating Layer pool5
I0720 16:19:23.892720 22347 net.cpp:386] relu5 -> conv5 (in-place)
I0720 16:19:23.892721 22353 net.cpp:425] pool5 <- conv5
I0720 16:19:23.892741 22353 net.cpp:399] pool5 -> pool5
I0720 16:19:23.893584 22353 net.cpp:141] Setting up pool5
I0720 16:19:23.893596 22353 net.cpp:148] Top shape: 10 256 6 6 (92160)
I0720 16:19:23.893600 22353 net.cpp:156] Memory required for data: 67618360
I0720 16:19:23.893605 22353 layer_factory.hpp:77] Creating layer fc6
I0720 16:19:23.893617 22353 net.cpp:91] Creating Layer fc6
I0720 16:19:23.893622 22353 net.cpp:425] fc6 <- pool5
I0720 16:19:23.893633 22353 net.cpp:399] fc6 -> fc6
I0720 16:19:23.893765 22347 net.cpp:141] Setting up relu5
I0720 16:19:23.893791 22347 net.cpp:148] Top shape: 10 256 13 13 (432640)
I0720 16:19:23.893801 22347 net.cpp:156] Memory required for data: 67249720
I0720 16:19:23.893811 22347 layer_factory.hpp:77] Creating layer pool5
I0720 16:19:23.893828 22347 net.cpp:91] Creating Layer pool5
I0720 16:19:23.893837 22347 net.cpp:425] pool5 <- conv5
I0720 16:19:23.893849 22347 net.cpp:399] pool5 -> pool5
I0720 16:19:23.958559 22347 net.cpp:141] Setting up pool5
I0720 16:19:23.958619 22347 net.cpp:148] Top shape: 10 256 6 6 (92160)
I0720 16:19:23.958627 22347 net.cpp:156] Memory required for data: 67618360
I0720 16:19:23.958637 22347 layer_factory.hpp:77] Creating layer fc6
I0720 16:19:23.958663 22347 net.cpp:91] Creating Layer fc6
I0720 16:19:23.958670 22347 net.cpp:425] fc6 <- pool5
I0720 16:19:23.958683 22347 net.cpp:399] fc6 -> fc6
I0720 16:19:23.958761 22337 net.cpp:141] Setting up lstm2_x_transform
I0720 16:19:23.958798 22337 net.cpp:148] Top shape: 1 1 4000 (4000)
I0720 16:19:23.958803 22337 net.cpp:156] Memory required for data: 30020
I0720 16:19:23.958823 22337 layer_factory.hpp:77] Creating layer lstm2_W_xc_x_slice
I0720 16:19:23.958838 22337 net.cpp:91] Creating Layer lstm2_W_xc_x_slice
I0720 16:19:23.958844 22337 net.cpp:425] lstm2_W_xc_x_slice <- W_xc_x
I0720 16:19:23.958854 22337 net.cpp:399] lstm2_W_xc_x_slice -> W_xc_x_1
I0720 16:19:24.027983 22337 net.cpp:141] Setting up lstm2_W_xc_x_slice
I0720 16:19:24.028029 22337 net.cpp:148] Top shape: 1 1 4000 (4000)
I0720 16:19:24.028035 22337 net.cpp:156] Memory required for data: 46020
I0720 16:19:24.028043 22337 layer_factory.hpp:77] Creating layer lstm2_h_conted_0
I0720 16:19:24.028059 22337 net.cpp:91] Creating Layer lstm2_h_conted_0
I0720 16:19:24.028064 22337 net.cpp:425] lstm2_h_conted_0 <- h_0
I0720 16:19:24.028074 22337 net.cpp:425] lstm2_h_conted_0 <- cont_1_lstm2_cont_slice_0_split_0
I0720 16:19:24.028086 22337 net.cpp:399] lstm2_h_conted_0 -> h_conted_0
I0720 16:19:24.028328 22353 net.cpp:141] Setting up fc6
I0720 16:19:24.028352 22353 net.cpp:148] Top shape: 10 4096 (40960)
I0720 16:19:24.028367 22353 net.cpp:156] Memory required for data: 67782200
I0720 16:19:24.028384 22353 layer_factory.hpp:77] Creating layer relu6
I0720 16:19:24.028405 22353 net.cpp:91] Creating Layer relu6
I0720 16:19:24.028411 22337 net.cpp:141] Setting up lstm2_h_conted_0
I0720 16:19:24.028420 22353 net.cpp:425] relu6 <- fc6
I0720 16:19:24.028425 22337 net.cpp:148] Top shape: 1 1 1000 (1000)
I0720 16:19:24.028429 22337 net.cpp:156] Memory required for data: 50020
I0720 16:19:24.028434 22337 layer_factory.hpp:77] Creating layer lstm2_transform_1
I0720 16:19:24.028432 22353 net.cpp:386] relu6 -> fc6 (in-place)
I0720 16:19:24.028448 22337 net.cpp:91] Creating Layer lstm2_transform_1
I0720 16:19:24.028455 22337 net.cpp:425] lstm2_transform_1 <- h_conted_0
I0720 16:19:24.028465 22337 net.cpp:399] lstm2_transform_1 -> W_hc_h_0
I0720 16:19:24.035292 22353 net.cpp:141] Setting up relu6
I0720 16:19:24.035342 22353 net.cpp:148] Top shape: 10 4096 (40960)
I0720 16:19:24.035353 22353 net.cpp:156] Memory required for data: 67946040
I0720 16:19:24.035365 22353 layer_factory.hpp:77] Creating layer drop6
I0720 16:19:24.035398 22353 net.cpp:91] Creating Layer drop6
I0720 16:19:24.035408 22353 net.cpp:425] drop6 <- fc6
I0720 16:19:24.035429 22353 net.cpp:386] drop6 -> fc6 (in-place)
I0720 16:19:24.036913 22353 net.cpp:141] Setting up drop6
I0720 16:19:24.036943 22353 net.cpp:148] Top shape: 10 4096 (40960)
I0720 16:19:24.036952 22353 net.cpp:156] Memory required for data: 68109880
I0720 16:19:24.036962 22353 layer_factory.hpp:77] Creating layer fc7
I0720 16:19:24.036988 22353 net.cpp:91] Creating Layer fc7
I0720 16:19:24.036998 22353 net.cpp:425] fc7 <- fc6
I0720 16:19:24.037010 22353 net.cpp:399] fc7 -> fc7
I0720 16:19:24.076633 22337 net.cpp:141] Setting up lstm2_transform_1
I0720 16:19:24.076673 22337 net.cpp:148] Top shape: 1 1 4000 (4000)
I0720 16:19:24.076679 22337 net.cpp:156] Memory required for data: 66020
I0720 16:19:24.076697 22337 layer_factory.hpp:77] Creating layer lstm2_gate_input_1
I0720 16:19:24.076716 22337 net.cpp:91] Creating Layer lstm2_gate_input_1
I0720 16:19:24.076724 22337 net.cpp:425] lstm2_gate_input_1 <- W_hc_h_0
I0720 16:19:24.076731 22337 net.cpp:425] lstm2_gate_input_1 <- W_xc_x_1
I0720 16:19:24.076740 22337 net.cpp:399] lstm2_gate_input_1 -> gate_input_1
I0720 16:19:24.079553 22337 net.cpp:141] Setting up lstm2_gate_input_1
I0720 16:19:24.079569 22337 net.cpp:148] Top shape: 1 1 4000 (4000)
I0720 16:19:24.079577 22337 net.cpp:156] Memory required for data: 82020
I0720 16:19:24.079586 22337 layer_factory.hpp:77] Creating layer lstm2_unit_1
I0720 16:19:24.079602 22337 net.cpp:91] Creating Layer lstm2_unit_1
I0720 16:19:24.079607 22337 net.cpp:425] lstm2_unit_1 <- c_0
I0720 16:19:24.079612 22337 net.cpp:425] lstm2_unit_1 <- gate_input_1
I0720 16:19:24.079618 22337 net.cpp:425] lstm2_unit_1 <- cont_1_lstm2_cont_slice_0_split_1
I0720 16:19:24.079625 22337 net.cpp:399] lstm2_unit_1 -> c_1
I0720 16:19:24.079634 22337 net.cpp:399] lstm2_unit_1 -> h_1
I0720 16:19:24.079668 22347 net.cpp:141] Setting up fc6
I0720 16:19:24.079686 22347 net.cpp:148] Top shape: 10 4096 (40960)
I0720 16:19:24.079691 22347 net.cpp:156] Memory required for data: 67782200
I0720 16:19:24.079702 22347 layer_factory.hpp:77] Creating layer relu6
I0720 16:19:24.079712 22347 net.cpp:91] Creating Layer relu6
I0720 16:19:24.079718 22347 net.cpp:425] relu6 <- fc6
I0720 16:19:24.079725 22347 net.cpp:386] relu6 -> fc6 (in-place)
I0720 16:19:24.079768 22337 net.cpp:141] Setting up lstm2_unit_1
I0720 16:19:24.079780 22337 net.cpp:148] Top shape: 1 1 1000 (1000)
I0720 16:19:24.079787 22337 net.cpp:148] Top shape: 1 1 1000 (1000)
I0720 16:19:24.079790 22337 net.cpp:156] Memory required for data: 90020
I0720 16:19:24.079795 22337 layer_factory.hpp:77] Creating layer lstm2_
I0720 16:19:24.079803 22337 net.cpp:91] Creating Layer lstm2_
I0720 16:19:24.079807 22337 net.cpp:425] lstm2_ <- c_1
I0720 16:19:24.079816 22337 net.cpp:399] lstm2_ -> c_T
I0720 16:19:24.079990 22337 net.cpp:141] Setting up lstm2_
I0720 16:19:24.080001 22337 net.cpp:148] Top shape: 1 1 1000 (1000)
I0720 16:19:24.080006 22337 net.cpp:156] Memory required for data: 94020
I0720 16:19:24.080011 22337 layer_factory.hpp:77] Creating layer lstm2_h_concat
I0720 16:19:24.080024 22337 net.cpp:91] Creating Layer lstm2_h_concat
I0720 16:19:24.080029 22337 net.cpp:425] lstm2_h_concat <- h_1
I0720 16:19:24.080036 22337 net.cpp:399] lstm2_h_concat -> h
I0720 16:19:24.080107 22337 net.cpp:141] Setting up lstm2_h_concat
I0720 16:19:24.080118 22337 net.cpp:148] Top shape: 1 1 1000 (1000)
I0720 16:19:24.080122 22337 net.cpp:156] Memory required for data: 98020
I0720 16:19:24.080127 22337 layer_factory.hpp:77] Creating layer h_pseudoloss
I0720 16:19:24.080140 22337 net.cpp:91] Creating Layer h_pseudoloss
I0720 16:19:24.080147 22337 net.cpp:425] h_pseudoloss <- h
I0720 16:19:24.080153 22337 net.cpp:399] h_pseudoloss -> h_pseudoloss
I0720 16:19:24.080174 22347 net.cpp:141] Setting up relu6
I0720 16:19:24.080186 22347 net.cpp:148] Top shape: 10 4096 (40960)
I0720 16:19:24.080191 22347 net.cpp:156] Memory required for data: 67946040
I0720 16:19:24.080196 22347 layer_factory.hpp:77] Creating layer drop6
I0720 16:19:24.080209 22347 net.cpp:91] Creating Layer drop6
I0720 16:19:24.080214 22347 net.cpp:425] drop6 <- fc6
I0720 16:19:24.080220 22347 net.cpp:386] drop6 -> fc6 (in-place)
I0720 16:19:24.080307 22347 net.cpp:141] Setting up drop6
I0720 16:19:24.080318 22347 net.cpp:148] Top shape: 10 4096 (40960)
I0720 16:19:24.080323 22347 net.cpp:156] Memory required for data: 68109880
I0720 16:19:24.080328 22347 layer_factory.hpp:77] Creating layer fc7
I0720 16:19:24.080329 22337 net.cpp:141] Setting up h_pseudoloss
I0720 16:19:24.080340 22347 net.cpp:91] Creating Layer fc7
I0720 16:19:24.080341 22337 net.cpp:148] Top shape: (1)
I0720 16:19:24.080345 22347 net.cpp:425] fc7 <- fc6
I0720 16:19:24.080353 22347 net.cpp:399] fc7 -> fc7
…
I0720 16:19:24.080425 22337 net.cpp:219] lstm2_ does not need backward computation.
I0720 16:19:24.080430 22337 net.cpp:261] This network produces output c_T
I0720 16:19:24.080433 22337 net.cpp:261] This network produces output h_pseudoloss
I0720 16:19:24.080473 22337 net.cpp:274] Network initialization done.
I0720 16:19:24.080523 22337 recurrent_layer.cpp:150] Adding parameter 0: W_xc
I0720 16:19:24.080529 22337 recurrent_layer.cpp:150] Adding parameter 1: b_c
I0720 16:19:24.080534 22337 recurrent_layer.cpp:150] Adding parameter 2: W_hc
I0720 16:19:24.110991 22337 net.cpp:141] Setting up lstm2
I0720 16:19:24.111029 22337 net.cpp:148] Top shape: 1 1 1000 (1000)
I0720 16:19:24.111035 22337 net.cpp:156] Memory required for data: 36412
I0720 16:19:24.111053 22337 layer_factory.hpp:77] Creating layer predict
I0720 16:19:24.111070 22337 net.cpp:91] Creating Layer predict
I0720 16:19:24.111069 22353 net.cpp:141] Setting up fc7
I0720 16:19:24.111078 22337 net.cpp:425] predict <- lstm2
I0720 16:19:24.111090 22353 net.cpp:148] Top shape: 10 4096 (40960)
I0720 16:19:24.111096 22353 net.cpp:156] Memory required for data: 68273720
I0720 16:19:24.111095 22337 net.cpp:399] predict -> predict
I0720 16:19:24.111109 22353 layer_factory.hpp:77] Creating layer relu7
I0720 16:19:24.111120 22353 net.cpp:91] Creating Layer relu7
I0720 16:19:24.111125 22353 net.cpp:425] relu7 <- fc7
I0720 16:19:24.111143 22353 net.cpp:386] relu7 -> fc7 (in-place)
I0720 16:19:24.182010 22353 net.cpp:141] Setting up relu7
I0720 16:19:24.182056 22353 net.cpp:148] Top shape: 10 4096 (40960)
I0720 16:19:24.182062 22353 net.cpp:156] Memory required for data: 68437560
I0720 16:19:24.182071 22353 layer_factory.hpp:77] Creating layer drop7
I0720 16:19:24.182091 22353 net.cpp:91] Creating Layer drop7
I0720 16:19:24.182098 22353 net.cpp:425] drop7 <- fc7
I0720 16:19:24.182108 22353 net.cpp:386] drop7 -> fc7 (in-place)
I0720 16:19:24.187608 22353 net.cpp:141] Setting up drop7
I0720 16:19:24.187638 22353 net.cpp:148] Top shape: 10 4096 (40960)
I0720 16:19:24.187643 22353 net.cpp:156] Memory required for data: 68601400
I0720 16:19:24.187649 22353 layer_factory.hpp:77] Creating layer fc8
I0720 16:19:24.187669 22353 net.cpp:91] Creating Layer fc8
I0720 16:19:24.187675 22353 net.cpp:425] fc8 <- fc7
I0720 16:19:24.187685 22353 net.cpp:399] fc8 -> fc8
I0720 16:19:24.201167 22347 net.cpp:141] Setting up fc7
I0720 16:19:24.201223 22347 net.cpp:148] Top shape: 10 4096 (40960)
I0720 16:19:24.201232 22347 net.cpp:156] Memory required for data: 68273720
I0720 16:19:24.201256 22347 layer_factory.hpp:77] Creating layer relu7
I0720 16:19:24.201279 22347 net.cpp:91] Creating Layer relu7
I0720 16:19:24.201290 22347 net.cpp:425] relu7 <- fc7
I0720 16:19:24.201306 22347 net.cpp:386] relu7 -> fc7 (in-place)
I0720 16:19:24.203773 22347 net.cpp:141] Setting up relu7
I0720 16:19:24.203831 22347 net.cpp:148] Top shape: 10 4096 (40960)
I0720 16:19:24.203841 22347 net.cpp:156] Memory required for data: 68437560
I0720 16:19:24.203855 22347 layer_factory.hpp:77] Creating layer drop7
I0720 16:19:24.203877 22347 net.cpp:91] Creating Layer drop7
I0720 16:19:24.203889 22347 net.cpp:425] drop7 <- fc7
I0720 16:19:24.203910 22347 net.cpp:386] drop7 -> fc7 (in-place)
I0720 16:19:24.204076 22347 net.cpp:141] Setting up drop7
I0720 16:19:24.204092 22347 net.cpp:148] Top shape: 10 4096 (40960)
I0720 16:19:24.204099 22347 net.cpp:156] Memory required for data: 68601400
I0720 16:19:24.204107 22347 layer_factory.hpp:77] Creating layer fc8
I0720 16:19:24.204128 22347 net.cpp:91] Creating Layer fc8
I0720 16:19:24.204138 22347 net.cpp:425] fc8 <- fc7
I0720 16:19:24.204149 22347 net.cpp:399] fc8 -> fc8
I0720 16:19:24.216428 22353 net.cpp:141] Setting up fc8
I0720 16:19:24.216470 22353 net.cpp:148] Top shape: 10 1000 (10000)
I0720 16:19:24.216476 22353 net.cpp:156] Memory required for data: 68641400
I0720 16:19:24.216490 22353 layer_factory.hpp:77] Creating layer prob
I0720 16:19:24.216509 22353 net.cpp:91] Creating Layer prob
I0720 16:19:24.216516 22353 net.cpp:425] prob <- fc8
I0720 16:19:24.216526 22353 net.cpp:399] prob -> prob
I0720 16:19:24.217025 22353 net.cpp:141] Setting up prob
I0720 16:19:24.217036 22353 net.cpp:148] Top shape: 10 1000 (10000)
I0720 16:19:24.217041 22353 net.cpp:156] Memory required for data: 68681400
I0720 16:19:24.217046 22353 net.cpp:219] prob does not need backward computation.
I0720 16:19:24.217051 22353 net.cpp:219] fc8 does not need backward computation.
I0720 16:19:24.217056 22353 net.cpp:219] drop7 does not need backward computation.
I0720 16:19:24.217059 22353 net.cpp:219] relu7 does not need backward computation.
…
