…
W0925 22:15:11.455600 23621 upgrade_proto.cpp:71] Note that future Caffe releases will only support input layers and not input fields.
I0925 22:15:11.455852 23655 net.cpp:49] Initializing net from parameters: 
name: "s2vt:features_to_lstm"
state {
  phase: TEST
}
layer {
  name: "input"
  type: "Input"
  top: "frames_fc7"
  top: "cont_sentence"
  top: "input_sentence"
  top: "stage_indicator"
  input_param {
    shape {
      dim: 1
      dim: 4096
    }
    shape {
      dim: 1
      dim: 1
    }
    shape {
      dim: 1
      dim: 1
    }
    shape {
      dim: 1
      dim: 1
    }
  }
}
layer {
  name: "embed_encoder"
  type: "InnerProduct"
  bottom: "frames_fc7"
  top: "embedded_in_frames"
  param {
    lr_mult: 1
    decay_mult: 1
  }
  param {
    lr_mult: 2
    decay_mult: 0
  }
  inner_product_param {
    num_output: 500
    weight_filler {
      type: "xavier"
    }
    bias_filler {
      type: "constant"
      value: 0.2
    }
  }
}
layer {
  name: "reshape_frames"
  type: "Reshape"
  bottom: "embedded_in_frames"
  top: "embedded_input_frames"
  reshape_param {
    shape {
      dim: 1
      dim: 1
      dim: 500
    }
  }
}
layer {
  name: "reshape_stage_indicator"
  type: "Reshape"
  bottom: "stage_indicator"
  top: "reshaped_stage_indicator"
  reshape_param {
    shape {
      dim: 1
      dim: 1
      dim: 1
    }
  }
}
layer {
  name: "embedding"
  type: "Embed"
  bottom: "input_sentence"
  top: "embedded_input_sentence"
  param {
    lr_mult: 1
  }
  embed_param {
    num_output: 500
    input_dim: 46168
    bias_term: false
    weight_filler {
      type: "uniform"
      min: -0.08
      max: 0.08
    }
  }
}
layer {
  name: "lstm1"
  type: "LSTM"
  bottom: "embedded_input_frames"
  bottom: "cont_sentence"
  top: "lstm1"
  recurrent_param {
    num_output: 1000
    weight_filler {
      type: "uniform"
      min: -0.08
      max: 0.08
    }
    bias_filler {
      type: "constant"
      value: 0
    }
  }
}
layer {
  name: "concat"
  type: "Concat"
  bottom: "lstm1"
  bottom: "embedded_input_sentence"
  bottom: "reshaped_stage_indicator"
  top: "lstm1_video_sequence"
  concat_param {
    concat_dim: 2
  }
}
layer {
  name: "lstm2"
  type: "LSTM"
  bottom: "lstm1_video_sequence"
  bottom: "cont_sentence"
  top: "lstm2"
  recurrent_param {
    num_output: 1000
    weight_filler {
      type: "uniform"
      min: -0.08
      max: 0.08
    }
    bias_filler {
      type: "constant"
      value: 0
    }
  }
}
layer {
  name: "predict"
  type: "InnerProduct"
  bottom: "lstm2"
  top: "predict"
  param {
    lr_mult: 1
    decay_mult: 1
  }
  param {
    lr_mult: 2
    decay_mult: 0
  }
  inner_product_param {
    num_output: 46168
    weight_filler {
      type: "uniform"
      min: -0.08
      max: 0.08
    }
    bias_filler {
      type: "constant"
      value: 0
    }
    axis: 2
  }
}
layer {
  name: "probs"
  type: "Softmax"
  bottom: "predict"
  top: "probs"
  softmax_param {
    axis: 2
  }
}
I0925 22:15:11.455940 23631 net.cpp:49] Initializing net from parameters: 
name: "s2vt:features_to_lstm"
state {
  phase: TEST
}
layer {
  name: "input"
  type: "Input"
  top: "frames_fc7"
  top: "cont_sentence"
  top: "input_sentence"
  top: "stage_indicator"
  input_param {
    shape {
      dim: 1
      dim: 4096
    }
    shape {
      dim: 1
      dim: 1
    }
    shape {
      dim: 1
      dim: 1
    }
    shape {
      dim: 1
      dim: 1
    }
  }
}
layer {
  name: "embed_encoder"
  type: "InnerProduct"
  bottom: "frames_fc7"
  top: "embedded_in_frames"
  param {
    lr_mult: 1
    decay_mult: 1
  }
  param {
    lr_mult: 2
    decay_mult: 0
  }
  inner_product_param {
    num_output: 500
    weight_filler {
      type: "xavier"
    }
    bias_filler {
      type: "constant"
      value: 0.2
    }
  }
}
layer {
  name: "reshape_frames"
  type: "Reshape"
  bottom: "embedded_in_frames"
  top: "embedded_input_frames"
  reshape_param {
    shape {
      dim: 1
      dim: 1
      dim: 500
    }
  }
}
layer {
  name: "reshape_stage_indicator"
  type: "Reshape"
  bottom: "stage_indicator"
  top: "reshaped_stage_indicator"
  reshape_param {
    shape {
      dim: 1
      dim: 1
      dim: 1
    }
  }
}
layer {
  name: "embedding"
  type: "Embed"
  bottom: "input_sentence"
  top: "embedded_input_sentence"
  param {
    lr_mult: 1
  }
  embed_param {
    num_output: 500
    input_dim: 46168
    bias_term: false
    weight_filler {
      type: "uniform"
      min: -0.08
      max: 0.08
    }
  }
}
layer {
  name: "lstm1"
  type: "LSTM"
  bottom: "embedded_input_frames"
  bottom: "cont_sentence"
  top: "lstm1"
  recurrent_param {
    num_output: 1000
    weight_filler {
      type: "uniform"
      min: -0.08
      max: 0.08
    }
    bias_filler {
      type: "constant"
      value: 0
    }
  }
}
layer {
  name: "concat"
  type: "Concat"
  bottom: "lstm1"
  bottom: "embedded_input_sentence"
  bottom: "reshaped_stage_indicator"
  top: "lstm1_video_sequence"
  concat_param {
    concat_dim: 2
  }
}
layer {
  name: "lstm2"
  type: "LSTM"
  bottom: "lstm1_video_sequence"
  bottom: "cont_sentence"
  top: "lstm2"
  recurrent_param {
    num_output: 1000
    weight_filler {
      type: "uniform"
      min: -0.08
      max: 0.08
    }
    bias_filler {
      type: "constant"
      value: 0
    }
  }
}
layer {
  name: "predict"
  type: "InnerProduct"
  bottom: "lstm2"
  top: "predict"
  param {
    lr_mult: 1
    decay_mult: 1
  }
  param {
    lr_mult: 2
    decay_mult: 0
  }
  inner_product_param {
    num_output: 46168
    weight_filler {
      type: "uniform"
      min: -0.08
      max: 0.08
    }
    bias_filler {
      type: "constant"
      value: 0
    }
    axis: 2
  }
}
layer {
  name: "probs"
  type: "Softmax"
  bottom: "predict"
  top: "probs"
  softmax_param {
    axis: 2
  }
}
I0925 22:15:11.455960 23625 net.cpp:49] Initializing net from parameters: 
name: "s2vt:features_to_lstm"
state {
  phase: TEST
}
layer {
  name: "input"
  type: "Input"
  top: "frames_fc7"
  top: "cont_sentence"
  top: "input_sentence"
  top: "stage_indicator"
  input_param {
    shape {
      dim: 1
      dim: 4096
    }
    shape {
      dim: 1
      dim: 1
    }
    shape {
      dim: 1
      dim: 1
    }
    shape {
      dim: 1
      dim: 1
    }
  }
}
layer {
  name: "embed_encoder"
  type: "InnerProduct"
  bottom: "frames_fc7"
  top: "embedded_in_frames"
  param {
    lr_mult: 1
    decay_mult: 1
  }
  param {
    lr_mult: 2
    decay_mult: 0
  }
  inner_product_param {
    num_output: 500
    weight_filler {
      type: "xavier"
    }
    bias_filler {
      type: "constant"
      value: 0.2
    }
  }
}
layer {
  name: "reshape_frames"
  type: "Reshape"
  bottom: "embedded_in_frames"
  top: "embedded_input_frames"
  reshape_param {
    shape {
      dim: 1
      dim: 1
      dim: 500
    }
  }
}
layer {
  name: "reshape_stage_indicator"
  type: "Reshape"
  bottom: "stage_indicator"
  top: "reshaped_stage_indicator"
  reshape_param {
    shape {
      dim: 1
      dim: 1
      dim: 1
    }
  }
}
layer {
  name: "embedding"
  type: "Embed"
  bottom: "input_sentence"
  top: "embedded_input_sentence"
  param {
    lr_mult: 1
  }
  embed_param {
    num_output: 500
    input_dim: 46168
    bias_term: false
    weight_filler {
      type: "uniform"
      min: -0.08
      max: 0.08
    }
  }
}
layer {
  name: "lstm1"
  type: "LSTM"
  bottom: "embedded_input_frames"
  bottom: "cont_sentence"
  top: "lstm1"
  recurrent_param {
    num_output: 1000
    weight_filler {
      type: "uniform"
      min: -0.08
      max: 0.08
    }
    bias_filler {
      type: "constant"
      value: 0
    }
  }
}
layer {
  name: "concat"
  type: "Concat"
  bottom: "lstm1"
  bottom: "embedded_input_sentence"
  bottom: "reshaped_stage_indicator"
  top: "lstm1_video_sequence"
  concat_param {
    concat_dim: 2
  }
}
layer {
  name: "lstm2"
  type: "LSTM"
  bottom: "lstm1_video_sequence"
  bottom: "cont_sentence"
  top: "lstm2"
  recurrent_param {
    num_output: 1000
    weight_filler {
      type: "uniform"
      min: -0.08
      max: 0.08
    }
    bias_filler {
      type: "constant"
      value: 0
    }
  }
}
layer {
  name: "predict"
  type: "InnerProduct"
  bottom: "lstm2"
  top: "predict"
  param {
    lr_mult: 1
    decay_mult: 1
  }
  param {
    lr_mult: 2
    decay_mult: 0
  }
  inner_product_param {
    num_output: 46168
    weight_filler {
      type: "uniform"
      min: -0.08
      max: 0.08
    }
    bias_filler {
      type: "constant"
      value: 0
    }
    axis: 2
  }
}
layer {
  name: "probs"
  type: "Softmax"
  bottom: "predict"
  top: "probs"
  softmax_param {
    axis: 2
  }
}
I0925 22:15:11.455984 23649 net.cpp:49] Initializing net from parameters: 
name: "s2vt:features_to_lstm"
state {
  phase: TEST
}
layer {
  name: "input"
  type: "Input"
  top: "frames_fc7"
  top: "cont_sentence"
  top: "input_sentence"
  top: "stage_indicator"
  input_param {
    shape {
      dim: 1
      dim: 4096
    }
    shape {
      dim: 1
      dim: 1
    }
    shape {
      dim: 1
      dim: 1
    }
    shape {
      dim: 1
      dim: 1
    }
  }
}
layer {
  name: "embed_encoder"
  type: "InnerProduct"
  bottom: "frames_fc7"
  top: "embedded_in_frames"
  param {
    lr_mult: 1
    decay_mult: 1
  }
  param {
    lr_mult: 2
    decay_mult: 0
  }
  inner_product_param {
    num_output: 500
    weight_filler {
      type: "xavier"
    }
    bias_filler {
      type: "constant"
      value: 0.2
    }
  }
}
layer {
  name: "reshape_frames"
  type: "Reshape"
  bottom: "embedded_in_frames"
  top: "embedded_input_frames"
  reshape_param {
    shape {
      dim: 1
      dim: 1
      dim: 500
    }
  }
}
layer {
  name: "reshape_stage_indicator"
  type: "Reshape"
  bottom: "stage_indicator"
  top: "reshaped_stage_indicator"
  reshape_param {
    shape {
      dim: 1
      dim: 1
      dim: 1
    }
  }
}
layer {
  name: "embedding"
  type: "Embed"
  bottom: "input_sentence"
  top: "embedded_input_sentence"
  param {
    lr_mult: 1
  }
  embed_param {
    num_output: 500
    input_dim: 46168
    bias_term: false
    weight_filler {
      type: "uniform"
      min: -0.08
      max: 0.08
    }
  }
}
layer {
  name: "lstm1"
  type: "LSTM"
  bottom: "embedded_input_frames"
  bottom: "cont_sentence"
  top: "lstm1"
  recurrent_param {
    num_output: 1000
    weight_filler {
      type: "uniform"
      min: -0.08
      max: 0.08
    }
    bias_filler {
      type: "constant"
      value: 0
    }
  }
}
layer {
  name: "concat"
  type: "Concat"
  bottom: "lstm1"
  bottom: "embedded_input_sentence"
  bottom: "reshaped_stage_indicator"
  top: "lstm1_video_sequence"
  concat_param {
    concat_dim: 2
  }
}
layer {
  name: "lstm2"
  type: "LSTM"
  bottom: "lstm1_video_sequence"
  bottom: "cont_sentence"
  top: "lstm2"
  recurrent_param {
    num_output: 1000
    weight_filler {
      type: "uniform"
      min: -0.08
      max: 0.08
    }
    bias_filler {
      type: "constant"
      value: 0
    }
  }
}
layer {
  name: "predict"
  type: "InnerProduct"
  bottom: "lstm2"
  top: "predict"
  param {
    lr_mult: 1
    decay_mult: 1
  }
  param {
    lr_mult: 2
    decay_mult: 0
  }
  inner_product_param {
    num_output: 46168
    weight_filler {
      type: "uniform"
      min: -0.08
      max: 0.08
    }
    bias_filler {
      type: "constant"
      value: 0
    }
    axis: 2
  }
}
layer {
  name: "probs"
  type: "Softmax"
  bottom: "predict"
  top: "probs"
  softmax_param {
    axis: 2
  }
}
I0925 22:15:11.456015 23655 layer_factory.hpp:77] Creating layer input
I0925 22:15:11.456046 23655 net.cpp:91] Creating Layer input
I0925 22:15:11.456060 23655 net.cpp:399] input -> frames_fc7
I0925 22:15:11.456061 23621 net.cpp:49] Initializing net from parameters: 
name: "s2vt:features_to_lstm"
state {
  phase: TEST
}
layer {
  name: "input"
  type: "Input"
  top: "frames_fc7"
  top: "cont_sentence"
  top: "input_sentence"
  top: "stage_indicator"
  input_param {
    shape {
      dim: 1
      dim: 4096
    }
    shape {
      dim: 1
      dim: 1
    }
    shape {
      dim: 1
      dim: 1
    }
    shape {
      dim: 1
      dim: 1
    }
  }
}
layer {
  name: "embed_encoder"
  type: "InnerProduct"
  bottom: "frames_fc7"
  top: "embedded_in_frames"
  param {
    lr_mult: 1
    decay_mult: 1
  }
  param {
    lr_mult: 2
    decay_mult: 0
  }
  inner_product_param {
    num_output: 500
    weight_filler {
      type: "xavier"
    }
    bias_filler {
      type: "constant"
      value: 0.2
    }
  }
}
layer {
  name: "reshape_frames"
  type: "Reshape"
  bottom: "embedded_in_frames"
  top: "embedded_input_frames"
  reshape_param {
    shape {
      dim: 1
      dim: 1
      dim: 500
    }
  }
}
layer {
  name: "reshape_stage_indicator"
  type: "Reshape"
  bottom: "stage_indicator"
  top: "reshaped_stage_indicator"
  reshape_param {
    shape {
      dim: 1
      dim: 1
      dim: 1
    }
  }
}
layer {
  name: "embedding"
  type: "Embed"
  bottom: "input_sentence"
  top: "embedded_input_sentence"
  param {
    lr_mult: 1
  }
  embed_param {
    num_output: 500
    input_dim: 46168
    bias_term: false
    weight_filler {
      type: "uniform"
      min: -0.08
      max: 0.08
    }
  }
}
layer {
  name: "lstm1"
  type: "LSTM"
  bottom: "embedded_input_frames"
  bottom: "cont_sentence"
  top: "lstm1"
  recurrent_param {
    num_output: 1000
    weight_filler {
      type: "uniform"
      min: -0.08
      max: 0.08
    }
    bias_filler {
      type: "constant"
      value: 0
    }
  }
}
layer {
  name: "concat"
  type: "Concat"
  bottom: "lstm1"
  bottom: "embedded_input_sentence"
  bottom: "reshaped_stage_indicator"
  top: "lstm1_video_sequence"
  concat_param {
    concat_dim: 2
  }
}
layer {
  name: "lstm2"
  type: "LSTM"
  bottom: "lstm1_video_sequence"
  bottom: "cont_sentence"
  top: "lstm2"
  recurrent_param {
    num_output: 1000
    weight_filler {
      type: "uniform"
      min: -0.08
      max: 0.08
    }
    bias_filler {
      type: "constant"
      value: 0
    }
  }
}
layer {
  name: "predict"
  type: "InnerProduct"
  bottom: "lstm2"
  top: "predict"
  param {
    lr_mult: 1
    decay_mult: 1
  }
  param {
    lr_mult: 2
    decay_mult: 0
  }
  inner_product_param {
    num_output: 46168
    weight_filler {
      type: "uniform"
      min: -0.08
      max: 0.08
    }
    bias_filler {
      type: "constant"
      value: 0
    }
    axis: 2
  }
}
layer {
  name: "probs"
  type: "Softmax"
  bottom: "predict"
  top: "probs"
  softmax_param {
    axis: 2
  }
}
I0925 22:15:11.456084 23631 layer_factory.hpp:77] Creating layer input
I0925 22:15:11.456091 23647 net.cpp:49] Initializing net from parameters: 
name: "CaffeNet"
state {
  phase: TEST
}
layer {
  name: "data"
  type: "Input"
  top: "data"
  input_param {
    shape {
      dim: 10
      dim: 3
      dim: 227
      dim: 227
    }
  }
}
layer {
  name: "conv1"
  type: "Convolution"
  bottom: "data"
  top: "conv1"
  convolution_param {
    num_output: 96
    kernel_size: 11
    stride: 4
  }
}
layer {
  name: "relu1"
  type: "ReLU"
  bottom: "conv1"
  top: "conv1"
}
layer {
  name: "pool1"
  type: "Pooling"
  bottom: "conv1"
  top: "pool1"
  pooling_param {
    pool: MAX
    kernel_size: 3
    stride: 2
  }
}
layer {
  name: "norm1"
  type: "LRN"
  bottom: "pool1"
  top: "norm1"
  lrn_param {
    local_size: 5
    alpha: 0.0001
    beta: 0.75
  }
}
layer {
  name: "conv2"
  type: "Convolution"
  bottom: "norm1"
  top: "conv2"
  convolution_param {
    num_output: 256
    pad: 2
    kernel_size: 5
    group: 2
  }
}
layer {
  name: "relu2"
  type: "ReLU"
  bottom: "conv2"
  top: "conv2"
}
layer {
  name: "pool2"
  type: "Pooling"
  bottom: "conv2"
  top: "pool2"
  pooling_param {
    pool: MAX
    kernel_size: 3
    stride: 2
  }
}
layer {
  name: "norm2"
  type: "LRN"
  bottom: "pool2"
  top: "norm2"
  lrn_param {
    local_size: 5
    alpha: 0.0001
    beta: 0.75
  }
}
layer {
  name: "conv3"
  type: "Convolution"
  bottom: "norm2"
  top: "conv3"
  convolution_param {
    num_output: 384
    pad: 1
    kernel_size: 3
  }
}
layer {
  name: "relu3"
  type: "ReLU"
  bottom: "conv3"
  top: "conv3"
}
layer {
  name: "conv4"
  type: "Convolution"
  bottom: "conv3"
  top: "conv4"
  convolution_param {
    num_output: 384
    pad: 1
    kernel_size: 3
    group: 2
  }
}
layer {
  name: "relu4"
  type: "ReLU"
  bottom: "conv4"
  top: "conv4"
}
layer {
  name: "conv5"
  type: "Convolution"
  bottom: "conv4"
  top: "conv5"
  convolution_param {
    num_output: 256
    pad: 1
    kernel_size: 3
    group: 2
  }
}
layer {
  name: "relu5"
  type: "ReLU"
  bottom: "conv5"
  top: "conv5"
}
layer {
  name: "pool5"
  type: "Pooling"
  bottom: "conv5"
  top: "pool5"
  pooling_param {
    pool: MAX
    kernel_size: 3
    stride: 2
  }
}
layer {
  name: "fc6"
  type: "InnerProduct"
  bottom: "pool5"
  top: "fc6"
  inner_product_param {
    num_output: 4096
  }
}
layer {
  name: "relu6"
  type: "ReLU"
  bottom: "fc6"
  top: "fc6"
}
layer {
  name: "drop6"
  type: "Dropout"
  bottom: "fc6"
  top: "fc6"
  dropout_param {
    dropout_ratio: 0.5
  }
}
layer {
  name: "fc7"
  type: "InnerProduct"
  bottom: "fc6"
  top: "fc7"
  inner_product_param {
    num_output: 4096
  }
}
layer {
  name: "relu7"
  type: "ReLU"
  bottom: "fc7"
  top: "fc7"
}
layer {
  name: "drop7"
  type: "Dropout"
  bottom: "fc7"
  top: "fc7"
  dropout_param {
    dropout_ratio: 0.5
  }
}
layer {
  name: "fc8"
  type: "InnerProduct"
  bottom: "fc7"
  top: "fc8"
  inner_product_param {
    num_output: 1000
  }
}
layer {
  name: "prob"
  type: "Softmax"
  bottom: "fc8"
  top: "prob"
}
I0925 22:15:11.456109 23631 net.cpp:91] Creating Layer input
I0925 22:15:11.456113 23625 layer_factory.hpp:77] Creating layer input
I0925 22:15:11.456122 23631 net.cpp:399] input -> frames_fc7
I0925 22:15:11.456104 23655 net.cpp:399] input -> cont_sentence
I0925 22:15:11.456135 23625 net.cpp:91] Creating Layer input
I0925 22:15:11.456137 23649 layer_factory.hpp:77] Creating layer input
…
W0925 22:15:11.455613 23623 upgrade_proto.cpp:71] Note that future Caffe releases will only support input layers and not input fields.
I0925 22:15:11.458875 23623 net.cpp:49] Initializing net from parameters: 
name: "s2vt:features_to_lstm"
state {
  phase: TEST
}
layer {
  name: "input"
  type: "Input"
  top: "frames_fc7"
  top: "cont_sentence"
  top: "input_sentence"
  top: "stage_indicator"
  input_param {
    shape {
      dim: 1
      dim: 4096
    }
    shape {
      dim: 1
      dim: 1
    }
    shape {
      dim: 1
      dim: 1
    }
    shape {
      dim: 1
      dim: 1
    }
  }
}
layer {
  name: "embed_encoder"
  type: "InnerProduct"
  bottom: "frames_fc7"
  top: "embedded_in_frames"
  param {
    lr_mult: 1
    decay_mult: 1
  }
  param {
    lr_mult: 2
    decay_mult: 0
  }
  inner_product_param {
    num_output: 500
    weight_filler {
      type: "xavier"
    }
    bias_filler {
      type: "constant"
      value: 0.2
    }
  }
}
layer {
  name: "reshape_frames"
  type: "Reshape"
  bottom: "embedded_in_frames"
  top: "embedded_input_frames"
  reshape_param {
    shape {
      dim: 1
      dim: 1
      dim: 500
    }
  }
}
layer {
  name: "reshape_stage_indicator"
  type: "Reshape"
  bottom: "stage_indicator"
  top: "reshaped_stage_indicator"
  reshape_param {
    shape {
      dim: 1
      dim: 1
      dim: 1
    }
  }
}
layer {
  name: "embedding"
  type: "Embed"
  bottom: "input_sentence"
  top: "embedded_input_sentence"
  param {
    lr_mult: 1
  }
  embed_param {
    num_output: 500
    input_dim: 46168
    bias_term: false
    weight_filler {
      type: "uniform"
      min: -0.08
      max: 0.08
    }
  }
}
layer {
  name: "lstm1"
  type: "LSTM"
  bottom: "embedded_input_frames"
  bottom: "cont_sentence"
  top: "lstm1"
  recurrent_param {
    num_output: 1000
    weight_filler {
      type: "uniform"
      min: -0.08
      max: 0.08
    }
    bias_filler {
      type: "constant"
      value: 0
    }
  }
}
layer {
  name: "concat"
  type: "Concat"
  bottom: "lstm1"
  bottom: "embedded_input_sentence"
  bottom: "reshaped_stage_indicator"
  top: "lstm1_video_sequence"
  concat_param {
    concat_dim: 2
  }
}
layer {
  name: "lstm2"
  type: "LSTM"
  bottom: "lstm1_video_sequence"
  bottom: "cont_sentence"
  top: "lstm2"
  recurrent_param {
    num_output: 1000
    weight_filler {
      type: "uniform"
      min: -0.08
      max: 0.08
    }
    bias_filler {
      type: "constant"
      value: 0
    }
  }
}
layer {
  name: "predict"
  type: "InnerProduct"
  bottom: "lstm2"
  top: "predict"
  param {
    lr_mult: 1
    decay_mult: 1
  }
  param {
    lr_mult: 2
    decay_mult: 0
  }
  inner_product_param {
    num_output: 46168
    weight_filler {
      type: "uniform"
      min: -0.08
      max: 0.08
    }
    bias_filler {
      type: "constant"
      value: 0
    }
    axis: 2
  }
}
layer {
  name: "probs"
  type: "Softmax"
  bottom: "predict"
  top: "probs"
  softmax_param {
    axis: 2
  }
}
I0925 22:15:11.458989 23623 layer_factory.hpp:77] Creating layer input
I0925 22:15:11.459005 23623 net.cpp:91] Creating Layer input
I0925 22:15:11.459012 23623 net.cpp:399] input -> frames_fc7
I0925 22:15:11.459027 23623 net.cpp:399] input -> cont_sentence
I0925 22:15:11.459038 23623 net.cpp:399] input -> input_sentence
I0925 22:15:11.459051 23623 net.cpp:399] input -> stage_indicator
I0925 22:15:12.219367 23647 net.cpp:141] Setting up data
I0925 22:15:12.219476 23647 net.cpp:148] Top shape: 10 3 227 227 (1545870)
I0925 22:15:12.219491 23647 net.cpp:156] Memory required for data: 6183480
I0925 22:15:12.219532 23647 layer_factory.hpp:77] Creating layer conv1
I0925 22:15:12.219584 23647 net.cpp:91] Creating Layer conv1
I0925 22:15:12.219602 23647 net.cpp:425] conv1 <- data
I0925 22:15:12.219626 23647 net.cpp:399] conv1 -> conv1
I0925 22:15:12.219784 23655 net.cpp:141] Setting up input
I0925 22:15:12.219813 23631 net.cpp:141] Setting up input
I0925 22:15:12.219833 23631 net.cpp:148] Top shape: 1 4096 (4096)
I0925 22:15:12.219832 23655 net.cpp:148] Top shape: 1 4096 (4096)
I0925 22:15:12.219842 23631 net.cpp:148] Top shape: 1 1 (1)
I0925 22:15:12.219849 23631 net.cpp:148] Top shape: 1 1 (1)
I0925 22:15:12.219848 23655 net.cpp:148] Top shape: 1 1 (1)
I0925 22:15:12.219846 23625 net.cpp:141] Setting up input
I0925 22:15:12.219863 23655 net.cpp:148] Top shape: 1 1 (1)
I0925 22:15:12.219866 23631 net.cpp:148] Top shape: 1 1 (1)
I0925 22:15:12.219889 23655 net.cpp:148] Top shape: 1 1 (1)
I0925 22:15:12.219882 23625 net.cpp:148] Top shape: 1 4096 (4096)
I0925 22:15:12.219899 23655 net.cpp:156] Memory required for data: 16396
I0925 22:15:12.219902 23631 net.cpp:156] Memory required for data: 16396
I0925 22:15:12.219909 23655 layer_factory.hpp:77] Creating layer cont_sentence_input_1_split
I0925 22:15:12.219910 23625 net.cpp:148] Top shape: 1 1 (1)
I0925 22:15:12.219914 23631 layer_factory.hpp:77] Creating layer cont_sentence_input_1_split
I0925 22:15:12.219935 23625 net.cpp:148] Top shape: 1 1 (1)
I0925 22:15:12.219938 23655 net.cpp:91] Creating Layer cont_sentence_input_1_split
I0925 22:15:12.219934 23649 net.cpp:141] Setting up input
I0925 22:15:12.219951 23631 net.cpp:91] Creating Layer cont_sentence_input_1_split
I0925 22:15:12.219954 23625 net.cpp:148] Top shape: 1 1 (1)
I0925 22:15:12.219949 23655 net.cpp:425] cont_sentence_input_1_split <- cont_sentence
I0925 22:15:12.219964 23631 net.cpp:425] cont_sentence_input_1_split <- cont_sentence
I0925 22:15:12.219969 23649 net.cpp:148] Top shape: 1 4096 (4096)
I0925 22:15:12.219981 23649 net.cpp:148] Top shape: 1 1 (1)
I0925 22:15:12.219993 23649 net.cpp:148] Top shape: 1 1 (1)
I0925 22:15:12.219995 23631 net.cpp:399] cont_sentence_input_1_split -> cont_sentence_input_1_split_0
I0925 22:15:12.219996 23655 net.cpp:399] cont_sentence_input_1_split -> cont_sentence_input_1_split_0
I0925 22:15:12.220005 23649 net.cpp:148] Top shape: 1 1 (1)
I0925 22:15:12.220015 23649 net.cpp:156] Memory required for data: 16396
I0925 22:15:12.220021 23655 net.cpp:399] cont_sentence_input_1_split -> cont_sentence_input_1_split_1
I0925 22:15:12.220027 23649 layer_factory.hpp:77] Creating layer cont_sentence_input_1_split
I0925 22:15:12.219966 23625 net.cpp:156] Memory required for data: 16396
I0925 22:15:12.220053 23625 layer_factory.hpp:77] Creating layer cont_sentence_input_1_split
I0925 22:15:12.220067 23631 net.cpp:399] cont_sentence_input_1_split -> cont_sentence_input_1_split_1
I0925 22:15:12.220074 23625 net.cpp:91] Creating Layer cont_sentence_input_1_split
I0925 22:15:12.220079 23621 net.cpp:141] Setting up input
I0925 22:15:12.220087 23625 net.cpp:425] cont_sentence_input_1_split <- cont_sentence
I0925 22:15:12.220094 23621 net.cpp:148] Top shape: 1 4096 (4096)
I0925 22:15:12.220095 23623 net.cpp:141] Setting up input
I0925 22:15:12.220103 23625 net.cpp:399] cont_sentence_input_1_split -> cont_sentence_input_1_split_0
I0925 22:15:12.220106 23621 net.cpp:148] Top shape: 1 1 (1)
I0925 22:15:12.220114 23623 net.cpp:148] Top shape: 1 4096 (4096)
I0925 22:15:12.220118 23621 net.cpp:148] Top shape: 1 1 (1)
I0925 22:15:12.220122 23623 net.cpp:148] Top shape: 1 1 (1)
I0925 22:15:12.220121 23625 net.cpp:399] cont_sentence_input_1_split -> cont_sentence_input_1_split_1
I0925 22:15:12.220130 23623 net.cpp:148] Top shape: 1 1 (1)
I0925 22:15:12.220129 23621 net.cpp:148] Top shape: 1 1 (1)
I0925 22:15:12.220147 23623 net.cpp:148] Top shape: 1 1 (1)
I0925 22:15:12.220154 23623 net.cpp:156] Memory required for data: 16396
I0925 22:15:12.220155 23621 net.cpp:156] Memory required for data: 16396
I0925 22:15:12.220163 23623 layer_factory.hpp:77] Creating layer cont_sentence_input_1_split
I0925 22:15:12.220168 23621 layer_factory.hpp:77] Creating layer cont_sentence_input_1_split
I0925 22:15:12.220180 23623 net.cpp:91] Creating Layer cont_sentence_input_1_split
…
I0925 22:15:12.220221 23623 net.cpp:399] cont_sentence_input_1_split -> cont_sentence_input_1_split_1
I0925 22:15:12.220242 23621 net.cpp:399] cont_sentence_input_1_split -> cont_sentence_input_1_split_1
I0925 22:15:12.220278 23649 net.cpp:91] Creating Layer cont_sentence_input_1_split
I0925 22:15:12.220290 23649 net.cpp:425] cont_sentence_input_1_split <- cont_sentence
I0925 22:15:12.220306 23649 net.cpp:399] cont_sentence_input_1_split -> cont_sentence_input_1_split_0
I0925 22:15:12.220319 23649 net.cpp:399] cont_sentence_input_1_split -> cont_sentence_input_1_split_1
I0925 22:15:12.220324 23655 net.cpp:141] Setting up cont_sentence_input_1_split
I0925 22:15:12.220342 23655 net.cpp:148] Top shape: 1 1 (1)
I0925 22:15:12.220353 23655 net.cpp:148] Top shape: 1 1 (1)
I0925 22:15:12.220362 23655 net.cpp:156] Memory required for data: 16404
I0925 22:15:12.220371 23655 layer_factory.hpp:77] Creating layer embed_encoder
I0925 22:15:12.220387 23625 net.cpp:141] Setting up cont_sentence_input_1_split
I0925 22:15:12.220407 23625 net.cpp:148] Top shape: 1 1 (1)
I0925 22:15:12.220425 23625 net.cpp:148] Top shape: 1 1 (1)
I0925 22:15:12.220435 23625 net.cpp:156] Memory required for data: 16404
I0925 22:15:12.220444 23625 layer_factory.hpp:77] Creating layer embed_encoder
I0925 22:15:12.220403 23655 net.cpp:91] Creating Layer embed_encoder
I0925 22:15:12.220463 23625 net.cpp:91] Creating Layer embed_encoder
I0925 22:15:12.220484 23625 net.cpp:425] embed_encoder <- frames_fc7
I0925 22:15:12.220482 23655 net.cpp:425] embed_encoder <- frames_fc7
I0925 22:15:12.220505 23655 net.cpp:399] embed_encoder -> embedded_in_frames
I0925 22:15:12.220507 23625 net.cpp:399] embed_encoder -> embedded_in_frames
I0925 22:15:12.220538 23649 net.cpp:141] Setting up cont_sentence_input_1_split
I0925 22:15:12.220558 23649 net.cpp:148] Top shape: 1 1 (1)
I0925 22:15:12.220571 23649 net.cpp:148] Top shape: 1 1 (1)
I0925 22:15:12.220571 23623 net.cpp:141] Setting up cont_sentence_input_1_split
I0925 22:15:12.220579 23649 net.cpp:156] Memory required for data: 16404
I0925 22:15:12.220588 23623 net.cpp:148] Top shape: 1 1 (1)
I0925 22:15:12.220590 23649 layer_factory.hpp:77] Creating layer embed_encoder
I0925 22:15:12.220599 23623 net.cpp:148] Top shape: 1 1 (1)
I0925 22:15:12.220609 23623 net.cpp:156] Memory required for data: 16404
I0925 22:15:12.220613 23649 net.cpp:91] Creating Layer embed_encoder
I0925 22:15:12.220621 23649 net.cpp:425] embed_encoder <- frames_fc7
I0925 22:15:12.220618 23621 net.cpp:141] Setting up cont_sentence_input_1_split
I0925 22:15:12.220638 23649 net.cpp:399] embed_encoder -> embedded_in_frames
I0925 22:15:12.220645 23621 net.cpp:148] Top shape: 1 1 (1)
I0925 22:15:12.220659 23621 net.cpp:148] Top shape: 1 1 (1)
I0925 22:15:12.220664 23621 net.cpp:156] Memory required for data: 16404
I0925 22:15:12.220666 23631 net.cpp:141] Setting up cont_sentence_input_1_split
I0925 22:15:12.220670 23621 layer_factory.hpp:77] Creating layer embed_encoder
I0925 22:15:12.220688 23631 net.cpp:148] Top shape: 1 1 (1)
I0925 22:15:12.220701 23631 net.cpp:148] Top shape: 1 1 (1)
I0925 22:15:12.220711 23631 net.cpp:156] Memory required for data: 16404
I0925 22:15:12.220712 23621 net.cpp:91] Creating Layer embed_encoder
I0925 22:15:12.220719 23631 layer_factory.hpp:77] Creating layer embed_encoder
I0925 22:15:12.220726 23621 net.cpp:425] embed_encoder <- frames_fc7
I0925 22:15:12.220743 23631 net.cpp:91] Creating Layer embed_encoder
I0925 22:15:12.220757 23631 net.cpp:425] embed_encoder <- frames_fc7
I0925 22:15:12.220759 23621 net.cpp:399] embed_encoder -> embedded_in_frames
I0925 22:15:12.220769 23631 net.cpp:399] embed_encoder -> embedded_in_frames
I0925 22:15:12.220618 23623 layer_factory.hpp:77] Creating layer embed_encoder
I0925 22:15:12.220801 23623 net.cpp:91] Creating Layer embed_encoder
I0925 22:15:12.220808 23623 net.cpp:425] embed_encoder <- frames_fc7
I0925 22:15:12.220820 23623 net.cpp:399] embed_encoder -> embedded_in_frames
I0925 22:15:12.259044 23655 net.cpp:141] Setting up embed_encoder
I0925 22:15:12.259104 23655 net.cpp:148] Top shape: 1 500 (500)
I0925 22:15:12.259114 23655 net.cpp:156] Memory required for data: 18404
I0925 22:15:12.259161 23655 layer_factory.hpp:77] Creating layer reshape_frames
I0925 22:15:12.259269 23655 net.cpp:91] Creating Layer reshape_frames
I0925 22:15:12.259305 23655 net.cpp:425] reshape_frames <- embedded_in_frames
I0925 22:15:12.262706 23649 net.cpp:141] Setting up embed_encoder
I0925 22:15:12.262739 23649 net.cpp:148] Top shape: 1 500 (500)
I0925 22:15:12.262749 23649 net.cpp:156] Memory required for data: 18404
I0925 22:15:12.262779 23649 layer_factory.hpp:77] Creating layer reshape_frames
I0925 22:15:12.262799 23649 net.cpp:91] Creating Layer reshape_frames
I0925 22:15:12.262810 23649 net.cpp:425] reshape_frames <- embedded_in_frames
I0925 22:15:12.262810 23625 net.cpp:141] Setting up embed_encoder
I0925 22:15:12.262825 23649 net.cpp:399] reshape_frames -> embedded_input_frames
I0925 22:15:12.262836 23625 net.cpp:148] Top shape: 1 500 (500)
I0925 22:15:12.262845 23625 net.cpp:156] Memory required for data: 18404
I0925 22:15:12.262869 23625 layer_factory.hpp:77] Creating layer reshape_frames
I0925 22:15:12.262887 23625 net.cpp:91] Creating Layer reshape_frames
I0925 22:15:12.262897 23625 net.cpp:425] reshape_frames <- embedded_in_frames
I0925 22:15:12.262912 23625 net.cpp:399] reshape_frames -> embedded_input_frames
I0925 22:15:12.262919 23649 net.cpp:141] Setting up reshape_frames
I0925 22:15:12.262935 23649 net.cpp:148] Top shape: 1 1 500 (500)
I0925 22:15:12.262943 23649 net.cpp:156] Memory required for data: 20404
I0925 22:15:12.262951 23649 layer_factory.hpp:77] Creating layer reshape_stage_indicator
I0925 22:15:12.262961 23655 net.cpp:399] reshape_frames -> embedded_input_frames
I0925 22:15:12.262972 23649 net.cpp:91] Creating Layer reshape_stage_indicator
I0925 22:15:12.262982 23649 net.cpp:425] reshape_stage_indicator <- stage_indicator
I0925 22:15:12.262996 23649 net.cpp:399] reshape_stage_indicator -> reshaped_stage_indicator
I0925 22:15:12.274755 23655 net.cpp:141] Setting up reshape_frames
I0925 22:15:12.274812 23649 net.cpp:141] Setting up reshape_stage_indicator
I0925 22:15:12.274822 23655 net.cpp:148] Top shape: 1 1 500 (500)
I0925 22:15:12.274850 23655 net.cpp:156] Memory required for data: 20404
I0925 22:15:12.274857 23649 net.cpp:148] Top shape: 1 1 1 (1)
I0925 22:15:12.274863 23655 layer_factory.hpp:77] Creating layer reshape_stage_indicator
I0925 22:15:12.274870 23649 net.cpp:156] Memory required for data: 20408
I0925 22:15:12.274884 23649 layer_factory.hpp:77] Creating layer embedding
I0925 22:15:12.274899 23655 net.cpp:91] Creating Layer reshape_stage_indicator
I0925 22:15:12.274910 23655 net.cpp:425] reshape_stage_indicator <- stage_indicator
I0925 22:15:12.274921 23649 net.cpp:91] Creating Layer embedding
I0925 22:15:12.274929 23655 net.cpp:399] reshape_stage_indicator -> reshaped_stage_indicator
I0925 22:15:12.274937 23649 net.cpp:425] embedding <- input_sentence
I0925 22:15:12.274960 23649 net.cpp:399] embedding -> embedded_input_sentence
I0925 22:15:12.274999 23655 net.cpp:141] Setting up reshape_stage_indicator
I0925 22:15:12.275012 23655 net.cpp:148] Top shape: 1 1 1 (1)
I0925 22:15:12.275017 23655 net.cpp:156] Memory required for data: 20408
I0925 22:15:12.275022 23655 layer_factory.hpp:77] Creating layer embedding
I0925 22:15:12.275035 23655 net.cpp:91] Creating Layer embedding
I0925 22:15:12.275041 23655 net.cpp:425] embedding <- input_sentence
I0925 22:15:12.275050 23655 net.cpp:399] embedding -> embedded_input_sentence
I0925 22:15:12.327075 23625 net.cpp:141] Setting up reshape_frames
I0925 22:15:12.327128 23625 net.cpp:148] Top shape: 1 1 500 (500)
I0925 22:15:12.327136 23625 net.cpp:156] Memory required for data: 20404
I0925 22:15:12.327145 23625 layer_factory.hpp:77] Creating layer reshape_stage_indicator
I0925 22:15:12.327180 23625 net.cpp:91] Creating Layer reshape_stage_indicator
I0925 22:15:12.327190 23625 net.cpp:425] reshape_stage_indicator <- stage_indicator
I0925 22:15:12.327204 23625 net.cpp:399] reshape_stage_indicator -> reshaped_stage_indicator
I0925 22:15:12.327386 23631 net.cpp:141] Setting up embed_encoder
I0925 22:15:12.327428 23631 net.cpp:148] Top shape: 1 500 (500)
I0925 22:15:12.327435 23631 net.cpp:156] Memory required for data: 18404
I0925 22:15:12.327457 23631 layer_factory.hpp:77] Creating layer reshape_frames
I0925 22:15:12.327477 23631 net.cpp:91] Creating Layer reshape_frames
I0925 22:15:12.327486 23631 net.cpp:425] reshape_frames <- embedded_in_frames
I0925 22:15:12.327497 23631 net.cpp:399] reshape_frames -> embedded_input_frames
I0925 22:15:12.374174 23623 net.cpp:141] Setting up embed_encoder
I0925 22:15:12.374263 23623 net.cpp:148] Top shape: 1 500 (500)
I0925 22:15:12.374250 23625 net.cpp:141] Setting up reshape_stage_indicator
I0925 22:15:12.374284 23623 net.cpp:156] Memory required for data: 18404
I0925 22:15:12.374315 23625 net.cpp:148] Top shape: 1 1 1 (1)
I0925 22:15:12.374316 23631 net.cpp:141] Setting up reshape_frames
I0925 22:15:12.374323 23625 net.cpp:156] Memory required for data: 20408
I0925 22:15:12.374339 23631 net.cpp:148] Top shape: 1 1 500 (500)
I0925 22:15:12.374346 23625 layer_factory.hpp:77] Creating layer embedding
I0925 22:15:12.374351 23631 net.cpp:156] Memory required for data: 20404
I0925 22:15:12.374344 23623 layer_factory.hpp:77] Creating layer reshape_frames
I0925 22:15:12.374362 23631 layer_factory.hpp:77] Creating layer reshape_stage_indicator
I0925 22:15:12.374364 23621 net.cpp:141] Setting up embed_encoder
I0925 22:15:12.374379 23625 net.cpp:91] Creating Layer embedding
I0925 22:15:12.374389 23625 net.cpp:425] embedding <- input_sentence
I0925 22:15:12.374388 23623 net.cpp:91] Creating Layer reshape_frames
I0925 22:15:12.374390 23621 net.cpp:148] Top shape: 1 500 (500)
I0925 22:15:12.374389 23631 net.cpp:91] Creating Layer reshape_stage_indicator
I0925 22:15:12.374403 23621 net.cpp:156] Memory required for data: 18404
I0925 22:15:12.374408 23623 net.cpp:425] reshape_frames <- embedded_in_frames
I0925 22:15:12.374410 23631 net.cpp:425] reshape_stage_indicator <- stage_indicator
I0925 22:15:12.374415 23625 net.cpp:399] embedding -> embedded_input_sentence
I0925 22:15:12.374431 23623 net.cpp:399] reshape_frames -> embedded_input_frames
I0925 22:15:12.374434 23631 net.cpp:399] reshape_stage_indicator -> reshaped_stage_indicator
I0925 22:15:12.374446 23621 layer_factory.hpp:77] Creating layer reshape_frames
I0925 22:15:12.374466 23621 net.cpp:91] Creating Layer reshape_frames
I0925 22:15:12.374477 23621 net.cpp:425] reshape_frames <- embedded_in_frames
I0925 22:15:12.374492 23621 net.cpp:399] reshape_frames -> embedded_input_frames
I0925 22:15:12.377430 23623 net.cpp:141] Setting up reshape_frames
I0925 22:15:12.377511 23621 net.cpp:141] Setting up reshape_frames
I0925 22:15:12.377444 23631 net.cpp:141] Setting up reshape_stage_indicator
I0925 22:15:12.377537 23621 net.cpp:148] Top shape: 1 1 500 (500)
I0925 22:15:12.377559 23621 net.cpp:156] Memory required for data: 20404
I0925 22:15:12.377563 23631 net.cpp:148] Top shape: 1 1 1 (1)
I0925 22:15:12.377573 23621 layer_factory.hpp:77] Creating layer reshape_stage_indicator
I0925 22:15:12.377600 23631 net.cpp:156] Memory required for data: 20408
I0925 22:15:12.377614 23631 layer_factory.hpp:77] Creating layer embedding
I0925 22:15:12.377619 23621 net.cpp:91] Creating Layer reshape_stage_indicator
I0925 22:15:12.377627 23621 net.cpp:425] reshape_stage_indicator <- stage_indicator
I0925 22:15:12.377636 23631 net.cpp:91] Creating Layer embedding
I0925 22:15:12.377641 23621 net.cpp:399] reshape_stage_indicator -> reshaped_stage_indicator
I0925 22:15:12.377648 23631 net.cpp:425] embedding <- input_sentence
I0925 22:15:12.377666 23631 net.cpp:399] embedding -> embedded_input_sentence
I0925 22:15:12.377703 23623 net.cpp:148] Top shape: 1 1 500 (500)
I0925 22:15:12.377718 23623 net.cpp:156] Memory required for data: 20404
I0925 22:15:12.377729 23623 layer_factory.hpp:77] Creating layer reshape_stage_indicator
I0925 22:15:12.377773 23623 net.cpp:91] Creating Layer reshape_stage_indicator
I0925 22:15:12.377787 23623 net.cpp:425] reshape_stage_indicator <- stage_indicator
I0925 22:15:12.377804 23623 net.cpp:399] reshape_stage_indicator -> reshaped_stage_indicator
I0925 22:15:12.427012 23621 net.cpp:141] Setting up reshape_stage_indicator
I0925 22:15:12.427076 23621 net.cpp:148] Top shape: 1 1 1 (1)
I0925 22:15:12.427083 23623 net.cpp:141] Setting up reshape_stage_indicator
I0925 22:15:12.427089 23621 net.cpp:156] Memory required for data: 20408
I0925 22:15:12.427116 23623 net.cpp:148] Top shape: 1 1 1 (1)
I0925 22:15:12.427124 23623 net.cpp:156] Memory required for data: 20408
I0925 22:15:12.427124 23621 layer_factory.hpp:77] Creating layer embedding
I0925 22:15:12.427130 23623 layer_factory.hpp:77] Creating layer embedding
I0925 22:15:12.427153 23621 net.cpp:91] Creating Layer embedding
I0925 22:15:12.427151 23623 net.cpp:91] Creating Layer embedding
I0925 22:15:12.427167 23621 net.cpp:425] embedding <- input_sentence
I0925 22:15:12.427173 23623 net.cpp:425] embedding <- input_sentence
I0925 22:15:12.427186 23623 net.cpp:399] embedding -> embedded_input_sentence
I0925 22:15:12.427188 23621 net.cpp:399] embedding -> embedded_input_sentence
I0925 22:15:12.640750 23649 net.cpp:141] Setting up embedding
I0925 22:15:12.640820 23649 net.cpp:148] Top shape: 1 1 500 (500)
I0925 22:15:12.640833 23649 net.cpp:156] Memory required for data: 22408
I0925 22:15:12.640861 23649 layer_factory.hpp:77] Creating layer lstm1
I0925 22:15:12.640905 23649 net.cpp:91] Creating Layer lstm1
I0925 22:15:12.640918 23649 net.cpp:425] lstm1 <- embedded_input_frames
I0925 22:15:12.640933 23649 net.cpp:425] lstm1 <- cont_sentence_input_1_split_0
I0925 22:15:12.640952 23649 net.cpp:399] lstm1 -> lstm1
I0925 22:15:12.641000 23649 recurrent_layer.cpp:20] Initializing recurrent layer: assuming input batch contains 1 timesteps of 1 independent streams.
I0925 22:15:12.641621 23649 net.cpp:49] Initializing net from parameters: 
layer {
  name: "lstm1_"
  type: "Input"
  top: "x"
  top: "cont"
  input_param {
    shape {
      dim: 1
      dim: 1
      dim: 500
    }
    shape {
      dim: 1
      dim: 1
    }
  }
}
layer {
  name: "lstm1_"
  type: "Input"
  top: "c_0"
  top: "h_0"
  input_param {
    shape {
      dim: 1
      dim: 1
      dim: 1000
    }
    shape {
      dim: 1
      dim: 1
      dim: 1000
    }
  }
}
layer {
  name: "lstm1_cont_slice"
  type: "Slice"
  bottom: "cont"
  top: "cont_1"
  slice_param {
    axis: 0
  }
}
layer {
  name: "lstm1_x_transform"
  type: "InnerProduct"
  bottom: "x"
  top: "W_xc_x"
  param {
    name: "W_xc"
  }
  param {
    name: "b_c"
  }
  propagate_down: true
  inner_product_param {
    num_output: 4000
    bias_term: true
    weight_filler {
      type: "uniform"
      min: -0.08
      max: 0.08
    }
    bias_filler {
      type: "constant"
      value: 0
    }
    axis: 2
  }
}
layer {
  name: "lstm1_W_xc_x_slice"
  type: "Slice"
  bottom: "W_xc_x"
  top: "W_xc_x_1"
  slice_param {
    axis: 0
  }
}
layer {
  name: "lstm1_h_conted_0"
  type: "Scale"
  bottom: "h_0"
  bottom: "cont_1"
  top: "h_conted_0"
  scale_param {
    axis: 0
  }
}
layer {
  name: "lstm1_transform_1"
  type: "InnerProduct"
  bottom: "h_conted_0"
  top: "W_hc_h_0"
  param {
    name: "W_hc"
  }
  inner_product_param {
    num_output: 4000
    bias_term: false
    weight_filler {
      type: "uniform"
      min: -0.08
      max: 0.08
    }
    axis: 2
  }
}
layer {
  name: "lstm1_gate_input_1"
  type: "Eltwise"
  bottom: "W_hc_h_0"
  bottom: "W_xc_x_1"
  top: "gate_input_1"
  eltwise_param {
    operation: SUM
  }
}
layer {
  name: "lstm1_unit_1"
  type: "LSTMUnit"
  bottom: "c_0"
  bottom: "gate_input_1"
  bottom: "cont_1"
  top: "c_1"
  top: "h_1"
}
layer {
  name: "lstm1_"
  type: "Split"
  bottom: "c_1"
  top: "c_T"
}
layer {
  name: "lstm1_h_concat"
  type: "Concat"
  bottom: "h_1"
  top: "h"
  concat_param {
    axis: 0
  }
}
layer {
  name: "h_pseudoloss"
  type: "Reduction"
  bottom: "h"
  top: "h_pseudoloss"
  loss_weight: 1
}
I0925 22:15:12.641777 23649 layer_factory.hpp:77] Creating layer lstm1_
I0925 22:15:12.641799 23649 net.cpp:91] Creating Layer lstm1_
I0925 22:15:12.641813 23649 net.cpp:399] lstm1_ -> x
I0925 22:15:12.641836 23649 net.cpp:399] lstm1_ -> cont
I0925 22:15:12.646621 23649 net.cpp:141] Setting up lstm1_
I0925 22:15:12.646668 23649 net.cpp:148] Top shape: 1 1 500 (500)
I0925 22:15:12.646682 23649 net.cpp:148] Top shape: 1 1 (1)
I0925 22:15:12.646688 23649 net.cpp:156] Memory required for data: 2004
I0925 22:15:12.646703 23649 layer_factory.hpp:77] Creating layer lstm1_
I0925 22:15:12.646733 23649 net.cpp:91] Creating Layer lstm1_
I0925 22:15:12.646749 23649 net.cpp:399] lstm1_ -> c_0
I0925 22:15:12.646775 23649 net.cpp:399] lstm1_ -> h_0
I0925 22:15:12.652251 23649 net.cpp:141] Setting up lstm1_
I0925 22:15:12.652303 23649 net.cpp:148] Top shape: 1 1 1000 (1000)
I0925 22:15:12.652317 23649 net.cpp:148] Top shape: 1 1 1000 (1000)
I0925 22:15:12.652323 23649 net.cpp:156] Memory required for data: 10004
I0925 22:15:12.652334 23649 layer_factory.hpp:77] Creating layer lstm1_cont_slice
I0925 22:15:12.652359 23649 net.cpp:91] Creating Layer lstm1_cont_slice
I0925 22:15:12.652370 23649 net.cpp:425] lstm1_cont_slice <- cont
I0925 22:15:12.652386 23649 net.cpp:399] lstm1_cont_slice -> cont_1
I0925 22:15:12.652549 23649 net.cpp:141] Setting up lstm1_cont_slice
I0925 22:15:12.652570 23649 net.cpp:148] Top shape: 1 1 (1)
I0925 22:15:12.652580 23649 net.cpp:156] Memory required for data: 10008
I0925 22:15:12.652587 23649 layer_factory.hpp:77] Creating layer cont_1_lstm1_cont_slice_0_split
I0925 22:15:12.652601 23649 net.cpp:91] Creating Layer cont_1_lstm1_cont_slice_0_split
I0925 22:15:12.652612 23649 net.cpp:425] cont_1_lstm1_cont_slice_0_split <- cont_1
I0925 22:15:12.652629 23649 net.cpp:399] cont_1_lstm1_cont_slice_0_split -> cont_1_lstm1_cont_slice_0_split_0
I0925 22:15:12.652644 23649 net.cpp:399] cont_1_lstm1_cont_slice_0_split -> cont_1_lstm1_cont_slice_0_split_1
I0925 22:15:12.655212 23649 net.cpp:141] Setting up cont_1_lstm1_cont_slice_0_split
I0925 22:15:12.655243 23649 net.cpp:148] Top shape: 1 1 (1)
I0925 22:15:12.655254 23649 net.cpp:148] Top shape: 1 1 (1)
I0925 22:15:12.655268 23649 net.cpp:156] Memory required for data: 10016
I0925 22:15:12.655277 23649 layer_factory.hpp:77] Creating layer lstm1_x_transform
I0925 22:15:12.655306 23649 net.cpp:91] Creating Layer lstm1_x_transform
I0925 22:15:12.655318 23649 net.cpp:425] lstm1_x_transform <- x
I0925 22:15:12.655336 23649 net.cpp:399] lstm1_x_transform -> W_xc_x
I0925 22:15:12.678736 23655 net.cpp:141] Setting up embedding
I0925 22:15:12.678798 23655 net.cpp:148] Top shape: 1 1 500 (500)
I0925 22:15:12.678808 23655 net.cpp:156] Memory required for data: 22408
I0925 22:15:12.678836 23655 layer_factory.hpp:77] Creating layer lstm1
I0925 22:15:12.678864 23655 net.cpp:91] Creating Layer lstm1
I0925 22:15:12.678876 23655 net.cpp:425] lstm1 <- embedded_input_frames
I0925 22:15:12.678889 23655 net.cpp:425] lstm1 <- cont_sentence_input_1_split_0
I0925 22:15:12.678917 23655 net.cpp:399] lstm1 -> lstm1
I0925 22:15:12.678946 23655 recurrent_layer.cpp:20] Initializing recurrent layer: assuming input batch contains 1 timesteps of 1 independent streams.
I0925 22:15:12.679468 23655 net.cpp:49] Initializing net from parameters: 
layer {
  name: "lstm1_"
  type: "Input"
  top: "x"
  top: "cont"
  input_param {
    shape {
      dim: 1
      dim: 1
      dim: 500
    }
    shape {
      dim: 1
      dim: 1
    }
  }
}
layer {
  name: "lstm1_"
  type: "Input"
  top: "c_0"
  top: "h_0"
  input_param {
    shape {
      dim: 1
      dim: 1
      dim: 1000
    }
    shape {
      dim: 1
      dim: 1
      dim: 1000
    }
  }
}
layer {
  name: "lstm1_cont_slice"
  type: "Slice"
  bottom: "cont"
  top: "cont_1"
  slice_param {
    axis: 0
  }
}
layer {
  name: "lstm1_x_transform"
  type: "InnerProduct"
  bottom: "x"
  top: "W_xc_x"
  param {
    name: "W_xc"
  }
  param {
    name: "b_c"
  }
  propagate_down: true
  inner_product_param {
    num_output: 4000
    bias_term: true
    weight_filler {
      type: "uniform"
      min: -0.08
      max: 0.08
    }
    bias_filler {
      type: "constant"
      value: 0
    }
    axis: 2
  }
}
layer {
  name: "lstm1_W_xc_x_slice"
  type: "Slice"
  bottom: "W_xc_x"
  top: "W_xc_x_1"
  slice_param {
    axis: 0
  }
}
layer {
  name: "lstm1_h_conted_0"
  type: "Scale"
  bottom: "h_0"
  bottom: "cont_1"
  top: "h_conted_0"
  scale_param {
    axis: 0
  }
}
layer {
  name: "lstm1_transform_1"
  type: "InnerProduct"
  bottom: "h_conted_0"
  top: "W_hc_h_0"
  param {
    name: "W_hc"
  }
  inner_product_param {
    num_output: 4000
    bias_term: false
    weight_filler {
      type: "uniform"
      min: -0.08
      max: 0.08
    }
    axis: 2
  }
}
layer {
  name: "lstm1_gate_input_1"
  type: "Eltwise"
  bottom: "W_hc_h_0"
  bottom: "W_xc_x_1"
  top: "gate_input_1"
  eltwise_param {
    operation: SUM
  }
}
layer {
  name: "lstm1_unit_1"
  type: "LSTMUnit"
  bottom: "c_0"
  bottom: "gate_input_1"
  bottom: "cont_1"
  top: "c_1"
  top: "h_1"
}
layer {
  name: "lstm1_"
  type: "Split"
  bottom: "c_1"
  top: "c_T"
}
layer {
  name: "lstm1_h_concat"
  type: "Concat"
  bottom: "h_1"
  top: "h"
  concat_param {
    axis: 0
  }
}
layer {
  name: "h_pseudoloss"
  type: "Reduction"
  bottom: "h"
  top: "h_pseudoloss"
  loss_weight: 1
}
I0925 22:15:12.679628 23655 layer_factory.hpp:77] Creating layer lstm1_
I0925 22:15:12.679651 23655 net.cpp:91] Creating Layer lstm1_
I0925 22:15:12.679662 23655 net.cpp:399] lstm1_ -> x
I0925 22:15:12.679682 23655 net.cpp:399] lstm1_ -> cont
I0925 22:15:12.694042 23625 net.cpp:141] Setting up embedding
I0925 22:15:12.694082 23655 net.cpp:141] Setting up lstm1_
I0925 22:15:12.694100 23625 net.cpp:148] Top shape: 1 1 500 (500)
I0925 22:15:12.694131 23655 net.cpp:148] Top shape: 1 1 500 (500)
I0925 22:15:12.694133 23625 net.cpp:156] Memory required for data: 22408
I0925 22:15:12.694141 23655 net.cpp:148] Top shape: 1 1 (1)
I0925 22:15:12.694149 23655 net.cpp:156] Memory required for data: 2004
I0925 22:15:12.694160 23655 layer_factory.hpp:77] Creating layer lstm1_
I0925 22:15:12.694162 23625 layer_factory.hpp:77] Creating layer lstm1
I0925 22:15:12.694186 23655 net.cpp:91] Creating Layer lstm1_
I0925 22:15:12.694192 23625 net.cpp:91] Creating Layer lstm1
I0925 22:15:12.694206 23625 net.cpp:425] lstm1 <- embedded_input_frames
I0925 22:15:12.694219 23625 net.cpp:425] lstm1 <- cont_sentence_input_1_split_0
I0925 22:15:12.694233 23625 net.cpp:399] lstm1 -> lstm1
I0925 22:15:12.694260 23625 recurrent_layer.cpp:20] Initializing recurrent layer: assuming input batch contains 1 timesteps of 1 independent streams.
I0925 22:15:12.694774 23655 net.cpp:399] lstm1_ -> c_0
I0925 22:15:12.694813 23655 net.cpp:399] lstm1_ -> h_0
I0925 22:15:12.695196 23625 net.cpp:49] Initializing net from parameters: 
layer {
  name: "lstm1_"
  type: "Input"
  top: "x"
  top: "cont"
  input_param {
    shape {
      dim: 1
      dim: 1
      dim: 500
    }
    shape {
      dim: 1
      dim: 1
    }
  }
}
layer {
  name: "lstm1_"
  type: "Input"
  top: "c_0"
  top: "h_0"
  input_param {
    shape {
      dim: 1
      dim: 1
      dim: 1000
    }
    shape {
      dim: 1
      dim: 1
      dim: 1000
    }
  }
}
layer {
  name: "lstm1_cont_slice"
  type: "Slice"
  bottom: "cont"
  top: "cont_1"
  slice_param {
    axis: 0
  }
}
layer {
  name: "lstm1_x_transform"
  type: "InnerProduct"
  bottom: "x"
  top: "W_xc_x"
  param {
    name: "W_xc"
  }
  param {
    name: "b_c"
  }
  propagate_down: true
  inner_product_param {
    num_output: 4000
    bias_term: true
    weight_filler {
      type: "uniform"
      min: -0.08
      max: 0.08
    }
    bias_filler {
      type: "constant"
      value: 0
    }
    axis: 2
  }
}
layer {
  name: "lstm1_W_xc_x_slice"
  type: "Slice"
  bottom: "W_xc_x"
  top: "W_xc_x_1"
  slice_param {
    axis: 0
  }
}
layer {
  name: "lstm1_h_conted_0"
  type: "Scale"
  bottom: "h_0"
  bottom: "cont_1"
  top: "h_conted_0"
  scale_param {
    axis: 0
  }
}
layer {
  name: "lstm1_transform_1"
  type: "InnerProduct"
  bottom: "h_conted_0"
  top: "W_hc_h_0"
  param {
    name: "W_hc"
  }
  inner_product_param {
    num_output: 4000
    bias_term: false
    weight_filler {
      type: "uniform"
      min: -0.08
      max: 0.08
    }
    axis: 2
  }
}
layer {
  name: "lstm1_gate_input_1"
  type: "Eltwise"
  bottom: "W_hc_h_0"
  bottom: "W_xc_x_1"
  top: "gate_input_1"
  eltwise_param {
    operation: SUM
  }
}
layer {
  name: "lstm1_unit_1"
  type: "LSTMUnit"
  bottom: "c_0"
  bottom: "gate_input_1"
  bottom: "cont_1"
  top: "c_1"
  top: "h_1"
}
layer {
  name: "lstm1_"
  type: "Split"
  bottom: "c_1"
  top: "c_T"
}
layer {
  name: "lstm1_h_concat"
  type: "Concat"
  bottom: "h_1"
  top: "h"
  concat_param {
    axis: 0
  }
}
layer {
  name: "h_pseudoloss"
  type: "Reduction"
  bottom: "h"
  top: "h_pseudoloss"
  loss_weight: 1
}
I0925 22:15:12.695315 23649 net.cpp:141] Setting up lstm1_x_transform
I0925 22:15:12.695339 23649 net.cpp:148] Top shape: 1 1 4000 (4000)
I0925 22:15:12.695349 23649 net.cpp:156] Memory required for data: 26016
I0925 22:15:12.695350 23625 layer_factory.hpp:77] Creating layer lstm1_
I0925 22:15:12.695371 23625 net.cpp:91] Creating Layer lstm1_
I0925 22:15:12.695371 23655 net.cpp:141] Setting up lstm1_
I0925 22:15:12.695371 23649 layer_factory.hpp:77] Creating layer lstm1_W_xc_x_slice
I0925 22:15:12.695384 23625 net.cpp:399] lstm1_ -> x
I0925 22:15:12.695410 23655 net.cpp:148] Top shape: 1 1 1000 (1000)
I0925 22:15:12.695413 23649 net.cpp:91] Creating Layer lstm1_W_xc_x_slice
I0925 22:15:12.695418 23655 net.cpp:148] Top shape: 1 1 1000 (1000)
I0925 22:15:12.695432 23649 net.cpp:425] lstm1_W_xc_x_slice <- W_xc_x
I0925 22:15:12.695427 23625 net.cpp:399] lstm1_ -> cont
I0925 22:15:12.695447 23649 net.cpp:399] lstm1_W_xc_x_slice -> W_xc_x_1
I0925 22:15:12.695439 23655 net.cpp:156] Memory required for data: 10004
I0925 22:15:12.695461 23655 layer_factory.hpp:77] Creating layer lstm1_cont_slice
I0925 22:15:12.695484 23655 net.cpp:91] Creating Layer lstm1_cont_slice
I0925 22:15:12.695492 23655 net.cpp:425] lstm1_cont_slice <- cont
I0925 22:15:12.695502 23655 net.cpp:399] lstm1_cont_slice -> cont_1
I0925 22:15:12.695569 23655 net.cpp:141] Setting up lstm1_cont_slice
I0925 22:15:12.695580 23655 net.cpp:148] Top shape: 1 1 (1)
I0925 22:15:12.695585 23655 net.cpp:156] Memory required for data: 10008
I0925 22:15:12.695591 23655 layer_factory.hpp:77] Creating layer cont_1_lstm1_cont_slice_0_split
I0925 22:15:12.695600 23655 net.cpp:91] Creating Layer cont_1_lstm1_cont_slice_0_split
I0925 22:15:12.695606 23655 net.cpp:425] cont_1_lstm1_cont_slice_0_split <- cont_1
I0925 22:15:12.695619 23655 net.cpp:399] cont_1_lstm1_cont_slice_0_split -> cont_1_lstm1_cont_slice_0_split_0
I0925 22:15:12.695631 23655 net.cpp:399] cont_1_lstm1_cont_slice_0_split -> cont_1_lstm1_cont_slice_0_split_1
I0925 22:15:12.695636 23649 net.cpp:141] Setting up lstm1_W_xc_x_slice
I0925 22:15:12.695653 23649 net.cpp:148] Top shape: 1 1 4000 (4000)
I0925 22:15:12.695662 23649 net.cpp:156] Memory required for data: 42016
I0925 22:15:12.695670 23649 layer_factory.hpp:77] Creating layer lstm1_h_conted_0
I0925 22:15:12.695674 23625 net.cpp:141] Setting up lstm1_
I0925 22:15:12.695693 23625 net.cpp:148] Top shape: 1 1 500 (500)
I0925 22:15:12.695699 23649 net.cpp:91] Creating Layer lstm1_h_conted_0
I0925 22:15:12.695705 23625 net.cpp:148] Top shape: 1 1 (1)
I0925 22:15:12.695709 23649 net.cpp:425] lstm1_h_conted_0 <- h_0
I0925 22:15:12.695713 23625 net.cpp:156] Memory required for data: 2004
I0925 22:15:12.695720 23649 net.cpp:425] lstm1_h_conted_0 <- cont_1_lstm1_cont_slice_0_split_0
I0925 22:15:12.695750 23649 net.cpp:399] lstm1_h_conted_0 -> h_conted_0
I0925 22:15:12.695755 23655 net.cpp:141] Setting up cont_1_lstm1_cont_slice_0_split
I0925 22:15:12.695766 23655 net.cpp:148] Top shape: 1 1 (1)
I0925 22:15:12.695773 23655 net.cpp:148] Top shape: 1 1 (1)
I0925 22:15:12.695778 23655 net.cpp:156] Memory required for data: 10016
I0925 22:15:12.695785 23655 layer_factory.hpp:77] Creating layer lstm1_x_transform
I0925 22:15:12.695806 23655 net.cpp:91] Creating Layer lstm1_x_transform
I0925 22:15:12.695813 23655 net.cpp:425] lstm1_x_transform <- x
I0925 22:15:12.695823 23655 net.cpp:399] lstm1_x_transform -> W_xc_x
I0925 22:15:12.695722 23625 layer_factory.hpp:77] Creating layer lstm1_
I0925 22:15:12.697095 23625 net.cpp:91] Creating Layer lstm1_
I0925 22:15:12.697111 23625 net.cpp:399] lstm1_ -> c_0
I0925 22:15:12.697134 23625 net.cpp:399] lstm1_ -> h_0
I0925 22:15:12.701344 23649 net.cpp:141] Setting up lstm1_h_conted_0
I0925 22:15:12.701395 23649 net.cpp:148] Top shape: 1 1 1000 (1000)
I0925 22:15:12.701405 23649 net.cpp:156] Memory required for data: 46016
I0925 22:15:12.701417 23649 layer_factory.hpp:77] Creating layer lstm1_transform_1
I0925 22:15:12.701449 23649 net.cpp:91] Creating Layer lstm1_transform_1
I0925 22:15:12.701462 23649 net.cpp:425] lstm1_transform_1 <- h_conted_0
I0925 22:15:12.701481 23649 net.cpp:399] lstm1_transform_1 -> W_hc_h_0
I0925 22:15:12.713146 23625 net.cpp:141] Setting up lstm1_
I0925 22:15:12.713210 23625 net.cpp:148] Top shape: 1 1 1000 (1000)
I0925 22:15:12.713225 23625 net.cpp:148] Top shape: 1 1 1000 (1000)
I0925 22:15:12.713232 23625 net.cpp:156] Memory required for data: 10004
I0925 22:15:12.713246 23625 layer_factory.hpp:77] Creating layer lstm1_cont_slice
I0925 22:15:12.713280 23625 net.cpp:91] Creating Layer lstm1_cont_slice
I0925 22:15:12.713292 23625 net.cpp:425] lstm1_cont_slice <- cont
I0925 22:15:12.713310 23625 net.cpp:399] lstm1_cont_slice -> cont_1
I0925 22:15:12.713392 23625 net.cpp:141] Setting up lstm1_cont_slice
I0925 22:15:12.713409 23625 net.cpp:148] Top shape: 1 1 (1)
I0925 22:15:12.713418 23625 net.cpp:156] Memory required for data: 10008
I0925 22:15:12.713426 23625 layer_factory.hpp:77] Creating layer cont_1_lstm1_cont_slice_0_split
I0925 22:15:12.713443 23625 net.cpp:91] Creating Layer cont_1_lstm1_cont_slice_0_split
I0925 22:15:12.713451 23625 net.cpp:425] cont_1_lstm1_cont_slice_0_split <- cont_1
I0925 22:15:12.713467 23625 net.cpp:399] cont_1_lstm1_cont_slice_0_split -> cont_1_lstm1_cont_slice_0_split_0
I0925 22:15:12.713557 23625 net.cpp:399] cont_1_lstm1_cont_slice_0_split -> cont_1_lstm1_cont_slice_0_split_1
I0925 22:15:12.713651 23625 net.cpp:141] Setting up cont_1_lstm1_cont_slice_0_split
I0925 22:15:12.713668 23625 net.cpp:148] Top shape: 1 1 (1)
I0925 22:15:12.713680 23625 net.cpp:148] Top shape: 1 1 (1)
I0925 22:15:12.713687 23625 net.cpp:156] Memory required for data: 10016
I0925 22:15:12.713696 23625 layer_factory.hpp:77] Creating layer lstm1_x_transform
I0925 22:15:12.713723 23625 net.cpp:91] Creating Layer lstm1_x_transform
I0925 22:15:12.713733 23625 net.cpp:425] lstm1_x_transform <- x
I0925 22:15:12.713752 23625 net.cpp:399] lstm1_x_transform -> W_xc_x
I0925 22:15:12.728189 23655 net.cpp:141] Setting up lstm1_x_transform
I0925 22:15:12.728250 23655 net.cpp:148] Top shape: 1 1 4000 (4000)
I0925 22:15:12.728261 23655 net.cpp:156] Memory required for data: 26016
I0925 22:15:12.728294 23655 layer_factory.hpp:77] Creating layer lstm1_W_xc_x_slice
I0925 22:15:12.728329 23655 net.cpp:91] Creating Layer lstm1_W_xc_x_slice
I0925 22:15:12.728340 23655 net.cpp:425] lstm1_W_xc_x_slice <- W_xc_x
I0925 22:15:12.728358 23655 net.cpp:399] lstm1_W_xc_x_slice -> W_xc_x_1
I0925 22:15:12.728430 23655 net.cpp:141] Setting up lstm1_W_xc_x_slice
I0925 22:15:12.728446 23655 net.cpp:148] Top shape: 1 1 4000 (4000)
I0925 22:15:12.728454 23655 net.cpp:156] Memory required for data: 42016
I0925 22:15:12.728463 23655 layer_factory.hpp:77] Creating layer lstm1_h_conted_0
I0925 22:15:12.728487 23655 net.cpp:91] Creating Layer lstm1_h_conted_0
I0925 22:15:12.728497 23655 net.cpp:425] lstm1_h_conted_0 <- h_0
I0925 22:15:12.728507 23655 net.cpp:425] lstm1_h_conted_0 <- cont_1_lstm1_cont_slice_0_split_0
I0925 22:15:12.728520 23655 net.cpp:399] lstm1_h_conted_0 -> h_conted_0
I0925 22:15:12.729761 23655 net.cpp:141] Setting up lstm1_h_conted_0
I0925 22:15:12.729779 23655 net.cpp:148] Top shape: 1 1 1000 (1000)
I0925 22:15:12.729789 23655 net.cpp:156] Memory required for data: 46016
I0925 22:15:12.729797 23655 layer_factory.hpp:77] Creating layer lstm1_transform_1
I0925 22:15:12.729822 23655 net.cpp:91] Creating Layer lstm1_transform_1
I0925 22:15:12.729832 23655 net.cpp:425] lstm1_transform_1 <- h_conted_0
I0925 22:15:12.729847 23655 net.cpp:399] lstm1_transform_1 -> W_hc_h_0
I0925 22:15:12.744217 23631 net.cpp:141] Setting up embedding
I0925 22:15:12.744279 23631 net.cpp:148] Top shape: 1 1 500 (500)
I0925 22:15:12.744289 23631 net.cpp:156] Memory required for data: 22408
I0925 22:15:12.744318 23631 layer_factory.hpp:77] Creating layer lstm1
I0925 22:15:12.744349 23631 net.cpp:91] Creating Layer lstm1
I0925 22:15:12.744360 23631 net.cpp:425] lstm1 <- embedded_input_frames
I0925 22:15:12.744374 23631 net.cpp:425] lstm1 <- cont_sentence_input_1_split_0
I0925 22:15:12.744387 23631 net.cpp:399] lstm1 -> lstm1
I0925 22:15:12.744415 23631 recurrent_layer.cpp:20] Initializing recurrent layer: assuming input batch contains 1 timesteps of 1 independent streams.
I0925 22:15:12.744875 23631 net.cpp:49] Initializing net from parameters: 
layer {
  name: "lstm1_"
  type: "Input"
  top: "x"
  top: "cont"
  input_param {
    shape {
      dim: 1
      dim: 1
      dim: 500
    }
    shape {
      dim: 1
      dim: 1
    }
  }
}
layer {
  name: "lstm1_"
  type: "Input"
  top: "c_0"
  top: "h_0"
  input_param {
    shape {
      dim: 1
      dim: 1
      dim: 1000
    }
    shape {
      dim: 1
      dim: 1
      dim: 1000
    }
  }
}
layer {
  name: "lstm1_cont_slice"
  type: "Slice"
  bottom: "cont"
  top: "cont_1"
  slice_param {
    axis: 0
  }
}
layer {
  name: "lstm1_x_transform"
  type: "InnerProduct"
  bottom: "x"
  top: "W_xc_x"
  param {
    name: "W_xc"
  }
  param {
    name: "b_c"
  }
  propagate_down: true
  inner_product_param {
    num_output: 4000
    bias_term: true
    weight_filler {
      type: "uniform"
      min: -0.08
      max: 0.08
    }
    bias_filler {
      type: "constant"
      value: 0
    }
    axis: 2
  }
}
layer {
  name: "lstm1_W_xc_x_slice"
  type: "Slice"
  bottom: "W_xc_x"
  top: "W_xc_x_1"
  slice_param {
    axis: 0
  }
}
layer {
  name: "lstm1_h_conted_0"
  type: "Scale"
  bottom: "h_0"
  bottom: "cont_1"
  top: "h_conted_0"
  scale_param {
    axis: 0
  }
}
layer {
  name: "lstm1_transform_1"
  type: "InnerProduct"
  bottom: "h_conted_0"
  top: "W_hc_h_0"
  param {
    name: "W_hc"
  }
  inner_product_param {
    num_output: 4000
    bias_term: false
    weight_filler {
      type: "uniform"
      min: -0.08
      max: 0.08
    }
    axis: 2
  }
}
layer {
  name: "lstm1_gate_input_1"
  type: "Eltwise"
  bottom: "W_hc_h_0"
  bottom: "W_xc_x_1"
  top: "gate_input_1"
  eltwise_param {
    operation: SUM
  }
}
layer {
  name: "lstm1_unit_1"
  type: "LSTMUnit"
  bottom: "c_0"
  bottom: "gate_input_1"
  bottom: "cont_1"
  top: "c_1"
  top: "h_1"
}
layer {
  name: "lstm1_"
  type: "Split"
  bottom: "c_1"
  top: "c_T"
}
layer {
  name: "lstm1_h_concat"
  type: "Concat"
  bottom: "h_1"
  top: "h"
  concat_param {
    axis: 0
  }
}
layer {
  name: "h_pseudoloss"
  type: "Reduction"
  bottom: "h"
  top: "h_pseudoloss"
  loss_weight: 1
}
I0925 22:15:12.745025 23631 layer_factory.hpp:77] Creating layer lstm1_
I0925 22:15:12.745044 23631 net.cpp:91] Creating Layer lstm1_
I0925 22:15:12.745055 23631 net.cpp:399] lstm1_ -> x
I0925 22:15:12.745074 23631 net.cpp:399] lstm1_ -> cont
I0925 22:15:12.756021 23631 net.cpp:141] Setting up lstm1_
I0925 22:15:12.756074 23631 net.cpp:148] Top shape: 1 1 500 (500)
I0925 22:15:12.756090 23631 net.cpp:148] Top shape: 1 1 (1)
I0925 22:15:12.756096 23631 net.cpp:156] Memory required for data: 2004
I0925 22:15:12.756106 23631 layer_factory.hpp:77] Creating layer lstm1_
I0925 22:15:12.756145 23631 net.cpp:91] Creating Layer lstm1_
I0925 22:15:12.756163 23631 net.cpp:399] lstm1_ -> c_0
I0925 22:15:12.756196 23631 net.cpp:399] lstm1_ -> h_0
I0925 22:15:12.756201 23625 net.cpp:141] Setting up lstm1_x_transform
I0925 22:15:12.756229 23625 net.cpp:148] Top shape: 1 1 4000 (4000)
I0925 22:15:12.756240 23625 net.cpp:156] Memory required for data: 26016
I0925 22:15:12.756265 23625 layer_factory.hpp:77] Creating layer lstm1_W_xc_x_slice
I0925 22:15:12.756285 23625 net.cpp:91] Creating Layer lstm1_W_xc_x_slice
I0925 22:15:12.756297 23625 net.cpp:425] lstm1_W_xc_x_slice <- W_xc_x
I0925 22:15:12.756312 23625 net.cpp:399] lstm1_W_xc_x_slice -> W_xc_x_1
I0925 22:15:12.757225 23625 net.cpp:141] Setting up lstm1_W_xc_x_slice
I0925 22:15:12.757243 23625 net.cpp:148] Top shape: 1 1 4000 (4000)
I0925 22:15:12.757251 23625 net.cpp:156] Memory required for data: 42016
I0925 22:15:12.757259 23625 layer_factory.hpp:77] Creating layer lstm1_h_conted_0
I0925 22:15:12.757275 23625 net.cpp:91] Creating Layer lstm1_h_conted_0
I0925 22:15:12.757284 23625 net.cpp:425] lstm1_h_conted_0 <- h_0
I0925 22:15:12.757294 23625 net.cpp:425] lstm1_h_conted_0 <- cont_1_lstm1_cont_slice_0_split_0
I0925 22:15:12.757306 23625 net.cpp:399] lstm1_h_conted_0 -> h_conted_0
I0925 22:15:12.761090 23625 net.cpp:141] Setting up lstm1_h_conted_0
I0925 22:15:12.761131 23631 net.cpp:141] Setting up lstm1_
I0925 22:15:12.761142 23625 net.cpp:148] Top shape: 1 1 1000 (1000)
I0925 22:15:12.761152 23625 net.cpp:156] Memory required for data: 46016
I0925 22:15:12.761153 23631 net.cpp:148] Top shape: 1 1 1000 (1000)
I0925 22:15:12.761165 23631 net.cpp:148] Top shape: 1 1 1000 (1000)
I0925 22:15:12.761165 23625 layer_factory.hpp:77] Creating layer lstm1_transform_1
I0925 22:15:12.761214 23625 net.cpp:91] Creating Layer lstm1_transform_1
I0925 22:15:12.761227 23625 net.cpp:425] lstm1_transform_1 <- h_conted_0
I0925 22:15:12.761245 23625 net.cpp:399] lstm1_transform_1 -> W_hc_h_0
I0925 22:15:12.761180 23631 net.cpp:156] Memory required for data: 10004
I0925 22:15:12.761306 23631 layer_factory.hpp:77] Creating layer lstm1_cont_slice
I0925 22:15:12.761328 23631 net.cpp:91] Creating Layer lstm1_cont_slice
I0925 22:15:12.761338 23631 net.cpp:425] lstm1_cont_slice <- cont
I0925 22:15:12.761399 23631 net.cpp:399] lstm1_cont_slice -> cont_1
I0925 22:15:12.770164 23631 net.cpp:141] Setting up lstm1_cont_slice
I0925 22:15:12.770179 23649 net.cpp:141] Setting up lstm1_transform_1
I0925 22:15:12.770216 23649 net.cpp:148] Top shape: 1 1 4000 (4000)
I0925 22:15:12.770217 23631 net.cpp:148] Top shape: 1 1 (1)
I0925 22:15:12.770223 23649 net.cpp:156] Memory required for data: 62016
I0925 22:15:12.770228 23631 net.cpp:156] Memory required for data: 10008
I0925 22:15:12.770241 23631 layer_factory.hpp:77] Creating layer cont_1_lstm1_cont_slice_0_split
I0925 22:15:12.770243 23649 layer_factory.hpp:77] Creating layer lstm1_gate_input_1
I0925 22:15:12.770267 23631 net.cpp:91] Creating Layer cont_1_lstm1_cont_slice_0_split
I0925 22:15:12.770272 23649 net.cpp:91] Creating Layer lstm1_gate_input_1
I0925 22:15:12.770287 23649 net.cpp:425] lstm1_gate_input_1 <- W_hc_h_0
I0925 22:15:12.770287 23631 net.cpp:425] cont_1_lstm1_cont_slice_0_split <- cont_1
I0925 22:15:12.770297 23649 net.cpp:425] lstm1_gate_input_1 <- W_xc_x_1
I0925 22:15:12.770303 23631 net.cpp:399] cont_1_lstm1_cont_slice_0_split -> cont_1_lstm1_cont_slice_0_split_0
I0925 22:15:12.770310 23649 net.cpp:399] lstm1_gate_input_1 -> gate_input_1
I0925 22:15:12.770325 23631 net.cpp:399] cont_1_lstm1_cont_slice_0_split -> cont_1_lstm1_cont_slice_0_split_1
I0925 22:15:12.778463 23649 net.cpp:141] Setting up lstm1_gate_input_1
I0925 22:15:12.778537 23649 net.cpp:148] Top shape: 1 1 4000 (4000)
I0925 22:15:12.778539 23655 net.cpp:141] Setting up lstm1_transform_1
I0925 22:15:12.778573 23649 net.cpp:156] Memory required for data: 78016
I0925 22:15:12.778576 23631 net.cpp:141] Setting up cont_1_lstm1_cont_slice_0_split
I0925 22:15:12.778586 23655 net.cpp:148] Top shape: 1 1 4000 (4000)
I0925 22:15:12.778612 23655 net.cpp:156] Memory required for data: 62016
I0925 22:15:12.778614 23649 layer_factory.hpp:77] Creating layer lstm1_unit_1
I0925 22:15:12.778625 23631 net.cpp:148] Top shape: 1 1 (1)
I0925 22:15:12.778640 23655 layer_factory.hpp:77] Creating layer lstm1_gate_input_1
I0925 22:15:12.778640 23631 net.cpp:148] Top shape: 1 1 (1)
I0925 22:15:12.778659 23649 net.cpp:91] Creating Layer lstm1_unit_1
I0925 22:15:12.778678 23655 net.cpp:91] Creating Layer lstm1_gate_input_1
I0925 22:15:12.778666 23631 net.cpp:156] Memory required for data: 10016
I0925 22:15:12.778689 23655 net.cpp:425] lstm1_gate_input_1 <- W_hc_h_0
I0925 22:15:12.778700 23655 net.cpp:425] lstm1_gate_input_1 <- W_xc_x_1
I0925 22:15:12.778692 23649 net.cpp:425] lstm1_unit_1 <- c_0
I0925 22:15:12.778713 23655 net.cpp:399] lstm1_gate_input_1 -> gate_input_1
I0925 22:15:12.778693 23631 layer_factory.hpp:77] Creating layer lstm1_x_transform
I0925 22:15:12.778735 23649 net.cpp:425] lstm1_unit_1 <- gate_input_1
I0925 22:15:12.778753 23631 net.cpp:91] Creating Layer lstm1_x_transform
I0925 22:15:12.778755 23649 net.cpp:425] lstm1_unit_1 <- cont_1_lstm1_cont_slice_0_split_1
I0925 22:15:12.778779 23649 net.cpp:399] lstm1_unit_1 -> c_1
I0925 22:15:12.778784 23655 net.cpp:141] Setting up lstm1_gate_input_1
I0925 22:15:12.778789 23631 net.cpp:425] lstm1_x_transform <- x
I0925 22:15:12.778800 23655 net.cpp:148] Top shape: 1 1 4000 (4000)
I0925 22:15:12.778808 23631 net.cpp:399] lstm1_x_transform -> W_xc_x
I0925 22:15:12.778806 23649 net.cpp:399] lstm1_unit_1 -> h_1
I0925 22:15:12.778806 23655 net.cpp:156] Memory required for data: 78016
I0925 22:15:12.778854 23655 layer_factory.hpp:77] Creating layer lstm1_unit_1
I0925 22:15:12.778869 23655 net.cpp:91] Creating Layer lstm1_unit_1
I0925 22:15:12.778877 23655 net.cpp:425] lstm1_unit_1 <- c_0
I0925 22:15:12.778887 23655 net.cpp:425] lstm1_unit_1 <- gate_input_1
I0925 22:15:12.778895 23655 net.cpp:425] lstm1_unit_1 <- cont_1_lstm1_cont_slice_0_split_1
I0925 22:15:12.778906 23655 net.cpp:399] lstm1_unit_1 -> c_1
I0925 22:15:12.778920 23655 net.cpp:399] lstm1_unit_1 -> h_1
I0925 22:15:12.784668 23649 net.cpp:141] Setting up lstm1_unit_1
I0925 22:15:12.784720 23649 net.cpp:148] Top shape: 1 1 1000 (1000)
I0925 22:15:12.784731 23649 net.cpp:148] Top shape: 1 1 1000 (1000)
I0925 22:15:12.784739 23649 net.cpp:156] Memory required for data: 86016
I0925 22:15:12.784750 23655 net.cpp:141] Setting up lstm1_unit_1
I0925 22:15:12.784782 23655 net.cpp:148] Top shape: 1 1 1000 (1000)
I0925 22:15:12.784795 23655 net.cpp:148] Top shape: 1 1 1000 (1000)
I0925 22:15:12.784802 23655 net.cpp:156] Memory required for data: 86016
I0925 22:15:12.784837 23655 layer_factory.hpp:77] Creating layer lstm1_
I0925 22:15:12.784873 23655 net.cpp:91] Creating Layer lstm1_
I0925 22:15:12.784884 23655 net.cpp:425] lstm1_ <- c_1
I0925 22:15:12.784903 23655 net.cpp:399] lstm1_ -> c_T
I0925 22:15:12.784958 23655 net.cpp:141] Setting up lstm1_
I0925 22:15:12.784972 23655 net.cpp:148] Top shape: 1 1 1000 (1000)
I0925 22:15:12.784978 23655 net.cpp:156] Memory required for data: 90016
I0925 22:15:12.784986 23655 layer_factory.hpp:77] Creating layer lstm1_h_concat
I0925 22:15:12.785001 23655 net.cpp:91] Creating Layer lstm1_h_concat
I0925 22:15:12.785010 23655 net.cpp:425] lstm1_h_concat <- h_1
I0925 22:15:12.785029 23655 net.cpp:399] lstm1_h_concat -> h
I0925 22:15:12.785096 23655 net.cpp:141] Setting up lstm1_h_concat
I0925 22:15:12.785111 23655 net.cpp:148] Top shape: 1 1 1000 (1000)
I0925 22:15:12.785120 23655 net.cpp:156] Memory required for data: 94016
I0925 22:15:12.785127 23655 layer_factory.hpp:77] Creating layer h_pseudoloss
I0925 22:15:12.785156 23655 net.cpp:91] Creating Layer h_pseudoloss
I0925 22:15:12.785164 23655 net.cpp:425] h_pseudoloss <- h
I0925 22:15:12.785176 23655 net.cpp:399] h_pseudoloss -> h_pseudoloss
I0925 22:15:12.785683 23655 net.cpp:141] Setting up h_pseudoloss
…
I0925 22:15:12.784751 23649 layer_factory.hpp:77] Creating layer lstm1_
I0925 22:15:12.785918 23655 net.cpp:274] Network initialization done.
I0925 22:15:12.785933 23649 net.cpp:91] Creating Layer lstm1_
I0925 22:15:12.785943 23649 net.cpp:425] lstm1_ <- c_1
I0925 22:15:12.785977 23649 net.cpp:399] lstm1_ -> c_T
I0925 22:15:12.786010 23655 recurrent_layer.cpp:150] Adding parameter 0: W_xc
I0925 22:15:12.786022 23655 recurrent_layer.cpp:150] Adding parameter 1: b_c
I0925 22:15:12.786031 23655 recurrent_layer.cpp:150] Adding parameter 2: W_hc
I0925 22:15:12.789832 23649 net.cpp:141] Setting up lstm1_
I0925 22:15:12.789878 23649 net.cpp:148] Top shape: 1 1 1000 (1000)
I0925 22:15:12.789887 23649 net.cpp:156] Memory required for data: 90016
I0925 22:15:12.789899 23649 layer_factory.hpp:77] Creating layer lstm1_h_concat
I0925 22:15:12.789921 23649 net.cpp:91] Creating Layer lstm1_h_concat
I0925 22:15:12.789930 23649 net.cpp:425] lstm1_h_concat <- h_1
I0925 22:15:12.789947 23649 net.cpp:399] lstm1_h_concat -> h
I0925 22:15:12.790019 23649 net.cpp:141] Setting up lstm1_h_concat
I0925 22:15:12.790032 23649 net.cpp:148] Top shape: 1 1 1000 (1000)
I0925 22:15:12.790038 23649 net.cpp:156] Memory required for data: 94016
I0925 22:15:12.790046 23649 layer_factory.hpp:77] Creating layer h_pseudoloss
I0925 22:15:12.790060 23649 net.cpp:91] Creating Layer h_pseudoloss
I0925 22:15:12.790060 23655 net.cpp:141] Setting up lstm1
I0925 22:15:12.790086 23655 net.cpp:148] Top shape: 1 1 1000 (1000)
I0925 22:15:12.790096 23655 net.cpp:156] Memory required for data: 26408
I0925 22:15:12.790122 23655 layer_factory.hpp:77] Creating layer concat
I0925 22:15:12.790138 23655 net.cpp:91] Creating Layer concat
I0925 22:15:12.790148 23655 net.cpp:425] concat <- lstm1
I0925 22:15:12.790159 23655 net.cpp:425] concat <- embedded_input_sentence
I0925 22:15:12.790169 23655 net.cpp:425] concat <- reshaped_stage_indicator
I0925 22:15:12.790180 23655 net.cpp:399] concat -> lstm1_video_sequence
I0925 22:15:12.790230 23655 net.cpp:141] Setting up concat
I0925 22:15:12.790244 23655 net.cpp:148] Top shape: 1 1 1501 (1501)
I0925 22:15:12.790252 23655 net.cpp:156] Memory required for data: 32412
I0925 22:15:12.790259 23655 layer_factory.hpp:77] Creating layer lstm2
I0925 22:15:12.790282 23655 net.cpp:91] Creating Layer lstm2
I0925 22:15:12.790290 23655 net.cpp:425] lstm2 <- lstm1_video_sequence
I0925 22:15:12.790066 23649 net.cpp:425] h_pseudoloss <- h
I0925 22:15:12.790325 23649 net.cpp:399] h_pseudoloss -> h_pseudoloss
I0925 22:15:12.790302 23655 net.cpp:425] lstm2 <- cont_sentence_input_1_split_1
I0925 22:15:12.790642 23655 net.cpp:399] lstm2 -> lstm2
I0925 22:15:12.790663 23655 recurrent_layer.cpp:20] Initializing recurrent layer: assuming input batch contains 1 timesteps of 1 independent streams.
I0925 22:15:12.791157 23655 net.cpp:49] Initializing net from parameters: 
layer {
  name: "lstm2_"
  type: "Input"
  top: "x"
  top: "cont"
  input_param {
    shape {
      dim: 1
      dim: 1
      dim: 1501
    }
    shape {
      dim: 1
      dim: 1
    }
  }
}
layer {
  name: "lstm2_"
  type: "Input"
  top: "c_0"
  top: "h_0"
  input_param {
    shape {
      dim: 1
      dim: 1
      dim: 1000
    }
    shape {
      dim: 1
      dim: 1
      dim: 1000
    }
  }
}
layer {
  name: "lstm2_cont_slice"
  type: "Slice"
  bottom: "cont"
  top: "cont_1"
  slice_param {
    axis: 0
  }
}
layer {
  name: "lstm2_x_transform"
  type: "InnerProduct"
  bottom: "x"
  top: "W_xc_x"
  param {
    name: "W_xc"
  }
  param {
    name: "b_c"
  }
  propagate_down: true
  inner_product_param {
    num_output: 4000
    bias_term: true
    weight_filler {
      type: "uniform"
      min: -0.08
      max: 0.08
    }
    bias_filler {
      type: "constant"
      value: 0
    }
    axis: 2
  }
}
layer {
  name: "lstm2_W_xc_x_slice"
  type: "Slice"
  bottom: "W_xc_x"
  top: "W_xc_x_1"
  slice_param {
    axis: 0
  }
}
layer {
  name: "lstm2_h_conted_0"
  type: "Scale"
  bottom: "h_0"
  bottom: "cont_1"
  top: "h_conted_0"
  scale_param {
    axis: 0
  }
}
layer {
  name: "lstm2_transform_1"
  type: "InnerProduct"
  bottom: "h_conted_0"
  top: "W_hc_h_0"
  param {
    name: "W_hc"
  }
  inner_product_param {
    num_output: 4000
    bias_term: false
    weight_filler {
      type: "uniform"
      min: -0.08
      max: 0.08
    }
    axis: 2
  }
}
layer {
  name: "lstm2_gate_input_1"
  type: "Eltwise"
  bottom: "W_hc_h_0"
  bottom: "W_xc_x_1"
  top: "gate_input_1"
  eltwise_param {
    operation: SUM
  }
}
layer {
  name: "lstm2_unit_1"
  type: "LSTMUnit"
  bottom: "c_0"
  bottom: "gate_input_1"
  bottom: "cont_1"
  top: "c_1"
  top: "h_1"
}
layer {
  name: "lstm2_"
  type: "Split"
  bottom: "c_1"
  top: "c_T"
}
layer {
  name: "lstm2_h_concat"
  type: "Concat"
  bottom: "h_1"
  top: "h"
  concat_param {
    axis: 0
  }
}
layer {
  name: "h_pseudoloss"
  type: "Reduction"
  bottom: "h"
  top: "h_pseudoloss"
  loss_weight: 1
}
I0925 22:15:12.791316 23655 layer_factory.hpp:77] Creating layer lstm2_
I0925 22:15:12.791335 23655 net.cpp:91] Creating Layer lstm2_
I0925 22:15:12.791347 23655 net.cpp:399] lstm2_ -> x
I0925 22:15:12.791363 23655 net.cpp:399] lstm2_ -> cont
I0925 22:15:12.796135 23655 net.cpp:141] Setting up lstm2_
I0925 22:15:12.796176 23655 net.cpp:148] Top shape: 1 1 1501 (1501)
I0925 22:15:12.796182 23649 net.cpp:141] Setting up h_pseudoloss
I0925 22:15:12.796190 23655 net.cpp:148] Top shape: 1 1 (1)
I0925 22:15:12.796210 23655 net.cpp:156] Memory required for data: 6008
I0925 22:15:12.796210 23649 net.cpp:148] Top shape: (1)
I0925 22:15:12.796231 23655 layer_factory.hpp:77] Creating layer lstm2_
I0925 22:15:12.796233 23649 net.cpp:151]     with loss weight 1
I0925 22:15:12.796252 23649 net.cpp:156] Memory required for data: 94020
I0925 22:15:12.796257 23655 net.cpp:91] Creating Layer lstm2_
…
I0925 22:15:12.796382 23649 net.cpp:219] lstm1_ does not need backward computation.
I0925 22:15:12.796388 23649 net.cpp:261] This network produces output c_T
I0925 22:15:12.796397 23649 net.cpp:261] This network produces output h_pseudoloss
I0925 22:15:12.796425 23649 net.cpp:274] Network initialization done.
I0925 22:15:12.796494 23649 recurrent_layer.cpp:150] Adding parameter 0: W_xc
I0925 22:15:12.796505 23649 recurrent_layer.cpp:150] Adding parameter 1: b_c
I0925 22:15:12.796514 23649 recurrent_layer.cpp:150] Adding parameter 2: W_hc
I0925 22:15:12.798065 23655 net.cpp:141] Setting up lstm2_
I0925 22:15:12.798082 23655 net.cpp:148] Top shape: 1 1 1000 (1000)
I0925 22:15:12.798092 23655 net.cpp:148] Top shape: 1 1 1000 (1000)
I0925 22:15:12.798099 23655 net.cpp:156] Memory required for data: 14008
I0925 22:15:12.798107 23655 layer_factory.hpp:77] Creating layer lstm2_cont_slice
I0925 22:15:12.798123 23655 net.cpp:91] Creating Layer lstm2_cont_slice
I0925 22:15:12.798132 23655 net.cpp:425] lstm2_cont_slice <- cont
I0925 22:15:12.798146 23655 net.cpp:399] lstm2_cont_slice -> cont_1
I0925 22:15:12.798832 23655 net.cpp:141] Setting up lstm2_cont_slice
I0925 22:15:12.798849 23655 net.cpp:148] Top shape: 1 1 (1)
I0925 22:15:12.798856 23655 net.cpp:156] Memory required for data: 14012
I0925 22:15:12.798864 23655 layer_factory.hpp:77] Creating layer cont_1_lstm2_cont_slice_0_split
I0925 22:15:12.798871 23649 net.cpp:141] Setting up lstm1
I0925 22:15:12.798877 23655 net.cpp:91] Creating Layer cont_1_lstm2_cont_slice_0_split
I0925 22:15:12.798889 23655 net.cpp:425] cont_1_lstm2_cont_slice_0_split <- cont_1
I0925 22:15:12.798890 23649 net.cpp:148] Top shape: 1 1 1000 (1000)
I0925 22:15:12.798899 23649 net.cpp:156] Memory required for data: 26408
I0925 22:15:12.798900 23655 net.cpp:399] cont_1_lstm2_cont_slice_0_split -> cont_1_lstm2_cont_slice_0_split_0
I0925 22:15:12.798925 23655 net.cpp:399] cont_1_lstm2_cont_slice_0_split -> cont_1_lstm2_cont_slice_0_split_1
I0925 22:15:12.798938 23649 layer_factory.hpp:77] Creating layer concat
I0925 22:15:12.798955 23649 net.cpp:91] Creating Layer concat
I0925 22:15:12.798964 23649 net.cpp:425] concat <- lstm1
I0925 22:15:12.798974 23649 net.cpp:425] concat <- embedded_input_sentence
I0925 22:15:12.798984 23649 net.cpp:425] concat <- reshaped_stage_indicator
I0925 22:15:12.798995 23649 net.cpp:399] concat -> lstm1_video_sequence
I0925 22:15:12.800084 23649 net.cpp:141] Setting up concat
I0925 22:15:12.800106 23649 net.cpp:148] Top shape: 1 1 1501 (1501)
I0925 22:15:12.800114 23649 net.cpp:156] Memory required for data: 32412
I0925 22:15:12.800124 23649 layer_factory.hpp:77] Creating layer lstm2
I0925 22:15:12.800143 23649 net.cpp:91] Creating Layer lstm2
I0925 22:15:12.800151 23649 net.cpp:425] lstm2 <- lstm1_video_sequence
I0925 22:15:12.800159 23649 net.cpp:425] lstm2 <- cont_sentence_input_1_split_1
I0925 22:15:12.800173 23649 net.cpp:399] lstm2 -> lstm2
I0925 22:15:12.800186 23649 recurrent_layer.cpp:20] Initializing recurrent layer: assuming input batch contains 1 timesteps of 1 independent streams.
I0925 22:15:12.800467 23649 net.cpp:49] Initializing net from parameters: 
layer {
  name: "lstm2_"
  type: "Input"
  top: "x"
  top: "cont"
  input_param {
    shape {
      dim: 1
      dim: 1
      dim: 1501
    }
    shape {
      dim: 1
      dim: 1
    }
  }
}
layer {
  name: "lstm2_"
  type: "Input"
  top: "c_0"
  top: "h_0"
  input_param {
    shape {
      dim: 1
      dim: 1
      dim: 1000
    }
    shape {
      dim: 1
      dim: 1
      dim: 1000
    }
  }
}
layer {
  name: "lstm2_cont_slice"
  type: "Slice"
  bottom: "cont"
  top: "cont_1"
  slice_param {
    axis: 0
  }
}
layer {
  name: "lstm2_x_transform"
  type: "InnerProduct"
  bottom: "x"
  top: "W_xc_x"
  param {
    name: "W_xc"
  }
  param {
    name: "b_c"
  }
  propagate_down: true
  inner_product_param {
    num_output: 4000
    bias_term: true
    weight_filler {
      type: "uniform"
      min: -0.08
      max: 0.08
    }
    bias_filler {
      type: "constant"
      value: 0
    }
    axis: 2
  }
}
layer {
  name: "lstm2_W_xc_x_slice"
  type: "Slice"
  bottom: "W_xc_x"
  top: "W_xc_x_1"
  slice_param {
    axis: 0
  }
}
layer {
  name: "lstm2_h_conted_0"
  type: "Scale"
  bottom: "h_0"
  bottom: "cont_1"
  top: "h_conted_0"
  scale_param {
    axis: 0
  }
}
layer {
  name: "lstm2_transform_1"
  type: "InnerProduct"
  bottom: "h_conted_0"
  top: "W_hc_h_0"
  param {
    name: "W_hc"
  }
  inner_product_param {
    num_output: 4000
    bias_term: false
    weight_filler {
      type: "uniform"
      min: -0.08
      max: 0.08
    }
    axis: 2
  }
}
layer {
  name: "lstm2_gate_input_1"
  type: "Eltwise"
  bottom: "W_hc_h_0"
  bottom: "W_xc_x_1"
  top: "gate_input_1"
  eltwise_param {
    operation: SUM
  }
}
layer {
  name: "lstm2_unit_1"
  type: "LSTMUnit"
  bottom: "c_0"
  bottom: "gate_input_1"
  bottom: "cont_1"
  top: "c_1"
  top: "h_1"
}
layer {
  name: "lstm2_"
  type: "Split"
  bottom: "c_1"
  top: "c_T"
}
layer {
  name: "lstm2_h_concat"
  type: "Concat"
  bottom: "h_1"
  top: "h"
  concat_param {
    axis: 0
  }
}
layer {
  name: "h_pseudoloss"
  type: "Reduction"
  bottom: "h"
  top: "h_pseudoloss"
  loss_weight: 1
}
I0925 22:15:12.800571 23649 layer_factory.hpp:77] Creating layer lstm2_
I0925 22:15:12.800585 23649 net.cpp:91] Creating Layer lstm2_
I0925 22:15:12.800590 23649 net.cpp:399] lstm2_ -> x
I0925 22:15:12.800603 23649 net.cpp:399] lstm2_ -> cont
I0925 22:15:12.800665 23649 net.cpp:141] Setting up lstm2_
I0925 22:15:12.800675 23649 net.cpp:148] Top shape: 1 1 1501 (1501)
I0925 22:15:12.800681 23649 net.cpp:148] Top shape: 1 1 (1)
I0925 22:15:12.800685 23649 net.cpp:156] Memory required for data: 6008
I0925 22:15:12.800690 23649 layer_factory.hpp:77] Creating layer lstm2_
I0925 22:15:12.800703 23649 net.cpp:91] Creating Layer lstm2_
I0925 22:15:12.800709 23649 net.cpp:399] lstm2_ -> c_0
I0925 22:15:12.800719 23649 net.cpp:399] lstm2_ -> h_0
I0925 22:15:12.800768 23649 net.cpp:141] Setting up lstm2_
I0925 22:15:12.800777 23649 net.cpp:148] Top shape: 1 1 1000 (1000)
I0925 22:15:12.800783 23649 net.cpp:148] Top shape: 1 1 1000 (1000)
I0925 22:15:12.800787 23649 net.cpp:156] Memory required for data: 14008
I0925 22:15:12.800791 23649 layer_factory.hpp:77] Creating layer lstm2_cont_slice
I0925 22:15:12.800799 23649 net.cpp:91] Creating Layer lstm2_cont_slice
I0925 22:15:12.800806 23649 net.cpp:425] lstm2_cont_slice <- cont
I0925 22:15:12.800812 23649 net.cpp:399] lstm2_cont_slice -> cont_1
I0925 22:15:12.800848 23649 net.cpp:141] Setting up lstm2_cont_slice
I0925 22:15:12.800856 23649 net.cpp:148] Top shape: 1 1 (1)
I0925 22:15:12.800860 23649 net.cpp:156] Memory required for data: 14012
I0925 22:15:12.800864 23649 layer_factory.hpp:77] Creating layer cont_1_lstm2_cont_slice_0_split
I0925 22:15:12.800871 23649 net.cpp:91] Creating Layer cont_1_lstm2_cont_slice_0_split
I0925 22:15:12.800876 23649 net.cpp:425] cont_1_lstm2_cont_slice_0_split <- cont_1
I0925 22:15:12.800885 23649 net.cpp:399] cont_1_lstm2_cont_slice_0_split -> cont_1_lstm2_cont_slice_0_split_0
I0925 22:15:12.800894 23649 net.cpp:399] cont_1_lstm2_cont_slice_0_split -> cont_1_lstm2_cont_slice_0_split_1
I0925 22:15:12.800937 23649 net.cpp:141] Setting up cont_1_lstm2_cont_slice_0_split
I0925 22:15:12.800946 23649 net.cpp:148] Top shape: 1 1 (1)
I0925 22:15:12.800951 23649 net.cpp:148] Top shape: 1 1 (1)
I0925 22:15:12.800956 23649 net.cpp:156] Memory required for data: 14020
I0925 22:15:12.800961 23649 layer_factory.hpp:77] Creating layer lstm2_x_transform
I0925 22:15:12.800981 23649 net.cpp:91] Creating Layer lstm2_x_transform
I0925 22:15:12.800990 23649 net.cpp:425] lstm2_x_transform <- x
I0925 22:15:12.801002 23649 net.cpp:399] lstm2_x_transform -> W_xc_x
I0925 22:15:12.810771 23655 net.cpp:141] Setting up cont_1_lstm2_cont_slice_0_split
I0925 22:15:12.810822 23655 net.cpp:148] Top shape: 1 1 (1)
I0925 22:15:12.810834 23655 net.cpp:148] Top shape: 1 1 (1)
I0925 22:15:12.810842 23655 net.cpp:156] Memory required for data: 14020
I0925 22:15:12.810853 23655 layer_factory.hpp:77] Creating layer lstm2_x_transform
I0925 22:15:12.810883 23655 net.cpp:91] Creating Layer lstm2_x_transform
I0925 22:15:12.810892 23655 net.cpp:425] lstm2_x_transform <- x
I0925 22:15:12.810916 23655 net.cpp:399] lstm2_x_transform -> W_xc_x
I0925 22:15:12.827935 23623 net.cpp:141] Setting up embedding
I0925 22:15:12.827971 23621 net.cpp:141] Setting up embedding
I0925 22:15:12.827994 23623 net.cpp:148] Top shape: 1 1 500 (500)
I0925 22:15:12.827996 23625 net.cpp:141] Setting up lstm1_transform_1
I0925 22:15:12.827994 23621 net.cpp:148] Top shape: 1 1 500 (500)
I0925 22:15:12.828017 23623 net.cpp:156] Memory required for data: 22408
I0925 22:15:12.828019 23625 net.cpp:148] Top shape: 1 1 4000 (4000)
I0925 22:15:12.828022 23621 net.cpp:156] Memory required for data: 22408
I0925 22:15:12.828028 23625 net.cpp:156] Memory required for data: 62016
I0925 22:15:12.828043 23623 layer_factory.hpp:77] Creating layer lstm1
I0925 22:15:12.828043 23621 layer_factory.hpp:77] Creating layer lstm1
I0925 22:15:12.828049 23625 layer_factory.hpp:77] Creating layer lstm1_gate_input_1
I0925 22:15:12.828083 23625 net.cpp:91] Creating Layer lstm1_gate_input_1
…
I0925 22:15:12.828177 23621 recurrent_layer.cpp:20] Initializing recurrent layer: assuming input batch contains 1 timesteps of 1 independent streams.
I0925 22:15:12.828660 23621 net.cpp:49] Initializing net from parameters: 
layer {
  name: "lstm1_"
  type: "Input"
  top: "x"
  top: "cont"
  input_param {
    shape {
      dim: 1
      dim: 1
      dim: 500
    }
    shape {
      dim: 1
      dim: 1
    }
  }
}
layer {
  name: "lstm1_"
  type: "Input"
  top: "c_0"
  top: "h_0"
  input_param {
    shape {
      dim: 1
      dim: 1
      dim: 1000
    }
    shape {
      dim: 1
      dim: 1
      dim: 1000
    }
  }
}
layer {
  name: "lstm1_cont_slice"
  type: "Slice"
  bottom: "cont"
  top: "cont_1"
  slice_param {
    axis: 0
  }
}
layer {
  name: "lstm1_x_transform"
  type: "InnerProduct"
  bottom: "x"
  top: "W_xc_x"
  param {
    name: "W_xc"
  }
  param {
    name: "b_c"
  }
  propagate_down: true
  inner_product_param {
    num_output: 4000
    bias_term: true
    weight_filler {
      type: "uniform"
      min: -0.08
      max: 0.08
    }
    bias_filler {
      type: "constant"
      value: 0
    }
    axis: 2
  }
}
layer {
  name: "lstm1_W_xc_x_slice"
  type: "Slice"
  bottom: "W_xc_x"
  top: "W_xc_x_1"
  slice_param {
    axis: 0
  }
}
layer {
  name: "lstm1_h_conted_0"
  type: "Scale"
  bottom: "h_0"
  bottom: "cont_1"
  top: "h_conted_0"
  scale_param {
    axis: 0
  }
}
layer {
  name: "lstm1_transform_1"
  type: "InnerProduct"
  bottom: "h_conted_0"
  top: "W_hc_h_0"
  param {
    name: "W_hc"
  }
  inner_product_param {
    num_output: 4000
    bias_term: false
    weight_filler {
      type: "uniform"
      min: -0.08
      max: 0.08
    }
    axis: 2
  }
}
layer {
  name: "lstm1_gate_input_1"
  type: "Eltwise"
  bottom: "W_hc_h_0"
  bottom: "W_xc_x_1"
  top: "gate_input_1"
  eltwise_param {
    operation: SUM
  }
}
layer {
  name: "lstm1_unit_1"
  type: "LSTMUnit"
  bottom: "c_0"
  bottom: "gate_input_1"
  bottom: "cont_1"
  top: "c_1"
  top: "h_1"
}
layer {
  name: "lstm1_"
  type: "Split"
  bottom: "c_1"
  top: "c_T"
}
layer {
  name: "lstm1_h_concat"
  type: "Concat"
  bottom: "h_1"
  top: "h"
  concat_param {
    axis: 0
  }
}
layer {
  name: "h_pseudoloss"
  type: "Reduction"
  bottom: "h"
  top: "h_pseudoloss"
  loss_weight: 1
}
I0925 22:15:12.828688 23623 net.cpp:49] Initializing net from parameters: 
layer {
  name: "lstm1_"
  type: "Input"
  top: "x"
  top: "cont"
  input_param {
    shape {
      dim: 1
      dim: 1
      dim: 500
    }
    shape {
      dim: 1
      dim: 1
    }
  }
}
layer {
  name: "lstm1_"
  type: "Input"
  top: "c_0"
  top: "h_0"
  input_param {
    shape {
      dim: 1
      dim: 1
      dim: 1000
    }
    shape {
      dim: 1
      dim: 1
      dim: 1000
    }
  }
}
layer {
  name: "lstm1_cont_slice"
  type: "Slice"
  bottom: "cont"
  top: "cont_1"
  slice_param {
    axis: 0
  }
}
layer {
  name: "lstm1_x_transform"
  type: "InnerProduct"
  bottom: "x"
  top: "W_xc_x"
  param {
    name: "W_xc"
  }
  param {
    name: "b_c"
  }
  propagate_down: true
  inner_product_param {
    num_output: 4000
    bias_term: true
    weight_filler {
      type: "uniform"
      min: -0.08
      max: 0.08
    }
    bias_filler {
      type: "constant"
      value: 0
    }
    axis: 2
  }
}
layer {
  name: "lstm1_W_xc_x_slice"
  type: "Slice"
  bottom: "W_xc_x"
  top: "W_xc_x_1"
  slice_param {
    axis: 0
  }
}
layer {
  name: "lstm1_h_conted_0"
  type: "Scale"
  bottom: "h_0"
  bottom: "cont_1"
  top: "h_conted_0"
  scale_param {
    axis: 0
  }
}
layer {
  name: "lstm1_transform_1"
  type: "InnerProduct"
  bottom: "h_conted_0"
  top: "W_hc_h_0"
  param {
    name: "W_hc"
  }
  inner_product_param {
    num_output: 4000
    bias_term: false
    weight_filler {
      type: "uniform"
      min: -0.08
      max: 0.08
    }
    axis: 2
  }
}
layer {
  name: "lstm1_gate_input_1"
  type: "Eltwise"
  bottom: "W_hc_h_0"
  bottom: "W_xc_x_1"
  top: "gate_input_1"
  eltwise_param {
    operation: SUM
  }
}
layer {
  name: "lstm1_unit_1"
  type: "LSTMUnit"
  bottom: "c_0"
  bottom: "gate_input_1"
  bottom: "cont_1"
  top: "c_1"
  top: "h_1"
}
layer {
  name: "lstm1_"
  type: "Split"
  bottom: "c_1"
  top: "c_T"
}
layer {
  name: "lstm1_h_concat"
  type: "Concat"
  bottom: "h_1"
  top: "h"
  concat_param {
    axis: 0
  }
}
layer {
  name: "h_pseudoloss"
  type: "Reduction"
  bottom: "h"
  top: "h_pseudoloss"
  loss_weight: 1
}
I0925 22:15:12.828805 23621 layer_factory.hpp:77] Creating layer lstm1_
I0925 22:15:12.828824 23621 net.cpp:91] Creating Layer lstm1_
I0925 22:15:12.828835 23621 net.cpp:399] lstm1_ -> x
I0925 22:15:12.828850 23623 layer_factory.hpp:77] Creating layer lstm1_
I0925 22:15:12.828855 23621 net.cpp:399] lstm1_ -> cont
I0925 22:15:12.828886 23623 net.cpp:91] Creating Layer lstm1_
I0925 22:15:12.828896 23623 net.cpp:399] lstm1_ -> x
I0925 22:15:12.828914 23623 net.cpp:399] lstm1_ -> cont
I0925 22:15:12.839429 23631 net.cpp:141] Setting up lstm1_x_transform
I0925 22:15:12.839473 23631 net.cpp:148] Top shape: 1 1 4000 (4000)
I0925 22:15:12.839479 23631 net.cpp:156] Memory required for data: 26016
I0925 22:15:12.839504 23631 layer_factory.hpp:77] Creating layer lstm1_W_xc_x_slice
I0925 22:15:12.839527 23631 net.cpp:91] Creating Layer lstm1_W_xc_x_slice
I0925 22:15:12.839534 23631 net.cpp:425] lstm1_W_xc_x_slice <- W_xc_x
I0925 22:15:12.839545 23631 net.cpp:399] lstm1_W_xc_x_slice -> W_xc_x_1
I0925 22:15:12.839562 23625 net.cpp:141] Setting up lstm1_gate_input_1
I0925 22:15:12.839597 23625 net.cpp:148] Top shape: 1 1 4000 (4000)
I0925 22:15:12.839597 23631 net.cpp:141] Setting up lstm1_W_xc_x_slice
I0925 22:15:12.839614 23625 net.cpp:156] Memory required for data: 78016
I0925 22:15:12.839619 23631 net.cpp:148] Top shape: 1 1 4000 (4000)
I0925 22:15:12.839624 23631 net.cpp:156] Memory required for data: 42016
I0925 22:15:12.839625 23625 layer_factory.hpp:77] Creating layer lstm1_unit_1
I0925 22:15:12.839629 23631 layer_factory.hpp:77] Creating layer lstm1_h_conted_0
I0925 22:15:12.839642 23631 net.cpp:91] Creating Layer lstm1_h_conted_0
I0925 22:15:12.839643 23625 net.cpp:91] Creating Layer lstm1_unit_1
I0925 22:15:12.839646 23631 net.cpp:425] lstm1_h_conted_0 <- h_0
I0925 22:15:12.839663 23625 net.cpp:425] lstm1_unit_1 <- c_0
I0925 22:15:12.839666 23631 net.cpp:425] lstm1_h_conted_0 <- cont_1_lstm1_cont_slice_0_split_0
I0925 22:15:12.839676 23625 net.cpp:425] lstm1_unit_1 <- gate_input_1
I0925 22:15:12.839684 23631 net.cpp:399] lstm1_h_conted_0 -> h_conted_0
I0925 22:15:12.839676 23621 net.cpp:141] Setting up lstm1_
I0925 22:15:12.839676 23623 net.cpp:141] Setting up lstm1_
I0925 22:15:12.839699 23621 net.cpp:148] Top shape: 1 1 500 (500)
I0925 22:15:12.839691 23625 net.cpp:425] lstm1_unit_1 <- cont_1_lstm1_cont_slice_0_split_1
I0925 22:15:12.839707 23621 net.cpp:148] Top shape: 1 1 (1)
I0925 22:15:12.839712 23621 net.cpp:156] Memory required for data: 2004
I0925 22:15:12.839715 23623 net.cpp:148] Top shape: 1 1 500 (500)
I0925 22:15:12.839718 23621 layer_factory.hpp:77] Creating layer lstm1_
I0925 22:15:12.839720 23625 net.cpp:399] lstm1_unit_1 -> c_1
I0925 22:15:12.839725 23623 net.cpp:148] Top shape: 1 1 (1)
I0925 22:15:12.839740 23621 net.cpp:91] Creating Layer lstm1_
I0925 22:15:12.839742 23623 net.cpp:156] Memory required for data: 2004
I0925 22:15:12.839748 23621 net.cpp:399] lstm1_ -> c_0
I0925 22:15:12.839751 23625 net.cpp:399] lstm1_unit_1 -> h_1
I0925 22:15:12.839750 23623 layer_factory.hpp:77] Creating layer lstm1_
I0925 22:15:12.839767 23621 net.cpp:399] lstm1_ -> h_0
I0925 22:15:12.839785 23623 net.cpp:91] Creating Layer lstm1_
I0925 22:15:12.839794 23623 net.cpp:399] lstm1_ -> c_0
I0925 22:15:12.839807 23623 net.cpp:399] lstm1_ -> h_0
I0925 22:15:12.839911 23623 net.cpp:141] Setting up lstm1_
I0925 22:15:12.839925 23623 net.cpp:148] Top shape: 1 1 1000 (1000)
I0925 22:15:12.839931 23623 net.cpp:148] Top shape: 1 1 1000 (1000)
I0925 22:15:12.839934 23623 net.cpp:156] Memory required for data: 10004
I0925 22:15:12.839939 23623 layer_factory.hpp:77] Creating layer lstm1_cont_slice
I0925 22:15:12.839948 23623 net.cpp:91] Creating Layer lstm1_cont_slice
I0925 22:15:12.839953 23623 net.cpp:425] lstm1_cont_slice <- cont
I0925 22:15:12.839972 23623 net.cpp:399] lstm1_cont_slice -> cont_1
I0925 22:15:12.840025 23631 net.cpp:141] Setting up lstm1_h_conted_0
I0925 22:15:12.840037 23631 net.cpp:148] Top shape: 1 1 1000 (1000)
I0925 22:15:12.840042 23631 net.cpp:156] Memory required for data: 46016
I0925 22:15:12.840047 23631 layer_factory.hpp:77] Creating layer lstm1_transform_1
I0925 22:15:12.840066 23631 net.cpp:91] Creating Layer lstm1_transform_1
I0925 22:15:12.840072 23631 net.cpp:425] lstm1_transform_1 <- h_conted_0
I0925 22:15:12.840082 23631 net.cpp:399] lstm1_transform_1 -> W_hc_h_0
I0925 22:15:12.840078 23625 net.cpp:141] Setting up lstm1_unit_1
I0925 22:15:12.840100 23625 net.cpp:148] Top shape: 1 1 1000 (1000)
I0925 22:15:12.840112 23625 net.cpp:148] Top shape: 1 1 1000 (1000)
I0925 22:15:12.840121 23625 net.cpp:156] Memory required for data: 86016
I0925 22:15:12.840132 23625 layer_factory.hpp:77] Creating layer lstm1_
I0925 22:15:12.840150 23625 net.cpp:91] Creating Layer lstm1_
I0925 22:15:12.840154 23623 net.cpp:141] Setting up lstm1_cont_slice
I0925 22:15:12.840160 23625 net.cpp:425] lstm1_ <- c_1
I0925 22:15:12.840170 23623 net.cpp:148] Top shape: 1 1 (1)
I0925 22:15:12.840174 23625 net.cpp:399] lstm1_ -> c_T
I0925 22:15:12.840178 23623 net.cpp:156] Memory required for data: 10008
I0925 22:15:12.840186 23623 layer_factory.hpp:77] Creating layer cont_1_lstm1_cont_slice_0_split
I0925 22:15:12.840198 23623 net.cpp:91] Creating Layer cont_1_lstm1_cont_slice_0_split
I0925 22:15:12.840205 23623 net.cpp:425] cont_1_lstm1_cont_slice_0_split <- cont_1
I0925 22:15:12.840217 23623 net.cpp:399] cont_1_lstm1_cont_slice_0_split -> cont_1_lstm1_cont_slice_0_split_0
I0925 22:15:12.840247 23623 net.cpp:399] cont_1_lstm1_cont_slice_0_split -> cont_1_lstm1_cont_slice_0_split_1
I0925 22:15:12.842774 23621 net.cpp:141] Setting up lstm1_
I0925 22:15:12.842818 23625 net.cpp:141] Setting up lstm1_
I0925 22:15:12.842830 23621 net.cpp:148] Top shape: 1 1 1000 (1000)
I0925 22:15:12.842838 23621 net.cpp:148] Top shape: 1 1 1000 (1000)
I0925 22:15:12.842842 23621 net.cpp:156] Memory required for data: 10004
I0925 22:15:12.842841 23625 net.cpp:148] Top shape: 1 1 1000 (1000)
I0925 22:15:12.842851 23621 layer_factory.hpp:77] Creating layer lstm1_cont_slice
I0925 22:15:12.842852 23625 net.cpp:156] Memory required for data: 90016
I0925 22:15:12.842864 23625 layer_factory.hpp:77] Creating layer lstm1_h_concat
I0925 22:15:12.842874 23621 net.cpp:91] Creating Layer lstm1_cont_slice
I0925 22:15:12.842881 23621 net.cpp:425] lstm1_cont_slice <- cont
I0925 22:15:12.842888 23625 net.cpp:91] Creating Layer lstm1_h_concat
I0925 22:15:12.842900 23621 net.cpp:399] lstm1_cont_slice -> cont_1
I0925 22:15:12.842903 23625 net.cpp:425] lstm1_h_concat <- h_1
I0925 22:15:12.842919 23625 net.cpp:399] lstm1_h_concat -> h
I0925 22:15:12.842981 23623 net.cpp:141] Setting up cont_1_lstm1_cont_slice_0_split
I0925 22:15:12.843001 23623 net.cpp:148] Top shape: 1 1 (1)
I0925 22:15:12.843008 23623 net.cpp:148] Top shape: 1 1 (1)
I0925 22:15:12.843013 23623 net.cpp:156] Memory required for data: 10016
I0925 22:15:12.843019 23623 layer_factory.hpp:77] Creating layer lstm1_x_transform
I0925 22:15:12.843053 23623 net.cpp:91] Creating Layer lstm1_x_transform
I0925 22:15:12.843060 23623 net.cpp:425] lstm1_x_transform <- x
I0925 22:15:12.843070 23623 net.cpp:399] lstm1_x_transform -> W_xc_x
I0925 22:15:12.853039 23621 net.cpp:141] Setting up lstm1_cont_slice
I0925 22:15:12.853066 23625 net.cpp:141] Setting up lstm1_h_concat
I0925 22:15:12.853111 23625 net.cpp:148] Top shape: 1 1 1000 (1000)
I0925 22:15:12.853111 23621 net.cpp:148] Top shape: 1 1 (1)
I0925 22:15:12.853130 23625 net.cpp:156] Memory required for data: 94016
I0925 22:15:12.853137 23621 net.cpp:156] Memory required for data: 10008
I0925 22:15:12.853143 23625 layer_factory.hpp:77] Creating layer h_pseudoloss
I0925 22:15:12.853147 23621 layer_factory.hpp:77] Creating layer cont_1_lstm1_cont_slice_0_split
I0925 22:15:12.853165 23625 net.cpp:91] Creating Layer h_pseudoloss
I0925 22:15:12.853165 23621 net.cpp:91] Creating Layer cont_1_lstm1_cont_slice_0_split
I0925 22:15:12.853183 23625 net.cpp:425] h_pseudoloss <- h
I0925 22:15:12.853190 23621 net.cpp:425] cont_1_lstm1_cont_slice_0_split <- cont_1
I0925 22:15:12.853202 23625 net.cpp:399] h_pseudoloss -> h_pseudoloss
I0925 22:15:12.853204 23621 net.cpp:399] cont_1_lstm1_cont_slice_0_split -> cont_1_lstm1_cont_slice_0_split_0
I0925 22:15:12.853226 23621 net.cpp:399] cont_1_lstm1_cont_slice_0_split -> cont_1_lstm1_cont_slice_0_split_1
I0925 22:15:12.853471 23621 net.cpp:141] Setting up cont_1_lstm1_cont_slice_0_split
I0925 22:15:12.853487 23621 net.cpp:148] Top shape: 1 1 (1)
I0925 22:15:12.853498 23621 net.cpp:148] Top shape: 1 1 (1)
I0925 22:15:12.853507 23621 net.cpp:156] Memory required for data: 10016
I0925 22:15:12.853514 23621 layer_factory.hpp:77] Creating layer lstm1_x_transform
I0925 22:15:12.853539 23621 net.cpp:91] Creating Layer lstm1_x_transform
I0925 22:15:12.853570 23621 net.cpp:425] lstm1_x_transform <- x
I0925 22:15:12.853587 23621 net.cpp:399] lstm1_x_transform -> W_xc_x
I0925 22:15:12.861063 23625 net.cpp:141] Setting up h_pseudoloss
…
I0925 22:15:12.861258 23625 net.cpp:219] lstm1_ does not need backward computation.
I0925 22:15:12.861263 23625 net.cpp:261] This network produces output c_T
I0925 22:15:12.861273 23625 net.cpp:261] This network produces output h_pseudoloss
I0925 22:15:12.861302 23625 net.cpp:274] Network initialization done.
I0925 22:15:12.861377 23625 recurrent_layer.cpp:150] Adding parameter 0: W_xc
I0925 22:15:12.861387 23625 recurrent_layer.cpp:150] Adding parameter 1: b_c
I0925 22:15:12.861393 23625 recurrent_layer.cpp:150] Adding parameter 2: W_hc
I0925 22:15:12.872511 23625 net.cpp:141] Setting up lstm1
I0925 22:15:12.872565 23625 net.cpp:148] Top shape: 1 1 1000 (1000)
I0925 22:15:12.872575 23625 net.cpp:156] Memory required for data: 26408
I0925 22:15:12.872603 23625 layer_factory.hpp:77] Creating layer concat
I0925 22:15:12.872627 23625 net.cpp:91] Creating Layer concat
I0925 22:15:12.872637 23625 net.cpp:425] concat <- lstm1
I0925 22:15:12.872648 23625 net.cpp:425] concat <- embedded_input_sentence
I0925 22:15:12.872658 23625 net.cpp:425] concat <- reshaped_stage_indicator
I0925 22:15:12.872668 23625 net.cpp:399] concat -> lstm1_video_sequence
I0925 22:15:12.872750 23625 net.cpp:141] Setting up concat
I0925 22:15:12.872764 23625 net.cpp:148] Top shape: 1 1 1501 (1501)
I0925 22:15:12.872771 23625 net.cpp:156] Memory required for data: 32412
I0925 22:15:12.872779 23625 layer_factory.hpp:77] Creating layer lstm2
I0925 22:15:12.872798 23625 net.cpp:91] Creating Layer lstm2
I0925 22:15:12.872807 23625 net.cpp:425] lstm2 <- lstm1_video_sequence
I0925 22:15:12.872817 23625 net.cpp:425] lstm2 <- cont_sentence_input_1_split_1
I0925 22:15:12.872828 23625 net.cpp:399] lstm2 -> lstm2
I0925 22:15:12.872843 23625 recurrent_layer.cpp:20] Initializing recurrent layer: assuming input batch contains 1 timesteps of 1 independent streams.
I0925 22:15:12.873251 23625 net.cpp:49] Initializing net from parameters: 
layer {
  name: "lstm2_"
  type: "Input"
  top: "x"
  top: "cont"
  input_param {
    shape {
      dim: 1
      dim: 1
      dim: 1501
    }
    shape {
      dim: 1
      dim: 1
    }
  }
}
layer {
  name: "lstm2_"
  type: "Input"
  top: "c_0"
  top: "h_0"
  input_param {
    shape {
      dim: 1
      dim: 1
      dim: 1000
    }
    shape {
      dim: 1
      dim: 1
      dim: 1000
    }
  }
}
layer {
  name: "lstm2_cont_slice"
  type: "Slice"
  bottom: "cont"
  top: "cont_1"
  slice_param {
    axis: 0
  }
}
layer {
  name: "lstm2_x_transform"
  type: "InnerProduct"
  bottom: "x"
  top: "W_xc_x"
  param {
    name: "W_xc"
  }
  param {
    name: "b_c"
  }
  propagate_down: true
  inner_product_param {
    num_output: 4000
    bias_term: true
    weight_filler {
      type: "uniform"
      min: -0.08
      max: 0.08
    }
    bias_filler {
      type: "constant"
      value: 0
    }
    axis: 2
  }
}
layer {
  name: "lstm2_W_xc_x_slice"
  type: "Slice"
  bottom: "W_xc_x"
  top: "W_xc_x_1"
  slice_param {
    axis: 0
  }
}
layer {
  name: "lstm2_h_conted_0"
  type: "Scale"
  bottom: "h_0"
  bottom: "cont_1"
  top: "h_conted_0"
  scale_param {
    axis: 0
  }
}
layer {
  name: "lstm2_transform_1"
  type: "InnerProduct"
  bottom: "h_conted_0"
  top: "W_hc_h_0"
  param {
    name: "W_hc"
  }
  inner_product_param {
    num_output: 4000
    bias_term: false
    weight_filler {
      type: "uniform"
      min: -0.08
      max: 0.08
    }
    axis: 2
  }
}
layer {
  name: "lstm2_gate_input_1"
  type: "Eltwise"
  bottom: "W_hc_h_0"
  bottom: "W_xc_x_1"
  top: "gate_input_1"
  eltwise_param {
    operation: SUM
  }
}
layer {
  name: "lstm2_unit_1"
  type: "LSTMUnit"
  bottom: "c_0"
  bottom: "gate_input_1"
  bottom: "cont_1"
  top: "c_1"
  top: "h_1"
}
layer {
  name: "lstm2_"
  type: "Split"
  bottom: "c_1"
  top: "c_T"
}
layer {
  name: "lstm2_h_concat"
  type: "Concat"
  bottom: "h_1"
  top: "h"
  concat_param {
    axis: 0
  }
}
layer {
  name: "h_pseudoloss"
  type: "Reduction"
  bottom: "h"
  top: "h_pseudoloss"
  loss_weight: 1
}
I0925 22:15:12.873383 23625 layer_factory.hpp:77] Creating layer lstm2_
I0925 22:15:12.873399 23625 net.cpp:91] Creating Layer lstm2_
I0925 22:15:12.873409 23625 net.cpp:399] lstm2_ -> x
I0925 22:15:12.873425 23625 net.cpp:399] lstm2_ -> cont
I0925 22:15:12.874006 23625 net.cpp:141] Setting up lstm2_
I0925 22:15:12.874023 23625 net.cpp:148] Top shape: 1 1 1501 (1501)
I0925 22:15:12.874030 23625 net.cpp:148] Top shape: 1 1 (1)
I0925 22:15:12.874034 23625 net.cpp:156] Memory required for data: 6008
I0925 22:15:12.874039 23625 layer_factory.hpp:77] Creating layer lstm2_
I0925 22:15:12.874050 23625 net.cpp:91] Creating Layer lstm2_
I0925 22:15:12.874058 23625 net.cpp:399] lstm2_ -> c_0
I0925 22:15:12.874069 23625 net.cpp:399] lstm2_ -> h_0
I0925 22:15:12.880625 23625 net.cpp:141] Setting up lstm2_
I0925 22:15:12.880676 23625 net.cpp:148] Top shape: 1 1 1000 (1000)
I0925 22:15:12.880682 23625 net.cpp:148] Top shape: 1 1 1000 (1000)
I0925 22:15:12.880686 23625 net.cpp:156] Memory required for data: 14008
I0925 22:15:12.880695 23625 layer_factory.hpp:77] Creating layer lstm2_cont_slice
I0925 22:15:12.880718 23625 net.cpp:91] Creating Layer lstm2_cont_slice
I0925 22:15:12.880725 23625 net.cpp:425] lstm2_cont_slice <- cont
I0925 22:15:12.880741 23625 net.cpp:399] lstm2_cont_slice -> cont_1
I0925 22:15:12.881052 23625 net.cpp:141] Setting up lstm2_cont_slice
I0925 22:15:12.881074 23625 net.cpp:148] Top shape: 1 1 (1)
I0925 22:15:12.881081 23625 net.cpp:156] Memory required for data: 14012
I0925 22:15:12.881089 23625 layer_factory.hpp:77] Creating layer cont_1_lstm2_cont_slice_0_split
I0925 22:15:12.881103 23625 net.cpp:91] Creating Layer cont_1_lstm2_cont_slice_0_split
I0925 22:15:12.881110 23625 net.cpp:425] cont_1_lstm2_cont_slice_0_split <- cont_1
I0925 22:15:12.881121 23625 net.cpp:399] cont_1_lstm2_cont_slice_0_split -> cont_1_lstm2_cont_slice_0_split_0
I0925 22:15:12.881140 23625 net.cpp:399] cont_1_lstm2_cont_slice_0_split -> cont_1_lstm2_cont_slice_0_split_1
I0925 22:15:12.881217 23625 net.cpp:141] Setting up cont_1_lstm2_cont_slice_0_split
I0925 22:15:12.881230 23625 net.cpp:148] Top shape: 1 1 (1)
I0925 22:15:12.881239 23625 net.cpp:148] Top shape: 1 1 (1)
I0925 22:15:12.881245 23625 net.cpp:156] Memory required for data: 14020
I0925 22:15:12.881253 23625 layer_factory.hpp:77] Creating layer lstm2_x_transform
I0925 22:15:12.881276 23625 net.cpp:91] Creating Layer lstm2_x_transform
I0925 22:15:12.881284 23625 net.cpp:425] lstm2_x_transform <- x
I0925 22:15:12.881297 23625 net.cpp:399] lstm2_x_transform -> W_xc_x
I0925 22:15:12.898830 23631 net.cpp:141] Setting up lstm1_transform_1
I0925 22:15:12.898891 23631 net.cpp:148] Top shape: 1 1 4000 (4000)
I0925 22:15:12.898902 23631 net.cpp:156] Memory required for data: 62016
I0925 22:15:12.898931 23631 layer_factory.hpp:77] Creating layer lstm1_gate_input_1
I0925 22:15:12.899513 23649 net.cpp:141] Setting up lstm2_x_transform
I0925 22:15:12.899514 23631 net.cpp:91] Creating Layer lstm1_gate_input_1
I0925 22:15:12.899545 23649 net.cpp:148] Top shape: 1 1 4000 (4000)
I0925 22:15:12.899554 23631 net.cpp:425] lstm1_gate_input_1 <- W_hc_h_0
I0925 22:15:12.899554 23623 net.cpp:141] Setting up lstm1_x_transform
I0925 22:15:12.899576 23631 net.cpp:425] lstm1_gate_input_1 <- W_xc_x_1
I0925 22:15:12.899580 23623 net.cpp:148] Top shape: 1 1 4000 (4000)
I0925 22:15:12.899590 23623 net.cpp:156] Memory required for data: 26016
I0925 22:15:12.899596 23631 net.cpp:399] lstm1_gate_input_1 -> gate_input_1
I0925 22:15:12.899610 23623 layer_factory.hpp:77] Creating layer lstm1_W_xc_x_slice
I0925 22:15:12.899631 23623 net.cpp:91] Creating Layer lstm1_W_xc_x_slice
I0925 22:15:12.899641 23623 net.cpp:425] lstm1_W_xc_x_slice <- W_xc_x
I0925 22:15:12.899653 23623 net.cpp:399] lstm1_W_xc_x_slice -> W_xc_x_1
I0925 22:15:12.899554 23649 net.cpp:156] Memory required for data: 30020
I0925 22:15:12.900697 23649 layer_factory.hpp:77] Creating layer lstm2_W_xc_x_slice
I0925 22:15:12.900717 23649 net.cpp:91] Creating Layer lstm2_W_xc_x_slice
I0925 22:15:12.900727 23649 net.cpp:425] lstm2_W_xc_x_slice <- W_xc_x
I0925 22:15:12.900738 23649 net.cpp:399] lstm2_W_xc_x_slice -> W_xc_x_1
I0925 22:15:12.902304 23631 net.cpp:141] Setting up lstm1_gate_input_1
I0925 22:15:12.902346 23623 net.cpp:141] Setting up lstm1_W_xc_x_slice
I0925 22:15:12.902359 23631 net.cpp:148] Top shape: 1 1 4000 (4000)
I0925 22:15:12.902370 23623 net.cpp:148] Top shape: 1 1 4000 (4000)
I0925 22:15:12.902372 23631 net.cpp:156] Memory required for data: 78016
I0925 22:15:12.902379 23623 net.cpp:156] Memory required for data: 42016
I0925 22:15:12.902386 23631 layer_factory.hpp:77] Creating layer lstm1_unit_1
I0925 22:15:12.902389 23623 layer_factory.hpp:77] Creating layer lstm1_h_conted_0
I0925 22:15:12.902403 23649 net.cpp:141] Setting up lstm2_W_xc_x_slice
I0925 22:15:12.902433 23631 net.cpp:91] Creating Layer lstm1_unit_1
I0925 22:15:12.902441 23649 net.cpp:148] Top shape: 1 1 4000 (4000)
I0925 22:15:12.902449 23649 net.cpp:156] Memory required for data: 46020
I0925 22:15:12.902437 23623 net.cpp:91] Creating Layer lstm1_h_conted_0
I0925 22:15:12.902458 23649 layer_factory.hpp:77] Creating layer lstm2_h_conted_0
I0925 22:15:12.902459 23631 net.cpp:425] lstm1_unit_1 <- c_0
I0925 22:15:12.902462 23623 net.cpp:425] lstm1_h_conted_0 <- h_0
I0925 22:15:12.902472 23649 net.cpp:91] Creating Layer lstm2_h_conted_0
I0925 22:15:12.902475 23623 net.cpp:425] lstm1_h_conted_0 <- cont_1_lstm1_cont_slice_0_split_0
I0925 22:15:12.902482 23649 net.cpp:425] lstm2_h_conted_0 <- h_0
I0925 22:15:12.902494 23649 net.cpp:425] lstm2_h_conted_0 <- cont_1_lstm2_cont_slice_0_split_0
I0925 22:15:12.902490 23621 net.cpp:141] Setting up lstm1_x_transform
I0925 22:15:12.902504 23623 net.cpp:399] lstm1_h_conted_0 -> h_conted_0
I0925 22:15:12.902508 23649 net.cpp:399] lstm2_h_conted_0 -> h_conted_0
I0925 22:15:12.902513 23621 net.cpp:148] Top shape: 1 1 4000 (4000)
I0925 22:15:12.902523 23621 net.cpp:156] Memory required for data: 26016
I0925 22:15:12.902544 23621 layer_factory.hpp:77] Creating layer lstm1_W_xc_x_slice
I0925 22:15:12.902564 23621 net.cpp:91] Creating Layer lstm1_W_xc_x_slice
I0925 22:15:12.902576 23621 net.cpp:425] lstm1_W_xc_x_slice <- W_xc_x
I0925 22:15:12.902590 23621 net.cpp:399] lstm1_W_xc_x_slice -> W_xc_x_1
I0925 22:15:12.902667 23621 net.cpp:141] Setting up lstm1_W_xc_x_slice
I0925 22:15:12.902683 23621 net.cpp:148] Top shape: 1 1 4000 (4000)
I0925 22:15:12.902690 23621 net.cpp:156] Memory required for data: 42016
I0925 22:15:12.902698 23621 layer_factory.hpp:77] Creating layer lstm1_h_conted_0
I0925 22:15:12.902711 23621 net.cpp:91] Creating Layer lstm1_h_conted_0
I0925 22:15:12.902719 23621 net.cpp:425] lstm1_h_conted_0 <- h_0
I0925 22:15:12.902729 23621 net.cpp:425] lstm1_h_conted_0 <- cont_1_lstm1_cont_slice_0_split_0
I0925 22:15:12.902745 23621 net.cpp:399] lstm1_h_conted_0 -> h_conted_0
I0925 22:15:12.902953 23623 net.cpp:141] Setting up lstm1_h_conted_0
I0925 22:15:12.902973 23623 net.cpp:148] Top shape: 1 1 1000 (1000)
I0925 22:15:12.902982 23623 net.cpp:156] Memory required for data: 46016
I0925 22:15:12.902990 23623 layer_factory.hpp:77] Creating layer lstm1_transform_1
I0925 22:15:12.903014 23623 net.cpp:91] Creating Layer lstm1_transform_1
I0925 22:15:12.903024 23623 net.cpp:425] lstm1_transform_1 <- h_conted_0
I0925 22:15:12.903031 23649 net.cpp:141] Setting up lstm2_h_conted_0
I0925 22:15:12.903039 23623 net.cpp:399] lstm1_transform_1 -> W_hc_h_0
I0925 22:15:12.903048 23649 net.cpp:148] Top shape: 1 1 1000 (1000)
I0925 22:15:12.903058 23649 net.cpp:156] Memory required for data: 50020
I0925 22:15:12.903065 23649 layer_factory.hpp:77] Creating layer lstm2_transform_1
I0925 22:15:12.903079 23649 net.cpp:91] Creating Layer lstm2_transform_1
I0925 22:15:12.903087 23649 net.cpp:425] lstm2_transform_1 <- h_conted_0
I0925 22:15:12.903101 23649 net.cpp:399] lstm2_transform_1 -> W_hc_h_0
I0925 22:15:12.902477 23631 net.cpp:425] lstm1_unit_1 <- gate_input_1
I0925 22:15:12.904002 23631 net.cpp:425] lstm1_unit_1 <- cont_1_lstm1_cont_slice_0_split_1
I0925 22:15:12.904018 23631 net.cpp:399] lstm1_unit_1 -> c_1
I0925 22:15:12.904034 23631 net.cpp:399] lstm1_unit_1 -> h_1
I0925 22:15:12.911489 23621 net.cpp:141] Setting up lstm1_h_conted_0
I0925 22:15:12.911552 23621 net.cpp:148] Top shape: 1 1 1000 (1000)
I0925 22:15:12.911563 23621 net.cpp:156] Memory required for data: 46016
I0925 22:15:12.911576 23621 layer_factory.hpp:77] Creating layer lstm1_transform_1
I0925 22:15:12.911619 23621 net.cpp:91] Creating Layer lstm1_transform_1
I0925 22:15:12.911633 23621 net.cpp:425] lstm1_transform_1 <- h_conted_0
I0925 22:15:12.911635 23631 net.cpp:141] Setting up lstm1_unit_1
I0925 22:15:12.911653 23621 net.cpp:399] lstm1_transform_1 -> W_hc_h_0
I0925 22:15:12.911656 23631 net.cpp:148] Top shape: 1 1 1000 (1000)
I0925 22:15:12.911669 23631 net.cpp:148] Top shape: 1 1 1000 (1000)
I0925 22:15:12.911675 23631 net.cpp:156] Memory required for data: 86016
I0925 22:15:12.911684 23631 layer_factory.hpp:77] Creating layer lstm1_
I0925 22:15:12.911698 23631 net.cpp:91] Creating Layer lstm1_
I0925 22:15:12.911707 23631 net.cpp:425] lstm1_ <- c_1
I0925 22:15:12.911741 23631 net.cpp:399] lstm1_ -> c_T
I0925 22:15:12.920037 23631 net.cpp:141] Setting up lstm1_
I0925 22:15:12.920086 23631 net.cpp:148] Top shape: 1 1 1000 (1000)
I0925 22:15:12.920092 23631 net.cpp:156] Memory required for data: 90016
I0925 22:15:12.920101 23631 layer_factory.hpp:77] Creating layer lstm1_h_concat
I0925 22:15:12.920120 23631 net.cpp:91] Creating Layer lstm1_h_concat
I0925 22:15:12.920126 23631 net.cpp:425] lstm1_h_concat <- h_1
I0925 22:15:12.920140 23631 net.cpp:399] lstm1_h_concat -> h
I0925 22:15:12.920250 23631 net.cpp:141] Setting up lstm1_h_concat
I0925 22:15:12.920261 23631 net.cpp:148] Top shape: 1 1 1000 (1000)
I0925 22:15:12.920266 23631 net.cpp:156] Memory required for data: 94016
I0925 22:15:12.920271 23631 layer_factory.hpp:77] Creating layer h_pseudoloss
I0925 22:15:12.920281 23631 net.cpp:91] Creating Layer h_pseudoloss
I0925 22:15:12.920286 23631 net.cpp:425] h_pseudoloss <- h
I0925 22:15:12.920295 23631 net.cpp:399] h_pseudoloss -> h_pseudoloss
I0925 22:15:12.934870 23655 net.cpp:141] Setting up lstm2_x_transform
I0925 22:15:12.934932 23655 net.cpp:148] Top shape: 1 1 4000 (4000)
I0925 22:15:12.934934 23631 net.cpp:141] Setting up h_pseudoloss
I0925 22:15:12.934942 23655 net.cpp:156] Memory required for data: 30020
I0925 22:15:12.934969 23631 net.cpp:148] Top shape: (1)
I0925 22:15:12.934978 23631 net.cpp:151]     with loss weight 1
I0925 22:15:12.934993 23655 layer_factory.hpp:77] Creating layer lstm2_W_xc_x_slice
I0925 22:15:12.934996 23631 net.cpp:156] Memory required for data: 94020
…
I0925 22:15:12.935138 23631 net.cpp:219] lstm1_ does not need backward computation.
I0925 22:15:12.935144 23631 net.cpp:261] This network produces output c_T
I0925 22:15:12.935151 23631 net.cpp:261] This network produces output h_pseudoloss
I0925 22:15:12.935175 23631 net.cpp:274] Network initialization done.
I0925 22:15:12.935240 23631 recurrent_layer.cpp:150] Adding parameter 0: W_xc
I0925 22:15:12.935248 23631 recurrent_layer.cpp:150] Adding parameter 1: b_c
I0925 22:15:12.935256 23631 recurrent_layer.cpp:150] Adding parameter 2: W_hc
I0925 22:15:12.936381 23655 net.cpp:141] Setting up lstm2_W_xc_x_slice
I0925 22:15:12.936414 23655 net.cpp:148] Top shape: 1 1 4000 (4000)
I0925 22:15:12.936421 23655 net.cpp:156] Memory required for data: 46020
I0925 22:15:12.936430 23655 layer_factory.hpp:77] Creating layer lstm2_h_conted_0
I0925 22:15:12.936450 23655 net.cpp:91] Creating Layer lstm2_h_conted_0
I0925 22:15:12.936460 23655 net.cpp:425] lstm2_h_conted_0 <- h_0
I0925 22:15:12.936472 23655 net.cpp:425] lstm2_h_conted_0 <- cont_1_lstm2_cont_slice_0_split_0
I0925 22:15:12.936486 23655 net.cpp:399] lstm2_h_conted_0 -> h_conted_0
I0925 22:15:12.937760 23631 net.cpp:141] Setting up lstm1
I0925 22:15:12.937789 23631 net.cpp:148] Top shape: 1 1 1000 (1000)
I0925 22:15:12.937796 23631 net.cpp:156] Memory required for data: 26408
I0925 22:15:12.937810 23655 net.cpp:141] Setting up lstm2_h_conted_0
I0925 22:15:12.937820 23631 layer_factory.hpp:77] Creating layer concat
I0925 22:15:12.937827 23655 net.cpp:148] Top shape: 1 1 1000 (1000)
I0925 22:15:12.937835 23655 net.cpp:156] Memory required for data: 50020
I0925 22:15:12.937836 23631 net.cpp:91] Creating Layer concat
I0925 22:15:12.937844 23655 layer_factory.hpp:77] Creating layer lstm2_transform_1
I0925 22:15:12.937846 23631 net.cpp:425] concat <- lstm1
I0925 22:15:12.937857 23631 net.cpp:425] concat <- embedded_input_sentence
I0925 22:15:12.937865 23655 net.cpp:91] Creating Layer lstm2_transform_1
I0925 22:15:12.937865 23631 net.cpp:425] concat <- reshaped_stage_indicator
I0925 22:15:12.937881 23655 net.cpp:425] lstm2_transform_1 <- h_conted_0
I0925 22:15:12.937888 23631 net.cpp:399] concat -> lstm1_video_sequence
I0925 22:15:12.937903 23655 net.cpp:399] lstm2_transform_1 -> W_hc_h_0
I0925 22:15:12.943366 23631 net.cpp:141] Setting up concat
I0925 22:15:12.943414 23631 net.cpp:148] Top shape: 1 1 1501 (1501)
I0925 22:15:12.943423 23631 net.cpp:156] Memory required for data: 32412
I0925 22:15:12.943434 23631 layer_factory.hpp:77] Creating layer lstm2
I0925 22:15:12.943461 23631 net.cpp:91] Creating Layer lstm2
I0925 22:15:12.943471 23631 net.cpp:425] lstm2 <- lstm1_video_sequence
I0925 22:15:12.943485 23631 net.cpp:425] lstm2 <- cont_sentence_input_1_split_1
I0925 22:15:12.943497 23631 net.cpp:399] lstm2 -> lstm2
I0925 22:15:12.943521 23631 recurrent_layer.cpp:20] Initializing recurrent layer: assuming input batch contains 1 timesteps of 1 independent streams.
I0925 22:15:12.951807 23631 net.cpp:49] Initializing net from parameters: 
layer {
  name: "lstm2_"
  type: "Input"
  top: "x"
  top: "cont"
  input_param {
    shape {
      dim: 1
      dim: 1
      dim: 1501
    }
    shape {
      dim: 1
      dim: 1
    }
  }
}
layer {
  name: "lstm2_"
  type: "Input"
  top: "c_0"
  top: "h_0"
  input_param {
    shape {
      dim: 1
      dim: 1
      dim: 1000
    }
    shape {
      dim: 1
      dim: 1
      dim: 1000
    }
  }
}
layer {
  name: "lstm2_cont_slice"
  type: "Slice"
  bottom: "cont"
  top: "cont_1"
  slice_param {
    axis: 0
  }
}
layer {
  name: "lstm2_x_transform"
  type: "InnerProduct"
  bottom: "x"
  top: "W_xc_x"
  param {
    name: "W_xc"
  }
  param {
    name: "b_c"
  }
  propagate_down: true
  inner_product_param {
    num_output: 4000
    bias_term: true
    weight_filler {
      type: "uniform"
      min: -0.08
      max: 0.08
    }
    bias_filler {
      type: "constant"
      value: 0
    }
    axis: 2
  }
}
layer {
  name: "lstm2_W_xc_x_slice"
  type: "Slice"
  bottom: "W_xc_x"
  top: "W_xc_x_1"
  slice_param {
    axis: 0
  }
}
layer {
  name: "lstm2_h_conted_0"
  type: "Scale"
  bottom: "h_0"
  bottom: "cont_1"
  top: "h_conted_0"
  scale_param {
    axis: 0
  }
}
layer {
  name: "lstm2_transform_1"
  type: "InnerProduct"
  bottom: "h_conted_0"
  top: "W_hc_h_0"
  param {
    name: "W_hc"
  }
  inner_product_param {
    num_output: 4000
    bias_term: false
    weight_filler {
      type: "uniform"
      min: -0.08
      max: 0.08
    }
    axis: 2
  }
}
layer {
  name: "lstm2_gate_input_1"
  type: "Eltwise"
  bottom: "W_hc_h_0"
  bottom: "W_xc_x_1"
  top: "gate_input_1"
  eltwise_param {
    operation: SUM
  }
}
layer {
  name: "lstm2_unit_1"
  type: "LSTMUnit"
  bottom: "c_0"
  bottom: "gate_input_1"
  bottom: "cont_1"
  top: "c_1"
  top: "h_1"
}
layer {
  name: "lstm2_"
  type: "Split"
  bottom: "c_1"
  top: "c_T"
}
layer {
  name: "lstm2_h_concat"
  type: "Concat"
  bottom: "h_1"
  top: "h"
  concat_param {
    axis: 0
  }
}
layer {
  name: "h_pseudoloss"
  type: "Reduction"
  bottom: "h"
  top: "h_pseudoloss"
  loss_weight: 1
}
I0925 22:15:12.952102 23631 layer_factory.hpp:77] Creating layer lstm2_
I0925 22:15:12.952124 23631 net.cpp:91] Creating Layer lstm2_
I0925 22:15:12.952132 23631 net.cpp:399] lstm2_ -> x
I0925 22:15:12.952152 23631 net.cpp:399] lstm2_ -> cont
I0925 22:15:12.953135 23623 net.cpp:141] Setting up lstm1_transform_1
I0925 22:15:12.953158 23623 net.cpp:148] Top shape: 1 1 4000 (4000)
I0925 22:15:12.953167 23623 net.cpp:156] Memory required for data: 62016
I0925 22:15:12.953187 23623 layer_factory.hpp:77] Creating layer lstm1_gate_input_1
I0925 22:15:12.953193 23631 net.cpp:141] Setting up lstm2_
I0925 22:15:12.953208 23631 net.cpp:148] Top shape: 1 1 1501 (1501)
I0925 22:15:12.953208 23623 net.cpp:91] Creating Layer lstm1_gate_input_1
I0925 22:15:12.953227 23631 net.cpp:148] Top shape: 1 1 (1)
I0925 22:15:12.953229 23623 net.cpp:425] lstm1_gate_input_1 <- W_hc_h_0
I0925 22:15:12.953234 23631 net.cpp:156] Memory required for data: 6008
I0925 22:15:12.953240 23623 net.cpp:425] lstm1_gate_input_1 <- W_xc_x_1
I0925 22:15:12.953241 23631 layer_factory.hpp:77] Creating layer lstm2_
I0925 22:15:12.953294 23631 net.cpp:91] Creating Layer lstm2_
I0925 22:15:12.953292 23623 net.cpp:399] lstm1_gate_input_1 -> gate_input_1
I0925 22:15:12.953312 23631 net.cpp:399] lstm2_ -> c_0
I0925 22:15:12.953330 23631 net.cpp:399] lstm2_ -> h_0
I0925 22:15:12.953369 23623 net.cpp:141] Setting up lstm1_gate_input_1
I0925 22:15:12.953385 23623 net.cpp:148] Top shape: 1 1 4000 (4000)
I0925 22:15:12.953392 23623 net.cpp:156] Memory required for data: 78016
I0925 22:15:12.953402 23623 layer_factory.hpp:77] Creating layer lstm1_unit_1
I0925 22:15:12.953420 23623 net.cpp:91] Creating Layer lstm1_unit_1
I0925 22:15:12.953428 23623 net.cpp:425] lstm1_unit_1 <- c_0
I0925 22:15:12.953433 23623 net.cpp:425] lstm1_unit_1 <- gate_input_1
I0925 22:15:12.953438 23623 net.cpp:425] lstm1_unit_1 <- cont_1_lstm1_cont_slice_0_split_1
I0925 22:15:12.953450 23623 net.cpp:399] lstm1_unit_1 -> c_1
I0925 22:15:12.953465 23623 net.cpp:399] lstm1_unit_1 -> h_1
I0925 22:15:12.953501 23631 net.cpp:141] Setting up lstm2_
I0925 22:15:12.953513 23631 net.cpp:148] Top shape: 1 1 1000 (1000)
I0925 22:15:12.953519 23631 net.cpp:148] Top shape: 1 1 1000 (1000)
I0925 22:15:12.953523 23631 net.cpp:156] Memory required for data: 14008
I0925 22:15:12.953531 23631 layer_factory.hpp:77] Creating layer lstm2_cont_slice
I0925 22:15:12.953544 23631 net.cpp:91] Creating Layer lstm2_cont_slice
I0925 22:15:12.953550 23631 net.cpp:425] lstm2_cont_slice <- cont
I0925 22:15:12.953562 23631 net.cpp:399] lstm2_cont_slice -> cont_1
I0925 22:15:12.953564 23625 net.cpp:141] Setting up lstm2_x_transform
I0925 22:15:12.953585 23625 net.cpp:148] Top shape: 1 1 4000 (4000)
I0925 22:15:12.953593 23625 net.cpp:156] Memory required for data: 30020
I0925 22:15:12.953611 23625 layer_factory.hpp:77] Creating layer lstm2_W_xc_x_slice
I0925 22:15:12.953629 23625 net.cpp:91] Creating Layer lstm2_W_xc_x_slice
I0925 22:15:12.953637 23625 net.cpp:425] lstm2_W_xc_x_slice <- W_xc_x
I0925 22:15:12.953644 23631 net.cpp:141] Setting up lstm2_cont_slice
I0925 22:15:12.953649 23625 net.cpp:399] lstm2_W_xc_x_slice -> W_xc_x_1
I0925 22:15:12.953668 23631 net.cpp:148] Top shape: 1 1 (1)
I0925 22:15:12.953677 23631 net.cpp:156] Memory required for data: 14012
I0925 22:15:12.953686 23631 layer_factory.hpp:77] Creating layer cont_1_lstm2_cont_slice_0_split
I0925 22:15:12.953706 23631 net.cpp:91] Creating Layer cont_1_lstm2_cont_slice_0_split
I0925 22:15:12.953712 23631 net.cpp:425] cont_1_lstm2_cont_slice_0_split <- cont_1
I0925 22:15:12.953722 23625 net.cpp:141] Setting up lstm2_W_xc_x_slice
I0925 22:15:12.953722 23631 net.cpp:399] cont_1_lstm2_cont_slice_0_split -> cont_1_lstm2_cont_slice_0_split_0
I0925 22:15:12.953744 23625 net.cpp:148] Top shape: 1 1 4000 (4000)
I0925 22:15:12.953752 23625 net.cpp:156] Memory required for data: 46020
I0925 22:15:12.953753 23631 net.cpp:399] cont_1_lstm2_cont_slice_0_split -> cont_1_lstm2_cont_slice_0_split_1
I0925 22:15:12.953760 23625 layer_factory.hpp:77] Creating layer lstm2_h_conted_0
I0925 22:15:12.953774 23625 net.cpp:91] Creating Layer lstm2_h_conted_0
I0925 22:15:12.953784 23625 net.cpp:425] lstm2_h_conted_0 <- h_0
I0925 22:15:12.953800 23625 net.cpp:425] lstm2_h_conted_0 <- cont_1_lstm2_cont_slice_0_split_0
I0925 22:15:12.953811 23625 net.cpp:399] lstm2_h_conted_0 -> h_conted_0
I0925 22:15:12.953835 23631 net.cpp:141] Setting up cont_1_lstm2_cont_slice_0_split
I0925 22:15:12.953850 23631 net.cpp:148] Top shape: 1 1 (1)
I0925 22:15:12.953860 23631 net.cpp:148] Top shape: 1 1 (1)
I0925 22:15:12.953866 23631 net.cpp:156] Memory required for data: 14020
I0925 22:15:12.953876 23631 layer_factory.hpp:77] Creating layer lstm2_x_transform
I0925 22:15:12.953898 23631 net.cpp:91] Creating Layer lstm2_x_transform
I0925 22:15:12.953907 23631 net.cpp:425] lstm2_x_transform <- x
I0925 22:15:12.953925 23631 net.cpp:399] lstm2_x_transform -> W_xc_x
I0925 22:15:12.954107 23625 net.cpp:141] Setting up lstm2_h_conted_0
I0925 22:15:12.954123 23625 net.cpp:148] Top shape: 1 1 1000 (1000)
I0925 22:15:12.954130 23625 net.cpp:156] Memory required for data: 50020
I0925 22:15:12.954138 23625 layer_factory.hpp:77] Creating layer lstm2_transform_1
I0925 22:15:12.954191 23625 net.cpp:91] Creating Layer lstm2_transform_1
I0925 22:15:12.954202 23625 net.cpp:425] lstm2_transform_1 <- h_conted_0
I0925 22:15:12.954216 23625 net.cpp:399] lstm2_transform_1 -> W_hc_h_0
I0925 22:15:12.966135 23623 net.cpp:141] Setting up lstm1_unit_1
I0925 22:15:12.966192 23623 net.cpp:148] Top shape: 1 1 1000 (1000)
I0925 22:15:12.966209 23623 net.cpp:148] Top shape: 1 1 1000 (1000)
I0925 22:15:12.966220 23623 net.cpp:156] Memory required for data: 86016
I0925 22:15:12.966235 23623 layer_factory.hpp:77] Creating layer lstm1_
I0925 22:15:12.966245 23649 net.cpp:141] Setting up lstm2_transform_1
I0925 22:15:12.966259 23623 net.cpp:91] Creating Layer lstm1_
I0925 22:15:12.966266 23649 net.cpp:148] Top shape: 1 1 4000 (4000)
I0925 22:15:12.966274 23623 net.cpp:425] lstm1_ <- c_1
I0925 22:15:12.966275 23649 net.cpp:156] Memory required for data: 66020
I0925 22:15:12.966316 23649 layer_factory.hpp:77] Creating layer lstm2_gate_input_1
I0925 22:15:12.966316 23623 net.cpp:399] lstm1_ -> c_T
I0925 22:15:12.966337 23649 net.cpp:91] Creating Layer lstm2_gate_input_1
I0925 22:15:12.966346 23649 net.cpp:425] lstm2_gate_input_1 <- W_hc_h_0
I0925 22:15:12.966356 23649 net.cpp:425] lstm2_gate_input_1 <- W_xc_x_1
I0925 22:15:12.966370 23649 net.cpp:399] lstm2_gate_input_1 -> gate_input_1
I0925 22:15:12.977300 23623 net.cpp:141] Setting up lstm1_
I0925 22:15:12.977344 23649 net.cpp:141] Setting up lstm2_gate_input_1
I0925 22:15:12.977357 23623 net.cpp:148] Top shape: 1 1 1000 (1000)
I0925 22:15:12.977365 23649 net.cpp:148] Top shape: 1 1 4000 (4000)
I0925 22:15:12.977368 23623 net.cpp:156] Memory required for data: 90016
I0925 22:15:12.977372 23649 net.cpp:156] Memory required for data: 82020
I0925 22:15:12.977380 23623 layer_factory.hpp:77] Creating layer lstm1_h_concat
I0925 22:15:12.977380 23649 layer_factory.hpp:77] Creating layer lstm2_unit_1
I0925 22:15:12.977414 23649 net.cpp:91] Creating Layer lstm2_unit_1
I0925 22:15:12.977416 23623 net.cpp:91] Creating Layer lstm1_h_concat
I0925 22:15:12.977423 23649 net.cpp:425] lstm2_unit_1 <- c_0
I0925 22:15:12.977427 23623 net.cpp:425] lstm1_h_concat <- h_1
I0925 22:15:12.977435 23649 net.cpp:425] lstm2_unit_1 <- gate_input_1
I0925 22:15:12.977442 23623 net.cpp:399] lstm1_h_concat -> h
I0925 22:15:12.977443 23649 net.cpp:425] lstm2_unit_1 <- cont_1_lstm2_cont_slice_0_split_1
I0925 22:15:12.977468 23649 net.cpp:399] lstm2_unit_1 -> c_1
I0925 22:15:12.977481 23649 net.cpp:399] lstm2_unit_1 -> h_1
I0925 22:15:12.977541 23621 net.cpp:141] Setting up lstm1_transform_1
I0925 22:15:12.977560 23621 net.cpp:148] Top shape: 1 1 4000 (4000)
I0925 22:15:12.977565 23621 net.cpp:156] Memory required for data: 62016
I0925 22:15:12.977581 23621 layer_factory.hpp:77] Creating layer lstm1_gate_input_1
I0925 22:15:12.977591 23623 net.cpp:141] Setting up lstm1_h_concat
I0925 22:15:12.977598 23621 net.cpp:91] Creating Layer lstm1_gate_input_1
I0925 22:15:12.977608 23623 net.cpp:148] Top shape: 1 1 1000 (1000)
I0925 22:15:12.977614 23621 net.cpp:425] lstm1_gate_input_1 <- W_hc_h_0
I0925 22:15:12.977617 23623 net.cpp:156] Memory required for data: 94016
I0925 22:15:12.977634 23621 net.cpp:425] lstm1_gate_input_1 <- W_xc_x_1
I0925 22:15:12.977635 23623 layer_factory.hpp:77] Creating layer h_pseudoloss
I0925 22:15:12.977656 23621 net.cpp:399] lstm1_gate_input_1 -> gate_input_1
I0925 22:15:12.977658 23649 net.cpp:141] Setting up lstm2_unit_1
I0925 22:15:12.977660 23623 net.cpp:91] Creating Layer h_pseudoloss
I0925 22:15:12.977670 23649 net.cpp:148] Top shape: 1 1 1000 (1000)
I0925 22:15:12.977670 23623 net.cpp:425] h_pseudoloss <- h
I0925 22:15:12.977677 23649 net.cpp:148] Top shape: 1 1 1000 (1000)
I0925 22:15:12.977681 23649 net.cpp:156] Memory required for data: 90020
I0925 22:15:12.977684 23623 net.cpp:399] h_pseudoloss -> h_pseudoloss
I0925 22:15:12.977687 23649 layer_factory.hpp:77] Creating layer lstm2_
I0925 22:15:12.977705 23649 net.cpp:91] Creating Layer lstm2_
I0925 22:15:12.977710 23649 net.cpp:425] lstm2_ <- c_1
I0925 22:15:12.977718 23649 net.cpp:399] lstm2_ -> c_T
I0925 22:15:12.977886 23621 net.cpp:141] Setting up lstm1_gate_input_1
I0925 22:15:12.977897 23621 net.cpp:148] Top shape: 1 1 4000 (4000)
I0925 22:15:12.977901 23621 net.cpp:156] Memory required for data: 78016
I0925 22:15:12.977906 23621 layer_factory.hpp:77] Creating layer lstm1_unit_1
I0925 22:15:12.977918 23621 net.cpp:91] Creating Layer lstm1_unit_1
I0925 22:15:12.977923 23621 net.cpp:425] lstm1_unit_1 <- c_0
I0925 22:15:12.977931 23621 net.cpp:425] lstm1_unit_1 <- gate_input_1
I0925 22:15:12.977936 23621 net.cpp:425] lstm1_unit_1 <- cont_1_lstm1_cont_slice_0_split_1
I0925 22:15:12.977942 23621 net.cpp:399] lstm1_unit_1 -> c_1
I0925 22:15:12.977952 23621 net.cpp:399] lstm1_unit_1 -> h_1
I0925 22:15:12.977970 23649 net.cpp:141] Setting up lstm2_
I0925 22:15:12.977983 23649 net.cpp:148] Top shape: 1 1 1000 (1000)
I0925 22:15:12.977988 23649 net.cpp:156] Memory required for data: 94020
I0925 22:15:12.977993 23649 layer_factory.hpp:77] Creating layer lstm2_h_concat
I0925 22:15:12.978004 23649 net.cpp:91] Creating Layer lstm2_h_concat
I0925 22:15:12.978011 23649 net.cpp:425] lstm2_h_concat <- h_1
I0925 22:15:12.978018 23649 net.cpp:399] lstm2_h_concat -> h
I0925 22:15:12.979979 23649 net.cpp:141] Setting up lstm2_h_concat
I0925 22:15:12.980016 23649 net.cpp:148] Top shape: 1 1 1000 (1000)
I0925 22:15:12.980022 23649 net.cpp:156] Memory required for data: 98020
I0925 22:15:12.980029 23649 layer_factory.hpp:77] Creating layer h_pseudoloss
I0925 22:15:12.980029 23621 net.cpp:141] Setting up lstm1_unit_1
I0925 22:15:12.980047 23649 net.cpp:91] Creating Layer h_pseudoloss
I0925 22:15:12.980051 23621 net.cpp:148] Top shape: 1 1 1000 (1000)
I0925 22:15:12.980053 23649 net.cpp:425] h_pseudoloss <- h
I0925 22:15:12.980057 23621 net.cpp:148] Top shape: 1 1 1000 (1000)
I0925 22:15:12.980062 23621 net.cpp:156] Memory required for data: 86016
I0925 22:15:12.980067 23621 layer_factory.hpp:77] Creating layer lstm1_
I0925 22:15:12.980067 23649 net.cpp:399] h_pseudoloss -> h_pseudoloss
I0925 22:15:12.980077 23621 net.cpp:91] Creating Layer lstm1_
I0925 22:15:12.980082 23621 net.cpp:425] lstm1_ <- c_1
I0925 22:15:12.980093 23621 net.cpp:399] lstm1_ -> c_T
…
I0925 22:15:12.982130 23621 net.cpp:219] lstm1_ does not need backward computation.
I0925 22:15:12.982133 23621 net.cpp:261] This network produces output c_T
I0925 22:15:12.982138 23621 net.cpp:261] This network produces output h_pseudoloss
I0925 22:15:12.982153 23621 net.cpp:274] Network initialization done.
I0925 22:15:12.982192 23621 recurrent_layer.cpp:150] Adding parameter 0: W_xc
I0925 22:15:12.982197 23621 recurrent_layer.cpp:150] Adding parameter 1: b_c
I0925 22:15:12.982203 23621 recurrent_layer.cpp:150] Adding parameter 2: W_hc
I0925 22:15:12.984810 23623 net.cpp:141] Setting up lstm1
I0925 22:15:12.984838 23623 net.cpp:148] Top shape: 1 1 1000 (1000)
I0925 22:15:12.984848 23623 net.cpp:156] Memory required for data: 26408
I0925 22:15:12.984874 23623 layer_factory.hpp:77] Creating layer concat
I0925 22:15:12.984894 23623 net.cpp:91] Creating Layer concat
I0925 22:15:12.984907 23623 net.cpp:425] concat <- lstm1
I0925 22:15:12.984920 23623 net.cpp:425] concat <- embedded_input_sentence
I0925 22:15:12.984930 23623 net.cpp:425] concat <- reshaped_stage_indicator
I0925 22:15:12.984944 23623 net.cpp:399] concat -> lstm1_video_sequence
I0925 22:15:13.065795 23621 net.cpp:141] Setting up lstm1
I0925 22:15:13.065830 23623 net.cpp:141] Setting up concat
I0925 22:15:13.065882 23621 net.cpp:148] Top shape: 1 1 1000 (1000)
I0925 22:15:13.065896 23623 net.cpp:148] Top shape: 1 1 1501 (1501)
I0925 22:15:13.065901 23623 net.cpp:156] Memory required for data: 32412
I0925 22:15:13.065901 23621 net.cpp:156] Memory required for data: 26408
I0925 22:15:13.065904 23655 net.cpp:141] Setting up lstm2_transform_1
I0925 22:15:13.065910 23623 layer_factory.hpp:77] Creating layer lstm2
I0925 22:15:13.065948 23655 net.cpp:148] Top shape: 1 1 4000 (4000)
I0925 22:15:13.065958 23655 net.cpp:156] Memory required for data: 66020
I0925 22:15:13.065964 23621 layer_factory.hpp:77] Creating layer concat
I0925 22:15:13.065976 23655 layer_factory.hpp:77] Creating layer lstm2_gate_input_1
I0925 22:15:13.065970 23623 net.cpp:91] Creating Layer lstm2
I0925 22:15:13.065995 23655 net.cpp:91] Creating Layer lstm2_gate_input_1
I0925 22:15:13.065999 23623 net.cpp:425] lstm2 <- lstm1_video_sequence
I0925 22:15:13.066005 23655 net.cpp:425] lstm2_gate_input_1 <- W_hc_h_0
I0925 22:15:13.066002 23621 net.cpp:91] Creating Layer concat
I0925 22:15:13.066014 23623 net.cpp:425] lstm2 <- cont_sentence_input_1_split_1
I0925 22:15:13.066016 23655 net.cpp:425] lstm2_gate_input_1 <- W_xc_x_1
I0925 22:15:13.066020 23625 net.cpp:141] Setting up lstm2_transform_1
I0925 22:15:13.066063 23623 net.cpp:399] lstm2 -> lstm2
I0925 22:15:13.066023 23621 net.cpp:425] concat <- lstm1
I0925 22:15:13.066087 23625 net.cpp:148] Top shape: 1 1 4000 (4000)
I0925 22:15:13.066093 23623 recurrent_layer.cpp:20] Initializing recurrent layer: assuming input batch contains 1 timesteps of 1 independent streams.
I0925 22:15:13.066099 23625 net.cpp:156] Memory required for data: 66020
I0925 22:15:13.066076 23655 net.cpp:399] lstm2_gate_input_1 -> gate_input_1
I0925 22:15:13.066110 23621 net.cpp:425] concat <- embedded_input_sentence
I0925 22:15:13.066113 23625 layer_factory.hpp:77] Creating layer lstm2_gate_input_1
I0925 22:15:13.066134 23621 net.cpp:425] concat <- reshaped_stage_indicator
I0925 22:15:13.066146 23625 net.cpp:91] Creating Layer lstm2_gate_input_1
I0925 22:15:13.066154 23625 net.cpp:425] lstm2_gate_input_1 <- W_hc_h_0
I0925 22:15:13.066161 23625 net.cpp:425] lstm2_gate_input_1 <- W_xc_x_1
I0925 22:15:13.066159 23621 net.cpp:399] concat -> lstm1_video_sequence
I0925 22:15:13.066172 23625 net.cpp:399] lstm2_gate_input_1 -> gate_input_1
I0925 22:15:13.066216 23655 net.cpp:141] Setting up lstm2_gate_input_1
I0925 22:15:13.066232 23655 net.cpp:148] Top shape: 1 1 4000 (4000)
I0925 22:15:13.066239 23655 net.cpp:156] Memory required for data: 82020
I0925 22:15:13.066247 23655 layer_factory.hpp:77] Creating layer lstm2_unit_1
I0925 22:15:13.066260 23655 net.cpp:91] Creating Layer lstm2_unit_1
I0925 22:15:13.066268 23655 net.cpp:425] lstm2_unit_1 <- c_0
I0925 22:15:13.066277 23655 net.cpp:425] lstm2_unit_1 <- gate_input_1
I0925 22:15:13.066282 23625 net.cpp:141] Setting up lstm2_gate_input_1
I0925 22:15:13.066285 23655 net.cpp:425] lstm2_unit_1 <- cont_1_lstm2_cont_slice_0_split_1
I0925 22:15:13.066308 23625 net.cpp:148] Top shape: 1 1 4000 (4000)
I0925 22:15:13.066313 23625 net.cpp:156] Memory required for data: 82020
I0925 22:15:13.066318 23625 layer_factory.hpp:77] Creating layer lstm2_unit_1
I0925 22:15:13.066321 23655 net.cpp:399] lstm2_unit_1 -> c_1
I0925 22:15:13.066331 23625 net.cpp:91] Creating Layer lstm2_unit_1
I0925 22:15:13.066336 23625 net.cpp:425] lstm2_unit_1 <- c_0
I0925 22:15:13.066339 23655 net.cpp:399] lstm2_unit_1 -> h_1
I0925 22:15:13.066344 23625 net.cpp:425] lstm2_unit_1 <- gate_input_1
I0925 22:15:13.066349 23625 net.cpp:425] lstm2_unit_1 <- cont_1_lstm2_cont_slice_0_split_1
I0925 22:15:13.066356 23625 net.cpp:399] lstm2_unit_1 -> c_1
I0925 22:15:13.066366 23625 net.cpp:399] lstm2_unit_1 -> h_1
I0925 22:15:13.066368 23621 net.cpp:141] Setting up concat
I0925 22:15:13.066397 23621 net.cpp:148] Top shape: 1 1 1501 (1501)
I0925 22:15:13.066412 23621 net.cpp:156] Memory required for data: 32412
I0925 22:15:13.066426 23621 layer_factory.hpp:77] Creating layer lstm2
I0925 22:15:13.066455 23621 net.cpp:91] Creating Layer lstm2
I0925 22:15:13.066473 23621 net.cpp:425] lstm2 <- lstm1_video_sequence
I0925 22:15:13.066478 23655 net.cpp:141] Setting up lstm2_unit_1
I0925 22:15:13.066490 23621 net.cpp:425] lstm2 <- cont_sentence_input_1_split_1
I0925 22:15:13.066494 23655 net.cpp:148] Top shape: 1 1 1000 (1000)
I0925 22:15:13.066519 23655 net.cpp:148] Top shape: 1 1 1000 (1000)
I0925 22:15:13.066526 23655 net.cpp:156] Memory required for data: 90020
I0925 22:15:13.066525 23621 net.cpp:399] lstm2 -> lstm2
I0925 22:15:13.066535 23655 layer_factory.hpp:77] Creating layer lstm2_
I0925 22:15:13.066537 23623 net.cpp:49] Initializing net from parameters: 
layer {
  name: "lstm2_"
  type: "Input"
  top: "x"
  top: "cont"
  input_param {
    shape {
      dim: 1
      dim: 1
      dim: 1501
    }
    shape {
      dim: 1
      dim: 1
    }
  }
}
layer {
  name: "lstm2_"
  type: "Input"
  top: "c_0"
  top: "h_0"
  input_param {
    shape {
      dim: 1
      dim: 1
      dim: 1000
    }
    shape {
      dim: 1
      dim: 1
      dim: 1000
    }
  }
}
layer {
  name: "lstm2_cont_slice"
  type: "Slice"
  bottom: "cont"
  top: "cont_1"
  slice_param {
    axis: 0
  }
}
layer {
  name: "lstm2_x_transform"
  type: "InnerProduct"
  bottom: "x"
  top: "W_xc_x"
  param {
    name: "W_xc"
  }
  param {
    name: "b_c"
  }
  propagate_down: true
  inner_product_param {
    num_output: 4000
    bias_term: true
    weight_filler {
      type: "uniform"
      min: -0.08
      max: 0.08
    }
    bias_filler {
      type: "constant"
      value: 0
    }
    axis: 2
  }
}
layer {
  name: "lstm2_W_xc_x_slice"
  type: "Slice"
  bottom: "W_xc_x"
  top: "W_xc_x_1"
  slice_param {
    axis: 0
  }
}
layer {
  name: "lstm2_h_conted_0"
  type: "Scale"
  bottom: "h_0"
  bottom: "cont_1"
  top: "h_conted_0"
  scale_param {
    axis: 0
  }
}
layer {
  name: "lstm2_transform_1"
  type: "InnerProduct"
  bottom: "h_conted_0"
  top: "W_hc_h_0"
  param {
    name: "W_hc"
  }
  inner_product_param {
    num_output: 4000
    bias_term: false
    weight_filler {
      type: "uniform"
      min: -0.08
      max: 0.08
    }
    axis: 2
  }
}
layer {
  name: "lstm2_gate_input_1"
  type: "Eltwise"
  bottom: "W_hc_h_0"
  bottom: "W_xc_x_1"
  top: "gate_input_1"
  eltwise_param {
    operation: SUM
  }
}
layer {
  name: "lstm2_unit_1"
  type: "LSTMUnit"
  bottom: "c_0"
  bottom: "gate_input_1"
  bottom: "cont_1"
  top: "c_1"
  top: "h_1"
}
layer {
  name: "lstm2_"
  type: "Split"
  bottom: "c_1"
  top: "c_T"
}
layer {
  name: "lstm2_h_concat"
  type: "Concat"
  bottom: "h_1"
  top: "h"
  concat_param {
    axis: 0
  }
}
layer {
  name: "h_pseudoloss"
  type: "Reduction"
  bottom: "h"
  top: "h_pseudoloss"
  loss_weight: 1
}
I0925 22:15:13.066548 23655 net.cpp:91] Creating Layer lstm2_
I0925 22:15:13.066557 23621 recurrent_layer.cpp:20] Initializing recurrent layer: assuming input batch contains 1 timesteps of 1 independent streams.
I0925 22:15:13.066557 23625 net.cpp:141] Setting up lstm2_unit_1
I0925 22:15:13.066571 23655 net.cpp:425] lstm2_ <- c_1
I0925 22:15:13.066627 23625 net.cpp:148] Top shape: 1 1 1000 (1000)
I0925 22:15:13.066632 23655 net.cpp:399] lstm2_ -> c_T
I0925 22:15:13.066640 23625 net.cpp:148] Top shape: 1 1 1000 (1000)
I0925 22:15:13.066646 23625 net.cpp:156] Memory required for data: 90020
I0925 22:15:13.066651 23625 layer_factory.hpp:77] Creating layer lstm2_
I0925 22:15:13.066659 23625 net.cpp:91] Creating Layer lstm2_
I0925 22:15:13.066664 23625 net.cpp:425] lstm2_ <- c_1
I0925 22:15:13.066675 23625 net.cpp:399] lstm2_ -> c_T
I0925 22:15:13.066692 23655 net.cpp:141] Setting up lstm2_
I0925 22:15:13.066707 23655 net.cpp:148] Top shape: 1 1 1000 (1000)
I0925 22:15:13.066715 23655 net.cpp:156] Memory required for data: 94020
I0925 22:15:13.066717 23623 layer_factory.hpp:77] Creating layer lstm2_
I0925 22:15:13.066722 23655 layer_factory.hpp:77] Creating layer lstm2_h_concat
I0925 22:15:13.066723 23625 net.cpp:141] Setting up lstm2_
I0925 22:15:13.066746 23623 net.cpp:91] Creating Layer lstm2_
I0925 22:15:13.066751 23655 net.cpp:91] Creating Layer lstm2_h_concat
I0925 22:15:13.066756 23625 net.cpp:148] Top shape: 1 1 1000 (1000)
I0925 22:15:13.066761 23625 net.cpp:156] Memory required for data: 94020
I0925 22:15:13.066761 23655 net.cpp:425] lstm2_h_concat <- h_1
I0925 22:15:13.066761 23623 net.cpp:399] lstm2_ -> x
I0925 22:15:13.066766 23625 layer_factory.hpp:77] Creating layer lstm2_h_concat
I0925 22:15:13.066777 23655 net.cpp:399] lstm2_h_concat -> h
I0925 22:15:13.066786 23625 net.cpp:91] Creating Layer lstm2_h_concat
I0925 22:15:13.066790 23625 net.cpp:425] lstm2_h_concat <- h_1
I0925 22:15:13.066790 23623 net.cpp:399] lstm2_ -> cont
I0925 22:15:13.066798 23625 net.cpp:399] lstm2_h_concat -> h
I0925 22:15:13.066834 23655 net.cpp:141] Setting up lstm2_h_concat
I0925 22:15:13.066848 23655 net.cpp:148] Top shape: 1 1 1000 (1000)
I0925 22:15:13.066855 23655 net.cpp:156] Memory required for data: 98020
I0925 22:15:13.066862 23655 layer_factory.hpp:77] Creating layer h_pseudoloss
I0925 22:15:13.066886 23655 net.cpp:91] Creating Layer h_pseudoloss
I0925 22:15:13.066890 23625 net.cpp:141] Setting up lstm2_h_concat
I0925 22:15:13.066895 23655 net.cpp:425] h_pseudoloss <- h
I0925 22:15:13.066902 23625 net.cpp:148] Top shape: 1 1 1000 (1000)
I0925 22:15:13.066907 23625 net.cpp:156] Memory required for data: 98020
I0925 22:15:13.066906 23655 net.cpp:399] h_pseudoloss -> h_pseudoloss
I0925 22:15:13.066912 23625 layer_factory.hpp:77] Creating layer h_pseudoloss
I0925 22:15:13.066921 23625 net.cpp:91] Creating Layer h_pseudoloss
I0925 22:15:13.066926 23625 net.cpp:425] h_pseudoloss <- h
I0925 22:15:13.066934 23625 net.cpp:399] h_pseudoloss -> h_pseudoloss
I0925 22:15:13.066972 23631 net.cpp:141] Setting up lstm2_x_transform
I0925 22:15:13.066989 23631 net.cpp:148] Top shape: 1 1 4000 (4000)
I0925 22:15:13.066994 23631 net.cpp:156] Memory required for data: 30020
I0925 22:15:13.067008 23631 layer_factory.hpp:77] Creating layer lstm2_W_xc_x_slice
I0925 22:15:13.067018 23631 net.cpp:91] Creating Layer lstm2_W_xc_x_slice
I0925 22:15:13.067015 23623 net.cpp:141] Setting up lstm2_
I0925 22:15:13.067024 23631 net.cpp:425] lstm2_W_xc_x_slice <- W_xc_x
I0925 22:15:13.067034 23631 net.cpp:399] lstm2_W_xc_x_slice -> W_xc_x_1
I0925 22:15:13.067035 23623 net.cpp:148] Top shape: 1 1 1501 (1501)
I0925 22:15:13.067047 23623 net.cpp:148] Top shape: 1 1 (1)
I0925 22:15:13.067055 23623 net.cpp:156] Memory required for data: 6008
I0925 22:15:13.067064 23623 layer_factory.hpp:77] Creating layer lstm2_
I0925 22:15:13.067083 23623 net.cpp:91] Creating Layer lstm2_
I0925 22:15:13.067096 23623 net.cpp:399] lstm2_ -> c_0
I0925 22:15:13.067114 23623 net.cpp:399] lstm2_ -> h_0
I0925 22:15:13.067116 23621 net.cpp:49] Initializing net from parameters: 
layer {
  name: "lstm2_"
  type: "Input"
  top: "x"
  top: "cont"
  input_param {
    shape {
      dim: 1
      dim: 1
      dim: 1501
    }
    shape {
      dim: 1
      dim: 1
    }
  }
}
layer {
  name: "lstm2_"
  type: "Input"
  top: "c_0"
  top: "h_0"
  input_param {
    shape {
      dim: 1
      dim: 1
      dim: 1000
    }
    shape {
      dim: 1
      dim: 1
      dim: 1000
    }
  }
}
layer {
  name: "lstm2_cont_slice"
  type: "Slice"
  bottom: "cont"
  top: "cont_1"
  slice_param {
    axis: 0
  }
}
layer {
  name: "lstm2_x_transform"
  type: "InnerProduct"
  bottom: "x"
  top: "W_xc_x"
  param {
    name: "W_xc"
  }
  param {
    name: "b_c"
  }
  propagate_down: true
  inner_product_param {
    num_output: 4000
    bias_term: true
    weight_filler {
      type: "uniform"
      min: -0.08
      max: 0.08
    }
    bias_filler {
      type: "constant"
      value: 0
    }
    axis: 2
  }
}
layer {
  name: "lstm2_W_xc_x_slice"
  type: "Slice"
  bottom: "W_xc_x"
  top: "W_xc_x_1"
  slice_param {
    axis: 0
  }
}
layer {
  name: "lstm2_h_conted_0"
  type: "Scale"
  bottom: "h_0"
  bottom: "cont_1"
  top: "h_conted_0"
  scale_param {
    axis: 0
  }
}
layer {
  name: "lstm2_transform_1"
  type: "InnerProduct"
  bottom: "h_conted_0"
  top: "W_hc_h_0"
  param {
    name: "W_hc"
  }
  inner_product_param {
    num_output: 4000
    bias_term: false
    weight_filler {
      type: "uniform"
      min: -0.08
      max: 0.08
    }
    axis: 2
  }
}
layer {
  name: "lstm2_gate_input_1"
  type: "Eltwise"
  bottom: "W_hc_h_0"
  bottom: "W_xc_x_1"
  top: "gate_input_1"
  eltwise_param {
    operation: SUM
  }
}
layer {
  name: "lstm2_unit_1"
  type: "LSTMUnit"
  bottom: "c_0"
  bottom: "gate_input_1"
  bottom: "cont_1"
  top: "c_1"
  top: "h_1"
}
layer {
  name: "lstm2_"
  type: "Split"
  bottom: "c_1"
  top: "c_T"
}
layer {
  name: "lstm2_h_concat"
  type: "Concat"
  bottom: "h_1"
  top: "h"
  concat_param {
    axis: 0
  }
}
layer {
  name: "h_pseudoloss"
  type: "Reduction"
  bottom: "h"
  top: "h_pseudoloss"
  loss_weight: 1
}
I0925 22:15:13.067224 23655 net.cpp:141] Setting up h_pseudoloss
I0925 22:15:13.067241 23655 net.cpp:148] Top shape: (1)
I0925 22:15:13.067251 23655 net.cpp:151]     with loss weight 1
I0925 22:15:13.067268 23655 net.cpp:156] Memory required for data: 98024
I0925 22:15:13.067276 23655 net.cpp:217] h_pseudoloss needs backward computation.
I0925 22:15:13.067284 23655 net.cpp:217] lstm2_h_concat needs backward computation.
I0925 22:15:13.067292 23655 net.cpp:219] lstm2_ does not need backward computation.
I0925 22:15:13.067292 23625 net.cpp:141] Setting up h_pseudoloss
I0925 22:15:13.067299 23655 net.cpp:217] lstm2_unit_1 needs backward computation.
I0925 22:15:13.067306 23625 net.cpp:148] Top shape: (1)
I0925 22:15:13.067309 23655 net.cpp:217] lstm2_gate_input_1 needs backward computation.
I0925 22:15:13.067317 23655 net.cpp:217] lstm2_transform_1 needs backward computation.
I0925 22:15:13.067308 23621 layer_factory.hpp:77] Creating layer lstm2_
I0925 22:15:13.067311 23625 net.cpp:151]     with loss weight 1
I0925 22:15:13.067330 23631 net.cpp:141] Setting up lstm2_W_xc_x_slice
I0925 22:15:13.067325 23655 net.cpp:219] lstm2_h_conted_0 does not need backward computation.
I0925 22:15:13.067342 23625 net.cpp:156] Memory required for data: 98024
I0925 22:15:13.067348 23631 net.cpp:148] Top shape: 1 1 4000 (4000)
I0925 22:15:13.067349 23625 net.cpp:217] h_pseudoloss needs backward computation.
I0925 22:15:13.067353 23631 net.cpp:156] Memory required for data: 46020
I0925 22:15:13.067355 23625 net.cpp:217] lstm2_h_concat needs backward computation.
I0925 22:15:13.067350 23655 net.cpp:217] lstm2_W_xc_x_slice needs backward computation.
I0925 22:15:13.067363 23631 layer_factory.hpp:77] Creating layer lstm2_h_conted_0
I0925 22:15:13.067368 23623 net.cpp:141] Setting up lstm2_
I0925 22:15:13.067358 23621 net.cpp:91] Creating Layer lstm2_
I0925 22:15:13.067384 23623 net.cpp:148] Top shape: 1 1 1000 (1000)
I0925 22:15:13.067369 23655 net.cpp:217] lstm2_x_transform needs backward computation.
I0925 22:15:13.067396 23623 net.cpp:148] Top shape: 1 1 1000 (1000)
I0925 22:15:13.067383 23631 net.cpp:91] Creating Layer lstm2_h_conted_0
I0925 22:15:13.067404 23623 net.cpp:156] Memory required for data: 14008
I0925 22:15:13.067363 23625 net.cpp:219] lstm2_ does not need backward computation.
I0925 22:15:13.067417 23623 layer_factory.hpp:77] Creating layer lstm2_cont_slice
I0925 22:15:13.067416 23631 net.cpp:425] lstm2_h_conted_0 <- h_0
I0925 22:15:13.067406 23621 net.cpp:399] lstm2_ -> x
…
I0925 22:15:13.067606 23625 net.cpp:274] Network initialization done.
I0925 22:15:13.067629 23655 recurrent_layer.cpp:150] Adding parameter 0: W_xc
I0925 22:15:13.067641 23655 recurrent_layer.cpp:150] Adding parameter 1: b_c
I0925 22:15:13.067648 23655 recurrent_layer.cpp:150] Adding parameter 2: W_hc
I0925 22:15:13.067731 23625 recurrent_layer.cpp:150] Adding parameter 0: W_xc
I0925 22:15:13.067744 23625 recurrent_layer.cpp:150] Adding parameter 1: b_c
I0925 22:15:13.067749 23625 recurrent_layer.cpp:150] Adding parameter 2: W_hc
I0925 22:15:13.067814 23623 net.cpp:141] Setting up lstm2_cont_slice
I0925 22:15:13.067828 23623 net.cpp:148] Top shape: 1 1 (1)
I0925 22:15:13.067833 23623 net.cpp:156] Memory required for data: 14012
I0925 22:15:13.067838 23623 layer_factory.hpp:77] Creating layer cont_1_lstm2_cont_slice_0_split
I0925 22:15:13.067847 23623 net.cpp:91] Creating Layer cont_1_lstm2_cont_slice_0_split
I0925 22:15:13.067852 23623 net.cpp:425] cont_1_lstm2_cont_slice_0_split <- cont_1
I0925 22:15:13.067862 23623 net.cpp:399] cont_1_lstm2_cont_slice_0_split -> cont_1_lstm2_cont_slice_0_split_0
I0925 22:15:13.067872 23623 net.cpp:399] cont_1_lstm2_cont_slice_0_split -> cont_1_lstm2_cont_slice_0_split_1
I0925 22:15:13.067942 23623 net.cpp:141] Setting up cont_1_lstm2_cont_slice_0_split
I0925 22:15:13.067957 23623 net.cpp:148] Top shape: 1 1 (1)
I0925 22:15:13.067968 23623 net.cpp:148] Top shape: 1 1 (1)
I0925 22:15:13.067975 23623 net.cpp:156] Memory required for data: 14020
I0925 22:15:13.067986 23623 layer_factory.hpp:77] Creating layer lstm2_x_transform
I0925 22:15:13.068003 23623 net.cpp:91] Creating Layer lstm2_x_transform
I0925 22:15:13.068008 23623 net.cpp:425] lstm2_x_transform <- x
I0925 22:15:13.068019 23623 net.cpp:399] lstm2_x_transform -> W_xc_x
I0925 22:15:13.068209 23625 net.cpp:141] Setting up lstm2
I0925 22:15:13.068222 23625 net.cpp:148] Top shape: 1 1 1000 (1000)
I0925 22:15:13.068228 23625 net.cpp:156] Memory required for data: 36412
I0925 22:15:13.068243 23625 layer_factory.hpp:77] Creating layer predict
I0925 22:15:13.068253 23625 net.cpp:91] Creating Layer predict
I0925 22:15:13.068259 23625 net.cpp:425] predict <- lstm2
I0925 22:15:13.068266 23625 net.cpp:399] predict -> predict
I0925 22:15:13.068284 23621 net.cpp:141] Setting up lstm2_
I0925 22:15:13.068312 23621 net.cpp:148] Top shape: 1 1 1501 (1501)
I0925 22:15:13.068333 23621 net.cpp:148] Top shape: 1 1 (1)
I0925 22:15:13.068346 23621 net.cpp:156] Memory required for data: 6008
I0925 22:15:13.068361 23621 layer_factory.hpp:77] Creating layer lstm2_
I0925 22:15:13.068393 23621 net.cpp:91] Creating Layer lstm2_
I0925 22:15:13.068415 23621 net.cpp:399] lstm2_ -> c_0
I0925 22:15:13.068459 23621 net.cpp:399] lstm2_ -> h_0
I0925 22:15:13.068538 23655 net.cpp:141] Setting up lstm2
I0925 22:15:13.068554 23655 net.cpp:148] Top shape: 1 1 1000 (1000)
I0925 22:15:13.068562 23655 net.cpp:156] Memory required for data: 36412
I0925 22:15:13.068575 23631 net.cpp:141] Setting up lstm2_h_conted_0
I0925 22:15:13.068584 23655 layer_factory.hpp:77] Creating layer predict
I0925 22:15:13.068589 23631 net.cpp:148] Top shape: 1 1 1000 (1000)
I0925 22:15:13.068594 23631 net.cpp:156] Memory required for data: 50020
I0925 22:15:13.068600 23631 layer_factory.hpp:77] Creating layer lstm2_transform_1
I0925 22:15:13.068603 23655 net.cpp:91] Creating Layer predict
I0925 22:15:13.068610 23631 net.cpp:91] Creating Layer lstm2_transform_1
I0925 22:15:13.068614 23655 net.cpp:425] predict <- lstm2
I0925 22:15:13.068616 23631 net.cpp:425] lstm2_transform_1 <- h_conted_0
I0925 22:15:13.068632 23655 net.cpp:399] predict -> predict
I0925 22:15:13.068635 23631 net.cpp:399] lstm2_transform_1 -> W_hc_h_0
I0925 22:15:13.280453 23621 net.cpp:141] Setting up lstm2_
I0925 22:15:13.280524 23621 net.cpp:148] Top shape: 1 1 1000 (1000)
I0925 22:15:13.280535 23621 net.cpp:148] Top shape: 1 1 1000 (1000)
I0925 22:15:13.280541 23621 net.cpp:156] Memory required for data: 14008
I0925 22:15:13.280555 23621 layer_factory.hpp:77] Creating layer lstm2_cont_slice
I0925 22:15:13.280591 23621 net.cpp:91] Creating Layer lstm2_cont_slice
I0925 22:15:13.280622 23621 net.cpp:425] lstm2_cont_slice <- cont
I0925 22:15:13.280617 23631 net.cpp:141] Setting up lstm2_transform_1
I0925 22:15:13.280639 23621 net.cpp:399] lstm2_cont_slice -> cont_1
I0925 22:15:13.280644 23631 net.cpp:148] Top shape: 1 1 4000 (4000)
I0925 22:15:13.280652 23631 net.cpp:156] Memory required for data: 66020
I0925 22:15:13.280675 23631 layer_factory.hpp:77] Creating layer lstm2_gate_input_1
I0925 22:15:13.280704 23631 net.cpp:91] Creating Layer lstm2_gate_input_1
I0925 22:15:13.280714 23631 net.cpp:425] lstm2_gate_input_1 <- W_hc_h_0
I0925 22:15:13.280722 23631 net.cpp:425] lstm2_gate_input_1 <- W_xc_x_1
I0925 22:15:13.280735 23631 net.cpp:399] lstm2_gate_input_1 -> gate_input_1
I0925 22:15:13.291056 23621 net.cpp:141] Setting up lstm2_cont_slice
I0925 22:15:13.291138 23631 net.cpp:141] Setting up lstm2_gate_input_1
I0925 22:15:13.291190 23623 net.cpp:141] Setting up lstm2_x_transform
I0925 22:15:13.291545 23621 net.cpp:148] Top shape: 1 1 (1)
I0925 22:15:13.291777 23631 net.cpp:148] Top shape: 1 1 4000 (4000)
I0925 22:15:13.291813 23621 net.cpp:156] Memory required for data: 14012
I0925 22:15:13.291815 23623 net.cpp:148] Top shape: 1 1 4000 (4000)
I0925 22:15:13.291828 23621 layer_factory.hpp:77] Creating layer cont_1_lstm2_cont_slice_0_split
I0925 22:15:13.291821 23631 net.cpp:156] Memory required for data: 82020
I0925 22:15:13.291846 23623 net.cpp:156] Memory required for data: 30020
I0925 22:15:13.291851 23631 layer_factory.hpp:77] Creating layer lstm2_unit_1
I0925 22:15:13.291899 23623 layer_factory.hpp:77] Creating layer lstm2_W_xc_x_slice
…
I0925 22:15:13.292877 23631 net.cpp:399] lstm2_unit_1 -> c_1
I0925 22:15:13.291858 23621 net.cpp:91] Creating Layer cont_1_lstm2_cont_slice_0_split
I0925 22:15:13.292892 23621 net.cpp:425] cont_1_lstm2_cont_slice_0_split <- cont_1
I0925 22:15:13.292894 23631 net.cpp:399] lstm2_unit_1 -> h_1
I0925 22:15:13.292906 23621 net.cpp:399] cont_1_lstm2_cont_slice_0_split -> cont_1_lstm2_cont_slice_0_split_0
I0925 22:15:13.292923 23621 net.cpp:399] cont_1_lstm2_cont_slice_0_split -> cont_1_lstm2_cont_slice_0_split_1
I0925 22:15:13.304759 23623 net.cpp:141] Setting up lstm2_W_xc_x_slice
I0925 22:15:13.304812 23623 net.cpp:148] Top shape: 1 1 4000 (4000)
I0925 22:15:13.304821 23623 net.cpp:156] Memory required for data: 46020
I0925 22:15:13.304831 23623 layer_factory.hpp:77] Creating layer lstm2_h_conted_0
I0925 22:15:13.304857 23623 net.cpp:91] Creating Layer lstm2_h_conted_0
I0925 22:15:13.304867 23623 net.cpp:425] lstm2_h_conted_0 <- h_0
I0925 22:15:13.304879 23623 net.cpp:425] lstm2_h_conted_0 <- cont_1_lstm2_cont_slice_0_split_0
I0925 22:15:13.304891 23623 net.cpp:399] lstm2_h_conted_0 -> h_conted_0
I0925 22:15:13.305083 23623 net.cpp:141] Setting up lstm2_h_conted_0
I0925 22:15:13.305099 23623 net.cpp:148] Top shape: 1 1 1000 (1000)
I0925 22:15:13.305105 23623 net.cpp:156] Memory required for data: 50020
I0925 22:15:13.305112 23623 layer_factory.hpp:77] Creating layer lstm2_transform_1
I0925 22:15:13.305133 23623 net.cpp:91] Creating Layer lstm2_transform_1
I0925 22:15:13.305141 23623 net.cpp:425] lstm2_transform_1 <- h_conted_0
I0925 22:15:13.305155 23623 net.cpp:399] lstm2_transform_1 -> W_hc_h_0
I0925 22:15:13.318902 23621 net.cpp:141] Setting up cont_1_lstm2_cont_slice_0_split
I0925 22:15:13.318963 23621 net.cpp:148] Top shape: 1 1 (1)
I0925 22:15:13.318974 23621 net.cpp:148] Top shape: 1 1 (1)
I0925 22:15:13.318981 23621 net.cpp:156] Memory required for data: 14020
I0925 22:15:13.318979 23631 net.cpp:141] Setting up lstm2_unit_1
I0925 22:15:13.318994 23621 layer_factory.hpp:77] Creating layer lstm2_x_transform
I0925 22:15:13.319000 23631 net.cpp:148] Top shape: 1 1 1000 (1000)
I0925 22:15:13.319006 23631 net.cpp:148] Top shape: 1 1 1000 (1000)
I0925 22:15:13.319010 23631 net.cpp:156] Memory required for data: 90020
I0925 22:15:13.319016 23631 layer_factory.hpp:77] Creating layer lstm2_
I0925 22:15:13.319028 23631 net.cpp:91] Creating Layer lstm2_
I0925 22:15:13.319036 23631 net.cpp:425] lstm2_ <- c_1
I0925 22:15:13.319036 23621 net.cpp:91] Creating Layer lstm2_x_transform
I0925 22:15:13.319046 23621 net.cpp:425] lstm2_x_transform <- x
I0925 22:15:13.319051 23631 net.cpp:399] lstm2_ -> c_T
I0925 22:15:13.319064 23621 net.cpp:399] lstm2_x_transform -> W_xc_x
I0925 22:15:13.319109 23631 net.cpp:141] Setting up lstm2_
I0925 22:15:13.319119 23631 net.cpp:148] Top shape: 1 1 1000 (1000)
I0925 22:15:13.319125 23631 net.cpp:156] Memory required for data: 94020
I0925 22:15:13.319130 23631 layer_factory.hpp:77] Creating layer lstm2_h_concat
I0925 22:15:13.319159 23631 net.cpp:91] Creating Layer lstm2_h_concat
I0925 22:15:13.319165 23631 net.cpp:425] lstm2_h_concat <- h_1
I0925 22:15:13.319174 23631 net.cpp:399] lstm2_h_concat -> h
I0925 22:15:13.331823 23631 net.cpp:141] Setting up lstm2_h_concat
I0925 22:15:13.331893 23631 net.cpp:148] Top shape: 1 1 1000 (1000)
I0925 22:15:13.331903 23631 net.cpp:156] Memory required for data: 98020
I0925 22:15:13.331918 23631 layer_factory.hpp:77] Creating layer h_pseudoloss
I0925 22:15:13.331945 23631 net.cpp:91] Creating Layer h_pseudoloss
I0925 22:15:13.331957 23631 net.cpp:425] h_pseudoloss <- h
I0925 22:15:13.332023 23631 net.cpp:399] h_pseudoloss -> h_pseudoloss
I0925 22:15:13.336583 23631 net.cpp:141] Setting up h_pseudoloss
…
I0925 22:15:13.336870 23631 net.cpp:219] lstm2_ does not need backward computation.
I0925 22:15:13.336879 23631 net.cpp:261] This network produces output c_T
I0925 22:15:13.336889 23631 net.cpp:261] This network produces output h_pseudoloss
I0925 22:15:13.336966 23631 net.cpp:274] Network initialization done.
I0925 22:15:13.337081 23631 recurrent_layer.cpp:150] Adding parameter 0: W_xc
I0925 22:15:13.337096 23631 recurrent_layer.cpp:150] Adding parameter 1: b_c
I0925 22:15:13.337105 23631 recurrent_layer.cpp:150] Adding parameter 2: W_hc
I0925 22:15:13.359980 23631 net.cpp:141] Setting up lstm2
I0925 22:15:13.360049 23631 net.cpp:148] Top shape: 1 1 1000 (1000)
I0925 22:15:13.360060 23631 net.cpp:156] Memory required for data: 36412
I0925 22:15:13.360100 23631 layer_factory.hpp:77] Creating layer predict
I0925 22:15:13.360134 23631 net.cpp:91] Creating Layer predict
I0925 22:15:13.360152 23631 net.cpp:425] predict <- lstm2
I0925 22:15:13.360169 23631 net.cpp:399] predict -> predict
I0925 22:15:13.448108 23623 net.cpp:141] Setting up lstm2_transform_1
I0925 22:15:13.448397 23621 net.cpp:141] Setting up lstm2_x_transform
I0925 22:15:13.448585 23623 net.cpp:148] Top shape: 1 1 4000 (4000)
I0925 22:15:13.448596 23623 net.cpp:156] Memory required for data: 66020
I0925 22:15:13.448617 23623 layer_factory.hpp:77] Creating layer lstm2_gate_input_1
I0925 22:15:13.448638 23623 net.cpp:91] Creating Layer lstm2_gate_input_1
I0925 22:15:13.448647 23623 net.cpp:425] lstm2_gate_input_1 <- W_hc_h_0
I0925 22:15:13.448654 23623 net.cpp:425] lstm2_gate_input_1 <- W_xc_x_1
I0925 22:15:13.448667 23623 net.cpp:399] lstm2_gate_input_1 -> gate_input_1
I0925 22:15:13.448590 23621 net.cpp:148] Top shape: 1 1 4000 (4000)
I0925 22:15:13.448703 23621 net.cpp:156] Memory required for data: 30020
I0925 22:15:13.448724 23621 layer_factory.hpp:77] Creating layer lstm2_W_xc_x_slice
I0925 22:15:13.448752 23621 net.cpp:91] Creating Layer lstm2_W_xc_x_slice
I0925 22:15:13.448762 23621 net.cpp:425] lstm2_W_xc_x_slice <- W_xc_x
I0925 22:15:13.448774 23621 net.cpp:399] lstm2_W_xc_x_slice -> W_xc_x_1
I0925 22:15:13.449250 23623 net.cpp:141] Setting up lstm2_gate_input_1
I0925 22:15:13.449270 23623 net.cpp:148] Top shape: 1 1 4000 (4000)
I0925 22:15:13.449275 23623 net.cpp:156] Memory required for data: 82020
I0925 22:15:13.449280 23623 layer_factory.hpp:77] Creating layer lstm2_unit_1
I0925 22:15:13.449290 23623 net.cpp:91] Creating Layer lstm2_unit_1
I0925 22:15:13.449295 23623 net.cpp:425] lstm2_unit_1 <- c_0
I0925 22:15:13.449302 23623 net.cpp:425] lstm2_unit_1 <- gate_input_1
I0925 22:15:13.449302 23621 net.cpp:141] Setting up lstm2_W_xc_x_slice
I0925 22:15:13.449323 23623 net.cpp:425] lstm2_unit_1 <- cont_1_lstm2_cont_slice_0_split_1
I0925 22:15:13.449333 23621 net.cpp:148] Top shape: 1 1 4000 (4000)
I0925 22:15:13.449337 23623 net.cpp:399] lstm2_unit_1 -> c_1
I0925 22:15:13.449342 23621 net.cpp:156] Memory required for data: 46020
I0925 22:15:13.449349 23621 layer_factory.hpp:77] Creating layer lstm2_h_conted_0
I0925 22:15:13.449353 23623 net.cpp:399] lstm2_unit_1 -> h_1
I0925 22:15:13.449365 23621 net.cpp:91] Creating Layer lstm2_h_conted_0
I0925 22:15:13.449373 23621 net.cpp:425] lstm2_h_conted_0 <- h_0
I0925 22:15:13.449383 23621 net.cpp:425] lstm2_h_conted_0 <- cont_1_lstm2_cont_slice_0_split_0
I0925 22:15:13.449395 23621 net.cpp:399] lstm2_h_conted_0 -> h_conted_0
I0925 22:15:13.449452 23649 net.cpp:141] Setting up predict
I0925 22:15:13.449473 23649 net.cpp:148] Top shape: 1 1 46168 (46168)
I0925 22:15:13.449483 23649 net.cpp:156] Memory required for data: 221084
I0925 22:15:13.449503 23649 layer_factory.hpp:77] Creating layer probs
I0925 22:15:13.449517 23649 net.cpp:91] Creating Layer probs
I0925 22:15:13.449525 23649 net.cpp:425] probs <- predict
I0925 22:15:13.449535 23649 net.cpp:399] probs -> probs
I0925 22:15:13.449623 23621 net.cpp:141] Setting up lstm2_h_conted_0
I0925 22:15:13.449640 23621 net.cpp:148] Top shape: 1 1 1000 (1000)
I0925 22:15:13.449646 23621 net.cpp:156] Memory required for data: 50020
I0925 22:15:13.449654 23621 layer_factory.hpp:77] Creating layer lstm2_transform_1
I0925 22:15:13.449672 23621 net.cpp:91] Creating Layer lstm2_transform_1
I0925 22:15:13.449681 23621 net.cpp:425] lstm2_transform_1 <- h_conted_0
I0925 22:15:13.449693 23621 net.cpp:399] lstm2_transform_1 -> W_hc_h_0
I0925 22:15:13.462767 23623 net.cpp:141] Setting up lstm2_unit_1
I0925 22:15:13.462824 23623 net.cpp:148] Top shape: 1 1 1000 (1000)
I0925 22:15:13.462836 23623 net.cpp:148] Top shape: 1 1 1000 (1000)
I0925 22:15:13.462843 23623 net.cpp:156] Memory required for data: 90020
I0925 22:15:13.462857 23623 layer_factory.hpp:77] Creating layer lstm2_
I0925 22:15:13.462880 23623 net.cpp:91] Creating Layer lstm2_
I0925 22:15:13.462893 23623 net.cpp:425] lstm2_ <- c_1
I0925 22:15:13.462911 23623 net.cpp:399] lstm2_ -> c_T
I0925 22:15:13.464076 23623 net.cpp:141] Setting up lstm2_
I0925 22:15:13.464109 23623 net.cpp:148] Top shape: 1 1 1000 (1000)
I0925 22:15:13.464119 23623 net.cpp:156] Memory required for data: 94020
I0925 22:15:13.464130 23623 layer_factory.hpp:77] Creating layer lstm2_h_concat
I0925 22:15:13.464155 23623 net.cpp:91] Creating Layer lstm2_h_concat
I0925 22:15:13.464169 23623 net.cpp:425] lstm2_h_concat <- h_1
I0925 22:15:13.464184 23623 net.cpp:399] lstm2_h_concat -> h
I0925 22:15:13.469748 23623 net.cpp:141] Setting up lstm2_h_concat
I0925 22:15:13.469805 23623 net.cpp:148] Top shape: 1 1 1000 (1000)
I0925 22:15:13.469816 23623 net.cpp:156] Memory required for data: 98020
I0925 22:15:13.469830 23623 layer_factory.hpp:77] Creating layer h_pseudoloss
I0925 22:15:13.469854 23623 net.cpp:91] Creating Layer h_pseudoloss
I0925 22:15:13.469866 23623 net.cpp:425] h_pseudoloss <- h
I0925 22:15:13.469888 23623 net.cpp:399] h_pseudoloss -> h_pseudoloss
I0925 22:15:13.470065 23623 net.cpp:141] Setting up h_pseudoloss
…
I0925 22:15:13.470264 23623 net.cpp:219] lstm2_ does not need backward computation.
I0925 22:15:13.470270 23623 net.cpp:261] This network produces output c_T
I0925 22:15:13.470281 23623 net.cpp:261] This network produces output h_pseudoloss
I0925 22:15:13.470314 23623 net.cpp:274] Network initialization done.
I0925 22:15:13.470412 23623 recurrent_layer.cpp:150] Adding parameter 0: W_xc
I0925 22:15:13.470427 23623 recurrent_layer.cpp:150] Adding parameter 1: b_c
I0925 22:15:13.470437 23623 recurrent_layer.cpp:150] Adding parameter 2: W_hc
I0925 22:15:13.470670 23623 net.cpp:141] Setting up lstm2
I0925 22:15:13.470697 23623 net.cpp:148] Top shape: 1 1 1000 (1000)
I0925 22:15:13.470710 23623 net.cpp:156] Memory required for data: 36412
I0925 22:15:13.470758 23623 layer_factory.hpp:77] Creating layer predict
I0925 22:15:13.470791 23623 net.cpp:91] Creating Layer predict
I0925 22:15:13.470811 23623 net.cpp:425] predict <- lstm2
I0925 22:15:13.470829 23623 net.cpp:399] predict -> predict
I0925 22:15:13.559520 23621 net.cpp:141] Setting up lstm2_transform_1
I0925 22:15:13.559597 23621 net.cpp:148] Top shape: 1 1 4000 (4000)
I0925 22:15:13.559607 23621 net.cpp:156] Memory required for data: 66020
I0925 22:15:13.559643 23621 layer_factory.hpp:77] Creating layer lstm2_gate_input_1
I0925 22:15:13.559677 23621 net.cpp:91] Creating Layer lstm2_gate_input_1
I0925 22:15:13.559689 23621 net.cpp:425] lstm2_gate_input_1 <- W_hc_h_0
I0925 22:15:13.559703 23621 net.cpp:425] lstm2_gate_input_1 <- W_xc_x_1
I0925 22:15:13.559718 23621 net.cpp:399] lstm2_gate_input_1 -> gate_input_1
I0925 22:15:13.561547 23621 net.cpp:141] Setting up lstm2_gate_input_1
I0925 22:15:13.561604 23621 net.cpp:148] Top shape: 1 1 4000 (4000)
I0925 22:15:13.561614 23621 net.cpp:156] Memory required for data: 82020
I0925 22:15:13.561627 23621 layer_factory.hpp:77] Creating layer lstm2_unit_1
I0925 22:15:13.562332 23621 net.cpp:91] Creating Layer lstm2_unit_1
I0925 22:15:13.562352 23621 net.cpp:425] lstm2_unit_1 <- c_0
I0925 22:15:13.562371 23621 net.cpp:425] lstm2_unit_1 <- gate_input_1
I0925 22:15:13.562383 23621 net.cpp:425] lstm2_unit_1 <- cont_1_lstm2_cont_slice_0_split_1
I0925 22:15:13.562399 23621 net.cpp:399] lstm2_unit_1 -> c_1
I0925 22:15:13.562425 23621 net.cpp:399] lstm2_unit_1 -> h_1
I0925 22:15:13.580071 23621 net.cpp:141] Setting up lstm2_unit_1
I0925 22:15:13.580219 23625 net.cpp:141] Setting up predict
I0925 22:15:13.580585 23621 net.cpp:148] Top shape: 1 1 1000 (1000)
I0925 22:15:13.580590 23625 net.cpp:148] Top shape: 1 1 46168 (46168)
I0925 22:15:13.580601 23621 net.cpp:148] Top shape: 1 1 1000 (1000)
I0925 22:15:13.580602 23625 net.cpp:156] Memory required for data: 221084
I0925 22:15:13.580610 23621 net.cpp:156] Memory required for data: 90020
I0925 22:15:13.580621 23621 layer_factory.hpp:77] Creating layer lstm2_
I0925 22:15:13.580628 23625 layer_factory.hpp:77] Creating layer probs
I0925 22:15:13.580642 23621 net.cpp:91] Creating Layer lstm2_
I0925 22:15:13.580651 23625 net.cpp:91] Creating Layer probs
I0925 22:15:13.580652 23621 net.cpp:425] lstm2_ <- c_1
I0925 22:15:13.580685 23625 net.cpp:425] probs <- predict
I0925 22:15:13.580691 23621 net.cpp:399] lstm2_ -> c_T
I0925 22:15:13.580703 23625 net.cpp:399] probs -> probs
I0925 22:15:13.580780 23621 net.cpp:141] Setting up lstm2_
I0925 22:15:13.580796 23621 net.cpp:148] Top shape: 1 1 1000 (1000)
I0925 22:15:13.580803 23621 net.cpp:156] Memory required for data: 94020
I0925 22:15:13.580811 23621 layer_factory.hpp:77] Creating layer lstm2_h_concat
I0925 22:15:13.580831 23621 net.cpp:91] Creating Layer lstm2_h_concat
I0925 22:15:13.580839 23621 net.cpp:425] lstm2_h_concat <- h_1
I0925 22:15:13.580852 23621 net.cpp:399] lstm2_h_concat -> h
I0925 22:15:13.580937 23621 net.cpp:141] Setting up lstm2_h_concat
I0925 22:15:13.580952 23621 net.cpp:148] Top shape: 1 1 1000 (1000)
I0925 22:15:13.580960 23621 net.cpp:156] Memory required for data: 98020
I0925 22:15:13.580967 23621 layer_factory.hpp:77] Creating layer h_pseudoloss
I0925 22:15:13.580981 23621 net.cpp:91] Creating Layer h_pseudoloss
I0925 22:15:13.580988 23621 net.cpp:425] h_pseudoloss <- h
I0925 22:15:13.581004 23621 net.cpp:399] h_pseudoloss -> h_pseudoloss
I0925 22:15:13.581202 23621 net.cpp:141] Setting up h_pseudoloss
…
I0925 22:15:13.581367 23621 net.cpp:219] lstm2_ does not need backward computation.
I0925 22:15:13.581372 23621 net.cpp:261] This network produces output c_T
I0925 22:15:13.581379 23621 net.cpp:261] This network produces output h_pseudoloss
I0925 22:15:13.581408 23621 net.cpp:274] Network initialization done.
I0925 22:15:13.581490 23621 recurrent_layer.cpp:150] Adding parameter 0: W_xc
I0925 22:15:13.583814 23621 recurrent_layer.cpp:150] Adding parameter 1: b_c
I0925 22:15:13.583844 23621 recurrent_layer.cpp:150] Adding parameter 2: W_hc
I0925 22:15:13.586534 23621 net.cpp:141] Setting up lstm2
I0925 22:15:13.586593 23621 net.cpp:148] Top shape: 1 1 1000 (1000)
I0925 22:15:13.586642 23621 net.cpp:156] Memory required for data: 36412
I0925 22:15:13.586679 23621 layer_factory.hpp:77] Creating layer predict
I0925 22:15:13.586707 23621 net.cpp:91] Creating Layer predict
I0925 22:15:13.586721 23621 net.cpp:425] predict <- lstm2
I0925 22:15:13.586737 23621 net.cpp:399] predict -> predict
I0925 22:15:13.690256 23655 net.cpp:141] Setting up predict
I0925 22:15:13.690321 23655 net.cpp:148] Top shape: 1 1 46168 (46168)
I0925 22:15:13.690333 23655 net.cpp:156] Memory required for data: 221084
I0925 22:15:13.690389 23655 layer_factory.hpp:77] Creating layer probs
I0925 22:15:13.690420 23655 net.cpp:91] Creating Layer probs
I0925 22:15:13.690446 23655 net.cpp:425] probs <- predict
I0925 22:15:13.690464 23655 net.cpp:399] probs -> probs
I0925 22:15:13.761448 23649 net.cpp:141] Setting up probs
I0925 22:15:13.761502 23649 net.cpp:148] Top shape: 1 1 46168 (46168)
I0925 22:15:13.761513 23649 net.cpp:156] Memory required for data: 405756
I0925 22:15:13.761528 23649 net.cpp:219] probs does not need backward computation.
I0925 22:15:13.761540 23649 net.cpp:219] predict does not need backward computation.
I0925 22:15:13.761549 23649 net.cpp:219] lstm2 does not need backward computation.
I0925 22:15:13.761559 23649 net.cpp:219] concat does not need backward computation.
I0925 22:15:13.761570 23649 net.cpp:219] lstm1 does not need backward computation.
I0925 22:15:13.761581 23649 net.cpp:219] embedding does not need backward computation.
I0925 22:15:13.761591 23649 net.cpp:219] reshape_stage_indicator does not need backward computation.
I0925 22:15:13.761601 23649 net.cpp:219] reshape_frames does not need backward computation.
I0925 22:15:13.761615 23649 net.cpp:219] embed_encoder does not need backward computation.
I0925 22:15:13.761625 23649 net.cpp:219] cont_sentence_input_1_split does not need backward computation.
I0925 22:15:13.761636 23649 net.cpp:219] input does not need backward computation.
I0925 22:15:13.761643 23649 net.cpp:261] This network produces output probs
I0925 22:15:13.761680 23649 net.cpp:274] Network initialization done.
I0925 22:15:13.769785 23655 net.cpp:141] Setting up probs
I0925 22:15:13.769837 23655 net.cpp:148] Top shape: 1 1 46168 (46168)
I0925 22:15:13.769846 23655 net.cpp:156] Memory required for data: 405756
I0925 22:15:13.769860 23655 net.cpp:219] probs does not need backward computation.
I0925 22:15:13.769868 23655 net.cpp:219] predict does not need backward computation.
I0925 22:15:13.769876 23655 net.cpp:219] lstm2 does not need backward computation.
I0925 22:15:13.769906 23655 net.cpp:219] concat does not need backward computation.
I0925 22:15:13.769928 23655 net.cpp:219] lstm1 does not need backward computation.
I0925 22:15:13.769950 23655 net.cpp:219] embedding does not need backward computation.
I0925 22:15:13.769958 23655 net.cpp:219] reshape_stage_indicator does not need backward computation.
I0925 22:15:13.769965 23655 net.cpp:219] reshape_frames does not need backward computation.
I0925 22:15:13.769973 23655 net.cpp:219] embed_encoder does not need backward computation.
I0925 22:15:13.769979 23655 net.cpp:219] cont_sentence_input_1_split does not need backward computation.
I0925 22:15:13.769989 23655 net.cpp:219] input does not need backward computation.
I0925 22:15:13.769994 23655 net.cpp:261] This network produces output probs
I0925 22:15:13.770020 23655 net.cpp:274] Network initialization done.
I0925 22:15:13.770462 23647 net.cpp:141] Setting up conv1
I0925 22:15:13.770483 23647 net.cpp:148] Top shape: 10 96 55 55 (2904000)
I0925 22:15:13.770491 23647 net.cpp:156] Memory required for data: 17799480
I0925 22:15:13.770520 23647 layer_factory.hpp:77] Creating layer relu1
I0925 22:15:13.770542 23647 net.cpp:91] Creating Layer relu1
I0925 22:15:13.770552 23647 net.cpp:425] relu1 <- conv1
I0925 22:15:13.770563 23647 net.cpp:386] relu1 -> conv1 (in-place)
I0925 22:15:13.771292 23647 net.cpp:141] Setting up relu1
I0925 22:15:13.771317 23647 net.cpp:148] Top shape: 10 96 55 55 (2904000)
I0925 22:15:13.771317 23625 net.cpp:141] Setting up probs
I0925 22:15:13.771324 23647 net.cpp:156] Memory required for data: 29415480
I0925 22:15:13.771343 23647 layer_factory.hpp:77] Creating layer pool1
I0925 22:15:13.771371 23647 net.cpp:91] Creating Layer pool1
I0925 22:15:13.771380 23647 net.cpp:425] pool1 <- conv1
I0925 22:15:13.771394 23647 net.cpp:399] pool1 -> pool1
I0925 22:15:13.771343 23625 net.cpp:148] Top shape: 1 1 46168 (46168)
I0925 22:15:13.771488 23625 net.cpp:156] Memory required for data: 405756
I0925 22:15:13.771497 23625 net.cpp:219] probs does not need backward computation.
I0925 22:15:13.771507 23625 net.cpp:219] predict does not need backward computation.
I0925 22:15:13.771507 23647 net.cpp:141] Setting up pool1
I0925 22:15:13.771517 23625 net.cpp:219] lstm2 does not need backward computation.
I0925 22:15:13.771523 23647 net.cpp:148] Top shape: 10 96 27 27 (699840)
I0925 22:15:13.771525 23625 net.cpp:219] concat does not need backward computation.
I0925 22:15:13.771530 23647 net.cpp:156] Memory required for data: 32214840
I0925 22:15:13.771535 23625 net.cpp:219] lstm1 does not need backward computation.
I0925 22:15:13.771538 23647 layer_factory.hpp:77] Creating layer norm1
I0925 22:15:13.771544 23625 net.cpp:219] embedding does not need backward computation.
I0925 22:15:13.771553 23625 net.cpp:219] reshape_stage_indicator does not need backward computation.
I0925 22:15:13.771560 23625 net.cpp:219] reshape_frames does not need backward computation.
I0925 22:15:13.771564 23647 net.cpp:91] Creating Layer norm1
I0925 22:15:13.771569 23625 net.cpp:219] embed_encoder does not need backward computation.
I0925 22:15:13.771571 23647 net.cpp:425] norm1 <- pool1
I0925 22:15:13.771576 23625 net.cpp:219] cont_sentence_input_1_split does not need backward computation.
I0925 22:15:13.771584 23647 net.cpp:399] norm1 -> norm1
I0925 22:15:13.771585 23625 net.cpp:219] input does not need backward computation.
I0925 22:15:13.771592 23625 net.cpp:261] This network produces output probs
I0925 22:15:13.771617 23625 net.cpp:274] Network initialization done.
I0925 22:15:13.772310 23647 net.cpp:141] Setting up norm1
I0925 22:15:13.772330 23647 net.cpp:148] Top shape: 10 96 27 27 (699840)
I0925 22:15:13.772337 23647 net.cpp:156] Memory required for data: 35014200
I0925 22:15:13.772346 23647 layer_factory.hpp:77] Creating layer conv2
I0925 22:15:13.772367 23647 net.cpp:91] Creating Layer conv2
I0925 22:15:13.772375 23647 net.cpp:425] conv2 <- norm1
I0925 22:15:13.772442 23647 net.cpp:399] conv2 -> conv2
I0925 22:15:13.788811 23647 net.cpp:141] Setting up conv2
I0925 22:15:13.789358 23647 net.cpp:148] Top shape: 10 256 27 27 (1866240)
I0925 22:15:13.789372 23647 net.cpp:156] Memory required for data: 42479160
I0925 22:15:13.789403 23647 layer_factory.hpp:77] Creating layer relu2
I0925 22:15:13.789427 23647 net.cpp:91] Creating Layer relu2
I0925 22:15:13.789435 23647 net.cpp:425] relu2 <- conv2
I0925 22:15:13.789451 23647 net.cpp:386] relu2 -> conv2 (in-place)
I0925 22:15:13.790516 23647 net.cpp:141] Setting up relu2
I0925 22:15:13.790558 23647 net.cpp:148] Top shape: 10 256 27 27 (1866240)
I0925 22:15:13.790566 23647 net.cpp:156] Memory required for data: 49944120
I0925 22:15:13.790576 23647 layer_factory.hpp:77] Creating layer pool2
I0925 22:15:13.790659 23647 net.cpp:91] Creating Layer pool2
I0925 22:15:13.790673 23647 net.cpp:425] pool2 <- conv2
I0925 22:15:13.790688 23647 net.cpp:399] pool2 -> pool2
I0925 22:15:13.790832 23647 net.cpp:141] Setting up pool2
I0925 22:15:13.790846 23647 net.cpp:148] Top shape: 10 256 13 13 (432640)
I0925 22:15:13.790853 23647 net.cpp:156] Memory required for data: 51674680
I0925 22:15:13.790863 23647 layer_factory.hpp:77] Creating layer norm2
I0925 22:15:13.790884 23647 net.cpp:91] Creating Layer norm2
I0925 22:15:13.790891 23647 net.cpp:425] norm2 <- pool2
I0925 22:15:13.790901 23647 net.cpp:399] norm2 -> norm2
I0925 22:15:13.791699 23647 net.cpp:141] Setting up norm2
I0925 22:15:13.791721 23647 net.cpp:148] Top shape: 10 256 13 13 (432640)
I0925 22:15:13.791733 23647 net.cpp:156] Memory required for data: 53405240
I0925 22:15:13.791740 23647 layer_factory.hpp:77] Creating layer conv3
I0925 22:15:13.791760 23647 net.cpp:91] Creating Layer conv3
I0925 22:15:13.791769 23647 net.cpp:425] conv3 <- norm2
I0925 22:15:13.791785 23647 net.cpp:399] conv3 -> conv3
I0925 22:15:13.817023 23631 net.cpp:141] Setting up predict
I0925 22:15:13.817077 23631 net.cpp:148] Top shape: 1 1 46168 (46168)
I0925 22:15:13.817088 23631 net.cpp:156] Memory required for data: 221084
I0925 22:15:13.817108 23631 layer_factory.hpp:77] Creating layer probs
I0925 22:15:13.817132 23631 net.cpp:91] Creating Layer probs
I0925 22:15:13.817144 23631 net.cpp:425] probs <- predict
I0925 22:15:13.817159 23631 net.cpp:399] probs -> probs
I0925 22:15:13.818068 23647 net.cpp:141] Setting up conv3
I0925 22:15:13.818071 23631 net.cpp:141] Setting up probs
I0925 22:15:13.818094 23647 net.cpp:148] Top shape: 10 384 13 13 (648960)
I0925 22:15:13.818102 23647 net.cpp:156] Memory required for data: 56001080
I0925 22:15:13.818102 23631 net.cpp:148] Top shape: 1 1 46168 (46168)
I0925 22:15:13.818126 23631 net.cpp:156] Memory required for data: 405756
I0925 22:15:13.818135 23647 layer_factory.hpp:77] Creating layer relu3
I0925 22:15:13.818137 23631 net.cpp:219] probs does not need backward computation.
I0925 22:15:13.818148 23631 net.cpp:219] predict does not need backward computation.
I0925 22:15:13.818150 23647 net.cpp:91] Creating Layer relu3
I0925 22:15:13.818159 23631 net.cpp:219] lstm2 does not need backward computation.
…
I0925 22:15:13.818207 23631 net.cpp:219] reshape_frames does not need backward computation.
I0925 22:15:13.818215 23631 net.cpp:219] embed_encoder does not need backward computation.
I0925 22:15:13.818224 23631 net.cpp:219] cont_sentence_input_1_split does not need backward computation.
I0925 22:15:13.818236 23631 net.cpp:219] input does not need backward computation.
I0925 22:15:13.818244 23631 net.cpp:261] This network produces output probs
I0925 22:15:13.818781 23631 net.cpp:274] Network initialization done.
I0925 22:15:13.827267 23647 net.cpp:141] Setting up relu3
I0925 22:15:13.827333 23647 net.cpp:148] Top shape: 10 384 13 13 (648960)
I0925 22:15:13.827344 23647 net.cpp:156] Memory required for data: 58596920
I0925 22:15:13.827373 23647 layer_factory.hpp:77] Creating layer conv4
I0925 22:15:13.827433 23647 net.cpp:91] Creating Layer conv4
I0925 22:15:13.827447 23647 net.cpp:425] conv4 <- conv3
I0925 22:15:13.827466 23647 net.cpp:399] conv4 -> conv4
I0925 22:15:13.862864 23647 net.cpp:141] Setting up conv4
I0925 22:15:13.862934 23647 net.cpp:148] Top shape: 10 384 13 13 (648960)
I0925 22:15:13.862946 23647 net.cpp:156] Memory required for data: 61192760
I0925 22:15:13.862972 23647 layer_factory.hpp:77] Creating layer relu4
I0925 22:15:13.863015 23647 net.cpp:91] Creating Layer relu4
I0925 22:15:13.863029 23647 net.cpp:425] relu4 <- conv4
I0925 22:15:13.863047 23647 net.cpp:386] relu4 -> conv4 (in-place)
I0925 22:15:13.863979 23647 net.cpp:141] Setting up relu4
I0925 22:15:13.864025 23647 net.cpp:148] Top shape: 10 384 13 13 (648960)
I0925 22:15:13.864037 23647 net.cpp:156] Memory required for data: 63788600
I0925 22:15:13.864051 23647 layer_factory.hpp:77] Creating layer conv5
I0925 22:15:13.864084 23647 net.cpp:91] Creating Layer conv5
I0925 22:15:13.864094 23647 net.cpp:425] conv5 <- conv4
I0925 22:15:13.864111 23647 net.cpp:399] conv5 -> conv5
I0925 22:15:13.885542 23647 net.cpp:141] Setting up conv5
I0925 22:15:13.885612 23647 net.cpp:148] Top shape: 10 256 13 13 (432640)
I0925 22:15:13.885625 23647 net.cpp:156] Memory required for data: 65519160
I0925 22:15:13.885663 23647 layer_factory.hpp:77] Creating layer relu5
I0925 22:15:13.885705 23647 net.cpp:91] Creating Layer relu5
I0925 22:15:13.885720 23647 net.cpp:425] relu5 <- conv5
I0925 22:15:13.885737 23647 net.cpp:386] relu5 -> conv5 (in-place)
I0925 22:15:13.886798 23647 net.cpp:141] Setting up relu5
I0925 22:15:13.886857 23647 net.cpp:148] Top shape: 10 256 13 13 (432640)
I0925 22:15:13.886870 23647 net.cpp:156] Memory required for data: 67249720
I0925 22:15:13.886885 23647 layer_factory.hpp:77] Creating layer pool5
I0925 22:15:13.886922 23647 net.cpp:91] Creating Layer pool5
I0925 22:15:13.886937 23647 net.cpp:425] pool5 <- conv5
I0925 22:15:13.886955 23647 net.cpp:399] pool5 -> pool5
I0925 22:15:13.887184 23647 net.cpp:141] Setting up pool5
I0925 22:15:13.887207 23647 net.cpp:148] Top shape: 10 256 6 6 (92160)
I0925 22:15:13.887218 23647 net.cpp:156] Memory required for data: 67618360
I0925 22:15:13.887229 23647 layer_factory.hpp:77] Creating layer fc6
I0925 22:15:13.887256 23647 net.cpp:91] Creating Layer fc6
I0925 22:15:13.887269 23647 net.cpp:425] fc6 <- pool5
I0925 22:15:13.887305 23647 net.cpp:399] fc6 -> fc6
I0925 22:15:13.986003 23623 net.cpp:141] Setting up predict
I0925 22:15:13.986063 23623 net.cpp:148] Top shape: 1 1 46168 (46168)
I0925 22:15:13.986068 23623 net.cpp:156] Memory required for data: 221084
I0925 22:15:13.986084 23623 layer_factory.hpp:77] Creating layer probs
I0925 22:15:13.986104 23623 net.cpp:91] Creating Layer probs
I0925 22:15:13.986114 23623 net.cpp:425] probs <- predict
I0925 22:15:13.986124 23623 net.cpp:399] probs -> probs
I0925 22:15:13.988548 23623 net.cpp:141] Setting up probs
I0925 22:15:13.988622 23623 net.cpp:148] Top shape: 1 1 46168 (46168)
I0925 22:15:13.988632 23623 net.cpp:156] Memory required for data: 405756
I0925 22:15:13.988648 23623 net.cpp:219] probs does not need backward computation.
I0925 22:15:13.988657 23623 net.cpp:219] predict does not need backward computation.
I0925 22:15:13.988664 23623 net.cpp:219] lstm2 does not need backward computation.
I0925 22:15:13.988672 23623 net.cpp:219] concat does not need backward computation.
I0925 22:15:13.988682 23623 net.cpp:219] lstm1 does not need backward computation.
I0925 22:15:13.988694 23623 net.cpp:219] embedding does not need backward computation.
I0925 22:15:13.988699 23623 net.cpp:219] reshape_stage_indicator does not need backward computation.
I0925 22:15:13.988705 23623 net.cpp:219] reshape_frames does not need backward computation.
I0925 22:15:13.988711 23623 net.cpp:219] embed_encoder does not need backward computation.
I0925 22:15:13.988716 23623 net.cpp:219] cont_sentence_input_1_split does not need backward computation.
I0925 22:15:13.988723 23623 net.cpp:219] input does not need backward computation.
I0925 22:15:13.988728 23623 net.cpp:261] This network produces output probs
I0925 22:15:13.988749 23623 net.cpp:274] Network initialization done.
I0925 22:15:14.012517 23647 net.cpp:141] Setting up fc6
I0925 22:15:14.012580 23647 net.cpp:148] Top shape: 10 4096 (40960)
I0925 22:15:14.012588 23647 net.cpp:156] Memory required for data: 67782200
I0925 22:15:14.012604 23647 layer_factory.hpp:77] Creating layer relu6
I0925 22:15:14.012629 23647 net.cpp:91] Creating Layer relu6
I0925 22:15:14.012635 23647 net.cpp:425] relu6 <- fc6
I0925 22:15:14.012645 23647 net.cpp:386] relu6 -> fc6 (in-place)
I0925 22:15:14.014369 23647 net.cpp:141] Setting up relu6
I0925 22:15:14.014437 23647 net.cpp:148] Top shape: 10 4096 (40960)
I0925 22:15:14.014454 23647 net.cpp:156] Memory required for data: 67946040
I0925 22:15:14.014472 23647 layer_factory.hpp:77] Creating layer drop6
I0925 22:15:14.014516 23647 net.cpp:91] Creating Layer drop6
I0925 22:15:14.014530 23647 net.cpp:425] drop6 <- fc6
I0925 22:15:14.014549 23647 net.cpp:386] drop6 -> fc6 (in-place)
I0925 22:15:14.015219 23647 net.cpp:141] Setting up drop6
I0925 22:15:14.015252 23647 net.cpp:148] Top shape: 10 4096 (40960)
I0925 22:15:14.015260 23647 net.cpp:156] Memory required for data: 68109880
I0925 22:15:14.015269 23647 layer_factory.hpp:77] Creating layer fc7
I0925 22:15:14.015286 23647 net.cpp:91] Creating Layer fc7
I0925 22:15:14.015295 23647 net.cpp:425] fc7 <- fc6
I0925 22:15:14.015311 23647 net.cpp:399] fc7 -> fc7
I0925 22:15:14.079846 23647 net.cpp:141] Setting up fc7
I0925 22:15:14.079926 23647 net.cpp:148] Top shape: 10 4096 (40960)
I0925 22:15:14.079937 23647 net.cpp:156] Memory required for data: 68273720
I0925 22:15:14.079970 23647 layer_factory.hpp:77] Creating layer relu7
I0925 22:15:14.079999 23647 net.cpp:91] Creating Layer relu7
I0925 22:15:14.080013 23647 net.cpp:425] relu7 <- fc7
I0925 22:15:14.080368 23647 net.cpp:386] relu7 -> fc7 (in-place)
I0925 22:15:14.082716 23647 net.cpp:141] Setting up relu7
I0925 22:15:14.082804 23647 net.cpp:148] Top shape: 10 4096 (40960)
I0925 22:15:14.082819 23647 net.cpp:156] Memory required for data: 68437560
I0925 22:15:14.082845 23647 layer_factory.hpp:77] Creating layer drop7
I0925 22:15:14.082876 23647 net.cpp:91] Creating Layer drop7
I0925 22:15:14.082890 23647 net.cpp:425] drop7 <- fc7
I0925 22:15:14.082909 23647 net.cpp:386] drop7 -> fc7 (in-place)
I0925 22:15:14.083281 23647 net.cpp:141] Setting up drop7
I0925 22:15:14.083303 23647 net.cpp:148] Top shape: 10 4096 (40960)
I0925 22:15:14.083312 23647 net.cpp:156] Memory required for data: 68601400
I0925 22:15:14.083319 23647 layer_factory.hpp:77] Creating layer fc8
I0925 22:15:14.083340 23647 net.cpp:91] Creating Layer fc8
I0925 22:15:14.083349 23647 net.cpp:425] fc8 <- fc7
I0925 22:15:14.083361 23647 net.cpp:399] fc8 -> fc8
I0925 22:15:14.093394 23621 net.cpp:141] Setting up predict
I0925 22:15:14.093463 23621 net.cpp:148] Top shape: 1 1 46168 (46168)
I0925 22:15:14.093478 23621 net.cpp:156] Memory required for data: 221084
I0925 22:15:14.093497 23621 layer_factory.hpp:77] Creating layer probs
I0925 22:15:14.093523 23621 net.cpp:91] Creating Layer probs
I0925 22:15:14.093536 23621 net.cpp:425] probs <- predict
I0925 22:15:14.093550 23621 net.cpp:399] probs -> probs
I0925 22:15:14.095046 23621 net.cpp:141] Setting up probs
I0925 22:15:14.095118 23621 net.cpp:148] Top shape: 1 1 46168 (46168)
I0925 22:15:14.095129 23621 net.cpp:156] Memory required for data: 405756
I0925 22:15:14.095145 23621 net.cpp:219] probs does not need backward computation.
I0925 22:15:14.095160 23621 net.cpp:219] predict does not need backward computation.
I0925 22:15:14.095170 23621 net.cpp:219] lstm2 does not need backward computation.
I0925 22:15:14.095180 23621 net.cpp:219] concat does not need backward computation.
I0925 22:15:14.095193 23621 net.cpp:219] lstm1 does not need backward computation.
I0925 22:15:14.095206 23621 net.cpp:219] embedding does not need backward computation.
I0925 22:15:14.095214 23621 net.cpp:219] reshape_stage_indicator does not need backward computation.
I0925 22:15:14.095224 23621 net.cpp:219] reshape_frames does not need backward computation.
I0925 22:15:14.095233 23621 net.cpp:219] embed_encoder does not need backward computation.
I0925 22:15:14.095243 23621 net.cpp:219] cont_sentence_input_1_split does not need backward computation.
I0925 22:15:14.095250 23621 net.cpp:219] input does not need backward computation.
I0925 22:15:14.095257 23621 net.cpp:261] This network produces output probs
I0925 22:15:14.095289 23621 net.cpp:274] Network initialization done.
I0925 22:15:14.101770 23647 net.cpp:141] Setting up fc8
I0925 22:15:14.101848 23647 net.cpp:148] Top shape: 10 1000 (10000)
I0925 22:15:14.101862 23647 net.cpp:156] Memory required for data: 68641400
I0925 22:15:14.101894 23647 layer_factory.hpp:77] Creating layer prob
I0925 22:15:14.101928 23647 net.cpp:91] Creating Layer prob
I0925 22:15:14.101974 23647 net.cpp:425] prob <- fc8
I0925 22:15:14.102370 23647 net.cpp:399] prob -> prob
I0925 22:15:14.105154 23647 net.cpp:141] Setting up prob
I0925 22:15:14.105231 23647 net.cpp:148] Top shape: 10 1000 (10000)
I0925 22:15:14.105243 23647 net.cpp:156] Memory required for data: 68681400
I0925 22:15:14.105259 23647 net.cpp:219] prob does not need backward computation.
I0925 22:15:14.105273 23647 net.cpp:219] fc8 does not need backward computation.
I0925 22:15:14.105283 23647 net.cpp:219] drop7 does not need backward computation.
I0925 22:15:14.105293 23647 net.cpp:219] relu7 does not need backward computation.
…
