…
Java HotSpot(TM) 64-Bit Server VM warning: You have loaded library /tmp/cvld1488046679999786314/libopencv_java310.xine1.so which might have disabled stack guard. The VM will try to fix the stack guard now.
It's highly recommended that you fix the library with 'execstack -c <libfile>', or link it with '-z noexecstack'.
WARNING: Logging before InitGoogleLogging() is written to STDERR
I0720 14:35:43.624862 25632 net.cpp:49] Initializing net from parameters: 
name: "CaffeNet"
state {
  phase: TEST
}
layer {
  name: "data"
  type: "Input"
  top: "data"
  input_param {
    shape {
      dim: 10
      dim: 3
      dim: 227
      dim: 227
    }
  }
}
layer {
  name: "conv1"
  type: "Convolution"
  bottom: "data"
  top: "conv1"
  convolution_param {
    num_output: 96
    kernel_size: 11
    stride: 4
  }
}
layer {
  name: "relu1"
  type: "ReLU"
  bottom: "conv1"
  top: "conv1"
}
layer {
  name: "pool1"
  type: "Pooling"
  bottom: "conv1"
  top: "pool1"
  pooling_param {
    pool: MAX
    kernel_size: 3
    stride: 2
  }
}
layer {
  name: "norm1"
  type: "LRN"
  bottom: "pool1"
  top: "norm1"
  lrn_param {
    local_size: 5
    alpha: 0.0001
    beta: 0.75
  }
}
layer {
  name: "conv2"
  type: "Convolution"
  bottom: "norm1"
  top: "conv2"
  convolution_param {
    num_output: 256
    pad: 2
    kernel_size: 5
    group: 2
  }
}
layer {
  name: "relu2"
  type: "ReLU"
  bottom: "conv2"
  top: "conv2"
}
layer {
  name: "pool2"
  type: "Pooling"
  bottom: "conv2"
  top: "pool2"
  pooling_param {
    pool: MAX
    kernel_size: 3
    stride: 2
  }
}
layer {
  name: "norm2"
  type: "LRN"
  bottom: "pool2"
  top: "norm2"
  lrn_param {
    local_size: 5
    alpha: 0.0001
    beta: 0.75
  }
}
layer {
  name: "conv3"
  type: "Convolution"
  bottom: "norm2"
  top: "conv3"
  convolution_param {
    num_output: 384
    pad: 1
    kernel_size: 3
  }
}
layer {
  name: "relu3"
  type: "ReLU"
  bottom: "conv3"
  top: "conv3"
}
layer {
  name: "conv4"
  type: "Convolution"
  bottom: "conv3"
  top: "conv4"
  convolution_param {
    num_output: 384
    pad: 1
    kernel_size: 3
    group: 2
  }
}
layer {
  name: "relu4"
  type: "ReLU"
  bottom: "conv4"
  top: "conv4"
}
layer {
  name: "conv5"
  type: "Convolution"
  bottom: "conv4"
  top: "conv5"
  convolution_param {
    num_output: 256
    pad: 1
    kernel_size: 3
    group: 2
  }
}
layer {
  name: "relu5"
  type: "ReLU"
  bottom: "conv5"
  top: "conv5"
}
layer {
  name: "pool5"
  type: "Pooling"
  bottom: "conv5"
  top: "pool5"
  pooling_param {
    pool: MAX
    kernel_size: 3
    stride: 2
  }
}
layer {
  name: "fc6"
  type: "InnerProduct"
  bottom: "pool5"
  top: "fc6"
  inner_product_param {
    num_output: 4096
  }
}
layer {
  name: "relu6"
  type: "ReLU"
  bottom: "fc6"
  top: "fc6"
}
layer {
  name: "drop6"
  type: "Dropout"
  bottom: "fc6"
  top: "fc6"
  dropout_param {
    dropout_ratio: 0.5
  }
}
layer {
  name: "fc7"
  type: "InnerProduct"
  bottom: "fc6"
  top: "fc7"
  inner_product_param {
    num_output: 4096
  }
}
layer {
  name: "relu7"
  type: "ReLU"
  bottom: "fc7"
  top: "fc7"
}
layer {
  name: "drop7"
  type: "Dropout"
  bottom: "fc7"
  top: "fc7"
  dropout_param {
    dropout_ratio: 0.5
  }
}
layer {
  name: "fc8"
  type: "InnerProduct"
  bottom: "fc7"
  top: "fc8"
  inner_product_param {
    num_output: 1000
  }
}
layer {
  name: "prob"
  type: "Softmax"
  bottom: "fc8"
  top: "prob"
}
I0720 14:35:43.625038 25632 layer_factory.hpp:77] Creating layer data
I0720 14:35:43.625062 25632 net.cpp:91] Creating Layer data
I0720 14:35:43.625072 25632 net.cpp:399] data -> data
I0720 14:35:44.054373 25622 upgrade_proto.cpp:66] Attempting to upgrade input file specified using deprecated input fields: /tmp/cvld1488046679999786314/s2vt.words_to_preds.prototxt
I0720 14:35:44.054420 25622 upgrade_proto.cpp:69] Successfully upgraded file specified using deprecated input fields.
W0720 14:35:44.054427 25622 upgrade_proto.cpp:71] Note that future Caffe releases will only support input layers and not input fields.
I0720 14:35:44.054682 25622 net.cpp:49] Initializing net from parameters: 
name: "s2vt:features_to_lstm"
state {
  phase: TEST
}
layer {
  name: "input"
  type: "Input"
  top: "frames_fc7"
  top: "cont_sentence"
  top: "input_sentence"
  top: "stage_indicator"
  input_param {
    shape {
      dim: 1
      dim: 4096
    }
    shape {
      dim: 1
      dim: 1
    }
    shape {
      dim: 1
      dim: 1
    }
    shape {
      dim: 1
      dim: 1
    }
  }
}
layer {
  name: "embed_encoder"
  type: "InnerProduct"
  bottom: "frames_fc7"
  top: "embedded_in_frames"
  param {
    lr_mult: 1
    decay_mult: 1
  }
  param {
    lr_mult: 2
    decay_mult: 0
  }
  inner_product_param {
    num_output: 500
    weight_filler {
      type: "xavier"
    }
    bias_filler {
      type: "constant"
      value: 0.2
    }
  }
}
layer {
  name: "reshape_frames"
  type: "Reshape"
  bottom: "embedded_in_frames"
  top: "embedded_input_frames"
  reshape_param {
    shape {
      dim: 1
      dim: 1
      dim: 500
    }
  }
}
layer {
  name: "reshape_stage_indicator"
  type: "Reshape"
  bottom: "stage_indicator"
  top: "reshaped_stage_indicator"
  reshape_param {
    shape {
      dim: 1
      dim: 1
      dim: 1
    }
  }
}
layer {
  name: "embedding"
  type: "Embed"
  bottom: "input_sentence"
  top: "embedded_input_sentence"
  param {
    lr_mult: 1
  }
  embed_param {
    num_output: 500
    input_dim: 46168
    bias_term: false
    weight_filler {
      type: "uniform"
      min: -0.08
      max: 0.08
    }
  }
}
layer {
  name: "lstm1"
  type: "LSTM"
  bottom: "embedded_input_frames"
  bottom: "cont_sentence"
  top: "lstm1"
  recurrent_param {
    num_output: 1000
    weight_filler {
      type: "uniform"
      min: -0.08
      max: 0.08
    }
    bias_filler {
      type: "constant"
      value: 0
    }
  }
}
layer {
  name: "concat"
  type: "Concat"
  bottom: "lstm1"
  bottom: "embedded_input_sentence"
  bottom: "reshaped_stage_indicator"
  top: "lstm1_video_sequence"
  concat_param {
    concat_dim: 2
  }
}
layer {
  name: "lstm2"
  type: "LSTM"
  bottom: "lstm1_video_sequence"
  bottom: "cont_sentence"
  top: "lstm2"
  recurrent_param {
    num_output: 1000
    weight_filler {
      type: "uniform"
      min: -0.08
      max: 0.08
    }
    bias_filler {
      type: "constant"
      value: 0
    }
  }
}
layer {
  name: "predict"
  type: "InnerProduct"
  bottom: "lstm2"
  top: "predict"
  param {
    lr_mult: 1
    decay_mult: 1
  }
  param {
    lr_mult: 2
    decay_mult: 0
  }
  inner_product_param {
    num_output: 46168
    weight_filler {
      type: "uniform"
      min: -0.08
      max: 0.08
    }
    bias_filler {
      type: "constant"
      value: 0
    }
    axis: 2
  }
}
layer {
  name: "probs"
  type: "Softmax"
  bottom: "predict"
  top: "probs"
  softmax_param {
    axis: 2
  }
}
I0720 14:35:44.054823 25622 layer_factory.hpp:77] Creating layer input
I0720 14:35:44.054841 25622 net.cpp:91] Creating Layer input
I0720 14:35:44.054848 25622 net.cpp:399] input -> frames_fc7
I0720 14:35:44.054865 25622 net.cpp:399] input -> cont_sentence
I0720 14:35:44.054877 25622 net.cpp:399] input -> input_sentence
I0720 14:35:44.054886 25622 net.cpp:399] input -> stage_indicator
I0720 14:35:44.230113 25632 net.cpp:141] Setting up data
I0720 14:35:44.230177 25632 net.cpp:148] Top shape: 10 3 227 227 (1545870)
I0720 14:35:44.230183 25632 net.cpp:156] Memory required for data: 6183480
I0720 14:35:44.230190 25622 net.cpp:141] Setting up input
I0720 14:35:44.230203 25632 layer_factory.hpp:77] Creating layer conv1
I0720 14:35:44.230211 25622 net.cpp:148] Top shape: 1 4096 (4096)
I0720 14:35:44.230218 25622 net.cpp:148] Top shape: 1 1 (1)
I0720 14:35:44.230223 25622 net.cpp:148] Top shape: 1 1 (1)
I0720 14:35:44.230229 25622 net.cpp:148] Top shape: 1 1 (1)
I0720 14:35:44.230232 25632 net.cpp:91] Creating Layer conv1
I0720 14:35:44.230233 25622 net.cpp:156] Memory required for data: 16396
I0720 14:35:44.230245 25632 net.cpp:425] conv1 <- data
I0720 14:35:44.230247 25622 layer_factory.hpp:77] Creating layer cont_sentence_input_1_split
I0720 14:35:44.230258 25632 net.cpp:399] conv1 -> conv1
I0720 14:35:44.230268 25622 net.cpp:91] Creating Layer cont_sentence_input_1_split
I0720 14:35:44.230273 25622 net.cpp:425] cont_sentence_input_1_split <- cont_sentence
I0720 14:35:44.230294 25622 net.cpp:399] cont_sentence_input_1_split -> cont_sentence_input_1_split_0
I0720 14:35:44.230305 25622 net.cpp:399] cont_sentence_input_1_split -> cont_sentence_input_1_split_1
I0720 14:35:44.230486 25622 net.cpp:141] Setting up cont_sentence_input_1_split
I0720 14:35:44.230497 25622 net.cpp:148] Top shape: 1 1 (1)
I0720 14:35:44.230504 25622 net.cpp:148] Top shape: 1 1 (1)
I0720 14:35:44.230507 25622 net.cpp:156] Memory required for data: 16404
I0720 14:35:44.230512 25622 layer_factory.hpp:77] Creating layer embed_encoder
I0720 14:35:44.230533 25622 net.cpp:91] Creating Layer embed_encoder
I0720 14:35:44.230538 25622 net.cpp:425] embed_encoder <- frames_fc7
I0720 14:35:44.230546 25622 net.cpp:399] embed_encoder -> embedded_in_frames
I0720 14:35:44.253775 25622 net.cpp:141] Setting up embed_encoder
I0720 14:35:44.253813 25622 net.cpp:148] Top shape: 1 500 (500)
I0720 14:35:44.253818 25622 net.cpp:156] Memory required for data: 18404
I0720 14:35:44.253842 25622 layer_factory.hpp:77] Creating layer reshape_frames
I0720 14:35:44.253870 25622 net.cpp:91] Creating Layer reshape_frames
I0720 14:35:44.253877 25622 net.cpp:425] reshape_frames <- embedded_in_frames
I0720 14:35:44.253890 25622 net.cpp:399] reshape_frames -> embedded_input_frames
I0720 14:35:44.254866 25622 net.cpp:141] Setting up reshape_frames
I0720 14:35:44.254876 25622 net.cpp:148] Top shape: 1 1 500 (500)
I0720 14:35:44.254880 25622 net.cpp:156] Memory required for data: 20404
I0720 14:35:44.254885 25622 layer_factory.hpp:77] Creating layer reshape_stage_indicator
I0720 14:35:44.254896 25622 net.cpp:91] Creating Layer reshape_stage_indicator
I0720 14:35:44.254901 25622 net.cpp:425] reshape_stage_indicator <- stage_indicator
I0720 14:35:44.254909 25622 net.cpp:399] reshape_stage_indicator -> reshaped_stage_indicator
I0720 14:35:44.255141 25622 net.cpp:141] Setting up reshape_stage_indicator
I0720 14:35:44.255151 25622 net.cpp:148] Top shape: 1 1 1 (1)
I0720 14:35:44.255154 25622 net.cpp:156] Memory required for data: 20408
I0720 14:35:44.255159 25622 layer_factory.hpp:77] Creating layer embedding
I0720 14:35:44.255172 25622 net.cpp:91] Creating Layer embedding
I0720 14:35:44.255177 25622 net.cpp:425] embedding <- input_sentence
I0720 14:35:44.255185 25622 net.cpp:399] embedding -> embedded_input_sentence
I0720 14:35:44.476085 25622 net.cpp:141] Setting up embedding
I0720 14:35:44.476131 25622 net.cpp:148] Top shape: 1 1 500 (500)
I0720 14:35:44.476137 25622 net.cpp:156] Memory required for data: 22408
I0720 14:35:44.476155 25622 layer_factory.hpp:77] Creating layer lstm1
I0720 14:35:44.476174 25622 net.cpp:91] Creating Layer lstm1
I0720 14:35:44.476181 25622 net.cpp:425] lstm1 <- embedded_input_frames
I0720 14:35:44.476191 25622 net.cpp:425] lstm1 <- cont_sentence_input_1_split_0
I0720 14:35:44.476203 25622 net.cpp:399] lstm1 -> lstm1
I0720 14:35:44.476238 25622 recurrent_layer.cpp:20] Initializing recurrent layer: assuming input batch contains 1 timesteps of 1 independent streams.
I0720 14:35:44.476577 25622 net.cpp:49] Initializing net from parameters: 
layer {
  name: "lstm1_"
  type: "Input"
  top: "x"
  top: "cont"
  input_param {
    shape {
      dim: 1
      dim: 1
      dim: 500
    }
    shape {
      dim: 1
      dim: 1
    }
  }
}
layer {
  name: "lstm1_"
  type: "Input"
  top: "c_0"
  top: "h_0"
  input_param {
    shape {
      dim: 1
      dim: 1
      dim: 1000
    }
    shape {
      dim: 1
      dim: 1
      dim: 1000
    }
  }
}
layer {
  name: "lstm1_cont_slice"
  type: "Slice"
  bottom: "cont"
  top: "cont_1"
  slice_param {
    axis: 0
  }
}
layer {
  name: "lstm1_x_transform"
  type: "InnerProduct"
  bottom: "x"
  top: "W_xc_x"
  param {
    name: "W_xc"
  }
  param {
    name: "b_c"
  }
  propagate_down: true
  inner_product_param {
    num_output: 4000
    bias_term: true
    weight_filler {
      type: "uniform"
      min: -0.08
      max: 0.08
    }
    bias_filler {
      type: "constant"
      value: 0
    }
    axis: 2
  }
}
layer {
  name: "lstm1_W_xc_x_slice"
  type: "Slice"
  bottom: "W_xc_x"
  top: "W_xc_x_1"
  slice_param {
    axis: 0
  }
}
layer {
  name: "lstm1_h_conted_0"
  type: "Scale"
  bottom: "h_0"
  bottom: "cont_1"
  top: "h_conted_0"
  scale_param {
    axis: 0
  }
}
layer {
  name: "lstm1_transform_1"
  type: "InnerProduct"
  bottom: "h_conted_0"
  top: "W_hc_h_0"
  param {
    name: "W_hc"
  }
  inner_product_param {
    num_output: 4000
    bias_term: false
    weight_filler {
      type: "uniform"
      min: -0.08
      max: 0.08
    }
    axis: 2
  }
}
layer {
  name: "lstm1_gate_input_1"
  type: "Eltwise"
  bottom: "W_hc_h_0"
  bottom: "W_xc_x_1"
  top: "gate_input_1"
  eltwise_param {
    operation: SUM
  }
}
layer {
  name: "lstm1_unit_1"
  type: "LSTMUnit"
  bottom: "c_0"
  bottom: "gate_input_1"
  bottom: "cont_1"
  top: "c_1"
  top: "h_1"
}
layer {
  name: "lstm1_"
  type: "Split"
  bottom: "c_1"
  top: "c_T"
}
layer {
  name: "lstm1_h_concat"
  type: "Concat"
  bottom: "h_1"
  top: "h"
  concat_param {
    axis: 0
  }
}
layer {
  name: "h_pseudoloss"
  type: "Reduction"
  bottom: "h"
  top: "h_pseudoloss"
  loss_weight: 1
}
I0720 14:35:44.476665 25622 layer_factory.hpp:77] Creating layer lstm1_
I0720 14:35:44.476678 25622 net.cpp:91] Creating Layer lstm1_
I0720 14:35:44.476686 25622 net.cpp:399] lstm1_ -> x
I0720 14:35:44.476696 25622 net.cpp:399] lstm1_ -> cont
I0720 14:35:44.479717 25622 net.cpp:141] Setting up lstm1_
I0720 14:35:44.479735 25622 net.cpp:148] Top shape: 1 1 500 (500)
I0720 14:35:44.479743 25622 net.cpp:148] Top shape: 1 1 (1)
I0720 14:35:44.479746 25622 net.cpp:156] Memory required for data: 2004
I0720 14:35:44.479751 25622 layer_factory.hpp:77] Creating layer lstm1_
I0720 14:35:44.479763 25622 net.cpp:91] Creating Layer lstm1_
I0720 14:35:44.479773 25622 net.cpp:399] lstm1_ -> c_0
I0720 14:35:44.479785 25622 net.cpp:399] lstm1_ -> h_0
I0720 14:35:44.479851 25622 net.cpp:141] Setting up lstm1_
I0720 14:35:44.479861 25622 net.cpp:148] Top shape: 1 1 1000 (1000)
I0720 14:35:44.479867 25622 net.cpp:148] Top shape: 1 1 1000 (1000)
I0720 14:35:44.479871 25622 net.cpp:156] Memory required for data: 10004
I0720 14:35:44.479876 25622 layer_factory.hpp:77] Creating layer lstm1_cont_slice
I0720 14:35:44.479887 25622 net.cpp:91] Creating Layer lstm1_cont_slice
I0720 14:35:44.479893 25622 net.cpp:425] lstm1_cont_slice <- cont
I0720 14:35:44.479900 25622 net.cpp:399] lstm1_cont_slice -> cont_1
I0720 14:35:44.479948 25622 net.cpp:141] Setting up lstm1_cont_slice
I0720 14:35:44.479959 25622 net.cpp:148] Top shape: 1 1 (1)
I0720 14:35:44.479964 25622 net.cpp:156] Memory required for data: 10008
I0720 14:35:44.479967 25622 layer_factory.hpp:77] Creating layer cont_1_lstm1_cont_slice_0_split
I0720 14:35:44.479975 25622 net.cpp:91] Creating Layer cont_1_lstm1_cont_slice_0_split
I0720 14:35:44.479980 25622 net.cpp:425] cont_1_lstm1_cont_slice_0_split <- cont_1
I0720 14:35:44.479990 25622 net.cpp:399] cont_1_lstm1_cont_slice_0_split -> cont_1_lstm1_cont_slice_0_split_0
I0720 14:35:44.479997 25622 net.cpp:399] cont_1_lstm1_cont_slice_0_split -> cont_1_lstm1_cont_slice_0_split_1
I0720 14:35:44.487418 25622 net.cpp:141] Setting up cont_1_lstm1_cont_slice_0_split
I0720 14:35:44.487457 25622 net.cpp:148] Top shape: 1 1 (1)
I0720 14:35:44.487464 25622 net.cpp:148] Top shape: 1 1 (1)
I0720 14:35:44.487468 25622 net.cpp:156] Memory required for data: 10016
I0720 14:35:44.487476 25622 layer_factory.hpp:77] Creating layer lstm1_x_transform
I0720 14:35:44.487496 25622 net.cpp:91] Creating Layer lstm1_x_transform
I0720 14:35:44.487504 25622 net.cpp:425] lstm1_x_transform <- x
I0720 14:35:44.487514 25622 net.cpp:399] lstm1_x_transform -> W_xc_x
I0720 14:35:44.511582 25622 net.cpp:141] Setting up lstm1_x_transform
I0720 14:35:44.511628 25622 net.cpp:148] Top shape: 1 1 4000 (4000)
I0720 14:35:44.511634 25622 net.cpp:156] Memory required for data: 26016
I0720 14:35:44.511656 25622 layer_factory.hpp:77] Creating layer lstm1_W_xc_x_slice
I0720 14:35:44.511672 25622 net.cpp:91] Creating Layer lstm1_W_xc_x_slice
I0720 14:35:44.511679 25622 net.cpp:425] lstm1_W_xc_x_slice <- W_xc_x
I0720 14:35:44.511688 25622 net.cpp:399] lstm1_W_xc_x_slice -> W_xc_x_1
I0720 14:35:44.511736 25622 net.cpp:141] Setting up lstm1_W_xc_x_slice
I0720 14:35:44.511746 25622 net.cpp:148] Top shape: 1 1 4000 (4000)
I0720 14:35:44.511750 25622 net.cpp:156] Memory required for data: 42016
I0720 14:35:44.511755 25622 layer_factory.hpp:77] Creating layer lstm1_h_conted_0
I0720 14:35:44.511776 25622 net.cpp:91] Creating Layer lstm1_h_conted_0
I0720 14:35:44.511781 25622 net.cpp:425] lstm1_h_conted_0 <- h_0
I0720 14:35:44.511787 25622 net.cpp:425] lstm1_h_conted_0 <- cont_1_lstm1_cont_slice_0_split_0
I0720 14:35:44.511795 25622 net.cpp:399] lstm1_h_conted_0 -> h_conted_0
I0720 14:35:44.511890 25622 net.cpp:141] Setting up lstm1_h_conted_0
I0720 14:35:44.511899 25622 net.cpp:148] Top shape: 1 1 1000 (1000)
I0720 14:35:44.511904 25622 net.cpp:156] Memory required for data: 46016
I0720 14:35:44.511909 25622 layer_factory.hpp:77] Creating layer lstm1_transform_1
I0720 14:35:44.511922 25622 net.cpp:91] Creating Layer lstm1_transform_1
I0720 14:35:44.511927 25622 net.cpp:425] lstm1_transform_1 <- h_conted_0
I0720 14:35:44.511939 25622 net.cpp:399] lstm1_transform_1 -> W_hc_h_0
I0720 14:35:44.531415 25632 net.cpp:141] Setting up conv1
I0720 14:35:44.531462 25632 net.cpp:148] Top shape: 10 96 55 55 (2904000)
I0720 14:35:44.531468 25632 net.cpp:156] Memory required for data: 17799480
I0720 14:35:44.531491 25632 layer_factory.hpp:77] Creating layer relu1
I0720 14:35:44.531510 25632 net.cpp:91] Creating Layer relu1
I0720 14:35:44.531517 25632 net.cpp:425] relu1 <- conv1
I0720 14:35:44.531527 25632 net.cpp:386] relu1 -> conv1 (in-place)
I0720 14:35:44.532255 25632 net.cpp:141] Setting up relu1
I0720 14:35:44.532269 25632 net.cpp:148] Top shape: 10 96 55 55 (2904000)
I0720 14:35:44.532274 25632 net.cpp:156] Memory required for data: 29415480
I0720 14:35:44.532279 25632 layer_factory.hpp:77] Creating layer pool1
I0720 14:35:44.532295 25632 net.cpp:91] Creating Layer pool1
I0720 14:35:44.532300 25632 net.cpp:425] pool1 <- conv1
I0720 14:35:44.532308 25632 net.cpp:399] pool1 -> pool1
I0720 14:35:44.532382 25632 net.cpp:141] Setting up pool1
I0720 14:35:44.532392 25632 net.cpp:148] Top shape: 10 96 27 27 (699840)
I0720 14:35:44.532397 25632 net.cpp:156] Memory required for data: 32214840
I0720 14:35:44.532400 25632 layer_factory.hpp:77] Creating layer norm1
I0720 14:35:44.532418 25632 net.cpp:91] Creating Layer norm1
I0720 14:35:44.532424 25632 net.cpp:425] norm1 <- pool1
I0720 14:35:44.532430 25632 net.cpp:399] norm1 -> norm1
I0720 14:35:44.533476 25632 net.cpp:141] Setting up norm1
I0720 14:35:44.533491 25632 net.cpp:148] Top shape: 10 96 27 27 (699840)
I0720 14:35:44.533496 25632 net.cpp:156] Memory required for data: 35014200
I0720 14:35:44.533502 25632 layer_factory.hpp:77] Creating layer conv2
I0720 14:35:44.533521 25632 net.cpp:91] Creating Layer conv2
I0720 14:35:44.533526 25632 net.cpp:425] conv2 <- norm1
I0720 14:35:44.533538 25632 net.cpp:399] conv2 -> conv2
I0720 14:35:44.539430 25632 net.cpp:141] Setting up conv2
I0720 14:35:44.539454 25632 net.cpp:148] Top shape: 10 256 27 27 (1866240)
I0720 14:35:44.539459 25632 net.cpp:156] Memory required for data: 42479160
I0720 14:35:44.539474 25632 layer_factory.hpp:77] Creating layer relu2
I0720 14:35:44.539486 25632 net.cpp:91] Creating Layer relu2
I0720 14:35:44.539492 25632 net.cpp:425] relu2 <- conv2
I0720 14:35:44.539499 25632 net.cpp:386] relu2 -> conv2 (in-place)
I0720 14:35:44.540848 25632 net.cpp:141] Setting up relu2
I0720 14:35:44.540868 25632 net.cpp:148] Top shape: 10 256 27 27 (1866240)
I0720 14:35:44.540874 25632 net.cpp:156] Memory required for data: 49944120
I0720 14:35:44.540879 25632 layer_factory.hpp:77] Creating layer pool2
I0720 14:35:44.540889 25632 net.cpp:91] Creating Layer pool2
I0720 14:35:44.540894 25632 net.cpp:425] pool2 <- conv2
I0720 14:35:44.540902 25632 net.cpp:399] pool2 -> pool2
I0720 14:35:44.540958 25632 net.cpp:141] Setting up pool2
I0720 14:35:44.540969 25632 net.cpp:148] Top shape: 10 256 13 13 (432640)
I0720 14:35:44.540973 25632 net.cpp:156] Memory required for data: 51674680
I0720 14:35:44.540978 25632 layer_factory.hpp:77] Creating layer norm2
I0720 14:35:44.540988 25632 net.cpp:91] Creating Layer norm2
I0720 14:35:44.540993 25632 net.cpp:425] norm2 <- pool2
I0720 14:35:44.541002 25632 net.cpp:399] norm2 -> norm2
I0720 14:35:44.541245 25632 net.cpp:141] Setting up norm2
I0720 14:35:44.541256 25632 net.cpp:148] Top shape: 10 256 13 13 (432640)
I0720 14:35:44.541261 25632 net.cpp:156] Memory required for data: 53405240
I0720 14:35:44.541266 25632 layer_factory.hpp:77] Creating layer conv3
I0720 14:35:44.541280 25632 net.cpp:91] Creating Layer conv3
I0720 14:35:44.541285 25632 net.cpp:425] conv3 <- norm2
I0720 14:35:44.541295 25632 net.cpp:399] conv3 -> conv3
I0720 14:35:44.547312 25632 net.cpp:141] Setting up conv3
I0720 14:35:44.547339 25632 net.cpp:148] Top shape: 10 384 13 13 (648960)
I0720 14:35:44.547345 25632 net.cpp:156] Memory required for data: 56001080
I0720 14:35:44.547360 25632 layer_factory.hpp:77] Creating layer relu3
I0720 14:35:44.547375 25632 net.cpp:91] Creating Layer relu3
I0720 14:35:44.547381 25632 net.cpp:425] relu3 <- conv3
I0720 14:35:44.547389 25632 net.cpp:386] relu3 -> conv3 (in-place)
I0720 14:35:44.548074 25632 net.cpp:141] Setting up relu3
I0720 14:35:44.548087 25632 net.cpp:148] Top shape: 10 384 13 13 (648960)
I0720 14:35:44.548091 25632 net.cpp:156] Memory required for data: 58596920
I0720 14:35:44.548096 25632 layer_factory.hpp:77] Creating layer conv4
I0720 14:35:44.548112 25632 net.cpp:91] Creating Layer conv4
I0720 14:35:44.548117 25632 net.cpp:425] conv4 <- conv3
I0720 14:35:44.548127 25632 net.cpp:399] conv4 -> conv4
I0720 14:35:44.550779 25622 net.cpp:141] Setting up lstm1_transform_1
I0720 14:35:44.550802 25622 net.cpp:148] Top shape: 1 1 4000 (4000)
I0720 14:35:44.550807 25622 net.cpp:156] Memory required for data: 62016
I0720 14:35:44.550820 25622 layer_factory.hpp:77] Creating layer lstm1_gate_input_1
I0720 14:35:44.550835 25622 net.cpp:91] Creating Layer lstm1_gate_input_1
I0720 14:35:44.550842 25622 net.cpp:425] lstm1_gate_input_1 <- W_hc_h_0
I0720 14:35:44.550848 25622 net.cpp:425] lstm1_gate_input_1 <- W_xc_x_1
I0720 14:35:44.550866 25622 net.cpp:399] lstm1_gate_input_1 -> gate_input_1
I0720 14:35:44.551620 25622 net.cpp:141] Setting up lstm1_gate_input_1
I0720 14:35:44.551631 25622 net.cpp:148] Top shape: 1 1 4000 (4000)
I0720 14:35:44.551636 25622 net.cpp:156] Memory required for data: 78016
I0720 14:35:44.551641 25622 layer_factory.hpp:77] Creating layer lstm1_unit_1
I0720 14:35:44.551651 25622 net.cpp:91] Creating Layer lstm1_unit_1
I0720 14:35:44.551656 25622 net.cpp:425] lstm1_unit_1 <- c_0
I0720 14:35:44.551661 25622 net.cpp:425] lstm1_unit_1 <- gate_input_1
I0720 14:35:44.551666 25622 net.cpp:425] lstm1_unit_1 <- cont_1_lstm1_cont_slice_0_split_1
I0720 14:35:44.551673 25622 net.cpp:399] lstm1_unit_1 -> c_1
I0720 14:35:44.551683 25622 net.cpp:399] lstm1_unit_1 -> h_1
I0720 14:35:44.551816 25622 net.cpp:141] Setting up lstm1_unit_1
I0720 14:35:44.551826 25622 net.cpp:148] Top shape: 1 1 1000 (1000)
I0720 14:35:44.551832 25622 net.cpp:148] Top shape: 1 1 1000 (1000)
I0720 14:35:44.551836 25622 net.cpp:156] Memory required for data: 86016
I0720 14:35:44.551841 25622 layer_factory.hpp:77] Creating layer lstm1_
I0720 14:35:44.551849 25622 net.cpp:91] Creating Layer lstm1_
I0720 14:35:44.551853 25622 net.cpp:425] lstm1_ <- c_1
I0720 14:35:44.551861 25622 net.cpp:399] lstm1_ -> c_T
I0720 14:35:44.552038 25622 net.cpp:141] Setting up lstm1_
I0720 14:35:44.552048 25622 net.cpp:148] Top shape: 1 1 1000 (1000)
I0720 14:35:44.552052 25622 net.cpp:156] Memory required for data: 90016
I0720 14:35:44.552057 25622 layer_factory.hpp:77] Creating layer lstm1_h_concat
I0720 14:35:44.552065 25622 net.cpp:91] Creating Layer lstm1_h_concat
I0720 14:35:44.552070 25622 net.cpp:425] lstm1_h_concat <- h_1
I0720 14:35:44.552086 25622 net.cpp:399] lstm1_h_concat -> h
I0720 14:35:44.552142 25622 net.cpp:141] Setting up lstm1_h_concat
I0720 14:35:44.552151 25622 net.cpp:148] Top shape: 1 1 1000 (1000)
I0720 14:35:44.552155 25622 net.cpp:156] Memory required for data: 94016
I0720 14:35:44.552160 25622 layer_factory.hpp:77] Creating layer h_pseudoloss
I0720 14:35:44.552181 25622 net.cpp:91] Creating Layer h_pseudoloss
I0720 14:35:44.552186 25622 net.cpp:425] h_pseudoloss <- h
I0720 14:35:44.552192 25622 net.cpp:399] h_pseudoloss -> h_pseudoloss
I0720 14:35:44.553285 25622 net.cpp:141] Setting up h_pseudoloss
…
I0720 14:35:44.553491 25622 net.cpp:219] lstm1_ does not need backward computation.
I0720 14:35:44.553498 25622 net.cpp:261] This network produces output c_T
I0720 14:35:44.553508 25622 net.cpp:261] This network produces output h_pseudoloss
I0720 14:35:44.553540 25622 net.cpp:274] Network initialization done.
I0720 14:35:44.553603 25622 recurrent_layer.cpp:150] Adding parameter 0: W_xc
I0720 14:35:44.553611 25622 recurrent_layer.cpp:150] Adding parameter 1: b_c
I0720 14:35:44.553614 25622 recurrent_layer.cpp:150] Adding parameter 2: W_hc
I0720 14:35:44.554630 25622 net.cpp:141] Setting up lstm1
I0720 14:35:44.554646 25622 net.cpp:148] Top shape: 1 1 1000 (1000)
I0720 14:35:44.554651 25622 net.cpp:156] Memory required for data: 26408
I0720 14:35:44.554666 25622 layer_factory.hpp:77] Creating layer concat
I0720 14:35:44.554675 25622 net.cpp:91] Creating Layer concat
I0720 14:35:44.554682 25622 net.cpp:425] concat <- lstm1
I0720 14:35:44.554700 25622 net.cpp:425] concat <- embedded_input_sentence
I0720 14:35:44.554708 25622 net.cpp:425] concat <- reshaped_stage_indicator
I0720 14:35:44.554714 25622 net.cpp:399] concat -> lstm1_video_sequence
I0720 14:35:44.554821 25622 net.cpp:141] Setting up concat
I0720 14:35:44.554832 25622 net.cpp:148] Top shape: 1 1 1501 (1501)
I0720 14:35:44.554836 25622 net.cpp:156] Memory required for data: 32412
I0720 14:35:44.554841 25622 layer_factory.hpp:77] Creating layer lstm2
I0720 14:35:44.554853 25622 net.cpp:91] Creating Layer lstm2
I0720 14:35:44.554858 25622 net.cpp:425] lstm2 <- lstm1_video_sequence
I0720 14:35:44.554864 25622 net.cpp:425] lstm2 <- cont_sentence_input_1_split_1
I0720 14:35:44.554872 25622 net.cpp:399] lstm2 -> lstm2
I0720 14:35:44.554883 25622 recurrent_layer.cpp:20] Initializing recurrent layer: assuming input batch contains 1 timesteps of 1 independent streams.
I0720 14:35:44.555052 25632 net.cpp:141] Setting up conv4
I0720 14:35:44.555068 25632 net.cpp:148] Top shape: 10 384 13 13 (648960)
I0720 14:35:44.555073 25632 net.cpp:156] Memory required for data: 61192760
I0720 14:35:44.555083 25632 layer_factory.hpp:77] Creating layer relu4
I0720 14:35:44.555091 25632 net.cpp:91] Creating Layer relu4
I0720 14:35:44.555096 25632 net.cpp:425] relu4 <- conv4
I0720 14:35:44.555102 25632 net.cpp:386] relu4 -> conv4 (in-place)
I0720 14:35:44.555143 25622 net.cpp:49] Initializing net from parameters: 
layer {
  name: "lstm2_"
  type: "Input"
  top: "x"
  top: "cont"
  input_param {
    shape {
      dim: 1
      dim: 1
      dim: 1501
    }
    shape {
      dim: 1
      dim: 1
    }
  }
}
layer {
  name: "lstm2_"
  type: "Input"
  top: "c_0"
  top: "h_0"
  input_param {
    shape {
      dim: 1
      dim: 1
      dim: 1000
    }
    shape {
      dim: 1
      dim: 1
      dim: 1000
    }
  }
}
layer {
  name: "lstm2_cont_slice"
  type: "Slice"
  bottom: "cont"
  top: "cont_1"
  slice_param {
    axis: 0
  }
}
layer {
  name: "lstm2_x_transform"
  type: "InnerProduct"
  bottom: "x"
  top: "W_xc_x"
  param {
    name: "W_xc"
  }
  param {
    name: "b_c"
  }
  propagate_down: true
  inner_product_param {
    num_output: 4000
    bias_term: true
    weight_filler {
      type: "uniform"
      min: -0.08
      max: 0.08
    }
    bias_filler {
      type: "constant"
      value: 0
    }
    axis: 2
  }
}
layer {
  name: "lstm2_W_xc_x_slice"
  type: "Slice"
  bottom: "W_xc_x"
  top: "W_xc_x_1"
  slice_param {
    axis: 0
  }
}
layer {
  name: "lstm2_h_conted_0"
  type: "Scale"
  bottom: "h_0"
  bottom: "cont_1"
  top: "h_conted_0"
  scale_param {
    axis: 0
  }
}
layer {
  name: "lstm2_transform_1"
  type: "InnerProduct"
  bottom: "h_conted_0"
  top: "W_hc_h_0"
  param {
    name: "W_hc"
  }
  inner_product_param {
    num_output: 4000
    bias_term: false
    weight_filler {
      type: "uniform"
      min: -0.08
      max: 0.08
    }
    axis: 2
  }
}
layer {
  name: "lstm2_gate_input_1"
  type: "Eltwise"
  bottom: "W_hc_h_0"
  bottom: "W_xc_x_1"
  top: "gate_input_1"
  eltwise_param {
    operation: SUM
  }
}
layer {
  name: "lstm2_unit_1"
  type: "LSTMUnit"
  bottom: "c_0"
  bottom: "gate_input_1"
  bottom: "cont_1"
  top: "c_1"
  top: "h_1"
}
layer {
  name: "lstm2_"
  type: "Split"
  bottom: "c_1"
  top: "c_T"
}
layer {
  name: "lstm2_h_concat"
  type: "Concat"
  bottom: "h_1"
  top: "h"
  concat_param {
    axis: 0
  }
}
layer {
  name: "h_pseudoloss"
  type: "Reduction"
  bottom: "h"
  top: "h_pseudoloss"
  loss_weight: 1
}
I0720 14:35:44.555228 25622 layer_factory.hpp:77] Creating layer lstm2_
I0720 14:35:44.555248 25622 net.cpp:91] Creating Layer lstm2_
I0720 14:35:44.555255 25622 net.cpp:399] lstm2_ -> x
I0720 14:35:44.555266 25622 net.cpp:399] lstm2_ -> cont
I0720 14:35:44.555872 25622 net.cpp:141] Setting up lstm2_
I0720 14:35:44.555883 25622 net.cpp:148] Top shape: 1 1 1501 (1501)
I0720 14:35:44.555889 25622 net.cpp:148] Top shape: 1 1 (1)
I0720 14:35:44.555893 25622 net.cpp:156] Memory required for data: 6008
I0720 14:35:44.555898 25622 layer_factory.hpp:77] Creating layer lstm2_
I0720 14:35:44.555907 25622 net.cpp:91] Creating Layer lstm2_
I0720 14:35:44.555913 25622 net.cpp:399] lstm2_ -> c_0
I0720 14:35:44.555922 25622 net.cpp:399] lstm2_ -> h_0
I0720 14:35:44.555999 25622 net.cpp:141] Setting up lstm2_
I0720 14:35:44.556010 25622 net.cpp:148] Top shape: 1 1 1000 (1000)
I0720 14:35:44.556010 25632 net.cpp:141] Setting up relu4
I0720 14:35:44.556016 25622 net.cpp:148] Top shape: 1 1 1000 (1000)
I0720 14:35:44.556026 25622 net.cpp:156] Memory required for data: 14008
I0720 14:35:44.556026 25632 net.cpp:148] Top shape: 10 384 13 13 (648960)
I0720 14:35:44.556035 25622 layer_factory.hpp:77] Creating layer lstm2_cont_slice
I0720 14:35:44.556037 25632 net.cpp:156] Memory required for data: 63788600
I0720 14:35:44.556043 25632 layer_factory.hpp:77] Creating layer conv5
I0720 14:35:44.556046 25622 net.cpp:91] Creating Layer lstm2_cont_slice
I0720 14:35:44.556051 25622 net.cpp:425] lstm2_cont_slice <- cont
I0720 14:35:44.556058 25632 net.cpp:91] Creating Layer conv5
I0720 14:35:44.556061 25622 net.cpp:399] lstm2_cont_slice -> cont_1
I0720 14:35:44.556066 25632 net.cpp:425] conv5 <- conv4
I0720 14:35:44.556073 25632 net.cpp:399] conv5 -> conv5
I0720 14:35:44.556097 25622 net.cpp:141] Setting up lstm2_cont_slice
I0720 14:35:44.556105 25622 net.cpp:148] Top shape: 1 1 (1)
I0720 14:35:44.556109 25622 net.cpp:156] Memory required for data: 14012
I0720 14:35:44.556114 25622 layer_factory.hpp:77] Creating layer cont_1_lstm2_cont_slice_0_split
I0720 14:35:44.556121 25622 net.cpp:91] Creating Layer cont_1_lstm2_cont_slice_0_split
I0720 14:35:44.556125 25622 net.cpp:425] cont_1_lstm2_cont_slice_0_split <- cont_1
I0720 14:35:44.556133 25622 net.cpp:399] cont_1_lstm2_cont_slice_0_split -> cont_1_lstm2_cont_slice_0_split_0
I0720 14:35:44.556143 25622 net.cpp:399] cont_1_lstm2_cont_slice_0_split -> cont_1_lstm2_cont_slice_0_split_1
I0720 14:35:44.556318 25622 net.cpp:141] Setting up cont_1_lstm2_cont_slice_0_split
I0720 14:35:44.556327 25622 net.cpp:148] Top shape: 1 1 (1)
I0720 14:35:44.556334 25622 net.cpp:148] Top shape: 1 1 (1)
I0720 14:35:44.556337 25622 net.cpp:156] Memory required for data: 14020
I0720 14:35:44.556341 25622 layer_factory.hpp:77] Creating layer lstm2_x_transform
I0720 14:35:44.556355 25622 net.cpp:91] Creating Layer lstm2_x_transform
I0720 14:35:44.556360 25622 net.cpp:425] lstm2_x_transform <- x
I0720 14:35:44.556368 25622 net.cpp:399] lstm2_x_transform -> W_xc_x
I0720 14:35:44.574074 25632 net.cpp:141] Setting up conv5
I0720 14:35:44.574116 25632 net.cpp:148] Top shape: 10 256 13 13 (432640)
I0720 14:35:44.574123 25632 net.cpp:156] Memory required for data: 65519160
I0720 14:35:44.574144 25632 layer_factory.hpp:77] Creating layer relu5
I0720 14:35:44.574162 25632 net.cpp:91] Creating Layer relu5
I0720 14:35:44.574167 25632 net.cpp:425] relu5 <- conv5
I0720 14:35:44.574175 25632 net.cpp:386] relu5 -> conv5 (in-place)
I0720 14:35:44.574903 25632 net.cpp:141] Setting up relu5
I0720 14:35:44.574915 25632 net.cpp:148] Top shape: 10 256 13 13 (432640)
I0720 14:35:44.574920 25632 net.cpp:156] Memory required for data: 67249720
I0720 14:35:44.574925 25632 layer_factory.hpp:77] Creating layer pool5
I0720 14:35:44.574936 25632 net.cpp:91] Creating Layer pool5
I0720 14:35:44.574941 25632 net.cpp:425] pool5 <- conv5
I0720 14:35:44.574954 25632 net.cpp:399] pool5 -> pool5
I0720 14:35:44.575019 25632 net.cpp:141] Setting up pool5
I0720 14:35:44.575029 25632 net.cpp:148] Top shape: 10 256 6 6 (92160)
I0720 14:35:44.575033 25632 net.cpp:156] Memory required for data: 67618360
I0720 14:35:44.575038 25632 layer_factory.hpp:77] Creating layer fc6
I0720 14:35:44.575055 25632 net.cpp:91] Creating Layer fc6
I0720 14:35:44.575060 25632 net.cpp:425] fc6 <- pool5
I0720 14:35:44.575069 25632 net.cpp:399] fc6 -> fc6
I0720 14:35:44.639596 25622 net.cpp:141] Setting up lstm2_x_transform
I0720 14:35:44.639642 25622 net.cpp:148] Top shape: 1 1 4000 (4000)
I0720 14:35:44.639647 25622 net.cpp:156] Memory required for data: 30020
I0720 14:35:44.639681 25622 layer_factory.hpp:77] Creating layer lstm2_W_xc_x_slice
I0720 14:35:44.639701 25622 net.cpp:91] Creating Layer lstm2_W_xc_x_slice
I0720 14:35:44.639708 25622 net.cpp:425] lstm2_W_xc_x_slice <- W_xc_x
I0720 14:35:44.639717 25622 net.cpp:399] lstm2_W_xc_x_slice -> W_xc_x_1
I0720 14:35:44.639760 25622 net.cpp:141] Setting up lstm2_W_xc_x_slice
I0720 14:35:44.639770 25622 net.cpp:148] Top shape: 1 1 4000 (4000)
I0720 14:35:44.639775 25622 net.cpp:156] Memory required for data: 46020
I0720 14:35:44.639778 25622 layer_factory.hpp:77] Creating layer lstm2_h_conted_0
I0720 14:35:44.639792 25622 net.cpp:91] Creating Layer lstm2_h_conted_0
I0720 14:35:44.639797 25622 net.cpp:425] lstm2_h_conted_0 <- h_0
I0720 14:35:44.639803 25622 net.cpp:425] lstm2_h_conted_0 <- cont_1_lstm2_cont_slice_0_split_0
I0720 14:35:44.639811 25622 net.cpp:399] lstm2_h_conted_0 -> h_conted_0
I0720 14:35:44.639902 25622 net.cpp:141] Setting up lstm2_h_conted_0
I0720 14:35:44.639911 25622 net.cpp:148] Top shape: 1 1 1000 (1000)
I0720 14:35:44.639915 25622 net.cpp:156] Memory required for data: 50020
I0720 14:35:44.639920 25622 layer_factory.hpp:77] Creating layer lstm2_transform_1
I0720 14:35:44.639935 25622 net.cpp:91] Creating Layer lstm2_transform_1
I0720 14:35:44.639940 25622 net.cpp:425] lstm2_transform_1 <- h_conted_0
I0720 14:35:44.639947 25622 net.cpp:399] lstm2_transform_1 -> W_hc_h_0
I0720 14:35:44.680997 25622 net.cpp:141] Setting up lstm2_transform_1
I0720 14:35:44.681040 25622 net.cpp:148] Top shape: 1 1 4000 (4000)
I0720 14:35:44.681046 25622 net.cpp:156] Memory required for data: 66020
I0720 14:35:44.681063 25622 layer_factory.hpp:77] Creating layer lstm2_gate_input_1
I0720 14:35:44.681085 25622 net.cpp:91] Creating Layer lstm2_gate_input_1
I0720 14:35:44.681092 25622 net.cpp:425] lstm2_gate_input_1 <- W_hc_h_0
I0720 14:35:44.681100 25622 net.cpp:425] lstm2_gate_input_1 <- W_xc_x_1
I0720 14:35:44.681110 25622 net.cpp:399] lstm2_gate_input_1 -> gate_input_1
I0720 14:35:44.681154 25622 net.cpp:141] Setting up lstm2_gate_input_1
I0720 14:35:44.681164 25622 net.cpp:148] Top shape: 1 1 4000 (4000)
I0720 14:35:44.681167 25622 net.cpp:156] Memory required for data: 82020
I0720 14:35:44.681171 25622 layer_factory.hpp:77] Creating layer lstm2_unit_1
I0720 14:35:44.681183 25622 net.cpp:91] Creating Layer lstm2_unit_1
I0720 14:35:44.681188 25622 net.cpp:425] lstm2_unit_1 <- c_0
I0720 14:35:44.681193 25622 net.cpp:425] lstm2_unit_1 <- gate_input_1
I0720 14:35:44.681198 25622 net.cpp:425] lstm2_unit_1 <- cont_1_lstm2_cont_slice_0_split_1
I0720 14:35:44.681205 25622 net.cpp:399] lstm2_unit_1 -> c_1
I0720 14:35:44.681213 25622 net.cpp:399] lstm2_unit_1 -> h_1
I0720 14:35:44.681273 25622 net.cpp:141] Setting up lstm2_unit_1
I0720 14:35:44.681282 25622 net.cpp:148] Top shape: 1 1 1000 (1000)
I0720 14:35:44.681288 25622 net.cpp:148] Top shape: 1 1 1000 (1000)
I0720 14:35:44.681291 25622 net.cpp:156] Memory required for data: 90020
I0720 14:35:44.681295 25622 layer_factory.hpp:77] Creating layer lstm2_
I0720 14:35:44.681304 25622 net.cpp:91] Creating Layer lstm2_
I0720 14:35:44.681308 25622 net.cpp:425] lstm2_ <- c_1
I0720 14:35:44.681318 25622 net.cpp:399] lstm2_ -> c_T
I0720 14:35:44.681345 25622 net.cpp:141] Setting up lstm2_
I0720 14:35:44.681354 25622 net.cpp:148] Top shape: 1 1 1000 (1000)
I0720 14:35:44.681357 25622 net.cpp:156] Memory required for data: 94020
I0720 14:35:44.681361 25622 layer_factory.hpp:77] Creating layer lstm2_h_concat
I0720 14:35:44.681372 25622 net.cpp:91] Creating Layer lstm2_h_concat
I0720 14:35:44.681376 25622 net.cpp:425] lstm2_h_concat <- h_1
I0720 14:35:44.681382 25622 net.cpp:399] lstm2_h_concat -> h
I0720 14:35:44.681430 25622 net.cpp:141] Setting up lstm2_h_concat
I0720 14:35:44.681438 25622 net.cpp:148] Top shape: 1 1 1000 (1000)
I0720 14:35:44.681442 25622 net.cpp:156] Memory required for data: 98020
I0720 14:35:44.681447 25622 layer_factory.hpp:77] Creating layer h_pseudoloss
I0720 14:35:44.681458 25622 net.cpp:91] Creating Layer h_pseudoloss
I0720 14:35:44.681463 25622 net.cpp:425] h_pseudoloss <- h
I0720 14:35:44.681469 25622 net.cpp:399] h_pseudoloss -> h_pseudoloss
I0720 14:35:44.681555 25622 net.cpp:141] Setting up h_pseudoloss
…
I0720 14:35:44.681651 25622 net.cpp:219] lstm2_ does not need backward computation.
I0720 14:35:44.681655 25622 net.cpp:261] This network produces output c_T
I0720 14:35:44.681659 25622 net.cpp:261] This network produces output h_pseudoloss
I0720 14:35:44.681673 25622 net.cpp:274] Network initialization done.
I0720 14:35:44.681733 25622 recurrent_layer.cpp:150] Adding parameter 0: W_xc
I0720 14:35:44.681740 25622 recurrent_layer.cpp:150] Adding parameter 1: b_c
I0720 14:35:44.681743 25622 recurrent_layer.cpp:150] Adding parameter 2: W_hc
I0720 14:35:44.681838 25622 net.cpp:141] Setting up lstm2
I0720 14:35:44.681848 25622 net.cpp:148] Top shape: 1 1 1000 (1000)
I0720 14:35:44.681851 25622 net.cpp:156] Memory required for data: 36412
I0720 14:35:44.681864 25622 layer_factory.hpp:77] Creating layer predict
I0720 14:35:44.681876 25622 net.cpp:91] Creating Layer predict
I0720 14:35:44.681881 25622 net.cpp:425] predict <- lstm2
I0720 14:35:44.681888 25622 net.cpp:399] predict -> predict
I0720 14:35:44.758762 25632 net.cpp:141] Setting up fc6
I0720 14:35:44.758823 25632 net.cpp:148] Top shape: 10 4096 (40960)
I0720 14:35:44.758831 25632 net.cpp:156] Memory required for data: 67782200
I0720 14:35:44.758849 25632 layer_factory.hpp:77] Creating layer relu6
I0720 14:35:44.758872 25632 net.cpp:91] Creating Layer relu6
I0720 14:35:44.758882 25632 net.cpp:425] relu6 <- fc6
I0720 14:35:44.758893 25632 net.cpp:386] relu6 -> fc6 (in-place)
I0720 14:35:44.759258 25632 net.cpp:141] Setting up relu6
I0720 14:35:44.759270 25632 net.cpp:148] Top shape: 10 4096 (40960)
I0720 14:35:44.759276 25632 net.cpp:156] Memory required for data: 67946040
I0720 14:35:44.759281 25632 layer_factory.hpp:77] Creating layer drop6
I0720 14:35:44.759306 25632 net.cpp:91] Creating Layer drop6
I0720 14:35:44.759312 25632 net.cpp:425] drop6 <- fc6
I0720 14:35:44.759321 25632 net.cpp:386] drop6 -> fc6 (in-place)
I0720 14:35:44.759387 25632 net.cpp:141] Setting up drop6
I0720 14:35:44.759397 25632 net.cpp:148] Top shape: 10 4096 (40960)
I0720 14:35:44.759403 25632 net.cpp:156] Memory required for data: 68109880
I0720 14:35:44.759408 25632 layer_factory.hpp:77] Creating layer fc7
I0720 14:35:44.759423 25632 net.cpp:91] Creating Layer fc7
I0720 14:35:44.759428 25632 net.cpp:425] fc7 <- fc6
I0720 14:35:44.759436 25632 net.cpp:399] fc7 -> fc7
I0720 14:35:44.810991 25632 net.cpp:141] Setting up fc7
I0720 14:35:44.811053 25632 net.cpp:148] Top shape: 10 4096 (40960)
I0720 14:35:44.811059 25632 net.cpp:156] Memory required for data: 68273720
I0720 14:35:44.811077 25632 layer_factory.hpp:77] Creating layer relu7
I0720 14:35:44.811100 25632 net.cpp:91] Creating Layer relu7
I0720 14:35:44.811108 25632 net.cpp:425] relu7 <- fc7
I0720 14:35:44.811120 25632 net.cpp:386] relu7 -> fc7 (in-place)
I0720 14:35:44.812614 25632 net.cpp:141] Setting up relu7
I0720 14:35:44.812634 25632 net.cpp:148] Top shape: 10 4096 (40960)
I0720 14:35:44.812639 25632 net.cpp:156] Memory required for data: 68437560
I0720 14:35:44.812645 25632 layer_factory.hpp:77] Creating layer drop7
I0720 14:35:44.812662 25632 net.cpp:91] Creating Layer drop7
I0720 14:35:44.812669 25632 net.cpp:425] drop7 <- fc7
I0720 14:35:44.812679 25632 net.cpp:386] drop7 -> fc7 (in-place)
I0720 14:35:44.812723 25632 net.cpp:141] Setting up drop7
I0720 14:35:44.812733 25632 net.cpp:148] Top shape: 10 4096 (40960)
I0720 14:35:44.812737 25632 net.cpp:156] Memory required for data: 68601400
I0720 14:35:44.812743 25632 layer_factory.hpp:77] Creating layer fc8
I0720 14:35:44.812759 25632 net.cpp:91] Creating Layer fc8
I0720 14:35:44.812765 25632 net.cpp:425] fc8 <- fc7
I0720 14:35:44.812773 25632 net.cpp:399] fc8 -> fc8
I0720 14:35:44.826270 25632 net.cpp:141] Setting up fc8
I0720 14:35:44.826325 25632 net.cpp:148] Top shape: 10 1000 (10000)
I0720 14:35:44.826333 25632 net.cpp:156] Memory required for data: 68641400
I0720 14:35:44.826349 25632 layer_factory.hpp:77] Creating layer prob
I0720 14:35:44.826366 25632 net.cpp:91] Creating Layer prob
I0720 14:35:44.826373 25632 net.cpp:425] prob <- fc8
I0720 14:35:44.826385 25632 net.cpp:399] prob -> prob
I0720 14:35:44.826861 25632 net.cpp:141] Setting up prob
I0720 14:35:44.826875 25632 net.cpp:148] Top shape: 10 1000 (10000)
I0720 14:35:44.826880 25632 net.cpp:156] Memory required for data: 68681400
I0720 14:35:44.826886 25632 net.cpp:219] prob does not need backward computation.
I0720 14:35:44.826892 25632 net.cpp:219] fc8 does not need backward computation.
I0720 14:35:44.826901 25632 net.cpp:219] drop7 does not need backward computation.
I0720 14:35:44.826907 25632 net.cpp:219] relu7 does not need backward computation.
…
