…
Java HotSpot(TM) 64-Bit Server VM warning: You have loaded library /home/peifeng/work/run/storm102/data/workers/219889e7-a868-48c8-bc4d-7708c49bffb5/tmp/cvld1902992304829891570/libopencv_java310.xine1.so which might have disabled stack guard. The VM will try to fix the stack guard now.
It's highly recommended that you fix the library with 'execstack -c <libfile>', or link it with '-z noexecstack'.
WARNING: Logging before InitGoogleLogging() is written to STDERR
Loading the model + trained: 2255.17ms
I0924 04:12:23.298573 23116 net.cpp:49] Initializing net from parameters: 
Using cv::Size and some other stuff: 0.051ms
name: "CaffeNet"
state {
  phase: TEST
}
layer {
  name: "data"
  type: "Input"
  top: "data"
  input_param {
    shape {
      dim: 10
      dim: 3
      dim: 227
      dim: 227
    }
  }
}
layer {
  name: "conv1"
  type: "Convolution"
  bottom: "data"
  top: "conv1"
  convolution_param {
    num_output: 96
    kernel_size: 11
    stride: 4
  }
}
layer {
  name: "relu1"
  type: "ReLU"
  bottom: "conv1"
  top: "conv1"
}
layer {
  name: "pool1"
  type: "Pooling"
  bottom: "conv1"
  top: "pool1"
  pooling_param {
    pool: MAX
    kernel_size: 3
    stride: 2
  }
}
layer {
  name: "norm1"
  type: "LRN"
  bottom: "pool1"
  top: "norm1"
  lrn_param {
    local_size: 5
    alpha: 0.0001
    beta: 0.75
  }
}
layer {
  name: "conv2"
  type: "Convolution"
  bottom: "norm1"
  top: "conv2"
  convolution_param {
    num_output: 256
    pad: 2
    kernel_size: 5
    group: 2
  }
}
layer {
  name: "relu2"
  type: "ReLU"
  bottom: "conv2"
  top: "conv2"
}
layer {
  name: "pool2"
  type: "Pooling"
  bottom: "conv2"
  top: "pool2"
  pooling_param {
    pool: MAX
    kernel_size: 3
    stride: 2
  }
}
layer {
  name: "norm2"
  type: "LRN"
  bottom: "pool2"
  top: "norm2"
  lrn_param {
    local_size: 5
    alpha: 0.0001
    beta: 0.75
  }
}
layer {
  name: "conv3"
  type: "Convolution"
  bottom: "norm2"
  top: "conv3"
  convolution_param {
    num_output: 384
    pad: 1
    kernel_size: 3
  }
}
layer {
  name: "relu3"
  type: "ReLU"
  bottom: "conv3"
  top: "conv3"
}
layer {
  name: "conv4"
  type: "Convolution"
  bottom: "conv3"
  top: "conv4"
  convolution_param {
    num_output: 384
    pad: 1
    kernel_size: 3
    group: 2
  }
}
layer {
  name: "relu4"
  type: "ReLU"
  bottom: "conv4"
  top: "conv4"
}
layer {
  name: "conv5"
  type: "Convolution"
  bottom: "conv4"
  top: "conv5"
  convolution_param {
    num_output: 256
    pad: 1
    kernel_size: 3
    group: 2
  }
}
layer {
  name: "relu5"
  type: "ReLU"
  bottom: "conv5"
  top: "conv5"
}
layer {
  name: "pool5"
  type: "Pooling"
  bottom: "conv5"
  top: "pool5"
  pooling_param {
    pool: MAX
    kernel_size: 3
    stride: 2
  }
}
layer {
  name: "fc6"
  type: "InnerProduct"
  bottom: "pool5"
  top: "fc6"
  inner_product_param {
    num_output: 4096
  }
}
layer {
  name: "relu6"
  type: "ReLU"
  bottom: "fc6"
  top: "fc6"
}
layer {
  name: "drop6"
  type: "Dropout"
  bottom: "fc6"
  top: "fc6"
  dropout_param {
    dropout_ratio: 0.5
  }
}
layer {
  name: "fc7"
  type: "InnerProduct"
  bottom: "fc6"
  top: "fc7"
  inner_product_param {
    num_output: 4096
  }
}
layer {
  name: "relu7"
  type: "ReLU"
  bottom: "fc7"
  top: "fc7"
}
layer {
  name: "drop7"
  type: "Dropout"
  bottom: "fc7"
  top: "fc7"
  dropout_param {
    dropout_ratio: 0.5
  }
}
layer {
  name: "fc8"
  type: "InnerProduct"
  bottom: "fc7"
  top: "fc8"
  inner_product_param {
    num_output: 1000
  }
}
layer {
  name: "prob"
  type: "Softmax"
  bottom: "fc8"
  top: "prob"
}
I0924 04:12:23.298838 23116 layer_factory.hpp:77] Creating layer data
I0924 04:12:23.298871 23116 net.cpp:91] Creating Layer data
I0924 04:12:23.298882 23116 net.cpp:399] data -> data
I0924 04:12:23.847642 23116 net.cpp:141] Setting up data
I0924 04:12:23.847782 23116 net.cpp:148] Top shape: 10 3 227 227 (1545870)
I0924 04:12:23.847792 23116 net.cpp:156] Memory required for data: 6183480
I0924 04:12:23.847828 23116 layer_factory.hpp:77] Creating layer conv1
I0924 04:12:23.847878 23116 net.cpp:91] Creating Layer conv1
I0924 04:12:23.847889 23116 net.cpp:425] conv1 <- data
I0924 04:12:23.847908 23116 net.cpp:399] conv1 -> conv1
I0924 04:12:24.042361 23116 net.cpp:141] Setting up conv1
I0924 04:12:24.042413 23116 net.cpp:148] Top shape: 10 96 55 55 (2904000)
I0924 04:12:24.042421 23116 net.cpp:156] Memory required for data: 17799480
I0924 04:12:24.042455 23116 layer_factory.hpp:77] Creating layer relu1
I0924 04:12:24.042479 23116 net.cpp:91] Creating Layer relu1
I0924 04:12:24.042487 23116 net.cpp:425] relu1 <- conv1
I0924 04:12:24.042507 23116 net.cpp:386] relu1 -> conv1 (in-place)
I0924 04:12:24.042979 23116 net.cpp:141] Setting up relu1
I0924 04:12:24.042994 23116 net.cpp:148] Top shape: 10 96 55 55 (2904000)
I0924 04:12:24.042999 23116 net.cpp:156] Memory required for data: 29415480
I0924 04:12:24.043005 23116 layer_factory.hpp:77] Creating layer pool1
I0924 04:12:24.043022 23116 net.cpp:91] Creating Layer pool1
I0924 04:12:24.043028 23116 net.cpp:425] pool1 <- conv1
I0924 04:12:24.043041 23116 net.cpp:399] pool1 -> pool1
I0924 04:12:24.043135 23116 net.cpp:141] Setting up pool1
I0924 04:12:24.043148 23116 net.cpp:148] Top shape: 10 96 27 27 (699840)
I0924 04:12:24.043153 23116 net.cpp:156] Memory required for data: 32214840
I0924 04:12:24.043159 23116 layer_factory.hpp:77] Creating layer norm1
I0924 04:12:24.043185 23116 net.cpp:91] Creating Layer norm1
I0924 04:12:24.043192 23116 net.cpp:425] norm1 <- pool1
I0924 04:12:24.043205 23116 net.cpp:399] norm1 -> norm1
I0924 04:12:24.043524 23116 net.cpp:141] Setting up norm1
I0924 04:12:24.043539 23116 net.cpp:148] Top shape: 10 96 27 27 (699840)
I0924 04:12:24.043543 23116 net.cpp:156] Memory required for data: 35014200
I0924 04:12:24.043550 23116 layer_factory.hpp:77] Creating layer conv2
I0924 04:12:24.043571 23116 net.cpp:91] Creating Layer conv2
I0924 04:12:24.043577 23116 net.cpp:425] conv2 <- norm1
I0924 04:12:24.043589 23116 net.cpp:399] conv2 -> conv2
I0924 04:12:24.047858 23116 net.cpp:141] Setting up conv2
I0924 04:12:24.047876 23116 net.cpp:148] Top shape: 10 256 27 27 (1866240)
I0924 04:12:24.047883 23116 net.cpp:156] Memory required for data: 42479160
I0924 04:12:24.047902 23116 layer_factory.hpp:77] Creating layer relu2
I0924 04:12:24.047914 23116 net.cpp:91] Creating Layer relu2
I0924 04:12:24.047919 23116 net.cpp:425] relu2 <- conv2
I0924 04:12:24.047926 23116 net.cpp:386] relu2 -> conv2 (in-place)
I0924 04:12:24.048352 23116 net.cpp:141] Setting up relu2
I0924 04:12:24.048372 23116 net.cpp:148] Top shape: 10 256 27 27 (1866240)
I0924 04:12:24.048377 23116 net.cpp:156] Memory required for data: 49944120
I0924 04:12:24.048384 23116 layer_factory.hpp:77] Creating layer pool2
I0924 04:12:24.048395 23116 net.cpp:91] Creating Layer pool2
I0924 04:12:24.048401 23116 net.cpp:425] pool2 <- conv2
I0924 04:12:24.048409 23116 net.cpp:399] pool2 -> pool2
I0924 04:12:24.048475 23116 net.cpp:141] Setting up pool2
I0924 04:12:24.048485 23116 net.cpp:148] Top shape: 10 256 13 13 (432640)
I0924 04:12:24.048491 23116 net.cpp:156] Memory required for data: 51674680
I0924 04:12:24.048496 23116 layer_factory.hpp:77] Creating layer norm2
I0924 04:12:24.048511 23116 net.cpp:91] Creating Layer norm2
I0924 04:12:24.048516 23116 net.cpp:425] norm2 <- pool2
I0924 04:12:24.048523 23116 net.cpp:399] norm2 -> norm2
I0924 04:12:24.048813 23116 net.cpp:141] Setting up norm2
I0924 04:12:24.048826 23116 net.cpp:148] Top shape: 10 256 13 13 (432640)
I0924 04:12:24.048832 23116 net.cpp:156] Memory required for data: 53405240
I0924 04:12:24.048837 23116 layer_factory.hpp:77] Creating layer conv3
I0924 04:12:24.048853 23116 net.cpp:91] Creating Layer conv3
I0924 04:12:24.048859 23116 net.cpp:425] conv3 <- norm2
I0924 04:12:24.048867 23116 net.cpp:399] conv3 -> conv3
I0924 04:12:24.052863 23116 net.cpp:141] Setting up conv3
I0924 04:12:24.052881 23116 net.cpp:148] Top shape: 10 384 13 13 (648960)
I0924 04:12:24.052887 23116 net.cpp:156] Memory required for data: 56001080
I0924 04:12:24.052901 23116 layer_factory.hpp:77] Creating layer relu3
I0924 04:12:24.052918 23116 net.cpp:91] Creating Layer relu3
I0924 04:12:24.052925 23116 net.cpp:425] relu3 <- conv3
I0924 04:12:24.052933 23116 net.cpp:386] relu3 -> conv3 (in-place)
I0924 04:12:24.053184 23116 net.cpp:141] Setting up relu3
I0924 04:12:24.053197 23116 net.cpp:148] Top shape: 10 384 13 13 (648960)
I0924 04:12:24.053202 23116 net.cpp:156] Memory required for data: 58596920
I0924 04:12:24.053208 23116 layer_factory.hpp:77] Creating layer conv4
I0924 04:12:24.053220 23116 net.cpp:91] Creating Layer conv4
I0924 04:12:24.053225 23116 net.cpp:425] conv4 <- conv3
I0924 04:12:24.053237 23116 net.cpp:399] conv4 -> conv4
I0924 04:12:24.057714 23116 net.cpp:141] Setting up conv4
I0924 04:12:24.057734 23116 net.cpp:148] Top shape: 10 384 13 13 (648960)
I0924 04:12:24.057739 23116 net.cpp:156] Memory required for data: 61192760
I0924 04:12:24.057750 23116 layer_factory.hpp:77] Creating layer relu4
I0924 04:12:24.057763 23116 net.cpp:91] Creating Layer relu4
I0924 04:12:24.057770 23116 net.cpp:425] relu4 <- conv4
I0924 04:12:24.057780 23116 net.cpp:386] relu4 -> conv4 (in-place)
I0924 04:12:24.058205 23116 net.cpp:141] Setting up relu4
I0924 04:12:24.058220 23116 net.cpp:148] Top shape: 10 384 13 13 (648960)
I0924 04:12:24.058225 23116 net.cpp:156] Memory required for data: 63788600
I0924 04:12:24.058231 23116 layer_factory.hpp:77] Creating layer conv5
I0924 04:12:24.058253 23116 net.cpp:91] Creating Layer conv5
I0924 04:12:24.058259 23116 net.cpp:425] conv5 <- conv4
I0924 04:12:24.058267 23116 net.cpp:399] conv5 -> conv5
I0924 04:12:24.062192 23116 net.cpp:141] Setting up conv5
I0924 04:12:24.062208 23116 net.cpp:148] Top shape: 10 256 13 13 (432640)
I0924 04:12:24.062214 23116 net.cpp:156] Memory required for data: 65519160
I0924 04:12:24.062228 23116 layer_factory.hpp:77] Creating layer relu5
I0924 04:12:24.062242 23116 net.cpp:91] Creating Layer relu5
I0924 04:12:24.062248 23116 net.cpp:425] relu5 <- conv5
I0924 04:12:24.062255 23116 net.cpp:386] relu5 -> conv5 (in-place)
I0924 04:12:24.062722 23116 net.cpp:141] Setting up relu5
I0924 04:12:24.062737 23116 net.cpp:148] Top shape: 10 256 13 13 (432640)
I0924 04:12:24.062743 23116 net.cpp:156] Memory required for data: 67249720
I0924 04:12:24.062752 23116 layer_factory.hpp:77] Creating layer pool5
I0924 04:12:24.062764 23116 net.cpp:91] Creating Layer pool5
I0924 04:12:24.062770 23116 net.cpp:425] pool5 <- conv5
I0924 04:12:24.062778 23116 net.cpp:399] pool5 -> pool5
I0924 04:12:24.062847 23116 net.cpp:141] Setting up pool5
I0924 04:12:24.062858 23116 net.cpp:148] Top shape: 10 256 6 6 (92160)
I0924 04:12:24.062863 23116 net.cpp:156] Memory required for data: 67618360
I0924 04:12:24.062870 23116 layer_factory.hpp:77] Creating layer fc6
I0924 04:12:24.062891 23116 net.cpp:91] Creating Layer fc6
I0924 04:12:24.062897 23116 net.cpp:425] fc6 <- pool5
I0924 04:12:24.062911 23116 net.cpp:399] fc6 -> fc6
I0924 04:12:24.182574 23116 net.cpp:141] Setting up fc6
I0924 04:12:24.182643 23116 net.cpp:148] Top shape: 10 4096 (40960)
I0924 04:12:24.182651 23116 net.cpp:156] Memory required for data: 67782200
I0924 04:12:24.182668 23116 layer_factory.hpp:77] Creating layer relu6
I0924 04:12:24.182693 23116 net.cpp:91] Creating Layer relu6
I0924 04:12:24.182701 23116 net.cpp:425] relu6 <- fc6
I0924 04:12:24.182711 23116 net.cpp:386] relu6 -> fc6 (in-place)
I0924 04:12:24.183099 23116 net.cpp:141] Setting up relu6
I0924 04:12:24.183114 23116 net.cpp:148] Top shape: 10 4096 (40960)
I0924 04:12:24.183118 23116 net.cpp:156] Memory required for data: 67946040
I0924 04:12:24.183125 23116 layer_factory.hpp:77] Creating layer drop6
I0924 04:12:24.183136 23116 net.cpp:91] Creating Layer drop6
I0924 04:12:24.183142 23116 net.cpp:425] drop6 <- fc6
I0924 04:12:24.183151 23116 net.cpp:386] drop6 -> fc6 (in-place)
I0924 04:12:24.183213 23116 net.cpp:141] Setting up drop6
I0924 04:12:24.183224 23116 net.cpp:148] Top shape: 10 4096 (40960)
I0924 04:12:24.183229 23116 net.cpp:156] Memory required for data: 68109880
I0924 04:12:24.183235 23116 layer_factory.hpp:77] Creating layer fc7
I0924 04:12:24.183254 23116 net.cpp:91] Creating Layer fc7
I0924 04:12:24.183260 23116 net.cpp:425] fc7 <- fc6
I0924 04:12:24.183269 23116 net.cpp:399] fc7 -> fc7
I0924 04:12:24.235683 23116 net.cpp:141] Setting up fc7
I0924 04:12:24.235739 23116 net.cpp:148] Top shape: 10 4096 (40960)
I0924 04:12:24.235746 23116 net.cpp:156] Memory required for data: 68273720
I0924 04:12:24.235764 23116 layer_factory.hpp:77] Creating layer relu7
I0924 04:12:24.235783 23116 net.cpp:91] Creating Layer relu7
I0924 04:12:24.235791 23116 net.cpp:425] relu7 <- fc7
I0924 04:12:24.235802 23116 net.cpp:386] relu7 -> fc7 (in-place)
I0924 04:12:24.236476 23116 net.cpp:141] Setting up relu7
I0924 04:12:24.236493 23116 net.cpp:148] Top shape: 10 4096 (40960)
I0924 04:12:24.236500 23116 net.cpp:156] Memory required for data: 68437560
I0924 04:12:24.236505 23116 layer_factory.hpp:77] Creating layer drop7
I0924 04:12:24.236518 23116 net.cpp:91] Creating Layer drop7
I0924 04:12:24.236524 23116 net.cpp:425] drop7 <- fc7
I0924 04:12:24.236531 23116 net.cpp:386] drop7 -> fc7 (in-place)
I0924 04:12:24.236582 23116 net.cpp:141] Setting up drop7
I0924 04:12:24.236593 23116 net.cpp:148] Top shape: 10 4096 (40960)
I0924 04:12:24.236598 23116 net.cpp:156] Memory required for data: 68601400
I0924 04:12:24.236603 23116 layer_factory.hpp:77] Creating layer fc8
I0924 04:12:24.236614 23116 net.cpp:91] Creating Layer fc8
I0924 04:12:24.236619 23116 net.cpp:425] fc8 <- fc7
I0924 04:12:24.236630 23116 net.cpp:399] fc8 -> fc8
I0924 04:12:24.251737 23116 net.cpp:141] Setting up fc8
I0924 04:12:24.251792 23116 net.cpp:148] Top shape: 10 1000 (10000)
I0924 04:12:24.251799 23116 net.cpp:156] Memory required for data: 68641400
I0924 04:12:24.251816 23116 layer_factory.hpp:77] Creating layer prob
I0924 04:12:24.251847 23116 net.cpp:91] Creating Layer prob
I0924 04:12:24.251854 23116 net.cpp:425] prob <- fc8
I0924 04:12:24.251870 23116 net.cpp:399] prob -> prob
I0924 04:12:24.252526 23116 net.cpp:141] Setting up prob
I0924 04:12:24.252542 23116 net.cpp:148] Top shape: 10 1000 (10000)
I0924 04:12:24.252547 23116 net.cpp:156] Memory required for data: 68681400
I0924 04:12:24.252552 23116 net.cpp:219] prob does not need backward computation.
I0924 04:12:24.252558 23116 net.cpp:219] fc8 does not need backward computation.
I0924 04:12:24.252563 23116 net.cpp:219] drop7 does not need backward computation.
I0924 04:12:24.252568 23116 net.cpp:219] relu7 does not need backward computation.
…
W0924 04:12:28.168018 23160 upgrade_proto.cpp:71] Note that future Caffe releases will only support input layers and not input fields.
I0924 04:12:28.171005 23160 net.cpp:49] Initializing net from parameters: 
name: "s2vt:features_to_lstm"
state {
  phase: TEST
}
layer {
  name: "input"
  type: "Input"
  top: "frames_fc7"
  top: "cont_sentence"
  top: "input_sentence"
  top: "stage_indicator"
  input_param {
    shape {
      dim: 1
      dim: 4096
    }
    shape {
      dim: 1
      dim: 1
    }
    shape {
      dim: 1
      dim: 1
    }
    shape {
      dim: 1
      dim: 1
    }
  }
}
layer {
  name: "embed_encoder"
  type: "InnerProduct"
  bottom: "frames_fc7"
  top: "embedded_in_frames"
  param {
    lr_mult: 1
    decay_mult: 1
  }
  param {
    lr_mult: 2
    decay_mult: 0
  }
  inner_product_param {
    num_output: 500
    weight_filler {
      type: "xavier"
    }
    bias_filler {
      type: "constant"
      value: 0.2
    }
  }
}
layer {
  name: "reshape_frames"
  type: "Reshape"
  bottom: "embedded_in_frames"
  top: "embedded_input_frames"
  reshape_param {
    shape {
      dim: 1
      dim: 1
      dim: 500
    }
  }
}
layer {
  name: "reshape_stage_indicator"
  type: "Reshape"
  bottom: "stage_indicator"
  top: "reshaped_stage_indicator"
  reshape_param {
    shape {
      dim: 1
      dim: 1
      dim: 1
    }
  }
}
layer {
  name: "embedding"
  type: "Embed"
  bottom: "input_sentence"
  top: "embedded_input_sentence"
  param {
    lr_mult: 1
  }
  embed_param {
    num_output: 500
    input_dim: 46168
    bias_term: false
    weight_filler {
      type: "uniform"
      min: -0.08
      max: 0.08
    }
  }
}
layer {
  name: "lstm1"
  type: "LSTM"
  bottom: "embedded_input_frames"
  bottom: "cont_sentence"
  top: "lstm1"
  recurrent_param {
    num_output: 1000
    weight_filler {
      type: "uniform"
      min: -0.08
      max: 0.08
    }
    bias_filler {
      type: "constant"
      value: 0
    }
  }
}
layer {
  name: "concat"
  type: "Concat"
  bottom: "lstm1"
  bottom: "embedded_input_sentence"
  bottom: "reshaped_stage_indicator"
  top: "lstm1_video_sequence"
  concat_param {
    concat_dim: 2
  }
}
layer {
  name: "lstm2"
  type: "LSTM"
  bottom: "lstm1_video_sequence"
  bottom: "cont_sentence"
  top: "lstm2"
  recurrent_param {
    num_output: 1000
    weight_filler {
      type: "uniform"
      min: -0.08
      max: 0.08
    }
    bias_filler {
      type: "constant"
      value: 0
    }
  }
}
layer {
  name: "predict"
  type: "InnerProduct"
  bottom: "lstm2"
  top: "predict"
  param {
    lr_mult: 1
    decay_mult: 1
  }
  param {
    lr_mult: 2
    decay_mult: 0
  }
  inner_product_param {
    num_output: 46168
    weight_filler {
      type: "uniform"
      min: -0.08
      max: 0.08
    }
    bias_filler {
      type: "constant"
      value: 0
    }
    axis: 2
  }
}
layer {
  name: "probs"
  type: "Softmax"
  bottom: "predict"
  top: "probs"
  softmax_param {
    axis: 2
  }
}
I0924 04:12:28.171160 23160 layer_factory.hpp:77] Creating layer input
I0924 04:12:28.171193 23160 net.cpp:91] Creating Layer input
I0924 04:12:28.171205 23110 upgrade_proto.cpp:66] Attempting to upgrade input file specified using deprecated input fields: /home/peifeng/work/run/storm102/data/workers/219889e7-a868-48c8-bc4d-7708c49bffb5/tmp/cvld1902992304829891570/s2vt.words_to_preds.prototxt
…
W0924 04:12:28.171569 23132 upgrade_proto.cpp:71] Note that future Caffe releases will only support input layers and not input fields.
I0924 04:12:28.171574 23114 layer_factory.hpp:77] Creating layer input
I0924 04:12:28.171577 23110 net.cpp:49] Initializing net from parameters: 
name: "s2vt:features_to_lstm"
state {
  phase: TEST
}
layer {
  name: "input"
  type: "Input"
  top: "frames_fc7"
  top: "cont_sentence"
  top: "input_sentence"
  top: "stage_indicator"
  input_param {
    shape {
      dim: 1
      dim: 4096
    }
    shape {
      dim: 1
      dim: 1
    }
    shape {
      dim: 1
      dim: 1
    }
    shape {
      dim: 1
      dim: 1
    }
  }
}
layer {
  name: "embed_encoder"
  type: "InnerProduct"
  bottom: "frames_fc7"
  top: "embedded_in_frames"
  param {
    lr_mult: 1
    decay_mult: 1
  }
  param {
    lr_mult: 2
    decay_mult: 0
  }
  inner_product_param {
    num_output: 500
    weight_filler {
      type: "xavier"
    }
    bias_filler {
      type: "constant"
      value: 0.2
    }
  }
}
layer {
  name: "reshape_frames"
  type: "Reshape"
  bottom: "embedded_in_frames"
  top: "embedded_input_frames"
  reshape_param {
    shape {
      dim: 1
      dim: 1
      dim: 500
    }
  }
}
layer {
  name: "reshape_stage_indicator"
  type: "Reshape"
  bottom: "stage_indicator"
  top: "reshaped_stage_indicator"
  reshape_param {
    shape {
      dim: 1
      dim: 1
      dim: 1
    }
  }
}
layer {
  name: "embedding"
  type: "Embed"
  bottom: "input_sentence"
  top: "embedded_input_sentence"
  param {
    lr_mult: 1
  }
  embed_param {
    num_output: 500
    input_dim: 46168
    bias_term: false
    weight_filler {
      type: "uniform"
      min: -0.08
      max: 0.08
    }
  }
}
layer {
  name: "lstm1"
  type: "LSTM"
  bottom: "embedded_input_frames"
  bottom: "cont_sentence"
  top: "lstm1"
  recurrent_param {
    num_output: 1000
    weight_filler {
      type: "uniform"
      min: -0.08
      max: 0.08
    }
    bias_filler {
      type: "constant"
      value: 0
    }
  }
}
layer {
  name: "concat"
  type: "Concat"
  bottom: "lstm1"
  bottom: "embedded_input_sentence"
  bottom: "reshaped_stage_indicator"
  top: "lstm1_video_sequence"
  concat_param {
    concat_dim: 2
  }
}
layer {
  name: "lstm2"
  type: "LSTM"
  bottom: "lstm1_video_sequence"
  bottom: "cont_sentence"
  top: "lstm2"
  recurrent_param {
    num_output: 1000
    weight_filler {
      type: "uniform"
      min: -0.08
      max: 0.08
    }
    bias_filler {
      type: "constant"
      value: 0
    }
  }
}
layer {
  name: "predict"
  type: "InnerProduct"
  bottom: "lstm2"
  top: "predict"
  param {
    lr_mult: 1
    decay_mult: 1
  }
  param {
    lr_mult: 2
    decay_mult: 0
  }
  inner_product_param {
    num_output: 46168
    weight_filler {
      type: "uniform"
      min: -0.08
      max: 0.08
    }
    bias_filler {
      type: "constant"
      value: 0
    }
    axis: 2
  }
}
layer {
  name: "probs"
  type: "Softmax"
  bottom: "predict"
  top: "probs"
  softmax_param {
    axis: 2
  }
}
I0924 04:12:28.171586 23114 net.cpp:91] Creating Layer input
I0924 04:12:28.171604 23114 net.cpp:399] input -> frames_fc7
I0924 04:12:28.171617 23114 net.cpp:399] input -> cont_sentence
I0924 04:12:28.171627 23114 net.cpp:399] input -> input_sentence
I0924 04:12:28.171638 23114 net.cpp:399] input -> stage_indicator
I0924 04:12:28.171710 23110 layer_factory.hpp:77] Creating layer input
I0924 04:12:28.171730 23110 net.cpp:91] Creating Layer input
I0924 04:12:28.171741 23110 net.cpp:399] input -> frames_fc7
I0924 04:12:28.171761 23110 net.cpp:399] input -> cont_sentence
I0924 04:12:28.171782 23110 net.cpp:399] input -> input_sentence
I0924 04:12:28.171792 23114 net.cpp:141] Setting up input
I0924 04:12:28.171799 23110 net.cpp:399] input -> stage_indicator
I0924 04:12:28.171808 23114 net.cpp:148] Top shape: 1 4096 (4096)
I0924 04:12:28.171815 23114 net.cpp:148] Top shape: 1 1 (1)
I0924 04:12:28.171821 23114 net.cpp:148] Top shape: 1 1 (1)
I0924 04:12:28.171828 23114 net.cpp:148] Top shape: 1 1 (1)
I0924 04:12:28.171833 23114 net.cpp:156] Memory required for data: 16396
I0924 04:12:28.171826 23164 net.cpp:49] Initializing net from parameters: 
name: "s2vt:features_to_lstm"
state {
  phase: TEST
}
layer {
  name: "input"
  type: "Input"
  top: "frames_fc7"
  top: "cont_sentence"
  top: "input_sentence"
  top: "stage_indicator"
  input_param {
    shape {
      dim: 1
      dim: 4096
    }
    shape {
      dim: 1
      dim: 1
    }
    shape {
      dim: 1
      dim: 1
    }
    shape {
      dim: 1
      dim: 1
    }
  }
}
layer {
  name: "embed_encoder"
  type: "InnerProduct"
  bottom: "frames_fc7"
  top: "embedded_in_frames"
  param {
    lr_mult: 1
    decay_mult: 1
  }
  param {
    lr_mult: 2
    decay_mult: 0
  }
  inner_product_param {
    num_output: 500
    weight_filler {
      type: "xavier"
    }
    bias_filler {
      type: "constant"
      value: 0.2
    }
  }
}
layer {
  name: "reshape_frames"
  type: "Reshape"
  bottom: "embedded_in_frames"
  top: "embedded_input_frames"
  reshape_param {
    shape {
      dim: 1
      dim: 1
      dim: 500
    }
  }
}
layer {
  name: "reshape_stage_indicator"
  type: "Reshape"
  bottom: "stage_indicator"
  top: "reshaped_stage_indicator"
  reshape_param {
    shape {
      dim: 1
      dim: 1
      dim: 1
    }
  }
}
layer {
  name: "embedding"
  type: "Embed"
  bottom: "input_sentence"
  top: "embedded_input_sentence"
  param {
    lr_mult: 1
  }
  embed_param {
    num_output: 500
    input_dim: 46168
    bias_term: false
    weight_filler {
      type: "uniform"
      min: -0.08
      max: 0.08
    }
  }
}
layer {
  name: "lstm1"
  type: "LSTM"
  bottom: "embedded_input_frames"
  bottom: "cont_sentence"
  top: "lstm1"
  recurrent_param {
    num_output: 1000
    weight_filler {
      type: "uniform"
      min: -0.08
      max: 0.08
    }
    bias_filler {
      type: "constant"
      value: 0
    }
  }
}
layer {
  name: "concat"
  type: "Concat"
  bottom: "lstm1"
  bottom: "embedded_input_sentence"
  bottom: "reshaped_stage_indicator"
  top: "lstm1_video_sequence"
  concat_param {
    concat_dim: 2
  }
}
layer {
  name: "lstm2"
  type: "LSTM"
  bottom: "lstm1_video_sequence"
  bottom: "cont_sentence"
  top: "lstm2"
  recurrent_param {
    num_output: 1000
    weight_filler {
      type: "uniform"
      min: -0.08
      max: 0.08
    }
    bias_filler {
      type: "constant"
      value: 0
    }
  }
}
layer {
  name: "predict"
  type: "InnerProduct"
  bottom: "lstm2"
  top: "predict"
  param {
    lr_mult: 1
    decay_mult: 1
  }
  param {
    lr_mult: 2
    decay_mult: 0
  }
  inner_product_param {
    num_output: 46168
    weight_filler {
      type: "uniform"
      min: -0.08
      max: 0.08
    }
    bias_filler {
      type: "constant"
      value: 0
    }
    axis: 2
  }
}
layer {
  name: "probs"
  type: "Softmax"
  bottom: "predict"
  top: "probs"
  softmax_param {
    axis: 2
  }
}
I0924 04:12:28.171838 23114 layer_factory.hpp:77] Creating layer cont_sentence_input_1_split
I0924 04:12:28.171840 23102 net.cpp:49] Initializing net from parameters: 
name: "s2vt:features_to_lstm"
state {
  phase: TEST
}
layer {
  name: "input"
  type: "Input"
  top: "frames_fc7"
  top: "cont_sentence"
  top: "input_sentence"
  top: "stage_indicator"
  input_param {
    shape {
      dim: 1
      dim: 4096
    }
    shape {
      dim: 1
      dim: 1
    }
    shape {
      dim: 1
      dim: 1
    }
    shape {
      dim: 1
      dim: 1
    }
  }
}
layer {
  name: "embed_encoder"
  type: "InnerProduct"
  bottom: "frames_fc7"
  top: "embedded_in_frames"
  param {
    lr_mult: 1
    decay_mult: 1
  }
  param {
    lr_mult: 2
    decay_mult: 0
  }
  inner_product_param {
    num_output: 500
    weight_filler {
      type: "xavier"
    }
    bias_filler {
      type: "constant"
      value: 0.2
    }
  }
}
layer {
  name: "reshape_frames"
  type: "Reshape"
  bottom: "embedded_in_frames"
  top: "embedded_input_frames"
  reshape_param {
    shape {
      dim: 1
      dim: 1
      dim: 500
    }
  }
}
layer {
  name: "reshape_stage_indicator"
  type: "Reshape"
  bottom: "stage_indicator"
  top: "reshaped_stage_indicator"
  reshape_param {
    shape {
      dim: 1
      dim: 1
      dim: 1
    }
  }
}
layer {
  name: "embedding"
  type: "Embed"
  bottom: "input_sentence"
  top: "embedded_input_sentence"
  param {
    lr_mult: 1
  }
  embed_param {
    num_output: 500
    input_dim: 46168
    bias_term: false
    weight_filler {
      type: "uniform"
      min: -0.08
      max: 0.08
    }
  }
}
layer {
  name: "lstm1"
  type: "LSTM"
  bottom: "embedded_input_frames"
  bottom: "cont_sentence"
  top: "lstm1"
  recurrent_param {
    num_output: 1000
    weight_filler {
      type: "uniform"
      min: -0.08
      max: 0.08
    }
    bias_filler {
      type: "constant"
      value: 0
    }
  }
}
layer {
  name: "concat"
  type: "Concat"
  bottom: "lstm1"
  bottom: "embedded_input_sentence"
  bottom: "reshaped_stage_indicator"
  top: "lstm1_video_sequence"
  concat_param {
    concat_dim: 2
  }
}
layer {
  name: "lstm2"
  type: "LSTM"
  bottom: "lstm1_video_sequence"
  bottom: "cont_sentence"
  top: "lstm2"
  recurrent_param {
    num_output: 1000
    weight_filler {
      type: "uniform"
      min: -0.08
      max: 0.08
    }
    bias_filler {
      type: "constant"
      value: 0
    }
  }
}
layer {
  name: "predict"
  type: "InnerProduct"
  bottom: "lstm2"
  top: "predict"
  param {
    lr_mult: 1
    decay_mult: 1
  }
  param {
    lr_mult: 2
    decay_mult: 0
  }
  inner_product_param {
    num_output: 46168
    weight_filler {
      type: "uniform"
      min: -0.08
      max: 0.08
    }
    bias_filler {
      type: "constant"
      value: 0
    }
    axis: 2
  }
}
layer {
  name: "probs"
  type: "Softmax"
  bottom: "predict"
  top: "probs"
  softmax_param {
    axis: 2
  }
}
I0924 04:12:28.171847 23125 net.cpp:49] Initializing net from parameters: 
name: "s2vt:features_to_lstm"
state {
  phase: TEST
}
layer {
  name: "input"
  type: "Input"
  top: "frames_fc7"
  top: "cont_sentence"
  top: "input_sentence"
  top: "stage_indicator"
  input_param {
    shape {
      dim: 1
      dim: 4096
    }
    shape {
      dim: 1
      dim: 1
    }
    shape {
      dim: 1
      dim: 1
    }
    shape {
      dim: 1
      dim: 1
    }
  }
}
layer {
  name: "embed_encoder"
  type: "InnerProduct"
  bottom: "frames_fc7"
  top: "embedded_in_frames"
  param {
    lr_mult: 1
    decay_mult: 1
  }
  param {
    lr_mult: 2
    decay_mult: 0
  }
  inner_product_param {
    num_output: 500
    weight_filler {
      type: "xavier"
    }
    bias_filler {
      type: "constant"
      value: 0.2
    }
  }
}
layer {
  name: "reshape_frames"
  type: "Reshape"
  bottom: "embedded_in_frames"
  top: "embedded_input_frames"
  reshape_param {
    shape {
      dim: 1
      dim: 1
      dim: 500
    }
  }
}
layer {
  name: "reshape_stage_indicator"
  type: "Reshape"
  bottom: "stage_indicator"
  top: "reshaped_stage_indicator"
  reshape_param {
    shape {
      dim: 1
      dim: 1
      dim: 1
    }
  }
}
layer {
  name: "embedding"
  type: "Embed"
  bottom: "input_sentence"
  top: "embedded_input_sentence"
  param {
    lr_mult: 1
  }
  embed_param {
    num_output: 500
    input_dim: 46168
    bias_term: false
    weight_filler {
      type: "uniform"
      min: -0.08
      max: 0.08
    }
  }
}
layer {
  name: "lstm1"
  type: "LSTM"
  bottom: "embedded_input_frames"
  bottom: "cont_sentence"
  top: "lstm1"
  recurrent_param {
    num_output: 1000
    weight_filler {
      type: "uniform"
      min: -0.08
      max: 0.08
    }
    bias_filler {
      type: "constant"
      value: 0
    }
  }
}
layer {
  name: "concat"
  type: "Concat"
  bottom: "lstm1"
  bottom: "embedded_input_sentence"
  bottom: "reshaped_stage_indicator"
  top: "lstm1_video_sequence"
  concat_param {
    concat_dim: 2
  }
}
layer {
  name: "lstm2"
  type: "LSTM"
  bottom: "lstm1_video_sequence"
  bottom: "cont_sentence"
  top: "lstm2"
  recurrent_param {
    num_output: 1000
    weight_filler {
      type: "uniform"
      min: -0.08
      max: 0.08
    }
    bias_filler {
      type: "constant"
      value: 0
    }
  }
}
layer {
  name: "predict"
  type: "InnerProduct"
  bottom: "lstm2"
  top: "predict"
  param {
    lr_mult: 1
    decay_mult: 1
  }
  param {
    lr_mult: 2
    decay_mult: 0
  }
  inner_product_param {
    num_output: 46168
    weight_filler {
      type: "uniform"
      min: -0.08
      max: 0.08
    }
    bias_filler {
      type: "constant"
      value: 0
    }
    axis: 2
  }
}
layer {
  name: "probs"
  type: "Softmax"
  bottom: "predict"
  top: "probs"
  softmax_param {
    axis: 2
  }
}
I0924 04:12:28.171859 23114 net.cpp:91] Creating Layer cont_sentence_input_1_split
I0924 04:12:28.171875 23114 net.cpp:425] cont_sentence_input_1_split <- cont_sentence
I0924 04:12:28.171872 23138 net.cpp:49] Initializing net from parameters: 
name: "s2vt:features_to_lstm"
state {
  phase: TEST
}
layer {
  name: "input"
  type: "Input"
  top: "frames_fc7"
  top: "cont_sentence"
  top: "input_sentence"
  top: "stage_indicator"
  input_param {
    shape {
      dim: 1
      dim: 4096
    }
    shape {
      dim: 1
      dim: 1
    }
    shape {
      dim: 1
      dim: 1
    }
    shape {
      dim: 1
      dim: 1
    }
  }
}
layer {
  name: "embed_encoder"
  type: "InnerProduct"
  bottom: "frames_fc7"
  top: "embedded_in_frames"
  param {
    lr_mult: 1
    decay_mult: 1
  }
  param {
    lr_mult: 2
    decay_mult: 0
  }
  inner_product_param {
    num_output: 500
    weight_filler {
      type: "xavier"
    }
    bias_filler {
      type: "constant"
      value: 0.2
    }
  }
}
layer {
  name: "reshape_frames"
  type: "Reshape"
  bottom: "embedded_in_frames"
  top: "embedded_input_frames"
  reshape_param {
    shape {
      dim: 1
      dim: 1
      dim: 500
    }
  }
}
layer {
  name: "reshape_stage_indicator"
  type: "Reshape"
  bottom: "stage_indicator"
  top: "reshaped_stage_indicator"
  reshape_param {
    shape {
      dim: 1
      dim: 1
      dim: 1
    }
  }
}
layer {
  name: "embedding"
  type: "Embed"
  bottom: "input_sentence"
  top: "embedded_input_sentence"
  param {
    lr_mult: 1
  }
  embed_param {
    num_output: 500
    input_dim: 46168
    bias_term: false
    weight_filler {
      type: "uniform"
      min: -0.08
      max: 0.08
    }
  }
}
layer {
  name: "lstm1"
  type: "LSTM"
  bottom: "embedded_input_frames"
  bottom: "cont_sentence"
  top: "lstm1"
  recurrent_param {
    num_output: 1000
    weight_filler {
      type: "uniform"
      min: -0.08
      max: 0.08
    }
    bias_filler {
      type: "constant"
      value: 0
    }
  }
}
layer {
  name: "concat"
  type: "Concat"
  bottom: "lstm1"
  bottom: "embedded_input_sentence"
  bottom: "reshaped_stage_indicator"
  top: "lstm1_video_sequence"
  concat_param {
    concat_dim: 2
  }
}
layer {
  name: "lstm2"
  type: "LSTM"
  bottom: "lstm1_video_sequence"
  bottom: "cont_sentence"
  top: "lstm2"
  recurrent_param {
    num_output: 1000
    weight_filler {
      type: "uniform"
      min: -0.08
      max: 0.08
    }
    bias_filler {
      type: "constant"
      value: 0
    }
  }
}
layer {
  name: "predict"
  type: "InnerProduct"
  bottom: "lstm2"
  top: "predict"
  param {
    lr_mult: 1
    decay_mult: 1
  }
  param {
    lr_mult: 2
    decay_mult: 0
  }
  inner_product_param {
    num_output: 46168
    weight_filler {
      type: "uniform"
      min: -0.08
      max: 0.08
    }
    bias_filler {
      type: "constant"
      value: 0
    }
    axis: 2
  }
}
layer {
  name: "probs"
  type: "Softmax"
  bottom: "predict"
  top: "probs"
  softmax_param {
    axis: 2
  }
}
I0924 04:12:28.171872 23132 net.cpp:49] Initializing net from parameters: 
name: "s2vt:features_to_lstm"
state {
  phase: TEST
}
layer {
  name: "input"
  type: "Input"
  top: "frames_fc7"
  top: "cont_sentence"
  top: "input_sentence"
  top: "stage_indicator"
  input_param {
    shape {
      dim: 1
      dim: 4096
    }
    shape {
      dim: 1
      dim: 1
    }
    shape {
      dim: 1
      dim: 1
    }
    shape {
      dim: 1
      dim: 1
    }
  }
}
layer {
  name: "embed_encoder"
  type: "InnerProduct"
  bottom: "frames_fc7"
  top: "embedded_in_frames"
  param {
    lr_mult: 1
    decay_mult: 1
  }
  param {
    lr_mult: 2
    decay_mult: 0
  }
  inner_product_param {
    num_output: 500
    weight_filler {
      type: "xavier"
    }
    bias_filler {
      type: "constant"
      value: 0.2
    }
  }
}
layer {
  name: "reshape_frames"
  type: "Reshape"
  bottom: "embedded_in_frames"
  top: "embedded_input_frames"
  reshape_param {
    shape {
      dim: 1
      dim: 1
      dim: 500
    }
  }
}
layer {
  name: "reshape_stage_indicator"
  type: "Reshape"
  bottom: "stage_indicator"
  top: "reshaped_stage_indicator"
  reshape_param {
    shape {
      dim: 1
      dim: 1
      dim: 1
    }
  }
}
layer {
  name: "embedding"
  type: "Embed"
  bottom: "input_sentence"
  top: "embedded_input_sentence"
  param {
    lr_mult: 1
  }
  embed_param {
    num_output: 500
    input_dim: 46168
    bias_term: false
    weight_filler {
      type: "uniform"
      min: -0.08
      max: 0.08
    }
  }
}
layer {
  name: "lstm1"
  type: "LSTM"
  bottom: "embedded_input_frames"
  bottom: "cont_sentence"
  top: "lstm1"
  recurrent_param {
    num_output: 1000
    weight_filler {
      type: "uniform"
      min: -0.08
      max: 0.08
    }
    bias_filler {
      type: "constant"
      value: 0
    }
  }
}
layer {
  name: "concat"
  type: "Concat"
  bottom: "lstm1"
  bottom: "embedded_input_sentence"
  bottom: "reshaped_stage_indicator"
  top: "lstm1_video_sequence"
  concat_param {
    concat_dim: 2
  }
}
layer {
  name: "lstm2"
  type: "LSTM"
  bottom: "lstm1_video_sequence"
  bottom: "cont_sentence"
  top: "lstm2"
  recurrent_param {
    num_output: 1000
    weight_filler {
      type: "uniform"
      min: -0.08
      max: 0.08
    }
    bias_filler {
      type: "constant"
      value: 0
    }
  }
}
layer {
  name: "predict"
  type: "InnerProduct"
  bottom: "lstm2"
  top: "predict"
  param {
    lr_mult: 1
    decay_mult: 1
  }
  param {
    lr_mult: 2
    decay_mult: 0
  }
  inner_product_param {
    num_output: 46168
    weight_filler {
      type: "uniform"
      min: -0.08
      max: 0.08
    }
    bias_filler {
      type: "constant"
      value: 0
    }
    axis: 2
  }
}
layer {
  name: "probs"
  type: "Softmax"
  bottom: "predict"
  top: "probs"
  softmax_param {
    axis: 2
  }
}
I0924 04:12:28.171993 23102 layer_factory.hpp:77] Creating layer input
I0924 04:12:28.172004 23125 layer_factory.hpp:77] Creating layer input
I0924 04:12:28.172010 23102 net.cpp:91] Creating Layer input
I0924 04:12:28.172014 23114 net.cpp:399] cont_sentence_input_1_split -> cont_sentence_input_1_split_0
I0924 04:12:28.172005 23164 layer_factory.hpp:77] Creating layer input
I0924 04:12:28.172022 23160 net.cpp:141] Setting up input
I0924 04:12:28.172019 23138 layer_factory.hpp:77] Creating layer input
I0924 04:12:28.172037 23125 net.cpp:91] Creating Layer input
I0924 04:12:28.172024 23102 net.cpp:399] input -> frames_fc7
I0924 04:12:28.172047 23164 net.cpp:91] Creating Layer input
I0924 04:12:28.172029 23114 net.cpp:399] cont_sentence_input_1_split -> cont_sentence_input_1_split_1
I0924 04:12:28.172052 23125 net.cpp:399] input -> frames_fc7
I0924 04:12:28.172054 23160 net.cpp:148] Top shape: 1 4096 (4096)
I0924 04:12:28.172063 23164 net.cpp:399] input -> frames_fc7
I0924 04:12:28.172056 23138 net.cpp:91] Creating Layer input
I0924 04:12:28.172070 23102 net.cpp:399] input -> cont_sentence
I0924 04:12:28.172057 23132 layer_factory.hpp:77] Creating layer input
I0924 04:12:28.172077 23160 net.cpp:148] Top shape: 1 1 (1)
I0924 04:12:28.172082 23138 net.cpp:399] input -> frames_fc7
I0924 04:12:28.172091 23102 net.cpp:399] input -> input_sentence
I0924 04:12:28.172092 23160 net.cpp:148] Top shape: 1 1 (1)
I0924 04:12:28.172073 23125 net.cpp:399] input -> cont_sentence
I0924 04:12:28.172093 23110 net.cpp:141] Setting up input
I0924 04:12:28.172088 23164 net.cpp:399] input -> cont_sentence
I0924 04:12:28.172111 23138 net.cpp:399] input -> cont_sentence
I0924 04:12:28.172094 23132 net.cpp:91] Creating Layer input
I0924 04:12:28.172117 23102 net.cpp:399] input -> stage_indicator
I0924 04:12:28.172121 23125 net.cpp:399] input -> input_sentence
I0924 04:12:28.172116 23160 net.cpp:148] Top shape: 1 1 (1)
I0924 04:12:28.172132 23138 net.cpp:399] input -> input_sentence
I0924 04:12:28.172127 23164 net.cpp:399] input -> input_sentence
I0924 04:12:28.172147 23160 net.cpp:156] Memory required for data: 16396
I0924 04:12:28.172133 23132 net.cpp:399] input -> frames_fc7
I0924 04:12:28.172153 23125 net.cpp:399] input -> stage_indicator
I0924 04:12:28.172139 23114 net.cpp:141] Setting up cont_sentence_input_1_split
I0924 04:12:28.172163 23160 layer_factory.hpp:77] Creating layer cont_sentence_input_1_split
I0924 04:12:28.172154 23138 net.cpp:399] input -> stage_indicator
I0924 04:12:28.172123 23110 net.cpp:148] Top shape: 1 4096 (4096)
I0924 04:12:28.172178 23132 net.cpp:399] input -> cont_sentence
I0924 04:12:28.172164 23164 net.cpp:399] input -> stage_indicator
I0924 04:12:28.172176 23114 net.cpp:148] Top shape: 1 1 (1)
I0924 04:12:28.172194 23110 net.cpp:148] Top shape: 1 1 (1)
I0924 04:12:28.172202 23114 net.cpp:148] Top shape: 1 1 (1)
I0924 04:12:28.172186 23160 net.cpp:91] Creating Layer cont_sentence_input_1_split
I0924 04:12:28.172201 23132 net.cpp:399] input -> input_sentence
I0924 04:12:28.172211 23114 net.cpp:156] Memory required for data: 16404
I0924 04:12:28.172210 23110 net.cpp:148] Top shape: 1 1 (1)
I0924 04:12:28.172217 23114 layer_factory.hpp:77] Creating layer embed_encoder
I0924 04:12:28.172216 23160 net.cpp:425] cont_sentence_input_1_split <- cont_sentence
I0924 04:12:28.172222 23110 net.cpp:148] Top shape: 1 1 (1)
I0924 04:12:28.172222 23132 net.cpp:399] input -> stage_indicator
I0924 04:12:28.172226 23110 net.cpp:156] Memory required for data: 16396
I0924 04:12:28.172230 23114 net.cpp:91] Creating Layer embed_encoder
I0924 04:12:28.172232 23110 layer_factory.hpp:77] Creating layer cont_sentence_input_1_split
I0924 04:12:28.172232 23160 net.cpp:399] cont_sentence_input_1_split -> cont_sentence_input_1_split_0
…
I0924 04:12:28.172549 23132 net.cpp:399] cont_sentence_input_1_split -> cont_sentence_input_1_split_1
I0924 04:12:28.172647 23152 net.cpp:49] Initializing net from parameters: 
name: "s2vt:features_to_lstm"
state {
  phase: TEST
}
layer {
  name: "input"
  type: "Input"
  top: "frames_fc7"
  top: "cont_sentence"
  top: "input_sentence"
  top: "stage_indicator"
  input_param {
    shape {
      dim: 1
      dim: 4096
    }
    shape {
      dim: 1
      dim: 1
    }
    shape {
      dim: 1
      dim: 1
    }
    shape {
      dim: 1
      dim: 1
    }
  }
}
layer {
  name: "embed_encoder"
  type: "InnerProduct"
  bottom: "frames_fc7"
  top: "embedded_in_frames"
  param {
    lr_mult: 1
    decay_mult: 1
  }
  param {
    lr_mult: 2
    decay_mult: 0
  }
  inner_product_param {
    num_output: 500
    weight_filler {
      type: "xavier"
    }
    bias_filler {
      type: "constant"
      value: 0.2
    }
  }
}
layer {
  name: "reshape_frames"
  type: "Reshape"
  bottom: "embedded_in_frames"
  top: "embedded_input_frames"
  reshape_param {
    shape {
      dim: 1
      dim: 1
      dim: 500
    }
  }
}
layer {
  name: "reshape_stage_indicator"
  type: "Reshape"
  bottom: "stage_indicator"
  top: "reshaped_stage_indicator"
  reshape_param {
    shape {
      dim: 1
      dim: 1
      dim: 1
    }
  }
}
layer {
  name: "embedding"
  type: "Embed"
  bottom: "input_sentence"
  top: "embedded_input_sentence"
  param {
    lr_mult: 1
  }
  embed_param {
    num_output: 500
    input_dim: 46168
    bias_term: false
    weight_filler {
      type: "uniform"
      min: -0.08
      max: 0.08
    }
  }
}
layer {
  name: "lstm1"
  type: "LSTM"
  bottom: "embedded_input_frames"
  bottom: "cont_sentence"
  top: "lstm1"
  recurrent_param {
    num_output: 1000
    weight_filler {
      type: "uniform"
      min: -0.08
      max: 0.08
    }
    bias_filler {
      type: "constant"
      value: 0
    }
  }
}
layer {
  name: "concat"
  type: "Concat"
  bottom: "lstm1"
  bottom: "embedded_input_sentence"
  bottom: "reshaped_stage_indicator"
  top: "lstm1_video_sequence"
  concat_param {
    concat_dim: 2
  }
}
layer {
  name: "lstm2"
  type: "LSTM"
  bottom: "lstm1_video_sequence"
  bottom: "cont_sentence"
  top: "lstm2"
  recurrent_param {
    num_output: 1000
    weight_filler {
      type: "uniform"
      min: -0.08
      max: 0.08
    }
    bias_filler {
      type: "constant"
      value: 0
    }
  }
}
layer {
  name: "predict"
  type: "InnerProduct"
  bottom: "lstm2"
  top: "predict"
  param {
    lr_mult: 1
    decay_mult: 1
  }
  param {
    lr_mult: 2
    decay_mult: 0
  }
  inner_product_param {
    num_output: 46168
    weight_filler {
      type: "uniform"
      min: -0.08
      max: 0.08
    }
    bias_filler {
      type: "constant"
      value: 0
    }
    axis: 2
  }
}
layer {
  name: "probs"
  type: "Softmax"
  bottom: "predict"
  top: "probs"
  softmax_param {
    axis: 2
  }
}
I0924 04:12:28.172701 23106 net.cpp:49] Initializing net from parameters: 
name: "s2vt:features_to_lstm"
state {
  phase: TEST
}
layer {
  name: "input"
  type: "Input"
  top: "frames_fc7"
  top: "cont_sentence"
  top: "input_sentence"
  top: "stage_indicator"
  input_param {
    shape {
      dim: 1
      dim: 4096
    }
    shape {
      dim: 1
      dim: 1
    }
    shape {
      dim: 1
      dim: 1
    }
    shape {
      dim: 1
      dim: 1
    }
  }
}
layer {
  name: "embed_encoder"
  type: "InnerProduct"
  bottom: "frames_fc7"
  top: "embedded_in_frames"
  param {
    lr_mult: 1
    decay_mult: 1
  }
  param {
    lr_mult: 2
    decay_mult: 0
  }
  inner_product_param {
    num_output: 500
    weight_filler {
      type: "xavier"
    }
    bias_filler {
      type: "constant"
      value: 0.2
    }
  }
}
layer {
  name: "reshape_frames"
  type: "Reshape"
  bottom: "embedded_in_frames"
  top: "embedded_input_frames"
  reshape_param {
    shape {
      dim: 1
      dim: 1
      dim: 500
    }
  }
}
layer {
  name: "reshape_stage_indicator"
  type: "Reshape"
  bottom: "stage_indicator"
  top: "reshaped_stage_indicator"
  reshape_param {
    shape {
      dim: 1
      dim: 1
      dim: 1
    }
  }
}
layer {
  name: "embedding"
  type: "Embed"
  bottom: "input_sentence"
  top: "embedded_input_sentence"
  param {
    lr_mult: 1
  }
  embed_param {
    num_output: 500
    input_dim: 46168
    bias_term: false
    weight_filler {
      type: "uniform"
      min: -0.08
      max: 0.08
    }
  }
}
layer {
  name: "lstm1"
  type: "LSTM"
  bottom: "embedded_input_frames"
  bottom: "cont_sentence"
  top: "lstm1"
  recurrent_param {
    num_output: 1000
    weight_filler {
      type: "uniform"
      min: -0.08
      max: 0.08
    }
    bias_filler {
      type: "constant"
      value: 0
    }
  }
}
layer {
  name: "concat"
  type: "Concat"
  bottom: "lstm1"
  bottom: "embedded_input_sentence"
  bottom: "reshaped_stage_indicator"
  top: "lstm1_video_sequence"
  concat_param {
    concat_dim: 2
  }
}
layer {
  name: "lstm2"
  type: "LSTM"
  bottom: "lstm1_video_sequence"
  bottom: "cont_sentence"
  top: "lstm2"
  recurrent_param {
    num_output: 1000
    weight_filler {
      type: "uniform"
      min: -0.08
      max: 0.08
    }
    bias_filler {
      type: "constant"
      value: 0
    }
  }
}
layer {
  name: "predict"
  type: "InnerProduct"
  bottom: "lstm2"
  top: "predict"
  param {
    lr_mult: 1
    decay_mult: 1
  }
  param {
    lr_mult: 2
    decay_mult: 0
  }
  inner_product_param {
    num_output: 46168
    weight_filler {
      type: "uniform"
      min: -0.08
      max: 0.08
    }
    bias_filler {
      type: "constant"
      value: 0
    }
    axis: 2
  }
}
layer {
  name: "probs"
  type: "Softmax"
  bottom: "predict"
  top: "probs"
  softmax_param {
    axis: 2
  }
}
I0924 04:12:28.176111 23152 layer_factory.hpp:77] Creating layer input
I0924 04:12:28.176141 23152 net.cpp:91] Creating Layer input
I0924 04:12:28.176141 23106 layer_factory.hpp:77] Creating layer input
I0924 04:12:28.176148 23152 net.cpp:399] input -> frames_fc7
I0924 04:12:28.176158 23106 net.cpp:91] Creating Layer input
I0924 04:12:28.176165 23152 net.cpp:399] input -> cont_sentence
I0924 04:12:28.176167 23106 net.cpp:399] input -> frames_fc7
I0924 04:12:28.176177 23152 net.cpp:399] input -> input_sentence
I0924 04:12:28.176180 23106 net.cpp:399] input -> cont_sentence
I0924 04:12:28.176187 23152 net.cpp:399] input -> stage_indicator
I0924 04:12:28.176192 23106 net.cpp:399] input -> input_sentence
I0924 04:12:28.176201 23106 net.cpp:399] input -> stage_indicator
I0924 04:12:28.176726 23102 net.cpp:141] Setting up input
I0924 04:12:28.176740 23102 net.cpp:148] Top shape: 1 4096 (4096)
I0924 04:12:28.176748 23102 net.cpp:148] Top shape: 1 1 (1)
I0924 04:12:28.176753 23102 net.cpp:148] Top shape: 1 1 (1)
I0924 04:12:28.176759 23102 net.cpp:148] Top shape: 1 1 (1)
I0924 04:12:28.176762 23102 net.cpp:156] Memory required for data: 16396
I0924 04:12:28.176767 23102 layer_factory.hpp:77] Creating layer cont_sentence_input_1_split
I0924 04:12:28.176779 23102 net.cpp:91] Creating Layer cont_sentence_input_1_split
I0924 04:12:28.176785 23102 net.cpp:425] cont_sentence_input_1_split <- cont_sentence
I0924 04:12:28.176794 23102 net.cpp:399] cont_sentence_input_1_split -> cont_sentence_input_1_split_0
I0924 04:12:28.176803 23102 net.cpp:399] cont_sentence_input_1_split -> cont_sentence_input_1_split_1
I0924 04:12:28.176945 23110 net.cpp:141] Setting up cont_sentence_input_1_split
I0924 04:12:28.176959 23110 net.cpp:148] Top shape: 1 1 (1)
I0924 04:12:28.176965 23110 net.cpp:148] Top shape: 1 1 (1)
I0924 04:12:28.176970 23110 net.cpp:156] Memory required for data: 16404
I0924 04:12:28.176975 23110 layer_factory.hpp:77] Creating layer embed_encoder
I0924 04:12:28.176985 23110 net.cpp:91] Creating Layer embed_encoder
I0924 04:12:28.176991 23110 net.cpp:425] embed_encoder <- frames_fc7
I0924 04:12:28.176995 23132 net.cpp:141] Setting up cont_sentence_input_1_split
I0924 04:12:28.177000 23110 net.cpp:399] embed_encoder -> embedded_in_frames
I0924 04:12:28.177007 23132 net.cpp:148] Top shape: 1 1 (1)
I0924 04:12:28.177014 23132 net.cpp:148] Top shape: 1 1 (1)
I0924 04:12:28.177019 23132 net.cpp:156] Memory required for data: 16404
I0924 04:12:28.177024 23132 layer_factory.hpp:77] Creating layer embed_encoder
I0924 04:12:28.177034 23132 net.cpp:91] Creating Layer embed_encoder
I0924 04:12:28.177040 23132 net.cpp:425] embed_encoder <- frames_fc7
I0924 04:12:28.177049 23132 net.cpp:399] embed_encoder -> embedded_in_frames
I0924 04:12:28.177204 23106 net.cpp:141] Setting up input
I0924 04:12:28.177222 23106 net.cpp:148] Top shape: 1 4096 (4096)
I0924 04:12:28.177233 23106 net.cpp:148] Top shape: 1 1 (1)
I0924 04:12:28.177243 23106 net.cpp:148] Top shape: 1 1 (1)
I0924 04:12:28.177250 23106 net.cpp:148] Top shape: 1 1 (1)
I0924 04:12:28.177254 23106 net.cpp:156] Memory required for data: 16396
I0924 04:12:28.177259 23106 layer_factory.hpp:77] Creating layer cont_sentence_input_1_split
I0924 04:12:28.177268 23106 net.cpp:91] Creating Layer cont_sentence_input_1_split
I0924 04:12:28.177273 23106 net.cpp:425] cont_sentence_input_1_split <- cont_sentence
I0924 04:12:28.177274 23138 net.cpp:141] Setting up input
I0924 04:12:28.177281 23106 net.cpp:399] cont_sentence_input_1_split -> cont_sentence_input_1_split_0
I0924 04:12:28.177287 23138 net.cpp:148] Top shape: 1 4096 (4096)
I0924 04:12:28.177292 23106 net.cpp:399] cont_sentence_input_1_split -> cont_sentence_input_1_split_1
I0924 04:12:28.177294 23138 net.cpp:148] Top shape: 1 1 (1)
I0924 04:12:28.177304 23138 net.cpp:148] Top shape: 1 1 (1)
I0924 04:12:28.177314 23138 net.cpp:148] Top shape: 1 1 (1)
I0924 04:12:28.177321 23138 net.cpp:156] Memory required for data: 16396
I0924 04:12:28.177330 23138 layer_factory.hpp:77] Creating layer cont_sentence_input_1_split
I0924 04:12:28.177342 23138 net.cpp:91] Creating Layer cont_sentence_input_1_split
I0924 04:12:28.177352 23138 net.cpp:425] cont_sentence_input_1_split <- cont_sentence
I0924 04:12:28.177364 23138 net.cpp:399] cont_sentence_input_1_split -> cont_sentence_input_1_split_0
I0924 04:12:28.177377 23138 net.cpp:399] cont_sentence_input_1_split -> cont_sentence_input_1_split_1
I0924 04:12:28.181552 23125 net.cpp:141] Setting up input
I0924 04:12:28.181591 23125 net.cpp:148] Top shape: 1 4096 (4096)
I0924 04:12:28.181603 23125 net.cpp:148] Top shape: 1 1 (1)
I0924 04:12:28.181614 23125 net.cpp:148] Top shape: 1 1 (1)
I0924 04:12:28.181612 23160 net.cpp:141] Setting up cont_sentence_input_1_split
I0924 04:12:28.181624 23125 net.cpp:148] Top shape: 1 1 (1)
I0924 04:12:28.181632 23125 net.cpp:156] Memory required for data: 16396
I0924 04:12:28.181635 23160 net.cpp:148] Top shape: 1 1 (1)
I0924 04:12:28.181641 23125 layer_factory.hpp:77] Creating layer cont_sentence_input_1_split
I0924 04:12:28.181650 23160 net.cpp:148] Top shape: 1 1 (1)
I0924 04:12:28.181660 23160 net.cpp:156] Memory required for data: 16404
I0924 04:12:28.181663 23125 net.cpp:91] Creating Layer cont_sentence_input_1_split
I0924 04:12:28.181670 23160 layer_factory.hpp:77] Creating layer embed_encoder
I0924 04:12:28.181674 23125 net.cpp:425] cont_sentence_input_1_split <- cont_sentence
I0924 04:12:28.181699 23125 net.cpp:399] cont_sentence_input_1_split -> cont_sentence_input_1_split_0
I0924 04:12:28.181720 23125 net.cpp:399] cont_sentence_input_1_split -> cont_sentence_input_1_split_1
I0924 04:12:28.181722 23160 net.cpp:91] Creating Layer embed_encoder
I0924 04:12:28.181748 23160 net.cpp:425] embed_encoder <- frames_fc7
I0924 04:12:28.181764 23160 net.cpp:399] embed_encoder -> embedded_in_frames
I0924 04:12:28.186306 23152 net.cpp:141] Setting up input
I0924 04:12:28.186336 23152 net.cpp:148] Top shape: 1 4096 (4096)
I0924 04:12:28.186348 23152 net.cpp:148] Top shape: 1 1 (1)
I0924 04:12:28.186358 23152 net.cpp:148] Top shape: 1 1 (1)
I0924 04:12:28.186368 23152 net.cpp:148] Top shape: 1 1 (1)
I0924 04:12:28.186377 23152 net.cpp:156] Memory required for data: 16396
I0924 04:12:28.186385 23152 layer_factory.hpp:77] Creating layer cont_sentence_input_1_split
I0924 04:12:28.186405 23152 net.cpp:91] Creating Layer cont_sentence_input_1_split
I0924 04:12:28.186414 23152 net.cpp:425] cont_sentence_input_1_split <- cont_sentence
I0924 04:12:28.186427 23152 net.cpp:399] cont_sentence_input_1_split -> cont_sentence_input_1_split_0
I0924 04:12:28.186447 23152 net.cpp:399] cont_sentence_input_1_split -> cont_sentence_input_1_split_1
I0924 04:12:28.186530 23102 net.cpp:141] Setting up cont_sentence_input_1_split
I0924 04:12:28.186573 23164 net.cpp:141] Setting up input
I0924 04:12:28.186609 23102 net.cpp:148] Top shape: 1 1 (1)
I0924 04:12:28.186619 23164 net.cpp:148] Top shape: 1 4096 (4096)
I0924 04:12:28.186632 23164 net.cpp:148] Top shape: 1 1 (1)
I0924 04:12:28.186633 23102 net.cpp:148] Top shape: 1 1 (1)
I0924 04:12:28.186643 23164 net.cpp:148] Top shape: 1 1 (1)
I0924 04:12:28.186648 23102 net.cpp:156] Memory required for data: 16404
I0924 04:12:28.186655 23164 net.cpp:148] Top shape: 1 1 (1)
I0924 04:12:28.186663 23164 net.cpp:156] Memory required for data: 16396
I0924 04:12:28.186666 23102 layer_factory.hpp:77] Creating layer embed_encoder
I0924 04:12:28.186673 23164 layer_factory.hpp:77] Creating layer cont_sentence_input_1_split
I0924 04:12:28.186694 23164 net.cpp:91] Creating Layer cont_sentence_input_1_split
I0924 04:12:28.186705 23164 net.cpp:425] cont_sentence_input_1_split <- cont_sentence
I0924 04:12:28.186705 23102 net.cpp:91] Creating Layer embed_encoder
I0924 04:12:28.186728 23102 net.cpp:425] embed_encoder <- frames_fc7
I0924 04:12:28.186719 23106 net.cpp:141] Setting up cont_sentence_input_1_split
I0924 04:12:28.186720 23164 net.cpp:399] cont_sentence_input_1_split -> cont_sentence_input_1_split_0
I0924 04:12:28.186756 23102 net.cpp:399] embed_encoder -> embedded_in_frames
I0924 04:12:28.186766 23106 net.cpp:148] Top shape: 1 1 (1)
I0924 04:12:28.186770 23164 net.cpp:399] cont_sentence_input_1_split -> cont_sentence_input_1_split_1
I0924 04:12:28.186780 23106 net.cpp:148] Top shape: 1 1 (1)
I0924 04:12:28.186789 23106 net.cpp:156] Memory required for data: 16404
I0924 04:12:28.186800 23106 layer_factory.hpp:77] Creating layer embed_encoder
I0924 04:12:28.186815 23138 net.cpp:141] Setting up cont_sentence_input_1_split
I0924 04:12:28.186846 23138 net.cpp:148] Top shape: 1 1 (1)
I0924 04:12:28.186857 23138 net.cpp:148] Top shape: 1 1 (1)
I0924 04:12:28.186868 23138 net.cpp:156] Memory required for data: 16404
I0924 04:12:28.186877 23138 layer_factory.hpp:77] Creating layer embed_encoder
I0924 04:12:28.186900 23138 net.cpp:91] Creating Layer embed_encoder
I0924 04:12:28.186910 23138 net.cpp:425] embed_encoder <- frames_fc7
I0924 04:12:28.186821 23106 net.cpp:91] Creating Layer embed_encoder
I0924 04:12:28.186928 23138 net.cpp:399] embed_encoder -> embedded_in_frames
I0924 04:12:28.186931 23106 net.cpp:425] embed_encoder <- frames_fc7
I0924 04:12:28.186967 23106 net.cpp:399] embed_encoder -> embedded_in_frames
I0924 04:12:28.193123 23152 net.cpp:141] Setting up cont_sentence_input_1_split
I0924 04:12:28.193143 23152 net.cpp:148] Top shape: 1 1 (1)
I0924 04:12:28.193150 23152 net.cpp:148] Top shape: 1 1 (1)
I0924 04:12:28.193155 23152 net.cpp:156] Memory required for data: 16404
I0924 04:12:28.193159 23152 layer_factory.hpp:77] Creating layer embed_encoder
I0924 04:12:28.193176 23152 net.cpp:91] Creating Layer embed_encoder
I0924 04:12:28.193182 23152 net.cpp:425] embed_encoder <- frames_fc7
I0924 04:12:28.193194 23152 net.cpp:399] embed_encoder -> embedded_in_frames
I0924 04:12:28.193193 23164 net.cpp:141] Setting up cont_sentence_input_1_split
I0924 04:12:28.193213 23164 net.cpp:148] Top shape: 1 1 (1)
I0924 04:12:28.193219 23164 net.cpp:148] Top shape: 1 1 (1)
I0924 04:12:28.193224 23164 net.cpp:156] Memory required for data: 16404
I0924 04:12:28.193229 23164 layer_factory.hpp:77] Creating layer embed_encoder
I0924 04:12:28.193244 23164 net.cpp:91] Creating Layer embed_encoder
I0924 04:12:28.193250 23164 net.cpp:425] embed_encoder <- frames_fc7
I0924 04:12:28.193259 23164 net.cpp:399] embed_encoder -> embedded_in_frames
I0924 04:12:28.193300 23125 net.cpp:141] Setting up cont_sentence_input_1_split
I0924 04:12:28.193343 23125 net.cpp:148] Top shape: 1 1 (1)
I0924 04:12:28.193351 23125 net.cpp:148] Top shape: 1 1 (1)
I0924 04:12:28.193356 23125 net.cpp:156] Memory required for data: 16404
I0924 04:12:28.193363 23125 layer_factory.hpp:77] Creating layer embed_encoder
I0924 04:12:28.193387 23125 net.cpp:91] Creating Layer embed_encoder
I0924 04:12:28.193393 23125 net.cpp:425] embed_encoder <- frames_fc7
I0924 04:12:28.193405 23125 net.cpp:399] embed_encoder -> embedded_in_frames
I0924 04:12:28.221107 23132 net.cpp:141] Setting up embed_encoder
I0924 04:12:28.221155 23132 net.cpp:148] Top shape: 1 500 (500)
I0924 04:12:28.221163 23132 net.cpp:156] Memory required for data: 18404
I0924 04:12:28.221194 23132 layer_factory.hpp:77] Creating layer reshape_frames
I0924 04:12:28.221222 23132 net.cpp:91] Creating Layer reshape_frames
I0924 04:12:28.221232 23132 net.cpp:425] reshape_frames <- embedded_in_frames
I0924 04:12:28.221249 23132 net.cpp:399] reshape_frames -> embedded_input_frames
I0924 04:12:28.221432 23114 net.cpp:141] Setting up embed_encoder
I0924 04:12:28.221465 23114 net.cpp:148] Top shape: 1 500 (500)
I0924 04:12:28.221479 23114 net.cpp:156] Memory required for data: 18404
I0924 04:12:28.221515 23114 layer_factory.hpp:77] Creating layer reshape_frames
I0924 04:12:28.221521 23160 net.cpp:141] Setting up embed_encoder
I0924 04:12:28.221544 23114 net.cpp:91] Creating Layer reshape_frames
I0924 04:12:28.221544 23160 net.cpp:148] Top shape: 1 500 (500)
I0924 04:12:28.221577 23160 net.cpp:156] Memory required for data: 18404
I0924 04:12:28.221575 23114 net.cpp:425] reshape_frames <- embedded_in_frames
I0924 04:12:28.221607 23160 layer_factory.hpp:77] Creating layer reshape_frames
I0924 04:12:28.221618 23114 net.cpp:399] reshape_frames -> embedded_input_frames
I0924 04:12:28.221629 23160 net.cpp:91] Creating Layer reshape_frames
I0924 04:12:28.221640 23160 net.cpp:425] reshape_frames <- embedded_in_frames
I0924 04:12:28.221653 23160 net.cpp:399] reshape_frames -> embedded_input_frames
I0924 04:12:28.221668 23132 net.cpp:141] Setting up reshape_frames
I0924 04:12:28.221683 23132 net.cpp:148] Top shape: 1 1 500 (500)
I0924 04:12:28.221690 23132 net.cpp:156] Memory required for data: 20404
I0924 04:12:28.221698 23132 layer_factory.hpp:77] Creating layer reshape_stage_indicator
I0924 04:12:28.221714 23132 net.cpp:91] Creating Layer reshape_stage_indicator
I0924 04:12:28.221724 23132 net.cpp:425] reshape_stage_indicator <- stage_indicator
I0924 04:12:28.221727 23114 net.cpp:141] Setting up reshape_frames
I0924 04:12:28.221735 23132 net.cpp:399] reshape_stage_indicator -> reshaped_stage_indicator
I0924 04:12:28.221743 23114 net.cpp:148] Top shape: 1 1 500 (500)
I0924 04:12:28.221751 23114 net.cpp:156] Memory required for data: 20404
I0924 04:12:28.221758 23114 layer_factory.hpp:77] Creating layer reshape_stage_indicator
I0924 04:12:28.221773 23114 net.cpp:91] Creating Layer reshape_stage_indicator
I0924 04:12:28.221782 23114 net.cpp:425] reshape_stage_indicator <- stage_indicator
I0924 04:12:28.221794 23114 net.cpp:399] reshape_stage_indicator -> reshaped_stage_indicator
I0924 04:12:28.221832 23164 net.cpp:141] Setting up embed_encoder
I0924 04:12:28.221868 23164 net.cpp:148] Top shape: 1 500 (500)
I0924 04:12:28.221873 23164 net.cpp:156] Memory required for data: 18404
I0924 04:12:28.221873 23114 net.cpp:141] Setting up reshape_stage_indicator
I0924 04:12:28.221889 23114 net.cpp:148] Top shape: 1 1 1 (1)
I0924 04:12:28.221894 23164 layer_factory.hpp:77] Creating layer reshape_frames
I0924 04:12:28.221897 23114 net.cpp:156] Memory required for data: 20408
I0924 04:12:28.221906 23114 layer_factory.hpp:77] Creating layer embedding
I0924 04:12:28.221915 23164 net.cpp:91] Creating Layer reshape_frames
I0924 04:12:28.221922 23114 net.cpp:91] Creating Layer embedding
I0924 04:12:28.221925 23164 net.cpp:425] reshape_frames <- embedded_in_frames
I0924 04:12:28.221935 23114 net.cpp:425] embedding <- input_sentence
I0924 04:12:28.221947 23164 net.cpp:399] reshape_frames -> embedded_input_frames
I0924 04:12:28.221949 23114 net.cpp:399] embedding -> embedded_input_sentence
I0924 04:12:28.221961 23160 net.cpp:141] Setting up reshape_frames
I0924 04:12:28.221977 23160 net.cpp:148] Top shape: 1 1 500 (500)
I0924 04:12:28.221985 23160 net.cpp:156] Memory required for data: 20404
I0924 04:12:28.221993 23160 layer_factory.hpp:77] Creating layer reshape_stage_indicator
I0924 04:12:28.221999 23132 net.cpp:141] Setting up reshape_stage_indicator
I0924 04:12:28.222007 23160 net.cpp:91] Creating Layer reshape_stage_indicator
I0924 04:12:28.222014 23132 net.cpp:148] Top shape: 1 1 1 (1)
I0924 04:12:28.222015 23160 net.cpp:425] reshape_stage_indicator <- stage_indicator
I0924 04:12:28.222028 23132 net.cpp:156] Memory required for data: 20408
I0924 04:12:28.222035 23132 layer_factory.hpp:77] Creating layer embedding
I0924 04:12:28.222038 23160 net.cpp:399] reshape_stage_indicator -> reshaped_stage_indicator
I0924 04:12:28.222038 23110 net.cpp:141] Setting up embed_encoder
I0924 04:12:28.222053 23132 net.cpp:91] Creating Layer embedding
I0924 04:12:28.222060 23110 net.cpp:148] Top shape: 1 500 (500)
I0924 04:12:28.222060 23132 net.cpp:425] embedding <- input_sentence
I0924 04:12:28.222074 23110 net.cpp:156] Memory required for data: 18404
I0924 04:12:28.222084 23164 net.cpp:141] Setting up reshape_frames
I0924 04:12:28.222084 23132 net.cpp:399] embedding -> embedded_input_sentence
I0924 04:12:28.222101 23164 net.cpp:148] Top shape: 1 1 500 (500)
I0924 04:12:28.222106 23164 net.cpp:156] Memory required for data: 20404
I0924 04:12:28.222115 23164 layer_factory.hpp:77] Creating layer reshape_stage_indicator
I0924 04:12:28.222095 23110 layer_factory.hpp:77] Creating layer reshape_frames
I0924 04:12:28.222131 23164 net.cpp:91] Creating Layer reshape_stage_indicator
I0924 04:12:28.222136 23164 net.cpp:425] reshape_stage_indicator <- stage_indicator
I0924 04:12:28.222141 23110 net.cpp:91] Creating Layer reshape_frames
I0924 04:12:28.222151 23164 net.cpp:399] reshape_stage_indicator -> reshaped_stage_indicator
I0924 04:12:28.222154 23110 net.cpp:425] reshape_frames <- embedded_in_frames
I0924 04:12:28.222168 23110 net.cpp:399] reshape_frames -> embedded_input_frames
I0924 04:12:28.222188 23160 net.cpp:141] Setting up reshape_stage_indicator
I0924 04:12:28.222203 23160 net.cpp:148] Top shape: 1 1 1 (1)
I0924 04:12:28.222211 23160 net.cpp:156] Memory required for data: 20408
I0924 04:12:28.222218 23160 layer_factory.hpp:77] Creating layer embedding
I0924 04:12:28.222239 23160 net.cpp:91] Creating Layer embedding
I0924 04:12:28.222249 23160 net.cpp:425] embedding <- input_sentence
I0924 04:12:28.222260 23160 net.cpp:399] embedding -> embedded_input_sentence
I0924 04:12:28.267202 23164 net.cpp:141] Setting up reshape_stage_indicator
I0924 04:12:28.267241 23110 net.cpp:141] Setting up reshape_frames
I0924 04:12:28.267264 23164 net.cpp:148] Top shape: 1 1 1 (1)
I0924 04:12:28.267268 23110 net.cpp:148] Top shape: 1 1 500 (500)
I0924 04:12:28.267277 23164 net.cpp:156] Memory required for data: 20408
I0924 04:12:28.267282 23110 net.cpp:156] Memory required for data: 20404
I0924 04:12:28.267295 23164 layer_factory.hpp:77] Creating layer embedding
I0924 04:12:28.267298 23110 layer_factory.hpp:77] Creating layer reshape_stage_indicator
I0924 04:12:28.267328 23164 net.cpp:91] Creating Layer embedding
I0924 04:12:28.267343 23164 net.cpp:425] embedding <- input_sentence
I0924 04:12:28.269425 23110 net.cpp:91] Creating Layer reshape_stage_indicator
I0924 04:12:28.269414 23164 net.cpp:399] embedding -> embedded_input_sentence
I0924 04:12:28.269469 23110 net.cpp:425] reshape_stage_indicator <- stage_indicator
I0924 04:12:28.269497 23110 net.cpp:399] reshape_stage_indicator -> reshaped_stage_indicator
I0924 04:12:28.314092 23110 net.cpp:141] Setting up reshape_stage_indicator
I0924 04:12:28.314148 23110 net.cpp:148] Top shape: 1 1 1 (1)
I0924 04:12:28.314157 23110 net.cpp:156] Memory required for data: 20408
I0924 04:12:28.314170 23110 layer_factory.hpp:77] Creating layer embedding
I0924 04:12:28.314199 23110 net.cpp:91] Creating Layer embedding
I0924 04:12:28.314211 23110 net.cpp:425] embedding <- input_sentence
I0924 04:12:28.314232 23110 net.cpp:399] embedding -> embedded_input_sentence
I0924 04:12:28.396131 23102 net.cpp:141] Setting up embed_encoder
I0924 04:12:28.396188 23102 net.cpp:148] Top shape: 1 500 (500)
I0924 04:12:28.396199 23102 net.cpp:156] Memory required for data: 18404
I0924 04:12:28.396229 23102 layer_factory.hpp:77] Creating layer reshape_frames
I0924 04:12:28.396258 23102 net.cpp:91] Creating Layer reshape_frames
I0924 04:12:28.396271 23102 net.cpp:425] reshape_frames <- embedded_in_frames
I0924 04:12:28.396287 23102 net.cpp:399] reshape_frames -> embedded_input_frames
I0924 04:12:28.396358 23102 net.cpp:141] Setting up reshape_frames
I0924 04:12:28.396373 23102 net.cpp:148] Top shape: 1 1 500 (500)
I0924 04:12:28.396380 23102 net.cpp:156] Memory required for data: 20404
I0924 04:12:28.396389 23102 layer_factory.hpp:77] Creating layer reshape_stage_indicator
I0924 04:12:28.396404 23102 net.cpp:91] Creating Layer reshape_stage_indicator
I0924 04:12:28.396414 23102 net.cpp:425] reshape_stage_indicator <- stage_indicator
I0924 04:12:28.396428 23102 net.cpp:399] reshape_stage_indicator -> reshaped_stage_indicator
I0924 04:12:28.396486 23102 net.cpp:141] Setting up reshape_stage_indicator
I0924 04:12:28.396503 23102 net.cpp:148] Top shape: 1 1 1 (1)
I0924 04:12:28.396512 23102 net.cpp:156] Memory required for data: 20408
I0924 04:12:28.398644 23102 layer_factory.hpp:77] Creating layer embedding
I0924 04:12:28.398679 23102 net.cpp:91] Creating Layer embedding
I0924 04:12:28.398689 23102 net.cpp:425] embedding <- input_sentence
I0924 04:12:28.398711 23102 net.cpp:399] embedding -> embedded_input_sentence
I0924 04:12:28.399140 23106 net.cpp:141] Setting up embed_encoder
I0924 04:12:28.399179 23106 net.cpp:148] Top shape: 1 500 (500)
I0924 04:12:28.399193 23106 net.cpp:156] Memory required for data: 18404
I0924 04:12:28.399233 23106 layer_factory.hpp:77] Creating layer reshape_frames
I0924 04:12:28.399262 23106 net.cpp:91] Creating Layer reshape_frames
I0924 04:12:28.399282 23106 net.cpp:425] reshape_frames <- embedded_in_frames
I0924 04:12:28.399307 23106 net.cpp:399] reshape_frames -> embedded_input_frames
I0924 04:12:28.399407 23106 net.cpp:141] Setting up reshape_frames
I0924 04:12:28.399430 23106 net.cpp:148] Top shape: 1 1 500 (500)
I0924 04:12:28.399441 23106 net.cpp:156] Memory required for data: 20404
I0924 04:12:28.399456 23106 layer_factory.hpp:77] Creating layer reshape_stage_indicator
I0924 04:12:28.399482 23106 net.cpp:91] Creating Layer reshape_stage_indicator
I0924 04:12:28.399494 23106 net.cpp:425] reshape_stage_indicator <- stage_indicator
I0924 04:12:28.399518 23106 net.cpp:399] reshape_stage_indicator -> reshaped_stage_indicator
I0924 04:12:28.399607 23106 net.cpp:141] Setting up reshape_stage_indicator
I0924 04:12:28.399633 23106 net.cpp:148] Top shape: 1 1 1 (1)
I0924 04:12:28.399646 23106 net.cpp:156] Memory required for data: 20408
I0924 04:12:28.399659 23106 layer_factory.hpp:77] Creating layer embedding
I0924 04:12:28.399679 23106 net.cpp:91] Creating Layer embedding
I0924 04:12:28.399696 23106 net.cpp:425] embedding <- input_sentence
I0924 04:12:28.399718 23106 net.cpp:399] embedding -> embedded_input_sentence
I0924 04:12:28.499634 23138 net.cpp:141] Setting up embed_encoder
I0924 04:12:28.499696 23138 net.cpp:148] Top shape: 1 500 (500)
I0924 04:12:28.499704 23138 net.cpp:156] Memory required for data: 18404
I0924 04:12:28.499737 23138 layer_factory.hpp:77] Creating layer reshape_frames
I0924 04:12:28.499783 23138 net.cpp:91] Creating Layer reshape_frames
I0924 04:12:28.499800 23138 net.cpp:425] reshape_frames <- embedded_in_frames
I0924 04:12:28.499819 23138 net.cpp:399] reshape_frames -> embedded_input_frames
I0924 04:12:28.502357 23138 net.cpp:141] Setting up reshape_frames
I0924 04:12:28.502401 23138 net.cpp:148] Top shape: 1 1 500 (500)
I0924 04:12:28.502413 23138 net.cpp:156] Memory required for data: 20404
I0924 04:12:28.502429 23138 layer_factory.hpp:77] Creating layer reshape_stage_indicator
I0924 04:12:28.502454 23138 net.cpp:91] Creating Layer reshape_stage_indicator
I0924 04:12:28.502470 23138 net.cpp:425] reshape_stage_indicator <- stage_indicator
I0924 04:12:28.502485 23138 net.cpp:399] reshape_stage_indicator -> reshaped_stage_indicator
I0924 04:12:28.502566 23138 net.cpp:141] Setting up reshape_stage_indicator
I0924 04:12:28.502588 23138 net.cpp:148] Top shape: 1 1 1 (1)
I0924 04:12:28.503351 23152 net.cpp:141] Setting up embed_encoder
I0924 04:12:28.503402 23152 net.cpp:148] Top shape: 1 500 (500)
I0924 04:12:28.503409 23152 net.cpp:156] Memory required for data: 18404
I0924 04:12:28.505053 23152 layer_factory.hpp:77] Creating layer reshape_frames
I0924 04:12:28.505148 23152 net.cpp:91] Creating Layer reshape_frames
I0924 04:12:28.505182 23152 net.cpp:425] reshape_frames <- embedded_in_frames
I0924 04:12:28.505203 23152 net.cpp:399] reshape_frames -> embedded_input_frames
I0924 04:12:28.505342 23152 net.cpp:141] Setting up reshape_frames
I0924 04:12:28.505365 23152 net.cpp:148] Top shape: 1 1 500 (500)
I0924 04:12:28.505376 23152 net.cpp:156] Memory required for data: 20404
I0924 04:12:28.505385 23152 layer_factory.hpp:77] Creating layer reshape_stage_indicator
I0924 04:12:28.505400 23152 net.cpp:91] Creating Layer reshape_stage_indicator
I0924 04:12:28.505409 23152 net.cpp:425] reshape_stage_indicator <- stage_indicator
I0924 04:12:28.505429 23152 net.cpp:399] reshape_stage_indicator -> reshaped_stage_indicator
I0924 04:12:28.505497 23152 net.cpp:141] Setting up reshape_stage_indicator
I0924 04:12:28.505516 23152 net.cpp:148] Top shape: 1 1 1 (1)
I0924 04:12:28.505523 23152 net.cpp:156] Memory required for data: 20408
I0924 04:12:28.505530 23152 layer_factory.hpp:77] Creating layer embedding
I0924 04:12:28.505548 23152 net.cpp:91] Creating Layer embedding
I0924 04:12:28.505556 23152 net.cpp:425] embedding <- input_sentence
I0924 04:12:28.505574 23152 net.cpp:399] embedding -> embedded_input_sentence
I0924 04:12:28.514986 23138 net.cpp:156] Memory required for data: 20408
I0924 04:12:28.515038 23138 layer_factory.hpp:77] Creating layer embedding
I0924 04:12:28.515069 23138 net.cpp:91] Creating Layer embedding
I0924 04:12:28.515080 23138 net.cpp:425] embedding <- input_sentence
I0924 04:12:28.515099 23138 net.cpp:399] embedding -> embedded_input_sentence
I0924 04:12:28.935103 23114 net.cpp:141] Setting up embedding
I0924 04:12:28.935158 23114 net.cpp:148] Top shape: 1 1 500 (500)
I0924 04:12:28.935168 23114 net.cpp:156] Memory required for data: 22408
I0924 04:12:28.935164 23132 net.cpp:141] Setting up embedding
I0924 04:12:28.935187 23132 net.cpp:148] Top shape: 1 1 500 (500)
I0924 04:12:28.935192 23114 layer_factory.hpp:77] Creating layer lstm1
I0924 04:12:28.935195 23132 net.cpp:156] Memory required for data: 22408
I0924 04:12:28.935212 23132 layer_factory.hpp:77] Creating layer lstm1
I0924 04:12:28.935217 23114 net.cpp:91] Creating Layer lstm1
I0924 04:12:28.935228 23114 net.cpp:425] lstm1 <- embedded_input_frames
I0924 04:12:28.935231 23132 net.cpp:91] Creating Layer lstm1
I0924 04:12:28.935240 23114 net.cpp:425] lstm1 <- cont_sentence_input_1_split_0
I0924 04:12:28.935241 23132 net.cpp:425] lstm1 <- embedded_input_frames
I0924 04:12:28.935253 23132 net.cpp:425] lstm1 <- cont_sentence_input_1_split_0
I0924 04:12:28.935255 23114 net.cpp:399] lstm1 -> lstm1
I0924 04:12:28.935271 23132 net.cpp:399] lstm1 -> lstm1
I0924 04:12:28.935317 23114 recurrent_layer.cpp:20] Initializing recurrent layer: assuming input batch contains 1 timesteps of 1 independent streams.
I0924 04:12:28.935317 23132 recurrent_layer.cpp:20] Initializing recurrent layer: assuming input batch contains 1 timesteps of 1 independent streams.
I0924 04:12:28.937827 23106 net.cpp:141] Setting up embedding
I0924 04:12:28.937863 23106 net.cpp:148] Top shape: 1 1 500 (500)
I0924 04:12:28.937861 23125 net.cpp:141] Setting up embed_encoder
I0924 04:12:28.937881 23106 net.cpp:156] Memory required for data: 22408
I0924 04:12:28.937891 23125 net.cpp:148] Top shape: 1 500 (500)
I0924 04:12:28.937898 23125 net.cpp:156] Memory required for data: 18404
I0924 04:12:28.937908 23106 layer_factory.hpp:77] Creating layer lstm1
I0924 04:12:28.937917 23125 layer_factory.hpp:77] Creating layer reshape_frames
I0924 04:12:28.946738 23106 net.cpp:91] Creating Layer lstm1
I0924 04:12:28.946738 23125 net.cpp:91] Creating Layer reshape_frames
I0924 04:12:28.946738 23152 net.cpp:141] Setting up embedding
I0924 04:12:28.946826 23160 net.cpp:141] Setting up embedding
I0924 04:12:28.946797 23125 net.cpp:425] reshape_frames <- embedded_in_frames
I0924 04:12:28.946843 23152 net.cpp:148] Top shape: 1 1 500 (500)
I0924 04:12:28.946857 23160 net.cpp:148] Top shape: 1 1 500 (500)
I0924 04:12:28.946867 23160 net.cpp:156] Memory required for data: 22408
I0924 04:12:28.946877 23125 net.cpp:399] reshape_frames -> embedded_input_frames
I0924 04:12:28.946864 23152 net.cpp:156] Memory required for data: 22408
I0924 04:12:28.946899 23160 layer_factory.hpp:77] Creating layer lstm1
I0924 04:12:28.946918 23160 net.cpp:91] Creating Layer lstm1
I0924 04:12:28.946921 23152 layer_factory.hpp:77] Creating layer lstm1
…
I0924 04:12:28.947119 23152 recurrent_layer.cpp:20] Initializing recurrent layer: assuming input batch contains 1 timesteps of 1 independent streams.
I0924 04:12:28.947242 23132 net.cpp:49] Initializing net from parameters: 
layer {
  name: "lstm1_"
  type: "Input"
  top: "x"
  top: "cont"
  input_param {
    shape {
      dim: 1
      dim: 1
      dim: 500
    }
    shape {
      dim: 1
      dim: 1
    }
  }
}
layer {
  name: "lstm1_"
  type: "Input"
  top: "c_0"
  top: "h_0"
  input_param {
    shape {
      dim: 1
      dim: 1
      dim: 1000
    }
    shape {
      dim: 1
      dim: 1
      dim: 1000
    }
  }
}
layer {
  name: "lstm1_cont_slice"
  type: "Slice"
  bottom: "cont"
  top: "cont_1"
  slice_param {
    axis: 0
  }
}
layer {
  name: "lstm1_x_transform"
  type: "InnerProduct"
  bottom: "x"
  top: "W_xc_x"
  param {
    name: "W_xc"
  }
  param {
    name: "b_c"
  }
  propagate_down: true
  inner_product_param {
    num_output: 4000
    bias_term: true
    weight_filler {
      type: "uniform"
      min: -0.08
      max: 0.08
    }
    bias_filler {
      type: "constant"
      value: 0
    }
    axis: 2
  }
}
layer {
  name: "lstm1_W_xc_x_slice"
  type: "Slice"
  bottom: "W_xc_x"
  top: "W_xc_x_1"
  slice_param {
    axis: 0
  }
}
layer {
  name: "lstm1_h_conted_0"
  type: "Scale"
  bottom: "h_0"
  bottom: "cont_1"
  top: "h_conted_0"
  scale_param {
    axis: 0
  }
}
layer {
  name: "lstm1_transform_1"
  type: "InnerProduct"
  bottom: "h_conted_0"
  top: "W_hc_h_0"
  param {
    name: "W_hc"
  }
  inner_product_param {
    num_output: 4000
    bias_term: false
    weight_filler {
      type: "uniform"
      min: -0.08
      max: 0.08
    }
    axis: 2
  }
}
layer {
  name: "lstm1_gate_input_1"
  type: "Eltwise"
  bottom: "W_hc_h_0"
  bottom: "W_xc_x_1"
  top: "gate_input_1"
  eltwise_param {
    operation: SUM
  }
}
layer {
  name: "lstm1_unit_1"
  type: "LSTMUnit"
  bottom: "c_0"
  bottom: "gate_input_1"
  bottom: "cont_1"
  top: "c_1"
  top: "h_1"
}
layer {
  name: "lstm1_"
  type: "Split"
  bottom: "c_1"
  top: "c_T"
}
layer {
  name: "lstm1_h_concat"
  type: "Concat"
  bottom: "h_1"
  top: "h"
  concat_param {
    axis: 0
  }
}
layer {
  name: "h_pseudoloss"
  type: "Reduction"
  bottom: "h"
  top: "h_pseudoloss"
  loss_weight: 1
}
I0924 04:12:28.947347 23160 net.cpp:49] Initializing net from parameters: 
layer {
  name: "lstm1_"
  type: "Input"
  top: "x"
  top: "cont"
  input_param {
    shape {
      dim: 1
      dim: 1
      dim: 500
    }
    shape {
      dim: 1
      dim: 1
    }
  }
}
layer {
  name: "lstm1_"
  type: "Input"
  top: "c_0"
  top: "h_0"
  input_param {
    shape {
      dim: 1
      dim: 1
      dim: 1000
    }
    shape {
      dim: 1
      dim: 1
      dim: 1000
    }
  }
}
layer {
  name: "lstm1_cont_slice"
  type: "Slice"
  bottom: "cont"
  top: "cont_1"
  slice_param {
    axis: 0
  }
}
layer {
  name: "lstm1_x_transform"
  type: "InnerProduct"
  bottom: "x"
  top: "W_xc_x"
  param {
    name: "W_xc"
  }
  param {
    name: "b_c"
  }
  propagate_down: true
  inner_product_param {
    num_output: 4000
    bias_term: true
    weight_filler {
      type: "uniform"
      min: -0.08
      max: 0.08
    }
    bias_filler {
      type: "constant"
      value: 0
    }
    axis: 2
  }
}
layer {
  name: "lstm1_W_xc_x_slice"
  type: "Slice"
  bottom: "W_xc_x"
  top: "W_xc_x_1"
  slice_param {
    axis: 0
  }
}
layer {
  name: "lstm1_h_conted_0"
  type: "Scale"
  bottom: "h_0"
  bottom: "cont_1"
  top: "h_conted_0"
  scale_param {
    axis: 0
  }
}
layer {
  name: "lstm1_transform_1"
  type: "InnerProduct"
  bottom: "h_conted_0"
  top: "W_hc_h_0"
  param {
    name: "W_hc"
  }
  inner_product_param {
    num_output: 4000
    bias_term: false
    weight_filler {
      type: "uniform"
      min: -0.08
      max: 0.08
    }
    axis: 2
  }
}
layer {
  name: "lstm1_gate_input_1"
  type: "Eltwise"
  bottom: "W_hc_h_0"
  bottom: "W_xc_x_1"
  top: "gate_input_1"
  eltwise_param {
    operation: SUM
  }
}
layer {
  name: "lstm1_unit_1"
  type: "LSTMUnit"
  bottom: "c_0"
  bottom: "gate_input_1"
  bottom: "cont_1"
  top: "c_1"
  top: "h_1"
}
layer {
  name: "lstm1_"
  type: "Split"
  bottom: "c_1"
  top: "c_T"
}
layer {
  name: "lstm1_h_concat"
  type: "Concat"
  bottom: "h_1"
  top: "h"
  concat_param {
    axis: 0
  }
}
layer {
  name: "h_pseudoloss"
  type: "Reduction"
  bottom: "h"
  top: "h_pseudoloss"
  loss_weight: 1
}
I0924 04:12:28.947378 23132 layer_factory.hpp:77] Creating layer lstm1_
I0924 04:12:28.947397 23132 net.cpp:91] Creating Layer lstm1_
I0924 04:12:28.947407 23132 net.cpp:399] lstm1_ -> x
I0924 04:12:28.947424 23132 net.cpp:399] lstm1_ -> cont
I0924 04:12:28.947469 23160 layer_factory.hpp:77] Creating layer lstm1_
I0924 04:12:28.947487 23160 net.cpp:91] Creating Layer lstm1_
I0924 04:12:28.947499 23160 net.cpp:399] lstm1_ -> x
I0924 04:12:28.947515 23160 net.cpp:399] lstm1_ -> cont
I0924 04:12:28.947551 23114 net.cpp:49] Initializing net from parameters: 
layer {
  name: "lstm1_"
  type: "Input"
  top: "x"
  top: "cont"
  input_param {
    shape {
      dim: 1
      dim: 1
      dim: 500
    }
    shape {
      dim: 1
      dim: 1
    }
  }
}
layer {
  name: "lstm1_"
  type: "Input"
  top: "c_0"
  top: "h_0"
  input_param {
    shape {
      dim: 1
      dim: 1
      dim: 1000
    }
    shape {
      dim: 1
      dim: 1
      dim: 1000
    }
  }
}
layer {
  name: "lstm1_cont_slice"
  type: "Slice"
  bottom: "cont"
  top: "cont_1"
  slice_param {
    axis: 0
  }
}
layer {
  name: "lstm1_x_transform"
  type: "InnerProduct"
  bottom: "x"
  top: "W_xc_x"
  param {
    name: "W_xc"
  }
  param {
    name: "b_c"
  }
  propagate_down: true
  inner_product_param {
    num_output: 4000
    bias_term: true
    weight_filler {
      type: "uniform"
      min: -0.08
      max: 0.08
    }
    bias_filler {
      type: "constant"
      value: 0
    }
    axis: 2
  }
}
layer {
  name: "lstm1_W_xc_x_slice"
  type: "Slice"
  bottom: "W_xc_x"
  top: "W_xc_x_1"
  slice_param {
    axis: 0
  }
}
layer {
  name: "lstm1_h_conted_0"
  type: "Scale"
  bottom: "h_0"
  bottom: "cont_1"
  top: "h_conted_0"
  scale_param {
    axis: 0
  }
}
layer {
  name: "lstm1_transform_1"
  type: "InnerProduct"
  bottom: "h_conted_0"
  top: "W_hc_h_0"
  param {
    name: "W_hc"
  }
  inner_product_param {
    num_output: 4000
    bias_term: false
    weight_filler {
      type: "uniform"
      min: -0.08
      max: 0.08
    }
    axis: 2
  }
}
layer {
  name: "lstm1_gate_input_1"
  type: "Eltwise"
  bottom: "W_hc_h_0"
  bottom: "W_xc_x_1"
  top: "gate_input_1"
  eltwise_param {
    operation: SUM
  }
}
layer {
  name: "lstm1_unit_1"
  type: "LSTMUnit"
  bottom: "c_0"
  bottom: "gate_input_1"
  bottom: "cont_1"
  top: "c_1"
  top: "h_1"
}
layer {
  name: "lstm1_"
  type: "Split"
  bottom: "c_1"
  top: "c_T"
}
layer {
  name: "lstm1_h_concat"
  type: "Concat"
  bottom: "h_1"
  top: "h"
  concat_param {
    axis: 0
  }
}
layer {
  name: "h_pseudoloss"
  type: "Reduction"
  bottom: "h"
  top: "h_pseudoloss"
  loss_weight: 1
}
I0924 04:12:28.947633 23152 net.cpp:49] Initializing net from parameters: 
layer {
  name: "lstm1_"
  type: "Input"
  top: "x"
  top: "cont"
  input_param {
    shape {
      dim: 1
      dim: 1
      dim: 500
    }
    shape {
      dim: 1
      dim: 1
    }
  }
}
layer {
  name: "lstm1_"
  type: "Input"
  top: "c_0"
  top: "h_0"
  input_param {
    shape {
      dim: 1
      dim: 1
      dim: 1000
    }
    shape {
      dim: 1
      dim: 1
      dim: 1000
    }
  }
}
layer {
  name: "lstm1_cont_slice"
  type: "Slice"
  bottom: "cont"
  top: "cont_1"
  slice_param {
    axis: 0
  }
}
layer {
  name: "lstm1_x_transform"
  type: "InnerProduct"
  bottom: "x"
  top: "W_xc_x"
  param {
    name: "W_xc"
  }
  param {
    name: "b_c"
  }
  propagate_down: true
  inner_product_param {
    num_output: 4000
    bias_term: true
    weight_filler {
      type: "uniform"
      min: -0.08
      max: 0.08
    }
    bias_filler {
      type: "constant"
      value: 0
    }
    axis: 2
  }
}
layer {
  name: "lstm1_W_xc_x_slice"
  type: "Slice"
  bottom: "W_xc_x"
  top: "W_xc_x_1"
  slice_param {
    axis: 0
  }
}
layer {
  name: "lstm1_h_conted_0"
  type: "Scale"
  bottom: "h_0"
  bottom: "cont_1"
  top: "h_conted_0"
  scale_param {
    axis: 0
  }
}
layer {
  name: "lstm1_transform_1"
  type: "InnerProduct"
  bottom: "h_conted_0"
  top: "W_hc_h_0"
  param {
    name: "W_hc"
  }
  inner_product_param {
    num_output: 4000
    bias_term: false
    weight_filler {
      type: "uniform"
      min: -0.08
      max: 0.08
    }
    axis: 2
  }
}
layer {
  name: "lstm1_gate_input_1"
  type: "Eltwise"
  bottom: "W_hc_h_0"
  bottom: "W_xc_x_1"
  top: "gate_input_1"
  eltwise_param {
    operation: SUM
  }
}
layer {
  name: "lstm1_unit_1"
  type: "LSTMUnit"
  bottom: "c_0"
  bottom: "gate_input_1"
  bottom: "cont_1"
  top: "c_1"
  top: "h_1"
}
layer {
  name: "lstm1_"
  type: "Split"
  bottom: "c_1"
  top: "c_T"
}
layer {
  name: "lstm1_h_concat"
  type: "Concat"
  bottom: "h_1"
  top: "h"
  concat_param {
    axis: 0
  }
}
layer {
  name: "h_pseudoloss"
  type: "Reduction"
  bottom: "h"
  top: "h_pseudoloss"
  loss_weight: 1
}
I0924 04:12:28.947665 23114 layer_factory.hpp:77] Creating layer lstm1_
I0924 04:12:28.947681 23114 net.cpp:91] Creating Layer lstm1_
I0924 04:12:28.947691 23114 net.cpp:399] lstm1_ -> x
I0924 04:12:28.947707 23114 net.cpp:399] lstm1_ -> cont
I0924 04:12:28.947827 23152 layer_factory.hpp:77] Creating layer lstm1_
I0924 04:12:28.947860 23152 net.cpp:91] Creating Layer lstm1_
I0924 04:12:28.947881 23152 net.cpp:399] lstm1_ -> x
I0924 04:12:28.947909 23152 net.cpp:399] lstm1_ -> cont
I0924 04:12:28.946794 23106 net.cpp:425] lstm1 <- embedded_input_frames
I0924 04:12:28.950666 23106 net.cpp:425] lstm1 <- cont_sentence_input_1_split_0
I0924 04:12:28.950698 23106 net.cpp:399] lstm1 -> lstm1
I0924 04:12:28.950723 23106 recurrent_layer.cpp:20] Initializing recurrent layer: assuming input batch contains 1 timesteps of 1 independent streams.
I0924 04:12:28.985167 23106 net.cpp:49] Initializing net from parameters: 
layer {
  name: "lstm1_"
  type: "Input"
  top: "x"
  top: "cont"
  input_param {
    shape {
      dim: 1
      dim: 1
      dim: 500
    }
    shape {
      dim: 1
      dim: 1
    }
  }
}
layer {
  name: "lstm1_"
  type: "Input"
  top: "c_0"
  top: "h_0"
  input_param {
    shape {
      dim: 1
      dim: 1
      dim: 1000
    }
    shape {
      dim: 1
      dim: 1
      dim: 1000
    }
  }
}
layer {
  name: "lstm1_cont_slice"
  type: "Slice"
  bottom: "cont"
  top: "cont_1"
  slice_param {
    axis: 0
  }
}
layer {
  name: "lstm1_x_transform"
  type: "InnerProduct"
  bottom: "x"
  top: "W_xc_x"
  param {
    name: "W_xc"
  }
  param {
    name: "b_c"
  }
  propagate_down: true
  inner_product_param {
    num_output: 4000
    bias_term: true
    weight_filler {
      type: "uniform"
      min: -0.08
      max: 0.08
    }
    bias_filler {
      type: "constant"
      value: 0
    }
    axis: 2
  }
}
layer {
  name: "lstm1_W_xc_x_slice"
  type: "Slice"
  bottom: "W_xc_x"
  top: "W_xc_x_1"
  slice_param {
    axis: 0
  }
}
layer {
  name: "lstm1_h_conted_0"
  type: "Scale"
  bottom: "h_0"
  bottom: "cont_1"
  top: "h_conted_0"
  scale_param {
    axis: 0
  }
}
layer {
  name: "lstm1_transform_1"
  type: "InnerProduct"
  bottom: "h_conted_0"
  top: "W_hc_h_0"
  param {
    name: "W_hc"
  }
  inner_product_param {
    num_output: 4000
    bias_term: false
    weight_filler {
      type: "uniform"
      min: -0.08
      max: 0.08
    }
    axis: 2
  }
}
layer {
  name: "lstm1_gate_input_1"
  type: "Eltwise"
  bottom: "W_hc_h_0"
  bottom: "W_xc_x_1"
  top: "gate_input_1"
  eltwise_param {
    operation: SUM
  }
}
layer {
  name: "lstm1_unit_1"
  type: "LSTMUnit"
  bottom: "c_0"
  bottom: "gate_input_1"
  bottom: "cont_1"
  top: "c_1"
  top: "h_1"
}
layer {
  name: "lstm1_"
  type: "Split"
  bottom: "c_1"
  top: "c_T"
}
layer {
  name: "lstm1_h_concat"
  type: "Concat"
  bottom: "h_1"
  top: "h"
  concat_param {
    axis: 0
  }
}
layer {
  name: "h_pseudoloss"
  type: "Reduction"
  bottom: "h"
  top: "h_pseudoloss"
  loss_weight: 1
}
I0924 04:12:28.985496 23106 layer_factory.hpp:77] Creating layer lstm1_
I0924 04:12:28.985525 23106 net.cpp:91] Creating Layer lstm1_
I0924 04:12:28.985543 23106 net.cpp:399] lstm1_ -> x
I0924 04:12:28.985575 23106 net.cpp:399] lstm1_ -> cont
I0924 04:12:28.988935 23114 net.cpp:141] Setting up lstm1_
I0924 04:12:28.988986 23114 net.cpp:148] Top shape: 1 1 500 (500)
I0924 04:12:28.988996 23114 net.cpp:148] Top shape: 1 1 (1)
I0924 04:12:28.989002 23114 net.cpp:156] Memory required for data: 2004
I0924 04:12:28.989017 23114 layer_factory.hpp:77] Creating layer lstm1_
I0924 04:12:28.989059 23114 net.cpp:91] Creating Layer lstm1_
I0924 04:12:28.989071 23114 net.cpp:399] lstm1_ -> c_0
I0924 04:12:28.989099 23114 net.cpp:399] lstm1_ -> h_0
I0924 04:12:28.989192 23114 net.cpp:141] Setting up lstm1_
I0924 04:12:28.989207 23114 net.cpp:148] Top shape: 1 1 1000 (1000)
I0924 04:12:28.989215 23114 net.cpp:148] Top shape: 1 1 1000 (1000)
I0924 04:12:28.989222 23114 net.cpp:156] Memory required for data: 10004
I0924 04:12:28.989228 23114 layer_factory.hpp:77] Creating layer lstm1_cont_slice
I0924 04:12:28.989243 23114 net.cpp:91] Creating Layer lstm1_cont_slice
I0924 04:12:28.989251 23114 net.cpp:425] lstm1_cont_slice <- cont
I0924 04:12:28.989267 23114 net.cpp:399] lstm1_cont_slice -> cont_1
I0924 04:12:28.989325 23114 net.cpp:141] Setting up lstm1_cont_slice
I0924 04:12:28.989338 23114 net.cpp:148] Top shape: 1 1 (1)
I0924 04:12:28.989346 23114 net.cpp:156] Memory required for data: 10008
I0924 04:12:28.989352 23114 layer_factory.hpp:77] Creating layer cont_1_lstm1_cont_slice_0_split
I0924 04:12:28.989364 23114 net.cpp:91] Creating Layer cont_1_lstm1_cont_slice_0_split
I0924 04:12:28.989372 23114 net.cpp:425] cont_1_lstm1_cont_slice_0_split <- cont_1
I0924 04:12:28.989382 23114 net.cpp:399] cont_1_lstm1_cont_slice_0_split -> cont_1_lstm1_cont_slice_0_split_0
I0924 04:12:28.989394 23114 net.cpp:399] cont_1_lstm1_cont_slice_0_split -> cont_1_lstm1_cont_slice_0_split_1
I0924 04:12:28.989470 23114 net.cpp:141] Setting up cont_1_lstm1_cont_slice_0_split
I0924 04:12:28.989483 23114 net.cpp:148] Top shape: 1 1 (1)
I0924 04:12:28.989492 23114 net.cpp:148] Top shape: 1 1 (1)
I0924 04:12:28.989500 23114 net.cpp:156] Memory required for data: 10016
I0924 04:12:28.989506 23114 layer_factory.hpp:77] Creating layer lstm1_x_transform
I0924 04:12:28.989529 23114 net.cpp:91] Creating Layer lstm1_x_transform
I0924 04:12:28.989537 23114 net.cpp:425] lstm1_x_transform <- x
I0924 04:12:28.989550 23114 net.cpp:399] lstm1_x_transform -> W_xc_x
I0924 04:12:28.995260 23125 net.cpp:141] Setting up reshape_frames
I0924 04:12:28.995319 23125 net.cpp:148] Top shape: 1 1 500 (500)
I0924 04:12:28.995332 23125 net.cpp:156] Memory required for data: 20404
I0924 04:12:28.995347 23125 layer_factory.hpp:77] Creating layer reshape_stage_indicator
I0924 04:12:28.995383 23125 net.cpp:91] Creating Layer reshape_stage_indicator
I0924 04:12:28.995399 23125 net.cpp:425] reshape_stage_indicator <- stage_indicator
I0924 04:12:28.995429 23125 net.cpp:399] reshape_stage_indicator -> reshaped_stage_indicator
I0924 04:12:28.995528 23125 net.cpp:141] Setting up reshape_stage_indicator
I0924 04:12:28.995548 23125 net.cpp:148] Top shape: 1 1 1 (1)
I0924 04:12:28.995558 23125 net.cpp:156] Memory required for data: 20408
I0924 04:12:28.995566 23125 layer_factory.hpp:77] Creating layer embedding
I0924 04:12:28.995589 23125 net.cpp:91] Creating Layer embedding
I0924 04:12:28.995601 23125 net.cpp:425] embedding <- input_sentence
I0924 04:12:28.995621 23125 net.cpp:399] embedding -> embedded_input_sentence
I0924 04:12:29.040817 23132 net.cpp:141] Setting up lstm1_
I0924 04:12:29.040884 23132 net.cpp:148] Top shape: 1 1 500 (500)
I0924 04:12:29.040899 23132 net.cpp:148] Top shape: 1 1 (1)
I0924 04:12:29.040904 23132 net.cpp:156] Memory required for data: 2004
I0924 04:12:29.040921 23132 layer_factory.hpp:77] Creating layer lstm1_
I0924 04:12:29.040968 23132 net.cpp:91] Creating Layer lstm1_
I0924 04:12:29.040987 23132 net.cpp:399] lstm1_ -> c_0
I0924 04:12:29.041019 23132 net.cpp:399] lstm1_ -> h_0
I0924 04:12:29.041147 23132 net.cpp:141] Setting up lstm1_
I0924 04:12:29.041162 23132 net.cpp:148] Top shape: 1 1 1000 (1000)
I0924 04:12:29.041173 23132 net.cpp:148] Top shape: 1 1 1000 (1000)
I0924 04:12:29.041180 23132 net.cpp:156] Memory required for data: 10004
I0924 04:12:29.041189 23132 layer_factory.hpp:77] Creating layer lstm1_cont_slice
I0924 04:12:29.041213 23132 net.cpp:91] Creating Layer lstm1_cont_slice
I0924 04:12:29.041223 23132 net.cpp:425] lstm1_cont_slice <- cont
I0924 04:12:29.041235 23132 net.cpp:399] lstm1_cont_slice -> cont_1
I0924 04:12:29.041304 23132 net.cpp:141] Setting up lstm1_cont_slice
I0924 04:12:29.041319 23132 net.cpp:148] Top shape: 1 1 (1)
I0924 04:12:29.041326 23132 net.cpp:156] Memory required for data: 10008
I0924 04:12:29.041334 23132 layer_factory.hpp:77] Creating layer cont_1_lstm1_cont_slice_0_split
I0924 04:12:29.041349 23132 net.cpp:91] Creating Layer cont_1_lstm1_cont_slice_0_split
I0924 04:12:29.041357 23132 net.cpp:425] cont_1_lstm1_cont_slice_0_split <- cont_1
I0924 04:12:29.041373 23132 net.cpp:399] cont_1_lstm1_cont_slice_0_split -> cont_1_lstm1_cont_slice_0_split_0
I0924 04:12:29.041388 23132 net.cpp:399] cont_1_lstm1_cont_slice_0_split -> cont_1_lstm1_cont_slice_0_split_1
I0924 04:12:29.041471 23132 net.cpp:141] Setting up cont_1_lstm1_cont_slice_0_split
I0924 04:12:29.041487 23132 net.cpp:148] Top shape: 1 1 (1)
I0924 04:12:29.041498 23132 net.cpp:148] Top shape: 1 1 (1)
I0924 04:12:29.041507 23132 net.cpp:156] Memory required for data: 10016
I0924 04:12:29.041513 23132 layer_factory.hpp:77] Creating layer lstm1_x_transform
I0924 04:12:29.041538 23132 net.cpp:91] Creating Layer lstm1_x_transform
I0924 04:12:29.041544 23132 net.cpp:425] lstm1_x_transform <- x
I0924 04:12:29.041563 23132 net.cpp:399] lstm1_x_transform -> W_xc_x
I0924 04:12:29.048240 23106 net.cpp:141] Setting up lstm1_
I0924 04:12:29.048311 23106 net.cpp:148] Top shape: 1 1 500 (500)
I0924 04:12:29.048326 23106 net.cpp:148] Top shape: 1 1 (1)
I0924 04:12:29.048334 23106 net.cpp:156] Memory required for data: 2004
I0924 04:12:29.048351 23106 layer_factory.hpp:77] Creating layer lstm1_
I0924 04:12:29.048480 23106 net.cpp:91] Creating Layer lstm1_
I0924 04:12:29.048544 23106 net.cpp:399] lstm1_ -> c_0
I0924 04:12:29.048581 23106 net.cpp:399] lstm1_ -> h_0
I0924 04:12:29.048799 23106 net.cpp:141] Setting up lstm1_
I0924 04:12:29.048825 23106 net.cpp:148] Top shape: 1 1 1000 (1000)
I0924 04:12:29.048836 23106 net.cpp:148] Top shape: 1 1 1000 (1000)
I0924 04:12:29.048844 23106 net.cpp:156] Memory required for data: 10004
I0924 04:12:29.048854 23106 layer_factory.hpp:77] Creating layer lstm1_cont_slice
I0924 04:12:29.048873 23106 net.cpp:91] Creating Layer lstm1_cont_slice
I0924 04:12:29.048883 23106 net.cpp:425] lstm1_cont_slice <- cont
I0924 04:12:29.048902 23106 net.cpp:399] lstm1_cont_slice -> cont_1
I0924 04:12:29.048971 23106 net.cpp:141] Setting up lstm1_cont_slice
I0924 04:12:29.048987 23106 net.cpp:148] Top shape: 1 1 (1)
I0924 04:12:29.048995 23106 net.cpp:156] Memory required for data: 10008
I0924 04:12:29.049005 23106 layer_factory.hpp:77] Creating layer cont_1_lstm1_cont_slice_0_split
I0924 04:12:29.049018 23106 net.cpp:91] Creating Layer cont_1_lstm1_cont_slice_0_split
I0924 04:12:29.049028 23106 net.cpp:425] cont_1_lstm1_cont_slice_0_split <- cont_1
I0924 04:12:29.049039 23106 net.cpp:399] cont_1_lstm1_cont_slice_0_split -> cont_1_lstm1_cont_slice_0_split_0
I0924 04:12:29.049053 23106 net.cpp:399] cont_1_lstm1_cont_slice_0_split -> cont_1_lstm1_cont_slice_0_split_1
I0924 04:12:29.049147 23106 net.cpp:141] Setting up cont_1_lstm1_cont_slice_0_split
I0924 04:12:29.049162 23106 net.cpp:148] Top shape: 1 1 (1)
I0924 04:12:29.049172 23106 net.cpp:148] Top shape: 1 1 (1)
I0924 04:12:29.049180 23106 net.cpp:156] Memory required for data: 10016
I0924 04:12:29.049188 23106 layer_factory.hpp:77] Creating layer lstm1_x_transform
I0924 04:12:29.049214 23106 net.cpp:91] Creating Layer lstm1_x_transform
I0924 04:12:29.049223 23106 net.cpp:425] lstm1_x_transform <- x
I0924 04:12:29.049237 23106 net.cpp:399] lstm1_x_transform -> W_xc_x
I0924 04:12:29.062427 23110 net.cpp:141] Setting up embedding
I0924 04:12:29.062495 23110 net.cpp:148] Top shape: 1 1 500 (500)
I0924 04:12:29.062505 23110 net.cpp:156] Memory required for data: 22408
I0924 04:12:29.062531 23110 layer_factory.hpp:77] Creating layer lstm1
I0924 04:12:29.062564 23110 net.cpp:91] Creating Layer lstm1
I0924 04:12:29.062574 23110 net.cpp:425] lstm1 <- embedded_input_frames
I0924 04:12:29.062587 23110 net.cpp:425] lstm1 <- cont_sentence_input_1_split_0
I0924 04:12:29.062615 23110 net.cpp:399] lstm1 -> lstm1
I0924 04:12:29.062641 23110 recurrent_layer.cpp:20] Initializing recurrent layer: assuming input batch contains 1 timesteps of 1 independent streams.
I0924 04:12:29.063081 23110 net.cpp:49] Initializing net from parameters: 
layer {
  name: "lstm1_"
  type: "Input"
  top: "x"
  top: "cont"
  input_param {
    shape {
      dim: 1
      dim: 1
      dim: 500
    }
    shape {
      dim: 1
      dim: 1
    }
  }
}
layer {
  name: "lstm1_"
  type: "Input"
  top: "c_0"
  top: "h_0"
  input_param {
    shape {
      dim: 1
      dim: 1
      dim: 1000
    }
    shape {
      dim: 1
      dim: 1
      dim: 1000
    }
  }
}
layer {
  name: "lstm1_cont_slice"
  type: "Slice"
  bottom: "cont"
  top: "cont_1"
  slice_param {
    axis: 0
  }
}
layer {
  name: "lstm1_x_transform"
  type: "InnerProduct"
  bottom: "x"
  top: "W_xc_x"
  param {
    name: "W_xc"
  }
  param {
    name: "b_c"
  }
  propagate_down: true
  inner_product_param {
    num_output: 4000
    bias_term: true
    weight_filler {
      type: "uniform"
      min: -0.08
      max: 0.08
    }
    bias_filler {
      type: "constant"
      value: 0
    }
    axis: 2
  }
}
layer {
  name: "lstm1_W_xc_x_slice"
  type: "Slice"
  bottom: "W_xc_x"
  top: "W_xc_x_1"
  slice_param {
    axis: 0
  }
}
layer {
  name: "lstm1_h_conted_0"
  type: "Scale"
  bottom: "h_0"
  bottom: "cont_1"
  top: "h_conted_0"
  scale_param {
    axis: 0
  }
}
layer {
  name: "lstm1_transform_1"
  type: "InnerProduct"
  bottom: "h_conted_0"
  top: "W_hc_h_0"
  param {
    name: "W_hc"
  }
  inner_product_param {
    num_output: 4000
    bias_term: false
    weight_filler {
      type: "uniform"
      min: -0.08
      max: 0.08
    }
    axis: 2
  }
}
layer {
  name: "lstm1_gate_input_1"
  type: "Eltwise"
  bottom: "W_hc_h_0"
  bottom: "W_xc_x_1"
  top: "gate_input_1"
  eltwise_param {
    operation: SUM
  }
}
layer {
  name: "lstm1_unit_1"
  type: "LSTMUnit"
  bottom: "c_0"
  bottom: "gate_input_1"
  bottom: "cont_1"
  top: "c_1"
  top: "h_1"
}
layer {
  name: "lstm1_"
  type: "Split"
  bottom: "c_1"
  top: "c_T"
}
layer {
  name: "lstm1_h_concat"
  type: "Concat"
  bottom: "h_1"
  top: "h"
  concat_param {
    axis: 0
  }
}
layer {
  name: "h_pseudoloss"
  type: "Reduction"
  bottom: "h"
  top: "h_pseudoloss"
  loss_weight: 1
}
I0924 04:12:29.063227 23110 layer_factory.hpp:77] Creating layer lstm1_
I0924 04:12:29.063246 23110 net.cpp:91] Creating Layer lstm1_
I0924 04:12:29.063256 23110 net.cpp:399] lstm1_ -> x
I0924 04:12:29.063276 23110 net.cpp:399] lstm1_ -> cont
I0924 04:12:29.063426 23110 net.cpp:141] Setting up lstm1_
I0924 04:12:29.063441 23110 net.cpp:148] Top shape: 1 1 500 (500)
I0924 04:12:29.063452 23110 net.cpp:148] Top shape: 1 1 (1)
I0924 04:12:29.063457 23110 net.cpp:156] Memory required for data: 2004
I0924 04:12:29.063464 23110 layer_factory.hpp:77] Creating layer lstm1_
I0924 04:12:29.063482 23110 net.cpp:91] Creating Layer lstm1_
I0924 04:12:29.063495 23110 net.cpp:399] lstm1_ -> c_0
I0924 04:12:29.063510 23110 net.cpp:399] lstm1_ -> h_0
I0924 04:12:29.063591 23110 net.cpp:141] Setting up lstm1_
I0924 04:12:29.063612 23110 net.cpp:148] Top shape: 1 1 1000 (1000)
I0924 04:12:29.063622 23110 net.cpp:148] Top shape: 1 1 1000 (1000)
I0924 04:12:29.063628 23110 net.cpp:156] Memory required for data: 10004
I0924 04:12:29.063635 23110 layer_factory.hpp:77] Creating layer lstm1_cont_slice
I0924 04:12:29.063647 23110 net.cpp:91] Creating Layer lstm1_cont_slice
I0924 04:12:29.063654 23110 net.cpp:425] lstm1_cont_slice <- cont
I0924 04:12:29.063665 23110 net.cpp:399] lstm1_cont_slice -> cont_1
I0924 04:12:29.063722 23110 net.cpp:141] Setting up lstm1_cont_slice
I0924 04:12:29.063735 23110 net.cpp:148] Top shape: 1 1 (1)
I0924 04:12:29.063741 23110 net.cpp:156] Memory required for data: 10008
I0924 04:12:29.063748 23110 layer_factory.hpp:77] Creating layer cont_1_lstm1_cont_slice_0_split
I0924 04:12:29.063760 23110 net.cpp:91] Creating Layer cont_1_lstm1_cont_slice_0_split
I0924 04:12:29.063766 23110 net.cpp:425] cont_1_lstm1_cont_slice_0_split <- cont_1
I0924 04:12:29.063779 23110 net.cpp:399] cont_1_lstm1_cont_slice_0_split -> cont_1_lstm1_cont_slice_0_split_0
I0924 04:12:29.063791 23110 net.cpp:399] cont_1_lstm1_cont_slice_0_split -> cont_1_lstm1_cont_slice_0_split_1
I0924 04:12:29.063865 23110 net.cpp:141] Setting up cont_1_lstm1_cont_slice_0_split
I0924 04:12:29.063877 23110 net.cpp:148] Top shape: 1 1 (1)
I0924 04:12:29.063886 23110 net.cpp:148] Top shape: 1 1 (1)
I0924 04:12:29.063892 23110 net.cpp:156] Memory required for data: 10016
I0924 04:12:29.063899 23110 layer_factory.hpp:77] Creating layer lstm1_x_transform
I0924 04:12:29.063915 23110 net.cpp:91] Creating Layer lstm1_x_transform
I0924 04:12:29.063921 23110 net.cpp:425] lstm1_x_transform <- x
I0924 04:12:29.063936 23110 net.cpp:399] lstm1_x_transform -> W_xc_x
I0924 04:12:29.070860 23164 net.cpp:141] Setting up embedding
I0924 04:12:29.070922 23164 net.cpp:148] Top shape: 1 1 500 (500)
I0924 04:12:29.070933 23164 net.cpp:156] Memory required for data: 22408
I0924 04:12:29.070962 23160 net.cpp:141] Setting up lstm1_
I0924 04:12:29.070963 23164 layer_factory.hpp:77] Creating layer lstm1
I0924 04:12:29.071003 23160 net.cpp:148] Top shape: 1 1 500 (500)
I0924 04:12:29.071000 23152 net.cpp:141] Setting up lstm1_
I0924 04:12:29.071017 23160 net.cpp:148] Top shape: 1 1 (1)
I0924 04:12:29.071020 23164 net.cpp:91] Creating Layer lstm1
I0924 04:12:29.071027 23152 net.cpp:148] Top shape: 1 1 500 (500)
I0924 04:12:29.071023 23160 net.cpp:156] Memory required for data: 2004
I0924 04:12:29.071040 23152 net.cpp:148] Top shape: 1 1 (1)
I0924 04:12:29.071046 23164 net.cpp:425] lstm1 <- embedded_input_frames
I0924 04:12:29.071048 23152 net.cpp:156] Memory required for data: 2004
I0924 04:12:29.071048 23160 layer_factory.hpp:77] Creating layer lstm1_
I0924 04:12:29.071061 23152 layer_factory.hpp:77] Creating layer lstm1_
I0924 04:12:29.071069 23164 net.cpp:425] lstm1 <- cont_sentence_input_1_split_0
I0924 04:12:29.071091 23164 net.cpp:399] lstm1 -> lstm1
I0924 04:12:29.071084 23160 net.cpp:91] Creating Layer lstm1_
I0924 04:12:29.071084 23152 net.cpp:91] Creating Layer lstm1_
I0924 04:12:29.071111 23160 net.cpp:399] lstm1_ -> c_0
I0924 04:12:29.071125 23152 net.cpp:399] lstm1_ -> c_0
I0924 04:12:29.071127 23164 recurrent_layer.cpp:20] Initializing recurrent layer: assuming input batch contains 1 timesteps of 1 independent streams.
I0924 04:12:29.071132 23160 net.cpp:399] lstm1_ -> h_0
I0924 04:12:29.071146 23152 net.cpp:399] lstm1_ -> h_0
I0924 04:12:29.071302 23160 net.cpp:141] Setting up lstm1_
I0924 04:12:29.071317 23160 net.cpp:148] Top shape: 1 1 1000 (1000)
I0924 04:12:29.071326 23160 net.cpp:148] Top shape: 1 1 1000 (1000)
I0924 04:12:29.071333 23160 net.cpp:156] Memory required for data: 10004
I0924 04:12:29.071334 23152 net.cpp:141] Setting up lstm1_
I0924 04:12:29.071341 23160 layer_factory.hpp:77] Creating layer lstm1_cont_slice
I0924 04:12:29.071351 23152 net.cpp:148] Top shape: 1 1 1000 (1000)
I0924 04:12:29.071354 23160 net.cpp:91] Creating Layer lstm1_cont_slice
I0924 04:12:29.071360 23152 net.cpp:148] Top shape: 1 1 1000 (1000)
I0924 04:12:29.071362 23160 net.cpp:425] lstm1_cont_slice <- cont
I0924 04:12:29.071367 23152 net.cpp:156] Memory required for data: 10004
I0924 04:12:29.071373 23160 net.cpp:399] lstm1_cont_slice -> cont_1
I0924 04:12:29.071374 23152 layer_factory.hpp:77] Creating layer lstm1_cont_slice
I0924 04:12:29.071388 23152 net.cpp:91] Creating Layer lstm1_cont_slice
I0924 04:12:29.071396 23152 net.cpp:425] lstm1_cont_slice <- cont
I0924 04:12:29.071410 23152 net.cpp:399] lstm1_cont_slice -> cont_1
I0924 04:12:29.071434 23160 net.cpp:141] Setting up lstm1_cont_slice
I0924 04:12:29.071446 23160 net.cpp:148] Top shape: 1 1 (1)
I0924 04:12:29.071454 23160 net.cpp:156] Memory required for data: 10008
I0924 04:12:29.071460 23160 layer_factory.hpp:77] Creating layer cont_1_lstm1_cont_slice_0_split
I0924 04:12:29.071465 23152 net.cpp:141] Setting up lstm1_cont_slice
I0924 04:12:29.071475 23160 net.cpp:91] Creating Layer cont_1_lstm1_cont_slice_0_split
I0924 04:12:29.071478 23152 net.cpp:148] Top shape: 1 1 (1)
I0924 04:12:29.071483 23160 net.cpp:425] cont_1_lstm1_cont_slice_0_split <- cont_1
I0924 04:12:29.071485 23152 net.cpp:156] Memory required for data: 10008
I0924 04:12:29.071493 23152 layer_factory.hpp:77] Creating layer cont_1_lstm1_cont_slice_0_split
I0924 04:12:29.071493 23160 net.cpp:399] cont_1_lstm1_cont_slice_0_split -> cont_1_lstm1_cont_slice_0_split_0
I0924 04:12:29.071506 23160 net.cpp:399] cont_1_lstm1_cont_slice_0_split -> cont_1_lstm1_cont_slice_0_split_1
I0924 04:12:29.071508 23152 net.cpp:91] Creating Layer cont_1_lstm1_cont_slice_0_split
I0924 04:12:29.071517 23152 net.cpp:425] cont_1_lstm1_cont_slice_0_split <- cont_1
I0924 04:12:29.071527 23152 net.cpp:399] cont_1_lstm1_cont_slice_0_split -> cont_1_lstm1_cont_slice_0_split_0
I0924 04:12:29.071539 23152 net.cpp:399] cont_1_lstm1_cont_slice_0_split -> cont_1_lstm1_cont_slice_0_split_1
I0924 04:12:29.071568 23164 net.cpp:49] Initializing net from parameters: 
layer {
  name: "lstm1_"
  type: "Input"
  top: "x"
  top: "cont"
  input_param {
    shape {
      dim: 1
      dim: 1
      dim: 500
    }
    shape {
      dim: 1
      dim: 1
    }
  }
}
layer {
  name: "lstm1_"
  type: "Input"
  top: "c_0"
  top: "h_0"
  input_param {
    shape {
      dim: 1
      dim: 1
      dim: 1000
    }
    shape {
      dim: 1
      dim: 1
      dim: 1000
    }
  }
}
layer {
  name: "lstm1_cont_slice"
  type: "Slice"
  bottom: "cont"
  top: "cont_1"
  slice_param {
    axis: 0
  }
}
layer {
  name: "lstm1_x_transform"
  type: "InnerProduct"
  bottom: "x"
  top: "W_xc_x"
  param {
    name: "W_xc"
  }
  param {
    name: "b_c"
  }
  propagate_down: true
  inner_product_param {
    num_output: 4000
    bias_term: true
    weight_filler {
      type: "uniform"
      min: -0.08
      max: 0.08
    }
    bias_filler {
      type: "constant"
      value: 0
    }
    axis: 2
  }
}
layer {
  name: "lstm1_W_xc_x_slice"
  type: "Slice"
  bottom: "W_xc_x"
  top: "W_xc_x_1"
  slice_param {
    axis: 0
  }
}
layer {
  name: "lstm1_h_conted_0"
  type: "Scale"
  bottom: "h_0"
  bottom: "cont_1"
  top: "h_conted_0"
  scale_param {
    axis: 0
  }
}
layer {
  name: "lstm1_transform_1"
  type: "InnerProduct"
  bottom: "h_conted_0"
  top: "W_hc_h_0"
  param {
    name: "W_hc"
  }
  inner_product_param {
    num_output: 4000
    bias_term: false
    weight_filler {
      type: "uniform"
      min: -0.08
      max: 0.08
    }
    axis: 2
  }
}
layer {
  name: "lstm1_gate_input_1"
  type: "Eltwise"
  bottom: "W_hc_h_0"
  bottom: "W_xc_x_1"
  top: "gate_input_1"
  eltwise_param {
    operation: SUM
  }
}
layer {
  name: "lstm1_unit_1"
  type: "LSTMUnit"
  bottom: "c_0"
  bottom: "gate_input_1"
  bottom: "cont_1"
  top: "c_1"
  top: "h_1"
}
layer {
  name: "lstm1_"
  type: "Split"
  bottom: "c_1"
  top: "c_T"
}
layer {
  name: "lstm1_h_concat"
  type: "Concat"
  bottom: "h_1"
  top: "h"
  concat_param {
    axis: 0
  }
}
layer {
  name: "h_pseudoloss"
  type: "Reduction"
  bottom: "h"
  top: "h_pseudoloss"
  loss_weight: 1
}
I0924 04:12:29.071642 23160 net.cpp:141] Setting up cont_1_lstm1_cont_slice_0_split
I0924 04:12:29.071658 23160 net.cpp:148] Top shape: 1 1 (1)
I0924 04:12:29.071668 23160 net.cpp:148] Top shape: 1 1 (1)
I0924 04:12:29.071676 23160 net.cpp:156] Memory required for data: 10016
I0924 04:12:29.071677 23152 net.cpp:141] Setting up cont_1_lstm1_cont_slice_0_split
I0924 04:12:29.071684 23160 layer_factory.hpp:77] Creating layer lstm1_x_transform
I0924 04:12:29.071693 23152 net.cpp:148] Top shape: 1 1 (1)
I0924 04:12:29.071704 23152 net.cpp:148] Top shape: 1 1 (1)
I0924 04:12:29.071705 23160 net.cpp:91] Creating Layer lstm1_x_transform
I0924 04:12:29.071710 23152 net.cpp:156] Memory required for data: 10016
I0924 04:12:29.071710 23164 layer_factory.hpp:77] Creating layer lstm1_
I0924 04:12:29.071722 23152 layer_factory.hpp:77] Creating layer lstm1_x_transform
I0924 04:12:29.071713 23160 net.cpp:425] lstm1_x_transform <- x
I0924 04:12:29.071743 23160 net.cpp:399] lstm1_x_transform -> W_xc_x
I0924 04:12:29.071741 23164 net.cpp:91] Creating Layer lstm1_
I0924 04:12:29.071741 23152 net.cpp:91] Creating Layer lstm1_x_transform
I0924 04:12:29.071768 23164 net.cpp:399] lstm1_ -> x
I0924 04:12:29.071768 23152 net.cpp:425] lstm1_x_transform <- x
I0924 04:12:29.071789 23152 net.cpp:399] lstm1_x_transform -> W_xc_x
I0924 04:12:29.071790 23164 net.cpp:399] lstm1_ -> cont
I0924 04:12:29.084334 23164 net.cpp:141] Setting up lstm1_
I0924 04:12:29.084391 23164 net.cpp:148] Top shape: 1 1 500 (500)
I0924 04:12:29.084406 23164 net.cpp:148] Top shape: 1 1 (1)
I0924 04:12:29.084414 23164 net.cpp:156] Memory required for data: 2004
I0924 04:12:29.084429 23164 layer_factory.hpp:77] Creating layer lstm1_
I0924 04:12:29.084456 23164 net.cpp:91] Creating Layer lstm1_
I0924 04:12:29.084472 23164 net.cpp:399] lstm1_ -> c_0
I0924 04:12:29.084496 23164 net.cpp:399] lstm1_ -> h_0
I0924 04:12:29.084522 23132 net.cpp:141] Setting up lstm1_x_transform
I0924 04:12:29.084543 23132 net.cpp:148] Top shape: 1 1 4000 (4000)
I0924 04:12:29.084553 23132 net.cpp:156] Memory required for data: 26016
I0924 04:12:29.084568 23164 net.cpp:141] Setting up lstm1_
I0924 04:12:29.084573 23132 layer_factory.hpp:77] Creating layer lstm1_W_xc_x_slice
I0924 04:12:29.084580 23164 net.cpp:148] Top shape: 1 1 1000 (1000)
I0924 04:12:29.084586 23164 net.cpp:148] Top shape: 1 1 1000 (1000)
I0924 04:12:29.084591 23164 net.cpp:156] Memory required for data: 10004
I0924 04:12:29.084594 23132 net.cpp:91] Creating Layer lstm1_W_xc_x_slice
I0924 04:12:29.084597 23164 layer_factory.hpp:77] Creating layer lstm1_cont_slice
I0924 04:12:29.084604 23132 net.cpp:425] lstm1_W_xc_x_slice <- W_xc_x
I0924 04:12:29.084611 23164 net.cpp:91] Creating Layer lstm1_cont_slice
I0924 04:12:29.084616 23164 net.cpp:425] lstm1_cont_slice <- cont
I0924 04:12:29.084617 23132 net.cpp:399] lstm1_W_xc_x_slice -> W_xc_x_1
I0924 04:12:29.084627 23164 net.cpp:399] lstm1_cont_slice -> cont_1
I0924 04:12:29.084692 23132 net.cpp:141] Setting up lstm1_W_xc_x_slice
I0924 04:12:29.084709 23132 net.cpp:148] Top shape: 1 1 4000 (4000)
I0924 04:12:29.084717 23132 net.cpp:156] Memory required for data: 42016
I0924 04:12:29.084725 23132 layer_factory.hpp:77] Creating layer lstm1_h_conted_0
I0924 04:12:29.084740 23132 net.cpp:91] Creating Layer lstm1_h_conted_0
I0924 04:12:29.084748 23132 net.cpp:425] lstm1_h_conted_0 <- h_0
I0924 04:12:29.084759 23132 net.cpp:425] lstm1_h_conted_0 <- cont_1_lstm1_cont_slice_0_split_0
I0924 04:12:29.084763 23164 net.cpp:141] Setting up lstm1_cont_slice
I0924 04:12:29.084771 23132 net.cpp:399] lstm1_h_conted_0 -> h_conted_0
I0924 04:12:29.084781 23164 net.cpp:148] Top shape: 1 1 (1)
I0924 04:12:29.084789 23164 net.cpp:156] Memory required for data: 10008
I0924 04:12:29.084800 23164 layer_factory.hpp:77] Creating layer cont_1_lstm1_cont_slice_0_split
I0924 04:12:29.084800 23114 net.cpp:141] Setting up lstm1_x_transform
I0924 04:12:29.084816 23114 net.cpp:148] Top shape: 1 1 4000 (4000)
I0924 04:12:29.084817 23164 net.cpp:91] Creating Layer cont_1_lstm1_cont_slice_0_split
I0924 04:12:29.084836 23114 net.cpp:156] Memory required for data: 26016
I0924 04:12:29.084842 23164 net.cpp:425] cont_1_lstm1_cont_slice_0_split <- cont_1
I0924 04:12:29.084854 23164 net.cpp:399] cont_1_lstm1_cont_slice_0_split -> cont_1_lstm1_cont_slice_0_split_0
I0924 04:12:29.084857 23114 layer_factory.hpp:77] Creating layer lstm1_W_xc_x_slice
I0924 04:12:29.084870 23164 net.cpp:399] cont_1_lstm1_cont_slice_0_split -> cont_1_lstm1_cont_slice_0_split_1
I0924 04:12:29.084870 23114 net.cpp:91] Creating Layer lstm1_W_xc_x_slice
I0924 04:12:29.084899 23114 net.cpp:425] lstm1_W_xc_x_slice <- W_xc_x
I0924 04:12:29.084923 23114 net.cpp:399] lstm1_W_xc_x_slice -> W_xc_x_1
I0924 04:12:29.085207 23132 net.cpp:141] Setting up lstm1_h_conted_0
I0924 04:12:29.085223 23132 net.cpp:148] Top shape: 1 1 1000 (1000)
I0924 04:12:29.085232 23132 net.cpp:156] Memory required for data: 46016
I0924 04:12:29.085239 23132 layer_factory.hpp:77] Creating layer lstm1_transform_1
I0924 04:12:29.085256 23132 net.cpp:91] Creating Layer lstm1_transform_1
I0924 04:12:29.085265 23132 net.cpp:425] lstm1_transform_1 <- h_conted_0
I0924 04:12:29.085278 23114 net.cpp:141] Setting up lstm1_W_xc_x_slice
I0924 04:12:29.085281 23132 net.cpp:399] lstm1_transform_1 -> W_hc_h_0
I0924 04:12:29.085300 23114 net.cpp:148] Top shape: 1 1 4000 (4000)
I0924 04:12:29.085310 23114 net.cpp:156] Memory required for data: 42016
I0924 04:12:29.085315 23164 net.cpp:141] Setting up cont_1_lstm1_cont_slice_0_split
I0924 04:12:29.085319 23114 layer_factory.hpp:77] Creating layer lstm1_h_conted_0
I0924 04:12:29.085345 23164 net.cpp:148] Top shape: 1 1 (1)
I0924 04:12:29.085351 23114 net.cpp:91] Creating Layer lstm1_h_conted_0
I0924 04:12:29.085355 23164 net.cpp:148] Top shape: 1 1 (1)
I0924 04:12:29.085361 23114 net.cpp:425] lstm1_h_conted_0 <- h_0
I0924 04:12:29.085362 23164 net.cpp:156] Memory required for data: 10016
I0924 04:12:29.085371 23114 net.cpp:425] lstm1_h_conted_0 <- cont_1_lstm1_cont_slice_0_split_0
I0924 04:12:29.085369 23164 layer_factory.hpp:77] Creating layer lstm1_x_transform
I0924 04:12:29.085391 23114 net.cpp:399] lstm1_h_conted_0 -> h_conted_0
I0924 04:12:29.085400 23164 net.cpp:91] Creating Layer lstm1_x_transform
I0924 04:12:29.085408 23164 net.cpp:425] lstm1_x_transform <- x
I0924 04:12:29.085425 23164 net.cpp:399] lstm1_x_transform -> W_xc_x
I0924 04:12:29.107113 23106 net.cpp:141] Setting up lstm1_x_transform
I0924 04:12:29.107170 23106 net.cpp:148] Top shape: 1 1 4000 (4000)
I0924 04:12:29.107180 23106 net.cpp:156] Memory required for data: 26016
I0924 04:12:29.107213 23106 layer_factory.hpp:77] Creating layer lstm1_W_xc_x_slice
I0924 04:12:29.108160 23106 net.cpp:91] Creating Layer lstm1_W_xc_x_slice
I0924 04:12:29.108180 23106 net.cpp:425] lstm1_W_xc_x_slice <- W_xc_x
I0924 04:12:29.108198 23106 net.cpp:399] lstm1_W_xc_x_slice -> W_xc_x_1
I0924 04:12:29.108252 23110 net.cpp:141] Setting up lstm1_x_transform
I0924 04:12:29.108269 23110 net.cpp:148] Top shape: 1 1 4000 (4000)
I0924 04:12:29.108279 23110 net.cpp:156] Memory required for data: 26016
I0924 04:12:29.108299 23110 layer_factory.hpp:77] Creating layer lstm1_W_xc_x_slice
I0924 04:12:29.108316 23110 net.cpp:91] Creating Layer lstm1_W_xc_x_slice
I0924 04:12:29.108326 23110 net.cpp:425] lstm1_W_xc_x_slice <- W_xc_x
I0924 04:12:29.108340 23110 net.cpp:399] lstm1_W_xc_x_slice -> W_xc_x_1
I0924 04:12:29.119719 23114 net.cpp:141] Setting up lstm1_h_conted_0
I0924 04:12:29.119774 23114 net.cpp:148] Top shape: 1 1 1000 (1000)
I0924 04:12:29.119783 23114 net.cpp:156] Memory required for data: 46016
I0924 04:12:29.119796 23114 layer_factory.hpp:77] Creating layer lstm1_transform_1
I0924 04:12:29.119822 23114 net.cpp:91] Creating Layer lstm1_transform_1
I0924 04:12:29.119832 23114 net.cpp:425] lstm1_transform_1 <- h_conted_0
I0924 04:12:29.119853 23114 net.cpp:399] lstm1_transform_1 -> W_hc_h_0
I0924 04:12:29.130197 23110 net.cpp:141] Setting up lstm1_W_xc_x_slice
I0924 04:12:29.130251 23110 net.cpp:148] Top shape: 1 1 4000 (4000)
I0924 04:12:29.130260 23110 net.cpp:156] Memory required for data: 42016
I0924 04:12:29.130272 23110 layer_factory.hpp:77] Creating layer lstm1_h_conted_0
I0924 04:12:29.130296 23110 net.cpp:91] Creating Layer lstm1_h_conted_0
I0924 04:12:29.130306 23110 net.cpp:425] lstm1_h_conted_0 <- h_0
I0924 04:12:29.130319 23110 net.cpp:425] lstm1_h_conted_0 <- cont_1_lstm1_cont_slice_0_split_0
I0924 04:12:29.130331 23110 net.cpp:399] lstm1_h_conted_0 -> h_conted_0
I0924 04:12:29.130514 23110 net.cpp:141] Setting up lstm1_h_conted_0
I0924 04:12:29.130529 23110 net.cpp:148] Top shape: 1 1 1000 (1000)
I0924 04:12:29.130537 23110 net.cpp:156] Memory required for data: 46016
I0924 04:12:29.130544 23110 layer_factory.hpp:77] Creating layer lstm1_transform_1
I0924 04:12:29.130563 23110 net.cpp:91] Creating Layer lstm1_transform_1
I0924 04:12:29.130570 23110 net.cpp:425] lstm1_transform_1 <- h_conted_0
I0924 04:12:29.130585 23110 net.cpp:399] lstm1_transform_1 -> W_hc_h_0
I0924 04:12:29.140400 23106 net.cpp:141] Setting up lstm1_W_xc_x_slice
I0924 04:12:29.140445 23106 net.cpp:148] Top shape: 1 1 4000 (4000)
I0924 04:12:29.140455 23106 net.cpp:156] Memory required for data: 42016
I0924 04:12:29.140466 23106 layer_factory.hpp:77] Creating layer lstm1_h_conted_0
I0924 04:12:29.140489 23106 net.cpp:91] Creating Layer lstm1_h_conted_0
I0924 04:12:29.140498 23106 net.cpp:425] lstm1_h_conted_0 <- h_0
I0924 04:12:29.140511 23106 net.cpp:425] lstm1_h_conted_0 <- cont_1_lstm1_cont_slice_0_split_0
I0924 04:12:29.142729 23106 net.cpp:399] lstm1_h_conted_0 -> h_conted_0
I0924 04:12:29.142817 23160 net.cpp:141] Setting up lstm1_x_transform
I0924 04:12:29.142840 23160 net.cpp:148] Top shape: 1 1 4000 (4000)
I0924 04:12:29.142848 23160 net.cpp:156] Memory required for data: 26016
I0924 04:12:29.142868 23164 net.cpp:141] Setting up lstm1_x_transform
I0924 04:12:29.142894 23164 net.cpp:148] Top shape: 1 1 4000 (4000)
I0924 04:12:29.142902 23164 net.cpp:156] Memory required for data: 26016
I0924 04:12:29.142920 23164 layer_factory.hpp:77] Creating layer lstm1_W_xc_x_slice
I0924 04:12:29.142940 23164 net.cpp:91] Creating Layer lstm1_W_xc_x_slice
I0924 04:12:29.142951 23164 net.cpp:425] lstm1_W_xc_x_slice <- W_xc_x
I0924 04:12:29.142963 23164 net.cpp:399] lstm1_W_xc_x_slice -> W_xc_x_1
I0924 04:12:29.143060 23106 net.cpp:141] Setting up lstm1_h_conted_0
I0924 04:12:29.143076 23106 net.cpp:148] Top shape: 1 1 1000 (1000)
I0924 04:12:29.143084 23106 net.cpp:156] Memory required for data: 46016
I0924 04:12:29.143091 23106 layer_factory.hpp:77] Creating layer lstm1_transform_1
I0924 04:12:29.143100 23164 net.cpp:141] Setting up lstm1_W_xc_x_slice
I0924 04:12:29.143112 23106 net.cpp:91] Creating Layer lstm1_transform_1
I0924 04:12:29.143116 23164 net.cpp:148] Top shape: 1 1 4000 (4000)
I0924 04:12:29.143121 23106 net.cpp:425] lstm1_transform_1 <- h_conted_0
I0924 04:12:29.143123 23164 net.cpp:156] Memory required for data: 42016
I0924 04:12:29.143132 23164 layer_factory.hpp:77] Creating layer lstm1_h_conted_0
I0924 04:12:29.143136 23106 net.cpp:399] lstm1_transform_1 -> W_hc_h_0
I0924 04:12:29.143151 23164 net.cpp:91] Creating Layer lstm1_h_conted_0
I0924 04:12:29.143158 23164 net.cpp:425] lstm1_h_conted_0 <- h_0
I0924 04:12:29.143168 23164 net.cpp:425] lstm1_h_conted_0 <- cont_1_lstm1_cont_slice_0_split_0
I0924 04:12:29.143179 23164 net.cpp:399] lstm1_h_conted_0 -> h_conted_0
I0924 04:12:29.142874 23160 layer_factory.hpp:77] Creating layer lstm1_W_xc_x_slice
I0924 04:12:29.143265 23160 net.cpp:91] Creating Layer lstm1_W_xc_x_slice
I0924 04:12:29.143275 23160 net.cpp:425] lstm1_W_xc_x_slice <- W_xc_x
I0924 04:12:29.143296 23152 net.cpp:141] Setting up lstm1_x_transform
I0924 04:12:29.143311 23152 net.cpp:148] Top shape: 1 1 4000 (4000)
I0924 04:12:29.143317 23152 net.cpp:156] Memory required for data: 26016
I0924 04:12:29.143332 23152 layer_factory.hpp:77] Creating layer lstm1_W_xc_x_slice
I0924 04:12:29.143344 23152 net.cpp:91] Creating Layer lstm1_W_xc_x_slice
I0924 04:12:29.143352 23152 net.cpp:425] lstm1_W_xc_x_slice <- W_xc_x
I0924 04:12:29.143362 23152 net.cpp:399] lstm1_W_xc_x_slice -> W_xc_x_1
I0924 04:12:29.146639 23160 net.cpp:399] lstm1_W_xc_x_slice -> W_xc_x_1
I0924 04:12:29.153625 23160 net.cpp:141] Setting up lstm1_W_xc_x_slice
I0924 04:12:29.153679 23160 net.cpp:148] Top shape: 1 1 4000 (4000)
I0924 04:12:29.153676 23132 net.cpp:141] Setting up lstm1_transform_1
I0924 04:12:29.153688 23160 net.cpp:156] Memory required for data: 42016
I0924 04:12:29.153699 23160 layer_factory.hpp:77] Creating layer lstm1_h_conted_0
I0924 04:12:29.153702 23132 net.cpp:148] Top shape: 1 1 4000 (4000)
I0924 04:12:29.153712 23132 net.cpp:156] Memory required for data: 62016
I0924 04:12:29.153724 23160 net.cpp:91] Creating Layer lstm1_h_conted_0
I0924 04:12:29.153734 23160 net.cpp:425] lstm1_h_conted_0 <- h_0
I0924 04:12:29.153739 23132 layer_factory.hpp:77] Creating layer lstm1_gate_input_1
I0924 04:12:29.153746 23160 net.cpp:425] lstm1_h_conted_0 <- cont_1_lstm1_cont_slice_0_split_0
I0924 04:12:29.153759 23160 net.cpp:399] lstm1_h_conted_0 -> h_conted_0
I0924 04:12:29.153764 23132 net.cpp:91] Creating Layer lstm1_gate_input_1
I0924 04:12:29.153775 23132 net.cpp:425] lstm1_gate_input_1 <- W_hc_h_0
I0924 04:12:29.153787 23132 net.cpp:425] lstm1_gate_input_1 <- W_xc_x_1
I0924 04:12:29.153806 23132 net.cpp:399] lstm1_gate_input_1 -> gate_input_1
I0924 04:12:29.153935 23160 net.cpp:141] Setting up lstm1_h_conted_0
I0924 04:12:29.153950 23160 net.cpp:148] Top shape: 1 1 1000 (1000)
I0924 04:12:29.153957 23160 net.cpp:156] Memory required for data: 46016
I0924 04:12:29.153965 23160 layer_factory.hpp:77] Creating layer lstm1_transform_1
I0924 04:12:29.153983 23160 net.cpp:91] Creating Layer lstm1_transform_1
I0924 04:12:29.153991 23160 net.cpp:425] lstm1_transform_1 <- h_conted_0
I0924 04:12:29.154006 23160 net.cpp:399] lstm1_transform_1 -> W_hc_h_0
I0924 04:12:29.154044 23152 net.cpp:141] Setting up lstm1_W_xc_x_slice
I0924 04:12:29.154115 23152 net.cpp:148] Top shape: 1 1 4000 (4000)
I0924 04:12:29.154122 23152 net.cpp:156] Memory required for data: 42016
I0924 04:12:29.154130 23152 layer_factory.hpp:77] Creating layer lstm1_h_conted_0
I0924 04:12:29.154145 23152 net.cpp:91] Creating Layer lstm1_h_conted_0
I0924 04:12:29.154152 23152 net.cpp:425] lstm1_h_conted_0 <- h_0
I0924 04:12:29.154155 23164 net.cpp:141] Setting up lstm1_h_conted_0
I0924 04:12:29.154162 23152 net.cpp:425] lstm1_h_conted_0 <- cont_1_lstm1_cont_slice_0_split_0
I0924 04:12:29.154183 23164 net.cpp:148] Top shape: 1 1 1000 (1000)
I0924 04:12:29.154186 23152 net.cpp:399] lstm1_h_conted_0 -> h_conted_0
I0924 04:12:29.154207 23164 net.cpp:156] Memory required for data: 46016
I0924 04:12:29.154224 23164 layer_factory.hpp:77] Creating layer lstm1_transform_1
I0924 04:12:29.154252 23164 net.cpp:91] Creating Layer lstm1_transform_1
I0924 04:12:29.154268 23164 net.cpp:425] lstm1_transform_1 <- h_conted_0
I0924 04:12:29.154294 23164 net.cpp:399] lstm1_transform_1 -> W_hc_h_0
I0924 04:12:29.154351 23152 net.cpp:141] Setting up lstm1_h_conted_0
I0924 04:12:29.154366 23152 net.cpp:148] Top shape: 1 1 1000 (1000)
I0924 04:12:29.154372 23152 net.cpp:156] Memory required for data: 46016
I0924 04:12:29.154381 23152 layer_factory.hpp:77] Creating layer lstm1_transform_1
I0924 04:12:29.154394 23152 net.cpp:91] Creating Layer lstm1_transform_1
I0924 04:12:29.154402 23152 net.cpp:425] lstm1_transform_1 <- h_conted_0
I0924 04:12:29.154413 23152 net.cpp:399] lstm1_transform_1 -> W_hc_h_0
I0924 04:12:29.154424 23132 net.cpp:141] Setting up lstm1_gate_input_1
I0924 04:12:29.154453 23132 net.cpp:148] Top shape: 1 1 4000 (4000)
I0924 04:12:29.154469 23132 net.cpp:156] Memory required for data: 78016
I0924 04:12:29.154482 23132 layer_factory.hpp:77] Creating layer lstm1_unit_1
I0924 04:12:29.154505 23132 net.cpp:91] Creating Layer lstm1_unit_1
I0924 04:12:29.154523 23132 net.cpp:425] lstm1_unit_1 <- c_0
I0924 04:12:29.154541 23132 net.cpp:425] lstm1_unit_1 <- gate_input_1
I0924 04:12:29.154559 23132 net.cpp:425] lstm1_unit_1 <- cont_1_lstm1_cont_slice_0_split_1
I0924 04:12:29.154582 23132 net.cpp:399] lstm1_unit_1 -> c_1
I0924 04:12:29.154633 23132 net.cpp:399] lstm1_unit_1 -> h_1
I0924 04:12:29.188733 23102 net.cpp:141] Setting up embedding
I0924 04:12:29.188779 23110 net.cpp:141] Setting up lstm1_transform_1
I0924 04:12:29.188788 23102 net.cpp:148] Top shape: 1 1 500 (500)
I0924 04:12:29.188796 23110 net.cpp:148] Top shape: 1 1 4000 (4000)
I0924 04:12:29.188796 23102 net.cpp:156] Memory required for data: 22408
I0924 04:12:29.188802 23110 net.cpp:156] Memory required for data: 62016
I0924 04:12:29.188822 23110 layer_factory.hpp:77] Creating layer lstm1_gate_input_1
I0924 04:12:29.188822 23102 layer_factory.hpp:77] Creating layer lstm1
I0924 04:12:29.188848 23132 net.cpp:141] Setting up lstm1_unit_1
I0924 04:12:29.188868 23132 net.cpp:148] Top shape: 1 1 1000 (1000)
I0924 04:12:29.188855 23102 net.cpp:91] Creating Layer lstm1
I0924 04:12:29.188855 23110 net.cpp:91] Creating Layer lstm1_gate_input_1
I0924 04:12:29.188879 23132 net.cpp:148] Top shape: 1 1 1000 (1000)
I0924 04:12:29.188880 23102 net.cpp:425] lstm1 <- embedded_input_frames
I0924 04:12:29.188885 23132 net.cpp:156] Memory required for data: 86016
I0924 04:12:29.188892 23102 net.cpp:425] lstm1 <- cont_sentence_input_1_split_0
I0924 04:12:29.188885 23110 net.cpp:425] lstm1_gate_input_1 <- W_hc_h_0
I0924 04:12:29.188902 23132 layer_factory.hpp:77] Creating layer lstm1_
I0924 04:12:29.188910 23110 net.cpp:425] lstm1_gate_input_1 <- W_xc_x_1
I0924 04:12:29.188916 23132 net.cpp:91] Creating Layer lstm1_
I0924 04:12:29.188925 23132 net.cpp:425] lstm1_ <- c_1
I0924 04:12:29.188936 23132 net.cpp:399] lstm1_ -> c_T
I0924 04:12:29.188940 23102 net.cpp:399] lstm1 -> lstm1
I0924 04:12:29.188948 23110 net.cpp:399] lstm1_gate_input_1 -> gate_input_1
I0924 04:12:29.188959 23102 recurrent_layer.cpp:20] Initializing recurrent layer: assuming input batch contains 1 timesteps of 1 independent streams.
I0924 04:12:29.195750 23102 net.cpp:49] Initializing net from parameters: 
layer {
  name: "lstm1_"
  type: "Input"
  top: "x"
  top: "cont"
  input_param {
    shape {
      dim: 1
      dim: 1
      dim: 500
    }
    shape {
      dim: 1
      dim: 1
    }
  }
}
layer {
  name: "lstm1_"
  type: "Input"
  top: "c_0"
  top: "h_0"
  input_param {
    shape {
      dim: 1
      dim: 1
      dim: 1000
    }
    shape {
      dim: 1
      dim: 1
      dim: 1000
    }
  }
}
layer {
  name: "lstm1_cont_slice"
  type: "Slice"
  bottom: "cont"
  top: "cont_1"
  slice_param {
    axis: 0
  }
}
layer {
  name: "lstm1_x_transform"
  type: "InnerProduct"
  bottom: "x"
  top: "W_xc_x"
  param {
    name: "W_xc"
  }
  param {
    name: "b_c"
  }
  propagate_down: true
  inner_product_param {
    num_output: 4000
    bias_term: true
    weight_filler {
      type: "uniform"
      min: -0.08
      max: 0.08
    }
    bias_filler {
      type: "constant"
      value: 0
    }
    axis: 2
  }
}
layer {
  name: "lstm1_W_xc_x_slice"
  type: "Slice"
  bottom: "W_xc_x"
  top: "W_xc_x_1"
  slice_param {
    axis: 0
  }
}
layer {
  name: "lstm1_h_conted_0"
  type: "Scale"
  bottom: "h_0"
  bottom: "cont_1"
  top: "h_conted_0"
  scale_param {
    axis: 0
  }
}
layer {
  name: "lstm1_transform_1"
  type: "InnerProduct"
  bottom: "h_conted_0"
  top: "W_hc_h_0"
  param {
    name: "W_hc"
  }
  inner_product_param {
    num_output: 4000
    bias_term: false
    weight_filler {
      type: "uniform"
      min: -0.08
      max: 0.08
    }
    axis: 2
  }
}
layer {
  name: "lstm1_gate_input_1"
  type: "Eltwise"
  bottom: "W_hc_h_0"
  bottom: "W_xc_x_1"
  top: "gate_input_1"
  eltwise_param {
    operation: SUM
  }
}
layer {
  name: "lstm1_unit_1"
  type: "LSTMUnit"
  bottom: "c_0"
  bottom: "gate_input_1"
  bottom: "cont_1"
  top: "c_1"
  top: "h_1"
}
layer {
  name: "lstm1_"
  type: "Split"
  bottom: "c_1"
  top: "c_T"
}
layer {
  name: "lstm1_h_concat"
  type: "Concat"
  bottom: "h_1"
  top: "h"
  concat_param {
    axis: 0
  }
}
layer {
  name: "h_pseudoloss"
  type: "Reduction"
  bottom: "h"
  top: "h_pseudoloss"
  loss_weight: 1
}
I0924 04:12:29.195971 23102 layer_factory.hpp:77] Creating layer lstm1_
I0924 04:12:29.195997 23102 net.cpp:91] Creating Layer lstm1_
I0924 04:12:29.196009 23102 net.cpp:399] lstm1_ -> x
I0924 04:12:29.196038 23102 net.cpp:399] lstm1_ -> cont
I0924 04:12:29.196590 23132 net.cpp:141] Setting up lstm1_
I0924 04:12:29.196627 23132 net.cpp:148] Top shape: 1 1 1000 (1000)
I0924 04:12:29.196643 23132 net.cpp:156] Memory required for data: 90016
I0924 04:12:29.196661 23132 layer_factory.hpp:77] Creating layer lstm1_h_concat
I0924 04:12:29.196687 23132 net.cpp:91] Creating Layer lstm1_h_concat
I0924 04:12:29.196705 23132 net.cpp:425] lstm1_h_concat <- h_1
I0924 04:12:29.196735 23132 net.cpp:399] lstm1_h_concat -> h
I0924 04:12:29.196868 23132 net.cpp:141] Setting up lstm1_h_concat
I0924 04:12:29.196894 23132 net.cpp:148] Top shape: 1 1 1000 (1000)
I0924 04:12:29.196910 23132 net.cpp:156] Memory required for data: 94016
I0924 04:12:29.196923 23132 layer_factory.hpp:77] Creating layer h_pseudoloss
I0924 04:12:29.196962 23132 net.cpp:91] Creating Layer h_pseudoloss
I0924 04:12:29.196979 23132 net.cpp:425] h_pseudoloss <- h
I0924 04:12:29.197001 23132 net.cpp:399] h_pseudoloss -> h_pseudoloss
I0924 04:12:29.197279 23132 net.cpp:141] Setting up h_pseudoloss
…
I0924 04:12:29.197597 23132 net.cpp:219] lstm1_ does not need backward computation.
I0924 04:12:29.197608 23132 net.cpp:261] This network produces output c_T
I0924 04:12:29.197623 23132 net.cpp:261] This network produces output h_pseudoloss
I0924 04:12:29.197664 23132 net.cpp:274] Network initialization done.
I0924 04:12:29.197804 23132 recurrent_layer.cpp:150] Adding parameter 0: W_xc
I0924 04:12:29.197826 23132 recurrent_layer.cpp:150] Adding parameter 1: b_c
I0924 04:12:29.197840 23132 recurrent_layer.cpp:150] Adding parameter 2: W_hc
I0924 04:12:29.198148 23132 net.cpp:141] Setting up lstm1
I0924 04:12:29.198179 23132 net.cpp:148] Top shape: 1 1 1000 (1000)
I0924 04:12:29.198192 23132 net.cpp:156] Memory required for data: 26408
I0924 04:12:29.198232 23132 layer_factory.hpp:77] Creating layer concat
I0924 04:12:29.198264 23132 net.cpp:91] Creating Layer concat
I0924 04:12:29.198283 23132 net.cpp:425] concat <- lstm1
I0924 04:12:29.198302 23132 net.cpp:425] concat <- embedded_input_sentence
I0924 04:12:29.198321 23132 net.cpp:425] concat <- reshaped_stage_indicator
I0924 04:12:29.198345 23132 net.cpp:399] concat -> lstm1_video_sequence
I0924 04:12:29.198458 23132 net.cpp:141] Setting up concat
I0924 04:12:29.198484 23132 net.cpp:148] Top shape: 1 1 1501 (1501)
I0924 04:12:29.198498 23132 net.cpp:156] Memory required for data: 32412
I0924 04:12:29.198513 23132 layer_factory.hpp:77] Creating layer lstm2
I0924 04:12:29.198545 23132 net.cpp:91] Creating Layer lstm2
I0924 04:12:29.198562 23132 net.cpp:425] lstm2 <- lstm1_video_sequence
I0924 04:12:29.198580 23132 net.cpp:425] lstm2 <- cont_sentence_input_1_split_1
I0924 04:12:29.198631 23132 net.cpp:399] lstm2 -> lstm2
I0924 04:12:29.198664 23132 recurrent_layer.cpp:20] Initializing recurrent layer: assuming input batch contains 1 timesteps of 1 independent streams.
I0924 04:12:29.198849 23110 net.cpp:141] Setting up lstm1_gate_input_1
I0924 04:12:29.198896 23110 net.cpp:148] Top shape: 1 1 4000 (4000)
I0924 04:12:29.198905 23110 net.cpp:156] Memory required for data: 78016
I0924 04:12:29.198918 23110 layer_factory.hpp:77] Creating layer lstm1_unit_1
I0924 04:12:29.198942 23110 net.cpp:91] Creating Layer lstm1_unit_1
I0924 04:12:29.198953 23110 net.cpp:425] lstm1_unit_1 <- c_0
I0924 04:12:29.198969 23110 net.cpp:425] lstm1_unit_1 <- gate_input_1
I0924 04:12:29.198981 23110 net.cpp:425] lstm1_unit_1 <- cont_1_lstm1_cont_slice_0_split_1
I0924 04:12:29.198997 23110 net.cpp:399] lstm1_unit_1 -> c_1
I0924 04:12:29.199018 23110 net.cpp:399] lstm1_unit_1 -> h_1
I0924 04:12:29.199142 23132 net.cpp:49] Initializing net from parameters: 
layer {
  name: "lstm2_"
  type: "Input"
  top: "x"
  top: "cont"
  input_param {
    shape {
      dim: 1
      dim: 1
      dim: 1501
    }
    shape {
      dim: 1
      dim: 1
    }
  }
}
layer {
  name: "lstm2_"
  type: "Input"
  top: "c_0"
  top: "h_0"
  input_param {
    shape {
      dim: 1
      dim: 1
      dim: 1000
    }
    shape {
      dim: 1
      dim: 1
      dim: 1000
    }
  }
}
layer {
  name: "lstm2_cont_slice"
  type: "Slice"
  bottom: "cont"
  top: "cont_1"
  slice_param {
    axis: 0
  }
}
layer {
  name: "lstm2_x_transform"
  type: "InnerProduct"
  bottom: "x"
  top: "W_xc_x"
  param {
    name: "W_xc"
  }
  param {
    name: "b_c"
  }
  propagate_down: true
  inner_product_param {
    num_output: 4000
    bias_term: true
    weight_filler {
      type: "uniform"
      min: -0.08
      max: 0.08
    }
    bias_filler {
      type: "constant"
      value: 0
    }
    axis: 2
  }
}
layer {
  name: "lstm2_W_xc_x_slice"
  type: "Slice"
  bottom: "W_xc_x"
  top: "W_xc_x_1"
  slice_param {
    axis: 0
  }
}
layer {
  name: "lstm2_h_conted_0"
  type: "Scale"
  bottom: "h_0"
  bottom: "cont_1"
  top: "h_conted_0"
  scale_param {
    axis: 0
  }
}
layer {
  name: "lstm2_transform_1"
  type: "InnerProduct"
  bottom: "h_conted_0"
  top: "W_hc_h_0"
  param {
    name: "W_hc"
  }
  inner_product_param {
    num_output: 4000
    bias_term: false
    weight_filler {
      type: "uniform"
      min: -0.08
      max: 0.08
    }
    axis: 2
  }
}
layer {
  name: "lstm2_gate_input_1"
  type: "Eltwise"
  bottom: "W_hc_h_0"
  bottom: "W_xc_x_1"
  top: "gate_input_1"
  eltwise_param {
    operation: SUM
  }
}
layer {
  name: "lstm2_unit_1"
  type: "LSTMUnit"
  bottom: "c_0"
  bottom: "gate_input_1"
  bottom: "cont_1"
  top: "c_1"
  top: "h_1"
}
layer {
  name: "lstm2_"
  type: "Split"
  bottom: "c_1"
  top: "c_T"
}
layer {
  name: "lstm2_h_concat"
  type: "Concat"
  bottom: "h_1"
  top: "h"
  concat_param {
    axis: 0
  }
}
layer {
  name: "h_pseudoloss"
  type: "Reduction"
  bottom: "h"
  top: "h_pseudoloss"
  loss_weight: 1
}
I0924 04:12:29.199229 23110 net.cpp:141] Setting up lstm1_unit_1
I0924 04:12:29.199250 23110 net.cpp:148] Top shape: 1 1 1000 (1000)
I0924 04:12:29.199266 23110 net.cpp:148] Top shape: 1 1 1000 (1000)
I0924 04:12:29.199277 23110 net.cpp:156] Memory required for data: 86016
I0924 04:12:29.201686 23132 layer_factory.hpp:77] Creating layer lstm2_
I0924 04:12:29.201759 23132 net.cpp:91] Creating Layer lstm2_
I0924 04:12:29.201759 23102 net.cpp:141] Setting up lstm1_
I0924 04:12:29.201778 23132 net.cpp:399] lstm2_ -> x
I0924 04:12:29.201789 23102 net.cpp:148] Top shape: 1 1 500 (500)
I0924 04:12:29.201802 23102 net.cpp:148] Top shape: 1 1 (1)
I0924 04:12:29.201807 23132 net.cpp:399] lstm2_ -> cont
I0924 04:12:29.201808 23102 net.cpp:156] Memory required for data: 2004
I0924 04:12:29.201822 23102 layer_factory.hpp:77] Creating layer lstm1_
I0924 04:12:29.201838 23102 net.cpp:91] Creating Layer lstm1_
I0924 04:12:29.201858 23102 net.cpp:399] lstm1_ -> c_0
I0924 04:12:29.201881 23102 net.cpp:399] lstm1_ -> h_0
I0924 04:12:29.201953 23132 net.cpp:141] Setting up lstm2_
I0924 04:12:29.201968 23132 net.cpp:148] Top shape: 1 1 1501 (1501)
I0924 04:12:29.201980 23132 net.cpp:148] Top shape: 1 1 (1)
I0924 04:12:29.201987 23132 net.cpp:156] Memory required for data: 6008
I0924 04:12:29.202000 23132 layer_factory.hpp:77] Creating layer lstm2_
I0924 04:12:29.202018 23132 net.cpp:91] Creating Layer lstm2_
I0924 04:12:29.202030 23132 net.cpp:399] lstm2_ -> c_0
I0924 04:12:29.202050 23132 net.cpp:399] lstm2_ -> h_0
I0924 04:12:29.202061 23102 net.cpp:141] Setting up lstm1_
I0924 04:12:29.202081 23102 net.cpp:148] Top shape: 1 1 1000 (1000)
I0924 04:12:29.202095 23102 net.cpp:148] Top shape: 1 1 1000 (1000)
I0924 04:12:29.202105 23102 net.cpp:156] Memory required for data: 10004
I0924 04:12:29.202113 23102 layer_factory.hpp:77] Creating layer lstm1_cont_slice
I0924 04:12:29.202132 23102 net.cpp:91] Creating Layer lstm1_cont_slice
I0924 04:12:29.202136 23132 net.cpp:141] Setting up lstm2_
I0924 04:12:29.202143 23102 net.cpp:425] lstm1_cont_slice <- cont
I0924 04:12:29.202152 23132 net.cpp:148] Top shape: 1 1 1000 (1000)
I0924 04:12:29.202164 23132 net.cpp:148] Top shape: 1 1 1000 (1000)
I0924 04:12:29.202163 23102 net.cpp:399] lstm1_cont_slice -> cont_1
I0924 04:12:29.202185 23132 net.cpp:156] Memory required for data: 14008
I0924 04:12:29.202193 23132 layer_factory.hpp:77] Creating layer lstm2_cont_slice
I0924 04:12:29.202214 23132 net.cpp:91] Creating Layer lstm2_cont_slice
I0924 04:12:29.202225 23132 net.cpp:425] lstm2_cont_slice <- cont
I0924 04:12:29.202239 23132 net.cpp:399] lstm2_cont_slice -> cont_1
I0924 04:12:29.202272 23114 net.cpp:141] Setting up lstm1_transform_1
I0924 04:12:29.202309 23114 net.cpp:148] Top shape: 1 1 4000 (4000)
I0924 04:12:29.202316 23114 net.cpp:156] Memory required for data: 62016
I0924 04:12:29.202317 23132 net.cpp:141] Setting up lstm2_cont_slice
I0924 04:12:29.202332 23132 net.cpp:148] Top shape: 1 1 (1)
I0924 04:12:29.202339 23132 net.cpp:156] Memory required for data: 14012
I0924 04:12:29.202339 23114 layer_factory.hpp:77] Creating layer lstm1_gate_input_1
I0924 04:12:29.202347 23132 layer_factory.hpp:77] Creating layer cont_1_lstm2_cont_slice_0_split
I0924 04:12:29.202360 23132 net.cpp:91] Creating Layer cont_1_lstm2_cont_slice_0_split
I0924 04:12:29.202364 23102 net.cpp:141] Setting up lstm1_cont_slice
I0924 04:12:29.202370 23114 net.cpp:91] Creating Layer lstm1_gate_input_1
I0924 04:12:29.202368 23132 net.cpp:425] cont_1_lstm2_cont_slice_0_split <- cont_1
I0924 04:12:29.202399 23114 net.cpp:425] lstm1_gate_input_1 <- W_hc_h_0
I0924 04:12:29.202401 23102 net.cpp:148] Top shape: 1 1 (1)
I0924 04:12:29.202406 23132 net.cpp:399] cont_1_lstm2_cont_slice_0_split -> cont_1_lstm2_cont_slice_0_split_0
I0924 04:12:29.202411 23114 net.cpp:425] lstm1_gate_input_1 <- W_xc_x_1
I0924 04:12:29.202414 23102 net.cpp:156] Memory required for data: 10008
I0924 04:12:29.202425 23114 net.cpp:399] lstm1_gate_input_1 -> gate_input_1
I0924 04:12:29.202425 23102 layer_factory.hpp:77] Creating layer cont_1_lstm1_cont_slice_0_split
I0924 04:12:29.202425 23132 net.cpp:399] cont_1_lstm2_cont_slice_0_split -> cont_1_lstm2_cont_slice_0_split_1
I0924 04:12:29.202453 23102 net.cpp:91] Creating Layer cont_1_lstm1_cont_slice_0_split
I0924 04:12:29.202464 23102 net.cpp:425] cont_1_lstm1_cont_slice_0_split <- cont_1
I0924 04:12:29.202519 23102 net.cpp:399] cont_1_lstm1_cont_slice_0_split -> cont_1_lstm1_cont_slice_0_split_0
I0924 04:12:29.202538 23132 net.cpp:141] Setting up cont_1_lstm2_cont_slice_0_split
I0924 04:12:29.202463 23110 layer_factory.hpp:77] Creating layer lstm1_
I0924 04:12:29.202561 23132 net.cpp:148] Top shape: 1 1 (1)
I0924 04:12:29.202539 23102 net.cpp:399] cont_1_lstm1_cont_slice_0_split -> cont_1_lstm1_cont_slice_0_split_1
I0924 04:12:29.202576 23132 net.cpp:148] Top shape: 1 1 (1)
I0924 04:12:29.202584 23132 net.cpp:156] Memory required for data: 14020
I0924 04:12:29.202591 23132 layer_factory.hpp:77] Creating layer lstm2_x_transform
I0924 04:12:29.202635 23132 net.cpp:91] Creating Layer lstm2_x_transform
I0924 04:12:29.202644 23132 net.cpp:425] lstm2_x_transform <- x
I0924 04:12:29.202658 23132 net.cpp:399] lstm2_x_transform -> W_xc_x
I0924 04:12:29.202708 23102 net.cpp:141] Setting up cont_1_lstm1_cont_slice_0_split
I0924 04:12:29.202728 23102 net.cpp:148] Top shape: 1 1 (1)
I0924 04:12:29.202739 23102 net.cpp:148] Top shape: 1 1 (1)
I0924 04:12:29.202749 23102 net.cpp:156] Memory required for data: 10016
I0924 04:12:29.202757 23102 layer_factory.hpp:77] Creating layer lstm1_x_transform
I0924 04:12:29.202778 23102 net.cpp:91] Creating Layer lstm1_x_transform
I0924 04:12:29.202790 23102 net.cpp:425] lstm1_x_transform <- x
I0924 04:12:29.202807 23102 net.cpp:399] lstm1_x_transform -> W_xc_x
I0924 04:12:29.202857 23110 net.cpp:91] Creating Layer lstm1_
I0924 04:12:29.202872 23110 net.cpp:425] lstm1_ <- c_1
I0924 04:12:29.202893 23110 net.cpp:399] lstm1_ -> c_T
I0924 04:12:29.226703 23114 net.cpp:141] Setting up lstm1_gate_input_1
I0924 04:12:29.226763 23114 net.cpp:148] Top shape: 1 1 4000 (4000)
I0924 04:12:29.226773 23114 net.cpp:156] Memory required for data: 78016
I0924 04:12:29.226788 23114 layer_factory.hpp:77] Creating layer lstm1_unit_1
I0924 04:12:29.226812 23114 net.cpp:91] Creating Layer lstm1_unit_1
I0924 04:12:29.226821 23114 net.cpp:425] lstm1_unit_1 <- c_0
I0924 04:12:29.226835 23114 net.cpp:425] lstm1_unit_1 <- gate_input_1
I0924 04:12:29.226845 23114 net.cpp:425] lstm1_unit_1 <- cont_1_lstm1_cont_slice_0_split_1
I0924 04:12:29.226860 23114 net.cpp:399] lstm1_unit_1 -> c_1
I0924 04:12:29.226878 23114 net.cpp:399] lstm1_unit_1 -> h_1
I0924 04:12:29.227016 23114 net.cpp:141] Setting up lstm1_unit_1
I0924 04:12:29.227030 23114 net.cpp:148] Top shape: 1 1 1000 (1000)
I0924 04:12:29.227040 23114 net.cpp:148] Top shape: 1 1 1000 (1000)
I0924 04:12:29.227046 23114 net.cpp:156] Memory required for data: 86016
I0924 04:12:29.227053 23114 layer_factory.hpp:77] Creating layer lstm1_
I0924 04:12:29.227066 23114 net.cpp:91] Creating Layer lstm1_
I0924 04:12:29.227073 23114 net.cpp:425] lstm1_ <- c_1
I0924 04:12:29.227083 23114 net.cpp:399] lstm1_ -> c_T
I0924 04:12:29.227135 23114 net.cpp:141] Setting up lstm1_
I0924 04:12:29.227147 23114 net.cpp:148] Top shape: 1 1 1000 (1000)
I0924 04:12:29.227154 23114 net.cpp:156] Memory required for data: 90016
I0924 04:12:29.227161 23114 layer_factory.hpp:77] Creating layer lstm1_h_concat
I0924 04:12:29.227177 23114 net.cpp:91] Creating Layer lstm1_h_concat
I0924 04:12:29.227185 23114 net.cpp:425] lstm1_h_concat <- h_1
I0924 04:12:29.227195 23114 net.cpp:399] lstm1_h_concat -> h
I0924 04:12:29.227247 23114 net.cpp:141] Setting up lstm1_h_concat
I0924 04:12:29.227259 23114 net.cpp:148] Top shape: 1 1 1000 (1000)
I0924 04:12:29.227267 23114 net.cpp:156] Memory required for data: 94016
I0924 04:12:29.227273 23114 layer_factory.hpp:77] Creating layer h_pseudoloss
I0924 04:12:29.227289 23114 net.cpp:91] Creating Layer h_pseudoloss
I0924 04:12:29.227298 23114 net.cpp:425] h_pseudoloss <- h
I0924 04:12:29.227306 23114 net.cpp:399] h_pseudoloss -> h_pseudoloss
I0924 04:12:29.227443 23114 net.cpp:141] Setting up h_pseudoloss
…
I0924 04:12:29.227586 23114 net.cpp:219] lstm1_ does not need backward computation.
I0924 04:12:29.227592 23114 net.cpp:261] This network produces output c_T
I0924 04:12:29.227599 23114 net.cpp:261] This network produces output h_pseudoloss
I0924 04:12:29.227624 23114 net.cpp:274] Network initialization done.
I0924 04:12:29.227695 23114 recurrent_layer.cpp:150] Adding parameter 0: W_xc
I0924 04:12:29.227705 23114 recurrent_layer.cpp:150] Adding parameter 1: b_c
I0924 04:12:29.227711 23114 recurrent_layer.cpp:150] Adding parameter 2: W_hc
I0924 04:12:29.227862 23114 net.cpp:141] Setting up lstm1
I0924 04:12:29.227877 23114 net.cpp:148] Top shape: 1 1 1000 (1000)
I0924 04:12:29.227885 23114 net.cpp:156] Memory required for data: 26408
I0924 04:12:29.227906 23114 layer_factory.hpp:77] Creating layer concat
I0924 04:12:29.227919 23114 net.cpp:91] Creating Layer concat
I0924 04:12:29.227927 23114 net.cpp:425] concat <- lstm1
I0924 04:12:29.227936 23114 net.cpp:425] concat <- embedded_input_sentence
I0924 04:12:29.227946 23114 net.cpp:425] concat <- reshaped_stage_indicator
I0924 04:12:29.227955 23114 net.cpp:399] concat -> lstm1_video_sequence
I0924 04:12:29.228006 23114 net.cpp:141] Setting up concat
I0924 04:12:29.228019 23114 net.cpp:148] Top shape: 1 1 1501 (1501)
I0924 04:12:29.228026 23114 net.cpp:156] Memory required for data: 32412
I0924 04:12:29.228034 23114 layer_factory.hpp:77] Creating layer lstm2
I0924 04:12:29.228051 23114 net.cpp:91] Creating Layer lstm2
I0924 04:12:29.228060 23114 net.cpp:425] lstm2 <- lstm1_video_sequence
I0924 04:12:29.228068 23114 net.cpp:425] lstm2 <- cont_sentence_input_1_split_1
I0924 04:12:29.228078 23114 net.cpp:399] lstm2 -> lstm2
I0924 04:12:29.228094 23114 recurrent_layer.cpp:20] Initializing recurrent layer: assuming input batch contains 1 timesteps of 1 independent streams.
I0924 04:12:29.228466 23114 net.cpp:49] Initializing net from parameters: 
layer {
  name: "lstm2_"
  type: "Input"
  top: "x"
  top: "cont"
  input_param {
    shape {
      dim: 1
      dim: 1
      dim: 1501
    }
    shape {
      dim: 1
      dim: 1
    }
  }
}
layer {
  name: "lstm2_"
  type: "Input"
  top: "c_0"
  top: "h_0"
  input_param {
    shape {
      dim: 1
      dim: 1
      dim: 1000
    }
    shape {
      dim: 1
      dim: 1
      dim: 1000
    }
  }
}
layer {
  name: "lstm2_cont_slice"
  type: "Slice"
  bottom: "cont"
  top: "cont_1"
  slice_param {
    axis: 0
  }
}
layer {
  name: "lstm2_x_transform"
  type: "InnerProduct"
  bottom: "x"
  top: "W_xc_x"
  param {
    name: "W_xc"
  }
  param {
    name: "b_c"
  }
  propagate_down: true
  inner_product_param {
    num_output: 4000
    bias_term: true
    weight_filler {
      type: "uniform"
      min: -0.08
      max: 0.08
    }
    bias_filler {
      type: "constant"
      value: 0
    }
    axis: 2
  }
}
layer {
  name: "lstm2_W_xc_x_slice"
  type: "Slice"
  bottom: "W_xc_x"
  top: "W_xc_x_1"
  slice_param {
    axis: 0
  }
}
layer {
  name: "lstm2_h_conted_0"
  type: "Scale"
  bottom: "h_0"
  bottom: "cont_1"
  top: "h_conted_0"
  scale_param {
    axis: 0
  }
}
layer {
  name: "lstm2_transform_1"
  type: "InnerProduct"
  bottom: "h_conted_0"
  top: "W_hc_h_0"
  param {
    name: "W_hc"
  }
  inner_product_param {
    num_output: 4000
    bias_term: false
    weight_filler {
      type: "uniform"
      min: -0.08
      max: 0.08
    }
    axis: 2
  }
}
layer {
  name: "lstm2_gate_input_1"
  type: "Eltwise"
  bottom: "W_hc_h_0"
  bottom: "W_xc_x_1"
  top: "gate_input_1"
  eltwise_param {
    operation: SUM
  }
}
layer {
  name: "lstm2_unit_1"
  type: "LSTMUnit"
  bottom: "c_0"
  bottom: "gate_input_1"
  bottom: "cont_1"
  top: "c_1"
  top: "h_1"
}
layer {
  name: "lstm2_"
  type: "Split"
  bottom: "c_1"
  top: "c_T"
}
layer {
  name: "lstm2_h_concat"
  type: "Concat"
  bottom: "h_1"
  top: "h"
  concat_param {
    axis: 0
  }
}
layer {
  name: "h_pseudoloss"
  type: "Reduction"
  bottom: "h"
  top: "h_pseudoloss"
  loss_weight: 1
}
I0924 04:12:29.228595 23114 layer_factory.hpp:77] Creating layer lstm2_
I0924 04:12:29.228611 23114 net.cpp:91] Creating Layer lstm2_
I0924 04:12:29.228621 23114 net.cpp:399] lstm2_ -> x
I0924 04:12:29.228636 23114 net.cpp:399] lstm2_ -> cont
I0924 04:12:29.228724 23114 net.cpp:141] Setting up lstm2_
I0924 04:12:29.228739 23114 net.cpp:148] Top shape: 1 1 1501 (1501)
I0924 04:12:29.228749 23114 net.cpp:148] Top shape: 1 1 (1)
I0924 04:12:29.228754 23114 net.cpp:156] Memory required for data: 6008
I0924 04:12:29.228762 23114 layer_factory.hpp:77] Creating layer lstm2_
I0924 04:12:29.228775 23114 net.cpp:91] Creating Layer lstm2_
I0924 04:12:29.228788 23114 net.cpp:399] lstm2_ -> c_0
I0924 04:12:29.228804 23114 net.cpp:399] lstm2_ -> h_0
I0924 04:12:29.228888 23114 net.cpp:141] Setting up lstm2_
I0924 04:12:29.228901 23114 net.cpp:148] Top shape: 1 1 1000 (1000)
I0924 04:12:29.228909 23114 net.cpp:148] Top shape: 1 1 1000 (1000)
I0924 04:12:29.228915 23114 net.cpp:156] Memory required for data: 14008
I0924 04:12:29.228922 23114 layer_factory.hpp:77] Creating layer lstm2_cont_slice
I0924 04:12:29.228938 23114 net.cpp:91] Creating Layer lstm2_cont_slice
I0924 04:12:29.228946 23114 net.cpp:425] lstm2_cont_slice <- cont
I0924 04:12:29.228956 23114 net.cpp:399] lstm2_cont_slice -> cont_1
I0924 04:12:29.229007 23114 net.cpp:141] Setting up lstm2_cont_slice
I0924 04:12:29.229020 23114 net.cpp:148] Top shape: 1 1 (1)
I0924 04:12:29.229027 23114 net.cpp:156] Memory required for data: 14012
I0924 04:12:29.229033 23114 layer_factory.hpp:77] Creating layer cont_1_lstm2_cont_slice_0_split
I0924 04:12:29.229048 23114 net.cpp:91] Creating Layer cont_1_lstm2_cont_slice_0_split
I0924 04:12:29.229056 23114 net.cpp:425] cont_1_lstm2_cont_slice_0_split <- cont_1
I0924 04:12:29.229066 23114 net.cpp:399] cont_1_lstm2_cont_slice_0_split -> cont_1_lstm2_cont_slice_0_split_0
I0924 04:12:29.229079 23114 net.cpp:399] cont_1_lstm2_cont_slice_0_split -> cont_1_lstm2_cont_slice_0_split_1
I0924 04:12:29.229156 23114 net.cpp:141] Setting up cont_1_lstm2_cont_slice_0_split
I0924 04:12:29.229168 23114 net.cpp:148] Top shape: 1 1 (1)
I0924 04:12:29.229177 23114 net.cpp:148] Top shape: 1 1 (1)
I0924 04:12:29.229184 23114 net.cpp:156] Memory required for data: 14020
I0924 04:12:29.229192 23114 layer_factory.hpp:77] Creating layer lstm2_x_transform
I0924 04:12:29.229208 23114 net.cpp:91] Creating Layer lstm2_x_transform
I0924 04:12:29.229215 23114 net.cpp:425] lstm2_x_transform <- x
I0924 04:12:29.229228 23114 net.cpp:399] lstm2_x_transform -> W_xc_x
I0924 04:12:29.237799 23106 net.cpp:141] Setting up lstm1_transform_1
I0924 04:12:29.237860 23106 net.cpp:148] Top shape: 1 1 4000 (4000)
I0924 04:12:29.237869 23106 net.cpp:156] Memory required for data: 62016
I0924 04:12:29.237897 23106 layer_factory.hpp:77] Creating layer lstm1_gate_input_1
I0924 04:12:29.238190 23106 net.cpp:91] Creating Layer lstm1_gate_input_1
I0924 04:12:29.238207 23106 net.cpp:425] lstm1_gate_input_1 <- W_hc_h_0
I0924 04:12:29.238219 23106 net.cpp:425] lstm1_gate_input_1 <- W_xc_x_1
I0924 04:12:29.247791 23106 net.cpp:399] lstm1_gate_input_1 -> gate_input_1
I0924 04:12:29.250794 23164 net.cpp:141] Setting up lstm1_transform_1
I0924 04:12:29.250825 23138 net.cpp:141] Setting up embedding
I0924 04:12:29.250807 23110 net.cpp:141] Setting up lstm1_
I0924 04:12:29.250855 23160 net.cpp:141] Setting up lstm1_transform_1
I0924 04:12:29.250864 23110 net.cpp:148] Top shape: 1 1 1000 (1000)
I0924 04:12:29.250856 23164 net.cpp:148] Top shape: 1 1 4000 (4000)
I0924 04:12:29.250874 23160 net.cpp:148] Top shape: 1 1 4000 (4000)
I0924 04:12:29.250876 23110 net.cpp:156] Memory required for data: 90016
I0924 04:12:29.250879 23164 net.cpp:156] Memory required for data: 62016
I0924 04:12:29.250856 23138 net.cpp:148] Top shape: 1 1 500 (500)
I0924 04:12:29.250896 23110 layer_factory.hpp:77] Creating layer lstm1_h_concat
I0924 04:12:29.250903 23164 layer_factory.hpp:77] Creating layer lstm1_gate_input_1
I0924 04:12:29.250890 23160 net.cpp:156] Memory required for data: 62016
I0924 04:12:29.250917 23138 net.cpp:156] Memory required for data: 22408
I0924 04:12:29.250919 23110 net.cpp:91] Creating Layer lstm1_h_concat
I0924 04:12:29.250929 23106 net.cpp:141] Setting up lstm1_gate_input_1
I0924 04:12:29.250946 23138 layer_factory.hpp:77] Creating layer lstm1
I0924 04:12:29.250932 23164 net.cpp:91] Creating Layer lstm1_gate_input_1
I0924 04:12:29.250958 23106 net.cpp:148] Top shape: 1 1 4000 (4000)
I0924 04:12:29.250962 23164 net.cpp:425] lstm1_gate_input_1 <- W_hc_h_0
I0924 04:12:29.250929 23160 layer_factory.hpp:77] Creating layer lstm1_gate_input_1
I0924 04:12:29.250958 23110 net.cpp:425] lstm1_h_concat <- h_1
I0924 04:12:29.250978 23138 net.cpp:91] Creating Layer lstm1
I0924 04:12:29.250982 23164 net.cpp:425] lstm1_gate_input_1 <- W_xc_x_1
I0924 04:12:29.250990 23160 net.cpp:91] Creating Layer lstm1_gate_input_1
I0924 04:12:29.250998 23164 net.cpp:399] lstm1_gate_input_1 -> gate_input_1
I0924 04:12:29.251003 23110 net.cpp:399] lstm1_h_concat -> h
I0924 04:12:29.250993 23138 net.cpp:425] lstm1 <- embedded_input_frames
I0924 04:12:29.251013 23160 net.cpp:425] lstm1_gate_input_1 <- W_hc_h_0
I0924 04:12:29.251021 23138 net.cpp:425] lstm1 <- cont_sentence_input_1_split_0
I0924 04:12:29.251024 23160 net.cpp:425] lstm1_gate_input_1 <- W_xc_x_1
I0924 04:12:29.251049 23138 net.cpp:399] lstm1 -> lstm1
I0924 04:12:29.251057 23160 net.cpp:399] lstm1_gate_input_1 -> gate_input_1
…
I0924 04:13:14.554496 23529 layer_factory.hpp:77] Creating layer lstm2_
I0924 04:13:14.554507 23529 net.cpp:91] Creating Layer lstm2_
I0924 04:13:14.554515 23529 net.cpp:425] lstm2_ <- c_1
I0924 04:13:14.554527 23529 net.cpp:399] lstm2_ -> c_T
I0924 04:13:14.554585 23529 net.cpp:141] Setting up lstm2_
I0924 04:13:14.554612 23529 net.cpp:148] Top shape: 1 1 1000 (1000)
I0924 04:13:14.554621 23529 net.cpp:156] Memory required for data: 94020
I0924 04:13:14.554628 23529 layer_factory.hpp:77] Creating layer lstm2_h_concat
I0924 04:13:14.554647 23529 net.cpp:91] Creating Layer lstm2_h_concat
I0924 04:13:14.554656 23529 net.cpp:425] lstm2_h_concat <- h_1
I0924 04:13:14.554672 23529 net.cpp:399] lstm2_h_concat -> h
I0924 04:13:14.554673 23543 net.cpp:141] Setting up lstm2_unit_1
I0924 04:13:14.554699 23543 net.cpp:148] Top shape: 1 1 1000 (1000)
I0924 04:13:14.554703 23551 net.cpp:141] Setting up h_pseudoloss
I0924 04:13:14.554714 23543 net.cpp:148] Top shape: 1 1 1000 (1000)
I0924 04:13:14.554718 23551 net.cpp:148] Top shape: (1)
I0924 04:13:14.554724 23543 net.cpp:156] Memory required for data: 90020
I0924 04:13:14.554734 23529 net.cpp:141] Setting up lstm2_h_concat
I0924 04:13:14.554724 23551 net.cpp:151]     with loss weight 1
I0924 04:13:14.554751 23551 net.cpp:156] Memory required for data: 98024
I0924 04:13:14.554735 23543 layer_factory.hpp:77] Creating layer lstm2_
I0924 04:13:14.554762 23551 net.cpp:217] h_pseudoloss needs backward computation.
I0924 04:13:14.554774 23543 net.cpp:91] Creating Layer lstm2_
I0924 04:13:14.554762 23529 net.cpp:148] Top shape: 1 1 1000 (1000)
I0924 04:13:14.554783 23551 net.cpp:217] lstm2_h_concat needs backward computation.
I0924 04:13:14.554787 23529 net.cpp:156] Memory required for data: 98020
I0924 04:13:14.554792 23551 net.cpp:219] lstm2_ does not need backward computation.
I0924 04:13:14.554787 23543 net.cpp:425] lstm2_ <- c_1
I0924 04:13:14.554802 23529 layer_factory.hpp:77] Creating layer h_pseudoloss
I0924 04:13:14.554802 23551 net.cpp:217] lstm2_unit_1 needs backward computation.
…
I0924 04:13:14.554884 23551 net.cpp:217] lstm2_x_transform needs backward computation.
I0924 04:13:14.554890 23551 net.cpp:219] cont_1_lstm2_cont_slice_0_split does not need backward computation.
I0924 04:13:14.554899 23551 net.cpp:219] lstm2_cont_slice does not need backward computation.
I0924 04:13:14.554913 23551 net.cpp:219] lstm2_ does not need backward computation.
I0924 04:13:14.554915 23543 net.cpp:141] Setting up lstm2_
I0924 04:13:14.554921 23551 net.cpp:219] lstm2_ does not need backward computation.
I0924 04:13:14.554939 23551 net.cpp:261] This network produces output c_T
I0924 04:13:14.554940 23543 net.cpp:148] Top shape: 1 1 1000 (1000)
I0924 04:13:14.554947 23551 net.cpp:261] This network produces output h_pseudoloss
I0924 04:13:14.554950 23543 net.cpp:156] Memory required for data: 94020
I0924 04:13:14.554961 23543 layer_factory.hpp:77] Creating layer lstm2_h_concat
I0924 04:13:14.554972 23551 net.cpp:274] Network initialization done.
I0924 04:13:14.554975 23543 net.cpp:91] Creating Layer lstm2_h_concat
I0924 04:13:14.554987 23543 net.cpp:425] lstm2_h_concat <- h_1
I0924 04:13:14.555023 23543 net.cpp:399] lstm2_h_concat -> h
I0924 04:13:14.555042 23551 recurrent_layer.cpp:150] Adding parameter 0: W_xc
I0924 04:13:14.555055 23551 recurrent_layer.cpp:150] Adding parameter 1: b_c
I0924 04:13:14.555063 23551 recurrent_layer.cpp:150] Adding parameter 2: W_hc
I0924 04:13:14.559298 23529 net.cpp:141] Setting up h_pseudoloss
I0924 04:13:14.559330 23529 net.cpp:148] Top shape: (1)
I0924 04:13:14.559339 23529 net.cpp:151]     with loss weight 1
I0924 04:13:14.559350 23499 net.cpp:141] Setting up lstm2_transform_1
I0924 04:13:14.559356 23529 net.cpp:156] Memory required for data: 98024
I0924 04:13:14.559375 23499 net.cpp:148] Top shape: 1 1 4000 (4000)
I0924 04:13:14.559379 23551 net.cpp:141] Setting up lstm2
I0924 04:13:14.559387 23499 net.cpp:156] Memory required for data: 66020
I0924 04:13:14.559376 23529 net.cpp:217] h_pseudoloss needs backward computation.
I0924 04:13:14.559398 23551 net.cpp:148] Top shape: 1 1 1000 (1000)
I0924 04:13:14.559401 23529 net.cpp:217] lstm2_h_concat needs backward computation.
I0924 04:13:14.559403 23551 net.cpp:156] Memory required for data: 36412
I0924 04:13:14.559406 23499 layer_factory.hpp:77] Creating layer lstm2_gate_input_1
I0924 04:13:14.559409 23529 net.cpp:219] lstm2_ does not need backward computation.
I0924 04:13:14.559418 23529 net.cpp:217] lstm2_unit_1 needs backward computation.
I0924 04:13:14.559419 23551 layer_factory.hpp:77] Creating layer predict
I0924 04:13:14.559428 23499 net.cpp:91] Creating Layer lstm2_gate_input_1
I0924 04:13:14.559433 23529 net.cpp:217] lstm2_gate_input_1 needs backward computation.
I0924 04:13:14.559438 23499 net.cpp:425] lstm2_gate_input_1 <- W_hc_h_0
I0924 04:13:14.559442 23551 net.cpp:91] Creating Layer predict
I0924 04:13:14.559442 23529 net.cpp:217] lstm2_transform_1 needs backward computation.
I0924 04:13:14.559448 23499 net.cpp:425] lstm2_gate_input_1 <- W_xc_x_1
I0924 04:13:14.559451 23529 net.cpp:219] lstm2_h_conted_0 does not need backward computation.
I0924 04:13:14.559456 23551 net.cpp:425] predict <- lstm2
I0924 04:13:14.559460 23499 net.cpp:399] lstm2_gate_input_1 -> gate_input_1
I0924 04:13:14.559463 23529 net.cpp:217] lstm2_W_xc_x_slice needs backward computation.
I0924 04:13:14.559437 23543 net.cpp:141] Setting up lstm2_h_concat
I0924 04:13:14.559470 23551 net.cpp:399] predict -> predict
I0924 04:13:14.559486 23543 net.cpp:148] Top shape: 1 1 1000 (1000)
I0924 04:13:14.559471 23529 net.cpp:217] lstm2_x_transform needs backward computation.
I0924 04:13:14.559502 23543 net.cpp:156] Memory required for data: 98020
I0924 04:13:14.559509 23529 net.cpp:219] cont_1_lstm2_cont_slice_0_split does not need backward computation.
I0924 04:13:14.559514 23543 layer_factory.hpp:77] Creating layer h_pseudoloss
I0924 04:13:14.559521 23529 net.cpp:219] lstm2_cont_slice does not need backward computation.
I0924 04:13:14.559530 23529 net.cpp:219] lstm2_ does not need backward computation.
I0924 04:13:14.559531 23555 net.cpp:141] Setting up lstm2_h_conted_0
I0924 04:13:14.559537 23529 net.cpp:219] lstm2_ does not need backward computation.
I0924 04:13:14.559553 23543 net.cpp:91] Creating Layer h_pseudoloss
I0924 04:13:14.559558 23555 net.cpp:148] Top shape: 1 1 1000 (1000)
I0924 04:13:14.559557 23529 net.cpp:261] This network produces output c_T
I0924 04:13:14.559569 23555 net.cpp:156] Memory required for data: 50020
I0924 04:13:14.559573 23543 net.cpp:425] h_pseudoloss <- h
I0924 04:13:14.559576 23529 net.cpp:261] This network produces output h_pseudoloss
I0924 04:13:14.559579 23555 layer_factory.hpp:77] Creating layer lstm2_transform_1
I0924 04:13:14.559590 23543 net.cpp:399] h_pseudoloss -> h_pseudoloss
I0924 04:13:14.559595 23555 net.cpp:91] Creating Layer lstm2_transform_1
I0924 04:13:14.559607 23555 net.cpp:425] lstm2_transform_1 <- h_conted_0
I0924 04:13:14.559620 23529 net.cpp:274] Network initialization done.
I0924 04:13:14.559623 23555 net.cpp:399] lstm2_transform_1 -> W_hc_h_0
I0924 04:13:14.559696 23529 recurrent_layer.cpp:150] Adding parameter 0: W_xc
I0924 04:13:14.559707 23529 recurrent_layer.cpp:150] Adding parameter 1: b_c
I0924 04:13:14.559715 23529 recurrent_layer.cpp:150] Adding parameter 2: W_hc
I0924 04:13:14.639526 23499 net.cpp:141] Setting up lstm2_gate_input_1
I0924 04:13:14.639582 23499 net.cpp:148] Top shape: 1 1 4000 (4000)
I0924 04:13:14.639591 23499 net.cpp:156] Memory required for data: 82020
I0924 04:13:14.639603 23499 layer_factory.hpp:77] Creating layer lstm2_unit_1
I0924 04:13:14.639626 23499 net.cpp:91] Creating Layer lstm2_unit_1
I0924 04:13:14.639636 23499 net.cpp:425] lstm2_unit_1 <- c_0
I0924 04:13:14.639649 23499 net.cpp:425] lstm2_unit_1 <- gate_input_1
I0924 04:13:14.639658 23499 net.cpp:425] lstm2_unit_1 <- cont_1_lstm2_cont_slice_0_split_1
I0924 04:13:14.639669 23499 net.cpp:399] lstm2_unit_1 -> c_1
I0924 04:13:14.639688 23499 net.cpp:399] lstm2_unit_1 -> h_1
I0924 04:13:14.639734 23543 net.cpp:141] Setting up h_pseudoloss
I0924 04:13:14.639760 23543 net.cpp:148] Top shape: (1)
I0924 04:13:14.639770 23543 net.cpp:151]     with loss weight 1
I0924 04:13:14.639799 23543 net.cpp:156] Memory required for data: 98024
I0924 04:13:14.639811 23543 net.cpp:217] h_pseudoloss needs backward computation.
I0924 04:13:14.639820 23543 net.cpp:217] lstm2_h_concat needs backward computation.
I0924 04:13:14.639819 23499 net.cpp:141] Setting up lstm2_unit_1
I0924 04:13:14.639832 23543 net.cpp:219] lstm2_ does not need backward computation.
I0924 04:13:14.639837 23499 net.cpp:148] Top shape: 1 1 1000 (1000)
I0924 04:13:14.639840 23543 net.cpp:217] lstm2_unit_1 needs backward computation.
I0924 04:13:14.639847 23499 net.cpp:148] Top shape: 1 1 1000 (1000)
I0924 04:13:14.639852 23543 net.cpp:217] lstm2_gate_input_1 needs backward computation.
I0924 04:13:14.639854 23499 net.cpp:156] Memory required for data: 90020
I0924 04:13:14.639861 23543 net.cpp:217] lstm2_transform_1 needs backward computation.
I0924 04:13:14.639881 23543 net.cpp:219] lstm2_h_conted_0 does not need backward computation.
I0924 04:13:14.639894 23543 net.cpp:217] lstm2_W_xc_x_slice needs backward computation.
I0924 04:13:14.639904 23543 net.cpp:217] lstm2_x_transform needs backward computation.
I0924 04:13:14.639911 23543 net.cpp:219] cont_1_lstm2_cont_slice_0_split does not need backward computation.
I0924 04:13:14.639922 23543 net.cpp:219] lstm2_cont_slice does not need backward computation.
I0924 04:13:14.639932 23543 net.cpp:219] lstm2_ does not need backward computation.
I0924 04:13:14.639940 23543 net.cpp:219] lstm2_ does not need backward computation.
I0924 04:13:14.639948 23543 net.cpp:261] This network produces output c_T
I0924 04:13:14.639957 23543 net.cpp:261] This network produces output h_pseudoloss
I0924 04:13:14.640002 23543 net.cpp:274] Network initialization done.
I0924 04:13:14.640080 23543 recurrent_layer.cpp:150] Adding parameter 0: W_xc
I0924 04:13:14.640091 23543 recurrent_layer.cpp:150] Adding parameter 1: b_c
I0924 04:13:14.640100 23543 recurrent_layer.cpp:150] Adding parameter 2: W_hc
I0924 04:13:14.640305 23543 net.cpp:141] Setting up lstm2
I0924 04:13:14.640321 23543 net.cpp:148] Top shape: 1 1 1000 (1000)
I0924 04:13:14.640329 23543 net.cpp:156] Memory required for data: 36412
I0924 04:13:14.640358 23543 layer_factory.hpp:77] Creating layer predict
I0924 04:13:14.640378 23543 net.cpp:91] Creating Layer predict
I0924 04:13:14.640388 23543 net.cpp:425] predict <- lstm2
I0924 04:13:14.640403 23543 net.cpp:399] predict -> predict
I0924 04:13:14.639863 23499 layer_factory.hpp:77] Creating layer lstm2_
I0924 04:13:14.644130 23499 net.cpp:91] Creating Layer lstm2_
I0924 04:13:14.644167 23499 net.cpp:425] lstm2_ <- c_1
I0924 04:13:14.644196 23499 net.cpp:399] lstm2_ -> c_T
I0924 04:13:14.729535 23495 net.cpp:141] Setting up lstm2_transform_1
I0924 04:13:14.729598 23495 net.cpp:148] Top shape: 1 1 4000 (4000)
I0924 04:13:14.729609 23495 net.cpp:156] Memory required for data: 66020
I0924 04:13:14.729634 23495 layer_factory.hpp:77] Creating layer lstm2_gate_input_1
I0924 04:13:14.729668 23495 net.cpp:91] Creating Layer lstm2_gate_input_1
I0924 04:13:14.729681 23495 net.cpp:425] lstm2_gate_input_1 <- W_hc_h_0
I0924 04:13:14.729692 23495 net.cpp:425] lstm2_gate_input_1 <- W_xc_x_1
I0924 04:13:14.729707 23495 net.cpp:399] lstm2_gate_input_1 -> gate_input_1
I0924 04:13:14.729717 23499 net.cpp:141] Setting up lstm2_
I0924 04:13:14.729759 23499 net.cpp:148] Top shape: 1 1 1000 (1000)
I0924 04:13:14.729766 23499 net.cpp:156] Memory required for data: 94020
I0924 04:13:14.729774 23499 layer_factory.hpp:77] Creating layer lstm2_h_concat
I0924 04:13:14.729791 23499 net.cpp:91] Creating Layer lstm2_h_concat
I0924 04:13:14.729799 23499 net.cpp:425] lstm2_h_concat <- h_1
I0924 04:13:14.729835 23499 net.cpp:399] lstm2_h_concat -> h
I0924 04:13:14.740784 23495 net.cpp:141] Setting up lstm2_gate_input_1
I0924 04:13:14.740850 23495 net.cpp:148] Top shape: 1 1 4000 (4000)
I0924 04:13:14.740860 23499 net.cpp:141] Setting up lstm2_h_concat
I0924 04:13:14.740862 23495 net.cpp:156] Memory required for data: 82020
I0924 04:13:14.740905 23499 net.cpp:148] Top shape: 1 1 1000 (1000)
I0924 04:13:14.740914 23495 layer_factory.hpp:77] Creating layer lstm2_unit_1
I0924 04:13:14.740921 23499 net.cpp:156] Memory required for data: 98020
I0924 04:13:14.740932 23499 layer_factory.hpp:77] Creating layer h_pseudoloss
I0924 04:13:14.740929 23529 net.cpp:141] Setting up lstm2
I0924 04:13:14.740942 23495 net.cpp:91] Creating Layer lstm2_unit_1
I0924 04:13:14.740967 23529 net.cpp:148] Top shape: 1 1 1000 (1000)
I0924 04:13:14.740978 23529 net.cpp:156] Memory required for data: 36412
I0924 04:13:14.740978 23495 net.cpp:425] lstm2_unit_1 <- c_0
I0924 04:13:14.740996 23495 net.cpp:425] lstm2_unit_1 <- gate_input_1
I0924 04:13:14.741008 23529 layer_factory.hpp:77] Creating layer predict
I0924 04:13:14.741013 23495 net.cpp:425] lstm2_unit_1 <- cont_1_lstm2_cont_slice_0_split_1
I0924 04:13:14.741034 23495 net.cpp:399] lstm2_unit_1 -> c_1
I0924 04:13:14.741039 23529 net.cpp:91] Creating Layer predict
I0924 04:13:14.741052 23529 net.cpp:425] predict <- lstm2
I0924 04:13:14.741053 23495 net.cpp:399] lstm2_unit_1 -> h_1
I0924 04:13:14.741077 23529 net.cpp:399] predict -> predict
I0924 04:13:14.741109 23523 net.cpp:141] Setting up lstm2_x_transform
I0924 04:13:14.741125 23523 net.cpp:148] Top shape: 1 1 4000 (4000)
I0924 04:13:14.741133 23523 net.cpp:156] Memory required for data: 30020
I0924 04:13:14.741156 23523 layer_factory.hpp:77] Creating layer lstm2_W_xc_x_slice
I0924 04:13:14.741178 23523 net.cpp:91] Creating Layer lstm2_W_xc_x_slice
I0924 04:13:14.741188 23523 net.cpp:425] lstm2_W_xc_x_slice <- W_xc_x
I0924 04:13:14.741201 23523 net.cpp:399] lstm2_W_xc_x_slice -> W_xc_x_1
I0924 04:13:14.741291 23523 net.cpp:141] Setting up lstm2_W_xc_x_slice
I0924 04:13:14.741309 23523 net.cpp:148] Top shape: 1 1 4000 (4000)
I0924 04:13:14.741318 23523 net.cpp:156] Memory required for data: 46020
I0924 04:13:14.741327 23523 layer_factory.hpp:77] Creating layer lstm2_h_conted_0
I0924 04:13:14.741343 23523 net.cpp:91] Creating Layer lstm2_h_conted_0
I0924 04:13:14.741351 23523 net.cpp:425] lstm2_h_conted_0 <- h_0
I0924 04:13:14.741361 23523 net.cpp:425] lstm2_h_conted_0 <- cont_1_lstm2_cont_slice_0_split_0
I0924 04:13:14.740955 23499 net.cpp:91] Creating Layer h_pseudoloss
I0924 04:13:14.741400 23499 net.cpp:425] h_pseudoloss <- h
I0924 04:13:14.741420 23499 net.cpp:399] h_pseudoloss -> h_pseudoloss
I0924 04:13:14.741457 23523 net.cpp:399] lstm2_h_conted_0 -> h_conted_0
I0924 04:13:14.835413 23517 net.cpp:141] Setting up lstm2_x_transform
I0924 04:13:14.835495 23517 net.cpp:148] Top shape: 1 1 4000 (4000)
I0924 04:13:14.835513 23517 net.cpp:156] Memory required for data: 30020
I0924 04:13:14.835558 23517 layer_factory.hpp:77] Creating layer lstm2_W_xc_x_slice
I0924 04:13:14.835597 23517 net.cpp:91] Creating Layer lstm2_W_xc_x_slice
I0924 04:13:14.835618 23517 net.cpp:425] lstm2_W_xc_x_slice <- W_xc_x
I0924 04:13:14.835645 23517 net.cpp:399] lstm2_W_xc_x_slice -> W_xc_x_1
I0924 04:13:14.835811 23517 net.cpp:141] Setting up lstm2_W_xc_x_slice
I0924 04:13:14.835841 23517 net.cpp:148] Top shape: 1 1 4000 (4000)
I0924 04:13:14.835857 23517 net.cpp:156] Memory required for data: 46020
I0924 04:13:14.835872 23517 layer_factory.hpp:77] Creating layer lstm2_h_conted_0
I0924 04:13:14.835899 23517 net.cpp:91] Creating Layer lstm2_h_conted_0
I0924 04:13:14.835918 23517 net.cpp:425] lstm2_h_conted_0 <- h_0
I0924 04:13:14.835938 23517 net.cpp:425] lstm2_h_conted_0 <- cont_1_lstm2_cont_slice_0_split_0
…
I0924 04:13:14.836172 23499 net.cpp:219] lstm2_ does not need backward computation.
I0924 04:13:14.836176 23499 net.cpp:261] This network produces output c_T
I0924 04:13:14.836184 23499 net.cpp:261] This network produces output h_pseudoloss
I0924 04:13:14.836201 23499 net.cpp:274] Network initialization done.
I0924 04:13:14.836273 23499 recurrent_layer.cpp:150] Adding parameter 0: W_xc
I0924 04:13:14.836282 23499 recurrent_layer.cpp:150] Adding parameter 1: b_c
I0924 04:13:14.836287 23499 recurrent_layer.cpp:150] Adding parameter 2: W_hc
I0924 04:13:14.836308 23517 net.cpp:141] Setting up lstm2_h_conted_0
I0924 04:13:14.836336 23517 net.cpp:148] Top shape: 1 1 1000 (1000)
I0924 04:13:14.836350 23517 net.cpp:156] Memory required for data: 50020
I0924 04:13:14.836365 23517 layer_factory.hpp:77] Creating layer lstm2_transform_1
I0924 04:13:14.836395 23517 net.cpp:91] Creating Layer lstm2_transform_1
I0924 04:13:14.836410 23517 net.cpp:425] lstm2_transform_1 <- h_conted_0
I0924 04:13:14.836442 23499 net.cpp:141] Setting up lstm2
I0924 04:13:14.836444 23517 net.cpp:399] lstm2_transform_1 -> W_hc_h_0
I0924 04:13:14.836455 23499 net.cpp:148] Top shape: 1 1 1000 (1000)
I0924 04:13:14.836460 23499 net.cpp:156] Memory required for data: 36412
I0924 04:13:14.836478 23499 layer_factory.hpp:77] Creating layer predict
I0924 04:13:14.836498 23499 net.cpp:91] Creating Layer predict
I0924 04:13:14.836505 23499 net.cpp:425] predict <- lstm2
I0924 04:13:14.836514 23499 net.cpp:399] predict -> predict
I0924 04:13:14.836763 23555 net.cpp:141] Setting up lstm2_transform_1
I0924 04:13:14.836789 23555 net.cpp:148] Top shape: 1 1 4000 (4000)
I0924 04:13:14.836799 23555 net.cpp:156] Memory required for data: 66020
I0924 04:13:14.836818 23555 layer_factory.hpp:77] Creating layer lstm2_gate_input_1
I0924 04:13:14.836843 23555 net.cpp:91] Creating Layer lstm2_gate_input_1
I0924 04:13:14.836853 23555 net.cpp:425] lstm2_gate_input_1 <- W_hc_h_0
I0924 04:13:14.836864 23555 net.cpp:425] lstm2_gate_input_1 <- W_xc_x_1
I0924 04:13:14.836879 23555 net.cpp:399] lstm2_gate_input_1 -> gate_input_1
I0924 04:13:14.851763 23555 net.cpp:141] Setting up lstm2_gate_input_1
I0924 04:13:14.851820 23555 net.cpp:148] Top shape: 1 1 4000 (4000)
I0924 04:13:14.851831 23555 net.cpp:156] Memory required for data: 82020
I0924 04:13:14.851842 23555 layer_factory.hpp:77] Creating layer lstm2_unit_1
I0924 04:13:14.851864 23555 net.cpp:91] Creating Layer lstm2_unit_1
I0924 04:13:14.851874 23555 net.cpp:425] lstm2_unit_1 <- c_0
I0924 04:13:14.851889 23555 net.cpp:425] lstm2_unit_1 <- gate_input_1
I0924 04:13:14.851899 23555 net.cpp:425] lstm2_unit_1 <- cont_1_lstm2_cont_slice_0_split_1
I0924 04:13:14.851912 23555 net.cpp:399] lstm2_unit_1 -> c_1
I0924 04:13:14.851932 23555 net.cpp:399] lstm2_unit_1 -> h_1
I0924 04:13:14.852094 23555 net.cpp:141] Setting up lstm2_unit_1
I0924 04:13:14.852109 23555 net.cpp:148] Top shape: 1 1 1000 (1000)
I0924 04:13:14.852119 23555 net.cpp:148] Top shape: 1 1 1000 (1000)
I0924 04:13:14.852126 23555 net.cpp:156] Memory required for data: 90020
I0924 04:13:14.852135 23555 layer_factory.hpp:77] Creating layer lstm2_
I0924 04:13:14.852151 23555 net.cpp:91] Creating Layer lstm2_
I0924 04:13:14.852160 23555 net.cpp:425] lstm2_ <- c_1
I0924 04:13:14.852172 23555 net.cpp:399] lstm2_ -> c_T
I0924 04:13:14.852254 23495 net.cpp:141] Setting up lstm2_unit_1
I0924 04:13:14.852278 23495 net.cpp:148] Top shape: 1 1 1000 (1000)
I0924 04:13:14.852289 23495 net.cpp:148] Top shape: 1 1 1000 (1000)
I0924 04:13:14.852298 23495 net.cpp:156] Memory required for data: 90020
I0924 04:13:14.852306 23495 layer_factory.hpp:77] Creating layer lstm2_
I0924 04:13:14.852319 23495 net.cpp:91] Creating Layer lstm2_
I0924 04:13:14.852329 23495 net.cpp:425] lstm2_ <- c_1
I0924 04:13:14.852341 23495 net.cpp:399] lstm2_ -> c_T
I0924 04:13:14.937986 23503 net.cpp:141] Setting up predict
I0924 04:13:14.938035 23555 net.cpp:141] Setting up lstm2_
I0924 04:13:14.938048 23503 net.cpp:148] Top shape: 1 1 46168 (46168)
I0924 04:13:14.938057 23503 net.cpp:156] Memory required for data: 221084
I0924 04:13:14.938061 23555 net.cpp:148] Top shape: 1 1 1000 (1000)
I0924 04:13:14.938071 23555 net.cpp:156] Memory required for data: 94020
I0924 04:13:14.938079 23503 layer_factory.hpp:77] Creating layer probs
I0924 04:13:14.938081 23555 layer_factory.hpp:77] Creating layer lstm2_h_concat
I0924 04:13:14.938086 23495 net.cpp:141] Setting up lstm2_
I0924 04:13:14.938102 23555 net.cpp:91] Creating Layer lstm2_h_concat
I0924 04:13:14.938112 23495 net.cpp:148] Top shape: 1 1 1000 (1000)
I0924 04:13:14.938102 23503 net.cpp:91] Creating Layer probs
I0924 04:13:14.938122 23495 net.cpp:156] Memory required for data: 94020
I0924 04:13:14.938127 23555 net.cpp:425] lstm2_h_concat <- h_1
I0924 04:13:14.938133 23503 net.cpp:425] probs <- predict
I0924 04:13:14.938133 23495 layer_factory.hpp:77] Creating layer lstm2_h_concat
I0924 04:13:14.938159 23503 net.cpp:399] probs -> probs
I0924 04:13:14.938166 23495 net.cpp:91] Creating Layer lstm2_h_concat
I0924 04:13:14.938176 23495 net.cpp:425] lstm2_h_concat <- h_1
I0924 04:13:14.938189 23555 net.cpp:399] lstm2_h_concat -> h
I0924 04:13:14.938207 23517 net.cpp:141] Setting up lstm2_transform_1
I0924 04:13:14.938215 23495 net.cpp:399] lstm2_h_concat -> h
I0924 04:13:14.938228 23517 net.cpp:148] Top shape: 1 1 4000 (4000)
I0924 04:13:14.938236 23517 net.cpp:156] Memory required for data: 66020
I0924 04:13:14.938253 23517 layer_factory.hpp:77] Creating layer lstm2_gate_input_1
I0924 04:13:14.938271 23517 net.cpp:91] Creating Layer lstm2_gate_input_1
I0924 04:13:14.938280 23517 net.cpp:425] lstm2_gate_input_1 <- W_hc_h_0
I0924 04:13:14.938292 23517 net.cpp:425] lstm2_gate_input_1 <- W_xc_x_1
I0924 04:13:14.938307 23517 net.cpp:399] lstm2_gate_input_1 -> gate_input_1
I0924 04:13:14.938449 23507 net.cpp:141] Setting up predict
I0924 04:13:14.938469 23507 net.cpp:148] Top shape: 1 1 46168 (46168)
I0924 04:13:14.938477 23507 net.cpp:156] Memory required for data: 221084
I0924 04:13:14.938496 23507 layer_factory.hpp:77] Creating layer probs
I0924 04:13:14.938501 23555 net.cpp:141] Setting up lstm2_h_concat
I0924 04:13:14.938514 23507 net.cpp:91] Creating Layer probs
I0924 04:13:14.938519 23555 net.cpp:148] Top shape: 1 1 1000 (1000)
I0924 04:13:14.938526 23555 net.cpp:156] Memory required for data: 98020
I0924 04:13:14.938526 23507 net.cpp:425] probs <- predict
I0924 04:13:14.938535 23555 layer_factory.hpp:77] Creating layer h_pseudoloss
I0924 04:13:14.938544 23507 net.cpp:399] probs -> probs
I0924 04:13:14.938549 23555 net.cpp:91] Creating Layer h_pseudoloss
I0924 04:13:14.938558 23555 net.cpp:425] h_pseudoloss <- h
I0924 04:13:14.938570 23555 net.cpp:399] h_pseudoloss -> h_pseudoloss
I0924 04:13:14.938639 23495 net.cpp:141] Setting up lstm2_h_concat
I0924 04:13:14.938657 23495 net.cpp:148] Top shape: 1 1 1000 (1000)
I0924 04:13:14.938668 23495 net.cpp:156] Memory required for data: 98020
I0924 04:13:14.938676 23495 layer_factory.hpp:77] Creating layer h_pseudoloss
I0924 04:13:14.938696 23495 net.cpp:91] Creating Layer h_pseudoloss
I0924 04:13:14.938707 23495 net.cpp:425] h_pseudoloss <- h
I0924 04:13:14.938721 23495 net.cpp:399] h_pseudoloss -> h_pseudoloss
I0924 04:13:14.938773 23517 net.cpp:141] Setting up lstm2_gate_input_1
I0924 04:13:14.938789 23517 net.cpp:148] Top shape: 1 1 4000 (4000)
I0924 04:13:14.938796 23517 net.cpp:156] Memory required for data: 82020
I0924 04:13:14.938804 23517 layer_factory.hpp:77] Creating layer lstm2_unit_1
I0924 04:13:14.938817 23517 net.cpp:91] Creating Layer lstm2_unit_1
I0924 04:13:14.938824 23517 net.cpp:425] lstm2_unit_1 <- c_0
I0924 04:13:14.938833 23517 net.cpp:425] lstm2_unit_1 <- gate_input_1
I0924 04:13:14.938843 23517 net.cpp:425] lstm2_unit_1 <- cont_1_lstm2_cont_slice_0_split_1
I0924 04:13:14.938863 23517 net.cpp:399] lstm2_unit_1 -> c_1
I0924 04:13:14.938876 23517 net.cpp:399] lstm2_unit_1 -> h_1
I0924 04:13:14.944250 23523 net.cpp:141] Setting up lstm2_h_conted_0
I0924 04:13:14.944310 23523 net.cpp:148] Top shape: 1 1 1000 (1000)
I0924 04:13:14.944322 23523 net.cpp:156] Memory required for data: 50020
I0924 04:13:14.944336 23523 layer_factory.hpp:77] Creating layer lstm2_transform_1
I0924 04:13:14.944360 23495 net.cpp:141] Setting up h_pseudoloss
I0924 04:13:14.944367 23523 net.cpp:91] Creating Layer lstm2_transform_1
I0924 04:13:14.944377 23495 net.cpp:148] Top shape: (1)
I0924 04:13:14.944378 23523 net.cpp:425] lstm2_transform_1 <- h_conted_0
…
I0924 04:13:14.944825 23555 net.cpp:219] lstm2_ does not need backward computation.
I0924 04:13:14.944833 23555 net.cpp:261] This network produces output c_T
I0924 04:13:14.944842 23555 net.cpp:261] This network produces output h_pseudoloss
I0924 04:13:14.944869 23555 net.cpp:274] Network initialization done.
I0924 04:13:14.944934 23555 recurrent_layer.cpp:150] Adding parameter 0: W_xc
I0924 04:13:14.944946 23555 recurrent_layer.cpp:150] Adding parameter 1: b_c
I0924 04:13:14.944954 23555 recurrent_layer.cpp:150] Adding parameter 2: W_hc
I0924 04:13:14.954767 23517 net.cpp:141] Setting up lstm2_unit_1
I0924 04:13:14.954826 23517 net.cpp:148] Top shape: 1 1 1000 (1000)
I0924 04:13:14.954838 23517 net.cpp:148] Top shape: 1 1 1000 (1000)
I0924 04:13:14.954844 23517 net.cpp:156] Memory required for data: 90020
I0924 04:13:14.954859 23517 layer_factory.hpp:77] Creating layer lstm2_
I0924 04:13:14.954887 23517 net.cpp:91] Creating Layer lstm2_
I0924 04:13:14.954897 23517 net.cpp:425] lstm2_ <- c_1
I0924 04:13:14.954916 23517 net.cpp:399] lstm2_ -> c_T
I0924 04:13:14.955157 23517 net.cpp:141] Setting up lstm2_
I0924 04:13:14.955173 23517 net.cpp:148] Top shape: 1 1 1000 (1000)
I0924 04:13:14.955179 23517 net.cpp:156] Memory required for data: 94020
I0924 04:13:14.955188 23517 layer_factory.hpp:77] Creating layer lstm2_h_concat
I0924 04:13:14.955202 23517 net.cpp:91] Creating Layer lstm2_h_concat
I0924 04:13:14.955210 23517 net.cpp:425] lstm2_h_concat <- h_1
I0924 04:13:14.955224 23517 net.cpp:399] lstm2_h_concat -> h
I0924 04:13:14.955236 23555 net.cpp:141] Setting up lstm2
I0924 04:13:14.955262 23555 net.cpp:148] Top shape: 1 1 1000 (1000)
I0924 04:13:14.955271 23555 net.cpp:156] Memory required for data: 36412
I0924 04:13:14.955302 23555 layer_factory.hpp:77] Creating layer predict
I0924 04:13:14.955325 23555 net.cpp:91] Creating Layer predict
I0924 04:13:14.955338 23555 net.cpp:425] predict <- lstm2
I0924 04:13:14.955354 23555 net.cpp:399] predict -> predict
I0924 04:13:14.955358 23495 net.cpp:141] Setting up lstm2
I0924 04:13:14.955394 23495 net.cpp:148] Top shape: 1 1 1000 (1000)
I0924 04:13:14.955404 23517 net.cpp:141] Setting up lstm2_h_concat
I0924 04:13:14.955411 23495 net.cpp:156] Memory required for data: 36412
I0924 04:13:14.955418 23517 net.cpp:148] Top shape: 1 1 1000 (1000)
I0924 04:13:14.955426 23517 net.cpp:156] Memory required for data: 98020
I0924 04:13:14.955435 23517 layer_factory.hpp:77] Creating layer h_pseudoloss
I0924 04:13:14.955453 23517 net.cpp:91] Creating Layer h_pseudoloss
I0924 04:13:14.955456 23495 layer_factory.hpp:77] Creating layer predict
I0924 04:13:14.955462 23517 net.cpp:425] h_pseudoloss <- h
I0924 04:13:14.955495 23517 net.cpp:399] h_pseudoloss -> h_pseudoloss
…
I0924 04:13:14.956058 23517 net.cpp:219] lstm2_ does not need backward computation.
I0924 04:13:14.956064 23517 net.cpp:261] This network produces output c_T
I0924 04:13:14.956073 23517 net.cpp:261] This network produces output h_pseudoloss
I0924 04:13:15.041483 23517 net.cpp:274] Network initialization done.
I0924 04:13:15.041618 23517 recurrent_layer.cpp:150] Adding parameter 0: W_xc
I0924 04:13:15.041630 23517 recurrent_layer.cpp:150] Adding parameter 1: b_c
I0924 04:13:15.041638 23517 recurrent_layer.cpp:150] Adding parameter 2: W_hc
I0924 04:13:15.138141 23523 net.cpp:141] Setting up lstm2_transform_1
I0924 04:13:15.138223 23523 net.cpp:148] Top shape: 1 1 4000 (4000)
I0924 04:13:15.138242 23523 net.cpp:156] Memory required for data: 66020
I0924 04:13:15.138281 23523 layer_factory.hpp:77] Creating layer lstm2_gate_input_1
I0924 04:13:15.138329 23523 net.cpp:91] Creating Layer lstm2_gate_input_1
I0924 04:13:15.138350 23523 net.cpp:425] lstm2_gate_input_1 <- W_hc_h_0
I0924 04:13:15.138373 23523 net.cpp:425] lstm2_gate_input_1 <- W_xc_x_1
I0924 04:13:15.138406 23523 net.cpp:399] lstm2_gate_input_1 -> gate_input_1
I0924 04:13:15.138535 23551 net.cpp:141] Setting up predict
I0924 04:13:15.138556 23551 net.cpp:148] Top shape: 1 1 46168 (46168)
I0924 04:13:15.138561 23551 net.cpp:156] Memory required for data: 221084
I0924 04:13:15.138577 23551 layer_factory.hpp:77] Creating layer probs
I0924 04:13:15.138592 23551 net.cpp:91] Creating Layer probs
I0924 04:13:15.138612 23551 net.cpp:425] probs <- predict
I0924 04:13:15.138622 23551 net.cpp:399] probs -> probs
I0924 04:13:15.138643 23523 net.cpp:141] Setting up lstm2_gate_input_1
I0924 04:13:15.138680 23523 net.cpp:148] Top shape: 1 1 4000 (4000)
I0924 04:13:15.138695 23523 net.cpp:156] Memory required for data: 82020
I0924 04:13:15.138711 23523 layer_factory.hpp:77] Creating layer lstm2_unit_1
I0924 04:13:15.138741 23523 net.cpp:91] Creating Layer lstm2_unit_1
I0924 04:13:15.138758 23523 net.cpp:425] lstm2_unit_1 <- c_0
I0924 04:13:15.138757 23517 net.cpp:141] Setting up lstm2
I0924 04:13:15.138788 23523 net.cpp:425] lstm2_unit_1 <- gate_input_1
I0924 04:13:15.138795 23517 net.cpp:148] Top shape: 1 1 1000 (1000)
I0924 04:13:15.138820 23517 net.cpp:156] Memory required for data: 36412
I0924 04:13:15.138820 23523 net.cpp:425] lstm2_unit_1 <- cont_1_lstm2_cont_slice_0_split_1
I0924 04:13:15.138845 23517 layer_factory.hpp:77] Creating layer predict
I0924 04:13:15.138844 23523 net.cpp:399] lstm2_unit_1 -> c_1
I0924 04:13:15.138881 23517 net.cpp:91] Creating Layer predict
I0924 04:13:15.138891 23517 net.cpp:425] predict <- lstm2
I0924 04:13:15.138905 23517 net.cpp:399] predict -> predict
I0924 04:13:15.138901 23523 net.cpp:399] lstm2_unit_1 -> h_1
I0924 04:13:15.237648 23543 net.cpp:141] Setting up predict
I0924 04:13:15.237702 23543 net.cpp:148] Top shape: 1 1 46168 (46168)
I0924 04:13:15.237709 23543 net.cpp:156] Memory required for data: 221084
I0924 04:13:15.237730 23543 layer_factory.hpp:77] Creating layer probs
I0924 04:13:15.237751 23543 net.cpp:91] Creating Layer probs
I0924 04:13:15.237757 23543 net.cpp:425] probs <- predict
I0924 04:13:15.237768 23543 net.cpp:399] probs -> probs
I0924 04:13:15.239430 23529 net.cpp:141] Setting up predict
I0924 04:13:15.239480 23529 net.cpp:148] Top shape: 1 1 46168 (46168)
I0924 04:13:15.239490 23529 net.cpp:156] Memory required for data: 221084
I0924 04:13:15.239508 23529 layer_factory.hpp:77] Creating layer probs
I0924 04:13:15.239528 23529 net.cpp:91] Creating Layer probs
I0924 04:13:15.239539 23529 net.cpp:425] probs <- predict
I0924 04:13:15.239553 23529 net.cpp:399] probs -> probs
I0924 04:13:15.239548 23523 net.cpp:141] Setting up lstm2_unit_1
I0924 04:13:15.239610 23523 net.cpp:148] Top shape: 1 1 1000 (1000)
I0924 04:13:15.239631 23523 net.cpp:148] Top shape: 1 1 1000 (1000)
I0924 04:13:15.239645 23523 net.cpp:156] Memory required for data: 90020
I0924 04:13:15.239662 23523 layer_factory.hpp:77] Creating layer lstm2_
I0924 04:13:15.239693 23523 net.cpp:91] Creating Layer lstm2_
I0924 04:13:15.239709 23523 net.cpp:425] lstm2_ <- c_1
I0924 04:13:15.239740 23523 net.cpp:399] lstm2_ -> c_T
I0924 04:13:15.241114 23523 net.cpp:141] Setting up lstm2_
I0924 04:13:15.241150 23523 net.cpp:148] Top shape: 1 1 1000 (1000)
I0924 04:13:15.241164 23523 net.cpp:156] Memory required for data: 94020
I0924 04:13:15.241181 23523 layer_factory.hpp:77] Creating layer lstm2_h_concat
I0924 04:13:15.241206 23523 net.cpp:91] Creating Layer lstm2_h_concat
I0924 04:13:15.241220 23523 net.cpp:425] lstm2_h_concat <- h_1
I0924 04:13:15.241241 23523 net.cpp:399] lstm2_h_concat -> h
I0924 04:13:15.247030 23523 net.cpp:141] Setting up lstm2_h_concat
I0924 04:13:15.247071 23523 net.cpp:148] Top shape: 1 1 1000 (1000)
I0924 04:13:15.247086 23523 net.cpp:156] Memory required for data: 98020
I0924 04:13:15.247099 23523 layer_factory.hpp:77] Creating layer h_pseudoloss
I0924 04:13:15.247125 23523 net.cpp:91] Creating Layer h_pseudoloss
I0924 04:13:15.247140 23523 net.cpp:425] h_pseudoloss <- h
I0924 04:13:15.247160 23523 net.cpp:399] h_pseudoloss -> h_pseudoloss
I0924 04:13:15.248839 23523 net.cpp:141] Setting up h_pseudoloss
…
I0924 04:13:15.249130 23523 net.cpp:219] lstm2_ does not need backward computation.
I0924 04:13:15.249141 23523 net.cpp:261] This network produces output c_T
I0924 04:13:15.249155 23523 net.cpp:261] This network produces output h_pseudoloss
I0924 04:13:15.249197 23523 net.cpp:274] Network initialization done.
I0924 04:13:15.249311 23523 recurrent_layer.cpp:150] Adding parameter 0: W_xc
I0924 04:13:15.249330 23523 recurrent_layer.cpp:150] Adding parameter 1: b_c
I0924 04:13:15.249343 23523 recurrent_layer.cpp:150] Adding parameter 2: W_hc
I0924 04:13:15.252362 23523 net.cpp:141] Setting up lstm2
I0924 04:13:15.252403 23523 net.cpp:148] Top shape: 1 1 1000 (1000)
I0924 04:13:15.252418 23523 net.cpp:156] Memory required for data: 36412
I0924 04:13:15.252454 23523 layer_factory.hpp:77] Creating layer predict
I0924 04:13:15.252485 23523 net.cpp:91] Creating Layer predict
I0924 04:13:15.252501 23523 net.cpp:425] predict <- lstm2
I0924 04:13:15.252522 23523 net.cpp:399] predict -> predict
I0924 04:13:15.346016 23499 net.cpp:141] Setting up predict
I0924 04:13:15.346074 23499 net.cpp:148] Top shape: 1 1 46168 (46168)
I0924 04:13:15.346081 23499 net.cpp:156] Memory required for data: 221084
I0924 04:13:15.346096 23499 layer_factory.hpp:77] Creating layer probs
I0924 04:13:15.346113 23499 net.cpp:91] Creating Layer probs
I0924 04:13:15.346122 23499 net.cpp:425] probs <- predict
I0924 04:13:15.346132 23499 net.cpp:399] probs -> probs
I0924 04:13:15.529613 23495 net.cpp:141] Setting up predict
I0924 04:13:15.530047 23495 net.cpp:148] Top shape: 1 1 46168 (46168)
I0924 04:13:15.530210 23495 net.cpp:156] Memory required for data: 221084
I0924 04:13:15.530366 23495 layer_factory.hpp:77] Creating layer probs
I0924 04:13:15.530505 23495 net.cpp:91] Creating Layer probs
I0924 04:13:15.530655 23495 net.cpp:425] probs <- predict
I0924 04:13:15.530802 23495 net.cpp:399] probs -> probs
I0924 04:13:15.583045 23555 net.cpp:141] Setting up predict
I0924 04:13:15.583434 23555 net.cpp:148] Top shape: 1 1 46168 (46168)
I0924 04:13:15.583559 23555 net.cpp:156] Memory required for data: 221084
I0924 04:13:15.583703 23555 layer_factory.hpp:77] Creating layer probs
I0924 04:13:15.583847 23555 net.cpp:91] Creating Layer probs
I0924 04:13:15.583966 23555 net.cpp:425] probs <- predict
I0924 04:13:15.584095 23555 net.cpp:399] probs -> probs
I0924 04:13:15.623131 23517 net.cpp:141] Setting up predict
I0924 04:13:15.623196 23517 net.cpp:148] Top shape: 1 1 46168 (46168)
I0924 04:13:15.623208 23517 net.cpp:156] Memory required for data: 221084
I0924 04:13:15.623237 23517 layer_factory.hpp:77] Creating layer probs
I0924 04:13:15.623265 23517 net.cpp:91] Creating Layer probs
I0924 04:13:15.623276 23517 net.cpp:425] probs <- predict
I0924 04:13:15.623292 23517 net.cpp:399] probs -> probs
I0924 04:13:15.625551 23543 net.cpp:141] Setting up probs
I0924 04:13:15.625586 23543 net.cpp:148] Top shape: 1 1 46168 (46168)
I0924 04:13:15.625597 23543 net.cpp:156] Memory required for data: 405756
I0924 04:13:15.625607 23543 net.cpp:219] probs does not need backward computation.
I0924 04:13:15.625620 23543 net.cpp:219] predict does not need backward computation.
I0924 04:13:15.625638 23543 net.cpp:219] lstm2 does not need backward computation.
I0924 04:13:15.625654 23543 net.cpp:219] concat does not need backward computation.
I0924 04:13:15.625669 23543 net.cpp:219] lstm1 does not need backward computation.
I0924 04:13:15.625681 23543 net.cpp:219] embedding does not need backward computation.
I0924 04:13:15.625692 23543 net.cpp:219] reshape_stage_indicator does not need backward computation.
I0924 04:13:15.625694 23495 net.cpp:141] Setting up probs
I0924 04:13:15.625702 23543 net.cpp:219] reshape_frames does not need backward computation.
I0924 04:13:15.625710 23495 net.cpp:148] Top shape: 1 1 46168 (46168)
I0924 04:13:15.625711 23543 net.cpp:219] embed_encoder does not need backward computation.
I0924 04:13:15.625718 23495 net.cpp:156] Memory required for data: 405756
I0924 04:13:15.625730 23495 net.cpp:219] probs does not need backward computation.
I0924 04:13:15.625737 23495 net.cpp:219] predict does not need backward computation.
I0924 04:13:15.625737 23543 net.cpp:219] cont_sentence_input_1_split does not need backward computation.
I0924 04:13:15.625753 23495 net.cpp:219] lstm2 does not need backward computation.
I0924 04:13:15.625762 23543 net.cpp:219] input does not need backward computation.
I0924 04:13:15.625776 23543 net.cpp:261] This network produces output probs
I0924 04:13:15.625808 23543 net.cpp:274] Network initialization done.
I0924 04:13:15.625913 23507 net.cpp:141] Setting up probs
I0924 04:13:15.625932 23507 net.cpp:148] Top shape: 1 1 46168 (46168)
I0924 04:13:15.625941 23507 net.cpp:156] Memory required for data: 405756
I0924 04:13:15.625949 23507 net.cpp:219] probs does not need backward computation.
I0924 04:13:15.625958 23507 net.cpp:219] predict does not need backward computation.
I0924 04:13:15.625967 23507 net.cpp:219] lstm2 does not need backward computation.
I0924 04:13:15.625977 23507 net.cpp:219] concat does not need backward computation.
…
I0924 04:13:15.645632 23555 net.cpp:219] reshape_frames does not need backward computation.
I0924 04:13:15.645637 23555 net.cpp:219] embed_encoder does not need backward computation.
I0924 04:13:15.645643 23555 net.cpp:219] cont_sentence_input_1_split does not need backward computation.
I0924 04:13:15.648116 23555 net.cpp:219] input does not need backward computation.
I0924 04:13:15.648139 23555 net.cpp:261] This network produces output probs
I0924 04:13:15.648169 23555 net.cpp:274] Network initialization done.
I0924 04:13:15.669340 23509 net.cpp:141] Setting up conv1
I0924 04:13:15.669392 23509 net.cpp:148] Top shape: 10 96 55 55 (2904000)
I0924 04:13:15.669400 23509 net.cpp:156] Memory required for data: 17799480
I0924 04:13:15.669431 23509 layer_factory.hpp:77] Creating layer relu1
I0924 04:13:15.669461 23509 net.cpp:91] Creating Layer relu1
I0924 04:13:15.669471 23509 net.cpp:425] relu1 <- conv1
I0924 04:13:15.669481 23509 net.cpp:386] relu1 -> conv1 (in-place)
I0924 04:13:15.670068 23509 net.cpp:141] Setting up relu1
I0924 04:13:15.670085 23509 net.cpp:148] Top shape: 10 96 55 55 (2904000)
I0924 04:13:15.670091 23509 net.cpp:156] Memory required for data: 29415480
I0924 04:13:15.670097 23509 layer_factory.hpp:77] Creating layer pool1
I0924 04:13:15.670127 23509 net.cpp:91] Creating Layer pool1
I0924 04:13:15.670135 23509 net.cpp:425] pool1 <- conv1
I0924 04:13:15.670145 23509 net.cpp:399] pool1 -> pool1
I0924 04:13:15.670284 23509 net.cpp:141] Setting up pool1
I0924 04:13:15.670296 23509 net.cpp:148] Top shape: 10 96 27 27 (699840)
I0924 04:13:15.670302 23509 net.cpp:156] Memory required for data: 32214840
I0924 04:13:15.670308 23509 layer_factory.hpp:77] Creating layer norm1
I0924 04:13:15.670330 23509 net.cpp:91] Creating Layer norm1
I0924 04:13:15.670336 23509 net.cpp:425] norm1 <- pool1
I0924 04:13:15.670343 23509 net.cpp:399] norm1 -> norm1
I0924 04:13:15.670680 23509 net.cpp:141] Setting up norm1
I0924 04:13:15.670696 23509 net.cpp:148] Top shape: 10 96 27 27 (699840)
I0924 04:13:15.670701 23509 net.cpp:156] Memory required for data: 35014200
I0924 04:13:15.670763 23509 layer_factory.hpp:77] Creating layer conv2
I0924 04:13:15.670824 23509 net.cpp:91] Creating Layer conv2
I0924 04:13:15.670832 23509 net.cpp:425] conv2 <- norm1
I0924 04:13:15.670846 23509 net.cpp:399] conv2 -> conv2
I0924 04:13:15.735765 23509 net.cpp:141] Setting up conv2
I0924 04:13:15.736199 23509 net.cpp:148] Top shape: 10 256 27 27 (1866240)
I0924 04:13:15.736361 23509 net.cpp:156] Memory required for data: 42479160
I0924 04:13:15.736500 23509 layer_factory.hpp:77] Creating layer relu2
I0924 04:13:15.736632 23509 net.cpp:91] Creating Layer relu2
I0924 04:13:15.736745 23509 net.cpp:425] relu2 <- conv2
I0924 04:13:15.738401 23509 net.cpp:386] relu2 -> conv2 (in-place)
I0924 04:13:15.742717 23509 net.cpp:141] Setting up relu2
I0924 04:13:15.743064 23509 net.cpp:148] Top shape: 10 256 27 27 (1866240)
I0924 04:13:15.743237 23509 net.cpp:156] Memory required for data: 49944120
I0924 04:13:15.743355 23509 layer_factory.hpp:77] Creating layer pool2
I0924 04:13:15.744397 23509 net.cpp:91] Creating Layer pool2
I0924 04:13:15.744752 23509 net.cpp:425] pool2 <- conv2
I0924 04:13:15.744910 23509 net.cpp:399] pool2 -> pool2
I0924 04:13:15.746392 23509 net.cpp:141] Setting up pool2
I0924 04:13:15.746449 23509 net.cpp:148] Top shape: 10 256 13 13 (432640)
I0924 04:13:15.746459 23509 net.cpp:156] Memory required for data: 51674680
I0924 04:13:15.747906 23509 layer_factory.hpp:77] Creating layer norm2
I0924 04:13:15.749455 23509 net.cpp:91] Creating Layer norm2
I0924 04:13:15.749510 23509 net.cpp:425] norm2 <- pool2
I0924 04:13:15.749528 23509 net.cpp:399] norm2 -> norm2
I0924 04:13:15.755208 23509 net.cpp:141] Setting up norm2
I0924 04:13:15.755283 23509 net.cpp:148] Top shape: 10 256 13 13 (432640)
I0924 04:13:15.755295 23509 net.cpp:156] Memory required for data: 53405240
I0924 04:13:15.755311 23509 layer_factory.hpp:77] Creating layer conv3
I0924 04:13:15.756700 23509 net.cpp:91] Creating Layer conv3
I0924 04:13:15.756742 23509 net.cpp:425] conv3 <- norm2
I0924 04:13:15.757465 23509 net.cpp:399] conv3 -> conv3
I0924 04:13:15.806893 23523 net.cpp:141] Setting up predict
I0924 04:13:15.806972 23523 net.cpp:148] Top shape: 1 1 46168 (46168)
I0924 04:13:15.806983 23523 net.cpp:156] Memory required for data: 221084
I0924 04:13:15.807013 23523 layer_factory.hpp:77] Creating layer probs
I0924 04:13:15.807049 23523 net.cpp:91] Creating Layer probs
I0924 04:13:15.807063 23523 net.cpp:425] probs <- predict
I0924 04:13:15.807083 23523 net.cpp:399] probs -> probs
I0924 04:13:15.812674 23509 net.cpp:141] Setting up conv3
I0924 04:13:15.812865 23509 net.cpp:148] Top shape: 10 384 13 13 (648960)
I0924 04:13:15.812892 23509 net.cpp:156] Memory required for data: 56001080
I0924 04:13:15.813030 23509 layer_factory.hpp:77] Creating layer relu3
I0924 04:13:15.813145 23509 net.cpp:91] Creating Layer relu3
I0924 04:13:15.813212 23509 net.cpp:425] relu3 <- conv3
I0924 04:13:15.813508 23509 net.cpp:386] relu3 -> conv3 (in-place)
I0924 04:13:15.821926 23523 net.cpp:141] Setting up probs
I0924 04:13:15.822476 23523 net.cpp:148] Top shape: 1 1 46168 (46168)
I0924 04:13:15.822608 23523 net.cpp:156] Memory required for data: 405756
I0924 04:13:15.822738 23523 net.cpp:219] probs does not need backward computation.
I0924 04:13:15.822854 23523 net.cpp:219] predict does not need backward computation.
I0924 04:13:15.822973 23523 net.cpp:219] lstm2 does not need backward computation.
I0924 04:13:15.823150 23523 net.cpp:219] concat does not need backward computation.
I0924 04:13:15.823366 23523 net.cpp:219] lstm1 does not need backward computation.
I0924 04:13:15.823480 23523 net.cpp:219] embedding does not need backward computation.
I0924 04:13:15.823602 23523 net.cpp:219] reshape_stage_indicator does not need backward computation.
I0924 04:13:15.823755 23523 net.cpp:219] reshape_frames does not need backward computation.
I0924 04:13:15.823873 23523 net.cpp:219] embed_encoder does not need backward computation.
I0924 04:13:15.825001 23523 net.cpp:219] cont_sentence_input_1_split does not need backward computation.
I0924 04:13:15.825234 23523 net.cpp:219] input does not need backward computation.
I0924 04:13:15.825350 23523 net.cpp:261] This network produces output probs
I0924 04:13:15.830761 23509 net.cpp:141] Setting up relu3
I0924 04:13:15.830874 23509 net.cpp:148] Top shape: 10 384 13 13 (648960)
I0924 04:13:15.830902 23509 net.cpp:156] Memory required for data: 58596920
I0924 04:13:15.830929 23509 layer_factory.hpp:77] Creating layer conv4
I0924 04:13:15.831764 23509 net.cpp:91] Creating Layer conv4
I0924 04:13:15.831827 23509 net.cpp:425] conv4 <- conv3
I0924 04:13:15.831884 23509 net.cpp:399] conv4 -> conv4
I0924 04:13:15.830792 23523 net.cpp:274] Network initialization done.
I0924 04:13:15.861287 23509 net.cpp:141] Setting up conv4
I0924 04:13:15.861341 23509 net.cpp:148] Top shape: 10 384 13 13 (648960)
I0924 04:13:15.861348 23509 net.cpp:156] Memory required for data: 61192760
I0924 04:13:15.861366 23509 layer_factory.hpp:77] Creating layer relu4
I0924 04:13:15.862449 23509 net.cpp:91] Creating Layer relu4
I0924 04:13:15.862463 23509 net.cpp:425] relu4 <- conv4
I0924 04:13:15.862474 23509 net.cpp:386] relu4 -> conv4 (in-place)
I0924 04:13:15.864751 23509 net.cpp:141] Setting up relu4
I0924 04:13:15.866750 23509 net.cpp:148] Top shape: 10 384 13 13 (648960)
I0924 04:13:15.866780 23509 net.cpp:156] Memory required for data: 63788600
I0924 04:13:15.866811 23509 layer_factory.hpp:77] Creating layer conv5
I0924 04:13:15.876714 23509 net.cpp:91] Creating Layer conv5
I0924 04:13:15.876778 23509 net.cpp:425] conv5 <- conv4
I0924 04:13:15.876816 23509 net.cpp:399] conv5 -> conv5
I0924 04:13:15.960114 23509 net.cpp:141] Setting up conv5
I0924 04:13:15.960258 23509 net.cpp:148] Top shape: 10 256 13 13 (432640)
I0924 04:13:15.960289 23509 net.cpp:156] Memory required for data: 65519160
I0924 04:13:15.960386 23509 layer_factory.hpp:77] Creating layer relu5
I0924 04:13:15.960461 23509 net.cpp:91] Creating Layer relu5
I0924 04:13:15.960502 23509 net.cpp:425] relu5 <- conv5
I0924 04:13:15.960546 23509 net.cpp:386] relu5 -> conv5 (in-place)
I0924 04:13:15.973301 23509 net.cpp:141] Setting up relu5
I0924 04:13:15.973366 23509 net.cpp:148] Top shape: 10 256 13 13 (432640)
I0924 04:13:15.973374 23509 net.cpp:156] Memory required for data: 67249720
I0924 04:13:15.973386 23509 layer_factory.hpp:77] Creating layer pool5
I0924 04:13:15.974438 23509 net.cpp:91] Creating Layer pool5
I0924 04:13:15.974481 23509 net.cpp:425] pool5 <- conv5
I0924 04:13:15.974503 23509 net.cpp:399] pool5 -> pool5
I0924 04:13:15.975330 23509 net.cpp:141] Setting up pool5
I0924 04:13:15.975378 23509 net.cpp:148] Top shape: 10 256 6 6 (92160)
I0924 04:13:15.975390 23509 net.cpp:156] Memory required for data: 67618360
I0924 04:13:15.975404 23509 layer_factory.hpp:77] Creating layer fc6
I0924 04:13:15.975440 23509 net.cpp:91] Creating Layer fc6
I0924 04:13:15.975455 23509 net.cpp:425] fc6 <- pool5
I0924 04:13:15.975476 23509 net.cpp:399] fc6 -> fc6
I0924 04:13:16.133106 23509 net.cpp:141] Setting up fc6
I0924 04:13:16.133200 23509 net.cpp:148] Top shape: 10 4096 (40960)
I0924 04:13:16.133216 23509 net.cpp:156] Memory required for data: 67782200
I0924 04:13:16.133256 23509 layer_factory.hpp:77] Creating layer relu6
I0924 04:13:16.133293 23509 net.cpp:91] Creating Layer relu6
I0924 04:13:16.133308 23509 net.cpp:425] relu6 <- fc6
I0924 04:13:16.133333 23509 net.cpp:386] relu6 -> fc6 (in-place)
I0924 04:13:16.141191 23509 net.cpp:141] Setting up relu6
I0924 04:13:16.141885 23509 net.cpp:148] Top shape: 10 4096 (40960)
I0924 04:13:16.141916 23509 net.cpp:156] Memory required for data: 67946040
I0924 04:13:16.141932 23509 layer_factory.hpp:77] Creating layer drop6
I0924 04:13:16.142002 23509 net.cpp:91] Creating Layer drop6
I0924 04:13:16.142017 23509 net.cpp:425] drop6 <- fc6
I0924 04:13:16.142041 23509 net.cpp:386] drop6 -> fc6 (in-place)
I0924 04:13:16.142312 23509 net.cpp:141] Setting up drop6
I0924 04:13:16.142336 23509 net.cpp:148] Top shape: 10 4096 (40960)
I0924 04:13:16.142345 23509 net.cpp:156] Memory required for data: 68109880
I0924 04:13:16.142356 23509 layer_factory.hpp:77] Creating layer fc7
I0924 04:13:16.143227 23509 net.cpp:91] Creating Layer fc7
I0924 04:13:16.143271 23509 net.cpp:425] fc7 <- fc6
I0924 04:13:16.143295 23509 net.cpp:399] fc7 -> fc7
I0924 04:13:16.205330 23509 net.cpp:141] Setting up fc7
I0924 04:13:16.205394 23509 net.cpp:148] Top shape: 10 4096 (40960)
I0924 04:13:16.205405 23509 net.cpp:156] Memory required for data: 68273720
I0924 04:13:16.205426 23509 layer_factory.hpp:77] Creating layer relu7
I0924 04:13:16.205452 23509 net.cpp:91] Creating Layer relu7
I0924 04:13:16.205463 23509 net.cpp:425] relu7 <- fc7
I0924 04:13:16.205476 23509 net.cpp:386] relu7 -> fc7 (in-place)
I0924 04:13:16.206929 23509 net.cpp:141] Setting up relu7
I0924 04:13:16.206962 23509 net.cpp:148] Top shape: 10 4096 (40960)
I0924 04:13:16.206974 23509 net.cpp:156] Memory required for data: 68437560
I0924 04:13:16.206987 23509 layer_factory.hpp:77] Creating layer drop7
I0924 04:13:16.207490 23509 net.cpp:91] Creating Layer drop7
I0924 04:13:16.207509 23509 net.cpp:425] drop7 <- fc7
I0924 04:13:16.207526 23509 net.cpp:386] drop7 -> fc7 (in-place)
I0924 04:13:16.207692 23509 net.cpp:141] Setting up drop7
I0924 04:13:16.207708 23509 net.cpp:148] Top shape: 10 4096 (40960)
I0924 04:13:16.207717 23509 net.cpp:156] Memory required for data: 68601400
I0924 04:13:16.207726 23509 layer_factory.hpp:77] Creating layer fc8
I0924 04:13:16.207743 23509 net.cpp:91] Creating Layer fc8
I0924 04:13:16.207753 23509 net.cpp:425] fc8 <- fc7
I0924 04:13:16.208009 23509 net.cpp:399] fc8 -> fc8
I0924 04:13:16.230588 23509 net.cpp:141] Setting up fc8
I0924 04:13:16.230659 23509 net.cpp:148] Top shape: 10 1000 (10000)
I0924 04:13:16.230667 23509 net.cpp:156] Memory required for data: 68641400
I0924 04:13:16.230693 23509 layer_factory.hpp:77] Creating layer prob
I0924 04:13:16.230725 23509 net.cpp:91] Creating Layer prob
I0924 04:13:16.230736 23509 net.cpp:425] prob <- fc8
I0924 04:13:16.230751 23509 net.cpp:399] prob -> prob
I0924 04:13:16.235065 23509 net.cpp:141] Setting up prob
I0924 04:13:16.235157 23509 net.cpp:148] Top shape: 10 1000 (10000)
I0924 04:13:16.235172 23509 net.cpp:156] Memory required for data: 68681400
I0924 04:13:16.235190 23509 net.cpp:219] prob does not need backward computation.
I0924 04:13:16.235204 23509 net.cpp:219] fc8 does not need backward computation.
I0924 04:13:16.235219 23509 net.cpp:219] drop7 does not need backward computation.
I0924 04:13:16.235229 23509 net.cpp:219] relu7 does not need backward computation.
…
