…
Java HotSpot(TM) 64-Bit Server VM warning: You have loaded library /tmp/cvld4075187976536058266/libopencv_java310.xine1.so which might have disabled stack guard. The VM will try to fix the stack guard now.
It's highly recommended that you fix the library with 'execstack -c <libfile>', or link it with '-z noexecstack'.
WARNING: Logging before InitGoogleLogging() is written to STDERR
I0801 02:46:50.418977  1579 net.cpp:49] Initializing net from parameters: 
name: "CaffeNet"
state {
  phase: TEST
}
layer {
  name: "data"
  type: "Input"
  top: "data"
  input_param {
    shape {
      dim: 10
      dim: 3
      dim: 227
      dim: 227
    }
  }
}
layer {
  name: "conv1"
  type: "Convolution"
  bottom: "data"
  top: "conv1"
  convolution_param {
    num_output: 96
    kernel_size: 11
    stride: 4
  }
}
layer {
  name: "relu1"
  type: "ReLU"
  bottom: "conv1"
  top: "conv1"
}
layer {
  name: "pool1"
  type: "Pooling"
  bottom: "conv1"
  top: "pool1"
  pooling_param {
    pool: MAX
    kernel_size: 3
    stride: 2
  }
}
layer {
  name: "norm1"
  type: "LRN"
  bottom: "pool1"
  top: "norm1"
  lrn_param {
    local_size: 5
    alpha: 0.0001
    beta: 0.75
  }
}
layer {
  name: "conv2"
  type: "Convolution"
  bottom: "norm1"
  top: "conv2"
  convolution_param {
    num_output: 256
    pad: 2
    kernel_size: 5
    group: 2
  }
}
layer {
  name: "relu2"
  type: "ReLU"
  bottom: "conv2"
  top: "conv2"
}
layer {
  name: "pool2"
  type: "Pooling"
  bottom: "conv2"
  top: "pool2"
  pooling_param {
    pool: MAX
    kernel_size: 3
    stride: 2
  }
}
layer {
  name: "norm2"
  type: "LRN"
  bottom: "pool2"
  top: "norm2"
  lrn_param {
    local_size: 5
    alpha: 0.0001
    beta: 0.75
  }
}
layer {
  name: "conv3"
  type: "Convolution"
  bottom: "norm2"
  top: "conv3"
  convolution_param {
    num_output: 384
    pad: 1
    kernel_size: 3
  }
}
layer {
  name: "relu3"
  type: "ReLU"
  bottom: "conv3"
  top: "conv3"
}
layer {
  name: "conv4"
  type: "Convolution"
  bottom: "conv3"
  top: "conv4"
  convolution_param {
    num_output: 384
    pad: 1
    kernel_size: 3
    group: 2
  }
}
layer {
  name: "relu4"
  type: "ReLU"
  bottom: "conv4"
  top: "conv4"
}
layer {
  name: "conv5"
  type: "Convolution"
  bottom: "conv4"
  top: "conv5"
  convolution_param {
    num_output: 256
    pad: 1
    kernel_size: 3
    group: 2
  }
}
layer {
  name: "relu5"
  type: "ReLU"
  bottom: "conv5"
  top: "conv5"
}
layer {
  name: "pool5"
  type: "Pooling"
  bottom: "conv5"
  top: "pool5"
  pooling_param {
    pool: MAX
    kernel_size: 3
    stride: 2
  }
}
layer {
  name: "fc6"
  type: "InnerProduct"
  bottom: "pool5"
  top: "fc6"
  inner_product_param {
    num_output: 4096
  }
}
layer {
  name: "relu6"
  type: "ReLU"
  bottom: "fc6"
  top: "fc6"
}
layer {
  name: "drop6"
  type: "Dropout"
  bottom: "fc6"
  top: "fc6"
  dropout_param {
    dropout_ratio: 0.5
  }
}
layer {
  name: "fc7"
  type: "InnerProduct"
  bottom: "fc6"
  top: "fc7"
  inner_product_param {
    num_output: 4096
  }
}
layer {
  name: "relu7"
  type: "ReLU"
  bottom: "fc7"
  top: "fc7"
}
layer {
  name: "drop7"
  type: "Dropout"
  bottom: "fc7"
  top: "fc7"
  dropout_param {
    dropout_ratio: 0.5
  }
}
layer {
  name: "fc8"
  type: "InnerProduct"
  bottom: "fc7"
  top: "fc8"
  inner_product_param {
    num_output: 1000
  }
}
layer {
  name: "prob"
  type: "Softmax"
  bottom: "fc8"
  top: "prob"
}
I0801 02:46:50.419159  1579 layer_factory.hpp:77] Creating layer data
I0801 02:46:50.419183  1579 net.cpp:91] Creating Layer data
I0801 02:46:50.419193  1579 net.cpp:399] data -> data
I0801 02:46:50.889552  1579 net.cpp:141] Setting up data
I0801 02:46:50.889641  1579 net.cpp:148] Top shape: 10 3 227 227 (1545870)
I0801 02:46:50.889647  1579 net.cpp:156] Memory required for data: 6183480
I0801 02:46:50.889663  1579 layer_factory.hpp:77] Creating layer conv1
I0801 02:46:50.889694  1579 net.cpp:91] Creating Layer conv1
I0801 02:46:50.889703  1579 net.cpp:425] conv1 <- data
I0801 02:46:50.889715  1579 net.cpp:399] conv1 -> conv1
I0801 02:46:50.998500  1568 upgrade_proto.cpp:66] Attempting to upgrade input file specified using deprecated input fields: /tmp/cvld4075187976536058266/s2vt.words_to_preds.prototxt
I0801 02:46:50.998548  1568 upgrade_proto.cpp:69] Successfully upgraded file specified using deprecated input fields.
W0801 02:46:50.998558  1568 upgrade_proto.cpp:71] Note that future Caffe releases will only support input layers and not input fields.
I0801 02:46:50.998793  1568 net.cpp:49] Initializing net from parameters: 
name: "s2vt:features_to_lstm"
state {
  phase: TEST
}
layer {
  name: "input"
  type: "Input"
  top: "frames_fc7"
  top: "cont_sentence"
  top: "input_sentence"
  top: "stage_indicator"
  input_param {
    shape {
      dim: 1
      dim: 4096
    }
    shape {
      dim: 1
      dim: 1
    }
    shape {
      dim: 1
      dim: 1
    }
    shape {
      dim: 1
      dim: 1
    }
  }
}
layer {
  name: "embed_encoder"
  type: "InnerProduct"
  bottom: "frames_fc7"
  top: "embedded_in_frames"
  param {
    lr_mult: 1
    decay_mult: 1
  }
  param {
    lr_mult: 2
    decay_mult: 0
  }
  inner_product_param {
    num_output: 500
    weight_filler {
      type: "xavier"
    }
    bias_filler {
      type: "constant"
      value: 0.2
    }
  }
}
layer {
  name: "reshape_frames"
  type: "Reshape"
  bottom: "embedded_in_frames"
  top: "embedded_input_frames"
  reshape_param {
    shape {
      dim: 1
      dim: 1
      dim: 500
    }
  }
}
layer {
  name: "reshape_stage_indicator"
  type: "Reshape"
  bottom: "stage_indicator"
  top: "reshaped_stage_indicator"
  reshape_param {
    shape {
      dim: 1
      dim: 1
      dim: 1
    }
  }
}
layer {
  name: "embedding"
  type: "Embed"
  bottom: "input_sentence"
  top: "embedded_input_sentence"
  param {
    lr_mult: 1
  }
  embed_param {
    num_output: 500
    input_dim: 46168
    bias_term: false
    weight_filler {
      type: "uniform"
      min: -0.08
      max: 0.08
    }
  }
}
layer {
  name: "lstm1"
  type: "LSTM"
  bottom: "embedded_input_frames"
  bottom: "cont_sentence"
  top: "lstm1"
  recurrent_param {
    num_output: 1000
    weight_filler {
      type: "uniform"
      min: -0.08
      max: 0.08
    }
    bias_filler {
      type: "constant"
      value: 0
    }
  }
}
layer {
  name: "concat"
  type: "Concat"
  bottom: "lstm1"
  bottom: "embedded_input_sentence"
  bottom: "reshaped_stage_indicator"
  top: "lstm1_video_sequence"
  concat_param {
    concat_dim: 2
  }
}
layer {
  name: "lstm2"
  type: "LSTM"
  bottom: "lstm1_video_sequence"
  bottom: "cont_sentence"
  top: "lstm2"
  recurrent_param {
    num_output: 1000
    weight_filler {
      type: "uniform"
      min: -0.08
      max: 0.08
    }
    bias_filler {
      type: "constant"
      value: 0
    }
  }
}
layer {
  name: "predict"
  type: "InnerProduct"
  bottom: "lstm2"
  top: "predict"
  param {
    lr_mult: 1
    decay_mult: 1
  }
  param {
    lr_mult: 2
    decay_mult: 0
  }
  inner_product_param {
    num_output: 46168
    weight_filler {
      type: "uniform"
      min: -0.08
      max: 0.08
    }
    bias_filler {
      type: "constant"
      value: 0
    }
    axis: 2
  }
}
layer {
  name: "probs"
  type: "Softmax"
  bottom: "predict"
  top: "probs"
  softmax_param {
    axis: 2
  }
}
I0801 02:46:50.998888  1568 layer_factory.hpp:77] Creating layer input
I0801 02:46:50.998903  1568 net.cpp:91] Creating Layer input
I0801 02:46:50.998909  1568 net.cpp:399] input -> frames_fc7
I0801 02:46:50.998925  1568 net.cpp:399] input -> cont_sentence
I0801 02:46:50.998935  1568 net.cpp:399] input -> input_sentence
I0801 02:46:50.998945  1568 net.cpp:399] input -> stage_indicator
I0801 02:46:51.003132  1568 net.cpp:141] Setting up input
I0801 02:46:51.003159  1568 net.cpp:148] Top shape: 1 4096 (4096)
I0801 02:46:51.003167  1568 net.cpp:148] Top shape: 1 1 (1)
I0801 02:46:51.003172  1568 net.cpp:148] Top shape: 1 1 (1)
I0801 02:46:51.003177  1568 net.cpp:148] Top shape: 1 1 (1)
I0801 02:46:51.003181  1568 net.cpp:156] Memory required for data: 16396
I0801 02:46:51.003188  1568 layer_factory.hpp:77] Creating layer cont_sentence_input_1_split
I0801 02:46:51.003209  1568 net.cpp:91] Creating Layer cont_sentence_input_1_split
I0801 02:46:51.003216  1568 net.cpp:425] cont_sentence_input_1_split <- cont_sentence
I0801 02:46:51.003240  1568 net.cpp:399] cont_sentence_input_1_split -> cont_sentence_input_1_split_0
I0801 02:46:51.003257  1568 net.cpp:399] cont_sentence_input_1_split -> cont_sentence_input_1_split_1
I0801 02:46:51.004606  1568 net.cpp:141] Setting up cont_sentence_input_1_split
I0801 02:46:51.004626  1568 net.cpp:148] Top shape: 1 1 (1)
I0801 02:46:51.004632  1568 net.cpp:148] Top shape: 1 1 (1)
I0801 02:46:51.004637  1568 net.cpp:156] Memory required for data: 16404
I0801 02:46:51.004642  1568 layer_factory.hpp:77] Creating layer embed_encoder
I0801 02:46:51.004662  1568 net.cpp:91] Creating Layer embed_encoder
I0801 02:46:51.004667  1568 net.cpp:425] embed_encoder <- frames_fc7
I0801 02:46:51.004676  1568 net.cpp:399] embed_encoder -> embedded_in_frames
I0801 02:46:51.033751  1568 net.cpp:141] Setting up embed_encoder
I0801 02:46:51.033805  1568 net.cpp:148] Top shape: 1 500 (500)
I0801 02:46:51.033818  1568 net.cpp:156] Memory required for data: 18404
I0801 02:46:51.033856  1568 layer_factory.hpp:77] Creating layer reshape_frames
I0801 02:46:51.033890  1568 net.cpp:91] Creating Layer reshape_frames
I0801 02:46:51.033901  1568 net.cpp:425] reshape_frames <- embedded_in_frames
I0801 02:46:51.033921  1568 net.cpp:399] reshape_frames -> embedded_input_frames
I0801 02:46:51.034806  1568 net.cpp:141] Setting up reshape_frames
I0801 02:46:51.034822  1568 net.cpp:148] Top shape: 1 1 500 (500)
I0801 02:46:51.034827  1568 net.cpp:156] Memory required for data: 20404
I0801 02:46:51.034832  1568 layer_factory.hpp:77] Creating layer reshape_stage_indicator
I0801 02:46:51.034845  1568 net.cpp:91] Creating Layer reshape_stage_indicator
I0801 02:46:51.034852  1568 net.cpp:425] reshape_stage_indicator <- stage_indicator
I0801 02:46:51.034863  1568 net.cpp:399] reshape_stage_indicator -> reshaped_stage_indicator
I0801 02:46:51.041568  1568 net.cpp:141] Setting up reshape_stage_indicator
I0801 02:46:51.041600  1568 net.cpp:148] Top shape: 1 1 1 (1)
I0801 02:46:51.041606  1568 net.cpp:156] Memory required for data: 20408
I0801 02:46:51.041612  1568 layer_factory.hpp:77] Creating layer embedding
I0801 02:46:51.041628  1568 net.cpp:91] Creating Layer embedding
I0801 02:46:51.041635  1568 net.cpp:425] embedding <- input_sentence
I0801 02:46:51.041645  1568 net.cpp:399] embedding -> embedded_input_sentence
I0801 02:46:51.137573  1579 net.cpp:141] Setting up conv1
I0801 02:46:51.137622  1579 net.cpp:148] Top shape: 10 96 55 55 (2904000)
I0801 02:46:51.137632  1579 net.cpp:156] Memory required for data: 17799480
I0801 02:46:51.137660  1579 layer_factory.hpp:77] Creating layer relu1
I0801 02:46:51.137681  1579 net.cpp:91] Creating Layer relu1
I0801 02:46:51.137689  1579 net.cpp:425] relu1 <- conv1
I0801 02:46:51.137701  1579 net.cpp:386] relu1 -> conv1 (in-place)
I0801 02:46:51.138193  1579 net.cpp:141] Setting up relu1
I0801 02:46:51.138207  1579 net.cpp:148] Top shape: 10 96 55 55 (2904000)
I0801 02:46:51.138212  1579 net.cpp:156] Memory required for data: 29415480
I0801 02:46:51.138217  1579 layer_factory.hpp:77] Creating layer pool1
I0801 02:46:51.138231  1579 net.cpp:91] Creating Layer pool1
I0801 02:46:51.138236  1579 net.cpp:425] pool1 <- conv1
I0801 02:46:51.138243  1579 net.cpp:399] pool1 -> pool1
I0801 02:46:51.138308  1579 net.cpp:141] Setting up pool1
I0801 02:46:51.138319  1579 net.cpp:148] Top shape: 10 96 27 27 (699840)
I0801 02:46:51.138324  1579 net.cpp:156] Memory required for data: 32214840
I0801 02:46:51.138327  1579 layer_factory.hpp:77] Creating layer norm1
I0801 02:46:51.138344  1579 net.cpp:91] Creating Layer norm1
I0801 02:46:51.138347  1579 net.cpp:425] norm1 <- pool1
I0801 02:46:51.138355  1579 net.cpp:399] norm1 -> norm1
I0801 02:46:51.138818  1579 net.cpp:141] Setting up norm1
I0801 02:46:51.138833  1579 net.cpp:148] Top shape: 10 96 27 27 (699840)
I0801 02:46:51.138837  1579 net.cpp:156] Memory required for data: 35014200
I0801 02:46:51.138842  1579 layer_factory.hpp:77] Creating layer conv2
I0801 02:46:51.138856  1579 net.cpp:91] Creating Layer conv2
I0801 02:46:51.138861  1579 net.cpp:425] conv2 <- norm1
I0801 02:46:51.138869  1579 net.cpp:399] conv2 -> conv2
I0801 02:46:51.141947  1579 net.cpp:141] Setting up conv2
I0801 02:46:51.141966  1579 net.cpp:148] Top shape: 10 256 27 27 (1866240)
I0801 02:46:51.141971  1579 net.cpp:156] Memory required for data: 42479160
I0801 02:46:51.141984  1579 layer_factory.hpp:77] Creating layer relu2
I0801 02:46:51.141993  1579 net.cpp:91] Creating Layer relu2
I0801 02:46:51.141999  1579 net.cpp:425] relu2 <- conv2
I0801 02:46:51.142005  1579 net.cpp:386] relu2 -> conv2 (in-place)
I0801 02:46:51.142438  1579 net.cpp:141] Setting up relu2
I0801 02:46:51.142452  1579 net.cpp:148] Top shape: 10 256 27 27 (1866240)
I0801 02:46:51.142457  1579 net.cpp:156] Memory required for data: 49944120
I0801 02:46:51.142462  1579 layer_factory.hpp:77] Creating layer pool2
I0801 02:46:51.142470  1579 net.cpp:91] Creating Layer pool2
I0801 02:46:51.142475  1579 net.cpp:425] pool2 <- conv2
I0801 02:46:51.142483  1579 net.cpp:399] pool2 -> pool2
I0801 02:46:51.142534  1579 net.cpp:141] Setting up pool2
I0801 02:46:51.142542  1579 net.cpp:148] Top shape: 10 256 13 13 (432640)
I0801 02:46:51.142546  1579 net.cpp:156] Memory required for data: 51674680
I0801 02:46:51.142550  1579 layer_factory.hpp:77] Creating layer norm2
I0801 02:46:51.142560  1579 net.cpp:91] Creating Layer norm2
I0801 02:46:51.142565  1579 net.cpp:425] norm2 <- pool2
I0801 02:46:51.142571  1579 net.cpp:399] norm2 -> norm2
I0801 02:46:51.142820  1579 net.cpp:141] Setting up norm2
I0801 02:46:51.142832  1579 net.cpp:148] Top shape: 10 256 13 13 (432640)
I0801 02:46:51.142835  1579 net.cpp:156] Memory required for data: 53405240
I0801 02:46:51.142840  1579 layer_factory.hpp:77] Creating layer conv3
I0801 02:46:51.142851  1579 net.cpp:91] Creating Layer conv3
I0801 02:46:51.142856  1579 net.cpp:425] conv3 <- norm2
I0801 02:46:51.142863  1579 net.cpp:399] conv3 -> conv3
I0801 02:46:51.146540  1579 net.cpp:141] Setting up conv3
I0801 02:46:51.146562  1579 net.cpp:148] Top shape: 10 384 13 13 (648960)
I0801 02:46:51.146567  1579 net.cpp:156] Memory required for data: 56001080
I0801 02:46:51.146580  1579 layer_factory.hpp:77] Creating layer relu3
I0801 02:46:51.146589  1579 net.cpp:91] Creating Layer relu3
I0801 02:46:51.146594  1579 net.cpp:425] relu3 <- conv3
I0801 02:46:51.146600  1579 net.cpp:386] relu3 -> conv3 (in-place)
I0801 02:46:51.147037  1579 net.cpp:141] Setting up relu3
I0801 02:46:51.147049  1579 net.cpp:148] Top shape: 10 384 13 13 (648960)
I0801 02:46:51.147053  1579 net.cpp:156] Memory required for data: 58596920
I0801 02:46:51.147058  1579 layer_factory.hpp:77] Creating layer conv4
I0801 02:46:51.147073  1579 net.cpp:91] Creating Layer conv4
I0801 02:46:51.147078  1579 net.cpp:425] conv4 <- conv3
I0801 02:46:51.147084  1579 net.cpp:399] conv4 -> conv4
I0801 02:46:51.151110  1579 net.cpp:141] Setting up conv4
I0801 02:46:51.151129  1579 net.cpp:148] Top shape: 10 384 13 13 (648960)
I0801 02:46:51.151134  1579 net.cpp:156] Memory required for data: 61192760
I0801 02:46:51.151144  1579 layer_factory.hpp:77] Creating layer relu4
I0801 02:46:51.151151  1579 net.cpp:91] Creating Layer relu4
I0801 02:46:51.151156  1579 net.cpp:425] relu4 <- conv4
I0801 02:46:51.151165  1579 net.cpp:386] relu4 -> conv4 (in-place)
I0801 02:46:51.151602  1579 net.cpp:141] Setting up relu4
I0801 02:46:51.151614  1579 net.cpp:148] Top shape: 10 384 13 13 (648960)
I0801 02:46:51.151619  1579 net.cpp:156] Memory required for data: 63788600
I0801 02:46:51.151624  1579 layer_factory.hpp:77] Creating layer conv5
I0801 02:46:51.151638  1579 net.cpp:91] Creating Layer conv5
I0801 02:46:51.151644  1579 net.cpp:425] conv5 <- conv4
I0801 02:46:51.151651  1579 net.cpp:399] conv5 -> conv5
I0801 02:46:51.155462  1579 net.cpp:141] Setting up conv5
I0801 02:46:51.155479  1579 net.cpp:148] Top shape: 10 256 13 13 (432640)
I0801 02:46:51.155484  1579 net.cpp:156] Memory required for data: 65519160
I0801 02:46:51.155499  1579 layer_factory.hpp:77] Creating layer relu5
I0801 02:46:51.155508  1579 net.cpp:91] Creating Layer relu5
I0801 02:46:51.155514  1579 net.cpp:425] relu5 <- conv5
I0801 02:46:51.155521  1579 net.cpp:386] relu5 -> conv5 (in-place)
I0801 02:46:51.155966  1579 net.cpp:141] Setting up relu5
I0801 02:46:51.155979  1579 net.cpp:148] Top shape: 10 256 13 13 (432640)
I0801 02:46:51.155983  1579 net.cpp:156] Memory required for data: 67249720
I0801 02:46:51.155988  1579 layer_factory.hpp:77] Creating layer pool5
I0801 02:46:51.156000  1579 net.cpp:91] Creating Layer pool5
I0801 02:46:51.156013  1579 net.cpp:425] pool5 <- conv5
I0801 02:46:51.156021  1579 net.cpp:399] pool5 -> pool5
I0801 02:46:51.156082  1579 net.cpp:141] Setting up pool5
I0801 02:46:51.156091  1579 net.cpp:148] Top shape: 10 256 6 6 (92160)
I0801 02:46:51.156095  1579 net.cpp:156] Memory required for data: 67618360
I0801 02:46:51.156100  1579 layer_factory.hpp:77] Creating layer fc6
I0801 02:46:51.156111  1579 net.cpp:91] Creating Layer fc6
I0801 02:46:51.156116  1579 net.cpp:425] fc6 <- pool5
I0801 02:46:51.156126  1579 net.cpp:399] fc6 -> fc6
I0801 02:46:51.256585  1579 net.cpp:141] Setting up fc6
I0801 02:46:51.256633  1579 net.cpp:148] Top shape: 10 4096 (40960)
I0801 02:46:51.256638  1579 net.cpp:156] Memory required for data: 67782200
I0801 02:46:51.256650  1579 layer_factory.hpp:77] Creating layer relu6
I0801 02:46:51.256665  1579 net.cpp:91] Creating Layer relu6
I0801 02:46:51.256671  1579 net.cpp:425] relu6 <- fc6
I0801 02:46:51.256680  1579 net.cpp:386] relu6 -> fc6 (in-place)
I0801 02:46:51.256994  1579 net.cpp:141] Setting up relu6
I0801 02:46:51.257006  1579 net.cpp:148] Top shape: 10 4096 (40960)
I0801 02:46:51.257010  1579 net.cpp:156] Memory required for data: 67946040
I0801 02:46:51.257015  1579 layer_factory.hpp:77] Creating layer drop6
I0801 02:46:51.257025  1579 net.cpp:91] Creating Layer drop6
I0801 02:46:51.257030  1579 net.cpp:425] drop6 <- fc6
I0801 02:46:51.257037  1579 net.cpp:386] drop6 -> fc6 (in-place)
I0801 02:46:51.257083  1579 net.cpp:141] Setting up drop6
I0801 02:46:51.257091  1579 net.cpp:148] Top shape: 10 4096 (40960)
I0801 02:46:51.257097  1579 net.cpp:156] Memory required for data: 68109880
I0801 02:46:51.257100  1579 layer_factory.hpp:77] Creating layer fc7
I0801 02:46:51.257114  1579 net.cpp:91] Creating Layer fc7
I0801 02:46:51.257119  1579 net.cpp:425] fc7 <- fc6
I0801 02:46:51.257125  1579 net.cpp:399] fc7 -> fc7
I0801 02:46:51.285253  1568 net.cpp:141] Setting up embedding
I0801 02:46:51.285303  1568 net.cpp:148] Top shape: 1 1 500 (500)
I0801 02:46:51.285310  1568 net.cpp:156] Memory required for data: 22408
I0801 02:46:51.285328  1568 layer_factory.hpp:77] Creating layer lstm1
I0801 02:46:51.285347  1568 net.cpp:91] Creating Layer lstm1
I0801 02:46:51.285356  1568 net.cpp:425] lstm1 <- embedded_input_frames
I0801 02:46:51.285363  1568 net.cpp:425] lstm1 <- cont_sentence_input_1_split_0
I0801 02:46:51.285375  1568 net.cpp:399] lstm1 -> lstm1
I0801 02:46:51.285409  1568 recurrent_layer.cpp:20] Initializing recurrent layer: assuming input batch contains 1 timesteps of 1 independent streams.
I0801 02:46:51.285748  1568 net.cpp:49] Initializing net from parameters: 
layer {
  name: "lstm1_"
  type: "Input"
  top: "x"
  top: "cont"
  input_param {
    shape {
      dim: 1
      dim: 1
      dim: 500
    }
    shape {
      dim: 1
      dim: 1
    }
  }
}
layer {
  name: "lstm1_"
  type: "Input"
  top: "c_0"
  top: "h_0"
  input_param {
    shape {
      dim: 1
      dim: 1
      dim: 1000
    }
    shape {
      dim: 1
      dim: 1
      dim: 1000
    }
  }
}
layer {
  name: "lstm1_cont_slice"
  type: "Slice"
  bottom: "cont"
  top: "cont_1"
  slice_param {
    axis: 0
  }
}
layer {
  name: "lstm1_x_transform"
  type: "InnerProduct"
  bottom: "x"
  top: "W_xc_x"
  param {
    name: "W_xc"
  }
  param {
    name: "b_c"
  }
  propagate_down: true
  inner_product_param {
    num_output: 4000
    bias_term: true
    weight_filler {
      type: "uniform"
      min: -0.08
      max: 0.08
    }
    bias_filler {
      type: "constant"
      value: 0
    }
    axis: 2
  }
}
layer {
  name: "lstm1_W_xc_x_slice"
  type: "Slice"
  bottom: "W_xc_x"
  top: "W_xc_x_1"
  slice_param {
    axis: 0
  }
}
layer {
  name: "lstm1_h_conted_0"
  type: "Scale"
  bottom: "h_0"
  bottom: "cont_1"
  top: "h_conted_0"
  scale_param {
    axis: 0
  }
}
layer {
  name: "lstm1_transform_1"
  type: "InnerProduct"
  bottom: "h_conted_0"
  top: "W_hc_h_0"
  param {
    name: "W_hc"
  }
  inner_product_param {
    num_output: 4000
    bias_term: false
    weight_filler {
      type: "uniform"
      min: -0.08
      max: 0.08
    }
    axis: 2
  }
}
layer {
  name: "lstm1_gate_input_1"
  type: "Eltwise"
  bottom: "W_hc_h_0"
  bottom: "W_xc_x_1"
  top: "gate_input_1"
  eltwise_param {
    operation: SUM
  }
}
layer {
  name: "lstm1_unit_1"
  type: "LSTMUnit"
  bottom: "c_0"
  bottom: "gate_input_1"
  bottom: "cont_1"
  top: "c_1"
  top: "h_1"
}
layer {
  name: "lstm1_"
  type: "Split"
  bottom: "c_1"
  top: "c_T"
}
layer {
  name: "lstm1_h_concat"
  type: "Concat"
  bottom: "h_1"
  top: "h"
  concat_param {
    axis: 0
  }
}
layer {
  name: "h_pseudoloss"
  type: "Reduction"
  bottom: "h"
  top: "h_pseudoloss"
  loss_weight: 1
}
I0801 02:46:51.285837  1568 layer_factory.hpp:77] Creating layer lstm1_
I0801 02:46:51.285851  1568 net.cpp:91] Creating Layer lstm1_
I0801 02:46:51.285856  1568 net.cpp:399] lstm1_ -> x
I0801 02:46:51.285867  1568 net.cpp:399] lstm1_ -> cont
I0801 02:46:51.285933  1568 net.cpp:141] Setting up lstm1_
I0801 02:46:51.285943  1568 net.cpp:148] Top shape: 1 1 500 (500)
I0801 02:46:51.285949  1568 net.cpp:148] Top shape: 1 1 (1)
I0801 02:46:51.285953  1568 net.cpp:156] Memory required for data: 2004
I0801 02:46:51.285959  1568 layer_factory.hpp:77] Creating layer lstm1_
I0801 02:46:51.285966  1568 net.cpp:91] Creating Layer lstm1_
I0801 02:46:51.285975  1568 net.cpp:399] lstm1_ -> c_0
I0801 02:46:51.285985  1568 net.cpp:399] lstm1_ -> h_0
I0801 02:46:51.286032  1568 net.cpp:141] Setting up lstm1_
I0801 02:46:51.286041  1568 net.cpp:148] Top shape: 1 1 1000 (1000)
I0801 02:46:51.286047  1568 net.cpp:148] Top shape: 1 1 1000 (1000)
I0801 02:46:51.286051  1568 net.cpp:156] Memory required for data: 10004
I0801 02:46:51.286056  1568 layer_factory.hpp:77] Creating layer lstm1_cont_slice
I0801 02:46:51.286067  1568 net.cpp:91] Creating Layer lstm1_cont_slice
I0801 02:46:51.286072  1568 net.cpp:425] lstm1_cont_slice <- cont
I0801 02:46:51.286078  1568 net.cpp:399] lstm1_cont_slice -> cont_1
I0801 02:46:51.286113  1568 net.cpp:141] Setting up lstm1_cont_slice
I0801 02:46:51.286123  1568 net.cpp:148] Top shape: 1 1 (1)
I0801 02:46:51.286126  1568 net.cpp:156] Memory required for data: 10008
I0801 02:46:51.286131  1568 layer_factory.hpp:77] Creating layer cont_1_lstm1_cont_slice_0_split
I0801 02:46:51.286139  1568 net.cpp:91] Creating Layer cont_1_lstm1_cont_slice_0_split
I0801 02:46:51.286142  1568 net.cpp:425] cont_1_lstm1_cont_slice_0_split <- cont_1
I0801 02:46:51.286151  1568 net.cpp:399] cont_1_lstm1_cont_slice_0_split -> cont_1_lstm1_cont_slice_0_split_0
I0801 02:46:51.286160  1568 net.cpp:399] cont_1_lstm1_cont_slice_0_split -> cont_1_lstm1_cont_slice_0_split_1
I0801 02:46:51.286206  1568 net.cpp:141] Setting up cont_1_lstm1_cont_slice_0_split
I0801 02:46:51.286214  1568 net.cpp:148] Top shape: 1 1 (1)
I0801 02:46:51.286221  1568 net.cpp:148] Top shape: 1 1 (1)
I0801 02:46:51.286224  1568 net.cpp:156] Memory required for data: 10016
I0801 02:46:51.286228  1568 layer_factory.hpp:77] Creating layer lstm1_x_transform
I0801 02:46:51.286237  1568 net.cpp:91] Creating Layer lstm1_x_transform
I0801 02:46:51.286242  1568 net.cpp:425] lstm1_x_transform <- x
I0801 02:46:51.286249  1568 net.cpp:399] lstm1_x_transform -> W_xc_x
I0801 02:46:51.301941  1579 net.cpp:141] Setting up fc7
I0801 02:46:51.301992  1579 net.cpp:148] Top shape: 10 4096 (40960)
I0801 02:46:51.301998  1579 net.cpp:156] Memory required for data: 68273720
I0801 02:46:51.302011  1579 layer_factory.hpp:77] Creating layer relu7
I0801 02:46:51.302026  1579 net.cpp:91] Creating Layer relu7
I0801 02:46:51.302031  1579 net.cpp:425] relu7 <- fc7
I0801 02:46:51.302039  1579 net.cpp:386] relu7 -> fc7 (in-place)
I0801 02:46:51.302778  1579 net.cpp:141] Setting up relu7
I0801 02:46:51.302793  1579 net.cpp:148] Top shape: 10 4096 (40960)
I0801 02:46:51.302798  1579 net.cpp:156] Memory required for data: 68437560
I0801 02:46:51.302803  1579 layer_factory.hpp:77] Creating layer drop7
I0801 02:46:51.302812  1579 net.cpp:91] Creating Layer drop7
I0801 02:46:51.302816  1579 net.cpp:425] drop7 <- fc7
I0801 02:46:51.302824  1579 net.cpp:386] drop7 -> fc7 (in-place)
I0801 02:46:51.302865  1579 net.cpp:141] Setting up drop7
I0801 02:46:51.302875  1579 net.cpp:148] Top shape: 10 4096 (40960)
I0801 02:46:51.302878  1579 net.cpp:156] Memory required for data: 68601400
I0801 02:46:51.302882  1579 layer_factory.hpp:77] Creating layer fc8
I0801 02:46:51.302896  1579 net.cpp:91] Creating Layer fc8
I0801 02:46:51.302901  1579 net.cpp:425] fc8 <- fc7
I0801 02:46:51.302907  1579 net.cpp:399] fc8 -> fc8
I0801 02:46:51.310492  1568 net.cpp:141] Setting up lstm1_x_transform
I0801 02:46:51.310537  1568 net.cpp:148] Top shape: 1 1 4000 (4000)
I0801 02:46:51.310544  1568 net.cpp:156] Memory required for data: 26016
I0801 02:46:51.310564  1568 layer_factory.hpp:77] Creating layer lstm1_W_xc_x_slice
I0801 02:46:51.310581  1568 net.cpp:91] Creating Layer lstm1_W_xc_x_slice
I0801 02:46:51.310587  1568 net.cpp:425] lstm1_W_xc_x_slice <- W_xc_x
I0801 02:46:51.310597  1568 net.cpp:399] lstm1_W_xc_x_slice -> W_xc_x_1
I0801 02:46:51.310641  1568 net.cpp:141] Setting up lstm1_W_xc_x_slice
I0801 02:46:51.310650  1568 net.cpp:148] Top shape: 1 1 4000 (4000)
I0801 02:46:51.310654  1568 net.cpp:156] Memory required for data: 42016
I0801 02:46:51.310658  1568 layer_factory.hpp:77] Creating layer lstm1_h_conted_0
I0801 02:46:51.310668  1568 net.cpp:91] Creating Layer lstm1_h_conted_0
I0801 02:46:51.310673  1568 net.cpp:425] lstm1_h_conted_0 <- h_0
I0801 02:46:51.310681  1568 net.cpp:425] lstm1_h_conted_0 <- cont_1_lstm1_cont_slice_0_split_0
I0801 02:46:51.310689  1568 net.cpp:399] lstm1_h_conted_0 -> h_conted_0
I0801 02:46:51.310775  1568 net.cpp:141] Setting up lstm1_h_conted_0
I0801 02:46:51.310783  1568 net.cpp:148] Top shape: 1 1 1000 (1000)
I0801 02:46:51.310787  1568 net.cpp:156] Memory required for data: 46016
I0801 02:46:51.310791  1568 layer_factory.hpp:77] Creating layer lstm1_transform_1
I0801 02:46:51.310807  1568 net.cpp:91] Creating Layer lstm1_transform_1
I0801 02:46:51.310813  1568 net.cpp:425] lstm1_transform_1 <- h_conted_0
I0801 02:46:51.310820  1568 net.cpp:399] lstm1_transform_1 -> W_hc_h_0
I0801 02:46:51.318444  1579 net.cpp:141] Setting up fc8
I0801 02:46:51.318495  1579 net.cpp:148] Top shape: 10 1000 (10000)
I0801 02:46:51.318500  1579 net.cpp:156] Memory required for data: 68641400
I0801 02:46:51.318514  1579 layer_factory.hpp:77] Creating layer prob
I0801 02:46:51.318529  1579 net.cpp:91] Creating Layer prob
I0801 02:46:51.318536  1579 net.cpp:425] prob <- fc8
I0801 02:46:51.318547  1579 net.cpp:399] prob -> prob
I0801 02:46:51.318953  1579 net.cpp:141] Setting up prob
I0801 02:46:51.318964  1579 net.cpp:148] Top shape: 10 1000 (10000)
I0801 02:46:51.318969  1579 net.cpp:156] Memory required for data: 68681400
I0801 02:46:51.318974  1579 net.cpp:219] prob does not need backward computation.
I0801 02:46:51.318979  1579 net.cpp:219] fc8 does not need backward computation.
I0801 02:46:51.318984  1579 net.cpp:219] drop7 does not need backward computation.
I0801 02:46:51.318987  1579 net.cpp:219] relu7 does not need backward computation.
…
I0801 02:46:51.319054  1579 net.cpp:219] norm1 does not need backward computation.
I0801 02:46:51.319059  1579 net.cpp:219] pool1 does not need backward computation.
I0801 02:46:51.319063  1579 net.cpp:219] relu1 does not need backward computation.
I0801 02:46:51.319067  1579 net.cpp:219] conv1 does not need backward computation.
I0801 02:46:51.319072  1579 net.cpp:219] data does not need backward computation.
I0801 02:46:51.319075  1579 net.cpp:261] This network produces output prob
I0801 02:46:51.319097  1579 net.cpp:274] Network initialization done.
I0801 02:46:51.349349  1568 net.cpp:141] Setting up lstm1_transform_1
I0801 02:46:51.349393  1568 net.cpp:148] Top shape: 1 1 4000 (4000)
I0801 02:46:51.349398  1568 net.cpp:156] Memory required for data: 62016
I0801 02:46:51.349416  1568 layer_factory.hpp:77] Creating layer lstm1_gate_input_1
I0801 02:46:51.349436  1568 net.cpp:91] Creating Layer lstm1_gate_input_1
I0801 02:46:51.349442  1568 net.cpp:425] lstm1_gate_input_1 <- W_hc_h_0
I0801 02:46:51.349452  1568 net.cpp:425] lstm1_gate_input_1 <- W_xc_x_1
I0801 02:46:51.349459  1568 net.cpp:399] lstm1_gate_input_1 -> gate_input_1
I0801 02:46:51.349514  1568 net.cpp:141] Setting up lstm1_gate_input_1
I0801 02:46:51.349522  1568 net.cpp:148] Top shape: 1 1 4000 (4000)
I0801 02:46:51.349526  1568 net.cpp:156] Memory required for data: 78016
I0801 02:46:51.349530  1568 layer_factory.hpp:77] Creating layer lstm1_unit_1
I0801 02:46:51.349539  1568 net.cpp:91] Creating Layer lstm1_unit_1
I0801 02:46:51.349544  1568 net.cpp:425] lstm1_unit_1 <- c_0
I0801 02:46:51.349550  1568 net.cpp:425] lstm1_unit_1 <- gate_input_1
I0801 02:46:51.349555  1568 net.cpp:425] lstm1_unit_1 <- cont_1_lstm1_cont_slice_0_split_1
I0801 02:46:51.349563  1568 net.cpp:399] lstm1_unit_1 -> c_1
I0801 02:46:51.349572  1568 net.cpp:399] lstm1_unit_1 -> h_1
I0801 02:46:51.349634  1568 net.cpp:141] Setting up lstm1_unit_1
I0801 02:46:51.349643  1568 net.cpp:148] Top shape: 1 1 1000 (1000)
I0801 02:46:51.349648  1568 net.cpp:148] Top shape: 1 1 1000 (1000)
I0801 02:46:51.349653  1568 net.cpp:156] Memory required for data: 86016
I0801 02:46:51.349658  1568 layer_factory.hpp:77] Creating layer lstm1_
I0801 02:46:51.349665  1568 net.cpp:91] Creating Layer lstm1_
I0801 02:46:51.349669  1568 net.cpp:425] lstm1_ <- c_1
I0801 02:46:51.349675  1568 net.cpp:399] lstm1_ -> c_T
I0801 02:46:51.349709  1568 net.cpp:141] Setting up lstm1_
I0801 02:46:51.349716  1568 net.cpp:148] Top shape: 1 1 1000 (1000)
I0801 02:46:51.349720  1568 net.cpp:156] Memory required for data: 90016
I0801 02:46:51.349725  1568 layer_factory.hpp:77] Creating layer lstm1_h_concat
I0801 02:46:51.349735  1568 net.cpp:91] Creating Layer lstm1_h_concat
I0801 02:46:51.349738  1568 net.cpp:425] lstm1_h_concat <- h_1
I0801 02:46:51.349745  1568 net.cpp:399] lstm1_h_concat -> h
I0801 02:46:51.349789  1568 net.cpp:141] Setting up lstm1_h_concat
I0801 02:46:51.349797  1568 net.cpp:148] Top shape: 1 1 1000 (1000)
I0801 02:46:51.349802  1568 net.cpp:156] Memory required for data: 94016
I0801 02:46:51.349807  1568 layer_factory.hpp:77] Creating layer h_pseudoloss
I0801 02:46:51.349819  1568 net.cpp:91] Creating Layer h_pseudoloss
I0801 02:46:51.349824  1568 net.cpp:425] h_pseudoloss <- h
I0801 02:46:51.349830  1568 net.cpp:399] h_pseudoloss -> h_pseudoloss
I0801 02:46:51.349916  1568 net.cpp:141] Setting up h_pseudoloss
…
I0801 02:46:51.350028  1568 net.cpp:219] lstm1_ does not need backward computation.
I0801 02:46:51.350031  1568 net.cpp:261] This network produces output c_T
I0801 02:46:51.350035  1568 net.cpp:261] This network produces output h_pseudoloss
I0801 02:46:51.350049  1568 net.cpp:274] Network initialization done.
I0801 02:46:51.350097  1568 recurrent_layer.cpp:150] Adding parameter 0: W_xc
I0801 02:46:51.350103  1568 recurrent_layer.cpp:150] Adding parameter 1: b_c
I0801 02:46:51.350107  1568 recurrent_layer.cpp:150] Adding parameter 2: W_hc
I0801 02:46:51.350208  1568 net.cpp:141] Setting up lstm1
I0801 02:46:51.350219  1568 net.cpp:148] Top shape: 1 1 1000 (1000)
I0801 02:46:51.350224  1568 net.cpp:156] Memory required for data: 26408
I0801 02:46:51.350236  1568 layer_factory.hpp:77] Creating layer concat
I0801 02:46:51.350245  1568 net.cpp:91] Creating Layer concat
I0801 02:46:51.350251  1568 net.cpp:425] concat <- lstm1
I0801 02:46:51.350257  1568 net.cpp:425] concat <- embedded_input_sentence
I0801 02:46:51.350262  1568 net.cpp:425] concat <- reshaped_stage_indicator
I0801 02:46:51.350268  1568 net.cpp:399] concat -> lstm1_video_sequence
I0801 02:46:51.350301  1568 net.cpp:141] Setting up concat
I0801 02:46:51.350309  1568 net.cpp:148] Top shape: 1 1 1501 (1501)
I0801 02:46:51.350313  1568 net.cpp:156] Memory required for data: 32412
I0801 02:46:51.350318  1568 layer_factory.hpp:77] Creating layer lstm2
I0801 02:46:51.350330  1568 net.cpp:91] Creating Layer lstm2
I0801 02:46:51.350334  1568 net.cpp:425] lstm2 <- lstm1_video_sequence
I0801 02:46:51.350340  1568 net.cpp:425] lstm2 <- cont_sentence_input_1_split_1
I0801 02:46:51.350347  1568 net.cpp:399] lstm2 -> lstm2
I0801 02:46:51.350356  1568 recurrent_layer.cpp:20] Initializing recurrent layer: assuming input batch contains 1 timesteps of 1 independent streams.
I0801 02:46:51.350585  1568 net.cpp:49] Initializing net from parameters: 
layer {
  name: "lstm2_"
  type: "Input"
  top: "x"
  top: "cont"
  input_param {
    shape {
      dim: 1
      dim: 1
      dim: 1501
    }
    shape {
      dim: 1
      dim: 1
    }
  }
}
layer {
  name: "lstm2_"
  type: "Input"
  top: "c_0"
  top: "h_0"
  input_param {
    shape {
      dim: 1
      dim: 1
      dim: 1000
    }
    shape {
      dim: 1
      dim: 1
      dim: 1000
    }
  }
}
layer {
  name: "lstm2_cont_slice"
  type: "Slice"
  bottom: "cont"
  top: "cont_1"
  slice_param {
    axis: 0
  }
}
layer {
  name: "lstm2_x_transform"
  type: "InnerProduct"
  bottom: "x"
  top: "W_xc_x"
  param {
    name: "W_xc"
  }
  param {
    name: "b_c"
  }
  propagate_down: true
  inner_product_param {
    num_output: 4000
    bias_term: true
    weight_filler {
      type: "uniform"
      min: -0.08
      max: 0.08
    }
    bias_filler {
      type: "constant"
      value: 0
    }
    axis: 2
  }
}
layer {
  name: "lstm2_W_xc_x_slice"
  type: "Slice"
  bottom: "W_xc_x"
  top: "W_xc_x_1"
  slice_param {
    axis: 0
  }
}
layer {
  name: "lstm2_h_conted_0"
  type: "Scale"
  bottom: "h_0"
  bottom: "cont_1"
  top: "h_conted_0"
  scale_param {
    axis: 0
  }
}
layer {
  name: "lstm2_transform_1"
  type: "InnerProduct"
  bottom: "h_conted_0"
  top: "W_hc_h_0"
  param {
    name: "W_hc"
  }
  inner_product_param {
    num_output: 4000
    bias_term: false
    weight_filler {
      type: "uniform"
      min: -0.08
      max: 0.08
    }
    axis: 2
  }
}
layer {
  name: "lstm2_gate_input_1"
  type: "Eltwise"
  bottom: "W_hc_h_0"
  bottom: "W_xc_x_1"
  top: "gate_input_1"
  eltwise_param {
    operation: SUM
  }
}
layer {
  name: "lstm2_unit_1"
  type: "LSTMUnit"
  bottom: "c_0"
  bottom: "gate_input_1"
  bottom: "cont_1"
  top: "c_1"
  top: "h_1"
}
layer {
  name: "lstm2_"
  type: "Split"
  bottom: "c_1"
  top: "c_T"
}
layer {
  name: "lstm2_h_concat"
  type: "Concat"
  bottom: "h_1"
  top: "h"
  concat_param {
    axis: 0
  }
}
layer {
  name: "h_pseudoloss"
  type: "Reduction"
  bottom: "h"
  top: "h_pseudoloss"
  loss_weight: 1
}
I0801 02:46:51.350674  1568 layer_factory.hpp:77] Creating layer lstm2_
I0801 02:46:51.350687  1568 net.cpp:91] Creating Layer lstm2_
I0801 02:46:51.350692  1568 net.cpp:399] lstm2_ -> x
I0801 02:46:51.350703  1568 net.cpp:399] lstm2_ -> cont
I0801 02:46:51.350754  1568 net.cpp:141] Setting up lstm2_
I0801 02:46:51.350764  1568 net.cpp:148] Top shape: 1 1 1501 (1501)
I0801 02:46:51.350769  1568 net.cpp:148] Top shape: 1 1 (1)
I0801 02:46:51.350774  1568 net.cpp:156] Memory required for data: 6008
I0801 02:46:51.350778  1568 layer_factory.hpp:77] Creating layer lstm2_
I0801 02:46:51.350786  1568 net.cpp:91] Creating Layer lstm2_
I0801 02:46:51.350795  1568 net.cpp:399] lstm2_ -> c_0
I0801 02:46:51.350805  1568 net.cpp:399] lstm2_ -> h_0
I0801 02:46:51.350852  1568 net.cpp:141] Setting up lstm2_
I0801 02:46:51.350860  1568 net.cpp:148] Top shape: 1 1 1000 (1000)
I0801 02:46:51.350865  1568 net.cpp:148] Top shape: 1 1 1000 (1000)
I0801 02:46:51.350869  1568 net.cpp:156] Memory required for data: 14008
I0801 02:46:51.350873  1568 layer_factory.hpp:77] Creating layer lstm2_cont_slice
I0801 02:46:51.350881  1568 net.cpp:91] Creating Layer lstm2_cont_slice
I0801 02:46:51.350886  1568 net.cpp:425] lstm2_cont_slice <- cont
I0801 02:46:51.350893  1568 net.cpp:399] lstm2_cont_slice -> cont_1
I0801 02:46:51.350924  1568 net.cpp:141] Setting up lstm2_cont_slice
I0801 02:46:51.350932  1568 net.cpp:148] Top shape: 1 1 (1)
I0801 02:46:51.350936  1568 net.cpp:156] Memory required for data: 14012
I0801 02:46:51.350941  1568 layer_factory.hpp:77] Creating layer cont_1_lstm2_cont_slice_0_split
I0801 02:46:51.350950  1568 net.cpp:91] Creating Layer cont_1_lstm2_cont_slice_0_split
I0801 02:46:51.350955  1568 net.cpp:425] cont_1_lstm2_cont_slice_0_split <- cont_1
I0801 02:46:51.350961  1568 net.cpp:399] cont_1_lstm2_cont_slice_0_split -> cont_1_lstm2_cont_slice_0_split_0
I0801 02:46:51.350968  1568 net.cpp:399] cont_1_lstm2_cont_slice_0_split -> cont_1_lstm2_cont_slice_0_split_1
I0801 02:46:51.351013  1568 net.cpp:141] Setting up cont_1_lstm2_cont_slice_0_split
I0801 02:46:51.351022  1568 net.cpp:148] Top shape: 1 1 (1)
I0801 02:46:51.351027  1568 net.cpp:148] Top shape: 1 1 (1)
I0801 02:46:51.351032  1568 net.cpp:156] Memory required for data: 14020
I0801 02:46:51.351035  1568 layer_factory.hpp:77] Creating layer lstm2_x_transform
I0801 02:46:51.351047  1568 net.cpp:91] Creating Layer lstm2_x_transform
I0801 02:46:51.351052  1568 net.cpp:425] lstm2_x_transform <- x
I0801 02:46:51.351059  1568 net.cpp:399] lstm2_x_transform -> W_xc_x
I0801 02:46:51.407577  1568 net.cpp:141] Setting up lstm2_x_transform
I0801 02:46:51.407625  1568 net.cpp:148] Top shape: 1 1 4000 (4000)
I0801 02:46:51.407630  1568 net.cpp:156] Memory required for data: 30020
I0801 02:46:51.407650  1568 layer_factory.hpp:77] Creating layer lstm2_W_xc_x_slice
I0801 02:46:51.407675  1568 net.cpp:91] Creating Layer lstm2_W_xc_x_slice
I0801 02:46:51.407681  1568 net.cpp:425] lstm2_W_xc_x_slice <- W_xc_x
I0801 02:46:51.407691  1568 net.cpp:399] lstm2_W_xc_x_slice -> W_xc_x_1
I0801 02:46:51.407740  1568 net.cpp:141] Setting up lstm2_W_xc_x_slice
I0801 02:46:51.407750  1568 net.cpp:148] Top shape: 1 1 4000 (4000)
I0801 02:46:51.407754  1568 net.cpp:156] Memory required for data: 46020
I0801 02:46:51.407759  1568 layer_factory.hpp:77] Creating layer lstm2_h_conted_0
I0801 02:46:51.407769  1568 net.cpp:91] Creating Layer lstm2_h_conted_0
I0801 02:46:51.407774  1568 net.cpp:425] lstm2_h_conted_0 <- h_0
I0801 02:46:51.407780  1568 net.cpp:425] lstm2_h_conted_0 <- cont_1_lstm2_cont_slice_0_split_0
I0801 02:46:51.407788  1568 net.cpp:399] lstm2_h_conted_0 -> h_conted_0
I0801 02:46:51.407878  1568 net.cpp:141] Setting up lstm2_h_conted_0
I0801 02:46:51.407887  1568 net.cpp:148] Top shape: 1 1 1000 (1000)
I0801 02:46:51.407891  1568 net.cpp:156] Memory required for data: 50020
I0801 02:46:51.407896  1568 layer_factory.hpp:77] Creating layer lstm2_transform_1
I0801 02:46:51.407908  1568 net.cpp:91] Creating Layer lstm2_transform_1
I0801 02:46:51.407913  1568 net.cpp:425] lstm2_transform_1 <- h_conted_0
I0801 02:46:51.407920  1568 net.cpp:399] lstm2_transform_1 -> W_hc_h_0
I0801 02:46:51.446312  1568 net.cpp:141] Setting up lstm2_transform_1
I0801 02:46:51.446358  1568 net.cpp:148] Top shape: 1 1 4000 (4000)
I0801 02:46:51.446364  1568 net.cpp:156] Memory required for data: 66020
I0801 02:46:51.446380  1568 layer_factory.hpp:77] Creating layer lstm2_gate_input_1
I0801 02:46:51.446396  1568 net.cpp:91] Creating Layer lstm2_gate_input_1
I0801 02:46:51.446403  1568 net.cpp:425] lstm2_gate_input_1 <- W_hc_h_0
I0801 02:46:51.446411  1568 net.cpp:425] lstm2_gate_input_1 <- W_xc_x_1
I0801 02:46:51.446419  1568 net.cpp:399] lstm2_gate_input_1 -> gate_input_1
I0801 02:46:51.446465  1568 net.cpp:141] Setting up lstm2_gate_input_1
I0801 02:46:51.446472  1568 net.cpp:148] Top shape: 1 1 4000 (4000)
I0801 02:46:51.446476  1568 net.cpp:156] Memory required for data: 82020
I0801 02:46:51.446481  1568 layer_factory.hpp:77] Creating layer lstm2_unit_1
I0801 02:46:51.446492  1568 net.cpp:91] Creating Layer lstm2_unit_1
I0801 02:46:51.446496  1568 net.cpp:425] lstm2_unit_1 <- c_0
I0801 02:46:51.446502  1568 net.cpp:425] lstm2_unit_1 <- gate_input_1
I0801 02:46:51.446507  1568 net.cpp:425] lstm2_unit_1 <- cont_1_lstm2_cont_slice_0_split_1
I0801 02:46:51.446513  1568 net.cpp:399] lstm2_unit_1 -> c_1
I0801 02:46:51.446521  1568 net.cpp:399] lstm2_unit_1 -> h_1
I0801 02:46:51.446583  1568 net.cpp:141] Setting up lstm2_unit_1
I0801 02:46:51.446590  1568 net.cpp:148] Top shape: 1 1 1000 (1000)
I0801 02:46:51.446596  1568 net.cpp:148] Top shape: 1 1 1000 (1000)
I0801 02:46:51.446600  1568 net.cpp:156] Memory required for data: 90020
I0801 02:46:51.446604  1568 layer_factory.hpp:77] Creating layer lstm2_
I0801 02:46:51.446612  1568 net.cpp:91] Creating Layer lstm2_
I0801 02:46:51.446616  1568 net.cpp:425] lstm2_ <- c_1
I0801 02:46:51.446622  1568 net.cpp:399] lstm2_ -> c_T
I0801 02:46:51.446651  1568 net.cpp:141] Setting up lstm2_
I0801 02:46:51.446660  1568 net.cpp:148] Top shape: 1 1 1000 (1000)
I0801 02:46:51.446663  1568 net.cpp:156] Memory required for data: 94020
I0801 02:46:51.446667  1568 layer_factory.hpp:77] Creating layer lstm2_h_concat
I0801 02:46:51.446679  1568 net.cpp:91] Creating Layer lstm2_h_concat
I0801 02:46:51.446683  1568 net.cpp:425] lstm2_h_concat <- h_1
I0801 02:46:51.446691  1568 net.cpp:399] lstm2_h_concat -> h
I0801 02:46:51.446727  1568 net.cpp:141] Setting up lstm2_h_concat
I0801 02:46:51.446735  1568 net.cpp:148] Top shape: 1 1 1000 (1000)
I0801 02:46:51.446739  1568 net.cpp:156] Memory required for data: 98020
I0801 02:46:51.446744  1568 layer_factory.hpp:77] Creating layer h_pseudoloss
I0801 02:46:51.446753  1568 net.cpp:91] Creating Layer h_pseudoloss
I0801 02:46:51.446758  1568 net.cpp:425] h_pseudoloss <- h
I0801 02:46:51.446765  1568 net.cpp:399] h_pseudoloss -> h_pseudoloss
I0801 02:46:51.446848  1568 net.cpp:141] Setting up h_pseudoloss
…
