…
I0924 01:33:41.824007 11329 upgrade_proto.cpp:69] Successfully upgraded file specified using deprecated input fields.
W0924 01:33:41.824020 11333 upgrade_proto.cpp:71] Note that future Caffe releases will only support input layers and not input fields.
W0924 01:33:41.824033 11329 upgrade_proto.cpp:71] Note that future Caffe releases will only support input layers and not input fields.
I0924 01:33:41.824239 11339 net.cpp:49] Initializing net from parameters: 
name: "CaffeNet"
state {
  phase: TEST
}
layer {
  name: "data"
  type: "Input"
  top: "data"
  input_param {
    shape {
      dim: 10
      dim: 3
      dim: 227
      dim: 227
    }
  }
}
layer {
  name: "conv1"
  type: "Convolution"
  bottom: "data"
  top: "conv1"
  convolution_param {
    num_output: 96
    kernel_size: 11
    stride: 4
  }
}
layer {
  name: "relu1"
  type: "ReLU"
  bottom: "conv1"
  top: "conv1"
}
layer {
  name: "pool1"
  type: "Pooling"
  bottom: "conv1"
  top: "pool1"
  pooling_param {
    pool: MAX
    kernel_size: 3
    stride: 2
  }
}
layer {
  name: "norm1"
  type: "LRN"
  bottom: "pool1"
  top: "norm1"
  lrn_param {
    local_size: 5
    alpha: 0.0001
    beta: 0.75
  }
}
layer {
  name: "conv2"
  type: "Convolution"
  bottom: "norm1"
  top: "conv2"
  convolution_param {
    num_output: 256
    pad: 2
    kernel_size: 5
    group: 2
  }
}
layer {
  name: "relu2"
  type: "ReLU"
  bottom: "conv2"
  top: "conv2"
}
layer {
  name: "pool2"
  type: "Pooling"
  bottom: "conv2"
  top: "pool2"
  pooling_param {
    pool: MAX
    kernel_size: 3
    stride: 2
  }
}
layer {
  name: "norm2"
  type: "LRN"
  bottom: "pool2"
  top: "norm2"
  lrn_param {
    local_size: 5
    alpha: 0.0001
    beta: 0.75
  }
}
layer {
  name: "conv3"
  type: "Convolution"
  bottom: "norm2"
  top: "conv3"
  convolution_param {
    num_output: 384
    pad: 1
    kernel_size: 3
  }
}
layer {
  name: "relu3"
  type: "ReLU"
  bottom: "conv3"
  top: "conv3"
}
layer {
  name: "conv4"
  type: "Convolution"
  bottom: "conv3"
  top: "conv4"
  convolution_param {
    num_output: 384
    pad: 1
    kernel_size: 3
    group: 2
  }
}
layer {
  name: "relu4"
  type: "ReLU"
  bottom: "conv4"
  top: "conv4"
}
layer {
  name: "conv5"
  type: "Convolution"
  bottom: "conv4"
  top: "conv5"
  convolution_param {
    num_output: 256
    pad: 1
    kernel_size: 3
    group: 2
  }
}
layer {
  name: "relu5"
  type: "ReLU"
  bottom: "conv5"
  top: "conv5"
}
layer {
  name: "pool5"
  type: "Pooling"
  bottom: "conv5"
  top: "pool5"
  pooling_param {
    pool: MAX
    kernel_size: 3
    stride: 2
  }
}
layer {
  name: "fc6"
  type: "InnerProduct"
  bottom: "pool5"
  top: "fc6"
  inner_product_param {
    num_output: 4096
  }
}
layer {
  name: "relu6"
  type: "ReLU"
  bottom: "fc6"
  top: "fc6"
}
layer {
  name: "drop6"
  type: "Dropout"
  bottom: "fc6"
  top: "fc6"
  dropout_param {
    dropout_ratio: 0.5
  }
}
layer {
  name: "fc7"
  type: "InnerProduct"
  bottom: "fc6"
  top: "fc7"
  inner_product_param {
    num_output: 4096
  }
}
layer {
  name: "relu7"
  type: "ReLU"
  bottom: "fc7"
  top: "fc7"
}
layer {
  name: "drop7"
  type: "Dropout"
  bottom: "fc7"
  top: "fc7"
  dropout_param {
    dropout_ratio: 0.5
  }
}
layer {
  name: "fc8"
  type: "InnerProduct"
  bottom: "fc7"
  top: "fc8"
  inner_product_param {
    num_output: 1000
  }
}
layer {
  name: "prob"
  type: "Softmax"
  bottom: "fc8"
  top: "prob"
}
I0924 01:33:41.824252 11333 net.cpp:49] Initializing net from parameters: 
name: "s2vt:features_to_lstm"
state {
  phase: TEST
}
layer {
  name: "input"
  type: "Input"
  top: "frames_fc7"
  top: "cont_sentence"
  top: "input_sentence"
  top: "stage_indicator"
  input_param {
    shape {
      dim: 1
      dim: 4096
    }
    shape {
      dim: 1
      dim: 1
    }
    shape {
      dim: 1
      dim: 1
    }
    shape {
      dim: 1
      dim: 1
    }
  }
}
layer {
  name: "embed_encoder"
  type: "InnerProduct"
  bottom: "frames_fc7"
  top: "embedded_in_frames"
  param {
    lr_mult: 1
    decay_mult: 1
  }
  param {
    lr_mult: 2
    decay_mult: 0
  }
  inner_product_param {
    num_output: 500
    weight_filler {
      type: "xavier"
    }
    bias_filler {
      type: "constant"
      value: 0.2
    }
  }
}
layer {
  name: "reshape_frames"
  type: "Reshape"
  bottom: "embedded_in_frames"
  top: "embedded_input_frames"
  reshape_param {
    shape {
      dim: 1
      dim: 1
      dim: 500
    }
  }
}
layer {
  name: "reshape_stage_indicator"
  type: "Reshape"
  bottom: "stage_indicator"
  top: "reshaped_stage_indicator"
  reshape_param {
    shape {
      dim: 1
      dim: 1
      dim: 1
    }
  }
}
layer {
  name: "embedding"
  type: "Embed"
  bottom: "input_sentence"
  top: "embedded_input_sentence"
  param {
    lr_mult: 1
  }
  embed_param {
    num_output: 500
    input_dim: 46168
    bias_term: false
    weight_filler {
      type: "uniform"
      min: -0.08
      max: 0.08
    }
  }
}
layer {
  name: "lstm1"
  type: "LSTM"
  bottom: "embedded_input_frames"
  bottom: "cont_sentence"
  top: "lstm1"
  recurrent_param {
    num_output: 1000
    weight_filler {
      type: "uniform"
      min: -0.08
      max: 0.08
    }
    bias_filler {
      type: "constant"
      value: 0
    }
  }
}
layer {
  name: "concat"
  type: "Concat"
  bottom: "lstm1"
  bottom: "embedded_input_sentence"
  bottom: "reshaped_stage_indicator"
  top: "lstm1_video_sequence"
  concat_param {
    concat_dim: 2
  }
}
layer {
  name: "lstm2"
  type: "LSTM"
  bottom: "lstm1_video_sequence"
  bottom: "cont_sentence"
  top: "lstm2"
  recurrent_param {
    num_output: 1000
    weight_filler {
      type: "uniform"
      min: -0.08
      max: 0.08
    }
    bias_filler {
      type: "constant"
      value: 0
    }
  }
}
layer {
  name: "predict"
  type: "InnerProduct"
  bottom: "lstm2"
  top: "predict"
  param {
    lr_mult: 1
    decay_mult: 1
  }
  param {
    lr_mult: 2
    decay_mult: 0
  }
  inner_product_param {
    num_output: 46168
    weight_filler {
      type: "uniform"
      min: -0.08
      max: 0.08
    }
    bias_filler {
      type: "constant"
      value: 0
    }
    axis: 2
  }
}
layer {
  name: "probs"
  type: "Softmax"
  bottom: "predict"
  top: "probs"
  softmax_param {
    axis: 2
  }
}
I0924 01:33:41.824311 11329 net.cpp:49] Initializing net from parameters: 
name: "s2vt:features_to_lstm"
state {
  phase: TEST
}
layer {
  name: "input"
  type: "Input"
  top: "frames_fc7"
  top: "cont_sentence"
  top: "input_sentence"
  top: "stage_indicator"
  input_param {
    shape {
      dim: 1
      dim: 4096
    }
    shape {
      dim: 1
      dim: 1
    }
    shape {
      dim: 1
      dim: 1
    }
    shape {
      dim: 1
      dim: 1
    }
  }
}
layer {
  name: "embed_encoder"
  type: "InnerProduct"
  bottom: "frames_fc7"
  top: "embedded_in_frames"
  param {
    lr_mult: 1
    decay_mult: 1
  }
  param {
    lr_mult: 2
    decay_mult: 0
  }
  inner_product_param {
    num_output: 500
    weight_filler {
      type: "xavier"
    }
    bias_filler {
      type: "constant"
      value: 0.2
    }
  }
}
layer {
  name: "reshape_frames"
  type: "Reshape"
  bottom: "embedded_in_frames"
  top: "embedded_input_frames"
  reshape_param {
    shape {
      dim: 1
      dim: 1
      dim: 500
    }
  }
}
layer {
  name: "reshape_stage_indicator"
  type: "Reshape"
  bottom: "stage_indicator"
  top: "reshaped_stage_indicator"
  reshape_param {
    shape {
      dim: 1
      dim: 1
      dim: 1
    }
  }
}
layer {
  name: "embedding"
  type: "Embed"
  bottom: "input_sentence"
  top: "embedded_input_sentence"
  param {
    lr_mult: 1
  }
  embed_param {
    num_output: 500
    input_dim: 46168
    bias_term: false
    weight_filler {
      type: "uniform"
      min: -0.08
      max: 0.08
    }
  }
}
layer {
  name: "lstm1"
  type: "LSTM"
  bottom: "embedded_input_frames"
  bottom: "cont_sentence"
  top: "lstm1"
  recurrent_param {
    num_output: 1000
    weight_filler {
      type: "uniform"
      min: -0.08
      max: 0.08
    }
    bias_filler {
      type: "constant"
      value: 0
    }
  }
}
layer {
  name: "concat"
  type: "Concat"
  bottom: "lstm1"
  bottom: "embedded_input_sentence"
  bottom: "reshaped_stage_indicator"
  top: "lstm1_video_sequence"
  concat_param {
    concat_dim: 2
  }
}
layer {
  name: "lstm2"
  type: "LSTM"
  bottom: "lstm1_video_sequence"
  bottom: "cont_sentence"
  top: "lstm2"
  recurrent_param {
    num_output: 1000
    weight_filler {
      type: "uniform"
      min: -0.08
      max: 0.08
    }
    bias_filler {
      type: "constant"
      value: 0
    }
  }
}
layer {
  name: "predict"
  type: "InnerProduct"
  bottom: "lstm2"
  top: "predict"
  param {
    lr_mult: 1
    decay_mult: 1
  }
  param {
    lr_mult: 2
    decay_mult: 0
  }
  inner_product_param {
    num_output: 46168
    weight_filler {
      type: "uniform"
      min: -0.08
      max: 0.08
    }
    bias_filler {
      type: "constant"
      value: 0
    }
    axis: 2
  }
}
layer {
  name: "probs"
  type: "Softmax"
  bottom: "predict"
  top: "probs"
  softmax_param {
    axis: 2
  }
}
I0924 01:33:41.824370 11339 layer_factory.hpp:77] Creating layer data
I0924 01:33:41.824380 11333 layer_factory.hpp:77] Creating layer input
I0924 01:33:41.824398 11333 net.cpp:91] Creating Layer input
I0924 01:33:41.824398 11339 net.cpp:91] Creating Layer data
I0924 01:33:41.824417 11333 net.cpp:399] input -> frames_fc7
I0924 01:33:41.824419 11329 layer_factory.hpp:77] Creating layer input
I0924 01:33:41.824420 11339 net.cpp:399] data -> data
I0924 01:33:41.824440 11329 net.cpp:91] Creating Layer input
I0924 01:33:41.824450 11329 net.cpp:399] input -> frames_fc7
I0924 01:33:41.824458 11333 net.cpp:399] input -> cont_sentence
I0924 01:33:41.824468 11329 net.cpp:399] input -> cont_sentence
I0924 01:33:41.824473 11333 net.cpp:399] input -> input_sentence
I0924 01:33:41.824481 11329 net.cpp:399] input -> input_sentence
I0924 01:33:41.824484 11333 net.cpp:399] input -> stage_indicator
I0924 01:33:41.824492 11329 net.cpp:399] input -> stage_indicator
I0924 01:33:42.489552 11339 net.cpp:141] Setting up data
I0924 01:33:42.489640 11339 net.cpp:148] Top shape: 10 3 227 227 (1545870)
I0924 01:33:42.489648 11339 net.cpp:156] Memory required for data: 6183480
I0924 01:33:42.489671 11339 layer_factory.hpp:77] Creating layer conv1
I0924 01:33:42.489693 11333 net.cpp:141] Setting up input
I0924 01:33:42.489706 11339 net.cpp:91] Creating Layer conv1
I0924 01:33:42.489712 11333 net.cpp:148] Top shape: 1 4096 (4096)
I0924 01:33:42.489714 11339 net.cpp:425] conv1 <- data
I0924 01:33:42.489720 11333 net.cpp:148] Top shape: 1 1 (1)
I0924 01:33:42.489727 11333 net.cpp:148] Top shape: 1 1 (1)
I0924 01:33:42.489729 11339 net.cpp:399] conv1 -> conv1
I0924 01:33:42.489733 11333 net.cpp:148] Top shape: 1 1 (1)
I0924 01:33:42.489738 11333 net.cpp:156] Memory required for data: 16396
I0924 01:33:42.489745 11333 layer_factory.hpp:77] Creating layer cont_sentence_input_1_split
I0924 01:33:42.489763 11333 net.cpp:91] Creating Layer cont_sentence_input_1_split
I0924 01:33:42.489761 11329 net.cpp:141] Setting up input
I0924 01:33:42.489770 11333 net.cpp:425] cont_sentence_input_1_split <- cont_sentence
I0924 01:33:42.489787 11329 net.cpp:148] Top shape: 1 4096 (4096)
I0924 01:33:42.489795 11329 net.cpp:148] Top shape: 1 1 (1)
I0924 01:33:42.489800 11329 net.cpp:148] Top shape: 1 1 (1)
I0924 01:33:42.489804 11333 net.cpp:399] cont_sentence_input_1_split -> cont_sentence_input_1_split_0
I0924 01:33:42.489806 11329 net.cpp:148] Top shape: 1 1 (1)
I0924 01:33:42.489811 11329 net.cpp:156] Memory required for data: 16396
I0924 01:33:42.489819 11329 layer_factory.hpp:77] Creating layer cont_sentence_input_1_split
I0924 01:33:42.489819 11333 net.cpp:399] cont_sentence_input_1_split -> cont_sentence_input_1_split_1
I0924 01:33:42.489835 11329 net.cpp:91] Creating Layer cont_sentence_input_1_split
I0924 01:33:42.489841 11329 net.cpp:425] cont_sentence_input_1_split <- cont_sentence
I0924 01:33:42.489852 11329 net.cpp:399] cont_sentence_input_1_split -> cont_sentence_input_1_split_0
I0924 01:33:42.489869 11329 net.cpp:399] cont_sentence_input_1_split -> cont_sentence_input_1_split_1
I0924 01:33:42.489974 11329 net.cpp:141] Setting up cont_sentence_input_1_split
I0924 01:33:42.489994 11333 net.cpp:141] Setting up cont_sentence_input_1_split
I0924 01:33:42.489994 11329 net.cpp:148] Top shape: 1 1 (1)
I0924 01:33:42.490010 11333 net.cpp:148] Top shape: 1 1 (1)
I0924 01:33:42.490015 11333 net.cpp:148] Top shape: 1 1 (1)
I0924 01:33:42.490017 11329 net.cpp:148] Top shape: 1 1 (1)
I0924 01:33:42.490020 11333 net.cpp:156] Memory required for data: 16404
I0924 01:33:42.490031 11329 net.cpp:156] Memory required for data: 16404
I0924 01:33:42.490034 11333 layer_factory.hpp:77] Creating layer embed_encoder
I0924 01:33:42.490039 11329 layer_factory.hpp:77] Creating layer embed_encoder
I0924 01:33:42.490067 11333 net.cpp:91] Creating Layer embed_encoder
I0924 01:33:42.490068 11329 net.cpp:91] Creating Layer embed_encoder
I0924 01:33:42.490075 11333 net.cpp:425] embed_encoder <- frames_fc7
I0924 01:33:42.490078 11329 net.cpp:425] embed_encoder <- frames_fc7
I0924 01:33:42.490084 11333 net.cpp:399] embed_encoder -> embedded_in_frames
I0924 01:33:42.490097 11329 net.cpp:399] embed_encoder -> embedded_in_frames
I0924 01:33:42.514825 11333 net.cpp:141] Setting up embed_encoder
I0924 01:33:42.514875 11333 net.cpp:148] Top shape: 1 500 (500)
I0924 01:33:42.514883 11333 net.cpp:156] Memory required for data: 18404
I0924 01:33:42.514911 11333 layer_factory.hpp:77] Creating layer reshape_frames
I0924 01:33:42.514925 11329 net.cpp:141] Setting up embed_encoder
I0924 01:33:42.514942 11329 net.cpp:148] Top shape: 1 500 (500)
I0924 01:33:42.514943 11333 net.cpp:91] Creating Layer reshape_frames
I0924 01:33:42.514947 11329 net.cpp:156] Memory required for data: 18404
I0924 01:33:42.514952 11333 net.cpp:425] reshape_frames <- embedded_in_frames
I0924 01:33:42.514962 11333 net.cpp:399] reshape_frames -> embedded_input_frames
I0924 01:33:42.514966 11329 layer_factory.hpp:77] Creating layer reshape_frames
I0924 01:33:42.514979 11329 net.cpp:91] Creating Layer reshape_frames
I0924 01:33:42.514987 11329 net.cpp:425] reshape_frames <- embedded_in_frames
I0924 01:33:42.514997 11329 net.cpp:399] reshape_frames -> embedded_input_frames
I0924 01:33:42.515259 11333 net.cpp:141] Setting up reshape_frames
I0924 01:33:42.515271 11333 net.cpp:148] Top shape: 1 1 500 (500)
I0924 01:33:42.515275 11333 net.cpp:156] Memory required for data: 20404
I0924 01:33:42.515280 11333 layer_factory.hpp:77] Creating layer reshape_stage_indicator
I0924 01:33:42.515283 11329 net.cpp:141] Setting up reshape_frames
I0924 01:33:42.515293 11333 net.cpp:91] Creating Layer reshape_stage_indicator
I0924 01:33:42.515295 11329 net.cpp:148] Top shape: 1 1 500 (500)
I0924 01:33:42.515300 11333 net.cpp:425] reshape_stage_indicator <- stage_indicator
I0924 01:33:42.515301 11329 net.cpp:156] Memory required for data: 20404
I0924 01:33:42.515313 11329 layer_factory.hpp:77] Creating layer reshape_stage_indicator
I0924 01:33:42.515316 11333 net.cpp:399] reshape_stage_indicator -> reshaped_stage_indicator
I0924 01:33:42.515329 11329 net.cpp:91] Creating Layer reshape_stage_indicator
I0924 01:33:42.515336 11329 net.cpp:425] reshape_stage_indicator <- stage_indicator
I0924 01:33:42.515343 11329 net.cpp:399] reshape_stage_indicator -> reshaped_stage_indicator
I0924 01:33:42.515475 11333 net.cpp:141] Setting up reshape_stage_indicator
I0924 01:33:42.515487 11333 net.cpp:148] Top shape: 1 1 1 (1)
I0924 01:33:42.515492 11333 net.cpp:156] Memory required for data: 20408
I0924 01:33:42.515497 11333 layer_factory.hpp:77] Creating layer embedding
I0924 01:33:42.515502 11329 net.cpp:141] Setting up reshape_stage_indicator
I0924 01:33:42.515511 11333 net.cpp:91] Creating Layer embedding
I0924 01:33:42.515513 11329 net.cpp:148] Top shape: 1 1 1 (1)
I0924 01:33:42.515516 11333 net.cpp:425] embedding <- input_sentence
I0924 01:33:42.515518 11329 net.cpp:156] Memory required for data: 20408
I0924 01:33:42.515523 11329 layer_factory.hpp:77] Creating layer embedding
I0924 01:33:42.515525 11333 net.cpp:399] embedding -> embedded_input_sentence
I0924 01:33:42.515538 11329 net.cpp:91] Creating Layer embedding
I0924 01:33:42.515544 11329 net.cpp:425] embedding <- input_sentence
I0924 01:33:42.515552 11329 net.cpp:399] embedding -> embedded_input_sentence
I0924 01:33:42.753031 11329 net.cpp:141] Setting up embedding
I0924 01:33:42.753083 11329 net.cpp:148] Top shape: 1 1 500 (500)
I0924 01:33:42.753092 11329 net.cpp:156] Memory required for data: 22408
I0924 01:33:42.753110 11329 layer_factory.hpp:77] Creating layer lstm1
I0924 01:33:42.753135 11329 net.cpp:91] Creating Layer lstm1
I0924 01:33:42.753145 11329 net.cpp:425] lstm1 <- embedded_input_frames
I0924 01:33:42.753154 11329 net.cpp:425] lstm1 <- cont_sentence_input_1_split_0
I0924 01:33:42.753165 11329 net.cpp:399] lstm1 -> lstm1
I0924 01:33:42.753206 11329 recurrent_layer.cpp:20] Initializing recurrent layer: assuming input batch contains 1 timesteps of 1 independent streams.
I0924 01:33:42.753706 11329 net.cpp:49] Initializing net from parameters: 
layer {
  name: "lstm1_"
  type: "Input"
  top: "x"
  top: "cont"
  input_param {
    shape {
      dim: 1
      dim: 1
      dim: 500
    }
    shape {
      dim: 1
      dim: 1
    }
  }
}
layer {
  name: "lstm1_"
  type: "Input"
  top: "c_0"
  top: "h_0"
  input_param {
    shape {
      dim: 1
      dim: 1
      dim: 1000
    }
    shape {
      dim: 1
      dim: 1
      dim: 1000
    }
  }
}
layer {
  name: "lstm1_cont_slice"
  type: "Slice"
  bottom: "cont"
  top: "cont_1"
  slice_param {
    axis: 0
  }
}
layer {
  name: "lstm1_x_transform"
  type: "InnerProduct"
  bottom: "x"
  top: "W_xc_x"
  param {
    name: "W_xc"
  }
  param {
    name: "b_c"
  }
  propagate_down: true
  inner_product_param {
    num_output: 4000
    bias_term: true
    weight_filler {
      type: "uniform"
      min: -0.08
      max: 0.08
    }
    bias_filler {
      type: "constant"
      value: 0
    }
    axis: 2
  }
}
layer {
  name: "lstm1_W_xc_x_slice"
  type: "Slice"
  bottom: "W_xc_x"
  top: "W_xc_x_1"
  slice_param {
    axis: 0
  }
}
layer {
  name: "lstm1_h_conted_0"
  type: "Scale"
  bottom: "h_0"
  bottom: "cont_1"
  top: "h_conted_0"
  scale_param {
    axis: 0
  }
}
layer {
  name: "lstm1_transform_1"
  type: "InnerProduct"
  bottom: "h_conted_0"
  top: "W_hc_h_0"
  param {
    name: "W_hc"
  }
  inner_product_param {
    num_output: 4000
    bias_term: false
    weight_filler {
      type: "uniform"
      min: -0.08
      max: 0.08
    }
    axis: 2
  }
}
layer {
  name: "lstm1_gate_input_1"
  type: "Eltwise"
  bottom: "W_hc_h_0"
  bottom: "W_xc_x_1"
  top: "gate_input_1"
  eltwise_param {
    operation: SUM
  }
}
layer {
  name: "lstm1_unit_1"
  type: "LSTMUnit"
  bottom: "c_0"
  bottom: "gate_input_1"
  bottom: "cont_1"
  top: "c_1"
  top: "h_1"
}
layer {
  name: "lstm1_"
  type: "Split"
  bottom: "c_1"
  top: "c_T"
}
layer {
  name: "lstm1_h_concat"
  type: "Concat"
  bottom: "h_1"
  top: "h"
  concat_param {
    axis: 0
  }
}
layer {
  name: "h_pseudoloss"
  type: "Reduction"
  bottom: "h"
  top: "h_pseudoloss"
  loss_weight: 1
}
I0924 01:33:42.753818 11329 layer_factory.hpp:77] Creating layer lstm1_
I0924 01:33:42.753834 11329 net.cpp:91] Creating Layer lstm1_
I0924 01:33:42.753841 11329 net.cpp:399] lstm1_ -> x
I0924 01:33:42.753856 11329 net.cpp:399] lstm1_ -> cont
I0924 01:33:42.755329 11329 net.cpp:141] Setting up lstm1_
I0924 01:33:42.755349 11329 net.cpp:148] Top shape: 1 1 500 (500)
I0924 01:33:42.755357 11329 net.cpp:148] Top shape: 1 1 (1)
I0924 01:33:42.755360 11329 net.cpp:156] Memory required for data: 2004
I0924 01:33:42.755367 11329 layer_factory.hpp:77] Creating layer lstm1_
I0924 01:33:42.755383 11329 net.cpp:91] Creating Layer lstm1_
I0924 01:33:42.755391 11329 net.cpp:399] lstm1_ -> c_0
I0924 01:33:42.755403 11329 net.cpp:399] lstm1_ -> h_0
I0924 01:33:42.760628 11329 net.cpp:141] Setting up lstm1_
I0924 01:33:42.760649 11329 net.cpp:148] Top shape: 1 1 1000 (1000)
I0924 01:33:42.760655 11329 net.cpp:148] Top shape: 1 1 1000 (1000)
I0924 01:33:42.760659 11329 net.cpp:156] Memory required for data: 10004
I0924 01:33:42.760664 11329 layer_factory.hpp:77] Creating layer lstm1_cont_slice
I0924 01:33:42.760679 11329 net.cpp:91] Creating Layer lstm1_cont_slice
I0924 01:33:42.760684 11329 net.cpp:425] lstm1_cont_slice <- cont
I0924 01:33:42.760692 11329 net.cpp:399] lstm1_cont_slice -> cont_1
I0924 01:33:42.768261 11329 net.cpp:141] Setting up lstm1_cont_slice
I0924 01:33:42.768311 11329 net.cpp:148] Top shape: 1 1 (1)
I0924 01:33:42.768317 11329 net.cpp:156] Memory required for data: 10008
I0924 01:33:42.768326 11329 layer_factory.hpp:77] Creating layer cont_1_lstm1_cont_slice_0_split
I0924 01:33:42.768343 11329 net.cpp:91] Creating Layer cont_1_lstm1_cont_slice_0_split
I0924 01:33:42.768350 11329 net.cpp:425] cont_1_lstm1_cont_slice_0_split <- cont_1
I0924 01:33:42.768364 11329 net.cpp:399] cont_1_lstm1_cont_slice_0_split -> cont_1_lstm1_cont_slice_0_split_0
I0924 01:33:42.768378 11329 net.cpp:399] cont_1_lstm1_cont_slice_0_split -> cont_1_lstm1_cont_slice_0_split_1
I0924 01:33:42.768445 11329 net.cpp:141] Setting up cont_1_lstm1_cont_slice_0_split
I0924 01:33:42.768457 11329 net.cpp:148] Top shape: 1 1 (1)
I0924 01:33:42.768468 11329 net.cpp:148] Top shape: 1 1 (1)
I0924 01:33:42.768476 11329 net.cpp:156] Memory required for data: 10016
I0924 01:33:42.768482 11329 layer_factory.hpp:77] Creating layer lstm1_x_transform
I0924 01:33:42.768501 11329 net.cpp:91] Creating Layer lstm1_x_transform
I0924 01:33:42.768506 11329 net.cpp:425] lstm1_x_transform <- x
I0924 01:33:42.768517 11329 net.cpp:399] lstm1_x_transform -> W_xc_x
I0924 01:33:42.782433 11333 net.cpp:141] Setting up embedding
I0924 01:33:42.782485 11333 net.cpp:148] Top shape: 1 1 500 (500)
I0924 01:33:42.782491 11333 net.cpp:156] Memory required for data: 22408
I0924 01:33:42.782510 11333 layer_factory.hpp:77] Creating layer lstm1
I0924 01:33:42.782533 11333 net.cpp:91] Creating Layer lstm1
I0924 01:33:42.782541 11333 net.cpp:425] lstm1 <- embedded_input_frames
I0924 01:33:42.782552 11333 net.cpp:425] lstm1 <- cont_sentence_input_1_split_0
I0924 01:33:42.782562 11333 net.cpp:399] lstm1 -> lstm1
I0924 01:33:42.782580 11333 recurrent_layer.cpp:20] Initializing recurrent layer: assuming input batch contains 1 timesteps of 1 independent streams.
I0924 01:33:42.782897 11333 net.cpp:49] Initializing net from parameters: 
layer {
  name: "lstm1_"
  type: "Input"
  top: "x"
  top: "cont"
  input_param {
    shape {
      dim: 1
      dim: 1
      dim: 500
    }
    shape {
      dim: 1
      dim: 1
    }
  }
}
layer {
  name: "lstm1_"
  type: "Input"
  top: "c_0"
  top: "h_0"
  input_param {
    shape {
      dim: 1
      dim: 1
      dim: 1000
    }
    shape {
      dim: 1
      dim: 1
      dim: 1000
    }
  }
}
layer {
  name: "lstm1_cont_slice"
  type: "Slice"
  bottom: "cont"
  top: "cont_1"
  slice_param {
    axis: 0
  }
}
layer {
  name: "lstm1_x_transform"
  type: "InnerProduct"
  bottom: "x"
  top: "W_xc_x"
  param {
    name: "W_xc"
  }
  param {
    name: "b_c"
  }
  propagate_down: true
  inner_product_param {
    num_output: 4000
    bias_term: true
    weight_filler {
      type: "uniform"
      min: -0.08
      max: 0.08
    }
    bias_filler {
      type: "constant"
      value: 0
    }
    axis: 2
  }
}
layer {
  name: "lstm1_W_xc_x_slice"
  type: "Slice"
  bottom: "W_xc_x"
  top: "W_xc_x_1"
  slice_param {
    axis: 0
  }
}
layer {
  name: "lstm1_h_conted_0"
  type: "Scale"
  bottom: "h_0"
  bottom: "cont_1"
  top: "h_conted_0"
  scale_param {
    axis: 0
  }
}
layer {
  name: "lstm1_transform_1"
  type: "InnerProduct"
  bottom: "h_conted_0"
  top: "W_hc_h_0"
  param {
    name: "W_hc"
  }
  inner_product_param {
    num_output: 4000
    bias_term: false
    weight_filler {
      type: "uniform"
      min: -0.08
      max: 0.08
    }
    axis: 2
  }
}
layer {
  name: "lstm1_gate_input_1"
  type: "Eltwise"
  bottom: "W_hc_h_0"
  bottom: "W_xc_x_1"
  top: "gate_input_1"
  eltwise_param {
    operation: SUM
  }
}
layer {
  name: "lstm1_unit_1"
  type: "LSTMUnit"
  bottom: "c_0"
  bottom: "gate_input_1"
  bottom: "cont_1"
  top: "c_1"
  top: "h_1"
}
layer {
  name: "lstm1_"
  type: "Split"
  bottom: "c_1"
  top: "c_T"
}
layer {
  name: "lstm1_h_concat"
  type: "Concat"
  bottom: "h_1"
  top: "h"
  concat_param {
    axis: 0
  }
}
layer {
  name: "h_pseudoloss"
  type: "Reduction"
  bottom: "h"
  top: "h_pseudoloss"
  loss_weight: 1
}
I0924 01:33:42.782989 11333 layer_factory.hpp:77] Creating layer lstm1_
I0924 01:33:42.783002 11333 net.cpp:91] Creating Layer lstm1_
I0924 01:33:42.783009 11333 net.cpp:399] lstm1_ -> x
I0924 01:33:42.783020 11333 net.cpp:399] lstm1_ -> cont
I0924 01:33:42.789175 11333 net.cpp:141] Setting up lstm1_
I0924 01:33:42.789208 11333 net.cpp:148] Top shape: 1 1 500 (500)
I0924 01:33:42.789216 11333 net.cpp:148] Top shape: 1 1 (1)
I0924 01:33:42.789219 11333 net.cpp:156] Memory required for data: 2004
I0924 01:33:42.789227 11333 layer_factory.hpp:77] Creating layer lstm1_
I0924 01:33:42.789258 11333 net.cpp:91] Creating Layer lstm1_
I0924 01:33:42.789268 11333 net.cpp:399] lstm1_ -> c_0
I0924 01:33:42.789284 11333 net.cpp:399] lstm1_ -> h_0
I0924 01:33:42.789980 11329 net.cpp:141] Setting up lstm1_x_transform
I0924 01:33:42.789997 11329 net.cpp:148] Top shape: 1 1 4000 (4000)
I0924 01:33:42.790004 11329 net.cpp:156] Memory required for data: 26016
I0924 01:33:42.790017 11329 layer_factory.hpp:77] Creating layer lstm1_W_xc_x_slice
I0924 01:33:42.790030 11329 net.cpp:91] Creating Layer lstm1_W_xc_x_slice
I0924 01:33:42.790035 11329 net.cpp:425] lstm1_W_xc_x_slice <- W_xc_x
I0924 01:33:42.790055 11329 net.cpp:399] lstm1_W_xc_x_slice -> W_xc_x_1
I0924 01:33:42.790056 11333 net.cpp:141] Setting up lstm1_
I0924 01:33:42.790074 11333 net.cpp:148] Top shape: 1 1 1000 (1000)
I0924 01:33:42.790081 11333 net.cpp:148] Top shape: 1 1 1000 (1000)
I0924 01:33:42.790086 11333 net.cpp:156] Memory required for data: 10004
I0924 01:33:42.790091 11333 layer_factory.hpp:77] Creating layer lstm1_cont_slice
I0924 01:33:42.790102 11329 net.cpp:141] Setting up lstm1_W_xc_x_slice
I0924 01:33:42.790103 11333 net.cpp:91] Creating Layer lstm1_cont_slice
I0924 01:33:42.790114 11329 net.cpp:148] Top shape: 1 1 4000 (4000)
I0924 01:33:42.790117 11333 net.cpp:425] lstm1_cont_slice <- cont
I0924 01:33:42.790119 11329 net.cpp:156] Memory required for data: 42016
I0924 01:33:42.790124 11333 net.cpp:399] lstm1_cont_slice -> cont_1
I0924 01:33:42.790125 11329 layer_factory.hpp:77] Creating layer lstm1_h_conted_0
I0924 01:33:42.790138 11329 net.cpp:91] Creating Layer lstm1_h_conted_0
I0924 01:33:42.790143 11329 net.cpp:425] lstm1_h_conted_0 <- h_0
I0924 01:33:42.790148 11329 net.cpp:425] lstm1_h_conted_0 <- cont_1_lstm1_cont_slice_0_split_0
I0924 01:33:42.790158 11329 net.cpp:399] lstm1_h_conted_0 -> h_conted_0
I0924 01:33:42.790354 11333 net.cpp:141] Setting up lstm1_cont_slice
I0924 01:33:42.790366 11333 net.cpp:148] Top shape: 1 1 (1)
I0924 01:33:42.790370 11333 net.cpp:156] Memory required for data: 10008
I0924 01:33:42.790375 11333 layer_factory.hpp:77] Creating layer cont_1_lstm1_cont_slice_0_split
I0924 01:33:42.790383 11333 net.cpp:91] Creating Layer cont_1_lstm1_cont_slice_0_split
I0924 01:33:42.790388 11333 net.cpp:425] cont_1_lstm1_cont_slice_0_split <- cont_1
I0924 01:33:42.790397 11333 net.cpp:399] cont_1_lstm1_cont_slice_0_split -> cont_1_lstm1_cont_slice_0_split_0
I0924 01:33:42.790406 11333 net.cpp:399] cont_1_lstm1_cont_slice_0_split -> cont_1_lstm1_cont_slice_0_split_1
I0924 01:33:42.790472 11329 net.cpp:141] Setting up lstm1_h_conted_0
I0924 01:33:42.790484 11329 net.cpp:148] Top shape: 1 1 1000 (1000)
I0924 01:33:42.790488 11329 net.cpp:156] Memory required for data: 46016
I0924 01:33:42.790493 11329 layer_factory.hpp:77] Creating layer lstm1_transform_1
I0924 01:33:42.790508 11329 net.cpp:91] Creating Layer lstm1_transform_1
I0924 01:33:42.790513 11329 net.cpp:425] lstm1_transform_1 <- h_conted_0
I0924 01:33:42.790521 11329 net.cpp:399] lstm1_transform_1 -> W_hc_h_0
I0924 01:33:42.790549 11333 net.cpp:141] Setting up cont_1_lstm1_cont_slice_0_split
I0924 01:33:42.790561 11333 net.cpp:148] Top shape: 1 1 (1)
I0924 01:33:42.790567 11333 net.cpp:148] Top shape: 1 1 (1)
I0924 01:33:42.790571 11333 net.cpp:156] Memory required for data: 10016
I0924 01:33:42.790576 11333 layer_factory.hpp:77] Creating layer lstm1_x_transform
I0924 01:33:42.790587 11333 net.cpp:91] Creating Layer lstm1_x_transform
I0924 01:33:42.790592 11333 net.cpp:425] lstm1_x_transform <- x
I0924 01:33:42.790619 11333 net.cpp:399] lstm1_x_transform -> W_xc_x
I0924 01:33:42.803582 11339 net.cpp:141] Setting up conv1
I0924 01:33:42.803639 11339 net.cpp:148] Top shape: 10 96 55 55 (2904000)
I0924 01:33:42.803649 11339 net.cpp:156] Memory required for data: 17799480
I0924 01:33:42.803681 11339 layer_factory.hpp:77] Creating layer relu1
I0924 01:33:42.803706 11339 net.cpp:91] Creating Layer relu1
I0924 01:33:42.803717 11339 net.cpp:425] relu1 <- conv1
I0924 01:33:42.803730 11339 net.cpp:386] relu1 -> conv1 (in-place)
I0924 01:33:42.804265 11339 net.cpp:141] Setting up relu1
I0924 01:33:42.804283 11339 net.cpp:148] Top shape: 10 96 55 55 (2904000)
I0924 01:33:42.804291 11339 net.cpp:156] Memory required for data: 29415480
I0924 01:33:42.804299 11339 layer_factory.hpp:77] Creating layer pool1
I0924 01:33:42.804318 11339 net.cpp:91] Creating Layer pool1
I0924 01:33:42.804327 11339 net.cpp:425] pool1 <- conv1
I0924 01:33:42.804339 11339 net.cpp:399] pool1 -> pool1
I0924 01:33:42.804442 11339 net.cpp:141] Setting up pool1
I0924 01:33:42.804460 11339 net.cpp:148] Top shape: 10 96 27 27 (699840)
I0924 01:33:42.804466 11339 net.cpp:156] Memory required for data: 32214840
I0924 01:33:42.804474 11339 layer_factory.hpp:77] Creating layer norm1
I0924 01:33:42.804499 11339 net.cpp:91] Creating Layer norm1
I0924 01:33:42.804508 11339 net.cpp:425] norm1 <- pool1
I0924 01:33:42.804520 11339 net.cpp:399] norm1 -> norm1
I0924 01:33:42.804889 11339 net.cpp:141] Setting up norm1
I0924 01:33:42.804908 11339 net.cpp:148] Top shape: 10 96 27 27 (699840)
I0924 01:33:42.804914 11339 net.cpp:156] Memory required for data: 35014200
I0924 01:33:42.804924 11339 layer_factory.hpp:77] Creating layer conv2
I0924 01:33:42.804944 11339 net.cpp:91] Creating Layer conv2
I0924 01:33:42.804952 11339 net.cpp:425] conv2 <- norm1
I0924 01:33:42.804965 11339 net.cpp:399] conv2 -> conv2
I0924 01:33:42.809157 11339 net.cpp:141] Setting up conv2
I0924 01:33:42.809186 11339 net.cpp:148] Top shape: 10 256 27 27 (1866240)
I0924 01:33:42.809196 11339 net.cpp:156] Memory required for data: 42479160
I0924 01:33:42.809216 11339 layer_factory.hpp:77] Creating layer relu2
I0924 01:33:42.809231 11339 net.cpp:91] Creating Layer relu2
I0924 01:33:42.809240 11339 net.cpp:425] relu2 <- conv2
I0924 01:33:42.809252 11339 net.cpp:386] relu2 -> conv2 (in-place)
I0924 01:33:42.809759 11339 net.cpp:141] Setting up relu2
I0924 01:33:42.809777 11339 net.cpp:148] Top shape: 10 256 27 27 (1866240)
I0924 01:33:42.809785 11339 net.cpp:156] Memory required for data: 49944120
I0924 01:33:42.809794 11339 layer_factory.hpp:77] Creating layer pool2
I0924 01:33:42.809808 11339 net.cpp:91] Creating Layer pool2
I0924 01:33:42.809816 11339 net.cpp:425] pool2 <- conv2
I0924 01:33:42.809828 11339 net.cpp:399] pool2 -> pool2
I0924 01:33:42.809901 11339 net.cpp:141] Setting up pool2
I0924 01:33:42.809916 11339 net.cpp:148] Top shape: 10 256 13 13 (432640)
I0924 01:33:42.809923 11339 net.cpp:156] Memory required for data: 51674680
I0924 01:33:42.809931 11339 layer_factory.hpp:77] Creating layer norm2
I0924 01:33:42.809947 11339 net.cpp:91] Creating Layer norm2
I0924 01:33:42.809954 11339 net.cpp:425] norm2 <- pool2
I0924 01:33:42.809965 11339 net.cpp:399] norm2 -> norm2
I0924 01:33:42.810322 11339 net.cpp:141] Setting up norm2
I0924 01:33:42.810339 11339 net.cpp:148] Top shape: 10 256 13 13 (432640)
I0924 01:33:42.810348 11339 net.cpp:156] Memory required for data: 53405240
I0924 01:33:42.810356 11339 layer_factory.hpp:77] Creating layer conv3
I0924 01:33:42.810374 11339 net.cpp:91] Creating Layer conv3
I0924 01:33:42.810381 11339 net.cpp:425] conv3 <- norm2
I0924 01:33:42.810392 11339 net.cpp:399] conv3 -> conv3
I0924 01:33:42.815358 11339 net.cpp:141] Setting up conv3
I0924 01:33:42.815412 11339 net.cpp:148] Top shape: 10 384 13 13 (648960)
I0924 01:33:42.815423 11339 net.cpp:156] Memory required for data: 56001080
I0924 01:33:42.815450 11339 layer_factory.hpp:77] Creating layer relu3
I0924 01:33:42.815474 11339 net.cpp:91] Creating Layer relu3
I0924 01:33:42.815484 11339 net.cpp:425] relu3 <- conv3
I0924 01:33:42.815496 11339 net.cpp:386] relu3 -> conv3 (in-place)
I0924 01:33:42.815814 11339 net.cpp:141] Setting up relu3
I0924 01:33:42.815829 11339 net.cpp:148] Top shape: 10 384 13 13 (648960)
I0924 01:33:42.815837 11339 net.cpp:156] Memory required for data: 58596920
I0924 01:33:42.815846 11339 layer_factory.hpp:77] Creating layer conv4
I0924 01:33:42.815865 11339 net.cpp:91] Creating Layer conv4
I0924 01:33:42.815874 11339 net.cpp:425] conv4 <- conv3
I0924 01:33:42.815886 11339 net.cpp:399] conv4 -> conv4
I0924 01:33:42.818212 11333 net.cpp:141] Setting up lstm1_x_transform
I0924 01:33:42.818245 11333 net.cpp:148] Top shape: 1 1 4000 (4000)
I0924 01:33:42.818254 11333 net.cpp:156] Memory required for data: 26016
I0924 01:33:42.818274 11333 layer_factory.hpp:77] Creating layer lstm1_W_xc_x_slice
I0924 01:33:42.818292 11333 net.cpp:91] Creating Layer lstm1_W_xc_x_slice
I0924 01:33:42.818301 11333 net.cpp:425] lstm1_W_xc_x_slice <- W_xc_x
I0924 01:33:42.818315 11333 net.cpp:399] lstm1_W_xc_x_slice -> W_xc_x_1
I0924 01:33:42.818379 11333 net.cpp:141] Setting up lstm1_W_xc_x_slice
I0924 01:33:42.818392 11333 net.cpp:148] Top shape: 1 1 4000 (4000)
I0924 01:33:42.818397 11333 net.cpp:156] Memory required for data: 42016
I0924 01:33:42.818403 11333 layer_factory.hpp:77] Creating layer lstm1_h_conted_0
I0924 01:33:42.818413 11333 net.cpp:91] Creating Layer lstm1_h_conted_0
I0924 01:33:42.818419 11333 net.cpp:425] lstm1_h_conted_0 <- h_0
I0924 01:33:42.818425 11333 net.cpp:425] lstm1_h_conted_0 <- cont_1_lstm1_cont_slice_0_split_0
I0924 01:33:42.818433 11333 net.cpp:399] lstm1_h_conted_0 -> h_conted_0
I0924 01:33:42.818629 11333 net.cpp:141] Setting up lstm1_h_conted_0
I0924 01:33:42.818647 11333 net.cpp:148] Top shape: 1 1 1000 (1000)
I0924 01:33:42.818655 11333 net.cpp:156] Memory required for data: 46016
I0924 01:33:42.818662 11333 layer_factory.hpp:77] Creating layer lstm1_transform_1
I0924 01:33:42.818680 11333 net.cpp:91] Creating Layer lstm1_transform_1
I0924 01:33:42.818686 11333 net.cpp:425] lstm1_transform_1 <- h_conted_0
I0924 01:33:42.818693 11333 net.cpp:399] lstm1_transform_1 -> W_hc_h_0
I0924 01:33:42.828266 11339 net.cpp:141] Setting up conv4
I0924 01:33:42.828320 11339 net.cpp:148] Top shape: 10 384 13 13 (648960)
I0924 01:33:42.828327 11339 net.cpp:156] Memory required for data: 61192760
I0924 01:33:42.828343 11339 layer_factory.hpp:77] Creating layer relu4
I0924 01:33:42.828361 11339 net.cpp:91] Creating Layer relu4
I0924 01:33:42.828368 11339 net.cpp:425] relu4 <- conv4
I0924 01:33:42.828377 11339 net.cpp:386] relu4 -> conv4 (in-place)
I0924 01:33:42.828763 11329 net.cpp:141] Setting up lstm1_transform_1
I0924 01:33:42.828778 11329 net.cpp:148] Top shape: 1 1 4000 (4000)
I0924 01:33:42.828783 11329 net.cpp:156] Memory required for data: 62016
I0924 01:33:42.828797 11329 layer_factory.hpp:77] Creating layer lstm1_gate_input_1
I0924 01:33:42.828814 11329 net.cpp:91] Creating Layer lstm1_gate_input_1
I0924 01:33:42.828821 11329 net.cpp:425] lstm1_gate_input_1 <- W_hc_h_0
I0924 01:33:42.828829 11329 net.cpp:425] lstm1_gate_input_1 <- W_xc_x_1
I0924 01:33:42.828838 11329 net.cpp:399] lstm1_gate_input_1 -> gate_input_1
I0924 01:33:42.828850 11339 net.cpp:141] Setting up relu4
I0924 01:33:42.828863 11339 net.cpp:148] Top shape: 10 384 13 13 (648960)
I0924 01:33:42.828868 11339 net.cpp:156] Memory required for data: 63788600
I0924 01:33:42.828873 11339 layer_factory.hpp:77] Creating layer conv5
I0924 01:33:42.828884 11329 net.cpp:141] Setting up lstm1_gate_input_1
I0924 01:33:42.828888 11339 net.cpp:91] Creating Layer conv5
I0924 01:33:42.828896 11339 net.cpp:425] conv5 <- conv4
I0924 01:33:42.828896 11329 net.cpp:148] Top shape: 1 1 4000 (4000)
I0924 01:33:42.828902 11329 net.cpp:156] Memory required for data: 78016
I0924 01:33:42.828903 11339 net.cpp:399] conv5 -> conv5
I0924 01:33:42.828907 11329 layer_factory.hpp:77] Creating layer lstm1_unit_1
I0924 01:33:42.828919 11329 net.cpp:91] Creating Layer lstm1_unit_1
I0924 01:33:42.828924 11329 net.cpp:425] lstm1_unit_1 <- c_0
I0924 01:33:42.828930 11329 net.cpp:425] lstm1_unit_1 <- gate_input_1
I0924 01:33:42.828935 11329 net.cpp:425] lstm1_unit_1 <- cont_1_lstm1_cont_slice_0_split_1
I0924 01:33:42.828943 11329 net.cpp:399] lstm1_unit_1 -> c_1
I0924 01:33:42.828950 11329 net.cpp:399] lstm1_unit_1 -> h_1
I0924 01:33:42.829125 11329 net.cpp:141] Setting up lstm1_unit_1
I0924 01:33:42.829136 11329 net.cpp:148] Top shape: 1 1 1000 (1000)
I0924 01:33:42.829143 11329 net.cpp:148] Top shape: 1 1 1000 (1000)
I0924 01:33:42.829146 11329 net.cpp:156] Memory required for data: 86016
I0924 01:33:42.829151 11329 layer_factory.hpp:77] Creating layer lstm1_
I0924 01:33:42.829160 11329 net.cpp:91] Creating Layer lstm1_
I0924 01:33:42.829164 11329 net.cpp:425] lstm1_ <- c_1
I0924 01:33:42.829171 11329 net.cpp:399] lstm1_ -> c_T
I0924 01:33:42.829226 11329 net.cpp:141] Setting up lstm1_
I0924 01:33:42.829241 11329 net.cpp:148] Top shape: 1 1 1000 (1000)
I0924 01:33:42.829247 11329 net.cpp:156] Memory required for data: 90016
I0924 01:33:42.829252 11329 layer_factory.hpp:77] Creating layer lstm1_h_concat
I0924 01:33:42.829272 11329 net.cpp:91] Creating Layer lstm1_h_concat
I0924 01:33:42.829277 11329 net.cpp:425] lstm1_h_concat <- h_1
I0924 01:33:42.829285 11329 net.cpp:399] lstm1_h_concat -> h
I0924 01:33:42.830277 11329 net.cpp:141] Setting up lstm1_h_concat
I0924 01:33:42.830289 11329 net.cpp:148] Top shape: 1 1 1000 (1000)
I0924 01:33:42.830293 11329 net.cpp:156] Memory required for data: 94016
I0924 01:33:42.830298 11329 layer_factory.hpp:77] Creating layer h_pseudoloss
I0924 01:33:42.830315 11329 net.cpp:91] Creating Layer h_pseudoloss
I0924 01:33:42.830320 11329 net.cpp:425] h_pseudoloss <- h
I0924 01:33:42.830327 11329 net.cpp:399] h_pseudoloss -> h_pseudoloss
I0924 01:33:42.830413 11329 net.cpp:141] Setting up h_pseudoloss
…
I0924 01:33:42.830530 11329 net.cpp:219] lstm1_ does not need backward computation.
I0924 01:33:42.830533 11329 net.cpp:261] This network produces output c_T
I0924 01:33:42.830538 11329 net.cpp:261] This network produces output h_pseudoloss
I0924 01:33:42.830555 11329 net.cpp:274] Network initialization done.
I0924 01:33:42.830629 11329 recurrent_layer.cpp:150] Adding parameter 0: W_xc
I0924 01:33:42.830637 11329 recurrent_layer.cpp:150] Adding parameter 1: b_c
I0924 01:33:42.830642 11329 recurrent_layer.cpp:150] Adding parameter 2: W_hc
I0924 01:33:42.830862 11329 net.cpp:141] Setting up lstm1
I0924 01:33:42.830874 11329 net.cpp:148] Top shape: 1 1 1000 (1000)
I0924 01:33:42.830878 11329 net.cpp:156] Memory required for data: 26408
I0924 01:33:42.830893 11329 layer_factory.hpp:77] Creating layer concat
I0924 01:33:42.830901 11329 net.cpp:91] Creating Layer concat
I0924 01:33:42.830909 11329 net.cpp:425] concat <- lstm1
I0924 01:33:42.830914 11329 net.cpp:425] concat <- embedded_input_sentence
I0924 01:33:42.830920 11329 net.cpp:425] concat <- reshaped_stage_indicator
I0924 01:33:42.830926 11329 net.cpp:399] concat -> lstm1_video_sequence
I0924 01:33:42.831245 11329 net.cpp:141] Setting up concat
I0924 01:33:42.831255 11329 net.cpp:148] Top shape: 1 1 1501 (1501)
I0924 01:33:42.831260 11329 net.cpp:156] Memory required for data: 32412
I0924 01:33:42.831265 11329 layer_factory.hpp:77] Creating layer lstm2
I0924 01:33:42.831279 11329 net.cpp:91] Creating Layer lstm2
I0924 01:33:42.831284 11329 net.cpp:425] lstm2 <- lstm1_video_sequence
I0924 01:33:42.831290 11329 net.cpp:425] lstm2 <- cont_sentence_input_1_split_1
I0924 01:33:42.831296 11329 net.cpp:399] lstm2 -> lstm2
I0924 01:33:42.831308 11329 recurrent_layer.cpp:20] Initializing recurrent layer: assuming input batch contains 1 timesteps of 1 independent streams.
I0924 01:33:42.831563 11329 net.cpp:49] Initializing net from parameters: 
layer {
  name: "lstm2_"
  type: "Input"
  top: "x"
  top: "cont"
  input_param {
    shape {
      dim: 1
      dim: 1
      dim: 1501
    }
    shape {
      dim: 1
      dim: 1
    }
  }
}
layer {
  name: "lstm2_"
  type: "Input"
  top: "c_0"
  top: "h_0"
  input_param {
    shape {
      dim: 1
      dim: 1
      dim: 1000
    }
    shape {
      dim: 1
      dim: 1
      dim: 1000
    }
  }
}
layer {
  name: "lstm2_cont_slice"
  type: "Slice"
  bottom: "cont"
  top: "cont_1"
  slice_param {
    axis: 0
  }
}
layer {
  name: "lstm2_x_transform"
  type: "InnerProduct"
  bottom: "x"
  top: "W_xc_x"
  param {
    name: "W_xc"
  }
  param {
    name: "b_c"
  }
  propagate_down: true
  inner_product_param {
    num_output: 4000
    bias_term: true
    weight_filler {
      type: "uniform"
      min: -0.08
      max: 0.08
    }
    bias_filler {
      type: "constant"
      value: 0
    }
    axis: 2
  }
}
layer {
  name: "lstm2_W_xc_x_slice"
  type: "Slice"
  bottom: "W_xc_x"
  top: "W_xc_x_1"
  slice_param {
    axis: 0
  }
}
layer {
  name: "lstm2_h_conted_0"
  type: "Scale"
  bottom: "h_0"
  bottom: "cont_1"
  top: "h_conted_0"
  scale_param {
    axis: 0
  }
}
layer {
  name: "lstm2_transform_1"
  type: "InnerProduct"
  bottom: "h_conted_0"
  top: "W_hc_h_0"
  param {
    name: "W_hc"
  }
  inner_product_param {
    num_output: 4000
    bias_term: false
    weight_filler {
      type: "uniform"
      min: -0.08
      max: 0.08
    }
    axis: 2
  }
}
layer {
  name: "lstm2_gate_input_1"
  type: "Eltwise"
  bottom: "W_hc_h_0"
  bottom: "W_xc_x_1"
  top: "gate_input_1"
  eltwise_param {
    operation: SUM
  }
}
layer {
  name: "lstm2_unit_1"
  type: "LSTMUnit"
  bottom: "c_0"
  bottom: "gate_input_1"
  bottom: "cont_1"
  top: "c_1"
  top: "h_1"
}
layer {
  name: "lstm2_"
  type: "Split"
  bottom: "c_1"
  top: "c_T"
}
layer {
  name: "lstm2_h_concat"
  type: "Concat"
  bottom: "h_1"
  top: "h"
  concat_param {
    axis: 0
  }
}
layer {
  name: "h_pseudoloss"
  type: "Reduction"
  bottom: "h"
  top: "h_pseudoloss"
  loss_weight: 1
}
I0924 01:33:42.831652 11329 layer_factory.hpp:77] Creating layer lstm2_
I0924 01:33:42.831663 11329 net.cpp:91] Creating Layer lstm2_
I0924 01:33:42.831670 11329 net.cpp:399] lstm2_ -> x
I0924 01:33:42.831681 11329 net.cpp:399] lstm2_ -> cont
I0924 01:33:42.831758 11329 net.cpp:141] Setting up lstm2_
I0924 01:33:42.831769 11329 net.cpp:148] Top shape: 1 1 1501 (1501)
I0924 01:33:42.831775 11329 net.cpp:148] Top shape: 1 1 (1)
I0924 01:33:42.831779 11329 net.cpp:156] Memory required for data: 6008
I0924 01:33:42.831785 11329 layer_factory.hpp:77] Creating layer lstm2_
I0924 01:33:42.831794 11329 net.cpp:91] Creating Layer lstm2_
I0924 01:33:42.831802 11329 net.cpp:399] lstm2_ -> c_0
I0924 01:33:42.831812 11329 net.cpp:399] lstm2_ -> h_0
I0924 01:33:42.832140 11329 net.cpp:141] Setting up lstm2_
I0924 01:33:42.832151 11329 net.cpp:148] Top shape: 1 1 1000 (1000)
I0924 01:33:42.832157 11329 net.cpp:148] Top shape: 1 1 1000 (1000)
I0924 01:33:42.832161 11329 net.cpp:156] Memory required for data: 14008
I0924 01:33:42.832165 11329 layer_factory.hpp:77] Creating layer lstm2_cont_slice
I0924 01:33:42.832180 11329 net.cpp:91] Creating Layer lstm2_cont_slice
I0924 01:33:42.832185 11329 net.cpp:425] lstm2_cont_slice <- cont
I0924 01:33:42.832191 11329 net.cpp:399] lstm2_cont_slice -> cont_1
I0924 01:33:42.832253 11329 net.cpp:141] Setting up lstm2_cont_slice
I0924 01:33:42.832264 11329 net.cpp:148] Top shape: 1 1 (1)
I0924 01:33:42.832268 11329 net.cpp:156] Memory required for data: 14012
I0924 01:33:42.832273 11329 layer_factory.hpp:77] Creating layer cont_1_lstm2_cont_slice_0_split
I0924 01:33:42.832283 11329 net.cpp:91] Creating Layer cont_1_lstm2_cont_slice_0_split
I0924 01:33:42.832288 11329 net.cpp:425] cont_1_lstm2_cont_slice_0_split <- cont_1
I0924 01:33:42.832295 11329 net.cpp:399] cont_1_lstm2_cont_slice_0_split -> cont_1_lstm2_cont_slice_0_split_0
I0924 01:33:42.832304 11329 net.cpp:399] cont_1_lstm2_cont_slice_0_split -> cont_1_lstm2_cont_slice_0_split_1
I0924 01:33:42.832638 11329 net.cpp:141] Setting up cont_1_lstm2_cont_slice_0_split
I0924 01:33:42.832649 11329 net.cpp:148] Top shape: 1 1 (1)
I0924 01:33:42.832655 11329 net.cpp:148] Top shape: 1 1 (1)
I0924 01:33:42.832659 11329 net.cpp:156] Memory required for data: 14020
I0924 01:33:42.832664 11329 layer_factory.hpp:77] Creating layer lstm2_x_transform
I0924 01:33:42.832674 11329 net.cpp:91] Creating Layer lstm2_x_transform
I0924 01:33:42.832679 11329 net.cpp:425] lstm2_x_transform <- x
I0924 01:33:42.832686 11329 net.cpp:399] lstm2_x_transform -> W_xc_x
I0924 01:33:42.844236 11339 net.cpp:141] Setting up conv5
I0924 01:33:42.844290 11339 net.cpp:148] Top shape: 10 256 13 13 (432640)
I0924 01:33:42.844298 11339 net.cpp:156] Memory required for data: 65519160
I0924 01:33:42.844329 11339 layer_factory.hpp:77] Creating layer relu5
I0924 01:33:42.844352 11339 net.cpp:91] Creating Layer relu5
I0924 01:33:42.844362 11339 net.cpp:425] relu5 <- conv5
I0924 01:33:42.844379 11339 net.cpp:386] relu5 -> conv5 (in-place)
I0924 01:33:42.845093 11339 net.cpp:141] Setting up relu5
I0924 01:33:42.845120 11339 net.cpp:148] Top shape: 10 256 13 13 (432640)
I0924 01:33:42.845129 11339 net.cpp:156] Memory required for data: 67249720
I0924 01:33:42.845137 11339 layer_factory.hpp:77] Creating layer pool5
I0924 01:33:42.845155 11339 net.cpp:91] Creating Layer pool5
I0924 01:33:42.845162 11339 net.cpp:425] pool5 <- conv5
I0924 01:33:42.845180 11339 net.cpp:399] pool5 -> pool5
I0924 01:33:42.845291 11339 net.cpp:141] Setting up pool5
I0924 01:33:42.845306 11339 net.cpp:148] Top shape: 10 256 6 6 (92160)
I0924 01:33:42.845314 11339 net.cpp:156] Memory required for data: 67618360
I0924 01:33:42.845321 11339 layer_factory.hpp:77] Creating layer fc6
I0924 01:33:42.845345 11339 net.cpp:91] Creating Layer fc6
I0924 01:33:42.845353 11339 net.cpp:425] fc6 <- pool5
I0924 01:33:42.845368 11339 net.cpp:399] fc6 -> fc6
I0924 01:33:42.925302 11333 net.cpp:141] Setting up lstm1_transform_1
I0924 01:33:42.925356 11333 net.cpp:148] Top shape: 1 1 4000 (4000)
I0924 01:33:42.925362 11333 net.cpp:156] Memory required for data: 62016
I0924 01:33:42.925385 11333 layer_factory.hpp:77] Creating layer lstm1_gate_input_1
I0924 01:33:42.925406 11333 net.cpp:91] Creating Layer lstm1_gate_input_1
I0924 01:33:42.925413 11333 net.cpp:425] lstm1_gate_input_1 <- W_hc_h_0
I0924 01:33:42.925422 11333 net.cpp:425] lstm1_gate_input_1 <- W_xc_x_1
I0924 01:33:42.925429 11333 net.cpp:399] lstm1_gate_input_1 -> gate_input_1
I0924 01:33:42.925457 11329 net.cpp:141] Setting up lstm2_x_transform
I0924 01:33:42.925475 11329 net.cpp:148] Top shape: 1 1 4000 (4000)
I0924 01:33:42.925480 11329 net.cpp:156] Memory required for data: 30020
I0924 01:33:42.925487 11333 net.cpp:141] Setting up lstm1_gate_input_1
I0924 01:33:42.925494 11329 layer_factory.hpp:77] Creating layer lstm2_W_xc_x_slice
I0924 01:33:42.925496 11333 net.cpp:148] Top shape: 1 1 4000 (4000)
I0924 01:33:42.925501 11333 net.cpp:156] Memory required for data: 78016
I0924 01:33:42.925505 11329 net.cpp:91] Creating Layer lstm2_W_xc_x_slice
I0924 01:33:42.925506 11333 layer_factory.hpp:77] Creating layer lstm1_unit_1
I0924 01:33:42.925513 11329 net.cpp:425] lstm2_W_xc_x_slice <- W_xc_x
I0924 01:33:42.925519 11333 net.cpp:91] Creating Layer lstm1_unit_1
I0924 01:33:42.925524 11333 net.cpp:425] lstm1_unit_1 <- c_0
I0924 01:33:42.925530 11333 net.cpp:425] lstm1_unit_1 <- gate_input_1
I0924 01:33:42.925530 11329 net.cpp:399] lstm2_W_xc_x_slice -> W_xc_x_1
I0924 01:33:42.925536 11333 net.cpp:425] lstm1_unit_1 <- cont_1_lstm1_cont_slice_0_split_1
I0924 01:33:42.925544 11333 net.cpp:399] lstm1_unit_1 -> c_1
I0924 01:33:42.925552 11333 net.cpp:399] lstm1_unit_1 -> h_1
I0924 01:33:42.925591 11329 net.cpp:141] Setting up lstm2_W_xc_x_slice
I0924 01:33:42.925602 11329 net.cpp:148] Top shape: 1 1 4000 (4000)
I0924 01:33:42.925607 11329 net.cpp:156] Memory required for data: 46020
I0924 01:33:42.925612 11329 layer_factory.hpp:77] Creating layer lstm2_h_conted_0
I0924 01:33:42.925626 11329 net.cpp:91] Creating Layer lstm2_h_conted_0
I0924 01:33:42.925632 11329 net.cpp:425] lstm2_h_conted_0 <- h_0
I0924 01:33:42.925638 11329 net.cpp:425] lstm2_h_conted_0 <- cont_1_lstm2_cont_slice_0_split_0
I0924 01:33:42.925645 11329 net.cpp:399] lstm2_h_conted_0 -> h_conted_0
I0924 01:33:42.925657 11333 net.cpp:141] Setting up lstm1_unit_1
I0924 01:33:42.925668 11333 net.cpp:148] Top shape: 1 1 1000 (1000)
I0924 01:33:42.925674 11333 net.cpp:148] Top shape: 1 1 1000 (1000)
I0924 01:33:42.925678 11333 net.cpp:156] Memory required for data: 86016
I0924 01:33:42.925683 11333 layer_factory.hpp:77] Creating layer lstm1_
I0924 01:33:42.925693 11333 net.cpp:91] Creating Layer lstm1_
I0924 01:33:42.925696 11333 net.cpp:425] lstm1_ <- c_1
I0924 01:33:42.925704 11333 net.cpp:399] lstm1_ -> c_T
I0924 01:33:42.925747 11329 net.cpp:141] Setting up lstm2_h_conted_0
I0924 01:33:42.925757 11329 net.cpp:148] Top shape: 1 1 1000 (1000)
I0924 01:33:42.925761 11329 net.cpp:156] Memory required for data: 50020
I0924 01:33:42.925766 11329 layer_factory.hpp:77] Creating layer lstm2_transform_1
I0924 01:33:42.925772 11333 net.cpp:141] Setting up lstm1_
I0924 01:33:42.925781 11329 net.cpp:91] Creating Layer lstm2_transform_1
I0924 01:33:42.925783 11333 net.cpp:148] Top shape: 1 1 1000 (1000)
I0924 01:33:42.925786 11329 net.cpp:425] lstm2_transform_1 <- h_conted_0
I0924 01:33:42.925787 11333 net.cpp:156] Memory required for data: 90016
I0924 01:33:42.925792 11333 layer_factory.hpp:77] Creating layer lstm1_h_concat
I0924 01:33:42.925793 11329 net.cpp:399] lstm2_transform_1 -> W_hc_h_0
I0924 01:33:42.925807 11333 net.cpp:91] Creating Layer lstm1_h_concat
I0924 01:33:42.925813 11333 net.cpp:425] lstm1_h_concat <- h_1
I0924 01:33:42.925820 11333 net.cpp:399] lstm1_h_concat -> h
I0924 01:33:42.925868 11333 net.cpp:141] Setting up lstm1_h_concat
I0924 01:33:42.925876 11333 net.cpp:148] Top shape: 1 1 1000 (1000)
I0924 01:33:42.925880 11333 net.cpp:156] Memory required for data: 94016
I0924 01:33:42.925885 11333 layer_factory.hpp:77] Creating layer h_pseudoloss
I0924 01:33:42.925895 11333 net.cpp:91] Creating Layer h_pseudoloss
I0924 01:33:42.925899 11333 net.cpp:425] h_pseudoloss <- h
I0924 01:33:42.925910 11333 net.cpp:399] h_pseudoloss -> h_pseudoloss
I0924 01:33:42.933964 11333 net.cpp:141] Setting up h_pseudoloss
…
I0924 01:33:42.934135 11333 net.cpp:219] lstm1_ does not need backward computation.
I0924 01:33:42.934139 11333 net.cpp:261] This network produces output c_T
I0924 01:33:42.934146 11333 net.cpp:261] This network produces output h_pseudoloss
I0924 01:33:42.934176 11333 net.cpp:274] Network initialization done.
I0924 01:33:42.934236 11333 recurrent_layer.cpp:150] Adding parameter 0: W_xc
I0924 01:33:42.934243 11333 recurrent_layer.cpp:150] Adding parameter 1: b_c
I0924 01:33:42.934247 11333 recurrent_layer.cpp:150] Adding parameter 2: W_hc
I0924 01:33:42.934373 11333 net.cpp:141] Setting up lstm1
I0924 01:33:42.934386 11333 net.cpp:148] Top shape: 1 1 1000 (1000)
I0924 01:33:42.934391 11333 net.cpp:156] Memory required for data: 26408
I0924 01:33:42.934407 11333 layer_factory.hpp:77] Creating layer concat
I0924 01:33:42.934425 11333 net.cpp:91] Creating Layer concat
I0924 01:33:42.934432 11333 net.cpp:425] concat <- lstm1
I0924 01:33:42.934439 11333 net.cpp:425] concat <- embedded_input_sentence
I0924 01:33:42.934444 11333 net.cpp:425] concat <- reshaped_stage_indicator
I0924 01:33:42.934453 11333 net.cpp:399] concat -> lstm1_video_sequence
I0924 01:33:42.934492 11333 net.cpp:141] Setting up concat
I0924 01:33:42.934500 11333 net.cpp:148] Top shape: 1 1 1501 (1501)
I0924 01:33:42.934505 11333 net.cpp:156] Memory required for data: 32412
I0924 01:33:42.934509 11333 layer_factory.hpp:77] Creating layer lstm2
I0924 01:33:42.934525 11333 net.cpp:91] Creating Layer lstm2
I0924 01:33:42.934530 11333 net.cpp:425] lstm2 <- lstm1_video_sequence
I0924 01:33:42.934535 11333 net.cpp:425] lstm2 <- cont_sentence_input_1_split_1
I0924 01:33:42.934542 11333 net.cpp:399] lstm2 -> lstm2
I0924 01:33:42.934553 11333 recurrent_layer.cpp:20] Initializing recurrent layer: assuming input batch contains 1 timesteps of 1 independent streams.
I0924 01:33:42.934876 11333 net.cpp:49] Initializing net from parameters: 
layer {
  name: "lstm2_"
  type: "Input"
  top: "x"
  top: "cont"
  input_param {
    shape {
      dim: 1
      dim: 1
      dim: 1501
    }
    shape {
      dim: 1
      dim: 1
    }
  }
}
layer {
  name: "lstm2_"
  type: "Input"
  top: "c_0"
  top: "h_0"
  input_param {
    shape {
      dim: 1
      dim: 1
      dim: 1000
    }
    shape {
      dim: 1
      dim: 1
      dim: 1000
    }
  }
}
layer {
  name: "lstm2_cont_slice"
  type: "Slice"
  bottom: "cont"
  top: "cont_1"
  slice_param {
    axis: 0
  }
}
layer {
  name: "lstm2_x_transform"
  type: "InnerProduct"
  bottom: "x"
  top: "W_xc_x"
  param {
    name: "W_xc"
  }
  param {
    name: "b_c"
  }
  propagate_down: true
  inner_product_param {
    num_output: 4000
    bias_term: true
    weight_filler {
      type: "uniform"
      min: -0.08
      max: 0.08
    }
    bias_filler {
      type: "constant"
      value: 0
    }
    axis: 2
  }
}
layer {
  name: "lstm2_W_xc_x_slice"
  type: "Slice"
  bottom: "W_xc_x"
  top: "W_xc_x_1"
  slice_param {
    axis: 0
  }
}
layer {
  name: "lstm2_h_conted_0"
  type: "Scale"
  bottom: "h_0"
  bottom: "cont_1"
  top: "h_conted_0"
  scale_param {
    axis: 0
  }
}
layer {
  name: "lstm2_transform_1"
  type: "InnerProduct"
  bottom: "h_conted_0"
  top: "W_hc_h_0"
  param {
    name: "W_hc"
  }
  inner_product_param {
    num_output: 4000
    bias_term: false
    weight_filler {
      type: "uniform"
      min: -0.08
      max: 0.08
    }
    axis: 2
  }
}
layer {
  name: "lstm2_gate_input_1"
  type: "Eltwise"
  bottom: "W_hc_h_0"
  bottom: "W_xc_x_1"
  top: "gate_input_1"
  eltwise_param {
    operation: SUM
  }
}
layer {
  name: "lstm2_unit_1"
  type: "LSTMUnit"
  bottom: "c_0"
  bottom: "gate_input_1"
  bottom: "cont_1"
  top: "c_1"
  top: "h_1"
}
layer {
  name: "lstm2_"
  type: "Split"
  bottom: "c_1"
  top: "c_T"
}
layer {
  name: "lstm2_h_concat"
  type: "Concat"
  bottom: "h_1"
  top: "h"
  concat_param {
    axis: 0
  }
}
layer {
  name: "h_pseudoloss"
  type: "Reduction"
  bottom: "h"
  top: "h_pseudoloss"
  loss_weight: 1
}
I0924 01:33:42.934998 11333 layer_factory.hpp:77] Creating layer lstm2_
I0924 01:33:42.935012 11333 net.cpp:91] Creating Layer lstm2_
I0924 01:33:42.935019 11333 net.cpp:399] lstm2_ -> x
I0924 01:33:42.935031 11333 net.cpp:399] lstm2_ -> cont
I0924 01:33:42.935103 11333 net.cpp:141] Setting up lstm2_
I0924 01:33:42.935113 11333 net.cpp:148] Top shape: 1 1 1501 (1501)
I0924 01:33:42.935122 11333 net.cpp:148] Top shape: 1 1 (1)
I0924 01:33:42.935125 11333 net.cpp:156] Memory required for data: 6008
I0924 01:33:42.935130 11333 layer_factory.hpp:77] Creating layer lstm2_
I0924 01:33:42.935138 11333 net.cpp:91] Creating Layer lstm2_
I0924 01:33:42.935144 11333 net.cpp:399] lstm2_ -> c_0
I0924 01:33:42.935154 11333 net.cpp:399] lstm2_ -> h_0
I0924 01:33:42.935209 11333 net.cpp:141] Setting up lstm2_
I0924 01:33:42.935220 11333 net.cpp:148] Top shape: 1 1 1000 (1000)
I0924 01:33:42.935225 11333 net.cpp:148] Top shape: 1 1 1000 (1000)
I0924 01:33:42.935230 11333 net.cpp:156] Memory required for data: 14008
I0924 01:33:42.935233 11333 layer_factory.hpp:77] Creating layer lstm2_cont_slice
I0924 01:33:42.935242 11333 net.cpp:91] Creating Layer lstm2_cont_slice
I0924 01:33:42.935247 11333 net.cpp:425] lstm2_cont_slice <- cont
I0924 01:33:42.935258 11333 net.cpp:399] lstm2_cont_slice -> cont_1
I0924 01:33:42.935293 11333 net.cpp:141] Setting up lstm2_cont_slice
I0924 01:33:42.935302 11333 net.cpp:148] Top shape: 1 1 (1)
I0924 01:33:42.935307 11333 net.cpp:156] Memory required for data: 14012
I0924 01:33:42.935312 11333 layer_factory.hpp:77] Creating layer cont_1_lstm2_cont_slice_0_split
I0924 01:33:42.935319 11333 net.cpp:91] Creating Layer cont_1_lstm2_cont_slice_0_split
I0924 01:33:42.935323 11333 net.cpp:425] cont_1_lstm2_cont_slice_0_split <- cont_1
I0924 01:33:42.935330 11333 net.cpp:399] cont_1_lstm2_cont_slice_0_split -> cont_1_lstm2_cont_slice_0_split_0
I0924 01:33:42.935338 11333 net.cpp:399] cont_1_lstm2_cont_slice_0_split -> cont_1_lstm2_cont_slice_0_split_1
I0924 01:33:42.935389 11333 net.cpp:141] Setting up cont_1_lstm2_cont_slice_0_split
I0924 01:33:42.935397 11333 net.cpp:148] Top shape: 1 1 (1)
I0924 01:33:42.935403 11333 net.cpp:148] Top shape: 1 1 (1)
I0924 01:33:42.935407 11333 net.cpp:156] Memory required for data: 14020
I0924 01:33:42.935412 11333 layer_factory.hpp:77] Creating layer lstm2_x_transform
I0924 01:33:42.935425 11333 net.cpp:91] Creating Layer lstm2_x_transform
I0924 01:33:42.935431 11333 net.cpp:425] lstm2_x_transform <- x
I0924 01:33:42.935438 11333 net.cpp:399] lstm2_x_transform -> W_xc_x
I0924 01:33:42.966719 11339 net.cpp:141] Setting up fc6
I0924 01:33:42.966770 11339 net.cpp:148] Top shape: 10 4096 (40960)
I0924 01:33:42.966776 11339 net.cpp:156] Memory required for data: 67782200
I0924 01:33:42.966792 11339 layer_factory.hpp:77] Creating layer relu6
I0924 01:33:42.966810 11339 net.cpp:91] Creating Layer relu6
I0924 01:33:42.966817 11339 net.cpp:425] relu6 <- fc6
I0924 01:33:42.966830 11339 net.cpp:386] relu6 -> fc6 (in-place)
I0924 01:33:42.967150 11339 net.cpp:141] Setting up relu6
I0924 01:33:42.967164 11339 net.cpp:148] Top shape: 10 4096 (40960)
I0924 01:33:42.967170 11339 net.cpp:156] Memory required for data: 67946040
I0924 01:33:42.967173 11339 layer_factory.hpp:77] Creating layer drop6
I0924 01:33:42.967185 11339 net.cpp:91] Creating Layer drop6
I0924 01:33:42.967190 11339 net.cpp:425] drop6 <- fc6
I0924 01:33:42.967196 11339 net.cpp:386] drop6 -> fc6 (in-place)
I0924 01:33:42.967247 11339 net.cpp:141] Setting up drop6
I0924 01:33:42.967257 11339 net.cpp:148] Top shape: 10 4096 (40960)
I0924 01:33:42.967262 11339 net.cpp:156] Memory required for data: 68109880
I0924 01:33:42.967267 11339 layer_factory.hpp:77] Creating layer fc7
I0924 01:33:42.967278 11339 net.cpp:91] Creating Layer fc7
I0924 01:33:42.967283 11339 net.cpp:425] fc7 <- fc6
I0924 01:33:42.967290 11339 net.cpp:399] fc7 -> fc7
I0924 01:33:42.996832 11329 net.cpp:141] Setting up lstm2_transform_1
I0924 01:33:42.996971 11333 net.cpp:141] Setting up lstm2_x_transform
I0924 01:33:42.997437 11329 net.cpp:148] Top shape: 1 1 4000 (4000)
I0924 01:33:42.997470 11329 net.cpp:156] Memory required for data: 66020
I0924 01:33:42.997473 11333 net.cpp:148] Top shape: 1 1 4000 (4000)
I0924 01:33:42.997488 11333 net.cpp:156] Memory required for data: 30020
I0924 01:33:42.997499 11329 layer_factory.hpp:77] Creating layer lstm2_gate_input_1
I0924 01:33:42.997510 11333 layer_factory.hpp:77] Creating layer lstm2_W_xc_x_slice
I0924 01:33:42.997530 11333 net.cpp:91] Creating Layer lstm2_W_xc_x_slice
I0924 01:33:42.997532 11329 net.cpp:91] Creating Layer lstm2_gate_input_1
I0924 01:33:42.997540 11333 net.cpp:425] lstm2_W_xc_x_slice <- W_xc_x
I0924 01:33:42.997544 11329 net.cpp:425] lstm2_gate_input_1 <- W_hc_h_0
I0924 01:33:42.997553 11329 net.cpp:425] lstm2_gate_input_1 <- W_xc_x_1
I0924 01:33:42.997565 11329 net.cpp:399] lstm2_gate_input_1 -> gate_input_1
I0924 01:33:42.997570 11333 net.cpp:399] lstm2_W_xc_x_slice -> W_xc_x_1
I0924 01:33:42.997638 11329 net.cpp:141] Setting up lstm2_gate_input_1
I0924 01:33:42.997653 11329 net.cpp:148] Top shape: 1 1 4000 (4000)
I0924 01:33:42.997660 11329 net.cpp:156] Memory required for data: 82020
I0924 01:33:42.997668 11329 layer_factory.hpp:77] Creating layer lstm2_unit_1
I0924 01:33:42.997686 11329 net.cpp:91] Creating Layer lstm2_unit_1
I0924 01:33:42.997694 11329 net.cpp:425] lstm2_unit_1 <- c_0
I0924 01:33:42.997691 11333 net.cpp:141] Setting up lstm2_W_xc_x_slice
I0924 01:33:42.997705 11329 net.cpp:425] lstm2_unit_1 <- gate_input_1
I0924 01:33:42.997714 11329 net.cpp:425] lstm2_unit_1 <- cont_1_lstm2_cont_slice_0_split_1
I0924 01:33:42.997716 11333 net.cpp:148] Top shape: 1 1 4000 (4000)
I0924 01:33:42.997726 11329 net.cpp:399] lstm2_unit_1 -> c_1
I0924 01:33:42.997726 11333 net.cpp:156] Memory required for data: 46020
I0924 01:33:42.997748 11329 net.cpp:399] lstm2_unit_1 -> h_1
I0924 01:33:42.997751 11333 layer_factory.hpp:77] Creating layer lstm2_h_conted_0
I0924 01:33:42.997771 11333 net.cpp:91] Creating Layer lstm2_h_conted_0
I0924 01:33:42.997781 11333 net.cpp:425] lstm2_h_conted_0 <- h_0
I0924 01:33:42.997793 11333 net.cpp:425] lstm2_h_conted_0 <- cont_1_lstm2_cont_slice_0_split_0
I0924 01:33:42.997826 11333 net.cpp:399] lstm2_h_conted_0 -> h_conted_0
I0924 01:33:42.997902 11329 net.cpp:141] Setting up lstm2_unit_1
I0924 01:33:42.997917 11329 net.cpp:148] Top shape: 1 1 1000 (1000)
I0924 01:33:42.997923 11329 net.cpp:148] Top shape: 1 1 1000 (1000)
I0924 01:33:42.997928 11329 net.cpp:156] Memory required for data: 90020
I0924 01:33:42.997933 11329 layer_factory.hpp:77] Creating layer lstm2_
I0924 01:33:42.997962 11329 net.cpp:91] Creating Layer lstm2_
I0924 01:33:42.997970 11329 net.cpp:425] lstm2_ <- c_1
I0924 01:33:42.997978 11329 net.cpp:399] lstm2_ -> c_T
I0924 01:33:42.998046 11333 net.cpp:141] Setting up lstm2_h_conted_0
I0924 01:33:42.998050 11329 net.cpp:141] Setting up lstm2_
I0924 01:33:42.998070 11333 net.cpp:148] Top shape: 1 1 1000 (1000)
I0924 01:33:42.998072 11329 net.cpp:148] Top shape: 1 1 1000 (1000)
I0924 01:33:42.998085 11333 net.cpp:156] Memory required for data: 50020
I0924 01:33:42.998088 11329 net.cpp:156] Memory required for data: 94020
I0924 01:33:42.998095 11329 layer_factory.hpp:77] Creating layer lstm2_h_concat
I0924 01:33:42.998095 11333 layer_factory.hpp:77] Creating layer lstm2_transform_1
I0924 01:33:42.998106 11329 net.cpp:91] Creating Layer lstm2_h_concat
I0924 01:33:42.998111 11329 net.cpp:425] lstm2_h_concat <- h_1
I0924 01:33:42.998117 11333 net.cpp:91] Creating Layer lstm2_transform_1
I0924 01:33:42.998122 11329 net.cpp:399] lstm2_h_concat -> h
I0924 01:33:42.998136 11333 net.cpp:425] lstm2_transform_1 <- h_conted_0
I0924 01:33:42.998163 11333 net.cpp:399] lstm2_transform_1 -> W_hc_h_0
I0924 01:33:42.998172 11329 net.cpp:141] Setting up lstm2_h_concat
I0924 01:33:42.998184 11329 net.cpp:148] Top shape: 1 1 1000 (1000)
I0924 01:33:42.998189 11329 net.cpp:156] Memory required for data: 98020
I0924 01:33:42.998193 11329 layer_factory.hpp:77] Creating layer h_pseudoloss
I0924 01:33:42.998203 11329 net.cpp:91] Creating Layer h_pseudoloss
I0924 01:33:42.998208 11329 net.cpp:425] h_pseudoloss <- h
I0924 01:33:42.998215 11329 net.cpp:399] h_pseudoloss -> h_pseudoloss
I0924 01:33:42.998309 11329 net.cpp:141] Setting up h_pseudoloss
…
I0924 01:33:42.998409 11329 net.cpp:219] lstm2_ does not need backward computation.
I0924 01:33:42.998412 11329 net.cpp:261] This network produces output c_T
I0924 01:33:42.998416 11329 net.cpp:261] This network produces output h_pseudoloss
I0924 01:33:42.998433 11329 net.cpp:274] Network initialization done.
I0924 01:33:42.998484 11329 recurrent_layer.cpp:150] Adding parameter 0: W_xc
I0924 01:33:42.998491 11329 recurrent_layer.cpp:150] Adding parameter 1: b_c
I0924 01:33:42.998494 11329 recurrent_layer.cpp:150] Adding parameter 2: W_hc
I0924 01:33:43.008993 11329 net.cpp:141] Setting up lstm2
I0924 01:33:43.009052 11329 net.cpp:148] Top shape: 1 1 1000 (1000)
I0924 01:33:43.009060 11329 net.cpp:156] Memory required for data: 36412
I0924 01:33:43.009091 11329 layer_factory.hpp:77] Creating layer predict
I0924 01:33:43.009119 11329 net.cpp:91] Creating Layer predict
I0924 01:33:43.009130 11329 net.cpp:425] predict <- lstm2
I0924 01:33:43.009145 11329 net.cpp:399] predict -> predict
I0924 01:33:43.093425 11333 net.cpp:141] Setting up lstm2_transform_1
I0924 01:33:43.093482 11333 net.cpp:148] Top shape: 1 1 4000 (4000)
I0924 01:33:43.093492 11333 net.cpp:156] Memory required for data: 66020
I0924 01:33:43.093518 11333 layer_factory.hpp:77] Creating layer lstm2_gate_input_1
I0924 01:33:43.093528 11339 net.cpp:141] Setting up fc7
I0924 01:33:43.093545 11339 net.cpp:148] Top shape: 10 4096 (40960)
I0924 01:33:43.093544 11333 net.cpp:91] Creating Layer lstm2_gate_input_1
I0924 01:33:43.093557 11339 net.cpp:156] Memory required for data: 68273720
I0924 01:33:43.093571 11333 net.cpp:425] lstm2_gate_input_1 <- W_hc_h_0
I0924 01:33:43.093580 11339 layer_factory.hpp:77] Creating layer relu7
I0924 01:33:43.093588 11333 net.cpp:425] lstm2_gate_input_1 <- W_xc_x_1
I0924 01:33:43.093595 11339 net.cpp:91] Creating Layer relu7
I0924 01:33:43.093602 11339 net.cpp:425] relu7 <- fc7
I0924 01:33:43.093602 11333 net.cpp:399] lstm2_gate_input_1 -> gate_input_1
I0924 01:33:43.093611 11339 net.cpp:386] relu7 -> fc7 (in-place)
I0924 01:33:43.093678 11333 net.cpp:141] Setting up lstm2_gate_input_1
I0924 01:33:43.093693 11333 net.cpp:148] Top shape: 1 1 4000 (4000)
I0924 01:33:43.093700 11333 net.cpp:156] Memory required for data: 82020
I0924 01:33:43.093708 11333 layer_factory.hpp:77] Creating layer lstm2_unit_1
I0924 01:33:43.093721 11333 net.cpp:91] Creating Layer lstm2_unit_1
I0924 01:33:43.093729 11333 net.cpp:425] lstm2_unit_1 <- c_0
I0924 01:33:43.093739 11333 net.cpp:425] lstm2_unit_1 <- gate_input_1
I0924 01:33:43.093747 11333 net.cpp:425] lstm2_unit_1 <- cont_1_lstm2_cont_slice_0_split_1
I0924 01:33:43.093762 11333 net.cpp:399] lstm2_unit_1 -> c_1
I0924 01:33:43.093777 11333 net.cpp:399] lstm2_unit_1 -> h_1
I0924 01:33:43.094189 11333 net.cpp:141] Setting up lstm2_unit_1
I0924 01:33:43.094205 11333 net.cpp:148] Top shape: 1 1 1000 (1000)
I0924 01:33:43.094215 11333 net.cpp:148] Top shape: 1 1 1000 (1000)
I0924 01:33:43.094223 11333 net.cpp:156] Memory required for data: 90020
I0924 01:33:43.094230 11333 layer_factory.hpp:77] Creating layer lstm2_
I0924 01:33:43.094243 11333 net.cpp:91] Creating Layer lstm2_
I0924 01:33:43.094250 11333 net.cpp:425] lstm2_ <- c_1
I0924 01:33:43.094261 11333 net.cpp:399] lstm2_ -> c_T
I0924 01:33:43.094321 11333 net.cpp:141] Setting up lstm2_
I0924 01:33:43.094336 11333 net.cpp:148] Top shape: 1 1 1000 (1000)
I0924 01:33:43.094342 11333 net.cpp:156] Memory required for data: 94020
I0924 01:33:43.094349 11333 layer_factory.hpp:77] Creating layer lstm2_h_concat
I0924 01:33:43.094352 11339 net.cpp:141] Setting up relu7
I0924 01:33:43.094363 11333 net.cpp:91] Creating Layer lstm2_h_concat
I0924 01:33:43.094367 11339 net.cpp:148] Top shape: 10 4096 (40960)
I0924 01:33:43.094372 11339 net.cpp:156] Memory required for data: 68437560
I0924 01:33:43.094372 11333 net.cpp:425] lstm2_h_concat <- h_1
I0924 01:33:43.094384 11339 layer_factory.hpp:77] Creating layer drop7
I0924 01:33:43.094399 11333 net.cpp:399] lstm2_h_concat -> h
I0924 01:33:43.094413 11339 net.cpp:91] Creating Layer drop7
I0924 01:33:43.094424 11339 net.cpp:425] drop7 <- fc7
I0924 01:33:43.094434 11339 net.cpp:386] drop7 -> fc7 (in-place)
I0924 01:33:43.094451 11333 net.cpp:141] Setting up lstm2_h_concat
I0924 01:33:43.094465 11333 net.cpp:148] Top shape: 1 1 1000 (1000)
I0924 01:33:43.094471 11333 net.cpp:156] Memory required for data: 98020
I0924 01:33:43.094478 11333 layer_factory.hpp:77] Creating layer h_pseudoloss
I0924 01:33:43.094481 11339 net.cpp:141] Setting up drop7
I0924 01:33:43.094491 11339 net.cpp:148] Top shape: 10 4096 (40960)
I0924 01:33:43.094496 11339 net.cpp:156] Memory required for data: 68601400
I0924 01:33:43.094497 11333 net.cpp:91] Creating Layer h_pseudoloss
I0924 01:33:43.094499 11339 layer_factory.hpp:77] Creating layer fc8
I0924 01:33:43.094511 11333 net.cpp:425] h_pseudoloss <- h
I0924 01:33:43.094521 11339 net.cpp:91] Creating Layer fc8
I0924 01:33:43.094523 11333 net.cpp:399] h_pseudoloss -> h_pseudoloss
…
