…
Java HotSpot(TM) 64-Bit Server VM warning: You have loaded library /tmp/cvld5275272175047104969/libopencv_java310.xine1.so which might have disabled stack guard. The VM will try to fix the stack guard now.
It's highly recommended that you fix the library with 'execstack -c <libfile>', or link it with '-z noexecstack'.
WARNING: Logging before InitGoogleLogging() is written to STDERR
I0802 07:51:24.179015 23946 net.cpp:49] Initializing net from parameters: 
name: "CaffeNet"
state {
  phase: TEST
}
layer {
  name: "data"
  type: "Input"
  top: "data"
  input_param {
    shape {
      dim: 10
      dim: 3
      dim: 227
      dim: 227
    }
  }
}
layer {
  name: "conv1"
  type: "Convolution"
  bottom: "data"
  top: "conv1"
  convolution_param {
    num_output: 96
    kernel_size: 11
    stride: 4
  }
}
layer {
  name: "relu1"
  type: "ReLU"
  bottom: "conv1"
  top: "conv1"
}
layer {
  name: "pool1"
  type: "Pooling"
  bottom: "conv1"
  top: "pool1"
  pooling_param {
    pool: MAX
    kernel_size: 3
    stride: 2
  }
}
layer {
  name: "norm1"
  type: "LRN"
  bottom: "pool1"
  top: "norm1"
  lrn_param {
    local_size: 5
    alpha: 0.0001
    beta: 0.75
  }
}
layer {
  name: "conv2"
  type: "Convolution"
  bottom: "norm1"
  top: "conv2"
  convolution_param {
    num_output: 256
    pad: 2
    kernel_size: 5
    group: 2
  }
}
layer {
  name: "relu2"
  type: "ReLU"
  bottom: "conv2"
  top: "conv2"
}
layer {
  name: "pool2"
  type: "Pooling"
  bottom: "conv2"
  top: "pool2"
  pooling_param {
    pool: MAX
    kernel_size: 3
    stride: 2
  }
}
layer {
  name: "norm2"
  type: "LRN"
  bottom: "pool2"
  top: "norm2"
  lrn_param {
    local_size: 5
    alpha: 0.0001
    beta: 0.75
  }
}
layer {
  name: "conv3"
  type: "Convolution"
  bottom: "norm2"
  top: "conv3"
  convolution_param {
    num_output: 384
    pad: 1
    kernel_size: 3
  }
}
layer {
  name: "relu3"
  type: "ReLU"
  bottom: "conv3"
  top: "conv3"
}
layer {
  name: "conv4"
  type: "Convolution"
  bottom: "conv3"
  top: "conv4"
  convolution_param {
    num_output: 384
    pad: 1
    kernel_size: 3
    group: 2
  }
}
layer {
  name: "relu4"
  type: "ReLU"
  bottom: "conv4"
  top: "conv4"
}
layer {
  name: "conv5"
  type: "Convolution"
  bottom: "conv4"
  top: "conv5"
  convolution_param {
    num_output: 256
    pad: 1
    kernel_size: 3
    group: 2
  }
}
layer {
  name: "relu5"
  type: "ReLU"
  bottom: "conv5"
  top: "conv5"
}
layer {
  name: "pool5"
  type: "Pooling"
  bottom: "conv5"
  top: "pool5"
  pooling_param {
    pool: MAX
    kernel_size: 3
    stride: 2
  }
}
layer {
  name: "fc6"
  type: "InnerProduct"
  bottom: "pool5"
  top: "fc6"
  inner_product_param {
    num_output: 4096
  }
}
layer {
  name: "relu6"
  type: "ReLU"
  bottom: "fc6"
  top: "fc6"
}
layer {
  name: "drop6"
  type: "Dropout"
  bottom: "fc6"
  top: "fc6"
  dropout_param {
    dropout_ratio: 0.5
  }
}
layer {
  name: "fc7"
  type: "InnerProduct"
  bottom: "fc6"
  top: "fc7"
  inner_product_param {
    num_output: 4096
  }
}
layer {
  name: "relu7"
  type: "ReLU"
  bottom: "fc7"
  top: "fc7"
}
layer {
  name: "drop7"
  type: "Dropout"
  bottom: "fc7"
  top: "fc7"
  dropout_param {
    dropout_ratio: 0.5
  }
}
layer {
  name: "fc8"
  type: "InnerProduct"
  bottom: "fc7"
  top: "fc8"
  inner_product_param {
    num_output: 1000
  }
}
layer {
  name: "prob"
  type: "Softmax"
  bottom: "fc8"
  top: "prob"
}
I0802 07:51:24.179217 23946 layer_factory.hpp:77] Creating layer data
I0802 07:51:24.179250 23946 net.cpp:91] Creating Layer data
I0802 07:51:24.179258 23946 net.cpp:399] data -> data
I0802 07:51:24.645355 23946 net.cpp:141] Setting up data
I0802 07:51:24.645462 23946 net.cpp:148] Top shape: 10 3 227 227 (1545870)
I0802 07:51:24.645468 23946 net.cpp:156] Memory required for data: 6183480
I0802 07:51:24.645488 23946 layer_factory.hpp:77] Creating layer conv1
I0802 07:51:24.645522 23946 net.cpp:91] Creating Layer conv1
I0802 07:51:24.645531 23946 net.cpp:425] conv1 <- data
I0802 07:51:24.645545 23946 net.cpp:399] conv1 -> conv1
I0802 07:51:24.769168 23936 upgrade_proto.cpp:66] Attempting to upgrade input file specified using deprecated input fields: /tmp/cvld5275272175047104969/s2vt.words_to_preds.prototxt
I0802 07:51:24.769220 23936 upgrade_proto.cpp:69] Successfully upgraded file specified using deprecated input fields.
W0802 07:51:24.769229 23936 upgrade_proto.cpp:71] Note that future Caffe releases will only support input layers and not input fields.
I0802 07:51:24.769490 23936 net.cpp:49] Initializing net from parameters: 
name: "s2vt:features_to_lstm"
state {
  phase: TEST
}
layer {
  name: "input"
  type: "Input"
  top: "frames_fc7"
  top: "cont_sentence"
  top: "input_sentence"
  top: "stage_indicator"
  input_param {
    shape {
      dim: 1
      dim: 4096
    }
    shape {
      dim: 1
      dim: 1
    }
    shape {
      dim: 1
      dim: 1
    }
    shape {
      dim: 1
      dim: 1
    }
  }
}
layer {
  name: "embed_encoder"
  type: "InnerProduct"
  bottom: "frames_fc7"
  top: "embedded_in_frames"
  param {
    lr_mult: 1
    decay_mult: 1
  }
  param {
    lr_mult: 2
    decay_mult: 0
  }
  inner_product_param {
    num_output: 500
    weight_filler {
      type: "xavier"
    }
    bias_filler {
      type: "constant"
      value: 0.2
    }
  }
}
layer {
  name: "reshape_frames"
  type: "Reshape"
  bottom: "embedded_in_frames"
  top: "embedded_input_frames"
  reshape_param {
    shape {
      dim: 1
      dim: 1
      dim: 500
    }
  }
}
layer {
  name: "reshape_stage_indicator"
  type: "Reshape"
  bottom: "stage_indicator"
  top: "reshaped_stage_indicator"
  reshape_param {
    shape {
      dim: 1
      dim: 1
      dim: 1
    }
  }
}
layer {
  name: "embedding"
  type: "Embed"
  bottom: "input_sentence"
  top: "embedded_input_sentence"
  param {
    lr_mult: 1
  }
  embed_param {
    num_output: 500
    input_dim: 46168
    bias_term: false
    weight_filler {
      type: "uniform"
      min: -0.08
      max: 0.08
    }
  }
}
layer {
  name: "lstm1"
  type: "LSTM"
  bottom: "embedded_input_frames"
  bottom: "cont_sentence"
  top: "lstm1"
  recurrent_param {
    num_output: 1000
    weight_filler {
      type: "uniform"
      min: -0.08
      max: 0.08
    }
    bias_filler {
      type: "constant"
      value: 0
    }
  }
}
layer {
  name: "concat"
  type: "Concat"
  bottom: "lstm1"
  bottom: "embedded_input_sentence"
  bottom: "reshaped_stage_indicator"
  top: "lstm1_video_sequence"
  concat_param {
    concat_dim: 2
  }
}
layer {
  name: "lstm2"
  type: "LSTM"
  bottom: "lstm1_video_sequence"
  bottom: "cont_sentence"
  top: "lstm2"
  recurrent_param {
    num_output: 1000
    weight_filler {
      type: "uniform"
      min: -0.08
      max: 0.08
    }
    bias_filler {
      type: "constant"
      value: 0
    }
  }
}
layer {
  name: "predict"
  type: "InnerProduct"
  bottom: "lstm2"
  top: "predict"
  param {
    lr_mult: 1
    decay_mult: 1
  }
  param {
    lr_mult: 2
    decay_mult: 0
  }
  inner_product_param {
    num_output: 46168
    weight_filler {
      type: "uniform"
      min: -0.08
      max: 0.08
    }
    bias_filler {
      type: "constant"
      value: 0
    }
    axis: 2
  }
}
layer {
  name: "probs"
  type: "Softmax"
  bottom: "predict"
  top: "probs"
  softmax_param {
    axis: 2
  }
}
I0802 07:51:24.769590 23936 layer_factory.hpp:77] Creating layer input
I0802 07:51:24.769606 23936 net.cpp:91] Creating Layer input
I0802 07:51:24.769614 23936 net.cpp:399] input -> frames_fc7
I0802 07:51:24.769632 23936 net.cpp:399] input -> cont_sentence
I0802 07:51:24.769644 23936 net.cpp:399] input -> input_sentence
I0802 07:51:24.769654 23936 net.cpp:399] input -> stage_indicator
I0802 07:51:24.774694 23936 net.cpp:141] Setting up input
I0802 07:51:24.774716 23936 net.cpp:148] Top shape: 1 4096 (4096)
I0802 07:51:24.774724 23936 net.cpp:148] Top shape: 1 1 (1)
I0802 07:51:24.774729 23936 net.cpp:148] Top shape: 1 1 (1)
I0802 07:51:24.774734 23936 net.cpp:148] Top shape: 1 1 (1)
I0802 07:51:24.774739 23936 net.cpp:156] Memory required for data: 16396
I0802 07:51:24.774744 23936 layer_factory.hpp:77] Creating layer cont_sentence_input_1_split
I0802 07:51:24.774765 23936 net.cpp:91] Creating Layer cont_sentence_input_1_split
I0802 07:51:24.774770 23936 net.cpp:425] cont_sentence_input_1_split <- cont_sentence
I0802 07:51:24.774793 23936 net.cpp:399] cont_sentence_input_1_split -> cont_sentence_input_1_split_0
I0802 07:51:24.774806 23936 net.cpp:399] cont_sentence_input_1_split -> cont_sentence_input_1_split_1
I0802 07:51:24.774879 23936 net.cpp:141] Setting up cont_sentence_input_1_split
I0802 07:51:24.774890 23936 net.cpp:148] Top shape: 1 1 (1)
I0802 07:51:24.774896 23936 net.cpp:148] Top shape: 1 1 (1)
I0802 07:51:24.774900 23936 net.cpp:156] Memory required for data: 16404
I0802 07:51:24.774904 23936 layer_factory.hpp:77] Creating layer embed_encoder
I0802 07:51:24.774921 23936 net.cpp:91] Creating Layer embed_encoder
I0802 07:51:24.774927 23936 net.cpp:425] embed_encoder <- frames_fc7
I0802 07:51:24.774935 23936 net.cpp:399] embed_encoder -> embedded_in_frames
I0802 07:51:24.796540 23936 net.cpp:141] Setting up embed_encoder
I0802 07:51:24.796581 23936 net.cpp:148] Top shape: 1 500 (500)
I0802 07:51:24.796586 23936 net.cpp:156] Memory required for data: 18404
I0802 07:51:24.796614 23936 layer_factory.hpp:77] Creating layer reshape_frames
I0802 07:51:24.796641 23936 net.cpp:91] Creating Layer reshape_frames
I0802 07:51:24.796649 23936 net.cpp:425] reshape_frames <- embedded_in_frames
I0802 07:51:24.796663 23936 net.cpp:399] reshape_frames -> embedded_input_frames
I0802 07:51:24.800487 23936 net.cpp:141] Setting up reshape_frames
I0802 07:51:24.800508 23936 net.cpp:148] Top shape: 1 1 500 (500)
I0802 07:51:24.800513 23936 net.cpp:156] Memory required for data: 20404
I0802 07:51:24.800518 23936 layer_factory.hpp:77] Creating layer reshape_stage_indicator
I0802 07:51:24.800529 23936 net.cpp:91] Creating Layer reshape_stage_indicator
I0802 07:51:24.800535 23936 net.cpp:425] reshape_stage_indicator <- stage_indicator
I0802 07:51:24.800550 23936 net.cpp:399] reshape_stage_indicator -> reshaped_stage_indicator
I0802 07:51:24.805485 23936 net.cpp:141] Setting up reshape_stage_indicator
I0802 07:51:24.805517 23936 net.cpp:148] Top shape: 1 1 1 (1)
I0802 07:51:24.805526 23936 net.cpp:156] Memory required for data: 20408
I0802 07:51:24.805536 23936 layer_factory.hpp:77] Creating layer embedding
I0802 07:51:24.805555 23936 net.cpp:91] Creating Layer embedding
I0802 07:51:24.805565 23936 net.cpp:425] embedding <- input_sentence
I0802 07:51:24.805582 23936 net.cpp:399] embedding -> embedded_input_sentence
I0802 07:51:24.891283 23946 net.cpp:141] Setting up conv1
I0802 07:51:24.891330 23946 net.cpp:148] Top shape: 10 96 55 55 (2904000)
I0802 07:51:24.891340 23946 net.cpp:156] Memory required for data: 17799480
I0802 07:51:24.891373 23946 layer_factory.hpp:77] Creating layer relu1
I0802 07:51:24.891397 23946 net.cpp:91] Creating Layer relu1
I0802 07:51:24.891407 23946 net.cpp:425] relu1 <- conv1
I0802 07:51:24.891420 23946 net.cpp:386] relu1 -> conv1 (in-place)
I0802 07:51:24.892082 23946 net.cpp:141] Setting up relu1
I0802 07:51:24.892102 23946 net.cpp:148] Top shape: 10 96 55 55 (2904000)
I0802 07:51:24.892112 23946 net.cpp:156] Memory required for data: 29415480
I0802 07:51:24.892120 23946 layer_factory.hpp:77] Creating layer pool1
I0802 07:51:24.892140 23946 net.cpp:91] Creating Layer pool1
I0802 07:51:24.892151 23946 net.cpp:425] pool1 <- conv1
I0802 07:51:24.892166 23946 net.cpp:399] pool1 -> pool1
I0802 07:51:24.892276 23946 net.cpp:141] Setting up pool1
I0802 07:51:24.892292 23946 net.cpp:148] Top shape: 10 96 27 27 (699840)
I0802 07:51:24.892300 23946 net.cpp:156] Memory required for data: 32214840
I0802 07:51:24.892308 23946 layer_factory.hpp:77] Creating layer norm1
I0802 07:51:24.892349 23946 net.cpp:91] Creating Layer norm1
I0802 07:51:24.892360 23946 net.cpp:425] norm1 <- pool1
I0802 07:51:24.892376 23946 net.cpp:399] norm1 -> norm1
I0802 07:51:24.893141 23946 net.cpp:141] Setting up norm1
I0802 07:51:24.893159 23946 net.cpp:148] Top shape: 10 96 27 27 (699840)
I0802 07:51:24.893168 23946 net.cpp:156] Memory required for data: 35014200
I0802 07:51:24.893178 23946 layer_factory.hpp:77] Creating layer conv2
I0802 07:51:24.893206 23946 net.cpp:91] Creating Layer conv2
I0802 07:51:24.893218 23946 net.cpp:425] conv2 <- norm1
I0802 07:51:24.893232 23946 net.cpp:399] conv2 -> conv2
I0802 07:51:24.897341 23946 net.cpp:141] Setting up conv2
I0802 07:51:24.897361 23946 net.cpp:148] Top shape: 10 256 27 27 (1866240)
I0802 07:51:24.897372 23946 net.cpp:156] Memory required for data: 42479160
I0802 07:51:24.897390 23946 layer_factory.hpp:77] Creating layer relu2
I0802 07:51:24.897405 23946 net.cpp:91] Creating Layer relu2
I0802 07:51:24.897414 23946 net.cpp:425] relu2 <- conv2
I0802 07:51:24.897426 23946 net.cpp:386] relu2 -> conv2 (in-place)
I0802 07:51:24.898102 23946 net.cpp:141] Setting up relu2
I0802 07:51:24.898121 23946 net.cpp:148] Top shape: 10 256 27 27 (1866240)
I0802 07:51:24.898131 23946 net.cpp:156] Memory required for data: 49944120
I0802 07:51:24.898140 23946 layer_factory.hpp:77] Creating layer pool2
I0802 07:51:24.898155 23946 net.cpp:91] Creating Layer pool2
I0802 07:51:24.898165 23946 net.cpp:425] pool2 <- conv2
I0802 07:51:24.898185 23946 net.cpp:399] pool2 -> pool2
I0802 07:51:24.898285 23946 net.cpp:141] Setting up pool2
I0802 07:51:24.898301 23946 net.cpp:148] Top shape: 10 256 13 13 (432640)
I0802 07:51:24.898310 23946 net.cpp:156] Memory required for data: 51674680
I0802 07:51:24.898319 23946 layer_factory.hpp:77] Creating layer norm2
I0802 07:51:24.898344 23946 net.cpp:91] Creating Layer norm2
I0802 07:51:24.898356 23946 net.cpp:425] norm2 <- pool2
I0802 07:51:24.898370 23946 net.cpp:399] norm2 -> norm2
I0802 07:51:24.898802 23946 net.cpp:141] Setting up norm2
I0802 07:51:24.898821 23946 net.cpp:148] Top shape: 10 256 13 13 (432640)
I0802 07:51:24.898830 23946 net.cpp:156] Memory required for data: 53405240
I0802 07:51:24.898839 23946 layer_factory.hpp:77] Creating layer conv3
I0802 07:51:24.898866 23946 net.cpp:91] Creating Layer conv3
I0802 07:51:24.898879 23946 net.cpp:425] conv3 <- norm2
I0802 07:51:24.898892 23946 net.cpp:399] conv3 -> conv3
I0802 07:51:24.903483 23946 net.cpp:141] Setting up conv3
I0802 07:51:24.903512 23946 net.cpp:148] Top shape: 10 384 13 13 (648960)
I0802 07:51:24.903522 23946 net.cpp:156] Memory required for data: 56001080
I0802 07:51:24.903542 23946 layer_factory.hpp:77] Creating layer relu3
I0802 07:51:24.903558 23946 net.cpp:91] Creating Layer relu3
I0802 07:51:24.903568 23946 net.cpp:425] relu3 <- conv3
I0802 07:51:24.903580 23946 net.cpp:386] relu3 -> conv3 (in-place)
I0802 07:51:24.904264 23946 net.cpp:141] Setting up relu3
I0802 07:51:24.904284 23946 net.cpp:148] Top shape: 10 384 13 13 (648960)
I0802 07:51:24.904294 23946 net.cpp:156] Memory required for data: 58596920
I0802 07:51:24.904304 23946 layer_factory.hpp:77] Creating layer conv4
I0802 07:51:24.904327 23946 net.cpp:91] Creating Layer conv4
I0802 07:51:24.904340 23946 net.cpp:425] conv4 <- conv3
I0802 07:51:24.904355 23946 net.cpp:399] conv4 -> conv4
I0802 07:51:24.908833 23946 net.cpp:141] Setting up conv4
I0802 07:51:24.908859 23946 net.cpp:148] Top shape: 10 384 13 13 (648960)
I0802 07:51:24.908867 23946 net.cpp:156] Memory required for data: 61192760
I0802 07:51:24.908885 23946 layer_factory.hpp:77] Creating layer relu4
I0802 07:51:24.908900 23946 net.cpp:91] Creating Layer relu4
I0802 07:51:24.908910 23946 net.cpp:425] relu4 <- conv4
I0802 07:51:24.908926 23946 net.cpp:386] relu4 -> conv4 (in-place)
I0802 07:51:24.909590 23946 net.cpp:141] Setting up relu4
I0802 07:51:24.909610 23946 net.cpp:148] Top shape: 10 384 13 13 (648960)
I0802 07:51:24.909620 23946 net.cpp:156] Memory required for data: 63788600
I0802 07:51:24.909629 23946 layer_factory.hpp:77] Creating layer conv5
I0802 07:51:24.909652 23946 net.cpp:91] Creating Layer conv5
I0802 07:51:24.909664 23946 net.cpp:425] conv5 <- conv4
I0802 07:51:24.909678 23946 net.cpp:399] conv5 -> conv5
I0802 07:51:24.914032 23946 net.cpp:141] Setting up conv5
I0802 07:51:24.914055 23946 net.cpp:148] Top shape: 10 256 13 13 (432640)
I0802 07:51:24.914065 23946 net.cpp:156] Memory required for data: 65519160
I0802 07:51:24.914088 23946 layer_factory.hpp:77] Creating layer relu5
I0802 07:51:24.914103 23946 net.cpp:91] Creating Layer relu5
I0802 07:51:24.914113 23946 net.cpp:425] relu5 <- conv5
I0802 07:51:24.914130 23946 net.cpp:386] relu5 -> conv5 (in-place)
I0802 07:51:24.914808 23946 net.cpp:141] Setting up relu5
I0802 07:51:24.914826 23946 net.cpp:148] Top shape: 10 256 13 13 (432640)
I0802 07:51:24.914836 23946 net.cpp:156] Memory required for data: 67249720
I0802 07:51:24.914846 23946 layer_factory.hpp:77] Creating layer pool5
I0802 07:51:24.914867 23946 net.cpp:91] Creating Layer pool5
I0802 07:51:24.914878 23946 net.cpp:425] pool5 <- conv5
I0802 07:51:24.914892 23946 net.cpp:399] pool5 -> pool5
I0802 07:51:24.914996 23946 net.cpp:141] Setting up pool5
I0802 07:51:24.915014 23946 net.cpp:148] Top shape: 10 256 6 6 (92160)
I0802 07:51:24.915022 23946 net.cpp:156] Memory required for data: 67618360
I0802 07:51:24.915031 23946 layer_factory.hpp:77] Creating layer fc6
I0802 07:51:24.915052 23946 net.cpp:91] Creating Layer fc6
I0802 07:51:24.915063 23946 net.cpp:425] fc6 <- pool5
I0802 07:51:24.915083 23946 net.cpp:399] fc6 -> fc6
I0802 07:51:25.015341 23946 net.cpp:141] Setting up fc6
I0802 07:51:25.015388 23946 net.cpp:148] Top shape: 10 4096 (40960)
I0802 07:51:25.015396 23946 net.cpp:156] Memory required for data: 67782200
I0802 07:51:25.015418 23946 layer_factory.hpp:77] Creating layer relu6
I0802 07:51:25.015439 23946 net.cpp:91] Creating Layer relu6
I0802 07:51:25.015449 23946 net.cpp:425] relu6 <- fc6
I0802 07:51:25.015461 23946 net.cpp:386] relu6 -> fc6 (in-place)
I0802 07:51:25.015902 23946 net.cpp:141] Setting up relu6
I0802 07:51:25.015920 23946 net.cpp:148] Top shape: 10 4096 (40960)
I0802 07:51:25.015928 23946 net.cpp:156] Memory required for data: 67946040
I0802 07:51:25.015938 23946 layer_factory.hpp:77] Creating layer drop6
I0802 07:51:25.015966 23946 net.cpp:91] Creating Layer drop6
I0802 07:51:25.015982 23946 net.cpp:425] drop6 <- fc6
I0802 07:51:25.015995 23946 net.cpp:386] drop6 -> fc6 (in-place)
I0802 07:51:25.016490 23946 net.cpp:141] Setting up drop6
I0802 07:51:25.016510 23946 net.cpp:148] Top shape: 10 4096 (40960)
I0802 07:51:25.016518 23946 net.cpp:156] Memory required for data: 68109880
I0802 07:51:25.016527 23946 layer_factory.hpp:77] Creating layer fc7
I0802 07:51:25.016552 23946 net.cpp:91] Creating Layer fc7
I0802 07:51:25.016564 23946 net.cpp:425] fc7 <- fc6
I0802 07:51:25.016582 23946 net.cpp:399] fc7 -> fc7
I0802 07:51:25.045390 23936 net.cpp:141] Setting up embedding
I0802 07:51:25.045439 23936 net.cpp:148] Top shape: 1 1 500 (500)
I0802 07:51:25.045444 23936 net.cpp:156] Memory required for data: 22408
I0802 07:51:25.045464 23936 layer_factory.hpp:77] Creating layer lstm1
I0802 07:51:25.045485 23936 net.cpp:91] Creating Layer lstm1
I0802 07:51:25.045493 23936 net.cpp:425] lstm1 <- embedded_input_frames
I0802 07:51:25.045502 23936 net.cpp:425] lstm1 <- cont_sentence_input_1_split_0
I0802 07:51:25.045514 23936 net.cpp:399] lstm1 -> lstm1
I0802 07:51:25.045553 23936 recurrent_layer.cpp:20] Initializing recurrent layer: assuming input batch contains 1 timesteps of 1 independent streams.
I0802 07:51:25.045922 23936 net.cpp:49] Initializing net from parameters: 
layer {
  name: "lstm1_"
  type: "Input"
  top: "x"
  top: "cont"
  input_param {
    shape {
      dim: 1
      dim: 1
      dim: 500
    }
    shape {
      dim: 1
      dim: 1
    }
  }
}
layer {
  name: "lstm1_"
  type: "Input"
  top: "c_0"
  top: "h_0"
  input_param {
    shape {
      dim: 1
      dim: 1
      dim: 1000
    }
    shape {
      dim: 1
      dim: 1
      dim: 1000
    }
  }
}
layer {
  name: "lstm1_cont_slice"
  type: "Slice"
  bottom: "cont"
  top: "cont_1"
  slice_param {
    axis: 0
  }
}
layer {
  name: "lstm1_x_transform"
  type: "InnerProduct"
  bottom: "x"
  top: "W_xc_x"
  param {
    name: "W_xc"
  }
  param {
    name: "b_c"
  }
  propagate_down: true
  inner_product_param {
    num_output: 4000
    bias_term: true
    weight_filler {
      type: "uniform"
      min: -0.08
      max: 0.08
    }
    bias_filler {
      type: "constant"
      value: 0
    }
    axis: 2
  }
}
layer {
  name: "lstm1_W_xc_x_slice"
  type: "Slice"
  bottom: "W_xc_x"
  top: "W_xc_x_1"
  slice_param {
    axis: 0
  }
}
layer {
  name: "lstm1_h_conted_0"
  type: "Scale"
  bottom: "h_0"
  bottom: "cont_1"
  top: "h_conted_0"
  scale_param {
    axis: 0
  }
}
layer {
  name: "lstm1_transform_1"
  type: "InnerProduct"
  bottom: "h_conted_0"
  top: "W_hc_h_0"
  param {
    name: "W_hc"
  }
  inner_product_param {
    num_output: 4000
    bias_term: false
    weight_filler {
      type: "uniform"
      min: -0.08
      max: 0.08
    }
    axis: 2
  }
}
layer {
  name: "lstm1_gate_input_1"
  type: "Eltwise"
  bottom: "W_hc_h_0"
  bottom: "W_xc_x_1"
  top: "gate_input_1"
  eltwise_param {
    operation: SUM
  }
}
layer {
  name: "lstm1_unit_1"
  type: "LSTMUnit"
  bottom: "c_0"
  bottom: "gate_input_1"
  bottom: "cont_1"
  top: "c_1"
  top: "h_1"
}
layer {
  name: "lstm1_"
  type: "Split"
  bottom: "c_1"
  top: "c_T"
}
layer {
  name: "lstm1_h_concat"
  type: "Concat"
  bottom: "h_1"
  top: "h"
  concat_param {
    axis: 0
  }
}
layer {
  name: "h_pseudoloss"
  type: "Reduction"
  bottom: "h"
  top: "h_pseudoloss"
  loss_weight: 1
}
I0802 07:51:25.046025 23936 layer_factory.hpp:77] Creating layer lstm1_
I0802 07:51:25.046036 23936 net.cpp:91] Creating Layer lstm1_
I0802 07:51:25.046043 23936 net.cpp:399] lstm1_ -> x
I0802 07:51:25.046056 23936 net.cpp:399] lstm1_ -> cont
I0802 07:51:25.046123 23936 net.cpp:141] Setting up lstm1_
I0802 07:51:25.046133 23936 net.cpp:148] Top shape: 1 1 500 (500)
I0802 07:51:25.046139 23936 net.cpp:148] Top shape: 1 1 (1)
I0802 07:51:25.046144 23936 net.cpp:156] Memory required for data: 2004
I0802 07:51:25.046149 23936 layer_factory.hpp:77] Creating layer lstm1_
I0802 07:51:25.046156 23936 net.cpp:91] Creating Layer lstm1_
I0802 07:51:25.046165 23936 net.cpp:399] lstm1_ -> c_0
I0802 07:51:25.046175 23936 net.cpp:399] lstm1_ -> h_0
I0802 07:51:25.046223 23936 net.cpp:141] Setting up lstm1_
I0802 07:51:25.046232 23936 net.cpp:148] Top shape: 1 1 1000 (1000)
I0802 07:51:25.046238 23936 net.cpp:148] Top shape: 1 1 1000 (1000)
I0802 07:51:25.046242 23936 net.cpp:156] Memory required for data: 10004
I0802 07:51:25.046247 23936 layer_factory.hpp:77] Creating layer lstm1_cont_slice
I0802 07:51:25.046257 23936 net.cpp:91] Creating Layer lstm1_cont_slice
I0802 07:51:25.046262 23936 net.cpp:425] lstm1_cont_slice <- cont
I0802 07:51:25.046269 23936 net.cpp:399] lstm1_cont_slice -> cont_1
I0802 07:51:25.046304 23936 net.cpp:141] Setting up lstm1_cont_slice
I0802 07:51:25.046314 23936 net.cpp:148] Top shape: 1 1 (1)
I0802 07:51:25.046317 23936 net.cpp:156] Memory required for data: 10008
I0802 07:51:25.046322 23936 layer_factory.hpp:77] Creating layer cont_1_lstm1_cont_slice_0_split
I0802 07:51:25.046329 23936 net.cpp:91] Creating Layer cont_1_lstm1_cont_slice_0_split
I0802 07:51:25.046334 23936 net.cpp:425] cont_1_lstm1_cont_slice_0_split <- cont_1
I0802 07:51:25.046344 23936 net.cpp:399] cont_1_lstm1_cont_slice_0_split -> cont_1_lstm1_cont_slice_0_split_0
I0802 07:51:25.046351 23936 net.cpp:399] cont_1_lstm1_cont_slice_0_split -> cont_1_lstm1_cont_slice_0_split_1
I0802 07:51:25.046398 23936 net.cpp:141] Setting up cont_1_lstm1_cont_slice_0_split
I0802 07:51:25.046406 23936 net.cpp:148] Top shape: 1 1 (1)
I0802 07:51:25.046412 23936 net.cpp:148] Top shape: 1 1 (1)
I0802 07:51:25.046416 23936 net.cpp:156] Memory required for data: 10016
I0802 07:51:25.046421 23936 layer_factory.hpp:77] Creating layer lstm1_x_transform
I0802 07:51:25.046430 23936 net.cpp:91] Creating Layer lstm1_x_transform
I0802 07:51:25.046434 23936 net.cpp:425] lstm1_x_transform <- x
I0802 07:51:25.046442 23936 net.cpp:399] lstm1_x_transform -> W_xc_x
I0802 07:51:25.065338 23946 net.cpp:141] Setting up fc7
I0802 07:51:25.065388 23946 net.cpp:148] Top shape: 10 4096 (40960)
I0802 07:51:25.065402 23946 net.cpp:156] Memory required for data: 68273720
I0802 07:51:25.065428 23946 layer_factory.hpp:77] Creating layer relu7
I0802 07:51:25.065454 23946 net.cpp:91] Creating Layer relu7
I0802 07:51:25.065467 23946 net.cpp:425] relu7 <- fc7
I0802 07:51:25.065485 23946 net.cpp:386] relu7 -> fc7 (in-place)
I0802 07:51:25.066473 23936 net.cpp:141] Setting up lstm1_x_transform
I0802 07:51:25.066488 23936 net.cpp:148] Top shape: 1 1 4000 (4000)
I0802 07:51:25.066493 23936 net.cpp:156] Memory required for data: 26016
I0802 07:51:25.066507 23936 layer_factory.hpp:77] Creating layer lstm1_W_xc_x_slice
I0802 07:51:25.066521 23936 net.cpp:91] Creating Layer lstm1_W_xc_x_slice
I0802 07:51:25.066527 23936 net.cpp:425] lstm1_W_xc_x_slice <- W_xc_x
I0802 07:51:25.066535 23936 net.cpp:399] lstm1_W_xc_x_slice -> W_xc_x_1
I0802 07:51:25.066589 23936 net.cpp:141] Setting up lstm1_W_xc_x_slice
I0802 07:51:25.066599 23936 net.cpp:148] Top shape: 1 1 4000 (4000)
I0802 07:51:25.066603 23936 net.cpp:156] Memory required for data: 42016
I0802 07:51:25.066608 23936 layer_factory.hpp:77] Creating layer lstm1_h_conted_0
I0802 07:51:25.066617 23936 net.cpp:91] Creating Layer lstm1_h_conted_0
I0802 07:51:25.066622 23936 net.cpp:425] lstm1_h_conted_0 <- h_0
I0802 07:51:25.066634 23936 net.cpp:425] lstm1_h_conted_0 <- cont_1_lstm1_cont_slice_0_split_0
I0802 07:51:25.066642 23936 net.cpp:399] lstm1_h_conted_0 -> h_conted_0
I0802 07:51:25.066758 23936 net.cpp:141] Setting up lstm1_h_conted_0
I0802 07:51:25.066761 23946 net.cpp:141] Setting up relu7
I0802 07:51:25.066768 23936 net.cpp:148] Top shape: 1 1 1000 (1000)
I0802 07:51:25.066779 23936 net.cpp:156] Memory required for data: 46016
I0802 07:51:25.066784 23936 layer_factory.hpp:77] Creating layer lstm1_transform_1
I0802 07:51:25.066783 23946 net.cpp:148] Top shape: 10 4096 (40960)
I0802 07:51:25.066795 23946 net.cpp:156] Memory required for data: 68437560
I0802 07:51:25.066803 23936 net.cpp:91] Creating Layer lstm1_transform_1
I0802 07:51:25.066805 23946 layer_factory.hpp:77] Creating layer drop7
I0802 07:51:25.066809 23936 net.cpp:425] lstm1_transform_1 <- h_conted_0
I0802 07:51:25.066817 23936 net.cpp:399] lstm1_transform_1 -> W_hc_h_0
I0802 07:51:25.066823 23946 net.cpp:91] Creating Layer drop7
I0802 07:51:25.066846 23946 net.cpp:425] drop7 <- fc7
I0802 07:51:25.066859 23946 net.cpp:386] drop7 -> fc7 (in-place)
I0802 07:51:25.074170 23946 net.cpp:141] Setting up drop7
I0802 07:51:25.074216 23946 net.cpp:148] Top shape: 10 4096 (40960)
I0802 07:51:25.074229 23946 net.cpp:156] Memory required for data: 68601400
I0802 07:51:25.074245 23946 layer_factory.hpp:77] Creating layer fc8
I0802 07:51:25.074276 23946 net.cpp:91] Creating Layer fc8
I0802 07:51:25.074291 23946 net.cpp:425] fc8 <- fc7
I0802 07:51:25.074311 23946 net.cpp:399] fc8 -> fc8
I0802 07:51:25.087354 23946 net.cpp:141] Setting up fc8
I0802 07:51:25.087404 23946 net.cpp:148] Top shape: 10 1000 (10000)
I0802 07:51:25.087412 23946 net.cpp:156] Memory required for data: 68641400
I0802 07:51:25.087435 23946 layer_factory.hpp:77] Creating layer prob
I0802 07:51:25.087456 23946 net.cpp:91] Creating Layer prob
I0802 07:51:25.087466 23946 net.cpp:425] prob <- fc8
I0802 07:51:25.087487 23946 net.cpp:399] prob -> prob
I0802 07:51:25.088081 23946 net.cpp:141] Setting up prob
I0802 07:51:25.088102 23946 net.cpp:148] Top shape: 10 1000 (10000)
I0802 07:51:25.088112 23946 net.cpp:156] Memory required for data: 68681400
I0802 07:51:25.088122 23946 net.cpp:219] prob does not need backward computation.
I0802 07:51:25.088131 23946 net.cpp:219] fc8 does not need backward computation.
I0802 07:51:25.088141 23946 net.cpp:219] drop7 does not need backward computation.
I0802 07:51:25.088150 23946 net.cpp:219] relu7 does not need backward computation.
…
I0802 07:51:25.088291 23946 net.cpp:219] norm1 does not need backward computation.
I0802 07:51:25.088300 23946 net.cpp:219] pool1 does not need backward computation.
I0802 07:51:25.088310 23946 net.cpp:219] relu1 does not need backward computation.
I0802 07:51:25.088320 23946 net.cpp:219] conv1 does not need backward computation.
I0802 07:51:25.088328 23946 net.cpp:219] data does not need backward computation.
I0802 07:51:25.088346 23946 net.cpp:261] This network produces output prob
I0802 07:51:25.088382 23946 net.cpp:274] Network initialization done.
I0802 07:51:25.105383 23936 net.cpp:141] Setting up lstm1_transform_1
I0802 07:51:25.105428 23936 net.cpp:148] Top shape: 1 1 4000 (4000)
I0802 07:51:25.105433 23936 net.cpp:156] Memory required for data: 62016
I0802 07:51:25.105454 23936 layer_factory.hpp:77] Creating layer lstm1_gate_input_1
I0802 07:51:25.105476 23936 net.cpp:91] Creating Layer lstm1_gate_input_1
I0802 07:51:25.105484 23936 net.cpp:425] lstm1_gate_input_1 <- W_hc_h_0
I0802 07:51:25.105492 23936 net.cpp:425] lstm1_gate_input_1 <- W_xc_x_1
I0802 07:51:25.105502 23936 net.cpp:399] lstm1_gate_input_1 -> gate_input_1
I0802 07:51:25.105556 23936 net.cpp:141] Setting up lstm1_gate_input_1
I0802 07:51:25.105563 23936 net.cpp:148] Top shape: 1 1 4000 (4000)
I0802 07:51:25.105568 23936 net.cpp:156] Memory required for data: 78016
I0802 07:51:25.105572 23936 layer_factory.hpp:77] Creating layer lstm1_unit_1
I0802 07:51:25.105583 23936 net.cpp:91] Creating Layer lstm1_unit_1
I0802 07:51:25.105589 23936 net.cpp:425] lstm1_unit_1 <- c_0
I0802 07:51:25.105594 23936 net.cpp:425] lstm1_unit_1 <- gate_input_1
I0802 07:51:25.105602 23936 net.cpp:425] lstm1_unit_1 <- cont_1_lstm1_cont_slice_0_split_1
I0802 07:51:25.105607 23936 net.cpp:399] lstm1_unit_1 -> c_1
I0802 07:51:25.105617 23936 net.cpp:399] lstm1_unit_1 -> h_1
I0802 07:51:25.105677 23936 net.cpp:141] Setting up lstm1_unit_1
I0802 07:51:25.105686 23936 net.cpp:148] Top shape: 1 1 1000 (1000)
I0802 07:51:25.105691 23936 net.cpp:148] Top shape: 1 1 1000 (1000)
I0802 07:51:25.105695 23936 net.cpp:156] Memory required for data: 86016
I0802 07:51:25.105700 23936 layer_factory.hpp:77] Creating layer lstm1_
I0802 07:51:25.105708 23936 net.cpp:91] Creating Layer lstm1_
I0802 07:51:25.105712 23936 net.cpp:425] lstm1_ <- c_1
I0802 07:51:25.105721 23936 net.cpp:399] lstm1_ -> c_T
I0802 07:51:25.105751 23936 net.cpp:141] Setting up lstm1_
I0802 07:51:25.105759 23936 net.cpp:148] Top shape: 1 1 1000 (1000)
I0802 07:51:25.105763 23936 net.cpp:156] Memory required for data: 90016
I0802 07:51:25.105768 23936 layer_factory.hpp:77] Creating layer lstm1_h_concat
I0802 07:51:25.105777 23936 net.cpp:91] Creating Layer lstm1_h_concat
I0802 07:51:25.105782 23936 net.cpp:425] lstm1_h_concat <- h_1
I0802 07:51:25.105788 23936 net.cpp:399] lstm1_h_concat -> h
I0802 07:51:25.105832 23936 net.cpp:141] Setting up lstm1_h_concat
I0802 07:51:25.105841 23936 net.cpp:148] Top shape: 1 1 1000 (1000)
I0802 07:51:25.105845 23936 net.cpp:156] Memory required for data: 94016
I0802 07:51:25.105849 23936 layer_factory.hpp:77] Creating layer h_pseudoloss
I0802 07:51:25.105865 23936 net.cpp:91] Creating Layer h_pseudoloss
I0802 07:51:25.105870 23936 net.cpp:425] h_pseudoloss <- h
I0802 07:51:25.105875 23936 net.cpp:399] h_pseudoloss -> h_pseudoloss
I0802 07:51:25.105960 23936 net.cpp:141] Setting up h_pseudoloss
…
I0802 07:51:25.106077 23936 net.cpp:219] lstm1_ does not need backward computation.
I0802 07:51:25.106081 23936 net.cpp:261] This network produces output c_T
I0802 07:51:25.106086 23936 net.cpp:261] This network produces output h_pseudoloss
I0802 07:51:25.106101 23936 net.cpp:274] Network initialization done.
I0802 07:51:25.106153 23936 recurrent_layer.cpp:150] Adding parameter 0: W_xc
I0802 07:51:25.106160 23936 recurrent_layer.cpp:150] Adding parameter 1: b_c
I0802 07:51:25.106164 23936 recurrent_layer.cpp:150] Adding parameter 2: W_hc
I0802 07:51:25.106271 23936 net.cpp:141] Setting up lstm1
I0802 07:51:25.106281 23936 net.cpp:148] Top shape: 1 1 1000 (1000)
I0802 07:51:25.106286 23936 net.cpp:156] Memory required for data: 26408
I0802 07:51:25.106297 23936 layer_factory.hpp:77] Creating layer concat
I0802 07:51:25.106307 23936 net.cpp:91] Creating Layer concat
I0802 07:51:25.106312 23936 net.cpp:425] concat <- lstm1
I0802 07:51:25.106319 23936 net.cpp:425] concat <- embedded_input_sentence
I0802 07:51:25.106324 23936 net.cpp:425] concat <- reshaped_stage_indicator
I0802 07:51:25.106330 23936 net.cpp:399] concat -> lstm1_video_sequence
I0802 07:51:25.106362 23936 net.cpp:141] Setting up concat
I0802 07:51:25.106370 23936 net.cpp:148] Top shape: 1 1 1501 (1501)
I0802 07:51:25.106374 23936 net.cpp:156] Memory required for data: 32412
I0802 07:51:25.106380 23936 layer_factory.hpp:77] Creating layer lstm2
I0802 07:51:25.106394 23936 net.cpp:91] Creating Layer lstm2
I0802 07:51:25.106398 23936 net.cpp:425] lstm2 <- lstm1_video_sequence
I0802 07:51:25.106405 23936 net.cpp:425] lstm2 <- cont_sentence_input_1_split_1
I0802 07:51:25.106411 23936 net.cpp:399] lstm2 -> lstm2
I0802 07:51:25.106421 23936 recurrent_layer.cpp:20] Initializing recurrent layer: assuming input batch contains 1 timesteps of 1 independent streams.
I0802 07:51:25.106673 23936 net.cpp:49] Initializing net from parameters: 
layer {
  name: "lstm2_"
  type: "Input"
  top: "x"
  top: "cont"
  input_param {
    shape {
      dim: 1
      dim: 1
      dim: 1501
    }
    shape {
      dim: 1
      dim: 1
    }
  }
}
layer {
  name: "lstm2_"
  type: "Input"
  top: "c_0"
  top: "h_0"
  input_param {
    shape {
      dim: 1
      dim: 1
      dim: 1000
    }
    shape {
      dim: 1
      dim: 1
      dim: 1000
    }
  }
}
layer {
  name: "lstm2_cont_slice"
  type: "Slice"
  bottom: "cont"
  top: "cont_1"
  slice_param {
    axis: 0
  }
}
layer {
  name: "lstm2_x_transform"
  type: "InnerProduct"
  bottom: "x"
  top: "W_xc_x"
  param {
    name: "W_xc"
  }
  param {
    name: "b_c"
  }
  propagate_down: true
  inner_product_param {
    num_output: 4000
    bias_term: true
    weight_filler {
      type: "uniform"
      min: -0.08
      max: 0.08
    }
    bias_filler {
      type: "constant"
      value: 0
    }
    axis: 2
  }
}
layer {
  name: "lstm2_W_xc_x_slice"
  type: "Slice"
  bottom: "W_xc_x"
  top: "W_xc_x_1"
  slice_param {
    axis: 0
  }
}
layer {
  name: "lstm2_h_conted_0"
  type: "Scale"
  bottom: "h_0"
  bottom: "cont_1"
  top: "h_conted_0"
  scale_param {
    axis: 0
  }
}
layer {
  name: "lstm2_transform_1"
  type: "InnerProduct"
  bottom: "h_conted_0"
  top: "W_hc_h_0"
  param {
    name: "W_hc"
  }
  inner_product_param {
    num_output: 4000
    bias_term: false
    weight_filler {
      type: "uniform"
      min: -0.08
      max: 0.08
    }
    axis: 2
  }
}
layer {
  name: "lstm2_gate_input_1"
  type: "Eltwise"
  bottom: "W_hc_h_0"
  bottom: "W_xc_x_1"
  top: "gate_input_1"
  eltwise_param {
    operation: SUM
  }
}
layer {
  name: "lstm2_unit_1"
  type: "LSTMUnit"
  bottom: "c_0"
  bottom: "gate_input_1"
  bottom: "cont_1"
  top: "c_1"
  top: "h_1"
}
layer {
  name: "lstm2_"
  type: "Split"
  bottom: "c_1"
  top: "c_T"
}
layer {
  name: "lstm2_h_concat"
  type: "Concat"
  bottom: "h_1"
  top: "h"
  concat_param {
    axis: 0
  }
}
layer {
  name: "h_pseudoloss"
  type: "Reduction"
  bottom: "h"
  top: "h_pseudoloss"
  loss_weight: 1
}
I0802 07:51:25.106758 23936 layer_factory.hpp:77] Creating layer lstm2_
I0802 07:51:25.106770 23936 net.cpp:91] Creating Layer lstm2_
I0802 07:51:25.106776 23936 net.cpp:399] lstm2_ -> x
I0802 07:51:25.106786 23936 net.cpp:399] lstm2_ -> cont
I0802 07:51:25.106837 23936 net.cpp:141] Setting up lstm2_
I0802 07:51:25.106847 23936 net.cpp:148] Top shape: 1 1 1501 (1501)
I0802 07:51:25.106853 23936 net.cpp:148] Top shape: 1 1 (1)
I0802 07:51:25.106856 23936 net.cpp:156] Memory required for data: 6008
I0802 07:51:25.106861 23936 layer_factory.hpp:77] Creating layer lstm2_
I0802 07:51:25.106873 23936 net.cpp:91] Creating Layer lstm2_
I0802 07:51:25.106879 23936 net.cpp:399] lstm2_ -> c_0
I0802 07:51:25.106889 23936 net.cpp:399] lstm2_ -> h_0
I0802 07:51:25.106936 23936 net.cpp:141] Setting up lstm2_
I0802 07:51:25.106945 23936 net.cpp:148] Top shape: 1 1 1000 (1000)
I0802 07:51:25.106951 23936 net.cpp:148] Top shape: 1 1 1000 (1000)
I0802 07:51:25.106956 23936 net.cpp:156] Memory required for data: 14008
I0802 07:51:25.106959 23936 layer_factory.hpp:77] Creating layer lstm2_cont_slice
I0802 07:51:25.106967 23936 net.cpp:91] Creating Layer lstm2_cont_slice
I0802 07:51:25.106972 23936 net.cpp:425] lstm2_cont_slice <- cont
I0802 07:51:25.106979 23936 net.cpp:399] lstm2_cont_slice -> cont_1
I0802 07:51:25.107013 23936 net.cpp:141] Setting up lstm2_cont_slice
I0802 07:51:25.107022 23936 net.cpp:148] Top shape: 1 1 (1)
I0802 07:51:25.107028 23936 net.cpp:156] Memory required for data: 14012
I0802 07:51:25.107033 23936 layer_factory.hpp:77] Creating layer cont_1_lstm2_cont_slice_0_split
I0802 07:51:25.107039 23936 net.cpp:91] Creating Layer cont_1_lstm2_cont_slice_0_split
I0802 07:51:25.107044 23936 net.cpp:425] cont_1_lstm2_cont_slice_0_split <- cont_1
I0802 07:51:25.107053 23936 net.cpp:399] cont_1_lstm2_cont_slice_0_split -> cont_1_lstm2_cont_slice_0_split_0
I0802 07:51:25.107061 23936 net.cpp:399] cont_1_lstm2_cont_slice_0_split -> cont_1_lstm2_cont_slice_0_split_1
I0802 07:51:25.107105 23936 net.cpp:141] Setting up cont_1_lstm2_cont_slice_0_split
I0802 07:51:25.107112 23936 net.cpp:148] Top shape: 1 1 (1)
I0802 07:51:25.107118 23936 net.cpp:148] Top shape: 1 1 (1)
I0802 07:51:25.107122 23936 net.cpp:156] Memory required for data: 14020
I0802 07:51:25.107126 23936 layer_factory.hpp:77] Creating layer lstm2_x_transform
I0802 07:51:25.107138 23936 net.cpp:91] Creating Layer lstm2_x_transform
I0802 07:51:25.107143 23936 net.cpp:425] lstm2_x_transform <- x
I0802 07:51:25.107152 23936 net.cpp:399] lstm2_x_transform -> W_xc_x
I0802 07:51:25.163722 23936 net.cpp:141] Setting up lstm2_x_transform
I0802 07:51:25.163766 23936 net.cpp:148] Top shape: 1 1 4000 (4000)
I0802 07:51:25.163772 23936 net.cpp:156] Memory required for data: 30020
I0802 07:51:25.163806 23936 layer_factory.hpp:77] Creating layer lstm2_W_xc_x_slice
I0802 07:51:25.163822 23936 net.cpp:91] Creating Layer lstm2_W_xc_x_slice
I0802 07:51:25.163830 23936 net.cpp:425] lstm2_W_xc_x_slice <- W_xc_x
I0802 07:51:25.163839 23936 net.cpp:399] lstm2_W_xc_x_slice -> W_xc_x_1
I0802 07:51:25.163887 23936 net.cpp:141] Setting up lstm2_W_xc_x_slice
I0802 07:51:25.163897 23936 net.cpp:148] Top shape: 1 1 4000 (4000)
I0802 07:51:25.163902 23936 net.cpp:156] Memory required for data: 46020
I0802 07:51:25.163905 23936 layer_factory.hpp:77] Creating layer lstm2_h_conted_0
I0802 07:51:25.163915 23936 net.cpp:91] Creating Layer lstm2_h_conted_0
I0802 07:51:25.163920 23936 net.cpp:425] lstm2_h_conted_0 <- h_0
I0802 07:51:25.163925 23936 net.cpp:425] lstm2_h_conted_0 <- cont_1_lstm2_cont_slice_0_split_0
I0802 07:51:25.163933 23936 net.cpp:399] lstm2_h_conted_0 -> h_conted_0
I0802 07:51:25.164033 23936 net.cpp:141] Setting up lstm2_h_conted_0
I0802 07:51:25.164043 23936 net.cpp:148] Top shape: 1 1 1000 (1000)
I0802 07:51:25.164047 23936 net.cpp:156] Memory required for data: 50020
I0802 07:51:25.164052 23936 layer_factory.hpp:77] Creating layer lstm2_transform_1
I0802 07:51:25.164063 23936 net.cpp:91] Creating Layer lstm2_transform_1
I0802 07:51:25.164068 23936 net.cpp:425] lstm2_transform_1 <- h_conted_0
I0802 07:51:25.164077 23936 net.cpp:399] lstm2_transform_1 -> W_hc_h_0
I0802 07:51:25.202911 23936 net.cpp:141] Setting up lstm2_transform_1
I0802 07:51:25.202956 23936 net.cpp:148] Top shape: 1 1 4000 (4000)
I0802 07:51:25.202961 23936 net.cpp:156] Memory required for data: 66020
I0802 07:51:25.202982 23936 layer_factory.hpp:77] Creating layer lstm2_gate_input_1
I0802 07:51:25.203002 23936 net.cpp:91] Creating Layer lstm2_gate_input_1
I0802 07:51:25.203009 23936 net.cpp:425] lstm2_gate_input_1 <- W_hc_h_0
I0802 07:51:25.203018 23936 net.cpp:425] lstm2_gate_input_1 <- W_xc_x_1
I0802 07:51:25.203027 23936 net.cpp:399] lstm2_gate_input_1 -> gate_input_1
I0802 07:51:25.203075 23936 net.cpp:141] Setting up lstm2_gate_input_1
I0802 07:51:25.203084 23936 net.cpp:148] Top shape: 1 1 4000 (4000)
I0802 07:51:25.203088 23936 net.cpp:156] Memory required for data: 82020
I0802 07:51:25.203093 23936 layer_factory.hpp:77] Creating layer lstm2_unit_1
I0802 07:51:25.203104 23936 net.cpp:91] Creating Layer lstm2_unit_1
I0802 07:51:25.203109 23936 net.cpp:425] lstm2_unit_1 <- c_0
I0802 07:51:25.203114 23936 net.cpp:425] lstm2_unit_1 <- gate_input_1
I0802 07:51:25.203121 23936 net.cpp:425] lstm2_unit_1 <- cont_1_lstm2_cont_slice_0_split_1
I0802 07:51:25.203128 23936 net.cpp:399] lstm2_unit_1 -> c_1
I0802 07:51:25.203136 23936 net.cpp:399] lstm2_unit_1 -> h_1
I0802 07:51:25.203197 23936 net.cpp:141] Setting up lstm2_unit_1
I0802 07:51:25.203207 23936 net.cpp:148] Top shape: 1 1 1000 (1000)
I0802 07:51:25.203212 23936 net.cpp:148] Top shape: 1 1 1000 (1000)
I0802 07:51:25.203215 23936 net.cpp:156] Memory required for data: 90020
I0802 07:51:25.203220 23936 layer_factory.hpp:77] Creating layer lstm2_
I0802 07:51:25.203228 23936 net.cpp:91] Creating Layer lstm2_
I0802 07:51:25.203233 23936 net.cpp:425] lstm2_ <- c_1
I0802 07:51:25.203239 23936 net.cpp:399] lstm2_ -> c_T
I0802 07:51:25.203269 23936 net.cpp:141] Setting up lstm2_
I0802 07:51:25.203276 23936 net.cpp:148] Top shape: 1 1 1000 (1000)
I0802 07:51:25.203280 23936 net.cpp:156] Memory required for data: 94020
I0802 07:51:25.203285 23936 layer_factory.hpp:77] Creating layer lstm2_h_concat
I0802 07:51:25.203297 23936 net.cpp:91] Creating Layer lstm2_h_concat
I0802 07:51:25.203302 23936 net.cpp:425] lstm2_h_concat <- h_1
I0802 07:51:25.203310 23936 net.cpp:399] lstm2_h_concat -> h
I0802 07:51:25.203344 23936 net.cpp:141] Setting up lstm2_h_concat
I0802 07:51:25.203352 23936 net.cpp:148] Top shape: 1 1 1000 (1000)
I0802 07:51:25.203357 23936 net.cpp:156] Memory required for data: 98020
I0802 07:51:25.203361 23936 layer_factory.hpp:77] Creating layer h_pseudoloss
I0802 07:51:25.203371 23936 net.cpp:91] Creating Layer h_pseudoloss
I0802 07:51:25.203374 23936 net.cpp:425] h_pseudoloss <- h
I0802 07:51:25.203383 23936 net.cpp:399] h_pseudoloss -> h_pseudoloss
I0802 07:51:25.203465 23936 net.cpp:141] Setting up h_pseudoloss
…
