…
W0924 03:35:13.786753 32119 upgrade_proto.cpp:71] Note that future Caffe releases will only support input layers and not input fields.
I0924 03:35:13.785029 32125 net.cpp:49] Initializing net from parameters: 
name: "s2vt:features_to_lstm"
state {
  phase: TEST
}
layer {
  name: "input"
  type: "Input"
  top: "frames_fc7"
  top: "cont_sentence"
  top: "input_sentence"
  top: "stage_indicator"
  input_param {
    shape {
      dim: 1
      dim: 4096
    }
    shape {
      dim: 1
      dim: 1
    }
    shape {
      dim: 1
      dim: 1
    }
    shape {
      dim: 1
      dim: 1
    }
  }
}
layer {
  name: "embed_encoder"
  type: "InnerProduct"
  bottom: "frames_fc7"
  top: "embedded_in_frames"
  param {
    lr_mult: 1
    decay_mult: 1
  }
  param {
    lr_mult: 2
    decay_mult: 0
  }
  inner_product_param {
    num_output: 500
    weight_filler {
      type: "xavier"
    }
    bias_filler {
      type: "constant"
      value: 0.2
    }
  }
}
layer {
  name: "reshape_frames"
  type: "Reshape"
  bottom: "embedded_in_frames"
  top: "embedded_input_frames"
  reshape_param {
    shape {
      dim: 1
      dim: 1
      dim: 500
    }
  }
}
layer {
  name: "reshape_stage_indicator"
  type: "Reshape"
  bottom: "stage_indicator"
  top: "reshaped_stage_indicator"
  reshape_param {
    shape {
      dim: 1
      dim: 1
      dim: 1
    }
  }
}
layer {
  name: "embedding"
  type: "Embed"
  bottom: "input_sentence"
  top: "embedded_input_sentence"
  param {
    lr_mult: 1
  }
  embed_param {
    num_output: 500
    input_dim: 46168
    bias_term: false
    weight_filler {
      type: "uniform"
      min: -0.08
      max: 0.08
    }
  }
}
layer {
  name: "lstm1"
  type: "LSTM"
  bottom: "embedded_input_frames"
  bottom: "cont_sentence"
  top: "lstm1"
  recurrent_param {
    num_output: 1000
    weight_filler {
      type: "uniform"
      min: -0.08
      max: 0.08
    }
    bias_filler {
      type: "constant"
      value: 0
    }
  }
}
layer {
  name: "concat"
  type: "Concat"
  bottom: "lstm1"
  bottom: "embedded_input_sentence"
  bottom: "reshaped_stage_indicator"
  top: "lstm1_video_sequence"
  concat_param {
    concat_dim: 2
  }
}
layer {
  name: "lstm2"
  type: "LSTM"
  bottom: "lstm1_video_sequence"
  bottom: "cont_sentence"
  top: "lstm2"
  recurrent_param {
    num_output: 1000
    weight_filler {
      type: "uniform"
      min: -0.08
      max: 0.08
    }
    bias_filler {
      type: "constant"
      value: 0
    }
  }
}
layer {
  name: "predict"
  type: "InnerProduct"
  bottom: "lstm2"
  top: "predict"
  param {
    lr_mult: 1
    decay_mult: 1
  }
  param {
    lr_mult: 2
    decay_mult: 0
  }
  inner_product_param {
    num_output: 46168
    weight_filler {
      type: "uniform"
      min: -0.08
      max: 0.08
    }
    bias_filler {
      type: "constant"
      value: 0
    }
    axis: 2
  }
}
layer {
  name: "probs"
  type: "Softmax"
  bottom: "predict"
  top: "probs"
  softmax_param {
    axis: 2
  }
}
I0924 03:35:13.785104 32129 net.cpp:49] Initializing net from parameters: 
name: "s2vt:features_to_lstm"
state {
  phase: TEST
}
layer {
  name: "input"
  type: "Input"
  top: "frames_fc7"
  top: "cont_sentence"
  top: "input_sentence"
  top: "stage_indicator"
  input_param {
    shape {
      dim: 1
      dim: 4096
    }
    shape {
      dim: 1
      dim: 1
    }
    shape {
      dim: 1
      dim: 1
    }
    shape {
      dim: 1
      dim: 1
    }
  }
}
layer {
  name: "embed_encoder"
  type: "InnerProduct"
  bottom: "frames_fc7"
  top: "embedded_in_frames"
  param {
    lr_mult: 1
    decay_mult: 1
  }
  param {
    lr_mult: 2
    decay_mult: 0
  }
  inner_product_param {
    num_output: 500
    weight_filler {
      type: "xavier"
    }
    bias_filler {
      type: "constant"
      value: 0.2
    }
  }
}
layer {
  name: "reshape_frames"
  type: "Reshape"
  bottom: "embedded_in_frames"
  top: "embedded_input_frames"
  reshape_param {
    shape {
      dim: 1
      dim: 1
      dim: 500
    }
  }
}
layer {
  name: "reshape_stage_indicator"
  type: "Reshape"
  bottom: "stage_indicator"
  top: "reshaped_stage_indicator"
  reshape_param {
    shape {
      dim: 1
      dim: 1
      dim: 1
    }
  }
}
layer {
  name: "embedding"
  type: "Embed"
  bottom: "input_sentence"
  top: "embedded_input_sentence"
  param {
    lr_mult: 1
  }
  embed_param {
    num_output: 500
    input_dim: 46168
    bias_term: false
    weight_filler {
      type: "uniform"
      min: -0.08
      max: 0.08
    }
  }
}
layer {
  name: "lstm1"
  type: "LSTM"
  bottom: "embedded_input_frames"
  bottom: "cont_sentence"
  top: "lstm1"
  recurrent_param {
    num_output: 1000
    weight_filler {
      type: "uniform"
      min: -0.08
      max: 0.08
    }
    bias_filler {
      type: "constant"
      value: 0
    }
  }
}
layer {
  name: "concat"
  type: "Concat"
  bottom: "lstm1"
  bottom: "embedded_input_sentence"
  bottom: "reshaped_stage_indicator"
  top: "lstm1_video_sequence"
  concat_param {
    concat_dim: 2
  }
}
layer {
  name: "lstm2"
  type: "LSTM"
  bottom: "lstm1_video_sequence"
  bottom: "cont_sentence"
  top: "lstm2"
  recurrent_param {
    num_output: 1000
    weight_filler {
      type: "uniform"
      min: -0.08
      max: 0.08
    }
    bias_filler {
      type: "constant"
      value: 0
    }
  }
}
layer {
  name: "predict"
  type: "InnerProduct"
  bottom: "lstm2"
  top: "predict"
  param {
    lr_mult: 1
    decay_mult: 1
  }
  param {
    lr_mult: 2
    decay_mult: 0
  }
  inner_product_param {
    num_output: 46168
    weight_filler {
      type: "uniform"
      min: -0.08
      max: 0.08
    }
    bias_filler {
      type: "constant"
      value: 0
    }
    axis: 2
  }
}
layer {
  name: "probs"
  type: "Softmax"
  bottom: "predict"
  top: "probs"
  softmax_param {
    axis: 2
  }
}
I0924 03:35:13.785145 32159 net.cpp:49] Initializing net from parameters: 
name: "CaffeNet"
state {
  phase: TEST
}
layer {
  name: "data"
  type: "Input"
  top: "data"
  input_param {
    shape {
      dim: 10
      dim: 3
      dim: 227
      dim: 227
    }
  }
}
layer {
  name: "conv1"
  type: "Convolution"
  bottom: "data"
  top: "conv1"
  convolution_param {
    num_output: 96
    kernel_size: 11
    stride: 4
  }
}
layer {
  name: "relu1"
  type: "ReLU"
  bottom: "conv1"
  top: "conv1"
}
layer {
  name: "pool1"
  type: "Pooling"
  bottom: "conv1"
  top: "pool1"
  pooling_param {
    pool: MAX
    kernel_size: 3
    stride: 2
  }
}
layer {
  name: "norm1"
  type: "LRN"
  bottom: "pool1"
  top: "norm1"
  lrn_param {
    local_size: 5
    alpha: 0.0001
    beta: 0.75
  }
}
layer {
  name: "conv2"
  type: "Convolution"
  bottom: "norm1"
  top: "conv2"
  convolution_param {
    num_output: 256
    pad: 2
    kernel_size: 5
    group: 2
  }
}
layer {
  name: "relu2"
  type: "ReLU"
  bottom: "conv2"
  top: "conv2"
}
layer {
  name: "pool2"
  type: "Pooling"
  bottom: "conv2"
  top: "pool2"
  pooling_param {
    pool: MAX
    kernel_size: 3
    stride: 2
  }
}
layer {
  name: "norm2"
  type: "LRN"
  bottom: "pool2"
  top: "norm2"
  lrn_param {
    local_size: 5
    alpha: 0.0001
    beta: 0.75
  }
}
layer {
  name: "conv3"
  type: "Convolution"
  bottom: "norm2"
  top: "conv3"
  convolution_param {
    num_output: 384
    pad: 1
    kernel_size: 3
  }
}
layer {
  name: "relu3"
  type: "ReLU"
  bottom: "conv3"
  top: "conv3"
}
layer {
  name: "conv4"
  type: "Convolution"
  bottom: "conv3"
  top: "conv4"
  convolution_param {
    num_output: 384
    pad: 1
    kernel_size: 3
    group: 2
  }
}
layer {
  name: "relu4"
  type: "ReLU"
  bottom: "conv4"
  top: "conv4"
}
layer {
  name: "conv5"
  type: "Convolution"
  bottom: "conv4"
  top: "conv5"
  convolution_param {
    num_output: 256
    pad: 1
    kernel_size: 3
    group: 2
  }
}
layer {
  name: "relu5"
  type: "ReLU"
  bottom: "conv5"
  top: "conv5"
}
layer {
  name: "pool5"
  type: "Pooling"
  bottom: "conv5"
  top: "pool5"
  pooling_param {
    pool: MAX
    kernel_size: 3
    stride: 2
  }
}
layer {
  name: "fc6"
  type: "InnerProduct"
  bottom: "pool5"
  top: "fc6"
  inner_product_param {
    num_output: 4096
  }
}
layer {
  name: "relu6"
  type: "ReLU"
  bottom: "fc6"
  top: "fc6"
}
layer {
  name: "drop6"
  type: "Dropout"
  bottom: "fc6"
  top: "fc6"
  dropout_param {
    dropout_ratio: 0.5
  }
}
layer {
  name: "fc7"
  type: "InnerProduct"
  bottom: "fc6"
  top: "fc7"
  inner_product_param {
    num_output: 4096
  }
}
layer {
  name: "relu7"
  type: "ReLU"
  bottom: "fc7"
  top: "fc7"
}
layer {
  name: "drop7"
  type: "Dropout"
  bottom: "fc7"
  top: "fc7"
  dropout_param {
    dropout_ratio: 0.5
  }
}
layer {
  name: "fc8"
  type: "InnerProduct"
  bottom: "fc7"
  top: "fc8"
  inner_product_param {
    num_output: 1000
  }
}
layer {
  name: "prob"
  type: "Softmax"
  bottom: "fc8"
  top: "prob"
}
I0924 03:35:13.785184 32137 net.cpp:49] Initializing net from parameters: 
name: "s2vt:features_to_lstm"
state {
  phase: TEST
}
layer {
  name: "input"
  type: "Input"
  top: "frames_fc7"
  top: "cont_sentence"
  top: "input_sentence"
  top: "stage_indicator"
  input_param {
    shape {
      dim: 1
      dim: 4096
    }
    shape {
      dim: 1
      dim: 1
    }
    shape {
      dim: 1
      dim: 1
    }
    shape {
      dim: 1
      dim: 1
    }
  }
}
layer {
  name: "embed_encoder"
  type: "InnerProduct"
  bottom: "frames_fc7"
  top: "embedded_in_frames"
  param {
    lr_mult: 1
    decay_mult: 1
  }
  param {
    lr_mult: 2
    decay_mult: 0
  }
  inner_product_param {
    num_output: 500
    weight_filler {
      type: "xavier"
    }
    bias_filler {
      type: "constant"
      value: 0.2
    }
  }
}
layer {
  name: "reshape_frames"
  type: "Reshape"
  bottom: "embedded_in_frames"
  top: "embedded_input_frames"
  reshape_param {
    shape {
      dim: 1
      dim: 1
      dim: 500
    }
  }
}
layer {
  name: "reshape_stage_indicator"
  type: "Reshape"
  bottom: "stage_indicator"
  top: "reshaped_stage_indicator"
  reshape_param {
    shape {
      dim: 1
      dim: 1
      dim: 1
    }
  }
}
layer {
  name: "embedding"
  type: "Embed"
  bottom: "input_sentence"
  top: "embedded_input_sentence"
  param {
    lr_mult: 1
  }
  embed_param {
    num_output: 500
    input_dim: 46168
    bias_term: false
    weight_filler {
      type: "uniform"
      min: -0.08
      max: 0.08
    }
  }
}
layer {
  name: "lstm1"
  type: "LSTM"
  bottom: "embedded_input_frames"
  bottom: "cont_sentence"
  top: "lstm1"
  recurrent_param {
    num_output: 1000
    weight_filler {
      type: "uniform"
      min: -0.08
      max: 0.08
    }
    bias_filler {
      type: "constant"
      value: 0
    }
  }
}
layer {
  name: "concat"
  type: "Concat"
  bottom: "lstm1"
  bottom: "embedded_input_sentence"
  bottom: "reshaped_stage_indicator"
  top: "lstm1_video_sequence"
  concat_param {
    concat_dim: 2
  }
}
layer {
  name: "lstm2"
  type: "LSTM"
  bottom: "lstm1_video_sequence"
  bottom: "cont_sentence"
  top: "lstm2"
  recurrent_param {
    num_output: 1000
    weight_filler {
      type: "uniform"
      min: -0.08
      max: 0.08
    }
    bias_filler {
      type: "constant"
      value: 0
    }
  }
}
layer {
  name: "predict"
  type: "InnerProduct"
  bottom: "lstm2"
  top: "predict"
  param {
    lr_mult: 1
    decay_mult: 1
  }
  param {
    lr_mult: 2
    decay_mult: 0
  }
  inner_product_param {
    num_output: 46168
    weight_filler {
      type: "uniform"
      min: -0.08
      max: 0.08
    }
    bias_filler {
      type: "constant"
      value: 0
    }
    axis: 2
  }
}
layer {
  name: "probs"
  type: "Softmax"
  bottom: "predict"
  top: "probs"
  softmax_param {
    axis: 2
  }
}
W0924 03:35:13.784785 32141 upgrade_proto.cpp:71] Note that future Caffe releases will only support input layers and not input fields.
W0924 03:35:13.786764 32157 upgrade_proto.cpp:71] Note that future Caffe releases will only support input layers and not input fields.
I0924 03:35:13.785058 32167 net.cpp:49] Initializing net from parameters: 
name: "s2vt:features_to_lstm"
state {
  phase: TEST
}
layer {
  name: "input"
  type: "Input"
  top: "frames_fc7"
  top: "cont_sentence"
  top: "input_sentence"
  top: "stage_indicator"
  input_param {
    shape {
      dim: 1
      dim: 4096
    }
    shape {
      dim: 1
      dim: 1
    }
    shape {
      dim: 1
      dim: 1
    }
    shape {
      dim: 1
      dim: 1
    }
  }
}
layer {
  name: "embed_encoder"
  type: "InnerProduct"
  bottom: "frames_fc7"
  top: "embedded_in_frames"
  param {
    lr_mult: 1
    decay_mult: 1
  }
  param {
    lr_mult: 2
    decay_mult: 0
  }
  inner_product_param {
    num_output: 500
    weight_filler {
      type: "xavier"
    }
    bias_filler {
      type: "constant"
      value: 0.2
    }
  }
}
layer {
  name: "reshape_frames"
  type: "Reshape"
  bottom: "embedded_in_frames"
  top: "embedded_input_frames"
  reshape_param {
    shape {
      dim: 1
      dim: 1
      dim: 500
    }
  }
}
layer {
  name: "reshape_stage_indicator"
  type: "Reshape"
  bottom: "stage_indicator"
  top: "reshaped_stage_indicator"
  reshape_param {
    shape {
      dim: 1
      dim: 1
      dim: 1
    }
  }
}
layer {
  name: "embedding"
  type: "Embed"
  bottom: "input_sentence"
  top: "embedded_input_sentence"
  param {
    lr_mult: 1
  }
  embed_param {
    num_output: 500
    input_dim: 46168
    bias_term: false
    weight_filler {
      type: "uniform"
      min: -0.08
      max: 0.08
    }
  }
}
layer {
  name: "lstm1"
  type: "LSTM"
  bottom: "embedded_input_frames"
  bottom: "cont_sentence"
  top: "lstm1"
  recurrent_param {
    num_output: 1000
    weight_filler {
      type: "uniform"
      min: -0.08
      max: 0.08
    }
    bias_filler {
      type: "constant"
      value: 0
    }
  }
}
layer {
  name: "concat"
  type: "Concat"
  bottom: "lstm1"
  bottom: "embedded_input_sentence"
  bottom: "reshaped_stage_indicator"
  top: "lstm1_video_sequence"
  concat_param {
    concat_dim: 2
  }
}
layer {
  name: "lstm2"
  type: "LSTM"
  bottom: "lstm1_video_sequence"
  bottom: "cont_sentence"
  top: "lstm2"
  recurrent_param {
    num_output: 1000
    weight_filler {
      type: "uniform"
      min: -0.08
      max: 0.08
    }
    bias_filler {
      type: "constant"
      value: 0
    }
  }
}
layer {
  name: "predict"
  type: "InnerProduct"
  bottom: "lstm2"
  top: "predict"
  param {
    lr_mult: 1
    decay_mult: 1
  }
  param {
    lr_mult: 2
    decay_mult: 0
  }
  inner_product_param {
    num_output: 46168
    weight_filler {
      type: "uniform"
      min: -0.08
      max: 0.08
    }
    bias_filler {
      type: "constant"
      value: 0
    }
    axis: 2
  }
}
layer {
  name: "probs"
  type: "Softmax"
  bottom: "predict"
  top: "probs"
  softmax_param {
    axis: 2
  }
}
I0924 03:35:13.786900 32123 net.cpp:49] Initializing net from parameters: 
name: "s2vt:features_to_lstm"
state {
  phase: TEST
}
layer {
  name: "input"
  type: "Input"
  top: "frames_fc7"
  top: "cont_sentence"
  top: "input_sentence"
  top: "stage_indicator"
  input_param {
    shape {
      dim: 1
      dim: 4096
    }
    shape {
      dim: 1
      dim: 1
    }
    shape {
      dim: 1
      dim: 1
    }
    shape {
      dim: 1
      dim: 1
    }
  }
}
layer {
  name: "embed_encoder"
  type: "InnerProduct"
  bottom: "frames_fc7"
  top: "embedded_in_frames"
  param {
    lr_mult: 1
    decay_mult: 1
  }
  param {
    lr_mult: 2
    decay_mult: 0
  }
  inner_product_param {
    num_output: 500
    weight_filler {
      type: "xavier"
    }
    bias_filler {
      type: "constant"
      value: 0.2
    }
  }
}
layer {
  name: "reshape_frames"
  type: "Reshape"
  bottom: "embedded_in_frames"
  top: "embedded_input_frames"
  reshape_param {
    shape {
      dim: 1
      dim: 1
      dim: 500
    }
  }
}
layer {
  name: "reshape_stage_indicator"
  type: "Reshape"
  bottom: "stage_indicator"
  top: "reshaped_stage_indicator"
  reshape_param {
    shape {
      dim: 1
      dim: 1
      dim: 1
    }
  }
}
layer {
  name: "embedding"
  type: "Embed"
  bottom: "input_sentence"
  top: "embedded_input_sentence"
  param {
    lr_mult: 1
  }
  embed_param {
    num_output: 500
    input_dim: 46168
    bias_term: false
    weight_filler {
      type: "uniform"
      min: -0.08
      max: 0.08
    }
  }
}
layer {
  name: "lstm1"
  type: "LSTM"
  bottom: "embedded_input_frames"
  bottom: "cont_sentence"
  top: "lstm1"
  recurrent_param {
    num_output: 1000
    weight_filler {
      type: "uniform"
      min: -0.08
      max: 0.08
    }
    bias_filler {
      type: "constant"
      value: 0
    }
  }
}
layer {
  name: "concat"
  type: "Concat"
  bottom: "lstm1"
  bottom: "embedded_input_sentence"
  bottom: "reshaped_stage_indicator"
  top: "lstm1_video_sequence"
  concat_param {
    concat_dim: 2
  }
}
layer {
  name: "lstm2"
  type: "LSTM"
  bottom: "lstm1_video_sequence"
  bottom: "cont_sentence"
  top: "lstm2"
  recurrent_param {
    num_output: 1000
    weight_filler {
      type: "uniform"
      min: -0.08
      max: 0.08
    }
    bias_filler {
      type: "constant"
      value: 0
    }
  }
}
layer {
  name: "predict"
  type: "InnerProduct"
  bottom: "lstm2"
  top: "predict"
  param {
    lr_mult: 1
    decay_mult: 1
  }
  param {
    lr_mult: 2
    decay_mult: 0
  }
  inner_product_param {
    num_output: 46168
    weight_filler {
      type: "uniform"
      min: -0.08
      max: 0.08
    }
    bias_filler {
      type: "constant"
      value: 0
    }
    axis: 2
  }
}
layer {
  name: "probs"
  type: "Softmax"
  bottom: "predict"
  top: "probs"
  softmax_param {
    axis: 2
  }
}
I0924 03:35:13.786917 32125 layer_factory.hpp:77] Creating layer input
I0924 03:35:13.786923 32159 layer_factory.hpp:77] Creating layer data
I0924 03:35:13.786919 32129 layer_factory.hpp:77] Creating layer input
I0924 03:35:13.786944 32167 layer_factory.hpp:77] Creating layer input
I0924 03:35:13.786947 32137 layer_factory.hpp:77] Creating layer input
…
I0924 03:35:13.786998 32123 net.cpp:91] Creating Layer input
I0924 03:35:13.786984 32137 net.cpp:91] Creating Layer input
I0924 03:35:13.786993 32119 net.cpp:49] Initializing net from parameters: 
name: "s2vt:features_to_lstm"
state {
  phase: TEST
}
layer {
  name: "input"
  type: "Input"
  top: "frames_fc7"
  top: "cont_sentence"
  top: "input_sentence"
  top: "stage_indicator"
  input_param {
    shape {
      dim: 1
      dim: 4096
    }
    shape {
      dim: 1
      dim: 1
    }
    shape {
      dim: 1
      dim: 1
    }
    shape {
      dim: 1
      dim: 1
    }
  }
}
layer {
  name: "embed_encoder"
  type: "InnerProduct"
  bottom: "frames_fc7"
  top: "embedded_in_frames"
  param {
    lr_mult: 1
    decay_mult: 1
  }
  param {
    lr_mult: 2
    decay_mult: 0
  }
  inner_product_param {
    num_output: 500
    weight_filler {
      type: "xavier"
    }
    bias_filler {
      type: "constant"
      value: 0.2
    }
  }
}
layer {
  name: "reshape_frames"
  type: "Reshape"
  bottom: "embedded_in_frames"
  top: "embedded_input_frames"
  reshape_param {
    shape {
      dim: 1
      dim: 1
      dim: 500
    }
  }
}
layer {
  name: "reshape_stage_indicator"
  type: "Reshape"
  bottom: "stage_indicator"
  top: "reshaped_stage_indicator"
  reshape_param {
    shape {
      dim: 1
      dim: 1
      dim: 1
    }
  }
}
layer {
  name: "embedding"
  type: "Embed"
  bottom: "input_sentence"
  top: "embedded_input_sentence"
  param {
    lr_mult: 1
  }
  embed_param {
    num_output: 500
    input_dim: 46168
    bias_term: false
    weight_filler {
      type: "uniform"
      min: -0.08
      max: 0.08
    }
  }
}
layer {
  name: "lstm1"
  type: "LSTM"
  bottom: "embedded_input_frames"
  bottom: "cont_sentence"
  top: "lstm1"
  recurrent_param {
    num_output: 1000
    weight_filler {
      type: "uniform"
      min: -0.08
      max: 0.08
    }
    bias_filler {
      type: "constant"
      value: 0
    }
  }
}
layer {
  name: "concat"
  type: "Concat"
  bottom: "lstm1"
  bottom: "embedded_input_sentence"
  bottom: "reshaped_stage_indicator"
  top: "lstm1_video_sequence"
  concat_param {
    concat_dim: 2
  }
}
layer {
  name: "lstm2"
  type: "LSTM"
  bottom: "lstm1_video_sequence"
  bottom: "cont_sentence"
  top: "lstm2"
  recurrent_param {
    num_output: 1000
    weight_filler {
      type: "uniform"
      min: -0.08
      max: 0.08
    }
    bias_filler {
      type: "constant"
      value: 0
    }
  }
}
layer {
  name: "predict"
  type: "InnerProduct"
  bottom: "lstm2"
  top: "predict"
  param {
    lr_mult: 1
    decay_mult: 1
  }
  param {
    lr_mult: 2
    decay_mult: 0
  }
  inner_product_param {
    num_output: 46168
    weight_filler {
      type: "uniform"
      min: -0.08
      max: 0.08
    }
    bias_filler {
      type: "constant"
      value: 0
    }
    axis: 2
  }
}
layer {
  name: "probs"
  type: "Softmax"
  bottom: "predict"
  top: "probs"
  softmax_param {
    axis: 2
  }
}
I0924 03:35:13.787014 32123 net.cpp:399] input -> frames_fc7
I0924 03:35:13.787019 32137 net.cpp:399] input -> frames_fc7
I0924 03:35:13.786985 32125 net.cpp:399] input -> frames_fc7
I0924 03:35:13.787032 32167 net.cpp:399] input -> cont_sentence
I0924 03:35:13.787034 32129 net.cpp:399] input -> cont_sentence
I0924 03:35:13.787044 32125 net.cpp:399] input -> cont_sentence
I0924 03:35:13.787047 32157 net.cpp:49] Initializing net from parameters: 
name: "s2vt:features_to_lstm"
state {
  phase: TEST
}
layer {
  name: "input"
  type: "Input"
  top: "frames_fc7"
  top: "cont_sentence"
  top: "input_sentence"
  top: "stage_indicator"
  input_param {
    shape {
      dim: 1
      dim: 4096
    }
    shape {
      dim: 1
      dim: 1
    }
    shape {
      dim: 1
      dim: 1
    }
    shape {
      dim: 1
      dim: 1
    }
  }
}
layer {
  name: "embed_encoder"
  type: "InnerProduct"
  bottom: "frames_fc7"
  top: "embedded_in_frames"
  param {
    lr_mult: 1
    decay_mult: 1
  }
  param {
    lr_mult: 2
    decay_mult: 0
  }
  inner_product_param {
    num_output: 500
    weight_filler {
      type: "xavier"
    }
    bias_filler {
      type: "constant"
      value: 0.2
    }
  }
}
layer {
  name: "reshape_frames"
  type: "Reshape"
  bottom: "embedded_in_frames"
  top: "embedded_input_frames"
  reshape_param {
    shape {
      dim: 1
      dim: 1
      dim: 500
    }
  }
}
layer {
  name: "reshape_stage_indicator"
  type: "Reshape"
  bottom: "stage_indicator"
  top: "reshaped_stage_indicator"
  reshape_param {
    shape {
      dim: 1
      dim: 1
      dim: 1
    }
  }
}
layer {
  name: "embedding"
  type: "Embed"
  bottom: "input_sentence"
  top: "embedded_input_sentence"
  param {
    lr_mult: 1
  }
  embed_param {
    num_output: 500
    input_dim: 46168
    bias_term: false
    weight_filler {
      type: "uniform"
      min: -0.08
      max: 0.08
    }
  }
}
layer {
  name: "lstm1"
  type: "LSTM"
  bottom: "embedded_input_frames"
  bottom: "cont_sentence"
  top: "lstm1"
  recurrent_param {
    num_output: 1000
    weight_filler {
      type: "uniform"
      min: -0.08
      max: 0.08
    }
    bias_filler {
      type: "constant"
      value: 0
    }
  }
}
layer {
  name: "concat"
  type: "Concat"
  bottom: "lstm1"
  bottom: "embedded_input_sentence"
  bottom: "reshaped_stage_indicator"
  top: "lstm1_video_sequence"
  concat_param {
    concat_dim: 2
  }
}
layer {
  name: "lstm2"
  type: "LSTM"
  bottom: "lstm1_video_sequence"
  bottom: "cont_sentence"
  top: "lstm2"
  recurrent_param {
    num_output: 1000
    weight_filler {
      type: "uniform"
      min: -0.08
      max: 0.08
    }
    bias_filler {
      type: "constant"
      value: 0
    }
  }
}
layer {
  name: "predict"
  type: "InnerProduct"
  bottom: "lstm2"
  top: "predict"
  param {
    lr_mult: 1
    decay_mult: 1
  }
  param {
    lr_mult: 2
    decay_mult: 0
  }
  inner_product_param {
    num_output: 46168
    weight_filler {
      type: "uniform"
      min: -0.08
      max: 0.08
    }
    bias_filler {
      type: "constant"
      value: 0
    }
    axis: 2
  }
}
layer {
  name: "probs"
  type: "Softmax"
  bottom: "predict"
  top: "probs"
  softmax_param {
    axis: 2
  }
}
I0924 03:35:13.787060 32125 net.cpp:399] input -> input_sentence
I0924 03:35:13.787044 32137 net.cpp:399] input -> cont_sentence
I0924 03:35:13.787075 32125 net.cpp:399] input -> stage_indicator
I0924 03:35:13.787051 32167 net.cpp:399] input -> input_sentence
I0924 03:35:13.787052 32129 net.cpp:399] input -> input_sentence
I0924 03:35:13.787034 32123 net.cpp:399] input -> cont_sentence
…
I0924 03:35:13.787135 32157 layer_factory.hpp:77] Creating layer input
I0924 03:35:13.787142 32119 net.cpp:91] Creating Layer input
I0924 03:35:13.787143 32141 net.cpp:49] Initializing net from parameters: 
name: "s2vt:features_to_lstm"
state {
  phase: TEST
}
layer {
  name: "input"
  type: "Input"
  top: "frames_fc7"
  top: "cont_sentence"
  top: "input_sentence"
  top: "stage_indicator"
  input_param {
    shape {
      dim: 1
      dim: 4096
    }
    shape {
      dim: 1
      dim: 1
    }
    shape {
      dim: 1
      dim: 1
    }
    shape {
      dim: 1
      dim: 1
    }
  }
}
layer {
  name: "embed_encoder"
  type: "InnerProduct"
  bottom: "frames_fc7"
  top: "embedded_in_frames"
  param {
    lr_mult: 1
    decay_mult: 1
  }
  param {
    lr_mult: 2
    decay_mult: 0
  }
  inner_product_param {
    num_output: 500
    weight_filler {
      type: "xavier"
    }
    bias_filler {
      type: "constant"
      value: 0.2
    }
  }
}
layer {
  name: "reshape_frames"
  type: "Reshape"
  bottom: "embedded_in_frames"
  top: "embedded_input_frames"
  reshape_param {
    shape {
      dim: 1
      dim: 1
      dim: 500
    }
  }
}
layer {
  name: "reshape_stage_indicator"
  type: "Reshape"
  bottom: "stage_indicator"
  top: "reshaped_stage_indicator"
  reshape_param {
    shape {
      dim: 1
      dim: 1
      dim: 1
    }
  }
}
layer {
  name: "embedding"
  type: "Embed"
  bottom: "input_sentence"
  top: "embedded_input_sentence"
  param {
    lr_mult: 1
  }
  embed_param {
    num_output: 500
    input_dim: 46168
    bias_term: false
    weight_filler {
      type: "uniform"
      min: -0.08
      max: 0.08
    }
  }
}
layer {
  name: "lstm1"
  type: "LSTM"
  bottom: "embedded_input_frames"
  bottom: "cont_sentence"
  top: "lstm1"
  recurrent_param {
    num_output: 1000
    weight_filler {
      type: "uniform"
      min: -0.08
      max: 0.08
    }
    bias_filler {
      type: "constant"
      value: 0
    }
  }
}
layer {
  name: "concat"
  type: "Concat"
  bottom: "lstm1"
  bottom: "embedded_input_sentence"
  bottom: "reshaped_stage_indicator"
  top: "lstm1_video_sequence"
  concat_param {
    concat_dim: 2
  }
}
layer {
  name: "lstm2"
  type: "LSTM"
  bottom: "lstm1_video_sequence"
  bottom: "cont_sentence"
  top: "lstm2"
  recurrent_param {
    num_output: 1000
    weight_filler {
      type: "uniform"
      min: -0.08
      max: 0.08
    }
    bias_filler {
      type: "constant"
      value: 0
    }
  }
}
layer {
  name: "predict"
  type: "InnerProduct"
  bottom: "lstm2"
  top: "predict"
  param {
    lr_mult: 1
    decay_mult: 1
  }
  param {
    lr_mult: 2
    decay_mult: 0
  }
  inner_product_param {
    num_output: 46168
    weight_filler {
      type: "uniform"
      min: -0.08
      max: 0.08
    }
    bias_filler {
      type: "constant"
      value: 0
    }
    axis: 2
  }
}
layer {
  name: "probs"
  type: "Softmax"
  bottom: "predict"
  top: "probs"
  softmax_param {
    axis: 2
  }
}
I0924 03:35:13.787147 32157 net.cpp:91] Creating Layer input
I0924 03:35:13.787149 32119 net.cpp:399] input -> frames_fc7
I0924 03:35:13.787170 32157 net.cpp:399] input -> frames_fc7
I0924 03:35:13.787184 32157 net.cpp:399] input -> cont_sentence
I0924 03:35:13.787184 32119 net.cpp:399] input -> cont_sentence
I0924 03:35:13.787197 32157 net.cpp:399] input -> input_sentence
I0924 03:35:13.787202 32119 net.cpp:399] input -> input_sentence
I0924 03:35:13.787207 32157 net.cpp:399] input -> stage_indicator
I0924 03:35:13.787212 32119 net.cpp:399] input -> stage_indicator
I0924 03:35:13.787228 32141 layer_factory.hpp:77] Creating layer input
I0924 03:35:13.787241 32141 net.cpp:91] Creating Layer input
I0924 03:35:13.787248 32141 net.cpp:399] input -> frames_fc7
I0924 03:35:13.787259 32141 net.cpp:399] input -> cont_sentence
I0924 03:35:13.787268 32141 net.cpp:399] input -> input_sentence
I0924 03:35:13.787278 32141 net.cpp:399] input -> stage_indicator
I0924 03:35:14.335388 32129 net.cpp:141] Setting up input
I0924 03:35:14.335461 32129 net.cpp:148] Top shape: 1 4096 (4096)
I0924 03:35:14.335469 32129 net.cpp:148] Top shape: 1 1 (1)
I0924 03:35:14.335475 32129 net.cpp:148] Top shape: 1 1 (1)
I0924 03:35:14.335481 32129 net.cpp:148] Top shape: 1 1 (1)
I0924 03:35:14.335485 32129 net.cpp:156] Memory required for data: 16396
I0924 03:35:14.335505 32129 layer_factory.hpp:77] Creating layer cont_sentence_input_1_split
I0924 03:35:14.335530 32129 net.cpp:91] Creating Layer cont_sentence_input_1_split
I0924 03:35:14.335541 32129 net.cpp:425] cont_sentence_input_1_split <- cont_sentence
I0924 03:35:14.335571 32129 net.cpp:399] cont_sentence_input_1_split -> cont_sentence_input_1_split_0
I0924 03:35:14.335585 32129 net.cpp:399] cont_sentence_input_1_split -> cont_sentence_input_1_split_1
I0924 03:35:14.335600 32167 net.cpp:141] Setting up input
I0924 03:35:14.335636 32167 net.cpp:148] Top shape: 1 4096 (4096)
I0924 03:35:14.335644 32167 net.cpp:148] Top shape: 1 1 (1)
I0924 03:35:14.335649 32167 net.cpp:148] Top shape: 1 1 (1)
I0924 03:35:14.335654 32167 net.cpp:148] Top shape: 1 1 (1)
I0924 03:35:14.335659 32167 net.cpp:156] Memory required for data: 16396
I0924 03:35:14.335666 32167 layer_factory.hpp:77] Creating layer cont_sentence_input_1_split
I0924 03:35:14.335683 32167 net.cpp:91] Creating Layer cont_sentence_input_1_split
I0924 03:35:14.335682 32157 net.cpp:141] Setting up input
I0924 03:35:14.335705 32167 net.cpp:425] cont_sentence_input_1_split <- cont_sentence
I0924 03:35:14.335718 32157 net.cpp:148] Top shape: 1 4096 (4096)
I0924 03:35:14.335726 32157 net.cpp:148] Top shape: 1 1 (1)
I0924 03:35:14.335726 32167 net.cpp:399] cont_sentence_input_1_split -> cont_sentence_input_1_split_0
I0924 03:35:14.335733 32157 net.cpp:148] Top shape: 1 1 (1)
I0924 03:35:14.335739 32157 net.cpp:148] Top shape: 1 1 (1)
I0924 03:35:14.335743 32157 net.cpp:156] Memory required for data: 16396
I0924 03:35:14.335746 32167 net.cpp:399] cont_sentence_input_1_split -> cont_sentence_input_1_split_1
I0924 03:35:14.335748 32157 layer_factory.hpp:77] Creating layer cont_sentence_input_1_split
I0924 03:35:14.335760 32157 net.cpp:91] Creating Layer cont_sentence_input_1_split
I0924 03:35:14.335765 32157 net.cpp:425] cont_sentence_input_1_split <- cont_sentence
I0924 03:35:14.335774 32157 net.cpp:399] cont_sentence_input_1_split -> cont_sentence_input_1_split_0
I0924 03:35:14.335778 32159 net.cpp:141] Setting up data
I0924 03:35:14.335784 32157 net.cpp:399] cont_sentence_input_1_split -> cont_sentence_input_1_split_1
I0924 03:35:14.335800 32159 net.cpp:148] Top shape: 10 3 227 227 (1545870)
I0924 03:35:14.335806 32159 net.cpp:156] Memory required for data: 6183480
I0924 03:35:14.335813 32159 layer_factory.hpp:77] Creating layer conv1
I0924 03:35:14.335842 32159 net.cpp:91] Creating Layer conv1
I0924 03:35:14.335849 32159 net.cpp:425] conv1 <- data
I0924 03:35:14.335858 32159 net.cpp:399] conv1 -> conv1
I0924 03:35:14.336326 32129 net.cpp:141] Setting up cont_sentence_input_1_split
I0924 03:35:14.336339 32129 net.cpp:148] Top shape: 1 1 (1)
I0924 03:35:14.336344 32129 net.cpp:148] Top shape: 1 1 (1)
I0924 03:35:14.336349 32129 net.cpp:156] Memory required for data: 16404
I0924 03:35:14.336354 32129 layer_factory.hpp:77] Creating layer embed_encoder
I0924 03:35:14.336376 32129 net.cpp:91] Creating Layer embed_encoder
I0924 03:35:14.336382 32129 net.cpp:425] embed_encoder <- frames_fc7
I0924 03:35:14.336392 32129 net.cpp:399] embed_encoder -> embedded_in_frames
I0924 03:35:14.336432 32123 net.cpp:141] Setting up input
I0924 03:35:14.336447 32123 net.cpp:148] Top shape: 1 4096 (4096)
I0924 03:35:14.336454 32123 net.cpp:148] Top shape: 1 1 (1)
I0924 03:35:14.336460 32123 net.cpp:148] Top shape: 1 1 (1)
I0924 03:35:14.336465 32123 net.cpp:148] Top shape: 1 1 (1)
I0924 03:35:14.336469 32123 net.cpp:156] Memory required for data: 16396
I0924 03:35:14.336472 32157 net.cpp:141] Setting up cont_sentence_input_1_split
I0924 03:35:14.336475 32123 layer_factory.hpp:77] Creating layer cont_sentence_input_1_split
I0924 03:35:14.336488 32157 net.cpp:148] Top shape: 1 1 (1)
I0924 03:35:14.336493 32123 net.cpp:91] Creating Layer cont_sentence_input_1_split
I0924 03:35:14.336493 32157 net.cpp:148] Top shape: 1 1 (1)
I0924 03:35:14.336510 32123 net.cpp:425] cont_sentence_input_1_split <- cont_sentence
I0924 03:35:14.336511 32157 net.cpp:156] Memory required for data: 16404
I0924 03:35:14.336516 32125 net.cpp:141] Setting up input
I0924 03:35:14.336524 32157 layer_factory.hpp:77] Creating layer embed_encoder
I0924 03:35:14.336524 32123 net.cpp:399] cont_sentence_input_1_split -> cont_sentence_input_1_split_0
I0924 03:35:14.336536 32125 net.cpp:148] Top shape: 1 4096 (4096)
I0924 03:35:14.336545 32157 net.cpp:91] Creating Layer embed_encoder
I0924 03:35:14.336551 32125 net.cpp:148] Top shape: 1 1 (1)
I0924 03:35:14.336541 32137 net.cpp:141] Setting up input
I0924 03:35:14.336552 32123 net.cpp:399] cont_sentence_input_1_split -> cont_sentence_input_1_split_1
I0924 03:35:14.336555 32157 net.cpp:425] embed_encoder <- frames_fc7
I0924 03:35:14.336573 32137 net.cpp:148] Top shape: 1 4096 (4096)
I0924 03:35:14.336557 32125 net.cpp:148] Top shape: 1 1 (1)
I0924 03:35:14.336585 32157 net.cpp:399] embed_encoder -> embedded_in_frames
I0924 03:35:14.336591 32137 net.cpp:148] Top shape: 1 1 (1)
I0924 03:35:14.336592 32125 net.cpp:148] Top shape: 1 1 (1)
I0924 03:35:14.336606 32125 net.cpp:156] Memory required for data: 16396
I0924 03:35:14.336606 32137 net.cpp:148] Top shape: 1 1 (1)
I0924 03:35:14.336613 32125 layer_factory.hpp:77] Creating layer cont_sentence_input_1_split
I0924 03:35:14.336617 32137 net.cpp:148] Top shape: 1 1 (1)
I0924 03:35:14.336622 32137 net.cpp:156] Memory required for data: 16396
I0924 03:35:14.336623 32125 net.cpp:91] Creating Layer cont_sentence_input_1_split
I0924 03:35:14.336628 32137 layer_factory.hpp:77] Creating layer cont_sentence_input_1_split
I0924 03:35:14.336628 32125 net.cpp:425] cont_sentence_input_1_split <- cont_sentence
I0924 03:35:14.336642 32137 net.cpp:91] Creating Layer cont_sentence_input_1_split
I0924 03:35:14.336643 32125 net.cpp:399] cont_sentence_input_1_split -> cont_sentence_input_1_split_0
I0924 03:35:14.336637 32167 net.cpp:141] Setting up cont_sentence_input_1_split
I0924 03:35:14.336655 32125 net.cpp:399] cont_sentence_input_1_split -> cont_sentence_input_1_split_1
I0924 03:35:14.336650 32137 net.cpp:425] cont_sentence_input_1_split <- cont_sentence
I0924 03:35:14.336666 32167 net.cpp:148] Top shape: 1 1 (1)
I0924 03:35:14.336671 32137 net.cpp:399] cont_sentence_input_1_split -> cont_sentence_input_1_split_0
I0924 03:35:14.336674 32167 net.cpp:148] Top shape: 1 1 (1)
I0924 03:35:14.336684 32167 net.cpp:156] Memory required for data: 16404
I0924 03:35:14.336688 32137 net.cpp:399] cont_sentence_input_1_split -> cont_sentence_input_1_split_1
I0924 03:35:14.336689 32167 layer_factory.hpp:77] Creating layer embed_encoder
I0924 03:35:14.336704 32167 net.cpp:91] Creating Layer embed_encoder
I0924 03:35:14.336709 32167 net.cpp:425] embed_encoder <- frames_fc7
I0924 03:35:14.336719 32167 net.cpp:399] embed_encoder -> embedded_in_frames
I0924 03:35:14.344439 32141 net.cpp:141] Setting up input
I0924 03:35:14.344466 32141 net.cpp:148] Top shape: 1 4096 (4096)
I0924 03:35:14.344473 32141 net.cpp:148] Top shape: 1 1 (1)
I0924 03:35:14.344478 32141 net.cpp:148] Top shape: 1 1 (1)
I0924 03:35:14.344483 32141 net.cpp:148] Top shape: 1 1 (1)
I0924 03:35:14.344491 32141 net.cpp:156] Memory required for data: 16396
I0924 03:35:14.344501 32141 layer_factory.hpp:77] Creating layer cont_sentence_input_1_split
I0924 03:35:14.344516 32141 net.cpp:91] Creating Layer cont_sentence_input_1_split
I0924 03:35:14.344513 32125 net.cpp:141] Setting up cont_sentence_input_1_split
I0924 03:35:14.344523 32141 net.cpp:425] cont_sentence_input_1_split <- cont_sentence
I0924 03:35:14.344538 32125 net.cpp:148] Top shape: 1 1 (1)
I0924 03:35:14.344542 32141 net.cpp:399] cont_sentence_input_1_split -> cont_sentence_input_1_split_0
I0924 03:35:14.344545 32125 net.cpp:148] Top shape: 1 1 (1)
I0924 03:35:14.344549 32125 net.cpp:156] Memory required for data: 16404
I0924 03:35:14.344554 32141 net.cpp:399] cont_sentence_input_1_split -> cont_sentence_input_1_split_1
I0924 03:35:14.344555 32125 layer_factory.hpp:77] Creating layer embed_encoder
I0924 03:35:14.344578 32125 net.cpp:91] Creating Layer embed_encoder
I0924 03:35:14.344583 32125 net.cpp:425] embed_encoder <- frames_fc7
I0924 03:35:14.344594 32125 net.cpp:399] embed_encoder -> embedded_in_frames
I0924 03:35:14.349334 32123 net.cpp:141] Setting up cont_sentence_input_1_split
I0924 03:35:14.349360 32123 net.cpp:148] Top shape: 1 1 (1)
I0924 03:35:14.349367 32123 net.cpp:148] Top shape: 1 1 (1)
I0924 03:35:14.349371 32123 net.cpp:156] Memory required for data: 16404
I0924 03:35:14.349377 32123 layer_factory.hpp:77] Creating layer embed_encoder
I0924 03:35:14.349391 32123 net.cpp:91] Creating Layer embed_encoder
I0924 03:35:14.349397 32123 net.cpp:425] embed_encoder <- frames_fc7
I0924 03:35:14.349411 32123 net.cpp:399] embed_encoder -> embedded_in_frames
I0924 03:35:14.353598 32119 net.cpp:141] Setting up input
I0924 03:35:14.353626 32119 net.cpp:148] Top shape: 1 4096 (4096)
I0924 03:35:14.353633 32119 net.cpp:148] Top shape: 1 1 (1)
I0924 03:35:14.353639 32119 net.cpp:148] Top shape: 1 1 (1)
I0924 03:35:14.353644 32119 net.cpp:148] Top shape: 1 1 (1)
I0924 03:35:14.353648 32119 net.cpp:156] Memory required for data: 16396
I0924 03:35:14.353655 32119 layer_factory.hpp:77] Creating layer cont_sentence_input_1_split
I0924 03:35:14.353672 32119 net.cpp:91] Creating Layer cont_sentence_input_1_split
I0924 03:35:14.353682 32119 net.cpp:425] cont_sentence_input_1_split <- cont_sentence
I0924 03:35:14.353696 32119 net.cpp:399] cont_sentence_input_1_split -> cont_sentence_input_1_split_0
I0924 03:35:14.353713 32119 net.cpp:399] cont_sentence_input_1_split -> cont_sentence_input_1_split_1
I0924 03:35:14.355906 32141 net.cpp:141] Setting up cont_sentence_input_1_split
I0924 03:35:14.355929 32141 net.cpp:148] Top shape: 1 1 (1)
I0924 03:35:14.355937 32141 net.cpp:148] Top shape: 1 1 (1)
I0924 03:35:14.355940 32141 net.cpp:156] Memory required for data: 16404
I0924 03:35:14.355945 32141 layer_factory.hpp:77] Creating layer embed_encoder
I0924 03:35:14.355963 32141 net.cpp:91] Creating Layer embed_encoder
I0924 03:35:14.355970 32141 net.cpp:425] embed_encoder <- frames_fc7
I0924 03:35:14.355980 32141 net.cpp:399] embed_encoder -> embedded_in_frames
I0924 03:35:14.359902 32119 net.cpp:141] Setting up cont_sentence_input_1_split
I0924 03:35:14.359937 32119 net.cpp:148] Top shape: 1 1 (1)
I0924 03:35:14.359943 32119 net.cpp:148] Top shape: 1 1 (1)
I0924 03:35:14.359948 32119 net.cpp:156] Memory required for data: 16404
I0924 03:35:14.359954 32119 layer_factory.hpp:77] Creating layer embed_encoder
I0924 03:35:14.359972 32119 net.cpp:91] Creating Layer embed_encoder
I0924 03:35:14.359978 32119 net.cpp:425] embed_encoder <- frames_fc7
I0924 03:35:14.359989 32119 net.cpp:399] embed_encoder -> embedded_in_frames
I0924 03:35:14.363993 32137 net.cpp:141] Setting up cont_sentence_input_1_split
I0924 03:35:14.364028 32137 net.cpp:148] Top shape: 1 1 (1)
I0924 03:35:14.364035 32137 net.cpp:148] Top shape: 1 1 (1)
I0924 03:35:14.364040 32137 net.cpp:156] Memory required for data: 16404
I0924 03:35:14.364048 32137 layer_factory.hpp:77] Creating layer embed_encoder
I0924 03:35:14.364066 32137 net.cpp:91] Creating Layer embed_encoder
I0924 03:35:14.364073 32137 net.cpp:425] embed_encoder <- frames_fc7
I0924 03:35:14.364084 32137 net.cpp:399] embed_encoder -> embedded_in_frames
I0924 03:35:14.377929 32157 net.cpp:141] Setting up embed_encoder
I0924 03:35:14.377945 32129 net.cpp:141] Setting up embed_encoder
I0924 03:35:14.377974 32157 net.cpp:148] Top shape: 1 500 (500)
I0924 03:35:14.377995 32157 net.cpp:156] Memory required for data: 18404
I0924 03:35:14.378005 32167 net.cpp:141] Setting up embed_encoder
I0924 03:35:14.378023 32167 net.cpp:148] Top shape: 1 500 (500)
I0924 03:35:14.378028 32167 net.cpp:156] Memory required for data: 18404
I0924 03:35:14.378033 32157 layer_factory.hpp:77] Creating layer reshape_frames
I0924 03:35:14.378044 32167 layer_factory.hpp:77] Creating layer reshape_frames
I0924 03:35:14.378067 32167 net.cpp:91] Creating Layer reshape_frames
I0924 03:35:14.378068 32157 net.cpp:91] Creating Layer reshape_frames
I0924 03:35:14.378075 32167 net.cpp:425] reshape_frames <- embedded_in_frames
I0924 03:35:14.378078 32157 net.cpp:425] reshape_frames <- embedded_in_frames
I0924 03:35:14.378088 32157 net.cpp:399] reshape_frames -> embedded_input_frames
I0924 03:35:14.378089 32167 net.cpp:399] reshape_frames -> embedded_input_frames
I0924 03:35:14.378290 32129 net.cpp:148] Top shape: 1 500 (500)
I0924 03:35:14.378306 32129 net.cpp:156] Memory required for data: 18404
I0924 03:35:14.378310 32167 net.cpp:141] Setting up reshape_frames
I0924 03:35:14.378322 32167 net.cpp:148] Top shape: 1 1 500 (500)
I0924 03:35:14.378326 32167 net.cpp:156] Memory required for data: 20404
I0924 03:35:14.378331 32167 layer_factory.hpp:77] Creating layer reshape_stage_indicator
I0924 03:35:14.378343 32167 net.cpp:91] Creating Layer reshape_stage_indicator
I0924 03:35:14.378348 32167 net.cpp:425] reshape_stage_indicator <- stage_indicator
I0924 03:35:14.378346 32157 net.cpp:141] Setting up reshape_frames
I0924 03:35:14.378357 32167 net.cpp:399] reshape_stage_indicator -> reshaped_stage_indicator
I0924 03:35:14.378358 32157 net.cpp:148] Top shape: 1 1 500 (500)
I0924 03:35:14.378363 32157 net.cpp:156] Memory required for data: 20404
I0924 03:35:14.378368 32157 layer_factory.hpp:77] Creating layer reshape_stage_indicator
I0924 03:35:14.378379 32157 net.cpp:91] Creating Layer reshape_stage_indicator
I0924 03:35:14.378386 32157 net.cpp:425] reshape_stage_indicator <- stage_indicator
I0924 03:35:14.378392 32157 net.cpp:399] reshape_stage_indicator -> reshaped_stage_indicator
I0924 03:35:14.378329 32129 layer_factory.hpp:77] Creating layer reshape_frames
I0924 03:35:14.379822 32129 net.cpp:91] Creating Layer reshape_frames
I0924 03:35:14.379834 32129 net.cpp:425] reshape_frames <- embedded_in_frames
I0924 03:35:14.379835 32167 net.cpp:141] Setting up reshape_stage_indicator
I0924 03:35:14.379849 32129 net.cpp:399] reshape_frames -> embedded_input_frames
I0924 03:35:14.379853 32167 net.cpp:148] Top shape: 1 1 1 (1)
I0924 03:35:14.379859 32167 net.cpp:156] Memory required for data: 20408
I0924 03:35:14.379864 32167 layer_factory.hpp:77] Creating layer embedding
I0924 03:35:14.379879 32167 net.cpp:91] Creating Layer embedding
I0924 03:35:14.379884 32167 net.cpp:425] embedding <- input_sentence
I0924 03:35:14.379894 32167 net.cpp:399] embedding -> embedded_input_sentence
I0924 03:35:14.379979 32157 net.cpp:141] Setting up reshape_stage_indicator
I0924 03:35:14.379992 32157 net.cpp:148] Top shape: 1 1 1 (1)
I0924 03:35:14.379997 32157 net.cpp:156] Memory required for data: 20408
I0924 03:35:14.380002 32157 layer_factory.hpp:77] Creating layer embedding
I0924 03:35:14.380015 32157 net.cpp:91] Creating Layer embedding
I0924 03:35:14.380022 32157 net.cpp:425] embedding <- input_sentence
I0924 03:35:14.380029 32157 net.cpp:399] embedding -> embedded_input_sentence
I0924 03:35:14.380028 32129 net.cpp:141] Setting up reshape_frames
I0924 03:35:14.380048 32129 net.cpp:148] Top shape: 1 1 500 (500)
I0924 03:35:14.380053 32129 net.cpp:156] Memory required for data: 20404
I0924 03:35:14.380059 32129 layer_factory.hpp:77] Creating layer reshape_stage_indicator
I0924 03:35:14.380071 32129 net.cpp:91] Creating Layer reshape_stage_indicator
I0924 03:35:14.380077 32129 net.cpp:425] reshape_stage_indicator <- stage_indicator
I0924 03:35:14.380087 32129 net.cpp:399] reshape_stage_indicator -> reshaped_stage_indicator
I0924 03:35:14.422329 32125 net.cpp:141] Setting up embed_encoder
I0924 03:35:14.422370 32125 net.cpp:148] Top shape: 1 500 (500)
I0924 03:35:14.422376 32125 net.cpp:156] Memory required for data: 18404
I0924 03:35:14.422396 32125 layer_factory.hpp:77] Creating layer reshape_frames
I0924 03:35:14.422415 32125 net.cpp:91] Creating Layer reshape_frames
I0924 03:35:14.422422 32125 net.cpp:425] reshape_frames <- embedded_in_frames
I0924 03:35:14.422432 32125 net.cpp:399] reshape_frames -> embedded_input_frames
I0924 03:35:14.463727 32141 net.cpp:141] Setting up embed_encoder
I0924 03:35:14.463776 32141 net.cpp:148] Top shape: 1 500 (500)
I0924 03:35:14.463783 32141 net.cpp:156] Memory required for data: 18404
I0924 03:35:14.463805 32141 layer_factory.hpp:77] Creating layer reshape_frames
I0924 03:35:14.463824 32125 net.cpp:141] Setting up reshape_frames
I0924 03:35:14.463834 32141 net.cpp:91] Creating Layer reshape_frames
I0924 03:35:14.463848 32125 net.cpp:148] Top shape: 1 1 500 (500)
I0924 03:35:14.463862 32141 net.cpp:425] reshape_frames <- embedded_in_frames
I0924 03:35:14.463862 32125 net.cpp:156] Memory required for data: 20404
I0924 03:35:14.463876 32125 layer_factory.hpp:77] Creating layer reshape_stage_indicator
I0924 03:35:14.463878 32141 net.cpp:399] reshape_frames -> embedded_input_frames
I0924 03:35:14.463889 32125 net.cpp:91] Creating Layer reshape_stage_indicator
I0924 03:35:14.463896 32125 net.cpp:425] reshape_stage_indicator <- stage_indicator
I0924 03:35:14.463906 32125 net.cpp:399] reshape_stage_indicator -> reshaped_stage_indicator
I0924 03:35:14.463934 32129 net.cpp:141] Setting up reshape_stage_indicator
I0924 03:35:14.463950 32129 net.cpp:148] Top shape: 1 1 1 (1)
I0924 03:35:14.463951 32125 net.cpp:141] Setting up reshape_stage_indicator
I0924 03:35:14.463955 32129 net.cpp:156] Memory required for data: 20408
I0924 03:35:14.463966 32125 net.cpp:148] Top shape: 1 1 1 (1)
I0924 03:35:14.463968 32129 layer_factory.hpp:77] Creating layer embedding
I0924 03:35:14.463971 32125 net.cpp:156] Memory required for data: 20408
I0924 03:35:14.463976 32125 layer_factory.hpp:77] Creating layer embedding
I0924 03:35:14.463985 32129 net.cpp:91] Creating Layer embedding
I0924 03:35:14.463986 32125 net.cpp:91] Creating Layer embedding
I0924 03:35:14.463996 32129 net.cpp:425] embedding <- input_sentence
I0924 03:35:14.463999 32125 net.cpp:425] embedding <- input_sentence
I0924 03:35:14.464007 32129 net.cpp:399] embedding -> embedded_input_sentence
I0924 03:35:14.464009 32125 net.cpp:399] embedding -> embedded_input_sentence
I0924 03:35:14.464071 32141 net.cpp:141] Setting up reshape_frames
I0924 03:35:14.464084 32141 net.cpp:148] Top shape: 1 1 500 (500)
I0924 03:35:14.464089 32141 net.cpp:156] Memory required for data: 20404
I0924 03:35:14.464093 32141 layer_factory.hpp:77] Creating layer reshape_stage_indicator
I0924 03:35:14.464105 32141 net.cpp:91] Creating Layer reshape_stage_indicator
I0924 03:35:14.464110 32141 net.cpp:425] reshape_stage_indicator <- stage_indicator
I0924 03:35:14.464112 32123 net.cpp:141] Setting up embed_encoder
I0924 03:35:14.464123 32141 net.cpp:399] reshape_stage_indicator -> reshaped_stage_indicator
I0924 03:35:14.464130 32123 net.cpp:148] Top shape: 1 500 (500)
I0924 03:35:14.464126 32119 net.cpp:141] Setting up embed_encoder
I0924 03:35:14.464138 32123 net.cpp:156] Memory required for data: 18404
I0924 03:35:14.464151 32119 net.cpp:148] Top shape: 1 500 (500)
I0924 03:35:14.464157 32119 net.cpp:156] Memory required for data: 18404
I0924 03:35:14.464165 32123 layer_factory.hpp:77] Creating layer reshape_frames
I0924 03:35:14.464179 32119 layer_factory.hpp:77] Creating layer reshape_frames
I0924 03:35:14.464186 32123 net.cpp:91] Creating Layer reshape_frames
I0924 03:35:14.464190 32119 net.cpp:91] Creating Layer reshape_frames
I0924 03:35:14.464193 32123 net.cpp:425] reshape_frames <- embedded_in_frames
I0924 03:35:14.464197 32119 net.cpp:425] reshape_frames <- embedded_in_frames
I0924 03:35:14.464205 32123 net.cpp:399] reshape_frames -> embedded_input_frames
I0924 03:35:14.464205 32119 net.cpp:399] reshape_frames -> embedded_input_frames
I0924 03:35:14.464238 32137 net.cpp:141] Setting up embed_encoder
I0924 03:35:14.464249 32137 net.cpp:148] Top shape: 1 500 (500)
I0924 03:35:14.464254 32137 net.cpp:156] Memory required for data: 18404
I0924 03:35:14.464268 32137 layer_factory.hpp:77] Creating layer reshape_frames
I0924 03:35:14.464268 32141 net.cpp:141] Setting up reshape_stage_indicator
I0924 03:35:14.464277 32137 net.cpp:91] Creating Layer reshape_frames
I0924 03:35:14.464282 32141 net.cpp:148] Top shape: 1 1 1 (1)
I0924 03:35:14.464284 32137 net.cpp:425] reshape_frames <- embedded_in_frames
I0924 03:35:14.464285 32141 net.cpp:156] Memory required for data: 20408
I0924 03:35:14.464298 32137 net.cpp:399] reshape_frames -> embedded_input_frames
I0924 03:35:14.464299 32141 layer_factory.hpp:77] Creating layer embedding
I0924 03:35:14.464310 32141 net.cpp:91] Creating Layer embedding
I0924 03:35:14.464315 32141 net.cpp:425] embedding <- input_sentence
I0924 03:35:14.464354 32141 net.cpp:399] embedding -> embedded_input_sentence
I0924 03:35:14.547528 32123 net.cpp:141] Setting up reshape_frames
I0924 03:35:14.547554 32119 net.cpp:141] Setting up reshape_frames
I0924 03:35:14.547575 32119 net.cpp:148] Top shape: 1 1 500 (500)
I0924 03:35:14.547575 32123 net.cpp:148] Top shape: 1 1 500 (500)
I0924 03:35:14.547586 32119 net.cpp:156] Memory required for data: 20404
I0924 03:35:14.547590 32123 net.cpp:156] Memory required for data: 20404
I0924 03:35:14.547595 32119 layer_factory.hpp:77] Creating layer reshape_stage_indicator
I0924 03:35:14.547597 32123 layer_factory.hpp:77] Creating layer reshape_stage_indicator
I0924 03:35:14.547619 32137 net.cpp:141] Setting up reshape_frames
I0924 03:35:14.547636 32123 net.cpp:91] Creating Layer reshape_stage_indicator
I0924 03:35:14.547621 32119 net.cpp:91] Creating Layer reshape_stage_indicator
I0924 03:35:14.547646 32123 net.cpp:425] reshape_stage_indicator <- stage_indicator
I0924 03:35:14.547646 32137 net.cpp:148] Top shape: 1 1 500 (500)
I0924 03:35:14.547649 32119 net.cpp:425] reshape_stage_indicator <- stage_indicator
I0924 03:35:14.547652 32137 net.cpp:156] Memory required for data: 20404
I0924 03:35:14.547658 32123 net.cpp:399] reshape_stage_indicator -> reshaped_stage_indicator
I0924 03:35:14.547660 32119 net.cpp:399] reshape_stage_indicator -> reshaped_stage_indicator
I0924 03:35:14.547659 32137 layer_factory.hpp:77] Creating layer reshape_stage_indicator
I0924 03:35:14.547683 32137 net.cpp:91] Creating Layer reshape_stage_indicator
I0924 03:35:14.547689 32137 net.cpp:425] reshape_stage_indicator <- stage_indicator
I0924 03:35:14.547698 32137 net.cpp:399] reshape_stage_indicator -> reshaped_stage_indicator
I0924 03:35:14.548946 32123 net.cpp:141] Setting up reshape_stage_indicator
I0924 03:35:14.548975 32123 net.cpp:148] Top shape: 1 1 1 (1)
I0924 03:35:14.548980 32123 net.cpp:156] Memory required for data: 20408
I0924 03:35:14.548979 32119 net.cpp:141] Setting up reshape_stage_indicator
I0924 03:35:14.548986 32123 layer_factory.hpp:77] Creating layer embedding
I0924 03:35:14.548995 32119 net.cpp:148] Top shape: 1 1 1 (1)
I0924 03:35:14.549000 32119 net.cpp:156] Memory required for data: 20408
I0924 03:35:14.549005 32119 layer_factory.hpp:77] Creating layer embedding
I0924 03:35:14.549012 32123 net.cpp:91] Creating Layer embedding
I0924 03:35:14.549015 32119 net.cpp:91] Creating Layer embedding
I0924 03:35:14.549020 32123 net.cpp:425] embedding <- input_sentence
I0924 03:35:14.549021 32119 net.cpp:425] embedding <- input_sentence
I0924 03:35:14.549028 32123 net.cpp:399] embedding -> embedded_input_sentence
I0924 03:35:14.549031 32119 net.cpp:399] embedding -> embedded_input_sentence
I0924 03:35:14.600621 32137 net.cpp:141] Setting up reshape_stage_indicator
I0924 03:35:14.600689 32137 net.cpp:148] Top shape: 1 1 1 (1)
I0924 03:35:14.600699 32137 net.cpp:156] Memory required for data: 20408
I0924 03:35:14.600713 32137 layer_factory.hpp:77] Creating layer embedding
I0924 03:35:14.600742 32137 net.cpp:91] Creating Layer embedding
I0924 03:35:14.600755 32137 net.cpp:425] embedding <- input_sentence
I0924 03:35:14.600781 32137 net.cpp:399] embedding -> embedded_input_sentence
I0924 03:35:14.686117 32167 net.cpp:141] Setting up embedding
I0924 03:35:14.686168 32167 net.cpp:148] Top shape: 1 1 500 (500)
I0924 03:35:14.686173 32167 net.cpp:156] Memory required for data: 22408
I0924 03:35:14.686189 32167 layer_factory.hpp:77] Creating layer lstm1
I0924 03:35:14.686208 32167 net.cpp:91] Creating Layer lstm1
I0924 03:35:14.686214 32167 net.cpp:425] lstm1 <- embedded_input_frames
I0924 03:35:14.686223 32167 net.cpp:425] lstm1 <- cont_sentence_input_1_split_0
I0924 03:35:14.686230 32167 net.cpp:399] lstm1 -> lstm1
I0924 03:35:14.686233 32157 net.cpp:141] Setting up embedding
I0924 03:35:14.686251 32157 net.cpp:148] Top shape: 1 1 500 (500)
I0924 03:35:14.686256 32157 net.cpp:156] Memory required for data: 22408
I0924 03:35:14.686269 32157 layer_factory.hpp:77] Creating layer lstm1
I0924 03:35:14.686270 32167 recurrent_layer.cpp:20] Initializing recurrent layer: assuming input batch contains 1 timesteps of 1 independent streams.
I0924 03:35:14.686280 32157 net.cpp:91] Creating Layer lstm1
I0924 03:35:14.686287 32157 net.cpp:425] lstm1 <- embedded_input_frames
I0924 03:35:14.686293 32157 net.cpp:425] lstm1 <- cont_sentence_input_1_split_0
I0924 03:35:14.686301 32157 net.cpp:399] lstm1 -> lstm1
I0924 03:35:14.686313 32157 recurrent_layer.cpp:20] Initializing recurrent layer: assuming input batch contains 1 timesteps of 1 independent streams.
I0924 03:35:14.686354 32125 net.cpp:141] Setting up embedding
I0924 03:35:14.686398 32125 net.cpp:148] Top shape: 1 1 500 (500)
I0924 03:35:14.686403 32125 net.cpp:156] Memory required for data: 22408
I0924 03:35:14.686420 32125 layer_factory.hpp:77] Creating layer lstm1
I0924 03:35:14.686437 32125 net.cpp:91] Creating Layer lstm1
I0924 03:35:14.686444 32125 net.cpp:425] lstm1 <- embedded_input_frames
I0924 03:35:14.686453 32125 net.cpp:425] lstm1 <- cont_sentence_input_1_split_0
I0924 03:35:14.686462 32125 net.cpp:399] lstm1 -> lstm1
I0924 03:35:14.686478 32125 recurrent_layer.cpp:20] Initializing recurrent layer: assuming input batch contains 1 timesteps of 1 independent streams.
I0924 03:35:14.686628 32157 net.cpp:49] Initializing net from parameters: 
layer {
  name: "lstm1_"
  type: "Input"
  top: "x"
  top: "cont"
  input_param {
    shape {
      dim: 1
      dim: 1
      dim: 500
    }
    shape {
      dim: 1
      dim: 1
    }
  }
}
layer {
  name: "lstm1_"
  type: "Input"
  top: "c_0"
  top: "h_0"
  input_param {
    shape {
      dim: 1
      dim: 1
      dim: 1000
    }
    shape {
      dim: 1
      dim: 1
      dim: 1000
    }
  }
}
layer {
  name: "lstm1_cont_slice"
  type: "Slice"
  bottom: "cont"
  top: "cont_1"
  slice_param {
    axis: 0
  }
}
layer {
  name: "lstm1_x_transform"
  type: "InnerProduct"
  bottom: "x"
  top: "W_xc_x"
  param {
    name: "W_xc"
  }
  param {
    name: "b_c"
  }
  propagate_down: true
  inner_product_param {
    num_output: 4000
    bias_term: true
    weight_filler {
      type: "uniform"
      min: -0.08
      max: 0.08
    }
    bias_filler {
      type: "constant"
      value: 0
    }
    axis: 2
  }
}
layer {
  name: "lstm1_W_xc_x_slice"
  type: "Slice"
  bottom: "W_xc_x"
  top: "W_xc_x_1"
  slice_param {
    axis: 0
  }
}
layer {
  name: "lstm1_h_conted_0"
  type: "Scale"
  bottom: "h_0"
  bottom: "cont_1"
  top: "h_conted_0"
  scale_param {
    axis: 0
  }
}
layer {
  name: "lstm1_transform_1"
  type: "InnerProduct"
  bottom: "h_conted_0"
  top: "W_hc_h_0"
  param {
    name: "W_hc"
  }
  inner_product_param {
    num_output: 4000
    bias_term: false
    weight_filler {
      type: "uniform"
      min: -0.08
      max: 0.08
    }
    axis: 2
  }
}
layer {
  name: "lstm1_gate_input_1"
  type: "Eltwise"
  bottom: "W_hc_h_0"
  bottom: "W_xc_x_1"
  top: "gate_input_1"
  eltwise_param {
    operation: SUM
  }
}
layer {
  name: "lstm1_unit_1"
  type: "LSTMUnit"
  bottom: "c_0"
  bottom: "gate_input_1"
  bottom: "cont_1"
  top: "c_1"
  top: "h_1"
}
layer {
  name: "lstm1_"
  type: "Split"
  bottom: "c_1"
  top: "c_T"
}
layer {
  name: "lstm1_h_concat"
  type: "Concat"
  bottom: "h_1"
  top: "h"
  concat_param {
    axis: 0
  }
}
layer {
  name: "h_pseudoloss"
  type: "Reduction"
  bottom: "h"
  top: "h_pseudoloss"
  loss_weight: 1
}
I0924 03:35:14.686640 32167 net.cpp:49] Initializing net from parameters: 
layer {
  name: "lstm1_"
  type: "Input"
  top: "x"
  top: "cont"
  input_param {
    shape {
      dim: 1
      dim: 1
      dim: 500
    }
    shape {
      dim: 1
      dim: 1
    }
  }
}
layer {
  name: "lstm1_"
  type: "Input"
  top: "c_0"
  top: "h_0"
  input_param {
    shape {
      dim: 1
      dim: 1
      dim: 1000
    }
    shape {
      dim: 1
      dim: 1
      dim: 1000
    }
  }
}
layer {
  name: "lstm1_cont_slice"
  type: "Slice"
  bottom: "cont"
  top: "cont_1"
  slice_param {
    axis: 0
  }
}
layer {
  name: "lstm1_x_transform"
  type: "InnerProduct"
  bottom: "x"
  top: "W_xc_x"
  param {
    name: "W_xc"
  }
  param {
    name: "b_c"
  }
  propagate_down: true
  inner_product_param {
    num_output: 4000
    bias_term: true
    weight_filler {
      type: "uniform"
      min: -0.08
      max: 0.08
    }
    bias_filler {
      type: "constant"
      value: 0
    }
    axis: 2
  }
}
layer {
  name: "lstm1_W_xc_x_slice"
  type: "Slice"
  bottom: "W_xc_x"
  top: "W_xc_x_1"
  slice_param {
    axis: 0
  }
}
layer {
  name: "lstm1_h_conted_0"
  type: "Scale"
  bottom: "h_0"
  bottom: "cont_1"
  top: "h_conted_0"
  scale_param {
    axis: 0
  }
}
layer {
  name: "lstm1_transform_1"
  type: "InnerProduct"
  bottom: "h_conted_0"
  top: "W_hc_h_0"
  param {
    name: "W_hc"
  }
  inner_product_param {
    num_output: 4000
    bias_term: false
    weight_filler {
      type: "uniform"
      min: -0.08
      max: 0.08
    }
    axis: 2
  }
}
layer {
  name: "lstm1_gate_input_1"
  type: "Eltwise"
  bottom: "W_hc_h_0"
  bottom: "W_xc_x_1"
  top: "gate_input_1"
  eltwise_param {
    operation: SUM
  }
}
layer {
  name: "lstm1_unit_1"
  type: "LSTMUnit"
  bottom: "c_0"
  bottom: "gate_input_1"
  bottom: "cont_1"
  top: "c_1"
  top: "h_1"
}
layer {
  name: "lstm1_"
  type: "Split"
  bottom: "c_1"
  top: "c_T"
}
layer {
  name: "lstm1_h_concat"
  type: "Concat"
  bottom: "h_1"
  top: "h"
  concat_param {
    axis: 0
  }
}
layer {
  name: "h_pseudoloss"
  type: "Reduction"
  bottom: "h"
  top: "h_pseudoloss"
  loss_weight: 1
}
I0924 03:35:14.686719 32157 layer_factory.hpp:77] Creating layer lstm1_
I0924 03:35:14.686727 32167 layer_factory.hpp:77] Creating layer lstm1_
I0924 03:35:14.686731 32157 net.cpp:91] Creating Layer lstm1_
I0924 03:35:14.686738 32167 net.cpp:91] Creating Layer lstm1_
I0924 03:35:14.686738 32157 net.cpp:399] lstm1_ -> x
I0924 03:35:14.686751 32167 net.cpp:399] lstm1_ -> x
I0924 03:35:14.686761 32157 net.cpp:399] lstm1_ -> cont
I0924 03:35:14.686763 32167 net.cpp:399] lstm1_ -> cont
I0924 03:35:14.686763 32125 net.cpp:49] Initializing net from parameters: 
layer {
  name: "lstm1_"
  type: "Input"
  top: "x"
  top: "cont"
  input_param {
    shape {
      dim: 1
      dim: 1
      dim: 500
    }
    shape {
      dim: 1
      dim: 1
    }
  }
}
layer {
  name: "lstm1_"
  type: "Input"
  top: "c_0"
  top: "h_0"
  input_param {
    shape {
      dim: 1
      dim: 1
      dim: 1000
    }
    shape {
      dim: 1
      dim: 1
      dim: 1000
    }
  }
}
layer {
  name: "lstm1_cont_slice"
  type: "Slice"
  bottom: "cont"
  top: "cont_1"
  slice_param {
    axis: 0
  }
}
layer {
  name: "lstm1_x_transform"
  type: "InnerProduct"
  bottom: "x"
  top: "W_xc_x"
  param {
    name: "W_xc"
  }
  param {
    name: "b_c"
  }
  propagate_down: true
  inner_product_param {
    num_output: 4000
    bias_term: true
    weight_filler {
      type: "uniform"
      min: -0.08
      max: 0.08
    }
    bias_filler {
      type: "constant"
      value: 0
    }
    axis: 2
  }
}
layer {
  name: "lstm1_W_xc_x_slice"
  type: "Slice"
  bottom: "W_xc_x"
  top: "W_xc_x_1"
  slice_param {
    axis: 0
  }
}
layer {
  name: "lstm1_h_conted_0"
  type: "Scale"
  bottom: "h_0"
  bottom: "cont_1"
  top: "h_conted_0"
  scale_param {
    axis: 0
  }
}
layer {
  name: "lstm1_transform_1"
  type: "InnerProduct"
  bottom: "h_conted_0"
  top: "W_hc_h_0"
  param {
    name: "W_hc"
  }
  inner_product_param {
    num_output: 4000
    bias_term: false
    weight_filler {
      type: "uniform"
      min: -0.08
      max: 0.08
    }
    axis: 2
  }
}
layer {
  name: "lstm1_gate_input_1"
  type: "Eltwise"
  bottom: "W_hc_h_0"
  bottom: "W_xc_x_1"
  top: "gate_input_1"
  eltwise_param {
    operation: SUM
  }
}
layer {
  name: "lstm1_unit_1"
  type: "LSTMUnit"
  bottom: "c_0"
  bottom: "gate_input_1"
  bottom: "cont_1"
  top: "c_1"
  top: "h_1"
}
layer {
  name: "lstm1_"
  type: "Split"
  bottom: "c_1"
  top: "c_T"
}
layer {
  name: "lstm1_h_concat"
  type: "Concat"
  bottom: "h_1"
  top: "h"
  concat_param {
    axis: 0
  }
}
layer {
  name: "h_pseudoloss"
  type: "Reduction"
  bottom: "h"
  top: "h_pseudoloss"
  loss_weight: 1
}
I0924 03:35:14.686856 32125 layer_factory.hpp:77] Creating layer lstm1_
I0924 03:35:14.686868 32125 net.cpp:91] Creating Layer lstm1_
I0924 03:35:14.686874 32125 net.cpp:399] lstm1_ -> x
I0924 03:35:14.686887 32125 net.cpp:399] lstm1_ -> cont
I0924 03:35:14.739945 32157 net.cpp:141] Setting up lstm1_
I0924 03:35:14.739987 32157 net.cpp:148] Top shape: 1 1 500 (500)
I0924 03:35:14.739995 32157 net.cpp:148] Top shape: 1 1 (1)
I0924 03:35:14.740000 32157 net.cpp:156] Memory required for data: 2004
I0924 03:35:14.740006 32157 layer_factory.hpp:77] Creating layer lstm1_
I0924 03:35:14.740025 32157 net.cpp:91] Creating Layer lstm1_
I0924 03:35:14.740036 32157 net.cpp:399] lstm1_ -> c_0
I0924 03:35:14.740052 32157 net.cpp:399] lstm1_ -> h_0
I0924 03:35:14.740057 32125 net.cpp:141] Setting up lstm1_
I0924 03:35:14.740101 32125 net.cpp:148] Top shape: 1 1 500 (500)
I0924 03:35:14.740109 32125 net.cpp:148] Top shape: 1 1 (1)
I0924 03:35:14.740113 32125 net.cpp:156] Memory required for data: 2004
I0924 03:35:14.740121 32125 layer_factory.hpp:77] Creating layer lstm1_
I0924 03:35:14.740141 32125 net.cpp:91] Creating Layer lstm1_
I0924 03:35:14.740139 32167 net.cpp:141] Setting up lstm1_
I0924 03:35:14.740159 32167 net.cpp:148] Top shape: 1 1 500 (500)
I0924 03:35:14.740159 32125 net.cpp:399] lstm1_ -> c_0
I0924 03:35:14.740167 32167 net.cpp:148] Top shape: 1 1 (1)
I0924 03:35:14.740172 32167 net.cpp:156] Memory required for data: 2004
I0924 03:35:14.740177 32167 layer_factory.hpp:77] Creating layer lstm1_
I0924 03:35:14.740180 32125 net.cpp:399] lstm1_ -> h_0
I0924 03:35:14.740188 32167 net.cpp:91] Creating Layer lstm1_
I0924 03:35:14.740195 32167 net.cpp:399] lstm1_ -> c_0
I0924 03:35:14.740206 32157 net.cpp:141] Setting up lstm1_
I0924 03:35:14.740211 32167 net.cpp:399] lstm1_ -> h_0
I0924 03:35:14.740218 32157 net.cpp:148] Top shape: 1 1 1000 (1000)
I0924 03:35:14.740224 32157 net.cpp:148] Top shape: 1 1 1000 (1000)
I0924 03:35:14.740228 32157 net.cpp:156] Memory required for data: 10004
I0924 03:35:14.740234 32157 layer_factory.hpp:77] Creating layer lstm1_cont_slice
I0924 03:35:14.740244 32157 net.cpp:91] Creating Layer lstm1_cont_slice
I0924 03:35:14.740249 32157 net.cpp:425] lstm1_cont_slice <- cont
I0924 03:35:14.740257 32157 net.cpp:399] lstm1_cont_slice -> cont_1
I0924 03:35:14.740283 32125 net.cpp:141] Setting up lstm1_
I0924 03:35:14.740295 32125 net.cpp:148] Top shape: 1 1 1000 (1000)
I0924 03:35:14.740301 32125 net.cpp:148] Top shape: 1 1 1000 (1000)
I0924 03:35:14.740305 32125 net.cpp:156] Memory required for data: 10004
I0924 03:35:14.740310 32125 layer_factory.hpp:77] Creating layer lstm1_cont_slice
I0924 03:35:14.740320 32125 net.cpp:91] Creating Layer lstm1_cont_slice
I0924 03:35:14.740325 32125 net.cpp:425] lstm1_cont_slice <- cont
I0924 03:35:14.740336 32125 net.cpp:399] lstm1_cont_slice -> cont_1
I0924 03:35:14.742763 32157 net.cpp:141] Setting up lstm1_cont_slice
I0924 03:35:14.742782 32157 net.cpp:148] Top shape: 1 1 (1)
I0924 03:35:14.742786 32157 net.cpp:156] Memory required for data: 10008
I0924 03:35:14.742784 32167 net.cpp:141] Setting up lstm1_
I0924 03:35:14.742796 32157 layer_factory.hpp:77] Creating layer cont_1_lstm1_cont_slice_0_split
I0924 03:35:14.742804 32167 net.cpp:148] Top shape: 1 1 1000 (1000)
I0924 03:35:14.742810 32157 net.cpp:91] Creating Layer cont_1_lstm1_cont_slice_0_split
I0924 03:35:14.742810 32167 net.cpp:148] Top shape: 1 1 1000 (1000)
I0924 03:35:14.742818 32157 net.cpp:425] cont_1_lstm1_cont_slice_0_split <- cont_1
I0924 03:35:14.742820 32167 net.cpp:156] Memory required for data: 10004
I0924 03:35:14.742825 32167 layer_factory.hpp:77] Creating layer lstm1_cont_slice
I0924 03:35:14.742825 32157 net.cpp:399] cont_1_lstm1_cont_slice_0_split -> cont_1_lstm1_cont_slice_0_split_0
I0924 03:35:14.742837 32157 net.cpp:399] cont_1_lstm1_cont_slice_0_split -> cont_1_lstm1_cont_slice_0_split_1
I0924 03:35:14.742838 32167 net.cpp:91] Creating Layer lstm1_cont_slice
I0924 03:35:14.742843 32167 net.cpp:425] lstm1_cont_slice <- cont
I0924 03:35:14.742851 32167 net.cpp:399] lstm1_cont_slice -> cont_1
I0924 03:35:14.742924 32125 net.cpp:141] Setting up lstm1_cont_slice
I0924 03:35:14.742971 32125 net.cpp:148] Top shape: 1 1 (1)
I0924 03:35:14.742976 32125 net.cpp:156] Memory required for data: 10008
I0924 03:35:14.742983 32167 net.cpp:141] Setting up lstm1_cont_slice
I0924 03:35:14.743000 32167 net.cpp:148] Top shape: 1 1 (1)
I0924 03:35:14.742985 32125 layer_factory.hpp:77] Creating layer cont_1_lstm1_cont_slice_0_split
I0924 03:35:14.743003 32167 net.cpp:156] Memory required for data: 10008
I0924 03:35:14.743010 32167 layer_factory.hpp:77] Creating layer cont_1_lstm1_cont_slice_0_split
I0924 03:35:14.743016 32167 net.cpp:91] Creating Layer cont_1_lstm1_cont_slice_0_split
I0924 03:35:14.743016 32157 net.cpp:141] Setting up cont_1_lstm1_cont_slice_0_split
I0924 03:35:14.743022 32167 net.cpp:425] cont_1_lstm1_cont_slice_0_split <- cont_1
I0924 03:35:14.743027 32157 net.cpp:148] Top shape: 1 1 (1)
I0924 03:35:14.743031 32125 net.cpp:91] Creating Layer cont_1_lstm1_cont_slice_0_split
I0924 03:35:14.743034 32157 net.cpp:148] Top shape: 1 1 (1)
I0924 03:35:14.743039 32157 net.cpp:156] Memory required for data: 10016
I0924 03:35:14.743032 32167 net.cpp:399] cont_1_lstm1_cont_slice_0_split -> cont_1_lstm1_cont_slice_0_split_0
I0924 03:35:14.743043 32125 net.cpp:425] cont_1_lstm1_cont_slice_0_split <- cont_1
I0924 03:35:14.743051 32167 net.cpp:399] cont_1_lstm1_cont_slice_0_split -> cont_1_lstm1_cont_slice_0_split_1
I0924 03:35:14.743044 32157 layer_factory.hpp:77] Creating layer lstm1_x_transform
I0924 03:35:14.743059 32125 net.cpp:399] cont_1_lstm1_cont_slice_0_split -> cont_1_lstm1_cont_slice_0_split_0
I0924 03:35:14.743072 32157 net.cpp:91] Creating Layer lstm1_x_transform
I0924 03:35:14.743077 32125 net.cpp:399] cont_1_lstm1_cont_slice_0_split -> cont_1_lstm1_cont_slice_0_split_1
I0924 03:35:14.743078 32157 net.cpp:425] lstm1_x_transform <- x
I0924 03:35:14.743095 32157 net.cpp:399] lstm1_x_transform -> W_xc_x
I0924 03:35:14.745836 32167 net.cpp:141] Setting up cont_1_lstm1_cont_slice_0_split
I0924 03:35:14.745847 32167 net.cpp:148] Top shape: 1 1 (1)
I0924 03:35:14.745853 32167 net.cpp:148] Top shape: 1 1 (1)
I0924 03:35:14.745857 32167 net.cpp:156] Memory required for data: 10016
I0924 03:35:14.745862 32167 layer_factory.hpp:77] Creating layer lstm1_x_transform
I0924 03:35:14.745875 32167 net.cpp:91] Creating Layer lstm1_x_transform
I0924 03:35:14.745882 32167 net.cpp:425] lstm1_x_transform <- x
I0924 03:35:14.745889 32167 net.cpp:399] lstm1_x_transform -> W_xc_x
I0924 03:35:14.753433 32129 net.cpp:141] Setting up embedding
I0924 03:35:14.753480 32129 net.cpp:148] Top shape: 1 1 500 (500)
I0924 03:35:14.753486 32129 net.cpp:156] Memory required for data: 22408
I0924 03:35:14.753504 32129 layer_factory.hpp:77] Creating layer lstm1
I0924 03:35:14.753522 32129 net.cpp:91] Creating Layer lstm1
I0924 03:35:14.753530 32129 net.cpp:425] lstm1 <- embedded_input_frames
I0924 03:35:14.753540 32129 net.cpp:425] lstm1 <- cont_sentence_input_1_split_0
I0924 03:35:14.753548 32129 net.cpp:399] lstm1 -> lstm1
I0924 03:35:14.753566 32129 recurrent_layer.cpp:20] Initializing recurrent layer: assuming input batch contains 1 timesteps of 1 independent streams.
I0924 03:35:14.753569 32125 net.cpp:141] Setting up cont_1_lstm1_cont_slice_0_split
I0924 03:35:14.753614 32125 net.cpp:148] Top shape: 1 1 (1)
I0924 03:35:14.753620 32125 net.cpp:148] Top shape: 1 1 (1)
I0924 03:35:14.753625 32125 net.cpp:156] Memory required for data: 10016
I0924 03:35:14.753633 32125 layer_factory.hpp:77] Creating layer lstm1_x_transform
I0924 03:35:14.753656 32125 net.cpp:91] Creating Layer lstm1_x_transform
I0924 03:35:14.753662 32125 net.cpp:425] lstm1_x_transform <- x
I0924 03:35:14.753675 32125 net.cpp:399] lstm1_x_transform -> W_xc_x
I0924 03:35:14.753832 32129 net.cpp:49] Initializing net from parameters: 
layer {
  name: "lstm1_"
  type: "Input"
  top: "x"
  top: "cont"
  input_param {
    shape {
      dim: 1
      dim: 1
      dim: 500
    }
    shape {
      dim: 1
      dim: 1
    }
  }
}
layer {
  name: "lstm1_"
  type: "Input"
  top: "c_0"
  top: "h_0"
  input_param {
    shape {
      dim: 1
      dim: 1
      dim: 1000
    }
    shape {
      dim: 1
      dim: 1
      dim: 1000
    }
  }
}
layer {
  name: "lstm1_cont_slice"
  type: "Slice"
  bottom: "cont"
  top: "cont_1"
  slice_param {
    axis: 0
  }
}
layer {
  name: "lstm1_x_transform"
  type: "InnerProduct"
  bottom: "x"
  top: "W_xc_x"
  param {
    name: "W_xc"
  }
  param {
    name: "b_c"
  }
  propagate_down: true
  inner_product_param {
    num_output: 4000
    bias_term: true
    weight_filler {
      type: "uniform"
      min: -0.08
      max: 0.08
    }
    bias_filler {
      type: "constant"
      value: 0
    }
    axis: 2
  }
}
layer {
  name: "lstm1_W_xc_x_slice"
  type: "Slice"
  bottom: "W_xc_x"
  top: "W_xc_x_1"
  slice_param {
    axis: 0
  }
}
layer {
  name: "lstm1_h_conted_0"
  type: "Scale"
  bottom: "h_0"
  bottom: "cont_1"
  top: "h_conted_0"
  scale_param {
    axis: 0
  }
}
layer {
  name: "lstm1_transform_1"
  type: "InnerProduct"
  bottom: "h_conted_0"
  top: "W_hc_h_0"
  param {
    name: "W_hc"
  }
  inner_product_param {
    num_output: 4000
    bias_term: false
    weight_filler {
      type: "uniform"
      min: -0.08
      max: 0.08
    }
    axis: 2
  }
}
layer {
  name: "lstm1_gate_input_1"
  type: "Eltwise"
  bottom: "W_hc_h_0"
  bottom: "W_xc_x_1"
  top: "gate_input_1"
  eltwise_param {
    operation: SUM
  }
}
layer {
  name: "lstm1_unit_1"
  type: "LSTMUnit"
  bottom: "c_0"
  bottom: "gate_input_1"
  bottom: "cont_1"
  top: "c_1"
  top: "h_1"
}
layer {
  name: "lstm1_"
  type: "Split"
  bottom: "c_1"
  top: "c_T"
}
layer {
  name: "lstm1_h_concat"
  type: "Concat"
  bottom: "h_1"
  top: "h"
  concat_param {
    axis: 0
  }
}
layer {
  name: "h_pseudoloss"
  type: "Reduction"
  bottom: "h"
  top: "h_pseudoloss"
  loss_weight: 1
}
I0924 03:35:14.753916 32129 layer_factory.hpp:77] Creating layer lstm1_
I0924 03:35:14.753931 32129 net.cpp:91] Creating Layer lstm1_
I0924 03:35:14.753937 32129 net.cpp:399] lstm1_ -> x
I0924 03:35:14.753947 32129 net.cpp:399] lstm1_ -> cont
I0924 03:35:14.760406 32129 net.cpp:141] Setting up lstm1_
I0924 03:35:14.760428 32129 net.cpp:148] Top shape: 1 1 500 (500)
I0924 03:35:14.760435 32129 net.cpp:148] Top shape: 1 1 (1)
I0924 03:35:14.760439 32129 net.cpp:156] Memory required for data: 2004
I0924 03:35:14.760445 32129 layer_factory.hpp:77] Creating layer lstm1_
I0924 03:35:14.760457 32129 net.cpp:91] Creating Layer lstm1_
I0924 03:35:14.760464 32129 net.cpp:399] lstm1_ -> c_0
I0924 03:35:14.760476 32129 net.cpp:399] lstm1_ -> h_0
I0924 03:35:14.760530 32129 net.cpp:141] Setting up lstm1_
I0924 03:35:14.760540 32129 net.cpp:148] Top shape: 1 1 1000 (1000)
I0924 03:35:14.760545 32129 net.cpp:148] Top shape: 1 1 1000 (1000)
I0924 03:35:14.760552 32129 net.cpp:156] Memory required for data: 10004
I0924 03:35:14.760561 32129 layer_factory.hpp:77] Creating layer lstm1_cont_slice
I0924 03:35:14.760577 32129 net.cpp:91] Creating Layer lstm1_cont_slice
I0924 03:35:14.760583 32129 net.cpp:425] lstm1_cont_slice <- cont
I0924 03:35:14.760592 32129 net.cpp:399] lstm1_cont_slice -> cont_1
I0924 03:35:14.760707 32129 net.cpp:141] Setting up lstm1_cont_slice
I0924 03:35:14.760718 32129 net.cpp:148] Top shape: 1 1 (1)
I0924 03:35:14.760722 32129 net.cpp:156] Memory required for data: 10008
I0924 03:35:14.760727 32129 layer_factory.hpp:77] Creating layer cont_1_lstm1_cont_slice_0_split
I0924 03:35:14.760735 32129 net.cpp:91] Creating Layer cont_1_lstm1_cont_slice_0_split
I0924 03:35:14.760740 32129 net.cpp:425] cont_1_lstm1_cont_slice_0_split <- cont_1
I0924 03:35:14.760747 32129 net.cpp:399] cont_1_lstm1_cont_slice_0_split -> cont_1_lstm1_cont_slice_0_split_0
I0924 03:35:14.760756 32129 net.cpp:399] cont_1_lstm1_cont_slice_0_split -> cont_1_lstm1_cont_slice_0_split_1
I0924 03:35:14.762575 32129 net.cpp:141] Setting up cont_1_lstm1_cont_slice_0_split
I0924 03:35:14.762601 32129 net.cpp:148] Top shape: 1 1 (1)
I0924 03:35:14.762609 32129 net.cpp:148] Top shape: 1 1 (1)
I0924 03:35:14.762614 32129 net.cpp:156] Memory required for data: 10016
I0924 03:35:14.762619 32129 layer_factory.hpp:77] Creating layer lstm1_x_transform
I0924 03:35:14.762634 32129 net.cpp:91] Creating Layer lstm1_x_transform
I0924 03:35:14.762639 32129 net.cpp:425] lstm1_x_transform <- x
I0924 03:35:14.762650 32129 net.cpp:399] lstm1_x_transform -> W_xc_x
I0924 03:35:14.768841 32157 net.cpp:141] Setting up lstm1_x_transform
I0924 03:35:14.768880 32157 net.cpp:148] Top shape: 1 1 4000 (4000)
I0924 03:35:14.768887 32157 net.cpp:156] Memory required for data: 26016
I0924 03:35:14.768904 32157 layer_factory.hpp:77] Creating layer lstm1_W_xc_x_slice
I0924 03:35:14.768905 32167 net.cpp:141] Setting up lstm1_x_transform
I0924 03:35:14.768920 32157 net.cpp:91] Creating Layer lstm1_W_xc_x_slice
I0924 03:35:14.768920 32167 net.cpp:148] Top shape: 1 1 4000 (4000)
I0924 03:35:14.768931 32157 net.cpp:425] lstm1_W_xc_x_slice <- W_xc_x
I0924 03:35:14.768935 32167 net.cpp:156] Memory required for data: 26016
I0924 03:35:14.768940 32157 net.cpp:399] lstm1_W_xc_x_slice -> W_xc_x_1
I0924 03:35:14.768949 32167 layer_factory.hpp:77] Creating layer lstm1_W_xc_x_slice
I0924 03:35:14.768960 32167 net.cpp:91] Creating Layer lstm1_W_xc_x_slice
I0924 03:35:14.768966 32167 net.cpp:425] lstm1_W_xc_x_slice <- W_xc_x
I0924 03:35:14.768975 32167 net.cpp:399] lstm1_W_xc_x_slice -> W_xc_x_1
I0924 03:35:14.772586 32157 net.cpp:141] Setting up lstm1_W_xc_x_slice
I0924 03:35:14.772599 32157 net.cpp:148] Top shape: 1 1 4000 (4000)
I0924 03:35:14.772604 32157 net.cpp:156] Memory required for data: 42016
I0924 03:35:14.772609 32157 layer_factory.hpp:77] Creating layer lstm1_h_conted_0
I0924 03:35:14.772630 32157 net.cpp:91] Creating Layer lstm1_h_conted_0
I0924 03:35:14.772636 32157 net.cpp:425] lstm1_h_conted_0 <- h_0
I0924 03:35:14.772644 32157 net.cpp:425] lstm1_h_conted_0 <- cont_1_lstm1_cont_slice_0_split_0
I0924 03:35:14.772650 32167 net.cpp:141] Setting up lstm1_W_xc_x_slice
I0924 03:35:14.777626 32125 net.cpp:141] Setting up lstm1_x_transform
I0924 03:35:14.777770 32141 net.cpp:141] Setting up embedding
I0924 03:35:17.282737 32157 net.cpp:399] lstm1_h_conted_0 -> h_conted_0
I0924 03:35:17.282754 32167 net.cpp:148] Top shape: 1 1 4000 (4000)
I0924 03:35:17.282765 32125 net.cpp:148] Top shape: 1 1 4000 (4000)
I0924 03:35:14.863183 32123 net.cpp:141] Setting up embedding
I0924 03:35:14.914609 32137 net.cpp:141] Setting up embedding
I0924 03:35:14.784270 32129 net.cpp:141] Setting up lstm1_x_transform
I0924 03:35:17.282791 32125 net.cpp:156] Memory required for data: 26016
I0924 03:35:14.845145 32119 net.cpp:141] Setting up embedding
I0924 03:35:17.282825 32137 net.cpp:148] Top shape: 1 1 500 (500)
I0924 03:35:17.282781 32167 net.cpp:156] Memory required for data: 42016
I0924 03:35:17.282832 32129 net.cpp:148] Top shape: 1 1 4000 (4000)
I0924 03:35:17.282838 32137 net.cpp:156] Memory required for data: 22408
I0924 03:35:17.282817 32123 net.cpp:148] Top shape: 1 1 500 (500)
I0924 03:35:17.282847 32129 net.cpp:156] Memory required for data: 26016
I0924 03:35:17.282850 32167 layer_factory.hpp:77] Creating layer lstm1_h_conted_0
I0924 03:35:17.282863 32137 layer_factory.hpp:77] Creating layer lstm1
I0924 03:35:17.282863 32119 net.cpp:148] Top shape: 1 1 500 (500)
I0924 03:35:17.282855 32125 layer_factory.hpp:77] Creating layer lstm1_W_xc_x_slice
I0924 03:35:17.282856 32123 net.cpp:156] Memory required for data: 22408
I0924 03:35:17.282877 32119 net.cpp:156] Memory required for data: 22408
I0924 03:35:17.282791 32141 net.cpp:148] Top shape: 1 1 500 (500)
I0924 03:35:17.282873 32129 layer_factory.hpp:77] Creating layer lstm1_W_xc_x_slice
I0924 03:35:17.282893 32141 net.cpp:156] Memory required for data: 22408
I0924 03:35:17.282898 32119 layer_factory.hpp:77] Creating layer lstm1
I0924 03:35:17.282903 32123 layer_factory.hpp:77] Creating layer lstm1
I0924 03:35:17.282891 32125 net.cpp:91] Creating Layer lstm1_W_xc_x_slice
I0924 03:35:17.282888 32137 net.cpp:91] Creating Layer lstm1
…
I0924 03:35:17.283053 32119 recurrent_layer.cpp:20] Initializing recurrent layer: assuming input batch contains 1 timesteps of 1 independent streams.
I0924 03:35:17.283047 32123 recurrent_layer.cpp:20] Initializing recurrent layer: assuming input batch contains 1 timesteps of 1 independent streams.
I0924 03:35:17.283067 32141 net.cpp:425] lstm1 <- embedded_input_frames
I0924 03:35:17.283080 32141 net.cpp:425] lstm1 <- cont_sentence_input_1_split_0
I0924 03:35:17.283103 32141 net.cpp:399] lstm1 -> lstm1
I0924 03:35:17.283102 32125 net.cpp:141] Setting up lstm1_W_xc_x_slice
I0924 03:35:17.283126 32125 net.cpp:148] Top shape: 1 1 4000 (4000)
I0924 03:35:17.283133 32129 net.cpp:141] Setting up lstm1_W_xc_x_slice
I0924 03:35:17.283138 32125 net.cpp:156] Memory required for data: 42016
I0924 03:35:17.283161 32129 net.cpp:148] Top shape: 1 1 4000 (4000)
I0924 03:35:17.283169 32129 net.cpp:156] Memory required for data: 42016
I0924 03:35:17.283169 32125 layer_factory.hpp:77] Creating layer lstm1_h_conted_0
I0924 03:35:17.283174 32129 layer_factory.hpp:77] Creating layer lstm1_h_conted_0
I0924 03:35:17.283187 32129 net.cpp:91] Creating Layer lstm1_h_conted_0
I0924 03:35:17.283121 32141 recurrent_layer.cpp:20] Initializing recurrent layer: assuming input batch contains 1 timesteps of 1 independent streams.
I0924 03:35:17.283193 32129 net.cpp:425] lstm1_h_conted_0 <- h_0
I0924 03:35:17.283201 32129 net.cpp:425] lstm1_h_conted_0 <- cont_1_lstm1_cont_slice_0_split_0
I0924 03:35:17.283190 32125 net.cpp:91] Creating Layer lstm1_h_conted_0
I0924 03:35:17.283212 32129 net.cpp:399] lstm1_h_conted_0 -> h_conted_0
I0924 03:35:17.283221 32125 net.cpp:425] lstm1_h_conted_0 <- h_0
I0924 03:35:17.283236 32125 net.cpp:425] lstm1_h_conted_0 <- cont_1_lstm1_cont_slice_0_split_0
I0924 03:35:17.283252 32125 net.cpp:399] lstm1_h_conted_0 -> h_conted_0
I0924 03:35:17.283258 32157 net.cpp:141] Setting up lstm1_h_conted_0
I0924 03:35:17.283280 32157 net.cpp:148] Top shape: 1 1 1000 (1000)
I0924 03:35:17.283290 32157 net.cpp:156] Memory required for data: 46016
I0924 03:35:17.283300 32157 layer_factory.hpp:77] Creating layer lstm1_transform_1
I0924 03:35:17.283325 32157 net.cpp:91] Creating Layer lstm1_transform_1
I0924 03:35:17.283339 32157 net.cpp:425] lstm1_transform_1 <- h_conted_0
I0924 03:35:17.283355 32157 net.cpp:399] lstm1_transform_1 -> W_hc_h_0
I0924 03:35:17.283421 32167 net.cpp:141] Setting up lstm1_h_conted_0
I0924 03:35:17.283442 32167 net.cpp:148] Top shape: 1 1 1000 (1000)
I0924 03:35:17.283452 32167 net.cpp:156] Memory required for data: 46016
I0924 03:35:17.283462 32167 layer_factory.hpp:77] Creating layer lstm1_transform_1
I0924 03:35:17.283468 32119 net.cpp:49] Initializing net from parameters: 
layer {
  name: "lstm1_"
  type: "Input"
  top: "x"
  top: "cont"
  input_param {
    shape {
      dim: 1
      dim: 1
      dim: 500
    }
    shape {
      dim: 1
      dim: 1
    }
  }
}
layer {
  name: "lstm1_"
  type: "Input"
  top: "c_0"
  top: "h_0"
  input_param {
    shape {
      dim: 1
      dim: 1
      dim: 1000
    }
    shape {
      dim: 1
      dim: 1
      dim: 1000
    }
  }
}
layer {
  name: "lstm1_cont_slice"
  type: "Slice"
  bottom: "cont"
  top: "cont_1"
  slice_param {
    axis: 0
  }
}
layer {
  name: "lstm1_x_transform"
  type: "InnerProduct"
  bottom: "x"
  top: "W_xc_x"
  param {
    name: "W_xc"
  }
  param {
    name: "b_c"
  }
  propagate_down: true
  inner_product_param {
    num_output: 4000
    bias_term: true
    weight_filler {
      type: "uniform"
      min: -0.08
      max: 0.08
    }
    bias_filler {
      type: "constant"
      value: 0
    }
    axis: 2
  }
}
layer {
  name: "lstm1_W_xc_x_slice"
  type: "Slice"
  bottom: "W_xc_x"
  top: "W_xc_x_1"
  slice_param {
    axis: 0
  }
}
layer {
  name: "lstm1_h_conted_0"
  type: "Scale"
  bottom: "h_0"
  bottom: "cont_1"
  top: "h_conted_0"
  scale_param {
    axis: 0
  }
}
layer {
  name: "lstm1_transform_1"
  type: "InnerProduct"
  bottom: "h_conted_0"
  top: "W_hc_h_0"
  param {
    name: "W_hc"
  }
  inner_product_param {
    num_output: 4000
    bias_term: false
    weight_filler {
      type: "uniform"
      min: -0.08
      max: 0.08
    }
    axis: 2
  }
}
layer {
  name: "lstm1_gate_input_1"
  type: "Eltwise"
  bottom: "W_hc_h_0"
  bottom: "W_xc_x_1"
  top: "gate_input_1"
  eltwise_param {
    operation: SUM
  }
}
layer {
  name: "lstm1_unit_1"
  type: "LSTMUnit"
  bottom: "c_0"
  bottom: "gate_input_1"
  bottom: "cont_1"
  top: "c_1"
  top: "h_1"
}
layer {
  name: "lstm1_"
  type: "Split"
  bottom: "c_1"
  top: "c_T"
}
layer {
  name: "lstm1_h_concat"
  type: "Concat"
  bottom: "h_1"
  top: "h"
  concat_param {
    axis: 0
  }
}
layer {
  name: "h_pseudoloss"
  type: "Reduction"
  bottom: "h"
  top: "h_pseudoloss"
  loss_weight: 1
}
I0924 03:35:17.283473 32137 net.cpp:49] Initializing net from parameters: 
layer {
  name: "lstm1_"
  type: "Input"
  top: "x"
  top: "cont"
  input_param {
    shape {
      dim: 1
      dim: 1
      dim: 500
    }
    shape {
      dim: 1
      dim: 1
    }
  }
}
layer {
  name: "lstm1_"
  type: "Input"
  top: "c_0"
  top: "h_0"
  input_param {
    shape {
      dim: 1
      dim: 1
      dim: 1000
    }
    shape {
      dim: 1
      dim: 1
      dim: 1000
    }
  }
}
layer {
  name: "lstm1_cont_slice"
  type: "Slice"
  bottom: "cont"
  top: "cont_1"
  slice_param {
    axis: 0
  }
}
layer {
  name: "lstm1_x_transform"
  type: "InnerProduct"
  bottom: "x"
  top: "W_xc_x"
  param {
    name: "W_xc"
  }
  param {
    name: "b_c"
  }
  propagate_down: true
  inner_product_param {
    num_output: 4000
    bias_term: true
    weight_filler {
      type: "uniform"
      min: -0.08
      max: 0.08
    }
    bias_filler {
      type: "constant"
      value: 0
    }
    axis: 2
  }
}
layer {
  name: "lstm1_W_xc_x_slice"
  type: "Slice"
  bottom: "W_xc_x"
  top: "W_xc_x_1"
  slice_param {
    axis: 0
  }
}
layer {
  name: "lstm1_h_conted_0"
  type: "Scale"
  bottom: "h_0"
  bottom: "cont_1"
  top: "h_conted_0"
  scale_param {
    axis: 0
  }
}
layer {
  name: "lstm1_transform_1"
  type: "InnerProduct"
  bottom: "h_conted_0"
  top: "W_hc_h_0"
  param {
    name: "W_hc"
  }
  inner_product_param {
    num_output: 4000
    bias_term: false
    weight_filler {
      type: "uniform"
      min: -0.08
      max: 0.08
    }
    axis: 2
  }
}
layer {
  name: "lstm1_gate_input_1"
  type: "Eltwise"
  bottom: "W_hc_h_0"
  bottom: "W_xc_x_1"
  top: "gate_input_1"
  eltwise_param {
    operation: SUM
  }
}
layer {
  name: "lstm1_unit_1"
  type: "LSTMUnit"
  bottom: "c_0"
  bottom: "gate_input_1"
  bottom: "cont_1"
  top: "c_1"
  top: "h_1"
}
layer {
  name: "lstm1_"
  type: "Split"
  bottom: "c_1"
  top: "c_T"
}
layer {
  name: "lstm1_h_concat"
  type: "Concat"
  bottom: "h_1"
  top: "h"
  concat_param {
    axis: 0
  }
}
layer {
  name: "h_pseudoloss"
  type: "Reduction"
  bottom: "h"
  top: "h_pseudoloss"
  loss_weight: 1
}
I0924 03:35:17.283483 32167 net.cpp:91] Creating Layer lstm1_transform_1
I0924 03:35:17.328292 32167 net.cpp:425] lstm1_transform_1 <- h_conted_0
I0924 03:35:17.328397 32167 net.cpp:399] lstm1_transform_1 -> W_hc_h_0
I0924 03:35:17.328475 32137 layer_factory.hpp:77] Creating layer lstm1_
I0924 03:35:17.328521 32137 net.cpp:91] Creating Layer lstm1_
I0924 03:35:17.328542 32137 net.cpp:399] lstm1_ -> x
I0924 03:35:17.295583 32125 net.cpp:141] Setting up lstm1_h_conted_0
I0924 03:35:17.328479 32119 layer_factory.hpp:77] Creating layer lstm1_
I0924 03:35:17.328573 32137 net.cpp:399] lstm1_ -> cont
I0924 03:35:17.328593 32119 net.cpp:91] Creating Layer lstm1_
I0924 03:35:17.328595 32125 net.cpp:148] Top shape: 1 1 1000 (1000)
I0924 03:35:17.328608 32119 net.cpp:399] lstm1_ -> x
I0924 03:35:17.328613 32125 net.cpp:156] Memory required for data: 46016
I0924 03:35:17.283586 32129 net.cpp:141] Setting up lstm1_h_conted_0
I0924 03:35:17.328627 32125 layer_factory.hpp:77] Creating layer lstm1_transform_1
I0924 03:35:17.328627 32119 net.cpp:399] lstm1_ -> cont
I0924 03:35:17.328651 32129 net.cpp:148] Top shape: 1 1 1000 (1000)
I0924 03:35:17.328661 32125 net.cpp:91] Creating Layer lstm1_transform_1
I0924 03:35:17.328663 32129 net.cpp:156] Memory required for data: 46016
I0924 03:35:17.328687 32125 net.cpp:425] lstm1_transform_1 <- h_conted_0
I0924 03:35:17.328696 32129 layer_factory.hpp:77] Creating layer lstm1_transform_1
I0924 03:35:17.328708 32125 net.cpp:399] lstm1_transform_1 -> W_hc_h_0
I0924 03:35:17.328719 32129 net.cpp:91] Creating Layer lstm1_transform_1
I0924 03:35:17.328735 32129 net.cpp:425] lstm1_transform_1 <- h_conted_0
I0924 03:35:17.328758 32129 net.cpp:399] lstm1_transform_1 -> W_hc_h_0
I0924 03:35:14.923074 32159 net.cpp:141] Setting up conv1
I0924 03:35:17.329629 32159 net.cpp:148] Top shape: 10 96 55 55 (2904000)
I0924 03:35:17.329650 32159 net.cpp:156] Memory required for data: 17799480
I0924 03:35:17.329681 32159 layer_factory.hpp:77] Creating layer relu1
I0924 03:35:17.283540 32141 net.cpp:49] Initializing net from parameters: 
layer {
  name: "lstm1_"
  type: "Input"
  top: "x"
  top: "cont"
  input_param {
    shape {
      dim: 1
      dim: 1
      dim: 500
    }
    shape {
      dim: 1
      dim: 1
    }
  }
}
layer {
  name: "lstm1_"
  type: "Input"
  top: "c_0"
  top: "h_0"
  input_param {
    shape {
      dim: 1
      dim: 1
      dim: 1000
    }
    shape {
      dim: 1
      dim: 1
      dim: 1000
    }
  }
}
layer {
  name: "lstm1_cont_slice"
  type: "Slice"
  bottom: "cont"
  top: "cont_1"
  slice_param {
    axis: 0
  }
}
layer {
  name: "lstm1_x_transform"
  type: "InnerProduct"
  bottom: "x"
  top: "W_xc_x"
  param {
    name: "W_xc"
  }
  param {
    name: "b_c"
  }
  propagate_down: true
  inner_product_param {
    num_output: 4000
    bias_term: true
    weight_filler {
      type: "uniform"
      min: -0.08
      max: 0.08
    }
    bias_filler {
      type: "constant"
      value: 0
    }
    axis: 2
  }
}
layer {
  name: "lstm1_W_xc_x_slice"
  type: "Slice"
  bottom: "W_xc_x"
  top: "W_xc_x_1"
  slice_param {
    axis: 0
  }
}
layer {
  name: "lstm1_h_conted_0"
  type: "Scale"
  bottom: "h_0"
  bottom: "cont_1"
  top: "h_conted_0"
  scale_param {
    axis: 0
  }
}
layer {
  name: "lstm1_transform_1"
  type: "InnerProduct"
  bottom: "h_conted_0"
  top: "W_hc_h_0"
  param {
    name: "W_hc"
  }
  inner_product_param {
    num_output: 4000
    bias_term: false
    weight_filler {
      type: "uniform"
      min: -0.08
      max: 0.08
    }
    axis: 2
  }
}
layer {
  name: "lstm1_gate_input_1"
  type: "Eltwise"
  bottom: "W_hc_h_0"
  bottom: "W_xc_x_1"
  top: "gate_input_1"
  eltwise_param {
    operation: SUM
  }
}
layer {
  name: "lstm1_unit_1"
  type: "LSTMUnit"
  bottom: "c_0"
  bottom: "gate_input_1"
  bottom: "cont_1"
  top: "c_1"
  top: "h_1"
}
layer {
  name: "lstm1_"
  type: "Split"
  bottom: "c_1"
  top: "c_T"
}
layer {
  name: "lstm1_h_concat"
  type: "Concat"
  bottom: "h_1"
  top: "h"
  concat_param {
    axis: 0
  }
}
layer {
  name: "h_pseudoloss"
  type: "Reduction"
  bottom: "h"
  top: "h_pseudoloss"
  loss_weight: 1
}
I0924 03:35:17.360955 32159 net.cpp:91] Creating Layer relu1
I0924 03:35:17.350486 32119 net.cpp:141] Setting up lstm1_
I0924 03:35:17.360996 32159 net.cpp:425] relu1 <- conv1
I0924 03:35:17.361016 32159 net.cpp:386] relu1 -> conv1 (in-place)
I0924 03:35:17.361018 32119 net.cpp:148] Top shape: 1 1 500 (500)
I0924 03:35:17.361033 32119 net.cpp:148] Top shape: 1 1 (1)
I0924 03:35:17.361043 32119 net.cpp:156] Memory required for data: 2004
I0924 03:35:17.361054 32119 layer_factory.hpp:77] Creating layer lstm1_
I0924 03:35:17.361075 32119 net.cpp:91] Creating Layer lstm1_
I0924 03:35:17.361099 32119 net.cpp:399] lstm1_ -> c_0
I0924 03:35:17.361124 32119 net.cpp:399] lstm1_ -> h_0
I0924 03:35:17.361136 32141 layer_factory.hpp:77] Creating layer lstm1_
I0924 03:35:17.361163 32141 net.cpp:91] Creating Layer lstm1_
I0924 03:35:17.361177 32141 net.cpp:399] lstm1_ -> x
I0924 03:35:17.361201 32141 net.cpp:399] lstm1_ -> cont
I0924 03:35:17.294394 32123 net.cpp:49] Initializing net from parameters: 
layer {
  name: "lstm1_"
  type: "Input"
  top: "x"
  top: "cont"
  input_param {
    shape {
      dim: 1
      dim: 1
      dim: 500
    }
    shape {
      dim: 1
      dim: 1
    }
  }
}
layer {
  name: "lstm1_"
  type: "Input"
  top: "c_0"
  top: "h_0"
  input_param {
    shape {
      dim: 1
      dim: 1
      dim: 1000
    }
    shape {
      dim: 1
      dim: 1
      dim: 1000
    }
  }
}
layer {
  name: "lstm1_cont_slice"
  type: "Slice"
  bottom: "cont"
  top: "cont_1"
  slice_param {
    axis: 0
  }
}
layer {
  name: "lstm1_x_transform"
  type: "InnerProduct"
  bottom: "x"
  top: "W_xc_x"
  param {
    name: "W_xc"
  }
  param {
    name: "b_c"
  }
  propagate_down: true
  inner_product_param {
    num_output: 4000
    bias_term: true
    weight_filler {
      type: "uniform"
      min: -0.08
      max: 0.08
    }
    bias_filler {
      type: "constant"
      value: 0
    }
    axis: 2
  }
}
layer {
  name: "lstm1_W_xc_x_slice"
  type: "Slice"
  bottom: "W_xc_x"
  top: "W_xc_x_1"
  slice_param {
    axis: 0
  }
}
layer {
  name: "lstm1_h_conted_0"
  type: "Scale"
  bottom: "h_0"
  bottom: "cont_1"
  top: "h_conted_0"
  scale_param {
    axis: 0
  }
}
layer {
  name: "lstm1_transform_1"
  type: "InnerProduct"
  bottom: "h_conted_0"
  top: "W_hc_h_0"
  param {
    name: "W_hc"
  }
  inner_product_param {
    num_output: 4000
    bias_term: false
    weight_filler {
      type: "uniform"
      min: -0.08
      max: 0.08
    }
    axis: 2
  }
}
layer {
  name: "lstm1_gate_input_1"
  type: "Eltwise"
  bottom: "W_hc_h_0"
  bottom: "W_xc_x_1"
  top: "gate_input_1"
  eltwise_param {
    operation: SUM
  }
}
layer {
  name: "lstm1_unit_1"
  type: "LSTMUnit"
  bottom: "c_0"
  bottom: "gate_input_1"
  bottom: "cont_1"
  top: "c_1"
  top: "h_1"
}
layer {
  name: "lstm1_"
  type: "Split"
  bottom: "c_1"
  top: "c_T"
}
layer {
  name: "lstm1_h_concat"
  type: "Concat"
  bottom: "h_1"
  top: "h"
  concat_param {
    axis: 0
  }
}
layer {
  name: "h_pseudoloss"
  type: "Reduction"
  bottom: "h"
  top: "h_pseudoloss"
  loss_weight: 1
}
I0924 03:35:17.361785 32123 layer_factory.hpp:77] Creating layer lstm1_
I0924 03:35:17.361810 32123 net.cpp:91] Creating Layer lstm1_
I0924 03:35:17.361827 32123 net.cpp:399] lstm1_ -> x
I0924 03:35:17.361852 32123 net.cpp:399] lstm1_ -> cont
I0924 03:35:17.362962 32137 net.cpp:141] Setting up lstm1_
I0924 03:35:17.362998 32137 net.cpp:148] Top shape: 1 1 500 (500)
I0924 03:35:17.363011 32137 net.cpp:148] Top shape: 1 1 (1)
I0924 03:35:17.363020 32137 net.cpp:156] Memory required for data: 2004
I0924 03:35:17.363032 32137 layer_factory.hpp:77] Creating layer lstm1_
I0924 03:35:17.363066 32137 net.cpp:91] Creating Layer lstm1_
I0924 03:35:17.363081 32137 net.cpp:399] lstm1_ -> c_0
I0924 03:35:17.363106 32137 net.cpp:399] lstm1_ -> h_0
I0924 03:35:17.363204 32137 net.cpp:141] Setting up lstm1_
I0924 03:35:17.363220 32137 net.cpp:148] Top shape: 1 1 1000 (1000)
I0924 03:35:17.363232 32137 net.cpp:148] Top shape: 1 1 1000 (1000)
I0924 03:35:17.363240 32137 net.cpp:156] Memory required for data: 10004
I0924 03:35:17.363247 32137 layer_factory.hpp:77] Creating layer lstm1_cont_slice
I0924 03:35:17.363265 32137 net.cpp:91] Creating Layer lstm1_cont_slice
I0924 03:35:17.363276 32137 net.cpp:425] lstm1_cont_slice <- cont
I0924 03:35:17.363296 32137 net.cpp:399] lstm1_cont_slice -> cont_1
I0924 03:35:17.363363 32137 net.cpp:141] Setting up lstm1_cont_slice
I0924 03:35:17.363380 32137 net.cpp:148] Top shape: 1 1 (1)
I0924 03:35:17.363389 32137 net.cpp:156] Memory required for data: 10008
I0924 03:35:17.363397 32137 layer_factory.hpp:77] Creating layer cont_1_lstm1_cont_slice_0_split
I0924 03:35:17.363411 32137 net.cpp:91] Creating Layer cont_1_lstm1_cont_slice_0_split
I0924 03:35:17.363420 32137 net.cpp:425] cont_1_lstm1_cont_slice_0_split <- cont_1
I0924 03:35:17.363432 32137 net.cpp:399] cont_1_lstm1_cont_slice_0_split -> cont_1_lstm1_cont_slice_0_split_0
I0924 03:35:17.363446 32137 net.cpp:399] cont_1_lstm1_cont_slice_0_split -> cont_1_lstm1_cont_slice_0_split_1
I0924 03:35:17.365692 32157 net.cpp:141] Setting up lstm1_transform_1
I0924 03:35:17.367051 32141 net.cpp:141] Setting up lstm1_
I0924 03:35:17.367202 32123 net.cpp:141] Setting up lstm1_
I0924 03:35:17.376688 32157 net.cpp:148] Top shape: 1 1 4000 (4000)
I0924 03:35:17.376714 32157 net.cpp:156] Memory required for data: 62016
I0924 03:35:17.376698 32123 net.cpp:148] Top shape: 1 1 500 (500)
I0924 03:35:17.376698 32141 net.cpp:148] Top shape: 1 1 500 (500)
I0924 03:35:17.376742 32123 net.cpp:148] Top shape: 1 1 (1)
I0924 03:35:17.376745 32157 layer_factory.hpp:77] Creating layer lstm1_gate_input_1
I0924 03:35:17.376744 32141 net.cpp:148] Top shape: 1 1 (1)
I0924 03:35:17.376760 32123 net.cpp:156] Memory required for data: 2004
I0924 03:35:17.376763 32141 net.cpp:156] Memory required for data: 2004
I0924 03:35:17.376773 32141 layer_factory.hpp:77] Creating layer lstm1_
I0924 03:35:17.376773 32123 layer_factory.hpp:77] Creating layer lstm1_
I0924 03:35:17.376813 32141 net.cpp:91] Creating Layer lstm1_
I0924 03:35:17.387214 32119 net.cpp:141] Setting up lstm1_
I0924 03:35:17.387284 32119 net.cpp:148] Top shape: 1 1 1000 (1000)
I0924 03:35:17.387292 32119 net.cpp:148] Top shape: 1 1 1000 (1000)
I0924 03:35:17.387296 32119 net.cpp:156] Memory required for data: 10004
I0924 03:35:17.387307 32119 layer_factory.hpp:77] Creating layer lstm1_cont_slice
I0924 03:35:17.387332 32119 net.cpp:91] Creating Layer lstm1_cont_slice
I0924 03:35:17.387341 32119 net.cpp:425] lstm1_cont_slice <- cont
I0924 03:35:17.387431 32157 net.cpp:91] Creating Layer lstm1_gate_input_1
I0924 03:35:17.387509 32157 net.cpp:425] lstm1_gate_input_1 <- W_hc_h_0
I0924 03:35:17.387552 32157 net.cpp:425] lstm1_gate_input_1 <- W_xc_x_1
I0924 03:35:17.387572 32157 net.cpp:399] lstm1_gate_input_1 -> gate_input_1
I0924 03:35:17.396250 32141 net.cpp:399] lstm1_ -> c_0
I0924 03:35:17.396281 32159 net.cpp:141] Setting up relu1
I0924 03:35:17.396333 32159 net.cpp:148] Top shape: 10 96 55 55 (2904000)
I0924 03:35:17.396347 32159 net.cpp:156] Memory required for data: 29415480
I0924 03:35:17.396350 32141 net.cpp:399] lstm1_ -> h_0
I0924 03:35:17.396394 32159 layer_factory.hpp:77] Creating layer pool1
I0924 03:35:17.396445 32157 net.cpp:141] Setting up lstm1_gate_input_1
I0924 03:35:17.396466 32119 net.cpp:399] lstm1_cont_slice -> cont_1
I0924 03:35:17.396488 32157 net.cpp:148] Top shape: 1 1 4000 (4000)
I0924 03:35:17.396494 32157 net.cpp:156] Memory required for data: 78016
I0924 03:35:17.396503 32157 layer_factory.hpp:77] Creating layer lstm1_unit_1
I0924 03:35:17.396981 32123 net.cpp:91] Creating Layer lstm1_
I0924 03:35:17.397045 32159 net.cpp:91] Creating Layer pool1
I0924 03:35:17.397065 32159 net.cpp:425] pool1 <- conv1
I0924 03:35:17.397084 32159 net.cpp:399] pool1 -> pool1
I0924 03:35:17.397090 32157 net.cpp:91] Creating Layer lstm1_unit_1
I0924 03:35:17.397116 32157 net.cpp:425] lstm1_unit_1 <- c_0
I0924 03:35:17.397135 32157 net.cpp:425] lstm1_unit_1 <- gate_input_1
I0924 03:35:17.397137 32119 net.cpp:141] Setting up lstm1_cont_slice
I0924 03:35:17.397146 32157 net.cpp:425] lstm1_unit_1 <- cont_1_lstm1_cont_slice_0_split_1
I0924 03:35:17.397153 32119 net.cpp:148] Top shape: 1 1 (1)
I0924 03:35:17.397158 32119 net.cpp:156] Memory required for data: 10008
I0924 03:35:17.397166 32119 layer_factory.hpp:77] Creating layer cont_1_lstm1_cont_slice_0_split
I0924 03:35:17.397163 32157 net.cpp:399] lstm1_unit_1 -> c_1
I0924 03:35:17.397191 32157 net.cpp:399] lstm1_unit_1 -> h_1
I0924 03:35:17.402371 32123 net.cpp:399] lstm1_ -> c_0
I0924 03:35:17.402395 32141 net.cpp:141] Setting up lstm1_
I0924 03:35:17.402374 32137 net.cpp:141] Setting up cont_1_lstm1_cont_slice_0_split
I0924 03:35:17.402420 32141 net.cpp:148] Top shape: 1 1 1000 (1000)
I0924 03:35:17.402423 32137 net.cpp:148] Top shape: 1 1 (1)
I0924 03:35:17.402427 32123 net.cpp:399] lstm1_ -> h_0
I0924 03:35:17.402425 32119 net.cpp:91] Creating Layer cont_1_lstm1_cont_slice_0_split
I0924 03:35:17.402433 32141 net.cpp:148] Top shape: 1 1 1000 (1000)
I0924 03:35:17.402436 32137 net.cpp:148] Top shape: 1 1 (1)
I0924 03:35:17.402463 32119 net.cpp:425] cont_1_lstm1_cont_slice_0_split <- cont_1
I0924 03:35:17.402469 32141 net.cpp:156] Memory required for data: 10004
I0924 03:35:17.402474 32137 net.cpp:156] Memory required for data: 10016
I0924 03:35:17.402483 32137 layer_factory.hpp:77] Creating layer lstm1_x_transform
I0924 03:35:17.402488 32119 net.cpp:399] cont_1_lstm1_cont_slice_0_split -> cont_1_lstm1_cont_slice_0_split_0
I0924 03:35:17.402483 32141 layer_factory.hpp:77] Creating layer lstm1_cont_slice
I0924 03:35:17.402513 32119 net.cpp:399] cont_1_lstm1_cont_slice_0_split -> cont_1_lstm1_cont_slice_0_split_1
I0924 03:35:17.402524 32141 net.cpp:91] Creating Layer lstm1_cont_slice
I0924 03:35:17.402536 32141 net.cpp:425] lstm1_cont_slice <- cont
I0924 03:35:17.406760 32141 net.cpp:399] lstm1_cont_slice -> cont_1
I0924 03:35:17.406769 32159 net.cpp:141] Setting up pool1
I0924 03:35:17.406798 32157 net.cpp:141] Setting up lstm1_unit_1
I0924 03:35:17.406815 32159 net.cpp:148] Top shape: 10 96 27 27 (699840)
I0924 03:35:17.406819 32157 net.cpp:148] Top shape: 1 1 1000 (1000)
I0924 03:35:17.406826 32159 net.cpp:156] Memory required for data: 32214840
I0924 03:35:17.406832 32167 net.cpp:141] Setting up lstm1_transform_1
I0924 03:35:17.406837 32159 layer_factory.hpp:77] Creating layer norm1
I0924 03:35:17.406842 32123 net.cpp:141] Setting up lstm1_
I0924 03:35:17.406837 32137 net.cpp:91] Creating Layer lstm1_x_transform
I0924 03:35:17.406868 32123 net.cpp:148] Top shape: 1 1 1000 (1000)
I0924 03:35:17.406854 32167 net.cpp:148] Top shape: 1 1 4000 (4000)
I0924 03:35:17.406879 32137 net.cpp:425] lstm1_x_transform <- x
I0924 03:35:17.406883 32167 net.cpp:156] Memory required for data: 62016
I0924 03:35:17.406896 32159 net.cpp:91] Creating Layer norm1
I0924 03:35:17.406883 32123 net.cpp:148] Top shape: 1 1 1000 (1000)
I0924 03:35:17.406913 32119 net.cpp:141] Setting up cont_1_lstm1_cont_slice_0_split
I0924 03:35:17.406927 32137 net.cpp:399] lstm1_x_transform -> W_xc_x
I0924 03:35:17.406915 32123 net.cpp:156] Memory required for data: 10004
I0924 03:35:17.406940 32119 net.cpp:148] Top shape: 1 1 (1)
I0924 03:35:17.406908 32167 layer_factory.hpp:77] Creating layer lstm1_gate_input_1
I0924 03:35:17.406949 32119 net.cpp:148] Top shape: 1 1 (1)
I0924 03:35:17.406908 32159 net.cpp:425] norm1 <- pool1
I0924 03:35:17.406955 32119 net.cpp:156] Memory required for data: 10016
I0924 03:35:17.406980 32157 net.cpp:148] Top shape: 1 1 1000 (1000)
I0924 03:35:17.406980 32167 net.cpp:91] Creating Layer lstm1_gate_input_1
I0924 03:35:17.407006 32157 net.cpp:156] Memory required for data: 86016
I0924 03:35:17.406985 32119 layer_factory.hpp:77] Creating layer lstm1_x_transform
I0924 03:35:17.407021 32157 layer_factory.hpp:77] Creating layer lstm1_
I0924 03:35:17.407021 32167 net.cpp:425] lstm1_gate_input_1 <- W_hc_h_0
I0924 03:35:17.406952 32123 layer_factory.hpp:77] Creating layer lstm1_cont_slice
I0924 03:35:17.407034 32157 net.cpp:91] Creating Layer lstm1_
I0924 03:35:17.407037 32129 net.cpp:141] Setting up lstm1_transform_1
I0924 03:35:17.407044 32119 net.cpp:91] Creating Layer lstm1_x_transform
I0924 03:35:17.407052 32119 net.cpp:425] lstm1_x_transform <- x
I0924 03:35:17.407035 32167 net.cpp:425] lstm1_gate_input_1 <- W_xc_x_1
I0924 03:35:17.407065 32119 net.cpp:399] lstm1_x_transform -> W_xc_x
I0924 03:35:17.407071 32167 net.cpp:399] lstm1_gate_input_1 -> gate_input_1
I0924 03:35:17.407059 32157 net.cpp:425] lstm1_ <- c_1
I0924 03:35:17.407058 32129 net.cpp:148] Top shape: 1 1 4000 (4000)
I0924 03:35:17.407102 32129 net.cpp:156] Memory required for data: 62016
I0924 03:35:17.407109 32159 net.cpp:399] norm1 -> norm1
I0924 03:35:17.407102 32157 net.cpp:399] lstm1_ -> c_T
I0924 03:35:17.407129 32129 layer_factory.hpp:77] Creating layer lstm1_gate_input_1
I0924 03:35:17.407155 32129 net.cpp:91] Creating Layer lstm1_gate_input_1
I0924 03:35:17.407166 32129 net.cpp:425] lstm1_gate_input_1 <- W_hc_h_0
I0924 03:35:17.407174 32129 net.cpp:425] lstm1_gate_input_1 <- W_xc_x_1
I0924 03:35:17.407188 32129 net.cpp:399] lstm1_gate_input_1 -> gate_input_1
I0924 03:35:17.407194 32123 net.cpp:91] Creating Layer lstm1_cont_slice
I0924 03:35:17.407101 32141 net.cpp:141] Setting up lstm1_cont_slice
I0924 03:35:17.407212 32123 net.cpp:425] lstm1_cont_slice <- cont
I0924 03:35:17.407234 32141 net.cpp:148] Top shape: 1 1 (1)
I0924 03:35:17.407238 32123 net.cpp:399] lstm1_cont_slice -> cont_1
I0924 03:35:17.407241 32141 net.cpp:156] Memory required for data: 10008
I0924 03:35:17.407248 32141 layer_factory.hpp:77] Creating layer cont_1_lstm1_cont_slice_0_split
I0924 03:35:17.407428 32141 net.cpp:91] Creating Layer cont_1_lstm1_cont_slice_0_split
I0924 03:35:17.407440 32141 net.cpp:425] cont_1_lstm1_cont_slice_0_split <- cont_1
I0924 03:35:17.407451 32141 net.cpp:399] cont_1_lstm1_cont_slice_0_split -> cont_1_lstm1_cont_slice_0_split_0
I0924 03:35:17.407462 32141 net.cpp:399] cont_1_lstm1_cont_slice_0_split -> cont_1_lstm1_cont_slice_0_split_1
I0924 03:35:17.412101 32167 net.cpp:141] Setting up lstm1_gate_input_1
I0924 03:35:17.412154 32167 net.cpp:148] Top shape: 1 1 4000 (4000)
I0924 03:35:17.412148 32157 net.cpp:141] Setting up lstm1_
I0924 03:35:17.412161 32167 net.cpp:156] Memory required for data: 78016
I0924 03:35:17.412171 32167 layer_factory.hpp:77] Creating layer lstm1_unit_1
I0924 03:35:17.412175 32157 net.cpp:148] Top shape: 1 1 1000 (1000)
I0924 03:35:17.412185 32157 net.cpp:156] Memory required for data: 90016
I0924 03:35:17.412199 32157 layer_factory.hpp:77] Creating layer lstm1_h_concat
I0924 03:35:17.412200 32167 net.cpp:91] Creating Layer lstm1_unit_1
I0924 03:35:17.412238 32157 net.cpp:91] Creating Layer lstm1_h_concat
I0924 03:35:17.412247 32167 net.cpp:425] lstm1_unit_1 <- c_0
I0924 03:35:17.412252 32157 net.cpp:425] lstm1_h_concat <- h_1
I0924 03:35:17.412288 32167 net.cpp:425] lstm1_unit_1 <- gate_input_1
I0924 03:35:17.412302 32167 net.cpp:425] lstm1_unit_1 <- cont_1_lstm1_cont_slice_0_split_1
I0924 03:35:17.412305 32157 net.cpp:399] lstm1_h_concat -> h
I0924 03:35:17.412317 32167 net.cpp:399] lstm1_unit_1 -> c_1
I0924 03:35:17.412336 32167 net.cpp:399] lstm1_unit_1 -> h_1
I0924 03:35:17.418619 32157 net.cpp:141] Setting up lstm1_h_concat
I0924 03:35:17.418683 32157 net.cpp:148] Top shape: 1 1 1000 (1000)
I0924 03:35:17.418692 32157 net.cpp:156] Memory required for data: 94016
I0924 03:35:17.418705 32157 layer_factory.hpp:77] Creating layer h_pseudoloss
I0924 03:35:17.418748 32157 net.cpp:91] Creating Layer h_pseudoloss
I0924 03:35:17.418761 32157 net.cpp:425] h_pseudoloss <- h
I0924 03:35:17.418781 32157 net.cpp:399] h_pseudoloss -> h_pseudoloss
I0924 03:35:17.418985 32157 net.cpp:141] Setting up h_pseudoloss
…
I0924 03:35:17.419189 32157 net.cpp:219] lstm1_ does not need backward computation.
I0924 03:35:17.419198 32157 net.cpp:261] This network produces output c_T
I0924 03:35:17.419205 32157 net.cpp:261] This network produces output h_pseudoloss
I0924 03:35:17.419237 32157 net.cpp:274] Network initialization done.
I0924 03:35:17.419337 32157 recurrent_layer.cpp:150] Adding parameter 0: W_xc
I0924 03:35:17.419349 32157 recurrent_layer.cpp:150] Adding parameter 1: b_c
I0924 03:35:17.419358 32157 recurrent_layer.cpp:150] Adding parameter 2: W_hc
I0924 03:35:17.419554 32157 net.cpp:141] Setting up lstm1
I0924 03:35:17.419574 32157 net.cpp:148] Top shape: 1 1 1000 (1000)
I0924 03:35:17.419581 32157 net.cpp:156] Memory required for data: 26408
I0924 03:35:17.419608 32157 layer_factory.hpp:77] Creating layer concat
I0924 03:35:17.419627 32157 net.cpp:91] Creating Layer concat
I0924 03:35:17.419638 32157 net.cpp:425] concat <- lstm1
I0924 03:35:17.419649 32157 net.cpp:425] concat <- embedded_input_sentence
I0924 03:35:17.419661 32157 net.cpp:425] concat <- reshaped_stage_indicator
I0924 03:35:17.419672 32157 net.cpp:399] concat -> lstm1_video_sequence
I0924 03:35:17.419746 32157 net.cpp:141] Setting up concat
I0924 03:35:17.419780 32157 net.cpp:148] Top shape: 1 1 1501 (1501)
I0924 03:35:17.419796 32157 net.cpp:156] Memory required for data: 32412
I0924 03:35:17.419814 32157 layer_factory.hpp:77] Creating layer lstm2
I0924 03:35:17.419852 32157 net.cpp:91] Creating Layer lstm2
I0924 03:35:17.419872 32157 net.cpp:425] lstm2 <- lstm1_video_sequence
I0924 03:35:17.419893 32157 net.cpp:425] lstm2 <- cont_sentence_input_1_split_1
I0924 03:35:17.419919 32157 net.cpp:399] lstm2 -> lstm2
I0924 03:35:17.419953 32157 recurrent_layer.cpp:20] Initializing recurrent layer: assuming input batch contains 1 timesteps of 1 independent streams.
I0924 03:35:17.420508 32157 net.cpp:49] Initializing net from parameters: 
layer {
  name: "lstm2_"
  type: "Input"
  top: "x"
  top: "cont"
  input_param {
    shape {
      dim: 1
      dim: 1
      dim: 1501
    }
    shape {
      dim: 1
      dim: 1
    }
  }
}
layer {
  name: "lstm2_"
  type: "Input"
  top: "c_0"
  top: "h_0"
  input_param {
    shape {
      dim: 1
      dim: 1
      dim: 1000
    }
    shape {
      dim: 1
      dim: 1
      dim: 1000
    }
  }
}
layer {
  name: "lstm2_cont_slice"
  type: "Slice"
  bottom: "cont"
  top: "cont_1"
  slice_param {
    axis: 0
  }
}
layer {
  name: "lstm2_x_transform"
  type: "InnerProduct"
  bottom: "x"
  top: "W_xc_x"
  param {
    name: "W_xc"
  }
  param {
    name: "b_c"
  }
  propagate_down: true
  inner_product_param {
    num_output: 4000
    bias_term: true
    weight_filler {
      type: "uniform"
      min: -0.08
      max: 0.08
    }
    bias_filler {
      type: "constant"
      value: 0
    }
    axis: 2
  }
}
layer {
  name: "lstm2_W_xc_x_slice"
  type: "Slice"
  bottom: "W_xc_x"
  top: "W_xc_x_1"
  slice_param {
    axis: 0
  }
}
layer {
  name: "lstm2_h_conted_0"
  type: "Scale"
  bottom: "h_0"
  bottom: "cont_1"
  top: "h_conted_0"
  scale_param {
    axis: 0
  }
}
layer {
  name: "lstm2_transform_1"
  type: "InnerProduct"
  bottom: "h_conted_0"
  top: "W_hc_h_0"
  param {
    name: "W_hc"
  }
  inner_product_param {
    num_output: 4000
    bias_term: false
    weight_filler {
      type: "uniform"
      min: -0.08
      max: 0.08
    }
    axis: 2
  }
}
layer {
  name: "lstm2_gate_input_1"
  type: "Eltwise"
  bottom: "W_hc_h_0"
  bottom: "W_xc_x_1"
  top: "gate_input_1"
  eltwise_param {
    operation: SUM
  }
}
layer {
  name: "lstm2_unit_1"
  type: "LSTMUnit"
  bottom: "c_0"
  bottom: "gate_input_1"
  bottom: "cont_1"
  top: "c_1"
  top: "h_1"
}
layer {
  name: "lstm2_"
  type: "Split"
  bottom: "c_1"
  top: "c_T"
}
layer {
  name: "lstm2_h_concat"
  type: "Concat"
  bottom: "h_1"
  top: "h"
  concat_param {
    axis: 0
  }
}
layer {
  name: "h_pseudoloss"
  type: "Reduction"
  bottom: "h"
  top: "h_pseudoloss"
  loss_weight: 1
}
I0924 03:35:17.420691 32157 layer_factory.hpp:77] Creating layer lstm2_
I0924 03:35:17.420719 32157 net.cpp:91] Creating Layer lstm2_
I0924 03:35:17.420740 32157 net.cpp:399] lstm2_ -> x
I0924 03:35:17.420768 32157 net.cpp:399] lstm2_ -> cont
I0924 03:35:17.420933 32157 net.cpp:141] Setting up lstm2_
I0924 03:35:17.420954 32157 net.cpp:148] Top shape: 1 1 1501 (1501)
I0924 03:35:17.420966 32157 net.cpp:148] Top shape: 1 1 (1)
I0924 03:35:17.420974 32157 net.cpp:156] Memory required for data: 6008
I0924 03:35:17.420984 32157 layer_factory.hpp:77] Creating layer lstm2_
I0924 03:35:17.421006 32157 net.cpp:91] Creating Layer lstm2_
I0924 03:35:17.421020 32157 net.cpp:399] lstm2_ -> c_0
I0924 03:35:17.421039 32157 net.cpp:399] lstm2_ -> h_0
I0924 03:35:17.421154 32157 net.cpp:141] Setting up lstm2_
I0924 03:35:17.421175 32157 net.cpp:148] Top shape: 1 1 1000 (1000)
I0924 03:35:17.421190 32157 net.cpp:148] Top shape: 1 1 1000 (1000)
I0924 03:35:17.421198 32157 net.cpp:156] Memory required for data: 14008
I0924 03:35:17.421208 32157 layer_factory.hpp:77] Creating layer lstm2_cont_slice
I0924 03:35:17.421227 32157 net.cpp:91] Creating Layer lstm2_cont_slice
I0924 03:35:17.421238 32157 net.cpp:425] lstm2_cont_slice <- cont
I0924 03:35:17.421254 32157 net.cpp:399] lstm2_cont_slice -> cont_1
I0924 03:35:17.421329 32157 net.cpp:141] Setting up lstm2_cont_slice
I0924 03:35:17.421344 32157 net.cpp:148] Top shape: 1 1 (1)
I0924 03:35:17.421349 32157 net.cpp:156] Memory required for data: 14012
I0924 03:35:17.421353 32157 layer_factory.hpp:77] Creating layer cont_1_lstm2_cont_slice_0_split
I0924 03:35:17.421363 32157 net.cpp:91] Creating Layer cont_1_lstm2_cont_slice_0_split
I0924 03:35:17.421368 32157 net.cpp:425] cont_1_lstm2_cont_slice_0_split <- cont_1
I0924 03:35:17.421380 32157 net.cpp:399] cont_1_lstm2_cont_slice_0_split -> cont_1_lstm2_cont_slice_0_split_0
I0924 03:35:17.421389 32157 net.cpp:399] cont_1_lstm2_cont_slice_0_split -> cont_1_lstm2_cont_slice_0_split_1
I0924 03:35:17.421447 32157 net.cpp:141] Setting up cont_1_lstm2_cont_slice_0_split
I0924 03:35:17.421459 32157 net.cpp:148] Top shape: 1 1 (1)
I0924 03:35:17.421465 32157 net.cpp:148] Top shape: 1 1 (1)
I0924 03:35:17.421470 32157 net.cpp:156] Memory required for data: 14020
I0924 03:35:17.421475 32157 layer_factory.hpp:77] Creating layer lstm2_x_transform
I0924 03:35:17.421489 32157 net.cpp:91] Creating Layer lstm2_x_transform
I0924 03:35:17.421494 32157 net.cpp:425] lstm2_x_transform <- x
I0924 03:35:17.421506 32157 net.cpp:399] lstm2_x_transform -> W_xc_x
I0924 03:35:17.435544 32129 net.cpp:141] Setting up lstm1_gate_input_1
I0924 03:35:17.435600 32129 net.cpp:148] Top shape: 1 1 4000 (4000)
I0924 03:35:17.435613 32129 net.cpp:156] Memory required for data: 78016
I0924 03:35:17.435619 32159 net.cpp:141] Setting up norm1
I0924 03:35:17.435629 32129 layer_factory.hpp:77] Creating layer lstm1_unit_1
I0924 03:35:17.435641 32159 net.cpp:148] Top shape: 10 96 27 27 (699840)
I0924 03:35:17.435649 32159 net.cpp:156] Memory required for data: 35014200
I0924 03:35:17.435658 32159 layer_factory.hpp:77] Creating layer conv2
I0924 03:35:17.435659 32129 net.cpp:91] Creating Layer lstm1_unit_1
I0924 03:35:17.435675 32123 net.cpp:141] Setting up lstm1_cont_slice
I0924 03:35:17.435700 32159 net.cpp:91] Creating Layer conv2
I0924 03:35:17.435714 32123 net.cpp:148] Top shape: 1 1 (1)
I0924 03:35:17.435724 32159 net.cpp:425] conv2 <- norm1
I0924 03:35:17.435700 32129 net.cpp:425] lstm1_unit_1 <- c_0
I0924 03:35:17.435735 32123 net.cpp:156] Memory required for data: 10008
I0924 03:35:17.435747 32129 net.cpp:425] lstm1_unit_1 <- gate_input_1
I0924 03:35:17.435755 32159 net.cpp:399] conv2 -> conv2
I0924 03:35:17.435762 32123 layer_factory.hpp:77] Creating layer cont_1_lstm1_cont_slice_0_split
I0924 03:35:17.435762 32129 net.cpp:425] lstm1_unit_1 <- cont_1_lstm1_cont_slice_0_split_1
I0924 03:35:17.435731 32125 net.cpp:141] Setting up lstm1_transform_1
I0924 03:35:17.435786 32123 net.cpp:91] Creating Layer cont_1_lstm1_cont_slice_0_split
I0924 03:35:17.435801 32125 net.cpp:148] Top shape: 1 1 4000 (4000)
I0924 03:35:17.435811 32123 net.cpp:425] cont_1_lstm1_cont_slice_0_split <- cont_1
I0924 03:35:17.435819 32125 net.cpp:156] Memory required for data: 62016
I0924 03:35:17.435787 32129 net.cpp:399] lstm1_unit_1 -> c_1
I0924 03:35:17.435839 32123 net.cpp:399] cont_1_lstm1_cont_slice_0_split -> cont_1_lstm1_cont_slice_0_split_0
I0924 03:35:17.435849 32129 net.cpp:399] lstm1_unit_1 -> h_1
I0924 03:35:17.435842 32125 layer_factory.hpp:77] Creating layer lstm1_gate_input_1
I0924 03:35:17.435873 32123 net.cpp:399] cont_1_lstm1_cont_slice_0_split -> cont_1_lstm1_cont_slice_0_split_1
I0924 03:35:17.435883 32125 net.cpp:91] Creating Layer lstm1_gate_input_1
I0924 03:35:17.435894 32125 net.cpp:425] lstm1_gate_input_1 <- W_hc_h_0
I0924 03:35:17.435905 32125 net.cpp:425] lstm1_gate_input_1 <- W_xc_x_1
I0924 03:35:17.435920 32125 net.cpp:399] lstm1_gate_input_1 -> gate_input_1
I0924 03:35:17.435956 32141 net.cpp:141] Setting up cont_1_lstm1_cont_slice_0_split
I0924 03:35:17.435981 32141 net.cpp:148] Top shape: 1 1 (1)
I0924 03:35:17.435992 32141 net.cpp:148] Top shape: 1 1 (1)
I0924 03:35:17.436000 32141 net.cpp:156] Memory required for data: 10016
I0924 03:35:17.436002 32125 net.cpp:141] Setting up lstm1_gate_input_1
I0924 03:35:17.436010 32141 layer_factory.hpp:77] Creating layer lstm1_x_transform
I0924 03:35:17.436019 32125 net.cpp:148] Top shape: 1 1 4000 (4000)
I0924 03:35:17.436028 32125 net.cpp:156] Memory required for data: 78016
I0924 03:35:17.436036 32125 layer_factory.hpp:77] Creating layer lstm1_unit_1
I0924 03:35:17.436036 32141 net.cpp:91] Creating Layer lstm1_x_transform
I0924 03:35:17.436064 32125 net.cpp:91] Creating Layer lstm1_unit_1
I0924 03:35:17.436064 32141 net.cpp:425] lstm1_x_transform <- x
I0924 03:35:17.436079 32125 net.cpp:425] lstm1_unit_1 <- c_0
I0924 03:35:17.436089 32141 net.cpp:399] lstm1_x_transform -> W_xc_x
I0924 03:35:17.436090 32125 net.cpp:425] lstm1_unit_1 <- gate_input_1
I0924 03:35:17.436122 32125 net.cpp:425] lstm1_unit_1 <- cont_1_lstm1_cont_slice_0_split_1
I0924 03:35:17.436136 32125 net.cpp:399] lstm1_unit_1 -> c_1
I0924 03:35:17.436151 32125 net.cpp:399] lstm1_unit_1 -> h_1
I0924 03:35:17.436446 32167 net.cpp:141] Setting up lstm1_unit_1
I0924 03:35:17.436465 32167 net.cpp:148] Top shape: 1 1 1000 (1000)
I0924 03:35:17.436471 32167 net.cpp:148] Top shape: 1 1 1000 (1000)
I0924 03:35:17.436475 32167 net.cpp:156] Memory required for data: 86016
I0924 03:35:17.436482 32167 layer_factory.hpp:77] Creating layer lstm1_
I0924 03:35:17.436491 32167 net.cpp:91] Creating Layer lstm1_
I0924 03:35:17.436498 32167 net.cpp:425] lstm1_ <- c_1
I0924 03:35:17.436511 32167 net.cpp:399] lstm1_ -> c_T
I0924 03:35:17.436622 32125 net.cpp:141] Setting up lstm1_unit_1
I0924 03:35:17.436640 32125 net.cpp:148] Top shape: 1 1 1000 (1000)
I0924 03:35:17.436651 32125 net.cpp:148] Top shape: 1 1 1000 (1000)
I0924 03:35:17.436658 32125 net.cpp:156] Memory required for data: 86016
I0924 03:35:17.436666 32125 layer_factory.hpp:77] Creating layer lstm1_
I0924 03:35:17.436666 32123 net.cpp:141] Setting up cont_1_lstm1_cont_slice_0_split
I0924 03:35:17.436686 32125 net.cpp:91] Creating Layer lstm1_
I0924 03:35:17.436694 32125 net.cpp:425] lstm1_ <- c_1
I0924 03:35:17.436695 32123 net.cpp:148] Top shape: 1 1 (1)
I0924 03:35:17.436709 32125 net.cpp:399] lstm1_ -> c_T
I0924 03:35:17.436712 32123 net.cpp:148] Top shape: 1 1 (1)
I0924 03:35:17.436724 32123 net.cpp:156] Memory required for data: 10016
I0924 03:35:17.436730 32123 layer_factory.hpp:77] Creating layer lstm1_x_transform
I0924 03:35:17.436745 32123 net.cpp:91] Creating Layer lstm1_x_transform
I0924 03:35:17.436751 32123 net.cpp:425] lstm1_x_transform <- x
I0924 03:35:17.436765 32123 net.cpp:399] lstm1_x_transform -> W_xc_x
I0924 03:35:17.442740 32167 net.cpp:141] Setting up lstm1_
I0924 03:35:17.442798 32167 net.cpp:148] Top shape: 1 1 1000 (1000)
I0924 03:35:17.442806 32167 net.cpp:156] Memory required for data: 90016
I0924 03:35:17.442816 32167 layer_factory.hpp:77] Creating layer lstm1_h_concat
I0924 03:35:17.442838 32167 net.cpp:91] Creating Layer lstm1_h_concat
I0924 03:35:17.442847 32167 net.cpp:425] lstm1_h_concat <- h_1
I0924 03:35:17.442873 32167 net.cpp:399] lstm1_h_concat -> h
I0924 03:35:17.443003 32125 net.cpp:141] Setting up lstm1_
I0924 03:35:17.443024 32125 net.cpp:148] Top shape: 1 1 1000 (1000)
I0924 03:35:17.443030 32125 net.cpp:156] Memory required for data: 90016
I0924 03:35:17.443037 32125 layer_factory.hpp:77] Creating layer lstm1_h_concat
I0924 03:35:17.443055 32125 net.cpp:91] Creating Layer lstm1_h_concat
I0924 03:35:17.443063 32125 net.cpp:425] lstm1_h_concat <- h_1
I0924 03:35:17.443071 32125 net.cpp:399] lstm1_h_concat -> h
I0924 03:35:17.443187 32119 net.cpp:141] Setting up lstm1_x_transform
I0924 03:35:17.443229 32119 net.cpp:148] Top shape: 1 1 4000 (4000)
I0924 03:35:17.443235 32119 net.cpp:156] Memory required for data: 26016
I0924 03:35:17.443258 32119 layer_factory.hpp:77] Creating layer lstm1_W_xc_x_slice
I0924 03:35:17.443276 32119 net.cpp:91] Creating Layer lstm1_W_xc_x_slice
I0924 03:35:17.443284 32119 net.cpp:425] lstm1_W_xc_x_slice <- W_xc_x
I0924 03:35:17.443294 32119 net.cpp:399] lstm1_W_xc_x_slice -> W_xc_x_1
I0924 03:35:17.447783 32125 net.cpp:141] Setting up lstm1_h_concat
I0924 03:35:17.447831 32129 net.cpp:141] Setting up lstm1_unit_1
I0924 03:35:17.447844 32125 net.cpp:148] Top shape: 1 1 1000 (1000)
I0924 03:35:17.447854 32129 net.cpp:148] Top shape: 1 1 1000 (1000)
I0924 03:35:17.447856 32125 net.cpp:156] Memory required for data: 94016
I0924 03:35:17.447867 32129 net.cpp:148] Top shape: 1 1 1000 (1000)
I0924 03:35:17.447870 32125 layer_factory.hpp:77] Creating layer h_pseudoloss
I0924 03:35:17.447875 32129 net.cpp:156] Memory required for data: 86016
I0924 03:35:17.447886 32129 layer_factory.hpp:77] Creating layer lstm1_
I0924 03:35:17.447896 32125 net.cpp:91] Creating Layer h_pseudoloss
I0924 03:35:17.447895 32167 net.cpp:141] Setting up lstm1_h_concat
I0924 03:35:17.447911 32125 net.cpp:425] h_pseudoloss <- h
I0924 03:35:17.447903 32129 net.cpp:91] Creating Layer lstm1_
I0924 03:35:17.447931 32129 net.cpp:425] lstm1_ <- c_1
I0924 03:35:17.447937 32125 net.cpp:399] h_pseudoloss -> h_pseudoloss
I0924 03:35:17.447931 32167 net.cpp:148] Top shape: 1 1 1000 (1000)
I0924 03:35:17.447962 32167 net.cpp:156] Memory required for data: 94016
I0924 03:35:17.447963 32129 net.cpp:399] lstm1_ -> c_T
I0924 03:35:17.447971 32167 layer_factory.hpp:77] Creating layer h_pseudoloss
I0924 03:35:17.447983 32167 net.cpp:91] Creating Layer h_pseudoloss
I0924 03:35:17.447991 32167 net.cpp:425] h_pseudoloss <- h
I0924 03:35:17.448001 32167 net.cpp:399] h_pseudoloss -> h_pseudoloss
I0924 03:35:17.448015 32119 net.cpp:141] Setting up lstm1_W_xc_x_slice
I0924 03:35:17.448038 32119 net.cpp:148] Top shape: 1 1 4000 (4000)
I0924 03:35:17.448045 32119 net.cpp:156] Memory required for data: 42016
I0924 03:35:17.448050 32119 layer_factory.hpp:77] Creating layer lstm1_h_conted_0
I0924 03:35:17.448065 32119 net.cpp:91] Creating Layer lstm1_h_conted_0
I0924 03:35:17.448071 32119 net.cpp:425] lstm1_h_conted_0 <- h_0
I0924 03:35:17.448078 32119 net.cpp:425] lstm1_h_conted_0 <- cont_1_lstm1_cont_slice_0_split_0
I0924 03:35:17.448086 32119 net.cpp:399] lstm1_h_conted_0 -> h_conted_0
I0924 03:35:17.448264 32129 net.cpp:141] Setting up lstm1_
I0924 03:35:17.448282 32129 net.cpp:148] Top shape: 1 1 1000 (1000)
I0924 03:35:17.448288 32129 net.cpp:156] Memory required for data: 90016
I0924 03:35:17.448294 32129 layer_factory.hpp:77] Creating layer lstm1_h_concat
I0924 03:35:17.448308 32129 net.cpp:91] Creating Layer lstm1_h_concat
I0924 03:35:17.448315 32129 net.cpp:425] lstm1_h_concat <- h_1
I0924 03:35:17.448325 32129 net.cpp:399] lstm1_h_concat -> h
I0924 03:35:17.448400 32129 net.cpp:141] Setting up lstm1_h_concat
I0924 03:35:17.448418 32129 net.cpp:148] Top shape: 1 1 1000 (1000)
I0924 03:35:17.448427 32129 net.cpp:156] Memory required for data: 94016
I0924 03:35:17.448437 32129 layer_factory.hpp:77] Creating layer h_pseudoloss
I0924 03:35:17.448454 32129 net.cpp:91] Creating Layer h_pseudoloss
I0924 03:35:17.448465 32129 net.cpp:425] h_pseudoloss <- h
I0924 03:35:17.448479 32129 net.cpp:399] h_pseudoloss -> h_pseudoloss
I0924 03:35:17.448668 32119 net.cpp:141] Setting up lstm1_h_conted_0
I0924 03:35:17.449810 32125 net.cpp:141] Setting up h_pseudoloss
I0924 03:35:17.449937 32167 net.cpp:141] Setting up h_pseudoloss
I0924 03:35:17.461674 32119 net.cpp:148] Top shape: 1 1 1000 (1000)
I0924 03:35:17.450134 32137 net.cpp:141] Setting up lstm1_x_transform
I0924 03:35:17.461704 32125 net.cpp:148] Top shape: (1)
I0924 03:35:17.458497 32159 net.cpp:141] Setting up conv2
I0924 03:35:17.461724 32137 net.cpp:148] Top shape: 1 1 4000 (4000)
I0924 03:35:17.461709 32119 net.cpp:156] Memory required for data: 46016
I0924 03:35:17.461727 32125 net.cpp:151]     with loss weight 1
I0924 03:35:17.461745 32137 net.cpp:156] Memory required for data: 26016
I0924 03:35:17.461796 32125 net.cpp:156] Memory required for data: 94020
I0924 03:35:17.461719 32167 net.cpp:148] Top shape: (1)
I0924 03:35:17.461802 32119 layer_factory.hpp:77] Creating layer lstm1_transform_1
I0924 03:35:17.461815 32125 net.cpp:217] h_pseudoloss needs backward computation.
I0924 03:35:17.461750 32159 net.cpp:148] Top shape: 10 256 27 27 (1866240)
I0924 03:35:17.461817 32167 net.cpp:151]     with loss weight 1
I0924 03:35:17.461828 32125 net.cpp:217] lstm1_h_concat needs backward computation.
I0924 03:35:17.461834 32159 net.cpp:156] Memory required for data: 42479160
I0924 03:35:17.461838 32125 net.cpp:219] lstm1_ does not need backward computation.
I0924 03:35:17.461843 32167 net.cpp:156] Memory required for data: 94020
…
I0924 03:35:17.462535 32129 net.cpp:219] lstm1_ does not need backward computation.
I0924 03:35:17.462544 32129 net.cpp:261] This network produces output c_T
I0924 03:35:17.462556 32129 net.cpp:261] This network produces output h_pseudoloss
I0924 03:35:17.462589 32129 net.cpp:274] Network initialization done.
I0924 03:35:17.462684 32129 recurrent_layer.cpp:150] Adding parameter 0: W_xc
I0924 03:35:17.462700 32129 recurrent_layer.cpp:150] Adding parameter 1: b_c
I0924 03:35:17.462710 32129 recurrent_layer.cpp:150] Adding parameter 2: W_hc
I0924 03:35:17.487197 32137 net.cpp:141] Setting up lstm1_h_conted_0
I0924 03:35:17.487251 32137 net.cpp:148] Top shape: 1 1 1000 (1000)
I0924 03:35:17.487259 32137 net.cpp:156] Memory required for data: 46016
I0924 03:35:17.487272 32137 layer_factory.hpp:77] Creating layer lstm1_transform_1
I0924 03:35:17.487300 32137 net.cpp:91] Creating Layer lstm1_transform_1
I0924 03:35:17.487311 32137 net.cpp:425] lstm1_transform_1 <- h_conted_0
I0924 03:35:17.487341 32137 net.cpp:399] lstm1_transform_1 -> W_hc_h_0
I0924 03:35:17.487437 32129 net.cpp:141] Setting up lstm1
I0924 03:35:17.487488 32129 net.cpp:148] Top shape: 1 1 1000 (1000)
I0924 03:35:17.487503 32129 net.cpp:156] Memory required for data: 26408
I0924 03:35:17.487540 32129 layer_factory.hpp:77] Creating layer concat
I0924 03:35:17.487568 32129 net.cpp:91] Creating Layer concat
I0924 03:35:17.487584 32129 net.cpp:425] concat <- lstm1
I0924 03:35:17.487601 32129 net.cpp:425] concat <- embedded_input_sentence
I0924 03:35:17.487612 32129 net.cpp:425] concat <- reshaped_stage_indicator
I0924 03:35:17.487629 32129 net.cpp:399] concat -> lstm1_video_sequence
I0924 03:35:17.487709 32129 net.cpp:141] Setting up concat
I0924 03:35:17.487725 32129 net.cpp:148] Top shape: 1 1 1501 (1501)
I0924 03:35:17.487733 32129 net.cpp:156] Memory required for data: 32412
I0924 03:35:17.487742 32129 layer_factory.hpp:77] Creating layer lstm2
I0924 03:35:17.487767 32129 net.cpp:91] Creating Layer lstm2
I0924 03:35:17.487782 32129 net.cpp:425] lstm2 <- lstm1_video_sequence
I0924 03:35:17.487794 32129 net.cpp:425] lstm2 <- cont_sentence_input_1_split_1
I0924 03:35:17.487813 32129 net.cpp:399] lstm2 -> lstm2
I0924 03:35:17.487836 32129 recurrent_layer.cpp:20] Initializing recurrent layer: assuming input batch contains 1 timesteps of 1 independent streams.
I0924 03:35:17.488351 32129 net.cpp:49] Initializing net from parameters: 
layer {
  name: "lstm2_"
  type: "Input"
  top: "x"
  top: "cont"
  input_param {
    shape {
      dim: 1
      dim: 1
      dim: 1501
    }
    shape {
      dim: 1
      dim: 1
    }
  }
}
layer {
  name: "lstm2_"
  type: "Input"
  top: "c_0"
  top: "h_0"
  input_param {
    shape {
      dim: 1
      dim: 1
      dim: 1000
    }
    shape {
      dim: 1
      dim: 1
      dim: 1000
    }
  }
}
layer {
  name: "lstm2_cont_slice"
  type: "Slice"
  bottom: "cont"
  top: "cont_1"
  slice_param {
    axis: 0
  }
}
layer {
  name: "lstm2_x_transform"
  type: "InnerProduct"
  bottom: "x"
  top: "W_xc_x"
  param {
    name: "W_xc"
  }
  param {
    name: "b_c"
  }
  propagate_down: true
  inner_product_param {
    num_output: 4000
    bias_term: true
    weight_filler {
      type: "uniform"
      min: -0.08
      max: 0.08
    }
    bias_filler {
      type: "constant"
      value: 0
    }
    axis: 2
  }
}
layer {
  name: "lstm2_W_xc_x_slice"
  type: "Slice"
  bottom: "W_xc_x"
  top: "W_xc_x_1"
  slice_param {
    axis: 0
  }
}
layer {
  name: "lstm2_h_conted_0"
  type: "Scale"
  bottom: "h_0"
  bottom: "cont_1"
  top: "h_conted_0"
  scale_param {
    axis: 0
  }
}
layer {
  name: "lstm2_transform_1"
  type: "InnerProduct"
  bottom: "h_conted_0"
  top: "W_hc_h_0"
  param {
    name: "W_hc"
  }
  inner_product_param {
    num_output: 4000
    bias_term: false
    weight_filler {
      type: "uniform"
      min: -0.08
      max: 0.08
    }
    axis: 2
  }
}
layer {
  name: "lstm2_gate_input_1"
  type: "Eltwise"
  bottom: "W_hc_h_0"
  bottom: "W_xc_x_1"
  top: "gate_input_1"
  eltwise_param {
    operation: SUM
  }
}
layer {
  name: "lstm2_unit_1"
  type: "LSTMUnit"
  bottom: "c_0"
  bottom: "gate_input_1"
  bottom: "cont_1"
  top: "c_1"
  top: "h_1"
}
layer {
  name: "lstm2_"
  type: "Split"
  bottom: "c_1"
  top: "c_T"
}
layer {
  name: "lstm2_h_concat"
  type: "Concat"
  bottom: "h_1"
  top: "h"
  concat_param {
    axis: 0
  }
}
layer {
  name: "h_pseudoloss"
  type: "Reduction"
  bottom: "h"
  top: "h_pseudoloss"
  loss_weight: 1
}
I0924 03:35:17.488519 32129 layer_factory.hpp:77] Creating layer lstm2_
I0924 03:35:17.488545 32129 net.cpp:91] Creating Layer lstm2_
I0924 03:35:17.488562 32129 net.cpp:399] lstm2_ -> x
I0924 03:35:17.488586 32129 net.cpp:399] lstm2_ -> cont
I0924 03:35:17.488704 32129 net.cpp:141] Setting up lstm2_
I0924 03:35:17.488726 32129 net.cpp:148] Top shape: 1 1 1501 (1501)
I0924 03:35:17.488742 32129 net.cpp:148] Top shape: 1 1 (1)
I0924 03:35:17.488752 32129 net.cpp:156] Memory required for data: 6008
I0924 03:35:17.488765 32129 layer_factory.hpp:77] Creating layer lstm2_
I0924 03:35:17.488785 32129 net.cpp:91] Creating Layer lstm2_
I0924 03:35:17.488801 32129 net.cpp:399] lstm2_ -> c_0
I0924 03:35:17.488824 32129 net.cpp:399] lstm2_ -> h_0
I0924 03:35:17.488947 32129 net.cpp:141] Setting up lstm2_
I0924 03:35:17.488970 32129 net.cpp:148] Top shape: 1 1 1000 (1000)
I0924 03:35:17.488986 32129 net.cpp:148] Top shape: 1 1 1000 (1000)
I0924 03:35:17.488996 32129 net.cpp:156] Memory required for data: 14008
I0924 03:35:17.489006 32129 layer_factory.hpp:77] Creating layer lstm2_cont_slice
I0924 03:35:17.489025 32129 net.cpp:91] Creating Layer lstm2_cont_slice
I0924 03:35:17.489038 32129 net.cpp:425] lstm2_cont_slice <- cont
I0924 03:35:17.489055 32129 net.cpp:399] lstm2_cont_slice -> cont_1
I0924 03:35:17.489128 32129 net.cpp:141] Setting up lstm2_cont_slice
I0924 03:35:17.489151 32129 net.cpp:148] Top shape: 1 1 (1)
I0924 03:35:17.489162 32129 net.cpp:156] Memory required for data: 14012
I0924 03:35:17.489173 32129 layer_factory.hpp:77] Creating layer cont_1_lstm2_cont_slice_0_split
I0924 03:35:17.489190 32129 net.cpp:91] Creating Layer cont_1_lstm2_cont_slice_0_split
I0924 03:35:17.489203 32129 net.cpp:425] cont_1_lstm2_cont_slice_0_split <- cont_1
I0924 03:35:17.489219 32129 net.cpp:399] cont_1_lstm2_cont_slice_0_split -> cont_1_lstm2_cont_slice_0_split_0
I0924 03:35:17.489240 32129 net.cpp:399] cont_1_lstm2_cont_slice_0_split -> cont_1_lstm2_cont_slice_0_split_1
I0924 03:35:17.489349 32129 net.cpp:141] Setting up cont_1_lstm2_cont_slice_0_split
I0924 03:35:17.489369 32129 net.cpp:148] Top shape: 1 1 (1)
I0924 03:35:17.489383 32129 net.cpp:148] Top shape: 1 1 (1)
I0924 03:35:17.489394 32129 net.cpp:156] Memory required for data: 14020
I0924 03:35:17.489404 32129 layer_factory.hpp:77] Creating layer lstm2_x_transform
I0924 03:35:17.489428 32129 net.cpp:91] Creating Layer lstm2_x_transform
I0924 03:35:17.489440 32129 net.cpp:425] lstm2_x_transform <- x
I0924 03:35:17.489460 32129 net.cpp:399] lstm2_x_transform -> W_xc_x
I0924 03:35:17.508586 32125 net.cpp:141] Setting up lstm1
I0924 03:35:17.508653 32125 net.cpp:148] Top shape: 1 1 1000 (1000)
I0924 03:35:17.508664 32125 net.cpp:156] Memory required for data: 26408
I0924 03:35:17.508700 32125 layer_factory.hpp:77] Creating layer concat
I0924 03:35:17.508728 32125 net.cpp:91] Creating Layer concat
I0924 03:35:17.508743 32125 net.cpp:425] concat <- lstm1
I0924 03:35:17.508756 32125 net.cpp:425] concat <- embedded_input_sentence
I0924 03:35:17.508767 32125 net.cpp:425] concat <- reshaped_stage_indicator
I0924 03:35:17.508781 32125 net.cpp:399] concat -> lstm1_video_sequence
I0924 03:35:17.508875 32125 net.cpp:141] Setting up concat
I0924 03:35:17.508893 32125 net.cpp:148] Top shape: 1 1 1501 (1501)
I0924 03:35:17.508903 32125 net.cpp:156] Memory required for data: 32412
I0924 03:35:17.508911 32125 layer_factory.hpp:77] Creating layer lstm2
I0924 03:35:17.508935 32125 net.cpp:91] Creating Layer lstm2
I0924 03:35:17.508945 32125 net.cpp:425] lstm2 <- lstm1_video_sequence
I0924 03:35:17.508956 32125 net.cpp:425] lstm2 <- cont_sentence_input_1_split_1
I0924 03:35:17.508971 32125 net.cpp:399] lstm2 -> lstm2
I0924 03:35:17.508992 32125 recurrent_layer.cpp:20] Initializing recurrent layer: assuming input batch contains 1 timesteps of 1 independent streams.
I0924 03:35:17.509533 32125 net.cpp:49] Initializing net from parameters: 
layer {
  name: "lstm2_"
  type: "Input"
  top: "x"
  top: "cont"
  input_param {
    shape {
      dim: 1
      dim: 1
      dim: 1501
    }
    shape {
      dim: 1
      dim: 1
    }
  }
}
layer {
  name: "lstm2_"
  type: "Input"
  top: "c_0"
  top: "h_0"
  input_param {
    shape {
      dim: 1
      dim: 1
      dim: 1000
    }
    shape {
      dim: 1
      dim: 1
      dim: 1000
    }
  }
}
layer {
  name: "lstm2_cont_slice"
  type: "Slice"
  bottom: "cont"
  top: "cont_1"
  slice_param {
    axis: 0
  }
}
layer {
  name: "lstm2_x_transform"
  type: "InnerProduct"
  bottom: "x"
  top: "W_xc_x"
  param {
    name: "W_xc"
  }
  param {
    name: "b_c"
  }
  propagate_down: true
  inner_product_param {
    num_output: 4000
    bias_term: true
    weight_filler {
      type: "uniform"
      min: -0.08
      max: 0.08
    }
    bias_filler {
      type: "constant"
      value: 0
    }
    axis: 2
  }
}
layer {
  name: "lstm2_W_xc_x_slice"
  type: "Slice"
  bottom: "W_xc_x"
  top: "W_xc_x_1"
  slice_param {
    axis: 0
  }
}
layer {
  name: "lstm2_h_conted_0"
  type: "Scale"
  bottom: "h_0"
  bottom: "cont_1"
  top: "h_conted_0"
  scale_param {
    axis: 0
  }
}
layer {
  name: "lstm2_transform_1"
  type: "InnerProduct"
  bottom: "h_conted_0"
  top: "W_hc_h_0"
  param {
    name: "W_hc"
  }
  inner_product_param {
    num_output: 4000
    bias_term: false
    weight_filler {
      type: "uniform"
      min: -0.08
      max: 0.08
    }
    axis: 2
  }
}
layer {
  name: "lstm2_gate_input_1"
  type: "Eltwise"
  bottom: "W_hc_h_0"
  bottom: "W_xc_x_1"
  top: "gate_input_1"
  eltwise_param {
    operation: SUM
  }
}
layer {
  name: "lstm2_unit_1"
  type: "LSTMUnit"
  bottom: "c_0"
  bottom: "gate_input_1"
  bottom: "cont_1"
  top: "c_1"
  top: "h_1"
}
layer {
  name: "lstm2_"
  type: "Split"
  bottom: "c_1"
  top: "c_T"
}
layer {
  name: "lstm2_h_concat"
  type: "Concat"
  bottom: "h_1"
  top: "h"
  concat_param {
    axis: 0
  }
}
layer {
  name: "h_pseudoloss"
  type: "Reduction"
  bottom: "h"
  top: "h_pseudoloss"
  loss_weight: 1
}
I0924 03:35:17.509694 32125 layer_factory.hpp:77] Creating layer lstm2_
I0924 03:35:17.509716 32125 net.cpp:91] Creating Layer lstm2_
I0924 03:35:17.509727 32125 net.cpp:399] lstm2_ -> x
I0924 03:35:17.509748 32125 net.cpp:399] lstm2_ -> cont
I0924 03:35:17.509856 32125 net.cpp:141] Setting up lstm2_
I0924 03:35:17.509876 32125 net.cpp:148] Top shape: 1 1 1501 (1501)
I0924 03:35:17.509891 32125 net.cpp:148] Top shape: 1 1 (1)
I0924 03:35:17.509898 32125 net.cpp:156] Memory required for data: 6008
I0924 03:35:17.509908 32125 layer_factory.hpp:77] Creating layer lstm2_
I0924 03:35:17.509924 32125 net.cpp:91] Creating Layer lstm2_
I0924 03:35:17.509938 32125 net.cpp:399] lstm2_ -> c_0
I0924 03:35:17.509958 32125 net.cpp:399] lstm2_ -> h_0
I0924 03:35:17.510365 32141 net.cpp:141] Setting up lstm1_x_transform
I0924 03:35:17.510380 32141 net.cpp:148] Top shape: 1 1 4000 (4000)
I0924 03:35:17.510385 32141 net.cpp:156] Memory required for data: 26016
I0924 03:35:17.510401 32141 layer_factory.hpp:77] Creating layer lstm1_W_xc_x_slice
I0924 03:35:17.510411 32141 net.cpp:91] Creating Layer lstm1_W_xc_x_slice
I0924 03:35:17.510418 32141 net.cpp:425] lstm1_W_xc_x_slice <- W_xc_x
I0924 03:35:17.510431 32141 net.cpp:399] lstm1_W_xc_x_slice -> W_xc_x_1
I0924 03:35:17.519465 32141 net.cpp:141] Setting up lstm1_W_xc_x_slice
I0924 03:35:17.519527 32141 net.cpp:148] Top shape: 1 1 4000 (4000)
I0924 03:35:17.519538 32141 net.cpp:156] Memory required for data: 42016
I0924 03:35:17.519552 32141 layer_factory.hpp:77] Creating layer lstm1_h_conted_0
I0924 03:35:17.519554 32167 net.cpp:141] Setting up lstm1
I0924 03:35:17.519584 32141 net.cpp:91] Creating Layer lstm1_h_conted_0
I0924 03:35:17.519599 32141 net.cpp:425] lstm1_h_conted_0 <- h_0
I0924 03:35:17.519608 32167 net.cpp:148] Top shape: 1 1 1000 (1000)
I0924 03:35:17.519618 32141 net.cpp:425] lstm1_h_conted_0 <- cont_1_lstm1_cont_slice_0_split_0
I0924 03:35:17.519623 32167 net.cpp:156] Memory required for data: 26408
I0924 03:35:17.519636 32141 net.cpp:399] lstm1_h_conted_0 -> h_conted_0
I0924 03:35:17.519666 32167 layer_factory.hpp:77] Creating layer concat
I0924 03:35:17.519697 32167 net.cpp:91] Creating Layer concat
I0924 03:35:17.519695 32157 net.cpp:141] Setting up lstm2_x_transform
I0924 03:35:17.519723 32167 net.cpp:425] concat <- lstm1
I0924 03:35:17.519752 32157 net.cpp:148] Top shape: 1 1 4000 (4000)
I0924 03:35:17.519764 32157 net.cpp:156] Memory required for data: 30020
I0924 03:35:17.519763 32167 net.cpp:425] concat <- embedded_input_sentence
I0924 03:35:17.519803 32157 layer_factory.hpp:77] Creating layer lstm2_W_xc_x_slice
I0924 03:35:17.519803 32167 net.cpp:425] concat <- reshaped_stage_indicator
I0924 03:35:17.519829 32157 net.cpp:91] Creating Layer lstm2_W_xc_x_slice
I0924 03:35:17.519841 32167 net.cpp:399] concat -> lstm1_video_sequence
I0924 03:35:17.519842 32157 net.cpp:425] lstm2_W_xc_x_slice <- W_xc_x
I0924 03:35:17.519886 32157 net.cpp:399] lstm2_W_xc_x_slice -> W_xc_x_1
I0924 03:35:17.519942 32125 net.cpp:141] Setting up lstm2_
I0924 03:35:17.519968 32125 net.cpp:148] Top shape: 1 1 1000 (1000)
I0924 03:35:17.519979 32125 net.cpp:148] Top shape: 1 1 1000 (1000)
I0924 03:35:17.519986 32125 net.cpp:156] Memory required for data: 14008
I0924 03:35:17.519995 32125 layer_factory.hpp:77] Creating layer lstm2_cont_slice
I0924 03:35:17.520012 32125 net.cpp:91] Creating Layer lstm2_cont_slice
I0924 03:35:17.520021 32125 net.cpp:425] lstm2_cont_slice <- cont
I0924 03:35:17.520040 32125 net.cpp:399] lstm2_cont_slice -> cont_1
I0924 03:35:17.520115 32123 net.cpp:141] Setting up lstm1_x_transform
I0924 03:35:17.520131 32123 net.cpp:148] Top shape: 1 1 4000 (4000)
I0924 03:35:17.520136 32123 net.cpp:156] Memory required for data: 26016
I0924 03:35:17.520151 32123 layer_factory.hpp:77] Creating layer lstm1_W_xc_x_slice
I0924 03:35:17.520161 32123 net.cpp:91] Creating Layer lstm1_W_xc_x_slice
I0924 03:35:17.520169 32123 net.cpp:425] lstm1_W_xc_x_slice <- W_xc_x
I0924 03:35:17.520179 32123 net.cpp:399] lstm1_W_xc_x_slice -> W_xc_x_1
I0924 03:35:17.520184 32167 net.cpp:141] Setting up concat
I0924 03:35:17.520207 32167 net.cpp:148] Top shape: 1 1 1501 (1501)
I0924 03:35:17.520220 32167 net.cpp:156] Memory required for data: 32412
I0924 03:35:17.520231 32167 layer_factory.hpp:77] Creating layer lstm2
I0924 03:35:17.520259 32167 net.cpp:91] Creating Layer lstm2
I0924 03:35:17.520269 32123 net.cpp:141] Setting up lstm1_W_xc_x_slice
I0924 03:35:17.520274 32167 net.cpp:425] lstm2 <- lstm1_video_sequence
I0924 03:35:17.520300 32123 net.cpp:148] Top shape: 1 1 4000 (4000)
I0924 03:35:17.520305 32157 net.cpp:141] Setting up lstm2_W_xc_x_slice
I0924 03:35:17.520321 32157 net.cpp:148] Top shape: 1 1 4000 (4000)
I0924 03:35:17.520313 32167 net.cpp:425] lstm2 <- cont_sentence_input_1_split_1
I0924 03:35:17.520313 32123 net.cpp:156] Memory required for data: 42016
I0924 03:35:17.520346 32167 net.cpp:399] lstm2 -> lstm2
I0924 03:35:17.520351 32125 net.cpp:141] Setting up lstm2_cont_slice
I0924 03:35:17.520349 32123 layer_factory.hpp:77] Creating layer lstm1_h_conted_0
I0924 03:35:17.520370 32125 net.cpp:148] Top shape: 1 1 (1)
I0924 03:35:17.520377 32125 net.cpp:156] Memory required for data: 14012
I0924 03:35:17.520378 32167 recurrent_layer.cpp:20] Initializing recurrent layer: assuming input batch contains 1 timesteps of 1 independent streams.
I0924 03:35:17.520382 32123 net.cpp:91] Creating Layer lstm1_h_conted_0
I0924 03:35:17.520386 32125 layer_factory.hpp:77] Creating layer cont_1_lstm2_cont_slice_0_split
I0924 03:35:17.520419 32123 net.cpp:425] lstm1_h_conted_0 <- h_0
I0924 03:35:17.520431 32125 net.cpp:91] Creating Layer cont_1_lstm2_cont_slice_0_split
I0924 03:35:17.520436 32123 net.cpp:425] lstm1_h_conted_0 <- cont_1_lstm1_cont_slice_0_split_0
I0924 03:35:17.520442 32125 net.cpp:425] cont_1_lstm2_cont_slice_0_split <- cont_1
I0924 03:35:17.520447 32159 net.cpp:141] Setting up relu2
I0924 03:35:17.520452 32123 net.cpp:399] lstm1_h_conted_0 -> h_conted_0
I0924 03:35:17.520464 32159 net.cpp:148] Top shape: 10 256 27 27 (1866240)
I0924 03:35:17.520453 32125 net.cpp:399] cont_1_lstm2_cont_slice_0_split -> cont_1_lstm2_cont_slice_0_split_0
I0924 03:35:17.520475 32159 net.cpp:156] Memory required for data: 49944120
I0924 03:35:17.520488 32125 net.cpp:399] cont_1_lstm2_cont_slice_0_split -> cont_1_lstm2_cont_slice_0_split_1
I0924 03:35:17.520331 32157 net.cpp:156] Memory required for data: 46020
I0924 03:35:17.520488 32159 layer_factory.hpp:77] Creating layer pool2
I0924 03:35:17.520530 32159 net.cpp:91] Creating Layer pool2
I0924 03:35:17.520544 32159 net.cpp:425] pool2 <- conv2
I0924 03:35:17.520557 32159 net.cpp:399] pool2 -> pool2
I0924 03:35:17.520582 32157 layer_factory.hpp:77] Creating layer lstm2_h_conted_0
I0924 03:35:17.520598 32157 net.cpp:91] Creating Layer lstm2_h_conted_0
I0924 03:35:17.520609 32157 net.cpp:425] lstm2_h_conted_0 <- h_0
I0924 03:35:17.520620 32157 net.cpp:425] lstm2_h_conted_0 <- cont_1_lstm2_cont_slice_0_split_0
I0924 03:35:17.520634 32157 net.cpp:399] lstm2_h_conted_0 -> h_conted_0
I0924 03:35:17.520751 32125 net.cpp:141] Setting up cont_1_lstm2_cont_slice_0_split
I0924 03:35:17.520768 32125 net.cpp:148] Top shape: 1 1 (1)
I0924 03:35:17.520778 32125 net.cpp:148] Top shape: 1 1 (1)
I0924 03:35:17.520784 32125 net.cpp:156] Memory required for data: 14020
I0924 03:35:17.520792 32125 layer_factory.hpp:77] Creating layer lstm2_x_transform
I0924 03:35:17.520823 32125 net.cpp:91] Creating Layer lstm2_x_transform
I0924 03:35:17.520833 32125 net.cpp:425] lstm2_x_transform <- x
I0924 03:35:17.520834 32159 net.cpp:141] Setting up pool2
I0924 03:35:17.520846 32125 net.cpp:399] lstm2_x_transform -> W_xc_x
I0924 03:35:17.520854 32159 net.cpp:148] Top shape: 10 256 13 13 (432640)
I0924 03:35:17.520864 32159 net.cpp:156] Memory required for data: 51674680
I0924 03:35:17.520874 32159 layer_factory.hpp:77] Creating layer norm2
I0924 03:35:17.520901 32159 net.cpp:91] Creating Layer norm2
I0924 03:35:17.520913 32159 net.cpp:425] norm2 <- pool2
I0924 03:35:17.520927 32159 net.cpp:399] norm2 -> norm2
I0924 03:35:17.520943 32167 net.cpp:49] Initializing net from parameters: 
layer {
  name: "lstm2_"
  type: "Input"
  top: "x"
  top: "cont"
  input_param {
    shape {
      dim: 1
      dim: 1
      dim: 1501
    }
    shape {
      dim: 1
      dim: 1
    }
  }
}
layer {
  name: "lstm2_"
  type: "Input"
  top: "c_0"
  top: "h_0"
  input_param {
    shape {
      dim: 1
      dim: 1
      dim: 1000
    }
    shape {
      dim: 1
      dim: 1
      dim: 1000
    }
  }
}
layer {
  name: "lstm2_cont_slice"
  type: "Slice"
  bottom: "cont"
  top: "cont_1"
  slice_param {
    axis: 0
  }
}
layer {
  name: "lstm2_x_transform"
  type: "InnerProduct"
  bottom: "x"
  top: "W_xc_x"
  param {
    name: "W_xc"
  }
  param {
    name: "b_c"
  }
  propagate_down: true
  inner_product_param {
    num_output: 4000
    bias_term: true
    weight_filler {
      type: "uniform"
      min: -0.08
      max: 0.08
    }
    bias_filler {
      type: "constant"
      value: 0
    }
    axis: 2
  }
}
layer {
  name: "lstm2_W_xc_x_slice"
  type: "Slice"
  bottom: "W_xc_x"
  top: "W_xc_x_1"
  slice_param {
    axis: 0
  }
}
layer {
  name: "lstm2_h_conted_0"
  type: "Scale"
  bottom: "h_0"
  bottom: "cont_1"
  top: "h_conted_0"
  scale_param {
    axis: 0
  }
}
layer {
  name: "lstm2_transform_1"
  type: "InnerProduct"
  bottom: "h_conted_0"
  top: "W_hc_h_0"
  param {
    name: "W_hc"
  }
  inner_product_param {
    num_output: 4000
    bias_term: false
    weight_filler {
      type: "uniform"
      min: -0.08
      max: 0.08
    }
    axis: 2
  }
}
layer {
  name: "lstm2_gate_input_1"
  type: "Eltwise"
  bottom: "W_hc_h_0"
  bottom: "W_xc_x_1"
  top: "gate_input_1"
  eltwise_param {
    operation: SUM
  }
}
layer {
  name: "lstm2_unit_1"
  type: "LSTMUnit"
  bottom: "c_0"
  bottom: "gate_input_1"
  bottom: "cont_1"
  top: "c_1"
  top: "h_1"
}
layer {
  name: "lstm2_"
  type: "Split"
  bottom: "c_1"
  top: "c_T"
}
layer {
  name: "lstm2_h_concat"
  type: "Concat"
  bottom: "h_1"
  top: "h"
  concat_param {
    axis: 0
  }
}
layer {
  name: "h_pseudoloss"
  type: "Reduction"
  bottom: "h"
  top: "h_pseudoloss"
  loss_weight: 1
}
I0924 03:35:17.531829 32167 layer_factory.hpp:77] Creating layer lstm2_
I0924 03:35:17.531882 32167 net.cpp:91] Creating Layer lstm2_
I0924 03:35:17.531908 32167 net.cpp:399] lstm2_ -> x
I0924 03:35:17.531942 32167 net.cpp:399] lstm2_ -> cont
I0924 03:35:17.520998 32157 net.cpp:141] Setting up lstm2_h_conted_0
I0924 03:35:17.532014 32157 net.cpp:148] Top shape: 1 1 1000 (1000)
I0924 03:35:17.532029 32157 net.cpp:156] Memory required for data: 50020
I0924 03:35:17.532042 32157 layer_factory.hpp:77] Creating layer lstm2_transform_1
I0924 03:35:17.532065 32157 net.cpp:91] Creating Layer lstm2_transform_1
I0924 03:35:17.532081 32157 net.cpp:425] lstm2_transform_1 <- h_conted_0
I0924 03:35:17.532114 32157 net.cpp:399] lstm2_transform_1 -> W_hc_h_0
I0924 03:35:17.521152 32141 net.cpp:141] Setting up lstm1_h_conted_0
I0924 03:35:17.532310 32141 net.cpp:148] Top shape: 1 1 1000 (1000)
I0924 03:35:17.532321 32141 net.cpp:156] Memory required for data: 46016
I0924 03:35:17.532330 32141 layer_factory.hpp:77] Creating layer lstm1_transform_1
I0924 03:35:17.532349 32141 net.cpp:91] Creating Layer lstm1_transform_1
I0924 03:35:17.532361 32141 net.cpp:425] lstm1_transform_1 <- h_conted_0
I0924 03:35:17.532377 32141 net.cpp:399] lstm1_transform_1 -> W_hc_h_0
I0924 03:35:17.521188 32123 net.cpp:141] Setting up lstm1_h_conted_0
I0924 03:35:17.532460 32123 net.cpp:148] Top shape: 1 1 1000 (1000)
I0924 03:35:17.532482 32123 net.cpp:156] Memory required for data: 46016
I0924 03:35:17.532495 32123 layer_factory.hpp:77] Creating layer lstm1_transform_1
I0924 03:35:17.532524 32123 net.cpp:91] Creating Layer lstm1_transform_1
I0924 03:35:17.532536 32123 net.cpp:425] lstm1_transform_1 <- h_conted_0
I0924 03:35:17.534826 32123 net.cpp:399] lstm1_transform_1 -> W_hc_h_0
I0924 03:35:17.536264 32119 net.cpp:141] Setting up lstm1_transform_1
I0924 03:35:17.536293 32119 net.cpp:148] Top shape: 1 1 4000 (4000)
I0924 03:35:17.536304 32119 net.cpp:156] Memory required for data: 62016
I0924 03:35:17.536331 32119 layer_factory.hpp:77] Creating layer lstm1_gate_input_1
I0924 03:35:17.536365 32119 net.cpp:91] Creating Layer lstm1_gate_input_1
I0924 03:35:17.536378 32119 net.cpp:425] lstm1_gate_input_1 <- W_hc_h_0
I0924 03:35:17.536392 32119 net.cpp:425] lstm1_gate_input_1 <- W_xc_x_1
I0924 03:35:17.536407 32119 net.cpp:399] lstm1_gate_input_1 -> gate_input_1
I0924 03:35:17.536455 32167 net.cpp:141] Setting up lstm2_
I0924 03:35:17.536489 32167 net.cpp:148] Top shape: 1 1 1501 (1501)
I0924 03:35:17.536505 32167 net.cpp:148] Top shape: 1 1 (1)
I0924 03:35:17.536516 32167 net.cpp:156] Memory required for data: 6008
I0924 03:35:17.536528 32167 layer_factory.hpp:77] Creating layer lstm2_
I0924 03:35:17.536559 32167 net.cpp:91] Creating Layer lstm2_
I0924 03:35:17.536581 32167 net.cpp:399] lstm2_ -> c_0
I0924 03:35:17.536607 32167 net.cpp:399] lstm2_ -> h_0
I0924 03:35:17.537281 32159 net.cpp:141] Setting up norm2
I0924 03:35:17.537310 32159 net.cpp:148] Top shape: 10 256 13 13 (432640)
I0924 03:35:17.537322 32159 net.cpp:156] Memory required for data: 53405240
I0924 03:35:17.537338 32159 layer_factory.hpp:77] Creating layer conv3
I0924 03:35:17.537377 32159 net.cpp:91] Creating Layer conv3
I0924 03:35:17.537392 32159 net.cpp:425] conv3 <- norm2
I0924 03:35:17.537410 32159 net.cpp:399] conv3 -> conv3
I0924 03:35:17.549983 32167 net.cpp:141] Setting up lstm2_
I0924 03:35:17.550045 32167 net.cpp:148] Top shape: 1 1 1000 (1000)
I0924 03:35:17.550060 32167 net.cpp:148] Top shape: 1 1 1000 (1000)
I0924 03:35:17.550068 32167 net.cpp:156] Memory required for data: 14008
I0924 03:35:17.550084 32167 layer_factory.hpp:77] Creating layer lstm2_cont_slice
I0924 03:35:17.550117 32167 net.cpp:91] Creating Layer lstm2_cont_slice
I0924 03:35:17.550130 32167 net.cpp:425] lstm2_cont_slice <- cont
I0924 03:35:17.550150 32167 net.cpp:399] lstm2_cont_slice -> cont_1
I0924 03:35:17.550238 32167 net.cpp:141] Setting up lstm2_cont_slice
I0924 03:35:17.550257 32167 net.cpp:148] Top shape: 1 1 (1)
I0924 03:35:17.550267 32167 net.cpp:156] Memory required for data: 14012
I0924 03:35:17.550277 32167 layer_factory.hpp:77] Creating layer cont_1_lstm2_cont_slice_0_split
I0924 03:35:17.550294 32167 net.cpp:91] Creating Layer cont_1_lstm2_cont_slice_0_split
I0924 03:35:17.550303 32167 net.cpp:425] cont_1_lstm2_cont_slice_0_split <- cont_1
I0924 03:35:17.550320 32167 net.cpp:399] cont_1_lstm2_cont_slice_0_split -> cont_1_lstm2_cont_slice_0_split_0
I0924 03:35:17.550338 32167 net.cpp:399] cont_1_lstm2_cont_slice_0_split -> cont_1_lstm2_cont_slice_0_split_1
I0924 03:35:17.550436 32167 net.cpp:141] Setting up cont_1_lstm2_cont_slice_0_split
I0924 03:35:17.550457 32167 net.cpp:148] Top shape: 1 1 (1)
I0924 03:35:17.550469 32167 net.cpp:148] Top shape: 1 1 (1)
I0924 03:35:17.550478 32167 net.cpp:156] Memory required for data: 14020
I0924 03:35:17.550488 32167 layer_factory.hpp:77] Creating layer lstm2_x_transform
I0924 03:35:17.550514 32167 net.cpp:91] Creating Layer lstm2_x_transform
I0924 03:35:17.550525 32167 net.cpp:425] lstm2_x_transform <- x
I0924 03:35:17.550545 32167 net.cpp:399] lstm2_x_transform -> W_xc_x
I0924 03:35:17.590059 32119 net.cpp:141] Setting up lstm1_gate_input_1
I0924 03:35:17.590111 32119 net.cpp:148] Top shape: 1 1 4000 (4000)
I0924 03:35:17.590122 32119 net.cpp:156] Memory required for data: 78016
I0924 03:35:17.590137 32119 layer_factory.hpp:77] Creating layer lstm1_unit_1
I0924 03:35:17.590159 32119 net.cpp:91] Creating Layer lstm1_unit_1
I0924 03:35:17.590170 32119 net.cpp:425] lstm1_unit_1 <- c_0
I0924 03:35:17.590188 32119 net.cpp:425] lstm1_unit_1 <- gate_input_1
I0924 03:35:17.590198 32119 net.cpp:425] lstm1_unit_1 <- cont_1_lstm1_cont_slice_0_split_1
I0924 03:35:17.590212 32119 net.cpp:399] lstm1_unit_1 -> c_1
I0924 03:35:17.590232 32119 net.cpp:399] lstm1_unit_1 -> h_1
I0924 03:35:17.590386 32119 net.cpp:141] Setting up lstm1_unit_1
I0924 03:35:17.590404 32119 net.cpp:148] Top shape: 1 1 1000 (1000)
I0924 03:35:17.590416 32119 net.cpp:148] Top shape: 1 1 1000 (1000)
I0924 03:35:17.590425 32119 net.cpp:156] Memory required for data: 86016
I0924 03:35:17.590435 32119 layer_factory.hpp:77] Creating layer lstm1_
I0924 03:35:17.590454 32119 net.cpp:91] Creating Layer lstm1_
I0924 03:35:17.590463 32119 net.cpp:425] lstm1_ <- c_1
I0924 03:35:17.590477 32119 net.cpp:399] lstm1_ -> c_T
I0924 03:35:17.590535 32119 net.cpp:141] Setting up lstm1_
I0924 03:35:17.590551 32119 net.cpp:148] Top shape: 1 1 1000 (1000)
I0924 03:35:17.590560 32119 net.cpp:156] Memory required for data: 90016
I0924 03:35:17.590569 32119 layer_factory.hpp:77] Creating layer lstm1_h_concat
…
I0924 03:36:40.462893 32501 net.cpp:425] lstm2_unit_1 <- gate_input_1
I0924 03:36:40.462895 32463 net.cpp:399] lstm2_unit_1 -> h_1
I0924 03:36:40.462903 32501 net.cpp:425] lstm2_unit_1 <- cont_1_lstm2_cont_slice_0_split_1
I0924 03:36:40.462915 32501 net.cpp:399] lstm2_unit_1 -> c_1
I0924 03:36:40.462930 32501 net.cpp:399] lstm2_unit_1 -> h_1
I0924 03:36:40.463013 32469 net.cpp:141] Setting up lstm1_unit_1
I0924 03:36:40.463032 32469 net.cpp:148] Top shape: 1 1 1000 (1000)
I0924 03:36:40.463042 32469 net.cpp:148] Top shape: 1 1 1000 (1000)
I0924 03:36:40.463049 32469 net.cpp:156] Memory required for data: 86016
I0924 03:36:40.463058 32469 layer_factory.hpp:77] Creating layer lstm1_
I0924 03:36:40.463071 32469 net.cpp:91] Creating Layer lstm1_
I0924 03:36:40.463079 32469 net.cpp:425] lstm1_ <- c_1
I0924 03:36:40.463094 32469 net.cpp:399] lstm1_ -> c_T
I0924 03:36:40.463148 32469 net.cpp:141] Setting up lstm1_
I0924 03:36:40.463163 32469 net.cpp:148] Top shape: 1 1 1000 (1000)
I0924 03:36:40.463172 32469 net.cpp:156] Memory required for data: 90016
I0924 03:36:40.463181 32469 layer_factory.hpp:77] Creating layer lstm1_h_concat
I0924 03:36:40.463194 32469 net.cpp:91] Creating Layer lstm1_h_concat
I0924 03:36:40.463201 32469 net.cpp:425] lstm1_h_concat <- h_1
I0924 03:36:40.463213 32469 net.cpp:399] lstm1_h_concat -> h
I0924 03:36:40.463274 32469 net.cpp:141] Setting up lstm1_h_concat
I0924 03:36:40.463289 32469 net.cpp:148] Top shape: 1 1 1000 (1000)
I0924 03:36:40.463295 32469 net.cpp:156] Memory required for data: 94016
I0924 03:36:40.463304 32469 layer_factory.hpp:77] Creating layer h_pseudoloss
I0924 03:36:40.463317 32469 net.cpp:91] Creating Layer h_pseudoloss
I0924 03:36:40.463325 32469 net.cpp:425] h_pseudoloss <- h
I0924 03:36:40.463336 32469 net.cpp:399] h_pseudoloss -> h_pseudoloss
I0924 03:36:40.463492 32469 net.cpp:141] Setting up h_pseudoloss
…
I0924 03:36:40.463660 32469 net.cpp:219] lstm1_ does not need backward computation.
I0924 03:36:40.463667 32469 net.cpp:261] This network produces output c_T
I0924 03:36:40.463675 32469 net.cpp:261] This network produces output h_pseudoloss
I0924 03:36:40.463699 32469 net.cpp:274] Network initialization done.
I0924 03:36:40.463769 32469 recurrent_layer.cpp:150] Adding parameter 0: W_xc
I0924 03:36:40.463781 32469 recurrent_layer.cpp:150] Adding parameter 1: b_c
I0924 03:36:40.463789 32469 recurrent_layer.cpp:150] Adding parameter 2: W_hc
I0924 03:36:40.463953 32469 net.cpp:141] Setting up lstm1
I0924 03:36:40.463969 32469 net.cpp:148] Top shape: 1 1 1000 (1000)
I0924 03:36:40.463976 32469 net.cpp:156] Memory required for data: 26408
I0924 03:36:40.463999 32469 layer_factory.hpp:77] Creating layer concat
I0924 03:36:40.464015 32469 net.cpp:91] Creating Layer concat
I0924 03:36:40.464025 32469 net.cpp:425] concat <- lstm1
I0924 03:36:40.464035 32469 net.cpp:425] concat <- embedded_input_sentence
I0924 03:36:40.464046 32469 net.cpp:425] concat <- reshaped_stage_indicator
I0924 03:36:40.464056 32469 net.cpp:399] concat -> lstm1_video_sequence
I0924 03:36:40.464112 32469 net.cpp:141] Setting up concat
I0924 03:36:40.464129 32469 net.cpp:148] Top shape: 1 1 1501 (1501)
I0924 03:36:40.464138 32469 net.cpp:156] Memory required for data: 32412
I0924 03:36:40.464145 32469 layer_factory.hpp:77] Creating layer lstm2
I0924 03:36:40.464164 32469 net.cpp:91] Creating Layer lstm2
I0924 03:36:40.464171 32469 net.cpp:425] lstm2 <- lstm1_video_sequence
I0924 03:36:40.464181 32469 net.cpp:425] lstm2 <- cont_sentence_input_1_split_1
I0924 03:36:40.464195 32469 net.cpp:399] lstm2 -> lstm2
I0924 03:36:40.464210 32469 recurrent_layer.cpp:20] Initializing recurrent layer: assuming input batch contains 1 timesteps of 1 independent streams.
I0924 03:36:40.464583 32469 net.cpp:49] Initializing net from parameters: 
layer {
  name: "lstm2_"
  type: "Input"
  top: "x"
  top: "cont"
  input_param {
    shape {
      dim: 1
      dim: 1
      dim: 1501
    }
    shape {
      dim: 1
      dim: 1
    }
  }
}
layer {
  name: "lstm2_"
  type: "Input"
  top: "c_0"
  top: "h_0"
  input_param {
    shape {
      dim: 1
      dim: 1
      dim: 1000
    }
    shape {
      dim: 1
      dim: 1
      dim: 1000
    }
  }
}
layer {
  name: "lstm2_cont_slice"
  type: "Slice"
  bottom: "cont"
  top: "cont_1"
  slice_param {
    axis: 0
  }
}
layer {
  name: "lstm2_x_transform"
  type: "InnerProduct"
  bottom: "x"
  top: "W_xc_x"
  param {
    name: "W_xc"
  }
  param {
    name: "b_c"
  }
  propagate_down: true
  inner_product_param {
    num_output: 4000
    bias_term: true
    weight_filler {
      type: "uniform"
      min: -0.08
      max: 0.08
    }
    bias_filler {
      type: "constant"
      value: 0
    }
    axis: 2
  }
}
layer {
  name: "lstm2_W_xc_x_slice"
  type: "Slice"
  bottom: "W_xc_x"
  top: "W_xc_x_1"
  slice_param {
    axis: 0
  }
}
layer {
  name: "lstm2_h_conted_0"
  type: "Scale"
  bottom: "h_0"
  bottom: "cont_1"
  top: "h_conted_0"
  scale_param {
    axis: 0
  }
}
layer {
  name: "lstm2_transform_1"
  type: "InnerProduct"
  bottom: "h_conted_0"
  top: "W_hc_h_0"
  param {
    name: "W_hc"
  }
  inner_product_param {
    num_output: 4000
    bias_term: false
    weight_filler {
      type: "uniform"
      min: -0.08
      max: 0.08
    }
    axis: 2
  }
}
layer {
  name: "lstm2_gate_input_1"
  type: "Eltwise"
  bottom: "W_hc_h_0"
  bottom: "W_xc_x_1"
  top: "gate_input_1"
  eltwise_param {
    operation: SUM
  }
}
layer {
  name: "lstm2_unit_1"
  type: "LSTMUnit"
  bottom: "c_0"
  bottom: "gate_input_1"
  bottom: "cont_1"
  top: "c_1"
  top: "h_1"
}
layer {
  name: "lstm2_"
  type: "Split"
  bottom: "c_1"
  top: "c_T"
}
layer {
  name: "lstm2_h_concat"
  type: "Concat"
  bottom: "h_1"
  top: "h"
  concat_param {
    axis: 0
  }
}
layer {
  name: "h_pseudoloss"
  type: "Reduction"
  bottom: "h"
  top: "h_pseudoloss"
  loss_weight: 1
}
I0924 03:36:40.464717 32469 layer_factory.hpp:77] Creating layer lstm2_
I0924 03:36:40.464736 32469 net.cpp:91] Creating Layer lstm2_
I0924 03:36:40.464746 32469 net.cpp:399] lstm2_ -> x
I0924 03:36:40.464763 32469 net.cpp:399] lstm2_ -> cont
I0924 03:36:40.464853 32469 net.cpp:141] Setting up lstm2_
I0924 03:36:40.464869 32469 net.cpp:148] Top shape: 1 1 1501 (1501)
I0924 03:36:40.464879 32469 net.cpp:148] Top shape: 1 1 (1)
I0924 03:36:40.464887 32469 net.cpp:156] Memory required for data: 6008
I0924 03:36:40.464895 32469 layer_factory.hpp:77] Creating layer lstm2_
I0924 03:36:40.464915 32469 net.cpp:91] Creating Layer lstm2_
I0924 03:36:40.464926 32469 net.cpp:399] lstm2_ -> c_0
I0924 03:36:40.464943 32469 net.cpp:399] lstm2_ -> h_0
I0924 03:36:40.465045 32469 net.cpp:141] Setting up lstm2_
I0924 03:36:40.465064 32469 net.cpp:148] Top shape: 1 1 1000 (1000)
I0924 03:36:40.465073 32469 net.cpp:148] Top shape: 1 1 1000 (1000)
I0924 03:36:40.465080 32469 net.cpp:156] Memory required for data: 14008
I0924 03:36:40.465088 32469 layer_factory.hpp:77] Creating layer lstm2_cont_slice
I0924 03:36:40.465102 32469 net.cpp:91] Creating Layer lstm2_cont_slice
I0924 03:36:40.465111 32469 net.cpp:425] lstm2_cont_slice <- cont
I0924 03:36:40.465122 32469 net.cpp:399] lstm2_cont_slice -> cont_1
I0924 03:36:40.465184 32469 net.cpp:141] Setting up lstm2_cont_slice
I0924 03:36:40.465198 32469 net.cpp:148] Top shape: 1 1 (1)
I0924 03:36:40.465206 32469 net.cpp:156] Memory required for data: 14012
I0924 03:36:40.465214 32469 layer_factory.hpp:77] Creating layer cont_1_lstm2_cont_slice_0_split
I0924 03:36:40.465229 32469 net.cpp:91] Creating Layer cont_1_lstm2_cont_slice_0_split
I0924 03:36:40.465236 32469 net.cpp:425] cont_1_lstm2_cont_slice_0_split <- cont_1
I0924 03:36:40.465251 32469 net.cpp:399] cont_1_lstm2_cont_slice_0_split -> cont_1_lstm2_cont_slice_0_split_0
I0924 03:36:40.465266 32469 net.cpp:399] cont_1_lstm2_cont_slice_0_split -> cont_1_lstm2_cont_slice_0_split_1
I0924 03:36:40.465347 32469 net.cpp:141] Setting up cont_1_lstm2_cont_slice_0_split
I0924 03:36:40.465361 32469 net.cpp:148] Top shape: 1 1 (1)
I0924 03:36:40.465371 32469 net.cpp:148] Top shape: 1 1 (1)
I0924 03:36:40.465378 32469 net.cpp:156] Memory required for data: 14020
I0924 03:36:40.465386 32469 layer_factory.hpp:77] Creating layer lstm2_x_transform
I0924 03:36:40.465407 32469 net.cpp:91] Creating Layer lstm2_x_transform
I0924 03:36:40.465415 32469 net.cpp:425] lstm2_x_transform <- x
I0924 03:36:40.465432 32469 net.cpp:399] lstm2_x_transform -> W_xc_x
I0924 03:36:40.485258 32473 net.cpp:141] Setting up lstm2_unit_1
I0924 03:36:40.485311 32473 net.cpp:148] Top shape: 1 1 1000 (1000)
I0924 03:36:40.485326 32473 net.cpp:148] Top shape: 1 1 1000 (1000)
I0924 03:36:40.485333 32473 net.cpp:156] Memory required for data: 90020
I0924 03:36:40.485347 32473 layer_factory.hpp:77] Creating layer lstm2_
I0924 03:36:40.485369 32473 net.cpp:91] Creating Layer lstm2_
I0924 03:36:40.485381 32473 net.cpp:425] lstm2_ <- c_1
I0924 03:36:40.485399 32473 net.cpp:399] lstm2_ -> c_T
I0924 03:36:40.485465 32473 net.cpp:141] Setting up lstm2_
I0924 03:36:40.485479 32473 net.cpp:148] Top shape: 1 1 1000 (1000)
I0924 03:36:40.485486 32473 net.cpp:156] Memory required for data: 94020
I0924 03:36:40.485496 32473 layer_factory.hpp:77] Creating layer lstm2_h_concat
I0924 03:36:40.485515 32473 net.cpp:91] Creating Layer lstm2_h_concat
I0924 03:36:40.485524 32473 net.cpp:425] lstm2_h_concat <- h_1
I0924 03:36:40.485538 32473 net.cpp:399] lstm2_h_concat -> h
I0924 03:36:40.485596 32473 net.cpp:141] Setting up lstm2_h_concat
I0924 03:36:40.485610 32473 net.cpp:148] Top shape: 1 1 1000 (1000)
I0924 03:36:40.485617 32473 net.cpp:156] Memory required for data: 98020
I0924 03:36:40.485625 32473 layer_factory.hpp:77] Creating layer h_pseudoloss
I0924 03:36:40.485640 32473 net.cpp:91] Creating Layer h_pseudoloss
I0924 03:36:40.485647 32473 net.cpp:425] h_pseudoloss <- h
I0924 03:36:40.485662 32473 net.cpp:399] h_pseudoloss -> h_pseudoloss
I0924 03:36:40.485821 32473 net.cpp:141] Setting up h_pseudoloss
…
I0924 03:36:40.485986 32473 net.cpp:219] lstm2_ does not need backward computation.
I0924 03:36:40.485992 32473 net.cpp:261] This network produces output c_T
I0924 03:36:40.486001 32473 net.cpp:261] This network produces output h_pseudoloss
I0924 03:36:40.486030 32473 net.cpp:274] Network initialization done.
I0924 03:36:40.486109 32473 recurrent_layer.cpp:150] Adding parameter 0: W_xc
I0924 03:36:40.486120 32473 recurrent_layer.cpp:150] Adding parameter 1: b_c
I0924 03:36:40.486129 32473 recurrent_layer.cpp:150] Adding parameter 2: W_hc
I0924 03:36:40.486296 32473 net.cpp:141] Setting up lstm2
I0924 03:36:40.486313 32473 net.cpp:148] Top shape: 1 1 1000 (1000)
I0924 03:36:40.486320 32473 net.cpp:156] Memory required for data: 36412
I0924 03:36:40.486346 32473 layer_factory.hpp:77] Creating layer predict
I0924 03:36:40.486364 32473 net.cpp:91] Creating Layer predict
I0924 03:36:40.486374 32473 net.cpp:425] predict <- lstm2
I0924 03:36:40.486387 32473 net.cpp:399] predict -> predict
I0924 03:36:40.566046 32501 net.cpp:141] Setting up lstm2_unit_1
I0924 03:36:40.566112 32501 net.cpp:148] Top shape: 1 1 1000 (1000)
I0924 03:36:40.566123 32501 net.cpp:148] Top shape: 1 1 1000 (1000)
I0924 03:36:40.566130 32501 net.cpp:156] Memory required for data: 90020
I0924 03:36:40.566143 32501 layer_factory.hpp:77] Creating layer lstm2_
I0924 03:36:40.566162 32501 net.cpp:91] Creating Layer lstm2_
I0924 03:36:40.566172 32501 net.cpp:425] lstm2_ <- c_1
I0924 03:36:40.566187 32501 net.cpp:399] lstm2_ -> c_T
I0924 03:36:40.566251 32463 net.cpp:141] Setting up lstm2_unit_1
I0924 03:36:40.566273 32463 net.cpp:148] Top shape: 1 1 1000 (1000)
I0924 03:36:40.566284 32463 net.cpp:148] Top shape: 1 1 1000 (1000)
I0924 03:36:40.566290 32463 net.cpp:156] Memory required for data: 90020
I0924 03:36:40.566299 32463 layer_factory.hpp:77] Creating layer lstm2_
I0924 03:36:40.566313 32463 net.cpp:91] Creating Layer lstm2_
I0924 03:36:40.566321 32463 net.cpp:425] lstm2_ <- c_1
I0924 03:36:40.566334 32463 net.cpp:399] lstm2_ -> c_T
I0924 03:36:40.566494 32469 net.cpp:141] Setting up lstm2_x_transform
I0924 03:36:40.566540 32501 net.cpp:141] Setting up lstm2_
I0924 03:36:40.566543 32469 net.cpp:148] Top shape: 1 1 4000 (4000)
I0924 03:36:40.566570 32501 net.cpp:148] Top shape: 1 1 1000 (1000)
I0924 03:36:40.566576 32469 net.cpp:156] Memory required for data: 30020
I0924 03:36:40.566578 32501 net.cpp:156] Memory required for data: 94020
I0924 03:36:40.566620 32501 layer_factory.hpp:77] Creating layer lstm2_h_concat
I0924 03:36:40.566634 32469 layer_factory.hpp:77] Creating layer lstm2_W_xc_x_slice
I0924 03:36:40.566642 32501 net.cpp:91] Creating Layer lstm2_h_concat
I0924 03:36:40.566658 32469 net.cpp:91] Creating Layer lstm2_W_xc_x_slice
I0924 03:36:40.566664 32501 net.cpp:425] lstm2_h_concat <- h_1
I0924 03:36:40.566669 32469 net.cpp:425] lstm2_W_xc_x_slice <- W_xc_x
I0924 03:36:40.566678 32501 net.cpp:399] lstm2_h_concat -> h
I0924 03:36:40.566685 32469 net.cpp:399] lstm2_W_xc_x_slice -> W_xc_x_1
I0924 03:36:40.566761 32501 net.cpp:141] Setting up lstm2_h_concat
I0924 03:36:40.566776 32501 net.cpp:148] Top shape: 1 1 1000 (1000)
I0924 03:36:40.566781 32501 net.cpp:156] Memory required for data: 98020
I0924 03:36:40.566788 32501 layer_factory.hpp:77] Creating layer h_pseudoloss
I0924 03:36:40.566802 32501 net.cpp:91] Creating Layer h_pseudoloss
I0924 03:36:40.566808 32501 net.cpp:425] h_pseudoloss <- h
I0924 03:36:40.566823 32501 net.cpp:399] h_pseudoloss -> h_pseudoloss
I0924 03:36:40.567111 32485 net.cpp:141] Setting up lstm2_x_transform
I0924 03:36:40.567128 32485 net.cpp:148] Top shape: 1 1 4000 (4000)
I0924 03:36:40.567136 32485 net.cpp:156] Memory required for data: 30020
I0924 03:36:40.567153 32485 layer_factory.hpp:77] Creating layer lstm2_W_xc_x_slice
I0924 03:36:40.567165 32485 net.cpp:91] Creating Layer lstm2_W_xc_x_slice
I0924 03:36:40.567174 32485 net.cpp:425] lstm2_W_xc_x_slice <- W_xc_x
I0924 03:36:40.567185 32463 net.cpp:141] Setting up lstm2_
I0924 03:36:40.567191 32485 net.cpp:399] lstm2_W_xc_x_slice -> W_xc_x_1
I0924 03:36:40.567221 32463 net.cpp:148] Top shape: 1 1 1000 (1000)
I0924 03:36:40.567234 32463 net.cpp:156] Memory required for data: 94020
I0924 03:36:40.567242 32463 layer_factory.hpp:77] Creating layer lstm2_h_concat
I0924 03:36:40.567258 32463 net.cpp:91] Creating Layer lstm2_h_concat
I0924 03:36:40.567270 32463 net.cpp:425] lstm2_h_concat <- h_1
I0924 03:36:40.567282 32485 net.cpp:141] Setting up lstm2_W_xc_x_slice
I0924 03:36:40.567284 32463 net.cpp:399] lstm2_h_concat -> h
I0924 03:36:40.567294 32485 net.cpp:148] Top shape: 1 1 4000 (4000)
I0924 03:36:40.567301 32485 net.cpp:156] Memory required for data: 46020
I0924 03:36:40.567306 32485 layer_factory.hpp:77] Creating layer lstm2_h_conted_0
I0924 03:36:40.567322 32485 net.cpp:91] Creating Layer lstm2_h_conted_0
I0924 03:36:40.567332 32485 net.cpp:425] lstm2_h_conted_0 <- h_0
I0924 03:36:40.567338 32485 net.cpp:425] lstm2_h_conted_0 <- cont_1_lstm2_cont_slice_0_split_0
I0924 03:36:40.567348 32485 net.cpp:399] lstm2_h_conted_0 -> h_conted_0
I0924 03:36:40.567344 32469 net.cpp:141] Setting up lstm2_W_xc_x_slice
I0924 03:36:40.567363 32469 net.cpp:148] Top shape: 1 1 4000 (4000)
I0924 03:36:40.567373 32469 net.cpp:156] Memory required for data: 46020
I0924 03:36:40.567381 32469 layer_factory.hpp:77] Creating layer lstm2_h_conted_0
I0924 03:36:40.567396 32469 net.cpp:91] Creating Layer lstm2_h_conted_0
I0924 03:36:40.567390 32501 net.cpp:141] Setting up h_pseudoloss
I0924 03:36:40.567404 32469 net.cpp:425] lstm2_h_conted_0 <- h_0
I0924 03:36:40.567411 32469 net.cpp:425] lstm2_h_conted_0 <- cont_1_lstm2_cont_slice_0_split_0
I0924 03:36:40.567415 32501 net.cpp:148] Top shape: (1)
I0924 03:36:40.567420 32469 net.cpp:399] lstm2_h_conted_0 -> h_conted_0
I0924 03:36:40.567422 32501 net.cpp:151]     with loss weight 1
I0924 03:36:40.567440 32501 net.cpp:156] Memory required for data: 98024
I0924 03:36:40.567446 32501 net.cpp:217] h_pseudoloss needs backward computation.
I0924 03:36:40.567451 32501 net.cpp:217] lstm2_h_concat needs backward computation.
I0924 03:36:40.567456 32501 net.cpp:219] lstm2_ does not need backward computation.
I0924 03:36:40.567461 32501 net.cpp:217] lstm2_unit_1 needs backward computation.
I0924 03:36:40.567456 32463 net.cpp:141] Setting up lstm2_h_concat
I0924 03:36:40.567467 32501 net.cpp:217] lstm2_gate_input_1 needs backward computation.
I0924 03:36:40.567472 32501 net.cpp:217] lstm2_transform_1 needs backward computation.
I0924 03:36:40.567476 32463 net.cpp:148] Top shape: 1 1 1000 (1000)
I0924 03:36:40.567477 32501 net.cpp:219] lstm2_h_conted_0 does not need backward computation.
I0924 03:36:40.567493 32463 net.cpp:156] Memory required for data: 98020
I0924 03:36:40.567522 32501 net.cpp:217] lstm2_W_xc_x_slice needs backward computation.
I0924 03:36:40.567525 32463 layer_factory.hpp:77] Creating layer h_pseudoloss
I0924 03:36:40.567529 32501 net.cpp:217] lstm2_x_transform needs backward computation.
I0924 03:36:40.567553 32501 net.cpp:219] cont_1_lstm2_cont_slice_0_split does not need backward computation.
I0924 03:36:40.567555 32463 net.cpp:91] Creating Layer h_pseudoloss
I0924 03:36:40.567564 32501 net.cpp:219] lstm2_cont_slice does not need backward computation.
I0924 03:36:40.567567 32463 net.cpp:425] h_pseudoloss <- h
I0924 03:36:40.567572 32501 net.cpp:219] lstm2_ does not need backward computation.
I0924 03:36:40.567577 32501 net.cpp:219] lstm2_ does not need backward computation.
I0924 03:36:40.567581 32501 net.cpp:261] This network produces output c_T
I0924 03:36:40.567582 32463 net.cpp:399] h_pseudoloss -> h_pseudoloss
I0924 03:36:40.567587 32501 net.cpp:261] This network produces output h_pseudoloss
I0924 03:36:40.567600 32485 net.cpp:141] Setting up lstm2_h_conted_0
I0924 03:36:40.567613 32485 net.cpp:148] Top shape: 1 1 1000 (1000)
I0924 03:36:40.567618 32485 net.cpp:156] Memory required for data: 50020
I0924 03:36:40.567620 32501 net.cpp:274] Network initialization done.
I0924 03:36:40.567623 32485 layer_factory.hpp:77] Creating layer lstm2_transform_1
I0924 03:36:40.567638 32485 net.cpp:91] Creating Layer lstm2_transform_1
I0924 03:36:40.567644 32485 net.cpp:425] lstm2_transform_1 <- h_conted_0
I0924 03:36:40.567656 32485 net.cpp:399] lstm2_transform_1 -> W_hc_h_0
I0924 03:36:40.567684 32501 recurrent_layer.cpp:150] Adding parameter 0: W_xc
I0924 03:36:40.567693 32501 recurrent_layer.cpp:150] Adding parameter 1: b_c
I0924 03:36:40.567698 32501 recurrent_layer.cpp:150] Adding parameter 2: W_hc
I0924 03:36:40.575870 32469 net.cpp:141] Setting up lstm2_h_conted_0
I0924 03:36:40.575947 32469 net.cpp:148] Top shape: 1 1 1000 (1000)
I0924 03:36:40.575960 32469 net.cpp:156] Memory required for data: 50020
I0924 03:36:40.575975 32469 layer_factory.hpp:77] Creating layer lstm2_transform_1
I0924 03:36:40.576007 32469 net.cpp:91] Creating Layer lstm2_transform_1
I0924 03:36:40.576023 32469 net.cpp:425] lstm2_transform_1 <- h_conted_0
I0924 03:36:40.576043 32469 net.cpp:399] lstm2_transform_1 -> W_hc_h_0
I0924 03:36:40.587889 32463 net.cpp:141] Setting up h_pseudoloss
…
I0924 03:36:40.588112 32463 net.cpp:219] lstm2_ does not need backward computation.
I0924 03:36:40.588119 32463 net.cpp:261] This network produces output c_T
I0924 03:36:40.588129 32463 net.cpp:261] This network produces output h_pseudoloss
I0924 03:36:40.588157 32463 net.cpp:274] Network initialization done.
I0924 03:36:40.588239 32463 recurrent_layer.cpp:150] Adding parameter 0: W_xc
I0924 03:36:40.588251 32463 recurrent_layer.cpp:150] Adding parameter 1: b_c
I0924 03:36:40.588258 32463 recurrent_layer.cpp:150] Adding parameter 2: W_hc
I0924 03:36:40.588431 32463 net.cpp:141] Setting up lstm2
I0924 03:36:40.588449 32463 net.cpp:148] Top shape: 1 1 1000 (1000)
I0924 03:36:40.588456 32463 net.cpp:156] Memory required for data: 36412
I0924 03:36:40.588480 32463 layer_factory.hpp:77] Creating layer predict
I0924 03:36:40.588508 32463 net.cpp:91] Creating Layer predict
I0924 03:36:40.588518 32463 net.cpp:425] predict <- lstm2
I0924 03:36:40.588532 32463 net.cpp:399] predict -> predict
I0924 03:36:40.679051 32485 net.cpp:141] Setting up lstm2_transform_1
I0924 03:36:40.679074 32501 net.cpp:141] Setting up lstm2
I0924 03:36:40.679116 32501 net.cpp:148] Top shape: 1 1 1000 (1000)
I0924 03:36:40.679116 32485 net.cpp:148] Top shape: 1 1 4000 (4000)
I0924 03:36:40.679137 32501 net.cpp:156] Memory required for data: 36412
I0924 03:36:40.679141 32485 net.cpp:156] Memory required for data: 66020
I0924 03:36:40.679167 32501 layer_factory.hpp:77] Creating layer predict
I0924 03:36:40.679165 32485 layer_factory.hpp:77] Creating layer lstm2_gate_input_1
I0924 03:36:40.679200 32501 net.cpp:91] Creating Layer predict
I0924 03:36:40.679208 32485 net.cpp:91] Creating Layer lstm2_gate_input_1
I0924 03:36:40.679214 32501 net.cpp:425] predict <- lstm2
I0924 03:36:40.679217 32485 net.cpp:425] lstm2_gate_input_1 <- W_hc_h_0
I0924 03:36:40.679229 32485 net.cpp:425] lstm2_gate_input_1 <- W_xc_x_1
I0924 03:36:40.679229 32501 net.cpp:399] predict -> predict
I0924 03:36:40.679253 32485 net.cpp:399] lstm2_gate_input_1 -> gate_input_1
I0924 03:36:40.679379 32485 net.cpp:141] Setting up lstm2_gate_input_1
I0924 03:36:40.679396 32485 net.cpp:148] Top shape: 1 1 4000 (4000)
I0924 03:36:40.679404 32485 net.cpp:156] Memory required for data: 82020
I0924 03:36:40.679414 32485 layer_factory.hpp:77] Creating layer lstm2_unit_1
I0924 03:36:40.679428 32485 net.cpp:91] Creating Layer lstm2_unit_1
I0924 03:36:40.679435 32485 net.cpp:425] lstm2_unit_1 <- c_0
I0924 03:36:40.679441 32485 net.cpp:425] lstm2_unit_1 <- gate_input_1
I0924 03:36:40.679446 32485 net.cpp:425] lstm2_unit_1 <- cont_1_lstm2_cont_slice_0_split_1
I0924 03:36:40.679458 32485 net.cpp:399] lstm2_unit_1 -> c_1
I0924 03:36:40.679469 32485 net.cpp:399] lstm2_unit_1 -> h_1
I0924 03:36:40.770639 32467 net.cpp:141] Setting up predict
I0924 03:36:40.770714 32467 net.cpp:148] Top shape: 1 1 46168 (46168)
I0924 03:36:40.770758 32467 net.cpp:156] Memory required for data: 221084
I0924 03:36:40.770797 32467 layer_factory.hpp:77] Creating layer probs
I0924 03:36:40.770835 32467 net.cpp:91] Creating Layer probs
I0924 03:36:40.770856 32467 net.cpp:425] probs <- predict
I0924 03:36:40.770884 32467 net.cpp:399] probs -> probs
I0924 03:36:40.771127 32485 net.cpp:141] Setting up lstm2_unit_1
I0924 03:36:40.771157 32485 net.cpp:148] Top shape: 1 1 1000 (1000)
I0924 03:36:40.771178 32485 net.cpp:148] Top shape: 1 1 1000 (1000)
I0924 03:36:40.771191 32485 net.cpp:156] Memory required for data: 90020
I0924 03:36:40.771209 32485 layer_factory.hpp:77] Creating layer lstm2_
I0924 03:36:40.771231 32485 net.cpp:91] Creating Layer lstm2_
I0924 03:36:40.771247 32485 net.cpp:425] lstm2_ <- c_1
I0924 03:36:40.771271 32485 net.cpp:399] lstm2_ -> c_T
I0924 03:36:40.771381 32485 net.cpp:141] Setting up lstm2_
I0924 03:36:40.771409 32485 net.cpp:148] Top shape: 1 1 1000 (1000)
I0924 03:36:40.771423 32485 net.cpp:156] Memory required for data: 94020
I0924 03:36:40.771437 32485 layer_factory.hpp:77] Creating layer lstm2_h_concat
I0924 03:36:40.771468 32485 net.cpp:91] Creating Layer lstm2_h_concat
I0924 03:36:40.771486 32485 net.cpp:425] lstm2_h_concat <- h_1
I0924 03:36:40.771508 32485 net.cpp:399] lstm2_h_concat -> h
I0924 03:36:40.771610 32485 net.cpp:141] Setting up lstm2_h_concat
I0924 03:36:40.771636 32485 net.cpp:148] Top shape: 1 1 1000 (1000)
I0924 03:36:40.771649 32485 net.cpp:156] Memory required for data: 98020
I0924 03:36:40.771664 32485 layer_factory.hpp:77] Creating layer h_pseudoloss
I0924 03:36:40.771698 32485 net.cpp:91] Creating Layer h_pseudoloss
I0924 03:36:40.771718 32485 net.cpp:425] h_pseudoloss <- h
I0924 03:36:40.771739 32485 net.cpp:399] h_pseudoloss -> h_pseudoloss
I0924 03:36:40.772006 32485 net.cpp:141] Setting up h_pseudoloss
…
I0924 03:36:40.772294 32485 net.cpp:219] lstm2_ does not need backward computation.
I0924 03:36:40.772305 32485 net.cpp:261] This network produces output c_T
I0924 03:36:40.772320 32485 net.cpp:261] This network produces output h_pseudoloss
I0924 03:36:40.772366 32485 net.cpp:274] Network initialization done.
I0924 03:36:40.772487 32485 recurrent_layer.cpp:150] Adding parameter 0: W_xc
I0924 03:36:40.772506 32485 recurrent_layer.cpp:150] Adding parameter 1: b_c
I0924 03:36:40.772521 32485 recurrent_layer.cpp:150] Adding parameter 2: W_hc
I0924 03:36:40.772809 32485 net.cpp:141] Setting up lstm2
I0924 03:36:40.772837 32485 net.cpp:148] Top shape: 1 1 1000 (1000)
I0924 03:36:40.772851 32485 net.cpp:156] Memory required for data: 36412
I0924 03:36:40.772891 32485 layer_factory.hpp:77] Creating layer predict
I0924 03:36:40.772924 32485 net.cpp:91] Creating Layer predict
I0924 03:36:40.772943 32485 net.cpp:425] predict <- lstm2
I0924 03:36:40.772966 32485 net.cpp:399] predict -> predict
I0924 03:36:40.898259 32481 net.cpp:141] Setting up predict
I0924 03:36:40.898311 32481 net.cpp:148] Top shape: 1 1 46168 (46168)
I0924 03:36:40.898319 32481 net.cpp:156] Memory required for data: 221084
I0924 03:36:40.898332 32481 layer_factory.hpp:77] Creating layer probs
I0924 03:36:40.898350 32481 net.cpp:91] Creating Layer probs
I0924 03:36:40.898358 32481 net.cpp:425] probs <- predict
I0924 03:36:40.898368 32481 net.cpp:399] probs -> probs
I0924 03:36:40.898721 32469 net.cpp:141] Setting up lstm2_transform_1
I0924 03:36:40.898736 32469 net.cpp:148] Top shape: 1 1 4000 (4000)
I0924 03:36:40.898741 32469 net.cpp:156] Memory required for data: 66020
I0924 03:36:40.898754 32469 layer_factory.hpp:77] Creating layer lstm2_gate_input_1
I0924 03:36:40.898768 32469 net.cpp:91] Creating Layer lstm2_gate_input_1
I0924 03:36:40.898775 32469 net.cpp:425] lstm2_gate_input_1 <- W_hc_h_0
I0924 03:36:40.898782 32469 net.cpp:425] lstm2_gate_input_1 <- W_xc_x_1
I0924 03:36:40.898793 32469 net.cpp:399] lstm2_gate_input_1 -> gate_input_1
I0924 03:36:40.898924 32469 net.cpp:141] Setting up lstm2_gate_input_1
I0924 03:36:40.898938 32469 net.cpp:148] Top shape: 1 1 4000 (4000)
I0924 03:36:40.898943 32469 net.cpp:156] Memory required for data: 82020
I0924 03:36:40.898952 32469 layer_factory.hpp:77] Creating layer lstm2_unit_1
I0924 03:36:40.898965 32469 net.cpp:91] Creating Layer lstm2_unit_1
I0924 03:36:40.898973 32469 net.cpp:425] lstm2_unit_1 <- c_0
I0924 03:36:40.898979 32469 net.cpp:425] lstm2_unit_1 <- gate_input_1
I0924 03:36:40.898985 32469 net.cpp:425] lstm2_unit_1 <- cont_1_lstm2_cont_slice_0_split_1
I0924 03:36:40.898994 32469 net.cpp:399] lstm2_unit_1 -> c_1
I0924 03:36:40.899003 32469 net.cpp:399] lstm2_unit_1 -> h_1
I0924 03:36:40.899144 32469 net.cpp:141] Setting up lstm2_unit_1
I0924 03:36:40.899161 32469 net.cpp:148] Top shape: 1 1 1000 (1000)
I0924 03:36:40.899173 32469 net.cpp:148] Top shape: 1 1 1000 (1000)
I0924 03:36:40.899178 32469 net.cpp:156] Memory required for data: 90020
I0924 03:36:40.899183 32469 layer_factory.hpp:77] Creating layer lstm2_
I0924 03:36:40.899191 32469 net.cpp:91] Creating Layer lstm2_
I0924 03:36:40.899196 32469 net.cpp:425] lstm2_ <- c_1
I0924 03:36:40.899204 32469 net.cpp:399] lstm2_ -> c_T
I0924 03:36:40.899364 32469 net.cpp:141] Setting up lstm2_
I0924 03:36:40.899375 32469 net.cpp:148] Top shape: 1 1 1000 (1000)
I0924 03:36:40.899379 32469 net.cpp:156] Memory required for data: 94020
I0924 03:36:40.899384 32469 layer_factory.hpp:77] Creating layer lstm2_h_concat
I0924 03:36:40.899399 32469 net.cpp:91] Creating Layer lstm2_h_concat
I0924 03:36:40.899405 32469 net.cpp:425] lstm2_h_concat <- h_1
I0924 03:36:40.899412 32469 net.cpp:399] lstm2_h_concat -> h
I0924 03:36:40.899472 32469 net.cpp:141] Setting up lstm2_h_concat
I0924 03:36:40.899482 32469 net.cpp:148] Top shape: 1 1 1000 (1000)
I0924 03:36:40.899487 32469 net.cpp:156] Memory required for data: 98020
I0924 03:36:40.899492 32469 layer_factory.hpp:77] Creating layer h_pseudoloss
I0924 03:36:40.899500 32469 net.cpp:91] Creating Layer h_pseudoloss
I0924 03:36:40.899505 32469 net.cpp:425] h_pseudoloss <- h
I0924 03:36:40.899515 32469 net.cpp:399] h_pseudoloss -> h_pseudoloss
I0924 03:36:40.899721 32469 net.cpp:141] Setting up h_pseudoloss
…
I0924 03:36:40.899817 32469 net.cpp:219] lstm2_ does not need backward computation.
I0924 03:36:40.899821 32469 net.cpp:261] This network produces output c_T
I0924 03:36:40.899827 32469 net.cpp:261] This network produces output h_pseudoloss
I0924 03:36:40.899844 32469 net.cpp:274] Network initialization done.
I0924 03:36:40.899895 32469 recurrent_layer.cpp:150] Adding parameter 0: W_xc
I0924 03:36:40.899901 32469 recurrent_layer.cpp:150] Adding parameter 1: b_c
I0924 03:36:40.899906 32469 recurrent_layer.cpp:150] Adding parameter 2: W_hc
I0924 03:36:40.900046 32469 net.cpp:141] Setting up lstm2
I0924 03:36:40.900059 32469 net.cpp:148] Top shape: 1 1 1000 (1000)
I0924 03:36:40.900064 32469 net.cpp:156] Memory required for data: 36412
I0924 03:36:40.900079 32469 layer_factory.hpp:77] Creating layer predict
I0924 03:36:40.900094 32469 net.cpp:91] Creating Layer predict
I0924 03:36:40.900100 32469 net.cpp:425] predict <- lstm2
I0924 03:36:40.900108 32469 net.cpp:399] predict -> predict
I0924 03:36:40.899559 32511 net.cpp:141] Setting up predict
I0924 03:36:40.908649 32511 net.cpp:148] Top shape: 1 1 46168 (46168)
I0924 03:36:40.908782 32511 net.cpp:156] Memory required for data: 221084
I0924 03:36:40.910732 32511 layer_factory.hpp:77] Creating layer probs
I0924 03:36:40.911069 32511 net.cpp:91] Creating Layer probs
I0924 03:36:40.911245 32511 net.cpp:425] probs <- predict
I0924 03:36:40.911373 32511 net.cpp:399] probs -> probs
I0924 03:36:40.987653 32473 net.cpp:141] Setting up predict
I0924 03:36:40.987709 32473 net.cpp:148] Top shape: 1 1 46168 (46168)
I0924 03:36:40.987716 32473 net.cpp:156] Memory required for data: 221084
I0924 03:36:40.987732 32473 layer_factory.hpp:77] Creating layer probs
I0924 03:36:40.987753 32473 net.cpp:91] Creating Layer probs
I0924 03:36:40.987761 32473 net.cpp:425] probs <- predict
I0924 03:36:40.987772 32473 net.cpp:399] probs -> probs
I0924 03:36:41.112751 32463 net.cpp:141] Setting up predict
I0924 03:36:41.112804 32463 net.cpp:148] Top shape: 1 1 46168 (46168)
I0924 03:36:41.112813 32463 net.cpp:156] Memory required for data: 221084
I0924 03:36:41.112835 32463 layer_factory.hpp:77] Creating layer probs
I0924 03:36:41.112859 32463 net.cpp:91] Creating Layer probs
I0924 03:36:41.112869 32463 net.cpp:425] probs <- predict
I0924 03:36:41.112886 32463 net.cpp:399] probs -> probs
I0924 03:36:41.168001 32473 net.cpp:141] Setting up probs
I0924 03:36:41.168061 32473 net.cpp:148] Top shape: 1 1 46168 (46168)
I0924 03:36:41.168071 32473 net.cpp:156] Memory required for data: 405756
I0924 03:36:41.168084 32473 net.cpp:219] probs does not need backward computation.
I0924 03:36:41.168095 32473 net.cpp:219] predict does not need backward computation.
I0924 03:36:41.168105 32473 net.cpp:219] lstm2 does not need backward computation.
I0924 03:36:41.168114 32473 net.cpp:219] concat does not need backward computation.
I0924 03:36:41.168124 32473 net.cpp:219] lstm1 does not need backward computation.
I0924 03:36:41.168135 32473 net.cpp:219] embedding does not need backward computation.
I0924 03:36:41.168146 32473 net.cpp:219] reshape_stage_indicator does not need backward computation.
I0924 03:36:41.168156 32473 net.cpp:219] reshape_frames does not need backward computation.
I0924 03:36:41.168165 32473 net.cpp:219] embed_encoder does not need backward computation.
I0924 03:36:41.168174 32473 net.cpp:219] cont_sentence_input_1_split does not need backward computation.
I0924 03:36:41.168184 32473 net.cpp:219] input does not need backward computation.
I0924 03:36:41.168190 32473 net.cpp:261] This network produces output probs
I0924 03:36:41.168221 32473 net.cpp:274] Network initialization done.
I0924 03:36:41.176796 32511 net.cpp:141] Setting up probs
I0924 03:36:41.176820 32467 net.cpp:141] Setting up probs
I0924 03:36:41.176853 32467 net.cpp:148] Top shape: 1 1 46168 (46168)
I0924 03:36:41.176854 32511 net.cpp:148] Top shape: 1 1 46168 (46168)
I0924 03:36:41.176861 32467 net.cpp:156] Memory required for data: 405756
I0924 03:36:41.176863 32511 net.cpp:156] Memory required for data: 405756
I0924 03:36:41.176872 32467 net.cpp:219] probs does not need backward computation.
I0924 03:36:41.176873 32511 net.cpp:219] probs does not need backward computation.
I0924 03:36:41.176879 32467 net.cpp:219] predict does not need backward computation.
…
I0924 03:36:41.177145 32463 net.cpp:219] reshape_frames does not need backward computation.
I0924 03:36:41.177155 32463 net.cpp:219] embed_encoder does not need backward computation.
I0924 03:36:41.177165 32463 net.cpp:219] cont_sentence_input_1_split does not need backward computation.
I0924 03:36:41.177175 32463 net.cpp:219] input does not need backward computation.
I0924 03:36:41.177183 32463 net.cpp:261] This network produces output probs
I0924 03:36:41.177211 32463 net.cpp:274] Network initialization done.
I0924 03:36:41.193047 32481 net.cpp:141] Setting up probs
I0924 03:36:41.193104 32481 net.cpp:148] Top shape: 1 1 46168 (46168)
I0924 03:36:41.193116 32481 net.cpp:156] Memory required for data: 405756
I0924 03:36:41.193128 32481 net.cpp:219] probs does not need backward computation.
I0924 03:36:41.193141 32481 net.cpp:219] predict does not need backward computation.
I0924 03:36:41.193151 32481 net.cpp:219] lstm2 does not need backward computation.
I0924 03:36:41.193161 32481 net.cpp:219] concat does not need backward computation.
I0924 03:36:41.193172 32481 net.cpp:219] lstm1 does not need backward computation.
I0924 03:36:41.193183 32481 net.cpp:219] embedding does not need backward computation.
I0924 03:36:41.193192 32481 net.cpp:219] reshape_stage_indicator does not need backward computation.
I0924 03:36:41.193202 32481 net.cpp:219] reshape_frames does not need backward computation.
I0924 03:36:41.193209 32481 net.cpp:219] embed_encoder does not need backward computation.
I0924 03:36:41.193219 32481 net.cpp:219] cont_sentence_input_1_split does not need backward computation.
I0924 03:36:41.193228 32481 net.cpp:219] input does not need backward computation.
I0924 03:36:41.193236 32481 net.cpp:261] This network produces output probs
I0924 03:36:41.193271 32481 net.cpp:274] Network initialization done.
I0924 03:36:41.216321 32503 net.cpp:141] Setting up conv1
I0924 03:36:41.216424 32503 net.cpp:148] Top shape: 10 96 55 55 (2904000)
I0924 03:36:41.216439 32503 net.cpp:156] Memory required for data: 17799480
I0924 03:36:41.217845 32503 layer_factory.hpp:77] Creating layer relu1
I0924 03:36:41.217901 32503 net.cpp:91] Creating Layer relu1
I0924 03:36:41.217916 32503 net.cpp:425] relu1 <- conv1
I0924 03:36:41.217934 32503 net.cpp:386] relu1 -> conv1 (in-place)
I0924 03:36:41.221731 32503 net.cpp:141] Setting up relu1
I0924 03:36:41.221819 32503 net.cpp:148] Top shape: 10 96 55 55 (2904000)
I0924 03:36:41.221834 32503 net.cpp:156] Memory required for data: 29415480
I0924 03:36:41.221848 32503 layer_factory.hpp:77] Creating layer pool1
I0924 03:36:41.221899 32503 net.cpp:91] Creating Layer pool1
I0924 03:36:41.221915 32503 net.cpp:425] pool1 <- conv1
I0924 03:36:41.221951 32503 net.cpp:399] pool1 -> pool1
I0924 03:36:41.223306 32503 net.cpp:141] Setting up pool1
I0924 03:36:41.223342 32503 net.cpp:148] Top shape: 10 96 27 27 (699840)
I0924 03:36:41.223351 32503 net.cpp:156] Memory required for data: 32214840
I0924 03:36:41.223362 32503 layer_factory.hpp:77] Creating layer norm1
I0924 03:36:41.223400 32503 net.cpp:91] Creating Layer norm1
I0924 03:36:41.223412 32503 net.cpp:425] norm1 <- pool1
I0924 03:36:41.228360 32503 net.cpp:399] norm1 -> norm1
I0924 03:36:41.235687 32503 net.cpp:141] Setting up norm1
I0924 03:36:41.235749 32503 net.cpp:148] Top shape: 10 96 27 27 (699840)
I0924 03:36:41.235759 32503 net.cpp:156] Memory required for data: 35014200
I0924 03:36:41.235774 32503 layer_factory.hpp:77] Creating layer conv2
I0924 03:36:41.235808 32503 net.cpp:91] Creating Layer conv2
I0924 03:36:41.235819 32503 net.cpp:425] conv2 <- norm1
I0924 03:36:41.239070 32503 net.cpp:399] conv2 -> conv2
I0924 03:36:41.243923 32501 net.cpp:141] Setting up predict
I0924 03:36:41.244410 32501 net.cpp:148] Top shape: 1 1 46168 (46168)
I0924 03:36:41.244593 32501 net.cpp:156] Memory required for data: 221084
I0924 03:36:41.244627 32501 layer_factory.hpp:77] Creating layer probs
I0924 03:36:41.244657 32501 net.cpp:91] Creating Layer probs
I0924 03:36:41.244670 32501 net.cpp:425] probs <- predict
I0924 03:36:41.244690 32501 net.cpp:399] probs -> probs
I0924 03:36:41.245924 32501 net.cpp:141] Setting up probs
I0924 03:36:41.245964 32501 net.cpp:148] Top shape: 1 1 46168 (46168)
I0924 03:36:41.245972 32501 net.cpp:156] Memory required for data: 405756
I0924 03:36:41.245985 32501 net.cpp:219] probs does not need backward computation.
I0924 03:36:41.245995 32501 net.cpp:219] predict does not need backward computation.
I0924 03:36:41.246004 32501 net.cpp:219] lstm2 does not need backward computation.
I0924 03:36:41.246014 32501 net.cpp:219] concat does not need backward computation.
I0924 03:36:41.246023 32501 net.cpp:219] lstm1 does not need backward computation.
I0924 03:36:41.246033 32501 net.cpp:219] embedding does not need backward computation.
I0924 03:36:41.246042 32501 net.cpp:219] reshape_stage_indicator does not need backward computation.
I0924 03:36:41.246050 32501 net.cpp:219] reshape_frames does not need backward computation.
I0924 03:36:41.246059 32501 net.cpp:219] embed_encoder does not need backward computation.
I0924 03:36:41.246068 32501 net.cpp:219] cont_sentence_input_1_split does not need backward computation.
I0924 03:36:41.246078 32501 net.cpp:219] input does not need backward computation.
I0924 03:36:41.246084 32501 net.cpp:261] This network produces output probs
I0924 03:36:41.246115 32501 net.cpp:274] Network initialization done.
I0924 03:36:41.321770 32503 net.cpp:141] Setting up conv2
I0924 03:36:41.322319 32503 net.cpp:148] Top shape: 10 256 27 27 (1866240)
I0924 03:36:41.322561 32503 net.cpp:156] Memory required for data: 42479160
I0924 03:36:41.322754 32503 layer_factory.hpp:77] Creating layer relu2
I0924 03:36:41.322928 32503 net.cpp:91] Creating Layer relu2
I0924 03:36:41.323078 32503 net.cpp:425] relu2 <- conv2
I0924 03:36:41.323283 32503 net.cpp:386] relu2 -> conv2 (in-place)
I0924 03:36:41.325453 32503 net.cpp:141] Setting up relu2
I0924 03:36:41.326279 32503 net.cpp:148] Top shape: 10 256 27 27 (1866240)
I0924 03:36:41.326702 32503 net.cpp:156] Memory required for data: 49944120
I0924 03:36:41.326944 32503 layer_factory.hpp:77] Creating layer pool2
I0924 03:36:41.327458 32503 net.cpp:91] Creating Layer pool2
I0924 03:36:41.327932 32503 net.cpp:425] pool2 <- conv2
I0924 03:36:41.328256 32503 net.cpp:399] pool2 -> pool2
I0924 03:36:41.329676 32503 net.cpp:141] Setting up pool2
I0924 03:36:41.330508 32503 net.cpp:148] Top shape: 10 256 13 13 (432640)
I0924 03:36:41.330879 32503 net.cpp:156] Memory required for data: 51674680
I0924 03:36:41.331143 32503 layer_factory.hpp:77] Creating layer norm2
I0924 03:36:41.331635 32503 net.cpp:91] Creating Layer norm2
I0924 03:36:41.331929 32503 net.cpp:425] norm2 <- pool2
I0924 03:36:41.332202 32503 net.cpp:399] norm2 -> norm2
I0924 03:36:41.334496 32503 net.cpp:141] Setting up norm2
I0924 03:36:41.335376 32503 net.cpp:148] Top shape: 10 256 13 13 (432640)
I0924 03:36:41.335813 32503 net.cpp:156] Memory required for data: 53405240
I0924 03:36:41.336072 32503 layer_factory.hpp:77] Creating layer conv3
I0924 03:36:41.336482 32503 net.cpp:91] Creating Layer conv3
I0924 03:36:41.336779 32503 net.cpp:425] conv3 <- norm2
I0924 03:36:41.337107 32503 net.cpp:399] conv3 -> conv3
I0924 03:36:41.367602 32503 net.cpp:141] Setting up conv3
I0924 03:36:41.368252 32503 net.cpp:148] Top shape: 10 384 13 13 (648960)
I0924 03:36:41.368468 32503 net.cpp:156] Memory required for data: 56001080
I0924 03:36:41.368666 32503 layer_factory.hpp:77] Creating layer relu3
I0924 03:36:41.368844 32503 net.cpp:91] Creating Layer relu3
I0924 03:36:41.369004 32503 net.cpp:425] relu3 <- conv3
I0924 03:36:41.369254 32503 net.cpp:386] relu3 -> conv3 (in-place)
I0924 03:36:41.370860 32503 net.cpp:141] Setting up relu3
I0924 03:36:41.371484 32503 net.cpp:148] Top shape: 10 384 13 13 (648960)
I0924 03:36:41.371659 32503 net.cpp:156] Memory required for data: 58596920
I0924 03:36:41.371852 32503 layer_factory.hpp:77] Creating layer conv4
I0924 03:36:41.372138 32503 net.cpp:91] Creating Layer conv4
I0924 03:36:41.372409 32503 net.cpp:425] conv4 <- conv3
I0924 03:36:41.372603 32503 net.cpp:399] conv4 -> conv4
I0924 03:36:41.406558 32485 net.cpp:141] Setting up predict
I0924 03:36:41.406656 32485 net.cpp:148] Top shape: 1 1 46168 (46168)
I0924 03:36:41.406668 32485 net.cpp:156] Memory required for data: 221084
I0924 03:36:41.406693 32485 layer_factory.hpp:77] Creating layer probs
I0924 03:36:41.406719 32485 net.cpp:91] Creating Layer probs
I0924 03:36:41.406733 32485 net.cpp:425] probs <- predict
I0924 03:36:41.406749 32485 net.cpp:399] probs -> probs
I0924 03:36:41.415067 32485 net.cpp:141] Setting up probs
I0924 03:36:41.415544 32485 net.cpp:148] Top shape: 1 1 46168 (46168)
I0924 03:36:41.415668 32485 net.cpp:156] Memory required for data: 405756
I0924 03:36:41.415794 32485 net.cpp:219] probs does not need backward computation.
I0924 03:36:41.415916 32485 net.cpp:219] predict does not need backward computation.
I0924 03:36:41.416038 32485 net.cpp:219] lstm2 does not need backward computation.
I0924 03:36:41.416267 32485 net.cpp:219] concat does not need backward computation.
I0924 03:36:41.416386 32485 net.cpp:219] lstm1 does not need backward computation.
I0924 03:36:41.416499 32485 net.cpp:219] embedding does not need backward computation.
I0924 03:36:41.416621 32485 net.cpp:219] reshape_stage_indicator does not need backward computation.
I0924 03:36:41.416735 32485 net.cpp:219] reshape_frames does not need backward computation.
I0924 03:36:41.416853 32485 net.cpp:219] embed_encoder does not need backward computation.
I0924 03:36:41.416997 32485 net.cpp:219] cont_sentence_input_1_split does not need backward computation.
I0924 03:36:41.417153 32485 net.cpp:219] input does not need backward computation.
I0924 03:36:41.417268 32485 net.cpp:261] This network produces output probs
I0924 03:36:41.417405 32485 net.cpp:274] Network initialization done.
I0924 03:36:41.429481 32503 net.cpp:141] Setting up conv4
I0924 03:36:41.429533 32503 net.cpp:148] Top shape: 10 384 13 13 (648960)
I0924 03:36:41.429541 32503 net.cpp:156] Memory required for data: 61192760
I0924 03:36:41.429564 32503 layer_factory.hpp:77] Creating layer relu4
I0924 03:36:41.429587 32503 net.cpp:91] Creating Layer relu4
I0924 03:36:41.429595 32503 net.cpp:425] relu4 <- conv4
I0924 03:36:41.429608 32503 net.cpp:386] relu4 -> conv4 (in-place)
I0924 03:36:41.431676 32503 net.cpp:141] Setting up relu4
I0924 03:36:41.431725 32503 net.cpp:148] Top shape: 10 384 13 13 (648960)
I0924 03:36:41.431732 32503 net.cpp:156] Memory required for data: 63788600
I0924 03:36:41.431741 32503 layer_factory.hpp:77] Creating layer conv5
I0924 03:36:41.432648 32503 net.cpp:91] Creating Layer conv5
I0924 03:36:41.432695 32503 net.cpp:425] conv5 <- conv4
I0924 03:36:41.432723 32503 net.cpp:399] conv5 -> conv5
I0924 03:36:41.459874 32469 net.cpp:141] Setting up predict
I0924 03:36:41.459929 32469 net.cpp:148] Top shape: 1 1 46168 (46168)
I0924 03:36:41.459935 32469 net.cpp:156] Memory required for data: 221084
I0924 03:36:41.459952 32469 layer_factory.hpp:77] Creating layer probs
I0924 03:36:41.459971 32469 net.cpp:91] Creating Layer probs
I0924 03:36:41.459978 32469 net.cpp:425] probs <- predict
I0924 03:36:41.459990 32469 net.cpp:399] probs -> probs
I0924 03:36:41.462213 32469 net.cpp:141] Setting up probs
I0924 03:36:41.463352 32469 net.cpp:148] Top shape: 1 1 46168 (46168)
I0924 03:36:41.463522 32469 net.cpp:156] Memory required for data: 405756
I0924 03:36:41.463646 32469 net.cpp:219] probs does not need backward computation.
I0924 03:36:41.463762 32469 net.cpp:219] predict does not need backward computation.
I0924 03:36:41.463872 32469 net.cpp:219] lstm2 does not need backward computation.
I0924 03:36:41.463981 32469 net.cpp:219] concat does not need backward computation.
I0924 03:36:41.464128 32469 net.cpp:219] lstm1 does not need backward computation.
I0924 03:36:41.464148 32469 net.cpp:219] embedding does not need backward computation.
I0924 03:36:41.464157 32469 net.cpp:219] reshape_stage_indicator does not need backward computation.
I0924 03:36:41.464165 32469 net.cpp:219] reshape_frames does not need backward computation.
I0924 03:36:41.464174 32469 net.cpp:219] embed_encoder does not need backward computation.
I0924 03:36:41.464184 32469 net.cpp:219] cont_sentence_input_1_split does not need backward computation.
I0924 03:36:41.464193 32469 net.cpp:219] input does not need backward computation.
I0924 03:36:41.464200 32469 net.cpp:261] This network produces output probs
I0924 03:36:41.464228 32469 net.cpp:274] Network initialization done.
I0924 03:36:41.521149 32503 net.cpp:141] Setting up conv5
I0924 03:36:41.521211 32503 net.cpp:148] Top shape: 10 256 13 13 (432640)
I0924 03:36:41.521224 32503 net.cpp:156] Memory required for data: 65519160
I0924 03:36:41.521689 32503 layer_factory.hpp:77] Creating layer relu5
I0924 03:36:41.521730 32503 net.cpp:91] Creating Layer relu5
I0924 03:36:41.521745 32503 net.cpp:425] relu5 <- conv5
I0924 03:36:41.521769 32503 net.cpp:386] relu5 -> conv5 (in-place)
I0924 03:36:41.523718 32503 net.cpp:141] Setting up relu5
I0924 03:36:41.523787 32503 net.cpp:148] Top shape: 10 256 13 13 (432640)
I0924 03:36:41.523797 32503 net.cpp:156] Memory required for data: 67249720
I0924 03:36:41.523814 32503 layer_factory.hpp:77] Creating layer pool5
I0924 03:36:41.523845 32503 net.cpp:91] Creating Layer pool5
I0924 03:36:41.523859 32503 net.cpp:425] pool5 <- conv5
I0924 03:36:41.523882 32503 net.cpp:399] pool5 -> pool5
I0924 03:36:41.524811 32503 net.cpp:141] Setting up pool5
I0924 03:36:41.524874 32503 net.cpp:148] Top shape: 10 256 6 6 (92160)
I0924 03:36:41.524884 32503 net.cpp:156] Memory required for data: 67618360
I0924 03:36:41.524896 32503 layer_factory.hpp:77] Creating layer fc6
I0924 03:36:41.525535 32503 net.cpp:91] Creating Layer fc6
I0924 03:36:41.525566 32503 net.cpp:425] fc6 <- pool5
I0924 03:36:41.525590 32503 net.cpp:399] fc6 -> fc6
I0924 03:36:41.669237 32503 net.cpp:141] Setting up fc6
I0924 03:36:41.669298 32503 net.cpp:148] Top shape: 10 4096 (40960)
I0924 03:36:41.669308 32503 net.cpp:156] Memory required for data: 67782200
I0924 03:36:41.669330 32503 layer_factory.hpp:77] Creating layer relu6
I0924 03:36:41.669354 32503 net.cpp:91] Creating Layer relu6
I0924 03:36:41.669371 32503 net.cpp:425] relu6 <- fc6
I0924 03:36:41.669385 32503 net.cpp:386] relu6 -> fc6 (in-place)
I0924 03:36:41.680210 32503 net.cpp:141] Setting up relu6
I0924 03:36:41.680289 32503 net.cpp:148] Top shape: 10 4096 (40960)
I0924 03:36:41.680315 32503 net.cpp:156] Memory required for data: 67946040
I0924 03:36:41.680328 32503 layer_factory.hpp:77] Creating layer drop6
I0924 03:36:41.680371 32503 net.cpp:91] Creating Layer drop6
I0924 03:36:41.680387 32503 net.cpp:425] drop6 <- fc6
I0924 03:36:41.680403 32503 net.cpp:386] drop6 -> fc6 (in-place)
I0924 03:36:41.680682 32503 net.cpp:141] Setting up drop6
I0924 03:36:41.680717 32503 net.cpp:148] Top shape: 10 4096 (40960)
I0924 03:36:41.680727 32503 net.cpp:156] Memory required for data: 68109880
I0924 03:36:41.680737 32503 layer_factory.hpp:77] Creating layer fc7
I0924 03:36:41.683255 32503 net.cpp:91] Creating Layer fc7
I0924 03:36:41.683308 32503 net.cpp:425] fc7 <- fc6
I0924 03:36:41.683918 32503 net.cpp:399] fc7 -> fc7
I0924 03:36:41.753139 32503 net.cpp:141] Setting up fc7
I0924 03:36:41.753196 32503 net.cpp:148] Top shape: 10 4096 (40960)
I0924 03:36:41.753201 32503 net.cpp:156] Memory required for data: 68273720
I0924 03:36:41.753218 32503 layer_factory.hpp:77] Creating layer relu7
I0924 03:36:41.753235 32503 net.cpp:91] Creating Layer relu7
I0924 03:36:41.753243 32503 net.cpp:425] relu7 <- fc7
I0924 03:36:41.753252 32503 net.cpp:386] relu7 -> fc7 (in-place)
I0924 03:36:41.759165 32503 net.cpp:141] Setting up relu7
I0924 03:36:41.759227 32503 net.cpp:148] Top shape: 10 4096 (40960)
I0924 03:36:41.759234 32503 net.cpp:156] Memory required for data: 68437560
I0924 03:36:41.759245 32503 layer_factory.hpp:77] Creating layer drop7
I0924 03:36:41.759266 32503 net.cpp:91] Creating Layer drop7
I0924 03:36:41.759274 32503 net.cpp:425] drop7 <- fc7
I0924 03:36:41.759734 32503 net.cpp:386] drop7 -> fc7 (in-place)
I0924 03:36:41.759891 32503 net.cpp:141] Setting up drop7
I0924 03:36:41.759908 32503 net.cpp:148] Top shape: 10 4096 (40960)
I0924 03:36:41.759914 32503 net.cpp:156] Memory required for data: 68601400
I0924 03:36:41.759920 32503 layer_factory.hpp:77] Creating layer fc8
I0924 03:36:41.760535 32503 net.cpp:91] Creating Layer fc8
I0924 03:36:41.760555 32503 net.cpp:425] fc8 <- fc7
I0924 03:36:41.760568 32503 net.cpp:399] fc8 -> fc8
I0924 03:36:41.778340 32503 net.cpp:141] Setting up fc8
I0924 03:36:41.778398 32503 net.cpp:148] Top shape: 10 1000 (10000)
I0924 03:36:41.778408 32503 net.cpp:156] Memory required for data: 68641400
I0924 03:36:41.778429 32503 layer_factory.hpp:77] Creating layer prob
I0924 03:36:41.778452 32503 net.cpp:91] Creating Layer prob
I0924 03:36:41.778463 32503 net.cpp:425] prob <- fc8
I0924 03:36:41.778478 32503 net.cpp:399] prob -> prob
I0924 03:36:41.799489 32503 net.cpp:141] Setting up prob
I0924 03:36:41.799561 32503 net.cpp:148] Top shape: 10 1000 (10000)
I0924 03:36:41.799571 32503 net.cpp:156] Memory required for data: 68681400
I0924 03:36:41.799592 32503 net.cpp:219] prob does not need backward computation.
I0924 03:36:41.799605 32503 net.cpp:219] fc8 does not need backward computation.
I0924 03:36:41.799615 32503 net.cpp:219] drop7 does not need backward computation.
I0924 03:36:41.799623 32503 net.cpp:219] relu7 does not need backward computation.
…
