…
Java HotSpot(TM) 64-Bit Server VM warning: You have loaded library /tmp/cvld5284342568722582454/libopencv_java310.xine1.so which might have disabled stack guard. The VM will try to fix the stack guard now.
It's highly recommended that you fix the library with 'execstack -c <libfile>', or link it with '-z noexecstack'.
WARNING: Logging before InitGoogleLogging() is written to STDERR
I0802 08:04:50.971771 30994 net.cpp:49] Initializing net from parameters: 
name: "CaffeNet"
state {
  phase: TEST
}
layer {
  name: "data"
  type: "Input"
  top: "data"
  input_param {
    shape {
      dim: 10
      dim: 3
      dim: 227
      dim: 227
    }
  }
}
layer {
  name: "conv1"
  type: "Convolution"
  bottom: "data"
  top: "conv1"
  convolution_param {
    num_output: 96
    kernel_size: 11
    stride: 4
  }
}
layer {
  name: "relu1"
  type: "ReLU"
  bottom: "conv1"
  top: "conv1"
}
layer {
  name: "pool1"
  type: "Pooling"
  bottom: "conv1"
  top: "pool1"
  pooling_param {
    pool: MAX
    kernel_size: 3
    stride: 2
  }
}
layer {
  name: "norm1"
  type: "LRN"
  bottom: "pool1"
  top: "norm1"
  lrn_param {
    local_size: 5
    alpha: 0.0001
    beta: 0.75
  }
}
layer {
  name: "conv2"
  type: "Convolution"
  bottom: "norm1"
  top: "conv2"
  convolution_param {
    num_output: 256
    pad: 2
    kernel_size: 5
    group: 2
  }
}
layer {
  name: "relu2"
  type: "ReLU"
  bottom: "conv2"
  top: "conv2"
}
layer {
  name: "pool2"
  type: "Pooling"
  bottom: "conv2"
  top: "pool2"
  pooling_param {
    pool: MAX
    kernel_size: 3
    stride: 2
  }
}
layer {
  name: "norm2"
  type: "LRN"
  bottom: "pool2"
  top: "norm2"
  lrn_param {
    local_size: 5
    alpha: 0.0001
    beta: 0.75
  }
}
layer {
  name: "conv3"
  type: "Convolution"
  bottom: "norm2"
  top: "conv3"
  convolution_param {
    num_output: 384
    pad: 1
    kernel_size: 3
  }
}
layer {
  name: "relu3"
  type: "ReLU"
  bottom: "conv3"
  top: "conv3"
}
layer {
  name: "conv4"
  type: "Convolution"
  bottom: "conv3"
  top: "conv4"
  convolution_param {
    num_output: 384
    pad: 1
    kernel_size: 3
    group: 2
  }
}
layer {
  name: "relu4"
  type: "ReLU"
  bottom: "conv4"
  top: "conv4"
}
layer {
  name: "conv5"
  type: "Convolution"
  bottom: "conv4"
  top: "conv5"
  convolution_param {
    num_output: 256
    pad: 1
    kernel_size: 3
    group: 2
  }
}
layer {
  name: "relu5"
  type: "ReLU"
  bottom: "conv5"
  top: "conv5"
}
layer {
  name: "pool5"
  type: "Pooling"
  bottom: "conv5"
  top: "pool5"
  pooling_param {
    pool: MAX
    kernel_size: 3
    stride: 2
  }
}
layer {
  name: "fc6"
  type: "InnerProduct"
  bottom: "pool5"
  top: "fc6"
  inner_product_param {
    num_output: 4096
  }
}
layer {
  name: "relu6"
  type: "ReLU"
  bottom: "fc6"
  top: "fc6"
}
layer {
  name: "drop6"
  type: "Dropout"
  bottom: "fc6"
  top: "fc6"
  dropout_param {
    dropout_ratio: 0.5
  }
}
layer {
  name: "fc7"
  type: "InnerProduct"
  bottom: "fc6"
  top: "fc7"
  inner_product_param {
    num_output: 4096
  }
}
layer {
  name: "relu7"
  type: "ReLU"
  bottom: "fc7"
  top: "fc7"
}
layer {
  name: "drop7"
  type: "Dropout"
  bottom: "fc7"
  top: "fc7"
  dropout_param {
    dropout_ratio: 0.5
  }
}
layer {
  name: "fc8"
  type: "InnerProduct"
  bottom: "fc7"
  top: "fc8"
  inner_product_param {
    num_output: 1000
  }
}
layer {
  name: "prob"
  type: "Softmax"
  bottom: "fc8"
  top: "prob"
}
I0802 08:04:50.971971 30994 layer_factory.hpp:77] Creating layer data
I0802 08:04:50.971994 30994 net.cpp:91] Creating Layer data
I0802 08:04:50.972004 30994 net.cpp:399] data -> data
I0802 08:04:51.442209 30994 net.cpp:141] Setting up data
I0802 08:04:51.442314 30994 net.cpp:148] Top shape: 10 3 227 227 (1545870)
I0802 08:04:51.442322 30994 net.cpp:156] Memory required for data: 6183480
I0802 08:04:51.442342 30994 layer_factory.hpp:77] Creating layer conv1
I0802 08:04:51.442373 30994 net.cpp:91] Creating Layer conv1
I0802 08:04:51.442383 30994 net.cpp:425] conv1 <- data
I0802 08:04:51.442396 30994 net.cpp:399] conv1 -> conv1
I0802 08:04:51.507283 30984 upgrade_proto.cpp:66] Attempting to upgrade input file specified using deprecated input fields: /tmp/cvld5284342568722582454/s2vt.words_to_preds.prototxt
I0802 08:04:51.507364 30984 upgrade_proto.cpp:69] Successfully upgraded file specified using deprecated input fields.
W0802 08:04:51.507388 30984 upgrade_proto.cpp:71] Note that future Caffe releases will only support input layers and not input fields.
I0802 08:04:51.507623 30984 net.cpp:49] Initializing net from parameters: 
name: "s2vt:features_to_lstm"
state {
  phase: TEST
}
layer {
  name: "input"
  type: "Input"
  top: "frames_fc7"
  top: "cont_sentence"
  top: "input_sentence"
  top: "stage_indicator"
  input_param {
    shape {
      dim: 1
      dim: 4096
    }
    shape {
      dim: 1
      dim: 1
    }
    shape {
      dim: 1
      dim: 1
    }
    shape {
      dim: 1
      dim: 1
    }
  }
}
layer {
  name: "embed_encoder"
  type: "InnerProduct"
  bottom: "frames_fc7"
  top: "embedded_in_frames"
  param {
    lr_mult: 1
    decay_mult: 1
  }
  param {
    lr_mult: 2
    decay_mult: 0
  }
  inner_product_param {
    num_output: 500
    weight_filler {
      type: "xavier"
    }
    bias_filler {
      type: "constant"
      value: 0.2
    }
  }
}
layer {
  name: "reshape_frames"
  type: "Reshape"
  bottom: "embedded_in_frames"
  top: "embedded_input_frames"
  reshape_param {
    shape {
      dim: 1
      dim: 1
      dim: 500
    }
  }
}
layer {
  name: "reshape_stage_indicator"
  type: "Reshape"
  bottom: "stage_indicator"
  top: "reshaped_stage_indicator"
  reshape_param {
    shape {
      dim: 1
      dim: 1
      dim: 1
    }
  }
}
layer {
  name: "embedding"
  type: "Embed"
  bottom: "input_sentence"
  top: "embedded_input_sentence"
  param {
    lr_mult: 1
  }
  embed_param {
    num_output: 500
    input_dim: 46168
    bias_term: false
    weight_filler {
      type: "uniform"
      min: -0.08
      max: 0.08
    }
  }
}
layer {
  name: "lstm1"
  type: "LSTM"
  bottom: "embedded_input_frames"
  bottom: "cont_sentence"
  top: "lstm1"
  recurrent_param {
    num_output: 1000
    weight_filler {
      type: "uniform"
      min: -0.08
      max: 0.08
    }
    bias_filler {
      type: "constant"
      value: 0
    }
  }
}
layer {
  name: "concat"
  type: "Concat"
  bottom: "lstm1"
  bottom: "embedded_input_sentence"
  bottom: "reshaped_stage_indicator"
  top: "lstm1_video_sequence"
  concat_param {
    concat_dim: 2
  }
}
layer {
  name: "lstm2"
  type: "LSTM"
  bottom: "lstm1_video_sequence"
  bottom: "cont_sentence"
  top: "lstm2"
  recurrent_param {
    num_output: 1000
    weight_filler {
      type: "uniform"
      min: -0.08
      max: 0.08
    }
    bias_filler {
      type: "constant"
      value: 0
    }
  }
}
layer {
  name: "predict"
  type: "InnerProduct"
  bottom: "lstm2"
  top: "predict"
  param {
    lr_mult: 1
    decay_mult: 1
  }
  param {
    lr_mult: 2
    decay_mult: 0
  }
  inner_product_param {
    num_output: 46168
    weight_filler {
      type: "uniform"
      min: -0.08
      max: 0.08
    }
    bias_filler {
      type: "constant"
      value: 0
    }
    axis: 2
  }
}
layer {
  name: "probs"
  type: "Softmax"
  bottom: "predict"
  top: "probs"
  softmax_param {
    axis: 2
  }
}
I0802 08:04:51.507717 30984 layer_factory.hpp:77] Creating layer input
I0802 08:04:51.507732 30984 net.cpp:91] Creating Layer input
I0802 08:04:51.507740 30984 net.cpp:399] input -> frames_fc7
I0802 08:04:51.507756 30984 net.cpp:399] input -> cont_sentence
I0802 08:04:51.507766 30984 net.cpp:399] input -> input_sentence
I0802 08:04:51.507776 30984 net.cpp:399] input -> stage_indicator
I0802 08:04:51.510675 30984 net.cpp:141] Setting up input
I0802 08:04:51.510702 30984 net.cpp:148] Top shape: 1 4096 (4096)
I0802 08:04:51.510713 30984 net.cpp:148] Top shape: 1 1 (1)
I0802 08:04:51.510723 30984 net.cpp:148] Top shape: 1 1 (1)
I0802 08:04:51.510733 30984 net.cpp:148] Top shape: 1 1 (1)
I0802 08:04:51.510740 30984 net.cpp:156] Memory required for data: 16396
I0802 08:04:51.510749 30984 layer_factory.hpp:77] Creating layer cont_sentence_input_1_split
I0802 08:04:51.510773 30984 net.cpp:91] Creating Layer cont_sentence_input_1_split
I0802 08:04:51.510782 30984 net.cpp:425] cont_sentence_input_1_split <- cont_sentence
I0802 08:04:51.510812 30984 net.cpp:399] cont_sentence_input_1_split -> cont_sentence_input_1_split_0
I0802 08:04:51.510831 30984 net.cpp:399] cont_sentence_input_1_split -> cont_sentence_input_1_split_1
I0802 08:04:51.512748 30984 net.cpp:141] Setting up cont_sentence_input_1_split
I0802 08:04:51.512768 30984 net.cpp:148] Top shape: 1 1 (1)
I0802 08:04:51.512779 30984 net.cpp:148] Top shape: 1 1 (1)
I0802 08:04:51.512787 30984 net.cpp:156] Memory required for data: 16404
I0802 08:04:51.512795 30984 layer_factory.hpp:77] Creating layer embed_encoder
I0802 08:04:51.512819 30984 net.cpp:91] Creating Layer embed_encoder
I0802 08:04:51.512826 30984 net.cpp:425] embed_encoder <- frames_fc7
I0802 08:04:51.512841 30984 net.cpp:399] embed_encoder -> embedded_in_frames
I0802 08:04:51.542861 30984 net.cpp:141] Setting up embed_encoder
I0802 08:04:51.542927 30984 net.cpp:148] Top shape: 1 500 (500)
I0802 08:04:51.542935 30984 net.cpp:156] Memory required for data: 18404
I0802 08:04:51.542979 30984 layer_factory.hpp:77] Creating layer reshape_frames
I0802 08:04:51.543015 30984 net.cpp:91] Creating Layer reshape_frames
I0802 08:04:51.543026 30984 net.cpp:425] reshape_frames <- embedded_in_frames
I0802 08:04:51.543046 30984 net.cpp:399] reshape_frames -> embedded_input_frames
I0802 08:04:51.544103 30984 net.cpp:141] Setting up reshape_frames
I0802 08:04:51.544123 30984 net.cpp:148] Top shape: 1 1 500 (500)
I0802 08:04:51.544131 30984 net.cpp:156] Memory required for data: 20404
I0802 08:04:51.544140 30984 layer_factory.hpp:77] Creating layer reshape_stage_indicator
I0802 08:04:51.544157 30984 net.cpp:91] Creating Layer reshape_stage_indicator
I0802 08:04:51.544167 30984 net.cpp:425] reshape_stage_indicator <- stage_indicator
I0802 08:04:51.544184 30984 net.cpp:399] reshape_stage_indicator -> reshaped_stage_indicator
I0802 08:04:51.544850 30984 net.cpp:141] Setting up reshape_stage_indicator
I0802 08:04:51.544870 30984 net.cpp:148] Top shape: 1 1 1 (1)
I0802 08:04:51.544878 30984 net.cpp:156] Memory required for data: 20408
I0802 08:04:51.544886 30984 layer_factory.hpp:77] Creating layer embedding
I0802 08:04:51.544903 30984 net.cpp:91] Creating Layer embedding
I0802 08:04:51.544912 30984 net.cpp:425] embedding <- input_sentence
I0802 08:04:51.544924 30984 net.cpp:399] embedding -> embedded_input_sentence
I0802 08:04:51.693003 30994 net.cpp:141] Setting up conv1
I0802 08:04:51.693068 30994 net.cpp:148] Top shape: 10 96 55 55 (2904000)
I0802 08:04:51.693074 30994 net.cpp:156] Memory required for data: 17799480
I0802 08:04:51.693099 30994 layer_factory.hpp:77] Creating layer relu1
I0802 08:04:51.693117 30994 net.cpp:91] Creating Layer relu1
I0802 08:04:51.693125 30994 net.cpp:425] relu1 <- conv1
I0802 08:04:51.693132 30994 net.cpp:386] relu1 -> conv1 (in-place)
I0802 08:04:51.693560 30994 net.cpp:141] Setting up relu1
I0802 08:04:51.693573 30994 net.cpp:148] Top shape: 10 96 55 55 (2904000)
I0802 08:04:51.693578 30994 net.cpp:156] Memory required for data: 29415480
I0802 08:04:51.693583 30994 layer_factory.hpp:77] Creating layer pool1
I0802 08:04:51.693596 30994 net.cpp:91] Creating Layer pool1
I0802 08:04:51.693601 30994 net.cpp:425] pool1 <- conv1
I0802 08:04:51.693608 30994 net.cpp:399] pool1 -> pool1
I0802 08:04:51.693673 30994 net.cpp:141] Setting up pool1
I0802 08:04:51.693682 30994 net.cpp:148] Top shape: 10 96 27 27 (699840)
I0802 08:04:51.693686 30994 net.cpp:156] Memory required for data: 32214840
I0802 08:04:51.693691 30994 layer_factory.hpp:77] Creating layer norm1
I0802 08:04:51.693708 30994 net.cpp:91] Creating Layer norm1
I0802 08:04:51.693713 30994 net.cpp:425] norm1 <- pool1
I0802 08:04:51.693719 30994 net.cpp:399] norm1 -> norm1
I0802 08:04:51.694183 30994 net.cpp:141] Setting up norm1
I0802 08:04:51.694196 30994 net.cpp:148] Top shape: 10 96 27 27 (699840)
I0802 08:04:51.694200 30994 net.cpp:156] Memory required for data: 35014200
I0802 08:04:51.694206 30994 layer_factory.hpp:77] Creating layer conv2
I0802 08:04:51.694222 30994 net.cpp:91] Creating Layer conv2
I0802 08:04:51.694227 30994 net.cpp:425] conv2 <- norm1
I0802 08:04:51.694234 30994 net.cpp:399] conv2 -> conv2
I0802 08:04:51.697302 30994 net.cpp:141] Setting up conv2
I0802 08:04:51.697334 30994 net.cpp:148] Top shape: 10 256 27 27 (1866240)
I0802 08:04:51.697340 30994 net.cpp:156] Memory required for data: 42479160
I0802 08:04:51.697351 30994 layer_factory.hpp:77] Creating layer relu2
I0802 08:04:51.697360 30994 net.cpp:91] Creating Layer relu2
I0802 08:04:51.697365 30994 net.cpp:425] relu2 <- conv2
I0802 08:04:51.697372 30994 net.cpp:386] relu2 -> conv2 (in-place)
I0802 08:04:51.697799 30994 net.cpp:141] Setting up relu2
I0802 08:04:51.697813 30994 net.cpp:148] Top shape: 10 256 27 27 (1866240)
I0802 08:04:51.697818 30994 net.cpp:156] Memory required for data: 49944120
I0802 08:04:51.697823 30994 layer_factory.hpp:77] Creating layer pool2
I0802 08:04:51.697831 30994 net.cpp:91] Creating Layer pool2
I0802 08:04:51.697836 30994 net.cpp:425] pool2 <- conv2
I0802 08:04:51.697844 30994 net.cpp:399] pool2 -> pool2
I0802 08:04:51.697892 30994 net.cpp:141] Setting up pool2
I0802 08:04:51.697901 30994 net.cpp:148] Top shape: 10 256 13 13 (432640)
I0802 08:04:51.697906 30994 net.cpp:156] Memory required for data: 51674680
I0802 08:04:51.697911 30994 layer_factory.hpp:77] Creating layer norm2
I0802 08:04:51.697919 30994 net.cpp:91] Creating Layer norm2
I0802 08:04:51.697924 30994 net.cpp:425] norm2 <- pool2
I0802 08:04:51.697931 30994 net.cpp:399] norm2 -> norm2
I0802 08:04:51.698154 30994 net.cpp:141] Setting up norm2
I0802 08:04:51.698166 30994 net.cpp:148] Top shape: 10 256 13 13 (432640)
I0802 08:04:51.698171 30994 net.cpp:156] Memory required for data: 53405240
I0802 08:04:51.698176 30994 layer_factory.hpp:77] Creating layer conv3
I0802 08:04:51.698186 30994 net.cpp:91] Creating Layer conv3
I0802 08:04:51.698191 30994 net.cpp:425] conv3 <- norm2
I0802 08:04:51.698199 30994 net.cpp:399] conv3 -> conv3
I0802 08:04:51.701890 30994 net.cpp:141] Setting up conv3
I0802 08:04:51.701920 30994 net.cpp:148] Top shape: 10 384 13 13 (648960)
I0802 08:04:51.701926 30994 net.cpp:156] Memory required for data: 56001080
I0802 08:04:51.701942 30994 layer_factory.hpp:77] Creating layer relu3
I0802 08:04:51.701959 30994 net.cpp:91] Creating Layer relu3
I0802 08:04:51.701964 30994 net.cpp:425] relu3 <- conv3
I0802 08:04:51.701972 30994 net.cpp:386] relu3 -> conv3 (in-place)
I0802 08:04:51.702412 30994 net.cpp:141] Setting up relu3
I0802 08:04:51.702425 30994 net.cpp:148] Top shape: 10 384 13 13 (648960)
I0802 08:04:51.702430 30994 net.cpp:156] Memory required for data: 58596920
I0802 08:04:51.702435 30994 layer_factory.hpp:77] Creating layer conv4
I0802 08:04:51.702446 30994 net.cpp:91] Creating Layer conv4
I0802 08:04:51.702452 30994 net.cpp:425] conv4 <- conv3
I0802 08:04:51.702460 30994 net.cpp:399] conv4 -> conv4
I0802 08:04:51.706465 30994 net.cpp:141] Setting up conv4
I0802 08:04:51.706495 30994 net.cpp:148] Top shape: 10 384 13 13 (648960)
I0802 08:04:51.706501 30994 net.cpp:156] Memory required for data: 61192760
I0802 08:04:51.706509 30994 layer_factory.hpp:77] Creating layer relu4
I0802 08:04:51.706517 30994 net.cpp:91] Creating Layer relu4
I0802 08:04:51.706522 30994 net.cpp:425] relu4 <- conv4
I0802 08:04:51.706533 30994 net.cpp:386] relu4 -> conv4 (in-place)
I0802 08:04:51.706974 30994 net.cpp:141] Setting up relu4
I0802 08:04:51.706986 30994 net.cpp:148] Top shape: 10 384 13 13 (648960)
I0802 08:04:51.706990 30994 net.cpp:156] Memory required for data: 63788600
I0802 08:04:51.706996 30994 layer_factory.hpp:77] Creating layer conv5
I0802 08:04:51.707010 30994 net.cpp:91] Creating Layer conv5
I0802 08:04:51.707015 30994 net.cpp:425] conv5 <- conv4
I0802 08:04:51.707025 30994 net.cpp:399] conv5 -> conv5
I0802 08:04:51.710921 30994 net.cpp:141] Setting up conv5
I0802 08:04:51.710937 30994 net.cpp:148] Top shape: 10 256 13 13 (432640)
I0802 08:04:51.710942 30994 net.cpp:156] Memory required for data: 65519160
I0802 08:04:51.710954 30994 layer_factory.hpp:77] Creating layer relu5
I0802 08:04:51.710963 30994 net.cpp:91] Creating Layer relu5
I0802 08:04:51.710968 30994 net.cpp:425] relu5 <- conv5
I0802 08:04:51.710980 30994 net.cpp:386] relu5 -> conv5 (in-place)
I0802 08:04:51.711433 30994 net.cpp:141] Setting up relu5
I0802 08:04:51.711446 30994 net.cpp:148] Top shape: 10 256 13 13 (432640)
I0802 08:04:51.711450 30994 net.cpp:156] Memory required for data: 67249720
I0802 08:04:51.711455 30994 layer_factory.hpp:77] Creating layer pool5
I0802 08:04:51.711467 30994 net.cpp:91] Creating Layer pool5
I0802 08:04:51.711473 30994 net.cpp:425] pool5 <- conv5
I0802 08:04:51.711480 30994 net.cpp:399] pool5 -> pool5
I0802 08:04:51.711539 30994 net.cpp:141] Setting up pool5
I0802 08:04:51.711549 30994 net.cpp:148] Top shape: 10 256 6 6 (92160)
I0802 08:04:51.711552 30994 net.cpp:156] Memory required for data: 67618360
I0802 08:04:51.711556 30994 layer_factory.hpp:77] Creating layer fc6
I0802 08:04:51.711570 30994 net.cpp:91] Creating Layer fc6
I0802 08:04:51.711575 30994 net.cpp:425] fc6 <- pool5
I0802 08:04:51.711581 30994 net.cpp:399] fc6 -> fc6
I0802 08:04:51.773902 30984 net.cpp:141] Setting up embedding
I0802 08:04:51.773969 30984 net.cpp:148] Top shape: 1 1 500 (500)
I0802 08:04:51.773975 30984 net.cpp:156] Memory required for data: 22408
I0802 08:04:51.773993 30984 layer_factory.hpp:77] Creating layer lstm1
I0802 08:04:51.774010 30984 net.cpp:91] Creating Layer lstm1
I0802 08:04:51.774018 30984 net.cpp:425] lstm1 <- embedded_input_frames
I0802 08:04:51.774026 30984 net.cpp:425] lstm1 <- cont_sentence_input_1_split_0
I0802 08:04:51.774037 30984 net.cpp:399] lstm1 -> lstm1
I0802 08:04:51.774072 30984 recurrent_layer.cpp:20] Initializing recurrent layer: assuming input batch contains 1 timesteps of 1 independent streams.
I0802 08:04:51.774418 30984 net.cpp:49] Initializing net from parameters: 
layer {
  name: "lstm1_"
  type: "Input"
  top: "x"
  top: "cont"
  input_param {
    shape {
      dim: 1
      dim: 1
      dim: 500
    }
    shape {
      dim: 1
      dim: 1
    }
  }
}
layer {
  name: "lstm1_"
  type: "Input"
  top: "c_0"
  top: "h_0"
  input_param {
    shape {
      dim: 1
      dim: 1
      dim: 1000
    }
    shape {
      dim: 1
      dim: 1
      dim: 1000
    }
  }
}
layer {
  name: "lstm1_cont_slice"
  type: "Slice"
  bottom: "cont"
  top: "cont_1"
  slice_param {
    axis: 0
  }
}
layer {
  name: "lstm1_x_transform"
  type: "InnerProduct"
  bottom: "x"
  top: "W_xc_x"
  param {
    name: "W_xc"
  }
  param {
    name: "b_c"
  }
  propagate_down: true
  inner_product_param {
    num_output: 4000
    bias_term: true
    weight_filler {
      type: "uniform"
      min: -0.08
      max: 0.08
    }
    bias_filler {
      type: "constant"
      value: 0
    }
    axis: 2
  }
}
layer {
  name: "lstm1_W_xc_x_slice"
  type: "Slice"
  bottom: "W_xc_x"
  top: "W_xc_x_1"
  slice_param {
    axis: 0
  }
}
layer {
  name: "lstm1_h_conted_0"
  type: "Scale"
  bottom: "h_0"
  bottom: "cont_1"
  top: "h_conted_0"
  scale_param {
    axis: 0
  }
}
layer {
  name: "lstm1_transform_1"
  type: "InnerProduct"
  bottom: "h_conted_0"
  top: "W_hc_h_0"
  param {
    name: "W_hc"
  }
  inner_product_param {
    num_output: 4000
    bias_term: false
    weight_filler {
      type: "uniform"
      min: -0.08
      max: 0.08
    }
    axis: 2
  }
}
layer {
  name: "lstm1_gate_input_1"
  type: "Eltwise"
  bottom: "W_hc_h_0"
  bottom: "W_xc_x_1"
  top: "gate_input_1"
  eltwise_param {
    operation: SUM
  }
}
layer {
  name: "lstm1_unit_1"
  type: "LSTMUnit"
  bottom: "c_0"
  bottom: "gate_input_1"
  bottom: "cont_1"
  top: "c_1"
  top: "h_1"
}
layer {
  name: "lstm1_"
  type: "Split"
  bottom: "c_1"
  top: "c_T"
}
layer {
  name: "lstm1_h_concat"
  type: "Concat"
  bottom: "h_1"
  top: "h"
  concat_param {
    axis: 0
  }
}
layer {
  name: "h_pseudoloss"
  type: "Reduction"
  bottom: "h"
  top: "h_pseudoloss"
  loss_weight: 1
}
I0802 08:04:51.774509 30984 layer_factory.hpp:77] Creating layer lstm1_
I0802 08:04:51.774521 30984 net.cpp:91] Creating Layer lstm1_
I0802 08:04:51.774528 30984 net.cpp:399] lstm1_ -> x
I0802 08:04:51.774538 30984 net.cpp:399] lstm1_ -> cont
I0802 08:04:51.774601 30984 net.cpp:141] Setting up lstm1_
I0802 08:04:51.774618 30984 net.cpp:148] Top shape: 1 1 500 (500)
I0802 08:04:51.774624 30984 net.cpp:148] Top shape: 1 1 (1)
I0802 08:04:51.774628 30984 net.cpp:156] Memory required for data: 2004
I0802 08:04:51.774632 30984 layer_factory.hpp:77] Creating layer lstm1_
I0802 08:04:51.774641 30984 net.cpp:91] Creating Layer lstm1_
I0802 08:04:51.774649 30984 net.cpp:399] lstm1_ -> c_0
I0802 08:04:51.774658 30984 net.cpp:399] lstm1_ -> h_0
I0802 08:04:51.774705 30984 net.cpp:141] Setting up lstm1_
I0802 08:04:51.774714 30984 net.cpp:148] Top shape: 1 1 1000 (1000)
I0802 08:04:51.774719 30984 net.cpp:148] Top shape: 1 1 1000 (1000)
I0802 08:04:51.774724 30984 net.cpp:156] Memory required for data: 10004
I0802 08:04:51.774727 30984 layer_factory.hpp:77] Creating layer lstm1_cont_slice
I0802 08:04:51.774739 30984 net.cpp:91] Creating Layer lstm1_cont_slice
I0802 08:04:51.774744 30984 net.cpp:425] lstm1_cont_slice <- cont
I0802 08:04:51.774749 30984 net.cpp:399] lstm1_cont_slice -> cont_1
I0802 08:04:51.774782 30984 net.cpp:141] Setting up lstm1_cont_slice
I0802 08:04:51.774791 30984 net.cpp:148] Top shape: 1 1 (1)
I0802 08:04:51.774794 30984 net.cpp:156] Memory required for data: 10008
I0802 08:04:51.774798 30984 layer_factory.hpp:77] Creating layer cont_1_lstm1_cont_slice_0_split
I0802 08:04:51.774806 30984 net.cpp:91] Creating Layer cont_1_lstm1_cont_slice_0_split
I0802 08:04:51.774811 30984 net.cpp:425] cont_1_lstm1_cont_slice_0_split <- cont_1
I0802 08:04:51.774819 30984 net.cpp:399] cont_1_lstm1_cont_slice_0_split -> cont_1_lstm1_cont_slice_0_split_0
I0802 08:04:51.774827 30984 net.cpp:399] cont_1_lstm1_cont_slice_0_split -> cont_1_lstm1_cont_slice_0_split_1
I0802 08:04:51.774873 30984 net.cpp:141] Setting up cont_1_lstm1_cont_slice_0_split
I0802 08:04:51.774880 30984 net.cpp:148] Top shape: 1 1 (1)
I0802 08:04:51.774885 30984 net.cpp:148] Top shape: 1 1 (1)
I0802 08:04:51.774889 30984 net.cpp:156] Memory required for data: 10016
I0802 08:04:51.774893 30984 layer_factory.hpp:77] Creating layer lstm1_x_transform
I0802 08:04:51.774902 30984 net.cpp:91] Creating Layer lstm1_x_transform
I0802 08:04:51.774906 30984 net.cpp:425] lstm1_x_transform <- x
I0802 08:04:51.774914 30984 net.cpp:399] lstm1_x_transform -> W_xc_x
I0802 08:04:51.807979 30984 net.cpp:141] Setting up lstm1_x_transform
I0802 08:04:51.808043 30984 net.cpp:148] Top shape: 1 1 4000 (4000)
I0802 08:04:51.808053 30984 net.cpp:156] Memory required for data: 26016
I0802 08:04:51.808080 30984 layer_factory.hpp:77] Creating layer lstm1_W_xc_x_slice
I0802 08:04:51.808106 30984 net.cpp:91] Creating Layer lstm1_W_xc_x_slice
I0802 08:04:51.808116 30984 net.cpp:425] lstm1_W_xc_x_slice <- W_xc_x
I0802 08:04:51.808131 30984 net.cpp:399] lstm1_W_xc_x_slice -> W_xc_x_1
I0802 08:04:51.808197 30984 net.cpp:141] Setting up lstm1_W_xc_x_slice
I0802 08:04:51.808212 30984 net.cpp:148] Top shape: 1 1 4000 (4000)
I0802 08:04:51.808219 30984 net.cpp:156] Memory required for data: 42016
I0802 08:04:51.808226 30984 layer_factory.hpp:77] Creating layer lstm1_h_conted_0
I0802 08:04:51.808246 30984 net.cpp:91] Creating Layer lstm1_h_conted_0
I0802 08:04:51.808255 30984 net.cpp:425] lstm1_h_conted_0 <- h_0
I0802 08:04:51.808264 30984 net.cpp:425] lstm1_h_conted_0 <- cont_1_lstm1_cont_slice_0_split_0
I0802 08:04:51.808276 30984 net.cpp:399] lstm1_h_conted_0 -> h_conted_0
I0802 08:04:51.808418 30984 net.cpp:141] Setting up lstm1_h_conted_0
I0802 08:04:51.808434 30984 net.cpp:148] Top shape: 1 1 1000 (1000)
I0802 08:04:51.808440 30984 net.cpp:156] Memory required for data: 46016
I0802 08:04:51.808449 30984 layer_factory.hpp:77] Creating layer lstm1_transform_1
I0802 08:04:51.808471 30984 net.cpp:91] Creating Layer lstm1_transform_1
I0802 08:04:51.808480 30984 net.cpp:425] lstm1_transform_1 <- h_conted_0
I0802 08:04:51.808493 30984 net.cpp:399] lstm1_transform_1 -> W_hc_h_0
I0802 08:04:51.819231 30994 net.cpp:141] Setting up fc6
I0802 08:04:51.819279 30994 net.cpp:148] Top shape: 10 4096 (40960)
I0802 08:04:51.819286 30994 net.cpp:156] Memory required for data: 67782200
I0802 08:04:51.819303 30994 layer_factory.hpp:77] Creating layer relu6
I0802 08:04:51.819329 30994 net.cpp:91] Creating Layer relu6
I0802 08:04:51.819341 30994 net.cpp:425] relu6 <- fc6
I0802 08:04:51.819360 30994 net.cpp:386] relu6 -> fc6 (in-place)
I0802 08:04:51.819736 30994 net.cpp:141] Setting up relu6
I0802 08:04:51.819747 30994 net.cpp:148] Top shape: 10 4096 (40960)
I0802 08:04:51.819752 30994 net.cpp:156] Memory required for data: 67946040
I0802 08:04:51.819757 30994 layer_factory.hpp:77] Creating layer drop6
I0802 08:04:51.819778 30994 net.cpp:91] Creating Layer drop6
I0802 08:04:51.819783 30994 net.cpp:425] drop6 <- fc6
I0802 08:04:51.819794 30994 net.cpp:386] drop6 -> fc6 (in-place)
I0802 08:04:51.819847 30994 net.cpp:141] Setting up drop6
I0802 08:04:51.819856 30994 net.cpp:148] Top shape: 10 4096 (40960)
I0802 08:04:51.819860 30994 net.cpp:156] Memory required for data: 68109880
I0802 08:04:51.819864 30994 layer_factory.hpp:77] Creating layer fc7
I0802 08:04:51.819875 30994 net.cpp:91] Creating Layer fc7
I0802 08:04:51.819880 30994 net.cpp:425] fc7 <- fc6
I0802 08:04:51.819892 30994 net.cpp:399] fc7 -> fc7
I0802 08:04:51.861181 30984 net.cpp:141] Setting up lstm1_transform_1
I0802 08:04:51.861230 30984 net.cpp:148] Top shape: 1 1 4000 (4000)
I0802 08:04:51.861237 30984 net.cpp:156] Memory required for data: 62016
I0802 08:04:51.861255 30984 layer_factory.hpp:77] Creating layer lstm1_gate_input_1
I0802 08:04:51.861275 30984 net.cpp:91] Creating Layer lstm1_gate_input_1
I0802 08:04:51.861282 30984 net.cpp:425] lstm1_gate_input_1 <- W_hc_h_0
I0802 08:04:51.861291 30984 net.cpp:425] lstm1_gate_input_1 <- W_xc_x_1
I0802 08:04:51.861301 30984 net.cpp:399] lstm1_gate_input_1 -> gate_input_1
I0802 08:04:51.861356 30984 net.cpp:141] Setting up lstm1_gate_input_1
I0802 08:04:51.861366 30984 net.cpp:148] Top shape: 1 1 4000 (4000)
I0802 08:04:51.861369 30984 net.cpp:156] Memory required for data: 78016
I0802 08:04:51.861374 30984 layer_factory.hpp:77] Creating layer lstm1_unit_1
I0802 08:04:51.861385 30984 net.cpp:91] Creating Layer lstm1_unit_1
I0802 08:04:51.861392 30984 net.cpp:425] lstm1_unit_1 <- c_0
I0802 08:04:51.861397 30984 net.cpp:425] lstm1_unit_1 <- gate_input_1
I0802 08:04:51.861402 30984 net.cpp:425] lstm1_unit_1 <- cont_1_lstm1_cont_slice_0_split_1
I0802 08:04:51.861409 30984 net.cpp:399] lstm1_unit_1 -> c_1
I0802 08:04:51.861418 30984 net.cpp:399] lstm1_unit_1 -> h_1
I0802 08:04:51.861490 30984 net.cpp:141] Setting up lstm1_unit_1
I0802 08:04:51.861500 30984 net.cpp:148] Top shape: 1 1 1000 (1000)
I0802 08:04:51.861505 30984 net.cpp:148] Top shape: 1 1 1000 (1000)
I0802 08:04:51.861510 30984 net.cpp:156] Memory required for data: 86016
I0802 08:04:51.861515 30984 layer_factory.hpp:77] Creating layer lstm1_
I0802 08:04:51.861522 30984 net.cpp:91] Creating Layer lstm1_
I0802 08:04:51.861527 30984 net.cpp:425] lstm1_ <- c_1
I0802 08:04:51.861536 30984 net.cpp:399] lstm1_ -> c_T
I0802 08:04:51.861567 30984 net.cpp:141] Setting up lstm1_
I0802 08:04:51.861574 30984 net.cpp:148] Top shape: 1 1 1000 (1000)
I0802 08:04:51.861578 30984 net.cpp:156] Memory required for data: 90016
I0802 08:04:51.861583 30984 layer_factory.hpp:77] Creating layer lstm1_h_concat
I0802 08:04:51.861594 30984 net.cpp:91] Creating Layer lstm1_h_concat
I0802 08:04:51.861599 30984 net.cpp:425] lstm1_h_concat <- h_1
I0802 08:04:51.861605 30984 net.cpp:399] lstm1_h_concat -> h
I0802 08:04:51.861649 30984 net.cpp:141] Setting up lstm1_h_concat
I0802 08:04:51.861657 30984 net.cpp:148] Top shape: 1 1 1000 (1000)
I0802 08:04:51.861662 30984 net.cpp:156] Memory required for data: 94016
I0802 08:04:51.861666 30984 layer_factory.hpp:77] Creating layer h_pseudoloss
I0802 08:04:51.861680 30984 net.cpp:91] Creating Layer h_pseudoloss
I0802 08:04:51.861685 30984 net.cpp:425] h_pseudoloss <- h
I0802 08:04:51.861693 30984 net.cpp:399] h_pseudoloss -> h_pseudoloss
I0802 08:04:51.861800 30984 net.cpp:141] Setting up h_pseudoloss
…
I0802 08:04:51.861915 30984 net.cpp:219] lstm1_ does not need backward computation.
I0802 08:04:51.861919 30984 net.cpp:261] This network produces output c_T
I0802 08:04:51.861923 30984 net.cpp:261] This network produces output h_pseudoloss
I0802 08:04:51.861939 30984 net.cpp:274] Network initialization done.
I0802 08:04:51.861996 30984 recurrent_layer.cpp:150] Adding parameter 0: W_xc
I0802 08:04:51.862002 30984 recurrent_layer.cpp:150] Adding parameter 1: b_c
I0802 08:04:51.862006 30984 recurrent_layer.cpp:150] Adding parameter 2: W_hc
I0802 08:04:51.862117 30984 net.cpp:141] Setting up lstm1
I0802 08:04:51.862129 30984 net.cpp:148] Top shape: 1 1 1000 (1000)
I0802 08:04:51.862133 30984 net.cpp:156] Memory required for data: 26408
I0802 08:04:51.862146 30984 layer_factory.hpp:77] Creating layer concat
I0802 08:04:51.862154 30984 net.cpp:91] Creating Layer concat
I0802 08:04:51.862161 30984 net.cpp:425] concat <- lstm1
I0802 08:04:51.862167 30984 net.cpp:425] concat <- embedded_input_sentence
I0802 08:04:51.862174 30984 net.cpp:425] concat <- reshaped_stage_indicator
I0802 08:04:51.862180 30984 net.cpp:399] concat -> lstm1_video_sequence
I0802 08:04:51.862213 30984 net.cpp:141] Setting up concat
I0802 08:04:51.862222 30984 net.cpp:148] Top shape: 1 1 1501 (1501)
I0802 08:04:51.862226 30984 net.cpp:156] Memory required for data: 32412
I0802 08:04:51.862231 30984 layer_factory.hpp:77] Creating layer lstm2
I0802 08:04:51.862242 30984 net.cpp:91] Creating Layer lstm2
I0802 08:04:51.862247 30984 net.cpp:425] lstm2 <- lstm1_video_sequence
I0802 08:04:51.862253 30984 net.cpp:425] lstm2 <- cont_sentence_input_1_split_1
I0802 08:04:51.862260 30984 net.cpp:399] lstm2 -> lstm2
I0802 08:04:51.862269 30984 recurrent_layer.cpp:20] Initializing recurrent layer: assuming input batch contains 1 timesteps of 1 independent streams.
I0802 08:04:51.862511 30984 net.cpp:49] Initializing net from parameters: 
layer {
  name: "lstm2_"
  type: "Input"
  top: "x"
  top: "cont"
  input_param {
    shape {
      dim: 1
      dim: 1
      dim: 1501
    }
    shape {
      dim: 1
      dim: 1
    }
  }
}
layer {
  name: "lstm2_"
  type: "Input"
  top: "c_0"
  top: "h_0"
  input_param {
    shape {
      dim: 1
      dim: 1
      dim: 1000
    }
    shape {
      dim: 1
      dim: 1
      dim: 1000
    }
  }
}
layer {
  name: "lstm2_cont_slice"
  type: "Slice"
  bottom: "cont"
  top: "cont_1"
  slice_param {
    axis: 0
  }
}
layer {
  name: "lstm2_x_transform"
  type: "InnerProduct"
  bottom: "x"
  top: "W_xc_x"
  param {
    name: "W_xc"
  }
  param {
    name: "b_c"
  }
  propagate_down: true
  inner_product_param {
    num_output: 4000
    bias_term: true
    weight_filler {
      type: "uniform"
      min: -0.08
      max: 0.08
    }
    bias_filler {
      type: "constant"
      value: 0
    }
    axis: 2
  }
}
layer {
  name: "lstm2_W_xc_x_slice"
  type: "Slice"
  bottom: "W_xc_x"
  top: "W_xc_x_1"
  slice_param {
    axis: 0
  }
}
layer {
  name: "lstm2_h_conted_0"
  type: "Scale"
  bottom: "h_0"
  bottom: "cont_1"
  top: "h_conted_0"
  scale_param {
    axis: 0
  }
}
layer {
  name: "lstm2_transform_1"
  type: "InnerProduct"
  bottom: "h_conted_0"
  top: "W_hc_h_0"
  param {
    name: "W_hc"
  }
  inner_product_param {
    num_output: 4000
    bias_term: false
    weight_filler {
      type: "uniform"
      min: -0.08
      max: 0.08
    }
    axis: 2
  }
}
layer {
  name: "lstm2_gate_input_1"
  type: "Eltwise"
  bottom: "W_hc_h_0"
  bottom: "W_xc_x_1"
  top: "gate_input_1"
  eltwise_param {
    operation: SUM
  }
}
layer {
  name: "lstm2_unit_1"
  type: "LSTMUnit"
  bottom: "c_0"
  bottom: "gate_input_1"
  bottom: "cont_1"
  top: "c_1"
  top: "h_1"
}
layer {
  name: "lstm2_"
  type: "Split"
  bottom: "c_1"
  top: "c_T"
}
layer {
  name: "lstm2_h_concat"
  type: "Concat"
  bottom: "h_1"
  top: "h"
  concat_param {
    axis: 0
  }
}
layer {
  name: "h_pseudoloss"
  type: "Reduction"
  bottom: "h"
  top: "h_pseudoloss"
  loss_weight: 1
}
I0802 08:04:51.862606 30984 layer_factory.hpp:77] Creating layer lstm2_
I0802 08:04:51.862618 30984 net.cpp:91] Creating Layer lstm2_
I0802 08:04:51.862624 30984 net.cpp:399] lstm2_ -> x
I0802 08:04:51.862635 30984 net.cpp:399] lstm2_ -> cont
I0802 08:04:51.862689 30984 net.cpp:141] Setting up lstm2_
I0802 08:04:51.862699 30984 net.cpp:148] Top shape: 1 1 1501 (1501)
I0802 08:04:51.862704 30984 net.cpp:148] Top shape: 1 1 (1)
I0802 08:04:51.862709 30984 net.cpp:156] Memory required for data: 6008
I0802 08:04:51.862714 30984 layer_factory.hpp:77] Creating layer lstm2_
I0802 08:04:51.862725 30984 net.cpp:91] Creating Layer lstm2_
I0802 08:04:51.862731 30984 net.cpp:399] lstm2_ -> c_0
I0802 08:04:51.862741 30984 net.cpp:399] lstm2_ -> h_0
I0802 08:04:51.862790 30984 net.cpp:141] Setting up lstm2_
I0802 08:04:51.862799 30984 net.cpp:148] Top shape: 1 1 1000 (1000)
I0802 08:04:51.862805 30984 net.cpp:148] Top shape: 1 1 1000 (1000)
I0802 08:04:51.862808 30984 net.cpp:156] Memory required for data: 14008
I0802 08:04:51.862813 30984 layer_factory.hpp:77] Creating layer lstm2_cont_slice
I0802 08:04:51.862823 30984 net.cpp:91] Creating Layer lstm2_cont_slice
I0802 08:04:51.862826 30984 net.cpp:425] lstm2_cont_slice <- cont
I0802 08:04:51.862833 30984 net.cpp:399] lstm2_cont_slice -> cont_1
I0802 08:04:51.862882 30984 net.cpp:141] Setting up lstm2_cont_slice
I0802 08:04:51.862891 30984 net.cpp:148] Top shape: 1 1 (1)
I0802 08:04:51.862895 30984 net.cpp:156] Memory required for data: 14012
I0802 08:04:51.862900 30984 layer_factory.hpp:77] Creating layer cont_1_lstm2_cont_slice_0_split
I0802 08:04:51.862906 30984 net.cpp:91] Creating Layer cont_1_lstm2_cont_slice_0_split
I0802 08:04:51.862911 30984 net.cpp:425] cont_1_lstm2_cont_slice_0_split <- cont_1
I0802 08:04:51.862920 30984 net.cpp:399] cont_1_lstm2_cont_slice_0_split -> cont_1_lstm2_cont_slice_0_split_0
I0802 08:04:51.862928 30984 net.cpp:399] cont_1_lstm2_cont_slice_0_split -> cont_1_lstm2_cont_slice_0_split_1
I0802 08:04:51.862973 30984 net.cpp:141] Setting up cont_1_lstm2_cont_slice_0_split
I0802 08:04:51.862983 30984 net.cpp:148] Top shape: 1 1 (1)
I0802 08:04:51.862988 30984 net.cpp:148] Top shape: 1 1 (1)
I0802 08:04:51.862993 30984 net.cpp:156] Memory required for data: 14020
I0802 08:04:51.862998 30984 layer_factory.hpp:77] Creating layer lstm2_x_transform
I0802 08:04:51.863008 30984 net.cpp:91] Creating Layer lstm2_x_transform
I0802 08:04:51.863011 30984 net.cpp:425] lstm2_x_transform <- x
I0802 08:04:51.863021 30984 net.cpp:399] lstm2_x_transform -> W_xc_x
I0802 08:04:51.874583 30994 net.cpp:141] Setting up fc7
I0802 08:04:51.874629 30994 net.cpp:148] Top shape: 10 4096 (40960)
I0802 08:04:51.874635 30994 net.cpp:156] Memory required for data: 68273720
I0802 08:04:51.874650 30994 layer_factory.hpp:77] Creating layer relu7
I0802 08:04:51.874680 30994 net.cpp:91] Creating Layer relu7
I0802 08:04:51.874686 30994 net.cpp:425] relu7 <- fc7
I0802 08:04:51.874698 30994 net.cpp:386] relu7 -> fc7 (in-place)
I0802 08:04:51.875413 30994 net.cpp:141] Setting up relu7
I0802 08:04:51.875424 30994 net.cpp:148] Top shape: 10 4096 (40960)
I0802 08:04:51.875429 30994 net.cpp:156] Memory required for data: 68437560
I0802 08:04:51.875434 30994 layer_factory.hpp:77] Creating layer drop7
I0802 08:04:51.875447 30994 net.cpp:91] Creating Layer drop7
I0802 08:04:51.875452 30994 net.cpp:425] drop7 <- fc7
I0802 08:04:51.875458 30994 net.cpp:386] drop7 -> fc7 (in-place)
I0802 08:04:51.875493 30994 net.cpp:141] Setting up drop7
I0802 08:04:51.875501 30994 net.cpp:148] Top shape: 10 4096 (40960)
I0802 08:04:51.875505 30994 net.cpp:156] Memory required for data: 68601400
I0802 08:04:51.875509 30994 layer_factory.hpp:77] Creating layer fc8
I0802 08:04:51.875524 30994 net.cpp:91] Creating Layer fc8
I0802 08:04:51.875529 30994 net.cpp:425] fc8 <- fc7
I0802 08:04:51.875536 30994 net.cpp:399] fc8 -> fc8
I0802 08:04:51.886266 30994 net.cpp:141] Setting up fc8
I0802 08:04:51.886314 30994 net.cpp:148] Top shape: 10 1000 (10000)
I0802 08:04:51.886320 30994 net.cpp:156] Memory required for data: 68641400
I0802 08:04:51.886335 30994 layer_factory.hpp:77] Creating layer prob
I0802 08:04:51.886363 30994 net.cpp:91] Creating Layer prob
I0802 08:04:51.886370 30994 net.cpp:425] prob <- fc8
I0802 08:04:51.886381 30994 net.cpp:399] prob -> prob
I0802 08:04:51.886775 30994 net.cpp:141] Setting up prob
I0802 08:04:51.886788 30994 net.cpp:148] Top shape: 10 1000 (10000)
I0802 08:04:51.886792 30994 net.cpp:156] Memory required for data: 68681400
I0802 08:04:51.886798 30994 net.cpp:219] prob does not need backward computation.
I0802 08:04:51.886803 30994 net.cpp:219] fc8 does not need backward computation.
I0802 08:04:51.886807 30994 net.cpp:219] drop7 does not need backward computation.
I0802 08:04:51.886812 30994 net.cpp:219] relu7 does not need backward computation.
…
I0802 08:04:51.886896 30994 net.cpp:219] norm1 does not need backward computation.
I0802 08:04:51.886900 30994 net.cpp:219] pool1 does not need backward computation.
I0802 08:04:51.886905 30994 net.cpp:219] relu1 does not need backward computation.
I0802 08:04:51.886909 30994 net.cpp:219] conv1 does not need backward computation.
I0802 08:04:51.886914 30994 net.cpp:219] data does not need backward computation.
I0802 08:04:51.886916 30994 net.cpp:261] This network produces output prob
I0802 08:04:51.886935 30994 net.cpp:274] Network initialization done.
I0802 08:04:51.919729 30984 net.cpp:141] Setting up lstm2_x_transform
I0802 08:04:51.919771 30984 net.cpp:148] Top shape: 1 1 4000 (4000)
I0802 08:04:51.919777 30984 net.cpp:156] Memory required for data: 30020
I0802 08:04:51.919797 30984 layer_factory.hpp:77] Creating layer lstm2_W_xc_x_slice
I0802 08:04:51.919813 30984 net.cpp:91] Creating Layer lstm2_W_xc_x_slice
I0802 08:04:51.919819 30984 net.cpp:425] lstm2_W_xc_x_slice <- W_xc_x
I0802 08:04:51.919829 30984 net.cpp:399] lstm2_W_xc_x_slice -> W_xc_x_1
I0802 08:04:51.919878 30984 net.cpp:141] Setting up lstm2_W_xc_x_slice
I0802 08:04:51.919886 30984 net.cpp:148] Top shape: 1 1 4000 (4000)
I0802 08:04:51.919890 30984 net.cpp:156] Memory required for data: 46020
I0802 08:04:51.919894 30984 layer_factory.hpp:77] Creating layer lstm2_h_conted_0
I0802 08:04:51.919904 30984 net.cpp:91] Creating Layer lstm2_h_conted_0
I0802 08:04:51.919909 30984 net.cpp:425] lstm2_h_conted_0 <- h_0
I0802 08:04:51.919915 30984 net.cpp:425] lstm2_h_conted_0 <- cont_1_lstm2_cont_slice_0_split_0
I0802 08:04:51.919922 30984 net.cpp:399] lstm2_h_conted_0 -> h_conted_0
I0802 08:04:51.920032 30984 net.cpp:141] Setting up lstm2_h_conted_0
I0802 08:04:51.920042 30984 net.cpp:148] Top shape: 1 1 1000 (1000)
I0802 08:04:51.920047 30984 net.cpp:156] Memory required for data: 50020
I0802 08:04:51.920052 30984 layer_factory.hpp:77] Creating layer lstm2_transform_1
I0802 08:04:51.920063 30984 net.cpp:91] Creating Layer lstm2_transform_1
I0802 08:04:51.920068 30984 net.cpp:425] lstm2_transform_1 <- h_conted_0
I0802 08:04:51.920076 30984 net.cpp:399] lstm2_transform_1 -> W_hc_h_0
I0802 08:04:51.958446 30984 net.cpp:141] Setting up lstm2_transform_1
I0802 08:04:51.958492 30984 net.cpp:148] Top shape: 1 1 4000 (4000)
I0802 08:04:51.958497 30984 net.cpp:156] Memory required for data: 66020
I0802 08:04:51.958514 30984 layer_factory.hpp:77] Creating layer lstm2_gate_input_1
I0802 08:04:51.958535 30984 net.cpp:91] Creating Layer lstm2_gate_input_1
I0802 08:04:51.958542 30984 net.cpp:425] lstm2_gate_input_1 <- W_hc_h_0
I0802 08:04:51.958550 30984 net.cpp:425] lstm2_gate_input_1 <- W_xc_x_1
I0802 08:04:51.958557 30984 net.cpp:399] lstm2_gate_input_1 -> gate_input_1
I0802 08:04:51.958606 30984 net.cpp:141] Setting up lstm2_gate_input_1
I0802 08:04:51.958614 30984 net.cpp:148] Top shape: 1 1 4000 (4000)
I0802 08:04:51.958618 30984 net.cpp:156] Memory required for data: 82020
I0802 08:04:51.958622 30984 layer_factory.hpp:77] Creating layer lstm2_unit_1
I0802 08:04:51.958631 30984 net.cpp:91] Creating Layer lstm2_unit_1
I0802 08:04:51.958638 30984 net.cpp:425] lstm2_unit_1 <- c_0
I0802 08:04:51.958644 30984 net.cpp:425] lstm2_unit_1 <- gate_input_1
I0802 08:04:51.958649 30984 net.cpp:425] lstm2_unit_1 <- cont_1_lstm2_cont_slice_0_split_1
I0802 08:04:51.958655 30984 net.cpp:399] lstm2_unit_1 -> c_1
I0802 08:04:51.958664 30984 net.cpp:399] lstm2_unit_1 -> h_1
I0802 08:04:51.958722 30984 net.cpp:141] Setting up lstm2_unit_1
I0802 08:04:51.958731 30984 net.cpp:148] Top shape: 1 1 1000 (1000)
I0802 08:04:51.958736 30984 net.cpp:148] Top shape: 1 1 1000 (1000)
I0802 08:04:51.958740 30984 net.cpp:156] Memory required for data: 90020
I0802 08:04:51.958745 30984 layer_factory.hpp:77] Creating layer lstm2_
I0802 08:04:51.958755 30984 net.cpp:91] Creating Layer lstm2_
I0802 08:04:51.958760 30984 net.cpp:425] lstm2_ <- c_1
I0802 08:04:51.958767 30984 net.cpp:399] lstm2_ -> c_T
I0802 08:04:51.958796 30984 net.cpp:141] Setting up lstm2_
I0802 08:04:51.958803 30984 net.cpp:148] Top shape: 1 1 1000 (1000)
I0802 08:04:51.958808 30984 net.cpp:156] Memory required for data: 94020
I0802 08:04:51.958813 30984 layer_factory.hpp:77] Creating layer lstm2_h_concat
I0802 08:04:51.958823 30984 net.cpp:91] Creating Layer lstm2_h_concat
I0802 08:04:51.958828 30984 net.cpp:425] lstm2_h_concat <- h_1
I0802 08:04:51.958838 30984 net.cpp:399] lstm2_h_concat -> h
I0802 08:04:51.958874 30984 net.cpp:141] Setting up lstm2_h_concat
I0802 08:04:51.958883 30984 net.cpp:148] Top shape: 1 1 1000 (1000)
I0802 08:04:51.958886 30984 net.cpp:156] Memory required for data: 98020
I0802 08:04:51.958891 30984 layer_factory.hpp:77] Creating layer h_pseudoloss
I0802 08:04:51.958899 30984 net.cpp:91] Creating Layer h_pseudoloss
I0802 08:04:51.958904 30984 net.cpp:425] h_pseudoloss <- h
I0802 08:04:51.958910 30984 net.cpp:399] h_pseudoloss -> h_pseudoloss
I0802 08:04:51.958997 30984 net.cpp:141] Setting up h_pseudoloss
…
