…
Java HotSpot(TM) 64-Bit Server VM warning: You have loaded library /tmp/cvld5264574556384760938/libopencv_java310.xine1.so which might have disabled stack guard. The VM will try to fix the stack guard now.
It's highly recommended that you fix the library with 'execstack -c <libfile>', or link it with '-z noexecstack'.
WARNING: Logging before InitGoogleLogging() is written to STDERR
I0801 02:53:12.607916  3437 net.cpp:49] Initializing net from parameters: 
name: "CaffeNet"
state {
  phase: TEST
}
layer {
  name: "data"
  type: "Input"
  top: "data"
  input_param {
    shape {
      dim: 10
      dim: 3
      dim: 227
      dim: 227
    }
  }
}
layer {
  name: "conv1"
  type: "Convolution"
  bottom: "data"
  top: "conv1"
  convolution_param {
    num_output: 96
    kernel_size: 11
    stride: 4
  }
}
layer {
  name: "relu1"
  type: "ReLU"
  bottom: "conv1"
  top: "conv1"
}
layer {
  name: "pool1"
  type: "Pooling"
  bottom: "conv1"
  top: "pool1"
  pooling_param {
    pool: MAX
    kernel_size: 3
    stride: 2
  }
}
layer {
  name: "norm1"
  type: "LRN"
  bottom: "pool1"
  top: "norm1"
  lrn_param {
    local_size: 5
    alpha: 0.0001
    beta: 0.75
  }
}
layer {
  name: "conv2"
  type: "Convolution"
  bottom: "norm1"
  top: "conv2"
  convolution_param {
    num_output: 256
    pad: 2
    kernel_size: 5
    group: 2
  }
}
layer {
  name: "relu2"
  type: "ReLU"
  bottom: "conv2"
  top: "conv2"
}
layer {
  name: "pool2"
  type: "Pooling"
  bottom: "conv2"
  top: "pool2"
  pooling_param {
    pool: MAX
    kernel_size: 3
    stride: 2
  }
}
layer {
  name: "norm2"
  type: "LRN"
  bottom: "pool2"
  top: "norm2"
  lrn_param {
    local_size: 5
    alpha: 0.0001
    beta: 0.75
  }
}
layer {
  name: "conv3"
  type: "Convolution"
  bottom: "norm2"
  top: "conv3"
  convolution_param {
    num_output: 384
    pad: 1
    kernel_size: 3
  }
}
layer {
  name: "relu3"
  type: "ReLU"
  bottom: "conv3"
  top: "conv3"
}
layer {
  name: "conv4"
  type: "Convolution"
  bottom: "conv3"
  top: "conv4"
  convolution_param {
    num_output: 384
    pad: 1
    kernel_size: 3
    group: 2
  }
}
layer {
  name: "relu4"
  type: "ReLU"
  bottom: "conv4"
  top: "conv4"
}
layer {
  name: "conv5"
  type: "Convolution"
  bottom: "conv4"
  top: "conv5"
  convolution_param {
    num_output: 256
    pad: 1
    kernel_size: 3
    group: 2
  }
}
layer {
  name: "relu5"
  type: "ReLU"
  bottom: "conv5"
  top: "conv5"
}
layer {
  name: "pool5"
  type: "Pooling"
  bottom: "conv5"
  top: "pool5"
  pooling_param {
    pool: MAX
    kernel_size: 3
    stride: 2
  }
}
layer {
  name: "fc6"
  type: "InnerProduct"
  bottom: "pool5"
  top: "fc6"
  inner_product_param {
    num_output: 4096
  }
}
layer {
  name: "relu6"
  type: "ReLU"
  bottom: "fc6"
  top: "fc6"
}
layer {
  name: "drop6"
  type: "Dropout"
  bottom: "fc6"
  top: "fc6"
  dropout_param {
    dropout_ratio: 0.5
  }
}
layer {
  name: "fc7"
  type: "InnerProduct"
  bottom: "fc6"
  top: "fc7"
  inner_product_param {
    num_output: 4096
  }
}
layer {
  name: "relu7"
  type: "ReLU"
  bottom: "fc7"
  top: "fc7"
}
layer {
  name: "drop7"
  type: "Dropout"
  bottom: "fc7"
  top: "fc7"
  dropout_param {
    dropout_ratio: 0.5
  }
}
layer {
  name: "fc8"
  type: "InnerProduct"
  bottom: "fc7"
  top: "fc8"
  inner_product_param {
    num_output: 1000
  }
}
layer {
  name: "prob"
  type: "Softmax"
  bottom: "fc8"
  top: "prob"
}
I0801 02:53:12.608119  3437 layer_factory.hpp:77] Creating layer data
I0801 02:53:12.608155  3437 net.cpp:91] Creating Layer data
I0801 02:53:12.608165  3437 net.cpp:399] data -> data
I0801 02:53:13.146708  3437 net.cpp:141] Setting up data
I0801 02:53:13.146801  3437 net.cpp:148] Top shape: 10 3 227 227 (1545870)
I0801 02:53:13.146808  3437 net.cpp:156] Memory required for data: 6183480
I0801 02:53:13.146826  3437 layer_factory.hpp:77] Creating layer conv1
I0801 02:53:13.146853  3437 net.cpp:91] Creating Layer conv1
I0801 02:53:13.146862  3437 net.cpp:425] conv1 <- data
I0801 02:53:13.146875  3437 net.cpp:399] conv1 -> conv1
I0801 02:53:13.209760  3427 upgrade_proto.cpp:66] Attempting to upgrade input file specified using deprecated input fields: /tmp/cvld5264574556384760938/s2vt.words_to_preds.prototxt
I0801 02:53:13.209831  3427 upgrade_proto.cpp:69] Successfully upgraded file specified using deprecated input fields.
W0801 02:53:13.209848  3427 upgrade_proto.cpp:71] Note that future Caffe releases will only support input layers and not input fields.
I0801 02:53:13.210273  3427 net.cpp:49] Initializing net from parameters: 
name: "s2vt:features_to_lstm"
state {
  phase: TEST
}
layer {
  name: "input"
  type: "Input"
  top: "frames_fc7"
  top: "cont_sentence"
  top: "input_sentence"
  top: "stage_indicator"
  input_param {
    shape {
      dim: 1
      dim: 4096
    }
    shape {
      dim: 1
      dim: 1
    }
    shape {
      dim: 1
      dim: 1
    }
    shape {
      dim: 1
      dim: 1
    }
  }
}
layer {
  name: "embed_encoder"
  type: "InnerProduct"
  bottom: "frames_fc7"
  top: "embedded_in_frames"
  param {
    lr_mult: 1
    decay_mult: 1
  }
  param {
    lr_mult: 2
    decay_mult: 0
  }
  inner_product_param {
    num_output: 500
    weight_filler {
      type: "xavier"
    }
    bias_filler {
      type: "constant"
      value: 0.2
    }
  }
}
layer {
  name: "reshape_frames"
  type: "Reshape"
  bottom: "embedded_in_frames"
  top: "embedded_input_frames"
  reshape_param {
    shape {
      dim: 1
      dim: 1
      dim: 500
    }
  }
}
layer {
  name: "reshape_stage_indicator"
  type: "Reshape"
  bottom: "stage_indicator"
  top: "reshaped_stage_indicator"
  reshape_param {
    shape {
      dim: 1
      dim: 1
      dim: 1
    }
  }
}
layer {
  name: "embedding"
  type: "Embed"
  bottom: "input_sentence"
  top: "embedded_input_sentence"
  param {
    lr_mult: 1
  }
  embed_param {
    num_output: 500
    input_dim: 46168
    bias_term: false
    weight_filler {
      type: "uniform"
      min: -0.08
      max: 0.08
    }
  }
}
layer {
  name: "lstm1"
  type: "LSTM"
  bottom: "embedded_input_frames"
  bottom: "cont_sentence"
  top: "lstm1"
  recurrent_param {
    num_output: 1000
    weight_filler {
      type: "uniform"
      min: -0.08
      max: 0.08
    }
    bias_filler {
      type: "constant"
      value: 0
    }
  }
}
layer {
  name: "concat"
  type: "Concat"
  bottom: "lstm1"
  bottom: "embedded_input_sentence"
  bottom: "reshaped_stage_indicator"
  top: "lstm1_video_sequence"
  concat_param {
    concat_dim: 2
  }
}
layer {
  name: "lstm2"
  type: "LSTM"
  bottom: "lstm1_video_sequence"
  bottom: "cont_sentence"
  top: "lstm2"
  recurrent_param {
    num_output: 1000
    weight_filler {
      type: "uniform"
      min: -0.08
      max: 0.08
    }
    bias_filler {
      type: "constant"
      value: 0
    }
  }
}
layer {
  name: "predict"
  type: "InnerProduct"
  bottom: "lstm2"
  top: "predict"
  param {
    lr_mult: 1
    decay_mult: 1
  }
  param {
    lr_mult: 2
    decay_mult: 0
  }
  inner_product_param {
    num_output: 46168
    weight_filler {
      type: "uniform"
      min: -0.08
      max: 0.08
    }
    bias_filler {
      type: "constant"
      value: 0
    }
    axis: 2
  }
}
layer {
  name: "probs"
  type: "Softmax"
  bottom: "predict"
  top: "probs"
  softmax_param {
    axis: 2
  }
}
I0801 02:53:13.210418  3427 layer_factory.hpp:77] Creating layer input
I0801 02:53:13.210441  3427 net.cpp:91] Creating Layer input
I0801 02:53:13.210453  3427 net.cpp:399] input -> frames_fc7
I0801 02:53:13.210475  3427 net.cpp:399] input -> cont_sentence
I0801 02:53:13.210492  3427 net.cpp:399] input -> input_sentence
I0801 02:53:13.210508  3427 net.cpp:399] input -> stage_indicator
I0801 02:53:13.214154  3427 net.cpp:141] Setting up input
I0801 02:53:13.214192  3427 net.cpp:148] Top shape: 1 4096 (4096)
I0801 02:53:13.214205  3427 net.cpp:148] Top shape: 1 1 (1)
I0801 02:53:13.214213  3427 net.cpp:148] Top shape: 1 1 (1)
I0801 02:53:13.214223  3427 net.cpp:148] Top shape: 1 1 (1)
I0801 02:53:13.214229  3427 net.cpp:156] Memory required for data: 16396
I0801 02:53:13.214239  3427 layer_factory.hpp:77] Creating layer cont_sentence_input_1_split
I0801 02:53:13.214265  3427 net.cpp:91] Creating Layer cont_sentence_input_1_split
I0801 02:53:13.214274  3427 net.cpp:425] cont_sentence_input_1_split <- cont_sentence
I0801 02:53:13.214313  3427 net.cpp:399] cont_sentence_input_1_split -> cont_sentence_input_1_split_0
I0801 02:53:13.214332  3427 net.cpp:399] cont_sentence_input_1_split -> cont_sentence_input_1_split_1
I0801 02:53:13.216136  3427 net.cpp:141] Setting up cont_sentence_input_1_split
I0801 02:53:13.216156  3427 net.cpp:148] Top shape: 1 1 (1)
I0801 02:53:13.216163  3427 net.cpp:148] Top shape: 1 1 (1)
I0801 02:53:13.216167  3427 net.cpp:156] Memory required for data: 16404
I0801 02:53:13.216172  3427 layer_factory.hpp:77] Creating layer embed_encoder
I0801 02:53:13.216190  3427 net.cpp:91] Creating Layer embed_encoder
I0801 02:53:13.216195  3427 net.cpp:425] embed_encoder <- frames_fc7
I0801 02:53:13.216204  3427 net.cpp:399] embed_encoder -> embedded_in_frames
I0801 02:53:13.250056  3427 net.cpp:141] Setting up embed_encoder
I0801 02:53:13.250121  3427 net.cpp:148] Top shape: 1 500 (500)
I0801 02:53:13.250133  3427 net.cpp:156] Memory required for data: 18404
I0801 02:53:13.250166  3427 layer_factory.hpp:77] Creating layer reshape_frames
I0801 02:53:13.250197  3427 net.cpp:91] Creating Layer reshape_frames
I0801 02:53:13.250208  3427 net.cpp:425] reshape_frames <- embedded_in_frames
I0801 02:53:13.250224  3427 net.cpp:399] reshape_frames -> embedded_input_frames
I0801 02:53:13.251180  3427 net.cpp:141] Setting up reshape_frames
I0801 02:53:13.251199  3427 net.cpp:148] Top shape: 1 1 500 (500)
I0801 02:53:13.251205  3427 net.cpp:156] Memory required for data: 20404
I0801 02:53:13.251214  3427 layer_factory.hpp:77] Creating layer reshape_stage_indicator
I0801 02:53:13.251231  3427 net.cpp:91] Creating Layer reshape_stage_indicator
I0801 02:53:13.251240  3427 net.cpp:425] reshape_stage_indicator <- stage_indicator
I0801 02:53:13.251258  3427 net.cpp:399] reshape_stage_indicator -> reshaped_stage_indicator
I0801 02:53:13.252835  3427 net.cpp:141] Setting up reshape_stage_indicator
I0801 02:53:13.252854  3427 net.cpp:148] Top shape: 1 1 1 (1)
I0801 02:53:13.252862  3427 net.cpp:156] Memory required for data: 20408
I0801 02:53:13.252871  3427 layer_factory.hpp:77] Creating layer embedding
I0801 02:53:13.252888  3427 net.cpp:91] Creating Layer embedding
I0801 02:53:13.252897  3427 net.cpp:425] embedding <- input_sentence
I0801 02:53:13.252912  3427 net.cpp:399] embedding -> embedded_input_sentence
I0801 02:53:13.439149  3437 net.cpp:141] Setting up conv1
I0801 02:53:13.439195  3437 net.cpp:148] Top shape: 10 96 55 55 (2904000)
I0801 02:53:13.439203  3437 net.cpp:156] Memory required for data: 17799480
I0801 02:53:13.439224  3437 layer_factory.hpp:77] Creating layer relu1
I0801 02:53:13.439240  3437 net.cpp:91] Creating Layer relu1
I0801 02:53:13.439246  3437 net.cpp:425] relu1 <- conv1
I0801 02:53:13.439254  3437 net.cpp:386] relu1 -> conv1 (in-place)
I0801 02:53:13.439676  3437 net.cpp:141] Setting up relu1
I0801 02:53:13.439688  3437 net.cpp:148] Top shape: 10 96 55 55 (2904000)
I0801 02:53:13.439692  3437 net.cpp:156] Memory required for data: 29415480
I0801 02:53:13.439698  3437 layer_factory.hpp:77] Creating layer pool1
I0801 02:53:13.439710  3437 net.cpp:91] Creating Layer pool1
I0801 02:53:13.439715  3437 net.cpp:425] pool1 <- conv1
I0801 02:53:13.439723  3437 net.cpp:399] pool1 -> pool1
I0801 02:53:13.439785  3437 net.cpp:141] Setting up pool1
I0801 02:53:13.439795  3437 net.cpp:148] Top shape: 10 96 27 27 (699840)
I0801 02:53:13.439800  3437 net.cpp:156] Memory required for data: 32214840
I0801 02:53:13.439805  3437 layer_factory.hpp:77] Creating layer norm1
I0801 02:53:13.439821  3437 net.cpp:91] Creating Layer norm1
I0801 02:53:13.439826  3437 net.cpp:425] norm1 <- pool1
I0801 02:53:13.439831  3437 net.cpp:399] norm1 -> norm1
I0801 02:53:13.440301  3437 net.cpp:141] Setting up norm1
I0801 02:53:13.440315  3437 net.cpp:148] Top shape: 10 96 27 27 (699840)
I0801 02:53:13.440320  3437 net.cpp:156] Memory required for data: 35014200
I0801 02:53:13.440325  3437 layer_factory.hpp:77] Creating layer conv2
I0801 02:53:13.440340  3437 net.cpp:91] Creating Layer conv2
I0801 02:53:13.440346  3437 net.cpp:425] conv2 <- norm1
I0801 02:53:13.440352  3437 net.cpp:399] conv2 -> conv2
I0801 02:53:13.443553  3437 net.cpp:141] Setting up conv2
I0801 02:53:13.443572  3437 net.cpp:148] Top shape: 10 256 27 27 (1866240)
I0801 02:53:13.443577  3437 net.cpp:156] Memory required for data: 42479160
I0801 02:53:13.443588  3437 layer_factory.hpp:77] Creating layer relu2
I0801 02:53:13.443598  3437 net.cpp:91] Creating Layer relu2
I0801 02:53:13.443603  3437 net.cpp:425] relu2 <- conv2
I0801 02:53:13.443613  3437 net.cpp:386] relu2 -> conv2 (in-place)
I0801 02:53:13.444064  3437 net.cpp:141] Setting up relu2
I0801 02:53:13.444077  3437 net.cpp:148] Top shape: 10 256 27 27 (1866240)
I0801 02:53:13.444082  3437 net.cpp:156] Memory required for data: 49944120
I0801 02:53:13.444087  3437 layer_factory.hpp:77] Creating layer pool2
I0801 02:53:13.444099  3437 net.cpp:91] Creating Layer pool2
I0801 02:53:13.444104  3437 net.cpp:425] pool2 <- conv2
I0801 02:53:13.444110  3437 net.cpp:399] pool2 -> pool2
I0801 02:53:13.444167  3437 net.cpp:141] Setting up pool2
I0801 02:53:13.444176  3437 net.cpp:148] Top shape: 10 256 13 13 (432640)
I0801 02:53:13.444180  3437 net.cpp:156] Memory required for data: 51674680
I0801 02:53:13.444185  3437 layer_factory.hpp:77] Creating layer norm2
I0801 02:53:13.444197  3437 net.cpp:91] Creating Layer norm2
I0801 02:53:13.444201  3437 net.cpp:425] norm2 <- pool2
I0801 02:53:13.444208  3437 net.cpp:399] norm2 -> norm2
I0801 02:53:13.444478  3437 net.cpp:141] Setting up norm2
I0801 02:53:13.444490  3437 net.cpp:148] Top shape: 10 256 13 13 (432640)
I0801 02:53:13.444494  3437 net.cpp:156] Memory required for data: 53405240
I0801 02:53:13.444499  3437 layer_factory.hpp:77] Creating layer conv3
I0801 02:53:13.444512  3437 net.cpp:91] Creating Layer conv3
I0801 02:53:13.444517  3437 net.cpp:425] conv3 <- norm2
I0801 02:53:13.444525  3437 net.cpp:399] conv3 -> conv3
I0801 02:53:13.448325  3437 net.cpp:141] Setting up conv3
I0801 02:53:13.448344  3437 net.cpp:148] Top shape: 10 384 13 13 (648960)
I0801 02:53:13.448349  3437 net.cpp:156] Memory required for data: 56001080
I0801 02:53:13.448361  3437 layer_factory.hpp:77] Creating layer relu3
I0801 02:53:13.448370  3437 net.cpp:91] Creating Layer relu3
I0801 02:53:13.448375  3437 net.cpp:425] relu3 <- conv3
I0801 02:53:13.448385  3437 net.cpp:386] relu3 -> conv3 (in-place)
I0801 02:53:13.448823  3437 net.cpp:141] Setting up relu3
I0801 02:53:13.448835  3437 net.cpp:148] Top shape: 10 384 13 13 (648960)
I0801 02:53:13.448840  3437 net.cpp:156] Memory required for data: 58596920
I0801 02:53:13.448846  3437 layer_factory.hpp:77] Creating layer conv4
I0801 02:53:13.448860  3437 net.cpp:91] Creating Layer conv4
I0801 02:53:13.448865  3437 net.cpp:425] conv4 <- conv3
I0801 02:53:13.448875  3437 net.cpp:399] conv4 -> conv4
I0801 02:53:13.453038  3437 net.cpp:141] Setting up conv4
I0801 02:53:13.453060  3437 net.cpp:148] Top shape: 10 384 13 13 (648960)
I0801 02:53:13.453065  3437 net.cpp:156] Memory required for data: 61192760
I0801 02:53:13.453074  3437 layer_factory.hpp:77] Creating layer relu4
I0801 02:53:13.453084  3437 net.cpp:91] Creating Layer relu4
I0801 02:53:13.453089  3437 net.cpp:425] relu4 <- conv4
I0801 02:53:13.453095  3437 net.cpp:386] relu4 -> conv4 (in-place)
I0801 02:53:13.453527  3437 net.cpp:141] Setting up relu4
I0801 02:53:13.453542  3437 net.cpp:148] Top shape: 10 384 13 13 (648960)
I0801 02:53:13.453547  3437 net.cpp:156] Memory required for data: 63788600
I0801 02:53:13.453552  3437 layer_factory.hpp:77] Creating layer conv5
I0801 02:53:13.453564  3437 net.cpp:91] Creating Layer conv5
I0801 02:53:13.453569  3437 net.cpp:425] conv5 <- conv4
I0801 02:53:13.453579  3437 net.cpp:399] conv5 -> conv5
I0801 02:53:13.457543  3437 net.cpp:141] Setting up conv5
I0801 02:53:13.457561  3437 net.cpp:148] Top shape: 10 256 13 13 (432640)
I0801 02:53:13.457566  3437 net.cpp:156] Memory required for data: 65519160
I0801 02:53:13.457584  3437 layer_factory.hpp:77] Creating layer relu5
I0801 02:53:13.457594  3437 net.cpp:91] Creating Layer relu5
I0801 02:53:13.457598  3437 net.cpp:425] relu5 <- conv5
I0801 02:53:13.457604  3437 net.cpp:386] relu5 -> conv5 (in-place)
I0801 02:53:13.458055  3437 net.cpp:141] Setting up relu5
I0801 02:53:13.458067  3437 net.cpp:148] Top shape: 10 256 13 13 (432640)
I0801 02:53:13.458072  3437 net.cpp:156] Memory required for data: 67249720
I0801 02:53:13.458078  3437 layer_factory.hpp:77] Creating layer pool5
I0801 02:53:13.458092  3437 net.cpp:91] Creating Layer pool5
I0801 02:53:13.458096  3437 net.cpp:425] pool5 <- conv5
I0801 02:53:13.458103  3437 net.cpp:399] pool5 -> pool5
I0801 02:53:13.458164  3437 net.cpp:141] Setting up pool5
I0801 02:53:13.458173  3437 net.cpp:148] Top shape: 10 256 6 6 (92160)
I0801 02:53:13.458178  3437 net.cpp:156] Memory required for data: 67618360
I0801 02:53:13.458183  3437 layer_factory.hpp:77] Creating layer fc6
I0801 02:53:13.458199  3437 net.cpp:91] Creating Layer fc6
I0801 02:53:13.458204  3437 net.cpp:425] fc6 <- pool5
I0801 02:53:13.458210  3437 net.cpp:399] fc6 -> fc6
I0801 02:53:13.522248  3427 net.cpp:141] Setting up embedding
I0801 02:53:13.522316  3427 net.cpp:148] Top shape: 1 1 500 (500)
I0801 02:53:13.522321  3427 net.cpp:156] Memory required for data: 22408
I0801 02:53:13.522341  3427 layer_factory.hpp:77] Creating layer lstm1
I0801 02:53:13.522359  3427 net.cpp:91] Creating Layer lstm1
I0801 02:53:13.522367  3427 net.cpp:425] lstm1 <- embedded_input_frames
I0801 02:53:13.522375  3427 net.cpp:425] lstm1 <- cont_sentence_input_1_split_0
I0801 02:53:13.522387  3427 net.cpp:399] lstm1 -> lstm1
I0801 02:53:13.522413  3427 recurrent_layer.cpp:20] Initializing recurrent layer: assuming input batch contains 1 timesteps of 1 independent streams.
I0801 02:53:13.522763  3427 net.cpp:49] Initializing net from parameters: 
layer {
  name: "lstm1_"
  type: "Input"
  top: "x"
  top: "cont"
  input_param {
    shape {
      dim: 1
      dim: 1
      dim: 500
    }
    shape {
      dim: 1
      dim: 1
    }
  }
}
layer {
  name: "lstm1_"
  type: "Input"
  top: "c_0"
  top: "h_0"
  input_param {
    shape {
      dim: 1
      dim: 1
      dim: 1000
    }
    shape {
      dim: 1
      dim: 1
      dim: 1000
    }
  }
}
layer {
  name: "lstm1_cont_slice"
  type: "Slice"
  bottom: "cont"
  top: "cont_1"
  slice_param {
    axis: 0
  }
}
layer {
  name: "lstm1_x_transform"
  type: "InnerProduct"
  bottom: "x"
  top: "W_xc_x"
  param {
    name: "W_xc"
  }
  param {
    name: "b_c"
  }
  propagate_down: true
  inner_product_param {
    num_output: 4000
    bias_term: true
    weight_filler {
      type: "uniform"
      min: -0.08
      max: 0.08
    }
    bias_filler {
      type: "constant"
      value: 0
    }
    axis: 2
  }
}
layer {
  name: "lstm1_W_xc_x_slice"
  type: "Slice"
  bottom: "W_xc_x"
  top: "W_xc_x_1"
  slice_param {
    axis: 0
  }
}
layer {
  name: "lstm1_h_conted_0"
  type: "Scale"
  bottom: "h_0"
  bottom: "cont_1"
  top: "h_conted_0"
  scale_param {
    axis: 0
  }
}
layer {
  name: "lstm1_transform_1"
  type: "InnerProduct"
  bottom: "h_conted_0"
  top: "W_hc_h_0"
  param {
    name: "W_hc"
  }
  inner_product_param {
    num_output: 4000
    bias_term: false
    weight_filler {
      type: "uniform"
      min: -0.08
      max: 0.08
    }
    axis: 2
  }
}
layer {
  name: "lstm1_gate_input_1"
  type: "Eltwise"
  bottom: "W_hc_h_0"
  bottom: "W_xc_x_1"
  top: "gate_input_1"
  eltwise_param {
    operation: SUM
  }
}
layer {
  name: "lstm1_unit_1"
  type: "LSTMUnit"
  bottom: "c_0"
  bottom: "gate_input_1"
  bottom: "cont_1"
  top: "c_1"
  top: "h_1"
}
layer {
  name: "lstm1_"
  type: "Split"
  bottom: "c_1"
  top: "c_T"
}
layer {
  name: "lstm1_h_concat"
  type: "Concat"
  bottom: "h_1"
  top: "h"
  concat_param {
    axis: 0
  }
}
layer {
  name: "h_pseudoloss"
  type: "Reduction"
  bottom: "h"
  top: "h_pseudoloss"
  loss_weight: 1
}
I0801 02:53:13.522852  3427 layer_factory.hpp:77] Creating layer lstm1_
I0801 02:53:13.522866  3427 net.cpp:91] Creating Layer lstm1_
I0801 02:53:13.522871  3427 net.cpp:399] lstm1_ -> x
I0801 02:53:13.522882  3427 net.cpp:399] lstm1_ -> cont
I0801 02:53:13.522953  3427 net.cpp:141] Setting up lstm1_
I0801 02:53:13.522961  3427 net.cpp:148] Top shape: 1 1 500 (500)
I0801 02:53:13.522967  3427 net.cpp:148] Top shape: 1 1 (1)
I0801 02:53:13.522971  3427 net.cpp:156] Memory required for data: 2004
I0801 02:53:13.522976  3427 layer_factory.hpp:77] Creating layer lstm1_
I0801 02:53:13.522984  3427 net.cpp:91] Creating Layer lstm1_
I0801 02:53:13.522994  3427 net.cpp:399] lstm1_ -> c_0
I0801 02:53:13.523002  3427 net.cpp:399] lstm1_ -> h_0
I0801 02:53:13.523051  3427 net.cpp:141] Setting up lstm1_
I0801 02:53:13.523061  3427 net.cpp:148] Top shape: 1 1 1000 (1000)
I0801 02:53:13.523066  3427 net.cpp:148] Top shape: 1 1 1000 (1000)
I0801 02:53:13.523069  3427 net.cpp:156] Memory required for data: 10004
I0801 02:53:13.523073  3427 layer_factory.hpp:77] Creating layer lstm1_cont_slice
I0801 02:53:13.523085  3427 net.cpp:91] Creating Layer lstm1_cont_slice
I0801 02:53:13.523090  3427 net.cpp:425] lstm1_cont_slice <- cont
I0801 02:53:13.523097  3427 net.cpp:399] lstm1_cont_slice -> cont_1
I0801 02:53:13.523133  3427 net.cpp:141] Setting up lstm1_cont_slice
I0801 02:53:13.523140  3427 net.cpp:148] Top shape: 1 1 (1)
I0801 02:53:13.523144  3427 net.cpp:156] Memory required for data: 10008
I0801 02:53:13.523149  3427 layer_factory.hpp:77] Creating layer cont_1_lstm1_cont_slice_0_split
I0801 02:53:13.523156  3427 net.cpp:91] Creating Layer cont_1_lstm1_cont_slice_0_split
I0801 02:53:13.523160  3427 net.cpp:425] cont_1_lstm1_cont_slice_0_split <- cont_1
I0801 02:53:13.523169  3427 net.cpp:399] cont_1_lstm1_cont_slice_0_split -> cont_1_lstm1_cont_slice_0_split_0
I0801 02:53:13.523177  3427 net.cpp:399] cont_1_lstm1_cont_slice_0_split -> cont_1_lstm1_cont_slice_0_split_1
I0801 02:53:13.523224  3427 net.cpp:141] Setting up cont_1_lstm1_cont_slice_0_split
I0801 02:53:13.523232  3427 net.cpp:148] Top shape: 1 1 (1)
I0801 02:53:13.523238  3427 net.cpp:148] Top shape: 1 1 (1)
I0801 02:53:13.523242  3427 net.cpp:156] Memory required for data: 10016
I0801 02:53:13.523247  3427 layer_factory.hpp:77] Creating layer lstm1_x_transform
I0801 02:53:13.523255  3427 net.cpp:91] Creating Layer lstm1_x_transform
I0801 02:53:13.523259  3427 net.cpp:425] lstm1_x_transform <- x
I0801 02:53:13.523267  3427 net.cpp:399] lstm1_x_transform -> W_xc_x
I0801 02:53:13.543382  3427 net.cpp:141] Setting up lstm1_x_transform
I0801 02:53:13.543433  3427 net.cpp:148] Top shape: 1 1 4000 (4000)
I0801 02:53:13.543439  3427 net.cpp:156] Memory required for data: 26016
I0801 02:53:13.543459  3427 layer_factory.hpp:77] Creating layer lstm1_W_xc_x_slice
I0801 02:53:13.543476  3427 net.cpp:91] Creating Layer lstm1_W_xc_x_slice
I0801 02:53:13.543483  3427 net.cpp:425] lstm1_W_xc_x_slice <- W_xc_x
I0801 02:53:13.543493  3427 net.cpp:399] lstm1_W_xc_x_slice -> W_xc_x_1
I0801 02:53:13.543535  3427 net.cpp:141] Setting up lstm1_W_xc_x_slice
I0801 02:53:13.543545  3427 net.cpp:148] Top shape: 1 1 4000 (4000)
I0801 02:53:13.543550  3427 net.cpp:156] Memory required for data: 42016
I0801 02:53:13.543553  3427 layer_factory.hpp:77] Creating layer lstm1_h_conted_0
I0801 02:53:13.543565  3427 net.cpp:91] Creating Layer lstm1_h_conted_0
I0801 02:53:13.543571  3427 net.cpp:425] lstm1_h_conted_0 <- h_0
I0801 02:53:13.543576  3427 net.cpp:425] lstm1_h_conted_0 <- cont_1_lstm1_cont_slice_0_split_0
I0801 02:53:13.543582  3427 net.cpp:399] lstm1_h_conted_0 -> h_conted_0
I0801 02:53:13.543670  3427 net.cpp:141] Setting up lstm1_h_conted_0
I0801 02:53:13.543679  3427 net.cpp:148] Top shape: 1 1 1000 (1000)
I0801 02:53:13.543684  3427 net.cpp:156] Memory required for data: 46016
I0801 02:53:13.543689  3427 layer_factory.hpp:77] Creating layer lstm1_transform_1
I0801 02:53:13.543705  3427 net.cpp:91] Creating Layer lstm1_transform_1
I0801 02:53:13.543710  3427 net.cpp:425] lstm1_transform_1 <- h_conted_0
I0801 02:53:13.543718  3427 net.cpp:399] lstm1_transform_1 -> W_hc_h_0
I0801 02:53:13.560596  3437 net.cpp:141] Setting up fc6
I0801 02:53:13.560644  3437 net.cpp:148] Top shape: 10 4096 (40960)
I0801 02:53:13.560649  3437 net.cpp:156] Memory required for data: 67782200
I0801 02:53:13.560663  3437 layer_factory.hpp:77] Creating layer relu6
I0801 02:53:13.560678  3437 net.cpp:91] Creating Layer relu6
I0801 02:53:13.560683  3437 net.cpp:425] relu6 <- fc6
I0801 02:53:13.560695  3437 net.cpp:386] relu6 -> fc6 (in-place)
I0801 02:53:13.561017  3437 net.cpp:141] Setting up relu6
I0801 02:53:13.561029  3437 net.cpp:148] Top shape: 10 4096 (40960)
I0801 02:53:13.561033  3437 net.cpp:156] Memory required for data: 67946040
I0801 02:53:13.561038  3437 layer_factory.hpp:77] Creating layer drop6
I0801 02:53:13.561048  3437 net.cpp:91] Creating Layer drop6
I0801 02:53:13.561053  3437 net.cpp:425] drop6 <- fc6
I0801 02:53:13.561059  3437 net.cpp:386] drop6 -> fc6 (in-place)
I0801 02:53:13.561118  3437 net.cpp:141] Setting up drop6
I0801 02:53:13.561127  3437 net.cpp:148] Top shape: 10 4096 (40960)
I0801 02:53:13.561131  3437 net.cpp:156] Memory required for data: 68109880
I0801 02:53:13.561136  3437 layer_factory.hpp:77] Creating layer fc7
I0801 02:53:13.561149  3437 net.cpp:91] Creating Layer fc7
I0801 02:53:13.561153  3437 net.cpp:425] fc7 <- fc6
I0801 02:53:13.561161  3437 net.cpp:399] fc7 -> fc7
I0801 02:53:13.589730  3427 net.cpp:141] Setting up lstm1_transform_1
I0801 02:53:13.589797  3427 net.cpp:148] Top shape: 1 1 4000 (4000)
I0801 02:53:13.589802  3427 net.cpp:156] Memory required for data: 62016
I0801 02:53:13.589823  3427 layer_factory.hpp:77] Creating layer lstm1_gate_input_1
I0801 02:53:13.589841  3427 net.cpp:91] Creating Layer lstm1_gate_input_1
I0801 02:53:13.589848  3427 net.cpp:425] lstm1_gate_input_1 <- W_hc_h_0
I0801 02:53:13.589856  3427 net.cpp:425] lstm1_gate_input_1 <- W_xc_x_1
I0801 02:53:13.589867  3427 net.cpp:399] lstm1_gate_input_1 -> gate_input_1
I0801 02:53:13.589926  3427 net.cpp:141] Setting up lstm1_gate_input_1
I0801 02:53:13.589934  3427 net.cpp:148] Top shape: 1 1 4000 (4000)
I0801 02:53:13.589938  3427 net.cpp:156] Memory required for data: 78016
I0801 02:53:13.589943  3427 layer_factory.hpp:77] Creating layer lstm1_unit_1
I0801 02:53:13.589954  3427 net.cpp:91] Creating Layer lstm1_unit_1
I0801 02:53:13.589959  3427 net.cpp:425] lstm1_unit_1 <- c_0
I0801 02:53:13.589965  3427 net.cpp:425] lstm1_unit_1 <- gate_input_1
I0801 02:53:13.589970  3427 net.cpp:425] lstm1_unit_1 <- cont_1_lstm1_cont_slice_0_split_1
I0801 02:53:13.589977  3427 net.cpp:399] lstm1_unit_1 -> c_1
I0801 02:53:13.589985  3427 net.cpp:399] lstm1_unit_1 -> h_1
I0801 02:53:13.590049  3427 net.cpp:141] Setting up lstm1_unit_1
I0801 02:53:13.590057  3427 net.cpp:148] Top shape: 1 1 1000 (1000)
I0801 02:53:13.590062  3427 net.cpp:148] Top shape: 1 1 1000 (1000)
I0801 02:53:13.590067  3427 net.cpp:156] Memory required for data: 86016
I0801 02:53:13.590071  3427 layer_factory.hpp:77] Creating layer lstm1_
I0801 02:53:13.590080  3427 net.cpp:91] Creating Layer lstm1_
I0801 02:53:13.590083  3427 net.cpp:425] lstm1_ <- c_1
I0801 02:53:13.590092  3427 net.cpp:399] lstm1_ -> c_T
I0801 02:53:13.590122  3427 net.cpp:141] Setting up lstm1_
I0801 02:53:13.590131  3427 net.cpp:148] Top shape: 1 1 1000 (1000)
I0801 02:53:13.590134  3427 net.cpp:156] Memory required for data: 90016
I0801 02:53:13.590138  3427 layer_factory.hpp:77] Creating layer lstm1_h_concat
I0801 02:53:13.590155  3427 net.cpp:91] Creating Layer lstm1_h_concat
I0801 02:53:13.590160  3427 net.cpp:425] lstm1_h_concat <- h_1
I0801 02:53:13.590167  3427 net.cpp:399] lstm1_h_concat -> h
I0801 02:53:13.590205  3427 net.cpp:141] Setting up lstm1_h_concat
I0801 02:53:13.590214  3427 net.cpp:148] Top shape: 1 1 1000 (1000)
I0801 02:53:13.590219  3427 net.cpp:156] Memory required for data: 94016
I0801 02:53:13.590222  3427 layer_factory.hpp:77] Creating layer h_pseudoloss
I0801 02:53:13.590231  3427 net.cpp:91] Creating Layer h_pseudoloss
I0801 02:53:13.590235  3427 net.cpp:425] h_pseudoloss <- h
I0801 02:53:13.590242  3427 net.cpp:399] h_pseudoloss -> h_pseudoloss
I0801 02:53:13.590332  3427 net.cpp:141] Setting up h_pseudoloss
…
I0801 02:53:13.590446  3427 net.cpp:219] lstm1_ does not need backward computation.
I0801 02:53:13.590450  3427 net.cpp:261] This network produces output c_T
I0801 02:53:13.590453  3427 net.cpp:261] This network produces output h_pseudoloss
I0801 02:53:13.590469  3427 net.cpp:274] Network initialization done.
I0801 02:53:13.590526  3427 recurrent_layer.cpp:150] Adding parameter 0: W_xc
I0801 02:53:13.590533  3427 recurrent_layer.cpp:150] Adding parameter 1: b_c
I0801 02:53:13.590536  3427 recurrent_layer.cpp:150] Adding parameter 2: W_hc
I0801 02:53:13.590641  3427 net.cpp:141] Setting up lstm1
I0801 02:53:13.590653  3427 net.cpp:148] Top shape: 1 1 1000 (1000)
I0801 02:53:13.590657  3427 net.cpp:156] Memory required for data: 26408
I0801 02:53:13.590670  3427 layer_factory.hpp:77] Creating layer concat
I0801 02:53:13.590678  3427 net.cpp:91] Creating Layer concat
I0801 02:53:13.590684  3427 net.cpp:425] concat <- lstm1
I0801 02:53:13.590690  3427 net.cpp:425] concat <- embedded_input_sentence
I0801 02:53:13.590697  3427 net.cpp:425] concat <- reshaped_stage_indicator
I0801 02:53:13.590703  3427 net.cpp:399] concat -> lstm1_video_sequence
I0801 02:53:13.590734  3427 net.cpp:141] Setting up concat
I0801 02:53:13.590744  3427 net.cpp:148] Top shape: 1 1 1501 (1501)
I0801 02:53:13.590747  3427 net.cpp:156] Memory required for data: 32412
I0801 02:53:13.590751  3427 layer_factory.hpp:77] Creating layer lstm2
I0801 02:53:13.590762  3427 net.cpp:91] Creating Layer lstm2
I0801 02:53:13.590767  3427 net.cpp:425] lstm2 <- lstm1_video_sequence
I0801 02:53:13.590772  3427 net.cpp:425] lstm2 <- cont_sentence_input_1_split_1
I0801 02:53:13.590780  3427 net.cpp:399] lstm2 -> lstm2
I0801 02:53:13.590788  3427 recurrent_layer.cpp:20] Initializing recurrent layer: assuming input batch contains 1 timesteps of 1 independent streams.
I0801 02:53:13.591027  3427 net.cpp:49] Initializing net from parameters: 
layer {
  name: "lstm2_"
  type: "Input"
  top: "x"
  top: "cont"
  input_param {
    shape {
      dim: 1
      dim: 1
      dim: 1501
    }
    shape {
      dim: 1
      dim: 1
    }
  }
}
layer {
  name: "lstm2_"
  type: "Input"
  top: "c_0"
  top: "h_0"
  input_param {
    shape {
      dim: 1
      dim: 1
      dim: 1000
    }
    shape {
      dim: 1
      dim: 1
      dim: 1000
    }
  }
}
layer {
  name: "lstm2_cont_slice"
  type: "Slice"
  bottom: "cont"
  top: "cont_1"
  slice_param {
    axis: 0
  }
}
layer {
  name: "lstm2_x_transform"
  type: "InnerProduct"
  bottom: "x"
  top: "W_xc_x"
  param {
    name: "W_xc"
  }
  param {
    name: "b_c"
  }
  propagate_down: true
  inner_product_param {
    num_output: 4000
    bias_term: true
    weight_filler {
      type: "uniform"
      min: -0.08
      max: 0.08
    }
    bias_filler {
      type: "constant"
      value: 0
    }
    axis: 2
  }
}
layer {
  name: "lstm2_W_xc_x_slice"
  type: "Slice"
  bottom: "W_xc_x"
  top: "W_xc_x_1"
  slice_param {
    axis: 0
  }
}
layer {
  name: "lstm2_h_conted_0"
  type: "Scale"
  bottom: "h_0"
  bottom: "cont_1"
  top: "h_conted_0"
  scale_param {
    axis: 0
  }
}
layer {
  name: "lstm2_transform_1"
  type: "InnerProduct"
  bottom: "h_conted_0"
  top: "W_hc_h_0"
  param {
    name: "W_hc"
  }
  inner_product_param {
    num_output: 4000
    bias_term: false
    weight_filler {
      type: "uniform"
      min: -0.08
      max: 0.08
    }
    axis: 2
  }
}
layer {
  name: "lstm2_gate_input_1"
  type: "Eltwise"
  bottom: "W_hc_h_0"
  bottom: "W_xc_x_1"
  top: "gate_input_1"
  eltwise_param {
    operation: SUM
  }
}
layer {
  name: "lstm2_unit_1"
  type: "LSTMUnit"
  bottom: "c_0"
  bottom: "gate_input_1"
  bottom: "cont_1"
  top: "c_1"
  top: "h_1"
}
layer {
  name: "lstm2_"
  type: "Split"
  bottom: "c_1"
  top: "c_T"
}
layer {
  name: "lstm2_h_concat"
  type: "Concat"
  bottom: "h_1"
  top: "h"
  concat_param {
    axis: 0
  }
}
layer {
  name: "h_pseudoloss"
  type: "Reduction"
  bottom: "h"
  top: "h_pseudoloss"
  loss_weight: 1
}
I0801 02:53:13.591109  3427 layer_factory.hpp:77] Creating layer lstm2_
I0801 02:53:13.591122  3427 net.cpp:91] Creating Layer lstm2_
I0801 02:53:13.591128  3427 net.cpp:399] lstm2_ -> x
I0801 02:53:13.591138  3427 net.cpp:399] lstm2_ -> cont
I0801 02:53:13.591190  3427 net.cpp:141] Setting up lstm2_
I0801 02:53:13.591199  3427 net.cpp:148] Top shape: 1 1 1501 (1501)
I0801 02:53:13.591204  3427 net.cpp:148] Top shape: 1 1 (1)
I0801 02:53:13.591208  3427 net.cpp:156] Memory required for data: 6008
I0801 02:53:13.591213  3427 layer_factory.hpp:77] Creating layer lstm2_
I0801 02:53:13.591224  3427 net.cpp:91] Creating Layer lstm2_
I0801 02:53:13.591230  3427 net.cpp:399] lstm2_ -> c_0
I0801 02:53:13.591239  3427 net.cpp:399] lstm2_ -> h_0
I0801 02:53:13.591289  3427 net.cpp:141] Setting up lstm2_
I0801 02:53:13.591297  3427 net.cpp:148] Top shape: 1 1 1000 (1000)
I0801 02:53:13.591302  3427 net.cpp:148] Top shape: 1 1 1000 (1000)
I0801 02:53:13.591306  3427 net.cpp:156] Memory required for data: 14008
I0801 02:53:13.591310  3427 layer_factory.hpp:77] Creating layer lstm2_cont_slice
I0801 02:53:13.591318  3427 net.cpp:91] Creating Layer lstm2_cont_slice
I0801 02:53:13.591323  3427 net.cpp:425] lstm2_cont_slice <- cont
I0801 02:53:13.591330  3427 net.cpp:399] lstm2_cont_slice -> cont_1
I0801 02:53:13.591363  3427 net.cpp:141] Setting up lstm2_cont_slice
I0801 02:53:13.591372  3427 net.cpp:148] Top shape: 1 1 (1)
I0801 02:53:13.591377  3427 net.cpp:156] Memory required for data: 14012
I0801 02:53:13.591380  3427 layer_factory.hpp:77] Creating layer cont_1_lstm2_cont_slice_0_split
I0801 02:53:13.591387  3427 net.cpp:91] Creating Layer cont_1_lstm2_cont_slice_0_split
I0801 02:53:13.591392  3427 net.cpp:425] cont_1_lstm2_cont_slice_0_split <- cont_1
I0801 02:53:13.591399  3427 net.cpp:399] cont_1_lstm2_cont_slice_0_split -> cont_1_lstm2_cont_slice_0_split_0
I0801 02:53:13.591408  3427 net.cpp:399] cont_1_lstm2_cont_slice_0_split -> cont_1_lstm2_cont_slice_0_split_1
I0801 02:53:13.591451  3427 net.cpp:141] Setting up cont_1_lstm2_cont_slice_0_split
I0801 02:53:13.591461  3427 net.cpp:148] Top shape: 1 1 (1)
I0801 02:53:13.591466  3427 net.cpp:148] Top shape: 1 1 (1)
I0801 02:53:13.591470  3427 net.cpp:156] Memory required for data: 14020
I0801 02:53:13.591475  3427 layer_factory.hpp:77] Creating layer lstm2_x_transform
I0801 02:53:13.591483  3427 net.cpp:91] Creating Layer lstm2_x_transform
I0801 02:53:13.591487  3427 net.cpp:425] lstm2_x_transform <- x
I0801 02:53:13.591496  3427 net.cpp:399] lstm2_x_transform -> W_xc_x
I0801 02:53:13.607761  3437 net.cpp:141] Setting up fc7
I0801 02:53:13.607810  3437 net.cpp:148] Top shape: 10 4096 (40960)
I0801 02:53:13.607821  3437 net.cpp:156] Memory required for data: 68273720
I0801 02:53:13.607843  3437 layer_factory.hpp:77] Creating layer relu7
I0801 02:53:13.607874  3437 net.cpp:91] Creating Layer relu7
I0801 02:53:13.607893  3437 net.cpp:425] relu7 <- fc7
I0801 02:53:13.607913  3437 net.cpp:386] relu7 -> fc7 (in-place)
I0801 02:53:13.608887  3437 net.cpp:141] Setting up relu7
I0801 02:53:13.608907  3437 net.cpp:148] Top shape: 10 4096 (40960)
I0801 02:53:13.608916  3437 net.cpp:156] Memory required for data: 68437560
I0801 02:53:13.608924  3437 layer_factory.hpp:77] Creating layer drop7
I0801 02:53:13.608944  3437 net.cpp:91] Creating Layer drop7
I0801 02:53:13.608953  3437 net.cpp:425] drop7 <- fc7
I0801 02:53:13.608964  3437 net.cpp:386] drop7 -> fc7 (in-place)
I0801 02:53:13.609020  3437 net.cpp:141] Setting up drop7
I0801 02:53:13.609033  3437 net.cpp:148] Top shape: 10 4096 (40960)
I0801 02:53:13.609040  3437 net.cpp:156] Memory required for data: 68601400
I0801 02:53:13.609048  3437 layer_factory.hpp:77] Creating layer fc8
I0801 02:53:13.609062  3437 net.cpp:91] Creating Layer fc8
I0801 02:53:13.609069  3437 net.cpp:425] fc8 <- fc7
I0801 02:53:13.609086  3437 net.cpp:399] fc8 -> fc8
I0801 02:53:13.624349  3437 net.cpp:141] Setting up fc8
I0801 02:53:13.624392  3437 net.cpp:148] Top shape: 10 1000 (10000)
I0801 02:53:13.624398  3437 net.cpp:156] Memory required for data: 68641400
I0801 02:53:13.624411  3437 layer_factory.hpp:77] Creating layer prob
I0801 02:53:13.624425  3437 net.cpp:91] Creating Layer prob
I0801 02:53:13.624433  3437 net.cpp:425] prob <- fc8
I0801 02:53:13.624440  3437 net.cpp:399] prob -> prob
I0801 02:53:13.624871  3437 net.cpp:141] Setting up prob
I0801 02:53:13.624886  3437 net.cpp:148] Top shape: 10 1000 (10000)
I0801 02:53:13.624891  3437 net.cpp:156] Memory required for data: 68681400
I0801 02:53:13.624897  3437 net.cpp:219] prob does not need backward computation.
I0801 02:53:13.624902  3437 net.cpp:219] fc8 does not need backward computation.
I0801 02:53:13.624907  3437 net.cpp:219] drop7 does not need backward computation.
I0801 02:53:13.624910  3437 net.cpp:219] relu7 does not need backward computation.
…
I0801 02:53:13.624975  3437 net.cpp:219] norm1 does not need backward computation.
I0801 02:53:13.624979  3437 net.cpp:219] pool1 does not need backward computation.
I0801 02:53:13.624984  3437 net.cpp:219] relu1 does not need backward computation.
I0801 02:53:13.624989  3437 net.cpp:219] conv1 does not need backward computation.
I0801 02:53:13.624992  3437 net.cpp:219] data does not need backward computation.
I0801 02:53:13.624996  3437 net.cpp:261] This network produces output prob
I0801 02:53:13.625013  3437 net.cpp:274] Network initialization done.
I0801 02:53:13.649121  3427 net.cpp:141] Setting up lstm2_x_transform
I0801 02:53:13.649165  3427 net.cpp:148] Top shape: 1 1 4000 (4000)
I0801 02:53:13.649171  3427 net.cpp:156] Memory required for data: 30020
I0801 02:53:13.649190  3427 layer_factory.hpp:77] Creating layer lstm2_W_xc_x_slice
I0801 02:53:13.649205  3427 net.cpp:91] Creating Layer lstm2_W_xc_x_slice
I0801 02:53:13.649210  3427 net.cpp:425] lstm2_W_xc_x_slice <- W_xc_x
I0801 02:53:13.649220  3427 net.cpp:399] lstm2_W_xc_x_slice -> W_xc_x_1
I0801 02:53:13.649266  3427 net.cpp:141] Setting up lstm2_W_xc_x_slice
I0801 02:53:13.649276  3427 net.cpp:148] Top shape: 1 1 4000 (4000)
I0801 02:53:13.649281  3427 net.cpp:156] Memory required for data: 46020
I0801 02:53:13.649284  3427 layer_factory.hpp:77] Creating layer lstm2_h_conted_0
I0801 02:53:13.649293  3427 net.cpp:91] Creating Layer lstm2_h_conted_0
I0801 02:53:13.649299  3427 net.cpp:425] lstm2_h_conted_0 <- h_0
I0801 02:53:13.649304  3427 net.cpp:425] lstm2_h_conted_0 <- cont_1_lstm2_cont_slice_0_split_0
I0801 02:53:13.649312  3427 net.cpp:399] lstm2_h_conted_0 -> h_conted_0
I0801 02:53:13.649401  3427 net.cpp:141] Setting up lstm2_h_conted_0
I0801 02:53:13.649410  3427 net.cpp:148] Top shape: 1 1 1000 (1000)
I0801 02:53:13.649413  3427 net.cpp:156] Memory required for data: 50020
I0801 02:53:13.649418  3427 layer_factory.hpp:77] Creating layer lstm2_transform_1
I0801 02:53:13.649430  3427 net.cpp:91] Creating Layer lstm2_transform_1
I0801 02:53:13.649435  3427 net.cpp:425] lstm2_transform_1 <- h_conted_0
I0801 02:53:13.649441  3427 net.cpp:399] lstm2_transform_1 -> W_hc_h_0
I0801 02:53:13.686991  3427 net.cpp:141] Setting up lstm2_transform_1
I0801 02:53:13.687054  3427 net.cpp:148] Top shape: 1 1 4000 (4000)
I0801 02:53:13.687060  3427 net.cpp:156] Memory required for data: 66020
I0801 02:53:13.687077  3427 layer_factory.hpp:77] Creating layer lstm2_gate_input_1
I0801 02:53:13.687098  3427 net.cpp:91] Creating Layer lstm2_gate_input_1
I0801 02:53:13.687105  3427 net.cpp:425] lstm2_gate_input_1 <- W_hc_h_0
I0801 02:53:13.687114  3427 net.cpp:425] lstm2_gate_input_1 <- W_xc_x_1
I0801 02:53:13.687120  3427 net.cpp:399] lstm2_gate_input_1 -> gate_input_1
I0801 02:53:13.687170  3427 net.cpp:141] Setting up lstm2_gate_input_1
I0801 02:53:13.687178  3427 net.cpp:148] Top shape: 1 1 4000 (4000)
I0801 02:53:13.687182  3427 net.cpp:156] Memory required for data: 82020
I0801 02:53:13.687186  3427 layer_factory.hpp:77] Creating layer lstm2_unit_1
I0801 02:53:13.687194  3427 net.cpp:91] Creating Layer lstm2_unit_1
I0801 02:53:13.687201  3427 net.cpp:425] lstm2_unit_1 <- c_0
I0801 02:53:13.687207  3427 net.cpp:425] lstm2_unit_1 <- gate_input_1
I0801 02:53:13.687212  3427 net.cpp:425] lstm2_unit_1 <- cont_1_lstm2_cont_slice_0_split_1
I0801 02:53:13.687218  3427 net.cpp:399] lstm2_unit_1 -> c_1
I0801 02:53:13.687227  3427 net.cpp:399] lstm2_unit_1 -> h_1
I0801 02:53:13.687286  3427 net.cpp:141] Setting up lstm2_unit_1
I0801 02:53:13.687295  3427 net.cpp:148] Top shape: 1 1 1000 (1000)
I0801 02:53:13.687300  3427 net.cpp:148] Top shape: 1 1 1000 (1000)
I0801 02:53:13.687304  3427 net.cpp:156] Memory required for data: 90020
I0801 02:53:13.687309  3427 layer_factory.hpp:77] Creating layer lstm2_
I0801 02:53:13.687319  3427 net.cpp:91] Creating Layer lstm2_
I0801 02:53:13.687324  3427 net.cpp:425] lstm2_ <- c_1
I0801 02:53:13.687330  3427 net.cpp:399] lstm2_ -> c_T
I0801 02:53:13.687360  3427 net.cpp:141] Setting up lstm2_
I0801 02:53:13.687367  3427 net.cpp:148] Top shape: 1 1 1000 (1000)
I0801 02:53:13.687371  3427 net.cpp:156] Memory required for data: 94020
I0801 02:53:13.687376  3427 layer_factory.hpp:77] Creating layer lstm2_h_concat
I0801 02:53:13.687386  3427 net.cpp:91] Creating Layer lstm2_h_concat
I0801 02:53:13.687389  3427 net.cpp:425] lstm2_h_concat <- h_1
I0801 02:53:13.687398  3427 net.cpp:399] lstm2_h_concat -> h
I0801 02:53:13.687434  3427 net.cpp:141] Setting up lstm2_h_concat
I0801 02:53:13.687443  3427 net.cpp:148] Top shape: 1 1 1000 (1000)
I0801 02:53:13.687446  3427 net.cpp:156] Memory required for data: 98020
I0801 02:53:13.687450  3427 layer_factory.hpp:77] Creating layer h_pseudoloss
I0801 02:53:13.687458  3427 net.cpp:91] Creating Layer h_pseudoloss
I0801 02:53:13.687463  3427 net.cpp:425] h_pseudoloss <- h
I0801 02:53:13.687469  3427 net.cpp:399] h_pseudoloss -> h_pseudoloss
I0801 02:53:13.687552  3427 net.cpp:141] Setting up h_pseudoloss
…
