…
Java HotSpot(TM) 64-Bit Server VM warning: You have loaded library /tmp/cvld4364669880932607781/libopencv_java310.xine1.so which might have disabled stack guard. The VM will try to fix the stack guard now.
It's highly recommended that you fix the library with 'execstack -c <libfile>', or link it with '-z noexecstack'.
WARNING: Logging before InitGoogleLogging() is written to STDERR
I0730 10:11:43.235739 19735 net.cpp:49] Initializing net from parameters: 
name: "CaffeNet"
state {
  phase: TEST
}
layer {
  name: "data"
  type: "Input"
  top: "data"
  input_param {
    shape {
      dim: 10
      dim: 3
      dim: 227
      dim: 227
    }
  }
}
layer {
  name: "conv1"
  type: "Convolution"
  bottom: "data"
  top: "conv1"
  convolution_param {
    num_output: 96
    kernel_size: 11
    stride: 4
  }
}
layer {
  name: "relu1"
  type: "ReLU"
  bottom: "conv1"
  top: "conv1"
}
layer {
  name: "pool1"
  type: "Pooling"
  bottom: "conv1"
  top: "pool1"
  pooling_param {
    pool: MAX
    kernel_size: 3
    stride: 2
  }
}
layer {
  name: "norm1"
  type: "LRN"
  bottom: "pool1"
  top: "norm1"
  lrn_param {
    local_size: 5
    alpha: 0.0001
    beta: 0.75
  }
}
layer {
  name: "conv2"
  type: "Convolution"
  bottom: "norm1"
  top: "conv2"
  convolution_param {
    num_output: 256
    pad: 2
    kernel_size: 5
    group: 2
  }
}
layer {
  name: "relu2"
  type: "ReLU"
  bottom: "conv2"
  top: "conv2"
}
layer {
  name: "pool2"
  type: "Pooling"
  bottom: "conv2"
  top: "pool2"
  pooling_param {
    pool: MAX
    kernel_size: 3
    stride: 2
  }
}
layer {
  name: "norm2"
  type: "LRN"
  bottom: "pool2"
  top: "norm2"
  lrn_param {
    local_size: 5
    alpha: 0.0001
    beta: 0.75
  }
}
layer {
  name: "conv3"
  type: "Convolution"
  bottom: "norm2"
  top: "conv3"
  convolution_param {
    num_output: 384
    pad: 1
    kernel_size: 3
  }
}
layer {
  name: "relu3"
  type: "ReLU"
  bottom: "conv3"
  top: "conv3"
}
layer {
  name: "conv4"
  type: "Convolution"
  bottom: "conv3"
  top: "conv4"
  convolution_param {
    num_output: 384
    pad: 1
    kernel_size: 3
    group: 2
  }
}
layer {
  name: "relu4"
  type: "ReLU"
  bottom: "conv4"
  top: "conv4"
}
layer {
  name: "conv5"
  type: "Convolution"
  bottom: "conv4"
  top: "conv5"
  convolution_param {
    num_output: 256
    pad: 1
    kernel_size: 3
    group: 2
  }
}
layer {
  name: "relu5"
  type: "ReLU"
  bottom: "conv5"
  top: "conv5"
}
layer {
  name: "pool5"
  type: "Pooling"
  bottom: "conv5"
  top: "pool5"
  pooling_param {
    pool: MAX
    kernel_size: 3
    stride: 2
  }
}
layer {
  name: "fc6"
  type: "InnerProduct"
  bottom: "pool5"
  top: "fc6"
  inner_product_param {
    num_output: 4096
  }
}
layer {
  name: "relu6"
  type: "ReLU"
  bottom: "fc6"
  top: "fc6"
}
layer {
  name: "drop6"
  type: "Dropout"
  bottom: "fc6"
  top: "fc6"
  dropout_param {
    dropout_ratio: 0.5
  }
}
layer {
  name: "fc7"
  type: "InnerProduct"
  bottom: "fc6"
  top: "fc7"
  inner_product_param {
    num_output: 4096
  }
}
layer {
  name: "relu7"
  type: "ReLU"
  bottom: "fc7"
  top: "fc7"
}
layer {
  name: "drop7"
  type: "Dropout"
  bottom: "fc7"
  top: "fc7"
  dropout_param {
    dropout_ratio: 0.5
  }
}
layer {
  name: "fc8"
  type: "InnerProduct"
  bottom: "fc7"
  top: "fc8"
  inner_product_param {
    num_output: 1000
  }
}
layer {
  name: "prob"
  type: "Softmax"
  bottom: "fc8"
  top: "prob"
}
I0730 10:11:43.236013 19735 layer_factory.hpp:77] Creating layer data
I0730 10:11:43.236039 19735 net.cpp:91] Creating Layer data
I0730 10:11:43.236048 19735 net.cpp:399] data -> data
I0730 10:11:43.835440 19735 net.cpp:141] Setting up data
I0730 10:11:43.835525 19735 net.cpp:148] Top shape: 10 3 227 227 (1545870)
I0730 10:11:43.835532 19735 net.cpp:156] Memory required for data: 6183480
I0730 10:11:43.835548 19735 layer_factory.hpp:77] Creating layer conv1
I0730 10:11:43.835574 19735 net.cpp:91] Creating Layer conv1
I0730 10:11:43.835583 19735 net.cpp:425] conv1 <- data
I0730 10:11:43.835595 19735 net.cpp:399] conv1 -> conv1
I0730 10:11:44.049685 19735 net.cpp:141] Setting up conv1
I0730 10:11:44.049724 19735 net.cpp:148] Top shape: 10 96 55 55 (2904000)
I0730 10:11:44.049731 19735 net.cpp:156] Memory required for data: 17799480
I0730 10:11:44.049758 19735 layer_factory.hpp:77] Creating layer relu1
I0730 10:11:44.049774 19735 net.cpp:91] Creating Layer relu1
I0730 10:11:44.049780 19735 net.cpp:425] relu1 <- conv1
I0730 10:11:44.049788 19735 net.cpp:386] relu1 -> conv1 (in-place)
I0730 10:11:44.050637 19735 net.cpp:141] Setting up relu1
I0730 10:11:44.050652 19735 net.cpp:148] Top shape: 10 96 55 55 (2904000)
I0730 10:11:44.050657 19735 net.cpp:156] Memory required for data: 29415480
I0730 10:11:44.050662 19735 layer_factory.hpp:77] Creating layer pool1
I0730 10:11:44.050674 19735 net.cpp:91] Creating Layer pool1
I0730 10:11:44.050678 19735 net.cpp:425] pool1 <- conv1
I0730 10:11:44.050693 19735 net.cpp:399] pool1 -> pool1
I0730 10:11:44.050776 19735 net.cpp:141] Setting up pool1
I0730 10:11:44.050787 19735 net.cpp:148] Top shape: 10 96 27 27 (699840)
I0730 10:11:44.050791 19735 net.cpp:156] Memory required for data: 32214840
I0730 10:11:44.050796 19735 layer_factory.hpp:77] Creating layer norm1
I0730 10:11:44.050815 19735 net.cpp:91] Creating Layer norm1
I0730 10:11:44.050822 19735 net.cpp:425] norm1 <- pool1
I0730 10:11:44.050830 19735 net.cpp:399] norm1 -> norm1
I0730 10:11:44.051560 19735 net.cpp:141] Setting up norm1
I0730 10:11:44.051575 19735 net.cpp:148] Top shape: 10 96 27 27 (699840)
I0730 10:11:44.051580 19735 net.cpp:156] Memory required for data: 35014200
I0730 10:11:44.051587 19735 layer_factory.hpp:77] Creating layer conv2
I0730 10:11:44.051604 19735 net.cpp:91] Creating Layer conv2
I0730 10:11:44.051609 19735 net.cpp:425] conv2 <- norm1
I0730 10:11:44.051616 19735 net.cpp:399] conv2 -> conv2
I0730 10:11:44.056646 19735 net.cpp:141] Setting up conv2
I0730 10:11:44.056661 19735 net.cpp:148] Top shape: 10 256 27 27 (1866240)
I0730 10:11:44.056666 19735 net.cpp:156] Memory required for data: 42479160
I0730 10:11:44.056677 19735 layer_factory.hpp:77] Creating layer relu2
I0730 10:11:44.056689 19735 net.cpp:91] Creating Layer relu2
I0730 10:11:44.056695 19735 net.cpp:425] relu2 <- conv2
I0730 10:11:44.056701 19735 net.cpp:386] relu2 -> conv2 (in-place)
I0730 10:11:44.057364 19735 net.cpp:141] Setting up relu2
I0730 10:11:44.057376 19735 net.cpp:148] Top shape: 10 256 27 27 (1866240)
I0730 10:11:44.057381 19735 net.cpp:156] Memory required for data: 49944120
I0730 10:11:44.057386 19735 layer_factory.hpp:77] Creating layer pool2
I0730 10:11:44.057399 19735 net.cpp:91] Creating Layer pool2
I0730 10:11:44.057404 19735 net.cpp:425] pool2 <- conv2
I0730 10:11:44.057411 19735 net.cpp:399] pool2 -> pool2
I0730 10:11:44.057462 19735 net.cpp:141] Setting up pool2
I0730 10:11:44.057471 19735 net.cpp:148] Top shape: 10 256 13 13 (432640)
I0730 10:11:44.057476 19735 net.cpp:156] Memory required for data: 51674680
I0730 10:11:44.057479 19735 layer_factory.hpp:77] Creating layer norm2
I0730 10:11:44.057490 19735 net.cpp:91] Creating Layer norm2
I0730 10:11:44.057495 19735 net.cpp:425] norm2 <- pool2
I0730 10:11:44.057502 19735 net.cpp:399] norm2 -> norm2
I0730 10:11:44.057739 19735 net.cpp:141] Setting up norm2
I0730 10:11:44.057749 19735 net.cpp:148] Top shape: 10 256 13 13 (432640)
I0730 10:11:44.057754 19735 net.cpp:156] Memory required for data: 53405240
I0730 10:11:44.057759 19735 layer_factory.hpp:77] Creating layer conv3
I0730 10:11:44.057770 19735 net.cpp:91] Creating Layer conv3
I0730 10:11:44.057775 19735 net.cpp:425] conv3 <- norm2
I0730 10:11:44.057781 19735 net.cpp:399] conv3 -> conv3
I0730 10:11:44.062418 19735 net.cpp:141] Setting up conv3
I0730 10:11:44.062434 19735 net.cpp:148] Top shape: 10 384 13 13 (648960)
I0730 10:11:44.062439 19735 net.cpp:156] Memory required for data: 56001080
I0730 10:11:44.062451 19735 layer_factory.hpp:77] Creating layer relu3
I0730 10:11:44.062463 19735 net.cpp:91] Creating Layer relu3
I0730 10:11:44.062469 19735 net.cpp:425] relu3 <- conv3
I0730 10:11:44.062474 19735 net.cpp:386] relu3 -> conv3 (in-place)
I0730 10:11:44.063134 19735 net.cpp:141] Setting up relu3
I0730 10:11:44.063146 19735 net.cpp:148] Top shape: 10 384 13 13 (648960)
I0730 10:11:44.063150 19735 net.cpp:156] Memory required for data: 58596920
I0730 10:11:44.063155 19735 layer_factory.hpp:77] Creating layer conv4
I0730 10:11:44.063169 19735 net.cpp:91] Creating Layer conv4
I0730 10:11:44.063174 19735 net.cpp:425] conv4 <- conv3
I0730 10:11:44.063184 19735 net.cpp:399] conv4 -> conv4
I0730 10:11:44.068018 19735 net.cpp:141] Setting up conv4
I0730 10:11:44.068037 19735 net.cpp:148] Top shape: 10 384 13 13 (648960)
I0730 10:11:44.068042 19735 net.cpp:156] Memory required for data: 61192760
I0730 10:11:44.068050 19735 layer_factory.hpp:77] Creating layer relu4
I0730 10:11:44.068058 19735 net.cpp:91] Creating Layer relu4
I0730 10:11:44.068063 19735 net.cpp:425] relu4 <- conv4
I0730 10:11:44.068068 19735 net.cpp:386] relu4 -> conv4 (in-place)
I0730 10:11:44.068738 19735 net.cpp:141] Setting up relu4
I0730 10:11:44.068749 19735 net.cpp:148] Top shape: 10 384 13 13 (648960)
I0730 10:11:44.068753 19735 net.cpp:156] Memory required for data: 63788600
I0730 10:11:44.068758 19735 layer_factory.hpp:77] Creating layer conv5
I0730 10:11:44.068768 19735 net.cpp:91] Creating Layer conv5
I0730 10:11:44.068773 19735 net.cpp:425] conv5 <- conv4
I0730 10:11:44.068783 19735 net.cpp:399] conv5 -> conv5
I0730 10:11:44.073707 19735 net.cpp:141] Setting up conv5
I0730 10:11:44.073721 19735 net.cpp:148] Top shape: 10 256 13 13 (432640)
I0730 10:11:44.073729 19735 net.cpp:156] Memory required for data: 65519160
I0730 10:11:44.073740 19735 layer_factory.hpp:77] Creating layer relu5
I0730 10:11:44.073748 19735 net.cpp:91] Creating Layer relu5
I0730 10:11:44.073753 19735 net.cpp:425] relu5 <- conv5
I0730 10:11:44.073760 19735 net.cpp:386] relu5 -> conv5 (in-place)
I0730 10:11:44.074424 19735 net.cpp:141] Setting up relu5
I0730 10:11:44.074435 19735 net.cpp:148] Top shape: 10 256 13 13 (432640)
I0730 10:11:44.074440 19735 net.cpp:156] Memory required for data: 67249720
I0730 10:11:44.074445 19735 layer_factory.hpp:77] Creating layer pool5
I0730 10:11:44.074452 19735 net.cpp:91] Creating Layer pool5
I0730 10:11:44.074457 19735 net.cpp:425] pool5 <- conv5
I0730 10:11:44.074466 19735 net.cpp:399] pool5 -> pool5
I0730 10:11:44.074518 19735 net.cpp:141] Setting up pool5
I0730 10:11:44.074527 19735 net.cpp:148] Top shape: 10 256 6 6 (92160)
I0730 10:11:44.074530 19735 net.cpp:156] Memory required for data: 67618360
I0730 10:11:44.074535 19735 layer_factory.hpp:77] Creating layer fc6
I0730 10:11:44.074561 19735 net.cpp:91] Creating Layer fc6
I0730 10:11:44.074566 19735 net.cpp:425] fc6 <- pool5
I0730 10:11:44.074576 19735 net.cpp:399] fc6 -> fc6
I0730 10:11:44.175060 19735 net.cpp:141] Setting up fc6
I0730 10:11:44.175103 19735 net.cpp:148] Top shape: 10 4096 (40960)
I0730 10:11:44.175108 19735 net.cpp:156] Memory required for data: 67782200
I0730 10:11:44.175122 19735 layer_factory.hpp:77] Creating layer relu6
I0730 10:11:44.175134 19735 net.cpp:91] Creating Layer relu6
I0730 10:11:44.175140 19735 net.cpp:425] relu6 <- fc6
I0730 10:11:44.175153 19735 net.cpp:386] relu6 -> fc6 (in-place)
I0730 10:11:44.175467 19735 net.cpp:141] Setting up relu6
I0730 10:11:44.175477 19735 net.cpp:148] Top shape: 10 4096 (40960)
I0730 10:11:44.175482 19735 net.cpp:156] Memory required for data: 67946040
I0730 10:11:44.175485 19735 layer_factory.hpp:77] Creating layer drop6
I0730 10:11:44.175506 19735 net.cpp:91] Creating Layer drop6
I0730 10:11:44.175511 19735 net.cpp:425] drop6 <- fc6
I0730 10:11:44.175516 19735 net.cpp:386] drop6 -> fc6 (in-place)
I0730 10:11:44.175562 19735 net.cpp:141] Setting up drop6
I0730 10:11:44.175571 19735 net.cpp:148] Top shape: 10 4096 (40960)
I0730 10:11:44.175575 19735 net.cpp:156] Memory required for data: 68109880
I0730 10:11:44.175580 19735 layer_factory.hpp:77] Creating layer fc7
I0730 10:11:44.175603 19735 net.cpp:91] Creating Layer fc7
I0730 10:11:44.175608 19735 net.cpp:425] fc7 <- fc6
I0730 10:11:44.175614 19735 net.cpp:399] fc7 -> fc7
I0730 10:11:44.221487 19735 net.cpp:141] Setting up fc7
I0730 10:11:44.221539 19735 net.cpp:148] Top shape: 10 4096 (40960)
I0730 10:11:44.221544 19735 net.cpp:156] Memory required for data: 68273720
I0730 10:11:44.221556 19735 layer_factory.hpp:77] Creating layer relu7
I0730 10:11:44.221570 19735 net.cpp:91] Creating Layer relu7
I0730 10:11:44.221575 19735 net.cpp:425] relu7 <- fc7
I0730 10:11:44.221586 19735 net.cpp:386] relu7 -> fc7 (in-place)
I0730 10:11:44.222982 19735 net.cpp:141] Setting up relu7
I0730 10:11:44.222995 19735 net.cpp:148] Top shape: 10 4096 (40960)
I0730 10:11:44.223000 19735 net.cpp:156] Memory required for data: 68437560
I0730 10:11:44.223003 19735 layer_factory.hpp:77] Creating layer drop7
I0730 10:11:44.223016 19735 net.cpp:91] Creating Layer drop7
I0730 10:11:44.223021 19735 net.cpp:425] drop7 <- fc7
I0730 10:11:44.223027 19735 net.cpp:386] drop7 -> fc7 (in-place)
I0730 10:11:44.223063 19735 net.cpp:141] Setting up drop7
I0730 10:11:44.223070 19735 net.cpp:148] Top shape: 10 4096 (40960)
I0730 10:11:44.223074 19735 net.cpp:156] Memory required for data: 68601400
I0730 10:11:44.223079 19735 layer_factory.hpp:77] Creating layer fc8
I0730 10:11:44.223089 19735 net.cpp:91] Creating Layer fc8
I0730 10:11:44.223093 19735 net.cpp:425] fc8 <- fc7
I0730 10:11:44.223103 19735 net.cpp:399] fc8 -> fc8
I0730 10:11:44.234904 19735 net.cpp:141] Setting up fc8
I0730 10:11:44.234941 19735 net.cpp:148] Top shape: 10 1000 (10000)
I0730 10:11:44.234946 19735 net.cpp:156] Memory required for data: 68641400
I0730 10:11:44.234958 19735 layer_factory.hpp:77] Creating layer prob
I0730 10:11:44.234972 19735 net.cpp:91] Creating Layer prob
I0730 10:11:44.234977 19735 net.cpp:425] prob <- fc8
I0730 10:11:44.234990 19735 net.cpp:399] prob -> prob
I0730 10:11:44.235368 19735 net.cpp:141] Setting up prob
I0730 10:11:44.235378 19735 net.cpp:148] Top shape: 10 1000 (10000)
I0730 10:11:44.235383 19735 net.cpp:156] Memory required for data: 68681400
I0730 10:11:44.235388 19735 net.cpp:219] prob does not need backward computation.
I0730 10:11:44.235393 19735 net.cpp:219] fc8 does not need backward computation.
I0730 10:11:44.235396 19735 net.cpp:219] drop7 does not need backward computation.
I0730 10:11:44.235399 19735 net.cpp:219] relu7 does not need backward computation.
…
W0730 10:11:47.938489 19722 upgrade_proto.cpp:71] Note that future Caffe releases will only support input layers and not input fields.
I0730 10:11:47.938869 19722 net.cpp:49] Initializing net from parameters: 
name: "s2vt:features_to_lstm"
state {
  phase: TEST
}
layer {
  name: "input"
  type: "Input"
  top: "frames_fc7"
  top: "cont_sentence"
  top: "input_sentence"
  top: "stage_indicator"
  input_param {
    shape {
      dim: 1
      dim: 4096
    }
    shape {
      dim: 1
      dim: 1
    }
    shape {
      dim: 1
      dim: 1
    }
    shape {
      dim: 1
      dim: 1
    }
  }
}
layer {
  name: "embed_encoder"
  type: "InnerProduct"
  bottom: "frames_fc7"
  top: "embedded_in_frames"
  param {
    lr_mult: 1
    decay_mult: 1
  }
  param {
    lr_mult: 2
    decay_mult: 0
  }
  inner_product_param {
    num_output: 500
    weight_filler {
      type: "xavier"
    }
    bias_filler {
      type: "constant"
      value: 0.2
    }
  }
}
layer {
  name: "reshape_frames"
  type: "Reshape"
  bottom: "embedded_in_frames"
  top: "embedded_input_frames"
  reshape_param {
    shape {
      dim: 1
      dim: 1
      dim: 500
    }
  }
}
layer {
  name: "reshape_stage_indicator"
  type: "Reshape"
  bottom: "stage_indicator"
  top: "reshaped_stage_indicator"
  reshape_param {
    shape {
      dim: 1
      dim: 1
      dim: 1
    }
  }
}
layer {
  name: "embedding"
  type: "Embed"
  bottom: "input_sentence"
  top: "embedded_input_sentence"
  param {
    lr_mult: 1
  }
  embed_param {
    num_output: 500
    input_dim: 46168
    bias_term: false
    weight_filler {
      type: "uniform"
      min: -0.08
      max: 0.08
    }
  }
}
layer {
  name: "lstm1"
  type: "LSTM"
  bottom: "embedded_input_frames"
  bottom: "cont_sentence"
  top: "lstm1"
  recurrent_param {
    num_output: 1000
    weight_filler {
      type: "uniform"
      min: -0.08
      max: 0.08
    }
    bias_filler {
      type: "constant"
      value: 0
    }
  }
}
layer {
  name: "concat"
  type: "Concat"
  bottom: "lstm1"
  bottom: "embedded_input_sentence"
  bottom: "reshaped_stage_indicator"
  top: "lstm1_video_sequence"
  concat_param {
    concat_dim: 2
  }
}
layer {
  name: "lstm2"
  type: "LSTM"
  bottom: "lstm1_video_sequence"
  bottom: "cont_sentence"
  top: "lstm2"
  recurrent_param {
    num_output: 1000
    weight_filler {
      type: "uniform"
      min: -0.08
      max: 0.08
    }
    bias_filler {
      type: "constant"
      value: 0
    }
  }
}
layer {
  name: "predict"
  type: "InnerProduct"
  bottom: "lstm2"
  top: "predict"
  param {
    lr_mult: 1
    decay_mult: 1
  }
  param {
    lr_mult: 2
    decay_mult: 0
  }
  inner_product_param {
    num_output: 46168
    weight_filler {
      type: "uniform"
      min: -0.08
      max: 0.08
    }
    bias_filler {
      type: "constant"
      value: 0
    }
    axis: 2
  }
}
layer {
  name: "probs"
  type: "Softmax"
  bottom: "predict"
  top: "probs"
  softmax_param {
    axis: 2
  }
}
I0730 10:11:47.939028 19722 layer_factory.hpp:77] Creating layer input
I0730 10:11:47.939059 19722 net.cpp:91] Creating Layer input
I0730 10:11:47.939070 19722 net.cpp:399] input -> frames_fc7
I0730 10:11:47.939103 19722 net.cpp:399] input -> cont_sentence
I0730 10:11:47.939121 19722 net.cpp:399] input -> input_sentence
I0730 10:11:47.939136 19722 net.cpp:399] input -> stage_indicator
I0730 10:11:47.939357 19722 net.cpp:141] Setting up input
I0730 10:11:47.939373 19722 net.cpp:148] Top shape: 1 4096 (4096)
I0730 10:11:47.939384 19722 net.cpp:148] Top shape: 1 1 (1)
I0730 10:11:47.939393 19722 net.cpp:148] Top shape: 1 1 (1)
I0730 10:11:47.939401 19722 net.cpp:148] Top shape: 1 1 (1)
I0730 10:11:47.939409 19722 net.cpp:156] Memory required for data: 16396
I0730 10:11:47.939416 19722 layer_factory.hpp:77] Creating layer cont_sentence_input_1_split
I0730 10:11:47.939441 19722 net.cpp:91] Creating Layer cont_sentence_input_1_split
I0730 10:11:47.939450 19722 net.cpp:425] cont_sentence_input_1_split <- cont_sentence
I0730 10:11:47.939476 19722 net.cpp:399] cont_sentence_input_1_split -> cont_sentence_input_1_split_0
I0730 10:11:47.939491 19722 net.cpp:399] cont_sentence_input_1_split -> cont_sentence_input_1_split_1
I0730 10:11:47.939568 19722 net.cpp:141] Setting up cont_sentence_input_1_split
I0730 10:11:47.939592 19722 net.cpp:148] Top shape: 1 1 (1)
I0730 10:11:47.939601 19722 net.cpp:148] Top shape: 1 1 (1)
I0730 10:11:47.939609 19722 net.cpp:156] Memory required for data: 16404
I0730 10:11:47.939616 19722 layer_factory.hpp:77] Creating layer embed_encoder
I0730 10:11:47.939631 19722 net.cpp:91] Creating Layer embed_encoder
I0730 10:11:47.939640 19722 net.cpp:425] embed_encoder <- frames_fc7
I0730 10:11:47.939653 19722 net.cpp:399] embed_encoder -> embedded_in_frames
I0730 10:11:47.968772 19722 net.cpp:141] Setting up embed_encoder
I0730 10:11:47.968816 19722 net.cpp:148] Top shape: 1 500 (500)
I0730 10:11:47.968822 19722 net.cpp:156] Memory required for data: 18404
I0730 10:11:47.968847 19722 layer_factory.hpp:77] Creating layer reshape_frames
I0730 10:11:47.968866 19722 net.cpp:91] Creating Layer reshape_frames
I0730 10:11:47.968875 19722 net.cpp:425] reshape_frames <- embedded_in_frames
I0730 10:11:47.968889 19722 net.cpp:399] reshape_frames -> embedded_input_frames
I0730 10:11:47.968961 19722 net.cpp:141] Setting up reshape_frames
I0730 10:11:47.968971 19722 net.cpp:148] Top shape: 1 1 500 (500)
I0730 10:11:47.968977 19722 net.cpp:156] Memory required for data: 20404
I0730 10:11:47.968983 19722 layer_factory.hpp:77] Creating layer reshape_stage_indicator
I0730 10:11:47.968999 19722 net.cpp:91] Creating Layer reshape_stage_indicator
I0730 10:11:47.969007 19722 net.cpp:425] reshape_stage_indicator <- stage_indicator
I0730 10:11:47.969017 19722 net.cpp:399] reshape_stage_indicator -> reshaped_stage_indicator
I0730 10:11:47.969069 19722 net.cpp:141] Setting up reshape_stage_indicator
I0730 10:11:47.969080 19722 net.cpp:148] Top shape: 1 1 1 (1)
I0730 10:11:47.969085 19722 net.cpp:156] Memory required for data: 20408
I0730 10:11:47.969091 19722 layer_factory.hpp:77] Creating layer embedding
I0730 10:11:47.969105 19722 net.cpp:91] Creating Layer embedding
I0730 10:11:47.969111 19722 net.cpp:425] embedding <- input_sentence
I0730 10:11:47.969123 19722 net.cpp:399] embedding -> embedded_input_sentence
I0730 10:11:48.215967 19722 net.cpp:141] Setting up embedding
I0730 10:11:48.216018 19722 net.cpp:148] Top shape: 1 1 500 (500)
I0730 10:11:48.216025 19722 net.cpp:156] Memory required for data: 22408
I0730 10:11:48.216047 19722 layer_factory.hpp:77] Creating layer lstm1
I0730 10:11:48.216074 19722 net.cpp:91] Creating Layer lstm1
I0730 10:11:48.216083 19722 net.cpp:425] lstm1 <- embedded_input_frames
I0730 10:11:48.216091 19722 net.cpp:425] lstm1 <- cont_sentence_input_1_split_0
I0730 10:11:48.216102 19722 net.cpp:399] lstm1 -> lstm1
I0730 10:11:48.216150 19722 recurrent_layer.cpp:20] Initializing recurrent layer: assuming input batch contains 1 timesteps of 1 independent streams.
I0730 10:11:48.216611 19722 net.cpp:49] Initializing net from parameters: 
layer {
  name: "lstm1_"
  type: "Input"
  top: "x"
  top: "cont"
  input_param {
    shape {
      dim: 1
      dim: 1
      dim: 500
    }
    shape {
      dim: 1
      dim: 1
    }
  }
}
layer {
  name: "lstm1_"
  type: "Input"
  top: "c_0"
  top: "h_0"
  input_param {
    shape {
      dim: 1
      dim: 1
      dim: 1000
    }
    shape {
      dim: 1
      dim: 1
      dim: 1000
    }
  }
}
layer {
  name: "lstm1_cont_slice"
  type: "Slice"
  bottom: "cont"
  top: "cont_1"
  slice_param {
    axis: 0
  }
}
layer {
  name: "lstm1_x_transform"
  type: "InnerProduct"
  bottom: "x"
  top: "W_xc_x"
  param {
    name: "W_xc"
  }
  param {
    name: "b_c"
  }
  propagate_down: true
  inner_product_param {
    num_output: 4000
    bias_term: true
    weight_filler {
      type: "uniform"
      min: -0.08
      max: 0.08
    }
    bias_filler {
      type: "constant"
      value: 0
    }
    axis: 2
  }
}
layer {
  name: "lstm1_W_xc_x_slice"
  type: "Slice"
  bottom: "W_xc_x"
  top: "W_xc_x_1"
  slice_param {
    axis: 0
  }
}
layer {
  name: "lstm1_h_conted_0"
  type: "Scale"
  bottom: "h_0"
  bottom: "cont_1"
  top: "h_conted_0"
  scale_param {
    axis: 0
  }
}
layer {
  name: "lstm1_transform_1"
  type: "InnerProduct"
  bottom: "h_conted_0"
  top: "W_hc_h_0"
  param {
    name: "W_hc"
  }
  inner_product_param {
    num_output: 4000
    bias_term: false
    weight_filler {
      type: "uniform"
      min: -0.08
      max: 0.08
    }
    axis: 2
  }
}
layer {
  name: "lstm1_gate_input_1"
  type: "Eltwise"
  bottom: "W_hc_h_0"
  bottom: "W_xc_x_1"
  top: "gate_input_1"
  eltwise_param {
    operation: SUM
  }
}
layer {
  name: "lstm1_unit_1"
  type: "LSTMUnit"
  bottom: "c_0"
  bottom: "gate_input_1"
  bottom: "cont_1"
  top: "c_1"
  top: "h_1"
}
layer {
  name: "lstm1_"
  type: "Split"
  bottom: "c_1"
  top: "c_T"
}
layer {
  name: "lstm1_h_concat"
  type: "Concat"
  bottom: "h_1"
  top: "h"
  concat_param {
    axis: 0
  }
}
layer {
  name: "h_pseudoloss"
  type: "Reduction"
  bottom: "h"
  top: "h_pseudoloss"
  loss_weight: 1
}
I0730 10:11:48.216712 19722 layer_factory.hpp:77] Creating layer lstm1_
I0730 10:11:48.216728 19722 net.cpp:91] Creating Layer lstm1_
I0730 10:11:48.216737 19722 net.cpp:399] lstm1_ -> x
I0730 10:11:48.216749 19722 net.cpp:399] lstm1_ -> cont
I0730 10:11:48.216820 19722 net.cpp:141] Setting up lstm1_
I0730 10:11:48.216830 19722 net.cpp:148] Top shape: 1 1 500 (500)
I0730 10:11:48.216837 19722 net.cpp:148] Top shape: 1 1 (1)
I0730 10:11:48.216842 19722 net.cpp:156] Memory required for data: 2004
I0730 10:11:48.216847 19722 layer_factory.hpp:77] Creating layer lstm1_
I0730 10:11:48.216866 19722 net.cpp:91] Creating Layer lstm1_
I0730 10:11:48.216874 19722 net.cpp:399] lstm1_ -> c_0
I0730 10:11:48.216888 19722 net.cpp:399] lstm1_ -> h_0
I0730 10:11:48.216943 19722 net.cpp:141] Setting up lstm1_
I0730 10:11:48.216953 19722 net.cpp:148] Top shape: 1 1 1000 (1000)
I0730 10:11:48.216960 19722 net.cpp:148] Top shape: 1 1 1000 (1000)
I0730 10:11:48.216964 19722 net.cpp:156] Memory required for data: 10004
I0730 10:11:48.216969 19722 layer_factory.hpp:77] Creating layer lstm1_cont_slice
I0730 10:11:48.216984 19722 net.cpp:91] Creating Layer lstm1_cont_slice
I0730 10:11:48.216989 19722 net.cpp:425] lstm1_cont_slice <- cont
I0730 10:11:48.216997 19722 net.cpp:399] lstm1_cont_slice -> cont_1
I0730 10:11:48.217043 19722 net.cpp:141] Setting up lstm1_cont_slice
I0730 10:11:48.217053 19722 net.cpp:148] Top shape: 1 1 (1)
I0730 10:11:48.217058 19722 net.cpp:156] Memory required for data: 10008
I0730 10:11:48.217063 19722 layer_factory.hpp:77] Creating layer cont_1_lstm1_cont_slice_0_split
I0730 10:11:48.217074 19722 net.cpp:91] Creating Layer cont_1_lstm1_cont_slice_0_split
I0730 10:11:48.217079 19722 net.cpp:425] cont_1_lstm1_cont_slice_0_split <- cont_1
I0730 10:11:48.217088 19722 net.cpp:399] cont_1_lstm1_cont_slice_0_split -> cont_1_lstm1_cont_slice_0_split_0
I0730 10:11:48.217099 19722 net.cpp:399] cont_1_lstm1_cont_slice_0_split -> cont_1_lstm1_cont_slice_0_split_1
I0730 10:11:48.217150 19722 net.cpp:141] Setting up cont_1_lstm1_cont_slice_0_split
I0730 10:11:48.217162 19722 net.cpp:148] Top shape: 1 1 (1)
I0730 10:11:48.217170 19722 net.cpp:148] Top shape: 1 1 (1)
I0730 10:11:48.217175 19722 net.cpp:156] Memory required for data: 10016
I0730 10:11:48.217180 19722 layer_factory.hpp:77] Creating layer lstm1_x_transform
I0730 10:11:48.217190 19722 net.cpp:91] Creating Layer lstm1_x_transform
I0730 10:11:48.217195 19722 net.cpp:425] lstm1_x_transform <- x
I0730 10:11:48.217211 19722 net.cpp:399] lstm1_x_transform -> W_xc_x
I0730 10:11:48.239617 19722 net.cpp:141] Setting up lstm1_x_transform
I0730 10:11:48.239642 19722 net.cpp:148] Top shape: 1 1 4000 (4000)
I0730 10:11:48.239647 19722 net.cpp:156] Memory required for data: 26016
I0730 10:11:48.239662 19722 layer_factory.hpp:77] Creating layer lstm1_W_xc_x_slice
I0730 10:11:48.239673 19722 net.cpp:91] Creating Layer lstm1_W_xc_x_slice
I0730 10:11:48.239678 19722 net.cpp:425] lstm1_W_xc_x_slice <- W_xc_x
I0730 10:11:48.239686 19722 net.cpp:399] lstm1_W_xc_x_slice -> W_xc_x_1
I0730 10:11:48.239738 19722 net.cpp:141] Setting up lstm1_W_xc_x_slice
I0730 10:11:48.239750 19722 net.cpp:148] Top shape: 1 1 4000 (4000)
I0730 10:11:48.239755 19722 net.cpp:156] Memory required for data: 42016
I0730 10:11:48.239760 19722 layer_factory.hpp:77] Creating layer lstm1_h_conted_0
I0730 10:11:48.239770 19722 net.cpp:91] Creating Layer lstm1_h_conted_0
I0730 10:11:48.239776 19722 net.cpp:425] lstm1_h_conted_0 <- h_0
I0730 10:11:48.239783 19722 net.cpp:425] lstm1_h_conted_0 <- cont_1_lstm1_cont_slice_0_split_0
I0730 10:11:48.239789 19722 net.cpp:399] lstm1_h_conted_0 -> h_conted_0
I0730 10:11:48.239913 19722 net.cpp:141] Setting up lstm1_h_conted_0
I0730 10:11:48.239924 19722 net.cpp:148] Top shape: 1 1 1000 (1000)
I0730 10:11:48.239929 19722 net.cpp:156] Memory required for data: 46016
I0730 10:11:48.239934 19722 layer_factory.hpp:77] Creating layer lstm1_transform_1
I0730 10:11:48.239945 19722 net.cpp:91] Creating Layer lstm1_transform_1
I0730 10:11:48.239950 19722 net.cpp:425] lstm1_transform_1 <- h_conted_0
I0730 10:11:48.239959 19722 net.cpp:399] lstm1_transform_1 -> W_hc_h_0
I0730 10:11:48.284436 19722 net.cpp:141] Setting up lstm1_transform_1
I0730 10:11:48.284483 19722 net.cpp:148] Top shape: 1 1 4000 (4000)
I0730 10:11:48.284489 19722 net.cpp:156] Memory required for data: 62016
I0730 10:11:48.284508 19722 layer_factory.hpp:77] Creating layer lstm1_gate_input_1
I0730 10:11:48.284528 19722 net.cpp:91] Creating Layer lstm1_gate_input_1
I0730 10:11:48.284543 19722 net.cpp:425] lstm1_gate_input_1 <- W_hc_h_0
I0730 10:11:48.284551 19722 net.cpp:425] lstm1_gate_input_1 <- W_xc_x_1
I0730 10:11:48.284562 19722 net.cpp:399] lstm1_gate_input_1 -> gate_input_1
I0730 10:11:48.284623 19722 net.cpp:141] Setting up lstm1_gate_input_1
I0730 10:11:48.284637 19722 net.cpp:148] Top shape: 1 1 4000 (4000)
I0730 10:11:48.284642 19722 net.cpp:156] Memory required for data: 78016
I0730 10:11:48.284647 19722 layer_factory.hpp:77] Creating layer lstm1_unit_1
I0730 10:11:48.284657 19722 net.cpp:91] Creating Layer lstm1_unit_1
I0730 10:11:48.284662 19722 net.cpp:425] lstm1_unit_1 <- c_0
I0730 10:11:48.284668 19722 net.cpp:425] lstm1_unit_1 <- gate_input_1
I0730 10:11:48.284673 19722 net.cpp:425] lstm1_unit_1 <- cont_1_lstm1_cont_slice_0_split_1
I0730 10:11:48.284682 19722 net.cpp:399] lstm1_unit_1 -> c_1
I0730 10:11:48.284690 19722 net.cpp:399] lstm1_unit_1 -> h_1
I0730 10:11:48.284759 19722 net.cpp:141] Setting up lstm1_unit_1
I0730 10:11:48.284768 19722 net.cpp:148] Top shape: 1 1 1000 (1000)
I0730 10:11:48.284775 19722 net.cpp:148] Top shape: 1 1 1000 (1000)
I0730 10:11:48.284780 19722 net.cpp:156] Memory required for data: 86016
I0730 10:11:48.284785 19722 layer_factory.hpp:77] Creating layer lstm1_
I0730 10:11:48.284795 19722 net.cpp:91] Creating Layer lstm1_
I0730 10:11:48.284800 19722 net.cpp:425] lstm1_ <- c_1
I0730 10:11:48.284806 19722 net.cpp:399] lstm1_ -> c_T
I0730 10:11:48.284839 19722 net.cpp:141] Setting up lstm1_
I0730 10:11:48.284848 19722 net.cpp:148] Top shape: 1 1 1000 (1000)
I0730 10:11:48.284852 19722 net.cpp:156] Memory required for data: 90016
I0730 10:11:48.284857 19722 layer_factory.hpp:77] Creating layer lstm1_h_concat
I0730 10:11:48.284874 19722 net.cpp:91] Creating Layer lstm1_h_concat
I0730 10:11:48.284879 19722 net.cpp:425] lstm1_h_concat <- h_1
I0730 10:11:48.284888 19722 net.cpp:399] lstm1_h_concat -> h
I0730 10:11:48.284940 19722 net.cpp:141] Setting up lstm1_h_concat
I0730 10:11:48.284950 19722 net.cpp:148] Top shape: 1 1 1000 (1000)
I0730 10:11:48.284955 19722 net.cpp:156] Memory required for data: 94016
I0730 10:11:48.284960 19722 layer_factory.hpp:77] Creating layer h_pseudoloss
I0730 10:11:48.284972 19722 net.cpp:91] Creating Layer h_pseudoloss
I0730 10:11:48.284978 19722 net.cpp:425] h_pseudoloss <- h
I0730 10:11:48.284988 19722 net.cpp:399] h_pseudoloss -> h_pseudoloss
I0730 10:11:48.285099 19722 net.cpp:141] Setting up h_pseudoloss
…
I0730 10:11:48.285224 19722 net.cpp:219] lstm1_ does not need backward computation.
I0730 10:11:48.285228 19722 net.cpp:261] This network produces output c_T
I0730 10:11:48.285234 19722 net.cpp:261] This network produces output h_pseudoloss
I0730 10:11:48.285253 19722 net.cpp:274] Network initialization done.
I0730 10:11:48.285315 19722 recurrent_layer.cpp:150] Adding parameter 0: W_xc
I0730 10:11:48.285322 19722 recurrent_layer.cpp:150] Adding parameter 1: b_c
I0730 10:11:48.285327 19722 recurrent_layer.cpp:150] Adding parameter 2: W_hc
I0730 10:11:48.285449 19722 net.cpp:141] Setting up lstm1
I0730 10:11:48.285462 19722 net.cpp:148] Top shape: 1 1 1000 (1000)
I0730 10:11:48.285468 19722 net.cpp:156] Memory required for data: 26408
I0730 10:11:48.285485 19722 layer_factory.hpp:77] Creating layer concat
I0730 10:11:48.285493 19722 net.cpp:91] Creating Layer concat
I0730 10:11:48.285501 19722 net.cpp:425] concat <- lstm1
I0730 10:11:48.285508 19722 net.cpp:425] concat <- embedded_input_sentence
I0730 10:11:48.285514 19722 net.cpp:425] concat <- reshaped_stage_indicator
I0730 10:11:48.285521 19722 net.cpp:399] concat -> lstm1_video_sequence
I0730 10:11:48.285558 19722 net.cpp:141] Setting up concat
I0730 10:11:48.285567 19722 net.cpp:148] Top shape: 1 1 1501 (1501)
I0730 10:11:48.285573 19722 net.cpp:156] Memory required for data: 32412
I0730 10:11:48.285578 19722 layer_factory.hpp:77] Creating layer lstm2
I0730 10:11:48.285590 19722 net.cpp:91] Creating Layer lstm2
I0730 10:11:48.285596 19722 net.cpp:425] lstm2 <- lstm1_video_sequence
I0730 10:11:48.285603 19722 net.cpp:425] lstm2 <- cont_sentence_input_1_split_1
I0730 10:11:48.285610 19722 net.cpp:399] lstm2 -> lstm2
I0730 10:11:48.285624 19722 recurrent_layer.cpp:20] Initializing recurrent layer: assuming input batch contains 1 timesteps of 1 independent streams.
I0730 10:11:48.285882 19722 net.cpp:49] Initializing net from parameters: 
layer {
  name: "lstm2_"
  type: "Input"
  top: "x"
  top: "cont"
  input_param {
    shape {
      dim: 1
      dim: 1
      dim: 1501
    }
    shape {
      dim: 1
      dim: 1
    }
  }
}
layer {
  name: "lstm2_"
  type: "Input"
  top: "c_0"
  top: "h_0"
  input_param {
    shape {
      dim: 1
      dim: 1
      dim: 1000
    }
    shape {
      dim: 1
      dim: 1
      dim: 1000
    }
  }
}
layer {
  name: "lstm2_cont_slice"
  type: "Slice"
  bottom: "cont"
  top: "cont_1"
  slice_param {
    axis: 0
  }
}
layer {
  name: "lstm2_x_transform"
  type: "InnerProduct"
  bottom: "x"
  top: "W_xc_x"
  param {
    name: "W_xc"
  }
  param {
    name: "b_c"
  }
  propagate_down: true
  inner_product_param {
    num_output: 4000
    bias_term: true
    weight_filler {
      type: "uniform"
      min: -0.08
      max: 0.08
    }
    bias_filler {
      type: "constant"
      value: 0
    }
    axis: 2
  }
}
layer {
  name: "lstm2_W_xc_x_slice"
  type: "Slice"
  bottom: "W_xc_x"
  top: "W_xc_x_1"
  slice_param {
    axis: 0
  }
}
layer {
  name: "lstm2_h_conted_0"
  type: "Scale"
  bottom: "h_0"
  bottom: "cont_1"
  top: "h_conted_0"
  scale_param {
    axis: 0
  }
}
layer {
  name: "lstm2_transform_1"
  type: "InnerProduct"
  bottom: "h_conted_0"
  top: "W_hc_h_0"
  param {
    name: "W_hc"
  }
  inner_product_param {
    num_output: 4000
    bias_term: false
    weight_filler {
      type: "uniform"
      min: -0.08
      max: 0.08
    }
    axis: 2
  }
}
layer {
  name: "lstm2_gate_input_1"
  type: "Eltwise"
  bottom: "W_hc_h_0"
  bottom: "W_xc_x_1"
  top: "gate_input_1"
  eltwise_param {
    operation: SUM
  }
}
layer {
  name: "lstm2_unit_1"
  type: "LSTMUnit"
  bottom: "c_0"
  bottom: "gate_input_1"
  bottom: "cont_1"
  top: "c_1"
  top: "h_1"
}
layer {
  name: "lstm2_"
  type: "Split"
  bottom: "c_1"
  top: "c_T"
}
layer {
  name: "lstm2_h_concat"
  type: "Concat"
  bottom: "h_1"
  top: "h"
  concat_param {
    axis: 0
  }
}
layer {
  name: "h_pseudoloss"
  type: "Reduction"
  bottom: "h"
  top: "h_pseudoloss"
  loss_weight: 1
}
I0730 10:11:48.285979 19722 layer_factory.hpp:77] Creating layer lstm2_
I0730 10:11:48.285992 19722 net.cpp:91] Creating Layer lstm2_
I0730 10:11:48.286000 19722 net.cpp:399] lstm2_ -> x
I0730 10:11:48.286011 19722 net.cpp:399] lstm2_ -> cont
I0730 10:11:48.286072 19722 net.cpp:141] Setting up lstm2_
I0730 10:11:48.286083 19722 net.cpp:148] Top shape: 1 1 1501 (1501)
I0730 10:11:48.286090 19722 net.cpp:148] Top shape: 1 1 (1)
I0730 10:11:48.286094 19722 net.cpp:156] Memory required for data: 6008
I0730 10:11:48.286100 19722 layer_factory.hpp:77] Creating layer lstm2_
I0730 10:11:48.286109 19722 net.cpp:91] Creating Layer lstm2_
I0730 10:11:48.286116 19722 net.cpp:399] lstm2_ -> c_0
I0730 10:11:48.286128 19722 net.cpp:399] lstm2_ -> h_0
I0730 10:11:48.286181 19722 net.cpp:141] Setting up lstm2_
I0730 10:11:48.286191 19722 net.cpp:148] Top shape: 1 1 1000 (1000)
I0730 10:11:48.286198 19722 net.cpp:148] Top shape: 1 1 1000 (1000)
I0730 10:11:48.286202 19722 net.cpp:156] Memory required for data: 14008
I0730 10:11:48.286207 19722 layer_factory.hpp:77] Creating layer lstm2_cont_slice
I0730 10:11:48.286221 19722 net.cpp:91] Creating Layer lstm2_cont_slice
I0730 10:11:48.286226 19722 net.cpp:425] lstm2_cont_slice <- cont
I0730 10:11:48.286237 19722 net.cpp:399] lstm2_cont_slice -> cont_1
I0730 10:11:48.286278 19722 net.cpp:141] Setting up lstm2_cont_slice
I0730 10:11:48.286288 19722 net.cpp:148] Top shape: 1 1 (1)
I0730 10:11:48.286291 19722 net.cpp:156] Memory required for data: 14012
I0730 10:11:48.286296 19722 layer_factory.hpp:77] Creating layer cont_1_lstm2_cont_slice_0_split
I0730 10:11:48.286304 19722 net.cpp:91] Creating Layer cont_1_lstm2_cont_slice_0_split
I0730 10:11:48.286309 19722 net.cpp:425] cont_1_lstm2_cont_slice_0_split <- cont_1
I0730 10:11:48.286319 19722 net.cpp:399] cont_1_lstm2_cont_slice_0_split -> cont_1_lstm2_cont_slice_0_split_0
I0730 10:11:48.286329 19722 net.cpp:399] cont_1_lstm2_cont_slice_0_split -> cont_1_lstm2_cont_slice_0_split_1
I0730 10:11:48.286377 19722 net.cpp:141] Setting up cont_1_lstm2_cont_slice_0_split
I0730 10:11:48.286386 19722 net.cpp:148] Top shape: 1 1 (1)
I0730 10:11:48.286392 19722 net.cpp:148] Top shape: 1 1 (1)
I0730 10:11:48.286397 19722 net.cpp:156] Memory required for data: 14020
I0730 10:11:48.286402 19722 layer_factory.hpp:77] Creating layer lstm2_x_transform
I0730 10:11:48.286417 19722 net.cpp:91] Creating Layer lstm2_x_transform
I0730 10:11:48.286422 19722 net.cpp:425] lstm2_x_transform <- x
I0730 10:11:48.286430 19722 net.cpp:399] lstm2_x_transform -> W_xc_x
I0730 10:11:48.352301 19722 net.cpp:141] Setting up lstm2_x_transform
I0730 10:11:48.352349 19722 net.cpp:148] Top shape: 1 1 4000 (4000)
I0730 10:11:48.352355 19722 net.cpp:156] Memory required for data: 30020
I0730 10:11:48.352375 19722 layer_factory.hpp:77] Creating layer lstm2_W_xc_x_slice
I0730 10:11:48.352396 19722 net.cpp:91] Creating Layer lstm2_W_xc_x_slice
I0730 10:11:48.352402 19722 net.cpp:425] lstm2_W_xc_x_slice <- W_xc_x
I0730 10:11:48.352412 19722 net.cpp:399] lstm2_W_xc_x_slice -> W_xc_x_1
I0730 10:11:48.352461 19722 net.cpp:141] Setting up lstm2_W_xc_x_slice
I0730 10:11:48.352473 19722 net.cpp:148] Top shape: 1 1 4000 (4000)
I0730 10:11:48.352478 19722 net.cpp:156] Memory required for data: 46020
I0730 10:11:48.352483 19722 layer_factory.hpp:77] Creating layer lstm2_h_conted_0
I0730 10:11:48.352497 19722 net.cpp:91] Creating Layer lstm2_h_conted_0
I0730 10:11:48.352504 19722 net.cpp:425] lstm2_h_conted_0 <- h_0
I0730 10:11:48.352509 19722 net.cpp:425] lstm2_h_conted_0 <- cont_1_lstm2_cont_slice_0_split_0
I0730 10:11:48.352517 19722 net.cpp:399] lstm2_h_conted_0 -> h_conted_0
I0730 10:11:48.352622 19722 net.cpp:141] Setting up lstm2_h_conted_0
I0730 10:11:48.352633 19722 net.cpp:148] Top shape: 1 1 1000 (1000)
I0730 10:11:48.352638 19722 net.cpp:156] Memory required for data: 50020
I0730 10:11:48.352643 19722 layer_factory.hpp:77] Creating layer lstm2_transform_1
I0730 10:11:48.352659 19722 net.cpp:91] Creating Layer lstm2_transform_1
I0730 10:11:48.352665 19722 net.cpp:425] lstm2_transform_1 <- h_conted_0
I0730 10:11:48.352674 19722 net.cpp:399] lstm2_transform_1 -> W_hc_h_0
I0730 10:11:48.396862 19722 net.cpp:141] Setting up lstm2_transform_1
I0730 10:11:48.396906 19722 net.cpp:148] Top shape: 1 1 4000 (4000)
I0730 10:11:48.396913 19722 net.cpp:156] Memory required for data: 66020
I0730 10:11:48.396930 19722 layer_factory.hpp:77] Creating layer lstm2_gate_input_1
I0730 10:11:48.396952 19722 net.cpp:91] Creating Layer lstm2_gate_input_1
I0730 10:11:48.396960 19722 net.cpp:425] lstm2_gate_input_1 <- W_hc_h_0
I0730 10:11:48.396968 19722 net.cpp:425] lstm2_gate_input_1 <- W_xc_x_1
I0730 10:11:48.396977 19722 net.cpp:399] lstm2_gate_input_1 -> gate_input_1
I0730 10:11:48.397032 19722 net.cpp:141] Setting up lstm2_gate_input_1
I0730 10:11:48.397042 19722 net.cpp:148] Top shape: 1 1 4000 (4000)
I0730 10:11:48.397047 19722 net.cpp:156] Memory required for data: 82020
I0730 10:11:48.397053 19722 layer_factory.hpp:77] Creating layer lstm2_unit_1
I0730 10:11:48.397065 19722 net.cpp:91] Creating Layer lstm2_unit_1
I0730 10:11:48.397070 19722 net.cpp:425] lstm2_unit_1 <- c_0
I0730 10:11:48.397078 19722 net.cpp:425] lstm2_unit_1 <- gate_input_1
I0730 10:11:48.397083 19722 net.cpp:425] lstm2_unit_1 <- cont_1_lstm2_cont_slice_0_split_1
I0730 10:11:48.397089 19722 net.cpp:399] lstm2_unit_1 -> c_1
I0730 10:11:48.397099 19722 net.cpp:399] lstm2_unit_1 -> h_1
I0730 10:11:48.397168 19722 net.cpp:141] Setting up lstm2_unit_1
I0730 10:11:48.397178 19722 net.cpp:148] Top shape: 1 1 1000 (1000)
I0730 10:11:48.397184 19722 net.cpp:148] Top shape: 1 1 1000 (1000)
I0730 10:11:48.397189 19722 net.cpp:156] Memory required for data: 90020
I0730 10:11:48.397194 19722 layer_factory.hpp:77] Creating layer lstm2_
I0730 10:11:48.397207 19722 net.cpp:91] Creating Layer lstm2_
I0730 10:11:48.397212 19722 net.cpp:425] lstm2_ <- c_1
I0730 10:11:48.397219 19722 net.cpp:399] lstm2_ -> c_T
I0730 10:11:48.397253 19722 net.cpp:141] Setting up lstm2_
I0730 10:11:48.397261 19722 net.cpp:148] Top shape: 1 1 1000 (1000)
I0730 10:11:48.397266 19722 net.cpp:156] Memory required for data: 94020
I0730 10:11:48.397271 19722 layer_factory.hpp:77] Creating layer lstm2_h_concat
I0730 10:11:48.397284 19722 net.cpp:91] Creating Layer lstm2_h_concat
I0730 10:11:48.397289 19722 net.cpp:425] lstm2_h_concat <- h_1
I0730 10:11:48.397300 19722 net.cpp:399] lstm2_h_concat -> h
I0730 10:11:48.397341 19722 net.cpp:141] Setting up lstm2_h_concat
I0730 10:11:48.397349 19722 net.cpp:148] Top shape: 1 1 1000 (1000)
I0730 10:11:48.397354 19722 net.cpp:156] Memory required for data: 98020
I0730 10:11:48.397358 19722 layer_factory.hpp:77] Creating layer h_pseudoloss
I0730 10:11:48.397368 19722 net.cpp:91] Creating Layer h_pseudoloss
I0730 10:11:48.397373 19722 net.cpp:425] h_pseudoloss <- h
I0730 10:11:48.397382 19722 net.cpp:399] h_pseudoloss -> h_pseudoloss
I0730 10:11:48.397476 19722 net.cpp:141] Setting up h_pseudoloss
…
