…
2016-07-30 10:11:47.971 STDERR [INFO]   bottom: "fc8"
2016-07-30 10:11:47.971 STDERR [INFO]   top: "prob"
2016-07-30 10:11:47.971 STDERR [INFO] }
2016-07-30 10:11:47.971 STDERR [INFO] I0730 10:11:43.236013 19735 layer_factory.hpp:77] Creating layer data
2016-07-30 10:11:47.971 STDERR [INFO] I0730 10:11:43.236039 19735 net.cpp:91] Creating Layer data
2016-07-30 10:11:47.971 STDERR [INFO] I0730 10:11:43.236048 19735 net.cpp:399] data -> data
2016-07-30 10:11:47.972 STDERR [INFO] I0730 10:11:43.835440 19735 net.cpp:141] Setting up data
2016-07-30 10:11:47.972 STDERR [INFO] I0730 10:11:43.835525 19735 net.cpp:148] Top shape: 10 3 227 227 (1545870)
2016-07-30 10:11:47.972 STDERR [INFO] I0730 10:11:43.835532 19735 net.cpp:156] Memory required for data: 6183480
2016-07-30 10:11:47.972 STDERR [INFO] I0730 10:11:43.835548 19735 layer_factory.hpp:77] Creating layer conv1
2016-07-30 10:11:47.972 STDERR [INFO] I0730 10:11:43.835574 19735 net.cpp:91] Creating Layer conv1
2016-07-30 10:11:47.973 STDERR [INFO] I0730 10:11:43.835583 19735 net.cpp:425] conv1 <- data
2016-07-30 10:11:47.973 STDERR [INFO] I0730 10:11:43.835595 19735 net.cpp:399] conv1 -> conv1
2016-07-30 10:11:47.973 STDERR [INFO] I0730 10:11:44.049685 19735 net.cpp:141] Setting up conv1
2016-07-30 10:11:47.973 STDERR [INFO] I0730 10:11:44.049724 19735 net.cpp:148] Top shape: 10 96 55 55 (2904000)
2016-07-30 10:11:47.973 STDERR [INFO] I0730 10:11:44.049731 19735 net.cpp:156] Memory required for data: 17799480
2016-07-30 10:11:47.973 STDERR [INFO] I0730 10:11:44.049758 19735 layer_factory.hpp:77] Creating layer relu1
2016-07-30 10:11:47.973 STDERR [INFO] I0730 10:11:44.049774 19735 net.cpp:91] Creating Layer relu1
2016-07-30 10:11:47.973 STDERR [INFO] I0730 10:11:44.049780 19735 net.cpp:425] relu1 <- conv1
2016-07-30 10:11:47.973 STDERR [INFO] I0730 10:11:44.049788 19735 net.cpp:386] relu1 -> conv1 (in-place)
2016-07-30 10:11:47.974 STDERR [INFO] I0730 10:11:44.050637 19735 net.cpp:141] Setting up relu1
2016-07-30 10:11:47.974 STDERR [INFO] I0730 10:11:44.050652 19735 net.cpp:148] Top shape: 10 96 55 55 (2904000)
2016-07-30 10:11:47.974 STDERR [INFO] I0730 10:11:44.050657 19735 net.cpp:156] Memory required for data: 29415480
2016-07-30 10:11:47.974 STDERR [INFO] I0730 10:11:44.050662 19735 layer_factory.hpp:77] Creating layer pool1
2016-07-30 10:11:47.974 STDERR [INFO] I0730 10:11:44.050674 19735 net.cpp:91] Creating Layer pool1
2016-07-30 10:11:47.975 STDERR [INFO] I0730 10:11:44.050678 19735 net.cpp:425] pool1 <- conv1
2016-07-30 10:11:47.975 STDERR [INFO] I0730 10:11:44.050693 19735 net.cpp:399] pool1 -> pool1
2016-07-30 10:11:47.975 STDERR [INFO] I0730 10:11:44.050776 19735 net.cpp:141] Setting up pool1
2016-07-30 10:11:47.975 STDERR [INFO] I0730 10:11:44.050787 19735 net.cpp:148] Top shape: 10 96 27 27 (699840)
2016-07-30 10:11:47.975 STDERR [INFO] I0730 10:11:44.050791 19735 net.cpp:156] Memory required for data: 32214840
2016-07-30 10:11:47.975 STDERR [INFO] I0730 10:11:44.050796 19735 layer_factory.hpp:77] Creating layer norm1
2016-07-30 10:11:47.975 STDERR [INFO] I0730 10:11:44.050815 19735 net.cpp:91] Creating Layer norm1
2016-07-30 10:11:47.976 STDERR [INFO] I0730 10:11:44.050822 19735 net.cpp:425] norm1 <- pool1
2016-07-30 10:11:47.976 STDERR [INFO] I0730 10:11:44.050830 19735 net.cpp:399] norm1 -> norm1
2016-07-30 10:11:47.976 STDERR [INFO] I0730 10:11:44.051560 19735 net.cpp:141] Setting up norm1
2016-07-30 10:11:47.976 STDERR [INFO] I0730 10:11:44.051575 19735 net.cpp:148] Top shape: 10 96 27 27 (699840)
2016-07-30 10:11:47.976 STDERR [INFO] I0730 10:11:44.051580 19735 net.cpp:156] Memory required for data: 35014200
2016-07-30 10:11:47.976 STDERR [INFO] I0730 10:11:44.051587 19735 layer_factory.hpp:77] Creating layer conv2
2016-07-30 10:11:47.976 STDERR [INFO] I0730 10:11:44.051604 19735 net.cpp:91] Creating Layer conv2
2016-07-30 10:11:47.976 STDERR [INFO] I0730 10:11:44.051609 19735 net.cpp:425] conv2 <- norm1
2016-07-30 10:11:47.977 STDERR [INFO] I0730 10:11:44.051616 19735 net.cpp:399] conv2 -> conv2
2016-07-30 10:11:47.977 STDERR [INFO] I0730 10:11:44.056646 19735 net.cpp:141] Setting up conv2
2016-07-30 10:11:47.977 STDERR [INFO] I0730 10:11:44.056661 19735 net.cpp:148] Top shape: 10 256 27 27 (1866240)
2016-07-30 10:11:47.977 STDERR [INFO] I0730 10:11:44.056666 19735 net.cpp:156] Memory required for data: 42479160
2016-07-30 10:11:47.977 STDERR [INFO] I0730 10:11:44.056677 19735 layer_factory.hpp:77] Creating layer relu2
2016-07-30 10:11:47.977 STDERR [INFO] I0730 10:11:44.056689 19735 net.cpp:91] Creating Layer relu2
2016-07-30 10:11:47.977 STDERR [INFO] I0730 10:11:44.056695 19735 net.cpp:425] relu2 <- conv2
2016-07-30 10:11:47.977 STDERR [INFO] I0730 10:11:44.056701 19735 net.cpp:386] relu2 -> conv2 (in-place)
2016-07-30 10:11:47.978 STDERR [INFO] I0730 10:11:44.057364 19735 net.cpp:141] Setting up relu2
2016-07-30 10:11:47.978 STDERR [INFO] I0730 10:11:44.057376 19735 net.cpp:148] Top shape: 10 256 27 27 (1866240)
2016-07-30 10:11:47.978 STDERR [INFO] I0730 10:11:44.057381 19735 net.cpp:156] Memory required for data: 49944120
2016-07-30 10:11:47.978 STDERR [INFO] I0730 10:11:44.057386 19735 layer_factory.hpp:77] Creating layer pool2
2016-07-30 10:11:47.978 STDERR [INFO] I0730 10:11:44.057399 19735 net.cpp:91] Creating Layer pool2
2016-07-30 10:11:47.978 STDERR [INFO] I0730 10:11:44.057404 19735 net.cpp:425] pool2 <- conv2
2016-07-30 10:11:47.978 STDERR [INFO] I0730 10:11:44.057411 19735 net.cpp:399] pool2 -> pool2
2016-07-30 10:11:47.978 STDERR [INFO] I0730 10:11:44.057462 19735 net.cpp:141] Setting up pool2
2016-07-30 10:11:47.978 STDERR [INFO] I0730 10:11:44.057471 19735 net.cpp:148] Top shape: 10 256 13 13 (432640)
2016-07-30 10:11:47.979 STDERR [INFO] I0730 10:11:44.057476 19735 net.cpp:156] Memory required for data: 51674680
2016-07-30 10:11:47.979 STDERR [INFO] I0730 10:11:44.057479 19735 layer_factory.hpp:77] Creating layer norm2
2016-07-30 10:11:47.979 STDERR [INFO] I0730 10:11:44.057490 19735 net.cpp:91] Creating Layer norm2
2016-07-30 10:11:47.979 STDERR [INFO] I0730 10:11:44.057495 19735 net.cpp:425] norm2 <- pool2
2016-07-30 10:11:47.979 STDERR [INFO] I0730 10:11:44.057502 19735 net.cpp:399] norm2 -> norm2
2016-07-30 10:11:47.979 STDERR [INFO] I0730 10:11:44.057739 19735 net.cpp:141] Setting up norm2
2016-07-30 10:11:47.979 STDERR [INFO] I0730 10:11:44.057749 19735 net.cpp:148] Top shape: 10 256 13 13 (432640)
2016-07-30 10:11:47.979 STDERR [INFO] I0730 10:11:44.057754 19735 net.cpp:156] Memory required for data: 53405240
2016-07-30 10:11:47.979 STDERR [INFO] I0730 10:11:44.057759 19735 layer_factory.hpp:77] Creating layer conv3
2016-07-30 10:11:47.980 STDERR [INFO] I0730 10:11:44.057770 19735 net.cpp:91] Creating Layer conv3
2016-07-30 10:11:47.980 STDERR [INFO] I0730 10:11:44.057775 19735 net.cpp:425] conv3 <- norm2
2016-07-30 10:11:47.980 STDERR [INFO] I0730 10:11:44.057781 19735 net.cpp:399] conv3 -> conv3
2016-07-30 10:11:47.980 STDERR [INFO] I0730 10:11:44.062418 19735 net.cpp:141] Setting up conv3
2016-07-30 10:11:47.980 STDERR [INFO] I0730 10:11:44.062434 19735 net.cpp:148] Top shape: 10 384 13 13 (648960)
2016-07-30 10:11:47.980 STDERR [INFO] I0730 10:11:44.062439 19735 net.cpp:156] Memory required for data: 56001080
2016-07-30 10:11:47.980 STDERR [INFO] I0730 10:11:44.062451 19735 layer_factory.hpp:77] Creating layer relu3
2016-07-30 10:11:47.980 STDERR [INFO] I0730 10:11:44.062463 19735 net.cpp:91] Creating Layer relu3
2016-07-30 10:11:47.980 STDERR [INFO] I0730 10:11:44.062469 19735 net.cpp:425] relu3 <- conv3
2016-07-30 10:11:47.980 STDERR [INFO] I0730 10:11:44.062474 19735 net.cpp:386] relu3 -> conv3 (in-place)
2016-07-30 10:11:47.981 STDERR [INFO] I0730 10:11:44.063134 19735 net.cpp:141] Setting up relu3
2016-07-30 10:11:47.981 STDERR [INFO] I0730 10:11:44.063146 19735 net.cpp:148] Top shape: 10 384 13 13 (648960)
2016-07-30 10:11:47.981 STDERR [INFO] I0730 10:11:44.063150 19735 net.cpp:156] Memory required for data: 58596920
2016-07-30 10:11:47.981 STDERR [INFO] I0730 10:11:44.063155 19735 layer_factory.hpp:77] Creating layer conv4
2016-07-30 10:11:47.981 STDERR [INFO] I0730 10:11:44.063169 19735 net.cpp:91] Creating Layer conv4
2016-07-30 10:11:47.981 STDERR [INFO] I0730 10:11:44.063174 19735 net.cpp:425] conv4 <- conv3
2016-07-30 10:11:47.981 STDERR [INFO] I0730 10:11:44.063184 19735 net.cpp:399] conv4 -> conv4
2016-07-30 10:11:47.981 STDERR [INFO] I0730 10:11:44.068018 19735 net.cpp:141] Setting up conv4
2016-07-30 10:11:47.982 STDERR [INFO] I0730 10:11:44.068037 19735 net.cpp:148] Top shape: 10 384 13 13 (648960)
2016-07-30 10:11:47.982 STDERR [INFO] I0730 10:11:44.068042 19735 net.cpp:156] Memory required for data: 61192760
2016-07-30 10:11:47.982 STDERR [INFO] I0730 10:11:44.068050 19735 layer_factory.hpp:77] Creating layer relu4
2016-07-30 10:11:47.982 STDERR [INFO] I0730 10:11:44.068058 19735 net.cpp:91] Creating Layer relu4
2016-07-30 10:11:47.982 STDERR [INFO] I0730 10:11:44.068063 19735 net.cpp:425] relu4 <- conv4
2016-07-30 10:11:47.982 STDERR [INFO] I0730 10:11:44.068068 19735 net.cpp:386] relu4 -> conv4 (in-place)
2016-07-30 10:11:47.982 STDERR [INFO] I0730 10:11:44.068738 19735 net.cpp:141] Setting up relu4
2016-07-30 10:11:47.982 STDERR [INFO] I0730 10:11:44.068749 19735 net.cpp:148] Top shape: 10 384 13 13 (648960)
2016-07-30 10:11:47.982 STDERR [INFO] I0730 10:11:44.068753 19735 net.cpp:156] Memory required for data: 63788600
2016-07-30 10:11:47.982 STDERR [INFO] I0730 10:11:44.068758 19735 layer_factory.hpp:77] Creating layer conv5
2016-07-30 10:11:47.983 STDERR [INFO] I0730 10:11:44.068768 19735 net.cpp:91] Creating Layer conv5
2016-07-30 10:11:47.983 STDERR [INFO] I0730 10:11:44.068773 19735 net.cpp:425] conv5 <- conv4
2016-07-30 10:11:47.983 STDERR [INFO] I0730 10:11:44.068783 19735 net.cpp:399] conv5 -> conv5
2016-07-30 10:11:47.983 STDERR [INFO] I0730 10:11:44.073707 19735 net.cpp:141] Setting up conv5
2016-07-30 10:11:47.983 STDERR [INFO] I0730 10:11:44.073721 19735 net.cpp:148] Top shape: 10 256 13 13 (432640)
2016-07-30 10:11:47.983 STDERR [INFO] I0730 10:11:44.073729 19735 net.cpp:156] Memory required for data: 65519160
2016-07-30 10:11:47.983 STDERR [INFO] I0730 10:11:44.073740 19735 layer_factory.hpp:77] Creating layer relu5
2016-07-30 10:11:47.983 STDERR [INFO] I0730 10:11:44.073748 19735 net.cpp:91] Creating Layer relu5
2016-07-30 10:11:47.983 STDERR [INFO] I0730 10:11:44.073753 19735 net.cpp:425] relu5 <- conv5
2016-07-30 10:11:47.983 STDERR [INFO] I0730 10:11:44.073760 19735 net.cpp:386] relu5 -> conv5 (in-place)
2016-07-30 10:11:47.984 STDERR [INFO] I0730 10:11:44.074424 19735 net.cpp:141] Setting up relu5
2016-07-30 10:11:47.984 STDERR [INFO] I0730 10:11:44.074435 19735 net.cpp:148] Top shape: 10 256 13 13 (432640)
2016-07-30 10:11:47.984 STDERR [INFO] I0730 10:11:44.074440 19735 net.cpp:156] Memory required for data: 67249720
2016-07-30 10:11:47.984 STDERR [INFO] I0730 10:11:44.074445 19735 layer_factory.hpp:77] Creating layer pool5
2016-07-30 10:11:47.984 STDERR [INFO] I0730 10:11:44.074452 19735 net.cpp:91] Creating Layer pool5
2016-07-30 10:11:47.984 STDERR [INFO] I0730 10:11:44.074457 19735 net.cpp:425] pool5 <- conv5
2016-07-30 10:11:47.984 STDERR [INFO] I0730 10:11:44.074466 19735 net.cpp:399] pool5 -> pool5
2016-07-30 10:11:47.984 STDERR [INFO] I0730 10:11:44.074518 19735 net.cpp:141] Setting up pool5
2016-07-30 10:11:47.984 STDERR [INFO] I0730 10:11:44.074527 19735 net.cpp:148] Top shape: 10 256 6 6 (92160)
2016-07-30 10:11:47.985 STDERR [INFO] I0730 10:11:44.074530 19735 net.cpp:156] Memory required for data: 67618360
2016-07-30 10:11:47.985 STDERR [INFO] I0730 10:11:44.074535 19735 layer_factory.hpp:77] Creating layer fc6
2016-07-30 10:11:47.985 STDERR [INFO] I0730 10:11:44.074561 19735 net.cpp:91] Creating Layer fc6
2016-07-30 10:11:47.985 STDERR [INFO] I0730 10:11:44.074566 19735 net.cpp:425] fc6 <- pool5
2016-07-30 10:11:47.985 STDERR [INFO] I0730 10:11:44.074576 19735 net.cpp:399] fc6 -> fc6
2016-07-30 10:11:47.985 STDERR [INFO] I0730 10:11:44.175060 19735 net.cpp:141] Setting up fc6
2016-07-30 10:11:47.985 STDERR [INFO] I0730 10:11:44.175103 19735 net.cpp:148] Top shape: 10 4096 (40960)
2016-07-30 10:11:47.985 STDERR [INFO] I0730 10:11:44.175108 19735 net.cpp:156] Memory required for data: 67782200
2016-07-30 10:11:47.985 STDERR [INFO] I0730 10:11:44.175122 19735 layer_factory.hpp:77] Creating layer relu6
2016-07-30 10:11:47.985 STDERR [INFO] I0730 10:11:44.175134 19735 net.cpp:91] Creating Layer relu6
2016-07-30 10:11:47.986 STDERR [INFO] I0730 10:11:44.175140 19735 net.cpp:425] relu6 <- fc6
2016-07-30 10:11:47.986 STDERR [INFO] I0730 10:11:44.175153 19735 net.cpp:386] relu6 -> fc6 (in-place)
2016-07-30 10:11:47.986 STDERR [INFO] I0730 10:11:44.175467 19735 net.cpp:141] Setting up relu6
2016-07-30 10:11:47.986 STDERR [INFO] I0730 10:11:44.175477 19735 net.cpp:148] Top shape: 10 4096 (40960)
2016-07-30 10:11:47.986 STDERR [INFO] I0730 10:11:44.175482 19735 net.cpp:156] Memory required for data: 67946040
2016-07-30 10:11:47.986 STDERR [INFO] I0730 10:11:44.175485 19735 layer_factory.hpp:77] Creating layer drop6
2016-07-30 10:11:47.986 STDERR [INFO] I0730 10:11:44.175506 19735 net.cpp:91] Creating Layer drop6
2016-07-30 10:11:47.986 STDERR [INFO] I0730 10:11:44.175511 19735 net.cpp:425] drop6 <- fc6
2016-07-30 10:11:47.986 STDERR [INFO] I0730 10:11:44.175516 19735 net.cpp:386] drop6 -> fc6 (in-place)
2016-07-30 10:11:47.987 STDERR [INFO] I0730 10:11:44.175562 19735 net.cpp:141] Setting up drop6
2016-07-30 10:11:47.987 STDERR [INFO] I0730 10:11:44.175571 19735 net.cpp:148] Top shape: 10 4096 (40960)
2016-07-30 10:11:47.987 STDERR [INFO] I0730 10:11:44.175575 19735 net.cpp:156] Memory required for data: 68109880
2016-07-30 10:11:47.987 STDERR [INFO] I0730 10:11:44.175580 19735 layer_factory.hpp:77] Creating layer fc7
2016-07-30 10:11:47.987 STDERR [INFO] I0730 10:11:44.175603 19735 net.cpp:91] Creating Layer fc7
2016-07-30 10:11:47.987 STDERR [INFO] I0730 10:11:44.175608 19735 net.cpp:425] fc7 <- fc6
2016-07-30 10:11:47.987 STDERR [INFO] I0730 10:11:44.175614 19735 net.cpp:399] fc7 -> fc7
2016-07-30 10:11:47.988 STDERR [INFO] I0730 10:11:44.221487 19735 net.cpp:141] Setting up fc7
2016-07-30 10:11:47.988 STDERR [INFO] I0730 10:11:44.221539 19735 net.cpp:148] Top shape: 10 4096 (40960)
2016-07-30 10:11:47.988 STDERR [INFO] I0730 10:11:44.221544 19735 net.cpp:156] Memory required for data: 68273720
2016-07-30 10:11:47.988 STDERR [INFO] I0730 10:11:44.221556 19735 layer_factory.hpp:77] Creating layer relu7
2016-07-30 10:11:47.988 STDERR [INFO] I0730 10:11:44.221570 19735 net.cpp:91] Creating Layer relu7
2016-07-30 10:11:47.988 STDERR [INFO] I0730 10:11:44.221575 19735 net.cpp:425] relu7 <- fc7
2016-07-30 10:11:47.988 STDERR [INFO] I0730 10:11:44.221586 19735 net.cpp:386] relu7 -> fc7 (in-place)
2016-07-30 10:11:47.988 STDERR [INFO] I0730 10:11:44.222982 19735 net.cpp:141] Setting up relu7
2016-07-30 10:11:47.988 STDERR [INFO] I0730 10:11:44.222995 19735 net.cpp:148] Top shape: 10 4096 (40960)
2016-07-30 10:11:47.988 STDERR [INFO] I0730 10:11:44.223000 19735 net.cpp:156] Memory required for data: 68437560
2016-07-30 10:11:47.989 STDERR [INFO] I0730 10:11:44.223003 19735 layer_factory.hpp:77] Creating layer drop7
2016-07-30 10:11:47.989 STDERR [INFO] I0730 10:11:44.223016 19735 net.cpp:91] Creating Layer drop7
2016-07-30 10:11:47.989 STDERR [INFO] I0730 10:11:44.223021 19735 net.cpp:425] drop7 <- fc7
2016-07-30 10:11:47.989 STDERR [INFO] I0730 10:11:44.223027 19735 net.cpp:386] drop7 -> fc7 (in-place)
2016-07-30 10:11:47.989 STDERR [INFO] I0730 10:11:44.223063 19735 net.cpp:141] Setting up drop7
2016-07-30 10:11:47.989 STDERR [INFO] I0730 10:11:44.223070 19735 net.cpp:148] Top shape: 10 4096 (40960)
2016-07-30 10:11:47.989 STDERR [INFO] I0730 10:11:44.223074 19735 net.cpp:156] Memory required for data: 68601400
2016-07-30 10:11:47.989 STDERR [INFO] I0730 10:11:44.223079 19735 layer_factory.hpp:77] Creating layer fc8
2016-07-30 10:11:47.989 STDERR [INFO] I0730 10:11:44.223089 19735 net.cpp:91] Creating Layer fc8
2016-07-30 10:11:47.989 STDERR [INFO] I0730 10:11:44.223093 19735 net.cpp:425] fc8 <- fc7
2016-07-30 10:11:47.990 STDERR [INFO] I0730 10:11:44.223103 19735 net.cpp:399] fc8 -> fc8
2016-07-30 10:11:47.990 STDERR [INFO] I0730 10:11:44.234904 19735 net.cpp:141] Setting up fc8
2016-07-30 10:11:47.990 STDERR [INFO] I0730 10:11:44.234941 19735 net.cpp:148] Top shape: 10 1000 (10000)
2016-07-30 10:11:47.990 STDERR [INFO] I0730 10:11:44.234946 19735 net.cpp:156] Memory required for data: 68641400
2016-07-30 10:11:47.990 STDERR [INFO] I0730 10:11:44.234958 19735 layer_factory.hpp:77] Creating layer prob
2016-07-30 10:11:47.990 STDERR [INFO] I0730 10:11:44.234972 19735 net.cpp:91] Creating Layer prob
2016-07-30 10:11:47.990 STDERR [INFO] I0730 10:11:44.234977 19735 net.cpp:425] prob <- fc8
2016-07-30 10:11:47.990 STDERR [INFO] I0730 10:11:44.234990 19735 net.cpp:399] prob -> prob
2016-07-30 10:11:47.990 STDERR [INFO] I0730 10:11:44.235368 19735 net.cpp:141] Setting up prob
2016-07-30 10:11:47.991 STDERR [INFO] I0730 10:11:44.235378 19735 net.cpp:148] Top shape: 10 1000 (10000)
2016-07-30 10:11:47.991 STDERR [INFO] I0730 10:11:44.235383 19735 net.cpp:156] Memory required for data: 68681400
2016-07-30 10:11:47.991 STDERR [INFO] I0730 10:11:44.235388 19735 net.cpp:219] prob does not need backward computation.
2016-07-30 10:11:47.991 STDERR [INFO] I0730 10:11:44.235393 19735 net.cpp:219] fc8 does not need backward computation.
2016-07-30 10:11:47.991 STDERR [INFO] I0730 10:11:44.235396 19735 net.cpp:219] drop7 does not need backward computation.
…
2016-07-30 10:11:48.010 STDERR [INFO] I0730 10:11:47.939059 19722 net.cpp:91] Creating Layer input
2016-07-30 10:11:48.010 STDERR [INFO] I0730 10:11:47.939070 19722 net.cpp:399] input -> frames_fc7
2016-07-30 10:11:48.010 STDERR [INFO] I0730 10:11:47.939103 19722 net.cpp:399] input -> cont_sentence
2016-07-30 10:11:48.010 STDERR [INFO] I0730 10:11:47.939121 19722 net.cpp:399] input -> input_sentence
2016-07-30 10:11:48.010 STDERR [INFO] I0730 10:11:47.939136 19722 net.cpp:399] input -> stage_indicator
2016-07-30 10:11:48.010 STDERR [INFO] I0730 10:11:47.939357 19722 net.cpp:141] Setting up input
2016-07-30 10:11:48.010 STDERR [INFO] I0730 10:11:47.939373 19722 net.cpp:148] Top shape: 1 4096 (4096)
2016-07-30 10:11:48.010 STDERR [INFO] I0730 10:11:47.939384 19722 net.cpp:148] Top shape: 1 1 (1)
2016-07-30 10:11:48.011 STDERR [INFO] I0730 10:11:47.939393 19722 net.cpp:148] Top shape: 1 1 (1)
2016-07-30 10:11:48.011 STDERR [INFO] I0730 10:11:47.939401 19722 net.cpp:148] Top shape: 1 1 (1)
2016-07-30 10:11:48.011 STDERR [INFO] I0730 10:11:47.939409 19722 net.cpp:156] Memory required for data: 16396
2016-07-30 10:11:48.011 STDERR [INFO] I0730 10:11:47.939416 19722 layer_factory.hpp:77] Creating layer cont_sentence_input_1_split
2016-07-30 10:11:48.011 STDERR [INFO] I0730 10:11:47.939441 19722 net.cpp:91] Creating Layer cont_sentence_input_1_split
2016-07-30 10:11:48.011 STDERR [INFO] I0730 10:11:47.939450 19722 net.cpp:425] cont_sentence_input_1_split <- cont_sentence
2016-07-30 10:11:48.011 STDERR [INFO] I0730 10:11:47.939476 19722 net.cpp:399] cont_sentence_input_1_split -> cont_sentence_input_1_split_0
2016-07-30 10:11:48.011 STDERR [INFO] I0730 10:11:47.939491 19722 net.cpp:399] cont_sentence_input_1_split -> cont_sentence_input_1_split_1
2016-07-30 10:11:48.011 STDERR [INFO] I0730 10:11:47.939568 19722 net.cpp:141] Setting up cont_sentence_input_1_split
2016-07-30 10:11:48.011 STDERR [INFO] I0730 10:11:47.939592 19722 net.cpp:148] Top shape: 1 1 (1)
2016-07-30 10:11:48.011 STDERR [INFO] I0730 10:11:47.939601 19722 net.cpp:148] Top shape: 1 1 (1)
2016-07-30 10:11:48.011 STDERR [INFO] I0730 10:11:47.939609 19722 net.cpp:156] Memory required for data: 16404
2016-07-30 10:11:48.012 STDERR [INFO] I0730 10:11:47.939616 19722 layer_factory.hpp:77] Creating layer embed_encoder
2016-07-30 10:11:48.012 STDERR [INFO] I0730 10:11:47.939631 19722 net.cpp:91] Creating Layer embed_encoder
2016-07-30 10:11:48.012 STDERR [INFO] I0730 10:11:47.939640 19722 net.cpp:425] embed_encoder <- frames_fc7
2016-07-30 10:11:48.012 STDERR [INFO] I0730 10:11:47.939653 19722 net.cpp:399] embed_encoder -> embedded_in_frames
2016-07-30 10:11:48.012 STDERR [INFO] I0730 10:11:47.968772 19722 net.cpp:141] Setting up embed_encoder
2016-07-30 10:11:48.012 STDERR [INFO] I0730 10:11:47.968816 19722 net.cpp:148] Top shape: 1 500 (500)
2016-07-30 10:11:48.012 STDERR [INFO] I0730 10:11:47.968822 19722 net.cpp:156] Memory required for data: 18404
2016-07-30 10:11:48.012 STDERR [INFO] I0730 10:11:47.968847 19722 layer_factory.hpp:77] Creating layer reshape_frames
2016-07-30 10:11:48.012 STDERR [INFO] I0730 10:11:47.968866 19722 net.cpp:91] Creating Layer reshape_frames
2016-07-30 10:11:48.012 STDERR [INFO] I0730 10:11:47.968875 19722 net.cpp:425] reshape_frames <- embedded_in_frames
2016-07-30 10:11:48.012 STDERR [INFO] I0730 10:11:47.968889 19722 net.cpp:399] reshape_frames -> embedded_input_frames
2016-07-30 10:11:48.012 STDERR [INFO] I0730 10:11:47.968961 19722 net.cpp:141] Setting up reshape_frames
2016-07-30 10:11:48.013 STDERR [INFO] I0730 10:11:47.968971 19722 net.cpp:148] Top shape: 1 1 500 (500)
2016-07-30 10:11:48.013 STDERR [INFO] I0730 10:11:47.968977 19722 net.cpp:156] Memory required for data: 20404
2016-07-30 10:11:48.013 STDERR [INFO] I0730 10:11:47.968983 19722 layer_factory.hpp:77] Creating layer reshape_stage_indicator
2016-07-30 10:11:48.013 STDERR [INFO] I0730 10:11:47.968999 19722 net.cpp:91] Creating Layer reshape_stage_indicator
2016-07-30 10:11:48.013 STDERR [INFO] I0730 10:11:47.969007 19722 net.cpp:425] reshape_stage_indicator <- stage_indicator
2016-07-30 10:11:48.013 STDERR [INFO] I0730 10:11:47.969017 19722 net.cpp:399] reshape_stage_indicator -> reshaped_stage_indicator
2016-07-30 10:11:48.013 STDERR [INFO] I0730 10:11:47.969069 19722 net.cpp:141] Setting up reshape_stage_indicator
2016-07-30 10:11:48.013 STDERR [INFO] I0730 10:11:47.969080 19722 net.cpp:148] Top shape: 1 1 1 (1)
2016-07-30 10:11:48.013 STDERR [INFO] I0730 10:11:47.969085 19722 net.cpp:156] Memory required for data: 20408
2016-07-30 10:11:48.013 STDERR [INFO] I0730 10:11:47.969091 19722 layer_factory.hpp:77] Creating layer embedding
2016-07-30 10:11:48.013 STDERR [INFO] I0730 10:11:47.969105 19722 net.cpp:91] Creating Layer embedding
2016-07-30 10:11:48.013 STDERR [INFO] I0730 10:11:47.969111 19722 net.cpp:425] embedding <- input_sentence
2016-07-30 10:11:48.014 STDERR [INFO] I0730 10:11:47.969123 19722 net.cpp:399] embedding -> embedded_input_sentence
2016-07-30 10:11:48.216 STDERR [INFO] I0730 10:11:48.215967 19722 net.cpp:141] Setting up embedding
2016-07-30 10:11:48.216 STDERR [INFO] I0730 10:11:48.216018 19722 net.cpp:148] Top shape: 1 1 500 (500)
2016-07-30 10:11:48.216 STDERR [INFO] I0730 10:11:48.216025 19722 net.cpp:156] Memory required for data: 22408
2016-07-30 10:11:48.216 STDERR [INFO] I0730 10:11:48.216047 19722 layer_factory.hpp:77] Creating layer lstm1
2016-07-30 10:11:48.216 STDERR [INFO] I0730 10:11:48.216074 19722 net.cpp:91] Creating Layer lstm1
2016-07-30 10:11:48.217 STDERR [INFO] I0730 10:11:48.216083 19722 net.cpp:425] lstm1 <- embedded_input_frames
…
2016-07-30 10:11:48.230 STDERR [INFO] }
2016-07-30 10:11:48.230 STDERR [INFO] I0730 10:11:48.216712 19722 layer_factory.hpp:77] Creating layer lstm1_
2016-07-30 10:11:48.230 STDERR [INFO] I0730 10:11:48.216728 19722 net.cpp:91] Creating Layer lstm1_
2016-07-30 10:11:48.230 STDERR [INFO] I0730 10:11:48.216737 19722 net.cpp:399] lstm1_ -> x
2016-07-30 10:11:48.230 STDERR [INFO] I0730 10:11:48.216749 19722 net.cpp:399] lstm1_ -> cont
2016-07-30 10:11:48.231 STDERR [INFO] I0730 10:11:48.216820 19722 net.cpp:141] Setting up lstm1_
2016-07-30 10:11:48.231 STDERR [INFO] I0730 10:11:48.216830 19722 net.cpp:148] Top shape: 1 1 500 (500)
2016-07-30 10:11:48.231 STDERR [INFO] I0730 10:11:48.216837 19722 net.cpp:148] Top shape: 1 1 (1)
2016-07-30 10:11:48.231 STDERR [INFO] I0730 10:11:48.216842 19722 net.cpp:156] Memory required for data: 2004
2016-07-30 10:11:48.231 STDERR [INFO] I0730 10:11:48.216847 19722 layer_factory.hpp:77] Creating layer lstm1_
2016-07-30 10:11:48.231 STDERR [INFO] I0730 10:11:48.216866 19722 net.cpp:91] Creating Layer lstm1_
2016-07-30 10:11:48.231 STDERR [INFO] I0730 10:11:48.216874 19722 net.cpp:399] lstm1_ -> c_0
2016-07-30 10:11:48.231 STDERR [INFO] I0730 10:11:48.216888 19722 net.cpp:399] lstm1_ -> h_0
2016-07-30 10:11:48.231 STDERR [INFO] I0730 10:11:48.216943 19722 net.cpp:141] Setting up lstm1_
2016-07-30 10:11:48.231 STDERR [INFO] I0730 10:11:48.216953 19722 net.cpp:148] Top shape: 1 1 1000 (1000)
2016-07-30 10:11:48.231 STDERR [INFO] I0730 10:11:48.216960 19722 net.cpp:148] Top shape: 1 1 1000 (1000)
2016-07-30 10:11:48.231 STDERR [INFO] I0730 10:11:48.216964 19722 net.cpp:156] Memory required for data: 10004
2016-07-30 10:11:48.232 STDERR [INFO] I0730 10:11:48.216969 19722 layer_factory.hpp:77] Creating layer lstm1_cont_slice
2016-07-30 10:11:48.232 STDERR [INFO] I0730 10:11:48.216984 19722 net.cpp:91] Creating Layer lstm1_cont_slice
2016-07-30 10:11:48.232 STDERR [INFO] I0730 10:11:48.216989 19722 net.cpp:425] lstm1_cont_slice <- cont
2016-07-30 10:11:48.232 STDERR [INFO] I0730 10:11:48.216997 19722 net.cpp:399] lstm1_cont_slice -> cont_1
2016-07-30 10:11:48.232 STDERR [INFO] I0730 10:11:48.217043 19722 net.cpp:141] Setting up lstm1_cont_slice
2016-07-30 10:11:48.232 STDERR [INFO] I0730 10:11:48.217053 19722 net.cpp:148] Top shape: 1 1 (1)
2016-07-30 10:11:48.232 STDERR [INFO] I0730 10:11:48.217058 19722 net.cpp:156] Memory required for data: 10008
2016-07-30 10:11:48.232 STDERR [INFO] I0730 10:11:48.217063 19722 layer_factory.hpp:77] Creating layer cont_1_lstm1_cont_slice_0_split
2016-07-30 10:11:48.232 STDERR [INFO] I0730 10:11:48.217074 19722 net.cpp:91] Creating Layer cont_1_lstm1_cont_slice_0_split
2016-07-30 10:11:48.232 STDERR [INFO] I0730 10:11:48.217079 19722 net.cpp:425] cont_1_lstm1_cont_slice_0_split <- cont_1
2016-07-30 10:11:48.232 STDERR [INFO] I0730 10:11:48.217088 19722 net.cpp:399] cont_1_lstm1_cont_slice_0_split -> cont_1_lstm1_cont_slice_0_split_0
2016-07-30 10:11:48.232 STDERR [INFO] I0730 10:11:48.217099 19722 net.cpp:399] cont_1_lstm1_cont_slice_0_split -> cont_1_lstm1_cont_slice_0_split_1
2016-07-30 10:11:48.232 STDERR [INFO] I0730 10:11:48.217150 19722 net.cpp:141] Setting up cont_1_lstm1_cont_slice_0_split
2016-07-30 10:11:48.233 STDERR [INFO] I0730 10:11:48.217162 19722 net.cpp:148] Top shape: 1 1 (1)
2016-07-30 10:11:48.233 STDERR [INFO] I0730 10:11:48.217170 19722 net.cpp:148] Top shape: 1 1 (1)
2016-07-30 10:11:48.233 STDERR [INFO] I0730 10:11:48.217175 19722 net.cpp:156] Memory required for data: 10016
2016-07-30 10:11:48.233 STDERR [INFO] I0730 10:11:48.217180 19722 layer_factory.hpp:77] Creating layer lstm1_x_transform
2016-07-30 10:11:48.233 STDERR [INFO] I0730 10:11:48.217190 19722 net.cpp:91] Creating Layer lstm1_x_transform
2016-07-30 10:11:48.233 STDERR [INFO] I0730 10:11:48.217195 19722 net.cpp:425] lstm1_x_transform <- x
2016-07-30 10:11:48.233 STDERR [INFO] I0730 10:11:48.217211 19722 net.cpp:399] lstm1_x_transform -> W_xc_x
2016-07-30 10:11:48.239 STDERR [INFO] I0730 10:11:48.239617 19722 net.cpp:141] Setting up lstm1_x_transform
2016-07-30 10:11:48.240 STDERR [INFO] I0730 10:11:48.239642 19722 net.cpp:148] Top shape: 1 1 4000 (4000)
2016-07-30 10:11:48.240 STDERR [INFO] I0730 10:11:48.239647 19722 net.cpp:156] Memory required for data: 26016
2016-07-30 10:11:48.240 STDERR [INFO] I0730 10:11:48.239662 19722 layer_factory.hpp:77] Creating layer lstm1_W_xc_x_slice
2016-07-30 10:11:48.240 STDERR [INFO] I0730 10:11:48.239673 19722 net.cpp:91] Creating Layer lstm1_W_xc_x_slice
2016-07-30 10:11:48.240 STDERR [INFO] I0730 10:11:48.239678 19722 net.cpp:425] lstm1_W_xc_x_slice <- W_xc_x
2016-07-30 10:11:48.240 STDERR [INFO] I0730 10:11:48.239686 19722 net.cpp:399] lstm1_W_xc_x_slice -> W_xc_x_1
2016-07-30 10:11:48.240 STDERR [INFO] I0730 10:11:48.239738 19722 net.cpp:141] Setting up lstm1_W_xc_x_slice
2016-07-30 10:11:48.240 STDERR [INFO] I0730 10:11:48.239750 19722 net.cpp:148] Top shape: 1 1 4000 (4000)
2016-07-30 10:11:48.240 STDERR [INFO] I0730 10:11:48.239755 19722 net.cpp:156] Memory required for data: 42016
2016-07-30 10:11:48.240 STDERR [INFO] I0730 10:11:48.239760 19722 layer_factory.hpp:77] Creating layer lstm1_h_conted_0
2016-07-30 10:11:48.240 STDERR [INFO] I0730 10:11:48.239770 19722 net.cpp:91] Creating Layer lstm1_h_conted_0
2016-07-30 10:11:48.241 STDERR [INFO] I0730 10:11:48.239776 19722 net.cpp:425] lstm1_h_conted_0 <- h_0
2016-07-30 10:11:48.241 STDERR [INFO] I0730 10:11:48.239783 19722 net.cpp:425] lstm1_h_conted_0 <- cont_1_lstm1_cont_slice_0_split_0
2016-07-30 10:11:48.241 STDERR [INFO] I0730 10:11:48.239789 19722 net.cpp:399] lstm1_h_conted_0 -> h_conted_0
2016-07-30 10:11:48.241 STDERR [INFO] I0730 10:11:48.239913 19722 net.cpp:141] Setting up lstm1_h_conted_0
2016-07-30 10:11:48.241 STDERR [INFO] I0730 10:11:48.239924 19722 net.cpp:148] Top shape: 1 1 1000 (1000)
2016-07-30 10:11:48.241 STDERR [INFO] I0730 10:11:48.239929 19722 net.cpp:156] Memory required for data: 46016
2016-07-30 10:11:48.241 STDERR [INFO] I0730 10:11:48.239934 19722 layer_factory.hpp:77] Creating layer lstm1_transform_1
2016-07-30 10:11:48.241 STDERR [INFO] I0730 10:11:48.239945 19722 net.cpp:91] Creating Layer lstm1_transform_1
2016-07-30 10:11:48.241 STDERR [INFO] I0730 10:11:48.239950 19722 net.cpp:425] lstm1_transform_1 <- h_conted_0
2016-07-30 10:11:48.241 STDERR [INFO] I0730 10:11:48.239959 19722 net.cpp:399] lstm1_transform_1 -> W_hc_h_0
2016-07-30 10:11:50.356 b.s.d.executor [INFO] Prepared bolt captioner:(2)
2016-07-30 10:11:53.658 o.a.s.s.o.a.z.ClientCnxn [INFO] Client session timed out, have not heard from server in 13339ms for sessionid 0x155759ed6413de0, closing socket connection and attempting reconnect
2016-07-30 10:11:48.284 STDERR [INFO] I0730 10:11:48.284436 19722 net.cpp:141] Setting up lstm1_transform_1
2016-07-30 10:11:54.446 STDERR [INFO] I0730 10:11:48.284483 19722 net.cpp:148] Top shape: 1 1 4000 (4000)
2016-07-30 10:11:54.447 STDERR [INFO] I0730 10:11:48.284489 19722 net.cpp:156] Memory required for data: 62016
2016-07-30 10:11:54.447 STDERR [INFO] I0730 10:11:48.284508 19722 layer_factory.hpp:77] Creating layer lstm1_gate_input_1
2016-07-30 10:11:54.447 STDERR [INFO] I0730 10:11:48.284528 19722 net.cpp:91] Creating Layer lstm1_gate_input_1
2016-07-30 10:11:54.447 STDERR [INFO] I0730 10:11:48.284543 19722 net.cpp:425] lstm1_gate_input_1 <- W_hc_h_0
2016-07-30 10:11:54.448 STDERR [INFO] I0730 10:11:48.284551 19722 net.cpp:425] lstm1_gate_input_1 <- W_xc_x_1
2016-07-30 10:11:54.448 STDERR [INFO] I0730 10:11:48.284562 19722 net.cpp:399] lstm1_gate_input_1 -> gate_input_1
2016-07-30 10:11:54.449 STDERR [INFO] I0730 10:11:48.284623 19722 net.cpp:141] Setting up lstm1_gate_input_1
2016-07-30 10:11:54.450 STDERR [INFO] I0730 10:11:48.284637 19722 net.cpp:148] Top shape: 1 1 4000 (4000)
2016-07-30 10:11:54.450 STDERR [INFO] I0730 10:11:48.284642 19722 net.cpp:156] Memory required for data: 78016
2016-07-30 10:11:54.450 STDERR [INFO] I0730 10:11:48.284647 19722 layer_factory.hpp:77] Creating layer lstm1_unit_1
2016-07-30 10:11:54.450 STDERR [INFO] I0730 10:11:48.284657 19722 net.cpp:91] Creating Layer lstm1_unit_1
2016-07-30 10:11:54.450 STDERR [INFO] I0730 10:11:48.284662 19722 net.cpp:425] lstm1_unit_1 <- c_0
2016-07-30 10:11:54.451 STDERR [INFO] I0730 10:11:48.284668 19722 net.cpp:425] lstm1_unit_1 <- gate_input_1
2016-07-30 10:11:54.451 STDERR [INFO] I0730 10:11:48.284673 19722 net.cpp:425] lstm1_unit_1 <- cont_1_lstm1_cont_slice_0_split_1
2016-07-30 10:11:54.451 STDERR [INFO] I0730 10:11:48.284682 19722 net.cpp:399] lstm1_unit_1 -> c_1
2016-07-30 10:11:54.452 STDERR [INFO] I0730 10:11:48.284690 19722 net.cpp:399] lstm1_unit_1 -> h_1
2016-07-30 10:11:54.452 STDERR [INFO] I0730 10:11:48.284759 19722 net.cpp:141] Setting up lstm1_unit_1
2016-07-30 10:11:54.452 STDERR [INFO] I0730 10:11:48.284768 19722 net.cpp:148] Top shape: 1 1 1000 (1000)
2016-07-30 10:11:54.452 STDERR [INFO] I0730 10:11:48.284775 19722 net.cpp:148] Top shape: 1 1 1000 (1000)
2016-07-30 10:11:54.452 STDERR [INFO] I0730 10:11:48.284780 19722 net.cpp:156] Memory required for data: 86016
2016-07-30 10:11:54.453 STDERR [INFO] I0730 10:11:48.284785 19722 layer_factory.hpp:77] Creating layer lstm1_
2016-07-30 10:11:54.453 STDERR [INFO] I0730 10:11:48.284795 19722 net.cpp:91] Creating Layer lstm1_
2016-07-30 10:11:54.453 STDERR [INFO] I0730 10:11:48.284800 19722 net.cpp:425] lstm1_ <- c_1
2016-07-30 10:11:54.453 STDERR [INFO] I0730 10:11:48.284806 19722 net.cpp:399] lstm1_ -> c_T
2016-07-30 10:11:54.453 STDERR [INFO] I0730 10:11:48.284839 19722 net.cpp:141] Setting up lstm1_
2016-07-30 10:11:54.453 STDERR [INFO] I0730 10:11:48.284848 19722 net.cpp:148] Top shape: 1 1 1000 (1000)
2016-07-30 10:11:54.453 STDERR [INFO] I0730 10:11:48.284852 19722 net.cpp:156] Memory required for data: 90016
2016-07-30 10:11:54.454 STDERR [INFO] I0730 10:11:48.284857 19722 layer_factory.hpp:77] Creating layer lstm1_h_concat
2016-07-30 10:11:54.454 STDERR [INFO] I0730 10:11:48.284874 19722 net.cpp:91] Creating Layer lstm1_h_concat
2016-07-30 10:11:54.454 STDERR [INFO] I0730 10:11:48.284879 19722 net.cpp:425] lstm1_h_concat <- h_1
2016-07-30 10:11:54.454 STDERR [INFO] I0730 10:11:48.284888 19722 net.cpp:399] lstm1_h_concat -> h
2016-07-30 10:11:54.454 STDERR [INFO] I0730 10:11:48.284940 19722 net.cpp:141] Setting up lstm1_h_concat
2016-07-30 10:11:54.454 STDERR [INFO] I0730 10:11:48.284950 19722 net.cpp:148] Top shape: 1 1 1000 (1000)
2016-07-30 10:11:54.454 STDERR [INFO] I0730 10:11:48.284955 19722 net.cpp:156] Memory required for data: 94016
2016-07-30 10:11:54.455 STDERR [INFO] I0730 10:11:48.284960 19722 layer_factory.hpp:77] Creating layer h_pseudoloss
2016-07-30 10:11:54.455 STDERR [INFO] I0730 10:11:48.284972 19722 net.cpp:91] Creating Layer h_pseudoloss
2016-07-30 10:11:54.455 STDERR [INFO] I0730 10:11:48.284978 19722 net.cpp:425] h_pseudoloss <- h
…
2016-07-30 10:11:54.480 STDERR [INFO] }
2016-07-30 10:11:54.480 STDERR [INFO] I0730 10:11:48.285979 19722 layer_factory.hpp:77] Creating layer lstm2_
2016-07-30 10:11:54.480 STDERR [INFO] I0730 10:11:48.285992 19722 net.cpp:91] Creating Layer lstm2_
2016-07-30 10:11:54.480 STDERR [INFO] I0730 10:11:48.286000 19722 net.cpp:399] lstm2_ -> x
2016-07-30 10:11:54.481 STDERR [INFO] I0730 10:11:48.286011 19722 net.cpp:399] lstm2_ -> cont
2016-07-30 10:11:54.481 STDERR [INFO] I0730 10:11:48.286072 19722 net.cpp:141] Setting up lstm2_
2016-07-30 10:11:54.481 STDERR [INFO] I0730 10:11:48.286083 19722 net.cpp:148] Top shape: 1 1 1501 (1501)
2016-07-30 10:11:54.481 STDERR [INFO] I0730 10:11:48.286090 19722 net.cpp:148] Top shape: 1 1 (1)
2016-07-30 10:11:54.481 STDERR [INFO] I0730 10:11:48.286094 19722 net.cpp:156] Memory required for data: 6008
2016-07-30 10:11:54.481 STDERR [INFO] I0730 10:11:48.286100 19722 layer_factory.hpp:77] Creating layer lstm2_
2016-07-30 10:11:54.481 STDERR [INFO] I0730 10:11:48.286109 19722 net.cpp:91] Creating Layer lstm2_
2016-07-30 10:11:54.481 STDERR [INFO] I0730 10:11:48.286116 19722 net.cpp:399] lstm2_ -> c_0
2016-07-30 10:11:54.482 STDERR [INFO] I0730 10:11:48.286128 19722 net.cpp:399] lstm2_ -> h_0
2016-07-30 10:11:54.482 STDERR [INFO] I0730 10:11:48.286181 19722 net.cpp:141] Setting up lstm2_
2016-07-30 10:11:54.482 STDERR [INFO] I0730 10:11:48.286191 19722 net.cpp:148] Top shape: 1 1 1000 (1000)
2016-07-30 10:11:54.483 STDERR [INFO] I0730 10:11:48.286198 19722 net.cpp:148] Top shape: 1 1 1000 (1000)
2016-07-30 10:11:54.483 STDERR [INFO] I0730 10:11:48.286202 19722 net.cpp:156] Memory required for data: 14008
2016-07-30 10:11:54.483 STDERR [INFO] I0730 10:11:48.286207 19722 layer_factory.hpp:77] Creating layer lstm2_cont_slice
2016-07-30 10:11:54.483 STDERR [INFO] I0730 10:11:48.286221 19722 net.cpp:91] Creating Layer lstm2_cont_slice
2016-07-30 10:11:54.483 STDERR [INFO] I0730 10:11:48.286226 19722 net.cpp:425] lstm2_cont_slice <- cont
2016-07-30 10:11:54.483 STDERR [INFO] I0730 10:11:48.286237 19722 net.cpp:399] lstm2_cont_slice -> cont_1
2016-07-30 10:11:54.483 STDERR [INFO] I0730 10:11:48.286278 19722 net.cpp:141] Setting up lstm2_cont_slice
2016-07-30 10:11:54.483 STDERR [INFO] I0730 10:11:48.286288 19722 net.cpp:148] Top shape: 1 1 (1)
2016-07-30 10:11:54.483 STDERR [INFO] I0730 10:11:48.286291 19722 net.cpp:156] Memory required for data: 14012
2016-07-30 10:11:54.484 STDERR [INFO] I0730 10:11:48.286296 19722 layer_factory.hpp:77] Creating layer cont_1_lstm2_cont_slice_0_split
2016-07-30 10:11:54.484 STDERR [INFO] I0730 10:11:48.286304 19722 net.cpp:91] Creating Layer cont_1_lstm2_cont_slice_0_split
2016-07-30 10:11:54.484 STDERR [INFO] I0730 10:11:48.286309 19722 net.cpp:425] cont_1_lstm2_cont_slice_0_split <- cont_1
2016-07-30 10:11:54.484 STDERR [INFO] I0730 10:11:48.286319 19722 net.cpp:399] cont_1_lstm2_cont_slice_0_split -> cont_1_lstm2_cont_slice_0_split_0
2016-07-30 10:11:54.484 STDERR [INFO] I0730 10:11:48.286329 19722 net.cpp:399] cont_1_lstm2_cont_slice_0_split -> cont_1_lstm2_cont_slice_0_split_1
2016-07-30 10:11:54.484 STDERR [INFO] I0730 10:11:48.286377 19722 net.cpp:141] Setting up cont_1_lstm2_cont_slice_0_split
2016-07-30 10:11:54.484 STDERR [INFO] I0730 10:11:48.286386 19722 net.cpp:148] Top shape: 1 1 (1)
2016-07-30 10:11:54.484 STDERR [INFO] I0730 10:11:48.286392 19722 net.cpp:148] Top shape: 1 1 (1)
2016-07-30 10:11:54.485 STDERR [INFO] I0730 10:11:48.286397 19722 net.cpp:156] Memory required for data: 14020
2016-07-30 10:11:54.485 STDERR [INFO] I0730 10:11:48.286402 19722 layer_factory.hpp:77] Creating layer lstm2_x_transform
2016-07-30 10:11:54.485 STDERR [INFO] I0730 10:11:48.286417 19722 net.cpp:91] Creating Layer lstm2_x_transform
2016-07-30 10:11:54.485 STDERR [INFO] I0730 10:11:48.286422 19722 net.cpp:425] lstm2_x_transform <- x
2016-07-30 10:11:54.485 STDERR [INFO] I0730 10:11:48.286430 19722 net.cpp:399] lstm2_x_transform -> W_xc_x
2016-07-30 10:11:54.485 STDERR [INFO] I0730 10:11:48.352301 19722 net.cpp:141] Setting up lstm2_x_transform
2016-07-30 10:11:54.485 STDERR [INFO] I0730 10:11:48.352349 19722 net.cpp:148] Top shape: 1 1 4000 (4000)
2016-07-30 10:11:54.485 STDERR [INFO] I0730 10:11:48.352355 19722 net.cpp:156] Memory required for data: 30020
2016-07-30 10:11:54.485 STDERR [INFO] I0730 10:11:48.352375 19722 layer_factory.hpp:77] Creating layer lstm2_W_xc_x_slice
2016-07-30 10:11:54.486 STDERR [INFO] I0730 10:11:48.352396 19722 net.cpp:91] Creating Layer lstm2_W_xc_x_slice
2016-07-30 10:11:54.486 STDERR [INFO] I0730 10:11:48.352402 19722 net.cpp:425] lstm2_W_xc_x_slice <- W_xc_x
2016-07-30 10:11:54.486 STDERR [INFO] I0730 10:11:48.352412 19722 net.cpp:399] lstm2_W_xc_x_slice -> W_xc_x_1
2016-07-30 10:11:54.486 STDERR [INFO] I0730 10:11:48.352461 19722 net.cpp:141] Setting up lstm2_W_xc_x_slice
2016-07-30 10:11:54.486 STDERR [INFO] I0730 10:11:48.352473 19722 net.cpp:148] Top shape: 1 1 4000 (4000)
2016-07-30 10:11:54.486 STDERR [INFO] I0730 10:11:48.352478 19722 net.cpp:156] Memory required for data: 46020
2016-07-30 10:11:54.486 STDERR [INFO] I0730 10:11:48.352483 19722 layer_factory.hpp:77] Creating layer lstm2_h_conted_0
2016-07-30 10:11:54.486 STDERR [INFO] I0730 10:11:48.352497 19722 net.cpp:91] Creating Layer lstm2_h_conted_0
2016-07-30 10:11:54.486 STDERR [INFO] I0730 10:11:48.352504 19722 net.cpp:425] lstm2_h_conted_0 <- h_0
2016-07-30 10:11:54.487 STDERR [INFO] I0730 10:11:48.352509 19722 net.cpp:425] lstm2_h_conted_0 <- cont_1_lstm2_cont_slice_0_split_0
2016-07-30 10:11:54.487 STDERR [INFO] I0730 10:11:48.352517 19722 net.cpp:399] lstm2_h_conted_0 -> h_conted_0
2016-07-30 10:11:54.487 STDERR [INFO] I0730 10:11:48.352622 19722 net.cpp:141] Setting up lstm2_h_conted_0
2016-07-30 10:11:54.487 STDERR [INFO] I0730 10:11:48.352633 19722 net.cpp:148] Top shape: 1 1 1000 (1000)
2016-07-30 10:11:54.487 STDERR [INFO] I0730 10:11:48.352638 19722 net.cpp:156] Memory required for data: 50020
2016-07-30 10:11:54.487 STDERR [INFO] I0730 10:11:48.352643 19722 layer_factory.hpp:77] Creating layer lstm2_transform_1
2016-07-30 10:11:54.487 STDERR [INFO] I0730 10:11:48.352659 19722 net.cpp:91] Creating Layer lstm2_transform_1
2016-07-30 10:11:54.487 STDERR [INFO] I0730 10:11:48.352665 19722 net.cpp:425] lstm2_transform_1 <- h_conted_0
2016-07-30 10:11:54.487 STDERR [INFO] I0730 10:11:48.352674 19722 net.cpp:399] lstm2_transform_1 -> W_hc_h_0
2016-07-30 10:11:54.487 STDERR [INFO] I0730 10:11:48.396862 19722 net.cpp:141] Setting up lstm2_transform_1
2016-07-30 10:11:54.488 STDERR [INFO] I0730 10:11:48.396906 19722 net.cpp:148] Top shape: 1 1 4000 (4000)
2016-07-30 10:11:54.488 STDERR [INFO] I0730 10:11:48.396913 19722 net.cpp:156] Memory required for data: 66020
2016-07-30 10:11:54.488 STDERR [INFO] I0730 10:11:48.396930 19722 layer_factory.hpp:77] Creating layer lstm2_gate_input_1
2016-07-30 10:11:54.488 STDERR [INFO] I0730 10:11:48.396952 19722 net.cpp:91] Creating Layer lstm2_gate_input_1
2016-07-30 10:11:54.488 STDERR [INFO] I0730 10:11:48.396960 19722 net.cpp:425] lstm2_gate_input_1 <- W_hc_h_0
2016-07-30 10:11:54.488 STDERR [INFO] I0730 10:11:48.396968 19722 net.cpp:425] lstm2_gate_input_1 <- W_xc_x_1
2016-07-30 10:11:54.488 STDERR [INFO] I0730 10:11:48.396977 19722 net.cpp:399] lstm2_gate_input_1 -> gate_input_1
2016-07-30 10:11:54.488 STDERR [INFO] I0730 10:11:48.397032 19722 net.cpp:141] Setting up lstm2_gate_input_1
2016-07-30 10:11:54.488 STDERR [INFO] I0730 10:11:48.397042 19722 net.cpp:148] Top shape: 1 1 4000 (4000)
2016-07-30 10:11:54.489 STDERR [INFO] I0730 10:11:48.397047 19722 net.cpp:156] Memory required for data: 82020
2016-07-30 10:11:54.489 STDERR [INFO] I0730 10:11:48.397053 19722 layer_factory.hpp:77] Creating layer lstm2_unit_1
2016-07-30 10:11:54.489 STDERR [INFO] I0730 10:11:48.397065 19722 net.cpp:91] Creating Layer lstm2_unit_1
2016-07-30 10:11:54.489 STDERR [INFO] I0730 10:11:48.397070 19722 net.cpp:425] lstm2_unit_1 <- c_0
2016-07-30 10:11:54.489 STDERR [INFO] I0730 10:11:48.397078 19722 net.cpp:425] lstm2_unit_1 <- gate_input_1
2016-07-30 10:11:54.489 STDERR [INFO] I0730 10:11:48.397083 19722 net.cpp:425] lstm2_unit_1 <- cont_1_lstm2_cont_slice_0_split_1
2016-07-30 10:11:54.489 STDERR [INFO] I0730 10:11:48.397089 19722 net.cpp:399] lstm2_unit_1 -> c_1
2016-07-30 10:11:54.489 STDERR [INFO] I0730 10:11:48.397099 19722 net.cpp:399] lstm2_unit_1 -> h_1
2016-07-30 10:11:54.489 STDERR [INFO] I0730 10:11:48.397168 19722 net.cpp:141] Setting up lstm2_unit_1
2016-07-30 10:11:54.489 STDERR [INFO] I0730 10:11:48.397178 19722 net.cpp:148] Top shape: 1 1 1000 (1000)
2016-07-30 10:11:54.490 STDERR [INFO] I0730 10:11:48.397184 19722 net.cpp:148] Top shape: 1 1 1000 (1000)
2016-07-30 10:11:54.490 STDERR [INFO] I0730 10:11:48.397189 19722 net.cpp:156] Memory required for data: 90020
2016-07-30 10:11:54.490 STDERR [INFO] I0730 10:11:48.397194 19722 layer_factory.hpp:77] Creating layer lstm2_
2016-07-30 10:11:54.490 STDERR [INFO] I0730 10:11:48.397207 19722 net.cpp:91] Creating Layer lstm2_
2016-07-30 10:11:54.490 STDERR [INFO] I0730 10:11:48.397212 19722 net.cpp:425] lstm2_ <- c_1
2016-07-30 10:11:54.490 STDERR [INFO] I0730 10:11:48.397219 19722 net.cpp:399] lstm2_ -> c_T
2016-07-30 10:11:54.490 STDERR [INFO] I0730 10:11:48.397253 19722 net.cpp:141] Setting up lstm2_
2016-07-30 10:11:54.490 STDERR [INFO] I0730 10:11:48.397261 19722 net.cpp:148] Top shape: 1 1 1000 (1000)
2016-07-30 10:11:54.490 STDERR [INFO] I0730 10:11:48.397266 19722 net.cpp:156] Memory required for data: 94020
2016-07-30 10:11:54.491 STDERR [INFO] I0730 10:11:48.397271 19722 layer_factory.hpp:77] Creating layer lstm2_h_concat
2016-07-30 10:11:54.491 STDERR [INFO] I0730 10:11:48.397284 19722 net.cpp:91] Creating Layer lstm2_h_concat
2016-07-30 10:11:54.491 STDERR [INFO] I0730 10:11:48.397289 19722 net.cpp:425] lstm2_h_concat <- h_1
2016-07-30 10:11:54.491 STDERR [INFO] I0730 10:11:48.397300 19722 net.cpp:399] lstm2_h_concat -> h
2016-07-30 10:11:54.491 STDERR [INFO] I0730 10:11:48.397341 19722 net.cpp:141] Setting up lstm2_h_concat
2016-07-30 10:11:54.491 STDERR [INFO] I0730 10:11:48.397349 19722 net.cpp:148] Top shape: 1 1 1000 (1000)
2016-07-30 10:11:54.491 STDERR [INFO] I0730 10:11:48.397354 19722 net.cpp:156] Memory required for data: 98020
2016-07-30 10:11:54.491 STDERR [INFO] I0730 10:11:48.397358 19722 layer_factory.hpp:77] Creating layer h_pseudoloss
2016-07-30 10:11:54.491 STDERR [INFO] I0730 10:11:48.397368 19722 net.cpp:91] Creating Layer h_pseudoloss
2016-07-30 10:11:54.491 STDERR [INFO] I0730 10:11:48.397373 19722 net.cpp:425] h_pseudoloss <- h
…
