…
2016-07-30 10:17:47.657 STDERR [INFO] I0730 10:17:47.637066 24881 net.cpp:91] Creating Layer input
2016-07-30 10:17:47.657 STDERR [INFO] I0730 10:17:47.637074 24881 net.cpp:399] input -> frames_fc7
2016-07-30 10:17:47.657 STDERR [INFO] I0730 10:17:47.637094 24881 net.cpp:399] input -> cont_sentence
2016-07-30 10:17:47.657 STDERR [INFO] I0730 10:17:47.637104 24881 net.cpp:399] input -> input_sentence
2016-07-30 10:17:47.658 STDERR [INFO] I0730 10:17:47.637115 24881 net.cpp:399] input -> stage_indicator
2016-07-30 10:17:47.658 STDERR [INFO] I0730 10:17:47.637991 24881 net.cpp:141] Setting up input
2016-07-30 10:17:47.658 STDERR [INFO] I0730 10:17:47.638013 24881 net.cpp:148] Top shape: 1 4096 (4096)
2016-07-30 10:17:47.658 STDERR [INFO] I0730 10:17:47.638020 24881 net.cpp:148] Top shape: 1 1 (1)
2016-07-30 10:17:47.658 STDERR [INFO] I0730 10:17:47.638026 24881 net.cpp:148] Top shape: 1 1 (1)
2016-07-30 10:17:47.658 STDERR [INFO] I0730 10:17:47.638032 24881 net.cpp:148] Top shape: 1 1 (1)
2016-07-30 10:17:47.658 STDERR [INFO] I0730 10:17:47.638036 24881 net.cpp:156] Memory required for data: 16396
2016-07-30 10:17:47.658 STDERR [INFO] I0730 10:17:47.638042 24881 layer_factory.hpp:77] Creating layer cont_sentence_input_1_split
2016-07-30 10:17:47.658 STDERR [INFO] I0730 10:17:47.638061 24881 net.cpp:91] Creating Layer cont_sentence_input_1_split
2016-07-30 10:17:47.658 STDERR [INFO] I0730 10:17:47.638067 24881 net.cpp:425] cont_sentence_input_1_split <- cont_sentence
2016-07-30 10:17:47.658 STDERR [INFO] I0730 10:17:47.638088 24881 net.cpp:399] cont_sentence_input_1_split -> cont_sentence_input_1_split_0
2016-07-30 10:17:47.659 STDERR [INFO] I0730 10:17:47.638103 24881 net.cpp:399] cont_sentence_input_1_split -> cont_sentence_input_1_split_1
2016-07-30 10:17:47.659 STDERR [INFO] I0730 10:17:47.638279 24881 net.cpp:141] Setting up cont_sentence_input_1_split
2016-07-30 10:17:47.659 STDERR [INFO] I0730 10:17:47.638291 24881 net.cpp:148] Top shape: 1 1 (1)
2016-07-30 10:17:47.659 STDERR [INFO] I0730 10:17:47.638298 24881 net.cpp:148] Top shape: 1 1 (1)
2016-07-30 10:17:47.659 STDERR [INFO] I0730 10:17:47.638303 24881 net.cpp:156] Memory required for data: 16404
2016-07-30 10:17:47.659 STDERR [INFO] I0730 10:17:47.638308 24881 layer_factory.hpp:77] Creating layer embed_encoder
2016-07-30 10:17:47.659 STDERR [INFO] I0730 10:17:47.638324 24881 net.cpp:91] Creating Layer embed_encoder
2016-07-30 10:17:47.659 STDERR [INFO] I0730 10:17:47.638330 24881 net.cpp:425] embed_encoder <- frames_fc7
2016-07-30 10:17:47.659 STDERR [INFO] I0730 10:17:47.638340 24881 net.cpp:399] embed_encoder -> embedded_in_frames
2016-07-30 10:17:47.666 STDERR [INFO] I0730 10:17:47.666528 24881 net.cpp:141] Setting up embed_encoder
2016-07-30 10:17:47.667 STDERR [INFO] I0730 10:17:47.666584 24881 net.cpp:148] Top shape: 1 500 (500)
2016-07-30 10:17:47.667 STDERR [INFO] I0730 10:17:47.666591 24881 net.cpp:156] Memory required for data: 18404
2016-07-30 10:17:47.667 STDERR [INFO] I0730 10:17:47.666625 24881 layer_factory.hpp:77] Creating layer reshape_frames
2016-07-30 10:17:47.667 STDERR [INFO] I0730 10:17:47.666658 24881 net.cpp:91] Creating Layer reshape_frames
2016-07-30 10:17:47.667 STDERR [INFO] I0730 10:17:47.666667 24881 net.cpp:425] reshape_frames <- embedded_in_frames
2016-07-30 10:17:47.667 STDERR [INFO] I0730 10:17:47.666679 24881 net.cpp:399] reshape_frames -> embedded_input_frames
2016-07-30 10:17:47.684 STDERR [INFO] I0730 10:17:47.683962 24881 net.cpp:141] Setting up reshape_frames
2016-07-30 10:17:47.684 STDERR [INFO] I0730 10:17:47.683984 24881 net.cpp:148] Top shape: 1 1 500 (500)
2016-07-30 10:17:47.684 STDERR [INFO] I0730 10:17:47.683990 24881 net.cpp:156] Memory required for data: 20404
2016-07-30 10:17:47.684 STDERR [INFO] I0730 10:17:47.683995 24881 layer_factory.hpp:77] Creating layer reshape_stage_indicator
2016-07-30 10:17:47.684 STDERR [INFO] I0730 10:17:47.684010 24881 net.cpp:91] Creating Layer reshape_stage_indicator
2016-07-30 10:17:47.684 STDERR [INFO] I0730 10:17:47.684015 24881 net.cpp:425] reshape_stage_indicator <- stage_indicator
2016-07-30 10:17:47.684 STDERR [INFO] I0730 10:17:47.684031 24881 net.cpp:399] reshape_stage_indicator -> reshaped_stage_indicator
2016-07-30 10:17:47.686 STDERR [INFO] I0730 10:17:47.686357 24881 net.cpp:141] Setting up reshape_stage_indicator
2016-07-30 10:17:47.686 STDERR [INFO] I0730 10:17:47.686378 24881 net.cpp:148] Top shape: 1 1 1 (1)
2016-07-30 10:17:47.687 STDERR [INFO] I0730 10:17:47.686383 24881 net.cpp:156] Memory required for data: 20408
2016-07-30 10:17:47.687 STDERR [INFO] I0730 10:17:47.686389 24881 layer_factory.hpp:77] Creating layer embedding
2016-07-30 10:17:47.687 STDERR [INFO] I0730 10:17:47.686404 24881 net.cpp:91] Creating Layer embedding
2016-07-30 10:17:47.687 STDERR [INFO] I0730 10:17:47.686410 24881 net.cpp:425] embedding <- input_sentence
2016-07-30 10:17:47.687 STDERR [INFO] I0730 10:17:47.686424 24881 net.cpp:399] embedding -> embedded_input_sentence
2016-07-30 10:17:47.912 STDERR [INFO] I0730 10:17:47.912747 24894 net.cpp:141] Setting up conv1
2016-07-30 10:17:47.913 STDERR [INFO] I0730 10:17:47.912806 24894 net.cpp:148] Top shape: 10 96 55 55 (2904000)
2016-07-30 10:17:47.913 STDERR [INFO] I0730 10:17:47.912812 24894 net.cpp:156] Memory required for data: 17799480
2016-07-30 10:17:47.913 STDERR [INFO] I0730 10:17:47.912832 24894 layer_factory.hpp:77] Creating layer relu1
2016-07-30 10:17:47.913 STDERR [INFO] I0730 10:17:47.912853 24894 net.cpp:91] Creating Layer relu1
2016-07-30 10:17:47.913 STDERR [INFO] I0730 10:17:47.912858 24894 net.cpp:425] relu1 <- conv1
2016-07-30 10:17:47.913 STDERR [INFO] I0730 10:17:47.912865 24894 net.cpp:386] relu1 -> conv1 (in-place)
2016-07-30 10:17:47.913 STDERR [INFO] I0730 10:17:47.913616 24881 net.cpp:141] Setting up embedding
2016-07-30 10:17:47.914 STDERR [INFO] I0730 10:17:47.913658 24881 net.cpp:148] Top shape: 1 1 500 (500)
2016-07-30 10:17:47.914 STDERR [INFO] I0730 10:17:47.913664 24881 net.cpp:156] Memory required for data: 22408
2016-07-30 10:17:47.914 STDERR [INFO] I0730 10:17:47.913682 24881 layer_factory.hpp:77] Creating layer lstm1
2016-07-30 10:17:47.914 STDERR [INFO] I0730 10:17:47.913698 24894 net.cpp:141] Setting up relu1
2016-07-30 10:17:47.914 STDERR [INFO] I0730 10:17:47.913702 24881 net.cpp:91] Creating Layer lstm1
2016-07-30 10:17:47.914 STDERR [INFO] I0730 10:17:47.913715 24894 net.cpp:148] Top shape: 10 96 55 55 (2904000)
2016-07-30 10:17:47.914 STDERR [INFO] I0730 10:17:47.913720 24894 net.cpp:156] Memory required for data: 29415480
2016-07-30 10:17:47.914 STDERR [INFO] I0730 10:17:47.913722 24881 net.cpp:425] lstm1 <- embedded_input_frames
2016-07-30 10:17:47.914 STDERR [INFO] I0730 10:17:47.913727 24894 layer_factory.hpp:77] Creating layer pool1
2016-07-30 10:17:47.914 STDERR [INFO] I0730 10:17:47.913733 24881 net.cpp:425] lstm1 <- cont_sentence_input_1_split_0
2016-07-30 10:17:47.914 STDERR [INFO] I0730 10:17:47.913743 24894 net.cpp:91] Creating Layer pool1
2016-07-30 10:17:47.914 STDERR [INFO] I0730 10:17:47.913746 24881 net.cpp:399] lstm1 -> lstm1
2016-07-30 10:17:47.914 STDERR [INFO] I0730 10:17:47.913748 24894 net.cpp:425] pool1 <- conv1
2016-07-30 10:17:47.915 STDERR [INFO] I0730 10:17:47.913766 24894 net.cpp:399] pool1 -> pool1
2016-07-30 10:17:47.915 STDERR [INFO] I0730 10:17:47.913787 24881 recurrent_layer.cpp:20] Initializing recurrent layer: assuming input batch contains 1 timesteps of 1 independent streams.
2016-07-30 10:17:47.915 STDERR [INFO] I0730 10:17:47.913846 24894 net.cpp:141] Setting up pool1
2016-07-30 10:17:47.915 STDERR [INFO] I0730 10:17:47.913856 24894 net.cpp:148] Top shape: 10 96 27 27 (699840)
2016-07-30 10:17:47.915 STDERR [INFO] I0730 10:17:47.913862 24894 net.cpp:156] Memory required for data: 32214840
2016-07-30 10:17:47.915 STDERR [INFO] I0730 10:17:47.913867 24894 layer_factory.hpp:77] Creating layer norm1
2016-07-30 10:17:47.915 STDERR [INFO] I0730 10:17:47.913883 24894 net.cpp:91] Creating Layer norm1
2016-07-30 10:17:47.915 STDERR [INFO] I0730 10:17:47.913888 24894 net.cpp:425] norm1 <- pool1
…
2016-07-30 10:17:48.149 STDERR [INFO] }
2016-07-30 10:17:48.149 STDERR [INFO] I0730 10:17:47.914296 24881 layer_factory.hpp:77] Creating layer lstm1_
2016-07-30 10:17:48.149 STDERR [INFO] I0730 10:17:47.914309 24881 net.cpp:91] Creating Layer lstm1_
2016-07-30 10:17:48.149 STDERR [INFO] I0730 10:17:47.914316 24881 net.cpp:399] lstm1_ -> x
2016-07-30 10:17:48.149 STDERR [INFO] I0730 10:17:47.914330 24881 net.cpp:399] lstm1_ -> cont
2016-07-30 10:17:48.149 STDERR [INFO] I0730 10:17:47.914588 24881 net.cpp:141] Setting up lstm1_
2016-07-30 10:17:48.149 STDERR [INFO] I0730 10:17:47.914600 24881 net.cpp:148] Top shape: 1 1 500 (500)
2016-07-30 10:17:48.149 STDERR [INFO] I0730 10:17:47.914608 24881 net.cpp:148] Top shape: 1 1 (1)
2016-07-30 10:17:48.149 STDERR [INFO] I0730 10:17:47.914611 24881 net.cpp:156] Memory required for data: 2004
2016-07-30 10:17:48.150 STDERR [INFO] I0730 10:17:47.914616 24881 layer_factory.hpp:77] Creating layer lstm1_
2016-07-30 10:17:48.150 STDERR [INFO] I0730 10:17:47.914626 24881 net.cpp:91] Creating Layer lstm1_
2016-07-30 10:17:48.150 STDERR [INFO] I0730 10:17:47.914640 24881 net.cpp:399] lstm1_ -> c_0
2016-07-30 10:17:48.150 STDERR [INFO] I0730 10:17:47.914651 24881 net.cpp:399] lstm1_ -> h_0
2016-07-30 10:17:48.150 STDERR [INFO] I0730 10:17:47.914757 24881 net.cpp:141] Setting up lstm1_
2016-07-30 10:17:48.150 STDERR [INFO] I0730 10:17:47.914778 24881 net.cpp:148] Top shape: 1 1 1000 (1000)
2016-07-30 10:17:48.150 STDERR [INFO] I0730 10:17:47.914784 24881 net.cpp:148] Top shape: 1 1 1000 (1000)
2016-07-30 10:17:48.150 STDERR [INFO] I0730 10:17:47.914788 24881 net.cpp:156] Memory required for data: 10004
2016-07-30 10:17:48.150 STDERR [INFO] I0730 10:17:47.914793 24881 layer_factory.hpp:77] Creating layer lstm1_cont_slice
2016-07-30 10:17:48.150 STDERR [INFO] I0730 10:17:47.914803 24881 net.cpp:91] Creating Layer lstm1_cont_slice
2016-07-30 10:17:48.150 STDERR [INFO] I0730 10:17:47.914808 24881 net.cpp:425] lstm1_cont_slice <- cont
2016-07-30 10:17:48.151 STDERR [INFO] I0730 10:17:47.914819 24881 net.cpp:399] lstm1_cont_slice -> cont_1
2016-07-30 10:17:48.151 STDERR [INFO] I0730 10:17:47.914834 24894 net.cpp:141] Setting up norm1
2016-07-30 10:17:48.151 STDERR [INFO] I0730 10:17:47.914850 24894 net.cpp:148] Top shape: 10 96 27 27 (699840)
2016-07-30 10:17:48.151 STDERR [INFO] I0730 10:17:47.914855 24894 net.cpp:156] Memory required for data: 35014200
2016-07-30 10:17:48.151 STDERR [INFO] I0730 10:17:47.914860 24894 layer_factory.hpp:77] Creating layer conv2
2016-07-30 10:17:48.151 STDERR [INFO] I0730 10:17:47.914868 24881 net.cpp:141] Setting up lstm1_cont_slice
2016-07-30 10:17:48.151 STDERR [INFO] I0730 10:17:47.914873 24894 net.cpp:91] Creating Layer conv2
2016-07-30 10:17:48.151 STDERR [INFO] I0730 10:17:47.914878 24881 net.cpp:148] Top shape: 1 1 (1)
2016-07-30 10:17:48.151 STDERR [INFO] I0730 10:17:47.914888 24881 net.cpp:156] Memory required for data: 10008
2016-07-30 10:17:48.151 STDERR [INFO] I0730 10:17:47.914880 24894 net.cpp:425] conv2 <- norm1
2016-07-30 10:17:48.151 STDERR [INFO] I0730 10:17:47.914896 24881 layer_factory.hpp:77] Creating layer cont_1_lstm1_cont_slice_0_split
2016-07-30 10:17:48.152 STDERR [INFO] I0730 10:17:47.914912 24894 net.cpp:399] conv2 -> conv2
2016-07-30 10:17:48.152 STDERR [INFO] I0730 10:17:47.914919 24881 net.cpp:91] Creating Layer cont_1_lstm1_cont_slice_0_split
2016-07-30 10:17:48.152 STDERR [INFO] I0730 10:17:47.914927 24881 net.cpp:425] cont_1_lstm1_cont_slice_0_split <- cont_1
2016-07-30 10:17:48.152 STDERR [INFO] I0730 10:17:47.914933 24881 net.cpp:399] cont_1_lstm1_cont_slice_0_split -> cont_1_lstm1_cont_slice_0_split_0
2016-07-30 10:17:48.152 STDERR [INFO] I0730 10:17:47.914942 24881 net.cpp:399] cont_1_lstm1_cont_slice_0_split -> cont_1_lstm1_cont_slice_0_split_1
2016-07-30 10:17:48.152 STDERR [INFO] I0730 10:17:47.915153 24881 net.cpp:141] Setting up cont_1_lstm1_cont_slice_0_split
2016-07-30 10:17:48.152 STDERR [INFO] I0730 10:17:47.915163 24881 net.cpp:148] Top shape: 1 1 (1)
2016-07-30 10:17:48.152 STDERR [INFO] I0730 10:17:47.915169 24881 net.cpp:148] Top shape: 1 1 (1)
2016-07-30 10:17:48.152 STDERR [INFO] I0730 10:17:47.915174 24881 net.cpp:156] Memory required for data: 10016
2016-07-30 10:17:48.152 STDERR [INFO] I0730 10:17:47.915179 24881 layer_factory.hpp:77] Creating layer lstm1_x_transform
2016-07-30 10:17:48.152 STDERR [INFO] I0730 10:17:47.915189 24881 net.cpp:91] Creating Layer lstm1_x_transform
2016-07-30 10:17:48.152 STDERR [INFO] I0730 10:17:47.915194 24881 net.cpp:425] lstm1_x_transform <- x
2016-07-30 10:17:48.153 STDERR [INFO] I0730 10:17:47.915202 24881 net.cpp:399] lstm1_x_transform -> W_xc_x
2016-07-30 10:17:48.153 STDERR [INFO] I0730 10:17:47.924201 24894 net.cpp:141] Setting up conv2
2016-07-30 10:17:48.153 STDERR [INFO] I0730 10:17:47.924223 24894 net.cpp:148] Top shape: 10 256 27 27 (1866240)
2016-07-30 10:17:48.153 STDERR [INFO] I0730 10:17:47.924229 24894 net.cpp:156] Memory required for data: 42479160
2016-07-30 10:17:48.153 STDERR [INFO] I0730 10:17:47.924242 24894 layer_factory.hpp:77] Creating layer relu2
2016-07-30 10:17:48.153 STDERR [INFO] I0730 10:17:47.924254 24894 net.cpp:91] Creating Layer relu2
2016-07-30 10:17:48.153 STDERR [INFO] I0730 10:17:47.924259 24894 net.cpp:425] relu2 <- conv2
2016-07-30 10:17:48.154 STDERR [INFO] I0730 10:17:47.924266 24894 net.cpp:386] relu2 -> conv2 (in-place)
2016-07-30 10:17:48.154 STDERR [INFO] I0730 10:17:47.924947 24894 net.cpp:141] Setting up relu2
2016-07-30 10:17:48.154 STDERR [INFO] I0730 10:17:47.924959 24894 net.cpp:148] Top shape: 10 256 27 27 (1866240)
2016-07-30 10:17:48.154 STDERR [INFO] I0730 10:17:47.924963 24894 net.cpp:156] Memory required for data: 49944120
2016-07-30 10:17:48.154 STDERR [INFO] I0730 10:17:47.924968 24894 layer_factory.hpp:77] Creating layer pool2
2016-07-30 10:17:48.154 STDERR [INFO] I0730 10:17:47.924978 24894 net.cpp:91] Creating Layer pool2
2016-07-30 10:17:48.154 STDERR [INFO] I0730 10:17:47.924981 24894 net.cpp:425] pool2 <- conv2
2016-07-30 10:17:48.154 STDERR [INFO] I0730 10:17:47.924990 24894 net.cpp:399] pool2 -> pool2
2016-07-30 10:17:48.154 STDERR [INFO] I0730 10:17:47.925046 24894 net.cpp:141] Setting up pool2
2016-07-30 10:17:48.154 STDERR [INFO] I0730 10:17:47.925065 24894 net.cpp:148] Top shape: 10 256 13 13 (432640)
2016-07-30 10:17:48.154 STDERR [INFO] I0730 10:17:47.925072 24894 net.cpp:156] Memory required for data: 51674680
2016-07-30 10:17:48.154 STDERR [INFO] I0730 10:17:47.925077 24894 layer_factory.hpp:77] Creating layer norm2
2016-07-30 10:17:48.155 STDERR [INFO] I0730 10:17:47.925087 24894 net.cpp:91] Creating Layer norm2
2016-07-30 10:17:48.155 STDERR [INFO] I0730 10:17:47.925091 24894 net.cpp:425] norm2 <- pool2
2016-07-30 10:17:48.155 STDERR [INFO] I0730 10:17:47.925101 24894 net.cpp:399] norm2 -> norm2
2016-07-30 10:17:48.155 STDERR [INFO] I0730 10:17:47.925349 24894 net.cpp:141] Setting up norm2
2016-07-30 10:17:48.155 STDERR [INFO] I0730 10:17:47.925360 24894 net.cpp:148] Top shape: 10 256 13 13 (432640)
2016-07-30 10:17:48.155 STDERR [INFO] I0730 10:17:47.925364 24894 net.cpp:156] Memory required for data: 53405240
2016-07-30 10:17:48.155 STDERR [INFO] I0730 10:17:47.925369 24894 layer_factory.hpp:77] Creating layer conv3
2016-07-30 10:17:48.155 STDERR [INFO] I0730 10:17:47.925381 24894 net.cpp:91] Creating Layer conv3
2016-07-30 10:17:48.155 STDERR [INFO] I0730 10:17:47.925386 24894 net.cpp:425] conv3 <- norm2
2016-07-30 10:17:48.155 STDERR [INFO] I0730 10:17:47.925395 24894 net.cpp:399] conv3 -> conv3
2016-07-30 10:17:48.155 STDERR [INFO] I0730 10:17:47.930078 24894 net.cpp:141] Setting up conv3
2016-07-30 10:17:48.155 STDERR [INFO] I0730 10:17:47.930097 24894 net.cpp:148] Top shape: 10 384 13 13 (648960)
2016-07-30 10:17:48.156 STDERR [INFO] I0730 10:17:47.930102 24894 net.cpp:156] Memory required for data: 56001080
2016-07-30 10:17:48.156 STDERR [INFO] I0730 10:17:47.930115 24894 layer_factory.hpp:77] Creating layer relu3
2016-07-30 10:17:48.156 STDERR [INFO] I0730 10:17:47.930127 24894 net.cpp:91] Creating Layer relu3
2016-07-30 10:17:48.156 STDERR [INFO] I0730 10:17:47.930132 24894 net.cpp:425] relu3 <- conv3
2016-07-30 10:17:48.156 STDERR [INFO] I0730 10:17:47.930138 24894 net.cpp:386] relu3 -> conv3 (in-place)
2016-07-30 10:17:48.156 STDERR [INFO] I0730 10:17:47.930809 24894 net.cpp:141] Setting up relu3
2016-07-30 10:17:48.156 STDERR [INFO] I0730 10:17:47.930820 24894 net.cpp:148] Top shape: 10 384 13 13 (648960)
2016-07-30 10:17:48.156 STDERR [INFO] I0730 10:17:47.930825 24894 net.cpp:156] Memory required for data: 58596920
2016-07-30 10:17:48.156 STDERR [INFO] I0730 10:17:47.930830 24894 layer_factory.hpp:77] Creating layer conv4
2016-07-30 10:17:48.156 STDERR [INFO] I0730 10:17:47.930843 24894 net.cpp:91] Creating Layer conv4
2016-07-30 10:17:48.156 STDERR [INFO] I0730 10:17:47.930850 24894 net.cpp:425] conv4 <- conv3
2016-07-30 10:17:48.156 STDERR [INFO] I0730 10:17:47.930857 24894 net.cpp:399] conv4 -> conv4
2016-07-30 10:17:48.157 STDERR [INFO] I0730 10:17:47.935721 24894 net.cpp:141] Setting up conv4
2016-07-30 10:17:48.157 STDERR [INFO] I0730 10:17:47.935737 24894 net.cpp:148] Top shape: 10 384 13 13 (648960)
2016-07-30 10:17:48.157 STDERR [INFO] I0730 10:17:47.935742 24894 net.cpp:156] Memory required for data: 61192760
2016-07-30 10:17:48.157 STDERR [INFO] I0730 10:17:47.935751 24894 layer_factory.hpp:77] Creating layer relu4
2016-07-30 10:17:48.157 STDERR [INFO] I0730 10:17:47.935760 24894 net.cpp:91] Creating Layer relu4
2016-07-30 10:17:48.157 STDERR [INFO] I0730 10:17:47.935763 24894 net.cpp:425] relu4 <- conv4
2016-07-30 10:17:48.157 STDERR [INFO] I0730 10:17:47.935770 24894 net.cpp:386] relu4 -> conv4 (in-place)
2016-07-30 10:17:48.157 STDERR [INFO] I0730 10:17:47.936415 24894 net.cpp:141] Setting up relu4
2016-07-30 10:17:48.157 STDERR [INFO] I0730 10:17:47.936427 24894 net.cpp:148] Top shape: 10 384 13 13 (648960)
2016-07-30 10:17:48.157 STDERR [INFO] I0730 10:17:47.936431 24894 net.cpp:156] Memory required for data: 63788600
2016-07-30 10:17:48.157 STDERR [INFO] I0730 10:17:47.936435 24894 layer_factory.hpp:77] Creating layer conv5
2016-07-30 10:17:48.157 STDERR [INFO] I0730 10:17:47.936449 24894 net.cpp:91] Creating Layer conv5
2016-07-30 10:17:48.158 STDERR [INFO] I0730 10:17:47.936453 24894 net.cpp:425] conv5 <- conv4
2016-07-30 10:17:48.158 STDERR [INFO] I0730 10:17:47.936460 24894 net.cpp:399] conv5 -> conv5
2016-07-30 10:17:48.158 STDERR [INFO] I0730 10:17:47.938519 24881 net.cpp:141] Setting up lstm1_x_transform
2016-07-30 10:17:48.158 STDERR [INFO] I0730 10:17:47.938552 24881 net.cpp:148] Top shape: 1 1 4000 (4000)
2016-07-30 10:17:48.159 STDERR [INFO] I0730 10:17:47.938558 24881 net.cpp:156] Memory required for data: 26016
2016-07-30 10:17:48.159 STDERR [INFO] I0730 10:17:47.938577 24881 layer_factory.hpp:77] Creating layer lstm1_W_xc_x_slice
2016-07-30 10:17:48.159 STDERR [INFO] I0730 10:17:47.938593 24881 net.cpp:91] Creating Layer lstm1_W_xc_x_slice
2016-07-30 10:17:48.159 STDERR [INFO] I0730 10:17:47.938599 24881 net.cpp:425] lstm1_W_xc_x_slice <- W_xc_x
2016-07-30 10:17:48.159 STDERR [INFO] I0730 10:17:47.938609 24881 net.cpp:399] lstm1_W_xc_x_slice -> W_xc_x_1
2016-07-30 10:17:48.159 STDERR [INFO] I0730 10:17:47.940065 24881 net.cpp:141] Setting up lstm1_W_xc_x_slice
2016-07-30 10:17:48.159 STDERR [INFO] I0730 10:17:47.940078 24881 net.cpp:148] Top shape: 1 1 4000 (4000)
2016-07-30 10:17:48.160 STDERR [INFO] I0730 10:17:47.940083 24881 net.cpp:156] Memory required for data: 42016
2016-07-30 10:17:48.160 STDERR [INFO] I0730 10:17:47.940088 24881 layer_factory.hpp:77] Creating layer lstm1_h_conted_0
2016-07-30 10:17:48.160 STDERR [INFO] I0730 10:17:47.940104 24881 net.cpp:91] Creating Layer lstm1_h_conted_0
2016-07-30 10:17:48.160 STDERR [INFO] I0730 10:17:47.940109 24881 net.cpp:425] lstm1_h_conted_0 <- h_0
2016-07-30 10:17:48.160 STDERR [INFO] I0730 10:17:47.940115 24881 net.cpp:425] lstm1_h_conted_0 <- cont_1_lstm1_cont_slice_0_split_0
2016-07-30 10:17:48.160 STDERR [INFO] I0730 10:17:47.940124 24881 net.cpp:399] lstm1_h_conted_0 -> h_conted_0
2016-07-30 10:17:48.161 STDERR [INFO] I0730 10:17:47.940389 24881 net.cpp:141] Setting up lstm1_h_conted_0
2016-07-30 10:17:48.161 STDERR [INFO] I0730 10:17:47.940402 24881 net.cpp:148] Top shape: 1 1 1000 (1000)
2016-07-30 10:17:48.161 STDERR [INFO] I0730 10:17:47.940407 24881 net.cpp:156] Memory required for data: 46016
2016-07-30 10:17:48.161 STDERR [INFO] I0730 10:17:47.940412 24881 layer_factory.hpp:77] Creating layer lstm1_transform_1
2016-07-30 10:17:48.161 STDERR [INFO] I0730 10:17:47.940426 24881 net.cpp:91] Creating Layer lstm1_transform_1
2016-07-30 10:17:48.161 STDERR [INFO] I0730 10:17:47.940433 24881 net.cpp:425] lstm1_transform_1 <- h_conted_0
2016-07-30 10:17:48.161 STDERR [INFO] I0730 10:17:47.940440 24881 net.cpp:399] lstm1_transform_1 -> W_hc_h_0
2016-07-30 10:17:48.162 STDERR [INFO] I0730 10:17:47.950628 24894 net.cpp:141] Setting up conv5
2016-07-30 10:17:48.162 STDERR [INFO] I0730 10:17:47.950647 24894 net.cpp:148] Top shape: 10 256 13 13 (432640)
2016-07-30 10:17:48.162 STDERR [INFO] I0730 10:17:47.950652 24894 net.cpp:156] Memory required for data: 65519160
2016-07-30 10:17:48.162 STDERR [INFO] I0730 10:17:47.950664 24894 layer_factory.hpp:77] Creating layer relu5
2016-07-30 10:17:48.162 STDERR [INFO] I0730 10:17:47.950673 24894 net.cpp:91] Creating Layer relu5
2016-07-30 10:17:48.162 STDERR [INFO] I0730 10:17:47.950678 24894 net.cpp:425] relu5 <- conv5
2016-07-30 10:17:48.162 STDERR [INFO] I0730 10:17:47.950713 24894 net.cpp:386] relu5 -> conv5 (in-place)
2016-07-30 10:17:48.162 STDERR [INFO] I0730 10:17:47.951405 24894 net.cpp:141] Setting up relu5
2016-07-30 10:17:48.163 STDERR [INFO] I0730 10:17:47.951416 24894 net.cpp:148] Top shape: 10 256 13 13 (432640)
2016-07-30 10:17:48.163 STDERR [INFO] I0730 10:17:47.951421 24894 net.cpp:156] Memory required for data: 67249720
2016-07-30 10:17:48.163 STDERR [INFO] I0730 10:17:47.951426 24894 layer_factory.hpp:77] Creating layer pool5
2016-07-30 10:17:48.163 STDERR [INFO] I0730 10:17:47.951437 24894 net.cpp:91] Creating Layer pool5
2016-07-30 10:17:48.163 STDERR [INFO] I0730 10:17:47.951442 24894 net.cpp:425] pool5 <- conv5
2016-07-30 10:17:48.163 STDERR [INFO] I0730 10:17:47.951449 24894 net.cpp:399] pool5 -> pool5
2016-07-30 10:17:48.163 STDERR [INFO] I0730 10:17:47.951508 24894 net.cpp:141] Setting up pool5
2016-07-30 10:17:48.163 STDERR [INFO] I0730 10:17:47.951516 24894 net.cpp:148] Top shape: 10 256 6 6 (92160)
2016-07-30 10:17:48.163 STDERR [INFO] I0730 10:17:47.951520 24894 net.cpp:156] Memory required for data: 67618360
2016-07-30 10:17:48.163 STDERR [INFO] I0730 10:17:47.951525 24894 layer_factory.hpp:77] Creating layer fc6
2016-07-30 10:17:48.163 STDERR [INFO] I0730 10:17:47.951539 24894 net.cpp:91] Creating Layer fc6
2016-07-30 10:17:48.163 STDERR [INFO] I0730 10:17:47.951544 24894 net.cpp:425] fc6 <- pool5
2016-07-30 10:17:48.164 STDERR [INFO] I0730 10:17:47.951550 24894 net.cpp:399] fc6 -> fc6
2016-07-30 10:17:48.164 STDERR [INFO] I0730 10:17:48.013312 24881 net.cpp:141] Setting up lstm1_transform_1
2016-07-30 10:17:48.164 STDERR [INFO] I0730 10:17:48.013356 24881 net.cpp:148] Top shape: 1 1 4000 (4000)
2016-07-30 10:17:48.164 STDERR [INFO] I0730 10:17:48.013361 24881 net.cpp:156] Memory required for data: 62016
2016-07-30 10:17:48.164 STDERR [INFO] I0730 10:17:48.013383 24881 layer_factory.hpp:77] Creating layer lstm1_gate_input_1
2016-07-30 10:17:48.164 STDERR [INFO] I0730 10:17:48.013406 24881 net.cpp:91] Creating Layer lstm1_gate_input_1
2016-07-30 10:17:48.164 STDERR [INFO] I0730 10:17:48.013413 24881 net.cpp:425] lstm1_gate_input_1 <- W_hc_h_0
2016-07-30 10:17:48.164 STDERR [INFO] I0730 10:17:48.013422 24881 net.cpp:425] lstm1_gate_input_1 <- W_xc_x_1
2016-07-30 10:17:48.164 STDERR [INFO] I0730 10:17:48.013430 24881 net.cpp:399] lstm1_gate_input_1 -> gate_input_1
2016-07-30 10:17:48.164 STDERR [INFO] I0730 10:17:48.013492 24881 net.cpp:141] Setting up lstm1_gate_input_1
2016-07-30 10:17:48.164 STDERR [INFO] I0730 10:17:48.013501 24881 net.cpp:148] Top shape: 1 1 4000 (4000)
2016-07-30 10:17:48.165 STDERR [INFO] I0730 10:17:48.013505 24881 net.cpp:156] Memory required for data: 78016
2016-07-30 10:17:48.165 STDERR [INFO] I0730 10:17:48.013509 24881 layer_factory.hpp:77] Creating layer lstm1_unit_1
2016-07-30 10:17:48.165 STDERR [INFO] I0730 10:17:48.013519 24881 net.cpp:91] Creating Layer lstm1_unit_1
2016-07-30 10:17:48.165 STDERR [INFO] I0730 10:17:48.013523 24881 net.cpp:425] lstm1_unit_1 <- c_0
2016-07-30 10:17:48.165 STDERR [INFO] I0730 10:17:48.013528 24881 net.cpp:425] lstm1_unit_1 <- gate_input_1
2016-07-30 10:17:48.165 STDERR [INFO] I0730 10:17:48.013533 24881 net.cpp:425] lstm1_unit_1 <- cont_1_lstm1_cont_slice_0_split_1
2016-07-30 10:17:48.165 STDERR [INFO] I0730 10:17:48.013540 24881 net.cpp:399] lstm1_unit_1 -> c_1
2016-07-30 10:17:48.165 STDERR [INFO] I0730 10:17:48.013547 24881 net.cpp:399] lstm1_unit_1 -> h_1
2016-07-30 10:17:48.165 STDERR [INFO] I0730 10:17:48.013613 24881 net.cpp:141] Setting up lstm1_unit_1
2016-07-30 10:17:48.165 STDERR [INFO] I0730 10:17:48.013622 24881 net.cpp:148] Top shape: 1 1 1000 (1000)
2016-07-30 10:17:48.165 STDERR [INFO] I0730 10:17:48.013628 24881 net.cpp:148] Top shape: 1 1 1000 (1000)
2016-07-30 10:17:48.165 STDERR [INFO] I0730 10:17:48.013630 24881 net.cpp:156] Memory required for data: 86016
2016-07-30 10:17:48.166 STDERR [INFO] I0730 10:17:48.013636 24881 layer_factory.hpp:77] Creating layer lstm1_
2016-07-30 10:17:48.166 STDERR [INFO] I0730 10:17:48.013646 24881 net.cpp:91] Creating Layer lstm1_
2016-07-30 10:17:48.166 STDERR [INFO] I0730 10:17:48.013650 24881 net.cpp:425] lstm1_ <- c_1
2016-07-30 10:17:48.166 STDERR [INFO] I0730 10:17:48.013658 24881 net.cpp:399] lstm1_ -> c_T
2016-07-30 10:17:48.167 STDERR [INFO] I0730 10:17:48.013686 24881 net.cpp:141] Setting up lstm1_
2016-07-30 10:17:48.167 STDERR [INFO] I0730 10:17:48.013694 24881 net.cpp:148] Top shape: 1 1 1000 (1000)
2016-07-30 10:17:48.167 STDERR [INFO] I0730 10:17:48.013697 24881 net.cpp:156] Memory required for data: 90016
2016-07-30 10:17:48.167 STDERR [INFO] I0730 10:17:48.013701 24881 layer_factory.hpp:77] Creating layer lstm1_h_concat
2016-07-30 10:17:48.167 STDERR [INFO] I0730 10:17:48.013711 24881 net.cpp:91] Creating Layer lstm1_h_concat
2016-07-30 10:17:48.167 STDERR [INFO] I0730 10:17:48.013715 24881 net.cpp:425] lstm1_h_concat <- h_1
2016-07-30 10:17:48.167 STDERR [INFO] I0730 10:17:48.013725 24881 net.cpp:399] lstm1_h_concat -> h
2016-07-30 10:17:48.167 STDERR [INFO] I0730 10:17:48.013764 24881 net.cpp:141] Setting up lstm1_h_concat
2016-07-30 10:17:48.167 STDERR [INFO] I0730 10:17:48.013772 24881 net.cpp:148] Top shape: 1 1 1000 (1000)
2016-07-30 10:17:48.167 STDERR [INFO] I0730 10:17:48.013777 24881 net.cpp:156] Memory required for data: 94016
2016-07-30 10:17:48.167 STDERR [INFO] I0730 10:17:48.013780 24881 layer_factory.hpp:77] Creating layer h_pseudoloss
2016-07-30 10:17:48.168 STDERR [INFO] I0730 10:17:48.013793 24881 net.cpp:91] Creating Layer h_pseudoloss
2016-07-30 10:17:48.168 STDERR [INFO] I0730 10:17:48.013797 24881 net.cpp:425] h_pseudoloss <- h
…
2016-07-30 10:17:48.184 STDERR [INFO] }
2016-07-30 10:17:48.184 STDERR [INFO] I0730 10:17:48.014667 24881 layer_factory.hpp:77] Creating layer lstm2_
2016-07-30 10:17:48.184 STDERR [INFO] I0730 10:17:48.014678 24881 net.cpp:91] Creating Layer lstm2_
2016-07-30 10:17:48.184 STDERR [INFO] I0730 10:17:48.014683 24881 net.cpp:399] lstm2_ -> x
2016-07-30 10:17:48.184 STDERR [INFO] I0730 10:17:48.014711 24881 net.cpp:399] lstm2_ -> cont
2016-07-30 10:17:48.184 STDERR [INFO] I0730 10:17:48.014767 24881 net.cpp:141] Setting up lstm2_
2016-07-30 10:17:48.184 STDERR [INFO] I0730 10:17:48.014776 24881 net.cpp:148] Top shape: 1 1 1501 (1501)
2016-07-30 10:17:48.185 STDERR [INFO] I0730 10:17:48.014781 24881 net.cpp:148] Top shape: 1 1 (1)
2016-07-30 10:17:48.185 STDERR [INFO] I0730 10:17:48.014786 24881 net.cpp:156] Memory required for data: 6008
2016-07-30 10:17:48.185 STDERR [INFO] I0730 10:17:48.014791 24881 layer_factory.hpp:77] Creating layer lstm2_
2016-07-30 10:17:48.185 STDERR [INFO] I0730 10:17:48.014798 24881 net.cpp:91] Creating Layer lstm2_
2016-07-30 10:17:48.185 STDERR [INFO] I0730 10:17:48.014806 24881 net.cpp:399] lstm2_ -> c_0
2016-07-30 10:17:48.185 STDERR [INFO] I0730 10:17:48.014816 24881 net.cpp:399] lstm2_ -> h_0
2016-07-30 10:17:48.186 STDERR [INFO] I0730 10:17:48.014863 24881 net.cpp:141] Setting up lstm2_
2016-07-30 10:17:48.186 STDERR [INFO] I0730 10:17:48.014871 24881 net.cpp:148] Top shape: 1 1 1000 (1000)
2016-07-30 10:17:48.186 STDERR [INFO] I0730 10:17:48.014876 24881 net.cpp:148] Top shape: 1 1 1000 (1000)
2016-07-30 10:17:48.186 STDERR [INFO] I0730 10:17:48.014880 24881 net.cpp:156] Memory required for data: 14008
2016-07-30 10:17:48.186 STDERR [INFO] I0730 10:17:48.014884 24881 layer_factory.hpp:77] Creating layer lstm2_cont_slice
2016-07-30 10:17:48.186 STDERR [INFO] I0730 10:17:48.014892 24881 net.cpp:91] Creating Layer lstm2_cont_slice
2016-07-30 10:17:48.186 STDERR [INFO] I0730 10:17:48.014896 24881 net.cpp:425] lstm2_cont_slice <- cont
2016-07-30 10:17:48.186 STDERR [INFO] I0730 10:17:48.014902 24881 net.cpp:399] lstm2_cont_slice -> cont_1
2016-07-30 10:17:48.186 STDERR [INFO] I0730 10:17:48.014935 24881 net.cpp:141] Setting up lstm2_cont_slice
2016-07-30 10:17:48.186 STDERR [INFO] I0730 10:17:48.014943 24881 net.cpp:148] Top shape: 1 1 (1)
2016-07-30 10:17:48.186 STDERR [INFO] I0730 10:17:48.014947 24881 net.cpp:156] Memory required for data: 14012
2016-07-30 10:17:48.186 STDERR [INFO] I0730 10:17:48.014951 24881 layer_factory.hpp:77] Creating layer cont_1_lstm2_cont_slice_0_split
2016-07-30 10:17:48.187 STDERR [INFO] I0730 10:17:48.014961 24881 net.cpp:91] Creating Layer cont_1_lstm2_cont_slice_0_split
2016-07-30 10:17:48.187 STDERR [INFO] I0730 10:17:48.014966 24881 net.cpp:425] cont_1_lstm2_cont_slice_0_split <- cont_1
2016-07-30 10:17:48.187 STDERR [INFO] I0730 10:17:48.014971 24881 net.cpp:399] cont_1_lstm2_cont_slice_0_split -> cont_1_lstm2_cont_slice_0_split_0
2016-07-30 10:17:48.187 STDERR [INFO] I0730 10:17:48.014978 24881 net.cpp:399] cont_1_lstm2_cont_slice_0_split -> cont_1_lstm2_cont_slice_0_split_1
2016-07-30 10:17:48.187 STDERR [INFO] I0730 10:17:48.015035 24881 net.cpp:141] Setting up cont_1_lstm2_cont_slice_0_split
2016-07-30 10:17:48.187 STDERR [INFO] I0730 10:17:48.015043 24881 net.cpp:148] Top shape: 1 1 (1)
2016-07-30 10:17:48.187 STDERR [INFO] I0730 10:17:48.015048 24881 net.cpp:148] Top shape: 1 1 (1)
2016-07-30 10:17:48.188 STDERR [INFO] I0730 10:17:48.015051 24881 net.cpp:156] Memory required for data: 14020
2016-07-30 10:17:48.188 STDERR [INFO] I0730 10:17:48.015055 24881 layer_factory.hpp:77] Creating layer lstm2_x_transform
2016-07-30 10:17:48.188 STDERR [INFO] I0730 10:17:48.015064 24881 net.cpp:91] Creating Layer lstm2_x_transform
2016-07-30 10:17:48.188 STDERR [INFO] I0730 10:17:48.015069 24881 net.cpp:425] lstm2_x_transform <- x
2016-07-30 10:17:48.188 STDERR [INFO] I0730 10:17:48.015079 24881 net.cpp:399] lstm2_x_transform -> W_xc_x
2016-07-30 10:17:48.188 STDERR [INFO] I0730 10:17:48.050505 24894 net.cpp:141] Setting up fc6
2016-07-30 10:17:48.188 STDERR [INFO] I0730 10:17:48.050546 24894 net.cpp:148] Top shape: 10 4096 (40960)
2016-07-30 10:17:48.188 STDERR [INFO] I0730 10:17:48.050551 24894 net.cpp:156] Memory required for data: 67782200
2016-07-30 10:17:48.188 STDERR [INFO] I0730 10:17:48.050565 24894 layer_factory.hpp:77] Creating layer relu6
2016-07-30 10:17:48.188 STDERR [INFO] I0730 10:17:48.050580 24894 net.cpp:91] Creating Layer relu6
2016-07-30 10:17:48.188 STDERR [INFO] I0730 10:17:48.050586 24894 net.cpp:425] relu6 <- fc6
2016-07-30 10:17:48.188 STDERR [INFO] I0730 10:17:48.050595 24894 net.cpp:386] relu6 -> fc6 (in-place)
2016-07-30 10:17:48.189 STDERR [INFO] I0730 10:17:48.050926 24894 net.cpp:141] Setting up relu6
2016-07-30 10:17:48.189 STDERR [INFO] I0730 10:17:48.050937 24894 net.cpp:148] Top shape: 10 4096 (40960)
2016-07-30 10:17:48.189 STDERR [INFO] I0730 10:17:48.050941 24894 net.cpp:156] Memory required for data: 67946040
2016-07-30 10:17:48.189 STDERR [INFO] I0730 10:17:48.050946 24894 layer_factory.hpp:77] Creating layer drop6
2016-07-30 10:17:48.189 STDERR [INFO] I0730 10:17:48.050956 24894 net.cpp:91] Creating Layer drop6
2016-07-30 10:17:48.189 STDERR [INFO] I0730 10:17:48.050959 24894 net.cpp:425] drop6 <- fc6
2016-07-30 10:17:48.189 STDERR [INFO] I0730 10:17:48.050969 24894 net.cpp:386] drop6 -> fc6 (in-place)
2016-07-30 10:17:48.189 STDERR [INFO] I0730 10:17:48.051017 24894 net.cpp:141] Setting up drop6
2016-07-30 10:17:48.189 STDERR [INFO] I0730 10:17:48.051026 24894 net.cpp:148] Top shape: 10 4096 (40960)
2016-07-30 10:17:48.189 STDERR [INFO] I0730 10:17:48.051030 24894 net.cpp:156] Memory required for data: 68109880
2016-07-30 10:17:48.189 STDERR [INFO] I0730 10:17:48.051034 24894 layer_factory.hpp:77] Creating layer fc7
2016-07-30 10:17:48.190 STDERR [INFO] I0730 10:17:48.051044 24894 net.cpp:91] Creating Layer fc7
2016-07-30 10:17:48.190 STDERR [INFO] I0730 10:17:48.051048 24894 net.cpp:425] fc7 <- fc6
2016-07-30 10:17:48.190 STDERR [INFO] I0730 10:17:48.051054 24894 net.cpp:399] fc7 -> fc7
2016-07-30 10:17:48.190 STDERR [INFO] I0730 10:17:48.079105 24881 net.cpp:141] Setting up lstm2_x_transform
2016-07-30 10:17:48.190 STDERR [INFO] I0730 10:17:48.079150 24881 net.cpp:148] Top shape: 1 1 4000 (4000)
2016-07-30 10:17:48.190 STDERR [INFO] I0730 10:17:48.079155 24881 net.cpp:156] Memory required for data: 30020
2016-07-30 10:17:48.190 STDERR [INFO] I0730 10:17:48.079174 24881 layer_factory.hpp:77] Creating layer lstm2_W_xc_x_slice
2016-07-30 10:17:48.190 STDERR [INFO] I0730 10:17:48.079190 24881 net.cpp:91] Creating Layer lstm2_W_xc_x_slice
2016-07-30 10:17:48.190 STDERR [INFO] I0730 10:17:48.079196 24881 net.cpp:425] lstm2_W_xc_x_slice <- W_xc_x
2016-07-30 10:17:48.190 STDERR [INFO] I0730 10:17:48.079205 24881 net.cpp:399] lstm2_W_xc_x_slice -> W_xc_x_1
2016-07-30 10:17:48.190 STDERR [INFO] I0730 10:17:48.079252 24881 net.cpp:141] Setting up lstm2_W_xc_x_slice
2016-07-30 10:17:48.190 STDERR [INFO] I0730 10:17:48.079260 24881 net.cpp:148] Top shape: 1 1 4000 (4000)
2016-07-30 10:17:48.190 STDERR [INFO] I0730 10:17:48.079264 24881 net.cpp:156] Memory required for data: 46020
2016-07-30 10:17:48.191 STDERR [INFO] I0730 10:17:48.079268 24881 layer_factory.hpp:77] Creating layer lstm2_h_conted_0
2016-07-30 10:17:48.191 STDERR [INFO] I0730 10:17:48.079278 24881 net.cpp:91] Creating Layer lstm2_h_conted_0
2016-07-30 10:17:48.191 STDERR [INFO] I0730 10:17:48.079283 24881 net.cpp:425] lstm2_h_conted_0 <- h_0
2016-07-30 10:17:48.191 STDERR [INFO] I0730 10:17:48.079288 24881 net.cpp:425] lstm2_h_conted_0 <- cont_1_lstm2_cont_slice_0_split_0
2016-07-30 10:17:48.191 STDERR [INFO] I0730 10:17:48.079295 24881 net.cpp:399] lstm2_h_conted_0 -> h_conted_0
2016-07-30 10:17:48.191 STDERR [INFO] I0730 10:17:48.079382 24881 net.cpp:141] Setting up lstm2_h_conted_0
2016-07-30 10:17:48.191 STDERR [INFO] I0730 10:17:48.079391 24881 net.cpp:148] Top shape: 1 1 1000 (1000)
2016-07-30 10:17:48.191 STDERR [INFO] I0730 10:17:48.079394 24881 net.cpp:156] Memory required for data: 50020
2016-07-30 10:17:48.191 STDERR [INFO] I0730 10:17:48.079398 24881 layer_factory.hpp:77] Creating layer lstm2_transform_1
2016-07-30 10:17:48.191 STDERR [INFO] I0730 10:17:48.079411 24881 net.cpp:91] Creating Layer lstm2_transform_1
2016-07-30 10:17:48.191 STDERR [INFO] I0730 10:17:48.079416 24881 net.cpp:425] lstm2_transform_1 <- h_conted_0
2016-07-30 10:17:48.191 STDERR [INFO] I0730 10:17:48.079423 24881 net.cpp:399] lstm2_transform_1 -> W_hc_h_0
2016-07-30 10:17:48.192 STDERR [INFO] I0730 10:17:48.095854 24894 net.cpp:141] Setting up fc7
2016-07-30 10:17:48.192 STDERR [INFO] I0730 10:17:48.095892 24894 net.cpp:148] Top shape: 10 4096 (40960)
2016-07-30 10:17:48.192 STDERR [INFO] I0730 10:17:48.095898 24894 net.cpp:156] Memory required for data: 68273720
2016-07-30 10:17:48.192 STDERR [INFO] I0730 10:17:48.095911 24894 layer_factory.hpp:77] Creating layer relu7
2016-07-30 10:17:48.192 STDERR [INFO] I0730 10:17:48.095926 24894 net.cpp:91] Creating Layer relu7
2016-07-30 10:17:48.192 STDERR [INFO] I0730 10:17:48.095932 24894 net.cpp:425] relu7 <- fc7
2016-07-30 10:17:48.192 STDERR [INFO] I0730 10:17:48.095939 24894 net.cpp:386] relu7 -> fc7 (in-place)
2016-07-30 10:17:48.192 STDERR [INFO] I0730 10:17:48.097342 24894 net.cpp:141] Setting up relu7
2016-07-30 10:17:48.192 STDERR [INFO] I0730 10:17:48.097354 24894 net.cpp:148] Top shape: 10 4096 (40960)
2016-07-30 10:17:48.192 STDERR [INFO] I0730 10:17:48.097358 24894 net.cpp:156] Memory required for data: 68437560
2016-07-30 10:17:48.192 STDERR [INFO] I0730 10:17:48.097363 24894 layer_factory.hpp:77] Creating layer drop7
2016-07-30 10:17:48.192 STDERR [INFO] I0730 10:17:48.097376 24894 net.cpp:91] Creating Layer drop7
2016-07-30 10:17:48.193 STDERR [INFO] I0730 10:17:48.097381 24894 net.cpp:425] drop7 <- fc7
2016-07-30 10:17:48.193 STDERR [INFO] I0730 10:17:48.097388 24894 net.cpp:386] drop7 -> fc7 (in-place)
2016-07-30 10:17:48.193 STDERR [INFO] I0730 10:17:48.097427 24894 net.cpp:141] Setting up drop7
2016-07-30 10:17:48.193 STDERR [INFO] I0730 10:17:48.097435 24894 net.cpp:148] Top shape: 10 4096 (40960)
2016-07-30 10:17:48.193 STDERR [INFO] I0730 10:17:48.097440 24894 net.cpp:156] Memory required for data: 68601400
2016-07-30 10:17:48.193 STDERR [INFO] I0730 10:17:48.097443 24894 layer_factory.hpp:77] Creating layer fc8
2016-07-30 10:17:48.193 STDERR [INFO] I0730 10:17:48.097451 24894 net.cpp:91] Creating Layer fc8
2016-07-30 10:17:48.193 STDERR [INFO] I0730 10:17:48.097456 24894 net.cpp:425] fc8 <- fc7
2016-07-30 10:17:48.193 STDERR [INFO] I0730 10:17:48.097465 24894 net.cpp:399] fc8 -> fc8
2016-07-30 10:17:48.193 STDERR [INFO] I0730 10:17:48.109236 24894 net.cpp:141] Setting up fc8
2016-07-30 10:17:48.193 STDERR [INFO] I0730 10:17:48.109277 24894 net.cpp:148] Top shape: 10 1000 (10000)
2016-07-30 10:17:48.193 STDERR [INFO] I0730 10:17:48.109282 24894 net.cpp:156] Memory required for data: 68641400
2016-07-30 10:17:48.194 STDERR [INFO] I0730 10:17:48.109293 24894 layer_factory.hpp:77] Creating layer prob
2016-07-30 10:17:48.194 STDERR [INFO] I0730 10:17:48.109313 24894 net.cpp:91] Creating Layer prob
2016-07-30 10:17:48.194 STDERR [INFO] I0730 10:17:48.109318 24894 net.cpp:425] prob <- fc8
2016-07-30 10:17:48.194 STDERR [INFO] I0730 10:17:48.109328 24894 net.cpp:399] prob -> prob
2016-07-30 10:17:48.194 STDERR [INFO] I0730 10:17:48.109707 24894 net.cpp:141] Setting up prob
2016-07-30 10:17:48.194 STDERR [INFO] I0730 10:17:48.109720 24894 net.cpp:148] Top shape: 10 1000 (10000)
2016-07-30 10:17:48.194 STDERR [INFO] I0730 10:17:48.109724 24894 net.cpp:156] Memory required for data: 68681400
2016-07-30 10:17:48.194 STDERR [INFO] I0730 10:17:48.109730 24894 net.cpp:219] prob does not need backward computation.
2016-07-30 10:17:48.194 STDERR [INFO] I0730 10:17:48.109733 24894 net.cpp:219] fc8 does not need backward computation.
2016-07-30 10:17:48.194 STDERR [INFO] I0730 10:17:48.109737 24894 net.cpp:219] drop7 does not need backward computation.
…
2016-07-30 10:17:48.196 STDERR [INFO] I0730 10:17:48.109812 24894 net.cpp:219] conv1 does not need backward computation.
2016-07-30 10:17:48.196 STDERR [INFO] I0730 10:17:48.109817 24894 net.cpp:219] data does not need backward computation.
2016-07-30 10:17:48.196 STDERR [INFO] I0730 10:17:48.109819 24894 net.cpp:261] This network produces output prob
2016-07-30 10:17:48.196 STDERR [INFO] I0730 10:17:48.109838 24894 net.cpp:274] Network initialization done.
2016-07-30 10:17:48.196 STDERR [INFO] I0730 10:17:48.117303 24881 net.cpp:141] Setting up lstm2_transform_1
2016-07-30 10:17:48.196 STDERR [INFO] I0730 10:17:48.117321 24881 net.cpp:148] Top shape: 1 1 4000 (4000)
2016-07-30 10:17:48.196 STDERR [INFO] I0730 10:17:48.117324 24881 net.cpp:156] Memory required for data: 66020
2016-07-30 10:17:48.197 STDERR [INFO] I0730 10:17:48.117336 24881 layer_factory.hpp:77] Creating layer lstm2_gate_input_1
2016-07-30 10:17:48.197 STDERR [INFO] I0730 10:17:48.117348 24881 net.cpp:91] Creating Layer lstm2_gate_input_1
2016-07-30 10:17:48.197 STDERR [INFO] I0730 10:17:48.117354 24881 net.cpp:425] lstm2_gate_input_1 <- W_hc_h_0
2016-07-30 10:17:48.197 STDERR [INFO] I0730 10:17:48.117359 24881 net.cpp:425] lstm2_gate_input_1 <- W_xc_x_1
2016-07-30 10:17:48.197 STDERR [INFO] I0730 10:17:48.117365 24881 net.cpp:399] lstm2_gate_input_1 -> gate_input_1
2016-07-30 10:17:48.197 STDERR [INFO] I0730 10:17:48.117406 24881 net.cpp:141] Setting up lstm2_gate_input_1
2016-07-30 10:17:48.197 STDERR [INFO] I0730 10:17:48.117413 24881 net.cpp:148] Top shape: 1 1 4000 (4000)
2016-07-30 10:17:48.197 STDERR [INFO] I0730 10:17:48.117418 24881 net.cpp:156] Memory required for data: 82020
2016-07-30 10:17:48.197 STDERR [INFO] I0730 10:17:48.117421 24881 layer_factory.hpp:77] Creating layer lstm2_unit_1
2016-07-30 10:17:48.197 STDERR [INFO] I0730 10:17:48.117431 24881 net.cpp:91] Creating Layer lstm2_unit_1
2016-07-30 10:17:48.198 STDERR [INFO] I0730 10:17:48.117435 24881 net.cpp:425] lstm2_unit_1 <- c_0
2016-07-30 10:17:48.198 STDERR [INFO] I0730 10:17:48.117440 24881 net.cpp:425] lstm2_unit_1 <- gate_input_1
2016-07-30 10:17:48.198 STDERR [INFO] I0730 10:17:48.117444 24881 net.cpp:425] lstm2_unit_1 <- cont_1_lstm2_cont_slice_0_split_1
2016-07-30 10:17:48.198 STDERR [INFO] I0730 10:17:48.117450 24881 net.cpp:399] lstm2_unit_1 -> c_1
2016-07-30 10:17:48.198 STDERR [INFO] I0730 10:17:48.117458 24881 net.cpp:399] lstm2_unit_1 -> h_1
2016-07-30 10:17:48.198 STDERR [INFO] I0730 10:17:48.117514 24881 net.cpp:141] Setting up lstm2_unit_1
2016-07-30 10:17:48.198 STDERR [INFO] I0730 10:17:48.117522 24881 net.cpp:148] Top shape: 1 1 1000 (1000)
2016-07-30 10:17:48.198 STDERR [INFO] I0730 10:17:48.117527 24881 net.cpp:148] Top shape: 1 1 1000 (1000)
2016-07-30 10:17:48.198 STDERR [INFO] I0730 10:17:48.117530 24881 net.cpp:156] Memory required for data: 90020
2016-07-30 10:17:48.198 STDERR [INFO] I0730 10:17:48.117534 24881 layer_factory.hpp:77] Creating layer lstm2_
2016-07-30 10:17:48.198 STDERR [INFO] I0730 10:17:48.117542 24881 net.cpp:91] Creating Layer lstm2_
2016-07-30 10:17:48.198 STDERR [INFO] I0730 10:17:48.117545 24881 net.cpp:425] lstm2_ <- c_1
2016-07-30 10:17:48.199 STDERR [INFO] I0730 10:17:48.117552 24881 net.cpp:399] lstm2_ -> c_T
2016-07-30 10:17:48.199 STDERR [INFO] I0730 10:17:48.117578 24881 net.cpp:141] Setting up lstm2_
2016-07-30 10:17:48.199 STDERR [INFO] I0730 10:17:48.117585 24881 net.cpp:148] Top shape: 1 1 1000 (1000)
2016-07-30 10:17:48.199 STDERR [INFO] I0730 10:17:48.117589 24881 net.cpp:156] Memory required for data: 94020
2016-07-30 10:17:48.199 STDERR [INFO] I0730 10:17:48.117593 24881 layer_factory.hpp:77] Creating layer lstm2_h_concat
2016-07-30 10:17:48.199 STDERR [INFO] I0730 10:17:48.117604 24881 net.cpp:91] Creating Layer lstm2_h_concat
2016-07-30 10:17:48.199 STDERR [INFO] I0730 10:17:48.117607 24881 net.cpp:425] lstm2_h_concat <- h_1
2016-07-30 10:17:48.199 STDERR [INFO] I0730 10:17:48.117614 24881 net.cpp:399] lstm2_h_concat -> h
2016-07-30 10:17:48.199 STDERR [INFO] I0730 10:17:48.117646 24881 net.cpp:141] Setting up lstm2_h_concat
2016-07-30 10:17:48.199 STDERR [INFO] I0730 10:17:48.117653 24881 net.cpp:148] Top shape: 1 1 1000 (1000)
2016-07-30 10:17:48.199 STDERR [INFO] I0730 10:17:48.117656 24881 net.cpp:156] Memory required for data: 98020
2016-07-30 10:17:48.199 STDERR [INFO] I0730 10:17:48.117660 24881 layer_factory.hpp:77] Creating layer h_pseudoloss
2016-07-30 10:17:48.200 STDERR [INFO] I0730 10:17:48.117667 24881 net.cpp:91] Creating Layer h_pseudoloss
2016-07-30 10:17:48.200 STDERR [INFO] I0730 10:17:48.117671 24881 net.cpp:425] h_pseudoloss <- h
…
