…
Java HotSpot(TM) 64-Bit Server VM warning: You have loaded library /tmp/cvld8392351560878055549/libopencv_java310.xine1.so which might have disabled stack guard. The VM will try to fix the stack guard now.
It's highly recommended that you fix the library with 'execstack -c <libfile>', or link it with '-z noexecstack'.
WARNING: Logging before InitGoogleLogging() is written to STDERR
I0802 07:44:47.157197 20416 net.cpp:49] Initializing net from parameters: 
name: "CaffeNet"
state {
  phase: TEST
}
layer {
  name: "data"
  type: "Input"
  top: "data"
  input_param {
    shape {
      dim: 10
      dim: 3
      dim: 227
      dim: 227
    }
  }
}
layer {
  name: "conv1"
  type: "Convolution"
  bottom: "data"
  top: "conv1"
  convolution_param {
    num_output: 96
    kernel_size: 11
    stride: 4
  }
}
layer {
  name: "relu1"
  type: "ReLU"
  bottom: "conv1"
  top: "conv1"
}
layer {
  name: "pool1"
  type: "Pooling"
  bottom: "conv1"
  top: "pool1"
  pooling_param {
    pool: MAX
    kernel_size: 3
    stride: 2
  }
}
layer {
  name: "norm1"
  type: "LRN"
  bottom: "pool1"
  top: "norm1"
  lrn_param {
    local_size: 5
    alpha: 0.0001
    beta: 0.75
  }
}
layer {
  name: "conv2"
  type: "Convolution"
  bottom: "norm1"
  top: "conv2"
  convolution_param {
    num_output: 256
    pad: 2
    kernel_size: 5
    group: 2
  }
}
layer {
  name: "relu2"
  type: "ReLU"
  bottom: "conv2"
  top: "conv2"
}
layer {
  name: "pool2"
  type: "Pooling"
  bottom: "conv2"
  top: "pool2"
  pooling_param {
    pool: MAX
    kernel_size: 3
    stride: 2
  }
}
layer {
  name: "norm2"
  type: "LRN"
  bottom: "pool2"
  top: "norm2"
  lrn_param {
    local_size: 5
    alpha: 0.0001
    beta: 0.75
  }
}
layer {
  name: "conv3"
  type: "Convolution"
  bottom: "norm2"
  top: "conv3"
  convolution_param {
    num_output: 384
    pad: 1
    kernel_size: 3
  }
}
layer {
  name: "relu3"
  type: "ReLU"
  bottom: "conv3"
  top: "conv3"
}
layer {
  name: "conv4"
  type: "Convolution"
  bottom: "conv3"
  top: "conv4"
  convolution_param {
    num_output: 384
    pad: 1
    kernel_size: 3
    group: 2
  }
}
layer {
  name: "relu4"
  type: "ReLU"
  bottom: "conv4"
  top: "conv4"
}
layer {
  name: "conv5"
  type: "Convolution"
  bottom: "conv4"
  top: "conv5"
  convolution_param {
    num_output: 256
    pad: 1
    kernel_size: 3
    group: 2
  }
}
layer {
  name: "relu5"
  type: "ReLU"
  bottom: "conv5"
  top: "conv5"
}
layer {
  name: "pool5"
  type: "Pooling"
  bottom: "conv5"
  top: "pool5"
  pooling_param {
    pool: MAX
    kernel_size: 3
    stride: 2
  }
}
layer {
  name: "fc6"
  type: "InnerProduct"
  bottom: "pool5"
  top: "fc6"
  inner_product_param {
    num_output: 4096
  }
}
layer {
  name: "relu6"
  type: "ReLU"
  bottom: "fc6"
  top: "fc6"
}
layer {
  name: "drop6"
  type: "Dropout"
  bottom: "fc6"
  top: "fc6"
  dropout_param {
    dropout_ratio: 0.5
  }
}
layer {
  name: "fc7"
  type: "InnerProduct"
  bottom: "fc6"
  top: "fc7"
  inner_product_param {
    num_output: 4096
  }
}
layer {
  name: "relu7"
  type: "ReLU"
  bottom: "fc7"
  top: "fc7"
}
layer {
  name: "drop7"
  type: "Dropout"
  bottom: "fc7"
  top: "fc7"
  dropout_param {
    dropout_ratio: 0.5
  }
}
layer {
  name: "fc8"
  type: "InnerProduct"
  bottom: "fc7"
  top: "fc8"
  inner_product_param {
    num_output: 1000
  }
}
layer {
  name: "prob"
  type: "Softmax"
  bottom: "fc8"
  top: "prob"
}
I0802 07:44:47.157402 20416 layer_factory.hpp:77] Creating layer data
I0802 07:44:47.157428 20416 net.cpp:91] Creating Layer data
I0802 07:44:47.157438 20416 net.cpp:399] data -> data
I0802 07:44:47.612488 20416 net.cpp:141] Setting up data
I0802 07:44:47.612627 20416 net.cpp:148] Top shape: 10 3 227 227 (1545870)
I0802 07:44:47.612640 20416 net.cpp:156] Memory required for data: 6183480
I0802 07:44:47.612678 20416 layer_factory.hpp:77] Creating layer conv1
I0802 07:44:47.612722 20416 net.cpp:91] Creating Layer conv1
I0802 07:44:47.612740 20416 net.cpp:425] conv1 <- data
I0802 07:44:47.612762 20416 net.cpp:399] conv1 -> conv1
I0802 07:44:47.719702 20406 upgrade_proto.cpp:66] Attempting to upgrade input file specified using deprecated input fields: /tmp/cvld8392351560878055549/s2vt.words_to_preds.prototxt
I0802 07:44:47.719756 20406 upgrade_proto.cpp:69] Successfully upgraded file specified using deprecated input fields.
W0802 07:44:47.719765 20406 upgrade_proto.cpp:71] Note that future Caffe releases will only support input layers and not input fields.
I0802 07:44:47.720065 20406 net.cpp:49] Initializing net from parameters: 
name: "s2vt:features_to_lstm"
state {
  phase: TEST
}
layer {
  name: "input"
  type: "Input"
  top: "frames_fc7"
  top: "cont_sentence"
  top: "input_sentence"
  top: "stage_indicator"
  input_param {
    shape {
      dim: 1
      dim: 4096
    }
    shape {
      dim: 1
      dim: 1
    }
    shape {
      dim: 1
      dim: 1
    }
    shape {
      dim: 1
      dim: 1
    }
  }
}
layer {
  name: "embed_encoder"
  type: "InnerProduct"
  bottom: "frames_fc7"
  top: "embedded_in_frames"
  param {
    lr_mult: 1
    decay_mult: 1
  }
  param {
    lr_mult: 2
    decay_mult: 0
  }
  inner_product_param {
    num_output: 500
    weight_filler {
      type: "xavier"
    }
    bias_filler {
      type: "constant"
      value: 0.2
    }
  }
}
layer {
  name: "reshape_frames"
  type: "Reshape"
  bottom: "embedded_in_frames"
  top: "embedded_input_frames"
  reshape_param {
    shape {
      dim: 1
      dim: 1
      dim: 500
    }
  }
}
layer {
  name: "reshape_stage_indicator"
  type: "Reshape"
  bottom: "stage_indicator"
  top: "reshaped_stage_indicator"
  reshape_param {
    shape {
      dim: 1
      dim: 1
      dim: 1
    }
  }
}
layer {
  name: "embedding"
  type: "Embed"
  bottom: "input_sentence"
  top: "embedded_input_sentence"
  param {
    lr_mult: 1
  }
  embed_param {
    num_output: 500
    input_dim: 46168
    bias_term: false
    weight_filler {
      type: "uniform"
      min: -0.08
      max: 0.08
    }
  }
}
layer {
  name: "lstm1"
  type: "LSTM"
  bottom: "embedded_input_frames"
  bottom: "cont_sentence"
  top: "lstm1"
  recurrent_param {
    num_output: 1000
    weight_filler {
      type: "uniform"
      min: -0.08
      max: 0.08
    }
    bias_filler {
      type: "constant"
      value: 0
    }
  }
}
layer {
  name: "concat"
  type: "Concat"
  bottom: "lstm1"
  bottom: "embedded_input_sentence"
  bottom: "reshaped_stage_indicator"
  top: "lstm1_video_sequence"
  concat_param {
    concat_dim: 2
  }
}
layer {
  name: "lstm2"
  type: "LSTM"
  bottom: "lstm1_video_sequence"
  bottom: "cont_sentence"
  top: "lstm2"
  recurrent_param {
    num_output: 1000
    weight_filler {
      type: "uniform"
      min: -0.08
      max: 0.08
    }
    bias_filler {
      type: "constant"
      value: 0
    }
  }
}
layer {
  name: "predict"
  type: "InnerProduct"
  bottom: "lstm2"
  top: "predict"
  param {
    lr_mult: 1
    decay_mult: 1
  }
  param {
    lr_mult: 2
    decay_mult: 0
  }
  inner_product_param {
    num_output: 46168
    weight_filler {
      type: "uniform"
      min: -0.08
      max: 0.08
    }
    bias_filler {
      type: "constant"
      value: 0
    }
    axis: 2
  }
}
layer {
  name: "probs"
  type: "Softmax"
  bottom: "predict"
  top: "probs"
  softmax_param {
    axis: 2
  }
}
I0802 07:44:47.720170 20406 layer_factory.hpp:77] Creating layer input
I0802 07:44:47.720188 20406 net.cpp:91] Creating Layer input
I0802 07:44:47.720196 20406 net.cpp:399] input -> frames_fc7
I0802 07:44:47.720214 20406 net.cpp:399] input -> cont_sentence
I0802 07:44:47.720224 20406 net.cpp:399] input -> input_sentence
I0802 07:44:47.720234 20406 net.cpp:399] input -> stage_indicator
I0802 07:44:47.725092 20406 net.cpp:141] Setting up input
I0802 07:44:47.725111 20406 net.cpp:148] Top shape: 1 4096 (4096)
I0802 07:44:47.725119 20406 net.cpp:148] Top shape: 1 1 (1)
I0802 07:44:47.725126 20406 net.cpp:148] Top shape: 1 1 (1)
I0802 07:44:47.725131 20406 net.cpp:148] Top shape: 1 1 (1)
I0802 07:44:47.725136 20406 net.cpp:156] Memory required for data: 16396
I0802 07:44:47.725141 20406 layer_factory.hpp:77] Creating layer cont_sentence_input_1_split
I0802 07:44:47.725162 20406 net.cpp:91] Creating Layer cont_sentence_input_1_split
I0802 07:44:47.725167 20406 net.cpp:425] cont_sentence_input_1_split <- cont_sentence
I0802 07:44:47.725188 20406 net.cpp:399] cont_sentence_input_1_split -> cont_sentence_input_1_split_0
I0802 07:44:47.725199 20406 net.cpp:399] cont_sentence_input_1_split -> cont_sentence_input_1_split_1
I0802 07:44:47.727180 20406 net.cpp:141] Setting up cont_sentence_input_1_split
I0802 07:44:47.727192 20406 net.cpp:148] Top shape: 1 1 (1)
I0802 07:44:47.727198 20406 net.cpp:148] Top shape: 1 1 (1)
I0802 07:44:47.727203 20406 net.cpp:156] Memory required for data: 16404
I0802 07:44:47.727208 20406 layer_factory.hpp:77] Creating layer embed_encoder
I0802 07:44:47.727226 20406 net.cpp:91] Creating Layer embed_encoder
I0802 07:44:47.727232 20406 net.cpp:425] embed_encoder <- frames_fc7
I0802 07:44:47.727241 20406 net.cpp:399] embed_encoder -> embedded_in_frames
I0802 07:44:47.751699 20406 net.cpp:141] Setting up embed_encoder
I0802 07:44:47.751740 20406 net.cpp:148] Top shape: 1 500 (500)
I0802 07:44:47.751746 20406 net.cpp:156] Memory required for data: 18404
I0802 07:44:47.751773 20406 layer_factory.hpp:77] Creating layer reshape_frames
I0802 07:44:47.751812 20406 net.cpp:91] Creating Layer reshape_frames
I0802 07:44:47.751819 20406 net.cpp:425] reshape_frames <- embedded_in_frames
I0802 07:44:47.751832 20406 net.cpp:399] reshape_frames -> embedded_input_frames
I0802 07:44:47.761941 20406 net.cpp:141] Setting up reshape_frames
I0802 07:44:47.761973 20406 net.cpp:148] Top shape: 1 1 500 (500)
I0802 07:44:47.761979 20406 net.cpp:156] Memory required for data: 20404
I0802 07:44:47.761984 20406 layer_factory.hpp:77] Creating layer reshape_stage_indicator
I0802 07:44:47.761998 20406 net.cpp:91] Creating Layer reshape_stage_indicator
I0802 07:44:47.762004 20406 net.cpp:425] reshape_stage_indicator <- stage_indicator
I0802 07:44:47.762013 20406 net.cpp:399] reshape_stage_indicator -> reshaped_stage_indicator
I0802 07:44:47.763908 20406 net.cpp:141] Setting up reshape_stage_indicator
I0802 07:44:47.763942 20406 net.cpp:148] Top shape: 1 1 1 (1)
I0802 07:44:47.763947 20406 net.cpp:156] Memory required for data: 20408
I0802 07:44:47.763952 20406 layer_factory.hpp:77] Creating layer embedding
I0802 07:44:47.763970 20406 net.cpp:91] Creating Layer embedding
I0802 07:44:47.763977 20406 net.cpp:425] embedding <- input_sentence
I0802 07:44:47.763985 20406 net.cpp:399] embedding -> embedded_input_sentence
I0802 07:44:47.851966 20416 net.cpp:141] Setting up conv1
I0802 07:44:47.852030 20416 net.cpp:148] Top shape: 10 96 55 55 (2904000)
I0802 07:44:47.852036 20416 net.cpp:156] Memory required for data: 17799480
I0802 07:44:47.852071 20416 layer_factory.hpp:77] Creating layer relu1
I0802 07:44:47.852087 20416 net.cpp:91] Creating Layer relu1
I0802 07:44:47.852092 20416 net.cpp:425] relu1 <- conv1
I0802 07:44:47.852100 20416 net.cpp:386] relu1 -> conv1 (in-place)
I0802 07:44:47.852538 20416 net.cpp:141] Setting up relu1
I0802 07:44:47.852551 20416 net.cpp:148] Top shape: 10 96 55 55 (2904000)
I0802 07:44:47.852556 20416 net.cpp:156] Memory required for data: 29415480
I0802 07:44:47.852561 20416 layer_factory.hpp:77] Creating layer pool1
I0802 07:44:47.852573 20416 net.cpp:91] Creating Layer pool1
I0802 07:44:47.852578 20416 net.cpp:425] pool1 <- conv1
I0802 07:44:47.852586 20416 net.cpp:399] pool1 -> pool1
I0802 07:44:47.852646 20416 net.cpp:141] Setting up pool1
I0802 07:44:47.852656 20416 net.cpp:148] Top shape: 10 96 27 27 (699840)
I0802 07:44:47.852660 20416 net.cpp:156] Memory required for data: 32214840
I0802 07:44:47.852665 20416 layer_factory.hpp:77] Creating layer norm1
I0802 07:44:47.852680 20416 net.cpp:91] Creating Layer norm1
I0802 07:44:47.852685 20416 net.cpp:425] norm1 <- pool1
I0802 07:44:47.852692 20416 net.cpp:399] norm1 -> norm1
I0802 07:44:47.853142 20416 net.cpp:141] Setting up norm1
I0802 07:44:47.853154 20416 net.cpp:148] Top shape: 10 96 27 27 (699840)
I0802 07:44:47.853159 20416 net.cpp:156] Memory required for data: 35014200
I0802 07:44:47.853164 20416 layer_factory.hpp:77] Creating layer conv2
I0802 07:44:47.853178 20416 net.cpp:91] Creating Layer conv2
I0802 07:44:47.853183 20416 net.cpp:425] conv2 <- norm1
I0802 07:44:47.853188 20416 net.cpp:399] conv2 -> conv2
I0802 07:44:47.856196 20416 net.cpp:141] Setting up conv2
I0802 07:44:47.856215 20416 net.cpp:148] Top shape: 10 256 27 27 (1866240)
I0802 07:44:47.856220 20416 net.cpp:156] Memory required for data: 42479160
I0802 07:44:47.856231 20416 layer_factory.hpp:77] Creating layer relu2
I0802 07:44:47.856240 20416 net.cpp:91] Creating Layer relu2
I0802 07:44:47.856245 20416 net.cpp:425] relu2 <- conv2
I0802 07:44:47.856252 20416 net.cpp:386] relu2 -> conv2 (in-place)
I0802 07:44:47.856662 20416 net.cpp:141] Setting up relu2
I0802 07:44:47.856674 20416 net.cpp:148] Top shape: 10 256 27 27 (1866240)
I0802 07:44:47.856679 20416 net.cpp:156] Memory required for data: 49944120
I0802 07:44:47.856684 20416 layer_factory.hpp:77] Creating layer pool2
I0802 07:44:47.856691 20416 net.cpp:91] Creating Layer pool2
I0802 07:44:47.856696 20416 net.cpp:425] pool2 <- conv2
I0802 07:44:47.856703 20416 net.cpp:399] pool2 -> pool2
I0802 07:44:47.856763 20416 net.cpp:141] Setting up pool2
I0802 07:44:47.856772 20416 net.cpp:148] Top shape: 10 256 13 13 (432640)
I0802 07:44:47.856776 20416 net.cpp:156] Memory required for data: 51674680
I0802 07:44:47.856781 20416 layer_factory.hpp:77] Creating layer norm2
I0802 07:44:47.856791 20416 net.cpp:91] Creating Layer norm2
I0802 07:44:47.856796 20416 net.cpp:425] norm2 <- pool2
I0802 07:44:47.856801 20416 net.cpp:399] norm2 -> norm2
I0802 07:44:47.857026 20416 net.cpp:141] Setting up norm2
I0802 07:44:47.857038 20416 net.cpp:148] Top shape: 10 256 13 13 (432640)
I0802 07:44:47.857043 20416 net.cpp:156] Memory required for data: 53405240
I0802 07:44:47.857048 20416 layer_factory.hpp:77] Creating layer conv3
I0802 07:44:47.857058 20416 net.cpp:91] Creating Layer conv3
I0802 07:44:47.857075 20416 net.cpp:425] conv3 <- norm2
I0802 07:44:47.857082 20416 net.cpp:399] conv3 -> conv3
I0802 07:44:47.860646 20416 net.cpp:141] Setting up conv3
I0802 07:44:47.860676 20416 net.cpp:148] Top shape: 10 384 13 13 (648960)
I0802 07:44:47.860680 20416 net.cpp:156] Memory required for data: 56001080
I0802 07:44:47.860695 20416 layer_factory.hpp:77] Creating layer relu3
I0802 07:44:47.860704 20416 net.cpp:91] Creating Layer relu3
I0802 07:44:47.860708 20416 net.cpp:425] relu3 <- conv3
I0802 07:44:47.860715 20416 net.cpp:386] relu3 -> conv3 (in-place)
I0802 07:44:47.861151 20416 net.cpp:141] Setting up relu3
I0802 07:44:47.861166 20416 net.cpp:148] Top shape: 10 384 13 13 (648960)
I0802 07:44:47.861171 20416 net.cpp:156] Memory required for data: 58596920
I0802 07:44:47.861176 20416 layer_factory.hpp:77] Creating layer conv4
I0802 07:44:47.861186 20416 net.cpp:91] Creating Layer conv4
I0802 07:44:47.861189 20416 net.cpp:425] conv4 <- conv3
I0802 07:44:47.861201 20416 net.cpp:399] conv4 -> conv4
I0802 07:44:47.865224 20416 net.cpp:141] Setting up conv4
I0802 07:44:47.865258 20416 net.cpp:148] Top shape: 10 384 13 13 (648960)
I0802 07:44:47.865264 20416 net.cpp:156] Memory required for data: 61192760
I0802 07:44:47.865273 20416 layer_factory.hpp:77] Creating layer relu4
I0802 07:44:47.865286 20416 net.cpp:91] Creating Layer relu4
I0802 07:44:47.865291 20416 net.cpp:425] relu4 <- conv4
I0802 07:44:47.865300 20416 net.cpp:386] relu4 -> conv4 (in-place)
I0802 07:44:47.865732 20416 net.cpp:141] Setting up relu4
I0802 07:44:47.865744 20416 net.cpp:148] Top shape: 10 384 13 13 (648960)
I0802 07:44:47.865748 20416 net.cpp:156] Memory required for data: 63788600
I0802 07:44:47.865753 20416 layer_factory.hpp:77] Creating layer conv5
I0802 07:44:47.865767 20416 net.cpp:91] Creating Layer conv5
I0802 07:44:47.865772 20416 net.cpp:425] conv5 <- conv4
I0802 07:44:47.865778 20416 net.cpp:399] conv5 -> conv5
I0802 07:44:47.869644 20416 net.cpp:141] Setting up conv5
I0802 07:44:47.869675 20416 net.cpp:148] Top shape: 10 256 13 13 (432640)
I0802 07:44:47.869680 20416 net.cpp:156] Memory required for data: 65519160
I0802 07:44:47.869698 20416 layer_factory.hpp:77] Creating layer relu5
I0802 07:44:47.869706 20416 net.cpp:91] Creating Layer relu5
I0802 07:44:47.869710 20416 net.cpp:425] relu5 <- conv5
I0802 07:44:47.869719 20416 net.cpp:386] relu5 -> conv5 (in-place)
I0802 07:44:47.870162 20416 net.cpp:141] Setting up relu5
I0802 07:44:47.870174 20416 net.cpp:148] Top shape: 10 256 13 13 (432640)
I0802 07:44:47.870178 20416 net.cpp:156] Memory required for data: 67249720
I0802 07:44:47.870193 20416 layer_factory.hpp:77] Creating layer pool5
I0802 07:44:47.870201 20416 net.cpp:91] Creating Layer pool5
I0802 07:44:47.870205 20416 net.cpp:425] pool5 <- conv5
I0802 07:44:47.870214 20416 net.cpp:399] pool5 -> pool5
I0802 07:44:47.870273 20416 net.cpp:141] Setting up pool5
I0802 07:44:47.870282 20416 net.cpp:148] Top shape: 10 256 6 6 (92160)
I0802 07:44:47.870286 20416 net.cpp:156] Memory required for data: 67618360
I0802 07:44:47.870291 20416 layer_factory.hpp:77] Creating layer fc6
I0802 07:44:47.870302 20416 net.cpp:91] Creating Layer fc6
I0802 07:44:47.870307 20416 net.cpp:425] fc6 <- pool5
I0802 07:44:47.870318 20416 net.cpp:399] fc6 -> fc6
I0802 07:44:47.968740 20416 net.cpp:141] Setting up fc6
I0802 07:44:47.968801 20416 net.cpp:148] Top shape: 10 4096 (40960)
I0802 07:44:47.968807 20416 net.cpp:156] Memory required for data: 67782200
I0802 07:44:47.968822 20416 layer_factory.hpp:77] Creating layer relu6
I0802 07:44:47.968839 20416 net.cpp:91] Creating Layer relu6
I0802 07:44:47.968845 20416 net.cpp:425] relu6 <- fc6
I0802 07:44:47.968853 20416 net.cpp:386] relu6 -> fc6 (in-place)
I0802 07:44:47.969166 20416 net.cpp:141] Setting up relu6
I0802 07:44:47.969177 20416 net.cpp:148] Top shape: 10 4096 (40960)
I0802 07:44:47.969182 20416 net.cpp:156] Memory required for data: 67946040
I0802 07:44:47.969187 20416 layer_factory.hpp:77] Creating layer drop6
I0802 07:44:47.969207 20416 net.cpp:91] Creating Layer drop6
I0802 07:44:47.969211 20416 net.cpp:425] drop6 <- fc6
I0802 07:44:47.969220 20416 net.cpp:386] drop6 -> fc6 (in-place)
I0802 07:44:47.969266 20416 net.cpp:141] Setting up drop6
I0802 07:44:47.969274 20416 net.cpp:148] Top shape: 10 4096 (40960)
I0802 07:44:47.969279 20416 net.cpp:156] Memory required for data: 68109880
I0802 07:44:47.969282 20416 layer_factory.hpp:77] Creating layer fc7
I0802 07:44:47.969297 20416 net.cpp:91] Creating Layer fc7
I0802 07:44:47.969302 20416 net.cpp:425] fc7 <- fc6
I0802 07:44:47.969308 20416 net.cpp:399] fc7 -> fc7
I0802 07:44:47.997225 20406 net.cpp:141] Setting up embedding
I0802 07:44:47.997290 20406 net.cpp:148] Top shape: 1 1 500 (500)
I0802 07:44:47.997297 20406 net.cpp:156] Memory required for data: 22408
I0802 07:44:47.997316 20406 layer_factory.hpp:77] Creating layer lstm1
I0802 07:44:47.997339 20406 net.cpp:91] Creating Layer lstm1
I0802 07:44:47.997345 20406 net.cpp:425] lstm1 <- embedded_input_frames
I0802 07:44:47.997354 20406 net.cpp:425] lstm1 <- cont_sentence_input_1_split_0
I0802 07:44:47.997450 20406 net.cpp:399] lstm1 -> lstm1
I0802 07:44:47.997534 20406 recurrent_layer.cpp:20] Initializing recurrent layer: assuming input batch contains 1 timesteps of 1 independent streams.
I0802 07:44:47.997954 20406 net.cpp:49] Initializing net from parameters: 
layer {
  name: "lstm1_"
  type: "Input"
  top: "x"
  top: "cont"
  input_param {
    shape {
      dim: 1
      dim: 1
      dim: 500
    }
    shape {
      dim: 1
      dim: 1
    }
  }
}
layer {
  name: "lstm1_"
  type: "Input"
  top: "c_0"
  top: "h_0"
  input_param {
    shape {
      dim: 1
      dim: 1
      dim: 1000
    }
    shape {
      dim: 1
      dim: 1
      dim: 1000
    }
  }
}
layer {
  name: "lstm1_cont_slice"
  type: "Slice"
  bottom: "cont"
  top: "cont_1"
  slice_param {
    axis: 0
  }
}
layer {
  name: "lstm1_x_transform"
  type: "InnerProduct"
  bottom: "x"
  top: "W_xc_x"
  param {
    name: "W_xc"
  }
  param {
    name: "b_c"
  }
  propagate_down: true
  inner_product_param {
    num_output: 4000
    bias_term: true
    weight_filler {
      type: "uniform"
      min: -0.08
      max: 0.08
    }
    bias_filler {
      type: "constant"
      value: 0
    }
    axis: 2
  }
}
layer {
  name: "lstm1_W_xc_x_slice"
  type: "Slice"
  bottom: "W_xc_x"
  top: "W_xc_x_1"
  slice_param {
    axis: 0
  }
}
layer {
  name: "lstm1_h_conted_0"
  type: "Scale"
  bottom: "h_0"
  bottom: "cont_1"
  top: "h_conted_0"
  scale_param {
    axis: 0
  }
}
layer {
  name: "lstm1_transform_1"
  type: "InnerProduct"
  bottom: "h_conted_0"
  top: "W_hc_h_0"
  param {
    name: "W_hc"
  }
  inner_product_param {
    num_output: 4000
    bias_term: false
    weight_filler {
      type: "uniform"
      min: -0.08
      max: 0.08
    }
    axis: 2
  }
}
layer {
  name: "lstm1_gate_input_1"
  type: "Eltwise"
  bottom: "W_hc_h_0"
  bottom: "W_xc_x_1"
  top: "gate_input_1"
  eltwise_param {
    operation: SUM
  }
}
layer {
  name: "lstm1_unit_1"
  type: "LSTMUnit"
  bottom: "c_0"
  bottom: "gate_input_1"
  bottom: "cont_1"
  top: "c_1"
  top: "h_1"
}
layer {
  name: "lstm1_"
  type: "Split"
  bottom: "c_1"
  top: "c_T"
}
layer {
  name: "lstm1_h_concat"
  type: "Concat"
  bottom: "h_1"
  top: "h"
  concat_param {
    axis: 0
  }
}
layer {
  name: "h_pseudoloss"
  type: "Reduction"
  bottom: "h"
  top: "h_pseudoloss"
  loss_weight: 1
}
I0802 07:44:47.998051 20406 layer_factory.hpp:77] Creating layer lstm1_
I0802 07:44:47.998064 20406 net.cpp:91] Creating Layer lstm1_
I0802 07:44:47.998070 20406 net.cpp:399] lstm1_ -> x
I0802 07:44:47.998083 20406 net.cpp:399] lstm1_ -> cont
I0802 07:44:47.998219 20406 net.cpp:141] Setting up lstm1_
I0802 07:44:47.998230 20406 net.cpp:148] Top shape: 1 1 500 (500)
I0802 07:44:47.998236 20406 net.cpp:148] Top shape: 1 1 (1)
I0802 07:44:47.998240 20406 net.cpp:156] Memory required for data: 2004
I0802 07:44:47.998245 20406 layer_factory.hpp:77] Creating layer lstm1_
I0802 07:44:47.998253 20406 net.cpp:91] Creating Layer lstm1_
I0802 07:44:47.998261 20406 net.cpp:399] lstm1_ -> c_0
I0802 07:44:47.998270 20406 net.cpp:399] lstm1_ -> h_0
I0802 07:44:47.998322 20406 net.cpp:141] Setting up lstm1_
I0802 07:44:47.998330 20406 net.cpp:148] Top shape: 1 1 1000 (1000)
I0802 07:44:47.998337 20406 net.cpp:148] Top shape: 1 1 1000 (1000)
I0802 07:44:47.998340 20406 net.cpp:156] Memory required for data: 10004
I0802 07:44:47.998344 20406 layer_factory.hpp:77] Creating layer lstm1_cont_slice
I0802 07:44:47.998353 20406 net.cpp:91] Creating Layer lstm1_cont_slice
I0802 07:44:47.998358 20406 net.cpp:425] lstm1_cont_slice <- cont
I0802 07:44:47.998364 20406 net.cpp:399] lstm1_cont_slice -> cont_1
I0802 07:44:47.998399 20406 net.cpp:141] Setting up lstm1_cont_slice
I0802 07:44:47.998407 20406 net.cpp:148] Top shape: 1 1 (1)
I0802 07:44:47.998412 20406 net.cpp:156] Memory required for data: 10008
I0802 07:44:47.998416 20406 layer_factory.hpp:77] Creating layer cont_1_lstm1_cont_slice_0_split
I0802 07:44:47.998426 20406 net.cpp:91] Creating Layer cont_1_lstm1_cont_slice_0_split
I0802 07:44:47.998430 20406 net.cpp:425] cont_1_lstm1_cont_slice_0_split <- cont_1
I0802 07:44:47.998437 20406 net.cpp:399] cont_1_lstm1_cont_slice_0_split -> cont_1_lstm1_cont_slice_0_split_0
I0802 07:44:47.998445 20406 net.cpp:399] cont_1_lstm1_cont_slice_0_split -> cont_1_lstm1_cont_slice_0_split_1
I0802 07:44:47.998488 20406 net.cpp:141] Setting up cont_1_lstm1_cont_slice_0_split
I0802 07:44:47.998497 20406 net.cpp:148] Top shape: 1 1 (1)
I0802 07:44:47.998502 20406 net.cpp:148] Top shape: 1 1 (1)
I0802 07:44:47.998505 20406 net.cpp:156] Memory required for data: 10016
I0802 07:44:47.998509 20406 layer_factory.hpp:77] Creating layer lstm1_x_transform
I0802 07:44:47.998519 20406 net.cpp:91] Creating Layer lstm1_x_transform
I0802 07:44:47.998523 20406 net.cpp:425] lstm1_x_transform <- x
I0802 07:44:47.998533 20406 net.cpp:399] lstm1_x_transform -> W_xc_x
I0802 07:44:48.015207 20416 net.cpp:141] Setting up fc7
I0802 07:44:48.015247 20416 net.cpp:148] Top shape: 10 4096 (40960)
I0802 07:44:48.015254 20416 net.cpp:156] Memory required for data: 68273720
I0802 07:44:48.015267 20416 layer_factory.hpp:77] Creating layer relu7
I0802 07:44:48.015285 20416 net.cpp:91] Creating Layer relu7
I0802 07:44:48.015291 20416 net.cpp:425] relu7 <- fc7
I0802 07:44:48.015300 20416 net.cpp:386] relu7 -> fc7 (in-place)
I0802 07:44:48.016044 20416 net.cpp:141] Setting up relu7
I0802 07:44:48.016059 20416 net.cpp:148] Top shape: 10 4096 (40960)
I0802 07:44:48.016065 20416 net.cpp:156] Memory required for data: 68437560
I0802 07:44:48.016070 20416 layer_factory.hpp:77] Creating layer drop7
I0802 07:44:48.016079 20416 net.cpp:91] Creating Layer drop7
I0802 07:44:48.016084 20416 net.cpp:425] drop7 <- fc7
I0802 07:44:48.016091 20416 net.cpp:386] drop7 -> fc7 (in-place)
I0802 07:44:48.016134 20416 net.cpp:141] Setting up drop7
I0802 07:44:48.016144 20416 net.cpp:148] Top shape: 10 4096 (40960)
I0802 07:44:48.016147 20416 net.cpp:156] Memory required for data: 68601400
I0802 07:44:48.016152 20416 layer_factory.hpp:77] Creating layer fc8
I0802 07:44:48.016165 20416 net.cpp:91] Creating Layer fc8
I0802 07:44:48.016170 20416 net.cpp:425] fc8 <- fc7
I0802 07:44:48.016175 20416 net.cpp:399] fc8 -> fc8
I0802 07:44:48.024302 20406 net.cpp:141] Setting up lstm1_x_transform
I0802 07:44:48.024353 20406 net.cpp:148] Top shape: 1 1 4000 (4000)
I0802 07:44:48.024359 20406 net.cpp:156] Memory required for data: 26016
I0802 07:44:48.024381 20406 layer_factory.hpp:77] Creating layer lstm1_W_xc_x_slice
I0802 07:44:48.024400 20406 net.cpp:91] Creating Layer lstm1_W_xc_x_slice
I0802 07:44:48.024406 20406 net.cpp:425] lstm1_W_xc_x_slice <- W_xc_x
I0802 07:44:48.024417 20406 net.cpp:399] lstm1_W_xc_x_slice -> W_xc_x_1
I0802 07:44:48.024466 20406 net.cpp:141] Setting up lstm1_W_xc_x_slice
I0802 07:44:48.024474 20406 net.cpp:148] Top shape: 1 1 4000 (4000)
I0802 07:44:48.024478 20406 net.cpp:156] Memory required for data: 42016
I0802 07:44:48.024483 20406 layer_factory.hpp:77] Creating layer lstm1_h_conted_0
I0802 07:44:48.024494 20406 net.cpp:91] Creating Layer lstm1_h_conted_0
I0802 07:44:48.024499 20406 net.cpp:425] lstm1_h_conted_0 <- h_0
I0802 07:44:48.024504 20406 net.cpp:425] lstm1_h_conted_0 <- cont_1_lstm1_cont_slice_0_split_0
I0802 07:44:48.024512 20406 net.cpp:399] lstm1_h_conted_0 -> h_conted_0
I0802 07:44:48.024602 20406 net.cpp:141] Setting up lstm1_h_conted_0
I0802 07:44:48.024611 20406 net.cpp:148] Top shape: 1 1 1000 (1000)
I0802 07:44:48.024616 20406 net.cpp:156] Memory required for data: 46016
I0802 07:44:48.024619 20406 layer_factory.hpp:77] Creating layer lstm1_transform_1
I0802 07:44:48.024632 20406 net.cpp:91] Creating Layer lstm1_transform_1
I0802 07:44:48.024636 20406 net.cpp:425] lstm1_transform_1 <- h_conted_0
I0802 07:44:48.024644 20406 net.cpp:399] lstm1_transform_1 -> W_hc_h_0
I0802 07:44:48.032088 20416 net.cpp:141] Setting up fc8
I0802 07:44:48.032127 20416 net.cpp:148] Top shape: 10 1000 (10000)
I0802 07:44:48.032133 20416 net.cpp:156] Memory required for data: 68641400
I0802 07:44:48.032147 20416 layer_factory.hpp:77] Creating layer prob
I0802 07:44:48.032166 20416 net.cpp:91] Creating Layer prob
I0802 07:44:48.032173 20416 net.cpp:425] prob <- fc8
I0802 07:44:48.032182 20416 net.cpp:399] prob -> prob
I0802 07:44:48.032605 20416 net.cpp:141] Setting up prob
I0802 07:44:48.032616 20416 net.cpp:148] Top shape: 10 1000 (10000)
I0802 07:44:48.032621 20416 net.cpp:156] Memory required for data: 68681400
I0802 07:44:48.032626 20416 net.cpp:219] prob does not need backward computation.
I0802 07:44:48.032631 20416 net.cpp:219] fc8 does not need backward computation.
I0802 07:44:48.032636 20416 net.cpp:219] drop7 does not need backward computation.
I0802 07:44:48.032640 20416 net.cpp:219] relu7 does not need backward computation.
…
I0802 07:44:48.032718 20416 net.cpp:219] norm1 does not need backward computation.
I0802 07:44:48.032722 20416 net.cpp:219] pool1 does not need backward computation.
I0802 07:44:48.032727 20416 net.cpp:219] relu1 does not need backward computation.
I0802 07:44:48.032730 20416 net.cpp:219] conv1 does not need backward computation.
I0802 07:44:48.032734 20416 net.cpp:219] data does not need backward computation.
I0802 07:44:48.032737 20416 net.cpp:261] This network produces output prob
I0802 07:44:48.032757 20416 net.cpp:274] Network initialization done.
I0802 07:44:48.065490 20406 net.cpp:141] Setting up lstm1_transform_1
I0802 07:44:48.065556 20406 net.cpp:148] Top shape: 1 1 4000 (4000)
I0802 07:44:48.065563 20406 net.cpp:156] Memory required for data: 62016
I0802 07:44:48.065587 20406 layer_factory.hpp:77] Creating layer lstm1_gate_input_1
I0802 07:44:48.065613 20406 net.cpp:91] Creating Layer lstm1_gate_input_1
I0802 07:44:48.065620 20406 net.cpp:425] lstm1_gate_input_1 <- W_hc_h_0
I0802 07:44:48.065629 20406 net.cpp:425] lstm1_gate_input_1 <- W_xc_x_1
I0802 07:44:48.065636 20406 net.cpp:399] lstm1_gate_input_1 -> gate_input_1
I0802 07:44:48.065697 20406 net.cpp:141] Setting up lstm1_gate_input_1
I0802 07:44:48.065706 20406 net.cpp:148] Top shape: 1 1 4000 (4000)
I0802 07:44:48.065711 20406 net.cpp:156] Memory required for data: 78016
I0802 07:44:48.065716 20406 layer_factory.hpp:77] Creating layer lstm1_unit_1
I0802 07:44:48.065724 20406 net.cpp:91] Creating Layer lstm1_unit_1
I0802 07:44:48.065732 20406 net.cpp:425] lstm1_unit_1 <- c_0
I0802 07:44:48.065737 20406 net.cpp:425] lstm1_unit_1 <- gate_input_1
I0802 07:44:48.065752 20406 net.cpp:425] lstm1_unit_1 <- cont_1_lstm1_cont_slice_0_split_1
I0802 07:44:48.065758 20406 net.cpp:399] lstm1_unit_1 -> c_1
I0802 07:44:48.065767 20406 net.cpp:399] lstm1_unit_1 -> h_1
I0802 07:44:48.065830 20406 net.cpp:141] Setting up lstm1_unit_1
I0802 07:44:48.065839 20406 net.cpp:148] Top shape: 1 1 1000 (1000)
I0802 07:44:48.065845 20406 net.cpp:148] Top shape: 1 1 1000 (1000)
I0802 07:44:48.065848 20406 net.cpp:156] Memory required for data: 86016
I0802 07:44:48.065853 20406 layer_factory.hpp:77] Creating layer lstm1_
I0802 07:44:48.065865 20406 net.cpp:91] Creating Layer lstm1_
I0802 07:44:48.065870 20406 net.cpp:425] lstm1_ <- c_1
I0802 07:44:48.065876 20406 net.cpp:399] lstm1_ -> c_T
I0802 07:44:48.065907 20406 net.cpp:141] Setting up lstm1_
I0802 07:44:48.065914 20406 net.cpp:148] Top shape: 1 1 1000 (1000)
I0802 07:44:48.065918 20406 net.cpp:156] Memory required for data: 90016
I0802 07:44:48.065922 20406 layer_factory.hpp:77] Creating layer lstm1_h_concat
I0802 07:44:48.065932 20406 net.cpp:91] Creating Layer lstm1_h_concat
I0802 07:44:48.065937 20406 net.cpp:425] lstm1_h_concat <- h_1
I0802 07:44:48.065946 20406 net.cpp:399] lstm1_h_concat -> h
I0802 07:44:48.065995 20406 net.cpp:141] Setting up lstm1_h_concat
I0802 07:44:48.066004 20406 net.cpp:148] Top shape: 1 1 1000 (1000)
I0802 07:44:48.066007 20406 net.cpp:156] Memory required for data: 94016
I0802 07:44:48.066012 20406 layer_factory.hpp:77] Creating layer h_pseudoloss
I0802 07:44:48.066028 20406 net.cpp:91] Creating Layer h_pseudoloss
I0802 07:44:48.066032 20406 net.cpp:425] h_pseudoloss <- h
I0802 07:44:48.066040 20406 net.cpp:399] h_pseudoloss -> h_pseudoloss
I0802 07:44:48.066149 20406 net.cpp:141] Setting up h_pseudoloss
…
I0802 07:44:48.066277 20406 net.cpp:219] lstm1_ does not need backward computation.
I0802 07:44:48.066280 20406 net.cpp:261] This network produces output c_T
I0802 07:44:48.066285 20406 net.cpp:261] This network produces output h_pseudoloss
I0802 07:44:48.066298 20406 net.cpp:274] Network initialization done.
I0802 07:44:48.066359 20406 recurrent_layer.cpp:150] Adding parameter 0: W_xc
I0802 07:44:48.066370 20406 recurrent_layer.cpp:150] Adding parameter 1: b_c
I0802 07:44:48.066380 20406 recurrent_layer.cpp:150] Adding parameter 2: W_hc
I0802 07:44:48.066546 20406 net.cpp:141] Setting up lstm1
I0802 07:44:48.066561 20406 net.cpp:148] Top shape: 1 1 1000 (1000)
I0802 07:44:48.066566 20406 net.cpp:156] Memory required for data: 26408
I0802 07:44:48.066579 20406 layer_factory.hpp:77] Creating layer concat
I0802 07:44:48.066588 20406 net.cpp:91] Creating Layer concat
I0802 07:44:48.066603 20406 net.cpp:425] concat <- lstm1
I0802 07:44:48.066609 20406 net.cpp:425] concat <- embedded_input_sentence
I0802 07:44:48.066615 20406 net.cpp:425] concat <- reshaped_stage_indicator
I0802 07:44:48.066622 20406 net.cpp:399] concat -> lstm1_video_sequence
I0802 07:44:48.066655 20406 net.cpp:141] Setting up concat
I0802 07:44:48.066663 20406 net.cpp:148] Top shape: 1 1 1501 (1501)
I0802 07:44:48.066668 20406 net.cpp:156] Memory required for data: 32412
I0802 07:44:48.066673 20406 layer_factory.hpp:77] Creating layer lstm2
I0802 07:44:48.066684 20406 net.cpp:91] Creating Layer lstm2
I0802 07:44:48.066689 20406 net.cpp:425] lstm2 <- lstm1_video_sequence
I0802 07:44:48.066695 20406 net.cpp:425] lstm2 <- cont_sentence_input_1_split_1
I0802 07:44:48.066702 20406 net.cpp:399] lstm2 -> lstm2
I0802 07:44:48.066712 20406 recurrent_layer.cpp:20] Initializing recurrent layer: assuming input batch contains 1 timesteps of 1 independent streams.
I0802 07:44:48.066997 20406 net.cpp:49] Initializing net from parameters: 
layer {
  name: "lstm2_"
  type: "Input"
  top: "x"
  top: "cont"
  input_param {
    shape {
      dim: 1
      dim: 1
      dim: 1501
    }
    shape {
      dim: 1
      dim: 1
    }
  }
}
layer {
  name: "lstm2_"
  type: "Input"
  top: "c_0"
  top: "h_0"
  input_param {
    shape {
      dim: 1
      dim: 1
      dim: 1000
    }
    shape {
      dim: 1
      dim: 1
      dim: 1000
    }
  }
}
layer {
  name: "lstm2_cont_slice"
  type: "Slice"
  bottom: "cont"
  top: "cont_1"
  slice_param {
    axis: 0
  }
}
layer {
  name: "lstm2_x_transform"
  type: "InnerProduct"
  bottom: "x"
  top: "W_xc_x"
  param {
    name: "W_xc"
  }
  param {
    name: "b_c"
  }
  propagate_down: true
  inner_product_param {
    num_output: 4000
    bias_term: true
    weight_filler {
      type: "uniform"
      min: -0.08
      max: 0.08
    }
    bias_filler {
      type: "constant"
      value: 0
    }
    axis: 2
  }
}
layer {
  name: "lstm2_W_xc_x_slice"
  type: "Slice"
  bottom: "W_xc_x"
  top: "W_xc_x_1"
  slice_param {
    axis: 0
  }
}
layer {
  name: "lstm2_h_conted_0"
  type: "Scale"
  bottom: "h_0"
  bottom: "cont_1"
  top: "h_conted_0"
  scale_param {
    axis: 0
  }
}
layer {
  name: "lstm2_transform_1"
  type: "InnerProduct"
  bottom: "h_conted_0"
  top: "W_hc_h_0"
  param {
    name: "W_hc"
  }
  inner_product_param {
    num_output: 4000
    bias_term: false
    weight_filler {
      type: "uniform"
      min: -0.08
      max: 0.08
    }
    axis: 2
  }
}
layer {
  name: "lstm2_gate_input_1"
  type: "Eltwise"
  bottom: "W_hc_h_0"
  bottom: "W_xc_x_1"
  top: "gate_input_1"
  eltwise_param {
    operation: SUM
  }
}
layer {
  name: "lstm2_unit_1"
  type: "LSTMUnit"
  bottom: "c_0"
  bottom: "gate_input_1"
  bottom: "cont_1"
  top: "c_1"
  top: "h_1"
}
layer {
  name: "lstm2_"
  type: "Split"
  bottom: "c_1"
  top: "c_T"
}
layer {
  name: "lstm2_h_concat"
  type: "Concat"
  bottom: "h_1"
  top: "h"
  concat_param {
    axis: 0
  }
}
layer {
  name: "h_pseudoloss"
  type: "Reduction"
  bottom: "h"
  top: "h_pseudoloss"
  loss_weight: 1
}
I0802 07:44:48.067081 20406 layer_factory.hpp:77] Creating layer lstm2_
I0802 07:44:48.067095 20406 net.cpp:91] Creating Layer lstm2_
I0802 07:44:48.067102 20406 net.cpp:399] lstm2_ -> x
I0802 07:44:48.067112 20406 net.cpp:399] lstm2_ -> cont
I0802 07:44:48.067163 20406 net.cpp:141] Setting up lstm2_
I0802 07:44:48.067173 20406 net.cpp:148] Top shape: 1 1 1501 (1501)
I0802 07:44:48.067178 20406 net.cpp:148] Top shape: 1 1 (1)
I0802 07:44:48.067183 20406 net.cpp:156] Memory required for data: 6008
I0802 07:44:48.067188 20406 layer_factory.hpp:77] Creating layer lstm2_
I0802 07:44:48.067203 20406 net.cpp:91] Creating Layer lstm2_
I0802 07:44:48.067209 20406 net.cpp:399] lstm2_ -> c_0
I0802 07:44:48.067219 20406 net.cpp:399] lstm2_ -> h_0
I0802 07:44:48.067265 20406 net.cpp:141] Setting up lstm2_
I0802 07:44:48.067273 20406 net.cpp:148] Top shape: 1 1 1000 (1000)
I0802 07:44:48.067278 20406 net.cpp:148] Top shape: 1 1 1000 (1000)
I0802 07:44:48.067282 20406 net.cpp:156] Memory required for data: 14008
I0802 07:44:48.067287 20406 layer_factory.hpp:77] Creating layer lstm2_cont_slice
I0802 07:44:48.067296 20406 net.cpp:91] Creating Layer lstm2_cont_slice
I0802 07:44:48.067299 20406 net.cpp:425] lstm2_cont_slice <- cont
I0802 07:44:48.067308 20406 net.cpp:399] lstm2_cont_slice -> cont_1
I0802 07:44:48.067339 20406 net.cpp:141] Setting up lstm2_cont_slice
I0802 07:44:48.067350 20406 net.cpp:148] Top shape: 1 1 (1)
I0802 07:44:48.067354 20406 net.cpp:156] Memory required for data: 14012
I0802 07:44:48.067359 20406 layer_factory.hpp:77] Creating layer cont_1_lstm2_cont_slice_0_split
I0802 07:44:48.067365 20406 net.cpp:91] Creating Layer cont_1_lstm2_cont_slice_0_split
I0802 07:44:48.067369 20406 net.cpp:425] cont_1_lstm2_cont_slice_0_split <- cont_1
I0802 07:44:48.067375 20406 net.cpp:399] cont_1_lstm2_cont_slice_0_split -> cont_1_lstm2_cont_slice_0_split_0
I0802 07:44:48.067384 20406 net.cpp:399] cont_1_lstm2_cont_slice_0_split -> cont_1_lstm2_cont_slice_0_split_1
I0802 07:44:48.067430 20406 net.cpp:141] Setting up cont_1_lstm2_cont_slice_0_split
I0802 07:44:48.067437 20406 net.cpp:148] Top shape: 1 1 (1)
I0802 07:44:48.067443 20406 net.cpp:148] Top shape: 1 1 (1)
I0802 07:44:48.067447 20406 net.cpp:156] Memory required for data: 14020
I0802 07:44:48.067451 20406 layer_factory.hpp:77] Creating layer lstm2_x_transform
I0802 07:44:48.067463 20406 net.cpp:91] Creating Layer lstm2_x_transform
I0802 07:44:48.067468 20406 net.cpp:425] lstm2_x_transform <- x
I0802 07:44:48.067476 20406 net.cpp:399] lstm2_x_transform -> W_xc_x
I0802 07:44:48.122890 20406 net.cpp:141] Setting up lstm2_x_transform
I0802 07:44:48.122958 20406 net.cpp:148] Top shape: 1 1 4000 (4000)
I0802 07:44:48.122966 20406 net.cpp:156] Memory required for data: 30020
I0802 07:44:48.122989 20406 layer_factory.hpp:77] Creating layer lstm2_W_xc_x_slice
I0802 07:44:48.123008 20406 net.cpp:91] Creating Layer lstm2_W_xc_x_slice
I0802 07:44:48.123014 20406 net.cpp:425] lstm2_W_xc_x_slice <- W_xc_x
I0802 07:44:48.123028 20406 net.cpp:399] lstm2_W_xc_x_slice -> W_xc_x_1
I0802 07:44:48.123073 20406 net.cpp:141] Setting up lstm2_W_xc_x_slice
I0802 07:44:48.123083 20406 net.cpp:148] Top shape: 1 1 4000 (4000)
I0802 07:44:48.123087 20406 net.cpp:156] Memory required for data: 46020
I0802 07:44:48.123092 20406 layer_factory.hpp:77] Creating layer lstm2_h_conted_0
I0802 07:44:48.123103 20406 net.cpp:91] Creating Layer lstm2_h_conted_0
I0802 07:44:48.123108 20406 net.cpp:425] lstm2_h_conted_0 <- h_0
I0802 07:44:48.123114 20406 net.cpp:425] lstm2_h_conted_0 <- cont_1_lstm2_cont_slice_0_split_0
I0802 07:44:48.123124 20406 net.cpp:399] lstm2_h_conted_0 -> h_conted_0
I0802 07:44:48.123230 20406 net.cpp:141] Setting up lstm2_h_conted_0
I0802 07:44:48.123239 20406 net.cpp:148] Top shape: 1 1 1000 (1000)
I0802 07:44:48.123244 20406 net.cpp:156] Memory required for data: 50020
I0802 07:44:48.123248 20406 layer_factory.hpp:77] Creating layer lstm2_transform_1
I0802 07:44:48.123265 20406 net.cpp:91] Creating Layer lstm2_transform_1
I0802 07:44:48.123270 20406 net.cpp:425] lstm2_transform_1 <- h_conted_0
I0802 07:44:48.123278 20406 net.cpp:399] lstm2_transform_1 -> W_hc_h_0
I0802 07:44:48.160001 20406 net.cpp:141] Setting up lstm2_transform_1
I0802 07:44:48.160079 20406 net.cpp:148] Top shape: 1 1 4000 (4000)
I0802 07:44:48.160087 20406 net.cpp:156] Memory required for data: 66020
I0802 07:44:48.160111 20406 layer_factory.hpp:77] Creating layer lstm2_gate_input_1
I0802 07:44:48.160135 20406 net.cpp:91] Creating Layer lstm2_gate_input_1
I0802 07:44:48.160142 20406 net.cpp:425] lstm2_gate_input_1 <- W_hc_h_0
I0802 07:44:48.160151 20406 net.cpp:425] lstm2_gate_input_1 <- W_xc_x_1
I0802 07:44:48.160161 20406 net.cpp:399] lstm2_gate_input_1 -> gate_input_1
I0802 07:44:48.160219 20406 net.cpp:141] Setting up lstm2_gate_input_1
I0802 07:44:48.160228 20406 net.cpp:148] Top shape: 1 1 4000 (4000)
I0802 07:44:48.160231 20406 net.cpp:156] Memory required for data: 82020
I0802 07:44:48.160235 20406 layer_factory.hpp:77] Creating layer lstm2_unit_1
I0802 07:44:48.160248 20406 net.cpp:91] Creating Layer lstm2_unit_1
I0802 07:44:48.160253 20406 net.cpp:425] lstm2_unit_1 <- c_0
I0802 07:44:48.160259 20406 net.cpp:425] lstm2_unit_1 <- gate_input_1
I0802 07:44:48.160264 20406 net.cpp:425] lstm2_unit_1 <- cont_1_lstm2_cont_slice_0_split_1
I0802 07:44:48.160270 20406 net.cpp:399] lstm2_unit_1 -> c_1
I0802 07:44:48.160279 20406 net.cpp:399] lstm2_unit_1 -> h_1
I0802 07:44:48.160348 20406 net.cpp:141] Setting up lstm2_unit_1
I0802 07:44:48.160356 20406 net.cpp:148] Top shape: 1 1 1000 (1000)
I0802 07:44:48.160362 20406 net.cpp:148] Top shape: 1 1 1000 (1000)
I0802 07:44:48.160374 20406 net.cpp:156] Memory required for data: 90020
I0802 07:44:48.160379 20406 layer_factory.hpp:77] Creating layer lstm2_
I0802 07:44:48.160387 20406 net.cpp:91] Creating Layer lstm2_
I0802 07:44:48.160392 20406 net.cpp:425] lstm2_ <- c_1
I0802 07:44:48.160401 20406 net.cpp:399] lstm2_ -> c_T
I0802 07:44:48.160430 20406 net.cpp:141] Setting up lstm2_
I0802 07:44:48.160439 20406 net.cpp:148] Top shape: 1 1 1000 (1000)
I0802 07:44:48.160442 20406 net.cpp:156] Memory required for data: 94020
I0802 07:44:48.160446 20406 layer_factory.hpp:77] Creating layer lstm2_h_concat
I0802 07:44:48.160457 20406 net.cpp:91] Creating Layer lstm2_h_concat
I0802 07:44:48.160461 20406 net.cpp:425] lstm2_h_concat <- h_1
I0802 07:44:48.160468 20406 net.cpp:399] lstm2_h_concat -> h
I0802 07:44:48.160506 20406 net.cpp:141] Setting up lstm2_h_concat
I0802 07:44:48.160513 20406 net.cpp:148] Top shape: 1 1 1000 (1000)
I0802 07:44:48.160517 20406 net.cpp:156] Memory required for data: 98020
I0802 07:44:48.160521 20406 layer_factory.hpp:77] Creating layer h_pseudoloss
I0802 07:44:48.160531 20406 net.cpp:91] Creating Layer h_pseudoloss
I0802 07:44:48.160536 20406 net.cpp:425] h_pseudoloss <- h
I0802 07:44:48.160542 20406 net.cpp:399] h_pseudoloss -> h_pseudoloss
I0802 07:44:48.160640 20406 net.cpp:141] Setting up h_pseudoloss
…
