…
Java HotSpot(TM) 64-Bit Server VM warning: You have loaded library /home/peifeng/work/run/storm102/data/workers/4dc3c1b3-1e4d-4651-a47e-baee34c7797b/tmp/cvld3907228443522730781/libopencv_java310.xine1.so which might have disabled stack guard. The VM will try to fix the stack guard now.
It's highly recommended that you fix the library with 'execstack -c <libfile>', or link it with '-z noexecstack'.
WARNING: Logging before InitGoogleLogging() is written to STDERR
I0913 19:47:19.531921 28639 net.cpp:49] Initializing net from parameters: 
name: "GoogleNet"
state {
  phase: TEST
}
layer {
  name: "data"
  type: "Input"
  top: "data"
  input_param {
    shape {
      dim: 10
      dim: 3
      dim: 224
      dim: 224
    }
  }
}
layer {
  name: "conv1/7x7_s2"
  type: "Convolution"
  bottom: "data"
  top: "conv1/7x7_s2"
  param {
    lr_mult: 1
    decay_mult: 1
  }
  param {
    lr_mult: 2
    decay_mult: 0
  }
  convolution_param {
    num_output: 64
    pad: 3
    kernel_size: 7
    stride: 2
    weight_filler {
      type: "xavier"
      std: 0.1
    }
    bias_filler {
      type: "constant"
      value: 0.2
    }
  }
}
layer {
  name: "conv1/relu_7x7"
  type: "ReLU"
  bottom: "conv1/7x7_s2"
  top: "conv1/7x7_s2"
}
layer {
  name: "pool1/3x3_s2"
  type: "Pooling"
  bottom: "conv1/7x7_s2"
  top: "pool1/3x3_s2"
  pooling_param {
    pool: MAX
    kernel_size: 3
    stride: 2
  }
}
layer {
  name: "pool1/norm1"
  type: "LRN"
  bottom: "pool1/3x3_s2"
  top: "pool1/norm1"
  lrn_param {
    local_size: 5
    alpha: 0.0001
    beta: 0.75
  }
}
layer {
  name: "conv2/3x3_reduce"
  type: "Convolution"
  bottom: "pool1/norm1"
  top: "conv2/3x3_reduce"
  param {
    lr_mult: 1
    decay_mult: 1
  }
  param {
    lr_mult: 2
    decay_mult: 0
  }
  convolution_param {
    num_output: 64
    kernel_size: 1
    weight_filler {
      type: "xavier"
      std: 0.1
    }
    bias_filler {
      type: "constant"
      value: 0.2
    }
  }
}
layer {
  name: "conv2/relu_3x3_reduce"
  type: "ReLU"
  bottom: "conv2/3x3_reduce"
  top: "conv2/3x3_reduce"
}
layer {
  name: "conv2/3x3"
  type: "Convolution"
  bottom: "conv2/3x3_reduce"
  top: "conv2/3x3"
  param {
    lr_mult: 1
    decay_mult: 1
  }
  param {
    lr_mult: 2
    decay_mult: 0
  }
  convolution_param {
    num_output: 192
    pad: 1
    kernel_size: 3
    weight_filler {
      type: "xavier"
      std: 0.03
    }
    bias_filler {
      type: "constant"
      value: 0.2
    }
  }
}
layer {
  name: "conv2/relu_3x3"
  type: "ReLU"
  bottom: "conv2/3x3"
  top: "conv2/3x3"
}
layer {
  name: "conv2/norm2"
  type: "LRN"
  bottom: "conv2/3x3"
  top: "conv2/norm2"
  lrn_param {
    local_size: 5
    alpha: 0.0001
    beta: 0.75
  }
}
layer {
  name: "pool2/3x3_s2"
  type: "Pooling"
  bottom: "conv2/norm2"
  top: "pool2/3x3_s2"
  pooling_param {
    pool: MAX
    kernel_size: 3
    stride: 2
  }
}
layer {
  name: "inception_3a/1x1"
  type: "Convolution"
  bottom: "pool2/3x3_s2"
  top: "inception_3a/1x1"
  param {
    lr_mult: 1
    decay_mult: 1
  }
  param {
    lr_mult: 2
    decay_mult: 0
  }
  convolution_param {
    num_output: 64
    kernel_size: 1
    weight_filler {
      type: "xavier"
      std: 0.03
    }
    bias_filler {
      type: "constant"
      value: 0.2
    }
  }
}
layer {
  name: "inception_3a/relu_1x1"
  type: "ReLU"
  bottom: "inception_3a/1x1"
  top: "inception_3a/1x1"
}
layer {
  name: "inception_3a/3x3_reduce"
  type: "Convolution"
  bottom: "pool2/3x3_s2"
  top: "inception_3a/3x3_reduce"
  param {
    lr_mult: 1
    decay_mult: 1
  }
  param {
    lr_mult: 2
    decay_mult: 0
  }
  convolution_param {
    num_output: 96
    kernel_size: 1
    weight_filler {
      type: "xavier"
      std: 0.09
    }
    bias_filler {
      type: "constant"
      value: 0.2
    }
  }
}
layer {
  name: "inception_3a/relu_3x3_reduce"
  type: "ReLU"
  bottom: "inception_3a/3x3_reduce"
  top: "inception_3a/3x3_reduce"
}
layer {
  name: "inception_3a/3x3"
  type: "Convolution"
  bottom: "inception_3a/3x3_reduce"
  top: "inception_3a/3x3"
  param {
    lr_mult: 1
    decay_mult: 1
  }
  param {
    lr_mult: 2
    decay_mult: 0
  }
  convolution_param {
    num_output: 128
    pad: 1
    kernel_size: 3
    weight_filler {
      type: "xavier"
      std: 0.03
    }
    bias_filler {
      type: "constant"
      value: 0.2
    }
  }
}
layer {
  name: "inception_3a/relu_3x3"
  type: "ReLU"
  bottom: "inception_3a/3x3"
  top: "inception_3a/3x3"
}
layer {
  name: "inception_3a/5x5_reduce"
  type: "Convolution"
  bottom: "pool2/3x3_s2"
  top: "inception_3a/5x5_reduce"
  param {
    lr_mult: 1
    decay_mult: 1
  }
  param {
    lr_mult: 2
    decay_mult: 0
  }
  convolution_param {
    num_output: 16
    kernel_size: 1
    weight_filler {
      type: "xavier"
      std: 0.2
    }
    bias_filler {
      type: "constant"
      value: 0.2
    }
  }
}
layer {
  name: "inception_3a/relu_5x5_reduce"
  type: "ReLU"
  bottom: "inception_3a/5x5_reduce"
  top: "inception_3a/5x5_reduce"
}
layer {
  name: "inception_3a/5x5"
  type: "Convolution"
  bottom: "inception_3a/5x5_reduce"
  top: "inception_3a/5x5"
  param {
    lr_mult: 1
    decay_mult: 1
  }
  param {
    lr_mult: 2
    decay_mult: 0
  }
  convolution_param {
    num_output: 32
    pad: 2
    kernel_size: 5
    weight_filler {
      type: "xavier"
      std: 0.03
    }
    bias_filler {
      type: "constant"
      value: 0.2
    }
  }
}
layer {
  name: "inception_3a/relu_5x5"
  type: "ReLU"
  bottom: "inception_3a/5x5"
  top: "inception_3a/5x5"
}
layer {
  name: "inception_3a/pool"
  type: "Pooling"
  bottom: "pool2/3x3_s2"
  top: "inception_3a/pool"
  pooling_param {
    pool: MAX
    kernel_size: 3
    stride: 1
    pad: 1
  }
}
layer {
  name: "inception_3a/pool_proj"
  type: "Convolution"
  bottom: "inception_3a/pool"
  top: "inception_3a/pool_proj"
  param {
    lr_mult: 1
    decay_mult: 1
  }
  param {
    lr_mult: 2
    decay_mult: 0
  }
  convolution_param {
    num_output: 32
    kernel_size: 1
    weight_filler {
      type: "xavier"
      std: 0.1
    }
    bias_filler {
      type: "constant"
      value: 0.2
    }
  }
}
layer {
  name: "inception_3a/relu_pool_proj"
  type: "ReLU"
  bottom: "inception_3a/pool_proj"
  top: "inception_3a/pool_proj"
}
layer {
  name: "inception_3a/output"
  type: "Concat"
  bottom: "inception_3a/1x1"
  bottom: "inception_3a/3x3"
  bottom: "inception_3a/5x5"
  bottom: "inception_3a/pool_proj"
  top: "inception_3a/output"
}
layer {
  name: "inception_3b/1x1"
  type: "Convolution"
  bottom: "inception_3a/output"
  top: "inception_3b/1x1"
  param {
    lr_mult: 1
    decay_mult: 1
  }
  param {
    lr_mult: 2
    decay_mult: 0
  }
  convolution_param {
    num_output: 128
    kernel_size: 1
    weight_filler {
      type: "xavier"
      std: 0.03
    }
    bias_filler {
      type: "constant"
      value: 0.2
    }
  }
}
layer {
  name: "inception_3b/relu_1x1"
  type: "ReLU"
  bottom: "inception_3b/1x1"
  top: "inception_3b/1x1"
}
layer {
  name: "inception_3b/3x3_reduce"
  type: "Convolution"
  bottom: "inception_3a/output"
  top: "inception_3b/3x3_reduce"
  param {
    lr_mult: 1
    decay_mult: 1
  }
  param {
    lr_mult: 2
    decay_mult: 0
  }
  convolution_param {
    num_output: 128
    kernel_size: 1
    weight_filler {
      type: "xavier"
      std: 0.09
    }
    bias_filler {
      type: "constant"
      value: 0.2
    }
  }
}
layer {
  name: "inception_3b/relu_3x3_reduce"
  type: "ReLU"
  bottom: "inception_3b/3x3_reduce"
  top: "inception_3b/3x3_reduce"
}
layer {
  name: "inception_3b/3x3"
  type: "Convolution"
  bottom: "inception_3b/3x3_reduce"
  top: "inception_3b/3x3"
  param {
    lr_mult: 1
    decay_mult: 1
  }
  param {
    lr_mult: 2
    decay_mult: 0
  }
  convolution_param {
    num_output: 192
    pad: 1
    kernel_size: 3
    weight_filler {
      type: "xavier"
      std: 0.03
    }
    bias_filler {
      type: "constant"
      value: 0.2
    }
  }
}
layer {
  name: "inception_3b/relu_3x3"
  type: "ReLU"
  bottom: "inception_3b/3x3"
  top: "inception_3b/3x3"
}
layer {
  name: "inception_3b/5x5_reduce"
  type: "Convolution"
  bottom: "inception_3a/output"
  top: "inception_3b/5x5_reduce"
  param {
    lr_mult: 1
    decay_mult: 1
  }
  param {
    lr_mult: 2
    decay_mult: 0
  }
  convolution_param {
    num_output: 32
    kernel_size: 1
    weight_filler {
      type: "xavier"
      std: 0.2
    }
    bias_filler {
      type: "constant"
      value: 0.2
    }
  }
}
layer {
  name: "inception_3b/relu_5x5_reduce"
  type: "ReLU"
  bottom: "inception_3b/5x5_reduce"
  top: "inception_3b/5x5_reduce"
}
layer {
  name: "inception_3b/5x5"
  type: "Convolution"
  bottom: "inception_3b/5x5_reduce"
  top: "inception_3b/5x5"
  param {
    lr_mult: 1
    decay_mult: 1
  }
  param {
    lr_mult: 2
    decay_mult: 0
  }
  convolution_param {
    num_output: 96
    pad: 2
    kernel_size: 5
    weight_filler {
      type: "xavier"
      std: 0.03
    }
    bias_filler {
      type: "constant"
      value: 0.2
    }
  }
}
layer {
  name: "inception_3b/relu_5x5"
  type: "ReLU"
  bottom: "inception_3b/5x5"
  top: "inception_3b/5x5"
}
layer {
  name: "inception_3b/pool"
  type: "Pooling"
  bottom: "inception_3a/output"
  top: "inception_3b/pool"
  pooling_param {
    pool: MAX
    kernel_size: 3
    stride: 1
    pad: 1
  }
}
layer {
  name: "inception_3b/pool_proj"
  type: "Convolution"
  bottom: "inception_3b/pool"
  top: "inception_3b/pool_proj"
  param {
    lr_mult: 1
    decay_mult: 1
  }
  param {
    lr_mult: 2
    decay_mult: 0
  }
  convolution_param {
    num_output: 64
    kernel_size: 1
    weight_filler {
      type: "xavier"
      std: 0.1
    }
    bias_filler {
      type: "constant"
      value: 0.2
    }
  }
}
layer {
  name: "inception_3b/relu_pool_proj"
  type: "ReLU"
  bottom: "inception_3b/pool_proj"
  top: "inception_3b/pool_proj"
}
layer {
  name: "inception_3b/output"
  type: "Concat"
  bottom: "inception_3b/1x1"
  bottom: "inception_3b/3x3"
  bottom: "inception_3b/5x5"
  bottom: "inception_3b/pool_proj"
  top: "inception_3b/output"
}
layer {
  name: "pool3/3x3_s2"
  type: "Pooling"
  bottom: "inception_3b/output"
  top: "pool3/3x3_s2"
  pooling_param {
    pool: MAX
    kernel_size: 3
    stride: 2
  }
}
layer {
  name: "inception_4a/1x1"
  type: "Convolution"
  bottom: "pool3/3x3_s2"
  top: "inception_4a/1x1"
  param {
    lr_mult: 1
    decay_mult: 1
  }
  param {
    lr_mult: 2
    decay_mult: 0
  }
  convolution_param {
    num_output: 192
    kernel_size: 1
    weight_filler {
      type: "xavier"
      std: 0.03
    }
    bias_filler {
      type: "constant"
      value: 0.2
    }
  }
}
layer {
  name: "inception_4a/relu_1x1"
  type: "ReLU"
  bottom: "inception_4a/1x1"
  top: "inception_4a/1x1"
}
layer {
  name: "inception_4a/3x3_reduce"
  type: "Convolution"
  bottom: "pool3/3x3_s2"
  top: "inception_4a/3x3_reduce"
  param {
    lr_mult: 1
    decay_mult: 1
  }
  param {
    lr_mult: 2
    decay_mult: 0
  }
  convolution_param {
    num_output: 96
    kernel_size: 1
    weight_filler {
      type: "xavier"
      std: 0.09
    }
    bias_filler {
      type: "constant"
      value: 0.2
    }
  }
}
layer {
  name: "inception_4a/relu_3x3_reduce"
  type: "ReLU"
  bottom: "inception_4a/3x3_reduce"
  top: "inception_4a/3x3_reduce"
}
layer {
  name: "inception_4a/3x3"
  type: "Convolution"
  bottom: "inception_4a/3x3_reduce"
  top: "inception_4a/3x3"
  param {
    lr_mult: 1
    decay_mult: 1
  }
  param {
    lr_mult: 2
    decay_mult: 0
  }
  convolution_param {
    num_output: 208
    pad: 1
    kernel_size: 3
    weight_filler {
      type: "xavier"
      std: 0.03
    }
    bias_filler {
      type: "constant"
      value: 0.2
    }
  }
}
layer {
  name: "inception_4a/relu_3x3"
  type: "ReLU"
  bottom: "inception_4a/3x3"
  top: "inception_4a/3x3"
}
layer {
  name: "inception_4a/5x5_reduce"
  type: "Convolution"
  bottom: "pool3/3x3_s2"
  top: "inception_4a/5x5_reduce"
  param {
    lr_mult: 1
    decay_mult: 1
  }
  param {
    lr_mult: 2
    decay_mult: 0
  }
  convolution_param {
    num_output: 16
    kernel_size: 1
    weight_filler {
      type: "xavier"
      std: 0.2
    }
    bias_filler {
      type: "constant"
      value: 0.2
    }
  }
}
layer {
  name: "inception_4a/relu_5x5_reduce"
  type: "ReLU"
  bottom: "inception_4a/5x5_reduce"
  top: "inception_4a/5x5_reduce"
}
layer {
  name: "inception_4a/5x5"
  type: "Convolution"
  bottom: "inception_4a/5x5_reduce"
  top: "inception_4a/5x5"
  param {
    lr_mult: 1
    decay_mult: 1
  }
  param {
    lr_mult: 2
    decay_mult: 0
  }
  convolution_param {
    num_output: 48
    pad: 2
    kernel_size: 5
    weight_filler {
      type: "xavier"
      std: 0.03
    }
    bias_filler {
      type: "constant"
      value: 0.2
    }
  }
}
layer {
  name: "inception_4a/relu_5x5"
  type: "ReLU"
  bottom: "inception_4a/5x5"
  top: "inception_4a/5x5"
}
layer {
  name: "inception_4a/pool"
  type: "Pooling"
  bottom: "pool3/3x3_s2"
  top: "inception_4a/pool"
  pooling_param {
    pool: MAX
    kernel_size: 3
    stride: 1
    pad: 1
  }
}
layer {
  name: "inception_4a/pool_proj"
  type: "Convolution"
  bottom: "inception_4a/pool"
  top: "inception_4a/pool_proj"
  param {
    lr_mult: 1
    decay_mult: 1
  }
  param {
    lr_mult: 2
    decay_mult: 0
  }
  convolution_param {
    num_output: 64
    kernel_size: 1
    weight_filler {
      type: "xavier"
      std: 0.1
    }
    bias_filler {
      type: "constant"
      value: 0.2
    }
  }
}
layer {
  name: "inception_4a/relu_pool_proj"
  type: "ReLU"
  bottom: "inception_4a/pool_proj"
  top: "inception_4a/pool_proj"
}
layer {
  name: "inception_4a/output"
  type: "Concat"
  bottom: "inception_4a/1x1"
  bottom: "inception_4a/3x3"
  bottom: "inception_4a/5x5"
  bottom: "inception_4a/pool_proj"
  top: "inception_4a/output"
}
layer {
  name: "inception_4b/1x1"
  type: "Convolution"
  bottom: "inception_4a/output"
  top: "inception_4b/1x1"
  param {
    lr_mult: 1
    decay_mult: 1
  }
  param {
    lr_mult: 2
    decay_mult: 0
  }
  convolution_param {
    num_output: 160
    kernel_size: 1
    weight_filler {
      type: "xavier"
      std: 0.03
    }
    bias_filler {
      type: "constant"
      value: 0.2
    }
  }
}
layer {
  name: "inception_4b/relu_1x1"
  type: "ReLU"
  bottom: "inception_4b/1x1"
  top: "inception_4b/1x1"
}
layer {
  name: "inception_4b/3x3_reduce"
  type: "Convolution"
  bottom: "inception_4a/output"
  top: "inception_4b/3x3_reduce"
  param {
    lr_mult: 1
    decay_mult: 1
  }
  param {
    lr_mult: 2
    decay_mult: 0
  }
  convolution_param {
    num_output: 112
    kernel_size: 1
    weight_filler {
      type: "xavier"
      std: 0.09
    }
    bias_filler {
      type: "constant"
      value: 0.2
    }
  }
}
layer {
  name: "inception_4b/relu_3x3_reduce"
  type: "ReLU"
  bottom: "inception_4b/3x3_reduce"
  top: "inception_4b/3x3_reduce"
}
layer {
  name: "inception_4b/3x3"
  type: "Convolution"
  bottom: "inception_4b/3x3_reduce"
  top: "inception_4b/3x3"
  param {
    lr_mult: 1
    decay_mult: 1
  }
  param {
    lr_mult: 2
    decay_mult: 0
  }
  convolution_param {
    num_output: 224
    pad: 1
    kernel_size: 3
    weight_filler {
      type: "xavier"
      std: 0.03
    }
    bias_filler {
      type: "constant"
      value: 0.2
    }
  }
}
layer {
  name: "inception_4b/relu_3x3"
  type: "ReLU"
  bottom: "inception_4b/3x3"
  top: "inception_4b/3x3"
}
layer {
  name: "inception_4b/5x5_reduce"
  type: "Convolution"
  bottom: "inception_4a/output"
  top: "inception_4b/5x5_reduce"
  param {
    lr_mult: 1
    decay_mult: 1
  }
  param {
    lr_mult: 2
    decay_mult: 0
  }
  convolution_param {
    num_output: 24
    kernel_size: 1
    weight_filler {
      type: "xavier"
      std: 0.2
    }
    bias_filler {
      type: "constant"
      value: 0.2
    }
  }
}
layer {
  name: "inception_4b/relu_5x5_reduce"
  type: "ReLU"
  bottom: "inception_4b/5x5_reduce"
  top: "inception_4b/5x5_reduce"
}
layer {
  name: "inception_4b/5x5"
  type: "Convolution"
  bottom: "inception_4b/5x5_reduce"
  top: "inception_4b/5x5"
  param {
    lr_mult: 1
    decay_mult: 1
  }
  param {
    lr_mult: 2
    decay_mult: 0
  }
  convolution_param {
    num_output: 64
    pad: 2
    kernel_size: 5
    weight_filler {
      type: "xavier"
      std: 0.03
    }
    bias_filler {
      type: "constant"
      value: 0.2
    }
  }
}
layer {
  name: "inception_4b/relu_5x5"
  type: "ReLU"
  bottom: "inception_4b/5x5"
  top: "inception_4b/5x5"
}
layer {
  name: "inception_4b/pool"
  type: "Pooling"
  bottom: "inception_4a/output"
  top: "inception_4b/pool"
  pooling_param {
    pool: MAX
    kernel_size: 3
    stride: 1
    pad: 1
  }
}
layer {
  name: "inception_4b/pool_proj"
  type: "Convolution"
  bottom: "inception_4b/pool"
  top: "inception_4b/pool_proj"
  param {
    lr_mult: 1
    decay_mult: 1
  }
  param {
    lr_mult: 2
    decay_mult: 0
  }
  convolution_param {
    num_output: 64
    kernel_size: 1
    weight_filler {
      type: "xavier"
      std: 0.1
    }
    bias_filler {
      type: "constant"
      value: 0.2
    }
  }
}
layer {
  name: "inception_4b/relu_pool_proj"
  type: "ReLU"
  bottom: "inception_4b/pool_proj"
  top: "inception_4b/pool_proj"
}
layer {
  name: "inception_4b/output"
  type: "Concat"
  bottom: "inception_4b/1x1"
  bottom: "inception_4b/3x3"
  bottom: "inception_4b/5x5"
  bottom: "inception_4b/pool_proj"
  top: "inception_4b/output"
}
layer {
  name: "inception_4c/1x1"
  type: "Convolution"
  bottom: "inception_4b/output"
  top: "inception_4c/1x1"
  param {
    lr_mult: 1
    decay_mult: 1
  }
  param {
    lr_mult: 2
    decay_mult: 0
  }
  convolution_param {
    num_output: 128
    kernel_size: 1
    weight_filler {
      type: "xavier"
      std: 0.03
    }
    bias_filler {
      type: "constant"
      value: 0.2
    }
  }
}
layer {
  name: "inception_4c/relu_1x1"
  type: "ReLU"
  bottom: "inception_4c/1x1"
  top: "inception_4c/1x1"
}
layer {
  name: "inception_4c/3x3_reduce"
  type: "Convolution"
  bottom: "inception_4b/output"
  top: "inception_4c/3x3_reduce"
  param {
    lr_mult: 1
    decay_mult: 1
  }
  param {
    lr_mult: 2
    decay_mult: 0
  }
  convolution_param {
    num_output: 128
    kernel_size: 1
    weight_filler {
      type: "xavier"
      std: 0.09
    }
    bias_filler {
      type: "constant"
      value: 0.2
    }
  }
}
layer {
  name: "inception_4c/relu_3x3_reduce"
  type: "ReLU"
  bottom: "inception_4c/3x3_reduce"
  top: "inception_4c/3x3_reduce"
}
layer {
  name: "inception_4c/3x3"
  type: "Convolution"
  bottom: "inception_4c/3x3_reduce"
  top: "inception_4c/3x3"
  param {
    lr_mult: 1
    decay_mult: 1
  }
  param {
    lr_mult: 2
    decay_mult: 0
  }
  convolution_param {
    num_output: 256
    pad: 1
    kernel_size: 3
    weight_filler {
      type: "xavier"
      std: 0.03
    }
    bias_filler {
      type: "constant"
      value: 0.2
    }
  }
}
layer {
  name: "inception_4c/relu_3x3"
  type: "ReLU"
  bottom: "inception_4c/3x3"
  top: "inception_4c/3x3"
}
layer {
  name: "inception_4c/5x5_reduce"
  type: "Convolution"
  bottom: "inception_4b/output"
  top: "inception_4c/5x5_reduce"
  param {
    lr_mult: 1
    decay_mult: 1
  }
  param {
    lr_mult: 2
    decay_mult: 0
  }
  convolution_param {
    num_output: 24
    kernel_size: 1
    weight_filler {
      type: "xavier"
      std: 0.2
    }
    bias_filler {
      type: "constant"
      value: 0.2
    }
  }
}
layer {
  name: "inception_4c/relu_5x5_reduce"
  type: "ReLU"
  bottom: "inception_4c/5x5_reduce"
  top: "inception_4c/5x5_reduce"
}
layer {
  name: "inception_4c/5x5"
  type: "Convolution"
  bottom: "inception_4c/5x5_reduce"
  top: "inception_4c/5x5"
  param {
    lr_mult: 1
    decay_mult: 1
  }
  param {
    lr_mult: 2
    decay_mult: 0
  }
  convolution_param {
    num_output: 64
    pad: 2
    kernel_size: 5
    weight_filler {
      type: "xavier"
      std: 0.03
    }
    bias_filler {
      type: "constant"
      value: 0.2
    }
  }
}
layer {
  name: "inception_4c/relu_5x5"
  type: "ReLU"
  bottom: "inception_4c/5x5"
  top: "inception_4c/5x5"
}
layer {
  name: "inception_4c/pool"
  type: "Pooling"
  bottom: "inception_4b/output"
  top: "inception_4c/pool"
  pooling_param {
    pool: MAX
    kernel_size: 3
    stride: 1
    pad: 1
  }
}
layer {
  name: "inception_4c/pool_proj"
  type: "Convolution"
  bottom: "inception_4c/pool"
  top: "inception_4c/pool_proj"
  param {
    lr_mult: 1
    decay_mult: 1
  }
  param {
    lr_mult: 2
    decay_mult: 0
  }
  convolution_param {
    num_output: 64
    kernel_size: 1
    weight_filler {
      type: "xavier"
      std: 0.1
    }
    bias_filler {
      type: "constant"
      value: 0.2
    }
  }
}
layer {
  name: "inception_4c/relu_pool_proj"
  type: "ReLU"
  bottom: "inception_4c/pool_proj"
  top: "inception_4c/pool_proj"
}
layer {
  name: "inception_4c/output"
  type: "Concat"
  bottom: "inception_4c/1x1"
  bottom: "inception_4c/3x3"
  bottom: "inception_4c/5x5"
  bottom: "inception_4c/pool_proj"
  top: "inception_4c/output"
}
layer {
  name: "inception_4d/1x1"
  type: "Convolution"
  bottom: "inception_4c/output"
  top: "inception_4d/1x1"
  param {
    lr_mult: 1
    decay_mult: 1
  }
  param {
    lr_mult: 2
    decay_mult: 0
  }
  convolution_param {
    num_output: 112
    kernel_size: 1
    weight_filler {
      type: "xavier"
      std: 0.03
    }
    bias_filler {
      type: "constant"
      value: 0.2
    }
  }
}
layer {
  name: "inception_4d/relu_1x1"
  type: "ReLU"
  bottom: "inception_4d/1x1"
  top: "inception_4d/1x1"
}
layer {
  name: "inception_4d/3x3_reduce"
  type: "Convolution"
  bottom: "inception_4c/output"
  top: "inception_4d/3x3_reduce"
  param {
    lr_mult: 1
    decay_mult: 1
  }
  param {
    lr_mult: 2
    decay_mult: 0
  }
  convolution_param {
    num_output: 144
    kernel_size: 1
    weight_filler {
      type: "xavier"
      std: 0.09
    }
    bias_filler {
      type: "constant"
      value: 0.2
    }
  }
}
layer {
  name: "inception_4d/relu_3x3_reduce"
  type: "ReLU"
  bottom: "inception_4d/3x3_reduce"
  top: "inception_4d/3x3_reduce"
}
layer {
  name: "inception_4d/3x3"
  type: "Convolution"
  bottom: "inception_4d/3x3_reduce"
  top: "inception_4d/3x3"
  param {
    lr_mult: 1
    decay_mult: 1
  }
  param {
    lr_mult: 2
    decay_mult: 0
  }
  convolution_param {
    num_output: 288
    pad: 1
    kernel_size: 3
    weight_filler {
      type: "xavier"
      std: 0.03
    }
    bias_filler {
      type: "constant"
      value: 0.2
    }
  }
}
layer {
  name: "inception_4d/relu_3x3"
  type: "ReLU"
  bottom: "inception_4d/3x3"
  top: "inception_4d/3x3"
}
layer {
  name: "inception_4d/5x5_reduce"
  type: "Convolution"
  bottom: "inception_4c/output"
  top: "inception_4d/5x5_reduce"
  param {
    lr_mult: 1
    decay_mult: 1
  }
  param {
    lr_mult: 2
    decay_mult: 0
  }
  convolution_param {
    num_output: 32
    kernel_size: 1
    weight_filler {
      type: "xavier"
      std: 0.2
    }
    bias_filler {
      type: "constant"
      value: 0.2
    }
  }
}
layer {
  name: "inception_4d/relu_5x5_reduce"
  type: "ReLU"
  bottom: "inception_4d/5x5_reduce"
  top: "inception_4d/5x5_reduce"
}
layer {
  name: "inception_4d/5x5"
  type: "Convolution"
  bottom: "inception_4d/5x5_reduce"
  top: "inception_4d/5x5"
  param {
    lr_mult: 1
    decay_mult: 1
  }
  param {
    lr_mult: 2
    decay_mult: 0
  }
  convolution_param {
    num_output: 64
    pad: 2
    kernel_size: 5
    weight_filler {
      type: "xavier"
      std: 0.03
    }
    bias_filler {
      type: "constant"
      value: 0.2
    }
  }
}
layer {
  name: "inception_4d/relu_5x5"
  type: "ReLU"
  bottom: "inception_4d/5x5"
  top: "inception_4d/5x5"
}
layer {
  name: "inception_4d/pool"
  type: "Pooling"
  bottom: "inception_4c/output"
  top: "inception_4d/pool"
  pooling_param {
    pool: MAX
    kernel_size: 3
    stride: 1
    pad: 1
  }
}
layer {
  name: "inception_4d/pool_proj"
  type: "Convolution"
  bottom: "inception_4d/pool"
  top: "inception_4d/pool_proj"
  param {
    lr_mult: 1
    decay_mult: 1
  }
  param {
    lr_mult: 2
    decay_mult: 0
  }
  convolution_param {
    num_output: 64
    kernel_size: 1
    weight_filler {
      type: "xavier"
      std: 0.1
    }
    bias_filler {
      type: "constant"
      value: 0.2
    }
  }
}
layer {
  name: "inception_4d/relu_pool_proj"
  type: "ReLU"
  bottom: "inception_4d/pool_proj"
  top: "inception_4d/pool_proj"
}
layer {
  name: "inception_4d/output"
  type: "Concat"
  bottom: "inception_4d/1x1"
  bottom: "inception_4d/3x3"
  bottom: "inception_4d/5x5"
  bottom: "inception_4d/pool_proj"
  top: "inception_4d/output"
}
layer {
  name: "inception_4e/1x1"
  type: "Convolution"
  bottom: "inception_4d/output"
  top: "inception_4e/1x1"
  param {
    lr_mult: 1
    decay_mult: 1
  }
  param {
    lr_mult: 2
    decay_mult: 0
  }
  convolution_param {
    num_output: 256
    kernel_size: 1
    weight_filler {
      type: "xavier"
      std: 0.03
    }
    bias_filler {
      type: "constant"
      value: 0.2
    }
  }
}
layer {
  name: "inception_4e/relu_1x1"
  type: "ReLU"
  bottom: "inception_4e/1x1"
  top: "inception_4e/1x1"
}
layer {
  name: "inception_4e/3x3_reduce"
  type: "Convolution"
  bottom: "inception_4d/output"
  top: "inception_4e/3x3_reduce"
  param {
    lr_mult: 1
    decay_mult: 1
  }
  param {
    lr_mult: 2
    decay_mult: 0
  }
  convolution_param {
    num_output: 160
    kernel_size: 1
    weight_filler {
      type: "xavier"
      std: 0.09
    }
    bias_filler {
      type: "constant"
      value: 0.2
    }
  }
}
layer {
  name: "inception_4e/relu_3x3_reduce"
  type: "ReLU"
  bottom: "inception_4e/3x3_reduce"
  top: "inception_4e/3x3_reduce"
}
layer {
  name: "inception_4e/3x3"
  type: "Convolution"
  bottom: "inception_4e/3x3_reduce"
  top: "inception_4e/3x3"
  param {
    lr_mult: 1
    decay_mult: 1
  }
  param {
    lr_mult: 2
    decay_mult: 0
  }
  convolution_param {
    num_output: 320
    pad: 1
    kernel_size: 3
    weight_filler {
      type: "xavier"
      std: 0.03
    }
    bias_filler {
      type: "constant"
      value: 0.2
    }
  }
}
layer {
  name: "inception_4e/relu_3x3"
  type: "ReLU"
  bottom: "inception_4e/3x3"
  top: "inception_4e/3x3"
}
layer {
  name: "inception_4e/5x5_reduce"
  type: "Convolution"
  bottom: "inception_4d/output"
  top: "inception_4e/5x5_reduce"
  param {
    lr_mult: 1
    decay_mult: 1
  }
  param {
    lr_mult: 2
    decay_mult: 0
  }
  convolution_param {
    num_output: 32
    kernel_size: 1
    weight_filler {
      type: "xavier"
      std: 0.2
    }
    bias_filler {
      type: "constant"
      value: 0.2
    }
  }
}
layer {
  name: "inception_4e/relu_5x5_reduce"
  type: "ReLU"
  bottom: "inception_4e/5x5_reduce"
  top: "inception_4e/5x5_reduce"
}
layer {
  name: "inception_4e/5x5"
  type: "Convolution"
  bottom: "inception_4e/5x5_reduce"
  top: "inception_4e/5x5"
  param {
    lr_mult: 1
    decay_mult: 1
  }
  param {
    lr_mult: 2
    decay_mult: 0
  }
  convolution_param {
    num_output: 128
    pad: 2
    kernel_size: 5
    weight_filler {
      type: "xavier"
      std: 0.03
    }
    bias_filler {
      type: "constant"
      value: 0.2
    }
  }
}
layer {
  name: "inception_4e/relu_5x5"
  type: "ReLU"
  bottom: "inception_4e/5x5"
  top: "inception_4e/5x5"
}
layer {
  name: "inception_4e/pool"
  type: "Pooling"
  bottom: "inception_4d/output"
  top: "inception_4e/pool"
  pooling_param {
    pool: MAX
    kernel_size: 3
    stride: 1
    pad: 1
  }
}
layer {
  name: "inception_4e/pool_proj"
  type: "Convolution"
  bottom: "inception_4e/pool"
  top: "inception_4e/pool_proj"
  param {
    lr_mult: 1
    decay_mult: 1
  }
  param {
    lr_mult: 2
    decay_mult: 0
  }
  convolution_param {
    num_output: 128
    kernel_size: 1
    weight_filler {
      type: "xavier"
      std: 0.1
    }
    bias_filler {
      type: "constant"
      value: 0.2
    }
  }
}
layer {
  name: "inception_4e/relu_pool_proj"
  type: "ReLU"
  bottom: "inception_4e/pool_proj"
  top: "inception_4e/pool_proj"
}
layer {
  name: "inception_4e/output"
  type: "Concat"
  bottom: "inception_4e/1x1"
  bottom: "inception_4e/3x3"
  bottom: "inception_4e/5x5"
  bottom: "inception_4e/pool_proj"
  top: "inception_4e/output"
}
layer {
  name: "pool4/3x3_s2"
  type: "Pooling"
  bottom: "inception_4e/output"
  top: "pool4/3x3_s2"
  pooling_param {
    pool: MAX
    kernel_size: 3
    stride: 2
  }
}
layer {
  name: "inception_5a/1x1"
  type: "Convolution"
  bottom: "pool4/3x3_s2"
  top: "inception_5a/1x1"
  param {
    lr_mult: 1
    decay_mult: 1
  }
  param {
    lr_mult: 2
    decay_mult: 0
  }
  convolution_param {
    num_output: 256
    kernel_size: 1
    weight_filler {
      type: "xavier"
      std: 0.03
    }
    bias_filler {
      type: "constant"
      value: 0.2
    }
  }
}
layer {
  name: "inception_5a/relu_1x1"
  type: "ReLU"
  bottom: "inception_5a/1x1"
  top: "inception_5a/1x1"
}
layer {
  name: "inception_5a/3x3_reduce"
  type: "Convolution"
  bottom: "pool4/3x3_s2"
  top: "inception_5a/3x3_reduce"
  param {
    lr_mult: 1
    decay_mult: 1
  }
  param {
    lr_mult: 2
    decay_mult: 0
  }
  convolution_param {
    num_output: 160
    kernel_size: 1
    weight_filler {
      type: "xavier"
      std: 0.09
    }
    bias_filler {
      type: "constant"
      value: 0.2
    }
  }
}
layer {
  name: "inception_5a/relu_3x3_reduce"
  type: "ReLU"
  bottom: "inception_5a/3x3_reduce"
  top: "inception_5a/3x3_reduce"
}
layer {
  name: "inception_5a/3x3"
  type: "Convolution"
  bottom: "inception_5a/3x3_reduce"
  top: "inception_5a/3x3"
  param {
    lr_mult: 1
    decay_mult: 1
  }
  param {
    lr_mult: 2
    decay_mult: 0
  }
  convolution_param {
    num_output: 320
    pad: 1
    kernel_size: 3
    weight_filler {
      type: "xavier"
      std: 0.03
    }
    bias_filler {
      type: "constant"
      value: 0.2
    }
  }
}
layer {
  name: "inception_5a/relu_3x3"
  type: "ReLU"
  bottom: "inception_5a/3x3"
  top: "inception_5a/3x3"
}
layer {
  name: "inception_5a/5x5_reduce"
  type: "Convolution"
  bottom: "pool4/3x3_s2"
  top: "inception_5a/5x5_reduce"
  param {
    lr_mult: 1
    decay_mult: 1
  }
  param {
    lr_mult: 2
    decay_mult: 0
  }
  convolution_param {
    num_output: 32
    kernel_size: 1
    weight_filler {
      type: "xavier"
      std: 0.2
    }
    bias_filler {
      type: "constant"
      value: 0.2
    }
I0913 19:47:19.532819 28639 layer_factory.hpp:77] Creating layer data
I0913 19:47:19.532850 28639 net.cpp:91] Creating Layer data
I0913 19:47:19.532860 28639 net.cpp:399] data -> data
I0913 19:47:20.045474 28639 net.cpp:141] Setting up data
I0913 19:47:20.045547 28639 net.cpp:148] Top shape: 10 3 224 224 (1505280)
I0913 19:47:20.045553 28639 net.cpp:156] Memory required for data: 6021120
I0913 19:47:20.045575 28639 layer_factory.hpp:77] Creating layer conv1/7x7_s2
I0913 19:47:20.045620 28639 net.cpp:91] Creating Layer conv1/7x7_s2
I0913 19:47:20.045631 28639 net.cpp:425] conv1/7x7_s2 <- data
I0913 19:47:20.045646 28639 net.cpp:399] conv1/7x7_s2 -> conv1/7x7_s2
I0913 19:47:20.224481 28639 net.cpp:141] Setting up conv1/7x7_s2
I0913 19:47:20.224530 28639 net.cpp:148] Top shape: 10 64 112 112 (8028160)
I0913 19:47:20.224537 28639 net.cpp:156] Memory required for data: 38133760
I0913 19:47:20.224565 28639 layer_factory.hpp:77] Creating layer conv1/relu_7x7
I0913 19:47:20.224586 28639 net.cpp:91] Creating Layer conv1/relu_7x7
I0913 19:47:20.224593 28639 net.cpp:425] conv1/relu_7x7 <- conv1/7x7_s2
I0913 19:47:20.224601 28639 net.cpp:386] conv1/relu_7x7 -> conv1/7x7_s2 (in-place)
I0913 19:47:20.225011 28639 net.cpp:141] Setting up conv1/relu_7x7
I0913 19:47:20.225023 28639 net.cpp:148] Top shape: 10 64 112 112 (8028160)
I0913 19:47:20.225028 28639 net.cpp:156] Memory required for data: 70246400
I0913 19:47:20.225033 28639 layer_factory.hpp:77] Creating layer pool1/3x3_s2
I0913 19:47:20.225046 28639 net.cpp:91] Creating Layer pool1/3x3_s2
I0913 19:47:20.225051 28639 net.cpp:425] pool1/3x3_s2 <- conv1/7x7_s2
I0913 19:47:20.225061 28639 net.cpp:399] pool1/3x3_s2 -> pool1/3x3_s2
I0913 19:47:20.225136 28639 net.cpp:141] Setting up pool1/3x3_s2
I0913 19:47:20.225147 28639 net.cpp:148] Top shape: 10 64 56 56 (2007040)
I0913 19:47:20.225150 28639 net.cpp:156] Memory required for data: 78274560
I0913 19:47:20.225155 28639 layer_factory.hpp:77] Creating layer pool1/norm1
I0913 19:47:20.225178 28639 net.cpp:91] Creating Layer pool1/norm1
I0913 19:47:20.225183 28639 net.cpp:425] pool1/norm1 <- pool1/3x3_s2
I0913 19:47:20.225190 28639 net.cpp:399] pool1/norm1 -> pool1/norm1
I0913 19:47:20.225463 28639 net.cpp:141] Setting up pool1/norm1
I0913 19:47:20.225476 28639 net.cpp:148] Top shape: 10 64 56 56 (2007040)
I0913 19:47:20.225481 28639 net.cpp:156] Memory required for data: 86302720
I0913 19:47:20.225486 28639 layer_factory.hpp:77] Creating layer conv2/3x3_reduce
I0913 19:47:20.225509 28639 net.cpp:91] Creating Layer conv2/3x3_reduce
I0913 19:47:20.225514 28639 net.cpp:425] conv2/3x3_reduce <- pool1/norm1
I0913 19:47:20.225522 28639 net.cpp:399] conv2/3x3_reduce -> conv2/3x3_reduce
I0913 19:47:20.227589 28639 net.cpp:141] Setting up conv2/3x3_reduce
I0913 19:47:20.227607 28639 net.cpp:148] Top shape: 10 64 56 56 (2007040)
I0913 19:47:20.227612 28639 net.cpp:156] Memory required for data: 94330880
I0913 19:47:20.227628 28639 layer_factory.hpp:77] Creating layer conv2/relu_3x3_reduce
I0913 19:47:20.227636 28639 net.cpp:91] Creating Layer conv2/relu_3x3_reduce
I0913 19:47:20.227643 28639 net.cpp:425] conv2/relu_3x3_reduce <- conv2/3x3_reduce
I0913 19:47:20.227648 28639 net.cpp:386] conv2/relu_3x3_reduce -> conv2/3x3_reduce (in-place)
I0913 19:47:20.228034 28639 net.cpp:141] Setting up conv2/relu_3x3_reduce
I0913 19:47:20.228049 28639 net.cpp:148] Top shape: 10 64 56 56 (2007040)
I0913 19:47:20.228055 28639 net.cpp:156] Memory required for data: 102359040
I0913 19:47:20.228060 28639 layer_factory.hpp:77] Creating layer conv2/3x3
I0913 19:47:20.228080 28639 net.cpp:91] Creating Layer conv2/3x3
I0913 19:47:20.228086 28639 net.cpp:425] conv2/3x3 <- conv2/3x3_reduce
I0913 19:47:20.228094 28639 net.cpp:399] conv2/3x3 -> conv2/3x3
I0913 19:47:20.231153 28639 net.cpp:141] Setting up conv2/3x3
I0913 19:47:20.231171 28639 net.cpp:148] Top shape: 10 192 56 56 (6021120)
I0913 19:47:20.231176 28639 net.cpp:156] Memory required for data: 126443520
I0913 19:47:20.231191 28639 layer_factory.hpp:77] Creating layer conv2/relu_3x3
I0913 19:47:20.231200 28639 net.cpp:91] Creating Layer conv2/relu_3x3
I0913 19:47:20.231206 28639 net.cpp:425] conv2/relu_3x3 <- conv2/3x3
I0913 19:47:20.231214 28639 net.cpp:386] conv2/relu_3x3 -> conv2/3x3 (in-place)
I0913 19:47:20.231439 28639 net.cpp:141] Setting up conv2/relu_3x3
I0913 19:47:20.231451 28639 net.cpp:148] Top shape: 10 192 56 56 (6021120)
I0913 19:47:20.231456 28639 net.cpp:156] Memory required for data: 150528000
I0913 19:47:20.231459 28639 layer_factory.hpp:77] Creating layer conv2/norm2
I0913 19:47:20.231472 28639 net.cpp:91] Creating Layer conv2/norm2
I0913 19:47:20.231475 28639 net.cpp:425] conv2/norm2 <- conv2/3x3
I0913 19:47:20.231482 28639 net.cpp:399] conv2/norm2 -> conv2/norm2
I0913 19:47:20.231911 28639 net.cpp:141] Setting up conv2/norm2
I0913 19:47:20.231926 28639 net.cpp:148] Top shape: 10 192 56 56 (6021120)
I0913 19:47:20.231931 28639 net.cpp:156] Memory required for data: 174612480
I0913 19:47:20.231936 28639 layer_factory.hpp:77] Creating layer pool2/3x3_s2
I0913 19:47:20.231945 28639 net.cpp:91] Creating Layer pool2/3x3_s2
I0913 19:47:20.231950 28639 net.cpp:425] pool2/3x3_s2 <- conv2/norm2
I0913 19:47:20.231956 28639 net.cpp:399] pool2/3x3_s2 -> pool2/3x3_s2
I0913 19:47:20.232005 28639 net.cpp:141] Setting up pool2/3x3_s2
I0913 19:47:20.232014 28639 net.cpp:148] Top shape: 10 192 28 28 (1505280)
I0913 19:47:20.232018 28639 net.cpp:156] Memory required for data: 180633600
I0913 19:47:20.232023 28639 layer_factory.hpp:77] Creating layer pool2/3x3_s2_pool2/3x3_s2_0_split
I0913 19:47:20.232033 28639 net.cpp:91] Creating Layer pool2/3x3_s2_pool2/3x3_s2_0_split
I0913 19:47:20.232036 28639 net.cpp:425] pool2/3x3_s2_pool2/3x3_s2_0_split <- pool2/3x3_s2
I0913 19:47:20.232045 28639 net.cpp:399] pool2/3x3_s2_pool2/3x3_s2_0_split -> pool2/3x3_s2_pool2/3x3_s2_0_split_0
I0913 19:47:20.232054 28639 net.cpp:399] pool2/3x3_s2_pool2/3x3_s2_0_split -> pool2/3x3_s2_pool2/3x3_s2_0_split_1
I0913 19:47:20.232064 28639 net.cpp:399] pool2/3x3_s2_pool2/3x3_s2_0_split -> pool2/3x3_s2_pool2/3x3_s2_0_split_2
I0913 19:47:20.232079 28639 net.cpp:399] pool2/3x3_s2_pool2/3x3_s2_0_split -> pool2/3x3_s2_pool2/3x3_s2_0_split_3
I0913 19:47:20.232151 28639 net.cpp:141] Setting up pool2/3x3_s2_pool2/3x3_s2_0_split
I0913 19:47:20.232161 28639 net.cpp:148] Top shape: 10 192 28 28 (1505280)
I0913 19:47:20.232167 28639 net.cpp:148] Top shape: 10 192 28 28 (1505280)
I0913 19:47:20.232172 28639 net.cpp:148] Top shape: 10 192 28 28 (1505280)
I0913 19:47:20.232177 28639 net.cpp:148] Top shape: 10 192 28 28 (1505280)
I0913 19:47:20.232180 28639 net.cpp:156] Memory required for data: 204718080
I0913 19:47:20.232185 28639 layer_factory.hpp:77] Creating layer inception_3a/1x1
I0913 19:47:20.232199 28639 net.cpp:91] Creating Layer inception_3a/1x1
I0913 19:47:20.232204 28639 net.cpp:425] inception_3a/1x1 <- pool2/3x3_s2_pool2/3x3_s2_0_split_0
I0913 19:47:20.232229 28639 net.cpp:399] inception_3a/1x1 -> inception_3a/1x1
I0913 19:47:20.234176 28639 net.cpp:141] Setting up inception_3a/1x1
I0913 19:47:20.234194 28639 net.cpp:148] Top shape: 10 64 28 28 (501760)
I0913 19:47:20.234200 28639 net.cpp:156] Memory required for data: 206725120
I0913 19:47:20.234208 28639 layer_factory.hpp:77] Creating layer inception_3a/relu_1x1
I0913 19:47:20.234217 28639 net.cpp:91] Creating Layer inception_3a/relu_1x1
I0913 19:47:20.234222 28639 net.cpp:425] inception_3a/relu_1x1 <- inception_3a/1x1
I0913 19:47:20.234232 28639 net.cpp:386] inception_3a/relu_1x1 -> inception_3a/1x1 (in-place)
I0913 19:47:20.234616 28639 net.cpp:141] Setting up inception_3a/relu_1x1
I0913 19:47:20.234628 28639 net.cpp:148] Top shape: 10 64 28 28 (501760)
I0913 19:47:20.234632 28639 net.cpp:156] Memory required for data: 208732160
I0913 19:47:20.234637 28639 layer_factory.hpp:77] Creating layer inception_3a/3x3_reduce
I0913 19:47:20.234652 28639 net.cpp:91] Creating Layer inception_3a/3x3_reduce
I0913 19:47:20.234658 28639 net.cpp:425] inception_3a/3x3_reduce <- pool2/3x3_s2_pool2/3x3_s2_0_split_1
I0913 19:47:20.234670 28639 net.cpp:399] inception_3a/3x3_reduce -> inception_3a/3x3_reduce
I0913 19:47:20.237121 28639 net.cpp:141] Setting up inception_3a/3x3_reduce
I0913 19:47:20.237143 28639 net.cpp:148] Top shape: 10 96 28 28 (752640)
I0913 19:47:20.237149 28639 net.cpp:156] Memory required for data: 211742720
I0913 19:47:20.237161 28639 layer_factory.hpp:77] Creating layer inception_3a/relu_3x3_reduce
I0913 19:47:20.237169 28639 net.cpp:91] Creating Layer inception_3a/relu_3x3_reduce
I0913 19:47:20.237174 28639 net.cpp:425] inception_3a/relu_3x3_reduce <- inception_3a/3x3_reduce
I0913 19:47:20.237181 28639 net.cpp:386] inception_3a/relu_3x3_reduce -> inception_3a/3x3_reduce (in-place)
I0913 19:47:20.237416 28639 net.cpp:141] Setting up inception_3a/relu_3x3_reduce
I0913 19:47:20.237426 28639 net.cpp:148] Top shape: 10 96 28 28 (752640)
I0913 19:47:20.237431 28639 net.cpp:156] Memory required for data: 214753280
I0913 19:47:20.237435 28639 layer_factory.hpp:77] Creating layer inception_3a/3x3
I0913 19:47:20.237454 28639 net.cpp:91] Creating Layer inception_3a/3x3
I0913 19:47:20.237460 28639 net.cpp:425] inception_3a/3x3 <- inception_3a/3x3_reduce
I0913 19:47:20.237468 28639 net.cpp:399] inception_3a/3x3 -> inception_3a/3x3
I0913 19:47:20.239650 28639 net.cpp:141] Setting up inception_3a/3x3
I0913 19:47:20.239667 28639 net.cpp:148] Top shape: 10 128 28 28 (1003520)
I0913 19:47:20.239672 28639 net.cpp:156] Memory required for data: 218767360
I0913 19:47:20.239681 28639 layer_factory.hpp:77] Creating layer inception_3a/relu_3x3
I0913 19:47:20.239689 28639 net.cpp:91] Creating Layer inception_3a/relu_3x3
I0913 19:47:20.239694 28639 net.cpp:425] inception_3a/relu_3x3 <- inception_3a/3x3
I0913 19:47:20.239704 28639 net.cpp:386] inception_3a/relu_3x3 -> inception_3a/3x3 (in-place)
I0913 19:47:20.240106 28639 net.cpp:141] Setting up inception_3a/relu_3x3
I0913 19:47:20.240119 28639 net.cpp:148] Top shape: 10 128 28 28 (1003520)
I0913 19:47:20.240123 28639 net.cpp:156] Memory required for data: 222781440
I0913 19:47:20.240128 28639 layer_factory.hpp:77] Creating layer inception_3a/5x5_reduce
I0913 19:47:20.240145 28639 net.cpp:91] Creating Layer inception_3a/5x5_reduce
I0913 19:47:20.240151 28639 net.cpp:425] inception_3a/5x5_reduce <- pool2/3x3_s2_pool2/3x3_s2_0_split_2
I0913 19:47:20.240159 28639 net.cpp:399] inception_3a/5x5_reduce -> inception_3a/5x5_reduce
I0913 19:47:20.241375 28639 net.cpp:141] Setting up inception_3a/5x5_reduce
I0913 19:47:20.241391 28639 net.cpp:148] Top shape: 10 16 28 28 (125440)
I0913 19:47:20.241396 28639 net.cpp:156] Memory required for data: 223283200
I0913 19:47:20.241405 28639 layer_factory.hpp:77] Creating layer inception_3a/relu_5x5_reduce
I0913 19:47:20.241417 28639 net.cpp:91] Creating Layer inception_3a/relu_5x5_reduce
I0913 19:47:20.241423 28639 net.cpp:425] inception_3a/relu_5x5_reduce <- inception_3a/5x5_reduce
I0913 19:47:20.241430 28639 net.cpp:386] inception_3a/relu_5x5_reduce -> inception_3a/5x5_reduce (in-place)
I0913 19:47:20.241816 28639 net.cpp:141] Setting up inception_3a/relu_5x5_reduce
I0913 19:47:20.241827 28639 net.cpp:148] Top shape: 10 16 28 28 (125440)
I0913 19:47:20.241832 28639 net.cpp:156] Memory required for data: 223784960
I0913 19:47:20.241837 28639 layer_factory.hpp:77] Creating layer inception_3a/5x5
I0913 19:47:20.241854 28639 net.cpp:91] Creating Layer inception_3a/5x5
I0913 19:47:20.241860 28639 net.cpp:425] inception_3a/5x5 <- inception_3a/5x5_reduce
I0913 19:47:20.241868 28639 net.cpp:399] inception_3a/5x5 -> inception_3a/5x5
I0913 19:47:20.243804 28639 net.cpp:141] Setting up inception_3a/5x5
I0913 19:47:20.243823 28639 net.cpp:148] Top shape: 10 32 28 28 (250880)
I0913 19:47:20.243826 28639 net.cpp:156] Memory required for data: 224788480
I0913 19:47:20.243835 28639 layer_factory.hpp:77] Creating layer inception_3a/relu_5x5
I0913 19:47:20.243844 28639 net.cpp:91] Creating Layer inception_3a/relu_5x5
I0913 19:47:20.243849 28639 net.cpp:425] inception_3a/relu_5x5 <- inception_3a/5x5
I0913 19:47:20.243858 28639 net.cpp:386] inception_3a/relu_5x5 -> inception_3a/5x5 (in-place)
I0913 19:47:20.244092 28639 net.cpp:141] Setting up inception_3a/relu_5x5
I0913 19:47:20.244104 28639 net.cpp:148] Top shape: 10 32 28 28 (250880)
I0913 19:47:20.244108 28639 net.cpp:156] Memory required for data: 225792000
I0913 19:47:20.244113 28639 layer_factory.hpp:77] Creating layer inception_3a/pool
I0913 19:47:20.244127 28639 net.cpp:91] Creating Layer inception_3a/pool
I0913 19:47:20.244132 28639 net.cpp:425] inception_3a/pool <- pool2/3x3_s2_pool2/3x3_s2_0_split_3
I0913 19:47:20.244138 28639 net.cpp:399] inception_3a/pool -> inception_3a/pool
I0913 19:47:20.244197 28639 net.cpp:141] Setting up inception_3a/pool
I0913 19:47:20.244206 28639 net.cpp:148] Top shape: 10 192 28 28 (1505280)
I0913 19:47:20.244210 28639 net.cpp:156] Memory required for data: 231813120
I0913 19:47:20.244215 28639 layer_factory.hpp:77] Creating layer inception_3a/pool_proj
I0913 19:47:20.244228 28639 net.cpp:91] Creating Layer inception_3a/pool_proj
I0913 19:47:20.244233 28639 net.cpp:425] inception_3a/pool_proj <- inception_3a/pool
I0913 19:47:20.244245 28639 net.cpp:399] inception_3a/pool_proj -> inception_3a/pool_proj
I0913 19:47:20.245676 28639 net.cpp:141] Setting up inception_3a/pool_proj
I0913 19:47:20.245702 28639 net.cpp:148] Top shape: 10 32 28 28 (250880)
I0913 19:47:20.245707 28639 net.cpp:156] Memory required for data: 232816640
I0913 19:47:20.245723 28639 layer_factory.hpp:77] Creating layer inception_3a/relu_pool_proj
I0913 19:47:20.245733 28639 net.cpp:91] Creating Layer inception_3a/relu_pool_proj
I0913 19:47:20.245738 28639 net.cpp:425] inception_3a/relu_pool_proj <- inception_3a/pool_proj
I0913 19:47:20.245749 28639 net.cpp:386] inception_3a/relu_pool_proj -> inception_3a/pool_proj (in-place)
I0913 19:47:20.246142 28639 net.cpp:141] Setting up inception_3a/relu_pool_proj
I0913 19:47:20.246155 28639 net.cpp:148] Top shape: 10 32 28 28 (250880)
I0913 19:47:20.246160 28639 net.cpp:156] Memory required for data: 233820160
I0913 19:47:20.246165 28639 layer_factory.hpp:77] Creating layer inception_3a/output
I0913 19:47:20.246184 28639 net.cpp:91] Creating Layer inception_3a/output
I0913 19:47:20.246189 28639 net.cpp:425] inception_3a/output <- inception_3a/1x1
I0913 19:47:20.246196 28639 net.cpp:425] inception_3a/output <- inception_3a/3x3
I0913 19:47:20.246201 28639 net.cpp:425] inception_3a/output <- inception_3a/5x5
I0913 19:47:20.246206 28639 net.cpp:425] inception_3a/output <- inception_3a/pool_proj
I0913 19:47:20.246217 28639 net.cpp:399] inception_3a/output -> inception_3a/output
I0913 19:47:20.246258 28639 net.cpp:141] Setting up inception_3a/output
I0913 19:47:20.246266 28639 net.cpp:148] Top shape: 10 256 28 28 (2007040)
I0913 19:47:20.246270 28639 net.cpp:156] Memory required for data: 241848320
I0913 19:47:20.246274 28639 layer_factory.hpp:77] Creating layer inception_3a/output_inception_3a/output_0_split
I0913 19:47:20.246284 28639 net.cpp:91] Creating Layer inception_3a/output_inception_3a/output_0_split
I0913 19:47:20.246287 28639 net.cpp:425] inception_3a/output_inception_3a/output_0_split <- inception_3a/output
I0913 19:47:20.246294 28639 net.cpp:399] inception_3a/output_inception_3a/output_0_split -> inception_3a/output_inception_3a/output_0_split_0
I0913 19:47:20.246306 28639 net.cpp:399] inception_3a/output_inception_3a/output_0_split -> inception_3a/output_inception_3a/output_0_split_1
I0913 19:47:20.246315 28639 net.cpp:399] inception_3a/output_inception_3a/output_0_split -> inception_3a/output_inception_3a/output_0_split_2
I0913 19:47:20.246323 28639 net.cpp:399] inception_3a/output_inception_3a/output_0_split -> inception_3a/output_inception_3a/output_0_split_3
I0913 19:47:20.246405 28639 net.cpp:141] Setting up inception_3a/output_inception_3a/output_0_split
I0913 19:47:20.246414 28639 net.cpp:148] Top shape: 10 256 28 28 (2007040)
I0913 19:47:20.246420 28639 net.cpp:148] Top shape: 10 256 28 28 (2007040)
I0913 19:47:20.246425 28639 net.cpp:148] Top shape: 10 256 28 28 (2007040)
I0913 19:47:20.246430 28639 net.cpp:148] Top shape: 10 256 28 28 (2007040)
I0913 19:47:20.246434 28639 net.cpp:156] Memory required for data: 273960960
I0913 19:47:20.246438 28639 layer_factory.hpp:77] Creating layer inception_3b/1x1
I0913 19:47:20.246456 28639 net.cpp:91] Creating Layer inception_3b/1x1
I0913 19:47:20.246461 28639 net.cpp:425] inception_3b/1x1 <- inception_3a/output_inception_3a/output_0_split_0
I0913 19:47:20.246469 28639 net.cpp:399] inception_3b/1x1 -> inception_3b/1x1
I0913 19:47:20.247862 28639 net.cpp:141] Setting up inception_3b/1x1
I0913 19:47:20.247875 28639 net.cpp:148] Top shape: 10 128 28 28 (1003520)
I0913 19:47:20.247880 28639 net.cpp:156] Memory required for data: 277975040
I0913 19:47:20.247889 28639 layer_factory.hpp:77] Creating layer inception_3b/relu_1x1
I0913 19:47:20.247900 28639 net.cpp:91] Creating Layer inception_3b/relu_1x1
I0913 19:47:20.247906 28639 net.cpp:425] inception_3b/relu_1x1 <- inception_3b/1x1
I0913 19:47:20.247913 28639 net.cpp:386] inception_3b/relu_1x1 -> inception_3b/1x1 (in-place)
I0913 19:47:20.248303 28639 net.cpp:141] Setting up inception_3b/relu_1x1
I0913 19:47:20.248317 28639 net.cpp:148] Top shape: 10 128 28 28 (1003520)
I0913 19:47:20.248320 28639 net.cpp:156] Memory required for data: 281989120
I0913 19:47:20.248325 28639 layer_factory.hpp:77] Creating layer inception_3b/3x3_reduce
I0913 19:47:20.248343 28639 net.cpp:91] Creating Layer inception_3b/3x3_reduce
I0913 19:47:20.248349 28639 net.cpp:425] inception_3b/3x3_reduce <- inception_3a/output_inception_3a/output_0_split_1
I0913 19:47:20.248358 28639 net.cpp:399] inception_3b/3x3_reduce -> inception_3b/3x3_reduce
I0913 19:47:20.249958 28639 net.cpp:141] Setting up inception_3b/3x3_reduce
I0913 19:47:20.249975 28639 net.cpp:148] Top shape: 10 128 28 28 (1003520)
I0913 19:47:20.249980 28639 net.cpp:156] Memory required for data: 286003200
I0913 19:47:20.249989 28639 layer_factory.hpp:77] Creating layer inception_3b/relu_3x3_reduce
I0913 19:47:20.250000 28639 net.cpp:91] Creating Layer inception_3b/relu_3x3_reduce
I0913 19:47:20.250005 28639 net.cpp:425] inception_3b/relu_3x3_reduce <- inception_3b/3x3_reduce
I0913 19:47:20.250012 28639 net.cpp:386] inception_3b/relu_3x3_reduce -> inception_3b/3x3_reduce (in-place)
I0913 19:47:20.250231 28639 net.cpp:141] Setting up inception_3b/relu_3x3_reduce
I0913 19:47:20.250241 28639 net.cpp:148] Top shape: 10 128 28 28 (1003520)
I0913 19:47:20.250246 28639 net.cpp:156] Memory required for data: 290017280
I0913 19:47:20.250250 28639 layer_factory.hpp:77] Creating layer inception_3b/3x3
I0913 19:47:20.250267 28639 net.cpp:91] Creating Layer inception_3b/3x3
I0913 19:47:20.250272 28639 net.cpp:425] inception_3b/3x3 <- inception_3b/3x3_reduce
I0913 19:47:20.250280 28639 net.cpp:399] inception_3b/3x3 -> inception_3b/3x3
I0913 19:47:20.254030 28639 net.cpp:141] Setting up inception_3b/3x3
I0913 19:47:20.254050 28639 net.cpp:148] Top shape: 10 192 28 28 (1505280)
I0913 19:47:20.254055 28639 net.cpp:156] Memory required for data: 296038400
I0913 19:47:20.254065 28639 layer_factory.hpp:77] Creating layer inception_3b/relu_3x3
I0913 19:47:20.254081 28639 net.cpp:91] Creating Layer inception_3b/relu_3x3
I0913 19:47:20.254087 28639 net.cpp:425] inception_3b/relu_3x3 <- inception_3b/3x3
I0913 19:47:20.254094 28639 net.cpp:386] inception_3b/relu_3x3 -> inception_3b/3x3 (in-place)
I0913 19:47:20.254487 28639 net.cpp:141] Setting up inception_3b/relu_3x3
I0913 19:47:20.254498 28639 net.cpp:148] Top shape: 10 192 28 28 (1505280)
I0913 19:47:20.254503 28639 net.cpp:156] Memory required for data: 302059520
I0913 19:47:20.254508 28639 layer_factory.hpp:77] Creating layer inception_3b/5x5_reduce
I0913 19:47:20.254525 28639 net.cpp:91] Creating Layer inception_3b/5x5_reduce
I0913 19:47:20.254531 28639 net.cpp:425] inception_3b/5x5_reduce <- inception_3a/output_inception_3a/output_0_split_2
I0913 19:47:20.254540 28639 net.cpp:399] inception_3b/5x5_reduce -> inception_3b/5x5_reduce
I0913 19:47:20.255770 28639 net.cpp:141] Setting up inception_3b/5x5_reduce
I0913 19:47:20.255786 28639 net.cpp:148] Top shape: 10 32 28 28 (250880)
I0913 19:47:20.255791 28639 net.cpp:156] Memory required for data: 303063040
I0913 19:47:20.255800 28639 layer_factory.hpp:77] Creating layer inception_3b/relu_5x5_reduce
I0913 19:47:20.255810 28639 net.cpp:91] Creating Layer inception_3b/relu_5x5_reduce
I0913 19:47:20.255817 28639 net.cpp:425] inception_3b/relu_5x5_reduce <- inception_3b/5x5_reduce
I0913 19:47:20.255825 28639 net.cpp:386] inception_3b/relu_5x5_reduce -> inception_3b/5x5_reduce (in-place)
I0913 19:47:20.256225 28639 net.cpp:141] Setting up inception_3b/relu_5x5_reduce
I0913 19:47:20.256242 28639 net.cpp:148] Top shape: 10 32 28 28 (250880)
I0913 19:47:20.256247 28639 net.cpp:156] Memory required for data: 304066560
I0913 19:47:20.256252 28639 layer_factory.hpp:77] Creating layer inception_3b/5x5
I0913 19:47:20.256265 28639 net.cpp:91] Creating Layer inception_3b/5x5
I0913 19:47:20.256270 28639 net.cpp:425] inception_3b/5x5 <- inception_3b/5x5_reduce
I0913 19:47:20.256279 28639 net.cpp:399] inception_3b/5x5 -> inception_3b/5x5
I0913 19:47:20.258913 28639 net.cpp:141] Setting up inception_3b/5x5
I0913 19:47:20.258930 28639 net.cpp:148] Top shape: 10 96 28 28 (752640)
I0913 19:47:20.258935 28639 net.cpp:156] Memory required for data: 307077120
I0913 19:47:20.258944 28639 layer_factory.hpp:77] Creating layer inception_3b/relu_5x5
I0913 19:47:20.258955 28639 net.cpp:91] Creating Layer inception_3b/relu_5x5
I0913 19:47:20.258961 28639 net.cpp:425] inception_3b/relu_5x5 <- inception_3b/5x5
I0913 19:47:20.258968 28639 net.cpp:386] inception_3b/relu_5x5 -> inception_3b/5x5 (in-place)
I0913 19:47:20.259191 28639 net.cpp:141] Setting up inception_3b/relu_5x5
I0913 19:47:20.259202 28639 net.cpp:148] Top shape: 10 96 28 28 (752640)
I0913 19:47:20.259205 28639 net.cpp:156] Memory required for data: 310087680
I0913 19:47:20.259210 28639 layer_factory.hpp:77] Creating layer inception_3b/pool
I0913 19:47:20.259220 28639 net.cpp:91] Creating Layer inception_3b/pool
I0913 19:47:20.259227 28639 net.cpp:425] inception_3b/pool <- inception_3a/output_inception_3a/output_0_split_3
I0913 19:47:20.259237 28639 net.cpp:399] inception_3b/pool -> inception_3b/pool
I0913 19:47:20.259294 28639 net.cpp:141] Setting up inception_3b/pool
I0913 19:47:20.259304 28639 net.cpp:148] Top shape: 10 256 28 28 (2007040)
I0913 19:47:20.259307 28639 net.cpp:156] Memory required for data: 318115840
I0913 19:47:20.259311 28639 layer_factory.hpp:77] Creating layer inception_3b/pool_proj
I0913 19:47:20.259330 28639 net.cpp:91] Creating Layer inception_3b/pool_proj
I0913 19:47:20.259335 28639 net.cpp:425] inception_3b/pool_proj <- inception_3b/pool
I0913 19:47:20.259342 28639 net.cpp:399] inception_3b/pool_proj -> inception_3b/pool_proj
I0913 19:47:20.261641 28639 net.cpp:141] Setting up inception_3b/pool_proj
I0913 19:47:20.261683 28639 net.cpp:148] Top shape: 10 64 28 28 (501760)
I0913 19:47:20.261692 28639 net.cpp:156] Memory required for data: 320122880
I0913 19:47:20.261708 28639 layer_factory.hpp:77] Creating layer inception_3b/relu_pool_proj
I0913 19:47:20.261726 28639 net.cpp:91] Creating Layer inception_3b/relu_pool_proj
I0913 19:47:20.261735 28639 net.cpp:425] inception_3b/relu_pool_proj <- inception_3b/pool_proj
I0913 19:47:20.261750 28639 net.cpp:386] inception_3b/relu_pool_proj -> inception_3b/pool_proj (in-place)
I0913 19:47:20.262253 28639 net.cpp:141] Setting up inception_3b/relu_pool_proj
I0913 19:47:20.262269 28639 net.cpp:148] Top shape: 10 64 28 28 (501760)
I0913 19:47:20.262276 28639 net.cpp:156] Memory required for data: 322129920
I0913 19:47:20.262284 28639 layer_factory.hpp:77] Creating layer inception_3b/output
I0913 19:47:20.262296 28639 net.cpp:91] Creating Layer inception_3b/output
I0913 19:47:20.262305 28639 net.cpp:425] inception_3b/output <- inception_3b/1x1
I0913 19:47:20.262313 28639 net.cpp:425] inception_3b/output <- inception_3b/3x3
I0913 19:47:20.262326 28639 net.cpp:425] inception_3b/output <- inception_3b/5x5
I0913 19:47:20.262333 28639 net.cpp:425] inception_3b/output <- inception_3b/pool_proj
I0913 19:47:20.262343 28639 net.cpp:399] inception_3b/output -> inception_3b/output
I0913 19:47:20.262392 28639 net.cpp:141] Setting up inception_3b/output
I0913 19:47:20.262403 28639 net.cpp:148] Top shape: 10 480 28 28 (3763200)
I0913 19:47:20.262410 28639 net.cpp:156] Memory required for data: 337182720
I0913 19:47:20.262418 28639 layer_factory.hpp:77] Creating layer pool3/3x3_s2
I0913 19:47:20.262434 28639 net.cpp:91] Creating Layer pool3/3x3_s2
I0913 19:47:20.262442 28639 net.cpp:425] pool3/3x3_s2 <- inception_3b/output
I0913 19:47:20.262454 28639 net.cpp:399] pool3/3x3_s2 -> pool3/3x3_s2
I0913 19:47:20.262534 28639 net.cpp:141] Setting up pool3/3x3_s2
I0913 19:47:20.262547 28639 net.cpp:148] Top shape: 10 480 14 14 (940800)
I0913 19:47:20.262554 28639 net.cpp:156] Memory required for data: 340945920
I0913 19:47:20.262560 28639 layer_factory.hpp:77] Creating layer pool3/3x3_s2_pool3/3x3_s2_0_split
I0913 19:47:20.262573 28639 net.cpp:91] Creating Layer pool3/3x3_s2_pool3/3x3_s2_0_split
I0913 19:47:20.262579 28639 net.cpp:425] pool3/3x3_s2_pool3/3x3_s2_0_split <- pool3/3x3_s2
I0913 19:47:20.262589 28639 net.cpp:399] pool3/3x3_s2_pool3/3x3_s2_0_split -> pool3/3x3_s2_pool3/3x3_s2_0_split_0
I0913 19:47:20.262604 28639 net.cpp:399] pool3/3x3_s2_pool3/3x3_s2_0_split -> pool3/3x3_s2_pool3/3x3_s2_0_split_1
I0913 19:47:20.262616 28639 net.cpp:399] pool3/3x3_s2_pool3/3x3_s2_0_split -> pool3/3x3_s2_pool3/3x3_s2_0_split_2
I0913 19:47:20.262629 28639 net.cpp:399] pool3/3x3_s2_pool3/3x3_s2_0_split -> pool3/3x3_s2_pool3/3x3_s2_0_split_3
I0913 19:47:20.262730 28639 net.cpp:141] Setting up pool3/3x3_s2_pool3/3x3_s2_0_split
I0913 19:47:20.262743 28639 net.cpp:148] Top shape: 10 480 14 14 (940800)
I0913 19:47:20.262753 28639 net.cpp:148] Top shape: 10 480 14 14 (940800)
I0913 19:47:20.262760 28639 net.cpp:148] Top shape: 10 480 14 14 (940800)
I0913 19:47:20.262768 28639 net.cpp:148] Top shape: 10 480 14 14 (940800)
I0913 19:47:20.262774 28639 net.cpp:156] Memory required for data: 355998720
I0913 19:47:20.262781 28639 layer_factory.hpp:77] Creating layer inception_4a/1x1
I0913 19:47:20.262807 28639 net.cpp:91] Creating Layer inception_4a/1x1
I0913 19:47:20.262815 28639 net.cpp:425] inception_4a/1x1 <- pool3/3x3_s2_pool3/3x3_s2_0_split_0
I0913 19:47:20.262827 28639 net.cpp:399] inception_4a/1x1 -> inception_4a/1x1
I0913 19:47:20.265378 28639 net.cpp:141] Setting up inception_4a/1x1
I0913 19:47:20.265399 28639 net.cpp:148] Top shape: 10 192 14 14 (376320)
I0913 19:47:20.265408 28639 net.cpp:156] Memory required for data: 357504000
I0913 19:47:20.265422 28639 layer_factory.hpp:77] Creating layer inception_4a/relu_1x1
I0913 19:47:20.265439 28639 net.cpp:91] Creating Layer inception_4a/relu_1x1
I0913 19:47:20.265449 28639 net.cpp:425] inception_4a/relu_1x1 <- inception_4a/1x1
I0913 19:47:20.265461 28639 net.cpp:386] inception_4a/relu_1x1 -> inception_4a/1x1 (in-place)
I0913 19:47:20.265872 28639 net.cpp:141] Setting up inception_4a/relu_1x1
I0913 19:47:20.265887 28639 net.cpp:148] Top shape: 10 192 14 14 (376320)
I0913 19:47:20.265892 28639 net.cpp:156] Memory required for data: 359009280
I0913 19:47:20.265897 28639 layer_factory.hpp:77] Creating layer inception_4a/3x3_reduce
I0913 19:47:20.265908 28639 net.cpp:91] Creating Layer inception_4a/3x3_reduce
I0913 19:47:20.265914 28639 net.cpp:425] inception_4a/3x3_reduce <- pool3/3x3_s2_pool3/3x3_s2_0_split_1
I0913 19:47:20.265926 28639 net.cpp:399] inception_4a/3x3_reduce -> inception_4a/3x3_reduce
I0913 19:47:20.268306 28639 net.cpp:141] Setting up inception_4a/3x3_reduce
I0913 19:47:20.268342 28639 net.cpp:148] Top shape: 10 96 14 14 (188160)
I0913 19:47:20.268352 28639 net.cpp:156] Memory required for data: 359761920
I0913 19:47:20.268383 28639 layer_factory.hpp:77] Creating layer inception_4a/relu_3x3_reduce
I0913 19:47:20.268400 28639 net.cpp:91] Creating Layer inception_4a/relu_3x3_reduce
I0913 19:47:20.268410 28639 net.cpp:425] inception_4a/relu_3x3_reduce <- inception_4a/3x3_reduce
I0913 19:47:20.268425 28639 net.cpp:386] inception_4a/relu_3x3_reduce -> inception_4a/3x3_reduce (in-place)
I0913 19:47:20.268738 28639 net.cpp:141] Setting up inception_4a/relu_3x3_reduce
I0913 19:47:20.268754 28639 net.cpp:148] Top shape: 10 96 14 14 (188160)
I0913 19:47:20.268760 28639 net.cpp:156] Memory required for data: 360514560
I0913 19:47:20.268767 28639 layer_factory.hpp:77] Creating layer inception_4a/3x3
I0913 19:47:20.268793 28639 net.cpp:91] Creating Layer inception_4a/3x3
I0913 19:47:20.268802 28639 net.cpp:425] inception_4a/3x3 <- inception_4a/3x3_reduce
I0913 19:47:20.268815 28639 net.cpp:399] inception_4a/3x3 -> inception_4a/3x3
I0913 19:47:20.272498 28639 net.cpp:141] Setting up inception_4a/3x3
I0913 19:47:20.272516 28639 net.cpp:148] Top shape: 10 208 14 14 (407680)
I0913 19:47:20.272522 28639 net.cpp:156] Memory required for data: 362145280
I0913 19:47:20.272531 28639 layer_factory.hpp:77] Creating layer inception_4a/relu_3x3
I0913 19:47:20.272542 28639 net.cpp:91] Creating Layer inception_4a/relu_3x3
I0913 19:47:20.272549 28639 net.cpp:425] inception_4a/relu_3x3 <- inception_4a/3x3
I0913 19:47:20.272557 28639 net.cpp:386] inception_4a/relu_3x3 -> inception_4a/3x3 (in-place)
I0913 19:47:20.272949 28639 net.cpp:141] Setting up inception_4a/relu_3x3
I0913 19:47:20.272964 28639 net.cpp:148] Top shape: 10 208 14 14 (407680)
I0913 19:47:20.272969 28639 net.cpp:156] Memory required for data: 363776000
I0913 19:47:20.272974 28639 layer_factory.hpp:77] Creating layer inception_4a/5x5_reduce
I0913 19:47:20.272991 28639 net.cpp:91] Creating Layer inception_4a/5x5_reduce
I0913 19:47:20.272999 28639 net.cpp:425] inception_4a/5x5_reduce <- pool3/3x3_s2_pool3/3x3_s2_0_split_2
I0913 19:47:20.273007 28639 net.cpp:399] inception_4a/5x5_reduce -> inception_4a/5x5_reduce
I0913 19:47:20.274277 28639 net.cpp:141] Setting up inception_4a/5x5_reduce
I0913 19:47:20.274294 28639 net.cpp:148] Top shape: 10 16 14 14 (31360)
I0913 19:47:20.274299 28639 net.cpp:156] Memory required for data: 363901440
I0913 19:47:20.274307 28639 layer_factory.hpp:77] Creating layer inception_4a/relu_5x5_reduce
I0913 19:47:20.274320 28639 net.cpp:91] Creating Layer inception_4a/relu_5x5_reduce
I0913 19:47:20.274327 28639 net.cpp:425] inception_4a/relu_5x5_reduce <- inception_4a/5x5_reduce
I0913 19:47:20.274333 28639 net.cpp:386] inception_4a/relu_5x5_reduce -> inception_4a/5x5_reduce (in-place)
I0913 19:47:20.274730 28639 net.cpp:141] Setting up inception_4a/relu_5x5_reduce
I0913 19:47:20.274742 28639 net.cpp:148] Top shape: 10 16 14 14 (31360)
I0913 19:47:20.274746 28639 net.cpp:156] Memory required for data: 364026880
I0913 19:47:20.274751 28639 layer_factory.hpp:77] Creating layer inception_4a/5x5
I0913 19:47:20.274766 28639 net.cpp:91] Creating Layer inception_4a/5x5
I0913 19:47:20.274771 28639 net.cpp:425] inception_4a/5x5 <- inception_4a/5x5_reduce
I0913 19:47:20.274780 28639 net.cpp:399] inception_4a/5x5 -> inception_4a/5x5
I0913 19:47:20.276293 28639 net.cpp:141] Setting up inception_4a/5x5
I0913 19:47:20.276310 28639 net.cpp:148] Top shape: 10 48 14 14 (94080)
I0913 19:47:20.276315 28639 net.cpp:156] Memory required for data: 364403200
I0913 19:47:20.276324 28639 layer_factory.hpp:77] Creating layer inception_4a/relu_5x5
I0913 19:47:20.276336 28639 net.cpp:91] Creating Layer inception_4a/relu_5x5
I0913 19:47:20.276342 28639 net.cpp:425] inception_4a/relu_5x5 <- inception_4a/5x5
I0913 19:47:20.276351 28639 net.cpp:386] inception_4a/relu_5x5 -> inception_4a/5x5 (in-place)
I0913 19:47:20.276576 28639 net.cpp:141] Setting up inception_4a/relu_5x5
I0913 19:47:20.276587 28639 net.cpp:148] Top shape: 10 48 14 14 (94080)
I0913 19:47:20.276590 28639 net.cpp:156] Memory required for data: 364779520
I0913 19:47:20.276595 28639 layer_factory.hpp:77] Creating layer inception_4a/pool
I0913 19:47:20.276608 28639 net.cpp:91] Creating Layer inception_4a/pool
I0913 19:47:20.276614 28639 net.cpp:425] inception_4a/pool <- pool3/3x3_s2_pool3/3x3_s2_0_split_3
I0913 19:47:20.276621 28639 net.cpp:399] inception_4a/pool -> inception_4a/pool
I0913 19:47:20.276684 28639 net.cpp:141] Setting up inception_4a/pool
I0913 19:47:20.276692 28639 net.cpp:148] Top shape: 10 480 14 14 (940800)
I0913 19:47:20.276696 28639 net.cpp:156] Memory required for data: 368542720
I0913 19:47:20.276701 28639 layer_factory.hpp:77] Creating layer inception_4a/pool_proj
I0913 19:47:20.276715 28639 net.cpp:91] Creating Layer inception_4a/pool_proj
I0913 19:47:20.276721 28639 net.cpp:425] inception_4a/pool_proj <- inception_4a/pool
I0913 19:47:20.276727 28639 net.cpp:399] inception_4a/pool_proj -> inception_4a/pool_proj
I0913 19:47:20.278331 28639 net.cpp:141] Setting up inception_4a/pool_proj
I0913 19:47:20.278348 28639 net.cpp:148] Top shape: 10 64 14 14 (125440)
I0913 19:47:20.278353 28639 net.cpp:156] Memory required for data: 369044480
I0913 19:47:20.278362 28639 layer_factory.hpp:77] Creating layer inception_4a/relu_pool_proj
I0913 19:47:20.278370 28639 net.cpp:91] Creating Layer inception_4a/relu_pool_proj
I0913 19:47:20.278375 28639 net.cpp:425] inception_4a/relu_pool_proj <- inception_4a/pool_proj
I0913 19:47:20.278383 28639 net.cpp:386] inception_4a/relu_pool_proj -> inception_4a/pool_proj (in-place)
I0913 19:47:20.278782 28639 net.cpp:141] Setting up inception_4a/relu_pool_proj
I0913 19:47:20.278795 28639 net.cpp:148] Top shape: 10 64 14 14 (125440)
I0913 19:47:20.278798 28639 net.cpp:156] Memory required for data: 369546240
I0913 19:47:20.278803 28639 layer_factory.hpp:77] Creating layer inception_4a/output
I0913 19:47:20.278812 28639 net.cpp:91] Creating Layer inception_4a/output
I0913 19:47:20.278817 28639 net.cpp:425] inception_4a/output <- inception_4a/1x1
I0913 19:47:20.278823 28639 net.cpp:425] inception_4a/output <- inception_4a/3x3
I0913 19:47:20.278830 28639 net.cpp:425] inception_4a/output <- inception_4a/5x5
I0913 19:47:20.278834 28639 net.cpp:425] inception_4a/output <- inception_4a/pool_proj
I0913 19:47:20.278846 28639 net.cpp:399] inception_4a/output -> inception_4a/output
I0913 19:47:20.278885 28639 net.cpp:141] Setting up inception_4a/output
I0913 19:47:20.278897 28639 net.cpp:148] Top shape: 10 512 14 14 (1003520)
I0913 19:47:20.278901 28639 net.cpp:156] Memory required for data: 373560320
I0913 19:47:20.278905 28639 layer_factory.hpp:77] Creating layer inception_4a/output_inception_4a/output_0_split
I0913 19:47:20.278914 28639 net.cpp:91] Creating Layer inception_4a/output_inception_4a/output_0_split
I0913 19:47:20.278918 28639 net.cpp:425] inception_4a/output_inception_4a/output_0_split <- inception_4a/output
I0913 19:47:20.278925 28639 net.cpp:399] inception_4a/output_inception_4a/output_0_split -> inception_4a/output_inception_4a/output_0_split_0
I0913 19:47:20.278934 28639 net.cpp:399] inception_4a/output_inception_4a/output_0_split -> inception_4a/output_inception_4a/output_0_split_1
I0913 19:47:20.278941 28639 net.cpp:399] inception_4a/output_inception_4a/output_0_split -> inception_4a/output_inception_4a/output_0_split_2
I0913 19:47:20.278954 28639 net.cpp:399] inception_4a/output_inception_4a/output_0_split -> inception_4a/output_inception_4a/output_0_split_3
I0913 19:47:20.279038 28639 net.cpp:141] Setting up inception_4a/output_inception_4a/output_0_split
I0913 19:47:20.279047 28639 net.cpp:148] Top shape: 10 512 14 14 (1003520)
I0913 19:47:20.279053 28639 net.cpp:148] Top shape: 10 512 14 14 (1003520)
I0913 19:47:20.279058 28639 net.cpp:148] Top shape: 10 512 14 14 (1003520)
I0913 19:47:20.279063 28639 net.cpp:148] Top shape: 10 512 14 14 (1003520)
I0913 19:47:20.279067 28639 net.cpp:156] Memory required for data: 389616640
I0913 19:47:20.279072 28639 layer_factory.hpp:77] Creating layer inception_4b/1x1
I0913 19:47:20.279084 28639 net.cpp:91] Creating Layer inception_4b/1x1
I0913 19:47:20.279090 28639 net.cpp:425] inception_4b/1x1 <- inception_4a/output_inception_4a/output_0_split_0
I0913 19:47:20.279100 28639 net.cpp:399] inception_4b/1x1 -> inception_4b/1x1
I0913 19:47:20.280927 28639 net.cpp:141] Setting up inception_4b/1x1
I0913 19:47:20.280944 28639 net.cpp:148] Top shape: 10 160 14 14 (313600)
I0913 19:47:20.280949 28639 net.cpp:156] Memory required for data: 390871040
I0913 19:47:20.280958 28639 layer_factory.hpp:77] Creating layer inception_4b/relu_1x1
I0913 19:47:20.280969 28639 net.cpp:91] Creating Layer inception_4b/relu_1x1
I0913 19:47:20.280975 28639 net.cpp:425] inception_4b/relu_1x1 <- inception_4b/1x1
I0913 19:47:20.280982 28639 net.cpp:386] inception_4b/relu_1x1 -> inception_4b/1x1 (in-place)
I0913 19:47:20.281375 28639 net.cpp:141] Setting up inception_4b/relu_1x1
I0913 19:47:20.281388 28639 net.cpp:148] Top shape: 10 160 14 14 (313600)
I0913 19:47:20.281393 28639 net.cpp:156] Memory required for data: 392125440
I0913 19:47:20.281396 28639 layer_factory.hpp:77] Creating layer inception_4b/3x3_reduce
I0913 19:47:20.281414 28639 net.cpp:91] Creating Layer inception_4b/3x3_reduce
I0913 19:47:20.281419 28639 net.cpp:425] inception_4b/3x3_reduce <- inception_4a/output_inception_4a/output_0_split_1
I0913 19:47:20.281429 28639 net.cpp:399] inception_4b/3x3_reduce -> inception_4b/3x3_reduce
I0913 19:47:20.283257 28639 net.cpp:141] Setting up inception_4b/3x3_reduce
I0913 19:47:20.283274 28639 net.cpp:148] Top shape: 10 112 14 14 (219520)
I0913 19:47:20.283279 28639 net.cpp:156] Memory required for data: 393003520
I0913 19:47:20.283288 28639 layer_factory.hpp:77] Creating layer inception_4b/relu_3x3_reduce
I0913 19:47:20.283295 28639 net.cpp:91] Creating Layer inception_4b/relu_3x3_reduce
I0913 19:47:20.283301 28639 net.cpp:425] inception_4b/relu_3x3_reduce <- inception_4b/3x3_reduce
I0913 19:47:20.283311 28639 net.cpp:386] inception_4b/relu_3x3_reduce -> inception_4b/3x3_reduce (in-place)
I0913 19:47:20.283540 28639 net.cpp:141] Setting up inception_4b/relu_3x3_reduce
I0913 19:47:20.283551 28639 net.cpp:148] Top shape: 10 112 14 14 (219520)
I0913 19:47:20.283555 28639 net.cpp:156] Memory required for data: 393881600
I0913 19:47:20.283560 28639 layer_factory.hpp:77] Creating layer inception_4b/3x3
I0913 19:47:20.283576 28639 net.cpp:91] Creating Layer inception_4b/3x3
I0913 19:47:20.283582 28639 net.cpp:425] inception_4b/3x3 <- inception_4b/3x3_reduce
I0913 19:47:20.283591 28639 net.cpp:399] inception_4b/3x3 -> inception_4b/3x3
I0913 19:47:20.287634 28639 net.cpp:141] Setting up inception_4b/3x3
I0913 19:47:20.287652 28639 net.cpp:148] Top shape: 10 224 14 14 (439040)
I0913 19:47:20.287657 28639 net.cpp:156] Memory required for data: 395637760
I0913 19:47:20.287667 28639 layer_factory.hpp:77] Creating layer inception_4b/relu_3x3
I0913 19:47:20.287678 28639 net.cpp:91] Creating Layer inception_4b/relu_3x3
I0913 19:47:20.287684 28639 net.cpp:425] inception_4b/relu_3x3 <- inception_4b/3x3
I0913 19:47:20.287693 28639 net.cpp:386] inception_4b/relu_3x3 -> inception_4b/3x3 (in-place)
I0913 19:47:20.288115 28639 net.cpp:141] Setting up inception_4b/relu_3x3
I0913 19:47:20.288127 28639 net.cpp:148] Top shape: 10 224 14 14 (439040)
I0913 19:47:20.288132 28639 net.cpp:156] Memory required for data: 397393920
I0913 19:47:20.288137 28639 layer_factory.hpp:77] Creating layer inception_4b/5x5_reduce
I0913 19:47:20.288162 28639 net.cpp:91] Creating Layer inception_4b/5x5_reduce
I0913 19:47:20.288168 28639 net.cpp:425] inception_4b/5x5_reduce <- inception_4a/output_inception_4a/output_0_split_2
I0913 19:47:20.288178 28639 net.cpp:399] inception_4b/5x5_reduce -> inception_4b/5x5_reduce
I0913 19:47:20.289510 28639 net.cpp:141] Setting up inception_4b/5x5_reduce
I0913 19:47:20.289527 28639 net.cpp:148] Top shape: 10 24 14 14 (47040)
I0913 19:47:20.289535 28639 net.cpp:156] Memory required for data: 397582080
I0913 19:47:20.289543 28639 layer_factory.hpp:77] Creating layer inception_4b/relu_5x5_reduce
I0913 19:47:20.289552 28639 net.cpp:91] Creating Layer inception_4b/relu_5x5_reduce
I0913 19:47:20.289557 28639 net.cpp:425] inception_4b/relu_5x5_reduce <- inception_4b/5x5_reduce
I0913 19:47:20.289564 28639 net.cpp:386] inception_4b/relu_5x5_reduce -> inception_4b/5x5_reduce (in-place)
I0913 19:47:20.289959 28639 net.cpp:141] Setting up inception_4b/relu_5x5_reduce
I0913 19:47:20.289981 28639 net.cpp:148] Top shape: 10 24 14 14 (47040)
I0913 19:47:20.289986 28639 net.cpp:156] Memory required for data: 397770240
I0913 19:47:20.289991 28639 layer_factory.hpp:77] Creating layer inception_4b/5x5
I0913 19:47:20.290006 28639 net.cpp:91] Creating Layer inception_4b/5x5
I0913 19:47:20.290012 28639 net.cpp:425] inception_4b/5x5 <- inception_4b/5x5_reduce
I0913 19:47:20.290021 28639 net.cpp:399] inception_4b/5x5 -> inception_4b/5x5
I0913 19:47:20.292410 28639 net.cpp:141] Setting up inception_4b/5x5
I0913 19:47:20.292428 28639 net.cpp:148] Top shape: 10 64 14 14 (125440)
I0913 19:47:20.292433 28639 net.cpp:156] Memory required for data: 398272000
I0913 19:47:20.292443 28639 layer_factory.hpp:77] Creating layer inception_4b/relu_5x5
I0913 19:47:20.292450 28639 net.cpp:91] Creating Layer inception_4b/relu_5x5
I0913 19:47:20.292456 28639 net.cpp:425] inception_4b/relu_5x5 <- inception_4b/5x5
I0913 19:47:20.292465 28639 net.cpp:386] inception_4b/relu_5x5 -> inception_4b/5x5 (in-place)
I0913 19:47:20.292695 28639 net.cpp:141] Setting up inception_4b/relu_5x5
I0913 19:47:20.292706 28639 net.cpp:148] Top shape: 10 64 14 14 (125440)
I0913 19:47:20.292711 28639 net.cpp:156] Memory required for data: 398773760
I0913 19:47:20.292716 28639 layer_factory.hpp:77] Creating layer inception_4b/pool
I0913 19:47:20.292727 28639 net.cpp:91] Creating Layer inception_4b/pool
I0913 19:47:20.292733 28639 net.cpp:425] inception_4b/pool <- inception_4a/output_inception_4a/output_0_split_3
I0913 19:47:20.292740 28639 net.cpp:399] inception_4b/pool -> inception_4b/pool
I0913 19:47:20.292804 28639 net.cpp:141] Setting up inception_4b/pool
I0913 19:47:20.292812 28639 net.cpp:148] Top shape: 10 512 14 14 (1003520)
I0913 19:47:20.292817 28639 net.cpp:156] Memory required for data: 402787840
I0913 19:47:20.292821 28639 layer_factory.hpp:77] Creating layer inception_4b/pool_proj
I0913 19:47:20.292835 28639 net.cpp:91] Creating Layer inception_4b/pool_proj
I0913 19:47:20.292840 28639 net.cpp:425] inception_4b/pool_proj <- inception_4b/pool
I0913 19:47:20.292851 28639 net.cpp:399] inception_4b/pool_proj -> inception_4b/pool_proj
I0913 19:47:20.294515 28639 net.cpp:141] Setting up inception_4b/pool_proj
I0913 19:47:20.294533 28639 net.cpp:148] Top shape: 10 64 14 14 (125440)
I0913 19:47:20.294539 28639 net.cpp:156] Memory required for data: 403289600
I0913 19:47:20.294548 28639 layer_factory.hpp:77] Creating layer inception_4b/relu_pool_proj
I0913 19:47:20.294556 28639 net.cpp:91] Creating Layer inception_4b/relu_pool_proj
I0913 19:47:20.294561 28639 net.cpp:425] inception_4b/relu_pool_proj <- inception_4b/pool_proj
I0913 19:47:20.294569 28639 net.cpp:386] inception_4b/relu_pool_proj -> inception_4b/pool_proj (in-place)
I0913 19:47:20.294980 28639 net.cpp:141] Setting up inception_4b/relu_pool_proj
I0913 19:47:20.294992 28639 net.cpp:148] Top shape: 10 64 14 14 (125440)
I0913 19:47:20.294996 28639 net.cpp:156] Memory required for data: 403791360
I0913 19:47:20.295001 28639 layer_factory.hpp:77] Creating layer inception_4b/output
I0913 19:47:20.295009 28639 net.cpp:91] Creating Layer inception_4b/output
I0913 19:47:20.295014 28639 net.cpp:425] inception_4b/output <- inception_4b/1x1
I0913 19:47:20.295020 28639 net.cpp:425] inception_4b/output <- inception_4b/3x3
I0913 19:47:20.295027 28639 net.cpp:425] inception_4b/output <- inception_4b/5x5
I0913 19:47:20.295032 28639 net.cpp:425] inception_4b/output <- inception_4b/pool_proj
I0913 19:47:20.295042 28639 net.cpp:399] inception_4b/output -> inception_4b/output
I0913 19:47:20.295083 28639 net.cpp:141] Setting up inception_4b/output
I0913 19:47:20.295094 28639 net.cpp:148] Top shape: 10 512 14 14 (1003520)
I0913 19:47:20.295099 28639 net.cpp:156] Memory required for data: 407805440
I0913 19:47:20.295104 28639 layer_factory.hpp:77] Creating layer inception_4b/output_inception_4b/output_0_split
I0913 19:47:20.295111 28639 net.cpp:91] Creating Layer inception_4b/output_inception_4b/output_0_split
I0913 19:47:20.295116 28639 net.cpp:425] inception_4b/output_inception_4b/output_0_split <- inception_4b/output
I0913 19:47:20.295122 28639 net.cpp:399] inception_4b/output_inception_4b/output_0_split -> inception_4b/output_inception_4b/output_0_split_0
I0913 19:47:20.295131 28639 net.cpp:399] inception_4b/output_inception_4b/output_0_split -> inception_4b/output_inception_4b/output_0_split_1
I0913 19:47:20.295140 28639 net.cpp:399] inception_4b/output_inception_4b/output_0_split -> inception_4b/output_inception_4b/output_0_split_2
I0913 19:47:20.295151 28639 net.cpp:399] inception_4b/output_inception_4b/output_0_split -> inception_4b/output_inception_4b/output_0_split_3
I0913 19:47:20.295238 28639 net.cpp:141] Setting up inception_4b/output_inception_4b/output_0_split
I0913 19:47:20.295246 28639 net.cpp:148] Top shape: 10 512 14 14 (1003520)
I0913 19:47:20.295253 28639 net.cpp:148] Top shape: 10 512 14 14 (1003520)
I0913 19:47:20.295258 28639 net.cpp:148] Top shape: 10 512 14 14 (1003520)
I0913 19:47:20.295264 28639 net.cpp:148] Top shape: 10 512 14 14 (1003520)
I0913 19:47:20.295266 28639 net.cpp:156] Memory required for data: 423861760
I0913 19:47:20.295271 28639 layer_factory.hpp:77] Creating layer inception_4c/1x1
I0913 19:47:20.295286 28639 net.cpp:91] Creating Layer inception_4c/1x1
I0913 19:47:20.295291 28639 net.cpp:425] inception_4c/1x1 <- inception_4b/output_inception_4b/output_0_split_0
I0913 19:47:20.295303 28639 net.cpp:399] inception_4c/1x1 -> inception_4c/1x1
I0913 19:47:20.297116 28639 net.cpp:141] Setting up inception_4c/1x1
I0913 19:47:20.297155 28639 net.cpp:148] Top shape: 10 128 14 14 (250880)
I0913 19:47:20.297161 28639 net.cpp:156] Memory required for data: 424865280
I0913 19:47:20.297173 28639 layer_factory.hpp:77] Creating layer inception_4c/relu_1x1
I0913 19:47:20.297184 28639 net.cpp:91] Creating Layer inception_4c/relu_1x1
I0913 19:47:20.297191 28639 net.cpp:425] inception_4c/relu_1x1 <- inception_4c/1x1
I0913 19:47:20.297200 28639 net.cpp:386] inception_4c/relu_1x1 -> inception_4c/1x1 (in-place)
I0913 19:47:20.297605 28639 net.cpp:141] Setting up inception_4c/relu_1x1
I0913 19:47:20.297619 28639 net.cpp:148] Top shape: 10 128 14 14 (250880)
I0913 19:47:20.297624 28639 net.cpp:156] Memory required for data: 425868800
I0913 19:47:20.297629 28639 layer_factory.hpp:77] Creating layer inception_4c/3x3_reduce
I0913 19:47:20.297648 28639 net.cpp:91] Creating Layer inception_4c/3x3_reduce
I0913 19:47:20.297654 28639 net.cpp:425] inception_4c/3x3_reduce <- inception_4b/output_inception_4b/output_0_split_1
I0913 19:47:20.297664 28639 net.cpp:399] inception_4c/3x3_reduce -> inception_4c/3x3_reduce
I0913 19:47:20.299612 28639 net.cpp:141] Setting up inception_4c/3x3_reduce
I0913 19:47:20.299628 28639 net.cpp:148] Top shape: 10 128 14 14 (250880)
I0913 19:47:20.299633 28639 net.cpp:156] Memory required for data: 426872320
I0913 19:47:20.299641 28639 layer_factory.hpp:77] Creating layer inception_4c/relu_3x3_reduce
I0913 19:47:20.299649 28639 net.cpp:91] Creating Layer inception_4c/relu_3x3_reduce
I0913 19:47:20.299655 28639 net.cpp:425] inception_4c/relu_3x3_reduce <- inception_4c/3x3_reduce
I0913 19:47:20.299665 28639 net.cpp:386] inception_4c/relu_3x3_reduce -> inception_4c/3x3_reduce (in-place)
I0913 19:47:20.299891 28639 net.cpp:141] Setting up inception_4c/relu_3x3_reduce
I0913 19:47:20.299904 28639 net.cpp:148] Top shape: 10 128 14 14 (250880)
I0913 19:47:20.299908 28639 net.cpp:156] Memory required for data: 427875840
I0913 19:47:20.299913 28639 layer_factory.hpp:77] Creating layer inception_4c/3x3
I0913 19:47:20.299927 28639 net.cpp:91] Creating Layer inception_4c/3x3
I0913 19:47:20.299933 28639 net.cpp:425] inception_4c/3x3 <- inception_4c/3x3_reduce
I0913 19:47:20.299942 28639 net.cpp:399] inception_4c/3x3 -> inception_4c/3x3
I0913 19:47:20.304368 28639 net.cpp:141] Setting up inception_4c/3x3
I0913 19:47:20.304390 28639 net.cpp:148] Top shape: 10 256 14 14 (501760)
I0913 19:47:20.304396 28639 net.cpp:156] Memory required for data: 429882880
I0913 19:47:20.304405 28639 layer_factory.hpp:77] Creating layer inception_4c/relu_3x3
I0913 19:47:20.304414 28639 net.cpp:91] Creating Layer inception_4c/relu_3x3
I0913 19:47:20.304419 28639 net.cpp:425] inception_4c/relu_3x3 <- inception_4c/3x3
I0913 19:47:20.304430 28639 net.cpp:386] inception_4c/relu_3x3 -> inception_4c/3x3 (in-place)
I0913 19:47:20.304834 28639 net.cpp:141] Setting up inception_4c/relu_3x3
I0913 19:47:20.304847 28639 net.cpp:148] Top shape: 10 256 14 14 (501760)
I0913 19:47:20.304852 28639 net.cpp:156] Memory required for data: 431889920
I0913 19:47:20.304857 28639 layer_factory.hpp:77] Creating layer inception_4c/5x5_reduce
I0913 19:47:20.304870 28639 net.cpp:91] Creating Layer inception_4c/5x5_reduce
I0913 19:47:20.304877 28639 net.cpp:425] inception_4c/5x5_reduce <- inception_4b/output_inception_4b/output_0_split_2
I0913 19:47:20.304888 28639 net.cpp:399] inception_4c/5x5_reduce -> inception_4c/5x5_reduce
I0913 19:47:20.306246 28639 net.cpp:141] Setting up inception_4c/5x5_reduce
I0913 19:47:20.306264 28639 net.cpp:148] Top shape: 10 24 14 14 (47040)
I0913 19:47:20.306269 28639 net.cpp:156] Memory required for data: 432078080
I0913 19:47:20.306278 28639 layer_factory.hpp:77] Creating layer inception_4c/relu_5x5_reduce
I0913 19:47:20.306287 28639 net.cpp:91] Creating Layer inception_4c/relu_5x5_reduce
I0913 19:47:20.306291 28639 net.cpp:425] inception_4c/relu_5x5_reduce <- inception_4c/5x5_reduce
I0913 19:47:20.306298 28639 net.cpp:386] inception_4c/relu_5x5_reduce -> inception_4c/5x5_reduce (in-place)
I0913 19:47:20.306704 28639 net.cpp:141] Setting up inception_4c/relu_5x5_reduce
I0913 19:47:20.306715 28639 net.cpp:148] Top shape: 10 24 14 14 (47040)
I0913 19:47:20.306720 28639 net.cpp:156] Memory required for data: 432266240
I0913 19:47:20.306725 28639 layer_factory.hpp:77] Creating layer inception_4c/5x5
I0913 19:47:20.306740 28639 net.cpp:91] Creating Layer inception_4c/5x5
I0913 19:47:20.306746 28639 net.cpp:425] inception_4c/5x5 <- inception_4c/5x5_reduce
I0913 19:47:20.306756 28639 net.cpp:399] inception_4c/5x5 -> inception_4c/5x5
I0913 19:47:20.308792 28639 net.cpp:141] Setting up inception_4c/5x5
I0913 19:47:20.308810 28639 net.cpp:148] Top shape: 10 64 14 14 (125440)
I0913 19:47:20.308815 28639 net.cpp:156] Memory required for data: 432768000
I0913 19:47:20.308825 28639 layer_factory.hpp:77] Creating layer inception_4c/relu_5x5
I0913 19:47:20.308835 28639 net.cpp:91] Creating Layer inception_4c/relu_5x5
I0913 19:47:20.308841 28639 net.cpp:425] inception_4c/relu_5x5 <- inception_4c/5x5
I0913 19:47:20.308851 28639 net.cpp:386] inception_4c/relu_5x5 -> inception_4c/5x5 (in-place)
I0913 19:47:20.309080 28639 net.cpp:141] Setting up inception_4c/relu_5x5
I0913 19:47:20.309092 28639 net.cpp:148] Top shape: 10 64 14 14 (125440)
I0913 19:47:20.309095 28639 net.cpp:156] Memory required for data: 433269760
I0913 19:47:20.309100 28639 layer_factory.hpp:77] Creating layer inception_4c/pool
I0913 19:47:20.309114 28639 net.cpp:91] Creating Layer inception_4c/pool
I0913 19:47:20.309120 28639 net.cpp:425] inception_4c/pool <- inception_4b/output_inception_4b/output_0_split_3
I0913 19:47:20.309128 28639 net.cpp:399] inception_4c/pool -> inception_4c/pool
I0913 19:47:20.309195 28639 net.cpp:141] Setting up inception_4c/pool
I0913 19:47:20.309204 28639 net.cpp:148] Top shape: 10 512 14 14 (1003520)
I0913 19:47:20.309208 28639 net.cpp:156] Memory required for data: 437283840
I0913 19:47:20.309213 28639 layer_factory.hpp:77] Creating layer inception_4c/pool_proj
I0913 19:47:20.309226 28639 net.cpp:91] Creating Layer inception_4c/pool_proj
I0913 19:47:20.309232 28639 net.cpp:425] inception_4c/pool_proj <- inception_4c/pool
I0913 19:47:20.309240 28639 net.cpp:399] inception_4c/pool_proj -> inception_4c/pool_proj
I0913 19:47:20.311710 28639 net.cpp:141] Setting up inception_4c/pool_proj
I0913 19:47:20.311728 28639 net.cpp:148] Top shape: 10 64 14 14 (125440)
I0913 19:47:20.311733 28639 net.cpp:156] Memory required for data: 437785600
I0913 19:47:20.311761 28639 layer_factory.hpp:77] Creating layer inception_4c/relu_pool_proj
I0913 19:47:20.311770 28639 net.cpp:91] Creating Layer inception_4c/relu_pool_proj
I0913 19:47:20.311776 28639 net.cpp:425] inception_4c/relu_pool_proj <- inception_4c/pool_proj
I0913 19:47:20.311784 28639 net.cpp:386] inception_4c/relu_pool_proj -> inception_4c/pool_proj (in-place)
I0913 19:47:20.312223 28639 net.cpp:141] Setting up inception_4c/relu_pool_proj
I0913 19:47:20.312237 28639 net.cpp:148] Top shape: 10 64 14 14 (125440)
I0913 19:47:20.312240 28639 net.cpp:156] Memory required for data: 438287360
I0913 19:47:20.312245 28639 layer_factory.hpp:77] Creating layer inception_4c/output
I0913 19:47:20.312254 28639 net.cpp:91] Creating Layer inception_4c/output
I0913 19:47:20.312259 28639 net.cpp:425] inception_4c/output <- inception_4c/1x1
I0913 19:47:20.312265 28639 net.cpp:425] inception_4c/output <- inception_4c/3x3
I0913 19:47:20.312271 28639 net.cpp:425] inception_4c/output <- inception_4c/5x5
I0913 19:47:20.312276 28639 net.cpp:425] inception_4c/output <- inception_4c/pool_proj
I0913 19:47:20.312283 28639 net.cpp:399] inception_4c/output -> inception_4c/output
I0913 19:47:20.312330 28639 net.cpp:141] Setting up inception_4c/output
I0913 19:47:20.312340 28639 net.cpp:148] Top shape: 10 512 14 14 (1003520)
I0913 19:47:20.312343 28639 net.cpp:156] Memory required for data: 442301440
I0913 19:47:20.312348 28639 layer_factory.hpp:77] Creating layer inception_4c/output_inception_4c/output_0_split
I0913 19:47:20.312360 28639 net.cpp:91] Creating Layer inception_4c/output_inception_4c/output_0_split
I0913 19:47:20.312364 28639 net.cpp:425] inception_4c/output_inception_4c/output_0_split <- inception_4c/output
I0913 19:47:20.312371 28639 net.cpp:399] inception_4c/output_inception_4c/output_0_split -> inception_4c/output_inception_4c/output_0_split_0
I0913 19:47:20.312381 28639 net.cpp:399] inception_4c/output_inception_4c/output_0_split -> inception_4c/output_inception_4c/output_0_split_1
I0913 19:47:20.312388 28639 net.cpp:399] inception_4c/output_inception_4c/output_0_split -> inception_4c/output_inception_4c/output_0_split_2
I0913 19:47:20.312397 28639 net.cpp:399] inception_4c/output_inception_4c/output_0_split -> inception_4c/output_inception_4c/output_0_split_3
I0913 19:47:20.312484 28639 net.cpp:141] Setting up inception_4c/output_inception_4c/output_0_split
I0913 19:47:20.312494 28639 net.cpp:148] Top shape: 10 512 14 14 (1003520)
I0913 19:47:20.312500 28639 net.cpp:148] Top shape: 10 512 14 14 (1003520)
I0913 19:47:20.312505 28639 net.cpp:148] Top shape: 10 512 14 14 (1003520)
I0913 19:47:20.312510 28639 net.cpp:148] Top shape: 10 512 14 14 (1003520)
I0913 19:47:20.312513 28639 net.cpp:156] Memory required for data: 458357760
I0913 19:47:20.312518 28639 layer_factory.hpp:77] Creating layer inception_4d/1x1
I0913 19:47:20.312532 28639 net.cpp:91] Creating Layer inception_4d/1x1
I0913 19:47:20.312538 28639 net.cpp:425] inception_4d/1x1 <- inception_4c/output_inception_4c/output_0_split_0
I0913 19:47:20.312548 28639 net.cpp:399] inception_4d/1x1 -> inception_4d/1x1
I0913 19:47:20.314240 28639 net.cpp:141] Setting up inception_4d/1x1
I0913 19:47:20.314257 28639 net.cpp:148] Top shape: 10 112 14 14 (219520)
I0913 19:47:20.314262 28639 net.cpp:156] Memory required for data: 459235840
I0913 19:47:20.314270 28639 layer_factory.hpp:77] Creating layer inception_4d/relu_1x1
I0913 19:47:20.314278 28639 net.cpp:91] Creating Layer inception_4d/relu_1x1
I0913 19:47:20.314285 28639 net.cpp:425] inception_4d/relu_1x1 <- inception_4d/1x1
I0913 19:47:20.314296 28639 net.cpp:386] inception_4d/relu_1x1 -> inception_4d/1x1 (in-place)
I0913 19:47:20.314700 28639 net.cpp:141] Setting up inception_4d/relu_1x1
I0913 19:47:20.314713 28639 net.cpp:148] Top shape: 10 112 14 14 (219520)
I0913 19:47:20.314718 28639 net.cpp:156] Memory required for data: 460113920
I0913 19:47:20.314723 28639 layer_factory.hpp:77] Creating layer inception_4d/3x3_reduce
I0913 19:47:20.314738 28639 net.cpp:91] Creating Layer inception_4d/3x3_reduce
I0913 19:47:20.314743 28639 net.cpp:425] inception_4d/3x3_reduce <- inception_4c/output_inception_4c/output_0_split_1
I0913 19:47:20.314754 28639 net.cpp:399] inception_4d/3x3_reduce -> inception_4d/3x3_reduce
I0913 19:47:20.316792 28639 net.cpp:141] Setting up inception_4d/3x3_reduce
I0913 19:47:20.316810 28639 net.cpp:148] Top shape: 10 144 14 14 (282240)
I0913 19:47:20.316815 28639 net.cpp:156] Memory required for data: 461242880
I0913 19:47:20.316824 28639 layer_factory.hpp:77] Creating layer inception_4d/relu_3x3_reduce
I0913 19:47:20.316833 28639 net.cpp:91] Creating Layer inception_4d/relu_3x3_reduce
I0913 19:47:20.316838 28639 net.cpp:425] inception_4d/relu_3x3_reduce <- inception_4d/3x3_reduce
I0913 19:47:20.316848 28639 net.cpp:386] inception_4d/relu_3x3_reduce -> inception_4d/3x3_reduce (in-place)
I0913 19:47:20.317082 28639 net.cpp:141] Setting up inception_4d/relu_3x3_reduce
I0913 19:47:20.317093 28639 net.cpp:148] Top shape: 10 144 14 14 (282240)
I0913 19:47:20.317097 28639 net.cpp:156] Memory required for data: 462371840
I0913 19:47:20.317102 28639 layer_factory.hpp:77] Creating layer inception_4d/3x3
I0913 19:47:20.317119 28639 net.cpp:91] Creating Layer inception_4d/3x3
I0913 19:47:20.317124 28639 net.cpp:425] inception_4d/3x3 <- inception_4d/3x3_reduce
I0913 19:47:20.317133 28639 net.cpp:399] inception_4d/3x3 -> inception_4d/3x3
I0913 19:47:20.322335 28639 net.cpp:141] Setting up inception_4d/3x3
I0913 19:47:20.322355 28639 net.cpp:148] Top shape: 10 288 14 14 (564480)
I0913 19:47:20.322360 28639 net.cpp:156] Memory required for data: 464629760
I0913 19:47:20.322371 28639 layer_factory.hpp:77] Creating layer inception_4d/relu_3x3
I0913 19:47:20.322378 28639 net.cpp:91] Creating Layer inception_4d/relu_3x3
I0913 19:47:20.322384 28639 net.cpp:425] inception_4d/relu_3x3 <- inception_4d/3x3
I0913 19:47:20.322391 28639 net.cpp:386] inception_4d/relu_3x3 -> inception_4d/3x3 (in-place)
I0913 19:47:20.322813 28639 net.cpp:141] Setting up inception_4d/relu_3x3
I0913 19:47:20.322824 28639 net.cpp:148] Top shape: 10 288 14 14 (564480)
I0913 19:47:20.322829 28639 net.cpp:156] Memory required for data: 466887680
I0913 19:47:20.322834 28639 layer_factory.hpp:77] Creating layer inception_4d/5x5_reduce
I0913 19:47:20.322850 28639 net.cpp:91] Creating Layer inception_4d/5x5_reduce
I0913 19:47:20.322856 28639 net.cpp:425] inception_4d/5x5_reduce <- inception_4c/output_inception_4c/output_0_split_2
I0913 19:47:20.322868 28639 net.cpp:399] inception_4d/5x5_reduce -> inception_4d/5x5_reduce
I0913 19:47:20.324298 28639 net.cpp:141] Setting up inception_4d/5x5_reduce
I0913 19:47:20.324316 28639 net.cpp:148] Top shape: 10 32 14 14 (62720)
I0913 19:47:20.324321 28639 net.cpp:156] Memory required for data: 467138560
I0913 19:47:20.324329 28639 layer_factory.hpp:77] Creating layer inception_4d/relu_5x5_reduce
I0913 19:47:20.324342 28639 net.cpp:91] Creating Layer inception_4d/relu_5x5_reduce
I0913 19:47:20.324347 28639 net.cpp:425] inception_4d/relu_5x5_reduce <- inception_4d/5x5_reduce
I0913 19:47:20.324358 28639 net.cpp:386] inception_4d/relu_5x5_reduce -> inception_4d/5x5_reduce (in-place)
I0913 19:47:20.324769 28639 net.cpp:141] Setting up inception_4d/relu_5x5_reduce
I0913 19:47:20.324780 28639 net.cpp:148] Top shape: 10 32 14 14 (62720)
I0913 19:47:20.324785 28639 net.cpp:156] Memory required for data: 467389440
I0913 19:47:20.324790 28639 layer_factory.hpp:77] Creating layer inception_4d/5x5
I0913 19:47:20.324805 28639 net.cpp:91] Creating Layer inception_4d/5x5
I0913 19:47:20.324813 28639 net.cpp:425] inception_4d/5x5 <- inception_4d/5x5_reduce
I0913 19:47:20.324822 28639 net.cpp:399] inception_4d/5x5 -> inception_4d/5x5
I0913 19:47:20.326668 28639 net.cpp:141] Setting up inception_4d/5x5
I0913 19:47:20.326684 28639 net.cpp:148] Top shape: 10 64 14 14 (125440)
I0913 19:47:20.326689 28639 net.cpp:156] Memory required for data: 467891200
I0913 19:47:20.326697 28639 layer_factory.hpp:77] Creating layer inception_4d/relu_5x5
I0913 19:47:20.326709 28639 net.cpp:91] Creating Layer inception_4d/relu_5x5
I0913 19:47:20.326715 28639 net.cpp:425] inception_4d/relu_5x5 <- inception_4d/5x5
I0913 19:47:20.326722 28639 net.cpp:386] inception_4d/relu_5x5 -> inception_4d/5x5 (in-place)
I0913 19:47:20.326956 28639 net.cpp:141] Setting up inception_4d/relu_5x5
I0913 19:47:20.326967 28639 net.cpp:148] Top shape: 10 64 14 14 (125440)
I0913 19:47:20.326972 28639 net.cpp:156] Memory required for data: 468392960
I0913 19:47:20.326977 28639 layer_factory.hpp:77] Creating layer inception_4d/pool
I0913 19:47:20.326987 28639 net.cpp:91] Creating Layer inception_4d/pool
I0913 19:47:20.326992 28639 net.cpp:425] inception_4d/pool <- inception_4c/output_inception_4c/output_0_split_3
I0913 19:47:20.327003 28639 net.cpp:399] inception_4d/pool -> inception_4d/pool
I0913 19:47:20.327070 28639 net.cpp:141] Setting up inception_4d/pool
I0913 19:47:20.327080 28639 net.cpp:148] Top shape: 10 512 14 14 (1003520)
I0913 19:47:20.327083 28639 net.cpp:156] Memory required for data: 472407040
I0913 19:47:20.327088 28639 layer_factory.hpp:77] Creating layer inception_4d/pool_proj
I0913 19:47:20.327105 28639 net.cpp:91] Creating Layer inception_4d/pool_proj
I0913 19:47:20.327111 28639 net.cpp:425] inception_4d/pool_proj <- inception_4d/pool
I0913 19:47:20.327119 28639 net.cpp:399] inception_4d/pool_proj -> inception_4d/pool_proj
I0913 19:47:20.328840 28639 net.cpp:141] Setting up inception_4d/pool_proj
I0913 19:47:20.328857 28639 net.cpp:148] Top shape: 10 64 14 14 (125440)
I0913 19:47:20.328862 28639 net.cpp:156] Memory required for data: 472908800
I0913 19:47:20.328871 28639 layer_factory.hpp:77] Creating layer inception_4d/relu_pool_proj
I0913 19:47:20.328879 28639 net.cpp:91] Creating Layer inception_4d/relu_pool_proj
I0913 19:47:20.328887 28639 net.cpp:425] inception_4d/relu_pool_proj <- inception_4d/pool_proj
I0913 19:47:20.328894 28639 net.cpp:386] inception_4d/relu_pool_proj -> inception_4d/pool_proj (in-place)
I0913 19:47:20.329308 28639 net.cpp:141] Setting up inception_4d/relu_pool_proj
I0913 19:47:20.329319 28639 net.cpp:148] Top shape: 10 64 14 14 (125440)
I0913 19:47:20.329324 28639 net.cpp:156] Memory required for data: 473410560
I0913 19:47:20.329329 28639 layer_factory.hpp:77] Creating layer inception_4d/output
I0913 19:47:20.329340 28639 net.cpp:91] Creating Layer inception_4d/output
I0913 19:47:20.329345 28639 net.cpp:425] inception_4d/output <- inception_4d/1x1
I0913 19:47:20.329351 28639 net.cpp:425] inception_4d/output <- inception_4d/3x3
I0913 19:47:20.329357 28639 net.cpp:425] inception_4d/output <- inception_4d/5x5
I0913 19:47:20.329362 28639 net.cpp:425] inception_4d/output <- inception_4d/pool_proj
I0913 19:47:20.329370 28639 net.cpp:399] inception_4d/output -> inception_4d/output
I0913 19:47:20.329413 28639 net.cpp:141] Setting up inception_4d/output
I0913 19:47:20.329427 28639 net.cpp:148] Top shape: 10 528 14 14 (1034880)
I0913 19:47:20.329430 28639 net.cpp:156] Memory required for data: 477550080
I0913 19:47:20.329435 28639 layer_factory.hpp:77] Creating layer inception_4d/output_inception_4d/output_0_split
I0913 19:47:20.329443 28639 net.cpp:91] Creating Layer inception_4d/output_inception_4d/output_0_split
I0913 19:47:20.329449 28639 net.cpp:425] inception_4d/output_inception_4d/output_0_split <- inception_4d/output
I0913 19:47:20.329457 28639 net.cpp:399] inception_4d/output_inception_4d/output_0_split -> inception_4d/output_inception_4d/output_0_split_0
I0913 19:47:20.329466 28639 net.cpp:399] inception_4d/output_inception_4d/output_0_split -> inception_4d/output_inception_4d/output_0_split_1
I0913 19:47:20.329475 28639 net.cpp:399] inception_4d/output_inception_4d/output_0_split -> inception_4d/output_inception_4d/output_0_split_2
I0913 19:47:20.329483 28639 net.cpp:399] inception_4d/output_inception_4d/output_0_split -> inception_4d/output_inception_4d/output_0_split_3
I0913 19:47:20.329581 28639 net.cpp:141] Setting up inception_4d/output_inception_4d/output_0_split
I0913 19:47:20.329593 28639 net.cpp:148] Top shape: 10 528 14 14 (1034880)
I0913 19:47:20.329599 28639 net.cpp:148] Top shape: 10 528 14 14 (1034880)
I0913 19:47:20.329604 28639 net.cpp:148] Top shape: 10 528 14 14 (1034880)
I0913 19:47:20.329609 28639 net.cpp:148] Top shape: 10 528 14 14 (1034880)
I0913 19:47:20.329613 28639 net.cpp:156] Memory required for data: 494108160
I0913 19:47:20.329617 28639 layer_factory.hpp:77] Creating layer inception_4e/1x1
I0913 19:47:20.329629 28639 net.cpp:91] Creating Layer inception_4e/1x1
I0913 19:47:20.329634 28639 net.cpp:425] inception_4e/1x1 <- inception_4d/output_inception_4d/output_0_split_0
I0913 19:47:20.329645 28639 net.cpp:399] inception_4e/1x1 -> inception_4e/1x1
I0913 19:47:20.332970 28639 net.cpp:141] Setting up inception_4e/1x1
I0913 19:47:20.332991 28639 net.cpp:148] Top shape: 10 256 14 14 (501760)
I0913 19:47:20.332998 28639 net.cpp:156] Memory required for data: 496115200
I0913 19:47:20.333009 28639 layer_factory.hpp:77] Creating layer inception_4e/relu_1x1
I0913 19:47:20.333019 28639 net.cpp:91] Creating Layer inception_4e/relu_1x1
I0913 19:47:20.333024 28639 net.cpp:425] inception_4e/relu_1x1 <- inception_4e/1x1
I0913 19:47:20.333032 28639 net.cpp:386] inception_4e/relu_1x1 -> inception_4e/1x1 (in-place)
I0913 19:47:20.333443 28639 net.cpp:141] Setting up inception_4e/relu_1x1
I0913 19:47:20.333456 28639 net.cpp:148] Top shape: 10 256 14 14 (501760)
I0913 19:47:20.333459 28639 net.cpp:156] Memory required for data: 498122240
I0913 19:47:20.333464 28639 layer_factory.hpp:77] Creating layer inception_4e/3x3_reduce
I0913 19:47:20.333479 28639 net.cpp:91] Creating Layer inception_4e/3x3_reduce
I0913 19:47:20.333485 28639 net.cpp:425] inception_4e/3x3_reduce <- inception_4d/output_inception_4d/output_0_split_1
I0913 19:47:20.333498 28639 net.cpp:399] inception_4e/3x3_reduce -> inception_4e/3x3_reduce
I0913 19:47:20.335623 28639 net.cpp:141] Setting up inception_4e/3x3_reduce
I0913 19:47:20.335638 28639 net.cpp:148] Top shape: 10 160 14 14 (313600)
I0913 19:47:20.335646 28639 net.cpp:156] Memory required for data: 499376640
I0913 19:47:20.335655 28639 layer_factory.hpp:77] Creating layer inception_4e/relu_3x3_reduce
I0913 19:47:20.335664 28639 net.cpp:91] Creating Layer inception_4e/relu_3x3_reduce
I0913 19:47:20.335669 28639 net.cpp:425] inception_4e/relu_3x3_reduce <- inception_4e/3x3_reduce
I0913 19:47:20.335676 28639 net.cpp:386] inception_4e/relu_3x3_reduce -> inception_4e/3x3_reduce (in-place)
I0913 19:47:20.335919 28639 net.cpp:141] Setting up inception_4e/relu_3x3_reduce
I0913 19:47:20.335930 28639 net.cpp:148] Top shape: 10 160 14 14 (313600)
I0913 19:47:20.335934 28639 net.cpp:156] Memory required for data: 500631040
I0913 19:47:20.335939 28639 layer_factory.hpp:77] Creating layer inception_4e/3x3
I0913 19:47:20.335953 28639 net.cpp:91] Creating Layer inception_4e/3x3
I0913 19:47:20.335959 28639 net.cpp:425] inception_4e/3x3 <- inception_4e/3x3_reduce
I0913 19:47:20.335970 28639 net.cpp:399] inception_4e/3x3 -> inception_4e/3x3
I0913 19:47:20.342308 28639 net.cpp:141] Setting up inception_4e/3x3
I0913 19:47:20.342352 28639 net.cpp:148] Top shape: 10 320 14 14 (627200)
I0913 19:47:20.342358 28639 net.cpp:156] Memory required for data: 503139840
I0913 19:47:20.342371 28639 layer_factory.hpp:77] Creating layer inception_4e/relu_3x3
I0913 19:47:20.342391 28639 net.cpp:91] Creating Layer inception_4e/relu_3x3
I0913 19:47:20.342401 28639 net.cpp:425] inception_4e/relu_3x3 <- inception_4e/3x3
I0913 19:47:20.342411 28639 net.cpp:386] inception_4e/relu_3x3 -> inception_4e/3x3 (in-place)
I0913 19:47:20.342851 28639 net.cpp:141] Setting up inception_4e/relu_3x3
I0913 19:47:20.342864 28639 net.cpp:148] Top shape: 10 320 14 14 (627200)
I0913 19:47:20.342869 28639 net.cpp:156] Memory required for data: 505648640
I0913 19:47:20.342874 28639 layer_factory.hpp:77] Creating layer inception_4e/5x5_reduce
I0913 19:47:20.342892 28639 net.cpp:91] Creating Layer inception_4e/5x5_reduce
I0913 19:47:20.342900 28639 net.cpp:425] inception_4e/5x5_reduce <- inception_4d/output_inception_4d/output_0_split_2
I0913 19:47:20.342911 28639 net.cpp:399] inception_4e/5x5_reduce -> inception_4e/5x5_reduce
I0913 19:47:20.344396 28639 net.cpp:141] Setting up inception_4e/5x5_reduce
I0913 19:47:20.344413 28639 net.cpp:148] Top shape: 10 32 14 14 (62720)
I0913 19:47:20.344419 28639 net.cpp:156] Memory required for data: 505899520
I0913 19:47:20.344427 28639 layer_factory.hpp:77] Creating layer inception_4e/relu_5x5_reduce
I0913 19:47:20.344437 28639 net.cpp:91] Creating Layer inception_4e/relu_5x5_reduce
I0913 19:47:20.344444 28639 net.cpp:425] inception_4e/relu_5x5_reduce <- inception_4e/5x5_reduce
I0913 19:47:20.344450 28639 net.cpp:386] inception_4e/relu_5x5_reduce -> inception_4e/5x5_reduce (in-place)
I0913 19:47:20.344866 28639 net.cpp:141] Setting up inception_4e/relu_5x5_reduce
I0913 19:47:20.344882 28639 net.cpp:148] Top shape: 10 32 14 14 (62720)
I0913 19:47:20.344885 28639 net.cpp:156] Memory required for data: 506150400
I0913 19:47:20.344892 28639 layer_factory.hpp:77] Creating layer inception_4e/5x5
I0913 19:47:20.344905 28639 net.cpp:91] Creating Layer inception_4e/5x5
I0913 19:47:20.344912 28639 net.cpp:425] inception_4e/5x5 <- inception_4e/5x5_reduce
I0913 19:47:20.344923 28639 net.cpp:399] inception_4e/5x5 -> inception_4e/5x5
I0913 19:47:20.347939 28639 net.cpp:141] Setting up inception_4e/5x5
I0913 19:47:20.347956 28639 net.cpp:148] Top shape: 10 128 14 14 (250880)
I0913 19:47:20.347961 28639 net.cpp:156] Memory required for data: 507153920
I0913 19:47:20.347970 28639 layer_factory.hpp:77] Creating layer inception_4e/relu_5x5
I0913 19:47:20.347978 28639 net.cpp:91] Creating Layer inception_4e/relu_5x5
I0913 19:47:20.347983 28639 net.cpp:425] inception_4e/relu_5x5 <- inception_4e/5x5
I0913 19:47:20.347995 28639 net.cpp:386] inception_4e/relu_5x5 -> inception_4e/5x5 (in-place)
I0913 19:47:20.348242 28639 net.cpp:141] Setting up inception_4e/relu_5x5
I0913 19:47:20.348254 28639 net.cpp:148] Top shape: 10 128 14 14 (250880)
I0913 19:47:20.348258 28639 net.cpp:156] Memory required for data: 508157440
I0913 19:47:20.348263 28639 layer_factory.hpp:77] Creating layer inception_4e/pool
I0913 19:47:20.348278 28639 net.cpp:91] Creating Layer inception_4e/pool
I0913 19:47:20.348283 28639 net.cpp:425] inception_4e/pool <- inception_4d/output_inception_4d/output_0_split_3
I0913 19:47:20.348290 28639 net.cpp:399] inception_4e/pool -> inception_4e/pool
I0913 19:47:20.348361 28639 net.cpp:141] Setting up inception_4e/pool
I0913 19:47:20.348371 28639 net.cpp:148] Top shape: 10 528 14 14 (1034880)
I0913 19:47:20.348376 28639 net.cpp:156] Memory required for data: 512296960
I0913 19:47:20.348379 28639 layer_factory.hpp:77] Creating layer inception_4e/pool_proj
I0913 19:47:20.348394 28639 net.cpp:91] Creating Layer inception_4e/pool_proj
I0913 19:47:20.348400 28639 net.cpp:425] inception_4e/pool_proj <- inception_4e/pool
I0913 19:47:20.348410 28639 net.cpp:399] inception_4e/pool_proj -> inception_4e/pool_proj
I0913 19:47:20.350385 28639 net.cpp:141] Setting up inception_4e/pool_proj
I0913 19:47:20.350402 28639 net.cpp:148] Top shape: 10 128 14 14 (250880)
I0913 19:47:20.350406 28639 net.cpp:156] Memory required for data: 513300480
I0913 19:47:20.350415 28639 layer_factory.hpp:77] Creating layer inception_4e/relu_pool_proj
I0913 19:47:20.350427 28639 net.cpp:91] Creating Layer inception_4e/relu_pool_proj
I0913 19:47:20.350433 28639 net.cpp:425] inception_4e/relu_pool_proj <- inception_4e/pool_proj
I0913 19:47:20.350442 28639 net.cpp:386] inception_4e/relu_pool_proj -> inception_4e/pool_proj (in-place)
I0913 19:47:20.350862 28639 net.cpp:141] Setting up inception_4e/relu_pool_proj
I0913 19:47:20.350875 28639 net.cpp:148] Top shape: 10 128 14 14 (250880)
I0913 19:47:20.350879 28639 net.cpp:156] Memory required for data: 514304000
I0913 19:47:20.350884 28639 layer_factory.hpp:77] Creating layer inception_4e/output
I0913 19:47:20.350893 28639 net.cpp:91] Creating Layer inception_4e/output
I0913 19:47:20.350898 28639 net.cpp:425] inception_4e/output <- inception_4e/1x1
I0913 19:47:20.350904 28639 net.cpp:425] inception_4e/output <- inception_4e/3x3
I0913 19:47:20.350909 28639 net.cpp:425] inception_4e/output <- inception_4e/5x5
I0913 19:47:20.350915 28639 net.cpp:425] inception_4e/output <- inception_4e/pool_proj
I0913 19:47:20.350924 28639 net.cpp:399] inception_4e/output -> inception_4e/output
I0913 19:47:20.350968 28639 net.cpp:141] Setting up inception_4e/output
I0913 19:47:20.350978 28639 net.cpp:148] Top shape: 10 832 14 14 (1630720)
I0913 19:47:20.350982 28639 net.cpp:156] Memory required for data: 520826880
I0913 19:47:20.350986 28639 layer_factory.hpp:77] Creating layer pool4/3x3_s2
I0913 19:47:20.351001 28639 net.cpp:91] Creating Layer pool4/3x3_s2
I0913 19:47:20.351007 28639 net.cpp:425] pool4/3x3_s2 <- inception_4e/output
I0913 19:47:20.351014 28639 net.cpp:399] pool4/3x3_s2 -> pool4/3x3_s2
I0913 19:47:20.351078 28639 net.cpp:141] Setting up pool4/3x3_s2
I0913 19:47:20.351086 28639 net.cpp:148] Top shape: 10 832 7 7 (407680)
I0913 19:47:20.351090 28639 net.cpp:156] Memory required for data: 522457600
I0913 19:47:20.351095 28639 layer_factory.hpp:77] Creating layer pool4/3x3_s2_pool4/3x3_s2_0_split
I0913 19:47:20.351104 28639 net.cpp:91] Creating Layer pool4/3x3_s2_pool4/3x3_s2_0_split
I0913 19:47:20.351109 28639 net.cpp:425] pool4/3x3_s2_pool4/3x3_s2_0_split <- pool4/3x3_s2
I0913 19:47:20.351117 28639 net.cpp:399] pool4/3x3_s2_pool4/3x3_s2_0_split -> pool4/3x3_s2_pool4/3x3_s2_0_split_0
I0913 19:47:20.351125 28639 net.cpp:399] pool4/3x3_s2_pool4/3x3_s2_0_split -> pool4/3x3_s2_pool4/3x3_s2_0_split_1
I0913 19:47:20.351133 28639 net.cpp:399] pool4/3x3_s2_pool4/3x3_s2_0_split -> pool4/3x3_s2_pool4/3x3_s2_0_split_2
I0913 19:47:20.351141 28639 net.cpp:399] pool4/3x3_s2_pool4/3x3_s2_0_split -> pool4/3x3_s2_pool4/3x3_s2_0_split_3
I0913 19:47:20.351233 28639 net.cpp:141] Setting up pool4/3x3_s2_pool4/3x3_s2_0_split
I0913 19:47:20.351243 28639 net.cpp:148] Top shape: 10 832 7 7 (407680)
I0913 19:47:20.351248 28639 net.cpp:148] Top shape: 10 832 7 7 (407680)
I0913 19:47:20.351253 28639 net.cpp:148] Top shape: 10 832 7 7 (407680)
I0913 19:47:20.351258 28639 net.cpp:148] Top shape: 10 832 7 7 (407680)
I0913 19:47:20.351263 28639 net.cpp:156] Memory required for data: 528980480
I0913 19:47:20.351266 28639 layer_factory.hpp:77] Creating layer inception_5a/1x1
I0913 19:47:20.351280 28639 net.cpp:91] Creating Layer inception_5a/1x1
I0913 19:47:20.351286 28639 net.cpp:425] inception_5a/1x1 <- pool4/3x3_s2_pool4/3x3_s2_0_split_0
I0913 19:47:20.351296 28639 net.cpp:399] inception_5a/1x1 -> inception_5a/1x1
I0913 19:47:20.354948 28639 net.cpp:141] Setting up inception_5a/1x1
I0913 19:47:20.354969 28639 net.cpp:148] Top shape: 10 256 7 7 (125440)
I0913 19:47:20.354974 28639 net.cpp:156] Memory required for data: 529482240
I0913 19:47:20.354984 28639 layer_factory.hpp:77] Creating layer inception_5a/relu_1x1
I0913 19:47:20.354995 28639 net.cpp:91] Creating Layer inception_5a/relu_1x1
I0913 19:47:20.355002 28639 net.cpp:425] inception_5a/relu_1x1 <- inception_5a/1x1
I0913 19:47:20.355011 28639 net.cpp:386] inception_5a/relu_1x1 -> inception_5a/1x1 (in-place)
I0913 19:47:20.355437 28639 net.cpp:141] Setting up inception_5a/relu_1x1
I0913 19:47:20.355448 28639 net.cpp:148] Top shape: 10 256 7 7 (125440)
I0913 19:47:20.355453 28639 net.cpp:156] Memory required for data: 529984000
I0913 19:47:20.355458 28639 layer_factory.hpp:77] Creating layer inception_5a/3x3_reduce
I0913 19:47:20.355473 28639 net.cpp:91] Creating Layer inception_5a/3x3_reduce
I0913 19:47:20.355479 28639 net.cpp:425] inception_5a/3x3_reduce <- pool4/3x3_s2_pool4/3x3_s2_0_split_1
I0913 19:47:20.355486 28639 net.cpp:399] inception_5a/3x3_reduce -> inception_5a/3x3_reduce
I0913 19:47:20.358741 28639 net.cpp:141] Setting up inception_5a/3x3_reduce
I0913 19:47:20.358759 28639 net.cpp:148] Top shape: 10 160 7 7 (78400)
I0913 19:47:20.358764 28639 net.cpp:156] Memory required for data: 530297600
I0913 19:47:20.358773 28639 layer_factory.hpp:77] Creating layer inception_5a/relu_3x3_reduce
I0913 19:47:20.358785 28639 net.cpp:91] Creating Layer inception_5a/relu_3x3_reduce
I0913 19:47:20.358791 28639 net.cpp:425] inception_5a/relu_3x3_reduce <- inception_5a/3x3_reduce
I0913 19:47:20.358798 28639 net.cpp:386] inception_5a/relu_3x3_reduce -> inception_5a/3x3_reduce (in-place)
I0913 19:47:20.359048 28639 net.cpp:141] Setting up inception_5a/relu_3x3_reduce
I0913 19:47:20.359060 28639 net.cpp:148] Top shape: 10 160 7 7 (78400)
I0913 19:47:20.359063 28639 net.cpp:156] Memory required for data: 530611200
I0913 19:47:20.359068 28639 layer_factory.hpp:77] Creating layer inception_5a/3x3
I0913 19:47:20.359082 28639 net.cpp:91] Creating Layer inception_5a/3x3
I0913 19:47:20.359088 28639 net.cpp:425] inception_5a/3x3 <- inception_5a/3x3_reduce
I0913 19:47:20.359099 28639 net.cpp:399] inception_5a/3x3 -> inception_5a/3x3
I0913 19:47:20.365674 28639 net.cpp:141] Setting up inception_5a/3x3
I0913 19:47:20.365691 28639 net.cpp:148] Top shape: 10 320 7 7 (156800)
I0913 19:47:20.365697 28639 net.cpp:156] Memory required for data: 531238400
I0913 19:47:20.365707 28639 layer_factory.hpp:77] Creating layer inception_5a/relu_3x3
I0913 19:47:20.365715 28639 net.cpp:91] Creating Layer inception_5a/relu_3x3
I0913 19:47:20.365725 28639 net.cpp:425] inception_5a/relu_3x3 <- inception_5a/3x3
I0913 19:47:20.365732 28639 net.cpp:386] inception_5a/relu_3x3 -> inception_5a/3x3 (in-place)
I0913 19:47:20.366169 28639 net.cpp:141] Setting up inception_5a/relu_3x3
I0913 19:47:20.366181 28639 net.cpp:148] Top shape: 10 320 7 7 (156800)
I0913 19:47:20.366186 28639 net.cpp:156] Memory required for data: 531865600
I0913 19:47:20.366191 28639 layer_factory.hpp:77] Creating layer inception_5a/5x5_reduce
I0913 19:47:20.366205 28639 net.cpp:91] Creating Layer inception_5a/5x5_reduce
I0913 19:47:20.366211 28639 net.cpp:425] inception_5a/5x5_reduce <- pool4/3x3_s2_pool4/3x3_s2_0_split_2
I0913 19:47:20.366225 28639 net.cpp:399] inception_5a/5x5_reduce -> inception_5a/5x5_reduce
I0913 19:47:20.367789 28639 net.cpp:141] Setting up inception_5a/5x5_reduce
I0913 19:47:20.367805 28639 net.cpp:148] Top shape: 10 32 7 7 (15680)
I0913 19:47:20.367810 28639 net.cpp:156] Memory required for data: 531928320
I0913 19:47:20.367820 28639 layer_factory.hpp:77] Creating layer inception_5a/relu_5x5_reduce
I0913 19:47:20.367830 28639 net.cpp:91] Creating Layer inception_5a/relu_5x5_reduce
I0913 19:47:20.367836 28639 net.cpp:425] inception_5a/relu_5x5_reduce <- inception_5a/5x5_reduce
I0913 19:47:20.367843 28639 net.cpp:386] inception_5a/relu_5x5_reduce -> inception_5a/5x5_reduce (in-place)
I0913 19:47:20.368269 28639 net.cpp:141] Setting up inception_5a/relu_5x5_reduce
I0913 19:47:20.368283 28639 net.cpp:148] Top shape: 10 32 7 7 (15680)
I0913 19:47:20.368286 28639 net.cpp:156] Memory required for data: 531991040
I0913 19:47:20.368291 28639 layer_factory.hpp:77] Creating layer inception_5a/5x5
I0913 19:47:20.368305 28639 net.cpp:91] Creating Layer inception_5a/5x5
I0913 19:47:20.368311 28639 net.cpp:425] inception_5a/5x5 <- inception_5a/5x5_reduce
I0913 19:47:20.368324 28639 net.cpp:399] inception_5a/5x5 -> inception_5a/5x5
I0913 19:47:20.370602 28639 net.cpp:141] Setting up inception_5a/5x5
I0913 19:47:20.370620 28639 net.cpp:148] Top shape: 10 128 7 7 (62720)
I0913 19:47:20.370625 28639 net.cpp:156] Memory required for data: 532241920
I0913 19:47:20.370633 28639 layer_factory.hpp:77] Creating layer inception_5a/relu_5x5
I0913 19:47:20.370668 28639 net.cpp:91] Creating Layer inception_5a/relu_5x5
I0913 19:47:20.370676 28639 net.cpp:425] inception_5a/relu_5x5 <- inception_5a/5x5
I0913 19:47:20.370682 28639 net.cpp:386] inception_5a/relu_5x5 -> inception_5a/5x5 (in-place)
I0913 19:47:20.370923 28639 net.cpp:141] Setting up inception_5a/relu_5x5
I0913 19:47:20.370934 28639 net.cpp:148] Top shape: 10 128 7 7 (62720)
I0913 19:47:20.370937 28639 net.cpp:156] Memory required for data: 532492800
I0913 19:47:20.370944 28639 layer_factory.hpp:77] Creating layer inception_5a/pool
I0913 19:47:20.370957 28639 net.cpp:91] Creating Layer inception_5a/pool
I0913 19:47:20.370964 28639 net.cpp:425] inception_5a/pool <- pool4/3x3_s2_pool4/3x3_s2_0_split_3
I0913 19:47:20.370970 28639 net.cpp:399] inception_5a/pool -> inception_5a/pool
I0913 19:47:20.371045 28639 net.cpp:141] Setting up inception_5a/pool
I0913 19:47:20.371055 28639 net.cpp:148] Top shape: 10 832 7 7 (407680)
I0913 19:47:20.371059 28639 net.cpp:156] Memory required for data: 534123520
I0913 19:47:20.371064 28639 layer_factory.hpp:77] Creating layer inception_5a/pool_proj
I0913 19:47:20.371078 28639 net.cpp:91] Creating Layer inception_5a/pool_proj
I0913 19:47:20.371083 28639 net.cpp:425] inception_5a/pool_proj <- inception_5a/pool
I0913 19:47:20.371094 28639 net.cpp:399] inception_5a/pool_proj -> inception_5a/pool_proj
I0913 19:47:20.374116 28639 net.cpp:141] Setting up inception_5a/pool_proj
I0913 19:47:20.374135 28639 net.cpp:148] Top shape: 10 128 7 7 (62720)
I0913 19:47:20.374140 28639 net.cpp:156] Memory required for data: 534374400
I0913 19:47:20.374148 28639 layer_factory.hpp:77] Creating layer inception_5a/relu_pool_proj
I0913 19:47:20.374161 28639 net.cpp:91] Creating Layer inception_5a/relu_pool_proj
I0913 19:47:20.374166 28639 net.cpp:425] inception_5a/relu_pool_proj <- inception_5a/pool_proj
I0913 19:47:20.374173 28639 net.cpp:386] inception_5a/relu_pool_proj -> inception_5a/pool_proj (in-place)
I0913 19:47:20.374603 28639 net.cpp:141] Setting up inception_5a/relu_pool_proj
I0913 19:47:20.374617 28639 net.cpp:148] Top shape: 10 128 7 7 (62720)
I0913 19:47:20.374622 28639 net.cpp:156] Memory required for data: 534625280
I0913 19:47:20.374627 28639 layer_factory.hpp:77] Creating layer inception_5a/output
I0913 19:47:20.374640 28639 net.cpp:91] Creating Layer inception_5a/output
I0913 19:47:20.374646 28639 net.cpp:425] inception_5a/output <- inception_5a/1x1
I0913 19:47:20.374652 28639 net.cpp:425] inception_5a/output <- inception_5a/3x3
I0913 19:47:20.374658 28639 net.cpp:425] inception_5a/output <- inception_5a/5x5
I0913 19:47:20.374663 28639 net.cpp:425] inception_5a/output <- inception_5a/pool_proj
I0913 19:47:20.374672 28639 net.cpp:399] inception_5a/output -> inception_5a/output
I0913 19:47:20.374719 28639 net.cpp:141] Setting up inception_5a/output
I0913 19:47:20.374729 28639 net.cpp:148] Top shape: 10 832 7 7 (407680)
I0913 19:47:20.374733 28639 net.cpp:156] Memory required for data: 536256000
I0913 19:47:20.374738 28639 layer_factory.hpp:77] Creating layer inception_5a/output_inception_5a/output_0_split
I0913 19:47:20.374747 28639 net.cpp:91] Creating Layer inception_5a/output_inception_5a/output_0_split
I0913 19:47:20.374752 28639 net.cpp:425] inception_5a/output_inception_5a/output_0_split <- inception_5a/output
I0913 19:47:20.374763 28639 net.cpp:399] inception_5a/output_inception_5a/output_0_split -> inception_5a/output_inception_5a/output_0_split_0
I0913 19:47:20.374771 28639 net.cpp:399] inception_5a/output_inception_5a/output_0_split -> inception_5a/output_inception_5a/output_0_split_1
I0913 19:47:20.374780 28639 net.cpp:399] inception_5a/output_inception_5a/output_0_split -> inception_5a/output_inception_5a/output_0_split_2
I0913 19:47:20.374790 28639 net.cpp:399] inception_5a/output_inception_5a/output_0_split -> inception_5a/output_inception_5a/output_0_split_3
I0913 19:47:20.374893 28639 net.cpp:141] Setting up inception_5a/output_inception_5a/output_0_split
I0913 19:47:20.374903 28639 net.cpp:148] Top shape: 10 832 7 7 (407680)
I0913 19:47:20.374909 28639 net.cpp:148] Top shape: 10 832 7 7 (407680)
I0913 19:47:20.374914 28639 net.cpp:148] Top shape: 10 832 7 7 (407680)
I0913 19:47:20.374919 28639 net.cpp:148] Top shape: 10 832 7 7 (407680)
I0913 19:47:20.374922 28639 net.cpp:156] Memory required for data: 542778880
I0913 19:47:20.374927 28639 layer_factory.hpp:77] Creating layer inception_5b/1x1
I0913 19:47:20.374940 28639 net.cpp:91] Creating Layer inception_5b/1x1
I0913 19:47:20.374946 28639 net.cpp:425] inception_5b/1x1 <- inception_5a/output_inception_5a/output_0_split_0
I0913 19:47:20.374958 28639 net.cpp:399] inception_5b/1x1 -> inception_5b/1x1
I0913 19:47:20.379459 28639 net.cpp:141] Setting up inception_5b/1x1
I0913 19:47:20.379478 28639 net.cpp:148] Top shape: 10 384 7 7 (188160)
I0913 19:47:20.379483 28639 net.cpp:156] Memory required for data: 543531520
I0913 19:47:20.379492 28639 layer_factory.hpp:77] Creating layer inception_5b/relu_1x1
I0913 19:47:20.379500 28639 net.cpp:91] Creating Layer inception_5b/relu_1x1
I0913 19:47:20.379505 28639 net.cpp:425] inception_5b/relu_1x1 <- inception_5b/1x1
I0913 19:47:20.379513 28639 net.cpp:386] inception_5b/relu_1x1 -> inception_5b/1x1 (in-place)
I0913 19:47:20.379936 28639 net.cpp:141] Setting up inception_5b/relu_1x1
I0913 19:47:20.379952 28639 net.cpp:148] Top shape: 10 384 7 7 (188160)
I0913 19:47:20.379956 28639 net.cpp:156] Memory required for data: 544284160
I0913 19:47:20.379962 28639 layer_factory.hpp:77] Creating layer inception_5b/3x3_reduce
I0913 19:47:20.379981 28639 net.cpp:91] Creating Layer inception_5b/3x3_reduce
I0913 19:47:20.379987 28639 net.cpp:425] inception_5b/3x3_reduce <- inception_5a/output_inception_5a/output_0_split_1
I0913 19:47:20.379997 28639 net.cpp:399] inception_5b/3x3_reduce -> inception_5b/3x3_reduce
I0913 19:47:20.383445 28639 net.cpp:141] Setting up inception_5b/3x3_reduce
I0913 19:47:20.383462 28639 net.cpp:148] Top shape: 10 192 7 7 (94080)
I0913 19:47:20.383467 28639 net.cpp:156] Memory required for data: 544660480
I0913 19:47:20.383476 28639 layer_factory.hpp:77] Creating layer inception_5b/relu_3x3_reduce
I0913 19:47:20.383484 28639 net.cpp:91] Creating Layer inception_5b/relu_3x3_reduce
I0913 19:47:20.383491 28639 net.cpp:425] inception_5b/relu_3x3_reduce <- inception_5b/3x3_reduce
I0913 19:47:20.383497 28639 net.cpp:386] inception_5b/relu_3x3_reduce -> inception_5b/3x3_reduce (in-place)
I0913 19:47:20.383747 28639 net.cpp:141] Setting up inception_5b/relu_3x3_reduce
I0913 19:47:20.383759 28639 net.cpp:148] Top shape: 10 192 7 7 (94080)
I0913 19:47:20.383764 28639 net.cpp:156] Memory required for data: 545036800
I0913 19:47:20.383769 28639 layer_factory.hpp:77] Creating layer inception_5b/3x3
I0913 19:47:20.383782 28639 net.cpp:91] Creating Layer inception_5b/3x3
I0913 19:47:20.383788 28639 net.cpp:425] inception_5b/3x3 <- inception_5b/3x3_reduce
I0913 19:47:20.383800 28639 net.cpp:399] inception_5b/3x3 -> inception_5b/3x3
I0913 19:47:20.391721 28639 net.cpp:141] Setting up inception_5b/3x3
I0913 19:47:20.391742 28639 net.cpp:148] Top shape: 10 384 7 7 (188160)
I0913 19:47:20.391747 28639 net.cpp:156] Memory required for data: 545789440
I0913 19:47:20.391757 28639 layer_factory.hpp:77] Creating layer inception_5b/relu_3x3
I0913 19:47:20.391768 28639 net.cpp:91] Creating Layer inception_5b/relu_3x3
I0913 19:47:20.391775 28639 net.cpp:425] inception_5b/relu_3x3 <- inception_5b/3x3
I0913 19:47:20.391784 28639 net.cpp:386] inception_5b/relu_3x3 -> inception_5b/3x3 (in-place)
I0913 19:47:20.392231 28639 net.cpp:141] Setting up inception_5b/relu_3x3
I0913 19:47:20.392244 28639 net.cpp:148] Top shape: 10 384 7 7 (188160)
I0913 19:47:20.392248 28639 net.cpp:156] Memory required for data: 546542080
I0913 19:47:20.392256 28639 layer_factory.hpp:77] Creating layer inception_5b/5x5_reduce
I0913 19:47:20.392271 28639 net.cpp:91] Creating Layer inception_5b/5x5_reduce
I0913 19:47:20.392277 28639 net.cpp:425] inception_5b/5x5_reduce <- inception_5a/output_inception_5a/output_0_split_2
I0913 19:47:20.392288 28639 net.cpp:399] inception_5b/5x5_reduce -> inception_5b/5x5_reduce
I0913 19:47:20.393996 28639 net.cpp:141] Setting up inception_5b/5x5_reduce
I0913 19:47:20.394013 28639 net.cpp:148] Top shape: 10 48 7 7 (23520)
I0913 19:47:20.394018 28639 net.cpp:156] Memory required for data: 546636160
I0913 19:47:20.394026 28639 layer_factory.hpp:77] Creating layer inception_5b/relu_5x5_reduce
I0913 19:47:20.394038 28639 net.cpp:91] Creating Layer inception_5b/relu_5x5_reduce
I0913 19:47:20.394045 28639 net.cpp:425] inception_5b/relu_5x5_reduce <- inception_5b/5x5_reduce
I0913 19:47:20.394054 28639 net.cpp:386] inception_5b/relu_5x5_reduce -> inception_5b/5x5_reduce (in-place)
I0913 19:47:20.394469 28639 net.cpp:141] Setting up inception_5b/relu_5x5_reduce
I0913 19:47:20.394484 28639 net.cpp:148] Top shape: 10 48 7 7 (23520)
I0913 19:47:20.394490 28639 net.cpp:156] Memory required for data: 546730240
I0913 19:47:20.394495 28639 layer_factory.hpp:77] Creating layer inception_5b/5x5
I0913 19:47:20.394512 28639 net.cpp:91] Creating Layer inception_5b/5x5
I0913 19:47:20.394518 28639 net.cpp:425] inception_5b/5x5 <- inception_5b/5x5_reduce
I0913 19:47:20.394527 28639 net.cpp:399] inception_5b/5x5 -> inception_5b/5x5
I0913 19:47:20.397570 28639 net.cpp:141] Setting up inception_5b/5x5
I0913 19:47:20.397591 28639 net.cpp:148] Top shape: 10 128 7 7 (62720)
I0913 19:47:20.397596 28639 net.cpp:156] Memory required for data: 546981120
I0913 19:47:20.397605 28639 layer_factory.hpp:77] Creating layer inception_5b/relu_5x5
I0913 19:47:20.397614 28639 net.cpp:91] Creating Layer inception_5b/relu_5x5
I0913 19:47:20.397619 28639 net.cpp:425] inception_5b/relu_5x5 <- inception_5b/5x5
I0913 19:47:20.397625 28639 net.cpp:386] inception_5b/relu_5x5 -> inception_5b/5x5 (in-place)
I0913 19:47:20.397881 28639 net.cpp:141] Setting up inception_5b/relu_5x5
I0913 19:47:20.397891 28639 net.cpp:148] Top shape: 10 128 7 7 (62720)
I0913 19:47:20.397896 28639 net.cpp:156] Memory required for data: 547232000
I0913 19:47:20.397900 28639 layer_factory.hpp:77] Creating layer inception_5b/pool
I0913 19:47:20.397913 28639 net.cpp:91] Creating Layer inception_5b/pool
I0913 19:47:20.397919 28639 net.cpp:425] inception_5b/pool <- inception_5a/output_inception_5a/output_0_split_3
I0913 19:47:20.397927 28639 net.cpp:399] inception_5b/pool -> inception_5b/pool
I0913 19:47:20.398005 28639 net.cpp:141] Setting up inception_5b/pool
I0913 19:47:20.398015 28639 net.cpp:148] Top shape: 10 832 7 7 (407680)
I0913 19:47:20.398018 28639 net.cpp:156] Memory required for data: 548862720
I0913 19:47:20.398023 28639 layer_factory.hpp:77] Creating layer inception_5b/pool_proj
I0913 19:47:20.398036 28639 net.cpp:91] Creating Layer inception_5b/pool_proj
I0913 19:47:20.398042 28639 net.cpp:425] inception_5b/pool_proj <- inception_5b/pool
I0913 19:47:20.398051 28639 net.cpp:399] inception_5b/pool_proj -> inception_5b/pool_proj
I0913 19:47:20.401181 28639 net.cpp:141] Setting up inception_5b/pool_proj
I0913 19:47:20.401201 28639 net.cpp:148] Top shape: 10 128 7 7 (62720)
I0913 19:47:20.401206 28639 net.cpp:156] Memory required for data: 549113600
I0913 19:47:20.401214 28639 layer_factory.hpp:77] Creating layer inception_5b/relu_pool_proj
I0913 19:47:20.401222 28639 net.cpp:91] Creating Layer inception_5b/relu_pool_proj
I0913 19:47:20.401227 28639 net.cpp:425] inception_5b/relu_pool_proj <- inception_5b/pool_proj
I0913 19:47:20.401237 28639 net.cpp:386] inception_5b/relu_pool_proj -> inception_5b/pool_proj (in-place)
I0913 19:47:20.401674 28639 net.cpp:141] Setting up inception_5b/relu_pool_proj
I0913 19:47:20.401688 28639 net.cpp:148] Top shape: 10 128 7 7 (62720)
I0913 19:47:20.401693 28639 net.cpp:156] Memory required for data: 549364480
I0913 19:47:20.401698 28639 layer_factory.hpp:77] Creating layer inception_5b/output
I0913 19:47:20.401707 28639 net.cpp:91] Creating Layer inception_5b/output
I0913 19:47:20.401712 28639 net.cpp:425] inception_5b/output <- inception_5b/1x1
I0913 19:47:20.401720 28639 net.cpp:425] inception_5b/output <- inception_5b/3x3
I0913 19:47:20.401724 28639 net.cpp:425] inception_5b/output <- inception_5b/5x5
I0913 19:47:20.401729 28639 net.cpp:425] inception_5b/output <- inception_5b/pool_proj
I0913 19:47:20.401738 28639 net.cpp:399] inception_5b/output -> inception_5b/output
I0913 19:47:20.401788 28639 net.cpp:141] Setting up inception_5b/output
I0913 19:47:20.401798 28639 net.cpp:148] Top shape: 10 1024 7 7 (501760)
I0913 19:47:20.401803 28639 net.cpp:156] Memory required for data: 551371520
I0913 19:47:20.401808 28639 layer_factory.hpp:77] Creating layer pool5/7x7_s1
I0913 19:47:20.401820 28639 net.cpp:91] Creating Layer pool5/7x7_s1
I0913 19:47:20.401825 28639 net.cpp:425] pool5/7x7_s1 <- inception_5b/output
I0913 19:47:20.401834 28639 net.cpp:399] pool5/7x7_s1 -> pool5/7x7_s1
I0913 19:47:20.402137 28639 net.cpp:141] Setting up pool5/7x7_s1
I0913 19:47:20.402148 28639 net.cpp:148] Top shape: 10 1024 1 1 (10240)
I0913 19:47:20.402153 28639 net.cpp:156] Memory required for data: 551412480
I0913 19:47:20.402156 28639 layer_factory.hpp:77] Creating layer pool5/drop_7x7_s1
I0913 19:47:20.402184 28639 net.cpp:91] Creating Layer pool5/drop_7x7_s1
I0913 19:47:20.402189 28639 net.cpp:425] pool5/drop_7x7_s1 <- pool5/7x7_s1
I0913 19:47:20.402194 28639 net.cpp:386] pool5/drop_7x7_s1 -> pool5/7x7_s1 (in-place)
I0913 19:47:20.402250 28639 net.cpp:141] Setting up pool5/drop_7x7_s1
I0913 19:47:20.402258 28639 net.cpp:148] Top shape: 10 1024 1 1 (10240)
I0913 19:47:20.402262 28639 net.cpp:156] Memory required for data: 551453440
I0913 19:47:20.402267 28639 layer_factory.hpp:77] Creating layer loss3/classifier
I0913 19:47:20.402278 28639 net.cpp:91] Creating Layer loss3/classifier
I0913 19:47:20.402283 28639 net.cpp:425] loss3/classifier <- pool5/7x7_s1
I0913 19:47:20.402294 28639 net.cpp:399] loss3/classifier -> loss3/classifier
I0913 19:47:20.412346 28639 net.cpp:141] Setting up loss3/classifier
I0913 19:47:20.412379 28639 net.cpp:148] Top shape: 10 1000 (10000)
I0913 19:47:20.412384 28639 net.cpp:156] Memory required for data: 551493440
I0913 19:47:20.412396 28639 layer_factory.hpp:77] Creating layer prob
I0913 19:47:20.412421 28639 net.cpp:91] Creating Layer prob
I0913 19:47:20.412428 28639 net.cpp:425] prob <- loss3/classifier
I0913 19:47:20.412436 28639 net.cpp:399] prob -> prob
I0913 19:47:20.413100 28639 net.cpp:141] Setting up prob
I0913 19:47:20.413121 28639 net.cpp:148] Top shape: 10 1000 (10000)
I0913 19:47:20.413126 28639 net.cpp:156] Memory required for data: 551533440
I0913 19:47:20.413132 28639 net.cpp:219] prob does not need backward computation.
I0913 19:47:20.413137 28639 net.cpp:219] loss3/classifier does not need backward computation.
I0913 19:47:20.413141 28639 net.cpp:219] pool5/drop_7x7_s1 does not need backward computation.
I0913 19:47:20.413146 28639 net.cpp:219] pool5/7x7_s1 does not need backward computation.
…
