…
Java HotSpot(TM) 64-Bit Server VM warning: You have loaded library /tmp/cvld3773227285033577534/libopencv_java310.xine1.so which might have disabled stack guard. The VM will try to fix the stack guard now.
It's highly recommended that you fix the library with 'execstack -c <libfile>', or link it with '-z noexecstack'.
WARNING: Logging before InitGoogleLogging() is written to STDERR
I0731 22:58:24.796859 17494 net.cpp:49] Initializing net from parameters: 
name: "CaffeNet"
state {
  phase: TEST
}
layer {
  name: "data"
  type: "Input"
  top: "data"
  input_param {
    shape {
      dim: 10
      dim: 3
      dim: 227
      dim: 227
    }
  }
}
layer {
  name: "conv1"
  type: "Convolution"
  bottom: "data"
  top: "conv1"
  convolution_param {
    num_output: 96
    kernel_size: 11
    stride: 4
  }
}
layer {
  name: "relu1"
  type: "ReLU"
  bottom: "conv1"
  top: "conv1"
}
layer {
  name: "pool1"
  type: "Pooling"
  bottom: "conv1"
  top: "pool1"
  pooling_param {
    pool: MAX
    kernel_size: 3
    stride: 2
  }
}
layer {
  name: "norm1"
  type: "LRN"
  bottom: "pool1"
  top: "norm1"
  lrn_param {
    local_size: 5
    alpha: 0.0001
    beta: 0.75
  }
}
layer {
  name: "conv2"
  type: "Convolution"
  bottom: "norm1"
  top: "conv2"
  convolution_param {
    num_output: 256
    pad: 2
    kernel_size: 5
    group: 2
  }
}
layer {
  name: "relu2"
  type: "ReLU"
  bottom: "conv2"
  top: "conv2"
}
layer {
  name: "pool2"
  type: "Pooling"
  bottom: "conv2"
  top: "pool2"
  pooling_param {
    pool: MAX
    kernel_size: 3
    stride: 2
  }
}
layer {
  name: "norm2"
  type: "LRN"
  bottom: "pool2"
  top: "norm2"
  lrn_param {
    local_size: 5
    alpha: 0.0001
    beta: 0.75
  }
}
layer {
  name: "conv3"
  type: "Convolution"
  bottom: "norm2"
  top: "conv3"
  convolution_param {
    num_output: 384
    pad: 1
    kernel_size: 3
  }
}
layer {
  name: "relu3"
  type: "ReLU"
  bottom: "conv3"
  top: "conv3"
}
layer {
  name: "conv4"
  type: "Convolution"
  bottom: "conv3"
  top: "conv4"
  convolution_param {
    num_output: 384
    pad: 1
    kernel_size: 3
    group: 2
  }
}
layer {
  name: "relu4"
  type: "ReLU"
  bottom: "conv4"
  top: "conv4"
}
layer {
  name: "conv5"
  type: "Convolution"
  bottom: "conv4"
  top: "conv5"
  convolution_param {
    num_output: 256
    pad: 1
    kernel_size: 3
    group: 2
  }
}
layer {
  name: "relu5"
  type: "ReLU"
  bottom: "conv5"
  top: "conv5"
}
layer {
  name: "pool5"
  type: "Pooling"
  bottom: "conv5"
  top: "pool5"
  pooling_param {
    pool: MAX
    kernel_size: 3
    stride: 2
  }
}
layer {
  name: "fc6"
  type: "InnerProduct"
  bottom: "pool5"
  top: "fc6"
  inner_product_param {
    num_output: 4096
  }
}
layer {
  name: "relu6"
  type: "ReLU"
  bottom: "fc6"
  top: "fc6"
}
layer {
  name: "drop6"
  type: "Dropout"
  bottom: "fc6"
  top: "fc6"
  dropout_param {
    dropout_ratio: 0.5
  }
}
layer {
  name: "fc7"
  type: "InnerProduct"
  bottom: "fc6"
  top: "fc7"
  inner_product_param {
    num_output: 4096
  }
}
layer {
  name: "relu7"
  type: "ReLU"
  bottom: "fc7"
  top: "fc7"
}
layer {
  name: "drop7"
  type: "Dropout"
  bottom: "fc7"
  top: "fc7"
  dropout_param {
    dropout_ratio: 0.5
  }
}
layer {
  name: "fc8"
  type: "InnerProduct"
  bottom: "fc7"
  top: "fc8"
  inner_product_param {
    num_output: 1000
  }
}
layer {
  name: "prob"
  type: "Softmax"
  bottom: "fc8"
  top: "prob"
}
I0731 22:58:24.797040 17494 layer_factory.hpp:77] Creating layer data
I0731 22:58:24.797065 17494 net.cpp:91] Creating Layer data
I0731 22:58:24.797075 17494 net.cpp:399] data -> data
I0731 22:58:25.234194 17484 upgrade_proto.cpp:66] Attempting to upgrade input file specified using deprecated input fields: /tmp/cvld3773227285033577534/s2vt.words_to_preds.prototxt
I0731 22:58:25.234253 17484 upgrade_proto.cpp:69] Successfully upgraded file specified using deprecated input fields.
W0731 22:58:25.234262 17484 upgrade_proto.cpp:71] Note that future Caffe releases will only support input layers and not input fields.
I0731 22:58:25.234580 17484 net.cpp:49] Initializing net from parameters: 
name: "s2vt:features_to_lstm"
state {
  phase: TEST
}
layer {
  name: "input"
  type: "Input"
  top: "frames_fc7"
  top: "cont_sentence"
  top: "input_sentence"
  top: "stage_indicator"
  input_param {
    shape {
      dim: 1
      dim: 4096
    }
    shape {
      dim: 1
      dim: 1
    }
    shape {
      dim: 1
      dim: 1
    }
    shape {
      dim: 1
      dim: 1
    }
  }
}
layer {
  name: "embed_encoder"
  type: "InnerProduct"
  bottom: "frames_fc7"
  top: "embedded_in_frames"
  param {
    lr_mult: 1
    decay_mult: 1
  }
  param {
    lr_mult: 2
    decay_mult: 0
  }
  inner_product_param {
    num_output: 500
    weight_filler {
      type: "xavier"
    }
    bias_filler {
      type: "constant"
      value: 0.2
    }
  }
}
layer {
  name: "reshape_frames"
  type: "Reshape"
  bottom: "embedded_in_frames"
  top: "embedded_input_frames"
  reshape_param {
    shape {
      dim: 1
      dim: 1
      dim: 500
    }
  }
}
layer {
  name: "reshape_stage_indicator"
  type: "Reshape"
  bottom: "stage_indicator"
  top: "reshaped_stage_indicator"
  reshape_param {
    shape {
      dim: 1
      dim: 1
      dim: 1
    }
  }
}
layer {
  name: "embedding"
  type: "Embed"
  bottom: "input_sentence"
  top: "embedded_input_sentence"
  param {
    lr_mult: 1
  }
  embed_param {
    num_output: 500
    input_dim: 46168
    bias_term: false
    weight_filler {
      type: "uniform"
      min: -0.08
      max: 0.08
    }
  }
}
layer {
  name: "lstm1"
  type: "LSTM"
  bottom: "embedded_input_frames"
  bottom: "cont_sentence"
  top: "lstm1"
  recurrent_param {
    num_output: 1000
    weight_filler {
      type: "uniform"
      min: -0.08
      max: 0.08
    }
    bias_filler {
      type: "constant"
      value: 0
    }
  }
}
layer {
  name: "concat"
  type: "Concat"
  bottom: "lstm1"
  bottom: "embedded_input_sentence"
  bottom: "reshaped_stage_indicator"
  top: "lstm1_video_sequence"
  concat_param {
    concat_dim: 2
  }
}
layer {
  name: "lstm2"
  type: "LSTM"
  bottom: "lstm1_video_sequence"
  bottom: "cont_sentence"
  top: "lstm2"
  recurrent_param {
    num_output: 1000
    weight_filler {
      type: "uniform"
      min: -0.08
      max: 0.08
    }
    bias_filler {
      type: "constant"
      value: 0
    }
  }
}
layer {
  name: "predict"
  type: "InnerProduct"
  bottom: "lstm2"
  top: "predict"
  param {
    lr_mult: 1
    decay_mult: 1
  }
  param {
    lr_mult: 2
    decay_mult: 0
  }
  inner_product_param {
    num_output: 46168
    weight_filler {
      type: "uniform"
      min: -0.08
      max: 0.08
    }
    bias_filler {
      type: "constant"
      value: 0
    }
    axis: 2
  }
}
layer {
  name: "probs"
  type: "Softmax"
  bottom: "predict"
  top: "probs"
  softmax_param {
    axis: 2
  }
}
I0731 22:58:25.234726 17484 layer_factory.hpp:77] Creating layer input
I0731 22:58:25.234745 17484 net.cpp:91] Creating Layer input
I0731 22:58:25.234755 17484 net.cpp:399] input -> frames_fc7
I0731 22:58:25.234776 17484 net.cpp:399] input -> cont_sentence
I0731 22:58:25.234791 17484 net.cpp:399] input -> input_sentence
I0731 22:58:25.234803 17484 net.cpp:399] input -> stage_indicator
I0731 22:58:25.280179 17494 net.cpp:141] Setting up data
I0731 22:58:25.280244 17494 net.cpp:148] Top shape: 10 3 227 227 (1545870)
I0731 22:58:25.280251 17494 net.cpp:156] Memory required for data: 6183480
I0731 22:58:25.280272 17494 layer_factory.hpp:77] Creating layer conv1
I0731 22:58:25.280298 17494 net.cpp:91] Creating Layer conv1
I0731 22:58:25.280308 17494 net.cpp:425] conv1 <- data
I0731 22:58:25.280320 17494 net.cpp:399] conv1 -> conv1
I0731 22:58:25.280321 17484 net.cpp:141] Setting up input
I0731 22:58:25.280344 17484 net.cpp:148] Top shape: 1 4096 (4096)
I0731 22:58:25.280352 17484 net.cpp:148] Top shape: 1 1 (1)
I0731 22:58:25.280359 17484 net.cpp:148] Top shape: 1 1 (1)
I0731 22:58:25.280364 17484 net.cpp:148] Top shape: 1 1 (1)
I0731 22:58:25.280369 17484 net.cpp:156] Memory required for data: 16396
I0731 22:58:25.280375 17484 layer_factory.hpp:77] Creating layer cont_sentence_input_1_split
I0731 22:58:25.280392 17484 net.cpp:91] Creating Layer cont_sentence_input_1_split
I0731 22:58:25.280400 17484 net.cpp:425] cont_sentence_input_1_split <- cont_sentence
I0731 22:58:25.280421 17484 net.cpp:399] cont_sentence_input_1_split -> cont_sentence_input_1_split_0
I0731 22:58:25.280433 17484 net.cpp:399] cont_sentence_input_1_split -> cont_sentence_input_1_split_1
I0731 22:58:25.280562 17484 net.cpp:141] Setting up cont_sentence_input_1_split
I0731 22:58:25.280573 17484 net.cpp:148] Top shape: 1 1 (1)
I0731 22:58:25.280580 17484 net.cpp:148] Top shape: 1 1 (1)
I0731 22:58:25.280585 17484 net.cpp:156] Memory required for data: 16404
I0731 22:58:25.280589 17484 layer_factory.hpp:77] Creating layer embed_encoder
I0731 22:58:25.280608 17484 net.cpp:91] Creating Layer embed_encoder
I0731 22:58:25.280614 17484 net.cpp:425] embed_encoder <- frames_fc7
I0731 22:58:25.280623 17484 net.cpp:399] embed_encoder -> embedded_in_frames
I0731 22:58:25.304234 17484 net.cpp:141] Setting up embed_encoder
I0731 22:58:25.304294 17484 net.cpp:148] Top shape: 1 500 (500)
I0731 22:58:25.304301 17484 net.cpp:156] Memory required for data: 18404
I0731 22:58:25.304325 17484 layer_factory.hpp:77] Creating layer reshape_frames
I0731 22:58:25.304352 17484 net.cpp:91] Creating Layer reshape_frames
I0731 22:58:25.304358 17484 net.cpp:425] reshape_frames <- embedded_in_frames
I0731 22:58:25.304370 17484 net.cpp:399] reshape_frames -> embedded_input_frames
I0731 22:58:25.305475 17484 net.cpp:141] Setting up reshape_frames
I0731 22:58:25.305495 17484 net.cpp:148] Top shape: 1 1 500 (500)
I0731 22:58:25.305500 17484 net.cpp:156] Memory required for data: 20404
I0731 22:58:25.305505 17484 layer_factory.hpp:77] Creating layer reshape_stage_indicator
I0731 22:58:25.305517 17484 net.cpp:91] Creating Layer reshape_stage_indicator
I0731 22:58:25.305523 17484 net.cpp:425] reshape_stage_indicator <- stage_indicator
I0731 22:58:25.305537 17484 net.cpp:399] reshape_stage_indicator -> reshaped_stage_indicator
I0731 22:58:25.305604 17484 net.cpp:141] Setting up reshape_stage_indicator
I0731 22:58:25.305615 17484 net.cpp:148] Top shape: 1 1 1 (1)
I0731 22:58:25.305619 17484 net.cpp:156] Memory required for data: 20408
I0731 22:58:25.305624 17484 layer_factory.hpp:77] Creating layer embedding
I0731 22:58:25.305636 17484 net.cpp:91] Creating Layer embedding
I0731 22:58:25.305641 17484 net.cpp:425] embedding <- input_sentence
I0731 22:58:25.305649 17484 net.cpp:399] embedding -> embedded_input_sentence
I0731 22:58:25.516856 17484 net.cpp:141] Setting up embedding
I0731 22:58:25.516906 17484 net.cpp:148] Top shape: 1 1 500 (500)
I0731 22:58:25.516911 17484 net.cpp:156] Memory required for data: 22408
I0731 22:58:25.516927 17484 layer_factory.hpp:77] Creating layer lstm1
I0731 22:58:25.516943 17484 net.cpp:91] Creating Layer lstm1
I0731 22:58:25.516950 17484 net.cpp:425] lstm1 <- embedded_input_frames
I0731 22:58:25.516959 17484 net.cpp:425] lstm1 <- cont_sentence_input_1_split_0
I0731 22:58:25.516970 17484 net.cpp:399] lstm1 -> lstm1
I0731 22:58:25.517002 17484 recurrent_layer.cpp:20] Initializing recurrent layer: assuming input batch contains 1 timesteps of 1 independent streams.
I0731 22:58:25.517333 17484 net.cpp:49] Initializing net from parameters: 
layer {
  name: "lstm1_"
  type: "Input"
  top: "x"
  top: "cont"
  input_param {
    shape {
      dim: 1
      dim: 1
      dim: 500
    }
    shape {
      dim: 1
      dim: 1
    }
  }
}
layer {
  name: "lstm1_"
  type: "Input"
  top: "c_0"
  top: "h_0"
  input_param {
    shape {
      dim: 1
      dim: 1
      dim: 1000
    }
    shape {
      dim: 1
      dim: 1
      dim: 1000
    }
  }
}
layer {
  name: "lstm1_cont_slice"
  type: "Slice"
  bottom: "cont"
  top: "cont_1"
  slice_param {
    axis: 0
  }
}
layer {
  name: "lstm1_x_transform"
  type: "InnerProduct"
  bottom: "x"
  top: "W_xc_x"
  param {
    name: "W_xc"
  }
  param {
    name: "b_c"
  }
  propagate_down: true
  inner_product_param {
    num_output: 4000
    bias_term: true
    weight_filler {
      type: "uniform"
      min: -0.08
      max: 0.08
    }
    bias_filler {
      type: "constant"
      value: 0
    }
    axis: 2
  }
}
layer {
  name: "lstm1_W_xc_x_slice"
  type: "Slice"
  bottom: "W_xc_x"
  top: "W_xc_x_1"
  slice_param {
    axis: 0
  }
}
layer {
  name: "lstm1_h_conted_0"
  type: "Scale"
  bottom: "h_0"
  bottom: "cont_1"
  top: "h_conted_0"
  scale_param {
    axis: 0
  }
}
layer {
  name: "lstm1_transform_1"
  type: "InnerProduct"
  bottom: "h_conted_0"
  top: "W_hc_h_0"
  param {
    name: "W_hc"
  }
  inner_product_param {
    num_output: 4000
    bias_term: false
    weight_filler {
      type: "uniform"
      min: -0.08
      max: 0.08
    }
    axis: 2
  }
}
layer {
  name: "lstm1_gate_input_1"
  type: "Eltwise"
  bottom: "W_hc_h_0"
  bottom: "W_xc_x_1"
  top: "gate_input_1"
  eltwise_param {
    operation: SUM
  }
}
layer {
  name: "lstm1_unit_1"
  type: "LSTMUnit"
  bottom: "c_0"
  bottom: "gate_input_1"
  bottom: "cont_1"
  top: "c_1"
  top: "h_1"
}
layer {
  name: "lstm1_"
  type: "Split"
  bottom: "c_1"
  top: "c_T"
}
layer {
  name: "lstm1_h_concat"
  type: "Concat"
  bottom: "h_1"
  top: "h"
  concat_param {
    axis: 0
  }
}
layer {
  name: "h_pseudoloss"
  type: "Reduction"
  bottom: "h"
  top: "h_pseudoloss"
  loss_weight: 1
}
I0731 22:58:25.517423 17484 layer_factory.hpp:77] Creating layer lstm1_
I0731 22:58:25.517436 17484 net.cpp:91] Creating Layer lstm1_
I0731 22:58:25.517441 17484 net.cpp:399] lstm1_ -> x
I0731 22:58:25.517453 17484 net.cpp:399] lstm1_ -> cont
I0731 22:58:25.519968 17484 net.cpp:141] Setting up lstm1_
I0731 22:58:25.519984 17484 net.cpp:148] Top shape: 1 1 500 (500)
I0731 22:58:25.519991 17484 net.cpp:148] Top shape: 1 1 (1)
I0731 22:58:25.519995 17484 net.cpp:156] Memory required for data: 2004
I0731 22:58:25.520001 17484 layer_factory.hpp:77] Creating layer lstm1_
I0731 22:58:25.520025 17484 net.cpp:91] Creating Layer lstm1_
I0731 22:58:25.520036 17484 net.cpp:399] lstm1_ -> c_0
I0731 22:58:25.520048 17484 net.cpp:399] lstm1_ -> h_0
I0731 22:58:25.524195 17484 net.cpp:141] Setting up lstm1_
I0731 22:58:25.524212 17484 net.cpp:148] Top shape: 1 1 1000 (1000)
I0731 22:58:25.524219 17484 net.cpp:148] Top shape: 1 1 1000 (1000)
I0731 22:58:25.524224 17484 net.cpp:156] Memory required for data: 10004
I0731 22:58:25.524229 17484 layer_factory.hpp:77] Creating layer lstm1_cont_slice
I0731 22:58:25.524241 17484 net.cpp:91] Creating Layer lstm1_cont_slice
I0731 22:58:25.524247 17484 net.cpp:425] lstm1_cont_slice <- cont
I0731 22:58:25.524255 17484 net.cpp:399] lstm1_cont_slice -> cont_1
I0731 22:58:25.524292 17484 net.cpp:141] Setting up lstm1_cont_slice
I0731 22:58:25.524302 17484 net.cpp:148] Top shape: 1 1 (1)
I0731 22:58:25.524307 17484 net.cpp:156] Memory required for data: 10008
I0731 22:58:25.524310 17484 layer_factory.hpp:77] Creating layer cont_1_lstm1_cont_slice_0_split
I0731 22:58:25.524317 17484 net.cpp:91] Creating Layer cont_1_lstm1_cont_slice_0_split
I0731 22:58:25.524322 17484 net.cpp:425] cont_1_lstm1_cont_slice_0_split <- cont_1
I0731 22:58:25.524332 17484 net.cpp:399] cont_1_lstm1_cont_slice_0_split -> cont_1_lstm1_cont_slice_0_split_0
I0731 22:58:25.524339 17484 net.cpp:399] cont_1_lstm1_cont_slice_0_split -> cont_1_lstm1_cont_slice_0_split_1
I0731 22:58:25.524390 17484 net.cpp:141] Setting up cont_1_lstm1_cont_slice_0_split
I0731 22:58:25.524399 17484 net.cpp:148] Top shape: 1 1 (1)
I0731 22:58:25.524405 17484 net.cpp:148] Top shape: 1 1 (1)
I0731 22:58:25.524408 17484 net.cpp:156] Memory required for data: 10016
I0731 22:58:25.524413 17484 layer_factory.hpp:77] Creating layer lstm1_x_transform
I0731 22:58:25.524423 17484 net.cpp:91] Creating Layer lstm1_x_transform
I0731 22:58:25.524427 17484 net.cpp:425] lstm1_x_transform <- x
I0731 22:58:25.524435 17484 net.cpp:399] lstm1_x_transform -> W_xc_x
I0731 22:58:25.534648 17494 net.cpp:141] Setting up conv1
I0731 22:58:25.534692 17494 net.cpp:148] Top shape: 10 96 55 55 (2904000)
I0731 22:58:25.534698 17494 net.cpp:156] Memory required for data: 17799480
I0731 22:58:25.534718 17494 layer_factory.hpp:77] Creating layer relu1
I0731 22:58:25.534731 17494 net.cpp:91] Creating Layer relu1
I0731 22:58:25.534737 17494 net.cpp:425] relu1 <- conv1
I0731 22:58:25.534745 17494 net.cpp:386] relu1 -> conv1 (in-place)
I0731 22:58:25.535172 17494 net.cpp:141] Setting up relu1
I0731 22:58:25.535186 17494 net.cpp:148] Top shape: 10 96 55 55 (2904000)
I0731 22:58:25.535190 17494 net.cpp:156] Memory required for data: 29415480
I0731 22:58:25.535197 17494 layer_factory.hpp:77] Creating layer pool1
I0731 22:58:25.535207 17494 net.cpp:91] Creating Layer pool1
I0731 22:58:25.535213 17494 net.cpp:425] pool1 <- conv1
I0731 22:58:25.535220 17494 net.cpp:399] pool1 -> pool1
I0731 22:58:25.535284 17494 net.cpp:141] Setting up pool1
I0731 22:58:25.535295 17494 net.cpp:148] Top shape: 10 96 27 27 (699840)
I0731 22:58:25.535300 17494 net.cpp:156] Memory required for data: 32214840
I0731 22:58:25.535305 17494 layer_factory.hpp:77] Creating layer norm1
I0731 22:58:25.535320 17494 net.cpp:91] Creating Layer norm1
I0731 22:58:25.535325 17494 net.cpp:425] norm1 <- pool1
I0731 22:58:25.535331 17494 net.cpp:399] norm1 -> norm1
I0731 22:58:25.535791 17494 net.cpp:141] Setting up norm1
I0731 22:58:25.535804 17494 net.cpp:148] Top shape: 10 96 27 27 (699840)
I0731 22:58:25.535809 17494 net.cpp:156] Memory required for data: 35014200
I0731 22:58:25.535815 17494 layer_factory.hpp:77] Creating layer conv2
I0731 22:58:25.535830 17494 net.cpp:91] Creating Layer conv2
I0731 22:58:25.535835 17494 net.cpp:425] conv2 <- norm1
I0731 22:58:25.535841 17494 net.cpp:399] conv2 -> conv2
I0731 22:58:25.538904 17494 net.cpp:141] Setting up conv2
I0731 22:58:25.538923 17494 net.cpp:148] Top shape: 10 256 27 27 (1866240)
I0731 22:58:25.538929 17494 net.cpp:156] Memory required for data: 42479160
I0731 22:58:25.538941 17494 layer_factory.hpp:77] Creating layer relu2
I0731 22:58:25.538950 17494 net.cpp:91] Creating Layer relu2
I0731 22:58:25.538956 17494 net.cpp:425] relu2 <- conv2
I0731 22:58:25.538962 17494 net.cpp:386] relu2 -> conv2 (in-place)
I0731 22:58:25.539386 17494 net.cpp:141] Setting up relu2
I0731 22:58:25.539398 17494 net.cpp:148] Top shape: 10 256 27 27 (1866240)
I0731 22:58:25.539403 17494 net.cpp:156] Memory required for data: 49944120
I0731 22:58:25.539409 17494 layer_factory.hpp:77] Creating layer pool2
I0731 22:58:25.539418 17494 net.cpp:91] Creating Layer pool2
I0731 22:58:25.539423 17494 net.cpp:425] pool2 <- conv2
I0731 22:58:25.539432 17494 net.cpp:399] pool2 -> pool2
I0731 22:58:25.539481 17494 net.cpp:141] Setting up pool2
I0731 22:58:25.539490 17494 net.cpp:148] Top shape: 10 256 13 13 (432640)
I0731 22:58:25.539495 17494 net.cpp:156] Memory required for data: 51674680
I0731 22:58:25.539500 17494 layer_factory.hpp:77] Creating layer norm2
I0731 22:58:25.539510 17494 net.cpp:91] Creating Layer norm2
I0731 22:58:25.539515 17494 net.cpp:425] norm2 <- pool2
I0731 22:58:25.539522 17494 net.cpp:399] norm2 -> norm2
I0731 22:58:25.539757 17494 net.cpp:141] Setting up norm2
I0731 22:58:25.539769 17494 net.cpp:148] Top shape: 10 256 13 13 (432640)
I0731 22:58:25.539774 17494 net.cpp:156] Memory required for data: 53405240
I0731 22:58:25.539779 17494 layer_factory.hpp:77] Creating layer conv3
I0731 22:58:25.539790 17494 net.cpp:91] Creating Layer conv3
I0731 22:58:25.539795 17494 net.cpp:425] conv3 <- norm2
I0731 22:58:25.539803 17494 net.cpp:399] conv3 -> conv3
I0731 22:58:25.543373 17494 net.cpp:141] Setting up conv3
I0731 22:58:25.543406 17494 net.cpp:148] Top shape: 10 384 13 13 (648960)
I0731 22:58:25.543411 17494 net.cpp:156] Memory required for data: 56001080
I0731 22:58:25.543424 17494 layer_factory.hpp:77] Creating layer relu3
I0731 22:58:25.543433 17494 net.cpp:91] Creating Layer relu3
I0731 22:58:25.543438 17494 net.cpp:425] relu3 <- conv3
I0731 22:58:25.543445 17494 net.cpp:386] relu3 -> conv3 (in-place)
I0731 22:58:25.543871 17494 net.cpp:141] Setting up relu3
I0731 22:58:25.543884 17494 net.cpp:148] Top shape: 10 384 13 13 (648960)
I0731 22:58:25.543889 17494 net.cpp:156] Memory required for data: 58596920
I0731 22:58:25.543895 17494 layer_factory.hpp:77] Creating layer conv4
I0731 22:58:25.543905 17494 net.cpp:91] Creating Layer conv4
I0731 22:58:25.543910 17494 net.cpp:425] conv4 <- conv3
I0731 22:58:25.543917 17494 net.cpp:399] conv4 -> conv4
I0731 22:58:25.547350 17484 net.cpp:141] Setting up lstm1_x_transform
I0731 22:58:25.547384 17484 net.cpp:148] Top shape: 1 1 4000 (4000)
I0731 22:58:25.547389 17484 net.cpp:156] Memory required for data: 26016
I0731 22:58:25.547402 17484 layer_factory.hpp:77] Creating layer lstm1_W_xc_x_slice
I0731 22:58:25.547412 17484 net.cpp:91] Creating Layer lstm1_W_xc_x_slice
I0731 22:58:25.547418 17484 net.cpp:425] lstm1_W_xc_x_slice <- W_xc_x
I0731 22:58:25.547426 17484 net.cpp:399] lstm1_W_xc_x_slice -> W_xc_x_1
I0731 22:58:25.547816 17484 net.cpp:141] Setting up lstm1_W_xc_x_slice
I0731 22:58:25.547827 17484 net.cpp:148] Top shape: 1 1 4000 (4000)
I0731 22:58:25.547832 17484 net.cpp:156] Memory required for data: 42016
I0731 22:58:25.547837 17484 layer_factory.hpp:77] Creating layer lstm1_h_conted_0
I0731 22:58:25.547848 17484 net.cpp:91] Creating Layer lstm1_h_conted_0
I0731 22:58:25.547854 17484 net.cpp:425] lstm1_h_conted_0 <- h_0
I0731 22:58:25.547860 17484 net.cpp:425] lstm1_h_conted_0 <- cont_1_lstm1_cont_slice_0_split_0
I0731 22:58:25.547868 17484 net.cpp:399] lstm1_h_conted_0 -> h_conted_0
I0731 22:58:25.548194 17484 net.cpp:141] Setting up lstm1_h_conted_0
I0731 22:58:25.548205 17484 net.cpp:148] Top shape: 1 1 1000 (1000)
I0731 22:58:25.548210 17484 net.cpp:156] Memory required for data: 46016
I0731 22:58:25.548215 17484 layer_factory.hpp:77] Creating layer lstm1_transform_1
I0731 22:58:25.548229 17484 net.cpp:91] Creating Layer lstm1_transform_1
I0731 22:58:25.548235 17484 net.cpp:425] lstm1_transform_1 <- h_conted_0
I0731 22:58:25.548243 17484 net.cpp:399] lstm1_transform_1 -> W_hc_h_0
I0731 22:58:25.555564 17494 net.cpp:141] Setting up conv4
I0731 22:58:25.555609 17494 net.cpp:148] Top shape: 10 384 13 13 (648960)
I0731 22:58:25.555615 17494 net.cpp:156] Memory required for data: 61192760
I0731 22:58:25.555629 17494 layer_factory.hpp:77] Creating layer relu4
I0731 22:58:25.555644 17494 net.cpp:91] Creating Layer relu4
I0731 22:58:25.555650 17494 net.cpp:425] relu4 <- conv4
I0731 22:58:25.555661 17494 net.cpp:386] relu4 -> conv4 (in-place)
I0731 22:58:25.556239 17494 net.cpp:141] Setting up relu4
I0731 22:58:25.556252 17494 net.cpp:148] Top shape: 10 384 13 13 (648960)
I0731 22:58:25.556257 17494 net.cpp:156] Memory required for data: 63788600
I0731 22:58:25.556262 17494 layer_factory.hpp:77] Creating layer conv5
I0731 22:58:25.556279 17494 net.cpp:91] Creating Layer conv5
I0731 22:58:25.556284 17494 net.cpp:425] conv5 <- conv4
I0731 22:58:25.556293 17494 net.cpp:399] conv5 -> conv5
I0731 22:58:25.560420 17494 net.cpp:141] Setting up conv5
I0731 22:58:25.560462 17494 net.cpp:148] Top shape: 10 256 13 13 (432640)
I0731 22:58:25.560468 17494 net.cpp:156] Memory required for data: 65519160
I0731 22:58:25.560484 17494 layer_factory.hpp:77] Creating layer relu5
I0731 22:58:25.560495 17494 net.cpp:91] Creating Layer relu5
I0731 22:58:25.560500 17494 net.cpp:425] relu5 <- conv5
I0731 22:58:25.560510 17494 net.cpp:386] relu5 -> conv5 (in-place)
I0731 22:58:25.560966 17494 net.cpp:141] Setting up relu5
I0731 22:58:25.560978 17494 net.cpp:148] Top shape: 10 256 13 13 (432640)
I0731 22:58:25.560983 17494 net.cpp:156] Memory required for data: 67249720
I0731 22:58:25.560988 17494 layer_factory.hpp:77] Creating layer pool5
I0731 22:58:25.561000 17494 net.cpp:91] Creating Layer pool5
I0731 22:58:25.561005 17494 net.cpp:425] pool5 <- conv5
I0731 22:58:25.561012 17494 net.cpp:399] pool5 -> pool5
I0731 22:58:25.561075 17494 net.cpp:141] Setting up pool5
I0731 22:58:25.561084 17494 net.cpp:148] Top shape: 10 256 6 6 (92160)
I0731 22:58:25.561089 17494 net.cpp:156] Memory required for data: 67618360
I0731 22:58:25.561094 17494 layer_factory.hpp:77] Creating layer fc6
I0731 22:58:25.561106 17494 net.cpp:91] Creating Layer fc6
I0731 22:58:25.561111 17494 net.cpp:425] fc6 <- pool5
I0731 22:58:25.561120 17494 net.cpp:399] fc6 -> fc6
I0731 22:58:25.624301 17484 net.cpp:141] Setting up lstm1_transform_1
I0731 22:58:25.624351 17484 net.cpp:148] Top shape: 1 1 4000 (4000)
I0731 22:58:25.624357 17484 net.cpp:156] Memory required for data: 62016
I0731 22:58:25.624378 17484 layer_factory.hpp:77] Creating layer lstm1_gate_input_1
I0731 22:58:25.624398 17484 net.cpp:91] Creating Layer lstm1_gate_input_1
I0731 22:58:25.624405 17484 net.cpp:425] lstm1_gate_input_1 <- W_hc_h_0
I0731 22:58:25.624414 17484 net.cpp:425] lstm1_gate_input_1 <- W_xc_x_1
I0731 22:58:25.624423 17484 net.cpp:399] lstm1_gate_input_1 -> gate_input_1
I0731 22:58:25.624490 17484 net.cpp:141] Setting up lstm1_gate_input_1
I0731 22:58:25.624500 17484 net.cpp:148] Top shape: 1 1 4000 (4000)
I0731 22:58:25.624503 17484 net.cpp:156] Memory required for data: 78016
I0731 22:58:25.624508 17484 layer_factory.hpp:77] Creating layer lstm1_unit_1
I0731 22:58:25.624517 17484 net.cpp:91] Creating Layer lstm1_unit_1
I0731 22:58:25.624522 17484 net.cpp:425] lstm1_unit_1 <- c_0
I0731 22:58:25.624528 17484 net.cpp:425] lstm1_unit_1 <- gate_input_1
I0731 22:58:25.624533 17484 net.cpp:425] lstm1_unit_1 <- cont_1_lstm1_cont_slice_0_split_1
I0731 22:58:25.624541 17484 net.cpp:399] lstm1_unit_1 -> c_1
I0731 22:58:25.624548 17484 net.cpp:399] lstm1_unit_1 -> h_1
I0731 22:58:25.624616 17484 net.cpp:141] Setting up lstm1_unit_1
I0731 22:58:25.624625 17484 net.cpp:148] Top shape: 1 1 1000 (1000)
I0731 22:58:25.624631 17484 net.cpp:148] Top shape: 1 1 1000 (1000)
I0731 22:58:25.624636 17484 net.cpp:156] Memory required for data: 86016
I0731 22:58:25.624640 17484 layer_factory.hpp:77] Creating layer lstm1_
I0731 22:58:25.624651 17484 net.cpp:91] Creating Layer lstm1_
I0731 22:58:25.624655 17484 net.cpp:425] lstm1_ <- c_1
I0731 22:58:25.624663 17484 net.cpp:399] lstm1_ -> c_T
I0731 22:58:25.624693 17484 net.cpp:141] Setting up lstm1_
I0731 22:58:25.624701 17484 net.cpp:148] Top shape: 1 1 1000 (1000)
I0731 22:58:25.624706 17484 net.cpp:156] Memory required for data: 90016
I0731 22:58:25.624711 17484 layer_factory.hpp:77] Creating layer lstm1_h_concat
I0731 22:58:25.624719 17484 net.cpp:91] Creating Layer lstm1_h_concat
I0731 22:58:25.624724 17484 net.cpp:425] lstm1_h_concat <- h_1
I0731 22:58:25.624744 17484 net.cpp:399] lstm1_h_concat -> h
I0731 22:58:25.624786 17484 net.cpp:141] Setting up lstm1_h_concat
I0731 22:58:25.624795 17484 net.cpp:148] Top shape: 1 1 1000 (1000)
I0731 22:58:25.624799 17484 net.cpp:156] Memory required for data: 94016
I0731 22:58:25.624804 17484 layer_factory.hpp:77] Creating layer h_pseudoloss
I0731 22:58:25.624819 17484 net.cpp:91] Creating Layer h_pseudoloss
I0731 22:58:25.624824 17484 net.cpp:425] h_pseudoloss <- h
I0731 22:58:25.624832 17484 net.cpp:399] h_pseudoloss -> h_pseudoloss
I0731 22:58:25.624969 17484 net.cpp:141] Setting up h_pseudoloss
…
I0731 22:58:25.625092 17484 net.cpp:219] lstm1_ does not need backward computation.
I0731 22:58:25.625097 17484 net.cpp:261] This network produces output c_T
I0731 22:58:25.625102 17484 net.cpp:261] This network produces output h_pseudoloss
I0731 22:58:25.625118 17484 net.cpp:274] Network initialization done.
I0731 22:58:25.625174 17484 recurrent_layer.cpp:150] Adding parameter 0: W_xc
I0731 22:58:25.625180 17484 recurrent_layer.cpp:150] Adding parameter 1: b_c
I0731 22:58:25.625185 17484 recurrent_layer.cpp:150] Adding parameter 2: W_hc
I0731 22:58:25.625293 17484 net.cpp:141] Setting up lstm1
I0731 22:58:25.625306 17484 net.cpp:148] Top shape: 1 1 1000 (1000)
I0731 22:58:25.625310 17484 net.cpp:156] Memory required for data: 26408
I0731 22:58:25.625324 17484 layer_factory.hpp:77] Creating layer concat
I0731 22:58:25.625332 17484 net.cpp:91] Creating Layer concat
I0731 22:58:25.625339 17484 net.cpp:425] concat <- lstm1
I0731 22:58:25.625344 17484 net.cpp:425] concat <- embedded_input_sentence
I0731 22:58:25.625350 17484 net.cpp:425] concat <- reshaped_stage_indicator
I0731 22:58:25.625356 17484 net.cpp:399] concat -> lstm1_video_sequence
I0731 22:58:25.625391 17484 net.cpp:141] Setting up concat
I0731 22:58:25.625399 17484 net.cpp:148] Top shape: 1 1 1501 (1501)
I0731 22:58:25.625403 17484 net.cpp:156] Memory required for data: 32412
I0731 22:58:25.625408 17484 layer_factory.hpp:77] Creating layer lstm2
I0731 22:58:25.625421 17484 net.cpp:91] Creating Layer lstm2
I0731 22:58:25.625425 17484 net.cpp:425] lstm2 <- lstm1_video_sequence
I0731 22:58:25.625432 17484 net.cpp:425] lstm2 <- cont_sentence_input_1_split_1
I0731 22:58:25.625438 17484 net.cpp:399] lstm2 -> lstm2
I0731 22:58:25.625447 17484 recurrent_layer.cpp:20] Initializing recurrent layer: assuming input batch contains 1 timesteps of 1 independent streams.
I0731 22:58:25.625720 17484 net.cpp:49] Initializing net from parameters: 
layer {
  name: "lstm2_"
  type: "Input"
  top: "x"
  top: "cont"
  input_param {
    shape {
      dim: 1
      dim: 1
      dim: 1501
    }
    shape {
      dim: 1
      dim: 1
    }
  }
}
layer {
  name: "lstm2_"
  type: "Input"
  top: "c_0"
  top: "h_0"
  input_param {
    shape {
      dim: 1
      dim: 1
      dim: 1000
    }
    shape {
      dim: 1
      dim: 1
      dim: 1000
    }
  }
}
layer {
  name: "lstm2_cont_slice"
  type: "Slice"
  bottom: "cont"
  top: "cont_1"
  slice_param {
    axis: 0
  }
}
layer {
  name: "lstm2_x_transform"
  type: "InnerProduct"
  bottom: "x"
  top: "W_xc_x"
  param {
    name: "W_xc"
  }
  param {
    name: "b_c"
  }
  propagate_down: true
  inner_product_param {
    num_output: 4000
    bias_term: true
    weight_filler {
      type: "uniform"
      min: -0.08
      max: 0.08
    }
    bias_filler {
      type: "constant"
      value: 0
    }
    axis: 2
  }
}
layer {
  name: "lstm2_W_xc_x_slice"
  type: "Slice"
  bottom: "W_xc_x"
  top: "W_xc_x_1"
  slice_param {
    axis: 0
  }
}
layer {
  name: "lstm2_h_conted_0"
  type: "Scale"
  bottom: "h_0"
  bottom: "cont_1"
  top: "h_conted_0"
  scale_param {
    axis: 0
  }
}
layer {
  name: "lstm2_transform_1"
  type: "InnerProduct"
  bottom: "h_conted_0"
  top: "W_hc_h_0"
  param {
    name: "W_hc"
  }
  inner_product_param {
    num_output: 4000
    bias_term: false
    weight_filler {
      type: "uniform"
      min: -0.08
      max: 0.08
    }
    axis: 2
  }
}
layer {
  name: "lstm2_gate_input_1"
  type: "Eltwise"
  bottom: "W_hc_h_0"
  bottom: "W_xc_x_1"
  top: "gate_input_1"
  eltwise_param {
    operation: SUM
  }
}
layer {
  name: "lstm2_unit_1"
  type: "LSTMUnit"
  bottom: "c_0"
  bottom: "gate_input_1"
  bottom: "cont_1"
  top: "c_1"
  top: "h_1"
}
layer {
  name: "lstm2_"
  type: "Split"
  bottom: "c_1"
  top: "c_T"
}
layer {
  name: "lstm2_h_concat"
  type: "Concat"
  bottom: "h_1"
  top: "h"
  concat_param {
    axis: 0
  }
}
layer {
  name: "h_pseudoloss"
  type: "Reduction"
  bottom: "h"
  top: "h_pseudoloss"
  loss_weight: 1
}
I0731 22:58:25.625805 17484 layer_factory.hpp:77] Creating layer lstm2_
I0731 22:58:25.625818 17484 net.cpp:91] Creating Layer lstm2_
I0731 22:58:25.625824 17484 net.cpp:399] lstm2_ -> x
I0731 22:58:25.625835 17484 net.cpp:399] lstm2_ -> cont
I0731 22:58:25.625895 17484 net.cpp:141] Setting up lstm2_
I0731 22:58:25.625905 17484 net.cpp:148] Top shape: 1 1 1501 (1501)
I0731 22:58:25.625910 17484 net.cpp:148] Top shape: 1 1 (1)
I0731 22:58:25.625915 17484 net.cpp:156] Memory required for data: 6008
I0731 22:58:25.625919 17484 layer_factory.hpp:77] Creating layer lstm2_
I0731 22:58:25.625927 17484 net.cpp:91] Creating Layer lstm2_
I0731 22:58:25.625936 17484 net.cpp:399] lstm2_ -> c_0
I0731 22:58:25.625946 17484 net.cpp:399] lstm2_ -> h_0
I0731 22:58:25.626008 17484 net.cpp:141] Setting up lstm2_
I0731 22:58:25.626022 17484 net.cpp:148] Top shape: 1 1 1000 (1000)
I0731 22:58:25.626034 17484 net.cpp:148] Top shape: 1 1 1000 (1000)
I0731 22:58:25.626039 17484 net.cpp:156] Memory required for data: 14008
I0731 22:58:25.626044 17484 layer_factory.hpp:77] Creating layer lstm2_cont_slice
I0731 22:58:25.626052 17484 net.cpp:91] Creating Layer lstm2_cont_slice
I0731 22:58:25.626057 17484 net.cpp:425] lstm2_cont_slice <- cont
I0731 22:58:25.626065 17484 net.cpp:399] lstm2_cont_slice -> cont_1
I0731 22:58:25.626102 17484 net.cpp:141] Setting up lstm2_cont_slice
I0731 22:58:25.626111 17484 net.cpp:148] Top shape: 1 1 (1)
I0731 22:58:25.626116 17484 net.cpp:156] Memory required for data: 14012
I0731 22:58:25.626121 17484 layer_factory.hpp:77] Creating layer cont_1_lstm2_cont_slice_0_split
I0731 22:58:25.626132 17484 net.cpp:91] Creating Layer cont_1_lstm2_cont_slice_0_split
I0731 22:58:25.626137 17484 net.cpp:425] cont_1_lstm2_cont_slice_0_split <- cont_1
I0731 22:58:25.626143 17484 net.cpp:399] cont_1_lstm2_cont_slice_0_split -> cont_1_lstm2_cont_slice_0_split_0
I0731 22:58:25.626152 17484 net.cpp:399] cont_1_lstm2_cont_slice_0_split -> cont_1_lstm2_cont_slice_0_split_1
I0731 22:58:25.626202 17484 net.cpp:141] Setting up cont_1_lstm2_cont_slice_0_split
I0731 22:58:25.626215 17484 net.cpp:148] Top shape: 1 1 (1)
I0731 22:58:25.626222 17484 net.cpp:148] Top shape: 1 1 (1)
I0731 22:58:25.626226 17484 net.cpp:156] Memory required for data: 14020
I0731 22:58:25.626231 17484 layer_factory.hpp:77] Creating layer lstm2_x_transform
I0731 22:58:25.626241 17484 net.cpp:91] Creating Layer lstm2_x_transform
I0731 22:58:25.626246 17484 net.cpp:425] lstm2_x_transform <- x
I0731 22:58:25.626256 17484 net.cpp:399] lstm2_x_transform -> W_xc_x
I0731 22:58:25.663272 17494 net.cpp:141] Setting up fc6
I0731 22:58:25.663336 17494 net.cpp:148] Top shape: 10 4096 (40960)
I0731 22:58:25.663342 17494 net.cpp:156] Memory required for data: 67782200
I0731 22:58:25.663355 17494 layer_factory.hpp:77] Creating layer relu6
I0731 22:58:25.663383 17494 net.cpp:91] Creating Layer relu6
I0731 22:58:25.663388 17494 net.cpp:425] relu6 <- fc6
I0731 22:58:25.663398 17494 net.cpp:386] relu6 -> fc6 (in-place)
I0731 22:58:25.663710 17494 net.cpp:141] Setting up relu6
I0731 22:58:25.663722 17494 net.cpp:148] Top shape: 10 4096 (40960)
I0731 22:58:25.663727 17494 net.cpp:156] Memory required for data: 67946040
I0731 22:58:25.663733 17494 layer_factory.hpp:77] Creating layer drop6
I0731 22:58:25.663744 17494 net.cpp:91] Creating Layer drop6
I0731 22:58:25.663749 17494 net.cpp:425] drop6 <- fc6
I0731 22:58:25.663755 17494 net.cpp:386] drop6 -> fc6 (in-place)
I0731 22:58:25.663801 17494 net.cpp:141] Setting up drop6
I0731 22:58:25.663810 17494 net.cpp:148] Top shape: 10 4096 (40960)
I0731 22:58:25.663815 17494 net.cpp:156] Memory required for data: 68109880
I0731 22:58:25.663818 17494 layer_factory.hpp:77] Creating layer fc7
I0731 22:58:25.663833 17494 net.cpp:91] Creating Layer fc7
I0731 22:58:25.663838 17494 net.cpp:425] fc7 <- fc6
I0731 22:58:25.663847 17494 net.cpp:399] fc7 -> fc7
I0731 22:58:25.692392 17484 net.cpp:141] Setting up lstm2_x_transform
I0731 22:58:25.692461 17484 net.cpp:148] Top shape: 1 1 4000 (4000)
I0731 22:58:25.692468 17484 net.cpp:156] Memory required for data: 30020
I0731 22:58:25.692488 17484 layer_factory.hpp:77] Creating layer lstm2_W_xc_x_slice
I0731 22:58:25.692503 17484 net.cpp:91] Creating Layer lstm2_W_xc_x_slice
I0731 22:58:25.692509 17484 net.cpp:425] lstm2_W_xc_x_slice <- W_xc_x
I0731 22:58:25.692519 17484 net.cpp:399] lstm2_W_xc_x_slice -> W_xc_x_1
I0731 22:58:25.692567 17484 net.cpp:141] Setting up lstm2_W_xc_x_slice
I0731 22:58:25.692579 17484 net.cpp:148] Top shape: 1 1 4000 (4000)
I0731 22:58:25.692582 17484 net.cpp:156] Memory required for data: 46020
I0731 22:58:25.692587 17484 layer_factory.hpp:77] Creating layer lstm2_h_conted_0
I0731 22:58:25.692597 17484 net.cpp:91] Creating Layer lstm2_h_conted_0
I0731 22:58:25.692602 17484 net.cpp:425] lstm2_h_conted_0 <- h_0
I0731 22:58:25.692607 17484 net.cpp:425] lstm2_h_conted_0 <- cont_1_lstm2_cont_slice_0_split_0
I0731 22:58:25.692615 17484 net.cpp:399] lstm2_h_conted_0 -> h_conted_0
I0731 22:58:25.692703 17484 net.cpp:141] Setting up lstm2_h_conted_0
I0731 22:58:25.692713 17484 net.cpp:148] Top shape: 1 1 1000 (1000)
I0731 22:58:25.692716 17484 net.cpp:156] Memory required for data: 50020
I0731 22:58:25.692721 17484 layer_factory.hpp:77] Creating layer lstm2_transform_1
I0731 22:58:25.692734 17484 net.cpp:91] Creating Layer lstm2_transform_1
I0731 22:58:25.692739 17484 net.cpp:425] lstm2_transform_1 <- h_conted_0
I0731 22:58:25.692745 17484 net.cpp:399] lstm2_transform_1 -> W_hc_h_0
I0731 22:58:25.709414 17494 net.cpp:141] Setting up fc7
I0731 22:58:25.709461 17494 net.cpp:148] Top shape: 10 4096 (40960)
I0731 22:58:25.709467 17494 net.cpp:156] Memory required for data: 68273720
I0731 22:58:25.709481 17494 layer_factory.hpp:77] Creating layer relu7
I0731 22:58:25.709496 17494 net.cpp:91] Creating Layer relu7
I0731 22:58:25.709501 17494 net.cpp:425] relu7 <- fc7
I0731 22:58:25.709513 17494 net.cpp:386] relu7 -> fc7 (in-place)
I0731 22:58:25.710255 17494 net.cpp:141] Setting up relu7
I0731 22:58:25.710268 17494 net.cpp:148] Top shape: 10 4096 (40960)
I0731 22:58:25.710273 17494 net.cpp:156] Memory required for data: 68437560
I0731 22:58:25.710278 17494 layer_factory.hpp:77] Creating layer drop7
I0731 22:58:25.710290 17494 net.cpp:91] Creating Layer drop7
I0731 22:58:25.710296 17494 net.cpp:425] drop7 <- fc7
I0731 22:58:25.710302 17494 net.cpp:386] drop7 -> fc7 (in-place)
I0731 22:58:25.710342 17494 net.cpp:141] Setting up drop7
I0731 22:58:25.710350 17494 net.cpp:148] Top shape: 10 4096 (40960)
I0731 22:58:25.710355 17494 net.cpp:156] Memory required for data: 68601400
I0731 22:58:25.710361 17494 layer_factory.hpp:77] Creating layer fc8
I0731 22:58:25.710369 17494 net.cpp:91] Creating Layer fc8
I0731 22:58:25.710374 17494 net.cpp:425] fc8 <- fc7
I0731 22:58:25.710386 17494 net.cpp:399] fc8 -> fc8
I0731 22:58:25.721992 17494 net.cpp:141] Setting up fc8
I0731 22:58:25.722040 17494 net.cpp:148] Top shape: 10 1000 (10000)
I0731 22:58:25.722046 17494 net.cpp:156] Memory required for data: 68641400
I0731 22:58:25.722060 17494 layer_factory.hpp:77] Creating layer prob
I0731 22:58:25.722074 17494 net.cpp:91] Creating Layer prob
I0731 22:58:25.722080 17494 net.cpp:425] prob <- fc8
I0731 22:58:25.722090 17494 net.cpp:399] prob -> prob
I0731 22:58:25.722486 17494 net.cpp:141] Setting up prob
I0731 22:58:25.722497 17494 net.cpp:148] Top shape: 10 1000 (10000)
I0731 22:58:25.722502 17494 net.cpp:156] Memory required for data: 68681400
I0731 22:58:25.722507 17494 net.cpp:219] prob does not need backward computation.
I0731 22:58:25.722512 17494 net.cpp:219] fc8 does not need backward computation.
I0731 22:58:25.722517 17494 net.cpp:219] drop7 does not need backward computation.
I0731 22:58:25.722522 17494 net.cpp:219] relu7 does not need backward computation.
…
I0731 22:58:25.722596 17494 net.cpp:219] norm1 does not need backward computation.
I0731 22:58:25.722600 17494 net.cpp:219] pool1 does not need backward computation.
I0731 22:58:25.722604 17494 net.cpp:219] relu1 does not need backward computation.
I0731 22:58:25.722609 17494 net.cpp:219] conv1 does not need backward computation.
I0731 22:58:25.722614 17494 net.cpp:219] data does not need backward computation.
I0731 22:58:25.722617 17494 net.cpp:261] This network produces output prob
I0731 22:58:25.722635 17494 net.cpp:274] Network initialization done.
I0731 22:58:25.730994 17484 net.cpp:141] Setting up lstm2_transform_1
I0731 22:58:25.731040 17484 net.cpp:148] Top shape: 1 1 4000 (4000)
I0731 22:58:25.731045 17484 net.cpp:156] Memory required for data: 66020
I0731 22:58:25.731061 17484 layer_factory.hpp:77] Creating layer lstm2_gate_input_1
I0731 22:58:25.731076 17484 net.cpp:91] Creating Layer lstm2_gate_input_1
I0731 22:58:25.731082 17484 net.cpp:425] lstm2_gate_input_1 <- W_hc_h_0
I0731 22:58:25.731091 17484 net.cpp:425] lstm2_gate_input_1 <- W_xc_x_1
I0731 22:58:25.731098 17484 net.cpp:399] lstm2_gate_input_1 -> gate_input_1
I0731 22:58:25.731147 17484 net.cpp:141] Setting up lstm2_gate_input_1
I0731 22:58:25.731155 17484 net.cpp:148] Top shape: 1 1 4000 (4000)
I0731 22:58:25.731159 17484 net.cpp:156] Memory required for data: 82020
I0731 22:58:25.731163 17484 layer_factory.hpp:77] Creating layer lstm2_unit_1
I0731 22:58:25.731174 17484 net.cpp:91] Creating Layer lstm2_unit_1
I0731 22:58:25.731179 17484 net.cpp:425] lstm2_unit_1 <- c_0
I0731 22:58:25.731185 17484 net.cpp:425] lstm2_unit_1 <- gate_input_1
I0731 22:58:25.731190 17484 net.cpp:425] lstm2_unit_1 <- cont_1_lstm2_cont_slice_0_split_1
I0731 22:58:25.731196 17484 net.cpp:399] lstm2_unit_1 -> c_1
I0731 22:58:25.731204 17484 net.cpp:399] lstm2_unit_1 -> h_1
I0731 22:58:25.731266 17484 net.cpp:141] Setting up lstm2_unit_1
I0731 22:58:25.731276 17484 net.cpp:148] Top shape: 1 1 1000 (1000)
I0731 22:58:25.731281 17484 net.cpp:148] Top shape: 1 1 1000 (1000)
I0731 22:58:25.731286 17484 net.cpp:156] Memory required for data: 90020
I0731 22:58:25.731290 17484 layer_factory.hpp:77] Creating layer lstm2_
I0731 22:58:25.731298 17484 net.cpp:91] Creating Layer lstm2_
I0731 22:58:25.731302 17484 net.cpp:425] lstm2_ <- c_1
I0731 22:58:25.731309 17484 net.cpp:399] lstm2_ -> c_T
I0731 22:58:25.731338 17484 net.cpp:141] Setting up lstm2_
I0731 22:58:25.731345 17484 net.cpp:148] Top shape: 1 1 1000 (1000)
I0731 22:58:25.731349 17484 net.cpp:156] Memory required for data: 94020
I0731 22:58:25.731354 17484 layer_factory.hpp:77] Creating layer lstm2_h_concat
I0731 22:58:25.731365 17484 net.cpp:91] Creating Layer lstm2_h_concat
I0731 22:58:25.731370 17484 net.cpp:425] lstm2_h_concat <- h_1
I0731 22:58:25.731377 17484 net.cpp:399] lstm2_h_concat -> h
I0731 22:58:25.731411 17484 net.cpp:141] Setting up lstm2_h_concat
I0731 22:58:25.731420 17484 net.cpp:148] Top shape: 1 1 1000 (1000)
I0731 22:58:25.731425 17484 net.cpp:156] Memory required for data: 98020
I0731 22:58:25.731428 17484 layer_factory.hpp:77] Creating layer h_pseudoloss
I0731 22:58:25.731436 17484 net.cpp:91] Creating Layer h_pseudoloss
I0731 22:58:25.731441 17484 net.cpp:425] h_pseudoloss <- h
I0731 22:58:25.731451 17484 net.cpp:399] h_pseudoloss -> h_pseudoloss
I0731 22:58:25.731531 17484 net.cpp:141] Setting up h_pseudoloss
…
