…
Java HotSpot(TM) 64-Bit Server VM warning: You have loaded library /tmp/cvld8267072521779944052/libopencv_java310.xine1.so which might have disabled stack guard. The VM will try to fix the stack guard now.
It's highly recommended that you fix the library with 'execstack -c <libfile>', or link it with '-z noexecstack'.
WARNING: Logging before InitGoogleLogging() is written to STDERR
I0713 13:25:59.948879 18931 net.cpp:49] Initializing net from parameters: 
name: "GoogleNet"
state {
  phase: TEST
}
layer {
  name: "data"
  type: "Input"
  top: "data"
  input_param {
    shape {
      dim: 10
      dim: 3
      dim: 224
      dim: 224
    }
  }
}
layer {
  name: "conv1/7x7_s2"
  type: "Convolution"
  bottom: "data"
  top: "conv1/7x7_s2"
  param {
    lr_mult: 1
    decay_mult: 1
  }
  param {
    lr_mult: 2
    decay_mult: 0
  }
  convolution_param {
    num_output: 64
    pad: 3
    kernel_size: 7
    stride: 2
    weight_filler {
      type: "xavier"
      std: 0.1
    }
    bias_filler {
      type: "constant"
      value: 0.2
    }
  }
}
layer {
  name: "conv1/relu_7x7"
  type: "ReLU"
  bottom: "conv1/7x7_s2"
  top: "conv1/7x7_s2"
}
layer {
  name: "pool1/3x3_s2"
  type: "Pooling"
  bottom: "conv1/7x7_s2"
  top: "pool1/3x3_s2"
  pooling_param {
    pool: MAX
    kernel_size: 3
    stride: 2
  }
}
layer {
  name: "pool1/norm1"
  type: "LRN"
  bottom: "pool1/3x3_s2"
  top: "pool1/norm1"
  lrn_param {
    local_size: 5
    alpha: 0.0001
    beta: 0.75
  }
}
layer {
  name: "conv2/3x3_reduce"
  type: "Convolution"
  bottom: "pool1/norm1"
  top: "conv2/3x3_reduce"
  param {
    lr_mult: 1
    decay_mult: 1
  }
  param {
    lr_mult: 2
    decay_mult: 0
  }
  convolution_param {
    num_output: 64
    kernel_size: 1
    weight_filler {
      type: "xavier"
      std: 0.1
    }
    bias_filler {
      type: "constant"
      value: 0.2
    }
  }
}
layer {
  name: "conv2/relu_3x3_reduce"
  type: "ReLU"
  bottom: "conv2/3x3_reduce"
  top: "conv2/3x3_reduce"
}
layer {
  name: "conv2/3x3"
  type: "Convolution"
  bottom: "conv2/3x3_reduce"
  top: "conv2/3x3"
  param {
    lr_mult: 1
    decay_mult: 1
  }
  param {
    lr_mult: 2
    decay_mult: 0
  }
  convolution_param {
    num_output: 192
    pad: 1
    kernel_size: 3
    weight_filler {
      type: "xavier"
      std: 0.03
    }
    bias_filler {
      type: "constant"
      value: 0.2
    }
  }
}
layer {
  name: "conv2/relu_3x3"
  type: "ReLU"
  bottom: "conv2/3x3"
  top: "conv2/3x3"
}
layer {
  name: "conv2/norm2"
  type: "LRN"
  bottom: "conv2/3x3"
  top: "conv2/norm2"
  lrn_param {
    local_size: 5
    alpha: 0.0001
    beta: 0.75
  }
}
layer {
  name: "pool2/3x3_s2"
  type: "Pooling"
  bottom: "conv2/norm2"
  top: "pool2/3x3_s2"
  pooling_param {
    pool: MAX
    kernel_size: 3
    stride: 2
  }
}
layer {
  name: "inception_3a/1x1"
  type: "Convolution"
  bottom: "pool2/3x3_s2"
  top: "inception_3a/1x1"
  param {
    lr_mult: 1
    decay_mult: 1
  }
  param {
    lr_mult: 2
    decay_mult: 0
  }
  convolution_param {
    num_output: 64
    kernel_size: 1
    weight_filler {
      type: "xavier"
      std: 0.03
    }
    bias_filler {
      type: "constant"
      value: 0.2
    }
  }
}
layer {
  name: "inception_3a/relu_1x1"
  type: "ReLU"
  bottom: "inception_3a/1x1"
  top: "inception_3a/1x1"
}
layer {
  name: "inception_3a/3x3_reduce"
  type: "Convolution"
  bottom: "pool2/3x3_s2"
  top: "inception_3a/3x3_reduce"
  param {
    lr_mult: 1
    decay_mult: 1
  }
  param {
    lr_mult: 2
    decay_mult: 0
  }
  convolution_param {
    num_output: 96
    kernel_size: 1
    weight_filler {
      type: "xavier"
      std: 0.09
    }
    bias_filler {
      type: "constant"
      value: 0.2
    }
  }
}
layer {
  name: "inception_3a/relu_3x3_reduce"
  type: "ReLU"
  bottom: "inception_3a/3x3_reduce"
  top: "inception_3a/3x3_reduce"
}
layer {
  name: "inception_3a/3x3"
  type: "Convolution"
  bottom: "inception_3a/3x3_reduce"
  top: "inception_3a/3x3"
  param {
    lr_mult: 1
    decay_mult: 1
  }
  param {
    lr_mult: 2
    decay_mult: 0
  }
  convolution_param {
    num_output: 128
    pad: 1
    kernel_size: 3
    weight_filler {
      type: "xavier"
      std: 0.03
    }
    bias_filler {
      type: "constant"
      value: 0.2
    }
  }
}
layer {
  name: "inception_3a/relu_3x3"
  type: "ReLU"
  bottom: "inception_3a/3x3"
  top: "inception_3a/3x3"
}
layer {
  name: "inception_3a/5x5_reduce"
  type: "Convolution"
  bottom: "pool2/3x3_s2"
  top: "inception_3a/5x5_reduce"
  param {
    lr_mult: 1
    decay_mult: 1
  }
  param {
    lr_mult: 2
    decay_mult: 0
  }
  convolution_param {
    num_output: 16
    kernel_size: 1
    weight_filler {
      type: "xavier"
      std: 0.2
    }
    bias_filler {
      type: "constant"
      value: 0.2
    }
  }
}
layer {
  name: "inception_3a/relu_5x5_reduce"
  type: "ReLU"
  bottom: "inception_3a/5x5_reduce"
  top: "inception_3a/5x5_reduce"
}
layer {
  name: "inception_3a/5x5"
  type: "Convolution"
  bottom: "inception_3a/5x5_reduce"
  top: "inception_3a/5x5"
  param {
    lr_mult: 1
    decay_mult: 1
  }
  param {
    lr_mult: 2
    decay_mult: 0
  }
  convolution_param {
    num_output: 32
    pad: 2
    kernel_size: 5
    weight_filler {
      type: "xavier"
      std: 0.03
    }
    bias_filler {
      type: "constant"
      value: 0.2
    }
  }
}
layer {
  name: "inception_3a/relu_5x5"
  type: "ReLU"
  bottom: "inception_3a/5x5"
  top: "inception_3a/5x5"
}
layer {
  name: "inception_3a/pool"
  type: "Pooling"
  bottom: "pool2/3x3_s2"
  top: "inception_3a/pool"
  pooling_param {
    pool: MAX
    kernel_size: 3
    stride: 1
    pad: 1
  }
}
layer {
  name: "inception_3a/pool_proj"
  type: "Convolution"
  bottom: "inception_3a/pool"
  top: "inception_3a/pool_proj"
  param {
    lr_mult: 1
    decay_mult: 1
  }
  param {
    lr_mult: 2
    decay_mult: 0
  }
  convolution_param {
    num_output: 32
    kernel_size: 1
    weight_filler {
      type: "xavier"
      std: 0.1
    }
    bias_filler {
      type: "constant"
      value: 0.2
    }
  }
}
layer {
  name: "inception_3a/relu_pool_proj"
  type: "ReLU"
  bottom: "inception_3a/pool_proj"
  top: "inception_3a/pool_proj"
}
layer {
  name: "inception_3a/output"
  type: "Concat"
  bottom: "inception_3a/1x1"
  bottom: "inception_3a/3x3"
  bottom: "inception_3a/5x5"
  bottom: "inception_3a/pool_proj"
  top: "inception_3a/output"
}
layer {
  name: "inception_3b/1x1"
  type: "Convolution"
  bottom: "inception_3a/output"
  top: "inception_3b/1x1"
  param {
    lr_mult: 1
    decay_mult: 1
  }
  param {
    lr_mult: 2
    decay_mult: 0
  }
  convolution_param {
    num_output: 128
    kernel_size: 1
    weight_filler {
      type: "xavier"
      std: 0.03
    }
    bias_filler {
      type: "constant"
      value: 0.2
    }
  }
}
layer {
  name: "inception_3b/relu_1x1"
  type: "ReLU"
  bottom: "inception_3b/1x1"
  top: "inception_3b/1x1"
}
layer {
  name: "inception_3b/3x3_reduce"
  type: "Convolution"
  bottom: "inception_3a/output"
  top: "inception_3b/3x3_reduce"
  param {
    lr_mult: 1
    decay_mult: 1
  }
  param {
    lr_mult: 2
    decay_mult: 0
  }
  convolution_param {
    num_output: 128
    kernel_size: 1
    weight_filler {
      type: "xavier"
      std: 0.09
    }
    bias_filler {
      type: "constant"
      value: 0.2
    }
  }
}
layer {
  name: "inception_3b/relu_3x3_reduce"
  type: "ReLU"
  bottom: "inception_3b/3x3_reduce"
  top: "inception_3b/3x3_reduce"
}
layer {
  name: "inception_3b/3x3"
  type: "Convolution"
  bottom: "inception_3b/3x3_reduce"
  top: "inception_3b/3x3"
  param {
    lr_mult: 1
    decay_mult: 1
  }
  param {
    lr_mult: 2
    decay_mult: 0
  }
  convolution_param {
    num_output: 192
    pad: 1
    kernel_size: 3
    weight_filler {
      type: "xavier"
      std: 0.03
    }
    bias_filler {
      type: "constant"
      value: 0.2
    }
  }
}
layer {
  name: "inception_3b/relu_3x3"
  type: "ReLU"
  bottom: "inception_3b/3x3"
  top: "inception_3b/3x3"
}
layer {
  name: "inception_3b/5x5_reduce"
  type: "Convolution"
  bottom: "inception_3a/output"
  top: "inception_3b/5x5_reduce"
  param {
    lr_mult: 1
    decay_mult: 1
  }
  param {
    lr_mult: 2
    decay_mult: 0
  }
  convolution_param {
    num_output: 32
    kernel_size: 1
    weight_filler {
      type: "xavier"
      std: 0.2
    }
    bias_filler {
      type: "constant"
      value: 0.2
    }
  }
}
layer {
  name: "inception_3b/relu_5x5_reduce"
  type: "ReLU"
  bottom: "inception_3b/5x5_reduce"
  top: "inception_3b/5x5_reduce"
}
layer {
  name: "inception_3b/5x5"
  type: "Convolution"
  bottom: "inception_3b/5x5_reduce"
  top: "inception_3b/5x5"
  param {
    lr_mult: 1
    decay_mult: 1
  }
  param {
    lr_mult: 2
    decay_mult: 0
  }
  convolution_param {
    num_output: 96
    pad: 2
    kernel_size: 5
    weight_filler {
      type: "xavier"
      std: 0.03
    }
    bias_filler {
      type: "constant"
      value: 0.2
    }
  }
}
layer {
  name: "inception_3b/relu_5x5"
  type: "ReLU"
  bottom: "inception_3b/5x5"
  top: "inception_3b/5x5"
}
layer {
  name: "inception_3b/pool"
  type: "Pooling"
  bottom: "inception_3a/output"
  top: "inception_3b/pool"
  pooling_param {
    pool: MAX
    kernel_size: 3
    stride: 1
    pad: 1
  }
}
layer {
  name: "inception_3b/pool_proj"
  type: "Convolution"
  bottom: "inception_3b/pool"
  top: "inception_3b/pool_proj"
  param {
    lr_mult: 1
    decay_mult: 1
  }
  param {
    lr_mult: 2
    decay_mult: 0
  }
  convolution_param {
    num_output: 64
    kernel_size: 1
    weight_filler {
      type: "xavier"
      std: 0.1
    }
    bias_filler {
      type: "constant"
      value: 0.2
    }
  }
}
layer {
  name: "inception_3b/relu_pool_proj"
  type: "ReLU"
  bottom: "inception_3b/pool_proj"
  top: "inception_3b/pool_proj"
}
layer {
  name: "inception_3b/output"
  type: "Concat"
  bottom: "inception_3b/1x1"
  bottom: "inception_3b/3x3"
  bottom: "inception_3b/5x5"
  bottom: "inception_3b/pool_proj"
  top: "inception_3b/output"
}
layer {
  name: "pool3/3x3_s2"
  type: "Pooling"
  bottom: "inception_3b/output"
  top: "pool3/3x3_s2"
  pooling_param {
    pool: MAX
    kernel_size: 3
    stride: 2
  }
}
layer {
  name: "inception_4a/1x1"
  type: "Convolution"
  bottom: "pool3/3x3_s2"
  top: "inception_4a/1x1"
  param {
    lr_mult: 1
    decay_mult: 1
  }
  param {
    lr_mult: 2
    decay_mult: 0
  }
  convolution_param {
    num_output: 192
    kernel_size: 1
    weight_filler {
      type: "xavier"
      std: 0.03
    }
    bias_filler {
      type: "constant"
      value: 0.2
    }
  }
}
layer {
  name: "inception_4a/relu_1x1"
  type: "ReLU"
  bottom: "inception_4a/1x1"
  top: "inception_4a/1x1"
}
layer {
  name: "inception_4a/3x3_reduce"
  type: "Convolution"
  bottom: "pool3/3x3_s2"
  top: "inception_4a/3x3_reduce"
  param {
    lr_mult: 1
    decay_mult: 1
  }
  param {
    lr_mult: 2
    decay_mult: 0
  }
  convolution_param {
    num_output: 96
    kernel_size: 1
    weight_filler {
      type: "xavier"
      std: 0.09
    }
    bias_filler {
      type: "constant"
      value: 0.2
    }
  }
}
layer {
  name: "inception_4a/relu_3x3_reduce"
  type: "ReLU"
  bottom: "inception_4a/3x3_reduce"
  top: "inception_4a/3x3_reduce"
}
layer {
  name: "inception_4a/3x3"
  type: "Convolution"
  bottom: "inception_4a/3x3_reduce"
  top: "inception_4a/3x3"
  param {
    lr_mult: 1
    decay_mult: 1
  }
  param {
    lr_mult: 2
    decay_mult: 0
  }
  convolution_param {
    num_output: 208
    pad: 1
    kernel_size: 3
    weight_filler {
      type: "xavier"
      std: 0.03
    }
    bias_filler {
      type: "constant"
      value: 0.2
    }
  }
}
layer {
  name: "inception_4a/relu_3x3"
  type: "ReLU"
  bottom: "inception_4a/3x3"
  top: "inception_4a/3x3"
}
layer {
  name: "inception_4a/5x5_reduce"
  type: "Convolution"
  bottom: "pool3/3x3_s2"
  top: "inception_4a/5x5_reduce"
  param {
    lr_mult: 1
    decay_mult: 1
  }
  param {
    lr_mult: 2
    decay_mult: 0
  }
  convolution_param {
    num_output: 16
    kernel_size: 1
    weight_filler {
      type: "xavier"
      std: 0.2
    }
    bias_filler {
      type: "constant"
      value: 0.2
    }
  }
}
layer {
  name: "inception_4a/relu_5x5_reduce"
  type: "ReLU"
  bottom: "inception_4a/5x5_reduce"
  top: "inception_4a/5x5_reduce"
}
layer {
  name: "inception_4a/5x5"
  type: "Convolution"
  bottom: "inception_4a/5x5_reduce"
  top: "inception_4a/5x5"
  param {
    lr_mult: 1
    decay_mult: 1
  }
  param {
    lr_mult: 2
    decay_mult: 0
  }
  convolution_param {
    num_output: 48
    pad: 2
    kernel_size: 5
    weight_filler {
      type: "xavier"
      std: 0.03
    }
    bias_filler {
      type: "constant"
      value: 0.2
    }
  }
}
layer {
  name: "inception_4a/relu_5x5"
  type: "ReLU"
  bottom: "inception_4a/5x5"
  top: "inception_4a/5x5"
}
layer {
  name: "inception_4a/pool"
  type: "Pooling"
  bottom: "pool3/3x3_s2"
  top: "inception_4a/pool"
  pooling_param {
    pool: MAX
    kernel_size: 3
    stride: 1
    pad: 1
  }
}
layer {
  name: "inception_4a/pool_proj"
  type: "Convolution"
  bottom: "inception_4a/pool"
  top: "inception_4a/pool_proj"
  param {
    lr_mult: 1
    decay_mult: 1
  }
  param {
    lr_mult: 2
    decay_mult: 0
  }
  convolution_param {
    num_output: 64
    kernel_size: 1
    weight_filler {
      type: "xavier"
      std: 0.1
    }
    bias_filler {
      type: "constant"
      value: 0.2
    }
  }
}
layer {
  name: "inception_4a/relu_pool_proj"
  type: "ReLU"
  bottom: "inception_4a/pool_proj"
  top: "inception_4a/pool_proj"
}
layer {
  name: "inception_4a/output"
  type: "Concat"
  bottom: "inception_4a/1x1"
  bottom: "inception_4a/3x3"
  bottom: "inception_4a/5x5"
  bottom: "inception_4a/pool_proj"
  top: "inception_4a/output"
}
layer {
  name: "inception_4b/1x1"
  type: "Convolution"
  bottom: "inception_4a/output"
  top: "inception_4b/1x1"
  param {
    lr_mult: 1
    decay_mult: 1
  }
  param {
    lr_mult: 2
    decay_mult: 0
  }
  convolution_param {
    num_output: 160
    kernel_size: 1
    weight_filler {
      type: "xavier"
      std: 0.03
    }
    bias_filler {
      type: "constant"
      value: 0.2
    }
  }
}
layer {
  name: "inception_4b/relu_1x1"
  type: "ReLU"
  bottom: "inception_4b/1x1"
  top: "inception_4b/1x1"
}
layer {
  name: "inception_4b/3x3_reduce"
  type: "Convolution"
  bottom: "inception_4a/output"
  top: "inception_4b/3x3_reduce"
  param {
    lr_mult: 1
    decay_mult: 1
  }
  param {
    lr_mult: 2
    decay_mult: 0
  }
  convolution_param {
    num_output: 112
    kernel_size: 1
    weight_filler {
      type: "xavier"
      std: 0.09
    }
    bias_filler {
      type: "constant"
      value: 0.2
    }
  }
}
layer {
  name: "inception_4b/relu_3x3_reduce"
  type: "ReLU"
  bottom: "inception_4b/3x3_reduce"
  top: "inception_4b/3x3_reduce"
}
layer {
  name: "inception_4b/3x3"
  type: "Convolution"
  bottom: "inception_4b/3x3_reduce"
  top: "inception_4b/3x3"
  param {
    lr_mult: 1
    decay_mult: 1
  }
  param {
    lr_mult: 2
    decay_mult: 0
  }
  convolution_param {
    num_output: 224
    pad: 1
    kernel_size: 3
    weight_filler {
      type: "xavier"
      std: 0.03
    }
    bias_filler {
      type: "constant"
      value: 0.2
    }
  }
}
layer {
  name: "inception_4b/relu_3x3"
  type: "ReLU"
  bottom: "inception_4b/3x3"
  top: "inception_4b/3x3"
}
layer {
  name: "inception_4b/5x5_reduce"
  type: "Convolution"
  bottom: "inception_4a/output"
  top: "inception_4b/5x5_reduce"
  param {
    lr_mult: 1
    decay_mult: 1
  }
  param {
    lr_mult: 2
    decay_mult: 0
  }
  convolution_param {
    num_output: 24
    kernel_size: 1
    weight_filler {
      type: "xavier"
      std: 0.2
    }
    bias_filler {
      type: "constant"
      value: 0.2
    }
  }
}
layer {
  name: "inception_4b/relu_5x5_reduce"
  type: "ReLU"
  bottom: "inception_4b/5x5_reduce"
  top: "inception_4b/5x5_reduce"
}
layer {
  name: "inception_4b/5x5"
  type: "Convolution"
  bottom: "inception_4b/5x5_reduce"
  top: "inception_4b/5x5"
  param {
    lr_mult: 1
    decay_mult: 1
  }
  param {
    lr_mult: 2
    decay_mult: 0
  }
  convolution_param {
    num_output: 64
    pad: 2
    kernel_size: 5
    weight_filler {
      type: "xavier"
      std: 0.03
    }
    bias_filler {
      type: "constant"
      value: 0.2
    }
  }
}
layer {
  name: "inception_4b/relu_5x5"
  type: "ReLU"
  bottom: "inception_4b/5x5"
  top: "inception_4b/5x5"
}
layer {
  name: "inception_4b/pool"
  type: "Pooling"
  bottom: "inception_4a/output"
  top: "inception_4b/pool"
  pooling_param {
    pool: MAX
    kernel_size: 3
    stride: 1
    pad: 1
  }
}
layer {
  name: "inception_4b/pool_proj"
  type: "Convolution"
  bottom: "inception_4b/pool"
  top: "inception_4b/pool_proj"
  param {
    lr_mult: 1
    decay_mult: 1
  }
  param {
    lr_mult: 2
    decay_mult: 0
  }
  convolution_param {
    num_output: 64
    kernel_size: 1
    weight_filler {
      type: "xavier"
      std: 0.1
    }
    bias_filler {
      type: "constant"
      value: 0.2
    }
  }
}
layer {
  name: "inception_4b/relu_pool_proj"
  type: "ReLU"
  bottom: "inception_4b/pool_proj"
  top: "inception_4b/pool_proj"
}
layer {
  name: "inception_4b/output"
  type: "Concat"
  bottom: "inception_4b/1x1"
  bottom: "inception_4b/3x3"
  bottom: "inception_4b/5x5"
  bottom: "inception_4b/pool_proj"
  top: "inception_4b/output"
}
layer {
  name: "inception_4c/1x1"
  type: "Convolution"
  bottom: "inception_4b/output"
  top: "inception_4c/1x1"
  param {
    lr_mult: 1
    decay_mult: 1
  }
  param {
    lr_mult: 2
    decay_mult: 0
  }
  convolution_param {
    num_output: 128
    kernel_size: 1
    weight_filler {
      type: "xavier"
      std: 0.03
    }
    bias_filler {
      type: "constant"
      value: 0.2
    }
  }
}
layer {
  name: "inception_4c/relu_1x1"
  type: "ReLU"
  bottom: "inception_4c/1x1"
  top: "inception_4c/1x1"
}
layer {
  name: "inception_4c/3x3_reduce"
  type: "Convolution"
  bottom: "inception_4b/output"
  top: "inception_4c/3x3_reduce"
  param {
    lr_mult: 1
    decay_mult: 1
  }
  param {
    lr_mult: 2
    decay_mult: 0
  }
  convolution_param {
    num_output: 128
    kernel_size: 1
    weight_filler {
      type: "xavier"
      std: 0.09
    }
    bias_filler {
      type: "constant"
      value: 0.2
    }
  }
}
layer {
  name: "inception_4c/relu_3x3_reduce"
  type: "ReLU"
  bottom: "inception_4c/3x3_reduce"
  top: "inception_4c/3x3_reduce"
}
layer {
  name: "inception_4c/3x3"
  type: "Convolution"
  bottom: "inception_4c/3x3_reduce"
  top: "inception_4c/3x3"
  param {
    lr_mult: 1
    decay_mult: 1
  }
  param {
    lr_mult: 2
    decay_mult: 0
  }
  convolution_param {
    num_output: 256
    pad: 1
    kernel_size: 3
    weight_filler {
      type: "xavier"
      std: 0.03
    }
    bias_filler {
      type: "constant"
      value: 0.2
    }
  }
}
layer {
  name: "inception_4c/relu_3x3"
  type: "ReLU"
  bottom: "inception_4c/3x3"
  top: "inception_4c/3x3"
}
layer {
  name: "inception_4c/5x5_reduce"
  type: "Convolution"
  bottom: "inception_4b/output"
  top: "inception_4c/5x5_reduce"
  param {
    lr_mult: 1
    decay_mult: 1
  }
  param {
    lr_mult: 2
    decay_mult: 0
  }
  convolution_param {
    num_output: 24
    kernel_size: 1
    weight_filler {
      type: "xavier"
      std: 0.2
    }
    bias_filler {
      type: "constant"
      value: 0.2
    }
  }
}
layer {
  name: "inception_4c/relu_5x5_reduce"
  type: "ReLU"
  bottom: "inception_4c/5x5_reduce"
  top: "inception_4c/5x5_reduce"
}
layer {
  name: "inception_4c/5x5"
  type: "Convolution"
  bottom: "inception_4c/5x5_reduce"
  top: "inception_4c/5x5"
  param {
    lr_mult: 1
    decay_mult: 1
  }
  param {
    lr_mult: 2
    decay_mult: 0
  }
  convolution_param {
    num_output: 64
    pad: 2
    kernel_size: 5
    weight_filler {
      type: "xavier"
      std: 0.03
    }
    bias_filler {
      type: "constant"
      value: 0.2
    }
  }
}
layer {
  name: "inception_4c/relu_5x5"
  type: "ReLU"
  bottom: "inception_4c/5x5"
  top: "inception_4c/5x5"
}
layer {
  name: "inception_4c/pool"
  type: "Pooling"
  bottom: "inception_4b/output"
  top: "inception_4c/pool"
  pooling_param {
    pool: MAX
    kernel_size: 3
    stride: 1
    pad: 1
  }
}
layer {
  name: "inception_4c/pool_proj"
  type: "Convolution"
  bottom: "inception_4c/pool"
  top: "inception_4c/pool_proj"
  param {
    lr_mult: 1
    decay_mult: 1
  }
  param {
    lr_mult: 2
    decay_mult: 0
  }
  convolution_param {
    num_output: 64
    kernel_size: 1
    weight_filler {
      type: "xavier"
      std: 0.1
    }
    bias_filler {
      type: "constant"
      value: 0.2
    }
  }
}
layer {
  name: "inception_4c/relu_pool_proj"
  type: "ReLU"
  bottom: "inception_4c/pool_proj"
  top: "inception_4c/pool_proj"
}
layer {
  name: "inception_4c/output"
  type: "Concat"
  bottom: "inception_4c/1x1"
  bottom: "inception_4c/3x3"
  bottom: "inception_4c/5x5"
  bottom: "inception_4c/pool_proj"
  top: "inception_4c/output"
}
layer {
  name: "inception_4d/1x1"
  type: "Convolution"
  bottom: "inception_4c/output"
  top: "inception_4d/1x1"
  param {
    lr_mult: 1
    decay_mult: 1
  }
  param {
    lr_mult: 2
    decay_mult: 0
  }
  convolution_param {
    num_output: 112
    kernel_size: 1
    weight_filler {
      type: "xavier"
      std: 0.03
    }
    bias_filler {
      type: "constant"
      value: 0.2
    }
  }
}
layer {
  name: "inception_4d/relu_1x1"
  type: "ReLU"
  bottom: "inception_4d/1x1"
  top: "inception_4d/1x1"
}
layer {
  name: "inception_4d/3x3_reduce"
  type: "Convolution"
  bottom: "inception_4c/output"
  top: "inception_4d/3x3_reduce"
  param {
    lr_mult: 1
    decay_mult: 1
  }
  param {
    lr_mult: 2
    decay_mult: 0
  }
  convolution_param {
    num_output: 144
    kernel_size: 1
    weight_filler {
      type: "xavier"
      std: 0.09
    }
    bias_filler {
      type: "constant"
      value: 0.2
    }
  }
}
layer {
  name: "inception_4d/relu_3x3_reduce"
  type: "ReLU"
  bottom: "inception_4d/3x3_reduce"
  top: "inception_4d/3x3_reduce"
}
layer {
  name: "inception_4d/3x3"
  type: "Convolution"
  bottom: "inception_4d/3x3_reduce"
  top: "inception_4d/3x3"
  param {
    lr_mult: 1
    decay_mult: 1
  }
  param {
    lr_mult: 2
    decay_mult: 0
  }
  convolution_param {
    num_output: 288
    pad: 1
    kernel_size: 3
    weight_filler {
      type: "xavier"
      std: 0.03
    }
    bias_filler {
      type: "constant"
      value: 0.2
    }
  }
}
layer {
  name: "inception_4d/relu_3x3"
  type: "ReLU"
  bottom: "inception_4d/3x3"
  top: "inception_4d/3x3"
}
layer {
  name: "inception_4d/5x5_reduce"
  type: "Convolution"
  bottom: "inception_4c/output"
  top: "inception_4d/5x5_reduce"
  param {
    lr_mult: 1
    decay_mult: 1
  }
  param {
    lr_mult: 2
    decay_mult: 0
  }
  convolution_param {
    num_output: 32
    kernel_size: 1
    weight_filler {
      type: "xavier"
      std: 0.2
    }
    bias_filler {
      type: "constant"
      value: 0.2
    }
  }
}
layer {
  name: "inception_4d/relu_5x5_reduce"
  type: "ReLU"
  bottom: "inception_4d/5x5_reduce"
  top: "inception_4d/5x5_reduce"
}
layer {
  name: "inception_4d/5x5"
  type: "Convolution"
  bottom: "inception_4d/5x5_reduce"
  top: "inception_4d/5x5"
  param {
    lr_mult: 1
    decay_mult: 1
  }
  param {
    lr_mult: 2
    decay_mult: 0
  }
  convolution_param {
    num_output: 64
    pad: 2
    kernel_size: 5
    weight_filler {
      type: "xavier"
      std: 0.03
    }
    bias_filler {
      type: "constant"
      value: 0.2
    }
  }
}
layer {
  name: "inception_4d/relu_5x5"
  type: "ReLU"
  bottom: "inception_4d/5x5"
  top: "inception_4d/5x5"
}
layer {
  name: "inception_4d/pool"
  type: "Pooling"
  bottom: "inception_4c/output"
  top: "inception_4d/pool"
  pooling_param {
    pool: MAX
    kernel_size: 3
    stride: 1
    pad: 1
  }
}
layer {
  name: "inception_4d/pool_proj"
  type: "Convolution"
  bottom: "inception_4d/pool"
  top: "inception_4d/pool_proj"
  param {
    lr_mult: 1
    decay_mult: 1
  }
  param {
    lr_mult: 2
    decay_mult: 0
  }
  convolution_param {
    num_output: 64
    kernel_size: 1
    weight_filler {
      type: "xavier"
      std: 0.1
    }
    bias_filler {
      type: "constant"
      value: 0.2
    }
  }
}
layer {
  name: "inception_4d/relu_pool_proj"
  type: "ReLU"
  bottom: "inception_4d/pool_proj"
  top: "inception_4d/pool_proj"
}
layer {
  name: "inception_4d/output"
  type: "Concat"
  bottom: "inception_4d/1x1"
  bottom: "inception_4d/3x3"
  bottom: "inception_4d/5x5"
  bottom: "inception_4d/pool_proj"
  top: "inception_4d/output"
}
layer {
  name: "inception_4e/1x1"
  type: "Convolution"
  bottom: "inception_4d/output"
  top: "inception_4e/1x1"
  param {
    lr_mult: 1
    decay_mult: 1
  }
  param {
    lr_mult: 2
    decay_mult: 0
  }
  convolution_param {
    num_output: 256
    kernel_size: 1
    weight_filler {
      type: "xavier"
      std: 0.03
    }
    bias_filler {
      type: "constant"
      value: 0.2
    }
  }
}
layer {
  name: "inception_4e/relu_1x1"
  type: "ReLU"
  bottom: "inception_4e/1x1"
  top: "inception_4e/1x1"
}
layer {
  name: "inception_4e/3x3_reduce"
  type: "Convolution"
  bottom: "inception_4d/output"
  top: "inception_4e/3x3_reduce"
  param {
    lr_mult: 1
    decay_mult: 1
  }
  param {
    lr_mult: 2
    decay_mult: 0
  }
  convolution_param {
    num_output: 160
    kernel_size: 1
    weight_filler {
      type: "xavier"
      std: 0.09
    }
    bias_filler {
      type: "constant"
      value: 0.2
    }
  }
}
layer {
  name: "inception_4e/relu_3x3_reduce"
  type: "ReLU"
  bottom: "inception_4e/3x3_reduce"
  top: "inception_4e/3x3_reduce"
}
layer {
  name: "inception_4e/3x3"
  type: "Convolution"
  bottom: "inception_4e/3x3_reduce"
  top: "inception_4e/3x3"
  param {
    lr_mult: 1
    decay_mult: 1
  }
  param {
    lr_mult: 2
    decay_mult: 0
  }
  convolution_param {
    num_output: 320
    pad: 1
    kernel_size: 3
    weight_filler {
      type: "xavier"
      std: 0.03
    }
    bias_filler {
      type: "constant"
      value: 0.2
    }
  }
}
layer {
  name: "inception_4e/relu_3x3"
  type: "ReLU"
  bottom: "inception_4e/3x3"
  top: "inception_4e/3x3"
}
layer {
  name: "inception_4e/5x5_reduce"
  type: "Convolution"
  bottom: "inception_4d/output"
  top: "inception_4e/5x5_reduce"
  param {
    lr_mult: 1
    decay_mult: 1
  }
  param {
    lr_mult: 2
    decay_mult: 0
  }
  convolution_param {
    num_output: 32
    kernel_size: 1
    weight_filler {
      type: "xavier"
      std: 0.2
    }
    bias_filler {
      type: "constant"
      value: 0.2
    }
  }
}
layer {
  name: "inception_4e/relu_5x5_reduce"
  type: "ReLU"
  bottom: "inception_4e/5x5_reduce"
  top: "inception_4e/5x5_reduce"
}
layer {
  name: "inception_4e/5x5"
  type: "Convolution"
  bottom: "inception_4e/5x5_reduce"
  top: "inception_4e/5x5"
  param {
    lr_mult: 1
    decay_mult: 1
  }
  param {
    lr_mult: 2
    decay_mult: 0
  }
  convolution_param {
    num_output: 128
    pad: 2
    kernel_size: 5
    weight_filler {
      type: "xavier"
      std: 0.03
    }
    bias_filler {
      type: "constant"
      value: 0.2
    }
  }
}
layer {
  name: "inception_4e/relu_5x5"
  type: "ReLU"
  bottom: "inception_4e/5x5"
  top: "inception_4e/5x5"
}
layer {
  name: "inception_4e/pool"
  type: "Pooling"
  bottom: "inception_4d/output"
  top: "inception_4e/pool"
  pooling_param {
    pool: MAX
    kernel_size: 3
    stride: 1
    pad: 1
  }
}
layer {
  name: "inception_4e/pool_proj"
  type: "Convolution"
  bottom: "inception_4e/pool"
  top: "inception_4e/pool_proj"
  param {
    lr_mult: 1
    decay_mult: 1
  }
  param {
    lr_mult: 2
    decay_mult: 0
  }
  convolution_param {
    num_output: 128
    kernel_size: 1
    weight_filler {
      type: "xavier"
      std: 0.1
    }
    bias_filler {
      type: "constant"
      value: 0.2
    }
  }
}
layer {
  name: "inception_4e/relu_pool_proj"
  type: "ReLU"
  bottom: "inception_4e/pool_proj"
  top: "inception_4e/pool_proj"
}
layer {
  name: "inception_4e/output"
  type: "Concat"
  bottom: "inception_4e/1x1"
  bottom: "inception_4e/3x3"
  bottom: "inception_4e/5x5"
  bottom: "inception_4e/pool_proj"
  top: "inception_4e/output"
}
layer {
  name: "pool4/3x3_s2"
  type: "Pooling"
  bottom: "inception_4e/output"
  top: "pool4/3x3_s2"
  pooling_param {
    pool: MAX
    kernel_size: 3
    stride: 2
  }
}
layer {
  name: "inception_5a/1x1"
  type: "Convolution"
  bottom: "pool4/3x3_s2"
  top: "inception_5a/1x1"
  param {
    lr_mult: 1
    decay_mult: 1
  }
  param {
    lr_mult: 2
    decay_mult: 0
  }
  convolution_param {
    num_output: 256
    kernel_size: 1
    weight_filler {
      type: "xavier"
      std: 0.03
    }
    bias_filler {
      type: "constant"
      value: 0.2
    }
  }
}
layer {
  name: "inception_5a/relu_1x1"
  type: "ReLU"
  bottom: "inception_5a/1x1"
  top: "inception_5a/1x1"
}
layer {
  name: "inception_5a/3x3_reduce"
  type: "Convolution"
  bottom: "pool4/3x3_s2"
  top: "inception_5a/3x3_reduce"
  param {
    lr_mult: 1
    decay_mult: 1
  }
  param {
    lr_mult: 2
    decay_mult: 0
  }
  convolution_param {
    num_output: 160
    kernel_size: 1
    weight_filler {
      type: "xavier"
      std: 0.09
    }
    bias_filler {
      type: "constant"
      value: 0.2
    }
  }
}
layer {
  name: "inception_5a/relu_3x3_reduce"
  type: "ReLU"
  bottom: "inception_5a/3x3_reduce"
  top: "inception_5a/3x3_reduce"
}
layer {
  name: "inception_5a/3x3"
  type: "Convolution"
  bottom: "inception_5a/3x3_reduce"
  top: "inception_5a/3x3"
  param {
    lr_mult: 1
    decay_mult: 1
  }
  param {
    lr_mult: 2
    decay_mult: 0
  }
  convolution_param {
    num_output: 320
    pad: 1
    kernel_size: 3
    weight_filler {
      type: "xavier"
      std: 0.03
    }
    bias_filler {
      type: "constant"
      value: 0.2
    }
  }
}
layer {
  name: "inception_5a/relu_3x3"
  type: "ReLU"
  bottom: "inception_5a/3x3"
  top: "inception_5a/3x3"
}
layer {
  name: "inception_5a/5x5_reduce"
  type: "Convolution"
  bottom: "pool4/3x3_s2"
  top: "inception_5a/5x5_reduce"
  param {
    lr_mult: 1
    decay_mult: 1
  }
  param {
    lr_mult: 2
    decay_mult: 0
  }
  convolution_param {
    num_output: 32
    kernel_size: 1
    weight_filler {
      type: "xavier"
      std: 0.2
    }
    bias_filler {
      type: "constant"
      value: 0.2
    }
I0713 13:25:59.949857 18931 layer_factory.hpp:77] Creating layer data
I0713 13:25:59.949884 18931 net.cpp:91] Creating Layer data
I0713 13:25:59.949895 18931 net.cpp:399] data -> data
I0713 13:26:00.577759 18931 net.cpp:141] Setting up data
I0713 13:26:00.577859 18931 net.cpp:148] Top shape: 10 3 224 224 (1505280)
I0713 13:26:00.577867 18931 net.cpp:156] Memory required for data: 6021120
I0713 13:26:00.577894 18931 layer_factory.hpp:77] Creating layer conv1/7x7_s2
I0713 13:26:00.577944 18931 net.cpp:91] Creating Layer conv1/7x7_s2
I0713 13:26:00.577955 18931 net.cpp:425] conv1/7x7_s2 <- data
I0713 13:26:00.577971 18931 net.cpp:399] conv1/7x7_s2 -> conv1/7x7_s2
I0713 13:26:00.853337 18931 net.cpp:141] Setting up conv1/7x7_s2
I0713 13:26:00.853406 18931 net.cpp:148] Top shape: 10 64 112 112 (8028160)
I0713 13:26:00.853415 18931 net.cpp:156] Memory required for data: 38133760
I0713 13:26:00.853451 18931 layer_factory.hpp:77] Creating layer conv1/relu_7x7
I0713 13:26:00.853477 18931 net.cpp:91] Creating Layer conv1/relu_7x7
I0713 13:26:00.853484 18931 net.cpp:425] conv1/relu_7x7 <- conv1/7x7_s2
I0713 13:26:00.853494 18931 net.cpp:386] conv1/relu_7x7 -> conv1/7x7_s2 (in-place)
I0713 13:26:00.854275 18931 net.cpp:141] Setting up conv1/relu_7x7
I0713 13:26:00.854290 18931 net.cpp:148] Top shape: 10 64 112 112 (8028160)
I0713 13:26:00.854296 18931 net.cpp:156] Memory required for data: 70246400
I0713 13:26:00.854302 18931 layer_factory.hpp:77] Creating layer pool1/3x3_s2
I0713 13:26:00.854317 18931 net.cpp:91] Creating Layer pool1/3x3_s2
I0713 13:26:00.854322 18931 net.cpp:425] pool1/3x3_s2 <- conv1/7x7_s2
I0713 13:26:00.854332 18931 net.cpp:399] pool1/3x3_s2 -> pool1/3x3_s2
I0713 13:26:00.854423 18931 net.cpp:141] Setting up pool1/3x3_s2
I0713 13:26:00.854435 18931 net.cpp:148] Top shape: 10 64 56 56 (2007040)
I0713 13:26:00.854440 18931 net.cpp:156] Memory required for data: 78274560
I0713 13:26:00.854446 18931 layer_factory.hpp:77] Creating layer pool1/norm1
I0713 13:26:00.854467 18931 net.cpp:91] Creating Layer pool1/norm1
I0713 13:26:00.854475 18931 net.cpp:425] pool1/norm1 <- pool1/3x3_s2
I0713 13:26:00.854483 18931 net.cpp:399] pool1/norm1 -> pool1/norm1
I0713 13:26:00.855341 18931 net.cpp:141] Setting up pool1/norm1
I0713 13:26:00.855358 18931 net.cpp:148] Top shape: 10 64 56 56 (2007040)
I0713 13:26:00.855365 18931 net.cpp:156] Memory required for data: 86302720
I0713 13:26:00.855370 18931 layer_factory.hpp:77] Creating layer conv2/3x3_reduce
I0713 13:26:00.855397 18931 net.cpp:91] Creating Layer conv2/3x3_reduce
I0713 13:26:00.855403 18931 net.cpp:425] conv2/3x3_reduce <- pool1/norm1
I0713 13:26:00.855413 18931 net.cpp:399] conv2/3x3_reduce -> conv2/3x3_reduce
I0713 13:26:00.858256 18931 net.cpp:141] Setting up conv2/3x3_reduce
I0713 13:26:00.858278 18931 net.cpp:148] Top shape: 10 64 56 56 (2007040)
I0713 13:26:00.858283 18931 net.cpp:156] Memory required for data: 94330880
I0713 13:26:00.858297 18931 layer_factory.hpp:77] Creating layer conv2/relu_3x3_reduce
I0713 13:26:00.858309 18931 net.cpp:91] Creating Layer conv2/relu_3x3_reduce
I0713 13:26:00.858314 18931 net.cpp:425] conv2/relu_3x3_reduce <- conv2/3x3_reduce
I0713 13:26:00.858321 18931 net.cpp:386] conv2/relu_3x3_reduce -> conv2/3x3_reduce (in-place)
I0713 13:26:00.859100 18931 net.cpp:141] Setting up conv2/relu_3x3_reduce
I0713 13:26:00.859119 18931 net.cpp:148] Top shape: 10 64 56 56 (2007040)
I0713 13:26:00.859124 18931 net.cpp:156] Memory required for data: 102359040
I0713 13:26:00.859132 18931 layer_factory.hpp:77] Creating layer conv2/3x3
I0713 13:26:00.859148 18931 net.cpp:91] Creating Layer conv2/3x3
I0713 13:26:00.859154 18931 net.cpp:425] conv2/3x3 <- conv2/3x3_reduce
I0713 13:26:00.859164 18931 net.cpp:399] conv2/3x3 -> conv2/3x3
I0713 13:26:00.863979 18931 net.cpp:141] Setting up conv2/3x3
I0713 13:26:00.864001 18931 net.cpp:148] Top shape: 10 192 56 56 (6021120)
I0713 13:26:00.864006 18931 net.cpp:156] Memory required for data: 126443520
I0713 13:26:00.864022 18931 layer_factory.hpp:77] Creating layer conv2/relu_3x3
I0713 13:26:00.864035 18931 net.cpp:91] Creating Layer conv2/relu_3x3
I0713 13:26:00.864042 18931 net.cpp:425] conv2/relu_3x3 <- conv2/3x3
I0713 13:26:00.864048 18931 net.cpp:386] conv2/relu_3x3 -> conv2/3x3 (in-place)
I0713 13:26:00.864298 18931 net.cpp:141] Setting up conv2/relu_3x3
I0713 13:26:00.864311 18931 net.cpp:148] Top shape: 10 192 56 56 (6021120)
I0713 13:26:00.864316 18931 net.cpp:156] Memory required for data: 150528000
I0713 13:26:00.864322 18931 layer_factory.hpp:77] Creating layer conv2/norm2
I0713 13:26:00.864333 18931 net.cpp:91] Creating Layer conv2/norm2
I0713 13:26:00.864339 18931 net.cpp:425] conv2/norm2 <- conv2/3x3
I0713 13:26:00.864347 18931 net.cpp:399] conv2/norm2 -> conv2/norm2
I0713 13:26:00.865164 18931 net.cpp:141] Setting up conv2/norm2
I0713 13:26:00.865181 18931 net.cpp:148] Top shape: 10 192 56 56 (6021120)
I0713 13:26:00.865187 18931 net.cpp:156] Memory required for data: 174612480
I0713 13:26:00.865193 18931 layer_factory.hpp:77] Creating layer pool2/3x3_s2
I0713 13:26:00.865205 18931 net.cpp:91] Creating Layer pool2/3x3_s2
I0713 13:26:00.865211 18931 net.cpp:425] pool2/3x3_s2 <- conv2/norm2
I0713 13:26:00.865218 18931 net.cpp:399] pool2/3x3_s2 -> pool2/3x3_s2
I0713 13:26:00.865278 18931 net.cpp:141] Setting up pool2/3x3_s2
I0713 13:26:00.865288 18931 net.cpp:148] Top shape: 10 192 28 28 (1505280)
I0713 13:26:00.865293 18931 net.cpp:156] Memory required for data: 180633600
I0713 13:26:00.865298 18931 layer_factory.hpp:77] Creating layer pool2/3x3_s2_pool2/3x3_s2_0_split
I0713 13:26:00.865317 18931 net.cpp:91] Creating Layer pool2/3x3_s2_pool2/3x3_s2_0_split
I0713 13:26:00.865322 18931 net.cpp:425] pool2/3x3_s2_pool2/3x3_s2_0_split <- pool2/3x3_s2
I0713 13:26:00.865330 18931 net.cpp:399] pool2/3x3_s2_pool2/3x3_s2_0_split -> pool2/3x3_s2_pool2/3x3_s2_0_split_0
I0713 13:26:00.865341 18931 net.cpp:399] pool2/3x3_s2_pool2/3x3_s2_0_split -> pool2/3x3_s2_pool2/3x3_s2_0_split_1
I0713 13:26:00.865351 18931 net.cpp:399] pool2/3x3_s2_pool2/3x3_s2_0_split -> pool2/3x3_s2_pool2/3x3_s2_0_split_2
I0713 13:26:00.865361 18931 net.cpp:399] pool2/3x3_s2_pool2/3x3_s2_0_split -> pool2/3x3_s2_pool2/3x3_s2_0_split_3
I0713 13:26:00.865438 18931 net.cpp:141] Setting up pool2/3x3_s2_pool2/3x3_s2_0_split
I0713 13:26:00.865448 18931 net.cpp:148] Top shape: 10 192 28 28 (1505280)
I0713 13:26:00.865455 18931 net.cpp:148] Top shape: 10 192 28 28 (1505280)
I0713 13:26:00.865461 18931 net.cpp:148] Top shape: 10 192 28 28 (1505280)
I0713 13:26:00.865468 18931 net.cpp:148] Top shape: 10 192 28 28 (1505280)
I0713 13:26:00.865471 18931 net.cpp:156] Memory required for data: 204718080
I0713 13:26:00.865478 18931 layer_factory.hpp:77] Creating layer inception_3a/1x1
I0713 13:26:00.865492 18931 net.cpp:91] Creating Layer inception_3a/1x1
I0713 13:26:00.865499 18931 net.cpp:425] inception_3a/1x1 <- pool2/3x3_s2_pool2/3x3_s2_0_split_0
I0713 13:26:00.865527 18931 net.cpp:399] inception_3a/1x1 -> inception_3a/1x1
I0713 13:26:00.869468 18931 net.cpp:141] Setting up inception_3a/1x1
I0713 13:26:00.869490 18931 net.cpp:148] Top shape: 10 64 28 28 (501760)
I0713 13:26:00.869496 18931 net.cpp:156] Memory required for data: 206725120
I0713 13:26:00.869508 18931 layer_factory.hpp:77] Creating layer inception_3a/relu_1x1
I0713 13:26:00.869518 18931 net.cpp:91] Creating Layer inception_3a/relu_1x1
I0713 13:26:00.869524 18931 net.cpp:425] inception_3a/relu_1x1 <- inception_3a/1x1
I0713 13:26:00.869534 18931 net.cpp:386] inception_3a/relu_1x1 -> inception_3a/1x1 (in-place)
I0713 13:26:00.869787 18931 net.cpp:141] Setting up inception_3a/relu_1x1
I0713 13:26:00.869801 18931 net.cpp:148] Top shape: 10 64 28 28 (501760)
I0713 13:26:00.869807 18931 net.cpp:156] Memory required for data: 208732160
I0713 13:26:00.869812 18931 layer_factory.hpp:77] Creating layer inception_3a/3x3_reduce
I0713 13:26:00.869828 18931 net.cpp:91] Creating Layer inception_3a/3x3_reduce
I0713 13:26:00.869834 18931 net.cpp:425] inception_3a/3x3_reduce <- pool2/3x3_s2_pool2/3x3_s2_0_split_1
I0713 13:26:00.869845 18931 net.cpp:399] inception_3a/3x3_reduce -> inception_3a/3x3_reduce
I0713 13:26:00.873330 18931 net.cpp:141] Setting up inception_3a/3x3_reduce
I0713 13:26:00.873352 18931 net.cpp:148] Top shape: 10 96 28 28 (752640)
I0713 13:26:00.873358 18931 net.cpp:156] Memory required for data: 211742720
I0713 13:26:00.873373 18931 layer_factory.hpp:77] Creating layer inception_3a/relu_3x3_reduce
I0713 13:26:00.873383 18931 net.cpp:91] Creating Layer inception_3a/relu_3x3_reduce
I0713 13:26:00.873389 18931 net.cpp:425] inception_3a/relu_3x3_reduce <- inception_3a/3x3_reduce
I0713 13:26:00.873397 18931 net.cpp:386] inception_3a/relu_3x3_reduce -> inception_3a/3x3_reduce (in-place)
I0713 13:26:00.873638 18931 net.cpp:141] Setting up inception_3a/relu_3x3_reduce
I0713 13:26:00.873651 18931 net.cpp:148] Top shape: 10 96 28 28 (752640)
I0713 13:26:00.873656 18931 net.cpp:156] Memory required for data: 214753280
I0713 13:26:00.873662 18931 layer_factory.hpp:77] Creating layer inception_3a/3x3
I0713 13:26:00.873682 18931 net.cpp:91] Creating Layer inception_3a/3x3
I0713 13:26:00.873688 18931 net.cpp:425] inception_3a/3x3 <- inception_3a/3x3_reduce
I0713 13:26:00.873698 18931 net.cpp:399] inception_3a/3x3 -> inception_3a/3x3
I0713 13:26:00.876833 18931 net.cpp:141] Setting up inception_3a/3x3
I0713 13:26:00.876855 18931 net.cpp:148] Top shape: 10 128 28 28 (1003520)
I0713 13:26:00.876862 18931 net.cpp:156] Memory required for data: 218767360
I0713 13:26:00.876873 18931 layer_factory.hpp:77] Creating layer inception_3a/relu_3x3
I0713 13:26:00.876883 18931 net.cpp:91] Creating Layer inception_3a/relu_3x3
I0713 13:26:00.876889 18931 net.cpp:425] inception_3a/relu_3x3 <- inception_3a/3x3
I0713 13:26:00.876898 18931 net.cpp:386] inception_3a/relu_3x3 -> inception_3a/3x3 (in-place)
I0713 13:26:00.877688 18931 net.cpp:141] Setting up inception_3a/relu_3x3
I0713 13:26:00.877707 18931 net.cpp:148] Top shape: 10 128 28 28 (1003520)
I0713 13:26:00.877712 18931 net.cpp:156] Memory required for data: 222781440
I0713 13:26:00.877718 18931 layer_factory.hpp:77] Creating layer inception_3a/5x5_reduce
I0713 13:26:00.877734 18931 net.cpp:91] Creating Layer inception_3a/5x5_reduce
I0713 13:26:00.877740 18931 net.cpp:425] inception_3a/5x5_reduce <- pool2/3x3_s2_pool2/3x3_s2_0_split_2
I0713 13:26:00.877751 18931 net.cpp:399] inception_3a/5x5_reduce -> inception_3a/5x5_reduce
I0713 13:26:00.880048 18931 net.cpp:141] Setting up inception_3a/5x5_reduce
I0713 13:26:00.880067 18931 net.cpp:148] Top shape: 10 16 28 28 (125440)
I0713 13:26:00.880074 18931 net.cpp:156] Memory required for data: 223283200
I0713 13:26:00.880084 18931 layer_factory.hpp:77] Creating layer inception_3a/relu_5x5_reduce
I0713 13:26:00.880096 18931 net.cpp:91] Creating Layer inception_3a/relu_5x5_reduce
I0713 13:26:00.880102 18931 net.cpp:425] inception_3a/relu_5x5_reduce <- inception_3a/5x5_reduce
I0713 13:26:00.880111 18931 net.cpp:386] inception_3a/relu_5x5_reduce -> inception_3a/5x5_reduce (in-place)
I0713 13:26:00.880374 18931 net.cpp:141] Setting up inception_3a/relu_5x5_reduce
I0713 13:26:00.880388 18931 net.cpp:148] Top shape: 10 16 28 28 (125440)
I0713 13:26:00.880393 18931 net.cpp:156] Memory required for data: 223784960
I0713 13:26:00.880405 18931 layer_factory.hpp:77] Creating layer inception_3a/5x5
I0713 13:26:00.880425 18931 net.cpp:91] Creating Layer inception_3a/5x5
I0713 13:26:00.880432 18931 net.cpp:425] inception_3a/5x5 <- inception_3a/5x5_reduce
I0713 13:26:00.880441 18931 net.cpp:399] inception_3a/5x5 -> inception_3a/5x5
I0713 13:26:00.884050 18931 net.cpp:141] Setting up inception_3a/5x5
I0713 13:26:00.884070 18931 net.cpp:148] Top shape: 10 32 28 28 (250880)
I0713 13:26:00.884076 18931 net.cpp:156] Memory required for data: 224788480
I0713 13:26:00.884088 18931 layer_factory.hpp:77] Creating layer inception_3a/relu_5x5
I0713 13:26:00.884101 18931 net.cpp:91] Creating Layer inception_3a/relu_5x5
I0713 13:26:00.884107 18931 net.cpp:425] inception_3a/relu_5x5 <- inception_3a/5x5
I0713 13:26:00.884115 18931 net.cpp:386] inception_3a/relu_5x5 -> inception_3a/5x5 (in-place)
I0713 13:26:00.884387 18931 net.cpp:141] Setting up inception_3a/relu_5x5
I0713 13:26:00.884399 18931 net.cpp:148] Top shape: 10 32 28 28 (250880)
I0713 13:26:00.884404 18931 net.cpp:156] Memory required for data: 225792000
I0713 13:26:00.884409 18931 layer_factory.hpp:77] Creating layer inception_3a/pool
I0713 13:26:00.884425 18931 net.cpp:91] Creating Layer inception_3a/pool
I0713 13:26:00.884431 18931 net.cpp:425] inception_3a/pool <- pool2/3x3_s2_pool2/3x3_s2_0_split_3
I0713 13:26:00.884443 18931 net.cpp:399] inception_3a/pool -> inception_3a/pool
I0713 13:26:00.884510 18931 net.cpp:141] Setting up inception_3a/pool
I0713 13:26:00.884521 18931 net.cpp:148] Top shape: 10 192 28 28 (1505280)
I0713 13:26:00.884526 18931 net.cpp:156] Memory required for data: 231813120
I0713 13:26:00.884531 18931 layer_factory.hpp:77] Creating layer inception_3a/pool_proj
I0713 13:26:00.884548 18931 net.cpp:91] Creating Layer inception_3a/pool_proj
I0713 13:26:00.884554 18931 net.cpp:425] inception_3a/pool_proj <- inception_3a/pool
I0713 13:26:00.884567 18931 net.cpp:399] inception_3a/pool_proj -> inception_3a/pool_proj
I0713 13:26:00.886886 18931 net.cpp:141] Setting up inception_3a/pool_proj
I0713 13:26:00.886904 18931 net.cpp:148] Top shape: 10 32 28 28 (250880)
I0713 13:26:00.886910 18931 net.cpp:156] Memory required for data: 232816640
I0713 13:26:00.886924 18931 layer_factory.hpp:77] Creating layer inception_3a/relu_pool_proj
I0713 13:26:00.886934 18931 net.cpp:91] Creating Layer inception_3a/relu_pool_proj
I0713 13:26:00.886940 18931 net.cpp:425] inception_3a/relu_pool_proj <- inception_3a/pool_proj
I0713 13:26:00.886952 18931 net.cpp:386] inception_3a/relu_pool_proj -> inception_3a/pool_proj (in-place)
I0713 13:26:00.887773 18931 net.cpp:141] Setting up inception_3a/relu_pool_proj
I0713 13:26:00.887791 18931 net.cpp:148] Top shape: 10 32 28 28 (250880)
I0713 13:26:00.887796 18931 net.cpp:156] Memory required for data: 233820160
I0713 13:26:00.887802 18931 layer_factory.hpp:77] Creating layer inception_3a/output
I0713 13:26:00.887827 18931 net.cpp:91] Creating Layer inception_3a/output
I0713 13:26:00.887833 18931 net.cpp:425] inception_3a/output <- inception_3a/1x1
I0713 13:26:00.887841 18931 net.cpp:425] inception_3a/output <- inception_3a/3x3
I0713 13:26:00.887847 18931 net.cpp:425] inception_3a/output <- inception_3a/5x5
I0713 13:26:00.887853 18931 net.cpp:425] inception_3a/output <- inception_3a/pool_proj
I0713 13:26:00.887859 18931 net.cpp:399] inception_3a/output -> inception_3a/output
I0713 13:26:00.887909 18931 net.cpp:141] Setting up inception_3a/output
I0713 13:26:00.887919 18931 net.cpp:148] Top shape: 10 256 28 28 (2007040)
I0713 13:26:00.887924 18931 net.cpp:156] Memory required for data: 241848320
I0713 13:26:00.887929 18931 layer_factory.hpp:77] Creating layer inception_3a/output_inception_3a/output_0_split
I0713 13:26:00.887938 18931 net.cpp:91] Creating Layer inception_3a/output_inception_3a/output_0_split
I0713 13:26:00.887943 18931 net.cpp:425] inception_3a/output_inception_3a/output_0_split <- inception_3a/output
I0713 13:26:00.887964 18931 net.cpp:399] inception_3a/output_inception_3a/output_0_split -> inception_3a/output_inception_3a/output_0_split_0
I0713 13:26:00.887974 18931 net.cpp:399] inception_3a/output_inception_3a/output_0_split -> inception_3a/output_inception_3a/output_0_split_1
I0713 13:26:00.887982 18931 net.cpp:399] inception_3a/output_inception_3a/output_0_split -> inception_3a/output_inception_3a/output_0_split_2
I0713 13:26:00.887991 18931 net.cpp:399] inception_3a/output_inception_3a/output_0_split -> inception_3a/output_inception_3a/output_0_split_3
I0713 13:26:00.888082 18931 net.cpp:141] Setting up inception_3a/output_inception_3a/output_0_split
I0713 13:26:00.888092 18931 net.cpp:148] Top shape: 10 256 28 28 (2007040)
I0713 13:26:00.888098 18931 net.cpp:148] Top shape: 10 256 28 28 (2007040)
I0713 13:26:00.888104 18931 net.cpp:148] Top shape: 10 256 28 28 (2007040)
I0713 13:26:00.888109 18931 net.cpp:148] Top shape: 10 256 28 28 (2007040)
I0713 13:26:00.888114 18931 net.cpp:156] Memory required for data: 273960960
I0713 13:26:00.888118 18931 layer_factory.hpp:77] Creating layer inception_3b/1x1
I0713 13:26:00.888139 18931 net.cpp:91] Creating Layer inception_3b/1x1
I0713 13:26:00.888144 18931 net.cpp:425] inception_3b/1x1 <- inception_3a/output_inception_3a/output_0_split_0
I0713 13:26:00.888154 18931 net.cpp:399] inception_3b/1x1 -> inception_3b/1x1
I0713 13:26:00.890657 18931 net.cpp:141] Setting up inception_3b/1x1
I0713 13:26:00.890676 18931 net.cpp:148] Top shape: 10 128 28 28 (1003520)
I0713 13:26:00.890682 18931 net.cpp:156] Memory required for data: 277975040
I0713 13:26:00.890703 18931 layer_factory.hpp:77] Creating layer inception_3b/relu_1x1
I0713 13:26:00.890717 18931 net.cpp:91] Creating Layer inception_3b/relu_1x1
I0713 13:26:00.890722 18931 net.cpp:425] inception_3b/relu_1x1 <- inception_3b/1x1
I0713 13:26:00.890730 18931 net.cpp:386] inception_3b/relu_1x1 -> inception_3b/1x1 (in-place)
I0713 13:26:00.890992 18931 net.cpp:141] Setting up inception_3b/relu_1x1
I0713 13:26:00.891005 18931 net.cpp:148] Top shape: 10 128 28 28 (1003520)
I0713 13:26:00.891010 18931 net.cpp:156] Memory required for data: 281989120
I0713 13:26:00.891016 18931 layer_factory.hpp:77] Creating layer inception_3b/3x3_reduce
I0713 13:26:00.891036 18931 net.cpp:91] Creating Layer inception_3b/3x3_reduce
I0713 13:26:00.891042 18931 net.cpp:425] inception_3b/3x3_reduce <- inception_3a/output_inception_3a/output_0_split_1
I0713 13:26:00.891052 18931 net.cpp:399] inception_3b/3x3_reduce -> inception_3b/3x3_reduce
I0713 13:26:00.893599 18931 net.cpp:141] Setting up inception_3b/3x3_reduce
I0713 13:26:00.893617 18931 net.cpp:148] Top shape: 10 128 28 28 (1003520)
I0713 13:26:00.893622 18931 net.cpp:156] Memory required for data: 286003200
I0713 13:26:00.893632 18931 layer_factory.hpp:77] Creating layer inception_3b/relu_3x3_reduce
I0713 13:26:00.893645 18931 net.cpp:91] Creating Layer inception_3b/relu_3x3_reduce
I0713 13:26:00.893651 18931 net.cpp:425] inception_3b/relu_3x3_reduce <- inception_3b/3x3_reduce
I0713 13:26:00.893658 18931 net.cpp:386] inception_3b/relu_3x3_reduce -> inception_3b/3x3_reduce (in-place)
I0713 13:26:00.893923 18931 net.cpp:141] Setting up inception_3b/relu_3x3_reduce
I0713 13:26:00.893934 18931 net.cpp:148] Top shape: 10 128 28 28 (1003520)
I0713 13:26:00.893940 18931 net.cpp:156] Memory required for data: 290017280
I0713 13:26:00.893945 18931 layer_factory.hpp:77] Creating layer inception_3b/3x3
I0713 13:26:00.893975 18931 net.cpp:91] Creating Layer inception_3b/3x3
I0713 13:26:00.893981 18931 net.cpp:425] inception_3b/3x3 <- inception_3b/3x3_reduce
I0713 13:26:00.893990 18931 net.cpp:399] inception_3b/3x3 -> inception_3b/3x3
I0713 13:26:00.899268 18931 net.cpp:141] Setting up inception_3b/3x3
I0713 13:26:00.899289 18931 net.cpp:148] Top shape: 10 192 28 28 (1505280)
I0713 13:26:00.899296 18931 net.cpp:156] Memory required for data: 296038400
I0713 13:26:00.899305 18931 layer_factory.hpp:77] Creating layer inception_3b/relu_3x3
I0713 13:26:00.899323 18931 net.cpp:91] Creating Layer inception_3b/relu_3x3
I0713 13:26:00.899330 18931 net.cpp:425] inception_3b/relu_3x3 <- inception_3b/3x3
I0713 13:26:00.899338 18931 net.cpp:386] inception_3b/relu_3x3 -> inception_3b/3x3 (in-place)
I0713 13:26:00.900146 18931 net.cpp:141] Setting up inception_3b/relu_3x3
I0713 13:26:00.900162 18931 net.cpp:148] Top shape: 10 192 28 28 (1505280)
I0713 13:26:00.900168 18931 net.cpp:156] Memory required for data: 302059520
I0713 13:26:00.900173 18931 layer_factory.hpp:77] Creating layer inception_3b/5x5_reduce
I0713 13:26:00.900199 18931 net.cpp:91] Creating Layer inception_3b/5x5_reduce
I0713 13:26:00.900205 18931 net.cpp:425] inception_3b/5x5_reduce <- inception_3a/output_inception_3a/output_0_split_2
I0713 13:26:00.900215 18931 net.cpp:399] inception_3b/5x5_reduce -> inception_3b/5x5_reduce
I0713 13:26:00.902549 18931 net.cpp:141] Setting up inception_3b/5x5_reduce
I0713 13:26:00.902566 18931 net.cpp:148] Top shape: 10 32 28 28 (250880)
I0713 13:26:00.902571 18931 net.cpp:156] Memory required for data: 303063040
I0713 13:26:00.902581 18931 layer_factory.hpp:77] Creating layer inception_3b/relu_5x5_reduce
I0713 13:26:00.902593 18931 net.cpp:91] Creating Layer inception_3b/relu_5x5_reduce
I0713 13:26:00.902601 18931 net.cpp:425] inception_3b/relu_5x5_reduce <- inception_3b/5x5_reduce
I0713 13:26:00.902607 18931 net.cpp:386] inception_3b/relu_5x5_reduce -> inception_3b/5x5_reduce (in-place)
I0713 13:26:00.902885 18931 net.cpp:141] Setting up inception_3b/relu_5x5_reduce
I0713 13:26:00.902901 18931 net.cpp:148] Top shape: 10 32 28 28 (250880)
I0713 13:26:00.902907 18931 net.cpp:156] Memory required for data: 304066560
I0713 13:26:00.902912 18931 layer_factory.hpp:77] Creating layer inception_3b/5x5
I0713 13:26:00.902930 18931 net.cpp:91] Creating Layer inception_3b/5x5
I0713 13:26:00.902936 18931 net.cpp:425] inception_3b/5x5 <- inception_3b/5x5_reduce
I0713 13:26:00.902945 18931 net.cpp:399] inception_3b/5x5 -> inception_3b/5x5
I0713 13:26:00.907188 18931 net.cpp:141] Setting up inception_3b/5x5
I0713 13:26:00.907208 18931 net.cpp:148] Top shape: 10 96 28 28 (752640)
I0713 13:26:00.907214 18931 net.cpp:156] Memory required for data: 307077120
I0713 13:26:00.907224 18931 layer_factory.hpp:77] Creating layer inception_3b/relu_5x5
I0713 13:26:00.907238 18931 net.cpp:91] Creating Layer inception_3b/relu_5x5
I0713 13:26:00.907245 18931 net.cpp:425] inception_3b/relu_5x5 <- inception_3b/5x5
I0713 13:26:00.907253 18931 net.cpp:386] inception_3b/relu_5x5 -> inception_3b/5x5 (in-place)
I0713 13:26:00.907519 18931 net.cpp:141] Setting up inception_3b/relu_5x5
I0713 13:26:00.907532 18931 net.cpp:148] Top shape: 10 96 28 28 (752640)
I0713 13:26:00.907537 18931 net.cpp:156] Memory required for data: 310087680
I0713 13:26:00.907542 18931 layer_factory.hpp:77] Creating layer inception_3b/pool
I0713 13:26:00.907552 18931 net.cpp:91] Creating Layer inception_3b/pool
I0713 13:26:00.907558 18931 net.cpp:425] inception_3b/pool <- inception_3a/output_inception_3a/output_0_split_3
I0713 13:26:00.907570 18931 net.cpp:399] inception_3b/pool -> inception_3b/pool
I0713 13:26:00.907635 18931 net.cpp:141] Setting up inception_3b/pool
I0713 13:26:00.907646 18931 net.cpp:148] Top shape: 10 256 28 28 (2007040)
I0713 13:26:00.907650 18931 net.cpp:156] Memory required for data: 318115840
I0713 13:26:00.907655 18931 layer_factory.hpp:77] Creating layer inception_3b/pool_proj
I0713 13:26:00.907677 18931 net.cpp:91] Creating Layer inception_3b/pool_proj
I0713 13:26:00.907685 18931 net.cpp:425] inception_3b/pool_proj <- inception_3b/pool
I0713 13:26:00.907693 18931 net.cpp:399] inception_3b/pool_proj -> inception_3b/pool_proj
I0713 13:26:00.910109 18931 net.cpp:141] Setting up inception_3b/pool_proj
I0713 13:26:00.910127 18931 net.cpp:148] Top shape: 10 64 28 28 (501760)
I0713 13:26:00.910133 18931 net.cpp:156] Memory required for data: 320122880
I0713 13:26:00.910146 18931 layer_factory.hpp:77] Creating layer inception_3b/relu_pool_proj
I0713 13:26:00.910156 18931 net.cpp:91] Creating Layer inception_3b/relu_pool_proj
I0713 13:26:00.910162 18931 net.cpp:425] inception_3b/relu_pool_proj <- inception_3b/pool_proj
I0713 13:26:00.910173 18931 net.cpp:386] inception_3b/relu_pool_proj -> inception_3b/pool_proj (in-place)
I0713 13:26:00.910980 18931 net.cpp:141] Setting up inception_3b/relu_pool_proj
I0713 13:26:00.910998 18931 net.cpp:148] Top shape: 10 64 28 28 (501760)
I0713 13:26:00.911003 18931 net.cpp:156] Memory required for data: 322129920
I0713 13:26:00.911012 18931 layer_factory.hpp:77] Creating layer inception_3b/output
I0713 13:26:00.911021 18931 net.cpp:91] Creating Layer inception_3b/output
I0713 13:26:00.911027 18931 net.cpp:425] inception_3b/output <- inception_3b/1x1
I0713 13:26:00.911034 18931 net.cpp:425] inception_3b/output <- inception_3b/3x3
I0713 13:26:00.911041 18931 net.cpp:425] inception_3b/output <- inception_3b/5x5
I0713 13:26:00.911046 18931 net.cpp:425] inception_3b/output <- inception_3b/pool_proj
I0713 13:26:00.911056 18931 net.cpp:399] inception_3b/output -> inception_3b/output
I0713 13:26:00.911099 18931 net.cpp:141] Setting up inception_3b/output
I0713 13:26:00.911109 18931 net.cpp:148] Top shape: 10 480 28 28 (3763200)
I0713 13:26:00.911114 18931 net.cpp:156] Memory required for data: 337182720
I0713 13:26:00.911119 18931 layer_factory.hpp:77] Creating layer pool3/3x3_s2
I0713 13:26:00.911134 18931 net.cpp:91] Creating Layer pool3/3x3_s2
I0713 13:26:00.911139 18931 net.cpp:425] pool3/3x3_s2 <- inception_3b/output
I0713 13:26:00.911149 18931 net.cpp:399] pool3/3x3_s2 -> pool3/3x3_s2
I0713 13:26:00.911212 18931 net.cpp:141] Setting up pool3/3x3_s2
I0713 13:26:00.911226 18931 net.cpp:148] Top shape: 10 480 14 14 (940800)
I0713 13:26:00.911231 18931 net.cpp:156] Memory required for data: 340945920
I0713 13:26:00.911236 18931 layer_factory.hpp:77] Creating layer pool3/3x3_s2_pool3/3x3_s2_0_split
I0713 13:26:00.911245 18931 net.cpp:91] Creating Layer pool3/3x3_s2_pool3/3x3_s2_0_split
I0713 13:26:00.911250 18931 net.cpp:425] pool3/3x3_s2_pool3/3x3_s2_0_split <- pool3/3x3_s2
I0713 13:26:00.911257 18931 net.cpp:399] pool3/3x3_s2_pool3/3x3_s2_0_split -> pool3/3x3_s2_pool3/3x3_s2_0_split_0
I0713 13:26:00.911268 18931 net.cpp:399] pool3/3x3_s2_pool3/3x3_s2_0_split -> pool3/3x3_s2_pool3/3x3_s2_0_split_1
I0713 13:26:00.911279 18931 net.cpp:399] pool3/3x3_s2_pool3/3x3_s2_0_split -> pool3/3x3_s2_pool3/3x3_s2_0_split_2
I0713 13:26:00.911288 18931 net.cpp:399] pool3/3x3_s2_pool3/3x3_s2_0_split -> pool3/3x3_s2_pool3/3x3_s2_0_split_3
I0713 13:26:00.911386 18931 net.cpp:141] Setting up pool3/3x3_s2_pool3/3x3_s2_0_split
I0713 13:26:00.911396 18931 net.cpp:148] Top shape: 10 480 14 14 (940800)
I0713 13:26:00.911402 18931 net.cpp:148] Top shape: 10 480 14 14 (940800)
I0713 13:26:00.911407 18931 net.cpp:148] Top shape: 10 480 14 14 (940800)
I0713 13:26:00.911413 18931 net.cpp:148] Top shape: 10 480 14 14 (940800)
I0713 13:26:00.911417 18931 net.cpp:156] Memory required for data: 355998720
I0713 13:26:00.911422 18931 layer_factory.hpp:77] Creating layer inception_4a/1x1
I0713 13:26:00.911442 18931 net.cpp:91] Creating Layer inception_4a/1x1
I0713 13:26:00.911448 18931 net.cpp:425] inception_4a/1x1 <- pool3/3x3_s2_pool3/3x3_s2_0_split_0
I0713 13:26:00.911458 18931 net.cpp:399] inception_4a/1x1 -> inception_4a/1x1
I0713 13:26:00.915133 18931 net.cpp:141] Setting up inception_4a/1x1
I0713 13:26:00.915153 18931 net.cpp:148] Top shape: 10 192 14 14 (376320)
I0713 13:26:00.915158 18931 net.cpp:156] Memory required for data: 357504000
I0713 13:26:00.915169 18931 layer_factory.hpp:77] Creating layer inception_4a/relu_1x1
I0713 13:26:00.915177 18931 net.cpp:91] Creating Layer inception_4a/relu_1x1
I0713 13:26:00.915184 18931 net.cpp:425] inception_4a/relu_1x1 <- inception_4a/1x1
I0713 13:26:00.915195 18931 net.cpp:386] inception_4a/relu_1x1 -> inception_4a/1x1 (in-place)
I0713 13:26:00.915463 18931 net.cpp:141] Setting up inception_4a/relu_1x1
I0713 13:26:00.915477 18931 net.cpp:148] Top shape: 10 192 14 14 (376320)
I0713 13:26:00.915482 18931 net.cpp:156] Memory required for data: 359009280
I0713 13:26:00.915487 18931 layer_factory.hpp:77] Creating layer inception_4a/3x3_reduce
I0713 13:26:00.915504 18931 net.cpp:91] Creating Layer inception_4a/3x3_reduce
I0713 13:26:00.915510 18931 net.cpp:425] inception_4a/3x3_reduce <- pool3/3x3_s2_pool3/3x3_s2_0_split_1
I0713 13:26:00.915524 18931 net.cpp:399] inception_4a/3x3_reduce -> inception_4a/3x3_reduce
I0713 13:26:00.918262 18931 net.cpp:141] Setting up inception_4a/3x3_reduce
I0713 13:26:00.918282 18931 net.cpp:148] Top shape: 10 96 14 14 (188160)
I0713 13:26:00.918288 18931 net.cpp:156] Memory required for data: 359761920
I0713 13:26:00.918309 18931 layer_factory.hpp:77] Creating layer inception_4a/relu_3x3_reduce
I0713 13:26:00.918321 18931 net.cpp:91] Creating Layer inception_4a/relu_3x3_reduce
I0713 13:26:00.918326 18931 net.cpp:425] inception_4a/relu_3x3_reduce <- inception_4a/3x3_reduce
I0713 13:26:00.918337 18931 net.cpp:386] inception_4a/relu_3x3_reduce -> inception_4a/3x3_reduce (in-place)
I0713 13:26:00.918608 18931 net.cpp:141] Setting up inception_4a/relu_3x3_reduce
I0713 13:26:00.918622 18931 net.cpp:148] Top shape: 10 96 14 14 (188160)
I0713 13:26:00.918627 18931 net.cpp:156] Memory required for data: 360514560
I0713 13:26:00.918632 18931 layer_factory.hpp:77] Creating layer inception_4a/3x3
I0713 13:26:00.918654 18931 net.cpp:91] Creating Layer inception_4a/3x3
I0713 13:26:00.918660 18931 net.cpp:425] inception_4a/3x3 <- inception_4a/3x3_reduce
I0713 13:26:00.918673 18931 net.cpp:399] inception_4a/3x3 -> inception_4a/3x3
I0713 13:26:00.923651 18931 net.cpp:141] Setting up inception_4a/3x3
I0713 13:26:00.923671 18931 net.cpp:148] Top shape: 10 208 14 14 (407680)
I0713 13:26:00.923676 18931 net.cpp:156] Memory required for data: 362145280
I0713 13:26:00.923686 18931 layer_factory.hpp:77] Creating layer inception_4a/relu_3x3
I0713 13:26:00.923696 18931 net.cpp:91] Creating Layer inception_4a/relu_3x3
I0713 13:26:00.923702 18931 net.cpp:425] inception_4a/relu_3x3 <- inception_4a/3x3
I0713 13:26:00.923714 18931 net.cpp:386] inception_4a/relu_3x3 -> inception_4a/3x3 (in-place)
I0713 13:26:00.924525 18931 net.cpp:141] Setting up inception_4a/relu_3x3
I0713 13:26:00.924543 18931 net.cpp:148] Top shape: 10 208 14 14 (407680)
I0713 13:26:00.924548 18931 net.cpp:156] Memory required for data: 363776000
I0713 13:26:00.924554 18931 layer_factory.hpp:77] Creating layer inception_4a/5x5_reduce
I0713 13:26:00.924576 18931 net.cpp:91] Creating Layer inception_4a/5x5_reduce
I0713 13:26:00.924582 18931 net.cpp:425] inception_4a/5x5_reduce <- pool3/3x3_s2_pool3/3x3_s2_0_split_2
I0713 13:26:00.924594 18931 net.cpp:399] inception_4a/5x5_reduce -> inception_4a/5x5_reduce
I0713 13:26:00.926964 18931 net.cpp:141] Setting up inception_4a/5x5_reduce
I0713 13:26:00.926983 18931 net.cpp:148] Top shape: 10 16 14 14 (31360)
I0713 13:26:00.926988 18931 net.cpp:156] Memory required for data: 363901440
I0713 13:26:00.926998 18931 layer_factory.hpp:77] Creating layer inception_4a/relu_5x5_reduce
I0713 13:26:00.927011 18931 net.cpp:91] Creating Layer inception_4a/relu_5x5_reduce
I0713 13:26:00.927018 18931 net.cpp:425] inception_4a/relu_5x5_reduce <- inception_4a/5x5_reduce
I0713 13:26:00.927026 18931 net.cpp:386] inception_4a/relu_5x5_reduce -> inception_4a/5x5_reduce (in-place)
I0713 13:26:00.927297 18931 net.cpp:141] Setting up inception_4a/relu_5x5_reduce
I0713 13:26:00.927310 18931 net.cpp:148] Top shape: 10 16 14 14 (31360)
I0713 13:26:00.927315 18931 net.cpp:156] Memory required for data: 364026880
I0713 13:26:00.927320 18931 layer_factory.hpp:77] Creating layer inception_4a/5x5
I0713 13:26:00.927341 18931 net.cpp:91] Creating Layer inception_4a/5x5
I0713 13:26:00.927348 18931 net.cpp:425] inception_4a/5x5 <- inception_4a/5x5_reduce
I0713 13:26:00.927357 18931 net.cpp:399] inception_4a/5x5 -> inception_4a/5x5
I0713 13:26:00.929801 18931 net.cpp:141] Setting up inception_4a/5x5
I0713 13:26:00.929819 18931 net.cpp:148] Top shape: 10 48 14 14 (94080)
I0713 13:26:00.929824 18931 net.cpp:156] Memory required for data: 364403200
I0713 13:26:00.929834 18931 layer_factory.hpp:77] Creating layer inception_4a/relu_5x5
I0713 13:26:00.929850 18931 net.cpp:91] Creating Layer inception_4a/relu_5x5
I0713 13:26:00.929857 18931 net.cpp:425] inception_4a/relu_5x5 <- inception_4a/5x5
I0713 13:26:00.929865 18931 net.cpp:386] inception_4a/relu_5x5 -> inception_4a/5x5 (in-place)
I0713 13:26:00.930130 18931 net.cpp:141] Setting up inception_4a/relu_5x5
I0713 13:26:00.930142 18931 net.cpp:148] Top shape: 10 48 14 14 (94080)
I0713 13:26:00.930147 18931 net.cpp:156] Memory required for data: 364779520
I0713 13:26:00.930155 18931 layer_factory.hpp:77] Creating layer inception_4a/pool
I0713 13:26:00.930166 18931 net.cpp:91] Creating Layer inception_4a/pool
I0713 13:26:00.930172 18931 net.cpp:425] inception_4a/pool <- pool3/3x3_s2_pool3/3x3_s2_0_split_3
I0713 13:26:00.930184 18931 net.cpp:399] inception_4a/pool -> inception_4a/pool
I0713 13:26:00.930253 18931 net.cpp:141] Setting up inception_4a/pool
I0713 13:26:00.930263 18931 net.cpp:148] Top shape: 10 480 14 14 (940800)
I0713 13:26:00.930268 18931 net.cpp:156] Memory required for data: 368542720
I0713 13:26:00.930274 18931 layer_factory.hpp:77] Creating layer inception_4a/pool_proj
I0713 13:26:00.930295 18931 net.cpp:91] Creating Layer inception_4a/pool_proj
I0713 13:26:00.930302 18931 net.cpp:425] inception_4a/pool_proj <- inception_4a/pool
I0713 13:26:00.930311 18931 net.cpp:399] inception_4a/pool_proj -> inception_4a/pool_proj
I0713 13:26:00.932869 18931 net.cpp:141] Setting up inception_4a/pool_proj
I0713 13:26:00.932893 18931 net.cpp:148] Top shape: 10 64 14 14 (125440)
I0713 13:26:00.932898 18931 net.cpp:156] Memory required for data: 369044480
I0713 13:26:00.932909 18931 layer_factory.hpp:77] Creating layer inception_4a/relu_pool_proj
I0713 13:26:00.932919 18931 net.cpp:91] Creating Layer inception_4a/relu_pool_proj
I0713 13:26:00.932924 18931 net.cpp:425] inception_4a/relu_pool_proj <- inception_4a/pool_proj
I0713 13:26:00.932932 18931 net.cpp:386] inception_4a/relu_pool_proj -> inception_4a/pool_proj (in-place)
I0713 13:26:00.933744 18931 net.cpp:141] Setting up inception_4a/relu_pool_proj
I0713 13:26:00.933763 18931 net.cpp:148] Top shape: 10 64 14 14 (125440)
I0713 13:26:00.933768 18931 net.cpp:156] Memory required for data: 369546240
I0713 13:26:00.933773 18931 layer_factory.hpp:77] Creating layer inception_4a/output
I0713 13:26:00.933785 18931 net.cpp:91] Creating Layer inception_4a/output
I0713 13:26:00.933791 18931 net.cpp:425] inception_4a/output <- inception_4a/1x1
I0713 13:26:00.933799 18931 net.cpp:425] inception_4a/output <- inception_4a/3x3
I0713 13:26:00.933804 18931 net.cpp:425] inception_4a/output <- inception_4a/5x5
I0713 13:26:00.933809 18931 net.cpp:425] inception_4a/output <- inception_4a/pool_proj
I0713 13:26:00.933816 18931 net.cpp:399] inception_4a/output -> inception_4a/output
I0713 13:26:00.933871 18931 net.cpp:141] Setting up inception_4a/output
I0713 13:26:00.933882 18931 net.cpp:148] Top shape: 10 512 14 14 (1003520)
I0713 13:26:00.933887 18931 net.cpp:156] Memory required for data: 373560320
I0713 13:26:00.933892 18931 layer_factory.hpp:77] Creating layer inception_4a/output_inception_4a/output_0_split
I0713 13:26:00.933903 18931 net.cpp:91] Creating Layer inception_4a/output_inception_4a/output_0_split
I0713 13:26:00.933909 18931 net.cpp:425] inception_4a/output_inception_4a/output_0_split <- inception_4a/output
I0713 13:26:00.933917 18931 net.cpp:399] inception_4a/output_inception_4a/output_0_split -> inception_4a/output_inception_4a/output_0_split_0
I0713 13:26:00.933926 18931 net.cpp:399] inception_4a/output_inception_4a/output_0_split -> inception_4a/output_inception_4a/output_0_split_1
I0713 13:26:00.933935 18931 net.cpp:399] inception_4a/output_inception_4a/output_0_split -> inception_4a/output_inception_4a/output_0_split_2
I0713 13:26:00.933944 18931 net.cpp:399] inception_4a/output_inception_4a/output_0_split -> inception_4a/output_inception_4a/output_0_split_3
I0713 13:26:00.934048 18931 net.cpp:141] Setting up inception_4a/output_inception_4a/output_0_split
I0713 13:26:00.934064 18931 net.cpp:148] Top shape: 10 512 14 14 (1003520)
I0713 13:26:00.934072 18931 net.cpp:148] Top shape: 10 512 14 14 (1003520)
I0713 13:26:00.934077 18931 net.cpp:148] Top shape: 10 512 14 14 (1003520)
I0713 13:26:00.934083 18931 net.cpp:148] Top shape: 10 512 14 14 (1003520)
I0713 13:26:00.934087 18931 net.cpp:156] Memory required for data: 389616640
I0713 13:26:00.934093 18931 layer_factory.hpp:77] Creating layer inception_4b/1x1
I0713 13:26:00.934108 18931 net.cpp:91] Creating Layer inception_4b/1x1
I0713 13:26:00.934113 18931 net.cpp:425] inception_4b/1x1 <- inception_4a/output_inception_4a/output_0_split_0
I0713 13:26:00.934125 18931 net.cpp:399] inception_4b/1x1 -> inception_4b/1x1
I0713 13:26:00.937079 18931 net.cpp:141] Setting up inception_4b/1x1
I0713 13:26:00.937098 18931 net.cpp:148] Top shape: 10 160 14 14 (313600)
I0713 13:26:00.937104 18931 net.cpp:156] Memory required for data: 390871040
I0713 13:26:00.937114 18931 layer_factory.hpp:77] Creating layer inception_4b/relu_1x1
I0713 13:26:00.937125 18931 net.cpp:91] Creating Layer inception_4b/relu_1x1
I0713 13:26:00.937131 18931 net.cpp:425] inception_4b/relu_1x1 <- inception_4b/1x1
I0713 13:26:00.937142 18931 net.cpp:386] inception_4b/relu_1x1 -> inception_4b/1x1 (in-place)
I0713 13:26:00.937405 18931 net.cpp:141] Setting up inception_4b/relu_1x1
I0713 13:26:00.937417 18931 net.cpp:148] Top shape: 10 160 14 14 (313600)
I0713 13:26:00.937422 18931 net.cpp:156] Memory required for data: 392125440
I0713 13:26:00.937427 18931 layer_factory.hpp:77] Creating layer inception_4b/3x3_reduce
I0713 13:26:00.937451 18931 net.cpp:91] Creating Layer inception_4b/3x3_reduce
I0713 13:26:00.937458 18931 net.cpp:425] inception_4b/3x3_reduce <- inception_4a/output_inception_4a/output_0_split_1
I0713 13:26:00.937468 18931 net.cpp:399] inception_4b/3x3_reduce -> inception_4b/3x3_reduce
I0713 13:26:00.940260 18931 net.cpp:141] Setting up inception_4b/3x3_reduce
I0713 13:26:00.940280 18931 net.cpp:148] Top shape: 10 112 14 14 (219520)
I0713 13:26:00.940286 18931 net.cpp:156] Memory required for data: 393003520
I0713 13:26:00.940296 18931 layer_factory.hpp:77] Creating layer inception_4b/relu_3x3_reduce
I0713 13:26:00.940310 18931 net.cpp:91] Creating Layer inception_4b/relu_3x3_reduce
I0713 13:26:00.940316 18931 net.cpp:425] inception_4b/relu_3x3_reduce <- inception_4b/3x3_reduce
I0713 13:26:00.940326 18931 net.cpp:386] inception_4b/relu_3x3_reduce -> inception_4b/3x3_reduce (in-place)
I0713 13:26:00.940594 18931 net.cpp:141] Setting up inception_4b/relu_3x3_reduce
I0713 13:26:00.940608 18931 net.cpp:148] Top shape: 10 112 14 14 (219520)
I0713 13:26:00.940613 18931 net.cpp:156] Memory required for data: 393881600
I0713 13:26:00.940620 18931 layer_factory.hpp:77] Creating layer inception_4b/3x3
I0713 13:26:00.940639 18931 net.cpp:91] Creating Layer inception_4b/3x3
I0713 13:26:00.940646 18931 net.cpp:425] inception_4b/3x3 <- inception_4b/3x3_reduce
I0713 13:26:00.940659 18931 net.cpp:399] inception_4b/3x3 -> inception_4b/3x3
I0713 13:26:00.946760 18931 net.cpp:141] Setting up inception_4b/3x3
I0713 13:26:00.946780 18931 net.cpp:148] Top shape: 10 224 14 14 (439040)
I0713 13:26:00.946786 18931 net.cpp:156] Memory required for data: 395637760
I0713 13:26:00.946796 18931 layer_factory.hpp:77] Creating layer inception_4b/relu_3x3
I0713 13:26:00.946810 18931 net.cpp:91] Creating Layer inception_4b/relu_3x3
I0713 13:26:00.946817 18931 net.cpp:425] inception_4b/relu_3x3 <- inception_4b/3x3
I0713 13:26:00.946825 18931 net.cpp:386] inception_4b/relu_3x3 -> inception_4b/3x3 (in-place)
I0713 13:26:00.947651 18931 net.cpp:141] Setting up inception_4b/relu_3x3
I0713 13:26:00.947669 18931 net.cpp:148] Top shape: 10 224 14 14 (439040)
I0713 13:26:00.947674 18931 net.cpp:156] Memory required for data: 397393920
I0713 13:26:00.947680 18931 layer_factory.hpp:77] Creating layer inception_4b/5x5_reduce
I0713 13:26:00.947710 18931 net.cpp:91] Creating Layer inception_4b/5x5_reduce
I0713 13:26:00.947717 18931 net.cpp:425] inception_4b/5x5_reduce <- inception_4a/output_inception_4a/output_0_split_2
I0713 13:26:00.947731 18931 net.cpp:399] inception_4b/5x5_reduce -> inception_4b/5x5_reduce
I0713 13:26:00.950170 18931 net.cpp:141] Setting up inception_4b/5x5_reduce
I0713 13:26:00.950189 18931 net.cpp:148] Top shape: 10 24 14 14 (47040)
I0713 13:26:00.950194 18931 net.cpp:156] Memory required for data: 397582080
I0713 13:26:00.950206 18931 layer_factory.hpp:77] Creating layer inception_4b/relu_5x5_reduce
I0713 13:26:00.950215 18931 net.cpp:91] Creating Layer inception_4b/relu_5x5_reduce
I0713 13:26:00.950222 18931 net.cpp:425] inception_4b/relu_5x5_reduce <- inception_4b/5x5_reduce
I0713 13:26:00.950228 18931 net.cpp:386] inception_4b/relu_5x5_reduce -> inception_4b/5x5_reduce (in-place)
I0713 13:26:00.950502 18931 net.cpp:141] Setting up inception_4b/relu_5x5_reduce
I0713 13:26:00.950515 18931 net.cpp:148] Top shape: 10 24 14 14 (47040)
I0713 13:26:00.950520 18931 net.cpp:156] Memory required for data: 397770240
I0713 13:26:00.950525 18931 layer_factory.hpp:77] Creating layer inception_4b/5x5
I0713 13:26:00.950551 18931 net.cpp:91] Creating Layer inception_4b/5x5
I0713 13:26:00.950557 18931 net.cpp:425] inception_4b/5x5 <- inception_4b/5x5_reduce
I0713 13:26:00.950570 18931 net.cpp:399] inception_4b/5x5 -> inception_4b/5x5
I0713 13:26:00.954381 18931 net.cpp:141] Setting up inception_4b/5x5
I0713 13:26:00.954401 18931 net.cpp:148] Top shape: 10 64 14 14 (125440)
I0713 13:26:00.954407 18931 net.cpp:156] Memory required for data: 398272000
I0713 13:26:00.954416 18931 layer_factory.hpp:77] Creating layer inception_4b/relu_5x5
I0713 13:26:00.954433 18931 net.cpp:91] Creating Layer inception_4b/relu_5x5
I0713 13:26:00.954439 18931 net.cpp:425] inception_4b/relu_5x5 <- inception_4b/5x5
I0713 13:26:00.954447 18931 net.cpp:386] inception_4b/relu_5x5 -> inception_4b/5x5 (in-place)
I0713 13:26:00.954735 18931 net.cpp:141] Setting up inception_4b/relu_5x5
I0713 13:26:00.954747 18931 net.cpp:148] Top shape: 10 64 14 14 (125440)
I0713 13:26:00.954752 18931 net.cpp:156] Memory required for data: 398773760
I0713 13:26:00.954758 18931 layer_factory.hpp:77] Creating layer inception_4b/pool
I0713 13:26:00.954769 18931 net.cpp:91] Creating Layer inception_4b/pool
I0713 13:26:00.954774 18931 net.cpp:425] inception_4b/pool <- inception_4a/output_inception_4a/output_0_split_3
I0713 13:26:00.954787 18931 net.cpp:399] inception_4b/pool -> inception_4b/pool
I0713 13:26:00.954857 18931 net.cpp:141] Setting up inception_4b/pool
I0713 13:26:00.954869 18931 net.cpp:148] Top shape: 10 512 14 14 (1003520)
I0713 13:26:00.954872 18931 net.cpp:156] Memory required for data: 402787840
I0713 13:26:00.954879 18931 layer_factory.hpp:77] Creating layer inception_4b/pool_proj
I0713 13:26:00.954900 18931 net.cpp:91] Creating Layer inception_4b/pool_proj
I0713 13:26:00.954906 18931 net.cpp:425] inception_4b/pool_proj <- inception_4b/pool
I0713 13:26:00.954916 18931 net.cpp:399] inception_4b/pool_proj -> inception_4b/pool_proj
I0713 13:26:00.957521 18931 net.cpp:141] Setting up inception_4b/pool_proj
I0713 13:26:00.957540 18931 net.cpp:148] Top shape: 10 64 14 14 (125440)
I0713 13:26:00.957546 18931 net.cpp:156] Memory required for data: 403289600
I0713 13:26:00.957558 18931 layer_factory.hpp:77] Creating layer inception_4b/relu_pool_proj
I0713 13:26:00.957571 18931 net.cpp:91] Creating Layer inception_4b/relu_pool_proj
I0713 13:26:00.957578 18931 net.cpp:425] inception_4b/relu_pool_proj <- inception_4b/pool_proj
I0713 13:26:00.957587 18931 net.cpp:386] inception_4b/relu_pool_proj -> inception_4b/pool_proj (in-place)
I0713 13:26:00.958405 18931 net.cpp:141] Setting up inception_4b/relu_pool_proj
I0713 13:26:00.958425 18931 net.cpp:148] Top shape: 10 64 14 14 (125440)
I0713 13:26:00.958431 18931 net.cpp:156] Memory required for data: 403791360
I0713 13:26:00.958436 18931 layer_factory.hpp:77] Creating layer inception_4b/output
I0713 13:26:00.958454 18931 net.cpp:91] Creating Layer inception_4b/output
I0713 13:26:00.958461 18931 net.cpp:425] inception_4b/output <- inception_4b/1x1
I0713 13:26:00.958467 18931 net.cpp:425] inception_4b/output <- inception_4b/3x3
I0713 13:26:00.958472 18931 net.cpp:425] inception_4b/output <- inception_4b/5x5
I0713 13:26:00.958478 18931 net.cpp:425] inception_4b/output <- inception_4b/pool_proj
I0713 13:26:00.958484 18931 net.cpp:399] inception_4b/output -> inception_4b/output
I0713 13:26:00.958535 18931 net.cpp:141] Setting up inception_4b/output
I0713 13:26:00.958546 18931 net.cpp:148] Top shape: 10 512 14 14 (1003520)
I0713 13:26:00.958550 18931 net.cpp:156] Memory required for data: 407805440
I0713 13:26:00.958556 18931 layer_factory.hpp:77] Creating layer inception_4b/output_inception_4b/output_0_split
I0713 13:26:00.958566 18931 net.cpp:91] Creating Layer inception_4b/output_inception_4b/output_0_split
I0713 13:26:00.958575 18931 net.cpp:425] inception_4b/output_inception_4b/output_0_split <- inception_4b/output
I0713 13:26:00.958590 18931 net.cpp:399] inception_4b/output_inception_4b/output_0_split -> inception_4b/output_inception_4b/output_0_split_0
I0713 13:26:00.958600 18931 net.cpp:399] inception_4b/output_inception_4b/output_0_split -> inception_4b/output_inception_4b/output_0_split_1
I0713 13:26:00.958608 18931 net.cpp:399] inception_4b/output_inception_4b/output_0_split -> inception_4b/output_inception_4b/output_0_split_2
I0713 13:26:00.958617 18931 net.cpp:399] inception_4b/output_inception_4b/output_0_split -> inception_4b/output_inception_4b/output_0_split_3
I0713 13:26:00.958727 18931 net.cpp:141] Setting up inception_4b/output_inception_4b/output_0_split
I0713 13:26:00.958739 18931 net.cpp:148] Top shape: 10 512 14 14 (1003520)
I0713 13:26:00.958745 18931 net.cpp:148] Top shape: 10 512 14 14 (1003520)
I0713 13:26:00.958751 18931 net.cpp:148] Top shape: 10 512 14 14 (1003520)
I0713 13:26:00.958757 18931 net.cpp:148] Top shape: 10 512 14 14 (1003520)
I0713 13:26:00.958761 18931 net.cpp:156] Memory required for data: 423861760
I0713 13:26:00.958766 18931 layer_factory.hpp:77] Creating layer inception_4c/1x1
I0713 13:26:00.958784 18931 net.cpp:91] Creating Layer inception_4c/1x1
I0713 13:26:00.958791 18931 net.cpp:425] inception_4c/1x1 <- inception_4b/output_inception_4b/output_0_split_0
I0713 13:26:00.958802 18931 net.cpp:399] inception_4c/1x1 -> inception_4c/1x1
I0713 13:26:00.961694 18931 net.cpp:141] Setting up inception_4c/1x1
I0713 13:26:00.961714 18931 net.cpp:148] Top shape: 10 128 14 14 (250880)
I0713 13:26:00.961719 18931 net.cpp:156] Memory required for data: 424865280
I0713 13:26:00.961730 18931 layer_factory.hpp:77] Creating layer inception_4c/relu_1x1
I0713 13:26:00.961740 18931 net.cpp:91] Creating Layer inception_4c/relu_1x1
I0713 13:26:00.961745 18931 net.cpp:425] inception_4c/relu_1x1 <- inception_4c/1x1
I0713 13:26:00.961762 18931 net.cpp:386] inception_4c/relu_1x1 -> inception_4c/1x1 (in-place)
I0713 13:26:00.962038 18931 net.cpp:141] Setting up inception_4c/relu_1x1
I0713 13:26:00.962050 18931 net.cpp:148] Top shape: 10 128 14 14 (250880)
I0713 13:26:00.962055 18931 net.cpp:156] Memory required for data: 425868800
I0713 13:26:00.962060 18931 layer_factory.hpp:77] Creating layer inception_4c/3x3_reduce
I0713 13:26:00.962087 18931 net.cpp:91] Creating Layer inception_4c/3x3_reduce
I0713 13:26:00.962093 18931 net.cpp:425] inception_4c/3x3_reduce <- inception_4b/output_inception_4b/output_0_split_1
I0713 13:26:00.962108 18931 net.cpp:399] inception_4c/3x3_reduce -> inception_4c/3x3_reduce
I0713 13:26:00.965004 18931 net.cpp:141] Setting up inception_4c/3x3_reduce
I0713 13:26:00.965023 18931 net.cpp:148] Top shape: 10 128 14 14 (250880)
I0713 13:26:00.965029 18931 net.cpp:156] Memory required for data: 426872320
I0713 13:26:00.965039 18931 layer_factory.hpp:77] Creating layer inception_4c/relu_3x3_reduce
I0713 13:26:00.965049 18931 net.cpp:91] Creating Layer inception_4c/relu_3x3_reduce
I0713 13:26:00.965054 18931 net.cpp:425] inception_4c/relu_3x3_reduce <- inception_4c/3x3_reduce
I0713 13:26:00.965062 18931 net.cpp:386] inception_4c/relu_3x3_reduce -> inception_4c/3x3_reduce (in-place)
I0713 13:26:00.965329 18931 net.cpp:141] Setting up inception_4c/relu_3x3_reduce
I0713 13:26:00.965342 18931 net.cpp:148] Top shape: 10 128 14 14 (250880)
I0713 13:26:00.965348 18931 net.cpp:156] Memory required for data: 427875840
I0713 13:26:00.965353 18931 layer_factory.hpp:77] Creating layer inception_4c/3x3
I0713 13:26:00.965370 18931 net.cpp:91] Creating Layer inception_4c/3x3
I0713 13:26:00.965376 18931 net.cpp:425] inception_4c/3x3 <- inception_4c/3x3_reduce
I0713 13:26:00.965389 18931 net.cpp:399] inception_4c/3x3 -> inception_4c/3x3
I0713 13:26:00.971338 18931 net.cpp:141] Setting up inception_4c/3x3
I0713 13:26:00.971357 18931 net.cpp:148] Top shape: 10 256 14 14 (501760)
I0713 13:26:00.971364 18931 net.cpp:156] Memory required for data: 429882880
I0713 13:26:00.971374 18931 layer_factory.hpp:77] Creating layer inception_4c/relu_3x3
I0713 13:26:00.971386 18931 net.cpp:91] Creating Layer inception_4c/relu_3x3
I0713 13:26:00.971393 18931 net.cpp:425] inception_4c/relu_3x3 <- inception_4c/3x3
I0713 13:26:00.971401 18931 net.cpp:386] inception_4c/relu_3x3 -> inception_4c/3x3 (in-place)
I0713 13:26:00.972404 18931 net.cpp:141] Setting up inception_4c/relu_3x3
I0713 13:26:00.972422 18931 net.cpp:148] Top shape: 10 256 14 14 (501760)
I0713 13:26:00.972427 18931 net.cpp:156] Memory required for data: 431889920
I0713 13:26:00.972434 18931 layer_factory.hpp:77] Creating layer inception_4c/5x5_reduce
I0713 13:26:00.972455 18931 net.cpp:91] Creating Layer inception_4c/5x5_reduce
I0713 13:26:00.972462 18931 net.cpp:425] inception_4c/5x5_reduce <- inception_4b/output_inception_4b/output_0_split_2
I0713 13:26:00.972472 18931 net.cpp:399] inception_4c/5x5_reduce -> inception_4c/5x5_reduce
I0713 13:26:00.975057 18931 net.cpp:141] Setting up inception_4c/5x5_reduce
I0713 13:26:00.975080 18931 net.cpp:148] Top shape: 10 24 14 14 (47040)
I0713 13:26:00.975086 18931 net.cpp:156] Memory required for data: 432078080
I0713 13:26:00.975096 18931 layer_factory.hpp:77] Creating layer inception_4c/relu_5x5_reduce
I0713 13:26:00.975113 18931 net.cpp:91] Creating Layer inception_4c/relu_5x5_reduce
I0713 13:26:00.975121 18931 net.cpp:425] inception_4c/relu_5x5_reduce <- inception_4c/5x5_reduce
I0713 13:26:00.975127 18931 net.cpp:386] inception_4c/relu_5x5_reduce -> inception_4c/5x5_reduce (in-place)
I0713 13:26:00.975404 18931 net.cpp:141] Setting up inception_4c/relu_5x5_reduce
I0713 13:26:00.975416 18931 net.cpp:148] Top shape: 10 24 14 14 (47040)
I0713 13:26:00.975421 18931 net.cpp:156] Memory required for data: 432266240
I0713 13:26:00.975426 18931 layer_factory.hpp:77] Creating layer inception_4c/5x5
I0713 13:26:00.975445 18931 net.cpp:91] Creating Layer inception_4c/5x5
I0713 13:26:00.975450 18931 net.cpp:425] inception_4c/5x5 <- inception_4c/5x5_reduce
I0713 13:26:00.975464 18931 net.cpp:399] inception_4c/5x5 -> inception_4c/5x5
I0713 13:26:00.978788 18931 net.cpp:141] Setting up inception_4c/5x5
I0713 13:26:00.978808 18931 net.cpp:148] Top shape: 10 64 14 14 (125440)
I0713 13:26:00.978814 18931 net.cpp:156] Memory required for data: 432768000
I0713 13:26:00.978823 18931 layer_factory.hpp:77] Creating layer inception_4c/relu_5x5
I0713 13:26:00.978833 18931 net.cpp:91] Creating Layer inception_4c/relu_5x5
I0713 13:26:00.978839 18931 net.cpp:425] inception_4c/relu_5x5 <- inception_4c/5x5
I0713 13:26:00.978852 18931 net.cpp:386] inception_4c/relu_5x5 -> inception_4c/5x5 (in-place)
I0713 13:26:00.979120 18931 net.cpp:141] Setting up inception_4c/relu_5x5
I0713 13:26:00.979135 18931 net.cpp:148] Top shape: 10 64 14 14 (125440)
I0713 13:26:00.979140 18931 net.cpp:156] Memory required for data: 433269760
I0713 13:26:00.979146 18931 layer_factory.hpp:77] Creating layer inception_4c/pool
I0713 13:26:00.979156 18931 net.cpp:91] Creating Layer inception_4c/pool
I0713 13:26:00.979162 18931 net.cpp:425] inception_4c/pool <- inception_4b/output_inception_4b/output_0_split_3
I0713 13:26:00.979171 18931 net.cpp:399] inception_4c/pool -> inception_4c/pool
I0713 13:26:00.979248 18931 net.cpp:141] Setting up inception_4c/pool
I0713 13:26:00.979259 18931 net.cpp:148] Top shape: 10 512 14 14 (1003520)
I0713 13:26:00.979264 18931 net.cpp:156] Memory required for data: 437283840
I0713 13:26:00.979269 18931 layer_factory.hpp:77] Creating layer inception_4c/pool_proj
I0713 13:26:00.979286 18931 net.cpp:91] Creating Layer inception_4c/pool_proj
I0713 13:26:00.979295 18931 net.cpp:425] inception_4c/pool_proj <- inception_4c/pool
I0713 13:26:00.979305 18931 net.cpp:399] inception_4c/pool_proj -> inception_4c/pool_proj
I0713 13:26:00.983060 18931 net.cpp:141] Setting up inception_4c/pool_proj
I0713 13:26:00.983080 18931 net.cpp:148] Top shape: 10 64 14 14 (125440)
I0713 13:26:00.983086 18931 net.cpp:156] Memory required for data: 437785600
I0713 13:26:00.983117 18931 layer_factory.hpp:77] Creating layer inception_4c/relu_pool_proj
I0713 13:26:00.983131 18931 net.cpp:91] Creating Layer inception_4c/relu_pool_proj
I0713 13:26:00.983137 18931 net.cpp:425] inception_4c/relu_pool_proj <- inception_4c/pool_proj
I0713 13:26:00.983145 18931 net.cpp:386] inception_4c/relu_pool_proj -> inception_4c/pool_proj (in-place)
I0713 13:26:00.983964 18931 net.cpp:141] Setting up inception_4c/relu_pool_proj
I0713 13:26:00.983983 18931 net.cpp:148] Top shape: 10 64 14 14 (125440)
I0713 13:26:00.983988 18931 net.cpp:156] Memory required for data: 438287360
I0713 13:26:00.983994 18931 layer_factory.hpp:77] Creating layer inception_4c/output
I0713 13:26:00.984005 18931 net.cpp:91] Creating Layer inception_4c/output
I0713 13:26:00.984011 18931 net.cpp:425] inception_4c/output <- inception_4c/1x1
I0713 13:26:00.984019 18931 net.cpp:425] inception_4c/output <- inception_4c/3x3
I0713 13:26:00.984025 18931 net.cpp:425] inception_4c/output <- inception_4c/5x5
I0713 13:26:00.984030 18931 net.cpp:425] inception_4c/output <- inception_4c/pool_proj
I0713 13:26:00.984037 18931 net.cpp:399] inception_4c/output -> inception_4c/output
I0713 13:26:00.984086 18931 net.cpp:141] Setting up inception_4c/output
I0713 13:26:00.984097 18931 net.cpp:148] Top shape: 10 512 14 14 (1003520)
I0713 13:26:00.984102 18931 net.cpp:156] Memory required for data: 442301440
I0713 13:26:00.984107 18931 layer_factory.hpp:77] Creating layer inception_4c/output_inception_4c/output_0_split
I0713 13:26:00.984122 18931 net.cpp:91] Creating Layer inception_4c/output_inception_4c/output_0_split
I0713 13:26:00.984127 18931 net.cpp:425] inception_4c/output_inception_4c/output_0_split <- inception_4c/output
I0713 13:26:00.984136 18931 net.cpp:399] inception_4c/output_inception_4c/output_0_split -> inception_4c/output_inception_4c/output_0_split_0
I0713 13:26:00.984146 18931 net.cpp:399] inception_4c/output_inception_4c/output_0_split -> inception_4c/output_inception_4c/output_0_split_1
I0713 13:26:00.984155 18931 net.cpp:399] inception_4c/output_inception_4c/output_0_split -> inception_4c/output_inception_4c/output_0_split_2
I0713 13:26:00.984164 18931 net.cpp:399] inception_4c/output_inception_4c/output_0_split -> inception_4c/output_inception_4c/output_0_split_3
I0713 13:26:00.984266 18931 net.cpp:141] Setting up inception_4c/output_inception_4c/output_0_split
I0713 13:26:00.984277 18931 net.cpp:148] Top shape: 10 512 14 14 (1003520)
I0713 13:26:00.984285 18931 net.cpp:148] Top shape: 10 512 14 14 (1003520)
I0713 13:26:00.984292 18931 net.cpp:148] Top shape: 10 512 14 14 (1003520)
I0713 13:26:00.984297 18931 net.cpp:148] Top shape: 10 512 14 14 (1003520)
I0713 13:26:00.984302 18931 net.cpp:156] Memory required for data: 458357760
I0713 13:26:00.984308 18931 layer_factory.hpp:77] Creating layer inception_4d/1x1
I0713 13:26:00.984321 18931 net.cpp:91] Creating Layer inception_4d/1x1
I0713 13:26:00.984328 18931 net.cpp:425] inception_4d/1x1 <- inception_4c/output_inception_4c/output_0_split_0
I0713 13:26:00.984340 18931 net.cpp:399] inception_4d/1x1 -> inception_4d/1x1
I0713 13:26:00.987169 18931 net.cpp:141] Setting up inception_4d/1x1
I0713 13:26:00.987187 18931 net.cpp:148] Top shape: 10 112 14 14 (219520)
I0713 13:26:00.987193 18931 net.cpp:156] Memory required for data: 459235840
I0713 13:26:00.987202 18931 layer_factory.hpp:77] Creating layer inception_4d/relu_1x1
I0713 13:26:00.987212 18931 net.cpp:91] Creating Layer inception_4d/relu_1x1
I0713 13:26:00.987218 18931 net.cpp:425] inception_4d/relu_1x1 <- inception_4d/1x1
I0713 13:26:00.987231 18931 net.cpp:386] inception_4d/relu_1x1 -> inception_4d/1x1 (in-place)
I0713 13:26:00.987501 18931 net.cpp:141] Setting up inception_4d/relu_1x1
I0713 13:26:00.987524 18931 net.cpp:148] Top shape: 10 112 14 14 (219520)
I0713 13:26:00.987529 18931 net.cpp:156] Memory required for data: 460113920
I0713 13:26:00.987534 18931 layer_factory.hpp:77] Creating layer inception_4d/3x3_reduce
I0713 13:26:00.987552 18931 net.cpp:91] Creating Layer inception_4d/3x3_reduce
I0713 13:26:00.987560 18931 net.cpp:425] inception_4d/3x3_reduce <- inception_4c/output_inception_4c/output_0_split_1
I0713 13:26:00.987570 18931 net.cpp:399] inception_4d/3x3_reduce -> inception_4d/3x3_reduce
I0713 13:26:00.990571 18931 net.cpp:141] Setting up inception_4d/3x3_reduce
I0713 13:26:00.990589 18931 net.cpp:148] Top shape: 10 144 14 14 (282240)
I0713 13:26:00.990594 18931 net.cpp:156] Memory required for data: 461242880
I0713 13:26:00.990605 18931 layer_factory.hpp:77] Creating layer inception_4d/relu_3x3_reduce
I0713 13:26:00.990619 18931 net.cpp:91] Creating Layer inception_4d/relu_3x3_reduce
I0713 13:26:00.990627 18931 net.cpp:425] inception_4d/relu_3x3_reduce <- inception_4d/3x3_reduce
I0713 13:26:00.990633 18931 net.cpp:386] inception_4d/relu_3x3_reduce -> inception_4d/3x3_reduce (in-place)
I0713 13:26:00.990918 18931 net.cpp:141] Setting up inception_4d/relu_3x3_reduce
I0713 13:26:00.990931 18931 net.cpp:148] Top shape: 10 144 14 14 (282240)
I0713 13:26:00.990936 18931 net.cpp:156] Memory required for data: 462371840
I0713 13:26:00.990942 18931 layer_factory.hpp:77] Creating layer inception_4d/3x3
I0713 13:26:00.990960 18931 net.cpp:91] Creating Layer inception_4d/3x3
I0713 13:26:00.990967 18931 net.cpp:425] inception_4d/3x3 <- inception_4d/3x3_reduce
I0713 13:26:00.990978 18931 net.cpp:399] inception_4d/3x3 -> inception_4d/3x3
I0713 13:26:00.997869 18931 net.cpp:141] Setting up inception_4d/3x3
I0713 13:26:00.997889 18931 net.cpp:148] Top shape: 10 288 14 14 (564480)
I0713 13:26:00.997895 18931 net.cpp:156] Memory required for data: 464629760
I0713 13:26:00.997905 18931 layer_factory.hpp:77] Creating layer inception_4d/relu_3x3
I0713 13:26:00.997917 18931 net.cpp:91] Creating Layer inception_4d/relu_3x3
I0713 13:26:00.997926 18931 net.cpp:425] inception_4d/relu_3x3 <- inception_4d/3x3
I0713 13:26:00.997934 18931 net.cpp:386] inception_4d/relu_3x3 -> inception_4d/3x3 (in-place)
I0713 13:26:00.998770 18931 net.cpp:141] Setting up inception_4d/relu_3x3
I0713 13:26:00.998788 18931 net.cpp:148] Top shape: 10 288 14 14 (564480)
I0713 13:26:00.998793 18931 net.cpp:156] Memory required for data: 466887680
I0713 13:26:00.998801 18931 layer_factory.hpp:77] Creating layer inception_4d/5x5_reduce
I0713 13:26:00.998821 18931 net.cpp:91] Creating Layer inception_4d/5x5_reduce
I0713 13:26:00.998827 18931 net.cpp:425] inception_4d/5x5_reduce <- inception_4c/output_inception_4c/output_0_split_2
I0713 13:26:00.998842 18931 net.cpp:399] inception_4d/5x5_reduce -> inception_4d/5x5_reduce
I0713 13:26:01.001364 18931 net.cpp:141] Setting up inception_4d/5x5_reduce
I0713 13:26:01.001384 18931 net.cpp:148] Top shape: 10 32 14 14 (62720)
I0713 13:26:01.001389 18931 net.cpp:156] Memory required for data: 467138560
I0713 13:26:01.001399 18931 layer_factory.hpp:77] Creating layer inception_4d/relu_5x5_reduce
I0713 13:26:01.001410 18931 net.cpp:91] Creating Layer inception_4d/relu_5x5_reduce
I0713 13:26:01.001416 18931 net.cpp:425] inception_4d/relu_5x5_reduce <- inception_4d/5x5_reduce
I0713 13:26:01.001428 18931 net.cpp:386] inception_4d/relu_5x5_reduce -> inception_4d/5x5_reduce (in-place)
I0713 13:26:01.001705 18931 net.cpp:141] Setting up inception_4d/relu_5x5_reduce
I0713 13:26:01.001721 18931 net.cpp:148] Top shape: 10 32 14 14 (62720)
I0713 13:26:01.001726 18931 net.cpp:156] Memory required for data: 467389440
I0713 13:26:01.001731 18931 layer_factory.hpp:77] Creating layer inception_4d/5x5
I0713 13:26:01.001750 18931 net.cpp:91] Creating Layer inception_4d/5x5
I0713 13:26:01.001757 18931 net.cpp:425] inception_4d/5x5 <- inception_4d/5x5_reduce
I0713 13:26:01.001767 18931 net.cpp:399] inception_4d/5x5 -> inception_4d/5x5
I0713 13:26:01.004606 18931 net.cpp:141] Setting up inception_4d/5x5
I0713 13:26:01.004626 18931 net.cpp:148] Top shape: 10 64 14 14 (125440)
I0713 13:26:01.004631 18931 net.cpp:156] Memory required for data: 467891200
I0713 13:26:01.004642 18931 layer_factory.hpp:77] Creating layer inception_4d/relu_5x5
I0713 13:26:01.004652 18931 net.cpp:91] Creating Layer inception_4d/relu_5x5
I0713 13:26:01.004658 18931 net.cpp:425] inception_4d/relu_5x5 <- inception_4d/5x5
I0713 13:26:01.004670 18931 net.cpp:386] inception_4d/relu_5x5 -> inception_4d/5x5 (in-place)
I0713 13:26:01.004943 18931 net.cpp:141] Setting up inception_4d/relu_5x5
I0713 13:26:01.004956 18931 net.cpp:148] Top shape: 10 64 14 14 (125440)
I0713 13:26:01.004961 18931 net.cpp:156] Memory required for data: 468392960
I0713 13:26:01.004966 18931 layer_factory.hpp:77] Creating layer inception_4d/pool
I0713 13:26:01.004979 18931 net.cpp:91] Creating Layer inception_4d/pool
I0713 13:26:01.004986 18931 net.cpp:425] inception_4d/pool <- inception_4c/output_inception_4c/output_0_split_3
I0713 13:26:01.004993 18931 net.cpp:399] inception_4d/pool -> inception_4d/pool
I0713 13:26:01.005071 18931 net.cpp:141] Setting up inception_4d/pool
I0713 13:26:01.005082 18931 net.cpp:148] Top shape: 10 512 14 14 (1003520)
I0713 13:26:01.005087 18931 net.cpp:156] Memory required for data: 472407040
I0713 13:26:01.005092 18931 layer_factory.hpp:77] Creating layer inception_4d/pool_proj
I0713 13:26:01.005111 18931 net.cpp:91] Creating Layer inception_4d/pool_proj
I0713 13:26:01.005117 18931 net.cpp:425] inception_4d/pool_proj <- inception_4d/pool
I0713 13:26:01.005130 18931 net.cpp:399] inception_4d/pool_proj -> inception_4d/pool_proj
I0713 13:26:01.008055 18931 net.cpp:141] Setting up inception_4d/pool_proj
I0713 13:26:01.008079 18931 net.cpp:148] Top shape: 10 64 14 14 (125440)
I0713 13:26:01.008085 18931 net.cpp:156] Memory required for data: 472908800
I0713 13:26:01.008095 18931 layer_factory.hpp:77] Creating layer inception_4d/relu_pool_proj
I0713 13:26:01.008111 18931 net.cpp:91] Creating Layer inception_4d/relu_pool_proj
I0713 13:26:01.008117 18931 net.cpp:425] inception_4d/relu_pool_proj <- inception_4d/pool_proj
I0713 13:26:01.008126 18931 net.cpp:386] inception_4d/relu_pool_proj -> inception_4d/pool_proj (in-place)
I0713 13:26:01.009133 18931 net.cpp:141] Setting up inception_4d/relu_pool_proj
I0713 13:26:01.009150 18931 net.cpp:148] Top shape: 10 64 14 14 (125440)
I0713 13:26:01.009155 18931 net.cpp:156] Memory required for data: 473410560
I0713 13:26:01.009160 18931 layer_factory.hpp:77] Creating layer inception_4d/output
I0713 13:26:01.009176 18931 net.cpp:91] Creating Layer inception_4d/output
I0713 13:26:01.009182 18931 net.cpp:425] inception_4d/output <- inception_4d/1x1
I0713 13:26:01.009191 18931 net.cpp:425] inception_4d/output <- inception_4d/3x3
I0713 13:26:01.009196 18931 net.cpp:425] inception_4d/output <- inception_4d/5x5
I0713 13:26:01.009202 18931 net.cpp:425] inception_4d/output <- inception_4d/pool_proj
I0713 13:26:01.009208 18931 net.cpp:399] inception_4d/output -> inception_4d/output
I0713 13:26:01.009268 18931 net.cpp:141] Setting up inception_4d/output
I0713 13:26:01.009279 18931 net.cpp:148] Top shape: 10 528 14 14 (1034880)
I0713 13:26:01.009284 18931 net.cpp:156] Memory required for data: 477550080
I0713 13:26:01.009289 18931 layer_factory.hpp:77] Creating layer inception_4d/output_inception_4d/output_0_split
I0713 13:26:01.009299 18931 net.cpp:91] Creating Layer inception_4d/output_inception_4d/output_0_split
I0713 13:26:01.009304 18931 net.cpp:425] inception_4d/output_inception_4d/output_0_split <- inception_4d/output
I0713 13:26:01.009316 18931 net.cpp:399] inception_4d/output_inception_4d/output_0_split -> inception_4d/output_inception_4d/output_0_split_0
I0713 13:26:01.009327 18931 net.cpp:399] inception_4d/output_inception_4d/output_0_split -> inception_4d/output_inception_4d/output_0_split_1
I0713 13:26:01.009337 18931 net.cpp:399] inception_4d/output_inception_4d/output_0_split -> inception_4d/output_inception_4d/output_0_split_2
I0713 13:26:01.009346 18931 net.cpp:399] inception_4d/output_inception_4d/output_0_split -> inception_4d/output_inception_4d/output_0_split_3
I0713 13:26:01.009456 18931 net.cpp:141] Setting up inception_4d/output_inception_4d/output_0_split
I0713 13:26:01.009467 18931 net.cpp:148] Top shape: 10 528 14 14 (1034880)
I0713 13:26:01.009474 18931 net.cpp:148] Top shape: 10 528 14 14 (1034880)
I0713 13:26:01.009479 18931 net.cpp:148] Top shape: 10 528 14 14 (1034880)
I0713 13:26:01.009485 18931 net.cpp:148] Top shape: 10 528 14 14 (1034880)
I0713 13:26:01.009490 18931 net.cpp:156] Memory required for data: 494108160
I0713 13:26:01.009495 18931 layer_factory.hpp:77] Creating layer inception_4e/1x1
I0713 13:26:01.009518 18931 net.cpp:91] Creating Layer inception_4e/1x1
I0713 13:26:01.009524 18931 net.cpp:425] inception_4e/1x1 <- inception_4d/output_inception_4d/output_0_split_0
I0713 13:26:01.009533 18931 net.cpp:399] inception_4e/1x1 -> inception_4e/1x1
I0713 13:26:01.015781 18931 net.cpp:141] Setting up inception_4e/1x1
I0713 13:26:01.015811 18931 net.cpp:148] Top shape: 10 256 14 14 (501760)
I0713 13:26:01.015817 18931 net.cpp:156] Memory required for data: 496115200
I0713 13:26:01.015830 18931 layer_factory.hpp:77] Creating layer inception_4e/relu_1x1
I0713 13:26:01.015846 18931 net.cpp:91] Creating Layer inception_4e/relu_1x1
I0713 13:26:01.015853 18931 net.cpp:425] inception_4e/relu_1x1 <- inception_4e/1x1
I0713 13:26:01.015863 18931 net.cpp:386] inception_4e/relu_1x1 -> inception_4e/1x1 (in-place)
I0713 13:26:01.016149 18931 net.cpp:141] Setting up inception_4e/relu_1x1
I0713 13:26:01.016162 18931 net.cpp:148] Top shape: 10 256 14 14 (501760)
I0713 13:26:01.016167 18931 net.cpp:156] Memory required for data: 498122240
I0713 13:26:01.016173 18931 layer_factory.hpp:77] Creating layer inception_4e/3x3_reduce
I0713 13:26:01.016202 18931 net.cpp:91] Creating Layer inception_4e/3x3_reduce
I0713 13:26:01.016209 18931 net.cpp:425] inception_4e/3x3_reduce <- inception_4d/output_inception_4d/output_0_split_1
I0713 13:26:01.016222 18931 net.cpp:399] inception_4e/3x3_reduce -> inception_4e/3x3_reduce
I0713 13:26:01.019440 18931 net.cpp:141] Setting up inception_4e/3x3_reduce
I0713 13:26:01.019462 18931 net.cpp:148] Top shape: 10 160 14 14 (313600)
I0713 13:26:01.019469 18931 net.cpp:156] Memory required for data: 499376640
I0713 13:26:01.019479 18931 layer_factory.hpp:77] Creating layer inception_4e/relu_3x3_reduce
I0713 13:26:01.019495 18931 net.cpp:91] Creating Layer inception_4e/relu_3x3_reduce
I0713 13:26:01.019502 18931 net.cpp:425] inception_4e/relu_3x3_reduce <- inception_4e/3x3_reduce
I0713 13:26:01.019511 18931 net.cpp:386] inception_4e/relu_3x3_reduce -> inception_4e/3x3_reduce (in-place)
I0713 13:26:01.019793 18931 net.cpp:141] Setting up inception_4e/relu_3x3_reduce
I0713 13:26:01.019805 18931 net.cpp:148] Top shape: 10 160 14 14 (313600)
I0713 13:26:01.019810 18931 net.cpp:156] Memory required for data: 500631040
I0713 13:26:01.019817 18931 layer_factory.hpp:77] Creating layer inception_4e/3x3
I0713 13:26:01.019837 18931 net.cpp:91] Creating Layer inception_4e/3x3
I0713 13:26:01.019843 18931 net.cpp:425] inception_4e/3x3 <- inception_4e/3x3_reduce
I0713 13:26:01.019855 18931 net.cpp:399] inception_4e/3x3 -> inception_4e/3x3
I0713 13:26:01.028028 18931 net.cpp:141] Setting up inception_4e/3x3
I0713 13:26:01.028054 18931 net.cpp:148] Top shape: 10 320 14 14 (627200)
I0713 13:26:01.028060 18931 net.cpp:156] Memory required for data: 503139840
I0713 13:26:01.028070 18931 layer_factory.hpp:77] Creating layer inception_4e/relu_3x3
I0713 13:26:01.028082 18931 net.cpp:91] Creating Layer inception_4e/relu_3x3
I0713 13:26:01.028090 18931 net.cpp:425] inception_4e/relu_3x3 <- inception_4e/3x3
I0713 13:26:01.028097 18931 net.cpp:386] inception_4e/relu_3x3 -> inception_4e/3x3 (in-place)
I0713 13:26:01.028945 18931 net.cpp:141] Setting up inception_4e/relu_3x3
I0713 13:26:01.028964 18931 net.cpp:148] Top shape: 10 320 14 14 (627200)
I0713 13:26:01.028969 18931 net.cpp:156] Memory required for data: 505648640
I0713 13:26:01.028975 18931 layer_factory.hpp:77] Creating layer inception_4e/5x5_reduce
I0713 13:26:01.028995 18931 net.cpp:91] Creating Layer inception_4e/5x5_reduce
I0713 13:26:01.029003 18931 net.cpp:425] inception_4e/5x5_reduce <- inception_4d/output_inception_4d/output_0_split_2
I0713 13:26:01.029016 18931 net.cpp:399] inception_4e/5x5_reduce -> inception_4e/5x5_reduce
I0713 13:26:01.031604 18931 net.cpp:141] Setting up inception_4e/5x5_reduce
I0713 13:26:01.031623 18931 net.cpp:148] Top shape: 10 32 14 14 (62720)
I0713 13:26:01.031630 18931 net.cpp:156] Memory required for data: 505899520
I0713 13:26:01.031639 18931 layer_factory.hpp:77] Creating layer inception_4e/relu_5x5_reduce
I0713 13:26:01.031649 18931 net.cpp:91] Creating Layer inception_4e/relu_5x5_reduce
I0713 13:26:01.031656 18931 net.cpp:425] inception_4e/relu_5x5_reduce <- inception_4e/5x5_reduce
I0713 13:26:01.031666 18931 net.cpp:386] inception_4e/relu_5x5_reduce -> inception_4e/5x5_reduce (in-place)
I0713 13:26:01.031945 18931 net.cpp:141] Setting up inception_4e/relu_5x5_reduce
I0713 13:26:01.031958 18931 net.cpp:148] Top shape: 10 32 14 14 (62720)
I0713 13:26:01.031963 18931 net.cpp:156] Memory required for data: 506150400
I0713 13:26:01.031970 18931 layer_factory.hpp:77] Creating layer inception_4e/5x5
I0713 13:26:01.031993 18931 net.cpp:91] Creating Layer inception_4e/5x5
I0713 13:26:01.032001 18931 net.cpp:425] inception_4e/5x5 <- inception_4e/5x5_reduce
I0713 13:26:01.032009 18931 net.cpp:399] inception_4e/5x5 -> inception_4e/5x5
I0713 13:26:01.036448 18931 net.cpp:141] Setting up inception_4e/5x5
I0713 13:26:01.036469 18931 net.cpp:148] Top shape: 10 128 14 14 (250880)
I0713 13:26:01.036474 18931 net.cpp:156] Memory required for data: 507153920
I0713 13:26:01.036484 18931 layer_factory.hpp:77] Creating layer inception_4e/relu_5x5
I0713 13:26:01.036495 18931 net.cpp:91] Creating Layer inception_4e/relu_5x5
I0713 13:26:01.036501 18931 net.cpp:425] inception_4e/relu_5x5 <- inception_4e/5x5
I0713 13:26:01.036512 18931 net.cpp:386] inception_4e/relu_5x5 -> inception_4e/5x5 (in-place)
I0713 13:26:01.036789 18931 net.cpp:141] Setting up inception_4e/relu_5x5
I0713 13:26:01.036803 18931 net.cpp:148] Top shape: 10 128 14 14 (250880)
I0713 13:26:01.036808 18931 net.cpp:156] Memory required for data: 508157440
I0713 13:26:01.036813 18931 layer_factory.hpp:77] Creating layer inception_4e/pool
I0713 13:26:01.036828 18931 net.cpp:91] Creating Layer inception_4e/pool
I0713 13:26:01.036835 18931 net.cpp:425] inception_4e/pool <- inception_4d/output_inception_4d/output_0_split_3
I0713 13:26:01.036844 18931 net.cpp:399] inception_4e/pool -> inception_4e/pool
I0713 13:26:01.036928 18931 net.cpp:141] Setting up inception_4e/pool
I0713 13:26:01.036939 18931 net.cpp:148] Top shape: 10 528 14 14 (1034880)
I0713 13:26:01.036944 18931 net.cpp:156] Memory required for data: 512296960
I0713 13:26:01.036949 18931 layer_factory.hpp:77] Creating layer inception_4e/pool_proj
I0713 13:26:01.036965 18931 net.cpp:91] Creating Layer inception_4e/pool_proj
I0713 13:26:01.036972 18931 net.cpp:425] inception_4e/pool_proj <- inception_4e/pool
I0713 13:26:01.036985 18931 net.cpp:399] inception_4e/pool_proj -> inception_4e/pool_proj
I0713 13:26:01.039957 18931 net.cpp:141] Setting up inception_4e/pool_proj
I0713 13:26:01.039976 18931 net.cpp:148] Top shape: 10 128 14 14 (250880)
I0713 13:26:01.039981 18931 net.cpp:156] Memory required for data: 513300480
I0713 13:26:01.039993 18931 layer_factory.hpp:77] Creating layer inception_4e/relu_pool_proj
I0713 13:26:01.040001 18931 net.cpp:91] Creating Layer inception_4e/relu_pool_proj
I0713 13:26:01.040007 18931 net.cpp:425] inception_4e/relu_pool_proj <- inception_4e/pool_proj
I0713 13:26:01.040015 18931 net.cpp:386] inception_4e/relu_pool_proj -> inception_4e/pool_proj (in-place)
I0713 13:26:01.040845 18931 net.cpp:141] Setting up inception_4e/relu_pool_proj
I0713 13:26:01.040863 18931 net.cpp:148] Top shape: 10 128 14 14 (250880)
I0713 13:26:01.040868 18931 net.cpp:156] Memory required for data: 514304000
I0713 13:26:01.040874 18931 layer_factory.hpp:77] Creating layer inception_4e/output
I0713 13:26:01.040887 18931 net.cpp:91] Creating Layer inception_4e/output
I0713 13:26:01.040892 18931 net.cpp:425] inception_4e/output <- inception_4e/1x1
I0713 13:26:01.040900 18931 net.cpp:425] inception_4e/output <- inception_4e/3x3
I0713 13:26:01.040905 18931 net.cpp:425] inception_4e/output <- inception_4e/5x5
I0713 13:26:01.040911 18931 net.cpp:425] inception_4e/output <- inception_4e/pool_proj
I0713 13:26:01.040923 18931 net.cpp:399] inception_4e/output -> inception_4e/output
I0713 13:26:01.040977 18931 net.cpp:141] Setting up inception_4e/output
I0713 13:26:01.040992 18931 net.cpp:148] Top shape: 10 832 14 14 (1630720)
I0713 13:26:01.040997 18931 net.cpp:156] Memory required for data: 520826880
I0713 13:26:01.041002 18931 layer_factory.hpp:77] Creating layer pool4/3x3_s2
I0713 13:26:01.041012 18931 net.cpp:91] Creating Layer pool4/3x3_s2
I0713 13:26:01.041016 18931 net.cpp:425] pool4/3x3_s2 <- inception_4e/output
I0713 13:26:01.041028 18931 net.cpp:399] pool4/3x3_s2 -> pool4/3x3_s2
I0713 13:26:01.041100 18931 net.cpp:141] Setting up pool4/3x3_s2
I0713 13:26:01.041111 18931 net.cpp:148] Top shape: 10 832 7 7 (407680)
I0713 13:26:01.041116 18931 net.cpp:156] Memory required for data: 522457600
I0713 13:26:01.041121 18931 layer_factory.hpp:77] Creating layer pool4/3x3_s2_pool4/3x3_s2_0_split
I0713 13:26:01.041131 18931 net.cpp:91] Creating Layer pool4/3x3_s2_pool4/3x3_s2_0_split
I0713 13:26:01.041136 18931 net.cpp:425] pool4/3x3_s2_pool4/3x3_s2_0_split <- pool4/3x3_s2
I0713 13:26:01.041147 18931 net.cpp:399] pool4/3x3_s2_pool4/3x3_s2_0_split -> pool4/3x3_s2_pool4/3x3_s2_0_split_0
I0713 13:26:01.041162 18931 net.cpp:399] pool4/3x3_s2_pool4/3x3_s2_0_split -> pool4/3x3_s2_pool4/3x3_s2_0_split_1
I0713 13:26:01.041172 18931 net.cpp:399] pool4/3x3_s2_pool4/3x3_s2_0_split -> pool4/3x3_s2_pool4/3x3_s2_0_split_2
I0713 13:26:01.041182 18931 net.cpp:399] pool4/3x3_s2_pool4/3x3_s2_0_split -> pool4/3x3_s2_pool4/3x3_s2_0_split_3
I0713 13:26:01.041295 18931 net.cpp:141] Setting up pool4/3x3_s2_pool4/3x3_s2_0_split
I0713 13:26:01.041306 18931 net.cpp:148] Top shape: 10 832 7 7 (407680)
I0713 13:26:01.041312 18931 net.cpp:148] Top shape: 10 832 7 7 (407680)
I0713 13:26:01.041318 18931 net.cpp:148] Top shape: 10 832 7 7 (407680)
I0713 13:26:01.041323 18931 net.cpp:148] Top shape: 10 832 7 7 (407680)
I0713 13:26:01.041327 18931 net.cpp:156] Memory required for data: 528980480
I0713 13:26:01.041332 18931 layer_factory.hpp:77] Creating layer inception_5a/1x1
I0713 13:26:01.041349 18931 net.cpp:91] Creating Layer inception_5a/1x1
I0713 13:26:01.041355 18931 net.cpp:425] inception_5a/1x1 <- pool4/3x3_s2_pool4/3x3_s2_0_split_0
I0713 13:26:01.041364 18931 net.cpp:399] inception_5a/1x1 -> inception_5a/1x1
I0713 13:26:01.046753 18931 net.cpp:141] Setting up inception_5a/1x1
I0713 13:26:01.046782 18931 net.cpp:148] Top shape: 10 256 7 7 (125440)
I0713 13:26:01.046787 18931 net.cpp:156] Memory required for data: 529482240
I0713 13:26:01.046797 18931 layer_factory.hpp:77] Creating layer inception_5a/relu_1x1
I0713 13:26:01.046813 18931 net.cpp:91] Creating Layer inception_5a/relu_1x1
I0713 13:26:01.046819 18931 net.cpp:425] inception_5a/relu_1x1 <- inception_5a/1x1
I0713 13:26:01.046834 18931 net.cpp:386] inception_5a/relu_1x1 -> inception_5a/1x1 (in-place)
I0713 13:26:01.047119 18931 net.cpp:141] Setting up inception_5a/relu_1x1
I0713 13:26:01.047132 18931 net.cpp:148] Top shape: 10 256 7 7 (125440)
I0713 13:26:01.047137 18931 net.cpp:156] Memory required for data: 529984000
I0713 13:26:01.047142 18931 layer_factory.hpp:77] Creating layer inception_5a/3x3_reduce
I0713 13:26:01.047170 18931 net.cpp:91] Creating Layer inception_5a/3x3_reduce
I0713 13:26:01.047178 18931 net.cpp:425] inception_5a/3x3_reduce <- pool4/3x3_s2_pool4/3x3_s2_0_split_1
I0713 13:26:01.047190 18931 net.cpp:399] inception_5a/3x3_reduce -> inception_5a/3x3_reduce
I0713 13:26:01.051955 18931 net.cpp:141] Setting up inception_5a/3x3_reduce
I0713 13:26:01.051975 18931 net.cpp:148] Top shape: 10 160 7 7 (78400)
I0713 13:26:01.051981 18931 net.cpp:156] Memory required for data: 530297600
I0713 13:26:01.051991 18931 layer_factory.hpp:77] Creating layer inception_5a/relu_3x3_reduce
I0713 13:26:01.052003 18931 net.cpp:91] Creating Layer inception_5a/relu_3x3_reduce
I0713 13:26:01.052011 18931 net.cpp:425] inception_5a/relu_3x3_reduce <- inception_5a/3x3_reduce
I0713 13:26:01.052018 18931 net.cpp:386] inception_5a/relu_3x3_reduce -> inception_5a/3x3_reduce (in-place)
I0713 13:26:01.052306 18931 net.cpp:141] Setting up inception_5a/relu_3x3_reduce
I0713 13:26:01.052322 18931 net.cpp:148] Top shape: 10 160 7 7 (78400)
I0713 13:26:01.052327 18931 net.cpp:156] Memory required for data: 530611200
I0713 13:26:01.052333 18931 layer_factory.hpp:77] Creating layer inception_5a/3x3
I0713 13:26:01.052351 18931 net.cpp:91] Creating Layer inception_5a/3x3
I0713 13:26:01.052358 18931 net.cpp:425] inception_5a/3x3 <- inception_5a/3x3_reduce
I0713 13:26:01.052367 18931 net.cpp:399] inception_5a/3x3 -> inception_5a/3x3
I0713 13:26:01.061502 18931 net.cpp:141] Setting up inception_5a/3x3
I0713 13:26:01.061523 18931 net.cpp:148] Top shape: 10 320 7 7 (156800)
I0713 13:26:01.061528 18931 net.cpp:156] Memory required for data: 531238400
I0713 13:26:01.061539 18931 layer_factory.hpp:77] Creating layer inception_5a/relu_3x3
I0713 13:26:01.061550 18931 net.cpp:91] Creating Layer inception_5a/relu_3x3
I0713 13:26:01.061556 18931 net.cpp:425] inception_5a/relu_3x3 <- inception_5a/3x3
I0713 13:26:01.061569 18931 net.cpp:386] inception_5a/relu_3x3 -> inception_5a/3x3 (in-place)
I0713 13:26:01.062417 18931 net.cpp:141] Setting up inception_5a/relu_3x3
I0713 13:26:01.062433 18931 net.cpp:148] Top shape: 10 320 7 7 (156800)
I0713 13:26:01.062439 18931 net.cpp:156] Memory required for data: 531865600
I0713 13:26:01.062445 18931 layer_factory.hpp:77] Creating layer inception_5a/5x5_reduce
I0713 13:26:01.062464 18931 net.cpp:91] Creating Layer inception_5a/5x5_reduce
I0713 13:26:01.062471 18931 net.cpp:425] inception_5a/5x5_reduce <- pool4/3x3_s2_pool4/3x3_s2_0_split_2
I0713 13:26:01.062484 18931 net.cpp:399] inception_5a/5x5_reduce -> inception_5a/5x5_reduce
I0713 13:26:01.065208 18931 net.cpp:141] Setting up inception_5a/5x5_reduce
I0713 13:26:01.065228 18931 net.cpp:148] Top shape: 10 32 7 7 (15680)
I0713 13:26:01.065234 18931 net.cpp:156] Memory required for data: 531928320
I0713 13:26:01.065243 18931 layer_factory.hpp:77] Creating layer inception_5a/relu_5x5_reduce
I0713 13:26:01.065258 18931 net.cpp:91] Creating Layer inception_5a/relu_5x5_reduce
I0713 13:26:01.065264 18931 net.cpp:425] inception_5a/relu_5x5_reduce <- inception_5a/5x5_reduce
I0713 13:26:01.065275 18931 net.cpp:386] inception_5a/relu_5x5_reduce -> inception_5a/5x5_reduce (in-place)
I0713 13:26:01.065558 18931 net.cpp:141] Setting up inception_5a/relu_5x5_reduce
I0713 13:26:01.065572 18931 net.cpp:148] Top shape: 10 32 7 7 (15680)
I0713 13:26:01.065577 18931 net.cpp:156] Memory required for data: 531991040
I0713 13:26:01.065582 18931 layer_factory.hpp:77] Creating layer inception_5a/5x5
I0713 13:26:01.065601 18931 net.cpp:91] Creating Layer inception_5a/5x5
I0713 13:26:01.065608 18931 net.cpp:425] inception_5a/5x5 <- inception_5a/5x5_reduce
I0713 13:26:01.065620 18931 net.cpp:399] inception_5a/5x5 -> inception_5a/5x5
I0713 13:26:01.068965 18931 net.cpp:141] Setting up inception_5a/5x5
I0713 13:26:01.068984 18931 net.cpp:148] Top shape: 10 128 7 7 (62720)
I0713 13:26:01.068990 18931 net.cpp:156] Memory required for data: 532241920
I0713 13:26:01.069000 18931 layer_factory.hpp:77] Creating layer inception_5a/relu_5x5
I0713 13:26:01.069037 18931 net.cpp:91] Creating Layer inception_5a/relu_5x5
I0713 13:26:01.069044 18931 net.cpp:425] inception_5a/relu_5x5 <- inception_5a/5x5
I0713 13:26:01.069052 18931 net.cpp:386] inception_5a/relu_5x5 -> inception_5a/5x5 (in-place)
I0713 13:26:01.069332 18931 net.cpp:141] Setting up inception_5a/relu_5x5
I0713 13:26:01.069345 18931 net.cpp:148] Top shape: 10 128 7 7 (62720)
I0713 13:26:01.069350 18931 net.cpp:156] Memory required for data: 532492800
I0713 13:26:01.069356 18931 layer_factory.hpp:77] Creating layer inception_5a/pool
I0713 13:26:01.069368 18931 net.cpp:91] Creating Layer inception_5a/pool
I0713 13:26:01.069375 18931 net.cpp:425] inception_5a/pool <- pool4/3x3_s2_pool4/3x3_s2_0_split_3
I0713 13:26:01.069382 18931 net.cpp:399] inception_5a/pool -> inception_5a/pool
I0713 13:26:01.069468 18931 net.cpp:141] Setting up inception_5a/pool
I0713 13:26:01.069478 18931 net.cpp:148] Top shape: 10 832 7 7 (407680)
I0713 13:26:01.069483 18931 net.cpp:156] Memory required for data: 534123520
I0713 13:26:01.069488 18931 layer_factory.hpp:77] Creating layer inception_5a/pool_proj
I0713 13:26:01.069505 18931 net.cpp:91] Creating Layer inception_5a/pool_proj
I0713 13:26:01.069512 18931 net.cpp:425] inception_5a/pool_proj <- inception_5a/pool
I0713 13:26:01.069524 18931 net.cpp:399] inception_5a/pool_proj -> inception_5a/pool_proj
I0713 13:26:01.074045 18931 net.cpp:141] Setting up inception_5a/pool_proj
I0713 13:26:01.074067 18931 net.cpp:148] Top shape: 10 128 7 7 (62720)
I0713 13:26:01.074074 18931 net.cpp:156] Memory required for data: 534374400
I0713 13:26:01.074084 18931 layer_factory.hpp:77] Creating layer inception_5a/relu_pool_proj
I0713 13:26:01.074095 18931 net.cpp:91] Creating Layer inception_5a/relu_pool_proj
I0713 13:26:01.074102 18931 net.cpp:425] inception_5a/relu_pool_proj <- inception_5a/pool_proj
I0713 13:26:01.074110 18931 net.cpp:386] inception_5a/relu_pool_proj -> inception_5a/pool_proj (in-place)
I0713 13:26:01.074954 18931 net.cpp:141] Setting up inception_5a/relu_pool_proj
I0713 13:26:01.074975 18931 net.cpp:148] Top shape: 10 128 7 7 (62720)
I0713 13:26:01.074980 18931 net.cpp:156] Memory required for data: 534625280
I0713 13:26:01.074986 18931 layer_factory.hpp:77] Creating layer inception_5a/output
I0713 13:26:01.074996 18931 net.cpp:91] Creating Layer inception_5a/output
I0713 13:26:01.075002 18931 net.cpp:425] inception_5a/output <- inception_5a/1x1
I0713 13:26:01.075011 18931 net.cpp:425] inception_5a/output <- inception_5a/3x3
I0713 13:26:01.075016 18931 net.cpp:425] inception_5a/output <- inception_5a/5x5
I0713 13:26:01.075021 18931 net.cpp:425] inception_5a/output <- inception_5a/pool_proj
I0713 13:26:01.075028 18931 net.cpp:399] inception_5a/output -> inception_5a/output
I0713 13:26:01.075088 18931 net.cpp:141] Setting up inception_5a/output
I0713 13:26:01.075099 18931 net.cpp:148] Top shape: 10 832 7 7 (407680)
I0713 13:26:01.075104 18931 net.cpp:156] Memory required for data: 536256000
I0713 13:26:01.075109 18931 layer_factory.hpp:77] Creating layer inception_5a/output_inception_5a/output_0_split
I0713 13:26:01.075121 18931 net.cpp:91] Creating Layer inception_5a/output_inception_5a/output_0_split
I0713 13:26:01.075126 18931 net.cpp:425] inception_5a/output_inception_5a/output_0_split <- inception_5a/output
I0713 13:26:01.075134 18931 net.cpp:399] inception_5a/output_inception_5a/output_0_split -> inception_5a/output_inception_5a/output_0_split_0
I0713 13:26:01.075144 18931 net.cpp:399] inception_5a/output_inception_5a/output_0_split -> inception_5a/output_inception_5a/output_0_split_1
I0713 13:26:01.075153 18931 net.cpp:399] inception_5a/output_inception_5a/output_0_split -> inception_5a/output_inception_5a/output_0_split_2
I0713 13:26:01.075162 18931 net.cpp:399] inception_5a/output_inception_5a/output_0_split -> inception_5a/output_inception_5a/output_0_split_3
I0713 13:26:01.075281 18931 net.cpp:141] Setting up inception_5a/output_inception_5a/output_0_split
I0713 13:26:01.075292 18931 net.cpp:148] Top shape: 10 832 7 7 (407680)
I0713 13:26:01.075299 18931 net.cpp:148] Top shape: 10 832 7 7 (407680)
I0713 13:26:01.075305 18931 net.cpp:148] Top shape: 10 832 7 7 (407680)
I0713 13:26:01.075311 18931 net.cpp:148] Top shape: 10 832 7 7 (407680)
I0713 13:26:01.075315 18931 net.cpp:156] Memory required for data: 542778880
I0713 13:26:01.075320 18931 layer_factory.hpp:77] Creating layer inception_5b/1x1
I0713 13:26:01.075338 18931 net.cpp:91] Creating Layer inception_5b/1x1
I0713 13:26:01.075345 18931 net.cpp:425] inception_5b/1x1 <- inception_5a/output_inception_5a/output_0_split_0
I0713 13:26:01.075356 18931 net.cpp:399] inception_5b/1x1 -> inception_5b/1x1
I0713 13:26:01.081787 18931 net.cpp:141] Setting up inception_5b/1x1
I0713 13:26:01.081807 18931 net.cpp:148] Top shape: 10 384 7 7 (188160)
I0713 13:26:01.081814 18931 net.cpp:156] Memory required for data: 543531520
I0713 13:26:01.081823 18931 layer_factory.hpp:77] Creating layer inception_5b/relu_1x1
I0713 13:26:01.081836 18931 net.cpp:91] Creating Layer inception_5b/relu_1x1
I0713 13:26:01.081842 18931 net.cpp:425] inception_5b/relu_1x1 <- inception_5b/1x1
I0713 13:26:01.081851 18931 net.cpp:386] inception_5b/relu_1x1 -> inception_5b/1x1 (in-place)
I0713 13:26:01.082140 18931 net.cpp:141] Setting up inception_5b/relu_1x1
I0713 13:26:01.082154 18931 net.cpp:148] Top shape: 10 384 7 7 (188160)
I0713 13:26:01.082159 18931 net.cpp:156] Memory required for data: 544284160
I0713 13:26:01.082164 18931 layer_factory.hpp:77] Creating layer inception_5b/3x3_reduce
I0713 13:26:01.082185 18931 net.cpp:91] Creating Layer inception_5b/3x3_reduce
I0713 13:26:01.082192 18931 net.cpp:425] inception_5b/3x3_reduce <- inception_5a/output_inception_5a/output_0_split_1
I0713 13:26:01.082202 18931 net.cpp:399] inception_5b/3x3_reduce -> inception_5b/3x3_reduce
I0713 13:26:01.087149 18931 net.cpp:141] Setting up inception_5b/3x3_reduce
I0713 13:26:01.087169 18931 net.cpp:148] Top shape: 10 192 7 7 (94080)
I0713 13:26:01.087175 18931 net.cpp:156] Memory required for data: 544660480
I0713 13:26:01.087185 18931 layer_factory.hpp:77] Creating layer inception_5b/relu_3x3_reduce
I0713 13:26:01.087199 18931 net.cpp:91] Creating Layer inception_5b/relu_3x3_reduce
I0713 13:26:01.087206 18931 net.cpp:425] inception_5b/relu_3x3_reduce <- inception_5b/3x3_reduce
I0713 13:26:01.087214 18931 net.cpp:386] inception_5b/relu_3x3_reduce -> inception_5b/3x3_reduce (in-place)
I0713 13:26:01.087499 18931 net.cpp:141] Setting up inception_5b/relu_3x3_reduce
I0713 13:26:01.087512 18931 net.cpp:148] Top shape: 10 192 7 7 (94080)
I0713 13:26:01.087517 18931 net.cpp:156] Memory required for data: 545036800
I0713 13:26:01.087523 18931 layer_factory.hpp:77] Creating layer inception_5b/3x3
I0713 13:26:01.087545 18931 net.cpp:91] Creating Layer inception_5b/3x3
I0713 13:26:01.087553 18931 net.cpp:425] inception_5b/3x3 <- inception_5b/3x3_reduce
I0713 13:26:01.087565 18931 net.cpp:399] inception_5b/3x3 -> inception_5b/3x3
I0713 13:26:01.097470 18931 net.cpp:141] Setting up inception_5b/3x3
I0713 13:26:01.097494 18931 net.cpp:148] Top shape: 10 384 7 7 (188160)
I0713 13:26:01.097501 18931 net.cpp:156] Memory required for data: 545789440
I0713 13:26:01.097512 18931 layer_factory.hpp:77] Creating layer inception_5b/relu_3x3
I0713 13:26:01.097522 18931 net.cpp:91] Creating Layer inception_5b/relu_3x3
I0713 13:26:01.097527 18931 net.cpp:425] inception_5b/relu_3x3 <- inception_5b/3x3
I0713 13:26:01.097535 18931 net.cpp:386] inception_5b/relu_3x3 -> inception_5b/3x3 (in-place)
I0713 13:26:01.098381 18931 net.cpp:141] Setting up inception_5b/relu_3x3
I0713 13:26:01.098398 18931 net.cpp:148] Top shape: 10 384 7 7 (188160)
I0713 13:26:01.098403 18931 net.cpp:156] Memory required for data: 546542080
I0713 13:26:01.098409 18931 layer_factory.hpp:77] Creating layer inception_5b/5x5_reduce
I0713 13:26:01.098428 18931 net.cpp:91] Creating Layer inception_5b/5x5_reduce
I0713 13:26:01.098435 18931 net.cpp:425] inception_5b/5x5_reduce <- inception_5a/output_inception_5a/output_0_split_2
I0713 13:26:01.098445 18931 net.cpp:399] inception_5b/5x5_reduce -> inception_5b/5x5_reduce
I0713 13:26:01.101313 18931 net.cpp:141] Setting up inception_5b/5x5_reduce
I0713 13:26:01.101332 18931 net.cpp:148] Top shape: 10 48 7 7 (23520)
I0713 13:26:01.101338 18931 net.cpp:156] Memory required for data: 546636160
I0713 13:26:01.101348 18931 layer_factory.hpp:77] Creating layer inception_5b/relu_5x5_reduce
I0713 13:26:01.101358 18931 net.cpp:91] Creating Layer inception_5b/relu_5x5_reduce
I0713 13:26:01.101364 18931 net.cpp:425] inception_5b/relu_5x5_reduce <- inception_5b/5x5_reduce
I0713 13:26:01.101377 18931 net.cpp:386] inception_5b/relu_5x5_reduce -> inception_5b/5x5_reduce (in-place)
I0713 13:26:01.101658 18931 net.cpp:141] Setting up inception_5b/relu_5x5_reduce
I0713 13:26:01.101671 18931 net.cpp:148] Top shape: 10 48 7 7 (23520)
I0713 13:26:01.101676 18931 net.cpp:156] Memory required for data: 546730240
I0713 13:26:01.101681 18931 layer_factory.hpp:77] Creating layer inception_5b/5x5
I0713 13:26:01.101698 18931 net.cpp:91] Creating Layer inception_5b/5x5
I0713 13:26:01.101704 18931 net.cpp:425] inception_5b/5x5 <- inception_5b/5x5_reduce
I0713 13:26:01.101717 18931 net.cpp:399] inception_5b/5x5 -> inception_5b/5x5
I0713 13:26:01.106127 18931 net.cpp:141] Setting up inception_5b/5x5
I0713 13:26:01.106148 18931 net.cpp:148] Top shape: 10 128 7 7 (62720)
I0713 13:26:01.106153 18931 net.cpp:156] Memory required for data: 546981120
I0713 13:26:01.106163 18931 layer_factory.hpp:77] Creating layer inception_5b/relu_5x5
I0713 13:26:01.106178 18931 net.cpp:91] Creating Layer inception_5b/relu_5x5
I0713 13:26:01.106184 18931 net.cpp:425] inception_5b/relu_5x5 <- inception_5b/5x5
I0713 13:26:01.106192 18931 net.cpp:386] inception_5b/relu_5x5 -> inception_5b/5x5 (in-place)
I0713 13:26:01.106478 18931 net.cpp:141] Setting up inception_5b/relu_5x5
I0713 13:26:01.106492 18931 net.cpp:148] Top shape: 10 128 7 7 (62720)
I0713 13:26:01.106497 18931 net.cpp:156] Memory required for data: 547232000
I0713 13:26:01.106501 18931 layer_factory.hpp:77] Creating layer inception_5b/pool
I0713 13:26:01.106513 18931 net.cpp:91] Creating Layer inception_5b/pool
I0713 13:26:01.106518 18931 net.cpp:425] inception_5b/pool <- inception_5a/output_inception_5a/output_0_split_3
I0713 13:26:01.106529 18931 net.cpp:399] inception_5b/pool -> inception_5b/pool
I0713 13:26:01.106613 18931 net.cpp:141] Setting up inception_5b/pool
I0713 13:26:01.106624 18931 net.cpp:148] Top shape: 10 832 7 7 (407680)
I0713 13:26:01.106629 18931 net.cpp:156] Memory required for data: 548862720
I0713 13:26:01.106634 18931 layer_factory.hpp:77] Creating layer inception_5b/pool_proj
I0713 13:26:01.106654 18931 net.cpp:91] Creating Layer inception_5b/pool_proj
I0713 13:26:01.106662 18931 net.cpp:425] inception_5b/pool_proj <- inception_5b/pool
I0713 13:26:01.106670 18931 net.cpp:399] inception_5b/pool_proj -> inception_5b/pool_proj
I0713 13:26:01.111233 18931 net.cpp:141] Setting up inception_5b/pool_proj
I0713 13:26:01.111256 18931 net.cpp:148] Top shape: 10 128 7 7 (62720)
I0713 13:26:01.111263 18931 net.cpp:156] Memory required for data: 549113600
I0713 13:26:01.111273 18931 layer_factory.hpp:77] Creating layer inception_5b/relu_pool_proj
I0713 13:26:01.111282 18931 net.cpp:91] Creating Layer inception_5b/relu_pool_proj
I0713 13:26:01.111289 18931 net.cpp:425] inception_5b/relu_pool_proj <- inception_5b/pool_proj
I0713 13:26:01.111296 18931 net.cpp:386] inception_5b/relu_pool_proj -> inception_5b/pool_proj (in-place)
I0713 13:26:01.112146 18931 net.cpp:141] Setting up inception_5b/relu_pool_proj
I0713 13:26:01.112164 18931 net.cpp:148] Top shape: 10 128 7 7 (62720)
I0713 13:26:01.112169 18931 net.cpp:156] Memory required for data: 549364480
I0713 13:26:01.112174 18931 layer_factory.hpp:77] Creating layer inception_5b/output
I0713 13:26:01.112185 18931 net.cpp:91] Creating Layer inception_5b/output
I0713 13:26:01.112190 18931 net.cpp:425] inception_5b/output <- inception_5b/1x1
I0713 13:26:01.112197 18931 net.cpp:425] inception_5b/output <- inception_5b/3x3
I0713 13:26:01.112203 18931 net.cpp:425] inception_5b/output <- inception_5b/5x5
I0713 13:26:01.112210 18931 net.cpp:425] inception_5b/output <- inception_5b/pool_proj
I0713 13:26:01.112216 18931 net.cpp:399] inception_5b/output -> inception_5b/output
I0713 13:26:01.112277 18931 net.cpp:141] Setting up inception_5b/output
I0713 13:26:01.112289 18931 net.cpp:148] Top shape: 10 1024 7 7 (501760)
I0713 13:26:01.112293 18931 net.cpp:156] Memory required for data: 551371520
I0713 13:26:01.112298 18931 layer_factory.hpp:77] Creating layer pool5/7x7_s1
I0713 13:26:01.112311 18931 net.cpp:91] Creating Layer pool5/7x7_s1
I0713 13:26:01.112318 18931 net.cpp:425] pool5/7x7_s1 <- inception_5b/output
I0713 13:26:01.112326 18931 net.cpp:399] pool5/7x7_s1 -> pool5/7x7_s1
I0713 13:26:01.112691 18931 net.cpp:141] Setting up pool5/7x7_s1
I0713 13:26:01.112704 18931 net.cpp:148] Top shape: 10 1024 1 1 (10240)
I0713 13:26:01.112709 18931 net.cpp:156] Memory required for data: 551412480
I0713 13:26:01.112715 18931 layer_factory.hpp:77] Creating layer pool5/drop_7x7_s1
I0713 13:26:01.112733 18931 net.cpp:91] Creating Layer pool5/drop_7x7_s1
I0713 13:26:01.112738 18931 net.cpp:425] pool5/drop_7x7_s1 <- pool5/7x7_s1
I0713 13:26:01.112751 18931 net.cpp:386] pool5/drop_7x7_s1 -> pool5/7x7_s1 (in-place)
I0713 13:26:01.112809 18931 net.cpp:141] Setting up pool5/drop_7x7_s1
I0713 13:26:01.112823 18931 net.cpp:148] Top shape: 10 1024 1 1 (10240)
I0713 13:26:01.112828 18931 net.cpp:156] Memory required for data: 551453440
I0713 13:26:01.112833 18931 layer_factory.hpp:77] Creating layer loss3/classifier
I0713 13:26:01.112854 18931 net.cpp:91] Creating Layer loss3/classifier
I0713 13:26:01.112860 18931 net.cpp:425] loss3/classifier <- pool5/7x7_s1
I0713 13:26:01.112874 18931 net.cpp:399] loss3/classifier -> loss3/classifier
I0713 13:26:01.124284 18931 net.cpp:141] Setting up loss3/classifier
I0713 13:26:01.124305 18931 net.cpp:148] Top shape: 10 1000 (10000)
I0713 13:26:01.124311 18931 net.cpp:156] Memory required for data: 551493440
I0713 13:26:01.124320 18931 layer_factory.hpp:77] Creating layer prob
I0713 13:26:01.124332 18931 net.cpp:91] Creating Layer prob
I0713 13:26:01.124338 18931 net.cpp:425] prob <- loss3/classifier
I0713 13:26:01.124349 18931 net.cpp:399] prob -> prob
I0713 13:26:01.125470 18931 net.cpp:141] Setting up prob
I0713 13:26:01.125488 18931 net.cpp:148] Top shape: 10 1000 (10000)
I0713 13:26:01.125494 18931 net.cpp:156] Memory required for data: 551533440
I0713 13:26:01.125499 18931 net.cpp:219] prob does not need backward computation.
I0713 13:26:01.125504 18931 net.cpp:219] loss3/classifier does not need backward computation.
I0713 13:26:01.125514 18931 net.cpp:219] pool5/drop_7x7_s1 does not need backward computation.
I0713 13:26:01.125519 18931 net.cpp:219] pool5/7x7_s1 does not need backward computation.
…
