…
Java HotSpot(TM) 64-Bit Server VM warning: You have loaded library /tmp/cvld230312059677381078/libopencv_java310.xine1.so which might have disabled stack guard. The VM will try to fix the stack guard now.
It's highly recommended that you fix the library with 'execstack -c <libfile>', or link it with '-z noexecstack'.
WARNING: Logging before InitGoogleLogging() is written to STDERR
I0714 21:35:47.150468  1720 net.cpp:49] Initializing net from parameters: 
name: "GoogleNet"
state {
  phase: TEST
}
layer {
  name: "data"
  type: "Input"
  top: "data"
  input_param {
    shape {
      dim: 10
      dim: 3
      dim: 224
      dim: 224
    }
  }
}
layer {
  name: "conv1/7x7_s2"
  type: "Convolution"
  bottom: "data"
  top: "conv1/7x7_s2"
  param {
    lr_mult: 1
    decay_mult: 1
  }
  param {
    lr_mult: 2
    decay_mult: 0
  }
  convolution_param {
    num_output: 64
    pad: 3
    kernel_size: 7
    stride: 2
    weight_filler {
      type: "xavier"
      std: 0.1
    }
    bias_filler {
      type: "constant"
      value: 0.2
    }
  }
}
layer {
  name: "conv1/relu_7x7"
  type: "ReLU"
  bottom: "conv1/7x7_s2"
  top: "conv1/7x7_s2"
}
layer {
  name: "pool1/3x3_s2"
  type: "Pooling"
  bottom: "conv1/7x7_s2"
  top: "pool1/3x3_s2"
  pooling_param {
    pool: MAX
    kernel_size: 3
    stride: 2
  }
}
layer {
  name: "pool1/norm1"
  type: "LRN"
  bottom: "pool1/3x3_s2"
  top: "pool1/norm1"
  lrn_param {
    local_size: 5
    alpha: 0.0001
    beta: 0.75
  }
}
layer {
  name: "conv2/3x3_reduce"
  type: "Convolution"
  bottom: "pool1/norm1"
  top: "conv2/3x3_reduce"
  param {
    lr_mult: 1
    decay_mult: 1
  }
  param {
    lr_mult: 2
    decay_mult: 0
  }
  convolution_param {
    num_output: 64
    kernel_size: 1
    weight_filler {
      type: "xavier"
      std: 0.1
    }
    bias_filler {
      type: "constant"
      value: 0.2
    }
  }
}
layer {
  name: "conv2/relu_3x3_reduce"
  type: "ReLU"
  bottom: "conv2/3x3_reduce"
  top: "conv2/3x3_reduce"
}
layer {
  name: "conv2/3x3"
  type: "Convolution"
  bottom: "conv2/3x3_reduce"
  top: "conv2/3x3"
  param {
    lr_mult: 1
    decay_mult: 1
  }
  param {
    lr_mult: 2
    decay_mult: 0
  }
  convolution_param {
    num_output: 192
    pad: 1
    kernel_size: 3
    weight_filler {
      type: "xavier"
      std: 0.03
    }
    bias_filler {
      type: "constant"
      value: 0.2
    }
  }
}
layer {
  name: "conv2/relu_3x3"
  type: "ReLU"
  bottom: "conv2/3x3"
  top: "conv2/3x3"
}
layer {
  name: "conv2/norm2"
  type: "LRN"
  bottom: "conv2/3x3"
  top: "conv2/norm2"
  lrn_param {
    local_size: 5
    alpha: 0.0001
    beta: 0.75
  }
}
layer {
  name: "pool2/3x3_s2"
  type: "Pooling"
  bottom: "conv2/norm2"
  top: "pool2/3x3_s2"
  pooling_param {
    pool: MAX
    kernel_size: 3
    stride: 2
  }
}
layer {
  name: "inception_3a/1x1"
  type: "Convolution"
  bottom: "pool2/3x3_s2"
  top: "inception_3a/1x1"
  param {
    lr_mult: 1
    decay_mult: 1
  }
  param {
    lr_mult: 2
    decay_mult: 0
  }
  convolution_param {
    num_output: 64
    kernel_size: 1
    weight_filler {
      type: "xavier"
      std: 0.03
    }
    bias_filler {
      type: "constant"
      value: 0.2
    }
  }
}
layer {
  name: "inception_3a/relu_1x1"
  type: "ReLU"
  bottom: "inception_3a/1x1"
  top: "inception_3a/1x1"
}
layer {
  name: "inception_3a/3x3_reduce"
  type: "Convolution"
  bottom: "pool2/3x3_s2"
  top: "inception_3a/3x3_reduce"
  param {
    lr_mult: 1
    decay_mult: 1
  }
  param {
    lr_mult: 2
    decay_mult: 0
  }
  convolution_param {
    num_output: 96
    kernel_size: 1
    weight_filler {
      type: "xavier"
      std: 0.09
    }
    bias_filler {
      type: "constant"
      value: 0.2
    }
  }
}
layer {
  name: "inception_3a/relu_3x3_reduce"
  type: "ReLU"
  bottom: "inception_3a/3x3_reduce"
  top: "inception_3a/3x3_reduce"
}
layer {
  name: "inception_3a/3x3"
  type: "Convolution"
  bottom: "inception_3a/3x3_reduce"
  top: "inception_3a/3x3"
  param {
    lr_mult: 1
    decay_mult: 1
  }
  param {
    lr_mult: 2
    decay_mult: 0
  }
  convolution_param {
    num_output: 128
    pad: 1
    kernel_size: 3
    weight_filler {
      type: "xavier"
      std: 0.03
    }
    bias_filler {
      type: "constant"
      value: 0.2
    }
  }
}
layer {
  name: "inception_3a/relu_3x3"
  type: "ReLU"
  bottom: "inception_3a/3x3"
  top: "inception_3a/3x3"
}
layer {
  name: "inception_3a/5x5_reduce"
  type: "Convolution"
  bottom: "pool2/3x3_s2"
  top: "inception_3a/5x5_reduce"
  param {
    lr_mult: 1
    decay_mult: 1
  }
  param {
    lr_mult: 2
    decay_mult: 0
  }
  convolution_param {
    num_output: 16
    kernel_size: 1
    weight_filler {
      type: "xavier"
      std: 0.2
    }
    bias_filler {
      type: "constant"
      value: 0.2
    }
  }
}
layer {
  name: "inception_3a/relu_5x5_reduce"
  type: "ReLU"
  bottom: "inception_3a/5x5_reduce"
  top: "inception_3a/5x5_reduce"
}
layer {
  name: "inception_3a/5x5"
  type: "Convolution"
  bottom: "inception_3a/5x5_reduce"
  top: "inception_3a/5x5"
  param {
    lr_mult: 1
    decay_mult: 1
  }
  param {
    lr_mult: 2
    decay_mult: 0
  }
  convolution_param {
    num_output: 32
    pad: 2
    kernel_size: 5
    weight_filler {
      type: "xavier"
      std: 0.03
    }
    bias_filler {
      type: "constant"
      value: 0.2
    }
  }
}
layer {
  name: "inception_3a/relu_5x5"
  type: "ReLU"
  bottom: "inception_3a/5x5"
  top: "inception_3a/5x5"
}
layer {
  name: "inception_3a/pool"
  type: "Pooling"
  bottom: "pool2/3x3_s2"
  top: "inception_3a/pool"
  pooling_param {
    pool: MAX
    kernel_size: 3
    stride: 1
    pad: 1
  }
}
layer {
  name: "inception_3a/pool_proj"
  type: "Convolution"
  bottom: "inception_3a/pool"
  top: "inception_3a/pool_proj"
  param {
    lr_mult: 1
    decay_mult: 1
  }
  param {
    lr_mult: 2
    decay_mult: 0
  }
  convolution_param {
    num_output: 32
    kernel_size: 1
    weight_filler {
      type: "xavier"
      std: 0.1
    }
    bias_filler {
      type: "constant"
      value: 0.2
    }
  }
}
layer {
  name: "inception_3a/relu_pool_proj"
  type: "ReLU"
  bottom: "inception_3a/pool_proj"
  top: "inception_3a/pool_proj"
}
layer {
  name: "inception_3a/output"
  type: "Concat"
  bottom: "inception_3a/1x1"
  bottom: "inception_3a/3x3"
  bottom: "inception_3a/5x5"
  bottom: "inception_3a/pool_proj"
  top: "inception_3a/output"
}
layer {
  name: "inception_3b/1x1"
  type: "Convolution"
  bottom: "inception_3a/output"
  top: "inception_3b/1x1"
  param {
    lr_mult: 1
    decay_mult: 1
  }
  param {
    lr_mult: 2
    decay_mult: 0
  }
  convolution_param {
    num_output: 128
    kernel_size: 1
    weight_filler {
      type: "xavier"
      std: 0.03
    }
    bias_filler {
      type: "constant"
      value: 0.2
    }
  }
}
layer {
  name: "inception_3b/relu_1x1"
  type: "ReLU"
  bottom: "inception_3b/1x1"
  top: "inception_3b/1x1"
}
layer {
  name: "inception_3b/3x3_reduce"
  type: "Convolution"
  bottom: "inception_3a/output"
  top: "inception_3b/3x3_reduce"
  param {
    lr_mult: 1
    decay_mult: 1
  }
  param {
    lr_mult: 2
    decay_mult: 0
  }
  convolution_param {
    num_output: 128
    kernel_size: 1
    weight_filler {
      type: "xavier"
      std: 0.09
    }
    bias_filler {
      type: "constant"
      value: 0.2
    }
  }
}
layer {
  name: "inception_3b/relu_3x3_reduce"
  type: "ReLU"
  bottom: "inception_3b/3x3_reduce"
  top: "inception_3b/3x3_reduce"
}
layer {
  name: "inception_3b/3x3"
  type: "Convolution"
  bottom: "inception_3b/3x3_reduce"
  top: "inception_3b/3x3"
  param {
    lr_mult: 1
    decay_mult: 1
  }
  param {
    lr_mult: 2
    decay_mult: 0
  }
  convolution_param {
    num_output: 192
    pad: 1
    kernel_size: 3
    weight_filler {
      type: "xavier"
      std: 0.03
    }
    bias_filler {
      type: "constant"
      value: 0.2
    }
  }
}
layer {
  name: "inception_3b/relu_3x3"
  type: "ReLU"
  bottom: "inception_3b/3x3"
  top: "inception_3b/3x3"
}
layer {
  name: "inception_3b/5x5_reduce"
  type: "Convolution"
  bottom: "inception_3a/output"
  top: "inception_3b/5x5_reduce"
  param {
    lr_mult: 1
    decay_mult: 1
  }
  param {
    lr_mult: 2
    decay_mult: 0
  }
  convolution_param {
    num_output: 32
    kernel_size: 1
    weight_filler {
      type: "xavier"
      std: 0.2
    }
    bias_filler {
      type: "constant"
      value: 0.2
    }
  }
}
layer {
  name: "inception_3b/relu_5x5_reduce"
  type: "ReLU"
  bottom: "inception_3b/5x5_reduce"
  top: "inception_3b/5x5_reduce"
}
layer {
  name: "inception_3b/5x5"
  type: "Convolution"
  bottom: "inception_3b/5x5_reduce"
  top: "inception_3b/5x5"
  param {
    lr_mult: 1
    decay_mult: 1
  }
  param {
    lr_mult: 2
    decay_mult: 0
  }
  convolution_param {
    num_output: 96
    pad: 2
    kernel_size: 5
    weight_filler {
      type: "xavier"
      std: 0.03
    }
    bias_filler {
      type: "constant"
      value: 0.2
    }
  }
}
layer {
  name: "inception_3b/relu_5x5"
  type: "ReLU"
  bottom: "inception_3b/5x5"
  top: "inception_3b/5x5"
}
layer {
  name: "inception_3b/pool"
  type: "Pooling"
  bottom: "inception_3a/output"
  top: "inception_3b/pool"
  pooling_param {
    pool: MAX
    kernel_size: 3
    stride: 1
    pad: 1
  }
}
layer {
  name: "inception_3b/pool_proj"
  type: "Convolution"
  bottom: "inception_3b/pool"
  top: "inception_3b/pool_proj"
  param {
    lr_mult: 1
    decay_mult: 1
  }
  param {
    lr_mult: 2
    decay_mult: 0
  }
  convolution_param {
    num_output: 64
    kernel_size: 1
    weight_filler {
      type: "xavier"
      std: 0.1
    }
    bias_filler {
      type: "constant"
      value: 0.2
    }
  }
}
layer {
  name: "inception_3b/relu_pool_proj"
  type: "ReLU"
  bottom: "inception_3b/pool_proj"
  top: "inception_3b/pool_proj"
}
layer {
  name: "inception_3b/output"
  type: "Concat"
  bottom: "inception_3b/1x1"
  bottom: "inception_3b/3x3"
  bottom: "inception_3b/5x5"
  bottom: "inception_3b/pool_proj"
  top: "inception_3b/output"
}
layer {
  name: "pool3/3x3_s2"
  type: "Pooling"
  bottom: "inception_3b/output"
  top: "pool3/3x3_s2"
  pooling_param {
    pool: MAX
    kernel_size: 3
    stride: 2
  }
}
layer {
  name: "inception_4a/1x1"
  type: "Convolution"
  bottom: "pool3/3x3_s2"
  top: "inception_4a/1x1"
  param {
    lr_mult: 1
    decay_mult: 1
  }
  param {
    lr_mult: 2
    decay_mult: 0
  }
  convolution_param {
    num_output: 192
    kernel_size: 1
    weight_filler {
      type: "xavier"
      std: 0.03
    }
    bias_filler {
      type: "constant"
      value: 0.2
    }
  }
}
layer {
  name: "inception_4a/relu_1x1"
  type: "ReLU"
  bottom: "inception_4a/1x1"
  top: "inception_4a/1x1"
}
layer {
  name: "inception_4a/3x3_reduce"
  type: "Convolution"
  bottom: "pool3/3x3_s2"
  top: "inception_4a/3x3_reduce"
  param {
    lr_mult: 1
    decay_mult: 1
  }
  param {
    lr_mult: 2
    decay_mult: 0
  }
  convolution_param {
    num_output: 96
    kernel_size: 1
    weight_filler {
      type: "xavier"
      std: 0.09
    }
    bias_filler {
      type: "constant"
      value: 0.2
    }
  }
}
layer {
  name: "inception_4a/relu_3x3_reduce"
  type: "ReLU"
  bottom: "inception_4a/3x3_reduce"
  top: "inception_4a/3x3_reduce"
}
layer {
  name: "inception_4a/3x3"
  type: "Convolution"
  bottom: "inception_4a/3x3_reduce"
  top: "inception_4a/3x3"
  param {
    lr_mult: 1
    decay_mult: 1
  }
  param {
    lr_mult: 2
    decay_mult: 0
  }
  convolution_param {
    num_output: 208
    pad: 1
    kernel_size: 3
    weight_filler {
      type: "xavier"
      std: 0.03
    }
    bias_filler {
      type: "constant"
      value: 0.2
    }
  }
}
layer {
  name: "inception_4a/relu_3x3"
  type: "ReLU"
  bottom: "inception_4a/3x3"
  top: "inception_4a/3x3"
}
layer {
  name: "inception_4a/5x5_reduce"
  type: "Convolution"
  bottom: "pool3/3x3_s2"
  top: "inception_4a/5x5_reduce"
  param {
    lr_mult: 1
    decay_mult: 1
  }
  param {
    lr_mult: 2
    decay_mult: 0
  }
  convolution_param {
    num_output: 16
    kernel_size: 1
    weight_filler {
      type: "xavier"
      std: 0.2
    }
    bias_filler {
      type: "constant"
      value: 0.2
    }
  }
}
layer {
  name: "inception_4a/relu_5x5_reduce"
  type: "ReLU"
  bottom: "inception_4a/5x5_reduce"
  top: "inception_4a/5x5_reduce"
}
layer {
  name: "inception_4a/5x5"
  type: "Convolution"
  bottom: "inception_4a/5x5_reduce"
  top: "inception_4a/5x5"
  param {
    lr_mult: 1
    decay_mult: 1
  }
  param {
    lr_mult: 2
    decay_mult: 0
  }
  convolution_param {
    num_output: 48
    pad: 2
    kernel_size: 5
    weight_filler {
      type: "xavier"
      std: 0.03
    }
    bias_filler {
      type: "constant"
      value: 0.2
    }
  }
}
layer {
  name: "inception_4a/relu_5x5"
  type: "ReLU"
  bottom: "inception_4a/5x5"
  top: "inception_4a/5x5"
}
layer {
  name: "inception_4a/pool"
  type: "Pooling"
  bottom: "pool3/3x3_s2"
  top: "inception_4a/pool"
  pooling_param {
    pool: MAX
    kernel_size: 3
    stride: 1
    pad: 1
  }
}
layer {
  name: "inception_4a/pool_proj"
  type: "Convolution"
  bottom: "inception_4a/pool"
  top: "inception_4a/pool_proj"
  param {
    lr_mult: 1
    decay_mult: 1
  }
  param {
    lr_mult: 2
    decay_mult: 0
  }
  convolution_param {
    num_output: 64
    kernel_size: 1
    weight_filler {
      type: "xavier"
      std: 0.1
    }
    bias_filler {
      type: "constant"
      value: 0.2
    }
  }
}
layer {
  name: "inception_4a/relu_pool_proj"
  type: "ReLU"
  bottom: "inception_4a/pool_proj"
  top: "inception_4a/pool_proj"
}
layer {
  name: "inception_4a/output"
  type: "Concat"
  bottom: "inception_4a/1x1"
  bottom: "inception_4a/3x3"
  bottom: "inception_4a/5x5"
  bottom: "inception_4a/pool_proj"
  top: "inception_4a/output"
}
layer {
  name: "inception_4b/1x1"
  type: "Convolution"
  bottom: "inception_4a/output"
  top: "inception_4b/1x1"
  param {
    lr_mult: 1
    decay_mult: 1
  }
  param {
    lr_mult: 2
    decay_mult: 0
  }
  convolution_param {
    num_output: 160
    kernel_size: 1
    weight_filler {
      type: "xavier"
      std: 0.03
    }
    bias_filler {
      type: "constant"
      value: 0.2
    }
  }
}
layer {
  name: "inception_4b/relu_1x1"
  type: "ReLU"
  bottom: "inception_4b/1x1"
  top: "inception_4b/1x1"
}
layer {
  name: "inception_4b/3x3_reduce"
  type: "Convolution"
  bottom: "inception_4a/output"
  top: "inception_4b/3x3_reduce"
  param {
    lr_mult: 1
    decay_mult: 1
  }
  param {
    lr_mult: 2
    decay_mult: 0
  }
  convolution_param {
    num_output: 112
    kernel_size: 1
    weight_filler {
      type: "xavier"
      std: 0.09
    }
    bias_filler {
      type: "constant"
      value: 0.2
    }
  }
}
layer {
  name: "inception_4b/relu_3x3_reduce"
  type: "ReLU"
  bottom: "inception_4b/3x3_reduce"
  top: "inception_4b/3x3_reduce"
}
layer {
  name: "inception_4b/3x3"
  type: "Convolution"
  bottom: "inception_4b/3x3_reduce"
  top: "inception_4b/3x3"
  param {
    lr_mult: 1
    decay_mult: 1
  }
  param {
    lr_mult: 2
    decay_mult: 0
  }
  convolution_param {
    num_output: 224
    pad: 1
    kernel_size: 3
    weight_filler {
      type: "xavier"
      std: 0.03
    }
    bias_filler {
      type: "constant"
      value: 0.2
    }
  }
}
layer {
  name: "inception_4b/relu_3x3"
  type: "ReLU"
  bottom: "inception_4b/3x3"
  top: "inception_4b/3x3"
}
layer {
  name: "inception_4b/5x5_reduce"
  type: "Convolution"
  bottom: "inception_4a/output"
  top: "inception_4b/5x5_reduce"
  param {
    lr_mult: 1
    decay_mult: 1
  }
  param {
    lr_mult: 2
    decay_mult: 0
  }
  convolution_param {
    num_output: 24
    kernel_size: 1
    weight_filler {
      type: "xavier"
      std: 0.2
    }
    bias_filler {
      type: "constant"
      value: 0.2
    }
  }
}
layer {
  name: "inception_4b/relu_5x5_reduce"
  type: "ReLU"
  bottom: "inception_4b/5x5_reduce"
  top: "inception_4b/5x5_reduce"
}
layer {
  name: "inception_4b/5x5"
  type: "Convolution"
  bottom: "inception_4b/5x5_reduce"
  top: "inception_4b/5x5"
  param {
    lr_mult: 1
    decay_mult: 1
  }
  param {
    lr_mult: 2
    decay_mult: 0
  }
  convolution_param {
    num_output: 64
    pad: 2
    kernel_size: 5
    weight_filler {
      type: "xavier"
      std: 0.03
    }
    bias_filler {
      type: "constant"
      value: 0.2
    }
  }
}
layer {
  name: "inception_4b/relu_5x5"
  type: "ReLU"
  bottom: "inception_4b/5x5"
  top: "inception_4b/5x5"
}
layer {
  name: "inception_4b/pool"
  type: "Pooling"
  bottom: "inception_4a/output"
  top: "inception_4b/pool"
  pooling_param {
    pool: MAX
    kernel_size: 3
    stride: 1
    pad: 1
  }
}
layer {
  name: "inception_4b/pool_proj"
  type: "Convolution"
  bottom: "inception_4b/pool"
  top: "inception_4b/pool_proj"
  param {
    lr_mult: 1
    decay_mult: 1
  }
  param {
    lr_mult: 2
    decay_mult: 0
  }
  convolution_param {
    num_output: 64
    kernel_size: 1
    weight_filler {
      type: "xavier"
      std: 0.1
    }
    bias_filler {
      type: "constant"
      value: 0.2
    }
  }
}
layer {
  name: "inception_4b/relu_pool_proj"
  type: "ReLU"
  bottom: "inception_4b/pool_proj"
  top: "inception_4b/pool_proj"
}
layer {
  name: "inception_4b/output"
  type: "Concat"
  bottom: "inception_4b/1x1"
  bottom: "inception_4b/3x3"
  bottom: "inception_4b/5x5"
  bottom: "inception_4b/pool_proj"
  top: "inception_4b/output"
}
layer {
  name: "inception_4c/1x1"
  type: "Convolution"
  bottom: "inception_4b/output"
  top: "inception_4c/1x1"
  param {
    lr_mult: 1
    decay_mult: 1
  }
  param {
    lr_mult: 2
    decay_mult: 0
  }
  convolution_param {
    num_output: 128
    kernel_size: 1
    weight_filler {
      type: "xavier"
      std: 0.03
    }
    bias_filler {
      type: "constant"
      value: 0.2
    }
  }
}
layer {
  name: "inception_4c/relu_1x1"
  type: "ReLU"
  bottom: "inception_4c/1x1"
  top: "inception_4c/1x1"
}
layer {
  name: "inception_4c/3x3_reduce"
  type: "Convolution"
  bottom: "inception_4b/output"
  top: "inception_4c/3x3_reduce"
  param {
    lr_mult: 1
    decay_mult: 1
  }
  param {
    lr_mult: 2
    decay_mult: 0
  }
  convolution_param {
    num_output: 128
    kernel_size: 1
    weight_filler {
      type: "xavier"
      std: 0.09
    }
    bias_filler {
      type: "constant"
      value: 0.2
    }
  }
}
layer {
  name: "inception_4c/relu_3x3_reduce"
  type: "ReLU"
  bottom: "inception_4c/3x3_reduce"
  top: "inception_4c/3x3_reduce"
}
layer {
  name: "inception_4c/3x3"
  type: "Convolution"
  bottom: "inception_4c/3x3_reduce"
  top: "inception_4c/3x3"
  param {
    lr_mult: 1
    decay_mult: 1
  }
  param {
    lr_mult: 2
    decay_mult: 0
  }
  convolution_param {
    num_output: 256
    pad: 1
    kernel_size: 3
    weight_filler {
      type: "xavier"
      std: 0.03
    }
    bias_filler {
      type: "constant"
      value: 0.2
    }
  }
}
layer {
  name: "inception_4c/relu_3x3"
  type: "ReLU"
  bottom: "inception_4c/3x3"
  top: "inception_4c/3x3"
}
layer {
  name: "inception_4c/5x5_reduce"
  type: "Convolution"
  bottom: "inception_4b/output"
  top: "inception_4c/5x5_reduce"
  param {
    lr_mult: 1
    decay_mult: 1
  }
  param {
    lr_mult: 2
    decay_mult: 0
  }
  convolution_param {
    num_output: 24
    kernel_size: 1
    weight_filler {
      type: "xavier"
      std: 0.2
    }
    bias_filler {
      type: "constant"
      value: 0.2
    }
  }
}
layer {
  name: "inception_4c/relu_5x5_reduce"
  type: "ReLU"
  bottom: "inception_4c/5x5_reduce"
  top: "inception_4c/5x5_reduce"
}
layer {
  name: "inception_4c/5x5"
  type: "Convolution"
  bottom: "inception_4c/5x5_reduce"
  top: "inception_4c/5x5"
  param {
    lr_mult: 1
    decay_mult: 1
  }
  param {
    lr_mult: 2
    decay_mult: 0
  }
  convolution_param {
    num_output: 64
    pad: 2
    kernel_size: 5
    weight_filler {
      type: "xavier"
      std: 0.03
    }
    bias_filler {
      type: "constant"
      value: 0.2
    }
  }
}
layer {
  name: "inception_4c/relu_5x5"
  type: "ReLU"
  bottom: "inception_4c/5x5"
  top: "inception_4c/5x5"
}
layer {
  name: "inception_4c/pool"
  type: "Pooling"
  bottom: "inception_4b/output"
  top: "inception_4c/pool"
  pooling_param {
    pool: MAX
    kernel_size: 3
    stride: 1
    pad: 1
  }
}
layer {
  name: "inception_4c/pool_proj"
  type: "Convolution"
  bottom: "inception_4c/pool"
  top: "inception_4c/pool_proj"
  param {
    lr_mult: 1
    decay_mult: 1
  }
  param {
    lr_mult: 2
    decay_mult: 0
  }
  convolution_param {
    num_output: 64
    kernel_size: 1
    weight_filler {
      type: "xavier"
      std: 0.1
    }
    bias_filler {
      type: "constant"
      value: 0.2
    }
  }
}
layer {
  name: "inception_4c/relu_pool_proj"
  type: "ReLU"
  bottom: "inception_4c/pool_proj"
  top: "inception_4c/pool_proj"
}
layer {
  name: "inception_4c/output"
  type: "Concat"
  bottom: "inception_4c/1x1"
  bottom: "inception_4c/3x3"
  bottom: "inception_4c/5x5"
  bottom: "inception_4c/pool_proj"
  top: "inception_4c/output"
}
layer {
  name: "inception_4d/1x1"
  type: "Convolution"
  bottom: "inception_4c/output"
  top: "inception_4d/1x1"
  param {
    lr_mult: 1
    decay_mult: 1
  }
  param {
    lr_mult: 2
    decay_mult: 0
  }
  convolution_param {
    num_output: 112
    kernel_size: 1
    weight_filler {
      type: "xavier"
      std: 0.03
    }
    bias_filler {
      type: "constant"
      value: 0.2
    }
  }
}
layer {
  name: "inception_4d/relu_1x1"
  type: "ReLU"
  bottom: "inception_4d/1x1"
  top: "inception_4d/1x1"
}
layer {
  name: "inception_4d/3x3_reduce"
  type: "Convolution"
  bottom: "inception_4c/output"
  top: "inception_4d/3x3_reduce"
  param {
    lr_mult: 1
    decay_mult: 1
  }
  param {
    lr_mult: 2
    decay_mult: 0
  }
  convolution_param {
    num_output: 144
    kernel_size: 1
    weight_filler {
      type: "xavier"
      std: 0.09
    }
    bias_filler {
      type: "constant"
      value: 0.2
    }
  }
}
layer {
  name: "inception_4d/relu_3x3_reduce"
  type: "ReLU"
  bottom: "inception_4d/3x3_reduce"
  top: "inception_4d/3x3_reduce"
}
layer {
  name: "inception_4d/3x3"
  type: "Convolution"
  bottom: "inception_4d/3x3_reduce"
  top: "inception_4d/3x3"
  param {
    lr_mult: 1
    decay_mult: 1
  }
  param {
    lr_mult: 2
    decay_mult: 0
  }
  convolution_param {
    num_output: 288
    pad: 1
    kernel_size: 3
    weight_filler {
      type: "xavier"
      std: 0.03
    }
    bias_filler {
      type: "constant"
      value: 0.2
    }
  }
}
layer {
  name: "inception_4d/relu_3x3"
  type: "ReLU"
  bottom: "inception_4d/3x3"
  top: "inception_4d/3x3"
}
layer {
  name: "inception_4d/5x5_reduce"
  type: "Convolution"
  bottom: "inception_4c/output"
  top: "inception_4d/5x5_reduce"
  param {
    lr_mult: 1
    decay_mult: 1
  }
  param {
    lr_mult: 2
    decay_mult: 0
  }
  convolution_param {
    num_output: 32
    kernel_size: 1
    weight_filler {
      type: "xavier"
      std: 0.2
    }
    bias_filler {
      type: "constant"
      value: 0.2
    }
  }
}
layer {
  name: "inception_4d/relu_5x5_reduce"
  type: "ReLU"
  bottom: "inception_4d/5x5_reduce"
  top: "inception_4d/5x5_reduce"
}
layer {
  name: "inception_4d/5x5"
  type: "Convolution"
  bottom: "inception_4d/5x5_reduce"
  top: "inception_4d/5x5"
  param {
    lr_mult: 1
    decay_mult: 1
  }
  param {
    lr_mult: 2
    decay_mult: 0
  }
  convolution_param {
    num_output: 64
    pad: 2
    kernel_size: 5
    weight_filler {
      type: "xavier"
      std: 0.03
    }
    bias_filler {
      type: "constant"
      value: 0.2
    }
  }
}
layer {
  name: "inception_4d/relu_5x5"
  type: "ReLU"
  bottom: "inception_4d/5x5"
  top: "inception_4d/5x5"
}
layer {
  name: "inception_4d/pool"
  type: "Pooling"
  bottom: "inception_4c/output"
  top: "inception_4d/pool"
  pooling_param {
    pool: MAX
    kernel_size: 3
    stride: 1
    pad: 1
  }
}
layer {
  name: "inception_4d/pool_proj"
  type: "Convolution"
  bottom: "inception_4d/pool"
  top: "inception_4d/pool_proj"
  param {
    lr_mult: 1
    decay_mult: 1
  }
  param {
    lr_mult: 2
    decay_mult: 0
  }
  convolution_param {
    num_output: 64
    kernel_size: 1
    weight_filler {
      type: "xavier"
      std: 0.1
    }
    bias_filler {
      type: "constant"
      value: 0.2
    }
  }
}
layer {
  name: "inception_4d/relu_pool_proj"
  type: "ReLU"
  bottom: "inception_4d/pool_proj"
  top: "inception_4d/pool_proj"
}
layer {
  name: "inception_4d/output"
  type: "Concat"
  bottom: "inception_4d/1x1"
  bottom: "inception_4d/3x3"
  bottom: "inception_4d/5x5"
  bottom: "inception_4d/pool_proj"
  top: "inception_4d/output"
}
layer {
  name: "inception_4e/1x1"
  type: "Convolution"
  bottom: "inception_4d/output"
  top: "inception_4e/1x1"
  param {
    lr_mult: 1
    decay_mult: 1
  }
  param {
    lr_mult: 2
    decay_mult: 0
  }
  convolution_param {
    num_output: 256
    kernel_size: 1
    weight_filler {
      type: "xavier"
      std: 0.03
    }
    bias_filler {
      type: "constant"
      value: 0.2
    }
  }
}
layer {
  name: "inception_4e/relu_1x1"
  type: "ReLU"
  bottom: "inception_4e/1x1"
  top: "inception_4e/1x1"
}
layer {
  name: "inception_4e/3x3_reduce"
  type: "Convolution"
  bottom: "inception_4d/output"
  top: "inception_4e/3x3_reduce"
  param {
    lr_mult: 1
    decay_mult: 1
  }
  param {
    lr_mult: 2
    decay_mult: 0
  }
  convolution_param {
    num_output: 160
    kernel_size: 1
    weight_filler {
      type: "xavier"
      std: 0.09
    }
    bias_filler {
      type: "constant"
      value: 0.2
    }
  }
}
layer {
  name: "inception_4e/relu_3x3_reduce"
  type: "ReLU"
  bottom: "inception_4e/3x3_reduce"
  top: "inception_4e/3x3_reduce"
}
layer {
  name: "inception_4e/3x3"
  type: "Convolution"
  bottom: "inception_4e/3x3_reduce"
  top: "inception_4e/3x3"
  param {
    lr_mult: 1
    decay_mult: 1
  }
  param {
    lr_mult: 2
    decay_mult: 0
  }
  convolution_param {
    num_output: 320
    pad: 1
    kernel_size: 3
    weight_filler {
      type: "xavier"
      std: 0.03
    }
    bias_filler {
      type: "constant"
      value: 0.2
    }
  }
}
layer {
  name: "inception_4e/relu_3x3"
  type: "ReLU"
  bottom: "inception_4e/3x3"
  top: "inception_4e/3x3"
}
layer {
  name: "inception_4e/5x5_reduce"
  type: "Convolution"
  bottom: "inception_4d/output"
  top: "inception_4e/5x5_reduce"
  param {
    lr_mult: 1
    decay_mult: 1
  }
  param {
    lr_mult: 2
    decay_mult: 0
  }
  convolution_param {
    num_output: 32
    kernel_size: 1
    weight_filler {
      type: "xavier"
      std: 0.2
    }
    bias_filler {
      type: "constant"
      value: 0.2
    }
  }
}
layer {
  name: "inception_4e/relu_5x5_reduce"
  type: "ReLU"
  bottom: "inception_4e/5x5_reduce"
  top: "inception_4e/5x5_reduce"
}
layer {
  name: "inception_4e/5x5"
  type: "Convolution"
  bottom: "inception_4e/5x5_reduce"
  top: "inception_4e/5x5"
  param {
    lr_mult: 1
    decay_mult: 1
  }
  param {
    lr_mult: 2
    decay_mult: 0
  }
  convolution_param {
    num_output: 128
    pad: 2
    kernel_size: 5
    weight_filler {
      type: "xavier"
      std: 0.03
    }
    bias_filler {
      type: "constant"
      value: 0.2
    }
  }
}
layer {
  name: "inception_4e/relu_5x5"
  type: "ReLU"
  bottom: "inception_4e/5x5"
  top: "inception_4e/5x5"
}
layer {
  name: "inception_4e/pool"
  type: "Pooling"
  bottom: "inception_4d/output"
  top: "inception_4e/pool"
  pooling_param {
    pool: MAX
    kernel_size: 3
    stride: 1
    pad: 1
  }
}
layer {
  name: "inception_4e/pool_proj"
  type: "Convolution"
  bottom: "inception_4e/pool"
  top: "inception_4e/pool_proj"
  param {
    lr_mult: 1
    decay_mult: 1
  }
  param {
    lr_mult: 2
    decay_mult: 0
  }
  convolution_param {
    num_output: 128
    kernel_size: 1
    weight_filler {
      type: "xavier"
      std: 0.1
    }
    bias_filler {
      type: "constant"
      value: 0.2
    }
  }
}
layer {
  name: "inception_4e/relu_pool_proj"
  type: "ReLU"
  bottom: "inception_4e/pool_proj"
  top: "inception_4e/pool_proj"
}
layer {
  name: "inception_4e/output"
  type: "Concat"
  bottom: "inception_4e/1x1"
  bottom: "inception_4e/3x3"
  bottom: "inception_4e/5x5"
  bottom: "inception_4e/pool_proj"
  top: "inception_4e/output"
}
layer {
  name: "pool4/3x3_s2"
  type: "Pooling"
  bottom: "inception_4e/output"
  top: "pool4/3x3_s2"
  pooling_param {
    pool: MAX
    kernel_size: 3
    stride: 2
  }
}
layer {
  name: "inception_5a/1x1"
  type: "Convolution"
  bottom: "pool4/3x3_s2"
  top: "inception_5a/1x1"
  param {
    lr_mult: 1
    decay_mult: 1
  }
  param {
    lr_mult: 2
    decay_mult: 0
  }
  convolution_param {
    num_output: 256
    kernel_size: 1
    weight_filler {
      type: "xavier"
      std: 0.03
    }
    bias_filler {
      type: "constant"
      value: 0.2
    }
  }
}
layer {
  name: "inception_5a/relu_1x1"
  type: "ReLU"
  bottom: "inception_5a/1x1"
  top: "inception_5a/1x1"
}
layer {
  name: "inception_5a/3x3_reduce"
  type: "Convolution"
  bottom: "pool4/3x3_s2"
  top: "inception_5a/3x3_reduce"
  param {
    lr_mult: 1
    decay_mult: 1
  }
  param {
    lr_mult: 2
    decay_mult: 0
  }
  convolution_param {
    num_output: 160
    kernel_size: 1
    weight_filler {
      type: "xavier"
      std: 0.09
    }
    bias_filler {
      type: "constant"
      value: 0.2
    }
  }
}
layer {
  name: "inception_5a/relu_3x3_reduce"
  type: "ReLU"
  bottom: "inception_5a/3x3_reduce"
  top: "inception_5a/3x3_reduce"
}
layer {
  name: "inception_5a/3x3"
  type: "Convolution"
  bottom: "inception_5a/3x3_reduce"
  top: "inception_5a/3x3"
  param {
    lr_mult: 1
    decay_mult: 1
  }
  param {
    lr_mult: 2
    decay_mult: 0
  }
  convolution_param {
    num_output: 320
    pad: 1
    kernel_size: 3
    weight_filler {
      type: "xavier"
      std: 0.03
    }
    bias_filler {
      type: "constant"
      value: 0.2
    }
  }
}
layer {
  name: "inception_5a/relu_3x3"
  type: "ReLU"
  bottom: "inception_5a/3x3"
  top: "inception_5a/3x3"
}
layer {
  name: "inception_5a/5x5_reduce"
  type: "Convolution"
  bottom: "pool4/3x3_s2"
  top: "inception_5a/5x5_reduce"
  param {
    lr_mult: 1
    decay_mult: 1
  }
  param {
    lr_mult: 2
    decay_mult: 0
  }
  convolution_param {
    num_output: 32
    kernel_size: 1
    weight_filler {
      type: "xavier"
      std: 0.2
    }
    bias_filler {
      type: "constant"
      value: 0.2
    }
I0714 21:35:47.151510  1720 layer_factory.hpp:77] Creating layer data
I0714 21:35:47.151540  1720 net.cpp:91] Creating Layer data
I0714 21:35:47.151552  1720 net.cpp:399] data -> data
I0714 21:35:47.160243  1716 net.cpp:49] Initializing net from parameters: 
name: "GoogleNet"
state {
  phase: TEST
}
layer {
  name: "data"
  type: "Input"
  top: "data"
  input_param {
    shape {
      dim: 10
      dim: 3
      dim: 224
      dim: 224
    }
  }
}
layer {
  name: "conv1/7x7_s2"
  type: "Convolution"
  bottom: "data"
  top: "conv1/7x7_s2"
  param {
    lr_mult: 1
    decay_mult: 1
  }
  param {
    lr_mult: 2
    decay_mult: 0
  }
  convolution_param {
    num_output: 64
    pad: 3
    kernel_size: 7
    stride: 2
    weight_filler {
      type: "xavier"
      std: 0.1
    }
    bias_filler {
      type: "constant"
      value: 0.2
    }
  }
}
layer {
  name: "conv1/relu_7x7"
  type: "ReLU"
  bottom: "conv1/7x7_s2"
  top: "conv1/7x7_s2"
}
layer {
  name: "pool1/3x3_s2"
  type: "Pooling"
  bottom: "conv1/7x7_s2"
  top: "pool1/3x3_s2"
  pooling_param {
    pool: MAX
    kernel_size: 3
    stride: 2
  }
}
layer {
  name: "pool1/norm1"
  type: "LRN"
  bottom: "pool1/3x3_s2"
  top: "pool1/norm1"
  lrn_param {
    local_size: 5
    alpha: 0.0001
    beta: 0.75
  }
}
layer {
  name: "conv2/3x3_reduce"
  type: "Convolution"
  bottom: "pool1/norm1"
  top: "conv2/3x3_reduce"
  param {
    lr_mult: 1
    decay_mult: 1
  }
  param {
    lr_mult: 2
    decay_mult: 0
  }
  convolution_param {
    num_output: 64
    kernel_size: 1
    weight_filler {
      type: "xavier"
      std: 0.1
    }
    bias_filler {
      type: "constant"
      value: 0.2
    }
  }
}
layer {
  name: "conv2/relu_3x3_reduce"
  type: "ReLU"
  bottom: "conv2/3x3_reduce"
  top: "conv2/3x3_reduce"
}
layer {
  name: "conv2/3x3"
  type: "Convolution"
  bottom: "conv2/3x3_reduce"
  top: "conv2/3x3"
  param {
    lr_mult: 1
    decay_mult: 1
  }
  param {
    lr_mult: 2
    decay_mult: 0
  }
  convolution_param {
    num_output: 192
    pad: 1
    kernel_size: 3
    weight_filler {
      type: "xavier"
      std: 0.03
    }
    bias_filler {
      type: "constant"
      value: 0.2
    }
  }
}
layer {
  name: "conv2/relu_3x3"
  type: "ReLU"
  bottom: "conv2/3x3"
  top: "conv2/3x3"
}
layer {
  name: "conv2/norm2"
  type: "LRN"
  bottom: "conv2/3x3"
  top: "conv2/norm2"
  lrn_param {
    local_size: 5
    alpha: 0.0001
    beta: 0.75
  }
}
layer {
  name: "pool2/3x3_s2"
  type: "Pooling"
  bottom: "conv2/norm2"
  top: "pool2/3x3_s2"
  pooling_param {
    pool: MAX
    kernel_size: 3
    stride: 2
  }
}
layer {
  name: "inception_3a/1x1"
  type: "Convolution"
  bottom: "pool2/3x3_s2"
  top: "inception_3a/1x1"
  param {
    lr_mult: 1
    decay_mult: 1
  }
  param {
    lr_mult: 2
    decay_mult: 0
  }
  convolution_param {
    num_output: 64
    kernel_size: 1
    weight_filler {
      type: "xavier"
      std: 0.03
    }
    bias_filler {
      type: "constant"
      value: 0.2
    }
  }
}
layer {
  name: "inception_3a/relu_1x1"
  type: "ReLU"
  bottom: "inception_3a/1x1"
  top: "inception_3a/1x1"
}
layer {
  name: "inception_3a/3x3_reduce"
  type: "Convolution"
  bottom: "pool2/3x3_s2"
  top: "inception_3a/3x3_reduce"
  param {
    lr_mult: 1
    decay_mult: 1
  }
  param {
    lr_mult: 2
    decay_mult: 0
  }
  convolution_param {
    num_output: 96
    kernel_size: 1
    weight_filler {
      type: "xavier"
      std: 0.09
    }
    bias_filler {
      type: "constant"
      value: 0.2
    }
  }
}
layer {
  name: "inception_3a/relu_3x3_reduce"
  type: "ReLU"
  bottom: "inception_3a/3x3_reduce"
  top: "inception_3a/3x3_reduce"
}
layer {
  name: "inception_3a/3x3"
  type: "Convolution"
  bottom: "inception_3a/3x3_reduce"
  top: "inception_3a/3x3"
  param {
    lr_mult: 1
    decay_mult: 1
  }
  param {
    lr_mult: 2
    decay_mult: 0
  }
  convolution_param {
    num_output: 128
    pad: 1
    kernel_size: 3
    weight_filler {
      type: "xavier"
      std: 0.03
    }
    bias_filler {
      type: "constant"
      value: 0.2
    }
  }
}
layer {
  name: "inception_3a/relu_3x3"
  type: "ReLU"
  bottom: "inception_3a/3x3"
  top: "inception_3a/3x3"
}
layer {
  name: "inception_3a/5x5_reduce"
  type: "Convolution"
  bottom: "pool2/3x3_s2"
  top: "inception_3a/5x5_reduce"
  param {
    lr_mult: 1
    decay_mult: 1
  }
  param {
    lr_mult: 2
    decay_mult: 0
  }
  convolution_param {
    num_output: 16
    kernel_size: 1
    weight_filler {
      type: "xavier"
      std: 0.2
    }
    bias_filler {
      type: "constant"
      value: 0.2
    }
  }
}
layer {
  name: "inception_3a/relu_5x5_reduce"
  type: "ReLU"
  bottom: "inception_3a/5x5_reduce"
  top: "inception_3a/5x5_reduce"
}
layer {
  name: "inception_3a/5x5"
  type: "Convolution"
  bottom: "inception_3a/5x5_reduce"
  top: "inception_3a/5x5"
  param {
    lr_mult: 1
    decay_mult: 1
  }
  param {
    lr_mult: 2
    decay_mult: 0
  }
  convolution_param {
    num_output: 32
    pad: 2
    kernel_size: 5
    weight_filler {
      type: "xavier"
      std: 0.03
    }
    bias_filler {
      type: "constant"
      value: 0.2
    }
  }
}
layer {
  name: "inception_3a/relu_5x5"
  type: "ReLU"
  bottom: "inception_3a/5x5"
  top: "inception_3a/5x5"
}
layer {
  name: "inception_3a/pool"
  type: "Pooling"
  bottom: "pool2/3x3_s2"
  top: "inception_3a/pool"
  pooling_param {
    pool: MAX
    kernel_size: 3
    stride: 1
    pad: 1
  }
}
layer {
  name: "inception_3a/pool_proj"
  type: "Convolution"
  bottom: "inception_3a/pool"
  top: "inception_3a/pool_proj"
  param {
    lr_mult: 1
    decay_mult: 1
  }
  param {
    lr_mult: 2
    decay_mult: 0
  }
  convolution_param {
    num_output: 32
    kernel_size: 1
    weight_filler {
      type: "xavier"
      std: 0.1
    }
    bias_filler {
      type: "constant"
      value: 0.2
    }
  }
}
layer {
  name: "inception_3a/relu_pool_proj"
  type: "ReLU"
  bottom: "inception_3a/pool_proj"
  top: "inception_3a/pool_proj"
}
layer {
  name: "inception_3a/output"
  type: "Concat"
  bottom: "inception_3a/1x1"
  bottom: "inception_3a/3x3"
  bottom: "inception_3a/5x5"
  bottom: "inception_3a/pool_proj"
  top: "inception_3a/output"
}
layer {
  name: "inception_3b/1x1"
  type: "Convolution"
  bottom: "inception_3a/output"
  top: "inception_3b/1x1"
  param {
    lr_mult: 1
    decay_mult: 1
  }
  param {
    lr_mult: 2
    decay_mult: 0
  }
  convolution_param {
    num_output: 128
    kernel_size: 1
    weight_filler {
      type: "xavier"
      std: 0.03
    }
    bias_filler {
      type: "constant"
      value: 0.2
    }
  }
}
layer {
  name: "inception_3b/relu_1x1"
  type: "ReLU"
  bottom: "inception_3b/1x1"
  top: "inception_3b/1x1"
}
layer {
  name: "inception_3b/3x3_reduce"
  type: "Convolution"
  bottom: "inception_3a/output"
  top: "inception_3b/3x3_reduce"
  param {
    lr_mult: 1
    decay_mult: 1
  }
  param {
    lr_mult: 2
    decay_mult: 0
  }
  convolution_param {
    num_output: 128
    kernel_size: 1
    weight_filler {
      type: "xavier"
      std: 0.09
    }
    bias_filler {
      type: "constant"
      value: 0.2
    }
  }
}
layer {
  name: "inception_3b/relu_3x3_reduce"
  type: "ReLU"
  bottom: "inception_3b/3x3_reduce"
  top: "inception_3b/3x3_reduce"
}
layer {
  name: "inception_3b/3x3"
  type: "Convolution"
  bottom: "inception_3b/3x3_reduce"
  top: "inception_3b/3x3"
  param {
    lr_mult: 1
    decay_mult: 1
  }
  param {
    lr_mult: 2
    decay_mult: 0
  }
  convolution_param {
    num_output: 192
    pad: 1
    kernel_size: 3
    weight_filler {
      type: "xavier"
      std: 0.03
    }
    bias_filler {
      type: "constant"
      value: 0.2
    }
  }
}
layer {
  name: "inception_3b/relu_3x3"
  type: "ReLU"
  bottom: "inception_3b/3x3"
  top: "inception_3b/3x3"
}
layer {
  name: "inception_3b/5x5_reduce"
  type: "Convolution"
  bottom: "inception_3a/output"
  top: "inception_3b/5x5_reduce"
  param {
    lr_mult: 1
    decay_mult: 1
  }
  param {
    lr_mult: 2
    decay_mult: 0
  }
  convolution_param {
    num_output: 32
    kernel_size: 1
    weight_filler {
      type: "xavier"
      std: 0.2
    }
    bias_filler {
      type: "constant"
      value: 0.2
    }
  }
}
layer {
  name: "inception_3b/relu_5x5_reduce"
  type: "ReLU"
  bottom: "inception_3b/5x5_reduce"
  top: "inception_3b/5x5_reduce"
}
layer {
  name: "inception_3b/5x5"
  type: "Convolution"
  bottom: "inception_3b/5x5_reduce"
  top: "inception_3b/5x5"
  param {
    lr_mult: 1
    decay_mult: 1
  }
  param {
    lr_mult: 2
    decay_mult: 0
  }
  convolution_param {
    num_output: 96
    pad: 2
    kernel_size: 5
    weight_filler {
      type: "xavier"
      std: 0.03
    }
    bias_filler {
      type: "constant"
      value: 0.2
    }
  }
}
layer {
  name: "inception_3b/relu_5x5"
  type: "ReLU"
  bottom: "inception_3b/5x5"
  top: "inception_3b/5x5"
}
layer {
  name: "inception_3b/pool"
  type: "Pooling"
  bottom: "inception_3a/output"
  top: "inception_3b/pool"
  pooling_param {
    pool: MAX
    kernel_size: 3
    stride: 1
    pad: 1
  }
}
layer {
  name: "inception_3b/pool_proj"
  type: "Convolution"
  bottom: "inception_3b/pool"
  top: "inception_3b/pool_proj"
  param {
    lr_mult: 1
    decay_mult: 1
  }
  param {
    lr_mult: 2
    decay_mult: 0
  }
  convolution_param {
    num_output: 64
    kernel_size: 1
    weight_filler {
      type: "xavier"
      std: 0.1
    }
    bias_filler {
      type: "constant"
      value: 0.2
    }
  }
}
layer {
  name: "inception_3b/relu_pool_proj"
  type: "ReLU"
  bottom: "inception_3b/pool_proj"
  top: "inception_3b/pool_proj"
}
layer {
  name: "inception_3b/output"
  type: "Concat"
  bottom: "inception_3b/1x1"
  bottom: "inception_3b/3x3"
  bottom: "inception_3b/5x5"
  bottom: "inception_3b/pool_proj"
  top: "inception_3b/output"
}
layer {
  name: "pool3/3x3_s2"
  type: "Pooling"
  bottom: "inception_3b/output"
  top: "pool3/3x3_s2"
  pooling_param {
    pool: MAX
    kernel_size: 3
    stride: 2
  }
}
layer {
  name: "inception_4a/1x1"
  type: "Convolution"
  bottom: "pool3/3x3_s2"
  top: "inception_4a/1x1"
  param {
    lr_mult: 1
    decay_mult: 1
  }
  param {
    lr_mult: 2
    decay_mult: 0
  }
  convolution_param {
    num_output: 192
    kernel_size: 1
    weight_filler {
      type: "xavier"
      std: 0.03
    }
    bias_filler {
      type: "constant"
      value: 0.2
    }
  }
}
layer {
  name: "inception_4a/relu_1x1"
  type: "ReLU"
  bottom: "inception_4a/1x1"
  top: "inception_4a/1x1"
}
layer {
  name: "inception_4a/3x3_reduce"
  type: "Convolution"
  bottom: "pool3/3x3_s2"
  top: "inception_4a/3x3_reduce"
  param {
    lr_mult: 1
    decay_mult: 1
  }
  param {
    lr_mult: 2
    decay_mult: 0
  }
  convolution_param {
    num_output: 96
    kernel_size: 1
    weight_filler {
      type: "xavier"
      std: 0.09
    }
    bias_filler {
      type: "constant"
      value: 0.2
    }
  }
}
layer {
  name: "inception_4a/relu_3x3_reduce"
  type: "ReLU"
  bottom: "inception_4a/3x3_reduce"
  top: "inception_4a/3x3_reduce"
}
layer {
  name: "inception_4a/3x3"
  type: "Convolution"
  bottom: "inception_4a/3x3_reduce"
  top: "inception_4a/3x3"
  param {
    lr_mult: 1
    decay_mult: 1
  }
  param {
    lr_mult: 2
    decay_mult: 0
  }
  convolution_param {
    num_output: 208
    pad: 1
    kernel_size: 3
    weight_filler {
      type: "xavier"
      std: 0.03
    }
    bias_filler {
      type: "constant"
      value: 0.2
    }
  }
}
layer {
  name: "inception_4a/relu_3x3"
  type: "ReLU"
  bottom: "inception_4a/3x3"
  top: "inception_4a/3x3"
}
layer {
  name: "inception_4a/5x5_reduce"
  type: "Convolution"
  bottom: "pool3/3x3_s2"
  top: "inception_4a/5x5_reduce"
  param {
    lr_mult: 1
    decay_mult: 1
  }
  param {
    lr_mult: 2
    decay_mult: 0
  }
  convolution_param {
    num_output: 16
    kernel_size: 1
    weight_filler {
      type: "xavier"
      std: 0.2
    }
    bias_filler {
      type: "constant"
      value: 0.2
    }
  }
}
layer {
  name: "inception_4a/relu_5x5_reduce"
  type: "ReLU"
  bottom: "inception_4a/5x5_reduce"
  top: "inception_4a/5x5_reduce"
}
layer {
  name: "inception_4a/5x5"
  type: "Convolution"
  bottom: "inception_4a/5x5_reduce"
  top: "inception_4a/5x5"
  param {
    lr_mult: 1
    decay_mult: 1
  }
  param {
    lr_mult: 2
    decay_mult: 0
  }
  convolution_param {
    num_output: 48
    pad: 2
    kernel_size: 5
    weight_filler {
      type: "xavier"
      std: 0.03
    }
    bias_filler {
      type: "constant"
      value: 0.2
    }
  }
}
layer {
  name: "inception_4a/relu_5x5"
  type: "ReLU"
  bottom: "inception_4a/5x5"
  top: "inception_4a/5x5"
}
layer {
  name: "inception_4a/pool"
  type: "Pooling"
  bottom: "pool3/3x3_s2"
  top: "inception_4a/pool"
  pooling_param {
    pool: MAX
    kernel_size: 3
    stride: 1
    pad: 1
  }
}
layer {
  name: "inception_4a/pool_proj"
  type: "Convolution"
  bottom: "inception_4a/pool"
  top: "inception_4a/pool_proj"
  param {
    lr_mult: 1
    decay_mult: 1
  }
  param {
    lr_mult: 2
    decay_mult: 0
  }
  convolution_param {
    num_output: 64
    kernel_size: 1
    weight_filler {
      type: "xavier"
      std: 0.1
    }
    bias_filler {
      type: "constant"
      value: 0.2
    }
  }
}
layer {
  name: "inception_4a/relu_pool_proj"
  type: "ReLU"
  bottom: "inception_4a/pool_proj"
  top: "inception_4a/pool_proj"
}
layer {
  name: "inception_4a/output"
  type: "Concat"
  bottom: "inception_4a/1x1"
  bottom: "inception_4a/3x3"
  bottom: "inception_4a/5x5"
  bottom: "inception_4a/pool_proj"
  top: "inception_4a/output"
}
layer {
  name: "inception_4b/1x1"
  type: "Convolution"
  bottom: "inception_4a/output"
  top: "inception_4b/1x1"
  param {
    lr_mult: 1
    decay_mult: 1
  }
  param {
    lr_mult: 2
    decay_mult: 0
  }
  convolution_param {
    num_output: 160
    kernel_size: 1
    weight_filler {
      type: "xavier"
      std: 0.03
    }
    bias_filler {
      type: "constant"
      value: 0.2
    }
  }
}
layer {
  name: "inception_4b/relu_1x1"
  type: "ReLU"
  bottom: "inception_4b/1x1"
  top: "inception_4b/1x1"
}
layer {
  name: "inception_4b/3x3_reduce"
  type: "Convolution"
  bottom: "inception_4a/output"
  top: "inception_4b/3x3_reduce"
  param {
    lr_mult: 1
    decay_mult: 1
  }
  param {
    lr_mult: 2
    decay_mult: 0
  }
  convolution_param {
    num_output: 112
    kernel_size: 1
    weight_filler {
      type: "xavier"
      std: 0.09
    }
    bias_filler {
      type: "constant"
      value: 0.2
    }
  }
}
layer {
  name: "inception_4b/relu_3x3_reduce"
  type: "ReLU"
  bottom: "inception_4b/3x3_reduce"
  top: "inception_4b/3x3_reduce"
}
layer {
  name: "inception_4b/3x3"
  type: "Convolution"
  bottom: "inception_4b/3x3_reduce"
  top: "inception_4b/3x3"
  param {
    lr_mult: 1
    decay_mult: 1
  }
  param {
    lr_mult: 2
    decay_mult: 0
  }
  convolution_param {
    num_output: 224
    pad: 1
    kernel_size: 3
    weight_filler {
      type: "xavier"
      std: 0.03
    }
    bias_filler {
      type: "constant"
      value: 0.2
    }
  }
}
layer {
  name: "inception_4b/relu_3x3"
  type: "ReLU"
  bottom: "inception_4b/3x3"
  top: "inception_4b/3x3"
}
layer {
  name: "inception_4b/5x5_reduce"
  type: "Convolution"
  bottom: "inception_4a/output"
  top: "inception_4b/5x5_reduce"
  param {
    lr_mult: 1
    decay_mult: 1
  }
  param {
    lr_mult: 2
    decay_mult: 0
  }
  convolution_param {
    num_output: 24
    kernel_size: 1
    weight_filler {
      type: "xavier"
      std: 0.2
    }
    bias_filler {
      type: "constant"
      value: 0.2
    }
  }
}
layer {
  name: "inception_4b/relu_5x5_reduce"
  type: "ReLU"
  bottom: "inception_4b/5x5_reduce"
  top: "inception_4b/5x5_reduce"
}
layer {
  name: "inception_4b/5x5"
  type: "Convolution"
  bottom: "inception_4b/5x5_reduce"
  top: "inception_4b/5x5"
  param {
    lr_mult: 1
    decay_mult: 1
  }
  param {
    lr_mult: 2
    decay_mult: 0
  }
  convolution_param {
    num_output: 64
    pad: 2
    kernel_size: 5
    weight_filler {
      type: "xavier"
      std: 0.03
    }
    bias_filler {
      type: "constant"
      value: 0.2
    }
  }
}
layer {
  name: "inception_4b/relu_5x5"
  type: "ReLU"
  bottom: "inception_4b/5x5"
  top: "inception_4b/5x5"
}
layer {
  name: "inception_4b/pool"
  type: "Pooling"
  bottom: "inception_4a/output"
  top: "inception_4b/pool"
  pooling_param {
    pool: MAX
    kernel_size: 3
    stride: 1
    pad: 1
  }
}
layer {
  name: "inception_4b/pool_proj"
  type: "Convolution"
  bottom: "inception_4b/pool"
  top: "inception_4b/pool_proj"
  param {
    lr_mult: 1
    decay_mult: 1
  }
  param {
    lr_mult: 2
    decay_mult: 0
  }
  convolution_param {
    num_output: 64
    kernel_size: 1
    weight_filler {
      type: "xavier"
      std: 0.1
    }
    bias_filler {
      type: "constant"
      value: 0.2
    }
  }
}
layer {
  name: "inception_4b/relu_pool_proj"
  type: "ReLU"
  bottom: "inception_4b/pool_proj"
  top: "inception_4b/pool_proj"
}
layer {
  name: "inception_4b/output"
  type: "Concat"
  bottom: "inception_4b/1x1"
  bottom: "inception_4b/3x3"
  bottom: "inception_4b/5x5"
  bottom: "inception_4b/pool_proj"
  top: "inception_4b/output"
}
layer {
  name: "inception_4c/1x1"
  type: "Convolution"
  bottom: "inception_4b/output"
  top: "inception_4c/1x1"
  param {
    lr_mult: 1
    decay_mult: 1
  }
  param {
    lr_mult: 2
    decay_mult: 0
  }
  convolution_param {
    num_output: 128
    kernel_size: 1
    weight_filler {
      type: "xavier"
      std: 0.03
    }
    bias_filler {
      type: "constant"
      value: 0.2
    }
  }
}
layer {
  name: "inception_4c/relu_1x1"
  type: "ReLU"
  bottom: "inception_4c/1x1"
  top: "inception_4c/1x1"
}
layer {
  name: "inception_4c/3x3_reduce"
  type: "Convolution"
  bottom: "inception_4b/output"
  top: "inception_4c/3x3_reduce"
  param {
    lr_mult: 1
    decay_mult: 1
  }
  param {
    lr_mult: 2
    decay_mult: 0
  }
  convolution_param {
    num_output: 128
    kernel_size: 1
    weight_filler {
      type: "xavier"
      std: 0.09
    }
    bias_filler {
      type: "constant"
      value: 0.2
    }
  }
}
layer {
  name: "inception_4c/relu_3x3_reduce"
  type: "ReLU"
  bottom: "inception_4c/3x3_reduce"
  top: "inception_4c/3x3_reduce"
}
layer {
  name: "inception_4c/3x3"
  type: "Convolution"
  bottom: "inception_4c/3x3_reduce"
  top: "inception_4c/3x3"
  param {
    lr_mult: 1
    decay_mult: 1
  }
  param {
    lr_mult: 2
    decay_mult: 0
  }
  convolution_param {
    num_output: 256
    pad: 1
    kernel_size: 3
    weight_filler {
      type: "xavier"
      std: 0.03
    }
    bias_filler {
      type: "constant"
      value: 0.2
    }
  }
}
layer {
  name: "inception_4c/relu_3x3"
  type: "ReLU"
  bottom: "inception_4c/3x3"
  top: "inception_4c/3x3"
}
layer {
  name: "inception_4c/5x5_reduce"
  type: "Convolution"
  bottom: "inception_4b/output"
  top: "inception_4c/5x5_reduce"
  param {
    lr_mult: 1
    decay_mult: 1
  }
  param {
    lr_mult: 2
    decay_mult: 0
  }
  convolution_param {
    num_output: 24
    kernel_size: 1
    weight_filler {
      type: "xavier"
      std: 0.2
    }
    bias_filler {
      type: "constant"
      value: 0.2
    }
  }
}
layer {
  name: "inception_4c/relu_5x5_reduce"
  type: "ReLU"
  bottom: "inception_4c/5x5_reduce"
  top: "inception_4c/5x5_reduce"
}
layer {
  name: "inception_4c/5x5"
  type: "Convolution"
  bottom: "inception_4c/5x5_reduce"
  top: "inception_4c/5x5"
  param {
    lr_mult: 1
    decay_mult: 1
  }
  param {
    lr_mult: 2
    decay_mult: 0
  }
  convolution_param {
    num_output: 64
    pad: 2
    kernel_size: 5
    weight_filler {
      type: "xavier"
      std: 0.03
    }
    bias_filler {
      type: "constant"
      value: 0.2
    }
  }
}
layer {
  name: "inception_4c/relu_5x5"
  type: "ReLU"
  bottom: "inception_4c/5x5"
  top: "inception_4c/5x5"
}
layer {
  name: "inception_4c/pool"
  type: "Pooling"
  bottom: "inception_4b/output"
  top: "inception_4c/pool"
  pooling_param {
    pool: MAX
    kernel_size: 3
    stride: 1
    pad: 1
  }
}
layer {
  name: "inception_4c/pool_proj"
  type: "Convolution"
  bottom: "inception_4c/pool"
  top: "inception_4c/pool_proj"
  param {
    lr_mult: 1
    decay_mult: 1
  }
  param {
    lr_mult: 2
    decay_mult: 0
  }
  convolution_param {
    num_output: 64
    kernel_size: 1
    weight_filler {
      type: "xavier"
      std: 0.1
    }
    bias_filler {
      type: "constant"
      value: 0.2
    }
  }
}
layer {
  name: "inception_4c/relu_pool_proj"
  type: "ReLU"
  bottom: "inception_4c/pool_proj"
  top: "inception_4c/pool_proj"
}
layer {
  name: "inception_4c/output"
  type: "Concat"
  bottom: "inception_4c/1x1"
  bottom: "inception_4c/3x3"
  bottom: "inception_4c/5x5"
  bottom: "inception_4c/pool_proj"
  top: "inception_4c/output"
}
layer {
  name: "inception_4d/1x1"
  type: "Convolution"
  bottom: "inception_4c/output"
  top: "inception_4d/1x1"
  param {
    lr_mult: 1
    decay_mult: 1
  }
  param {
    lr_mult: 2
    decay_mult: 0
  }
  convolution_param {
    num_output: 112
    kernel_size: 1
    weight_filler {
      type: "xavier"
      std: 0.03
    }
    bias_filler {
      type: "constant"
      value: 0.2
    }
  }
}
layer {
  name: "inception_4d/relu_1x1"
  type: "ReLU"
  bottom: "inception_4d/1x1"
  top: "inception_4d/1x1"
}
layer {
  name: "inception_4d/3x3_reduce"
  type: "Convolution"
  bottom: "inception_4c/output"
  top: "inception_4d/3x3_reduce"
  param {
    lr_mult: 1
    decay_mult: 1
  }
  param {
    lr_mult: 2
    decay_mult: 0
  }
  convolution_param {
    num_output: 144
    kernel_size: 1
    weight_filler {
      type: "xavier"
      std: 0.09
    }
    bias_filler {
      type: "constant"
      value: 0.2
    }
  }
}
layer {
  name: "inception_4d/relu_3x3_reduce"
  type: "ReLU"
  bottom: "inception_4d/3x3_reduce"
  top: "inception_4d/3x3_reduce"
}
layer {
  name: "inception_4d/3x3"
  type: "Convolution"
  bottom: "inception_4d/3x3_reduce"
  top: "inception_4d/3x3"
  param {
    lr_mult: 1
    decay_mult: 1
  }
  param {
    lr_mult: 2
    decay_mult: 0
  }
  convolution_param {
    num_output: 288
    pad: 1
    kernel_size: 3
    weight_filler {
      type: "xavier"
      std: 0.03
    }
    bias_filler {
      type: "constant"
      value: 0.2
    }
  }
}
layer {
  name: "inception_4d/relu_3x3"
  type: "ReLU"
  bottom: "inception_4d/3x3"
  top: "inception_4d/3x3"
}
layer {
  name: "inception_4d/5x5_reduce"
  type: "Convolution"
  bottom: "inception_4c/output"
  top: "inception_4d/5x5_reduce"
  param {
    lr_mult: 1
    decay_mult: 1
  }
  param {
    lr_mult: 2
    decay_mult: 0
  }
  convolution_param {
    num_output: 32
    kernel_size: 1
    weight_filler {
      type: "xavier"
      std: 0.2
    }
    bias_filler {
      type: "constant"
      value: 0.2
    }
  }
}
layer {
  name: "inception_4d/relu_5x5_reduce"
  type: "ReLU"
  bottom: "inception_4d/5x5_reduce"
  top: "inception_4d/5x5_reduce"
}
layer {
  name: "inception_4d/5x5"
  type: "Convolution"
  bottom: "inception_4d/5x5_reduce"
  top: "inception_4d/5x5"
  param {
    lr_mult: 1
    decay_mult: 1
  }
  param {
    lr_mult: 2
    decay_mult: 0
  }
  convolution_param {
    num_output: 64
    pad: 2
    kernel_size: 5
    weight_filler {
      type: "xavier"
      std: 0.03
    }
    bias_filler {
      type: "constant"
      value: 0.2
    }
  }
}
layer {
  name: "inception_4d/relu_5x5"
  type: "ReLU"
  bottom: "inception_4d/5x5"
  top: "inception_4d/5x5"
}
layer {
  name: "inception_4d/pool"
  type: "Pooling"
  bottom: "inception_4c/output"
  top: "inception_4d/pool"
  pooling_param {
    pool: MAX
    kernel_size: 3
    stride: 1
    pad: 1
  }
}
layer {
  name: "inception_4d/pool_proj"
  type: "Convolution"
  bottom: "inception_4d/pool"
  top: "inception_4d/pool_proj"
  param {
    lr_mult: 1
    decay_mult: 1
  }
  param {
    lr_mult: 2
    decay_mult: 0
  }
  convolution_param {
    num_output: 64
    kernel_size: 1
    weight_filler {
      type: "xavier"
      std: 0.1
    }
    bias_filler {
      type: "constant"
      value: 0.2
    }
  }
}
layer {
  name: "inception_4d/relu_pool_proj"
  type: "ReLU"
  bottom: "inception_4d/pool_proj"
  top: "inception_4d/pool_proj"
}
layer {
  name: "inception_4d/output"
  type: "Concat"
  bottom: "inception_4d/1x1"
  bottom: "inception_4d/3x3"
  bottom: "inception_4d/5x5"
  bottom: "inception_4d/pool_proj"
  top: "inception_4d/output"
}
layer {
  name: "inception_4e/1x1"
  type: "Convolution"
  bottom: "inception_4d/output"
  top: "inception_4e/1x1"
  param {
    lr_mult: 1
    decay_mult: 1
  }
  param {
    lr_mult: 2
    decay_mult: 0
  }
  convolution_param {
    num_output: 256
    kernel_size: 1
    weight_filler {
      type: "xavier"
      std: 0.03
    }
    bias_filler {
      type: "constant"
      value: 0.2
    }
  }
}
layer {
  name: "inception_4e/relu_1x1"
  type: "ReLU"
  bottom: "inception_4e/1x1"
  top: "inception_4e/1x1"
}
layer {
  name: "inception_4e/3x3_reduce"
  type: "Convolution"
  bottom: "inception_4d/output"
  top: "inception_4e/3x3_reduce"
  param {
    lr_mult: 1
    decay_mult: 1
  }
  param {
    lr_mult: 2
    decay_mult: 0
  }
  convolution_param {
    num_output: 160
    kernel_size: 1
    weight_filler {
      type: "xavier"
      std: 0.09
    }
    bias_filler {
      type: "constant"
      value: 0.2
    }
  }
}
layer {
  name: "inception_4e/relu_3x3_reduce"
  type: "ReLU"
  bottom: "inception_4e/3x3_reduce"
  top: "inception_4e/3x3_reduce"
}
layer {
  name: "inception_4e/3x3"
  type: "Convolution"
  bottom: "inception_4e/3x3_reduce"
  top: "inception_4e/3x3"
  param {
    lr_mult: 1
    decay_mult: 1
  }
  param {
    lr_mult: 2
    decay_mult: 0
  }
  convolution_param {
    num_output: 320
    pad: 1
    kernel_size: 3
    weight_filler {
      type: "xavier"
      std: 0.03
    }
    bias_filler {
      type: "constant"
      value: 0.2
    }
  }
}
layer {
  name: "inception_4e/relu_3x3"
  type: "ReLU"
  bottom: "inception_4e/3x3"
  top: "inception_4e/3x3"
}
layer {
  name: "inception_4e/5x5_reduce"
  type: "Convolution"
  bottom: "inception_4d/output"
  top: "inception_4e/5x5_reduce"
  param {
    lr_mult: 1
    decay_mult: 1
  }
  param {
    lr_mult: 2
    decay_mult: 0
  }
  convolution_param {
    num_output: 32
    kernel_size: 1
    weight_filler {
      type: "xavier"
      std: 0.2
    }
    bias_filler {
      type: "constant"
      value: 0.2
    }
  }
}
layer {
  name: "inception_4e/relu_5x5_reduce"
  type: "ReLU"
  bottom: "inception_4e/5x5_reduce"
  top: "inception_4e/5x5_reduce"
}
layer {
  name: "inception_4e/5x5"
  type: "Convolution"
  bottom: "inception_4e/5x5_reduce"
  top: "inception_4e/5x5"
  param {
    lr_mult: 1
    decay_mult: 1
  }
  param {
    lr_mult: 2
    decay_mult: 0
  }
  convolution_param {
    num_output: 128
    pad: 2
    kernel_size: 5
    weight_filler {
      type: "xavier"
      std: 0.03
    }
    bias_filler {
      type: "constant"
      value: 0.2
    }
  }
}
layer {
  name: "inception_4e/relu_5x5"
  type: "ReLU"
  bottom: "inception_4e/5x5"
  top: "inception_4e/5x5"
}
layer {
  name: "inception_4e/pool"
  type: "Pooling"
  bottom: "inception_4d/output"
  top: "inception_4e/pool"
  pooling_param {
    pool: MAX
    kernel_size: 3
    stride: 1
    pad: 1
  }
}
layer {
  name: "inception_4e/pool_proj"
  type: "Convolution"
  bottom: "inception_4e/pool"
  top: "inception_4e/pool_proj"
  param {
    lr_mult: 1
    decay_mult: 1
  }
  param {
    lr_mult: 2
    decay_mult: 0
  }
  convolution_param {
    num_output: 128
    kernel_size: 1
    weight_filler {
      type: "xavier"
      std: 0.1
    }
    bias_filler {
      type: "constant"
      value: 0.2
    }
  }
}
layer {
  name: "inception_4e/relu_pool_proj"
  type: "ReLU"
  bottom: "inception_4e/pool_proj"
  top: "inception_4e/pool_proj"
}
layer {
  name: "inception_4e/output"
  type: "Concat"
  bottom: "inception_4e/1x1"
  bottom: "inception_4e/3x3"
  bottom: "inception_4e/5x5"
  bottom: "inception_4e/pool_proj"
  top: "inception_4e/output"
}
layer {
  name: "pool4/3x3_s2"
  type: "Pooling"
  bottom: "inception_4e/output"
  top: "pool4/3x3_s2"
  pooling_param {
    pool: MAX
    kernel_size: 3
    stride: 2
  }
}
layer {
  name: "inception_5a/1x1"
  type: "Convolution"
  bottom: "pool4/3x3_s2"
  top: "inception_5a/1x1"
  param {
    lr_mult: 1
    decay_mult: 1
  }
  param {
    lr_mult: 2
    decay_mult: 0
  }
  convolution_param {
    num_output: 256
    kernel_size: 1
    weight_filler {
      type: "xavier"
      std: 0.03
    }
    bias_filler {
      type: "constant"
      value: 0.2
    }
  }
}
layer {
  name: "inception_5a/relu_1x1"
  type: "ReLU"
  bottom: "inception_5a/1x1"
  top: "inception_5a/1x1"
}
layer {
  name: "inception_5a/3x3_reduce"
  type: "Convolution"
  bottom: "pool4/3x3_s2"
  top: "inception_5a/3x3_reduce"
  param {
    lr_mult: 1
    decay_mult: 1
  }
  param {
    lr_mult: 2
    decay_mult: 0
  }
  convolution_param {
    num_output: 160
    kernel_size: 1
    weight_filler {
      type: "xavier"
      std: 0.09
    }
    bias_filler {
      type: "constant"
      value: 0.2
    }
  }
}
layer {
  name: "inception_5a/relu_3x3_reduce"
  type: "ReLU"
  bottom: "inception_5a/3x3_reduce"
  top: "inception_5a/3x3_reduce"
}
layer {
  name: "inception_5a/3x3"
  type: "Convolution"
  bottom: "inception_5a/3x3_reduce"
  top: "inception_5a/3x3"
  param {
    lr_mult: 1
    decay_mult: 1
  }
  param {
    lr_mult: 2
    decay_mult: 0
  }
  convolution_param {
    num_output: 320
    pad: 1
    kernel_size: 3
    weight_filler {
      type: "xavier"
      std: 0.03
    }
    bias_filler {
      type: "constant"
      value: 0.2
    }
  }
}
layer {
  name: "inception_5a/relu_3x3"
  type: "ReLU"
  bottom: "inception_5a/3x3"
  top: "inception_5a/3x3"
}
layer {
  name: "inception_5a/5x5_reduce"
  type: "Convolution"
  bottom: "pool4/3x3_s2"
  top: "inception_5a/5x5_reduce"
  param {
    lr_mult: 1
    decay_mult: 1
  }
  param {
    lr_mult: 2
    decay_mult: 0
  }
  convolution_param {
    num_output: 32
    kernel_size: 1
    weight_filler {
      type: "xavier"
      std: 0.2
    }
    bias_filler {
      type: "constant"
      value: 0.2
    }
I0714 21:35:47.161098  1716 layer_factory.hpp:77] Creating layer data
I0714 21:35:47.161119  1716 net.cpp:91] Creating Layer data
I0714 21:35:47.161128  1716 net.cpp:399] data -> data
I0714 21:35:48.163669  1720 net.cpp:141] Setting up data
I0714 21:35:48.163745  1720 net.cpp:148] Top shape: 10 3 224 224 (1505280)
I0714 21:35:48.163753  1720 net.cpp:156] Memory required for data: 6021120
I0714 21:35:48.163775  1720 layer_factory.hpp:77] Creating layer conv1/7x7_s2
I0714 21:35:48.163815  1720 net.cpp:91] Creating Layer conv1/7x7_s2
I0714 21:35:48.163826  1720 net.cpp:425] conv1/7x7_s2 <- data
I0714 21:35:48.163841  1720 net.cpp:399] conv1/7x7_s2 -> conv1/7x7_s2
I0714 21:35:48.166074  1716 net.cpp:141] Setting up data
I0714 21:35:48.166120  1716 net.cpp:148] Top shape: 10 3 224 224 (1505280)
I0714 21:35:48.166126  1716 net.cpp:156] Memory required for data: 6021120
I0714 21:35:48.166136  1716 layer_factory.hpp:77] Creating layer conv1/7x7_s2
I0714 21:35:48.166167  1716 net.cpp:91] Creating Layer conv1/7x7_s2
I0714 21:35:48.166173  1716 net.cpp:425] conv1/7x7_s2 <- data
I0714 21:35:48.166185  1716 net.cpp:399] conv1/7x7_s2 -> conv1/7x7_s2
I0714 21:35:48.563846  1720 net.cpp:141] Setting up conv1/7x7_s2
I0714 21:35:48.563925  1720 net.cpp:148] Top shape: 10 64 112 112 (8028160)
I0714 21:35:48.563931  1720 net.cpp:156] Memory required for data: 38133760
I0714 21:35:48.563963  1720 layer_factory.hpp:77] Creating layer conv1/relu_7x7
I0714 21:35:48.563985  1720 net.cpp:91] Creating Layer conv1/relu_7x7
I0714 21:35:48.563993  1720 net.cpp:425] conv1/relu_7x7 <- conv1/7x7_s2
I0714 21:35:48.564002  1720 net.cpp:386] conv1/relu_7x7 -> conv1/7x7_s2 (in-place)
I0714 21:35:48.565153  1720 net.cpp:141] Setting up conv1/relu_7x7
I0714 21:35:48.565183  1720 net.cpp:148] Top shape: 10 64 112 112 (8028160)
I0714 21:35:48.565189  1720 net.cpp:156] Memory required for data: 70246400
I0714 21:35:48.565196  1720 layer_factory.hpp:77] Creating layer pool1/3x3_s2
I0714 21:35:48.565210  1720 net.cpp:91] Creating Layer pool1/3x3_s2
I0714 21:35:48.565217  1720 net.cpp:425] pool1/3x3_s2 <- conv1/7x7_s2
I0714 21:35:48.565224  1720 net.cpp:399] pool1/3x3_s2 -> pool1/3x3_s2
I0714 21:35:48.565222  1716 net.cpp:141] Setting up conv1/7x7_s2
I0714 21:35:48.565242  1716 net.cpp:148] Top shape: 10 64 112 112 (8028160)
I0714 21:35:48.565248  1716 net.cpp:156] Memory required for data: 38133760
I0714 21:35:48.565263  1716 layer_factory.hpp:77] Creating layer conv1/relu_7x7
I0714 21:35:48.565274  1716 net.cpp:91] Creating Layer conv1/relu_7x7
I0714 21:35:48.565280  1716 net.cpp:425] conv1/relu_7x7 <- conv1/7x7_s2
I0714 21:35:48.565287  1716 net.cpp:386] conv1/relu_7x7 -> conv1/7x7_s2 (in-place)
I0714 21:35:48.565950  1720 net.cpp:141] Setting up pool1/3x3_s2
I0714 21:35:48.565965  1720 net.cpp:148] Top shape: 10 64 56 56 (2007040)
I0714 21:35:48.565970  1720 net.cpp:156] Memory required for data: 78274560
I0714 21:35:48.565975  1720 layer_factory.hpp:77] Creating layer pool1/norm1
I0714 21:35:48.565996  1720 net.cpp:91] Creating Layer pool1/norm1
I0714 21:35:48.566002  1720 net.cpp:425] pool1/norm1 <- pool1/3x3_s2
I0714 21:35:48.566009  1720 net.cpp:399] pool1/norm1 -> pool1/norm1
I0714 21:35:48.566025  1716 net.cpp:141] Setting up conv1/relu_7x7
I0714 21:35:48.566040  1716 net.cpp:148] Top shape: 10 64 112 112 (8028160)
I0714 21:35:48.566045  1716 net.cpp:156] Memory required for data: 70246400
I0714 21:35:48.566051  1716 layer_factory.hpp:77] Creating layer pool1/3x3_s2
I0714 21:35:48.566061  1716 net.cpp:91] Creating Layer pool1/3x3_s2
I0714 21:35:48.566066  1716 net.cpp:425] pool1/3x3_s2 <- conv1/7x7_s2
I0714 21:35:48.566073  1716 net.cpp:399] pool1/3x3_s2 -> pool1/3x3_s2
I0714 21:35:48.566723  1716 net.cpp:141] Setting up pool1/3x3_s2
I0714 21:35:48.566738  1716 net.cpp:148] Top shape: 10 64 56 56 (2007040)
I0714 21:35:48.566743  1716 net.cpp:156] Memory required for data: 78274560
I0714 21:35:48.566750  1716 layer_factory.hpp:77] Creating layer pool1/norm1
I0714 21:35:48.566761  1716 net.cpp:91] Creating Layer pool1/norm1
I0714 21:35:48.566766  1716 net.cpp:425] pool1/norm1 <- pool1/3x3_s2
I0714 21:35:48.566773  1716 net.cpp:399] pool1/norm1 -> pool1/norm1
I0714 21:35:48.567523  1720 net.cpp:141] Setting up pool1/norm1
I0714 21:35:48.567553  1720 net.cpp:148] Top shape: 10 64 56 56 (2007040)
I0714 21:35:48.567559  1720 net.cpp:156] Memory required for data: 86302720
I0714 21:35:48.567564  1720 layer_factory.hpp:77] Creating layer conv2/3x3_reduce
I0714 21:35:48.567587  1720 net.cpp:91] Creating Layer conv2/3x3_reduce
I0714 21:35:48.567594  1720 net.cpp:425] conv2/3x3_reduce <- pool1/norm1
I0714 21:35:48.567601  1720 net.cpp:399] conv2/3x3_reduce -> conv2/3x3_reduce
I0714 21:35:48.567667  1716 net.cpp:141] Setting up pool1/norm1
I0714 21:35:48.567680  1716 net.cpp:148] Top shape: 10 64 56 56 (2007040)
I0714 21:35:48.567685  1716 net.cpp:156] Memory required for data: 86302720
I0714 21:35:48.567692  1716 layer_factory.hpp:77] Creating layer conv2/3x3_reduce
I0714 21:35:48.567706  1716 net.cpp:91] Creating Layer conv2/3x3_reduce
I0714 21:35:48.567713  1716 net.cpp:425] conv2/3x3_reduce <- pool1/norm1
I0714 21:35:48.567720  1716 net.cpp:399] conv2/3x3_reduce -> conv2/3x3_reduce
I0714 21:35:48.572142  1720 net.cpp:141] Setting up conv2/3x3_reduce
I0714 21:35:48.572175  1720 net.cpp:148] Top shape: 10 64 56 56 (2007040)
I0714 21:35:48.572181  1720 net.cpp:156] Memory required for data: 94330880
I0714 21:35:48.572194  1720 layer_factory.hpp:77] Creating layer conv2/relu_3x3_reduce
I0714 21:35:48.572206  1720 net.cpp:91] Creating Layer conv2/relu_3x3_reduce
I0714 21:35:48.572211  1720 net.cpp:425] conv2/relu_3x3_reduce <- conv2/3x3_reduce
I0714 21:35:48.572217  1720 net.cpp:386] conv2/relu_3x3_reduce -> conv2/3x3_reduce (in-place)
I0714 21:35:48.573015  1720 net.cpp:141] Setting up conv2/relu_3x3_reduce
I0714 21:35:48.573031  1720 net.cpp:148] Top shape: 10 64 56 56 (2007040)
I0714 21:35:48.573050  1720 net.cpp:156] Memory required for data: 102359040
I0714 21:35:48.573058  1720 layer_factory.hpp:77] Creating layer conv2/3x3
I0714 21:35:48.573076  1720 net.cpp:91] Creating Layer conv2/3x3
I0714 21:35:48.573081  1720 net.cpp:425] conv2/3x3 <- conv2/3x3_reduce
I0714 21:35:48.573089  1720 net.cpp:399] conv2/3x3 -> conv2/3x3
I0714 21:35:48.575534  1716 net.cpp:141] Setting up conv2/3x3_reduce
I0714 21:35:48.575569  1716 net.cpp:148] Top shape: 10 64 56 56 (2007040)
I0714 21:35:48.575577  1716 net.cpp:156] Memory required for data: 94330880
I0714 21:35:48.575589  1716 layer_factory.hpp:77] Creating layer conv2/relu_3x3_reduce
I0714 21:35:48.575599  1716 net.cpp:91] Creating Layer conv2/relu_3x3_reduce
I0714 21:35:48.575605  1716 net.cpp:425] conv2/relu_3x3_reduce <- conv2/3x3_reduce
I0714 21:35:48.575613  1716 net.cpp:386] conv2/relu_3x3_reduce -> conv2/3x3_reduce (in-place)
I0714 21:35:48.576392  1716 net.cpp:141] Setting up conv2/relu_3x3_reduce
I0714 21:35:48.576421  1716 net.cpp:148] Top shape: 10 64 56 56 (2007040)
I0714 21:35:48.576426  1716 net.cpp:156] Memory required for data: 102359040
I0714 21:35:48.576432  1716 layer_factory.hpp:77] Creating layer conv2/3x3
I0714 21:35:48.576448  1716 net.cpp:91] Creating Layer conv2/3x3
I0714 21:35:48.576457  1716 net.cpp:425] conv2/3x3 <- conv2/3x3_reduce
I0714 21:35:48.576472  1716 net.cpp:399] conv2/3x3 -> conv2/3x3
I0714 21:35:48.579848  1720 net.cpp:141] Setting up conv2/3x3
I0714 21:35:48.579879  1720 net.cpp:148] Top shape: 10 192 56 56 (6021120)
I0714 21:35:48.579885  1720 net.cpp:156] Memory required for data: 126443520
I0714 21:35:48.579898  1720 layer_factory.hpp:77] Creating layer conv2/relu_3x3
I0714 21:35:48.579910  1720 net.cpp:91] Creating Layer conv2/relu_3x3
I0714 21:35:48.579916  1720 net.cpp:425] conv2/relu_3x3 <- conv2/3x3
I0714 21:35:48.579923  1720 net.cpp:386] conv2/relu_3x3 -> conv2/3x3 (in-place)
I0714 21:35:48.580376  1720 net.cpp:141] Setting up conv2/relu_3x3
I0714 21:35:48.580395  1720 net.cpp:148] Top shape: 10 192 56 56 (6021120)
I0714 21:35:48.580404  1720 net.cpp:156] Memory required for data: 150528000
I0714 21:35:48.580412  1720 layer_factory.hpp:77] Creating layer conv2/norm2
I0714 21:35:48.580427  1720 net.cpp:91] Creating Layer conv2/norm2
I0714 21:35:48.580436  1720 net.cpp:425] conv2/norm2 <- conv2/3x3
I0714 21:35:48.580448  1720 net.cpp:399] conv2/norm2 -> conv2/norm2
I0714 21:35:48.582089  1720 net.cpp:141] Setting up conv2/norm2
I0714 21:35:48.582118  1720 net.cpp:148] Top shape: 10 192 56 56 (6021120)
I0714 21:35:48.582124  1720 net.cpp:156] Memory required for data: 174612480
I0714 21:35:48.582131  1720 layer_factory.hpp:77] Creating layer pool2/3x3_s2
I0714 21:35:48.582142  1720 net.cpp:91] Creating Layer pool2/3x3_s2
I0714 21:35:48.582149  1720 net.cpp:425] pool2/3x3_s2 <- conv2/norm2
I0714 21:35:48.582156  1720 net.cpp:399] pool2/3x3_s2 -> pool2/3x3_s2
I0714 21:35:48.582319  1720 net.cpp:141] Setting up pool2/3x3_s2
I0714 21:35:48.582330  1720 net.cpp:148] Top shape: 10 192 28 28 (1505280)
I0714 21:35:48.582335  1720 net.cpp:156] Memory required for data: 180633600
I0714 21:35:48.582341  1720 layer_factory.hpp:77] Creating layer pool2/3x3_s2_pool2/3x3_s2_0_split
I0714 21:35:48.582360  1720 net.cpp:91] Creating Layer pool2/3x3_s2_pool2/3x3_s2_0_split
I0714 21:35:48.582365  1720 net.cpp:425] pool2/3x3_s2_pool2/3x3_s2_0_split <- pool2/3x3_s2
I0714 21:35:48.582377  1720 net.cpp:399] pool2/3x3_s2_pool2/3x3_s2_0_split -> pool2/3x3_s2_pool2/3x3_s2_0_split_0
I0714 21:35:48.582388  1720 net.cpp:399] pool2/3x3_s2_pool2/3x3_s2_0_split -> pool2/3x3_s2_pool2/3x3_s2_0_split_1
I0714 21:35:48.582397  1720 net.cpp:399] pool2/3x3_s2_pool2/3x3_s2_0_split -> pool2/3x3_s2_pool2/3x3_s2_0_split_2
I0714 21:35:48.582406  1720 net.cpp:399] pool2/3x3_s2_pool2/3x3_s2_0_split -> pool2/3x3_s2_pool2/3x3_s2_0_split_3
I0714 21:35:48.583106  1716 net.cpp:141] Setting up conv2/3x3
I0714 21:35:48.583125  1716 net.cpp:148] Top shape: 10 192 56 56 (6021120)
I0714 21:35:48.583132  1716 net.cpp:156] Memory required for data: 126443520
I0714 21:35:48.583145  1716 layer_factory.hpp:77] Creating layer conv2/relu_3x3
I0714 21:35:48.583156  1716 net.cpp:91] Creating Layer conv2/relu_3x3
I0714 21:35:48.583158  1720 net.cpp:141] Setting up pool2/3x3_s2_pool2/3x3_s2_0_split
I0714 21:35:48.583163  1716 net.cpp:425] conv2/relu_3x3 <- conv2/3x3
I0714 21:35:48.583170  1720 net.cpp:148] Top shape: 10 192 28 28 (1505280)
I0714 21:35:48.583171  1716 net.cpp:386] conv2/relu_3x3 -> conv2/3x3 (in-place)
I0714 21:35:48.583180  1720 net.cpp:148] Top shape: 10 192 28 28 (1505280)
I0714 21:35:48.583186  1720 net.cpp:148] Top shape: 10 192 28 28 (1505280)
I0714 21:35:48.583192  1720 net.cpp:148] Top shape: 10 192 28 28 (1505280)
I0714 21:35:48.583196  1720 net.cpp:156] Memory required for data: 204718080
I0714 21:35:48.583201  1720 layer_factory.hpp:77] Creating layer inception_3a/1x1
I0714 21:35:48.583219  1720 net.cpp:91] Creating Layer inception_3a/1x1
I0714 21:35:48.583225  1720 net.cpp:425] inception_3a/1x1 <- pool2/3x3_s2_pool2/3x3_s2_0_split_0
I0714 21:35:48.583256  1720 net.cpp:399] inception_3a/1x1 -> inception_3a/1x1
I0714 21:35:48.583528  1716 net.cpp:141] Setting up conv2/relu_3x3
I0714 21:35:48.583540  1716 net.cpp:148] Top shape: 10 192 56 56 (6021120)
I0714 21:35:48.583546  1716 net.cpp:156] Memory required for data: 150528000
I0714 21:35:48.583552  1716 layer_factory.hpp:77] Creating layer conv2/norm2
I0714 21:35:48.583562  1716 net.cpp:91] Creating Layer conv2/norm2
I0714 21:35:48.583569  1716 net.cpp:425] conv2/norm2 <- conv2/3x3
I0714 21:35:48.583575  1716 net.cpp:399] conv2/norm2 -> conv2/norm2
I0714 21:35:48.584486  1716 net.cpp:141] Setting up conv2/norm2
I0714 21:35:48.584501  1716 net.cpp:148] Top shape: 10 192 56 56 (6021120)
I0714 21:35:48.584506  1716 net.cpp:156] Memory required for data: 174612480
I0714 21:35:48.584511  1716 layer_factory.hpp:77] Creating layer pool2/3x3_s2
I0714 21:35:48.584527  1716 net.cpp:91] Creating Layer pool2/3x3_s2
I0714 21:35:48.584532  1716 net.cpp:425] pool2/3x3_s2 <- conv2/norm2
I0714 21:35:48.584540  1716 net.cpp:399] pool2/3x3_s2 -> pool2/3x3_s2
I0714 21:35:48.584816  1716 net.cpp:141] Setting up pool2/3x3_s2
I0714 21:35:48.584828  1716 net.cpp:148] Top shape: 10 192 28 28 (1505280)
I0714 21:35:48.584833  1716 net.cpp:156] Memory required for data: 180633600
I0714 21:35:48.584839  1716 layer_factory.hpp:77] Creating layer pool2/3x3_s2_pool2/3x3_s2_0_split
I0714 21:35:48.584848  1716 net.cpp:91] Creating Layer pool2/3x3_s2_pool2/3x3_s2_0_split
I0714 21:35:48.584853  1716 net.cpp:425] pool2/3x3_s2_pool2/3x3_s2_0_split <- pool2/3x3_s2
I0714 21:35:48.584861  1716 net.cpp:399] pool2/3x3_s2_pool2/3x3_s2_0_split -> pool2/3x3_s2_pool2/3x3_s2_0_split_0
I0714 21:35:48.584872  1716 net.cpp:399] pool2/3x3_s2_pool2/3x3_s2_0_split -> pool2/3x3_s2_pool2/3x3_s2_0_split_1
I0714 21:35:48.584879  1716 net.cpp:399] pool2/3x3_s2_pool2/3x3_s2_0_split -> pool2/3x3_s2_pool2/3x3_s2_0_split_2
I0714 21:35:48.584888  1716 net.cpp:399] pool2/3x3_s2_pool2/3x3_s2_0_split -> pool2/3x3_s2_pool2/3x3_s2_0_split_3
I0714 21:35:48.585741  1716 net.cpp:141] Setting up pool2/3x3_s2_pool2/3x3_s2_0_split
I0714 21:35:48.585753  1716 net.cpp:148] Top shape: 10 192 28 28 (1505280)
I0714 21:35:48.585760  1716 net.cpp:148] Top shape: 10 192 28 28 (1505280)
I0714 21:35:48.585765  1716 net.cpp:148] Top shape: 10 192 28 28 (1505280)
I0714 21:35:48.585772  1716 net.cpp:148] Top shape: 10 192 28 28 (1505280)
I0714 21:35:48.585775  1716 net.cpp:156] Memory required for data: 204718080
I0714 21:35:48.585780  1716 layer_factory.hpp:77] Creating layer inception_3a/1x1
I0714 21:35:48.585808  1716 net.cpp:91] Creating Layer inception_3a/1x1
I0714 21:35:48.585815  1716 net.cpp:425] inception_3a/1x1 <- pool2/3x3_s2_pool2/3x3_s2_0_split_0
I0714 21:35:48.585825  1716 net.cpp:399] inception_3a/1x1 -> inception_3a/1x1
I0714 21:35:48.589113  1720 net.cpp:141] Setting up inception_3a/1x1
I0714 21:35:48.589143  1720 net.cpp:148] Top shape: 10 64 28 28 (501760)
I0714 21:35:48.589149  1720 net.cpp:156] Memory required for data: 206725120
I0714 21:35:48.589160  1720 layer_factory.hpp:77] Creating layer inception_3a/relu_1x1
I0714 21:35:48.589169  1720 net.cpp:91] Creating Layer inception_3a/relu_1x1
I0714 21:35:48.589174  1720 net.cpp:425] inception_3a/relu_1x1 <- inception_3a/1x1
I0714 21:35:48.589185  1720 net.cpp:386] inception_3a/relu_1x1 -> inception_3a/1x1 (in-place)
I0714 21:35:48.589529  1720 net.cpp:141] Setting up inception_3a/relu_1x1
I0714 21:35:48.589541  1720 net.cpp:148] Top shape: 10 64 28 28 (501760)
I0714 21:35:48.589546  1720 net.cpp:156] Memory required for data: 208732160
I0714 21:35:48.589551  1720 layer_factory.hpp:77] Creating layer inception_3a/3x3_reduce
I0714 21:35:48.589570  1720 net.cpp:91] Creating Layer inception_3a/3x3_reduce
I0714 21:35:48.589577  1720 net.cpp:425] inception_3a/3x3_reduce <- pool2/3x3_s2_pool2/3x3_s2_0_split_1
I0714 21:35:48.589586  1720 net.cpp:399] inception_3a/3x3_reduce -> inception_3a/3x3_reduce
I0714 21:35:48.594938  1716 net.cpp:141] Setting up inception_3a/1x1
I0714 21:35:48.594970  1716 net.cpp:148] Top shape: 10 64 28 28 (501760)
I0714 21:35:48.594976  1716 net.cpp:156] Memory required for data: 206725120
I0714 21:35:48.594986  1716 layer_factory.hpp:77] Creating layer inception_3a/relu_1x1
I0714 21:35:48.594996  1716 net.cpp:91] Creating Layer inception_3a/relu_1x1
I0714 21:35:48.595001  1716 net.cpp:425] inception_3a/relu_1x1 <- inception_3a/1x1
I0714 21:35:48.595015  1716 net.cpp:386] inception_3a/relu_1x1 -> inception_3a/1x1 (in-place)
I0714 21:35:48.595276  1716 net.cpp:141] Setting up inception_3a/relu_1x1
I0714 21:35:48.595291  1716 net.cpp:148] Top shape: 10 64 28 28 (501760)
I0714 21:35:48.595296  1716 net.cpp:156] Memory required for data: 208732160
I0714 21:35:48.595301  1716 layer_factory.hpp:77] Creating layer inception_3a/3x3_reduce
I0714 21:35:48.595319  1716 net.cpp:91] Creating Layer inception_3a/3x3_reduce
I0714 21:35:48.595325  1716 net.cpp:425] inception_3a/3x3_reduce <- pool2/3x3_s2_pool2/3x3_s2_0_split_1
I0714 21:35:48.595335  1716 net.cpp:399] inception_3a/3x3_reduce -> inception_3a/3x3_reduce
I0714 21:35:48.599359  1720 net.cpp:141] Setting up inception_3a/3x3_reduce
I0714 21:35:48.599390  1720 net.cpp:148] Top shape: 10 96 28 28 (752640)
I0714 21:35:48.599396  1720 net.cpp:156] Memory required for data: 211742720
I0714 21:35:48.599411  1720 layer_factory.hpp:77] Creating layer inception_3a/relu_3x3_reduce
I0714 21:35:48.599424  1720 net.cpp:91] Creating Layer inception_3a/relu_3x3_reduce
I0714 21:35:48.599431  1720 net.cpp:425] inception_3a/relu_3x3_reduce <- inception_3a/3x3_reduce
I0714 21:35:48.599439  1720 net.cpp:386] inception_3a/relu_3x3_reduce -> inception_3a/3x3_reduce (in-place)
I0714 21:35:48.599750  1720 net.cpp:141] Setting up inception_3a/relu_3x3_reduce
I0714 21:35:48.599761  1720 net.cpp:148] Top shape: 10 96 28 28 (752640)
I0714 21:35:48.599766  1720 net.cpp:156] Memory required for data: 214753280
I0714 21:35:48.599771  1720 layer_factory.hpp:77] Creating layer inception_3a/3x3
I0714 21:35:48.599792  1720 net.cpp:91] Creating Layer inception_3a/3x3
I0714 21:35:48.599799  1720 net.cpp:425] inception_3a/3x3 <- inception_3a/3x3_reduce
I0714 21:35:48.599809  1720 net.cpp:399] inception_3a/3x3 -> inception_3a/3x3
I0714 21:35:48.601022  1716 net.cpp:141] Setting up inception_3a/3x3_reduce
I0714 21:35:48.601040  1716 net.cpp:148] Top shape: 10 96 28 28 (752640)
I0714 21:35:48.601049  1716 net.cpp:156] Memory required for data: 211742720
I0714 21:35:48.601075  1716 layer_factory.hpp:77] Creating layer inception_3a/relu_3x3_reduce
I0714 21:35:48.601089  1716 net.cpp:91] Creating Layer inception_3a/relu_3x3_reduce
I0714 21:35:48.601099  1716 net.cpp:425] inception_3a/relu_3x3_reduce <- inception_3a/3x3_reduce
I0714 21:35:48.601110  1716 net.cpp:386] inception_3a/relu_3x3_reduce -> inception_3a/3x3_reduce (in-place)
I0714 21:35:48.601459  1716 net.cpp:141] Setting up inception_3a/relu_3x3_reduce
I0714 21:35:48.601477  1716 net.cpp:148] Top shape: 10 96 28 28 (752640)
I0714 21:35:48.601487  1716 net.cpp:156] Memory required for data: 214753280
I0714 21:35:48.601495  1716 layer_factory.hpp:77] Creating layer inception_3a/3x3
I0714 21:35:48.601527  1716 net.cpp:91] Creating Layer inception_3a/3x3
I0714 21:35:48.601539  1716 net.cpp:425] inception_3a/3x3 <- inception_3a/3x3_reduce
I0714 21:35:48.601562  1716 net.cpp:399] inception_3a/3x3 -> inception_3a/3x3
I0714 21:35:48.604182  1720 net.cpp:141] Setting up inception_3a/3x3
I0714 21:35:48.604202  1720 net.cpp:148] Top shape: 10 128 28 28 (1003520)
I0714 21:35:48.604207  1720 net.cpp:156] Memory required for data: 218767360
I0714 21:35:48.604218  1720 layer_factory.hpp:77] Creating layer inception_3a/relu_3x3
I0714 21:35:48.604228  1720 net.cpp:91] Creating Layer inception_3a/relu_3x3
I0714 21:35:48.604233  1720 net.cpp:425] inception_3a/relu_3x3 <- inception_3a/3x3
I0714 21:35:48.604245  1720 net.cpp:386] inception_3a/relu_3x3 -> inception_3a/3x3 (in-place)
I0714 21:35:48.605664  1720 net.cpp:141] Setting up inception_3a/relu_3x3
I0714 21:35:48.605679  1720 net.cpp:148] Top shape: 10 128 28 28 (1003520)
I0714 21:35:48.605684  1720 net.cpp:156] Memory required for data: 222781440
I0714 21:35:48.605690  1720 layer_factory.hpp:77] Creating layer inception_3a/5x5_reduce
I0714 21:35:48.605710  1720 net.cpp:91] Creating Layer inception_3a/5x5_reduce
I0714 21:35:48.605717  1720 net.cpp:425] inception_3a/5x5_reduce <- pool2/3x3_s2_pool2/3x3_s2_0_split_2
I0714 21:35:48.605731  1720 net.cpp:399] inception_3a/5x5_reduce -> inception_3a/5x5_reduce
I0714 21:35:48.608620  1716 net.cpp:141] Setting up inception_3a/3x3
I0714 21:35:48.608647  1716 net.cpp:148] Top shape: 10 128 28 28 (1003520)
I0714 21:35:48.608657  1716 net.cpp:156] Memory required for data: 218767360
I0714 21:35:48.608675  1716 layer_factory.hpp:77] Creating layer inception_3a/relu_3x3
I0714 21:35:48.608692  1716 net.cpp:91] Creating Layer inception_3a/relu_3x3
I0714 21:35:48.608703  1716 net.cpp:425] inception_3a/relu_3x3 <- inception_3a/3x3
I0714 21:35:48.608723  1716 net.cpp:386] inception_3a/relu_3x3 -> inception_3a/3x3 (in-place)
I0714 21:35:48.610286  1716 net.cpp:141] Setting up inception_3a/relu_3x3
I0714 21:35:48.610312  1716 net.cpp:148] Top shape: 10 128 28 28 (1003520)
I0714 21:35:48.610321  1716 net.cpp:156] Memory required for data: 222781440
I0714 21:35:48.610326  1720 net.cpp:141] Setting up inception_3a/5x5_reduce
I0714 21:35:48.610332  1716 layer_factory.hpp:77] Creating layer inception_3a/5x5_reduce
I0714 21:35:48.610342  1720 net.cpp:148] Top shape: 10 16 28 28 (125440)
I0714 21:35:48.610347  1720 net.cpp:156] Memory required for data: 223283200
I0714 21:35:48.610357  1720 layer_factory.hpp:77] Creating layer inception_3a/relu_5x5_reduce
I0714 21:35:48.610359  1716 net.cpp:91] Creating Layer inception_3a/5x5_reduce
I0714 21:35:48.610366  1720 net.cpp:91] Creating Layer inception_3a/relu_5x5_reduce
I0714 21:35:48.610370  1716 net.cpp:425] inception_3a/5x5_reduce <- pool2/3x3_s2_pool2/3x3_s2_0_split_2
I0714 21:35:48.610373  1720 net.cpp:425] inception_3a/relu_5x5_reduce <- inception_3a/5x5_reduce
I0714 21:35:48.610386  1720 net.cpp:386] inception_3a/relu_5x5_reduce -> inception_3a/5x5_reduce (in-place)
I0714 21:35:48.610393  1716 net.cpp:399] inception_3a/5x5_reduce -> inception_3a/5x5_reduce
I0714 21:35:48.610787  1720 net.cpp:141] Setting up inception_3a/relu_5x5_reduce
I0714 21:35:48.610802  1720 net.cpp:148] Top shape: 10 16 28 28 (125440)
I0714 21:35:48.610807  1720 net.cpp:156] Memory required for data: 223784960
I0714 21:35:48.610813  1720 layer_factory.hpp:77] Creating layer inception_3a/5x5
I0714 21:35:48.610839  1720 net.cpp:91] Creating Layer inception_3a/5x5
I0714 21:35:48.610846  1720 net.cpp:425] inception_3a/5x5 <- inception_3a/5x5_reduce
I0714 21:35:48.610855  1720 net.cpp:399] inception_3a/5x5 -> inception_3a/5x5
I0714 21:35:48.618506  1716 net.cpp:141] Setting up inception_3a/5x5_reduce
I0714 21:35:48.618559  1716 net.cpp:148] Top shape: 10 16 28 28 (125440)
I0714 21:35:48.618571  1716 net.cpp:156] Memory required for data: 223283200
I0714 21:35:48.619019  1716 layer_factory.hpp:77] Creating layer inception_3a/relu_5x5_reduce
I0714 21:35:48.619055  1716 net.cpp:91] Creating Layer inception_3a/relu_5x5_reduce
I0714 21:35:48.619074  1716 net.cpp:425] inception_3a/relu_5x5_reduce <- inception_3a/5x5_reduce
I0714 21:35:48.619092  1716 net.cpp:386] inception_3a/relu_5x5_reduce -> inception_3a/5x5_reduce (in-place)
I0714 21:35:48.619590  1716 net.cpp:141] Setting up inception_3a/relu_5x5_reduce
I0714 21:35:48.619607  1716 net.cpp:148] Top shape: 10 16 28 28 (125440)
I0714 21:35:48.619612  1716 net.cpp:156] Memory required for data: 223784960
I0714 21:35:48.619618  1716 layer_factory.hpp:77] Creating layer inception_3a/5x5
I0714 21:35:48.619644  1716 net.cpp:91] Creating Layer inception_3a/5x5
I0714 21:35:48.619652  1716 net.cpp:425] inception_3a/5x5 <- inception_3a/5x5_reduce
I0714 21:35:48.619670  1716 net.cpp:399] inception_3a/5x5 -> inception_3a/5x5
I0714 21:35:48.619933  1720 net.cpp:141] Setting up inception_3a/5x5
I0714 21:35:48.619953  1720 net.cpp:148] Top shape: 10 32 28 28 (250880)
I0714 21:35:48.619968  1720 net.cpp:156] Memory required for data: 224788480
I0714 21:35:48.619982  1720 layer_factory.hpp:77] Creating layer inception_3a/relu_5x5
I0714 21:35:48.619995  1720 net.cpp:91] Creating Layer inception_3a/relu_5x5
I0714 21:35:48.620005  1720 net.cpp:425] inception_3a/relu_5x5 <- inception_3a/5x5
I0714 21:35:48.620014  1720 net.cpp:386] inception_3a/relu_5x5 -> inception_3a/5x5 (in-place)
I0714 21:35:48.620465  1720 net.cpp:141] Setting up inception_3a/relu_5x5
I0714 21:35:48.620482  1720 net.cpp:148] Top shape: 10 32 28 28 (250880)
I0714 21:35:48.620488  1720 net.cpp:156] Memory required for data: 225792000
I0714 21:35:48.620494  1720 layer_factory.hpp:77] Creating layer inception_3a/pool
I0714 21:35:48.620507  1720 net.cpp:91] Creating Layer inception_3a/pool
I0714 21:35:48.620512  1720 net.cpp:425] inception_3a/pool <- pool2/3x3_s2_pool2/3x3_s2_0_split_3
I0714 21:35:48.620524  1720 net.cpp:399] inception_3a/pool -> inception_3a/pool
I0714 21:35:48.620681  1720 net.cpp:141] Setting up inception_3a/pool
I0714 21:35:48.620692  1720 net.cpp:148] Top shape: 10 192 28 28 (1505280)
I0714 21:35:48.620697  1720 net.cpp:156] Memory required for data: 231813120
I0714 21:35:48.620703  1720 layer_factory.hpp:77] Creating layer inception_3a/pool_proj
I0714 21:35:48.620723  1720 net.cpp:91] Creating Layer inception_3a/pool_proj
I0714 21:35:48.620729  1720 net.cpp:425] inception_3a/pool_proj <- inception_3a/pool
I0714 21:35:48.620738  1720 net.cpp:399] inception_3a/pool_proj -> inception_3a/pool_proj
I0714 21:35:48.626381  1720 net.cpp:141] Setting up inception_3a/pool_proj
I0714 21:35:48.626420  1720 net.cpp:148] Top shape: 10 32 28 28 (250880)
I0714 21:35:48.626430  1720 net.cpp:156] Memory required for data: 232816640
I0714 21:35:48.626462  1720 layer_factory.hpp:77] Creating layer inception_3a/relu_pool_proj
I0714 21:35:48.626482  1720 net.cpp:91] Creating Layer inception_3a/relu_pool_proj
I0714 21:35:48.626495  1720 net.cpp:425] inception_3a/relu_pool_proj <- inception_3a/pool_proj
I0714 21:35:48.626510  1720 net.cpp:386] inception_3a/relu_pool_proj -> inception_3a/pool_proj (in-place)
I0714 21:35:48.627861  1720 net.cpp:141] Setting up inception_3a/relu_pool_proj
I0714 21:35:48.627889  1720 net.cpp:148] Top shape: 10 32 28 28 (250880)
I0714 21:35:48.627900  1720 net.cpp:156] Memory required for data: 233820160
I0714 21:35:48.627910  1720 layer_factory.hpp:77] Creating layer inception_3a/output
I0714 21:35:48.627938  1720 net.cpp:91] Creating Layer inception_3a/output
I0714 21:35:48.627950  1720 net.cpp:425] inception_3a/output <- inception_3a/1x1
I0714 21:35:48.627964  1720 net.cpp:425] inception_3a/output <- inception_3a/3x3
I0714 21:35:48.627974  1720 net.cpp:425] inception_3a/output <- inception_3a/5x5
I0714 21:35:48.627984  1720 net.cpp:425] inception_3a/output <- inception_3a/pool_proj
I0714 21:35:48.627998  1720 net.cpp:399] inception_3a/output -> inception_3a/output
I0714 21:35:48.628856  1716 net.cpp:141] Setting up inception_3a/5x5
I0714 21:35:48.628860  1720 net.cpp:141] Setting up inception_3a/output
I0714 21:35:48.628886  1716 net.cpp:148] Top shape: 10 32 28 28 (250880)
I0714 21:35:48.628893  1720 net.cpp:148] Top shape: 10 256 28 28 (2007040)
I0714 21:35:48.628896  1716 net.cpp:156] Memory required for data: 224788480
I0714 21:35:48.628906  1720 net.cpp:156] Memory required for data: 241848320
I0714 21:35:48.628916  1720 layer_factory.hpp:77] Creating layer inception_3a/output_inception_3a/output_0_split
I0714 21:35:48.628916  1716 layer_factory.hpp:77] Creating layer inception_3a/relu_5x5
I0714 21:35:48.628942  1720 net.cpp:91] Creating Layer inception_3a/output_inception_3a/output_0_split
…
I0714 21:35:48.628973  1716 net.cpp:386] inception_3a/relu_5x5 -> inception_3a/5x5 (in-place)
I0714 21:35:48.628983  1720 net.cpp:399] inception_3a/output_inception_3a/output_0_split -> inception_3a/output_inception_3a/output_0_split_1
I0714 21:35:48.629000  1720 net.cpp:399] inception_3a/output_inception_3a/output_0_split -> inception_3a/output_inception_3a/output_0_split_2
I0714 21:35:48.629015  1720 net.cpp:399] inception_3a/output_inception_3a/output_0_split -> inception_3a/output_inception_3a/output_0_split_3
I0714 21:35:48.629485  1716 net.cpp:141] Setting up inception_3a/relu_5x5
I0714 21:35:48.629503  1716 net.cpp:148] Top shape: 10 32 28 28 (250880)
I0714 21:35:48.629505  1720 net.cpp:141] Setting up inception_3a/output_inception_3a/output_0_split
I0714 21:35:48.629510  1716 net.cpp:156] Memory required for data: 225792000
I0714 21:35:48.629521  1716 layer_factory.hpp:77] Creating layer inception_3a/pool
I0714 21:35:48.629523  1720 net.cpp:148] Top shape: 10 256 28 28 (2007040)
I0714 21:35:48.629534  1720 net.cpp:148] Top shape: 10 256 28 28 (2007040)
I0714 21:35:48.629536  1716 net.cpp:91] Creating Layer inception_3a/pool
I0714 21:35:48.629544  1720 net.cpp:148] Top shape: 10 256 28 28 (2007040)
I0714 21:35:48.629546  1716 net.cpp:425] inception_3a/pool <- pool2/3x3_s2_pool2/3x3_s2_0_split_3
I0714 21:35:48.629556  1720 net.cpp:148] Top shape: 10 256 28 28 (2007040)
I0714 21:35:48.629565  1720 net.cpp:156] Memory required for data: 273960960
I0714 21:35:48.629571  1716 net.cpp:399] inception_3a/pool -> inception_3a/pool
I0714 21:35:48.629572  1720 layer_factory.hpp:77] Creating layer inception_3b/1x1
I0714 21:35:48.629619  1720 net.cpp:91] Creating Layer inception_3b/1x1
I0714 21:35:48.629631  1720 net.cpp:425] inception_3b/1x1 <- inception_3a/output_inception_3a/output_0_split_0
I0714 21:35:48.629645  1720 net.cpp:399] inception_3b/1x1 -> inception_3b/1x1
I0714 21:35:48.629751  1716 net.cpp:141] Setting up inception_3a/pool
I0714 21:35:48.629767  1716 net.cpp:148] Top shape: 10 192 28 28 (1505280)
I0714 21:35:48.629776  1716 net.cpp:156] Memory required for data: 231813120
I0714 21:35:48.629784  1716 layer_factory.hpp:77] Creating layer inception_3a/pool_proj
I0714 21:35:48.629808  1716 net.cpp:91] Creating Layer inception_3a/pool_proj
I0714 21:35:48.629818  1716 net.cpp:425] inception_3a/pool_proj <- inception_3a/pool
I0714 21:35:48.629837  1716 net.cpp:399] inception_3a/pool_proj -> inception_3a/pool_proj
I0714 21:35:48.636337  1716 net.cpp:141] Setting up inception_3a/pool_proj
I0714 21:35:48.636379  1716 net.cpp:148] Top shape: 10 32 28 28 (250880)
I0714 21:35:48.636392  1716 net.cpp:156] Memory required for data: 232816640
I0714 21:35:48.636420  1716 layer_factory.hpp:77] Creating layer inception_3a/relu_pool_proj
I0714 21:35:48.636437  1716 net.cpp:91] Creating Layer inception_3a/relu_pool_proj
I0714 21:35:48.636450  1716 net.cpp:425] inception_3a/relu_pool_proj <- inception_3a/pool_proj
I0714 21:35:48.636469  1716 net.cpp:386] inception_3a/relu_pool_proj -> inception_3a/pool_proj (in-place)
I0714 21:35:48.637691  1720 net.cpp:141] Setting up inception_3b/1x1
I0714 21:35:48.637697  1716 net.cpp:141] Setting up inception_3a/relu_pool_proj
I0714 21:35:48.637711  1720 net.cpp:148] Top shape: 10 128 28 28 (1003520)
I0714 21:35:48.637717  1720 net.cpp:156] Memory required for data: 277975040
I0714 21:35:48.637717  1716 net.cpp:148] Top shape: 10 32 28 28 (250880)
I0714 21:35:48.637727  1716 net.cpp:156] Memory required for data: 233820160
I0714 21:35:48.637728  1720 layer_factory.hpp:77] Creating layer inception_3b/relu_1x1
I0714 21:35:48.637740  1716 layer_factory.hpp:77] Creating layer inception_3a/output
I0714 21:35:48.637745  1720 net.cpp:91] Creating Layer inception_3b/relu_1x1
I0714 21:35:48.637753  1720 net.cpp:425] inception_3b/relu_1x1 <- inception_3b/1x1
I0714 21:35:48.637755  1716 net.cpp:91] Creating Layer inception_3a/output
I0714 21:35:48.637766  1720 net.cpp:386] inception_3b/relu_1x1 -> inception_3b/1x1 (in-place)
I0714 21:35:48.637768  1716 net.cpp:425] inception_3a/output <- inception_3a/1x1
I0714 21:35:48.637780  1716 net.cpp:425] inception_3a/output <- inception_3a/3x3
I0714 21:35:48.637790  1716 net.cpp:425] inception_3a/output <- inception_3a/5x5
I0714 21:35:48.637800  1716 net.cpp:425] inception_3a/output <- inception_3a/pool_proj
I0714 21:35:48.637819  1716 net.cpp:399] inception_3a/output -> inception_3a/output
I0714 21:35:48.637990  1716 net.cpp:141] Setting up inception_3a/output
I0714 21:35:48.638007  1716 net.cpp:148] Top shape: 10 256 28 28 (2007040)
I0714 21:35:48.638015  1716 net.cpp:156] Memory required for data: 241848320
I0714 21:35:48.638025  1716 layer_factory.hpp:77] Creating layer inception_3a/output_inception_3a/output_0_split
I0714 21:35:48.638039  1716 net.cpp:91] Creating Layer inception_3a/output_inception_3a/output_0_split
I0714 21:35:48.638048  1716 net.cpp:425] inception_3a/output_inception_3a/output_0_split <- inception_3a/output
I0714 21:35:48.638067  1716 net.cpp:399] inception_3a/output_inception_3a/output_0_split -> inception_3a/output_inception_3a/output_0_split_0
I0714 21:35:48.638074  1720 net.cpp:141] Setting up inception_3b/relu_1x1
I0714 21:35:48.638082  1716 net.cpp:399] inception_3a/output_inception_3a/output_0_split -> inception_3a/output_inception_3a/output_0_split_1
I0714 21:35:48.638089  1720 net.cpp:148] Top shape: 10 128 28 28 (1003520)
I0714 21:35:48.638095  1720 net.cpp:156] Memory required for data: 281989120
I0714 21:35:48.638098  1716 net.cpp:399] inception_3a/output_inception_3a/output_0_split -> inception_3a/output_inception_3a/output_0_split_2
I0714 21:35:48.638100  1720 layer_factory.hpp:77] Creating layer inception_3b/3x3_reduce
I0714 21:35:48.638121  1716 net.cpp:399] inception_3a/output_inception_3a/output_0_split -> inception_3a/output_inception_3a/output_0_split_3
I0714 21:35:48.638130  1720 net.cpp:91] Creating Layer inception_3b/3x3_reduce
I0714 21:35:48.638139  1720 net.cpp:425] inception_3b/3x3_reduce <- inception_3a/output_inception_3a/output_0_split_1
I0714 21:35:48.638149  1720 net.cpp:399] inception_3b/3x3_reduce -> inception_3b/3x3_reduce
I0714 21:35:48.638607  1716 net.cpp:141] Setting up inception_3a/output_inception_3a/output_0_split
I0714 21:35:48.638623  1716 net.cpp:148] Top shape: 10 256 28 28 (2007040)
I0714 21:35:48.638630  1716 net.cpp:148] Top shape: 10 256 28 28 (2007040)
I0714 21:35:48.638635  1716 net.cpp:148] Top shape: 10 256 28 28 (2007040)
I0714 21:35:48.638641  1716 net.cpp:148] Top shape: 10 256 28 28 (2007040)
I0714 21:35:48.638645  1716 net.cpp:156] Memory required for data: 273960960
I0714 21:35:48.638651  1716 layer_factory.hpp:77] Creating layer inception_3b/1x1
I0714 21:35:48.638671  1716 net.cpp:91] Creating Layer inception_3b/1x1
I0714 21:35:48.638679  1716 net.cpp:425] inception_3b/1x1 <- inception_3a/output_inception_3a/output_0_split_0
I0714 21:35:48.638696  1716 net.cpp:399] inception_3b/1x1 -> inception_3b/1x1
I0714 21:35:48.642302  1720 net.cpp:141] Setting up inception_3b/3x3_reduce
I0714 21:35:48.642324  1720 net.cpp:148] Top shape: 10 128 28 28 (1003520)
I0714 21:35:48.642330  1720 net.cpp:156] Memory required for data: 286003200
I0714 21:35:48.642341  1720 layer_factory.hpp:77] Creating layer inception_3b/relu_3x3_reduce
I0714 21:35:48.642352  1720 net.cpp:91] Creating Layer inception_3b/relu_3x3_reduce
I0714 21:35:48.642359  1720 net.cpp:425] inception_3b/relu_3x3_reduce <- inception_3b/3x3_reduce
I0714 21:35:48.642369  1720 net.cpp:386] inception_3b/relu_3x3_reduce -> inception_3b/3x3_reduce (in-place)
I0714 21:35:48.642429  1716 net.cpp:141] Setting up inception_3b/1x1
I0714 21:35:48.642444  1716 net.cpp:148] Top shape: 10 128 28 28 (1003520)
I0714 21:35:48.642449  1716 net.cpp:156] Memory required for data: 277975040
I0714 21:35:48.642460  1716 layer_factory.hpp:77] Creating layer inception_3b/relu_1x1
I0714 21:35:48.642472  1716 net.cpp:91] Creating Layer inception_3b/relu_1x1
I0714 21:35:48.642478  1716 net.cpp:425] inception_3b/relu_1x1 <- inception_3b/1x1
I0714 21:35:48.642485  1716 net.cpp:386] inception_3b/relu_1x1 -> inception_3b/1x1 (in-place)
I0714 21:35:48.642679  1720 net.cpp:141] Setting up inception_3b/relu_3x3_reduce
I0714 21:35:48.642709  1720 net.cpp:148] Top shape: 10 128 28 28 (1003520)
I0714 21:35:48.642715  1720 net.cpp:156] Memory required for data: 290017280
I0714 21:35:48.642720  1720 layer_factory.hpp:77] Creating layer inception_3b/3x3
I0714 21:35:48.642742  1720 net.cpp:91] Creating Layer inception_3b/3x3
I0714 21:35:48.642748  1720 net.cpp:425] inception_3b/3x3 <- inception_3b/3x3_reduce
I0714 21:35:48.642758  1720 net.cpp:399] inception_3b/3x3 -> inception_3b/3x3
I0714 21:35:48.642819  1716 net.cpp:141] Setting up inception_3b/relu_1x1
I0714 21:35:48.642832  1716 net.cpp:148] Top shape: 10 128 28 28 (1003520)
I0714 21:35:48.642838  1716 net.cpp:156] Memory required for data: 281989120
I0714 21:35:48.642843  1716 layer_factory.hpp:77] Creating layer inception_3b/3x3_reduce
I0714 21:35:48.642863  1716 net.cpp:91] Creating Layer inception_3b/3x3_reduce
I0714 21:35:48.642869  1716 net.cpp:425] inception_3b/3x3_reduce <- inception_3a/output_inception_3a/output_0_split_1
I0714 21:35:48.642879  1716 net.cpp:399] inception_3b/3x3_reduce -> inception_3b/3x3_reduce
I0714 21:35:48.648871  1716 net.cpp:141] Setting up inception_3b/3x3_reduce
I0714 21:35:48.648890  1716 net.cpp:148] Top shape: 10 128 28 28 (1003520)
I0714 21:35:48.648896  1716 net.cpp:156] Memory required for data: 286003200
I0714 21:35:48.648905  1716 layer_factory.hpp:77] Creating layer inception_3b/relu_3x3_reduce
I0714 21:35:48.648916  1716 net.cpp:91] Creating Layer inception_3b/relu_3x3_reduce
I0714 21:35:48.648921  1716 net.cpp:425] inception_3b/relu_3x3_reduce <- inception_3b/3x3_reduce
I0714 21:35:48.648932  1716 net.cpp:386] inception_3b/relu_3x3_reduce -> inception_3b/3x3_reduce (in-place)
I0714 21:35:48.649274  1716 net.cpp:141] Setting up inception_3b/relu_3x3_reduce
I0714 21:35:48.649289  1716 net.cpp:148] Top shape: 10 128 28 28 (1003520)
I0714 21:35:48.649296  1716 net.cpp:156] Memory required for data: 290017280
I0714 21:35:48.649301  1716 layer_factory.hpp:77] Creating layer inception_3b/3x3
I0714 21:35:48.649318  1716 net.cpp:91] Creating Layer inception_3b/3x3
I0714 21:35:48.649324  1716 net.cpp:425] inception_3b/3x3 <- inception_3b/3x3_reduce
I0714 21:35:48.649334  1716 net.cpp:399] inception_3b/3x3 -> inception_3b/3x3
I0714 21:35:48.649833  1720 net.cpp:141] Setting up inception_3b/3x3
I0714 21:35:48.649850  1720 net.cpp:148] Top shape: 10 192 28 28 (1505280)
I0714 21:35:48.649857  1720 net.cpp:156] Memory required for data: 296038400
I0714 21:35:48.649866  1720 layer_factory.hpp:77] Creating layer inception_3b/relu_3x3
I0714 21:35:48.649889  1720 net.cpp:91] Creating Layer inception_3b/relu_3x3
I0714 21:35:48.649896  1720 net.cpp:425] inception_3b/relu_3x3 <- inception_3b/3x3
I0714 21:35:48.649904  1720 net.cpp:386] inception_3b/relu_3x3 -> inception_3b/3x3 (in-place)
I0714 21:35:48.650666  1720 net.cpp:141] Setting up inception_3b/relu_3x3
I0714 21:35:48.650682  1720 net.cpp:148] Top shape: 10 192 28 28 (1505280)
I0714 21:35:48.650698  1720 net.cpp:156] Memory required for data: 302059520
I0714 21:35:48.650704  1720 layer_factory.hpp:77] Creating layer inception_3b/5x5_reduce
I0714 21:35:48.650725  1720 net.cpp:91] Creating Layer inception_3b/5x5_reduce
I0714 21:35:48.650732  1720 net.cpp:425] inception_3b/5x5_reduce <- inception_3a/output_inception_3a/output_0_split_2
I0714 21:35:48.650743  1720 net.cpp:399] inception_3b/5x5_reduce -> inception_3b/5x5_reduce
I0714 21:35:48.655314  1720 net.cpp:141] Setting up inception_3b/5x5_reduce
I0714 21:35:48.655331  1720 net.cpp:148] Top shape: 10 32 28 28 (250880)
I0714 21:35:48.655338  1720 net.cpp:156] Memory required for data: 303063040
I0714 21:35:48.655346  1720 layer_factory.hpp:77] Creating layer inception_3b/relu_5x5_reduce
I0714 21:35:48.655359  1720 net.cpp:91] Creating Layer inception_3b/relu_5x5_reduce
I0714 21:35:48.655366  1720 net.cpp:425] inception_3b/relu_5x5_reduce <- inception_3b/5x5_reduce
I0714 21:35:48.655375  1720 net.cpp:386] inception_3b/relu_5x5_reduce -> inception_3b/5x5_reduce (in-place)
I0714 21:35:48.655730  1720 net.cpp:141] Setting up inception_3b/relu_5x5_reduce
I0714 21:35:48.655745  1720 net.cpp:148] Top shape: 10 32 28 28 (250880)
I0714 21:35:48.655750  1720 net.cpp:156] Memory required for data: 304066560
I0714 21:35:48.655755  1720 layer_factory.hpp:77] Creating layer inception_3b/5x5
I0714 21:35:48.655773  1720 net.cpp:91] Creating Layer inception_3b/5x5
I0714 21:35:48.655781  1720 net.cpp:425] inception_3b/5x5 <- inception_3b/5x5_reduce
I0714 21:35:48.655792  1720 net.cpp:399] inception_3b/5x5 -> inception_3b/5x5
I0714 21:35:48.656251  1716 net.cpp:141] Setting up inception_3b/3x3
I0714 21:35:48.656270  1716 net.cpp:148] Top shape: 10 192 28 28 (1505280)
I0714 21:35:48.656275  1716 net.cpp:156] Memory required for data: 296038400
I0714 21:35:48.656286  1716 layer_factory.hpp:77] Creating layer inception_3b/relu_3x3
I0714 21:35:48.656302  1716 net.cpp:91] Creating Layer inception_3b/relu_3x3
I0714 21:35:48.656309  1716 net.cpp:425] inception_3b/relu_3x3 <- inception_3b/3x3
I0714 21:35:48.656317  1716 net.cpp:386] inception_3b/relu_3x3 -> inception_3b/3x3 (in-place)
I0714 21:35:48.657079  1716 net.cpp:141] Setting up inception_3b/relu_3x3
I0714 21:35:48.657097  1716 net.cpp:148] Top shape: 10 192 28 28 (1505280)
I0714 21:35:48.657104  1716 net.cpp:156] Memory required for data: 302059520
I0714 21:35:48.657109  1716 layer_factory.hpp:77] Creating layer inception_3b/5x5_reduce
I0714 21:35:48.657124  1716 net.cpp:91] Creating Layer inception_3b/5x5_reduce
I0714 21:35:48.657130  1716 net.cpp:425] inception_3b/5x5_reduce <- inception_3a/output_inception_3a/output_0_split_2
I0714 21:35:48.657143  1716 net.cpp:399] inception_3b/5x5_reduce -> inception_3b/5x5_reduce
I0714 21:35:48.661078  1716 net.cpp:141] Setting up inception_3b/5x5_reduce
I0714 21:35:48.661097  1716 net.cpp:148] Top shape: 10 32 28 28 (250880)
I0714 21:35:48.661101  1716 net.cpp:156] Memory required for data: 303063040
I0714 21:35:48.661111  1716 layer_factory.hpp:77] Creating layer inception_3b/relu_5x5_reduce
I0714 21:35:48.661123  1716 net.cpp:91] Creating Layer inception_3b/relu_5x5_reduce
I0714 21:35:48.661129  1716 net.cpp:425] inception_3b/relu_5x5_reduce <- inception_3b/5x5_reduce
I0714 21:35:48.661137  1716 net.cpp:386] inception_3b/relu_5x5_reduce -> inception_3b/5x5_reduce (in-place)
I0714 21:35:48.661458  1720 net.cpp:141] Setting up inception_3b/5x5
I0714 21:35:48.661474  1720 net.cpp:148] Top shape: 10 96 28 28 (752640)
I0714 21:35:48.661480  1720 net.cpp:156] Memory required for data: 307077120
I0714 21:35:48.661489  1720 layer_factory.hpp:77] Creating layer inception_3b/relu_5x5
I0714 21:35:48.661489  1716 net.cpp:141] Setting up inception_3b/relu_5x5_reduce
I0714 21:35:48.661500  1720 net.cpp:91] Creating Layer inception_3b/relu_5x5
I0714 21:35:48.661501  1716 net.cpp:148] Top shape: 10 32 28 28 (250880)
I0714 21:35:48.661507  1720 net.cpp:425] inception_3b/relu_5x5 <- inception_3b/5x5
I0714 21:35:48.661507  1716 net.cpp:156] Memory required for data: 304066560
I0714 21:35:48.661519  1720 net.cpp:386] inception_3b/relu_5x5 -> inception_3b/5x5 (in-place)
I0714 21:35:48.661520  1716 layer_factory.hpp:77] Creating layer inception_3b/5x5
I0714 21:35:48.661538  1716 net.cpp:91] Creating Layer inception_3b/5x5
I0714 21:35:48.661545  1716 net.cpp:425] inception_3b/5x5 <- inception_3b/5x5_reduce
I0714 21:35:48.661555  1716 net.cpp:399] inception_3b/5x5 -> inception_3b/5x5
I0714 21:35:48.661883  1720 net.cpp:141] Setting up inception_3b/relu_5x5
I0714 21:35:48.661896  1720 net.cpp:148] Top shape: 10 96 28 28 (752640)
I0714 21:35:48.661900  1720 net.cpp:156] Memory required for data: 310087680
I0714 21:35:48.661906  1720 layer_factory.hpp:77] Creating layer inception_3b/pool
I0714 21:35:48.661918  1720 net.cpp:91] Creating Layer inception_3b/pool
I0714 21:35:48.661923  1720 net.cpp:425] inception_3b/pool <- inception_3a/output_inception_3a/output_0_split_3
I0714 21:35:48.661934  1720 net.cpp:399] inception_3b/pool -> inception_3b/pool
I0714 21:35:48.662164  1720 net.cpp:141] Setting up inception_3b/pool
I0714 21:35:48.662176  1720 net.cpp:148] Top shape: 10 256 28 28 (2007040)
I0714 21:35:48.662181  1720 net.cpp:156] Memory required for data: 318115840
I0714 21:35:48.662186  1720 layer_factory.hpp:77] Creating layer inception_3b/pool_proj
I0714 21:35:48.662204  1720 net.cpp:91] Creating Layer inception_3b/pool_proj
I0714 21:35:48.662209  1720 net.cpp:425] inception_3b/pool_proj <- inception_3b/pool
I0714 21:35:48.662219  1720 net.cpp:399] inception_3b/pool_proj -> inception_3b/pool_proj
I0714 21:35:48.667440  1720 net.cpp:141] Setting up inception_3b/pool_proj
I0714 21:35:48.667460  1720 net.cpp:148] Top shape: 10 64 28 28 (501760)
I0714 21:35:48.667466  1720 net.cpp:156] Memory required for data: 320122880
I0714 21:35:48.667476  1720 layer_factory.hpp:77] Creating layer inception_3b/relu_pool_proj
I0714 21:35:48.667490  1720 net.cpp:91] Creating Layer inception_3b/relu_pool_proj
I0714 21:35:48.667496  1720 net.cpp:425] inception_3b/relu_pool_proj <- inception_3b/pool_proj
I0714 21:35:48.667505  1720 net.cpp:386] inception_3b/relu_pool_proj -> inception_3b/pool_proj (in-place)
I0714 21:35:48.668251  1716 net.cpp:141] Setting up inception_3b/5x5
I0714 21:35:48.668268  1716 net.cpp:148] Top shape: 10 96 28 28 (752640)
I0714 21:35:48.668274  1716 net.cpp:156] Memory required for data: 307077120
I0714 21:35:48.668283  1716 layer_factory.hpp:77] Creating layer inception_3b/relu_5x5
I0714 21:35:48.668298  1716 net.cpp:91] Creating Layer inception_3b/relu_5x5
I0714 21:35:48.668304  1716 net.cpp:425] inception_3b/relu_5x5 <- inception_3b/5x5
I0714 21:35:48.668311  1716 net.cpp:386] inception_3b/relu_5x5 -> inception_3b/5x5 (in-place)
I0714 21:35:48.668313  1720 net.cpp:141] Setting up inception_3b/relu_pool_proj
I0714 21:35:48.668325  1720 net.cpp:148] Top shape: 10 64 28 28 (501760)
I0714 21:35:48.668330  1720 net.cpp:156] Memory required for data: 322129920
I0714 21:35:48.668336  1720 layer_factory.hpp:77] Creating layer inception_3b/output
I0714 21:35:48.668357  1720 net.cpp:91] Creating Layer inception_3b/output
I0714 21:35:48.668365  1720 net.cpp:425] inception_3b/output <- inception_3b/1x1
I0714 21:35:48.668371  1720 net.cpp:425] inception_3b/output <- inception_3b/3x3
I0714 21:35:48.668377  1720 net.cpp:425] inception_3b/output <- inception_3b/5x5
I0714 21:35:48.668383  1720 net.cpp:425] inception_3b/output <- inception_3b/pool_proj
I0714 21:35:48.668392  1720 net.cpp:399] inception_3b/output -> inception_3b/output
I0714 21:35:48.668536  1720 net.cpp:141] Setting up inception_3b/output
I0714 21:35:48.668547  1720 net.cpp:148] Top shape: 10 480 28 28 (3763200)
I0714 21:35:48.668552  1720 net.cpp:156] Memory required for data: 337182720
I0714 21:35:48.668558  1720 layer_factory.hpp:77] Creating layer pool3/3x3_s2
I0714 21:35:48.668573  1720 net.cpp:91] Creating Layer pool3/3x3_s2
I0714 21:35:48.668579  1720 net.cpp:425] pool3/3x3_s2 <- inception_3b/output
I0714 21:35:48.668591  1720 net.cpp:399] pool3/3x3_s2 -> pool3/3x3_s2
I0714 21:35:48.668623  1716 net.cpp:141] Setting up inception_3b/relu_5x5
I0714 21:35:48.668637  1716 net.cpp:148] Top shape: 10 96 28 28 (752640)
I0714 21:35:48.668642  1716 net.cpp:156] Memory required for data: 310087680
I0714 21:35:48.668648  1716 layer_factory.hpp:77] Creating layer inception_3b/pool
I0714 21:35:48.668658  1716 net.cpp:91] Creating Layer inception_3b/pool
I0714 21:35:48.668664  1716 net.cpp:425] inception_3b/pool <- inception_3a/output_inception_3a/output_0_split_3
I0714 21:35:48.668675  1716 net.cpp:399] inception_3b/pool -> inception_3b/pool
I0714 21:35:48.668687  1720 net.cpp:141] Setting up pool3/3x3_s2
I0714 21:35:48.668699  1720 net.cpp:148] Top shape: 10 480 14 14 (940800)
I0714 21:35:48.668704  1720 net.cpp:156] Memory required for data: 340945920
I0714 21:35:48.668709  1720 layer_factory.hpp:77] Creating layer pool3/3x3_s2_pool3/3x3_s2_0_split
I0714 21:35:48.668721  1720 net.cpp:91] Creating Layer pool3/3x3_s2_pool3/3x3_s2_0_split
I0714 21:35:48.668726  1720 net.cpp:425] pool3/3x3_s2_pool3/3x3_s2_0_split <- pool3/3x3_s2
I0714 21:35:48.668735  1720 net.cpp:399] pool3/3x3_s2_pool3/3x3_s2_0_split -> pool3/3x3_s2_pool3/3x3_s2_0_split_0
I0714 21:35:48.668745  1720 net.cpp:399] pool3/3x3_s2_pool3/3x3_s2_0_split -> pool3/3x3_s2_pool3/3x3_s2_0_split_1
I0714 21:35:48.668752  1720 net.cpp:399] pool3/3x3_s2_pool3/3x3_s2_0_split -> pool3/3x3_s2_pool3/3x3_s2_0_split_2
I0714 21:35:48.668761  1720 net.cpp:399] pool3/3x3_s2_pool3/3x3_s2_0_split -> pool3/3x3_s2_pool3/3x3_s2_0_split_3
I0714 21:35:48.668782  1716 net.cpp:141] Setting up inception_3b/pool
I0714 21:35:48.668793  1716 net.cpp:148] Top shape: 10 256 28 28 (2007040)
I0714 21:35:48.668798  1716 net.cpp:156] Memory required for data: 318115840
I0714 21:35:48.668803  1716 layer_factory.hpp:77] Creating layer inception_3b/pool_proj
I0714 21:35:48.668822  1716 net.cpp:91] Creating Layer inception_3b/pool_proj
I0714 21:35:48.668828  1716 net.cpp:425] inception_3b/pool_proj <- inception_3b/pool
I0714 21:35:48.668839  1716 net.cpp:399] inception_3b/pool_proj -> inception_3b/pool_proj
I0714 21:35:48.668974  1720 net.cpp:141] Setting up pool3/3x3_s2_pool3/3x3_s2_0_split
I0714 21:35:48.668985  1720 net.cpp:148] Top shape: 10 480 14 14 (940800)
I0714 21:35:48.668992  1720 net.cpp:148] Top shape: 10 480 14 14 (940800)
I0714 21:35:48.668998  1720 net.cpp:148] Top shape: 10 480 14 14 (940800)
I0714 21:35:48.669003  1720 net.cpp:148] Top shape: 10 480 14 14 (940800)
I0714 21:35:48.669008  1720 net.cpp:156] Memory required for data: 355998720
I0714 21:35:48.669013  1720 layer_factory.hpp:77] Creating layer inception_4a/1x1
I0714 21:35:48.669039  1720 net.cpp:91] Creating Layer inception_4a/1x1
I0714 21:35:48.669044  1720 net.cpp:425] inception_4a/1x1 <- pool3/3x3_s2_pool3/3x3_s2_0_split_0
I0714 21:35:48.669054  1720 net.cpp:399] inception_4a/1x1 -> inception_4a/1x1
I0714 21:35:48.673343  1716 net.cpp:141] Setting up inception_3b/pool_proj
I0714 21:35:48.673362  1716 net.cpp:148] Top shape: 10 64 28 28 (501760)
I0714 21:35:48.673367  1716 net.cpp:156] Memory required for data: 320122880
I0714 21:35:48.673377  1716 layer_factory.hpp:77] Creating layer inception_3b/relu_pool_proj
I0714 21:35:48.673388  1716 net.cpp:91] Creating Layer inception_3b/relu_pool_proj
I0714 21:35:48.673395  1716 net.cpp:425] inception_3b/relu_pool_proj <- inception_3b/pool_proj
I0714 21:35:48.673403  1716 net.cpp:386] inception_3b/relu_pool_proj -> inception_3b/pool_proj (in-place)
I0714 21:35:48.674319  1716 net.cpp:141] Setting up inception_3b/relu_pool_proj
I0714 21:35:48.674338  1716 net.cpp:148] Top shape: 10 64 28 28 (501760)
I0714 21:35:48.674345  1716 net.cpp:156] Memory required for data: 322129920
I0714 21:35:48.674350  1716 layer_factory.hpp:77] Creating layer inception_3b/output
I0714 21:35:48.674360  1716 net.cpp:91] Creating Layer inception_3b/output
I0714 21:35:48.674365  1716 net.cpp:425] inception_3b/output <- inception_3b/1x1
I0714 21:35:48.674372  1716 net.cpp:425] inception_3b/output <- inception_3b/3x3
I0714 21:35:48.674377  1716 net.cpp:425] inception_3b/output <- inception_3b/5x5
I0714 21:35:48.674383  1716 net.cpp:425] inception_3b/output <- inception_3b/pool_proj
I0714 21:35:48.674391  1716 net.cpp:399] inception_3b/output -> inception_3b/output
I0714 21:35:48.674427  1720 net.cpp:141] Setting up inception_4a/1x1
I0714 21:35:48.674443  1720 net.cpp:148] Top shape: 10 192 14 14 (376320)
I0714 21:35:48.674448  1720 net.cpp:156] Memory required for data: 357504000
I0714 21:35:48.674458  1720 layer_factory.hpp:77] Creating layer inception_4a/relu_1x1
I0714 21:35:48.674458  1716 net.cpp:141] Setting up inception_3b/output
I0714 21:35:48.674468  1720 net.cpp:91] Creating Layer inception_4a/relu_1x1
I0714 21:35:48.674469  1716 net.cpp:148] Top shape: 10 480 28 28 (3763200)
I0714 21:35:48.674474  1720 net.cpp:425] inception_4a/relu_1x1 <- inception_4a/1x1
I0714 21:35:48.674474  1716 net.cpp:156] Memory required for data: 337182720
I0714 21:35:48.674480  1716 layer_factory.hpp:77] Creating layer pool3/3x3_s2
I0714 21:35:48.674484  1720 net.cpp:386] inception_4a/relu_1x1 -> inception_4a/1x1 (in-place)
I0714 21:35:48.674489  1716 net.cpp:91] Creating Layer pool3/3x3_s2
I0714 21:35:48.674494  1716 net.cpp:425] pool3/3x3_s2 <- inception_3b/output
I0714 21:35:48.674502  1716 net.cpp:399] pool3/3x3_s2 -> pool3/3x3_s2
I0714 21:35:48.674772  1716 net.cpp:141] Setting up pool3/3x3_s2
I0714 21:35:48.674784  1716 net.cpp:148] Top shape: 10 480 14 14 (940800)
I0714 21:35:48.674789  1716 net.cpp:156] Memory required for data: 340945920
I0714 21:35:48.674794  1716 layer_factory.hpp:77] Creating layer pool3/3x3_s2_pool3/3x3_s2_0_split
I0714 21:35:48.674803  1716 net.cpp:91] Creating Layer pool3/3x3_s2_pool3/3x3_s2_0_split
I0714 21:35:48.674808  1716 net.cpp:425] pool3/3x3_s2_pool3/3x3_s2_0_split <- pool3/3x3_s2
I0714 21:35:48.674819  1716 net.cpp:399] pool3/3x3_s2_pool3/3x3_s2_0_split -> pool3/3x3_s2_pool3/3x3_s2_0_split_0
I0714 21:35:48.674829  1716 net.cpp:399] pool3/3x3_s2_pool3/3x3_s2_0_split -> pool3/3x3_s2_pool3/3x3_s2_0_split_1
I0714 21:35:48.674834  1720 net.cpp:141] Setting up inception_4a/relu_1x1
I0714 21:35:48.674837  1716 net.cpp:399] pool3/3x3_s2_pool3/3x3_s2_0_split -> pool3/3x3_s2_pool3/3x3_s2_0_split_2
I0714 21:35:48.674849  1720 net.cpp:148] Top shape: 10 192 14 14 (376320)
I0714 21:35:48.674852  1716 net.cpp:399] pool3/3x3_s2_pool3/3x3_s2_0_split -> pool3/3x3_s2_pool3/3x3_s2_0_split_3
I0714 21:35:48.674854  1720 net.cpp:156] Memory required for data: 359009280
I0714 21:35:48.674860  1720 layer_factory.hpp:77] Creating layer inception_4a/3x3_reduce
I0714 21:35:48.674880  1720 net.cpp:91] Creating Layer inception_4a/3x3_reduce
I0714 21:35:48.674887  1720 net.cpp:425] inception_4a/3x3_reduce <- pool3/3x3_s2_pool3/3x3_s2_0_split_1
I0714 21:35:48.674897  1720 net.cpp:399] inception_4a/3x3_reduce -> inception_4a/3x3_reduce
I0714 21:35:48.675135  1716 net.cpp:141] Setting up pool3/3x3_s2_pool3/3x3_s2_0_split
I0714 21:35:48.675148  1716 net.cpp:148] Top shape: 10 480 14 14 (940800)
I0714 21:35:48.675153  1716 net.cpp:148] Top shape: 10 480 14 14 (940800)
I0714 21:35:48.675159  1716 net.cpp:148] Top shape: 10 480 14 14 (940800)
I0714 21:35:48.675165  1716 net.cpp:148] Top shape: 10 480 14 14 (940800)
I0714 21:35:48.675169  1716 net.cpp:156] Memory required for data: 355998720
I0714 21:35:48.675174  1716 layer_factory.hpp:77] Creating layer inception_4a/1x1
I0714 21:35:48.675187  1716 net.cpp:91] Creating Layer inception_4a/1x1
I0714 21:35:48.675192  1716 net.cpp:425] inception_4a/1x1 <- pool3/3x3_s2_pool3/3x3_s2_0_split_0
I0714 21:35:48.675205  1716 net.cpp:399] inception_4a/1x1 -> inception_4a/1x1
I0714 21:35:48.679673  1720 net.cpp:141] Setting up inception_4a/3x3_reduce
I0714 21:35:48.679693  1720 net.cpp:148] Top shape: 10 96 14 14 (188160)
I0714 21:35:48.679699  1720 net.cpp:156] Memory required for data: 359761920
I0714 21:35:48.679719  1720 layer_factory.hpp:77] Creating layer inception_4a/relu_3x3_reduce
I0714 21:35:48.679741  1720 net.cpp:91] Creating Layer inception_4a/relu_3x3_reduce
I0714 21:35:48.679749  1720 net.cpp:425] inception_4a/relu_3x3_reduce <- inception_4a/3x3_reduce
I0714 21:35:48.679756  1720 net.cpp:386] inception_4a/relu_3x3_reduce -> inception_4a/3x3_reduce (in-place)
I0714 21:35:48.680119  1720 net.cpp:141] Setting up inception_4a/relu_3x3_reduce
I0714 21:35:48.680132  1720 net.cpp:148] Top shape: 10 96 14 14 (188160)
I0714 21:35:48.680137  1720 net.cpp:156] Memory required for data: 360514560
I0714 21:35:48.680142  1720 layer_factory.hpp:77] Creating layer inception_4a/3x3
I0714 21:35:48.680147  1716 net.cpp:141] Setting up inception_4a/1x1
I0714 21:35:48.680162  1720 net.cpp:91] Creating Layer inception_4a/3x3
I0714 21:35:48.680163  1716 net.cpp:148] Top shape: 10 192 14 14 (376320)
I0714 21:35:48.680169  1720 net.cpp:425] inception_4a/3x3 <- inception_4a/3x3_reduce
I0714 21:35:48.680169  1716 net.cpp:156] Memory required for data: 357504000
I0714 21:35:48.680182  1720 net.cpp:399] inception_4a/3x3 -> inception_4a/3x3
I0714 21:35:48.680186  1716 layer_factory.hpp:77] Creating layer inception_4a/relu_1x1
I0714 21:35:48.680197  1716 net.cpp:91] Creating Layer inception_4a/relu_1x1
I0714 21:35:48.680202  1716 net.cpp:425] inception_4a/relu_1x1 <- inception_4a/1x1
I0714 21:35:48.680217  1716 net.cpp:386] inception_4a/relu_1x1 -> inception_4a/1x1 (in-place)
I0714 21:35:48.680606  1716 net.cpp:141] Setting up inception_4a/relu_1x1
I0714 21:35:48.680621  1716 net.cpp:148] Top shape: 10 192 14 14 (376320)
I0714 21:35:48.680626  1716 net.cpp:156] Memory required for data: 359009280
I0714 21:35:48.680631  1716 layer_factory.hpp:77] Creating layer inception_4a/3x3_reduce
I0714 21:35:48.680649  1716 net.cpp:91] Creating Layer inception_4a/3x3_reduce
I0714 21:35:48.680656  1716 net.cpp:425] inception_4a/3x3_reduce <- pool3/3x3_s2_pool3/3x3_s2_0_split_1
I0714 21:35:48.680665  1716 net.cpp:399] inception_4a/3x3_reduce -> inception_4a/3x3_reduce
I0714 21:35:48.685914  1716 net.cpp:141] Setting up inception_4a/3x3_reduce
I0714 21:35:48.685933  1716 net.cpp:148] Top shape: 10 96 14 14 (188160)
I0714 21:35:48.685938  1716 net.cpp:156] Memory required for data: 359761920
I0714 21:35:48.685957  1716 layer_factory.hpp:77] Creating layer inception_4a/relu_3x3_reduce
I0714 21:35:48.685971  1716 net.cpp:91] Creating Layer inception_4a/relu_3x3_reduce
I0714 21:35:48.685977  1716 net.cpp:425] inception_4a/relu_3x3_reduce <- inception_4a/3x3_reduce
I0714 21:35:48.685986  1716 net.cpp:386] inception_4a/relu_3x3_reduce -> inception_4a/3x3_reduce (in-place)
I0714 21:35:48.686372  1716 net.cpp:141] Setting up inception_4a/relu_3x3_reduce
I0714 21:35:48.686388  1716 net.cpp:148] Top shape: 10 96 14 14 (188160)
I0714 21:35:48.686393  1716 net.cpp:156] Memory required for data: 360514560
I0714 21:35:48.686398  1716 layer_factory.hpp:77] Creating layer inception_4a/3x3
I0714 21:35:48.686416  1716 net.cpp:91] Creating Layer inception_4a/3x3
I0714 21:35:48.686424  1716 net.cpp:425] inception_4a/3x3 <- inception_4a/3x3_reduce
I0714 21:35:48.686432  1716 net.cpp:399] inception_4a/3x3 -> inception_4a/3x3
I0714 21:35:48.686462  1720 net.cpp:141] Setting up inception_4a/3x3
I0714 21:35:48.686477  1720 net.cpp:148] Top shape: 10 208 14 14 (407680)
I0714 21:35:48.686482  1720 net.cpp:156] Memory required for data: 362145280
I0714 21:35:48.686492  1720 layer_factory.hpp:77] Creating layer inception_4a/relu_3x3
I0714 21:35:48.686506  1720 net.cpp:91] Creating Layer inception_4a/relu_3x3
I0714 21:35:48.686512  1720 net.cpp:425] inception_4a/relu_3x3 <- inception_4a/3x3
I0714 21:35:48.686519  1720 net.cpp:386] inception_4a/relu_3x3 -> inception_4a/3x3 (in-place)
I0714 21:35:48.687408  1720 net.cpp:141] Setting up inception_4a/relu_3x3
I0714 21:35:48.687424  1720 net.cpp:148] Top shape: 10 208 14 14 (407680)
I0714 21:35:48.687429  1720 net.cpp:156] Memory required for data: 363776000
I0714 21:35:48.687435  1720 layer_factory.hpp:77] Creating layer inception_4a/5x5_reduce
I0714 21:35:48.687454  1720 net.cpp:91] Creating Layer inception_4a/5x5_reduce
I0714 21:35:48.687461  1720 net.cpp:425] inception_4a/5x5_reduce <- pool3/3x3_s2_pool3/3x3_s2_0_split_2
I0714 21:35:48.687471  1720 net.cpp:399] inception_4a/5x5_reduce -> inception_4a/5x5_reduce
I0714 21:35:48.692570  1720 net.cpp:141] Setting up inception_4a/5x5_reduce
I0714 21:35:48.692589  1720 net.cpp:148] Top shape: 10 16 14 14 (31360)
I0714 21:35:48.692595  1720 net.cpp:156] Memory required for data: 363901440
I0714 21:35:48.692605  1720 layer_factory.hpp:77] Creating layer inception_4a/relu_5x5_reduce
I0714 21:35:48.692617  1720 net.cpp:91] Creating Layer inception_4a/relu_5x5_reduce
I0714 21:35:48.692625  1720 net.cpp:425] inception_4a/relu_5x5_reduce <- inception_4a/5x5_reduce
I0714 21:35:48.692632  1720 net.cpp:386] inception_4a/relu_5x5_reduce -> inception_4a/5x5_reduce (in-place)
I0714 21:35:48.693027  1720 net.cpp:141] Setting up inception_4a/relu_5x5_reduce
I0714 21:35:48.693040  1720 net.cpp:148] Top shape: 10 16 14 14 (31360)
I0714 21:35:48.693045  1720 net.cpp:156] Memory required for data: 364026880
I0714 21:35:48.693051  1720 layer_factory.hpp:77] Creating layer inception_4a/5x5
I0714 21:35:48.693069  1720 net.cpp:91] Creating Layer inception_4a/5x5
I0714 21:35:48.693076  1720 net.cpp:425] inception_4a/5x5 <- inception_4a/5x5_reduce
I0714 21:35:48.693089  1720 net.cpp:399] inception_4a/5x5 -> inception_4a/5x5
I0714 21:35:48.693087  1716 net.cpp:141] Setting up inception_4a/3x3
I0714 21:35:48.693110  1716 net.cpp:148] Top shape: 10 208 14 14 (407680)
I0714 21:35:48.693116  1716 net.cpp:156] Memory required for data: 362145280
I0714 21:35:48.693126  1716 layer_factory.hpp:77] Creating layer inception_4a/relu_3x3
I0714 21:35:48.693135  1716 net.cpp:91] Creating Layer inception_4a/relu_3x3
I0714 21:35:48.693141  1716 net.cpp:425] inception_4a/relu_3x3 <- inception_4a/3x3
I0714 21:35:48.693150  1716 net.cpp:386] inception_4a/relu_3x3 -> inception_4a/3x3 (in-place)
I0714 21:35:48.694011  1716 net.cpp:141] Setting up inception_4a/relu_3x3
I0714 21:35:48.694027  1716 net.cpp:148] Top shape: 10 208 14 14 (407680)
I0714 21:35:48.694032  1716 net.cpp:156] Memory required for data: 363776000
I0714 21:35:48.694038  1716 layer_factory.hpp:77] Creating layer inception_4a/5x5_reduce
I0714 21:35:48.694056  1716 net.cpp:91] Creating Layer inception_4a/5x5_reduce
I0714 21:35:48.694062  1716 net.cpp:425] inception_4a/5x5_reduce <- pool3/3x3_s2_pool3/3x3_s2_0_split_2
I0714 21:35:48.694072  1716 net.cpp:399] inception_4a/5x5_reduce -> inception_4a/5x5_reduce
I0714 21:35:48.697929  1720 net.cpp:141] Setting up inception_4a/5x5
I0714 21:35:48.697947  1720 net.cpp:148] Top shape: 10 48 14 14 (94080)
I0714 21:35:48.697952  1720 net.cpp:156] Memory required for data: 364403200
I0714 21:35:48.697962  1720 layer_factory.hpp:77] Creating layer inception_4a/relu_5x5
I0714 21:35:48.697973  1720 net.cpp:91] Creating Layer inception_4a/relu_5x5
I0714 21:35:48.697979  1720 net.cpp:425] inception_4a/relu_5x5 <- inception_4a/5x5
I0714 21:35:48.697988  1720 net.cpp:386] inception_4a/relu_5x5 -> inception_4a/5x5 (in-place)
I0714 21:35:48.698382  1720 net.cpp:141] Setting up inception_4a/relu_5x5
I0714 21:35:48.698396  1720 net.cpp:148] Top shape: 10 48 14 14 (94080)
I0714 21:35:48.698401  1720 net.cpp:156] Memory required for data: 364779520
I0714 21:35:48.698408  1720 layer_factory.hpp:77] Creating layer inception_4a/pool
I0714 21:35:48.698423  1720 net.cpp:91] Creating Layer inception_4a/pool
I0714 21:35:48.698429  1720 net.cpp:425] inception_4a/pool <- pool3/3x3_s2_pool3/3x3_s2_0_split_3
I0714 21:35:48.698441  1720 net.cpp:399] inception_4a/pool -> inception_4a/pool
I0714 21:35:48.698479  1716 net.cpp:141] Setting up inception_4a/5x5_reduce
I0714 21:35:48.698494  1716 net.cpp:148] Top shape: 10 16 14 14 (31360)
I0714 21:35:48.698499  1716 net.cpp:156] Memory required for data: 363901440
I0714 21:35:48.698509  1716 layer_factory.hpp:77] Creating layer inception_4a/relu_5x5_reduce
I0714 21:35:48.698519  1716 net.cpp:91] Creating Layer inception_4a/relu_5x5_reduce
I0714 21:35:48.698525  1716 net.cpp:425] inception_4a/relu_5x5_reduce <- inception_4a/5x5_reduce
I0714 21:35:48.698532  1716 net.cpp:386] inception_4a/relu_5x5_reduce -> inception_4a/5x5_reduce (in-place)
I0714 21:35:48.698544  1720 net.cpp:141] Setting up inception_4a/pool
I0714 21:35:48.698555  1720 net.cpp:148] Top shape: 10 480 14 14 (940800)
I0714 21:35:48.698559  1720 net.cpp:156] Memory required for data: 368542720
I0714 21:35:48.698565  1720 layer_factory.hpp:77] Creating layer inception_4a/pool_proj
I0714 21:35:48.698585  1720 net.cpp:91] Creating Layer inception_4a/pool_proj
I0714 21:35:48.698591  1720 net.cpp:425] inception_4a/pool_proj <- inception_4a/pool
I0714 21:35:48.698601  1720 net.cpp:399] inception_4a/pool_proj -> inception_4a/pool_proj
I0714 21:35:48.698918  1716 net.cpp:141] Setting up inception_4a/relu_5x5_reduce
I0714 21:35:48.698932  1716 net.cpp:148] Top shape: 10 16 14 14 (31360)
I0714 21:35:48.698936  1716 net.cpp:156] Memory required for data: 364026880
I0714 21:35:48.698942  1716 layer_factory.hpp:77] Creating layer inception_4a/5x5
I0714 21:35:48.698959  1716 net.cpp:91] Creating Layer inception_4a/5x5
I0714 21:35:48.698966  1716 net.cpp:425] inception_4a/5x5 <- inception_4a/5x5_reduce
I0714 21:35:48.698977  1716 net.cpp:399] inception_4a/5x5 -> inception_4a/5x5
I0714 21:35:48.702452  1720 net.cpp:141] Setting up inception_4a/pool_proj
I0714 21:35:48.702468  1720 net.cpp:148] Top shape: 10 64 14 14 (125440)
I0714 21:35:48.702474  1720 net.cpp:156] Memory required for data: 369044480
I0714 21:35:48.702483  1720 layer_factory.hpp:77] Creating layer inception_4a/relu_pool_proj
I0714 21:35:48.702497  1720 net.cpp:91] Creating Layer inception_4a/relu_pool_proj
I0714 21:35:48.702503  1720 net.cpp:425] inception_4a/relu_pool_proj <- inception_4a/pool_proj
I0714 21:35:48.702517  1720 net.cpp:386] inception_4a/relu_pool_proj -> inception_4a/pool_proj (in-place)
I0714 21:35:48.703277  1716 net.cpp:141] Setting up inception_4a/5x5
I0714 21:35:48.703294  1716 net.cpp:148] Top shape: 10 48 14 14 (94080)
I0714 21:35:48.703300  1716 net.cpp:156] Memory required for data: 364403200
I0714 21:35:48.703310  1716 layer_factory.hpp:77] Creating layer inception_4a/relu_5x5
I0714 21:35:48.703330  1716 net.cpp:91] Creating Layer inception_4a/relu_5x5
I0714 21:35:48.703336  1716 net.cpp:425] inception_4a/relu_5x5 <- inception_4a/5x5
I0714 21:35:48.703337  1720 net.cpp:141] Setting up inception_4a/relu_pool_proj
I0714 21:35:48.703344  1716 net.cpp:386] inception_4a/relu_5x5 -> inception_4a/5x5 (in-place)
I0714 21:35:48.703351  1720 net.cpp:148] Top shape: 10 64 14 14 (125440)
I0714 21:35:48.703356  1720 net.cpp:156] Memory required for data: 369546240
I0714 21:35:48.703362  1720 layer_factory.hpp:77] Creating layer inception_4a/output
I0714 21:35:48.703372  1720 net.cpp:91] Creating Layer inception_4a/output
I0714 21:35:48.703377  1720 net.cpp:425] inception_4a/output <- inception_4a/1x1
I0714 21:35:48.703384  1720 net.cpp:425] inception_4a/output <- inception_4a/3x3
I0714 21:35:48.703390  1720 net.cpp:425] inception_4a/output <- inception_4a/5x5
I0714 21:35:48.703395  1720 net.cpp:425] inception_4a/output <- inception_4a/pool_proj
I0714 21:35:48.703405  1720 net.cpp:399] inception_4a/output -> inception_4a/output
I0714 21:35:48.703552  1720 net.cpp:141] Setting up inception_4a/output
I0714 21:35:48.703563  1720 net.cpp:148] Top shape: 10 512 14 14 (1003520)
I0714 21:35:48.703567  1720 net.cpp:156] Memory required for data: 373560320
I0714 21:35:48.703573  1720 layer_factory.hpp:77] Creating layer inception_4a/output_inception_4a/output_0_split
I0714 21:35:48.703583  1720 net.cpp:91] Creating Layer inception_4a/output_inception_4a/output_0_split
I0714 21:35:48.703590  1720 net.cpp:425] inception_4a/output_inception_4a/output_0_split <- inception_4a/output
I0714 21:35:48.703598  1720 net.cpp:399] inception_4a/output_inception_4a/output_0_split -> inception_4a/output_inception_4a/output_0_split_0
I0714 21:35:48.703608  1720 net.cpp:399] inception_4a/output_inception_4a/output_0_split -> inception_4a/output_inception_4a/output_0_split_1
I0714 21:35:48.703616  1720 net.cpp:399] inception_4a/output_inception_4a/output_0_split -> inception_4a/output_inception_4a/output_0_split_2
I0714 21:35:48.703624  1720 net.cpp:399] inception_4a/output_inception_4a/output_0_split -> inception_4a/output_inception_4a/output_0_split_3
I0714 21:35:48.703634  1716 net.cpp:141] Setting up inception_4a/relu_5x5
I0714 21:35:48.703647  1716 net.cpp:148] Top shape: 10 48 14 14 (94080)
I0714 21:35:48.703651  1716 net.cpp:156] Memory required for data: 364779520
I0714 21:35:48.703657  1716 layer_factory.hpp:77] Creating layer inception_4a/pool
I0714 21:35:48.703666  1716 net.cpp:91] Creating Layer inception_4a/pool
I0714 21:35:48.703672  1716 net.cpp:425] inception_4a/pool <- pool3/3x3_s2_pool3/3x3_s2_0_split_3
I0714 21:35:48.703685  1716 net.cpp:399] inception_4a/pool -> inception_4a/pool
I0714 21:35:48.703873  1716 net.cpp:141] Setting up inception_4a/pool
I0714 21:35:48.703886  1716 net.cpp:148] Top shape: 10 480 14 14 (940800)
I0714 21:35:48.703894  1716 net.cpp:156] Memory required for data: 368542720
I0714 21:35:48.703899  1716 layer_factory.hpp:77] Creating layer inception_4a/pool_proj
I0714 21:35:48.703913  1720 net.cpp:141] Setting up inception_4a/output_inception_4a/output_0_split
I0714 21:35:48.703917  1716 net.cpp:91] Creating Layer inception_4a/pool_proj
I0714 21:35:48.703928  1720 net.cpp:148] Top shape: 10 512 14 14 (1003520)
I0714 21:35:48.703930  1716 net.cpp:425] inception_4a/pool_proj <- inception_4a/pool
I0714 21:35:48.703935  1720 net.cpp:148] Top shape: 10 512 14 14 (1003520)
I0714 21:35:48.703941  1720 net.cpp:148] Top shape: 10 512 14 14 (1003520)
I0714 21:35:48.703943  1716 net.cpp:399] inception_4a/pool_proj -> inception_4a/pool_proj
I0714 21:35:48.703946  1720 net.cpp:148] Top shape: 10 512 14 14 (1003520)
I0714 21:35:48.703953  1720 net.cpp:156] Memory required for data: 389616640
I0714 21:35:48.703958  1720 layer_factory.hpp:77] Creating layer inception_4b/1x1
I0714 21:35:48.703976  1720 net.cpp:91] Creating Layer inception_4b/1x1
I0714 21:35:48.703984  1720 net.cpp:425] inception_4b/1x1 <- inception_4a/output_inception_4a/output_0_split_0
I0714 21:35:48.703992  1720 net.cpp:399] inception_4b/1x1 -> inception_4b/1x1
I0714 21:35:48.708036  1716 net.cpp:141] Setting up inception_4a/pool_proj
I0714 21:35:48.708060  1716 net.cpp:148] Top shape: 10 64 14 14 (125440)
I0714 21:35:48.708070  1716 net.cpp:156] Memory required for data: 369044480
I0714 21:35:48.708082  1716 layer_factory.hpp:77] Creating layer inception_4a/relu_pool_proj
I0714 21:35:48.708092  1716 net.cpp:91] Creating Layer inception_4a/relu_pool_proj
I0714 21:35:48.708098  1716 net.cpp:425] inception_4a/relu_pool_proj <- inception_4a/pool_proj
I0714 21:35:48.708107  1716 net.cpp:386] inception_4a/relu_pool_proj -> inception_4a/pool_proj (in-place)
I0714 21:35:48.709043  1716 net.cpp:141] Setting up inception_4a/relu_pool_proj
I0714 21:35:48.709059  1716 net.cpp:148] Top shape: 10 64 14 14 (125440)
I0714 21:35:48.709064  1716 net.cpp:156] Memory required for data: 369546240
I0714 21:35:48.709069  1716 layer_factory.hpp:77] Creating layer inception_4a/output
I0714 21:35:48.709079  1716 net.cpp:91] Creating Layer inception_4a/output
I0714 21:35:48.709085  1716 net.cpp:425] inception_4a/output <- inception_4a/1x1
I0714 21:35:48.709092  1716 net.cpp:425] inception_4a/output <- inception_4a/3x3
I0714 21:35:48.709098  1716 net.cpp:425] inception_4a/output <- inception_4a/5x5
I0714 21:35:48.709103  1716 net.cpp:425] inception_4a/output <- inception_4a/pool_proj
I0714 21:35:48.709102  1720 net.cpp:141] Setting up inception_4b/1x1
I0714 21:35:48.709116  1716 net.cpp:399] inception_4a/output -> inception_4a/output
I0714 21:35:48.709118  1720 net.cpp:148] Top shape: 10 160 14 14 (313600)
I0714 21:35:48.709131  1720 net.cpp:156] Memory required for data: 390871040
I0714 21:35:48.709141  1720 layer_factory.hpp:77] Creating layer inception_4b/relu_1x1
I0714 21:35:48.709154  1720 net.cpp:91] Creating Layer inception_4b/relu_1x1
I0714 21:35:48.709161  1720 net.cpp:425] inception_4b/relu_1x1 <- inception_4b/1x1
I0714 21:35:48.709168  1720 net.cpp:386] inception_4b/relu_1x1 -> inception_4b/1x1 (in-place)
I0714 21:35:48.709202  1716 net.cpp:141] Setting up inception_4a/output
I0714 21:35:48.709213  1716 net.cpp:148] Top shape: 10 512 14 14 (1003520)
I0714 21:35:48.709218  1716 net.cpp:156] Memory required for data: 373560320
I0714 21:35:48.709223  1716 layer_factory.hpp:77] Creating layer inception_4a/output_inception_4a/output_0_split
I0714 21:35:48.709233  1716 net.cpp:91] Creating Layer inception_4a/output_inception_4a/output_0_split
I0714 21:35:48.709239  1716 net.cpp:425] inception_4a/output_inception_4a/output_0_split <- inception_4a/output
I0714 21:35:48.709249  1716 net.cpp:399] inception_4a/output_inception_4a/output_0_split -> inception_4a/output_inception_4a/output_0_split_0
I0714 21:35:48.709260  1716 net.cpp:399] inception_4a/output_inception_4a/output_0_split -> inception_4a/output_inception_4a/output_0_split_1
I0714 21:35:48.709270  1716 net.cpp:399] inception_4a/output_inception_4a/output_0_split -> inception_4a/output_inception_4a/output_0_split_2
I0714 21:35:48.709277  1716 net.cpp:399] inception_4a/output_inception_4a/output_0_split -> inception_4a/output_inception_4a/output_0_split_3
I0714 21:35:48.709563  1720 net.cpp:141] Setting up inception_4b/relu_1x1
I0714 21:35:48.709575  1720 net.cpp:148] Top shape: 10 160 14 14 (313600)
I0714 21:35:48.709580  1720 net.cpp:156] Memory required for data: 392125440
I0714 21:35:48.709579  1716 net.cpp:141] Setting up inception_4a/output_inception_4a/output_0_split
I0714 21:35:48.709586  1720 layer_factory.hpp:77] Creating layer inception_4b/3x3_reduce
I0714 21:35:48.709591  1716 net.cpp:148] Top shape: 10 512 14 14 (1003520)
I0714 21:35:48.709600  1716 net.cpp:148] Top shape: 10 512 14 14 (1003520)
I0714 21:35:48.709606  1716 net.cpp:148] Top shape: 10 512 14 14 (1003520)
I0714 21:35:48.709609  1720 net.cpp:91] Creating Layer inception_4b/3x3_reduce
I0714 21:35:48.709611  1716 net.cpp:148] Top shape: 10 512 14 14 (1003520)
I0714 21:35:48.709615  1720 net.cpp:425] inception_4b/3x3_reduce <- inception_4a/output_inception_4a/output_0_split_1
I0714 21:35:48.709616  1716 net.cpp:156] Memory required for data: 389616640
I0714 21:35:48.709622  1716 layer_factory.hpp:77] Creating layer inception_4b/1x1
I0714 21:35:48.709628  1720 net.cpp:399] inception_4b/3x3_reduce -> inception_4b/3x3_reduce
I0714 21:35:48.709636  1716 net.cpp:91] Creating Layer inception_4b/1x1
I0714 21:35:48.709642  1716 net.cpp:425] inception_4b/1x1 <- inception_4a/output_inception_4a/output_0_split_0
I0714 21:35:48.709661  1716 net.cpp:399] inception_4b/1x1 -> inception_4b/1x1
I0714 21:35:48.713992  1720 net.cpp:141] Setting up inception_4b/3x3_reduce
I0714 21:35:48.714011  1720 net.cpp:148] Top shape: 10 112 14 14 (219520)
I0714 21:35:48.714016  1720 net.cpp:156] Memory required for data: 393003520
I0714 21:35:48.714025  1720 layer_factory.hpp:77] Creating layer inception_4b/relu_3x3_reduce
I0714 21:35:48.714040  1720 net.cpp:91] Creating Layer inception_4b/relu_3x3_reduce
I0714 21:35:48.714046  1720 net.cpp:425] inception_4b/relu_3x3_reduce <- inception_4b/3x3_reduce
I0714 21:35:48.714052  1720 net.cpp:386] inception_4b/relu_3x3_reduce -> inception_4b/3x3_reduce (in-place)
I0714 21:35:48.714352  1716 net.cpp:141] Setting up inception_4b/1x1
I0714 21:35:48.714371  1716 net.cpp:148] Top shape: 10 160 14 14 (313600)
I0714 21:35:48.714377  1716 net.cpp:156] Memory required for data: 390871040
I0714 21:35:48.714380  1720 net.cpp:141] Setting up inception_4b/relu_3x3_reduce
I0714 21:35:48.714387  1716 layer_factory.hpp:77] Creating layer inception_4b/relu_1x1
I0714 21:35:48.714392  1720 net.cpp:148] Top shape: 10 112 14 14 (219520)
I0714 21:35:48.714397  1716 net.cpp:91] Creating Layer inception_4b/relu_1x1
I0714 21:35:48.714397  1720 net.cpp:156] Memory required for data: 393881600
I0714 21:35:48.714406  1716 net.cpp:425] inception_4b/relu_1x1 <- inception_4b/1x1
I0714 21:35:48.714411  1720 layer_factory.hpp:77] Creating layer inception_4b/3x3
I0714 21:35:48.714414  1716 net.cpp:386] inception_4b/relu_1x1 -> inception_4b/1x1 (in-place)
I0714 21:35:48.714428  1720 net.cpp:91] Creating Layer inception_4b/3x3
I0714 21:35:48.714435  1720 net.cpp:425] inception_4b/3x3 <- inception_4b/3x3_reduce
I0714 21:35:48.714447  1720 net.cpp:399] inception_4b/3x3 -> inception_4b/3x3
I0714 21:35:48.714800  1716 net.cpp:141] Setting up inception_4b/relu_1x1
I0714 21:35:48.714813  1716 net.cpp:148] Top shape: 10 160 14 14 (313600)
I0714 21:35:48.714819  1716 net.cpp:156] Memory required for data: 392125440
I0714 21:35:48.714824  1716 layer_factory.hpp:77] Creating layer inception_4b/3x3_reduce
I0714 21:35:48.714843  1716 net.cpp:91] Creating Layer inception_4b/3x3_reduce
I0714 21:35:48.714848  1716 net.cpp:425] inception_4b/3x3_reduce <- inception_4a/output_inception_4a/output_0_split_1
I0714 21:35:48.714870  1716 net.cpp:399] inception_4b/3x3_reduce -> inception_4b/3x3_reduce
I0714 21:35:48.721122  1716 net.cpp:141] Setting up inception_4b/3x3_reduce
I0714 21:35:48.721140  1716 net.cpp:148] Top shape: 10 112 14 14 (219520)
I0714 21:35:48.721146  1716 net.cpp:156] Memory required for data: 393003520
I0714 21:35:48.721156  1716 layer_factory.hpp:77] Creating layer inception_4b/relu_3x3_reduce
I0714 21:35:48.721170  1716 net.cpp:91] Creating Layer inception_4b/relu_3x3_reduce
I0714 21:35:48.721177  1716 net.cpp:425] inception_4b/relu_3x3_reduce <- inception_4b/3x3_reduce
I0714 21:35:48.721185  1716 net.cpp:386] inception_4b/relu_3x3_reduce -> inception_4b/3x3_reduce (in-place)
I0714 21:35:48.721576  1716 net.cpp:141] Setting up inception_4b/relu_3x3_reduce
I0714 21:35:48.721590  1716 net.cpp:148] Top shape: 10 112 14 14 (219520)
I0714 21:35:48.721596  1716 net.cpp:156] Memory required for data: 393881600
I0714 21:35:48.721601  1716 layer_factory.hpp:77] Creating layer inception_4b/3x3
I0714 21:35:48.721621  1716 net.cpp:91] Creating Layer inception_4b/3x3
I0714 21:35:48.721627  1716 net.cpp:425] inception_4b/3x3 <- inception_4b/3x3_reduce
I0714 21:35:48.721639  1716 net.cpp:399] inception_4b/3x3 -> inception_4b/3x3
I0714 21:35:48.721696  1720 net.cpp:141] Setting up inception_4b/3x3
I0714 21:35:48.721711  1720 net.cpp:148] Top shape: 10 224 14 14 (439040)
I0714 21:35:48.721717  1720 net.cpp:156] Memory required for data: 395637760
I0714 21:35:48.721726  1720 layer_factory.hpp:77] Creating layer inception_4b/relu_3x3
I0714 21:35:48.721738  1720 net.cpp:91] Creating Layer inception_4b/relu_3x3
I0714 21:35:48.721745  1720 net.cpp:425] inception_4b/relu_3x3 <- inception_4b/3x3
I0714 21:35:48.721751  1720 net.cpp:386] inception_4b/relu_3x3 -> inception_4b/3x3 (in-place)
I0714 21:35:48.722630  1720 net.cpp:141] Setting up inception_4b/relu_3x3
I0714 21:35:48.722645  1720 net.cpp:148] Top shape: 10 224 14 14 (439040)
I0714 21:35:48.722650  1720 net.cpp:156] Memory required for data: 397393920
I0714 21:35:48.722656  1720 layer_factory.hpp:77] Creating layer inception_4b/5x5_reduce
I0714 21:35:48.722702  1720 net.cpp:91] Creating Layer inception_4b/5x5_reduce
I0714 21:35:48.722710  1720 net.cpp:425] inception_4b/5x5_reduce <- inception_4a/output_inception_4a/output_0_split_2
I0714 21:35:48.722723  1720 net.cpp:399] inception_4b/5x5_reduce -> inception_4b/5x5_reduce
I0714 21:35:48.728307  1720 net.cpp:141] Setting up inception_4b/5x5_reduce
I0714 21:35:48.728327  1720 net.cpp:148] Top shape: 10 24 14 14 (47040)
I0714 21:35:48.728332  1720 net.cpp:156] Memory required for data: 397582080
I0714 21:35:48.728343  1720 layer_factory.hpp:77] Creating layer inception_4b/relu_5x5_reduce
I0714 21:35:48.728353  1720 net.cpp:91] Creating Layer inception_4b/relu_5x5_reduce
I0714 21:35:48.728359  1720 net.cpp:425] inception_4b/relu_5x5_reduce <- inception_4b/5x5_reduce
I0714 21:35:48.728366  1720 net.cpp:386] inception_4b/relu_5x5_reduce -> inception_4b/5x5_reduce (in-place)
I0714 21:35:48.728624  1720 net.cpp:141] Setting up inception_4b/relu_5x5_reduce
I0714 21:35:48.728636  1720 net.cpp:148] Top shape: 10 24 14 14 (47040)
I0714 21:35:48.728641  1720 net.cpp:156] Memory required for data: 397770240
I0714 21:35:48.728646  1720 layer_factory.hpp:77] Creating layer inception_4b/5x5
I0714 21:35:48.728663  1720 net.cpp:91] Creating Layer inception_4b/5x5
I0714 21:35:48.728670  1720 net.cpp:425] inception_4b/5x5 <- inception_4b/5x5_reduce
I0714 21:35:48.728682  1720 net.cpp:399] inception_4b/5x5 -> inception_4b/5x5
I0714 21:35:48.731416  1716 net.cpp:141] Setting up inception_4b/3x3
I0714 21:35:48.731436  1716 net.cpp:148] Top shape: 10 224 14 14 (439040)
I0714 21:35:48.731442  1716 net.cpp:156] Memory required for data: 395637760
I0714 21:35:48.731452  1716 layer_factory.hpp:77] Creating layer inception_4b/relu_3x3
I0714 21:35:48.731469  1716 net.cpp:91] Creating Layer inception_4b/relu_3x3
I0714 21:35:48.731475  1716 net.cpp:425] inception_4b/relu_3x3 <- inception_4b/3x3
I0714 21:35:48.731483  1716 net.cpp:386] inception_4b/relu_3x3 -> inception_4b/3x3 (in-place)
I0714 21:35:48.732355  1716 net.cpp:141] Setting up inception_4b/relu_3x3
I0714 21:35:48.732372  1716 net.cpp:148] Top shape: 10 224 14 14 (439040)
I0714 21:35:48.732377  1716 net.cpp:156] Memory required for data: 397393920
I0714 21:35:48.732383  1716 layer_factory.hpp:77] Creating layer inception_4b/5x5_reduce
I0714 21:35:48.732414  1716 net.cpp:91] Creating Layer inception_4b/5x5_reduce
I0714 21:35:48.732420  1716 net.cpp:425] inception_4b/5x5_reduce <- inception_4a/output_inception_4a/output_0_split_2
I0714 21:35:48.732434  1716 net.cpp:399] inception_4b/5x5_reduce -> inception_4b/5x5_reduce
I0714 21:35:48.734944  1720 net.cpp:141] Setting up inception_4b/5x5
I0714 21:35:48.734962  1720 net.cpp:148] Top shape: 10 64 14 14 (125440)
I0714 21:35:48.734968  1720 net.cpp:156] Memory required for data: 398272000
I0714 21:35:48.734977  1720 layer_factory.hpp:77] Creating layer inception_4b/relu_5x5
I0714 21:35:48.734992  1720 net.cpp:91] Creating Layer inception_4b/relu_5x5
I0714 21:35:48.734997  1720 net.cpp:425] inception_4b/relu_5x5 <- inception_4b/5x5
I0714 21:35:48.735005  1720 net.cpp:386] inception_4b/relu_5x5 -> inception_4b/5x5 (in-place)
I0714 21:35:48.735260  1720 net.cpp:141] Setting up inception_4b/relu_5x5
I0714 21:35:48.735271  1720 net.cpp:148] Top shape: 10 64 14 14 (125440)
I0714 21:35:48.735276  1720 net.cpp:156] Memory required for data: 398773760
I0714 21:35:48.735281  1720 layer_factory.hpp:77] Creating layer inception_4b/pool
I0714 21:35:48.735292  1720 net.cpp:91] Creating Layer inception_4b/pool
I0714 21:35:48.735298  1720 net.cpp:425] inception_4b/pool <- inception_4a/output_inception_4a/output_0_split_3
I0714 21:35:48.735311  1720 net.cpp:399] inception_4b/pool -> inception_4b/pool
I0714 21:35:48.735721  1720 net.cpp:141] Setting up inception_4b/pool
I0714 21:35:48.735735  1720 net.cpp:148] Top shape: 10 512 14 14 (1003520)
I0714 21:35:48.735740  1720 net.cpp:156] Memory required for data: 402787840
I0714 21:35:48.735746  1720 layer_factory.hpp:77] Creating layer inception_4b/pool_proj
I0714 21:35:48.735766  1720 net.cpp:91] Creating Layer inception_4b/pool_proj
I0714 21:35:48.735772  1720 net.cpp:425] inception_4b/pool_proj <- inception_4b/pool
I0714 21:35:48.735786  1720 net.cpp:399] inception_4b/pool_proj -> inception_4b/pool_proj
I0714 21:35:48.737202  1716 net.cpp:141] Setting up inception_4b/5x5_reduce
I0714 21:35:48.737222  1716 net.cpp:148] Top shape: 10 24 14 14 (47040)
I0714 21:35:48.737228  1716 net.cpp:156] Memory required for data: 397582080
I0714 21:35:48.737241  1716 layer_factory.hpp:77] Creating layer inception_4b/relu_5x5_reduce
I0714 21:35:48.737251  1716 net.cpp:91] Creating Layer inception_4b/relu_5x5_reduce
I0714 21:35:48.737257  1716 net.cpp:425] inception_4b/relu_5x5_reduce <- inception_4b/5x5_reduce
I0714 21:35:48.737267  1716 net.cpp:386] inception_4b/relu_5x5_reduce -> inception_4b/5x5_reduce (in-place)
I0714 21:35:48.737593  1716 net.cpp:141] Setting up inception_4b/relu_5x5_reduce
I0714 21:35:48.737608  1716 net.cpp:148] Top shape: 10 24 14 14 (47040)
I0714 21:35:48.737613  1716 net.cpp:156] Memory required for data: 397770240
I0714 21:35:48.737619  1716 layer_factory.hpp:77] Creating layer inception_4b/5x5
I0714 21:35:48.737637  1716 net.cpp:91] Creating Layer inception_4b/5x5
I0714 21:35:48.737648  1716 net.cpp:425] inception_4b/5x5 <- inception_4b/5x5_reduce
I0714 21:35:48.737658  1716 net.cpp:399] inception_4b/5x5 -> inception_4b/5x5
I0714 21:35:48.741271  1720 net.cpp:141] Setting up inception_4b/pool_proj
I0714 21:35:48.741289  1720 net.cpp:148] Top shape: 10 64 14 14 (125440)
I0714 21:35:48.741295  1720 net.cpp:156] Memory required for data: 403289600
I0714 21:35:48.741304  1720 layer_factory.hpp:77] Creating layer inception_4b/relu_pool_proj
I0714 21:35:48.741314  1720 net.cpp:91] Creating Layer inception_4b/relu_pool_proj
I0714 21:35:48.741320  1720 net.cpp:425] inception_4b/relu_pool_proj <- inception_4b/pool_proj
I0714 21:35:48.741328  1720 net.cpp:386] inception_4b/relu_pool_proj -> inception_4b/pool_proj (in-place)
I0714 21:35:48.742173  1720 net.cpp:141] Setting up inception_4b/relu_pool_proj
I0714 21:35:48.742188  1720 net.cpp:148] Top shape: 10 64 14 14 (125440)
I0714 21:35:48.742193  1720 net.cpp:156] Memory required for data: 403791360
I0714 21:35:48.742199  1720 layer_factory.hpp:77] Creating layer inception_4b/output
I0714 21:35:48.742209  1720 net.cpp:91] Creating Layer inception_4b/output
I0714 21:35:48.742215  1720 net.cpp:425] inception_4b/output <- inception_4b/1x1
I0714 21:35:48.742221  1720 net.cpp:425] inception_4b/output <- inception_4b/3x3
I0714 21:35:48.742228  1720 net.cpp:425] inception_4b/output <- inception_4b/5x5
I0714 21:35:48.742233  1720 net.cpp:425] inception_4b/output <- inception_4b/pool_proj
I0714 21:35:48.742244  1720 net.cpp:399] inception_4b/output -> inception_4b/output
I0714 21:35:48.742811  1720 net.cpp:141] Setting up inception_4b/output
I0714 21:35:48.742825  1720 net.cpp:148] Top shape: 10 512 14 14 (1003520)
I0714 21:35:48.742830  1720 net.cpp:156] Memory required for data: 407805440
I0714 21:35:48.742835  1720 layer_factory.hpp:77] Creating layer inception_4b/output_inception_4b/output_0_split
I0714 21:35:48.742846  1720 net.cpp:91] Creating Layer inception_4b/output_inception_4b/output_0_split
I0714 21:35:48.742851  1720 net.cpp:425] inception_4b/output_inception_4b/output_0_split <- inception_4b/output
I0714 21:35:48.742862  1720 net.cpp:399] inception_4b/output_inception_4b/output_0_split -> inception_4b/output_inception_4b/output_0_split_0
I0714 21:35:48.742872  1720 net.cpp:399] inception_4b/output_inception_4b/output_0_split -> inception_4b/output_inception_4b/output_0_split_1
I0714 21:35:48.742882  1720 net.cpp:399] inception_4b/output_inception_4b/output_0_split -> inception_4b/output_inception_4b/output_0_split_2
I0714 21:35:48.742890  1720 net.cpp:399] inception_4b/output_inception_4b/output_0_split -> inception_4b/output_inception_4b/output_0_split_3
I0714 21:35:48.743302  1720 net.cpp:141] Setting up inception_4b/output_inception_4b/output_0_split
I0714 21:35:48.743315  1720 net.cpp:148] Top shape: 10 512 14 14 (1003520)
I0714 21:35:48.743322  1720 net.cpp:148] Top shape: 10 512 14 14 (1003520)
I0714 21:35:48.743329  1720 net.cpp:148] Top shape: 10 512 14 14 (1003520)
I0714 21:35:48.743333  1720 net.cpp:148] Top shape: 10 512 14 14 (1003520)
I0714 21:35:48.743337  1720 net.cpp:156] Memory required for data: 423861760
I0714 21:35:48.743342  1720 layer_factory.hpp:77] Creating layer inception_4c/1x1
I0714 21:35:48.743358  1720 net.cpp:91] Creating Layer inception_4c/1x1
I0714 21:35:48.743365  1720 net.cpp:425] inception_4c/1x1 <- inception_4b/output_inception_4b/output_0_split_0
I0714 21:35:48.743377  1720 net.cpp:399] inception_4c/1x1 -> inception_4c/1x1
I0714 21:35:48.744709  1716 net.cpp:141] Setting up inception_4b/5x5
I0714 21:35:48.744729  1716 net.cpp:148] Top shape: 10 64 14 14 (125440)
I0714 21:35:48.744735  1716 net.cpp:156] Memory required for data: 398272000
I0714 21:35:48.744745  1716 layer_factory.hpp:77] Creating layer inception_4b/relu_5x5
I0714 21:35:48.744753  1716 net.cpp:91] Creating Layer inception_4b/relu_5x5
I0714 21:35:48.744760  1716 net.cpp:425] inception_4b/relu_5x5 <- inception_4b/5x5
I0714 21:35:48.744767  1716 net.cpp:386] inception_4b/relu_5x5 -> inception_4b/5x5 (in-place)
I0714 21:35:48.745015  1716 net.cpp:141] Setting up inception_4b/relu_5x5
I0714 21:35:48.745028  1716 net.cpp:148] Top shape: 10 64 14 14 (125440)
I0714 21:35:48.745033  1716 net.cpp:156] Memory required for data: 398773760
I0714 21:35:48.745038  1716 layer_factory.hpp:77] Creating layer inception_4b/pool
I0714 21:35:48.745048  1716 net.cpp:91] Creating Layer inception_4b/pool
I0714 21:35:48.745056  1716 net.cpp:425] inception_4b/pool <- inception_4a/output_inception_4a/output_0_split_3
I0714 21:35:48.745064  1716 net.cpp:399] inception_4b/pool -> inception_4b/pool
I0714 21:35:48.745200  1716 net.cpp:141] Setting up inception_4b/pool
I0714 21:35:48.745213  1716 net.cpp:148] Top shape: 10 512 14 14 (1003520)
I0714 21:35:48.745216  1716 net.cpp:156] Memory required for data: 402787840
I0714 21:35:48.745223  1716 layer_factory.hpp:77] Creating layer inception_4b/pool_proj
I0714 21:35:48.745246  1716 net.cpp:91] Creating Layer inception_4b/pool_proj
I0714 21:35:48.745252  1716 net.cpp:425] inception_4b/pool_proj <- inception_4b/pool
I0714 21:35:48.745265  1716 net.cpp:399] inception_4b/pool_proj -> inception_4b/pool_proj
I0714 21:35:48.750072  1720 net.cpp:141] Setting up inception_4c/1x1
I0714 21:35:48.750092  1720 net.cpp:148] Top shape: 10 128 14 14 (250880)
I0714 21:35:48.750097  1720 net.cpp:156] Memory required for data: 424865280
I0714 21:35:48.750108  1720 layer_factory.hpp:77] Creating layer inception_4c/relu_1x1
I0714 21:35:48.750120  1720 net.cpp:91] Creating Layer inception_4c/relu_1x1
I0714 21:35:48.750128  1720 net.cpp:425] inception_4c/relu_1x1 <- inception_4c/1x1
I0714 21:35:48.750135  1720 net.cpp:386] inception_4c/relu_1x1 -> inception_4c/1x1 (in-place)
I0714 21:35:48.750623  1720 net.cpp:141] Setting up inception_4c/relu_1x1
I0714 21:35:48.750638  1720 net.cpp:148] Top shape: 10 128 14 14 (250880)
I0714 21:35:48.750643  1720 net.cpp:156] Memory required for data: 425868800
I0714 21:35:48.750649  1720 layer_factory.hpp:77] Creating layer inception_4c/3x3_reduce
I0714 21:35:48.750666  1720 net.cpp:91] Creating Layer inception_4c/3x3_reduce
I0714 21:35:48.750672  1720 net.cpp:425] inception_4c/3x3_reduce <- inception_4b/output_inception_4b/output_0_split_1
I0714 21:35:48.750684  1720 net.cpp:399] inception_4c/3x3_reduce -> inception_4c/3x3_reduce
I0714 21:35:48.753459  1716 net.cpp:141] Setting up inception_4b/pool_proj
I0714 21:35:48.753528  1716 net.cpp:148] Top shape: 10 64 14 14 (125440)
I0714 21:35:48.753554  1716 net.cpp:156] Memory required for data: 403289600
…
I0714 21:35:48.894548  1720 net.cpp:148] Top shape: 10 128 14 14 (250880)
I0714 21:35:48.894556  1720 net.cpp:156] Memory required for data: 513300480
I0714 21:35:48.894567  1720 layer_factory.hpp:77] Creating layer inception_4e/relu_pool_proj
I0714 21:35:48.894577  1720 net.cpp:91] Creating Layer inception_4e/relu_pool_proj
I0714 21:35:48.894583  1720 net.cpp:425] inception_4e/relu_pool_proj <- inception_4e/pool_proj
I0714 21:35:48.894596  1720 net.cpp:386] inception_4e/relu_pool_proj -> inception_4e/pool_proj (in-place)
I0714 21:35:48.895658  1716 net.cpp:141] Setting up inception_4e/3x3
I0714 21:35:48.895664  1720 net.cpp:141] Setting up inception_4e/relu_pool_proj
I0714 21:35:48.895695  1716 net.cpp:148] Top shape: 10 320 14 14 (627200)
I0714 21:35:48.895699  1720 net.cpp:148] Top shape: 10 128 14 14 (250880)
I0714 21:35:48.895704  1716 net.cpp:156] Memory required for data: 503139840
I0714 21:35:48.895706  1720 net.cpp:156] Memory required for data: 514304000
I0714 21:35:48.895714  1720 layer_factory.hpp:77] Creating layer inception_4e/output
I0714 21:35:48.895716  1716 layer_factory.hpp:77] Creating layer inception_4e/relu_3x3
I0714 21:35:48.895727  1716 net.cpp:91] Creating Layer inception_4e/relu_3x3
I0714 21:35:48.895730  1720 net.cpp:91] Creating Layer inception_4e/output
I0714 21:35:48.895735  1716 net.cpp:425] inception_4e/relu_3x3 <- inception_4e/3x3
I0714 21:35:48.895737  1720 net.cpp:425] inception_4e/output <- inception_4e/1x1
I0714 21:35:48.895745  1720 net.cpp:425] inception_4e/output <- inception_4e/3x3
I0714 21:35:48.895747  1716 net.cpp:386] inception_4e/relu_3x3 -> inception_4e/3x3 (in-place)
I0714 21:35:48.895752  1720 net.cpp:425] inception_4e/output <- inception_4e/5x5
I0714 21:35:48.895759  1720 net.cpp:425] inception_4e/output <- inception_4e/pool_proj
I0714 21:35:48.895767  1720 net.cpp:399] inception_4e/output -> inception_4e/output
I0714 21:35:48.896504  1720 net.cpp:141] Setting up inception_4e/output
I0714 21:35:48.896522  1720 net.cpp:148] Top shape: 10 832 14 14 (1630720)
I0714 21:35:48.896528  1720 net.cpp:156] Memory required for data: 520826880
I0714 21:35:48.896534  1720 layer_factory.hpp:77] Creating layer pool4/3x3_s2
I0714 21:35:48.896549  1720 net.cpp:91] Creating Layer pool4/3x3_s2
I0714 21:35:48.896556  1720 net.cpp:425] pool4/3x3_s2 <- inception_4e/output
I0714 21:35:48.896569  1720 net.cpp:399] pool4/3x3_s2 -> pool4/3x3_s2
I0714 21:35:48.896625  1716 net.cpp:141] Setting up inception_4e/relu_3x3
I0714 21:35:48.896639  1716 net.cpp:148] Top shape: 10 320 14 14 (627200)
I0714 21:35:48.896643  1716 net.cpp:156] Memory required for data: 505648640
I0714 21:35:48.896649  1716 layer_factory.hpp:77] Creating layer inception_4e/5x5_reduce
I0714 21:35:48.896669  1716 net.cpp:91] Creating Layer inception_4e/5x5_reduce
I0714 21:35:48.896677  1716 net.cpp:425] inception_4e/5x5_reduce <- inception_4d/output_inception_4d/output_0_split_2
I0714 21:35:48.896687  1716 net.cpp:399] inception_4e/5x5_reduce -> inception_4e/5x5_reduce
I0714 21:35:48.896714  1720 net.cpp:141] Setting up pool4/3x3_s2
I0714 21:35:48.896728  1720 net.cpp:148] Top shape: 10 832 7 7 (407680)
I0714 21:35:48.896733  1720 net.cpp:156] Memory required for data: 522457600
I0714 21:35:48.896739  1720 layer_factory.hpp:77] Creating layer pool4/3x3_s2_pool4/3x3_s2_0_split
I0714 21:35:48.896754  1720 net.cpp:91] Creating Layer pool4/3x3_s2_pool4/3x3_s2_0_split
I0714 21:35:48.896759  1720 net.cpp:425] pool4/3x3_s2_pool4/3x3_s2_0_split <- pool4/3x3_s2
I0714 21:35:48.896767  1720 net.cpp:399] pool4/3x3_s2_pool4/3x3_s2_0_split -> pool4/3x3_s2_pool4/3x3_s2_0_split_0
I0714 21:35:48.896785  1720 net.cpp:399] pool4/3x3_s2_pool4/3x3_s2_0_split -> pool4/3x3_s2_pool4/3x3_s2_0_split_1
I0714 21:35:48.896797  1720 net.cpp:399] pool4/3x3_s2_pool4/3x3_s2_0_split -> pool4/3x3_s2_pool4/3x3_s2_0_split_2
I0714 21:35:48.896807  1720 net.cpp:399] pool4/3x3_s2_pool4/3x3_s2_0_split -> pool4/3x3_s2_pool4/3x3_s2_0_split_3
I0714 21:35:48.897440  1720 net.cpp:141] Setting up pool4/3x3_s2_pool4/3x3_s2_0_split
I0714 21:35:48.897454  1720 net.cpp:148] Top shape: 10 832 7 7 (407680)
I0714 21:35:48.897461  1720 net.cpp:148] Top shape: 10 832 7 7 (407680)
I0714 21:35:48.897467  1720 net.cpp:148] Top shape: 10 832 7 7 (407680)
I0714 21:35:48.897475  1720 net.cpp:148] Top shape: 10 832 7 7 (407680)
I0714 21:35:48.897478  1720 net.cpp:156] Memory required for data: 528980480
I0714 21:35:48.897485  1720 layer_factory.hpp:77] Creating layer inception_5a/1x1
I0714 21:35:48.897503  1720 net.cpp:91] Creating Layer inception_5a/1x1
I0714 21:35:48.897511  1720 net.cpp:425] inception_5a/1x1 <- pool4/3x3_s2_pool4/3x3_s2_0_split_0
I0714 21:35:48.897522  1720 net.cpp:399] inception_5a/1x1 -> inception_5a/1x1
I0714 21:35:48.902182  1716 net.cpp:141] Setting up inception_4e/5x5_reduce
I0714 21:35:48.902218  1716 net.cpp:148] Top shape: 10 32 14 14 (62720)
I0714 21:35:48.902225  1716 net.cpp:156] Memory required for data: 505899520
I0714 21:35:48.902236  1716 layer_factory.hpp:77] Creating layer inception_4e/relu_5x5_reduce
I0714 21:35:48.902250  1716 net.cpp:91] Creating Layer inception_4e/relu_5x5_reduce
I0714 21:35:48.902256  1716 net.cpp:425] inception_4e/relu_5x5_reduce <- inception_4e/5x5_reduce
I0714 21:35:48.902264  1716 net.cpp:386] inception_4e/relu_5x5_reduce -> inception_4e/5x5_reduce (in-place)
I0714 21:35:48.902529  1716 net.cpp:141] Setting up inception_4e/relu_5x5_reduce
I0714 21:35:48.902540  1716 net.cpp:148] Top shape: 10 32 14 14 (62720)
I0714 21:35:48.902545  1716 net.cpp:156] Memory required for data: 506150400
I0714 21:35:48.902551  1716 layer_factory.hpp:77] Creating layer inception_4e/5x5
I0714 21:35:48.902570  1716 net.cpp:91] Creating Layer inception_4e/5x5
I0714 21:35:48.902576  1716 net.cpp:425] inception_4e/5x5 <- inception_4e/5x5_reduce
I0714 21:35:48.902588  1716 net.cpp:399] inception_4e/5x5 -> inception_4e/5x5
I0714 21:35:48.908895  1720 net.cpp:141] Setting up inception_5a/1x1
I0714 21:35:48.908917  1720 net.cpp:148] Top shape: 10 256 7 7 (125440)
I0714 21:35:48.908924  1720 net.cpp:156] Memory required for data: 529482240
I0714 21:35:48.908936  1720 layer_factory.hpp:77] Creating layer inception_5a/relu_1x1
I0714 21:35:48.908949  1720 net.cpp:91] Creating Layer inception_5a/relu_1x1
I0714 21:35:48.908957  1720 net.cpp:425] inception_5a/relu_1x1 <- inception_5a/1x1
I0714 21:35:48.908967  1720 net.cpp:386] inception_5a/relu_1x1 -> inception_5a/1x1 (in-place)
I0714 21:35:48.909490  1720 net.cpp:141] Setting up inception_5a/relu_1x1
I0714 21:35:48.909505  1720 net.cpp:148] Top shape: 10 256 7 7 (125440)
I0714 21:35:48.909512  1720 net.cpp:156] Memory required for data: 529984000
I0714 21:35:48.909518  1720 layer_factory.hpp:77] Creating layer inception_5a/3x3_reduce
I0714 21:35:48.909538  1720 net.cpp:91] Creating Layer inception_5a/3x3_reduce
I0714 21:35:48.909546  1720 net.cpp:425] inception_5a/3x3_reduce <- pool4/3x3_s2_pool4/3x3_s2_0_split_1
I0714 21:35:48.909557  1720 net.cpp:399] inception_5a/3x3_reduce -> inception_5a/3x3_reduce
I0714 21:35:48.909582  1716 net.cpp:141] Setting up inception_4e/5x5
I0714 21:35:48.909598  1716 net.cpp:148] Top shape: 10 128 14 14 (250880)
I0714 21:35:48.909603  1716 net.cpp:156] Memory required for data: 507153920
I0714 21:35:48.909613  1716 layer_factory.hpp:77] Creating layer inception_4e/relu_5x5
I0714 21:35:48.909626  1716 net.cpp:91] Creating Layer inception_4e/relu_5x5
I0714 21:35:48.909632  1716 net.cpp:425] inception_4e/relu_5x5 <- inception_4e/5x5
I0714 21:35:48.909641  1716 net.cpp:386] inception_4e/relu_5x5 -> inception_4e/5x5 (in-place)
I0714 21:35:48.910080  1716 net.cpp:141] Setting up inception_4e/relu_5x5
I0714 21:35:48.910092  1716 net.cpp:148] Top shape: 10 128 14 14 (250880)
I0714 21:35:48.910097  1716 net.cpp:156] Memory required for data: 508157440
I0714 21:35:48.910102  1716 layer_factory.hpp:77] Creating layer inception_4e/pool
I0714 21:35:48.910111  1716 net.cpp:91] Creating Layer inception_4e/pool
I0714 21:35:48.910117  1716 net.cpp:425] inception_4e/pool <- inception_4d/output_inception_4d/output_0_split_3
I0714 21:35:48.910128  1716 net.cpp:399] inception_4e/pool -> inception_4e/pool
I0714 21:35:48.910475  1716 net.cpp:141] Setting up inception_4e/pool
I0714 21:35:48.910486  1716 net.cpp:148] Top shape: 10 528 14 14 (1034880)
I0714 21:35:48.910491  1716 net.cpp:156] Memory required for data: 512296960
I0714 21:35:48.910496  1716 layer_factory.hpp:77] Creating layer inception_4e/pool_proj
I0714 21:35:48.910513  1716 net.cpp:91] Creating Layer inception_4e/pool_proj
I0714 21:35:48.910519  1716 net.cpp:425] inception_4e/pool_proj <- inception_4e/pool
I0714 21:35:48.910528  1716 net.cpp:399] inception_4e/pool_proj -> inception_4e/pool_proj
I0714 21:35:48.917237  1716 net.cpp:141] Setting up inception_4e/pool_proj
I0714 21:35:48.917268  1716 net.cpp:148] Top shape: 10 128 14 14 (250880)
I0714 21:35:48.917275  1716 net.cpp:156] Memory required for data: 513300480
I0714 21:35:48.917285  1716 layer_factory.hpp:77] Creating layer inception_4e/relu_pool_proj
I0714 21:35:48.917296  1716 net.cpp:91] Creating Layer inception_4e/relu_pool_proj
I0714 21:35:48.917304  1716 net.cpp:425] inception_4e/relu_pool_proj <- inception_4e/pool_proj
I0714 21:35:48.917310  1716 net.cpp:386] inception_4e/relu_pool_proj -> inception_4e/pool_proj (in-place)
I0714 21:35:48.918310  1716 net.cpp:141] Setting up inception_4e/relu_pool_proj
I0714 21:35:48.918339  1716 net.cpp:148] Top shape: 10 128 14 14 (250880)
I0714 21:35:48.918346  1716 net.cpp:156] Memory required for data: 514304000
I0714 21:35:48.918344  1720 net.cpp:141] Setting up inception_5a/3x3_reduce
I0714 21:35:48.918354  1716 layer_factory.hpp:77] Creating layer inception_4e/output
I0714 21:35:48.918372  1720 net.cpp:148] Top shape: 10 160 7 7 (78400)
I0714 21:35:48.918378  1716 net.cpp:91] Creating Layer inception_4e/output
I0714 21:35:48.918380  1720 net.cpp:156] Memory required for data: 530297600
I0714 21:35:48.918390  1716 net.cpp:425] inception_4e/output <- inception_4e/1x1
I0714 21:35:48.918406  1716 net.cpp:425] inception_4e/output <- inception_4e/3x3
I0714 21:35:48.918406  1720 layer_factory.hpp:77] Creating layer inception_5a/relu_3x3_reduce
I0714 21:35:48.918413  1716 net.cpp:425] inception_4e/output <- inception_4e/5x5
I0714 21:35:48.918419  1720 net.cpp:91] Creating Layer inception_5a/relu_3x3_reduce
I0714 21:35:48.918421  1716 net.cpp:425] inception_4e/output <- inception_4e/pool_proj
I0714 21:35:48.918431  1720 net.cpp:425] inception_5a/relu_3x3_reduce <- inception_5a/3x3_reduce
I0714 21:35:48.918436  1716 net.cpp:399] inception_4e/output -> inception_4e/output
I0714 21:35:48.918445  1720 net.cpp:386] inception_5a/relu_3x3_reduce -> inception_5a/3x3_reduce (in-place)
I0714 21:35:48.918733  1716 net.cpp:141] Setting up inception_4e/output
I0714 21:35:48.918746  1716 net.cpp:148] Top shape: 10 832 14 14 (1630720)
I0714 21:35:48.918751  1716 net.cpp:156] Memory required for data: 520826880
I0714 21:35:48.918756  1716 layer_factory.hpp:77] Creating layer pool4/3x3_s2
I0714 21:35:48.918766  1716 net.cpp:91] Creating Layer pool4/3x3_s2
I0714 21:35:48.918772  1716 net.cpp:425] pool4/3x3_s2 <- inception_4e/output
I0714 21:35:48.918781  1716 net.cpp:399] pool4/3x3_s2 -> pool4/3x3_s2
I0714 21:35:48.918905  1720 net.cpp:141] Setting up inception_5a/relu_3x3_reduce
I0714 21:35:48.918922  1720 net.cpp:148] Top shape: 10 160 7 7 (78400)
I0714 21:35:48.918927  1720 net.cpp:156] Memory required for data: 530611200
I0714 21:35:48.918934  1720 layer_factory.hpp:77] Creating layer inception_5a/3x3
I0714 21:35:48.918938  1716 net.cpp:141] Setting up pool4/3x3_s2
I0714 21:35:48.918956  1716 net.cpp:148] Top shape: 10 832 7 7 (407680)
I0714 21:35:48.918962  1716 net.cpp:156] Memory required for data: 522457600
I0714 21:35:48.918962  1720 net.cpp:91] Creating Layer inception_5a/3x3
I0714 21:35:48.918967  1716 layer_factory.hpp:77] Creating layer pool4/3x3_s2_pool4/3x3_s2_0_split
I0714 21:35:48.918972  1720 net.cpp:425] inception_5a/3x3 <- inception_5a/3x3_reduce
I0714 21:35:48.918977  1716 net.cpp:91] Creating Layer pool4/3x3_s2_pool4/3x3_s2_0_split
I0714 21:35:48.918983  1716 net.cpp:425] pool4/3x3_s2_pool4/3x3_s2_0_split <- pool4/3x3_s2
I0714 21:35:48.918984  1720 net.cpp:399] inception_5a/3x3 -> inception_5a/3x3
I0714 21:35:48.918990  1716 net.cpp:399] pool4/3x3_s2_pool4/3x3_s2_0_split -> pool4/3x3_s2_pool4/3x3_s2_0_split_0
I0714 21:35:48.919000  1716 net.cpp:399] pool4/3x3_s2_pool4/3x3_s2_0_split -> pool4/3x3_s2_pool4/3x3_s2_0_split_1
I0714 21:35:48.919013  1716 net.cpp:399] pool4/3x3_s2_pool4/3x3_s2_0_split -> pool4/3x3_s2_pool4/3x3_s2_0_split_2
I0714 21:35:48.919023  1716 net.cpp:399] pool4/3x3_s2_pool4/3x3_s2_0_split -> pool4/3x3_s2_pool4/3x3_s2_0_split_3
I0714 21:35:48.919638  1716 net.cpp:141] Setting up pool4/3x3_s2_pool4/3x3_s2_0_split
I0714 21:35:48.919651  1716 net.cpp:148] Top shape: 10 832 7 7 (407680)
I0714 21:35:48.919657  1716 net.cpp:148] Top shape: 10 832 7 7 (407680)
I0714 21:35:48.919663  1716 net.cpp:148] Top shape: 10 832 7 7 (407680)
I0714 21:35:48.919668  1716 net.cpp:148] Top shape: 10 832 7 7 (407680)
I0714 21:35:48.919672  1716 net.cpp:156] Memory required for data: 528980480
I0714 21:35:48.919678  1716 layer_factory.hpp:77] Creating layer inception_5a/1x1
I0714 21:35:48.919694  1716 net.cpp:91] Creating Layer inception_5a/1x1
I0714 21:35:48.919701  1716 net.cpp:425] inception_5a/1x1 <- pool4/3x3_s2_pool4/3x3_s2_0_split_0
I0714 21:35:48.919710  1716 net.cpp:399] inception_5a/1x1 -> inception_5a/1x1
I0714 21:35:48.929918  1716 net.cpp:141] Setting up inception_5a/1x1
I0714 21:35:48.929952  1716 net.cpp:148] Top shape: 10 256 7 7 (125440)
I0714 21:35:48.929958  1716 net.cpp:156] Memory required for data: 529482240
I0714 21:35:48.929970  1716 layer_factory.hpp:77] Creating layer inception_5a/relu_1x1
I0714 21:35:48.929980  1716 net.cpp:91] Creating Layer inception_5a/relu_1x1
I0714 21:35:48.929986  1716 net.cpp:425] inception_5a/relu_1x1 <- inception_5a/1x1
I0714 21:35:48.929997  1716 net.cpp:386] inception_5a/relu_1x1 -> inception_5a/1x1 (in-place)
I0714 21:35:48.930476  1716 net.cpp:141] Setting up inception_5a/relu_1x1
I0714 21:35:48.930493  1716 net.cpp:148] Top shape: 10 256 7 7 (125440)
I0714 21:35:48.930498  1716 net.cpp:156] Memory required for data: 529984000
I0714 21:35:48.930505  1716 layer_factory.hpp:77] Creating layer inception_5a/3x3_reduce
I0714 21:35:48.930522  1716 net.cpp:91] Creating Layer inception_5a/3x3_reduce
I0714 21:35:48.930529  1716 net.cpp:425] inception_5a/3x3_reduce <- pool4/3x3_s2_pool4/3x3_s2_0_split_1
I0714 21:35:48.930539  1716 net.cpp:399] inception_5a/3x3_reduce -> inception_5a/3x3_reduce
I0714 21:35:48.931578  1720 net.cpp:141] Setting up inception_5a/3x3
I0714 21:35:48.931604  1720 net.cpp:148] Top shape: 10 320 7 7 (156800)
I0714 21:35:48.931612  1720 net.cpp:156] Memory required for data: 531238400
I0714 21:35:48.931627  1720 layer_factory.hpp:77] Creating layer inception_5a/relu_3x3
I0714 21:35:48.931638  1720 net.cpp:91] Creating Layer inception_5a/relu_3x3
I0714 21:35:48.931646  1720 net.cpp:425] inception_5a/relu_3x3 <- inception_5a/3x3
I0714 21:35:48.931655  1720 net.cpp:386] inception_5a/relu_3x3 -> inception_5a/3x3 (in-place)
I0714 21:35:48.932696  1720 net.cpp:141] Setting up inception_5a/relu_3x3
I0714 21:35:48.932714  1720 net.cpp:148] Top shape: 10 320 7 7 (156800)
I0714 21:35:48.932720  1720 net.cpp:156] Memory required for data: 531865600
I0714 21:35:48.932726  1720 layer_factory.hpp:77] Creating layer inception_5a/5x5_reduce
I0714 21:35:48.932761  1720 net.cpp:91] Creating Layer inception_5a/5x5_reduce
I0714 21:35:48.932771  1720 net.cpp:425] inception_5a/5x5_reduce <- pool4/3x3_s2_pool4/3x3_s2_0_split_2
I0714 21:35:48.932783  1720 net.cpp:399] inception_5a/5x5_reduce -> inception_5a/5x5_reduce
I0714 21:35:48.938837  1720 net.cpp:141] Setting up inception_5a/5x5_reduce
I0714 21:35:48.938856  1720 net.cpp:148] Top shape: 10 32 7 7 (15680)
I0714 21:35:48.938863  1720 net.cpp:156] Memory required for data: 531928320
I0714 21:35:48.938874  1720 layer_factory.hpp:77] Creating layer inception_5a/relu_5x5_reduce
I0714 21:35:48.938887  1720 net.cpp:91] Creating Layer inception_5a/relu_5x5_reduce
I0714 21:35:48.938895  1720 net.cpp:425] inception_5a/relu_5x5_reduce <- inception_5a/5x5_reduce
I0714 21:35:48.938905  1720 net.cpp:386] inception_5a/relu_5x5_reduce -> inception_5a/5x5_reduce (in-place)
I0714 21:35:48.938994  1716 net.cpp:141] Setting up inception_5a/3x3_reduce
I0714 21:35:48.939010  1716 net.cpp:148] Top shape: 10 160 7 7 (78400)
I0714 21:35:48.939015  1716 net.cpp:156] Memory required for data: 530297600
I0714 21:35:48.939025  1716 layer_factory.hpp:77] Creating layer inception_5a/relu_3x3_reduce
I0714 21:35:48.939034  1716 net.cpp:91] Creating Layer inception_5a/relu_3x3_reduce
I0714 21:35:48.939043  1716 net.cpp:425] inception_5a/relu_3x3_reduce <- inception_5a/3x3_reduce
I0714 21:35:48.939050  1716 net.cpp:386] inception_5a/relu_3x3_reduce -> inception_5a/3x3_reduce (in-place)
I0714 21:35:48.939380  1720 net.cpp:141] Setting up inception_5a/relu_5x5_reduce
I0714 21:35:48.939395  1720 net.cpp:148] Top shape: 10 32 7 7 (15680)
I0714 21:35:48.939401  1720 net.cpp:156] Memory required for data: 531991040
I0714 21:35:48.939407  1720 layer_factory.hpp:77] Creating layer inception_5a/5x5
I0714 21:35:48.939425  1720 net.cpp:91] Creating Layer inception_5a/5x5
I0714 21:35:48.939434  1720 net.cpp:425] inception_5a/5x5 <- inception_5a/5x5_reduce
I0714 21:35:48.939447  1720 net.cpp:399] inception_5a/5x5 -> inception_5a/5x5
I0714 21:35:48.939445  1716 net.cpp:141] Setting up inception_5a/relu_3x3_reduce
I0714 21:35:48.939466  1716 net.cpp:148] Top shape: 10 160 7 7 (78400)
I0714 21:35:48.939472  1716 net.cpp:156] Memory required for data: 530611200
I0714 21:35:48.939477  1716 layer_factory.hpp:77] Creating layer inception_5a/3x3
I0714 21:35:48.939497  1716 net.cpp:91] Creating Layer inception_5a/3x3
I0714 21:35:48.939504  1716 net.cpp:425] inception_5a/3x3 <- inception_5a/3x3_reduce
I0714 21:35:48.939513  1716 net.cpp:399] inception_5a/3x3 -> inception_5a/3x3
I0714 21:35:48.949466  1720 net.cpp:141] Setting up inception_5a/5x5
I0714 21:35:48.949499  1720 net.cpp:148] Top shape: 10 128 7 7 (62720)
I0714 21:35:48.949506  1720 net.cpp:156] Memory required for data: 532241920
I0714 21:35:48.949519  1720 layer_factory.hpp:77] Creating layer inception_5a/relu_5x5
I0714 21:35:48.949561  1720 net.cpp:91] Creating Layer inception_5a/relu_5x5
I0714 21:35:48.949570  1720 net.cpp:425] inception_5a/relu_5x5 <- inception_5a/5x5
I0714 21:35:48.949581  1720 net.cpp:386] inception_5a/relu_5x5 -> inception_5a/5x5 (in-place)
I0714 21:35:48.950083  1720 net.cpp:141] Setting up inception_5a/relu_5x5
I0714 21:35:48.950100  1720 net.cpp:148] Top shape: 10 128 7 7 (62720)
I0714 21:35:48.950106  1720 net.cpp:156] Memory required for data: 532492800
I0714 21:35:48.950114  1720 layer_factory.hpp:77] Creating layer inception_5a/pool
I0714 21:35:48.950124  1720 net.cpp:91] Creating Layer inception_5a/pool
I0714 21:35:48.950132  1720 net.cpp:425] inception_5a/pool <- pool4/3x3_s2_pool4/3x3_s2_0_split_3
I0714 21:35:48.950146  1720 net.cpp:399] inception_5a/pool -> inception_5a/pool
I0714 21:35:48.950798  1716 net.cpp:141] Setting up inception_5a/3x3
I0714 21:35:48.950832  1716 net.cpp:148] Top shape: 10 320 7 7 (156800)
I0714 21:35:48.950839  1716 net.cpp:156] Memory required for data: 531238400
I0714 21:35:48.950848  1716 layer_factory.hpp:77] Creating layer inception_5a/relu_3x3
I0714 21:35:48.950858  1716 net.cpp:91] Creating Layer inception_5a/relu_3x3
I0714 21:35:48.950865  1716 net.cpp:425] inception_5a/relu_3x3 <- inception_5a/3x3
I0714 21:35:48.950866  1720 net.cpp:141] Setting up inception_5a/pool
I0714 21:35:48.950875  1716 net.cpp:386] inception_5a/relu_3x3 -> inception_5a/3x3 (in-place)
I0714 21:35:48.950881  1720 net.cpp:148] Top shape: 10 832 7 7 (407680)
I0714 21:35:48.950887  1720 net.cpp:156] Memory required for data: 534123520
I0714 21:35:48.950893  1720 layer_factory.hpp:77] Creating layer inception_5a/pool_proj
I0714 21:35:48.950916  1720 net.cpp:91] Creating Layer inception_5a/pool_proj
I0714 21:35:48.950923  1720 net.cpp:425] inception_5a/pool_proj <- inception_5a/pool
I0714 21:35:48.950935  1720 net.cpp:399] inception_5a/pool_proj -> inception_5a/pool_proj
I0714 21:35:48.951848  1716 net.cpp:141] Setting up inception_5a/relu_3x3
I0714 21:35:48.951864  1716 net.cpp:148] Top shape: 10 320 7 7 (156800)
I0714 21:35:48.951882  1716 net.cpp:156] Memory required for data: 531865600
I0714 21:35:48.951889  1716 layer_factory.hpp:77] Creating layer inception_5a/5x5_reduce
I0714 21:35:48.951907  1716 net.cpp:91] Creating Layer inception_5a/5x5_reduce
I0714 21:35:48.951915  1716 net.cpp:425] inception_5a/5x5_reduce <- pool4/3x3_s2_pool4/3x3_s2_0_split_2
I0714 21:35:48.951927  1716 net.cpp:399] inception_5a/5x5_reduce -> inception_5a/5x5_reduce
I0714 21:35:48.958896  1716 net.cpp:141] Setting up inception_5a/5x5_reduce
I0714 21:35:48.958933  1716 net.cpp:148] Top shape: 10 32 7 7 (15680)
I0714 21:35:48.958940  1716 net.cpp:156] Memory required for data: 531928320
I0714 21:35:48.958950  1716 layer_factory.hpp:77] Creating layer inception_5a/relu_5x5_reduce
I0714 21:35:48.958961  1716 net.cpp:91] Creating Layer inception_5a/relu_5x5_reduce
I0714 21:35:48.958966  1716 net.cpp:425] inception_5a/relu_5x5_reduce <- inception_5a/5x5_reduce
I0714 21:35:48.958974  1716 net.cpp:386] inception_5a/relu_5x5_reduce -> inception_5a/5x5_reduce (in-place)
I0714 21:35:48.959456  1716 net.cpp:141] Setting up inception_5a/relu_5x5_reduce
I0714 21:35:48.959471  1716 net.cpp:148] Top shape: 10 32 7 7 (15680)
I0714 21:35:48.959476  1716 net.cpp:156] Memory required for data: 531991040
I0714 21:35:48.959482  1716 layer_factory.hpp:77] Creating layer inception_5a/5x5
I0714 21:35:48.959501  1716 net.cpp:91] Creating Layer inception_5a/5x5
I0714 21:35:48.959506  1716 net.cpp:425] inception_5a/5x5 <- inception_5a/5x5_reduce
I0714 21:35:48.959519  1716 net.cpp:399] inception_5a/5x5 -> inception_5a/5x5
I0714 21:35:48.959676  1720 net.cpp:141] Setting up inception_5a/pool_proj
I0714 21:35:48.959699  1720 net.cpp:148] Top shape: 10 128 7 7 (62720)
I0714 21:35:48.959707  1720 net.cpp:156] Memory required for data: 534374400
I0714 21:35:48.959717  1720 layer_factory.hpp:77] Creating layer inception_5a/relu_pool_proj
I0714 21:35:48.959731  1720 net.cpp:91] Creating Layer inception_5a/relu_pool_proj
I0714 21:35:48.959738  1720 net.cpp:425] inception_5a/relu_pool_proj <- inception_5a/pool_proj
I0714 21:35:48.959748  1720 net.cpp:386] inception_5a/relu_pool_proj -> inception_5a/pool_proj (in-place)
I0714 21:35:48.960870  1720 net.cpp:141] Setting up inception_5a/relu_pool_proj
I0714 21:35:48.960891  1720 net.cpp:148] Top shape: 10 128 7 7 (62720)
I0714 21:35:48.960898  1720 net.cpp:156] Memory required for data: 534625280
I0714 21:35:48.960906  1720 layer_factory.hpp:77] Creating layer inception_5a/output
I0714 21:35:48.960916  1720 net.cpp:91] Creating Layer inception_5a/output
I0714 21:35:48.960923  1720 net.cpp:425] inception_5a/output <- inception_5a/1x1
I0714 21:35:48.960932  1720 net.cpp:425] inception_5a/output <- inception_5a/3x3
I0714 21:35:48.960937  1720 net.cpp:425] inception_5a/output <- inception_5a/5x5
I0714 21:35:48.960944  1720 net.cpp:425] inception_5a/output <- inception_5a/pool_proj
I0714 21:35:48.960952  1720 net.cpp:399] inception_5a/output -> inception_5a/output
I0714 21:35:48.961081  1720 net.cpp:141] Setting up inception_5a/output
I0714 21:35:48.961097  1720 net.cpp:148] Top shape: 10 832 7 7 (407680)
I0714 21:35:48.961102  1720 net.cpp:156] Memory required for data: 536256000
I0714 21:35:48.961107  1720 layer_factory.hpp:77] Creating layer inception_5a/output_inception_5a/output_0_split
I0714 21:35:48.961118  1720 net.cpp:91] Creating Layer inception_5a/output_inception_5a/output_0_split
I0714 21:35:48.961125  1720 net.cpp:425] inception_5a/output_inception_5a/output_0_split <- inception_5a/output
I0714 21:35:48.961133  1720 net.cpp:399] inception_5a/output_inception_5a/output_0_split -> inception_5a/output_inception_5a/output_0_split_0
I0714 21:35:48.961144  1720 net.cpp:399] inception_5a/output_inception_5a/output_0_split -> inception_5a/output_inception_5a/output_0_split_1
I0714 21:35:48.961159  1720 net.cpp:399] inception_5a/output_inception_5a/output_0_split -> inception_5a/output_inception_5a/output_0_split_2
I0714 21:35:48.961170  1720 net.cpp:399] inception_5a/output_inception_5a/output_0_split -> inception_5a/output_inception_5a/output_0_split_3
I0714 21:35:48.961419  1720 net.cpp:141] Setting up inception_5a/output_inception_5a/output_0_split
I0714 21:35:48.961432  1720 net.cpp:148] Top shape: 10 832 7 7 (407680)
I0714 21:35:48.961439  1720 net.cpp:148] Top shape: 10 832 7 7 (407680)
I0714 21:35:48.961447  1720 net.cpp:148] Top shape: 10 832 7 7 (407680)
I0714 21:35:48.961452  1720 net.cpp:148] Top shape: 10 832 7 7 (407680)
I0714 21:35:48.961457  1720 net.cpp:156] Memory required for data: 542778880
I0714 21:35:48.961462  1720 layer_factory.hpp:77] Creating layer inception_5b/1x1
I0714 21:35:48.961484  1720 net.cpp:91] Creating Layer inception_5b/1x1
I0714 21:35:48.961491  1720 net.cpp:425] inception_5b/1x1 <- inception_5a/output_inception_5a/output_0_split_0
I0714 21:35:48.961501  1720 net.cpp:399] inception_5b/1x1 -> inception_5b/1x1
I0714 21:35:48.966159  1716 net.cpp:141] Setting up inception_5a/5x5
I0714 21:35:48.966192  1716 net.cpp:148] Top shape: 10 128 7 7 (62720)
I0714 21:35:48.966198  1716 net.cpp:156] Memory required for data: 532241920
I0714 21:35:48.966208  1716 layer_factory.hpp:77] Creating layer inception_5a/relu_5x5
I0714 21:35:48.966243  1716 net.cpp:91] Creating Layer inception_5a/relu_5x5
I0714 21:35:48.966249  1716 net.cpp:425] inception_5a/relu_5x5 <- inception_5a/5x5
I0714 21:35:48.966258  1716 net.cpp:386] inception_5a/relu_5x5 -> inception_5a/5x5 (in-place)
I0714 21:35:48.966526  1716 net.cpp:141] Setting up inception_5a/relu_5x5
I0714 21:35:48.966537  1716 net.cpp:148] Top shape: 10 128 7 7 (62720)
I0714 21:35:48.966542  1716 net.cpp:156] Memory required for data: 532492800
I0714 21:35:48.966548  1716 layer_factory.hpp:77] Creating layer inception_5a/pool
I0714 21:35:48.966563  1716 net.cpp:91] Creating Layer inception_5a/pool
I0714 21:35:48.966569  1716 net.cpp:425] inception_5a/pool <- pool4/3x3_s2_pool4/3x3_s2_0_split_3
I0714 21:35:48.966578  1716 net.cpp:399] inception_5a/pool -> inception_5a/pool
I0714 21:35:48.966727  1716 net.cpp:141] Setting up inception_5a/pool
I0714 21:35:48.966737  1716 net.cpp:148] Top shape: 10 832 7 7 (407680)
I0714 21:35:48.966742  1716 net.cpp:156] Memory required for data: 534123520
I0714 21:35:48.966747  1716 layer_factory.hpp:77] Creating layer inception_5a/pool_proj
I0714 21:35:48.966764  1716 net.cpp:91] Creating Layer inception_5a/pool_proj
I0714 21:35:48.966770  1716 net.cpp:425] inception_5a/pool_proj <- inception_5a/pool
I0714 21:35:48.966783  1716 net.cpp:399] inception_5a/pool_proj -> inception_5a/pool_proj
I0714 21:35:48.972569  1720 net.cpp:141] Setting up inception_5b/1x1
I0714 21:35:48.972592  1720 net.cpp:148] Top shape: 10 384 7 7 (188160)
I0714 21:35:48.972599  1720 net.cpp:156] Memory required for data: 543531520
I0714 21:35:48.972610  1720 layer_factory.hpp:77] Creating layer inception_5b/relu_1x1
I0714 21:35:48.972621  1720 net.cpp:91] Creating Layer inception_5b/relu_1x1
I0714 21:35:48.972628  1720 net.cpp:425] inception_5b/relu_1x1 <- inception_5b/1x1
I0714 21:35:48.972642  1720 net.cpp:386] inception_5b/relu_1x1 -> inception_5b/1x1 (in-place)
I0714 21:35:48.973147  1720 net.cpp:141] Setting up inception_5b/relu_1x1
I0714 21:35:48.973166  1720 net.cpp:148] Top shape: 10 384 7 7 (188160)
I0714 21:35:48.973172  1720 net.cpp:156] Memory required for data: 544284160
I0714 21:35:48.973178  1720 layer_factory.hpp:77] Creating layer inception_5b/3x3_reduce
I0714 21:35:48.973196  1720 net.cpp:91] Creating Layer inception_5b/3x3_reduce
I0714 21:35:48.973204  1720 net.cpp:425] inception_5b/3x3_reduce <- inception_5a/output_inception_5a/output_0_split_1
I0714 21:35:48.973217  1720 net.cpp:399] inception_5b/3x3_reduce -> inception_5b/3x3_reduce
I0714 21:35:48.973217  1716 net.cpp:141] Setting up inception_5a/pool_proj
I0714 21:35:48.973235  1716 net.cpp:148] Top shape: 10 128 7 7 (62720)
I0714 21:35:48.973242  1716 net.cpp:156] Memory required for data: 534374400
I0714 21:35:48.973250  1716 layer_factory.hpp:77] Creating layer inception_5a/relu_pool_proj
I0714 21:35:48.973273  1716 net.cpp:91] Creating Layer inception_5a/relu_pool_proj
I0714 21:35:48.973281  1716 net.cpp:425] inception_5a/relu_pool_proj <- inception_5a/pool_proj
I0714 21:35:48.973289  1716 net.cpp:386] inception_5a/relu_pool_proj -> inception_5a/pool_proj (in-place)
I0714 21:35:48.974243  1716 net.cpp:141] Setting up inception_5a/relu_pool_proj
I0714 21:35:48.974273  1716 net.cpp:148] Top shape: 10 128 7 7 (62720)
I0714 21:35:48.974279  1716 net.cpp:156] Memory required for data: 534625280
I0714 21:35:48.974285  1716 layer_factory.hpp:77] Creating layer inception_5a/output
I0714 21:35:48.974301  1716 net.cpp:91] Creating Layer inception_5a/output
I0714 21:35:48.974308  1716 net.cpp:425] inception_5a/output <- inception_5a/1x1
I0714 21:35:48.974315  1716 net.cpp:425] inception_5a/output <- inception_5a/3x3
I0714 21:35:48.974321  1716 net.cpp:425] inception_5a/output <- inception_5a/5x5
I0714 21:35:48.974328  1716 net.cpp:425] inception_5a/output <- inception_5a/pool_proj
I0714 21:35:48.974334  1716 net.cpp:399] inception_5a/output -> inception_5a/output
I0714 21:35:48.974524  1716 net.cpp:141] Setting up inception_5a/output
I0714 21:35:48.974536  1716 net.cpp:148] Top shape: 10 832 7 7 (407680)
I0714 21:35:48.974541  1716 net.cpp:156] Memory required for data: 536256000
I0714 21:35:48.974546  1716 layer_factory.hpp:77] Creating layer inception_5a/output_inception_5a/output_0_split
I0714 21:35:48.974561  1716 net.cpp:91] Creating Layer inception_5a/output_inception_5a/output_0_split
I0714 21:35:48.974567  1716 net.cpp:425] inception_5a/output_inception_5a/output_0_split <- inception_5a/output
I0714 21:35:48.974577  1716 net.cpp:399] inception_5a/output_inception_5a/output_0_split -> inception_5a/output_inception_5a/output_0_split_0
I0714 21:35:48.974587  1716 net.cpp:399] inception_5a/output_inception_5a/output_0_split -> inception_5a/output_inception_5a/output_0_split_1
I0714 21:35:48.974597  1716 net.cpp:399] inception_5a/output_inception_5a/output_0_split -> inception_5a/output_inception_5a/output_0_split_2
I0714 21:35:48.974606  1716 net.cpp:399] inception_5a/output_inception_5a/output_0_split -> inception_5a/output_inception_5a/output_0_split_3
I0714 21:35:48.976615  1716 net.cpp:141] Setting up inception_5a/output_inception_5a/output_0_split
I0714 21:35:48.976630  1716 net.cpp:148] Top shape: 10 832 7 7 (407680)
I0714 21:35:48.976649  1716 net.cpp:148] Top shape: 10 832 7 7 (407680)
I0714 21:35:48.976655  1716 net.cpp:148] Top shape: 10 832 7 7 (407680)
I0714 21:35:48.976661  1716 net.cpp:148] Top shape: 10 832 7 7 (407680)
I0714 21:35:48.976666  1716 net.cpp:156] Memory required for data: 542778880
I0714 21:35:48.976671  1716 layer_factory.hpp:77] Creating layer inception_5b/1x1
I0714 21:35:48.976691  1716 net.cpp:91] Creating Layer inception_5b/1x1
I0714 21:35:48.976697  1716 net.cpp:425] inception_5b/1x1 <- inception_5a/output_inception_5a/output_0_split_0
I0714 21:35:48.976708  1716 net.cpp:399] inception_5b/1x1 -> inception_5b/1x1
I0714 21:35:48.982636  1720 net.cpp:141] Setting up inception_5b/3x3_reduce
I0714 21:35:48.982663  1720 net.cpp:148] Top shape: 10 192 7 7 (94080)
I0714 21:35:48.982669  1720 net.cpp:156] Memory required for data: 544660480
I0714 21:35:48.982681  1720 layer_factory.hpp:77] Creating layer inception_5b/relu_3x3_reduce
I0714 21:35:48.982702  1720 net.cpp:91] Creating Layer inception_5b/relu_3x3_reduce
I0714 21:35:48.982709  1720 net.cpp:425] inception_5b/relu_3x3_reduce <- inception_5b/3x3_reduce
I0714 21:35:48.982718  1720 net.cpp:386] inception_5b/relu_3x3_reduce -> inception_5b/3x3_reduce (in-place)
I0714 21:35:48.983162  1720 net.cpp:141] Setting up inception_5b/relu_3x3_reduce
I0714 21:35:48.983180  1720 net.cpp:148] Top shape: 10 192 7 7 (94080)
I0714 21:35:48.983186  1720 net.cpp:156] Memory required for data: 545036800
I0714 21:35:48.983191  1720 layer_factory.hpp:77] Creating layer inception_5b/3x3
I0714 21:35:48.983209  1720 net.cpp:91] Creating Layer inception_5b/3x3
I0714 21:35:48.983217  1720 net.cpp:425] inception_5b/3x3 <- inception_5b/3x3_reduce
I0714 21:35:48.983230  1720 net.cpp:399] inception_5b/3x3 -> inception_5b/3x3
I0714 21:35:48.984640  1716 net.cpp:141] Setting up inception_5b/1x1
I0714 21:35:48.984673  1716 net.cpp:148] Top shape: 10 384 7 7 (188160)
I0714 21:35:48.984679  1716 net.cpp:156] Memory required for data: 543531520
I0714 21:35:48.984689  1716 layer_factory.hpp:77] Creating layer inception_5b/relu_1x1
I0714 21:35:48.984701  1716 net.cpp:91] Creating Layer inception_5b/relu_1x1
I0714 21:35:48.984707  1716 net.cpp:425] inception_5b/relu_1x1 <- inception_5b/1x1
I0714 21:35:48.984715  1716 net.cpp:386] inception_5b/relu_1x1 -> inception_5b/1x1 (in-place)
I0714 21:35:48.985909  1716 net.cpp:141] Setting up inception_5b/relu_1x1
I0714 21:35:48.985937  1716 net.cpp:148] Top shape: 10 384 7 7 (188160)
I0714 21:35:48.985942  1716 net.cpp:156] Memory required for data: 544284160
I0714 21:35:48.985949  1716 layer_factory.hpp:77] Creating layer inception_5b/3x3_reduce
I0714 21:35:48.985968  1716 net.cpp:91] Creating Layer inception_5b/3x3_reduce
I0714 21:35:48.985975  1716 net.cpp:425] inception_5b/3x3_reduce <- inception_5a/output_inception_5a/output_0_split_1
I0714 21:35:48.985985  1716 net.cpp:399] inception_5b/3x3_reduce -> inception_5b/3x3_reduce
I0714 21:35:48.992524  1716 net.cpp:141] Setting up inception_5b/3x3_reduce
I0714 21:35:48.992557  1716 net.cpp:148] Top shape: 10 192 7 7 (94080)
I0714 21:35:48.992563  1716 net.cpp:156] Memory required for data: 544660480
I0714 21:35:48.992573  1716 layer_factory.hpp:77] Creating layer inception_5b/relu_3x3_reduce
I0714 21:35:48.992585  1716 net.cpp:91] Creating Layer inception_5b/relu_3x3_reduce
I0714 21:35:48.992593  1716 net.cpp:425] inception_5b/relu_3x3_reduce <- inception_5b/3x3_reduce
I0714 21:35:48.992600  1716 net.cpp:386] inception_5b/relu_3x3_reduce -> inception_5b/3x3_reduce (in-place)
I0714 21:35:48.992871  1716 net.cpp:141] Setting up inception_5b/relu_3x3_reduce
I0714 21:35:48.992882  1716 net.cpp:148] Top shape: 10 192 7 7 (94080)
I0714 21:35:48.992887  1716 net.cpp:156] Memory required for data: 545036800
I0714 21:35:48.992892  1716 layer_factory.hpp:77] Creating layer inception_5b/3x3
I0714 21:35:48.992919  1716 net.cpp:91] Creating Layer inception_5b/3x3
I0714 21:35:48.992926  1716 net.cpp:425] inception_5b/3x3 <- inception_5b/3x3_reduce
I0714 21:35:48.992938  1716 net.cpp:399] inception_5b/3x3 -> inception_5b/3x3
I0714 21:35:48.997932  1720 net.cpp:141] Setting up inception_5b/3x3
I0714 21:35:48.997956  1720 net.cpp:148] Top shape: 10 384 7 7 (188160)
I0714 21:35:48.997963  1720 net.cpp:156] Memory required for data: 545789440
I0714 21:35:48.997974  1720 layer_factory.hpp:77] Creating layer inception_5b/relu_3x3
I0714 21:35:48.997989  1720 net.cpp:91] Creating Layer inception_5b/relu_3x3
I0714 21:35:48.997997  1720 net.cpp:425] inception_5b/relu_3x3 <- inception_5b/3x3
I0714 21:35:48.998006  1720 net.cpp:386] inception_5b/relu_3x3 -> inception_5b/3x3 (in-place)
I0714 21:35:48.998893  1720 net.cpp:141] Setting up inception_5b/relu_3x3
I0714 21:35:48.998911  1720 net.cpp:148] Top shape: 10 384 7 7 (188160)
I0714 21:35:48.998917  1720 net.cpp:156] Memory required for data: 546542080
I0714 21:35:48.998924  1720 layer_factory.hpp:77] Creating layer inception_5b/5x5_reduce
I0714 21:35:48.998945  1720 net.cpp:91] Creating Layer inception_5b/5x5_reduce
I0714 21:35:48.998953  1720 net.cpp:425] inception_5b/5x5_reduce <- inception_5a/output_inception_5a/output_0_split_2
I0714 21:35:48.998965  1720 net.cpp:399] inception_5b/5x5_reduce -> inception_5b/5x5_reduce
I0714 21:35:49.002575  1720 net.cpp:141] Setting up inception_5b/5x5_reduce
I0714 21:35:49.002598  1720 net.cpp:148] Top shape: 10 48 7 7 (23520)
I0714 21:35:49.002604  1720 net.cpp:156] Memory required for data: 546636160
I0714 21:35:49.002614  1720 layer_factory.hpp:77] Creating layer inception_5b/relu_5x5_reduce
I0714 21:35:49.002625  1720 net.cpp:91] Creating Layer inception_5b/relu_5x5_reduce
I0714 21:35:49.002632  1720 net.cpp:425] inception_5b/relu_5x5_reduce <- inception_5b/5x5_reduce
I0714 21:35:49.002645  1720 net.cpp:386] inception_5b/relu_5x5_reduce -> inception_5b/5x5_reduce (in-place)
I0714 21:35:49.003077  1720 net.cpp:141] Setting up inception_5b/relu_5x5_reduce
I0714 21:35:49.003094  1720 net.cpp:148] Top shape: 10 48 7 7 (23520)
I0714 21:35:49.003100  1720 net.cpp:156] Memory required for data: 546730240
I0714 21:35:49.003106  1720 layer_factory.hpp:77] Creating layer inception_5b/5x5
I0714 21:35:49.003124  1720 net.cpp:91] Creating Layer inception_5b/5x5
I0714 21:35:49.003131  1720 net.cpp:425] inception_5b/5x5 <- inception_5b/5x5_reduce
I0714 21:35:49.003146  1720 net.cpp:399] inception_5b/5x5 -> inception_5b/5x5
I0714 21:35:49.006000  1716 net.cpp:141] Setting up inception_5b/3x3
I0714 21:35:49.006032  1716 net.cpp:148] Top shape: 10 384 7 7 (188160)
I0714 21:35:49.006042  1716 net.cpp:156] Memory required for data: 545789440
I0714 21:35:49.006058  1716 layer_factory.hpp:77] Creating layer inception_5b/relu_3x3
I0714 21:35:49.006079  1716 net.cpp:91] Creating Layer inception_5b/relu_3x3
I0714 21:35:49.006093  1716 net.cpp:425] inception_5b/relu_3x3 <- inception_5b/3x3
I0714 21:35:49.006106  1716 net.cpp:386] inception_5b/relu_3x3 -> inception_5b/3x3 (in-place)
I0714 21:35:49.007349  1716 net.cpp:141] Setting up inception_5b/relu_3x3
I0714 21:35:49.007374  1716 net.cpp:148] Top shape: 10 384 7 7 (188160)
I0714 21:35:49.007387  1716 net.cpp:156] Memory required for data: 546542080
I0714 21:35:49.007398  1716 layer_factory.hpp:77] Creating layer inception_5b/5x5_reduce
I0714 21:35:49.007423  1716 net.cpp:91] Creating Layer inception_5b/5x5_reduce
I0714 21:35:49.007437  1716 net.cpp:425] inception_5b/5x5_reduce <- inception_5a/output_inception_5a/output_0_split_2
I0714 21:35:49.007463  1716 net.cpp:399] inception_5b/5x5_reduce -> inception_5b/5x5_reduce
I0714 21:35:49.011298  1720 net.cpp:141] Setting up inception_5b/5x5
I0714 21:35:49.011322  1720 net.cpp:148] Top shape: 10 128 7 7 (62720)
I0714 21:35:49.011329  1720 net.cpp:156] Memory required for data: 546981120
I0714 21:35:49.011340  1720 layer_factory.hpp:77] Creating layer inception_5b/relu_5x5
I0714 21:35:49.011354  1720 net.cpp:91] Creating Layer inception_5b/relu_5x5
I0714 21:35:49.011363  1720 net.cpp:425] inception_5b/relu_5x5 <- inception_5b/5x5
I0714 21:35:49.011373  1720 net.cpp:386] inception_5b/relu_5x5 -> inception_5b/5x5 (in-place)
I0714 21:35:49.011819  1720 net.cpp:141] Setting up inception_5b/relu_5x5
I0714 21:35:49.011833  1720 net.cpp:148] Top shape: 10 128 7 7 (62720)
I0714 21:35:49.011839  1720 net.cpp:156] Memory required for data: 547232000
I0714 21:35:49.011845  1720 layer_factory.hpp:77] Creating layer inception_5b/pool
I0714 21:35:49.011862  1720 net.cpp:91] Creating Layer inception_5b/pool
I0714 21:35:49.011869  1720 net.cpp:425] inception_5b/pool <- inception_5a/output_inception_5a/output_0_split_3
I0714 21:35:49.011881  1720 net.cpp:399] inception_5b/pool -> inception_5b/pool
I0714 21:35:49.012152  1720 net.cpp:141] Setting up inception_5b/pool
I0714 21:35:49.012166  1720 net.cpp:148] Top shape: 10 832 7 7 (407680)
I0714 21:35:49.012171  1720 net.cpp:156] Memory required for data: 548862720
I0714 21:35:49.012177  1720 layer_factory.hpp:77] Creating layer inception_5b/pool_proj
I0714 21:35:49.012200  1720 net.cpp:91] Creating Layer inception_5b/pool_proj
I0714 21:35:49.012208  1720 net.cpp:425] inception_5b/pool_proj <- inception_5b/pool
I0714 21:35:49.012219  1720 net.cpp:399] inception_5b/pool_proj -> inception_5b/pool_proj
I0714 21:35:49.018220  1716 net.cpp:141] Setting up inception_5b/5x5_reduce
I0714 21:35:49.018261  1716 net.cpp:148] Top shape: 10 48 7 7 (23520)
I0714 21:35:49.018267  1716 net.cpp:156] Memory required for data: 546636160
I0714 21:35:49.018282  1716 layer_factory.hpp:77] Creating layer inception_5b/relu_5x5_reduce
I0714 21:35:49.018298  1716 net.cpp:91] Creating Layer inception_5b/relu_5x5_reduce
I0714 21:35:49.018307  1716 net.cpp:425] inception_5b/relu_5x5_reduce <- inception_5b/5x5_reduce
I0714 21:35:49.018317  1716 net.cpp:386] inception_5b/relu_5x5_reduce -> inception_5b/5x5_reduce (in-place)
I0714 21:35:49.018628  1716 net.cpp:141] Setting up inception_5b/relu_5x5_reduce
I0714 21:35:49.018640  1716 net.cpp:148] Top shape: 10 48 7 7 (23520)
I0714 21:35:49.018646  1716 net.cpp:156] Memory required for data: 546730240
I0714 21:35:49.018651  1716 layer_factory.hpp:77] Creating layer inception_5b/5x5
I0714 21:35:49.018676  1716 net.cpp:91] Creating Layer inception_5b/5x5
I0714 21:35:49.018682  1716 net.cpp:425] inception_5b/5x5 <- inception_5b/5x5_reduce
I0714 21:35:49.018707  1716 net.cpp:399] inception_5b/5x5 -> inception_5b/5x5
I0714 21:35:49.022199  1720 net.cpp:141] Setting up inception_5b/pool_proj
I0714 21:35:49.022229  1720 net.cpp:148] Top shape: 10 128 7 7 (62720)
I0714 21:35:49.022239  1720 net.cpp:156] Memory required for data: 549113600
I0714 21:35:49.022251  1720 layer_factory.hpp:77] Creating layer inception_5b/relu_pool_proj
I0714 21:35:49.022264  1720 net.cpp:91] Creating Layer inception_5b/relu_pool_proj
I0714 21:35:49.022272  1720 net.cpp:425] inception_5b/relu_pool_proj <- inception_5b/pool_proj
I0714 21:35:49.022281  1720 net.cpp:386] inception_5b/relu_pool_proj -> inception_5b/pool_proj (in-place)
I0714 21:35:49.023350  1720 net.cpp:141] Setting up inception_5b/relu_pool_proj
I0714 21:35:49.023373  1720 net.cpp:148] Top shape: 10 128 7 7 (62720)
I0714 21:35:49.023380  1720 net.cpp:156] Memory required for data: 549364480
I0714 21:35:49.023386  1720 layer_factory.hpp:77] Creating layer inception_5b/output
I0714 21:35:49.023397  1720 net.cpp:91] Creating Layer inception_5b/output
I0714 21:35:49.023404  1720 net.cpp:425] inception_5b/output <- inception_5b/1x1
I0714 21:35:49.023412  1720 net.cpp:425] inception_5b/output <- inception_5b/3x3
I0714 21:35:49.023419  1720 net.cpp:425] inception_5b/output <- inception_5b/5x5
I0714 21:35:49.023425  1720 net.cpp:425] inception_5b/output <- inception_5b/pool_proj
I0714 21:35:49.023433  1720 net.cpp:399] inception_5b/output -> inception_5b/output
I0714 21:35:49.024641  1720 net.cpp:141] Setting up inception_5b/output
I0714 21:35:49.024657  1720 net.cpp:148] Top shape: 10 1024 7 7 (501760)
I0714 21:35:49.024662  1720 net.cpp:156] Memory required for data: 551371520
I0714 21:35:49.024669  1720 layer_factory.hpp:77] Creating layer pool5/7x7_s1
I0714 21:35:49.024680  1720 net.cpp:91] Creating Layer pool5/7x7_s1
I0714 21:35:49.024688  1720 net.cpp:425] pool5/7x7_s1 <- inception_5b/output
I0714 21:35:49.024700  1720 net.cpp:399] pool5/7x7_s1 -> pool5/7x7_s1
I0714 21:35:49.025439  1720 net.cpp:141] Setting up pool5/7x7_s1
I0714 21:35:49.025455  1720 net.cpp:148] Top shape: 10 1024 1 1 (10240)
I0714 21:35:49.025461  1720 net.cpp:156] Memory required for data: 551412480
I0714 21:35:49.025467  1720 layer_factory.hpp:77] Creating layer pool5/drop_7x7_s1
I0714 21:35:49.025487  1720 net.cpp:91] Creating Layer pool5/drop_7x7_s1
I0714 21:35:49.025495  1720 net.cpp:425] pool5/drop_7x7_s1 <- pool5/7x7_s1
I0714 21:35:49.025502  1720 net.cpp:386] pool5/drop_7x7_s1 -> pool5/7x7_s1 (in-place)
I0714 21:35:49.025730  1720 net.cpp:141] Setting up pool5/drop_7x7_s1
I0714 21:35:49.025743  1720 net.cpp:148] Top shape: 10 1024 1 1 (10240)
I0714 21:35:49.025748  1720 net.cpp:156] Memory required for data: 551453440
I0714 21:35:49.025754  1720 layer_factory.hpp:77] Creating layer loss3/classifier
I0714 21:35:49.025776  1720 net.cpp:91] Creating Layer loss3/classifier
I0714 21:35:49.025784  1720 net.cpp:425] loss3/classifier <- pool5/7x7_s1
I0714 21:35:49.025792  1720 net.cpp:399] loss3/classifier -> loss3/classifier
I0714 21:35:49.030781  1716 net.cpp:141] Setting up inception_5b/5x5
I0714 21:35:49.030833  1716 net.cpp:148] Top shape: 10 128 7 7 (62720)
I0714 21:35:49.030839  1716 net.cpp:156] Memory required for data: 546981120
I0714 21:35:49.030855  1716 layer_factory.hpp:77] Creating layer inception_5b/relu_5x5
I0714 21:35:49.030869  1716 net.cpp:91] Creating Layer inception_5b/relu_5x5
I0714 21:35:49.030877  1716 net.cpp:425] inception_5b/relu_5x5 <- inception_5b/5x5
I0714 21:35:49.030892  1716 net.cpp:386] inception_5b/relu_5x5 -> inception_5b/5x5 (in-place)
I0714 21:35:49.031196  1716 net.cpp:141] Setting up inception_5b/relu_5x5
I0714 21:35:49.031208  1716 net.cpp:148] Top shape: 10 128 7 7 (62720)
I0714 21:35:49.031213  1716 net.cpp:156] Memory required for data: 547232000
I0714 21:35:49.031219  1716 layer_factory.hpp:77] Creating layer inception_5b/pool
I0714 21:35:49.031230  1716 net.cpp:91] Creating Layer inception_5b/pool
I0714 21:35:49.031237  1716 net.cpp:425] inception_5b/pool <- inception_5a/output_inception_5a/output_0_split_3
I0714 21:35:49.031246  1716 net.cpp:399] inception_5b/pool -> inception_5b/pool
I0714 21:35:49.031393  1716 net.cpp:141] Setting up inception_5b/pool
I0714 21:35:49.031405  1716 net.cpp:148] Top shape: 10 832 7 7 (407680)
I0714 21:35:49.031410  1716 net.cpp:156] Memory required for data: 548862720
I0714 21:35:49.031415  1716 layer_factory.hpp:77] Creating layer inception_5b/pool_proj
I0714 21:35:49.031436  1716 net.cpp:91] Creating Layer inception_5b/pool_proj
I0714 21:35:49.031443  1716 net.cpp:425] inception_5b/pool_proj <- inception_5b/pool
I0714 21:35:49.031452  1716 net.cpp:399] inception_5b/pool_proj -> inception_5b/pool_proj
I0714 21:35:49.037552  1716 net.cpp:141] Setting up inception_5b/pool_proj
I0714 21:35:49.037590  1716 net.cpp:148] Top shape: 10 128 7 7 (62720)
I0714 21:35:49.037596  1716 net.cpp:156] Memory required for data: 549113600
I0714 21:35:49.037607  1716 layer_factory.hpp:77] Creating layer inception_5b/relu_pool_proj
I0714 21:35:49.037622  1716 net.cpp:91] Creating Layer inception_5b/relu_pool_proj
I0714 21:35:49.037629  1716 net.cpp:425] inception_5b/relu_pool_proj <- inception_5b/pool_proj
I0714 21:35:49.037638  1716 net.cpp:386] inception_5b/relu_pool_proj -> inception_5b/pool_proj (in-place)
I0714 21:35:49.039039  1716 net.cpp:141] Setting up inception_5b/relu_pool_proj
I0714 21:35:49.039072  1716 net.cpp:148] Top shape: 10 128 7 7 (62720)
I0714 21:35:49.039079  1716 net.cpp:156] Memory required for data: 549364480
I0714 21:35:49.039098  1716 layer_factory.hpp:77] Creating layer inception_5b/output
I0714 21:35:49.039114  1716 net.cpp:91] Creating Layer inception_5b/output
I0714 21:35:49.039124  1716 net.cpp:425] inception_5b/output <- inception_5b/1x1
I0714 21:35:49.039132  1716 net.cpp:425] inception_5b/output <- inception_5b/3x3
I0714 21:35:49.039140  1716 net.cpp:425] inception_5b/output <- inception_5b/5x5
I0714 21:35:49.039147  1716 net.cpp:425] inception_5b/output <- inception_5b/pool_proj
I0714 21:35:49.039157  1716 net.cpp:399] inception_5b/output -> inception_5b/output
I0714 21:35:49.039333  1716 net.cpp:141] Setting up inception_5b/output
I0714 21:35:49.039347  1716 net.cpp:148] Top shape: 10 1024 7 7 (501760)
I0714 21:35:49.039353  1716 net.cpp:156] Memory required for data: 551371520
I0714 21:35:49.039360  1716 layer_factory.hpp:77] Creating layer pool5/7x7_s1
I0714 21:35:49.039371  1716 net.cpp:91] Creating Layer pool5/7x7_s1
I0714 21:35:49.039377  1716 net.cpp:425] pool5/7x7_s1 <- inception_5b/output
I0714 21:35:49.039388  1716 net.cpp:399] pool5/7x7_s1 -> pool5/7x7_s1
I0714 21:35:49.039806  1720 net.cpp:141] Setting up loss3/classifier
I0714 21:35:49.039824  1720 net.cpp:148] Top shape: 10 1000 (10000)
I0714 21:35:49.039830  1720 net.cpp:156] Memory required for data: 551493440
I0714 21:35:49.039842  1720 layer_factory.hpp:77] Creating layer prob
I0714 21:35:49.039854  1720 net.cpp:91] Creating Layer prob
I0714 21:35:49.039860  1720 net.cpp:425] prob <- loss3/classifier
I0714 21:35:49.039870  1720 net.cpp:399] prob -> prob
I0714 21:35:49.039933  1716 net.cpp:141] Setting up pool5/7x7_s1
I0714 21:35:49.039948  1716 net.cpp:148] Top shape: 10 1024 1 1 (10240)
I0714 21:35:49.039954  1716 net.cpp:156] Memory required for data: 551412480
I0714 21:35:49.039960  1716 layer_factory.hpp:77] Creating layer pool5/drop_7x7_s1
I0714 21:35:49.039970  1716 net.cpp:91] Creating Layer pool5/drop_7x7_s1
I0714 21:35:49.039976  1716 net.cpp:425] pool5/drop_7x7_s1 <- pool5/7x7_s1
I0714 21:35:49.039988  1716 net.cpp:386] pool5/drop_7x7_s1 -> pool5/7x7_s1 (in-place)
I0714 21:35:49.040797  1716 net.cpp:141] Setting up pool5/drop_7x7_s1
I0714 21:35:49.040819  1716 net.cpp:148] Top shape: 10 1024 1 1 (10240)
I0714 21:35:49.040827  1716 net.cpp:156] Memory required for data: 551453440
I0714 21:35:49.040832  1716 layer_factory.hpp:77] Creating layer loss3/classifier
I0714 21:35:49.040854  1716 net.cpp:91] Creating Layer loss3/classifier
I0714 21:35:49.040863  1716 net.cpp:425] loss3/classifier <- pool5/7x7_s1
I0714 21:35:49.040874  1716 net.cpp:399] loss3/classifier -> loss3/classifier
I0714 21:35:49.044577  1720 net.cpp:141] Setting up prob
I0714 21:35:49.044600  1720 net.cpp:148] Top shape: 10 1000 (10000)
I0714 21:35:49.044607  1720 net.cpp:156] Memory required for data: 551533440
I0714 21:35:49.044613  1720 net.cpp:219] prob does not need backward computation.
I0714 21:35:49.044620  1720 net.cpp:219] loss3/classifier does not need backward computation.
I0714 21:35:49.044625  1720 net.cpp:219] pool5/drop_7x7_s1 does not need backward computation.
I0714 21:35:49.044631  1720 net.cpp:219] pool5/7x7_s1 does not need backward computation.
…
