…
2016-08-02 07:14:51.230 n.t.s.b.CVParticleBolt [INFO] [Timing] RequestID: 0 StreamID: home_peifeng_work_data_frame_320x240_jpg SequenceNr: 117 Leaving scale: 1470136491230 Size: 3530
2016-08-02 07:14:51.232 n.t.s.b.CVParticleBolt [INFO] [Timing] RequestID: 0 StreamID: home_peifeng_work_data_frame_320x240_jpg SequenceNr: 119 Leaving scale: 1470136491232 Size: 3530
2016-08-02 07:14:51.234 n.t.s.b.CVParticleBolt [INFO] [Timing] RequestID: 0 StreamID: home_peifeng_work_data_frame_320x240_jpg SequenceNr: 118 Leaving scale: 1470136491234 Size: 3530
2016-08-02 07:14:51.303 STDERR [INFO] I0802 07:14:51.303732  4529 net.cpp:141] Setting up conv1
2016-08-02 07:14:51.304 STDERR [INFO] I0802 07:14:51.303789  4529 net.cpp:148] Top shape: 10 96 55 55 (2904000)
2016-08-02 07:14:51.304 STDERR [INFO] I0802 07:14:51.303797  4529 net.cpp:156] Memory required for data: 17799480
2016-08-02 07:14:51.304 STDERR [INFO] I0802 07:14:51.303829  4529 layer_factory.hpp:77] Creating layer relu1
2016-08-02 07:14:51.304 STDERR [INFO] I0802 07:14:51.303850  4529 net.cpp:91] Creating Layer relu1
2016-08-02 07:14:51.305 STDERR [INFO] I0802 07:14:51.303859  4529 net.cpp:425] relu1 <- conv1
2016-08-02 07:14:51.305 STDERR [INFO] I0802 07:14:51.303869  4529 net.cpp:386] relu1 -> conv1 (in-place)
2016-08-02 07:14:51.305 STDERR [INFO] I0802 07:14:51.304374  4529 net.cpp:141] Setting up relu1
2016-08-02 07:14:51.305 STDERR [INFO] I0802 07:14:51.304390  4529 net.cpp:148] Top shape: 10 96 55 55 (2904000)
2016-08-02 07:14:51.305 STDERR [INFO] I0802 07:14:51.304396  4529 net.cpp:156] Memory required for data: 29415480
2016-08-02 07:14:51.305 STDERR [INFO] I0802 07:14:51.304402  4529 layer_factory.hpp:77] Creating layer pool1
2016-08-02 07:14:51.305 STDERR [INFO] I0802 07:14:51.304417  4529 net.cpp:91] Creating Layer pool1
2016-08-02 07:14:51.306 STDERR [INFO] I0802 07:14:51.304422  4529 net.cpp:425] pool1 <- conv1
2016-08-02 07:14:51.306 STDERR [INFO] I0802 07:14:51.304431  4529 net.cpp:399] pool1 -> pool1
2016-08-02 07:14:51.306 STDERR [INFO] I0802 07:14:51.304517  4529 net.cpp:141] Setting up pool1
2016-08-02 07:14:51.306 STDERR [INFO] I0802 07:14:51.304528  4529 net.cpp:148] Top shape: 10 96 27 27 (699840)
2016-08-02 07:14:51.306 STDERR [INFO] I0802 07:14:51.304533  4529 net.cpp:156] Memory required for data: 32214840
2016-08-02 07:14:51.306 STDERR [INFO] I0802 07:14:51.304539  4529 layer_factory.hpp:77] Creating layer norm1
2016-08-02 07:14:51.306 STDERR [INFO] I0802 07:14:51.304558  4529 net.cpp:91] Creating Layer norm1
2016-08-02 07:14:51.307 STDERR [INFO] I0802 07:14:51.304563  4529 net.cpp:425] norm1 <- pool1
2016-08-02 07:14:51.307 STDERR [INFO] I0802 07:14:51.304571  4529 net.cpp:399] norm1 -> norm1
2016-08-02 07:14:51.307 STDERR [INFO] I0802 07:14:51.305100  4529 net.cpp:141] Setting up norm1
2016-08-02 07:14:51.307 STDERR [INFO] I0802 07:14:51.305116  4529 net.cpp:148] Top shape: 10 96 27 27 (699840)
2016-08-02 07:14:51.307 STDERR [INFO] I0802 07:14:51.305121  4529 net.cpp:156] Memory required for data: 35014200
2016-08-02 07:14:51.307 STDERR [INFO] I0802 07:14:51.305127  4529 layer_factory.hpp:77] Creating layer conv2
2016-08-02 07:14:51.307 STDERR [INFO] I0802 07:14:51.305145  4529 net.cpp:91] Creating Layer conv2
2016-08-02 07:14:51.307 STDERR [INFO] I0802 07:14:51.305151  4529 net.cpp:425] conv2 <- norm1
2016-08-02 07:14:51.308 STDERR [INFO] I0802 07:14:51.305160  4529 net.cpp:399] conv2 -> conv2
2016-08-02 07:14:51.309 STDERR [INFO] I0802 07:14:51.309505  4529 net.cpp:141] Setting up conv2
2016-08-02 07:14:51.309 STDERR [INFO] I0802 07:14:51.309538  4529 net.cpp:148] Top shape: 10 256 27 27 (1866240)
2016-08-02 07:14:51.310 STDERR [INFO] I0802 07:14:51.309545  4529 net.cpp:156] Memory required for data: 42479160
2016-08-02 07:14:51.310 STDERR [INFO] I0802 07:14:51.309566  4529 layer_factory.hpp:77] Creating layer relu2
2016-08-02 07:14:51.310 STDERR [INFO] I0802 07:14:51.309581  4529 net.cpp:91] Creating Layer relu2
2016-08-02 07:14:51.310 STDERR [INFO] I0802 07:14:51.309587  4529 net.cpp:425] relu2 <- conv2
2016-08-02 07:14:51.310 STDERR [INFO] I0802 07:14:51.309595  4529 net.cpp:386] relu2 -> conv2 (in-place)
2016-08-02 07:14:51.310 STDERR [INFO] I0802 07:14:51.310094  4529 net.cpp:141] Setting up relu2
2016-08-02 07:14:51.310 STDERR [INFO] I0802 07:14:51.310109  4529 net.cpp:148] Top shape: 10 256 27 27 (1866240)
2016-08-02 07:14:51.310 STDERR [INFO] I0802 07:14:51.310116  4529 net.cpp:156] Memory required for data: 49944120
2016-08-02 07:14:51.310 STDERR [INFO] I0802 07:14:51.310122  4529 layer_factory.hpp:77] Creating layer pool2
2016-08-02 07:14:51.311 STDERR [INFO] I0802 07:14:51.310132  4529 net.cpp:91] Creating Layer pool2
2016-08-02 07:14:51.311 STDERR [INFO] I0802 07:14:51.310137  4529 net.cpp:425] pool2 <- conv2
2016-08-02 07:14:51.311 STDERR [INFO] I0802 07:14:51.310147  4529 net.cpp:399] pool2 -> pool2
2016-08-02 07:14:51.311 STDERR [INFO] I0802 07:14:51.310207  4529 net.cpp:141] Setting up pool2
2016-08-02 07:14:51.311 STDERR [INFO] I0802 07:14:51.310219  4529 net.cpp:148] Top shape: 10 256 13 13 (432640)
2016-08-02 07:14:51.311 STDERR [INFO] I0802 07:14:51.310223  4529 net.cpp:156] Memory required for data: 51674680
2016-08-02 07:14:51.311 STDERR [INFO] I0802 07:14:51.310228  4529 layer_factory.hpp:77] Creating layer norm2
2016-08-02 07:14:51.311 STDERR [INFO] I0802 07:14:51.310241  4529 net.cpp:91] Creating Layer norm2
2016-08-02 07:14:51.311 STDERR [INFO] I0802 07:14:51.310246  4529 net.cpp:425] norm2 <- pool2
2016-08-02 07:14:51.311 STDERR [INFO] I0802 07:14:51.310255  4529 net.cpp:399] norm2 -> norm2
2016-08-02 07:14:51.312 STDERR [INFO] I0802 07:14:51.310525  4529 net.cpp:141] Setting up norm2
2016-08-02 07:14:51.312 STDERR [INFO] I0802 07:14:51.310539  4529 net.cpp:148] Top shape: 10 256 13 13 (432640)
2016-08-02 07:14:51.312 STDERR [INFO] I0802 07:14:51.310544  4529 net.cpp:156] Memory required for data: 53405240
2016-08-02 07:14:51.312 STDERR [INFO] I0802 07:14:51.310549  4529 layer_factory.hpp:77] Creating layer conv3
2016-08-02 07:14:51.312 STDERR [INFO] I0802 07:14:51.310565  4529 net.cpp:91] Creating Layer conv3
2016-08-02 07:14:51.312 STDERR [INFO] I0802 07:14:51.310711  4529 net.cpp:425] conv3 <- norm2
2016-08-02 07:14:51.313 STDERR [INFO] I0802 07:14:51.310773  4529 net.cpp:399] conv3 -> conv3
2016-08-02 07:14:51.314 STDERR [INFO] I0802 07:14:51.314677  4529 net.cpp:141] Setting up conv3
2016-08-02 07:14:51.315 STDERR [INFO] I0802 07:14:51.314713  4529 net.cpp:148] Top shape: 10 384 13 13 (648960)
2016-08-02 07:14:51.315 STDERR [INFO] I0802 07:14:51.314719  4529 net.cpp:156] Memory required for data: 56001080
2016-08-02 07:14:51.315 STDERR [INFO] I0802 07:14:51.314738  4529 layer_factory.hpp:77] Creating layer relu3
2016-08-02 07:14:51.315 STDERR [INFO] I0802 07:14:51.314748  4529 net.cpp:91] Creating Layer relu3
2016-08-02 07:14:51.315 STDERR [INFO] I0802 07:14:51.314752  4529 net.cpp:425] relu3 <- conv3
2016-08-02 07:14:51.315 STDERR [INFO] I0802 07:14:51.314759  4529 net.cpp:386] relu3 -> conv3 (in-place)
2016-08-02 07:14:51.315 STDERR [INFO] I0802 07:14:51.315201  4529 net.cpp:141] Setting up relu3
2016-08-02 07:14:51.315 STDERR [INFO] I0802 07:14:51.315213  4529 net.cpp:148] Top shape: 10 384 13 13 (648960)
2016-08-02 07:14:51.315 STDERR [INFO] I0802 07:14:51.315218  4529 net.cpp:156] Memory required for data: 58596920
2016-08-02 07:14:51.316 STDERR [INFO] I0802 07:14:51.315223  4529 layer_factory.hpp:77] Creating layer conv4
2016-08-02 07:14:51.316 STDERR [INFO] I0802 07:14:51.315237  4529 net.cpp:91] Creating Layer conv4
2016-08-02 07:14:51.316 STDERR [INFO] I0802 07:14:51.315243  4529 net.cpp:425] conv4 <- conv3
2016-08-02 07:14:51.316 STDERR [INFO] I0802 07:14:51.315250  4529 net.cpp:399] conv4 -> conv4
2016-08-02 07:14:51.319 STDERR [INFO] I0802 07:14:51.319195  4529 net.cpp:141] Setting up conv4
2016-08-02 07:14:51.319 STDERR [INFO] I0802 07:14:51.319226  4529 net.cpp:148] Top shape: 10 384 13 13 (648960)
2016-08-02 07:14:51.319 STDERR [INFO] I0802 07:14:51.319232  4529 net.cpp:156] Memory required for data: 61192760
2016-08-02 07:14:51.319 STDERR [INFO] I0802 07:14:51.319242  4529 layer_factory.hpp:77] Creating layer relu4
2016-08-02 07:14:51.319 STDERR [INFO] I0802 07:14:51.319252  4529 net.cpp:91] Creating Layer relu4
2016-08-02 07:14:51.319 STDERR [INFO] I0802 07:14:51.319257  4529 net.cpp:425] relu4 <- conv4
2016-08-02 07:14:51.319 STDERR [INFO] I0802 07:14:51.319263  4529 net.cpp:386] relu4 -> conv4 (in-place)
2016-08-02 07:14:51.320 STDERR [INFO] I0802 07:14:51.319697  4529 net.cpp:141] Setting up relu4
2016-08-02 07:14:51.320 STDERR [INFO] I0802 07:14:51.319710  4529 net.cpp:148] Top shape: 10 384 13 13 (648960)
2016-08-02 07:14:51.320 STDERR [INFO] I0802 07:14:51.319715  4529 net.cpp:156] Memory required for data: 63788600
2016-08-02 07:14:51.320 STDERR [INFO] I0802 07:14:51.319720  4529 layer_factory.hpp:77] Creating layer conv5
2016-08-02 07:14:51.320 STDERR [INFO] I0802 07:14:51.319731  4529 net.cpp:91] Creating Layer conv5
2016-08-02 07:14:51.320 STDERR [INFO] I0802 07:14:51.319736  4529 net.cpp:425] conv5 <- conv4
2016-08-02 07:14:51.320 STDERR [INFO] I0802 07:14:51.319743  4529 net.cpp:399] conv5 -> conv5
2016-08-02 07:14:51.323 STDERR [INFO] I0802 07:14:51.323612  4529 net.cpp:141] Setting up conv5
2016-08-02 07:14:51.323 STDERR [INFO] I0802 07:14:51.323642  4529 net.cpp:148] Top shape: 10 256 13 13 (432640)
2016-08-02 07:14:51.324 STDERR [INFO] I0802 07:14:51.323648  4529 net.cpp:156] Memory required for data: 65519160
2016-08-02 07:14:51.324 STDERR [INFO] I0802 07:14:51.323660  4529 layer_factory.hpp:77] Creating layer relu5
2016-08-02 07:14:51.324 STDERR [INFO] I0802 07:14:51.323671  4529 net.cpp:91] Creating Layer relu5
2016-08-02 07:14:51.324 STDERR [INFO] I0802 07:14:51.323676  4529 net.cpp:425] relu5 <- conv5
2016-08-02 07:14:51.324 STDERR [INFO] I0802 07:14:51.323683  4529 net.cpp:386] relu5 -> conv5 (in-place)
2016-08-02 07:14:51.324 STDERR [INFO] I0802 07:14:51.324131  4529 net.cpp:141] Setting up relu5
2016-08-02 07:14:51.324 STDERR [INFO] I0802 07:14:51.324144  4529 net.cpp:148] Top shape: 10 256 13 13 (432640)
2016-08-02 07:14:51.324 STDERR [INFO] I0802 07:14:51.324149  4529 net.cpp:156] Memory required for data: 67249720
2016-08-02 07:14:51.324 STDERR [INFO] I0802 07:14:51.324154  4529 layer_factory.hpp:77] Creating layer pool5
2016-08-02 07:14:51.324 STDERR [INFO] I0802 07:14:51.324165  4529 net.cpp:91] Creating Layer pool5
2016-08-02 07:14:51.324 STDERR [INFO] I0802 07:14:51.324170  4529 net.cpp:425] pool5 <- conv5
2016-08-02 07:14:51.325 STDERR [INFO] I0802 07:14:51.324177  4529 net.cpp:399] pool5 -> pool5
2016-08-02 07:14:51.325 STDERR [INFO] I0802 07:14:51.324239  4529 net.cpp:141] Setting up pool5
2016-08-02 07:14:51.325 STDERR [INFO] I0802 07:14:51.324247  4529 net.cpp:148] Top shape: 10 256 6 6 (92160)
2016-08-02 07:14:51.325 STDERR [INFO] I0802 07:14:51.324251  4529 net.cpp:156] Memory required for data: 67618360
2016-08-02 07:14:51.325 STDERR [INFO] I0802 07:14:51.324256  4529 layer_factory.hpp:77] Creating layer fc6
2016-08-02 07:14:51.325 STDERR [INFO] I0802 07:14:51.324280  4529 net.cpp:91] Creating Layer fc6
2016-08-02 07:14:51.325 STDERR [INFO] I0802 07:14:51.324285  4529 net.cpp:425] fc6 <- pool5
…
2016-08-02 07:14:51.420 n.t.s.b.CVParticleBolt [INFO] [Timing] RequestID: 0 StreamID: home_peifeng_work_data_frame_320x240_jpg SequenceNr: 123 Entering scale: 1470136491420
2016-08-02 07:14:51.420 n.t.s.s.CVParticleSpout [INFO] [Timing] RequestID: 0 StreamID: home_peifeng_work_data_frame_320x240_jpg SequenceNr: 123 Leaving fetcher: 1470136491420 Size: 8702
2016-08-02 07:14:51.420 n.t.s.b.CVParticleBolt [INFO] [Timing] RequestID: 0 StreamID: home_peifeng_work_data_frame_320x240_jpg SequenceNr: 122 Leaving scale: 1470136491420 Size: 3530
2016-08-02 07:14:51.426 STDERR [INFO] I0802 07:14:51.426517  4529 net.cpp:141] Setting up fc6
2016-08-02 07:14:51.427 STDERR [INFO] I0802 07:14:51.426568  4529 net.cpp:148] Top shape: 10 4096 (40960)
2016-08-02 07:14:51.427 STDERR [INFO] I0802 07:14:51.426573  4529 net.cpp:156] Memory required for data: 67782200
2016-08-02 07:14:51.427 STDERR [INFO] I0802 07:14:51.426587  4529 layer_factory.hpp:77] Creating layer relu6
2016-08-02 07:14:51.427 STDERR [INFO] I0802 07:14:51.426601  4529 net.cpp:91] Creating Layer relu6
2016-08-02 07:14:51.427 STDERR [INFO] I0802 07:14:51.426607  4529 net.cpp:425] relu6 <- fc6
2016-08-02 07:14:51.427 STDERR [INFO] I0802 07:14:51.426615  4529 net.cpp:386] relu6 -> fc6 (in-place)
2016-08-02 07:14:51.427 STDERR [INFO] I0802 07:14:51.426952  4529 net.cpp:141] Setting up relu6
2016-08-02 07:14:51.427 STDERR [INFO] I0802 07:14:51.426964  4529 net.cpp:148] Top shape: 10 4096 (40960)
2016-08-02 07:14:51.427 STDERR [INFO] I0802 07:14:51.426967  4529 net.cpp:156] Memory required for data: 67946040
2016-08-02 07:14:51.428 STDERR [INFO] I0802 07:14:51.426972  4529 layer_factory.hpp:77] Creating layer drop6
2016-08-02 07:14:51.428 STDERR [INFO] I0802 07:14:51.426985  4529 net.cpp:91] Creating Layer drop6
2016-08-02 07:14:51.428 n.t.s.b.CVParticleBolt [INFO] [Timing] RequestID: 0 StreamID: home_peifeng_work_data_frame_320x240_jpg SequenceNr: 123 Leaving scale: 1470136491428 Size: 3530
2016-08-02 07:14:51.428 STDERR [INFO] I0802 07:14:51.426988  4529 net.cpp:425] drop6 <- fc6
2016-08-02 07:14:51.428 STDERR [INFO] I0802 07:14:51.426995  4529 net.cpp:386] drop6 -> fc6 (in-place)
2016-08-02 07:14:51.428 STDERR [INFO] I0802 07:14:51.427040  4529 net.cpp:141] Setting up drop6
2016-08-02 07:14:51.428 STDERR [INFO] I0802 07:14:51.427050  4529 net.cpp:148] Top shape: 10 4096 (40960)
2016-08-02 07:14:51.428 STDERR [INFO] I0802 07:14:51.427054  4529 net.cpp:156] Memory required for data: 68109880
2016-08-02 07:14:51.428 STDERR [INFO] I0802 07:14:51.427059  4529 layer_factory.hpp:77] Creating layer fc7
2016-08-02 07:14:51.428 STDERR [INFO] I0802 07:14:51.427072  4529 net.cpp:91] Creating Layer fc7
2016-08-02 07:14:51.428 STDERR [INFO] I0802 07:14:51.427075  4529 net.cpp:425] fc7 <- fc6
2016-08-02 07:14:51.429 STDERR [INFO] I0802 07:14:51.427084  4529 net.cpp:399] fc7 -> fc7
2016-08-02 07:14:51.472 STDERR [INFO] I0802 07:14:51.472533  4529 net.cpp:141] Setting up fc7
2016-08-02 07:14:51.473 STDERR [INFO] I0802 07:14:51.472579  4529 net.cpp:148] Top shape: 10 4096 (40960)
2016-08-02 07:14:51.473 STDERR [INFO] I0802 07:14:51.472584  4529 net.cpp:156] Memory required for data: 68273720
2016-08-02 07:14:51.473 STDERR [INFO] I0802 07:14:51.472597  4529 layer_factory.hpp:77] Creating layer relu7
2016-08-02 07:14:51.473 STDERR [INFO] I0802 07:14:51.472611  4529 net.cpp:91] Creating Layer relu7
2016-08-02 07:14:51.473 STDERR [INFO] I0802 07:14:51.472617  4529 net.cpp:425] relu7 <- fc7
2016-08-02 07:14:51.473 STDERR [INFO] I0802 07:14:51.472625  4529 net.cpp:386] relu7 -> fc7 (in-place)
2016-08-02 07:14:51.473 STDERR [INFO] I0802 07:14:51.473431  4529 net.cpp:141] Setting up relu7
2016-08-02 07:14:51.474 STDERR [INFO] I0802 07:14:51.473444  4529 net.cpp:148] Top shape: 10 4096 (40960)
2016-08-02 07:14:51.474 STDERR [INFO] I0802 07:14:51.473448  4529 net.cpp:156] Memory required for data: 68437560
2016-08-02 07:14:51.474 STDERR [INFO] I0802 07:14:51.473453  4529 layer_factory.hpp:77] Creating layer drop7
2016-08-02 07:14:51.474 STDERR [INFO] I0802 07:14:51.473462  4529 net.cpp:91] Creating Layer drop7
2016-08-02 07:14:51.474 STDERR [INFO] I0802 07:14:51.473467  4529 net.cpp:425] drop7 <- fc7
2016-08-02 07:14:51.474 STDERR [INFO] I0802 07:14:51.473477  4529 net.cpp:386] drop7 -> fc7 (in-place)
2016-08-02 07:14:51.474 STDERR [INFO] I0802 07:14:51.473515  4529 net.cpp:141] Setting up drop7
2016-08-02 07:14:51.474 STDERR [INFO] I0802 07:14:51.473526  4529 net.cpp:148] Top shape: 10 4096 (40960)
2016-08-02 07:14:51.474 STDERR [INFO] I0802 07:14:51.473531  4529 net.cpp:156] Memory required for data: 68601400
2016-08-02 07:14:51.475 STDERR [INFO] I0802 07:14:51.473536  4529 layer_factory.hpp:77] Creating layer fc8
2016-08-02 07:14:51.475 STDERR [INFO] I0802 07:14:51.473543  4529 net.cpp:91] Creating Layer fc8
2016-08-02 07:14:51.475 STDERR [INFO] I0802 07:14:51.473548  4529 net.cpp:425] fc8 <- fc7
2016-08-02 07:14:51.475 STDERR [INFO] I0802 07:14:51.473554  4529 net.cpp:399] fc8 -> fc8
2016-08-02 07:14:51.486 STDERR [INFO] I0802 07:14:51.485779  4529 net.cpp:141] Setting up fc8
2016-08-02 07:14:51.486 STDERR [INFO] I0802 07:14:51.485826  4529 net.cpp:148] Top shape: 10 1000 (10000)
2016-08-02 07:14:51.486 STDERR [INFO] I0802 07:14:51.485832  4529 net.cpp:156] Memory required for data: 68641400
2016-08-02 07:14:51.486 STDERR [INFO] I0802 07:14:51.485846  4529 layer_factory.hpp:77] Creating layer prob
2016-08-02 07:14:51.486 STDERR [INFO] I0802 07:14:51.485864  4529 net.cpp:91] Creating Layer prob
2016-08-02 07:14:51.486 STDERR [INFO] I0802 07:14:51.485872  4529 net.cpp:425] prob <- fc8
2016-08-02 07:14:51.486 STDERR [INFO] I0802 07:14:51.485880  4529 net.cpp:399] prob -> prob
2016-08-02 07:14:51.487 STDERR [INFO] I0802 07:14:51.486305  4529 net.cpp:141] Setting up prob
2016-08-02 07:14:51.487 STDERR [INFO] I0802 07:14:51.486320  4529 net.cpp:148] Top shape: 10 1000 (10000)
2016-08-02 07:14:51.487 STDERR [INFO] I0802 07:14:51.486325  4529 net.cpp:156] Memory required for data: 68681400
2016-08-02 07:14:51.487 STDERR [INFO] I0802 07:14:51.486330  4529 net.cpp:219] prob does not need backward computation.
2016-08-02 07:14:51.487 STDERR [INFO] I0802 07:14:51.486335  4529 net.cpp:219] fc8 does not need backward computation.
2016-08-02 07:14:51.487 STDERR [INFO] I0802 07:14:51.486340  4529 net.cpp:219] drop7 does not need backward computation.
…
2016-08-02 07:14:51.604 n.t.s.s.CVParticleSpout [INFO] [Timing] RequestID: 0 StreamID: home_peifeng_work_data_frame_320x240_jpg SequenceNr: 124 Leaving fetcher: 1470136491604 Size: 8702
2016-08-02 07:14:51.604 n.t.s.b.CVParticleBolt [INFO] [Timing] RequestID: 0 StreamID: home_peifeng_work_data_frame_320x240_jpg SequenceNr: 124 Entering scale: 1470136491604
2016-08-02 07:14:51.604 STDERR [INFO] I0802 07:14:51.589773  4519 net.cpp:399] input -> stage_indicator
2016-08-02 07:14:51.605 STDERR [INFO] I0802 07:14:51.589915  4519 net.cpp:141] Setting up input
2016-08-02 07:14:51.605 STDERR [INFO] I0802 07:14:51.589927  4519 net.cpp:148] Top shape: 1 4096 (4096)
2016-08-02 07:14:51.605 STDERR [INFO] I0802 07:14:51.589934  4519 net.cpp:148] Top shape: 1 1 (1)
2016-08-02 07:14:51.605 STDERR [INFO] I0802 07:14:51.589939  4519 net.cpp:148] Top shape: 1 1 (1)
2016-08-02 07:14:51.605 STDERR [INFO] I0802 07:14:51.589946  4519 net.cpp:148] Top shape: 1 1 (1)
2016-08-02 07:14:51.605 STDERR [INFO] I0802 07:14:51.589949  4519 net.cpp:156] Memory required for data: 16396
2016-08-02 07:14:51.605 STDERR [INFO] I0802 07:14:51.589954  4519 layer_factory.hpp:77] Creating layer cont_sentence_input_1_split
2016-08-02 07:14:51.605 STDERR [INFO] I0802 07:14:51.589973  4519 net.cpp:91] Creating Layer cont_sentence_input_1_split
2016-08-02 07:14:51.605 STDERR [INFO] I0802 07:14:51.589978  4519 net.cpp:425] cont_sentence_input_1_split <- cont_sentence
2016-08-02 07:14:51.605 STDERR [INFO] I0802 07:14:51.589998  4519 net.cpp:399] cont_sentence_input_1_split -> cont_sentence_input_1_split_0
2016-08-02 07:14:51.605 STDERR [INFO] I0802 07:14:51.590008  4519 net.cpp:399] cont_sentence_input_1_split -> cont_sentence_input_1_split_1
2016-08-02 07:14:51.605 STDERR [INFO] I0802 07:14:51.590060  4519 net.cpp:141] Setting up cont_sentence_input_1_split
2016-08-02 07:14:51.606 STDERR [INFO] I0802 07:14:51.590070  4519 net.cpp:148] Top shape: 1 1 (1)
2016-08-02 07:14:51.606 STDERR [INFO] I0802 07:14:51.590076  4519 net.cpp:148] Top shape: 1 1 (1)
2016-08-02 07:14:51.606 STDERR [INFO] I0802 07:14:51.590081  4519 net.cpp:156] Memory required for data: 16404
2016-08-02 07:14:51.606 STDERR [INFO] I0802 07:14:51.590085  4519 layer_factory.hpp:77] Creating layer embed_encoder
2016-08-02 07:14:51.606 STDERR [INFO] I0802 07:14:51.590098  4519 net.cpp:91] Creating Layer embed_encoder
2016-08-02 07:14:51.606 STDERR [INFO] I0802 07:14:51.590103  4519 net.cpp:425] embed_encoder <- frames_fc7
…
2016-08-02 07:14:51.884 STDERR [INFO] }
2016-08-02 07:14:51.884 STDERR [INFO] I0802 07:14:51.871487  4519 layer_factory.hpp:77] Creating layer lstm1_
2016-08-02 07:14:51.884 STDERR [INFO] I0802 07:14:51.871502  4519 net.cpp:91] Creating Layer lstm1_
2016-08-02 07:14:51.884 STDERR [INFO] I0802 07:14:51.871510  4519 net.cpp:399] lstm1_ -> x
2016-08-02 07:14:51.884 STDERR [INFO] I0802 07:14:51.871522  4519 net.cpp:399] lstm1_ -> cont
2016-08-02 07:14:51.884 STDERR [INFO] I0802 07:14:51.871598  4519 net.cpp:141] Setting up lstm1_
2016-08-02 07:14:51.884 STDERR [INFO] I0802 07:14:51.871608  4519 net.cpp:148] Top shape: 1 1 500 (500)
2016-08-02 07:14:51.884 STDERR [INFO] I0802 07:14:51.871615  4519 net.cpp:148] Top shape: 1 1 (1)
2016-08-02 07:14:51.884 STDERR [INFO] I0802 07:14:51.871620  4519 net.cpp:156] Memory required for data: 2004
2016-08-02 07:14:51.884 STDERR [INFO] I0802 07:14:51.871625  4519 layer_factory.hpp:77] Creating layer lstm1_
2016-08-02 07:14:51.884 STDERR [INFO] I0802 07:14:51.871634  4519 net.cpp:91] Creating Layer lstm1_
2016-08-02 07:14:51.884 STDERR [INFO] I0802 07:14:51.871649  4519 net.cpp:399] lstm1_ -> c_0
2016-08-02 07:14:51.885 STDERR [INFO] I0802 07:14:51.871659  4519 net.cpp:399] lstm1_ -> h_0
2016-08-02 07:14:51.885 STDERR [INFO] I0802 07:14:51.871716  4519 net.cpp:141] Setting up lstm1_
2016-08-02 07:14:51.885 STDERR [INFO] I0802 07:14:51.871726  4519 net.cpp:148] Top shape: 1 1 1000 (1000)
2016-08-02 07:14:51.885 STDERR [INFO] I0802 07:14:51.871732  4519 net.cpp:148] Top shape: 1 1 1000 (1000)
2016-08-02 07:14:51.885 STDERR [INFO] I0802 07:14:51.871737  4519 net.cpp:156] Memory required for data: 10004
2016-08-02 07:14:51.885 STDERR [INFO] I0802 07:14:51.871742  4519 layer_factory.hpp:77] Creating layer lstm1_cont_slice
2016-08-02 07:14:51.885 STDERR [INFO] I0802 07:14:51.871752  4519 net.cpp:91] Creating Layer lstm1_cont_slice
2016-08-02 07:14:51.885 STDERR [INFO] I0802 07:14:51.871757  4519 net.cpp:425] lstm1_cont_slice <- cont
2016-08-02 07:14:51.885 STDERR [INFO] I0802 07:14:51.871763  4519 net.cpp:399] lstm1_cont_slice -> cont_1
2016-08-02 07:14:51.885 STDERR [INFO] I0802 07:14:51.871806  4519 net.cpp:141] Setting up lstm1_cont_slice
2016-08-02 07:14:51.885 STDERR [INFO] I0802 07:14:51.871816  4519 net.cpp:148] Top shape: 1 1 (1)
2016-08-02 07:14:51.885 STDERR [INFO] I0802 07:14:51.871820  4519 net.cpp:156] Memory required for data: 10008
2016-08-02 07:14:51.886 STDERR [INFO] I0802 07:14:51.871825  4519 layer_factory.hpp:77] Creating layer cont_1_lstm1_cont_slice_0_split
2016-08-02 07:14:51.886 STDERR [INFO] I0802 07:14:51.871837  4519 net.cpp:91] Creating Layer cont_1_lstm1_cont_slice_0_split
2016-08-02 07:14:51.886 STDERR [INFO] I0802 07:14:51.871843  4519 net.cpp:425] cont_1_lstm1_cont_slice_0_split <- cont_1
2016-08-02 07:14:51.886 STDERR [INFO] I0802 07:14:51.871850  4519 net.cpp:399] cont_1_lstm1_cont_slice_0_split -> cont_1_lstm1_cont_slice_0_split_0
2016-08-02 07:14:51.886 STDERR [INFO] I0802 07:14:51.871860  4519 net.cpp:399] cont_1_lstm1_cont_slice_0_split -> cont_1_lstm1_cont_slice_0_split_1
2016-08-02 07:14:51.886 STDERR [INFO] I0802 07:14:51.871915  4519 net.cpp:141] Setting up cont_1_lstm1_cont_slice_0_split
2016-08-02 07:14:51.886 STDERR [INFO] I0802 07:14:51.871925  4519 net.cpp:148] Top shape: 1 1 (1)
2016-08-02 07:14:51.886 STDERR [INFO] I0802 07:14:51.871932  4519 net.cpp:148] Top shape: 1 1 (1)
2016-08-02 07:14:51.886 STDERR [INFO] I0802 07:14:51.871935  4519 net.cpp:156] Memory required for data: 10016
2016-08-02 07:14:51.886 STDERR [INFO] I0802 07:14:51.871940  4519 layer_factory.hpp:77] Creating layer lstm1_x_transform
2016-08-02 07:14:51.886 STDERR [INFO] I0802 07:14:51.871953  4519 net.cpp:91] Creating Layer lstm1_x_transform
2016-08-02 07:14:51.887 STDERR [INFO] I0802 07:14:51.871959  4519 net.cpp:425] lstm1_x_transform <- x
2016-08-02 07:14:51.887 STDERR [INFO] I0802 07:14:51.871968  4519 net.cpp:399] lstm1_x_transform -> W_xc_x
2016-08-02 07:14:51.893 STDERR [INFO] I0802 07:14:51.893141  4519 net.cpp:141] Setting up lstm1_x_transform
2016-08-02 07:14:51.893 STDERR [INFO] I0802 07:14:51.893187  4519 net.cpp:148] Top shape: 1 1 4000 (4000)
2016-08-02 07:14:51.894 STDERR [INFO] I0802 07:14:51.893193  4519 net.cpp:156] Memory required for data: 26016
2016-08-02 07:14:51.894 STDERR [INFO] I0802 07:14:51.893213  4519 layer_factory.hpp:77] Creating layer lstm1_W_xc_x_slice
2016-08-02 07:14:51.894 STDERR [INFO] I0802 07:14:51.893224  4519 net.cpp:91] Creating Layer lstm1_W_xc_x_slice
2016-08-02 07:14:51.894 STDERR [INFO] I0802 07:14:51.893230  4519 net.cpp:425] lstm1_W_xc_x_slice <- W_xc_x
2016-08-02 07:14:51.894 STDERR [INFO] I0802 07:14:51.893239  4519 net.cpp:399] lstm1_W_xc_x_slice -> W_xc_x_1
2016-08-02 07:14:51.894 STDERR [INFO] I0802 07:14:51.893285  4519 net.cpp:141] Setting up lstm1_W_xc_x_slice
2016-08-02 07:14:51.894 STDERR [INFO] I0802 07:14:51.893296  4519 net.cpp:148] Top shape: 1 1 4000 (4000)
2016-08-02 07:14:51.894 STDERR [INFO] I0802 07:14:51.893301  4519 net.cpp:156] Memory required for data: 42016
2016-08-02 07:14:51.894 STDERR [INFO] I0802 07:14:51.893306  4519 layer_factory.hpp:77] Creating layer lstm1_h_conted_0
2016-08-02 07:14:51.894 STDERR [INFO] I0802 07:14:51.893316  4519 net.cpp:91] Creating Layer lstm1_h_conted_0
2016-08-02 07:14:51.894 STDERR [INFO] I0802 07:14:51.893321  4519 net.cpp:425] lstm1_h_conted_0 <- h_0
2016-08-02 07:14:51.894 STDERR [INFO] I0802 07:14:51.893328  4519 net.cpp:425] lstm1_h_conted_0 <- cont_1_lstm1_cont_slice_0_split_0
2016-08-02 07:14:51.894 STDERR [INFO] I0802 07:14:51.893335  4519 net.cpp:399] lstm1_h_conted_0 -> h_conted_0
2016-08-02 07:14:51.895 STDERR [INFO] I0802 07:14:51.893438  4519 net.cpp:141] Setting up lstm1_h_conted_0
2016-08-02 07:14:51.895 STDERR [INFO] I0802 07:14:51.893448  4519 net.cpp:148] Top shape: 1 1 1000 (1000)
2016-08-02 07:14:51.895 STDERR [INFO] I0802 07:14:51.893453  4519 net.cpp:156] Memory required for data: 46016
2016-08-02 07:14:51.895 STDERR [INFO] I0802 07:14:51.893458  4519 layer_factory.hpp:77] Creating layer lstm1_transform_1
2016-08-02 07:14:51.895 STDERR [INFO] I0802 07:14:51.893470  4519 net.cpp:91] Creating Layer lstm1_transform_1
2016-08-02 07:14:51.895 STDERR [INFO] I0802 07:14:51.893474  4519 net.cpp:425] lstm1_transform_1 <- h_conted_0
2016-08-02 07:14:51.895 STDERR [INFO] I0802 07:14:51.893486  4519 net.cpp:399] lstm1_transform_1 -> W_hc_h_0
2016-08-02 07:14:51.936 STDERR [INFO] I0802 07:14:51.936097  4519 net.cpp:141] Setting up lstm1_transform_1
2016-08-02 07:14:51.936 STDERR [INFO] I0802 07:14:51.936151  4519 net.cpp:148] Top shape: 1 1 4000 (4000)
2016-08-02 07:14:51.936 STDERR [INFO] I0802 07:14:51.936157  4519 net.cpp:156] Memory required for data: 62016
2016-08-02 07:14:51.936 STDERR [INFO] I0802 07:14:51.936180  4519 layer_factory.hpp:77] Creating layer lstm1_gate_input_1
2016-08-02 07:14:51.936 STDERR [INFO] I0802 07:14:51.936204  4519 net.cpp:91] Creating Layer lstm1_gate_input_1
2016-08-02 07:14:51.936 STDERR [INFO] I0802 07:14:51.936213  4519 net.cpp:425] lstm1_gate_input_1 <- W_hc_h_0
2016-08-02 07:14:51.937 STDERR [INFO] I0802 07:14:51.936223  4519 net.cpp:425] lstm1_gate_input_1 <- W_xc_x_1
2016-08-02 07:14:51.937 STDERR [INFO] I0802 07:14:51.936231  4519 net.cpp:399] lstm1_gate_input_1 -> gate_input_1
2016-08-02 07:14:51.937 STDERR [INFO] I0802 07:14:51.936293  4519 net.cpp:141] Setting up lstm1_gate_input_1
2016-08-02 07:14:51.937 STDERR [INFO] I0802 07:14:51.936305  4519 net.cpp:148] Top shape: 1 1 4000 (4000)
2016-08-02 07:14:51.937 STDERR [INFO] I0802 07:14:51.936309  4519 net.cpp:156] Memory required for data: 78016
2016-08-02 07:14:51.937 STDERR [INFO] I0802 07:14:51.936314  4519 layer_factory.hpp:77] Creating layer lstm1_unit_1
2016-08-02 07:14:51.937 STDERR [INFO] I0802 07:14:51.936324  4519 net.cpp:91] Creating Layer lstm1_unit_1
2016-08-02 07:14:51.937 STDERR [INFO] I0802 07:14:51.936329  4519 net.cpp:425] lstm1_unit_1 <- c_0
2016-08-02 07:14:51.937 STDERR [INFO] I0802 07:14:51.936336  4519 net.cpp:425] lstm1_unit_1 <- gate_input_1
2016-08-02 07:14:51.938 STDERR [INFO] I0802 07:14:51.936342  4519 net.cpp:425] lstm1_unit_1 <- cont_1_lstm1_cont_slice_0_split_1
2016-08-02 07:14:51.938 STDERR [INFO] I0802 07:14:51.936352  4519 net.cpp:399] lstm1_unit_1 -> c_1
2016-08-02 07:14:51.938 STDERR [INFO] I0802 07:14:51.936362  4519 net.cpp:399] lstm1_unit_1 -> h_1
2016-08-02 07:14:51.938 STDERR [INFO] I0802 07:14:51.936430  4519 net.cpp:141] Setting up lstm1_unit_1
2016-08-02 07:14:51.938 STDERR [INFO] I0802 07:14:51.936440  4519 net.cpp:148] Top shape: 1 1 1000 (1000)
2016-08-02 07:14:51.938 STDERR [INFO] I0802 07:14:51.936447  4519 net.cpp:148] Top shape: 1 1 1000 (1000)
2016-08-02 07:14:51.938 STDERR [INFO] I0802 07:14:51.936451  4519 net.cpp:156] Memory required for data: 86016
2016-08-02 07:14:51.938 STDERR [INFO] I0802 07:14:51.936457  4519 layer_factory.hpp:77] Creating layer lstm1_
2016-08-02 07:14:51.938 STDERR [INFO] I0802 07:14:51.936466  4519 net.cpp:91] Creating Layer lstm1_
2016-08-02 07:14:51.938 STDERR [INFO] I0802 07:14:51.936471  4519 net.cpp:425] lstm1_ <- c_1
2016-08-02 07:14:51.938 STDERR [INFO] I0802 07:14:51.936480  4519 net.cpp:399] lstm1_ -> c_T
2016-08-02 07:14:51.938 STDERR [INFO] I0802 07:14:51.936516  4519 net.cpp:141] Setting up lstm1_
2016-08-02 07:14:51.938 STDERR [INFO] I0802 07:14:51.936524  4519 net.cpp:148] Top shape: 1 1 1000 (1000)
2016-08-02 07:14:51.938 STDERR [INFO] I0802 07:14:51.936529  4519 net.cpp:156] Memory required for data: 90016
2016-08-02 07:14:51.939 STDERR [INFO] I0802 07:14:51.936534  4519 layer_factory.hpp:77] Creating layer lstm1_h_concat
2016-08-02 07:14:51.939 STDERR [INFO] I0802 07:14:51.936544  4519 net.cpp:91] Creating Layer lstm1_h_concat
2016-08-02 07:14:51.939 STDERR [INFO] I0802 07:14:51.936553  4519 net.cpp:425] lstm1_h_concat <- h_1
2016-08-02 07:14:51.939 STDERR [INFO] I0802 07:14:51.936560  4519 net.cpp:399] lstm1_h_concat -> h
2016-08-02 07:14:51.939 STDERR [INFO] I0802 07:14:51.936609  4519 net.cpp:141] Setting up lstm1_h_concat
2016-08-02 07:14:51.939 STDERR [INFO] I0802 07:14:51.936617  4519 net.cpp:148] Top shape: 1 1 1000 (1000)
2016-08-02 07:14:51.939 STDERR [INFO] I0802 07:14:51.936622  4519 net.cpp:156] Memory required for data: 94016
2016-08-02 07:14:51.939 STDERR [INFO] I0802 07:14:51.936627  4519 layer_factory.hpp:77] Creating layer h_pseudoloss
2016-08-02 07:14:51.939 STDERR [INFO] I0802 07:14:51.936646  4519 net.cpp:91] Creating Layer h_pseudoloss
2016-08-02 07:14:51.939 STDERR [INFO] I0802 07:14:51.936651  4519 net.cpp:425] h_pseudoloss <- h
…
2016-08-02 07:14:51.953 STDERR [INFO] }
2016-08-02 07:14:51.954 STDERR [INFO] I0802 07:14:51.937638  4519 layer_factory.hpp:77] Creating layer lstm2_
2016-08-02 07:14:51.954 STDERR [INFO] I0802 07:14:51.937650  4519 net.cpp:91] Creating Layer lstm2_
2016-08-02 07:14:51.954 STDERR [INFO] I0802 07:14:51.937657  4519 net.cpp:399] lstm2_ -> x
2016-08-02 07:14:51.954 STDERR [INFO] I0802 07:14:51.937669  4519 net.cpp:399] lstm2_ -> cont
2016-08-02 07:14:51.954 STDERR [INFO] I0802 07:14:51.937728  4519 net.cpp:141] Setting up lstm2_
2016-08-02 07:14:51.954 STDERR [INFO] I0802 07:14:51.937738  4519 net.cpp:148] Top shape: 1 1 1501 (1501)
2016-08-02 07:14:51.954 STDERR [INFO] I0802 07:14:51.937746  4519 net.cpp:148] Top shape: 1 1 (1)
2016-08-02 07:14:51.954 STDERR [INFO] I0802 07:14:51.937750  4519 net.cpp:156] Memory required for data: 6008
2016-08-02 07:14:51.954 STDERR [INFO] I0802 07:14:51.937755  4519 layer_factory.hpp:77] Creating layer lstm2_
2016-08-02 07:14:51.954 STDERR [INFO] I0802 07:14:51.937764  4519 net.cpp:91] Creating Layer lstm2_
2016-08-02 07:14:51.954 STDERR [INFO] I0802 07:14:51.937777  4519 net.cpp:399] lstm2_ -> c_0
2016-08-02 07:14:51.954 STDERR [INFO] I0802 07:14:51.937788  4519 net.cpp:399] lstm2_ -> h_0
2016-08-02 07:14:51.954 STDERR [INFO] I0802 07:14:51.937837  4519 net.cpp:141] Setting up lstm2_
2016-08-02 07:14:51.954 STDERR [INFO] I0802 07:14:51.937847  4519 net.cpp:148] Top shape: 1 1 1000 (1000)
2016-08-02 07:14:51.955 STDERR [INFO] I0802 07:14:51.937854  4519 net.cpp:148] Top shape: 1 1 1000 (1000)
2016-08-02 07:14:51.955 STDERR [INFO] I0802 07:14:51.937857  4519 net.cpp:156] Memory required for data: 14008
2016-08-02 07:14:51.955 STDERR [INFO] I0802 07:14:51.937862  4519 layer_factory.hpp:77] Creating layer lstm2_cont_slice
2016-08-02 07:14:51.955 STDERR [INFO] I0802 07:14:51.937875  4519 net.cpp:91] Creating Layer lstm2_cont_slice
2016-08-02 07:14:51.955 STDERR [INFO] I0802 07:14:51.937880  4519 net.cpp:425] lstm2_cont_slice <- cont
2016-08-02 07:14:51.955 STDERR [INFO] I0802 07:14:51.937888  4519 net.cpp:399] lstm2_cont_slice -> cont_1
2016-08-02 07:14:51.955 STDERR [INFO] I0802 07:14:51.937924  4519 net.cpp:141] Setting up lstm2_cont_slice
2016-08-02 07:14:51.955 STDERR [INFO] I0802 07:14:51.937934  4519 net.cpp:148] Top shape: 1 1 (1)
2016-08-02 07:14:51.955 STDERR [INFO] I0802 07:14:51.937939  4519 net.cpp:156] Memory required for data: 14012
2016-08-02 07:14:51.955 STDERR [INFO] I0802 07:14:51.937944  4519 layer_factory.hpp:77] Creating layer cont_1_lstm2_cont_slice_0_split
2016-08-02 07:14:51.955 STDERR [INFO] I0802 07:14:51.937954  4519 net.cpp:91] Creating Layer cont_1_lstm2_cont_slice_0_split
2016-08-02 07:14:51.955 STDERR [INFO] I0802 07:14:51.937959  4519 net.cpp:425] cont_1_lstm2_cont_slice_0_split <- cont_1
2016-08-02 07:14:51.955 STDERR [INFO] I0802 07:14:51.937968  4519 net.cpp:399] cont_1_lstm2_cont_slice_0_split -> cont_1_lstm2_cont_slice_0_split_0
2016-08-02 07:14:51.956 STDERR [INFO] I0802 07:14:51.937975  4519 net.cpp:399] cont_1_lstm2_cont_slice_0_split -> cont_1_lstm2_cont_slice_0_split_1
2016-08-02 07:14:51.956 STDERR [INFO] I0802 07:14:51.938032  4519 net.cpp:141] Setting up cont_1_lstm2_cont_slice_0_split
2016-08-02 07:14:51.956 STDERR [INFO] I0802 07:14:51.938042  4519 net.cpp:148] Top shape: 1 1 (1)
2016-08-02 07:14:51.956 STDERR [INFO] I0802 07:14:51.938048  4519 net.cpp:148] Top shape: 1 1 (1)
2016-08-02 07:14:51.956 STDERR [INFO] I0802 07:14:51.938052  4519 net.cpp:156] Memory required for data: 14020
2016-08-02 07:14:51.956 STDERR [INFO] I0802 07:14:51.938057  4519 layer_factory.hpp:77] Creating layer lstm2_x_transform
2016-08-02 07:14:51.956 STDERR [INFO] I0802 07:14:51.938071  4519 net.cpp:91] Creating Layer lstm2_x_transform
2016-08-02 07:14:51.956 STDERR [INFO] I0802 07:14:51.938076  4519 net.cpp:425] lstm2_x_transform <- x
…
2016-08-02 07:14:52.016 n.t.s.b.CVParticleBolt [INFO] [Timing] RequestID: 0 StreamID: home_peifeng_work_data_frame_320x240_jpg SequenceNr: 135 Entering scale: 1470136492016
2016-08-02 07:14:52.018 n.t.s.b.CVParticleBolt [INFO] [Timing] RequestID: 0 StreamID: home_peifeng_work_data_frame_320x240_jpg SequenceNr: 134 Leaving scale: 1470136492018 Size: 3530
2016-08-02 07:14:52.021 n.t.s.b.CVParticleBolt [INFO] [Timing] RequestID: 0 StreamID: home_peifeng_work_data_frame_320x240_jpg SequenceNr: 135 Leaving scale: 1470136492021 Size: 3530
2016-08-02 07:14:52.046 STDERR [INFO] I0802 07:14:52.045723  4519 net.cpp:141] Setting up lstm2_transform_1
2016-08-02 07:14:52.046 STDERR [INFO] I0802 07:14:52.045775  4519 net.cpp:148] Top shape: 1 1 4000 (4000)
2016-08-02 07:14:52.046 STDERR [INFO] I0802 07:14:52.045783  4519 net.cpp:156] Memory required for data: 66020
2016-08-02 07:14:52.046 STDERR [INFO] I0802 07:14:52.045805  4519 layer_factory.hpp:77] Creating layer lstm2_gate_input_1
2016-08-02 07:14:52.046 STDERR [INFO] I0802 07:14:52.045831  4519 net.cpp:91] Creating Layer lstm2_gate_input_1
2016-08-02 07:14:52.046 STDERR [INFO] I0802 07:14:52.045840  4519 net.cpp:425] lstm2_gate_input_1 <- W_hc_h_0
2016-08-02 07:14:52.046 STDERR [INFO] I0802 07:14:52.045850  4519 net.cpp:425] lstm2_gate_input_1 <- W_xc_x_1
2016-08-02 07:14:52.046 STDERR [INFO] I0802 07:14:52.045858  4519 net.cpp:399] lstm2_gate_input_1 -> gate_input_1
2016-08-02 07:14:52.046 STDERR [INFO] I0802 07:14:52.045912  4519 net.cpp:141] Setting up lstm2_gate_input_1
2016-08-02 07:14:52.046 STDERR [INFO] I0802 07:14:52.045923  4519 net.cpp:148] Top shape: 1 1 4000 (4000)
2016-08-02 07:14:52.046 STDERR [INFO] I0802 07:14:52.045928  4519 net.cpp:156] Memory required for data: 82020
2016-08-02 07:14:52.047 STDERR [INFO] I0802 07:14:52.045933  4519 layer_factory.hpp:77] Creating layer lstm2_unit_1
2016-08-02 07:14:52.047 STDERR [INFO] I0802 07:14:52.045945  4519 net.cpp:91] Creating Layer lstm2_unit_1
2016-08-02 07:14:52.047 STDERR [INFO] I0802 07:14:52.045951  4519 net.cpp:425] lstm2_unit_1 <- c_0
2016-08-02 07:14:52.047 STDERR [INFO] I0802 07:14:52.045958  4519 net.cpp:425] lstm2_unit_1 <- gate_input_1
2016-08-02 07:14:52.047 STDERR [INFO] I0802 07:14:52.045964  4519 net.cpp:425] lstm2_unit_1 <- cont_1_lstm2_cont_slice_0_split_1
2016-08-02 07:14:52.047 STDERR [INFO] I0802 07:14:52.045971  4519 net.cpp:399] lstm2_unit_1 -> c_1
2016-08-02 07:14:52.047 STDERR [INFO] I0802 07:14:52.045981  4519 net.cpp:399] lstm2_unit_1 -> h_1
2016-08-02 07:14:52.047 STDERR [INFO] I0802 07:14:52.046051  4519 net.cpp:141] Setting up lstm2_unit_1
2016-08-02 07:14:52.047 STDERR [INFO] I0802 07:14:52.046062  4519 net.cpp:148] Top shape: 1 1 1000 (1000)
2016-08-02 07:14:52.047 STDERR [INFO] I0802 07:14:52.046069  4519 net.cpp:148] Top shape: 1 1 1000 (1000)
2016-08-02 07:14:52.047 STDERR [INFO] I0802 07:14:52.046074  4519 net.cpp:156] Memory required for data: 90020
2016-08-02 07:14:52.048 STDERR [INFO] I0802 07:14:52.046079  4519 layer_factory.hpp:77] Creating layer lstm2_
2016-08-02 07:14:52.048 STDERR [INFO] I0802 07:14:52.046089  4519 net.cpp:91] Creating Layer lstm2_
2016-08-02 07:14:52.048 STDERR [INFO] I0802 07:14:52.046094  4519 net.cpp:425] lstm2_ <- c_1
2016-08-02 07:14:52.048 STDERR [INFO] I0802 07:14:52.046102  4519 net.cpp:399] lstm2_ -> c_T
2016-08-02 07:14:52.048 STDERR [INFO] I0802 07:14:52.046135  4519 net.cpp:141] Setting up lstm2_
2016-08-02 07:14:52.048 STDERR [INFO] I0802 07:14:52.046144  4519 net.cpp:148] Top shape: 1 1 1000 (1000)
2016-08-02 07:14:52.048 STDERR [INFO] I0802 07:14:52.046149  4519 net.cpp:156] Memory required for data: 94020
2016-08-02 07:14:52.048 STDERR [INFO] I0802 07:14:52.046154  4519 layer_factory.hpp:77] Creating layer lstm2_h_concat
2016-08-02 07:14:52.048 STDERR [INFO] I0802 07:14:52.046169  4519 net.cpp:91] Creating Layer lstm2_h_concat
2016-08-02 07:14:52.048 STDERR [INFO] I0802 07:14:52.046174  4519 net.cpp:425] lstm2_h_concat <- h_1
2016-08-02 07:14:52.048 STDERR [INFO] I0802 07:14:52.046181  4519 net.cpp:399] lstm2_h_concat -> h
2016-08-02 07:14:52.048 STDERR [INFO] I0802 07:14:52.046222  4519 net.cpp:141] Setting up lstm2_h_concat
2016-08-02 07:14:52.048 STDERR [INFO] I0802 07:14:52.046232  4519 net.cpp:148] Top shape: 1 1 1000 (1000)
2016-08-02 07:14:52.048 STDERR [INFO] I0802 07:14:52.046236  4519 net.cpp:156] Memory required for data: 98020
2016-08-02 07:14:52.049 STDERR [INFO] I0802 07:14:52.046242  4519 layer_factory.hpp:77] Creating layer h_pseudoloss
2016-08-02 07:14:52.049 STDERR [INFO] I0802 07:14:52.046252  4519 net.cpp:91] Creating Layer h_pseudoloss
2016-08-02 07:14:52.049 STDERR [INFO] I0802 07:14:52.046257  4519 net.cpp:425] h_pseudoloss <- h
…
