…
I0802 21:52:16.326350 27356 upgrade_proto.cpp:66] Attempting to upgrade input file specified using deprecated input fields: /tmp/cvld718969725009226438/s2vt.words_to_preds.prototxt
I0802 21:52:16.326555 27356 upgrade_proto.cpp:69] Successfully upgraded file specified using deprecated input fields.
W0802 21:52:16.326570 27356 upgrade_proto.cpp:71] Note that future Caffe releases will only support input layers and not input fields.
I0802 21:52:16.327039 27366 net.cpp:49] Initializing net from parameters: 
name: "CaffeNet"
state {
  phase: TEST
}
layer {
  name: "data"
  type: "Input"
  top: "data"
  input_param {
    shape {
      dim: 10
      dim: 3
      dim: 227
      dim: 227
    }
  }
}
layer {
  name: "conv1"
  type: "Convolution"
  bottom: "data"
  top: "conv1"
  convolution_param {
    num_output: 96
    kernel_size: 11
    stride: 4
  }
}
layer {
  name: "relu1"
  type: "ReLU"
  bottom: "conv1"
  top: "conv1"
}
layer {
  name: "pool1"
  type: "Pooling"
  bottom: "conv1"
  top: "pool1"
  pooling_param {
    pool: MAX
    kernel_size: 3
    stride: 2
  }
}
layer {
  name: "norm1"
  type: "LRN"
  bottom: "pool1"
  top: "norm1"
  lrn_param {
    local_size: 5
    alpha: 0.0001
    beta: 0.75
  }
}
layer {
  name: "conv2"
  type: "Convolution"
  bottom: "norm1"
  top: "conv2"
  convolution_param {
    num_output: 256
    pad: 2
    kernel_size: 5
    group: 2
  }
}
layer {
  name: "relu2"
  type: "ReLU"
  bottom: "conv2"
  top: "conv2"
}
layer {
  name: "pool2"
  type: "Pooling"
  bottom: "conv2"
  top: "pool2"
  pooling_param {
    pool: MAX
    kernel_size: 3
    stride: 2
  }
}
layer {
  name: "norm2"
  type: "LRN"
  bottom: "pool2"
  top: "norm2"
  lrn_param {
    local_size: 5
    alpha: 0.0001
    beta: 0.75
  }
}
layer {
  name: "conv3"
  type: "Convolution"
  bottom: "norm2"
  top: "conv3"
  convolution_param {
    num_output: 384
    pad: 1
    kernel_size: 3
  }
}
layer {
  name: "relu3"
  type: "ReLU"
  bottom: "conv3"
  top: "conv3"
}
layer {
  name: "conv4"
  type: "Convolution"
  bottom: "conv3"
  top: "conv4"
  convolution_param {
    num_output: 384
    pad: 1
    kernel_size: 3
    group: 2
  }
}
layer {
  name: "relu4"
  type: "ReLU"
  bottom: "conv4"
  top: "conv4"
}
layer {
  name: "conv5"
  type: "Convolution"
  bottom: "conv4"
  top: "conv5"
  convolution_param {
    num_output: 256
    pad: 1
    kernel_size: 3
    group: 2
  }
}
layer {
  name: "relu5"
  type: "ReLU"
  bottom: "conv5"
  top: "conv5"
}
layer {
  name: "pool5"
  type: "Pooling"
  bottom: "conv5"
  top: "pool5"
  pooling_param {
    pool: MAX
    kernel_size: 3
    stride: 2
  }
}
layer {
  name: "fc6"
  type: "InnerProduct"
  bottom: "pool5"
  top: "fc6"
  inner_product_param {
    num_output: 4096
  }
}
layer {
  name: "relu6"
  type: "ReLU"
  bottom: "fc6"
  top: "fc6"
}
layer {
  name: "drop6"
  type: "Dropout"
  bottom: "fc6"
  top: "fc6"
  dropout_param {
    dropout_ratio: 0.5
  }
}
layer {
  name: "fc7"
  type: "InnerProduct"
  bottom: "fc6"
  top: "fc7"
  inner_product_param {
    num_output: 4096
  }
}
layer {
  name: "relu7"
  type: "ReLU"
  bottom: "fc7"
  top: "fc7"
}
layer {
  name: "drop7"
  type: "Dropout"
  bottom: "fc7"
  top: "fc7"
  dropout_param {
    dropout_ratio: 0.5
  }
}
layer {
  name: "fc8"
  type: "InnerProduct"
  bottom: "fc7"
  top: "fc8"
  inner_product_param {
    num_output: 1000
  }
}
layer {
  name: "prob"
  type: "Softmax"
  bottom: "fc8"
  top: "prob"
}
I0802 21:52:16.327044 27356 net.cpp:49] Initializing net from parameters: 
name: "s2vt:features_to_lstm"
state {
  phase: TEST
}
layer {
  name: "input"
  type: "Input"
  top: "frames_fc7"
  top: "cont_sentence"
  top: "input_sentence"
  top: "stage_indicator"
  input_param {
    shape {
      dim: 1
      dim: 4096
    }
    shape {
      dim: 1
      dim: 1
    }
    shape {
      dim: 1
      dim: 1
    }
    shape {
      dim: 1
      dim: 1
    }
  }
}
layer {
  name: "embed_encoder"
  type: "InnerProduct"
  bottom: "frames_fc7"
  top: "embedded_in_frames"
  param {
    lr_mult: 1
    decay_mult: 1
  }
  param {
    lr_mult: 2
    decay_mult: 0
  }
  inner_product_param {
    num_output: 500
    weight_filler {
      type: "xavier"
    }
    bias_filler {
      type: "constant"
      value: 0.2
    }
  }
}
layer {
  name: "reshape_frames"
  type: "Reshape"
  bottom: "embedded_in_frames"
  top: "embedded_input_frames"
  reshape_param {
    shape {
      dim: 1
      dim: 1
      dim: 500
    }
  }
}
layer {
  name: "reshape_stage_indicator"
  type: "Reshape"
  bottom: "stage_indicator"
  top: "reshaped_stage_indicator"
  reshape_param {
    shape {
      dim: 1
      dim: 1
      dim: 1
    }
  }
}
layer {
  name: "embedding"
  type: "Embed"
  bottom: "input_sentence"
  top: "embedded_input_sentence"
  param {
    lr_mult: 1
  }
  embed_param {
    num_output: 500
    input_dim: 46168
    bias_term: false
    weight_filler {
      type: "uniform"
      min: -0.08
      max: 0.08
    }
  }
}
layer {
  name: "lstm1"
  type: "LSTM"
  bottom: "embedded_input_frames"
  bottom: "cont_sentence"
  top: "lstm1"
  recurrent_param {
    num_output: 1000
    weight_filler {
      type: "uniform"
      min: -0.08
      max: 0.08
    }
    bias_filler {
      type: "constant"
      value: 0
    }
  }
}
layer {
  name: "concat"
  type: "Concat"
  bottom: "lstm1"
  bottom: "embedded_input_sentence"
  bottom: "reshaped_stage_indicator"
  top: "lstm1_video_sequence"
  concat_param {
    concat_dim: 2
  }
}
layer {
  name: "lstm2"
  type: "LSTM"
  bottom: "lstm1_video_sequence"
  bottom: "cont_sentence"
  top: "lstm2"
  recurrent_param {
    num_output: 1000
    weight_filler {
      type: "uniform"
      min: -0.08
      max: 0.08
    }
    bias_filler {
      type: "constant"
      value: 0
    }
  }
}
layer {
  name: "predict"
  type: "InnerProduct"
  bottom: "lstm2"
  top: "predict"
  param {
    lr_mult: 1
    decay_mult: 1
  }
  param {
    lr_mult: 2
    decay_mult: 0
  }
  inner_product_param {
    num_output: 46168
    weight_filler {
      type: "uniform"
      min: -0.08
      max: 0.08
    }
    bias_filler {
      type: "constant"
      value: 0
    }
    axis: 2
  }
}
layer {
  name: "probs"
  type: "Softmax"
  bottom: "predict"
  top: "probs"
  softmax_param {
    axis: 2
  }
}
I0802 21:52:16.327271 27366 layer_factory.hpp:77] Creating layer data
I0802 21:52:16.327280 27356 layer_factory.hpp:77] Creating layer input
I0802 21:52:16.327318 27356 net.cpp:91] Creating Layer input
I0802 21:52:16.327318 27366 net.cpp:91] Creating Layer data
I0802 21:52:16.327347 27356 net.cpp:399] input -> frames_fc7
I0802 21:52:16.327349 27366 net.cpp:399] data -> data
I0802 21:52:16.327414 27356 net.cpp:399] input -> cont_sentence
I0802 21:52:16.327438 27356 net.cpp:399] input -> input_sentence
I0802 21:52:16.327456 27356 net.cpp:399] input -> stage_indicator
I0802 21:52:16.876796 27366 net.cpp:141] Setting up data
I0802 21:52:16.876883 27366 net.cpp:148] Top shape: 10 3 227 227 (1545870)
I0802 21:52:16.876891 27366 net.cpp:156] Memory required for data: 6183480
I0802 21:52:16.876898 27356 net.cpp:141] Setting up input
I0802 21:52:16.876919 27366 layer_factory.hpp:77] Creating layer conv1
I0802 21:52:16.876920 27356 net.cpp:148] Top shape: 1 4096 (4096)
I0802 21:52:16.876929 27356 net.cpp:148] Top shape: 1 1 (1)
I0802 21:52:16.876935 27356 net.cpp:148] Top shape: 1 1 (1)
I0802 21:52:16.876941 27356 net.cpp:148] Top shape: 1 1 (1)
I0802 21:52:16.876946 27356 net.cpp:156] Memory required for data: 16396
I0802 21:52:16.876952 27356 layer_factory.hpp:77] Creating layer cont_sentence_input_1_split
I0802 21:52:16.876957 27366 net.cpp:91] Creating Layer conv1
I0802 21:52:16.876968 27366 net.cpp:425] conv1 <- data
I0802 21:52:16.876979 27356 net.cpp:91] Creating Layer cont_sentence_input_1_split
I0802 21:52:16.876984 27366 net.cpp:399] conv1 -> conv1
I0802 21:52:16.876986 27356 net.cpp:425] cont_sentence_input_1_split <- cont_sentence
I0802 21:52:16.877010 27356 net.cpp:399] cont_sentence_input_1_split -> cont_sentence_input_1_split_0
I0802 21:52:16.877023 27356 net.cpp:399] cont_sentence_input_1_split -> cont_sentence_input_1_split_1
I0802 21:52:16.877110 27356 net.cpp:141] Setting up cont_sentence_input_1_split
I0802 21:52:16.877123 27356 net.cpp:148] Top shape: 1 1 (1)
I0802 21:52:16.877130 27356 net.cpp:148] Top shape: 1 1 (1)
I0802 21:52:16.877135 27356 net.cpp:156] Memory required for data: 16404
I0802 21:52:16.877140 27356 layer_factory.hpp:77] Creating layer embed_encoder
I0802 21:52:16.877166 27356 net.cpp:91] Creating Layer embed_encoder
I0802 21:52:16.877171 27356 net.cpp:425] embed_encoder <- frames_fc7
I0802 21:52:16.877179 27356 net.cpp:399] embed_encoder -> embedded_in_frames
I0802 21:52:16.906412 27356 net.cpp:141] Setting up embed_encoder
I0802 21:52:16.906468 27356 net.cpp:148] Top shape: 1 500 (500)
I0802 21:52:16.906476 27356 net.cpp:156] Memory required for data: 18404
I0802 21:52:16.906508 27356 layer_factory.hpp:77] Creating layer reshape_frames
I0802 21:52:16.906543 27356 net.cpp:91] Creating Layer reshape_frames
I0802 21:52:16.906553 27356 net.cpp:425] reshape_frames <- embedded_in_frames
I0802 21:52:16.906564 27356 net.cpp:399] reshape_frames -> embedded_input_frames
I0802 21:52:16.911814 27356 net.cpp:141] Setting up reshape_frames
I0802 21:52:16.911837 27356 net.cpp:148] Top shape: 1 1 500 (500)
I0802 21:52:16.911842 27356 net.cpp:156] Memory required for data: 20404
I0802 21:52:16.911849 27356 layer_factory.hpp:77] Creating layer reshape_stage_indicator
I0802 21:52:16.911870 27356 net.cpp:91] Creating Layer reshape_stage_indicator
I0802 21:52:16.911876 27356 net.cpp:425] reshape_stage_indicator <- stage_indicator
I0802 21:52:16.911886 27356 net.cpp:399] reshape_stage_indicator -> reshaped_stage_indicator
I0802 21:52:16.911933 27356 net.cpp:141] Setting up reshape_stage_indicator
I0802 21:52:16.911944 27356 net.cpp:148] Top shape: 1 1 1 (1)
I0802 21:52:16.911949 27356 net.cpp:156] Memory required for data: 20408
I0802 21:52:16.911955 27356 layer_factory.hpp:77] Creating layer embedding
I0802 21:52:16.911972 27356 net.cpp:91] Creating Layer embedding
I0802 21:52:16.911978 27356 net.cpp:425] embedding <- input_sentence
I0802 21:52:16.911988 27356 net.cpp:399] embedding -> embedded_input_sentence
I0802 21:52:17.157829 27356 net.cpp:141] Setting up embedding
I0802 21:52:17.157879 27356 net.cpp:148] Top shape: 1 1 500 (500)
I0802 21:52:17.157886 27356 net.cpp:156] Memory required for data: 22408
I0802 21:52:17.157905 27356 layer_factory.hpp:77] Creating layer lstm1
I0802 21:52:17.157930 27356 net.cpp:91] Creating Layer lstm1
I0802 21:52:17.157938 27356 net.cpp:425] lstm1 <- embedded_input_frames
I0802 21:52:17.157948 27356 net.cpp:425] lstm1 <- cont_sentence_input_1_split_0
I0802 21:52:17.157960 27356 net.cpp:399] lstm1 -> lstm1
I0802 21:52:17.158000 27356 recurrent_layer.cpp:20] Initializing recurrent layer: assuming input batch contains 1 timesteps of 1 independent streams.
I0802 21:52:17.158977 27356 net.cpp:49] Initializing net from parameters: 
layer {
  name: "lstm1_"
  type: "Input"
  top: "x"
  top: "cont"
  input_param {
    shape {
      dim: 1
      dim: 1
      dim: 500
    }
    shape {
      dim: 1
      dim: 1
    }
  }
}
layer {
  name: "lstm1_"
  type: "Input"
  top: "c_0"
  top: "h_0"
  input_param {
    shape {
      dim: 1
      dim: 1
      dim: 1000
    }
    shape {
      dim: 1
      dim: 1
      dim: 1000
    }
  }
}
layer {
  name: "lstm1_cont_slice"
  type: "Slice"
  bottom: "cont"
  top: "cont_1"
  slice_param {
    axis: 0
  }
}
layer {
  name: "lstm1_x_transform"
  type: "InnerProduct"
  bottom: "x"
  top: "W_xc_x"
  param {
    name: "W_xc"
  }
  param {
    name: "b_c"
  }
  propagate_down: true
  inner_product_param {
    num_output: 4000
    bias_term: true
    weight_filler {
      type: "uniform"
      min: -0.08
      max: 0.08
    }
    bias_filler {
      type: "constant"
      value: 0
    }
    axis: 2
  }
}
layer {
  name: "lstm1_W_xc_x_slice"
  type: "Slice"
  bottom: "W_xc_x"
  top: "W_xc_x_1"
  slice_param {
    axis: 0
  }
}
layer {
  name: "lstm1_h_conted_0"
  type: "Scale"
  bottom: "h_0"
  bottom: "cont_1"
  top: "h_conted_0"
  scale_param {
    axis: 0
  }
}
layer {
  name: "lstm1_transform_1"
  type: "InnerProduct"
  bottom: "h_conted_0"
  top: "W_hc_h_0"
  param {
    name: "W_hc"
  }
  inner_product_param {
    num_output: 4000
    bias_term: false
    weight_filler {
      type: "uniform"
      min: -0.08
      max: 0.08
    }
    axis: 2
  }
}
layer {
  name: "lstm1_gate_input_1"
  type: "Eltwise"
  bottom: "W_hc_h_0"
  bottom: "W_xc_x_1"
  top: "gate_input_1"
  eltwise_param {
    operation: SUM
  }
}
layer {
  name: "lstm1_unit_1"
  type: "LSTMUnit"
  bottom: "c_0"
  bottom: "gate_input_1"
  bottom: "cont_1"
  top: "c_1"
  top: "h_1"
}
layer {
  name: "lstm1_"
  type: "Split"
  bottom: "c_1"
  top: "c_T"
}
layer {
  name: "lstm1_h_concat"
  type: "Concat"
  bottom: "h_1"
  top: "h"
  concat_param {
    axis: 0
  }
}
layer {
  name: "h_pseudoloss"
  type: "Reduction"
  bottom: "h"
  top: "h_pseudoloss"
  loss_weight: 1
}
I0802 21:52:17.159085 27356 layer_factory.hpp:77] Creating layer lstm1_
I0802 21:52:17.159098 27356 net.cpp:91] Creating Layer lstm1_
I0802 21:52:17.159106 27356 net.cpp:399] lstm1_ -> x
I0802 21:52:17.159118 27356 net.cpp:399] lstm1_ -> cont
I0802 21:52:17.159497 27356 net.cpp:141] Setting up lstm1_
I0802 21:52:17.159488 27366 net.cpp:141] Setting up conv1
I0802 21:52:17.159512 27356 net.cpp:148] Top shape: 1 1 500 (500)
I0802 21:52:17.159536 27366 net.cpp:148] Top shape: 10 96 55 55 (2904000)
I0802 21:52:17.159536 27356 net.cpp:148] Top shape: 1 1 (1)
I0802 21:52:17.159546 27366 net.cpp:156] Memory required for data: 17799480
I0802 21:52:17.159550 27356 net.cpp:156] Memory required for data: 2004
I0802 21:52:17.159557 27356 layer_factory.hpp:77] Creating layer lstm1_
I0802 21:52:17.159574 27366 layer_factory.hpp:77] Creating layer relu1
I0802 21:52:17.159574 27356 net.cpp:91] Creating Layer lstm1_
I0802 21:52:17.159593 27356 net.cpp:399] lstm1_ -> c_0
I0802 21:52:17.159596 27366 net.cpp:91] Creating Layer relu1
I0802 21:52:17.159605 27356 net.cpp:399] lstm1_ -> h_0
I0802 21:52:17.159607 27366 net.cpp:425] relu1 <- conv1
I0802 21:52:17.159617 27366 net.cpp:386] relu1 -> conv1 (in-place)
I0802 21:52:17.159664 27356 net.cpp:141] Setting up lstm1_
I0802 21:52:17.159678 27356 net.cpp:148] Top shape: 1 1 1000 (1000)
I0802 21:52:17.159685 27356 net.cpp:148] Top shape: 1 1 1000 (1000)
I0802 21:52:17.159689 27356 net.cpp:156] Memory required for data: 10004
I0802 21:52:17.159695 27356 layer_factory.hpp:77] Creating layer lstm1_cont_slice
I0802 21:52:17.159704 27356 net.cpp:91] Creating Layer lstm1_cont_slice
I0802 21:52:17.159709 27356 net.cpp:425] lstm1_cont_slice <- cont
I0802 21:52:17.159718 27356 net.cpp:399] lstm1_cont_slice -> cont_1
I0802 21:52:17.160033 27356 net.cpp:141] Setting up lstm1_cont_slice
I0802 21:52:17.160045 27356 net.cpp:148] Top shape: 1 1 (1)
I0802 21:52:17.160050 27356 net.cpp:156] Memory required for data: 10008
I0802 21:52:17.160056 27356 layer_factory.hpp:77] Creating layer cont_1_lstm1_cont_slice_0_split
I0802 21:52:17.160065 27356 net.cpp:91] Creating Layer cont_1_lstm1_cont_slice_0_split
I0802 21:52:17.160070 27356 net.cpp:425] cont_1_lstm1_cont_slice_0_split <- cont_1
I0802 21:52:17.160080 27356 net.cpp:399] cont_1_lstm1_cont_slice_0_split -> cont_1_lstm1_cont_slice_0_split_0
I0802 21:52:17.160089 27356 net.cpp:399] cont_1_lstm1_cont_slice_0_split -> cont_1_lstm1_cont_slice_0_split_1
I0802 21:52:17.160167 27366 net.cpp:141] Setting up relu1
I0802 21:52:17.160184 27366 net.cpp:148] Top shape: 10 96 55 55 (2904000)
I0802 21:52:17.160190 27366 net.cpp:156] Memory required for data: 29415480
I0802 21:52:17.160197 27366 layer_factory.hpp:77] Creating layer pool1
I0802 21:52:17.160210 27366 net.cpp:91] Creating Layer pool1
I0802 21:52:17.160213 27356 net.cpp:141] Setting up cont_1_lstm1_cont_slice_0_split
I0802 21:52:17.160217 27366 net.cpp:425] pool1 <- conv1
I0802 21:52:17.160229 27356 net.cpp:148] Top shape: 1 1 (1)
I0802 21:52:17.160238 27356 net.cpp:148] Top shape: 1 1 (1)
I0802 21:52:17.160241 27356 net.cpp:156] Memory required for data: 10016
I0802 21:52:17.160244 27366 net.cpp:399] pool1 -> pool1
I0802 21:52:17.160248 27356 layer_factory.hpp:77] Creating layer lstm1_x_transform
I0802 21:52:17.160260 27356 net.cpp:91] Creating Layer lstm1_x_transform
I0802 21:52:17.160265 27356 net.cpp:425] lstm1_x_transform <- x
I0802 21:52:17.160279 27356 net.cpp:399] lstm1_x_transform -> W_xc_x
I0802 21:52:17.160414 27366 net.cpp:141] Setting up pool1
I0802 21:52:17.160429 27366 net.cpp:148] Top shape: 10 96 27 27 (699840)
I0802 21:52:17.160434 27366 net.cpp:156] Memory required for data: 32214840
I0802 21:52:17.160439 27366 layer_factory.hpp:77] Creating layer norm1
I0802 21:52:17.160486 27366 net.cpp:91] Creating Layer norm1
I0802 21:52:17.160492 27366 net.cpp:425] norm1 <- pool1
I0802 21:52:17.160501 27366 net.cpp:399] norm1 -> norm1
I0802 21:52:17.165040 27366 net.cpp:141] Setting up norm1
I0802 21:52:17.165060 27366 net.cpp:148] Top shape: 10 96 27 27 (699840)
I0802 21:52:17.165066 27366 net.cpp:156] Memory required for data: 35014200
I0802 21:52:17.165072 27366 layer_factory.hpp:77] Creating layer conv2
I0802 21:52:17.165091 27366 net.cpp:91] Creating Layer conv2
I0802 21:52:17.165098 27366 net.cpp:425] conv2 <- norm1
I0802 21:52:17.165107 27366 net.cpp:399] conv2 -> conv2
I0802 21:52:17.168716 27366 net.cpp:141] Setting up conv2
I0802 21:52:17.168735 27366 net.cpp:148] Top shape: 10 256 27 27 (1866240)
I0802 21:52:17.168740 27366 net.cpp:156] Memory required for data: 42479160
I0802 21:52:17.168759 27366 layer_factory.hpp:77] Creating layer relu2
I0802 21:52:17.168769 27366 net.cpp:91] Creating Layer relu2
I0802 21:52:17.168776 27366 net.cpp:425] relu2 <- conv2
I0802 21:52:17.168787 27366 net.cpp:386] relu2 -> conv2 (in-place)
I0802 21:52:17.169230 27366 net.cpp:141] Setting up relu2
I0802 21:52:17.169245 27366 net.cpp:148] Top shape: 10 256 27 27 (1866240)
I0802 21:52:17.169250 27366 net.cpp:156] Memory required for data: 49944120
I0802 21:52:17.169256 27366 layer_factory.hpp:77] Creating layer pool2
I0802 21:52:17.169266 27366 net.cpp:91] Creating Layer pool2
I0802 21:52:17.169272 27366 net.cpp:425] pool2 <- conv2
I0802 21:52:17.169284 27366 net.cpp:399] pool2 -> pool2
I0802 21:52:17.169349 27366 net.cpp:141] Setting up pool2
I0802 21:52:17.169363 27366 net.cpp:148] Top shape: 10 256 13 13 (432640)
I0802 21:52:17.169369 27366 net.cpp:156] Memory required for data: 51674680
I0802 21:52:17.169378 27366 layer_factory.hpp:77] Creating layer norm2
I0802 21:52:17.169389 27366 net.cpp:91] Creating Layer norm2
I0802 21:52:17.169394 27366 net.cpp:425] norm2 <- pool2
I0802 21:52:17.169406 27366 net.cpp:399] norm2 -> norm2
I0802 21:52:17.169692 27366 net.cpp:141] Setting up norm2
I0802 21:52:17.169705 27366 net.cpp:148] Top shape: 10 256 13 13 (432640)
I0802 21:52:17.169710 27366 net.cpp:156] Memory required for data: 53405240
I0802 21:52:17.169716 27366 layer_factory.hpp:77] Creating layer conv3
I0802 21:52:17.169731 27366 net.cpp:91] Creating Layer conv3
I0802 21:52:17.169737 27366 net.cpp:425] conv3 <- norm2
I0802 21:52:17.169746 27366 net.cpp:399] conv3 -> conv3
I0802 21:52:17.174865 27366 net.cpp:141] Setting up conv3
I0802 21:52:17.174890 27366 net.cpp:148] Top shape: 10 384 13 13 (648960)
I0802 21:52:17.174896 27366 net.cpp:156] Memory required for data: 56001080
I0802 21:52:17.174912 27366 layer_factory.hpp:77] Creating layer relu3
I0802 21:52:17.174924 27366 net.cpp:91] Creating Layer relu3
I0802 21:52:17.174931 27366 net.cpp:425] relu3 <- conv3
I0802 21:52:17.174939 27366 net.cpp:386] relu3 -> conv3 (in-place)
I0802 21:52:17.175371 27366 net.cpp:141] Setting up relu3
I0802 21:52:17.175389 27366 net.cpp:148] Top shape: 10 384 13 13 (648960)
I0802 21:52:17.175393 27366 net.cpp:156] Memory required for data: 58596920
I0802 21:52:17.175400 27366 layer_factory.hpp:77] Creating layer conv4
I0802 21:52:17.175416 27366 net.cpp:91] Creating Layer conv4
I0802 21:52:17.175422 27366 net.cpp:425] conv4 <- conv3
I0802 21:52:17.175434 27366 net.cpp:399] conv4 -> conv4
I0802 21:52:17.179658 27366 net.cpp:141] Setting up conv4
I0802 21:52:17.179679 27366 net.cpp:148] Top shape: 10 384 13 13 (648960)
I0802 21:52:17.179687 27366 net.cpp:156] Memory required for data: 61192760
I0802 21:52:17.179697 27366 layer_factory.hpp:77] Creating layer relu4
I0802 21:52:17.179705 27366 net.cpp:91] Creating Layer relu4
I0802 21:52:17.179711 27366 net.cpp:425] relu4 <- conv4
I0802 21:52:17.179719 27366 net.cpp:386] relu4 -> conv4 (in-place)
I0802 21:52:17.180155 27366 net.cpp:141] Setting up relu4
I0802 21:52:17.180172 27366 net.cpp:148] Top shape: 10 384 13 13 (648960)
I0802 21:52:17.180178 27366 net.cpp:156] Memory required for data: 63788600
I0802 21:52:17.180186 27366 layer_factory.hpp:77] Creating layer conv5
I0802 21:52:17.180198 27366 net.cpp:91] Creating Layer conv5
I0802 21:52:17.180204 27366 net.cpp:425] conv5 <- conv4
I0802 21:52:17.180217 27366 net.cpp:399] conv5 -> conv5
I0802 21:52:17.181692 27356 net.cpp:141] Setting up lstm1_x_transform
I0802 21:52:17.181710 27356 net.cpp:148] Top shape: 1 1 4000 (4000)
I0802 21:52:17.181715 27356 net.cpp:156] Memory required for data: 26016
I0802 21:52:17.181728 27356 layer_factory.hpp:77] Creating layer lstm1_W_xc_x_slice
I0802 21:52:17.181740 27356 net.cpp:91] Creating Layer lstm1_W_xc_x_slice
I0802 21:52:17.181746 27356 net.cpp:425] lstm1_W_xc_x_slice <- W_xc_x
I0802 21:52:17.181754 27356 net.cpp:399] lstm1_W_xc_x_slice -> W_xc_x_1
I0802 21:52:17.181802 27356 net.cpp:141] Setting up lstm1_W_xc_x_slice
I0802 21:52:17.181814 27356 net.cpp:148] Top shape: 1 1 4000 (4000)
I0802 21:52:17.181819 27356 net.cpp:156] Memory required for data: 42016
I0802 21:52:17.181824 27356 layer_factory.hpp:77] Creating layer lstm1_h_conted_0
I0802 21:52:17.181835 27356 net.cpp:91] Creating Layer lstm1_h_conted_0
I0802 21:52:17.181841 27356 net.cpp:425] lstm1_h_conted_0 <- h_0
I0802 21:52:17.181849 27356 net.cpp:425] lstm1_h_conted_0 <- cont_1_lstm1_cont_slice_0_split_0
I0802 21:52:17.181855 27356 net.cpp:399] lstm1_h_conted_0 -> h_conted_0
I0802 21:52:17.182099 27356 net.cpp:141] Setting up lstm1_h_conted_0
I0802 21:52:17.182112 27356 net.cpp:148] Top shape: 1 1 1000 (1000)
I0802 21:52:17.182117 27356 net.cpp:156] Memory required for data: 46016
I0802 21:52:17.182122 27356 layer_factory.hpp:77] Creating layer lstm1_transform_1
I0802 21:52:17.182135 27356 net.cpp:91] Creating Layer lstm1_transform_1
I0802 21:52:17.182142 27356 net.cpp:425] lstm1_transform_1 <- h_conted_0
I0802 21:52:17.182154 27356 net.cpp:399] lstm1_transform_1 -> W_hc_h_0
I0802 21:52:17.192260 27366 net.cpp:141] Setting up conv5
I0802 21:52:17.192311 27366 net.cpp:148] Top shape: 10 256 13 13 (432640)
I0802 21:52:17.192317 27366 net.cpp:156] Memory required for data: 65519160
I0802 21:52:17.192345 27366 layer_factory.hpp:77] Creating layer relu5
I0802 21:52:17.192363 27366 net.cpp:91] Creating Layer relu5
I0802 21:52:17.192370 27366 net.cpp:425] relu5 <- conv5
I0802 21:52:17.192380 27366 net.cpp:386] relu5 -> conv5 (in-place)
I0802 21:52:17.192831 27366 net.cpp:141] Setting up relu5
I0802 21:52:17.192844 27366 net.cpp:148] Top shape: 10 256 13 13 (432640)
I0802 21:52:17.192850 27366 net.cpp:156] Memory required for data: 67249720
I0802 21:52:17.192857 27366 layer_factory.hpp:77] Creating layer pool5
I0802 21:52:17.192878 27366 net.cpp:91] Creating Layer pool5
I0802 21:52:17.192884 27366 net.cpp:425] pool5 <- conv5
I0802 21:52:17.192895 27366 net.cpp:399] pool5 -> pool5
I0802 21:52:17.192967 27366 net.cpp:141] Setting up pool5
I0802 21:52:17.192978 27366 net.cpp:148] Top shape: 10 256 6 6 (92160)
I0802 21:52:17.192983 27366 net.cpp:156] Memory required for data: 67618360
I0802 21:52:17.192989 27366 layer_factory.hpp:77] Creating layer fc6
I0802 21:52:17.193006 27366 net.cpp:91] Creating Layer fc6
I0802 21:52:17.193011 27366 net.cpp:425] fc6 <- pool5
I0802 21:52:17.193019 27366 net.cpp:399] fc6 -> fc6
I0802 21:52:17.264076 27356 net.cpp:141] Setting up lstm1_transform_1
I0802 21:52:17.264150 27356 net.cpp:148] Top shape: 1 1 4000 (4000)
I0802 21:52:17.264158 27356 net.cpp:156] Memory required for data: 62016
I0802 21:52:17.264194 27356 layer_factory.hpp:77] Creating layer lstm1_gate_input_1
I0802 21:52:17.264225 27356 net.cpp:91] Creating Layer lstm1_gate_input_1
I0802 21:52:17.264232 27356 net.cpp:425] lstm1_gate_input_1 <- W_hc_h_0
I0802 21:52:17.264241 27356 net.cpp:425] lstm1_gate_input_1 <- W_xc_x_1
I0802 21:52:17.264250 27356 net.cpp:399] lstm1_gate_input_1 -> gate_input_1
I0802 21:52:17.264341 27356 net.cpp:141] Setting up lstm1_gate_input_1
I0802 21:52:17.264353 27356 net.cpp:148] Top shape: 1 1 4000 (4000)
I0802 21:52:17.264358 27356 net.cpp:156] Memory required for data: 78016
I0802 21:52:17.264364 27356 layer_factory.hpp:77] Creating layer lstm1_unit_1
I0802 21:52:17.264379 27356 net.cpp:91] Creating Layer lstm1_unit_1
I0802 21:52:17.264384 27356 net.cpp:425] lstm1_unit_1 <- c_0
I0802 21:52:17.264390 27356 net.cpp:425] lstm1_unit_1 <- gate_input_1
I0802 21:52:17.264396 27356 net.cpp:425] lstm1_unit_1 <- cont_1_lstm1_cont_slice_0_split_1
I0802 21:52:17.264405 27356 net.cpp:399] lstm1_unit_1 -> c_1
I0802 21:52:17.264413 27356 net.cpp:399] lstm1_unit_1 -> h_1
I0802 21:52:17.264492 27356 net.cpp:141] Setting up lstm1_unit_1
I0802 21:52:17.264503 27356 net.cpp:148] Top shape: 1 1 1000 (1000)
I0802 21:52:17.264509 27356 net.cpp:148] Top shape: 1 1 1000 (1000)
I0802 21:52:17.264514 27356 net.cpp:156] Memory required for data: 86016
I0802 21:52:17.264519 27356 layer_factory.hpp:77] Creating layer lstm1_
I0802 21:52:17.264530 27356 net.cpp:91] Creating Layer lstm1_
I0802 21:52:17.264536 27356 net.cpp:425] lstm1_ <- c_1
I0802 21:52:17.264545 27356 net.cpp:399] lstm1_ -> c_T
I0802 21:52:17.264580 27356 net.cpp:141] Setting up lstm1_
I0802 21:52:17.264590 27356 net.cpp:148] Top shape: 1 1 1000 (1000)
I0802 21:52:17.264595 27356 net.cpp:156] Memory required for data: 90016
I0802 21:52:17.264600 27356 layer_factory.hpp:77] Creating layer lstm1_h_concat
I0802 21:52:17.264628 27356 net.cpp:91] Creating Layer lstm1_h_concat
I0802 21:52:17.264634 27356 net.cpp:425] lstm1_h_concat <- h_1
I0802 21:52:17.264643 27356 net.cpp:399] lstm1_h_concat -> h
I0802 21:52:17.264685 27356 net.cpp:141] Setting up lstm1_h_concat
I0802 21:52:17.264695 27356 net.cpp:148] Top shape: 1 1 1000 (1000)
I0802 21:52:17.264700 27356 net.cpp:156] Memory required for data: 94016
I0802 21:52:17.264705 27356 layer_factory.hpp:77] Creating layer h_pseudoloss
I0802 21:52:17.264722 27356 net.cpp:91] Creating Layer h_pseudoloss
I0802 21:52:17.264727 27356 net.cpp:425] h_pseudoloss <- h
I0802 21:52:17.264739 27356 net.cpp:399] h_pseudoloss -> h_pseudoloss
I0802 21:52:17.264860 27356 net.cpp:141] Setting up h_pseudoloss
…
I0802 21:52:17.265022 27356 net.cpp:219] lstm1_ does not need backward computation.
I0802 21:52:17.265027 27356 net.cpp:261] This network produces output c_T
I0802 21:52:17.265031 27356 net.cpp:261] This network produces output h_pseudoloss
I0802 21:52:17.265055 27356 net.cpp:274] Network initialization done.
I0802 21:52:17.265131 27356 recurrent_layer.cpp:150] Adding parameter 0: W_xc
I0802 21:52:17.265138 27356 recurrent_layer.cpp:150] Adding parameter 1: b_c
I0802 21:52:17.265143 27356 recurrent_layer.cpp:150] Adding parameter 2: W_hc
I0802 21:52:17.265276 27356 net.cpp:141] Setting up lstm1
I0802 21:52:17.265293 27356 net.cpp:148] Top shape: 1 1 1000 (1000)
I0802 21:52:17.265298 27356 net.cpp:156] Memory required for data: 26408
I0802 21:52:17.265316 27356 layer_factory.hpp:77] Creating layer concat
I0802 21:52:17.265327 27356 net.cpp:91] Creating Layer concat
I0802 21:52:17.265334 27356 net.cpp:425] concat <- lstm1
I0802 21:52:17.265342 27356 net.cpp:425] concat <- embedded_input_sentence
I0802 21:52:17.265348 27356 net.cpp:425] concat <- reshaped_stage_indicator
I0802 21:52:17.265357 27356 net.cpp:399] concat -> lstm1_video_sequence
I0802 21:52:17.265394 27356 net.cpp:141] Setting up concat
I0802 21:52:17.265404 27356 net.cpp:148] Top shape: 1 1 1501 (1501)
I0802 21:52:17.265409 27356 net.cpp:156] Memory required for data: 32412
I0802 21:52:17.265414 27356 layer_factory.hpp:77] Creating layer lstm2
I0802 21:52:17.265432 27356 net.cpp:91] Creating Layer lstm2
I0802 21:52:17.265439 27356 net.cpp:425] lstm2 <- lstm1_video_sequence
I0802 21:52:17.265445 27356 net.cpp:425] lstm2 <- cont_sentence_input_1_split_1
I0802 21:52:17.265453 27356 net.cpp:399] lstm2 -> lstm2
I0802 21:52:17.265465 27356 recurrent_layer.cpp:20] Initializing recurrent layer: assuming input batch contains 1 timesteps of 1 independent streams.
I0802 21:52:17.265758 27356 net.cpp:49] Initializing net from parameters: 
layer {
  name: "lstm2_"
  type: "Input"
  top: "x"
  top: "cont"
  input_param {
    shape {
      dim: 1
      dim: 1
      dim: 1501
    }
    shape {
      dim: 1
      dim: 1
    }
  }
}
layer {
  name: "lstm2_"
  type: "Input"
  top: "c_0"
  top: "h_0"
  input_param {
    shape {
      dim: 1
      dim: 1
      dim: 1000
    }
    shape {
      dim: 1
      dim: 1
      dim: 1000
    }
  }
}
layer {
  name: "lstm2_cont_slice"
  type: "Slice"
  bottom: "cont"
  top: "cont_1"
  slice_param {
    axis: 0
  }
}
layer {
  name: "lstm2_x_transform"
  type: "InnerProduct"
  bottom: "x"
  top: "W_xc_x"
  param {
    name: "W_xc"
  }
  param {
    name: "b_c"
  }
  propagate_down: true
  inner_product_param {
    num_output: 4000
    bias_term: true
    weight_filler {
      type: "uniform"
      min: -0.08
      max: 0.08
    }
    bias_filler {
      type: "constant"
      value: 0
    }
    axis: 2
  }
}
layer {
  name: "lstm2_W_xc_x_slice"
  type: "Slice"
  bottom: "W_xc_x"
  top: "W_xc_x_1"
  slice_param {
    axis: 0
  }
}
layer {
  name: "lstm2_h_conted_0"
  type: "Scale"
  bottom: "h_0"
  bottom: "cont_1"
  top: "h_conted_0"
  scale_param {
    axis: 0
  }
}
layer {
  name: "lstm2_transform_1"
  type: "InnerProduct"
  bottom: "h_conted_0"
  top: "W_hc_h_0"
  param {
    name: "W_hc"
  }
  inner_product_param {
    num_output: 4000
    bias_term: false
    weight_filler {
      type: "uniform"
      min: -0.08
      max: 0.08
    }
    axis: 2
  }
}
layer {
  name: "lstm2_gate_input_1"
  type: "Eltwise"
  bottom: "W_hc_h_0"
  bottom: "W_xc_x_1"
  top: "gate_input_1"
  eltwise_param {
    operation: SUM
  }
}
layer {
  name: "lstm2_unit_1"
  type: "LSTMUnit"
  bottom: "c_0"
  bottom: "gate_input_1"
  bottom: "cont_1"
  top: "c_1"
  top: "h_1"
}
layer {
  name: "lstm2_"
  type: "Split"
  bottom: "c_1"
  top: "c_T"
}
layer {
  name: "lstm2_h_concat"
  type: "Concat"
  bottom: "h_1"
  top: "h"
  concat_param {
    axis: 0
  }
}
layer {
  name: "h_pseudoloss"
  type: "Reduction"
  bottom: "h"
  top: "h_pseudoloss"
  loss_weight: 1
}
I0802 21:52:17.265859 27356 layer_factory.hpp:77] Creating layer lstm2_
I0802 21:52:17.265872 27356 net.cpp:91] Creating Layer lstm2_
I0802 21:52:17.265878 27356 net.cpp:399] lstm2_ -> x
I0802 21:52:17.265890 27356 net.cpp:399] lstm2_ -> cont
I0802 21:52:17.265950 27356 net.cpp:141] Setting up lstm2_
I0802 21:52:17.265961 27356 net.cpp:148] Top shape: 1 1 1501 (1501)
I0802 21:52:17.265967 27356 net.cpp:148] Top shape: 1 1 (1)
I0802 21:52:17.265972 27356 net.cpp:156] Memory required for data: 6008
I0802 21:52:17.265977 27356 layer_factory.hpp:77] Creating layer lstm2_
I0802 21:52:17.265986 27356 net.cpp:91] Creating Layer lstm2_
I0802 21:52:17.265993 27356 net.cpp:399] lstm2_ -> c_0
I0802 21:52:17.266003 27356 net.cpp:399] lstm2_ -> h_0
I0802 21:52:17.266060 27356 net.cpp:141] Setting up lstm2_
I0802 21:52:17.266072 27356 net.cpp:148] Top shape: 1 1 1000 (1000)
I0802 21:52:17.266077 27356 net.cpp:148] Top shape: 1 1 1000 (1000)
I0802 21:52:17.266082 27356 net.cpp:156] Memory required for data: 14008
I0802 21:52:17.266088 27356 layer_factory.hpp:77] Creating layer lstm2_cont_slice
I0802 21:52:17.266096 27356 net.cpp:91] Creating Layer lstm2_cont_slice
I0802 21:52:17.266101 27356 net.cpp:425] lstm2_cont_slice <- cont
I0802 21:52:17.266113 27356 net.cpp:399] lstm2_cont_slice -> cont_1
I0802 21:52:17.266149 27356 net.cpp:141] Setting up lstm2_cont_slice
I0802 21:52:17.266160 27356 net.cpp:148] Top shape: 1 1 (1)
I0802 21:52:17.266165 27356 net.cpp:156] Memory required for data: 14012
I0802 21:52:17.266170 27356 layer_factory.hpp:77] Creating layer cont_1_lstm2_cont_slice_0_split
I0802 21:52:17.266176 27356 net.cpp:91] Creating Layer cont_1_lstm2_cont_slice_0_split
I0802 21:52:17.266181 27356 net.cpp:425] cont_1_lstm2_cont_slice_0_split <- cont_1
I0802 21:52:17.266188 27356 net.cpp:399] cont_1_lstm2_cont_slice_0_split -> cont_1_lstm2_cont_slice_0_split_0
I0802 21:52:17.266197 27356 net.cpp:399] cont_1_lstm2_cont_slice_0_split -> cont_1_lstm2_cont_slice_0_split_1
I0802 21:52:17.266254 27356 net.cpp:141] Setting up cont_1_lstm2_cont_slice_0_split
I0802 21:52:17.266264 27356 net.cpp:148] Top shape: 1 1 (1)
I0802 21:52:17.266270 27356 net.cpp:148] Top shape: 1 1 (1)
I0802 21:52:17.266275 27356 net.cpp:156] Memory required for data: 14020
I0802 21:52:17.266280 27356 layer_factory.hpp:77] Creating layer lstm2_x_transform
I0802 21:52:17.266295 27356 net.cpp:91] Creating Layer lstm2_x_transform
I0802 21:52:17.266301 27356 net.cpp:425] lstm2_x_transform <- x
I0802 21:52:17.266310 27356 net.cpp:399] lstm2_x_transform -> W_xc_x
I0802 21:52:17.305182 27366 net.cpp:141] Setting up fc6
I0802 21:52:17.305234 27366 net.cpp:148] Top shape: 10 4096 (40960)
I0802 21:52:17.305241 27366 net.cpp:156] Memory required for data: 67782200
I0802 21:52:17.305258 27366 layer_factory.hpp:77] Creating layer relu6
I0802 21:52:17.305277 27366 net.cpp:91] Creating Layer relu6
I0802 21:52:17.305286 27366 net.cpp:425] relu6 <- fc6
I0802 21:52:17.305300 27366 net.cpp:386] relu6 -> fc6 (in-place)
I0802 21:52:17.305724 27366 net.cpp:141] Setting up relu6
I0802 21:52:17.305737 27366 net.cpp:148] Top shape: 10 4096 (40960)
I0802 21:52:17.305742 27366 net.cpp:156] Memory required for data: 67946040
I0802 21:52:17.305749 27366 layer_factory.hpp:77] Creating layer drop6
I0802 21:52:17.305764 27366 net.cpp:91] Creating Layer drop6
I0802 21:52:17.305770 27366 net.cpp:425] drop6 <- fc6
I0802 21:52:17.305778 27366 net.cpp:386] drop6 -> fc6 (in-place)
I0802 21:52:17.305835 27366 net.cpp:141] Setting up drop6
I0802 21:52:17.305845 27366 net.cpp:148] Top shape: 10 4096 (40960)
I0802 21:52:17.305850 27366 net.cpp:156] Memory required for data: 68109880
I0802 21:52:17.305855 27366 layer_factory.hpp:77] Creating layer fc7
I0802 21:52:17.305866 27366 net.cpp:91] Creating Layer fc7
I0802 21:52:17.305871 27366 net.cpp:425] fc7 <- fc6
I0802 21:52:17.305886 27366 net.cpp:399] fc7 -> fc7
I0802 21:52:17.337882 27356 net.cpp:141] Setting up lstm2_x_transform
I0802 21:52:17.337939 27356 net.cpp:148] Top shape: 1 1 4000 (4000)
I0802 21:52:17.337944 27356 net.cpp:156] Memory required for data: 30020
I0802 21:52:17.337972 27356 layer_factory.hpp:77] Creating layer lstm2_W_xc_x_slice
I0802 21:52:17.337990 27356 net.cpp:91] Creating Layer lstm2_W_xc_x_slice
I0802 21:52:17.337998 27356 net.cpp:425] lstm2_W_xc_x_slice <- W_xc_x
I0802 21:52:17.338008 27356 net.cpp:399] lstm2_W_xc_x_slice -> W_xc_x_1
I0802 21:52:17.338064 27356 net.cpp:141] Setting up lstm2_W_xc_x_slice
I0802 21:52:17.338076 27356 net.cpp:148] Top shape: 1 1 4000 (4000)
I0802 21:52:17.338081 27356 net.cpp:156] Memory required for data: 46020
I0802 21:52:17.338088 27356 layer_factory.hpp:77] Creating layer lstm2_h_conted_0
I0802 21:52:17.338099 27356 net.cpp:91] Creating Layer lstm2_h_conted_0
I0802 21:52:17.338104 27356 net.cpp:425] lstm2_h_conted_0 <- h_0
I0802 21:52:17.338111 27356 net.cpp:425] lstm2_h_conted_0 <- cont_1_lstm2_cont_slice_0_split_0
I0802 21:52:17.338119 27356 net.cpp:399] lstm2_h_conted_0 -> h_conted_0
I0802 21:52:17.338225 27356 net.cpp:141] Setting up lstm2_h_conted_0
I0802 21:52:17.338238 27356 net.cpp:148] Top shape: 1 1 1000 (1000)
I0802 21:52:17.338241 27356 net.cpp:156] Memory required for data: 50020
I0802 21:52:17.338248 27356 layer_factory.hpp:77] Creating layer lstm2_transform_1
I0802 21:52:17.338261 27356 net.cpp:91] Creating Layer lstm2_transform_1
I0802 21:52:17.338268 27356 net.cpp:425] lstm2_transform_1 <- h_conted_0
I0802 21:52:17.338279 27356 net.cpp:399] lstm2_transform_1 -> W_hc_h_0
I0802 21:52:17.356024 27366 net.cpp:141] Setting up fc7
I0802 21:52:17.356075 27366 net.cpp:148] Top shape: 10 4096 (40960)
I0802 21:52:17.356081 27366 net.cpp:156] Memory required for data: 68273720
I0802 21:52:17.356097 27366 layer_factory.hpp:77] Creating layer relu7
I0802 21:52:17.356128 27366 net.cpp:91] Creating Layer relu7
I0802 21:52:17.356137 27366 net.cpp:425] relu7 <- fc7
I0802 21:52:17.356148 27366 net.cpp:386] relu7 -> fc7 (in-place)
I0802 21:52:17.356827 27366 net.cpp:141] Setting up relu7
I0802 21:52:17.356840 27366 net.cpp:148] Top shape: 10 4096 (40960)
I0802 21:52:17.356847 27366 net.cpp:156] Memory required for data: 68437560
I0802 21:52:17.356853 27366 layer_factory.hpp:77] Creating layer drop7
I0802 21:52:17.356871 27366 net.cpp:91] Creating Layer drop7
I0802 21:52:17.356878 27366 net.cpp:425] drop7 <- fc7
I0802 21:52:17.356885 27366 net.cpp:386] drop7 -> fc7 (in-place)
I0802 21:52:17.356935 27366 net.cpp:141] Setting up drop7
I0802 21:52:17.356945 27366 net.cpp:148] Top shape: 10 4096 (40960)
I0802 21:52:17.356950 27366 net.cpp:156] Memory required for data: 68601400
I0802 21:52:17.356956 27366 layer_factory.hpp:77] Creating layer fc8
I0802 21:52:17.356967 27366 net.cpp:91] Creating Layer fc8
I0802 21:52:17.356972 27366 net.cpp:425] fc8 <- fc7
I0802 21:52:17.356982 27366 net.cpp:399] fc8 -> fc8
I0802 21:52:17.369345 27366 net.cpp:141] Setting up fc8
I0802 21:52:17.369395 27366 net.cpp:148] Top shape: 10 1000 (10000)
I0802 21:52:17.369400 27366 net.cpp:156] Memory required for data: 68641400
I0802 21:52:17.369417 27366 layer_factory.hpp:77] Creating layer prob
I0802 21:52:17.369443 27366 net.cpp:91] Creating Layer prob
I0802 21:52:17.369452 27366 net.cpp:425] prob <- fc8
I0802 21:52:17.369463 27366 net.cpp:399] prob -> prob
I0802 21:52:17.369925 27366 net.cpp:141] Setting up prob
I0802 21:52:17.369937 27366 net.cpp:148] Top shape: 10 1000 (10000)
I0802 21:52:17.369942 27366 net.cpp:156] Memory required for data: 68681400
I0802 21:52:17.369948 27366 net.cpp:219] prob does not need backward computation.
I0802 21:52:17.369954 27366 net.cpp:219] fc8 does not need backward computation.
I0802 21:52:17.369961 27366 net.cpp:219] drop7 does not need backward computation.
I0802 21:52:17.369966 27366 net.cpp:219] relu7 does not need backward computation.
…
I0802 21:52:17.370049 27366 net.cpp:219] norm1 does not need backward computation.
I0802 21:52:17.370057 27366 net.cpp:219] pool1 does not need backward computation.
I0802 21:52:17.370064 27366 net.cpp:219] relu1 does not need backward computation.
I0802 21:52:17.370069 27366 net.cpp:219] conv1 does not need backward computation.
I0802 21:52:17.370074 27366 net.cpp:219] data does not need backward computation.
I0802 21:52:17.370079 27366 net.cpp:261] This network produces output prob
I0802 21:52:17.370100 27366 net.cpp:274] Network initialization done.
I0802 21:52:17.382094 27356 net.cpp:141] Setting up lstm2_transform_1
I0802 21:52:17.382148 27356 net.cpp:148] Top shape: 1 1 4000 (4000)
I0802 21:52:17.382155 27356 net.cpp:156] Memory required for data: 66020
I0802 21:52:17.382179 27356 layer_factory.hpp:77] Creating layer lstm2_gate_input_1
I0802 21:52:17.382201 27356 net.cpp:91] Creating Layer lstm2_gate_input_1
I0802 21:52:17.382208 27356 net.cpp:425] lstm2_gate_input_1 <- W_hc_h_0
I0802 21:52:17.382217 27356 net.cpp:425] lstm2_gate_input_1 <- W_xc_x_1
I0802 21:52:17.382231 27356 net.cpp:399] lstm2_gate_input_1 -> gate_input_1
I0802 21:52:17.382297 27356 net.cpp:141] Setting up lstm2_gate_input_1
I0802 21:52:17.382311 27356 net.cpp:148] Top shape: 1 1 4000 (4000)
I0802 21:52:17.382316 27356 net.cpp:156] Memory required for data: 82020
I0802 21:52:17.382323 27356 layer_factory.hpp:77] Creating layer lstm2_unit_1
I0802 21:52:17.382331 27356 net.cpp:91] Creating Layer lstm2_unit_1
I0802 21:52:17.382336 27356 net.cpp:425] lstm2_unit_1 <- c_0
I0802 21:52:17.382344 27356 net.cpp:425] lstm2_unit_1 <- gate_input_1
I0802 21:52:17.382349 27356 net.cpp:425] lstm2_unit_1 <- cont_1_lstm2_cont_slice_0_split_1
I0802 21:52:17.382357 27356 net.cpp:399] lstm2_unit_1 -> c_1
I0802 21:52:17.382366 27356 net.cpp:399] lstm2_unit_1 -> h_1
I0802 21:52:17.382439 27356 net.cpp:141] Setting up lstm2_unit_1
I0802 21:52:17.382450 27356 net.cpp:148] Top shape: 1 1 1000 (1000)
I0802 21:52:17.382457 27356 net.cpp:148] Top shape: 1 1 1000 (1000)
I0802 21:52:17.382462 27356 net.cpp:156] Memory required for data: 90020
I0802 21:52:17.382467 27356 layer_factory.hpp:77] Creating layer lstm2_
I0802 21:52:17.382477 27356 net.cpp:91] Creating Layer lstm2_
I0802 21:52:17.382482 27356 net.cpp:425] lstm2_ <- c_1
I0802 21:52:17.382488 27356 net.cpp:399] lstm2_ -> c_T
I0802 21:52:17.382522 27356 net.cpp:141] Setting up lstm2_
I0802 21:52:17.382532 27356 net.cpp:148] Top shape: 1 1 1000 (1000)
I0802 21:52:17.382537 27356 net.cpp:156] Memory required for data: 94020
I0802 21:52:17.382542 27356 layer_factory.hpp:77] Creating layer lstm2_h_concat
I0802 21:52:17.383082 27356 net.cpp:91] Creating Layer lstm2_h_concat
I0802 21:52:17.383101 27356 net.cpp:425] lstm2_h_concat <- h_1
I0802 21:52:17.383112 27356 net.cpp:399] lstm2_h_concat -> h
I0802 21:52:17.383172 27356 net.cpp:141] Setting up lstm2_h_concat
I0802 21:52:17.383184 27356 net.cpp:148] Top shape: 1 1 1000 (1000)
I0802 21:52:17.383189 27356 net.cpp:156] Memory required for data: 98020
I0802 21:52:17.383195 27356 layer_factory.hpp:77] Creating layer h_pseudoloss
I0802 21:52:17.383205 27356 net.cpp:91] Creating Layer h_pseudoloss
I0802 21:52:17.383210 27356 net.cpp:425] h_pseudoloss <- h
I0802 21:52:17.383224 27356 net.cpp:399] h_pseudoloss -> h_pseudoloss
I0802 21:52:17.383327 27356 net.cpp:141] Setting up h_pseudoloss
…
