…
I0925 21:27:12.123292 28244 upgrade_proto.cpp:69] Successfully upgraded file specified using deprecated input fields.
W0925 21:27:12.123296 28258 upgrade_proto.cpp:71] Note that future Caffe releases will only support input layers and not input fields.
W0925 21:27:12.123314 28244 upgrade_proto.cpp:71] Note that future Caffe releases will only support input layers and not input fields.
I0925 21:27:12.123407 28266 net.cpp:49] Initializing net from parameters: 
name: "CaffeNet"
state {
  phase: TEST
}
layer {
  name: "data"
  type: "Input"
  top: "data"
  input_param {
    shape {
      dim: 10
      dim: 3
      dim: 227
      dim: 227
    }
  }
}
layer {
  name: "conv1"
  type: "Convolution"
  bottom: "data"
  top: "conv1"
  convolution_param {
    num_output: 96
    kernel_size: 11
    stride: 4
  }
}
layer {
  name: "relu1"
  type: "ReLU"
  bottom: "conv1"
  top: "conv1"
}
layer {
  name: "pool1"
  type: "Pooling"
  bottom: "conv1"
  top: "pool1"
  pooling_param {
    pool: MAX
    kernel_size: 3
    stride: 2
  }
}
layer {
  name: "norm1"
  type: "LRN"
  bottom: "pool1"
  top: "norm1"
  lrn_param {
    local_size: 5
    alpha: 0.0001
    beta: 0.75
  }
}
layer {
  name: "conv2"
  type: "Convolution"
  bottom: "norm1"
  top: "conv2"
  convolution_param {
    num_output: 256
    pad: 2
    kernel_size: 5
    group: 2
  }
}
layer {
  name: "relu2"
  type: "ReLU"
  bottom: "conv2"
  top: "conv2"
}
layer {
  name: "pool2"
  type: "Pooling"
  bottom: "conv2"
  top: "pool2"
  pooling_param {
    pool: MAX
    kernel_size: 3
    stride: 2
  }
}
layer {
  name: "norm2"
  type: "LRN"
  bottom: "pool2"
  top: "norm2"
  lrn_param {
    local_size: 5
    alpha: 0.0001
    beta: 0.75
  }
}
layer {
  name: "conv3"
  type: "Convolution"
  bottom: "norm2"
  top: "conv3"
  convolution_param {
    num_output: 384
    pad: 1
    kernel_size: 3
  }
}
layer {
  name: "relu3"
  type: "ReLU"
  bottom: "conv3"
  top: "conv3"
}
layer {
  name: "conv4"
  type: "Convolution"
  bottom: "conv3"
  top: "conv4"
  convolution_param {
    num_output: 384
    pad: 1
    kernel_size: 3
    group: 2
  }
}
layer {
  name: "relu4"
  type: "ReLU"
  bottom: "conv4"
  top: "conv4"
}
layer {
  name: "conv5"
  type: "Convolution"
  bottom: "conv4"
  top: "conv5"
  convolution_param {
    num_output: 256
    pad: 1
    kernel_size: 3
    group: 2
  }
}
layer {
  name: "relu5"
  type: "ReLU"
  bottom: "conv5"
  top: "conv5"
}
layer {
  name: "pool5"
  type: "Pooling"
  bottom: "conv5"
  top: "pool5"
  pooling_param {
    pool: MAX
    kernel_size: 3
    stride: 2
  }
}
layer {
  name: "fc6"
  type: "InnerProduct"
  bottom: "pool5"
  top: "fc6"
  inner_product_param {
    num_output: 4096
  }
}
layer {
  name: "relu6"
  type: "ReLU"
  bottom: "fc6"
  top: "fc6"
}
layer {
  name: "drop6"
  type: "Dropout"
  bottom: "fc6"
  top: "fc6"
  dropout_param {
    dropout_ratio: 0.5
  }
}
layer {
  name: "fc7"
  type: "InnerProduct"
  bottom: "fc6"
  top: "fc7"
  inner_product_param {
    num_output: 4096
  }
}
layer {
  name: "relu7"
  type: "ReLU"
  bottom: "fc7"
  top: "fc7"
}
layer {
  name: "drop7"
  type: "Dropout"
  bottom: "fc7"
  top: "fc7"
  dropout_param {
    dropout_ratio: 0.5
  }
}
layer {
  name: "fc8"
  type: "InnerProduct"
  bottom: "fc7"
  top: "fc8"
  inner_product_param {
    num_output: 1000
  }
}
layer {
  name: "prob"
  type: "Softmax"
  bottom: "fc8"
  top: "prob"
}
I0925 21:27:12.123426 28264 net.cpp:49] Initializing net from parameters: 
name: "s2vt:features_to_lstm"
state {
  phase: TEST
}
layer {
  name: "input"
  type: "Input"
  top: "frames_fc7"
  top: "cont_sentence"
  top: "input_sentence"
  top: "stage_indicator"
  input_param {
    shape {
      dim: 1
      dim: 4096
    }
    shape {
      dim: 1
      dim: 1
    }
    shape {
      dim: 1
      dim: 1
    }
    shape {
      dim: 1
      dim: 1
    }
  }
}
layer {
  name: "embed_encoder"
  type: "InnerProduct"
  bottom: "frames_fc7"
  top: "embedded_in_frames"
  param {
    lr_mult: 1
    decay_mult: 1
  }
  param {
    lr_mult: 2
    decay_mult: 0
  }
  inner_product_param {
    num_output: 500
    weight_filler {
      type: "xavier"
    }
    bias_filler {
      type: "constant"
      value: 0.2
    }
  }
}
layer {
  name: "reshape_frames"
  type: "Reshape"
  bottom: "embedded_in_frames"
  top: "embedded_input_frames"
  reshape_param {
    shape {
      dim: 1
      dim: 1
      dim: 500
    }
  }
}
layer {
  name: "reshape_stage_indicator"
  type: "Reshape"
  bottom: "stage_indicator"
  top: "reshaped_stage_indicator"
  reshape_param {
    shape {
      dim: 1
      dim: 1
      dim: 1
    }
  }
}
layer {
  name: "embedding"
  type: "Embed"
  bottom: "input_sentence"
  top: "embedded_input_sentence"
  param {
    lr_mult: 1
  }
  embed_param {
    num_output: 500
    input_dim: 46168
    bias_term: false
    weight_filler {
      type: "uniform"
      min: -0.08
      max: 0.08
    }
  }
}
layer {
  name: "lstm1"
  type: "LSTM"
  bottom: "embedded_input_frames"
  bottom: "cont_sentence"
  top: "lstm1"
  recurrent_param {
    num_output: 1000
    weight_filler {
      type: "uniform"
      min: -0.08
      max: 0.08
    }
    bias_filler {
      type: "constant"
      value: 0
    }
  }
}
layer {
  name: "concat"
  type: "Concat"
  bottom: "lstm1"
  bottom: "embedded_input_sentence"
  bottom: "reshaped_stage_indicator"
  top: "lstm1_video_sequence"
  concat_param {
    concat_dim: 2
  }
}
layer {
  name: "lstm2"
  type: "LSTM"
  bottom: "lstm1_video_sequence"
  bottom: "cont_sentence"
  top: "lstm2"
  recurrent_param {
    num_output: 1000
    weight_filler {
      type: "uniform"
      min: -0.08
      max: 0.08
    }
    bias_filler {
      type: "constant"
      value: 0
    }
  }
}
layer {
  name: "predict"
  type: "InnerProduct"
  bottom: "lstm2"
  top: "predict"
  param {
    lr_mult: 1
    decay_mult: 1
  }
  param {
    lr_mult: 2
    decay_mult: 0
  }
  inner_product_param {
    num_output: 46168
    weight_filler {
      type: "uniform"
      min: -0.08
      max: 0.08
    }
    bias_filler {
      type: "constant"
      value: 0
    }
    axis: 2
  }
}
layer {
  name: "probs"
  type: "Softmax"
  bottom: "predict"
  top: "probs"
  softmax_param {
    axis: 2
  }
}
I0925 21:27:12.123423 28240 net.cpp:49] Initializing net from parameters: 
name: "s2vt:features_to_lstm"
state {
  phase: TEST
}
layer {
  name: "input"
  type: "Input"
  top: "frames_fc7"
  top: "cont_sentence"
  top: "input_sentence"
  top: "stage_indicator"
  input_param {
    shape {
      dim: 1
      dim: 4096
    }
    shape {
      dim: 1
      dim: 1
    }
    shape {
      dim: 1
      dim: 1
    }
    shape {
      dim: 1
      dim: 1
    }
  }
}
layer {
  name: "embed_encoder"
  type: "InnerProduct"
  bottom: "frames_fc7"
  top: "embedded_in_frames"
  param {
    lr_mult: 1
    decay_mult: 1
  }
  param {
    lr_mult: 2
    decay_mult: 0
  }
  inner_product_param {
    num_output: 500
    weight_filler {
      type: "xavier"
    }
    bias_filler {
      type: "constant"
      value: 0.2
    }
  }
}
layer {
  name: "reshape_frames"
  type: "Reshape"
  bottom: "embedded_in_frames"
  top: "embedded_input_frames"
  reshape_param {
    shape {
      dim: 1
      dim: 1
      dim: 500
    }
  }
}
layer {
  name: "reshape_stage_indicator"
  type: "Reshape"
  bottom: "stage_indicator"
  top: "reshaped_stage_indicator"
  reshape_param {
    shape {
      dim: 1
      dim: 1
      dim: 1
    }
  }
}
layer {
  name: "embedding"
  type: "Embed"
  bottom: "input_sentence"
  top: "embedded_input_sentence"
  param {
    lr_mult: 1
  }
  embed_param {
    num_output: 500
    input_dim: 46168
    bias_term: false
    weight_filler {
      type: "uniform"
      min: -0.08
      max: 0.08
    }
  }
}
layer {
  name: "lstm1"
  type: "LSTM"
  bottom: "embedded_input_frames"
  bottom: "cont_sentence"
  top: "lstm1"
  recurrent_param {
    num_output: 1000
    weight_filler {
      type: "uniform"
      min: -0.08
      max: 0.08
    }
    bias_filler {
      type: "constant"
      value: 0
    }
  }
}
layer {
  name: "concat"
  type: "Concat"
  bottom: "lstm1"
  bottom: "embedded_input_sentence"
  bottom: "reshaped_stage_indicator"
  top: "lstm1_video_sequence"
  concat_param {
    concat_dim: 2
  }
}
layer {
  name: "lstm2"
  type: "LSTM"
  bottom: "lstm1_video_sequence"
  bottom: "cont_sentence"
  top: "lstm2"
  recurrent_param {
    num_output: 1000
    weight_filler {
      type: "uniform"
      min: -0.08
      max: 0.08
    }
    bias_filler {
      type: "constant"
      value: 0
    }
  }
}
layer {
  name: "predict"
  type: "InnerProduct"
  bottom: "lstm2"
  top: "predict"
  param {
    lr_mult: 1
    decay_mult: 1
  }
  param {
    lr_mult: 2
    decay_mult: 0
  }
  inner_product_param {
    num_output: 46168
    weight_filler {
      type: "uniform"
      min: -0.08
      max: 0.08
    }
    bias_filler {
      type: "constant"
      value: 0
    }
    axis: 2
  }
}
layer {
  name: "probs"
  type: "Softmax"
  bottom: "predict"
  top: "probs"
  softmax_param {
    axis: 2
  }
}
I0925 21:27:12.123553 28266 layer_factory.hpp:77] Creating layer data
I0925 21:27:12.123571 28240 layer_factory.hpp:77] Creating layer input
I0925 21:27:12.123575 28264 layer_factory.hpp:77] Creating layer input
I0925 21:27:12.123585 28266 net.cpp:91] Creating Layer data
I0925 21:27:12.123589 28240 net.cpp:91] Creating Layer input
I0925 21:27:12.123594 28264 net.cpp:91] Creating Layer input
…
I0925 21:27:12.123684 28264 net.cpp:399] input -> stage_indicator
I0925 21:27:12.123692 28240 net.cpp:399] input -> stage_indicator
I0925 21:27:12.123739 28258 net.cpp:49] Initializing net from parameters: 
name: "s2vt:features_to_lstm"
state {
  phase: TEST
}
layer {
  name: "input"
  type: "Input"
  top: "frames_fc7"
  top: "cont_sentence"
  top: "input_sentence"
  top: "stage_indicator"
  input_param {
    shape {
      dim: 1
      dim: 4096
    }
    shape {
      dim: 1
      dim: 1
    }
    shape {
      dim: 1
      dim: 1
    }
    shape {
      dim: 1
      dim: 1
    }
  }
}
layer {
  name: "embed_encoder"
  type: "InnerProduct"
  bottom: "frames_fc7"
  top: "embedded_in_frames"
  param {
    lr_mult: 1
    decay_mult: 1
  }
  param {
    lr_mult: 2
    decay_mult: 0
  }
  inner_product_param {
    num_output: 500
    weight_filler {
      type: "xavier"
    }
    bias_filler {
      type: "constant"
      value: 0.2
    }
  }
}
layer {
  name: "reshape_frames"
  type: "Reshape"
  bottom: "embedded_in_frames"
  top: "embedded_input_frames"
  reshape_param {
    shape {
      dim: 1
      dim: 1
      dim: 500
    }
  }
}
layer {
  name: "reshape_stage_indicator"
  type: "Reshape"
  bottom: "stage_indicator"
  top: "reshaped_stage_indicator"
  reshape_param {
    shape {
      dim: 1
      dim: 1
      dim: 1
    }
  }
}
layer {
  name: "embedding"
  type: "Embed"
  bottom: "input_sentence"
  top: "embedded_input_sentence"
  param {
    lr_mult: 1
  }
  embed_param {
    num_output: 500
    input_dim: 46168
    bias_term: false
    weight_filler {
      type: "uniform"
      min: -0.08
      max: 0.08
    }
  }
}
layer {
  name: "lstm1"
  type: "LSTM"
  bottom: "embedded_input_frames"
  bottom: "cont_sentence"
  top: "lstm1"
  recurrent_param {
    num_output: 1000
    weight_filler {
      type: "uniform"
      min: -0.08
      max: 0.08
    }
    bias_filler {
      type: "constant"
      value: 0
    }
  }
}
layer {
  name: "concat"
  type: "Concat"
  bottom: "lstm1"
  bottom: "embedded_input_sentence"
  bottom: "reshaped_stage_indicator"
  top: "lstm1_video_sequence"
  concat_param {
    concat_dim: 2
  }
}
layer {
  name: "lstm2"
  type: "LSTM"
  bottom: "lstm1_video_sequence"
  bottom: "cont_sentence"
  top: "lstm2"
  recurrent_param {
    num_output: 1000
    weight_filler {
      type: "uniform"
      min: -0.08
      max: 0.08
    }
    bias_filler {
      type: "constant"
      value: 0
    }
  }
}
layer {
  name: "predict"
  type: "InnerProduct"
  bottom: "lstm2"
  top: "predict"
  param {
    lr_mult: 1
    decay_mult: 1
  }
  param {
    lr_mult: 2
    decay_mult: 0
  }
  inner_product_param {
    num_output: 46168
    weight_filler {
      type: "uniform"
      min: -0.08
      max: 0.08
    }
    bias_filler {
      type: "constant"
      value: 0
    }
    axis: 2
  }
}
layer {
  name: "probs"
  type: "Softmax"
  bottom: "predict"
  top: "probs"
  softmax_param {
    axis: 2
  }
}
I0925 21:27:12.123828 28244 net.cpp:49] Initializing net from parameters: 
name: "s2vt:features_to_lstm"
state {
  phase: TEST
}
layer {
  name: "input"
  type: "Input"
  top: "frames_fc7"
  top: "cont_sentence"
  top: "input_sentence"
  top: "stage_indicator"
  input_param {
    shape {
      dim: 1
      dim: 4096
    }
    shape {
      dim: 1
      dim: 1
    }
    shape {
      dim: 1
      dim: 1
    }
    shape {
      dim: 1
      dim: 1
    }
  }
}
layer {
  name: "embed_encoder"
  type: "InnerProduct"
  bottom: "frames_fc7"
  top: "embedded_in_frames"
  param {
    lr_mult: 1
    decay_mult: 1
  }
  param {
    lr_mult: 2
    decay_mult: 0
  }
  inner_product_param {
    num_output: 500
    weight_filler {
      type: "xavier"
    }
    bias_filler {
      type: "constant"
      value: 0.2
    }
  }
}
layer {
  name: "reshape_frames"
  type: "Reshape"
  bottom: "embedded_in_frames"
  top: "embedded_input_frames"
  reshape_param {
    shape {
      dim: 1
      dim: 1
      dim: 500
    }
  }
}
layer {
  name: "reshape_stage_indicator"
  type: "Reshape"
  bottom: "stage_indicator"
  top: "reshaped_stage_indicator"
  reshape_param {
    shape {
      dim: 1
      dim: 1
      dim: 1
    }
  }
}
layer {
  name: "embedding"
  type: "Embed"
  bottom: "input_sentence"
  top: "embedded_input_sentence"
  param {
    lr_mult: 1
  }
  embed_param {
    num_output: 500
    input_dim: 46168
    bias_term: false
    weight_filler {
      type: "uniform"
      min: -0.08
      max: 0.08
    }
  }
}
layer {
  name: "lstm1"
  type: "LSTM"
  bottom: "embedded_input_frames"
  bottom: "cont_sentence"
  top: "lstm1"
  recurrent_param {
    num_output: 1000
    weight_filler {
      type: "uniform"
      min: -0.08
      max: 0.08
    }
    bias_filler {
      type: "constant"
      value: 0
    }
  }
}
layer {
  name: "concat"
  type: "Concat"
  bottom: "lstm1"
  bottom: "embedded_input_sentence"
  bottom: "reshaped_stage_indicator"
  top: "lstm1_video_sequence"
  concat_param {
    concat_dim: 2
  }
}
layer {
  name: "lstm2"
  type: "LSTM"
  bottom: "lstm1_video_sequence"
  bottom: "cont_sentence"
  top: "lstm2"
  recurrent_param {
    num_output: 1000
    weight_filler {
      type: "uniform"
      min: -0.08
      max: 0.08
    }
    bias_filler {
      type: "constant"
      value: 0
    }
  }
}
layer {
  name: "predict"
  type: "InnerProduct"
  bottom: "lstm2"
  top: "predict"
  param {
    lr_mult: 1
    decay_mult: 1
  }
  param {
    lr_mult: 2
    decay_mult: 0
  }
  inner_product_param {
    num_output: 46168
    weight_filler {
      type: "uniform"
      min: -0.08
      max: 0.08
    }
    bias_filler {
      type: "constant"
      value: 0
    }
    axis: 2
  }
}
layer {
  name: "probs"
  type: "Softmax"
  bottom: "predict"
  top: "probs"
  softmax_param {
    axis: 2
  }
}
I0925 21:27:12.123885 28258 layer_factory.hpp:77] Creating layer input
I0925 21:27:12.123908 28258 net.cpp:91] Creating Layer input
I0925 21:27:12.123919 28258 net.cpp:399] input -> frames_fc7
I0925 21:27:12.123944 28258 net.cpp:399] input -> cont_sentence
I0925 21:27:12.123960 28258 net.cpp:399] input -> input_sentence
I0925 21:27:12.123975 28258 net.cpp:399] input -> stage_indicator
I0925 21:27:12.124053 28244 layer_factory.hpp:77] Creating layer input
I0925 21:27:12.124086 28244 net.cpp:91] Creating Layer input
I0925 21:27:12.124104 28244 net.cpp:399] input -> frames_fc7
I0925 21:27:12.124135 28244 net.cpp:399] input -> cont_sentence
I0925 21:27:12.124166 28244 net.cpp:399] input -> input_sentence
I0925 21:27:12.124192 28244 net.cpp:399] input -> stage_indicator
I0925 21:27:12.841097 28266 net.cpp:141] Setting up data
I0925 21:27:12.841192 28264 net.cpp:141] Setting up input
I0925 21:27:12.841238 28266 net.cpp:148] Top shape: 10 3 227 227 (1545870)
I0925 21:27:12.841239 28264 net.cpp:148] Top shape: 1 4096 (4096)
I0925 21:27:12.841254 28266 net.cpp:156] Memory required for data: 6183480
I0925 21:27:12.841264 28264 net.cpp:148] Top shape: 1 1 (1)
I0925 21:27:12.841272 28264 net.cpp:148] Top shape: 1 1 (1)
I0925 21:27:12.841279 28264 net.cpp:148] Top shape: 1 1 (1)
I0925 21:27:12.841277 28266 layer_factory.hpp:77] Creating layer conv1
I0925 21:27:12.841292 28264 net.cpp:156] Memory required for data: 16396
I0925 21:27:12.841305 28264 layer_factory.hpp:77] Creating layer cont_sentence_input_1_split
I0925 21:27:12.841327 28264 net.cpp:91] Creating Layer cont_sentence_input_1_split
I0925 21:27:12.841334 28266 net.cpp:91] Creating Layer conv1
I0925 21:27:12.841339 28264 net.cpp:425] cont_sentence_input_1_split <- cont_sentence
I0925 21:27:12.841336 28240 net.cpp:141] Setting up input
I0925 21:27:12.841343 28266 net.cpp:425] conv1 <- data
I0925 21:27:12.841364 28240 net.cpp:148] Top shape: 1 4096 (4096)
I0925 21:27:12.841370 28266 net.cpp:399] conv1 -> conv1
I0925 21:27:12.841372 28264 net.cpp:399] cont_sentence_input_1_split -> cont_sentence_input_1_split_0
I0925 21:27:12.841380 28240 net.cpp:148] Top shape: 1 1 (1)
I0925 21:27:12.841390 28264 net.cpp:399] cont_sentence_input_1_split -> cont_sentence_input_1_split_1
I0925 21:27:12.841393 28240 net.cpp:148] Top shape: 1 1 (1)
I0925 21:27:12.841405 28240 net.cpp:148] Top shape: 1 1 (1)
I0925 21:27:12.841416 28240 net.cpp:156] Memory required for data: 16396
I0925 21:27:12.841428 28240 layer_factory.hpp:77] Creating layer cont_sentence_input_1_split
I0925 21:27:12.841441 28240 net.cpp:91] Creating Layer cont_sentence_input_1_split
I0925 21:27:12.841449 28240 net.cpp:425] cont_sentence_input_1_split <- cont_sentence
I0925 21:27:12.841459 28240 net.cpp:399] cont_sentence_input_1_split -> cont_sentence_input_1_split_0
I0925 21:27:12.841477 28240 net.cpp:399] cont_sentence_input_1_split -> cont_sentence_input_1_split_1
I0925 21:27:12.841495 28264 net.cpp:141] Setting up cont_sentence_input_1_split
I0925 21:27:12.841508 28264 net.cpp:148] Top shape: 1 1 (1)
I0925 21:27:12.841516 28264 net.cpp:148] Top shape: 1 1 (1)
I0925 21:27:12.841521 28264 net.cpp:156] Memory required for data: 16404
I0925 21:27:12.841528 28264 layer_factory.hpp:77] Creating layer embed_encoder
I0925 21:27:12.841558 28264 net.cpp:91] Creating Layer embed_encoder
I0925 21:27:12.841567 28264 net.cpp:425] embed_encoder <- frames_fc7
I0925 21:27:12.841578 28264 net.cpp:399] embed_encoder -> embedded_in_frames
I0925 21:27:12.841689 28258 net.cpp:141] Setting up input
I0925 21:27:12.841706 28258 net.cpp:148] Top shape: 1 4096 (4096)
I0925 21:27:12.841714 28258 net.cpp:148] Top shape: 1 1 (1)
I0925 21:27:12.841722 28258 net.cpp:148] Top shape: 1 1 (1)
I0925 21:27:12.841728 28258 net.cpp:148] Top shape: 1 1 (1)
I0925 21:27:12.841722 28244 net.cpp:141] Setting up input
I0925 21:27:12.841737 28258 net.cpp:156] Memory required for data: 16396
I0925 21:27:12.841754 28244 net.cpp:148] Top shape: 1 4096 (4096)
I0925 21:27:12.841758 28258 layer_factory.hpp:77] Creating layer cont_sentence_input_1_split
I0925 21:27:12.841763 28244 net.cpp:148] Top shape: 1 1 (1)
I0925 21:27:12.841770 28244 net.cpp:148] Top shape: 1 1 (1)
I0925 21:27:12.841778 28258 net.cpp:91] Creating Layer cont_sentence_input_1_split
I0925 21:27:12.841778 28244 net.cpp:148] Top shape: 1 1 (1)
I0925 21:27:12.841794 28240 net.cpp:141] Setting up cont_sentence_input_1_split
I0925 21:27:12.841799 28258 net.cpp:425] cont_sentence_input_1_split <- cont_sentence
I0925 21:27:12.841802 28244 net.cpp:156] Memory required for data: 16396
I0925 21:27:12.841814 28240 net.cpp:148] Top shape: 1 1 (1)
I0925 21:27:12.841817 28244 layer_factory.hpp:77] Creating layer cont_sentence_input_1_split
I0925 21:27:12.841822 28258 net.cpp:399] cont_sentence_input_1_split -> cont_sentence_input_1_split_0
I0925 21:27:12.841826 28240 net.cpp:148] Top shape: 1 1 (1)
I0925 21:27:12.841833 28244 net.cpp:91] Creating Layer cont_sentence_input_1_split
I0925 21:27:12.841835 28240 net.cpp:156] Memory required for data: 16404
I0925 21:27:12.841842 28244 net.cpp:425] cont_sentence_input_1_split <- cont_sentence
I0925 21:27:12.841842 28258 net.cpp:399] cont_sentence_input_1_split -> cont_sentence_input_1_split_1
I0925 21:27:12.841851 28244 net.cpp:399] cont_sentence_input_1_split -> cont_sentence_input_1_split_0
I0925 21:27:12.841851 28240 layer_factory.hpp:77] Creating layer embed_encoder
I0925 21:27:12.841871 28244 net.cpp:399] cont_sentence_input_1_split -> cont_sentence_input_1_split_1
I0925 21:27:12.841883 28240 net.cpp:91] Creating Layer embed_encoder
I0925 21:27:12.841897 28240 net.cpp:425] embed_encoder <- frames_fc7
I0925 21:27:12.841912 28240 net.cpp:399] embed_encoder -> embedded_in_frames
I0925 21:27:12.848196 28244 net.cpp:141] Setting up cont_sentence_input_1_split
I0925 21:27:12.848238 28244 net.cpp:148] Top shape: 1 1 (1)
I0925 21:27:12.848248 28244 net.cpp:148] Top shape: 1 1 (1)
I0925 21:27:12.848253 28244 net.cpp:156] Memory required for data: 16404
I0925 21:27:12.848263 28244 layer_factory.hpp:77] Creating layer embed_encoder
I0925 21:27:12.848285 28244 net.cpp:91] Creating Layer embed_encoder
I0925 21:27:12.848294 28244 net.cpp:425] embed_encoder <- frames_fc7
I0925 21:27:12.848304 28244 net.cpp:399] embed_encoder -> embedded_in_frames
I0925 21:27:12.853417 28258 net.cpp:141] Setting up cont_sentence_input_1_split
I0925 21:27:12.853484 28258 net.cpp:148] Top shape: 1 1 (1)
I0925 21:27:12.853500 28258 net.cpp:148] Top shape: 1 1 (1)
I0925 21:27:12.853509 28258 net.cpp:156] Memory required for data: 16404
I0925 21:27:12.853521 28258 layer_factory.hpp:77] Creating layer embed_encoder
I0925 21:27:12.853552 28258 net.cpp:91] Creating Layer embed_encoder
I0925 21:27:12.853562 28258 net.cpp:425] embed_encoder <- frames_fc7
I0925 21:27:12.853579 28258 net.cpp:399] embed_encoder -> embedded_in_frames
I0925 21:27:12.869391 28264 net.cpp:141] Setting up embed_encoder
I0925 21:27:12.869446 28264 net.cpp:148] Top shape: 1 500 (500)
I0925 21:27:12.869453 28264 net.cpp:156] Memory required for data: 18404
I0925 21:27:12.869487 28264 layer_factory.hpp:77] Creating layer reshape_frames
I0925 21:27:12.869519 28264 net.cpp:91] Creating Layer reshape_frames
I0925 21:27:12.869529 28264 net.cpp:425] reshape_frames <- embedded_in_frames
I0925 21:27:12.869547 28264 net.cpp:399] reshape_frames -> embedded_input_frames
I0925 21:27:12.869993 28264 net.cpp:141] Setting up reshape_frames
I0925 21:27:12.870008 28264 net.cpp:148] Top shape: 1 1 500 (500)
I0925 21:27:12.870014 28264 net.cpp:156] Memory required for data: 20404
I0925 21:27:12.870019 28264 layer_factory.hpp:77] Creating layer reshape_stage_indicator
I0925 21:27:12.870033 28264 net.cpp:91] Creating Layer reshape_stage_indicator
I0925 21:27:12.870041 28264 net.cpp:425] reshape_stage_indicator <- stage_indicator
I0925 21:27:12.870060 28264 net.cpp:399] reshape_stage_indicator -> reshaped_stage_indicator
I0925 21:27:12.873031 28264 net.cpp:141] Setting up reshape_stage_indicator
I0925 21:27:12.873051 28264 net.cpp:148] Top shape: 1 1 1 (1)
I0925 21:27:12.873057 28264 net.cpp:156] Memory required for data: 20408
I0925 21:27:12.873064 28264 layer_factory.hpp:77] Creating layer embedding
I0925 21:27:12.873078 28264 net.cpp:91] Creating Layer embedding
I0925 21:27:12.873088 28264 net.cpp:425] embedding <- input_sentence
I0925 21:27:12.873102 28264 net.cpp:399] embedding -> embedded_input_sentence
I0925 21:27:12.921468 28258 net.cpp:141] Setting up embed_encoder
I0925 21:27:12.921545 28258 net.cpp:148] Top shape: 1 500 (500)
I0925 21:27:12.921555 28258 net.cpp:156] Memory required for data: 18404
I0925 21:27:12.921592 28258 layer_factory.hpp:77] Creating layer reshape_frames
I0925 21:27:12.921622 28258 net.cpp:91] Creating Layer reshape_frames
I0925 21:27:12.921635 28258 net.cpp:425] reshape_frames <- embedded_in_frames
I0925 21:27:12.921654 28258 net.cpp:399] reshape_frames -> embedded_input_frames
I0925 21:27:12.927316 28258 net.cpp:141] Setting up reshape_frames
I0925 21:27:12.927382 28258 net.cpp:148] Top shape: 1 1 500 (500)
I0925 21:27:12.927393 28258 net.cpp:156] Memory required for data: 20404
I0925 21:27:12.927402 28258 layer_factory.hpp:77] Creating layer reshape_stage_indicator
I0925 21:27:12.927433 28258 net.cpp:91] Creating Layer reshape_stage_indicator
I0925 21:27:12.927446 28258 net.cpp:425] reshape_stage_indicator <- stage_indicator
I0925 21:27:12.927453 28244 net.cpp:141] Setting up embed_encoder
I0925 21:27:12.927467 28258 net.cpp:399] reshape_stage_indicator -> reshaped_stage_indicator
I0925 21:27:12.927474 28244 net.cpp:148] Top shape: 1 500 (500)
I0925 21:27:12.927480 28244 net.cpp:156] Memory required for data: 18404
I0925 21:27:12.927500 28244 layer_factory.hpp:77] Creating layer reshape_frames
I0925 21:27:12.927515 28244 net.cpp:91] Creating Layer reshape_frames
I0925 21:27:12.927523 28244 net.cpp:425] reshape_frames <- embedded_in_frames
I0925 21:27:12.927533 28240 net.cpp:141] Setting up embed_encoder
I0925 21:27:12.927537 28244 net.cpp:399] reshape_frames -> embedded_input_frames
I0925 21:27:12.927556 28240 net.cpp:148] Top shape: 1 500 (500)
I0925 21:27:12.927562 28240 net.cpp:156] Memory required for data: 18404
I0925 21:27:12.927579 28240 layer_factory.hpp:77] Creating layer reshape_frames
I0925 21:27:12.927592 28240 net.cpp:91] Creating Layer reshape_frames
I0925 21:27:12.927600 28240 net.cpp:425] reshape_frames <- embedded_in_frames
I0925 21:27:12.927611 28240 net.cpp:399] reshape_frames -> embedded_input_frames
I0925 21:27:12.937248 28244 net.cpp:141] Setting up reshape_frames
I0925 21:27:12.937284 28258 net.cpp:141] Setting up reshape_stage_indicator
I0925 21:27:12.937307 28244 net.cpp:148] Top shape: 1 1 500 (500)
I0925 21:27:12.937314 28244 net.cpp:156] Memory required for data: 20404
I0925 21:27:12.937314 28258 net.cpp:148] Top shape: 1 1 1 (1)
I0925 21:27:12.937332 28244 layer_factory.hpp:77] Creating layer reshape_stage_indicator
I0925 21:27:12.937338 28258 net.cpp:156] Memory required for data: 20408
I0925 21:27:12.937350 28258 layer_factory.hpp:77] Creating layer embedding
I0925 21:27:12.937356 28244 net.cpp:91] Creating Layer reshape_stage_indicator
I0925 21:27:12.937366 28244 net.cpp:425] reshape_stage_indicator <- stage_indicator
I0925 21:27:12.937374 28258 net.cpp:91] Creating Layer embedding
I0925 21:27:12.937376 28240 net.cpp:141] Setting up reshape_frames
I0925 21:27:12.937387 28258 net.cpp:425] embedding <- input_sentence
I0925 21:27:12.937394 28240 net.cpp:148] Top shape: 1 1 500 (500)
I0925 21:27:12.937396 28244 net.cpp:399] reshape_stage_indicator -> reshaped_stage_indicator
I0925 21:27:12.937412 28240 net.cpp:156] Memory required for data: 20404
I0925 21:27:12.937423 28240 layer_factory.hpp:77] Creating layer reshape_stage_indicator
I0925 21:27:12.937448 28240 net.cpp:91] Creating Layer reshape_stage_indicator
I0925 21:27:12.937459 28240 net.cpp:425] reshape_stage_indicator <- stage_indicator
I0925 21:27:12.937475 28244 net.cpp:141] Setting up reshape_stage_indicator
I0925 21:27:12.937476 28240 net.cpp:399] reshape_stage_indicator -> reshaped_stage_indicator
I0925 21:27:12.937494 28244 net.cpp:148] Top shape: 1 1 1 (1)
I0925 21:27:12.937460 28258 net.cpp:399] embedding -> embedded_input_sentence
I0925 21:27:12.937500 28244 net.cpp:156] Memory required for data: 20408
I0925 21:27:12.937528 28244 layer_factory.hpp:77] Creating layer embedding
I0925 21:27:12.937546 28244 net.cpp:91] Creating Layer embedding
I0925 21:27:12.937557 28244 net.cpp:425] embedding <- input_sentence
I0925 21:27:12.937558 28240 net.cpp:141] Setting up reshape_stage_indicator
I0925 21:27:12.937572 28244 net.cpp:399] embedding -> embedded_input_sentence
I0925 21:27:12.937578 28240 net.cpp:148] Top shape: 1 1 1 (1)
I0925 21:27:12.937585 28240 net.cpp:156] Memory required for data: 20408
I0925 21:27:12.937594 28240 layer_factory.hpp:77] Creating layer embedding
I0925 21:27:12.937613 28240 net.cpp:91] Creating Layer embedding
I0925 21:27:12.937623 28240 net.cpp:425] embedding <- input_sentence
I0925 21:27:12.937640 28240 net.cpp:399] embedding -> embedded_input_sentence
I0925 21:27:13.140278 28264 net.cpp:141] Setting up embedding
I0925 21:27:13.140336 28264 net.cpp:148] Top shape: 1 1 500 (500)
I0925 21:27:13.140344 28264 net.cpp:156] Memory required for data: 22408
I0925 21:27:13.140362 28264 layer_factory.hpp:77] Creating layer lstm1
I0925 21:27:13.140398 28264 net.cpp:91] Creating Layer lstm1
I0925 21:27:13.140409 28264 net.cpp:425] lstm1 <- embedded_input_frames
I0925 21:27:13.140419 28264 net.cpp:425] lstm1 <- cont_sentence_input_1_split_0
I0925 21:27:13.140437 28264 net.cpp:399] lstm1 -> lstm1
I0925 21:27:13.140506 28264 recurrent_layer.cpp:20] Initializing recurrent layer: assuming input batch contains 1 timesteps of 1 independent streams.
I0925 21:27:13.141041 28264 net.cpp:49] Initializing net from parameters: 
layer {
  name: "lstm1_"
  type: "Input"
  top: "x"
  top: "cont"
  input_param {
    shape {
      dim: 1
      dim: 1
      dim: 500
    }
    shape {
      dim: 1
      dim: 1
    }
  }
}
layer {
  name: "lstm1_"
  type: "Input"
  top: "c_0"
  top: "h_0"
  input_param {
    shape {
      dim: 1
      dim: 1
      dim: 1000
    }
    shape {
      dim: 1
      dim: 1
      dim: 1000
    }
  }
}
layer {
  name: "lstm1_cont_slice"
  type: "Slice"
  bottom: "cont"
  top: "cont_1"
  slice_param {
    axis: 0
  }
}
layer {
  name: "lstm1_x_transform"
  type: "InnerProduct"
  bottom: "x"
  top: "W_xc_x"
  param {
    name: "W_xc"
  }
  param {
    name: "b_c"
  }
  propagate_down: true
  inner_product_param {
    num_output: 4000
    bias_term: true
    weight_filler {
      type: "uniform"
      min: -0.08
      max: 0.08
    }
    bias_filler {
      type: "constant"
      value: 0
    }
    axis: 2
  }
}
layer {
  name: "lstm1_W_xc_x_slice"
  type: "Slice"
  bottom: "W_xc_x"
  top: "W_xc_x_1"
  slice_param {
    axis: 0
  }
}
layer {
  name: "lstm1_h_conted_0"
  type: "Scale"
  bottom: "h_0"
  bottom: "cont_1"
  top: "h_conted_0"
  scale_param {
    axis: 0
  }
}
layer {
  name: "lstm1_transform_1"
  type: "InnerProduct"
  bottom: "h_conted_0"
  top: "W_hc_h_0"
  param {
    name: "W_hc"
  }
  inner_product_param {
    num_output: 4000
    bias_term: false
    weight_filler {
      type: "uniform"
      min: -0.08
      max: 0.08
    }
    axis: 2
  }
}
layer {
  name: "lstm1_gate_input_1"
  type: "Eltwise"
  bottom: "W_hc_h_0"
  bottom: "W_xc_x_1"
  top: "gate_input_1"
  eltwise_param {
    operation: SUM
  }
}
layer {
  name: "lstm1_unit_1"
  type: "LSTMUnit"
  bottom: "c_0"
  bottom: "gate_input_1"
  bottom: "cont_1"
  top: "c_1"
  top: "h_1"
}
layer {
  name: "lstm1_"
  type: "Split"
  bottom: "c_1"
  top: "c_T"
}
layer {
  name: "lstm1_h_concat"
  type: "Concat"
  bottom: "h_1"
  top: "h"
  concat_param {
    axis: 0
  }
}
layer {
  name: "h_pseudoloss"
  type: "Reduction"
  bottom: "h"
  top: "h_pseudoloss"
  loss_weight: 1
}
I0925 21:27:13.141206 28264 layer_factory.hpp:77] Creating layer lstm1_
I0925 21:27:13.141232 28264 net.cpp:91] Creating Layer lstm1_
I0925 21:27:13.141243 28264 net.cpp:399] lstm1_ -> x
I0925 21:27:13.141264 28264 net.cpp:399] lstm1_ -> cont
I0925 21:27:13.142611 28264 net.cpp:141] Setting up lstm1_
I0925 21:27:13.142627 28264 net.cpp:148] Top shape: 1 1 500 (500)
I0925 21:27:13.142633 28264 net.cpp:148] Top shape: 1 1 (1)
I0925 21:27:13.142638 28264 net.cpp:156] Memory required for data: 2004
I0925 21:27:13.142644 28264 layer_factory.hpp:77] Creating layer lstm1_
I0925 21:27:13.142655 28264 net.cpp:91] Creating Layer lstm1_
I0925 21:27:13.142668 28264 net.cpp:399] lstm1_ -> c_0
I0925 21:27:13.142680 28264 net.cpp:399] lstm1_ -> h_0
I0925 21:27:13.146479 28264 net.cpp:141] Setting up lstm1_
I0925 21:27:13.146497 28264 net.cpp:148] Top shape: 1 1 1000 (1000)
I0925 21:27:13.146503 28264 net.cpp:148] Top shape: 1 1 1000 (1000)
I0925 21:27:13.146507 28264 net.cpp:156] Memory required for data: 10004
I0925 21:27:13.146513 28264 layer_factory.hpp:77] Creating layer lstm1_cont_slice
I0925 21:27:13.146528 28264 net.cpp:91] Creating Layer lstm1_cont_slice
I0925 21:27:13.146534 28264 net.cpp:425] lstm1_cont_slice <- cont
I0925 21:27:13.146545 28264 net.cpp:399] lstm1_cont_slice -> cont_1
I0925 21:27:13.146944 28264 net.cpp:141] Setting up lstm1_cont_slice
I0925 21:27:13.146956 28264 net.cpp:148] Top shape: 1 1 (1)
I0925 21:27:13.146961 28264 net.cpp:156] Memory required for data: 10008
I0925 21:27:13.146967 28264 layer_factory.hpp:77] Creating layer cont_1_lstm1_cont_slice_0_split
I0925 21:27:13.146976 28264 net.cpp:91] Creating Layer cont_1_lstm1_cont_slice_0_split
I0925 21:27:13.146981 28264 net.cpp:425] cont_1_lstm1_cont_slice_0_split <- cont_1
I0925 21:27:13.146993 28264 net.cpp:399] cont_1_lstm1_cont_slice_0_split -> cont_1_lstm1_cont_slice_0_split_0
I0925 21:27:13.147003 28264 net.cpp:399] cont_1_lstm1_cont_slice_0_split -> cont_1_lstm1_cont_slice_0_split_1
I0925 21:27:13.149948 28264 net.cpp:141] Setting up cont_1_lstm1_cont_slice_0_split
I0925 21:27:13.149961 28264 net.cpp:148] Top shape: 1 1 (1)
I0925 21:27:13.149968 28264 net.cpp:148] Top shape: 1 1 (1)
I0925 21:27:13.149974 28264 net.cpp:156] Memory required for data: 10016
I0925 21:27:13.149979 28264 layer_factory.hpp:77] Creating layer lstm1_x_transform
I0925 21:27:13.149994 28264 net.cpp:91] Creating Layer lstm1_x_transform
I0925 21:27:13.150001 28264 net.cpp:425] lstm1_x_transform <- x
I0925 21:27:13.150010 28264 net.cpp:399] lstm1_x_transform -> W_xc_x
I0925 21:27:13.175662 28264 net.cpp:141] Setting up lstm1_x_transform
I0925 21:27:13.175711 28264 net.cpp:148] Top shape: 1 1 4000 (4000)
I0925 21:27:13.175719 28264 net.cpp:156] Memory required for data: 26016
I0925 21:27:13.175740 28264 layer_factory.hpp:77] Creating layer lstm1_W_xc_x_slice
I0925 21:27:13.175757 28264 net.cpp:91] Creating Layer lstm1_W_xc_x_slice
I0925 21:27:13.175765 28264 net.cpp:425] lstm1_W_xc_x_slice <- W_xc_x
I0925 21:27:13.175775 28264 net.cpp:399] lstm1_W_xc_x_slice -> W_xc_x_1
I0925 21:27:13.181124 28264 net.cpp:141] Setting up lstm1_W_xc_x_slice
I0925 21:27:13.181156 28264 net.cpp:148] Top shape: 1 1 4000 (4000)
I0925 21:27:13.181164 28264 net.cpp:156] Memory required for data: 42016
I0925 21:27:13.181170 28264 layer_factory.hpp:77] Creating layer lstm1_h_conted_0
I0925 21:27:13.181195 28264 net.cpp:91] Creating Layer lstm1_h_conted_0
I0925 21:27:13.181202 28264 net.cpp:425] lstm1_h_conted_0 <- h_0
I0925 21:27:13.181210 28264 net.cpp:425] lstm1_h_conted_0 <- cont_1_lstm1_cont_slice_0_split_0
I0925 21:27:13.181219 28264 net.cpp:399] lstm1_h_conted_0 -> h_conted_0
I0925 21:27:13.181514 28264 net.cpp:141] Setting up lstm1_h_conted_0
I0925 21:27:13.181527 28264 net.cpp:148] Top shape: 1 1 1000 (1000)
I0925 21:27:13.181532 28264 net.cpp:156] Memory required for data: 46016
I0925 21:27:13.181538 28264 layer_factory.hpp:77] Creating layer lstm1_transform_1
I0925 21:27:13.181552 28264 net.cpp:91] Creating Layer lstm1_transform_1
I0925 21:27:13.181558 28264 net.cpp:425] lstm1_transform_1 <- h_conted_0
I0925 21:27:13.181572 28264 net.cpp:399] lstm1_transform_1 -> W_hc_h_0
I0925 21:27:13.195282 28258 net.cpp:141] Setting up embedding
I0925 21:27:13.195338 28258 net.cpp:148] Top shape: 1 1 500 (500)
I0925 21:27:13.195345 28258 net.cpp:156] Memory required for data: 22408
I0925 21:27:13.195365 28258 layer_factory.hpp:77] Creating layer lstm1
I0925 21:27:13.195389 28258 net.cpp:91] Creating Layer lstm1
I0925 21:27:13.195399 28258 net.cpp:425] lstm1 <- embedded_input_frames
I0925 21:27:13.195408 28258 net.cpp:425] lstm1 <- cont_sentence_input_1_split_0
I0925 21:27:13.195420 28258 net.cpp:399] lstm1 -> lstm1
I0925 21:27:13.195438 28258 recurrent_layer.cpp:20] Initializing recurrent layer: assuming input batch contains 1 timesteps of 1 independent streams.
I0925 21:27:13.195752 28258 net.cpp:49] Initializing net from parameters: 
layer {
  name: "lstm1_"
  type: "Input"
  top: "x"
  top: "cont"
  input_param {
    shape {
      dim: 1
      dim: 1
      dim: 500
    }
    shape {
      dim: 1
      dim: 1
    }
  }
}
layer {
  name: "lstm1_"
  type: "Input"
  top: "c_0"
  top: "h_0"
  input_param {
    shape {
      dim: 1
      dim: 1
      dim: 1000
    }
    shape {
      dim: 1
      dim: 1
      dim: 1000
    }
  }
}
layer {
  name: "lstm1_cont_slice"
  type: "Slice"
  bottom: "cont"
  top: "cont_1"
  slice_param {
    axis: 0
  }
}
layer {
  name: "lstm1_x_transform"
  type: "InnerProduct"
  bottom: "x"
  top: "W_xc_x"
  param {
    name: "W_xc"
  }
  param {
    name: "b_c"
  }
  propagate_down: true
  inner_product_param {
    num_output: 4000
    bias_term: true
    weight_filler {
      type: "uniform"
      min: -0.08
      max: 0.08
    }
    bias_filler {
      type: "constant"
      value: 0
    }
    axis: 2
  }
}
layer {
  name: "lstm1_W_xc_x_slice"
  type: "Slice"
  bottom: "W_xc_x"
  top: "W_xc_x_1"
  slice_param {
    axis: 0
  }
}
layer {
  name: "lstm1_h_conted_0"
  type: "Scale"
  bottom: "h_0"
  bottom: "cont_1"
  top: "h_conted_0"
  scale_param {
    axis: 0
  }
}
layer {
  name: "lstm1_transform_1"
  type: "InnerProduct"
  bottom: "h_conted_0"
  top: "W_hc_h_0"
  param {
    name: "W_hc"
  }
  inner_product_param {
    num_output: 4000
    bias_term: false
    weight_filler {
      type: "uniform"
      min: -0.08
      max: 0.08
    }
    axis: 2
  }
}
layer {
  name: "lstm1_gate_input_1"
  type: "Eltwise"
  bottom: "W_hc_h_0"
  bottom: "W_xc_x_1"
  top: "gate_input_1"
  eltwise_param {
    operation: SUM
  }
}
layer {
  name: "lstm1_unit_1"
  type: "LSTMUnit"
  bottom: "c_0"
  bottom: "gate_input_1"
  bottom: "cont_1"
  top: "c_1"
  top: "h_1"
}
layer {
  name: "lstm1_"
  type: "Split"
  bottom: "c_1"
  top: "c_T"
}
layer {
  name: "lstm1_h_concat"
  type: "Concat"
  bottom: "h_1"
  top: "h"
  concat_param {
    axis: 0
  }
}
layer {
  name: "h_pseudoloss"
  type: "Reduction"
  bottom: "h"
  top: "h_pseudoloss"
  loss_weight: 1
}
I0925 21:27:13.195858 28258 layer_factory.hpp:77] Creating layer lstm1_
I0925 21:27:13.195873 28258 net.cpp:91] Creating Layer lstm1_
I0925 21:27:13.195880 28258 net.cpp:399] lstm1_ -> x
I0925 21:27:13.195894 28258 net.cpp:399] lstm1_ -> cont
I0925 21:27:13.199429 28258 net.cpp:141] Setting up lstm1_
I0925 21:27:13.199458 28258 net.cpp:148] Top shape: 1 1 500 (500)
I0925 21:27:13.199467 28258 net.cpp:148] Top shape: 1 1 (1)
I0925 21:27:13.199472 28258 net.cpp:156] Memory required for data: 2004
I0925 21:27:13.199481 28258 layer_factory.hpp:77] Creating layer lstm1_
I0925 21:27:13.199504 28258 net.cpp:91] Creating Layer lstm1_
I0925 21:27:13.199517 28258 net.cpp:399] lstm1_ -> c_0
I0925 21:27:13.199537 28258 net.cpp:399] lstm1_ -> h_0
I0925 21:27:13.199625 28258 net.cpp:141] Setting up lstm1_
I0925 21:27:13.199640 28258 net.cpp:148] Top shape: 1 1 1000 (1000)
I0925 21:27:13.199647 28258 net.cpp:148] Top shape: 1 1 1000 (1000)
I0925 21:27:13.199651 28258 net.cpp:156] Memory required for data: 10004
I0925 21:27:13.199657 28258 layer_factory.hpp:77] Creating layer lstm1_cont_slice
I0925 21:27:13.199672 28258 net.cpp:91] Creating Layer lstm1_cont_slice
I0925 21:27:13.199683 28258 net.cpp:425] lstm1_cont_slice <- cont
I0925 21:27:13.199695 28258 net.cpp:399] lstm1_cont_slice -> cont_1
I0925 21:27:13.200868 28258 net.cpp:141] Setting up lstm1_cont_slice
I0925 21:27:13.200882 28258 net.cpp:148] Top shape: 1 1 (1)
I0925 21:27:13.200887 28258 net.cpp:156] Memory required for data: 10008
I0925 21:27:13.200896 28258 layer_factory.hpp:77] Creating layer cont_1_lstm1_cont_slice_0_split
I0925 21:27:13.200911 28258 net.cpp:91] Creating Layer cont_1_lstm1_cont_slice_0_split
I0925 21:27:13.200917 28258 net.cpp:425] cont_1_lstm1_cont_slice_0_split <- cont_1
I0925 21:27:13.200929 28258 net.cpp:399] cont_1_lstm1_cont_slice_0_split -> cont_1_lstm1_cont_slice_0_split_0
I0925 21:27:13.200940 28258 net.cpp:399] cont_1_lstm1_cont_slice_0_split -> cont_1_lstm1_cont_slice_0_split_1
I0925 21:27:13.202875 28258 net.cpp:141] Setting up cont_1_lstm1_cont_slice_0_split
I0925 21:27:13.202895 28258 net.cpp:148] Top shape: 1 1 (1)
I0925 21:27:13.202904 28258 net.cpp:148] Top shape: 1 1 (1)
I0925 21:27:13.202910 28258 net.cpp:156] Memory required for data: 10016
I0925 21:27:13.202916 28258 layer_factory.hpp:77] Creating layer lstm1_x_transform
I0925 21:27:13.202936 28258 net.cpp:91] Creating Layer lstm1_x_transform
I0925 21:27:13.202944 28258 net.cpp:425] lstm1_x_transform <- x
I0925 21:27:13.202965 28258 net.cpp:399] lstm1_x_transform -> W_xc_x
I0925 21:27:13.228106 28264 net.cpp:141] Setting up lstm1_transform_1
I0925 21:27:13.228158 28264 net.cpp:148] Top shape: 1 1 4000 (4000)
I0925 21:27:13.228165 28264 net.cpp:156] Memory required for data: 62016
I0925 21:27:13.228185 28264 layer_factory.hpp:77] Creating layer lstm1_gate_input_1
I0925 21:27:13.228205 28264 net.cpp:91] Creating Layer lstm1_gate_input_1
I0925 21:27:13.228214 28264 net.cpp:425] lstm1_gate_input_1 <- W_hc_h_0
I0925 21:27:13.228222 28264 net.cpp:425] lstm1_gate_input_1 <- W_xc_x_1
I0925 21:27:13.228235 28264 net.cpp:399] lstm1_gate_input_1 -> gate_input_1
I0925 21:27:13.228233 28258 net.cpp:141] Setting up lstm1_x_transform
I0925 21:27:13.228255 28258 net.cpp:148] Top shape: 1 1 4000 (4000)
I0925 21:27:13.228261 28258 net.cpp:156] Memory required for data: 26016
I0925 21:27:13.228277 28258 layer_factory.hpp:77] Creating layer lstm1_W_xc_x_slice
I0925 21:27:13.228292 28258 net.cpp:91] Creating Layer lstm1_W_xc_x_slice
I0925 21:27:13.228304 28258 net.cpp:425] lstm1_W_xc_x_slice <- W_xc_x
I0925 21:27:13.228315 28258 net.cpp:399] lstm1_W_xc_x_slice -> W_xc_x_1
I0925 21:27:13.228406 28264 net.cpp:141] Setting up lstm1_gate_input_1
I0925 21:27:13.228420 28264 net.cpp:148] Top shape: 1 1 4000 (4000)
I0925 21:27:13.228425 28264 net.cpp:156] Memory required for data: 78016
I0925 21:27:13.228431 28264 layer_factory.hpp:77] Creating layer lstm1_unit_1
I0925 21:27:13.228441 28264 net.cpp:91] Creating Layer lstm1_unit_1
I0925 21:27:13.228447 28264 net.cpp:425] lstm1_unit_1 <- c_0
I0925 21:27:13.228448 28258 net.cpp:141] Setting up lstm1_W_xc_x_slice
I0925 21:27:13.228454 28264 net.cpp:425] lstm1_unit_1 <- gate_input_1
I0925 21:27:13.228462 28264 net.cpp:425] lstm1_unit_1 <- cont_1_lstm1_cont_slice_0_split_1
I0925 21:27:13.228467 28258 net.cpp:148] Top shape: 1 1 4000 (4000)
I0925 21:27:13.228471 28264 net.cpp:399] lstm1_unit_1 -> c_1
I0925 21:27:13.228483 28258 net.cpp:156] Memory required for data: 42016
I0925 21:27:13.228492 28258 layer_factory.hpp:77] Creating layer lstm1_h_conted_0
I0925 21:27:13.228497 28264 net.cpp:399] lstm1_unit_1 -> h_1
I0925 21:27:13.228503 28258 net.cpp:91] Creating Layer lstm1_h_conted_0
I0925 21:27:13.228510 28258 net.cpp:425] lstm1_h_conted_0 <- h_0
I0925 21:27:13.228518 28258 net.cpp:425] lstm1_h_conted_0 <- cont_1_lstm1_cont_slice_0_split_0
I0925 21:27:13.228531 28258 net.cpp:399] lstm1_h_conted_0 -> h_conted_0
I0925 21:27:13.228724 28258 net.cpp:141] Setting up lstm1_h_conted_0
I0925 21:27:13.228737 28258 net.cpp:148] Top shape: 1 1 1000 (1000)
I0925 21:27:13.228742 28258 net.cpp:156] Memory required for data: 46016
I0925 21:27:13.228749 28258 layer_factory.hpp:77] Creating layer lstm1_transform_1
I0925 21:27:13.228765 28258 net.cpp:91] Creating Layer lstm1_transform_1
I0925 21:27:13.228776 28258 net.cpp:425] lstm1_transform_1 <- h_conted_0
I0925 21:27:13.228775 28264 net.cpp:141] Setting up lstm1_unit_1
I0925 21:27:13.228788 28258 net.cpp:399] lstm1_transform_1 -> W_hc_h_0
I0925 21:27:13.228790 28264 net.cpp:148] Top shape: 1 1 1000 (1000)
I0925 21:27:13.228798 28264 net.cpp:148] Top shape: 1 1 1000 (1000)
I0925 21:27:13.228803 28264 net.cpp:156] Memory required for data: 86016
I0925 21:27:13.228809 28264 layer_factory.hpp:77] Creating layer lstm1_
I0925 21:27:13.228819 28264 net.cpp:91] Creating Layer lstm1_
I0925 21:27:13.228826 28264 net.cpp:425] lstm1_ <- c_1
I0925 21:27:13.228833 28264 net.cpp:399] lstm1_ -> c_T
I0925 21:27:13.229060 28264 net.cpp:141] Setting up lstm1_
I0925 21:27:13.229076 28264 net.cpp:148] Top shape: 1 1 1000 (1000)
I0925 21:27:13.229082 28264 net.cpp:156] Memory required for data: 90016
I0925 21:27:13.229089 28264 layer_factory.hpp:77] Creating layer lstm1_h_concat
I0925 21:27:13.229099 28264 net.cpp:91] Creating Layer lstm1_h_concat
I0925 21:27:13.229105 28264 net.cpp:425] lstm1_h_concat <- h_1
I0925 21:27:13.229116 28264 net.cpp:399] lstm1_h_concat -> h
I0925 21:27:13.242465 28264 net.cpp:141] Setting up lstm1_h_concat
I0925 21:27:13.242522 28264 net.cpp:148] Top shape: 1 1 1000 (1000)
I0925 21:27:13.242528 28264 net.cpp:156] Memory required for data: 94016
I0925 21:27:13.242538 28264 layer_factory.hpp:77] Creating layer h_pseudoloss
I0925 21:27:13.242574 28264 net.cpp:91] Creating Layer h_pseudoloss
I0925 21:27:13.242583 28264 net.cpp:425] h_pseudoloss <- h
I0925 21:27:13.242610 28264 net.cpp:399] h_pseudoloss -> h_pseudoloss
I0925 21:27:13.249871 28264 net.cpp:141] Setting up h_pseudoloss
…
I0925 21:27:13.250082 28264 net.cpp:219] lstm1_ does not need backward computation.
I0925 21:27:13.250087 28264 net.cpp:261] This network produces output c_T
I0925 21:27:13.250094 28264 net.cpp:261] This network produces output h_pseudoloss
I0925 21:27:13.250119 28264 net.cpp:274] Network initialization done.
I0925 21:27:13.250205 28264 recurrent_layer.cpp:150] Adding parameter 0: W_xc
I0925 21:27:13.250216 28264 recurrent_layer.cpp:150] Adding parameter 1: b_c
I0925 21:27:13.250221 28264 recurrent_layer.cpp:150] Adding parameter 2: W_hc
I0925 21:27:13.252307 28264 net.cpp:141] Setting up lstm1
I0925 21:27:13.252332 28264 net.cpp:148] Top shape: 1 1 1000 (1000)
I0925 21:27:13.252339 28264 net.cpp:156] Memory required for data: 26408
I0925 21:27:13.252358 28264 layer_factory.hpp:77] Creating layer concat
I0925 21:27:13.252374 28264 net.cpp:91] Creating Layer concat
I0925 21:27:13.252382 28264 net.cpp:425] concat <- lstm1
I0925 21:27:13.252390 28264 net.cpp:425] concat <- embedded_input_sentence
I0925 21:27:13.252398 28264 net.cpp:425] concat <- reshaped_stage_indicator
I0925 21:27:13.252406 28264 net.cpp:399] concat -> lstm1_video_sequence
I0925 21:27:13.257136 28264 net.cpp:141] Setting up concat
I0925 21:27:13.257170 28264 net.cpp:148] Top shape: 1 1 1501 (1501)
I0925 21:27:13.257177 28264 net.cpp:156] Memory required for data: 32412
I0925 21:27:13.257185 28264 layer_factory.hpp:77] Creating layer lstm2
I0925 21:27:13.257205 28264 net.cpp:91] Creating Layer lstm2
I0925 21:27:13.257212 28264 net.cpp:425] lstm2 <- lstm1_video_sequence
I0925 21:27:13.257221 28264 net.cpp:425] lstm2 <- cont_sentence_input_1_split_1
I0925 21:27:13.257232 28264 net.cpp:399] lstm2 -> lstm2
I0925 21:27:13.257247 28264 recurrent_layer.cpp:20] Initializing recurrent layer: assuming input batch contains 1 timesteps of 1 independent streams.
I0925 21:27:13.257536 28264 net.cpp:49] Initializing net from parameters: 
layer {
  name: "lstm2_"
  type: "Input"
  top: "x"
  top: "cont"
  input_param {
    shape {
      dim: 1
      dim: 1
      dim: 1501
    }
    shape {
      dim: 1
      dim: 1
    }
  }
}
layer {
  name: "lstm2_"
  type: "Input"
  top: "c_0"
  top: "h_0"
  input_param {
    shape {
      dim: 1
      dim: 1
      dim: 1000
    }
    shape {
      dim: 1
      dim: 1
      dim: 1000
    }
  }
}
layer {
  name: "lstm2_cont_slice"
  type: "Slice"
  bottom: "cont"
  top: "cont_1"
  slice_param {
    axis: 0
  }
}
layer {
  name: "lstm2_x_transform"
  type: "InnerProduct"
  bottom: "x"
  top: "W_xc_x"
  param {
    name: "W_xc"
  }
  param {
    name: "b_c"
  }
  propagate_down: true
  inner_product_param {
    num_output: 4000
    bias_term: true
    weight_filler {
      type: "uniform"
      min: -0.08
      max: 0.08
    }
    bias_filler {
      type: "constant"
      value: 0
    }
    axis: 2
  }
}
layer {
  name: "lstm2_W_xc_x_slice"
  type: "Slice"
  bottom: "W_xc_x"
  top: "W_xc_x_1"
  slice_param {
    axis: 0
  }
}
layer {
  name: "lstm2_h_conted_0"
  type: "Scale"
  bottom: "h_0"
  bottom: "cont_1"
  top: "h_conted_0"
  scale_param {
    axis: 0
  }
}
layer {
  name: "lstm2_transform_1"
  type: "InnerProduct"
  bottom: "h_conted_0"
  top: "W_hc_h_0"
  param {
    name: "W_hc"
  }
  inner_product_param {
    num_output: 4000
    bias_term: false
    weight_filler {
      type: "uniform"
      min: -0.08
      max: 0.08
    }
    axis: 2
  }
}
layer {
  name: "lstm2_gate_input_1"
  type: "Eltwise"
  bottom: "W_hc_h_0"
  bottom: "W_xc_x_1"
  top: "gate_input_1"
  eltwise_param {
    operation: SUM
  }
}
layer {
  name: "lstm2_unit_1"
  type: "LSTMUnit"
  bottom: "c_0"
  bottom: "gate_input_1"
  bottom: "cont_1"
  top: "c_1"
  top: "h_1"
}
layer {
  name: "lstm2_"
  type: "Split"
  bottom: "c_1"
  top: "c_T"
}
layer {
  name: "lstm2_h_concat"
  type: "Concat"
  bottom: "h_1"
  top: "h"
  concat_param {
    axis: 0
  }
}
layer {
  name: "h_pseudoloss"
  type: "Reduction"
  bottom: "h"
  top: "h_pseudoloss"
  loss_weight: 1
}
I0925 21:27:13.257637 28264 layer_factory.hpp:77] Creating layer lstm2_
I0925 21:27:13.257655 28264 net.cpp:91] Creating Layer lstm2_
I0925 21:27:13.257669 28264 net.cpp:399] lstm2_ -> x
I0925 21:27:13.257691 28264 net.cpp:399] lstm2_ -> cont
I0925 21:27:13.258967 28264 net.cpp:141] Setting up lstm2_
I0925 21:27:13.258987 28264 net.cpp:148] Top shape: 1 1 1501 (1501)
I0925 21:27:13.258996 28264 net.cpp:148] Top shape: 1 1 (1)
I0925 21:27:13.259001 28264 net.cpp:156] Memory required for data: 6008
I0925 21:27:13.259006 28264 layer_factory.hpp:77] Creating layer lstm2_
I0925 21:27:13.259019 28264 net.cpp:91] Creating Layer lstm2_
I0925 21:27:13.259027 28264 net.cpp:399] lstm2_ -> c_0
I0925 21:27:13.259047 28264 net.cpp:399] lstm2_ -> h_0
I0925 21:27:13.262331 28264 net.cpp:141] Setting up lstm2_
I0925 21:27:13.262352 28264 net.cpp:148] Top shape: 1 1 1000 (1000)
I0925 21:27:13.262361 28264 net.cpp:148] Top shape: 1 1 1000 (1000)
I0925 21:27:13.262365 28264 net.cpp:156] Memory required for data: 14008
I0925 21:27:13.262372 28264 layer_factory.hpp:77] Creating layer lstm2_cont_slice
I0925 21:27:13.262390 28264 net.cpp:91] Creating Layer lstm2_cont_slice
I0925 21:27:13.262398 28264 net.cpp:425] lstm2_cont_slice <- cont
I0925 21:27:13.262406 28264 net.cpp:399] lstm2_cont_slice -> cont_1
I0925 21:27:13.263474 28264 net.cpp:141] Setting up lstm2_cont_slice
I0925 21:27:13.263495 28264 net.cpp:148] Top shape: 1 1 (1)
I0925 21:27:13.263501 28264 net.cpp:156] Memory required for data: 14012
I0925 21:27:13.263507 28264 layer_factory.hpp:77] Creating layer cont_1_lstm2_cont_slice_0_split
I0925 21:27:13.263517 28264 net.cpp:91] Creating Layer cont_1_lstm2_cont_slice_0_split
I0925 21:27:13.263525 28264 net.cpp:425] cont_1_lstm2_cont_slice_0_split <- cont_1
I0925 21:27:13.263538 28264 net.cpp:399] cont_1_lstm2_cont_slice_0_split -> cont_1_lstm2_cont_slice_0_split_0
I0925 21:27:13.263550 28264 net.cpp:399] cont_1_lstm2_cont_slice_0_split -> cont_1_lstm2_cont_slice_0_split_1
I0925 21:27:13.269538 28264 net.cpp:141] Setting up cont_1_lstm2_cont_slice_0_split
I0925 21:27:13.269572 28264 net.cpp:148] Top shape: 1 1 (1)
I0925 21:27:13.269584 28264 net.cpp:148] Top shape: 1 1 (1)
I0925 21:27:13.269585 28240 net.cpp:141] Setting up embedding
I0925 21:27:13.269615 28240 net.cpp:148] Top shape: 1 1 500 (500)
I0925 21:27:13.269623 28240 net.cpp:156] Memory required for data: 22408
I0925 21:27:13.269642 28240 layer_factory.hpp:77] Creating layer lstm1
I0925 21:27:13.269662 28240 net.cpp:91] Creating Layer lstm1
I0925 21:27:13.269671 28240 net.cpp:425] lstm1 <- embedded_input_frames
I0925 21:27:13.269681 28240 net.cpp:425] lstm1 <- cont_sentence_input_1_split_0
I0925 21:27:13.269693 28240 net.cpp:399] lstm1 -> lstm1
I0925 21:27:13.269711 28240 recurrent_layer.cpp:20] Initializing recurrent layer: assuming input batch contains 1 timesteps of 1 independent streams.
I0925 21:27:13.270015 28240 net.cpp:49] Initializing net from parameters: 
layer {
  name: "lstm1_"
  type: "Input"
  top: "x"
  top: "cont"
  input_param {
    shape {
      dim: 1
      dim: 1
      dim: 500
    }
    shape {
      dim: 1
      dim: 1
    }
  }
}
layer {
  name: "lstm1_"
  type: "Input"
  top: "c_0"
  top: "h_0"
  input_param {
    shape {
      dim: 1
      dim: 1
      dim: 1000
    }
    shape {
      dim: 1
      dim: 1
      dim: 1000
    }
  }
}
layer {
  name: "lstm1_cont_slice"
  type: "Slice"
  bottom: "cont"
  top: "cont_1"
  slice_param {
    axis: 0
  }
}
layer {
  name: "lstm1_x_transform"
  type: "InnerProduct"
  bottom: "x"
  top: "W_xc_x"
  param {
    name: "W_xc"
  }
  param {
    name: "b_c"
  }
  propagate_down: true
  inner_product_param {
    num_output: 4000
    bias_term: true
    weight_filler {
      type: "uniform"
      min: -0.08
      max: 0.08
    }
    bias_filler {
      type: "constant"
      value: 0
    }
    axis: 2
  }
}
layer {
  name: "lstm1_W_xc_x_slice"
  type: "Slice"
  bottom: "W_xc_x"
  top: "W_xc_x_1"
  slice_param {
    axis: 0
  }
}
layer {
  name: "lstm1_h_conted_0"
  type: "Scale"
  bottom: "h_0"
  bottom: "cont_1"
  top: "h_conted_0"
  scale_param {
    axis: 0
  }
}
layer {
  name: "lstm1_transform_1"
  type: "InnerProduct"
  bottom: "h_conted_0"
  top: "W_hc_h_0"
  param {
    name: "W_hc"
  }
  inner_product_param {
    num_output: 4000
    bias_term: false
    weight_filler {
      type: "uniform"
      min: -0.08
      max: 0.08
    }
    axis: 2
  }
}
layer {
  name: "lstm1_gate_input_1"
  type: "Eltwise"
  bottom: "W_hc_h_0"
  bottom: "W_xc_x_1"
  top: "gate_input_1"
  eltwise_param {
    operation: SUM
  }
}
layer {
  name: "lstm1_unit_1"
  type: "LSTMUnit"
  bottom: "c_0"
  bottom: "gate_input_1"
  bottom: "cont_1"
  top: "c_1"
  top: "h_1"
}
layer {
  name: "lstm1_"
  type: "Split"
  bottom: "c_1"
  top: "c_T"
}
layer {
  name: "lstm1_h_concat"
  type: "Concat"
  bottom: "h_1"
  top: "h"
  concat_param {
    axis: 0
  }
}
layer {
  name: "h_pseudoloss"
  type: "Reduction"
  bottom: "h"
  top: "h_pseudoloss"
  loss_weight: 1
}
I0925 21:27:13.270119 28240 layer_factory.hpp:77] Creating layer lstm1_
I0925 21:27:13.270134 28240 net.cpp:91] Creating Layer lstm1_
I0925 21:27:13.270143 28240 net.cpp:399] lstm1_ -> x
I0925 21:27:13.270155 28240 net.cpp:399] lstm1_ -> cont
I0925 21:27:13.269593 28264 net.cpp:156] Memory required for data: 14020
I0925 21:27:13.270251 28264 layer_factory.hpp:77] Creating layer lstm2_x_transform
I0925 21:27:13.270274 28264 net.cpp:91] Creating Layer lstm2_x_transform
I0925 21:27:13.270283 28264 net.cpp:425] lstm2_x_transform <- x
I0925 21:27:13.270300 28264 net.cpp:399] lstm2_x_transform -> W_xc_x
I0925 21:27:13.286689 28240 net.cpp:141] Setting up lstm1_
I0925 21:27:13.286826 28258 net.cpp:141] Setting up lstm1_transform_1
I0925 21:27:13.286834 28240 net.cpp:148] Top shape: 1 1 500 (500)
I0925 21:27:13.286851 28258 net.cpp:148] Top shape: 1 1 4000 (4000)
I0925 21:27:13.286898 28258 net.cpp:156] Memory required for data: 62016
I0925 21:27:13.286905 28240 net.cpp:148] Top shape: 1 1 (1)
I0925 21:27:13.286921 28240 net.cpp:156] Memory required for data: 2004
I0925 21:27:13.286939 28258 layer_factory.hpp:77] Creating layer lstm1_gate_input_1
I0925 21:27:13.286939 28240 layer_factory.hpp:77] Creating layer lstm1_
I0925 21:27:13.286986 28258 net.cpp:91] Creating Layer lstm1_gate_input_1
I0925 21:27:13.286990 28240 net.cpp:91] Creating Layer lstm1_
I0925 21:27:13.287009 28258 net.cpp:425] lstm1_gate_input_1 <- W_hc_h_0
I0925 21:27:13.287019 28240 net.cpp:399] lstm1_ -> c_0
I0925 21:27:13.287024 28258 net.cpp:425] lstm1_gate_input_1 <- W_xc_x_1
I0925 21:27:13.287041 28240 net.cpp:399] lstm1_ -> h_0
I0925 21:27:13.287703 28258 net.cpp:399] lstm1_gate_input_1 -> gate_input_1
I0925 21:27:13.294148 28240 net.cpp:141] Setting up lstm1_
I0925 21:27:13.294212 28240 net.cpp:148] Top shape: 1 1 1000 (1000)
I0925 21:27:13.294229 28240 net.cpp:148] Top shape: 1 1 1000 (1000)
I0925 21:27:13.294225 28258 net.cpp:141] Setting up lstm1_gate_input_1
I0925 21:27:13.294263 28240 net.cpp:156] Memory required for data: 10004
I0925 21:27:13.294299 28258 net.cpp:148] Top shape: 1 1 4000 (4000)
I0925 21:27:13.294312 28258 net.cpp:156] Memory required for data: 78016
I0925 21:27:13.294297 28240 layer_factory.hpp:77] Creating layer lstm1_cont_slice
I0925 21:27:13.294320 28258 layer_factory.hpp:77] Creating layer lstm1_unit_1
I0925 21:27:13.294338 28258 net.cpp:91] Creating Layer lstm1_unit_1
I0925 21:27:13.294342 28240 net.cpp:91] Creating Layer lstm1_cont_slice
I0925 21:27:13.294348 28258 net.cpp:425] lstm1_unit_1 <- c_0
I0925 21:27:13.294360 28240 net.cpp:425] lstm1_cont_slice <- cont
I0925 21:27:13.294370 28258 net.cpp:425] lstm1_unit_1 <- gate_input_1
I0925 21:27:13.294378 28258 net.cpp:425] lstm1_unit_1 <- cont_1_lstm1_cont_slice_0_split_1
I0925 21:27:13.294386 28258 net.cpp:399] lstm1_unit_1 -> c_1
I0925 21:27:13.294384 28240 net.cpp:399] lstm1_cont_slice -> cont_1
I0925 21:27:13.294407 28258 net.cpp:399] lstm1_unit_1 -> h_1
I0925 21:27:13.309844 28240 net.cpp:141] Setting up lstm1_cont_slice
I0925 21:27:13.309906 28240 net.cpp:148] Top shape: 1 1 (1)
I0925 21:27:13.309921 28240 net.cpp:156] Memory required for data: 10008
I0925 21:27:13.309933 28240 layer_factory.hpp:77] Creating layer cont_1_lstm1_cont_slice_0_split
I0925 21:27:13.309942 28244 net.cpp:141] Setting up embedding
I0925 21:27:13.309952 28240 net.cpp:91] Creating Layer cont_1_lstm1_cont_slice_0_split
I0925 21:27:13.309976 28244 net.cpp:148] Top shape: 1 1 500 (500)
I0925 21:27:13.309976 28240 net.cpp:425] cont_1_lstm1_cont_slice_0_split <- cont_1
I0925 21:27:13.309996 28244 net.cpp:156] Memory required for data: 22408
I0925 21:27:13.310008 28240 net.cpp:399] cont_1_lstm1_cont_slice_0_split -> cont_1_lstm1_cont_slice_0_split_0
I0925 21:27:13.310024 28244 layer_factory.hpp:77] Creating layer lstm1
I0925 21:27:13.310025 28240 net.cpp:399] cont_1_lstm1_cont_slice_0_split -> cont_1_lstm1_cont_slice_0_split_1
I0925 21:27:13.310055 28244 net.cpp:91] Creating Layer lstm1
I0925 21:27:13.310070 28244 net.cpp:425] lstm1 <- embedded_input_frames
I0925 21:27:13.310084 28244 net.cpp:425] lstm1 <- cont_sentence_input_1_split_0
I0925 21:27:13.310088 28258 net.cpp:141] Setting up lstm1_unit_1
I0925 21:27:13.310111 28244 net.cpp:399] lstm1 -> lstm1
I0925 21:27:13.310133 28258 net.cpp:148] Top shape: 1 1 1000 (1000)
I0925 21:27:13.310139 28244 recurrent_layer.cpp:20] Initializing recurrent layer: assuming input batch contains 1 timesteps of 1 independent streams.
I0925 21:27:13.310147 28258 net.cpp:148] Top shape: 1 1 1000 (1000)
I0925 21:27:13.310155 28258 net.cpp:156] Memory required for data: 86016
I0925 21:27:13.310165 28240 net.cpp:141] Setting up cont_1_lstm1_cont_slice_0_split
I0925 21:27:13.310169 28258 layer_factory.hpp:77] Creating layer lstm1_
I0925 21:27:13.310199 28240 net.cpp:148] Top shape: 1 1 (1)
I0925 21:27:13.310212 28240 net.cpp:148] Top shape: 1 1 (1)
I0925 21:27:13.310220 28258 net.cpp:91] Creating Layer lstm1_
I0925 21:27:13.310223 28240 net.cpp:156] Memory required for data: 10016
I0925 21:27:13.310238 28258 net.cpp:425] lstm1_ <- c_1
I0925 21:27:13.310243 28240 layer_factory.hpp:77] Creating layer lstm1_x_transform
I0925 21:27:13.310256 28258 net.cpp:399] lstm1_ -> c_T
I0925 21:27:13.310277 28240 net.cpp:91] Creating Layer lstm1_x_transform
I0925 21:27:13.310288 28240 net.cpp:425] lstm1_x_transform <- x
I0925 21:27:13.310302 28240 net.cpp:399] lstm1_x_transform -> W_xc_x
I0925 21:27:13.310657 28244 net.cpp:49] Initializing net from parameters: 
layer {
  name: "lstm1_"
  type: "Input"
  top: "x"
  top: "cont"
  input_param {
    shape {
      dim: 1
      dim: 1
      dim: 500
    }
    shape {
      dim: 1
      dim: 1
    }
  }
}
layer {
  name: "lstm1_"
  type: "Input"
  top: "c_0"
  top: "h_0"
  input_param {
    shape {
      dim: 1
      dim: 1
      dim: 1000
    }
    shape {
      dim: 1
      dim: 1
      dim: 1000
    }
  }
}
layer {
  name: "lstm1_cont_slice"
  type: "Slice"
  bottom: "cont"
  top: "cont_1"
  slice_param {
    axis: 0
  }
}
layer {
  name: "lstm1_x_transform"
  type: "InnerProduct"
  bottom: "x"
  top: "W_xc_x"
  param {
    name: "W_xc"
  }
  param {
    name: "b_c"
  }
  propagate_down: true
  inner_product_param {
    num_output: 4000
    bias_term: true
    weight_filler {
      type: "uniform"
      min: -0.08
      max: 0.08
    }
    bias_filler {
      type: "constant"
      value: 0
    }
    axis: 2
  }
}
layer {
  name: "lstm1_W_xc_x_slice"
  type: "Slice"
  bottom: "W_xc_x"
  top: "W_xc_x_1"
  slice_param {
    axis: 0
  }
}
layer {
  name: "lstm1_h_conted_0"
  type: "Scale"
  bottom: "h_0"
  bottom: "cont_1"
  top: "h_conted_0"
  scale_param {
    axis: 0
  }
}
layer {
  name: "lstm1_transform_1"
  type: "InnerProduct"
  bottom: "h_conted_0"
  top: "W_hc_h_0"
  param {
    name: "W_hc"
  }
  inner_product_param {
    num_output: 4000
    bias_term: false
    weight_filler {
      type: "uniform"
      min: -0.08
      max: 0.08
    }
    axis: 2
  }
}
layer {
  name: "lstm1_gate_input_1"
  type: "Eltwise"
  bottom: "W_hc_h_0"
  bottom: "W_xc_x_1"
  top: "gate_input_1"
  eltwise_param {
    operation: SUM
  }
}
layer {
  name: "lstm1_unit_1"
  type: "LSTMUnit"
  bottom: "c_0"
  bottom: "gate_input_1"
  bottom: "cont_1"
  top: "c_1"
  top: "h_1"
}
layer {
  name: "lstm1_"
  type: "Split"
  bottom: "c_1"
  top: "c_T"
}
layer {
  name: "lstm1_h_concat"
  type: "Concat"
  bottom: "h_1"
  top: "h"
  concat_param {
    axis: 0
  }
}
layer {
  name: "h_pseudoloss"
  type: "Reduction"
  bottom: "h"
  top: "h_pseudoloss"
  loss_weight: 1
}
I0925 21:27:13.310793 28244 layer_factory.hpp:77] Creating layer lstm1_
I0925 21:27:13.310812 28244 net.cpp:91] Creating Layer lstm1_
I0925 21:27:13.310820 28244 net.cpp:399] lstm1_ -> x
I0925 21:27:13.310834 28244 net.cpp:399] lstm1_ -> cont
I0925 21:27:13.320780 28258 net.cpp:141] Setting up lstm1_
I0925 21:27:13.320835 28258 net.cpp:148] Top shape: 1 1 1000 (1000)
I0925 21:27:13.320845 28258 net.cpp:156] Memory required for data: 90016
I0925 21:27:13.320859 28258 layer_factory.hpp:77] Creating layer lstm1_h_concat
I0925 21:27:13.320889 28258 net.cpp:91] Creating Layer lstm1_h_concat
I0925 21:27:13.320901 28258 net.cpp:425] lstm1_h_concat <- h_1
I0925 21:27:13.320920 28258 net.cpp:399] lstm1_h_concat -> h
I0925 21:27:13.320927 28244 net.cpp:141] Setting up lstm1_
I0925 21:27:13.320973 28244 net.cpp:148] Top shape: 1 1 500 (500)
I0925 21:27:13.320987 28244 net.cpp:148] Top shape: 1 1 (1)
I0925 21:27:13.320996 28244 net.cpp:156] Memory required for data: 2004
I0925 21:27:13.321009 28244 layer_factory.hpp:77] Creating layer lstm1_
I0925 21:27:13.321036 28244 net.cpp:91] Creating Layer lstm1_
I0925 21:27:13.324826 28244 net.cpp:399] lstm1_ -> c_0
I0925 21:27:13.324928 28244 net.cpp:399] lstm1_ -> h_0
I0925 21:27:13.325721 28258 net.cpp:141] Setting up lstm1_h_concat
I0925 21:27:13.325742 28258 net.cpp:148] Top shape: 1 1 1000 (1000)
I0925 21:27:13.325752 28258 net.cpp:156] Memory required for data: 94016
I0925 21:27:13.325760 28258 layer_factory.hpp:77] Creating layer h_pseudoloss
I0925 21:27:13.325778 28258 net.cpp:91] Creating Layer h_pseudoloss
I0925 21:27:13.325786 28258 net.cpp:425] h_pseudoloss <- h
I0925 21:27:13.325803 28258 net.cpp:399] h_pseudoloss -> h_pseudoloss
I0925 21:27:13.326026 28244 net.cpp:141] Setting up lstm1_
I0925 21:27:13.326094 28244 net.cpp:148] Top shape: 1 1 1000 (1000)
I0925 21:27:13.326146 28244 net.cpp:148] Top shape: 1 1 1000 (1000)
I0925 21:27:13.326165 28244 net.cpp:156] Memory required for data: 10004
I0925 21:27:13.326189 28258 net.cpp:141] Setting up h_pseudoloss
I0925 21:27:13.326207 28258 net.cpp:148] Top shape: (1)
I0925 21:27:13.326210 28244 layer_factory.hpp:77] Creating layer lstm1_cont_slice
I0925 21:27:13.326215 28258 net.cpp:151]     with loss weight 1
I0925 21:27:13.326237 28258 net.cpp:156] Memory required for data: 94020
…
I0925 21:27:13.326387 28258 net.cpp:261] This network produces output h_pseudoloss
I0925 21:27:13.326352 28244 net.cpp:425] lstm1_cont_slice <- cont
I0925 21:27:13.326417 28258 net.cpp:274] Network initialization done.
I0925 21:27:13.326426 28244 net.cpp:399] lstm1_cont_slice -> cont_1
I0925 21:27:13.326494 28258 recurrent_layer.cpp:150] Adding parameter 0: W_xc
I0925 21:27:13.326504 28258 recurrent_layer.cpp:150] Adding parameter 1: b_c
I0925 21:27:13.326513 28258 recurrent_layer.cpp:150] Adding parameter 2: W_hc
I0925 21:27:13.326724 28244 net.cpp:141] Setting up lstm1_cont_slice
I0925 21:27:13.326781 28244 net.cpp:148] Top shape: 1 1 (1)
I0925 21:27:13.326822 28244 net.cpp:156] Memory required for data: 10008
I0925 21:27:13.326835 28244 layer_factory.hpp:77] Creating layer cont_1_lstm1_cont_slice_0_split
I0925 21:27:13.326853 28244 net.cpp:91] Creating Layer cont_1_lstm1_cont_slice_0_split
I0925 21:27:13.326861 28244 net.cpp:425] cont_1_lstm1_cont_slice_0_split <- cont_1
I0925 21:27:13.327469 28244 net.cpp:399] cont_1_lstm1_cont_slice_0_split -> cont_1_lstm1_cont_slice_0_split_0
I0925 21:27:13.327492 28244 net.cpp:399] cont_1_lstm1_cont_slice_0_split -> cont_1_lstm1_cont_slice_0_split_1
I0925 21:27:13.333650 28258 net.cpp:141] Setting up lstm1
I0925 21:27:13.333708 28258 net.cpp:148] Top shape: 1 1 1000 (1000)
I0925 21:27:13.333717 28258 net.cpp:156] Memory required for data: 26408
I0925 21:27:13.333750 28258 layer_factory.hpp:77] Creating layer concat
I0925 21:27:13.333776 28258 net.cpp:91] Creating Layer concat
I0925 21:27:13.333788 28258 net.cpp:425] concat <- lstm1
I0925 21:27:13.333801 28258 net.cpp:425] concat <- embedded_input_sentence
I0925 21:27:13.333791 28244 net.cpp:141] Setting up cont_1_lstm1_cont_slice_0_split
I0925 21:27:13.333811 28258 net.cpp:425] concat <- reshaped_stage_indicator
I0925 21:27:13.333849 28244 net.cpp:148] Top shape: 1 1 (1)
I0925 21:27:13.333855 28258 net.cpp:399] concat -> lstm1_video_sequence
I0925 21:27:13.333864 28244 net.cpp:148] Top shape: 1 1 (1)
I0925 21:27:13.333874 28244 net.cpp:156] Memory required for data: 10016
I0925 21:27:13.333889 28244 layer_factory.hpp:77] Creating layer lstm1_x_transform
I0925 21:27:13.333922 28244 net.cpp:91] Creating Layer lstm1_x_transform
I0925 21:27:13.333935 28244 net.cpp:425] lstm1_x_transform <- x
I0925 21:27:13.333956 28244 net.cpp:399] lstm1_x_transform -> W_xc_x
I0925 21:27:13.338524 28258 net.cpp:141] Setting up concat
I0925 21:27:13.338567 28258 net.cpp:148] Top shape: 1 1 1501 (1501)
I0925 21:27:13.338575 28258 net.cpp:156] Memory required for data: 32412
I0925 21:27:13.338587 28258 layer_factory.hpp:77] Creating layer lstm2
I0925 21:27:13.338629 28258 net.cpp:91] Creating Layer lstm2
I0925 21:27:13.338642 28258 net.cpp:425] lstm2 <- lstm1_video_sequence
I0925 21:27:13.338655 28258 net.cpp:425] lstm2 <- cont_sentence_input_1_split_1
I0925 21:27:13.338670 28258 net.cpp:399] lstm2 -> lstm2
I0925 21:27:13.338696 28258 recurrent_layer.cpp:20] Initializing recurrent layer: assuming input batch contains 1 timesteps of 1 independent streams.
I0925 21:27:13.339124 28258 net.cpp:49] Initializing net from parameters: 
layer {
  name: "lstm2_"
  type: "Input"
  top: "x"
  top: "cont"
  input_param {
    shape {
      dim: 1
      dim: 1
      dim: 1501
    }
    shape {
      dim: 1
      dim: 1
    }
  }
}
layer {
  name: "lstm2_"
  type: "Input"
  top: "c_0"
  top: "h_0"
  input_param {
    shape {
      dim: 1
      dim: 1
      dim: 1000
    }
    shape {
      dim: 1
      dim: 1
      dim: 1000
    }
  }
}
layer {
  name: "lstm2_cont_slice"
  type: "Slice"
  bottom: "cont"
  top: "cont_1"
  slice_param {
    axis: 0
  }
}
layer {
  name: "lstm2_x_transform"
  type: "InnerProduct"
  bottom: "x"
  top: "W_xc_x"
  param {
    name: "W_xc"
  }
  param {
    name: "b_c"
  }
  propagate_down: true
  inner_product_param {
    num_output: 4000
    bias_term: true
    weight_filler {
      type: "uniform"
      min: -0.08
      max: 0.08
    }
    bias_filler {
      type: "constant"
      value: 0
    }
    axis: 2
  }
}
layer {
  name: "lstm2_W_xc_x_slice"
  type: "Slice"
  bottom: "W_xc_x"
  top: "W_xc_x_1"
  slice_param {
    axis: 0
  }
}
layer {
  name: "lstm2_h_conted_0"
  type: "Scale"
  bottom: "h_0"
  bottom: "cont_1"
  top: "h_conted_0"
  scale_param {
    axis: 0
  }
}
layer {
  name: "lstm2_transform_1"
  type: "InnerProduct"
  bottom: "h_conted_0"
  top: "W_hc_h_0"
  param {
    name: "W_hc"
  }
  inner_product_param {
    num_output: 4000
    bias_term: false
    weight_filler {
      type: "uniform"
      min: -0.08
      max: 0.08
    }
    axis: 2
  }
}
layer {
  name: "lstm2_gate_input_1"
  type: "Eltwise"
  bottom: "W_hc_h_0"
  bottom: "W_xc_x_1"
  top: "gate_input_1"
  eltwise_param {
    operation: SUM
  }
}
layer {
  name: "lstm2_unit_1"
  type: "LSTMUnit"
  bottom: "c_0"
  bottom: "gate_input_1"
  bottom: "cont_1"
  top: "c_1"
  top: "h_1"
}
layer {
  name: "lstm2_"
  type: "Split"
  bottom: "c_1"
  top: "c_T"
}
layer {
  name: "lstm2_h_concat"
  type: "Concat"
  bottom: "h_1"
  top: "h"
  concat_param {
    axis: 0
  }
}
layer {
  name: "h_pseudoloss"
  type: "Reduction"
  bottom: "h"
  top: "h_pseudoloss"
  loss_weight: 1
}
I0925 21:27:13.339269 28258 layer_factory.hpp:77] Creating layer lstm2_
I0925 21:27:13.339288 28258 net.cpp:91] Creating Layer lstm2_
I0925 21:27:13.339305 28258 net.cpp:399] lstm2_ -> x
I0925 21:27:13.339323 28258 net.cpp:399] lstm2_ -> cont
I0925 21:27:13.344403 28258 net.cpp:141] Setting up lstm2_
I0925 21:27:13.344422 28258 net.cpp:148] Top shape: 1 1 1501 (1501)
I0925 21:27:13.344434 28258 net.cpp:148] Top shape: 1 1 (1)
I0925 21:27:13.344441 28258 net.cpp:156] Memory required for data: 6008
I0925 21:27:13.344449 28258 layer_factory.hpp:77] Creating layer lstm2_
I0925 21:27:13.344465 28258 net.cpp:91] Creating Layer lstm2_
I0925 21:27:13.344475 28258 net.cpp:399] lstm2_ -> c_0
I0925 21:27:13.344492 28258 net.cpp:399] lstm2_ -> h_0
I0925 21:27:13.345639 28258 net.cpp:141] Setting up lstm2_
I0925 21:27:13.345657 28258 net.cpp:148] Top shape: 1 1 1000 (1000)
I0925 21:27:13.345667 28258 net.cpp:148] Top shape: 1 1 1000 (1000)
I0925 21:27:13.345674 28258 net.cpp:156] Memory required for data: 14008
I0925 21:27:13.345682 28258 layer_factory.hpp:77] Creating layer lstm2_cont_slice
I0925 21:27:13.345696 28258 net.cpp:91] Creating Layer lstm2_cont_slice
I0925 21:27:13.345706 28258 net.cpp:425] lstm2_cont_slice <- cont
I0925 21:27:13.345721 28258 net.cpp:399] lstm2_cont_slice -> cont_1
I0925 21:27:13.346082 28258 net.cpp:141] Setting up lstm2_cont_slice
I0925 21:27:13.346098 28258 net.cpp:148] Top shape: 1 1 (1)
I0925 21:27:13.346107 28258 net.cpp:156] Memory required for data: 14012
I0925 21:27:13.346114 28258 layer_factory.hpp:77] Creating layer cont_1_lstm2_cont_slice_0_split
I0925 21:27:13.346127 28258 net.cpp:91] Creating Layer cont_1_lstm2_cont_slice_0_split
I0925 21:27:13.346134 28258 net.cpp:425] cont_1_lstm2_cont_slice_0_split <- cont_1
I0925 21:27:13.346145 28258 net.cpp:399] cont_1_lstm2_cont_slice_0_split -> cont_1_lstm2_cont_slice_0_split_0
I0925 21:27:13.346163 28258 net.cpp:399] cont_1_lstm2_cont_slice_0_split -> cont_1_lstm2_cont_slice_0_split_1
I0925 21:27:13.346335 28264 net.cpp:141] Setting up lstm2_x_transform
I0925 21:27:13.346381 28264 net.cpp:148] Top shape: 1 1 4000 (4000)
I0925 21:27:13.346390 28264 net.cpp:156] Memory required for data: 30020
I0925 21:27:13.346417 28264 layer_factory.hpp:77] Creating layer lstm2_W_xc_x_slice
I0925 21:27:13.346441 28264 net.cpp:91] Creating Layer lstm2_W_xc_x_slice
I0925 21:27:13.346453 28264 net.cpp:425] lstm2_W_xc_x_slice <- W_xc_x
I0925 21:27:13.346467 28264 net.cpp:399] lstm2_W_xc_x_slice -> W_xc_x_1
I0925 21:27:13.349367 28264 net.cpp:141] Setting up lstm2_W_xc_x_slice
I0925 21:27:13.349390 28264 net.cpp:148] Top shape: 1 1 4000 (4000)
I0925 21:27:13.349400 28264 net.cpp:156] Memory required for data: 46020
I0925 21:27:13.349408 28264 layer_factory.hpp:77] Creating layer lstm2_h_conted_0
I0925 21:27:13.349429 28264 net.cpp:91] Creating Layer lstm2_h_conted_0
I0925 21:27:13.349439 28264 net.cpp:425] lstm2_h_conted_0 <- h_0
I0925 21:27:13.349450 28264 net.cpp:425] lstm2_h_conted_0 <- cont_1_lstm2_cont_slice_0_split_0
I0925 21:27:13.349463 28264 net.cpp:399] lstm2_h_conted_0 -> h_conted_0
I0925 21:27:13.362088 28258 net.cpp:141] Setting up cont_1_lstm2_cont_slice_0_split
I0925 21:27:13.362150 28258 net.cpp:148] Top shape: 1 1 (1)
I0925 21:27:13.362166 28258 net.cpp:148] Top shape: 1 1 (1)
I0925 21:27:13.362175 28258 net.cpp:156] Memory required for data: 14020
I0925 21:27:13.362187 28258 layer_factory.hpp:77] Creating layer lstm2_x_transform
I0925 21:27:13.362223 28258 net.cpp:91] Creating Layer lstm2_x_transform
I0925 21:27:13.362237 28258 net.cpp:425] lstm2_x_transform <- x
I0925 21:27:13.362254 28258 net.cpp:399] lstm2_x_transform -> W_xc_x
I0925 21:27:13.362557 28264 net.cpp:141] Setting up lstm2_h_conted_0
I0925 21:27:13.362572 28264 net.cpp:148] Top shape: 1 1 1000 (1000)
I0925 21:27:13.362577 28264 net.cpp:156] Memory required for data: 50020
I0925 21:27:13.362584 28264 layer_factory.hpp:77] Creating layer lstm2_transform_1
I0925 21:27:13.362668 28264 net.cpp:91] Creating Layer lstm2_transform_1
I0925 21:27:13.362679 28264 net.cpp:425] lstm2_transform_1 <- h_conted_0
I0925 21:27:13.362691 28264 net.cpp:399] lstm2_transform_1 -> W_hc_h_0
I0925 21:27:13.377032 28240 net.cpp:141] Setting up lstm1_x_transform
I0925 21:27:13.377086 28240 net.cpp:148] Top shape: 1 1 4000 (4000)
I0925 21:27:13.377097 28240 net.cpp:156] Memory required for data: 26016
I0925 21:27:13.377130 28240 layer_factory.hpp:77] Creating layer lstm1_W_xc_x_slice
I0925 21:27:13.377154 28240 net.cpp:91] Creating Layer lstm1_W_xc_x_slice
I0925 21:27:13.377167 28240 net.cpp:425] lstm1_W_xc_x_slice <- W_xc_x
I0925 21:27:13.377184 28240 net.cpp:399] lstm1_W_xc_x_slice -> W_xc_x_1
I0925 21:27:13.377256 28244 net.cpp:141] Setting up lstm1_x_transform
I0925 21:27:13.377295 28244 net.cpp:148] Top shape: 1 1 4000 (4000)
I0925 21:27:13.377311 28244 net.cpp:156] Memory required for data: 26016
I0925 21:27:13.377346 28244 layer_factory.hpp:77] Creating layer lstm1_W_xc_x_slice
I0925 21:27:13.377373 28244 net.cpp:91] Creating Layer lstm1_W_xc_x_slice
I0925 21:27:13.377393 28244 net.cpp:425] lstm1_W_xc_x_slice <- W_xc_x
I0925 21:27:13.377418 28244 net.cpp:399] lstm1_W_xc_x_slice -> W_xc_x_1
I0925 21:27:13.385850 28240 net.cpp:141] Setting up lstm1_W_xc_x_slice
I0925 21:27:13.385895 28244 net.cpp:141] Setting up lstm1_W_xc_x_slice
I0925 21:27:13.385918 28244 net.cpp:148] Top shape: 1 1 4000 (4000)
I0925 21:27:13.385920 28240 net.cpp:148] Top shape: 1 1 4000 (4000)
I0925 21:27:13.385927 28244 net.cpp:156] Memory required for data: 42016
I0925 21:27:13.385932 28240 net.cpp:156] Memory required for data: 42016
I0925 21:27:13.385941 28244 layer_factory.hpp:77] Creating layer lstm1_h_conted_0
I0925 21:27:13.385944 28240 layer_factory.hpp:77] Creating layer lstm1_h_conted_0
I0925 21:27:13.385965 28240 net.cpp:91] Creating Layer lstm1_h_conted_0
I0925 21:27:13.385977 28240 net.cpp:425] lstm1_h_conted_0 <- h_0
I0925 21:27:13.385994 28240 net.cpp:425] lstm1_h_conted_0 <- cont_1_lstm1_cont_slice_0_split_0
I0925 21:27:13.386003 28244 net.cpp:91] Creating Layer lstm1_h_conted_0
I0925 21:27:13.386010 28240 net.cpp:399] lstm1_h_conted_0 -> h_conted_0
I0925 21:27:13.386018 28244 net.cpp:425] lstm1_h_conted_0 <- h_0
I0925 21:27:13.386029 28244 net.cpp:425] lstm1_h_conted_0 <- cont_1_lstm1_cont_slice_0_split_0
I0925 21:27:13.386042 28244 net.cpp:399] lstm1_h_conted_0 -> h_conted_0
I0925 21:27:13.403872 28240 net.cpp:141] Setting up lstm1_h_conted_0
I0925 21:27:13.403926 28240 net.cpp:148] Top shape: 1 1 1000 (1000)
I0925 21:27:13.403934 28240 net.cpp:156] Memory required for data: 46016
I0925 21:27:13.403944 28240 layer_factory.hpp:77] Creating layer lstm1_transform_1
I0925 21:27:13.403967 28240 net.cpp:91] Creating Layer lstm1_transform_1
I0925 21:27:13.403977 28240 net.cpp:425] lstm1_transform_1 <- h_conted_0
I0925 21:27:13.403992 28240 net.cpp:399] lstm1_transform_1 -> W_hc_h_0
I0925 21:27:13.404165 28244 net.cpp:141] Setting up lstm1_h_conted_0
I0925 21:27:13.404203 28244 net.cpp:148] Top shape: 1 1 1000 (1000)
I0925 21:27:13.404209 28244 net.cpp:156] Memory required for data: 46016
I0925 21:27:13.404218 28244 layer_factory.hpp:77] Creating layer lstm1_transform_1
I0925 21:27:13.404240 28244 net.cpp:91] Creating Layer lstm1_transform_1
I0925 21:27:13.404248 28244 net.cpp:425] lstm1_transform_1 <- h_conted_0
I0925 21:27:13.404260 28244 net.cpp:399] lstm1_transform_1 -> W_hc_h_0
I0925 21:27:13.424010 28264 net.cpp:141] Setting up lstm2_transform_1
I0925 21:27:13.424067 28264 net.cpp:148] Top shape: 1 1 4000 (4000)
I0925 21:27:13.424073 28264 net.cpp:156] Memory required for data: 66020
I0925 21:27:13.424094 28264 layer_factory.hpp:77] Creating layer lstm2_gate_input_1
I0925 21:27:13.424115 28264 net.cpp:91] Creating Layer lstm2_gate_input_1
I0925 21:27:13.424127 28264 net.cpp:425] lstm2_gate_input_1 <- W_hc_h_0
I0925 21:27:13.424137 28264 net.cpp:425] lstm2_gate_input_1 <- W_xc_x_1
I0925 21:27:13.424147 28264 net.cpp:399] lstm2_gate_input_1 -> gate_input_1
I0925 21:27:13.424207 28264 net.cpp:141] Setting up lstm2_gate_input_1
I0925 21:27:13.424218 28264 net.cpp:148] Top shape: 1 1 4000 (4000)
I0925 21:27:13.424223 28264 net.cpp:156] Memory required for data: 82020
I0925 21:27:13.424229 28264 layer_factory.hpp:77] Creating layer lstm2_unit_1
I0925 21:27:13.424243 28264 net.cpp:91] Creating Layer lstm2_unit_1
I0925 21:27:13.424249 28264 net.cpp:425] lstm2_unit_1 <- c_0
I0925 21:27:13.424257 28264 net.cpp:425] lstm2_unit_1 <- gate_input_1
I0925 21:27:13.424263 28264 net.cpp:425] lstm2_unit_1 <- cont_1_lstm2_cont_slice_0_split_1
I0925 21:27:13.424270 28264 net.cpp:399] lstm2_unit_1 -> c_1
I0925 21:27:13.424281 28264 net.cpp:399] lstm2_unit_1 -> h_1
I0925 21:27:13.424365 28264 net.cpp:141] Setting up lstm2_unit_1
I0925 21:27:13.424376 28264 net.cpp:148] Top shape: 1 1 1000 (1000)
I0925 21:27:13.424383 28264 net.cpp:148] Top shape: 1 1 1000 (1000)
I0925 21:27:13.424388 28264 net.cpp:156] Memory required for data: 90020
I0925 21:27:13.424397 28264 layer_factory.hpp:77] Creating layer lstm2_
I0925 21:27:13.424414 28264 net.cpp:91] Creating Layer lstm2_
I0925 21:27:13.424425 28264 net.cpp:425] lstm2_ <- c_1
I0925 21:27:13.424444 28264 net.cpp:399] lstm2_ -> c_T
I0925 21:27:13.424509 28264 net.cpp:141] Setting up lstm2_
I0925 21:27:13.424520 28264 net.cpp:148] Top shape: 1 1 1000 (1000)
I0925 21:27:13.424526 28264 net.cpp:156] Memory required for data: 94020
I0925 21:27:13.424532 28264 layer_factory.hpp:77] Creating layer lstm2_h_concat
I0925 21:27:13.424543 28264 net.cpp:91] Creating Layer lstm2_h_concat
I0925 21:27:13.424549 28264 net.cpp:425] lstm2_h_concat <- h_1
I0925 21:27:13.424557 28264 net.cpp:399] lstm2_h_concat -> h
I0925 21:27:13.424609 28264 net.cpp:141] Setting up lstm2_h_concat
I0925 21:27:13.424620 28264 net.cpp:148] Top shape: 1 1 1000 (1000)
I0925 21:27:13.424625 28264 net.cpp:156] Memory required for data: 98020
I0925 21:27:13.424630 28264 layer_factory.hpp:77] Creating layer h_pseudoloss
I0925 21:27:13.424641 28264 net.cpp:91] Creating Layer h_pseudoloss
I0925 21:27:13.424648 28264 net.cpp:425] h_pseudoloss <- h
I0925 21:27:13.424657 28264 net.cpp:399] h_pseudoloss -> h_pseudoloss
I0925 21:27:13.424770 28264 net.cpp:141] Setting up h_pseudoloss
…
I0925 21:27:13.424886 28264 net.cpp:219] lstm2_ does not need backward computation.
I0925 21:27:13.424890 28264 net.cpp:261] This network produces output c_T
I0925 21:27:13.424896 28264 net.cpp:261] This network produces output h_pseudoloss
I0925 21:27:13.424913 28264 net.cpp:274] Network initialization done.
I0925 21:27:13.424968 28264 recurrent_layer.cpp:150] Adding parameter 0: W_xc
I0925 21:27:13.424975 28264 recurrent_layer.cpp:150] Adding parameter 1: b_c
I0925 21:27:13.424980 28264 recurrent_layer.cpp:150] Adding parameter 2: W_hc
I0925 21:27:13.433835 28264 net.cpp:141] Setting up lstm2
I0925 21:27:13.433887 28264 net.cpp:148] Top shape: 1 1 1000 (1000)
I0925 21:27:13.433894 28264 net.cpp:156] Memory required for data: 36412
I0925 21:27:13.433915 28264 layer_factory.hpp:77] Creating layer predict
I0925 21:27:13.433935 28264 net.cpp:91] Creating Layer predict
I0925 21:27:13.433943 28264 net.cpp:425] predict <- lstm2
I0925 21:27:13.433954 28264 net.cpp:399] predict -> predict
I0925 21:27:13.539841 28240 net.cpp:141] Setting up lstm1_transform_1
I0925 21:27:13.539876 28244 net.cpp:141] Setting up lstm1_transform_1
I0925 21:27:13.539911 28244 net.cpp:148] Top shape: 1 1 4000 (4000)
I0925 21:27:13.539911 28240 net.cpp:148] Top shape: 1 1 4000 (4000)
I0925 21:27:13.539921 28244 net.cpp:156] Memory required for data: 62016
I0925 21:27:13.539927 28240 net.cpp:156] Memory required for data: 62016
I0925 21:27:13.539942 28244 layer_factory.hpp:77] Creating layer lstm1_gate_input_1
I0925 21:27:13.539945 28240 layer_factory.hpp:77] Creating layer lstm1_gate_input_1
I0925 21:27:13.539966 28244 net.cpp:91] Creating Layer lstm1_gate_input_1
I0925 21:27:13.539976 28244 net.cpp:425] lstm1_gate_input_1 <- W_hc_h_0
I0925 21:27:13.539984 28244 net.cpp:425] lstm1_gate_input_1 <- W_xc_x_1
I0925 21:27:13.539994 28244 net.cpp:399] lstm1_gate_input_1 -> gate_input_1
I0925 21:27:13.540006 28240 net.cpp:91] Creating Layer lstm1_gate_input_1
I0925 21:27:13.540021 28240 net.cpp:425] lstm1_gate_input_1 <- W_hc_h_0
I0925 21:27:13.540035 28240 net.cpp:425] lstm1_gate_input_1 <- W_xc_x_1
I0925 21:27:13.540053 28240 net.cpp:399] lstm1_gate_input_1 -> gate_input_1
I0925 21:27:13.540063 28244 net.cpp:141] Setting up lstm1_gate_input_1
I0925 21:27:13.540076 28244 net.cpp:148] Top shape: 1 1 4000 (4000)
I0925 21:27:13.540081 28244 net.cpp:156] Memory required for data: 78016
I0925 21:27:13.540087 28244 layer_factory.hpp:77] Creating layer lstm1_unit_1
I0925 21:27:13.540097 28244 net.cpp:91] Creating Layer lstm1_unit_1
I0925 21:27:13.540103 28244 net.cpp:425] lstm1_unit_1 <- c_0
I0925 21:27:13.540110 28244 net.cpp:425] lstm1_unit_1 <- gate_input_1
I0925 21:27:13.540117 28244 net.cpp:425] lstm1_unit_1 <- cont_1_lstm1_cont_slice_0_split_1
I0925 21:27:13.540125 28244 net.cpp:399] lstm1_unit_1 -> c_1
I0925 21:27:13.540136 28244 net.cpp:399] lstm1_unit_1 -> h_1
I0925 21:27:13.540222 28258 net.cpp:141] Setting up lstm2_x_transform
I0925 21:27:13.540268 28258 net.cpp:148] Top shape: 1 1 4000 (4000)
I0925 21:27:13.540278 28258 net.cpp:156] Memory required for data: 30020
I0925 21:27:13.540292 28240 net.cpp:141] Setting up lstm1_gate_input_1
I0925 21:27:13.540305 28258 layer_factory.hpp:77] Creating layer lstm2_W_xc_x_slice
I0925 21:27:13.540313 28240 net.cpp:148] Top shape: 1 1 4000 (4000)
I0925 21:27:13.540323 28240 net.cpp:156] Memory required for data: 78016
I0925 21:27:13.540333 28240 layer_factory.hpp:77] Creating layer lstm1_unit_1
I0925 21:27:13.540335 28258 net.cpp:91] Creating Layer lstm2_W_xc_x_slice
I0925 21:27:13.540347 28258 net.cpp:425] lstm2_W_xc_x_slice <- W_xc_x
I0925 21:27:13.540359 28240 net.cpp:91] Creating Layer lstm1_unit_1
I0925 21:27:13.540360 28258 net.cpp:399] lstm2_W_xc_x_slice -> W_xc_x_1
I0925 21:27:13.540379 28240 net.cpp:425] lstm1_unit_1 <- c_0
I0925 21:27:13.540381 28244 net.cpp:141] Setting up lstm1_unit_1
I0925 21:27:13.540391 28240 net.cpp:425] lstm1_unit_1 <- gate_input_1
I0925 21:27:13.540395 28244 net.cpp:148] Top shape: 1 1 1000 (1000)
I0925 21:27:13.540402 28240 net.cpp:425] lstm1_unit_1 <- cont_1_lstm1_cont_slice_0_split_1
I0925 21:27:13.540403 28244 net.cpp:148] Top shape: 1 1 1000 (1000)
I0925 21:27:13.540422 28240 net.cpp:399] lstm1_unit_1 -> c_1
I0925 21:27:13.540446 28244 net.cpp:156] Memory required for data: 86016
I0925 21:27:13.540454 28244 layer_factory.hpp:77] Creating layer lstm1_
I0925 21:27:13.540460 28258 net.cpp:141] Setting up lstm2_W_xc_x_slice
I0925 21:27:13.540463 28240 net.cpp:399] lstm1_unit_1 -> h_1
I0925 21:27:13.540478 28244 net.cpp:91] Creating Layer lstm1_
I0925 21:27:13.540493 28244 net.cpp:425] lstm1_ <- c_1
I0925 21:27:13.540478 28258 net.cpp:148] Top shape: 1 1 4000 (4000)
I0925 21:27:13.540504 28244 net.cpp:399] lstm1_ -> c_T
I0925 21:27:13.540504 28258 net.cpp:156] Memory required for data: 46020
I0925 21:27:13.540515 28258 layer_factory.hpp:77] Creating layer lstm2_h_conted_0
I0925 21:27:13.540536 28258 net.cpp:91] Creating Layer lstm2_h_conted_0
I0925 21:27:13.540547 28258 net.cpp:425] lstm2_h_conted_0 <- h_0
I0925 21:27:13.540557 28258 net.cpp:425] lstm2_h_conted_0 <- cont_1_lstm2_cont_slice_0_split_0
I0925 21:27:13.540571 28258 net.cpp:399] lstm2_h_conted_0 -> h_conted_0
I0925 21:27:13.540602 28244 net.cpp:141] Setting up lstm1_
I0925 21:27:13.540616 28244 net.cpp:148] Top shape: 1 1 1000 (1000)
I0925 21:27:13.540621 28244 net.cpp:156] Memory required for data: 90016
I0925 21:27:13.540627 28244 layer_factory.hpp:77] Creating layer lstm1_h_concat
I0925 21:27:13.540638 28244 net.cpp:91] Creating Layer lstm1_h_concat
I0925 21:27:13.540644 28244 net.cpp:425] lstm1_h_concat <- h_1
I0925 21:27:13.540657 28244 net.cpp:399] lstm1_h_concat -> h
I0925 21:27:13.540696 28240 net.cpp:141] Setting up lstm1_unit_1
I0925 21:27:13.540717 28240 net.cpp:148] Top shape: 1 1 1000 (1000)
I0925 21:27:13.540730 28240 net.cpp:148] Top shape: 1 1 1000 (1000)
I0925 21:27:13.540740 28240 net.cpp:156] Memory required for data: 86016
I0925 21:27:13.540748 28240 layer_factory.hpp:77] Creating layer lstm1_
I0925 21:27:13.540761 28240 net.cpp:91] Creating Layer lstm1_
I0925 21:27:13.540769 28240 net.cpp:425] lstm1_ <- c_1
I0925 21:27:13.540781 28240 net.cpp:399] lstm1_ -> c_T
I0925 21:27:13.540866 28258 net.cpp:141] Setting up lstm2_h_conted_0
I0925 21:27:13.540884 28258 net.cpp:148] Top shape: 1 1 1000 (1000)
I0925 21:27:13.540891 28258 net.cpp:156] Memory required for data: 50020
I0925 21:27:13.540899 28258 layer_factory.hpp:77] Creating layer lstm2_transform_1
I0925 21:27:13.540923 28258 net.cpp:91] Creating Layer lstm2_transform_1
I0925 21:27:13.540933 28258 net.cpp:425] lstm2_transform_1 <- h_conted_0
I0925 21:27:13.540947 28258 net.cpp:399] lstm2_transform_1 -> W_hc_h_0
I0925 21:27:13.540948 28240 net.cpp:141] Setting up lstm1_
I0925 21:27:13.540969 28240 net.cpp:148] Top shape: 1 1 1000 (1000)
I0925 21:27:13.540984 28240 net.cpp:156] Memory required for data: 90016
I0925 21:27:13.540994 28240 layer_factory.hpp:77] Creating layer lstm1_h_concat
I0925 21:27:13.540997 28244 net.cpp:141] Setting up lstm1_h_concat
I0925 21:27:13.541008 28240 net.cpp:91] Creating Layer lstm1_h_concat
I0925 21:27:13.541019 28240 net.cpp:425] lstm1_h_concat <- h_1
I0925 21:27:13.541020 28244 net.cpp:148] Top shape: 1 1 1000 (1000)
I0925 21:27:13.541033 28240 net.cpp:399] lstm1_h_concat -> h
I0925 21:27:13.541033 28244 net.cpp:156] Memory required for data: 94016
I0925 21:27:13.541059 28244 layer_factory.hpp:77] Creating layer h_pseudoloss
I0925 21:27:13.541076 28244 net.cpp:91] Creating Layer h_pseudoloss
I0925 21:27:13.541088 28244 net.cpp:425] h_pseudoloss <- h
I0925 21:27:13.541103 28244 net.cpp:399] h_pseudoloss -> h_pseudoloss
I0925 21:27:13.541127 28240 net.cpp:141] Setting up lstm1_h_concat
I0925 21:27:13.541144 28240 net.cpp:148] Top shape: 1 1 1000 (1000)
I0925 21:27:13.541152 28240 net.cpp:156] Memory required for data: 94016
I0925 21:27:13.541160 28240 layer_factory.hpp:77] Creating layer h_pseudoloss
I0925 21:27:13.541174 28240 net.cpp:91] Creating Layer h_pseudoloss
I0925 21:27:13.541183 28240 net.cpp:425] h_pseudoloss <- h
I0925 21:27:13.541206 28240 net.cpp:399] h_pseudoloss -> h_pseudoloss
I0925 21:27:13.554939 28244 net.cpp:141] Setting up h_pseudoloss
…
I0925 21:27:13.555227 28244 net.cpp:219] lstm1_ does not need backward computation.
I0925 21:27:13.555235 28244 net.cpp:261] This network produces output c_T
I0925 21:27:13.555248 28244 net.cpp:261] This network produces output h_pseudoloss
I0925 21:27:13.555276 28244 net.cpp:274] Network initialization done.
I0925 21:27:13.555367 28244 recurrent_layer.cpp:150] Adding parameter 0: W_xc
I0925 21:27:13.555382 28244 recurrent_layer.cpp:150] Adding parameter 1: b_c
I0925 21:27:13.555392 28244 recurrent_layer.cpp:150] Adding parameter 2: W_hc
I0925 21:27:13.555578 28244 net.cpp:141] Setting up lstm1
I0925 21:27:13.555599 28244 net.cpp:148] Top shape: 1 1 1000 (1000)
I0925 21:27:13.555609 28244 net.cpp:156] Memory required for data: 26408
I0925 21:27:13.555636 28244 layer_factory.hpp:77] Creating layer concat
I0925 21:27:13.555662 28244 net.cpp:91] Creating Layer concat
I0925 21:27:13.555675 28244 net.cpp:425] concat <- lstm1
I0925 21:27:13.555688 28244 net.cpp:425] concat <- embedded_input_sentence
I0925 21:27:13.555701 28244 net.cpp:425] concat <- reshaped_stage_indicator
I0925 21:27:13.555716 28244 net.cpp:399] concat -> lstm1_video_sequence
I0925 21:27:13.555783 28244 net.cpp:141] Setting up concat
I0925 21:27:13.555799 28244 net.cpp:148] Top shape: 1 1 1501 (1501)
I0925 21:27:13.555809 28244 net.cpp:156] Memory required for data: 32412
I0925 21:27:13.555817 28244 layer_factory.hpp:77] Creating layer lstm2
I0925 21:27:13.555840 28244 net.cpp:91] Creating Layer lstm2
I0925 21:27:13.555850 28244 net.cpp:425] lstm2 <- lstm1_video_sequence
I0925 21:27:13.555861 28244 net.cpp:425] lstm2 <- cont_sentence_input_1_split_1
I0925 21:27:13.555876 28244 net.cpp:399] lstm2 -> lstm2
I0925 21:27:13.555896 28244 recurrent_layer.cpp:20] Initializing recurrent layer: assuming input batch contains 1 timesteps of 1 independent streams.
I0925 21:27:13.556329 28244 net.cpp:49] Initializing net from parameters: 
layer {
  name: "lstm2_"
  type: "Input"
  top: "x"
  top: "cont"
  input_param {
    shape {
      dim: 1
      dim: 1
      dim: 1501
    }
    shape {
      dim: 1
      dim: 1
    }
  }
}
layer {
  name: "lstm2_"
  type: "Input"
  top: "c_0"
  top: "h_0"
  input_param {
    shape {
      dim: 1
      dim: 1
      dim: 1000
    }
    shape {
      dim: 1
      dim: 1
      dim: 1000
    }
  }
}
layer {
  name: "lstm2_cont_slice"
  type: "Slice"
  bottom: "cont"
  top: "cont_1"
  slice_param {
    axis: 0
  }
}
layer {
  name: "lstm2_x_transform"
  type: "InnerProduct"
  bottom: "x"
  top: "W_xc_x"
  param {
    name: "W_xc"
  }
  param {
    name: "b_c"
  }
  propagate_down: true
  inner_product_param {
    num_output: 4000
    bias_term: true
    weight_filler {
      type: "uniform"
      min: -0.08
      max: 0.08
    }
    bias_filler {
      type: "constant"
      value: 0
    }
    axis: 2
  }
}
layer {
  name: "lstm2_W_xc_x_slice"
  type: "Slice"
  bottom: "W_xc_x"
  top: "W_xc_x_1"
  slice_param {
    axis: 0
  }
}
layer {
  name: "lstm2_h_conted_0"
  type: "Scale"
  bottom: "h_0"
  bottom: "cont_1"
  top: "h_conted_0"
  scale_param {
    axis: 0
  }
}
layer {
  name: "lstm2_transform_1"
  type: "InnerProduct"
  bottom: "h_conted_0"
  top: "W_hc_h_0"
  param {
    name: "W_hc"
  }
  inner_product_param {
    num_output: 4000
    bias_term: false
    weight_filler {
      type: "uniform"
      min: -0.08
      max: 0.08
    }
    axis: 2
  }
}
layer {
  name: "lstm2_gate_input_1"
  type: "Eltwise"
  bottom: "W_hc_h_0"
  bottom: "W_xc_x_1"
  top: "gate_input_1"
  eltwise_param {
    operation: SUM
  }
}
layer {
  name: "lstm2_unit_1"
  type: "LSTMUnit"
  bottom: "c_0"
  bottom: "gate_input_1"
  bottom: "cont_1"
  top: "c_1"
  top: "h_1"
}
layer {
  name: "lstm2_"
  type: "Split"
  bottom: "c_1"
  top: "c_T"
}
layer {
  name: "lstm2_h_concat"
  type: "Concat"
  bottom: "h_1"
  top: "h"
  concat_param {
    axis: 0
  }
}
layer {
  name: "h_pseudoloss"
  type: "Reduction"
  bottom: "h"
  top: "h_pseudoloss"
  loss_weight: 1
}
I0925 21:27:13.556496 28244 layer_factory.hpp:77] Creating layer lstm2_
I0925 21:27:13.556519 28244 net.cpp:91] Creating Layer lstm2_
I0925 21:27:13.556532 28244 net.cpp:399] lstm2_ -> x
I0925 21:27:13.556551 28244 net.cpp:399] lstm2_ -> cont
I0925 21:27:13.556658 28244 net.cpp:141] Setting up lstm2_
I0925 21:27:13.556677 28244 net.cpp:148] Top shape: 1 1 1501 (1501)
I0925 21:27:13.556689 28244 net.cpp:148] Top shape: 1 1 (1)
I0925 21:27:13.556699 28244 net.cpp:156] Memory required for data: 6008
I0925 21:27:13.556707 28244 layer_factory.hpp:77] Creating layer lstm2_
I0925 21:27:13.556725 28244 net.cpp:91] Creating Layer lstm2_
I0925 21:27:13.556742 28244 net.cpp:399] lstm2_ -> c_0
I0925 21:27:13.556761 28244 net.cpp:399] lstm2_ -> h_0
I0925 21:27:13.556865 28244 net.cpp:141] Setting up lstm2_
I0925 21:27:13.556885 28244 net.cpp:148] Top shape: 1 1 1000 (1000)
I0925 21:27:13.556898 28244 net.cpp:148] Top shape: 1 1 1000 (1000)
I0925 21:27:13.556907 28244 net.cpp:156] Memory required for data: 14008
I0925 21:27:13.556916 28244 layer_factory.hpp:77] Creating layer lstm2_cont_slice
I0925 21:27:13.556932 28244 net.cpp:91] Creating Layer lstm2_cont_slice
I0925 21:27:13.556943 28244 net.cpp:425] lstm2_cont_slice <- cont
I0925 21:27:13.556957 28244 net.cpp:399] lstm2_cont_slice -> cont_1
I0925 21:27:13.557026 28244 net.cpp:141] Setting up lstm2_cont_slice
I0925 21:27:13.557045 28244 net.cpp:148] Top shape: 1 1 (1)
I0925 21:27:13.557054 28244 net.cpp:156] Memory required for data: 14012
I0925 21:27:13.557065 28244 layer_factory.hpp:77] Creating layer cont_1_lstm2_cont_slice_0_split
I0925 21:27:13.557082 28244 net.cpp:91] Creating Layer cont_1_lstm2_cont_slice_0_split
I0925 21:27:13.557092 28244 net.cpp:425] cont_1_lstm2_cont_slice_0_split <- cont_1
I0925 21:27:13.557106 28244 net.cpp:399] cont_1_lstm2_cont_slice_0_split -> cont_1_lstm2_cont_slice_0_split_0
I0925 21:27:13.557126 28244 net.cpp:399] cont_1_lstm2_cont_slice_0_split -> cont_1_lstm2_cont_slice_0_split_1
I0925 21:27:13.557224 28244 net.cpp:141] Setting up cont_1_lstm2_cont_slice_0_split
I0925 21:27:13.557242 28244 net.cpp:148] Top shape: 1 1 (1)
I0925 21:27:13.557255 28244 net.cpp:148] Top shape: 1 1 (1)
I0925 21:27:13.557265 28244 net.cpp:156] Memory required for data: 14020
I0925 21:27:13.557276 28244 layer_factory.hpp:77] Creating layer lstm2_x_transform
I0925 21:27:13.557294 28244 net.cpp:91] Creating Layer lstm2_x_transform
I0925 21:27:13.557306 28244 net.cpp:425] lstm2_x_transform <- x
I0925 21:27:13.557327 28244 net.cpp:399] lstm2_x_transform -> W_xc_x
I0925 21:27:13.570713 28240 net.cpp:141] Setting up h_pseudoloss
…
I0925 21:27:13.571135 28240 net.cpp:219] lstm1_ does not need backward computation.
I0925 21:27:13.571148 28240 net.cpp:261] This network produces output c_T
I0925 21:27:13.571166 28240 net.cpp:261] This network produces output h_pseudoloss
I0925 21:27:13.571211 28240 net.cpp:274] Network initialization done.
I0925 21:27:13.571333 28240 recurrent_layer.cpp:150] Adding parameter 0: W_xc
I0925 21:27:13.571353 28240 recurrent_layer.cpp:150] Adding parameter 1: b_c
I0925 21:27:13.571368 28240 recurrent_layer.cpp:150] Adding parameter 2: W_hc
I0925 21:27:13.572331 28240 net.cpp:141] Setting up lstm1
I0925 21:27:13.572368 28240 net.cpp:148] Top shape: 1 1 1000 (1000)
I0925 21:27:13.572386 28240 net.cpp:156] Memory required for data: 26408
I0925 21:27:13.572429 28240 layer_factory.hpp:77] Creating layer concat
I0925 21:27:13.572465 28240 net.cpp:91] Creating Layer concat
I0925 21:27:13.572486 28240 net.cpp:425] concat <- lstm1
I0925 21:27:13.572509 28240 net.cpp:425] concat <- embedded_input_sentence
I0925 21:27:13.572530 28240 net.cpp:425] concat <- reshaped_stage_indicator
I0925 21:27:13.572553 28240 net.cpp:399] concat -> lstm1_video_sequence
I0925 21:27:13.573056 28240 net.cpp:141] Setting up concat
I0925 21:27:13.573087 28240 net.cpp:148] Top shape: 1 1 1501 (1501)
I0925 21:27:13.573103 28240 net.cpp:156] Memory required for data: 32412
I0925 21:27:13.573120 28240 layer_factory.hpp:77] Creating layer lstm2
I0925 21:27:13.573155 28240 net.cpp:91] Creating Layer lstm2
I0925 21:27:13.573175 28240 net.cpp:425] lstm2 <- lstm1_video_sequence
I0925 21:27:13.573196 28240 net.cpp:425] lstm2 <- cont_sentence_input_1_split_1
I0925 21:27:13.573225 28240 net.cpp:399] lstm2 -> lstm2
I0925 21:27:13.573261 28240 recurrent_layer.cpp:20] Initializing recurrent layer: assuming input batch contains 1 timesteps of 1 independent streams.
I0925 21:27:13.573823 28240 net.cpp:49] Initializing net from parameters: 
layer {
  name: "lstm2_"
  type: "Input"
  top: "x"
  top: "cont"
  input_param {
    shape {
      dim: 1
      dim: 1
      dim: 1501
    }
    shape {
      dim: 1
      dim: 1
    }
  }
}
layer {
  name: "lstm2_"
  type: "Input"
  top: "c_0"
  top: "h_0"
  input_param {
    shape {
      dim: 1
      dim: 1
      dim: 1000
    }
    shape {
      dim: 1
      dim: 1
      dim: 1000
    }
  }
}
layer {
  name: "lstm2_cont_slice"
  type: "Slice"
  bottom: "cont"
  top: "cont_1"
  slice_param {
    axis: 0
  }
}
layer {
  name: "lstm2_x_transform"
  type: "InnerProduct"
  bottom: "x"
  top: "W_xc_x"
  param {
    name: "W_xc"
  }
  param {
    name: "b_c"
  }
  propagate_down: true
  inner_product_param {
    num_output: 4000
    bias_term: true
    weight_filler {
      type: "uniform"
      min: -0.08
      max: 0.08
    }
    bias_filler {
      type: "constant"
      value: 0
    }
    axis: 2
  }
}
layer {
  name: "lstm2_W_xc_x_slice"
  type: "Slice"
  bottom: "W_xc_x"
  top: "W_xc_x_1"
  slice_param {
    axis: 0
  }
}
layer {
  name: "lstm2_h_conted_0"
  type: "Scale"
  bottom: "h_0"
  bottom: "cont_1"
  top: "h_conted_0"
  scale_param {
    axis: 0
  }
}
layer {
  name: "lstm2_transform_1"
  type: "InnerProduct"
  bottom: "h_conted_0"
  top: "W_hc_h_0"
  param {
    name: "W_hc"
  }
  inner_product_param {
    num_output: 4000
    bias_term: false
    weight_filler {
      type: "uniform"
      min: -0.08
      max: 0.08
    }
    axis: 2
  }
}
layer {
  name: "lstm2_gate_input_1"
  type: "Eltwise"
  bottom: "W_hc_h_0"
  bottom: "W_xc_x_1"
  top: "gate_input_1"
  eltwise_param {
    operation: SUM
  }
}
layer {
  name: "lstm2_unit_1"
  type: "LSTMUnit"
  bottom: "c_0"
  bottom: "gate_input_1"
  bottom: "cont_1"
  top: "c_1"
  top: "h_1"
}
layer {
  name: "lstm2_"
  type: "Split"
  bottom: "c_1"
  top: "c_T"
}
layer {
  name: "lstm2_h_concat"
  type: "Concat"
  bottom: "h_1"
  top: "h"
  concat_param {
    axis: 0
  }
}
layer {
  name: "h_pseudoloss"
  type: "Reduction"
  bottom: "h"
  top: "h_pseudoloss"
  loss_weight: 1
}
I0925 21:27:13.573978 28240 layer_factory.hpp:77] Creating layer lstm2_
I0925 21:27:13.573998 28240 net.cpp:91] Creating Layer lstm2_
I0925 21:27:13.574010 28240 net.cpp:399] lstm2_ -> x
I0925 21:27:13.574029 28240 net.cpp:399] lstm2_ -> cont
I0925 21:27:13.574173 28240 net.cpp:141] Setting up lstm2_
I0925 21:27:13.574190 28240 net.cpp:148] Top shape: 1 1 1501 (1501)
I0925 21:27:13.574203 28240 net.cpp:148] Top shape: 1 1 (1)
I0925 21:27:13.574210 28240 net.cpp:156] Memory required for data: 6008
I0925 21:27:13.574218 28240 layer_factory.hpp:77] Creating layer lstm2_
I0925 21:27:13.574240 28240 net.cpp:91] Creating Layer lstm2_
I0925 21:27:13.574252 28240 net.cpp:399] lstm2_ -> c_0
I0925 21:27:13.574270 28240 net.cpp:399] lstm2_ -> h_0
I0925 21:27:13.574638 28240 net.cpp:141] Setting up lstm2_
I0925 21:27:13.574657 28240 net.cpp:148] Top shape: 1 1 1000 (1000)
I0925 21:27:13.574669 28240 net.cpp:148] Top shape: 1 1 1000 (1000)
I0925 21:27:13.574676 28240 net.cpp:156] Memory required for data: 14008
I0925 21:27:13.574686 28240 layer_factory.hpp:77] Creating layer lstm2_cont_slice
I0925 21:27:13.574699 28240 net.cpp:91] Creating Layer lstm2_cont_slice
I0925 21:27:13.574708 28240 net.cpp:425] lstm2_cont_slice <- cont
I0925 21:27:13.574720 28240 net.cpp:399] lstm2_cont_slice -> cont_1
I0925 21:27:13.574825 28240 net.cpp:141] Setting up lstm2_cont_slice
I0925 21:27:13.574841 28240 net.cpp:148] Top shape: 1 1 (1)
I0925 21:27:13.574849 28240 net.cpp:156] Memory required for data: 14012
I0925 21:27:13.574858 28240 layer_factory.hpp:77] Creating layer cont_1_lstm2_cont_slice_0_split
I0925 21:27:13.574877 28240 net.cpp:91] Creating Layer cont_1_lstm2_cont_slice_0_split
I0925 21:27:13.574887 28240 net.cpp:425] cont_1_lstm2_cont_slice_0_split <- cont_1
I0925 21:27:13.574898 28240 net.cpp:399] cont_1_lstm2_cont_slice_0_split -> cont_1_lstm2_cont_slice_0_split_0
I0925 21:27:13.574916 28240 net.cpp:399] cont_1_lstm2_cont_slice_0_split -> cont_1_lstm2_cont_slice_0_split_1
I0925 21:27:13.575085 28240 net.cpp:141] Setting up cont_1_lstm2_cont_slice_0_split
I0925 21:27:13.575101 28240 net.cpp:148] Top shape: 1 1 (1)
I0925 21:27:13.575112 28240 net.cpp:148] Top shape: 1 1 (1)
I0925 21:27:13.575120 28240 net.cpp:156] Memory required for data: 14020
I0925 21:27:13.575129 28240 layer_factory.hpp:77] Creating layer lstm2_x_transform
I0925 21:27:13.575150 28240 net.cpp:91] Creating Layer lstm2_x_transform
I0925 21:27:13.575158 28240 net.cpp:425] lstm2_x_transform <- x
I0925 21:27:13.575172 28240 net.cpp:399] lstm2_x_transform -> W_xc_x
I0925 21:27:13.591897 28266 net.cpp:141] Setting up conv1
I0925 21:27:13.591965 28266 net.cpp:148] Top shape: 10 96 55 55 (2904000)
I0925 21:27:13.591979 28266 net.cpp:156] Memory required for data: 17799480
I0925 21:27:13.592012 28266 layer_factory.hpp:77] Creating layer relu1
I0925 21:27:13.592013 28258 net.cpp:141] Setting up lstm2_transform_1
I0925 21:27:13.592041 28266 net.cpp:91] Creating Layer relu1
I0925 21:27:13.592056 28258 net.cpp:148] Top shape: 1 1 4000 (4000)
I0925 21:27:13.592083 28258 net.cpp:156] Memory required for data: 66020
I0925 21:27:13.592054 28266 net.cpp:425] relu1 <- conv1
I0925 21:27:13.592109 28258 layer_factory.hpp:77] Creating layer lstm2_gate_input_1
I0925 21:27:13.592108 28266 net.cpp:386] relu1 -> conv1 (in-place)
I0925 21:27:13.592131 28258 net.cpp:91] Creating Layer lstm2_gate_input_1
I0925 21:27:13.592139 28258 net.cpp:425] lstm2_gate_input_1 <- W_hc_h_0
I0925 21:27:13.592149 28258 net.cpp:425] lstm2_gate_input_1 <- W_xc_x_1
I0925 21:27:13.592159 28258 net.cpp:399] lstm2_gate_input_1 -> gate_input_1
I0925 21:27:13.592730 28258 net.cpp:141] Setting up lstm2_gate_input_1
I0925 21:27:13.592743 28258 net.cpp:148] Top shape: 1 1 4000 (4000)
I0925 21:27:13.592751 28258 net.cpp:156] Memory required for data: 82020
I0925 21:27:13.592758 28258 layer_factory.hpp:77] Creating layer lstm2_unit_1
I0925 21:27:13.592777 28258 net.cpp:91] Creating Layer lstm2_unit_1
I0925 21:27:13.592782 28258 net.cpp:425] lstm2_unit_1 <- c_0
I0925 21:27:13.592789 28258 net.cpp:425] lstm2_unit_1 <- gate_input_1
I0925 21:27:13.592795 28258 net.cpp:425] lstm2_unit_1 <- cont_1_lstm2_cont_slice_0_split_1
I0925 21:27:13.592803 28258 net.cpp:399] lstm2_unit_1 -> c_1
I0925 21:27:13.592815 28258 net.cpp:399] lstm2_unit_1 -> h_1
I0925 21:27:13.592943 28258 net.cpp:141] Setting up lstm2_unit_1
I0925 21:27:13.592955 28258 net.cpp:148] Top shape: 1 1 1000 (1000)
I0925 21:27:13.592962 28258 net.cpp:148] Top shape: 1 1 1000 (1000)
I0925 21:27:13.592967 28258 net.cpp:156] Memory required for data: 90020
I0925 21:27:13.592972 28258 layer_factory.hpp:77] Creating layer lstm2_
I0925 21:27:13.592981 28258 net.cpp:91] Creating Layer lstm2_
I0925 21:27:13.592989 28258 net.cpp:425] lstm2_ <- c_1
I0925 21:27:13.593006 28258 net.cpp:399] lstm2_ -> c_T
I0925 21:27:13.593077 28258 net.cpp:141] Setting up lstm2_
I0925 21:27:13.593089 28258 net.cpp:148] Top shape: 1 1 1000 (1000)
I0925 21:27:13.593094 28258 net.cpp:156] Memory required for data: 94020
I0925 21:27:13.593099 28258 layer_factory.hpp:77] Creating layer lstm2_h_concat
I0925 21:27:13.593111 28258 net.cpp:91] Creating Layer lstm2_h_concat
I0925 21:27:13.593119 28258 net.cpp:425] lstm2_h_concat <- h_1
I0925 21:27:13.593123 28266 net.cpp:141] Setting up relu1
I0925 21:27:13.593132 28258 net.cpp:399] lstm2_h_concat -> h
I0925 21:27:13.593155 28266 net.cpp:148] Top shape: 10 96 55 55 (2904000)
I0925 21:27:13.593168 28266 net.cpp:156] Memory required for data: 29415480
I0925 21:27:13.593180 28266 layer_factory.hpp:77] Creating layer pool1
I0925 21:27:13.593201 28258 net.cpp:141] Setting up lstm2_h_concat
I0925 21:27:13.593205 28266 net.cpp:91] Creating Layer pool1
I0925 21:27:13.593214 28258 net.cpp:148] Top shape: 1 1 1000 (1000)
I0925 21:27:13.593219 28258 net.cpp:156] Memory required for data: 98020
I0925 21:27:13.593219 28266 net.cpp:425] pool1 <- conv1
I0925 21:27:13.593225 28258 layer_factory.hpp:77] Creating layer h_pseudoloss
I0925 21:27:13.593242 28266 net.cpp:399] pool1 -> pool1
I0925 21:27:13.593250 28258 net.cpp:91] Creating Layer h_pseudoloss
I0925 21:27:13.593258 28258 net.cpp:425] h_pseudoloss <- h
…
I0925 21:27:13.593511 28258 net.cpp:217] lstm2_x_transform needs backward computation.
I0925 21:27:13.593516 28258 net.cpp:219] cont_1_lstm2_cont_slice_0_split does not need backward computation.
I0925 21:27:13.593523 28258 net.cpp:219] lstm2_cont_slice does not need backward computation.
I0925 21:27:13.593529 28258 net.cpp:219] lstm2_ does not need backward computation.
I0925 21:27:13.593531 28266 net.cpp:141] Setting up pool1
I0925 21:27:13.593538 28258 net.cpp:219] lstm2_ does not need backward computation.
I0925 21:27:13.593554 28258 net.cpp:261] This network produces output c_T
I0925 21:27:13.593557 28266 net.cpp:148] Top shape: 10 96 27 27 (699840)
I0925 21:27:13.593560 28258 net.cpp:261] This network produces output h_pseudoloss
I0925 21:27:13.593571 28266 net.cpp:156] Memory required for data: 32214840
I0925 21:27:13.593582 28266 layer_factory.hpp:77] Creating layer norm1
I0925 21:27:13.593587 28258 net.cpp:274] Network initialization done.
I0925 21:27:13.593613 28266 net.cpp:91] Creating Layer norm1
I0925 21:27:13.593626 28266 net.cpp:425] norm1 <- pool1
I0925 21:27:13.593642 28266 net.cpp:399] norm1 -> norm1
I0925 21:27:13.593649 28258 recurrent_layer.cpp:150] Adding parameter 0: W_xc
I0925 21:27:13.593660 28258 recurrent_layer.cpp:150] Adding parameter 1: b_c
I0925 21:27:13.593667 28258 recurrent_layer.cpp:150] Adding parameter 2: W_hc
I0925 21:27:13.594131 28258 net.cpp:141] Setting up lstm2
I0925 21:27:13.594144 28258 net.cpp:148] Top shape: 1 1 1000 (1000)
I0925 21:27:13.594149 28258 net.cpp:156] Memory required for data: 36412
I0925 21:27:13.594171 28258 layer_factory.hpp:77] Creating layer predict
I0925 21:27:13.594187 28258 net.cpp:91] Creating Layer predict
I0925 21:27:13.594194 28258 net.cpp:425] predict <- lstm2
I0925 21:27:13.594202 28258 net.cpp:399] predict -> predict
I0925 21:27:13.688395 28266 net.cpp:141] Setting up norm1
I0925 21:27:13.688455 28266 net.cpp:148] Top shape: 10 96 27 27 (699840)
I0925 21:27:13.688469 28266 net.cpp:156] Memory required for data: 35014200
I0925 21:27:13.688477 28244 net.cpp:141] Setting up lstm2_x_transform
I0925 21:27:13.688482 28266 layer_factory.hpp:77] Creating layer conv2
I0925 21:27:13.688500 28244 net.cpp:148] Top shape: 1 1 4000 (4000)
I0925 21:27:13.688508 28244 net.cpp:156] Memory required for data: 30020
I0925 21:27:13.688515 28240 net.cpp:141] Setting up lstm2_x_transform
I0925 21:27:13.688527 28244 layer_factory.hpp:77] Creating layer lstm2_W_xc_x_slice
I0925 21:27:13.688524 28266 net.cpp:91] Creating Layer conv2
I0925 21:27:13.688541 28244 net.cpp:91] Creating Layer lstm2_W_xc_x_slice
I0925 21:27:13.688549 28244 net.cpp:425] lstm2_W_xc_x_slice <- W_xc_x
I0925 21:27:13.688547 28266 net.cpp:425] conv2 <- norm1
I0925 21:27:13.688547 28240 net.cpp:148] Top shape: 1 1 4000 (4000)
I0925 21:27:13.688567 28266 net.cpp:399] conv2 -> conv2
I0925 21:27:13.688567 28240 net.cpp:156] Memory required for data: 30020
I0925 21:27:13.688570 28244 net.cpp:399] lstm2_W_xc_x_slice -> W_xc_x_1
I0925 21:27:13.688604 28240 layer_factory.hpp:77] Creating layer lstm2_W_xc_x_slice
I0925 21:27:13.688624 28240 net.cpp:91] Creating Layer lstm2_W_xc_x_slice
I0925 21:27:13.688637 28240 net.cpp:425] lstm2_W_xc_x_slice <- W_xc_x
I0925 21:27:13.688649 28240 net.cpp:399] lstm2_W_xc_x_slice -> W_xc_x_1
I0925 21:27:13.688688 28244 net.cpp:141] Setting up lstm2_W_xc_x_slice
I0925 21:27:13.688701 28244 net.cpp:148] Top shape: 1 1 4000 (4000)
I0925 21:27:13.688707 28244 net.cpp:156] Memory required for data: 46020
I0925 21:27:13.688712 28244 layer_factory.hpp:77] Creating layer lstm2_h_conted_0
I0925 21:27:13.688724 28244 net.cpp:91] Creating Layer lstm2_h_conted_0
I0925 21:27:13.688731 28244 net.cpp:425] lstm2_h_conted_0 <- h_0
I0925 21:27:13.688738 28244 net.cpp:425] lstm2_h_conted_0 <- cont_1_lstm2_cont_slice_0_split_0
I0925 21:27:13.688747 28244 net.cpp:399] lstm2_h_conted_0 -> h_conted_0
I0925 21:27:13.688791 28240 net.cpp:141] Setting up lstm2_W_xc_x_slice
I0925 21:27:13.688810 28240 net.cpp:148] Top shape: 1 1 4000 (4000)
I0925 21:27:13.688819 28240 net.cpp:156] Memory required for data: 46020
I0925 21:27:13.688827 28240 layer_factory.hpp:77] Creating layer lstm2_h_conted_0
I0925 21:27:13.688843 28240 net.cpp:91] Creating Layer lstm2_h_conted_0
I0925 21:27:13.688853 28240 net.cpp:425] lstm2_h_conted_0 <- h_0
I0925 21:27:13.688864 28240 net.cpp:425] lstm2_h_conted_0 <- cont_1_lstm2_cont_slice_0_split_0
I0925 21:27:13.688879 28240 net.cpp:399] lstm2_h_conted_0 -> h_conted_0
I0925 21:27:13.689291 28244 net.cpp:141] Setting up lstm2_h_conted_0
I0925 21:27:13.689313 28244 net.cpp:148] Top shape: 1 1 1000 (1000)
I0925 21:27:13.689323 28244 net.cpp:156] Memory required for data: 50020
I0925 21:27:13.689334 28244 layer_factory.hpp:77] Creating layer lstm2_transform_1
I0925 21:27:13.689355 28244 net.cpp:91] Creating Layer lstm2_transform_1
I0925 21:27:13.689366 28244 net.cpp:425] lstm2_transform_1 <- h_conted_0
I0925 21:27:13.689417 28244 net.cpp:399] lstm2_transform_1 -> W_hc_h_0
I0925 21:27:13.704264 28240 net.cpp:141] Setting up lstm2_h_conted_0
I0925 21:27:13.704321 28240 net.cpp:148] Top shape: 1 1 1000 (1000)
I0925 21:27:13.704329 28240 net.cpp:156] Memory required for data: 50020
I0925 21:27:13.704337 28240 layer_factory.hpp:77] Creating layer lstm2_transform_1
I0925 21:27:13.704361 28240 net.cpp:91] Creating Layer lstm2_transform_1
I0925 21:27:13.704370 28240 net.cpp:425] lstm2_transform_1 <- h_conted_0
I0925 21:27:13.704385 28240 net.cpp:399] lstm2_transform_1 -> W_hc_h_0
I0925 21:27:13.716629 28266 net.cpp:141] Setting up conv2
I0925 21:27:13.716689 28266 net.cpp:148] Top shape: 10 256 27 27 (1866240)
I0925 21:27:13.716706 28266 net.cpp:156] Memory required for data: 42479160
I0925 21:27:13.716737 28266 layer_factory.hpp:77] Creating layer relu2
I0925 21:27:13.716760 28266 net.cpp:91] Creating Layer relu2
I0925 21:27:13.716773 28266 net.cpp:425] relu2 <- conv2
I0925 21:27:13.716786 28266 net.cpp:386] relu2 -> conv2 (in-place)
I0925 21:27:13.717427 28266 net.cpp:141] Setting up relu2
I0925 21:27:13.717447 28266 net.cpp:148] Top shape: 10 256 27 27 (1866240)
I0925 21:27:13.717458 28266 net.cpp:156] Memory required for data: 49944120
I0925 21:27:13.717466 28266 layer_factory.hpp:77] Creating layer pool2
I0925 21:27:13.717483 28266 net.cpp:91] Creating Layer pool2
I0925 21:27:13.717494 28266 net.cpp:425] pool2 <- conv2
I0925 21:27:13.717506 28266 net.cpp:399] pool2 -> pool2
I0925 21:27:13.717614 28266 net.cpp:141] Setting up pool2
I0925 21:27:13.717634 28266 net.cpp:148] Top shape: 10 256 13 13 (432640)
I0925 21:27:13.717643 28266 net.cpp:156] Memory required for data: 51674680
I0925 21:27:13.717653 28266 layer_factory.hpp:77] Creating layer norm2
I0925 21:27:13.717679 28266 net.cpp:91] Creating Layer norm2
I0925 21:27:13.717689 28266 net.cpp:425] norm2 <- pool2
I0925 21:27:13.717705 28266 net.cpp:399] norm2 -> norm2
I0925 21:27:13.718194 28266 net.cpp:141] Setting up norm2
I0925 21:27:13.718214 28266 net.cpp:148] Top shape: 10 256 13 13 (432640)
I0925 21:27:13.718224 28266 net.cpp:156] Memory required for data: 53405240
I0925 21:27:13.718231 28266 layer_factory.hpp:77] Creating layer conv3
I0925 21:27:13.718260 28266 net.cpp:91] Creating Layer conv3
I0925 21:27:13.718271 28266 net.cpp:425] conv3 <- norm2
I0925 21:27:13.718286 28266 net.cpp:399] conv3 -> conv3
I0925 21:27:13.724853 28266 net.cpp:141] Setting up conv3
I0925 21:27:13.724913 28266 net.cpp:148] Top shape: 10 384 13 13 (648960)
I0925 21:27:13.724925 28266 net.cpp:156] Memory required for data: 56001080
I0925 21:27:13.724956 28266 layer_factory.hpp:77] Creating layer relu3
I0925 21:27:13.724990 28266 net.cpp:91] Creating Layer relu3
I0925 21:27:13.725003 28266 net.cpp:425] relu3 <- conv3
I0925 21:27:13.725018 28266 net.cpp:386] relu3 -> conv3 (in-place)
I0925 21:27:13.725448 28266 net.cpp:141] Setting up relu3
I0925 21:27:13.725467 28266 net.cpp:148] Top shape: 10 384 13 13 (648960)
I0925 21:27:13.725476 28266 net.cpp:156] Memory required for data: 58596920
I0925 21:27:13.725484 28266 layer_factory.hpp:77] Creating layer conv4
I0925 21:27:13.725534 28266 net.cpp:91] Creating Layer conv4
I0925 21:27:13.725548 28266 net.cpp:425] conv4 <- conv3
I0925 21:27:13.725563 28266 net.cpp:399] conv4 -> conv4
I0925 21:27:13.732544 28266 net.cpp:141] Setting up conv4
I0925 21:27:13.732597 28266 net.cpp:148] Top shape: 10 384 13 13 (648960)
I0925 21:27:13.732605 28266 net.cpp:156] Memory required for data: 61192760
I0925 21:27:13.732620 28266 layer_factory.hpp:77] Creating layer relu4
I0925 21:27:13.732638 28266 net.cpp:91] Creating Layer relu4
I0925 21:27:13.732646 28266 net.cpp:425] relu4 <- conv4
I0925 21:27:13.732658 28266 net.cpp:386] relu4 -> conv4 (in-place)
I0925 21:27:13.733094 28266 net.cpp:141] Setting up relu4
I0925 21:27:13.733109 28266 net.cpp:148] Top shape: 10 384 13 13 (648960)
I0925 21:27:13.733115 28266 net.cpp:156] Memory required for data: 63788600
I0925 21:27:13.733121 28266 layer_factory.hpp:77] Creating layer conv5
I0925 21:27:13.733149 28266 net.cpp:91] Creating Layer conv5
I0925 21:27:13.733155 28266 net.cpp:425] conv5 <- conv4
I0925 21:27:13.733165 28266 net.cpp:399] conv5 -> conv5
I0925 21:27:13.737427 28266 net.cpp:141] Setting up conv5
I0925 21:27:13.737465 28266 net.cpp:148] Top shape: 10 256 13 13 (432640)
I0925 21:27:13.737473 28266 net.cpp:156] Memory required for data: 65519160
I0925 21:27:13.737494 28266 layer_factory.hpp:77] Creating layer relu5
I0925 21:27:13.737509 28266 net.cpp:91] Creating Layer relu5
I0925 21:27:13.737515 28266 net.cpp:425] relu5 <- conv5
I0925 21:27:13.737524 28266 net.cpp:386] relu5 -> conv5 (in-place)
I0925 21:27:13.737962 28266 net.cpp:141] Setting up relu5
I0925 21:27:13.737979 28266 net.cpp:148] Top shape: 10 256 13 13 (432640)
I0925 21:27:13.737985 28266 net.cpp:156] Memory required for data: 67249720
I0925 21:27:13.737992 28266 layer_factory.hpp:77] Creating layer pool5
I0925 21:27:13.738003 28266 net.cpp:91] Creating Layer pool5
I0925 21:27:13.738009 28266 net.cpp:425] pool5 <- conv5
I0925 21:27:13.738018 28266 net.cpp:399] pool5 -> pool5
I0925 21:27:13.738095 28266 net.cpp:141] Setting up pool5
I0925 21:27:13.738106 28266 net.cpp:148] Top shape: 10 256 6 6 (92160)
I0925 21:27:13.738111 28266 net.cpp:156] Memory required for data: 67618360
I0925 21:27:13.738116 28266 layer_factory.hpp:77] Creating layer fc6
I0925 21:27:13.738135 28266 net.cpp:91] Creating Layer fc6
I0925 21:27:13.738142 28266 net.cpp:425] fc6 <- pool5
I0925 21:27:13.738149 28266 net.cpp:399] fc6 -> fc6
I0925 21:27:13.812579 28240 net.cpp:141] Setting up lstm2_transform_1
I0925 21:27:13.812628 28244 net.cpp:141] Setting up lstm2_transform_1
I0925 21:27:13.812655 28240 net.cpp:148] Top shape: 1 1 4000 (4000)
I0925 21:27:13.812660 28244 net.cpp:148] Top shape: 1 1 4000 (4000)
I0925 21:27:13.812665 28240 net.cpp:156] Memory required for data: 66020
I0925 21:27:13.812670 28244 net.cpp:156] Memory required for data: 66020
I0925 21:27:13.812692 28240 layer_factory.hpp:77] Creating layer lstm2_gate_input_1
I0925 21:27:13.812693 28244 layer_factory.hpp:77] Creating layer lstm2_gate_input_1
I0925 21:27:13.812727 28240 net.cpp:91] Creating Layer lstm2_gate_input_1
I0925 21:27:13.812727 28244 net.cpp:91] Creating Layer lstm2_gate_input_1
I0925 21:27:13.812744 28240 net.cpp:425] lstm2_gate_input_1 <- W_hc_h_0
I0925 21:27:13.812750 28244 net.cpp:425] lstm2_gate_input_1 <- W_hc_h_0
I0925 21:27:13.812757 28240 net.cpp:425] lstm2_gate_input_1 <- W_xc_x_1
I0925 21:27:13.812763 28244 net.cpp:425] lstm2_gate_input_1 <- W_xc_x_1
I0925 21:27:13.812772 28240 net.cpp:399] lstm2_gate_input_1 -> gate_input_1
I0925 21:27:13.812784 28244 net.cpp:399] lstm2_gate_input_1 -> gate_input_1
I0925 21:27:13.812860 28240 net.cpp:141] Setting up lstm2_gate_input_1
I0925 21:27:13.812876 28240 net.cpp:148] Top shape: 1 1 4000 (4000)
I0925 21:27:13.812883 28240 net.cpp:156] Memory required for data: 82020
I0925 21:27:13.812891 28240 layer_factory.hpp:77] Creating layer lstm2_unit_1
I0925 21:27:13.812907 28240 net.cpp:91] Creating Layer lstm2_unit_1
I0925 21:27:13.812908 28244 net.cpp:141] Setting up lstm2_gate_input_1
I0925 21:27:13.812916 28240 net.cpp:425] lstm2_unit_1 <- c_0
I0925 21:27:13.812927 28240 net.cpp:425] lstm2_unit_1 <- gate_input_1
I0925 21:27:13.812927 28244 net.cpp:148] Top shape: 1 1 4000 (4000)
I0925 21:27:13.812937 28240 net.cpp:425] lstm2_unit_1 <- cont_1_lstm2_cont_slice_0_split_1
I0925 21:27:13.812938 28244 net.cpp:156] Memory required for data: 82020
I0925 21:27:13.812957 28240 net.cpp:399] lstm2_unit_1 -> c_1
I0925 21:27:13.812958 28244 layer_factory.hpp:77] Creating layer lstm2_unit_1
I0925 21:27:13.812973 28240 net.cpp:399] lstm2_unit_1 -> h_1
I0925 21:27:13.812973 28244 net.cpp:91] Creating Layer lstm2_unit_1
I0925 21:27:13.812984 28244 net.cpp:425] lstm2_unit_1 <- c_0
I0925 21:27:13.812995 28244 net.cpp:425] lstm2_unit_1 <- gate_input_1
I0925 21:27:13.813005 28244 net.cpp:425] lstm2_unit_1 <- cont_1_lstm2_cont_slice_0_split_1
I0925 21:27:13.813019 28244 net.cpp:399] lstm2_unit_1 -> c_1
I0925 21:27:13.813041 28244 net.cpp:399] lstm2_unit_1 -> h_1
I0925 21:27:13.813098 28240 net.cpp:141] Setting up lstm2_unit_1
I0925 21:27:13.813115 28240 net.cpp:148] Top shape: 1 1 1000 (1000)
I0925 21:27:13.813127 28240 net.cpp:148] Top shape: 1 1 1000 (1000)
I0925 21:27:13.813133 28240 net.cpp:156] Memory required for data: 90020
I0925 21:27:13.813141 28240 layer_factory.hpp:77] Creating layer lstm2_
I0925 21:27:13.813154 28240 net.cpp:91] Creating Layer lstm2_
I0925 21:27:13.813163 28240 net.cpp:425] lstm2_ <- c_1
I0925 21:27:13.813174 28240 net.cpp:399] lstm2_ -> c_T
I0925 21:27:13.813215 28244 net.cpp:141] Setting up lstm2_unit_1
I0925 21:27:13.813232 28244 net.cpp:148] Top shape: 1 1 1000 (1000)
I0925 21:27:13.813244 28244 net.cpp:148] Top shape: 1 1 1000 (1000)
I0925 21:27:13.813251 28240 net.cpp:141] Setting up lstm2_
I0925 21:27:13.813252 28244 net.cpp:156] Memory required for data: 90020
I0925 21:27:13.813272 28240 net.cpp:148] Top shape: 1 1 1000 (1000)
I0925 21:27:13.813275 28244 layer_factory.hpp:77] Creating layer lstm2_
I0925 21:27:13.813282 28240 net.cpp:156] Memory required for data: 94020
I0925 21:27:13.813290 28240 layer_factory.hpp:77] Creating layer lstm2_h_concat
I0925 21:27:13.813290 28244 net.cpp:91] Creating Layer lstm2_
I0925 21:27:13.813313 28244 net.cpp:425] lstm2_ <- c_1
I0925 21:27:13.813318 28240 net.cpp:91] Creating Layer lstm2_h_concat
I0925 21:27:13.813326 28244 net.cpp:399] lstm2_ -> c_T
I0925 21:27:13.813329 28240 net.cpp:425] lstm2_h_concat <- h_1
I0925 21:27:13.813344 28240 net.cpp:399] lstm2_h_concat -> h
I0925 21:27:13.813406 28244 net.cpp:141] Setting up lstm2_
I0925 21:27:13.813426 28244 net.cpp:148] Top shape: 1 1 1000 (1000)
I0925 21:27:13.813436 28244 net.cpp:156] Memory required for data: 94020
I0925 21:27:13.813444 28244 layer_factory.hpp:77] Creating layer lstm2_h_concat
I0925 21:27:13.813448 28240 net.cpp:141] Setting up lstm2_h_concat
I0925 21:27:13.813458 28244 net.cpp:91] Creating Layer lstm2_h_concat
I0925 21:27:13.813464 28240 net.cpp:148] Top shape: 1 1 1000 (1000)
I0925 21:27:13.813468 28244 net.cpp:425] lstm2_h_concat <- h_1
I0925 21:27:13.813473 28240 net.cpp:156] Memory required for data: 98020
I0925 21:27:13.813482 28240 layer_factory.hpp:77] Creating layer h_pseudoloss
I0925 21:27:13.813485 28244 net.cpp:399] lstm2_h_concat -> h
I0925 21:27:13.813498 28240 net.cpp:91] Creating Layer h_pseudoloss
I0925 21:27:13.813506 28240 net.cpp:425] h_pseudoloss <- h
I0925 21:27:13.813527 28240 net.cpp:399] h_pseudoloss -> h_pseudoloss
I0925 21:27:13.813549 28244 net.cpp:141] Setting up lstm2_h_concat
I0925 21:27:13.813566 28244 net.cpp:148] Top shape: 1 1 1000 (1000)
I0925 21:27:13.813575 28244 net.cpp:156] Memory required for data: 98020
I0925 21:27:13.813585 28244 layer_factory.hpp:77] Creating layer h_pseudoloss
I0925 21:27:13.813604 28244 net.cpp:91] Creating Layer h_pseudoloss
I0925 21:27:13.813613 28244 net.cpp:425] h_pseudoloss <- h
I0925 21:27:13.813626 28244 net.cpp:399] h_pseudoloss -> h_pseudoloss
I0925 21:27:13.813679 28240 net.cpp:141] Setting up h_pseudoloss
…
I0925 21:27:13.814030 28240 recurrent_layer.cpp:150] Adding parameter 0: W_xc
I0925 21:27:13.814048 28244 net.cpp:274] Network initialization done.
I0925 21:27:13.814065 28240 recurrent_layer.cpp:150] Adding parameter 1: b_c
I0925 21:27:13.814077 28240 recurrent_layer.cpp:150] Adding parameter 2: W_hc
I0925 21:27:13.814123 28244 recurrent_layer.cpp:150] Adding parameter 0: W_xc
I0925 21:27:13.814134 28244 recurrent_layer.cpp:150] Adding parameter 1: b_c
I0925 21:27:13.814142 28244 recurrent_layer.cpp:150] Adding parameter 2: W_hc
I0925 21:27:13.814343 28240 net.cpp:141] Setting up lstm2
I0925 21:27:13.814366 28240 net.cpp:148] Top shape: 1 1 1000 (1000)
I0925 21:27:13.814376 28240 net.cpp:156] Memory required for data: 36412
I0925 21:27:13.814401 28240 layer_factory.hpp:77] Creating layer predict
I0925 21:27:13.814422 28240 net.cpp:91] Creating Layer predict
I0925 21:27:13.814435 28240 net.cpp:425] predict <- lstm2
I0925 21:27:13.814448 28240 net.cpp:399] predict -> predict
I0925 21:27:13.814465 28244 net.cpp:141] Setting up lstm2
I0925 21:27:13.814482 28244 net.cpp:148] Top shape: 1 1 1000 (1000)
I0925 21:27:13.814491 28244 net.cpp:156] Memory required for data: 36412
I0925 21:27:13.814513 28244 layer_factory.hpp:77] Creating layer predict
I0925 21:27:13.814530 28244 net.cpp:91] Creating Layer predict
I0925 21:27:13.814541 28244 net.cpp:425] predict <- lstm2
I0925 21:27:13.814555 28244 net.cpp:399] predict -> predict
I0925 21:27:13.999634 28266 net.cpp:141] Setting up fc6
I0925 21:27:13.999703 28266 net.cpp:148] Top shape: 10 4096 (40960)
I0925 21:27:13.999712 28266 net.cpp:156] Memory required for data: 67782200
I0925 21:27:13.999737 28266 layer_factory.hpp:77] Creating layer relu6
I0925 21:27:13.999766 28266 net.cpp:91] Creating Layer relu6
I0925 21:27:13.999778 28266 net.cpp:425] relu6 <- fc6
I0925 21:27:13.999789 28266 net.cpp:386] relu6 -> fc6 (in-place)
I0925 21:27:14.000244 28266 net.cpp:141] Setting up relu6
I0925 21:27:14.000260 28266 net.cpp:148] Top shape: 10 4096 (40960)
I0925 21:27:14.000267 28266 net.cpp:156] Memory required for data: 67946040
I0925 21:27:14.000275 28266 layer_factory.hpp:77] Creating layer drop6
I0925 21:27:14.000306 28266 net.cpp:91] Creating Layer drop6
I0925 21:27:14.000315 28266 net.cpp:425] drop6 <- fc6
I0925 21:27:14.000325 28266 net.cpp:386] drop6 -> fc6 (in-place)
I0925 21:27:14.000416 28266 net.cpp:141] Setting up drop6
I0925 21:27:14.000430 28266 net.cpp:148] Top shape: 10 4096 (40960)
I0925 21:27:14.000438 28266 net.cpp:156] Memory required for data: 68109880
I0925 21:27:14.000445 28266 layer_factory.hpp:77] Creating layer fc7
I0925 21:27:14.000470 28266 net.cpp:91] Creating Layer fc7
I0925 21:27:14.000479 28266 net.cpp:425] fc7 <- fc6
I0925 21:27:14.000493 28266 net.cpp:399] fc7 -> fc7
I0925 21:27:14.042570 28264 net.cpp:141] Setting up predict
I0925 21:27:14.042639 28264 net.cpp:148] Top shape: 1 1 46168 (46168)
I0925 21:27:14.042649 28264 net.cpp:156] Memory required for data: 221084
I0925 21:27:14.042664 28264 layer_factory.hpp:77] Creating layer probs
I0925 21:27:14.042683 28264 net.cpp:91] Creating Layer probs
I0925 21:27:14.042695 28264 net.cpp:425] probs <- predict
I0925 21:27:14.042709 28264 net.cpp:399] probs -> probs
I0925 21:27:14.043540 28264 net.cpp:141] Setting up probs
I0925 21:27:14.043560 28264 net.cpp:148] Top shape: 1 1 46168 (46168)
I0925 21:27:14.043568 28264 net.cpp:156] Memory required for data: 405756
I0925 21:27:14.043578 28264 net.cpp:219] probs does not need backward computation.
I0925 21:27:14.043586 28264 net.cpp:219] predict does not need backward computation.
I0925 21:27:14.043591 28264 net.cpp:219] lstm2 does not need backward computation.
I0925 21:27:14.043596 28264 net.cpp:219] concat does not need backward computation.
I0925 21:27:14.043602 28264 net.cpp:219] lstm1 does not need backward computation.
I0925 21:27:14.043609 28264 net.cpp:219] embedding does not need backward computation.
I0925 21:27:14.043613 28264 net.cpp:219] reshape_stage_indicator does not need backward computation.
I0925 21:27:14.043619 28264 net.cpp:219] reshape_frames does not need backward computation.
I0925 21:27:14.043627 28264 net.cpp:219] embed_encoder does not need backward computation.
I0925 21:27:14.043637 28264 net.cpp:219] cont_sentence_input_1_split does not need backward computation.
I0925 21:27:14.043644 28264 net.cpp:219] input does not need backward computation.
I0925 21:27:14.043648 28264 net.cpp:261] This network produces output probs
I0925 21:27:14.043668 28264 net.cpp:274] Network initialization done.
I0925 21:27:14.061964 28266 net.cpp:141] Setting up fc7
I0925 21:27:14.062013 28266 net.cpp:148] Top shape: 10 4096 (40960)
I0925 21:27:14.062019 28266 net.cpp:156] Memory required for data: 68273720
I0925 21:27:14.062037 28266 layer_factory.hpp:77] Creating layer relu7
I0925 21:27:14.062053 28266 net.cpp:91] Creating Layer relu7
I0925 21:27:14.062059 28266 net.cpp:425] relu7 <- fc7
I0925 21:27:14.062072 28266 net.cpp:386] relu7 -> fc7 (in-place)
I0925 21:27:14.062923 28266 net.cpp:141] Setting up relu7
I0925 21:27:14.062942 28266 net.cpp:148] Top shape: 10 4096 (40960)
I0925 21:27:14.062947 28266 net.cpp:156] Memory required for data: 68437560
I0925 21:27:14.062953 28266 layer_factory.hpp:77] Creating layer drop7
I0925 21:27:14.062968 28266 net.cpp:91] Creating Layer drop7
I0925 21:27:14.062973 28266 net.cpp:425] drop7 <- fc7
I0925 21:27:14.062981 28266 net.cpp:386] drop7 -> fc7 (in-place)
I0925 21:27:14.063031 28266 net.cpp:141] Setting up drop7
I0925 21:27:14.063041 28266 net.cpp:148] Top shape: 10 4096 (40960)
I0925 21:27:14.063046 28266 net.cpp:156] Memory required for data: 68601400
I0925 21:27:14.063051 28266 layer_factory.hpp:77] Creating layer fc8
I0925 21:27:14.063066 28266 net.cpp:91] Creating Layer fc8
I0925 21:27:14.063071 28266 net.cpp:425] fc8 <- fc7
I0925 21:27:14.063081 28266 net.cpp:399] fc8 -> fc8
I0925 21:27:14.075892 28266 net.cpp:141] Setting up fc8
I0925 21:27:14.075939 28266 net.cpp:148] Top shape: 10 1000 (10000)
I0925 21:27:14.075945 28266 net.cpp:156] Memory required for data: 68641400
I0925 21:27:14.075963 28266 layer_factory.hpp:77] Creating layer prob
I0925 21:27:14.075979 28266 net.cpp:91] Creating Layer prob
I0925 21:27:14.075986 28266 net.cpp:425] prob <- fc8
I0925 21:27:14.076468 28266 net.cpp:399] prob -> prob
I0925 21:27:14.077512 28266 net.cpp:141] Setting up prob
I0925 21:27:14.077534 28266 net.cpp:148] Top shape: 10 1000 (10000)
I0925 21:27:14.077540 28266 net.cpp:156] Memory required for data: 68681400
I0925 21:27:14.077548 28266 net.cpp:219] prob does not need backward computation.
I0925 21:27:14.077553 28266 net.cpp:219] fc8 does not need backward computation.
I0925 21:27:14.077558 28266 net.cpp:219] drop7 does not need backward computation.
I0925 21:27:14.077563 28266 net.cpp:219] relu7 does not need backward computation.
…
