…
Java HotSpot(TM) 64-Bit Server VM warning: You have loaded library /tmp/cvld961915796194689227/libopencv_java310.xine1.so which might have disabled stack guard. The VM will try to fix the stack guard now.
It's highly recommended that you fix the library with 'execstack -c <libfile>', or link it with '-z noexecstack'.
WARNING: Logging before InitGoogleLogging() is written to STDERR
I0731 22:28:11.050745 10427 net.cpp:49] Initializing net from parameters: 
name: "CaffeNet"
state {
  phase: TEST
}
layer {
  name: "data"
  type: "Input"
  top: "data"
  input_param {
    shape {
      dim: 10
      dim: 3
      dim: 227
      dim: 227
    }
  }
}
layer {
  name: "conv1"
  type: "Convolution"
  bottom: "data"
  top: "conv1"
  convolution_param {
    num_output: 96
    kernel_size: 11
    stride: 4
  }
}
layer {
  name: "relu1"
  type: "ReLU"
  bottom: "conv1"
  top: "conv1"
}
layer {
  name: "pool1"
  type: "Pooling"
  bottom: "conv1"
  top: "pool1"
  pooling_param {
    pool: MAX
    kernel_size: 3
    stride: 2
  }
}
layer {
  name: "norm1"
  type: "LRN"
  bottom: "pool1"
  top: "norm1"
  lrn_param {
    local_size: 5
    alpha: 0.0001
    beta: 0.75
  }
}
layer {
  name: "conv2"
  type: "Convolution"
  bottom: "norm1"
  top: "conv2"
  convolution_param {
    num_output: 256
    pad: 2
    kernel_size: 5
    group: 2
  }
}
layer {
  name: "relu2"
  type: "ReLU"
  bottom: "conv2"
  top: "conv2"
}
layer {
  name: "pool2"
  type: "Pooling"
  bottom: "conv2"
  top: "pool2"
  pooling_param {
    pool: MAX
    kernel_size: 3
    stride: 2
  }
}
layer {
  name: "norm2"
  type: "LRN"
  bottom: "pool2"
  top: "norm2"
  lrn_param {
    local_size: 5
    alpha: 0.0001
    beta: 0.75
  }
}
layer {
  name: "conv3"
  type: "Convolution"
  bottom: "norm2"
  top: "conv3"
  convolution_param {
    num_output: 384
    pad: 1
    kernel_size: 3
  }
}
layer {
  name: "relu3"
  type: "ReLU"
  bottom: "conv3"
  top: "conv3"
}
layer {
  name: "conv4"
  type: "Convolution"
  bottom: "conv3"
  top: "conv4"
  convolution_param {
    num_output: 384
    pad: 1
    kernel_size: 3
    group: 2
  }
}
layer {
  name: "relu4"
  type: "ReLU"
  bottom: "conv4"
  top: "conv4"
}
layer {
  name: "conv5"
  type: "Convolution"
  bottom: "conv4"
  top: "conv5"
  convolution_param {
    num_output: 256
    pad: 1
    kernel_size: 3
    group: 2
  }
}
layer {
  name: "relu5"
  type: "ReLU"
  bottom: "conv5"
  top: "conv5"
}
layer {
  name: "pool5"
  type: "Pooling"
  bottom: "conv5"
  top: "pool5"
  pooling_param {
    pool: MAX
    kernel_size: 3
    stride: 2
  }
}
layer {
  name: "fc6"
  type: "InnerProduct"
  bottom: "pool5"
  top: "fc6"
  inner_product_param {
    num_output: 4096
  }
}
layer {
  name: "relu6"
  type: "ReLU"
  bottom: "fc6"
  top: "fc6"
}
layer {
  name: "drop6"
  type: "Dropout"
  bottom: "fc6"
  top: "fc6"
  dropout_param {
    dropout_ratio: 0.5
  }
}
layer {
  name: "fc7"
  type: "InnerProduct"
  bottom: "fc6"
  top: "fc7"
  inner_product_param {
    num_output: 4096
  }
}
layer {
  name: "relu7"
  type: "ReLU"
  bottom: "fc7"
  top: "fc7"
}
layer {
  name: "drop7"
  type: "Dropout"
  bottom: "fc7"
  top: "fc7"
  dropout_param {
    dropout_ratio: 0.5
  }
}
layer {
  name: "fc8"
  type: "InnerProduct"
  bottom: "fc7"
  top: "fc8"
  inner_product_param {
    num_output: 1000
  }
}
layer {
  name: "prob"
  type: "Softmax"
  bottom: "fc8"
  top: "prob"
}
I0731 22:28:11.050953 10427 layer_factory.hpp:77] Creating layer data
I0731 22:28:11.050981 10427 net.cpp:91] Creating Layer data
I0731 22:28:11.050990 10427 net.cpp:399] data -> data
I0731 22:28:11.549131 10427 net.cpp:141] Setting up data
I0731 22:28:11.549260 10427 net.cpp:148] Top shape: 10 3 227 227 (1545870)
I0731 22:28:11.549273 10427 net.cpp:156] Memory required for data: 6183480
I0731 22:28:11.549312 10427 layer_factory.hpp:77] Creating layer conv1
I0731 22:28:11.549351 10427 net.cpp:91] Creating Layer conv1
I0731 22:28:11.549367 10427 net.cpp:425] conv1 <- data
I0731 22:28:11.549389 10427 net.cpp:399] conv1 -> conv1
I0731 22:28:11.589321 10417 upgrade_proto.cpp:66] Attempting to upgrade input file specified using deprecated input fields: /tmp/cvld961915796194689227/s2vt.words_to_preds.prototxt
I0731 22:28:11.589372 10417 upgrade_proto.cpp:69] Successfully upgraded file specified using deprecated input fields.
W0731 22:28:11.589380 10417 upgrade_proto.cpp:71] Note that future Caffe releases will only support input layers and not input fields.
I0731 22:28:11.589648 10417 net.cpp:49] Initializing net from parameters: 
name: "s2vt:features_to_lstm"
state {
  phase: TEST
}
layer {
  name: "input"
  type: "Input"
  top: "frames_fc7"
  top: "cont_sentence"
  top: "input_sentence"
  top: "stage_indicator"
  input_param {
    shape {
      dim: 1
      dim: 4096
    }
    shape {
      dim: 1
      dim: 1
    }
    shape {
      dim: 1
      dim: 1
    }
    shape {
      dim: 1
      dim: 1
    }
  }
}
layer {
  name: "embed_encoder"
  type: "InnerProduct"
  bottom: "frames_fc7"
  top: "embedded_in_frames"
  param {
    lr_mult: 1
    decay_mult: 1
  }
  param {
    lr_mult: 2
    decay_mult: 0
  }
  inner_product_param {
    num_output: 500
    weight_filler {
      type: "xavier"
    }
    bias_filler {
      type: "constant"
      value: 0.2
    }
  }
}
layer {
  name: "reshape_frames"
  type: "Reshape"
  bottom: "embedded_in_frames"
  top: "embedded_input_frames"
  reshape_param {
    shape {
      dim: 1
      dim: 1
      dim: 500
    }
  }
}
layer {
  name: "reshape_stage_indicator"
  type: "Reshape"
  bottom: "stage_indicator"
  top: "reshaped_stage_indicator"
  reshape_param {
    shape {
      dim: 1
      dim: 1
      dim: 1
    }
  }
}
layer {
  name: "embedding"
  type: "Embed"
  bottom: "input_sentence"
  top: "embedded_input_sentence"
  param {
    lr_mult: 1
  }
  embed_param {
    num_output: 500
    input_dim: 46168
    bias_term: false
    weight_filler {
      type: "uniform"
      min: -0.08
      max: 0.08
    }
  }
}
layer {
  name: "lstm1"
  type: "LSTM"
  bottom: "embedded_input_frames"
  bottom: "cont_sentence"
  top: "lstm1"
  recurrent_param {
    num_output: 1000
    weight_filler {
      type: "uniform"
      min: -0.08
      max: 0.08
    }
    bias_filler {
      type: "constant"
      value: 0
    }
  }
}
layer {
  name: "concat"
  type: "Concat"
  bottom: "lstm1"
  bottom: "embedded_input_sentence"
  bottom: "reshaped_stage_indicator"
  top: "lstm1_video_sequence"
  concat_param {
    concat_dim: 2
  }
}
layer {
  name: "lstm2"
  type: "LSTM"
  bottom: "lstm1_video_sequence"
  bottom: "cont_sentence"
  top: "lstm2"
  recurrent_param {
    num_output: 1000
    weight_filler {
      type: "uniform"
      min: -0.08
      max: 0.08
    }
    bias_filler {
      type: "constant"
      value: 0
    }
  }
}
layer {
  name: "predict"
  type: "InnerProduct"
  bottom: "lstm2"
  top: "predict"
  param {
    lr_mult: 1
    decay_mult: 1
  }
  param {
    lr_mult: 2
    decay_mult: 0
  }
  inner_product_param {
    num_output: 46168
    weight_filler {
      type: "uniform"
      min: -0.08
      max: 0.08
    }
    bias_filler {
      type: "constant"
      value: 0
    }
    axis: 2
  }
}
layer {
  name: "probs"
  type: "Softmax"
  bottom: "predict"
  top: "probs"
  softmax_param {
    axis: 2
  }
}
I0731 22:28:11.589748 10417 layer_factory.hpp:77] Creating layer input
I0731 22:28:11.589766 10417 net.cpp:91] Creating Layer input
I0731 22:28:11.589773 10417 net.cpp:399] input -> frames_fc7
I0731 22:28:11.589790 10417 net.cpp:399] input -> cont_sentence
I0731 22:28:11.589800 10417 net.cpp:399] input -> input_sentence
I0731 22:28:11.589810 10417 net.cpp:399] input -> stage_indicator
I0731 22:28:11.590867 10417 net.cpp:141] Setting up input
I0731 22:28:11.590886 10417 net.cpp:148] Top shape: 1 4096 (4096)
I0731 22:28:11.590893 10417 net.cpp:148] Top shape: 1 1 (1)
I0731 22:28:11.590898 10417 net.cpp:148] Top shape: 1 1 (1)
I0731 22:28:11.590903 10417 net.cpp:148] Top shape: 1 1 (1)
I0731 22:28:11.590905 10417 net.cpp:156] Memory required for data: 16396
I0731 22:28:11.590911 10417 layer_factory.hpp:77] Creating layer cont_sentence_input_1_split
I0731 22:28:11.590930 10417 net.cpp:91] Creating Layer cont_sentence_input_1_split
I0731 22:28:11.590936 10417 net.cpp:425] cont_sentence_input_1_split <- cont_sentence
I0731 22:28:11.590957 10417 net.cpp:399] cont_sentence_input_1_split -> cont_sentence_input_1_split_0
I0731 22:28:11.590967 10417 net.cpp:399] cont_sentence_input_1_split -> cont_sentence_input_1_split_1
I0731 22:28:11.591866 10417 net.cpp:141] Setting up cont_sentence_input_1_split
I0731 22:28:11.591886 10417 net.cpp:148] Top shape: 1 1 (1)
I0731 22:28:11.591893 10417 net.cpp:148] Top shape: 1 1 (1)
I0731 22:28:11.591897 10417 net.cpp:156] Memory required for data: 16404
I0731 22:28:11.591902 10417 layer_factory.hpp:77] Creating layer embed_encoder
I0731 22:28:11.591919 10417 net.cpp:91] Creating Layer embed_encoder
I0731 22:28:11.591928 10417 net.cpp:425] embed_encoder <- frames_fc7
I0731 22:28:11.591943 10417 net.cpp:399] embed_encoder -> embedded_in_frames
I0731 22:28:11.619405 10417 net.cpp:141] Setting up embed_encoder
I0731 22:28:11.619447 10417 net.cpp:148] Top shape: 1 500 (500)
I0731 22:28:11.619453 10417 net.cpp:156] Memory required for data: 18404
I0731 22:28:11.619479 10417 layer_factory.hpp:77] Creating layer reshape_frames
I0731 22:28:11.619504 10417 net.cpp:91] Creating Layer reshape_frames
I0731 22:28:11.619513 10417 net.cpp:425] reshape_frames <- embedded_in_frames
I0731 22:28:11.619524 10417 net.cpp:399] reshape_frames -> embedded_input_frames
I0731 22:28:11.619613 10417 net.cpp:141] Setting up reshape_frames
I0731 22:28:11.619631 10417 net.cpp:148] Top shape: 1 1 500 (500)
I0731 22:28:11.619638 10417 net.cpp:156] Memory required for data: 20404
I0731 22:28:11.619647 10417 layer_factory.hpp:77] Creating layer reshape_stage_indicator
I0731 22:28:11.619663 10417 net.cpp:91] Creating Layer reshape_stage_indicator
I0731 22:28:11.619673 10417 net.cpp:425] reshape_stage_indicator <- stage_indicator
I0731 22:28:11.619691 10417 net.cpp:399] reshape_stage_indicator -> reshaped_stage_indicator
I0731 22:28:11.619740 10417 net.cpp:141] Setting up reshape_stage_indicator
I0731 22:28:11.619751 10417 net.cpp:148] Top shape: 1 1 1 (1)
I0731 22:28:11.619755 10417 net.cpp:156] Memory required for data: 20408
I0731 22:28:11.619760 10417 layer_factory.hpp:77] Creating layer embedding
I0731 22:28:11.619772 10417 net.cpp:91] Creating Layer embedding
I0731 22:28:11.619776 10417 net.cpp:425] embedding <- input_sentence
I0731 22:28:11.619784 10417 net.cpp:399] embedding -> embedded_input_sentence
I0731 22:28:11.827066 10427 net.cpp:141] Setting up conv1
I0731 22:28:11.827124 10427 net.cpp:148] Top shape: 10 96 55 55 (2904000)
I0731 22:28:11.827134 10427 net.cpp:156] Memory required for data: 17799480
I0731 22:28:11.827165 10427 layer_factory.hpp:77] Creating layer relu1
I0731 22:28:11.827189 10427 net.cpp:91] Creating Layer relu1
I0731 22:28:11.827199 10427 net.cpp:425] relu1 <- conv1
I0731 22:28:11.827211 10427 net.cpp:386] relu1 -> conv1 (in-place)
I0731 22:28:11.827880 10427 net.cpp:141] Setting up relu1
I0731 22:28:11.827900 10427 net.cpp:148] Top shape: 10 96 55 55 (2904000)
I0731 22:28:11.827909 10427 net.cpp:156] Memory required for data: 29415480
I0731 22:28:11.827919 10427 layer_factory.hpp:77] Creating layer pool1
I0731 22:28:11.827940 10427 net.cpp:91] Creating Layer pool1
I0731 22:28:11.827951 10427 net.cpp:425] pool1 <- conv1
I0731 22:28:11.827967 10427 net.cpp:399] pool1 -> pool1
I0731 22:28:11.828086 10427 net.cpp:141] Setting up pool1
I0731 22:28:11.828100 10427 net.cpp:148] Top shape: 10 96 27 27 (699840)
I0731 22:28:11.828104 10427 net.cpp:156] Memory required for data: 32214840
I0731 22:28:11.828110 10427 layer_factory.hpp:77] Creating layer norm1
I0731 22:28:11.828128 10427 net.cpp:91] Creating Layer norm1
I0731 22:28:11.828133 10427 net.cpp:425] norm1 <- pool1
I0731 22:28:11.828141 10427 net.cpp:399] norm1 -> norm1
I0731 22:28:11.828624 10427 net.cpp:141] Setting up norm1
I0731 22:28:11.828636 10427 net.cpp:148] Top shape: 10 96 27 27 (699840)
I0731 22:28:11.828641 10427 net.cpp:156] Memory required for data: 35014200
I0731 22:28:11.828647 10427 layer_factory.hpp:77] Creating layer conv2
I0731 22:28:11.828663 10427 net.cpp:91] Creating Layer conv2
I0731 22:28:11.828670 10427 net.cpp:425] conv2 <- norm1
I0731 22:28:11.828677 10427 net.cpp:399] conv2 -> conv2
I0731 22:28:11.831807 10427 net.cpp:141] Setting up conv2
I0731 22:28:11.831825 10427 net.cpp:148] Top shape: 10 256 27 27 (1866240)
I0731 22:28:11.831830 10427 net.cpp:156] Memory required for data: 42479160
I0731 22:28:11.831842 10427 layer_factory.hpp:77] Creating layer relu2
I0731 22:28:11.831851 10427 net.cpp:91] Creating Layer relu2
I0731 22:28:11.831856 10427 net.cpp:425] relu2 <- conv2
I0731 22:28:11.831866 10427 net.cpp:386] relu2 -> conv2 (in-place)
I0731 22:28:11.832319 10427 net.cpp:141] Setting up relu2
I0731 22:28:11.832331 10427 net.cpp:148] Top shape: 10 256 27 27 (1866240)
I0731 22:28:11.832335 10427 net.cpp:156] Memory required for data: 49944120
I0731 22:28:11.832340 10427 layer_factory.hpp:77] Creating layer pool2
I0731 22:28:11.832352 10427 net.cpp:91] Creating Layer pool2
I0731 22:28:11.832356 10427 net.cpp:425] pool2 <- conv2
I0731 22:28:11.832365 10427 net.cpp:399] pool2 -> pool2
I0731 22:28:11.832419 10427 net.cpp:141] Setting up pool2
I0731 22:28:11.832427 10427 net.cpp:148] Top shape: 10 256 13 13 (432640)
I0731 22:28:11.832432 10427 net.cpp:156] Memory required for data: 51674680
I0731 22:28:11.832437 10427 layer_factory.hpp:77] Creating layer norm2
I0731 22:28:11.832448 10427 net.cpp:91] Creating Layer norm2
I0731 22:28:11.832453 10427 net.cpp:425] norm2 <- pool2
I0731 22:28:11.832458 10427 net.cpp:399] norm2 -> norm2
I0731 22:28:11.832708 10427 net.cpp:141] Setting up norm2
I0731 22:28:11.832720 10427 net.cpp:148] Top shape: 10 256 13 13 (432640)
I0731 22:28:11.832725 10427 net.cpp:156] Memory required for data: 53405240
I0731 22:28:11.832728 10427 layer_factory.hpp:77] Creating layer conv3
I0731 22:28:11.832741 10427 net.cpp:91] Creating Layer conv3
I0731 22:28:11.832746 10427 net.cpp:425] conv3 <- norm2
I0731 22:28:11.832752 10427 net.cpp:399] conv3 -> conv3
I0731 22:28:11.836366 10417 net.cpp:141] Setting up embedding
I0731 22:28:11.836386 10417 net.cpp:148] Top shape: 1 1 500 (500)
I0731 22:28:11.836391 10417 net.cpp:156] Memory required for data: 22408
I0731 22:28:11.836403 10417 layer_factory.hpp:77] Creating layer lstm1
I0731 22:28:11.836417 10417 net.cpp:91] Creating Layer lstm1
I0731 22:28:11.836423 10417 net.cpp:425] lstm1 <- embedded_input_frames
I0731 22:28:11.836431 10417 net.cpp:425] lstm1 <- cont_sentence_input_1_split_0
I0731 22:28:11.836441 10417 net.cpp:399] lstm1 -> lstm1
I0731 22:28:11.836467 10417 recurrent_layer.cpp:20] Initializing recurrent layer: assuming input batch contains 1 timesteps of 1 independent streams.
I0731 22:28:11.836585 10427 net.cpp:141] Setting up conv3
I0731 22:28:11.836599 10427 net.cpp:148] Top shape: 10 384 13 13 (648960)
I0731 22:28:11.836603 10427 net.cpp:156] Memory required for data: 56001080
I0731 22:28:11.836616 10427 layer_factory.hpp:77] Creating layer relu3
I0731 22:28:11.836623 10427 net.cpp:91] Creating Layer relu3
I0731 22:28:11.836628 10427 net.cpp:425] relu3 <- conv3
I0731 22:28:11.836638 10427 net.cpp:386] relu3 -> conv3 (in-place)
I0731 22:28:11.836822 10417 net.cpp:49] Initializing net from parameters: 
layer {
  name: "lstm1_"
  type: "Input"
  top: "x"
  top: "cont"
  input_param {
    shape {
      dim: 1
      dim: 1
      dim: 500
    }
    shape {
      dim: 1
      dim: 1
    }
  }
}
layer {
  name: "lstm1_"
  type: "Input"
  top: "c_0"
  top: "h_0"
  input_param {
    shape {
      dim: 1
      dim: 1
      dim: 1000
    }
    shape {
      dim: 1
      dim: 1
      dim: 1000
    }
  }
}
layer {
  name: "lstm1_cont_slice"
  type: "Slice"
  bottom: "cont"
  top: "cont_1"
  slice_param {
    axis: 0
  }
}
layer {
  name: "lstm1_x_transform"
  type: "InnerProduct"
  bottom: "x"
  top: "W_xc_x"
  param {
    name: "W_xc"
  }
  param {
    name: "b_c"
  }
  propagate_down: true
  inner_product_param {
    num_output: 4000
    bias_term: true
    weight_filler {
      type: "uniform"
      min: -0.08
      max: 0.08
    }
    bias_filler {
      type: "constant"
      value: 0
    }
    axis: 2
  }
}
layer {
  name: "lstm1_W_xc_x_slice"
  type: "Slice"
  bottom: "W_xc_x"
  top: "W_xc_x_1"
  slice_param {
    axis: 0
  }
}
layer {
  name: "lstm1_h_conted_0"
  type: "Scale"
  bottom: "h_0"
  bottom: "cont_1"
  top: "h_conted_0"
  scale_param {
    axis: 0
  }
}
layer {
  name: "lstm1_transform_1"
  type: "InnerProduct"
  bottom: "h_conted_0"
  top: "W_hc_h_0"
  param {
    name: "W_hc"
  }
  inner_product_param {
    num_output: 4000
    bias_term: false
    weight_filler {
      type: "uniform"
      min: -0.08
      max: 0.08
    }
    axis: 2
  }
}
layer {
  name: "lstm1_gate_input_1"
  type: "Eltwise"
  bottom: "W_hc_h_0"
  bottom: "W_xc_x_1"
  top: "gate_input_1"
  eltwise_param {
    operation: SUM
  }
}
layer {
  name: "lstm1_unit_1"
  type: "LSTMUnit"
  bottom: "c_0"
  bottom: "gate_input_1"
  bottom: "cont_1"
  top: "c_1"
  top: "h_1"
}
layer {
  name: "lstm1_"
  type: "Split"
  bottom: "c_1"
  top: "c_T"
}
layer {
  name: "lstm1_h_concat"
  type: "Concat"
  bottom: "h_1"
  top: "h"
  concat_param {
    axis: 0
  }
}
layer {
  name: "h_pseudoloss"
  type: "Reduction"
  bottom: "h"
  top: "h_pseudoloss"
  loss_weight: 1
}
I0731 22:28:11.836911 10417 layer_factory.hpp:77] Creating layer lstm1_
I0731 22:28:11.836923 10417 net.cpp:91] Creating Layer lstm1_
I0731 22:28:11.836930 10417 net.cpp:399] lstm1_ -> x
I0731 22:28:11.836941 10417 net.cpp:399] lstm1_ -> cont
I0731 22:28:11.837054 10417 net.cpp:141] Setting up lstm1_
I0731 22:28:11.837064 10417 net.cpp:148] Top shape: 1 1 500 (500)
I0731 22:28:11.837070 10417 net.cpp:148] Top shape: 1 1 (1)
I0731 22:28:11.837074 10417 net.cpp:156] Memory required for data: 2004
I0731 22:28:11.837080 10417 layer_factory.hpp:77] Creating layer lstm1_
I0731 22:28:11.837087 10417 net.cpp:91] Creating Layer lstm1_
I0731 22:28:11.837096 10417 net.cpp:399] lstm1_ -> c_0
I0731 22:28:11.837106 10417 net.cpp:399] lstm1_ -> h_0
I0731 22:28:11.837179 10417 net.cpp:141] Setting up lstm1_
I0731 22:28:11.837190 10417 net.cpp:148] Top shape: 1 1 1000 (1000)
I0731 22:28:11.837196 10417 net.cpp:148] Top shape: 1 1 1000 (1000)
I0731 22:28:11.837194 10427 net.cpp:141] Setting up relu3
I0731 22:28:11.837201 10417 net.cpp:156] Memory required for data: 10004
I0731 22:28:11.837208 10417 layer_factory.hpp:77] Creating layer lstm1_cont_slice
I0731 22:28:11.837209 10427 net.cpp:148] Top shape: 10 384 13 13 (648960)
I0731 22:28:11.837213 10427 net.cpp:156] Memory required for data: 58596920
I0731 22:28:11.837218 10427 layer_factory.hpp:77] Creating layer conv4
I0731 22:28:11.837224 10417 net.cpp:91] Creating Layer lstm1_cont_slice
I0731 22:28:11.837232 10427 net.cpp:91] Creating Layer conv4
I0731 22:28:11.837234 10417 net.cpp:425] lstm1_cont_slice <- cont
I0731 22:28:11.837241 10427 net.cpp:425] conv4 <- conv3
I0731 22:28:11.837255 10427 net.cpp:399] conv4 -> conv4
I0731 22:28:11.837257 10417 net.cpp:399] lstm1_cont_slice -> cont_1
I0731 22:28:11.837443 10417 net.cpp:141] Setting up lstm1_cont_slice
I0731 22:28:11.837453 10417 net.cpp:148] Top shape: 1 1 (1)
I0731 22:28:11.837458 10417 net.cpp:156] Memory required for data: 10008
I0731 22:28:11.837462 10417 layer_factory.hpp:77] Creating layer cont_1_lstm1_cont_slice_0_split
I0731 22:28:11.837471 10417 net.cpp:91] Creating Layer cont_1_lstm1_cont_slice_0_split
I0731 22:28:11.837476 10417 net.cpp:425] cont_1_lstm1_cont_slice_0_split <- cont_1
I0731 22:28:11.837496 10417 net.cpp:399] cont_1_lstm1_cont_slice_0_split -> cont_1_lstm1_cont_slice_0_split_0
I0731 22:28:11.837505 10417 net.cpp:399] cont_1_lstm1_cont_slice_0_split -> cont_1_lstm1_cont_slice_0_split_1
I0731 22:28:11.838973 10417 net.cpp:141] Setting up cont_1_lstm1_cont_slice_0_split
I0731 22:28:11.838984 10417 net.cpp:148] Top shape: 1 1 (1)
I0731 22:28:11.838989 10417 net.cpp:148] Top shape: 1 1 (1)
I0731 22:28:11.838992 10417 net.cpp:156] Memory required for data: 10016
I0731 22:28:11.838996 10417 layer_factory.hpp:77] Creating layer lstm1_x_transform
I0731 22:28:11.839006 10417 net.cpp:91] Creating Layer lstm1_x_transform
I0731 22:28:11.839011 10417 net.cpp:425] lstm1_x_transform <- x
I0731 22:28:11.839018 10417 net.cpp:399] lstm1_x_transform -> W_xc_x
I0731 22:28:11.845366 10427 net.cpp:141] Setting up conv4
I0731 22:28:11.845402 10427 net.cpp:148] Top shape: 10 384 13 13 (648960)
I0731 22:28:11.845407 10427 net.cpp:156] Memory required for data: 61192760
I0731 22:28:11.845418 10427 layer_factory.hpp:77] Creating layer relu4
I0731 22:28:11.845434 10427 net.cpp:91] Creating Layer relu4
I0731 22:28:11.845439 10427 net.cpp:425] relu4 <- conv4
I0731 22:28:11.845448 10427 net.cpp:386] relu4 -> conv4 (in-place)
I0731 22:28:11.845883 10427 net.cpp:141] Setting up relu4
I0731 22:28:11.845896 10427 net.cpp:148] Top shape: 10 384 13 13 (648960)
I0731 22:28:11.845901 10427 net.cpp:156] Memory required for data: 63788600
I0731 22:28:11.845906 10427 layer_factory.hpp:77] Creating layer conv5
I0731 22:28:11.845921 10427 net.cpp:91] Creating Layer conv5
I0731 22:28:11.845927 10427 net.cpp:425] conv5 <- conv4
I0731 22:28:11.845937 10427 net.cpp:399] conv5 -> conv5
I0731 22:28:11.849870 10427 net.cpp:141] Setting up conv5
I0731 22:28:11.849889 10427 net.cpp:148] Top shape: 10 256 13 13 (432640)
I0731 22:28:11.849894 10427 net.cpp:156] Memory required for data: 65519160
I0731 22:28:11.849907 10427 layer_factory.hpp:77] Creating layer relu5
I0731 22:28:11.849920 10427 net.cpp:91] Creating Layer relu5
I0731 22:28:11.849925 10427 net.cpp:425] relu5 <- conv5
I0731 22:28:11.849931 10427 net.cpp:386] relu5 -> conv5 (in-place)
I0731 22:28:11.850373 10427 net.cpp:141] Setting up relu5
I0731 22:28:11.850384 10427 net.cpp:148] Top shape: 10 256 13 13 (432640)
I0731 22:28:11.850391 10427 net.cpp:156] Memory required for data: 67249720
I0731 22:28:11.850397 10427 layer_factory.hpp:77] Creating layer pool5
I0731 22:28:11.850407 10427 net.cpp:91] Creating Layer pool5
I0731 22:28:11.850411 10427 net.cpp:425] pool5 <- conv5
I0731 22:28:11.850419 10427 net.cpp:399] pool5 -> pool5
I0731 22:28:11.850481 10427 net.cpp:141] Setting up pool5
I0731 22:28:11.850491 10427 net.cpp:148] Top shape: 10 256 6 6 (92160)
I0731 22:28:11.850494 10427 net.cpp:156] Memory required for data: 67618360
I0731 22:28:11.850499 10427 layer_factory.hpp:77] Creating layer fc6
I0731 22:28:11.850515 10427 net.cpp:91] Creating Layer fc6
I0731 22:28:11.850520 10427 net.cpp:425] fc6 <- pool5
I0731 22:28:11.850528 10427 net.cpp:399] fc6 -> fc6
I0731 22:28:11.920364 10417 net.cpp:141] Setting up lstm1_x_transform
I0731 22:28:11.920413 10417 net.cpp:148] Top shape: 1 1 4000 (4000)
I0731 22:28:11.920418 10417 net.cpp:156] Memory required for data: 26016
I0731 22:28:11.920439 10417 layer_factory.hpp:77] Creating layer lstm1_W_xc_x_slice
I0731 22:28:11.920456 10417 net.cpp:91] Creating Layer lstm1_W_xc_x_slice
I0731 22:28:11.920462 10417 net.cpp:425] lstm1_W_xc_x_slice <- W_xc_x
I0731 22:28:11.920472 10417 net.cpp:399] lstm1_W_xc_x_slice -> W_xc_x_1
I0731 22:28:11.920521 10417 net.cpp:141] Setting up lstm1_W_xc_x_slice
I0731 22:28:11.920529 10417 net.cpp:148] Top shape: 1 1 4000 (4000)
I0731 22:28:11.920533 10417 net.cpp:156] Memory required for data: 42016
I0731 22:28:11.920537 10417 layer_factory.hpp:77] Creating layer lstm1_h_conted_0
I0731 22:28:11.920547 10417 net.cpp:91] Creating Layer lstm1_h_conted_0
I0731 22:28:11.920552 10417 net.cpp:425] lstm1_h_conted_0 <- h_0
I0731 22:28:11.920558 10417 net.cpp:425] lstm1_h_conted_0 <- cont_1_lstm1_cont_slice_0_split_0
I0731 22:28:11.920564 10417 net.cpp:399] lstm1_h_conted_0 -> h_conted_0
I0731 22:28:11.920653 10417 net.cpp:141] Setting up lstm1_h_conted_0
I0731 22:28:11.920662 10417 net.cpp:148] Top shape: 1 1 1000 (1000)
I0731 22:28:11.920666 10417 net.cpp:156] Memory required for data: 46016
I0731 22:28:11.920670 10417 layer_factory.hpp:77] Creating layer lstm1_transform_1
I0731 22:28:11.920689 10417 net.cpp:91] Creating Layer lstm1_transform_1
I0731 22:28:11.920696 10417 net.cpp:425] lstm1_transform_1 <- h_conted_0
I0731 22:28:11.920703 10417 net.cpp:399] lstm1_transform_1 -> W_hc_h_0
I0731 22:28:11.959358 10417 net.cpp:141] Setting up lstm1_transform_1
I0731 22:28:11.959406 10417 net.cpp:148] Top shape: 1 1 4000 (4000)
I0731 22:28:11.959413 10417 net.cpp:156] Memory required for data: 62016
I0731 22:28:11.959430 10417 layer_factory.hpp:77] Creating layer lstm1_gate_input_1
I0731 22:28:11.959450 10417 net.cpp:91] Creating Layer lstm1_gate_input_1
I0731 22:28:11.959456 10417 net.cpp:425] lstm1_gate_input_1 <- W_hc_h_0
I0731 22:28:11.959465 10417 net.cpp:425] lstm1_gate_input_1 <- W_xc_x_1
I0731 22:28:11.959475 10417 net.cpp:399] lstm1_gate_input_1 -> gate_input_1
I0731 22:28:11.959532 10417 net.cpp:141] Setting up lstm1_gate_input_1
I0731 22:28:11.959540 10417 net.cpp:148] Top shape: 1 1 4000 (4000)
I0731 22:28:11.959544 10417 net.cpp:156] Memory required for data: 78016
I0731 22:28:11.959549 10417 layer_factory.hpp:77] Creating layer lstm1_unit_1
I0731 22:28:11.959561 10417 net.cpp:91] Creating Layer lstm1_unit_1
I0731 22:28:11.959565 10417 net.cpp:425] lstm1_unit_1 <- c_0
I0731 22:28:11.959571 10417 net.cpp:425] lstm1_unit_1 <- gate_input_1
I0731 22:28:11.959576 10417 net.cpp:425] lstm1_unit_1 <- cont_1_lstm1_cont_slice_0_split_1
I0731 22:28:11.959583 10417 net.cpp:399] lstm1_unit_1 -> c_1
I0731 22:28:11.959591 10417 net.cpp:399] lstm1_unit_1 -> h_1
I0731 22:28:11.959653 10417 net.cpp:141] Setting up lstm1_unit_1
I0731 22:28:11.959661 10417 net.cpp:148] Top shape: 1 1 1000 (1000)
I0731 22:28:11.959667 10417 net.cpp:148] Top shape: 1 1 1000 (1000)
I0731 22:28:11.959671 10417 net.cpp:156] Memory required for data: 86016
I0731 22:28:11.959676 10417 layer_factory.hpp:77] Creating layer lstm1_
I0731 22:28:11.959684 10417 net.cpp:91] Creating Layer lstm1_
I0731 22:28:11.959688 10417 net.cpp:425] lstm1_ <- c_1
I0731 22:28:11.959699 10417 net.cpp:399] lstm1_ -> c_T
I0731 22:28:11.959729 10417 net.cpp:141] Setting up lstm1_
I0731 22:28:11.959736 10417 net.cpp:148] Top shape: 1 1 1000 (1000)
I0731 22:28:11.959740 10417 net.cpp:156] Memory required for data: 90016
I0731 22:28:11.959745 10417 layer_factory.hpp:77] Creating layer lstm1_h_concat
I0731 22:28:11.959753 10417 net.cpp:91] Creating Layer lstm1_h_concat
I0731 22:28:11.959758 10417 net.cpp:425] lstm1_h_concat <- h_1
I0731 22:28:11.959764 10417 net.cpp:399] lstm1_h_concat -> h
I0731 22:28:11.959808 10417 net.cpp:141] Setting up lstm1_h_concat
I0731 22:28:11.959816 10417 net.cpp:148] Top shape: 1 1 1000 (1000)
I0731 22:28:11.959820 10417 net.cpp:156] Memory required for data: 94016
I0731 22:28:11.959825 10417 layer_factory.hpp:77] Creating layer h_pseudoloss
I0731 22:28:11.959839 10417 net.cpp:91] Creating Layer h_pseudoloss
I0731 22:28:11.959843 10417 net.cpp:425] h_pseudoloss <- h
I0731 22:28:11.959851 10417 net.cpp:399] h_pseudoloss -> h_pseudoloss
I0731 22:28:11.959957 10417 net.cpp:141] Setting up h_pseudoloss
…
I0731 22:28:11.960078 10417 net.cpp:219] lstm1_ does not need backward computation.
I0731 22:28:11.960081 10417 net.cpp:261] This network produces output c_T
I0731 22:28:11.960088 10417 net.cpp:261] This network produces output h_pseudoloss
I0731 22:28:11.960111 10417 net.cpp:274] Network initialization done.
I0731 22:28:11.960175 10417 recurrent_layer.cpp:150] Adding parameter 0: W_xc
I0731 22:28:11.960183 10417 recurrent_layer.cpp:150] Adding parameter 1: b_c
I0731 22:28:11.960187 10417 recurrent_layer.cpp:150] Adding parameter 2: W_hc
I0731 22:28:11.960307 10417 net.cpp:141] Setting up lstm1
I0731 22:28:11.960320 10417 net.cpp:148] Top shape: 1 1 1000 (1000)
I0731 22:28:11.960325 10417 net.cpp:156] Memory required for data: 26408
I0731 22:28:11.960337 10417 layer_factory.hpp:77] Creating layer concat
I0731 22:28:11.960345 10417 net.cpp:91] Creating Layer concat
I0731 22:28:11.960351 10417 net.cpp:425] concat <- lstm1
I0731 22:28:11.960357 10417 net.cpp:425] concat <- embedded_input_sentence
I0731 22:28:11.960363 10417 net.cpp:425] concat <- reshaped_stage_indicator
I0731 22:28:11.960369 10417 net.cpp:399] concat -> lstm1_video_sequence
I0731 22:28:11.960402 10417 net.cpp:141] Setting up concat
I0731 22:28:11.960409 10417 net.cpp:148] Top shape: 1 1 1501 (1501)
I0731 22:28:11.960413 10417 net.cpp:156] Memory required for data: 32412
I0731 22:28:11.960417 10417 layer_factory.hpp:77] Creating layer lstm2
I0731 22:28:11.960428 10417 net.cpp:91] Creating Layer lstm2
I0731 22:28:11.960433 10417 net.cpp:425] lstm2 <- lstm1_video_sequence
I0731 22:28:11.960439 10417 net.cpp:425] lstm2 <- cont_sentence_input_1_split_1
I0731 22:28:11.960445 10417 net.cpp:399] lstm2 -> lstm2
I0731 22:28:11.960454 10417 recurrent_layer.cpp:20] Initializing recurrent layer: assuming input batch contains 1 timesteps of 1 independent streams.
I0731 22:28:11.960685 10417 net.cpp:49] Initializing net from parameters: 
layer {
  name: "lstm2_"
  type: "Input"
  top: "x"
  top: "cont"
  input_param {
    shape {
      dim: 1
      dim: 1
      dim: 1501
    }
    shape {
      dim: 1
      dim: 1
    }
  }
}
layer {
  name: "lstm2_"
  type: "Input"
  top: "c_0"
  top: "h_0"
  input_param {
    shape {
      dim: 1
      dim: 1
      dim: 1000
    }
    shape {
      dim: 1
      dim: 1
      dim: 1000
    }
  }
}
layer {
  name: "lstm2_cont_slice"
  type: "Slice"
  bottom: "cont"
  top: "cont_1"
  slice_param {
    axis: 0
  }
}
layer {
  name: "lstm2_x_transform"
  type: "InnerProduct"
  bottom: "x"
  top: "W_xc_x"
  param {
    name: "W_xc"
  }
  param {
    name: "b_c"
  }
  propagate_down: true
  inner_product_param {
    num_output: 4000
    bias_term: true
    weight_filler {
      type: "uniform"
      min: -0.08
      max: 0.08
    }
    bias_filler {
      type: "constant"
      value: 0
    }
    axis: 2
  }
}
layer {
  name: "lstm2_W_xc_x_slice"
  type: "Slice"
  bottom: "W_xc_x"
  top: "W_xc_x_1"
  slice_param {
    axis: 0
  }
}
layer {
  name: "lstm2_h_conted_0"
  type: "Scale"
  bottom: "h_0"
  bottom: "cont_1"
  top: "h_conted_0"
  scale_param {
    axis: 0
  }
}
layer {
  name: "lstm2_transform_1"
  type: "InnerProduct"
  bottom: "h_conted_0"
  top: "W_hc_h_0"
  param {
    name: "W_hc"
  }
  inner_product_param {
    num_output: 4000
    bias_term: false
    weight_filler {
      type: "uniform"
      min: -0.08
      max: 0.08
    }
    axis: 2
  }
}
layer {
  name: "lstm2_gate_input_1"
  type: "Eltwise"
  bottom: "W_hc_h_0"
  bottom: "W_xc_x_1"
  top: "gate_input_1"
  eltwise_param {
    operation: SUM
  }
}
layer {
  name: "lstm2_unit_1"
  type: "LSTMUnit"
  bottom: "c_0"
  bottom: "gate_input_1"
  bottom: "cont_1"
  top: "c_1"
  top: "h_1"
}
layer {
  name: "lstm2_"
  type: "Split"
  bottom: "c_1"
  top: "c_T"
}
layer {
  name: "lstm2_h_concat"
  type: "Concat"
  bottom: "h_1"
  top: "h"
  concat_param {
    axis: 0
  }
}
layer {
  name: "h_pseudoloss"
  type: "Reduction"
  bottom: "h"
  top: "h_pseudoloss"
  loss_weight: 1
}
I0731 22:28:11.960765 10417 layer_factory.hpp:77] Creating layer lstm2_
I0731 22:28:11.960777 10417 net.cpp:91] Creating Layer lstm2_
I0731 22:28:11.960783 10417 net.cpp:399] lstm2_ -> x
I0731 22:28:11.960793 10417 net.cpp:399] lstm2_ -> cont
I0731 22:28:11.960844 10417 net.cpp:141] Setting up lstm2_
I0731 22:28:11.960853 10417 net.cpp:148] Top shape: 1 1 1501 (1501)
I0731 22:28:11.960858 10417 net.cpp:148] Top shape: 1 1 (1)
I0731 22:28:11.960862 10417 net.cpp:156] Memory required for data: 6008
I0731 22:28:11.960867 10417 layer_factory.hpp:77] Creating layer lstm2_
I0731 22:28:11.960877 10417 net.cpp:91] Creating Layer lstm2_
I0731 22:28:11.960885 10417 net.cpp:399] lstm2_ -> c_0
I0731 22:28:11.960893 10417 net.cpp:399] lstm2_ -> h_0
I0731 22:28:11.960940 10417 net.cpp:141] Setting up lstm2_
I0731 22:28:11.960948 10417 net.cpp:148] Top shape: 1 1 1000 (1000)
I0731 22:28:11.960953 10417 net.cpp:148] Top shape: 1 1 1000 (1000)
I0731 22:28:11.960958 10417 net.cpp:156] Memory required for data: 14008
I0731 22:28:11.960961 10417 layer_factory.hpp:77] Creating layer lstm2_cont_slice
I0731 22:28:11.960970 10417 net.cpp:91] Creating Layer lstm2_cont_slice
I0731 22:28:11.960974 10417 net.cpp:425] lstm2_cont_slice <- cont
I0731 22:28:11.960980 10417 net.cpp:399] lstm2_cont_slice -> cont_1
I0731 22:28:11.961014 10417 net.cpp:141] Setting up lstm2_cont_slice
I0731 22:28:11.961022 10417 net.cpp:148] Top shape: 1 1 (1)
I0731 22:28:11.961026 10417 net.cpp:156] Memory required for data: 14012
I0731 22:28:11.961030 10417 layer_factory.hpp:77] Creating layer cont_1_lstm2_cont_slice_0_split
I0731 22:28:11.961036 10417 net.cpp:91] Creating Layer cont_1_lstm2_cont_slice_0_split
I0731 22:28:11.961040 10417 net.cpp:425] cont_1_lstm2_cont_slice_0_split <- cont_1
I0731 22:28:11.961048 10417 net.cpp:399] cont_1_lstm2_cont_slice_0_split -> cont_1_lstm2_cont_slice_0_split_0
I0731 22:28:11.961056 10417 net.cpp:399] cont_1_lstm2_cont_slice_0_split -> cont_1_lstm2_cont_slice_0_split_1
I0731 22:28:11.961099 10417 net.cpp:141] Setting up cont_1_lstm2_cont_slice_0_split
I0731 22:28:11.961108 10417 net.cpp:148] Top shape: 1 1 (1)
I0731 22:28:11.961113 10417 net.cpp:148] Top shape: 1 1 (1)
I0731 22:28:11.961117 10417 net.cpp:156] Memory required for data: 14020
I0731 22:28:11.961122 10417 layer_factory.hpp:77] Creating layer lstm2_x_transform
I0731 22:28:11.961130 10417 net.cpp:91] Creating Layer lstm2_x_transform
I0731 22:28:11.961135 10417 net.cpp:425] lstm2_x_transform <- x
I0731 22:28:11.961144 10417 net.cpp:399] lstm2_x_transform -> W_xc_x
I0731 22:28:11.972369 10427 net.cpp:141] Setting up fc6
I0731 22:28:11.972417 10427 net.cpp:148] Top shape: 10 4096 (40960)
I0731 22:28:11.972422 10427 net.cpp:156] Memory required for data: 67782200
I0731 22:28:11.972440 10427 layer_factory.hpp:77] Creating layer relu6
I0731 22:28:11.972457 10427 net.cpp:91] Creating Layer relu6
I0731 22:28:11.972465 10427 net.cpp:425] relu6 <- fc6
I0731 22:28:11.972473 10427 net.cpp:386] relu6 -> fc6 (in-place)
I0731 22:28:11.973047 10427 net.cpp:141] Setting up relu6
I0731 22:28:11.973057 10427 net.cpp:148] Top shape: 10 4096 (40960)
I0731 22:28:11.973062 10427 net.cpp:156] Memory required for data: 67946040
I0731 22:28:11.973067 10427 layer_factory.hpp:77] Creating layer drop6
I0731 22:28:11.973088 10427 net.cpp:91] Creating Layer drop6
I0731 22:28:11.973094 10427 net.cpp:425] drop6 <- fc6
I0731 22:28:11.973100 10427 net.cpp:386] drop6 -> fc6 (in-place)
I0731 22:28:11.973155 10427 net.cpp:141] Setting up drop6
I0731 22:28:11.973165 10427 net.cpp:148] Top shape: 10 4096 (40960)
I0731 22:28:11.973168 10427 net.cpp:156] Memory required for data: 68109880
I0731 22:28:11.973173 10427 layer_factory.hpp:77] Creating layer fc7
I0731 22:28:11.973184 10427 net.cpp:91] Creating Layer fc7
I0731 22:28:11.973188 10427 net.cpp:425] fc7 <- fc6
I0731 22:28:11.973199 10427 net.cpp:399] fc7 -> fc7
I0731 22:28:12.022469 10417 net.cpp:141] Setting up lstm2_x_transform
I0731 22:28:12.022516 10417 net.cpp:148] Top shape: 1 1 4000 (4000)
I0731 22:28:12.022521 10417 net.cpp:156] Memory required for data: 30020
I0731 22:28:12.022542 10417 layer_factory.hpp:77] Creating layer lstm2_W_xc_x_slice
I0731 22:28:12.022559 10417 net.cpp:91] Creating Layer lstm2_W_xc_x_slice
I0731 22:28:12.022565 10417 net.cpp:425] lstm2_W_xc_x_slice <- W_xc_x
I0731 22:28:12.022575 10417 net.cpp:399] lstm2_W_xc_x_slice -> W_xc_x_1
I0731 22:28:12.022606 10427 net.cpp:141] Setting up fc7
I0731 22:28:12.022629 10427 net.cpp:148] Top shape: 10 4096 (40960)
I0731 22:28:12.022631 10417 net.cpp:141] Setting up lstm2_W_xc_x_slice
I0731 22:28:12.022636 10427 net.cpp:156] Memory required for data: 68273720
I0731 22:28:12.022641 10417 net.cpp:148] Top shape: 1 1 4000 (4000)
I0731 22:28:12.022646 10417 net.cpp:156] Memory required for data: 46020
I0731 22:28:12.022650 10417 layer_factory.hpp:77] Creating layer lstm2_h_conted_0
I0731 22:28:12.022655 10427 layer_factory.hpp:77] Creating layer relu7
I0731 22:28:12.022660 10417 net.cpp:91] Creating Layer lstm2_h_conted_0
I0731 22:28:12.022665 10417 net.cpp:425] lstm2_h_conted_0 <- h_0
I0731 22:28:12.022671 10417 net.cpp:425] lstm2_h_conted_0 <- cont_1_lstm2_cont_slice_0_split_0
I0731 22:28:12.022676 10427 net.cpp:91] Creating Layer relu7
I0731 22:28:12.022678 10417 net.cpp:399] lstm2_h_conted_0 -> h_conted_0
I0731 22:28:12.022691 10427 net.cpp:425] relu7 <- fc7
I0731 22:28:12.022702 10427 net.cpp:386] relu7 -> fc7 (in-place)
I0731 22:28:12.022794 10417 net.cpp:141] Setting up lstm2_h_conted_0
I0731 22:28:12.022804 10417 net.cpp:148] Top shape: 1 1 1000 (1000)
I0731 22:28:12.022807 10417 net.cpp:156] Memory required for data: 50020
I0731 22:28:12.022811 10417 layer_factory.hpp:77] Creating layer lstm2_transform_1
I0731 22:28:12.022825 10417 net.cpp:91] Creating Layer lstm2_transform_1
I0731 22:28:12.022830 10417 net.cpp:425] lstm2_transform_1 <- h_conted_0
I0731 22:28:12.022837 10417 net.cpp:399] lstm2_transform_1 -> W_hc_h_0
I0731 22:28:12.031630 10427 net.cpp:141] Setting up relu7
I0731 22:28:12.031684 10427 net.cpp:148] Top shape: 10 4096 (40960)
I0731 22:28:12.031690 10427 net.cpp:156] Memory required for data: 68437560
I0731 22:28:12.031700 10427 layer_factory.hpp:77] Creating layer drop7
I0731 22:28:12.031723 10427 net.cpp:91] Creating Layer drop7
I0731 22:28:12.031731 10427 net.cpp:425] drop7 <- fc7
I0731 22:28:12.031741 10427 net.cpp:386] drop7 -> fc7 (in-place)
I0731 22:28:12.031807 10427 net.cpp:141] Setting up drop7
I0731 22:28:12.031816 10427 net.cpp:148] Top shape: 10 4096 (40960)
I0731 22:28:12.031819 10427 net.cpp:156] Memory required for data: 68601400
I0731 22:28:12.031824 10427 layer_factory.hpp:77] Creating layer fc8
I0731 22:28:12.031836 10427 net.cpp:91] Creating Layer fc8
I0731 22:28:12.031841 10427 net.cpp:425] fc8 <- fc7
I0731 22:28:12.031858 10427 net.cpp:399] fc8 -> fc8
I0731 22:28:12.044168 10427 net.cpp:141] Setting up fc8
I0731 22:28:12.044216 10427 net.cpp:148] Top shape: 10 1000 (10000)
I0731 22:28:12.044222 10427 net.cpp:156] Memory required for data: 68641400
I0731 22:28:12.044237 10427 layer_factory.hpp:77] Creating layer prob
I0731 22:28:12.044253 10427 net.cpp:91] Creating Layer prob
I0731 22:28:12.044260 10427 net.cpp:425] prob <- fc8
I0731 22:28:12.044270 10427 net.cpp:399] prob -> prob
I0731 22:28:12.044690 10427 net.cpp:141] Setting up prob
I0731 22:28:12.044704 10427 net.cpp:148] Top shape: 10 1000 (10000)
I0731 22:28:12.044708 10427 net.cpp:156] Memory required for data: 68681400
I0731 22:28:12.044713 10427 net.cpp:219] prob does not need backward computation.
I0731 22:28:12.044718 10427 net.cpp:219] fc8 does not need backward computation.
I0731 22:28:12.044723 10427 net.cpp:219] drop7 does not need backward computation.
I0731 22:28:12.044728 10427 net.cpp:219] relu7 does not need backward computation.
…
I0731 22:28:12.044800 10427 net.cpp:219] norm1 does not need backward computation.
I0731 22:28:12.044806 10427 net.cpp:219] pool1 does not need backward computation.
I0731 22:28:12.044809 10427 net.cpp:219] relu1 does not need backward computation.
I0731 22:28:12.044813 10427 net.cpp:219] conv1 does not need backward computation.
I0731 22:28:12.044817 10427 net.cpp:219] data does not need backward computation.
I0731 22:28:12.044821 10427 net.cpp:261] This network produces output prob
I0731 22:28:12.044839 10427 net.cpp:274] Network initialization done.
I0731 22:28:12.063491 10417 net.cpp:141] Setting up lstm2_transform_1
I0731 22:28:12.063549 10417 net.cpp:148] Top shape: 1 1 4000 (4000)
I0731 22:28:12.063555 10417 net.cpp:156] Memory required for data: 66020
I0731 22:28:12.063573 10417 layer_factory.hpp:77] Creating layer lstm2_gate_input_1
I0731 22:28:12.063594 10417 net.cpp:91] Creating Layer lstm2_gate_input_1
I0731 22:28:12.063601 10417 net.cpp:425] lstm2_gate_input_1 <- W_hc_h_0
I0731 22:28:12.063609 10417 net.cpp:425] lstm2_gate_input_1 <- W_xc_x_1
I0731 22:28:12.063616 10417 net.cpp:399] lstm2_gate_input_1 -> gate_input_1
I0731 22:28:12.063666 10417 net.cpp:141] Setting up lstm2_gate_input_1
I0731 22:28:12.063675 10417 net.cpp:148] Top shape: 1 1 4000 (4000)
I0731 22:28:12.063679 10417 net.cpp:156] Memory required for data: 82020
I0731 22:28:12.063683 10417 layer_factory.hpp:77] Creating layer lstm2_unit_1
I0731 22:28:12.063694 10417 net.cpp:91] Creating Layer lstm2_unit_1
I0731 22:28:12.063699 10417 net.cpp:425] lstm2_unit_1 <- c_0
I0731 22:28:12.063705 10417 net.cpp:425] lstm2_unit_1 <- gate_input_1
I0731 22:28:12.063710 10417 net.cpp:425] lstm2_unit_1 <- cont_1_lstm2_cont_slice_0_split_1
I0731 22:28:12.063716 10417 net.cpp:399] lstm2_unit_1 -> c_1
I0731 22:28:12.063724 10417 net.cpp:399] lstm2_unit_1 -> h_1
I0731 22:28:12.063787 10417 net.cpp:141] Setting up lstm2_unit_1
I0731 22:28:12.063796 10417 net.cpp:148] Top shape: 1 1 1000 (1000)
I0731 22:28:12.063802 10417 net.cpp:148] Top shape: 1 1 1000 (1000)
I0731 22:28:12.063805 10417 net.cpp:156] Memory required for data: 90020
I0731 22:28:12.063809 10417 layer_factory.hpp:77] Creating layer lstm2_
I0731 22:28:12.063818 10417 net.cpp:91] Creating Layer lstm2_
I0731 22:28:12.063823 10417 net.cpp:425] lstm2_ <- c_1
I0731 22:28:12.063829 10417 net.cpp:399] lstm2_ -> c_T
I0731 22:28:12.063858 10417 net.cpp:141] Setting up lstm2_
I0731 22:28:12.063866 10417 net.cpp:148] Top shape: 1 1 1000 (1000)
I0731 22:28:12.063870 10417 net.cpp:156] Memory required for data: 94020
I0731 22:28:12.063875 10417 layer_factory.hpp:77] Creating layer lstm2_h_concat
I0731 22:28:12.063887 10417 net.cpp:91] Creating Layer lstm2_h_concat
I0731 22:28:12.063892 10417 net.cpp:425] lstm2_h_concat <- h_1
I0731 22:28:12.063899 10417 net.cpp:399] lstm2_h_concat -> h
I0731 22:28:12.063933 10417 net.cpp:141] Setting up lstm2_h_concat
I0731 22:28:12.063941 10417 net.cpp:148] Top shape: 1 1 1000 (1000)
I0731 22:28:12.063946 10417 net.cpp:156] Memory required for data: 98020
I0731 22:28:12.063949 10417 layer_factory.hpp:77] Creating layer h_pseudoloss
I0731 22:28:12.063959 10417 net.cpp:91] Creating Layer h_pseudoloss
I0731 22:28:12.063963 10417 net.cpp:425] h_pseudoloss <- h
I0731 22:28:12.063972 10417 net.cpp:399] h_pseudoloss -> h_pseudoloss
I0731 22:28:12.064075 10417 net.cpp:141] Setting up h_pseudoloss
…
