…
2016-07-31 22:28:11.610 STDERR [INFO] I0731 22:28:11.589766 10417 net.cpp:91] Creating Layer input
2016-07-31 22:28:11.610 STDERR [INFO] I0731 22:28:11.589773 10417 net.cpp:399] input -> frames_fc7
2016-07-31 22:28:11.610 STDERR [INFO] I0731 22:28:11.589790 10417 net.cpp:399] input -> cont_sentence
2016-07-31 22:28:11.610 STDERR [INFO] I0731 22:28:11.589800 10417 net.cpp:399] input -> input_sentence
2016-07-31 22:28:11.610 STDERR [INFO] I0731 22:28:11.589810 10417 net.cpp:399] input -> stage_indicator
2016-07-31 22:28:11.611 STDERR [INFO] I0731 22:28:11.590867 10417 net.cpp:141] Setting up input
2016-07-31 22:28:11.611 STDERR [INFO] I0731 22:28:11.590886 10417 net.cpp:148] Top shape: 1 4096 (4096)
2016-07-31 22:28:11.611 STDERR [INFO] I0731 22:28:11.590893 10417 net.cpp:148] Top shape: 1 1 (1)
2016-07-31 22:28:11.611 STDERR [INFO] I0731 22:28:11.590898 10417 net.cpp:148] Top shape: 1 1 (1)
2016-07-31 22:28:11.611 STDERR [INFO] I0731 22:28:11.590903 10417 net.cpp:148] Top shape: 1 1 (1)
2016-07-31 22:28:11.611 STDERR [INFO] I0731 22:28:11.590905 10417 net.cpp:156] Memory required for data: 16396
2016-07-31 22:28:11.611 STDERR [INFO] I0731 22:28:11.590911 10417 layer_factory.hpp:77] Creating layer cont_sentence_input_1_split
2016-07-31 22:28:11.611 STDERR [INFO] I0731 22:28:11.590930 10417 net.cpp:91] Creating Layer cont_sentence_input_1_split
2016-07-31 22:28:11.611 STDERR [INFO] I0731 22:28:11.590936 10417 net.cpp:425] cont_sentence_input_1_split <- cont_sentence
2016-07-31 22:28:11.611 STDERR [INFO] I0731 22:28:11.590957 10417 net.cpp:399] cont_sentence_input_1_split -> cont_sentence_input_1_split_0
2016-07-31 22:28:11.611 STDERR [INFO] I0731 22:28:11.590967 10417 net.cpp:399] cont_sentence_input_1_split -> cont_sentence_input_1_split_1
2016-07-31 22:28:11.611 n.t.s.s.CVParticleSpout [INFO] [Timing] RequestID: 0 StreamID: home/peifeng/work/data/frame.320x240.jpg SequenceNr: 126 Leaving fetcher: 1470018491611 Size: 8702
2016-07-31 22:28:11.612 STDERR [INFO] I0731 22:28:11.591866 10417 net.cpp:141] Setting up cont_sentence_input_1_split
2016-07-31 22:28:11.612 STDERR [INFO] I0731 22:28:11.591886 10417 net.cpp:148] Top shape: 1 1 (1)
2016-07-31 22:28:11.612 STDERR [INFO] I0731 22:28:11.591893 10417 net.cpp:148] Top shape: 1 1 (1)
2016-07-31 22:28:11.612 STDERR [INFO] I0731 22:28:11.591897 10417 net.cpp:156] Memory required for data: 16404
2016-07-31 22:28:11.612 STDERR [INFO] I0731 22:28:11.591902 10417 layer_factory.hpp:77] Creating layer embed_encoder
2016-07-31 22:28:11.612 STDERR [INFO] I0731 22:28:11.591919 10417 net.cpp:91] Creating Layer embed_encoder
2016-07-31 22:28:11.612 STDERR [INFO] I0731 22:28:11.591928 10417 net.cpp:425] embed_encoder <- frames_fc7
2016-07-31 22:28:11.612 STDERR [INFO] I0731 22:28:11.591943 10417 net.cpp:399] embed_encoder -> embedded_in_frames
2016-07-31 22:28:11.614 n.t.s.b.CVParticleBolt [INFO] [Timing] RequestID: 0 StreamID: home/peifeng/work/data/frame.320x240.jpg SequenceNr: 125 Leaving scale: 1470018491614 Size: 3530
2016-07-31 22:28:11.614 n.t.s.b.CVParticleBolt [INFO] [Timing] RequestID: 0 StreamID: home/peifeng/work/data/frame.320x240.jpg SequenceNr: 126 Entering scale: 1470018491614
2016-07-31 22:28:11.616 n.t.s.s.CVParticleSpout [INFO] [Timing] RequestID: 0 StreamID: home/peifeng/work/data/frame.320x240.jpg SequenceNr: 127 Leaving fetcher: 1470018491616 Size: 8702
2016-07-31 22:28:11.616 n.t.s.b.CVParticleBolt [INFO] [Timing] RequestID: 0 StreamID: home/peifeng/work/data/frame.320x240.jpg SequenceNr: 127 Entering scale: 1470018491616
2016-07-31 22:28:11.619 STDERR [INFO] I0731 22:28:11.619405 10417 net.cpp:141] Setting up embed_encoder
2016-07-31 22:28:11.619 STDERR [INFO] I0731 22:28:11.619447 10417 net.cpp:148] Top shape: 1 500 (500)
2016-07-31 22:28:11.619 STDERR [INFO] I0731 22:28:11.619453 10417 net.cpp:156] Memory required for data: 18404
2016-07-31 22:28:11.620 STDERR [INFO] I0731 22:28:11.619479 10417 layer_factory.hpp:77] Creating layer reshape_frames
2016-07-31 22:28:11.620 n.t.s.b.CVParticleBolt [INFO] [Timing] RequestID: 0 StreamID: home/peifeng/work/data/frame.320x240.jpg SequenceNr: 126 Leaving scale: 1470018491620 Size: 3530
2016-07-31 22:28:11.620 STDERR [INFO] I0731 22:28:11.619504 10417 net.cpp:91] Creating Layer reshape_frames
2016-07-31 22:28:11.620 STDERR [INFO] I0731 22:28:11.619513 10417 net.cpp:425] reshape_frames <- embedded_in_frames
2016-07-31 22:28:11.620 STDERR [INFO] I0731 22:28:11.619524 10417 net.cpp:399] reshape_frames -> embedded_input_frames
2016-07-31 22:28:11.620 STDERR [INFO] I0731 22:28:11.619613 10417 net.cpp:141] Setting up reshape_frames
2016-07-31 22:28:11.620 STDERR [INFO] I0731 22:28:11.619631 10417 net.cpp:148] Top shape: 1 1 500 (500)
2016-07-31 22:28:11.620 STDERR [INFO] I0731 22:28:11.619638 10417 net.cpp:156] Memory required for data: 20404
2016-07-31 22:28:11.620 STDERR [INFO] I0731 22:28:11.619647 10417 layer_factory.hpp:77] Creating layer reshape_stage_indicator
2016-07-31 22:28:11.620 STDERR [INFO] I0731 22:28:11.619663 10417 net.cpp:91] Creating Layer reshape_stage_indicator
2016-07-31 22:28:11.621 STDERR [INFO] I0731 22:28:11.619673 10417 net.cpp:425] reshape_stage_indicator <- stage_indicator
2016-07-31 22:28:11.621 STDERR [INFO] I0731 22:28:11.619691 10417 net.cpp:399] reshape_stage_indicator -> reshaped_stage_indicator
2016-07-31 22:28:11.621 STDERR [INFO] I0731 22:28:11.619740 10417 net.cpp:141] Setting up reshape_stage_indicator
2016-07-31 22:28:11.621 STDERR [INFO] I0731 22:28:11.619751 10417 net.cpp:148] Top shape: 1 1 1 (1)
2016-07-31 22:28:11.621 STDERR [INFO] I0731 22:28:11.619755 10417 net.cpp:156] Memory required for data: 20408
2016-07-31 22:28:11.621 STDERR [INFO] I0731 22:28:11.619760 10417 layer_factory.hpp:77] Creating layer embedding
2016-07-31 22:28:11.622 STDERR [INFO] I0731 22:28:11.619772 10417 net.cpp:91] Creating Layer embedding
2016-07-31 22:28:11.622 STDERR [INFO] I0731 22:28:11.619776 10417 net.cpp:425] embedding <- input_sentence
…
2016-07-31 22:28:11.823 n.t.s.b.CVParticleBolt [INFO] [Timing] RequestID: 0 StreamID: home/peifeng/work/data/frame.320x240.jpg SequenceNr: 130 Leaving scale: 1470018491823 Size: 3530
2016-07-31 22:28:11.826 n.t.s.b.CVParticleBolt [INFO] [Timing] RequestID: 0 StreamID: home/peifeng/work/data/frame.320x240.jpg SequenceNr: 129 Leaving scale: 1470018491825 Size: 3530
2016-07-31 22:28:11.827 n.t.s.b.CVParticleBolt [INFO] [Timing] RequestID: 0 StreamID: home/peifeng/work/data/frame.320x240.jpg SequenceNr: 131 Leaving scale: 1470018491827 Size: 3530
2016-07-31 22:28:11.827 STDERR [INFO] I0731 22:28:11.827066 10427 net.cpp:141] Setting up conv1
2016-07-31 22:28:11.827 STDERR [INFO] I0731 22:28:11.827124 10427 net.cpp:148] Top shape: 10 96 55 55 (2904000)
2016-07-31 22:28:11.827 STDERR [INFO] I0731 22:28:11.827134 10427 net.cpp:156] Memory required for data: 17799480
2016-07-31 22:28:11.827 STDERR [INFO] I0731 22:28:11.827165 10427 layer_factory.hpp:77] Creating layer relu1
2016-07-31 22:28:11.827 STDERR [INFO] I0731 22:28:11.827189 10427 net.cpp:91] Creating Layer relu1
2016-07-31 22:28:11.828 STDERR [INFO] I0731 22:28:11.827199 10427 net.cpp:425] relu1 <- conv1
2016-07-31 22:28:11.828 STDERR [INFO] I0731 22:28:11.827211 10427 net.cpp:386] relu1 -> conv1 (in-place)
2016-07-31 22:28:11.828 STDERR [INFO] I0731 22:28:11.827880 10427 net.cpp:141] Setting up relu1
2016-07-31 22:28:11.828 STDERR [INFO] I0731 22:28:11.827900 10427 net.cpp:148] Top shape: 10 96 55 55 (2904000)
2016-07-31 22:28:11.828 STDERR [INFO] I0731 22:28:11.827909 10427 net.cpp:156] Memory required for data: 29415480
2016-07-31 22:28:11.828 STDERR [INFO] I0731 22:28:11.827919 10427 layer_factory.hpp:77] Creating layer pool1
2016-07-31 22:28:11.828 STDERR [INFO] I0731 22:28:11.827940 10427 net.cpp:91] Creating Layer pool1
2016-07-31 22:28:11.828 STDERR [INFO] I0731 22:28:11.827951 10427 net.cpp:425] pool1 <- conv1
2016-07-31 22:28:11.828 STDERR [INFO] I0731 22:28:11.827967 10427 net.cpp:399] pool1 -> pool1
2016-07-31 22:28:11.829 STDERR [INFO] I0731 22:28:11.828086 10427 net.cpp:141] Setting up pool1
2016-07-31 22:28:11.829 STDERR [INFO] I0731 22:28:11.828100 10427 net.cpp:148] Top shape: 10 96 27 27 (699840)
2016-07-31 22:28:11.829 STDERR [INFO] I0731 22:28:11.828104 10427 net.cpp:156] Memory required for data: 32214840
2016-07-31 22:28:11.829 STDERR [INFO] I0731 22:28:11.828110 10427 layer_factory.hpp:77] Creating layer norm1
2016-07-31 22:28:11.829 STDERR [INFO] I0731 22:28:11.828128 10427 net.cpp:91] Creating Layer norm1
2016-07-31 22:28:11.829 STDERR [INFO] I0731 22:28:11.828133 10427 net.cpp:425] norm1 <- pool1
2016-07-31 22:28:11.829 STDERR [INFO] I0731 22:28:11.828141 10427 net.cpp:399] norm1 -> norm1
2016-07-31 22:28:11.829 STDERR [INFO] I0731 22:28:11.828624 10427 net.cpp:141] Setting up norm1
2016-07-31 22:28:11.829 STDERR [INFO] I0731 22:28:11.828636 10427 net.cpp:148] Top shape: 10 96 27 27 (699840)
2016-07-31 22:28:11.829 STDERR [INFO] I0731 22:28:11.828641 10427 net.cpp:156] Memory required for data: 35014200
2016-07-31 22:28:11.829 STDERR [INFO] I0731 22:28:11.828647 10427 layer_factory.hpp:77] Creating layer conv2
2016-07-31 22:28:11.830 STDERR [INFO] I0731 22:28:11.828663 10427 net.cpp:91] Creating Layer conv2
2016-07-31 22:28:11.830 STDERR [INFO] I0731 22:28:11.828670 10427 net.cpp:425] conv2 <- norm1
2016-07-31 22:28:11.830 STDERR [INFO] I0731 22:28:11.828677 10427 net.cpp:399] conv2 -> conv2
2016-07-31 22:28:11.831 STDERR [INFO] I0731 22:28:11.831807 10427 net.cpp:141] Setting up conv2
2016-07-31 22:28:11.832 STDERR [INFO] I0731 22:28:11.831825 10427 net.cpp:148] Top shape: 10 256 27 27 (1866240)
2016-07-31 22:28:11.832 STDERR [INFO] I0731 22:28:11.831830 10427 net.cpp:156] Memory required for data: 42479160
2016-07-31 22:28:11.832 STDERR [INFO] I0731 22:28:11.831842 10427 layer_factory.hpp:77] Creating layer relu2
2016-07-31 22:28:11.832 STDERR [INFO] I0731 22:28:11.831851 10427 net.cpp:91] Creating Layer relu2
2016-07-31 22:28:11.832 STDERR [INFO] I0731 22:28:11.831856 10427 net.cpp:425] relu2 <- conv2
2016-07-31 22:28:11.832 STDERR [INFO] I0731 22:28:11.831866 10427 net.cpp:386] relu2 -> conv2 (in-place)
2016-07-31 22:28:11.832 STDERR [INFO] I0731 22:28:11.832319 10427 net.cpp:141] Setting up relu2
2016-07-31 22:28:11.832 STDERR [INFO] I0731 22:28:11.832331 10427 net.cpp:148] Top shape: 10 256 27 27 (1866240)
2016-07-31 22:28:11.832 STDERR [INFO] I0731 22:28:11.832335 10427 net.cpp:156] Memory required for data: 49944120
2016-07-31 22:28:11.833 STDERR [INFO] I0731 22:28:11.832340 10427 layer_factory.hpp:77] Creating layer pool2
2016-07-31 22:28:11.833 STDERR [INFO] I0731 22:28:11.832352 10427 net.cpp:91] Creating Layer pool2
2016-07-31 22:28:11.833 STDERR [INFO] I0731 22:28:11.832356 10427 net.cpp:425] pool2 <- conv2
2016-07-31 22:28:11.833 STDERR [INFO] I0731 22:28:11.832365 10427 net.cpp:399] pool2 -> pool2
2016-07-31 22:28:11.833 STDERR [INFO] I0731 22:28:11.832419 10427 net.cpp:141] Setting up pool2
2016-07-31 22:28:11.833 STDERR [INFO] I0731 22:28:11.832427 10427 net.cpp:148] Top shape: 10 256 13 13 (432640)
2016-07-31 22:28:11.833 STDERR [INFO] I0731 22:28:11.832432 10427 net.cpp:156] Memory required for data: 51674680
2016-07-31 22:28:11.833 STDERR [INFO] I0731 22:28:11.832437 10427 layer_factory.hpp:77] Creating layer norm2
2016-07-31 22:28:11.833 STDERR [INFO] I0731 22:28:11.832448 10427 net.cpp:91] Creating Layer norm2
2016-07-31 22:28:11.833 STDERR [INFO] I0731 22:28:11.832453 10427 net.cpp:425] norm2 <- pool2
2016-07-31 22:28:11.833 STDERR [INFO] I0731 22:28:11.832458 10427 net.cpp:399] norm2 -> norm2
2016-07-31 22:28:11.834 STDERR [INFO] I0731 22:28:11.832708 10427 net.cpp:141] Setting up norm2
2016-07-31 22:28:11.834 STDERR [INFO] I0731 22:28:11.832720 10427 net.cpp:148] Top shape: 10 256 13 13 (432640)
2016-07-31 22:28:11.834 STDERR [INFO] I0731 22:28:11.832725 10427 net.cpp:156] Memory required for data: 53405240
2016-07-31 22:28:11.834 STDERR [INFO] I0731 22:28:11.832728 10427 layer_factory.hpp:77] Creating layer conv3
2016-07-31 22:28:11.834 STDERR [INFO] I0731 22:28:11.832741 10427 net.cpp:91] Creating Layer conv3
2016-07-31 22:28:11.834 STDERR [INFO] I0731 22:28:11.832746 10427 net.cpp:425] conv3 <- norm2
2016-07-31 22:28:11.834 STDERR [INFO] I0731 22:28:11.832752 10427 net.cpp:399] conv3 -> conv3
2016-07-31 22:28:11.836 STDERR [INFO] I0731 22:28:11.836366 10417 net.cpp:141] Setting up embedding
2016-07-31 22:28:11.836 STDERR [INFO] I0731 22:28:11.836386 10417 net.cpp:148] Top shape: 1 1 500 (500)
2016-07-31 22:28:11.836 STDERR [INFO] I0731 22:28:11.836391 10417 net.cpp:156] Memory required for data: 22408
2016-07-31 22:28:11.836 STDERR [INFO] I0731 22:28:11.836403 10417 layer_factory.hpp:77] Creating layer lstm1
2016-07-31 22:28:11.836 STDERR [INFO] I0731 22:28:11.836417 10417 net.cpp:91] Creating Layer lstm1
2016-07-31 22:28:11.837 STDERR [INFO] I0731 22:28:11.836423 10417 net.cpp:425] lstm1 <- embedded_input_frames
2016-07-31 22:28:11.837 STDERR [INFO] I0731 22:28:11.836431 10417 net.cpp:425] lstm1 <- cont_sentence_input_1_split_0
2016-07-31 22:28:11.837 STDERR [INFO] I0731 22:28:11.836441 10417 net.cpp:399] lstm1 -> lstm1
2016-07-31 22:28:11.837 STDERR [INFO] I0731 22:28:11.836467 10417 recurrent_layer.cpp:20] Initializing recurrent layer: assuming input batch contains 1 timesteps of 1 independent streams.
2016-07-31 22:28:11.837 STDERR [INFO] I0731 22:28:11.836585 10427 net.cpp:141] Setting up conv3
2016-07-31 22:28:11.837 STDERR [INFO] I0731 22:28:11.836599 10427 net.cpp:148] Top shape: 10 384 13 13 (648960)
2016-07-31 22:28:11.837 STDERR [INFO] I0731 22:28:11.836603 10427 net.cpp:156] Memory required for data: 56001080
2016-07-31 22:28:11.838 STDERR [INFO] I0731 22:28:11.836616 10427 layer_factory.hpp:77] Creating layer relu3
2016-07-31 22:28:11.838 STDERR [INFO] I0731 22:28:11.836623 10427 net.cpp:91] Creating Layer relu3
2016-07-31 22:28:11.838 STDERR [INFO] I0731 22:28:11.836628 10427 net.cpp:425] relu3 <- conv3
…
2016-07-31 22:28:11.852 STDERR [INFO] }
2016-07-31 22:28:11.852 STDERR [INFO] I0731 22:28:11.836911 10417 layer_factory.hpp:77] Creating layer lstm1_
2016-07-31 22:28:11.852 STDERR [INFO] I0731 22:28:11.836923 10417 net.cpp:91] Creating Layer lstm1_
2016-07-31 22:28:11.852 STDERR [INFO] I0731 22:28:11.836930 10417 net.cpp:399] lstm1_ -> x
2016-07-31 22:28:11.852 STDERR [INFO] I0731 22:28:11.836941 10417 net.cpp:399] lstm1_ -> cont
2016-07-31 22:28:11.852 STDERR [INFO] I0731 22:28:11.837054 10417 net.cpp:141] Setting up lstm1_
2016-07-31 22:28:11.852 STDERR [INFO] I0731 22:28:11.837064 10417 net.cpp:148] Top shape: 1 1 500 (500)
2016-07-31 22:28:11.852 STDERR [INFO] I0731 22:28:11.837070 10417 net.cpp:148] Top shape: 1 1 (1)
2016-07-31 22:28:11.852 STDERR [INFO] I0731 22:28:11.837074 10417 net.cpp:156] Memory required for data: 2004
2016-07-31 22:28:11.853 STDERR [INFO] I0731 22:28:11.837080 10417 layer_factory.hpp:77] Creating layer lstm1_
2016-07-31 22:28:11.853 STDERR [INFO] I0731 22:28:11.837087 10417 net.cpp:91] Creating Layer lstm1_
2016-07-31 22:28:11.853 STDERR [INFO] I0731 22:28:11.837096 10417 net.cpp:399] lstm1_ -> c_0
2016-07-31 22:28:11.853 STDERR [INFO] I0731 22:28:11.837106 10417 net.cpp:399] lstm1_ -> h_0
2016-07-31 22:28:11.853 STDERR [INFO] I0731 22:28:11.837179 10417 net.cpp:141] Setting up lstm1_
2016-07-31 22:28:11.853 STDERR [INFO] I0731 22:28:11.837190 10417 net.cpp:148] Top shape: 1 1 1000 (1000)
2016-07-31 22:28:11.853 STDERR [INFO] I0731 22:28:11.837196 10417 net.cpp:148] Top shape: 1 1 1000 (1000)
2016-07-31 22:28:11.853 STDERR [INFO] I0731 22:28:11.837194 10427 net.cpp:141] Setting up relu3
2016-07-31 22:28:11.853 STDERR [INFO] I0731 22:28:11.837201 10417 net.cpp:156] Memory required for data: 10004
2016-07-31 22:28:11.853 STDERR [INFO] I0731 22:28:11.837208 10417 layer_factory.hpp:77] Creating layer lstm1_cont_slice
2016-07-31 22:28:11.853 STDERR [INFO] I0731 22:28:11.837209 10427 net.cpp:148] Top shape: 10 384 13 13 (648960)
2016-07-31 22:28:11.854 STDERR [INFO] I0731 22:28:11.837213 10427 net.cpp:156] Memory required for data: 58596920
2016-07-31 22:28:11.854 STDERR [INFO] I0731 22:28:11.837218 10427 layer_factory.hpp:77] Creating layer conv4
2016-07-31 22:28:11.854 STDERR [INFO] I0731 22:28:11.837224 10417 net.cpp:91] Creating Layer lstm1_cont_slice
2016-07-31 22:28:11.854 STDERR [INFO] I0731 22:28:11.837232 10427 net.cpp:91] Creating Layer conv4
2016-07-31 22:28:11.854 STDERR [INFO] I0731 22:28:11.837234 10417 net.cpp:425] lstm1_cont_slice <- cont
2016-07-31 22:28:11.854 STDERR [INFO] I0731 22:28:11.837241 10427 net.cpp:425] conv4 <- conv3
2016-07-31 22:28:11.854 STDERR [INFO] I0731 22:28:11.837255 10427 net.cpp:399] conv4 -> conv4
2016-07-31 22:28:11.854 STDERR [INFO] I0731 22:28:11.837257 10417 net.cpp:399] lstm1_cont_slice -> cont_1
2016-07-31 22:28:11.854 STDERR [INFO] I0731 22:28:11.837443 10417 net.cpp:141] Setting up lstm1_cont_slice
2016-07-31 22:28:11.854 STDERR [INFO] I0731 22:28:11.837453 10417 net.cpp:148] Top shape: 1 1 (1)
2016-07-31 22:28:11.854 STDERR [INFO] I0731 22:28:11.837458 10417 net.cpp:156] Memory required for data: 10008
2016-07-31 22:28:11.855 STDERR [INFO] I0731 22:28:11.837462 10417 layer_factory.hpp:77] Creating layer cont_1_lstm1_cont_slice_0_split
2016-07-31 22:28:11.855 STDERR [INFO] I0731 22:28:11.837471 10417 net.cpp:91] Creating Layer cont_1_lstm1_cont_slice_0_split
2016-07-31 22:28:11.855 STDERR [INFO] I0731 22:28:11.837476 10417 net.cpp:425] cont_1_lstm1_cont_slice_0_split <- cont_1
2016-07-31 22:28:11.855 STDERR [INFO] I0731 22:28:11.837496 10417 net.cpp:399] cont_1_lstm1_cont_slice_0_split -> cont_1_lstm1_cont_slice_0_split_0
2016-07-31 22:28:11.855 STDERR [INFO] I0731 22:28:11.837505 10417 net.cpp:399] cont_1_lstm1_cont_slice_0_split -> cont_1_lstm1_cont_slice_0_split_1
2016-07-31 22:28:11.855 STDERR [INFO] I0731 22:28:11.838973 10417 net.cpp:141] Setting up cont_1_lstm1_cont_slice_0_split
2016-07-31 22:28:11.855 STDERR [INFO] I0731 22:28:11.838984 10417 net.cpp:148] Top shape: 1 1 (1)
2016-07-31 22:28:11.855 STDERR [INFO] I0731 22:28:11.838989 10417 net.cpp:148] Top shape: 1 1 (1)
2016-07-31 22:28:11.855 STDERR [INFO] I0731 22:28:11.838992 10417 net.cpp:156] Memory required for data: 10016
2016-07-31 22:28:11.856 STDERR [INFO] I0731 22:28:11.838996 10417 layer_factory.hpp:77] Creating layer lstm1_x_transform
2016-07-31 22:28:11.856 STDERR [INFO] I0731 22:28:11.839006 10417 net.cpp:91] Creating Layer lstm1_x_transform
2016-07-31 22:28:11.856 STDERR [INFO] I0731 22:28:11.839011 10417 net.cpp:425] lstm1_x_transform <- x
2016-07-31 22:28:11.856 STDERR [INFO] I0731 22:28:11.839018 10417 net.cpp:399] lstm1_x_transform -> W_xc_x
2016-07-31 22:28:11.856 STDERR [INFO] I0731 22:28:11.845366 10427 net.cpp:141] Setting up conv4
2016-07-31 22:28:11.856 STDERR [INFO] I0731 22:28:11.845402 10427 net.cpp:148] Top shape: 10 384 13 13 (648960)
2016-07-31 22:28:11.856 STDERR [INFO] I0731 22:28:11.845407 10427 net.cpp:156] Memory required for data: 61192760
2016-07-31 22:28:11.856 STDERR [INFO] I0731 22:28:11.845418 10427 layer_factory.hpp:77] Creating layer relu4
2016-07-31 22:28:11.856 STDERR [INFO] I0731 22:28:11.845434 10427 net.cpp:91] Creating Layer relu4
2016-07-31 22:28:11.856 STDERR [INFO] I0731 22:28:11.845439 10427 net.cpp:425] relu4 <- conv4
2016-07-31 22:28:11.857 STDERR [INFO] I0731 22:28:11.845448 10427 net.cpp:386] relu4 -> conv4 (in-place)
2016-07-31 22:28:11.857 STDERR [INFO] I0731 22:28:11.845883 10427 net.cpp:141] Setting up relu4
2016-07-31 22:28:11.857 STDERR [INFO] I0731 22:28:11.845896 10427 net.cpp:148] Top shape: 10 384 13 13 (648960)
2016-07-31 22:28:11.857 STDERR [INFO] I0731 22:28:11.845901 10427 net.cpp:156] Memory required for data: 63788600
2016-07-31 22:28:11.857 STDERR [INFO] I0731 22:28:11.845906 10427 layer_factory.hpp:77] Creating layer conv5
2016-07-31 22:28:11.857 STDERR [INFO] I0731 22:28:11.845921 10427 net.cpp:91] Creating Layer conv5
2016-07-31 22:28:11.857 STDERR [INFO] I0731 22:28:11.845927 10427 net.cpp:425] conv5 <- conv4
2016-07-31 22:28:11.857 STDERR [INFO] I0731 22:28:11.845937 10427 net.cpp:399] conv5 -> conv5
2016-07-31 22:28:11.857 STDERR [INFO] I0731 22:28:11.849870 10427 net.cpp:141] Setting up conv5
2016-07-31 22:28:11.857 STDERR [INFO] I0731 22:28:11.849889 10427 net.cpp:148] Top shape: 10 256 13 13 (432640)
2016-07-31 22:28:11.858 STDERR [INFO] I0731 22:28:11.849894 10427 net.cpp:156] Memory required for data: 65519160
2016-07-31 22:28:11.858 STDERR [INFO] I0731 22:28:11.849907 10427 layer_factory.hpp:77] Creating layer relu5
2016-07-31 22:28:11.858 STDERR [INFO] I0731 22:28:11.849920 10427 net.cpp:91] Creating Layer relu5
2016-07-31 22:28:11.858 STDERR [INFO] I0731 22:28:11.849925 10427 net.cpp:425] relu5 <- conv5
2016-07-31 22:28:11.858 STDERR [INFO] I0731 22:28:11.849931 10427 net.cpp:386] relu5 -> conv5 (in-place)
2016-07-31 22:28:11.858 STDERR [INFO] I0731 22:28:11.850373 10427 net.cpp:141] Setting up relu5
2016-07-31 22:28:11.859 STDERR [INFO] I0731 22:28:11.850384 10427 net.cpp:148] Top shape: 10 256 13 13 (432640)
2016-07-31 22:28:11.859 STDERR [INFO] I0731 22:28:11.850391 10427 net.cpp:156] Memory required for data: 67249720
2016-07-31 22:28:11.859 STDERR [INFO] I0731 22:28:11.850397 10427 layer_factory.hpp:77] Creating layer pool5
2016-07-31 22:28:11.859 STDERR [INFO] I0731 22:28:11.850407 10427 net.cpp:91] Creating Layer pool5
2016-07-31 22:28:11.859 STDERR [INFO] I0731 22:28:11.850411 10427 net.cpp:425] pool5 <- conv5
2016-07-31 22:28:11.859 STDERR [INFO] I0731 22:28:11.850419 10427 net.cpp:399] pool5 -> pool5
2016-07-31 22:28:11.859 STDERR [INFO] I0731 22:28:11.850481 10427 net.cpp:141] Setting up pool5
2016-07-31 22:28:11.859 STDERR [INFO] I0731 22:28:11.850491 10427 net.cpp:148] Top shape: 10 256 6 6 (92160)
2016-07-31 22:28:11.859 STDERR [INFO] I0731 22:28:11.850494 10427 net.cpp:156] Memory required for data: 67618360
2016-07-31 22:28:11.859 STDERR [INFO] I0731 22:28:11.850499 10427 layer_factory.hpp:77] Creating layer fc6
2016-07-31 22:28:11.859 STDERR [INFO] I0731 22:28:11.850515 10427 net.cpp:91] Creating Layer fc6
2016-07-31 22:28:11.860 STDERR [INFO] I0731 22:28:11.850520 10427 net.cpp:425] fc6 <- pool5
2016-07-31 22:28:11.860 STDERR [INFO] I0731 22:28:11.850528 10427 net.cpp:399] fc6 -> fc6
2016-07-31 22:28:11.920 STDERR [INFO] I0731 22:28:11.920364 10417 net.cpp:141] Setting up lstm1_x_transform
2016-07-31 22:28:11.920 STDERR [INFO] I0731 22:28:11.920413 10417 net.cpp:148] Top shape: 1 1 4000 (4000)
2016-07-31 22:28:11.920 STDERR [INFO] I0731 22:28:11.920418 10417 net.cpp:156] Memory required for data: 26016
2016-07-31 22:28:11.921 STDERR [INFO] I0731 22:28:11.920439 10417 layer_factory.hpp:77] Creating layer lstm1_W_xc_x_slice
2016-07-31 22:28:11.921 STDERR [INFO] I0731 22:28:11.920456 10417 net.cpp:91] Creating Layer lstm1_W_xc_x_slice
2016-07-31 22:28:11.921 STDERR [INFO] I0731 22:28:11.920462 10417 net.cpp:425] lstm1_W_xc_x_slice <- W_xc_x
2016-07-31 22:28:11.921 STDERR [INFO] I0731 22:28:11.920472 10417 net.cpp:399] lstm1_W_xc_x_slice -> W_xc_x_1
2016-07-31 22:28:11.921 STDERR [INFO] I0731 22:28:11.920521 10417 net.cpp:141] Setting up lstm1_W_xc_x_slice
2016-07-31 22:28:11.921 STDERR [INFO] I0731 22:28:11.920529 10417 net.cpp:148] Top shape: 1 1 4000 (4000)
2016-07-31 22:28:11.921 STDERR [INFO] I0731 22:28:11.920533 10417 net.cpp:156] Memory required for data: 42016
2016-07-31 22:28:11.921 STDERR [INFO] I0731 22:28:11.920537 10417 layer_factory.hpp:77] Creating layer lstm1_h_conted_0
2016-07-31 22:28:11.921 STDERR [INFO] I0731 22:28:11.920547 10417 net.cpp:91] Creating Layer lstm1_h_conted_0
2016-07-31 22:28:11.922 STDERR [INFO] I0731 22:28:11.920552 10417 net.cpp:425] lstm1_h_conted_0 <- h_0
2016-07-31 22:28:11.922 STDERR [INFO] I0731 22:28:11.920558 10417 net.cpp:425] lstm1_h_conted_0 <- cont_1_lstm1_cont_slice_0_split_0
2016-07-31 22:28:11.922 STDERR [INFO] I0731 22:28:11.920564 10417 net.cpp:399] lstm1_h_conted_0 -> h_conted_0
2016-07-31 22:28:11.922 STDERR [INFO] I0731 22:28:11.920653 10417 net.cpp:141] Setting up lstm1_h_conted_0
2016-07-31 22:28:11.922 STDERR [INFO] I0731 22:28:11.920662 10417 net.cpp:148] Top shape: 1 1 1000 (1000)
2016-07-31 22:28:11.922 STDERR [INFO] I0731 22:28:11.920666 10417 net.cpp:156] Memory required for data: 46016
2016-07-31 22:28:11.922 STDERR [INFO] I0731 22:28:11.920670 10417 layer_factory.hpp:77] Creating layer lstm1_transform_1
2016-07-31 22:28:11.922 STDERR [INFO] I0731 22:28:11.920689 10417 net.cpp:91] Creating Layer lstm1_transform_1
2016-07-31 22:28:11.922 STDERR [INFO] I0731 22:28:11.920696 10417 net.cpp:425] lstm1_transform_1 <- h_conted_0
2016-07-31 22:28:11.922 STDERR [INFO] I0731 22:28:11.920703 10417 net.cpp:399] lstm1_transform_1 -> W_hc_h_0
2016-07-31 22:28:11.959 STDERR [INFO] I0731 22:28:11.959358 10417 net.cpp:141] Setting up lstm1_transform_1
2016-07-31 22:28:11.959 STDERR [INFO] I0731 22:28:11.959406 10417 net.cpp:148] Top shape: 1 1 4000 (4000)
2016-07-31 22:28:11.959 STDERR [INFO] I0731 22:28:11.959413 10417 net.cpp:156] Memory required for data: 62016
2016-07-31 22:28:11.960 STDERR [INFO] I0731 22:28:11.959430 10417 layer_factory.hpp:77] Creating layer lstm1_gate_input_1
2016-07-31 22:28:11.960 STDERR [INFO] I0731 22:28:11.959450 10417 net.cpp:91] Creating Layer lstm1_gate_input_1
2016-07-31 22:28:11.960 STDERR [INFO] I0731 22:28:11.959456 10417 net.cpp:425] lstm1_gate_input_1 <- W_hc_h_0
2016-07-31 22:28:11.960 STDERR [INFO] I0731 22:28:11.959465 10417 net.cpp:425] lstm1_gate_input_1 <- W_xc_x_1
2016-07-31 22:28:11.960 STDERR [INFO] I0731 22:28:11.959475 10417 net.cpp:399] lstm1_gate_input_1 -> gate_input_1
2016-07-31 22:28:11.961 STDERR [INFO] I0731 22:28:11.959532 10417 net.cpp:141] Setting up lstm1_gate_input_1
2016-07-31 22:28:11.961 STDERR [INFO] I0731 22:28:11.959540 10417 net.cpp:148] Top shape: 1 1 4000 (4000)
2016-07-31 22:28:11.961 STDERR [INFO] I0731 22:28:11.959544 10417 net.cpp:156] Memory required for data: 78016
2016-07-31 22:28:11.961 STDERR [INFO] I0731 22:28:11.959549 10417 layer_factory.hpp:77] Creating layer lstm1_unit_1
2016-07-31 22:28:11.961 STDERR [INFO] I0731 22:28:11.959561 10417 net.cpp:91] Creating Layer lstm1_unit_1
2016-07-31 22:28:11.961 STDERR [INFO] I0731 22:28:11.959565 10417 net.cpp:425] lstm1_unit_1 <- c_0
2016-07-31 22:28:11.961 STDERR [INFO] I0731 22:28:11.959571 10417 net.cpp:425] lstm1_unit_1 <- gate_input_1
2016-07-31 22:28:11.961 STDERR [INFO] I0731 22:28:11.959576 10417 net.cpp:425] lstm1_unit_1 <- cont_1_lstm1_cont_slice_0_split_1
2016-07-31 22:28:11.961 STDERR [INFO] I0731 22:28:11.959583 10417 net.cpp:399] lstm1_unit_1 -> c_1
2016-07-31 22:28:11.961 STDERR [INFO] I0731 22:28:11.959591 10417 net.cpp:399] lstm1_unit_1 -> h_1
2016-07-31 22:28:11.962 STDERR [INFO] I0731 22:28:11.959653 10417 net.cpp:141] Setting up lstm1_unit_1
2016-07-31 22:28:11.962 STDERR [INFO] I0731 22:28:11.959661 10417 net.cpp:148] Top shape: 1 1 1000 (1000)
2016-07-31 22:28:11.962 STDERR [INFO] I0731 22:28:11.959667 10417 net.cpp:148] Top shape: 1 1 1000 (1000)
2016-07-31 22:28:11.962 STDERR [INFO] I0731 22:28:11.959671 10417 net.cpp:156] Memory required for data: 86016
2016-07-31 22:28:11.962 STDERR [INFO] I0731 22:28:11.959676 10417 layer_factory.hpp:77] Creating layer lstm1_
2016-07-31 22:28:11.962 STDERR [INFO] I0731 22:28:11.959684 10417 net.cpp:91] Creating Layer lstm1_
2016-07-31 22:28:11.962 STDERR [INFO] I0731 22:28:11.959688 10417 net.cpp:425] lstm1_ <- c_1
2016-07-31 22:28:11.962 STDERR [INFO] I0731 22:28:11.959699 10417 net.cpp:399] lstm1_ -> c_T
2016-07-31 22:28:11.962 STDERR [INFO] I0731 22:28:11.959729 10417 net.cpp:141] Setting up lstm1_
2016-07-31 22:28:11.962 STDERR [INFO] I0731 22:28:11.959736 10417 net.cpp:148] Top shape: 1 1 1000 (1000)
2016-07-31 22:28:11.963 STDERR [INFO] I0731 22:28:11.959740 10417 net.cpp:156] Memory required for data: 90016
2016-07-31 22:28:11.963 STDERR [INFO] I0731 22:28:11.959745 10417 layer_factory.hpp:77] Creating layer lstm1_h_concat
2016-07-31 22:28:11.963 STDERR [INFO] I0731 22:28:11.959753 10417 net.cpp:91] Creating Layer lstm1_h_concat
2016-07-31 22:28:11.963 STDERR [INFO] I0731 22:28:11.959758 10417 net.cpp:425] lstm1_h_concat <- h_1
2016-07-31 22:28:11.963 STDERR [INFO] I0731 22:28:11.959764 10417 net.cpp:399] lstm1_h_concat -> h
2016-07-31 22:28:11.963 STDERR [INFO] I0731 22:28:11.959808 10417 net.cpp:141] Setting up lstm1_h_concat
2016-07-31 22:28:11.963 STDERR [INFO] I0731 22:28:11.959816 10417 net.cpp:148] Top shape: 1 1 1000 (1000)
2016-07-31 22:28:11.963 STDERR [INFO] I0731 22:28:11.959820 10417 net.cpp:156] Memory required for data: 94016
2016-07-31 22:28:11.963 STDERR [INFO] I0731 22:28:11.959825 10417 layer_factory.hpp:77] Creating layer h_pseudoloss
2016-07-31 22:28:11.963 STDERR [INFO] I0731 22:28:11.959839 10417 net.cpp:91] Creating Layer h_pseudoloss
2016-07-31 22:28:11.964 STDERR [INFO] I0731 22:28:11.959843 10417 net.cpp:425] h_pseudoloss <- h
…
2016-07-31 22:28:11.981 STDERR [INFO] }
2016-07-31 22:28:11.981 STDERR [INFO] I0731 22:28:11.960765 10417 layer_factory.hpp:77] Creating layer lstm2_
2016-07-31 22:28:11.981 STDERR [INFO] I0731 22:28:11.960777 10417 net.cpp:91] Creating Layer lstm2_
2016-07-31 22:28:11.981 STDERR [INFO] I0731 22:28:11.960783 10417 net.cpp:399] lstm2_ -> x
2016-07-31 22:28:11.981 STDERR [INFO] I0731 22:28:11.960793 10417 net.cpp:399] lstm2_ -> cont
2016-07-31 22:28:11.981 STDERR [INFO] I0731 22:28:11.960844 10417 net.cpp:141] Setting up lstm2_
2016-07-31 22:28:11.981 STDERR [INFO] I0731 22:28:11.960853 10417 net.cpp:148] Top shape: 1 1 1501 (1501)
2016-07-31 22:28:11.981 STDERR [INFO] I0731 22:28:11.960858 10417 net.cpp:148] Top shape: 1 1 (1)
2016-07-31 22:28:11.981 STDERR [INFO] I0731 22:28:11.960862 10417 net.cpp:156] Memory required for data: 6008
2016-07-31 22:28:11.982 STDERR [INFO] I0731 22:28:11.960867 10417 layer_factory.hpp:77] Creating layer lstm2_
2016-07-31 22:28:11.982 STDERR [INFO] I0731 22:28:11.960877 10417 net.cpp:91] Creating Layer lstm2_
2016-07-31 22:28:11.982 STDERR [INFO] I0731 22:28:11.960885 10417 net.cpp:399] lstm2_ -> c_0
2016-07-31 22:28:11.983 STDERR [INFO] I0731 22:28:11.960893 10417 net.cpp:399] lstm2_ -> h_0
2016-07-31 22:28:11.983 STDERR [INFO] I0731 22:28:11.960940 10417 net.cpp:141] Setting up lstm2_
2016-07-31 22:28:11.983 STDERR [INFO] I0731 22:28:11.960948 10417 net.cpp:148] Top shape: 1 1 1000 (1000)
2016-07-31 22:28:11.983 STDERR [INFO] I0731 22:28:11.960953 10417 net.cpp:148] Top shape: 1 1 1000 (1000)
2016-07-31 22:28:11.983 STDERR [INFO] I0731 22:28:11.960958 10417 net.cpp:156] Memory required for data: 14008
2016-07-31 22:28:11.983 STDERR [INFO] I0731 22:28:11.960961 10417 layer_factory.hpp:77] Creating layer lstm2_cont_slice
2016-07-31 22:28:11.983 STDERR [INFO] I0731 22:28:11.960970 10417 net.cpp:91] Creating Layer lstm2_cont_slice
2016-07-31 22:28:11.984 STDERR [INFO] I0731 22:28:11.960974 10417 net.cpp:425] lstm2_cont_slice <- cont
2016-07-31 22:28:11.984 STDERR [INFO] I0731 22:28:11.960980 10417 net.cpp:399] lstm2_cont_slice -> cont_1
2016-07-31 22:28:11.984 STDERR [INFO] I0731 22:28:11.961014 10417 net.cpp:141] Setting up lstm2_cont_slice
2016-07-31 22:28:11.984 STDERR [INFO] I0731 22:28:11.961022 10417 net.cpp:148] Top shape: 1 1 (1)
2016-07-31 22:28:11.984 STDERR [INFO] I0731 22:28:11.961026 10417 net.cpp:156] Memory required for data: 14012
2016-07-31 22:28:11.984 STDERR [INFO] I0731 22:28:11.961030 10417 layer_factory.hpp:77] Creating layer cont_1_lstm2_cont_slice_0_split
2016-07-31 22:28:11.984 STDERR [INFO] I0731 22:28:11.961036 10417 net.cpp:91] Creating Layer cont_1_lstm2_cont_slice_0_split
2016-07-31 22:28:11.984 STDERR [INFO] I0731 22:28:11.961040 10417 net.cpp:425] cont_1_lstm2_cont_slice_0_split <- cont_1
2016-07-31 22:28:11.984 STDERR [INFO] I0731 22:28:11.961048 10417 net.cpp:399] cont_1_lstm2_cont_slice_0_split -> cont_1_lstm2_cont_slice_0_split_0
2016-07-31 22:28:11.984 STDERR [INFO] I0731 22:28:11.961056 10417 net.cpp:399] cont_1_lstm2_cont_slice_0_split -> cont_1_lstm2_cont_slice_0_split_1
2016-07-31 22:28:11.985 STDERR [INFO] I0731 22:28:11.961099 10417 net.cpp:141] Setting up cont_1_lstm2_cont_slice_0_split
2016-07-31 22:28:11.985 STDERR [INFO] I0731 22:28:11.961108 10417 net.cpp:148] Top shape: 1 1 (1)
2016-07-31 22:28:11.985 STDERR [INFO] I0731 22:28:11.961113 10417 net.cpp:148] Top shape: 1 1 (1)
2016-07-31 22:28:11.985 STDERR [INFO] I0731 22:28:11.961117 10417 net.cpp:156] Memory required for data: 14020
2016-07-31 22:28:11.985 STDERR [INFO] I0731 22:28:11.961122 10417 layer_factory.hpp:77] Creating layer lstm2_x_transform
2016-07-31 22:28:11.985 STDERR [INFO] I0731 22:28:11.961130 10417 net.cpp:91] Creating Layer lstm2_x_transform
2016-07-31 22:28:11.985 STDERR [INFO] I0731 22:28:11.961135 10417 net.cpp:425] lstm2_x_transform <- x
2016-07-31 22:28:11.985 STDERR [INFO] I0731 22:28:11.961144 10417 net.cpp:399] lstm2_x_transform -> W_xc_x
2016-07-31 22:28:11.985 STDERR [INFO] I0731 22:28:11.972369 10427 net.cpp:141] Setting up fc6
2016-07-31 22:28:11.985 STDERR [INFO] I0731 22:28:11.972417 10427 net.cpp:148] Top shape: 10 4096 (40960)
2016-07-31 22:28:11.986 STDERR [INFO] I0731 22:28:11.972422 10427 net.cpp:156] Memory required for data: 67782200
2016-07-31 22:28:11.986 STDERR [INFO] I0731 22:28:11.972440 10427 layer_factory.hpp:77] Creating layer relu6
2016-07-31 22:28:11.986 STDERR [INFO] I0731 22:28:11.972457 10427 net.cpp:91] Creating Layer relu6
2016-07-31 22:28:11.986 STDERR [INFO] I0731 22:28:11.972465 10427 net.cpp:425] relu6 <- fc6
2016-07-31 22:28:11.986 STDERR [INFO] I0731 22:28:11.972473 10427 net.cpp:386] relu6 -> fc6 (in-place)
2016-07-31 22:28:11.986 STDERR [INFO] I0731 22:28:11.973047 10427 net.cpp:141] Setting up relu6
2016-07-31 22:28:11.986 STDERR [INFO] I0731 22:28:11.973057 10427 net.cpp:148] Top shape: 10 4096 (40960)
2016-07-31 22:28:11.986 STDERR [INFO] I0731 22:28:11.973062 10427 net.cpp:156] Memory required for data: 67946040
2016-07-31 22:28:11.986 STDERR [INFO] I0731 22:28:11.973067 10427 layer_factory.hpp:77] Creating layer drop6
2016-07-31 22:28:11.986 STDERR [INFO] I0731 22:28:11.973088 10427 net.cpp:91] Creating Layer drop6
2016-07-31 22:28:11.986 STDERR [INFO] I0731 22:28:11.973094 10427 net.cpp:425] drop6 <- fc6
2016-07-31 22:28:11.987 STDERR [INFO] I0731 22:28:11.973100 10427 net.cpp:386] drop6 -> fc6 (in-place)
2016-07-31 22:28:11.987 STDERR [INFO] I0731 22:28:11.973155 10427 net.cpp:141] Setting up drop6
2016-07-31 22:28:11.987 STDERR [INFO] I0731 22:28:11.973165 10427 net.cpp:148] Top shape: 10 4096 (40960)
2016-07-31 22:28:11.987 STDERR [INFO] I0731 22:28:11.973168 10427 net.cpp:156] Memory required for data: 68109880
2016-07-31 22:28:11.987 STDERR [INFO] I0731 22:28:11.973173 10427 layer_factory.hpp:77] Creating layer fc7
2016-07-31 22:28:11.987 STDERR [INFO] I0731 22:28:11.973184 10427 net.cpp:91] Creating Layer fc7
2016-07-31 22:28:11.987 STDERR [INFO] I0731 22:28:11.973188 10427 net.cpp:425] fc7 <- fc6
…
2016-07-31 22:28:12.016 n.t.s.b.CVParticleBolt [INFO] [Timing] RequestID: 0 StreamID: home/peifeng/work/data/frame.320x240.jpg SequenceNr: 133 Leaving scale: 1470018492016 Size: 3530
2016-07-31 22:28:12.020 n.t.s.b.CVParticleBolt [INFO] [Timing] RequestID: 0 StreamID: home/peifeng/work/data/frame.320x240.jpg SequenceNr: 134 Leaving scale: 1470018492020 Size: 3530
2016-07-31 22:28:12.021 n.t.s.b.CVParticleBolt [INFO] [Timing] RequestID: 0 StreamID: home/peifeng/work/data/frame.320x240.jpg SequenceNr: 135 Entering scale: 1470018492021
2016-07-31 22:28:12.022 STDERR [INFO] I0731 22:28:12.022469 10417 net.cpp:141] Setting up lstm2_x_transform
2016-07-31 22:28:12.023 STDERR [INFO] I0731 22:28:12.022516 10417 net.cpp:148] Top shape: 1 1 4000 (4000)
2016-07-31 22:28:12.023 STDERR [INFO] I0731 22:28:12.022521 10417 net.cpp:156] Memory required for data: 30020
2016-07-31 22:28:12.023 STDERR [INFO] I0731 22:28:12.022542 10417 layer_factory.hpp:77] Creating layer lstm2_W_xc_x_slice
2016-07-31 22:28:12.023 STDERR [INFO] I0731 22:28:12.022559 10417 net.cpp:91] Creating Layer lstm2_W_xc_x_slice
2016-07-31 22:28:12.023 STDERR [INFO] I0731 22:28:12.022565 10417 net.cpp:425] lstm2_W_xc_x_slice <- W_xc_x
2016-07-31 22:28:12.023 STDERR [INFO] I0731 22:28:12.022575 10417 net.cpp:399] lstm2_W_xc_x_slice -> W_xc_x_1
2016-07-31 22:28:12.023 STDERR [INFO] I0731 22:28:12.022606 10427 net.cpp:141] Setting up fc7
2016-07-31 22:28:12.023 STDERR [INFO] I0731 22:28:12.022629 10427 net.cpp:148] Top shape: 10 4096 (40960)
2016-07-31 22:28:12.023 STDERR [INFO] I0731 22:28:12.022631 10417 net.cpp:141] Setting up lstm2_W_xc_x_slice
2016-07-31 22:28:12.023 STDERR [INFO] I0731 22:28:12.022636 10427 net.cpp:156] Memory required for data: 68273720
2016-07-31 22:28:12.024 STDERR [INFO] I0731 22:28:12.022641 10417 net.cpp:148] Top shape: 1 1 4000 (4000)
2016-07-31 22:28:12.024 STDERR [INFO] I0731 22:28:12.022646 10417 net.cpp:156] Memory required for data: 46020
2016-07-31 22:28:12.024 STDERR [INFO] I0731 22:28:12.022650 10417 layer_factory.hpp:77] Creating layer lstm2_h_conted_0
2016-07-31 22:28:12.024 STDERR [INFO] I0731 22:28:12.022655 10427 layer_factory.hpp:77] Creating layer relu7
2016-07-31 22:28:12.024 STDERR [INFO] I0731 22:28:12.022660 10417 net.cpp:91] Creating Layer lstm2_h_conted_0
2016-07-31 22:28:12.024 STDERR [INFO] I0731 22:28:12.022665 10417 net.cpp:425] lstm2_h_conted_0 <- h_0
2016-07-31 22:28:12.024 STDERR [INFO] I0731 22:28:12.022671 10417 net.cpp:425] lstm2_h_conted_0 <- cont_1_lstm2_cont_slice_0_split_0
2016-07-31 22:28:12.024 STDERR [INFO] I0731 22:28:12.022676 10427 net.cpp:91] Creating Layer relu7
2016-07-31 22:28:12.024 STDERR [INFO] I0731 22:28:12.022678 10417 net.cpp:399] lstm2_h_conted_0 -> h_conted_0
2016-07-31 22:28:12.024 STDERR [INFO] I0731 22:28:12.022691 10427 net.cpp:425] relu7 <- fc7
2016-07-31 22:28:12.025 STDERR [INFO] I0731 22:28:12.022702 10427 net.cpp:386] relu7 -> fc7 (in-place)
2016-07-31 22:28:12.025 STDERR [INFO] I0731 22:28:12.022794 10417 net.cpp:141] Setting up lstm2_h_conted_0
2016-07-31 22:28:12.025 STDERR [INFO] I0731 22:28:12.022804 10417 net.cpp:148] Top shape: 1 1 1000 (1000)
2016-07-31 22:28:12.025 STDERR [INFO] I0731 22:28:12.022807 10417 net.cpp:156] Memory required for data: 50020
2016-07-31 22:28:12.025 STDERR [INFO] I0731 22:28:12.022811 10417 layer_factory.hpp:77] Creating layer lstm2_transform_1
2016-07-31 22:28:12.025 STDERR [INFO] I0731 22:28:12.022825 10417 net.cpp:91] Creating Layer lstm2_transform_1
2016-07-31 22:28:12.025 STDERR [INFO] I0731 22:28:12.022830 10417 net.cpp:425] lstm2_transform_1 <- h_conted_0
2016-07-31 22:28:12.025 STDERR [INFO] I0731 22:28:12.022837 10417 net.cpp:399] lstm2_transform_1 -> W_hc_h_0
2016-07-31 22:28:12.027 n.t.s.b.CVParticleBolt [INFO] [Timing] RequestID: 0 StreamID: home/peifeng/work/data/frame.320x240.jpg SequenceNr: 135 Leaving scale: 1470018492027 Size: 3530
2016-07-31 22:28:12.031 STDERR [INFO] I0731 22:28:12.031630 10427 net.cpp:141] Setting up relu7
2016-07-31 22:28:12.032 STDERR [INFO] I0731 22:28:12.031684 10427 net.cpp:148] Top shape: 10 4096 (40960)
2016-07-31 22:28:12.032 STDERR [INFO] I0731 22:28:12.031690 10427 net.cpp:156] Memory required for data: 68437560
2016-07-31 22:28:12.032 STDERR [INFO] I0731 22:28:12.031700 10427 layer_factory.hpp:77] Creating layer drop7
2016-07-31 22:28:12.032 STDERR [INFO] I0731 22:28:12.031723 10427 net.cpp:91] Creating Layer drop7
2016-07-31 22:28:12.032 STDERR [INFO] I0731 22:28:12.031731 10427 net.cpp:425] drop7 <- fc7
2016-07-31 22:28:12.032 STDERR [INFO] I0731 22:28:12.031741 10427 net.cpp:386] drop7 -> fc7 (in-place)
2016-07-31 22:28:12.032 STDERR [INFO] I0731 22:28:12.031807 10427 net.cpp:141] Setting up drop7
2016-07-31 22:28:12.032 STDERR [INFO] I0731 22:28:12.031816 10427 net.cpp:148] Top shape: 10 4096 (40960)
2016-07-31 22:28:12.033 STDERR [INFO] I0731 22:28:12.031819 10427 net.cpp:156] Memory required for data: 68601400
2016-07-31 22:28:12.033 STDERR [INFO] I0731 22:28:12.031824 10427 layer_factory.hpp:77] Creating layer fc8
2016-07-31 22:28:12.033 STDERR [INFO] I0731 22:28:12.031836 10427 net.cpp:91] Creating Layer fc8
2016-07-31 22:28:12.033 STDERR [INFO] I0731 22:28:12.031841 10427 net.cpp:425] fc8 <- fc7
2016-07-31 22:28:12.033 STDERR [INFO] I0731 22:28:12.031858 10427 net.cpp:399] fc8 -> fc8
2016-07-31 22:28:12.044 STDERR [INFO] I0731 22:28:12.044168 10427 net.cpp:141] Setting up fc8
2016-07-31 22:28:12.044 STDERR [INFO] I0731 22:28:12.044216 10427 net.cpp:148] Top shape: 10 1000 (10000)
2016-07-31 22:28:12.044 STDERR [INFO] I0731 22:28:12.044222 10427 net.cpp:156] Memory required for data: 68641400
2016-07-31 22:28:12.044 STDERR [INFO] I0731 22:28:12.044237 10427 layer_factory.hpp:77] Creating layer prob
2016-07-31 22:28:12.044 STDERR [INFO] I0731 22:28:12.044253 10427 net.cpp:91] Creating Layer prob
2016-07-31 22:28:12.045 STDERR [INFO] I0731 22:28:12.044260 10427 net.cpp:425] prob <- fc8
2016-07-31 22:28:12.045 STDERR [INFO] I0731 22:28:12.044270 10427 net.cpp:399] prob -> prob
2016-07-31 22:28:12.045 STDERR [INFO] I0731 22:28:12.044690 10427 net.cpp:141] Setting up prob
2016-07-31 22:28:12.045 STDERR [INFO] I0731 22:28:12.044704 10427 net.cpp:148] Top shape: 10 1000 (10000)
2016-07-31 22:28:12.045 STDERR [INFO] I0731 22:28:12.044708 10427 net.cpp:156] Memory required for data: 68681400
2016-07-31 22:28:12.045 STDERR [INFO] I0731 22:28:12.044713 10427 net.cpp:219] prob does not need backward computation.
2016-07-31 22:28:12.045 STDERR [INFO] I0731 22:28:12.044718 10427 net.cpp:219] fc8 does not need backward computation.
2016-07-31 22:28:12.045 STDERR [INFO] I0731 22:28:12.044723 10427 net.cpp:219] drop7 does not need backward computation.
…
2016-07-31 22:28:12.047 STDERR [INFO] I0731 22:28:12.044813 10427 net.cpp:219] conv1 does not need backward computation.
2016-07-31 22:28:12.047 STDERR [INFO] I0731 22:28:12.044817 10427 net.cpp:219] data does not need backward computation.
2016-07-31 22:28:12.047 STDERR [INFO] I0731 22:28:12.044821 10427 net.cpp:261] This network produces output prob
2016-07-31 22:28:12.047 STDERR [INFO] I0731 22:28:12.044839 10427 net.cpp:274] Network initialization done.
2016-07-31 22:28:12.063 STDERR [INFO] I0731 22:28:12.063491 10417 net.cpp:141] Setting up lstm2_transform_1
2016-07-31 22:28:12.064 STDERR [INFO] I0731 22:28:12.063549 10417 net.cpp:148] Top shape: 1 1 4000 (4000)
2016-07-31 22:28:12.064 STDERR [INFO] I0731 22:28:12.063555 10417 net.cpp:156] Memory required for data: 66020
2016-07-31 22:28:12.064 STDERR [INFO] I0731 22:28:12.063573 10417 layer_factory.hpp:77] Creating layer lstm2_gate_input_1
2016-07-31 22:28:12.064 STDERR [INFO] I0731 22:28:12.063594 10417 net.cpp:91] Creating Layer lstm2_gate_input_1
2016-07-31 22:28:12.064 STDERR [INFO] I0731 22:28:12.063601 10417 net.cpp:425] lstm2_gate_input_1 <- W_hc_h_0
2016-07-31 22:28:12.064 STDERR [INFO] I0731 22:28:12.063609 10417 net.cpp:425] lstm2_gate_input_1 <- W_xc_x_1
2016-07-31 22:28:12.064 STDERR [INFO] I0731 22:28:12.063616 10417 net.cpp:399] lstm2_gate_input_1 -> gate_input_1
2016-07-31 22:28:12.065 STDERR [INFO] I0731 22:28:12.063666 10417 net.cpp:141] Setting up lstm2_gate_input_1
2016-07-31 22:28:12.065 STDERR [INFO] I0731 22:28:12.063675 10417 net.cpp:148] Top shape: 1 1 4000 (4000)
2016-07-31 22:28:12.065 STDERR [INFO] I0731 22:28:12.063679 10417 net.cpp:156] Memory required for data: 82020
2016-07-31 22:28:12.065 STDERR [INFO] I0731 22:28:12.063683 10417 layer_factory.hpp:77] Creating layer lstm2_unit_1
2016-07-31 22:28:12.065 STDERR [INFO] I0731 22:28:12.063694 10417 net.cpp:91] Creating Layer lstm2_unit_1
2016-07-31 22:28:12.065 STDERR [INFO] I0731 22:28:12.063699 10417 net.cpp:425] lstm2_unit_1 <- c_0
2016-07-31 22:28:12.065 STDERR [INFO] I0731 22:28:12.063705 10417 net.cpp:425] lstm2_unit_1 <- gate_input_1
2016-07-31 22:28:12.065 STDERR [INFO] I0731 22:28:12.063710 10417 net.cpp:425] lstm2_unit_1 <- cont_1_lstm2_cont_slice_0_split_1
2016-07-31 22:28:12.065 STDERR [INFO] I0731 22:28:12.063716 10417 net.cpp:399] lstm2_unit_1 -> c_1
2016-07-31 22:28:12.065 STDERR [INFO] I0731 22:28:12.063724 10417 net.cpp:399] lstm2_unit_1 -> h_1
2016-07-31 22:28:12.065 STDERR [INFO] I0731 22:28:12.063787 10417 net.cpp:141] Setting up lstm2_unit_1
2016-07-31 22:28:12.065 STDERR [INFO] I0731 22:28:12.063796 10417 net.cpp:148] Top shape: 1 1 1000 (1000)
2016-07-31 22:28:12.066 STDERR [INFO] I0731 22:28:12.063802 10417 net.cpp:148] Top shape: 1 1 1000 (1000)
2016-07-31 22:28:12.066 STDERR [INFO] I0731 22:28:12.063805 10417 net.cpp:156] Memory required for data: 90020
2016-07-31 22:28:12.066 STDERR [INFO] I0731 22:28:12.063809 10417 layer_factory.hpp:77] Creating layer lstm2_
2016-07-31 22:28:12.066 STDERR [INFO] I0731 22:28:12.063818 10417 net.cpp:91] Creating Layer lstm2_
2016-07-31 22:28:12.066 STDERR [INFO] I0731 22:28:12.063823 10417 net.cpp:425] lstm2_ <- c_1
2016-07-31 22:28:12.066 STDERR [INFO] I0731 22:28:12.063829 10417 net.cpp:399] lstm2_ -> c_T
2016-07-31 22:28:12.066 STDERR [INFO] I0731 22:28:12.063858 10417 net.cpp:141] Setting up lstm2_
2016-07-31 22:28:12.066 STDERR [INFO] I0731 22:28:12.063866 10417 net.cpp:148] Top shape: 1 1 1000 (1000)
2016-07-31 22:28:12.066 STDERR [INFO] I0731 22:28:12.063870 10417 net.cpp:156] Memory required for data: 94020
2016-07-31 22:28:12.066 STDERR [INFO] I0731 22:28:12.063875 10417 layer_factory.hpp:77] Creating layer lstm2_h_concat
2016-07-31 22:28:12.066 STDERR [INFO] I0731 22:28:12.063887 10417 net.cpp:91] Creating Layer lstm2_h_concat
2016-07-31 22:28:12.067 STDERR [INFO] I0731 22:28:12.063892 10417 net.cpp:425] lstm2_h_concat <- h_1
2016-07-31 22:28:12.067 STDERR [INFO] I0731 22:28:12.063899 10417 net.cpp:399] lstm2_h_concat -> h
2016-07-31 22:28:12.067 STDERR [INFO] I0731 22:28:12.063933 10417 net.cpp:141] Setting up lstm2_h_concat
2016-07-31 22:28:12.067 STDERR [INFO] I0731 22:28:12.063941 10417 net.cpp:148] Top shape: 1 1 1000 (1000)
2016-07-31 22:28:12.067 STDERR [INFO] I0731 22:28:12.063946 10417 net.cpp:156] Memory required for data: 98020
2016-07-31 22:28:12.067 STDERR [INFO] I0731 22:28:12.063949 10417 layer_factory.hpp:77] Creating layer h_pseudoloss
2016-07-31 22:28:12.067 STDERR [INFO] I0731 22:28:12.063959 10417 net.cpp:91] Creating Layer h_pseudoloss
2016-07-31 22:28:12.067 STDERR [INFO] I0731 22:28:12.063963 10417 net.cpp:425] h_pseudoloss <- h
…
