…
I0924 02:36:19.891312 30827 upgrade_proto.cpp:66] Attempting to upgrade input file specified using deprecated input fields: /home/peifeng/work/run/storm102/data/workers/0daeac21-a097-44f7-acd1-99e958fda395/tmp/cvld4908541953804099009/s2vt.words_to_preds.prototxt
I0924 02:36:19.891856 30831 upgrade_proto.cpp:69] Successfully upgraded file specified using deprecated input fields.
I0924 02:36:19.891695 30853 net.cpp:49] Initializing net from parameters: 
name: "CaffeNet"
state {
  phase: TEST
}
layer {
  name: "data"
  type: "Input"
  top: "data"
  input_param {
    shape {
      dim: 10
      dim: 3
      dim: 227
      dim: 227
    }
  }
}
layer {
  name: "conv1"
  type: "Convolution"
  bottom: "data"
  top: "conv1"
  convolution_param {
    num_output: 96
    kernel_size: 11
    stride: 4
  }
}
layer {
  name: "relu1"
  type: "ReLU"
  bottom: "conv1"
  top: "conv1"
}
layer {
  name: "pool1"
  type: "Pooling"
  bottom: "conv1"
  top: "pool1"
  pooling_param {
    pool: MAX
    kernel_size: 3
    stride: 2
  }
}
layer {
  name: "norm1"
  type: "LRN"
  bottom: "pool1"
  top: "norm1"
  lrn_param {
    local_size: 5
    alpha: 0.0001
    beta: 0.75
  }
}
layer {
  name: "conv2"
  type: "Convolution"
  bottom: "norm1"
  top: "conv2"
  convolution_param {
    num_output: 256
    pad: 2
    kernel_size: 5
    group: 2
  }
}
layer {
  name: "relu2"
  type: "ReLU"
  bottom: "conv2"
  top: "conv2"
}
layer {
  name: "pool2"
  type: "Pooling"
  bottom: "conv2"
  top: "pool2"
  pooling_param {
    pool: MAX
    kernel_size: 3
    stride: 2
  }
}
layer {
  name: "norm2"
  type: "LRN"
  bottom: "pool2"
  top: "norm2"
  lrn_param {
    local_size: 5
    alpha: 0.0001
    beta: 0.75
  }
}
layer {
  name: "conv3"
  type: "Convolution"
  bottom: "norm2"
  top: "conv3"
  convolution_param {
    num_output: 384
    pad: 1
    kernel_size: 3
  }
}
layer {
  name: "relu3"
  type: "ReLU"
  bottom: "conv3"
  top: "conv3"
}
layer {
  name: "conv4"
  type: "Convolution"
  bottom: "conv3"
  top: "conv4"
  convolution_param {
    num_output: 384
    pad: 1
    kernel_size: 3
    group: 2
  }
}
layer {
  name: "relu4"
  type: "ReLU"
  bottom: "conv4"
  top: "conv4"
}
layer {
  name: "conv5"
  type: "Convolution"
  bottom: "conv4"
  top: "conv5"
  convolution_param {
    num_output: 256
    pad: 1
    kernel_size: 3
    group: 2
  }
}
layer {
  name: "relu5"
  type: "ReLU"
  bottom: "conv5"
  top: "conv5"
}
layer {
  name: "pool5"
  type: "Pooling"
  bottom: "conv5"
  top: "pool5"
  pooling_param {
    pool: MAX
    kernel_size: 3
    stride: 2
  }
}
layer {
  name: "fc6"
  type: "InnerProduct"
  bottom: "pool5"
  top: "fc6"
  inner_product_param {
    num_output: 4096
  }
}
layer {
  name: "relu6"
  type: "ReLU"
  bottom: "fc6"
  top: "fc6"
}
layer {
  name: "drop6"
  type: "Dropout"
  bottom: "fc6"
  top: "fc6"
  dropout_param {
    dropout_ratio: 0.5
  }
}
layer {
  name: "fc7"
  type: "InnerProduct"
  bottom: "fc6"
  top: "fc7"
  inner_product_param {
    num_output: 4096
  }
}
layer {
  name: "relu7"
  type: "ReLU"
  bottom: "fc7"
  top: "fc7"
}
layer {
  name: "drop7"
  type: "Dropout"
  bottom: "fc7"
  top: "fc7"
  dropout_param {
    dropout_ratio: 0.5
  }
}
layer {
  name: "fc8"
  type: "InnerProduct"
  bottom: "fc7"
  top: "fc8"
  inner_product_param {
    num_output: 1000
  }
}
layer {
  name: "prob"
  type: "Softmax"
  bottom: "fc8"
  top: "prob"
}
W0924 02:36:19.891876 30831 upgrade_proto.cpp:71] Note that future Caffe releases will only support input layers and not input fields.
I0924 02:36:19.891856 30845 upgrade_proto.cpp:69] Successfully upgraded file specified using deprecated input fields.
I0924 02:36:19.891880 30827 upgrade_proto.cpp:69] Successfully upgraded file specified using deprecated input fields.
W0924 02:36:19.891896 30845 upgrade_proto.cpp:71] Note that future Caffe releases will only support input layers and not input fields.
W0924 02:36:19.891903 30827 upgrade_proto.cpp:71] Note that future Caffe releases will only support input layers and not input fields.
I0924 02:36:19.892052 30853 layer_factory.hpp:77] Creating layer data
I0924 02:36:19.892089 30853 net.cpp:91] Creating Layer data
I0924 02:36:19.892107 30853 net.cpp:399] data -> data
I0924 02:36:19.892148 30827 net.cpp:49] Initializing net from parameters: 
name: "s2vt:features_to_lstm"
state {
  phase: TEST
}
layer {
  name: "input"
  type: "Input"
  top: "frames_fc7"
  top: "cont_sentence"
  top: "input_sentence"
  top: "stage_indicator"
  input_param {
    shape {
      dim: 1
      dim: 4096
    }
    shape {
      dim: 1
      dim: 1
    }
    shape {
      dim: 1
      dim: 1
    }
    shape {
      dim: 1
      dim: 1
    }
  }
}
layer {
  name: "embed_encoder"
  type: "InnerProduct"
  bottom: "frames_fc7"
  top: "embedded_in_frames"
  param {
    lr_mult: 1
    decay_mult: 1
  }
  param {
    lr_mult: 2
    decay_mult: 0
  }
  inner_product_param {
    num_output: 500
    weight_filler {
      type: "xavier"
    }
    bias_filler {
      type: "constant"
      value: 0.2
    }
  }
}
layer {
  name: "reshape_frames"
  type: "Reshape"
  bottom: "embedded_in_frames"
  top: "embedded_input_frames"
  reshape_param {
    shape {
      dim: 1
      dim: 1
      dim: 500
    }
  }
}
layer {
  name: "reshape_stage_indicator"
  type: "Reshape"
  bottom: "stage_indicator"
  top: "reshaped_stage_indicator"
  reshape_param {
    shape {
      dim: 1
      dim: 1
      dim: 1
    }
  }
}
layer {
  name: "embedding"
  type: "Embed"
  bottom: "input_sentence"
  top: "embedded_input_sentence"
  param {
    lr_mult: 1
  }
  embed_param {
    num_output: 500
    input_dim: 46168
    bias_term: false
    weight_filler {
      type: "uniform"
      min: -0.08
      max: 0.08
    }
  }
}
layer {
  name: "lstm1"
  type: "LSTM"
  bottom: "embedded_input_frames"
  bottom: "cont_sentence"
  top: "lstm1"
  recurrent_param {
    num_output: 1000
    weight_filler {
      type: "uniform"
      min: -0.08
      max: 0.08
    }
    bias_filler {
      type: "constant"
      value: 0
    }
  }
}
layer {
  name: "concat"
  type: "Concat"
  bottom: "lstm1"
  bottom: "embedded_input_sentence"
  bottom: "reshaped_stage_indicator"
  top: "lstm1_video_sequence"
  concat_param {
    concat_dim: 2
  }
}
layer {
  name: "lstm2"
  type: "LSTM"
  bottom: "lstm1_video_sequence"
  bottom: "cont_sentence"
  top: "lstm2"
  recurrent_param {
    num_output: 1000
    weight_filler {
      type: "uniform"
      min: -0.08
      max: 0.08
    }
    bias_filler {
      type: "constant"
      value: 0
    }
  }
}
layer {
  name: "predict"
  type: "InnerProduct"
  bottom: "lstm2"
  top: "predict"
  param {
    lr_mult: 1
    decay_mult: 1
  }
  param {
    lr_mult: 2
    decay_mult: 0
  }
  inner_product_param {
    num_output: 46168
    weight_filler {
      type: "uniform"
      min: -0.08
      max: 0.08
    }
    bias_filler {
      type: "constant"
      value: 0
    }
    axis: 2
  }
}
layer {
  name: "probs"
  type: "Softmax"
  bottom: "predict"
  top: "probs"
  softmax_param {
    axis: 2
  }
}
I0924 02:36:19.892213 30845 net.cpp:49] Initializing net from parameters: 
name: "s2vt:features_to_lstm"
state {
  phase: TEST
}
layer {
  name: "input"
  type: "Input"
  top: "frames_fc7"
  top: "cont_sentence"
  top: "input_sentence"
  top: "stage_indicator"
  input_param {
    shape {
      dim: 1
      dim: 4096
    }
    shape {
      dim: 1
      dim: 1
    }
    shape {
      dim: 1
      dim: 1
    }
    shape {
      dim: 1
      dim: 1
    }
  }
}
layer {
  name: "embed_encoder"
  type: "InnerProduct"
  bottom: "frames_fc7"
  top: "embedded_in_frames"
  param {
    lr_mult: 1
    decay_mult: 1
  }
  param {
    lr_mult: 2
    decay_mult: 0
  }
  inner_product_param {
    num_output: 500
    weight_filler {
      type: "xavier"
    }
    bias_filler {
      type: "constant"
      value: 0.2
    }
  }
}
layer {
  name: "reshape_frames"
  type: "Reshape"
  bottom: "embedded_in_frames"
  top: "embedded_input_frames"
  reshape_param {
    shape {
      dim: 1
      dim: 1
      dim: 500
    }
  }
}
layer {
  name: "reshape_stage_indicator"
  type: "Reshape"
  bottom: "stage_indicator"
  top: "reshaped_stage_indicator"
  reshape_param {
    shape {
      dim: 1
      dim: 1
      dim: 1
    }
  }
}
layer {
  name: "embedding"
  type: "Embed"
  bottom: "input_sentence"
  top: "embedded_input_sentence"
  param {
    lr_mult: 1
  }
  embed_param {
    num_output: 500
    input_dim: 46168
    bias_term: false
    weight_filler {
      type: "uniform"
      min: -0.08
      max: 0.08
    }
  }
}
layer {
  name: "lstm1"
  type: "LSTM"
  bottom: "embedded_input_frames"
  bottom: "cont_sentence"
  top: "lstm1"
  recurrent_param {
    num_output: 1000
    weight_filler {
      type: "uniform"
      min: -0.08
      max: 0.08
    }
    bias_filler {
      type: "constant"
      value: 0
    }
  }
}
layer {
  name: "concat"
  type: "Concat"
  bottom: "lstm1"
  bottom: "embedded_input_sentence"
  bottom: "reshaped_stage_indicator"
  top: "lstm1_video_sequence"
  concat_param {
    concat_dim: 2
  }
}
layer {
  name: "lstm2"
  type: "LSTM"
  bottom: "lstm1_video_sequence"
  bottom: "cont_sentence"
  top: "lstm2"
  recurrent_param {
    num_output: 1000
    weight_filler {
      type: "uniform"
      min: -0.08
      max: 0.08
    }
    bias_filler {
      type: "constant"
      value: 0
    }
  }
}
layer {
  name: "predict"
  type: "InnerProduct"
  bottom: "lstm2"
  top: "predict"
  param {
    lr_mult: 1
    decay_mult: 1
  }
  param {
    lr_mult: 2
    decay_mult: 0
  }
  inner_product_param {
    num_output: 46168
    weight_filler {
      type: "uniform"
      min: -0.08
      max: 0.08
    }
    bias_filler {
      type: "constant"
      value: 0
    }
    axis: 2
  }
}
layer {
  name: "probs"
  type: "Softmax"
  bottom: "predict"
  top: "probs"
  softmax_param {
    axis: 2
  }
}
I0924 02:36:19.892213 30831 net.cpp:49] Initializing net from parameters: 
name: "s2vt:features_to_lstm"
state {
  phase: TEST
}
layer {
  name: "input"
  type: "Input"
  top: "frames_fc7"
  top: "cont_sentence"
  top: "input_sentence"
  top: "stage_indicator"
  input_param {
    shape {
      dim: 1
      dim: 4096
    }
    shape {
      dim: 1
      dim: 1
    }
    shape {
      dim: 1
      dim: 1
    }
    shape {
      dim: 1
      dim: 1
    }
  }
}
layer {
  name: "embed_encoder"
  type: "InnerProduct"
  bottom: "frames_fc7"
  top: "embedded_in_frames"
  param {
    lr_mult: 1
    decay_mult: 1
  }
  param {
    lr_mult: 2
    decay_mult: 0
  }
  inner_product_param {
    num_output: 500
    weight_filler {
      type: "xavier"
    }
    bias_filler {
      type: "constant"
      value: 0.2
    }
  }
}
layer {
  name: "reshape_frames"
  type: "Reshape"
  bottom: "embedded_in_frames"
  top: "embedded_input_frames"
  reshape_param {
    shape {
      dim: 1
      dim: 1
      dim: 500
    }
  }
}
layer {
  name: "reshape_stage_indicator"
  type: "Reshape"
  bottom: "stage_indicator"
  top: "reshaped_stage_indicator"
  reshape_param {
    shape {
      dim: 1
      dim: 1
      dim: 1
    }
  }
}
layer {
  name: "embedding"
  type: "Embed"
  bottom: "input_sentence"
  top: "embedded_input_sentence"
  param {
    lr_mult: 1
  }
  embed_param {
    num_output: 500
    input_dim: 46168
    bias_term: false
    weight_filler {
      type: "uniform"
      min: -0.08
      max: 0.08
    }
  }
}
layer {
  name: "lstm1"
  type: "LSTM"
  bottom: "embedded_input_frames"
  bottom: "cont_sentence"
  top: "lstm1"
  recurrent_param {
    num_output: 1000
    weight_filler {
      type: "uniform"
      min: -0.08
      max: 0.08
    }
    bias_filler {
      type: "constant"
      value: 0
    }
  }
}
layer {
  name: "concat"
  type: "Concat"
  bottom: "lstm1"
  bottom: "embedded_input_sentence"
  bottom: "reshaped_stage_indicator"
  top: "lstm1_video_sequence"
  concat_param {
    concat_dim: 2
  }
}
layer {
  name: "lstm2"
  type: "LSTM"
  bottom: "lstm1_video_sequence"
  bottom: "cont_sentence"
  top: "lstm2"
  recurrent_param {
    num_output: 1000
    weight_filler {
      type: "uniform"
      min: -0.08
      max: 0.08
    }
    bias_filler {
      type: "constant"
      value: 0
    }
  }
}
layer {
  name: "predict"
  type: "InnerProduct"
  bottom: "lstm2"
  top: "predict"
  param {
    lr_mult: 1
    decay_mult: 1
  }
  param {
    lr_mult: 2
    decay_mult: 0
  }
  inner_product_param {
    num_output: 46168
    weight_filler {
      type: "uniform"
      min: -0.08
      max: 0.08
    }
    bias_filler {
      type: "constant"
      value: 0
    }
    axis: 2
  }
}
layer {
  name: "probs"
  type: "Softmax"
  bottom: "predict"
  top: "probs"
  softmax_param {
    axis: 2
  }
}
I0924 02:36:19.892272 30827 layer_factory.hpp:77] Creating layer input
I0924 02:36:19.892289 30827 net.cpp:91] Creating Layer input
I0924 02:36:19.892297 30827 net.cpp:399] input -> frames_fc7
I0924 02:36:19.892314 30827 net.cpp:399] input -> cont_sentence
I0924 02:36:19.892328 30827 net.cpp:399] input -> input_sentence
I0924 02:36:19.892338 30827 net.cpp:399] input -> stage_indicator
…
W0924 02:36:19.894649 30851 upgrade_proto.cpp:71] Note that future Caffe releases will only support input layers and not input fields.
I0924 02:36:19.894956 30851 net.cpp:49] Initializing net from parameters: 
name: "s2vt:features_to_lstm"
state {
  phase: TEST
}
layer {
  name: "input"
  type: "Input"
  top: "frames_fc7"
  top: "cont_sentence"
  top: "input_sentence"
  top: "stage_indicator"
  input_param {
    shape {
      dim: 1
      dim: 4096
    }
    shape {
      dim: 1
      dim: 1
    }
    shape {
      dim: 1
      dim: 1
    }
    shape {
      dim: 1
      dim: 1
    }
  }
}
layer {
  name: "embed_encoder"
  type: "InnerProduct"
  bottom: "frames_fc7"
  top: "embedded_in_frames"
  param {
    lr_mult: 1
    decay_mult: 1
  }
  param {
    lr_mult: 2
    decay_mult: 0
  }
  inner_product_param {
    num_output: 500
    weight_filler {
      type: "xavier"
    }
    bias_filler {
      type: "constant"
      value: 0.2
    }
  }
}
layer {
  name: "reshape_frames"
  type: "Reshape"
  bottom: "embedded_in_frames"
  top: "embedded_input_frames"
  reshape_param {
    shape {
      dim: 1
      dim: 1
      dim: 500
    }
  }
}
layer {
  name: "reshape_stage_indicator"
  type: "Reshape"
  bottom: "stage_indicator"
  top: "reshaped_stage_indicator"
  reshape_param {
    shape {
      dim: 1
      dim: 1
      dim: 1
    }
  }
}
layer {
  name: "embedding"
  type: "Embed"
  bottom: "input_sentence"
  top: "embedded_input_sentence"
  param {
    lr_mult: 1
  }
  embed_param {
    num_output: 500
    input_dim: 46168
    bias_term: false
    weight_filler {
      type: "uniform"
      min: -0.08
      max: 0.08
    }
  }
}
layer {
  name: "lstm1"
  type: "LSTM"
  bottom: "embedded_input_frames"
  bottom: "cont_sentence"
  top: "lstm1"
  recurrent_param {
    num_output: 1000
    weight_filler {
      type: "uniform"
      min: -0.08
      max: 0.08
    }
    bias_filler {
      type: "constant"
      value: 0
    }
  }
}
layer {
  name: "concat"
  type: "Concat"
  bottom: "lstm1"
  bottom: "embedded_input_sentence"
  bottom: "reshaped_stage_indicator"
  top: "lstm1_video_sequence"
  concat_param {
    concat_dim: 2
  }
}
layer {
  name: "lstm2"
  type: "LSTM"
  bottom: "lstm1_video_sequence"
  bottom: "cont_sentence"
  top: "lstm2"
  recurrent_param {
    num_output: 1000
    weight_filler {
      type: "uniform"
      min: -0.08
      max: 0.08
    }
    bias_filler {
      type: "constant"
      value: 0
    }
  }
}
layer {
  name: "predict"
  type: "InnerProduct"
  bottom: "lstm2"
  top: "predict"
  param {
    lr_mult: 1
    decay_mult: 1
  }
  param {
    lr_mult: 2
    decay_mult: 0
  }
  inner_product_param {
    num_output: 46168
    weight_filler {
      type: "uniform"
      min: -0.08
      max: 0.08
    }
    bias_filler {
      type: "constant"
      value: 0
    }
    axis: 2
  }
}
layer {
  name: "probs"
  type: "Softmax"
  bottom: "predict"
  top: "probs"
  softmax_param {
    axis: 2
  }
}
I0924 02:36:19.895100 30851 layer_factory.hpp:77] Creating layer input
I0924 02:36:19.895134 30851 net.cpp:91] Creating Layer input
I0924 02:36:19.895148 30851 net.cpp:399] input -> frames_fc7
I0924 02:36:19.895167 30851 net.cpp:399] input -> cont_sentence
I0924 02:36:19.895184 30851 net.cpp:399] input -> input_sentence
I0924 02:36:19.895201 30851 net.cpp:399] input -> stage_indicator
I0924 02:36:20.480736 30853 net.cpp:141] Setting up data
I0924 02:36:20.480805 30853 net.cpp:148] Top shape: 10 3 227 227 (1545870)
I0924 02:36:20.480813 30853 net.cpp:156] Memory required for data: 6183480
I0924 02:36:20.480837 30853 layer_factory.hpp:77] Creating layer conv1
I0924 02:36:20.480880 30853 net.cpp:91] Creating Layer conv1
I0924 02:36:20.480872 30827 net.cpp:141] Setting up input
I0924 02:36:20.480892 30853 net.cpp:425] conv1 <- data
I0924 02:36:20.480913 30827 net.cpp:148] Top shape: 1 4096 (4096)
I0924 02:36:20.480921 30827 net.cpp:148] Top shape: 1 1 (1)
I0924 02:36:20.480922 30853 net.cpp:399] conv1 -> conv1
I0924 02:36:20.480927 30827 net.cpp:148] Top shape: 1 1 (1)
I0924 02:36:20.480933 30827 net.cpp:148] Top shape: 1 1 (1)
I0924 02:36:20.480938 30827 net.cpp:156] Memory required for data: 16396
I0924 02:36:20.480947 30827 layer_factory.hpp:77] Creating layer cont_sentence_input_1_split
I0924 02:36:20.480975 30827 net.cpp:91] Creating Layer cont_sentence_input_1_split
I0924 02:36:20.480981 30827 net.cpp:425] cont_sentence_input_1_split <- cont_sentence
I0924 02:36:20.481010 30827 net.cpp:399] cont_sentence_input_1_split -> cont_sentence_input_1_split_0
I0924 02:36:20.481025 30827 net.cpp:399] cont_sentence_input_1_split -> cont_sentence_input_1_split_1
I0924 02:36:20.481096 30827 net.cpp:141] Setting up cont_sentence_input_1_split
I0924 02:36:20.481104 30827 net.cpp:148] Top shape: 1 1 (1)
I0924 02:36:20.481111 30827 net.cpp:148] Top shape: 1 1 (1)
I0924 02:36:20.481115 30827 net.cpp:156] Memory required for data: 16404
I0924 02:36:20.481119 30827 layer_factory.hpp:77] Creating layer embed_encoder
I0924 02:36:20.481142 30827 net.cpp:91] Creating Layer embed_encoder
I0924 02:36:20.481147 30827 net.cpp:425] embed_encoder <- frames_fc7
I0924 02:36:20.481156 30827 net.cpp:399] embed_encoder -> embedded_in_frames
I0924 02:36:20.481256 30845 net.cpp:141] Setting up input
I0924 02:36:20.481277 30845 net.cpp:148] Top shape: 1 4096 (4096)
I0924 02:36:20.481284 30845 net.cpp:148] Top shape: 1 1 (1)
I0924 02:36:20.481289 30845 net.cpp:148] Top shape: 1 1 (1)
I0924 02:36:20.481297 30845 net.cpp:148] Top shape: 1 1 (1)
I0924 02:36:20.481304 30845 net.cpp:156] Memory required for data: 16396
I0924 02:36:20.481313 30845 layer_factory.hpp:77] Creating layer cont_sentence_input_1_split
I0924 02:36:20.481326 30845 net.cpp:91] Creating Layer cont_sentence_input_1_split
I0924 02:36:20.481333 30845 net.cpp:425] cont_sentence_input_1_split <- cont_sentence
I0924 02:36:20.481341 30845 net.cpp:399] cont_sentence_input_1_split -> cont_sentence_input_1_split_0
I0924 02:36:20.481358 30845 net.cpp:399] cont_sentence_input_1_split -> cont_sentence_input_1_split_1
I0924 02:36:20.481432 30831 net.cpp:141] Setting up input
I0924 02:36:20.481446 30831 net.cpp:148] Top shape: 1 4096 (4096)
I0924 02:36:20.481452 30831 net.cpp:148] Top shape: 1 1 (1)
I0924 02:36:20.481458 30831 net.cpp:148] Top shape: 1 1 (1)
I0924 02:36:20.481463 30831 net.cpp:148] Top shape: 1 1 (1)
I0924 02:36:20.481467 30831 net.cpp:156] Memory required for data: 16396
I0924 02:36:20.481473 30831 layer_factory.hpp:77] Creating layer cont_sentence_input_1_split
I0924 02:36:20.481499 30831 net.cpp:91] Creating Layer cont_sentence_input_1_split
I0924 02:36:20.481508 30831 net.cpp:425] cont_sentence_input_1_split <- cont_sentence
I0924 02:36:20.481516 30831 net.cpp:399] cont_sentence_input_1_split -> cont_sentence_input_1_split_0
I0924 02:36:20.481526 30831 net.cpp:399] cont_sentence_input_1_split -> cont_sentence_input_1_split_1
I0924 02:36:20.485492 30851 net.cpp:141] Setting up input
I0924 02:36:20.485525 30851 net.cpp:148] Top shape: 1 4096 (4096)
I0924 02:36:20.485532 30851 net.cpp:148] Top shape: 1 1 (1)
I0924 02:36:20.485530 30845 net.cpp:141] Setting up cont_sentence_input_1_split
I0924 02:36:20.485538 30851 net.cpp:148] Top shape: 1 1 (1)
I0924 02:36:20.485554 30851 net.cpp:148] Top shape: 1 1 (1)
I0924 02:36:20.485555 30845 net.cpp:148] Top shape: 1 1 (1)
I0924 02:36:20.485559 30851 net.cpp:156] Memory required for data: 16396
I0924 02:36:20.485566 30845 net.cpp:148] Top shape: 1 1 (1)
I0924 02:36:20.485568 30851 layer_factory.hpp:77] Creating layer cont_sentence_input_1_split
I0924 02:36:20.485577 30845 net.cpp:156] Memory required for data: 16404
I0924 02:36:20.485587 30845 layer_factory.hpp:77] Creating layer embed_encoder
I0924 02:36:20.485589 30851 net.cpp:91] Creating Layer cont_sentence_input_1_split
I0924 02:36:20.485596 30851 net.cpp:425] cont_sentence_input_1_split <- cont_sentence
I0924 02:36:20.485608 30845 net.cpp:91] Creating Layer embed_encoder
I0924 02:36:20.485617 30851 net.cpp:399] cont_sentence_input_1_split -> cont_sentence_input_1_split_0
I0924 02:36:20.485618 30845 net.cpp:425] embed_encoder <- frames_fc7
I0924 02:36:20.485631 30851 net.cpp:399] cont_sentence_input_1_split -> cont_sentence_input_1_split_1
I0924 02:36:20.485635 30845 net.cpp:399] embed_encoder -> embedded_in_frames
I0924 02:36:20.485759 30851 net.cpp:141] Setting up cont_sentence_input_1_split
I0924 02:36:20.485780 30851 net.cpp:148] Top shape: 1 1 (1)
I0924 02:36:20.485790 30851 net.cpp:148] Top shape: 1 1 (1)
I0924 02:36:20.485798 30851 net.cpp:156] Memory required for data: 16404
I0924 02:36:20.485806 30851 layer_factory.hpp:77] Creating layer embed_encoder
I0924 02:36:20.485827 30831 net.cpp:141] Setting up cont_sentence_input_1_split
I0924 02:36:20.485834 30851 net.cpp:91] Creating Layer embed_encoder
I0924 02:36:20.485846 30851 net.cpp:425] embed_encoder <- frames_fc7
I0924 02:36:20.485846 30831 net.cpp:148] Top shape: 1 1 (1)
I0924 02:36:20.485868 30831 net.cpp:148] Top shape: 1 1 (1)
I0924 02:36:20.485875 30831 net.cpp:156] Memory required for data: 16404
I0924 02:36:20.485883 30831 layer_factory.hpp:77] Creating layer embed_encoder
I0924 02:36:20.485888 30851 net.cpp:399] embed_encoder -> embedded_in_frames
I0924 02:36:20.485903 30831 net.cpp:91] Creating Layer embed_encoder
I0924 02:36:20.485911 30831 net.cpp:425] embed_encoder <- frames_fc7
I0924 02:36:20.485925 30831 net.cpp:399] embed_encoder -> embedded_in_frames
I0924 02:36:20.509035 30827 net.cpp:141] Setting up embed_encoder
I0924 02:36:20.509078 30827 net.cpp:148] Top shape: 1 500 (500)
I0924 02:36:20.509085 30827 net.cpp:156] Memory required for data: 18404
I0924 02:36:20.509109 30827 layer_factory.hpp:77] Creating layer reshape_frames
I0924 02:36:20.509155 30827 net.cpp:91] Creating Layer reshape_frames
I0924 02:36:20.509165 30827 net.cpp:425] reshape_frames <- embedded_in_frames
I0924 02:36:20.509176 30827 net.cpp:399] reshape_frames -> embedded_input_frames
I0924 02:36:20.509279 30827 net.cpp:141] Setting up reshape_frames
I0924 02:36:20.509290 30827 net.cpp:148] Top shape: 1 1 500 (500)
I0924 02:36:20.509294 30827 net.cpp:156] Memory required for data: 20404
I0924 02:36:20.509299 30827 layer_factory.hpp:77] Creating layer reshape_stage_indicator
I0924 02:36:20.509310 30827 net.cpp:91] Creating Layer reshape_stage_indicator
I0924 02:36:20.509316 30827 net.cpp:425] reshape_stage_indicator <- stage_indicator
I0924 02:36:20.509328 30827 net.cpp:399] reshape_stage_indicator -> reshaped_stage_indicator
I0924 02:36:20.511366 30827 net.cpp:141] Setting up reshape_stage_indicator
I0924 02:36:20.511414 30827 net.cpp:148] Top shape: 1 1 1 (1)
I0924 02:36:20.511422 30827 net.cpp:156] Memory required for data: 20408
I0924 02:36:20.511435 30827 layer_factory.hpp:77] Creating layer embedding
I0924 02:36:20.511466 30827 net.cpp:91] Creating Layer embedding
I0924 02:36:20.511481 30827 net.cpp:425] embedding <- input_sentence
I0924 02:36:20.511499 30827 net.cpp:399] embedding -> embedded_input_sentence
I0924 02:36:20.558022 30831 net.cpp:141] Setting up embed_encoder
I0924 02:36:20.558069 30851 net.cpp:141] Setting up embed_encoder
I0924 02:36:20.558079 30831 net.cpp:148] Top shape: 1 500 (500)
I0924 02:36:20.558089 30851 net.cpp:148] Top shape: 1 500 (500)
I0924 02:36:20.558090 30831 net.cpp:156] Memory required for data: 18404
I0924 02:36:20.558096 30851 net.cpp:156] Memory required for data: 18404
I0924 02:36:20.558100 30845 net.cpp:141] Setting up embed_encoder
I0924 02:36:20.558115 30845 net.cpp:148] Top shape: 1 500 (500)
I0924 02:36:20.558120 30831 layer_factory.hpp:77] Creating layer reshape_frames
I0924 02:36:20.558120 30851 layer_factory.hpp:77] Creating layer reshape_frames
I0924 02:36:20.558123 30845 net.cpp:156] Memory required for data: 18404
I0924 02:36:20.558156 30851 net.cpp:91] Creating Layer reshape_frames
I0924 02:36:20.558158 30831 net.cpp:91] Creating Layer reshape_frames
I0924 02:36:20.558167 30845 layer_factory.hpp:77] Creating layer reshape_frames
I0924 02:36:20.558169 30851 net.cpp:425] reshape_frames <- embedded_in_frames
I0924 02:36:20.558171 30831 net.cpp:425] reshape_frames <- embedded_in_frames
I0924 02:36:20.558188 30845 net.cpp:91] Creating Layer reshape_frames
I0924 02:36:20.558199 30845 net.cpp:425] reshape_frames <- embedded_in_frames
I0924 02:36:20.558204 30831 net.cpp:399] reshape_frames -> embedded_input_frames
I0924 02:36:20.558198 30851 net.cpp:399] reshape_frames -> embedded_input_frames
I0924 02:36:20.558218 30845 net.cpp:399] reshape_frames -> embedded_input_frames
I0924 02:36:20.558790 30851 net.cpp:141] Setting up reshape_frames
I0924 02:36:20.558804 30851 net.cpp:148] Top shape: 1 1 500 (500)
I0924 02:36:20.558809 30851 net.cpp:156] Memory required for data: 20404
I0924 02:36:20.558815 30851 layer_factory.hpp:77] Creating layer reshape_stage_indicator
I0924 02:36:20.558816 30831 net.cpp:141] Setting up reshape_frames
I0924 02:36:20.558826 30851 net.cpp:91] Creating Layer reshape_stage_indicator
I0924 02:36:20.558832 30851 net.cpp:425] reshape_stage_indicator <- stage_indicator
I0924 02:36:20.558835 30831 net.cpp:148] Top shape: 1 1 500 (500)
I0924 02:36:20.558842 30831 net.cpp:156] Memory required for data: 20404
I0924 02:36:20.558843 30845 net.cpp:141] Setting up reshape_frames
I0924 02:36:20.558851 30831 layer_factory.hpp:77] Creating layer reshape_stage_indicator
I0924 02:36:20.558843 30851 net.cpp:399] reshape_stage_indicator -> reshaped_stage_indicator
I0924 02:36:20.558861 30845 net.cpp:148] Top shape: 1 1 500 (500)
I0924 02:36:20.558867 30831 net.cpp:91] Creating Layer reshape_stage_indicator
I0924 02:36:20.558871 30845 net.cpp:156] Memory required for data: 20404
I0924 02:36:20.558876 30831 net.cpp:425] reshape_stage_indicator <- stage_indicator
I0924 02:36:20.558877 30845 layer_factory.hpp:77] Creating layer reshape_stage_indicator
I0924 02:36:20.558892 30831 net.cpp:399] reshape_stage_indicator -> reshaped_stage_indicator
I0924 02:36:20.558892 30845 net.cpp:91] Creating Layer reshape_stage_indicator
I0924 02:36:20.558912 30845 net.cpp:425] reshape_stage_indicator <- stage_indicator
I0924 02:36:20.558928 30845 net.cpp:399] reshape_stage_indicator -> reshaped_stage_indicator
I0924 02:36:20.558948 30851 net.cpp:141] Setting up reshape_stage_indicator
I0924 02:36:20.558966 30851 net.cpp:148] Top shape: 1 1 1 (1)
I0924 02:36:20.558974 30851 net.cpp:156] Memory required for data: 20408
I0924 02:36:20.558982 30851 layer_factory.hpp:77] Creating layer embedding
I0924 02:36:20.559000 30851 net.cpp:91] Creating Layer embedding
I0924 02:36:20.559010 30851 net.cpp:425] embedding <- input_sentence
I0924 02:36:20.559025 30851 net.cpp:399] embedding -> embedded_input_sentence
I0924 02:36:20.559996 30831 net.cpp:141] Setting up reshape_stage_indicator
I0924 02:36:20.560015 30831 net.cpp:148] Top shape: 1 1 1 (1)
I0924 02:36:20.560024 30831 net.cpp:156] Memory required for data: 20408
I0924 02:36:20.560022 30845 net.cpp:141] Setting up reshape_stage_indicator
I0924 02:36:20.560036 30831 layer_factory.hpp:77] Creating layer embedding
I0924 02:36:20.560044 30845 net.cpp:148] Top shape: 1 1 1 (1)
I0924 02:36:20.560051 30845 net.cpp:156] Memory required for data: 20408
I0924 02:36:20.560051 30831 net.cpp:91] Creating Layer embedding
I0924 02:36:20.560065 30845 layer_factory.hpp:77] Creating layer embedding
I0924 02:36:20.560070 30831 net.cpp:425] embedding <- input_sentence
I0924 02:36:20.560078 30845 net.cpp:91] Creating Layer embedding
I0924 02:36:20.560086 30831 net.cpp:399] embedding -> embedded_input_sentence
I0924 02:36:20.560088 30845 net.cpp:425] embedding <- input_sentence
I0924 02:36:20.560111 30845 net.cpp:399] embedding -> embedded_input_sentence
I0924 02:36:20.733181 30827 net.cpp:141] Setting up embedding
I0924 02:36:20.733230 30827 net.cpp:148] Top shape: 1 1 500 (500)
I0924 02:36:20.733237 30827 net.cpp:156] Memory required for data: 22408
I0924 02:36:20.733253 30827 layer_factory.hpp:77] Creating layer lstm1
I0924 02:36:20.733273 30827 net.cpp:91] Creating Layer lstm1
I0924 02:36:20.733279 30827 net.cpp:425] lstm1 <- embedded_input_frames
I0924 02:36:20.733288 30827 net.cpp:425] lstm1 <- cont_sentence_input_1_split_0
I0924 02:36:20.733299 30827 net.cpp:399] lstm1 -> lstm1
I0924 02:36:20.733335 30827 recurrent_layer.cpp:20] Initializing recurrent layer: assuming input batch contains 1 timesteps of 1 independent streams.
I0924 02:36:20.733690 30827 net.cpp:49] Initializing net from parameters: 
layer {
  name: "lstm1_"
  type: "Input"
  top: "x"
  top: "cont"
  input_param {
    shape {
      dim: 1
      dim: 1
      dim: 500
    }
    shape {
      dim: 1
      dim: 1
    }
  }
}
layer {
  name: "lstm1_"
  type: "Input"
  top: "c_0"
  top: "h_0"
  input_param {
    shape {
      dim: 1
      dim: 1
      dim: 1000
    }
    shape {
      dim: 1
      dim: 1
      dim: 1000
    }
  }
}
layer {
  name: "lstm1_cont_slice"
  type: "Slice"
  bottom: "cont"
  top: "cont_1"
  slice_param {
    axis: 0
  }
}
layer {
  name: "lstm1_x_transform"
  type: "InnerProduct"
  bottom: "x"
  top: "W_xc_x"
  param {
    name: "W_xc"
  }
  param {
    name: "b_c"
  }
  propagate_down: true
  inner_product_param {
    num_output: 4000
    bias_term: true
    weight_filler {
      type: "uniform"
      min: -0.08
      max: 0.08
    }
    bias_filler {
      type: "constant"
      value: 0
    }
    axis: 2
  }
}
layer {
  name: "lstm1_W_xc_x_slice"
  type: "Slice"
  bottom: "W_xc_x"
  top: "W_xc_x_1"
  slice_param {
    axis: 0
  }
}
layer {
  name: "lstm1_h_conted_0"
  type: "Scale"
  bottom: "h_0"
  bottom: "cont_1"
  top: "h_conted_0"
  scale_param {
    axis: 0
  }
}
layer {
  name: "lstm1_transform_1"
  type: "InnerProduct"
  bottom: "h_conted_0"
  top: "W_hc_h_0"
  param {
    name: "W_hc"
  }
  inner_product_param {
    num_output: 4000
    bias_term: false
    weight_filler {
      type: "uniform"
      min: -0.08
      max: 0.08
    }
    axis: 2
  }
}
layer {
  name: "lstm1_gate_input_1"
  type: "Eltwise"
  bottom: "W_hc_h_0"
  bottom: "W_xc_x_1"
  top: "gate_input_1"
  eltwise_param {
    operation: SUM
  }
}
layer {
  name: "lstm1_unit_1"
  type: "LSTMUnit"
  bottom: "c_0"
  bottom: "gate_input_1"
  bottom: "cont_1"
  top: "c_1"
  top: "h_1"
}
layer {
  name: "lstm1_"
  type: "Split"
  bottom: "c_1"
  top: "c_T"
}
layer {
  name: "lstm1_h_concat"
  type: "Concat"
  bottom: "h_1"
  top: "h"
  concat_param {
    axis: 0
  }
}
layer {
  name: "h_pseudoloss"
  type: "Reduction"
  bottom: "h"
  top: "h_pseudoloss"
  loss_weight: 1
}
I0924 02:36:20.733781 30827 layer_factory.hpp:77] Creating layer lstm1_
I0924 02:36:20.733793 30827 net.cpp:91] Creating Layer lstm1_
I0924 02:36:20.733800 30827 net.cpp:399] lstm1_ -> x
I0924 02:36:20.733811 30827 net.cpp:399] lstm1_ -> cont
I0924 02:36:20.734014 30827 net.cpp:141] Setting up lstm1_
I0924 02:36:20.734026 30827 net.cpp:148] Top shape: 1 1 500 (500)
I0924 02:36:20.734032 30827 net.cpp:148] Top shape: 1 1 (1)
I0924 02:36:20.734036 30827 net.cpp:156] Memory required for data: 2004
I0924 02:36:20.734041 30827 layer_factory.hpp:77] Creating layer lstm1_
I0924 02:36:20.734050 30827 net.cpp:91] Creating Layer lstm1_
I0924 02:36:20.734061 30827 net.cpp:399] lstm1_ -> c_0
I0924 02:36:20.734071 30827 net.cpp:399] lstm1_ -> h_0
I0924 02:36:20.736711 30827 net.cpp:141] Setting up lstm1_
I0924 02:36:20.736729 30827 net.cpp:148] Top shape: 1 1 1000 (1000)
I0924 02:36:20.736735 30827 net.cpp:148] Top shape: 1 1 1000 (1000)
I0924 02:36:20.736739 30827 net.cpp:156] Memory required for data: 10004
I0924 02:36:20.736744 30827 layer_factory.hpp:77] Creating layer lstm1_cont_slice
I0924 02:36:20.736758 30827 net.cpp:91] Creating Layer lstm1_cont_slice
I0924 02:36:20.736764 30827 net.cpp:425] lstm1_cont_slice <- cont
I0924 02:36:20.736773 30827 net.cpp:399] lstm1_cont_slice -> cont_1
I0924 02:36:20.736909 30827 net.cpp:141] Setting up lstm1_cont_slice
I0924 02:36:20.736920 30827 net.cpp:148] Top shape: 1 1 (1)
I0924 02:36:20.736924 30827 net.cpp:156] Memory required for data: 10008
I0924 02:36:20.736929 30827 layer_factory.hpp:77] Creating layer cont_1_lstm1_cont_slice_0_split
I0924 02:36:20.736937 30827 net.cpp:91] Creating Layer cont_1_lstm1_cont_slice_0_split
I0924 02:36:20.736943 30827 net.cpp:425] cont_1_lstm1_cont_slice_0_split <- cont_1
I0924 02:36:20.736951 30827 net.cpp:399] cont_1_lstm1_cont_slice_0_split -> cont_1_lstm1_cont_slice_0_split_0
I0924 02:36:20.736960 30827 net.cpp:399] cont_1_lstm1_cont_slice_0_split -> cont_1_lstm1_cont_slice_0_split_1
I0924 02:36:20.737185 30827 net.cpp:141] Setting up cont_1_lstm1_cont_slice_0_split
I0924 02:36:20.737195 30827 net.cpp:148] Top shape: 1 1 (1)
I0924 02:36:20.737200 30827 net.cpp:148] Top shape: 1 1 (1)
I0924 02:36:20.737205 30827 net.cpp:156] Memory required for data: 10016
I0924 02:36:20.737210 30827 layer_factory.hpp:77] Creating layer lstm1_x_transform
I0924 02:36:20.737221 30827 net.cpp:91] Creating Layer lstm1_x_transform
I0924 02:36:20.737224 30827 net.cpp:425] lstm1_x_transform <- x
I0924 02:36:20.737232 30827 net.cpp:399] lstm1_x_transform -> W_xc_x
I0924 02:36:20.769763 30827 net.cpp:141] Setting up lstm1_x_transform
I0924 02:36:20.769811 30827 net.cpp:148] Top shape: 1 1 4000 (4000)
I0924 02:36:20.769817 30827 net.cpp:156] Memory required for data: 26016
I0924 02:36:20.769837 30827 layer_factory.hpp:77] Creating layer lstm1_W_xc_x_slice
I0924 02:36:20.769855 30827 net.cpp:91] Creating Layer lstm1_W_xc_x_slice
I0924 02:36:20.769861 30827 net.cpp:425] lstm1_W_xc_x_slice <- W_xc_x
I0924 02:36:20.769870 30827 net.cpp:399] lstm1_W_xc_x_slice -> W_xc_x_1
I0924 02:36:20.771014 30827 net.cpp:141] Setting up lstm1_W_xc_x_slice
I0924 02:36:20.771039 30827 net.cpp:148] Top shape: 1 1 4000 (4000)
I0924 02:36:20.771049 30827 net.cpp:156] Memory required for data: 42016
I0924 02:36:20.771054 30827 layer_factory.hpp:77] Creating layer lstm1_h_conted_0
I0924 02:36:20.771073 30827 net.cpp:91] Creating Layer lstm1_h_conted_0
I0924 02:36:20.771080 30827 net.cpp:425] lstm1_h_conted_0 <- h_0
I0924 02:36:20.771086 30827 net.cpp:425] lstm1_h_conted_0 <- cont_1_lstm1_cont_slice_0_split_0
I0924 02:36:20.771095 30827 net.cpp:399] lstm1_h_conted_0 -> h_conted_0
I0924 02:36:20.772418 30827 net.cpp:141] Setting up lstm1_h_conted_0
I0924 02:36:20.772450 30827 net.cpp:148] Top shape: 1 1 1000 (1000)
I0924 02:36:20.772459 30827 net.cpp:156] Memory required for data: 46016
I0924 02:36:20.772470 30827 layer_factory.hpp:77] Creating layer lstm1_transform_1
I0924 02:36:20.772493 30827 net.cpp:91] Creating Layer lstm1_transform_1
I0924 02:36:20.772505 30827 net.cpp:425] lstm1_transform_1 <- h_conted_0
I0924 02:36:20.772519 30827 net.cpp:399] lstm1_transform_1 -> W_hc_h_0
I0924 02:36:20.795219 30851 net.cpp:141] Setting up embedding
I0924 02:36:20.795276 30851 net.cpp:148] Top shape: 1 1 500 (500)
I0924 02:36:20.795286 30851 net.cpp:156] Memory required for data: 22408
I0924 02:36:20.795311 30851 layer_factory.hpp:77] Creating layer lstm1
I0924 02:36:20.795343 30851 net.cpp:91] Creating Layer lstm1
I0924 02:36:20.795356 30851 net.cpp:425] lstm1 <- embedded_input_frames
I0924 02:36:20.795368 30851 net.cpp:425] lstm1 <- cont_sentence_input_1_split_0
I0924 02:36:20.795383 30851 net.cpp:399] lstm1 -> lstm1
I0924 02:36:20.795409 30851 recurrent_layer.cpp:20] Initializing recurrent layer: assuming input batch contains 1 timesteps of 1 independent streams.
I0924 02:36:20.795826 30851 net.cpp:49] Initializing net from parameters: 
layer {
  name: "lstm1_"
  type: "Input"
  top: "x"
  top: "cont"
  input_param {
    shape {
      dim: 1
      dim: 1
      dim: 500
    }
    shape {
      dim: 1
      dim: 1
    }
  }
}
layer {
  name: "lstm1_"
  type: "Input"
  top: "c_0"
  top: "h_0"
  input_param {
    shape {
      dim: 1
      dim: 1
      dim: 1000
    }
    shape {
      dim: 1
      dim: 1
      dim: 1000
    }
  }
}
layer {
  name: "lstm1_cont_slice"
  type: "Slice"
  bottom: "cont"
  top: "cont_1"
  slice_param {
    axis: 0
  }
}
layer {
  name: "lstm1_x_transform"
  type: "InnerProduct"
  bottom: "x"
  top: "W_xc_x"
  param {
    name: "W_xc"
  }
  param {
    name: "b_c"
  }
  propagate_down: true
  inner_product_param {
    num_output: 4000
    bias_term: true
    weight_filler {
      type: "uniform"
      min: -0.08
      max: 0.08
    }
    bias_filler {
      type: "constant"
      value: 0
    }
    axis: 2
  }
}
layer {
  name: "lstm1_W_xc_x_slice"
  type: "Slice"
  bottom: "W_xc_x"
  top: "W_xc_x_1"
  slice_param {
    axis: 0
  }
}
layer {
  name: "lstm1_h_conted_0"
  type: "Scale"
  bottom: "h_0"
  bottom: "cont_1"
  top: "h_conted_0"
  scale_param {
    axis: 0
  }
}
layer {
  name: "lstm1_transform_1"
  type: "InnerProduct"
  bottom: "h_conted_0"
  top: "W_hc_h_0"
  param {
    name: "W_hc"
  }
  inner_product_param {
    num_output: 4000
    bias_term: false
    weight_filler {
      type: "uniform"
      min: -0.08
      max: 0.08
    }
    axis: 2
  }
}
layer {
  name: "lstm1_gate_input_1"
  type: "Eltwise"
  bottom: "W_hc_h_0"
  bottom: "W_xc_x_1"
  top: "gate_input_1"
  eltwise_param {
    operation: SUM
  }
}
layer {
  name: "lstm1_unit_1"
  type: "LSTMUnit"
  bottom: "c_0"
  bottom: "gate_input_1"
  bottom: "cont_1"
  top: "c_1"
  top: "h_1"
}
layer {
  name: "lstm1_"
  type: "Split"
  bottom: "c_1"
  top: "c_T"
}
layer {
  name: "lstm1_h_concat"
  type: "Concat"
  bottom: "h_1"
  top: "h"
  concat_param {
    axis: 0
  }
}
layer {
  name: "h_pseudoloss"
  type: "Reduction"
  bottom: "h"
  top: "h_pseudoloss"
  loss_weight: 1
}
I0924 02:36:20.796001 30851 layer_factory.hpp:77] Creating layer lstm1_
I0924 02:36:20.796026 30851 net.cpp:91] Creating Layer lstm1_
I0924 02:36:20.796041 30851 net.cpp:399] lstm1_ -> x
I0924 02:36:20.796063 30851 net.cpp:399] lstm1_ -> cont
I0924 02:36:20.796452 30851 net.cpp:141] Setting up lstm1_
I0924 02:36:20.796471 30851 net.cpp:148] Top shape: 1 1 500 (500)
I0924 02:36:20.796484 30851 net.cpp:148] Top shape: 1 1 (1)
I0924 02:36:20.796494 30851 net.cpp:156] Memory required for data: 2004
I0924 02:36:20.796502 30851 layer_factory.hpp:77] Creating layer lstm1_
I0924 02:36:20.796525 30851 net.cpp:91] Creating Layer lstm1_
I0924 02:36:20.796540 30851 net.cpp:399] lstm1_ -> c_0
I0924 02:36:20.796561 30851 net.cpp:399] lstm1_ -> h_0
I0924 02:36:20.809372 30851 net.cpp:141] Setting up lstm1_
I0924 02:36:20.809422 30851 net.cpp:148] Top shape: 1 1 1000 (1000)
I0924 02:36:20.809437 30851 net.cpp:148] Top shape: 1 1 1000 (1000)
I0924 02:36:20.809444 30851 net.cpp:156] Memory required for data: 10004
I0924 02:36:20.809458 30851 layer_factory.hpp:77] Creating layer lstm1_cont_slice
I0924 02:36:20.809486 30851 net.cpp:91] Creating Layer lstm1_cont_slice
I0924 02:36:20.809497 30851 net.cpp:425] lstm1_cont_slice <- cont
I0924 02:36:20.809548 30851 net.cpp:399] lstm1_cont_slice -> cont_1
I0924 02:36:20.809631 30851 net.cpp:141] Setting up lstm1_cont_slice
I0924 02:36:20.809650 30851 net.cpp:148] Top shape: 1 1 (1)
I0924 02:36:20.809660 30851 net.cpp:156] Memory required for data: 10008
I0924 02:36:20.809669 30851 layer_factory.hpp:77] Creating layer cont_1_lstm1_cont_slice_0_split
I0924 02:36:20.809684 30851 net.cpp:91] Creating Layer cont_1_lstm1_cont_slice_0_split
I0924 02:36:20.809695 30851 net.cpp:425] cont_1_lstm1_cont_slice_0_split <- cont_1
I0924 02:36:20.809707 30851 net.cpp:399] cont_1_lstm1_cont_slice_0_split -> cont_1_lstm1_cont_slice_0_split_0
I0924 02:36:20.809725 30851 net.cpp:399] cont_1_lstm1_cont_slice_0_split -> cont_1_lstm1_cont_slice_0_split_1
I0924 02:36:20.809864 30851 net.cpp:141] Setting up cont_1_lstm1_cont_slice_0_split
I0924 02:36:20.809882 30851 net.cpp:148] Top shape: 1 1 (1)
I0924 02:36:20.809895 30851 net.cpp:148] Top shape: 1 1 (1)
I0924 02:36:20.809903 30851 net.cpp:156] Memory required for data: 10016
I0924 02:36:20.809913 30851 layer_factory.hpp:77] Creating layer lstm1_x_transform
I0924 02:36:20.809970 30851 net.cpp:91] Creating Layer lstm1_x_transform
I0924 02:36:20.809985 30851 net.cpp:425] lstm1_x_transform <- x
I0924 02:36:20.810003 30851 net.cpp:399] lstm1_x_transform -> W_xc_x
I0924 02:36:20.823516 30827 net.cpp:141] Setting up lstm1_transform_1
I0924 02:36:20.823568 30827 net.cpp:148] Top shape: 1 1 4000 (4000)
I0924 02:36:20.823575 30827 net.cpp:156] Memory required for data: 62016
I0924 02:36:20.823595 30827 layer_factory.hpp:77] Creating layer lstm1_gate_input_1
I0924 02:36:20.823614 30827 net.cpp:91] Creating Layer lstm1_gate_input_1
I0924 02:36:20.823602 30831 net.cpp:141] Setting up embedding
I0924 02:36:20.823622 30827 net.cpp:425] lstm1_gate_input_1 <- W_hc_h_0
I0924 02:36:20.823645 30831 net.cpp:148] Top shape: 1 1 500 (500)
I0924 02:36:20.823647 30827 net.cpp:425] lstm1_gate_input_1 <- W_xc_x_1
I0924 02:36:20.823655 30831 net.cpp:156] Memory required for data: 22408
I0924 02:36:20.823674 30827 net.cpp:399] lstm1_gate_input_1 -> gate_input_1
I0924 02:36:20.823688 30831 layer_factory.hpp:77] Creating layer lstm1
I0924 02:36:20.823707 30831 net.cpp:91] Creating Layer lstm1
I0924 02:36:20.823715 30831 net.cpp:425] lstm1 <- embedded_input_frames
I0924 02:36:20.823724 30831 net.cpp:425] lstm1 <- cont_sentence_input_1_split_0
I0924 02:36:20.823734 30831 net.cpp:399] lstm1 -> lstm1
I0924 02:36:20.823751 30831 recurrent_layer.cpp:20] Initializing recurrent layer: assuming input batch contains 1 timesteps of 1 independent streams.
I0924 02:36:20.823756 30827 net.cpp:141] Setting up lstm1_gate_input_1
I0924 02:36:20.823767 30827 net.cpp:148] Top shape: 1 1 4000 (4000)
I0924 02:36:20.823771 30827 net.cpp:156] Memory required for data: 78016
I0924 02:36:20.823776 30827 layer_factory.hpp:77] Creating layer lstm1_unit_1
I0924 02:36:20.823796 30827 net.cpp:91] Creating Layer lstm1_unit_1
I0924 02:36:20.823801 30827 net.cpp:425] lstm1_unit_1 <- c_0
I0924 02:36:20.823807 30827 net.cpp:425] lstm1_unit_1 <- gate_input_1
I0924 02:36:20.823812 30827 net.cpp:425] lstm1_unit_1 <- cont_1_lstm1_cont_slice_0_split_1
I0924 02:36:20.823819 30827 net.cpp:399] lstm1_unit_1 -> c_1
I0924 02:36:20.823832 30827 net.cpp:399] lstm1_unit_1 -> h_1
I0924 02:36:20.823900 30827 net.cpp:141] Setting up lstm1_unit_1
I0924 02:36:20.823910 30827 net.cpp:148] Top shape: 1 1 1000 (1000)
I0924 02:36:20.823916 30827 net.cpp:148] Top shape: 1 1 1000 (1000)
I0924 02:36:20.823920 30827 net.cpp:156] Memory required for data: 86016
I0924 02:36:20.823925 30827 layer_factory.hpp:77] Creating layer lstm1_
I0924 02:36:20.823933 30827 net.cpp:91] Creating Layer lstm1_
I0924 02:36:20.823938 30827 net.cpp:425] lstm1_ <- c_1
I0924 02:36:20.823945 30827 net.cpp:399] lstm1_ -> c_T
I0924 02:36:20.823979 30827 net.cpp:141] Setting up lstm1_
I0924 02:36:20.823987 30827 net.cpp:148] Top shape: 1 1 1000 (1000)
I0924 02:36:20.823992 30827 net.cpp:156] Memory required for data: 90016
I0924 02:36:20.823997 30827 layer_factory.hpp:77] Creating layer lstm1_h_concat
I0924 02:36:20.824005 30827 net.cpp:91] Creating Layer lstm1_h_concat
I0924 02:36:20.824010 30827 net.cpp:425] lstm1_h_concat <- h_1
I0924 02:36:20.824019 30827 net.cpp:399] lstm1_h_concat -> h
I0924 02:36:20.824046 30831 net.cpp:49] Initializing net from parameters: 
layer {
  name: "lstm1_"
  type: "Input"
  top: "x"
  top: "cont"
  input_param {
    shape {
      dim: 1
      dim: 1
      dim: 500
    }
    shape {
      dim: 1
      dim: 1
    }
  }
}
layer {
  name: "lstm1_"
  type: "Input"
  top: "c_0"
  top: "h_0"
  input_param {
    shape {
      dim: 1
      dim: 1
      dim: 1000
    }
    shape {
      dim: 1
      dim: 1
      dim: 1000
    }
  }
}
layer {
  name: "lstm1_cont_slice"
  type: "Slice"
  bottom: "cont"
  top: "cont_1"
  slice_param {
    axis: 0
  }
}
layer {
  name: "lstm1_x_transform"
  type: "InnerProduct"
  bottom: "x"
  top: "W_xc_x"
  param {
    name: "W_xc"
  }
  param {
    name: "b_c"
  }
  propagate_down: true
  inner_product_param {
    num_output: 4000
    bias_term: true
    weight_filler {
      type: "uniform"
      min: -0.08
      max: 0.08
    }
    bias_filler {
      type: "constant"
      value: 0
    }
    axis: 2
  }
}
layer {
  name: "lstm1_W_xc_x_slice"
  type: "Slice"
  bottom: "W_xc_x"
  top: "W_xc_x_1"
  slice_param {
    axis: 0
  }
}
layer {
  name: "lstm1_h_conted_0"
  type: "Scale"
  bottom: "h_0"
  bottom: "cont_1"
  top: "h_conted_0"
  scale_param {
    axis: 0
  }
}
layer {
  name: "lstm1_transform_1"
  type: "InnerProduct"
  bottom: "h_conted_0"
  top: "W_hc_h_0"
  param {
    name: "W_hc"
  }
  inner_product_param {
    num_output: 4000
    bias_term: false
    weight_filler {
      type: "uniform"
      min: -0.08
      max: 0.08
    }
    axis: 2
  }
}
layer {
  name: "lstm1_gate_input_1"
  type: "Eltwise"
  bottom: "W_hc_h_0"
  bottom: "W_xc_x_1"
  top: "gate_input_1"
  eltwise_param {
    operation: SUM
  }
}
layer {
  name: "lstm1_unit_1"
  type: "LSTMUnit"
  bottom: "c_0"
  bottom: "gate_input_1"
  bottom: "cont_1"
  top: "c_1"
  top: "h_1"
}
layer {
  name: "lstm1_"
  type: "Split"
  bottom: "c_1"
  top: "c_T"
}
layer {
  name: "lstm1_h_concat"
  type: "Concat"
  bottom: "h_1"
  top: "h"
  concat_param {
    axis: 0
  }
}
layer {
  name: "h_pseudoloss"
  type: "Reduction"
  bottom: "h"
  top: "h_pseudoloss"
  loss_weight: 1
}
I0924 02:36:20.824059 30827 net.cpp:141] Setting up lstm1_h_concat
I0924 02:36:20.824069 30827 net.cpp:148] Top shape: 1 1 1000 (1000)
I0924 02:36:20.824074 30827 net.cpp:156] Memory required for data: 94016
I0924 02:36:20.824079 30827 layer_factory.hpp:77] Creating layer h_pseudoloss
I0924 02:36:20.824095 30827 net.cpp:91] Creating Layer h_pseudoloss
I0924 02:36:20.824098 30827 net.cpp:425] h_pseudoloss <- h
I0924 02:36:20.824106 30827 net.cpp:399] h_pseudoloss -> h_pseudoloss
I0924 02:36:20.824147 30831 layer_factory.hpp:77] Creating layer lstm1_
I0924 02:36:20.824160 30831 net.cpp:91] Creating Layer lstm1_
I0924 02:36:20.824167 30831 net.cpp:399] lstm1_ -> x
I0924 02:36:20.824178 30831 net.cpp:399] lstm1_ -> cont
I0924 02:36:20.824261 30831 net.cpp:141] Setting up lstm1_
I0924 02:36:20.824271 30831 net.cpp:148] Top shape: 1 1 500 (500)
I0924 02:36:20.824278 30831 net.cpp:148] Top shape: 1 1 (1)
I0924 02:36:20.824282 30831 net.cpp:156] Memory required for data: 2004
I0924 02:36:20.824287 30831 layer_factory.hpp:77] Creating layer lstm1_
I0924 02:36:20.824295 30831 net.cpp:91] Creating Layer lstm1_
I0924 02:36:20.824306 30831 net.cpp:399] lstm1_ -> c_0
I0924 02:36:20.824311 30827 net.cpp:141] Setting up h_pseudoloss
I0924 02:36:20.824316 30831 net.cpp:399] lstm1_ -> h_0
I0924 02:36:20.824329 30827 net.cpp:148] Top shape: (1)
…
I0924 02:36:20.824415 30827 net.cpp:219] lstm1_h_conted_0 does not need backward computation.
I0924 02:36:20.824421 30827 net.cpp:217] lstm1_W_xc_x_slice needs backward computation.
I0924 02:36:20.824426 30827 net.cpp:217] lstm1_x_transform needs backward computation.
I0924 02:36:20.824431 30827 net.cpp:219] cont_1_lstm1_cont_slice_0_split does not need backward computation.
I0924 02:36:20.824436 30827 net.cpp:219] lstm1_cont_slice does not need backward computation.
I0924 02:36:20.824437 30831 net.cpp:141] Setting up lstm1_
I0924 02:36:20.824442 30827 net.cpp:219] lstm1_ does not need backward computation.
I0924 02:36:20.824453 30831 net.cpp:148] Top shape: 1 1 1000 (1000)
I0924 02:36:20.824457 30827 net.cpp:219] lstm1_ does not need backward computation.
I0924 02:36:20.824461 30831 net.cpp:148] Top shape: 1 1 1000 (1000)
I0924 02:36:20.824463 30827 net.cpp:261] This network produces output c_T
I0924 02:36:20.824467 30831 net.cpp:156] Memory required for data: 10004
I0924 02:36:20.824470 30827 net.cpp:261] This network produces output h_pseudoloss
I0924 02:36:20.824473 30831 layer_factory.hpp:77] Creating layer lstm1_cont_slice
I0924 02:36:20.824483 30831 net.cpp:91] Creating Layer lstm1_cont_slice
I0924 02:36:20.824488 30831 net.cpp:425] lstm1_cont_slice <- cont
I0924 02:36:20.824491 30827 net.cpp:274] Network initialization done.
I0924 02:36:20.824498 30831 net.cpp:399] lstm1_cont_slice -> cont_1
I0924 02:36:20.824533 30831 net.cpp:141] Setting up lstm1_cont_slice
I0924 02:36:20.824542 30831 net.cpp:148] Top shape: 1 1 (1)
I0924 02:36:20.824547 30831 net.cpp:156] Memory required for data: 10008
I0924 02:36:20.824548 30827 recurrent_layer.cpp:150] Adding parameter 0: W_xc
I0924 02:36:20.824551 30831 layer_factory.hpp:77] Creating layer cont_1_lstm1_cont_slice_0_split
I0924 02:36:20.824561 30827 recurrent_layer.cpp:150] Adding parameter 1: b_c
I0924 02:36:20.824576 30827 recurrent_layer.cpp:150] Adding parameter 2: W_hc
I0924 02:36:20.824581 30831 net.cpp:91] Creating Layer cont_1_lstm1_cont_slice_0_split
I0924 02:36:20.824592 30831 net.cpp:425] cont_1_lstm1_cont_slice_0_split <- cont_1
I0924 02:36:20.824604 30831 net.cpp:399] cont_1_lstm1_cont_slice_0_split -> cont_1_lstm1_cont_slice_0_split_0
I0924 02:36:20.824620 30831 net.cpp:399] cont_1_lstm1_cont_slice_0_split -> cont_1_lstm1_cont_slice_0_split_1
I0924 02:36:20.824692 30831 net.cpp:141] Setting up cont_1_lstm1_cont_slice_0_split
I0924 02:36:20.824702 30831 net.cpp:148] Top shape: 1 1 (1)
I0924 02:36:20.824708 30831 net.cpp:148] Top shape: 1 1 (1)
I0924 02:36:20.824713 30831 net.cpp:156] Memory required for data: 10016
I0924 02:36:20.824717 30831 layer_factory.hpp:77] Creating layer lstm1_x_transform
I0924 02:36:20.824728 30831 net.cpp:91] Creating Layer lstm1_x_transform
I0924 02:36:20.824733 30831 net.cpp:425] lstm1_x_transform <- x
I0924 02:36:20.824740 30831 net.cpp:399] lstm1_x_transform -> W_xc_x
I0924 02:36:20.831066 30827 net.cpp:141] Setting up lstm1
I0924 02:36:20.831122 30827 net.cpp:148] Top shape: 1 1 1000 (1000)
I0924 02:36:20.831135 30827 net.cpp:156] Memory required for data: 26408
I0924 02:36:20.831166 30827 layer_factory.hpp:77] Creating layer concat
I0924 02:36:20.831192 30827 net.cpp:91] Creating Layer concat
I0924 02:36:20.831204 30827 net.cpp:425] concat <- lstm1
I0924 02:36:20.831218 30827 net.cpp:425] concat <- embedded_input_sentence
I0924 02:36:20.831229 30827 net.cpp:425] concat <- reshaped_stage_indicator
I0924 02:36:20.831244 30827 net.cpp:399] concat -> lstm1_video_sequence
I0924 02:36:20.831403 30827 net.cpp:141] Setting up concat
I0924 02:36:20.831419 30827 net.cpp:148] Top shape: 1 1 1501 (1501)
I0924 02:36:20.831428 30827 net.cpp:156] Memory required for data: 32412
I0924 02:36:20.831436 30827 layer_factory.hpp:77] Creating layer lstm2
I0924 02:36:20.831459 30827 net.cpp:91] Creating Layer lstm2
I0924 02:36:20.831470 30827 net.cpp:425] lstm2 <- lstm1_video_sequence
I0924 02:36:20.831480 30827 net.cpp:425] lstm2 <- cont_sentence_input_1_split_1
I0924 02:36:20.831495 30827 net.cpp:399] lstm2 -> lstm2
I0924 02:36:20.831513 30827 recurrent_layer.cpp:20] Initializing recurrent layer: assuming input batch contains 1 timesteps of 1 independent streams.
I0924 02:36:20.831964 30827 net.cpp:49] Initializing net from parameters: 
layer {
  name: "lstm2_"
  type: "Input"
  top: "x"
  top: "cont"
  input_param {
    shape {
      dim: 1
      dim: 1
      dim: 1501
    }
    shape {
      dim: 1
      dim: 1
    }
  }
}
layer {
  name: "lstm2_"
  type: "Input"
  top: "c_0"
  top: "h_0"
  input_param {
    shape {
      dim: 1
      dim: 1
      dim: 1000
    }
    shape {
      dim: 1
      dim: 1
      dim: 1000
    }
  }
}
layer {
  name: "lstm2_cont_slice"
  type: "Slice"
  bottom: "cont"
  top: "cont_1"
  slice_param {
    axis: 0
  }
}
layer {
  name: "lstm2_x_transform"
  type: "InnerProduct"
  bottom: "x"
  top: "W_xc_x"
  param {
    name: "W_xc"
  }
  param {
    name: "b_c"
  }
  propagate_down: true
  inner_product_param {
    num_output: 4000
    bias_term: true
    weight_filler {
      type: "uniform"
      min: -0.08
      max: 0.08
    }
    bias_filler {
      type: "constant"
      value: 0
    }
    axis: 2
  }
}
layer {
  name: "lstm2_W_xc_x_slice"
  type: "Slice"
  bottom: "W_xc_x"
  top: "W_xc_x_1"
  slice_param {
    axis: 0
  }
}
layer {
  name: "lstm2_h_conted_0"
  type: "Scale"
  bottom: "h_0"
  bottom: "cont_1"
  top: "h_conted_0"
  scale_param {
    axis: 0
  }
}
layer {
  name: "lstm2_transform_1"
  type: "InnerProduct"
  bottom: "h_conted_0"
  top: "W_hc_h_0"
  param {
    name: "W_hc"
  }
  inner_product_param {
    num_output: 4000
    bias_term: false
    weight_filler {
      type: "uniform"
      min: -0.08
      max: 0.08
    }
    axis: 2
  }
}
layer {
  name: "lstm2_gate_input_1"
  type: "Eltwise"
  bottom: "W_hc_h_0"
  bottom: "W_xc_x_1"
  top: "gate_input_1"
  eltwise_param {
    operation: SUM
  }
}
layer {
  name: "lstm2_unit_1"
  type: "LSTMUnit"
  bottom: "c_0"
  bottom: "gate_input_1"
  bottom: "cont_1"
  top: "c_1"
  top: "h_1"
}
layer {
  name: "lstm2_"
  type: "Split"
  bottom: "c_1"
  top: "c_T"
}
layer {
  name: "lstm2_h_concat"
  type: "Concat"
  bottom: "h_1"
  top: "h"
  concat_param {
    axis: 0
  }
}
layer {
  name: "h_pseudoloss"
  type: "Reduction"
  bottom: "h"
  top: "h_pseudoloss"
  loss_weight: 1
}
I0924 02:36:20.832110 30827 layer_factory.hpp:77] Creating layer lstm2_
I0924 02:36:20.832131 30827 net.cpp:91] Creating Layer lstm2_
I0924 02:36:20.832144 30827 net.cpp:399] lstm2_ -> x
I0924 02:36:20.832164 30827 net.cpp:399] lstm2_ -> cont
I0924 02:36:20.837242 30827 net.cpp:141] Setting up lstm2_
I0924 02:36:20.837294 30827 net.cpp:148] Top shape: 1 1 1501 (1501)
I0924 02:36:20.837307 30827 net.cpp:148] Top shape: 1 1 (1)
I0924 02:36:20.837314 30827 net.cpp:156] Memory required for data: 6008
I0924 02:36:20.837323 30827 layer_factory.hpp:77] Creating layer lstm2_
I0924 02:36:20.837342 30827 net.cpp:91] Creating Layer lstm2_
I0924 02:36:20.837355 30827 net.cpp:399] lstm2_ -> c_0
I0924 02:36:20.837388 30827 net.cpp:399] lstm2_ -> h_0
I0924 02:36:20.837406 30851 net.cpp:141] Setting up lstm1_x_transform
I0924 02:36:20.837443 30851 net.cpp:148] Top shape: 1 1 4000 (4000)
I0924 02:36:20.837450 30851 net.cpp:156] Memory required for data: 26016
I0924 02:36:20.837469 30851 layer_factory.hpp:77] Creating layer lstm1_W_xc_x_slice
I0924 02:36:20.837484 30851 net.cpp:91] Creating Layer lstm1_W_xc_x_slice
I0924 02:36:20.837491 30851 net.cpp:425] lstm1_W_xc_x_slice <- W_xc_x
I0924 02:36:20.837496 30827 net.cpp:141] Setting up lstm2_
I0924 02:36:20.837504 30851 net.cpp:399] lstm1_W_xc_x_slice -> W_xc_x_1
I0924 02:36:20.837513 30827 net.cpp:148] Top shape: 1 1 1000 (1000)
I0924 02:36:20.837523 30827 net.cpp:148] Top shape: 1 1 1000 (1000)
I0924 02:36:20.837530 30827 net.cpp:156] Memory required for data: 14008
I0924 02:36:20.837538 30827 layer_factory.hpp:77] Creating layer lstm2_cont_slice
I0924 02:36:20.837558 30827 net.cpp:91] Creating Layer lstm2_cont_slice
I0924 02:36:20.837563 30851 net.cpp:141] Setting up lstm1_W_xc_x_slice
I0924 02:36:20.837566 30827 net.cpp:425] lstm2_cont_slice <- cont
I0924 02:36:20.837592 30851 net.cpp:148] Top shape: 1 1 4000 (4000)
I0924 02:36:20.837611 30851 net.cpp:156] Memory required for data: 42016
I0924 02:36:20.837613 30827 net.cpp:399] lstm2_cont_slice -> cont_1
I0924 02:36:20.837617 30851 layer_factory.hpp:77] Creating layer lstm1_h_conted_0
I0924 02:36:20.837641 30851 net.cpp:91] Creating Layer lstm1_h_conted_0
I0924 02:36:20.837647 30851 net.cpp:425] lstm1_h_conted_0 <- h_0
I0924 02:36:20.837653 30851 net.cpp:425] lstm1_h_conted_0 <- cont_1_lstm1_cont_slice_0_split_0
I0924 02:36:20.837664 30851 net.cpp:399] lstm1_h_conted_0 -> h_conted_0
I0924 02:36:20.837692 30827 net.cpp:141] Setting up lstm2_cont_slice
I0924 02:36:20.837708 30827 net.cpp:148] Top shape: 1 1 (1)
I0924 02:36:20.837716 30827 net.cpp:156] Memory required for data: 14012
I0924 02:36:20.837723 30827 layer_factory.hpp:77] Creating layer cont_1_lstm2_cont_slice_0_split
I0924 02:36:20.837736 30827 net.cpp:91] Creating Layer cont_1_lstm2_cont_slice_0_split
I0924 02:36:20.837744 30827 net.cpp:425] cont_1_lstm2_cont_slice_0_split <- cont_1
I0924 02:36:20.837761 30827 net.cpp:399] cont_1_lstm2_cont_slice_0_split -> cont_1_lstm2_cont_slice_0_split_0
I0924 02:36:20.837775 30827 net.cpp:399] cont_1_lstm2_cont_slice_0_split -> cont_1_lstm2_cont_slice_0_split_1
I0924 02:36:20.837818 30851 net.cpp:141] Setting up lstm1_h_conted_0
I0924 02:36:20.837831 30851 net.cpp:148] Top shape: 1 1 1000 (1000)
I0924 02:36:20.837834 30851 net.cpp:156] Memory required for data: 46016
I0924 02:36:20.837839 30851 layer_factory.hpp:77] Creating layer lstm1_transform_1
I0924 02:36:20.837857 30851 net.cpp:91] Creating Layer lstm1_transform_1
I0924 02:36:20.837862 30851 net.cpp:425] lstm1_transform_1 <- h_conted_0
I0924 02:36:20.837870 30851 net.cpp:399] lstm1_transform_1 -> W_hc_h_0
I0924 02:36:20.837920 30827 net.cpp:141] Setting up cont_1_lstm2_cont_slice_0_split
I0924 02:36:20.837937 30827 net.cpp:148] Top shape: 1 1 (1)
I0924 02:36:20.837947 30827 net.cpp:148] Top shape: 1 1 (1)
I0924 02:36:20.837955 30827 net.cpp:156] Memory required for data: 14020
I0924 02:36:20.837963 30827 layer_factory.hpp:77] Creating layer lstm2_x_transform
I0924 02:36:20.837985 30827 net.cpp:91] Creating Layer lstm2_x_transform
I0924 02:36:20.837996 30827 net.cpp:425] lstm2_x_transform <- x
I0924 02:36:20.838009 30827 net.cpp:399] lstm2_x_transform -> W_xc_x
I0924 02:36:20.860618 30831 net.cpp:141] Setting up lstm1_x_transform
I0924 02:36:20.860666 30831 net.cpp:148] Top shape: 1 1 4000 (4000)
I0924 02:36:20.860672 30831 net.cpp:156] Memory required for data: 26016
I0924 02:36:20.860697 30831 layer_factory.hpp:77] Creating layer lstm1_W_xc_x_slice
I0924 02:36:20.860714 30831 net.cpp:91] Creating Layer lstm1_W_xc_x_slice
I0924 02:36:20.860721 30831 net.cpp:425] lstm1_W_xc_x_slice <- W_xc_x
I0924 02:36:20.860731 30831 net.cpp:399] lstm1_W_xc_x_slice -> W_xc_x_1
I0924 02:36:20.863416 30831 net.cpp:141] Setting up lstm1_W_xc_x_slice
I0924 02:36:20.863458 30831 net.cpp:148] Top shape: 1 1 4000 (4000)
I0924 02:36:20.863464 30831 net.cpp:156] Memory required for data: 42016
I0924 02:36:20.863473 30831 layer_factory.hpp:77] Creating layer lstm1_h_conted_0
I0924 02:36:20.863492 30831 net.cpp:91] Creating Layer lstm1_h_conted_0
I0924 02:36:20.863497 30831 net.cpp:425] lstm1_h_conted_0 <- h_0
I0924 02:36:20.863507 30831 net.cpp:425] lstm1_h_conted_0 <- cont_1_lstm1_cont_slice_0_split_0
I0924 02:36:20.863514 30831 net.cpp:399] lstm1_h_conted_0 -> h_conted_0
I0924 02:36:20.868222 30831 net.cpp:141] Setting up lstm1_h_conted_0
I0924 02:36:20.868258 30831 net.cpp:148] Top shape: 1 1 1000 (1000)
I0924 02:36:20.868264 30831 net.cpp:156] Memory required for data: 46016
I0924 02:36:20.868271 30831 layer_factory.hpp:77] Creating layer lstm1_transform_1
I0924 02:36:20.868291 30831 net.cpp:91] Creating Layer lstm1_transform_1
I0924 02:36:20.868297 30831 net.cpp:425] lstm1_transform_1 <- h_conted_0
I0924 02:36:20.868309 30831 net.cpp:399] lstm1_transform_1 -> W_hc_h_0
I0924 02:36:20.884238 30851 net.cpp:141] Setting up lstm1_transform_1
I0924 02:36:20.884302 30851 net.cpp:148] Top shape: 1 1 4000 (4000)
I0924 02:36:20.884315 30851 net.cpp:156] Memory required for data: 62016
I0924 02:36:20.884318 30845 net.cpp:141] Setting up embedding
I0924 02:36:20.884346 30851 layer_factory.hpp:77] Creating layer lstm1_gate_input_1
I0924 02:36:20.884357 30845 net.cpp:148] Top shape: 1 1 500 (500)
I0924 02:36:20.884364 30845 net.cpp:156] Memory required for data: 22408
I0924 02:36:20.884383 30845 layer_factory.hpp:77] Creating layer lstm1
I0924 02:36:20.884403 30845 net.cpp:91] Creating Layer lstm1
I0924 02:36:20.884407 30851 net.cpp:91] Creating Layer lstm1_gate_input_1
I0924 02:36:20.884413 30845 net.cpp:425] lstm1 <- embedded_input_frames
I0924 02:36:20.884435 30851 net.cpp:425] lstm1_gate_input_1 <- W_hc_h_0
I0924 02:36:20.884443 30845 net.cpp:425] lstm1 <- cont_sentence_input_1_split_0
I0924 02:36:20.884450 30851 net.cpp:425] lstm1_gate_input_1 <- W_xc_x_1
I0924 02:36:20.884454 30845 net.cpp:399] lstm1 -> lstm1
I0924 02:36:20.884470 30851 net.cpp:399] lstm1_gate_input_1 -> gate_input_1
I0924 02:36:20.884474 30845 recurrent_layer.cpp:20] Initializing recurrent layer: assuming input batch contains 1 timesteps of 1 independent streams.
I0924 02:36:20.884773 30845 net.cpp:49] Initializing net from parameters: 
layer {
  name: "lstm1_"
  type: "Input"
  top: "x"
  top: "cont"
  input_param {
    shape {
      dim: 1
      dim: 1
      dim: 500
    }
    shape {
      dim: 1
      dim: 1
    }
  }
}
layer {
  name: "lstm1_"
  type: "Input"
  top: "c_0"
  top: "h_0"
  input_param {
    shape {
      dim: 1
      dim: 1
      dim: 1000
    }
    shape {
      dim: 1
      dim: 1
      dim: 1000
    }
  }
}
layer {
  name: "lstm1_cont_slice"
  type: "Slice"
  bottom: "cont"
  top: "cont_1"
  slice_param {
    axis: 0
  }
}
layer {
  name: "lstm1_x_transform"
  type: "InnerProduct"
  bottom: "x"
  top: "W_xc_x"
  param {
    name: "W_xc"
  }
  param {
    name: "b_c"
  }
  propagate_down: true
  inner_product_param {
    num_output: 4000
    bias_term: true
    weight_filler {
      type: "uniform"
      min: -0.08
      max: 0.08
    }
    bias_filler {
      type: "constant"
      value: 0
    }
    axis: 2
  }
}
layer {
  name: "lstm1_W_xc_x_slice"
  type: "Slice"
  bottom: "W_xc_x"
  top: "W_xc_x_1"
  slice_param {
    axis: 0
  }
}
layer {
  name: "lstm1_h_conted_0"
  type: "Scale"
  bottom: "h_0"
  bottom: "cont_1"
  top: "h_conted_0"
  scale_param {
    axis: 0
  }
}
layer {
  name: "lstm1_transform_1"
  type: "InnerProduct"
  bottom: "h_conted_0"
  top: "W_hc_h_0"
  param {
    name: "W_hc"
  }
  inner_product_param {
    num_output: 4000
    bias_term: false
    weight_filler {
      type: "uniform"
      min: -0.08
      max: 0.08
    }
    axis: 2
  }
}
layer {
  name: "lstm1_gate_input_1"
  type: "Eltwise"
  bottom: "W_hc_h_0"
  bottom: "W_xc_x_1"
  top: "gate_input_1"
  eltwise_param {
    operation: SUM
  }
}
layer {
  name: "lstm1_unit_1"
  type: "LSTMUnit"
  bottom: "c_0"
  bottom: "gate_input_1"
  bottom: "cont_1"
  top: "c_1"
  top: "h_1"
}
layer {
  name: "lstm1_"
  type: "Split"
  bottom: "c_1"
  top: "c_T"
}
layer {
  name: "lstm1_h_concat"
  type: "Concat"
  bottom: "h_1"
  top: "h"
  concat_param {
    axis: 0
  }
}
layer {
  name: "h_pseudoloss"
  type: "Reduction"
  bottom: "h"
  top: "h_pseudoloss"
  loss_weight: 1
}
I0924 02:36:20.884863 30845 layer_factory.hpp:77] Creating layer lstm1_
I0924 02:36:20.884877 30845 net.cpp:91] Creating Layer lstm1_
I0924 02:36:20.884884 30845 net.cpp:399] lstm1_ -> x
I0924 02:36:20.884896 30845 net.cpp:399] lstm1_ -> cont
I0924 02:36:20.887490 30851 net.cpp:141] Setting up lstm1_gate_input_1
I0924 02:36:20.887531 30851 net.cpp:148] Top shape: 1 1 4000 (4000)
I0924 02:36:20.887537 30851 net.cpp:156] Memory required for data: 78016
I0924 02:36:20.887544 30851 layer_factory.hpp:77] Creating layer lstm1_unit_1
I0924 02:36:20.887567 30851 net.cpp:91] Creating Layer lstm1_unit_1
I0924 02:36:20.887573 30851 net.cpp:425] lstm1_unit_1 <- c_0
I0924 02:36:20.887583 30851 net.cpp:425] lstm1_unit_1 <- gate_input_1
I0924 02:36:20.887589 30851 net.cpp:425] lstm1_unit_1 <- cont_1_lstm1_cont_slice_0_split_1
I0924 02:36:20.887598 30851 net.cpp:399] lstm1_unit_1 -> c_1
I0924 02:36:20.887610 30851 net.cpp:399] lstm1_unit_1 -> h_1
I0924 02:36:20.887636 30845 net.cpp:141] Setting up lstm1_
I0924 02:36:20.887667 30845 net.cpp:148] Top shape: 1 1 500 (500)
I0924 02:36:20.887679 30845 net.cpp:148] Top shape: 1 1 (1)
I0924 02:36:20.887687 30845 net.cpp:156] Memory required for data: 2004
I0924 02:36:20.887697 30845 layer_factory.hpp:77] Creating layer lstm1_
I0924 02:36:20.887714 30851 net.cpp:141] Setting up lstm1_unit_1
I0924 02:36:20.887722 30845 net.cpp:91] Creating Layer lstm1_
I0924 02:36:20.887748 30845 net.cpp:399] lstm1_ -> c_0
I0924 02:36:20.887770 30845 net.cpp:399] lstm1_ -> h_0
I0924 02:36:20.887725 30851 net.cpp:148] Top shape: 1 1 1000 (1000)
I0924 02:36:20.887850 30851 net.cpp:148] Top shape: 1 1 1000 (1000)
I0924 02:36:20.887861 30851 net.cpp:156] Memory required for data: 86016
I0924 02:36:20.887869 30851 layer_factory.hpp:77] Creating layer lstm1_
I0924 02:36:20.887884 30851 net.cpp:91] Creating Layer lstm1_
I0924 02:36:20.887892 30851 net.cpp:425] lstm1_ <- c_1
I0924 02:36:20.887909 30851 net.cpp:399] lstm1_ -> c_T
I0924 02:36:20.888146 30845 net.cpp:141] Setting up lstm1_
I0924 02:36:20.888165 30845 net.cpp:148] Top shape: 1 1 1000 (1000)
I0924 02:36:20.888175 30851 net.cpp:141] Setting up lstm1_
I0924 02:36:20.888177 30845 net.cpp:148] Top shape: 1 1 1000 (1000)
I0924 02:36:20.888200 30851 net.cpp:148] Top shape: 1 1 1000 (1000)
I0924 02:36:20.888200 30845 net.cpp:156] Memory required for data: 10004
I0924 02:36:20.888217 30851 net.cpp:156] Memory required for data: 90016
I0924 02:36:20.888221 30845 layer_factory.hpp:77] Creating layer lstm1_cont_slice
I0924 02:36:20.888226 30851 layer_factory.hpp:77] Creating layer lstm1_h_concat
I0924 02:36:20.888236 30845 net.cpp:91] Creating Layer lstm1_cont_slice
I0924 02:36:20.888240 30851 net.cpp:91] Creating Layer lstm1_h_concat
I0924 02:36:20.888244 30845 net.cpp:425] lstm1_cont_slice <- cont
I0924 02:36:20.888249 30851 net.cpp:425] lstm1_h_concat <- h_1
I0924 02:36:20.888255 30845 net.cpp:399] lstm1_cont_slice -> cont_1
I0924 02:36:20.888262 30851 net.cpp:399] lstm1_h_concat -> h
I0924 02:36:20.888317 30845 net.cpp:141] Setting up lstm1_cont_slice
I0924 02:36:20.888334 30845 net.cpp:148] Top shape: 1 1 (1)
I0924 02:36:20.888342 30845 net.cpp:156] Memory required for data: 10008
I0924 02:36:20.888351 30845 layer_factory.hpp:77] Creating layer cont_1_lstm1_cont_slice_0_split
I0924 02:36:20.888353 30851 net.cpp:141] Setting up lstm1_h_concat
I0924 02:36:20.888366 30851 net.cpp:148] Top shape: 1 1 1000 (1000)
I0924 02:36:20.888366 30845 net.cpp:91] Creating Layer cont_1_lstm1_cont_slice_0_split
I0924 02:36:20.888384 30851 net.cpp:156] Memory required for data: 94016
I0924 02:36:20.888391 30845 net.cpp:425] cont_1_lstm1_cont_slice_0_split <- cont_1
I0924 02:36:20.888393 30851 layer_factory.hpp:77] Creating layer h_pseudoloss
I0924 02:36:20.888402 30845 net.cpp:399] cont_1_lstm1_cont_slice_0_split -> cont_1_lstm1_cont_slice_0_split_0
…
I0924 02:36:20.888764 30851 net.cpp:219] lstm1_ does not need backward computation.
I0924 02:36:20.888772 30851 net.cpp:261] This network produces output c_T
I0924 02:36:20.888780 30851 net.cpp:261] This network produces output h_pseudoloss
I0924 02:36:20.888805 30851 net.cpp:274] Network initialization done.
I0924 02:36:20.888883 30851 recurrent_layer.cpp:150] Adding parameter 0: W_xc
I0924 02:36:20.888895 30851 recurrent_layer.cpp:150] Adding parameter 1: b_c
I0924 02:36:20.888902 30851 recurrent_layer.cpp:150] Adding parameter 2: W_hc
I0924 02:36:20.890396 30845 net.cpp:141] Setting up cont_1_lstm1_cont_slice_0_split
I0924 02:36:20.890416 30845 net.cpp:148] Top shape: 1 1 (1)
I0924 02:36:20.890426 30845 net.cpp:148] Top shape: 1 1 (1)
I0924 02:36:20.890434 30845 net.cpp:156] Memory required for data: 10016
I0924 02:36:20.890442 30845 layer_factory.hpp:77] Creating layer lstm1_x_transform
I0924 02:36:20.890465 30845 net.cpp:91] Creating Layer lstm1_x_transform
I0924 02:36:20.890475 30845 net.cpp:425] lstm1_x_transform <- x
I0924 02:36:20.890499 30845 net.cpp:399] lstm1_x_transform -> W_xc_x
I0924 02:36:20.896344 30851 net.cpp:141] Setting up lstm1
I0924 02:36:20.896394 30851 net.cpp:148] Top shape: 1 1 1000 (1000)
I0924 02:36:20.896404 30851 net.cpp:156] Memory required for data: 26408
I0924 02:36:20.896437 30851 layer_factory.hpp:77] Creating layer concat
I0924 02:36:20.896462 30851 net.cpp:91] Creating Layer concat
I0924 02:36:20.896473 30851 net.cpp:425] concat <- lstm1
I0924 02:36:20.896486 30851 net.cpp:425] concat <- embedded_input_sentence
I0924 02:36:20.896497 30851 net.cpp:425] concat <- reshaped_stage_indicator
I0924 02:36:20.896510 30851 net.cpp:399] concat -> lstm1_video_sequence
I0924 02:36:20.903506 30851 net.cpp:141] Setting up concat
I0924 02:36:20.903560 30851 net.cpp:148] Top shape: 1 1 1501 (1501)
I0924 02:36:20.903570 30851 net.cpp:156] Memory required for data: 32412
I0924 02:36:20.903584 30851 layer_factory.hpp:77] Creating layer lstm2
I0924 02:36:20.903619 30851 net.cpp:91] Creating Layer lstm2
I0924 02:36:20.903630 30851 net.cpp:425] lstm2 <- lstm1_video_sequence
I0924 02:36:20.903646 30851 net.cpp:425] lstm2 <- cont_sentence_input_1_split_1
I0924 02:36:20.903663 30851 net.cpp:399] lstm2 -> lstm2
I0924 02:36:20.903692 30851 recurrent_layer.cpp:20] Initializing recurrent layer: assuming input batch contains 1 timesteps of 1 independent streams.
I0924 02:36:20.904125 30851 net.cpp:49] Initializing net from parameters: 
layer {
  name: "lstm2_"
  type: "Input"
  top: "x"
  top: "cont"
  input_param {
    shape {
      dim: 1
      dim: 1
      dim: 1501
    }
    shape {
      dim: 1
      dim: 1
    }
  }
}
layer {
  name: "lstm2_"
  type: "Input"
  top: "c_0"
  top: "h_0"
  input_param {
    shape {
      dim: 1
      dim: 1
      dim: 1000
    }
    shape {
      dim: 1
      dim: 1
      dim: 1000
    }
  }
}
layer {
  name: "lstm2_cont_slice"
  type: "Slice"
  bottom: "cont"
  top: "cont_1"
  slice_param {
    axis: 0
  }
}
layer {
  name: "lstm2_x_transform"
  type: "InnerProduct"
  bottom: "x"
  top: "W_xc_x"
  param {
    name: "W_xc"
  }
  param {
    name: "b_c"
  }
  propagate_down: true
  inner_product_param {
    num_output: 4000
    bias_term: true
    weight_filler {
      type: "uniform"
      min: -0.08
      max: 0.08
    }
    bias_filler {
      type: "constant"
      value: 0
    }
    axis: 2
  }
}
layer {
  name: "lstm2_W_xc_x_slice"
  type: "Slice"
  bottom: "W_xc_x"
  top: "W_xc_x_1"
  slice_param {
    axis: 0
  }
}
layer {
  name: "lstm2_h_conted_0"
  type: "Scale"
  bottom: "h_0"
  bottom: "cont_1"
  top: "h_conted_0"
  scale_param {
    axis: 0
  }
}
layer {
  name: "lstm2_transform_1"
  type: "InnerProduct"
  bottom: "h_conted_0"
  top: "W_hc_h_0"
  param {
    name: "W_hc"
  }
  inner_product_param {
    num_output: 4000
    bias_term: false
    weight_filler {
      type: "uniform"
      min: -0.08
      max: 0.08
    }
    axis: 2
  }
}
layer {
  name: "lstm2_gate_input_1"
  type: "Eltwise"
  bottom: "W_hc_h_0"
  bottom: "W_xc_x_1"
  top: "gate_input_1"
  eltwise_param {
    operation: SUM
  }
}
layer {
  name: "lstm2_unit_1"
  type: "LSTMUnit"
  bottom: "c_0"
  bottom: "gate_input_1"
  bottom: "cont_1"
  top: "c_1"
  top: "h_1"
}
layer {
  name: "lstm2_"
  type: "Split"
  bottom: "c_1"
  top: "c_T"
}
layer {
  name: "lstm2_h_concat"
  type: "Concat"
  bottom: "h_1"
  top: "h"
  concat_param {
    axis: 0
  }
}
layer {
  name: "h_pseudoloss"
  type: "Reduction"
  bottom: "h"
  top: "h_pseudoloss"
  loss_weight: 1
}
I0924 02:36:20.904268 30851 layer_factory.hpp:77] Creating layer lstm2_
I0924 02:36:20.904285 30851 net.cpp:91] Creating Layer lstm2_
I0924 02:36:20.904296 30851 net.cpp:399] lstm2_ -> x
I0924 02:36:20.904315 30851 net.cpp:399] lstm2_ -> cont
I0924 02:36:20.912400 30845 net.cpp:141] Setting up lstm1_x_transform
I0924 02:36:20.912448 30845 net.cpp:148] Top shape: 1 1 4000 (4000)
I0924 02:36:20.912457 30845 net.cpp:156] Memory required for data: 26016
I0924 02:36:20.912482 30845 layer_factory.hpp:77] Creating layer lstm1_W_xc_x_slice
I0924 02:36:20.912503 30845 net.cpp:91] Creating Layer lstm1_W_xc_x_slice
I0924 02:36:20.912513 30845 net.cpp:425] lstm1_W_xc_x_slice <- W_xc_x
I0924 02:36:20.912538 30845 net.cpp:399] lstm1_W_xc_x_slice -> W_xc_x_1
I0924 02:36:20.919824 30845 net.cpp:141] Setting up lstm1_W_xc_x_slice
I0924 02:36:20.919857 30845 net.cpp:148] Top shape: 1 1 4000 (4000)
I0924 02:36:20.919864 30845 net.cpp:156] Memory required for data: 42016
I0924 02:36:20.919873 30845 layer_factory.hpp:77] Creating layer lstm1_h_conted_0
I0924 02:36:20.919889 30845 net.cpp:91] Creating Layer lstm1_h_conted_0
I0924 02:36:20.919898 30845 net.cpp:425] lstm1_h_conted_0 <- h_0
I0924 02:36:20.919909 30845 net.cpp:425] lstm1_h_conted_0 <- cont_1_lstm1_cont_slice_0_split_0
I0924 02:36:20.919921 30845 net.cpp:399] lstm1_h_conted_0 -> h_conted_0
I0924 02:36:20.919942 30831 net.cpp:141] Setting up lstm1_transform_1
I0924 02:36:20.919965 30851 net.cpp:141] Setting up lstm2_
I0924 02:36:20.919986 30831 net.cpp:148] Top shape: 1 1 4000 (4000)
I0924 02:36:20.919987 30851 net.cpp:148] Top shape: 1 1 1501 (1501)
I0924 02:36:20.919991 30831 net.cpp:156] Memory required for data: 62016
I0924 02:36:20.919996 30851 net.cpp:148] Top shape: 1 1 (1)
I0924 02:36:20.920001 30851 net.cpp:156] Memory required for data: 6008
I0924 02:36:20.920008 30851 layer_factory.hpp:77] Creating layer lstm2_
I0924 02:36:20.920009 30831 layer_factory.hpp:77] Creating layer lstm1_gate_input_1
I0924 02:36:20.920027 30831 net.cpp:91] Creating Layer lstm1_gate_input_1
I0924 02:36:20.920034 30831 net.cpp:425] lstm1_gate_input_1 <- W_hc_h_0
I0924 02:36:20.920040 30851 net.cpp:91] Creating Layer lstm2_
I0924 02:36:20.920042 30831 net.cpp:425] lstm1_gate_input_1 <- W_xc_x_1
I0924 02:36:20.920055 30851 net.cpp:399] lstm2_ -> c_0
I0924 02:36:20.920059 30831 net.cpp:399] lstm1_gate_input_1 -> gate_input_1
I0924 02:36:20.920071 30851 net.cpp:399] lstm2_ -> h_0
I0924 02:36:20.920121 30831 net.cpp:141] Setting up lstm1_gate_input_1
I0924 02:36:20.920131 30831 net.cpp:148] Top shape: 1 1 4000 (4000)
I0924 02:36:20.920136 30831 net.cpp:156] Memory required for data: 78016
I0924 02:36:20.920140 30831 layer_factory.hpp:77] Creating layer lstm1_unit_1
I0924 02:36:20.920150 30831 net.cpp:91] Creating Layer lstm1_unit_1
I0924 02:36:20.920155 30831 net.cpp:425] lstm1_unit_1 <- c_0
I0924 02:36:20.920159 30831 net.cpp:425] lstm1_unit_1 <- gate_input_1
I0924 02:36:20.920166 30831 net.cpp:425] lstm1_unit_1 <- cont_1_lstm1_cont_slice_0_split_1
I0924 02:36:20.920171 30831 net.cpp:399] lstm1_unit_1 -> c_1
I0924 02:36:20.920181 30831 net.cpp:399] lstm1_unit_1 -> h_1
I0924 02:36:20.920244 30845 net.cpp:141] Setting up lstm1_h_conted_0
I0924 02:36:20.920258 30845 net.cpp:148] Top shape: 1 1 1000 (1000)
I0924 02:36:20.920263 30845 net.cpp:156] Memory required for data: 46016
I0924 02:36:20.920269 30845 layer_factory.hpp:77] Creating layer lstm1_transform_1
I0924 02:36:20.920281 30845 net.cpp:91] Creating Layer lstm1_transform_1
I0924 02:36:20.920286 30845 net.cpp:425] lstm1_transform_1 <- h_conted_0
I0924 02:36:20.920300 30845 net.cpp:399] lstm1_transform_1 -> W_hc_h_0
I0924 02:36:20.920331 30827 net.cpp:141] Setting up lstm2_x_transform
I0924 02:36:20.920351 30827 net.cpp:148] Top shape: 1 1 4000 (4000)
I0924 02:36:20.920358 30827 net.cpp:156] Memory required for data: 30020
I0924 02:36:20.920375 30827 layer_factory.hpp:77] Creating layer lstm2_W_xc_x_slice
I0924 02:36:20.920392 30827 net.cpp:91] Creating Layer lstm2_W_xc_x_slice
I0924 02:36:20.920400 30827 net.cpp:425] lstm2_W_xc_x_slice <- W_xc_x
I0924 02:36:20.920399 30851 net.cpp:141] Setting up lstm2_
I0924 02:36:20.920418 30827 net.cpp:399] lstm2_W_xc_x_slice -> W_xc_x_1
I0924 02:36:20.920424 30851 net.cpp:148] Top shape: 1 1 1000 (1000)
I0924 02:36:20.920431 30851 net.cpp:148] Top shape: 1 1 1000 (1000)
I0924 02:36:20.920436 30851 net.cpp:156] Memory required for data: 14008
I0924 02:36:20.920441 30851 layer_factory.hpp:77] Creating layer lstm2_cont_slice
I0924 02:36:20.920452 30851 net.cpp:91] Creating Layer lstm2_cont_slice
I0924 02:36:20.920457 30851 net.cpp:425] lstm2_cont_slice <- cont
I0924 02:36:20.920465 30851 net.cpp:399] lstm2_cont_slice -> cont_1
I0924 02:36:20.920480 30827 net.cpp:141] Setting up lstm2_W_xc_x_slice
I0924 02:36:20.920495 30827 net.cpp:148] Top shape: 1 1 4000 (4000)
I0924 02:36:20.920500 30827 net.cpp:156] Memory required for data: 46020
I0924 02:36:20.920507 30827 layer_factory.hpp:77] Creating layer lstm2_h_conted_0
I0924 02:36:20.920522 30827 net.cpp:91] Creating Layer lstm2_h_conted_0
I0924 02:36:20.920531 30827 net.cpp:425] lstm2_h_conted_0 <- h_0
I0924 02:36:20.920539 30827 net.cpp:425] lstm2_h_conted_0 <- cont_1_lstm2_cont_slice_0_split_0
I0924 02:36:20.920549 30827 net.cpp:399] lstm2_h_conted_0 -> h_conted_0
I0924 02:36:20.920558 30831 net.cpp:141] Setting up lstm1_unit_1
I0924 02:36:20.920570 30831 net.cpp:148] Top shape: 1 1 1000 (1000)
I0924 02:36:20.920577 30831 net.cpp:148] Top shape: 1 1 1000 (1000)
I0924 02:36:20.920580 30831 net.cpp:156] Memory required for data: 86016
I0924 02:36:20.920585 30831 layer_factory.hpp:77] Creating layer lstm1_
I0924 02:36:20.920595 30831 net.cpp:91] Creating Layer lstm1_
I0924 02:36:20.920600 30831 net.cpp:425] lstm1_ <- c_1
I0924 02:36:20.920608 30831 net.cpp:399] lstm1_ -> c_T
I0924 02:36:20.928091 30851 net.cpp:141] Setting up lstm2_cont_slice
I0924 02:36:20.928109 30851 net.cpp:148] Top shape: 1 1 (1)
I0924 02:36:20.928114 30851 net.cpp:156] Memory required for data: 14012
I0924 02:36:20.928119 30851 layer_factory.hpp:77] Creating layer cont_1_lstm2_cont_slice_0_split
I0924 02:36:20.928138 30851 net.cpp:91] Creating Layer cont_1_lstm2_cont_slice_0_split
I0924 02:36:20.928144 30851 net.cpp:425] cont_1_lstm2_cont_slice_0_split <- cont_1
I0924 02:36:20.928153 30851 net.cpp:399] cont_1_lstm2_cont_slice_0_split -> cont_1_lstm2_cont_slice_0_split_0
I0924 02:36:20.928164 30851 net.cpp:399] cont_1_lstm2_cont_slice_0_split -> cont_1_lstm2_cont_slice_0_split_1
I0924 02:36:20.928223 30851 net.cpp:141] Setting up cont_1_lstm2_cont_slice_0_split
I0924 02:36:20.928232 30851 net.cpp:148] Top shape: 1 1 (1)
I0924 02:36:20.928238 30851 net.cpp:148] Top shape: 1 1 (1)
I0924 02:36:20.928242 30851 net.cpp:156] Memory required for data: 14020
I0924 02:36:20.928247 30851 layer_factory.hpp:77] Creating layer lstm2_x_transform
I0924 02:36:20.928264 30851 net.cpp:91] Creating Layer lstm2_x_transform
I0924 02:36:20.928269 30851 net.cpp:425] lstm2_x_transform <- x
I0924 02:36:20.928277 30851 net.cpp:399] lstm2_x_transform -> W_xc_x
I0924 02:36:20.939185 30831 net.cpp:141] Setting up lstm1_
I0924 02:36:20.939260 30831 net.cpp:148] Top shape: 1 1 1000 (1000)
I0924 02:36:20.939278 30831 net.cpp:156] Memory required for data: 90016
I0924 02:36:20.939297 30831 layer_factory.hpp:77] Creating layer lstm1_h_concat
I0924 02:36:20.939332 30831 net.cpp:91] Creating Layer lstm1_h_concat
I0924 02:36:20.939350 30831 net.cpp:425] lstm1_h_concat <- h_1
I0924 02:36:20.939388 30827 net.cpp:141] Setting up lstm2_h_conted_0
I0924 02:36:20.939388 30831 net.cpp:399] lstm1_h_concat -> h
I0924 02:36:20.939422 30827 net.cpp:148] Top shape: 1 1 1000 (1000)
I0924 02:36:20.939431 30827 net.cpp:156] Memory required for data: 50020
I0924 02:36:20.939440 30827 layer_factory.hpp:77] Creating layer lstm2_transform_1
I0924 02:36:20.939466 30827 net.cpp:91] Creating Layer lstm2_transform_1
I0924 02:36:20.939478 30827 net.cpp:425] lstm2_transform_1 <- h_conted_0
I0924 02:36:20.939493 30827 net.cpp:399] lstm2_transform_1 -> W_hc_h_0
I0924 02:36:20.939532 30831 net.cpp:141] Setting up lstm1_h_concat
I0924 02:36:20.939558 30831 net.cpp:148] Top shape: 1 1 1000 (1000)
I0924 02:36:20.939571 30831 net.cpp:156] Memory required for data: 94016
I0924 02:36:20.939587 30831 layer_factory.hpp:77] Creating layer h_pseudoloss
I0924 02:36:20.939610 30831 net.cpp:91] Creating Layer h_pseudoloss
I0924 02:36:20.939625 30831 net.cpp:425] h_pseudoloss <- h
I0924 02:36:20.939645 30831 net.cpp:399] h_pseudoloss -> h_pseudoloss
I0924 02:36:20.950033 30831 net.cpp:141] Setting up h_pseudoloss
…
I0924 02:36:20.950196 30831 net.cpp:219] lstm1_ does not need backward computation.
I0924 02:36:20.950199 30831 net.cpp:261] This network produces output c_T
I0924 02:36:20.950206 30831 net.cpp:261] This network produces output h_pseudoloss
I0924 02:36:20.950222 30831 net.cpp:274] Network initialization done.
I0924 02:36:20.950278 30831 recurrent_layer.cpp:150] Adding parameter 0: W_xc
I0924 02:36:20.950286 30831 recurrent_layer.cpp:150] Adding parameter 1: b_c
I0924 02:36:20.950291 30831 recurrent_layer.cpp:150] Adding parameter 2: W_hc
I0924 02:36:20.951994 30831 net.cpp:141] Setting up lstm1
I0924 02:36:20.952042 30831 net.cpp:148] Top shape: 1 1 1000 (1000)
I0924 02:36:20.952055 30831 net.cpp:156] Memory required for data: 26408
I0924 02:36:20.952090 30831 layer_factory.hpp:77] Creating layer concat
I0924 02:36:20.952118 30831 net.cpp:91] Creating Layer concat
I0924 02:36:20.952132 30831 net.cpp:425] concat <- lstm1
I0924 02:36:20.952147 30831 net.cpp:425] concat <- embedded_input_sentence
I0924 02:36:20.952158 30831 net.cpp:425] concat <- reshaped_stage_indicator
I0924 02:36:20.952173 30831 net.cpp:399] concat -> lstm1_video_sequence
I0924 02:36:20.952358 30831 net.cpp:141] Setting up concat
I0924 02:36:20.952376 30831 net.cpp:148] Top shape: 1 1 1501 (1501)
I0924 02:36:20.952385 30831 net.cpp:156] Memory required for data: 32412
I0924 02:36:20.952395 30831 layer_factory.hpp:77] Creating layer lstm2
I0924 02:36:20.952419 30831 net.cpp:91] Creating Layer lstm2
I0924 02:36:20.952431 30831 net.cpp:425] lstm2 <- lstm1_video_sequence
I0924 02:36:20.952443 30831 net.cpp:425] lstm2 <- cont_sentence_input_1_split_1
I0924 02:36:20.952460 30831 net.cpp:399] lstm2 -> lstm2
I0924 02:36:20.952481 30831 recurrent_layer.cpp:20] Initializing recurrent layer: assuming input batch contains 1 timesteps of 1 independent streams.
I0924 02:36:20.952924 30831 net.cpp:49] Initializing net from parameters: 
layer {
  name: "lstm2_"
  type: "Input"
  top: "x"
  top: "cont"
  input_param {
    shape {
      dim: 1
      dim: 1
      dim: 1501
    }
    shape {
      dim: 1
      dim: 1
    }
  }
}
layer {
  name: "lstm2_"
  type: "Input"
  top: "c_0"
  top: "h_0"
  input_param {
    shape {
      dim: 1
      dim: 1
      dim: 1000
    }
    shape {
      dim: 1
      dim: 1
      dim: 1000
    }
  }
}
layer {
  name: "lstm2_cont_slice"
  type: "Slice"
  bottom: "cont"
  top: "cont_1"
  slice_param {
    axis: 0
  }
}
layer {
  name: "lstm2_x_transform"
  type: "InnerProduct"
  bottom: "x"
  top: "W_xc_x"
  param {
    name: "W_xc"
  }
  param {
    name: "b_c"
  }
  propagate_down: true
  inner_product_param {
    num_output: 4000
    bias_term: true
    weight_filler {
      type: "uniform"
      min: -0.08
      max: 0.08
    }
    bias_filler {
      type: "constant"
      value: 0
    }
    axis: 2
  }
}
layer {
  name: "lstm2_W_xc_x_slice"
  type: "Slice"
  bottom: "W_xc_x"
  top: "W_xc_x_1"
  slice_param {
    axis: 0
  }
}
layer {
  name: "lstm2_h_conted_0"
  type: "Scale"
  bottom: "h_0"
  bottom: "cont_1"
  top: "h_conted_0"
  scale_param {
    axis: 0
  }
}
layer {
  name: "lstm2_transform_1"
  type: "InnerProduct"
  bottom: "h_conted_0"
  top: "W_hc_h_0"
  param {
    name: "W_hc"
  }
  inner_product_param {
    num_output: 4000
    bias_term: false
    weight_filler {
      type: "uniform"
      min: -0.08
      max: 0.08
    }
    axis: 2
  }
}
layer {
  name: "lstm2_gate_input_1"
  type: "Eltwise"
  bottom: "W_hc_h_0"
  bottom: "W_xc_x_1"
  top: "gate_input_1"
  eltwise_param {
    operation: SUM
  }
}
layer {
  name: "lstm2_unit_1"
  type: "LSTMUnit"
  bottom: "c_0"
  bottom: "gate_input_1"
  bottom: "cont_1"
  top: "c_1"
  top: "h_1"
}
layer {
  name: "lstm2_"
  type: "Split"
  bottom: "c_1"
  top: "c_T"
}
layer {
  name: "lstm2_h_concat"
  type: "Concat"
  bottom: "h_1"
  top: "h"
  concat_param {
    axis: 0
  }
}
layer {
  name: "h_pseudoloss"
  type: "Reduction"
  bottom: "h"
  top: "h_pseudoloss"
  loss_weight: 1
}
I0924 02:36:20.953081 30831 layer_factory.hpp:77] Creating layer lstm2_
I0924 02:36:20.953104 30831 net.cpp:91] Creating Layer lstm2_
I0924 02:36:20.953119 30831 net.cpp:399] lstm2_ -> x
I0924 02:36:20.953140 30831 net.cpp:399] lstm2_ -> cont
I0924 02:36:20.954102 30831 net.cpp:141] Setting up lstm2_
I0924 02:36:20.954115 30831 net.cpp:148] Top shape: 1 1 1501 (1501)
I0924 02:36:20.954123 30831 net.cpp:148] Top shape: 1 1 (1)
I0924 02:36:20.954126 30831 net.cpp:156] Memory required for data: 6008
I0924 02:36:20.954131 30831 layer_factory.hpp:77] Creating layer lstm2_
I0924 02:36:20.954143 30831 net.cpp:91] Creating Layer lstm2_
I0924 02:36:20.954151 30831 net.cpp:399] lstm2_ -> c_0
I0924 02:36:20.954162 30831 net.cpp:399] lstm2_ -> h_0
I0924 02:36:20.955350 30831 net.cpp:141] Setting up lstm2_
I0924 02:36:20.955377 30831 net.cpp:148] Top shape: 1 1 1000 (1000)
I0924 02:36:20.955391 30831 net.cpp:148] Top shape: 1 1 1000 (1000)
I0924 02:36:20.955400 30831 net.cpp:156] Memory required for data: 14008
I0924 02:36:20.955410 30831 layer_factory.hpp:77] Creating layer lstm2_cont_slice
I0924 02:36:20.955427 30831 net.cpp:91] Creating Layer lstm2_cont_slice
I0924 02:36:20.955440 30831 net.cpp:425] lstm2_cont_slice <- cont
I0924 02:36:20.955456 30831 net.cpp:399] lstm2_cont_slice -> cont_1
I0924 02:36:20.955526 30831 net.cpp:141] Setting up lstm2_cont_slice
I0924 02:36:20.955549 30831 net.cpp:148] Top shape: 1 1 (1)
I0924 02:36:20.955556 30831 net.cpp:156] Memory required for data: 14012
I0924 02:36:20.955565 30831 layer_factory.hpp:77] Creating layer cont_1_lstm2_cont_slice_0_split
I0924 02:36:20.955580 30831 net.cpp:91] Creating Layer cont_1_lstm2_cont_slice_0_split
I0924 02:36:20.955591 30831 net.cpp:425] cont_1_lstm2_cont_slice_0_split <- cont_1
I0924 02:36:20.955605 30831 net.cpp:399] cont_1_lstm2_cont_slice_0_split -> cont_1_lstm2_cont_slice_0_split_0
I0924 02:36:20.955622 30831 net.cpp:399] cont_1_lstm2_cont_slice_0_split -> cont_1_lstm2_cont_slice_0_split_1
I0924 02:36:20.955716 30831 net.cpp:141] Setting up cont_1_lstm2_cont_slice_0_split
I0924 02:36:20.955734 30831 net.cpp:148] Top shape: 1 1 (1)
I0924 02:36:20.955745 30831 net.cpp:148] Top shape: 1 1 (1)
I0924 02:36:20.955754 30831 net.cpp:156] Memory required for data: 14020
I0924 02:36:20.955763 30831 layer_factory.hpp:77] Creating layer lstm2_x_transform
I0924 02:36:20.955790 30831 net.cpp:91] Creating Layer lstm2_x_transform
I0924 02:36:20.955801 30831 net.cpp:425] lstm2_x_transform <- x
I0924 02:36:20.955814 30831 net.cpp:399] lstm2_x_transform -> W_xc_x
I0924 02:36:20.977011 30845 net.cpp:141] Setting up lstm1_transform_1
I0924 02:36:20.977067 30845 net.cpp:148] Top shape: 1 1 4000 (4000)
I0924 02:36:20.977077 30845 net.cpp:156] Memory required for data: 62016
I0924 02:36:20.977104 30845 layer_factory.hpp:77] Creating layer lstm1_gate_input_1
I0924 02:36:20.977141 30845 net.cpp:91] Creating Layer lstm1_gate_input_1
I0924 02:36:20.977154 30845 net.cpp:425] lstm1_gate_input_1 <- W_hc_h_0
I0924 02:36:20.977165 30845 net.cpp:425] lstm1_gate_input_1 <- W_xc_x_1
I0924 02:36:20.977179 30845 net.cpp:399] lstm1_gate_input_1 -> gate_input_1
I0924 02:36:20.981670 30845 net.cpp:141] Setting up lstm1_gate_input_1
I0924 02:36:20.981716 30845 net.cpp:148] Top shape: 1 1 4000 (4000)
I0924 02:36:20.981726 30845 net.cpp:156] Memory required for data: 78016
I0924 02:36:20.981737 30845 layer_factory.hpp:77] Creating layer lstm1_unit_1
I0924 02:36:20.981756 30845 net.cpp:91] Creating Layer lstm1_unit_1
I0924 02:36:20.981766 30845 net.cpp:425] lstm1_unit_1 <- c_0
I0924 02:36:20.981780 30845 net.cpp:425] lstm1_unit_1 <- gate_input_1
I0924 02:36:20.981788 30845 net.cpp:425] lstm1_unit_1 <- cont_1_lstm1_cont_slice_0_split_1
I0924 02:36:20.981807 30845 net.cpp:399] lstm1_unit_1 -> c_1
I0924 02:36:20.981827 30845 net.cpp:399] lstm1_unit_1 -> h_1
I0924 02:36:20.981956 30845 net.cpp:141] Setting up lstm1_unit_1
I0924 02:36:20.981972 30845 net.cpp:148] Top shape: 1 1 1000 (1000)
I0924 02:36:20.981981 30845 net.cpp:148] Top shape: 1 1 1000 (1000)
I0924 02:36:20.981988 30845 net.cpp:156] Memory required for data: 86016
I0924 02:36:20.981997 30845 layer_factory.hpp:77] Creating layer lstm1_
I0924 02:36:20.982012 30845 net.cpp:91] Creating Layer lstm1_
I0924 02:36:20.982019 30845 net.cpp:425] lstm1_ <- c_1
I0924 02:36:20.982030 30845 net.cpp:399] lstm1_ -> c_T
I0924 02:36:20.989750 30845 net.cpp:141] Setting up lstm1_
I0924 02:36:20.989806 30845 net.cpp:148] Top shape: 1 1 1000 (1000)
I0924 02:36:20.989817 30845 net.cpp:156] Memory required for data: 90016
I0924 02:36:20.989830 30845 layer_factory.hpp:77] Creating layer lstm1_h_concat
I0924 02:36:20.989852 30845 net.cpp:91] Creating Layer lstm1_h_concat
I0924 02:36:20.989868 30845 net.cpp:425] lstm1_h_concat <- h_1
I0924 02:36:20.989884 30845 net.cpp:399] lstm1_h_concat -> h
I0924 02:36:20.995172 30845 net.cpp:141] Setting up lstm1_h_concat
I0924 02:36:20.995208 30827 net.cpp:141] Setting up lstm2_transform_1
I0924 02:36:20.995218 30845 net.cpp:148] Top shape: 1 1 1000 (1000)
I0924 02:36:20.995229 30827 net.cpp:148] Top shape: 1 1 4000 (4000)
I0924 02:36:20.995228 30845 net.cpp:156] Memory required for data: 94016
I0924 02:36:20.995239 30827 net.cpp:156] Memory required for data: 66020
I0924 02:36:20.995254 30845 layer_factory.hpp:77] Creating layer h_pseudoloss
I0924 02:36:20.995266 30827 layer_factory.hpp:77] Creating layer lstm2_gate_input_1
I0924 02:36:20.995282 30845 net.cpp:91] Creating Layer h_pseudoloss
I0924 02:36:20.995286 30827 net.cpp:91] Creating Layer lstm2_gate_input_1
I0924 02:36:20.995295 30827 net.cpp:425] lstm2_gate_input_1 <- W_hc_h_0
I0924 02:36:20.995295 30845 net.cpp:425] h_pseudoloss <- h
I0924 02:36:20.995302 30827 net.cpp:425] lstm2_gate_input_1 <- W_xc_x_1
I0924 02:36:20.995311 30827 net.cpp:399] lstm2_gate_input_1 -> gate_input_1
I0924 02:36:20.995308 30845 net.cpp:399] h_pseudoloss -> h_pseudoloss
I0924 02:36:20.997061 30845 net.cpp:141] Setting up h_pseudoloss
I0924 02:36:20.997082 30845 net.cpp:148] Top shape: (1)
I0924 02:36:20.997093 30827 net.cpp:141] Setting up lstm2_gate_input_1
I0924 02:36:20.997092 30845 net.cpp:151]     with loss weight 1
I0924 02:36:20.997112 30827 net.cpp:148] Top shape: 1 1 4000 (4000)
I0924 02:36:20.997117 30827 net.cpp:156] Memory required for data: 82020
I0924 02:36:20.997115 30845 net.cpp:156] Memory required for data: 94020
I0924 02:36:20.997128 30827 layer_factory.hpp:77] Creating layer lstm2_unit_1
I0924 02:36:20.997139 30845 net.cpp:217] h_pseudoloss needs backward computation.
I0924 02:36:20.997148 30845 net.cpp:217] lstm1_h_concat needs backward computation.
…
I0924 02:36:20.997254 30845 net.cpp:219] lstm1_ does not need backward computation.
I0924 02:36:20.997262 30845 net.cpp:261] This network produces output c_T
I0924 02:36:20.997269 30845 net.cpp:261] This network produces output h_pseudoloss
I0924 02:36:20.997298 30845 net.cpp:274] Network initialization done.
I0924 02:36:20.997378 30845 recurrent_layer.cpp:150] Adding parameter 0: W_xc
I0924 02:36:20.997392 30845 recurrent_layer.cpp:150] Adding parameter 1: b_c
I0924 02:36:20.997401 30845 recurrent_layer.cpp:150] Adding parameter 2: W_hc
I0924 02:36:21.002107 30827 net.cpp:141] Setting up lstm2_unit_1
I0924 02:36:21.002143 30827 net.cpp:148] Top shape: 1 1 1000 (1000)
I0924 02:36:21.002151 30827 net.cpp:148] Top shape: 1 1 1000 (1000)
I0924 02:36:21.002156 30827 net.cpp:156] Memory required for data: 90020
I0924 02:36:21.002154 30845 net.cpp:141] Setting up lstm1
I0924 02:36:21.002163 30827 layer_factory.hpp:77] Creating layer lstm2_
I0924 02:36:21.002185 30845 net.cpp:148] Top shape: 1 1 1000 (1000)
I0924 02:36:21.002192 30827 net.cpp:91] Creating Layer lstm2_
I0924 02:36:21.002195 30845 net.cpp:156] Memory required for data: 26408
I0924 02:36:21.002199 30827 net.cpp:425] lstm2_ <- c_1
I0924 02:36:21.002213 30827 net.cpp:399] lstm2_ -> c_T
I0924 02:36:21.002219 30845 layer_factory.hpp:77] Creating layer concat
I0924 02:36:21.002236 30845 net.cpp:91] Creating Layer concat
I0924 02:36:21.002248 30845 net.cpp:425] concat <- lstm1
I0924 02:36:21.002259 30845 net.cpp:425] concat <- embedded_input_sentence
I0924 02:36:21.002269 30845 net.cpp:425] concat <- reshaped_stage_indicator
I0924 02:36:21.002280 30845 net.cpp:399] concat -> lstm1_video_sequence
I0924 02:36:21.002444 30827 net.cpp:141] Setting up lstm2_
I0924 02:36:21.002454 30827 net.cpp:148] Top shape: 1 1 1000 (1000)
I0924 02:36:21.002460 30827 net.cpp:156] Memory required for data: 94020
I0924 02:36:21.002463 30827 layer_factory.hpp:77] Creating layer lstm2_h_concat
I0924 02:36:21.002472 30827 net.cpp:91] Creating Layer lstm2_h_concat
I0924 02:36:21.002477 30827 net.cpp:425] lstm2_h_concat <- h_1
I0924 02:36:21.002487 30827 net.cpp:399] lstm2_h_concat -> h
I0924 02:36:21.002491 30845 net.cpp:141] Setting up concat
I0924 02:36:21.002507 30845 net.cpp:148] Top shape: 1 1 1501 (1501)
I0924 02:36:21.002516 30845 net.cpp:156] Memory required for data: 32412
I0924 02:36:21.002523 30845 layer_factory.hpp:77] Creating layer lstm2
I0924 02:36:21.002543 30845 net.cpp:91] Creating Layer lstm2
I0924 02:36:21.002552 30845 net.cpp:425] lstm2 <- lstm1_video_sequence
I0924 02:36:21.002562 30845 net.cpp:425] lstm2 <- cont_sentence_input_1_split_1
I0924 02:36:21.002575 30845 net.cpp:399] lstm2 -> lstm2
I0924 02:36:21.002593 30845 recurrent_layer.cpp:20] Initializing recurrent layer: assuming input batch contains 1 timesteps of 1 independent streams.
I0924 02:36:21.002996 30845 net.cpp:49] Initializing net from parameters: 
layer {
  name: "lstm2_"
  type: "Input"
  top: "x"
  top: "cont"
  input_param {
    shape {
      dim: 1
      dim: 1
      dim: 1501
    }
    shape {
      dim: 1
      dim: 1
    }
  }
}
layer {
  name: "lstm2_"
  type: "Input"
  top: "c_0"
  top: "h_0"
  input_param {
    shape {
      dim: 1
      dim: 1
      dim: 1000
    }
    shape {
      dim: 1
      dim: 1
      dim: 1000
    }
  }
}
layer {
  name: "lstm2_cont_slice"
  type: "Slice"
  bottom: "cont"
  top: "cont_1"
  slice_param {
    axis: 0
  }
}
layer {
  name: "lstm2_x_transform"
  type: "InnerProduct"
  bottom: "x"
  top: "W_xc_x"
  param {
    name: "W_xc"
  }
  param {
    name: "b_c"
  }
  propagate_down: true
  inner_product_param {
    num_output: 4000
    bias_term: true
    weight_filler {
      type: "uniform"
      min: -0.08
      max: 0.08
    }
    bias_filler {
      type: "constant"
      value: 0
    }
    axis: 2
  }
}
layer {
  name: "lstm2_W_xc_x_slice"
  type: "Slice"
  bottom: "W_xc_x"
  top: "W_xc_x_1"
  slice_param {
    axis: 0
  }
}
layer {
  name: "lstm2_h_conted_0"
  type: "Scale"
  bottom: "h_0"
  bottom: "cont_1"
  top: "h_conted_0"
  scale_param {
    axis: 0
  }
}
layer {
  name: "lstm2_transform_1"
  type: "InnerProduct"
  bottom: "h_conted_0"
  top: "W_hc_h_0"
  param {
    name: "W_hc"
  }
  inner_product_param {
    num_output: 4000
    bias_term: false
    weight_filler {
      type: "uniform"
      min: -0.08
      max: 0.08
    }
    axis: 2
  }
}
layer {
  name: "lstm2_gate_input_1"
  type: "Eltwise"
  bottom: "W_hc_h_0"
  bottom: "W_xc_x_1"
  top: "gate_input_1"
  eltwise_param {
    operation: SUM
  }
}
layer {
  name: "lstm2_unit_1"
  type: "LSTMUnit"
  bottom: "c_0"
  bottom: "gate_input_1"
  bottom: "cont_1"
  top: "c_1"
  top: "h_1"
}
layer {
  name: "lstm2_"
  type: "Split"
  bottom: "c_1"
  top: "c_T"
}
layer {
  name: "lstm2_h_concat"
  type: "Concat"
  bottom: "h_1"
  top: "h"
  concat_param {
    axis: 0
  }
}
layer {
  name: "h_pseudoloss"
  type: "Reduction"
  bottom: "h"
  top: "h_pseudoloss"
  loss_weight: 1
}
I0924 02:36:21.003137 30845 layer_factory.hpp:77] Creating layer lstm2_
I0924 02:36:21.003156 30845 net.cpp:91] Creating Layer lstm2_
I0924 02:36:21.003166 30845 net.cpp:399] lstm2_ -> x
I0924 02:36:21.003183 30845 net.cpp:399] lstm2_ -> cont
I0924 02:36:21.004267 30827 net.cpp:141] Setting up lstm2_h_concat
I0924 02:36:21.004287 30827 net.cpp:148] Top shape: 1 1 1000 (1000)
I0924 02:36:21.004292 30827 net.cpp:156] Memory required for data: 98020
I0924 02:36:21.004297 30827 layer_factory.hpp:77] Creating layer h_pseudoloss
I0924 02:36:21.004308 30827 net.cpp:91] Creating Layer h_pseudoloss
I0924 02:36:21.004313 30827 net.cpp:425] h_pseudoloss <- h
I0924 02:36:21.004323 30827 net.cpp:399] h_pseudoloss -> h_pseudoloss
I0924 02:36:21.004345 30845 net.cpp:141] Setting up lstm2_
I0924 02:36:21.004362 30845 net.cpp:148] Top shape: 1 1 1501 (1501)
I0924 02:36:21.004374 30845 net.cpp:148] Top shape: 1 1 (1)
I0924 02:36:21.004380 30845 net.cpp:156] Memory required for data: 6008
I0924 02:36:21.004389 30845 layer_factory.hpp:77] Creating layer lstm2_
I0924 02:36:21.004403 30845 net.cpp:91] Creating Layer lstm2_
I0924 02:36:21.004422 30845 net.cpp:399] lstm2_ -> c_0
I0924 02:36:21.004436 30827 net.cpp:141] Setting up h_pseudoloss
I0924 02:36:21.004441 30845 net.cpp:399] lstm2_ -> h_0
I0924 02:36:21.004448 30827 net.cpp:148] Top shape: (1)
…
I0924 02:36:21.004533 30827 net.cpp:219] lstm2_ does not need backward computation.
I0924 02:36:21.004535 30827 net.cpp:261] This network produces output c_T
I0924 02:36:21.004540 30827 net.cpp:261] This network produces output h_pseudoloss
I0924 02:36:21.004554 30827 net.cpp:274] Network initialization done.
I0924 02:36:21.004600 30827 recurrent_layer.cpp:150] Adding parameter 0: W_xc
I0924 02:36:21.004606 30827 recurrent_layer.cpp:150] Adding parameter 1: b_c
I0924 02:36:21.004611 30827 recurrent_layer.cpp:150] Adding parameter 2: W_hc
I0924 02:36:21.005551 30845 net.cpp:141] Setting up lstm2_
I0924 02:36:21.005570 30845 net.cpp:148] Top shape: 1 1 1000 (1000)
I0924 02:36:21.005580 30845 net.cpp:148] Top shape: 1 1 1000 (1000)
I0924 02:36:21.005589 30845 net.cpp:156] Memory required for data: 14008
I0924 02:36:21.005595 30845 layer_factory.hpp:77] Creating layer lstm2_cont_slice
I0924 02:36:21.005636 30845 net.cpp:91] Creating Layer lstm2_cont_slice
I0924 02:36:21.005647 30845 net.cpp:425] lstm2_cont_slice <- cont
I0924 02:36:21.005661 30845 net.cpp:399] lstm2_cont_slice -> cont_1
I0924 02:36:21.011015 30827 net.cpp:141] Setting up lstm2
I0924 02:36:21.011066 30827 net.cpp:148] Top shape: 1 1 1000 (1000)
I0924 02:36:21.011076 30827 net.cpp:156] Memory required for data: 36412
I0924 02:36:21.011106 30827 layer_factory.hpp:77] Creating layer predict
I0924 02:36:21.011127 30827 net.cpp:91] Creating Layer predict
I0924 02:36:21.011138 30827 net.cpp:425] predict <- lstm2
I0924 02:36:21.011153 30827 net.cpp:399] predict -> predict
I0924 02:36:21.011185 30845 net.cpp:141] Setting up lstm2_cont_slice
I0924 02:36:21.011207 30845 net.cpp:148] Top shape: 1 1 (1)
I0924 02:36:21.011215 30845 net.cpp:156] Memory required for data: 14012
I0924 02:36:21.011224 30845 layer_factory.hpp:77] Creating layer cont_1_lstm2_cont_slice_0_split
I0924 02:36:21.011239 30845 net.cpp:91] Creating Layer cont_1_lstm2_cont_slice_0_split
I0924 02:36:21.011248 30845 net.cpp:425] cont_1_lstm2_cont_slice_0_split <- cont_1
I0924 02:36:21.011268 30845 net.cpp:399] cont_1_lstm2_cont_slice_0_split -> cont_1_lstm2_cont_slice_0_split_0
I0924 02:36:21.011284 30845 net.cpp:399] cont_1_lstm2_cont_slice_0_split -> cont_1_lstm2_cont_slice_0_split_1
I0924 02:36:21.092097 30845 net.cpp:141] Setting up cont_1_lstm2_cont_slice_0_split
I0924 02:36:21.092160 30845 net.cpp:148] Top shape: 1 1 (1)
I0924 02:36:21.092171 30845 net.cpp:148] Top shape: 1 1 (1)
I0924 02:36:21.092178 30845 net.cpp:156] Memory required for data: 14020
I0924 02:36:21.092190 30845 layer_factory.hpp:77] Creating layer lstm2_x_transform
I0924 02:36:21.092226 30845 net.cpp:91] Creating Layer lstm2_x_transform
I0924 02:36:21.092236 30845 net.cpp:425] lstm2_x_transform <- x
I0924 02:36:21.092252 30845 net.cpp:399] lstm2_x_transform -> W_xc_x
I0924 02:36:21.104944 30851 net.cpp:141] Setting up lstm2_x_transform
I0924 02:36:21.105000 30851 net.cpp:148] Top shape: 1 1 4000 (4000)
I0924 02:36:21.105010 30851 net.cpp:156] Memory required for data: 30020
I0924 02:36:21.105008 30831 net.cpp:141] Setting up lstm2_x_transform
I0924 02:36:21.105032 30831 net.cpp:148] Top shape: 1 1 4000 (4000)
I0924 02:36:21.105041 30851 layer_factory.hpp:77] Creating layer lstm2_W_xc_x_slice
I0924 02:36:21.105042 30831 net.cpp:156] Memory required for data: 30020
I0924 02:36:21.105072 30851 net.cpp:91] Creating Layer lstm2_W_xc_x_slice
I0924 02:36:21.105072 30831 layer_factory.hpp:77] Creating layer lstm2_W_xc_x_slice
I0924 02:36:21.105089 30851 net.cpp:425] lstm2_W_xc_x_slice <- W_xc_x
I0924 02:36:21.105099 30831 net.cpp:91] Creating Layer lstm2_W_xc_x_slice
I0924 02:36:21.105105 30851 net.cpp:399] lstm2_W_xc_x_slice -> W_xc_x_1
I0924 02:36:21.105111 30831 net.cpp:425] lstm2_W_xc_x_slice <- W_xc_x
I0924 02:36:21.105132 30831 net.cpp:399] lstm2_W_xc_x_slice -> W_xc_x_1
I0924 02:36:21.105183 30851 net.cpp:141] Setting up lstm2_W_xc_x_slice
I0924 02:36:21.105200 30851 net.cpp:148] Top shape: 1 1 4000 (4000)
I0924 02:36:21.105206 30851 net.cpp:156] Memory required for data: 46020
I0924 02:36:21.105213 30851 layer_factory.hpp:77] Creating layer lstm2_h_conted_0
I0924 02:36:21.105217 30831 net.cpp:141] Setting up lstm2_W_xc_x_slice
I0924 02:36:21.105229 30851 net.cpp:91] Creating Layer lstm2_h_conted_0
I0924 02:36:21.105235 30831 net.cpp:148] Top shape: 1 1 4000 (4000)
I0924 02:36:21.105239 30851 net.cpp:425] lstm2_h_conted_0 <- h_0
I0924 02:36:21.105244 30831 net.cpp:156] Memory required for data: 46020
I0924 02:36:21.105249 30851 net.cpp:425] lstm2_h_conted_0 <- cont_1_lstm2_cont_slice_0_split_0
I0924 02:36:21.105254 30831 layer_factory.hpp:77] Creating layer lstm2_h_conted_0
I0924 02:36:21.105262 30851 net.cpp:399] lstm2_h_conted_0 -> h_conted_0
I0924 02:36:21.105268 30831 net.cpp:91] Creating Layer lstm2_h_conted_0
I0924 02:36:21.105278 30831 net.cpp:425] lstm2_h_conted_0 <- h_0
I0924 02:36:21.105289 30831 net.cpp:425] lstm2_h_conted_0 <- cont_1_lstm2_cont_slice_0_split_0
I0924 02:36:21.105304 30831 net.cpp:399] lstm2_h_conted_0 -> h_conted_0
I0924 02:36:21.105520 30851 net.cpp:141] Setting up lstm2_h_conted_0
I0924 02:36:21.105535 30851 net.cpp:148] Top shape: 1 1 1000 (1000)
I0924 02:36:21.105542 30851 net.cpp:156] Memory required for data: 50020
I0924 02:36:21.105550 30851 layer_factory.hpp:77] Creating layer lstm2_transform_1
I0924 02:36:21.105567 30851 net.cpp:91] Creating Layer lstm2_transform_1
I0924 02:36:21.105576 30851 net.cpp:425] lstm2_transform_1 <- h_conted_0
I0924 02:36:21.105587 30851 net.cpp:399] lstm2_transform_1 -> W_hc_h_0
I0924 02:36:21.105587 30831 net.cpp:141] Setting up lstm2_h_conted_0
I0924 02:36:21.105612 30831 net.cpp:148] Top shape: 1 1 1000 (1000)
I0924 02:36:21.105621 30831 net.cpp:156] Memory required for data: 50020
I0924 02:36:21.105631 30831 layer_factory.hpp:77] Creating layer lstm2_transform_1
I0924 02:36:21.105644 30831 net.cpp:91] Creating Layer lstm2_transform_1
I0924 02:36:21.105649 30831 net.cpp:425] lstm2_transform_1 <- h_conted_0
I0924 02:36:21.105664 30831 net.cpp:399] lstm2_transform_1 -> W_hc_h_0
I0924 02:36:21.136495 30853 net.cpp:141] Setting up conv1
I0924 02:36:21.136543 30853 net.cpp:148] Top shape: 10 96 55 55 (2904000)
I0924 02:36:21.136549 30853 net.cpp:156] Memory required for data: 17799480
I0924 02:36:21.136574 30853 layer_factory.hpp:77] Creating layer relu1
I0924 02:36:21.136593 30853 net.cpp:91] Creating Layer relu1
I0924 02:36:21.136600 30853 net.cpp:425] relu1 <- conv1
I0924 02:36:21.136608 30853 net.cpp:386] relu1 -> conv1 (in-place)
I0924 02:36:21.136997 30853 net.cpp:141] Setting up relu1
I0924 02:36:21.137012 30853 net.cpp:148] Top shape: 10 96 55 55 (2904000)
I0924 02:36:21.137017 30853 net.cpp:156] Memory required for data: 29415480
I0924 02:36:21.137022 30853 layer_factory.hpp:77] Creating layer pool1
I0924 02:36:21.137037 30853 net.cpp:91] Creating Layer pool1
I0924 02:36:21.137042 30853 net.cpp:425] pool1 <- conv1
I0924 02:36:21.137058 30853 net.cpp:399] pool1 -> pool1
I0924 02:36:21.137164 30853 net.cpp:141] Setting up pool1
I0924 02:36:21.137182 30853 net.cpp:148] Top shape: 10 96 27 27 (699840)
I0924 02:36:21.137189 30853 net.cpp:156] Memory required for data: 32214840
I0924 02:36:21.137198 30853 layer_factory.hpp:77] Creating layer norm1
I0924 02:36:21.137224 30853 net.cpp:91] Creating Layer norm1
I0924 02:36:21.137236 30853 net.cpp:425] norm1 <- pool1
I0924 02:36:21.137250 30853 net.cpp:399] norm1 -> norm1
I0924 02:36:21.137835 30853 net.cpp:141] Setting up norm1
I0924 02:36:21.137868 30853 net.cpp:148] Top shape: 10 96 27 27 (699840)
I0924 02:36:21.137883 30853 net.cpp:156] Memory required for data: 35014200
I0924 02:36:21.137899 30853 layer_factory.hpp:77] Creating layer conv2
I0924 02:36:21.137933 30853 net.cpp:91] Creating Layer conv2
I0924 02:36:21.137950 30853 net.cpp:425] conv2 <- norm1
I0924 02:36:21.137971 30853 net.cpp:399] conv2 -> conv2
I0924 02:36:21.143002 30853 net.cpp:141] Setting up conv2
I0924 02:36:21.143054 30853 net.cpp:148] Top shape: 10 256 27 27 (1866240)
I0924 02:36:21.143065 30853 net.cpp:156] Memory required for data: 42479160
I0924 02:36:21.143095 30853 layer_factory.hpp:77] Creating layer relu2
I0924 02:36:21.143124 30853 net.cpp:91] Creating Layer relu2
I0924 02:36:21.143136 30853 net.cpp:425] relu2 <- conv2
I0924 02:36:21.143149 30853 net.cpp:386] relu2 -> conv2 (in-place)
I0924 02:36:21.143823 30853 net.cpp:141] Setting up relu2
I0924 02:36:21.143844 30853 net.cpp:148] Top shape: 10 256 27 27 (1866240)
I0924 02:36:21.143852 30853 net.cpp:156] Memory required for data: 49944120
I0924 02:36:21.143862 30853 layer_factory.hpp:77] Creating layer pool2
I0924 02:36:21.143893 30853 net.cpp:91] Creating Layer pool2
I0924 02:36:21.143903 30853 net.cpp:425] pool2 <- conv2
I0924 02:36:21.143918 30853 net.cpp:399] pool2 -> pool2
I0924 02:36:21.144021 30853 net.cpp:141] Setting up pool2
I0924 02:36:21.144037 30853 net.cpp:148] Top shape: 10 256 13 13 (432640)
I0924 02:36:21.144044 30853 net.cpp:156] Memory required for data: 51674680
I0924 02:36:21.144052 30853 layer_factory.hpp:77] Creating layer norm2
I0924 02:36:21.144074 30853 net.cpp:91] Creating Layer norm2
I0924 02:36:21.144083 30853 net.cpp:425] norm2 <- pool2
I0924 02:36:21.144098 30853 net.cpp:399] norm2 -> norm2
I0924 02:36:21.144501 30853 net.cpp:141] Setting up norm2
I0924 02:36:21.144518 30853 net.cpp:148] Top shape: 10 256 13 13 (432640)
I0924 02:36:21.144526 30853 net.cpp:156] Memory required for data: 53405240
I0924 02:36:21.144534 30853 layer_factory.hpp:77] Creating layer conv3
I0924 02:36:21.144556 30853 net.cpp:91] Creating Layer conv3
I0924 02:36:21.144565 30853 net.cpp:425] conv3 <- norm2
I0924 02:36:21.144577 30853 net.cpp:399] conv3 -> conv3
I0924 02:36:21.149919 30853 net.cpp:141] Setting up conv3
I0924 02:36:21.149968 30853 net.cpp:148] Top shape: 10 384 13 13 (648960)
I0924 02:36:21.149978 30853 net.cpp:156] Memory required for data: 56001080
I0924 02:36:21.150007 30853 layer_factory.hpp:77] Creating layer relu3
I0924 02:36:21.150029 30853 net.cpp:91] Creating Layer relu3
I0924 02:36:21.150038 30853 net.cpp:425] relu3 <- conv3
I0924 02:36:21.150051 30853 net.cpp:386] relu3 -> conv3 (in-place)
I0924 02:36:21.150430 30853 net.cpp:141] Setting up relu3
I0924 02:36:21.150447 30853 net.cpp:148] Top shape: 10 384 13 13 (648960)
I0924 02:36:21.150455 30853 net.cpp:156] Memory required for data: 58596920
I0924 02:36:21.150463 30853 layer_factory.hpp:77] Creating layer conv4
I0924 02:36:21.150485 30853 net.cpp:91] Creating Layer conv4
I0924 02:36:21.150493 30853 net.cpp:425] conv4 <- conv3
I0924 02:36:21.150506 30853 net.cpp:399] conv4 -> conv4
I0924 02:36:21.153563 30851 net.cpp:141] Setting up lstm2_transform_1
I0924 02:36:21.153604 30851 net.cpp:148] Top shape: 1 1 4000 (4000)
I0924 02:36:21.153610 30851 net.cpp:156] Memory required for data: 66020
I0924 02:36:21.153628 30851 layer_factory.hpp:77] Creating layer lstm2_gate_input_1
I0924 02:36:21.153648 30851 net.cpp:91] Creating Layer lstm2_gate_input_1
I0924 02:36:21.153656 30851 net.cpp:425] lstm2_gate_input_1 <- W_hc_h_0
I0924 02:36:21.153663 30851 net.cpp:425] lstm2_gate_input_1 <- W_xc_x_1
I0924 02:36:21.153671 30851 net.cpp:399] lstm2_gate_input_1 -> gate_input_1
I0924 02:36:21.154193 30851 net.cpp:141] Setting up lstm2_gate_input_1
I0924 02:36:21.154206 30851 net.cpp:148] Top shape: 1 1 4000 (4000)
I0924 02:36:21.154209 30851 net.cpp:156] Memory required for data: 82020
I0924 02:36:21.154214 30851 layer_factory.hpp:77] Creating layer lstm2_unit_1
I0924 02:36:21.154227 30851 net.cpp:91] Creating Layer lstm2_unit_1
I0924 02:36:21.154232 30851 net.cpp:425] lstm2_unit_1 <- c_0
I0924 02:36:21.154238 30851 net.cpp:425] lstm2_unit_1 <- gate_input_1
I0924 02:36:21.154243 30851 net.cpp:425] lstm2_unit_1 <- cont_1_lstm2_cont_slice_0_split_1
I0924 02:36:21.154250 30851 net.cpp:399] lstm2_unit_1 -> c_1
I0924 02:36:21.154259 30851 net.cpp:399] lstm2_unit_1 -> h_1
I0924 02:36:21.154363 30851 net.cpp:141] Setting up lstm2_unit_1
I0924 02:36:21.154374 30851 net.cpp:148] Top shape: 1 1 1000 (1000)
I0924 02:36:21.154381 30851 net.cpp:148] Top shape: 1 1 1000 (1000)
I0924 02:36:21.154386 30851 net.cpp:156] Memory required for data: 90020
I0924 02:36:21.154389 30851 layer_factory.hpp:77] Creating layer lstm2_
I0924 02:36:21.154399 30851 net.cpp:91] Creating Layer lstm2_
I0924 02:36:21.154404 30851 net.cpp:425] lstm2_ <- c_1
I0924 02:36:21.154412 30851 net.cpp:399] lstm2_ -> c_T
I0924 02:36:21.154636 30851 net.cpp:141] Setting up lstm2_
I0924 02:36:21.154647 30851 net.cpp:148] Top shape: 1 1 1000 (1000)
I0924 02:36:21.154651 30851 net.cpp:156] Memory required for data: 94020
I0924 02:36:21.154656 30851 layer_factory.hpp:77] Creating layer lstm2_h_concat
I0924 02:36:21.154670 30851 net.cpp:91] Creating Layer lstm2_h_concat
I0924 02:36:21.154675 30851 net.cpp:425] lstm2_h_concat <- h_1
I0924 02:36:21.154683 30851 net.cpp:399] lstm2_h_concat -> h
I0924 02:36:21.154732 30851 net.cpp:141] Setting up lstm2_h_concat
I0924 02:36:21.154742 30851 net.cpp:148] Top shape: 1 1 1000 (1000)
I0924 02:36:21.154747 30851 net.cpp:156] Memory required for data: 98020
I0924 02:36:21.154750 30851 layer_factory.hpp:77] Creating layer h_pseudoloss
I0924 02:36:21.154760 30851 net.cpp:91] Creating Layer h_pseudoloss
I0924 02:36:21.154764 30851 net.cpp:425] h_pseudoloss <- h
I0924 02:36:21.154775 30851 net.cpp:399] h_pseudoloss -> h_pseudoloss
I0924 02:36:21.154953 30851 net.cpp:141] Setting up h_pseudoloss
…
I0924 02:36:21.155057 30851 net.cpp:219] lstm2_ does not need backward computation.
I0924 02:36:21.155061 30851 net.cpp:261] This network produces output c_T
I0924 02:36:21.155066 30851 net.cpp:261] This network produces output h_pseudoloss
I0924 02:36:21.155081 30851 net.cpp:274] Network initialization done.
I0924 02:36:21.155134 30851 recurrent_layer.cpp:150] Adding parameter 0: W_xc
I0924 02:36:21.155140 30851 recurrent_layer.cpp:150] Adding parameter 1: b_c
I0924 02:36:21.155144 30851 recurrent_layer.cpp:150] Adding parameter 2: W_hc
I0924 02:36:21.155715 30851 net.cpp:141] Setting up lstm2
I0924 02:36:21.155728 30851 net.cpp:148] Top shape: 1 1 1000 (1000)
I0924 02:36:21.155733 30851 net.cpp:156] Memory required for data: 36412
I0924 02:36:21.155748 30851 layer_factory.hpp:77] Creating layer predict
I0924 02:36:21.155761 30851 net.cpp:91] Creating Layer predict
I0924 02:36:21.155769 30851 net.cpp:425] predict <- lstm2
I0924 02:36:21.155776 30851 net.cpp:399] predict -> predict
I0924 02:36:21.155796 30845 net.cpp:141] Setting up lstm2_x_transform
I0924 02:36:21.155813 30845 net.cpp:148] Top shape: 1 1 4000 (4000)
I0924 02:36:21.155818 30845 net.cpp:156] Memory required for data: 30020
I0924 02:36:21.155832 30845 layer_factory.hpp:77] Creating layer lstm2_W_xc_x_slice
I0924 02:36:21.155843 30845 net.cpp:91] Creating Layer lstm2_W_xc_x_slice
I0924 02:36:21.155848 30845 net.cpp:425] lstm2_W_xc_x_slice <- W_xc_x
I0924 02:36:21.155856 30845 net.cpp:399] lstm2_W_xc_x_slice -> W_xc_x_1
I0924 02:36:21.240180 30845 net.cpp:141] Setting up lstm2_W_xc_x_slice
I0924 02:36:21.240249 30845 net.cpp:148] Top shape: 1 1 4000 (4000)
I0924 02:36:21.240258 30845 net.cpp:156] Memory required for data: 46020
I0924 02:36:21.240270 30845 layer_factory.hpp:77] Creating layer lstm2_h_conted_0
I0924 02:36:21.240306 30845 net.cpp:91] Creating Layer lstm2_h_conted_0
I0924 02:36:21.240317 30845 net.cpp:425] lstm2_h_conted_0 <- h_0
I0924 02:36:21.240329 30845 net.cpp:425] lstm2_h_conted_0 <- cont_1_lstm2_cont_slice_0_split_0
I0924 02:36:21.240341 30845 net.cpp:399] lstm2_h_conted_0 -> h_conted_0
I0924 02:36:21.240406 30831 net.cpp:141] Setting up lstm2_transform_1
I0924 02:36:21.240479 30831 net.cpp:148] Top shape: 1 1 4000 (4000)
I0924 02:36:21.240495 30831 net.cpp:156] Memory required for data: 66020
I0924 02:36:21.240536 30831 layer_factory.hpp:77] Creating layer lstm2_gate_input_1
I0924 02:36:21.240561 30845 net.cpp:141] Setting up lstm2_h_conted_0
I0924 02:36:21.240576 30845 net.cpp:148] Top shape: 1 1 1000 (1000)
I0924 02:36:21.240583 30845 net.cpp:156] Memory required for data: 50020
I0924 02:36:21.240582 30831 net.cpp:91] Creating Layer lstm2_gate_input_1
I0924 02:36:21.240592 30845 layer_factory.hpp:77] Creating layer lstm2_transform_1
I0924 02:36:21.240603 30831 net.cpp:425] lstm2_gate_input_1 <- W_hc_h_0
I0924 02:36:21.240612 30845 net.cpp:91] Creating Layer lstm2_transform_1
I0924 02:36:21.240622 30845 net.cpp:425] lstm2_transform_1 <- h_conted_0
I0924 02:36:21.240625 30831 net.cpp:425] lstm2_gate_input_1 <- W_xc_x_1
I0924 02:36:21.240633 30845 net.cpp:399] lstm2_transform_1 -> W_hc_h_0
I0924 02:36:21.240648 30831 net.cpp:399] lstm2_gate_input_1 -> gate_input_1
I0924 02:36:21.250819 30831 net.cpp:141] Setting up lstm2_gate_input_1
I0924 02:36:21.250881 30831 net.cpp:148] Top shape: 1 1 4000 (4000)
I0924 02:36:21.250890 30831 net.cpp:156] Memory required for data: 82020
I0924 02:36:21.250903 30831 layer_factory.hpp:77] Creating layer lstm2_unit_1
I0924 02:36:21.250929 30831 net.cpp:91] Creating Layer lstm2_unit_1
I0924 02:36:21.250941 30831 net.cpp:425] lstm2_unit_1 <- c_0
I0924 02:36:21.250955 30831 net.cpp:425] lstm2_unit_1 <- gate_input_1
I0924 02:36:21.250965 30831 net.cpp:425] lstm2_unit_1 <- cont_1_lstm2_cont_slice_0_split_1
I0924 02:36:21.250983 30831 net.cpp:399] lstm2_unit_1 -> c_1
I0924 02:36:21.251006 30831 net.cpp:399] lstm2_unit_1 -> h_1
I0924 02:36:21.252804 30831 net.cpp:141] Setting up lstm2_unit_1
I0924 02:36:21.252827 30831 net.cpp:148] Top shape: 1 1 1000 (1000)
I0924 02:36:21.252835 30831 net.cpp:148] Top shape: 1 1 1000 (1000)
I0924 02:36:21.252840 30831 net.cpp:156] Memory required for data: 90020
I0924 02:36:21.252846 30831 layer_factory.hpp:77] Creating layer lstm2_
I0924 02:36:21.252858 30831 net.cpp:91] Creating Layer lstm2_
I0924 02:36:21.252864 30831 net.cpp:425] lstm2_ <- c_1
I0924 02:36:21.252873 30831 net.cpp:399] lstm2_ -> c_T
I0924 02:36:21.252957 30831 net.cpp:141] Setting up lstm2_
I0924 02:36:21.252970 30831 net.cpp:148] Top shape: 1 1 1000 (1000)
I0924 02:36:21.252975 30831 net.cpp:156] Memory required for data: 94020
I0924 02:36:21.252981 30831 layer_factory.hpp:77] Creating layer lstm2_h_concat
I0924 02:36:21.252993 30831 net.cpp:91] Creating Layer lstm2_h_concat
I0924 02:36:21.253000 30831 net.cpp:425] lstm2_h_concat <- h_1
I0924 02:36:21.253008 30831 net.cpp:399] lstm2_h_concat -> h
I0924 02:36:21.253132 30831 net.cpp:141] Setting up lstm2_h_concat
I0924 02:36:21.253146 30831 net.cpp:148] Top shape: 1 1 1000 (1000)
I0924 02:36:21.253152 30831 net.cpp:156] Memory required for data: 98020
I0924 02:36:21.253157 30831 layer_factory.hpp:77] Creating layer h_pseudoloss
I0924 02:36:21.253168 30831 net.cpp:91] Creating Layer h_pseudoloss
I0924 02:36:21.253175 30831 net.cpp:425] h_pseudoloss <- h
I0924 02:36:21.253183 30831 net.cpp:399] h_pseudoloss -> h_pseudoloss
I0924 02:36:21.253437 30831 net.cpp:141] Setting up h_pseudoloss
…
I0924 02:36:21.253527 30831 net.cpp:217] lstm2_W_xc_x_slice needs backward computation.
I0924 02:36:21.253533 30831 net.cpp:217] lstm2_x_transform needs backward computation.
I0924 02:36:21.253540 30831 net.cpp:219] cont_1_lstm2_cont_slice_0_split does not need backward computation.
I0924 02:36:21.253533 30853 net.cpp:141] Setting up conv4
I0924 02:36:21.253554 30831 net.cpp:219] lstm2_cont_slice does not need backward computation.
I0924 02:36:21.253562 30831 net.cpp:219] lstm2_ does not need backward computation.
I0924 02:36:21.253567 30831 net.cpp:219] lstm2_ does not need backward computation.
I0924 02:36:21.253566 30853 net.cpp:148] Top shape: 10 384 13 13 (648960)
I0924 02:36:21.253576 30831 net.cpp:261] This network produces output c_T
I0924 02:36:21.253582 30853 net.cpp:156] Memory required for data: 61192760
I0924 02:36:21.253582 30831 net.cpp:261] This network produces output h_pseudoloss
I0924 02:36:21.253602 30853 layer_factory.hpp:77] Creating layer relu4
I0924 02:36:21.253610 30831 net.cpp:274] Network initialization done.
I0924 02:36:21.253613 30853 net.cpp:91] Creating Layer relu4
I0924 02:36:21.253620 30853 net.cpp:425] relu4 <- conv4
I0924 02:36:21.253633 30853 net.cpp:386] relu4 -> conv4 (in-place)
I0924 02:36:21.253670 30831 recurrent_layer.cpp:150] Adding parameter 0: W_xc
I0924 02:36:21.253679 30831 recurrent_layer.cpp:150] Adding parameter 1: b_c
I0924 02:36:21.253684 30831 recurrent_layer.cpp:150] Adding parameter 2: W_hc
I0924 02:36:21.254253 30831 net.cpp:141] Setting up lstm2
I0924 02:36:21.254268 30831 net.cpp:148] Top shape: 1 1 1000 (1000)
I0924 02:36:21.254273 30831 net.cpp:156] Memory required for data: 36412
I0924 02:36:21.254282 30853 net.cpp:141] Setting up relu4
I0924 02:36:21.254290 30831 layer_factory.hpp:77] Creating layer predict
I0924 02:36:21.254299 30853 net.cpp:148] Top shape: 10 384 13 13 (648960)
I0924 02:36:21.254305 30853 net.cpp:156] Memory required for data: 63788600
I0924 02:36:21.254307 30831 net.cpp:91] Creating Layer predict
I0924 02:36:21.254312 30853 layer_factory.hpp:77] Creating layer conv5
I0924 02:36:21.254314 30831 net.cpp:425] predict <- lstm2
I0924 02:36:21.254323 30831 net.cpp:399] predict -> predict
I0924 02:36:21.254328 30853 net.cpp:91] Creating Layer conv5
I0924 02:36:21.254334 30853 net.cpp:425] conv5 <- conv4
I0924 02:36:21.254348 30853 net.cpp:399] conv5 -> conv5
I0924 02:36:21.336169 30845 net.cpp:141] Setting up lstm2_transform_1
I0924 02:36:21.336233 30845 net.cpp:148] Top shape: 1 1 4000 (4000)
I0924 02:36:21.336244 30845 net.cpp:156] Memory required for data: 66020
I0924 02:36:21.336272 30845 layer_factory.hpp:77] Creating layer lstm2_gate_input_1
I0924 02:36:21.336309 30845 net.cpp:91] Creating Layer lstm2_gate_input_1
I0924 02:36:21.336323 30845 net.cpp:425] lstm2_gate_input_1 <- W_hc_h_0
I0924 02:36:21.336336 30845 net.cpp:425] lstm2_gate_input_1 <- W_xc_x_1
I0924 02:36:21.336349 30845 net.cpp:399] lstm2_gate_input_1 -> gate_input_1
I0924 02:36:21.337354 30845 net.cpp:141] Setting up lstm2_gate_input_1
I0924 02:36:21.337409 30845 net.cpp:148] Top shape: 1 1 4000 (4000)
I0924 02:36:21.337419 30845 net.cpp:156] Memory required for data: 82020
I0924 02:36:21.337429 30845 layer_factory.hpp:77] Creating layer lstm2_unit_1
I0924 02:36:21.337455 30845 net.cpp:91] Creating Layer lstm2_unit_1
I0924 02:36:21.337466 30845 net.cpp:425] lstm2_unit_1 <- c_0
I0924 02:36:21.337481 30845 net.cpp:425] lstm2_unit_1 <- gate_input_1
I0924 02:36:21.337488 30845 net.cpp:425] lstm2_unit_1 <- cont_1_lstm2_cont_slice_0_split_1
I0924 02:36:21.337501 30845 net.cpp:399] lstm2_unit_1 -> c_1
I0924 02:36:21.337517 30845 net.cpp:399] lstm2_unit_1 -> h_1
I0924 02:36:21.337891 30845 net.cpp:141] Setting up lstm2_unit_1
I0924 02:36:21.337908 30845 net.cpp:148] Top shape: 1 1 1000 (1000)
I0924 02:36:21.337918 30845 net.cpp:148] Top shape: 1 1 1000 (1000)
I0924 02:36:21.337924 30845 net.cpp:156] Memory required for data: 90020
I0924 02:36:21.337931 30845 layer_factory.hpp:77] Creating layer lstm2_
I0924 02:36:21.337944 30845 net.cpp:91] Creating Layer lstm2_
I0924 02:36:21.337952 30845 net.cpp:425] lstm2_ <- c_1
I0924 02:36:21.337967 30845 net.cpp:399] lstm2_ -> c_T
I0924 02:36:21.338034 30845 net.cpp:141] Setting up lstm2_
I0924 02:36:21.338048 30845 net.cpp:148] Top shape: 1 1 1000 (1000)
I0924 02:36:21.338055 30845 net.cpp:156] Memory required for data: 94020
I0924 02:36:21.338063 30845 layer_factory.hpp:77] Creating layer lstm2_h_concat
I0924 02:36:21.338078 30845 net.cpp:91] Creating Layer lstm2_h_concat
I0924 02:36:21.338084 30845 net.cpp:425] lstm2_h_concat <- h_1
I0924 02:36:21.338100 30845 net.cpp:399] lstm2_h_concat -> h
I0924 02:36:21.338657 30845 net.cpp:141] Setting up lstm2_h_concat
I0924 02:36:21.338675 30845 net.cpp:148] Top shape: 1 1 1000 (1000)
I0924 02:36:21.338682 30845 net.cpp:156] Memory required for data: 98020
I0924 02:36:21.338690 30845 layer_factory.hpp:77] Creating layer h_pseudoloss
I0924 02:36:21.338703 30845 net.cpp:91] Creating Layer h_pseudoloss
I0924 02:36:21.338711 30845 net.cpp:425] h_pseudoloss <- h
I0924 02:36:21.338722 30845 net.cpp:399] h_pseudoloss -> h_pseudoloss
I0924 02:36:21.338904 30845 net.cpp:141] Setting up h_pseudoloss
…
I0924 02:36:21.339056 30845 net.cpp:219] lstm2_ does not need backward computation.
I0924 02:36:21.339061 30845 net.cpp:261] This network produces output c_T
I0924 02:36:21.339068 30845 net.cpp:261] This network produces output h_pseudoloss
I0924 02:36:21.339094 30845 net.cpp:274] Network initialization done.
I0924 02:36:21.339170 30845 recurrent_layer.cpp:150] Adding parameter 0: W_xc
I0924 02:36:21.339180 30845 recurrent_layer.cpp:150] Adding parameter 1: b_c
I0924 02:36:21.339187 30845 recurrent_layer.cpp:150] Adding parameter 2: W_hc
I0924 02:36:21.342931 30845 net.cpp:141] Setting up lstm2
I0924 02:36:21.342978 30845 net.cpp:148] Top shape: 1 1 1000 (1000)
I0924 02:36:21.342988 30845 net.cpp:156] Memory required for data: 36412
I0924 02:36:21.343019 30845 layer_factory.hpp:77] Creating layer predict
I0924 02:36:21.343047 30845 net.cpp:91] Creating Layer predict
I0924 02:36:21.343058 30845 net.cpp:425] predict <- lstm2
I0924 02:36:21.343073 30845 net.cpp:399] predict -> predict
I0924 02:36:21.441292 30853 net.cpp:141] Setting up conv5
I0924 02:36:21.441354 30853 net.cpp:148] Top shape: 10 256 13 13 (432640)
I0924 02:36:21.441361 30853 net.cpp:156] Memory required for data: 65519160
I0924 02:36:21.441388 30853 layer_factory.hpp:77] Creating layer relu5
I0924 02:36:21.441407 30853 net.cpp:91] Creating Layer relu5
I0924 02:36:21.441416 30853 net.cpp:425] relu5 <- conv5
I0924 02:36:21.441426 30853 net.cpp:386] relu5 -> conv5 (in-place)
I0924 02:36:21.441974 30853 net.cpp:141] Setting up relu5
I0924 02:36:21.441990 30853 net.cpp:148] Top shape: 10 256 13 13 (432640)
I0924 02:36:21.441995 30853 net.cpp:156] Memory required for data: 67249720
I0924 02:36:21.442000 30853 layer_factory.hpp:77] Creating layer pool5
I0924 02:36:21.442013 30853 net.cpp:91] Creating Layer pool5
I0924 02:36:21.442018 30853 net.cpp:425] pool5 <- conv5
I0924 02:36:21.442028 30853 net.cpp:399] pool5 -> pool5
I0924 02:36:21.442101 30853 net.cpp:141] Setting up pool5
I0924 02:36:21.442114 30853 net.cpp:148] Top shape: 10 256 6 6 (92160)
I0924 02:36:21.442118 30853 net.cpp:156] Memory required for data: 67618360
I0924 02:36:21.442123 30853 layer_factory.hpp:77] Creating layer fc6
I0924 02:36:21.442137 30853 net.cpp:91] Creating Layer fc6
I0924 02:36:21.442142 30853 net.cpp:425] fc6 <- pool5
I0924 02:36:21.442147 30853 net.cpp:399] fc6 -> fc6
I0924 02:36:21.511270 30827 net.cpp:141] Setting up predict
I0924 02:36:21.511324 30827 net.cpp:148] Top shape: 1 1 46168 (46168)
I0924 02:36:21.511333 30827 net.cpp:156] Memory required for data: 221084
I0924 02:36:21.511353 30827 layer_factory.hpp:77] Creating layer probs
I0924 02:36:21.511374 30827 net.cpp:91] Creating Layer probs
I0924 02:36:21.511385 30827 net.cpp:425] probs <- predict
I0924 02:36:21.511400 30827 net.cpp:399] probs -> probs
I0924 02:36:21.512104 30827 net.cpp:141] Setting up probs
I0924 02:36:21.512123 30827 net.cpp:148] Top shape: 1 1 46168 (46168)
I0924 02:36:21.512130 30827 net.cpp:156] Memory required for data: 405756
I0924 02:36:21.512140 30827 net.cpp:219] probs does not need backward computation.
I0924 02:36:21.512147 30827 net.cpp:219] predict does not need backward computation.
I0924 02:36:21.512156 30827 net.cpp:219] lstm2 does not need backward computation.
I0924 02:36:21.512164 30827 net.cpp:219] concat does not need backward computation.
I0924 02:36:21.512173 30827 net.cpp:219] lstm1 does not need backward computation.
I0924 02:36:21.512183 30827 net.cpp:219] embedding does not need backward computation.
I0924 02:36:21.512192 30827 net.cpp:219] reshape_stage_indicator does not need backward computation.
I0924 02:36:21.512199 30827 net.cpp:219] reshape_frames does not need backward computation.
I0924 02:36:21.512207 30827 net.cpp:219] embed_encoder does not need backward computation.
I0924 02:36:21.512215 30827 net.cpp:219] cont_sentence_input_1_split does not need backward computation.
I0924 02:36:21.512224 30827 net.cpp:219] input does not need backward computation.
I0924 02:36:21.512230 30827 net.cpp:261] This network produces output probs
I0924 02:36:21.512251 30827 net.cpp:274] Network initialization done.
I0924 02:36:21.549855 30853 net.cpp:141] Setting up fc6
I0924 02:36:21.549906 30853 net.cpp:148] Top shape: 10 4096 (40960)
I0924 02:36:21.549912 30853 net.cpp:156] Memory required for data: 67782200
I0924 02:36:21.549932 30853 layer_factory.hpp:77] Creating layer relu6
I0924 02:36:21.549949 30853 net.cpp:91] Creating Layer relu6
I0924 02:36:21.549957 30853 net.cpp:425] relu6 <- fc6
I0924 02:36:21.549968 30853 net.cpp:386] relu6 -> fc6 (in-place)
I0924 02:36:21.551573 30853 net.cpp:141] Setting up relu6
I0924 02:36:21.551594 30853 net.cpp:148] Top shape: 10 4096 (40960)
I0924 02:36:21.551599 30853 net.cpp:156] Memory required for data: 67946040
I0924 02:36:21.551606 30853 layer_factory.hpp:77] Creating layer drop6
I0924 02:36:21.551620 30853 net.cpp:91] Creating Layer drop6
I0924 02:36:21.551626 30853 net.cpp:425] drop6 <- fc6
I0924 02:36:21.551633 30853 net.cpp:386] drop6 -> fc6 (in-place)
I0924 02:36:21.551694 30853 net.cpp:141] Setting up drop6
I0924 02:36:21.551704 30853 net.cpp:148] Top shape: 10 4096 (40960)
I0924 02:36:21.551709 30853 net.cpp:156] Memory required for data: 68109880
I0924 02:36:21.551713 30853 layer_factory.hpp:77] Creating layer fc7
I0924 02:36:21.552100 30853 net.cpp:91] Creating Layer fc7
I0924 02:36:21.552116 30853 net.cpp:425] fc7 <- fc6
I0924 02:36:21.552129 30853 net.cpp:399] fc7 -> fc7
I0924 02:36:21.605568 30853 net.cpp:141] Setting up fc7
I0924 02:36:21.605614 30853 net.cpp:148] Top shape: 10 4096 (40960)
I0924 02:36:21.605621 30853 net.cpp:156] Memory required for data: 68273720
I0924 02:36:21.605638 30853 layer_factory.hpp:77] Creating layer relu7
I0924 02:36:21.605654 30853 net.cpp:91] Creating Layer relu7
I0924 02:36:21.605661 30853 net.cpp:425] relu7 <- fc7
I0924 02:36:21.605670 30853 net.cpp:386] relu7 -> fc7 (in-place)
I0924 02:36:21.606011 30853 net.cpp:141] Setting up relu7
I0924 02:36:21.606024 30853 net.cpp:148] Top shape: 10 4096 (40960)
I0924 02:36:21.606029 30853 net.cpp:156] Memory required for data: 68437560
I0924 02:36:21.606034 30853 layer_factory.hpp:77] Creating layer drop7
I0924 02:36:21.606045 30853 net.cpp:91] Creating Layer drop7
I0924 02:36:21.606050 30853 net.cpp:425] drop7 <- fc7
I0924 02:36:21.606058 30853 net.cpp:386] drop7 -> fc7 (in-place)
I0924 02:36:21.606101 30853 net.cpp:141] Setting up drop7
I0924 02:36:21.606109 30853 net.cpp:148] Top shape: 10 4096 (40960)
I0924 02:36:21.606113 30853 net.cpp:156] Memory required for data: 68601400
I0924 02:36:21.606118 30853 layer_factory.hpp:77] Creating layer fc8
I0924 02:36:21.606132 30853 net.cpp:91] Creating Layer fc8
I0924 02:36:21.606138 30853 net.cpp:425] fc8 <- fc7
I0924 02:36:21.606145 30853 net.cpp:399] fc8 -> fc8
I0924 02:36:21.618109 30853 net.cpp:141] Setting up fc8
I0924 02:36:21.618155 30853 net.cpp:148] Top shape: 10 1000 (10000)
I0924 02:36:21.618161 30853 net.cpp:156] Memory required for data: 68641400
I0924 02:36:21.618175 30853 layer_factory.hpp:77] Creating layer prob
I0924 02:36:21.618192 30853 net.cpp:91] Creating Layer prob
I0924 02:36:21.618201 30853 net.cpp:425] prob <- fc8
I0924 02:36:21.618211 30853 net.cpp:399] prob -> prob
I0924 02:36:21.618930 30853 net.cpp:141] Setting up prob
I0924 02:36:21.618944 30853 net.cpp:148] Top shape: 10 1000 (10000)
I0924 02:36:21.618949 30853 net.cpp:156] Memory required for data: 68681400
I0924 02:36:21.618955 30853 net.cpp:219] prob does not need backward computation.
I0924 02:36:21.618962 30853 net.cpp:219] fc8 does not need backward computation.
I0924 02:36:21.618966 30853 net.cpp:219] drop7 does not need backward computation.
I0924 02:36:21.618970 30853 net.cpp:219] relu7 does not need backward computation.
…
I0924 02:36:21.619045 30853 net.cpp:219] norm1 does not need backward computation.
I0924 02:36:21.619048 30853 net.cpp:219] pool1 does not need backward computation.
I0924 02:36:21.619056 30853 net.cpp:219] relu1 does not need backward computation.
I0924 02:36:21.619060 30853 net.cpp:219] conv1 does not need backward computation.
I0924 02:36:21.619065 30853 net.cpp:219] data does not need backward computation.
I0924 02:36:21.619068 30853 net.cpp:261] This network produces output prob
I0924 02:36:21.619088 30853 net.cpp:274] Network initialization done.
I0924 02:36:21.636304 30851 net.cpp:141] Setting up predict
I0924 02:36:21.636358 30851 net.cpp:148] Top shape: 1 1 46168 (46168)
I0924 02:36:21.636365 30851 net.cpp:156] Memory required for data: 221084
I0924 02:36:21.636380 30851 layer_factory.hpp:77] Creating layer probs
I0924 02:36:21.636399 30851 net.cpp:91] Creating Layer probs
I0924 02:36:21.636405 30851 net.cpp:425] probs <- predict
I0924 02:36:21.636416 30851 net.cpp:399] probs -> probs
I0924 02:36:21.637094 30851 net.cpp:141] Setting up probs
I0924 02:36:21.637109 30851 net.cpp:148] Top shape: 1 1 46168 (46168)
I0924 02:36:21.637114 30851 net.cpp:156] Memory required for data: 405756
I0924 02:36:21.637118 30851 net.cpp:219] probs does not need backward computation.
I0924 02:36:21.637125 30851 net.cpp:219] predict does not need backward computation.
I0924 02:36:21.637130 30851 net.cpp:219] lstm2 does not need backward computation.
I0924 02:36:21.637135 30851 net.cpp:219] concat does not need backward computation.
I0924 02:36:21.637141 30851 net.cpp:219] lstm1 does not need backward computation.
I0924 02:36:21.637148 30851 net.cpp:219] embedding does not need backward computation.
I0924 02:36:21.637153 30851 net.cpp:219] reshape_stage_indicator does not need backward computation.
I0924 02:36:21.637158 30851 net.cpp:219] reshape_frames does not need backward computation.
I0924 02:36:21.637163 30851 net.cpp:219] embed_encoder does not need backward computation.
I0924 02:36:21.637168 30851 net.cpp:219] cont_sentence_input_1_split does not need backward computation.
I0924 02:36:21.637173 30851 net.cpp:219] input does not need backward computation.
I0924 02:36:21.637177 30851 net.cpp:261] This network produces output probs
I0924 02:36:21.637215 30851 net.cpp:274] Network initialization done.
I0924 02:36:21.705404 30831 net.cpp:141] Setting up predict
I0924 02:36:21.705456 30831 net.cpp:148] Top shape: 1 1 46168 (46168)
I0924 02:36:21.705461 30831 net.cpp:156] Memory required for data: 221084
I0924 02:36:21.705476 30831 layer_factory.hpp:77] Creating layer probs
I0924 02:36:21.705497 30831 net.cpp:91] Creating Layer probs
I0924 02:36:21.705503 30831 net.cpp:425] probs <- predict
I0924 02:36:21.705514 30831 net.cpp:399] probs -> probs
I0924 02:36:21.706171 30831 net.cpp:141] Setting up probs
I0924 02:36:21.706185 30831 net.cpp:148] Top shape: 1 1 46168 (46168)
I0924 02:36:21.706190 30831 net.cpp:156] Memory required for data: 405756
I0924 02:36:21.706197 30831 net.cpp:219] probs does not need backward computation.
I0924 02:36:21.706202 30831 net.cpp:219] predict does not need backward computation.
I0924 02:36:21.706207 30831 net.cpp:219] lstm2 does not need backward computation.
I0924 02:36:21.706213 30831 net.cpp:219] concat does not need backward computation.
I0924 02:36:21.706219 30831 net.cpp:219] lstm1 does not need backward computation.
I0924 02:36:21.706225 30831 net.cpp:219] embedding does not need backward computation.
I0924 02:36:21.706230 30831 net.cpp:219] reshape_stage_indicator does not need backward computation.
I0924 02:36:21.706234 30831 net.cpp:219] reshape_frames does not need backward computation.
I0924 02:36:21.706239 30831 net.cpp:219] embed_encoder does not need backward computation.
I0924 02:36:21.706244 30831 net.cpp:219] cont_sentence_input_1_split does not need backward computation.
I0924 02:36:21.706249 30831 net.cpp:219] input does not need backward computation.
I0924 02:36:21.706254 30831 net.cpp:261] This network produces output probs
I0924 02:36:21.706271 30831 net.cpp:274] Network initialization done.
I0924 02:36:21.795135 30845 net.cpp:141] Setting up predict
I0924 02:36:21.795197 30845 net.cpp:148] Top shape: 1 1 46168 (46168)
I0924 02:36:21.795207 30845 net.cpp:156] Memory required for data: 221084
I0924 02:36:21.795229 30845 layer_factory.hpp:77] Creating layer probs
I0924 02:36:21.795255 30845 net.cpp:91] Creating Layer probs
I0924 02:36:21.795269 30845 net.cpp:425] probs <- predict
I0924 02:36:21.795287 30845 net.cpp:399] probs -> probs
I0924 02:36:21.796022 30845 net.cpp:141] Setting up probs
I0924 02:36:21.796054 30845 net.cpp:148] Top shape: 1 1 46168 (46168)
I0924 02:36:21.796064 30845 net.cpp:156] Memory required for data: 405756
I0924 02:36:21.796077 30845 net.cpp:219] probs does not need backward computation.
I0924 02:36:21.796087 30845 net.cpp:219] predict does not need backward computation.
I0924 02:36:21.796097 30845 net.cpp:219] lstm2 does not need backward computation.
I0924 02:36:21.796108 30845 net.cpp:219] concat does not need backward computation.
…
