…
2016-07-30 10:29:22.834 STDERR [INFO] I0730 10:29:22.814492  3020 net.cpp:91] Creating Layer input
2016-07-30 10:29:22.834 STDERR [INFO] I0730 10:29:22.814501  3020 net.cpp:399] input -> frames_fc7
2016-07-30 10:29:22.834 STDERR [INFO] I0730 10:29:22.814517  3020 net.cpp:399] input -> cont_sentence
2016-07-30 10:29:22.834 STDERR [INFO] I0730 10:29:22.814529  3020 net.cpp:399] input -> input_sentence
2016-07-30 10:29:22.834 STDERR [INFO] I0730 10:29:22.814539  3020 net.cpp:399] input -> stage_indicator
2016-07-30 10:29:22.870 STDERR [INFO] I0730 10:29:22.870200  3031 net.cpp:141] Setting up data
2016-07-30 10:29:22.871 STDERR [INFO] I0730 10:29:22.870280  3031 net.cpp:148] Top shape: 10 3 227 227 (1545870)
2016-07-30 10:29:22.871 STDERR [INFO] I0730 10:29:22.870277  3020 net.cpp:141] Setting up input
2016-07-30 10:29:22.871 STDERR [INFO] I0730 10:29:22.870288  3031 net.cpp:156] Memory required for data: 6183480
2016-07-30 10:29:22.871 STDERR [INFO] I0730 10:29:22.870297  3020 net.cpp:148] Top shape: 1 4096 (4096)
2016-07-30 10:29:22.871 STDERR [INFO] I0730 10:29:22.870304  3020 net.cpp:148] Top shape: 1 1 (1)
2016-07-30 10:29:22.871 STDERR [INFO] I0730 10:29:22.870307  3031 layer_factory.hpp:77] Creating layer conv1
2016-07-30 10:29:22.871 STDERR [INFO] I0730 10:29:22.870311  3020 net.cpp:148] Top shape: 1 1 (1)
2016-07-30 10:29:22.871 STDERR [INFO] I0730 10:29:22.870316  3020 net.cpp:148] Top shape: 1 1 (1)
2016-07-30 10:29:22.871 STDERR [INFO] I0730 10:29:22.870321  3020 net.cpp:156] Memory required for data: 16396
2016-07-30 10:29:22.871 STDERR [INFO] I0730 10:29:22.870326  3020 layer_factory.hpp:77] Creating layer cont_sentence_input_1_split
2016-07-30 10:29:22.871 STDERR [INFO] I0730 10:29:22.870333  3031 net.cpp:91] Creating Layer conv1
2016-07-30 10:29:22.871 STDERR [INFO] I0730 10:29:22.870342  3031 net.cpp:425] conv1 <- data
2016-07-30 10:29:22.871 STDERR [INFO] I0730 10:29:22.870344  3020 net.cpp:91] Creating Layer cont_sentence_input_1_split
2016-07-30 10:29:22.872 STDERR [INFO] I0730 10:29:22.870352  3020 net.cpp:425] cont_sentence_input_1_split <- cont_sentence
2016-07-30 10:29:22.872 STDERR [INFO] I0730 10:29:22.870355  3031 net.cpp:399] conv1 -> conv1
2016-07-30 10:29:22.872 STDERR [INFO] I0730 10:29:22.870369  3020 net.cpp:399] cont_sentence_input_1_split -> cont_sentence_input_1_split_0
2016-07-30 10:29:22.872 STDERR [INFO] I0730 10:29:22.870380  3020 net.cpp:399] cont_sentence_input_1_split -> cont_sentence_input_1_split_1
2016-07-30 10:29:22.872 STDERR [INFO] I0730 10:29:22.870468  3020 net.cpp:141] Setting up cont_sentence_input_1_split
2016-07-30 10:29:22.872 STDERR [INFO] I0730 10:29:22.870481  3020 net.cpp:148] Top shape: 1 1 (1)
2016-07-30 10:29:22.872 STDERR [INFO] I0730 10:29:22.870486  3020 net.cpp:148] Top shape: 1 1 (1)
2016-07-30 10:29:22.872 STDERR [INFO] I0730 10:29:22.870491  3020 net.cpp:156] Memory required for data: 16404
2016-07-30 10:29:22.872 STDERR [INFO] I0730 10:29:22.870496  3020 layer_factory.hpp:77] Creating layer embed_encoder
2016-07-30 10:29:22.872 STDERR [INFO] I0730 10:29:22.870520  3020 net.cpp:91] Creating Layer embed_encoder
2016-07-30 10:29:22.873 STDERR [INFO] I0730 10:29:22.870527  3020 net.cpp:425] embed_encoder <- frames_fc7
2016-07-30 10:29:22.873 STDERR [INFO] I0730 10:29:22.870540  3020 net.cpp:399] embed_encoder -> embedded_in_frames
2016-07-30 10:29:22.893 STDERR [INFO] I0730 10:29:22.893292  3020 net.cpp:141] Setting up embed_encoder
2016-07-30 10:29:22.894 STDERR [INFO] I0730 10:29:22.893335  3020 net.cpp:148] Top shape: 1 500 (500)
2016-07-30 10:29:22.894 STDERR [INFO] I0730 10:29:22.893342  3020 net.cpp:156] Memory required for data: 18404
2016-07-30 10:29:22.894 STDERR [INFO] I0730 10:29:22.893364  3020 layer_factory.hpp:77] Creating layer reshape_frames
2016-07-30 10:29:22.894 STDERR [INFO] I0730 10:29:22.893388  3020 net.cpp:91] Creating Layer reshape_frames
2016-07-30 10:29:22.894 STDERR [INFO] I0730 10:29:22.893394  3020 net.cpp:425] reshape_frames <- embedded_in_frames
2016-07-30 10:29:22.894 STDERR [INFO] I0730 10:29:22.893412  3020 net.cpp:399] reshape_frames -> embedded_input_frames
2016-07-30 10:29:22.897 STDERR [INFO] I0730 10:29:22.897032  3020 net.cpp:141] Setting up reshape_frames
2016-07-30 10:29:22.897 STDERR [INFO] I0730 10:29:22.897055  3020 net.cpp:148] Top shape: 1 1 500 (500)
2016-07-30 10:29:22.897 STDERR [INFO] I0730 10:29:22.897060  3020 net.cpp:156] Memory required for data: 20404
2016-07-30 10:29:22.897 STDERR [INFO] I0730 10:29:22.897066  3020 layer_factory.hpp:77] Creating layer reshape_stage_indicator
2016-07-30 10:29:22.897 STDERR [INFO] I0730 10:29:22.897079  3020 net.cpp:91] Creating Layer reshape_stage_indicator
2016-07-30 10:29:22.897 STDERR [INFO] I0730 10:29:22.897085  3020 net.cpp:425] reshape_stage_indicator <- stage_indicator
2016-07-30 10:29:22.897 STDERR [INFO] I0730 10:29:22.897099  3020 net.cpp:399] reshape_stage_indicator -> reshaped_stage_indicator
2016-07-30 10:29:22.897 STDERR [INFO] I0730 10:29:22.897140  3020 net.cpp:141] Setting up reshape_stage_indicator
2016-07-30 10:29:22.897 STDERR [INFO] I0730 10:29:22.897150  3020 net.cpp:148] Top shape: 1 1 1 (1)
2016-07-30 10:29:22.898 STDERR [INFO] I0730 10:29:22.897155  3020 net.cpp:156] Memory required for data: 20408
2016-07-30 10:29:22.898 STDERR [INFO] I0730 10:29:22.897159  3020 layer_factory.hpp:77] Creating layer embedding
2016-07-30 10:29:22.898 STDERR [INFO] I0730 10:29:22.897171  3020 net.cpp:91] Creating Layer embedding
2016-07-30 10:29:22.898 STDERR [INFO] I0730 10:29:22.897176  3020 net.cpp:425] embedding <- input_sentence
2016-07-30 10:29:22.898 STDERR [INFO] I0730 10:29:22.897183  3020 net.cpp:399] embedding -> embedded_input_sentence
2016-07-30 10:29:23.121 STDERR [INFO] I0730 10:29:23.121249  3020 net.cpp:141] Setting up embedding
2016-07-30 10:29:23.121 STDERR [INFO] I0730 10:29:23.121296  3020 net.cpp:148] Top shape: 1 1 500 (500)
2016-07-30 10:29:23.122 STDERR [INFO] I0730 10:29:23.121302  3020 net.cpp:156] Memory required for data: 22408
2016-07-30 10:29:23.122 STDERR [INFO] I0730 10:29:23.121318  3020 layer_factory.hpp:77] Creating layer lstm1
2016-07-30 10:29:23.122 STDERR [INFO] I0730 10:29:23.121335  3020 net.cpp:91] Creating Layer lstm1
2016-07-30 10:29:23.122 STDERR [INFO] I0730 10:29:23.121343  3020 net.cpp:425] lstm1 <- embedded_input_frames
…
2016-07-30 10:29:23.134 STDERR [INFO] }
2016-07-30 10:29:23.134 STDERR [INFO] I0730 10:29:23.121842  3020 layer_factory.hpp:77] Creating layer lstm1_
2016-07-30 10:29:23.134 STDERR [INFO] I0730 10:29:23.121855  3020 net.cpp:91] Creating Layer lstm1_
2016-07-30 10:29:23.134 STDERR [INFO] I0730 10:29:23.121861  3020 net.cpp:399] lstm1_ -> x
2016-07-30 10:29:23.134 STDERR [INFO] I0730 10:29:23.121872  3020 net.cpp:399] lstm1_ -> cont
2016-07-30 10:29:23.134 STDERR [INFO] I0730 10:29:23.126492  3020 net.cpp:141] Setting up lstm1_
2016-07-30 10:29:23.134 STDERR [INFO] I0730 10:29:23.126513  3020 net.cpp:148] Top shape: 1 1 500 (500)
2016-07-30 10:29:23.134 STDERR [INFO] I0730 10:29:23.126519  3020 net.cpp:148] Top shape: 1 1 (1)
2016-07-30 10:29:23.134 STDERR [INFO] I0730 10:29:23.126524  3020 net.cpp:156] Memory required for data: 2004
2016-07-30 10:29:23.135 STDERR [INFO] I0730 10:29:23.126530  3020 layer_factory.hpp:77] Creating layer lstm1_
2016-07-30 10:29:23.135 STDERR [INFO] I0730 10:29:23.126543  3020 net.cpp:91] Creating Layer lstm1_
2016-07-30 10:29:23.135 STDERR [INFO] I0730 10:29:23.126554  3020 net.cpp:399] lstm1_ -> c_0
2016-07-30 10:29:23.135 STDERR [INFO] I0730 10:29:23.126566  3020 net.cpp:399] lstm1_ -> h_0
2016-07-30 10:29:23.135 STDERR [INFO] I0730 10:29:23.131047  3020 net.cpp:141] Setting up lstm1_
2016-07-30 10:29:23.135 STDERR [INFO] I0730 10:29:23.131075  3020 net.cpp:148] Top shape: 1 1 1000 (1000)
2016-07-30 10:29:23.135 STDERR [INFO] I0730 10:29:23.131083  3020 net.cpp:148] Top shape: 1 1 1000 (1000)
2016-07-30 10:29:23.135 STDERR [INFO] I0730 10:29:23.131086  3020 net.cpp:156] Memory required for data: 10004
2016-07-30 10:29:23.135 STDERR [INFO] I0730 10:29:23.131093  3020 layer_factory.hpp:77] Creating layer lstm1_cont_slice
2016-07-30 10:29:23.135 STDERR [INFO] I0730 10:29:23.131111  3020 net.cpp:91] Creating Layer lstm1_cont_slice
2016-07-30 10:29:23.135 STDERR [INFO] I0730 10:29:23.131117  3020 net.cpp:425] lstm1_cont_slice <- cont
2016-07-30 10:29:23.135 STDERR [INFO] I0730 10:29:23.131129  3020 net.cpp:399] lstm1_cont_slice -> cont_1
2016-07-30 10:29:23.135 STDERR [INFO] I0730 10:29:23.132680  3020 net.cpp:141] Setting up lstm1_cont_slice
2016-07-30 10:29:23.135 STDERR [INFO] I0730 10:29:23.132697  3020 net.cpp:148] Top shape: 1 1 (1)
2016-07-30 10:29:23.136 STDERR [INFO] I0730 10:29:23.132702  3020 net.cpp:156] Memory required for data: 10008
2016-07-30 10:29:23.136 STDERR [INFO] I0730 10:29:23.132707  3020 layer_factory.hpp:77] Creating layer cont_1_lstm1_cont_slice_0_split
2016-07-30 10:29:23.136 STDERR [INFO] I0730 10:29:23.132716  3020 net.cpp:91] Creating Layer cont_1_lstm1_cont_slice_0_split
2016-07-30 10:29:23.136 STDERR [INFO] I0730 10:29:23.132721  3020 net.cpp:425] cont_1_lstm1_cont_slice_0_split <- cont_1
2016-07-30 10:29:23.136 STDERR [INFO] I0730 10:29:23.132735  3020 net.cpp:399] cont_1_lstm1_cont_slice_0_split -> cont_1_lstm1_cont_slice_0_split_0
2016-07-30 10:29:23.136 STDERR [INFO] I0730 10:29:23.132743  3020 net.cpp:399] cont_1_lstm1_cont_slice_0_split -> cont_1_lstm1_cont_slice_0_split_1
2016-07-30 10:29:23.137 STDERR [INFO] I0730 10:29:23.137339  3020 net.cpp:141] Setting up cont_1_lstm1_cont_slice_0_split
2016-07-30 10:29:23.137 STDERR [INFO] I0730 10:29:23.137372  3020 net.cpp:148] Top shape: 1 1 (1)
2016-07-30 10:29:23.137 STDERR [INFO] I0730 10:29:23.137380  3020 net.cpp:148] Top shape: 1 1 (1)
2016-07-30 10:29:23.137 STDERR [INFO] I0730 10:29:23.137385  3020 net.cpp:156] Memory required for data: 10016
2016-07-30 10:29:23.137 STDERR [INFO] I0730 10:29:23.137390  3020 layer_factory.hpp:77] Creating layer lstm1_x_transform
2016-07-30 10:29:23.137 STDERR [INFO] I0730 10:29:23.137408  3020 net.cpp:91] Creating Layer lstm1_x_transform
2016-07-30 10:29:23.138 STDERR [INFO] I0730 10:29:23.137413  3020 net.cpp:425] lstm1_x_transform <- x
2016-07-30 10:29:23.138 STDERR [INFO] I0730 10:29:23.137423  3020 net.cpp:399] lstm1_x_transform -> W_xc_x
2016-07-30 10:29:23.160 STDERR [INFO] I0730 10:29:23.160476  3020 net.cpp:141] Setting up lstm1_x_transform
2016-07-30 10:29:23.161 STDERR [INFO] I0730 10:29:23.160518  3020 net.cpp:148] Top shape: 1 1 4000 (4000)
2016-07-30 10:29:23.161 STDERR [INFO] I0730 10:29:23.160524  3020 net.cpp:156] Memory required for data: 26016
2016-07-30 10:29:23.161 STDERR [INFO] I0730 10:29:23.160544  3020 layer_factory.hpp:77] Creating layer lstm1_W_xc_x_slice
2016-07-30 10:29:23.161 STDERR [INFO] I0730 10:29:23.160558  3020 net.cpp:91] Creating Layer lstm1_W_xc_x_slice
2016-07-30 10:29:23.161 STDERR [INFO] I0730 10:29:23.160564  3020 net.cpp:425] lstm1_W_xc_x_slice <- W_xc_x
2016-07-30 10:29:23.161 STDERR [INFO] I0730 10:29:23.160574  3020 net.cpp:399] lstm1_W_xc_x_slice -> W_xc_x_1
2016-07-30 10:29:23.161 STDERR [INFO] I0730 10:29:23.160667  3020 net.cpp:141] Setting up lstm1_W_xc_x_slice
2016-07-30 10:29:23.161 STDERR [INFO] I0730 10:29:23.160679  3020 net.cpp:148] Top shape: 1 1 4000 (4000)
2016-07-30 10:29:23.162 STDERR [INFO] I0730 10:29:23.160683  3020 net.cpp:156] Memory required for data: 42016
2016-07-30 10:29:23.162 STDERR [INFO] I0730 10:29:23.160688  3020 layer_factory.hpp:77] Creating layer lstm1_h_conted_0
2016-07-30 10:29:23.162 STDERR [INFO] I0730 10:29:23.160698  3020 net.cpp:91] Creating Layer lstm1_h_conted_0
2016-07-30 10:29:23.162 STDERR [INFO] I0730 10:29:23.160703  3020 net.cpp:425] lstm1_h_conted_0 <- h_0
2016-07-30 10:29:23.162 STDERR [INFO] I0730 10:29:23.160709  3020 net.cpp:425] lstm1_h_conted_0 <- cont_1_lstm1_cont_slice_0_split_0
2016-07-30 10:29:23.162 STDERR [INFO] I0730 10:29:23.160717  3020 net.cpp:399] lstm1_h_conted_0 -> h_conted_0
2016-07-30 10:29:23.162 STDERR [INFO] I0730 10:29:23.160850  3020 net.cpp:141] Setting up lstm1_h_conted_0
2016-07-30 10:29:23.162 STDERR [INFO] I0730 10:29:23.160859  3020 net.cpp:148] Top shape: 1 1 1000 (1000)
2016-07-30 10:29:23.162 STDERR [INFO] I0730 10:29:23.160863  3020 net.cpp:156] Memory required for data: 46016
2016-07-30 10:29:23.162 STDERR [INFO] I0730 10:29:23.160868  3020 layer_factory.hpp:77] Creating layer lstm1_transform_1
2016-07-30 10:29:23.162 STDERR [INFO] I0730 10:29:23.160881  3020 net.cpp:91] Creating Layer lstm1_transform_1
2016-07-30 10:29:23.162 STDERR [INFO] I0730 10:29:23.160887  3020 net.cpp:425] lstm1_transform_1 <- h_conted_0
2016-07-30 10:29:23.162 STDERR [INFO] I0730 10:29:23.160897  3020 net.cpp:399] lstm1_transform_1 -> W_hc_h_0
2016-07-30 10:29:23.170 STDERR [INFO] I0730 10:29:23.170781  3031 net.cpp:141] Setting up conv1
2016-07-30 10:29:23.171 STDERR [INFO] I0730 10:29:23.170832  3031 net.cpp:148] Top shape: 10 96 55 55 (2904000)
2016-07-30 10:29:23.171 STDERR [INFO] I0730 10:29:23.170840  3031 net.cpp:156] Memory required for data: 17799480
2016-07-30 10:29:23.171 STDERR [INFO] I0730 10:29:23.170861  3031 layer_factory.hpp:77] Creating layer relu1
2016-07-30 10:29:23.171 STDERR [INFO] I0730 10:29:23.170877  3031 net.cpp:91] Creating Layer relu1
2016-07-30 10:29:23.171 STDERR [INFO] I0730 10:29:23.170884  3031 net.cpp:425] relu1 <- conv1
2016-07-30 10:29:23.171 STDERR [INFO] I0730 10:29:23.170897  3031 net.cpp:386] relu1 -> conv1 (in-place)
2016-07-30 10:29:23.172 STDERR [INFO] I0730 10:29:23.171921  3031 net.cpp:141] Setting up relu1
2016-07-30 10:29:23.172 STDERR [INFO] I0730 10:29:23.171936  3031 net.cpp:148] Top shape: 10 96 55 55 (2904000)
2016-07-30 10:29:23.172 STDERR [INFO] I0730 10:29:23.171941  3031 net.cpp:156] Memory required for data: 29415480
2016-07-30 10:29:23.172 STDERR [INFO] I0730 10:29:23.171946  3031 layer_factory.hpp:77] Creating layer pool1
2016-07-30 10:29:23.172 STDERR [INFO] I0730 10:29:23.171959  3031 net.cpp:91] Creating Layer pool1
2016-07-30 10:29:23.172 STDERR [INFO] I0730 10:29:23.171963  3031 net.cpp:425] pool1 <- conv1
2016-07-30 10:29:23.172 STDERR [INFO] I0730 10:29:23.171975  3031 net.cpp:399] pool1 -> pool1
2016-07-30 10:29:23.172 STDERR [INFO] I0730 10:29:23.172060  3031 net.cpp:141] Setting up pool1
2016-07-30 10:29:23.172 STDERR [INFO] I0730 10:29:23.172070  3031 net.cpp:148] Top shape: 10 96 27 27 (699840)
2016-07-30 10:29:23.172 STDERR [INFO] I0730 10:29:23.172075  3031 net.cpp:156] Memory required for data: 32214840
2016-07-30 10:29:23.172 STDERR [INFO] I0730 10:29:23.172080  3031 layer_factory.hpp:77] Creating layer norm1
2016-07-30 10:29:23.173 STDERR [INFO] I0730 10:29:23.172096  3031 net.cpp:91] Creating Layer norm1
2016-07-30 10:29:23.173 STDERR [INFO] I0730 10:29:23.172101  3031 net.cpp:425] norm1 <- pool1
2016-07-30 10:29:23.173 STDERR [INFO] I0730 10:29:23.172107  3031 net.cpp:399] norm1 -> norm1
2016-07-30 10:29:23.173 STDERR [INFO] I0730 10:29:23.172919  3031 net.cpp:141] Setting up norm1
2016-07-30 10:29:23.173 STDERR [INFO] I0730 10:29:23.172931  3031 net.cpp:148] Top shape: 10 96 27 27 (699840)
2016-07-30 10:29:23.173 STDERR [INFO] I0730 10:29:23.172936  3031 net.cpp:156] Memory required for data: 35014200
2016-07-30 10:29:23.173 STDERR [INFO] I0730 10:29:23.172941  3031 layer_factory.hpp:77] Creating layer conv2
2016-07-30 10:29:23.173 STDERR [INFO] I0730 10:29:23.172958  3031 net.cpp:91] Creating Layer conv2
2016-07-30 10:29:23.173 STDERR [INFO] I0730 10:29:23.172963  3031 net.cpp:425] conv2 <- norm1
2016-07-30 10:29:23.173 STDERR [INFO] I0730 10:29:23.172973  3031 net.cpp:399] conv2 -> conv2
2016-07-30 10:29:23.177 STDERR [INFO] I0730 10:29:23.177393  3031 net.cpp:141] Setting up conv2
2016-07-30 10:29:23.177 STDERR [INFO] I0730 10:29:23.177420  3031 net.cpp:148] Top shape: 10 256 27 27 (1866240)
2016-07-30 10:29:23.177 STDERR [INFO] I0730 10:29:23.177426  3031 net.cpp:156] Memory required for data: 42479160
2016-07-30 10:29:23.177 STDERR [INFO] I0730 10:29:23.177441  3031 layer_factory.hpp:77] Creating layer relu2
2016-07-30 10:29:23.178 STDERR [INFO] I0730 10:29:23.177453  3031 net.cpp:91] Creating Layer relu2
2016-07-30 10:29:23.178 STDERR [INFO] I0730 10:29:23.177459  3031 net.cpp:425] relu2 <- conv2
2016-07-30 10:29:23.178 STDERR [INFO] I0730 10:29:23.177469  3031 net.cpp:386] relu2 -> conv2 (in-place)
2016-07-30 10:29:23.178 STDERR [INFO] I0730 10:29:23.178167  3031 net.cpp:141] Setting up relu2
2016-07-30 10:29:23.178 STDERR [INFO] I0730 10:29:23.178180  3031 net.cpp:148] Top shape: 10 256 27 27 (1866240)
2016-07-30 10:29:23.178 STDERR [INFO] I0730 10:29:23.178185  3031 net.cpp:156] Memory required for data: 49944120
2016-07-30 10:29:23.178 STDERR [INFO] I0730 10:29:23.178191  3031 layer_factory.hpp:77] Creating layer pool2
2016-07-30 10:29:23.178 STDERR [INFO] I0730 10:29:23.178205  3031 net.cpp:91] Creating Layer pool2
2016-07-30 10:29:23.178 STDERR [INFO] I0730 10:29:23.178210  3031 net.cpp:425] pool2 <- conv2
2016-07-30 10:29:23.178 STDERR [INFO] I0730 10:29:23.178216  3031 net.cpp:399] pool2 -> pool2
2016-07-30 10:29:23.178 STDERR [INFO] I0730 10:29:23.178274  3031 net.cpp:141] Setting up pool2
2016-07-30 10:29:23.179 STDERR [INFO] I0730 10:29:23.178283  3031 net.cpp:148] Top shape: 10 256 13 13 (432640)
2016-07-30 10:29:23.179 STDERR [INFO] I0730 10:29:23.178288  3031 net.cpp:156] Memory required for data: 51674680
2016-07-30 10:29:23.179 STDERR [INFO] I0730 10:29:23.178292  3031 layer_factory.hpp:77] Creating layer norm2
2016-07-30 10:29:23.179 STDERR [INFO] I0730 10:29:23.178306  3031 net.cpp:91] Creating Layer norm2
2016-07-30 10:29:23.179 STDERR [INFO] I0730 10:29:23.178311  3031 net.cpp:425] norm2 <- pool2
2016-07-30 10:29:23.179 STDERR [INFO] I0730 10:29:23.178318  3031 net.cpp:399] norm2 -> norm2
2016-07-30 10:29:23.179 STDERR [INFO] I0730 10:29:23.178570  3031 net.cpp:141] Setting up norm2
2016-07-30 10:29:23.179 STDERR [INFO] I0730 10:29:23.178581  3031 net.cpp:148] Top shape: 10 256 13 13 (432640)
2016-07-30 10:29:23.179 STDERR [INFO] I0730 10:29:23.178586  3031 net.cpp:156] Memory required for data: 53405240
2016-07-30 10:29:23.179 STDERR [INFO] I0730 10:29:23.178591  3031 layer_factory.hpp:77] Creating layer conv3
2016-07-30 10:29:23.179 STDERR [INFO] I0730 10:29:23.178606  3031 net.cpp:91] Creating Layer conv3
2016-07-30 10:29:23.179 STDERR [INFO] I0730 10:29:23.178611  3031 net.cpp:425] conv3 <- norm2
2016-07-30 10:29:23.179 STDERR [INFO] I0730 10:29:23.178618  3031 net.cpp:399] conv3 -> conv3
2016-07-30 10:29:23.183 STDERR [INFO] I0730 10:29:23.183639  3031 net.cpp:141] Setting up conv3
2016-07-30 10:29:23.184 STDERR [INFO] I0730 10:29:23.183670  3031 net.cpp:148] Top shape: 10 384 13 13 (648960)
2016-07-30 10:29:23.184 STDERR [INFO] I0730 10:29:23.183676  3031 net.cpp:156] Memory required for data: 56001080
2016-07-30 10:29:23.184 STDERR [INFO] I0730 10:29:23.183691  3031 layer_factory.hpp:77] Creating layer relu3
2016-07-30 10:29:23.184 STDERR [INFO] I0730 10:29:23.183702  3031 net.cpp:91] Creating Layer relu3
2016-07-30 10:29:23.184 STDERR [INFO] I0730 10:29:23.183707  3031 net.cpp:425] relu3 <- conv3
2016-07-30 10:29:23.185 STDERR [INFO] I0730 10:29:23.183719  3031 net.cpp:386] relu3 -> conv3 (in-place)
2016-07-30 10:29:23.185 STDERR [INFO] I0730 10:29:23.184415  3031 net.cpp:141] Setting up relu3
2016-07-30 10:29:23.185 STDERR [INFO] I0730 10:29:23.184427  3031 net.cpp:148] Top shape: 10 384 13 13 (648960)
2016-07-30 10:29:23.185 STDERR [INFO] I0730 10:29:23.184432  3031 net.cpp:156] Memory required for data: 58596920
2016-07-30 10:29:23.185 STDERR [INFO] I0730 10:29:23.184437  3031 layer_factory.hpp:77] Creating layer conv4
2016-07-30 10:29:23.185 STDERR [INFO] I0730 10:29:23.184453  3031 net.cpp:91] Creating Layer conv4
2016-07-30 10:29:23.185 STDERR [INFO] I0730 10:29:23.184458  3031 net.cpp:425] conv4 <- conv3
2016-07-30 10:29:23.185 STDERR [INFO] I0730 10:29:23.184468  3031 net.cpp:399] conv4 -> conv4
2016-07-30 10:29:23.190 STDERR [INFO] I0730 10:29:23.189998  3031 net.cpp:141] Setting up conv4
2016-07-30 10:29:23.190 STDERR [INFO] I0730 10:29:23.190027  3031 net.cpp:148] Top shape: 10 384 13 13 (648960)
2016-07-30 10:29:23.190 STDERR [INFO] I0730 10:29:23.190035  3031 net.cpp:156] Memory required for data: 61192760
2016-07-30 10:29:23.190 STDERR [INFO] I0730 10:29:23.190047  3031 layer_factory.hpp:77] Creating layer relu4
2016-07-30 10:29:23.190 STDERR [INFO] I0730 10:29:23.190058  3031 net.cpp:91] Creating Layer relu4
2016-07-30 10:29:23.190 STDERR [INFO] I0730 10:29:23.190064  3031 net.cpp:425] relu4 <- conv4
2016-07-30 10:29:23.190 STDERR [INFO] I0730 10:29:23.190073  3031 net.cpp:386] relu4 -> conv4 (in-place)
2016-07-30 10:29:23.190 STDERR [INFO] I0730 10:29:23.190789  3031 net.cpp:141] Setting up relu4
2016-07-30 10:29:23.190 STDERR [INFO] I0730 10:29:23.190805  3031 net.cpp:148] Top shape: 10 384 13 13 (648960)
2016-07-30 10:29:23.191 STDERR [INFO] I0730 10:29:23.190811  3031 net.cpp:156] Memory required for data: 63788600
2016-07-30 10:29:23.191 STDERR [INFO] I0730 10:29:23.190816  3031 layer_factory.hpp:77] Creating layer conv5
2016-07-30 10:29:23.191 STDERR [INFO] I0730 10:29:23.190836  3031 net.cpp:91] Creating Layer conv5
2016-07-30 10:29:23.191 STDERR [INFO] I0730 10:29:23.190841  3031 net.cpp:425] conv5 <- conv4
2016-07-30 10:29:23.191 STDERR [INFO] I0730 10:29:23.190860  3031 net.cpp:399] conv5 -> conv5
2016-07-30 10:29:23.196 STDERR [INFO] I0730 10:29:23.196161  3031 net.cpp:141] Setting up conv5
2016-07-30 10:29:23.196 STDERR [INFO] I0730 10:29:23.196190  3031 net.cpp:148] Top shape: 10 256 13 13 (432640)
2016-07-30 10:29:23.196 STDERR [INFO] I0730 10:29:23.196195  3031 net.cpp:156] Memory required for data: 65519160
2016-07-30 10:29:23.196 STDERR [INFO] I0730 10:29:23.196215  3031 layer_factory.hpp:77] Creating layer relu5
2016-07-30 10:29:23.196 STDERR [INFO] I0730 10:29:23.196226  3031 net.cpp:91] Creating Layer relu5
2016-07-30 10:29:23.196 STDERR [INFO] I0730 10:29:23.196233  3031 net.cpp:425] relu5 <- conv5
2016-07-30 10:29:23.196 STDERR [INFO] I0730 10:29:23.196240  3031 net.cpp:386] relu5 -> conv5 (in-place)
2016-07-30 10:29:23.197 STDERR [INFO] I0730 10:29:23.196954  3031 net.cpp:141] Setting up relu5
2016-07-30 10:29:23.197 STDERR [INFO] I0730 10:29:23.196966  3031 net.cpp:148] Top shape: 10 256 13 13 (432640)
2016-07-30 10:29:23.197 STDERR [INFO] I0730 10:29:23.196971  3031 net.cpp:156] Memory required for data: 67249720
2016-07-30 10:29:23.197 STDERR [INFO] I0730 10:29:23.196976  3031 layer_factory.hpp:77] Creating layer pool5
2016-07-30 10:29:23.197 STDERR [INFO] I0730 10:29:23.196986  3031 net.cpp:91] Creating Layer pool5
2016-07-30 10:29:23.197 STDERR [INFO] I0730 10:29:23.196991  3031 net.cpp:425] pool5 <- conv5
2016-07-30 10:29:23.197 STDERR [INFO] I0730 10:29:23.196998  3031 net.cpp:399] pool5 -> pool5
2016-07-30 10:29:23.197 STDERR [INFO] I0730 10:29:23.197060  3031 net.cpp:141] Setting up pool5
2016-07-30 10:29:23.197 STDERR [INFO] I0730 10:29:23.197069  3031 net.cpp:148] Top shape: 10 256 6 6 (92160)
2016-07-30 10:29:23.197 STDERR [INFO] I0730 10:29:23.197074  3031 net.cpp:156] Memory required for data: 67618360
2016-07-30 10:29:23.197 STDERR [INFO] I0730 10:29:23.197079  3031 layer_factory.hpp:77] Creating layer fc6
2016-07-30 10:29:23.198 STDERR [INFO] I0730 10:29:23.197095  3031 net.cpp:91] Creating Layer fc6
2016-07-30 10:29:23.198 STDERR [INFO] I0730 10:29:23.197100  3031 net.cpp:425] fc6 <- pool5
2016-07-30 10:29:23.198 STDERR [INFO] I0730 10:29:23.197108  3031 net.cpp:399] fc6 -> fc6
2016-07-30 10:29:23.261 STDERR [INFO] I0730 10:29:23.260715  3020 net.cpp:141] Setting up lstm1_transform_1
2016-07-30 10:29:23.261 STDERR [INFO] I0730 10:29:23.260781  3020 net.cpp:148] Top shape: 1 1 4000 (4000)
2016-07-30 10:29:23.261 STDERR [INFO] I0730 10:29:23.260787  3020 net.cpp:156] Memory required for data: 62016
2016-07-30 10:29:23.261 STDERR [INFO] I0730 10:29:23.260807  3020 layer_factory.hpp:77] Creating layer lstm1_gate_input_1
2016-07-30 10:29:23.261 STDERR [INFO] I0730 10:29:23.260826  3020 net.cpp:91] Creating Layer lstm1_gate_input_1
2016-07-30 10:29:23.261 STDERR [INFO] I0730 10:29:23.260833  3020 net.cpp:425] lstm1_gate_input_1 <- W_hc_h_0
2016-07-30 10:29:23.262 STDERR [INFO] I0730 10:29:23.260841  3020 net.cpp:425] lstm1_gate_input_1 <- W_xc_x_1
2016-07-30 10:29:23.262 STDERR [INFO] I0730 10:29:23.260853  3020 net.cpp:399] lstm1_gate_input_1 -> gate_input_1
2016-07-30 10:29:23.262 STDERR [INFO] I0730 10:29:23.260921  3020 net.cpp:141] Setting up lstm1_gate_input_1
2016-07-30 10:29:23.262 STDERR [INFO] I0730 10:29:23.260929  3020 net.cpp:148] Top shape: 1 1 4000 (4000)
2016-07-30 10:29:23.262 STDERR [INFO] I0730 10:29:23.260934  3020 net.cpp:156] Memory required for data: 78016
2016-07-30 10:29:23.262 STDERR [INFO] I0730 10:29:23.260938  3020 layer_factory.hpp:77] Creating layer lstm1_unit_1
2016-07-30 10:29:23.262 STDERR [INFO] I0730 10:29:23.260947  3020 net.cpp:91] Creating Layer lstm1_unit_1
2016-07-30 10:29:23.262 STDERR [INFO] I0730 10:29:23.260952  3020 net.cpp:425] lstm1_unit_1 <- c_0
2016-07-30 10:29:23.262 STDERR [INFO] I0730 10:29:23.260958  3020 net.cpp:425] lstm1_unit_1 <- gate_input_1
2016-07-30 10:29:23.262 STDERR [INFO] I0730 10:29:23.260963  3020 net.cpp:425] lstm1_unit_1 <- cont_1_lstm1_cont_slice_0_split_1
2016-07-30 10:29:23.262 STDERR [INFO] I0730 10:29:23.260972  3020 net.cpp:399] lstm1_unit_1 -> c_1
2016-07-30 10:29:23.262 STDERR [INFO] I0730 10:29:23.260982  3020 net.cpp:399] lstm1_unit_1 -> h_1
2016-07-30 10:29:23.263 STDERR [INFO] I0730 10:29:23.261040  3020 net.cpp:141] Setting up lstm1_unit_1
2016-07-30 10:29:23.263 STDERR [INFO] I0730 10:29:23.261049  3020 net.cpp:148] Top shape: 1 1 1000 (1000)
2016-07-30 10:29:23.263 STDERR [INFO] I0730 10:29:23.261054  3020 net.cpp:148] Top shape: 1 1 1000 (1000)
2016-07-30 10:29:23.263 STDERR [INFO] I0730 10:29:23.261059  3020 net.cpp:156] Memory required for data: 86016
2016-07-30 10:29:23.263 STDERR [INFO] I0730 10:29:23.261064  3020 layer_factory.hpp:77] Creating layer lstm1_
2016-07-30 10:29:23.263 STDERR [INFO] I0730 10:29:23.261071  3020 net.cpp:91] Creating Layer lstm1_
2016-07-30 10:29:23.263 STDERR [INFO] I0730 10:29:23.261076  3020 net.cpp:425] lstm1_ <- c_1
2016-07-30 10:29:23.264 STDERR [INFO] I0730 10:29:23.261083  3020 net.cpp:399] lstm1_ -> c_T
2016-07-30 10:29:23.264 STDERR [INFO] I0730 10:29:23.261114  3020 net.cpp:141] Setting up lstm1_
2016-07-30 10:29:23.264 STDERR [INFO] I0730 10:29:23.261123  3020 net.cpp:148] Top shape: 1 1 1000 (1000)
2016-07-30 10:29:23.264 STDERR [INFO] I0730 10:29:23.261127  3020 net.cpp:156] Memory required for data: 90016
2016-07-30 10:29:23.264 STDERR [INFO] I0730 10:29:23.261132  3020 layer_factory.hpp:77] Creating layer lstm1_h_concat
2016-07-30 10:29:23.264 STDERR [INFO] I0730 10:29:23.261142  3020 net.cpp:91] Creating Layer lstm1_h_concat
2016-07-30 10:29:23.264 STDERR [INFO] I0730 10:29:23.261147  3020 net.cpp:425] lstm1_h_concat <- h_1
2016-07-30 10:29:23.264 STDERR [INFO] I0730 10:29:23.261155  3020 net.cpp:399] lstm1_h_concat -> h
2016-07-30 10:29:23.264 STDERR [INFO] I0730 10:29:23.261205  3020 net.cpp:141] Setting up lstm1_h_concat
2016-07-30 10:29:23.264 STDERR [INFO] I0730 10:29:23.261214  3020 net.cpp:148] Top shape: 1 1 1000 (1000)
2016-07-30 10:29:23.264 STDERR [INFO] I0730 10:29:23.261219  3020 net.cpp:156] Memory required for data: 94016
2016-07-30 10:29:23.264 STDERR [INFO] I0730 10:29:23.261222  3020 layer_factory.hpp:77] Creating layer h_pseudoloss
2016-07-30 10:29:23.265 STDERR [INFO] I0730 10:29:23.261240  3020 net.cpp:91] Creating Layer h_pseudoloss
2016-07-30 10:29:23.265 STDERR [INFO] I0730 10:29:23.261243  3020 net.cpp:425] h_pseudoloss <- h
…
2016-07-30 10:29:23.279 STDERR [INFO] }
2016-07-30 10:29:23.279 STDERR [INFO] I0730 10:29:23.262117  3020 layer_factory.hpp:77] Creating layer lstm2_
2016-07-30 10:29:23.279 STDERR [INFO] I0730 10:29:23.262130  3020 net.cpp:91] Creating Layer lstm2_
2016-07-30 10:29:23.280 STDERR [INFO] I0730 10:29:23.262135  3020 net.cpp:399] lstm2_ -> x
2016-07-30 10:29:23.280 STDERR [INFO] I0730 10:29:23.262145  3020 net.cpp:399] lstm2_ -> cont
2016-07-30 10:29:23.280 STDERR [INFO] I0730 10:29:23.262197  3020 net.cpp:141] Setting up lstm2_
2016-07-30 10:29:23.280 STDERR [INFO] I0730 10:29:23.262207  3020 net.cpp:148] Top shape: 1 1 1501 (1501)
2016-07-30 10:29:23.280 STDERR [INFO] I0730 10:29:23.262212  3020 net.cpp:148] Top shape: 1 1 (1)
2016-07-30 10:29:23.280 STDERR [INFO] I0730 10:29:23.262217  3020 net.cpp:156] Memory required for data: 6008
2016-07-30 10:29:23.280 STDERR [INFO] I0730 10:29:23.262222  3020 layer_factory.hpp:77] Creating layer lstm2_
2016-07-30 10:29:23.280 STDERR [INFO] I0730 10:29:23.262230  3020 net.cpp:91] Creating Layer lstm2_
2016-07-30 10:29:23.280 STDERR [INFO] I0730 10:29:23.262235  3020 net.cpp:399] lstm2_ -> c_0
2016-07-30 10:29:23.281 STDERR [INFO] I0730 10:29:23.262249  3020 net.cpp:399] lstm2_ -> h_0
2016-07-30 10:29:23.281 STDERR [INFO] I0730 10:29:23.262296  3020 net.cpp:141] Setting up lstm2_
2016-07-30 10:29:23.281 STDERR [INFO] I0730 10:29:23.262305  3020 net.cpp:148] Top shape: 1 1 1000 (1000)
2016-07-30 10:29:23.281 STDERR [INFO] I0730 10:29:23.262310  3020 net.cpp:148] Top shape: 1 1 1000 (1000)
2016-07-30 10:29:23.281 STDERR [INFO] I0730 10:29:23.262315  3020 net.cpp:156] Memory required for data: 14008
2016-07-30 10:29:23.281 STDERR [INFO] I0730 10:29:23.262318  3020 layer_factory.hpp:77] Creating layer lstm2_cont_slice
2016-07-30 10:29:23.281 STDERR [INFO] I0730 10:29:23.262329  3020 net.cpp:91] Creating Layer lstm2_cont_slice
2016-07-30 10:29:23.281 STDERR [INFO] I0730 10:29:23.262334  3020 net.cpp:425] lstm2_cont_slice <- cont
2016-07-30 10:29:23.281 STDERR [INFO] I0730 10:29:23.262341  3020 net.cpp:399] lstm2_cont_slice -> cont_1
2016-07-30 10:29:23.281 STDERR [INFO] I0730 10:29:23.262372  3020 net.cpp:141] Setting up lstm2_cont_slice
2016-07-30 10:29:23.282 STDERR [INFO] I0730 10:29:23.262382  3020 net.cpp:148] Top shape: 1 1 (1)
2016-07-30 10:29:23.282 STDERR [INFO] I0730 10:29:23.262387  3020 net.cpp:156] Memory required for data: 14012
2016-07-30 10:29:23.282 STDERR [INFO] I0730 10:29:23.262392  3020 layer_factory.hpp:77] Creating layer cont_1_lstm2_cont_slice_0_split
2016-07-30 10:29:23.282 STDERR [INFO] I0730 10:29:23.262398  3020 net.cpp:91] Creating Layer cont_1_lstm2_cont_slice_0_split
2016-07-30 10:29:23.282 STDERR [INFO] I0730 10:29:23.262403  3020 net.cpp:425] cont_1_lstm2_cont_slice_0_split <- cont_1
2016-07-30 10:29:23.282 STDERR [INFO] I0730 10:29:23.262411  3020 net.cpp:399] cont_1_lstm2_cont_slice_0_split -> cont_1_lstm2_cont_slice_0_split_0
2016-07-30 10:29:23.282 STDERR [INFO] I0730 10:29:23.262419  3020 net.cpp:399] cont_1_lstm2_cont_slice_0_split -> cont_1_lstm2_cont_slice_0_split_1
2016-07-30 10:29:23.282 STDERR [INFO] I0730 10:29:23.262670  3020 net.cpp:141] Setting up cont_1_lstm2_cont_slice_0_split
2016-07-30 10:29:23.282 STDERR [INFO] I0730 10:29:23.262682  3020 net.cpp:148] Top shape: 1 1 (1)
2016-07-30 10:29:23.283 STDERR [INFO] I0730 10:29:23.262707  3020 net.cpp:148] Top shape: 1 1 (1)
2016-07-30 10:29:23.283 STDERR [INFO] I0730 10:29:23.262712  3020 net.cpp:156] Memory required for data: 14020
2016-07-30 10:29:23.283 STDERR [INFO] I0730 10:29:23.262717  3020 layer_factory.hpp:77] Creating layer lstm2_x_transform
2016-07-30 10:29:23.283 STDERR [INFO] I0730 10:29:23.262730  3020 net.cpp:91] Creating Layer lstm2_x_transform
2016-07-30 10:29:23.283 STDERR [INFO] I0730 10:29:23.262737  3020 net.cpp:425] lstm2_x_transform <- x
2016-07-30 10:29:23.283 STDERR [INFO] I0730 10:29:23.262744  3020 net.cpp:399] lstm2_x_transform -> W_xc_x
2016-07-30 10:29:23.299 STDERR [INFO] I0730 10:29:23.299067  3031 net.cpp:141] Setting up fc6
2016-07-30 10:29:23.299 STDERR [INFO] I0730 10:29:23.299124  3031 net.cpp:148] Top shape: 10 4096 (40960)
2016-07-30 10:29:23.299 STDERR [INFO] I0730 10:29:23.299129  3031 net.cpp:156] Memory required for data: 67782200
2016-07-30 10:29:23.299 STDERR [INFO] I0730 10:29:23.299144  3031 layer_factory.hpp:77] Creating layer relu6
2016-07-30 10:29:23.299 STDERR [INFO] I0730 10:29:23.299157  3031 net.cpp:91] Creating Layer relu6
2016-07-30 10:29:23.300 STDERR [INFO] I0730 10:29:23.299165  3031 net.cpp:425] relu6 <- fc6
2016-07-30 10:29:23.300 STDERR [INFO] I0730 10:29:23.299176  3031 net.cpp:386] relu6 -> fc6 (in-place)
2016-07-30 10:29:23.300 STDERR [INFO] I0730 10:29:23.299491  3031 net.cpp:141] Setting up relu6
2016-07-30 10:29:23.300 STDERR [INFO] I0730 10:29:23.299505  3031 net.cpp:148] Top shape: 10 4096 (40960)
2016-07-30 10:29:23.300 STDERR [INFO] I0730 10:29:23.299510  3031 net.cpp:156] Memory required for data: 67946040
2016-07-30 10:29:23.300 STDERR [INFO] I0730 10:29:23.299515  3031 layer_factory.hpp:77] Creating layer drop6
2016-07-30 10:29:23.300 STDERR [INFO] I0730 10:29:23.299525  3031 net.cpp:91] Creating Layer drop6
2016-07-30 10:29:23.300 STDERR [INFO] I0730 10:29:23.299530  3031 net.cpp:425] drop6 <- fc6
2016-07-30 10:29:23.300 STDERR [INFO] I0730 10:29:23.299536  3031 net.cpp:386] drop6 -> fc6 (in-place)
2016-07-30 10:29:23.300 STDERR [INFO] I0730 10:29:23.299588  3031 net.cpp:141] Setting up drop6
2016-07-30 10:29:23.300 STDERR [INFO] I0730 10:29:23.299597  3031 net.cpp:148] Top shape: 10 4096 (40960)
2016-07-30 10:29:23.300 STDERR [INFO] I0730 10:29:23.299602  3031 net.cpp:156] Memory required for data: 68109880
2016-07-30 10:29:23.301 STDERR [INFO] I0730 10:29:23.299607  3031 layer_factory.hpp:77] Creating layer fc7
2016-07-30 10:29:23.301 STDERR [INFO] I0730 10:29:23.299617  3031 net.cpp:91] Creating Layer fc7
2016-07-30 10:29:23.301 STDERR [INFO] I0730 10:29:23.299624  3031 net.cpp:425] fc7 <- fc6
2016-07-30 10:29:23.301 STDERR [INFO] I0730 10:29:23.299631  3031 net.cpp:399] fc7 -> fc7
2016-07-30 10:29:23.328 STDERR [INFO] I0730 10:29:23.328393  3020 net.cpp:141] Setting up lstm2_x_transform
2016-07-30 10:29:23.329 STDERR [INFO] I0730 10:29:23.328456  3020 net.cpp:148] Top shape: 1 1 4000 (4000)
2016-07-30 10:29:23.329 STDERR [INFO] I0730 10:29:23.328462  3020 net.cpp:156] Memory required for data: 30020
2016-07-30 10:29:23.329 STDERR [INFO] I0730 10:29:23.328483  3020 layer_factory.hpp:77] Creating layer lstm2_W_xc_x_slice
2016-07-30 10:29:23.329 STDERR [INFO] I0730 10:29:23.328498  3020 net.cpp:91] Creating Layer lstm2_W_xc_x_slice
2016-07-30 10:29:23.329 STDERR [INFO] I0730 10:29:23.328505  3020 net.cpp:425] lstm2_W_xc_x_slice <- W_xc_x
2016-07-30 10:29:23.329 STDERR [INFO] I0730 10:29:23.328517  3020 net.cpp:399] lstm2_W_xc_x_slice -> W_xc_x_1
2016-07-30 10:29:23.329 STDERR [INFO] I0730 10:29:23.328560  3020 net.cpp:141] Setting up lstm2_W_xc_x_slice
2016-07-30 10:29:23.329 STDERR [INFO] I0730 10:29:23.328570  3020 net.cpp:148] Top shape: 1 1 4000 (4000)
2016-07-30 10:29:23.329 STDERR [INFO] I0730 10:29:23.328575  3020 net.cpp:156] Memory required for data: 46020
2016-07-30 10:29:23.329 STDERR [INFO] I0730 10:29:23.328579  3020 layer_factory.hpp:77] Creating layer lstm2_h_conted_0
2016-07-30 10:29:23.329 STDERR [INFO] I0730 10:29:23.328590  3020 net.cpp:91] Creating Layer lstm2_h_conted_0
2016-07-30 10:29:23.329 STDERR [INFO] I0730 10:29:23.328595  3020 net.cpp:425] lstm2_h_conted_0 <- h_0
2016-07-30 10:29:23.330 STDERR [INFO] I0730 10:29:23.328601  3020 net.cpp:425] lstm2_h_conted_0 <- cont_1_lstm2_cont_slice_0_split_0
2016-07-30 10:29:23.330 STDERR [INFO] I0730 10:29:23.328611  3020 net.cpp:399] lstm2_h_conted_0 -> h_conted_0
2016-07-30 10:29:23.330 STDERR [INFO] I0730 10:29:23.328701  3020 net.cpp:141] Setting up lstm2_h_conted_0
2016-07-30 10:29:23.330 STDERR [INFO] I0730 10:29:23.328709  3020 net.cpp:148] Top shape: 1 1 1000 (1000)
2016-07-30 10:29:23.330 STDERR [INFO] I0730 10:29:23.328713  3020 net.cpp:156] Memory required for data: 50020
2016-07-30 10:29:23.330 STDERR [INFO] I0730 10:29:23.328718  3020 layer_factory.hpp:77] Creating layer lstm2_transform_1
2016-07-30 10:29:23.330 STDERR [INFO] I0730 10:29:23.328733  3020 net.cpp:91] Creating Layer lstm2_transform_1
2016-07-30 10:29:23.330 STDERR [INFO] I0730 10:29:23.328739  3020 net.cpp:425] lstm2_transform_1 <- h_conted_0
2016-07-30 10:29:23.330 STDERR [INFO] I0730 10:29:23.328747  3020 net.cpp:399] lstm2_transform_1 -> W_hc_h_0
2016-07-30 10:29:23.346 STDERR [INFO] I0730 10:29:23.346026  3031 net.cpp:141] Setting up fc7
2016-07-30 10:29:23.346 STDERR [INFO] I0730 10:29:23.346071  3031 net.cpp:148] Top shape: 10 4096 (40960)
2016-07-30 10:29:23.346 STDERR [INFO] I0730 10:29:23.346076  3031 net.cpp:156] Memory required for data: 68273720
2016-07-30 10:29:23.346 STDERR [INFO] I0730 10:29:23.346089  3031 layer_factory.hpp:77] Creating layer relu7
2016-07-30 10:29:23.346 STDERR [INFO] I0730 10:29:23.346107  3031 net.cpp:91] Creating Layer relu7
2016-07-30 10:29:23.347 STDERR [INFO] I0730 10:29:23.346113  3031 net.cpp:425] relu7 <- fc7
2016-07-30 10:29:23.347 STDERR [INFO] I0730 10:29:23.346122  3031 net.cpp:386] relu7 -> fc7 (in-place)
2016-07-30 10:29:23.347 STDERR [INFO] I0730 10:29:23.347609  3031 net.cpp:141] Setting up relu7
2016-07-30 10:29:23.347 STDERR [INFO] I0730 10:29:23.347625  3031 net.cpp:148] Top shape: 10 4096 (40960)
2016-07-30 10:29:23.347 STDERR [INFO] I0730 10:29:23.347630  3031 net.cpp:156] Memory required for data: 68437560
2016-07-30 10:29:23.347 STDERR [INFO] I0730 10:29:23.347636  3031 layer_factory.hpp:77] Creating layer drop7
2016-07-30 10:29:23.348 STDERR [INFO] I0730 10:29:23.347651  3031 net.cpp:91] Creating Layer drop7
2016-07-30 10:29:23.348 STDERR [INFO] I0730 10:29:23.347656  3031 net.cpp:425] drop7 <- fc7
2016-07-30 10:29:23.348 STDERR [INFO] I0730 10:29:23.347666  3031 net.cpp:386] drop7 -> fc7 (in-place)
2016-07-30 10:29:23.348 STDERR [INFO] I0730 10:29:23.347703  3031 net.cpp:141] Setting up drop7
2016-07-30 10:29:23.348 STDERR [INFO] I0730 10:29:23.347712  3031 net.cpp:148] Top shape: 10 4096 (40960)
2016-07-30 10:29:23.348 STDERR [INFO] I0730 10:29:23.347717  3031 net.cpp:156] Memory required for data: 68601400
2016-07-30 10:29:23.348 STDERR [INFO] I0730 10:29:23.347720  3031 layer_factory.hpp:77] Creating layer fc8
2016-07-30 10:29:23.348 STDERR [INFO] I0730 10:29:23.347738  3031 net.cpp:91] Creating Layer fc8
2016-07-30 10:29:23.348 STDERR [INFO] I0730 10:29:23.347743  3031 net.cpp:425] fc8 <- fc7
2016-07-30 10:29:23.348 STDERR [INFO] I0730 10:29:23.347749  3031 net.cpp:399] fc8 -> fc8
2016-07-30 10:29:23.360 STDERR [INFO] I0730 10:29:23.360196  3031 net.cpp:141] Setting up fc8
2016-07-30 10:29:23.360 STDERR [INFO] I0730 10:29:23.360252  3031 net.cpp:148] Top shape: 10 1000 (10000)
2016-07-30 10:29:23.360 STDERR [INFO] I0730 10:29:23.360260  3031 net.cpp:156] Memory required for data: 68641400
2016-07-30 10:29:23.361 STDERR [INFO] I0730 10:29:23.360275  3031 layer_factory.hpp:77] Creating layer prob
2016-07-30 10:29:23.361 STDERR [INFO] I0730 10:29:23.360288  3031 net.cpp:91] Creating Layer prob
2016-07-30 10:29:23.361 STDERR [INFO] I0730 10:29:23.360294  3031 net.cpp:425] prob <- fc8
2016-07-30 10:29:23.361 STDERR [INFO] I0730 10:29:23.360311  3031 net.cpp:399] prob -> prob
2016-07-30 10:29:23.361 STDERR [INFO] I0730 10:29:23.360710  3031 net.cpp:141] Setting up prob
2016-07-30 10:29:23.361 STDERR [INFO] I0730 10:29:23.360721  3031 net.cpp:148] Top shape: 10 1000 (10000)
2016-07-30 10:29:23.361 STDERR [INFO] I0730 10:29:23.360726  3031 net.cpp:156] Memory required for data: 68681400
2016-07-30 10:29:23.361 STDERR [INFO] I0730 10:29:23.360733  3031 net.cpp:219] prob does not need backward computation.
2016-07-30 10:29:23.361 STDERR [INFO] I0730 10:29:23.360738  3031 net.cpp:219] fc8 does not need backward computation.
2016-07-30 10:29:23.361 STDERR [INFO] I0730 10:29:23.360741  3031 net.cpp:219] drop7 does not need backward computation.
…
2016-07-30 10:29:23.363 STDERR [INFO] I0730 10:29:23.360833  3031 net.cpp:219] conv1 does not need backward computation.
2016-07-30 10:29:23.363 STDERR [INFO] I0730 10:29:23.360837  3031 net.cpp:219] data does not need backward computation.
2016-07-30 10:29:23.363 STDERR [INFO] I0730 10:29:23.360841  3031 net.cpp:261] This network produces output prob
2016-07-30 10:29:23.363 STDERR [INFO] I0730 10:29:23.360859  3031 net.cpp:274] Network initialization done.
2016-07-30 10:29:23.368 STDERR [INFO] I0730 10:29:23.368670  3020 net.cpp:141] Setting up lstm2_transform_1
2016-07-30 10:29:23.369 STDERR [INFO] I0730 10:29:23.368721  3020 net.cpp:148] Top shape: 1 1 4000 (4000)
2016-07-30 10:29:23.369 STDERR [INFO] I0730 10:29:23.368727  3020 net.cpp:156] Memory required for data: 66020
2016-07-30 10:29:23.369 STDERR [INFO] I0730 10:29:23.368744  3020 layer_factory.hpp:77] Creating layer lstm2_gate_input_1
2016-07-30 10:29:23.369 STDERR [INFO] I0730 10:29:23.368762  3020 net.cpp:91] Creating Layer lstm2_gate_input_1
2016-07-30 10:29:23.369 STDERR [INFO] I0730 10:29:23.368769  3020 net.cpp:425] lstm2_gate_input_1 <- W_hc_h_0
2016-07-30 10:29:23.369 STDERR [INFO] I0730 10:29:23.368777  3020 net.cpp:425] lstm2_gate_input_1 <- W_xc_x_1
2016-07-30 10:29:23.369 STDERR [INFO] I0730 10:29:23.368784  3020 net.cpp:399] lstm2_gate_input_1 -> gate_input_1
2016-07-30 10:29:23.369 STDERR [INFO] I0730 10:29:23.368832  3020 net.cpp:141] Setting up lstm2_gate_input_1
2016-07-30 10:29:23.369 STDERR [INFO] I0730 10:29:23.368841  3020 net.cpp:148] Top shape: 1 1 4000 (4000)
2016-07-30 10:29:23.369 STDERR [INFO] I0730 10:29:23.368845  3020 net.cpp:156] Memory required for data: 82020
2016-07-30 10:29:23.370 STDERR [INFO] I0730 10:29:23.368850  3020 layer_factory.hpp:77] Creating layer lstm2_unit_1
2016-07-30 10:29:23.370 STDERR [INFO] I0730 10:29:23.368859  3020 net.cpp:91] Creating Layer lstm2_unit_1
2016-07-30 10:29:23.370 STDERR [INFO] I0730 10:29:23.368862  3020 net.cpp:425] lstm2_unit_1 <- c_0
2016-07-30 10:29:23.370 STDERR [INFO] I0730 10:29:23.368868  3020 net.cpp:425] lstm2_unit_1 <- gate_input_1
2016-07-30 10:29:23.370 STDERR [INFO] I0730 10:29:23.368873  3020 net.cpp:425] lstm2_unit_1 <- cont_1_lstm2_cont_slice_0_split_1
2016-07-30 10:29:23.370 STDERR [INFO] I0730 10:29:23.368882  3020 net.cpp:399] lstm2_unit_1 -> c_1
2016-07-30 10:29:23.370 STDERR [INFO] I0730 10:29:23.368891  3020 net.cpp:399] lstm2_unit_1 -> h_1
2016-07-30 10:29:23.370 STDERR [INFO] I0730 10:29:23.368950  3020 net.cpp:141] Setting up lstm2_unit_1
2016-07-30 10:29:23.370 STDERR [INFO] I0730 10:29:23.368959  3020 net.cpp:148] Top shape: 1 1 1000 (1000)
2016-07-30 10:29:23.370 STDERR [INFO] I0730 10:29:23.368965  3020 net.cpp:148] Top shape: 1 1 1000 (1000)
2016-07-30 10:29:23.370 STDERR [INFO] I0730 10:29:23.368969  3020 net.cpp:156] Memory required for data: 90020
2016-07-30 10:29:23.370 STDERR [INFO] I0730 10:29:23.368974  3020 layer_factory.hpp:77] Creating layer lstm2_
2016-07-30 10:29:23.370 STDERR [INFO] I0730 10:29:23.368983  3020 net.cpp:91] Creating Layer lstm2_
2016-07-30 10:29:23.371 STDERR [INFO] I0730 10:29:23.368986  3020 net.cpp:425] lstm2_ <- c_1
2016-07-30 10:29:23.371 STDERR [INFO] I0730 10:29:23.368993  3020 net.cpp:399] lstm2_ -> c_T
2016-07-30 10:29:23.371 STDERR [INFO] I0730 10:29:23.369025  3020 net.cpp:141] Setting up lstm2_
2016-07-30 10:29:23.371 STDERR [INFO] I0730 10:29:23.369035  3020 net.cpp:148] Top shape: 1 1 1000 (1000)
2016-07-30 10:29:23.371 STDERR [INFO] I0730 10:29:23.369038  3020 net.cpp:156] Memory required for data: 94020
2016-07-30 10:29:23.371 STDERR [INFO] I0730 10:29:23.369043  3020 layer_factory.hpp:77] Creating layer lstm2_h_concat
2016-07-30 10:29:23.371 STDERR [INFO] I0730 10:29:23.369052  3020 net.cpp:91] Creating Layer lstm2_h_concat
2016-07-30 10:29:23.371 STDERR [INFO] I0730 10:29:23.369057  3020 net.cpp:425] lstm2_h_concat <- h_1
2016-07-30 10:29:23.371 STDERR [INFO] I0730 10:29:23.369063  3020 net.cpp:399] lstm2_h_concat -> h
2016-07-30 10:29:23.371 STDERR [INFO] I0730 10:29:23.369101  3020 net.cpp:141] Setting up lstm2_h_concat
2016-07-30 10:29:23.371 STDERR [INFO] I0730 10:29:23.369108  3020 net.cpp:148] Top shape: 1 1 1000 (1000)
2016-07-30 10:29:23.371 STDERR [INFO] I0730 10:29:23.369112  3020 net.cpp:156] Memory required for data: 98020
2016-07-30 10:29:23.371 STDERR [INFO] I0730 10:29:23.369117  3020 layer_factory.hpp:77] Creating layer h_pseudoloss
2016-07-30 10:29:23.371 STDERR [INFO] I0730 10:29:23.369125  3020 net.cpp:91] Creating Layer h_pseudoloss
2016-07-30 10:29:23.372 STDERR [INFO] I0730 10:29:23.369130  3020 net.cpp:425] h_pseudoloss <- h
…
