…
I0802 20:46:20.921304  2491 upgrade_proto.cpp:66] Attempting to upgrade input file specified using deprecated input fields: /tmp/cvld4521833262374099671/s2vt.words_to_preds.prototxt
I0802 20:46:20.921418  2491 upgrade_proto.cpp:69] Successfully upgraded file specified using deprecated input fields.
W0802 20:46:20.921428  2491 upgrade_proto.cpp:71] Note that future Caffe releases will only support input layers and not input fields.
I0802 20:46:20.921651  2501 net.cpp:49] Initializing net from parameters: 
name: "CaffeNet"
state {
  phase: TEST
}
layer {
  name: "data"
  type: "Input"
  top: "data"
  input_param {
    shape {
      dim: 10
      dim: 3
      dim: 227
      dim: 227
    }
  }
}
layer {
  name: "conv1"
  type: "Convolution"
  bottom: "data"
  top: "conv1"
  convolution_param {
    num_output: 96
    kernel_size: 11
    stride: 4
  }
}
layer {
  name: "relu1"
  type: "ReLU"
  bottom: "conv1"
  top: "conv1"
}
layer {
  name: "pool1"
  type: "Pooling"
  bottom: "conv1"
  top: "pool1"
  pooling_param {
    pool: MAX
    kernel_size: 3
    stride: 2
  }
}
layer {
  name: "norm1"
  type: "LRN"
  bottom: "pool1"
  top: "norm1"
  lrn_param {
    local_size: 5
    alpha: 0.0001
    beta: 0.75
  }
}
layer {
  name: "conv2"
  type: "Convolution"
  bottom: "norm1"
  top: "conv2"
  convolution_param {
    num_output: 256
    pad: 2
    kernel_size: 5
    group: 2
  }
}
layer {
  name: "relu2"
  type: "ReLU"
  bottom: "conv2"
  top: "conv2"
}
layer {
  name: "pool2"
  type: "Pooling"
  bottom: "conv2"
  top: "pool2"
  pooling_param {
    pool: MAX
    kernel_size: 3
    stride: 2
  }
}
layer {
  name: "norm2"
  type: "LRN"
  bottom: "pool2"
  top: "norm2"
  lrn_param {
    local_size: 5
    alpha: 0.0001
    beta: 0.75
  }
}
layer {
  name: "conv3"
  type: "Convolution"
  bottom: "norm2"
  top: "conv3"
  convolution_param {
    num_output: 384
    pad: 1
    kernel_size: 3
  }
}
layer {
  name: "relu3"
  type: "ReLU"
  bottom: "conv3"
  top: "conv3"
}
layer {
  name: "conv4"
  type: "Convolution"
  bottom: "conv3"
  top: "conv4"
  convolution_param {
    num_output: 384
    pad: 1
    kernel_size: 3
    group: 2
  }
}
layer {
  name: "relu4"
  type: "ReLU"
  bottom: "conv4"
  top: "conv4"
}
layer {
  name: "conv5"
  type: "Convolution"
  bottom: "conv4"
  top: "conv5"
  convolution_param {
    num_output: 256
    pad: 1
    kernel_size: 3
    group: 2
  }
}
layer {
  name: "relu5"
  type: "ReLU"
  bottom: "conv5"
  top: "conv5"
}
layer {
  name: "pool5"
  type: "Pooling"
  bottom: "conv5"
  top: "pool5"
  pooling_param {
    pool: MAX
    kernel_size: 3
    stride: 2
  }
}
layer {
  name: "fc6"
  type: "InnerProduct"
  bottom: "pool5"
  top: "fc6"
  inner_product_param {
    num_output: 4096
  }
}
layer {
  name: "relu6"
  type: "ReLU"
  bottom: "fc6"
  top: "fc6"
}
layer {
  name: "drop6"
  type: "Dropout"
  bottom: "fc6"
  top: "fc6"
  dropout_param {
    dropout_ratio: 0.5
  }
}
layer {
  name: "fc7"
  type: "InnerProduct"
  bottom: "fc6"
  top: "fc7"
  inner_product_param {
    num_output: 4096
  }
}
layer {
  name: "relu7"
  type: "ReLU"
  bottom: "fc7"
  top: "fc7"
}
layer {
  name: "drop7"
  type: "Dropout"
  bottom: "fc7"
  top: "fc7"
  dropout_param {
    dropout_ratio: 0.5
  }
}
layer {
  name: "fc8"
  type: "InnerProduct"
  bottom: "fc7"
  top: "fc8"
  inner_product_param {
    num_output: 1000
  }
}
layer {
  name: "prob"
  type: "Softmax"
  bottom: "fc8"
  top: "prob"
}
I0802 20:46:20.921659  2491 net.cpp:49] Initializing net from parameters: 
name: "s2vt:features_to_lstm"
state {
  phase: TEST
}
layer {
  name: "input"
  type: "Input"
  top: "frames_fc7"
  top: "cont_sentence"
  top: "input_sentence"
  top: "stage_indicator"
  input_param {
    shape {
      dim: 1
      dim: 4096
    }
    shape {
      dim: 1
      dim: 1
    }
    shape {
      dim: 1
      dim: 1
    }
    shape {
      dim: 1
      dim: 1
    }
  }
}
layer {
  name: "embed_encoder"
  type: "InnerProduct"
  bottom: "frames_fc7"
  top: "embedded_in_frames"
  param {
    lr_mult: 1
    decay_mult: 1
  }
  param {
    lr_mult: 2
    decay_mult: 0
  }
  inner_product_param {
    num_output: 500
    weight_filler {
      type: "xavier"
    }
    bias_filler {
      type: "constant"
      value: 0.2
    }
  }
}
layer {
  name: "reshape_frames"
  type: "Reshape"
  bottom: "embedded_in_frames"
  top: "embedded_input_frames"
  reshape_param {
    shape {
      dim: 1
      dim: 1
      dim: 500
    }
  }
}
layer {
  name: "reshape_stage_indicator"
  type: "Reshape"
  bottom: "stage_indicator"
  top: "reshaped_stage_indicator"
  reshape_param {
    shape {
      dim: 1
      dim: 1
      dim: 1
    }
  }
}
layer {
  name: "embedding"
  type: "Embed"
  bottom: "input_sentence"
  top: "embedded_input_sentence"
  param {
    lr_mult: 1
  }
  embed_param {
    num_output: 500
    input_dim: 46168
    bias_term: false
    weight_filler {
      type: "uniform"
      min: -0.08
      max: 0.08
    }
  }
}
layer {
  name: "lstm1"
  type: "LSTM"
  bottom: "embedded_input_frames"
  bottom: "cont_sentence"
  top: "lstm1"
  recurrent_param {
    num_output: 1000
    weight_filler {
      type: "uniform"
      min: -0.08
      max: 0.08
    }
    bias_filler {
      type: "constant"
      value: 0
    }
  }
}
layer {
  name: "concat"
  type: "Concat"
  bottom: "lstm1"
  bottom: "embedded_input_sentence"
  bottom: "reshaped_stage_indicator"
  top: "lstm1_video_sequence"
  concat_param {
    concat_dim: 2
  }
}
layer {
  name: "lstm2"
  type: "LSTM"
  bottom: "lstm1_video_sequence"
  bottom: "cont_sentence"
  top: "lstm2"
  recurrent_param {
    num_output: 1000
    weight_filler {
      type: "uniform"
      min: -0.08
      max: 0.08
    }
    bias_filler {
      type: "constant"
      value: 0
    }
  }
}
layer {
  name: "predict"
  type: "InnerProduct"
  bottom: "lstm2"
  top: "predict"
  param {
    lr_mult: 1
    decay_mult: 1
  }
  param {
    lr_mult: 2
    decay_mult: 0
  }
  inner_product_param {
    num_output: 46168
    weight_filler {
      type: "uniform"
      min: -0.08
      max: 0.08
    }
    bias_filler {
      type: "constant"
      value: 0
    }
    axis: 2
  }
}
layer {
  name: "probs"
  type: "Softmax"
  bottom: "predict"
  top: "probs"
  softmax_param {
    axis: 2
  }
}
I0802 20:46:20.921782  2501 layer_factory.hpp:77] Creating layer data
I0802 20:46:20.921792  2491 layer_factory.hpp:77] Creating layer input
I0802 20:46:20.921811  2491 net.cpp:91] Creating Layer input
I0802 20:46:20.921811  2501 net.cpp:91] Creating Layer data
I0802 20:46:20.921823  2491 net.cpp:399] input -> frames_fc7
I0802 20:46:20.921823  2501 net.cpp:399] data -> data
I0802 20:46:20.921870  2491 net.cpp:399] input -> cont_sentence
I0802 20:46:20.921885  2491 net.cpp:399] input -> input_sentence
I0802 20:46:20.921895  2491 net.cpp:399] input -> stage_indicator
I0802 20:46:21.998172  2501 net.cpp:141] Setting up data
I0802 20:46:21.998265  2501 net.cpp:148] Top shape: 10 3 227 227 (1545870)
I0802 20:46:21.998275  2501 net.cpp:156] Memory required for data: 6183480
I0802 20:46:21.998298  2501 layer_factory.hpp:77] Creating layer conv1
I0802 20:46:21.998307  2491 net.cpp:141] Setting up input
I0802 20:46:21.998333  2501 net.cpp:91] Creating Layer conv1
I0802 20:46:21.998333  2491 net.cpp:148] Top shape: 1 4096 (4096)
I0802 20:46:21.998343  2501 net.cpp:425] conv1 <- data
I0802 20:46:21.998348  2491 net.cpp:148] Top shape: 1 1 (1)
I0802 20:46:21.998361  2501 net.cpp:399] conv1 -> conv1
I0802 20:46:21.998364  2491 net.cpp:148] Top shape: 1 1 (1)
I0802 20:46:21.998378  2491 net.cpp:148] Top shape: 1 1 (1)
I0802 20:46:21.998385  2491 net.cpp:156] Memory required for data: 16396
I0802 20:46:21.998395  2491 layer_factory.hpp:77] Creating layer cont_sentence_input_1_split
I0802 20:46:21.998420  2491 net.cpp:91] Creating Layer cont_sentence_input_1_split
I0802 20:46:21.998430  2491 net.cpp:425] cont_sentence_input_1_split <- cont_sentence
I0802 20:46:21.998462  2491 net.cpp:399] cont_sentence_input_1_split -> cont_sentence_input_1_split_0
I0802 20:46:21.998481  2491 net.cpp:399] cont_sentence_input_1_split -> cont_sentence_input_1_split_1
I0802 20:46:21.999419  2491 net.cpp:141] Setting up cont_sentence_input_1_split
I0802 20:46:21.999461  2491 net.cpp:148] Top shape: 1 1 (1)
I0802 20:46:21.999469  2491 net.cpp:148] Top shape: 1 1 (1)
I0802 20:46:21.999474  2491 net.cpp:156] Memory required for data: 16404
I0802 20:46:21.999481  2491 layer_factory.hpp:77] Creating layer embed_encoder
I0802 20:46:21.999511  2491 net.cpp:91] Creating Layer embed_encoder
I0802 20:46:21.999518  2491 net.cpp:425] embed_encoder <- frames_fc7
I0802 20:46:21.999536  2491 net.cpp:399] embed_encoder -> embedded_in_frames
I0802 20:46:22.024842  2491 net.cpp:141] Setting up embed_encoder
I0802 20:46:22.024896  2491 net.cpp:148] Top shape: 1 500 (500)
I0802 20:46:22.024906  2491 net.cpp:156] Memory required for data: 18404
I0802 20:46:22.024948  2491 layer_factory.hpp:77] Creating layer reshape_frames
I0802 20:46:22.024988  2491 net.cpp:91] Creating Layer reshape_frames
I0802 20:46:22.025003  2491 net.cpp:425] reshape_frames <- embedded_in_frames
I0802 20:46:22.025025  2491 net.cpp:399] reshape_frames -> embedded_input_frames
I0802 20:46:22.025110  2491 net.cpp:141] Setting up reshape_frames
I0802 20:46:22.025126  2491 net.cpp:148] Top shape: 1 1 500 (500)
I0802 20:46:22.025133  2491 net.cpp:156] Memory required for data: 20404
I0802 20:46:22.025141  2491 layer_factory.hpp:77] Creating layer reshape_stage_indicator
I0802 20:46:22.025158  2491 net.cpp:91] Creating Layer reshape_stage_indicator
I0802 20:46:22.025167  2491 net.cpp:425] reshape_stage_indicator <- stage_indicator
I0802 20:46:22.025182  2491 net.cpp:399] reshape_stage_indicator -> reshaped_stage_indicator
I0802 20:46:22.026650  2491 net.cpp:141] Setting up reshape_stage_indicator
I0802 20:46:22.026676  2491 net.cpp:148] Top shape: 1 1 1 (1)
I0802 20:46:22.026687  2491 net.cpp:156] Memory required for data: 20408
I0802 20:46:22.026697  2491 layer_factory.hpp:77] Creating layer embedding
I0802 20:46:22.026720  2491 net.cpp:91] Creating Layer embedding
I0802 20:46:22.026731  2491 net.cpp:425] embedding <- input_sentence
I0802 20:46:22.026749  2491 net.cpp:399] embedding -> embedded_input_sentence
I0802 20:46:22.278821  2491 net.cpp:141] Setting up embedding
I0802 20:46:22.278880  2491 net.cpp:148] Top shape: 1 1 500 (500)
I0802 20:46:22.278890  2491 net.cpp:156] Memory required for data: 22408
I0802 20:46:22.278920  2491 layer_factory.hpp:77] Creating layer lstm1
I0802 20:46:22.278954  2491 net.cpp:91] Creating Layer lstm1
I0802 20:46:22.278966  2491 net.cpp:425] lstm1 <- embedded_input_frames
I0802 20:46:22.278980  2491 net.cpp:425] lstm1 <- cont_sentence_input_1_split_0
I0802 20:46:22.278996  2491 net.cpp:399] lstm1 -> lstm1
I0802 20:46:22.279049  2491 recurrent_layer.cpp:20] Initializing recurrent layer: assuming input batch contains 1 timesteps of 1 independent streams.
I0802 20:46:22.279705  2491 net.cpp:49] Initializing net from parameters: 
layer {
  name: "lstm1_"
  type: "Input"
  top: "x"
  top: "cont"
  input_param {
    shape {
      dim: 1
      dim: 1
      dim: 500
    }
    shape {
      dim: 1
      dim: 1
    }
  }
}
layer {
  name: "lstm1_"
  type: "Input"
  top: "c_0"
  top: "h_0"
  input_param {
    shape {
      dim: 1
      dim: 1
      dim: 1000
    }
    shape {
      dim: 1
      dim: 1
      dim: 1000
    }
  }
}
layer {
  name: "lstm1_cont_slice"
  type: "Slice"
  bottom: "cont"
  top: "cont_1"
  slice_param {
    axis: 0
  }
}
layer {
  name: "lstm1_x_transform"
  type: "InnerProduct"
  bottom: "x"
  top: "W_xc_x"
  param {
    name: "W_xc"
  }
  param {
    name: "b_c"
  }
  propagate_down: true
  inner_product_param {
    num_output: 4000
    bias_term: true
    weight_filler {
      type: "uniform"
      min: -0.08
      max: 0.08
    }
    bias_filler {
      type: "constant"
      value: 0
    }
    axis: 2
  }
}
layer {
  name: "lstm1_W_xc_x_slice"
  type: "Slice"
  bottom: "W_xc_x"
  top: "W_xc_x_1"
  slice_param {
    axis: 0
  }
}
layer {
  name: "lstm1_h_conted_0"
  type: "Scale"
  bottom: "h_0"
  bottom: "cont_1"
  top: "h_conted_0"
  scale_param {
    axis: 0
  }
}
layer {
  name: "lstm1_transform_1"
  type: "InnerProduct"
  bottom: "h_conted_0"
  top: "W_hc_h_0"
  param {
    name: "W_hc"
  }
  inner_product_param {
    num_output: 4000
    bias_term: false
    weight_filler {
      type: "uniform"
      min: -0.08
      max: 0.08
    }
    axis: 2
  }
}
layer {
  name: "lstm1_gate_input_1"
  type: "Eltwise"
  bottom: "W_hc_h_0"
  bottom: "W_xc_x_1"
  top: "gate_input_1"
  eltwise_param {
    operation: SUM
  }
}
layer {
  name: "lstm1_unit_1"
  type: "LSTMUnit"
  bottom: "c_0"
  bottom: "gate_input_1"
  bottom: "cont_1"
  top: "c_1"
  top: "h_1"
}
layer {
  name: "lstm1_"
  type: "Split"
  bottom: "c_1"
  top: "c_T"
}
layer {
  name: "lstm1_h_concat"
  type: "Concat"
  bottom: "h_1"
  top: "h"
  concat_param {
    axis: 0
  }
}
layer {
  name: "h_pseudoloss"
  type: "Reduction"
  bottom: "h"
  top: "h_pseudoloss"
  loss_weight: 1
}
I0802 20:46:22.279875  2491 layer_factory.hpp:77] Creating layer lstm1_
I0802 20:46:22.279901  2491 net.cpp:91] Creating Layer lstm1_
I0802 20:46:22.279916  2491 net.cpp:399] lstm1_ -> x
I0802 20:46:22.279939  2491 net.cpp:399] lstm1_ -> cont
I0802 20:46:22.280601  2491 net.cpp:141] Setting up lstm1_
I0802 20:46:22.280629  2491 net.cpp:148] Top shape: 1 1 500 (500)
I0802 20:46:22.280644  2491 net.cpp:148] Top shape: 1 1 (1)
I0802 20:46:22.280653  2491 net.cpp:156] Memory required for data: 2004
I0802 20:46:22.280663  2491 layer_factory.hpp:77] Creating layer lstm1_
I0802 20:46:22.280680  2491 net.cpp:91] Creating Layer lstm1_
I0802 20:46:22.280694  2491 net.cpp:399] lstm1_ -> c_0
I0802 20:46:22.280721  2491 net.cpp:399] lstm1_ -> h_0
I0802 20:46:22.281440  2491 net.cpp:141] Setting up lstm1_
I0802 20:46:22.281462  2491 net.cpp:148] Top shape: 1 1 1000 (1000)
I0802 20:46:22.281476  2491 net.cpp:148] Top shape: 1 1 1000 (1000)
I0802 20:46:22.281486  2491 net.cpp:156] Memory required for data: 10004
I0802 20:46:22.281497  2491 layer_factory.hpp:77] Creating layer lstm1_cont_slice
I0802 20:46:22.281513  2491 net.cpp:91] Creating Layer lstm1_cont_slice
I0802 20:46:22.281524  2491 net.cpp:425] lstm1_cont_slice <- cont
I0802 20:46:22.281548  2491 net.cpp:399] lstm1_cont_slice -> cont_1
I0802 20:46:22.282215  2491 net.cpp:141] Setting up lstm1_cont_slice
I0802 20:46:22.282238  2491 net.cpp:148] Top shape: 1 1 (1)
I0802 20:46:22.282248  2491 net.cpp:156] Memory required for data: 10008
I0802 20:46:22.282258  2491 layer_factory.hpp:77] Creating layer cont_1_lstm1_cont_slice_0_split
I0802 20:46:22.282272  2491 net.cpp:91] Creating Layer cont_1_lstm1_cont_slice_0_split
I0802 20:46:22.282284  2491 net.cpp:425] cont_1_lstm1_cont_slice_0_split <- cont_1
I0802 20:46:22.282302  2491 net.cpp:399] cont_1_lstm1_cont_slice_0_split -> cont_1_lstm1_cont_slice_0_split_0
I0802 20:46:22.282325  2491 net.cpp:399] cont_1_lstm1_cont_slice_0_split -> cont_1_lstm1_cont_slice_0_split_1
I0802 20:46:22.282533  2491 net.cpp:141] Setting up cont_1_lstm1_cont_slice_0_split
I0802 20:46:22.282554  2491 net.cpp:148] Top shape: 1 1 (1)
I0802 20:46:22.282567  2491 net.cpp:148] Top shape: 1 1 (1)
I0802 20:46:22.282577  2491 net.cpp:156] Memory required for data: 10016
I0802 20:46:22.282585  2491 layer_factory.hpp:77] Creating layer lstm1_x_transform
I0802 20:46:22.282613  2491 net.cpp:91] Creating Layer lstm1_x_transform
I0802 20:46:22.282625  2491 net.cpp:425] lstm1_x_transform <- x
I0802 20:46:22.282644  2491 net.cpp:399] lstm1_x_transform -> W_xc_x
I0802 20:46:22.290882  2501 net.cpp:141] Setting up conv1
I0802 20:46:22.290931  2501 net.cpp:148] Top shape: 10 96 55 55 (2904000)
I0802 20:46:22.290937  2501 net.cpp:156] Memory required for data: 17799480
I0802 20:46:22.290963  2501 layer_factory.hpp:77] Creating layer relu1
I0802 20:46:22.290987  2501 net.cpp:91] Creating Layer relu1
I0802 20:46:22.290995  2501 net.cpp:425] relu1 <- conv1
I0802 20:46:22.291004  2501 net.cpp:386] relu1 -> conv1 (in-place)
I0802 20:46:22.291484  2501 net.cpp:141] Setting up relu1
I0802 20:46:22.291499  2501 net.cpp:148] Top shape: 10 96 55 55 (2904000)
I0802 20:46:22.291506  2501 net.cpp:156] Memory required for data: 29415480
I0802 20:46:22.291510  2501 layer_factory.hpp:77] Creating layer pool1
I0802 20:46:22.291524  2501 net.cpp:91] Creating Layer pool1
I0802 20:46:22.291530  2501 net.cpp:425] pool1 <- conv1
I0802 20:46:22.291540  2501 net.cpp:399] pool1 -> pool1
I0802 20:46:22.291637  2501 net.cpp:141] Setting up pool1
I0802 20:46:22.291651  2501 net.cpp:148] Top shape: 10 96 27 27 (699840)
I0802 20:46:22.291656  2501 net.cpp:156] Memory required for data: 32214840
I0802 20:46:22.291661  2501 layer_factory.hpp:77] Creating layer norm1
I0802 20:46:22.291679  2501 net.cpp:91] Creating Layer norm1
I0802 20:46:22.291684  2501 net.cpp:425] norm1 <- pool1
I0802 20:46:22.291697  2501 net.cpp:399] norm1 -> norm1
I0802 20:46:22.292204  2501 net.cpp:141] Setting up norm1
I0802 20:46:22.292219  2501 net.cpp:148] Top shape: 10 96 27 27 (699840)
I0802 20:46:22.292224  2501 net.cpp:156] Memory required for data: 35014200
I0802 20:46:22.292230  2501 layer_factory.hpp:77] Creating layer conv2
I0802 20:46:22.292249  2501 net.cpp:91] Creating Layer conv2
I0802 20:46:22.292255  2501 net.cpp:425] conv2 <- norm1
I0802 20:46:22.292263  2501 net.cpp:399] conv2 -> conv2
I0802 20:46:22.302491  2501 net.cpp:141] Setting up conv2
I0802 20:46:22.302544  2501 net.cpp:148] Top shape: 10 256 27 27 (1866240)
I0802 20:46:22.302551  2501 net.cpp:156] Memory required for data: 42479160
I0802 20:46:22.302574  2501 layer_factory.hpp:77] Creating layer relu2
I0802 20:46:22.302599  2501 net.cpp:91] Creating Layer relu2
I0802 20:46:22.302608  2501 net.cpp:425] relu2 <- conv2
I0802 20:46:22.302616  2501 net.cpp:386] relu2 -> conv2 (in-place)
I0802 20:46:22.303073  2501 net.cpp:141] Setting up relu2
I0802 20:46:22.303087  2501 net.cpp:148] Top shape: 10 256 27 27 (1866240)
I0802 20:46:22.303092  2501 net.cpp:156] Memory required for data: 49944120
I0802 20:46:22.303098  2501 layer_factory.hpp:77] Creating layer pool2
I0802 20:46:22.303110  2501 net.cpp:91] Creating Layer pool2
I0802 20:46:22.303115  2501 net.cpp:425] pool2 <- conv2
I0802 20:46:22.303123  2501 net.cpp:399] pool2 -> pool2
I0802 20:46:22.303194  2501 net.cpp:141] Setting up pool2
I0802 20:46:22.303205  2501 net.cpp:148] Top shape: 10 256 13 13 (432640)
I0802 20:46:22.303210  2501 net.cpp:156] Memory required for data: 51674680
I0802 20:46:22.303217  2501 layer_factory.hpp:77] Creating layer norm2
I0802 20:46:22.303236  2501 net.cpp:91] Creating Layer norm2
I0802 20:46:22.303241  2501 net.cpp:425] norm2 <- pool2
I0802 20:46:22.303251  2501 net.cpp:399] norm2 -> norm2
I0802 20:46:22.303544  2501 net.cpp:141] Setting up norm2
I0802 20:46:22.303556  2501 net.cpp:148] Top shape: 10 256 13 13 (432640)
I0802 20:46:22.303561  2501 net.cpp:156] Memory required for data: 53405240
I0802 20:46:22.303566  2501 layer_factory.hpp:77] Creating layer conv3
I0802 20:46:22.303586  2501 net.cpp:91] Creating Layer conv3
I0802 20:46:22.303592  2501 net.cpp:425] conv3 <- norm2
I0802 20:46:22.303599  2501 net.cpp:399] conv3 -> conv3
I0802 20:46:22.308325  2501 net.cpp:141] Setting up conv3
I0802 20:46:22.308368  2501 net.cpp:148] Top shape: 10 384 13 13 (648960)
I0802 20:46:22.308374  2501 net.cpp:156] Memory required for data: 56001080
I0802 20:46:22.308398  2501 layer_factory.hpp:77] Creating layer relu3
I0802 20:46:22.308423  2501 net.cpp:91] Creating Layer relu3
I0802 20:46:22.308429  2501 net.cpp:425] relu3 <- conv3
I0802 20:46:22.308447  2501 net.cpp:386] relu3 -> conv3 (in-place)
I0802 20:46:22.308892  2501 net.cpp:141] Setting up relu3
I0802 20:46:22.308907  2501 net.cpp:148] Top shape: 10 384 13 13 (648960)
I0802 20:46:22.308912  2501 net.cpp:156] Memory required for data: 58596920
I0802 20:46:22.308917  2501 layer_factory.hpp:77] Creating layer conv4
I0802 20:46:22.308938  2501 net.cpp:91] Creating Layer conv4
I0802 20:46:22.308943  2501 net.cpp:425] conv4 <- conv3
I0802 20:46:22.308954  2501 net.cpp:399] conv4 -> conv4
I0802 20:46:22.313730  2501 net.cpp:141] Setting up conv4
I0802 20:46:22.313782  2501 net.cpp:148] Top shape: 10 384 13 13 (648960)
I0802 20:46:22.313789  2501 net.cpp:156] Memory required for data: 61192760
I0802 20:46:22.313805  2501 layer_factory.hpp:77] Creating layer relu4
I0802 20:46:22.313830  2501 net.cpp:91] Creating Layer relu4
I0802 20:46:22.313838  2501 net.cpp:425] relu4 <- conv4
I0802 20:46:22.313848  2501 net.cpp:386] relu4 -> conv4 (in-place)
I0802 20:46:22.314291  2501 net.cpp:141] Setting up relu4
I0802 20:46:22.314306  2501 net.cpp:148] Top shape: 10 384 13 13 (648960)
I0802 20:46:22.314311  2501 net.cpp:156] Memory required for data: 63788600
I0802 20:46:22.314323  2501 layer_factory.hpp:77] Creating layer conv5
I0802 20:46:22.314345  2501 net.cpp:91] Creating Layer conv5
I0802 20:46:22.314352  2501 net.cpp:425] conv5 <- conv4
I0802 20:46:22.314363  2501 net.cpp:399] conv5 -> conv5
I0802 20:46:22.318277  2491 net.cpp:141] Setting up lstm1_x_transform
I0802 20:46:22.318330  2491 net.cpp:148] Top shape: 1 1 4000 (4000)
I0802 20:46:22.318341  2491 net.cpp:156] Memory required for data: 26016
I0802 20:46:22.318373  2491 layer_factory.hpp:77] Creating layer lstm1_W_xc_x_slice
I0802 20:46:22.318399  2491 net.cpp:91] Creating Layer lstm1_W_xc_x_slice
I0802 20:46:22.318413  2491 net.cpp:425] lstm1_W_xc_x_slice <- W_xc_x
I0802 20:46:22.318439  2491 net.cpp:399] lstm1_W_xc_x_slice -> W_xc_x_1
I0802 20:46:22.318550  2491 net.cpp:141] Setting up lstm1_W_xc_x_slice
I0802 20:46:22.318572  2491 net.cpp:148] Top shape: 1 1 4000 (4000)
I0802 20:46:22.318581  2491 net.cpp:156] Memory required for data: 42016
I0802 20:46:22.318590  2491 layer_factory.hpp:77] Creating layer lstm1_h_conted_0
I0802 20:46:22.318608  2491 net.cpp:91] Creating Layer lstm1_h_conted_0
I0802 20:46:22.318617  2491 net.cpp:425] lstm1_h_conted_0 <- h_0
I0802 20:46:22.318629  2491 net.cpp:425] lstm1_h_conted_0 <- cont_1_lstm1_cont_slice_0_split_0
I0802 20:46:22.318651  2491 net.cpp:399] lstm1_h_conted_0 -> h_conted_0
I0802 20:46:22.319010  2491 net.cpp:141] Setting up lstm1_h_conted_0
I0802 20:46:22.319032  2491 net.cpp:148] Top shape: 1 1 1000 (1000)
I0802 20:46:22.319042  2491 net.cpp:156] Memory required for data: 46016
I0802 20:46:22.319052  2491 layer_factory.hpp:77] Creating layer lstm1_transform_1
I0802 20:46:22.319077  2491 net.cpp:91] Creating Layer lstm1_transform_1
I0802 20:46:22.319089  2491 net.cpp:425] lstm1_transform_1 <- h_conted_0
I0802 20:46:22.319116  2491 net.cpp:399] lstm1_transform_1 -> W_hc_h_0
I0802 20:46:22.319159  2501 net.cpp:141] Setting up conv5
I0802 20:46:22.319176  2501 net.cpp:148] Top shape: 10 256 13 13 (432640)
I0802 20:46:22.319182  2501 net.cpp:156] Memory required for data: 65519160
I0802 20:46:22.319202  2501 layer_factory.hpp:77] Creating layer relu5
I0802 20:46:22.319213  2501 net.cpp:91] Creating Layer relu5
I0802 20:46:22.319219  2501 net.cpp:425] relu5 <- conv5
I0802 20:46:22.319227  2501 net.cpp:386] relu5 -> conv5 (in-place)
I0802 20:46:22.329319  2501 net.cpp:141] Setting up relu5
I0802 20:46:22.329376  2501 net.cpp:148] Top shape: 10 256 13 13 (432640)
I0802 20:46:22.329383  2501 net.cpp:156] Memory required for data: 67249720
I0802 20:46:22.329393  2501 layer_factory.hpp:77] Creating layer pool5
I0802 20:46:22.329416  2501 net.cpp:91] Creating Layer pool5
I0802 20:46:22.329422  2501 net.cpp:425] pool5 <- conv5
I0802 20:46:22.329434  2501 net.cpp:399] pool5 -> pool5
I0802 20:46:22.329536  2501 net.cpp:141] Setting up pool5
I0802 20:46:22.329547  2501 net.cpp:148] Top shape: 10 256 6 6 (92160)
I0802 20:46:22.329552  2501 net.cpp:156] Memory required for data: 67618360
I0802 20:46:22.329557  2501 layer_factory.hpp:77] Creating layer fc6
I0802 20:46:22.329577  2501 net.cpp:91] Creating Layer fc6
I0802 20:46:22.329583  2501 net.cpp:425] fc6 <- pool5
I0802 20:46:22.329591  2501 net.cpp:399] fc6 -> fc6
I0802 20:46:22.399426  2491 net.cpp:141] Setting up lstm1_transform_1
I0802 20:46:22.399478  2491 net.cpp:148] Top shape: 1 1 4000 (4000)
I0802 20:46:22.399485  2491 net.cpp:156] Memory required for data: 62016
I0802 20:46:22.399510  2491 layer_factory.hpp:77] Creating layer lstm1_gate_input_1
I0802 20:46:22.399538  2491 net.cpp:91] Creating Layer lstm1_gate_input_1
I0802 20:46:22.399545  2491 net.cpp:425] lstm1_gate_input_1 <- W_hc_h_0
I0802 20:46:22.399554  2491 net.cpp:425] lstm1_gate_input_1 <- W_xc_x_1
I0802 20:46:22.399562  2491 net.cpp:399] lstm1_gate_input_1 -> gate_input_1
I0802 20:46:22.399637  2491 net.cpp:141] Setting up lstm1_gate_input_1
I0802 20:46:22.399648  2491 net.cpp:148] Top shape: 1 1 4000 (4000)
I0802 20:46:22.399653  2491 net.cpp:156] Memory required for data: 78016
I0802 20:46:22.399658  2491 layer_factory.hpp:77] Creating layer lstm1_unit_1
I0802 20:46:22.399667  2491 net.cpp:91] Creating Layer lstm1_unit_1
I0802 20:46:22.399672  2491 net.cpp:425] lstm1_unit_1 <- c_0
I0802 20:46:22.399679  2491 net.cpp:425] lstm1_unit_1 <- gate_input_1
I0802 20:46:22.399685  2491 net.cpp:425] lstm1_unit_1 <- cont_1_lstm1_cont_slice_0_split_1
I0802 20:46:22.399696  2491 net.cpp:399] lstm1_unit_1 -> c_1
I0802 20:46:22.399708  2491 net.cpp:399] lstm1_unit_1 -> h_1
I0802 20:46:22.399778  2491 net.cpp:141] Setting up lstm1_unit_1
I0802 20:46:22.399790  2491 net.cpp:148] Top shape: 1 1 1000 (1000)
I0802 20:46:22.399796  2491 net.cpp:148] Top shape: 1 1 1000 (1000)
I0802 20:46:22.399801  2491 net.cpp:156] Memory required for data: 86016
I0802 20:46:22.399806  2491 layer_factory.hpp:77] Creating layer lstm1_
I0802 20:46:22.399814  2491 net.cpp:91] Creating Layer lstm1_
I0802 20:46:22.399819  2491 net.cpp:425] lstm1_ <- c_1
I0802 20:46:22.399827  2491 net.cpp:399] lstm1_ -> c_T
I0802 20:46:22.399864  2491 net.cpp:141] Setting up lstm1_
I0802 20:46:22.399874  2491 net.cpp:148] Top shape: 1 1 1000 (1000)
I0802 20:46:22.399879  2491 net.cpp:156] Memory required for data: 90016
I0802 20:46:22.399884  2491 layer_factory.hpp:77] Creating layer lstm1_h_concat
I0802 20:46:22.399895  2491 net.cpp:91] Creating Layer lstm1_h_concat
I0802 20:46:22.399900  2491 net.cpp:425] lstm1_h_concat <- h_1
I0802 20:46:22.399907  2491 net.cpp:399] lstm1_h_concat -> h
I0802 20:46:22.399956  2491 net.cpp:141] Setting up lstm1_h_concat
I0802 20:46:22.399966  2491 net.cpp:148] Top shape: 1 1 1000 (1000)
I0802 20:46:22.399971  2491 net.cpp:156] Memory required for data: 94016
I0802 20:46:22.399976  2491 layer_factory.hpp:77] Creating layer h_pseudoloss
I0802 20:46:22.399996  2491 net.cpp:91] Creating Layer h_pseudoloss
I0802 20:46:22.400002  2491 net.cpp:425] h_pseudoloss <- h
I0802 20:46:22.400009  2491 net.cpp:399] h_pseudoloss -> h_pseudoloss
I0802 20:46:22.400132  2491 net.cpp:141] Setting up h_pseudoloss
…
I0802 20:46:22.400259  2491 net.cpp:219] lstm1_ does not need backward computation.
I0802 20:46:22.400264  2491 net.cpp:261] This network produces output c_T
I0802 20:46:22.400269  2491 net.cpp:261] This network produces output h_pseudoloss
I0802 20:46:22.400295  2491 net.cpp:274] Network initialization done.
I0802 20:46:22.400360  2491 recurrent_layer.cpp:150] Adding parameter 0: W_xc
I0802 20:46:22.400367  2491 recurrent_layer.cpp:150] Adding parameter 1: b_c
I0802 20:46:22.400372  2491 recurrent_layer.cpp:150] Adding parameter 2: W_hc
I0802 20:46:22.400504  2491 net.cpp:141] Setting up lstm1
I0802 20:46:22.400518  2491 net.cpp:148] Top shape: 1 1 1000 (1000)
I0802 20:46:22.400523  2491 net.cpp:156] Memory required for data: 26408
I0802 20:46:22.400538  2491 layer_factory.hpp:77] Creating layer concat
I0802 20:46:22.400548  2491 net.cpp:91] Creating Layer concat
I0802 20:46:22.400554  2491 net.cpp:425] concat <- lstm1
I0802 20:46:22.400562  2491 net.cpp:425] concat <- embedded_input_sentence
I0802 20:46:22.400568  2491 net.cpp:425] concat <- reshaped_stage_indicator
I0802 20:46:22.400574  2491 net.cpp:399] concat -> lstm1_video_sequence
I0802 20:46:22.400612  2491 net.cpp:141] Setting up concat
I0802 20:46:22.400621  2491 net.cpp:148] Top shape: 1 1 1501 (1501)
I0802 20:46:22.400626  2491 net.cpp:156] Memory required for data: 32412
I0802 20:46:22.400631  2491 layer_factory.hpp:77] Creating layer lstm2
I0802 20:46:22.400645  2491 net.cpp:91] Creating Layer lstm2
I0802 20:46:22.400650  2491 net.cpp:425] lstm2 <- lstm1_video_sequence
I0802 20:46:22.400656  2491 net.cpp:425] lstm2 <- cont_sentence_input_1_split_1
I0802 20:46:22.400665  2491 net.cpp:399] lstm2 -> lstm2
I0802 20:46:22.400676  2491 recurrent_layer.cpp:20] Initializing recurrent layer: assuming input batch contains 1 timesteps of 1 independent streams.
I0802 20:46:22.400949  2491 net.cpp:49] Initializing net from parameters: 
layer {
  name: "lstm2_"
  type: "Input"
  top: "x"
  top: "cont"
  input_param {
    shape {
      dim: 1
      dim: 1
      dim: 1501
    }
    shape {
      dim: 1
      dim: 1
    }
  }
}
layer {
  name: "lstm2_"
  type: "Input"
  top: "c_0"
  top: "h_0"
  input_param {
    shape {
      dim: 1
      dim: 1
      dim: 1000
    }
    shape {
      dim: 1
      dim: 1
      dim: 1000
    }
  }
}
layer {
  name: "lstm2_cont_slice"
  type: "Slice"
  bottom: "cont"
  top: "cont_1"
  slice_param {
    axis: 0
  }
}
layer {
  name: "lstm2_x_transform"
  type: "InnerProduct"
  bottom: "x"
  top: "W_xc_x"
  param {
    name: "W_xc"
  }
  param {
    name: "b_c"
  }
  propagate_down: true
  inner_product_param {
    num_output: 4000
    bias_term: true
    weight_filler {
      type: "uniform"
      min: -0.08
      max: 0.08
    }
    bias_filler {
      type: "constant"
      value: 0
    }
    axis: 2
  }
}
layer {
  name: "lstm2_W_xc_x_slice"
  type: "Slice"
  bottom: "W_xc_x"
  top: "W_xc_x_1"
  slice_param {
    axis: 0
  }
}
layer {
  name: "lstm2_h_conted_0"
  type: "Scale"
  bottom: "h_0"
  bottom: "cont_1"
  top: "h_conted_0"
  scale_param {
    axis: 0
  }
}
layer {
  name: "lstm2_transform_1"
  type: "InnerProduct"
  bottom: "h_conted_0"
  top: "W_hc_h_0"
  param {
    name: "W_hc"
  }
  inner_product_param {
    num_output: 4000
    bias_term: false
    weight_filler {
      type: "uniform"
      min: -0.08
      max: 0.08
    }
    axis: 2
  }
}
layer {
  name: "lstm2_gate_input_1"
  type: "Eltwise"
  bottom: "W_hc_h_0"
  bottom: "W_xc_x_1"
  top: "gate_input_1"
  eltwise_param {
    operation: SUM
  }
}
layer {
  name: "lstm2_unit_1"
  type: "LSTMUnit"
  bottom: "c_0"
  bottom: "gate_input_1"
  bottom: "cont_1"
  top: "c_1"
  top: "h_1"
}
layer {
  name: "lstm2_"
  type: "Split"
  bottom: "c_1"
  top: "c_T"
}
layer {
  name: "lstm2_h_concat"
  type: "Concat"
  bottom: "h_1"
  top: "h"
  concat_param {
    axis: 0
  }
}
layer {
  name: "h_pseudoloss"
  type: "Reduction"
  bottom: "h"
  top: "h_pseudoloss"
  loss_weight: 1
}
I0802 20:46:22.401044  2491 layer_factory.hpp:77] Creating layer lstm2_
I0802 20:46:22.401058  2491 net.cpp:91] Creating Layer lstm2_
I0802 20:46:22.401065  2491 net.cpp:399] lstm2_ -> x
I0802 20:46:22.401077  2491 net.cpp:399] lstm2_ -> cont
I0802 20:46:22.401139  2491 net.cpp:141] Setting up lstm2_
I0802 20:46:22.401149  2491 net.cpp:148] Top shape: 1 1 1501 (1501)
I0802 20:46:22.401155  2491 net.cpp:148] Top shape: 1 1 (1)
I0802 20:46:22.401160  2491 net.cpp:156] Memory required for data: 6008
I0802 20:46:22.401165  2491 layer_factory.hpp:77] Creating layer lstm2_
I0802 20:46:22.401175  2491 net.cpp:91] Creating Layer lstm2_
I0802 20:46:22.401185  2491 net.cpp:399] lstm2_ -> c_0
I0802 20:46:22.401196  2491 net.cpp:399] lstm2_ -> h_0
I0802 20:46:22.401252  2491 net.cpp:141] Setting up lstm2_
I0802 20:46:22.401262  2491 net.cpp:148] Top shape: 1 1 1000 (1000)
I0802 20:46:22.401268  2491 net.cpp:148] Top shape: 1 1 1000 (1000)
I0802 20:46:22.401271  2491 net.cpp:156] Memory required for data: 14008
I0802 20:46:22.401276  2491 layer_factory.hpp:77] Creating layer lstm2_cont_slice
I0802 20:46:22.401293  2491 net.cpp:91] Creating Layer lstm2_cont_slice
I0802 20:46:22.401298  2491 net.cpp:425] lstm2_cont_slice <- cont
I0802 20:46:22.401305  2491 net.cpp:399] lstm2_cont_slice -> cont_1
I0802 20:46:22.401341  2491 net.cpp:141] Setting up lstm2_cont_slice
I0802 20:46:22.401360  2491 net.cpp:148] Top shape: 1 1 (1)
I0802 20:46:22.401365  2491 net.cpp:156] Memory required for data: 14012
I0802 20:46:22.401370  2491 layer_factory.hpp:77] Creating layer cont_1_lstm2_cont_slice_0_split
I0802 20:46:22.401381  2491 net.cpp:91] Creating Layer cont_1_lstm2_cont_slice_0_split
I0802 20:46:22.401387  2491 net.cpp:425] cont_1_lstm2_cont_slice_0_split <- cont_1
I0802 20:46:22.401394  2491 net.cpp:399] cont_1_lstm2_cont_slice_0_split -> cont_1_lstm2_cont_slice_0_split_0
I0802 20:46:22.401402  2491 net.cpp:399] cont_1_lstm2_cont_slice_0_split -> cont_1_lstm2_cont_slice_0_split_1
I0802 20:46:22.401458  2491 net.cpp:141] Setting up cont_1_lstm2_cont_slice_0_split
I0802 20:46:22.401468  2491 net.cpp:148] Top shape: 1 1 (1)
I0802 20:46:22.401475  2491 net.cpp:148] Top shape: 1 1 (1)
I0802 20:46:22.401479  2491 net.cpp:156] Memory required for data: 14020
I0802 20:46:22.401484  2491 layer_factory.hpp:77] Creating layer lstm2_x_transform
I0802 20:46:22.401497  2491 net.cpp:91] Creating Layer lstm2_x_transform
I0802 20:46:22.401504  2491 net.cpp:425] lstm2_x_transform <- x
I0802 20:46:22.401511  2491 net.cpp:399] lstm2_x_transform -> W_xc_x
I0802 20:46:22.443704  2501 net.cpp:141] Setting up fc6
I0802 20:46:22.443758  2501 net.cpp:148] Top shape: 10 4096 (40960)
I0802 20:46:22.443764  2501 net.cpp:156] Memory required for data: 67782200
I0802 20:46:22.443784  2501 layer_factory.hpp:77] Creating layer relu6
I0802 20:46:22.443805  2501 net.cpp:91] Creating Layer relu6
I0802 20:46:22.443812  2501 net.cpp:425] relu6 <- fc6
I0802 20:46:22.443822  2501 net.cpp:386] relu6 -> fc6 (in-place)
I0802 20:46:22.444214  2501 net.cpp:141] Setting up relu6
I0802 20:46:22.444228  2501 net.cpp:148] Top shape: 10 4096 (40960)
I0802 20:46:22.444233  2501 net.cpp:156] Memory required for data: 67946040
I0802 20:46:22.444239  2501 layer_factory.hpp:77] Creating layer drop6
I0802 20:46:22.444252  2501 net.cpp:91] Creating Layer drop6
I0802 20:46:22.444258  2501 net.cpp:425] drop6 <- fc6
I0802 20:46:22.444265  2501 net.cpp:386] drop6 -> fc6 (in-place)
I0802 20:46:22.444317  2501 net.cpp:141] Setting up drop6
I0802 20:46:22.444327  2501 net.cpp:148] Top shape: 10 4096 (40960)
I0802 20:46:22.444332  2501 net.cpp:156] Memory required for data: 68109880
I0802 20:46:22.444337  2501 layer_factory.hpp:77] Creating layer fc7
I0802 20:46:22.444352  2501 net.cpp:91] Creating Layer fc7
I0802 20:46:22.444358  2501 net.cpp:425] fc7 <- fc6
I0802 20:46:22.444368  2501 net.cpp:399] fc7 -> fc7
I0802 20:46:22.479573  2491 net.cpp:141] Setting up lstm2_x_transform
I0802 20:46:22.479624  2491 net.cpp:148] Top shape: 1 1 4000 (4000)
I0802 20:46:22.479630  2491 net.cpp:156] Memory required for data: 30020
I0802 20:46:22.479653  2491 layer_factory.hpp:77] Creating layer lstm2_W_xc_x_slice
I0802 20:46:22.479678  2491 net.cpp:91] Creating Layer lstm2_W_xc_x_slice
I0802 20:46:22.479686  2491 net.cpp:425] lstm2_W_xc_x_slice <- W_xc_x
I0802 20:46:22.479697  2491 net.cpp:399] lstm2_W_xc_x_slice -> W_xc_x_1
I0802 20:46:22.479748  2491 net.cpp:141] Setting up lstm2_W_xc_x_slice
I0802 20:46:22.479758  2491 net.cpp:148] Top shape: 1 1 4000 (4000)
I0802 20:46:22.479763  2491 net.cpp:156] Memory required for data: 46020
I0802 20:46:22.479768  2491 layer_factory.hpp:77] Creating layer lstm2_h_conted_0
I0802 20:46:22.479779  2491 net.cpp:91] Creating Layer lstm2_h_conted_0
I0802 20:46:22.479784  2491 net.cpp:425] lstm2_h_conted_0 <- h_0
I0802 20:46:22.479795  2491 net.cpp:425] lstm2_h_conted_0 <- cont_1_lstm2_cont_slice_0_split_0
I0802 20:46:22.479804  2491 net.cpp:399] lstm2_h_conted_0 -> h_conted_0
I0802 20:46:22.479909  2491 net.cpp:141] Setting up lstm2_h_conted_0
I0802 20:46:22.479920  2491 net.cpp:148] Top shape: 1 1 1000 (1000)
I0802 20:46:22.479924  2491 net.cpp:156] Memory required for data: 50020
I0802 20:46:22.479929  2491 layer_factory.hpp:77] Creating layer lstm2_transform_1
I0802 20:46:22.479948  2491 net.cpp:91] Creating Layer lstm2_transform_1
I0802 20:46:22.479954  2491 net.cpp:425] lstm2_transform_1 <- h_conted_0
I0802 20:46:22.479962  2491 net.cpp:399] lstm2_transform_1 -> W_hc_h_0
I0802 20:46:22.498965  2501 net.cpp:141] Setting up fc7
I0802 20:46:22.499018  2501 net.cpp:148] Top shape: 10 4096 (40960)
I0802 20:46:22.499025  2501 net.cpp:156] Memory required for data: 68273720
I0802 20:46:22.499043  2501 layer_factory.hpp:77] Creating layer relu7
I0802 20:46:22.499085  2501 net.cpp:91] Creating Layer relu7
I0802 20:46:22.499094  2501 net.cpp:425] relu7 <- fc7
I0802 20:46:22.499109  2501 net.cpp:386] relu7 -> fc7 (in-place)
I0802 20:46:22.500015  2501 net.cpp:141] Setting up relu7
I0802 20:46:22.500031  2501 net.cpp:148] Top shape: 10 4096 (40960)
I0802 20:46:22.500036  2501 net.cpp:156] Memory required for data: 68437560
I0802 20:46:22.500042  2501 layer_factory.hpp:77] Creating layer drop7
I0802 20:46:22.500066  2501 net.cpp:91] Creating Layer drop7
I0802 20:46:22.500072  2501 net.cpp:425] drop7 <- fc7
I0802 20:46:22.500082  2501 net.cpp:386] drop7 -> fc7 (in-place)
I0802 20:46:22.500144  2501 net.cpp:141] Setting up drop7
I0802 20:46:22.500155  2501 net.cpp:148] Top shape: 10 4096 (40960)
I0802 20:46:22.500160  2501 net.cpp:156] Memory required for data: 68601400
I0802 20:46:22.500165  2501 layer_factory.hpp:77] Creating layer fc8
I0802 20:46:22.500179  2501 net.cpp:91] Creating Layer fc8
I0802 20:46:22.500183  2501 net.cpp:425] fc8 <- fc7
I0802 20:46:22.500190  2501 net.cpp:399] fc8 -> fc8
I0802 20:46:22.512913  2501 net.cpp:141] Setting up fc8
I0802 20:46:22.512964  2501 net.cpp:148] Top shape: 10 1000 (10000)
I0802 20:46:22.512971  2501 net.cpp:156] Memory required for data: 68641400
I0802 20:46:22.512986  2501 layer_factory.hpp:77] Creating layer prob
I0802 20:46:22.513010  2501 net.cpp:91] Creating Layer prob
I0802 20:46:22.513017  2501 net.cpp:425] prob <- fc8
I0802 20:46:22.513027  2501 net.cpp:399] prob -> prob
I0802 20:46:22.513553  2501 net.cpp:141] Setting up prob
I0802 20:46:22.513567  2501 net.cpp:148] Top shape: 10 1000 (10000)
I0802 20:46:22.513572  2501 net.cpp:156] Memory required for data: 68681400
I0802 20:46:22.513578  2501 net.cpp:219] prob does not need backward computation.
I0802 20:46:22.513584  2501 net.cpp:219] fc8 does not need backward computation.
I0802 20:46:22.513589  2501 net.cpp:219] drop7 does not need backward computation.
I0802 20:46:22.513593  2501 net.cpp:219] relu7 does not need backward computation.
…
I0802 20:46:22.513674  2501 net.cpp:219] norm1 does not need backward computation.
I0802 20:46:22.513679  2501 net.cpp:219] pool1 does not need backward computation.
I0802 20:46:22.513684  2501 net.cpp:219] relu1 does not need backward computation.
I0802 20:46:22.513689  2501 net.cpp:219] conv1 does not need backward computation.
I0802 20:46:22.513694  2501 net.cpp:219] data does not need backward computation.
I0802 20:46:22.513697  2501 net.cpp:261] This network produces output prob
I0802 20:46:22.513721  2501 net.cpp:274] Network initialization done.
I0802 20:46:22.525665  2491 net.cpp:141] Setting up lstm2_transform_1
I0802 20:46:22.525723  2491 net.cpp:148] Top shape: 1 1 4000 (4000)
I0802 20:46:22.525730  2491 net.cpp:156] Memory required for data: 66020
I0802 20:46:22.525756  2491 layer_factory.hpp:77] Creating layer lstm2_gate_input_1
I0802 20:46:22.525781  2491 net.cpp:91] Creating Layer lstm2_gate_input_1
I0802 20:46:22.525790  2491 net.cpp:425] lstm2_gate_input_1 <- W_hc_h_0
I0802 20:46:22.525799  2491 net.cpp:425] lstm2_gate_input_1 <- W_xc_x_1
I0802 20:46:22.525807  2491 net.cpp:399] lstm2_gate_input_1 -> gate_input_1
I0802 20:46:22.525876  2491 net.cpp:141] Setting up lstm2_gate_input_1
I0802 20:46:22.525887  2491 net.cpp:148] Top shape: 1 1 4000 (4000)
I0802 20:46:22.525892  2491 net.cpp:156] Memory required for data: 82020
I0802 20:46:22.525897  2491 layer_factory.hpp:77] Creating layer lstm2_unit_1
I0802 20:46:22.525907  2491 net.cpp:91] Creating Layer lstm2_unit_1
I0802 20:46:22.525912  2491 net.cpp:425] lstm2_unit_1 <- c_0
I0802 20:46:22.525923  2491 net.cpp:425] lstm2_unit_1 <- gate_input_1
I0802 20:46:22.525929  2491 net.cpp:425] lstm2_unit_1 <- cont_1_lstm2_cont_slice_0_split_1
I0802 20:46:22.525936  2491 net.cpp:399] lstm2_unit_1 -> c_1
I0802 20:46:22.525945  2491 net.cpp:399] lstm2_unit_1 -> h_1
I0802 20:46:22.526023  2491 net.cpp:141] Setting up lstm2_unit_1
I0802 20:46:22.526034  2491 net.cpp:148] Top shape: 1 1 1000 (1000)
I0802 20:46:22.526041  2491 net.cpp:148] Top shape: 1 1 1000 (1000)
I0802 20:46:22.526046  2491 net.cpp:156] Memory required for data: 90020
I0802 20:46:22.526051  2491 layer_factory.hpp:77] Creating layer lstm2_
I0802 20:46:22.526059  2491 net.cpp:91] Creating Layer lstm2_
I0802 20:46:22.526064  2491 net.cpp:425] lstm2_ <- c_1
I0802 20:46:22.526072  2491 net.cpp:399] lstm2_ -> c_T
I0802 20:46:22.526110  2491 net.cpp:141] Setting up lstm2_
I0802 20:46:22.526120  2491 net.cpp:148] Top shape: 1 1 1000 (1000)
I0802 20:46:22.526125  2491 net.cpp:156] Memory required for data: 94020
I0802 20:46:22.526130  2491 layer_factory.hpp:77] Creating layer lstm2_h_concat
I0802 20:46:22.526142  2491 net.cpp:91] Creating Layer lstm2_h_concat
I0802 20:46:22.526149  2491 net.cpp:425] lstm2_h_concat <- h_1
I0802 20:46:22.526155  2491 net.cpp:399] lstm2_h_concat -> h
I0802 20:46:22.526643  2491 net.cpp:141] Setting up lstm2_h_concat
I0802 20:46:22.526664  2491 net.cpp:148] Top shape: 1 1 1000 (1000)
I0802 20:46:22.526669  2491 net.cpp:156] Memory required for data: 98020
I0802 20:46:22.526674  2491 layer_factory.hpp:77] Creating layer h_pseudoloss
I0802 20:46:22.526689  2491 net.cpp:91] Creating Layer h_pseudoloss
I0802 20:46:22.526693  2491 net.cpp:425] h_pseudoloss <- h
I0802 20:46:22.526703  2491 net.cpp:399] h_pseudoloss -> h_pseudoloss
I0802 20:46:22.526823  2491 net.cpp:141] Setting up h_pseudoloss
…
