…
Java HotSpot(TM) 64-Bit Server VM warning: You have loaded library /tmp/cvld8409467759359149387/libopencv_java310.xine1.so which might have disabled stack guard. The VM will try to fix the stack guard now.
It's highly recommended that you fix the library with 'execstack -c <libfile>', or link it with '-z noexecstack'.
WARNING: Logging before InitGoogleLogging() is written to STDERR
I0802 06:51:23.116387 24376 net.cpp:49] Initializing net from parameters: 
name: "CaffeNet"
state {
  phase: TEST
}
layer {
  name: "data"
  type: "Input"
  top: "data"
  input_param {
    shape {
      dim: 10
      dim: 3
      dim: 227
      dim: 227
    }
  }
}
layer {
  name: "conv1"
  type: "Convolution"
  bottom: "data"
  top: "conv1"
  convolution_param {
    num_output: 96
    kernel_size: 11
    stride: 4
  }
}
layer {
  name: "relu1"
  type: "ReLU"
  bottom: "conv1"
  top: "conv1"
}
layer {
  name: "pool1"
  type: "Pooling"
  bottom: "conv1"
  top: "pool1"
  pooling_param {
    pool: MAX
    kernel_size: 3
    stride: 2
  }
}
layer {
  name: "norm1"
  type: "LRN"
  bottom: "pool1"
  top: "norm1"
  lrn_param {
    local_size: 5
    alpha: 0.0001
    beta: 0.75
  }
}
layer {
  name: "conv2"
  type: "Convolution"
  bottom: "norm1"
  top: "conv2"
  convolution_param {
    num_output: 256
    pad: 2
    kernel_size: 5
    group: 2
  }
}
layer {
  name: "relu2"
  type: "ReLU"
  bottom: "conv2"
  top: "conv2"
}
layer {
  name: "pool2"
  type: "Pooling"
  bottom: "conv2"
  top: "pool2"
  pooling_param {
    pool: MAX
    kernel_size: 3
    stride: 2
  }
}
layer {
  name: "norm2"
  type: "LRN"
  bottom: "pool2"
  top: "norm2"
  lrn_param {
    local_size: 5
    alpha: 0.0001
    beta: 0.75
  }
}
layer {
  name: "conv3"
  type: "Convolution"
  bottom: "norm2"
  top: "conv3"
  convolution_param {
    num_output: 384
    pad: 1
    kernel_size: 3
  }
}
layer {
  name: "relu3"
  type: "ReLU"
  bottom: "conv3"
  top: "conv3"
}
layer {
  name: "conv4"
  type: "Convolution"
  bottom: "conv3"
  top: "conv4"
  convolution_param {
    num_output: 384
    pad: 1
    kernel_size: 3
    group: 2
  }
}
layer {
  name: "relu4"
  type: "ReLU"
  bottom: "conv4"
  top: "conv4"
}
layer {
  name: "conv5"
  type: "Convolution"
  bottom: "conv4"
  top: "conv5"
  convolution_param {
    num_output: 256
    pad: 1
    kernel_size: 3
    group: 2
  }
}
layer {
  name: "relu5"
  type: "ReLU"
  bottom: "conv5"
  top: "conv5"
}
layer {
  name: "pool5"
  type: "Pooling"
  bottom: "conv5"
  top: "pool5"
  pooling_param {
    pool: MAX
    kernel_size: 3
    stride: 2
  }
}
layer {
  name: "fc6"
  type: "InnerProduct"
  bottom: "pool5"
  top: "fc6"
  inner_product_param {
    num_output: 4096
  }
}
layer {
  name: "relu6"
  type: "ReLU"
  bottom: "fc6"
  top: "fc6"
}
layer {
  name: "drop6"
  type: "Dropout"
  bottom: "fc6"
  top: "fc6"
  dropout_param {
    dropout_ratio: 0.5
  }
}
layer {
  name: "fc7"
  type: "InnerProduct"
  bottom: "fc6"
  top: "fc7"
  inner_product_param {
    num_output: 4096
  }
}
layer {
  name: "relu7"
  type: "ReLU"
  bottom: "fc7"
  top: "fc7"
}
layer {
  name: "drop7"
  type: "Dropout"
  bottom: "fc7"
  top: "fc7"
  dropout_param {
    dropout_ratio: 0.5
  }
}
layer {
  name: "fc8"
  type: "InnerProduct"
  bottom: "fc7"
  top: "fc8"
  inner_product_param {
    num_output: 1000
  }
}
layer {
  name: "prob"
  type: "Softmax"
  bottom: "fc8"
  top: "prob"
}
I0802 06:51:23.116600 24376 layer_factory.hpp:77] Creating layer data
I0802 06:51:23.116627 24376 net.cpp:91] Creating Layer data
I0802 06:51:23.116638 24376 net.cpp:399] data -> data
I0802 06:51:23.665725 24376 net.cpp:141] Setting up data
I0802 06:51:23.665838 24376 net.cpp:148] Top shape: 10 3 227 227 (1545870)
I0802 06:51:23.665848 24376 net.cpp:156] Memory required for data: 6183480
I0802 06:51:23.665877 24376 layer_factory.hpp:77] Creating layer conv1
I0802 06:51:23.665917 24376 net.cpp:91] Creating Layer conv1
I0802 06:51:23.665930 24376 net.cpp:425] conv1 <- data
I0802 06:51:23.665951 24376 net.cpp:399] conv1 -> conv1
I0802 06:51:23.666452 24366 upgrade_proto.cpp:66] Attempting to upgrade input file specified using deprecated input fields: /tmp/cvld8409467759359149387/s2vt.words_to_preds.prototxt
I0802 06:51:23.666498 24366 upgrade_proto.cpp:69] Successfully upgraded file specified using deprecated input fields.
W0802 06:51:23.666510 24366 upgrade_proto.cpp:71] Note that future Caffe releases will only support input layers and not input fields.
I0802 06:51:23.666877 24366 net.cpp:49] Initializing net from parameters: 
name: "s2vt:features_to_lstm"
state {
  phase: TEST
}
layer {
  name: "input"
  type: "Input"
  top: "frames_fc7"
  top: "cont_sentence"
  top: "input_sentence"
  top: "stage_indicator"
  input_param {
    shape {
      dim: 1
      dim: 4096
    }
    shape {
      dim: 1
      dim: 1
    }
    shape {
      dim: 1
      dim: 1
    }
    shape {
      dim: 1
      dim: 1
    }
  }
}
layer {
  name: "embed_encoder"
  type: "InnerProduct"
  bottom: "frames_fc7"
  top: "embedded_in_frames"
  param {
    lr_mult: 1
    decay_mult: 1
  }
  param {
    lr_mult: 2
    decay_mult: 0
  }
  inner_product_param {
    num_output: 500
    weight_filler {
      type: "xavier"
    }
    bias_filler {
      type: "constant"
      value: 0.2
    }
  }
}
layer {
  name: "reshape_frames"
  type: "Reshape"
  bottom: "embedded_in_frames"
  top: "embedded_input_frames"
  reshape_param {
    shape {
      dim: 1
      dim: 1
      dim: 500
    }
  }
}
layer {
  name: "reshape_stage_indicator"
  type: "Reshape"
  bottom: "stage_indicator"
  top: "reshaped_stage_indicator"
  reshape_param {
    shape {
      dim: 1
      dim: 1
      dim: 1
    }
  }
}
layer {
  name: "embedding"
  type: "Embed"
  bottom: "input_sentence"
  top: "embedded_input_sentence"
  param {
    lr_mult: 1
  }
  embed_param {
    num_output: 500
    input_dim: 46168
    bias_term: false
    weight_filler {
      type: "uniform"
      min: -0.08
      max: 0.08
    }
  }
}
layer {
  name: "lstm1"
  type: "LSTM"
  bottom: "embedded_input_frames"
  bottom: "cont_sentence"
  top: "lstm1"
  recurrent_param {
    num_output: 1000
    weight_filler {
      type: "uniform"
      min: -0.08
      max: 0.08
    }
    bias_filler {
      type: "constant"
      value: 0
    }
  }
}
layer {
  name: "concat"
  type: "Concat"
  bottom: "lstm1"
  bottom: "embedded_input_sentence"
  bottom: "reshaped_stage_indicator"
  top: "lstm1_video_sequence"
  concat_param {
    concat_dim: 2
  }
}
layer {
  name: "lstm2"
  type: "LSTM"
  bottom: "lstm1_video_sequence"
  bottom: "cont_sentence"
  top: "lstm2"
  recurrent_param {
    num_output: 1000
    weight_filler {
      type: "uniform"
      min: -0.08
      max: 0.08
    }
    bias_filler {
      type: "constant"
      value: 0
    }
  }
}
layer {
  name: "predict"
  type: "InnerProduct"
  bottom: "lstm2"
  top: "predict"
  param {
    lr_mult: 1
    decay_mult: 1
  }
  param {
    lr_mult: 2
    decay_mult: 0
  }
  inner_product_param {
    num_output: 46168
    weight_filler {
      type: "uniform"
      min: -0.08
      max: 0.08
    }
    bias_filler {
      type: "constant"
      value: 0
    }
    axis: 2
  }
}
layer {
  name: "probs"
  type: "Softmax"
  bottom: "predict"
  top: "probs"
  softmax_param {
    axis: 2
  }
}
I0802 06:51:23.667021 24366 layer_factory.hpp:77] Creating layer input
I0802 06:51:23.667042 24366 net.cpp:91] Creating Layer input
I0802 06:51:23.667052 24366 net.cpp:399] input -> frames_fc7
I0802 06:51:23.667074 24366 net.cpp:399] input -> cont_sentence
I0802 06:51:23.667089 24366 net.cpp:399] input -> input_sentence
I0802 06:51:23.667107 24366 net.cpp:399] input -> stage_indicator
I0802 06:51:23.667832 24366 net.cpp:141] Setting up input
I0802 06:51:23.667850 24366 net.cpp:148] Top shape: 1 4096 (4096)
I0802 06:51:23.667860 24366 net.cpp:148] Top shape: 1 1 (1)
I0802 06:51:23.667868 24366 net.cpp:148] Top shape: 1 1 (1)
I0802 06:51:23.667877 24366 net.cpp:148] Top shape: 1 1 (1)
I0802 06:51:23.667883 24366 net.cpp:156] Memory required for data: 16396
I0802 06:51:23.667891 24366 layer_factory.hpp:77] Creating layer cont_sentence_input_1_split
I0802 06:51:23.667917 24366 net.cpp:91] Creating Layer cont_sentence_input_1_split
I0802 06:51:23.667927 24366 net.cpp:425] cont_sentence_input_1_split <- cont_sentence
I0802 06:51:23.667958 24366 net.cpp:399] cont_sentence_input_1_split -> cont_sentence_input_1_split_0
I0802 06:51:23.667973 24366 net.cpp:399] cont_sentence_input_1_split -> cont_sentence_input_1_split_1
I0802 06:51:23.668061 24366 net.cpp:141] Setting up cont_sentence_input_1_split
I0802 06:51:23.668076 24366 net.cpp:148] Top shape: 1 1 (1)
I0802 06:51:23.668086 24366 net.cpp:148] Top shape: 1 1 (1)
I0802 06:51:23.668092 24366 net.cpp:156] Memory required for data: 16404
I0802 06:51:23.668099 24366 layer_factory.hpp:77] Creating layer embed_encoder
I0802 06:51:23.668124 24366 net.cpp:91] Creating Layer embed_encoder
I0802 06:51:23.668133 24366 net.cpp:425] embed_encoder <- frames_fc7
I0802 06:51:23.668148 24366 net.cpp:399] embed_encoder -> embedded_in_frames
I0802 06:51:23.703852 24366 net.cpp:141] Setting up embed_encoder
I0802 06:51:23.703898 24366 net.cpp:148] Top shape: 1 500 (500)
I0802 06:51:23.703905 24366 net.cpp:156] Memory required for data: 18404
I0802 06:51:23.703938 24366 layer_factory.hpp:77] Creating layer reshape_frames
I0802 06:51:23.703972 24366 net.cpp:91] Creating Layer reshape_frames
I0802 06:51:23.703984 24366 net.cpp:425] reshape_frames <- embedded_in_frames
I0802 06:51:23.703997 24366 net.cpp:399] reshape_frames -> embedded_input_frames
I0802 06:51:23.704092 24366 net.cpp:141] Setting up reshape_frames
I0802 06:51:23.704104 24366 net.cpp:148] Top shape: 1 1 500 (500)
I0802 06:51:23.704109 24366 net.cpp:156] Memory required for data: 20404
I0802 06:51:23.704118 24366 layer_factory.hpp:77] Creating layer reshape_stage_indicator
I0802 06:51:23.704138 24366 net.cpp:91] Creating Layer reshape_stage_indicator
I0802 06:51:23.704146 24366 net.cpp:425] reshape_stage_indicator <- stage_indicator
I0802 06:51:23.704159 24366 net.cpp:399] reshape_stage_indicator -> reshaped_stage_indicator
I0802 06:51:23.704987 24366 net.cpp:141] Setting up reshape_stage_indicator
I0802 06:51:23.704998 24366 net.cpp:148] Top shape: 1 1 1 (1)
I0802 06:51:23.705003 24366 net.cpp:156] Memory required for data: 20408
I0802 06:51:23.705008 24366 layer_factory.hpp:77] Creating layer embedding
I0802 06:51:23.705024 24366 net.cpp:91] Creating Layer embedding
I0802 06:51:23.705029 24366 net.cpp:425] embedding <- input_sentence
I0802 06:51:23.705040 24366 net.cpp:399] embedding -> embedded_input_sentence
I0802 06:51:23.939560 24376 net.cpp:141] Setting up conv1
I0802 06:51:23.939628 24376 net.cpp:148] Top shape: 10 96 55 55 (2904000)
I0802 06:51:23.939635 24376 net.cpp:156] Memory required for data: 17799480
I0802 06:51:23.939661 24376 layer_factory.hpp:77] Creating layer relu1
I0802 06:51:23.939679 24376 net.cpp:91] Creating Layer relu1
I0802 06:51:23.939687 24376 net.cpp:425] relu1 <- conv1
I0802 06:51:23.939694 24376 net.cpp:386] relu1 -> conv1 (in-place)
I0802 06:51:23.940152 24376 net.cpp:141] Setting up relu1
I0802 06:51:23.940167 24376 net.cpp:148] Top shape: 10 96 55 55 (2904000)
I0802 06:51:23.940171 24376 net.cpp:156] Memory required for data: 29415480
I0802 06:51:23.940177 24376 layer_factory.hpp:77] Creating layer pool1
I0802 06:51:23.940189 24376 net.cpp:91] Creating Layer pool1
I0802 06:51:23.940194 24376 net.cpp:425] pool1 <- conv1
I0802 06:51:23.940202 24376 net.cpp:399] pool1 -> pool1
I0802 06:51:23.940266 24376 net.cpp:141] Setting up pool1
I0802 06:51:23.940276 24376 net.cpp:148] Top shape: 10 96 27 27 (699840)
I0802 06:51:23.940281 24376 net.cpp:156] Memory required for data: 32214840
I0802 06:51:23.940286 24376 layer_factory.hpp:77] Creating layer norm1
I0802 06:51:23.940304 24376 net.cpp:91] Creating Layer norm1
I0802 06:51:23.940309 24376 net.cpp:425] norm1 <- pool1
I0802 06:51:23.940315 24376 net.cpp:399] norm1 -> norm1
I0802 06:51:23.940724 24366 net.cpp:141] Setting up embedding
I0802 06:51:23.940742 24366 net.cpp:148] Top shape: 1 1 500 (500)
I0802 06:51:23.940747 24366 net.cpp:156] Memory required for data: 22408
I0802 06:51:23.940760 24366 layer_factory.hpp:77] Creating layer lstm1
I0802 06:51:23.940778 24366 net.cpp:91] Creating Layer lstm1
I0802 06:51:23.940784 24366 net.cpp:425] lstm1 <- embedded_input_frames
I0802 06:51:23.940793 24366 net.cpp:425] lstm1 <- cont_sentence_input_1_split_0
I0802 06:51:23.940800 24366 net.cpp:399] lstm1 -> lstm1
I0802 06:51:23.940822 24366 recurrent_layer.cpp:20] Initializing recurrent layer: assuming input batch contains 1 timesteps of 1 independent streams.
I0802 06:51:23.940834 24376 net.cpp:141] Setting up norm1
I0802 06:51:23.940848 24376 net.cpp:148] Top shape: 10 96 27 27 (699840)
I0802 06:51:23.940853 24376 net.cpp:156] Memory required for data: 35014200
I0802 06:51:23.940858 24376 layer_factory.hpp:77] Creating layer conv2
I0802 06:51:23.940874 24376 net.cpp:91] Creating Layer conv2
I0802 06:51:23.940879 24376 net.cpp:425] conv2 <- norm1
I0802 06:51:23.940886 24376 net.cpp:399] conv2 -> conv2
I0802 06:51:23.941165 24366 net.cpp:49] Initializing net from parameters: 
layer {
  name: "lstm1_"
  type: "Input"
  top: "x"
  top: "cont"
  input_param {
    shape {
      dim: 1
      dim: 1
      dim: 500
    }
    shape {
      dim: 1
      dim: 1
    }
  }
}
layer {
  name: "lstm1_"
  type: "Input"
  top: "c_0"
  top: "h_0"
  input_param {
    shape {
      dim: 1
      dim: 1
      dim: 1000
    }
    shape {
      dim: 1
      dim: 1
      dim: 1000
    }
  }
}
layer {
  name: "lstm1_cont_slice"
  type: "Slice"
  bottom: "cont"
  top: "cont_1"
  slice_param {
    axis: 0
  }
}
layer {
  name: "lstm1_x_transform"
  type: "InnerProduct"
  bottom: "x"
  top: "W_xc_x"
  param {
    name: "W_xc"
  }
  param {
    name: "b_c"
  }
  propagate_down: true
  inner_product_param {
    num_output: 4000
    bias_term: true
    weight_filler {
      type: "uniform"
      min: -0.08
      max: 0.08
    }
    bias_filler {
      type: "constant"
      value: 0
    }
    axis: 2
  }
}
layer {
  name: "lstm1_W_xc_x_slice"
  type: "Slice"
  bottom: "W_xc_x"
  top: "W_xc_x_1"
  slice_param {
    axis: 0
  }
}
layer {
  name: "lstm1_h_conted_0"
  type: "Scale"
  bottom: "h_0"
  bottom: "cont_1"
  top: "h_conted_0"
  scale_param {
    axis: 0
  }
}
layer {
  name: "lstm1_transform_1"
  type: "InnerProduct"
  bottom: "h_conted_0"
  top: "W_hc_h_0"
  param {
    name: "W_hc"
  }
  inner_product_param {
    num_output: 4000
    bias_term: false
    weight_filler {
      type: "uniform"
      min: -0.08
      max: 0.08
    }
    axis: 2
  }
}
layer {
  name: "lstm1_gate_input_1"
  type: "Eltwise"
  bottom: "W_hc_h_0"
  bottom: "W_xc_x_1"
  top: "gate_input_1"
  eltwise_param {
    operation: SUM
  }
}
layer {
  name: "lstm1_unit_1"
  type: "LSTMUnit"
  bottom: "c_0"
  bottom: "gate_input_1"
  bottom: "cont_1"
  top: "c_1"
  top: "h_1"
}
layer {
  name: "lstm1_"
  type: "Split"
  bottom: "c_1"
  top: "c_T"
}
layer {
  name: "lstm1_h_concat"
  type: "Concat"
  bottom: "h_1"
  top: "h"
  concat_param {
    axis: 0
  }
}
layer {
  name: "h_pseudoloss"
  type: "Reduction"
  bottom: "h"
  top: "h_pseudoloss"
  loss_weight: 1
}
I0802 06:51:23.941257 24366 layer_factory.hpp:77] Creating layer lstm1_
I0802 06:51:23.941269 24366 net.cpp:91] Creating Layer lstm1_
I0802 06:51:23.941275 24366 net.cpp:399] lstm1_ -> x
I0802 06:51:23.941287 24366 net.cpp:399] lstm1_ -> cont
I0802 06:51:23.941989 24366 net.cpp:141] Setting up lstm1_
I0802 06:51:23.942006 24366 net.cpp:148] Top shape: 1 1 500 (500)
I0802 06:51:23.942013 24366 net.cpp:148] Top shape: 1 1 (1)
I0802 06:51:23.942018 24366 net.cpp:156] Memory required for data: 2004
I0802 06:51:23.942023 24366 layer_factory.hpp:77] Creating layer lstm1_
I0802 06:51:23.942039 24366 net.cpp:91] Creating Layer lstm1_
I0802 06:51:23.942045 24366 net.cpp:399] lstm1_ -> c_0
I0802 06:51:23.942056 24366 net.cpp:399] lstm1_ -> h_0
I0802 06:51:23.942165 24366 net.cpp:141] Setting up lstm1_
I0802 06:51:23.942176 24366 net.cpp:148] Top shape: 1 1 1000 (1000)
I0802 06:51:23.942183 24366 net.cpp:148] Top shape: 1 1 1000 (1000)
I0802 06:51:23.942186 24366 net.cpp:156] Memory required for data: 10004
I0802 06:51:23.942191 24366 layer_factory.hpp:77] Creating layer lstm1_cont_slice
I0802 06:51:23.942200 24366 net.cpp:91] Creating Layer lstm1_cont_slice
I0802 06:51:23.942205 24366 net.cpp:425] lstm1_cont_slice <- cont
I0802 06:51:23.942214 24366 net.cpp:399] lstm1_cont_slice -> cont_1
I0802 06:51:23.942361 24366 net.cpp:141] Setting up lstm1_cont_slice
I0802 06:51:23.942371 24366 net.cpp:148] Top shape: 1 1 (1)
I0802 06:51:23.942376 24366 net.cpp:156] Memory required for data: 10008
I0802 06:51:23.942380 24366 layer_factory.hpp:77] Creating layer cont_1_lstm1_cont_slice_0_split
I0802 06:51:23.942391 24366 net.cpp:91] Creating Layer cont_1_lstm1_cont_slice_0_split
I0802 06:51:23.942396 24366 net.cpp:425] cont_1_lstm1_cont_slice_0_split <- cont_1
I0802 06:51:23.942404 24366 net.cpp:399] cont_1_lstm1_cont_slice_0_split -> cont_1_lstm1_cont_slice_0_split_0
I0802 06:51:23.942412 24366 net.cpp:399] cont_1_lstm1_cont_slice_0_split -> cont_1_lstm1_cont_slice_0_split_1
I0802 06:51:23.942481 24366 net.cpp:141] Setting up cont_1_lstm1_cont_slice_0_split
I0802 06:51:23.942489 24366 net.cpp:148] Top shape: 1 1 (1)
I0802 06:51:23.942495 24366 net.cpp:148] Top shape: 1 1 (1)
I0802 06:51:23.942499 24366 net.cpp:156] Memory required for data: 10016
I0802 06:51:23.942503 24366 layer_factory.hpp:77] Creating layer lstm1_x_transform
I0802 06:51:23.942513 24366 net.cpp:91] Creating Layer lstm1_x_transform
I0802 06:51:23.942518 24366 net.cpp:425] lstm1_x_transform <- x
I0802 06:51:23.942525 24366 net.cpp:399] lstm1_x_transform -> W_xc_x
I0802 06:51:23.948168 24376 net.cpp:141] Setting up conv2
I0802 06:51:23.948191 24376 net.cpp:148] Top shape: 10 256 27 27 (1866240)
I0802 06:51:23.948197 24376 net.cpp:156] Memory required for data: 42479160
I0802 06:51:23.948213 24376 layer_factory.hpp:77] Creating layer relu2
I0802 06:51:23.948226 24376 net.cpp:91] Creating Layer relu2
I0802 06:51:23.948232 24376 net.cpp:425] relu2 <- conv2
I0802 06:51:23.948240 24376 net.cpp:386] relu2 -> conv2 (in-place)
I0802 06:51:23.948685 24376 net.cpp:141] Setting up relu2
I0802 06:51:23.948698 24376 net.cpp:148] Top shape: 10 256 27 27 (1866240)
I0802 06:51:23.948704 24376 net.cpp:156] Memory required for data: 49944120
I0802 06:51:23.948709 24376 layer_factory.hpp:77] Creating layer pool2
I0802 06:51:23.948719 24376 net.cpp:91] Creating Layer pool2
I0802 06:51:23.948724 24376 net.cpp:425] pool2 <- conv2
I0802 06:51:23.948732 24376 net.cpp:399] pool2 -> pool2
I0802 06:51:23.948786 24376 net.cpp:141] Setting up pool2
I0802 06:51:23.948794 24376 net.cpp:148] Top shape: 10 256 13 13 (432640)
I0802 06:51:23.948798 24376 net.cpp:156] Memory required for data: 51674680
I0802 06:51:23.948803 24376 layer_factory.hpp:77] Creating layer norm2
I0802 06:51:23.948815 24376 net.cpp:91] Creating Layer norm2
I0802 06:51:23.948820 24376 net.cpp:425] norm2 <- pool2
I0802 06:51:23.948827 24376 net.cpp:399] norm2 -> norm2
I0802 06:51:23.949069 24376 net.cpp:141] Setting up norm2
I0802 06:51:23.949080 24376 net.cpp:148] Top shape: 10 256 13 13 (432640)
I0802 06:51:23.949085 24376 net.cpp:156] Memory required for data: 53405240
I0802 06:51:23.949090 24376 layer_factory.hpp:77] Creating layer conv3
I0802 06:51:23.949105 24376 net.cpp:91] Creating Layer conv3
I0802 06:51:23.949110 24376 net.cpp:425] conv3 <- norm2
I0802 06:51:23.949117 24376 net.cpp:399] conv3 -> conv3
I0802 06:51:23.952857 24376 net.cpp:141] Setting up conv3
I0802 06:51:23.952874 24376 net.cpp:148] Top shape: 10 384 13 13 (648960)
I0802 06:51:23.952879 24376 net.cpp:156] Memory required for data: 56001080
I0802 06:51:23.952893 24376 layer_factory.hpp:77] Creating layer relu3
I0802 06:51:23.952903 24376 net.cpp:91] Creating Layer relu3
I0802 06:51:23.952908 24376 net.cpp:425] relu3 <- conv3
I0802 06:51:23.952919 24376 net.cpp:386] relu3 -> conv3 (in-place)
I0802 06:51:23.953351 24376 net.cpp:141] Setting up relu3
I0802 06:51:23.953364 24376 net.cpp:148] Top shape: 10 384 13 13 (648960)
I0802 06:51:23.953369 24376 net.cpp:156] Memory required for data: 58596920
I0802 06:51:23.953374 24376 layer_factory.hpp:77] Creating layer conv4
I0802 06:51:23.953387 24376 net.cpp:91] Creating Layer conv4
I0802 06:51:23.953392 24376 net.cpp:425] conv4 <- conv3
I0802 06:51:23.953400 24376 net.cpp:399] conv4 -> conv4
I0802 06:51:23.957331 24376 net.cpp:141] Setting up conv4
I0802 06:51:23.957347 24376 net.cpp:148] Top shape: 10 384 13 13 (648960)
I0802 06:51:23.957352 24376 net.cpp:156] Memory required for data: 61192760
I0802 06:51:23.957361 24376 layer_factory.hpp:77] Creating layer relu4
I0802 06:51:23.957370 24376 net.cpp:91] Creating Layer relu4
I0802 06:51:23.957376 24376 net.cpp:425] relu4 <- conv4
I0802 06:51:23.957386 24376 net.cpp:386] relu4 -> conv4 (in-place)
I0802 06:51:23.957830 24376 net.cpp:141] Setting up relu4
I0802 06:51:23.957844 24376 net.cpp:148] Top shape: 10 384 13 13 (648960)
I0802 06:51:23.957847 24376 net.cpp:156] Memory required for data: 63788600
I0802 06:51:23.957854 24376 layer_factory.hpp:77] Creating layer conv5
I0802 06:51:23.957867 24376 net.cpp:91] Creating Layer conv5
I0802 06:51:23.957872 24376 net.cpp:425] conv5 <- conv4
I0802 06:51:23.957880 24376 net.cpp:399] conv5 -> conv5
I0802 06:51:23.961817 24366 net.cpp:141] Setting up lstm1_x_transform
I0802 06:51:23.961834 24366 net.cpp:148] Top shape: 1 1 4000 (4000)
I0802 06:51:23.961839 24366 net.cpp:156] Memory required for data: 26016
I0802 06:51:23.961854 24366 layer_factory.hpp:77] Creating layer lstm1_W_xc_x_slice
I0802 06:51:23.961865 24366 net.cpp:91] Creating Layer lstm1_W_xc_x_slice
I0802 06:51:23.961871 24366 net.cpp:425] lstm1_W_xc_x_slice <- W_xc_x
I0802 06:51:23.961879 24366 net.cpp:399] lstm1_W_xc_x_slice -> W_xc_x_1
I0802 06:51:23.961947 24366 net.cpp:141] Setting up lstm1_W_xc_x_slice
I0802 06:51:23.961958 24366 net.cpp:148] Top shape: 1 1 4000 (4000)
I0802 06:51:23.961962 24366 net.cpp:156] Memory required for data: 42016
I0802 06:51:23.961967 24366 layer_factory.hpp:77] Creating layer lstm1_h_conted_0
I0802 06:51:23.961980 24366 net.cpp:91] Creating Layer lstm1_h_conted_0
I0802 06:51:23.961985 24366 net.cpp:425] lstm1_h_conted_0 <- h_0
I0802 06:51:23.961992 24366 net.cpp:425] lstm1_h_conted_0 <- cont_1_lstm1_cont_slice_0_split_0
I0802 06:51:23.961998 24366 net.cpp:399] lstm1_h_conted_0 -> h_conted_0
I0802 06:51:23.962054 24376 net.cpp:141] Setting up conv5
I0802 06:51:23.962069 24376 net.cpp:148] Top shape: 10 256 13 13 (432640)
I0802 06:51:23.962074 24376 net.cpp:156] Memory required for data: 65519160
I0802 06:51:23.962085 24376 layer_factory.hpp:77] Creating layer relu5
I0802 06:51:23.962095 24376 net.cpp:91] Creating Layer relu5
I0802 06:51:23.962100 24376 net.cpp:425] relu5 <- conv5
I0802 06:51:23.962110 24376 net.cpp:386] relu5 -> conv5 (in-place)
I0802 06:51:23.962127 24366 net.cpp:141] Setting up lstm1_h_conted_0
I0802 06:51:23.962138 24366 net.cpp:148] Top shape: 1 1 1000 (1000)
I0802 06:51:23.962142 24366 net.cpp:156] Memory required for data: 46016
I0802 06:51:23.962146 24366 layer_factory.hpp:77] Creating layer lstm1_transform_1
I0802 06:51:23.962162 24366 net.cpp:91] Creating Layer lstm1_transform_1
I0802 06:51:23.962168 24366 net.cpp:425] lstm1_transform_1 <- h_conted_0
I0802 06:51:23.962177 24366 net.cpp:399] lstm1_transform_1 -> W_hc_h_0
I0802 06:51:23.969732 24376 net.cpp:141] Setting up relu5
I0802 06:51:23.969789 24376 net.cpp:148] Top shape: 10 256 13 13 (432640)
I0802 06:51:23.969795 24376 net.cpp:156] Memory required for data: 67249720
I0802 06:51:23.969805 24376 layer_factory.hpp:77] Creating layer pool5
I0802 06:51:23.969827 24376 net.cpp:91] Creating Layer pool5
I0802 06:51:23.969833 24376 net.cpp:425] pool5 <- conv5
I0802 06:51:23.969844 24376 net.cpp:399] pool5 -> pool5
I0802 06:51:23.969936 24376 net.cpp:141] Setting up pool5
I0802 06:51:23.969945 24376 net.cpp:148] Top shape: 10 256 6 6 (92160)
I0802 06:51:23.969949 24376 net.cpp:156] Memory required for data: 67618360
I0802 06:51:23.969954 24376 layer_factory.hpp:77] Creating layer fc6
I0802 06:51:23.969970 24376 net.cpp:91] Creating Layer fc6
I0802 06:51:23.969975 24376 net.cpp:425] fc6 <- pool5
I0802 06:51:23.969982 24376 net.cpp:399] fc6 -> fc6
I0802 06:51:24.038156 24366 net.cpp:141] Setting up lstm1_transform_1
I0802 06:51:24.038766 24366 net.cpp:148] Top shape: 1 1 4000 (4000)
I0802 06:51:24.038781 24366 net.cpp:156] Memory required for data: 62016
I0802 06:51:24.038812 24366 layer_factory.hpp:77] Creating layer lstm1_gate_input_1
I0802 06:51:24.038847 24366 net.cpp:91] Creating Layer lstm1_gate_input_1
I0802 06:51:24.038861 24366 net.cpp:425] lstm1_gate_input_1 <- W_hc_h_0
I0802 06:51:24.038877 24366 net.cpp:425] lstm1_gate_input_1 <- W_xc_x_1
I0802 06:51:24.038892 24366 net.cpp:399] lstm1_gate_input_1 -> gate_input_1
I0802 06:51:24.039007 24366 net.cpp:141] Setting up lstm1_gate_input_1
I0802 06:51:24.039026 24366 net.cpp:148] Top shape: 1 1 4000 (4000)
I0802 06:51:24.039033 24366 net.cpp:156] Memory required for data: 78016
I0802 06:51:24.039041 24366 layer_factory.hpp:77] Creating layer lstm1_unit_1
I0802 06:51:24.039063 24366 net.cpp:91] Creating Layer lstm1_unit_1
I0802 06:51:24.039074 24366 net.cpp:425] lstm1_unit_1 <- c_0
I0802 06:51:24.039086 24366 net.cpp:425] lstm1_unit_1 <- gate_input_1
I0802 06:51:24.039096 24366 net.cpp:425] lstm1_unit_1 <- cont_1_lstm1_cont_slice_0_split_1
I0802 06:51:24.039109 24366 net.cpp:399] lstm1_unit_1 -> c_1
I0802 06:51:24.039125 24366 net.cpp:399] lstm1_unit_1 -> h_1
I0802 06:51:24.039249 24366 net.cpp:141] Setting up lstm1_unit_1
I0802 06:51:24.039268 24366 net.cpp:148] Top shape: 1 1 1000 (1000)
I0802 06:51:24.039279 24366 net.cpp:148] Top shape: 1 1 1000 (1000)
I0802 06:51:24.039288 24366 net.cpp:156] Memory required for data: 86016
I0802 06:51:24.039297 24366 layer_factory.hpp:77] Creating layer lstm1_
I0802 06:51:24.039312 24366 net.cpp:91] Creating Layer lstm1_
I0802 06:51:24.039321 24366 net.cpp:425] lstm1_ <- c_1
I0802 06:51:24.039340 24366 net.cpp:399] lstm1_ -> c_T
I0802 06:51:24.039396 24366 net.cpp:141] Setting up lstm1_
I0802 06:51:24.039409 24366 net.cpp:148] Top shape: 1 1 1000 (1000)
I0802 06:51:24.039417 24366 net.cpp:156] Memory required for data: 90016
I0802 06:51:24.039423 24366 layer_factory.hpp:77] Creating layer lstm1_h_concat
I0802 06:51:24.039438 24366 net.cpp:91] Creating Layer lstm1_h_concat
I0802 06:51:24.039445 24366 net.cpp:425] lstm1_h_concat <- h_1
I0802 06:51:24.039461 24366 net.cpp:399] lstm1_h_concat -> h
I0802 06:51:24.039526 24366 net.cpp:141] Setting up lstm1_h_concat
I0802 06:51:24.039542 24366 net.cpp:148] Top shape: 1 1 1000 (1000)
I0802 06:51:24.039551 24366 net.cpp:156] Memory required for data: 94016
I0802 06:51:24.039561 24366 layer_factory.hpp:77] Creating layer h_pseudoloss
I0802 06:51:24.039582 24366 net.cpp:91] Creating Layer h_pseudoloss
I0802 06:51:24.039593 24366 net.cpp:425] h_pseudoloss <- h
I0802 06:51:24.039608 24366 net.cpp:399] h_pseudoloss -> h_pseudoloss
I0802 06:51:24.039770 24366 net.cpp:141] Setting up h_pseudoloss
…
I0802 06:51:24.039980 24366 net.cpp:219] lstm1_ does not need backward computation.
I0802 06:51:24.039988 24366 net.cpp:261] This network produces output c_T
I0802 06:51:24.039997 24366 net.cpp:261] This network produces output h_pseudoloss
I0802 06:51:24.040063 24366 net.cpp:274] Network initialization done.
I0802 06:51:24.040158 24366 recurrent_layer.cpp:150] Adding parameter 0: W_xc
I0802 06:51:24.040172 24366 recurrent_layer.cpp:150] Adding parameter 1: b_c
I0802 06:51:24.040182 24366 recurrent_layer.cpp:150] Adding parameter 2: W_hc
I0802 06:51:24.040361 24366 net.cpp:141] Setting up lstm1
I0802 06:51:24.040380 24366 net.cpp:148] Top shape: 1 1 1000 (1000)
I0802 06:51:24.040390 24366 net.cpp:156] Memory required for data: 26408
I0802 06:51:24.040416 24366 layer_factory.hpp:77] Creating layer concat
I0802 06:51:24.040434 24366 net.cpp:91] Creating Layer concat
I0802 06:51:24.040446 24366 net.cpp:425] concat <- lstm1
I0802 06:51:24.040458 24366 net.cpp:425] concat <- embedded_input_sentence
I0802 06:51:24.040470 24366 net.cpp:425] concat <- reshaped_stage_indicator
I0802 06:51:24.040484 24366 net.cpp:399] concat -> lstm1_video_sequence
I0802 06:51:24.040578 24366 net.cpp:141] Setting up concat
I0802 06:51:24.040596 24366 net.cpp:148] Top shape: 1 1 1501 (1501)
I0802 06:51:24.040624 24366 net.cpp:156] Memory required for data: 32412
I0802 06:51:24.040647 24366 layer_factory.hpp:77] Creating layer lstm2
I0802 06:51:24.040673 24366 net.cpp:91] Creating Layer lstm2
I0802 06:51:24.040683 24366 net.cpp:425] lstm2 <- lstm1_video_sequence
I0802 06:51:24.040695 24366 net.cpp:425] lstm2 <- cont_sentence_input_1_split_1
I0802 06:51:24.040710 24366 net.cpp:399] lstm2 -> lstm2
I0802 06:51:24.040729 24366 recurrent_layer.cpp:20] Initializing recurrent layer: assuming input batch contains 1 timesteps of 1 independent streams.
I0802 06:51:24.041194 24366 net.cpp:49] Initializing net from parameters: 
layer {
  name: "lstm2_"
  type: "Input"
  top: "x"
  top: "cont"
  input_param {
    shape {
      dim: 1
      dim: 1
      dim: 1501
    }
    shape {
      dim: 1
      dim: 1
    }
  }
}
layer {
  name: "lstm2_"
  type: "Input"
  top: "c_0"
  top: "h_0"
  input_param {
    shape {
      dim: 1
      dim: 1
      dim: 1000
    }
    shape {
      dim: 1
      dim: 1
      dim: 1000
    }
  }
}
layer {
  name: "lstm2_cont_slice"
  type: "Slice"
  bottom: "cont"
  top: "cont_1"
  slice_param {
    axis: 0
  }
}
layer {
  name: "lstm2_x_transform"
  type: "InnerProduct"
  bottom: "x"
  top: "W_xc_x"
  param {
    name: "W_xc"
  }
  param {
    name: "b_c"
  }
  propagate_down: true
  inner_product_param {
    num_output: 4000
    bias_term: true
    weight_filler {
      type: "uniform"
      min: -0.08
      max: 0.08
    }
    bias_filler {
      type: "constant"
      value: 0
    }
    axis: 2
  }
}
layer {
  name: "lstm2_W_xc_x_slice"
  type: "Slice"
  bottom: "W_xc_x"
  top: "W_xc_x_1"
  slice_param {
    axis: 0
  }
}
layer {
  name: "lstm2_h_conted_0"
  type: "Scale"
  bottom: "h_0"
  bottom: "cont_1"
  top: "h_conted_0"
  scale_param {
    axis: 0
  }
}
layer {
  name: "lstm2_transform_1"
  type: "InnerProduct"
  bottom: "h_conted_0"
  top: "W_hc_h_0"
  param {
    name: "W_hc"
  }
  inner_product_param {
    num_output: 4000
    bias_term: false
    weight_filler {
      type: "uniform"
      min: -0.08
      max: 0.08
    }
    axis: 2
  }
}
layer {
  name: "lstm2_gate_input_1"
  type: "Eltwise"
  bottom: "W_hc_h_0"
  bottom: "W_xc_x_1"
  top: "gate_input_1"
  eltwise_param {
    operation: SUM
  }
}
layer {
  name: "lstm2_unit_1"
  type: "LSTMUnit"
  bottom: "c_0"
  bottom: "gate_input_1"
  bottom: "cont_1"
  top: "c_1"
  top: "h_1"
}
layer {
  name: "lstm2_"
  type: "Split"
  bottom: "c_1"
  top: "c_T"
}
layer {
  name: "lstm2_h_concat"
  type: "Concat"
  bottom: "h_1"
  top: "h"
  concat_param {
    axis: 0
  }
}
layer {
  name: "h_pseudoloss"
  type: "Reduction"
  bottom: "h"
  top: "h_pseudoloss"
  loss_weight: 1
}
I0802 06:51:24.041345 24366 layer_factory.hpp:77] Creating layer lstm2_
I0802 06:51:24.041368 24366 net.cpp:91] Creating Layer lstm2_
I0802 06:51:24.041383 24366 net.cpp:399] lstm2_ -> x
I0802 06:51:24.041404 24366 net.cpp:399] lstm2_ -> cont
I0802 06:51:24.041510 24366 net.cpp:141] Setting up lstm2_
I0802 06:51:24.041528 24366 net.cpp:148] Top shape: 1 1 1501 (1501)
I0802 06:51:24.041540 24366 net.cpp:148] Top shape: 1 1 (1)
I0802 06:51:24.041549 24366 net.cpp:156] Memory required for data: 6008
I0802 06:51:24.041559 24366 layer_factory.hpp:77] Creating layer lstm2_
I0802 06:51:24.041576 24366 net.cpp:91] Creating Layer lstm2_
I0802 06:51:24.041590 24366 net.cpp:399] lstm2_ -> c_0
I0802 06:51:24.041611 24366 net.cpp:399] lstm2_ -> h_0
I0802 06:51:24.041713 24366 net.cpp:141] Setting up lstm2_
I0802 06:51:24.041729 24366 net.cpp:148] Top shape: 1 1 1000 (1000)
I0802 06:51:24.041739 24366 net.cpp:148] Top shape: 1 1 1000 (1000)
I0802 06:51:24.041748 24366 net.cpp:156] Memory required for data: 14008
I0802 06:51:24.041755 24366 layer_factory.hpp:77] Creating layer lstm2_cont_slice
I0802 06:51:24.041772 24366 net.cpp:91] Creating Layer lstm2_cont_slice
I0802 06:51:24.041782 24366 net.cpp:425] lstm2_cont_slice <- cont
I0802 06:51:24.041795 24366 net.cpp:399] lstm2_cont_slice -> cont_1
I0802 06:51:24.041862 24366 net.cpp:141] Setting up lstm2_cont_slice
I0802 06:51:24.041879 24366 net.cpp:148] Top shape: 1 1 (1)
I0802 06:51:24.041888 24366 net.cpp:156] Memory required for data: 14012
I0802 06:51:24.041898 24366 layer_factory.hpp:77] Creating layer cont_1_lstm2_cont_slice_0_split
I0802 06:51:24.041913 24366 net.cpp:91] Creating Layer cont_1_lstm2_cont_slice_0_split
I0802 06:51:24.041926 24366 net.cpp:425] cont_1_lstm2_cont_slice_0_split <- cont_1
I0802 06:51:24.041939 24366 net.cpp:399] cont_1_lstm2_cont_slice_0_split -> cont_1_lstm2_cont_slice_0_split_0
I0802 06:51:24.041954 24366 net.cpp:399] cont_1_lstm2_cont_slice_0_split -> cont_1_lstm2_cont_slice_0_split_1
I0802 06:51:24.042047 24366 net.cpp:141] Setting up cont_1_lstm2_cont_slice_0_split
I0802 06:51:24.042064 24366 net.cpp:148] Top shape: 1 1 (1)
I0802 06:51:24.042075 24366 net.cpp:148] Top shape: 1 1 (1)
I0802 06:51:24.042083 24366 net.cpp:156] Memory required for data: 14020
I0802 06:51:24.042093 24366 layer_factory.hpp:77] Creating layer lstm2_x_transform
I0802 06:51:24.042110 24366 net.cpp:91] Creating Layer lstm2_x_transform
I0802 06:51:24.042120 24366 net.cpp:425] lstm2_x_transform <- x
I0802 06:51:24.042140 24366 net.cpp:399] lstm2_x_transform -> W_xc_x
I0802 06:51:24.076336 24376 net.cpp:141] Setting up fc6
I0802 06:51:24.076390 24376 net.cpp:148] Top shape: 10 4096 (40960)
I0802 06:51:24.076396 24376 net.cpp:156] Memory required for data: 67782200
I0802 06:51:24.076412 24376 layer_factory.hpp:77] Creating layer relu6
I0802 06:51:24.076431 24376 net.cpp:91] Creating Layer relu6
I0802 06:51:24.076437 24376 net.cpp:425] relu6 <- fc6
I0802 06:51:24.076449 24376 net.cpp:386] relu6 -> fc6 (in-place)
I0802 06:51:24.076787 24376 net.cpp:141] Setting up relu6
I0802 06:51:24.076798 24376 net.cpp:148] Top shape: 10 4096 (40960)
I0802 06:51:24.076803 24376 net.cpp:156] Memory required for data: 67946040
I0802 06:51:24.076808 24376 layer_factory.hpp:77] Creating layer drop6
I0802 06:51:24.076823 24376 net.cpp:91] Creating Layer drop6
I0802 06:51:24.076828 24376 net.cpp:425] drop6 <- fc6
I0802 06:51:24.076835 24376 net.cpp:386] drop6 -> fc6 (in-place)
I0802 06:51:24.076885 24376 net.cpp:141] Setting up drop6
I0802 06:51:24.076894 24376 net.cpp:148] Top shape: 10 4096 (40960)
I0802 06:51:24.076899 24376 net.cpp:156] Memory required for data: 68109880
I0802 06:51:24.076902 24376 layer_factory.hpp:77] Creating layer fc7
I0802 06:51:24.076915 24376 net.cpp:91] Creating Layer fc7
I0802 06:51:24.076918 24376 net.cpp:425] fc7 <- fc6
I0802 06:51:24.076931 24376 net.cpp:399] fc7 -> fc7
I0802 06:51:24.107141 24366 net.cpp:141] Setting up lstm2_x_transform
I0802 06:51:24.107198 24366 net.cpp:148] Top shape: 1 1 4000 (4000)
I0802 06:51:24.107205 24366 net.cpp:156] Memory required for data: 30020
I0802 06:51:24.107229 24366 layer_factory.hpp:77] Creating layer lstm2_W_xc_x_slice
I0802 06:51:24.107246 24366 net.cpp:91] Creating Layer lstm2_W_xc_x_slice
I0802 06:51:24.107254 24366 net.cpp:425] lstm2_W_xc_x_slice <- W_xc_x
I0802 06:51:24.107264 24366 net.cpp:399] lstm2_W_xc_x_slice -> W_xc_x_1
I0802 06:51:24.107316 24366 net.cpp:141] Setting up lstm2_W_xc_x_slice
I0802 06:51:24.107326 24366 net.cpp:148] Top shape: 1 1 4000 (4000)
I0802 06:51:24.107331 24366 net.cpp:156] Memory required for data: 46020
I0802 06:51:24.107334 24366 layer_factory.hpp:77] Creating layer lstm2_h_conted_0
I0802 06:51:24.107345 24366 net.cpp:91] Creating Layer lstm2_h_conted_0
I0802 06:51:24.107350 24366 net.cpp:425] lstm2_h_conted_0 <- h_0
I0802 06:51:24.107357 24366 net.cpp:425] lstm2_h_conted_0 <- cont_1_lstm2_cont_slice_0_split_0
I0802 06:51:24.107362 24366 net.cpp:399] lstm2_h_conted_0 -> h_conted_0
I0802 06:51:24.107457 24366 net.cpp:141] Setting up lstm2_h_conted_0
I0802 06:51:24.107466 24366 net.cpp:148] Top shape: 1 1 1000 (1000)
I0802 06:51:24.107470 24366 net.cpp:156] Memory required for data: 50020
I0802 06:51:24.107475 24366 layer_factory.hpp:77] Creating layer lstm2_transform_1
I0802 06:51:24.107489 24366 net.cpp:91] Creating Layer lstm2_transform_1
I0802 06:51:24.107494 24366 net.cpp:425] lstm2_transform_1 <- h_conted_0
I0802 06:51:24.107502 24366 net.cpp:399] lstm2_transform_1 -> W_hc_h_0
I0802 06:51:24.123962 24376 net.cpp:141] Setting up fc7
I0802 06:51:24.124023 24376 net.cpp:148] Top shape: 10 4096 (40960)
I0802 06:51:24.124030 24376 net.cpp:156] Memory required for data: 68273720
I0802 06:51:24.124055 24376 layer_factory.hpp:77] Creating layer relu7
I0802 06:51:24.124073 24376 net.cpp:91] Creating Layer relu7
I0802 06:51:24.124080 24376 net.cpp:425] relu7 <- fc7
I0802 06:51:24.124089 24376 net.cpp:386] relu7 -> fc7 (in-place)
I0802 06:51:24.124927 24376 net.cpp:141] Setting up relu7
I0802 06:51:24.124943 24376 net.cpp:148] Top shape: 10 4096 (40960)
I0802 06:51:24.124948 24376 net.cpp:156] Memory required for data: 68437560
I0802 06:51:24.124953 24376 layer_factory.hpp:77] Creating layer drop7
I0802 06:51:24.124964 24376 net.cpp:91] Creating Layer drop7
I0802 06:51:24.124969 24376 net.cpp:425] drop7 <- fc7
I0802 06:51:24.124976 24376 net.cpp:386] drop7 -> fc7 (in-place)
I0802 06:51:24.125020 24376 net.cpp:141] Setting up drop7
I0802 06:51:24.125028 24376 net.cpp:148] Top shape: 10 4096 (40960)
I0802 06:51:24.125032 24376 net.cpp:156] Memory required for data: 68601400
I0802 06:51:24.125036 24376 layer_factory.hpp:77] Creating layer fc8
I0802 06:51:24.125049 24376 net.cpp:91] Creating Layer fc8
I0802 06:51:24.125054 24376 net.cpp:425] fc8 <- fc7
I0802 06:51:24.125061 24376 net.cpp:399] fc8 -> fc8
I0802 06:51:24.136967 24376 net.cpp:141] Setting up fc8
I0802 06:51:24.137017 24376 net.cpp:148] Top shape: 10 1000 (10000)
I0802 06:51:24.137023 24376 net.cpp:156] Memory required for data: 68641400
I0802 06:51:24.137038 24376 layer_factory.hpp:77] Creating layer prob
I0802 06:51:24.137061 24376 net.cpp:91] Creating Layer prob
I0802 06:51:24.137069 24376 net.cpp:425] prob <- fc8
I0802 06:51:24.137082 24376 net.cpp:399] prob -> prob
I0802 06:51:24.137521 24376 net.cpp:141] Setting up prob
I0802 06:51:24.137534 24376 net.cpp:148] Top shape: 10 1000 (10000)
I0802 06:51:24.137538 24376 net.cpp:156] Memory required for data: 68681400
I0802 06:51:24.137543 24376 net.cpp:219] prob does not need backward computation.
I0802 06:51:24.137548 24376 net.cpp:219] fc8 does not need backward computation.
I0802 06:51:24.137553 24376 net.cpp:219] drop7 does not need backward computation.
I0802 06:51:24.137557 24376 net.cpp:219] relu7 does not need backward computation.
…
I0802 06:51:24.137629 24376 net.cpp:219] norm1 does not need backward computation.
I0802 06:51:24.137635 24376 net.cpp:219] pool1 does not need backward computation.
I0802 06:51:24.137640 24376 net.cpp:219] relu1 does not need backward computation.
I0802 06:51:24.137645 24376 net.cpp:219] conv1 does not need backward computation.
I0802 06:51:24.137650 24376 net.cpp:219] data does not need backward computation.
I0802 06:51:24.137653 24376 net.cpp:261] This network produces output prob
I0802 06:51:24.137672 24376 net.cpp:274] Network initialization done.
I0802 06:51:24.147024 24366 net.cpp:141] Setting up lstm2_transform_1
I0802 06:51:24.147070 24366 net.cpp:148] Top shape: 1 1 4000 (4000)
I0802 06:51:24.147075 24366 net.cpp:156] Memory required for data: 66020
I0802 06:51:24.147094 24366 layer_factory.hpp:77] Creating layer lstm2_gate_input_1
I0802 06:51:24.147114 24366 net.cpp:91] Creating Layer lstm2_gate_input_1
I0802 06:51:24.147120 24366 net.cpp:425] lstm2_gate_input_1 <- W_hc_h_0
I0802 06:51:24.147130 24366 net.cpp:425] lstm2_gate_input_1 <- W_xc_x_1
I0802 06:51:24.147136 24366 net.cpp:399] lstm2_gate_input_1 -> gate_input_1
I0802 06:51:24.147188 24366 net.cpp:141] Setting up lstm2_gate_input_1
I0802 06:51:24.147197 24366 net.cpp:148] Top shape: 1 1 4000 (4000)
I0802 06:51:24.147200 24366 net.cpp:156] Memory required for data: 82020
I0802 06:51:24.147205 24366 layer_factory.hpp:77] Creating layer lstm2_unit_1
I0802 06:51:24.147217 24366 net.cpp:91] Creating Layer lstm2_unit_1
I0802 06:51:24.147222 24366 net.cpp:425] lstm2_unit_1 <- c_0
I0802 06:51:24.147228 24366 net.cpp:425] lstm2_unit_1 <- gate_input_1
I0802 06:51:24.147233 24366 net.cpp:425] lstm2_unit_1 <- cont_1_lstm2_cont_slice_0_split_1
I0802 06:51:24.147239 24366 net.cpp:399] lstm2_unit_1 -> c_1
I0802 06:51:24.147248 24366 net.cpp:399] lstm2_unit_1 -> h_1
I0802 06:51:24.147306 24366 net.cpp:141] Setting up lstm2_unit_1
I0802 06:51:24.147315 24366 net.cpp:148] Top shape: 1 1 1000 (1000)
I0802 06:51:24.147320 24366 net.cpp:148] Top shape: 1 1 1000 (1000)
I0802 06:51:24.147325 24366 net.cpp:156] Memory required for data: 90020
I0802 06:51:24.147330 24366 layer_factory.hpp:77] Creating layer lstm2_
I0802 06:51:24.147339 24366 net.cpp:91] Creating Layer lstm2_
I0802 06:51:24.147344 24366 net.cpp:425] lstm2_ <- c_1
I0802 06:51:24.147351 24366 net.cpp:399] lstm2_ -> c_T
I0802 06:51:24.147380 24366 net.cpp:141] Setting up lstm2_
I0802 06:51:24.147388 24366 net.cpp:148] Top shape: 1 1 1000 (1000)
I0802 06:51:24.147392 24366 net.cpp:156] Memory required for data: 94020
I0802 06:51:24.147397 24366 layer_factory.hpp:77] Creating layer lstm2_h_concat
I0802 06:51:24.147409 24366 net.cpp:91] Creating Layer lstm2_h_concat
I0802 06:51:24.147414 24366 net.cpp:425] lstm2_h_concat <- h_1
I0802 06:51:24.147420 24366 net.cpp:399] lstm2_h_concat -> h
I0802 06:51:24.147456 24366 net.cpp:141] Setting up lstm2_h_concat
I0802 06:51:24.147464 24366 net.cpp:148] Top shape: 1 1 1000 (1000)
I0802 06:51:24.147469 24366 net.cpp:156] Memory required for data: 98020
I0802 06:51:24.147472 24366 layer_factory.hpp:77] Creating layer h_pseudoloss
I0802 06:51:24.147481 24366 net.cpp:91] Creating Layer h_pseudoloss
I0802 06:51:24.147486 24366 net.cpp:425] h_pseudoloss <- h
I0802 06:51:24.147495 24366 net.cpp:399] h_pseudoloss -> h_pseudoloss
I0802 06:51:24.147581 24366 net.cpp:141] Setting up h_pseudoloss
…
